…
I0403 15:15:50.634601 11773 net.cpp:313] The NetState phase (1) differed from the phase (0) specified by a rule in layer data
I0403 15:15:50.635740 11773 net.cpp:49] Initializing net from parameters: 
state {
  phase: TEST
}
layer {
  name: "data"
  type: "Data"
  top: "data"
  top: "label"
  include {
    phase: TEST
  }
  transform_param {
    mirror: false
    crop_size: 224
    mean_file: "/home/mohanty/data/final_dataset/lmdb/segmented-40-60/mean.binaryproto"
  }
  data_param {
    source: "/home/mohanty/data/final_dataset/lmdb/segmented-40-60/test_db"
    batch_size: 24
    backend: LMDB
  }
}
layer {
  name: "conv1/7x7_s2"
  type: "Convolution"
  bottom: "data"
  top: "conv1/7x7_s2"
  param {
    lr_mult: 1
    decay_mult: 1
  }
  param {
    lr_mult: 2
    decay_mult: 0
  }
  convolution_param {
    num_output: 64
    pad: 3
    kernel_size: 7
    stride: 2
    weight_filler {
      type: "xavier"
      std: 0.1
    }
    bias_filler {
      type: "constant"
      value: 0.2
    }
  }
}
layer {
  name: "conv1/relu_7x7"
  type: "ReLU"
  bottom: "conv1/7x7_s2"
  top: "conv1/7x7_s2"
}
layer {
  name: "pool1/3x3_s2"
  type: "Pooling"
  bottom: "conv1/7x7_s2"
  top: "pool1/3x3_s2"
  pooling_param {
    pool: MAX
    kernel_size: 3
    stride: 2
  }
}
layer {
  name: "pool1/norm1"
  type: "LRN"
  bottom: "pool1/3x3_s2"
  top: "pool1/norm1"
  lrn_param {
    local_size: 5
    alpha: 0.0001
    beta: 0.75
  }
}
layer {
  name: "conv2/3x3_reduce"
  type: "Convolution"
  bottom: "pool1/norm1"
  top: "conv2/3x3_reduce"
  param {
    lr_mult: 1
    decay_mult: 1
  }
  param {
    lr_mult: 2
    decay_mult: 0
  }
  convolution_param {
    num_output: 64
    kernel_size: 1
    weight_filler {
      type: "xavier"
      std: 0.1
    }
    bias_filler {
      type: "constant"
      value: 0.2
    }
  }
}
layer {
  name: "conv2/relu_3x3_reduce"
  type: "ReLU"
  bottom: "conv2/3x3_reduce"
  top: "conv2/3x3_reduce"
}
layer {
  name: "conv2/3x3"
  type: "Convolution"
  bottom: "conv2/3x3_reduce"
  top: "conv2/3x3"
  param {
    lr_mult: 1
    decay_mult: 1
  }
  param {
    lr_mult: 2
    decay_mult: 0
  }
  convolution_param {
    num_output: 192
    pad: 1
    kernel_size: 3
    weight_filler {
      type: "xavier"
      std: 0.03
    }
    bias_filler {
      type: "constant"
      value: 0.2
    }
  }
}
layer {
  name: "conv2/relu_3x3"
  type: "ReLU"
  bottom: "conv2/3x3"
  top: "conv2/3x3"
}
layer {
  name: "conv2/norm2"
  type: "LRN"
  bottom: "conv2/3x3"
  top: "conv2/norm2"
  lrn_param {
    local_size: 5
    alpha: 0.0001
    beta: 0.75
  }
}
layer {
  name: "pool2/3x3_s2"
  type: "Pooling"
  bottom: "conv2/norm2"
  top: "pool2/3x3_s2"
  pooling_param {
    pool: MAX
    kernel_size: 3
    stride: 2
  }
}
layer {
  name: "inception_3a/1x1"
  type: "Convolution"
  bottom: "pool2/3x3_s2"
  top: "inception_3a/1x1"
  param {
    lr_mult: 1
    decay_mult: 1
  }
  param {
    lr_mult: 2
    decay_mult: 0
  }
  convolution_param {
    num_output: 64
    kernel_size: 1
    weight_filler {
      type: "xavier"
      std: 0.03
    }
    bias_filler {
      type: "constant"
      value: 0.2
    }
  }
}
layer {
  name: "inception_3a/relu_1x1"
  type: "ReLU"
  bottom: "inception_3a/1x1"
  top: "inception_3a/1x1"
}
layer {
  name: "inception_3a/3x3_reduce"
  type: "Convolution"
  bottom: "pool2/3x3_s2"
  top: "inception_3a/3x3_reduce"
  param {
    lr_mult: 1
    decay_mult: 1
  }
  param {
    lr_mult: 2
    decay_mult: 0
  }
  convolution_param {
    num_output: 96
    kernel_size: 1
    weight_filler {
      type: "xavier"
      std: 0.09
    }
    bias_filler {
      type: "constant"
      value: 0.2
    }
  }
}
layer {
  name: "inception_3a/relu_3x3_reduce"
  type: "ReLU"
  bottom: "inception_3a/3x3_reduce"
  top: "inception_3a/3x3_reduce"
}
layer {
  name: "inception_3a/3x3"
  type: "Convolution"
  bottom: "inception_3a/3x3_reduce"
  top: "inception_3a/3x3"
  param {
    lr_mult: 1
    decay_mult: 1
  }
  param {
    lr_mult: 2
    decay_mult: 0
  }
  convolution_param {
    num_output: 128
    pad: 1
    kernel_size: 3
    weight_filler {
      type: "xavier"
      std: 0.03
    }
    bias_filler {
      type: "constant"
      value: 0.2
    }
  }
}
layer {
  name: "inception_3a/relu_3x3"
  type: "ReLU"
  bottom: "inception_3a/3x3"
  top: "inception_3a/3x3"
}
layer {
  name: "inception_3a/5x5_reduce"
  type: "Convolution"
  bottom: "pool2/3x3_s2"
  top: "inception_3a/5x5_reduce"
  param {
    lr_mult: 1
    decay_mult: 1
  }
  param {
    lr_mult: 2
    decay_mult: 0
  }
  convolution_param {
    num_output: 16
    kernel_size: 1
    weight_filler {
      type: "xavier"
      std: 0.2
    }
    bias_filler {
      type: "constant"
      value: 0.2
    }
  }
}
layer {
  name: "inception_3a/relu_5x5_reduce"
  type: "ReLU"
  bottom: "inception_3a/5x5_reduce"
  top: "inception_3a/5x5_reduce"
}
layer {
  name: "inception_3a/5x5"
  type: "Convolution"
  bottom: "inception_3a/5x5_reduce"
  top: "inception_3a/5x5"
  param {
    lr_mult: 1
    decay_mult: 1
  }
  param {
    lr_mult: 2
    decay_mult: 0
  }
  convolution_param {
    num_output: 32
    pad: 2
    kernel_size: 5
    weight_filler {
      type: "xavier"
      std: 0.03
    }
    bias_filler {
      type: "constant"
      value: 0.2
    }
  }
}
layer {
  name: "inception_3a/relu_5x5"
  type: "ReLU"
  bottom: "inception_3a/5x5"
  top: "inception_3a/5x5"
}
layer {
  name: "inception_3a/pool"
  type: "Pooling"
  bottom: "pool2/3x3_s2"
  top: "inception_3a/pool"
  pooling_param {
    pool: MAX
    kernel_size: 3
    stride: 1
    pad: 1
  }
}
layer {
  name: "inception_3a/pool_proj"
  type: "Convolution"
  bottom: "inception_3a/pool"
  top: "inception_3a/pool_proj"
  param {
    lr_mult: 1
    decay_mult: 1
  }
  param {
    lr_mult: 2
    decay_mult: 0
  }
  convolution_param {
    num_output: 32
    kernel_size: 1
    weight_filler {
      type: "xavier"
      std: 0.1
    }
    bias_filler {
      type: "constant"
      value: 0.2
    }
  }
}
layer {
  name: "inception_3a/relu_pool_proj"
  type: "ReLU"
  bottom: "inception_3a/pool_proj"
  top: "inception_3a/pool_proj"
}
layer {
  name: "inception_3a/output"
  type: "Concat"
  bottom: "inception_3a/1x1"
  bottom: "inception_3a/3x3"
  bottom: "inception_3a/5x5"
  bottom: "inception_3a/pool_proj"
  top: "inception_3a/output"
}
layer {
  name: "inception_3b/1x1"
  type: "Convolution"
  bottom: "inception_3a/output"
  top: "inception_3b/1x1"
  param {
    lr_mult: 1
    decay_mult: 1
  }
  param {
    lr_mult: 2
    decay_mult: 0
  }
  convolution_param {
    num_output: 128
    kernel_size: 1
    weight_filler {
      type: "xavier"
      std: 0.03
    }
    bias_filler {
      type: "constant"
      value: 0.2
    }
  }
}
layer {
  name: "inception_3b/relu_1x1"
  type: "ReLU"
  bottom: "inception_3b/1x1"
  top: "inception_3b/1x1"
}
layer {
  name: "inception_3b/3x3_reduce"
  type: "Convolution"
  bottom: "inception_3a/output"
  top: "inception_3b/3x3_reduce"
  param {
    lr_mult: 1
    decay_mult: 1
  }
  param {
    lr_mult: 2
    decay_mult: 0
  }
  convolution_param {
    num_output: 128
    kernel_size: 1
    weight_filler {
      type: "xavier"
      std: 0.09
    }
    bias_filler {
      type: "constant"
      value: 0.2
    }
  }
}
layer {
  name: "inception_3b/relu_3x3_reduce"
  type: "ReLU"
  bottom: "inception_3b/3x3_reduce"
  top: "inception_3b/3x3_reduce"
}
layer {
  name: "inception_3b/3x3"
  type: "Convolution"
  bottom: "inception_3b/3x3_reduce"
  top: "inception_3b/3x3"
  param {
    lr_mult: 1
    decay_mult: 1
  }
  param {
    lr_mult: 2
    decay_mult: 0
  }
  convolution_param {
    num_output: 192
    pad: 1
    kernel_size: 3
    weight_filler {
      type: "xavier"
      std: 0.03
    }
    bias_filler {
      type: "constant"
      value: 0.2
    }
  }
}
layer {
  name: "inception_3b/relu_3x3"
  type: "ReLU"
  bottom: "inception_3b/3x3"
  top: "inception_3b/3x3"
}
layer {
  name: "inception_3b/5x5_reduce"
  type: "Convolution"
  bottom: "inception_3a/output"
  top: "inception_3b/5x5_reduce"
  param {
    lr_mult: 1
    decay_mult: 1
  }
  param {
    lr_mult: 2
    decay_mult: 0
  }
  convolution_param {
    num_output: 32
    kernel_size: 1
    weight_filler {
      type: "xavier"
      std: 0.2
    }
    bias_filler {
      type: "constant"
      value: 0.2
    }
  }
}
layer {
  name: "inception_3b/relu_5x5_reduce"
  type: "ReLU"
  bottom: "inception_3b/5x5_reduce"
  top: "inception_3b/5x5_reduce"
}
layer {
  name: "inception_3b/5x5"
  type: "Convolution"
  bottom: "inception_3b/5x5_reduce"
  top: "inception_3b/5x5"
  param {
    lr_mult: 1
    decay_mult: 1
  }
  param {
    lr_mult: 2
    decay_mult: 0
  }
  convolution_param {
    num_output: 96
    pad: 2
    kernel_size: 5
    weight_filler {
      type: "xavier"
      std: 0.03
    }
    bias_filler {
      type: "constant"
      value: 0.2
    }
  }
}
layer {
  name: "inception_3b/relu_5x5"
  type: "ReLU"
  bottom: "inception_3b/5x5"
  top: "inception_3b/5x5"
}
layer {
  name: "inception_3b/pool"
  type: "Pooling"
  bottom: "inception_3a/output"
  top: "inception_3b/pool"
  pooling_param {
    pool: MAX
    kernel_size: 3
    stride: 1
    pad: 1
  }
}
layer {
  name: "inception_3b/pool_proj"
  type: "Convolution"
  bottom: "inception_3b/pool"
  top: "inception_3b/pool_proj"
  param {
    lr_mult: 1
    decay_mult: 1
  }
  param {
    lr_mult: 2
    decay_mult: 0
  }
  convolution_param {
    num_output: 64
    kernel_size: 1
    weight_filler {
      type: "xavier"
      std: 0.1
    }
    bias_filler {
      type: "constant"
      value: 0.2
    }
  }
}
layer {
  name: "inception_3b/relu_pool_proj"
  type: "ReLU"
  bottom: "inception_3b/pool_proj"
  top: "inception_3b/pool_proj"
}
layer {
  name: "inception_3b/output"
  type: "Concat"
  bottom: "inception_3b/1x1"
  bottom: "inception_3b/3x3"
  bottom: "inception_3b/5x5"
  bottom: "inception_3b/pool_proj"
  top: "inception_3b/output"
}
layer {
  name: "pool3/3x3_s2"
  type: "Pooling"
  bottom: "inception_3b/output"
  top: "pool3/3x3_s2"
  pooling_param {
    pool: MAX
    kernel_size: 3
    stride: 2
  }
}
layer {
  name: "inception_4a/1x1"
  type: "Convolution"
  bottom: "pool3/3x3_s2"
  top: "inception_4a/1x1"
  param {
    lr_mult: 1
    decay_mult: 1
  }
  param {
    lr_mult: 2
    decay_mult: 0
  }
  convolution_param {
    num_output: 192
    kernel_size: 1
    weight_filler {
      type: "xavier"
      std: 0.03
    }
    bias_filler {
      type: "constant"
      value: 0.2
    }
  }
}
layer {
  name: "inception_4a/relu_1x1"
  type: "ReLU"
  bottom: "inception_4a/1x1"
  top: "inception_4a/1x1"
}
layer {
  name: "inception_4a/3x3_reduce"
  type: "Convolution"
  bottom: "pool3/3x3_s2"
  top: "inception_4a/3x3_reduce"
  param {
    lr_mult: 1
    decay_mult: 1
  }
  param {
    lr_mult: 2
    decay_mult: 0
  }
  convolution_param {
    num_output: 96
    kernel_size: 1
    weight_filler {
      type: "xavier"
      std: 0.09
    }
    bias_filler {
      type: "constant"
      value: 0.2
    }
  }
}
layer {
  name: "inception_4a/relu_3x3_reduce"
  type: "ReLU"
  bottom: "inception_4a/3x3_reduce"
  top: "inception_4a/3x3_reduce"
}
layer {
  name: "inception_4a/3x3"
  type: "Convolution"
  bottom: "inception_4a/3x3_reduce"
  top: "inception_4a/3x3"
  param {
    lr_mult: 1
    decay_mult: 1
  }
  param {
    lr_mult: 2
    decay_mult: 0
  }
  convolution_param {
    num_output: 208
    pad: 1
    kernel_size: 3
    weight_filler {
      type: "xavier"
      std: 0.03
    }
    bias_filler {
      type: "constant"
      value: 0.2
    }
  }
}
layer {
  name: "inception_4a/relu_3x3"
  type: "ReLU"
  bottom: "inception_4a/3x3"
  top: "inception_4a/3x3"
}
layer {
  name: "inception_4a/5x5_reduce"
  type: "Convolution"
  bottom: "pool3/3x3_s2"
  top: "inception_4a/5x5_reduce"
  param {
    lr_mult: 1
    decay_mult: 1
  }
  param {
    lr_mult: 2
    decay_mult: 0
  }
  convolution_param {
    num_output: 16
    kernel_size: 1
    weight_filler {
      type: "xavier"
      std: 0.2
    }
    bias_filler {
      type: "constant"
      value: 0.2
    }
  }
}
layer {
  name: "inception_4a/relu_5x5_reduce"
  type: "ReLU"
  bottom: "inception_4a/5x5_reduce"
  top: "inception_4a/5x5_reduce"
}
layer {
  name: "inception_4a/5x5"
  type: "Convolution"
  bottom: "inception_4a/5x5_reduce"
  top: "inception_4a/5x5"
  param {
    lr_mult: 1
    decay_mult: 1
  }
  param {
    lr_mult: 2
    decay_mult: 0
  }
  convolution_param {
    num_output: 48
    pad: 2
    kernel_size: 5
    weight_filler {
      type: "xavier"
      std: 0.03
    }
    bias_filler {
      type: "constant"
      value: 0.2
    }
  }
}
layer {
  name: "inception_4a/relu_5x5"
  type: "ReLU"
  bottom: "inception_4a/5x5"
  top: "inception_4a/5x5"
}
layer {
  name: "inception_4a/pool"
  type: "Pooling"
  bottom: "pool3/3x3_s2"
  top: "inception_4a/pool"
  pooling_param {
    pool: MAX
    kernel_size: 3
    stride: 1
    pad: 1
  }
}
layer {
  name: "inception_4a/pool_proj"
  type: "Convolution"
  bottom: "inception_4a/pool"
  top: "inception_4a/pool_proj"
  param {
    lr_mult: 1
    decay_mult: 1
  }
  param {
    lr_mult: 2
    decay_mult: 0
  }
  convolution_param {
    num_output: 64
    kernel_size: 1
    weight_filler {
      type: "xavier"
      std: 0.1
    }
    bias_filler {
      type: "constant"
      value: 0.2
    }
  }
}
layer {
  name: "inception_4a/relu_pool_proj"
  type: "ReLU"
  bottom: "inception_4a/pool_proj"
  top: "inception_4a/pool_proj"
}
layer {
  name: "inception_4a/output"
  type: "Concat"
  bottom: "inception_4a/1x1"
  bottom: "inception_4a/3x3"
  bottom: "inception_4a/5x5"
  bottom: "inception_4a/pool_proj"
  top: "inception_4a/output"
}
layer {
  name: "loss1/ave_pool"
  type: "Pooling"
  bottom: "inception_4a/output"
  top: "loss1/ave_pool"
  pooling_param {
    pool: AVE
    kernel_size: 5
    stride: 3
  }
}
layer {
  name: "loss1/conv"
  type: "Convolution"
  bottom: "loss1/ave_pool"
  top: "loss1/conv"
  param {
    lr_mult: 1
    decay_mult: 1
  }
  param {
    lr_mult: 2
    decay_mult: 0
  }
  convolution_param {
    num_output: 128
    kernel_size: 1
    weight_filler {
      type: "xavier"
      std: 0.08
    }
    bias_filler {
      type: "constant"
      value: 0.2
    }
  }
}
layer {
  name: "loss1/relu_conv"
  type: "ReLU"
  bottom: "loss1/conv"
  top: "loss1/conv"
}
layer {
  name: "loss1/fc"
  type: "InnerProduct"
  bottom: "loss1/conv"
  top: "loss1/fc"
  param {
    lr_mult: 1
    decay_mult: 1
  }
  param {
    lr_mult: 2
    decay_mult: 0
  }
  inner_product_param {
    num_output: 1024
    weight_filler {
      type: "xavier"
      std: 0.02
    }
    bias_filler {
      type: "constant"
      value: 0.2
    }
  }
}
layer {
  name: "loss1/relu_fc"
  type: "ReLU"
  bottom: "loss1/fc"
  top: "loss1/fc"
}
layer {
  name: "loss1/drop_fc"
  type: "Dropout"
  bottom: "loss1/fc"
  top: "loss1/fc"
  dropout_param {
    dropout_ratio: 0.7
  }
}
layer {
  name: "loss1/classifier_plantvillage"
  type: "InnerProduct"
  bottom: "loss1/fc"
  top: "loss1/classifier_plantvillage"
  param {
    lr_mult: 1
    decay_mult: 1
  }
  param {
    lr_mult: 2
    decay_mult: 0
  }
  inner_product_param {
    num_output: 38
    weight_filler {
      type: "xavier"
      std: 0.0009765625
    }
    bias_filler {
      type: "constant"
      value: 0
    }
  }
}
layer {
  name: "inception_4b/1x1"
  type: "Convolution"
  bottom: "inception_4a/output"
  top: "inception_4b/1x1"
  param {
    lr_mult: 1
    decay_mult: 1
  }
  param {
    lr_mult: 2
    decay_mult: 0
  }
  convolution_param {
    num_output: 160
    kernel_size: 1
    weight_filler {
      type: "xavier"
      std: 0.03
    }
    bias_filler {
      type: "constant"
      value: 0.2
    }
  }
}
layer {
  name: "inception_4b/relu_1x1"
  type: "ReLU"
  bottom: "inception_4b/1x1"
  top: "inception_4b/1x1"
}
layer {
  name: "inception_4b/3x3_reduce"
  type: "Convolution"
  bottom: "inception_4a/output"
  top: "inception_4b/3x3_reduce"
  param {
    lr_mult: 1
    decay_mult: 1
  }
  param {
    lr_mult: 2
    decay_mult: 0
  }
  convolution_param {
    num_output: 112
    kernel_size: 1
    weight_filler {
      type: "xavier"
      std: 0.09
    }
    bias_filler {
      type: "constant"
      value: 0.2
    }
  }
}
layer {
  name: "inception_4b/relu_3x3_reduce"
  type: "ReLU"
  bottom: "inception_4b/3x3_reduce"
  top: "inception_4b/3x3_reduce"
}
layer {
  name: "inception_4b/3x3"
  type: "Convolution"
  bottom: "inception_4b/3x3_reduce"
  top: "inception_4b/3x3"
  param {
    lr_mult: 1
    decay_mult: 1
  }
  param {
    lr_mult: 2
    decay_mult: 0
  }
  convolution_param {
    num_output: 224
    pad: 1
    kernel_size: 3
    weight_filler {
      type: "xavier"
      std: 0.03
    }
    bias_filler {
      type: "constant"
      value: 0.2
    }
  }
}
layer {
  name: "inception_4b/relu_3x3"
  type: "ReLU"
  bottom: "inception_4b/3x3"
  top: "inception_4b/3x3"
}
layer {
  name: "inception_4b/5x5_reduce"
  type: "Convolution"
  bottom: "inception_4a/output"
  top: "inception_4b/5x5_reduce"
  param {
    lr_mult: 1
    decay_mult: 1
  }
  param {
    lr_mult: 2
    decay_mult: 0
  }
  convolution_param {
    num_output: 24
    kernel_size: 1
    weight_filler {
      type: "xavier"
      std: 0.2
    }
    bias_filler {
      type: "constant"
      value: 0.2
    }
  }
}
layer {
  name: "inception_4b/relu_5x5_reduce"
  type: "ReLU"
  bottom: "inception_4b/5x5_reduce"
  top: "inception_4b/5x5_reduce"
}
layer {
  name: "inception_4b/5x5"
  type: "Convolution"
  bottom: "inception_4b/5x5_reduce"
  top: "inception_4b/5x5"
  param {
    lr_mult: 1
    decay_mult: 1
  }
  param {
    lr_mult: 2
    decay_mult: 0
  }
  convolution_param {
    num_output: 64
    pad: 2
    kernel_size: 5
    weight_filler {
      type: "xavier"
      std: 0.03
    }
    bias_filler {
      type: "constant"
      value: 0.2
    }
  }
}
layer {
  name: "inception_4b/relu_5x5"
  type: "ReLU"
  bottom: "inception_4b/5x5"
  top: "inception_4b/5x5"
}
layer {
  name: "inception_4b/pool"
  type: "Pooling"
  bottom: "inception_4a/output"
  top: "inception_4b/pool"
  pooling_param {
    pool: MAX
    kernel_size: 3
    stride: 1
    pad: 1
  }
}
layer {
  name: "inception_4b/pool_proj"
  type: "Convolution"
  bottom: "inception_4b/pool"
  top: "inception_4b/pool_proj"
  param {
    lr_mult: 1
    decay_mult: 1
  }
  param {
    lr_mult: 2
    decay_mult: 0
  }
  convolution_param {
    num_output: 64
    kernel_size: 1
    weight_filler {
      type: "xavier"
      std: 0.1
    }
    bias_filler {
      type: "constant"
      value: 0.2
    }
  }
}
layer {
  name: "inception_4b/relu_pool_proj"
  type: "ReLU"
  bottom: "inception_4b/pool_proj"
  top: "inception_4b/pool_proj"
}
layer {
  name: "inception_4b/output"
  type: "Concat"
  bottom: "inception_4b/1x1"
  bottom: "inception_4b/3x3"
  bottom: "inception_4b/5x5"
  bottom: "inception_4b/pool_proj"
  top: "inception_4b/output"
}
layer {
  name: "inception_4c/1x1"
  type: "Convolution"
  bottom: "inception_4b/output"
  top: "inception_4c/1x1"
  param {
    lr_mult: 1
    decay_mult: 1
  }
  param {
    lr_mult: 2
    decay_mult: 0
  }
  convolution_param {
    num_output: 128
    kernel_size: 1
    weight_filler {
      type: "xavier"
      std: 0.03
    }
    bias_filler {
      type: "constant"
      value: 0.2
    }
  }
}
layer {
  name: "inception_4c/relu_1x1"
  type: "ReLU"
  bottom: "inception_4c/1x1"
  top: "inception_4c/1x1"
}
layer {
  name: "inception_4c/3x3_reduce"
  type: "Convolution"
  bottom: "inception_4b/output"
  top: "inception_4c/3x3_reduce"
  param {
    lr_mult: 1
    decay_mult: 1
  }
  param {
    lr_mult: 2
    decay_mult: 0
  }
  convolution_param {
    num_output: 128
    kernel_size: 1
    weight_filler {
      type: "xavier"
      std: 0.09
    }
    bias_filler {
      type: "constant"
      value: 0.2
    }
  }
}
layer {
  name: "inception_4c/relu_3x3_reduce"
  type: "ReLU"
  bottom: "inception_4c/3x3_reduce"
  top: "inception_4c/3x3_reduce"
}
layer {
  name: "inception_4c/3x3"
  type: "Convolution"
  bottom: "inception_4c/3x3_reduce"
  top: "inception_4c/3x3"
  param {
    lr_mult: 1
    decay_mult: 1
  }
  param {
    lr_mult: 2
    decay_mult: 0
  }
  convolution_param {
    num_output: 256
    pad: 1
    kernel_size: 3
    weight_filler {
      type: "xavier"
      std: 0.03
    }
    bias_filler {
      type: "constant"
      value: 0.2
    }
  }
}
layer {
  name: "inception_4c/relu_3x3"
  type: "ReLU"
  bottom: "inception_4c/3x3"
  top: "inception_4c/3x3"
}
layer {
  name: "inception_4c/5x5_reduce"
  type: "Convolution"
  bottom: "inception_4b/output"
  top: "inception_4c/5x5_reduce"
  param {
    lr_mult: 1
    decay_mult: 1
  }
  param {
    lr_mult: 2
    decay_mult: 0
  }
  convolution_param {
    num_output: 24
    kernel_size: 1
    weight_filler {
      type: "xavier"
      std: 0.2
    }
    bias_filler {
      type: "constant"
      value: 0.2
    }
  }
}
layer {
  name: "inception_4c/relu_5x5_reduce"
  type: "ReLU"
  bottom: "inception_4c/5x5_reduce"
  top: "inception_4c/5x5_reduce"
}
layer {
  name: "inception_4c/5x5"
  type: "Convolution"
  bottom: "inception_4c/5x5_reduce"
  top: "inception_4c/5x5"
  param {
    lr_mult: 1
    decay_mult: 1
  }
  param {
    lr_mult: 2
    decay_mult: 0
  }
  convolution_param {
    num_output: 64
    pad: 2
    kernel_size: 5
    weight_filler {
      type: "xavier"
      std: 0.03
    }
    bias_filler {
      type: "constant"
      value: 0.2
    }
  }
}
layer {
  name: "inception_4c/relu_5x5"
  type: "ReLU"
  bottom: "inception_4c/5x5"
  top: "inception_4c/5x5"
}
layer {
  name: "inception_4c/pool"
  type: "Pooling"
  bottom: "inception_4b/output"
  top: "inception_4c/pool"
  pooling_param {
    pool: MAX
    kernel_size: 3
    stride: 1
    pad: 1
  }
}
layer {
  name: "inception_4c/pool_proj"
  type: "Convolution"
  bottom: "inception_4c/pool"
  top: "inception_4c/pool_proj"
  param {
    lr_mult: 1
    decay_mult: 1
  }
  param {
    lr_mult: 2
    decay_mult: 0
  }
  convolution_param {
    num_output: 64
    kernel_size: 1
    weight_filler {
      type: "xavier"
      std: 0.1
    }
    bias_filler {
      type: "constant"
      value: 0.2
    }
  }
}
layer {
  name: "inception_4c/relu_pool_proj"
  type: "ReLU"
  bottom: "inception_4c/pool_proj"
  top: "inception_4c/pool_proj"
}
layer {
  name: "inception_4c/output"
  type: "Concat"
  bottom: "inception_4c/1x1"
  bottom: "inception_4c/3x3"
  bottom: "inception_4c/5x5"
  bottom: "inception_4c/pool_proj"
  top: "inception_4c/output"
}
layer {
  name: "inception_4d/1x1"
  type: "Convolution"
  bottom: "inception_4c/output"
  top: "inception_4d/1x1"
  param {
    lr_mult: 1
    decay_mult: 1
  }
  param {
    lr_mult: 2
    decay_mult: 0
  }
  convolution_param {
    num_output: 112
    kernel_size: 1
    weight_filler {
      type: "xavier"
      std: 0.03
    }
    bias_filler {
      type: "constant"
      value: 0.2
    }
  }
}
layer {
  name: "inception_4d/relu_1x1"
  type: "ReLU"
  bottom: "inception_4d/1x1"
  top: "inception_4d/1x1"
}
layer {
  name: "inception_4d/3x3_reduce"
  type: "Convolution"
  bottom: "inception_4c/output"
  top: "inception_4d/3x3_reduce"
  param {
    lr_mult: 1
    decay_mult: 1
  }
  param {
    lr_mult: 2
    decay_mult: 0
  }
  convolution_param {
    num_output: 144
    kernel_size: 1
    weight_filler {
      type: "xavier"
      std: 0.09
    }
    bias_filler {
      type: "constant"
      value: 0.2
    }
  }
}
layer {
  name: "inception_4d/relu_3x3_reduce"
  type: "ReLU"
  bottom: "inception_4d/3x3_reduce"
  top: "inception_4d/3x3_reduce"
}
layer {
  name: "inception_4d/3x3"
  type: "Convolution"
  bottom: "inception_4d/3x3_reduce"
  top: "inception_4d/3x3"
  param {
    lr_mult: 1
    decay_mult: 1
  }
  param {
    lr_mult: 2
    decay_mult: 0
  }
  convolution_param {
    num_output: 288
    pad: 1
    kernel_size: 3
    weight_filler {
      type: "xavier"
      std: 0.03
    }
    bias_filler {
      type: "constant"
      value: 0.2
    }
  }
}
layer {
  name: "inception_4d/relu_3x3"
  type: "ReLU"
  bottom: "inception_4d/3x3"
  top: "inception_4d/3x3"
}
layer {
  name: "inception_4d/5x5_reduce"
  type: "Convolution"
  bottom: "inception_4c/output"
  top: "inception_4d/5x5_reduce"
  param {
    lr_mult: 1
    decay_mult: 1
  }
  param {
    lr_mult: 2
    decay_mult: 0
  }
  convolution_param {
    num_output: 32
    kernel_size: 1
    weight_filler {
      type: "xavier"
      std: 0.2
    }
    bias_filler {
      type: "constant"
      value: 0.2
    }
  }
}
layer {
  name: "inception_4d/relu_5x5_reduce"
  type: "ReLU"
  bottom: "inception_4d/5x5_reduce"
  top: "inception_4d/5x5_reduce"
}
layer {
  name: "inception_4d/5x5"
  type: "Convolution"
  bottom: "inception_4d/5x5_reduce"
  top: "inception_4d/5x5"
  param {
    lr_mult: 1
    decay_mult: 1
  }
  param {
    lr_mult: 2
    decay_mult: 0
  }
  convolution_param {
    num_output: 64
    pad: 2
    kernel_size: 5
    weight_filler {
      type: "xavier"
      std: 0.03
    }
    bias_filler {
      type: "constant"
      value: 0.2
    }
  }
}
layer {
  name: "inception_4d/relu_5x5"
  type: "ReLU"
  bottom: "inception_4d/5x5"
  top: "inception_4d/5x5"
}
layer {
  name: "inception_4d/pool"
  type: "Pooling"
  bottom: "inception_4c/output"
  top: "inception_4d/pool"
  pooling_param {
    pool: MAX
    kernel_size: 3
    stride: 1
    pad: 1
  }
}
layer {
  name: "inception_4d/pool_proj"
  type: "Convolution"
  bottom: "inception_4d/pool"
  top: "inception_4d/pool_proj"
  param {
    lr_mult: 1
    decay_mult: 1
  }
  param {
    lr_mult: 2
    decay_mult: 0
  }
  convolution_param {
    num_output: 64
    kernel_size: 1
    weight_filler {
      type: "xavier"
      std: 0.1
    }
    bias_filler {
      type: "constant"
      value: 0.2
    }
  }
}
layer {
  name: "inception_4d/relu_pool_proj"
  type: "ReLU"
  bottom: "inception_4d/pool_proj"
  top: "inception_4d/pool_proj"
}
layer {
  name: "inception_4d/output"
  type: "Concat"
  bottom: "inception_4d/1x1"
  bottom: "inception_4d/3x3"
  bottom: "inception_4d/5x5"
  bottom: "inception_4d/pool_proj"
  top: "inception_4d/output"
}
layer {
  name: "loss2/ave_pool"
  type: "Pooling"
  bottom: "inception_4d/output"
  top: "loss2/ave_pool"
  pooling_param {
    pool: AVE
    kernel_size: 5
    stride: 3
  }
}
layer {
  name: "loss2/conv"
  type: "Convolution"
  bottom: "loss2/ave_pool"
  top: "loss2/conv"
  param {
    lr_mult: 1
    decay_mult: 1
  }
  param {
    lr_mult: 2
    decay_mult: 0
  }
  convolution_param {
    num_output: 128
    kernel_size: 1
    weight_filler {
      type: "xavier"
      std: 0.08
    }
    bias_filler {
      type: "constant"
      value: 0.2
    }
  }
}
layer {
  name: "loss2/relu_conv"
  type: "ReLU"
  bottom: "loss2/conv"
  top: "loss2/conv"
}
layer {
  name: "loss2/fc"
  type: "InnerProduct"
  bottom: "loss2/conv"
  top: "loss2/fc"
  param {
    lr_mult: 1
    decay_mult: 1
  }
  param {
    lr_mult: 2
    decay_mult: 0
  }
  inner_product_param {
    num_output: 1024
    weight_filler {
      type: "xavier"
      std: 0.02
    }
    bias_filler {
      type: "constant"
      value: 0.2
    }
  }
}
layer {
  name: "loss2/relu_fc"
  type: "ReLU"
  bottom: "loss2/fc"
  top: "loss2/fc"
}
layer {
  name: "loss2/drop_fc"
  type: "Dropout"
  bottom: "loss2/fc"
  top: "loss2/fc"
  dropout_param {
    dropout_ratio: 0.7
  }
}
layer {
  name: "loss2/classifier_plantvillage"
  type: "InnerProduct"
  bottom: "loss2/fc"
  top: "loss2/classifier_plantvillage"
  param {
    lr_mult: 1
    decay_mult: 1
  }
  param {
    lr_mult: 2
    decay_mult: 0
  }
  inner_product_param {
    num_output: 38
    weight_filler {
      type: "xavier"
      std: 0.0009765625
    }
    bias_filler {
      type: "constant"
      value: 0
    }
  }
}
layer {
  name: "inception_4e/1x1"
  type: "Convolution"
  bottom: "inception_4d/output"
  top: "inception_4e/1x1"
  param {
    lr_mult: 1
    decay_mult: 1
  }
  param {
    lr_mult: 2
    decay_mult: 0
  }
  convolution_param {
    num_output: 256
    kernel_size: 1
    weight_filler {
      type: "xavier"
      std: 0.03
    }
    bias_filler {
      type: "constant"
      value: 0.2
    }
  }
}
layer {
  name: "inception_4e/relu_1x1"
  type: "ReLU"
  bottom: "inception_4e/1x1"
  top: "inception_4e/1x1"
}
layer {
  name: "inception_4e/3x3_reduce"
  type: "Convolution"
  bottom: "inception_4d/output"
  top: "inception_4e/3x3_reduce"
  param {
    lr_mult: 1
    decay_mult: 1
  }
  param {
    lr_mult: 2
    decay_mult: 0
  }
  convolution_param {
    num_output: 160
    kernel_size: 1
    weight_filler {
      type: "xavier"
      std: 0.09
    }
    bias_filler {
      type: "constant"
      value: 0.2
    }
  }
}
layer {
  name: "inception_4e/relu_3x3_reduce"
  type: "ReLU"
  bottom: "inception_4e/3x3_reduce"
  top: "inception_4e/3x3_reduce"
}
layer {
  name: "inception_4e/3x3"
  type: "Convolution"
  bottom: "inception_4e/3x3_reduce"
  top: "inception_4e/3x3"
  param {
    lr_mult: 1
    decay_mult: 1
  }
  param {
    lr_mult: 2
    decay_mult: 0
  }
  convolution_param {
    num_output: 320
    pad: 1
    kernel_size: 3
    weight_filler {
      type: "xavier"
      std: 0.03
    }
    bias_filler {
      type: "constant"
      value: 0.2
    }
  }
}
layer {
  name: "inception_4e/relu_3x3"
  type: "ReLU"
  bottom: "inception_4e/3x3"
  top: "inception_4e/3x3"
}
layer {
  name: "inception_4e/5x5_reduce"
  type: "Convolution"
  bottom: "inception_4d/output"
  top: "inception_4e/5x5_reduce"
  param {
    lr_mult: 1
    decay_mult: 1
  }
  param {
    lr_mult: 2
    decay_mult: 0
  }
  convolution_param {
    num_output: 32
    kernel_size: 1
    weight_filler {
      type: "xavier"
      std: 0.2
    }
    bias_filler {
      type: "constant"
      value: 0.2
    }
  }
}
layer {
  name: "inception_4e/relu_5x5_reduce"
  type: "ReLU"
  bottom: "inception_4e/5x5_reduce"
  top: "inception_4e/5x5_reduce"
}
layer {
  name: "inception_4e/5x5"
  type: "Convolution"
  bottom: "inception_4e/5x5_reduce"
  top: "inception_4e/
I0403 15:15:50.636950 11773 layer_factory.hpp:77] Creating layer data
I0403 15:15:50.637558 11773 net.cpp:91] Creating Layer data
I0403 15:15:50.637588 11773 net.cpp:399] data -> data
I0403 15:15:50.637641 11773 net.cpp:399] data -> label
I0403 15:15:50.637678 11773 data_transformer.cpp:25] Loading mean file from: /home/mohanty/data/final_dataset/lmdb/segmented-40-60/mean.binaryproto
I0403 15:15:50.640362 11776 db_lmdb.cpp:38] Opened lmdb /home/mohanty/data/final_dataset/lmdb/segmented-40-60/test_db
I0403 15:15:50.650563 11773 data_layer.cpp:41] output data size: 24,3,224,224
I0403 15:15:50.676506 11773 net.cpp:141] Setting up data
I0403 15:15:50.676559 11773 net.cpp:148] Top shape: 24 3 224 224 (3612672)
I0403 15:15:50.676581 11773 net.cpp:148] Top shape: 24 (24)
I0403 15:15:50.676596 11773 net.cpp:156] Memory required for data: 14450784
I0403 15:15:50.676622 11773 layer_factory.hpp:77] Creating layer label_data_1_split
I0403 15:15:50.676650 11773 net.cpp:91] Creating Layer label_data_1_split
I0403 15:15:50.676667 11773 net.cpp:425] label_data_1_split <- label
I0403 15:15:50.676697 11773 net.cpp:399] label_data_1_split -> label_data_1_split_0
I0403 15:15:50.676724 11773 net.cpp:399] label_data_1_split -> label_data_1_split_1
I0403 15:15:50.676746 11773 net.cpp:399] label_data_1_split -> label_data_1_split_2
I0403 15:15:50.676767 11773 net.cpp:399] label_data_1_split -> label_data_1_split_3
I0403 15:15:50.676787 11773 net.cpp:399] label_data_1_split -> label_data_1_split_4
I0403 15:15:50.676807 11773 net.cpp:399] label_data_1_split -> label_data_1_split_5
I0403 15:15:50.676826 11773 net.cpp:399] label_data_1_split -> label_data_1_split_6
I0403 15:15:50.676846 11773 net.cpp:399] label_data_1_split -> label_data_1_split_7
I0403 15:15:50.676865 11773 net.cpp:399] label_data_1_split -> label_data_1_split_8
I0403 15:15:50.676885 11773 net.cpp:399] label_data_1_split -> label_data_1_split_9
I0403 15:15:50.677000 11773 net.cpp:141] Setting up label_data_1_split
I0403 15:15:50.677022 11773 net.cpp:148] Top shape: 24 (24)
I0403 15:15:50.677039 11773 net.cpp:148] Top shape: 24 (24)
I0403 15:15:50.677055 11773 net.cpp:148] Top shape: 24 (24)
I0403 15:15:50.677070 11773 net.cpp:148] Top shape: 24 (24)
I0403 15:15:50.677085 11773 net.cpp:148] Top shape: 24 (24)
I0403 15:15:50.677101 11773 net.cpp:148] Top shape: 24 (24)
I0403 15:15:50.677116 11773 net.cpp:148] Top shape: 24 (24)
I0403 15:15:50.677132 11773 net.cpp:148] Top shape: 24 (24)
I0403 15:15:50.677147 11773 net.cpp:148] Top shape: 24 (24)
I0403 15:15:50.677163 11773 net.cpp:148] Top shape: 24 (24)
I0403 15:15:50.677197 11773 net.cpp:156] Memory required for data: 14451744
I0403 15:15:50.677214 11773 layer_factory.hpp:77] Creating layer conv1/7x7_s2
I0403 15:15:50.677245 11773 net.cpp:91] Creating Layer conv1/7x7_s2
I0403 15:15:50.677264 11773 net.cpp:425] conv1/7x7_s2 <- data
I0403 15:15:50.677284 11773 net.cpp:399] conv1/7x7_s2 -> conv1/7x7_s2
I0403 15:15:50.815467 11773 net.cpp:141] Setting up conv1/7x7_s2
I0403 15:15:50.815557 11773 net.cpp:148] Top shape: 24 64 112 112 (19267584)
I0403 15:15:50.815573 11773 net.cpp:156] Memory required for data: 91522080
I0403 15:15:50.815603 11773 layer_factory.hpp:77] Creating layer conv1/relu_7x7
I0403 15:15:50.815629 11773 net.cpp:91] Creating Layer conv1/relu_7x7
I0403 15:15:50.815645 11773 net.cpp:425] conv1/relu_7x7 <- conv1/7x7_s2
I0403 15:15:50.815665 11773 net.cpp:386] conv1/relu_7x7 -> conv1/7x7_s2 (in-place)
I0403 15:15:50.815909 11773 net.cpp:141] Setting up conv1/relu_7x7
I0403 15:15:50.815935 11773 net.cpp:148] Top shape: 24 64 112 112 (19267584)
I0403 15:15:50.815950 11773 net.cpp:156] Memory required for data: 168592416
I0403 15:15:50.815964 11773 layer_factory.hpp:77] Creating layer pool1/3x3_s2
I0403 15:15:50.815987 11773 net.cpp:91] Creating Layer pool1/3x3_s2
I0403 15:15:50.816004 11773 net.cpp:425] pool1/3x3_s2 <- conv1/7x7_s2
I0403 15:15:50.816022 11773 net.cpp:399] pool1/3x3_s2 -> pool1/3x3_s2
I0403 15:15:50.816092 11773 net.cpp:141] Setting up pool1/3x3_s2
I0403 15:15:50.816115 11773 net.cpp:148] Top shape: 24 64 56 56 (4816896)
I0403 15:15:50.816128 11773 net.cpp:156] Memory required for data: 187860000
I0403 15:15:50.816143 11773 layer_factory.hpp:77] Creating layer pool1/norm1
I0403 15:15:50.816165 11773 net.cpp:91] Creating Layer pool1/norm1
I0403 15:15:50.816182 11773 net.cpp:425] pool1/norm1 <- pool1/3x3_s2
I0403 15:15:50.816200 11773 net.cpp:399] pool1/norm1 -> pool1/norm1
I0403 15:15:50.816478 11773 net.cpp:141] Setting up pool1/norm1
I0403 15:15:50.816514 11773 net.cpp:148] Top shape: 24 64 56 56 (4816896)
I0403 15:15:50.816529 11773 net.cpp:156] Memory required for data: 207127584
I0403 15:15:50.816542 11773 layer_factory.hpp:77] Creating layer conv2/3x3_reduce
I0403 15:15:50.816566 11773 net.cpp:91] Creating Layer conv2/3x3_reduce
I0403 15:15:50.816582 11773 net.cpp:425] conv2/3x3_reduce <- pool1/norm1
I0403 15:15:50.816601 11773 net.cpp:399] conv2/3x3_reduce -> conv2/3x3_reduce
I0403 15:15:50.817872 11773 net.cpp:141] Setting up conv2/3x3_reduce
I0403 15:15:50.817899 11773 net.cpp:148] Top shape: 24 64 56 56 (4816896)
I0403 15:15:50.817915 11773 net.cpp:156] Memory required for data: 226395168
I0403 15:15:50.817934 11773 layer_factory.hpp:77] Creating layer conv2/relu_3x3_reduce
I0403 15:15:50.817952 11773 net.cpp:91] Creating Layer conv2/relu_3x3_reduce
I0403 15:15:50.817967 11773 net.cpp:425] conv2/relu_3x3_reduce <- conv2/3x3_reduce
I0403 15:15:50.817984 11773 net.cpp:386] conv2/relu_3x3_reduce -> conv2/3x3_reduce (in-place)
I0403 15:15:50.818224 11773 net.cpp:141] Setting up conv2/relu_3x3_reduce
I0403 15:15:50.818251 11773 net.cpp:148] Top shape: 24 64 56 56 (4816896)
I0403 15:15:50.818266 11773 net.cpp:156] Memory required for data: 245662752
I0403 15:15:50.818279 11773 layer_factory.hpp:77] Creating layer conv2/3x3
I0403 15:15:50.818301 11773 net.cpp:91] Creating Layer conv2/3x3
I0403 15:15:50.818321 11773 net.cpp:425] conv2/3x3 <- conv2/3x3_reduce
I0403 15:15:50.818341 11773 net.cpp:399] conv2/3x3 -> conv2/3x3
I0403 15:15:50.820461 11773 net.cpp:141] Setting up conv2/3x3
I0403 15:15:50.820492 11773 net.cpp:148] Top shape: 24 192 56 56 (14450688)
I0403 15:15:50.820507 11773 net.cpp:156] Memory required for data: 303465504
I0403 15:15:50.820526 11773 layer_factory.hpp:77] Creating layer conv2/relu_3x3
I0403 15:15:50.820544 11773 net.cpp:91] Creating Layer conv2/relu_3x3
I0403 15:15:50.820559 11773 net.cpp:425] conv2/relu_3x3 <- conv2/3x3
I0403 15:15:50.820575 11773 net.cpp:386] conv2/relu_3x3 -> conv2/3x3 (in-place)
I0403 15:15:50.820729 11773 net.cpp:141] Setting up conv2/relu_3x3
I0403 15:15:50.820755 11773 net.cpp:148] Top shape: 24 192 56 56 (14450688)
I0403 15:15:50.820801 11773 net.cpp:156] Memory required for data: 361268256
I0403 15:15:50.820816 11773 layer_factory.hpp:77] Creating layer conv2/norm2
I0403 15:15:50.820834 11773 net.cpp:91] Creating Layer conv2/norm2
I0403 15:15:50.820849 11773 net.cpp:425] conv2/norm2 <- conv2/3x3
I0403 15:15:50.820868 11773 net.cpp:399] conv2/norm2 -> conv2/norm2
I0403 15:15:50.821140 11773 net.cpp:141] Setting up conv2/norm2
I0403 15:15:50.821166 11773 net.cpp:148] Top shape: 24 192 56 56 (14450688)
I0403 15:15:50.821179 11773 net.cpp:156] Memory required for data: 419071008
I0403 15:15:50.821193 11773 layer_factory.hpp:77] Creating layer pool2/3x3_s2
I0403 15:15:50.821210 11773 net.cpp:91] Creating Layer pool2/3x3_s2
I0403 15:15:50.821225 11773 net.cpp:425] pool2/3x3_s2 <- conv2/norm2
I0403 15:15:50.821243 11773 net.cpp:399] pool2/3x3_s2 -> pool2/3x3_s2
I0403 15:15:50.821290 11773 net.cpp:141] Setting up pool2/3x3_s2
I0403 15:15:50.821310 11773 net.cpp:148] Top shape: 24 192 28 28 (3612672)
I0403 15:15:50.821329 11773 net.cpp:156] Memory required for data: 433521696
I0403 15:15:50.821343 11773 layer_factory.hpp:77] Creating layer pool2/3x3_s2_pool2/3x3_s2_0_split
I0403 15:15:50.821360 11773 net.cpp:91] Creating Layer pool2/3x3_s2_pool2/3x3_s2_0_split
I0403 15:15:50.821375 11773 net.cpp:425] pool2/3x3_s2_pool2/3x3_s2_0_split <- pool2/3x3_s2
I0403 15:15:50.821391 11773 net.cpp:399] pool2/3x3_s2_pool2/3x3_s2_0_split -> pool2/3x3_s2_pool2/3x3_s2_0_split_0
I0403 15:15:50.821409 11773 net.cpp:399] pool2/3x3_s2_pool2/3x3_s2_0_split -> pool2/3x3_s2_pool2/3x3_s2_0_split_1
I0403 15:15:50.821429 11773 net.cpp:399] pool2/3x3_s2_pool2/3x3_s2_0_split -> pool2/3x3_s2_pool2/3x3_s2_0_split_2
I0403 15:15:50.821446 11773 net.cpp:399] pool2/3x3_s2_pool2/3x3_s2_0_split -> pool2/3x3_s2_pool2/3x3_s2_0_split_3
I0403 15:15:50.821506 11773 net.cpp:141] Setting up pool2/3x3_s2_pool2/3x3_s2_0_split
I0403 15:15:50.821527 11773 net.cpp:148] Top shape: 24 192 28 28 (3612672)
I0403 15:15:50.821542 11773 net.cpp:148] Top shape: 24 192 28 28 (3612672)
I0403 15:15:50.821557 11773 net.cpp:148] Top shape: 24 192 28 28 (3612672)
I0403 15:15:50.821570 11773 net.cpp:148] Top shape: 24 192 28 28 (3612672)
I0403 15:15:50.821583 11773 net.cpp:156] Memory required for data: 491324448
I0403 15:15:50.821598 11773 layer_factory.hpp:77] Creating layer inception_3a/1x1
I0403 15:15:50.821624 11773 net.cpp:91] Creating Layer inception_3a/1x1
I0403 15:15:50.821640 11773 net.cpp:425] inception_3a/1x1 <- pool2/3x3_s2_pool2/3x3_s2_0_split_0
I0403 15:15:50.821656 11773 net.cpp:399] inception_3a/1x1 -> inception_3a/1x1
I0403 15:15:50.823058 11773 net.cpp:141] Setting up inception_3a/1x1
I0403 15:15:50.823086 11773 net.cpp:148] Top shape: 24 64 28 28 (1204224)
I0403 15:15:50.823101 11773 net.cpp:156] Memory required for data: 496141344
I0403 15:15:50.823119 11773 layer_factory.hpp:77] Creating layer inception_3a/relu_1x1
I0403 15:15:50.823137 11773 net.cpp:91] Creating Layer inception_3a/relu_1x1
I0403 15:15:50.823153 11773 net.cpp:425] inception_3a/relu_1x1 <- inception_3a/1x1
I0403 15:15:50.823170 11773 net.cpp:386] inception_3a/relu_1x1 -> inception_3a/1x1 (in-place)
I0403 15:15:50.823351 11773 net.cpp:141] Setting up inception_3a/relu_1x1
I0403 15:15:50.823375 11773 net.cpp:148] Top shape: 24 64 28 28 (1204224)
I0403 15:15:50.823390 11773 net.cpp:156] Memory required for data: 500958240
I0403 15:15:50.823403 11773 layer_factory.hpp:77] Creating layer inception_3a/3x3_reduce
I0403 15:15:50.823427 11773 net.cpp:91] Creating Layer inception_3a/3x3_reduce
I0403 15:15:50.823444 11773 net.cpp:425] inception_3a/3x3_reduce <- pool2/3x3_s2_pool2/3x3_s2_0_split_1
I0403 15:15:50.823464 11773 net.cpp:399] inception_3a/3x3_reduce -> inception_3a/3x3_reduce
I0403 15:15:50.825083 11773 net.cpp:141] Setting up inception_3a/3x3_reduce
I0403 15:15:50.825110 11773 net.cpp:148] Top shape: 24 96 28 28 (1806336)
I0403 15:15:50.825125 11773 net.cpp:156] Memory required for data: 508183584
I0403 15:15:50.825145 11773 layer_factory.hpp:77] Creating layer inception_3a/relu_3x3_reduce
I0403 15:15:50.825183 11773 net.cpp:91] Creating Layer inception_3a/relu_3x3_reduce
I0403 15:15:50.825201 11773 net.cpp:425] inception_3a/relu_3x3_reduce <- inception_3a/3x3_reduce
I0403 15:15:50.825218 11773 net.cpp:386] inception_3a/relu_3x3_reduce -> inception_3a/3x3_reduce (in-place)
I0403 15:15:50.825397 11773 net.cpp:141] Setting up inception_3a/relu_3x3_reduce
I0403 15:15:50.825428 11773 net.cpp:148] Top shape: 24 96 28 28 (1806336)
I0403 15:15:50.825443 11773 net.cpp:156] Memory required for data: 515408928
I0403 15:15:50.825458 11773 layer_factory.hpp:77] Creating layer inception_3a/3x3
I0403 15:15:50.825480 11773 net.cpp:91] Creating Layer inception_3a/3x3
I0403 15:15:50.825496 11773 net.cpp:425] inception_3a/3x3 <- inception_3a/3x3_reduce
I0403 15:15:50.825515 11773 net.cpp:399] inception_3a/3x3 -> inception_3a/3x3
I0403 15:15:50.827107 11773 net.cpp:141] Setting up inception_3a/3x3
I0403 15:15:50.827136 11773 net.cpp:148] Top shape: 24 128 28 28 (2408448)
I0403 15:15:50.827150 11773 net.cpp:156] Memory required for data: 525042720
I0403 15:15:50.827168 11773 layer_factory.hpp:77] Creating layer inception_3a/relu_3x3
I0403 15:15:50.827188 11773 net.cpp:91] Creating Layer inception_3a/relu_3x3
I0403 15:15:50.827203 11773 net.cpp:425] inception_3a/relu_3x3 <- inception_3a/3x3
I0403 15:15:50.827219 11773 net.cpp:386] inception_3a/relu_3x3 -> inception_3a/3x3 (in-place)
I0403 15:15:50.827487 11773 net.cpp:141] Setting up inception_3a/relu_3x3
I0403 15:15:50.827512 11773 net.cpp:148] Top shape: 24 128 28 28 (2408448)
I0403 15:15:50.827527 11773 net.cpp:156] Memory required for data: 534676512
I0403 15:15:50.827541 11773 layer_factory.hpp:77] Creating layer inception_3a/5x5_reduce
I0403 15:15:50.827563 11773 net.cpp:91] Creating Layer inception_3a/5x5_reduce
I0403 15:15:50.827579 11773 net.cpp:425] inception_3a/5x5_reduce <- pool2/3x3_s2_pool2/3x3_s2_0_split_2
I0403 15:15:50.827600 11773 net.cpp:399] inception_3a/5x5_reduce -> inception_3a/5x5_reduce
I0403 15:15:50.828524 11773 net.cpp:141] Setting up inception_3a/5x5_reduce
I0403 15:15:50.828552 11773 net.cpp:148] Top shape: 24 16 28 28 (301056)
I0403 15:15:50.828565 11773 net.cpp:156] Memory required for data: 535880736
I0403 15:15:50.828583 11773 layer_factory.hpp:77] Creating layer inception_3a/relu_5x5_reduce
I0403 15:15:50.828601 11773 net.cpp:91] Creating Layer inception_3a/relu_5x5_reduce
I0403 15:15:50.828618 11773 net.cpp:425] inception_3a/relu_5x5_reduce <- inception_3a/5x5_reduce
I0403 15:15:50.828636 11773 net.cpp:386] inception_3a/relu_5x5_reduce -> inception_3a/5x5_reduce (in-place)
I0403 15:15:50.828929 11773 net.cpp:141] Setting up inception_3a/relu_5x5_reduce
I0403 15:15:50.828955 11773 net.cpp:148] Top shape: 24 16 28 28 (301056)
I0403 15:15:50.828969 11773 net.cpp:156] Memory required for data: 537084960
I0403 15:15:50.828984 11773 layer_factory.hpp:77] Creating layer inception_3a/5x5
I0403 15:15:50.829007 11773 net.cpp:91] Creating Layer inception_3a/5x5
I0403 15:15:50.829025 11773 net.cpp:425] inception_3a/5x5 <- inception_3a/5x5_reduce
I0403 15:15:50.829043 11773 net.cpp:399] inception_3a/5x5 -> inception_3a/5x5
I0403 15:15:50.830018 11773 net.cpp:141] Setting up inception_3a/5x5
I0403 15:15:50.830045 11773 net.cpp:148] Top shape: 24 32 28 28 (602112)
I0403 15:15:50.830060 11773 net.cpp:156] Memory required for data: 539493408
I0403 15:15:50.830077 11773 layer_factory.hpp:77] Creating layer inception_3a/relu_5x5
I0403 15:15:50.830093 11773 net.cpp:91] Creating Layer inception_3a/relu_5x5
I0403 15:15:50.830109 11773 net.cpp:425] inception_3a/relu_5x5 <- inception_3a/5x5
I0403 15:15:50.830127 11773 net.cpp:386] inception_3a/relu_5x5 -> inception_3a/5x5 (in-place)
I0403 15:15:50.830293 11773 net.cpp:141] Setting up inception_3a/relu_5x5
I0403 15:15:50.830337 11773 net.cpp:148] Top shape: 24 32 28 28 (602112)
I0403 15:15:50.830355 11773 net.cpp:156] Memory required for data: 541901856
I0403 15:15:50.830370 11773 layer_factory.hpp:77] Creating layer inception_3a/pool
I0403 15:15:50.830390 11773 net.cpp:91] Creating Layer inception_3a/pool
I0403 15:15:50.830420 11773 net.cpp:425] inception_3a/pool <- pool2/3x3_s2_pool2/3x3_s2_0_split_3
I0403 15:15:50.830438 11773 net.cpp:399] inception_3a/pool -> inception_3a/pool
I0403 15:15:50.830497 11773 net.cpp:141] Setting up inception_3a/pool
I0403 15:15:50.830519 11773 net.cpp:148] Top shape: 24 192 28 28 (3612672)
I0403 15:15:50.830533 11773 net.cpp:156] Memory required for data: 556352544
I0403 15:15:50.830546 11773 layer_factory.hpp:77] Creating layer inception_3a/pool_proj
I0403 15:15:50.830569 11773 net.cpp:91] Creating Layer inception_3a/pool_proj
I0403 15:15:50.830585 11773 net.cpp:425] inception_3a/pool_proj <- inception_3a/pool
I0403 15:15:50.830607 11773 net.cpp:399] inception_3a/pool_proj -> inception_3a/pool_proj
I0403 15:15:50.831557 11773 net.cpp:141] Setting up inception_3a/pool_proj
I0403 15:15:50.831588 11773 net.cpp:148] Top shape: 24 32 28 28 (602112)
I0403 15:15:50.831604 11773 net.cpp:156] Memory required for data: 558760992
I0403 15:15:50.831624 11773 layer_factory.hpp:77] Creating layer inception_3a/relu_pool_proj
I0403 15:15:50.831645 11773 net.cpp:91] Creating Layer inception_3a/relu_pool_proj
I0403 15:15:50.831662 11773 net.cpp:425] inception_3a/relu_pool_proj <- inception_3a/pool_proj
I0403 15:15:50.831679 11773 net.cpp:386] inception_3a/relu_pool_proj -> inception_3a/pool_proj (in-place)
I0403 15:15:50.831950 11773 net.cpp:141] Setting up inception_3a/relu_pool_proj
I0403 15:15:50.831976 11773 net.cpp:148] Top shape: 24 32 28 28 (602112)
I0403 15:15:50.831991 11773 net.cpp:156] Memory required for data: 561169440
I0403 15:15:50.832005 11773 layer_factory.hpp:77] Creating layer inception_3a/output
I0403 15:15:50.832022 11773 net.cpp:91] Creating Layer inception_3a/output
I0403 15:15:50.832037 11773 net.cpp:425] inception_3a/output <- inception_3a/1x1
I0403 15:15:50.832053 11773 net.cpp:425] inception_3a/output <- inception_3a/3x3
I0403 15:15:50.832069 11773 net.cpp:425] inception_3a/output <- inception_3a/5x5
I0403 15:15:50.832084 11773 net.cpp:425] inception_3a/output <- inception_3a/pool_proj
I0403 15:15:50.832105 11773 net.cpp:399] inception_3a/output -> inception_3a/output
I0403 15:15:50.832151 11773 net.cpp:141] Setting up inception_3a/output
I0403 15:15:50.832177 11773 net.cpp:148] Top shape: 24 256 28 28 (4816896)
I0403 15:15:50.832191 11773 net.cpp:156] Memory required for data: 580437024
I0403 15:15:50.832206 11773 layer_factory.hpp:77] Creating layer inception_3a/output_inception_3a/output_0_split
I0403 15:15:50.832221 11773 net.cpp:91] Creating Layer inception_3a/output_inception_3a/output_0_split
I0403 15:15:50.832237 11773 net.cpp:425] inception_3a/output_inception_3a/output_0_split <- inception_3a/output
I0403 15:15:50.832253 11773 net.cpp:399] inception_3a/output_inception_3a/output_0_split -> inception_3a/output_inception_3a/output_0_split_0
I0403 15:15:50.832275 11773 net.cpp:399] inception_3a/output_inception_3a/output_0_split -> inception_3a/output_inception_3a/output_0_split_1
I0403 15:15:50.832298 11773 net.cpp:399] inception_3a/output_inception_3a/output_0_split -> inception_3a/output_inception_3a/output_0_split_2
I0403 15:15:50.832324 11773 net.cpp:399] inception_3a/output_inception_3a/output_0_split -> inception_3a/output_inception_3a/output_0_split_3
I0403 15:15:50.832399 11773 net.cpp:141] Setting up inception_3a/output_inception_3a/output_0_split
I0403 15:15:50.832425 11773 net.cpp:148] Top shape: 24 256 28 28 (4816896)
I0403 15:15:50.832442 11773 net.cpp:148] Top shape: 24 256 28 28 (4816896)
I0403 15:15:50.832458 11773 net.cpp:148] Top shape: 24 256 28 28 (4816896)
I0403 15:15:50.832473 11773 net.cpp:148] Top shape: 24 256 28 28 (4816896)
I0403 15:15:50.832487 11773 net.cpp:156] Memory required for data: 657507360
I0403 15:15:50.832501 11773 layer_factory.hpp:77] Creating layer inception_3b/1x1
I0403 15:15:50.832523 11773 net.cpp:91] Creating Layer inception_3b/1x1
I0403 15:15:50.832540 11773 net.cpp:425] inception_3b/1x1 <- inception_3a/output_inception_3a/output_0_split_0
I0403 15:15:50.832561 11773 net.cpp:399] inception_3b/1x1 -> inception_3b/1x1
I0403 15:15:50.833725 11773 net.cpp:141] Setting up inception_3b/1x1
I0403 15:15:50.833767 11773 net.cpp:148] Top shape: 24 128 28 28 (2408448)
I0403 15:15:50.833783 11773 net.cpp:156] Memory required for data: 667141152
I0403 15:15:50.833801 11773 layer_factory.hpp:77] Creating layer inception_3b/relu_1x1
I0403 15:15:50.833819 11773 net.cpp:91] Creating Layer inception_3b/relu_1x1
I0403 15:15:50.833835 11773 net.cpp:425] inception_3b/relu_1x1 <- inception_3b/1x1
I0403 15:15:50.833855 11773 net.cpp:386] inception_3b/relu_1x1 -> inception_3b/1x1 (in-place)
I0403 15:15:50.834033 11773 net.cpp:141] Setting up inception_3b/relu_1x1
I0403 15:15:50.834058 11773 net.cpp:148] Top shape: 24 128 28 28 (2408448)
I0403 15:15:50.834071 11773 net.cpp:156] Memory required for data: 676774944
I0403 15:15:50.834086 11773 layer_factory.hpp:77] Creating layer inception_3b/3x3_reduce
I0403 15:15:50.834108 11773 net.cpp:91] Creating Layer inception_3b/3x3_reduce
I0403 15:15:50.834125 11773 net.cpp:425] inception_3b/3x3_reduce <- inception_3a/output_inception_3a/output_0_split_1
I0403 15:15:50.834146 11773 net.cpp:399] inception_3b/3x3_reduce -> inception_3b/3x3_reduce
I0403 15:15:50.835314 11773 net.cpp:141] Setting up inception_3b/3x3_reduce
I0403 15:15:50.835345 11773 net.cpp:148] Top shape: 24 128 28 28 (2408448)
I0403 15:15:50.835361 11773 net.cpp:156] Memory required for data: 686408736
I0403 15:15:50.835381 11773 layer_factory.hpp:77] Creating layer inception_3b/relu_3x3_reduce
I0403 15:15:50.835397 11773 net.cpp:91] Creating Layer inception_3b/relu_3x3_reduce
I0403 15:15:50.835413 11773 net.cpp:425] inception_3b/relu_3x3_reduce <- inception_3b/3x3_reduce
I0403 15:15:50.835433 11773 net.cpp:386] inception_3b/relu_3x3_reduce -> inception_3b/3x3_reduce (in-place)
I0403 15:15:50.835605 11773 net.cpp:141] Setting up inception_3b/relu_3x3_reduce
I0403 15:15:50.835630 11773 net.cpp:148] Top shape: 24 128 28 28 (2408448)
I0403 15:15:50.835645 11773 net.cpp:156] Memory required for data: 696042528
I0403 15:15:50.835661 11773 layer_factory.hpp:77] Creating layer inception_3b/3x3
I0403 15:15:50.835687 11773 net.cpp:91] Creating Layer inception_3b/3x3
I0403 15:15:50.835705 11773 net.cpp:425] inception_3b/3x3 <- inception_3b/3x3_reduce
I0403 15:15:50.835722 11773 net.cpp:399] inception_3b/3x3 -> inception_3b/3x3
I0403 15:15:50.838623 11773 net.cpp:141] Setting up inception_3b/3x3
I0403 15:15:50.838652 11773 net.cpp:148] Top shape: 24 192 28 28 (3612672)
I0403 15:15:50.838670 11773 net.cpp:156] Memory required for data: 710493216
I0403 15:15:50.838688 11773 layer_factory.hpp:77] Creating layer inception_3b/relu_3x3
I0403 15:15:50.838707 11773 net.cpp:91] Creating Layer inception_3b/relu_3x3
I0403 15:15:50.838723 11773 net.cpp:425] inception_3b/relu_3x3 <- inception_3b/3x3
I0403 15:15:50.838742 11773 net.cpp:386] inception_3b/relu_3x3 -> inception_3b/3x3 (in-place)
I0403 15:15:50.839012 11773 net.cpp:141] Setting up inception_3b/relu_3x3
I0403 15:15:50.839038 11773 net.cpp:148] Top shape: 24 192 28 28 (3612672)
I0403 15:15:50.839053 11773 net.cpp:156] Memory required for data: 724943904
I0403 15:15:50.839068 11773 layer_factory.hpp:77] Creating layer inception_3b/5x5_reduce
I0403 15:15:50.839090 11773 net.cpp:91] Creating Layer inception_3b/5x5_reduce
I0403 15:15:50.839107 11773 net.cpp:425] inception_3b/5x5_reduce <- inception_3a/output_inception_3a/output_0_split_2
I0403 15:15:50.839131 11773 net.cpp:399] inception_3b/5x5_reduce -> inception_3b/5x5_reduce
I0403 15:15:50.840103 11773 net.cpp:141] Setting up inception_3b/5x5_reduce
I0403 15:15:50.840131 11773 net.cpp:148] Top shape: 24 32 28 28 (602112)
I0403 15:15:50.840147 11773 net.cpp:156] Memory required for data: 727352352
I0403 15:15:50.840164 11773 layer_factory.hpp:77] Creating layer inception_3b/relu_5x5_reduce
I0403 15:15:50.840181 11773 net.cpp:91] Creating Layer inception_3b/relu_5x5_reduce
I0403 15:15:50.840198 11773 net.cpp:425] inception_3b/relu_5x5_reduce <- inception_3b/5x5_reduce
I0403 15:15:50.840217 11773 net.cpp:386] inception_3b/relu_5x5_reduce -> inception_3b/5x5_reduce (in-place)
I0403 15:15:50.840430 11773 net.cpp:141] Setting up inception_3b/relu_5x5_reduce
I0403 15:15:50.840456 11773 net.cpp:148] Top shape: 24 32 28 28 (602112)
I0403 15:15:50.840471 11773 net.cpp:156] Memory required for data: 729760800
I0403 15:15:50.840487 11773 layer_factory.hpp:77] Creating layer inception_3b/5x5
I0403 15:15:50.840509 11773 net.cpp:91] Creating Layer inception_3b/5x5
I0403 15:15:50.840528 11773 net.cpp:425] inception_3b/5x5 <- inception_3b/5x5_reduce
I0403 15:15:50.840548 11773 net.cpp:399] inception_3b/5x5 -> inception_3b/5x5
I0403 15:15:50.842507 11773 net.cpp:141] Setting up inception_3b/5x5
I0403 15:15:50.842540 11773 net.cpp:148] Top shape: 24 96 28 28 (1806336)
I0403 15:15:50.842555 11773 net.cpp:156] Memory required for data: 736986144
I0403 15:15:50.842574 11773 layer_factory.hpp:77] Creating layer inception_3b/relu_5x5
I0403 15:15:50.842592 11773 net.cpp:91] Creating Layer inception_3b/relu_5x5
I0403 15:15:50.842607 11773 net.cpp:425] inception_3b/relu_5x5 <- inception_3b/5x5
I0403 15:15:50.842627 11773 net.cpp:386] inception_3b/relu_5x5 -> inception_3b/5x5 (in-place)
I0403 15:15:50.842813 11773 net.cpp:141] Setting up inception_3b/relu_5x5
I0403 15:15:50.842839 11773 net.cpp:148] Top shape: 24 96 28 28 (1806336)
I0403 15:15:50.842854 11773 net.cpp:156] Memory required for data: 744211488
I0403 15:15:50.842869 11773 layer_factory.hpp:77] Creating layer inception_3b/pool
I0403 15:15:50.842886 11773 net.cpp:91] Creating Layer inception_3b/pool
I0403 15:15:50.842902 11773 net.cpp:425] inception_3b/pool <- inception_3a/output_inception_3a/output_0_split_3
I0403 15:15:50.842921 11773 net.cpp:399] inception_3b/pool -> inception_3b/pool
I0403 15:15:50.842979 11773 net.cpp:141] Setting up inception_3b/pool
I0403 15:15:50.843003 11773 net.cpp:148] Top shape: 24 256 28 28 (4816896)
I0403 15:15:50.843017 11773 net.cpp:156] Memory required for data: 763479072
I0403 15:15:50.843032 11773 layer_factory.hpp:77] Creating layer inception_3b/pool_proj
I0403 15:15:50.843055 11773 net.cpp:91] Creating Layer inception_3b/pool_proj
I0403 15:15:50.843072 11773 net.cpp:425] inception_3b/pool_proj <- inception_3b/pool
I0403 15:15:50.843094 11773 net.cpp:399] inception_3b/pool_proj -> inception_3b/pool_proj
I0403 15:15:50.844151 11773 net.cpp:141] Setting up inception_3b/pool_proj
I0403 15:15:50.844177 11773 net.cpp:148] Top shape: 24 64 28 28 (1204224)
I0403 15:15:50.844193 11773 net.cpp:156] Memory required for data: 768295968
I0403 15:15:50.844211 11773 layer_factory.hpp:77] Creating layer inception_3b/relu_pool_proj
I0403 15:15:50.844231 11773 net.cpp:91] Creating Layer inception_3b/relu_pool_proj
I0403 15:15:50.844247 11773 net.cpp:425] inception_3b/relu_pool_proj <- inception_3b/pool_proj
I0403 15:15:50.844264 11773 net.cpp:386] inception_3b/relu_pool_proj -> inception_3b/pool_proj (in-place)
I0403 15:15:50.844658 11773 net.cpp:141] Setting up inception_3b/relu_pool_proj
I0403 15:15:50.844684 11773 net.cpp:148] Top shape: 24 64 28 28 (1204224)
I0403 15:15:50.844699 11773 net.cpp:156] Memory required for data: 773112864
I0403 15:15:50.844714 11773 layer_factory.hpp:77] Creating layer inception_3b/output
I0403 15:15:50.844734 11773 net.cpp:91] Creating Layer inception_3b/output
I0403 15:15:50.844751 11773 net.cpp:425] inception_3b/output <- inception_3b/1x1
I0403 15:15:50.844769 11773 net.cpp:425] inception_3b/output <- inception_3b/3x3
I0403 15:15:50.844784 11773 net.cpp:425] inception_3b/output <- inception_3b/5x5
I0403 15:15:50.844799 11773 net.cpp:425] inception_3b/output <- inception_3b/pool_proj
I0403 15:15:50.844815 11773 net.cpp:399] inception_3b/output -> inception_3b/output
I0403 15:15:50.844861 11773 net.cpp:141] Setting up inception_3b/output
I0403 15:15:50.844883 11773 net.cpp:148] Top shape: 24 480 28 28 (9031680)
I0403 15:15:50.844897 11773 net.cpp:156] Memory required for data: 809239584
I0403 15:15:50.844912 11773 layer_factory.hpp:77] Creating layer pool3/3x3_s2
I0403 15:15:50.844928 11773 net.cpp:91] Creating Layer pool3/3x3_s2
I0403 15:15:50.844944 11773 net.cpp:425] pool3/3x3_s2 <- inception_3b/output
I0403 15:15:50.844980 11773 net.cpp:399] pool3/3x3_s2 -> pool3/3x3_s2
I0403 15:15:50.845037 11773 net.cpp:141] Setting up pool3/3x3_s2
I0403 15:15:50.845060 11773 net.cpp:148] Top shape: 24 480 14 14 (2257920)
I0403 15:15:50.845074 11773 net.cpp:156] Memory required for data: 818271264
I0403 15:15:50.845088 11773 layer_factory.hpp:77] Creating layer pool3/3x3_s2_pool3/3x3_s2_0_split
I0403 15:15:50.845108 11773 net.cpp:91] Creating Layer pool3/3x3_s2_pool3/3x3_s2_0_split
I0403 15:15:50.845124 11773 net.cpp:425] pool3/3x3_s2_pool3/3x3_s2_0_split <- pool3/3x3_s2
I0403 15:15:50.845142 11773 net.cpp:399] pool3/3x3_s2_pool3/3x3_s2_0_split -> pool3/3x3_s2_pool3/3x3_s2_0_split_0
I0403 15:15:50.845163 11773 net.cpp:399] pool3/3x3_s2_pool3/3x3_s2_0_split -> pool3/3x3_s2_pool3/3x3_s2_0_split_1
I0403 15:15:50.845182 11773 net.cpp:399] pool3/3x3_s2_pool3/3x3_s2_0_split -> pool3/3x3_s2_pool3/3x3_s2_0_split_2
I0403 15:15:50.845201 11773 net.cpp:399] pool3/3x3_s2_pool3/3x3_s2_0_split -> pool3/3x3_s2_pool3/3x3_s2_0_split_3
I0403 15:15:50.845275 11773 net.cpp:141] Setting up pool3/3x3_s2_pool3/3x3_s2_0_split
I0403 15:15:50.845296 11773 net.cpp:148] Top shape: 24 480 14 14 (2257920)
I0403 15:15:50.845334 11773 net.cpp:148] Top shape: 24 480 14 14 (2257920)
I0403 15:15:50.845350 11773 net.cpp:148] Top shape: 24 480 14 14 (2257920)
I0403 15:15:50.845366 11773 net.cpp:148] Top shape: 24 480 14 14 (2257920)
I0403 15:15:50.845379 11773 net.cpp:156] Memory required for data: 854397984
I0403 15:15:50.845393 11773 layer_factory.hpp:77] Creating layer inception_4a/1x1
I0403 15:15:50.845417 11773 net.cpp:91] Creating Layer inception_4a/1x1
I0403 15:15:50.845434 11773 net.cpp:425] inception_4a/1x1 <- pool3/3x3_s2_pool3/3x3_s2_0_split_0
I0403 15:15:50.845455 11773 net.cpp:399] inception_4a/1x1 -> inception_4a/1x1
I0403 15:15:50.847059 11773 net.cpp:141] Setting up inception_4a/1x1
I0403 15:15:50.847089 11773 net.cpp:148] Top shape: 24 192 14 14 (903168)
I0403 15:15:50.847105 11773 net.cpp:156] Memory required for data: 858010656
I0403 15:15:50.847123 11773 layer_factory.hpp:77] Creating layer inception_4a/relu_1x1
I0403 15:15:50.847141 11773 net.cpp:91] Creating Layer inception_4a/relu_1x1
I0403 15:15:50.847157 11773 net.cpp:425] inception_4a/relu_1x1 <- inception_4a/1x1
I0403 15:15:50.847173 11773 net.cpp:386] inception_4a/relu_1x1 -> inception_4a/1x1 (in-place)
I0403 15:15:50.847354 11773 net.cpp:141] Setting up inception_4a/relu_1x1
I0403 15:15:50.847394 11773 net.cpp:148] Top shape: 24 192 14 14 (903168)
I0403 15:15:50.847410 11773 net.cpp:156] Memory required for data: 861623328
I0403 15:15:50.847425 11773 layer_factory.hpp:77] Creating layer inception_4a/3x3_reduce
I0403 15:15:50.847447 11773 net.cpp:91] Creating Layer inception_4a/3x3_reduce
I0403 15:15:50.847465 11773 net.cpp:425] inception_4a/3x3_reduce <- pool3/3x3_s2_pool3/3x3_s2_0_split_1
I0403 15:15:50.847486 11773 net.cpp:399] inception_4a/3x3_reduce -> inception_4a/3x3_reduce
I0403 15:15:50.848767 11773 net.cpp:141] Setting up inception_4a/3x3_reduce
I0403 15:15:50.848795 11773 net.cpp:148] Top shape: 24 96 14 14 (451584)
I0403 15:15:50.848811 11773 net.cpp:156] Memory required for data: 863429664
I0403 15:15:50.848839 11773 layer_factory.hpp:77] Creating layer inception_4a/relu_3x3_reduce
I0403 15:15:50.848860 11773 net.cpp:91] Creating Layer inception_4a/relu_3x3_reduce
I0403 15:15:50.848882 11773 net.cpp:425] inception_4a/relu_3x3_reduce <- inception_4a/3x3_reduce
I0403 15:15:50.848899 11773 net.cpp:386] inception_4a/relu_3x3_reduce -> inception_4a/3x3_reduce (in-place)
I0403 15:15:50.849076 11773 net.cpp:141] Setting up inception_4a/relu_3x3_reduce
I0403 15:15:50.849103 11773 net.cpp:148] Top shape: 24 96 14 14 (451584)
I0403 15:15:50.849118 11773 net.cpp:156] Memory required for data: 865236000
I0403 15:15:50.849134 11773 layer_factory.hpp:77] Creating layer inception_4a/3x3
I0403 15:15:50.849179 11773 net.cpp:91] Creating Layer inception_4a/3x3
I0403 15:15:50.849196 11773 net.cpp:425] inception_4a/3x3 <- inception_4a/3x3_reduce
I0403 15:15:50.849215 11773 net.cpp:399] inception_4a/3x3 -> inception_4a/3x3
I0403 15:15:50.851910 11773 net.cpp:141] Setting up inception_4a/3x3
I0403 15:15:50.851939 11773 net.cpp:148] Top shape: 24 208 14 14 (978432)
I0403 15:15:50.851955 11773 net.cpp:156] Memory required for data: 869149728
I0403 15:15:50.851974 11773 layer_factory.hpp:77] Creating layer inception_4a/relu_3x3
I0403 15:15:50.851991 11773 net.cpp:91] Creating Layer inception_4a/relu_3x3
I0403 15:15:50.852006 11773 net.cpp:425] inception_4a/relu_3x3 <- inception_4a/3x3
I0403 15:15:50.852025 11773 net.cpp:386] inception_4a/relu_3x3 -> inception_4a/3x3 (in-place)
I0403 15:15:50.852301 11773 net.cpp:141] Setting up inception_4a/relu_3x3
I0403 15:15:50.852342 11773 net.cpp:148] Top shape: 24 208 14 14 (978432)
I0403 15:15:50.852360 11773 net.cpp:156] Memory required for data: 873063456
I0403 15:15:50.852375 11773 layer_factory.hpp:77] Creating layer inception_4a/5x5_reduce
I0403 15:15:50.852397 11773 net.cpp:91] Creating Layer inception_4a/5x5_reduce
I0403 15:15:50.852414 11773 net.cpp:425] inception_4a/5x5_reduce <- pool3/3x3_s2_pool3/3x3_s2_0_split_2
I0403 15:15:50.852437 11773 net.cpp:399] inception_4a/5x5_reduce -> inception_4a/5x5_reduce
I0403 15:15:50.853446 11773 net.cpp:141] Setting up inception_4a/5x5_reduce
I0403 15:15:50.853474 11773 net.cpp:148] Top shape: 24 16 14 14 (75264)
I0403 15:15:50.853489 11773 net.cpp:156] Memory required for data: 873364512
I0403 15:15:50.853507 11773 layer_factory.hpp:77] Creating layer inception_4a/relu_5x5_reduce
I0403 15:15:50.853524 11773 net.cpp:91] Creating Layer inception_4a/relu_5x5_reduce
I0403 15:15:50.853539 11773 net.cpp:425] inception_4a/relu_5x5_reduce <- inception_4a/5x5_reduce
I0403 15:15:50.853559 11773 net.cpp:386] inception_4a/relu_5x5_reduce -> inception_4a/5x5_reduce (in-place)
I0403 15:15:50.853735 11773 net.cpp:141] Setting up inception_4a/relu_5x5_reduce
I0403 15:15:50.853760 11773 net.cpp:148] Top shape: 24 16 14 14 (75264)
I0403 15:15:50.853775 11773 net.cpp:156] Memory required for data: 873665568
I0403 15:15:50.853788 11773 layer_factory.hpp:77] Creating layer inception_4a/5x5
I0403 15:15:50.853811 11773 net.cpp:91] Creating Layer inception_4a/5x5
I0403 15:15:50.853828 11773 net.cpp:425] inception_4a/5x5 <- inception_4a/5x5_reduce
I0403 15:15:50.853848 11773 net.cpp:399] inception_4a/5x5 -> inception_4a/5x5
I0403 15:15:50.854920 11773 net.cpp:141] Setting up inception_4a/5x5
I0403 15:15:50.854948 11773 net.cpp:148] Top shape: 24 48 14 14 (225792)
I0403 15:15:50.854962 11773 net.cpp:156] Memory required for data: 874568736
I0403 15:15:50.854980 11773 layer_factory.hpp:77] Creating layer inception_4a/relu_5x5
I0403 15:15:50.855000 11773 net.cpp:91] Creating Layer inception_4a/relu_5x5
I0403 15:15:50.855017 11773 net.cpp:425] inception_4a/relu_5x5 <- inception_4a/5x5
I0403 15:15:50.855034 11773 net.cpp:386] inception_4a/relu_5x5 -> inception_4a/5x5 (in-place)
I0403 15:15:50.855209 11773 net.cpp:141] Setting up inception_4a/relu_5x5
I0403 15:15:50.855235 11773 net.cpp:148] Top shape: 24 48 14 14 (225792)
I0403 15:15:50.855250 11773 net.cpp:156] Memory required for data: 875471904
I0403 15:15:50.855265 11773 layer_factory.hpp:77] Creating layer inception_4a/pool
I0403 15:15:50.855283 11773 net.cpp:91] Creating Layer inception_4a/pool
I0403 15:15:50.855298 11773 net.cpp:425] inception_4a/pool <- pool3/3x3_s2_pool3/3x3_s2_0_split_3
I0403 15:15:50.855324 11773 net.cpp:399] inception_4a/pool -> inception_4a/pool
I0403 15:15:50.855386 11773 net.cpp:141] Setting up inception_4a/pool
I0403 15:15:50.855409 11773 net.cpp:148] Top shape: 24 480 14 14 (2257920)
I0403 15:15:50.855423 11773 net.cpp:156] Memory required for data: 884503584
I0403 15:15:50.855437 11773 layer_factory.hpp:77] Creating layer inception_4a/pool_proj
I0403 15:15:50.855459 11773 net.cpp:91] Creating Layer inception_4a/pool_proj
I0403 15:15:50.855476 11773 net.cpp:425] inception_4a/pool_proj <- inception_4a/pool
I0403 15:15:50.855496 11773 net.cpp:399] inception_4a/pool_proj -> inception_4a/pool_proj
I0403 15:15:50.856685 11773 net.cpp:141] Setting up inception_4a/pool_proj
I0403 15:15:50.856714 11773 net.cpp:148] Top shape: 24 64 14 14 (301056)
I0403 15:15:50.856745 11773 net.cpp:156] Memory required for data: 885707808
I0403 15:15:50.856763 11773 layer_factory.hpp:77] Creating layer inception_4a/relu_pool_proj
I0403 15:15:50.856784 11773 net.cpp:91] Creating Layer inception_4a/relu_pool_proj
I0403 15:15:50.856801 11773 net.cpp:425] inception_4a/relu_pool_proj <- inception_4a/pool_proj
I0403 15:15:50.856818 11773 net.cpp:386] inception_4a/relu_pool_proj -> inception_4a/pool_proj (in-place)
I0403 15:15:50.857100 11773 net.cpp:141] Setting up inception_4a/relu_pool_proj
I0403 15:15:50.857125 11773 net.cpp:148] Top shape: 24 64 14 14 (301056)
I0403 15:15:50.857141 11773 net.cpp:156] Memory required for data: 886912032
I0403 15:15:50.857156 11773 layer_factory.hpp:77] Creating layer inception_4a/output
I0403 15:15:50.857174 11773 net.cpp:91] Creating Layer inception_4a/output
I0403 15:15:50.857190 11773 net.cpp:425] inception_4a/output <- inception_4a/1x1
I0403 15:15:50.857206 11773 net.cpp:425] inception_4a/output <- inception_4a/3x3
I0403 15:15:50.857223 11773 net.cpp:425] inception_4a/output <- inception_4a/5x5
I0403 15:15:50.857239 11773 net.cpp:425] inception_4a/output <- inception_4a/pool_proj
I0403 15:15:50.857254 11773 net.cpp:399] inception_4a/output -> inception_4a/output
I0403 15:15:50.857300 11773 net.cpp:141] Setting up inception_4a/output
I0403 15:15:50.857331 11773 net.cpp:148] Top shape: 24 512 14 14 (2408448)
I0403 15:15:50.857345 11773 net.cpp:156] Memory required for data: 896545824
I0403 15:15:50.857359 11773 layer_factory.hpp:77] Creating layer inception_4a/output_inception_4a/output_0_split
I0403 15:15:50.857377 11773 net.cpp:91] Creating Layer inception_4a/output_inception_4a/output_0_split
I0403 15:15:50.857391 11773 net.cpp:425] inception_4a/output_inception_4a/output_0_split <- inception_4a/output
I0403 15:15:50.857410 11773 net.cpp:399] inception_4a/output_inception_4a/output_0_split -> inception_4a/output_inception_4a/output_0_split_0
I0403 15:15:50.857431 11773 net.cpp:399] inception_4a/output_inception_4a/output_0_split -> inception_4a/output_inception_4a/output_0_split_1
I0403 15:15:50.857451 11773 net.cpp:399] inception_4a/output_inception_4a/output_0_split -> inception_4a/output_inception_4a/output_0_split_2
I0403 15:15:50.857478 11773 net.cpp:399] inception_4a/output_inception_4a/output_0_split -> inception_4a/output_inception_4a/output_0_split_3
I0403 15:15:50.857501 11773 net.cpp:399] inception_4a/output_inception_4a/output_0_split -> inception_4a/output_inception_4a/output_0_split_4
I0403 15:15:50.857590 11773 net.cpp:141] Setting up inception_4a/output_inception_4a/output_0_split
I0403 15:15:50.857612 11773 net.cpp:148] Top shape: 24 512 14 14 (2408448)
I0403 15:15:50.857628 11773 net.cpp:148] Top shape: 24 512 14 14 (2408448)
I0403 15:15:50.857643 11773 net.cpp:148] Top shape: 24 512 14 14 (2408448)
I0403 15:15:50.857657 11773 net.cpp:148] Top shape: 24 512 14 14 (2408448)
I0403 15:15:50.857672 11773 net.cpp:148] Top shape: 24 512 14 14 (2408448)
I0403 15:15:50.857686 11773 net.cpp:156] Memory required for data: 944714784
I0403 15:15:50.857699 11773 layer_factory.hpp:77] Creating layer loss1/ave_pool
I0403 15:15:50.857715 11773 net.cpp:91] Creating Layer loss1/ave_pool
I0403 15:15:50.857730 11773 net.cpp:425] loss1/ave_pool <- inception_4a/output_inception_4a/output_0_split_0
I0403 15:15:50.857750 11773 net.cpp:399] loss1/ave_pool -> loss1/ave_pool
I0403 15:15:50.857954 11773 net.cpp:141] Setting up loss1/ave_pool
I0403 15:15:50.857980 11773 net.cpp:148] Top shape: 24 512 4 4 (196608)
I0403 15:15:50.857995 11773 net.cpp:156] Memory required for data: 945501216
I0403 15:15:50.858008 11773 layer_factory.hpp:77] Creating layer loss1/conv
I0403 15:15:50.858031 11773 net.cpp:91] Creating Layer loss1/conv
I0403 15:15:50.858048 11773 net.cpp:425] loss1/conv <- loss1/ave_pool
I0403 15:15:50.858067 11773 net.cpp:399] loss1/conv -> loss1/conv
I0403 15:15:50.859540 11773 net.cpp:141] Setting up loss1/conv
I0403 15:15:50.859568 11773 net.cpp:148] Top shape: 24 128 4 4 (49152)
I0403 15:15:50.859599 11773 net.cpp:156] Memory required for data: 945697824
I0403 15:15:50.859618 11773 layer_factory.hpp:77] Creating layer loss1/relu_conv
I0403 15:15:50.859635 11773 net.cpp:91] Creating Layer loss1/relu_conv
I0403 15:15:50.859652 11773 net.cpp:425] loss1/relu_conv <- loss1/conv
I0403 15:15:50.859670 11773 net.cpp:386] loss1/relu_conv -> loss1/conv (in-place)
I0403 15:15:50.859962 11773 net.cpp:141] Setting up loss1/relu_conv
I0403 15:15:50.859989 11773 net.cpp:148] Top shape: 24 128 4 4 (49152)
I0403 15:15:50.860004 11773 net.cpp:156] Memory required for data: 945894432
I0403 15:15:50.860018 11773 layer_factory.hpp:77] Creating layer loss1/fc
I0403 15:15:50.860043 11773 net.cpp:91] Creating Layer loss1/fc
I0403 15:15:50.860059 11773 net.cpp:425] loss1/fc <- loss1/conv
I0403 15:15:50.860081 11773 net.cpp:399] loss1/fc -> loss1/fc
I0403 15:15:50.878334 11773 net.cpp:141] Setting up loss1/fc
I0403 15:15:50.878402 11773 net.cpp:148] Top shape: 24 1024 (24576)
I0403 15:15:50.878418 11773 net.cpp:156] Memory required for data: 945992736
I0403 15:15:50.878437 11773 layer_factory.hpp:77] Creating layer loss1/relu_fc
I0403 15:15:50.878456 11773 net.cpp:91] Creating Layer loss1/relu_fc
I0403 15:15:50.878474 11773 net.cpp:425] loss1/relu_fc <- loss1/fc
I0403 15:15:50.878492 11773 net.cpp:386] loss1/relu_fc -> loss1/fc (in-place)
I0403 15:15:50.878708 11773 net.cpp:141] Setting up loss1/relu_fc
I0403 15:15:50.878732 11773 net.cpp:148] Top shape: 24 1024 (24576)
I0403 15:15:50.878747 11773 net.cpp:156] Memory required for data: 946091040
I0403 15:15:50.878762 11773 layer_factory.hpp:77] Creating layer loss1/drop_fc
I0403 15:15:50.878789 11773 net.cpp:91] Creating Layer loss1/drop_fc
I0403 15:15:50.878806 11773 net.cpp:425] loss1/drop_fc <- loss1/fc
I0403 15:15:50.878825 11773 net.cpp:386] loss1/drop_fc -> loss1/fc (in-place)
I0403 15:15:50.878877 11773 net.cpp:141] Setting up loss1/drop_fc
I0403 15:15:50.878900 11773 net.cpp:148] Top shape: 24 1024 (24576)
I0403 15:15:50.878913 11773 net.cpp:156] Memory required for data: 946189344
I0403 15:15:50.878928 11773 layer_factory.hpp:77] Creating layer loss1/classifier_plantvillage
I0403 15:15:50.878950 11773 net.cpp:91] Creating Layer loss1/classifier_plantvillage
I0403 15:15:50.878968 11773 net.cpp:425] loss1/classifier_plantvillage <- loss1/fc
I0403 15:15:50.878984 11773 net.cpp:399] loss1/classifier_plantvillage -> loss1/classifier_plantvillage
I0403 15:15:50.879907 11773 net.cpp:141] Setting up loss1/classifier_plantvillage
I0403 15:15:50.879936 11773 net.cpp:148] Top shape: 24 38 (912)
I0403 15:15:50.879952 11773 net.cpp:156] Memory required for data: 946192992
I0403 15:15:50.879969 11773 layer_factory.hpp:77] Creating layer loss1/classifier_plantvillage_loss1/classifier_plantvillage_0_split
I0403 15:15:50.879988 11773 net.cpp:91] Creating Layer loss1/classifier_plantvillage_loss1/classifier_plantvillage_0_split
I0403 15:15:50.880003 11773 net.cpp:425] loss1/classifier_plantvillage_loss1/classifier_plantvillage_0_split <- loss1/classifier_plantvillage
I0403 15:15:50.880020 11773 net.cpp:399] loss1/classifier_plantvillage_loss1/classifier_plantvillage_0_split -> loss1/classifier_plantvillage_loss1/classifier_plantvillage_0_split_0
I0403 15:15:50.880041 11773 net.cpp:399] loss1/classifier_plantvillage_loss1/classifier_plantvillage_0_split -> loss1/classifier_plantvillage_loss1/classifier_plantvillage_0_split_1
I0403 15:15:50.880064 11773 net.cpp:399] loss1/classifier_plantvillage_loss1/classifier_plantvillage_0_split -> loss1/classifier_plantvillage_loss1/classifier_plantvillage_0_split_2
I0403 15:15:50.880128 11773 net.cpp:141] Setting up loss1/classifier_plantvillage_loss1/classifier_plantvillage_0_split
I0403 15:15:50.880151 11773 net.cpp:148] Top shape: 24 38 (912)
I0403 15:15:50.880167 11773 net.cpp:148] Top shape: 24 38 (912)
I0403 15:15:50.880182 11773 net.cpp:148] Top shape: 24 38 (912)
I0403 15:15:50.880194 11773 net.cpp:156] Memory required for data: 946203936
I0403 15:15:50.880208 11773 layer_factory.hpp:77] Creating layer inception_4b/1x1
I0403 15:15:50.880228 11773 net.cpp:91] Creating Layer inception_4b/1x1
I0403 15:15:50.880270 11773 net.cpp:425] inception_4b/1x1 <- inception_4a/output_inception_4a/output_0_split_1
I0403 15:15:50.880292 11773 net.cpp:399] inception_4b/1x1 -> inception_4b/1x1
I0403 15:15:50.881983 11773 net.cpp:141] Setting up inception_4b/1x1
I0403 15:15:50.882011 11773 net.cpp:148] Top shape: 24 160 14 14 (752640)
I0403 15:15:50.882026 11773 net.cpp:156] Memory required for data: 949214496
I0403 15:15:50.882045 11773 layer_factory.hpp:77] Creating layer inception_4b/relu_1x1
I0403 15:15:50.882062 11773 net.cpp:91] Creating Layer inception_4b/relu_1x1
I0403 15:15:50.882078 11773 net.cpp:425] inception_4b/relu_1x1 <- inception_4b/1x1
I0403 15:15:50.882099 11773 net.cpp:386] inception_4b/relu_1x1 -> inception_4b/1x1 (in-place)
I0403 15:15:50.882280 11773 net.cpp:141] Setting up inception_4b/relu_1x1
I0403 15:15:50.882305 11773 net.cpp:148] Top shape: 24 160 14 14 (752640)
I0403 15:15:50.882333 11773 net.cpp:156] Memory required for data: 952225056
I0403 15:15:50.882351 11773 layer_factory.hpp:77] Creating layer inception_4b/3x3_reduce
I0403 15:15:50.882374 11773 net.cpp:91] Creating Layer inception_4b/3x3_reduce
I0403 15:15:50.882390 11773 net.cpp:425] inception_4b/3x3_reduce <- inception_4a/output_inception_4a/output_0_split_2
I0403 15:15:50.882411 11773 net.cpp:399] inception_4b/3x3_reduce -> inception_4b/3x3_reduce
I0403 15:15:50.883797 11773 net.cpp:141] Setting up inception_4b/3x3_reduce
I0403 15:15:50.883826 11773 net.cpp:148] Top shape: 24 112 14 14 (526848)
I0403 15:15:50.883839 11773 net.cpp:156] Memory required for data: 954332448
I0403 15:15:50.883857 11773 layer_factory.hpp:77] Creating layer inception_4b/relu_3x3_reduce
I0403 15:15:50.883877 11773 net.cpp:91] Creating Layer inception_4b/relu_3x3_reduce
I0403 15:15:50.883895 11773 net.cpp:425] inception_4b/relu_3x3_reduce <- inception_4b/3x3_reduce
I0403 15:15:50.883913 11773 net.cpp:386] inception_4b/relu_3x3_reduce -> inception_4b/3x3_reduce (in-place)
I0403 15:15:50.884196 11773 net.cpp:141] Setting up inception_4b/relu_3x3_reduce
I0403 15:15:50.884222 11773 net.cpp:148] Top shape: 24 112 14 14 (526848)
I0403 15:15:50.884238 11773 net.cpp:156] Memory required for data: 956439840
I0403 15:15:50.884251 11773 layer_factory.hpp:77] Creating layer inception_4b/3x3
I0403 15:15:50.884274 11773 net.cpp:91] Creating Layer inception_4b/3x3
I0403 15:15:50.884291 11773 net.cpp:425] inception_4b/3x3 <- inception_4b/3x3_reduce
I0403 15:15:50.884312 11773 net.cpp:399] inception_4b/3x3 -> inception_4b/3x3
I0403 15:15:50.887336 11773 net.cpp:141] Setting up inception_4b/3x3
I0403 15:15:50.887367 11773 net.cpp:148] Top shape: 24 224 14 14 (1053696)
I0403 15:15:50.887383 11773 net.cpp:156] Memory required for data: 960654624
I0403 15:15:50.887401 11773 layer_factory.hpp:77] Creating layer inception_4b/relu_3x3
I0403 15:15:50.887418 11773 net.cpp:91] Creating Layer inception_4b/relu_3x3
I0403 15:15:50.887434 11773 net.cpp:425] inception_4b/relu_3x3 <- inception_4b/3x3
I0403 15:15:50.887451 11773 net.cpp:386] inception_4b/relu_3x3 -> inception_4b/3x3 (in-place)
I0403 15:15:50.887634 11773 net.cpp:141] Setting up inception_4b/relu_3x3
I0403 15:15:50.887660 11773 net.cpp:148] Top shape: 24 224 14 14 (1053696)
I0403 15:15:50.887673 11773 net.cpp:156] Memory required for data: 964869408
I0403 15:15:50.887699 11773 layer_factory.hpp:77] Creating layer inception_4b/5x5_reduce
I0403 15:15:50.887722 11773 net.cpp:91] Creating Layer inception_4b/5x5_reduce
I0403 15:15:50.887739 11773 net.cpp:425] inception_4b/5x5_reduce <- inception_4a/output_inception_4a/output_0_split_3
I0403 15:15:50.887759 11773 net.cpp:399] inception_4b/5x5_reduce -> inception_4b/5x5_reduce
I0403 15:15:50.888821 11773 net.cpp:141] Setting up inception_4b/5x5_reduce
I0403 15:15:50.888847 11773 net.cpp:148] Top shape: 24 24 14 14 (112896)
I0403 15:15:50.888862 11773 net.cpp:156] Memory required for data: 965320992
I0403 15:15:50.888880 11773 layer_factory.hpp:77] Creating layer inception_4b/relu_5x5_reduce
I0403 15:15:50.888898 11773 net.cpp:91] Creating Layer inception_4b/relu_5x5_reduce
I0403 15:15:50.888928 11773 net.cpp:425] inception_4b/relu_5x5_reduce <- inception_4b/5x5_reduce
I0403 15:15:50.888945 11773 net.cpp:386] inception_4b/relu_5x5_reduce -> inception_4b/5x5_reduce (in-place)
I0403 15:15:50.889119 11773 net.cpp:141] Setting up inception_4b/relu_5x5_reduce
I0403 15:15:50.889143 11773 net.cpp:148] Top shape: 24 24 14 14 (112896)
I0403 15:15:50.889158 11773 net.cpp:156] Memory required for data: 965772576
I0403 15:15:50.889171 11773 layer_factory.hpp:77] Creating layer inception_4b/5x5
I0403 15:15:50.889194 11773 net.cpp:91] Creating Layer inception_4b/5x5
I0403 15:15:50.889210 11773 net.cpp:425] inception_4b/5x5 <- inception_4b/5x5_reduce
I0403 15:15:50.889228 11773 net.cpp:399] inception_4b/5x5 -> inception_4b/5x5
I0403 15:15:50.890426 11773 net.cpp:141] Setting up inception_4b/5x5
I0403 15:15:50.890453 11773 net.cpp:148] Top shape: 24 64 14 14 (301056)
I0403 15:15:50.890467 11773 net.cpp:156] Memory required for data: 966976800
I0403 15:15:50.890486 11773 layer_factory.hpp:77] Creating layer inception_4b/relu_5x5
I0403 15:15:50.890502 11773 net.cpp:91] Creating Layer inception_4b/relu_5x5
I0403 15:15:50.890517 11773 net.cpp:425] inception_4b/relu_5x5 <- inception_4b/5x5
I0403 15:15:50.890535 11773 net.cpp:386] inception_4b/relu_5x5 -> inception_4b/5x5 (in-place)
I0403 15:15:50.890812 11773 net.cpp:141] Setting up inception_4b/relu_5x5
I0403 15:15:50.890837 11773 net.cpp:148] Top shape: 24 64 14 14 (301056)
I0403 15:15:50.890851 11773 net.cpp:156] Memory required for data: 968181024
I0403 15:15:50.890866 11773 layer_factory.hpp:77] Creating layer inception_4b/pool
I0403 15:15:50.890883 11773 net.cpp:91] Creating Layer inception_4b/pool
I0403 15:15:50.890898 11773 net.cpp:425] inception_4b/pool <- inception_4a/output_inception_4a/output_0_split_4
I0403 15:15:50.890919 11773 net.cpp:399] inception_4b/pool -> inception_4b/pool
I0403 15:15:50.890982 11773 net.cpp:141] Setting up inception_4b/pool
I0403 15:15:50.891005 11773 net.cpp:148] Top shape: 24 512 14 14 (2408448)
I0403 15:15:50.891019 11773 net.cpp:156] Memory required for data: 977814816
I0403 15:15:50.891032 11773 layer_factory.hpp:77] Creating layer inception_4b/pool_proj
I0403 15:15:50.891055 11773 net.cpp:91] Creating Layer inception_4b/pool_proj
I0403 15:15:50.891072 11773 net.cpp:425] inception_4b/pool_proj <- inception_4b/pool
I0403 15:15:50.891089 11773 net.cpp:399] inception_4b/pool_proj -> inception_4b/pool_proj
I0403 15:15:50.892261 11773 net.cpp:141] Setting up inception_4b/pool_proj
I0403 15:15:50.892287 11773 net.cpp:148] Top shape: 24 64 14 14 (301056)
I0403 15:15:50.892302 11773 net.cpp:156] Memory required for data: 979019040
I0403 15:15:50.892331 11773 layer_factory.hpp:77] Creating layer inception_4b/relu_pool_proj
I0403 15:15:50.892352 11773 net.cpp:91] Creating Layer inception_4b/relu_pool_proj
I0403 15:15:50.892367 11773 net.cpp:425] inception_4b/relu_pool_proj <- inception_4b/pool_proj
I0403 15:15:50.892386 11773 net.cpp:386] inception_4b/relu_pool_proj -> inception_4b/pool_proj (in-place)
I0403 15:15:50.892561 11773 net.cpp:141] Setting up inception_4b/relu_pool_proj
I0403 15:15:50.892585 11773 net.cpp:148] Top shape: 24 64 14 14 (301056)
I0403 15:15:50.892598 11773 net.cpp:156] Memory required for data: 980223264
I0403 15:15:50.892612 11773 layer_factory.hpp:77] Creating layer inception_4b/output
I0403 15:15:50.892632 11773 net.cpp:91] Creating Layer inception_4b/output
I0403 15:15:50.892647 11773 net.cpp:425] inception_4b/output <- inception_4b/1x1
I0403 15:15:50.892663 11773 net.cpp:425] inception_4b/output <- inception_4b/3x3
I0403 15:15:50.892676 11773 net.cpp:425] inception_4b/output <- inception_4b/5x5
I0403 15:15:50.892691 11773 net.cpp:425] inception_4b/output <- inception_4b/pool_proj
I0403 15:15:50.892707 11773 net.cpp:399] inception_4b/output -> inception_4b/output
I0403 15:15:50.892753 11773 net.cpp:141] Setting up inception_4b/output
I0403 15:15:50.892774 11773 net.cpp:148] Top shape: 24 512 14 14 (2408448)
I0403 15:15:50.892788 11773 net.cpp:156] Memory required for data: 989857056
I0403 15:15:50.892817 11773 layer_factory.hpp:77] Creating layer inception_4b/output_inception_4b/output_0_split
I0403 15:15:50.892833 11773 net.cpp:91] Creating Layer inception_4b/output_inception_4b/output_0_split
I0403 15:15:50.892848 11773 net.cpp:425] inception_4b/output_inception_4b/output_0_split <- inception_4b/output
I0403 15:15:50.892866 11773 net.cpp:399] inception_4b/output_inception_4b/output_0_split -> inception_4b/output_inception_4b/output_0_split_0
I0403 15:15:50.892887 11773 net.cpp:399] inception_4b/output_inception_4b/output_0_split -> inception_4b/output_inception_4b/output_0_split_1
I0403 15:15:50.892905 11773 net.cpp:399] inception_4b/output_inception_4b/output_0_split -> inception_4b/output_inception_4b/output_0_split_2
I0403 15:15:50.892925 11773 net.cpp:399] inception_4b/output_inception_4b/output_0_split -> inception_4b/output_inception_4b/output_0_split_3
I0403 15:15:50.893007 11773 net.cpp:141] Setting up inception_4b/output_inception_4b/output_0_split
I0403 15:15:50.893029 11773 net.cpp:148] Top shape: 24 512 14 14 (2408448)
I0403 15:15:50.893044 11773 net.cpp:148] Top shape: 24 512 14 14 (2408448)
I0403 15:15:50.893059 11773 net.cpp:148] Top shape: 24 512 14 14 (2408448)
I0403 15:15:50.893074 11773 net.cpp:148] Top shape: 24 512 14 14 (2408448)
I0403 15:15:50.893085 11773 net.cpp:156] Memory required for data: 1028392224
I0403 15:15:50.893100 11773 layer_factory.hpp:77] Creating layer inception_4c/1x1
I0403 15:15:50.893120 11773 net.cpp:91] Creating Layer inception_4c/1x1
I0403 15:15:50.893136 11773 net.cpp:425] inception_4c/1x1 <- inception_4b/output_inception_4b/output_0_split_0
I0403 15:15:50.893156 11773 net.cpp:399] inception_4c/1x1 -> inception_4c/1x1
I0403 15:15:50.894623 11773 net.cpp:141] Setting up inception_4c/1x1
I0403 15:15:50.894650 11773 net.cpp:148] Top shape: 24 128 14 14 (602112)
I0403 15:15:50.894670 11773 net.cpp:156] Memory required for data: 1030800672
I0403 15:15:50.894687 11773 layer_factory.hpp:77] Creating layer inception_4c/relu_1x1
I0403 15:15:50.894703 11773 net.cpp:91] Creating Layer inception_4c/relu_1x1
I0403 15:15:50.894718 11773 net.cpp:425] inception_4c/relu_1x1 <- inception_4c/1x1
I0403 15:15:50.894734 11773 net.cpp:386] inception_4c/relu_1x1 -> inception_4c/1x1 (in-place)
I0403 15:15:50.894912 11773 net.cpp:141] Setting up inception_4c/relu_1x1
I0403 15:15:50.894937 11773 net.cpp:148] Top shape: 24 128 14 14 (602112)
I0403 15:15:50.894950 11773 net.cpp:156] Memory required for data: 1033209120
I0403 15:15:50.894964 11773 layer_factory.hpp:77] Creating layer inception_4c/3x3_reduce
I0403 15:15:50.894985 11773 net.cpp:91] Creating Layer inception_4c/3x3_reduce
I0403 15:15:50.895002 11773 net.cpp:425] inception_4c/3x3_reduce <- inception_4b/output_inception_4b/output_0_split_1
I0403 15:15:50.895020 11773 net.cpp:399] inception_4c/3x3_reduce -> inception_4c/3x3_reduce
I0403 15:15:50.896919 11773 net.cpp:141] Setting up inception_4c/3x3_reduce
I0403 15:15:50.896946 11773 net.cpp:148] Top shape: 24 128 14 14 (602112)
I0403 15:15:50.896961 11773 net.cpp:156] Memory required for data: 1035617568
I0403 15:15:50.896977 11773 layer_factory.hpp:77] Creating layer inception_4c/relu_3x3_reduce
I0403 15:15:50.896994 11773 net.cpp:91] Creating Layer inception_4c/relu_3x3_reduce
I0403 15:15:50.897009 11773 net.cpp:425] inception_4c/relu_3x3_reduce <- inception_4c/3x3_reduce
I0403 15:15:50.897028 11773 net.cpp:386] inception_4c/relu_3x3_reduce -> inception_4c/3x3_reduce (in-place)
I0403 15:15:50.897308 11773 net.cpp:141] Setting up inception_4c/relu_3x3_reduce
I0403 15:15:50.897339 11773 net.cpp:148] Top shape: 24 128 14 14 (602112)
I0403 15:15:50.897353 11773 net.cpp:156] Memory required for data: 1038026016
I0403 15:15:50.897367 11773 layer_factory.hpp:77] Creating layer inception_4c/3x3
I0403 15:15:50.897389 11773 net.cpp:91] Creating Layer inception_4c/3x3
I0403 15:15:50.897406 11773 net.cpp:425] inception_4c/3x3 <- inception_4c/3x3_reduce
I0403 15:15:50.897429 11773 net.cpp:399] inception_4c/3x3 -> inception_4c/3x3
I0403 15:15:50.900984 11773 net.cpp:141] Setting up inception_4c/3x3
I0403 15:15:50.901024 11773 net.cpp:148] Top shape: 24 256 14 14 (1204224)
I0403 15:15:50.901041 11773 net.cpp:156] Memory required for data: 1042842912
I0403 15:15:50.901074 11773 layer_factory.hpp:77] Creating layer inception_4c/relu_3x3
I0403 15:15:50.901095 11773 net.cpp:91] Creating Layer inception_4c/relu_3x3
I0403 15:15:50.901110 11773 net.cpp:425] inception_4c/relu_3x3 <- inception_4c/3x3
I0403 15:15:50.901129 11773 net.cpp:386] inception_4c/relu_3x3 -> inception_4c/3x3 (in-place)
I0403 15:15:50.901314 11773 net.cpp:141] Setting up inception_4c/relu_3x3
I0403 15:15:50.901345 11773 net.cpp:148] Top shape: 24 256 14 14 (1204224)
I0403 15:15:50.901360 11773 net.cpp:156] Memory required for data: 1047659808
I0403 15:15:50.901374 11773 layer_factory.hpp:77] Creating layer inception_4c/5x5_reduce
I0403 15:15:50.901396 11773 net.cpp:91] Creating Layer inception_4c/5x5_reduce
I0403 15:15:50.901413 11773 net.cpp:425] inception_4c/5x5_reduce <- inception_4b/output_inception_4b/output_0_split_2
I0403 15:15:50.901435 11773 net.cpp:399] inception_4c/5x5_reduce -> inception_4c/5x5_reduce
I0403 15:15:50.902539 11773 net.cpp:141] Setting up inception_4c/5x5_reduce
I0403 15:15:50.902566 11773 net.cpp:148] Top shape: 24 24 14 14 (112896)
I0403 15:15:50.902580 11773 net.cpp:156] Memory required for data: 1048111392
I0403 15:15:50.902597 11773 layer_factory.hpp:77] Creating layer inception_4c/relu_5x5_reduce
I0403 15:15:50.902617 11773 net.cpp:91] Creating Layer inception_4c/relu_5x5_reduce
I0403 15:15:50.902634 11773 net.cpp:425] inception_4c/relu_5x5_reduce <- inception_4c/5x5_reduce
I0403 15:15:50.902650 11773 net.cpp:386] inception_4c/relu_5x5_reduce -> inception_4c/5x5_reduce (in-place)
I0403 15:15:50.902828 11773 net.cpp:141] Setting up inception_4c/relu_5x5_reduce
I0403 15:15:50.902853 11773 net.cpp:148] Top shape: 24 24 14 14 (112896)
I0403 15:15:50.902866 11773 net.cpp:156] Memory required for data: 1048562976
I0403 15:15:50.902880 11773 layer_factory.hpp:77] Creating layer inception_4c/5x5
I0403 15:15:50.902901 11773 net.cpp:91] Creating Layer inception_4c/5x5
I0403 15:15:50.902920 11773 net.cpp:425] inception_4c/5x5 <- inception_4c/5x5_reduce
I0403 15:15:50.902936 11773 net.cpp:399] inception_4c/5x5 -> inception_4c/5x5
I0403 15:15:50.904151 11773 net.cpp:141] Setting up inception_4c/5x5
I0403 15:15:50.904177 11773 net.cpp:148] Top shape: 24 64 14 14 (301056)
I0403 15:15:50.904192 11773 net.cpp:156] Memory required for data: 1049767200
I0403 15:15:50.904209 11773 layer_factory.hpp:77] Creating layer inception_4c/relu_5x5
I0403 15:15:50.904229 11773 net.cpp:91] Creating Layer inception_4c/relu_5x5
I0403 15:15:50.904245 11773 net.cpp:425] inception_4c/relu_5x5 <- inception_4c/5x5
I0403 15:15:50.904261 11773 net.cpp:386] inception_4c/relu_5x5 -> inception_4c/5x5 (in-place)
I0403 15:15:50.904556 11773 net.cpp:141] Setting up inception_4c/relu_5x5
I0403 15:15:50.904580 11773 net.cpp:148] Top shape: 24 64 14 14 (301056)
I0403 15:15:50.904594 11773 net.cpp:156] Memory required for data: 1050971424
I0403 15:15:50.904609 11773 layer_factory.hpp:77] Creating layer inception_4c/pool
I0403 15:15:50.904628 11773 net.cpp:91] Creating Layer inception_4c/pool
I0403 15:15:50.904644 11773 net.cpp:425] inception_4c/pool <- inception_4b/output_inception_4b/output_0_split_3
I0403 15:15:50.904662 11773 net.cpp:399] inception_4c/pool -> inception_4c/pool
I0403 15:15:50.904726 11773 net.cpp:141] Setting up inception_4c/pool
I0403 15:15:50.904748 11773 net.cpp:148] Top shape: 24 512 14 14 (2408448)
I0403 15:15:50.904762 11773 net.cpp:156] Memory required for data: 1060605216
I0403 15:15:50.904775 11773 layer_factory.hpp:77] Creating layer inception_4c/pool_proj
I0403 15:15:50.904796 11773 net.cpp:91] Creating Layer inception_4c/pool_proj
I0403 15:15:50.904814 11773 net.cpp:425] inception_4c/pool_proj <- inception_4c/pool
I0403 15:15:50.904834 11773 net.cpp:399] inception_4c/pool_proj -> inception_4c/pool_proj
I0403 15:15:50.906018 11773 net.cpp:141] Setting up inception_4c/pool_proj
I0403 15:15:50.906045 11773 net.cpp:148] Top shape: 24 64 14 14 (301056)
I0403 15:15:50.906075 11773 net.cpp:156] Memory required for data: 1061809440
I0403 15:15:50.906092 11773 layer_factory.hpp:77] Creating layer inception_4c/relu_pool_proj
I0403 15:15:50.906111 11773 net.cpp:91] Creating Layer inception_4c/relu_pool_proj
I0403 15:15:50.906126 11773 net.cpp:425] inception_4c/relu_pool_proj <- inception_4c/pool_proj
I0403 15:15:50.906144 11773 net.cpp:386] inception_4c/relu_pool_proj -> inception_4c/pool_proj (in-place)
I0403 15:15:50.906329 11773 net.cpp:141] Setting up inception_4c/relu_pool_proj
I0403 15:15:50.906354 11773 net.cpp:148] Top shape: 24 64 14 14 (301056)
I0403 15:15:50.906368 11773 net.cpp:156] Memory required for data: 1063013664
I0403 15:15:50.906383 11773 layer_factory.hpp:77] Creating layer inception_4c/output
I0403 15:15:50.906400 11773 net.cpp:91] Creating Layer inception_4c/output
I0403 15:15:50.906416 11773 net.cpp:425] inception_4c/output <- inception_4c/1x1
I0403 15:15:50.906432 11773 net.cpp:425] inception_4c/output <- inception_4c/3x3
I0403 15:15:50.906447 11773 net.cpp:425] inception_4c/output <- inception_4c/5x5
I0403 15:15:50.906462 11773 net.cpp:425] inception_4c/output <- inception_4c/pool_proj
I0403 15:15:50.906477 11773 net.cpp:399] inception_4c/output -> inception_4c/output
I0403 15:15:50.906523 11773 net.cpp:141] Setting up inception_4c/output
I0403 15:15:50.906545 11773 net.cpp:148] Top shape: 24 512 14 14 (2408448)
I0403 15:15:50.906559 11773 net.cpp:156] Memory required for data: 1072647456
I0403 15:15:50.906574 11773 layer_factory.hpp:77] Creating layer inception_4c/output_inception_4c/output_0_split
I0403 15:15:50.906589 11773 net.cpp:91] Creating Layer inception_4c/output_inception_4c/output_0_split
I0403 15:15:50.906604 11773 net.cpp:425] inception_4c/output_inception_4c/output_0_split <- inception_4c/output
I0403 15:15:50.906622 11773 net.cpp:399] inception_4c/output_inception_4c/output_0_split -> inception_4c/output_inception_4c/output_0_split_0
I0403 15:15:50.906642 11773 net.cpp:399] inception_4c/output_inception_4c/output_0_split -> inception_4c/output_inception_4c/output_0_split_1
I0403 15:15:50.906661 11773 net.cpp:399] inception_4c/output_inception_4c/output_0_split -> inception_4c/output_inception_4c/output_0_split_2
I0403 15:15:50.906680 11773 net.cpp:399] inception_4c/output_inception_4c/output_0_split -> inception_4c/output_inception_4c/output_0_split_3
I0403 15:15:50.906760 11773 net.cpp:141] Setting up inception_4c/output_inception_4c/output_0_split
I0403 15:15:50.906785 11773 net.cpp:148] Top shape: 24 512 14 14 (2408448)
I0403 15:15:50.906800 11773 net.cpp:148] Top shape: 24 512 14 14 (2408448)
I0403 15:15:50.906813 11773 net.cpp:148] Top shape: 24 512 14 14 (2408448)
I0403 15:15:50.906828 11773 net.cpp:148] Top shape: 24 512 14 14 (2408448)
I0403 15:15:50.906841 11773 net.cpp:156] Memory required for data: 1111182624
I0403 15:15:50.906855 11773 layer_factory.hpp:77] Creating layer inception_4d/1x1
I0403 15:15:50.906877 11773 net.cpp:91] Creating Layer inception_4d/1x1
I0403 15:15:50.906894 11773 net.cpp:425] inception_4d/1x1 <- inception_4c/output_inception_4c/output_0_split_0
I0403 15:15:50.906914 11773 net.cpp:399] inception_4d/1x1 -> inception_4d/1x1
I0403 15:15:50.908303 11773 net.cpp:141] Setting up inception_4d/1x1
I0403 15:15:50.908339 11773 net.cpp:148] Top shape: 24 112 14 14 (526848)
I0403 15:15:50.908356 11773 net.cpp:156] Memory required for data: 1113290016
I0403 15:15:50.908375 11773 layer_factory.hpp:77] Creating layer inception_4d/relu_1x1
I0403 15:15:50.908391 11773 net.cpp:91] Creating Layer inception_4d/relu_1x1
I0403 15:15:50.908407 11773 net.cpp:425] inception_4d/relu_1x1 <- inception_4d/1x1
I0403 15:15:50.908427 11773 net.cpp:386] inception_4d/relu_1x1 -> inception_4d/1x1 (in-place)
I0403 15:15:50.908612 11773 net.cpp:141] Setting up inception_4d/relu_1x1
I0403 15:15:50.908638 11773 net.cpp:148] Top shape: 24 112 14 14 (526848)
I0403 15:15:50.908651 11773 net.cpp:156] Memory required for data: 1115397408
I0403 15:15:50.908665 11773 layer_factory.hpp:77] Creating layer inception_4d/3x3_reduce
I0403 15:15:50.908701 11773 net.cpp:91] Creating Layer inception_4d/3x3_reduce
I0403 15:15:50.908720 11773 net.cpp:425] inception_4d/3x3_reduce <- inception_4c/output_inception_4c/output_0_split_1
I0403 15:15:50.908740 11773 net.cpp:399] inception_4d/3x3_reduce -> inception_4d/3x3_reduce
I0403 15:15:50.910253 11773 net.cpp:141] Setting up inception_4d/3x3_reduce
I0403 15:15:50.910279 11773 net.cpp:148] Top shape: 24 144 14 14 (677376)
I0403 15:15:50.910295 11773 net.cpp:156] Memory required for data: 1118106912
I0403 15:15:50.910312 11773 layer_factory.hpp:77] Creating layer inception_4d/relu_3x3_reduce
I0403 15:15:50.910341 11773 net.cpp:91] Creating Layer inception_4d/relu_3x3_reduce
I0403 15:15:50.910358 11773 net.cpp:425] inception_4d/relu_3x3_reduce <- inception_4d/3x3_reduce
I0403 15:15:50.910375 11773 net.cpp:386] inception_4d/relu_3x3_reduce -> inception_4d/3x3_reduce (in-place)
I0403 15:15:50.910665 11773 net.cpp:141] Setting up inception_4d/relu_3x3_reduce
I0403 15:15:50.910691 11773 net.cpp:148] Top shape: 24 144 14 14 (677376)
I0403 15:15:50.910706 11773 net.cpp:156] Memory required for data: 1120816416
I0403 15:15:50.910720 11773 layer_factory.hpp:77] Creating layer inception_4d/3x3
I0403 15:15:50.910743 11773 net.cpp:91] Creating Layer inception_4d/3x3
I0403 15:15:50.910761 11773 net.cpp:425] inception_4d/3x3 <- inception_4d/3x3_reduce
I0403 15:15:50.910779 11773 net.cpp:399] inception_4d/3x3 -> inception_4d/3x3
I0403 15:15:50.915060 11773 net.cpp:141] Setting up inception_4d/3x3
I0403 15:15:50.915091 11773 net.cpp:148] Top shape: 24 288 14 14 (1354752)
I0403 15:15:50.915107 11773 net.cpp:156] Memory required for data: 1126235424
I0403 15:15:50.915125 11773 layer_factory.hpp:77] Creating layer inception_4d/relu_3x3
I0403 15:15:50.915143 11773 net.cpp:91] Creating Layer inception_4d/relu_3x3
I0403 15:15:50.915159 11773 net.cpp:425] inception_4d/relu_3x3 <- inception_4d/3x3
I0403 15:15:50.915179 11773 net.cpp:386] inception_4d/relu_3x3 -> inception_4d/3x3 (in-place)
I0403 15:15:50.915369 11773 net.cpp:141] Setting up inception_4d/relu_3x3
I0403 15:15:50.915395 11773 net.cpp:148] Top shape: 24 288 14 14 (1354752)
I0403 15:15:50.915408 11773 net.cpp:156] Memory required for data: 1131654432
I0403 15:15:50.915423 11773 layer_factory.hpp:77] Creating layer inception_4d/5x5_reduce
I0403 15:15:50.915446 11773 net.cpp:91] Creating Layer inception_4d/5x5_reduce
I0403 15:15:50.915462 11773 net.cpp:425] inception_4d/5x5_reduce <- inception_4c/output_inception_4c/output_0_split_2
I0403 15:15:50.915487 11773 net.cpp:399] inception_4d/5x5_reduce -> inception_4d/5x5_reduce
I0403 15:15:50.916641 11773 net.cpp:141] Setting up inception_4d/5x5_reduce
I0403 15:15:50.916671 11773 net.cpp:148] Top shape: 24 32 14 14 (150528)
I0403 15:15:50.916685 11773 net.cpp:156] Memory required for data: 1132256544
I0403 15:15:50.916703 11773 layer_factory.hpp:77] Creating layer inception_4d/relu_5x5_reduce
I0403 15:15:50.916720 11773 net.cpp:91] Creating Layer inception_4d/relu_5x5_reduce
I0403 15:15:50.916736 11773 net.cpp:425] inception_4d/relu_5x5_reduce <- inception_4d/5x5_reduce
I0403 15:15:50.916755 11773 net.cpp:386] inception_4d/relu_5x5_reduce -> inception_4d/5x5_reduce (in-place)
I0403 15:15:50.916946 11773 net.cpp:141] Setting up inception_4d/relu_5x5_reduce
I0403 15:15:50.916970 11773 net.cpp:148] Top shape: 24 32 14 14 (150528)
I0403 15:15:50.916985 11773 net.cpp:156] Memory required for data: 1132858656
I0403 15:15:50.917001 11773 layer_factory.hpp:77] Creating layer inception_4d/5x5
I0403 15:15:50.917021 11773 net.cpp:91] Creating Layer inception_4d/5x5
I0403 15:15:50.917038 11773 net.cpp:425] inception_4d/5x5 <- inception_4d/5x5_reduce
I0403 15:15:50.917059 11773 net.cpp:399] inception_4d/5x5 -> inception_4d/5x5
I0403 15:15:50.918546 11773 net.cpp:141] Setting up inception_4d/5x5
I0403 15:15:50.918573 11773 net.cpp:148] Top shape: 24 64 14 14 (301056)
I0403 15:15:50.918589 11773 net.cpp:156] Memory required for data: 1134062880
I0403 15:15:50.918607 11773 layer_factory.hpp:77] Creating layer inception_4d/relu_5x5
I0403 15:15:50.918642 11773 net.cpp:91] Creating Layer inception_4d/relu_5x5
I0403 15:15:50.918658 11773 net.cpp:425] inception_4d/relu_5x5 <- inception_4d/5x5
I0403 15:15:50.918675 11773 net.cpp:386] inception_4d/relu_5x5 -> inception_4d/5x5 (in-place)
I0403 15:15:50.918982 11773 net.cpp:141] Setting up inception_4d/relu_5x5
I0403 15:15:50.919008 11773 net.cpp:148] Top shape: 24 64 14 14 (301056)
I0403 15:15:50.919021 11773 net.cpp:156] Memory required for data: 1135267104
I0403 15:15:50.919036 11773 layer_factory.hpp:77] Creating layer inception_4d/pool
I0403 15:15:50.919055 11773 net.cpp:91] Creating Layer inception_4d/pool
I0403 15:15:50.919072 11773 net.cpp:425] inception_4d/pool <- inception_4c/output_inception_4c/output_0_split_3
I0403 15:15:50.919090 11773 net.cpp:399] inception_4d/pool -> inception_4d/pool
I0403 15:15:50.919158 11773 net.cpp:141] Setting up inception_4d/pool
I0403 15:15:50.919180 11773 net.cpp:148] Top shape: 24 512 14 14 (2408448)
I0403 15:15:50.919194 11773 net.cpp:156] Memory required for data: 1144900896
I0403 15:15:50.919209 11773 layer_factory.hpp:77] Creating layer inception_4d/pool_proj
I0403 15:15:50.919232 11773 net.cpp:91] Creating Layer inception_4d/pool_proj
I0403 15:15:50.919250 11773 net.cpp:425] inception_4d/pool_proj <- inception_4d/pool
I0403 15:15:50.919271 11773 net.cpp:399] inception_4d/pool_proj -> inception_4d/pool_proj
I0403 15:15:50.921028 11773 net.cpp:141] Setting up inception_4d/pool_proj
I0403 15:15:50.921059 11773 net.cpp:148] Top shape: 24 64 14 14 (301056)
I0403 15:15:50.921075 11773 net.cpp:156] Memory required for data: 1146105120
I0403 15:15:50.921093 11773 layer_factory.hpp:77] Creating layer inception_4d/relu_pool_proj
I0403 15:15:50.921110 11773 net.cpp:91] Creating Layer inception_4d/relu_pool_proj
I0403 15:15:50.921125 11773 net.cpp:425] inception_4d/relu_pool_proj <- inception_4d/pool_proj
I0403 15:15:50.921144 11773 net.cpp:386] inception_4d/relu_pool_proj -> inception_4d/pool_proj (in-place)
I0403 15:15:50.921336 11773 net.cpp:141] Setting up inception_4d/relu_pool_proj
I0403 15:15:50.921361 11773 net.cpp:148] Top shape: 24 64 14 14 (301056)
I0403 15:15:50.921375 11773 net.cpp:156] Memory required for data: 1147309344
I0403 15:15:50.921389 11773 layer_factory.hpp:77] Creating layer inception_4d/output
I0403 15:15:50.921406 11773 net.cpp:91] Creating Layer inception_4d/output
I0403 15:15:50.921422 11773 net.cpp:425] inception_4d/output <- inception_4d/1x1
I0403 15:15:50.921438 11773 net.cpp:425] inception_4d/output <- inception_4d/3x3
I0403 15:15:50.921454 11773 net.cpp:425] inception_4d/output <- inception_4d/5x5
I0403 15:15:50.921469 11773 net.cpp:425] inception_4d/output <- inception_4d/pool_proj
I0403 15:15:50.921489 11773 net.cpp:399] inception_4d/output -> inception_4d/output
I0403 15:15:50.921540 11773 net.cpp:141] Setting up inception_4d/output
I0403 15:15:50.921562 11773 net.cpp:148] Top shape: 24 528 14 14 (2483712)
I0403 15:15:50.921576 11773 net.cpp:156] Memory required for data: 1157244192
I0403 15:15:50.921591 11773 layer_factory.hpp:77] Creating layer inception_4d/output_inception_4d/output_0_split
I0403 15:15:50.921607 11773 net.cpp:91] Creating Layer inception_4d/output_inception_4d/output_0_split
I0403 15:15:50.921622 11773 net.cpp:425] inception_4d/output_inception_4d/output_0_split <- inception_4d/output
I0403 15:15:50.921643 11773 net.cpp:399] inception_4d/output_inception_4d/output_0_split -> inception_4d/output_inception_4d/output_0_split_0
I0403 15:15:50.921664 11773 net.cpp:399] inception_4d/output_inception_4d/output_0_split -> inception_4d/output_inception_4d/output_0_split_1
I0403 15:15:50.921685 11773 net.cpp:399] inception_4d/output_inception_4d/output_0_split -> inception_4d/output_inception_4d/output_0_split_2
I0403 15:15:50.921705 11773 net.cpp:399] inception_4d/output_inception_4d/output_0_split -> inception_4d/output_inception_4d/output_0_split_3
I0403 15:15:50.921725 11773 net.cpp:399] inception_4d/output_inception_4d/output_0_split -> inception_4d/output_inception_4d/output_0_split_4
I0403 15:15:50.921826 11773 net.cpp:141] Setting up inception_4d/output_inception_4d/output_0_split
I0403 15:15:50.921864 11773 net.cpp:148] Top shape: 24 528 14 14 (2483712)
I0403 15:15:50.921881 11773 net.cpp:148] Top shape: 24 528 14 14 (2483712)
I0403 15:15:50.921897 11773 net.cpp:148] Top shape: 24 528 14 14 (2483712)
I0403 15:15:50.921912 11773 net.cpp:148] Top shape: 24 528 14 14 (2483712)
I0403 15:15:50.921927 11773 net.cpp:148] Top shape: 24 528 14 14 (2483712)
I0403 15:15:50.921941 11773 net.cpp:156] Memory required for data: 1206918432
I0403 15:15:50.921953 11773 layer_factory.hpp:77] Creating layer loss2/ave_pool
I0403 15:15:50.921972 11773 net.cpp:91] Creating Layer loss2/ave_pool
I0403 15:15:50.921988 11773 net.cpp:425] loss2/ave_pool <- inception_4d/output_inception_4d/output_0_split_0
I0403 15:15:50.922005 11773 net.cpp:399] loss2/ave_pool -> loss2/ave_pool
I0403 15:15:50.922333 11773 net.cpp:141] Setting up loss2/ave_pool
I0403 15:15:50.922360 11773 net.cpp:148] Top shape: 24 528 4 4 (202752)
I0403 15:15:50.922376 11773 net.cpp:156] Memory required for data: 1207729440
I0403 15:15:50.922390 11773 layer_factory.hpp:77] Creating layer loss2/conv
I0403 15:15:50.922412 11773 net.cpp:91] Creating Layer loss2/conv
I0403 15:15:50.922430 11773 net.cpp:425] loss2/conv <- loss2/ave_pool
I0403 15:15:50.922448 11773 net.cpp:399] loss2/conv -> loss2/conv
I0403 15:15:50.924341 11773 net.cpp:141] Setting up loss2/conv
I0403 15:15:50.924371 11773 net.cpp:148] Top shape: 24 128 4 4 (49152)
I0403 15:15:50.924386 11773 net.cpp:156] Memory required for data: 1207926048
I0403 15:15:50.924403 11773 layer_factory.hpp:77] Creating layer loss2/relu_conv
I0403 15:15:50.924424 11773 net.cpp:91] Creating Layer loss2/relu_conv
I0403 15:15:50.924442 11773 net.cpp:425] loss2/relu_conv <- loss2/conv
I0403 15:15:50.924458 11773 net.cpp:386] loss2/relu_conv -> loss2/conv (in-place)
I0403 15:15:50.924742 11773 net.cpp:141] Setting up loss2/relu_conv
I0403 15:15:50.924768 11773 net.cpp:148] Top shape: 24 128 4 4 (49152)
I0403 15:15:50.924783 11773 net.cpp:156] Memory required for data: 1208122656
I0403 15:15:50.924798 11773 layer_factory.hpp:77] Creating layer loss2/fc
I0403 15:15:50.924840 11773 net.cpp:91] Creating Layer loss2/fc
I0403 15:15:50.924857 11773 net.cpp:425] loss2/fc <- loss2/conv
I0403 15:15:50.924875 11773 net.cpp:399] loss2/fc -> loss2/fc
I0403 15:15:50.942239 11773 net.cpp:141] Setting up loss2/fc
I0403 15:15:50.942271 11773 net.cpp:148] Top shape: 24 1024 (24576)
I0403 15:15:50.942287 11773 net.cpp:156] Memory required for data: 1208220960
I0403 15:15:50.942306 11773 layer_factory.hpp:77] Creating layer loss2/relu_fc
I0403 15:15:50.942335 11773 net.cpp:91] Creating Layer loss2/relu_fc
I0403 15:15:50.942354 11773 net.cpp:425] loss2/relu_fc <- loss2/fc
I0403 15:15:50.942374 11773 net.cpp:386] loss2/relu_fc -> loss2/fc (in-place)
I0403 15:15:50.942687 11773 net.cpp:141] Setting up loss2/relu_fc
I0403 15:15:50.942713 11773 net.cpp:148] Top shape: 24 1024 (24576)
I0403 15:15:50.942728 11773 net.cpp:156] Memory required for data: 1208319264
I0403 15:15:50.942741 11773 layer_factory.hpp:77] Creating layer loss2/drop_fc
I0403 15:15:50.942759 11773 net.cpp:91] Creating Layer loss2/drop_fc
I0403 15:15:50.942775 11773 net.cpp:425] loss2/drop_fc <- loss2/fc
I0403 15:15:50.942793 11773 net.cpp:386] loss2/drop_fc -> loss2/fc (in-place)
I0403 15:15:50.942844 11773 net.cpp:141] Setting up loss2/drop_fc
I0403 15:15:50.942869 11773 net.cpp:148] Top shape: 24 1024 (24576)
I0403 15:15:50.942884 11773 net.cpp:156] Memory required for data: 1208417568
I0403 15:15:50.942898 11773 layer_factory.hpp:77] Creating layer loss2/classifier_plantvillage
I0403 15:15:50.942916 11773 net.cpp:91] Creating Layer loss2/classifier_plantvillage
I0403 15:15:50.942932 11773 net.cpp:425] loss2/classifier_plantvillage <- loss2/fc
I0403 15:15:50.942953 11773 net.cpp:399] loss2/classifier_plantvillage -> loss2/classifier_plantvillage
I0403 15:15:50.943368 11773 net.cpp:141] Setting up loss2/classifier_plantvillage
I0403 15:15:50.943393 11773 net.cpp:148] Top shape: 24 38 (912)
I0403 15:15:50.943428 11773 net.cpp:156] Memory required for data: 1208421216
I0403 15:15:50.943446 11773 layer_factory.hpp:77] Creating layer loss2/classifier_plantvillage_loss2/classifier_plantvillage_0_split
I0403 15:15:50.943466 11773 net.cpp:91] Creating Layer loss2/classifier_plantvillage_loss2/classifier_plantvillage_0_split
I0403 15:15:50.943482 11773 net.cpp:425] loss2/classifier_plantvillage_loss2/classifier_plantvillage_0_split <- loss2/classifier_plantvillage
I0403 15:15:50.943500 11773 net.cpp:399] loss2/classifier_plantvillage_loss2/classifier_plantvillage_0_split -> loss2/classifier_plantvillage_loss2/classifier_plantvillage_0_split_0
I0403 15:15:50.943521 11773 net.cpp:399] loss2/classifier_plantvillage_loss2/classifier_plantvillage_0_split -> loss2/classifier_plantvillage_loss2/classifier_plantvillage_0_split_1
I0403 15:15:50.943543 11773 net.cpp:399] loss2/classifier_plantvillage_loss2/classifier_plantvillage_0_split -> loss2/classifier_plantvillage_loss2/classifier_plantvillage_0_split_2
I0403 15:15:50.943620 11773 net.cpp:141] Setting up loss2/classifier_plantvillage_loss2/classifier_plantvillage_0_split
I0403 15:15:50.943644 11773 net.cpp:148] Top shape: 24 38 (912)
I0403 15:15:50.943660 11773 net.cpp:148] Top shape: 24 38 (912)
I0403 15:15:50.943673 11773 net.cpp:148] Top shape: 24 38 (912)
I0403 15:15:50.943687 11773 net.cpp:156] Memory required for data: 1208432160
I0403 15:15:50.943701 11773 layer_factory.hpp:77] Creating layer inception_4e/1x1
I0403 15:15:50.943723 11773 net.cpp:91] Creating Layer inception_4e/1x1
I0403 15:15:50.943742 11773 net.cpp:425] inception_4e/1x1 <- inception_4d/output_inception_4d/output_0_split_1
I0403 15:15:50.943760 11773 net.cpp:399] inception_4e/1x1 -> inception_4e/1x1
I0403 15:15:50.945603 11773 net.cpp:141] Setting up inception_4e/1x1
I0403 15:15:50.945631 11773 net.cpp:148] Top shape: 24 256 14 14 (1204224)
I0403 15:15:50.945647 11773 net.cpp:156] Memory required for data: 1213249056
I0403 15:15:50.945665 11773 layer_factory.hpp:77] Creating layer inception_4e/relu_1x1
I0403 15:15:50.945689 11773 net.cpp:91] Creating Layer inception_4e/relu_1x1
I0403 15:15:50.945706 11773 net.cpp:425] inception_4e/relu_1x1 <- inception_4e/1x1
I0403 15:15:50.945724 11773 net.cpp:386] inception_4e/relu_1x1 -> inception_4e/1x1 (in-place)
I0403 15:15:50.946027 11773 net.cpp:141] Setting up inception_4e/relu_1x1
I0403 15:15:50.946053 11773 net.cpp:148] Top shape: 24 256 14 14 (1204224)
I0403 15:15:50.946069 11773 net.cpp:156] Memory required for data: 1218065952
I0403 15:15:50.946082 11773 layer_factory.hpp:77] Creating layer inception_4e/3x3_reduce
I0403 15:15:50.946106 11773 net.cpp:91] Creating Layer inception_4e/3x3_reduce
I0403 15:15:50.946125 11773 net.cpp:425] inception_4e/3x3_reduce <- inception_4d/output_inception_4d/output_0_split_2
I0403 15:15:50.946146 11773 net.cpp:399] inception_4e/3x3_reduce -> inception_4e/3x3_reduce
I0403 15:15:50.948274 11773 net.cpp:141] Setting up inception_4e/3x3_reduce
I0403 15:15:50.948302 11773 net.cpp:148] Top shape: 24 160 14 14 (752640)
I0403 15:15:50.948323 11773 net.cpp:156] Memory required for data: 1221076512
I0403 15:15:50.948343 11773 layer_factory.hpp:77] Creating layer inception_4e/relu_3x3_reduce
I0403 15:15:50.948364 11773 net.cpp:91] Creating Layer inception_4e/relu_3x3_reduce
I0403 15:15:50.948381 11773 net.cpp:425] inception_4e/relu_3x3_reduce <- inception_4e/3x3_reduce
I0403 15:15:50.948398 11773 net.cpp:386] inception_4e/relu_3x3_reduce -> inception_4e/3x3_reduce (in-place)
I0403 15:15:50.948583 11773 net.cpp:141] Setting up inception_4e/relu_3x3_reduce
I0403 15:15:50.948611 11773 net.cpp:148] Top shape: 24 160 14 14 (752640)
I0403 15:15:50.948626 11773 net.cpp:156] Memory required for data: 1224087072
I0403 15:15:50.948640 11773 layer_factory.hpp:77] Creating layer inception_4e/3x3
I0403 15:15:50.948659 11773 net.cpp:91] Creating Layer inception_4e/3x3
I0403 15:15:50.948675 11773 net.cpp:425] inception_4e/3x3 <- inception_4e/3x3_reduce
I0403 15:15:50.948696 11773 net.cpp:399] inception_4e/3x3 -> inception_4e/3x3
I0403 15:15:50.953941 11773 net.cpp:141] Setting up inception_4e/3x3
I0403 15:15:50.953986 11773 net.cpp:148] Top shape: 24 320 14 14 (1505280)
I0403 15:15:50.954004 11773 net.cpp:156] Memory required for data: 1230108192
I0403 15:15:50.954021 11773 layer_factory.hpp:77] Creating layer inception_4e/relu_3x3
I0403 15:15:50.954040 11773 net.cpp:91] Creating Layer inception_4e/relu_3x3
I0403 15:15:50.954054 11773 net.cpp:425] inception_4e/relu_3x3 <- inception_4e/3x3
I0403 15:15:50.954071 11773 net.cpp:386] inception_4e/relu_3x3 -> inception_4e/3x3 (in-place)
I0403 15:15:50.954380 11773 net.cpp:141] Setting up inception_4e/relu_3x3
I0403 15:15:50.954408 11773 net.cpp:148] Top shape: 24 320 14 14 (1505280)
I0403 15:15:50.954424 11773 net.cpp:156] Memory required for data: 1236129312
I0403 15:15:50.954439 11773 layer_factory.hpp:77] Creating layer inception_4e/5x5_reduce
I0403 15:15:50.954463 11773 net.cpp:91] Creating Layer inception_4e/5x5_reduce
I0403 15:15:50.954480 11773 net.cpp:425] inception_4e/5x5_reduce <- inception_4d/output_inception_4d/output_0_split_3
I0403 15:15:50.954501 11773 net.cpp:399] inception_4e/5x5_reduce -> inception_4e/5x5_reduce
I0403 15:15:50.955581 11773 net.cpp:141] Setting up inception_4e/5x5_reduce
I0403 15:15:50.955610 11773 net.cpp:148] Top shape: 24 32 14 14 (150528)
I0403 15:15:50.955624 11773 net.cpp:156] Memory required for data: 1236731424
I0403 15:15:50.955641 11773 layer_factory.hpp:77] Creating layer inception_4e/relu_5x5_reduce
I0403 15:15:50.955662 11773 net.cpp:91] Creating Layer inception_4e/relu_5x5_reduce
I0403 15:15:50.955678 11773 net.cpp:425] inception_4e/relu_5x5_reduce <- inception_4e/5x5_reduce
I0403 15:15:50.955695 11773 net.cpp:386] inception_4e/relu_5x5_reduce -> inception_4e/5x5_reduce (in-place)
I0403 15:15:50.955994 11773 net.cpp:141] Setting up inception_4e/relu_5x5_reduce
I0403 15:15:50.956020 11773 net.cpp:148] Top shape: 24 32 14 14 (150528)
I0403 15:15:50.956035 11773 net.cpp:156] Memory required for data: 1237333536
I0403 15:15:50.956049 11773 layer_factory.hpp:77] Creating layer inception_4e/5x5
I0403 15:15:50.956089 11773 net.cpp:91] Creating Layer inception_4e/5x5
I0403 15:15:50.956107 11773 net.cpp:425] inception_4e/5x5 <- inception_4e/5x5_reduce
I0403 15:15:50.956126 11773 net.cpp:399] inception_4e/5x5 -> inception_4e/5x5
I0403 15:15:50.958009 11773 net.cpp:141] Setting up inception_4e/5x5
I0403 15:15:50.958036 11773 net.cpp:148] Top shape: 24 128 14 14 (602112)
I0403 15:15:50.958051 11773 net.cpp:156] Memory required for data: 1239741984
I0403 15:15:50.958070 11773 layer_factory.hpp:77] Creating layer inception_4e/relu_5x5
I0403 15:15:50.958088 11773 net.cpp:91] Creating Layer inception_4e/relu_5x5
I0403 15:15:50.958109 11773 net.cpp:425] inception_4e/relu_5x5 <- inception_4e/5x5
I0403 15:15:50.958127 11773 net.cpp:386] inception_4e/relu_5x5 -> inception_4e/5x5 (in-place)
I0403 15:15:50.958331 11773 net.cpp:141] Setting up inception_4e/relu_5x5
I0403 15:15:50.958356 11773 net.cpp:148] Top shape: 24 128 14 14 (602112)
I0403 15:15:50.958370 11773 net.cpp:156] Memory required for data: 1242150432
I0403 15:15:50.958385 11773 layer_factory.hpp:77] Creating layer inception_4e/pool
I0403 15:15:50.958405 11773 net.cpp:91] Creating Layer inception_4e/pool
I0403 15:15:50.958422 11773 net.cpp:425] inception_4e/pool <- inception_4d/output_inception_4d/output_0_split_4
I0403 15:15:50.958439 11773 net.cpp:399] inception_4e/pool -> inception_4e/pool
I0403 15:15:50.958511 11773 net.cpp:141] Setting up inception_4e/pool
I0403 15:15:50.958535 11773 net.cpp:148] Top shape: 24 528 14 14 (2483712)
I0403 15:15:50.958549 11773 net.cpp:156] Memory required for data: 1252085280
I0403 15:15:50.958564 11773 layer_factory.hpp:77] Creating layer inception_4e/pool_proj
I0403 15:15:50.958585 11773 net.cpp:91] Creating Layer inception_4e/pool_proj
I0403 15:15:50.958602 11773 net.cpp:425] inception_4e/pool_proj <- inception_4e/pool
I0403 15:15:50.958622 11773 net.cpp:399] inception_4e/pool_proj -> inception_4e/pool_proj
I0403 15:15:50.960124 11773 net.cpp:141] Setting up inception_4e/pool_proj
I0403 15:15:50.960165 11773 net.cpp:148] Top shape: 24 128 14 14 (602112)
I0403 15:15:50.960182 11773 net.cpp:156] Memory required for data: 1254493728
I0403 15:15:50.960201 11773 layer_factory.hpp:77] Creating layer inception_4e/relu_pool_proj
I0403 15:15:50.960217 11773 net.cpp:91] Creating Layer inception_4e/relu_pool_proj
I0403 15:15:50.960232 11773 net.cpp:425] inception_4e/relu_pool_proj <- inception_4e/pool_proj
I0403 15:15:50.960252 11773 net.cpp:386] inception_4e/relu_pool_proj -> inception_4e/pool_proj (in-place)
I0403 15:15:50.960551 11773 net.cpp:141] Setting up inception_4e/relu_pool_proj
I0403 15:15:50.960580 11773 net.cpp:148] Top shape: 24 128 14 14 (602112)
I0403 15:15:50.960595 11773 net.cpp:156] Memory required for data: 1256902176
I0403 15:15:50.960611 11773 layer_factory.hpp:77] Creating layer inception_4e/output
I0403 15:15:50.960628 11773 net.cpp:91] Creating Layer inception_4e/output
I0403 15:15:50.960798 11773 net.cpp:425] inception_4e/output <- inception_4e/1x1
I0403 15:15:50.960913 11773 net.cpp:425] inception_4e/output <- inception_4e/3x3
I0403 15:15:50.960933 11773 net.cpp:425] inception_4e/output <- inception_4e/5x5
I0403 15:15:50.960949 11773 net.cpp:425] inception_4e/output <- inception_4e/pool_proj
I0403 15:15:50.960969 11773 net.cpp:399] inception_4e/output -> inception_4e/output
I0403 15:15:50.961019 11773 net.cpp:141] Setting up inception_4e/output
I0403 15:15:50.961043 11773 net.cpp:148] Top shape: 24 832 14 14 (3913728)
I0403 15:15:50.961057 11773 net.cpp:156] Memory required for data: 1272557088
I0403 15:15:50.961072 11773 layer_factory.hpp:77] Creating layer pool4/3x3_s2
I0403 15:15:50.961092 11773 net.cpp:91] Creating Layer pool4/3x3_s2
I0403 15:15:50.961108 11773 net.cpp:425] pool4/3x3_s2 <- inception_4e/output
I0403 15:15:50.961127 11773 net.cpp:399] pool4/3x3_s2 -> pool4/3x3_s2
I0403 15:15:50.961194 11773 net.cpp:141] Setting up pool4/3x3_s2
I0403 15:15:50.961217 11773 net.cpp:148] Top shape: 24 832 7 7 (978432)
I0403 15:15:50.961231 11773 net.cpp:156] Memory required for data: 1276470816
I0403 15:15:50.961246 11773 layer_factory.hpp:77] Creating layer pool4/3x3_s2_pool4/3x3_s2_0_split
I0403 15:15:50.961262 11773 net.cpp:91] Creating Layer pool4/3x3_s2_pool4/3x3_s2_0_split
I0403 15:15:50.961280 11773 net.cpp:425] pool4/3x3_s2_pool4/3x3_s2_0_split <- pool4/3x3_s2
I0403 15:15:50.961297 11773 net.cpp:399] pool4/3x3_s2_pool4/3x3_s2_0_split -> pool4/3x3_s2_pool4/3x3_s2_0_split_0
I0403 15:15:50.961336 11773 net.cpp:399] pool4/3x3_s2_pool4/3x3_s2_0_split -> pool4/3x3_s2_pool4/3x3_s2_0_split_1
I0403 15:15:50.961359 11773 net.cpp:399] pool4/3x3_s2_pool4/3x3_s2_0_split -> pool4/3x3_s2_pool4/3x3_s2_0_split_2
I0403 15:15:50.961379 11773 net.cpp:399] pool4/3x3_s2_pool4/3x3_s2_0_split -> pool4/3x3_s2_pool4/3x3_s2_0_split_3
I0403 15:15:50.961472 11773 net.cpp:141] Setting up pool4/3x3_s2_pool4/3x3_s2_0_split
I0403 15:15:50.961499 11773 net.cpp:148] Top shape: 24 832 7 7 (978432)
I0403 15:15:50.961515 11773 net.cpp:148] Top shape: 24 832 7 7 (978432)
I0403 15:15:50.961531 11773 net.cpp:148] Top shape: 24 832 7 7 (978432)
I0403 15:15:50.961546 11773 net.cpp:148] Top shape: 24 832 7 7 (978432)
I0403 15:15:50.961560 11773 net.cpp:156] Memory required for data: 1292125728
I0403 15:15:50.961575 11773 layer_factory.hpp:77] Creating layer inception_5a/1x1
I0403 15:15:50.961596 11773 net.cpp:91] Creating Layer inception_5a/1x1
I0403 15:15:50.961627 11773 net.cpp:425] inception_5a/1x1 <- pool4/3x3_s2_pool4/3x3_s2_0_split_0
I0403 15:15:50.961647 11773 net.cpp:399] inception_5a/1x1 -> inception_5a/1x1
I0403 15:15:50.964612 11773 net.cpp:141] Setting up inception_5a/1x1
I0403 15:15:50.964643 11773 net.cpp:148] Top shape: 24 256 7 7 (301056)
I0403 15:15:50.964661 11773 net.cpp:156] Memory required for data: 1293329952
I0403 15:15:50.964679 11773 layer_factory.hpp:77] Creating layer inception_5a/relu_1x1
I0403 15:15:50.964699 11773 net.cpp:91] Creating Layer inception_5a/relu_1x1
I0403 15:15:50.964715 11773 net.cpp:425] inception_5a/relu_1x1 <- inception_5a/1x1
I0403 15:15:50.964733 11773 net.cpp:386] inception_5a/relu_1x1 -> inception_5a/1x1 (in-place)
I0403 15:15:50.965065 11773 net.cpp:141] Setting up inception_5a/relu_1x1
I0403 15:15:50.965091 11773 net.cpp:148] Top shape: 24 256 7 7 (301056)
I0403 15:15:50.965106 11773 net.cpp:156] Memory required for data: 1294534176
I0403 15:15:50.965121 11773 layer_factory.hpp:77] Creating layer inception_5a/3x3_reduce
I0403 15:15:50.965143 11773 net.cpp:91] Creating Layer inception_5a/3x3_reduce
I0403 15:15:50.965162 11773 net.cpp:425] inception_5a/3x3_reduce <- pool4/3x3_s2_pool4/3x3_s2_0_split_1
I0403 15:15:50.965183 11773 net.cpp:399] inception_5a/3x3_reduce -> inception_5a/3x3_reduce
I0403 15:15:50.967815 11773 net.cpp:141] Setting up inception_5a/3x3_reduce
I0403 15:15:50.967847 11773 net.cpp:148] Top shape: 24 160 7 7 (188160)
I0403 15:15:50.967864 11773 net.cpp:156] Memory required for data: 1295286816
I0403 15:15:50.967881 11773 layer_factory.hpp:77] Creating layer inception_5a/relu_3x3_reduce
I0403 15:15:50.967900 11773 net.cpp:91] Creating Layer inception_5a/relu_3x3_reduce
I0403 15:15:50.967916 11773 net.cpp:425] inception_5a/relu_3x3_reduce <- inception_5a/3x3_reduce
I0403 15:15:50.967936 11773 net.cpp:386] inception_5a/relu_3x3_reduce -> inception_5a/3x3_reduce (in-place)
I0403 15:15:50.968137 11773 net.cpp:141] Setting up inception_5a/relu_3x3_reduce
I0403 15:15:50.968163 11773 net.cpp:148] Top shape: 24 160 7 7 (188160)
I0403 15:15:50.968178 11773 net.cpp:156] Memory required for data: 1296039456
I0403 15:15:50.968191 11773 layer_factory.hpp:77] Creating layer inception_5a/3x3
I0403 15:15:50.968214 11773 net.cpp:91] Creating Layer inception_5a/3x3
I0403 15:15:50.968232 11773 net.cpp:425] inception_5a/3x3 <- inception_5a/3x3_reduce
I0403 15:15:50.968255 11773 net.cpp:399] inception_5a/3x3 -> inception_5a/3x3
I0403 15:15:50.973495 11773 net.cpp:141] Setting up inception_5a/3x3
I0403 15:15:50.973525 11773 net.cpp:148] Top shape: 24 320 7 7 (376320)
I0403 15:15:50.973541 11773 net.cpp:156] Memory required for data: 1297544736
I0403 15:15:50.973558 11773 layer_factory.hpp:77] Creating layer inception_5a/relu_3x3
I0403 15:15:50.973579 11773 net.cpp:91] Creating Layer inception_5a/relu_3x3
I0403 15:15:50.973597 11773 net.cpp:425] inception_5a/relu_3x3 <- inception_5a/3x3
I0403 15:15:50.973614 11773 net.cpp:386] inception_5a/relu_3x3 -> inception_5a/3x3 (in-place)
I0403 15:15:50.973918 11773 net.cpp:141] Setting up inception_5a/relu_3x3
I0403 15:15:50.973945 11773 net.cpp:148] Top shape: 24 320 7 7 (376320)
I0403 15:15:50.973960 11773 net.cpp:156] Memory required for data: 1299050016
I0403 15:15:50.973978 11773 layer_factory.hpp:77] Creating layer inception_5a/5x5_reduce
I0403 15:15:50.974000 11773 net.cpp:91] Creating Layer inception_5a/5x5_reduce
I0403 15:15:50.974020 11773 net.cpp:425] inception_5a/5x5_reduce <- pool4/3x3_s2_pool4/3x3_s2_0_split_2
I0403 15:15:50.974042 11773 net.cpp:399] inception_5a/5x5_reduce -> inception_5a/5x5_reduce
I0403 15:15:50.975242 11773 net.cpp:141] Setting up inception_5a/5x5_reduce
I0403 15:15:50.975270 11773 net.cpp:148] Top shape: 24 32 7 7 (37632)
I0403 15:15:50.975286 11773 net.cpp:156] Memory required for data: 1299200544
I0403 15:15:50.975303 11773 layer_factory.hpp:77] Creating layer inception_5a/relu_5x5_reduce
I0403 15:15:50.975329 11773 net.cpp:91] Creating Layer inception_5a/relu_5x5_reduce
I0403 15:15:50.975348 11773 net.cpp:425] inception_5a/relu_5x5_reduce <- inception_5a/5x5_reduce
I0403 15:15:50.975364 11773 net.cpp:386] inception_5a/relu_5x5_reduce -> inception_5a/5x5_reduce (in-place)
I0403 15:15:50.975664 11773 net.cpp:141] Setting up inception_5a/relu_5x5_reduce
I0403 15:15:50.975690 11773 net.cpp:148] Top shape: 24 32 7 7 (37632)
I0403 15:15:50.975705 11773 net.cpp:156] Memory required for data: 1299351072
I0403 15:15:50.975718 11773 layer_factory.hpp:77] Creating layer inception_5a/5x5
I0403 15:15:50.975740 11773 net.cpp:91] Creating Layer inception_5a/5x5
I0403 15:15:50.975759 11773 net.cpp:425] inception_5a/5x5 <- inception_5a/5x5_reduce
I0403 15:15:50.975780 11773 net.cpp:399] inception_5a/5x5 -> inception_5a/5x5
I0403 15:15:50.977520 11773 net.cpp:141] Setting up inception_5a/5x5
I0403 15:15:50.977560 11773 net.cpp:148] Top shape: 24 128 7 7 (150528)
I0403 15:15:50.977576 11773 net.cpp:156] Memory required for data: 1299953184
I0403 15:15:50.977594 11773 layer_factory.hpp:77] Creating layer inception_5a/relu_5x5
I0403 15:15:50.977614 11773 net.cpp:91] Creating Layer inception_5a/relu_5x5
I0403 15:15:50.977632 11773 net.cpp:425] inception_5a/relu_5x5 <- inception_5a/5x5
I0403 15:15:50.977648 11773 net.cpp:386] inception_5a/relu_5x5 -> inception_5a/5x5 (in-place)
I0403 15:15:50.977839 11773 net.cpp:141] Setting up inception_5a/relu_5x5
I0403 15:15:50.977864 11773 net.cpp:148] Top shape: 24 128 7 7 (150528)
I0403 15:15:50.977879 11773 net.cpp:156] Memory required for data: 1300555296
I0403 15:15:50.977892 11773 layer_factory.hpp:77] Creating layer inception_5a/pool
I0403 15:15:50.977911 11773 net.cpp:91] Creating Layer inception_5a/pool
I0403 15:15:50.977928 11773 net.cpp:425] inception_5a/pool <- pool4/3x3_s2_pool4/3x3_s2_0_split_3
I0403 15:15:50.977946 11773 net.cpp:399] inception_5a/pool -> inception_5a/pool
I0403 15:15:50.978018 11773 net.cpp:141] Setting up inception_5a/pool
I0403 15:15:50.978041 11773 net.cpp:148] Top shape: 24 832 7 7 (978432)
I0403 15:15:50.978055 11773 net.cpp:156] Memory required for data: 1304469024
I0403 15:15:50.978068 11773 layer_factory.hpp:77] Creating layer inception_5a/pool_proj
I0403 15:15:50.978091 11773 net.cpp:91] Creating Layer inception_5a/pool_proj
I0403 15:15:50.978108 11773 net.cpp:425] inception_5a/pool_proj <- inception_5a/pool
I0403 15:15:50.978128 11773 net.cpp:399] inception_5a/pool_proj -> inception_5a/pool_proj
I0403 15:15:50.980432 11773 net.cpp:141] Setting up inception_5a/pool_proj
I0403 15:15:50.980461 11773 net.cpp:148] Top shape: 24 128 7 7 (150528)
I0403 15:15:50.980478 11773 net.cpp:156] Memory required for data: 1305071136
I0403 15:15:50.980494 11773 layer_factory.hpp:77] Creating layer inception_5a/relu_pool_proj
I0403 15:15:50.980512 11773 net.cpp:91] Creating Layer inception_5a/relu_pool_proj
I0403 15:15:50.980527 11773 net.cpp:425] inception_5a/relu_pool_proj <- inception_5a/pool_proj
I0403 15:15:50.980546 11773 net.cpp:386] inception_5a/relu_pool_proj -> inception_5a/pool_proj (in-place)
I0403 15:15:50.980867 11773 net.cpp:141] Setting up inception_5a/relu_pool_proj
I0403 15:15:50.980892 11773 net.cpp:148] Top shape: 24 128 7 7 (150528)
I0403 15:15:50.980907 11773 net.cpp:156] Memory required for data: 1305673248
I0403 15:15:50.980921 11773 layer_factory.hpp:77] Creating layer inception_5a/output
I0403 15:15:50.980938 11773 net.cpp:91] Creating Layer inception_5a/output
I0403 15:15:50.980953 11773 net.cpp:425] inception_5a/output <- inception_5a/1x1
I0403 15:15:50.980968 11773 net.cpp:425] inception_5a/output <- inception_5a/3x3
I0403 15:15:50.980983 11773 net.cpp:425] inception_5a/output <- inception_5a/5x5
I0403 15:15:50.980998 11773 net.cpp:425] inception_5a/output <- inception_5a/pool_proj
I0403 15:15:50.981017 11773 net.cpp:399] inception_5a/output -> inception_5a/output
I0403 15:15:50.981067 11773 net.cpp:141] Setting up inception_5a/output
I0403 15:15:50.981092 11773 net.cpp:148] Top shape: 24 832 7 7 (978432)
I0403 15:15:50.981106 11773 net.cpp:156] Memory required for data: 1309586976
I0403 15:15:50.981120 11773 layer_factory.hpp:77] Creating layer inception_5a/output_inception_5a/output_0_split
I0403 15:15:50.981137 11773 net.cpp:91] Creating Layer inception_5a/output_inception_5a/output_0_split
I0403 15:15:50.981150 11773 net.cpp:425] inception_5a/output_inception_5a/output_0_split <- inception_5a/output
I0403 15:15:50.981168 11773 net.cpp:399] inception_5a/output_inception_5a/output_0_split -> inception_5a/output_inception_5a/output_0_split_0
I0403 15:15:50.981186 11773 net.cpp:399] inception_5a/output_inception_5a/output_0_split -> inception_5a/output_inception_5a/output_0_split_1
I0403 15:15:50.981207 11773 net.cpp:399] inception_5a/output_inception_5a/output_0_split -> inception_5a/output_inception_5a/output_0_split_2
I0403 15:15:50.981228 11773 net.cpp:399] inception_5a/output_inception_5a/output_0_split -> inception_5a/output_inception_5a/output_0_split_3
I0403 15:15:50.981348 11773 net.cpp:141] Setting up inception_5a/output_inception_5a/output_0_split
I0403 15:15:50.981370 11773 net.cpp:148] Top shape: 24 832 7 7 (978432)
I0403 15:15:50.981385 11773 net.cpp:148] Top shape: 24 832 7 7 (978432)
I0403 15:15:50.981400 11773 net.cpp:148] Top shape: 24 832 7 7 (978432)
I0403 15:15:50.981415 11773 net.cpp:148] Top shape: 24 832 7 7 (978432)
I0403 15:15:50.981427 11773 net.cpp:156] Memory required for data: 1325241888
I0403 15:15:50.981441 11773 layer_factory.hpp:77] Creating layer inception_5b/1x1
I0403 15:15:50.981462 11773 net.cpp:91] Creating Layer inception_5b/1x1
I0403 15:15:50.981478 11773 net.cpp:425] inception_5b/1x1 <- inception_5a/output_inception_5a/output_0_split_0
I0403 15:15:50.981498 11773 net.cpp:399] inception_5b/1x1 -> inception_5b/1x1
I0403 15:15:50.985203 11773 net.cpp:141] Setting up inception_5b/1x1
I0403 15:15:50.985234 11773 net.cpp:148] Top shape: 24 384 7 7 (451584)
I0403 15:15:50.985249 11773 net.cpp:156] Memory required for data: 1327048224
I0403 15:15:50.985267 11773 layer_factory.hpp:77] Creating layer inception_5b/relu_1x1
I0403 15:15:50.985285 11773 net.cpp:91] Creating Layer inception_5b/relu_1x1
I0403 15:15:50.985299 11773 net.cpp:425] inception_5b/relu_1x1 <- inception_5b/1x1
I0403 15:15:50.985327 11773 net.cpp:386] inception_5b/relu_1x1 -> inception_5b/1x1 (in-place)
I0403 15:15:50.985791 11773 net.cpp:141] Setting up inception_5b/relu_1x1
I0403 15:15:50.985819 11773 net.cpp:148] Top shape: 24 384 7 7 (451584)
I0403 15:15:50.985834 11773 net.cpp:156] Memory required for data: 1328854560
I0403 15:15:50.985849 11773 layer_factory.hpp:77] Creating layer inception_5b/3x3_reduce
I0403 15:15:50.985870 11773 net.cpp:91] Creating Layer inception_5b/3x3_reduce
I0403 15:15:50.985888 11773 net.cpp:425] inception_5b/3x3_reduce <- inception_5a/output_inception_5a/output_0_split_1
I0403 15:15:50.985905 11773 net.cpp:399] inception_5b/3x3_reduce -> inception_5b/3x3_reduce
I0403 15:15:50.988550 11773 net.cpp:141] Setting up inception_5b/3x3_reduce
I0403 15:15:50.988581 11773 net.cpp:148] Top shape: 24 192 7 7 (225792)
I0403 15:15:50.988597 11773 net.cpp:156] Memory required for data: 1329757728
I0403 15:15:50.988616 11773 layer_factory.hpp:77] Creating layer inception_5b/relu_3x3_reduce
I0403 15:15:50.988633 11773 net.cpp:91] Creating Layer inception_5b/relu_3x3_reduce
I0403 15:15:50.988649 11773 net.cpp:425] inception_5b/relu_3x3_reduce <- inception_5b/3x3_reduce
I0403 15:15:50.988668 11773 net.cpp:386] inception_5b/relu_3x3_reduce -> inception_5b/3x3_reduce (in-place)
I0403 15:15:50.988870 11773 net.cpp:141] Setting up inception_5b/relu_3x3_reduce
I0403 15:15:50.988894 11773 net.cpp:148] Top shape: 24 192 7 7 (225792)
I0403 15:15:50.988909 11773 net.cpp:156] Memory required for data: 1330660896
I0403 15:15:50.988922 11773 layer_factory.hpp:77] Creating layer inception_5b/3x3
I0403 15:15:50.988945 11773 net.cpp:91] Creating Layer inception_5b/3x3
I0403 15:15:50.988961 11773 net.cpp:425] inception_5b/3x3 <- inception_5b/3x3_reduce
I0403 15:15:50.988982 11773 net.cpp:399] inception_5b/3x3 -> inception_5b/3x3
I0403 15:15:50.995527 11773 net.cpp:141] Setting up inception_5b/3x3
I0403 15:15:50.995553 11773 net.cpp:148] Top shape: 24 384 7 7 (451584)
I0403 15:15:50.995568 11773 net.cpp:156] Memory required for data: 1332467232
I0403 15:15:50.995585 11773 layer_factory.hpp:77] Creating layer inception_5b/relu_3x3
I0403 15:15:50.995602 11773 net.cpp:91] Creating Layer inception_5b/relu_3x3
I0403 15:15:50.995618 11773 net.cpp:425] inception_5b/relu_3x3 <- inception_5b/3x3
I0403 15:15:50.995636 11773 net.cpp:386] inception_5b/relu_3x3 -> inception_5b/3x3 (in-place)
I0403 15:15:50.995928 11773 net.cpp:141] Setting up inception_5b/relu_3x3
I0403 15:15:50.995952 11773 net.cpp:148] Top shape: 24 384 7 7 (451584)
I0403 15:15:50.995967 11773 net.cpp:156] Memory required for data: 1334273568
I0403 15:15:50.995980 11773 layer_factory.hpp:77] Creating layer inception_5b/5x5_reduce
I0403 15:15:50.996017 11773 net.cpp:91] Creating Layer inception_5b/5x5_reduce
I0403 15:15:50.996036 11773 net.cpp:425] inception_5b/5x5_reduce <- inception_5a/output_inception_5a/output_0_split_2
I0403 15:15:50.996057 11773 net.cpp:399] inception_5b/5x5_reduce -> inception_5b/5x5_reduce
I0403 15:15:50.997290 11773 net.cpp:141] Setting up inception_5b/5x5_reduce
I0403 15:15:50.997323 11773 net.cpp:148] Top shape: 24 48 7 7 (56448)
I0403 15:15:50.997339 11773 net.cpp:156] Memory required for data: 1334499360
I0403 15:15:50.997357 11773 layer_factory.hpp:77] Creating layer inception_5b/relu_5x5_reduce
I0403 15:15:50.997375 11773 net.cpp:91] Creating Layer inception_5b/relu_5x5_reduce
I0403 15:15:50.997390 11773 net.cpp:425] inception_5b/relu_5x5_reduce <- inception_5b/5x5_reduce
I0403 15:15:50.997409 11773 net.cpp:386] inception_5b/relu_5x5_reduce -> inception_5b/5x5_reduce (in-place)
I0403 15:15:50.997771 11773 net.cpp:141] Setting up inception_5b/relu_5x5_reduce
I0403 15:15:50.997797 11773 net.cpp:148] Top shape: 24 48 7 7 (56448)
I0403 15:15:50.997810 11773 net.cpp:156] Memory required for data: 1334725152
I0403 15:15:50.997824 11773 layer_factory.hpp:77] Creating layer inception_5b/5x5
I0403 15:15:50.997844 11773 net.cpp:91] Creating Layer inception_5b/5x5
I0403 15:15:50.997860 11773 net.cpp:425] inception_5b/5x5 <- inception_5b/5x5_reduce
I0403 15:15:50.997879 11773 net.cpp:399] inception_5b/5x5 -> inception_5b/5x5
I0403 15:15:50.999893 11773 net.cpp:141] Setting up inception_5b/5x5
I0403 15:15:50.999920 11773 net.cpp:148] Top shape: 24 128 7 7 (150528)
I0403 15:15:50.999935 11773 net.cpp:156] Memory required for data: 1335327264
I0403 15:15:50.999953 11773 layer_factory.hpp:77] Creating layer inception_5b/relu_5x5
I0403 15:15:50.999969 11773 net.cpp:91] Creating Layer inception_5b/relu_5x5
I0403 15:15:50.999984 11773 net.cpp:425] inception_5b/relu_5x5 <- inception_5b/5x5
I0403 15:15:51.000004 11773 net.cpp:386] inception_5b/relu_5x5 -> inception_5b/5x5 (in-place)
I0403 15:15:51.000192 11773 net.cpp:141] Setting up inception_5b/relu_5x5
I0403 15:15:51.000216 11773 net.cpp:148] Top shape: 24 128 7 7 (150528)
I0403 15:15:51.000231 11773 net.cpp:156] Memory required for data: 1335929376
I0403 15:15:51.000244 11773 layer_factory.hpp:77] Creating layer inception_5b/pool
I0403 15:15:51.000264 11773 net.cpp:91] Creating Layer inception_5b/pool
I0403 15:15:51.000279 11773 net.cpp:425] inception_5b/pool <- inception_5a/output_inception_5a/output_0_split_3
I0403 15:15:51.000298 11773 net.cpp:399] inception_5b/pool -> inception_5b/pool
I0403 15:15:51.000372 11773 net.cpp:141] Setting up inception_5b/pool
I0403 15:15:51.000396 11773 net.cpp:148] Top shape: 24 832 7 7 (978432)
I0403 15:15:51.000409 11773 net.cpp:156] Memory required for data: 1339843104
I0403 15:15:51.000423 11773 layer_factory.hpp:77] Creating layer inception_5b/pool_proj
I0403 15:15:51.000444 11773 net.cpp:91] Creating Layer inception_5b/pool_proj
I0403 15:15:51.000461 11773 net.cpp:425] inception_5b/pool_proj <- inception_5b/pool
I0403 15:15:51.000481 11773 net.cpp:399] inception_5b/pool_proj -> inception_5b/pool_proj
I0403 15:15:51.007673 11773 net.cpp:141] Setting up inception_5b/pool_proj
I0403 15:15:51.007702 11773 net.cpp:148] Top shape: 24 128 7 7 (150528)
I0403 15:15:51.007719 11773 net.cpp:156] Memory required for data: 1340445216
I0403 15:15:51.007736 11773 layer_factory.hpp:77] Creating layer inception_5b/relu_pool_proj
I0403 15:15:51.007755 11773 net.cpp:91] Creating Layer inception_5b/relu_pool_proj
I0403 15:15:51.007771 11773 net.cpp:425] inception_5b/relu_pool_proj <- inception_5b/pool_proj
I0403 15:15:51.007789 11773 net.cpp:386] inception_5b/relu_pool_proj -> inception_5b/pool_proj (in-place)
I0403 15:15:51.008112 11773 net.cpp:141] Setting up inception_5b/relu_pool_proj
I0403 15:15:51.008138 11773 net.cpp:148] Top shape: 24 128 7 7 (150528)
I0403 15:15:51.008153 11773 net.cpp:156] Memory required for data: 1341047328
I0403 15:15:51.008167 11773 layer_factory.hpp:77] Creating layer inception_5b/output
I0403 15:15:51.008184 11773 net.cpp:91] Creating Layer inception_5b/output
I0403 15:15:51.008214 11773 net.cpp:425] inception_5b/output <- inception_5b/1x1
I0403 15:15:51.008231 11773 net.cpp:425] inception_5b/output <- inception_5b/3x3
I0403 15:15:51.008247 11773 net.cpp:425] inception_5b/output <- inception_5b/5x5
I0403 15:15:51.008262 11773 net.cpp:425] inception_5b/output <- inception_5b/pool_proj
I0403 15:15:51.008282 11773 net.cpp:399] inception_5b/output -> inception_5b/output
I0403 15:15:51.008347 11773 net.cpp:141] Setting up inception_5b/output
I0403 15:15:51.008370 11773 net.cpp:148] Top shape: 24 1024 7 7 (1204224)
I0403 15:15:51.008385 11773 net.cpp:156] Memory required for data: 1345864224
I0403 15:15:51.008399 11773 layer_factory.hpp:77] Creating layer pool5/7x7_s1
I0403 15:15:51.008419 11773 net.cpp:91] Creating Layer pool5/7x7_s1
I0403 15:15:51.008435 11773 net.cpp:425] pool5/7x7_s1 <- inception_5b/output
I0403 15:15:51.008456 11773 net.cpp:399] pool5/7x7_s1 -> pool5/7x7_s1
I0403 15:15:51.008680 11773 net.cpp:141] Setting up pool5/7x7_s1
I0403 15:15:51.008704 11773 net.cpp:148] Top shape: 24 1024 1 1 (24576)
I0403 15:15:51.008718 11773 net.cpp:156] Memory required for data: 1345962528
I0403 15:15:51.008733 11773 layer_factory.hpp:77] Creating layer pool5/drop_7x7_s1
I0403 15:15:51.008749 11773 net.cpp:91] Creating Layer pool5/drop_7x7_s1
I0403 15:15:51.008764 11773 net.cpp:425] pool5/drop_7x7_s1 <- pool5/7x7_s1
I0403 15:15:51.008782 11773 net.cpp:386] pool5/drop_7x7_s1 -> pool5/7x7_s1 (in-place)
I0403 15:15:51.008831 11773 net.cpp:141] Setting up pool5/drop_7x7_s1
I0403 15:15:51.008855 11773 net.cpp:148] Top shape: 24 1024 1 1 (24576)
I0403 15:15:51.008870 11773 net.cpp:156] Memory required for data: 1346060832
I0403 15:15:51.008884 11773 layer_factory.hpp:77] Creating layer loss3/classifier_plantvillage
I0403 15:15:51.008903 11773 net.cpp:91] Creating Layer loss3/classifier_plantvillage
I0403 15:15:51.008916 11773 net.cpp:425] loss3/classifier_plantvillage <- pool5/7x7_s1
I0403 15:15:51.008939 11773 net.cpp:399] loss3/classifier_plantvillage -> loss3/classifier_plantvillage
I0403 15:15:51.009357 11773 net.cpp:141] Setting up loss3/classifier_plantvillage
I0403 15:15:51.009384 11773 net.cpp:148] Top shape: 24 38 (912)
I0403 15:15:51.009400 11773 net.cpp:156] Memory required for data: 1346064480
I0403 15:15:51.009416 11773 layer_factory.hpp:77] Creating layer loss3/classifier_plantvillage_loss3/classifier_plantvillage_0_split
I0403 15:15:51.009433 11773 net.cpp:91] Creating Layer loss3/classifier_plantvillage_loss3/classifier_plantvillage_0_split
I0403 15:15:51.009449 11773 net.cpp:425] loss3/classifier_plantvillage_loss3/classifier_plantvillage_0_split <- loss3/classifier_plantvillage
I0403 15:15:51.009465 11773 net.cpp:399] loss3/classifier_plantvillage_loss3/classifier_plantvillage_0_split -> loss3/classifier_plantvillage_loss3/classifier_plantvillage_0_split_0
I0403 15:15:51.009485 11773 net.cpp:399] loss3/classifier_plantvillage_loss3/classifier_plantvillage_0_split -> loss3/classifier_plantvillage_loss3/classifier_plantvillage_0_split_1
I0403 15:15:51.009506 11773 net.cpp:399] loss3/classifier_plantvillage_loss3/classifier_plantvillage_0_split -> loss3/classifier_plantvillage_loss3/classifier_plantvillage_0_split_2
I0403 15:15:51.009527 11773 net.cpp:399] loss3/classifier_plantvillage_loss3/classifier_plantvillage_0_split -> loss3/classifier_plantvillage_loss3/classifier_plantvillage_0_split_3
I0403 15:15:51.009625 11773 net.cpp:141] Setting up loss3/classifier_plantvillage_loss3/classifier_plantvillage_0_split
I0403 15:15:51.009647 11773 net.cpp:148] Top shape: 24 38 (912)
I0403 15:15:51.009662 11773 net.cpp:148] Top shape: 24 38 (912)
I0403 15:15:51.009676 11773 net.cpp:148] Top shape: 24 38 (912)
I0403 15:15:51.009690 11773 net.cpp:148] Top shape: 24 38 (912)
I0403 15:15:51.009703 11773 net.cpp:156] Memory required for data: 1346079072
I0403 15:15:51.009717 11773 layer_factory.hpp:77] Creating layer loss1/loss
I0403 15:15:51.009740 11773 net.cpp:91] Creating Layer loss1/loss
I0403 15:15:51.009757 11773 net.cpp:425] loss1/loss <- loss1/classifier_plantvillage_loss1/classifier_plantvillage_0_split_0
I0403 15:15:51.009786 11773 net.cpp:425] loss1/loss <- label_data_1_split_0
…
