…
I0403 08:30:33.389806 11547 net.cpp:313] The NetState phase (0) differed from the phase (1) specified by a rule in layer accuracy
I0403 08:30:33.391526 11547 net.cpp:49] Initializing net from parameters: 
state {
  phase: TRAIN
}
layer {
  name: "data"
  type: "Data"
  top: "data"
  top: "label"
  include {
    phase: TRAIN
  }
  transform_param {
    mirror: true
    crop_size: 227
    mean_file: "/home/mohanty/data/final_dataset/lmdb/color-50-50/mean.binaryproto"
  }
  data_param {
    source: "/home/mohanty/data/final_dataset/lmdb/color-50-50/train_db"
    batch_size: 100
    backend: LMDB
  }
}
layer {
  name: "conv1"
  type: "Convolution"
  bottom: "data"
  top: "conv1"
  param {
    lr_mult: 1
    decay_mult: 1
  }
  param {
    lr_mult: 2
    decay_mult: 0
  }
  convolution_param {
    num_output: 96
    kernel_size: 11
    stride: 4
    weight_filler {
      type: "gaussian"
      std: 0.01
    }
    bias_filler {
      type: "constant"
      value: 0
    }
  }
}
layer {
  name: "relu1"
  type: "ReLU"
  bottom: "conv1"
  top: "conv1"
}
layer {
  name: "norm1"
  type: "LRN"
  bottom: "conv1"
  top: "norm1"
  lrn_param {
    local_size: 5
    alpha: 0.0001
    beta: 0.75
  }
}
layer {
  name: "pool1"
  type: "Pooling"
  bottom: "norm1"
  top: "pool1"
  pooling_param {
    pool: MAX
    kernel_size: 3
    stride: 2
  }
}
layer {
  name: "conv2"
  type: "Convolution"
  bottom: "pool1"
  top: "conv2"
  param {
    lr_mult: 1
    decay_mult: 1
  }
  param {
    lr_mult: 2
    decay_mult: 0
  }
  convolution_param {
    num_output: 256
    pad: 2
    kernel_size: 5
    group: 2
    weight_filler {
      type: "gaussian"
      std: 0.01
    }
    bias_filler {
      type: "constant"
      value: 0.1
    }
  }
}
layer {
  name: "relu2"
  type: "ReLU"
  bottom: "conv2"
  top: "conv2"
}
layer {
  name: "norm2"
  type: "LRN"
  bottom: "conv2"
  top: "norm2"
  lrn_param {
    local_size: 5
    alpha: 0.0001
    beta: 0.75
  }
}
layer {
  name: "pool2"
  type: "Pooling"
  bottom: "norm2"
  top: "pool2"
  pooling_param {
    pool: MAX
    kernel_size: 3
    stride: 2
  }
}
layer {
  name: "conv3"
  type: "Convolution"
  bottom: "pool2"
  top: "conv3"
  param {
    lr_mult: 1
    decay_mult: 1
  }
  param {
    lr_mult: 2
    decay_mult: 0
  }
  convolution_param {
    num_output: 384
    pad: 1
    kernel_size: 3
    weight_filler {
      type: "gaussian"
      std: 0.01
    }
    bias_filler {
      type: "constant"
      value: 0
    }
  }
}
layer {
  name: "relu3"
  type: "ReLU"
  bottom: "conv3"
  top: "conv3"
}
layer {
  name: "conv4"
  type: "Convolution"
  bottom: "conv3"
  top: "conv4"
  param {
    lr_mult: 1
    decay_mult: 1
  }
  param {
    lr_mult: 2
    decay_mult: 0
  }
  convolution_param {
    num_output: 384
    pad: 1
    kernel_size: 3
    group: 2
    weight_filler {
      type: "gaussian"
      std: 0.01
    }
    bias_filler {
      type: "constant"
      value: 0.1
    }
  }
}
layer {
  name: "relu4"
  type: "ReLU"
  bottom: "conv4"
  top: "conv4"
}
layer {
  name: "conv5"
  type: "Convolution"
  bottom: "conv4"
  top: "conv5"
  param {
    lr_mult: 1
    decay_mult: 1
  }
  param {
    lr_mult: 2
    decay_mult: 0
  }
  convolution_param {
    num_output: 256
    pad: 1
    kernel_size: 3
    group: 2
    weight_filler {
      type: "gaussian"
      std: 0.01
    }
    bias_filler {
      type: "constant"
      value: 0.1
    }
  }
}
layer {
  name: "relu5"
  type: "ReLU"
  bottom: "conv5"
  top: "conv5"
}
layer {
  name: "pool5"
  type: "Pooling"
  bottom: "conv5"
  top: "pool5"
  pooling_param {
    pool: MAX
    kernel_size: 3
    stride: 2
  }
}
layer {
  name: "fc6"
  type: "InnerProduct"
  bottom: "pool5"
  top: "fc6"
  param {
    lr_mult: 1
    decay_mult: 1
  }
  param {
    lr_mult: 2
    decay_mult: 0
  }
  inner_product_param {
    num_output: 4096
    weight_filler {
      type: "gaussian"
      std: 0.005
    }
    bias_filler {
      type: "constant"
      value: 0.1
    }
  }
}
layer {
  name: "relu6"
  type: "ReLU"
  bottom: "fc6"
  top: "fc6"
}
layer {
  name: "drop6"
  type: "Dropout"
  bottom: "fc6"
  top: "fc6"
  dropout_param {
    dropout_ratio: 0.5
  }
}
layer {
  name: "fc7"
  type: "InnerProduct"
  bottom: "fc6"
  top: "fc7"
  param {
    lr_mult: 1
    decay_mult: 1
  }
  param {
    lr_mult: 2
    decay_mult: 0
  }
  inner_product_param {
    num_output: 4096
    weight_filler {
      type: "gaussian"
      std: 0.005
    }
    bias_filler {
      type: "constant"
      value: 0.1
    }
  }
}
layer {
  name: "relu7"
  type: "ReLU"
  bottom: "fc7"
  top: "fc7"
}
layer {
  name: "drop7"
  type: "Dropout"
  bottom: "fc7"
  top: "fc7"
  dropout_param {
    dropout_ratio: 0.5
  }
}
layer {
  name: "fc8_plantvillage"
  type: "InnerProduct"
  bottom: "fc7"
  top: "fc8_plantvillage"
  param {
    lr_mult: 1
    decay_mult: 1
  }
  param {
    lr_mult: 2
    decay_mult: 0
  }
  inner_product_param {
    num_output: 38
    weight_filler {
      type: "gaussian"
      std: 0.01
    }
    bias_filler {
      type: "constant"
      value: 0
    }
  }
}
layer {
  name: "loss"
  type: "SoftmaxWithLoss"
  bottom: "fc8_plantvillage"
  bottom: "label"
  top: "loss"
}
I0403 08:30:33.394222 11547 layer_factory.hpp:77] Creating layer data
I0403 08:30:33.395926 11547 net.cpp:91] Creating Layer data
I0403 08:30:33.395988 11547 net.cpp:399] data -> data
I0403 08:30:33.396039 11547 net.cpp:399] data -> label
I0403 08:30:33.396073 11547 data_transformer.cpp:25] Loading mean file from: /home/mohanty/data/final_dataset/lmdb/color-50-50/mean.binaryproto
I0403 08:30:33.439837 11550 db_lmdb.cpp:38] Opened lmdb /home/mohanty/data/final_dataset/lmdb/color-50-50/train_db
I0403 08:30:33.448602 11547 data_layer.cpp:41] output data size: 100,3,227,227
I0403 08:30:33.564038 11547 net.cpp:141] Setting up data
I0403 08:30:33.564123 11547 net.cpp:148] Top shape: 100 3 227 227 (15458700)
I0403 08:30:33.564146 11547 net.cpp:148] Top shape: 100 (100)
I0403 08:30:33.564162 11547 net.cpp:156] Memory required for data: 61835200
I0403 08:30:33.564191 11547 layer_factory.hpp:77] Creating layer conv1
I0403 08:30:33.564234 11547 net.cpp:91] Creating Layer conv1
I0403 08:30:33.564260 11547 net.cpp:425] conv1 <- data
I0403 08:30:33.564292 11547 net.cpp:399] conv1 -> conv1
I0403 08:30:33.566817 11547 net.cpp:141] Setting up conv1
I0403 08:30:33.566846 11547 net.cpp:148] Top shape: 100 96 55 55 (29040000)
I0403 08:30:33.566864 11547 net.cpp:156] Memory required for data: 177995200
I0403 08:30:33.566900 11547 layer_factory.hpp:77] Creating layer relu1
I0403 08:30:33.566926 11547 net.cpp:91] Creating Layer relu1
I0403 08:30:33.566943 11547 net.cpp:425] relu1 <- conv1
I0403 08:30:33.566963 11547 net.cpp:386] relu1 -> conv1 (in-place)
I0403 08:30:33.566987 11547 net.cpp:141] Setting up relu1
I0403 08:30:33.567005 11547 net.cpp:148] Top shape: 100 96 55 55 (29040000)
I0403 08:30:33.567021 11547 net.cpp:156] Memory required for data: 294155200
I0403 08:30:33.567036 11547 layer_factory.hpp:77] Creating layer norm1
I0403 08:30:33.567055 11547 net.cpp:91] Creating Layer norm1
I0403 08:30:33.567111 11547 net.cpp:425] norm1 <- conv1
I0403 08:30:33.567131 11547 net.cpp:399] norm1 -> norm1
I0403 08:30:33.572824 11547 net.cpp:141] Setting up norm1
I0403 08:30:33.572859 11547 net.cpp:148] Top shape: 100 96 55 55 (29040000)
I0403 08:30:33.572876 11547 net.cpp:156] Memory required for data: 410315200
I0403 08:30:33.572893 11547 layer_factory.hpp:77] Creating layer pool1
I0403 08:30:33.572914 11547 net.cpp:91] Creating Layer pool1
I0403 08:30:33.572931 11547 net.cpp:425] pool1 <- norm1
I0403 08:30:33.572960 11547 net.cpp:399] pool1 -> pool1
I0403 08:30:33.573022 11547 net.cpp:141] Setting up pool1
I0403 08:30:33.573048 11547 net.cpp:148] Top shape: 100 96 27 27 (6998400)
I0403 08:30:33.573065 11547 net.cpp:156] Memory required for data: 438308800
I0403 08:30:33.573081 11547 layer_factory.hpp:77] Creating layer conv2
I0403 08:30:33.573102 11547 net.cpp:91] Creating Layer conv2
I0403 08:30:33.573120 11547 net.cpp:425] conv2 <- pool1
I0403 08:30:33.573139 11547 net.cpp:399] conv2 -> conv2
I0403 08:30:33.574354 11551 blocking_queue.cpp:50] Waiting for data
I0403 08:30:33.585948 11547 net.cpp:141] Setting up conv2
I0403 08:30:33.585978 11547 net.cpp:148] Top shape: 100 256 27 27 (18662400)
I0403 08:30:33.585994 11547 net.cpp:156] Memory required for data: 512958400
I0403 08:30:33.586015 11547 layer_factory.hpp:77] Creating layer relu2
I0403 08:30:33.586035 11547 net.cpp:91] Creating Layer relu2
I0403 08:30:33.586050 11547 net.cpp:425] relu2 <- conv2
I0403 08:30:33.586068 11547 net.cpp:386] relu2 -> conv2 (in-place)
I0403 08:30:33.586087 11547 net.cpp:141] Setting up relu2
I0403 08:30:33.586104 11547 net.cpp:148] Top shape: 100 256 27 27 (18662400)
I0403 08:30:33.586119 11547 net.cpp:156] Memory required for data: 587608000
I0403 08:30:33.586133 11547 layer_factory.hpp:77] Creating layer norm2
I0403 08:30:33.586150 11547 net.cpp:91] Creating Layer norm2
I0403 08:30:33.586165 11547 net.cpp:425] norm2 <- conv2
I0403 08:30:33.586184 11547 net.cpp:399] norm2 -> norm2
I0403 08:30:33.586226 11547 net.cpp:141] Setting up norm2
I0403 08:30:33.586253 11547 net.cpp:148] Top shape: 100 256 27 27 (18662400)
I0403 08:30:33.586268 11547 net.cpp:156] Memory required for data: 662257600
I0403 08:30:33.586282 11547 layer_factory.hpp:77] Creating layer pool2
I0403 08:30:33.586302 11547 net.cpp:91] Creating Layer pool2
I0403 08:30:33.586316 11547 net.cpp:425] pool2 <- norm2
I0403 08:30:33.586334 11547 net.cpp:399] pool2 -> pool2
I0403 08:30:33.586376 11547 net.cpp:141] Setting up pool2
I0403 08:30:33.586398 11547 net.cpp:148] Top shape: 100 256 13 13 (4326400)
I0403 08:30:33.586412 11547 net.cpp:156] Memory required for data: 679563200
I0403 08:30:33.586427 11547 layer_factory.hpp:77] Creating layer conv3
I0403 08:30:33.586448 11547 net.cpp:91] Creating Layer conv3
I0403 08:30:33.586464 11547 net.cpp:425] conv3 <- pool2
I0403 08:30:33.586483 11547 net.cpp:399] conv3 -> conv3
I0403 08:30:33.618342 11547 net.cpp:141] Setting up conv3
I0403 08:30:33.618372 11547 net.cpp:148] Top shape: 100 384 13 13 (6489600)
I0403 08:30:33.618388 11547 net.cpp:156] Memory required for data: 705521600
I0403 08:30:33.618407 11547 layer_factory.hpp:77] Creating layer relu3
I0403 08:30:33.618427 11547 net.cpp:91] Creating Layer relu3
I0403 08:30:33.618443 11547 net.cpp:425] relu3 <- conv3
I0403 08:30:33.618463 11547 net.cpp:386] relu3 -> conv3 (in-place)
I0403 08:30:33.618480 11547 net.cpp:141] Setting up relu3
I0403 08:30:33.618496 11547 net.cpp:148] Top shape: 100 384 13 13 (6489600)
I0403 08:30:33.618510 11547 net.cpp:156] Memory required for data: 731480000
I0403 08:30:33.618525 11547 layer_factory.hpp:77] Creating layer conv4
I0403 08:30:33.618546 11547 net.cpp:91] Creating Layer conv4
I0403 08:30:33.618561 11547 net.cpp:425] conv4 <- conv3
I0403 08:30:33.618579 11547 net.cpp:399] conv4 -> conv4
I0403 08:30:33.642693 11547 net.cpp:141] Setting up conv4
I0403 08:30:33.642724 11547 net.cpp:148] Top shape: 100 384 13 13 (6489600)
I0403 08:30:33.642741 11547 net.cpp:156] Memory required for data: 757438400
I0403 08:30:33.642776 11547 layer_factory.hpp:77] Creating layer relu4
I0403 08:30:33.642797 11547 net.cpp:91] Creating Layer relu4
I0403 08:30:33.642814 11547 net.cpp:425] relu4 <- conv4
I0403 08:30:33.642832 11547 net.cpp:386] relu4 -> conv4 (in-place)
I0403 08:30:33.642850 11547 net.cpp:141] Setting up relu4
I0403 08:30:33.642866 11547 net.cpp:148] Top shape: 100 384 13 13 (6489600)
I0403 08:30:33.642881 11547 net.cpp:156] Memory required for data: 783396800
I0403 08:30:33.642895 11547 layer_factory.hpp:77] Creating layer conv5
I0403 08:30:33.642915 11547 net.cpp:91] Creating Layer conv5
I0403 08:30:33.642931 11547 net.cpp:425] conv5 <- conv4
I0403 08:30:33.642951 11547 net.cpp:399] conv5 -> conv5
I0403 08:30:33.659500 11547 net.cpp:141] Setting up conv5
I0403 08:30:33.659531 11547 net.cpp:148] Top shape: 100 256 13 13 (4326400)
I0403 08:30:33.659548 11547 net.cpp:156] Memory required for data: 800702400
I0403 08:30:33.659570 11547 layer_factory.hpp:77] Creating layer relu5
I0403 08:30:33.659590 11547 net.cpp:91] Creating Layer relu5
I0403 08:30:33.659607 11547 net.cpp:425] relu5 <- conv5
I0403 08:30:33.659624 11547 net.cpp:386] relu5 -> conv5 (in-place)
I0403 08:30:33.659644 11547 net.cpp:141] Setting up relu5
I0403 08:30:33.659662 11547 net.cpp:148] Top shape: 100 256 13 13 (4326400)
I0403 08:30:33.659678 11547 net.cpp:156] Memory required for data: 818008000
I0403 08:30:33.659693 11547 layer_factory.hpp:77] Creating layer pool5
I0403 08:30:33.659709 11547 net.cpp:91] Creating Layer pool5
I0403 08:30:33.659726 11547 net.cpp:425] pool5 <- conv5
I0403 08:30:33.659747 11547 net.cpp:399] pool5 -> pool5
I0403 08:30:33.659795 11547 net.cpp:141] Setting up pool5
I0403 08:30:33.659818 11547 net.cpp:148] Top shape: 100 256 6 6 (921600)
I0403 08:30:33.659833 11547 net.cpp:156] Memory required for data: 821694400
I0403 08:30:33.659847 11547 layer_factory.hpp:77] Creating layer fc6
I0403 08:30:33.659874 11547 net.cpp:91] Creating Layer fc6
I0403 08:30:33.659893 11547 net.cpp:425] fc6 <- pool5
I0403 08:30:33.659914 11547 net.cpp:399] fc6 -> fc6
I0403 08:30:35.015115 11547 net.cpp:141] Setting up fc6
I0403 08:30:35.015197 11547 net.cpp:148] Top shape: 100 4096 (409600)
I0403 08:30:35.015214 11547 net.cpp:156] Memory required for data: 823332800
I0403 08:30:35.015241 11547 layer_factory.hpp:77] Creating layer relu6
I0403 08:30:35.015270 11547 net.cpp:91] Creating Layer relu6
I0403 08:30:35.015290 11547 net.cpp:425] relu6 <- fc6
I0403 08:30:35.015308 11547 net.cpp:386] relu6 -> fc6 (in-place)
I0403 08:30:35.015329 11547 net.cpp:141] Setting up relu6
I0403 08:30:35.015347 11547 net.cpp:148] Top shape: 100 4096 (409600)
I0403 08:30:35.015362 11547 net.cpp:156] Memory required for data: 824971200
I0403 08:30:35.015375 11547 layer_factory.hpp:77] Creating layer drop6
I0403 08:30:35.015403 11547 net.cpp:91] Creating Layer drop6
I0403 08:30:35.015419 11547 net.cpp:425] drop6 <- fc6
I0403 08:30:35.015436 11547 net.cpp:386] drop6 -> fc6 (in-place)
I0403 08:30:35.015480 11547 net.cpp:141] Setting up drop6
I0403 08:30:35.015504 11547 net.cpp:148] Top shape: 100 4096 (409600)
I0403 08:30:35.015521 11547 net.cpp:156] Memory required for data: 826609600
I0403 08:30:35.015535 11547 layer_factory.hpp:77] Creating layer fc7
I0403 08:30:35.015555 11547 net.cpp:91] Creating Layer fc7
I0403 08:30:35.015570 11547 net.cpp:425] fc7 <- fc6
I0403 08:30:35.015588 11547 net.cpp:399] fc7 -> fc7
I0403 08:30:35.616859 11547 net.cpp:141] Setting up fc7
I0403 08:30:35.616940 11547 net.cpp:148] Top shape: 100 4096 (409600)
I0403 08:30:35.616956 11547 net.cpp:156] Memory required for data: 828248000
I0403 08:30:35.616978 11547 layer_factory.hpp:77] Creating layer relu7
I0403 08:30:35.617002 11547 net.cpp:91] Creating Layer relu7
I0403 08:30:35.617017 11547 net.cpp:425] relu7 <- fc7
I0403 08:30:35.617036 11547 net.cpp:386] relu7 -> fc7 (in-place)
I0403 08:30:35.617058 11547 net.cpp:141] Setting up relu7
I0403 08:30:35.617075 11547 net.cpp:148] Top shape: 100 4096 (409600)
I0403 08:30:35.617090 11547 net.cpp:156] Memory required for data: 829886400
I0403 08:30:35.617105 11547 layer_factory.hpp:77] Creating layer drop7
I0403 08:30:35.617169 11547 net.cpp:91] Creating Layer drop7
I0403 08:30:35.617188 11547 net.cpp:425] drop7 <- fc7
I0403 08:30:35.617205 11547 net.cpp:386] drop7 -> fc7 (in-place)
I0403 08:30:35.617249 11547 net.cpp:141] Setting up drop7
I0403 08:30:35.617271 11547 net.cpp:148] Top shape: 100 4096 (409600)
I0403 08:30:35.617287 11547 net.cpp:156] Memory required for data: 831524800
I0403 08:30:35.617302 11547 layer_factory.hpp:77] Creating layer fc8_plantvillage
I0403 08:30:35.617321 11547 net.cpp:91] Creating Layer fc8_plantvillage
I0403 08:30:35.617338 11547 net.cpp:425] fc8_plantvillage <- fc7
I0403 08:30:35.617359 11547 net.cpp:399] fc8_plantvillage -> fc8_plantvillage
I0403 08:30:35.623322 11547 net.cpp:141] Setting up fc8_plantvillage
I0403 08:30:35.623353 11547 net.cpp:148] Top shape: 100 38 (3800)
I0403 08:30:35.623368 11547 net.cpp:156] Memory required for data: 831540000
I0403 08:30:35.623386 11547 layer_factory.hpp:77] Creating layer loss
I0403 08:30:35.623411 11547 net.cpp:91] Creating Layer loss
I0403 08:30:35.623430 11547 net.cpp:425] loss <- fc8_plantvillage
I0403 08:30:35.623445 11547 net.cpp:425] loss <- label
I0403 08:30:35.623466 11547 net.cpp:399] loss -> loss
I0403 08:30:35.623492 11547 layer_factory.hpp:77] Creating layer loss
…
I0403 08:30:35.625131 11547 net.cpp:313] The NetState phase (1) differed from the phase (0) specified by a rule in layer data
I0403 08:30:35.625769 11547 net.cpp:49] Initializing net from parameters: 
state {
  phase: TEST
}
layer {
  name: "data"
  type: "Data"
  top: "data"
  top: "label"
  include {
    phase: TEST
  }
  transform_param {
    crop_size: 227
    mean_file: "/home/mohanty/data/final_dataset/lmdb/color-50-50/mean.binaryproto"
  }
  data_param {
    source: "/home/mohanty/data/final_dataset/lmdb/color-50-50/test_db"
    batch_size: 100
    backend: LMDB
  }
}
layer {
  name: "conv1"
  type: "Convolution"
  bottom: "data"
  top: "conv1"
  param {
    lr_mult: 1
    decay_mult: 1
  }
  param {
    lr_mult: 2
    decay_mult: 0
  }
  convolution_param {
    num_output: 96
    kernel_size: 11
    stride: 4
    weight_filler {
      type: "gaussian"
      std: 0.01
    }
    bias_filler {
      type: "constant"
      value: 0
    }
  }
}
layer {
  name: "relu1"
  type: "ReLU"
  bottom: "conv1"
  top: "conv1"
}
layer {
  name: "norm1"
  type: "LRN"
  bottom: "conv1"
  top: "norm1"
  lrn_param {
    local_size: 5
    alpha: 0.0001
    beta: 0.75
  }
}
layer {
  name: "pool1"
  type: "Pooling"
  bottom: "norm1"
  top: "pool1"
  pooling_param {
    pool: MAX
    kernel_size: 3
    stride: 2
  }
}
layer {
  name: "conv2"
  type: "Convolution"
  bottom: "pool1"
  top: "conv2"
  param {
    lr_mult: 1
    decay_mult: 1
  }
  param {
    lr_mult: 2
    decay_mult: 0
  }
  convolution_param {
    num_output: 256
    pad: 2
    kernel_size: 5
    group: 2
    weight_filler {
      type: "gaussian"
      std: 0.01
    }
    bias_filler {
      type: "constant"
      value: 0.1
    }
  }
}
layer {
  name: "relu2"
  type: "ReLU"
  bottom: "conv2"
  top: "conv2"
}
layer {
  name: "norm2"
  type: "LRN"
  bottom: "conv2"
  top: "norm2"
  lrn_param {
    local_size: 5
    alpha: 0.0001
    beta: 0.75
  }
}
layer {
  name: "pool2"
  type: "Pooling"
  bottom: "norm2"
  top: "pool2"
  pooling_param {
    pool: MAX
    kernel_size: 3
    stride: 2
  }
}
layer {
  name: "conv3"
  type: "Convolution"
  bottom: "pool2"
  top: "conv3"
  param {
    lr_mult: 1
    decay_mult: 1
  }
  param {
    lr_mult: 2
    decay_mult: 0
  }
  convolution_param {
    num_output: 384
    pad: 1
    kernel_size: 3
    weight_filler {
      type: "gaussian"
      std: 0.01
    }
    bias_filler {
      type: "constant"
      value: 0
    }
  }
}
layer {
  name: "relu3"
  type: "ReLU"
  bottom: "conv3"
  top: "conv3"
}
layer {
  name: "conv4"
  type: "Convolution"
  bottom: "conv3"
  top: "conv4"
  param {
    lr_mult: 1
    decay_mult: 1
  }
  param {
    lr_mult: 2
    decay_mult: 0
  }
  convolution_param {
    num_output: 384
    pad: 1
    kernel_size: 3
    group: 2
    weight_filler {
      type: "gaussian"
      std: 0.01
    }
    bias_filler {
      type: "constant"
      value: 0.1
    }
  }
}
layer {
  name: "relu4"
  type: "ReLU"
  bottom: "conv4"
  top: "conv4"
}
layer {
  name: "conv5"
  type: "Convolution"
  bottom: "conv4"
  top: "conv5"
  param {
    lr_mult: 1
    decay_mult: 1
  }
  param {
    lr_mult: 2
    decay_mult: 0
  }
  convolution_param {
    num_output: 256
    pad: 1
    kernel_size: 3
    group: 2
    weight_filler {
      type: "gaussian"
      std: 0.01
    }
    bias_filler {
      type: "constant"
      value: 0.1
    }
  }
}
layer {
  name: "relu5"
  type: "ReLU"
  bottom: "conv5"
  top: "conv5"
}
layer {
  name: "pool5"
  type: "Pooling"
  bottom: "conv5"
  top: "pool5"
  pooling_param {
    pool: MAX
    kernel_size: 3
    stride: 2
  }
}
layer {
  name: "fc6"
  type: "InnerProduct"
  bottom: "pool5"
  top: "fc6"
  param {
    lr_mult: 1
    decay_mult: 1
  }
  param {
    lr_mult: 2
    decay_mult: 0
  }
  inner_product_param {
    num_output: 4096
    weight_filler {
      type: "gaussian"
      std: 0.005
    }
    bias_filler {
      type: "constant"
      value: 0.1
    }
  }
}
layer {
  name: "relu6"
  type: "ReLU"
  bottom: "fc6"
  top: "fc6"
}
layer {
  name: "drop6"
  type: "Dropout"
  bottom: "fc6"
  top: "fc6"
  dropout_param {
    dropout_ratio: 0.5
  }
}
layer {
  name: "fc7"
  type: "InnerProduct"
  bottom: "fc6"
  top: "fc7"
  param {
    lr_mult: 1
    decay_mult: 1
  }
  param {
    lr_mult: 2
    decay_mult: 0
  }
  inner_product_param {
    num_output: 4096
    weight_filler {
      type: "gaussian"
      std: 0.005
    }
    bias_filler {
      type: "constant"
      value: 0.1
    }
  }
}
layer {
  name: "relu7"
  type: "ReLU"
  bottom: "fc7"
  top: "fc7"
}
layer {
  name: "drop7"
  type: "Dropout"
  bottom: "fc7"
  top: "fc7"
  dropout_param {
    dropout_ratio: 0.5
  }
}
layer {
  name: "fc8_plantvillage"
  type: "InnerProduct"
  bottom: "fc7"
  top: "fc8_plantvillage"
  param {
    lr_mult: 1
    decay_mult: 1
  }
  param {
    lr_mult: 2
    decay_mult: 0
  }
  inner_product_param {
    num_output: 38
    weight_filler {
      type: "gaussian"
      std: 0.01
    }
    bias_filler {
      type: "constant"
      value: 0
    }
  }
}
layer {
  name: "loss"
  type: "SoftmaxWithLoss"
  bottom: "fc8_plantvillage"
  bottom: "label"
  top: "loss"
}
layer {
  name: "accuracy"
  type: "Accuracy"
  bottom: "fc8_plantvillage"
  bottom: "label"
  top: "accuracy"
  include {
    phase: TEST
  }
}
I0403 08:30:35.625923 11547 layer_factory.hpp:77] Creating layer data
I0403 08:30:35.626085 11547 net.cpp:91] Creating Layer data
I0403 08:30:35.626114 11547 net.cpp:399] data -> data
I0403 08:30:35.626139 11547 net.cpp:399] data -> label
I0403 08:30:35.626163 11547 data_transformer.cpp:25] Loading mean file from: /home/mohanty/data/final_dataset/lmdb/color-50-50/mean.binaryproto
I0403 08:30:35.667965 11554 db_lmdb.cpp:38] Opened lmdb /home/mohanty/data/final_dataset/lmdb/color-50-50/test_db
I0403 08:30:35.673651 11547 data_layer.cpp:41] output data size: 100,3,227,227
I0403 08:30:35.791440 11547 net.cpp:141] Setting up data
I0403 08:30:35.791525 11547 net.cpp:148] Top shape: 100 3 227 227 (15458700)
I0403 08:30:35.791545 11547 net.cpp:148] Top shape: 100 (100)
I0403 08:30:35.791560 11547 net.cpp:156] Memory required for data: 61835200
I0403 08:30:35.791579 11547 layer_factory.hpp:77] Creating layer label_data_1_split
I0403 08:30:35.791607 11547 net.cpp:91] Creating Layer label_data_1_split
I0403 08:30:35.791625 11547 net.cpp:425] label_data_1_split <- label
I0403 08:30:35.791647 11547 net.cpp:399] label_data_1_split -> label_data_1_split_0
I0403 08:30:35.791672 11547 net.cpp:399] label_data_1_split -> label_data_1_split_1
I0403 08:30:35.791729 11547 net.cpp:141] Setting up label_data_1_split
I0403 08:30:35.791754 11547 net.cpp:148] Top shape: 100 (100)
I0403 08:30:35.791771 11547 net.cpp:148] Top shape: 100 (100)
I0403 08:30:35.791787 11547 net.cpp:156] Memory required for data: 61836000
I0403 08:30:35.791802 11547 layer_factory.hpp:77] Creating layer conv1
I0403 08:30:35.791829 11547 net.cpp:91] Creating Layer conv1
I0403 08:30:35.791846 11547 net.cpp:425] conv1 <- data
I0403 08:30:35.791867 11547 net.cpp:399] conv1 -> conv1
I0403 08:30:35.793402 11547 net.cpp:141] Setting up conv1
I0403 08:30:35.793431 11547 net.cpp:148] Top shape: 100 96 55 55 (29040000)
I0403 08:30:35.793447 11547 net.cpp:156] Memory required for data: 177996000
I0403 08:30:35.793470 11547 layer_factory.hpp:77] Creating layer relu1
I0403 08:30:35.793491 11547 net.cpp:91] Creating Layer relu1
I0403 08:30:35.793508 11547 net.cpp:425] relu1 <- conv1
I0403 08:30:35.793526 11547 net.cpp:386] relu1 -> conv1 (in-place)
I0403 08:30:35.793545 11547 net.cpp:141] Setting up relu1
I0403 08:30:35.793563 11547 net.cpp:148] Top shape: 100 96 55 55 (29040000)
I0403 08:30:35.793579 11547 net.cpp:156] Memory required for data: 294156000
I0403 08:30:35.793594 11547 layer_factory.hpp:77] Creating layer norm1
I0403 08:30:35.793615 11547 net.cpp:91] Creating Layer norm1
I0403 08:30:35.793632 11547 net.cpp:425] norm1 <- conv1
I0403 08:30:35.793650 11547 net.cpp:399] norm1 -> norm1
I0403 08:30:35.793699 11547 net.cpp:141] Setting up norm1
I0403 08:30:35.793723 11547 net.cpp:148] Top shape: 100 96 55 55 (29040000)
I0403 08:30:35.793738 11547 net.cpp:156] Memory required for data: 410316000
I0403 08:30:35.793753 11547 layer_factory.hpp:77] Creating layer pool1
I0403 08:30:35.793773 11547 net.cpp:91] Creating Layer pool1
I0403 08:30:35.793790 11547 net.cpp:425] pool1 <- norm1
I0403 08:30:35.793808 11547 net.cpp:399] pool1 -> pool1
I0403 08:30:35.799751 11547 net.cpp:141] Setting up pool1
I0403 08:30:35.799787 11547 net.cpp:148] Top shape: 100 96 27 27 (6998400)
I0403 08:30:35.799804 11547 net.cpp:156] Memory required for data: 438309600
I0403 08:30:35.799862 11547 layer_factory.hpp:77] Creating layer conv2
I0403 08:30:35.799888 11547 net.cpp:91] Creating Layer conv2
I0403 08:30:35.799906 11547 net.cpp:425] conv2 <- pool1
I0403 08:30:35.799927 11547 net.cpp:399] conv2 -> conv2
I0403 08:30:35.811871 11547 net.cpp:141] Setting up conv2
I0403 08:30:35.811902 11547 net.cpp:148] Top shape: 100 256 27 27 (18662400)
I0403 08:30:35.811918 11547 net.cpp:156] Memory required for data: 512959200
I0403 08:30:35.811941 11547 layer_factory.hpp:77] Creating layer relu2
I0403 08:30:35.811964 11547 net.cpp:91] Creating Layer relu2
I0403 08:30:35.811980 11547 net.cpp:425] relu2 <- conv2
I0403 08:30:35.811998 11547 net.cpp:386] relu2 -> conv2 (in-place)
I0403 08:30:35.812017 11547 net.cpp:141] Setting up relu2
I0403 08:30:35.812036 11547 net.cpp:148] Top shape: 100 256 27 27 (18662400)
I0403 08:30:35.812050 11547 net.cpp:156] Memory required for data: 587608800
I0403 08:30:35.812067 11547 layer_factory.hpp:77] Creating layer norm2
I0403 08:30:35.812088 11547 net.cpp:91] Creating Layer norm2
I0403 08:30:35.812103 11547 net.cpp:425] norm2 <- conv2
I0403 08:30:35.812121 11547 net.cpp:399] norm2 -> norm2
I0403 08:30:35.812170 11547 net.cpp:141] Setting up norm2
I0403 08:30:35.812194 11547 net.cpp:148] Top shape: 100 256 27 27 (18662400)
I0403 08:30:35.812209 11547 net.cpp:156] Memory required for data: 662258400
I0403 08:30:35.812225 11547 layer_factory.hpp:77] Creating layer pool2
I0403 08:30:35.812249 11547 net.cpp:91] Creating Layer pool2
I0403 08:30:35.812266 11547 net.cpp:425] pool2 <- norm2
I0403 08:30:35.812284 11547 net.cpp:399] pool2 -> pool2
I0403 08:30:35.812331 11547 net.cpp:141] Setting up pool2
I0403 08:30:35.812355 11547 net.cpp:148] Top shape: 100 256 13 13 (4326400)
I0403 08:30:35.812371 11547 net.cpp:156] Memory required for data: 679564000
I0403 08:30:35.812388 11547 layer_factory.hpp:77] Creating layer conv3
I0403 08:30:35.812410 11547 net.cpp:91] Creating Layer conv3
I0403 08:30:35.812428 11547 net.cpp:425] conv3 <- pool2
I0403 08:30:35.812448 11547 net.cpp:399] conv3 -> conv3
I0403 08:30:35.846499 11547 net.cpp:141] Setting up conv3
I0403 08:30:35.864294 11547 net.cpp:148] Top shape: 100 384 13 13 (6489600)
I0403 08:30:35.864331 11547 net.cpp:156] Memory required for data: 705522400
I0403 08:30:35.864367 11547 layer_factory.hpp:77] Creating layer relu3
I0403 08:30:35.864399 11547 net.cpp:91] Creating Layer relu3
I0403 08:30:35.864418 11547 net.cpp:425] relu3 <- conv3
I0403 08:30:35.864439 11547 net.cpp:386] relu3 -> conv3 (in-place)
I0403 08:30:35.864461 11547 net.cpp:141] Setting up relu3
I0403 08:30:35.864480 11547 net.cpp:148] Top shape: 100 384 13 13 (6489600)
I0403 08:30:35.864495 11547 net.cpp:156] Memory required for data: 731480800
I0403 08:30:35.864511 11547 layer_factory.hpp:77] Creating layer conv4
I0403 08:30:35.864537 11547 net.cpp:91] Creating Layer conv4
I0403 08:30:35.864553 11547 net.cpp:425] conv4 <- conv3
I0403 08:30:35.864573 11547 net.cpp:399] conv4 -> conv4
I0403 08:30:35.890691 11547 net.cpp:141] Setting up conv4
I0403 08:30:35.890733 11547 net.cpp:148] Top shape: 100 384 13 13 (6489600)
I0403 08:30:35.890749 11547 net.cpp:156] Memory required for data: 757439200
I0403 08:30:35.890770 11547 layer_factory.hpp:77] Creating layer relu4
I0403 08:30:35.890789 11547 net.cpp:91] Creating Layer relu4
I0403 08:30:35.890806 11547 net.cpp:425] relu4 <- conv4
I0403 08:30:35.890825 11547 net.cpp:386] relu4 -> conv4 (in-place)
I0403 08:30:35.890846 11547 net.cpp:141] Setting up relu4
I0403 08:30:35.890864 11547 net.cpp:148] Top shape: 100 384 13 13 (6489600)
I0403 08:30:35.890879 11547 net.cpp:156] Memory required for data: 783397600
I0403 08:30:35.890893 11547 layer_factory.hpp:77] Creating layer conv5
I0403 08:30:35.890915 11547 net.cpp:91] Creating Layer conv5
I0403 08:30:35.890933 11547 net.cpp:425] conv5 <- conv4
I0403 08:30:35.890954 11547 net.cpp:399] conv5 -> conv5
I0403 08:30:35.907929 11547 net.cpp:141] Setting up conv5
I0403 08:30:35.907963 11547 net.cpp:148] Top shape: 100 256 13 13 (4326400)
I0403 08:30:35.907979 11547 net.cpp:156] Memory required for data: 800703200
I0403 08:30:35.908046 11547 layer_factory.hpp:77] Creating layer relu5
I0403 08:30:35.908067 11547 net.cpp:91] Creating Layer relu5
I0403 08:30:35.908084 11547 net.cpp:425] relu5 <- conv5
I0403 08:30:35.908103 11547 net.cpp:386] relu5 -> conv5 (in-place)
I0403 08:30:35.908123 11547 net.cpp:141] Setting up relu5
I0403 08:30:35.908141 11547 net.cpp:148] Top shape: 100 256 13 13 (4326400)
I0403 08:30:35.908156 11547 net.cpp:156] Memory required for data: 818008800
I0403 08:30:35.908171 11547 layer_factory.hpp:77] Creating layer pool5
I0403 08:30:35.908195 11547 net.cpp:91] Creating Layer pool5
I0403 08:30:35.908213 11547 net.cpp:425] pool5 <- conv5
I0403 08:30:35.908232 11547 net.cpp:399] pool5 -> pool5
I0403 08:30:35.908298 11547 net.cpp:141] Setting up pool5
I0403 08:30:35.908323 11547 net.cpp:148] Top shape: 100 256 6 6 (921600)
I0403 08:30:35.908339 11547 net.cpp:156] Memory required for data: 821695200
I0403 08:30:35.908352 11547 layer_factory.hpp:77] Creating layer fc6
I0403 08:30:35.908375 11547 net.cpp:91] Creating Layer fc6
I0403 08:30:35.908390 11547 net.cpp:425] fc6 <- pool5
I0403 08:30:35.908409 11547 net.cpp:399] fc6 -> fc6
I0403 08:30:37.328619 11547 net.cpp:141] Setting up fc6
I0403 08:30:37.328701 11547 net.cpp:148] Top shape: 100 4096 (409600)
I0403 08:30:37.328716 11547 net.cpp:156] Memory required for data: 823333600
I0403 08:30:37.328739 11547 layer_factory.hpp:77] Creating layer relu6
I0403 08:30:37.328765 11547 net.cpp:91] Creating Layer relu6
I0403 08:30:37.328784 11547 net.cpp:425] relu6 <- fc6
I0403 08:30:37.328804 11547 net.cpp:386] relu6 -> fc6 (in-place)
I0403 08:30:37.328825 11547 net.cpp:141] Setting up relu6
I0403 08:30:37.328842 11547 net.cpp:148] Top shape: 100 4096 (409600)
I0403 08:30:37.328856 11547 net.cpp:156] Memory required for data: 824972000
I0403 08:30:37.328871 11547 layer_factory.hpp:77] Creating layer drop6
I0403 08:30:37.328893 11547 net.cpp:91] Creating Layer drop6
I0403 08:30:37.328910 11547 net.cpp:425] drop6 <- fc6
I0403 08:30:37.328927 11547 net.cpp:386] drop6 -> fc6 (in-place)
I0403 08:30:37.328964 11547 net.cpp:141] Setting up drop6
I0403 08:30:37.328989 11547 net.cpp:148] Top shape: 100 4096 (409600)
I0403 08:30:37.329005 11547 net.cpp:156] Memory required for data: 826610400
I0403 08:30:37.329020 11547 layer_factory.hpp:77] Creating layer fc7
I0403 08:30:37.329041 11547 net.cpp:91] Creating Layer fc7
I0403 08:30:37.329057 11547 net.cpp:425] fc7 <- fc6
I0403 08:30:37.329077 11547 net.cpp:399] fc7 -> fc7
I0403 08:30:37.951021 11547 net.cpp:141] Setting up fc7
I0403 08:30:37.951103 11547 net.cpp:148] Top shape: 100 4096 (409600)
I0403 08:30:37.951119 11547 net.cpp:156] Memory required for data: 828248800
I0403 08:30:37.951141 11547 layer_factory.hpp:77] Creating layer relu7
I0403 08:30:37.951167 11547 net.cpp:91] Creating Layer relu7
I0403 08:30:37.951184 11547 net.cpp:425] relu7 <- fc7
I0403 08:30:37.951205 11547 net.cpp:386] relu7 -> fc7 (in-place)
I0403 08:30:37.951227 11547 net.cpp:141] Setting up relu7
I0403 08:30:37.951249 11547 net.cpp:148] Top shape: 100 4096 (409600)
I0403 08:30:37.951272 11547 net.cpp:156] Memory required for data: 829887200
I0403 08:30:37.951287 11547 layer_factory.hpp:77] Creating layer drop7
I0403 08:30:37.951310 11547 net.cpp:91] Creating Layer drop7
I0403 08:30:37.951328 11547 net.cpp:425] drop7 <- fc7
I0403 08:30:37.951346 11547 net.cpp:386] drop7 -> fc7 (in-place)
I0403 08:30:37.951388 11547 net.cpp:141] Setting up drop7
I0403 08:30:37.951411 11547 net.cpp:148] Top shape: 100 4096 (409600)
I0403 08:30:37.951426 11547 net.cpp:156] Memory required for data: 831525600
I0403 08:30:37.951441 11547 layer_factory.hpp:77] Creating layer fc8_plantvillage
I0403 08:30:37.951462 11547 net.cpp:91] Creating Layer fc8_plantvillage
I0403 08:30:37.951478 11547 net.cpp:425] fc8_plantvillage <- fc7
I0403 08:30:37.951498 11547 net.cpp:399] fc8_plantvillage -> fc8_plantvillage
I0403 08:30:37.957643 11547 net.cpp:141] Setting up fc8_plantvillage
I0403 08:30:37.957674 11547 net.cpp:148] Top shape: 100 38 (3800)
I0403 08:30:37.957727 11547 net.cpp:156] Memory required for data: 831540800
I0403 08:30:37.957747 11547 layer_factory.hpp:77] Creating layer fc8_plantvillage_fc8_plantvillage_0_split
I0403 08:30:37.957767 11547 net.cpp:91] Creating Layer fc8_plantvillage_fc8_plantvillage_0_split
I0403 08:30:37.957784 11547 net.cpp:425] fc8_plantvillage_fc8_plantvillage_0_split <- fc8_plantvillage
I0403 08:30:37.957803 11547 net.cpp:399] fc8_plantvillage_fc8_plantvillage_0_split -> fc8_plantvillage_fc8_plantvillage_0_split_0
I0403 08:30:37.957821 11547 net.cpp:399] fc8_plantvillage_fc8_plantvillage_0_split -> fc8_plantvillage_fc8_plantvillage_0_split_1
I0403 08:30:37.957871 11547 net.cpp:141] Setting up fc8_plantvillage_fc8_plantvillage_0_split
I0403 08:30:37.957893 11547 net.cpp:148] Top shape: 100 38 (3800)
I0403 08:30:37.957911 11547 net.cpp:148] Top shape: 100 38 (3800)
I0403 08:30:37.957924 11547 net.cpp:156] Memory required for data: 831571200
I0403 08:30:37.957938 11547 layer_factory.hpp:77] Creating layer loss
I0403 08:30:37.957967 11547 net.cpp:91] Creating Layer loss
I0403 08:30:37.957983 11547 net.cpp:425] loss <- fc8_plantvillage_fc8_plantvillage_0_split_0
I0403 08:30:37.957998 11547 net.cpp:425] loss <- label_data_1_split_0
I0403 08:30:37.958029 11547 net.cpp:399] loss -> loss
…
