…
I0403 04:30:44.656198 21847 net.cpp:313] The NetState phase (0) differed from the phase (1) specified by a rule in layer loss3/top-5
I0403 04:30:44.659968 21847 net.cpp:49] Initializing net from parameters: 
state {
  phase: TRAIN
}
layer {
  name: "data"
  type: "Data"
  top: "data"
  top: "label"
  include {
    phase: TRAIN
  }
  transform_param {
    mirror: true
    crop_size: 224
    mean_file: "/home/mohanty/data/final_dataset/lmdb/color-60-40/mean.binaryproto"
  }
  data_param {
    source: "/home/mohanty/data/final_dataset/lmdb/color-60-40/train_db"
    batch_size: 24
    backend: LMDB
  }
}
layer {
  name: "conv1/7x7_s2"
  type: "Convolution"
  bottom: "data"
  top: "conv1/7x7_s2"
  param {
    lr_mult: 1
    decay_mult: 1
  }
  param {
    lr_mult: 2
    decay_mult: 0
  }
  convolution_param {
    num_output: 64
    pad: 3
    kernel_size: 7
    stride: 2
    weight_filler {
      type: "xavier"
      std: 0.1
    }
    bias_filler {
      type: "constant"
      value: 0.2
    }
  }
}
layer {
  name: "conv1/relu_7x7"
  type: "ReLU"
  bottom: "conv1/7x7_s2"
  top: "conv1/7x7_s2"
}
layer {
  name: "pool1/3x3_s2"
  type: "Pooling"
  bottom: "conv1/7x7_s2"
  top: "pool1/3x3_s2"
  pooling_param {
    pool: MAX
    kernel_size: 3
    stride: 2
  }
}
layer {
  name: "pool1/norm1"
  type: "LRN"
  bottom: "pool1/3x3_s2"
  top: "pool1/norm1"
  lrn_param {
    local_size: 5
    alpha: 0.0001
    beta: 0.75
  }
}
layer {
  name: "conv2/3x3_reduce"
  type: "Convolution"
  bottom: "pool1/norm1"
  top: "conv2/3x3_reduce"
  param {
    lr_mult: 1
    decay_mult: 1
  }
  param {
    lr_mult: 2
    decay_mult: 0
  }
  convolution_param {
    num_output: 64
    kernel_size: 1
    weight_filler {
      type: "xavier"
      std: 0.1
    }
    bias_filler {
      type: "constant"
      value: 0.2
    }
  }
}
layer {
  name: "conv2/relu_3x3_reduce"
  type: "ReLU"
  bottom: "conv2/3x3_reduce"
  top: "conv2/3x3_reduce"
}
layer {
  name: "conv2/3x3"
  type: "Convolution"
  bottom: "conv2/3x3_reduce"
  top: "conv2/3x3"
  param {
    lr_mult: 1
    decay_mult: 1
  }
  param {
    lr_mult: 2
    decay_mult: 0
  }
  convolution_param {
    num_output: 192
    pad: 1
    kernel_size: 3
    weight_filler {
      type: "xavier"
      std: 0.03
    }
    bias_filler {
      type: "constant"
      value: 0.2
    }
  }
}
layer {
  name: "conv2/relu_3x3"
  type: "ReLU"
  bottom: "conv2/3x3"
  top: "conv2/3x3"
}
layer {
  name: "conv2/norm2"
  type: "LRN"
  bottom: "conv2/3x3"
  top: "conv2/norm2"
  lrn_param {
    local_size: 5
    alpha: 0.0001
    beta: 0.75
  }
}
layer {
  name: "pool2/3x3_s2"
  type: "Pooling"
  bottom: "conv2/norm2"
  top: "pool2/3x3_s2"
  pooling_param {
    pool: MAX
    kernel_size: 3
    stride: 2
  }
}
layer {
  name: "inception_3a/1x1"
  type: "Convolution"
  bottom: "pool2/3x3_s2"
  top: "inception_3a/1x1"
  param {
    lr_mult: 1
    decay_mult: 1
  }
  param {
    lr_mult: 2
    decay_mult: 0
  }
  convolution_param {
    num_output: 64
    kernel_size: 1
    weight_filler {
      type: "xavier"
      std: 0.03
    }
    bias_filler {
      type: "constant"
      value: 0.2
    }
  }
}
layer {
  name: "inception_3a/relu_1x1"
  type: "ReLU"
  bottom: "inception_3a/1x1"
  top: "inception_3a/1x1"
}
layer {
  name: "inception_3a/3x3_reduce"
  type: "Convolution"
  bottom: "pool2/3x3_s2"
  top: "inception_3a/3x3_reduce"
  param {
    lr_mult: 1
    decay_mult: 1
  }
  param {
    lr_mult: 2
    decay_mult: 0
  }
  convolution_param {
    num_output: 96
    kernel_size: 1
    weight_filler {
      type: "xavier"
      std: 0.09
    }
    bias_filler {
      type: "constant"
      value: 0.2
    }
  }
}
layer {
  name: "inception_3a/relu_3x3_reduce"
  type: "ReLU"
  bottom: "inception_3a/3x3_reduce"
  top: "inception_3a/3x3_reduce"
}
layer {
  name: "inception_3a/3x3"
  type: "Convolution"
  bottom: "inception_3a/3x3_reduce"
  top: "inception_3a/3x3"
  param {
    lr_mult: 1
    decay_mult: 1
  }
  param {
    lr_mult: 2
    decay_mult: 0
  }
  convolution_param {
    num_output: 128
    pad: 1
    kernel_size: 3
    weight_filler {
      type: "xavier"
      std: 0.03
    }
    bias_filler {
      type: "constant"
      value: 0.2
    }
  }
}
layer {
  name: "inception_3a/relu_3x3"
  type: "ReLU"
  bottom: "inception_3a/3x3"
  top: "inception_3a/3x3"
}
layer {
  name: "inception_3a/5x5_reduce"
  type: "Convolution"
  bottom: "pool2/3x3_s2"
  top: "inception_3a/5x5_reduce"
  param {
    lr_mult: 1
    decay_mult: 1
  }
  param {
    lr_mult: 2
    decay_mult: 0
  }
  convolution_param {
    num_output: 16
    kernel_size: 1
    weight_filler {
      type: "xavier"
      std: 0.2
    }
    bias_filler {
      type: "constant"
      value: 0.2
    }
  }
}
layer {
  name: "inception_3a/relu_5x5_reduce"
  type: "ReLU"
  bottom: "inception_3a/5x5_reduce"
  top: "inception_3a/5x5_reduce"
}
layer {
  name: "inception_3a/5x5"
  type: "Convolution"
  bottom: "inception_3a/5x5_reduce"
  top: "inception_3a/5x5"
  param {
    lr_mult: 1
    decay_mult: 1
  }
  param {
    lr_mult: 2
    decay_mult: 0
  }
  convolution_param {
    num_output: 32
    pad: 2
    kernel_size: 5
    weight_filler {
      type: "xavier"
      std: 0.03
    }
    bias_filler {
      type: "constant"
      value: 0.2
    }
  }
}
layer {
  name: "inception_3a/relu_5x5"
  type: "ReLU"
  bottom: "inception_3a/5x5"
  top: "inception_3a/5x5"
}
layer {
  name: "inception_3a/pool"
  type: "Pooling"
  bottom: "pool2/3x3_s2"
  top: "inception_3a/pool"
  pooling_param {
    pool: MAX
    kernel_size: 3
    stride: 1
    pad: 1
  }
}
layer {
  name: "inception_3a/pool_proj"
  type: "Convolution"
  bottom: "inception_3a/pool"
  top: "inception_3a/pool_proj"
  param {
    lr_mult: 1
    decay_mult: 1
  }
  param {
    lr_mult: 2
    decay_mult: 0
  }
  convolution_param {
    num_output: 32
    kernel_size: 1
    weight_filler {
      type: "xavier"
      std: 0.1
    }
    bias_filler {
      type: "constant"
      value: 0.2
    }
  }
}
layer {
  name: "inception_3a/relu_pool_proj"
  type: "ReLU"
  bottom: "inception_3a/pool_proj"
  top: "inception_3a/pool_proj"
}
layer {
  name: "inception_3a/output"
  type: "Concat"
  bottom: "inception_3a/1x1"
  bottom: "inception_3a/3x3"
  bottom: "inception_3a/5x5"
  bottom: "inception_3a/pool_proj"
  top: "inception_3a/output"
}
layer {
  name: "inception_3b/1x1"
  type: "Convolution"
  bottom: "inception_3a/output"
  top: "inception_3b/1x1"
  param {
    lr_mult: 1
    decay_mult: 1
  }
  param {
    lr_mult: 2
    decay_mult: 0
  }
  convolution_param {
    num_output: 128
    kernel_size: 1
    weight_filler {
      type: "xavier"
      std: 0.03
    }
    bias_filler {
      type: "constant"
      value: 0.2
    }
  }
}
layer {
  name: "inception_3b/relu_1x1"
  type: "ReLU"
  bottom: "inception_3b/1x1"
  top: "inception_3b/1x1"
}
layer {
  name: "inception_3b/3x3_reduce"
  type: "Convolution"
  bottom: "inception_3a/output"
  top: "inception_3b/3x3_reduce"
  param {
    lr_mult: 1
    decay_mult: 1
  }
  param {
    lr_mult: 2
    decay_mult: 0
  }
  convolution_param {
    num_output: 128
    kernel_size: 1
    weight_filler {
      type: "xavier"
      std: 0.09
    }
    bias_filler {
      type: "constant"
      value: 0.2
    }
  }
}
layer {
  name: "inception_3b/relu_3x3_reduce"
  type: "ReLU"
  bottom: "inception_3b/3x3_reduce"
  top: "inception_3b/3x3_reduce"
}
layer {
  name: "inception_3b/3x3"
  type: "Convolution"
  bottom: "inception_3b/3x3_reduce"
  top: "inception_3b/3x3"
  param {
    lr_mult: 1
    decay_mult: 1
  }
  param {
    lr_mult: 2
    decay_mult: 0
  }
  convolution_param {
    num_output: 192
    pad: 1
    kernel_size: 3
    weight_filler {
      type: "xavier"
      std: 0.03
    }
    bias_filler {
      type: "constant"
      value: 0.2
    }
  }
}
layer {
  name: "inception_3b/relu_3x3"
  type: "ReLU"
  bottom: "inception_3b/3x3"
  top: "inception_3b/3x3"
}
layer {
  name: "inception_3b/5x5_reduce"
  type: "Convolution"
  bottom: "inception_3a/output"
  top: "inception_3b/5x5_reduce"
  param {
    lr_mult: 1
    decay_mult: 1
  }
  param {
    lr_mult: 2
    decay_mult: 0
  }
  convolution_param {
    num_output: 32
    kernel_size: 1
    weight_filler {
      type: "xavier"
      std: 0.2
    }
    bias_filler {
      type: "constant"
      value: 0.2
    }
  }
}
layer {
  name: "inception_3b/relu_5x5_reduce"
  type: "ReLU"
  bottom: "inception_3b/5x5_reduce"
  top: "inception_3b/5x5_reduce"
}
layer {
  name: "inception_3b/5x5"
  type: "Convolution"
  bottom: "inception_3b/5x5_reduce"
  top: "inception_3b/5x5"
  param {
    lr_mult: 1
    decay_mult: 1
  }
  param {
    lr_mult: 2
    decay_mult: 0
  }
  convolution_param {
    num_output: 96
    pad: 2
    kernel_size: 5
    weight_filler {
      type: "xavier"
      std: 0.03
    }
    bias_filler {
      type: "constant"
      value: 0.2
    }
  }
}
layer {
  name: "inception_3b/relu_5x5"
  type: "ReLU"
  bottom: "inception_3b/5x5"
  top: "inception_3b/5x5"
}
layer {
  name: "inception_3b/pool"
  type: "Pooling"
  bottom: "inception_3a/output"
  top: "inception_3b/pool"
  pooling_param {
    pool: MAX
    kernel_size: 3
    stride: 1
    pad: 1
  }
}
layer {
  name: "inception_3b/pool_proj"
  type: "Convolution"
  bottom: "inception_3b/pool"
  top: "inception_3b/pool_proj"
  param {
    lr_mult: 1
    decay_mult: 1
  }
  param {
    lr_mult: 2
    decay_mult: 0
  }
  convolution_param {
    num_output: 64
    kernel_size: 1
    weight_filler {
      type: "xavier"
      std: 0.1
    }
    bias_filler {
      type: "constant"
      value: 0.2
    }
  }
}
layer {
  name: "inception_3b/relu_pool_proj"
  type: "ReLU"
  bottom: "inception_3b/pool_proj"
  top: "inception_3b/pool_proj"
}
layer {
  name: "inception_3b/output"
  type: "Concat"
  bottom: "inception_3b/1x1"
  bottom: "inception_3b/3x3"
  bottom: "inception_3b/5x5"
  bottom: "inception_3b/pool_proj"
  top: "inception_3b/output"
}
layer {
  name: "pool3/3x3_s2"
  type: "Pooling"
  bottom: "inception_3b/output"
  top: "pool3/3x3_s2"
  pooling_param {
    pool: MAX
    kernel_size: 3
    stride: 2
  }
}
layer {
  name: "inception_4a/1x1"
  type: "Convolution"
  bottom: "pool3/3x3_s2"
  top: "inception_4a/1x1"
  param {
    lr_mult: 1
    decay_mult: 1
  }
  param {
    lr_mult: 2
    decay_mult: 0
  }
  convolution_param {
    num_output: 192
    kernel_size: 1
    weight_filler {
      type: "xavier"
      std: 0.03
    }
    bias_filler {
      type: "constant"
      value: 0.2
    }
  }
}
layer {
  name: "inception_4a/relu_1x1"
  type: "ReLU"
  bottom: "inception_4a/1x1"
  top: "inception_4a/1x1"
}
layer {
  name: "inception_4a/3x3_reduce"
  type: "Convolution"
  bottom: "pool3/3x3_s2"
  top: "inception_4a/3x3_reduce"
  param {
    lr_mult: 1
    decay_mult: 1
  }
  param {
    lr_mult: 2
    decay_mult: 0
  }
  convolution_param {
    num_output: 96
    kernel_size: 1
    weight_filler {
      type: "xavier"
      std: 0.09
    }
    bias_filler {
      type: "constant"
      value: 0.2
    }
  }
}
layer {
  name: "inception_4a/relu_3x3_reduce"
  type: "ReLU"
  bottom: "inception_4a/3x3_reduce"
  top: "inception_4a/3x3_reduce"
}
layer {
  name: "inception_4a/3x3"
  type: "Convolution"
  bottom: "inception_4a/3x3_reduce"
  top: "inception_4a/3x3"
  param {
    lr_mult: 1
    decay_mult: 1
  }
  param {
    lr_mult: 2
    decay_mult: 0
  }
  convolution_param {
    num_output: 208
    pad: 1
    kernel_size: 3
    weight_filler {
      type: "xavier"
      std: 0.03
    }
    bias_filler {
      type: "constant"
      value: 0.2
    }
  }
}
layer {
  name: "inception_4a/relu_3x3"
  type: "ReLU"
  bottom: "inception_4a/3x3"
  top: "inception_4a/3x3"
}
layer {
  name: "inception_4a/5x5_reduce"
  type: "Convolution"
  bottom: "pool3/3x3_s2"
  top: "inception_4a/5x5_reduce"
  param {
    lr_mult: 1
    decay_mult: 1
  }
  param {
    lr_mult: 2
    decay_mult: 0
  }
  convolution_param {
    num_output: 16
    kernel_size: 1
    weight_filler {
      type: "xavier"
      std: 0.2
    }
    bias_filler {
      type: "constant"
      value: 0.2
    }
  }
}
layer {
  name: "inception_4a/relu_5x5_reduce"
  type: "ReLU"
  bottom: "inception_4a/5x5_reduce"
  top: "inception_4a/5x5_reduce"
}
layer {
  name: "inception_4a/5x5"
  type: "Convolution"
  bottom: "inception_4a/5x5_reduce"
  top: "inception_4a/5x5"
  param {
    lr_mult: 1
    decay_mult: 1
  }
  param {
    lr_mult: 2
    decay_mult: 0
  }
  convolution_param {
    num_output: 48
    pad: 2
    kernel_size: 5
    weight_filler {
      type: "xavier"
      std: 0.03
    }
    bias_filler {
      type: "constant"
      value: 0.2
    }
  }
}
layer {
  name: "inception_4a/relu_5x5"
  type: "ReLU"
  bottom: "inception_4a/5x5"
  top: "inception_4a/5x5"
}
layer {
  name: "inception_4a/pool"
  type: "Pooling"
  bottom: "pool3/3x3_s2"
  top: "inception_4a/pool"
  pooling_param {
    pool: MAX
    kernel_size: 3
    stride: 1
    pad: 1
  }
}
layer {
  name: "inception_4a/pool_proj"
  type: "Convolution"
  bottom: "inception_4a/pool"
  top: "inception_4a/pool_proj"
  param {
    lr_mult: 1
    decay_mult: 1
  }
  param {
    lr_mult: 2
    decay_mult: 0
  }
  convolution_param {
    num_output: 64
    kernel_size: 1
    weight_filler {
      type: "xavier"
      std: 0.1
    }
    bias_filler {
      type: "constant"
      value: 0.2
    }
  }
}
layer {
  name: "inception_4a/relu_pool_proj"
  type: "ReLU"
  bottom: "inception_4a/pool_proj"
  top: "inception_4a/pool_proj"
}
layer {
  name: "inception_4a/output"
  type: "Concat"
  bottom: "inception_4a/1x1"
  bottom: "inception_4a/3x3"
  bottom: "inception_4a/5x5"
  bottom: "inception_4a/pool_proj"
  top: "inception_4a/output"
}
layer {
  name: "loss1/ave_pool"
  type: "Pooling"
  bottom: "inception_4a/output"
  top: "loss1/ave_pool"
  pooling_param {
    pool: AVE
    kernel_size: 5
    stride: 3
  }
}
layer {
  name: "loss1/conv"
  type: "Convolution"
  bottom: "loss1/ave_pool"
  top: "loss1/conv"
  param {
    lr_mult: 1
    decay_mult: 1
  }
  param {
    lr_mult: 2
    decay_mult: 0
  }
  convolution_param {
    num_output: 128
    kernel_size: 1
    weight_filler {
      type: "xavier"
      std: 0.08
    }
    bias_filler {
      type: "constant"
      value: 0.2
    }
  }
}
layer {
  name: "loss1/relu_conv"
  type: "ReLU"
  bottom: "loss1/conv"
  top: "loss1/conv"
}
layer {
  name: "loss1/fc"
  type: "InnerProduct"
  bottom: "loss1/conv"
  top: "loss1/fc"
  param {
    lr_mult: 1
    decay_mult: 1
  }
  param {
    lr_mult: 2
    decay_mult: 0
  }
  inner_product_param {
    num_output: 1024
    weight_filler {
      type: "xavier"
      std: 0.02
    }
    bias_filler {
      type: "constant"
      value: 0.2
    }
  }
}
layer {
  name: "loss1/relu_fc"
  type: "ReLU"
  bottom: "loss1/fc"
  top: "loss1/fc"
}
layer {
  name: "loss1/drop_fc"
  type: "Dropout"
  bottom: "loss1/fc"
  top: "loss1/fc"
  dropout_param {
    dropout_ratio: 0.7
  }
}
layer {
  name: "loss1/classifier_plantvillage"
  type: "InnerProduct"
  bottom: "loss1/fc"
  top: "loss1/classifier_plantvillage"
  param {
    lr_mult: 1
    decay_mult: 1
  }
  param {
    lr_mult: 2
    decay_mult: 0
  }
  inner_product_param {
    num_output: 38
    weight_filler {
      type: "xavier"
      std: 0.0009765625
    }
    bias_filler {
      type: "constant"
      value: 0
    }
  }
}
layer {
  name: "inception_4b/1x1"
  type: "Convolution"
  bottom: "inception_4a/output"
  top: "inception_4b/1x1"
  param {
    lr_mult: 1
    decay_mult: 1
  }
  param {
    lr_mult: 2
    decay_mult: 0
  }
  convolution_param {
    num_output: 160
    kernel_size: 1
    weight_filler {
      type: "xavier"
      std: 0.03
    }
    bias_filler {
      type: "constant"
      value: 0.2
    }
  }
}
layer {
  name: "inception_4b/relu_1x1"
  type: "ReLU"
  bottom: "inception_4b/1x1"
  top: "inception_4b/1x1"
}
layer {
  name: "inception_4b/3x3_reduce"
  type: "Convolution"
  bottom: "inception_4a/output"
  top: "inception_4b/3x3_reduce"
  param {
    lr_mult: 1
    decay_mult: 1
  }
  param {
    lr_mult: 2
    decay_mult: 0
  }
  convolution_param {
    num_output: 112
    kernel_size: 1
    weight_filler {
      type: "xavier"
      std: 0.09
    }
    bias_filler {
      type: "constant"
      value: 0.2
    }
  }
}
layer {
  name: "inception_4b/relu_3x3_reduce"
  type: "ReLU"
  bottom: "inception_4b/3x3_reduce"
  top: "inception_4b/3x3_reduce"
}
layer {
  name: "inception_4b/3x3"
  type: "Convolution"
  bottom: "inception_4b/3x3_reduce"
  top: "inception_4b/3x3"
  param {
    lr_mult: 1
    decay_mult: 1
  }
  param {
    lr_mult: 2
    decay_mult: 0
  }
  convolution_param {
    num_output: 224
    pad: 1
    kernel_size: 3
    weight_filler {
      type: "xavier"
      std: 0.03
    }
    bias_filler {
      type: "constant"
      value: 0.2
    }
  }
}
layer {
  name: "inception_4b/relu_3x3"
  type: "ReLU"
  bottom: "inception_4b/3x3"
  top: "inception_4b/3x3"
}
layer {
  name: "inception_4b/5x5_reduce"
  type: "Convolution"
  bottom: "inception_4a/output"
  top: "inception_4b/5x5_reduce"
  param {
    lr_mult: 1
    decay_mult: 1
  }
  param {
    lr_mult: 2
    decay_mult: 0
  }
  convolution_param {
    num_output: 24
    kernel_size: 1
    weight_filler {
      type: "xavier"
      std: 0.2
    }
    bias_filler {
      type: "constant"
      value: 0.2
    }
  }
}
layer {
  name: "inception_4b/relu_5x5_reduce"
  type: "ReLU"
  bottom: "inception_4b/5x5_reduce"
  top: "inception_4b/5x5_reduce"
}
layer {
  name: "inception_4b/5x5"
  type: "Convolution"
  bottom: "inception_4b/5x5_reduce"
  top: "inception_4b/5x5"
  param {
    lr_mult: 1
    decay_mult: 1
  }
  param {
    lr_mult: 2
    decay_mult: 0
  }
  convolution_param {
    num_output: 64
    pad: 2
    kernel_size: 5
    weight_filler {
      type: "xavier"
      std: 0.03
    }
    bias_filler {
      type: "constant"
      value: 0.2
    }
  }
}
layer {
  name: "inception_4b/relu_5x5"
  type: "ReLU"
  bottom: "inception_4b/5x5"
  top: "inception_4b/5x5"
}
layer {
  name: "inception_4b/pool"
  type: "Pooling"
  bottom: "inception_4a/output"
  top: "inception_4b/pool"
  pooling_param {
    pool: MAX
    kernel_size: 3
    stride: 1
    pad: 1
  }
}
layer {
  name: "inception_4b/pool_proj"
  type: "Convolution"
  bottom: "inception_4b/pool"
  top: "inception_4b/pool_proj"
  param {
    lr_mult: 1
    decay_mult: 1
  }
  param {
    lr_mult: 2
    decay_mult: 0
  }
  convolution_param {
    num_output: 64
    kernel_size: 1
    weight_filler {
      type: "xavier"
      std: 0.1
    }
    bias_filler {
      type: "constant"
      value: 0.2
    }
  }
}
layer {
  name: "inception_4b/relu_pool_proj"
  type: "ReLU"
  bottom: "inception_4b/pool_proj"
  top: "inception_4b/pool_proj"
}
layer {
  name: "inception_4b/output"
  type: "Concat"
  bottom: "inception_4b/1x1"
  bottom: "inception_4b/3x3"
  bottom: "inception_4b/5x5"
  bottom: "inception_4b/pool_proj"
  top: "inception_4b/output"
}
layer {
  name: "inception_4c/1x1"
  type: "Convolution"
  bottom: "inception_4b/output"
  top: "inception_4c/1x1"
  param {
    lr_mult: 1
    decay_mult: 1
  }
  param {
    lr_mult: 2
    decay_mult: 0
  }
  convolution_param {
    num_output: 128
    kernel_size: 1
    weight_filler {
      type: "xavier"
      std: 0.03
    }
    bias_filler {
      type: "constant"
      value: 0.2
    }
  }
}
layer {
  name: "inception_4c/relu_1x1"
  type: "ReLU"
  bottom: "inception_4c/1x1"
  top: "inception_4c/1x1"
}
layer {
  name: "inception_4c/3x3_reduce"
  type: "Convolution"
  bottom: "inception_4b/output"
  top: "inception_4c/3x3_reduce"
  param {
    lr_mult: 1
    decay_mult: 1
  }
  param {
    lr_mult: 2
    decay_mult: 0
  }
  convolution_param {
    num_output: 128
    kernel_size: 1
    weight_filler {
      type: "xavier"
      std: 0.09
    }
    bias_filler {
      type: "constant"
      value: 0.2
    }
  }
}
layer {
  name: "inception_4c/relu_3x3_reduce"
  type: "ReLU"
  bottom: "inception_4c/3x3_reduce"
  top: "inception_4c/3x3_reduce"
}
layer {
  name: "inception_4c/3x3"
  type: "Convolution"
  bottom: "inception_4c/3x3_reduce"
  top: "inception_4c/3x3"
  param {
    lr_mult: 1
    decay_mult: 1
  }
  param {
    lr_mult: 2
    decay_mult: 0
  }
  convolution_param {
    num_output: 256
    pad: 1
    kernel_size: 3
    weight_filler {
      type: "xavier"
      std: 0.03
    }
    bias_filler {
      type: "constant"
      value: 0.2
    }
  }
}
layer {
  name: "inception_4c/relu_3x3"
  type: "ReLU"
  bottom: "inception_4c/3x3"
  top: "inception_4c/3x3"
}
layer {
  name: "inception_4c/5x5_reduce"
  type: "Convolution"
  bottom: "inception_4b/output"
  top: "inception_4c/5x5_reduce"
  param {
    lr_mult: 1
    decay_mult: 1
  }
  param {
    lr_mult: 2
    decay_mult: 0
  }
  convolution_param {
    num_output: 24
    kernel_size: 1
    weight_filler {
      type: "xavier"
      std: 0.2
    }
    bias_filler {
      type: "constant"
      value: 0.2
    }
  }
}
layer {
  name: "inception_4c/relu_5x5_reduce"
  type: "ReLU"
  bottom: "inception_4c/5x5_reduce"
  top: "inception_4c/5x5_reduce"
}
layer {
  name: "inception_4c/5x5"
  type: "Convolution"
  bottom: "inception_4c/5x5_reduce"
  top: "inception_4c/5x5"
  param {
    lr_mult: 1
    decay_mult: 1
  }
  param {
    lr_mult: 2
    decay_mult: 0
  }
  convolution_param {
    num_output: 64
    pad: 2
    kernel_size: 5
    weight_filler {
      type: "xavier"
      std: 0.03
    }
    bias_filler {
      type: "constant"
      value: 0.2
    }
  }
}
layer {
  name: "inception_4c/relu_5x5"
  type: "ReLU"
  bottom: "inception_4c/5x5"
  top: "inception_4c/5x5"
}
layer {
  name: "inception_4c/pool"
  type: "Pooling"
  bottom: "inception_4b/output"
  top: "inception_4c/pool"
  pooling_param {
    pool: MAX
    kernel_size: 3
    stride: 1
    pad: 1
  }
}
layer {
  name: "inception_4c/pool_proj"
  type: "Convolution"
  bottom: "inception_4c/pool"
  top: "inception_4c/pool_proj"
  param {
    lr_mult: 1
    decay_mult: 1
  }
  param {
    lr_mult: 2
    decay_mult: 0
  }
  convolution_param {
    num_output: 64
    kernel_size: 1
    weight_filler {
      type: "xavier"
      std: 0.1
    }
    bias_filler {
      type: "constant"
      value: 0.2
    }
  }
}
layer {
  name: "inception_4c/relu_pool_proj"
  type: "ReLU"
  bottom: "inception_4c/pool_proj"
  top: "inception_4c/pool_proj"
}
layer {
  name: "inception_4c/output"
  type: "Concat"
  bottom: "inception_4c/1x1"
  bottom: "inception_4c/3x3"
  bottom: "inception_4c/5x5"
  bottom: "inception_4c/pool_proj"
  top: "inception_4c/output"
}
layer {
  name: "inception_4d/1x1"
  type: "Convolution"
  bottom: "inception_4c/output"
  top: "inception_4d/1x1"
  param {
    lr_mult: 1
    decay_mult: 1
  }
  param {
    lr_mult: 2
    decay_mult: 0
  }
  convolution_param {
    num_output: 112
    kernel_size: 1
    weight_filler {
      type: "xavier"
      std: 0.03
    }
    bias_filler {
      type: "constant"
      value: 0.2
    }
  }
}
layer {
  name: "inception_4d/relu_1x1"
  type: "ReLU"
  bottom: "inception_4d/1x1"
  top: "inception_4d/1x1"
}
layer {
  name: "inception_4d/3x3_reduce"
  type: "Convolution"
  bottom: "inception_4c/output"
  top: "inception_4d/3x3_reduce"
  param {
    lr_mult: 1
    decay_mult: 1
  }
  param {
    lr_mult: 2
    decay_mult: 0
  }
  convolution_param {
    num_output: 144
    kernel_size: 1
    weight_filler {
      type: "xavier"
      std: 0.09
    }
    bias_filler {
      type: "constant"
      value: 0.2
    }
  }
}
layer {
  name: "inception_4d/relu_3x3_reduce"
  type: "ReLU"
  bottom: "inception_4d/3x3_reduce"
  top: "inception_4d/3x3_reduce"
}
layer {
  name: "inception_4d/3x3"
  type: "Convolution"
  bottom: "inception_4d/3x3_reduce"
  top: "inception_4d/3x3"
  param {
    lr_mult: 1
    decay_mult: 1
  }
  param {
    lr_mult: 2
    decay_mult: 0
  }
  convolution_param {
    num_output: 288
    pad: 1
    kernel_size: 3
    weight_filler {
      type: "xavier"
      std: 0.03
    }
    bias_filler {
      type: "constant"
      value: 0.2
    }
  }
}
layer {
  name: "inception_4d/relu_3x3"
  type: "ReLU"
  bottom: "inception_4d/3x3"
  top: "inception_4d/3x3"
}
layer {
  name: "inception_4d/5x5_reduce"
  type: "Convolution"
  bottom: "inception_4c/output"
  top: "inception_4d/5x5_reduce"
  param {
    lr_mult: 1
    decay_mult: 1
  }
  param {
    lr_mult: 2
    decay_mult: 0
  }
  convolution_param {
    num_output: 32
    kernel_size: 1
    weight_filler {
      type: "xavier"
      std: 0.2
    }
    bias_filler {
      type: "constant"
      value: 0.2
    }
  }
}
layer {
  name: "inception_4d/relu_5x5_reduce"
  type: "ReLU"
  bottom: "inception_4d/5x5_reduce"
  top: "inception_4d/5x5_reduce"
}
layer {
  name: "inception_4d/5x5"
  type: "Convolution"
  bottom: "inception_4d/5x5_reduce"
  top: "inception_4d/5x5"
  param {
    lr_mult: 1
    decay_mult: 1
  }
  param {
    lr_mult: 2
    decay_mult: 0
  }
  convolution_param {
    num_output: 64
    pad: 2
    kernel_size: 5
    weight_filler {
      type: "xavier"
      std: 0.03
    }
    bias_filler {
      type: "constant"
      value: 0.2
    }
  }
}
layer {
  name: "inception_4d/relu_5x5"
  type: "ReLU"
  bottom: "inception_4d/5x5"
  top: "inception_4d/5x5"
}
layer {
  name: "inception_4d/pool"
  type: "Pooling"
  bottom: "inception_4c/output"
  top: "inception_4d/pool"
  pooling_param {
    pool: MAX
    kernel_size: 3
    stride: 1
    pad: 1
  }
}
layer {
  name: "inception_4d/pool_proj"
  type: "Convolution"
  bottom: "inception_4d/pool"
  top: "inception_4d/pool_proj"
  param {
    lr_mult: 1
    decay_mult: 1
  }
  param {
    lr_mult: 2
    decay_mult: 0
  }
  convolution_param {
    num_output: 64
    kernel_size: 1
    weight_filler {
      type: "xavier"
      std: 0.1
    }
    bias_filler {
      type: "constant"
      value: 0.2
    }
  }
}
layer {
  name: "inception_4d/relu_pool_proj"
  type: "ReLU"
  bottom: "inception_4d/pool_proj"
  top: "inception_4d/pool_proj"
}
layer {
  name: "inception_4d/output"
  type: "Concat"
  bottom: "inception_4d/1x1"
  bottom: "inception_4d/3x3"
  bottom: "inception_4d/5x5"
  bottom: "inception_4d/pool_proj"
  top: "inception_4d/output"
}
layer {
  name: "loss2/ave_pool"
  type: "Pooling"
  bottom: "inception_4d/output"
  top: "loss2/ave_pool"
  pooling_param {
    pool: AVE
    kernel_size: 5
    stride: 3
  }
}
layer {
  name: "loss2/conv"
  type: "Convolution"
  bottom: "loss2/ave_pool"
  top: "loss2/conv"
  param {
    lr_mult: 1
    decay_mult: 1
  }
  param {
    lr_mult: 2
    decay_mult: 0
  }
  convolution_param {
    num_output: 128
    kernel_size: 1
    weight_filler {
      type: "xavier"
      std: 0.08
    }
    bias_filler {
      type: "constant"
      value: 0.2
    }
  }
}
layer {
  name: "loss2/relu_conv"
  type: "ReLU"
  bottom: "loss2/conv"
  top: "loss2/conv"
}
layer {
  name: "loss2/fc"
  type: "InnerProduct"
  bottom: "loss2/conv"
  top: "loss2/fc"
  param {
    lr_mult: 1
    decay_mult: 1
  }
  param {
    lr_mult: 2
    decay_mult: 0
  }
  inner_product_param {
    num_output: 1024
    weight_filler {
      type: "xavier"
      std: 0.02
    }
    bias_filler {
      type: "constant"
      value: 0.2
    }
  }
}
layer {
  name: "loss2/relu_fc"
  type: "ReLU"
  bottom: "loss2/fc"
  top: "loss2/fc"
}
layer {
  name: "loss2/drop_fc"
  type: "Dropout"
  bottom: "loss2/fc"
  top: "loss2/fc"
  dropout_param {
    dropout_ratio: 0.7
  }
}
layer {
  name: "loss2/classifier_plantvillage"
  type: "InnerProduct"
  bottom: "loss2/fc"
  top: "loss2/classifier_plantvillage"
  param {
    lr_mult: 1
    decay_mult: 1
  }
  param {
    lr_mult: 2
    decay_mult: 0
  }
  inner_product_param {
    num_output: 38
    weight_filler {
      type: "xavier"
      std: 0.0009765625
    }
    bias_filler {
      type: "constant"
      value: 0
    }
  }
}
layer {
  name: "inception_4e/1x1"
  type: "Convolution"
  bottom: "inception_4d/output"
  top: "inception_4e/1x1"
  param {
    lr_mult: 1
    decay_mult: 1
  }
  param {
    lr_mult: 2
    decay_mult: 0
  }
  convolution_param {
    num_output: 256
    kernel_size: 1
    weight_filler {
      type: "xavier"
      std: 0.03
    }
    bias_filler {
      type: "constant"
      value: 0.2
    }
  }
}
layer {
  name: "inception_4e/relu_1x1"
  type: "ReLU"
  bottom: "inception_4e/1x1"
  top: "inception_4e/1x1"
}
layer {
  name: "inception_4e/3x3_reduce"
  type: "Convolution"
  bottom: "inception_4d/output"
  top: "inception_4e/3x3_reduce"
  param {
    lr_mult: 1
    decay_mult: 1
  }
  param {
    lr_mult: 2
    decay_mult: 0
  }
  convolution_param {
    num_output: 160
    kernel_size: 1
    weight_filler {
      type: "xavier"
      std: 0.09
    }
    bias_filler {
      type: "constant"
      value: 0.2
    }
  }
}
layer {
  name: "inception_4e/relu_3x3_reduce"
  type: "ReLU"
  bottom: "inception_4e/3x3_reduce"
  top: "inception_4e/3x3_reduce"
}
layer {
  name: "inception_4e/3x3"
  type: "Convolution"
  bottom: "inception_4e/3x3_reduce"
  top: "inception_4e/3x3"
  param {
    lr_mult: 1
    decay_mult: 1
  }
  param {
    lr_mult: 2
    decay_mult: 0
  }
  convolution_param {
    num_output: 320
    pad: 1
    kernel_size: 3
    weight_filler {
      type: "xavier"
      std: 0.03
    }
    bias_filler {
      type: "constant"
      value: 0.2
    }
  }
}
layer {
  name: "inception_4e/relu_3x3"
  type: "ReLU"
  bottom: "inception_4e/3x3"
  top: "inception_4e/3x3"
}
layer {
  name: "inception_4e/5x5_reduce"
  type: "Convolution"
  bottom: "inception_4d/output"
  top: "inception_4e/5x5_reduce"
  param {
    lr_mult: 1
    decay_mult: 1
  }
  param {
    lr_mult: 2
    decay_mult: 0
  }
  convolution_param {
    num_output: 32
    kernel_size: 1
    weight_filler {
      type: "xavier"
      std: 0.2
    }
    bias_filler {
      type: "constant"
      value: 0.2
    }
  }
}
layer {
  name: "inception_4e/relu_5x5_reduce"
  type: "ReLU"
  bottom: "inception_4e/5x5_reduce"
  top: "inception_4e/5x5_reduce"
}
layer {
  name: "inception_4e/5x5"
  type: "Convolution"
  bottom: "inception_4e/5x5_reduce"
  top: "inception_4e/5x5"
 
I0403 04:30:44.661221 21847 layer_factory.hpp:77] Creating layer data
I0403 04:30:44.661859 21847 net.cpp:91] Creating Layer data
I0403 04:30:44.661895 21847 net.cpp:399] data -> data
I0403 04:30:44.661947 21847 net.cpp:399] data -> label
I0403 04:30:44.661984 21847 data_transformer.cpp:25] Loading mean file from: /home/mohanty/data/final_dataset/lmdb/color-60-40/mean.binaryproto
I0403 04:30:44.763458 21851 db_lmdb.cpp:38] Opened lmdb /home/mohanty/data/final_dataset/lmdb/color-60-40/train_db
I0403 04:30:44.814155 21847 data_layer.cpp:41] output data size: 24,3,224,224
I0403 04:30:44.842833 21847 net.cpp:141] Setting up data
I0403 04:30:44.842922 21847 net.cpp:148] Top shape: 24 3 224 224 (3612672)
I0403 04:30:44.842946 21847 net.cpp:148] Top shape: 24 (24)
I0403 04:30:44.842962 21847 net.cpp:156] Memory required for data: 14450784
I0403 04:30:44.843024 21847 layer_factory.hpp:77] Creating layer label_data_1_split
I0403 04:30:44.843055 21847 net.cpp:91] Creating Layer label_data_1_split
I0403 04:30:44.843076 21847 net.cpp:425] label_data_1_split <- label
I0403 04:30:44.843107 21847 net.cpp:399] label_data_1_split -> label_data_1_split_0
I0403 04:30:44.843134 21847 net.cpp:399] label_data_1_split -> label_data_1_split_1
I0403 04:30:44.843157 21847 net.cpp:399] label_data_1_split -> label_data_1_split_2
I0403 04:30:44.843226 21847 net.cpp:141] Setting up label_data_1_split
I0403 04:30:44.843251 21847 net.cpp:148] Top shape: 24 (24)
I0403 04:30:44.843269 21847 net.cpp:148] Top shape: 24 (24)
I0403 04:30:44.843286 21847 net.cpp:148] Top shape: 24 (24)
I0403 04:30:44.843302 21847 net.cpp:156] Memory required for data: 14451072
I0403 04:30:44.843317 21847 layer_factory.hpp:77] Creating layer conv1/7x7_s2
I0403 04:30:44.843355 21847 net.cpp:91] Creating Layer conv1/7x7_s2
I0403 04:30:44.843374 21847 net.cpp:425] conv1/7x7_s2 <- data
I0403 04:30:44.843395 21847 net.cpp:399] conv1/7x7_s2 -> conv1/7x7_s2
I0403 04:30:44.844368 21847 net.cpp:141] Setting up conv1/7x7_s2
I0403 04:30:44.844399 21847 net.cpp:148] Top shape: 24 64 112 112 (19267584)
I0403 04:30:44.844416 21847 net.cpp:156] Memory required for data: 91521408
I0403 04:30:44.844454 21847 layer_factory.hpp:77] Creating layer conv1/relu_7x7
I0403 04:30:44.844480 21847 net.cpp:91] Creating Layer conv1/relu_7x7
I0403 04:30:44.844497 21847 net.cpp:425] conv1/relu_7x7 <- conv1/7x7_s2
I0403 04:30:44.844516 21847 net.cpp:386] conv1/relu_7x7 -> conv1/7x7_s2 (in-place)
I0403 04:30:44.844539 21847 net.cpp:141] Setting up conv1/relu_7x7
I0403 04:30:44.844558 21847 net.cpp:148] Top shape: 24 64 112 112 (19267584)
I0403 04:30:44.844573 21847 net.cpp:156] Memory required for data: 168591744
I0403 04:30:44.844588 21847 layer_factory.hpp:77] Creating layer pool1/3x3_s2
I0403 04:30:44.844610 21847 net.cpp:91] Creating Layer pool1/3x3_s2
I0403 04:30:44.844627 21847 net.cpp:425] pool1/3x3_s2 <- conv1/7x7_s2
I0403 04:30:44.844646 21847 net.cpp:399] pool1/3x3_s2 -> pool1/3x3_s2
I0403 04:30:44.844712 21847 net.cpp:141] Setting up pool1/3x3_s2
I0403 04:30:44.844737 21847 net.cpp:148] Top shape: 24 64 56 56 (4816896)
I0403 04:30:44.844753 21847 net.cpp:156] Memory required for data: 187859328
I0403 04:30:44.844769 21847 layer_factory.hpp:77] Creating layer pool1/norm1
I0403 04:30:44.844789 21847 net.cpp:91] Creating Layer pool1/norm1
I0403 04:30:44.844805 21847 net.cpp:425] pool1/norm1 <- pool1/3x3_s2
I0403 04:30:44.844823 21847 net.cpp:399] pool1/norm1 -> pool1/norm1
I0403 04:30:44.844877 21847 net.cpp:141] Setting up pool1/norm1
I0403 04:30:44.844899 21847 net.cpp:148] Top shape: 24 64 56 56 (4816896)
I0403 04:30:44.844915 21847 net.cpp:156] Memory required for data: 207126912
I0403 04:30:44.844930 21847 layer_factory.hpp:77] Creating layer conv2/3x3_reduce
I0403 04:30:44.844954 21847 net.cpp:91] Creating Layer conv2/3x3_reduce
I0403 04:30:44.844971 21847 net.cpp:425] conv2/3x3_reduce <- pool1/norm1
I0403 04:30:44.844991 21847 net.cpp:399] conv2/3x3_reduce -> conv2/3x3_reduce
I0403 04:30:44.847256 21847 net.cpp:141] Setting up conv2/3x3_reduce
I0403 04:30:44.847295 21847 net.cpp:148] Top shape: 24 64 56 56 (4816896)
I0403 04:30:44.847313 21847 net.cpp:156] Memory required for data: 226394496
I0403 04:30:44.847337 21847 layer_factory.hpp:77] Creating layer conv2/relu_3x3_reduce
I0403 04:30:44.847357 21847 net.cpp:91] Creating Layer conv2/relu_3x3_reduce
I0403 04:30:44.847375 21847 net.cpp:425] conv2/relu_3x3_reduce <- conv2/3x3_reduce
I0403 04:30:44.847393 21847 net.cpp:386] conv2/relu_3x3_reduce -> conv2/3x3_reduce (in-place)
I0403 04:30:44.847414 21847 net.cpp:141] Setting up conv2/relu_3x3_reduce
I0403 04:30:44.847431 21847 net.cpp:148] Top shape: 24 64 56 56 (4816896)
I0403 04:30:44.847447 21847 net.cpp:156] Memory required for data: 245662080
I0403 04:30:44.847465 21847 layer_factory.hpp:77] Creating layer conv2/3x3
I0403 04:30:44.847489 21847 net.cpp:91] Creating Layer conv2/3x3
I0403 04:30:44.847507 21847 net.cpp:425] conv2/3x3 <- conv2/3x3_reduce
I0403 04:30:44.847546 21847 net.cpp:399] conv2/3x3 -> conv2/3x3
I0403 04:30:44.848947 21847 net.cpp:141] Setting up conv2/3x3
I0403 04:30:44.848975 21847 net.cpp:148] Top shape: 24 192 56 56 (14450688)
I0403 04:30:44.848992 21847 net.cpp:156] Memory required for data: 303464832
I0403 04:30:44.848996 21853 blocking_queue.cpp:50] Waiting for data
I0403 04:30:44.849016 21847 layer_factory.hpp:77] Creating layer conv2/relu_3x3
I0403 04:30:44.849061 21847 net.cpp:91] Creating Layer conv2/relu_3x3
I0403 04:30:44.849081 21847 net.cpp:425] conv2/relu_3x3 <- conv2/3x3
I0403 04:30:44.849100 21847 net.cpp:386] conv2/relu_3x3 -> conv2/3x3 (in-place)
I0403 04:30:44.849122 21847 net.cpp:141] Setting up conv2/relu_3x3
I0403 04:30:44.849140 21847 net.cpp:148] Top shape: 24 192 56 56 (14450688)
I0403 04:30:44.849155 21847 net.cpp:156] Memory required for data: 361267584
I0403 04:30:44.849171 21847 layer_factory.hpp:77] Creating layer conv2/norm2
I0403 04:30:44.849190 21847 net.cpp:91] Creating Layer conv2/norm2
I0403 04:30:44.849207 21847 net.cpp:425] conv2/norm2 <- conv2/3x3
I0403 04:30:44.849231 21847 net.cpp:399] conv2/norm2 -> conv2/norm2
I0403 04:30:44.849280 21847 net.cpp:141] Setting up conv2/norm2
I0403 04:30:44.849303 21847 net.cpp:148] Top shape: 24 192 56 56 (14450688)
I0403 04:30:44.849318 21847 net.cpp:156] Memory required for data: 419070336
I0403 04:30:44.849334 21847 layer_factory.hpp:77] Creating layer pool2/3x3_s2
I0403 04:30:44.849352 21847 net.cpp:91] Creating Layer pool2/3x3_s2
I0403 04:30:44.849370 21847 net.cpp:425] pool2/3x3_s2 <- conv2/norm2
I0403 04:30:44.849390 21847 net.cpp:399] pool2/3x3_s2 -> pool2/3x3_s2
I0403 04:30:44.849436 21847 net.cpp:141] Setting up pool2/3x3_s2
I0403 04:30:44.849472 21847 net.cpp:148] Top shape: 24 192 28 28 (3612672)
I0403 04:30:44.849486 21847 net.cpp:156] Memory required for data: 433521024
I0403 04:30:44.849501 21847 layer_factory.hpp:77] Creating layer pool2/3x3_s2_pool2/3x3_s2_0_split
I0403 04:30:44.849519 21847 net.cpp:91] Creating Layer pool2/3x3_s2_pool2/3x3_s2_0_split
I0403 04:30:44.849535 21847 net.cpp:425] pool2/3x3_s2_pool2/3x3_s2_0_split <- pool2/3x3_s2
I0403 04:30:44.849555 21847 net.cpp:399] pool2/3x3_s2_pool2/3x3_s2_0_split -> pool2/3x3_s2_pool2/3x3_s2_0_split_0
I0403 04:30:44.849575 21847 net.cpp:399] pool2/3x3_s2_pool2/3x3_s2_0_split -> pool2/3x3_s2_pool2/3x3_s2_0_split_1
I0403 04:30:44.849594 21847 net.cpp:399] pool2/3x3_s2_pool2/3x3_s2_0_split -> pool2/3x3_s2_pool2/3x3_s2_0_split_2
I0403 04:30:44.849614 21847 net.cpp:399] pool2/3x3_s2_pool2/3x3_s2_0_split -> pool2/3x3_s2_pool2/3x3_s2_0_split_3
I0403 04:30:44.849673 21847 net.cpp:141] Setting up pool2/3x3_s2_pool2/3x3_s2_0_split
I0403 04:30:44.849694 21847 net.cpp:148] Top shape: 24 192 28 28 (3612672)
I0403 04:30:44.849711 21847 net.cpp:148] Top shape: 24 192 28 28 (3612672)
I0403 04:30:44.849727 21847 net.cpp:148] Top shape: 24 192 28 28 (3612672)
I0403 04:30:44.849745 21847 net.cpp:148] Top shape: 24 192 28 28 (3612672)
I0403 04:30:44.849759 21847 net.cpp:156] Memory required for data: 491323776
I0403 04:30:44.849773 21847 layer_factory.hpp:77] Creating layer inception_3a/1x1
I0403 04:30:44.849797 21847 net.cpp:91] Creating Layer inception_3a/1x1
I0403 04:30:44.849813 21847 net.cpp:425] inception_3a/1x1 <- pool2/3x3_s2_pool2/3x3_s2_0_split_0
I0403 04:30:44.849834 21847 net.cpp:399] inception_3a/1x1 -> inception_3a/1x1
I0403 04:30:44.850667 21847 net.cpp:141] Setting up inception_3a/1x1
I0403 04:30:44.850695 21847 net.cpp:148] Top shape: 24 64 28 28 (1204224)
I0403 04:30:44.850711 21847 net.cpp:156] Memory required for data: 496140672
I0403 04:30:44.850731 21847 layer_factory.hpp:77] Creating layer inception_3a/relu_1x1
I0403 04:30:44.850750 21847 net.cpp:91] Creating Layer inception_3a/relu_1x1
I0403 04:30:44.850767 21847 net.cpp:425] inception_3a/relu_1x1 <- inception_3a/1x1
I0403 04:30:44.850786 21847 net.cpp:386] inception_3a/relu_1x1 -> inception_3a/1x1 (in-place)
I0403 04:30:44.850806 21847 net.cpp:141] Setting up inception_3a/relu_1x1
I0403 04:30:44.850823 21847 net.cpp:148] Top shape: 24 64 28 28 (1204224)
I0403 04:30:44.850854 21847 net.cpp:156] Memory required for data: 500957568
I0403 04:30:44.850870 21847 layer_factory.hpp:77] Creating layer inception_3a/3x3_reduce
I0403 04:30:44.850893 21847 net.cpp:91] Creating Layer inception_3a/3x3_reduce
I0403 04:30:44.850910 21847 net.cpp:425] inception_3a/3x3_reduce <- pool2/3x3_s2_pool2/3x3_s2_0_split_1
I0403 04:30:44.850930 21847 net.cpp:399] inception_3a/3x3_reduce -> inception_3a/3x3_reduce
I0403 04:30:44.851805 21847 net.cpp:141] Setting up inception_3a/3x3_reduce
I0403 04:30:44.851835 21847 net.cpp:148] Top shape: 24 96 28 28 (1806336)
I0403 04:30:44.851850 21847 net.cpp:156] Memory required for data: 508182912
I0403 04:30:44.851874 21847 layer_factory.hpp:77] Creating layer inception_3a/relu_3x3_reduce
I0403 04:30:44.851897 21847 net.cpp:91] Creating Layer inception_3a/relu_3x3_reduce
I0403 04:30:44.851914 21847 net.cpp:425] inception_3a/relu_3x3_reduce <- inception_3a/3x3_reduce
I0403 04:30:44.851933 21847 net.cpp:386] inception_3a/relu_3x3_reduce -> inception_3a/3x3_reduce (in-place)
I0403 04:30:44.851953 21847 net.cpp:141] Setting up inception_3a/relu_3x3_reduce
I0403 04:30:44.851971 21847 net.cpp:148] Top shape: 24 96 28 28 (1806336)
I0403 04:30:44.851986 21847 net.cpp:156] Memory required for data: 515408256
I0403 04:30:44.852000 21847 layer_factory.hpp:77] Creating layer inception_3a/3x3
I0403 04:30:44.852025 21847 net.cpp:91] Creating Layer inception_3a/3x3
I0403 04:30:44.852042 21847 net.cpp:425] inception_3a/3x3 <- inception_3a/3x3_reduce
I0403 04:30:44.852067 21847 net.cpp:399] inception_3a/3x3 -> inception_3a/3x3
I0403 04:30:44.852922 21847 net.cpp:141] Setting up inception_3a/3x3
I0403 04:30:44.852948 21847 net.cpp:148] Top shape: 24 128 28 28 (2408448)
I0403 04:30:44.852964 21847 net.cpp:156] Memory required for data: 525042048
I0403 04:30:44.852982 21847 layer_factory.hpp:77] Creating layer inception_3a/relu_3x3
I0403 04:30:44.853001 21847 net.cpp:91] Creating Layer inception_3a/relu_3x3
I0403 04:30:44.853018 21847 net.cpp:425] inception_3a/relu_3x3 <- inception_3a/3x3
I0403 04:30:44.853039 21847 net.cpp:386] inception_3a/relu_3x3 -> inception_3a/3x3 (in-place)
I0403 04:30:44.853058 21847 net.cpp:141] Setting up inception_3a/relu_3x3
I0403 04:30:44.853076 21847 net.cpp:148] Top shape: 24 128 28 28 (2408448)
I0403 04:30:44.853091 21847 net.cpp:156] Memory required for data: 534675840
I0403 04:30:44.853106 21847 layer_factory.hpp:77] Creating layer inception_3a/5x5_reduce
I0403 04:30:44.853129 21847 net.cpp:91] Creating Layer inception_3a/5x5_reduce
I0403 04:30:44.853147 21847 net.cpp:425] inception_3a/5x5_reduce <- pool2/3x3_s2_pool2/3x3_s2_0_split_2
I0403 04:30:44.853181 21847 net.cpp:399] inception_3a/5x5_reduce -> inception_3a/5x5_reduce
I0403 04:30:44.853430 21847 net.cpp:141] Setting up inception_3a/5x5_reduce
I0403 04:30:44.853457 21847 net.cpp:148] Top shape: 24 16 28 28 (301056)
I0403 04:30:44.853495 21847 net.cpp:156] Memory required for data: 535880064
I0403 04:30:44.853513 21847 layer_factory.hpp:77] Creating layer inception_3a/relu_5x5_reduce
I0403 04:30:44.853531 21847 net.cpp:91] Creating Layer inception_3a/relu_5x5_reduce
I0403 04:30:44.853549 21847 net.cpp:425] inception_3a/relu_5x5_reduce <- inception_3a/5x5_reduce
I0403 04:30:44.853569 21847 net.cpp:386] inception_3a/relu_5x5_reduce -> inception_3a/5x5_reduce (in-place)
I0403 04:30:44.853588 21847 net.cpp:141] Setting up inception_3a/relu_5x5_reduce
I0403 04:30:44.853606 21847 net.cpp:148] Top shape: 24 16 28 28 (301056)
I0403 04:30:44.853621 21847 net.cpp:156] Memory required for data: 537084288
I0403 04:30:44.853634 21847 layer_factory.hpp:77] Creating layer inception_3a/5x5
I0403 04:30:44.853658 21847 net.cpp:91] Creating Layer inception_3a/5x5
I0403 04:30:44.853677 21847 net.cpp:425] inception_3a/5x5 <- inception_3a/5x5_reduce
I0403 04:30:44.853699 21847 net.cpp:399] inception_3a/5x5 -> inception_3a/5x5
I0403 04:30:44.853974 21847 net.cpp:141] Setting up inception_3a/5x5
I0403 04:30:44.853999 21847 net.cpp:148] Top shape: 24 32 28 28 (602112)
I0403 04:30:44.854028 21847 net.cpp:156] Memory required for data: 539492736
I0403 04:30:44.854048 21847 layer_factory.hpp:77] Creating layer inception_3a/relu_5x5
I0403 04:30:44.854070 21847 net.cpp:91] Creating Layer inception_3a/relu_5x5
I0403 04:30:44.854089 21847 net.cpp:425] inception_3a/relu_5x5 <- inception_3a/5x5
I0403 04:30:44.854107 21847 net.cpp:386] inception_3a/relu_5x5 -> inception_3a/5x5 (in-place)
I0403 04:30:44.854126 21847 net.cpp:141] Setting up inception_3a/relu_5x5
I0403 04:30:44.854145 21847 net.cpp:148] Top shape: 24 32 28 28 (602112)
I0403 04:30:44.854171 21847 net.cpp:156] Memory required for data: 541901184
I0403 04:30:44.854187 21847 layer_factory.hpp:77] Creating layer inception_3a/pool
I0403 04:30:44.854212 21847 net.cpp:91] Creating Layer inception_3a/pool
I0403 04:30:44.854230 21847 net.cpp:425] inception_3a/pool <- pool2/3x3_s2_pool2/3x3_s2_0_split_3
I0403 04:30:44.854249 21847 net.cpp:399] inception_3a/pool -> inception_3a/pool
I0403 04:30:44.854301 21847 net.cpp:141] Setting up inception_3a/pool
I0403 04:30:44.854326 21847 net.cpp:148] Top shape: 24 192 28 28 (3612672)
I0403 04:30:44.854341 21847 net.cpp:156] Memory required for data: 556351872
I0403 04:30:44.854357 21847 layer_factory.hpp:77] Creating layer inception_3a/pool_proj
I0403 04:30:44.854379 21847 net.cpp:91] Creating Layer inception_3a/pool_proj
I0403 04:30:44.854398 21847 net.cpp:425] inception_3a/pool_proj <- inception_3a/pool
I0403 04:30:44.854419 21847 net.cpp:399] inception_3a/pool_proj -> inception_3a/pool_proj
I0403 04:30:44.854665 21847 net.cpp:141] Setting up inception_3a/pool_proj
I0403 04:30:44.854691 21847 net.cpp:148] Top shape: 24 32 28 28 (602112)
I0403 04:30:44.854706 21847 net.cpp:156] Memory required for data: 558760320
I0403 04:30:44.854729 21847 layer_factory.hpp:77] Creating layer inception_3a/relu_pool_proj
I0403 04:30:44.854749 21847 net.cpp:91] Creating Layer inception_3a/relu_pool_proj
I0403 04:30:44.854766 21847 net.cpp:425] inception_3a/relu_pool_proj <- inception_3a/pool_proj
I0403 04:30:44.854784 21847 net.cpp:386] inception_3a/relu_pool_proj -> inception_3a/pool_proj (in-place)
I0403 04:30:44.854804 21847 net.cpp:141] Setting up inception_3a/relu_pool_proj
I0403 04:30:44.854821 21847 net.cpp:148] Top shape: 24 32 28 28 (602112)
I0403 04:30:44.854836 21847 net.cpp:156] Memory required for data: 561168768
I0403 04:30:44.854852 21847 layer_factory.hpp:77] Creating layer inception_3a/output
I0403 04:30:44.854873 21847 net.cpp:91] Creating Layer inception_3a/output
I0403 04:30:44.854890 21847 net.cpp:425] inception_3a/output <- inception_3a/1x1
I0403 04:30:44.854907 21847 net.cpp:425] inception_3a/output <- inception_3a/3x3
I0403 04:30:44.854923 21847 net.cpp:425] inception_3a/output <- inception_3a/5x5
I0403 04:30:44.854939 21847 net.cpp:425] inception_3a/output <- inception_3a/pool_proj
I0403 04:30:44.854957 21847 net.cpp:399] inception_3a/output -> inception_3a/output
I0403 04:30:44.855000 21847 net.cpp:141] Setting up inception_3a/output
I0403 04:30:44.855025 21847 net.cpp:148] Top shape: 24 256 28 28 (4816896)
I0403 04:30:44.855041 21847 net.cpp:156] Memory required for data: 580436352
I0403 04:30:44.855056 21847 layer_factory.hpp:77] Creating layer inception_3a/output_inception_3a/output_0_split
I0403 04:30:44.855074 21847 net.cpp:91] Creating Layer inception_3a/output_inception_3a/output_0_split
I0403 04:30:44.855090 21847 net.cpp:425] inception_3a/output_inception_3a/output_0_split <- inception_3a/output
I0403 04:30:44.855110 21847 net.cpp:399] inception_3a/output_inception_3a/output_0_split -> inception_3a/output_inception_3a/output_0_split_0
I0403 04:30:44.855132 21847 net.cpp:399] inception_3a/output_inception_3a/output_0_split -> inception_3a/output_inception_3a/output_0_split_1
I0403 04:30:44.855152 21847 net.cpp:399] inception_3a/output_inception_3a/output_0_split -> inception_3a/output_inception_3a/output_0_split_2
I0403 04:30:44.855185 21847 net.cpp:399] inception_3a/output_inception_3a/output_0_split -> inception_3a/output_inception_3a/output_0_split_3
I0403 04:30:44.855265 21847 net.cpp:141] Setting up inception_3a/output_inception_3a/output_0_split
I0403 04:30:44.855304 21847 net.cpp:148] Top shape: 24 256 28 28 (4816896)
I0403 04:30:44.855322 21847 net.cpp:148] Top shape: 24 256 28 28 (4816896)
I0403 04:30:44.855340 21847 net.cpp:148] Top shape: 24 256 28 28 (4816896)
I0403 04:30:44.855355 21847 net.cpp:148] Top shape: 24 256 28 28 (4816896)
I0403 04:30:44.855370 21847 net.cpp:156] Memory required for data: 657506688
I0403 04:30:44.855386 21847 layer_factory.hpp:77] Creating layer inception_3b/1x1
I0403 04:30:44.855406 21847 net.cpp:91] Creating Layer inception_3b/1x1
I0403 04:30:44.855424 21847 net.cpp:425] inception_3b/1x1 <- inception_3a/output_inception_3a/output_0_split_0
I0403 04:30:44.855459 21847 net.cpp:399] inception_3b/1x1 -> inception_3b/1x1
I0403 04:30:44.855841 21847 net.cpp:141] Setting up inception_3b/1x1
I0403 04:30:44.855865 21847 net.cpp:148] Top shape: 24 128 28 28 (2408448)
I0403 04:30:44.855881 21847 net.cpp:156] Memory required for data: 667140480
I0403 04:30:44.855901 21847 layer_factory.hpp:77] Creating layer inception_3b/relu_1x1
I0403 04:30:44.855918 21847 net.cpp:91] Creating Layer inception_3b/relu_1x1
I0403 04:30:44.855934 21847 net.cpp:425] inception_3b/relu_1x1 <- inception_3b/1x1
I0403 04:30:44.855952 21847 net.cpp:386] inception_3b/relu_1x1 -> inception_3b/1x1 (in-place)
I0403 04:30:44.855973 21847 net.cpp:141] Setting up inception_3b/relu_1x1
I0403 04:30:44.855989 21847 net.cpp:148] Top shape: 24 128 28 28 (2408448)
I0403 04:30:44.856003 21847 net.cpp:156] Memory required for data: 676774272
I0403 04:30:44.856017 21847 layer_factory.hpp:77] Creating layer inception_3b/3x3_reduce
I0403 04:30:44.856040 21847 net.cpp:91] Creating Layer inception_3b/3x3_reduce
I0403 04:30:44.856058 21847 net.cpp:425] inception_3b/3x3_reduce <- inception_3a/output_inception_3a/output_0_split_1
I0403 04:30:44.856081 21847 net.cpp:399] inception_3b/3x3_reduce -> inception_3b/3x3_reduce
I0403 04:30:44.856503 21847 net.cpp:141] Setting up inception_3b/3x3_reduce
I0403 04:30:44.856528 21847 net.cpp:148] Top shape: 24 128 28 28 (2408448)
I0403 04:30:44.856544 21847 net.cpp:156] Memory required for data: 686408064
I0403 04:30:44.856561 21847 layer_factory.hpp:77] Creating layer inception_3b/relu_3x3_reduce
I0403 04:30:44.856582 21847 net.cpp:91] Creating Layer inception_3b/relu_3x3_reduce
I0403 04:30:44.856600 21847 net.cpp:425] inception_3b/relu_3x3_reduce <- inception_3b/3x3_reduce
I0403 04:30:44.856617 21847 net.cpp:386] inception_3b/relu_3x3_reduce -> inception_3b/3x3_reduce (in-place)
I0403 04:30:44.856637 21847 net.cpp:141] Setting up inception_3b/relu_3x3_reduce
I0403 04:30:44.856654 21847 net.cpp:148] Top shape: 24 128 28 28 (2408448)
I0403 04:30:44.856669 21847 net.cpp:156] Memory required for data: 696041856
I0403 04:30:44.856684 21847 layer_factory.hpp:77] Creating layer inception_3b/3x3
I0403 04:30:44.856710 21847 net.cpp:91] Creating Layer inception_3b/3x3
I0403 04:30:44.856729 21847 net.cpp:425] inception_3b/3x3 <- inception_3b/3x3_reduce
I0403 04:30:44.856751 21847 net.cpp:399] inception_3b/3x3 -> inception_3b/3x3
I0403 04:30:44.858847 21847 net.cpp:141] Setting up inception_3b/3x3
I0403 04:30:44.858876 21847 net.cpp:148] Top shape: 24 192 28 28 (3612672)
I0403 04:30:44.858891 21847 net.cpp:156] Memory required for data: 710492544
I0403 04:30:44.858909 21847 layer_factory.hpp:77] Creating layer inception_3b/relu_3x3
I0403 04:30:44.858930 21847 net.cpp:91] Creating Layer inception_3b/relu_3x3
I0403 04:30:44.858947 21847 net.cpp:425] inception_3b/relu_3x3 <- inception_3b/3x3
I0403 04:30:44.858965 21847 net.cpp:386] inception_3b/relu_3x3 -> inception_3b/3x3 (in-place)
I0403 04:30:44.858984 21847 net.cpp:141] Setting up inception_3b/relu_3x3
I0403 04:30:44.859001 21847 net.cpp:148] Top shape: 24 192 28 28 (3612672)
I0403 04:30:44.859015 21847 net.cpp:156] Memory required for data: 724943232
I0403 04:30:44.859030 21847 layer_factory.hpp:77] Creating layer inception_3b/5x5_reduce
I0403 04:30:44.859052 21847 net.cpp:91] Creating Layer inception_3b/5x5_reduce
I0403 04:30:44.859069 21847 net.cpp:425] inception_3b/5x5_reduce <- inception_3a/output_inception_3a/output_0_split_2
I0403 04:30:44.859105 21847 net.cpp:399] inception_3b/5x5_reduce -> inception_3b/5x5_reduce
I0403 04:30:44.859357 21847 net.cpp:141] Setting up inception_3b/5x5_reduce
I0403 04:30:44.859382 21847 net.cpp:148] Top shape: 24 32 28 28 (602112)
I0403 04:30:44.859397 21847 net.cpp:156] Memory required for data: 727351680
I0403 04:30:44.859416 21847 layer_factory.hpp:77] Creating layer inception_3b/relu_5x5_reduce
I0403 04:30:44.859432 21847 net.cpp:91] Creating Layer inception_3b/relu_5x5_reduce
I0403 04:30:44.859448 21847 net.cpp:425] inception_3b/relu_5x5_reduce <- inception_3b/5x5_reduce
I0403 04:30:44.859467 21847 net.cpp:386] inception_3b/relu_5x5_reduce -> inception_3b/5x5_reduce (in-place)
I0403 04:30:44.859486 21847 net.cpp:141] Setting up inception_3b/relu_5x5_reduce
I0403 04:30:44.859503 21847 net.cpp:148] Top shape: 24 32 28 28 (602112)
I0403 04:30:44.859519 21847 net.cpp:156] Memory required for data: 729760128
I0403 04:30:44.859532 21847 layer_factory.hpp:77] Creating layer inception_3b/5x5
I0403 04:30:44.859555 21847 net.cpp:91] Creating Layer inception_3b/5x5
I0403 04:30:44.859572 21847 net.cpp:425] inception_3b/5x5 <- inception_3b/5x5_reduce
I0403 04:30:44.859594 21847 net.cpp:399] inception_3b/5x5 -> inception_3b/5x5
I0403 04:30:44.860743 21847 net.cpp:141] Setting up inception_3b/5x5
I0403 04:30:44.860771 21847 net.cpp:148] Top shape: 24 96 28 28 (1806336)
I0403 04:30:44.860787 21847 net.cpp:156] Memory required for data: 736985472
I0403 04:30:44.860805 21847 layer_factory.hpp:77] Creating layer inception_3b/relu_5x5
I0403 04:30:44.860823 21847 net.cpp:91] Creating Layer inception_3b/relu_5x5
I0403 04:30:44.860839 21847 net.cpp:425] inception_3b/relu_5x5 <- inception_3b/5x5
I0403 04:30:44.860859 21847 net.cpp:386] inception_3b/relu_5x5 -> inception_3b/5x5 (in-place)
I0403 04:30:44.860880 21847 net.cpp:141] Setting up inception_3b/relu_5x5
I0403 04:30:44.860898 21847 net.cpp:148] Top shape: 24 96 28 28 (1806336)
I0403 04:30:44.860913 21847 net.cpp:156] Memory required for data: 744210816
I0403 04:30:44.860927 21847 layer_factory.hpp:77] Creating layer inception_3b/pool
I0403 04:30:44.860945 21847 net.cpp:91] Creating Layer inception_3b/pool
I0403 04:30:44.860961 21847 net.cpp:425] inception_3b/pool <- inception_3a/output_inception_3a/output_0_split_3
I0403 04:30:44.860980 21847 net.cpp:399] inception_3b/pool -> inception_3b/pool
I0403 04:30:44.861032 21847 net.cpp:141] Setting up inception_3b/pool
I0403 04:30:44.861053 21847 net.cpp:148] Top shape: 24 256 28 28 (4816896)
I0403 04:30:44.861068 21847 net.cpp:156] Memory required for data: 763478400
I0403 04:30:44.861081 21847 layer_factory.hpp:77] Creating layer inception_3b/pool_proj
I0403 04:30:44.861104 21847 net.cpp:91] Creating Layer inception_3b/pool_proj
I0403 04:30:44.861122 21847 net.cpp:425] inception_3b/pool_proj <- inception_3b/pool
I0403 04:30:44.861145 21847 net.cpp:399] inception_3b/pool_proj -> inception_3b/pool_proj
I0403 04:30:44.861438 21847 net.cpp:141] Setting up inception_3b/pool_proj
I0403 04:30:44.861462 21847 net.cpp:148] Top shape: 24 64 28 28 (1204224)
I0403 04:30:44.861490 21847 net.cpp:156] Memory required for data: 768295296
I0403 04:30:44.861507 21847 layer_factory.hpp:77] Creating layer inception_3b/relu_pool_proj
I0403 04:30:44.861526 21847 net.cpp:91] Creating Layer inception_3b/relu_pool_proj
I0403 04:30:44.861543 21847 net.cpp:425] inception_3b/relu_pool_proj <- inception_3b/pool_proj
I0403 04:30:44.861562 21847 net.cpp:386] inception_3b/relu_pool_proj -> inception_3b/pool_proj (in-place)
I0403 04:30:44.861582 21847 net.cpp:141] Setting up inception_3b/relu_pool_proj
I0403 04:30:44.861598 21847 net.cpp:148] Top shape: 24 64 28 28 (1204224)
I0403 04:30:44.861613 21847 net.cpp:156] Memory required for data: 773112192
I0403 04:30:44.861629 21847 layer_factory.hpp:77] Creating layer inception_3b/output
I0403 04:30:44.861650 21847 net.cpp:91] Creating Layer inception_3b/output
I0403 04:30:44.861668 21847 net.cpp:425] inception_3b/output <- inception_3b/1x1
I0403 04:30:44.861699 21847 net.cpp:425] inception_3b/output <- inception_3b/3x3
I0403 04:30:44.861717 21847 net.cpp:425] inception_3b/output <- inception_3b/5x5
I0403 04:30:44.861733 21847 net.cpp:425] inception_3b/output <- inception_3b/pool_proj
I0403 04:30:44.861752 21847 net.cpp:399] inception_3b/output -> inception_3b/output
I0403 04:30:44.861804 21847 net.cpp:141] Setting up inception_3b/output
I0403 04:30:44.861825 21847 net.cpp:148] Top shape: 24 480 28 28 (9031680)
I0403 04:30:44.861840 21847 net.cpp:156] Memory required for data: 809238912
I0403 04:30:44.861856 21847 layer_factory.hpp:77] Creating layer pool3/3x3_s2
I0403 04:30:44.861873 21847 net.cpp:91] Creating Layer pool3/3x3_s2
I0403 04:30:44.861891 21847 net.cpp:425] pool3/3x3_s2 <- inception_3b/output
I0403 04:30:44.861910 21847 net.cpp:399] pool3/3x3_s2 -> pool3/3x3_s2
I0403 04:30:44.861958 21847 net.cpp:141] Setting up pool3/3x3_s2
I0403 04:30:44.861979 21847 net.cpp:148] Top shape: 24 480 14 14 (2257920)
I0403 04:30:44.861994 21847 net.cpp:156] Memory required for data: 818270592
I0403 04:30:44.862009 21847 layer_factory.hpp:77] Creating layer pool3/3x3_s2_pool3/3x3_s2_0_split
I0403 04:30:44.862028 21847 net.cpp:91] Creating Layer pool3/3x3_s2_pool3/3x3_s2_0_split
I0403 04:30:44.862045 21847 net.cpp:425] pool3/3x3_s2_pool3/3x3_s2_0_split <- pool3/3x3_s2
I0403 04:30:44.862062 21847 net.cpp:399] pool3/3x3_s2_pool3/3x3_s2_0_split -> pool3/3x3_s2_pool3/3x3_s2_0_split_0
I0403 04:30:44.862082 21847 net.cpp:399] pool3/3x3_s2_pool3/3x3_s2_0_split -> pool3/3x3_s2_pool3/3x3_s2_0_split_1
I0403 04:30:44.862102 21847 net.cpp:399] pool3/3x3_s2_pool3/3x3_s2_0_split -> pool3/3x3_s2_pool3/3x3_s2_0_split_2
I0403 04:30:44.862124 21847 net.cpp:399] pool3/3x3_s2_pool3/3x3_s2_0_split -> pool3/3x3_s2_pool3/3x3_s2_0_split_3
I0403 04:30:44.862190 21847 net.cpp:141] Setting up pool3/3x3_s2_pool3/3x3_s2_0_split
I0403 04:30:44.862216 21847 net.cpp:148] Top shape: 24 480 14 14 (2257920)
I0403 04:30:44.862234 21847 net.cpp:148] Top shape: 24 480 14 14 (2257920)
I0403 04:30:44.862251 21847 net.cpp:148] Top shape: 24 480 14 14 (2257920)
I0403 04:30:44.862267 21847 net.cpp:148] Top shape: 24 480 14 14 (2257920)
I0403 04:30:44.862280 21847 net.cpp:156] Memory required for data: 854397312
I0403 04:30:44.862294 21847 layer_factory.hpp:77] Creating layer inception_4a/1x1
I0403 04:30:44.862318 21847 net.cpp:91] Creating Layer inception_4a/1x1
I0403 04:30:44.862335 21847 net.cpp:425] inception_4a/1x1 <- pool3/3x3_s2_pool3/3x3_s2_0_split_0
I0403 04:30:44.862357 21847 net.cpp:399] inception_4a/1x1 -> inception_4a/1x1
I0403 04:30:44.863047 21847 net.cpp:141] Setting up inception_4a/1x1
I0403 04:30:44.863072 21847 net.cpp:148] Top shape: 24 192 14 14 (903168)
I0403 04:30:44.863087 21847 net.cpp:156] Memory required for data: 858009984
I0403 04:30:44.863104 21847 layer_factory.hpp:77] Creating layer inception_4a/relu_1x1
I0403 04:30:44.863122 21847 net.cpp:91] Creating Layer inception_4a/relu_1x1
I0403 04:30:44.863138 21847 net.cpp:425] inception_4a/relu_1x1 <- inception_4a/1x1
I0403 04:30:44.863157 21847 net.cpp:386] inception_4a/relu_1x1 -> inception_4a/1x1 (in-place)
I0403 04:30:44.863175 21847 net.cpp:141] Setting up inception_4a/relu_1x1
I0403 04:30:44.863191 21847 net.cpp:148] Top shape: 24 192 14 14 (903168)
I0403 04:30:44.863205 21847 net.cpp:156] Memory required for data: 861622656
I0403 04:30:44.863232 21847 layer_factory.hpp:77] Creating layer inception_4a/3x3_reduce
I0403 04:30:44.863260 21847 net.cpp:91] Creating Layer inception_4a/3x3_reduce
I0403 04:30:44.863278 21847 net.cpp:425] inception_4a/3x3_reduce <- pool3/3x3_s2_pool3/3x3_s2_0_split_1
I0403 04:30:44.863301 21847 net.cpp:399] inception_4a/3x3_reduce -> inception_4a/3x3_reduce
I0403 04:30:44.863759 21847 net.cpp:141] Setting up inception_4a/3x3_reduce
I0403 04:30:44.863783 21847 net.cpp:148] Top shape: 24 96 14 14 (451584)
I0403 04:30:44.863798 21847 net.cpp:156] Memory required for data: 863428992
I0403 04:30:44.863824 21847 layer_factory.hpp:77] Creating layer inception_4a/relu_3x3_reduce
I0403 04:30:44.863844 21847 net.cpp:91] Creating Layer inception_4a/relu_3x3_reduce
I0403 04:30:44.863873 21847 net.cpp:425] inception_4a/relu_3x3_reduce <- inception_4a/3x3_reduce
I0403 04:30:44.863893 21847 net.cpp:386] inception_4a/relu_3x3_reduce -> inception_4a/3x3_reduce (in-place)
I0403 04:30:44.863911 21847 net.cpp:141] Setting up inception_4a/relu_3x3_reduce
I0403 04:30:44.863929 21847 net.cpp:148] Top shape: 24 96 14 14 (451584)
I0403 04:30:44.863943 21847 net.cpp:156] Memory required for data: 865235328
I0403 04:30:44.863957 21847 layer_factory.hpp:77] Creating layer inception_4a/3x3
I0403 04:30:44.863981 21847 net.cpp:91] Creating Layer inception_4a/3x3
I0403 04:30:44.863997 21847 net.cpp:425] inception_4a/3x3 <- inception_4a/3x3_reduce
I0403 04:30:44.864018 21847 net.cpp:399] inception_4a/3x3 -> inception_4a/3x3
I0403 04:30:44.865790 21847 net.cpp:141] Setting up inception_4a/3x3
I0403 04:30:44.865820 21847 net.cpp:148] Top shape: 24 208 14 14 (978432)
I0403 04:30:44.865836 21847 net.cpp:156] Memory required for data: 869149056
I0403 04:30:44.865855 21847 layer_factory.hpp:77] Creating layer inception_4a/relu_3x3
I0403 04:30:44.865874 21847 net.cpp:91] Creating Layer inception_4a/relu_3x3
I0403 04:30:44.865890 21847 net.cpp:425] inception_4a/relu_3x3 <- inception_4a/3x3
I0403 04:30:44.865906 21847 net.cpp:386] inception_4a/relu_3x3 -> inception_4a/3x3 (in-place)
I0403 04:30:44.865926 21847 net.cpp:141] Setting up inception_4a/relu_3x3
I0403 04:30:44.865942 21847 net.cpp:148] Top shape: 24 208 14 14 (978432)
I0403 04:30:44.865957 21847 net.cpp:156] Memory required for data: 873062784
I0403 04:30:44.865972 21847 layer_factory.hpp:77] Creating layer inception_4a/5x5_reduce
I0403 04:30:44.865994 21847 net.cpp:91] Creating Layer inception_4a/5x5_reduce
I0403 04:30:44.866013 21847 net.cpp:425] inception_4a/5x5_reduce <- pool3/3x3_s2_pool3/3x3_s2_0_split_2
I0403 04:30:44.866031 21847 net.cpp:399] inception_4a/5x5_reduce -> inception_4a/5x5_reduce
I0403 04:30:44.866287 21847 net.cpp:141] Setting up inception_4a/5x5_reduce
I0403 04:30:44.866312 21847 net.cpp:148] Top shape: 24 16 14 14 (75264)
I0403 04:30:44.866327 21847 net.cpp:156] Memory required for data: 873363840
I0403 04:30:44.866344 21847 layer_factory.hpp:77] Creating layer inception_4a/relu_5x5_reduce
I0403 04:30:44.866364 21847 net.cpp:91] Creating Layer inception_4a/relu_5x5_reduce
I0403 04:30:44.866379 21847 net.cpp:425] inception_4a/relu_5x5_reduce <- inception_4a/5x5_reduce
I0403 04:30:44.866399 21847 net.cpp:386] inception_4a/relu_5x5_reduce -> inception_4a/5x5_reduce (in-place)
I0403 04:30:44.866418 21847 net.cpp:141] Setting up inception_4a/relu_5x5_reduce
I0403 04:30:44.866436 21847 net.cpp:148] Top shape: 24 16 14 14 (75264)
I0403 04:30:44.866449 21847 net.cpp:156] Memory required for data: 873664896
I0403 04:30:44.866466 21847 layer_factory.hpp:77] Creating layer inception_4a/5x5
I0403 04:30:44.866488 21847 net.cpp:91] Creating Layer inception_4a/5x5
I0403 04:30:44.866506 21847 net.cpp:425] inception_4a/5x5 <- inception_4a/5x5_reduce
I0403 04:30:44.866525 21847 net.cpp:399] inception_4a/5x5 -> inception_4a/5x5
I0403 04:30:44.866834 21847 net.cpp:141] Setting up inception_4a/5x5
I0403 04:30:44.866861 21847 net.cpp:148] Top shape: 24 48 14 14 (225792)
I0403 04:30:44.866876 21847 net.cpp:156] Memory required for data: 874568064
I0403 04:30:44.866894 21847 layer_factory.hpp:77] Creating layer inception_4a/relu_5x5
I0403 04:30:44.866911 21847 net.cpp:91] Creating Layer inception_4a/relu_5x5
I0403 04:30:44.866928 21847 net.cpp:425] inception_4a/relu_5x5 <- inception_4a/5x5
I0403 04:30:44.866945 21847 net.cpp:386] inception_4a/relu_5x5 -> inception_4a/5x5 (in-place)
I0403 04:30:44.866964 21847 net.cpp:141] Setting up inception_4a/relu_5x5
I0403 04:30:44.866981 21847 net.cpp:148] Top shape: 24 48 14 14 (225792)
I0403 04:30:44.866994 21847 net.cpp:156] Memory required for data: 875471232
I0403 04:30:44.867008 21847 layer_factory.hpp:77] Creating layer inception_4a/pool
I0403 04:30:44.867027 21847 net.cpp:91] Creating Layer inception_4a/pool
I0403 04:30:44.867043 21847 net.cpp:425] inception_4a/pool <- pool3/3x3_s2_pool3/3x3_s2_0_split_3
I0403 04:30:44.867077 21847 net.cpp:399] inception_4a/pool -> inception_4a/pool
I0403 04:30:44.867128 21847 net.cpp:141] Setting up inception_4a/pool
I0403 04:30:44.867151 21847 net.cpp:148] Top shape: 24 480 14 14 (2257920)
I0403 04:30:44.867166 21847 net.cpp:156] Memory required for data: 884502912
I0403 04:30:44.867180 21847 layer_factory.hpp:77] Creating layer inception_4a/pool_proj
I0403 04:30:44.867202 21847 net.cpp:91] Creating Layer inception_4a/pool_proj
I0403 04:30:44.867225 21847 net.cpp:425] inception_4a/pool_proj <- inception_4a/pool
I0403 04:30:44.867245 21847 net.cpp:399] inception_4a/pool_proj -> inception_4a/pool_proj
I0403 04:30:44.867611 21847 net.cpp:141] Setting up inception_4a/pool_proj
I0403 04:30:44.867635 21847 net.cpp:148] Top shape: 24 64 14 14 (301056)
I0403 04:30:44.867650 21847 net.cpp:156] Memory required for data: 885707136
I0403 04:30:44.867669 21847 layer_factory.hpp:77] Creating layer inception_4a/relu_pool_proj
I0403 04:30:44.867687 21847 net.cpp:91] Creating Layer inception_4a/relu_pool_proj
I0403 04:30:44.867704 21847 net.cpp:425] inception_4a/relu_pool_proj <- inception_4a/pool_proj
I0403 04:30:44.867723 21847 net.cpp:386] inception_4a/relu_pool_proj -> inception_4a/pool_proj (in-place)
I0403 04:30:44.867744 21847 net.cpp:141] Setting up inception_4a/relu_pool_proj
I0403 04:30:44.867761 21847 net.cpp:148] Top shape: 24 64 14 14 (301056)
I0403 04:30:44.867776 21847 net.cpp:156] Memory required for data: 886911360
I0403 04:30:44.867790 21847 layer_factory.hpp:77] Creating layer inception_4a/output
I0403 04:30:44.867807 21847 net.cpp:91] Creating Layer inception_4a/output
I0403 04:30:44.867822 21847 net.cpp:425] inception_4a/output <- inception_4a/1x1
I0403 04:30:44.867838 21847 net.cpp:425] inception_4a/output <- inception_4a/3x3
I0403 04:30:44.867854 21847 net.cpp:425] inception_4a/output <- inception_4a/5x5
I0403 04:30:44.867871 21847 net.cpp:425] inception_4a/output <- inception_4a/pool_proj
I0403 04:30:44.867887 21847 net.cpp:399] inception_4a/output -> inception_4a/output
I0403 04:30:44.867925 21847 net.cpp:141] Setting up inception_4a/output
I0403 04:30:44.867947 21847 net.cpp:148] Top shape: 24 512 14 14 (2408448)
I0403 04:30:44.867961 21847 net.cpp:156] Memory required for data: 896545152
I0403 04:30:44.867975 21847 layer_factory.hpp:77] Creating layer inception_4a/output_inception_4a/output_0_split
I0403 04:30:44.867993 21847 net.cpp:91] Creating Layer inception_4a/output_inception_4a/output_0_split
I0403 04:30:44.868010 21847 net.cpp:425] inception_4a/output_inception_4a/output_0_split <- inception_4a/output
I0403 04:30:44.868031 21847 net.cpp:399] inception_4a/output_inception_4a/output_0_split -> inception_4a/output_inception_4a/output_0_split_0
I0403 04:30:44.868051 21847 net.cpp:399] inception_4a/output_inception_4a/output_0_split -> inception_4a/output_inception_4a/output_0_split_1
I0403 04:30:44.868072 21847 net.cpp:399] inception_4a/output_inception_4a/output_0_split -> inception_4a/output_inception_4a/output_0_split_2
I0403 04:30:44.868093 21847 net.cpp:399] inception_4a/output_inception_4a/output_0_split -> inception_4a/output_inception_4a/output_0_split_3
I0403 04:30:44.868113 21847 net.cpp:399] inception_4a/output_inception_4a/output_0_split -> inception_4a/output_inception_4a/output_0_split_4
I0403 04:30:44.868185 21847 net.cpp:141] Setting up inception_4a/output_inception_4a/output_0_split
I0403 04:30:44.868211 21847 net.cpp:148] Top shape: 24 512 14 14 (2408448)
I0403 04:30:44.868228 21847 net.cpp:148] Top shape: 24 512 14 14 (2408448)
I0403 04:30:44.868244 21847 net.cpp:148] Top shape: 24 512 14 14 (2408448)
I0403 04:30:44.868259 21847 net.cpp:148] Top shape: 24 512 14 14 (2408448)
I0403 04:30:44.868274 21847 net.cpp:148] Top shape: 24 512 14 14 (2408448)
I0403 04:30:44.868288 21847 net.cpp:156] Memory required for data: 944714112
I0403 04:30:44.868302 21847 layer_factory.hpp:77] Creating layer loss1/ave_pool
I0403 04:30:44.868322 21847 net.cpp:91] Creating Layer loss1/ave_pool
I0403 04:30:44.868338 21847 net.cpp:425] loss1/ave_pool <- inception_4a/output_inception_4a/output_0_split_0
I0403 04:30:44.868374 21847 net.cpp:399] loss1/ave_pool -> loss1/ave_pool
I0403 04:30:44.868412 21847 net.cpp:141] Setting up loss1/ave_pool
I0403 04:30:44.868433 21847 net.cpp:148] Top shape: 24 512 4 4 (196608)
I0403 04:30:44.868448 21847 net.cpp:156] Memory required for data: 945500544
I0403 04:30:44.868463 21847 layer_factory.hpp:77] Creating layer loss1/conv
I0403 04:30:44.868487 21847 net.cpp:91] Creating Layer loss1/conv
I0403 04:30:44.868505 21847 net.cpp:425] loss1/conv <- loss1/ave_pool
I0403 04:30:44.868525 21847 net.cpp:399] loss1/conv -> loss1/conv
I0403 04:30:44.869076 21847 net.cpp:141] Setting up loss1/conv
I0403 04:30:44.869102 21847 net.cpp:148] Top shape: 24 128 4 4 (49152)
I0403 04:30:44.869117 21847 net.cpp:156] Memory required for data: 945697152
I0403 04:30:44.869134 21847 layer_factory.hpp:77] Creating layer loss1/relu_conv
I0403 04:30:44.869153 21847 net.cpp:91] Creating Layer loss1/relu_conv
I0403 04:30:44.869168 21847 net.cpp:425] loss1/relu_conv <- loss1/conv
I0403 04:30:44.869185 21847 net.cpp:386] loss1/relu_conv -> loss1/conv (in-place)
I0403 04:30:44.869204 21847 net.cpp:141] Setting up loss1/relu_conv
I0403 04:30:44.869225 21847 net.cpp:148] Top shape: 24 128 4 4 (49152)
I0403 04:30:44.869240 21847 net.cpp:156] Memory required for data: 945893760
I0403 04:30:44.869254 21847 layer_factory.hpp:77] Creating layer loss1/fc
I0403 04:30:44.869279 21847 net.cpp:91] Creating Layer loss1/fc
I0403 04:30:44.869297 21847 net.cpp:425] loss1/fc <- loss1/conv
I0403 04:30:44.869314 21847 net.cpp:399] loss1/fc -> loss1/fc
I0403 04:30:44.885393 21847 net.cpp:141] Setting up loss1/fc
I0403 04:30:44.885454 21847 net.cpp:148] Top shape: 24 1024 (24576)
I0403 04:30:44.885471 21847 net.cpp:156] Memory required for data: 945992064
I0403 04:30:44.885490 21847 layer_factory.hpp:77] Creating layer loss1/relu_fc
I0403 04:30:44.885510 21847 net.cpp:91] Creating Layer loss1/relu_fc
I0403 04:30:44.885527 21847 net.cpp:425] loss1/relu_fc <- loss1/fc
I0403 04:30:44.885560 21847 net.cpp:386] loss1/relu_fc -> loss1/fc (in-place)
I0403 04:30:44.885582 21847 net.cpp:141] Setting up loss1/relu_fc
I0403 04:30:44.885613 21847 net.cpp:148] Top shape: 24 1024 (24576)
I0403 04:30:44.885630 21847 net.cpp:156] Memory required for data: 946090368
I0403 04:30:44.885645 21847 layer_factory.hpp:77] Creating layer loss1/drop_fc
I0403 04:30:44.885678 21847 net.cpp:91] Creating Layer loss1/drop_fc
I0403 04:30:44.885697 21847 net.cpp:425] loss1/drop_fc <- loss1/fc
I0403 04:30:44.885716 21847 net.cpp:386] loss1/drop_fc -> loss1/fc (in-place)
I0403 04:30:44.885768 21847 net.cpp:141] Setting up loss1/drop_fc
I0403 04:30:44.885793 21847 net.cpp:148] Top shape: 24 1024 (24576)
I0403 04:30:44.885809 21847 net.cpp:156] Memory required for data: 946188672
I0403 04:30:44.885825 21847 layer_factory.hpp:77] Creating layer loss1/classifier_plantvillage
I0403 04:30:44.885846 21847 net.cpp:91] Creating Layer loss1/classifier_plantvillage
I0403 04:30:44.885864 21847 net.cpp:425] loss1/classifier_plantvillage <- loss1/fc
I0403 04:30:44.885886 21847 net.cpp:399] loss1/classifier_plantvillage -> loss1/classifier_plantvillage
I0403 04:30:44.886808 21847 net.cpp:141] Setting up loss1/classifier_plantvillage
I0403 04:30:44.886837 21847 net.cpp:148] Top shape: 24 38 (912)
I0403 04:30:44.886853 21847 net.cpp:156] Memory required for data: 946192320
I0403 04:30:44.886873 21847 layer_factory.hpp:77] Creating layer inception_4b/1x1
I0403 04:30:44.886899 21847 net.cpp:91] Creating Layer inception_4b/1x1
I0403 04:30:44.886919 21847 net.cpp:425] inception_4b/1x1 <- inception_4a/output_inception_4a/output_0_split_1
I0403 04:30:44.886942 21847 net.cpp:399] inception_4b/1x1 -> inception_4b/1x1
I0403 04:30:44.887686 21847 net.cpp:141] Setting up inception_4b/1x1
I0403 04:30:44.887712 21847 net.cpp:148] Top shape: 24 160 14 14 (752640)
I0403 04:30:44.887728 21847 net.cpp:156] Memory required for data: 949202880
I0403 04:30:44.887748 21847 layer_factory.hpp:77] Creating layer inception_4b/relu_1x1
I0403 04:30:44.887784 21847 net.cpp:91] Creating Layer inception_4b/relu_1x1
I0403 04:30:44.887812 21847 net.cpp:425] inception_4b/relu_1x1 <- inception_4b/1x1
I0403 04:30:44.887831 21847 net.cpp:386] inception_4b/relu_1x1 -> inception_4b/1x1 (in-place)
I0403 04:30:44.887851 21847 net.cpp:141] Setting up inception_4b/relu_1x1
I0403 04:30:44.887869 21847 net.cpp:148] Top shape: 24 160 14 14 (752640)
I0403 04:30:44.887886 21847 net.cpp:156] Memory required for data: 952213440
I0403 04:30:44.887904 21847 layer_factory.hpp:77] Creating layer inception_4b/3x3_reduce
I0403 04:30:44.887941 21847 net.cpp:91] Creating Layer inception_4b/3x3_reduce
I0403 04:30:44.887960 21847 net.cpp:425] inception_4b/3x3_reduce <- inception_4a/output_inception_4a/output_0_split_2
I0403 04:30:44.887984 21847 net.cpp:399] inception_4b/3x3_reduce -> inception_4b/3x3_reduce
I0403 04:30:44.888557 21847 net.cpp:141] Setting up inception_4b/3x3_reduce
I0403 04:30:44.888582 21847 net.cpp:148] Top shape: 24 112 14 14 (526848)
I0403 04:30:44.888597 21847 net.cpp:156] Memory required for data: 954320832
I0403 04:30:44.888614 21847 layer_factory.hpp:77] Creating layer inception_4b/relu_3x3_reduce
I0403 04:30:44.888635 21847 net.cpp:91] Creating Layer inception_4b/relu_3x3_reduce
I0403 04:30:44.888651 21847 net.cpp:425] inception_4b/relu_3x3_reduce <- inception_4b/3x3_reduce
I0403 04:30:44.888669 21847 net.cpp:386] inception_4b/relu_3x3_reduce -> inception_4b/3x3_reduce (in-place)
I0403 04:30:44.888701 21847 net.cpp:141] Setting up inception_4b/relu_3x3_reduce
I0403 04:30:44.888718 21847 net.cpp:148] Top shape: 24 112 14 14 (526848)
I0403 04:30:44.888733 21847 net.cpp:156] Memory required for data: 956428224
I0403 04:30:44.888751 21847 layer_factory.hpp:77] Creating layer inception_4b/3x3
I0403 04:30:44.888787 21847 net.cpp:91] Creating Layer inception_4b/3x3
I0403 04:30:44.888805 21847 net.cpp:425] inception_4b/3x3 <- inception_4b/3x3_reduce
I0403 04:30:44.888828 21847 net.cpp:399] inception_4b/3x3 -> inception_4b/3x3
I0403 04:30:44.890975 21847 net.cpp:141] Setting up inception_4b/3x3
I0403 04:30:44.891006 21847 net.cpp:148] Top shape: 24 224 14 14 (1053696)
I0403 04:30:44.891023 21847 net.cpp:156] Memory required for data: 960643008
I0403 04:30:44.891053 21847 layer_factory.hpp:77] Creating layer inception_4b/relu_3x3
I0403 04:30:44.891075 21847 net.cpp:91] Creating Layer inception_4b/relu_3x3
I0403 04:30:44.891093 21847 net.cpp:425] inception_4b/relu_3x3 <- inception_4b/3x3
I0403 04:30:44.891124 21847 net.cpp:386] inception_4b/relu_3x3 -> inception_4b/3x3 (in-place)
I0403 04:30:44.891145 21847 net.cpp:141] Setting up inception_4b/relu_3x3
I0403 04:30:44.891165 21847 net.cpp:148] Top shape: 24 224 14 14 (1053696)
I0403 04:30:44.891192 21847 net.cpp:156] Memory required for data: 964857792
I0403 04:30:44.891214 21847 layer_factory.hpp:77] Creating layer inception_4b/5x5_reduce
I0403 04:30:44.891252 21847 net.cpp:91] Creating Layer inception_4b/5x5_reduce
I0403 04:30:44.891271 21847 net.cpp:425] inception_4b/5x5_reduce <- inception_4a/output_inception_4a/output_0_split_3
I0403 04:30:44.891299 21847 net.cpp:399] inception_4b/5x5_reduce -> inception_4b/5x5_reduce
I0403 04:30:44.891620 21847 net.cpp:141] Setting up inception_4b/5x5_reduce
I0403 04:30:44.891646 21847 net.cpp:148] Top shape: 24 24 14 14 (112896)
I0403 04:30:44.891662 21847 net.cpp:156] Memory required for data: 965309376
I0403 04:30:44.891681 21847 layer_factory.hpp:77] Creating layer inception_4b/relu_5x5_reduce
I0403 04:30:44.891700 21847 net.cpp:91] Creating Layer inception_4b/relu_5x5_reduce
I0403 04:30:44.891717 21847 net.cpp:425] inception_4b/relu_5x5_reduce <- inception_4b/5x5_reduce
I0403 04:30:44.891736 21847 net.cpp:386] inception_4b/relu_5x5_reduce -> inception_4b/5x5_reduce (in-place)
I0403 04:30:44.891757 21847 net.cpp:141] Setting up inception_4b/relu_5x5_reduce
I0403 04:30:44.891774 21847 net.cpp:148] Top shape: 24 24 14 14 (112896)
I0403 04:30:44.891790 21847 net.cpp:156] Memory required for data: 965760960
I0403 04:30:44.891805 21847 layer_factory.hpp:77] Creating layer inception_4b/5x5
I0403 04:30:44.891856 21847 net.cpp:91] Creating Layer inception_4b/5x5
I0403 04:30:44.891876 21847 net.cpp:425] inception_4b/5x5 <- inception_4b/5x5_reduce
I0403 04:30:44.891898 21847 net.cpp:399] inception_4b/5x5 -> inception_4b/5x5
I0403 04:30:44.892386 21847 net.cpp:141] Setting up inception_4b/5x5
I0403 04:30:44.892413 21847 net.cpp:148] Top shape: 24 64 14 14 (301056)
I0403 04:30:44.892441 21847 net.cpp:156] Memory required for data: 966965184
I0403 04:30:44.892458 21847 layer_factory.hpp:77] Creating layer inception_4b/relu_5x5
I0403 04:30:44.892479 21847 net.cpp:91] Creating Layer inception_4b/relu_5x5
I0403 04:30:44.892509 21847 net.cpp:425] inception_4b/relu_5x5 <- inception_4b/5x5
I0403 04:30:44.892529 21847 net.cpp:386] inception_4b/relu_5x5 -> inception_4b/5x5 (in-place)
I0403 04:30:44.892551 21847 net.cpp:141] Setting up inception_4b/relu_5x5
I0403 04:30:44.892576 21847 net.cpp:148] Top shape: 24 64 14 14 (301056)
I0403 04:30:44.892592 21847 net.cpp:156] Memory required for data: 968169408
I0403 04:30:44.892607 21847 layer_factory.hpp:77] Creating layer inception_4b/pool
I0403 04:30:44.892634 21847 net.cpp:91] Creating Layer inception_4b/pool
I0403 04:30:44.892654 21847 net.cpp:425] inception_4b/pool <- inception_4a/output_inception_4a/output_0_split_4
I0403 04:30:44.892673 21847 net.cpp:399] inception_4b/pool -> inception_4b/pool
I0403 04:30:44.892729 21847 net.cpp:141] Setting up inception_4b/pool
I0403 04:30:44.892765 21847 net.cpp:148] Top shape: 24 512 14 14 (2408448)
I0403 04:30:44.892781 21847 net.cpp:156] Memory required for data: 977803200
I0403 04:30:44.892796 21847 layer_factory.hpp:77] Creating layer inception_4b/pool_proj
I0403 04:30:44.892818 21847 net.cpp:91] Creating Layer inception_4b/pool_proj
I0403 04:30:44.892838 21847 net.cpp:425] inception_4b/pool_proj <- inception_4b/pool
I0403 04:30:44.892858 21847 net.cpp:399] inception_4b/pool_proj -> inception_4b/pool_proj
I0403 04:30:44.893290 21847 net.cpp:141] Setting up inception_4b/pool_proj
I0403 04:30:44.893316 21847 net.cpp:148] Top shape: 24 64 14 14 (301056)
I0403 04:30:44.893332 21847 net.cpp:156] Memory required for data: 979007424
I0403 04:30:44.893352 21847 layer_factory.hpp:77] Creating layer inception_4b/relu_pool_proj
I0403 04:30:44.893373 21847 net.cpp:91] Creating Layer inception_4b/relu_pool_proj
I0403 04:30:44.893390 21847 net.cpp:425] inception_4b/relu_pool_proj <- inception_4b/pool_proj
I0403 04:30:44.893409 21847 net.cpp:386] inception_4b/relu_pool_proj -> inception_4b/pool_proj (in-place)
I0403 04:30:44.893442 21847 net.cpp:141] Setting up inception_4b/relu_pool_proj
I0403 04:30:44.893460 21847 net.cpp:148] Top shape: 24 64 14 14 (301056)
I0403 04:30:44.893476 21847 net.cpp:156] Memory required for data: 980211648
I0403 04:30:44.893501 21847 layer_factory.hpp:77] Creating layer inception_4b/output
I0403 04:30:44.893519 21847 net.cpp:91] Creating Layer inception_4b/output
I0403 04:30:44.893535 21847 net.cpp:425] inception_4b/output <- inception_4b/1x1
I0403 04:30:44.893564 21847 net.cpp:425] inception_4b/output <- inception_4b/3x3
I0403 04:30:44.893581 21847 net.cpp:425] inception_4b/output <- inception_4b/5x5
I0403 04:30:44.893599 21847 net.cpp:425] inception_4b/output <- inception_4b/pool_proj
I0403 04:30:44.893630 21847 net.cpp:399] inception_4b/output -> inception_4b/output
I0403 04:30:44.893671 21847 net.cpp:141] Setting up inception_4b/output
I0403 04:30:44.893695 21847 net.cpp:148] Top shape: 24 512 14 14 (2408448)
I0403 04:30:44.893712 21847 net.cpp:156] Memory required for data: 989845440
I0403 04:30:44.893729 21847 layer_factory.hpp:77] Creating layer inception_4b/output_inception_4b/output_0_split
I0403 04:30:44.893751 21847 net.cpp:91] Creating Layer inception_4b/output_inception_4b/output_0_split
I0403 04:30:44.893769 21847 net.cpp:425] inception_4b/output_inception_4b/output_0_split <- inception_4b/output
I0403 04:30:44.893787 21847 net.cpp:399] inception_4b/output_inception_4b/output_0_split -> inception_4b/output_inception_4b/output_0_split_0
I0403 04:30:44.893810 21847 net.cpp:399] inception_4b/output_inception_4b/output_0_split -> inception_4b/output_inception_4b/output_0_split_1
I0403 04:30:44.893848 21847 net.cpp:399] inception_4b/output_inception_4b/output_0_split -> inception_4b/output_inception_4b/output_0_split_2
I0403 04:30:44.893872 21847 net.cpp:399] inception_4b/output_inception_4b/output_0_split -> inception_4b/output_inception_4b/output_0_split_3
I0403 04:30:44.893954 21847 net.cpp:141] Setting up inception_4b/output_inception_4b/output_0_split
I0403 04:30:44.894198 21847 net.cpp:148] Top shape: 24 512 14 14 (2408448)
I0403 04:30:44.894243 21847 net.cpp:148] Top shape: 24 512 14 14 (2408448)
I0403 04:30:44.894261 21847 net.cpp:148] Top shape: 24 512 14 14 (2408448)
I0403 04:30:44.894279 21847 net.cpp:148] Top shape: 24 512 14 14 (2408448)
I0403 04:30:44.894295 21847 net.cpp:156] Memory required for data: 1028380608
I0403 04:30:44.894310 21847 layer_factory.hpp:77] Creating layer inception_4c/1x1
I0403 04:30:44.894335 21847 net.cpp:91] Creating Layer inception_4c/1x1
I0403 04:30:44.894357 21847 net.cpp:425] inception_4c/1x1 <- inception_4b/output_inception_4b/output_0_split_0
I0403 04:30:44.894382 21847 net.cpp:399] inception_4c/1x1 -> inception_4c/1x1
I0403 04:30:44.895007 21847 net.cpp:141] Setting up inception_4c/1x1
I0403 04:30:44.895035 21847 net.cpp:148] Top shape: 24 128 14 14 (602112)
I0403 04:30:44.895051 21847 net.cpp:156] Memory required for data: 1030789056
I0403 04:30:44.895071 21847 layer_factory.hpp:77] Creating layer inception_4c/relu_1x1
I0403 04:30:44.895089 21847 net.cpp:91] Creating Layer inception_4c/relu_1x1
I0403 04:30:44.895110 21847 net.cpp:425] inception_4c/relu_1x1 <- inception_4c/1x1
I0403 04:30:44.895136 21847 net.cpp:386] inception_4c/relu_1x1 -> inception_4c/1x1 (in-place)
I0403 04:30:44.895161 21847 net.cpp:141] Setting up inception_4c/relu_1x1
I0403 04:30:44.895182 21847 net.cpp:148] Top shape: 24 128 14 14 (602112)
I0403 04:30:44.895201 21847 net.cpp:156] Memory required for data: 1033197504
I0403 04:30:44.895222 21847 layer_factory.hpp:77] Creating layer inception_4c/3x3_reduce
I0403 04:30:44.895257 21847 net.cpp:91] Creating Layer inception_4c/3x3_reduce
I0403 04:30:44.895280 21847 net.cpp:425] inception_4c/3x3_reduce <- inception_4b/output_inception_4b/output_0_split_1
I0403 04:30:44.895305 21847 net.cpp:399] inception_4c/3x3_reduce -> inception_4c/3x3_reduce
I0403 04:30:44.896492 21847 net.cpp:141] Setting up inception_4c/3x3_reduce
I0403 04:30:44.896520 21847 net.cpp:148] Top shape: 24 128 14 14 (602112)
I0403 04:30:44.896538 21847 net.cpp:156] Memory required for data: 1035605952
I0403 04:30:44.896558 21847 layer_factory.hpp:77] Creating layer inception_4c/relu_3x3_reduce
I0403 04:30:44.896582 21847 net.cpp:91] Creating Layer inception_4c/relu_3x3_reduce
I0403 04:30:44.896605 21847 net.cpp:425] inception_4c/relu_3x3_reduce <- inception_4c/3x3_reduce
I0403 04:30:44.896623 21847 net.cpp:386] inception_4c/relu_3x3_reduce -> inception_4c/3x3_reduce (in-place)
I0403 04:30:44.896644 21847 net.cpp:141] Setting up inception_4c/relu_3x3_reduce
I0403 04:30:44.896670 21847 net.cpp:148] Top shape: 24 128 14 14 (602112)
I0403 04:30:44.896690 21847 net.cpp:156] Memory required for data: 1038014400
I0403 04:30:44.896713 21847 layer_factory.hpp:77] Creating layer inception_4c/3x3
I0403 04:30:44.896736 21847 net.cpp:91] Creating Layer inception_4c/3x3
I0403 04:30:44.896755 21847 net.cpp:425] inception_4c/3x3 <- inception_4c/3x3_reduce
I0403 04:30:44.896778 21847 net.cpp:399] inception_4c/3x3 -> inception_4c/3x3
I0403 04:30:44.899345 21847 net.cpp:141] Setting up inception_4c/3x3
I0403 04:30:44.899377 21847 net.cpp:148] Top shape: 24 256 14 14 (1204224)
I0403 04:30:44.899395 21847 net.cpp:156] Memory required for data: 1042831296
I0403 04:30:44.899427 21847 layer_factory.hpp:77] Creating layer inception_4c/relu_3x3
I0403 04:30:44.899451 21847 net.cpp:91] Creating Layer inception_4c/relu_3x3
I0403 04:30:44.899473 21847 net.cpp:425] inception_4c/relu_3x3 <- inception_4c/3x3
I0403 04:30:44.899495 21847 net.cpp:386] inception_4c/relu_3x3 -> inception_4c/3x3 (in-place)
I0403 04:30:44.899535 21847 net.cpp:141] Setting up inception_4c/relu_3x3
I0403 04:30:44.899556 21847 net.cpp:148] Top shape: 24 256 14 14 (1204224)
I0403 04:30:44.899574 21847 net.cpp:156] Memory required for data: 1047648192
I0403 04:30:44.899590 21847 layer_factory.hpp:77] Creating layer inception_4c/5x5_reduce
I0403 04:30:44.899622 21847 net.cpp:91] Creating Layer inception_4c/5x5_reduce
I0403 04:30:44.899642 21847 net.cpp:425] inception_4c/5x5_reduce <- inception_4b/output_inception_4b/output_0_split_2
I0403 04:30:44.899663 21847 net.cpp:399] inception_4c/5x5_reduce -> inception_4c/5x5_reduce
I0403 04:30:44.899971 21847 net.cpp:141] Setting up inception_4c/5x5_reduce
I0403 04:30:44.899998 21847 net.cpp:148] Top shape: 24 24 14 14 (112896)
I0403 04:30:44.900014 21847 net.cpp:156] Memory required for data: 1048099776
I0403 04:30:44.900033 21847 layer_factory.hpp:77] Creating layer inception_4c/relu_5x5_reduce
I0403 04:30:44.900053 21847 net.cpp:91] Creating Layer inception_4c/relu_5x5_reduce
I0403 04:30:44.900071 21847 net.cpp:425] inception_4c/relu_5x5_reduce <- inception_4c/5x5_reduce
I0403 04:30:44.900091 21847 net.cpp:386] inception_4c/relu_5x5_reduce -> inception_4c/5x5_reduce (in-place)
I0403 04:30:44.900113 21847 net.cpp:141] Setting up inception_4c/relu_5x5_reduce
I0403 04:30:44.900131 21847 net.cpp:148] Top shape: 24 24 14 14 (112896)
I0403 04:30:44.900146 21847 net.cpp:156] Memory required for data: 1048551360
I0403 04:30:44.900161 21847 layer_factory.hpp:77] Creating layer inception_4c/5x5
I0403 04:30:44.900187 21847 net.cpp:91] Creating Layer inception_4c/5x5
I0403 04:30:44.900213 21847 net.cpp:425] inception_4c/5x5 <- inception_4c/5x5_reduce
I0403 04:30:44.900235 21847 net.cpp:399] inception_4c/5x5 -> inception_4c/5x5
I0403 04:30:44.900692 21847 net.cpp:141] Setting up inception_4c/5x5
I0403 04:30:44.900718 21847 net.cpp:148] Top shape: 24 64 14 14 (301056)
I0403 04:30:44.900741 21847 net.cpp:156] Memory required for data: 1049755584
I0403 04:30:44.900761 21847 layer_factory.hpp:77] Creating layer inception_4c/relu_5x5
I0403 04:30:44.900780 21847 net.cpp:91] Creating Layer inception_4c/relu_5x5
I0403 04:30:44.900799 21847 net.cpp:425] inception_4c/relu_5x5 <- inception_4c/5x5
I0403 04:30:44.900820 21847 net.cpp:386] inception_4c/relu_5x5 -> inception_4c/5x5 (in-place)
I0403 04:30:44.900841 21847 net.cpp:141] Setting up inception_4c/relu_5x5
I0403 04:30:44.900861 21847 net.cpp:148] Top shape: 24 64 14 14 (301056)
I0403 04:30:44.900876 21847 net.cpp:156] Memory required for data: 1050959808
I0403 04:30:44.900890 21847 layer_factory.hpp:77] Creating layer inception_4c/pool
I0403 04:30:44.900915 21847 net.cpp:91] Creating Layer inception_4c/pool
I0403 04:30:44.900934 21847 net.cpp:425] inception_4c/pool <- inception_4b/output_inception_4b/output_0_split_3
I0403 04:30:44.900954 21847 net.cpp:399] inception_4c/pool -> inception_4c/pool
I0403 04:30:44.901013 21847 net.cpp:141] Setting up inception_4c/pool
I0403 04:30:44.901038 21847 net.cpp:148] Top shape: 24 512 14 14 (2408448)
I0403 04:30:44.901058 21847 net.cpp:156] Memory required for data: 1060593600
I0403 04:30:44.901075 21847 layer_factory.hpp:77] Creating layer inception_4c/pool_proj
I0403 04:30:44.901103 21847 net.cpp:91] Creating Layer inception_4c/pool_proj
I0403 04:30:44.901124 21847 net.cpp:425] inception_4c/pool_proj <- inception_4c/pool
I0403 04:30:44.901146 21847 net.cpp:399] inception_4c/pool_proj -> inception_4c/pool_proj
I0403 04:30:44.901576 21847 net.cpp:141] Setting up inception_4c/pool_proj
I0403 04:30:44.901602 21847 net.cpp:148] Top shape: 24 64 14 14 (301056)
I0403 04:30:44.901618 21847 net.cpp:156] Memory required for data: 1061797824
I0403 04:30:44.901638 21847 layer_factory.hpp:77] Creating layer inception_4c/relu_pool_proj
I0403 04:30:44.901656 21847 net.cpp:91] Creating Layer inception_4c/relu_pool_proj
I0403 04:30:44.901674 21847 net.cpp:425] inception_4c/relu_pool_proj <- inception_4c/pool_proj
I0403 04:30:44.901692 21847 net.cpp:386] inception_4c/relu_pool_proj -> inception_4c/pool_proj (in-place)
I0403 04:30:44.901712 21847 net.cpp:141] Setting up inception_4c/relu_pool_proj
I0403 04:30:44.901744 21847 net.cpp:148] Top shape: 24 64 14 14 (301056)
I0403 04:30:44.901760 21847 net.cpp:156] Memory required for data: 1063002048
I0403 04:30:44.901777 21847 layer_factory.hpp:77] Creating layer inception_4c/output
I0403 04:30:44.901798 21847 net.cpp:91] Creating Layer inception_4c/output
I0403 04:30:44.901815 21847 net.cpp:425] inception_4c/output <- inception_4c/1x1
I0403 04:30:44.901834 21847 net.cpp:425] inception_4c/output <- inception_4c/3x3
I0403 04:30:44.901850 21847 net.cpp:425] inception_4c/output <- inception_4c/5x5
I0403 04:30:44.901867 21847 net.cpp:425] inception_4c/output <- inception_4c/pool_proj
I0403 04:30:44.901885 21847 net.cpp:399] inception_4c/output -> inception_4c/output
I0403 04:30:44.901928 21847 net.cpp:141] Setting up inception_4c/output
I0403 04:30:44.901952 21847 net.cpp:148] Top shape: 24 512 14 14 (2408448)
I0403 04:30:44.901968 21847 net.cpp:156] Memory required for data: 1072635840
I0403 04:30:44.901984 21847 layer_factory.hpp:77] Creating layer inception_4c/output_inception_4c/output_0_split
I0403 04:30:44.902004 21847 net.cpp:91] Creating Layer inception_4c/output_inception_4c/output_0_split
I0403 04:30:44.902021 21847 net.cpp:425] inception_4c/output_inception_4c/output_0_split <- inception_4c/output
I0403 04:30:44.902043 21847 net.cpp:399] inception_4c/output_inception_4c/output_0_split -> inception_4c/output_inception_4c/output_0_split_0
I0403 04:30:44.902066 21847 net.cpp:399] inception_4c/output_inception_4c/output_0_split -> inception_4c/output_inception_4c/output_0_split_1
I0403 04:30:44.902088 21847 net.cpp:399] inception_4c/output_inception_4c/output_0_split -> inception_4c/output_inception_4c/output_0_split_2
I0403 04:30:44.902110 21847 net.cpp:399] inception_4c/output_inception_4c/output_0_split -> inception_4c/output_inception_4c/output_0_split_3
I0403 04:30:44.902179 21847 net.cpp:141] Setting up inception_4c/output_inception_4c/output_0_split
I0403 04:30:44.902205 21847 net.cpp:148] Top shape: 24 512 14 14 (2408448)
I0403 04:30:44.902235 21847 net.cpp:148] Top shape: 24 512 14 14 (2408448)
I0403 04:30:44.902253 21847 net.cpp:148] Top shape: 24 512 14 14 (2408448)
I0403 04:30:44.902271 21847 net.cpp:148] Top shape: 24 512 14 14 (2408448)
I0403 04:30:44.902287 21847 net.cpp:156] Memory required for data: 1111171008
I0403 04:30:44.902302 21847 layer_factory.hpp:77] Creating layer inception_4d/1x1
I0403 04:30:44.902324 21847 net.cpp:91] Creating Layer inception_4d/1x1
I0403 04:30:44.902343 21847 net.cpp:425] inception_4d/1x1 <- inception_4c/output_inception_4c/output_0_split_0
I0403 04:30:44.902365 21847 net.cpp:399] inception_4d/1x1 -> inception_4d/1x1
I0403 04:30:44.902920 21847 net.cpp:141] Setting up inception_4d/1x1
I0403 04:30:44.902945 21847 net.cpp:148] Top shape: 24 112 14 14 (526848)
I0403 04:30:44.902961 21847 net.cpp:156] Memory required for data: 1113278400
I0403 04:30:44.902979 21847 layer_factory.hpp:77] Creating layer inception_4d/relu_1x1
I0403 04:30:44.902999 21847 net.cpp:91] Creating Layer inception_4d/relu_1x1
I0403 04:30:44.903017 21847 net.cpp:425] inception_4d/relu_1x1 <- inception_4d/1x1
I0403 04:30:44.903035 21847 net.cpp:386] inception_4d/relu_1x1 -> inception_4d/1x1 (in-place)
I0403 04:30:44.903059 21847 net.cpp:141] Setting up inception_4d/relu_1x1
I0403 04:30:44.903077 21847 net.cpp:148] Top shape: 24 112 14 14 (526848)
I0403 04:30:44.903092 21847 net.cpp:156] Memory required for data: 1115385792
I0403 04:30:44.903108 21847 layer_factory.hpp:77] Creating layer inception_4d/3x3_reduce
I0403 04:30:44.903132 21847 net.cpp:91] Creating Layer inception_4d/3x3_reduce
I0403 04:30:44.903151 21847 net.cpp:425] inception_4d/3x3_reduce <- inception_4c/output_inception_4c/output_0_split_1
I0403 04:30:44.903172 21847 net.cpp:399] inception_4d/3x3_reduce -> inception_4d/3x3_reduce
I0403 04:30:44.903848 21847 net.cpp:141] Setting up inception_4d/3x3_reduce
I0403 04:30:44.903874 21847 net.cpp:148] Top shape: 24 144 14 14 (677376)
I0403 04:30:44.903890 21847 net.cpp:156] Memory required for data: 1118095296
I0403 04:30:44.903923 21847 layer_factory.hpp:77] Creating layer inception_4d/relu_3x3_reduce
I0403 04:30:44.903944 21847 net.cpp:91] Creating Layer inception_4d/relu_3x3_reduce
I0403 04:30:44.903962 21847 net.cpp:425] inception_4d/relu_3x3_reduce <- inception_4d/3x3_reduce
I0403 04:30:44.903988 21847 net.cpp:386] inception_4d/relu_3x3_reduce -> inception_4d/3x3_reduce (in-place)
I0403 04:30:44.904011 21847 net.cpp:141] Setting up inception_4d/relu_3x3_reduce
I0403 04:30:44.904028 21847 net.cpp:148] Top shape: 24 144 14 14 (677376)
I0403 04:30:44.904043 21847 net.cpp:156] Memory required for data: 1120804800
I0403 04:30:44.904059 21847 layer_factory.hpp:77] Creating layer inception_4d/3x3
I0403 04:30:44.904081 21847 net.cpp:91] Creating Layer inception_4d/3x3
I0403 04:30:44.904099 21847 net.cpp:425] inception_4d/3x3 <- inception_4d/3x3_reduce
I0403 04:30:44.904122 21847 net.cpp:399] inception_4d/3x3 -> inception_4d/3x3
I0403 04:30:44.907485 21847 net.cpp:141] Setting up inception_4d/3x3
I0403 04:30:44.907516 21847 net.cpp:148] Top shape: 24 288 14 14 (1354752)
I0403 04:30:44.907536 21847 net.cpp:156] Memory required for data: 1126223808
I0403 04:30:44.907557 21847 layer_factory.hpp:77] Creating layer inception_4d/relu_3x3
I0403 04:30:44.907578 21847 net.cpp:91] Creating Layer inception_4d/relu_3x3
I0403 04:30:44.907598 21847 net.cpp:425] inception_4d/relu_3x3 <- inception_4d/3x3
I0403 04:30:44.907619 21847 net.cpp:386] inception_4d/relu_3x3 -> inception_4d/3x3 (in-place)
I0403 04:30:44.907641 21847 net.cpp:141] Setting up inception_4d/relu_3x3
I0403 04:30:44.907660 21847 net.cpp:148] Top shape: 24 288 14 14 (1354752)
I0403 04:30:44.907675 21847 net.cpp:156] Memory required for data: 1131642816
I0403 04:30:44.907692 21847 layer_factory.hpp:77] Creating layer inception_4d/5x5_reduce
I0403 04:30:44.907718 21847 net.cpp:91] Creating Layer inception_4d/5x5_reduce
I0403 04:30:44.907739 21847 net.cpp:425] inception_4d/5x5_reduce <- inception_4c/output_inception_4c/output_0_split_2
I0403 04:30:44.907763 21847 net.cpp:399] inception_4d/5x5_reduce -> inception_4d/5x5_reduce
I0403 04:30:44.908099 21847 net.cpp:141] Setting up inception_4d/5x5_reduce
I0403 04:30:44.908128 21847 net.cpp:148] Top shape: 24 32 14 14 (150528)
I0403 04:30:44.908143 21847 net.cpp:156] Memory required for data: 1132244928
I0403 04:30:44.908164 21847 layer_factory.hpp:77] Creating layer inception_4d/relu_5x5_reduce
I0403 04:30:44.908182 21847 net.cpp:91] Creating Layer inception_4d/relu_5x5_reduce
I0403 04:30:44.908200 21847 net.cpp:425] inception_4d/relu_5x5_reduce <- inception_4d/5x5_reduce
I0403 04:30:44.908224 21847 net.cpp:386] inception_4d/relu_5x5_reduce -> inception_4d/5x5_reduce (in-place)
I0403 04:30:44.908246 21847 net.cpp:141] Setting up inception_4d/relu_5x5_reduce
I0403 04:30:44.908263 21847 net.cpp:148] Top shape: 24 32 14 14 (150528)
I0403 04:30:44.908279 21847 net.cpp:156] Memory required for data: 1132847040
I0403 04:30:44.908294 21847 layer_factory.hpp:77] Creating layer inception_4d/5x5
I0403 04:30:44.908319 21847 net.cpp:91] Creating Layer inception_4d/5x5
I0403 04:30:44.908339 21847 net.cpp:425] inception_4d/5x5 <- inception_4d/5x5_reduce
I0403 04:30:44.908359 21847 net.cpp:399] inception_4d/5x5 -> inception_4d/5x5
I0403 04:30:44.908893 21847 net.cpp:141] Setting up inception_4d/5x5
I0403 04:30:44.908923 21847 net.cpp:148] Top shape: 24 64 14 14 (301056)
I0403 04:30:44.908939 21847 net.cpp:156] Memory required for data: 1134051264
I0403 04:30:44.908959 21847 layer_factory.hpp:77] Creating layer inception_4d/relu_5x5
I0403 04:30:44.908978 21847 net.cpp:91] Creating Layer inception_4d/relu_5x5
I0403 04:30:44.908998 21847 net.cpp:425] inception_4d/relu_5x5 <- inception_4d/5x5
I0403 04:30:44.909020 21847 net.cpp:386] inception_4d/relu_5x5 -> inception_4d/5x5 (in-place)
I0403 04:30:44.909041 21847 net.cpp:141] Setting up inception_4d/relu_5x5
I0403 04:30:44.909060 21847 net.cpp:148] Top shape: 24 64 14 14 (301056)
I0403 04:30:44.909075 21847 net.cpp:156] Memory required for data: 1135255488
I0403 04:30:44.909090 21847 layer_factory.hpp:77] Creating layer inception_4d/pool
I0403 04:30:44.909123 21847 net.cpp:91] Creating Layer inception_4d/pool
I0403 04:30:44.909145 21847 net.cpp:425] inception_4d/pool <- inception_4c/output_inception_4c/output_0_split_3
I0403 04:30:44.909165 21847 net.cpp:399] inception_4d/pool -> inception_4d/pool
I0403 04:30:44.909224 21847 net.cpp:141] Setting up inception_4d/pool
I0403 04:30:44.909250 21847 net.cpp:148] Top shape: 24 512 14 14 (2408448)
I0403 04:30:44.909268 21847 net.cpp:156] Memory required for data: 1144889280
I0403 04:30:44.909286 21847 layer_factory.hpp:77] Creating layer inception_4d/pool_proj
I0403 04:30:44.909308 21847 net.cpp:91] Creating Layer inception_4d/pool_proj
I0403 04:30:44.909327 21847 net.cpp:425] inception_4d/pool_proj <- inception_4d/pool
I0403 04:30:44.909349 21847 net.cpp:399] inception_4d/pool_proj -> inception_4d/pool_proj
I0403 04:30:44.910332 21847 net.cpp:141] Setting up inception_4d/pool_proj
I0403 04:30:44.910362 21847 net.cpp:148] Top shape: 24 64 14 14 (301056)
I0403 04:30:44.910377 21847 net.cpp:156] Memory required for data: 1146093504
I0403 04:30:44.910397 21847 layer_factory.hpp:77] Creating layer inception_4d/relu_pool_proj
I0403 04:30:44.910416 21847 net.cpp:91] Creating Layer inception_4d/relu_pool_proj
I0403 04:30:44.910434 21847 net.cpp:425] inception_4d/relu_pool_proj <- inception_4d/pool_proj
I0403 04:30:44.910455 21847 net.cpp:386] inception_4d/relu_pool_proj -> inception_4d/pool_proj (in-place)
I0403 04:30:44.910478 21847 net.cpp:141] Setting up inception_4d/relu_pool_proj
I0403 04:30:44.910497 21847 net.cpp:148] Top shape: 24 64 14 14 (301056)
I0403 04:30:44.910512 21847 net.cpp:156] Memory required for data: 1147297728
I0403 04:30:44.910527 21847 layer_factory.hpp:77] Creating layer inception_4d/output
I0403 04:30:44.910545 21847 net.cpp:91] Creating Layer inception_4d/output
I0403 04:30:44.910562 21847 net.cpp:425] inception_4d/output <- inception_4d/1x1
I0403 04:30:44.910580 21847 net.cpp:425] inception_4d/output <- inception_4d/3x3
I0403 04:30:44.910598 21847 net.cpp:425] inception_4d/output <- inception_4d/5x5
I0403 04:30:44.910614 21847 net.cpp:425] inception_4d/output <- inception_4d/pool_proj
I0403 04:30:44.910634 21847 net.cpp:399] inception_4d/output -> inception_4d/output
I0403 04:30:44.910676 21847 net.cpp:141] Setting up inception_4d/output
I0403 04:30:44.910701 21847 net.cpp:148] Top shape: 24 528 14 14 (2483712)
I0403 04:30:44.910717 21847 net.cpp:156] Memory required for data: 1157232576
I0403 04:30:44.910732 21847 layer_factory.hpp:77] Creating layer inception_4d/output_inception_4d/output_0_split
I0403 04:30:44.910750 21847 net.cpp:91] Creating Layer inception_4d/output_inception_4d/output_0_split
I0403 04:30:44.910768 21847 net.cpp:425] inception_4d/output_inception_4d/output_0_split <- inception_4d/output
I0403 04:30:44.910789 21847 net.cpp:399] inception_4d/output_inception_4d/output_0_split -> inception_4d/output_inception_4d/output_0_split_0
I0403 04:30:44.910811 21847 net.cpp:399] inception_4d/output_inception_4d/output_0_split -> inception_4d/output_inception_4d/output_0_split_1
I0403 04:30:44.910833 21847 net.cpp:399] inception_4d/output_inception_4d/output_0_split -> inception_4d/output_inception_4d/output_0_split_2
I0403 04:30:44.910856 21847 net.cpp:399] inception_4d/output_inception_4d/output_0_split -> inception_4d/output_inception_4d/output_0_split_3
I0403 04:30:44.910877 21847 net.cpp:399] inception_4d/output_inception_4d/output_0_split -> inception_4d/output_inception_4d/output_0_split_4
I0403 04:30:44.910960 21847 net.cpp:141] Setting up inception_4d/output_inception_4d/output_0_split
I0403 04:30:44.910984 21847 net.cpp:148] Top shape: 24 528 14 14 (2483712)
I0403 04:30:44.911001 21847 net.cpp:148] Top shape: 24 528 14 14 (2483712)
I0403 04:30:44.911018 21847 net.cpp:148] Top shape: 24 528 14 14 (2483712)
I0403 04:30:44.911034 21847 net.cpp:148] Top shape: 24 528 14 14 (2483712)
I0403 04:30:44.911051 21847 net.cpp:148] Top shape: 24 528 14 14 (2483712)
I0403 04:30:44.911067 21847 net.cpp:156] Memory required for data: 1206906816
I0403 04:30:44.911097 21847 layer_factory.hpp:77] Creating layer loss2/ave_pool
I0403 04:30:44.911119 21847 net.cpp:91] Creating Layer loss2/ave_pool
I0403 04:30:44.911139 21847 net.cpp:425] loss2/ave_pool <- inception_4d/output_inception_4d/output_0_split_0
I0403 04:30:44.911160 21847 net.cpp:399] loss2/ave_pool -> loss2/ave_pool
I0403 04:30:44.911201 21847 net.cpp:141] Setting up loss2/ave_pool
I0403 04:30:44.911229 21847 net.cpp:148] Top shape: 24 528 4 4 (202752)
I0403 04:30:44.911245 21847 net.cpp:156] Memory required for data: 1207717824
I0403 04:30:44.911262 21847 layer_factory.hpp:77] Creating layer loss2/conv
I0403 04:30:44.911285 21847 net.cpp:91] Creating Layer loss2/conv
I0403 04:30:44.911308 21847 net.cpp:425] loss2/conv <- loss2/ave_pool
I0403 04:30:44.911327 21847 net.cpp:399] loss2/conv -> loss2/conv
I0403 04:30:44.912497 21847 net.cpp:141] Setting up loss2/conv
I0403 04:30:44.912525 21847 net.cpp:148] Top shape: 24 128 4 4 (49152)
I0403 04:30:44.912541 21847 net.cpp:156] Memory required for data: 1207914432
I0403 04:30:44.912561 21847 layer_factory.hpp:77] Creating layer loss2/relu_conv
I0403 04:30:44.912581 21847 net.cpp:91] Creating Layer loss2/relu_conv
I0403 04:30:44.912600 21847 net.cpp:425] loss2/relu_conv <- loss2/conv
I0403 04:30:44.912617 21847 net.cpp:386] loss2/relu_conv -> loss2/conv (in-place)
I0403 04:30:44.912637 21847 net.cpp:141] Setting up loss2/relu_conv
I0403 04:30:44.912655 21847 net.cpp:148] Top shape: 24 128 4 4 (49152)
I0403 04:30:44.912670 21847 net.cpp:156] Memory required for data: 1208111040
I0403 04:30:44.912685 21847 layer_factory.hpp:77] Creating layer loss2/fc
I0403 04:30:44.912711 21847 net.cpp:91] Creating Layer loss2/fc
I0403 04:30:44.912729 21847 net.cpp:425] loss2/fc <- loss2/conv
I0403 04:30:44.912750 21847 net.cpp:399] loss2/fc -> loss2/fc
I0403 04:30:44.929397 21847 net.cpp:141] Setting up loss2/fc
I0403 04:30:44.929437 21847 net.cpp:148] Top shape: 24 1024 (24576)
I0403 04:30:44.929455 21847 net.cpp:156] Memory required for data: 1208209344
I0403 04:30:44.929476 21847 layer_factory.hpp:77] Creating layer loss2/relu_fc
I0403 04:30:44.929497 21847 net.cpp:91] Creating Layer loss2/relu_fc
I0403 04:30:44.929515 21847 net.cpp:425] loss2/relu_fc <- loss2/fc
I0403 04:30:44.929534 21847 net.cpp:386] loss2/relu_fc -> loss2/fc (in-place)
I0403 04:30:44.929556 21847 net.cpp:141] Setting up loss2/relu_fc
I0403 04:30:44.929576 21847 net.cpp:148] Top shape: 24 1024 (24576)
I0403 04:30:44.929591 21847 net.cpp:156] Memory required for data: 1208307648
I0403 04:30:44.929607 21847 layer_factory.hpp:77] Creating layer loss2/drop_fc
I0403 04:30:44.929630 21847 net.cpp:91] Creating Layer loss2/drop_fc
I0403 04:30:44.929648 21847 net.cpp:425] loss2/drop_fc <- loss2/fc
I0403 04:30:44.929669 21847 net.cpp:386] loss2/drop_fc -> loss2/fc (in-place)
I0403 04:30:44.929713 21847 net.cpp:141] Setting up loss2/drop_fc
I0403 04:30:44.929736 21847 net.cpp:148] Top shape: 24 1024 (24576)
I0403 04:30:44.929752 21847 net.cpp:156] Memory required for data: 1208405952
I0403 04:30:44.929767 21847 layer_factory.hpp:77] Creating layer loss2/classifier_plantvillage
I0403 04:30:44.929788 21847 net.cpp:91] Creating Layer loss2/classifier_plantvillage
I0403 04:30:44.929805 21847 net.cpp:425] loss2/classifier_plantvillage <- loss2/fc
I0403 04:30:44.929827 21847 net.cpp:399] loss2/classifier_plantvillage -> loss2/classifier_plantvillage
I0403 04:30:44.930177 21847 net.cpp:141] Setting up loss2/classifier_plantvillage
I0403 04:30:44.930204 21847 net.cpp:148] Top shape: 24 38 (912)
I0403 04:30:44.930224 21847 net.cpp:156] Memory required for data: 1208409600
I0403 04:30:44.930243 21847 layer_factory.hpp:77] Creating layer inception_4e/1x1
I0403 04:30:44.930269 21847 net.cpp:91] Creating Layer inception_4e/1x1
I0403 04:30:44.930289 21847 net.cpp:425] inception_4e/1x1 <- inception_4d/output_inception_4d/output_0_split_1
I0403 04:30:44.930310 21847 net.cpp:399] inception_4e/1x1 -> inception_4e/1x1
I0403 04:30:44.931324 21847 net.cpp:141] Setting up inception_4e/1x1
I0403 04:30:44.931350 21847 net.cpp:148] Top shape: 24 256 14 14 (1204224)
I0403 04:30:44.931382 21847 net.cpp:156] Memory required for data: 1213226496
I0403 04:30:44.931402 21847 layer_factory.hpp:77] Creating layer inception_4e/relu_1x1
I0403 04:30:44.931421 21847 net.cpp:91] Creating Layer inception_4e/relu_1x1
I0403 04:30:44.931439 21847 net.cpp:425] inception_4e/relu_1x1 <- inception_4e/1x1
I0403 04:30:44.931462 21847 net.cpp:386] inception_4e/relu_1x1 -> inception_4e/1x1 (in-place)
I0403 04:30:44.931486 21847 net.cpp:141] Setting up inception_4e/relu_1x1
I0403 04:30:44.931505 21847 net.cpp:148] Top shape: 24 256 14 14 (1204224)
I0403 04:30:44.931520 21847 net.cpp:156] Memory required for data: 1218043392
I0403 04:30:44.931535 21847 layer_factory.hpp:77] Creating layer inception_4e/3x3_reduce
I0403 04:30:44.931557 21847 net.cpp:91] Creating Layer inception_4e/3x3_reduce
I0403 04:30:44.931576 21847 net.cpp:425] inception_4e/3x3_reduce <- inception_4d/output_inception_4d/output_0_split_2
I0403 04:30:44.931598 21847 net.cpp:399] inception_4e/3x3_reduce -> inception_4e/3x3_reduce
I0403 04:30:44.932876 21847 net.cpp:141] Setting up inception_4e/3x3_reduce
I0403 04:30:44.932905 21847 net.cpp:148] Top shape: 24 160 14 14 (752640)
I0403 04:30:44.932922 21847 net.cpp:156] Memory required for data: 1221053952
I0403 04:30:44.932942 21847 layer_factory.hpp:77] Creating layer inception_4e/relu_3x3_reduce
I0403 04:30:44.932965 21847 net.cpp:91] Creating Layer inception_4e/relu_3x3_reduce
I0403 04:30:44.932983 21847 net.cpp:425] inception_4e/relu_3x3_reduce <- inception_4e/3x3_reduce
I0403 04:30:44.933002 21847 net.cpp:386] inception_4e/relu_3x3_reduce -> inception_4e/3x3_reduce (in-place)
I0403 04:30:44.933023 21847 net.cpp:141] Setting up inception_4e/relu_3x3_reduce
I0403 04:30:44.933042 21847 net.cpp:148] Top shape: 24 160 14 14 (752640)
I0403 04:30:44.933056 21847 net.cpp:156] Memory required for data: 1224064512
I0403 04:30:44.933073 21847 layer_factory.hpp:77] Creating layer inception_4e/3x3
I0403 04:30:44.933097 21847 net.cpp:91] Creating Layer inception_4e/3x3
I0403 04:30:44.933115 21847 net.cpp:425] inception_4e/3x3 <- inception_4e/3x3_reduce
I0403 04:30:44.933138 21847 net.cpp:399] inception_4e/3x3 -> inception_4e/3x3
I0403 04:30:44.937139 21847 net.cpp:141] Setting up inception_4e/3x3
I0403 04:30:44.937170 21847 net.cpp:148] Top shape: 24 320 14 14 (1505280)
I0403 04:30:44.937187 21847 net.cpp:156] Memory required for data: 1230085632
I0403 04:30:44.937217 21847 layer_factory.hpp:77] Creating layer inception_4e/relu_3x3
I0403 04:30:44.937242 21847 net.cpp:91] Creating Layer inception_4e/relu_3x3
I0403 04:30:44.937259 21847 net.cpp:425] inception_4e/relu_3x3 <- inception_4e/3x3
I0403 04:30:44.937281 21847 net.cpp:386] inception_4e/relu_3x3 -> inception_4e/3x3 (in-place)
I0403 04:30:44.937304 21847 net.cpp:141] Setting up inception_4e/relu_3x3
I0403 04:30:44.937322 21847 net.cpp:148] Top shape: 24 320 14 14 (1505280)
I0403 04:30:44.937337 21847 net.cpp:156] Memory required for data: 1236106752
I0403 04:30:44.937353 21847 layer_factory.hpp:77] Creating layer inception_4e/5x5_reduce
I0403 04:30:44.937378 21847 net.cpp:91] Creating Layer inception_4e/5x5_reduce
I0403 04:30:44.937397 21847 net.cpp:425] inception_4e/5x5_reduce <- inception_4d/output_inception_4d/output_0_split_3
I0403 04:30:44.937417 21847 net.cpp:399] inception_4e/5x5_reduce -> inception_4e/5x5_reduce
I0403 04:30:44.937755 21847 net.cpp:141] Setting up inception_4e/5x5_reduce
I0403 04:30:44.937782 21847 net.cpp:148] Top shape: 24 32 14 14 (150528)
I0403 04:30:44.937798 21847 net.cpp:156] Memory required for data: 1236708864
I0403 04:30:44.937818 21847 layer_factory.hpp:77] Creating layer inception_4e/relu_5x5_reduce
I0403 04:30:44.937836 21847 net.cpp:91] Creating Layer inception_4e/relu_5x5_reduce
I0403 04:30:44.937854 21847 net.cpp:425] inception_4e/relu_5x5_reduce <- inception_4e/5x5_reduce
I0403 04:30:44.937875 21847 net.cpp:386] inception_4e/relu_5x5_reduce -> inception_4e/5x5_reduce (in-place)
I0403 04:30:44.937896 21847 net.cpp:141] Setting up inception_4e/relu_5x5_reduce
I0403 04:30:44.937916 21847 net.cpp:148] Top shape: 24 32 14 14 (150528)
I0403 04:30:44.937947 21847 net.cpp:156] Memory required for data: 1237310976
I0403 04:30:44.937963 21847 layer_factory.hpp:77] Creating layer inception_4e/5x5
I0403 04:30:44.937988 21847 net.cpp:91] Creating Layer inception_4e/5x5
I0403 04:30:44.938006 21847 net.cpp:425] inception_4e/5x5 <- inception_4e/5x5_reduce
I0403 04:30:44.938027 21847 net.cpp:399] inception_4e/5x5 -> inception_4e/5x5
I0403 04:30:44.938860 21847 net.cpp:141] Setting up inception_4e/5x5
I0403 04:30:44.938886 21847 net.cpp:148] Top shape: 24 128 14 14 (602112)
I0403 04:30:44.938902 21847 net.cpp:156] Memory required for data: 1239719424
I0403 04:30:44.938920 21847 layer_factory.hpp:77] Creating layer inception_4e/relu_5x5
I0403 04:30:44.938940 21847 net.cpp:91] Creating Layer inception_4e/relu_5x5
I0403 04:30:44.938956 21847 net.cpp:425] inception_4e/relu_5x5 <- inception_4e/5x5
I0403 04:30:44.938976 21847 net.cpp:386] inception_4e/relu_5x5 -> inception_4e/5x5 (in-place)
I0403 04:30:44.938997 21847 net.cpp:141] Setting up inception_4e/relu_5x5
I0403 04:30:44.939014 21847 net.cpp:148] Top shape: 24 128 14 14 (602112)
I0403 04:30:44.939029 21847 net.cpp:156] Memory required for data: 1242127872
I0403 04:30:44.939044 21847 layer_factory.hpp:77] Creating layer inception_4e/pool
I0403 04:30:44.939082 21847 net.cpp:91] Creating Layer inception_4e/pool
I0403 04:30:44.939101 21847 net.cpp:425] inception_4e/pool <- inception_4d/output_inception_4d/output_0_split_4
I0403 04:30:44.939122 21847 net.cpp:399] inception_4e/pool -> inception_4e/pool
I0403 04:30:44.939179 21847 net.cpp:141] Setting up inception_4e/pool
I0403 04:30:44.939203 21847 net.cpp:148] Top shape: 24 528 14 14 (2483712)
I0403 04:30:44.939241 21847 net.cpp:156] Memory required for data: 1252062720
I0403 04:30:44.939261 21847 layer_factory.hpp:77] Creating layer inception_4e/pool_proj
I0403 04:30:44.939287 21847 net.cpp:91] Creating Layer inception_4e/pool_proj
I0403 04:30:44.939306 21847 net.cpp:425] inception_4e/pool_proj <- inception_4e/pool
I0403 04:30:44.939328 21847 net.cpp:399] inception_4e/pool_proj -> inception_4e/pool_proj
I0403 04:30:44.939946 21847 net.cpp:141] Setting up inception_4e/pool_proj
I0403 04:30:44.939972 21847 net.cpp:148] Top shape: 24 128 14 14 (602112)
I0403 04:30:44.939988 21847 net.cpp:156] Memory required for data: 1254471168
I0403 04:30:44.940006 21847 layer_factory.hpp:77] Creating layer inception_4e/relu_pool_proj
I0403 04:30:44.940026 21847 net.cpp:91] Creating Layer inception_4e/relu_pool_proj
I0403 04:30:44.940043 21847 net.cpp:425] inception_4e/relu_pool_proj <- inception_4e/pool_proj
I0403 04:30:44.940063 21847 net.cpp:386] inception_4e/relu_pool_proj -> inception_4e/pool_proj (in-place)
I0403 04:30:44.940083 21847 net.cpp:141] Setting up inception_4e/relu_pool_proj
I0403 04:30:44.940100 21847 net.cpp:148] Top shape: 24 128 14 14 (602112)
I0403 04:30:44.940115 21847 net.cpp:156] Memory required for data: 1256879616
I0403 04:30:44.940131 21847 layer_factory.hpp:77] Creating layer inception_4e/output
I0403 04:30:44.940152 21847 net.cpp:91] Creating Layer inception_4e/output
I0403 04:30:44.940170 21847 net.cpp:425] inception_4e/output <- inception_4e/1x1
I0403 04:30:44.940187 21847 net.cpp:425] inception_4e/output <- inception_4e/3x3
I0403 04:30:44.940204 21847 net.cpp:425] inception_4e/output <- inception_4e/5x5
I0403 04:30:44.940225 21847 net.cpp:425] inception_4e/output <- inception_4e/pool_proj
I0403 04:30:44.940246 21847 net.cpp:399] inception_4e/output -> inception_4e/output
I0403 04:30:44.940287 21847 net.cpp:141] Setting up inception_4e/output
I0403 04:30:44.940313 21847 net.cpp:148] Top shape: 24 832 14 14 (3913728)
I0403 04:30:44.940330 21847 net.cpp:156] Memory required for data: 1272534528
I0403 04:30:44.940346 21847 layer_factory.hpp:77] Creating layer pool4/3x3_s2
I0403 04:30:44.940364 21847 net.cpp:91] Creating Layer pool4/3x3_s2
I0403 04:30:44.940382 21847 net.cpp:425] pool4/3x3_s2 <- inception_4e/output
I0403 04:30:44.940403 21847 net.cpp:399] pool4/3x3_s2 -> pool4/3x3_s2
I0403 04:30:44.940456 21847 net.cpp:141] Setting up pool4/3x3_s2
I0403 04:30:44.940500 21847 net.cpp:148] Top shape: 24 832 7 7 (978432)
I0403 04:30:44.940517 21847 net.cpp:156] Memory required for data: 1276448256
I0403 04:30:44.940533 21847 layer_factory.hpp:77] Creating layer pool4/3x3_s2_pool4/3x3_s2_0_split
I0403 04:30:44.940552 21847 net.cpp:91] Creating Layer pool4/3x3_s2_pool4/3x3_s2_0_split
I0403 04:30:44.940570 21847 net.cpp:425] pool4/3x3_s2_pool4/3x3_s2_0_split <- pool4/3x3_s2
I0403 04:30:44.940590 21847 net.cpp:399] pool4/3x3_s2_pool4/3x3_s2_0_split -> pool4/3x3_s2_pool4/3x3_s2_0_split_0
I0403 04:30:44.940611 21847 net.cpp:399] pool4/3x3_s2_pool4/3x3_s2_0_split -> pool4/3x3_s2_pool4/3x3_s2_0_split_1
I0403 04:30:44.940634 21847 net.cpp:399] pool4/3x3_s2_pool4/3x3_s2_0_split -> pool4/3x3_s2_pool4/3x3_s2_0_split_2
I0403 04:30:44.940655 21847 net.cpp:399] pool4/3x3_s2_pool4/3x3_s2_0_split -> pool4/3x3_s2_pool4/3x3_s2_0_split_3
I0403 04:30:44.940727 21847 net.cpp:141] Setting up pool4/3x3_s2_pool4/3x3_s2_0_split
I0403 04:30:44.940752 21847 net.cpp:148] Top shape: 24 832 7 7 (978432)
I0403 04:30:44.940769 21847 net.cpp:148] Top shape: 24 832 7 7 (978432)
I0403 04:30:44.940786 21847 net.cpp:148] Top shape: 24 832 7 7 (978432)
I0403 04:30:44.940803 21847 net.cpp:148] Top shape: 24 832 7 7 (978432)
I0403 04:30:44.940817 21847 net.cpp:156] Memory required for data: 1292103168
I0403 04:30:44.940832 21847 layer_factory.hpp:77] Creating layer inception_5a/1x1
I0403 04:30:44.940860 21847 net.cpp:91] Creating Layer inception_5a/1x1
I0403 04:30:44.940878 21847 net.cpp:425] inception_5a/1x1 <- pool4/3x3_s2_pool4/3x3_s2_0_split_0
I0403 04:30:44.940902 21847 net.cpp:399] inception_5a/1x1 -> inception_5a/1x1
I0403 04:30:44.942912 21847 net.cpp:141] Setting up inception_5a/1x1
I0403 04:30:44.942942 21847 net.cpp:148] Top shape: 24 256 7 7 (301056)
I0403 04:30:44.942960 21847 net.cpp:156] Memory required for data: 1293307392
I0403 04:30:44.942978 21847 layer_factory.hpp:77] Creating layer inception_5a/relu_1x1
I0403 04:30:44.942999 21847 net.cpp:91] Creating Layer inception_5a/relu_1x1
I0403 04:30:44.943022 21847 net.cpp:425] inception_5a/relu_1x1 <- inception_5a/1x1
I0403 04:30:44.943040 21847 net.cpp:386] inception_5a/relu_1x1 -> inception_5a/1x1 (in-place)
I0403 04:30:44.943061 21847 net.cpp:141] Setting up inception_5a/relu_1x1
I0403 04:30:44.943079 21847 net.cpp:148] Top shape: 24 256 7 7 (301056)
I0403 04:30:44.943095 21847 net.cpp:156] Memory required for data: 1294511616
I0403 04:30:44.943110 21847 layer_factory.hpp:77] Creating layer inception_5a/3x3_reduce
I0403 04:30:44.943135 21847 net.cpp:91] Creating Layer inception_5a/3x3_reduce
I0403 04:30:44.943155 21847 net.cpp:425] inception_5a/3x3_reduce <- pool4/3x3_s2_pool4/3x3_s2_0_split_1
I0403 04:30:44.943174 21847 net.cpp:399] inception_5a/3x3_reduce -> inception_5a/3x3_reduce
I0403 04:30:44.944751 21847 net.cpp:141] Setting up inception_5a/3x3_reduce
I0403 04:30:44.944780 21847 net.cpp:148] Top shape: 24 160 7 7 (188160)
I0403 04:30:44.944797 21847 net.cpp:156] Memory required for data: 1295264256
I0403 04:30:44.944818 21847 layer_factory.hpp:77] Creating layer inception_5a/relu_3x3_reduce
I0403 04:30:44.944836 21847 net.cpp:91] Creating Layer inception_5a/relu_3x3_reduce
I0403 04:30:44.944854 21847 net.cpp:425] inception_5a/relu_3x3_reduce <- inception_5a/3x3_reduce
I0403 04:30:44.944875 21847 net.cpp:386] inception_5a/relu_3x3_reduce -> inception_5a/3x3_reduce (in-place)
I0403 04:30:44.944896 21847 net.cpp:141] Setting up inception_5a/relu_3x3_reduce
I0403 04:30:44.944916 21847 net.cpp:148] Top shape: 24 160 7 7 (188160)
I0403 04:30:44.944931 21847 net.cpp:156] Memory required for data: 1296016896
I0403 04:30:44.944947 21847 layer_factory.hpp:77] Creating layer inception_5a/3x3
I0403 04:30:44.944972 21847 net.cpp:91] Creating Layer inception_5a/3x3
I0403 04:30:44.944990 21847 net.cpp:425] inception_5a/3x3 <- inception_5a/3x3_reduce
I0403 04:30:44.945011 21847 net.cpp:399] inception_5a/3x3 -> inception_5a/3x3
I0403 04:30:44.948994 21847 net.cpp:141] Setting up inception_5a/3x3
I0403 04:30:44.949028 21847 net.cpp:148] Top shape: 24 320 7 7 (376320)
I0403 04:30:44.949060 21847 net.cpp:156] Memory required for data: 1297522176
I0403 04:30:44.949080 21847 layer_factory.hpp:77] Creating layer inception_5a/relu_3x3
I0403 04:30:44.949100 21847 net.cpp:91] Creating Layer inception_5a/relu_3x3
I0403 04:30:44.949120 21847 net.cpp:425] inception_5a/relu_3x3 <- inception_5a/3x3
I0403 04:30:44.949141 21847 net.cpp:386] inception_5a/relu_3x3 -> inception_5a/3x3 (in-place)
I0403 04:30:44.949164 21847 net.cpp:141] Setting up inception_5a/relu_3x3
I0403 04:30:44.949183 21847 net.cpp:148] Top shape: 24 320 7 7 (376320)
I0403 04:30:44.949200 21847 net.cpp:156] Memory required for data: 1299027456
I0403 04:30:44.949226 21847 layer_factory.hpp:77] Creating layer inception_5a/5x5_reduce
I0403 04:30:44.949254 21847 net.cpp:91] Creating Layer inception_5a/5x5_reduce
I0403 04:30:44.949271 21847 net.cpp:425] inception_5a/5x5_reduce <- pool4/3x3_s2_pool4/3x3_s2_0_split_2
I0403 04:30:44.949295 21847 net.cpp:399] inception_5a/5x5_reduce -> inception_5a/5x5_reduce
I0403 04:30:44.949707 21847 net.cpp:141] Setting up inception_5a/5x5_reduce
I0403 04:30:44.949733 21847 net.cpp:148] Top shape: 24 32 7 7 (37632)
I0403 04:30:44.949748 21847 net.cpp:156] Memory required for data: 1299177984
I0403 04:30:44.949767 21847 layer_factory.hpp:77] Creating layer inception_5a/relu_5x5_reduce
I0403 04:30:44.949786 21847 net.cpp:91] Creating Layer inception_5a/relu_5x5_reduce
I0403 04:30:44.949805 21847 net.cpp:425] inception_5a/relu_5x5_reduce <- inception_5a/5x5_reduce
I0403 04:30:44.949826 21847 net.cpp:386] inception_5a/relu_5x5_reduce -> inception_5a/5x5_reduce (in-place)
I0403 04:30:44.949848 21847 net.cpp:141] Setting up inception_5a/relu_5x5_reduce
I0403 04:30:44.949867 21847 net.cpp:148] Top shape: 24 32 7 7 (37632)
I0403 04:30:44.949882 21847 net.cpp:156] Memory required for data: 1299328512
I0403 04:30:44.949898 21847 layer_factory.hpp:77] Creating layer inception_5a/5x5
I0403 04:30:44.949924 21847 net.cpp:91] Creating Layer inception_5a/5x5
I0403 04:30:44.949944 21847 net.cpp:425] inception_5a/5x5 <- inception_5a/5x5_reduce
I0403 04:30:44.949964 21847 net.cpp:399] inception_5a/5x5 -> inception_5a/5x5
I0403 04:30:44.950796 21847 net.cpp:141] Setting up inception_5a/5x5
I0403 04:30:44.950824 21847 net.cpp:148] Top shape: 24 128 7 7 (150528)
I0403 04:30:44.950839 21847 net.cpp:156] Memory required for data: 1299930624
I0403 04:30:44.950858 21847 layer_factory.hpp:77] Creating layer inception_5a/relu_5x5
I0403 04:30:44.950878 21847 net.cpp:91] Creating Layer inception_5a/relu_5x5
I0403 04:30:44.950896 21847 net.cpp:425] inception_5a/relu_5x5 <- inception_5a/5x5
I0403 04:30:44.950916 21847 net.cpp:386] inception_5a/relu_5x5 -> inception_5a/5x5 (in-place)
I0403 04:30:44.950935 21847 net.cpp:141] Setting up inception_5a/relu_5x5
I0403 04:30:44.950953 21847 net.cpp:148] Top shape: 24 128 7 7 (150528)
I0403 04:30:44.950968 21847 net.cpp:156] Memory required for data: 1300532736
I0403 04:30:44.950984 21847 layer_factory.hpp:77] Creating layer inception_5a/pool
I0403 04:30:44.951004 21847 net.cpp:91] Creating Layer inception_5a/pool
I0403 04:30:44.951022 21847 net.cpp:425] inception_5a/pool <- pool4/3x3_s2_pool4/3x3_s2_0_split_3
I0403 04:30:44.951042 21847 net.cpp:399] inception_5a/pool -> inception_5a/pool
I0403 04:30:44.951098 21847 net.cpp:141] Setting up inception_5a/pool
I0403 04:30:44.951122 21847 net.cpp:148] Top shape: 24 832 7 7 (978432)
I0403 04:30:44.951138 21847 net.cpp:156] Memory required for data: 1304446464
I0403 04:30:44.951154 21847 layer_factory.hpp:77] Creating layer inception_5a/pool_proj
I0403 04:30:44.951177 21847 net.cpp:91] Creating Layer inception_5a/pool_proj
I0403 04:30:44.951197 21847 net.cpp:425] inception_5a/pool_proj <- inception_5a/pool
I0403 04:30:44.951225 21847 net.cpp:399] inception_5a/pool_proj -> inception_5a/pool_proj
I0403 04:30:44.952632 21847 net.cpp:141] Setting up inception_5a/pool_proj
I0403 04:30:44.952662 21847 net.cpp:148] Top shape: 24 128 7 7 (150528)
I0403 04:30:44.952679 21847 net.cpp:156] Memory required for data: 1305048576
I0403 04:30:44.952714 21847 layer_factory.hpp:77] Creating layer inception_5a/relu_pool_proj
I0403 04:30:44.952734 21847 net.cpp:91] Creating Layer inception_5a/relu_pool_proj
I0403 04:30:44.952752 21847 net.cpp:425] inception_5a/relu_pool_proj <- inception_5a/pool_proj
I0403 04:30:44.952775 21847 net.cpp:386] inception_5a/relu_pool_proj -> inception_5a/pool_proj (in-place)
I0403 04:30:44.952796 21847 net.cpp:141] Setting up inception_5a/relu_pool_proj
I0403 04:30:44.952816 21847 net.cpp:148] Top shape: 24 128 7 7 (150528)
I0403 04:30:44.952831 21847 net.cpp:156] Memory required for data: 1305650688
I0403 04:30:44.952846 21847 layer_factory.hpp:77] Creating layer inception_5a/output
I0403 04:30:44.952865 21847 net.cpp:91] Creating Layer inception_5a/output
I0403 04:30:44.952883 21847 net.cpp:425] inception_5a/output <- inception_5a/1x1
I0403 04:30:44.952899 21847 net.cpp:425] inception_5a/output <- inception_5a/3x3
I0403 04:30:44.952918 21847 net.cpp:425] inception_5a/output <- inception_5a/5x5
I0403 04:30:44.952934 21847 net.cpp:425] inception_5a/output <- inception_5a/pool_proj
I0403 04:30:44.952952 21847 net.cpp:399] inception_5a/output -> inception_5a/output
I0403 04:30:44.952996 21847 net.cpp:141] Setting up inception_5a/output
I0403 04:30:44.953019 21847 net.cpp:148] Top shape: 24 832 7 7 (978432)
I0403 04:30:44.953034 21847 net.cpp:156] Memory required for data: 1309564416
I0403 04:30:44.953050 21847 layer_factory.hpp:77] Creating layer inception_5a/output_inception_5a/output_0_split
I0403 04:30:44.953070 21847 net.cpp:91] Creating Layer inception_5a/output_inception_5a/output_0_split
I0403 04:30:44.953088 21847 net.cpp:425] inception_5a/output_inception_5a/output_0_split <- inception_5a/output
I0403 04:30:44.953109 21847 net.cpp:399] inception_5a/output_inception_5a/output_0_split -> inception_5a/output_inception_5a/output_0_split_0
I0403 04:30:44.953132 21847 net.cpp:399] inception_5a/output_inception_5a/output_0_split -> inception_5a/output_inception_5a/output_0_split_1
I0403 04:30:44.953153 21847 net.cpp:399] inception_5a/output_inception_5a/output_0_split -> inception_5a/output_inception_5a/output_0_split_2
I0403 04:30:44.953176 21847 net.cpp:399] inception_5a/output_inception_5a/output_0_split -> inception_5a/output_inception_5a/output_0_split_3
I0403 04:30:44.953264 21847 net.cpp:141] Setting up inception_5a/output_inception_5a/output_0_split
I0403 04:30:44.953290 21847 net.cpp:148] Top shape: 24 832 7 7 (978432)
I0403 04:30:44.953307 21847 net.cpp:148] Top shape: 24 832 7 7 (978432)
I0403 04:30:44.953325 21847 net.cpp:148] Top shape: 24 832 7 7 (978432)
I0403 04:30:44.953341 21847 net.cpp:148] Top shape: 24 832 7 7 (978432)
I0403 04:30:44.953356 21847 net.cpp:156] Memory required for data: 1325219328
I0403 04:30:44.953371 21847 layer_factory.hpp:77] Creating layer inception_5b/1x1
I0403 04:30:44.953395 21847 net.cpp:91] Creating Layer inception_5b/1x1
I0403 04:30:44.953414 21847 net.cpp:425] inception_5b/1x1 <- inception_5a/output_inception_5a/output_0_split_0
I0403 04:30:44.953435 21847 net.cpp:399] inception_5b/1x1 -> inception_5b/1x1
I0403 04:30:44.956162 21847 net.cpp:141] Setting up inception_5b/1x1
I0403 04:30:44.956193 21847 net.cpp:148] Top shape: 24 384 7 7 (451584)
I0403 04:30:44.956213 21847 net.cpp:156] Memory required for data: 1327025664
I0403 04:30:44.956234 21847 layer_factory.hpp:77] Creating layer inception_5b/relu_1x1
I0403 04:30:44.956254 21847 net.cpp:91] Creating Layer inception_5b/relu_1x1
I0403 04:30:44.956272 21847 net.cpp:425] inception_5b/relu_1x1 <- inception_5b/1x1
I0403 04:30:44.956295 21847 net.cpp:386] inception_5b/relu_1x1 -> inception_5b/1x1 (in-place)
I0403 04:30:44.956315 21847 net.cpp:141] Setting up inception_5b/relu_1x1
I0403 04:30:44.956334 21847 net.cpp:148] Top shape: 24 384 7 7 (451584)
I0403 04:30:44.956349 21847 net.cpp:156] Memory required for data: 1328832000
I0403 04:30:44.956364 21847 layer_factory.hpp:77] Creating layer inception_5b/3x3_reduce
I0403 04:30:44.956389 21847 net.cpp:91] Creating Layer inception_5b/3x3_reduce
I0403 04:30:44.956408 21847 net.cpp:425] inception_5b/3x3_reduce <- inception_5a/output_inception_5a/output_0_split_1
I0403 04:30:44.956444 21847 net.cpp:399] inception_5b/3x3_reduce -> inception_5b/3x3_reduce
I0403 04:30:44.958173 21847 net.cpp:141] Setting up inception_5b/3x3_reduce
I0403 04:30:44.958204 21847 net.cpp:148] Top shape: 24 192 7 7 (225792)
I0403 04:30:44.958225 21847 net.cpp:156] Memory required for data: 1329735168
I0403 04:30:44.958245 21847 layer_factory.hpp:77] Creating layer inception_5b/relu_3x3_reduce
I0403 04:30:44.958264 21847 net.cpp:91] Creating Layer inception_5b/relu_3x3_reduce
I0403 04:30:44.958282 21847 net.cpp:425] inception_5b/relu_3x3_reduce <- inception_5b/3x3_reduce
I0403 04:30:44.958304 21847 net.cpp:386] inception_5b/relu_3x3_reduce -> inception_5b/3x3_reduce (in-place)
I0403 04:30:44.958326 21847 net.cpp:141] Setting up inception_5b/relu_3x3_reduce
I0403 04:30:44.958345 21847 net.cpp:148] Top shape: 24 192 7 7 (225792)
I0403 04:30:44.958360 21847 net.cpp:156] Memory required for data: 1330638336
I0403 04:30:44.958376 21847 layer_factory.hpp:77] Creating layer inception_5b/3x3
I0403 04:30:44.958401 21847 net.cpp:91] Creating Layer inception_5b/3x3
I0403 04:30:44.958420 21847 net.cpp:425] inception_5b/3x3 <- inception_5b/3x3_reduce
I0403 04:30:44.958441 21847 net.cpp:399] inception_5b/3x3 -> inception_5b/3x3
I0403 04:30:44.964011 21847 net.cpp:141] Setting up inception_5b/3x3
I0403 04:30:44.964043 21847 net.cpp:148] Top shape: 24 384 7 7 (451584)
I0403 04:30:44.964061 21847 net.cpp:156] Memory required for data: 1332444672
I0403 04:30:44.964081 21847 layer_factory.hpp:77] Creating layer inception_5b/relu_3x3
I0403 04:30:44.964102 21847 net.cpp:91] Creating Layer inception_5b/relu_3x3
I0403 04:30:44.964123 21847 net.cpp:425] inception_5b/relu_3x3 <- inception_5b/3x3
I0403 04:30:44.964143 21847 net.cpp:386] inception_5b/relu_3x3 -> inception_5b/3x3 (in-place)
I0403 04:30:44.964164 21847 net.cpp:141] Setting up inception_5b/relu_3x3
I0403 04:30:44.964181 21847 net.cpp:148] Top shape: 24 384 7 7 (451584)
I0403 04:30:44.964197 21847 net.cpp:156] Memory required for data: 1334251008
I0403 04:30:44.964216 21847 layer_factory.hpp:77] Creating layer inception_5b/5x5_reduce
I0403 04:30:44.964243 21847 net.cpp:91] Creating Layer inception_5b/5x5_reduce
I0403 04:30:44.964262 21847 net.cpp:425] inception_5b/5x5_reduce <- inception_5a/output_inception_5a/output_0_split_2
I0403 04:30:44.964287 21847 net.cpp:399] inception_5b/5x5_reduce -> inception_5b/5x5_reduce
I0403 04:30:44.964771 21847 net.cpp:141] Setting up inception_5b/5x5_reduce
I0403 04:30:44.964797 21847 net.cpp:148] Top shape: 24 48 7 7 (56448)
I0403 04:30:44.964813 21847 net.cpp:156] Memory required for data: 1334476800
I0403 04:30:44.964833 21847 layer_factory.hpp:77] Creating layer inception_5b/relu_5x5_reduce
I0403 04:30:44.964853 21847 net.cpp:91] Creating Layer inception_5b/relu_5x5_reduce
I0403 04:30:44.964869 21847 net.cpp:425] inception_5b/relu_5x5_reduce <- inception_5b/5x5_reduce
I0403 04:30:44.964889 21847 net.cpp:386] inception_5b/relu_5x5_reduce -> inception_5b/5x5_reduce (in-place)
I0403 04:30:44.964910 21847 net.cpp:141] Setting up inception_5b/relu_5x5_reduce
I0403 04:30:44.964927 21847 net.cpp:148] Top shape: 24 48 7 7 (56448)
I0403 04:30:44.964943 21847 net.cpp:156] Memory required for data: 1334702592
I0403 04:30:44.964958 21847 layer_factory.hpp:77] Creating layer inception_5b/5x5
I0403 04:30:44.964983 21847 net.cpp:91] Creating Layer inception_5b/5x5
I0403 04:30:44.965003 21847 net.cpp:425] inception_5b/5x5 <- inception_5b/5x5_reduce
I0403 04:30:44.965026 21847 net.cpp:399] inception_5b/5x5 -> inception_5b/5x5
I0403 04:30:44.966163 21847 net.cpp:141] Setting up inception_5b/5x5
I0403 04:30:44.966190 21847 net.cpp:148] Top shape: 24 128 7 7 (150528)
I0403 04:30:44.966207 21847 net.cpp:156] Memory required for data: 1335304704
I0403 04:30:44.966230 21847 layer_factory.hpp:77] Creating layer inception_5b/relu_5x5
I0403 04:30:44.966253 21847 net.cpp:91] Creating Layer inception_5b/relu_5x5
I0403 04:30:44.966272 21847 net.cpp:425] inception_5b/relu_5x5 <- inception_5b/5x5
I0403 04:30:44.966306 21847 net.cpp:386] inception_5b/relu_5x5 -> inception_5b/5x5 (in-place)
I0403 04:30:44.966327 21847 net.cpp:141] Setting up inception_5b/relu_5x5
I0403 04:30:44.966346 21847 net.cpp:148] Top shape: 24 128 7 7 (150528)
I0403 04:30:44.966361 21847 net.cpp:156] Memory required for data: 1335906816
I0403 04:30:44.966377 21847 layer_factory.hpp:77] Creating layer inception_5b/pool
I0403 04:30:44.966395 21847 net.cpp:91] Creating Layer inception_5b/pool
I0403 04:30:44.966413 21847 net.cpp:425] inception_5b/pool <- inception_5a/output_inception_5a/output_0_split_3
I0403 04:30:44.966435 21847 net.cpp:399] inception_5b/pool -> inception_5b/pool
I0403 04:30:44.966495 21847 net.cpp:141] Setting up inception_5b/pool
I0403 04:30:44.966521 21847 net.cpp:148] Top shape: 24 832 7 7 (978432)
I0403 04:30:44.966536 21847 net.cpp:156] Memory required for data: 1339820544
I0403 04:30:44.966552 21847 layer_factory.hpp:77] Creating layer inception_5b/pool_proj
I0403 04:30:44.966577 21847 net.cpp:91] Creating Layer inception_5b/pool_proj
I0403 04:30:44.966595 21847 net.cpp:425] inception_5b/pool_proj <- inception_5b/pool
I0403 04:30:44.966619 21847 net.cpp:399] inception_5b/pool_proj -> inception_5b/pool_proj
I0403 04:30:44.968022 21847 net.cpp:141] Setting up inception_5b/pool_proj
I0403 04:30:44.968051 21847 net.cpp:148] Top shape: 24 128 7 7 (150528)
I0403 04:30:44.968068 21847 net.cpp:156] Memory required for data: 1340422656
I0403 04:30:44.968087 21847 layer_factory.hpp:77] Creating layer inception_5b/relu_pool_proj
I0403 04:30:44.968109 21847 net.cpp:91] Creating Layer inception_5b/relu_pool_proj
I0403 04:30:44.968128 21847 net.cpp:425] inception_5b/relu_pool_proj <- inception_5b/pool_proj
I0403 04:30:44.968147 21847 net.cpp:386] inception_5b/relu_pool_proj -> inception_5b/pool_proj (in-place)
I0403 04:30:44.968168 21847 net.cpp:141] Setting up inception_5b/relu_pool_proj
I0403 04:30:44.968186 21847 net.cpp:148] Top shape: 24 128 7 7 (150528)
I0403 04:30:44.968202 21847 net.cpp:156] Memory required for data: 1341024768
I0403 04:30:44.968222 21847 layer_factory.hpp:77] Creating layer inception_5b/output
I0403 04:30:44.968241 21847 net.cpp:91] Creating Layer inception_5b/output
I0403 04:30:44.968263 21847 net.cpp:425] inception_5b/output <- inception_5b/1x1
I0403 04:30:44.968281 21847 net.cpp:425] inception_5b/output <- inception_5b/3x3
I0403 04:30:44.968299 21847 net.cpp:425] inception_5b/output <- inception_5b/5x5
I0403 04:30:44.968317 21847 net.cpp:425] inception_5b/output <- inception_5b/pool_proj
I0403 04:30:44.968335 21847 net.cpp:399] inception_5b/output -> inception_5b/output
I0403 04:30:44.968376 21847 net.cpp:141] Setting up inception_5b/output
I0403 04:30:44.968402 21847 net.cpp:148] Top shape: 24 1024 7 7 (1204224)
I0403 04:30:44.968420 21847 net.cpp:156] Memory required for data: 1345841664
I0403 04:30:44.968436 21847 layer_factory.hpp:77] Creating layer pool5/7x7_s1
I0403 04:30:44.968456 21847 net.cpp:91] Creating Layer pool5/7x7_s1
I0403 04:30:44.968473 21847 net.cpp:425] pool5/7x7_s1 <- inception_5b/output
I0403 04:30:44.968493 21847 net.cpp:399] pool5/7x7_s1 -> pool5/7x7_s1
I0403 04:30:44.968536 21847 net.cpp:141] Setting up pool5/7x7_s1
I0403 04:30:44.968560 21847 net.cpp:148] Top shape: 24 1024 1 1 (24576)
I0403 04:30:44.968575 21847 net.cpp:156] Memory required for data: 1345939968
I0403 04:30:44.968591 21847 layer_factory.hpp:77] Creating layer pool5/drop_7x7_s1
I0403 04:30:44.968611 21847 net.cpp:91] Creating Layer pool5/drop_7x7_s1
I0403 04:30:44.968627 21847 net.cpp:425] pool5/drop_7x7_s1 <- pool5/7x7_s1
I0403 04:30:44.968649 21847 net.cpp:386] pool5/drop_7x7_s1 -> pool5/7x7_s1 (in-place)
I0403 04:30:44.968691 21847 net.cpp:141] Setting up pool5/drop_7x7_s1
I0403 04:30:44.968714 21847 net.cpp:148] Top shape: 24 1024 1 1 (24576)
I0403 04:30:44.968730 21847 net.cpp:156] Memory required for data: 1346038272
I0403 04:30:44.968745 21847 layer_factory.hpp:77] Creating layer loss3/classifier_plantvillage
I0403 04:30:44.968766 21847 net.cpp:91] Creating Layer loss3/classifier_plantvillage
I0403 04:30:44.968798 21847 net.cpp:425] loss3/classifier_plantvillage <- pool5/7x7_s1
I0403 04:30:44.968822 21847 net.cpp:399] loss3/classifier_plantvillage -> loss3/classifier_plantvillage
I0403 04:30:44.969184 21847 net.cpp:141] Setting up loss3/classifier_plantvillage
I0403 04:30:44.969214 21847 net.cpp:148] Top shape: 24 38 (912)
I0403 04:30:44.969233 21847 net.cpp:156] Memory required for data: 1346041920
I0403 04:30:44.969251 21847 layer_factory.hpp:77] Creating layer loss1/loss
I0403 04:30:44.969280 21847 net.cpp:91] Creating Layer loss1/loss
I0403 04:30:44.969300 21847 net.cpp:425] loss1/loss <- loss1/classifier_plantvillage
I0403 04:30:44.969317 21847 net.cpp:425] loss1/loss <- label_data_1_split_0
I0403 04:30:44.969336 21847 net.cpp:399] loss1/loss -> loss1/loss
…
I0403 04:30:44.979652 21847 net.cpp:313] The NetState phase (1) differed from the phase (0) specified by a rule in layer data
I0403 04:30:44.983788 21847 net.cpp:49] Initializing net from parameters: 
state {
  phase: TEST
}
layer {
  name: "data"
  type: "Data"
  top: "data"
  top: "label"
  include {
    phase: TEST
  }
  transform_param {
    mirror: false
    crop_size: 224
    mean_file: "/home/mohanty/data/final_dataset/lmdb/color-60-40/mean.binaryproto"
  }
  data_param {
    source: "/home/mohanty/data/final_dataset/lmdb/color-60-40/test_db"
    batch_size: 24
    backend: LMDB
  }
}
layer {
  name: "conv1/7x7_s2"
  type: "Convolution"
  bottom: "data"
  top: "conv1/7x7_s2"
  param {
    lr_mult: 1
    decay_mult: 1
  }
  param {
    lr_mult: 2
    decay_mult: 0
  }
  convolution_param {
    num_output: 64
    pad: 3
    kernel_size: 7
    stride: 2
    weight_filler {
      type: "xavier"
      std: 0.1
    }
    bias_filler {
      type: "constant"
      value: 0.2
    }
  }
}
layer {
  name: "conv1/relu_7x7"
  type: "ReLU"
  bottom: "conv1/7x7_s2"
  top: "conv1/7x7_s2"
}
layer {
  name: "pool1/3x3_s2"
  type: "Pooling"
  bottom: "conv1/7x7_s2"
  top: "pool1/3x3_s2"
  pooling_param {
    pool: MAX
    kernel_size: 3
    stride: 2
  }
}
layer {
  name: "pool1/norm1"
  type: "LRN"
  bottom: "pool1/3x3_s2"
  top: "pool1/norm1"
  lrn_param {
    local_size: 5
    alpha: 0.0001
    beta: 0.75
  }
}
layer {
  name: "conv2/3x3_reduce"
  type: "Convolution"
  bottom: "pool1/norm1"
  top: "conv2/3x3_reduce"
  param {
    lr_mult: 1
    decay_mult: 1
  }
  param {
    lr_mult: 2
    decay_mult: 0
  }
  convolution_param {
    num_output: 64
    kernel_size: 1
    weight_filler {
      type: "xavier"
      std: 0.1
    }
    bias_filler {
      type: "constant"
      value: 0.2
    }
  }
}
layer {
  name: "conv2/relu_3x3_reduce"
  type: "ReLU"
  bottom: "conv2/3x3_reduce"
  top: "conv2/3x3_reduce"
}
layer {
  name: "conv2/3x3"
  type: "Convolution"
  bottom: "conv2/3x3_reduce"
  top: "conv2/3x3"
  param {
    lr_mult: 1
    decay_mult: 1
  }
  param {
    lr_mult: 2
    decay_mult: 0
  }
  convolution_param {
    num_output: 192
    pad: 1
    kernel_size: 3
    weight_filler {
      type: "xavier"
      std: 0.03
    }
    bias_filler {
      type: "constant"
      value: 0.2
    }
  }
}
layer {
  name: "conv2/relu_3x3"
  type: "ReLU"
  bottom: "conv2/3x3"
  top: "conv2/3x3"
}
layer {
  name: "conv2/norm2"
  type: "LRN"
  bottom: "conv2/3x3"
  top: "conv2/norm2"
  lrn_param {
    local_size: 5
    alpha: 0.0001
    beta: 0.75
  }
}
layer {
  name: "pool2/3x3_s2"
  type: "Pooling"
  bottom: "conv2/norm2"
  top: "pool2/3x3_s2"
  pooling_param {
    pool: MAX
    kernel_size: 3
    stride: 2
  }
}
layer {
  name: "inception_3a/1x1"
  type: "Convolution"
  bottom: "pool2/3x3_s2"
  top: "inception_3a/1x1"
  param {
    lr_mult: 1
    decay_mult: 1
  }
  param {
    lr_mult: 2
    decay_mult: 0
  }
  convolution_param {
    num_output: 64
    kernel_size: 1
    weight_filler {
      type: "xavier"
      std: 0.03
    }
    bias_filler {
      type: "constant"
      value: 0.2
    }
  }
}
layer {
  name: "inception_3a/relu_1x1"
  type: "ReLU"
  bottom: "inception_3a/1x1"
  top: "inception_3a/1x1"
}
layer {
  name: "inception_3a/3x3_reduce"
  type: "Convolution"
  bottom: "pool2/3x3_s2"
  top: "inception_3a/3x3_reduce"
  param {
    lr_mult: 1
    decay_mult: 1
  }
  param {
    lr_mult: 2
    decay_mult: 0
  }
  convolution_param {
    num_output: 96
    kernel_size: 1
    weight_filler {
      type: "xavier"
      std: 0.09
    }
    bias_filler {
      type: "constant"
      value: 0.2
    }
  }
}
layer {
  name: "inception_3a/relu_3x3_reduce"
  type: "ReLU"
  bottom: "inception_3a/3x3_reduce"
  top: "inception_3a/3x3_reduce"
}
layer {
  name: "inception_3a/3x3"
  type: "Convolution"
  bottom: "inception_3a/3x3_reduce"
  top: "inception_3a/3x3"
  param {
    lr_mult: 1
    decay_mult: 1
  }
  param {
    lr_mult: 2
    decay_mult: 0
  }
  convolution_param {
    num_output: 128
    pad: 1
    kernel_size: 3
    weight_filler {
      type: "xavier"
      std: 0.03
    }
    bias_filler {
      type: "constant"
      value: 0.2
    }
  }
}
layer {
  name: "inception_3a/relu_3x3"
  type: "ReLU"
  bottom: "inception_3a/3x3"
  top: "inception_3a/3x3"
}
layer {
  name: "inception_3a/5x5_reduce"
  type: "Convolution"
  bottom: "pool2/3x3_s2"
  top: "inception_3a/5x5_reduce"
  param {
    lr_mult: 1
    decay_mult: 1
  }
  param {
    lr_mult: 2
    decay_mult: 0
  }
  convolution_param {
    num_output: 16
    kernel_size: 1
    weight_filler {
      type: "xavier"
      std: 0.2
    }
    bias_filler {
      type: "constant"
      value: 0.2
    }
  }
}
layer {
  name: "inception_3a/relu_5x5_reduce"
  type: "ReLU"
  bottom: "inception_3a/5x5_reduce"
  top: "inception_3a/5x5_reduce"
}
layer {
  name: "inception_3a/5x5"
  type: "Convolution"
  bottom: "inception_3a/5x5_reduce"
  top: "inception_3a/5x5"
  param {
    lr_mult: 1
    decay_mult: 1
  }
  param {
    lr_mult: 2
    decay_mult: 0
  }
  convolution_param {
    num_output: 32
    pad: 2
    kernel_size: 5
    weight_filler {
      type: "xavier"
      std: 0.03
    }
    bias_filler {
      type: "constant"
      value: 0.2
    }
  }
}
layer {
  name: "inception_3a/relu_5x5"
  type: "ReLU"
  bottom: "inception_3a/5x5"
  top: "inception_3a/5x5"
}
layer {
  name: "inception_3a/pool"
  type: "Pooling"
  bottom: "pool2/3x3_s2"
  top: "inception_3a/pool"
  pooling_param {
    pool: MAX
    kernel_size: 3
    stride: 1
    pad: 1
  }
}
layer {
  name: "inception_3a/pool_proj"
  type: "Convolution"
  bottom: "inception_3a/pool"
  top: "inception_3a/pool_proj"
  param {
    lr_mult: 1
    decay_mult: 1
  }
  param {
    lr_mult: 2
    decay_mult: 0
  }
  convolution_param {
    num_output: 32
    kernel_size: 1
    weight_filler {
      type: "xavier"
      std: 0.1
    }
    bias_filler {
      type: "constant"
      value: 0.2
    }
  }
}
layer {
  name: "inception_3a/relu_pool_proj"
  type: "ReLU"
  bottom: "inception_3a/pool_proj"
  top: "inception_3a/pool_proj"
}
layer {
  name: "inception_3a/output"
  type: "Concat"
  bottom: "inception_3a/1x1"
  bottom: "inception_3a/3x3"
  bottom: "inception_3a/5x5"
  bottom: "inception_3a/pool_proj"
  top: "inception_3a/output"
}
layer {
  name: "inception_3b/1x1"
  type: "Convolution"
  bottom: "inception_3a/output"
  top: "inception_3b/1x1"
  param {
    lr_mult: 1
    decay_mult: 1
  }
  param {
    lr_mult: 2
    decay_mult: 0
  }
  convolution_param {
    num_output: 128
    kernel_size: 1
    weight_filler {
      type: "xavier"
      std: 0.03
    }
    bias_filler {
      type: "constant"
      value: 0.2
    }
  }
}
layer {
  name: "inception_3b/relu_1x1"
  type: "ReLU"
  bottom: "inception_3b/1x1"
  top: "inception_3b/1x1"
}
layer {
  name: "inception_3b/3x3_reduce"
  type: "Convolution"
  bottom: "inception_3a/output"
  top: "inception_3b/3x3_reduce"
  param {
    lr_mult: 1
    decay_mult: 1
  }
  param {
    lr_mult: 2
    decay_mult: 0
  }
  convolution_param {
    num_output: 128
    kernel_size: 1
    weight_filler {
      type: "xavier"
      std: 0.09
    }
    bias_filler {
      type: "constant"
      value: 0.2
    }
  }
}
layer {
  name: "inception_3b/relu_3x3_reduce"
  type: "ReLU"
  bottom: "inception_3b/3x3_reduce"
  top: "inception_3b/3x3_reduce"
}
layer {
  name: "inception_3b/3x3"
  type: "Convolution"
  bottom: "inception_3b/3x3_reduce"
  top: "inception_3b/3x3"
  param {
    lr_mult: 1
    decay_mult: 1
  }
  param {
    lr_mult: 2
    decay_mult: 0
  }
  convolution_param {
    num_output: 192
    pad: 1
    kernel_size: 3
    weight_filler {
      type: "xavier"
      std: 0.03
    }
    bias_filler {
      type: "constant"
      value: 0.2
    }
  }
}
layer {
  name: "inception_3b/relu_3x3"
  type: "ReLU"
  bottom: "inception_3b/3x3"
  top: "inception_3b/3x3"
}
layer {
  name: "inception_3b/5x5_reduce"
  type: "Convolution"
  bottom: "inception_3a/output"
  top: "inception_3b/5x5_reduce"
  param {
    lr_mult: 1
    decay_mult: 1
  }
  param {
    lr_mult: 2
    decay_mult: 0
  }
  convolution_param {
    num_output: 32
    kernel_size: 1
    weight_filler {
      type: "xavier"
      std: 0.2
    }
    bias_filler {
      type: "constant"
      value: 0.2
    }
  }
}
layer {
  name: "inception_3b/relu_5x5_reduce"
  type: "ReLU"
  bottom: "inception_3b/5x5_reduce"
  top: "inception_3b/5x5_reduce"
}
layer {
  name: "inception_3b/5x5"
  type: "Convolution"
  bottom: "inception_3b/5x5_reduce"
  top: "inception_3b/5x5"
  param {
    lr_mult: 1
    decay_mult: 1
  }
  param {
    lr_mult: 2
    decay_mult: 0
  }
  convolution_param {
    num_output: 96
    pad: 2
    kernel_size: 5
    weight_filler {
      type: "xavier"
      std: 0.03
    }
    bias_filler {
      type: "constant"
      value: 0.2
    }
  }
}
layer {
  name: "inception_3b/relu_5x5"
  type: "ReLU"
  bottom: "inception_3b/5x5"
  top: "inception_3b/5x5"
}
layer {
  name: "inception_3b/pool"
  type: "Pooling"
  bottom: "inception_3a/output"
  top: "inception_3b/pool"
  pooling_param {
    pool: MAX
    kernel_size: 3
    stride: 1
    pad: 1
  }
}
layer {
  name: "inception_3b/pool_proj"
  type: "Convolution"
  bottom: "inception_3b/pool"
  top: "inception_3b/pool_proj"
  param {
    lr_mult: 1
    decay_mult: 1
  }
  param {
    lr_mult: 2
    decay_mult: 0
  }
  convolution_param {
    num_output: 64
    kernel_size: 1
    weight_filler {
      type: "xavier"
      std: 0.1
    }
    bias_filler {
      type: "constant"
      value: 0.2
    }
  }
}
layer {
  name: "inception_3b/relu_pool_proj"
  type: "ReLU"
  bottom: "inception_3b/pool_proj"
  top: "inception_3b/pool_proj"
}
layer {
  name: "inception_3b/output"
  type: "Concat"
  bottom: "inception_3b/1x1"
  bottom: "inception_3b/3x3"
  bottom: "inception_3b/5x5"
  bottom: "inception_3b/pool_proj"
  top: "inception_3b/output"
}
layer {
  name: "pool3/3x3_s2"
  type: "Pooling"
  bottom: "inception_3b/output"
  top: "pool3/3x3_s2"
  pooling_param {
    pool: MAX
    kernel_size: 3
    stride: 2
  }
}
layer {
  name: "inception_4a/1x1"
  type: "Convolution"
  bottom: "pool3/3x3_s2"
  top: "inception_4a/1x1"
  param {
    lr_mult: 1
    decay_mult: 1
  }
  param {
    lr_mult: 2
    decay_mult: 0
  }
  convolution_param {
    num_output: 192
    kernel_size: 1
    weight_filler {
      type: "xavier"
      std: 0.03
    }
    bias_filler {
      type: "constant"
      value: 0.2
    }
  }
}
layer {
  name: "inception_4a/relu_1x1"
  type: "ReLU"
  bottom: "inception_4a/1x1"
  top: "inception_4a/1x1"
}
layer {
  name: "inception_4a/3x3_reduce"
  type: "Convolution"
  bottom: "pool3/3x3_s2"
  top: "inception_4a/3x3_reduce"
  param {
    lr_mult: 1
    decay_mult: 1
  }
  param {
    lr_mult: 2
    decay_mult: 0
  }
  convolution_param {
    num_output: 96
    kernel_size: 1
    weight_filler {
      type: "xavier"
      std: 0.09
    }
    bias_filler {
      type: "constant"
      value: 0.2
    }
  }
}
layer {
  name: "inception_4a/relu_3x3_reduce"
  type: "ReLU"
  bottom: "inception_4a/3x3_reduce"
  top: "inception_4a/3x3_reduce"
}
layer {
  name: "inception_4a/3x3"
  type: "Convolution"
  bottom: "inception_4a/3x3_reduce"
  top: "inception_4a/3x3"
  param {
    lr_mult: 1
    decay_mult: 1
  }
  param {
    lr_mult: 2
    decay_mult: 0
  }
  convolution_param {
    num_output: 208
    pad: 1
    kernel_size: 3
    weight_filler {
      type: "xavier"
      std: 0.03
    }
    bias_filler {
      type: "constant"
      value: 0.2
    }
  }
}
layer {
  name: "inception_4a/relu_3x3"
  type: "ReLU"
  bottom: "inception_4a/3x3"
  top: "inception_4a/3x3"
}
layer {
  name: "inception_4a/5x5_reduce"
  type: "Convolution"
  bottom: "pool3/3x3_s2"
  top: "inception_4a/5x5_reduce"
  param {
    lr_mult: 1
    decay_mult: 1
  }
  param {
    lr_mult: 2
    decay_mult: 0
  }
  convolution_param {
    num_output: 16
    kernel_size: 1
    weight_filler {
      type: "xavier"
      std: 0.2
    }
    bias_filler {
      type: "constant"
      value: 0.2
    }
  }
}
layer {
  name: "inception_4a/relu_5x5_reduce"
  type: "ReLU"
  bottom: "inception_4a/5x5_reduce"
  top: "inception_4a/5x5_reduce"
}
layer {
  name: "inception_4a/5x5"
  type: "Convolution"
  bottom: "inception_4a/5x5_reduce"
  top: "inception_4a/5x5"
  param {
    lr_mult: 1
    decay_mult: 1
  }
  param {
    lr_mult: 2
    decay_mult: 0
  }
  convolution_param {
    num_output: 48
    pad: 2
    kernel_size: 5
    weight_filler {
      type: "xavier"
      std: 0.03
    }
    bias_filler {
      type: "constant"
      value: 0.2
    }
  }
}
layer {
  name: "inception_4a/relu_5x5"
  type: "ReLU"
  bottom: "inception_4a/5x5"
  top: "inception_4a/5x5"
}
layer {
  name: "inception_4a/pool"
  type: "Pooling"
  bottom: "pool3/3x3_s2"
  top: "inception_4a/pool"
  pooling_param {
    pool: MAX
    kernel_size: 3
    stride: 1
    pad: 1
  }
}
layer {
  name: "inception_4a/pool_proj"
  type: "Convolution"
  bottom: "inception_4a/pool"
  top: "inception_4a/pool_proj"
  param {
    lr_mult: 1
    decay_mult: 1
  }
  param {
    lr_mult: 2
    decay_mult: 0
  }
  convolution_param {
    num_output: 64
    kernel_size: 1
    weight_filler {
      type: "xavier"
      std: 0.1
    }
    bias_filler {
      type: "constant"
      value: 0.2
    }
  }
}
layer {
  name: "inception_4a/relu_pool_proj"
  type: "ReLU"
  bottom: "inception_4a/pool_proj"
  top: "inception_4a/pool_proj"
}
layer {
  name: "inception_4a/output"
  type: "Concat"
  bottom: "inception_4a/1x1"
  bottom: "inception_4a/3x3"
  bottom: "inception_4a/5x5"
  bottom: "inception_4a/pool_proj"
  top: "inception_4a/output"
}
layer {
  name: "loss1/ave_pool"
  type: "Pooling"
  bottom: "inception_4a/output"
  top: "loss1/ave_pool"
  pooling_param {
    pool: AVE
    kernel_size: 5
    stride: 3
  }
}
layer {
  name: "loss1/conv"
  type: "Convolution"
  bottom: "loss1/ave_pool"
  top: "loss1/conv"
  param {
    lr_mult: 1
    decay_mult: 1
  }
  param {
    lr_mult: 2
    decay_mult: 0
  }
  convolution_param {
    num_output: 128
    kernel_size: 1
    weight_filler {
      type: "xavier"
      std: 0.08
    }
    bias_filler {
      type: "constant"
      value: 0.2
    }
  }
}
layer {
  name: "loss1/relu_conv"
  type: "ReLU"
  bottom: "loss1/conv"
  top: "loss1/conv"
}
layer {
  name: "loss1/fc"
  type: "InnerProduct"
  bottom: "loss1/conv"
  top: "loss1/fc"
  param {
    lr_mult: 1
    decay_mult: 1
  }
  param {
    lr_mult: 2
    decay_mult: 0
  }
  inner_product_param {
    num_output: 1024
    weight_filler {
      type: "xavier"
      std: 0.02
    }
    bias_filler {
      type: "constant"
      value: 0.2
    }
  }
}
layer {
  name: "loss1/relu_fc"
  type: "ReLU"
  bottom: "loss1/fc"
  top: "loss1/fc"
}
layer {
  name: "loss1/drop_fc"
  type: "Dropout"
  bottom: "loss1/fc"
  top: "loss1/fc"
  dropout_param {
    dropout_ratio: 0.7
  }
}
layer {
  name: "loss1/classifier_plantvillage"
  type: "InnerProduct"
  bottom: "loss1/fc"
  top: "loss1/classifier_plantvillage"
  param {
    lr_mult: 1
    decay_mult: 1
  }
  param {
    lr_mult: 2
    decay_mult: 0
  }
  inner_product_param {
    num_output: 38
    weight_filler {
      type: "xavier"
      std: 0.0009765625
    }
    bias_filler {
      type: "constant"
      value: 0
    }
  }
}
layer {
  name: "inception_4b/1x1"
  type: "Convolution"
  bottom: "inception_4a/output"
  top: "inception_4b/1x1"
  param {
    lr_mult: 1
    decay_mult: 1
  }
  param {
    lr_mult: 2
    decay_mult: 0
  }
  convolution_param {
    num_output: 160
    kernel_size: 1
    weight_filler {
      type: "xavier"
      std: 0.03
    }
    bias_filler {
      type: "constant"
      value: 0.2
    }
  }
}
layer {
  name: "inception_4b/relu_1x1"
…
I0403 04:30:45.209710 21847 layer_factory.hpp:77] Creating layer inception_4c/pool
I0403 04:30:45.209728 21847 net.cpp:91] Creating Layer inception_4c/pool
I0403 04:30:45.209746 21847 net.cpp:425] inception_4c/pool <- inception_4b/output_inception_4b/output_0_split_3
I0403 04:30:45.209765 21847 net.cpp:399] inception_4c/pool -> inception_4c/pool
I0403 04:30:45.209827 21847 net.cpp:141] Setting up inception_4c/pool
I0403 04:30:45.209852 21847 net.cpp:148] Top shape: 24 512 14 14 (2408448)
I0403 04:30:45.209868 21847 net.cpp:156] Memory required for data: 1060605120
I0403 04:30:45.209883 21847 layer_factory.hpp:77] Creating layer inception_4c/pool_proj
I0403 04:30:45.209908 21847 net.cpp:91] Creating Layer inception_4c/pool_proj
I0403 04:30:45.209926 21847 net.cpp:425] inception_4c/pool_proj <- inception_4c/pool
I0403 04:30:45.209949 21847 net.cpp:399] inception_4c/pool_proj -> inception_4c/pool_proj
I0403 04:30:45.210397 21847 net.cpp:141] Setting up inception_4c/pool_proj
I0403 04:30:45.210422 21847 net.cpp:148] Top shape: 24 64 14 14 (301056)
I0403 04:30:45.210438 21847 net.cpp:156] Memory required for data: 1061809344
I0403 04:30:45.210456 21847 layer_factory.hpp:77] Creating layer inception_4c/relu_pool_proj
I0403 04:30:45.210475 21847 net.cpp:91] Creating Layer inception_4c/relu_pool_proj
I0403 04:30:45.210492 21847 net.cpp:425] inception_4c/relu_pool_proj <- inception_4c/pool_proj
I0403 04:30:45.210512 21847 net.cpp:386] inception_4c/relu_pool_proj -> inception_4c/pool_proj (in-place)
I0403 04:30:45.210531 21847 net.cpp:141] Setting up inception_4c/relu_pool_proj
I0403 04:30:45.210548 21847 net.cpp:148] Top shape: 24 64 14 14 (301056)
I0403 04:30:45.210563 21847 net.cpp:156] Memory required for data: 1063013568
I0403 04:30:45.210578 21847 layer_factory.hpp:77] Creating layer inception_4c/output
I0403 04:30:45.210600 21847 net.cpp:91] Creating Layer inception_4c/output
I0403 04:30:45.210619 21847 net.cpp:425] inception_4c/output <- inception_4c/1x1
I0403 04:30:45.210636 21847 net.cpp:425] inception_4c/output <- inception_4c/3x3
I0403 04:30:45.210652 21847 net.cpp:425] inception_4c/output <- inception_4c/5x5
I0403 04:30:45.210669 21847 net.cpp:425] inception_4c/output <- inception_4c/pool_proj
I0403 04:30:45.210687 21847 net.cpp:399] inception_4c/output -> inception_4c/output
I0403 04:30:45.210731 21847 net.cpp:141] Setting up inception_4c/output
I0403 04:30:45.210755 21847 net.cpp:148] Top shape: 24 512 14 14 (2408448)
I0403 04:30:45.210772 21847 net.cpp:156] Memory required for data: 1072647360
I0403 04:30:45.210786 21847 layer_factory.hpp:77] Creating layer inception_4c/output_inception_4c/output_0_split
I0403 04:30:45.210804 21847 net.cpp:91] Creating Layer inception_4c/output_inception_4c/output_0_split
I0403 04:30:45.210820 21847 net.cpp:425] inception_4c/output_inception_4c/output_0_split <- inception_4c/output
I0403 04:30:45.210839 21847 net.cpp:399] inception_4c/output_inception_4c/output_0_split -> inception_4c/output_inception_4c/output_0_split_0
I0403 04:30:45.210862 21847 net.cpp:399] inception_4c/output_inception_4c/output_0_split -> inception_4c/output_inception_4c/output_0_split_1
I0403 04:30:45.210886 21847 net.cpp:399] inception_4c/output_inception_4c/output_0_split -> inception_4c/output_inception_4c/output_0_split_2
I0403 04:30:45.210907 21847 net.cpp:399] inception_4c/output_inception_4c/output_0_split -> inception_4c/output_inception_4c/output_0_split_3
I0403 04:30:45.211000 21847 net.cpp:141] Setting up inception_4c/output_inception_4c/output_0_split
I0403 04:30:45.211024 21847 net.cpp:148] Top shape: 24 512 14 14 (2408448)
I0403 04:30:45.211041 21847 net.cpp:148] Top shape: 24 512 14 14 (2408448)
I0403 04:30:45.211057 21847 net.cpp:148] Top shape: 24 512 14 14 (2408448)
I0403 04:30:45.211073 21847 net.cpp:148] Top shape: 24 512 14 14 (2408448)
I0403 04:30:45.211088 21847 net.cpp:156] Memory required for data: 1111182528
I0403 04:30:45.211104 21847 layer_factory.hpp:77] Creating layer inception_4d/1x1
I0403 04:30:45.211127 21847 net.cpp:91] Creating Layer inception_4d/1x1
I0403 04:30:45.211146 21847 net.cpp:425] inception_4d/1x1 <- inception_4c/output_inception_4c/output_0_split_0
I0403 04:30:45.211170 21847 net.cpp:399] inception_4d/1x1 -> inception_4d/1x1
I0403 04:30:45.211746 21847 net.cpp:141] Setting up inception_4d/1x1
I0403 04:30:45.211772 21847 net.cpp:148] Top shape: 24 112 14 14 (526848)
I0403 04:30:45.211788 21847 net.cpp:156] Memory required for data: 1113289920
I0403 04:30:45.211812 21847 layer_factory.hpp:77] Creating layer inception_4d/relu_1x1
I0403 04:30:45.211838 21847 net.cpp:91] Creating Layer inception_4d/relu_1x1
I0403 04:30:45.211860 21847 net.cpp:425] inception_4d/relu_1x1 <- inception_4d/1x1
I0403 04:30:45.211889 21847 net.cpp:386] inception_4d/relu_1x1 -> inception_4d/1x1 (in-place)
I0403 04:30:45.211917 21847 net.cpp:141] Setting up inception_4d/relu_1x1
I0403 04:30:45.211942 21847 net.cpp:148] Top shape: 24 112 14 14 (526848)
I0403 04:30:45.211961 21847 net.cpp:156] Memory required for data: 1115397312
I0403 04:30:45.211974 21847 layer_factory.hpp:77] Creating layer inception_4d/3x3_reduce
I0403 04:30:45.211997 21847 net.cpp:91] Creating Layer inception_4d/3x3_reduce
I0403 04:30:45.212014 21847 net.cpp:425] inception_4d/3x3_reduce <- inception_4c/output_inception_4c/output_0_split_1
I0403 04:30:45.212038 21847 net.cpp:399] inception_4d/3x3_reduce -> inception_4d/3x3_reduce
I0403 04:30:45.212730 21847 net.cpp:141] Setting up inception_4d/3x3_reduce
I0403 04:30:45.212759 21847 net.cpp:148] Top shape: 24 144 14 14 (677376)
I0403 04:30:45.212774 21847 net.cpp:156] Memory required for data: 1118106816
I0403 04:30:45.212793 21847 layer_factory.hpp:77] Creating layer inception_4d/relu_3x3_reduce
I0403 04:30:45.212812 21847 net.cpp:91] Creating Layer inception_4d/relu_3x3_reduce
I0403 04:30:45.212831 21847 net.cpp:425] inception_4d/relu_3x3_reduce <- inception_4d/3x3_reduce
I0403 04:30:45.212848 21847 net.cpp:386] inception_4d/relu_3x3_reduce -> inception_4d/3x3_reduce (in-place)
I0403 04:30:45.212868 21847 net.cpp:141] Setting up inception_4d/relu_3x3_reduce
I0403 04:30:45.212885 21847 net.cpp:148] Top shape: 24 144 14 14 (677376)
I0403 04:30:45.212900 21847 net.cpp:156] Memory required for data: 1120816320
I0403 04:30:45.212915 21847 layer_factory.hpp:77] Creating layer inception_4d/3x3
I0403 04:30:45.212939 21847 net.cpp:91] Creating Layer inception_4d/3x3
I0403 04:30:45.212957 21847 net.cpp:425] inception_4d/3x3 <- inception_4d/3x3_reduce
I0403 04:30:45.212978 21847 net.cpp:399] inception_4d/3x3 -> inception_4d/3x3
I0403 04:30:45.216338 21847 net.cpp:141] Setting up inception_4d/3x3
I0403 04:30:45.216372 21847 net.cpp:148] Top shape: 24 288 14 14 (1354752)
I0403 04:30:45.216390 21847 net.cpp:156] Memory required for data: 1126235328
I0403 04:30:45.216410 21847 layer_factory.hpp:77] Creating layer inception_4d/relu_3x3
I0403 04:30:45.216431 21847 net.cpp:91] Creating Layer inception_4d/relu_3x3
I0403 04:30:45.216449 21847 net.cpp:425] inception_4d/relu_3x3 <- inception_4d/3x3
I0403 04:30:45.216469 21847 net.cpp:386] inception_4d/relu_3x3 -> inception_4d/3x3 (in-place)
I0403 04:30:45.216490 21847 net.cpp:141] Setting up inception_4d/relu_3x3
I0403 04:30:45.216508 21847 net.cpp:148] Top shape: 24 288 14 14 (1354752)
I0403 04:30:45.216524 21847 net.cpp:156] Memory required for data: 1131654336
I0403 04:30:45.216539 21847 layer_factory.hpp:77] Creating layer inception_4d/5x5_reduce
I0403 04:30:45.216579 21847 net.cpp:91] Creating Layer inception_4d/5x5_reduce
I0403 04:30:45.216599 21847 net.cpp:425] inception_4d/5x5_reduce <- inception_4c/output_inception_4c/output_0_split_2
I0403 04:30:45.216624 21847 net.cpp:399] inception_4d/5x5_reduce -> inception_4d/5x5_reduce
I0403 04:30:45.216995 21847 net.cpp:141] Setting up inception_4d/5x5_reduce
I0403 04:30:45.217021 21847 net.cpp:148] Top shape: 24 32 14 14 (150528)
I0403 04:30:45.217037 21847 net.cpp:156] Memory required for data: 1132256448
I0403 04:30:45.217057 21847 layer_factory.hpp:77] Creating layer inception_4d/relu_5x5_reduce
I0403 04:30:45.217078 21847 net.cpp:91] Creating Layer inception_4d/relu_5x5_reduce
I0403 04:30:45.217097 21847 net.cpp:425] inception_4d/relu_5x5_reduce <- inception_4d/5x5_reduce
I0403 04:30:45.217128 21847 net.cpp:386] inception_4d/relu_5x5_reduce -> inception_4d/5x5_reduce (in-place)
I0403 04:30:45.217149 21847 net.cpp:141] Setting up inception_4d/relu_5x5_reduce
I0403 04:30:45.217166 21847 net.cpp:148] Top shape: 24 32 14 14 (150528)
I0403 04:30:45.217181 21847 net.cpp:156] Memory required for data: 1132858560
I0403 04:30:45.217196 21847 layer_factory.hpp:77] Creating layer inception_4d/5x5
I0403 04:30:45.217224 21847 net.cpp:91] Creating Layer inception_4d/5x5
I0403 04:30:45.217244 21847 net.cpp:425] inception_4d/5x5 <- inception_4d/5x5_reduce
I0403 04:30:45.217268 21847 net.cpp:399] inception_4d/5x5 -> inception_4d/5x5
I0403 04:30:45.217811 21847 net.cpp:141] Setting up inception_4d/5x5
I0403 04:30:45.217836 21847 net.cpp:148] Top shape: 24 64 14 14 (301056)
I0403 04:30:45.217852 21847 net.cpp:156] Memory required for data: 1134062784
I0403 04:30:45.217870 21847 layer_factory.hpp:77] Creating layer inception_4d/relu_5x5
I0403 04:30:45.217890 21847 net.cpp:91] Creating Layer inception_4d/relu_5x5
I0403 04:30:45.217908 21847 net.cpp:425] inception_4d/relu_5x5 <- inception_4d/5x5
I0403 04:30:45.217927 21847 net.cpp:386] inception_4d/relu_5x5 -> inception_4d/5x5 (in-place)
I0403 04:30:45.217947 21847 net.cpp:141] Setting up inception_4d/relu_5x5
I0403 04:30:45.217964 21847 net.cpp:148] Top shape: 24 64 14 14 (301056)
I0403 04:30:45.217979 21847 net.cpp:156] Memory required for data: 1135267008
I0403 04:30:45.217994 21847 layer_factory.hpp:77] Creating layer inception_4d/pool
I0403 04:30:45.218016 21847 net.cpp:91] Creating Layer inception_4d/pool
I0403 04:30:45.218034 21847 net.cpp:425] inception_4d/pool <- inception_4c/output_inception_4c/output_0_split_3
I0403 04:30:45.218052 21847 net.cpp:399] inception_4d/pool -> inception_4d/pool
I0403 04:30:45.218109 21847 net.cpp:141] Setting up inception_4d/pool
I0403 04:30:45.218133 21847 net.cpp:148] Top shape: 24 512 14 14 (2408448)
I0403 04:30:45.218148 21847 net.cpp:156] Memory required for data: 1144900800
I0403 04:30:45.218164 21847 layer_factory.hpp:77] Creating layer inception_4d/pool_proj
I0403 04:30:45.218190 21847 net.cpp:91] Creating Layer inception_4d/pool_proj
I0403 04:30:45.218212 21847 net.cpp:425] inception_4d/pool_proj <- inception_4d/pool
I0403 04:30:45.218235 21847 net.cpp:399] inception_4d/pool_proj -> inception_4d/pool_proj
I0403 04:30:45.218670 21847 net.cpp:141] Setting up inception_4d/pool_proj
I0403 04:30:45.218696 21847 net.cpp:148] Top shape: 24 64 14 14 (301056)
I0403 04:30:45.218713 21847 net.cpp:156] Memory required for data: 1146105024
I0403 04:30:45.218730 21847 layer_factory.hpp:77] Creating layer inception_4d/relu_pool_proj
I0403 04:30:45.218750 21847 net.cpp:91] Creating Layer inception_4d/relu_pool_proj
I0403 04:30:45.218771 21847 net.cpp:425] inception_4d/relu_pool_proj <- inception_4d/pool_proj
I0403 04:30:45.218791 21847 net.cpp:386] inception_4d/relu_pool_proj -> inception_4d/pool_proj (in-place)
I0403 04:30:45.218809 21847 net.cpp:141] Setting up inception_4d/relu_pool_proj
I0403 04:30:45.218828 21847 net.cpp:148] Top shape: 24 64 14 14 (301056)
I0403 04:30:45.218844 21847 net.cpp:156] Memory required for data: 1147309248
I0403 04:30:45.218859 21847 layer_factory.hpp:77] Creating layer inception_4d/output
I0403 04:30:45.218878 21847 net.cpp:91] Creating Layer inception_4d/output
I0403 04:30:45.218909 21847 net.cpp:425] inception_4d/output <- inception_4d/1x1
I0403 04:30:45.218926 21847 net.cpp:425] inception_4d/output <- inception_4d/3x3
I0403 04:30:45.218943 21847 net.cpp:425] inception_4d/output <- inception_4d/5x5
I0403 04:30:45.218961 21847 net.cpp:425] inception_4d/output <- inception_4d/pool_proj
I0403 04:30:45.218979 21847 net.cpp:399] inception_4d/output -> inception_4d/output
I0403 04:30:45.219022 21847 net.cpp:141] Setting up inception_4d/output
I0403 04:30:45.219046 21847 net.cpp:148] Top shape: 24 528 14 14 (2483712)
I0403 04:30:45.219061 21847 net.cpp:156] Memory required for data: 1157244096
I0403 04:30:45.219076 21847 layer_factory.hpp:77] Creating layer inception_4d/output_inception_4d/output_0_split
I0403 04:30:45.219097 21847 net.cpp:91] Creating Layer inception_4d/output_inception_4d/output_0_split
I0403 04:30:45.219115 21847 net.cpp:425] inception_4d/output_inception_4d/output_0_split <- inception_4d/output
I0403 04:30:45.219133 21847 net.cpp:399] inception_4d/output_inception_4d/output_0_split -> inception_4d/output_inception_4d/output_0_split_0
I0403 04:30:45.219154 21847 net.cpp:399] inception_4d/output_inception_4d/output_0_split -> inception_4d/output_inception_4d/output_0_split_1
I0403 04:30:45.219175 21847 net.cpp:399] inception_4d/output_inception_4d/output_0_split -> inception_4d/output_inception_4d/output_0_split_2
I0403 04:30:45.219197 21847 net.cpp:399] inception_4d/output_inception_4d/output_0_split -> inception_4d/output_inception_4d/output_0_split_3
I0403 04:30:45.219225 21847 net.cpp:399] inception_4d/output_inception_4d/output_0_split -> inception_4d/output_inception_4d/output_0_split_4
I0403 04:30:45.219317 21847 net.cpp:141] Setting up inception_4d/output_inception_4d/output_0_split
I0403 04:30:45.219341 21847 net.cpp:148] Top shape: 24 528 14 14 (2483712)
I0403 04:30:45.219364 21847 net.cpp:148] Top shape: 24 528 14 14 (2483712)
I0403 04:30:45.219388 21847 net.cpp:148] Top shape: 24 528 14 14 (2483712)
I0403 04:30:45.219411 21847 net.cpp:148] Top shape: 24 528 14 14 (2483712)
I0403 04:30:45.219432 21847 net.cpp:148] Top shape: 24 528 14 14 (2483712)
I0403 04:30:45.219447 21847 net.cpp:156] Memory required for data: 1206918336
I0403 04:30:45.219465 21847 layer_factory.hpp:77] Creating layer loss2/ave_pool
I0403 04:30:45.219483 21847 net.cpp:91] Creating Layer loss2/ave_pool
I0403 04:30:45.219501 21847 net.cpp:425] loss2/ave_pool <- inception_4d/output_inception_4d/output_0_split_0
I0403 04:30:45.219523 21847 net.cpp:399] loss2/ave_pool -> loss2/ave_pool
I0403 04:30:45.219566 21847 net.cpp:141] Setting up loss2/ave_pool
I0403 04:30:45.219588 21847 net.cpp:148] Top shape: 24 528 4 4 (202752)
I0403 04:30:45.219604 21847 net.cpp:156] Memory required for data: 1207729344
I0403 04:30:45.219619 21847 layer_factory.hpp:77] Creating layer loss2/conv
I0403 04:30:45.219648 21847 net.cpp:91] Creating Layer loss2/conv
I0403 04:30:45.219667 21847 net.cpp:425] loss2/conv <- loss2/ave_pool
I0403 04:30:45.219687 21847 net.cpp:399] loss2/conv -> loss2/conv
I0403 04:30:45.220873 21847 net.cpp:141] Setting up loss2/conv
I0403 04:30:45.220904 21847 net.cpp:148] Top shape: 24 128 4 4 (49152)
I0403 04:30:45.220922 21847 net.cpp:156] Memory required for data: 1207925952
I0403 04:30:45.220942 21847 layer_factory.hpp:77] Creating layer loss2/relu_conv
I0403 04:30:45.220962 21847 net.cpp:91] Creating Layer loss2/relu_conv
I0403 04:30:45.220979 21847 net.cpp:425] loss2/relu_conv <- loss2/conv
I0403 04:30:45.220999 21847 net.cpp:386] loss2/relu_conv -> loss2/conv (in-place)
I0403 04:30:45.221019 21847 net.cpp:141] Setting up loss2/relu_conv
I0403 04:30:45.221036 21847 net.cpp:148] Top shape: 24 128 4 4 (49152)
I0403 04:30:45.221051 21847 net.cpp:156] Memory required for data: 1208122560
I0403 04:30:45.221066 21847 layer_factory.hpp:77] Creating layer loss2/fc
I0403 04:30:45.221091 21847 net.cpp:91] Creating Layer loss2/fc
I0403 04:30:45.221108 21847 net.cpp:425] loss2/fc <- loss2/conv
I0403 04:30:45.221130 21847 net.cpp:399] loss2/fc -> loss2/fc
I0403 04:30:45.237493 21847 net.cpp:141] Setting up loss2/fc
I0403 04:30:45.237543 21847 net.cpp:148] Top shape: 24 1024 (24576)
I0403 04:30:45.237562 21847 net.cpp:156] Memory required for data: 1208220864
I0403 04:30:45.237586 21847 layer_factory.hpp:77] Creating layer loss2/relu_fc
I0403 04:30:45.237607 21847 net.cpp:91] Creating Layer loss2/relu_fc
I0403 04:30:45.237632 21847 net.cpp:425] loss2/relu_fc <- loss2/fc
I0403 04:30:45.237658 21847 net.cpp:386] loss2/relu_fc -> loss2/fc (in-place)
I0403 04:30:45.237687 21847 net.cpp:141] Setting up loss2/relu_fc
I0403 04:30:45.237711 21847 net.cpp:148] Top shape: 24 1024 (24576)
I0403 04:30:45.237733 21847 net.cpp:156] Memory required for data: 1208319168
I0403 04:30:45.237761 21847 layer_factory.hpp:77] Creating layer loss2/drop_fc
I0403 04:30:45.237784 21847 net.cpp:91] Creating Layer loss2/drop_fc
I0403 04:30:45.237804 21847 net.cpp:425] loss2/drop_fc <- loss2/fc
I0403 04:30:45.237825 21847 net.cpp:386] loss2/drop_fc -> loss2/fc (in-place)
I0403 04:30:45.237898 21847 net.cpp:141] Setting up loss2/drop_fc
I0403 04:30:45.237925 21847 net.cpp:148] Top shape: 24 1024 (24576)
I0403 04:30:45.237946 21847 net.cpp:156] Memory required for data: 1208417472
I0403 04:30:45.237965 21847 layer_factory.hpp:77] Creating layer loss2/classifier_plantvillage
I0403 04:30:45.237990 21847 net.cpp:91] Creating Layer loss2/classifier_plantvillage
I0403 04:30:45.238011 21847 net.cpp:425] loss2/classifier_plantvillage <- loss2/fc
I0403 04:30:45.238039 21847 net.cpp:399] loss2/classifier_plantvillage -> loss2/classifier_plantvillage
I0403 04:30:45.238436 21847 net.cpp:141] Setting up loss2/classifier_plantvillage
I0403 04:30:45.238462 21847 net.cpp:148] Top shape: 24 38 (912)
I0403 04:30:45.238477 21847 net.cpp:156] Memory required for data: 1208421120
I0403 04:30:45.238495 21847 layer_factory.hpp:77] Creating layer loss2/classifier_plantvillage_loss2/classifier_plantvillage_0_split
I0403 04:30:45.238515 21847 net.cpp:91] Creating Layer loss2/classifier_plantvillage_loss2/classifier_plantvillage_0_split
I0403 04:30:45.238533 21847 net.cpp:425] loss2/classifier_plantvillage_loss2/classifier_plantvillage_0_split <- loss2/classifier_plantvillage
I0403 04:30:45.238553 21847 net.cpp:399] loss2/classifier_plantvillage_loss2/classifier_plantvillage_0_split -> loss2/classifier_plantvillage_loss2/classifier_plantvillage_0_split_0
I0403 04:30:45.238577 21847 net.cpp:399] loss2/classifier_plantvillage_loss2/classifier_plantvillage_0_split -> loss2/classifier_plantvillage_loss2/classifier_plantvillage_0_split_1
I0403 04:30:45.238598 21847 net.cpp:399] loss2/classifier_plantvillage_loss2/classifier_plantvillage_0_split -> loss2/classifier_plantvillage_loss2/classifier_plantvillage_0_split_2
I0403 04:30:45.238667 21847 net.cpp:141] Setting up loss2/classifier_plantvillage_loss2/classifier_plantvillage_0_split
I0403 04:30:45.238692 21847 net.cpp:148] Top shape: 24 38 (912)
I0403 04:30:45.238708 21847 net.cpp:148] Top shape: 24 38 (912)
I0403 04:30:45.238724 21847 net.cpp:148] Top shape: 24 38 (912)
I0403 04:30:45.238739 21847 net.cpp:156] Memory required for data: 1208432064
I0403 04:30:45.238754 21847 layer_factory.hpp:77] Creating layer inception_4e/1x1
I0403 04:30:45.238783 21847 net.cpp:91] Creating Layer inception_4e/1x1
I0403 04:30:45.238803 21847 net.cpp:425] inception_4e/1x1 <- inception_4d/output_inception_4d/output_0_split_1
I0403 04:30:45.238823 21847 net.cpp:399] inception_4e/1x1 -> inception_4e/1x1
I0403 04:30:45.239863 21847 net.cpp:141] Setting up inception_4e/1x1
I0403 04:30:45.239888 21847 net.cpp:148] Top shape: 24 256 14 14 (1204224)
I0403 04:30:45.239904 21847 net.cpp:156] Memory required for data: 1213248960
I0403 04:30:45.239923 21847 layer_factory.hpp:77] Creating layer inception_4e/relu_1x1
I0403 04:30:45.239944 21847 net.cpp:91] Creating Layer inception_4e/relu_1x1
I0403 04:30:45.239962 21847 net.cpp:425] inception_4e/relu_1x1 <- inception_4e/1x1
I0403 04:30:45.239982 21847 net.cpp:386] inception_4e/relu_1x1 -> inception_4e/1x1 (in-place)
I0403 04:30:45.240002 21847 net.cpp:141] Setting up inception_4e/relu_1x1
I0403 04:30:45.240038 21847 net.cpp:148] Top shape: 24 256 14 14 (1204224)
I0403 04:30:45.240053 21847 net.cpp:156] Memory required for data: 1218065856
I0403 04:30:45.240069 21847 layer_factory.hpp:77] Creating layer inception_4e/3x3_reduce
I0403 04:30:45.240092 21847 net.cpp:91] Creating Layer inception_4e/3x3_reduce
I0403 04:30:45.240110 21847 net.cpp:425] inception_4e/3x3_reduce <- inception_4d/output_inception_4d/output_0_split_2
I0403 04:30:45.240134 21847 net.cpp:399] inception_4e/3x3_reduce -> inception_4e/3x3_reduce
I0403 04:30:45.241448 21847 net.cpp:141] Setting up inception_4e/3x3_reduce
I0403 04:30:45.241482 21847 net.cpp:148] Top shape: 24 160 14 14 (752640)
I0403 04:30:45.241508 21847 net.cpp:156] Memory required for data: 1221076416
I0403 04:30:45.241526 21847 layer_factory.hpp:77] Creating layer inception_4e/relu_3x3_reduce
I0403 04:30:45.241546 21847 net.cpp:91] Creating Layer inception_4e/relu_3x3_reduce
I0403 04:30:45.241564 21847 net.cpp:425] inception_4e/relu_3x3_reduce <- inception_4e/3x3_reduce
I0403 04:30:45.241585 21847 net.cpp:386] inception_4e/relu_3x3_reduce -> inception_4e/3x3_reduce (in-place)
I0403 04:30:45.241606 21847 net.cpp:141] Setting up inception_4e/relu_3x3_reduce
I0403 04:30:45.241624 21847 net.cpp:148] Top shape: 24 160 14 14 (752640)
I0403 04:30:45.241639 21847 net.cpp:156] Memory required for data: 1224086976
I0403 04:30:45.241653 21847 layer_factory.hpp:77] Creating layer inception_4e/3x3
I0403 04:30:45.241678 21847 net.cpp:91] Creating Layer inception_4e/3x3
I0403 04:30:45.241698 21847 net.cpp:425] inception_4e/3x3 <- inception_4e/3x3_reduce
I0403 04:30:45.241717 21847 net.cpp:399] inception_4e/3x3 -> inception_4e/3x3
I0403 04:30:45.245676 21847 net.cpp:141] Setting up inception_4e/3x3
I0403 04:30:45.245707 21847 net.cpp:148] Top shape: 24 320 14 14 (1505280)
I0403 04:30:45.245723 21847 net.cpp:156] Memory required for data: 1230108096
I0403 04:30:45.245743 21847 layer_factory.hpp:77] Creating layer inception_4e/relu_3x3
I0403 04:30:45.245764 21847 net.cpp:91] Creating Layer inception_4e/relu_3x3
I0403 04:30:45.245781 21847 net.cpp:425] inception_4e/relu_3x3 <- inception_4e/3x3
I0403 04:30:45.245800 21847 net.cpp:386] inception_4e/relu_3x3 -> inception_4e/3x3 (in-place)
I0403 04:30:45.245820 21847 net.cpp:141] Setting up inception_4e/relu_3x3
I0403 04:30:45.245838 21847 net.cpp:148] Top shape: 24 320 14 14 (1505280)
I0403 04:30:45.245853 21847 net.cpp:156] Memory required for data: 1236129216
I0403 04:30:45.245868 21847 layer_factory.hpp:77] Creating layer inception_4e/5x5_reduce
I0403 04:30:45.245893 21847 net.cpp:91] Creating Layer inception_4e/5x5_reduce
I0403 04:30:45.245910 21847 net.cpp:425] inception_4e/5x5_reduce <- inception_4d/output_inception_4d/output_0_split_3
I0403 04:30:45.245934 21847 net.cpp:399] inception_4e/5x5_reduce -> inception_4e/5x5_reduce
I0403 04:30:45.246816 21847 net.cpp:141] Setting up inception_4e/5x5_reduce
I0403 04:30:45.246851 21847 net.cpp:148] Top shape: 24 32 14 14 (150528)
I0403 04:30:45.246870 21847 net.cpp:156] Memory required for data: 1236731328
I0403 04:30:45.246888 21847 layer_factory.hpp:77] Creating layer inception_4e/relu_5x5_reduce
I0403 04:30:45.246907 21847 net.cpp:91] Creating Layer inception_4e/relu_5x5_reduce
I0403 04:30:45.246925 21847 net.cpp:425] inception_4e/relu_5x5_reduce <- inception_4e/5x5_reduce
I0403 04:30:45.246944 21847 net.cpp:386] inception_4e/relu_5x5_reduce -> inception_4e/5x5_reduce (in-place)
I0403 04:30:45.246965 21847 net.cpp:141] Setting up inception_4e/relu_5x5_reduce
I0403 04:30:45.246983 21847 net.cpp:148] Top shape: 24 32 14 14 (150528)
I0403 04:30:45.246997 21847 net.cpp:156] Memory required for data: 1237333440
I0403 04:30:45.247012 21847 layer_factory.hpp:77] Creating layer inception_4e/5x5
I0403 04:30:45.247054 21847 net.cpp:91] Creating Layer inception_4e/5x5
I0403 04:30:45.247074 21847 net.cpp:425] inception_4e/5x5 <- inception_4e/5x5_reduce
I0403 04:30:45.247097 21847 net.cpp:399] inception_4e/5x5 -> inception_4e/5x5
I0403 04:30:45.247892 21847 net.cpp:141] Setting up inception_4e/5x5
I0403 04:30:45.247931 21847 net.cpp:148] Top shape: 24 128 14 14 (602112)
I0403 04:30:45.247948 21847 net.cpp:156] Memory required for data: 1239741888
I0403 04:30:45.247968 21847 layer_factory.hpp:77] Creating layer inception_4e/relu_5x5
I0403 04:30:45.247987 21847 net.cpp:91] Creating Layer inception_4e/relu_5x5
I0403 04:30:45.248005 21847 net.cpp:425] inception_4e/relu_5x5 <- inception_4e/5x5
I0403 04:30:45.248024 21847 net.cpp:386] inception_4e/relu_5x5 -> inception_4e/5x5 (in-place)
I0403 04:30:45.248045 21847 net.cpp:141] Setting up inception_4e/relu_5x5
I0403 04:30:45.248062 21847 net.cpp:148] Top shape: 24 128 14 14 (602112)
I0403 04:30:45.248077 21847 net.cpp:156] Memory required for data: 1242150336
I0403 04:30:45.248105 21847 layer_factory.hpp:77] Creating layer inception_4e/pool
I0403 04:30:45.248127 21847 net.cpp:91] Creating Layer inception_4e/pool
I0403 04:30:45.248147 21847 net.cpp:425] inception_4e/pool <- inception_4d/output_inception_4d/output_0_split_4
I0403 04:30:45.248167 21847 net.cpp:399] inception_4e/pool -> inception_4e/pool
I0403 04:30:45.248230 21847 net.cpp:141] Setting up inception_4e/pool
I0403 04:30:45.248255 21847 net.cpp:148] Top shape: 24 528 14 14 (2483712)
I0403 04:30:45.248270 21847 net.cpp:156] Memory required for data: 1252085184
I0403 04:30:45.248286 21847 layer_factory.hpp:77] Creating layer inception_4e/pool_proj
I0403 04:30:45.248313 21847 net.cpp:91] Creating Layer inception_4e/pool_proj
I0403 04:30:45.248333 21847 net.cpp:425] inception_4e/pool_proj <- inception_4e/pool
I0403 04:30:45.248354 21847 net.cpp:399] inception_4e/pool_proj -> inception_4e/pool_proj
I0403 04:30:45.249014 21847 net.cpp:141] Setting up inception_4e/pool_proj
I0403 04:30:45.249042 21847 net.cpp:148] Top shape: 24 128 14 14 (602112)
I0403 04:30:45.249058 21847 net.cpp:156] Memory required for data: 1254493632
I0403 04:30:45.249078 21847 layer_factory.hpp:77] Creating layer inception_4e/relu_pool_proj
I0403 04:30:45.249096 21847 net.cpp:91] Creating Layer inception_4e/relu_pool_proj
I0403 04:30:45.249114 21847 net.cpp:425] inception_4e/relu_pool_proj <- inception_4e/pool_proj
I0403 04:30:45.249136 21847 net.cpp:386] inception_4e/relu_pool_proj -> inception_4e/pool_proj (in-place)
I0403 04:30:45.249157 21847 net.cpp:141] Setting up inception_4e/relu_pool_proj
I0403 04:30:45.249176 21847 net.cpp:148] Top shape: 24 128 14 14 (602112)
I0403 04:30:45.249191 21847 net.cpp:156] Memory required for data: 1256902080
I0403 04:30:45.249207 21847 layer_factory.hpp:77] Creating layer inception_4e/output
I0403 04:30:45.249231 21847 net.cpp:91] Creating Layer inception_4e/output
I0403 04:30:45.249249 21847 net.cpp:425] inception_4e/output <- inception_4e/1x1
I0403 04:30:45.249267 21847 net.cpp:425] inception_4e/output <- inception_4e/3x3
I0403 04:30:45.249285 21847 net.cpp:425] inception_4e/output <- inception_4e/5x5
I0403 04:30:45.249303 21847 net.cpp:425] inception_4e/output <- inception_4e/pool_proj
I0403 04:30:45.249322 21847 net.cpp:399] inception_4e/output -> inception_4e/output
I0403 04:30:45.249367 21847 net.cpp:141] Setting up inception_4e/output
I0403 04:30:45.249392 21847 net.cpp:148] Top shape: 24 832 14 14 (3913728)
I0403 04:30:45.249408 21847 net.cpp:156] Memory required for data: 1272556992
I0403 04:30:45.249423 21847 layer_factory.hpp:77] Creating layer pool4/3x3_s2
I0403 04:30:45.249442 21847 net.cpp:91] Creating Layer pool4/3x3_s2
I0403 04:30:45.249459 21847 net.cpp:425] pool4/3x3_s2 <- inception_4e/output
I0403 04:30:45.249482 21847 net.cpp:399] pool4/3x3_s2 -> pool4/3x3_s2
I0403 04:30:45.249537 21847 net.cpp:141] Setting up pool4/3x3_s2
I0403 04:30:45.249562 21847 net.cpp:148] Top shape: 24 832 7 7 (978432)
I0403 04:30:45.249578 21847 net.cpp:156] Memory required for data: 1276470720
I0403 04:30:45.249594 21847 layer_factory.hpp:77] Creating layer pool4/3x3_s2_pool4/3x3_s2_0_split
I0403 04:30:45.249614 21847 net.cpp:91] Creating Layer pool4/3x3_s2_pool4/3x3_s2_0_split
I0403 04:30:45.249631 21847 net.cpp:425] pool4/3x3_s2_pool4/3x3_s2_0_split <- pool4/3x3_s2
I0403 04:30:45.249665 21847 net.cpp:399] pool4/3x3_s2_pool4/3x3_s2_0_split -> pool4/3x3_s2_pool4/3x3_s2_0_split_0
I0403 04:30:45.249688 21847 net.cpp:399] pool4/3x3_s2_pool4/3x3_s2_0_split -> pool4/3x3_s2_pool4/3x3_s2_0_split_1
I0403 04:30:45.249713 21847 net.cpp:399] pool4/3x3_s2_pool4/3x3_s2_0_split -> pool4/3x3_s2_pool4/3x3_s2_0_split_2
I0403 04:30:45.249737 21847 net.cpp:399] pool4/3x3_s2_pool4/3x3_s2_0_split -> pool4/3x3_s2_pool4/3x3_s2_0_split_3
I0403 04:30:45.249807 21847 net.cpp:141] Setting up pool4/3x3_s2_pool4/3x3_s2_0_split
I0403 04:30:45.249831 21847 net.cpp:148] Top shape: 24 832 7 7 (978432)
I0403 04:30:45.249850 21847 net.cpp:148] Top shape: 24 832 7 7 (978432)
I0403 04:30:45.249866 21847 net.cpp:148] Top shape: 24 832 7 7 (978432)
I0403 04:30:45.249883 21847 net.cpp:148] Top shape: 24 832 7 7 (978432)
I0403 04:30:45.249899 21847 net.cpp:156] Memory required for data: 1292125632
I0403 04:30:45.249915 21847 layer_factory.hpp:77] Creating layer inception_5a/1x1
I0403 04:30:45.249940 21847 net.cpp:91] Creating Layer inception_5a/1x1
I0403 04:30:45.249959 21847 net.cpp:425] inception_5a/1x1 <- pool4/3x3_s2_pool4/3x3_s2_0_split_0
I0403 04:30:45.249986 21847 net.cpp:399] inception_5a/1x1 -> inception_5a/1x1
I0403 04:30:45.252028 21847 net.cpp:141] Setting up inception_5a/1x1
I0403 04:30:45.252063 21847 net.cpp:148] Top shape: 24 256 7 7 (301056)
I0403 04:30:45.252089 21847 net.cpp:156] Memory required for data: 1293329856
I0403 04:30:45.252116 21847 layer_factory.hpp:77] Creating layer inception_5a/relu_1x1
I0403 04:30:45.252143 21847 net.cpp:91] Creating Layer inception_5a/relu_1x1
I0403 04:30:45.252161 21847 net.cpp:425] inception_5a/relu_1x1 <- inception_5a/1x1
I0403 04:30:45.252180 21847 net.cpp:386] inception_5a/relu_1x1 -> inception_5a/1x1 (in-place)
I0403 04:30:45.252202 21847 net.cpp:141] Setting up inception_5a/relu_1x1
I0403 04:30:45.252233 21847 net.cpp:148] Top shape: 24 256 7 7 (301056)
I0403 04:30:45.252249 21847 net.cpp:156] Memory required for data: 1294534080
I0403 04:30:45.252265 21847 layer_factory.hpp:77] Creating layer inception_5a/3x3_reduce
I0403 04:30:45.252291 21847 net.cpp:91] Creating Layer inception_5a/3x3_reduce
I0403 04:30:45.252311 21847 net.cpp:425] inception_5a/3x3_reduce <- pool4/3x3_s2_pool4/3x3_s2_0_split_1
I0403 04:30:45.252336 21847 net.cpp:399] inception_5a/3x3_reduce -> inception_5a/3x3_reduce
I0403 04:30:45.253919 21847 net.cpp:141] Setting up inception_5a/3x3_reduce
I0403 04:30:45.253952 21847 net.cpp:148] Top shape: 24 160 7 7 (188160)
I0403 04:30:45.253970 21847 net.cpp:156] Memory required for data: 1295286720
I0403 04:30:45.253990 21847 layer_factory.hpp:77] Creating layer inception_5a/relu_3x3_reduce
I0403 04:30:45.254010 21847 net.cpp:91] Creating Layer inception_5a/relu_3x3_reduce
I0403 04:30:45.254029 21847 net.cpp:425] inception_5a/relu_3x3_reduce <- inception_5a/3x3_reduce
I0403 04:30:45.254048 21847 net.cpp:386] inception_5a/relu_3x3_reduce -> inception_5a/3x3_reduce (in-place)
I0403 04:30:45.254070 21847 net.cpp:141] Setting up inception_5a/relu_3x3_reduce
I0403 04:30:45.254086 21847 net.cpp:148] Top shape: 24 160 7 7 (188160)
I0403 04:30:45.254101 21847 net.cpp:156] Memory required for data: 1296039360
I0403 04:30:45.254117 21847 layer_factory.hpp:77] Creating layer inception_5a/3x3
I0403 04:30:45.254140 21847 net.cpp:91] Creating Layer inception_5a/3x3
I0403 04:30:45.254158 21847 net.cpp:425] inception_5a/3x3 <- inception_5a/3x3_reduce
I0403 04:30:45.254181 21847 net.cpp:399] inception_5a/3x3 -> inception_5a/3x3
I0403 04:30:45.258254 21847 net.cpp:141] Setting up inception_5a/3x3
I0403 04:30:45.258288 21847 net.cpp:148] Top shape: 24 320 7 7 (376320)
I0403 04:30:45.258306 21847 net.cpp:156] Memory required for data: 1297544640
I0403 04:30:45.258328 21847 layer_factory.hpp:77] Creating layer inception_5a/relu_3x3
I0403 04:30:45.258364 21847 net.cpp:91] Creating Layer inception_5a/relu_3x3
I0403 04:30:45.258388 21847 net.cpp:425] inception_5a/relu_3x3 <- inception_5a/3x3
I0403 04:30:45.258409 21847 net.cpp:386] inception_5a/relu_3x3 -> inception_5a/3x3 (in-place)
I0403 04:30:45.258447 21847 net.cpp:141] Setting up inception_5a/relu_3x3
I0403 04:30:45.258467 21847 net.cpp:148] Top shape: 24 320 7 7 (376320)
I0403 04:30:45.258483 21847 net.cpp:156] Memory required for data: 1299049920
I0403 04:30:45.258499 21847 layer_factory.hpp:77] Creating layer inception_5a/5x5_reduce
I0403 04:30:45.258524 21847 net.cpp:91] Creating Layer inception_5a/5x5_reduce
I0403 04:30:45.258544 21847 net.cpp:425] inception_5a/5x5_reduce <- pool4/3x3_s2_pool4/3x3_s2_0_split_2
I0403 04:30:45.258575 21847 net.cpp:399] inception_5a/5x5_reduce -> inception_5a/5x5_reduce
I0403 04:30:45.258988 21847 net.cpp:141] Setting up inception_5a/5x5_reduce
I0403 04:30:45.259013 21847 net.cpp:148] Top shape: 24 32 7 7 (37632)
I0403 04:30:45.259029 21847 net.cpp:156] Memory required for data: 1299200448
I0403 04:30:45.259048 21847 layer_factory.hpp:77] Creating layer inception_5a/relu_5x5_reduce
I0403 04:30:45.259068 21847 net.cpp:91] Creating Layer inception_5a/relu_5x5_reduce
I0403 04:30:45.259085 21847 net.cpp:425] inception_5a/relu_5x5_reduce <- inception_5a/5x5_reduce
I0403 04:30:45.259105 21847 net.cpp:386] inception_5a/relu_5x5_reduce -> inception_5a/5x5_reduce (in-place)
I0403 04:30:45.259126 21847 net.cpp:141] Setting up inception_5a/relu_5x5_reduce
I0403 04:30:45.259145 21847 net.cpp:148] Top shape: 24 32 7 7 (37632)
I0403 04:30:45.259160 21847 net.cpp:156] Memory required for data: 1299350976
I0403 04:30:45.259176 21847 layer_factory.hpp:77] Creating layer inception_5a/5x5
I0403 04:30:45.259202 21847 net.cpp:91] Creating Layer inception_5a/5x5
I0403 04:30:45.259224 21847 net.cpp:425] inception_5a/5x5 <- inception_5a/5x5_reduce
I0403 04:30:45.259245 21847 net.cpp:399] inception_5a/5x5 -> inception_5a/5x5
I0403 04:30:45.260092 21847 net.cpp:141] Setting up inception_5a/5x5
I0403 04:30:45.260123 21847 net.cpp:148] Top shape: 24 128 7 7 (150528)
I0403 04:30:45.260139 21847 net.cpp:156] Memory required for data: 1299953088
I0403 04:30:45.260159 21847 layer_factory.hpp:77] Creating layer inception_5a/relu_5x5
I0403 04:30:45.260179 21847 net.cpp:91] Creating Layer inception_5a/relu_5x5
I0403 04:30:45.260195 21847 net.cpp:425] inception_5a/relu_5x5 <- inception_5a/5x5
I0403 04:30:45.260220 21847 net.cpp:386] inception_5a/relu_5x5 -> inception_5a/5x5 (in-place)
I0403 04:30:45.260241 21847 net.cpp:141] Setting up inception_5a/relu_5x5
I0403 04:30:45.260259 21847 net.cpp:148] Top shape: 24 128 7 7 (150528)
I0403 04:30:45.260274 21847 net.cpp:156] Memory required for data: 1300555200
I0403 04:30:45.260290 21847 layer_factory.hpp:77] Creating layer inception_5a/pool
I0403 04:30:45.260308 21847 net.cpp:91] Creating Layer inception_5a/pool
I0403 04:30:45.260324 21847 net.cpp:425] inception_5a/pool <- pool4/3x3_s2_pool4/3x3_s2_0_split_3
I0403 04:30:45.260344 21847 net.cpp:399] inception_5a/pool -> inception_5a/pool
I0403 04:30:45.260412 21847 net.cpp:141] Setting up inception_5a/pool
I0403 04:30:45.260444 21847 net.cpp:148] Top shape: 24 832 7 7 (978432)
I0403 04:30:45.260468 21847 net.cpp:156] Memory required for data: 1304468928
I0403 04:30:45.260490 21847 layer_factory.hpp:77] Creating layer inception_5a/pool_proj
I0403 04:30:45.260522 21847 net.cpp:91] Creating Layer inception_5a/pool_proj
I0403 04:30:45.260543 21847 net.cpp:425] inception_5a/pool_proj <- inception_5a/pool
I0403 04:30:45.260568 21847 net.cpp:399] inception_5a/pool_proj -> inception_5a/pool_proj
I0403 04:30:45.261984 21847 net.cpp:141] Setting up inception_5a/pool_proj
I0403 04:30:45.262017 21847 net.cpp:148] Top shape: 24 128 7 7 (150528)
I0403 04:30:45.262035 21847 net.cpp:156] Memory required for data: 1305071040
I0403 04:30:45.262054 21847 layer_factory.hpp:77] Creating layer inception_5a/relu_pool_proj
I0403 04:30:45.262073 21847 net.cpp:91] Creating Layer inception_5a/relu_pool_proj
I0403 04:30:45.262091 21847 net.cpp:425] inception_5a/relu_pool_proj <- inception_5a/pool_proj
I0403 04:30:45.262112 21847 net.cpp:386] inception_5a/relu_pool_proj -> inception_5a/pool_proj (in-place)
I0403 04:30:45.262133 21847 net.cpp:141] Setting up inception_5a/relu_pool_proj
I0403 04:30:45.262166 21847 net.cpp:148] Top shape: 24 128 7 7 (150528)
I0403 04:30:45.262182 21847 net.cpp:156] Memory required for data: 1305673152
I0403 04:30:45.262202 21847 layer_factory.hpp:77] Creating layer inception_5a/output
I0403 04:30:45.262233 21847 net.cpp:91] Creating Layer inception_5a/output
I0403 04:30:45.262259 21847 net.cpp:425] inception_5a/output <- inception_5a/1x1
I0403 04:30:45.262286 21847 net.cpp:425] inception_5a/output <- inception_5a/3x3
I0403 04:30:45.262305 21847 net.cpp:425] inception_5a/output <- inception_5a/5x5
I0403 04:30:45.262323 21847 net.cpp:425] inception_5a/output <- inception_5a/pool_proj
I0403 04:30:45.262343 21847 net.cpp:399] inception_5a/output -> inception_5a/output
I0403 04:30:45.262398 21847 net.cpp:141] Setting up inception_5a/output
I0403 04:30:45.262423 21847 net.cpp:148] Top shape: 24 832 7 7 (978432)
I0403 04:30:45.262439 21847 net.cpp:156] Memory required for data: 1309586880
I0403 04:30:45.262454 21847 layer_factory.hpp:77] Creating layer inception_5a/output_inception_5a/output_0_split
I0403 04:30:45.262473 21847 net.cpp:91] Creating Layer inception_5a/output_inception_5a/output_0_split
I0403 04:30:45.262491 21847 net.cpp:425] inception_5a/output_inception_5a/output_0_split <- inception_5a/output
I0403 04:30:45.262517 21847 net.cpp:399] inception_5a/output_inception_5a/output_0_split -> inception_5a/output_inception_5a/output_0_split_0
I0403 04:30:45.262540 21847 net.cpp:399] inception_5a/output_inception_5a/output_0_split -> inception_5a/output_inception_5a/output_0_split_1
I0403 04:30:45.262563 21847 net.cpp:399] inception_5a/output_inception_5a/output_0_split -> inception_5a/output_inception_5a/output_0_split_2
I0403 04:30:45.262584 21847 net.cpp:399] inception_5a/output_inception_5a/output_0_split -> inception_5a/output_inception_5a/output_0_split_3
I0403 04:30:45.262657 21847 net.cpp:141] Setting up inception_5a/output_inception_5a/output_0_split
I0403 04:30:45.262681 21847 net.cpp:148] Top shape: 24 832 7 7 (978432)
I0403 04:30:45.262699 21847 net.cpp:148] Top shape: 24 832 7 7 (978432)
I0403 04:30:45.262715 21847 net.cpp:148] Top shape: 24 832 7 7 (978432)
I0403 04:30:45.262732 21847 net.cpp:148] Top shape: 24 832 7 7 (978432)
I0403 04:30:45.262747 21847 net.cpp:156] Memory required for data: 1325241792
I0403 04:30:45.262763 21847 layer_factory.hpp:77] Creating layer inception_5b/1x1
I0403 04:30:45.262786 21847 net.cpp:91] Creating Layer inception_5b/1x1
I0403 04:30:45.262806 21847 net.cpp:425] inception_5b/1x1 <- inception_5a/output_inception_5a/output_0_split_0
I0403 04:30:45.262827 21847 net.cpp:399] inception_5b/1x1 -> inception_5b/1x1
I0403 04:30:45.265549 21847 net.cpp:141] Setting up inception_5b/1x1
I0403 04:30:45.265579 21847 net.cpp:148] Top shape: 24 384 7 7 (451584)
I0403 04:30:45.265596 21847 net.cpp:156] Memory required for data: 1327048128
I0403 04:30:45.265615 21847 layer_factory.hpp:77] Creating layer inception_5b/relu_1x1
I0403 04:30:45.265635 21847 net.cpp:91] Creating Layer inception_5b/relu_1x1
I0403 04:30:45.265651 21847 net.cpp:425] inception_5b/relu_1x1 <- inception_5b/1x1
I0403 04:30:45.265672 21847 net.cpp:386] inception_5b/relu_1x1 -> inception_5b/1x1 (in-place)
I0403 04:30:45.265696 21847 net.cpp:141] Setting up inception_5b/relu_1x1
I0403 04:30:45.265713 21847 net.cpp:148] Top shape: 24 384 7 7 (451584)
I0403 04:30:45.265728 21847 net.cpp:156] Memory required for data: 1328854464
I0403 04:30:45.265743 21847 layer_factory.hpp:77] Creating layer inception_5b/3x3_reduce
I0403 04:30:45.265769 21847 net.cpp:91] Creating Layer inception_5b/3x3_reduce
I0403 04:30:45.265787 21847 net.cpp:425] inception_5b/3x3_reduce <- inception_5a/output_inception_5a/output_0_split_1
I0403 04:30:45.265807 21847 net.cpp:399] inception_5b/3x3_reduce -> inception_5b/3x3_reduce
I0403 04:30:45.267493 21847 net.cpp:141] Setting up inception_5b/3x3_reduce
I0403 04:30:45.267523 21847 net.cpp:148] Top shape: 24 192 7 7 (225792)
I0403 04:30:45.267539 21847 net.cpp:156] Memory required for data: 1329757632
I0403 04:30:45.267559 21847 layer_factory.hpp:77] Creating layer inception_5b/relu_3x3_reduce
I0403 04:30:45.267592 21847 net.cpp:91] Creating Layer inception_5b/relu_3x3_reduce
I0403 04:30:45.267611 21847 net.cpp:425] inception_5b/relu_3x3_reduce <- inception_5b/3x3_reduce
I0403 04:30:45.267632 21847 net.cpp:386] inception_5b/relu_3x3_reduce -> inception_5b/3x3_reduce (in-place)
I0403 04:30:45.267653 21847 net.cpp:141] Setting up inception_5b/relu_3x3_reduce
I0403 04:30:45.267671 21847 net.cpp:148] Top shape: 24 192 7 7 (225792)
I0403 04:30:45.267686 21847 net.cpp:156] Memory required for data: 1330660800
I0403 04:30:45.267701 21847 layer_factory.hpp:77] Creating layer inception_5b/3x3
I0403 04:30:45.267729 21847 net.cpp:91] Creating Layer inception_5b/3x3
I0403 04:30:45.267747 21847 net.cpp:425] inception_5b/3x3 <- inception_5b/3x3_reduce
I0403 04:30:45.267768 21847 net.cpp:399] inception_5b/3x3 -> inception_5b/3x3
I0403 04:30:45.273188 21847 net.cpp:141] Setting up inception_5b/3x3
I0403 04:30:45.273223 21847 net.cpp:148] Top shape: 24 384 7 7 (451584)
I0403 04:30:45.273241 21847 net.cpp:156] Memory required for data: 1332467136
I0403 04:30:45.273262 21847 layer_factory.hpp:77] Creating layer inception_5b/relu_3x3
I0403 04:30:45.273285 21847 net.cpp:91] Creating Layer inception_5b/relu_3x3
I0403 04:30:45.273306 21847 net.cpp:425] inception_5b/relu_3x3 <- inception_5b/3x3
I0403 04:30:45.273325 21847 net.cpp:386] inception_5b/relu_3x3 -> inception_5b/3x3 (in-place)
I0403 04:30:45.273345 21847 net.cpp:141] Setting up inception_5b/relu_3x3
I0403 04:30:45.273365 21847 net.cpp:148] Top shape: 24 384 7 7 (451584)
I0403 04:30:45.273380 21847 net.cpp:156] Memory required for data: 1334273472
I0403 04:30:45.273394 21847 layer_factory.hpp:77] Creating layer inception_5b/5x5_reduce
I0403 04:30:45.273418 21847 net.cpp:91] Creating Layer inception_5b/5x5_reduce
I0403 04:30:45.273437 21847 net.cpp:425] inception_5b/5x5_reduce <- inception_5a/output_inception_5a/output_0_split_2
I0403 04:30:45.273460 21847 net.cpp:399] inception_5b/5x5_reduce -> inception_5b/5x5_reduce
I0403 04:30:45.274497 21847 net.cpp:141] Setting up inception_5b/5x5_reduce
I0403 04:30:45.274539 21847 net.cpp:148] Top shape: 24 48 7 7 (56448)
I0403 04:30:45.274556 21847 net.cpp:156] Memory required for data: 1334499264
I0403 04:30:45.274576 21847 layer_factory.hpp:77] Creating layer inception_5b/relu_5x5_reduce
I0403 04:30:45.274598 21847 net.cpp:91] Creating Layer inception_5b/relu_5x5_reduce
I0403 04:30:45.274617 21847 net.cpp:425] inception_5b/relu_5x5_reduce <- inception_5b/5x5_reduce
I0403 04:30:45.274637 21847 net.cpp:386] inception_5b/relu_5x5_reduce -> inception_5b/5x5_reduce (in-place)
I0403 04:30:45.274658 21847 net.cpp:141] Setting up inception_5b/relu_5x5_reduce
I0403 04:30:45.274677 21847 net.cpp:148] Top shape: 24 48 7 7 (56448)
I0403 04:30:45.274691 21847 net.cpp:156] Memory required for data: 1334725056
I0403 04:30:45.274708 21847 layer_factory.hpp:77] Creating layer inception_5b/5x5
I0403 04:30:45.274732 21847 net.cpp:91] Creating Layer inception_5b/5x5
I0403 04:30:45.274751 21847 net.cpp:425] inception_5b/5x5 <- inception_5b/5x5_reduce
I0403 04:30:45.274775 21847 net.cpp:399] inception_5b/5x5 -> inception_5b/5x5
I0403 04:30:45.275926 21847 net.cpp:141] Setting up inception_5b/5x5
I0403 04:30:45.275951 21847 net.cpp:148] Top shape: 24 128 7 7 (150528)
I0403 04:30:45.275966 21847 net.cpp:156] Memory required for data: 1335327168
I0403 04:30:45.275985 21847 layer_factory.hpp:77] Creating layer inception_5b/relu_5x5
I0403 04:30:45.276005 21847 net.cpp:91] Creating Layer inception_5b/relu_5x5
I0403 04:30:45.276022 21847 net.cpp:425] inception_5b/relu_5x5 <- inception_5b/5x5
I0403 04:30:45.276041 21847 net.cpp:386] inception_5b/relu_5x5 -> inception_5b/5x5 (in-place)
I0403 04:30:45.276060 21847 net.cpp:141] Setting up inception_5b/relu_5x5
I0403 04:30:45.276077 21847 net.cpp:148] Top shape: 24 128 7 7 (150528)
I0403 04:30:45.276093 21847 net.cpp:156] Memory required for data: 1335929280
I0403 04:30:45.276108 21847 layer_factory.hpp:77] Creating layer inception_5b/pool
I0403 04:30:45.276125 21847 net.cpp:91] Creating Layer inception_5b/pool
I0403 04:30:45.276163 21847 net.cpp:425] inception_5b/pool <- inception_5a/output_inception_5a/output_0_split_3
I0403 04:30:45.276190 21847 net.cpp:399] inception_5b/pool -> inception_5b/pool
I0403 04:30:45.276249 21847 net.cpp:141] Setting up inception_5b/pool
I0403 04:30:45.276273 21847 net.cpp:148] Top shape: 24 832 7 7 (978432)
I0403 04:30:45.276288 21847 net.cpp:156] Memory required for data: 1339843008
I0403 04:30:45.276304 21847 layer_factory.hpp:77] Creating layer inception_5b/pool_proj
I0403 04:30:45.276331 21847 net.cpp:91] Creating Layer inception_5b/pool_proj
I0403 04:30:45.276350 21847 net.cpp:425] inception_5b/pool_proj <- inception_5b/pool
I0403 04:30:45.276371 21847 net.cpp:399] inception_5b/pool_proj -> inception_5b/pool_proj
I0403 04:30:45.277734 21847 net.cpp:141] Setting up inception_5b/pool_proj
I0403 04:30:45.277765 21847 net.cpp:148] Top shape: 24 128 7 7 (150528)
I0403 04:30:45.277781 21847 net.cpp:156] Memory required for data: 1340445120
I0403 04:30:45.277799 21847 layer_factory.hpp:77] Creating layer inception_5b/relu_pool_proj
I0403 04:30:45.277819 21847 net.cpp:91] Creating Layer inception_5b/relu_pool_proj
I0403 04:30:45.277837 21847 net.cpp:425] inception_5b/relu_pool_proj <- inception_5b/pool_proj
I0403 04:30:45.277856 21847 net.cpp:386] inception_5b/relu_pool_proj -> inception_5b/pool_proj (in-place)
I0403 04:30:45.277876 21847 net.cpp:141] Setting up inception_5b/relu_pool_proj
I0403 04:30:45.277894 21847 net.cpp:148] Top shape: 24 128 7 7 (150528)
I0403 04:30:45.277909 21847 net.cpp:156] Memory required for data: 1341047232
I0403 04:30:45.277925 21847 layer_factory.hpp:77] Creating layer inception_5b/output
I0403 04:30:45.277945 21847 net.cpp:91] Creating Layer inception_5b/output
I0403 04:30:45.277962 21847 net.cpp:425] inception_5b/output <- inception_5b/1x1
I0403 04:30:45.277979 21847 net.cpp:425] inception_5b/output <- inception_5b/3x3
I0403 04:30:45.277997 21847 net.cpp:425] inception_5b/output <- inception_5b/5x5
I0403 04:30:45.278013 21847 net.cpp:425] inception_5b/output <- inception_5b/pool_proj
I0403 04:30:45.278031 21847 net.cpp:399] inception_5b/output -> inception_5b/output
I0403 04:30:45.278074 21847 net.cpp:141] Setting up inception_5b/output
I0403 04:30:45.278098 21847 net.cpp:148] Top shape: 24 1024 7 7 (1204224)
I0403 04:30:45.278113 21847 net.cpp:156] Memory required for data: 1345864128
I0403 04:30:45.278127 21847 layer_factory.hpp:77] Creating layer pool5/7x7_s1
I0403 04:30:45.278146 21847 net.cpp:91] Creating Layer pool5/7x7_s1
I0403 04:30:45.278163 21847 net.cpp:425] pool5/7x7_s1 <- inception_5b/output
I0403 04:30:45.278182 21847 net.cpp:399] pool5/7x7_s1 -> pool5/7x7_s1
I0403 04:30:45.278228 21847 net.cpp:141] Setting up pool5/7x7_s1
I0403 04:30:45.278254 21847 net.cpp:148] Top shape: 24 1024 1 1 (24576)
I0403 04:30:45.278270 21847 net.cpp:156] Memory required for data: 1345962432
I0403 04:30:45.278285 21847 layer_factory.hpp:77] Creating layer pool5/drop_7x7_s1
I0403 04:30:45.278306 21847 net.cpp:91] Creating Layer pool5/drop_7x7_s1
I0403 04:30:45.278323 21847 net.cpp:425] pool5/drop_7x7_s1 <- pool5/7x7_s1
I0403 04:30:45.278342 21847 net.cpp:386] pool5/drop_7x7_s1 -> pool5/7x7_s1 (in-place)
I0403 04:30:45.278381 21847 net.cpp:141] Setting up pool5/drop_7x7_s1
I0403 04:30:45.278404 21847 net.cpp:148] Top shape: 24 1024 1 1 (24576)
I0403 04:30:45.278419 21847 net.cpp:156] Memory required for data: 1346060736
I0403 04:30:45.278434 21847 layer_factory.hpp:77] Creating layer loss3/classifier_plantvillage
I0403 04:30:45.278458 21847 net.cpp:91] Creating Layer loss3/classifier_plantvillage
I0403 04:30:45.278476 21847 net.cpp:425] loss3/classifier_plantvillage <- pool5/7x7_s1
I0403 04:30:45.278496 21847 net.cpp:399] loss3/classifier_plantvillage -> loss3/classifier_plantvillage
I0403 04:30:45.278832 21847 net.cpp:141] Setting up loss3/classifier_plantvillage
I0403 04:30:45.278858 21847 net.cpp:148] Top shape: 24 38 (912)
I0403 04:30:45.278873 21847 net.cpp:156] Memory required for data: 1346064384
I0403 04:30:45.278892 21847 layer_factory.hpp:77] Creating layer loss3/classifier_plantvillage_loss3/classifier_plantvillage_0_split
I0403 04:30:45.278928 21847 net.cpp:91] Creating Layer loss3/classifier_plantvillage_loss3/classifier_plantvillage_0_split
I0403 04:30:45.278945 21847 net.cpp:425] loss3/classifier_plantvillage_loss3/classifier_plantvillage_0_split <- loss3/classifier_plantvillage
I0403 04:30:45.278964 21847 net.cpp:399] loss3/classifier_plantvillage_loss3/classifier_plantvillage_0_split -> loss3/classifier_plantvillage_loss3/classifier_plantvillage_0_split_0
I0403 04:30:45.278993 21847 net.cpp:399] loss3/classifier_plantvillage_loss3/classifier_plantvillage_0_split -> loss3/classifier_plantvillage_loss3/classifier_plantvillage_0_split_1
I0403 04:30:45.279021 21847 net.cpp:399] loss3/classifier_plantvillage_loss3/classifier_plantvillage_0_split -> loss3/classifier_plantvillage_loss3/classifier_plantvillage_0_split_2
I0403 04:30:45.279090 21847 net.cpp:141] Setting up loss3/classifier_plantvillage_loss3/classifier_plantvillage_0_split
I0403 04:30:45.279114 21847 net.cpp:148] Top shape: 24 38 (912)
I0403 04:30:45.279130 21847 net.cpp:148] Top shape: 24 38 (912)
I0403 04:30:45.279147 21847 net.cpp:148] Top shape: 24 38 (912)
I0403 04:30:45.279162 21847 net.cpp:156] Memory required for data: 1346075328
I0403 04:30:45.279176 21847 layer_factory.hpp:77] Creating layer loss1/loss
I0403 04:30:45.279197 21847 net.cpp:91] Creating Layer loss1/loss
I0403 04:30:45.279219 21847 net.cpp:425] loss1/loss <- loss1/classifier_plantvillage_loss1/classifier_plantvillage_0_split_0
I0403 04:30:45.279238 21847 net.cpp:425] loss1/loss <- label_data_1_split_0
…
