…
I0403 04:03:42.505070 30575 net.cpp:313] The NetState phase (0) differed from the phase (1) specified by a rule in layer loss3/top-5
I0403 04:03:42.508761 30575 net.cpp:49] Initializing net from parameters: 
state {
  phase: TRAIN
}
layer {
  name: "data"
  type: "Data"
  top: "data"
  top: "label"
  include {
    phase: TRAIN
  }
  transform_param {
    mirror: true
    crop_size: 224
    mean_file: "/home/mohanty/data/final_dataset/lmdb/color-20-80/mean.binaryproto"
  }
  data_param {
    source: "/home/mohanty/data/final_dataset/lmdb/color-20-80/train_db"
    batch_size: 24
    backend: LMDB
  }
}
layer {
  name: "conv1/7x7_s2"
  type: "Convolution"
  bottom: "data"
  top: "conv1/7x7_s2"
  param {
    lr_mult: 1
    decay_mult: 1
  }
  param {
    lr_mult: 2
    decay_mult: 0
  }
  convolution_param {
    num_output: 64
    pad: 3
    kernel_size: 7
    stride: 2
    weight_filler {
      type: "xavier"
      std: 0.1
    }
    bias_filler {
      type: "constant"
      value: 0.2
    }
  }
}
layer {
  name: "conv1/relu_7x7"
  type: "ReLU"
  bottom: "conv1/7x7_s2"
  top: "conv1/7x7_s2"
}
layer {
  name: "pool1/3x3_s2"
  type: "Pooling"
  bottom: "conv1/7x7_s2"
  top: "pool1/3x3_s2"
  pooling_param {
    pool: MAX
    kernel_size: 3
    stride: 2
  }
}
layer {
  name: "pool1/norm1"
  type: "LRN"
  bottom: "pool1/3x3_s2"
  top: "pool1/norm1"
  lrn_param {
    local_size: 5
    alpha: 0.0001
    beta: 0.75
  }
}
layer {
  name: "conv2/3x3_reduce"
  type: "Convolution"
  bottom: "pool1/norm1"
  top: "conv2/3x3_reduce"
  param {
    lr_mult: 1
    decay_mult: 1
  }
  param {
    lr_mult: 2
    decay_mult: 0
  }
  convolution_param {
    num_output: 64
    kernel_size: 1
    weight_filler {
      type: "xavier"
      std: 0.1
    }
    bias_filler {
      type: "constant"
      value: 0.2
    }
  }
}
layer {
  name: "conv2/relu_3x3_reduce"
  type: "ReLU"
  bottom: "conv2/3x3_reduce"
  top: "conv2/3x3_reduce"
}
layer {
  name: "conv2/3x3"
  type: "Convolution"
  bottom: "conv2/3x3_reduce"
  top: "conv2/3x3"
  param {
    lr_mult: 1
    decay_mult: 1
  }
  param {
    lr_mult: 2
    decay_mult: 0
  }
  convolution_param {
    num_output: 192
    pad: 1
    kernel_size: 3
    weight_filler {
      type: "xavier"
      std: 0.03
    }
    bias_filler {
      type: "constant"
      value: 0.2
    }
  }
}
layer {
  name: "conv2/relu_3x3"
  type: "ReLU"
  bottom: "conv2/3x3"
  top: "conv2/3x3"
}
layer {
  name: "conv2/norm2"
  type: "LRN"
  bottom: "conv2/3x3"
  top: "conv2/norm2"
  lrn_param {
    local_size: 5
    alpha: 0.0001
    beta: 0.75
  }
}
layer {
  name: "pool2/3x3_s2"
  type: "Pooling"
  bottom: "conv2/norm2"
  top: "pool2/3x3_s2"
  pooling_param {
    pool: MAX
    kernel_size: 3
    stride: 2
  }
}
layer {
  name: "inception_3a/1x1"
  type: "Convolution"
  bottom: "pool2/3x3_s2"
  top: "inception_3a/1x1"
  param {
    lr_mult: 1
    decay_mult: 1
  }
  param {
    lr_mult: 2
    decay_mult: 0
  }
  convolution_param {
    num_output: 64
    kernel_size: 1
    weight_filler {
      type: "xavier"
      std: 0.03
    }
    bias_filler {
      type: "constant"
      value: 0.2
    }
  }
}
layer {
  name: "inception_3a/relu_1x1"
  type: "ReLU"
  bottom: "inception_3a/1x1"
  top: "inception_3a/1x1"
}
layer {
  name: "inception_3a/3x3_reduce"
  type: "Convolution"
  bottom: "pool2/3x3_s2"
  top: "inception_3a/3x3_reduce"
  param {
    lr_mult: 1
    decay_mult: 1
  }
  param {
    lr_mult: 2
    decay_mult: 0
  }
  convolution_param {
    num_output: 96
    kernel_size: 1
    weight_filler {
      type: "xavier"
      std: 0.09
    }
    bias_filler {
      type: "constant"
      value: 0.2
    }
  }
}
layer {
  name: "inception_3a/relu_3x3_reduce"
  type: "ReLU"
  bottom: "inception_3a/3x3_reduce"
  top: "inception_3a/3x3_reduce"
}
layer {
  name: "inception_3a/3x3"
  type: "Convolution"
  bottom: "inception_3a/3x3_reduce"
  top: "inception_3a/3x3"
  param {
    lr_mult: 1
    decay_mult: 1
  }
  param {
    lr_mult: 2
    decay_mult: 0
  }
  convolution_param {
    num_output: 128
    pad: 1
    kernel_size: 3
    weight_filler {
      type: "xavier"
      std: 0.03
    }
    bias_filler {
      type: "constant"
      value: 0.2
    }
  }
}
layer {
  name: "inception_3a/relu_3x3"
  type: "ReLU"
  bottom: "inception_3a/3x3"
  top: "inception_3a/3x3"
}
layer {
  name: "inception_3a/5x5_reduce"
  type: "Convolution"
  bottom: "pool2/3x3_s2"
  top: "inception_3a/5x5_reduce"
  param {
    lr_mult: 1
    decay_mult: 1
  }
  param {
    lr_mult: 2
    decay_mult: 0
  }
  convolution_param {
    num_output: 16
    kernel_size: 1
    weight_filler {
      type: "xavier"
      std: 0.2
    }
    bias_filler {
      type: "constant"
      value: 0.2
    }
  }
}
layer {
  name: "inception_3a/relu_5x5_reduce"
  type: "ReLU"
  bottom: "inception_3a/5x5_reduce"
  top: "inception_3a/5x5_reduce"
}
layer {
  name: "inception_3a/5x5"
  type: "Convolution"
  bottom: "inception_3a/5x5_reduce"
  top: "inception_3a/5x5"
  param {
    lr_mult: 1
    decay_mult: 1
  }
  param {
    lr_mult: 2
    decay_mult: 0
  }
  convolution_param {
    num_output: 32
    pad: 2
    kernel_size: 5
    weight_filler {
      type: "xavier"
      std: 0.03
    }
    bias_filler {
      type: "constant"
      value: 0.2
    }
  }
}
layer {
  name: "inception_3a/relu_5x5"
  type: "ReLU"
  bottom: "inception_3a/5x5"
  top: "inception_3a/5x5"
}
layer {
  name: "inception_3a/pool"
  type: "Pooling"
  bottom: "pool2/3x3_s2"
  top: "inception_3a/pool"
  pooling_param {
    pool: MAX
    kernel_size: 3
    stride: 1
    pad: 1
  }
}
layer {
  name: "inception_3a/pool_proj"
  type: "Convolution"
  bottom: "inception_3a/pool"
  top: "inception_3a/pool_proj"
  param {
    lr_mult: 1
    decay_mult: 1
  }
  param {
    lr_mult: 2
    decay_mult: 0
  }
  convolution_param {
    num_output: 32
    kernel_size: 1
    weight_filler {
      type: "xavier"
      std: 0.1
    }
    bias_filler {
      type: "constant"
      value: 0.2
    }
  }
}
layer {
  name: "inception_3a/relu_pool_proj"
  type: "ReLU"
  bottom: "inception_3a/pool_proj"
  top: "inception_3a/pool_proj"
}
layer {
  name: "inception_3a/output"
  type: "Concat"
  bottom: "inception_3a/1x1"
  bottom: "inception_3a/3x3"
  bottom: "inception_3a/5x5"
  bottom: "inception_3a/pool_proj"
  top: "inception_3a/output"
}
layer {
  name: "inception_3b/1x1"
  type: "Convolution"
  bottom: "inception_3a/output"
  top: "inception_3b/1x1"
  param {
    lr_mult: 1
    decay_mult: 1
  }
  param {
    lr_mult: 2
    decay_mult: 0
  }
  convolution_param {
    num_output: 128
    kernel_size: 1
    weight_filler {
      type: "xavier"
      std: 0.03
    }
    bias_filler {
      type: "constant"
      value: 0.2
    }
  }
}
layer {
  name: "inception_3b/relu_1x1"
  type: "ReLU"
  bottom: "inception_3b/1x1"
  top: "inception_3b/1x1"
}
layer {
  name: "inception_3b/3x3_reduce"
  type: "Convolution"
  bottom: "inception_3a/output"
  top: "inception_3b/3x3_reduce"
  param {
    lr_mult: 1
    decay_mult: 1
  }
  param {
    lr_mult: 2
    decay_mult: 0
  }
  convolution_param {
    num_output: 128
    kernel_size: 1
    weight_filler {
      type: "xavier"
      std: 0.09
    }
    bias_filler {
      type: "constant"
      value: 0.2
    }
  }
}
layer {
  name: "inception_3b/relu_3x3_reduce"
  type: "ReLU"
  bottom: "inception_3b/3x3_reduce"
  top: "inception_3b/3x3_reduce"
}
layer {
  name: "inception_3b/3x3"
  type: "Convolution"
  bottom: "inception_3b/3x3_reduce"
  top: "inception_3b/3x3"
  param {
    lr_mult: 1
    decay_mult: 1
  }
  param {
    lr_mult: 2
    decay_mult: 0
  }
  convolution_param {
    num_output: 192
    pad: 1
    kernel_size: 3
    weight_filler {
      type: "xavier"
      std: 0.03
    }
    bias_filler {
      type: "constant"
      value: 0.2
    }
  }
}
layer {
  name: "inception_3b/relu_3x3"
  type: "ReLU"
  bottom: "inception_3b/3x3"
  top: "inception_3b/3x3"
}
layer {
  name: "inception_3b/5x5_reduce"
  type: "Convolution"
  bottom: "inception_3a/output"
  top: "inception_3b/5x5_reduce"
  param {
    lr_mult: 1
    decay_mult: 1
  }
  param {
    lr_mult: 2
    decay_mult: 0
  }
  convolution_param {
    num_output: 32
    kernel_size: 1
    weight_filler {
      type: "xavier"
      std: 0.2
    }
    bias_filler {
      type: "constant"
      value: 0.2
    }
  }
}
layer {
  name: "inception_3b/relu_5x5_reduce"
  type: "ReLU"
  bottom: "inception_3b/5x5_reduce"
  top: "inception_3b/5x5_reduce"
}
layer {
  name: "inception_3b/5x5"
  type: "Convolution"
  bottom: "inception_3b/5x5_reduce"
  top: "inception_3b/5x5"
  param {
    lr_mult: 1
    decay_mult: 1
  }
  param {
    lr_mult: 2
    decay_mult: 0
  }
  convolution_param {
    num_output: 96
    pad: 2
    kernel_size: 5
    weight_filler {
      type: "xavier"
      std: 0.03
    }
    bias_filler {
      type: "constant"
      value: 0.2
    }
  }
}
layer {
  name: "inception_3b/relu_5x5"
  type: "ReLU"
  bottom: "inception_3b/5x5"
  top: "inception_3b/5x5"
}
layer {
  name: "inception_3b/pool"
  type: "Pooling"
  bottom: "inception_3a/output"
  top: "inception_3b/pool"
  pooling_param {
    pool: MAX
    kernel_size: 3
    stride: 1
    pad: 1
  }
}
layer {
  name: "inception_3b/pool_proj"
  type: "Convolution"
  bottom: "inception_3b/pool"
  top: "inception_3b/pool_proj"
  param {
    lr_mult: 1
    decay_mult: 1
  }
  param {
    lr_mult: 2
    decay_mult: 0
  }
  convolution_param {
    num_output: 64
    kernel_size: 1
    weight_filler {
      type: "xavier"
      std: 0.1
    }
    bias_filler {
      type: "constant"
      value: 0.2
    }
  }
}
layer {
  name: "inception_3b/relu_pool_proj"
  type: "ReLU"
  bottom: "inception_3b/pool_proj"
  top: "inception_3b/pool_proj"
}
layer {
  name: "inception_3b/output"
  type: "Concat"
  bottom: "inception_3b/1x1"
  bottom: "inception_3b/3x3"
  bottom: "inception_3b/5x5"
  bottom: "inception_3b/pool_proj"
  top: "inception_3b/output"
}
layer {
  name: "pool3/3x3_s2"
  type: "Pooling"
  bottom: "inception_3b/output"
  top: "pool3/3x3_s2"
  pooling_param {
    pool: MAX
    kernel_size: 3
    stride: 2
  }
}
layer {
  name: "inception_4a/1x1"
  type: "Convolution"
  bottom: "pool3/3x3_s2"
  top: "inception_4a/1x1"
  param {
    lr_mult: 1
    decay_mult: 1
  }
  param {
    lr_mult: 2
    decay_mult: 0
  }
  convolution_param {
    num_output: 192
    kernel_size: 1
    weight_filler {
      type: "xavier"
      std: 0.03
    }
    bias_filler {
      type: "constant"
      value: 0.2
    }
  }
}
layer {
  name: "inception_4a/relu_1x1"
  type: "ReLU"
  bottom: "inception_4a/1x1"
  top: "inception_4a/1x1"
}
layer {
  name: "inception_4a/3x3_reduce"
  type: "Convolution"
  bottom: "pool3/3x3_s2"
  top: "inception_4a/3x3_reduce"
  param {
    lr_mult: 1
    decay_mult: 1
  }
  param {
    lr_mult: 2
    decay_mult: 0
  }
  convolution_param {
    num_output: 96
    kernel_size: 1
    weight_filler {
      type: "xavier"
      std: 0.09
    }
    bias_filler {
      type: "constant"
      value: 0.2
    }
  }
}
layer {
  name: "inception_4a/relu_3x3_reduce"
  type: "ReLU"
  bottom: "inception_4a/3x3_reduce"
  top: "inception_4a/3x3_reduce"
}
layer {
  name: "inception_4a/3x3"
  type: "Convolution"
  bottom: "inception_4a/3x3_reduce"
  top: "inception_4a/3x3"
  param {
    lr_mult: 1
    decay_mult: 1
  }
  param {
    lr_mult: 2
    decay_mult: 0
  }
  convolution_param {
    num_output: 208
    pad: 1
    kernel_size: 3
    weight_filler {
      type: "xavier"
      std: 0.03
    }
    bias_filler {
      type: "constant"
      value: 0.2
    }
  }
}
layer {
  name: "inception_4a/relu_3x3"
  type: "ReLU"
  bottom: "inception_4a/3x3"
  top: "inception_4a/3x3"
}
layer {
  name: "inception_4a/5x5_reduce"
  type: "Convolution"
  bottom: "pool3/3x3_s2"
  top: "inception_4a/5x5_reduce"
  param {
    lr_mult: 1
    decay_mult: 1
  }
  param {
    lr_mult: 2
    decay_mult: 0
  }
  convolution_param {
    num_output: 16
    kernel_size: 1
    weight_filler {
      type: "xavier"
      std: 0.2
    }
    bias_filler {
      type: "constant"
      value: 0.2
    }
  }
}
layer {
  name: "inception_4a/relu_5x5_reduce"
  type: "ReLU"
  bottom: "inception_4a/5x5_reduce"
  top: "inception_4a/5x5_reduce"
}
layer {
  name: "inception_4a/5x5"
  type: "Convolution"
  bottom: "inception_4a/5x5_reduce"
  top: "inception_4a/5x5"
  param {
    lr_mult: 1
    decay_mult: 1
  }
  param {
    lr_mult: 2
    decay_mult: 0
  }
  convolution_param {
    num_output: 48
    pad: 2
    kernel_size: 5
    weight_filler {
      type: "xavier"
      std: 0.03
    }
    bias_filler {
      type: "constant"
      value: 0.2
    }
  }
}
layer {
  name: "inception_4a/relu_5x5"
  type: "ReLU"
  bottom: "inception_4a/5x5"
  top: "inception_4a/5x5"
}
layer {
  name: "inception_4a/pool"
  type: "Pooling"
  bottom: "pool3/3x3_s2"
  top: "inception_4a/pool"
  pooling_param {
    pool: MAX
    kernel_size: 3
    stride: 1
    pad: 1
  }
}
layer {
  name: "inception_4a/pool_proj"
  type: "Convolution"
  bottom: "inception_4a/pool"
  top: "inception_4a/pool_proj"
  param {
    lr_mult: 1
    decay_mult: 1
  }
  param {
    lr_mult: 2
    decay_mult: 0
  }
  convolution_param {
    num_output: 64
    kernel_size: 1
    weight_filler {
      type: "xavier"
      std: 0.1
    }
    bias_filler {
      type: "constant"
      value: 0.2
    }
  }
}
layer {
  name: "inception_4a/relu_pool_proj"
  type: "ReLU"
  bottom: "inception_4a/pool_proj"
  top: "inception_4a/pool_proj"
}
layer {
  name: "inception_4a/output"
  type: "Concat"
  bottom: "inception_4a/1x1"
  bottom: "inception_4a/3x3"
  bottom: "inception_4a/5x5"
  bottom: "inception_4a/pool_proj"
  top: "inception_4a/output"
}
layer {
  name: "loss1/ave_pool"
  type: "Pooling"
  bottom: "inception_4a/output"
  top: "loss1/ave_pool"
  pooling_param {
    pool: AVE
    kernel_size: 5
    stride: 3
  }
}
layer {
  name: "loss1/conv"
  type: "Convolution"
  bottom: "loss1/ave_pool"
  top: "loss1/conv"
  param {
    lr_mult: 1
    decay_mult: 1
  }
  param {
    lr_mult: 2
    decay_mult: 0
  }
  convolution_param {
    num_output: 128
    kernel_size: 1
    weight_filler {
      type: "xavier"
      std: 0.08
    }
    bias_filler {
      type: "constant"
      value: 0.2
    }
  }
}
layer {
  name: "loss1/relu_conv"
  type: "ReLU"
  bottom: "loss1/conv"
  top: "loss1/conv"
}
layer {
  name: "loss1/fc"
  type: "InnerProduct"
  bottom: "loss1/conv"
  top: "loss1/fc"
  param {
    lr_mult: 1
    decay_mult: 1
  }
  param {
    lr_mult: 2
    decay_mult: 0
  }
  inner_product_param {
    num_output: 1024
    weight_filler {
      type: "xavier"
      std: 0.02
    }
    bias_filler {
      type: "constant"
      value: 0.2
    }
  }
}
layer {
  name: "loss1/relu_fc"
  type: "ReLU"
  bottom: "loss1/fc"
  top: "loss1/fc"
}
layer {
  name: "loss1/drop_fc"
  type: "Dropout"
  bottom: "loss1/fc"
  top: "loss1/fc"
  dropout_param {
    dropout_ratio: 0.7
  }
}
layer {
  name: "loss1/classifier_plantvillage"
  type: "InnerProduct"
  bottom: "loss1/fc"
  top: "loss1/classifier_plantvillage"
  param {
    lr_mult: 1
    decay_mult: 1
  }
  param {
    lr_mult: 2
    decay_mult: 0
  }
  inner_product_param {
    num_output: 38
    weight_filler {
      type: "xavier"
      std: 0.0009765625
    }
    bias_filler {
      type: "constant"
      value: 0
    }
  }
}
layer {
  name: "inception_4b/1x1"
  type: "Convolution"
  bottom: "inception_4a/output"
  top: "inception_4b/1x1"
  param {
    lr_mult: 1
    decay_mult: 1
  }
  param {
    lr_mult: 2
    decay_mult: 0
  }
  convolution_param {
    num_output: 160
    kernel_size: 1
    weight_filler {
      type: "xavier"
      std: 0.03
    }
    bias_filler {
      type: "constant"
      value: 0.2
    }
  }
}
layer {
  name: "inception_4b/relu_1x1"
  type: "ReLU"
  bottom: "inception_4b/1x1"
  top: "inception_4b/1x1"
}
layer {
  name: "inception_4b/3x3_reduce"
  type: "Convolution"
  bottom: "inception_4a/output"
  top: "inception_4b/3x3_reduce"
  param {
    lr_mult: 1
    decay_mult: 1
  }
  param {
    lr_mult: 2
    decay_mult: 0
  }
  convolution_param {
    num_output: 112
    kernel_size: 1
    weight_filler {
      type: "xavier"
      std: 0.09
    }
    bias_filler {
      type: "constant"
      value: 0.2
    }
  }
}
layer {
  name: "inception_4b/relu_3x3_reduce"
  type: "ReLU"
  bottom: "inception_4b/3x3_reduce"
  top: "inception_4b/3x3_reduce"
}
layer {
  name: "inception_4b/3x3"
  type: "Convolution"
  bottom: "inception_4b/3x3_reduce"
  top: "inception_4b/3x3"
  param {
    lr_mult: 1
    decay_mult: 1
  }
  param {
    lr_mult: 2
    decay_mult: 0
  }
  convolution_param {
    num_output: 224
    pad: 1
    kernel_size: 3
    weight_filler {
      type: "xavier"
      std: 0.03
    }
    bias_filler {
      type: "constant"
      value: 0.2
    }
  }
}
layer {
  name: "inception_4b/relu_3x3"
  type: "ReLU"
  bottom: "inception_4b/3x3"
  top: "inception_4b/3x3"
}
layer {
  name: "inception_4b/5x5_reduce"
  type: "Convolution"
  bottom: "inception_4a/output"
  top: "inception_4b/5x5_reduce"
  param {
    lr_mult: 1
    decay_mult: 1
  }
  param {
    lr_mult: 2
    decay_mult: 0
  }
  convolution_param {
    num_output: 24
    kernel_size: 1
    weight_filler {
      type: "xavier"
      std: 0.2
    }
    bias_filler {
      type: "constant"
      value: 0.2
    }
  }
}
layer {
  name: "inception_4b/relu_5x5_reduce"
  type: "ReLU"
  bottom: "inception_4b/5x5_reduce"
  top: "inception_4b/5x5_reduce"
}
layer {
  name: "inception_4b/5x5"
  type: "Convolution"
  bottom: "inception_4b/5x5_reduce"
  top: "inception_4b/5x5"
  param {
    lr_mult: 1
    decay_mult: 1
  }
  param {
    lr_mult: 2
    decay_mult: 0
  }
  convolution_param {
    num_output: 64
    pad: 2
    kernel_size: 5
    weight_filler {
      type: "xavier"
      std: 0.03
    }
    bias_filler {
      type: "constant"
      value: 0.2
    }
  }
}
layer {
  name: "inception_4b/relu_5x5"
  type: "ReLU"
  bottom: "inception_4b/5x5"
  top: "inception_4b/5x5"
}
layer {
  name: "inception_4b/pool"
  type: "Pooling"
  bottom: "inception_4a/output"
  top: "inception_4b/pool"
  pooling_param {
    pool: MAX
    kernel_size: 3
    stride: 1
    pad: 1
  }
}
layer {
  name: "inception_4b/pool_proj"
  type: "Convolution"
  bottom: "inception_4b/pool"
  top: "inception_4b/pool_proj"
  param {
    lr_mult: 1
    decay_mult: 1
  }
  param {
    lr_mult: 2
    decay_mult: 0
  }
  convolution_param {
    num_output: 64
    kernel_size: 1
    weight_filler {
      type: "xavier"
      std: 0.1
    }
    bias_filler {
      type: "constant"
      value: 0.2
    }
  }
}
layer {
  name: "inception_4b/relu_pool_proj"
  type: "ReLU"
  bottom: "inception_4b/pool_proj"
  top: "inception_4b/pool_proj"
}
layer {
  name: "inception_4b/output"
  type: "Concat"
  bottom: "inception_4b/1x1"
  bottom: "inception_4b/3x3"
  bottom: "inception_4b/5x5"
  bottom: "inception_4b/pool_proj"
  top: "inception_4b/output"
}
layer {
  name: "inception_4c/1x1"
  type: "Convolution"
  bottom: "inception_4b/output"
  top: "inception_4c/1x1"
  param {
    lr_mult: 1
    decay_mult: 1
  }
  param {
    lr_mult: 2
    decay_mult: 0
  }
  convolution_param {
    num_output: 128
    kernel_size: 1
    weight_filler {
      type: "xavier"
      std: 0.03
    }
    bias_filler {
      type: "constant"
      value: 0.2
    }
  }
}
layer {
  name: "inception_4c/relu_1x1"
  type: "ReLU"
  bottom: "inception_4c/1x1"
  top: "inception_4c/1x1"
}
layer {
  name: "inception_4c/3x3_reduce"
  type: "Convolution"
  bottom: "inception_4b/output"
  top: "inception_4c/3x3_reduce"
  param {
    lr_mult: 1
    decay_mult: 1
  }
  param {
    lr_mult: 2
    decay_mult: 0
  }
  convolution_param {
    num_output: 128
    kernel_size: 1
    weight_filler {
      type: "xavier"
      std: 0.09
    }
    bias_filler {
      type: "constant"
      value: 0.2
    }
  }
}
layer {
  name: "inception_4c/relu_3x3_reduce"
  type: "ReLU"
  bottom: "inception_4c/3x3_reduce"
  top: "inception_4c/3x3_reduce"
}
layer {
  name: "inception_4c/3x3"
  type: "Convolution"
  bottom: "inception_4c/3x3_reduce"
  top: "inception_4c/3x3"
  param {
    lr_mult: 1
    decay_mult: 1
  }
  param {
    lr_mult: 2
    decay_mult: 0
  }
  convolution_param {
    num_output: 256
    pad: 1
    kernel_size: 3
    weight_filler {
      type: "xavier"
      std: 0.03
    }
    bias_filler {
      type: "constant"
      value: 0.2
    }
  }
}
layer {
  name: "inception_4c/relu_3x3"
  type: "ReLU"
  bottom: "inception_4c/3x3"
  top: "inception_4c/3x3"
}
layer {
  name: "inception_4c/5x5_reduce"
  type: "Convolution"
  bottom: "inception_4b/output"
  top: "inception_4c/5x5_reduce"
  param {
    lr_mult: 1
    decay_mult: 1
  }
  param {
    lr_mult: 2
    decay_mult: 0
  }
  convolution_param {
    num_output: 24
    kernel_size: 1
    weight_filler {
      type: "xavier"
      std: 0.2
    }
    bias_filler {
      type: "constant"
      value: 0.2
    }
  }
}
layer {
  name: "inception_4c/relu_5x5_reduce"
  type: "ReLU"
  bottom: "inception_4c/5x5_reduce"
  top: "inception_4c/5x5_reduce"
}
layer {
  name: "inception_4c/5x5"
  type: "Convolution"
  bottom: "inception_4c/5x5_reduce"
  top: "inception_4c/5x5"
  param {
    lr_mult: 1
    decay_mult: 1
  }
  param {
    lr_mult: 2
    decay_mult: 0
  }
  convolution_param {
    num_output: 64
    pad: 2
    kernel_size: 5
    weight_filler {
      type: "xavier"
      std: 0.03
    }
    bias_filler {
      type: "constant"
      value: 0.2
    }
  }
}
layer {
  name: "inception_4c/relu_5x5"
  type: "ReLU"
  bottom: "inception_4c/5x5"
  top: "inception_4c/5x5"
}
layer {
  name: "inception_4c/pool"
  type: "Pooling"
  bottom: "inception_4b/output"
  top: "inception_4c/pool"
  pooling_param {
    pool: MAX
    kernel_size: 3
    stride: 1
    pad: 1
  }
}
layer {
  name: "inception_4c/pool_proj"
  type: "Convolution"
  bottom: "inception_4c/pool"
  top: "inception_4c/pool_proj"
  param {
    lr_mult: 1
    decay_mult: 1
  }
  param {
    lr_mult: 2
    decay_mult: 0
  }
  convolution_param {
    num_output: 64
    kernel_size: 1
    weight_filler {
      type: "xavier"
      std: 0.1
    }
    bias_filler {
      type: "constant"
      value: 0.2
    }
  }
}
layer {
  name: "inception_4c/relu_pool_proj"
  type: "ReLU"
  bottom: "inception_4c/pool_proj"
  top: "inception_4c/pool_proj"
}
layer {
  name: "inception_4c/output"
  type: "Concat"
  bottom: "inception_4c/1x1"
  bottom: "inception_4c/3x3"
  bottom: "inception_4c/5x5"
  bottom: "inception_4c/pool_proj"
  top: "inception_4c/output"
}
layer {
  name: "inception_4d/1x1"
  type: "Convolution"
  bottom: "inception_4c/output"
  top: "inception_4d/1x1"
  param {
    lr_mult: 1
    decay_mult: 1
  }
  param {
    lr_mult: 2
    decay_mult: 0
  }
  convolution_param {
    num_output: 112
    kernel_size: 1
    weight_filler {
      type: "xavier"
      std: 0.03
    }
    bias_filler {
      type: "constant"
      value: 0.2
    }
  }
}
layer {
  name: "inception_4d/relu_1x1"
  type: "ReLU"
  bottom: "inception_4d/1x1"
  top: "inception_4d/1x1"
}
layer {
  name: "inception_4d/3x3_reduce"
  type: "Convolution"
  bottom: "inception_4c/output"
  top: "inception_4d/3x3_reduce"
  param {
    lr_mult: 1
    decay_mult: 1
  }
  param {
    lr_mult: 2
    decay_mult: 0
  }
  convolution_param {
    num_output: 144
    kernel_size: 1
    weight_filler {
      type: "xavier"
      std: 0.09
    }
    bias_filler {
      type: "constant"
      value: 0.2
    }
  }
}
layer {
  name: "inception_4d/relu_3x3_reduce"
  type: "ReLU"
  bottom: "inception_4d/3x3_reduce"
  top: "inception_4d/3x3_reduce"
}
layer {
  name: "inception_4d/3x3"
  type: "Convolution"
  bottom: "inception_4d/3x3_reduce"
  top: "inception_4d/3x3"
  param {
    lr_mult: 1
    decay_mult: 1
  }
  param {
    lr_mult: 2
    decay_mult: 0
  }
  convolution_param {
    num_output: 288
    pad: 1
    kernel_size: 3
    weight_filler {
      type: "xavier"
      std: 0.03
    }
    bias_filler {
      type: "constant"
      value: 0.2
    }
  }
}
layer {
  name: "inception_4d/relu_3x3"
  type: "ReLU"
  bottom: "inception_4d/3x3"
  top: "inception_4d/3x3"
}
layer {
  name: "inception_4d/5x5_reduce"
  type: "Convolution"
  bottom: "inception_4c/output"
  top: "inception_4d/5x5_reduce"
  param {
    lr_mult: 1
    decay_mult: 1
  }
  param {
    lr_mult: 2
    decay_mult: 0
  }
  convolution_param {
    num_output: 32
    kernel_size: 1
    weight_filler {
      type: "xavier"
      std: 0.2
    }
    bias_filler {
      type: "constant"
      value: 0.2
    }
  }
}
layer {
  name: "inception_4d/relu_5x5_reduce"
  type: "ReLU"
  bottom: "inception_4d/5x5_reduce"
  top: "inception_4d/5x5_reduce"
}
layer {
  name: "inception_4d/5x5"
  type: "Convolution"
  bottom: "inception_4d/5x5_reduce"
  top: "inception_4d/5x5"
  param {
    lr_mult: 1
    decay_mult: 1
  }
  param {
    lr_mult: 2
    decay_mult: 0
  }
  convolution_param {
    num_output: 64
    pad: 2
    kernel_size: 5
    weight_filler {
      type: "xavier"
      std: 0.03
    }
    bias_filler {
      type: "constant"
      value: 0.2
    }
  }
}
layer {
  name: "inception_4d/relu_5x5"
  type: "ReLU"
  bottom: "inception_4d/5x5"
  top: "inception_4d/5x5"
}
layer {
  name: "inception_4d/pool"
  type: "Pooling"
  bottom: "inception_4c/output"
  top: "inception_4d/pool"
  pooling_param {
    pool: MAX
    kernel_size: 3
    stride: 1
    pad: 1
  }
}
layer {
  name: "inception_4d/pool_proj"
  type: "Convolution"
  bottom: "inception_4d/pool"
  top: "inception_4d/pool_proj"
  param {
    lr_mult: 1
    decay_mult: 1
  }
  param {
    lr_mult: 2
    decay_mult: 0
  }
  convolution_param {
    num_output: 64
    kernel_size: 1
    weight_filler {
      type: "xavier"
      std: 0.1
    }
    bias_filler {
      type: "constant"
      value: 0.2
    }
  }
}
layer {
  name: "inception_4d/relu_pool_proj"
  type: "ReLU"
  bottom: "inception_4d/pool_proj"
  top: "inception_4d/pool_proj"
}
layer {
  name: "inception_4d/output"
  type: "Concat"
  bottom: "inception_4d/1x1"
  bottom: "inception_4d/3x3"
  bottom: "inception_4d/5x5"
  bottom: "inception_4d/pool_proj"
  top: "inception_4d/output"
}
layer {
  name: "loss2/ave_pool"
  type: "Pooling"
  bottom: "inception_4d/output"
  top: "loss2/ave_pool"
  pooling_param {
    pool: AVE
    kernel_size: 5
    stride: 3
  }
}
layer {
  name: "loss2/conv"
  type: "Convolution"
  bottom: "loss2/ave_pool"
  top: "loss2/conv"
  param {
    lr_mult: 1
    decay_mult: 1
  }
  param {
    lr_mult: 2
    decay_mult: 0
  }
  convolution_param {
    num_output: 128
    kernel_size: 1
    weight_filler {
      type: "xavier"
      std: 0.08
    }
    bias_filler {
      type: "constant"
      value: 0.2
    }
  }
}
layer {
  name: "loss2/relu_conv"
  type: "ReLU"
  bottom: "loss2/conv"
  top: "loss2/conv"
}
layer {
  name: "loss2/fc"
  type: "InnerProduct"
  bottom: "loss2/conv"
  top: "loss2/fc"
  param {
    lr_mult: 1
    decay_mult: 1
  }
  param {
    lr_mult: 2
    decay_mult: 0
  }
  inner_product_param {
    num_output: 1024
    weight_filler {
      type: "xavier"
      std: 0.02
    }
    bias_filler {
      type: "constant"
      value: 0.2
    }
  }
}
layer {
  name: "loss2/relu_fc"
  type: "ReLU"
  bottom: "loss2/fc"
  top: "loss2/fc"
}
layer {
  name: "loss2/drop_fc"
  type: "Dropout"
  bottom: "loss2/fc"
  top: "loss2/fc"
  dropout_param {
    dropout_ratio: 0.7
  }
}
layer {
  name: "loss2/classifier_plantvillage"
  type: "InnerProduct"
  bottom: "loss2/fc"
  top: "loss2/classifier_plantvillage"
  param {
    lr_mult: 1
    decay_mult: 1
  }
  param {
    lr_mult: 2
    decay_mult: 0
  }
  inner_product_param {
    num_output: 38
    weight_filler {
      type: "xavier"
      std: 0.0009765625
    }
    bias_filler {
      type: "constant"
      value: 0
    }
  }
}
layer {
  name: "inception_4e/1x1"
  type: "Convolution"
  bottom: "inception_4d/output"
  top: "inception_4e/1x1"
  param {
    lr_mult: 1
    decay_mult: 1
  }
  param {
    lr_mult: 2
    decay_mult: 0
  }
  convolution_param {
    num_output: 256
    kernel_size: 1
    weight_filler {
      type: "xavier"
      std: 0.03
    }
    bias_filler {
      type: "constant"
      value: 0.2
    }
  }
}
layer {
  name: "inception_4e/relu_1x1"
  type: "ReLU"
  bottom: "inception_4e/1x1"
  top: "inception_4e/1x1"
}
layer {
  name: "inception_4e/3x3_reduce"
  type: "Convolution"
  bottom: "inception_4d/output"
  top: "inception_4e/3x3_reduce"
  param {
    lr_mult: 1
    decay_mult: 1
  }
  param {
    lr_mult: 2
    decay_mult: 0
  }
  convolution_param {
    num_output: 160
    kernel_size: 1
    weight_filler {
      type: "xavier"
      std: 0.09
    }
    bias_filler {
      type: "constant"
      value: 0.2
    }
  }
}
layer {
  name: "inception_4e/relu_3x3_reduce"
  type: "ReLU"
  bottom: "inception_4e/3x3_reduce"
  top: "inception_4e/3x3_reduce"
}
layer {
  name: "inception_4e/3x3"
  type: "Convolution"
  bottom: "inception_4e/3x3_reduce"
  top: "inception_4e/3x3"
  param {
    lr_mult: 1
    decay_mult: 1
  }
  param {
    lr_mult: 2
    decay_mult: 0
  }
  convolution_param {
    num_output: 320
    pad: 1
    kernel_size: 3
    weight_filler {
      type: "xavier"
      std: 0.03
    }
    bias_filler {
      type: "constant"
      value: 0.2
    }
  }
}
layer {
  name: "inception_4e/relu_3x3"
  type: "ReLU"
  bottom: "inception_4e/3x3"
  top: "inception_4e/3x3"
}
layer {
  name: "inception_4e/5x5_reduce"
  type: "Convolution"
  bottom: "inception_4d/output"
  top: "inception_4e/5x5_reduce"
  param {
    lr_mult: 1
    decay_mult: 1
  }
  param {
    lr_mult: 2
    decay_mult: 0
  }
  convolution_param {
    num_output: 32
    kernel_size: 1
    weight_filler {
      type: "xavier"
      std: 0.2
    }
    bias_filler {
      type: "constant"
      value: 0.2
    }
  }
}
layer {
  name: "inception_4e/relu_5x5_reduce"
  type: "ReLU"
  bottom: "inception_4e/5x5_reduce"
  top: "inception_4e/5x5_reduce"
}
layer {
  name: "inception_4e/5x5"
  type: "Convolution"
  bottom: "inception_4e/5x5_reduce"
  top: "inception_4e/5x5"
 
I0403 04:03:42.510107 30575 layer_factory.hpp:77] Creating layer data
I0403 04:03:42.510756 30575 net.cpp:91] Creating Layer data
I0403 04:03:42.510795 30575 net.cpp:399] data -> data
I0403 04:03:42.510850 30575 net.cpp:399] data -> label
I0403 04:03:42.510885 30575 data_transformer.cpp:25] Loading mean file from: /home/mohanty/data/final_dataset/lmdb/color-20-80/mean.binaryproto
I0403 04:03:42.610069 30581 db_lmdb.cpp:38] Opened lmdb /home/mohanty/data/final_dataset/lmdb/color-20-80/train_db
I0403 04:03:42.628314 30575 data_layer.cpp:41] output data size: 24,3,224,224
I0403 04:03:42.659538 30575 net.cpp:141] Setting up data
I0403 04:03:42.659608 30575 net.cpp:148] Top shape: 24 3 224 224 (3612672)
I0403 04:03:42.659631 30575 net.cpp:148] Top shape: 24 (24)
I0403 04:03:42.659646 30575 net.cpp:156] Memory required for data: 14450784
I0403 04:03:42.659708 30575 layer_factory.hpp:77] Creating layer label_data_1_split
I0403 04:03:42.659739 30575 net.cpp:91] Creating Layer label_data_1_split
I0403 04:03:42.659759 30575 net.cpp:425] label_data_1_split <- label
I0403 04:03:42.659790 30575 net.cpp:399] label_data_1_split -> label_data_1_split_0
I0403 04:03:42.659818 30575 net.cpp:399] label_data_1_split -> label_data_1_split_1
I0403 04:03:42.659839 30575 net.cpp:399] label_data_1_split -> label_data_1_split_2
I0403 04:03:42.659905 30575 net.cpp:141] Setting up label_data_1_split
I0403 04:03:42.659930 30575 net.cpp:148] Top shape: 24 (24)
I0403 04:03:42.659947 30575 net.cpp:148] Top shape: 24 (24)
I0403 04:03:42.659963 30575 net.cpp:148] Top shape: 24 (24)
I0403 04:03:42.659977 30575 net.cpp:156] Memory required for data: 14451072
I0403 04:03:42.659992 30575 layer_factory.hpp:77] Creating layer conv1/7x7_s2
I0403 04:03:42.660027 30575 net.cpp:91] Creating Layer conv1/7x7_s2
I0403 04:03:42.660045 30575 net.cpp:425] conv1/7x7_s2 <- data
I0403 04:03:42.660065 30575 net.cpp:399] conv1/7x7_s2 -> conv1/7x7_s2
I0403 04:03:42.663292 30575 net.cpp:141] Setting up conv1/7x7_s2
I0403 04:03:42.663321 30575 net.cpp:148] Top shape: 24 64 112 112 (19267584)
I0403 04:03:42.663338 30575 net.cpp:156] Memory required for data: 91521408
I0403 04:03:42.663375 30575 layer_factory.hpp:77] Creating layer conv1/relu_7x7
I0403 04:03:42.663401 30575 net.cpp:91] Creating Layer conv1/relu_7x7
I0403 04:03:42.663419 30575 net.cpp:425] conv1/relu_7x7 <- conv1/7x7_s2
I0403 04:03:42.663439 30575 net.cpp:386] conv1/relu_7x7 -> conv1/7x7_s2 (in-place)
I0403 04:03:42.663460 30575 net.cpp:141] Setting up conv1/relu_7x7
I0403 04:03:42.663480 30575 net.cpp:148] Top shape: 24 64 112 112 (19267584)
I0403 04:03:42.663494 30575 net.cpp:156] Memory required for data: 168591744
I0403 04:03:42.663514 30575 layer_factory.hpp:77] Creating layer pool1/3x3_s2
I0403 04:03:42.663537 30575 net.cpp:91] Creating Layer pool1/3x3_s2
I0403 04:03:42.663554 30575 net.cpp:425] pool1/3x3_s2 <- conv1/7x7_s2
I0403 04:03:42.663573 30575 net.cpp:399] pool1/3x3_s2 -> pool1/3x3_s2
I0403 04:03:42.663640 30575 net.cpp:141] Setting up pool1/3x3_s2
I0403 04:03:42.663664 30575 net.cpp:148] Top shape: 24 64 56 56 (4816896)
I0403 04:03:42.663681 30575 net.cpp:156] Memory required for data: 187859328
I0403 04:03:42.663697 30575 layer_factory.hpp:77] Creating layer pool1/norm1
I0403 04:03:42.663717 30575 net.cpp:91] Creating Layer pool1/norm1
I0403 04:03:42.663733 30575 net.cpp:425] pool1/norm1 <- pool1/3x3_s2
I0403 04:03:42.663753 30575 net.cpp:399] pool1/norm1 -> pool1/norm1
I0403 04:03:42.663808 30575 net.cpp:141] Setting up pool1/norm1
I0403 04:03:42.663831 30575 net.cpp:148] Top shape: 24 64 56 56 (4816896)
I0403 04:03:42.663847 30575 net.cpp:156] Memory required for data: 207126912
I0403 04:03:42.663863 30575 layer_factory.hpp:77] Creating layer conv2/3x3_reduce
I0403 04:03:42.663885 30575 net.cpp:91] Creating Layer conv2/3x3_reduce
I0403 04:03:42.663903 30575 net.cpp:425] conv2/3x3_reduce <- pool1/norm1
I0403 04:03:42.663923 30575 net.cpp:399] conv2/3x3_reduce -> conv2/3x3_reduce
I0403 04:03:42.667249 30575 net.cpp:141] Setting up conv2/3x3_reduce
I0403 04:03:42.667279 30575 net.cpp:148] Top shape: 24 64 56 56 (4816896)
I0403 04:03:42.667296 30575 net.cpp:156] Memory required for data: 226394496
I0403 04:03:42.667320 30575 layer_factory.hpp:77] Creating layer conv2/relu_3x3_reduce
I0403 04:03:42.667340 30575 net.cpp:91] Creating Layer conv2/relu_3x3_reduce
I0403 04:03:42.667356 30575 net.cpp:425] conv2/relu_3x3_reduce <- conv2/3x3_reduce
I0403 04:03:42.667374 30575 net.cpp:386] conv2/relu_3x3_reduce -> conv2/3x3_reduce (in-place)
I0403 04:03:42.667394 30575 net.cpp:141] Setting up conv2/relu_3x3_reduce
I0403 04:03:42.667412 30575 net.cpp:148] Top shape: 24 64 56 56 (4816896)
I0403 04:03:42.667426 30575 net.cpp:156] Memory required for data: 245662080
I0403 04:03:42.667443 30575 layer_factory.hpp:77] Creating layer conv2/3x3
I0403 04:03:42.667466 30575 net.cpp:91] Creating Layer conv2/3x3
I0403 04:03:42.667484 30575 net.cpp:425] conv2/3x3 <- conv2/3x3_reduce
I0403 04:03:42.667526 30575 net.cpp:399] conv2/3x3 -> conv2/3x3
I0403 04:03:42.671777 30575 net.cpp:141] Setting up conv2/3x3
I0403 04:03:42.671808 30575 net.cpp:148] Top shape: 24 192 56 56 (14450688)
I0403 04:03:42.671824 30575 net.cpp:156] Memory required for data: 303464832
I0403 04:03:42.671846 30575 layer_factory.hpp:77] Creating layer conv2/relu_3x3
I0403 04:03:42.671866 30575 net.cpp:91] Creating Layer conv2/relu_3x3
I0403 04:03:42.671883 30575 net.cpp:425] conv2/relu_3x3 <- conv2/3x3
I0403 04:03:42.671901 30575 net.cpp:386] conv2/relu_3x3 -> conv2/3x3 (in-place)
I0403 04:03:42.671921 30575 net.cpp:141] Setting up conv2/relu_3x3
I0403 04:03:42.671941 30575 net.cpp:148] Top shape: 24 192 56 56 (14450688)
I0403 04:03:42.671955 30575 net.cpp:156] Memory required for data: 361267584
I0403 04:03:42.671969 30575 layer_factory.hpp:77] Creating layer conv2/norm2
I0403 04:03:42.671988 30575 net.cpp:91] Creating Layer conv2/norm2
I0403 04:03:42.672004 30575 net.cpp:425] conv2/norm2 <- conv2/3x3
I0403 04:03:42.672022 30575 net.cpp:399] conv2/norm2 -> conv2/norm2
I0403 04:03:42.672070 30575 net.cpp:141] Setting up conv2/norm2
I0403 04:03:42.672093 30575 net.cpp:148] Top shape: 24 192 56 56 (14450688)
I0403 04:03:42.672109 30575 net.cpp:156] Memory required for data: 419070336
I0403 04:03:42.672124 30575 layer_factory.hpp:77] Creating layer pool2/3x3_s2
I0403 04:03:42.672143 30575 net.cpp:91] Creating Layer pool2/3x3_s2
I0403 04:03:42.672159 30575 net.cpp:425] pool2/3x3_s2 <- conv2/norm2
I0403 04:03:42.672178 30575 net.cpp:399] pool2/3x3_s2 -> pool2/3x3_s2
I0403 04:03:42.672224 30575 net.cpp:141] Setting up pool2/3x3_s2
I0403 04:03:42.672246 30575 net.cpp:148] Top shape: 24 192 28 28 (3612672)
I0403 04:03:42.672263 30575 net.cpp:156] Memory required for data: 433521024
I0403 04:03:42.672278 30575 layer_factory.hpp:77] Creating layer pool2/3x3_s2_pool2/3x3_s2_0_split
I0403 04:03:42.672297 30575 net.cpp:91] Creating Layer pool2/3x3_s2_pool2/3x3_s2_0_split
I0403 04:03:42.672313 30575 net.cpp:425] pool2/3x3_s2_pool2/3x3_s2_0_split <- pool2/3x3_s2
I0403 04:03:42.672333 30575 net.cpp:399] pool2/3x3_s2_pool2/3x3_s2_0_split -> pool2/3x3_s2_pool2/3x3_s2_0_split_0
I0403 04:03:42.672353 30575 net.cpp:399] pool2/3x3_s2_pool2/3x3_s2_0_split -> pool2/3x3_s2_pool2/3x3_s2_0_split_1
I0403 04:03:42.672374 30575 net.cpp:399] pool2/3x3_s2_pool2/3x3_s2_0_split -> pool2/3x3_s2_pool2/3x3_s2_0_split_2
I0403 04:03:42.672395 30575 net.cpp:399] pool2/3x3_s2_pool2/3x3_s2_0_split -> pool2/3x3_s2_pool2/3x3_s2_0_split_3
I0403 04:03:42.672456 30575 net.cpp:141] Setting up pool2/3x3_s2_pool2/3x3_s2_0_split
I0403 04:03:42.672479 30575 net.cpp:148] Top shape: 24 192 28 28 (3612672)
I0403 04:03:42.672497 30575 net.cpp:148] Top shape: 24 192 28 28 (3612672)
I0403 04:03:42.672518 30575 net.cpp:148] Top shape: 24 192 28 28 (3612672)
I0403 04:03:42.672536 30575 net.cpp:148] Top shape: 24 192 28 28 (3612672)
I0403 04:03:42.672551 30575 net.cpp:156] Memory required for data: 491323776
I0403 04:03:42.672567 30575 layer_factory.hpp:77] Creating layer inception_3a/1x1
I0403 04:03:42.672590 30575 net.cpp:91] Creating Layer inception_3a/1x1
I0403 04:03:42.672608 30575 net.cpp:425] inception_3a/1x1 <- pool2/3x3_s2_pool2/3x3_s2_0_split_0
I0403 04:03:42.672629 30575 net.cpp:399] inception_3a/1x1 -> inception_3a/1x1
I0403 04:03:42.675896 30575 net.cpp:141] Setting up inception_3a/1x1
I0403 04:03:42.675926 30575 net.cpp:148] Top shape: 24 64 28 28 (1204224)
I0403 04:03:42.675943 30575 net.cpp:156] Memory required for data: 496140672
I0403 04:03:42.675962 30575 layer_factory.hpp:77] Creating layer inception_3a/relu_1x1
I0403 04:03:42.675983 30575 net.cpp:91] Creating Layer inception_3a/relu_1x1
I0403 04:03:42.676000 30575 net.cpp:425] inception_3a/relu_1x1 <- inception_3a/1x1
I0403 04:03:42.676019 30575 net.cpp:386] inception_3a/relu_1x1 -> inception_3a/1x1 (in-place)
I0403 04:03:42.676039 30575 net.cpp:141] Setting up inception_3a/relu_1x1
I0403 04:03:42.676057 30575 net.cpp:148] Top shape: 24 64 28 28 (1204224)
I0403 04:03:42.676071 30575 net.cpp:156] Memory required for data: 500957568
I0403 04:03:42.676102 30575 layer_factory.hpp:77] Creating layer inception_3a/3x3_reduce
I0403 04:03:42.676127 30575 net.cpp:91] Creating Layer inception_3a/3x3_reduce
I0403 04:03:42.676146 30575 net.cpp:425] inception_3a/3x3_reduce <- pool2/3x3_s2_pool2/3x3_s2_0_split_1
I0403 04:03:42.676164 30575 net.cpp:399] inception_3a/3x3_reduce -> inception_3a/3x3_reduce
I0403 04:03:42.678340 30575 net.cpp:141] Setting up inception_3a/3x3_reduce
I0403 04:03:42.678387 30575 net.cpp:148] Top shape: 24 96 28 28 (1806336)
I0403 04:03:42.678403 30575 net.cpp:156] Memory required for data: 508182912
I0403 04:03:42.678424 30575 layer_factory.hpp:77] Creating layer inception_3a/relu_3x3_reduce
I0403 04:03:42.678448 30575 net.cpp:91] Creating Layer inception_3a/relu_3x3_reduce
I0403 04:03:42.678467 30575 net.cpp:425] inception_3a/relu_3x3_reduce <- inception_3a/3x3_reduce
I0403 04:03:42.678484 30575 net.cpp:386] inception_3a/relu_3x3_reduce -> inception_3a/3x3_reduce (in-place)
I0403 04:03:42.678503 30575 net.cpp:141] Setting up inception_3a/relu_3x3_reduce
I0403 04:03:42.678525 30575 net.cpp:148] Top shape: 24 96 28 28 (1806336)
I0403 04:03:42.678540 30575 net.cpp:156] Memory required for data: 515408256
I0403 04:03:42.678555 30575 layer_factory.hpp:77] Creating layer inception_3a/3x3
I0403 04:03:42.678577 30575 net.cpp:91] Creating Layer inception_3a/3x3
I0403 04:03:42.678594 30575 net.cpp:425] inception_3a/3x3 <- inception_3a/3x3_reduce
I0403 04:03:42.678613 30575 net.cpp:399] inception_3a/3x3 -> inception_3a/3x3
I0403 04:03:42.679407 30575 net.cpp:141] Setting up inception_3a/3x3
I0403 04:03:42.679432 30575 net.cpp:148] Top shape: 24 128 28 28 (2408448)
I0403 04:03:42.679447 30575 net.cpp:156] Memory required for data: 525042048
I0403 04:03:42.679466 30575 layer_factory.hpp:77] Creating layer inception_3a/relu_3x3
I0403 04:03:42.679483 30575 net.cpp:91] Creating Layer inception_3a/relu_3x3
I0403 04:03:42.679499 30575 net.cpp:425] inception_3a/relu_3x3 <- inception_3a/3x3
I0403 04:03:42.679522 30575 net.cpp:386] inception_3a/relu_3x3 -> inception_3a/3x3 (in-place)
I0403 04:03:42.679544 30575 net.cpp:141] Setting up inception_3a/relu_3x3
I0403 04:03:42.679563 30575 net.cpp:148] Top shape: 24 128 28 28 (2408448)
I0403 04:03:42.679579 30575 net.cpp:156] Memory required for data: 534675840
I0403 04:03:42.679592 30575 layer_factory.hpp:77] Creating layer inception_3a/5x5_reduce
I0403 04:03:42.679611 30575 net.cpp:91] Creating Layer inception_3a/5x5_reduce
I0403 04:03:42.679631 30575 net.cpp:425] inception_3a/5x5_reduce <- pool2/3x3_s2_pool2/3x3_s2_0_split_2
I0403 04:03:42.679651 30575 net.cpp:399] inception_3a/5x5_reduce -> inception_3a/5x5_reduce
I0403 04:03:42.681273 30575 net.cpp:141] Setting up inception_3a/5x5_reduce
I0403 04:03:42.681303 30575 net.cpp:148] Top shape: 24 16 28 28 (301056)
I0403 04:03:42.681318 30575 net.cpp:156] Memory required for data: 535880064
I0403 04:03:42.681335 30575 layer_factory.hpp:77] Creating layer inception_3a/relu_5x5_reduce
I0403 04:03:42.681354 30575 net.cpp:91] Creating Layer inception_3a/relu_5x5_reduce
I0403 04:03:42.681372 30575 net.cpp:425] inception_3a/relu_5x5_reduce <- inception_3a/5x5_reduce
I0403 04:03:42.681391 30575 net.cpp:386] inception_3a/relu_5x5_reduce -> inception_3a/5x5_reduce (in-place)
I0403 04:03:42.681409 30575 net.cpp:141] Setting up inception_3a/relu_5x5_reduce
I0403 04:03:42.681427 30575 net.cpp:148] Top shape: 24 16 28 28 (301056)
I0403 04:03:42.681442 30575 net.cpp:156] Memory required for data: 537084288
I0403 04:03:42.681455 30575 layer_factory.hpp:77] Creating layer inception_3a/5x5
I0403 04:03:42.681478 30575 net.cpp:91] Creating Layer inception_3a/5x5
I0403 04:03:42.681495 30575 net.cpp:425] inception_3a/5x5 <- inception_3a/5x5_reduce
I0403 04:03:42.681519 30575 net.cpp:399] inception_3a/5x5 -> inception_3a/5x5
I0403 04:03:42.681792 30575 net.cpp:141] Setting up inception_3a/5x5
I0403 04:03:42.681816 30575 net.cpp:148] Top shape: 24 32 28 28 (602112)
I0403 04:03:42.681831 30575 net.cpp:156] Memory required for data: 539492736
I0403 04:03:42.681864 30575 layer_factory.hpp:77] Creating layer inception_3a/relu_5x5
I0403 04:03:42.681885 30575 net.cpp:91] Creating Layer inception_3a/relu_5x5
I0403 04:03:42.681900 30575 net.cpp:425] inception_3a/relu_5x5 <- inception_3a/5x5
I0403 04:03:42.681921 30575 net.cpp:386] inception_3a/relu_5x5 -> inception_3a/5x5 (in-place)
I0403 04:03:42.681942 30575 net.cpp:141] Setting up inception_3a/relu_5x5
I0403 04:03:42.681959 30575 net.cpp:148] Top shape: 24 32 28 28 (602112)
I0403 04:03:42.681974 30575 net.cpp:156] Memory required for data: 541901184
I0403 04:03:42.681988 30575 layer_factory.hpp:77] Creating layer inception_3a/pool
I0403 04:03:42.682004 30575 net.cpp:91] Creating Layer inception_3a/pool
I0403 04:03:42.682021 30575 net.cpp:425] inception_3a/pool <- pool2/3x3_s2_pool2/3x3_s2_0_split_3
I0403 04:03:42.682044 30575 net.cpp:399] inception_3a/pool -> inception_3a/pool
I0403 04:03:42.682093 30575 net.cpp:141] Setting up inception_3a/pool
I0403 04:03:42.682116 30575 net.cpp:148] Top shape: 24 192 28 28 (3612672)
I0403 04:03:42.682132 30575 net.cpp:156] Memory required for data: 556351872
I0403 04:03:42.682145 30575 layer_factory.hpp:77] Creating layer inception_3a/pool_proj
I0403 04:03:42.682168 30575 net.cpp:91] Creating Layer inception_3a/pool_proj
I0403 04:03:42.682185 30575 net.cpp:425] inception_3a/pool_proj <- inception_3a/pool
I0403 04:03:42.682206 30575 net.cpp:399] inception_3a/pool_proj -> inception_3a/pool_proj
I0403 04:03:42.682431 30575 net.cpp:141] Setting up inception_3a/pool_proj
I0403 04:03:42.682456 30575 net.cpp:148] Top shape: 24 32 28 28 (602112)
I0403 04:03:42.682471 30575 net.cpp:156] Memory required for data: 558760320
I0403 04:03:42.682492 30575 layer_factory.hpp:77] Creating layer inception_3a/relu_pool_proj
I0403 04:03:42.682517 30575 net.cpp:91] Creating Layer inception_3a/relu_pool_proj
I0403 04:03:42.682534 30575 net.cpp:425] inception_3a/relu_pool_proj <- inception_3a/pool_proj
I0403 04:03:42.682551 30575 net.cpp:386] inception_3a/relu_pool_proj -> inception_3a/pool_proj (in-place)
I0403 04:03:42.682570 30575 net.cpp:141] Setting up inception_3a/relu_pool_proj
I0403 04:03:42.682587 30575 net.cpp:148] Top shape: 24 32 28 28 (602112)
I0403 04:03:42.682601 30575 net.cpp:156] Memory required for data: 561168768
I0403 04:03:42.682615 30575 layer_factory.hpp:77] Creating layer inception_3a/output
I0403 04:03:42.682632 30575 net.cpp:91] Creating Layer inception_3a/output
I0403 04:03:42.682647 30575 net.cpp:425] inception_3a/output <- inception_3a/1x1
I0403 04:03:42.682662 30575 net.cpp:425] inception_3a/output <- inception_3a/3x3
I0403 04:03:42.682677 30575 net.cpp:425] inception_3a/output <- inception_3a/5x5
I0403 04:03:42.682693 30575 net.cpp:425] inception_3a/output <- inception_3a/pool_proj
I0403 04:03:42.682713 30575 net.cpp:399] inception_3a/output -> inception_3a/output
I0403 04:03:42.682781 30575 net.cpp:141] Setting up inception_3a/output
I0403 04:03:42.682804 30575 net.cpp:148] Top shape: 24 256 28 28 (4816896)
I0403 04:03:42.682819 30575 net.cpp:156] Memory required for data: 580436352
I0403 04:03:42.682833 30575 layer_factory.hpp:77] Creating layer inception_3a/output_inception_3a/output_0_split
I0403 04:03:42.682832 30583 blocking_queue.cpp:50] Waiting for data
I0403 04:03:42.682857 30575 net.cpp:91] Creating Layer inception_3a/output_inception_3a/output_0_split
I0403 04:03:42.682894 30575 net.cpp:425] inception_3a/output_inception_3a/output_0_split <- inception_3a/output
I0403 04:03:42.682915 30575 net.cpp:399] inception_3a/output_inception_3a/output_0_split -> inception_3a/output_inception_3a/output_0_split_0
I0403 04:03:42.682951 30575 net.cpp:399] inception_3a/output_inception_3a/output_0_split -> inception_3a/output_inception_3a/output_0_split_1
I0403 04:03:42.682987 30575 net.cpp:399] inception_3a/output_inception_3a/output_0_split -> inception_3a/output_inception_3a/output_0_split_2
I0403 04:03:42.683030 30575 net.cpp:399] inception_3a/output_inception_3a/output_0_split -> inception_3a/output_inception_3a/output_0_split_3
I0403 04:03:42.683151 30575 net.cpp:141] Setting up inception_3a/output_inception_3a/output_0_split
I0403 04:03:42.683213 30575 net.cpp:148] Top shape: 24 256 28 28 (4816896)
I0403 04:03:42.683244 30575 net.cpp:148] Top shape: 24 256 28 28 (4816896)
I0403 04:03:42.683274 30575 net.cpp:148] Top shape: 24 256 28 28 (4816896)
I0403 04:03:42.683301 30575 net.cpp:148] Top shape: 24 256 28 28 (4816896)
I0403 04:03:42.683326 30575 net.cpp:156] Memory required for data: 657506688
I0403 04:03:42.683352 30575 layer_factory.hpp:77] Creating layer inception_3b/1x1
I0403 04:03:42.683393 30575 net.cpp:91] Creating Layer inception_3b/1x1
I0403 04:03:42.683424 30575 net.cpp:425] inception_3b/1x1 <- inception_3a/output_inception_3a/output_0_split_0
I0403 04:03:42.683462 30575 net.cpp:399] inception_3b/1x1 -> inception_3b/1x1
I0403 04:03:42.684005 30575 net.cpp:141] Setting up inception_3b/1x1
I0403 04:03:42.684051 30575 net.cpp:148] Top shape: 24 128 28 28 (2408448)
I0403 04:03:42.684078 30575 net.cpp:156] Memory required for data: 667140480
I0403 04:03:42.684110 30575 layer_factory.hpp:77] Creating layer inception_3b/relu_1x1
I0403 04:03:42.684144 30575 net.cpp:91] Creating Layer inception_3b/relu_1x1
I0403 04:03:42.684172 30575 net.cpp:425] inception_3b/relu_1x1 <- inception_3b/1x1
I0403 04:03:42.684203 30575 net.cpp:386] inception_3b/relu_1x1 -> inception_3b/1x1 (in-place)
I0403 04:03:42.684237 30575 net.cpp:141] Setting up inception_3b/relu_1x1
I0403 04:03:42.684268 30575 net.cpp:148] Top shape: 24 128 28 28 (2408448)
I0403 04:03:42.684293 30575 net.cpp:156] Memory required for data: 676774272
I0403 04:03:42.684319 30575 layer_factory.hpp:77] Creating layer inception_3b/3x3_reduce
I0403 04:03:42.684360 30575 net.cpp:91] Creating Layer inception_3b/3x3_reduce
I0403 04:03:42.684391 30575 net.cpp:425] inception_3b/3x3_reduce <- inception_3a/output_inception_3a/output_0_split_1
I0403 04:03:42.684427 30575 net.cpp:399] inception_3b/3x3_reduce -> inception_3b/3x3_reduce
I0403 04:03:42.684900 30575 net.cpp:141] Setting up inception_3b/3x3_reduce
I0403 04:03:42.684923 30575 net.cpp:148] Top shape: 24 128 28 28 (2408448)
I0403 04:03:42.684938 30575 net.cpp:156] Memory required for data: 686408064
I0403 04:03:42.684955 30575 layer_factory.hpp:77] Creating layer inception_3b/relu_3x3_reduce
I0403 04:03:42.684973 30575 net.cpp:91] Creating Layer inception_3b/relu_3x3_reduce
I0403 04:03:42.684988 30575 net.cpp:425] inception_3b/relu_3x3_reduce <- inception_3b/3x3_reduce
I0403 04:03:42.685005 30575 net.cpp:386] inception_3b/relu_3x3_reduce -> inception_3b/3x3_reduce (in-place)
I0403 04:03:42.685026 30575 net.cpp:141] Setting up inception_3b/relu_3x3_reduce
I0403 04:03:42.685044 30575 net.cpp:148] Top shape: 24 128 28 28 (2408448)
I0403 04:03:42.685057 30575 net.cpp:156] Memory required for data: 696041856
I0403 04:03:42.685070 30575 layer_factory.hpp:77] Creating layer inception_3b/3x3
I0403 04:03:42.685094 30575 net.cpp:91] Creating Layer inception_3b/3x3
I0403 04:03:42.685112 30575 net.cpp:425] inception_3b/3x3 <- inception_3b/3x3_reduce
I0403 04:03:42.685132 30575 net.cpp:399] inception_3b/3x3 -> inception_3b/3x3
I0403 04:03:42.687077 30575 net.cpp:141] Setting up inception_3b/3x3
I0403 04:03:42.687103 30575 net.cpp:148] Top shape: 24 192 28 28 (3612672)
I0403 04:03:42.687119 30575 net.cpp:156] Memory required for data: 710492544
I0403 04:03:42.687136 30575 layer_factory.hpp:77] Creating layer inception_3b/relu_3x3
I0403 04:03:42.687155 30575 net.cpp:91] Creating Layer inception_3b/relu_3x3
I0403 04:03:42.687170 30575 net.cpp:425] inception_3b/relu_3x3 <- inception_3b/3x3
I0403 04:03:42.687188 30575 net.cpp:386] inception_3b/relu_3x3 -> inception_3b/3x3 (in-place)
I0403 04:03:42.687208 30575 net.cpp:141] Setting up inception_3b/relu_3x3
I0403 04:03:42.687224 30575 net.cpp:148] Top shape: 24 192 28 28 (3612672)
I0403 04:03:42.687238 30575 net.cpp:156] Memory required for data: 724943232
I0403 04:03:42.687252 30575 layer_factory.hpp:77] Creating layer inception_3b/5x5_reduce
I0403 04:03:42.687274 30575 net.cpp:91] Creating Layer inception_3b/5x5_reduce
I0403 04:03:42.687291 30575 net.cpp:425] inception_3b/5x5_reduce <- inception_3a/output_inception_3a/output_0_split_2
I0403 04:03:42.687325 30575 net.cpp:399] inception_3b/5x5_reduce -> inception_3b/5x5_reduce
I0403 04:03:42.687583 30575 net.cpp:141] Setting up inception_3b/5x5_reduce
I0403 04:03:42.687608 30575 net.cpp:148] Top shape: 24 32 28 28 (602112)
I0403 04:03:42.687623 30575 net.cpp:156] Memory required for data: 727351680
I0403 04:03:42.687639 30575 layer_factory.hpp:77] Creating layer inception_3b/relu_5x5_reduce
I0403 04:03:42.687660 30575 net.cpp:91] Creating Layer inception_3b/relu_5x5_reduce
I0403 04:03:42.687677 30575 net.cpp:425] inception_3b/relu_5x5_reduce <- inception_3b/5x5_reduce
I0403 04:03:42.687695 30575 net.cpp:386] inception_3b/relu_5x5_reduce -> inception_3b/5x5_reduce (in-place)
I0403 04:03:42.687712 30575 net.cpp:141] Setting up inception_3b/relu_5x5_reduce
I0403 04:03:42.687728 30575 net.cpp:148] Top shape: 24 32 28 28 (602112)
I0403 04:03:42.687742 30575 net.cpp:156] Memory required for data: 729760128
I0403 04:03:42.687757 30575 layer_factory.hpp:77] Creating layer inception_3b/5x5
I0403 04:03:42.687779 30575 net.cpp:91] Creating Layer inception_3b/5x5
I0403 04:03:42.687796 30575 net.cpp:425] inception_3b/5x5 <- inception_3b/5x5_reduce
I0403 04:03:42.687826 30575 net.cpp:399] inception_3b/5x5 -> inception_3b/5x5
I0403 04:03:42.688982 30575 net.cpp:141] Setting up inception_3b/5x5
I0403 04:03:42.689008 30575 net.cpp:148] Top shape: 24 96 28 28 (1806336)
I0403 04:03:42.689023 30575 net.cpp:156] Memory required for data: 736985472
I0403 04:03:42.689040 30575 layer_factory.hpp:77] Creating layer inception_3b/relu_5x5
I0403 04:03:42.689059 30575 net.cpp:91] Creating Layer inception_3b/relu_5x5
I0403 04:03:42.689074 30575 net.cpp:425] inception_3b/relu_5x5 <- inception_3b/5x5
I0403 04:03:42.689090 30575 net.cpp:386] inception_3b/relu_5x5 -> inception_3b/5x5 (in-place)
I0403 04:03:42.689108 30575 net.cpp:141] Setting up inception_3b/relu_5x5
I0403 04:03:42.689124 30575 net.cpp:148] Top shape: 24 96 28 28 (1806336)
I0403 04:03:42.689138 30575 net.cpp:156] Memory required for data: 744210816
I0403 04:03:42.689152 30575 layer_factory.hpp:77] Creating layer inception_3b/pool
I0403 04:03:42.689172 30575 net.cpp:91] Creating Layer inception_3b/pool
I0403 04:03:42.689188 30575 net.cpp:425] inception_3b/pool <- inception_3a/output_inception_3a/output_0_split_3
I0403 04:03:42.689204 30575 net.cpp:399] inception_3b/pool -> inception_3b/pool
I0403 04:03:42.689254 30575 net.cpp:141] Setting up inception_3b/pool
I0403 04:03:42.689276 30575 net.cpp:148] Top shape: 24 256 28 28 (4816896)
I0403 04:03:42.689291 30575 net.cpp:156] Memory required for data: 763478400
I0403 04:03:42.689304 30575 layer_factory.hpp:77] Creating layer inception_3b/pool_proj
I0403 04:03:42.689327 30575 net.cpp:91] Creating Layer inception_3b/pool_proj
I0403 04:03:42.689343 30575 net.cpp:425] inception_3b/pool_proj <- inception_3b/pool
I0403 04:03:42.689362 30575 net.cpp:399] inception_3b/pool_proj -> inception_3b/pool_proj
I0403 04:03:42.689643 30575 net.cpp:141] Setting up inception_3b/pool_proj
I0403 04:03:42.689667 30575 net.cpp:148] Top shape: 24 64 28 28 (1204224)
I0403 04:03:42.689682 30575 net.cpp:156] Memory required for data: 768295296
I0403 04:03:42.689698 30575 layer_factory.hpp:77] Creating layer inception_3b/relu_pool_proj
I0403 04:03:42.689718 30575 net.cpp:91] Creating Layer inception_3b/relu_pool_proj
I0403 04:03:42.689734 30575 net.cpp:425] inception_3b/relu_pool_proj <- inception_3b/pool_proj
I0403 04:03:42.689751 30575 net.cpp:386] inception_3b/relu_pool_proj -> inception_3b/pool_proj (in-place)
I0403 04:03:42.689770 30575 net.cpp:141] Setting up inception_3b/relu_pool_proj
I0403 04:03:42.689786 30575 net.cpp:148] Top shape: 24 64 28 28 (1204224)
I0403 04:03:42.689800 30575 net.cpp:156] Memory required for data: 773112192
I0403 04:03:42.689813 30575 layer_factory.hpp:77] Creating layer inception_3b/output
I0403 04:03:42.689829 30575 net.cpp:91] Creating Layer inception_3b/output
I0403 04:03:42.689844 30575 net.cpp:425] inception_3b/output <- inception_3b/1x1
I0403 04:03:42.689873 30575 net.cpp:425] inception_3b/output <- inception_3b/3x3
I0403 04:03:42.689890 30575 net.cpp:425] inception_3b/output <- inception_3b/5x5
I0403 04:03:42.689904 30575 net.cpp:425] inception_3b/output <- inception_3b/pool_proj
I0403 04:03:42.689925 30575 net.cpp:399] inception_3b/output -> inception_3b/output
I0403 04:03:42.689961 30575 net.cpp:141] Setting up inception_3b/output
I0403 04:03:42.689982 30575 net.cpp:148] Top shape: 24 480 28 28 (9031680)
I0403 04:03:42.690001 30575 net.cpp:156] Memory required for data: 809238912
I0403 04:03:42.690013 30575 layer_factory.hpp:77] Creating layer pool3/3x3_s2
I0403 04:03:42.690031 30575 net.cpp:91] Creating Layer pool3/3x3_s2
I0403 04:03:42.690045 30575 net.cpp:425] pool3/3x3_s2 <- inception_3b/output
I0403 04:03:42.690062 30575 net.cpp:399] pool3/3x3_s2 -> pool3/3x3_s2
I0403 04:03:42.690109 30575 net.cpp:141] Setting up pool3/3x3_s2
I0403 04:03:42.690129 30575 net.cpp:148] Top shape: 24 480 14 14 (2257920)
I0403 04:03:42.690145 30575 net.cpp:156] Memory required for data: 818270592
I0403 04:03:42.690158 30575 layer_factory.hpp:77] Creating layer pool3/3x3_s2_pool3/3x3_s2_0_split
I0403 04:03:42.690174 30575 net.cpp:91] Creating Layer pool3/3x3_s2_pool3/3x3_s2_0_split
I0403 04:03:42.690189 30575 net.cpp:425] pool3/3x3_s2_pool3/3x3_s2_0_split <- pool3/3x3_s2
I0403 04:03:42.690208 30575 net.cpp:399] pool3/3x3_s2_pool3/3x3_s2_0_split -> pool3/3x3_s2_pool3/3x3_s2_0_split_0
I0403 04:03:42.690228 30575 net.cpp:399] pool3/3x3_s2_pool3/3x3_s2_0_split -> pool3/3x3_s2_pool3/3x3_s2_0_split_1
I0403 04:03:42.690248 30575 net.cpp:399] pool3/3x3_s2_pool3/3x3_s2_0_split -> pool3/3x3_s2_pool3/3x3_s2_0_split_2
I0403 04:03:42.690268 30575 net.cpp:399] pool3/3x3_s2_pool3/3x3_s2_0_split -> pool3/3x3_s2_pool3/3x3_s2_0_split_3
I0403 04:03:42.690333 30575 net.cpp:141] Setting up pool3/3x3_s2_pool3/3x3_s2_0_split
I0403 04:03:42.690358 30575 net.cpp:148] Top shape: 24 480 14 14 (2257920)
I0403 04:03:42.690376 30575 net.cpp:148] Top shape: 24 480 14 14 (2257920)
I0403 04:03:42.690392 30575 net.cpp:148] Top shape: 24 480 14 14 (2257920)
I0403 04:03:42.690407 30575 net.cpp:148] Top shape: 24 480 14 14 (2257920)
I0403 04:03:42.690419 30575 net.cpp:156] Memory required for data: 854397312
I0403 04:03:42.690433 30575 layer_factory.hpp:77] Creating layer inception_4a/1x1
I0403 04:03:42.690455 30575 net.cpp:91] Creating Layer inception_4a/1x1
I0403 04:03:42.690471 30575 net.cpp:425] inception_4a/1x1 <- pool3/3x3_s2_pool3/3x3_s2_0_split_0
I0403 04:03:42.690490 30575 net.cpp:399] inception_4a/1x1 -> inception_4a/1x1
I0403 04:03:42.691162 30575 net.cpp:141] Setting up inception_4a/1x1
I0403 04:03:42.691187 30575 net.cpp:148] Top shape: 24 192 14 14 (903168)
I0403 04:03:42.691202 30575 net.cpp:156] Memory required for data: 858009984
I0403 04:03:42.691220 30575 layer_factory.hpp:77] Creating layer inception_4a/relu_1x1
I0403 04:03:42.691237 30575 net.cpp:91] Creating Layer inception_4a/relu_1x1
I0403 04:03:42.691263 30575 net.cpp:425] inception_4a/relu_1x1 <- inception_4a/1x1
I0403 04:03:42.691282 30575 net.cpp:386] inception_4a/relu_1x1 -> inception_4a/1x1 (in-place)
I0403 04:03:42.691303 30575 net.cpp:141] Setting up inception_4a/relu_1x1
I0403 04:03:42.691319 30575 net.cpp:148] Top shape: 24 192 14 14 (903168)
I0403 04:03:42.691332 30575 net.cpp:156] Memory required for data: 861622656
I0403 04:03:42.691345 30575 layer_factory.hpp:77] Creating layer inception_4a/3x3_reduce
I0403 04:03:42.691367 30575 net.cpp:91] Creating Layer inception_4a/3x3_reduce
I0403 04:03:42.691385 30575 net.cpp:425] inception_4a/3x3_reduce <- pool3/3x3_s2_pool3/3x3_s2_0_split_1
I0403 04:03:42.691403 30575 net.cpp:399] inception_4a/3x3_reduce -> inception_4a/3x3_reduce
I0403 04:03:42.691850 30575 net.cpp:141] Setting up inception_4a/3x3_reduce
I0403 04:03:42.691875 30575 net.cpp:148] Top shape: 24 96 14 14 (451584)
I0403 04:03:42.691890 30575 net.cpp:156] Memory required for data: 863428992
I0403 04:03:42.691913 30575 layer_factory.hpp:77] Creating layer inception_4a/relu_3x3_reduce
I0403 04:03:42.691936 30575 net.cpp:91] Creating Layer inception_4a/relu_3x3_reduce
I0403 04:03:42.691964 30575 net.cpp:425] inception_4a/relu_3x3_reduce <- inception_4a/3x3_reduce
I0403 04:03:42.691982 30575 net.cpp:386] inception_4a/relu_3x3_reduce -> inception_4a/3x3_reduce (in-place)
I0403 04:03:42.692003 30575 net.cpp:141] Setting up inception_4a/relu_3x3_reduce
I0403 04:03:42.692018 30575 net.cpp:148] Top shape: 24 96 14 14 (451584)
I0403 04:03:42.692033 30575 net.cpp:156] Memory required for data: 865235328
I0403 04:03:42.692045 30575 layer_factory.hpp:77] Creating layer inception_4a/3x3
I0403 04:03:42.692065 30575 net.cpp:91] Creating Layer inception_4a/3x3
I0403 04:03:42.692081 30575 net.cpp:425] inception_4a/3x3 <- inception_4a/3x3_reduce
I0403 04:03:42.692101 30575 net.cpp:399] inception_4a/3x3 -> inception_4a/3x3
I0403 04:03:42.693785 30575 net.cpp:141] Setting up inception_4a/3x3
I0403 04:03:42.693812 30575 net.cpp:148] Top shape: 24 208 14 14 (978432)
I0403 04:03:42.693827 30575 net.cpp:156] Memory required for data: 869149056
I0403 04:03:42.693845 30575 layer_factory.hpp:77] Creating layer inception_4a/relu_3x3
I0403 04:03:42.693863 30575 net.cpp:91] Creating Layer inception_4a/relu_3x3
I0403 04:03:42.693878 30575 net.cpp:425] inception_4a/relu_3x3 <- inception_4a/3x3
I0403 04:03:42.693897 30575 net.cpp:386] inception_4a/relu_3x3 -> inception_4a/3x3 (in-place)
I0403 04:03:42.693917 30575 net.cpp:141] Setting up inception_4a/relu_3x3
I0403 04:03:42.693933 30575 net.cpp:148] Top shape: 24 208 14 14 (978432)
I0403 04:03:42.693946 30575 net.cpp:156] Memory required for data: 873062784
I0403 04:03:42.693959 30575 layer_factory.hpp:77] Creating layer inception_4a/5x5_reduce
I0403 04:03:42.693979 30575 net.cpp:91] Creating Layer inception_4a/5x5_reduce
I0403 04:03:42.693994 30575 net.cpp:425] inception_4a/5x5_reduce <- pool3/3x3_s2_pool3/3x3_s2_0_split_2
I0403 04:03:42.694015 30575 net.cpp:399] inception_4a/5x5_reduce -> inception_4a/5x5_reduce
I0403 04:03:42.694254 30575 net.cpp:141] Setting up inception_4a/5x5_reduce
I0403 04:03:42.694278 30575 net.cpp:148] Top shape: 24 16 14 14 (75264)
I0403 04:03:42.694293 30575 net.cpp:156] Memory required for data: 873363840
I0403 04:03:42.694309 30575 layer_factory.hpp:77] Creating layer inception_4a/relu_5x5_reduce
I0403 04:03:42.694327 30575 net.cpp:91] Creating Layer inception_4a/relu_5x5_reduce
I0403 04:03:42.694342 30575 net.cpp:425] inception_4a/relu_5x5_reduce <- inception_4a/5x5_reduce
I0403 04:03:42.694360 30575 net.cpp:386] inception_4a/relu_5x5_reduce -> inception_4a/5x5_reduce (in-place)
I0403 04:03:42.694380 30575 net.cpp:141] Setting up inception_4a/relu_5x5_reduce
I0403 04:03:42.694397 30575 net.cpp:148] Top shape: 24 16 14 14 (75264)
I0403 04:03:42.694411 30575 net.cpp:156] Memory required for data: 873664896
I0403 04:03:42.694424 30575 layer_factory.hpp:77] Creating layer inception_4a/5x5
I0403 04:03:42.694443 30575 net.cpp:91] Creating Layer inception_4a/5x5
I0403 04:03:42.694463 30575 net.cpp:425] inception_4a/5x5 <- inception_4a/5x5_reduce
I0403 04:03:42.694481 30575 net.cpp:399] inception_4a/5x5 -> inception_4a/5x5
I0403 04:03:42.694790 30575 net.cpp:141] Setting up inception_4a/5x5
I0403 04:03:42.694815 30575 net.cpp:148] Top shape: 24 48 14 14 (225792)
I0403 04:03:42.694830 30575 net.cpp:156] Memory required for data: 874568064
I0403 04:03:42.694847 30575 layer_factory.hpp:77] Creating layer inception_4a/relu_5x5
I0403 04:03:42.694865 30575 net.cpp:91] Creating Layer inception_4a/relu_5x5
I0403 04:03:42.694880 30575 net.cpp:425] inception_4a/relu_5x5 <- inception_4a/5x5
I0403 04:03:42.694900 30575 net.cpp:386] inception_4a/relu_5x5 -> inception_4a/5x5 (in-place)
I0403 04:03:42.694917 30575 net.cpp:141] Setting up inception_4a/relu_5x5
I0403 04:03:42.694934 30575 net.cpp:148] Top shape: 24 48 14 14 (225792)
I0403 04:03:42.694947 30575 net.cpp:156] Memory required for data: 875471232
I0403 04:03:42.694960 30575 layer_factory.hpp:77] Creating layer inception_4a/pool
I0403 04:03:42.694977 30575 net.cpp:91] Creating Layer inception_4a/pool
I0403 04:03:42.694993 30575 net.cpp:425] inception_4a/pool <- pool3/3x3_s2_pool3/3x3_s2_0_split_3
I0403 04:03:42.695024 30575 net.cpp:399] inception_4a/pool -> inception_4a/pool
I0403 04:03:42.695073 30575 net.cpp:141] Setting up inception_4a/pool
I0403 04:03:42.695096 30575 net.cpp:148] Top shape: 24 480 14 14 (2257920)
I0403 04:03:42.695109 30575 net.cpp:156] Memory required for data: 884502912
I0403 04:03:42.695122 30575 layer_factory.hpp:77] Creating layer inception_4a/pool_proj
I0403 04:03:42.695147 30575 net.cpp:91] Creating Layer inception_4a/pool_proj
I0403 04:03:42.695163 30575 net.cpp:425] inception_4a/pool_proj <- inception_4a/pool
I0403 04:03:42.695184 30575 net.cpp:399] inception_4a/pool_proj -> inception_4a/pool_proj
I0403 04:03:42.695550 30575 net.cpp:141] Setting up inception_4a/pool_proj
I0403 04:03:42.695574 30575 net.cpp:148] Top shape: 24 64 14 14 (301056)
I0403 04:03:42.695591 30575 net.cpp:156] Memory required for data: 885707136
I0403 04:03:42.695608 30575 layer_factory.hpp:77] Creating layer inception_4a/relu_pool_proj
I0403 04:03:42.695628 30575 net.cpp:91] Creating Layer inception_4a/relu_pool_proj
I0403 04:03:42.695644 30575 net.cpp:425] inception_4a/relu_pool_proj <- inception_4a/pool_proj
I0403 04:03:42.695662 30575 net.cpp:386] inception_4a/relu_pool_proj -> inception_4a/pool_proj (in-place)
I0403 04:03:42.695678 30575 net.cpp:141] Setting up inception_4a/relu_pool_proj
I0403 04:03:42.695695 30575 net.cpp:148] Top shape: 24 64 14 14 (301056)
I0403 04:03:42.695708 30575 net.cpp:156] Memory required for data: 886911360
I0403 04:03:42.695722 30575 layer_factory.hpp:77] Creating layer inception_4a/output
I0403 04:03:42.695744 30575 net.cpp:91] Creating Layer inception_4a/output
I0403 04:03:42.695760 30575 net.cpp:425] inception_4a/output <- inception_4a/1x1
I0403 04:03:42.695776 30575 net.cpp:425] inception_4a/output <- inception_4a/3x3
I0403 04:03:42.695791 30575 net.cpp:425] inception_4a/output <- inception_4a/5x5
I0403 04:03:42.695806 30575 net.cpp:425] inception_4a/output <- inception_4a/pool_proj
I0403 04:03:42.695823 30575 net.cpp:399] inception_4a/output -> inception_4a/output
I0403 04:03:42.695858 30575 net.cpp:141] Setting up inception_4a/output
I0403 04:03:42.695881 30575 net.cpp:148] Top shape: 24 512 14 14 (2408448)
I0403 04:03:42.695897 30575 net.cpp:156] Memory required for data: 896545152
I0403 04:03:42.695911 30575 layer_factory.hpp:77] Creating layer inception_4a/output_inception_4a/output_0_split
I0403 04:03:42.695927 30575 net.cpp:91] Creating Layer inception_4a/output_inception_4a/output_0_split
I0403 04:03:42.695943 30575 net.cpp:425] inception_4a/output_inception_4a/output_0_split <- inception_4a/output
I0403 04:03:42.695960 30575 net.cpp:399] inception_4a/output_inception_4a/output_0_split -> inception_4a/output_inception_4a/output_0_split_0
I0403 04:03:42.695981 30575 net.cpp:399] inception_4a/output_inception_4a/output_0_split -> inception_4a/output_inception_4a/output_0_split_1
I0403 04:03:42.696002 30575 net.cpp:399] inception_4a/output_inception_4a/output_0_split -> inception_4a/output_inception_4a/output_0_split_2
I0403 04:03:42.696019 30575 net.cpp:399] inception_4a/output_inception_4a/output_0_split -> inception_4a/output_inception_4a/output_0_split_3
I0403 04:03:42.696038 30575 net.cpp:399] inception_4a/output_inception_4a/output_0_split -> inception_4a/output_inception_4a/output_0_split_4
I0403 04:03:42.696110 30575 net.cpp:141] Setting up inception_4a/output_inception_4a/output_0_split
I0403 04:03:42.696131 30575 net.cpp:148] Top shape: 24 512 14 14 (2408448)
I0403 04:03:42.696147 30575 net.cpp:148] Top shape: 24 512 14 14 (2408448)
I0403 04:03:42.696161 30575 net.cpp:148] Top shape: 24 512 14 14 (2408448)
I0403 04:03:42.696177 30575 net.cpp:148] Top shape: 24 512 14 14 (2408448)
I0403 04:03:42.696192 30575 net.cpp:148] Top shape: 24 512 14 14 (2408448)
I0403 04:03:42.696204 30575 net.cpp:156] Memory required for data: 944714112
I0403 04:03:42.696218 30575 layer_factory.hpp:77] Creating layer loss1/ave_pool
I0403 04:03:42.696236 30575 net.cpp:91] Creating Layer loss1/ave_pool
I0403 04:03:42.696254 30575 net.cpp:425] loss1/ave_pool <- inception_4a/output_inception_4a/output_0_split_0
I0403 04:03:42.696283 30575 net.cpp:399] loss1/ave_pool -> loss1/ave_pool
I0403 04:03:42.696322 30575 net.cpp:141] Setting up loss1/ave_pool
I0403 04:03:42.696344 30575 net.cpp:148] Top shape: 24 512 4 4 (196608)
I0403 04:03:42.696358 30575 net.cpp:156] Memory required for data: 945500544
I0403 04:03:42.696373 30575 layer_factory.hpp:77] Creating layer loss1/conv
I0403 04:03:42.696394 30575 net.cpp:91] Creating Layer loss1/conv
I0403 04:03:42.696411 30575 net.cpp:425] loss1/conv <- loss1/ave_pool
I0403 04:03:42.696431 30575 net.cpp:399] loss1/conv -> loss1/conv
I0403 04:03:42.696967 30575 net.cpp:141] Setting up loss1/conv
I0403 04:03:42.696991 30575 net.cpp:148] Top shape: 24 128 4 4 (49152)
I0403 04:03:42.697005 30575 net.cpp:156] Memory required for data: 945697152
I0403 04:03:42.697022 30575 layer_factory.hpp:77] Creating layer loss1/relu_conv
I0403 04:03:42.697039 30575 net.cpp:91] Creating Layer loss1/relu_conv
I0403 04:03:42.697054 30575 net.cpp:425] loss1/relu_conv <- loss1/conv
I0403 04:03:42.697072 30575 net.cpp:386] loss1/relu_conv -> loss1/conv (in-place)
I0403 04:03:42.697093 30575 net.cpp:141] Setting up loss1/relu_conv
I0403 04:03:42.697108 30575 net.cpp:148] Top shape: 24 128 4 4 (49152)
I0403 04:03:42.697123 30575 net.cpp:156] Memory required for data: 945893760
I0403 04:03:42.697135 30575 layer_factory.hpp:77] Creating layer loss1/fc
I0403 04:03:42.697157 30575 net.cpp:91] Creating Layer loss1/fc
I0403 04:03:42.697173 30575 net.cpp:425] loss1/fc <- loss1/conv
I0403 04:03:42.697193 30575 net.cpp:399] loss1/fc -> loss1/fc
I0403 04:03:42.712463 30575 net.cpp:141] Setting up loss1/fc
I0403 04:03:42.712503 30575 net.cpp:148] Top shape: 24 1024 (24576)
I0403 04:03:42.712522 30575 net.cpp:156] Memory required for data: 945992064
I0403 04:03:42.712541 30575 layer_factory.hpp:77] Creating layer loss1/relu_fc
I0403 04:03:42.712563 30575 net.cpp:91] Creating Layer loss1/relu_fc
I0403 04:03:42.712580 30575 net.cpp:425] loss1/relu_fc <- loss1/fc
I0403 04:03:42.712597 30575 net.cpp:386] loss1/relu_fc -> loss1/fc (in-place)
I0403 04:03:42.712616 30575 net.cpp:141] Setting up loss1/relu_fc
I0403 04:03:42.712632 30575 net.cpp:148] Top shape: 24 1024 (24576)
I0403 04:03:42.712646 30575 net.cpp:156] Memory required for data: 946090368
I0403 04:03:42.712661 30575 layer_factory.hpp:77] Creating layer loss1/drop_fc
I0403 04:03:42.712692 30575 net.cpp:91] Creating Layer loss1/drop_fc
I0403 04:03:42.712709 30575 net.cpp:425] loss1/drop_fc <- loss1/fc
I0403 04:03:42.712726 30575 net.cpp:386] loss1/drop_fc -> loss1/fc (in-place)
I0403 04:03:42.712769 30575 net.cpp:141] Setting up loss1/drop_fc
I0403 04:03:42.712790 30575 net.cpp:148] Top shape: 24 1024 (24576)
I0403 04:03:42.712805 30575 net.cpp:156] Memory required for data: 946188672
I0403 04:03:42.712820 30575 layer_factory.hpp:77] Creating layer loss1/classifier_plantvillage
I0403 04:03:42.712841 30575 net.cpp:91] Creating Layer loss1/classifier_plantvillage
I0403 04:03:42.712857 30575 net.cpp:425] loss1/classifier_plantvillage <- loss1/fc
I0403 04:03:42.712874 30575 net.cpp:399] loss1/classifier_plantvillage -> loss1/classifier_plantvillage
I0403 04:03:42.713706 30575 net.cpp:141] Setting up loss1/classifier_plantvillage
I0403 04:03:42.713732 30575 net.cpp:148] Top shape: 24 38 (912)
I0403 04:03:42.713748 30575 net.cpp:156] Memory required for data: 946192320
I0403 04:03:42.713767 30575 layer_factory.hpp:77] Creating layer inception_4b/1x1
I0403 04:03:42.713790 30575 net.cpp:91] Creating Layer inception_4b/1x1
I0403 04:03:42.713807 30575 net.cpp:425] inception_4b/1x1 <- inception_4a/output_inception_4a/output_0_split_1
I0403 04:03:42.713827 30575 net.cpp:399] inception_4b/1x1 -> inception_4b/1x1
I0403 04:03:42.714462 30575 net.cpp:141] Setting up inception_4b/1x1
I0403 04:03:42.714486 30575 net.cpp:148] Top shape: 24 160 14 14 (752640)
I0403 04:03:42.714501 30575 net.cpp:156] Memory required for data: 949202880
I0403 04:03:42.714530 30575 layer_factory.hpp:77] Creating layer inception_4b/relu_1x1
I0403 04:03:42.714566 30575 net.cpp:91] Creating Layer inception_4b/relu_1x1
I0403 04:03:42.714583 30575 net.cpp:425] inception_4b/relu_1x1 <- inception_4b/1x1
I0403 04:03:42.714601 30575 net.cpp:386] inception_4b/relu_1x1 -> inception_4b/1x1 (in-place)
I0403 04:03:42.714619 30575 net.cpp:141] Setting up inception_4b/relu_1x1
I0403 04:03:42.714635 30575 net.cpp:148] Top shape: 24 160 14 14 (752640)
I0403 04:03:42.714649 30575 net.cpp:156] Memory required for data: 952213440
I0403 04:03:42.714663 30575 layer_factory.hpp:77] Creating layer inception_4b/3x3_reduce
I0403 04:03:42.714684 30575 net.cpp:91] Creating Layer inception_4b/3x3_reduce
I0403 04:03:42.714700 30575 net.cpp:425] inception_4b/3x3_reduce <- inception_4a/output_inception_4a/output_0_split_2
I0403 04:03:42.714718 30575 net.cpp:399] inception_4b/3x3_reduce -> inception_4b/3x3_reduce
I0403 04:03:42.715220 30575 net.cpp:141] Setting up inception_4b/3x3_reduce
I0403 04:03:42.715256 30575 net.cpp:148] Top shape: 24 112 14 14 (526848)
I0403 04:03:42.715270 30575 net.cpp:156] Memory required for data: 954320832
I0403 04:03:42.715288 30575 layer_factory.hpp:77] Creating layer inception_4b/relu_3x3_reduce
I0403 04:03:42.715306 30575 net.cpp:91] Creating Layer inception_4b/relu_3x3_reduce
I0403 04:03:42.715322 30575 net.cpp:425] inception_4b/relu_3x3_reduce <- inception_4b/3x3_reduce
I0403 04:03:42.715342 30575 net.cpp:386] inception_4b/relu_3x3_reduce -> inception_4b/3x3_reduce (in-place)
I0403 04:03:42.715360 30575 net.cpp:141] Setting up inception_4b/relu_3x3_reduce
I0403 04:03:42.715378 30575 net.cpp:148] Top shape: 24 112 14 14 (526848)
I0403 04:03:42.715391 30575 net.cpp:156] Memory required for data: 956428224
I0403 04:03:42.715405 30575 layer_factory.hpp:77] Creating layer inception_4b/3x3
I0403 04:03:42.715427 30575 net.cpp:91] Creating Layer inception_4b/3x3
I0403 04:03:42.715445 30575 net.cpp:425] inception_4b/3x3 <- inception_4b/3x3_reduce
I0403 04:03:42.715463 30575 net.cpp:399] inception_4b/3x3 -> inception_4b/3x3
I0403 04:03:42.717381 30575 net.cpp:141] Setting up inception_4b/3x3
I0403 04:03:42.717408 30575 net.cpp:148] Top shape: 24 224 14 14 (1053696)
I0403 04:03:42.717423 30575 net.cpp:156] Memory required for data: 960643008
I0403 04:03:42.717440 30575 layer_factory.hpp:77] Creating layer inception_4b/relu_3x3
I0403 04:03:42.717458 30575 net.cpp:91] Creating Layer inception_4b/relu_3x3
I0403 04:03:42.717473 30575 net.cpp:425] inception_4b/relu_3x3 <- inception_4b/3x3
I0403 04:03:42.717491 30575 net.cpp:386] inception_4b/relu_3x3 -> inception_4b/3x3 (in-place)
I0403 04:03:42.717514 30575 net.cpp:141] Setting up inception_4b/relu_3x3
I0403 04:03:42.717532 30575 net.cpp:148] Top shape: 24 224 14 14 (1053696)
I0403 04:03:42.717545 30575 net.cpp:156] Memory required for data: 964857792
I0403 04:03:42.717558 30575 layer_factory.hpp:77] Creating layer inception_4b/5x5_reduce
I0403 04:03:42.717581 30575 net.cpp:91] Creating Layer inception_4b/5x5_reduce
I0403 04:03:42.717597 30575 net.cpp:425] inception_4b/5x5_reduce <- inception_4a/output_inception_4a/output_0_split_3
I0403 04:03:42.717615 30575 net.cpp:399] inception_4b/5x5_reduce -> inception_4b/5x5_reduce
I0403 04:03:42.717886 30575 net.cpp:141] Setting up inception_4b/5x5_reduce
I0403 04:03:42.717911 30575 net.cpp:148] Top shape: 24 24 14 14 (112896)
I0403 04:03:42.717924 30575 net.cpp:156] Memory required for data: 965309376
I0403 04:03:42.717941 30575 layer_factory.hpp:77] Creating layer inception_4b/relu_5x5_reduce
I0403 04:03:42.717959 30575 net.cpp:91] Creating Layer inception_4b/relu_5x5_reduce
I0403 04:03:42.717978 30575 net.cpp:425] inception_4b/relu_5x5_reduce <- inception_4b/5x5_reduce
I0403 04:03:42.717995 30575 net.cpp:386] inception_4b/relu_5x5_reduce -> inception_4b/5x5_reduce (in-place)
I0403 04:03:42.718014 30575 net.cpp:141] Setting up inception_4b/relu_5x5_reduce
I0403 04:03:42.718030 30575 net.cpp:148] Top shape: 24 24 14 14 (112896)
I0403 04:03:42.718044 30575 net.cpp:156] Memory required for data: 965760960
I0403 04:03:42.718057 30575 layer_factory.hpp:77] Creating layer inception_4b/5x5
I0403 04:03:42.718094 30575 net.cpp:91] Creating Layer inception_4b/5x5
I0403 04:03:42.718111 30575 net.cpp:425] inception_4b/5x5 <- inception_4b/5x5_reduce
I0403 04:03:42.718129 30575 net.cpp:399] inception_4b/5x5 -> inception_4b/5x5
I0403 04:03:42.718557 30575 net.cpp:141] Setting up inception_4b/5x5
I0403 04:03:42.718581 30575 net.cpp:148] Top shape: 24 64 14 14 (301056)
I0403 04:03:42.718596 30575 net.cpp:156] Memory required for data: 966965184
I0403 04:03:42.718613 30575 layer_factory.hpp:77] Creating layer inception_4b/relu_5x5
I0403 04:03:42.718631 30575 net.cpp:91] Creating Layer inception_4b/relu_5x5
I0403 04:03:42.718647 30575 net.cpp:425] inception_4b/relu_5x5 <- inception_4b/5x5
I0403 04:03:42.718667 30575 net.cpp:386] inception_4b/relu_5x5 -> inception_4b/5x5 (in-place)
I0403 04:03:42.718686 30575 net.cpp:141] Setting up inception_4b/relu_5x5
I0403 04:03:42.718715 30575 net.cpp:148] Top shape: 24 64 14 14 (301056)
I0403 04:03:42.718746 30575 net.cpp:156] Memory required for data: 968169408
I0403 04:03:42.718760 30575 layer_factory.hpp:77] Creating layer inception_4b/pool
I0403 04:03:42.718777 30575 net.cpp:91] Creating Layer inception_4b/pool
I0403 04:03:42.718793 30575 net.cpp:425] inception_4b/pool <- inception_4a/output_inception_4a/output_0_split_4
I0403 04:03:42.718812 30575 net.cpp:399] inception_4b/pool -> inception_4b/pool
I0403 04:03:42.718863 30575 net.cpp:141] Setting up inception_4b/pool
I0403 04:03:42.718884 30575 net.cpp:148] Top shape: 24 512 14 14 (2408448)
I0403 04:03:42.718899 30575 net.cpp:156] Memory required for data: 977803200
I0403 04:03:42.718912 30575 layer_factory.hpp:77] Creating layer inception_4b/pool_proj
I0403 04:03:42.718935 30575 net.cpp:91] Creating Layer inception_4b/pool_proj
I0403 04:03:42.718951 30575 net.cpp:425] inception_4b/pool_proj <- inception_4b/pool
I0403 04:03:42.718971 30575 net.cpp:399] inception_4b/pool_proj -> inception_4b/pool_proj
I0403 04:03:42.719354 30575 net.cpp:141] Setting up inception_4b/pool_proj
I0403 04:03:42.719380 30575 net.cpp:148] Top shape: 24 64 14 14 (301056)
I0403 04:03:42.719394 30575 net.cpp:156] Memory required for data: 979007424
I0403 04:03:42.719411 30575 layer_factory.hpp:77] Creating layer inception_4b/relu_pool_proj
I0403 04:03:42.719429 30575 net.cpp:91] Creating Layer inception_4b/relu_pool_proj
I0403 04:03:42.719444 30575 net.cpp:425] inception_4b/relu_pool_proj <- inception_4b/pool_proj
I0403 04:03:42.719460 30575 net.cpp:386] inception_4b/relu_pool_proj -> inception_4b/pool_proj (in-place)
I0403 04:03:42.719476 30575 net.cpp:141] Setting up inception_4b/relu_pool_proj
I0403 04:03:42.719492 30575 net.cpp:148] Top shape: 24 64 14 14 (301056)
I0403 04:03:42.719509 30575 net.cpp:156] Memory required for data: 980211648
I0403 04:03:42.719523 30575 layer_factory.hpp:77] Creating layer inception_4b/output
I0403 04:03:42.719542 30575 net.cpp:91] Creating Layer inception_4b/output
I0403 04:03:42.719558 30575 net.cpp:425] inception_4b/output <- inception_4b/1x1
I0403 04:03:42.719571 30575 net.cpp:425] inception_4b/output <- inception_4b/3x3
I0403 04:03:42.719586 30575 net.cpp:425] inception_4b/output <- inception_4b/5x5
I0403 04:03:42.719601 30575 net.cpp:425] inception_4b/output <- inception_4b/pool_proj
I0403 04:03:42.719616 30575 net.cpp:399] inception_4b/output -> inception_4b/output
I0403 04:03:42.719652 30575 net.cpp:141] Setting up inception_4b/output
I0403 04:03:42.719673 30575 net.cpp:148] Top shape: 24 512 14 14 (2408448)
I0403 04:03:42.719688 30575 net.cpp:156] Memory required for data: 989845440
I0403 04:03:42.719702 30575 layer_factory.hpp:77] Creating layer inception_4b/output_inception_4b/output_0_split
I0403 04:03:42.719717 30575 net.cpp:91] Creating Layer inception_4b/output_inception_4b/output_0_split
I0403 04:03:42.719732 30575 net.cpp:425] inception_4b/output_inception_4b/output_0_split <- inception_4b/output
I0403 04:03:42.719750 30575 net.cpp:399] inception_4b/output_inception_4b/output_0_split -> inception_4b/output_inception_4b/output_0_split_0
I0403 04:03:42.719770 30575 net.cpp:399] inception_4b/output_inception_4b/output_0_split -> inception_4b/output_inception_4b/output_0_split_1
I0403 04:03:42.719802 30575 net.cpp:399] inception_4b/output_inception_4b/output_0_split -> inception_4b/output_inception_4b/output_0_split_2
I0403 04:03:42.719822 30575 net.cpp:399] inception_4b/output_inception_4b/output_0_split -> inception_4b/output_inception_4b/output_0_split_3
I0403 04:03:42.719885 30575 net.cpp:141] Setting up inception_4b/output_inception_4b/output_0_split
I0403 04:03:42.719907 30575 net.cpp:148] Top shape: 24 512 14 14 (2408448)
I0403 04:03:42.719923 30575 net.cpp:148] Top shape: 24 512 14 14 (2408448)
I0403 04:03:42.719938 30575 net.cpp:148] Top shape: 24 512 14 14 (2408448)
I0403 04:03:42.719951 30575 net.cpp:148] Top shape: 24 512 14 14 (2408448)
I0403 04:03:42.719964 30575 net.cpp:156] Memory required for data: 1028380608
I0403 04:03:42.719977 30575 layer_factory.hpp:77] Creating layer inception_4c/1x1
I0403 04:03:42.719996 30575 net.cpp:91] Creating Layer inception_4c/1x1
I0403 04:03:42.720011 30575 net.cpp:425] inception_4c/1x1 <- inception_4b/output_inception_4b/output_0_split_0
I0403 04:03:42.720031 30575 net.cpp:399] inception_4c/1x1 -> inception_4c/1x1
I0403 04:03:42.720559 30575 net.cpp:141] Setting up inception_4c/1x1
I0403 04:03:42.720583 30575 net.cpp:148] Top shape: 24 128 14 14 (602112)
I0403 04:03:42.720597 30575 net.cpp:156] Memory required for data: 1030789056
I0403 04:03:42.720613 30575 layer_factory.hpp:77] Creating layer inception_4c/relu_1x1
I0403 04:03:42.720629 30575 net.cpp:91] Creating Layer inception_4c/relu_1x1
I0403 04:03:42.720644 30575 net.cpp:425] inception_4c/relu_1x1 <- inception_4c/1x1
I0403 04:03:42.720660 30575 net.cpp:386] inception_4c/relu_1x1 -> inception_4c/1x1 (in-place)
I0403 04:03:42.720677 30575 net.cpp:141] Setting up inception_4c/relu_1x1
I0403 04:03:42.720693 30575 net.cpp:148] Top shape: 24 128 14 14 (602112)
I0403 04:03:42.720706 30575 net.cpp:156] Memory required for data: 1033197504
I0403 04:03:42.720720 30575 layer_factory.hpp:77] Creating layer inception_4c/3x3_reduce
I0403 04:03:42.720739 30575 net.cpp:91] Creating Layer inception_4c/3x3_reduce
I0403 04:03:42.720757 30575 net.cpp:425] inception_4c/3x3_reduce <- inception_4b/output_inception_4b/output_0_split_1
I0403 04:03:42.720777 30575 net.cpp:399] inception_4c/3x3_reduce -> inception_4c/3x3_reduce
I0403 04:03:42.721818 30575 net.cpp:141] Setting up inception_4c/3x3_reduce
I0403 04:03:42.721849 30575 net.cpp:148] Top shape: 24 128 14 14 (602112)
I0403 04:03:42.721865 30575 net.cpp:156] Memory required for data: 1035605952
I0403 04:03:42.721881 30575 layer_factory.hpp:77] Creating layer inception_4c/relu_3x3_reduce
I0403 04:03:42.721899 30575 net.cpp:91] Creating Layer inception_4c/relu_3x3_reduce
I0403 04:03:42.721914 30575 net.cpp:425] inception_4c/relu_3x3_reduce <- inception_4c/3x3_reduce
I0403 04:03:42.721930 30575 net.cpp:386] inception_4c/relu_3x3_reduce -> inception_4c/3x3_reduce (in-place)
I0403 04:03:42.721947 30575 net.cpp:141] Setting up inception_4c/relu_3x3_reduce
I0403 04:03:42.721964 30575 net.cpp:148] Top shape: 24 128 14 14 (602112)
I0403 04:03:42.721976 30575 net.cpp:156] Memory required for data: 1038014400
I0403 04:03:42.721989 30575 layer_factory.hpp:77] Creating layer inception_4c/3x3
I0403 04:03:42.722012 30575 net.cpp:91] Creating Layer inception_4c/3x3
I0403 04:03:42.722028 30575 net.cpp:425] inception_4c/3x3 <- inception_4c/3x3_reduce
I0403 04:03:42.722045 30575 net.cpp:399] inception_4c/3x3 -> inception_4c/3x3
I0403 04:03:42.724309 30575 net.cpp:141] Setting up inception_4c/3x3
I0403 04:03:42.724335 30575 net.cpp:148] Top shape: 24 256 14 14 (1204224)
I0403 04:03:42.724350 30575 net.cpp:156] Memory required for data: 1042831296
I0403 04:03:42.724380 30575 layer_factory.hpp:77] Creating layer inception_4c/relu_3x3
I0403 04:03:42.724400 30575 net.cpp:91] Creating Layer inception_4c/relu_3x3
I0403 04:03:42.724417 30575 net.cpp:425] inception_4c/relu_3x3 <- inception_4c/3x3
I0403 04:03:42.724434 30575 net.cpp:386] inception_4c/relu_3x3 -> inception_4c/3x3 (in-place)
I0403 04:03:42.724467 30575 net.cpp:141] Setting up inception_4c/relu_3x3
I0403 04:03:42.724484 30575 net.cpp:148] Top shape: 24 256 14 14 (1204224)
I0403 04:03:42.724498 30575 net.cpp:156] Memory required for data: 1047648192
I0403 04:03:42.724521 30575 layer_factory.hpp:77] Creating layer inception_4c/5x5_reduce
I0403 04:03:42.724542 30575 net.cpp:91] Creating Layer inception_4c/5x5_reduce
I0403 04:03:42.724558 30575 net.cpp:425] inception_4c/5x5_reduce <- inception_4b/output_inception_4b/output_0_split_2
I0403 04:03:42.724580 30575 net.cpp:399] inception_4c/5x5_reduce -> inception_4c/5x5_reduce
I0403 04:03:42.724861 30575 net.cpp:141] Setting up inception_4c/5x5_reduce
I0403 04:03:42.724885 30575 net.cpp:148] Top shape: 24 24 14 14 (112896)
I0403 04:03:42.724900 30575 net.cpp:156] Memory required for data: 1048099776
I0403 04:03:42.724917 30575 layer_factory.hpp:77] Creating layer inception_4c/relu_5x5_reduce
I0403 04:03:42.724934 30575 net.cpp:91] Creating Layer inception_4c/relu_5x5_reduce
I0403 04:03:42.724951 30575 net.cpp:425] inception_4c/relu_5x5_reduce <- inception_4c/5x5_reduce
I0403 04:03:42.724967 30575 net.cpp:386] inception_4c/relu_5x5_reduce -> inception_4c/5x5_reduce (in-place)
I0403 04:03:42.724984 30575 net.cpp:141] Setting up inception_4c/relu_5x5_reduce
I0403 04:03:42.725000 30575 net.cpp:148] Top shape: 24 24 14 14 (112896)
I0403 04:03:42.725013 30575 net.cpp:156] Memory required for data: 1048551360
I0403 04:03:42.725028 30575 layer_factory.hpp:77] Creating layer inception_4c/5x5
I0403 04:03:42.725050 30575 net.cpp:91] Creating Layer inception_4c/5x5
I0403 04:03:42.725067 30575 net.cpp:425] inception_4c/5x5 <- inception_4c/5x5_reduce
I0403 04:03:42.725087 30575 net.cpp:399] inception_4c/5x5 -> inception_4c/5x5
I0403 04:03:42.725502 30575 net.cpp:141] Setting up inception_4c/5x5
I0403 04:03:42.725528 30575 net.cpp:148] Top shape: 24 64 14 14 (301056)
I0403 04:03:42.725543 30575 net.cpp:156] Memory required for data: 1049755584
I0403 04:03:42.725558 30575 layer_factory.hpp:77] Creating layer inception_4c/relu_5x5
I0403 04:03:42.725575 30575 net.cpp:91] Creating Layer inception_4c/relu_5x5
I0403 04:03:42.725589 30575 net.cpp:425] inception_4c/relu_5x5 <- inception_4c/5x5
I0403 04:03:42.725605 30575 net.cpp:386] inception_4c/relu_5x5 -> inception_4c/5x5 (in-place)
I0403 04:03:42.725622 30575 net.cpp:141] Setting up inception_4c/relu_5x5
I0403 04:03:42.725638 30575 net.cpp:148] Top shape: 24 64 14 14 (301056)
I0403 04:03:42.725651 30575 net.cpp:156] Memory required for data: 1050959808
I0403 04:03:42.725664 30575 layer_factory.hpp:77] Creating layer inception_4c/pool
I0403 04:03:42.725682 30575 net.cpp:91] Creating Layer inception_4c/pool
I0403 04:03:42.725697 30575 net.cpp:425] inception_4c/pool <- inception_4b/output_inception_4b/output_0_split_3
I0403 04:03:42.725714 30575 net.cpp:399] inception_4c/pool -> inception_4c/pool
I0403 04:03:42.725764 30575 net.cpp:141] Setting up inception_4c/pool
I0403 04:03:42.725785 30575 net.cpp:148] Top shape: 24 512 14 14 (2408448)
I0403 04:03:42.725798 30575 net.cpp:156] Memory required for data: 1060593600
I0403 04:03:42.725811 30575 layer_factory.hpp:77] Creating layer inception_4c/pool_proj
I0403 04:03:42.725832 30575 net.cpp:91] Creating Layer inception_4c/pool_proj
I0403 04:03:42.725848 30575 net.cpp:425] inception_4c/pool_proj <- inception_4c/pool
I0403 04:03:42.725867 30575 net.cpp:399] inception_4c/pool_proj -> inception_4c/pool_proj
I0403 04:03:42.726235 30575 net.cpp:141] Setting up inception_4c/pool_proj
I0403 04:03:42.726258 30575 net.cpp:148] Top shape: 24 64 14 14 (301056)
I0403 04:03:42.726272 30575 net.cpp:156] Memory required for data: 1061797824
I0403 04:03:42.726290 30575 layer_factory.hpp:77] Creating layer inception_4c/relu_pool_proj
I0403 04:03:42.726310 30575 net.cpp:91] Creating Layer inception_4c/relu_pool_proj
I0403 04:03:42.726326 30575 net.cpp:425] inception_4c/relu_pool_proj <- inception_4c/pool_proj
I0403 04:03:42.726342 30575 net.cpp:386] inception_4c/relu_pool_proj -> inception_4c/pool_proj (in-place)
I0403 04:03:42.726361 30575 net.cpp:141] Setting up inception_4c/relu_pool_proj
I0403 04:03:42.726389 30575 net.cpp:148] Top shape: 24 64 14 14 (301056)
I0403 04:03:42.726403 30575 net.cpp:156] Memory required for data: 1063002048
I0403 04:03:42.726416 30575 layer_factory.hpp:77] Creating layer inception_4c/output
I0403 04:03:42.726433 30575 net.cpp:91] Creating Layer inception_4c/output
I0403 04:03:42.726447 30575 net.cpp:425] inception_4c/output <- inception_4c/1x1
I0403 04:03:42.726462 30575 net.cpp:425] inception_4c/output <- inception_4c/3x3
I0403 04:03:42.726476 30575 net.cpp:425] inception_4c/output <- inception_4c/5x5
I0403 04:03:42.726491 30575 net.cpp:425] inception_4c/output <- inception_4c/pool_proj
I0403 04:03:42.726512 30575 net.cpp:399] inception_4c/output -> inception_4c/output
I0403 04:03:42.726549 30575 net.cpp:141] Setting up inception_4c/output
I0403 04:03:42.726570 30575 net.cpp:148] Top shape: 24 512 14 14 (2408448)
I0403 04:03:42.726584 30575 net.cpp:156] Memory required for data: 1072635840
I0403 04:03:42.726598 30575 layer_factory.hpp:77] Creating layer inception_4c/output_inception_4c/output_0_split
I0403 04:03:42.726618 30575 net.cpp:91] Creating Layer inception_4c/output_inception_4c/output_0_split
I0403 04:03:42.726634 30575 net.cpp:425] inception_4c/output_inception_4c/output_0_split <- inception_4c/output
I0403 04:03:42.726649 30575 net.cpp:399] inception_4c/output_inception_4c/output_0_split -> inception_4c/output_inception_4c/output_0_split_0
I0403 04:03:42.726667 30575 net.cpp:399] inception_4c/output_inception_4c/output_0_split -> inception_4c/output_inception_4c/output_0_split_1
I0403 04:03:42.726688 30575 net.cpp:399] inception_4c/output_inception_4c/output_0_split -> inception_4c/output_inception_4c/output_0_split_2
I0403 04:03:42.726708 30575 net.cpp:399] inception_4c/output_inception_4c/output_0_split -> inception_4c/output_inception_4c/output_0_split_3
I0403 04:03:42.726771 30575 net.cpp:141] Setting up inception_4c/output_inception_4c/output_0_split
I0403 04:03:42.726791 30575 net.cpp:148] Top shape: 24 512 14 14 (2408448)
I0403 04:03:42.726806 30575 net.cpp:148] Top shape: 24 512 14 14 (2408448)
I0403 04:03:42.726821 30575 net.cpp:148] Top shape: 24 512 14 14 (2408448)
I0403 04:03:42.726835 30575 net.cpp:148] Top shape: 24 512 14 14 (2408448)
I0403 04:03:42.726848 30575 net.cpp:156] Memory required for data: 1111171008
I0403 04:03:42.726862 30575 layer_factory.hpp:77] Creating layer inception_4d/1x1
I0403 04:03:42.726884 30575 net.cpp:91] Creating Layer inception_4d/1x1
I0403 04:03:42.726900 30575 net.cpp:425] inception_4d/1x1 <- inception_4c/output_inception_4c/output_0_split_0
I0403 04:03:42.726922 30575 net.cpp:399] inception_4d/1x1 -> inception_4d/1x1
I0403 04:03:42.727411 30575 net.cpp:141] Setting up inception_4d/1x1
I0403 04:03:42.727434 30575 net.cpp:148] Top shape: 24 112 14 14 (526848)
I0403 04:03:42.727448 30575 net.cpp:156] Memory required for data: 1113278400
I0403 04:03:42.727464 30575 layer_factory.hpp:77] Creating layer inception_4d/relu_1x1
I0403 04:03:42.727480 30575 net.cpp:91] Creating Layer inception_4d/relu_1x1
I0403 04:03:42.727495 30575 net.cpp:425] inception_4d/relu_1x1 <- inception_4d/1x1
I0403 04:03:42.727527 30575 net.cpp:386] inception_4d/relu_1x1 -> inception_4d/1x1 (in-place)
I0403 04:03:42.727548 30575 net.cpp:141] Setting up inception_4d/relu_1x1
I0403 04:03:42.727566 30575 net.cpp:148] Top shape: 24 112 14 14 (526848)
I0403 04:03:42.727578 30575 net.cpp:156] Memory required for data: 1115385792
I0403 04:03:42.727591 30575 layer_factory.hpp:77] Creating layer inception_4d/3x3_reduce
I0403 04:03:42.727613 30575 net.cpp:91] Creating Layer inception_4d/3x3_reduce
I0403 04:03:42.727630 30575 net.cpp:425] inception_4d/3x3_reduce <- inception_4c/output_inception_4c/output_0_split_1
I0403 04:03:42.727651 30575 net.cpp:399] inception_4d/3x3_reduce -> inception_4d/3x3_reduce
I0403 04:03:42.728265 30575 net.cpp:141] Setting up inception_4d/3x3_reduce
I0403 04:03:42.728288 30575 net.cpp:148] Top shape: 24 144 14 14 (677376)
I0403 04:03:42.728302 30575 net.cpp:156] Memory required for data: 1118095296
I0403 04:03:42.728332 30575 layer_factory.hpp:77] Creating layer inception_4d/relu_3x3_reduce
I0403 04:03:42.728353 30575 net.cpp:91] Creating Layer inception_4d/relu_3x3_reduce
I0403 04:03:42.728370 30575 net.cpp:425] inception_4d/relu_3x3_reduce <- inception_4d/3x3_reduce
I0403 04:03:42.728389 30575 net.cpp:386] inception_4d/relu_3x3_reduce -> inception_4d/3x3_reduce (in-place)
I0403 04:03:42.728406 30575 net.cpp:141] Setting up inception_4d/relu_3x3_reduce
I0403 04:03:42.728422 30575 net.cpp:148] Top shape: 24 144 14 14 (677376)
I0403 04:03:42.728436 30575 net.cpp:156] Memory required for data: 1120804800
I0403 04:03:42.728449 30575 layer_factory.hpp:77] Creating layer inception_4d/3x3
I0403 04:03:42.728471 30575 net.cpp:91] Creating Layer inception_4d/3x3
I0403 04:03:42.728488 30575 net.cpp:425] inception_4d/3x3 <- inception_4d/3x3_reduce
I0403 04:03:42.728513 30575 net.cpp:399] inception_4d/3x3 -> inception_4d/3x3
I0403 04:03:42.731508 30575 net.cpp:141] Setting up inception_4d/3x3
I0403 04:03:42.731535 30575 net.cpp:148] Top shape: 24 288 14 14 (1354752)
I0403 04:03:42.731552 30575 net.cpp:156] Memory required for data: 1126223808
I0403 04:03:42.731570 30575 layer_factory.hpp:77] Creating layer inception_4d/relu_3x3
I0403 04:03:42.731590 30575 net.cpp:91] Creating Layer inception_4d/relu_3x3
I0403 04:03:42.731608 30575 net.cpp:425] inception_4d/relu_3x3 <- inception_4d/3x3
I0403 04:03:42.731626 30575 net.cpp:386] inception_4d/relu_3x3 -> inception_4d/3x3 (in-place)
I0403 04:03:42.731647 30575 net.cpp:141] Setting up inception_4d/relu_3x3
I0403 04:03:42.731667 30575 net.cpp:148] Top shape: 24 288 14 14 (1354752)
I0403 04:03:42.731681 30575 net.cpp:156] Memory required for data: 1131642816
I0403 04:03:42.731695 30575 layer_factory.hpp:77] Creating layer inception_4d/5x5_reduce
I0403 04:03:42.731719 30575 net.cpp:91] Creating Layer inception_4d/5x5_reduce
I0403 04:03:42.731734 30575 net.cpp:425] inception_4d/5x5_reduce <- inception_4c/output_inception_4c/output_0_split_2
I0403 04:03:42.731753 30575 net.cpp:399] inception_4d/5x5_reduce -> inception_4d/5x5_reduce
I0403 04:03:42.732051 30575 net.cpp:141] Setting up inception_4d/5x5_reduce
I0403 04:03:42.732076 30575 net.cpp:148] Top shape: 24 32 14 14 (150528)
I0403 04:03:42.732090 30575 net.cpp:156] Memory required for data: 1132244928
I0403 04:03:42.732107 30575 layer_factory.hpp:77] Creating layer inception_4d/relu_5x5_reduce
I0403 04:03:42.732125 30575 net.cpp:91] Creating Layer inception_4d/relu_5x5_reduce
I0403 04:03:42.732139 30575 net.cpp:425] inception_4d/relu_5x5_reduce <- inception_4d/5x5_reduce
I0403 04:03:42.732158 30575 net.cpp:386] inception_4d/relu_5x5_reduce -> inception_4d/5x5_reduce (in-place)
I0403 04:03:42.732178 30575 net.cpp:141] Setting up inception_4d/relu_5x5_reduce
I0403 04:03:42.732194 30575 net.cpp:148] Top shape: 24 32 14 14 (150528)
I0403 04:03:42.732208 30575 net.cpp:156] Memory required for data: 1132847040
I0403 04:03:42.732223 30575 layer_factory.hpp:77] Creating layer inception_4d/5x5
I0403 04:03:42.732241 30575 net.cpp:91] Creating Layer inception_4d/5x5
I0403 04:03:42.732257 30575 net.cpp:425] inception_4d/5x5 <- inception_4d/5x5_reduce
I0403 04:03:42.732278 30575 net.cpp:399] inception_4d/5x5 -> inception_4d/5x5
I0403 04:03:42.732760 30575 net.cpp:141] Setting up inception_4d/5x5
I0403 04:03:42.732785 30575 net.cpp:148] Top shape: 24 64 14 14 (301056)
I0403 04:03:42.732800 30575 net.cpp:156] Memory required for data: 1134051264
I0403 04:03:42.732817 30575 layer_factory.hpp:77] Creating layer inception_4d/relu_5x5
I0403 04:03:42.732834 30575 net.cpp:91] Creating Layer inception_4d/relu_5x5
I0403 04:03:42.732849 30575 net.cpp:425] inception_4d/relu_5x5 <- inception_4d/5x5
I0403 04:03:42.732866 30575 net.cpp:386] inception_4d/relu_5x5 -> inception_4d/5x5 (in-place)
I0403 04:03:42.732887 30575 net.cpp:141] Setting up inception_4d/relu_5x5
I0403 04:03:42.732904 30575 net.cpp:148] Top shape: 24 64 14 14 (301056)
I0403 04:03:42.732918 30575 net.cpp:156] Memory required for data: 1135255488
I0403 04:03:42.732933 30575 layer_factory.hpp:77] Creating layer inception_4d/pool
I0403 04:03:42.732964 30575 net.cpp:91] Creating Layer inception_4d/pool
I0403 04:03:42.732980 30575 net.cpp:425] inception_4d/pool <- inception_4c/output_inception_4c/output_0_split_3
I0403 04:03:42.732997 30575 net.cpp:399] inception_4d/pool -> inception_4d/pool
I0403 04:03:42.733049 30575 net.cpp:141] Setting up inception_4d/pool
I0403 04:03:42.733072 30575 net.cpp:148] Top shape: 24 512 14 14 (2408448)
I0403 04:03:42.733086 30575 net.cpp:156] Memory required for data: 1144889280
I0403 04:03:42.733100 30575 layer_factory.hpp:77] Creating layer inception_4d/pool_proj
I0403 04:03:42.733122 30575 net.cpp:91] Creating Layer inception_4d/pool_proj
I0403 04:03:42.733139 30575 net.cpp:425] inception_4d/pool_proj <- inception_4d/pool
I0403 04:03:42.733162 30575 net.cpp:399] inception_4d/pool_proj -> inception_4d/pool_proj
I0403 04:03:42.734061 30575 net.cpp:141] Setting up inception_4d/pool_proj
I0403 04:03:42.734087 30575 net.cpp:148] Top shape: 24 64 14 14 (301056)
I0403 04:03:42.734102 30575 net.cpp:156] Memory required for data: 1146093504
I0403 04:03:42.734120 30575 layer_factory.hpp:77] Creating layer inception_4d/relu_pool_proj
I0403 04:03:42.734140 30575 net.cpp:91] Creating Layer inception_4d/relu_pool_proj
I0403 04:03:42.734158 30575 net.cpp:425] inception_4d/relu_pool_proj <- inception_4d/pool_proj
I0403 04:03:42.734174 30575 net.cpp:386] inception_4d/relu_pool_proj -> inception_4d/pool_proj (in-place)
I0403 04:03:42.734194 30575 net.cpp:141] Setting up inception_4d/relu_pool_proj
I0403 04:03:42.734210 30575 net.cpp:148] Top shape: 24 64 14 14 (301056)
I0403 04:03:42.734223 30575 net.cpp:156] Memory required for data: 1147297728
I0403 04:03:42.734237 30575 layer_factory.hpp:77] Creating layer inception_4d/output
I0403 04:03:42.734256 30575 net.cpp:91] Creating Layer inception_4d/output
I0403 04:03:42.734272 30575 net.cpp:425] inception_4d/output <- inception_4d/1x1
I0403 04:03:42.734288 30575 net.cpp:425] inception_4d/output <- inception_4d/3x3
I0403 04:03:42.734303 30575 net.cpp:425] inception_4d/output <- inception_4d/5x5
I0403 04:03:42.734318 30575 net.cpp:425] inception_4d/output <- inception_4d/pool_proj
I0403 04:03:42.734334 30575 net.cpp:399] inception_4d/output -> inception_4d/output
I0403 04:03:42.734370 30575 net.cpp:141] Setting up inception_4d/output
I0403 04:03:42.734395 30575 net.cpp:148] Top shape: 24 528 14 14 (2483712)
I0403 04:03:42.734410 30575 net.cpp:156] Memory required for data: 1157232576
I0403 04:03:42.734423 30575 layer_factory.hpp:77] Creating layer inception_4d/output_inception_4d/output_0_split
I0403 04:03:42.734441 30575 net.cpp:91] Creating Layer inception_4d/output_inception_4d/output_0_split
I0403 04:03:42.734454 30575 net.cpp:425] inception_4d/output_inception_4d/output_0_split <- inception_4d/output
I0403 04:03:42.734472 30575 net.cpp:399] inception_4d/output_inception_4d/output_0_split -> inception_4d/output_inception_4d/output_0_split_0
I0403 04:03:42.734494 30575 net.cpp:399] inception_4d/output_inception_4d/output_0_split -> inception_4d/output_inception_4d/output_0_split_1
I0403 04:03:42.734524 30575 net.cpp:399] inception_4d/output_inception_4d/output_0_split -> inception_4d/output_inception_4d/output_0_split_2
I0403 04:03:42.734546 30575 net.cpp:399] inception_4d/output_inception_4d/output_0_split -> inception_4d/output_inception_4d/output_0_split_3
I0403 04:03:42.734565 30575 net.cpp:399] inception_4d/output_inception_4d/output_0_split -> inception_4d/output_inception_4d/output_0_split_4
I0403 04:03:42.734642 30575 net.cpp:141] Setting up inception_4d/output_inception_4d/output_0_split
I0403 04:03:42.734663 30575 net.cpp:148] Top shape: 24 528 14 14 (2483712)
I0403 04:03:42.734679 30575 net.cpp:148] Top shape: 24 528 14 14 (2483712)
I0403 04:03:42.734694 30575 net.cpp:148] Top shape: 24 528 14 14 (2483712)
I0403 04:03:42.734709 30575 net.cpp:148] Top shape: 24 528 14 14 (2483712)
I0403 04:03:42.734722 30575 net.cpp:148] Top shape: 24 528 14 14 (2483712)
I0403 04:03:42.734736 30575 net.cpp:156] Memory required for data: 1206906816
I0403 04:03:42.734763 30575 layer_factory.hpp:77] Creating layer loss2/ave_pool
I0403 04:03:42.734784 30575 net.cpp:91] Creating Layer loss2/ave_pool
I0403 04:03:42.734802 30575 net.cpp:425] loss2/ave_pool <- inception_4d/output_inception_4d/output_0_split_0
I0403 04:03:42.734818 30575 net.cpp:399] loss2/ave_pool -> loss2/ave_pool
I0403 04:03:42.734858 30575 net.cpp:141] Setting up loss2/ave_pool
I0403 04:03:42.734879 30575 net.cpp:148] Top shape: 24 528 4 4 (202752)
I0403 04:03:42.734894 30575 net.cpp:156] Memory required for data: 1207717824
I0403 04:03:42.734907 30575 layer_factory.hpp:77] Creating layer loss2/conv
I0403 04:03:42.734930 30575 net.cpp:91] Creating Layer loss2/conv
I0403 04:03:42.734947 30575 net.cpp:425] loss2/conv <- loss2/ave_pool
I0403 04:03:42.734967 30575 net.cpp:399] loss2/conv -> loss2/conv
I0403 04:03:42.736042 30575 net.cpp:141] Setting up loss2/conv
I0403 04:03:42.736069 30575 net.cpp:148] Top shape: 24 128 4 4 (49152)
I0403 04:03:42.736084 30575 net.cpp:156] Memory required for data: 1207914432
I0403 04:03:42.736101 30575 layer_factory.hpp:77] Creating layer loss2/relu_conv
I0403 04:03:42.736122 30575 net.cpp:91] Creating Layer loss2/relu_conv
I0403 04:03:42.736140 30575 net.cpp:425] loss2/relu_conv <- loss2/conv
I0403 04:03:42.736156 30575 net.cpp:386] loss2/relu_conv -> loss2/conv (in-place)
I0403 04:03:42.736174 30575 net.cpp:141] Setting up loss2/relu_conv
I0403 04:03:42.736191 30575 net.cpp:148] Top shape: 24 128 4 4 (49152)
I0403 04:03:42.736205 30575 net.cpp:156] Memory required for data: 1208111040
I0403 04:03:42.736218 30575 layer_factory.hpp:77] Creating layer loss2/fc
I0403 04:03:42.736237 30575 net.cpp:91] Creating Layer loss2/fc
I0403 04:03:42.736251 30575 net.cpp:425] loss2/fc <- loss2/conv
I0403 04:03:42.736274 30575 net.cpp:399] loss2/fc -> loss2/fc
I0403 04:03:42.751427 30575 net.cpp:141] Setting up loss2/fc
I0403 04:03:42.751466 30575 net.cpp:148] Top shape: 24 1024 (24576)
I0403 04:03:42.751482 30575 net.cpp:156] Memory required for data: 1208209344
I0403 04:03:42.751502 30575 layer_factory.hpp:77] Creating layer loss2/relu_fc
I0403 04:03:42.751525 30575 net.cpp:91] Creating Layer loss2/relu_fc
I0403 04:03:42.751543 30575 net.cpp:425] loss2/relu_fc <- loss2/fc
I0403 04:03:42.751559 30575 net.cpp:386] loss2/relu_fc -> loss2/fc (in-place)
I0403 04:03:42.751579 30575 net.cpp:141] Setting up loss2/relu_fc
I0403 04:03:42.751595 30575 net.cpp:148] Top shape: 24 1024 (24576)
I0403 04:03:42.751608 30575 net.cpp:156] Memory required for data: 1208307648
I0403 04:03:42.751622 30575 layer_factory.hpp:77] Creating layer loss2/drop_fc
I0403 04:03:42.751641 30575 net.cpp:91] Creating Layer loss2/drop_fc
I0403 04:03:42.751655 30575 net.cpp:425] loss2/drop_fc <- loss2/fc
I0403 04:03:42.751674 30575 net.cpp:386] loss2/drop_fc -> loss2/fc (in-place)
I0403 04:03:42.751713 30575 net.cpp:141] Setting up loss2/drop_fc
I0403 04:03:42.751736 30575 net.cpp:148] Top shape: 24 1024 (24576)
I0403 04:03:42.751751 30575 net.cpp:156] Memory required for data: 1208405952
I0403 04:03:42.751765 30575 layer_factory.hpp:77] Creating layer loss2/classifier_plantvillage
I0403 04:03:42.751783 30575 net.cpp:91] Creating Layer loss2/classifier_plantvillage
I0403 04:03:42.751798 30575 net.cpp:425] loss2/classifier_plantvillage <- loss2/fc
I0403 04:03:42.751818 30575 net.cpp:399] loss2/classifier_plantvillage -> loss2/classifier_plantvillage
I0403 04:03:42.752133 30575 net.cpp:141] Setting up loss2/classifier_plantvillage
I0403 04:03:42.752157 30575 net.cpp:148] Top shape: 24 38 (912)
I0403 04:03:42.752172 30575 net.cpp:156] Memory required for data: 1208409600
I0403 04:03:42.752189 30575 layer_factory.hpp:77] Creating layer inception_4e/1x1
I0403 04:03:42.752213 30575 net.cpp:91] Creating Layer inception_4e/1x1
I0403 04:03:42.752230 30575 net.cpp:425] inception_4e/1x1 <- inception_4d/output_inception_4d/output_0_split_1
I0403 04:03:42.752251 30575 net.cpp:399] inception_4e/1x1 -> inception_4e/1x1
I0403 04:03:42.753180 30575 net.cpp:141] Setting up inception_4e/1x1
I0403 04:03:42.753203 30575 net.cpp:148] Top shape: 24 256 14 14 (1204224)
I0403 04:03:42.753233 30575 net.cpp:156] Memory required for data: 1213226496
I0403 04:03:42.753252 30575 layer_factory.hpp:77] Creating layer inception_4e/relu_1x1
I0403 04:03:42.753273 30575 net.cpp:91] Creating Layer inception_4e/relu_1x1
I0403 04:03:42.753289 30575 net.cpp:425] inception_4e/relu_1x1 <- inception_4e/1x1
I0403 04:03:42.753306 30575 net.cpp:386] inception_4e/relu_1x1 -> inception_4e/1x1 (in-place)
I0403 04:03:42.753324 30575 net.cpp:141] Setting up inception_4e/relu_1x1
I0403 04:03:42.753340 30575 net.cpp:148] Top shape: 24 256 14 14 (1204224)
I0403 04:03:42.753353 30575 net.cpp:156] Memory required for data: 1218043392
I0403 04:03:42.753367 30575 layer_factory.hpp:77] Creating layer inception_4e/3x3_reduce
I0403 04:03:42.753391 30575 net.cpp:91] Creating Layer inception_4e/3x3_reduce
I0403 04:03:42.753407 30575 net.cpp:425] inception_4e/3x3_reduce <- inception_4d/output_inception_4d/output_0_split_2
I0403 04:03:42.753427 30575 net.cpp:399] inception_4e/3x3_reduce -> inception_4e/3x3_reduce
I0403 04:03:42.754621 30575 net.cpp:141] Setting up inception_4e/3x3_reduce
I0403 04:03:42.754650 30575 net.cpp:148] Top shape: 24 160 14 14 (752640)
I0403 04:03:42.754665 30575 net.cpp:156] Memory required for data: 1221053952
I0403 04:03:42.754683 30575 layer_factory.hpp:77] Creating layer inception_4e/relu_3x3_reduce
I0403 04:03:42.754701 30575 net.cpp:91] Creating Layer inception_4e/relu_3x3_reduce
I0403 04:03:42.754717 30575 net.cpp:425] inception_4e/relu_3x3_reduce <- inception_4e/3x3_reduce
I0403 04:03:42.754736 30575 net.cpp:386] inception_4e/relu_3x3_reduce -> inception_4e/3x3_reduce (in-place)
I0403 04:03:42.754757 30575 net.cpp:141] Setting up inception_4e/relu_3x3_reduce
I0403 04:03:42.754773 30575 net.cpp:148] Top shape: 24 160 14 14 (752640)
I0403 04:03:42.754787 30575 net.cpp:156] Memory required for data: 1224064512
I0403 04:03:42.754801 30575 layer_factory.hpp:77] Creating layer inception_4e/3x3
I0403 04:03:42.754824 30575 net.cpp:91] Creating Layer inception_4e/3x3
I0403 04:03:42.754842 30575 net.cpp:425] inception_4e/3x3 <- inception_4e/3x3_reduce
I0403 04:03:42.754859 30575 net.cpp:399] inception_4e/3x3 -> inception_4e/3x3
I0403 04:03:42.758492 30575 net.cpp:141] Setting up inception_4e/3x3
I0403 04:03:42.758522 30575 net.cpp:148] Top shape: 24 320 14 14 (1505280)
I0403 04:03:42.758538 30575 net.cpp:156] Memory required for data: 1230085632
I0403 04:03:42.758555 30575 layer_factory.hpp:77] Creating layer inception_4e/relu_3x3
I0403 04:03:42.758574 30575 net.cpp:91] Creating Layer inception_4e/relu_3x3
I0403 04:03:42.758589 30575 net.cpp:425] inception_4e/relu_3x3 <- inception_4e/3x3
I0403 04:03:42.758606 30575 net.cpp:386] inception_4e/relu_3x3 -> inception_4e/3x3 (in-place)
I0403 04:03:42.758625 30575 net.cpp:141] Setting up inception_4e/relu_3x3
I0403 04:03:42.758641 30575 net.cpp:148] Top shape: 24 320 14 14 (1505280)
I0403 04:03:42.758656 30575 net.cpp:156] Memory required for data: 1236106752
I0403 04:03:42.758669 30575 layer_factory.hpp:77] Creating layer inception_4e/5x5_reduce
I0403 04:03:42.758692 30575 net.cpp:91] Creating Layer inception_4e/5x5_reduce
I0403 04:03:42.758708 30575 net.cpp:425] inception_4e/5x5_reduce <- inception_4d/output_inception_4d/output_0_split_3
I0403 04:03:42.758729 30575 net.cpp:399] inception_4e/5x5_reduce -> inception_4e/5x5_reduce
I0403 04:03:42.759037 30575 net.cpp:141] Setting up inception_4e/5x5_reduce
I0403 04:03:42.759060 30575 net.cpp:148] Top shape: 24 32 14 14 (150528)
I0403 04:03:42.759075 30575 net.cpp:156] Memory required for data: 1236708864
I0403 04:03:42.759091 30575 layer_factory.hpp:77] Creating layer inception_4e/relu_5x5_reduce
I0403 04:03:42.759109 30575 net.cpp:91] Creating Layer inception_4e/relu_5x5_reduce
I0403 04:03:42.759124 30575 net.cpp:425] inception_4e/relu_5x5_reduce <- inception_4e/5x5_reduce
I0403 04:03:42.759141 30575 net.cpp:386] inception_4e/relu_5x5_reduce -> inception_4e/5x5_reduce (in-place)
I0403 04:03:42.759160 30575 net.cpp:141] Setting up inception_4e/relu_5x5_reduce
I0403 04:03:42.759176 30575 net.cpp:148] Top shape: 24 32 14 14 (150528)
I0403 04:03:42.759205 30575 net.cpp:156] Memory required for data: 1237310976
I0403 04:03:42.759220 30575 layer_factory.hpp:77] Creating layer inception_4e/5x5
I0403 04:03:42.759243 30575 net.cpp:91] Creating Layer inception_4e/5x5
I0403 04:03:42.759261 30575 net.cpp:425] inception_4e/5x5 <- inception_4e/5x5_reduce
I0403 04:03:42.759284 30575 net.cpp:399] inception_4e/5x5 -> inception_4e/5x5
I0403 04:03:42.760033 30575 net.cpp:141] Setting up inception_4e/5x5
I0403 04:03:42.760058 30575 net.cpp:148] Top shape: 24 128 14 14 (602112)
I0403 04:03:42.760073 30575 net.cpp:156] Memory required for data: 1239719424
I0403 04:03:42.760090 30575 layer_factory.hpp:77] Creating layer inception_4e/relu_5x5
I0403 04:03:42.760107 30575 net.cpp:91] Creating Layer inception_4e/relu_5x5
I0403 04:03:42.760123 30575 net.cpp:425] inception_4e/relu_5x5 <- inception_4e/5x5
I0403 04:03:42.760139 30575 net.cpp:386] inception_4e/relu_5x5 -> inception_4e/5x5 (in-place)
I0403 04:03:42.760157 30575 net.cpp:141] Setting up inception_4e/relu_5x5
I0403 04:03:42.760174 30575 net.cpp:148] Top shape: 24 128 14 14 (602112)
I0403 04:03:42.760188 30575 net.cpp:156] Memory required for data: 1242127872
I0403 04:03:42.760201 30575 layer_factory.hpp:77] Creating layer inception_4e/pool
I0403 04:03:42.760237 30575 net.cpp:91] Creating Layer inception_4e/pool
I0403 04:03:42.760257 30575 net.cpp:425] inception_4e/pool <- inception_4d/output_inception_4d/output_0_split_4
I0403 04:03:42.760273 30575 net.cpp:399] inception_4e/pool -> inception_4e/pool
I0403 04:03:42.760325 30575 net.cpp:141] Setting up inception_4e/pool
I0403 04:03:42.760347 30575 net.cpp:148] Top shape: 24 528 14 14 (2483712)
I0403 04:03:42.760362 30575 net.cpp:156] Memory required for data: 1252062720
I0403 04:03:42.760376 30575 layer_factory.hpp:77] Creating layer inception_4e/pool_proj
I0403 04:03:42.760399 30575 net.cpp:91] Creating Layer inception_4e/pool_proj
I0403 04:03:42.760416 30575 net.cpp:425] inception_4e/pool_proj <- inception_4e/pool
I0403 04:03:42.760437 30575 net.cpp:399] inception_4e/pool_proj -> inception_4e/pool_proj
I0403 04:03:42.761005 30575 net.cpp:141] Setting up inception_4e/pool_proj
I0403 04:03:42.761029 30575 net.cpp:148] Top shape: 24 128 14 14 (602112)
I0403 04:03:42.761045 30575 net.cpp:156] Memory required for data: 1254471168
I0403 04:03:42.761062 30575 layer_factory.hpp:77] Creating layer inception_4e/relu_pool_proj
I0403 04:03:42.761080 30575 net.cpp:91] Creating Layer inception_4e/relu_pool_proj
I0403 04:03:42.761096 30575 net.cpp:425] inception_4e/relu_pool_proj <- inception_4e/pool_proj
I0403 04:03:42.761116 30575 net.cpp:386] inception_4e/relu_pool_proj -> inception_4e/pool_proj (in-place)
I0403 04:03:42.761135 30575 net.cpp:141] Setting up inception_4e/relu_pool_proj
I0403 04:03:42.761152 30575 net.cpp:148] Top shape: 24 128 14 14 (602112)
I0403 04:03:42.761165 30575 net.cpp:156] Memory required for data: 1256879616
I0403 04:03:42.761179 30575 layer_factory.hpp:77] Creating layer inception_4e/output
I0403 04:03:42.761196 30575 net.cpp:91] Creating Layer inception_4e/output
I0403 04:03:42.761211 30575 net.cpp:425] inception_4e/output <- inception_4e/1x1
I0403 04:03:42.761226 30575 net.cpp:425] inception_4e/output <- inception_4e/3x3
I0403 04:03:42.761242 30575 net.cpp:425] inception_4e/output <- inception_4e/5x5
I0403 04:03:42.761257 30575 net.cpp:425] inception_4e/output <- inception_4e/pool_proj
I0403 04:03:42.761277 30575 net.cpp:399] inception_4e/output -> inception_4e/output
I0403 04:03:42.761315 30575 net.cpp:141] Setting up inception_4e/output
I0403 04:03:42.761337 30575 net.cpp:148] Top shape: 24 832 14 14 (3913728)
I0403 04:03:42.761351 30575 net.cpp:156] Memory required for data: 1272534528
I0403 04:03:42.761365 30575 layer_factory.hpp:77] Creating layer pool4/3x3_s2
I0403 04:03:42.761385 30575 net.cpp:91] Creating Layer pool4/3x3_s2
I0403 04:03:42.761401 30575 net.cpp:425] pool4/3x3_s2 <- inception_4e/output
I0403 04:03:42.761420 30575 net.cpp:399] pool4/3x3_s2 -> pool4/3x3_s2
I0403 04:03:42.761468 30575 net.cpp:141] Setting up pool4/3x3_s2
I0403 04:03:42.761502 30575 net.cpp:148] Top shape: 24 832 7 7 (978432)
I0403 04:03:42.761520 30575 net.cpp:156] Memory required for data: 1276448256
I0403 04:03:42.761535 30575 layer_factory.hpp:77] Creating layer pool4/3x3_s2_pool4/3x3_s2_0_split
I0403 04:03:42.761553 30575 net.cpp:91] Creating Layer pool4/3x3_s2_pool4/3x3_s2_0_split
I0403 04:03:42.761569 30575 net.cpp:425] pool4/3x3_s2_pool4/3x3_s2_0_split <- pool4/3x3_s2
I0403 04:03:42.761589 30575 net.cpp:399] pool4/3x3_s2_pool4/3x3_s2_0_split -> pool4/3x3_s2_pool4/3x3_s2_0_split_0
I0403 04:03:42.761608 30575 net.cpp:399] pool4/3x3_s2_pool4/3x3_s2_0_split -> pool4/3x3_s2_pool4/3x3_s2_0_split_1
I0403 04:03:42.761628 30575 net.cpp:399] pool4/3x3_s2_pool4/3x3_s2_0_split -> pool4/3x3_s2_pool4/3x3_s2_0_split_2
I0403 04:03:42.761647 30575 net.cpp:399] pool4/3x3_s2_pool4/3x3_s2_0_split -> pool4/3x3_s2_pool4/3x3_s2_0_split_3
I0403 04:03:42.761713 30575 net.cpp:141] Setting up pool4/3x3_s2_pool4/3x3_s2_0_split
I0403 04:03:42.761736 30575 net.cpp:148] Top shape: 24 832 7 7 (978432)
I0403 04:03:42.761752 30575 net.cpp:148] Top shape: 24 832 7 7 (978432)
I0403 04:03:42.761766 30575 net.cpp:148] Top shape: 24 832 7 7 (978432)
I0403 04:03:42.761782 30575 net.cpp:148] Top shape: 24 832 7 7 (978432)
I0403 04:03:42.761796 30575 net.cpp:156] Memory required for data: 1292103168
I0403 04:03:42.761811 30575 layer_factory.hpp:77] Creating layer inception_5a/1x1
I0403 04:03:42.761836 30575 net.cpp:91] Creating Layer inception_5a/1x1
I0403 04:03:42.761852 30575 net.cpp:425] inception_5a/1x1 <- pool4/3x3_s2_pool4/3x3_s2_0_split_0
I0403 04:03:42.761872 30575 net.cpp:399] inception_5a/1x1 -> inception_5a/1x1
I0403 04:03:42.763772 30575 net.cpp:141] Setting up inception_5a/1x1
I0403 04:03:42.763798 30575 net.cpp:148] Top shape: 24 256 7 7 (301056)
I0403 04:03:42.763814 30575 net.cpp:156] Memory required for data: 1293307392
I0403 04:03:42.763833 30575 layer_factory.hpp:77] Creating layer inception_5a/relu_1x1
I0403 04:03:42.763851 30575 net.cpp:91] Creating Layer inception_5a/relu_1x1
I0403 04:03:42.763867 30575 net.cpp:425] inception_5a/relu_1x1 <- inception_5a/1x1
I0403 04:03:42.763885 30575 net.cpp:386] inception_5a/relu_1x1 -> inception_5a/1x1 (in-place)
I0403 04:03:42.763905 30575 net.cpp:141] Setting up inception_5a/relu_1x1
I0403 04:03:42.763926 30575 net.cpp:148] Top shape: 24 256 7 7 (301056)
I0403 04:03:42.763941 30575 net.cpp:156] Memory required for data: 1294511616
I0403 04:03:42.763954 30575 layer_factory.hpp:77] Creating layer inception_5a/3x3_reduce
I0403 04:03:42.763974 30575 net.cpp:91] Creating Layer inception_5a/3x3_reduce
I0403 04:03:42.763991 30575 net.cpp:425] inception_5a/3x3_reduce <- pool4/3x3_s2_pool4/3x3_s2_0_split_1
I0403 04:03:42.764013 30575 net.cpp:399] inception_5a/3x3_reduce -> inception_5a/3x3_reduce
I0403 04:03:42.765491 30575 net.cpp:141] Setting up inception_5a/3x3_reduce
I0403 04:03:42.765522 30575 net.cpp:148] Top shape: 24 160 7 7 (188160)
I0403 04:03:42.765538 30575 net.cpp:156] Memory required for data: 1295264256
I0403 04:03:42.765565 30575 layer_factory.hpp:77] Creating layer inception_5a/relu_3x3_reduce
I0403 04:03:42.765583 30575 net.cpp:91] Creating Layer inception_5a/relu_3x3_reduce
I0403 04:03:42.765600 30575 net.cpp:425] inception_5a/relu_3x3_reduce <- inception_5a/3x3_reduce
I0403 04:03:42.765617 30575 net.cpp:386] inception_5a/relu_3x3_reduce -> inception_5a/3x3_reduce (in-place)
I0403 04:03:42.765637 30575 net.cpp:141] Setting up inception_5a/relu_3x3_reduce
I0403 04:03:42.765655 30575 net.cpp:148] Top shape: 24 160 7 7 (188160)
I0403 04:03:42.765668 30575 net.cpp:156] Memory required for data: 1296016896
I0403 04:03:42.765682 30575 layer_factory.hpp:77] Creating layer inception_5a/3x3
I0403 04:03:42.765707 30575 net.cpp:91] Creating Layer inception_5a/3x3
I0403 04:03:42.765723 30575 net.cpp:425] inception_5a/3x3 <- inception_5a/3x3_reduce
I0403 04:03:42.765745 30575 net.cpp:399] inception_5a/3x3 -> inception_5a/3x3
I0403 04:03:42.769486 30575 net.cpp:141] Setting up inception_5a/3x3
I0403 04:03:42.769518 30575 net.cpp:148] Top shape: 24 320 7 7 (376320)
I0403 04:03:42.769548 30575 net.cpp:156] Memory required for data: 1297522176
I0403 04:03:42.769568 30575 layer_factory.hpp:77] Creating layer inception_5a/relu_3x3
I0403 04:03:42.769590 30575 net.cpp:91] Creating Layer inception_5a/relu_3x3
I0403 04:03:42.769608 30575 net.cpp:425] inception_5a/relu_3x3 <- inception_5a/3x3
I0403 04:03:42.769625 30575 net.cpp:386] inception_5a/relu_3x3 -> inception_5a/3x3 (in-place)
I0403 04:03:42.769644 30575 net.cpp:141] Setting up inception_5a/relu_3x3
I0403 04:03:42.769661 30575 net.cpp:148] Top shape: 24 320 7 7 (376320)
I0403 04:03:42.769675 30575 net.cpp:156] Memory required for data: 1299027456
I0403 04:03:42.769690 30575 layer_factory.hpp:77] Creating layer inception_5a/5x5_reduce
I0403 04:03:42.769712 30575 net.cpp:91] Creating Layer inception_5a/5x5_reduce
I0403 04:03:42.769731 30575 net.cpp:425] inception_5a/5x5_reduce <- pool4/3x3_s2_pool4/3x3_s2_0_split_2
I0403 04:03:42.769752 30575 net.cpp:399] inception_5a/5x5_reduce -> inception_5a/5x5_reduce
I0403 04:03:42.770131 30575 net.cpp:141] Setting up inception_5a/5x5_reduce
I0403 04:03:42.770156 30575 net.cpp:148] Top shape: 24 32 7 7 (37632)
I0403 04:03:42.770171 30575 net.cpp:156] Memory required for data: 1299177984
I0403 04:03:42.770190 30575 layer_factory.hpp:77] Creating layer inception_5a/relu_5x5_reduce
I0403 04:03:42.770207 30575 net.cpp:91] Creating Layer inception_5a/relu_5x5_reduce
I0403 04:03:42.770223 30575 net.cpp:425] inception_5a/relu_5x5_reduce <- inception_5a/5x5_reduce
I0403 04:03:42.770241 30575 net.cpp:386] inception_5a/relu_5x5_reduce -> inception_5a/5x5_reduce (in-place)
I0403 04:03:42.770261 30575 net.cpp:141] Setting up inception_5a/relu_5x5_reduce
I0403 04:03:42.770277 30575 net.cpp:148] Top shape: 24 32 7 7 (37632)
I0403 04:03:42.770292 30575 net.cpp:156] Memory required for data: 1299328512
I0403 04:03:42.770305 30575 layer_factory.hpp:77] Creating layer inception_5a/5x5
I0403 04:03:42.770328 30575 net.cpp:91] Creating Layer inception_5a/5x5
I0403 04:03:42.770345 30575 net.cpp:425] inception_5a/5x5 <- inception_5a/5x5_reduce
I0403 04:03:42.770366 30575 net.cpp:399] inception_5a/5x5 -> inception_5a/5x5
I0403 04:03:42.771144 30575 net.cpp:141] Setting up inception_5a/5x5
I0403 04:03:42.771169 30575 net.cpp:148] Top shape: 24 128 7 7 (150528)
I0403 04:03:42.771184 30575 net.cpp:156] Memory required for data: 1299930624
I0403 04:03:42.771203 30575 layer_factory.hpp:77] Creating layer inception_5a/relu_5x5
I0403 04:03:42.771221 30575 net.cpp:91] Creating Layer inception_5a/relu_5x5
I0403 04:03:42.771237 30575 net.cpp:425] inception_5a/relu_5x5 <- inception_5a/5x5
I0403 04:03:42.771256 30575 net.cpp:386] inception_5a/relu_5x5 -> inception_5a/5x5 (in-place)
I0403 04:03:42.771275 30575 net.cpp:141] Setting up inception_5a/relu_5x5
I0403 04:03:42.771292 30575 net.cpp:148] Top shape: 24 128 7 7 (150528)
I0403 04:03:42.771306 30575 net.cpp:156] Memory required for data: 1300532736
I0403 04:03:42.771322 30575 layer_factory.hpp:77] Creating layer inception_5a/pool
I0403 04:03:42.771338 30575 net.cpp:91] Creating Layer inception_5a/pool
I0403 04:03:42.771358 30575 net.cpp:425] inception_5a/pool <- pool4/3x3_s2_pool4/3x3_s2_0_split_3
I0403 04:03:42.771376 30575 net.cpp:399] inception_5a/pool -> inception_5a/pool
I0403 04:03:42.771427 30575 net.cpp:141] Setting up inception_5a/pool
I0403 04:03:42.771452 30575 net.cpp:148] Top shape: 24 832 7 7 (978432)
I0403 04:03:42.771468 30575 net.cpp:156] Memory required for data: 1304446464
I0403 04:03:42.771482 30575 layer_factory.hpp:77] Creating layer inception_5a/pool_proj
I0403 04:03:42.771503 30575 net.cpp:91] Creating Layer inception_5a/pool_proj
I0403 04:03:42.771524 30575 net.cpp:425] inception_5a/pool_proj <- inception_5a/pool
I0403 04:03:42.771546 30575 net.cpp:399] inception_5a/pool_proj -> inception_5a/pool_proj
I0403 04:03:42.772881 30575 net.cpp:141] Setting up inception_5a/pool_proj
I0403 04:03:42.772909 30575 net.cpp:148] Top shape: 24 128 7 7 (150528)
I0403 04:03:42.772925 30575 net.cpp:156] Memory required for data: 1305048576
I0403 04:03:42.772958 30575 layer_factory.hpp:77] Creating layer inception_5a/relu_pool_proj
I0403 04:03:42.772980 30575 net.cpp:91] Creating Layer inception_5a/relu_pool_proj
I0403 04:03:42.772997 30575 net.cpp:425] inception_5a/relu_pool_proj <- inception_5a/pool_proj
I0403 04:03:42.773015 30575 net.cpp:386] inception_5a/relu_pool_proj -> inception_5a/pool_proj (in-place)
I0403 04:03:42.773036 30575 net.cpp:141] Setting up inception_5a/relu_pool_proj
I0403 04:03:42.773052 30575 net.cpp:148] Top shape: 24 128 7 7 (150528)
I0403 04:03:42.773066 30575 net.cpp:156] Memory required for data: 1305650688
I0403 04:03:42.773080 30575 layer_factory.hpp:77] Creating layer inception_5a/output
I0403 04:03:42.773099 30575 net.cpp:91] Creating Layer inception_5a/output
I0403 04:03:42.773115 30575 net.cpp:425] inception_5a/output <- inception_5a/1x1
I0403 04:03:42.773133 30575 net.cpp:425] inception_5a/output <- inception_5a/3x3
I0403 04:03:42.773149 30575 net.cpp:425] inception_5a/output <- inception_5a/5x5
I0403 04:03:42.773164 30575 net.cpp:425] inception_5a/output <- inception_5a/pool_proj
I0403 04:03:42.773181 30575 net.cpp:399] inception_5a/output -> inception_5a/output
I0403 04:03:42.773219 30575 net.cpp:141] Setting up inception_5a/output
I0403 04:03:42.773244 30575 net.cpp:148] Top shape: 24 832 7 7 (978432)
I0403 04:03:42.773260 30575 net.cpp:156] Memory required for data: 1309564416
I0403 04:03:42.773277 30575 layer_factory.hpp:77] Creating layer inception_5a/output_inception_5a/output_0_split
I0403 04:03:42.773293 30575 net.cpp:91] Creating Layer inception_5a/output_inception_5a/output_0_split
I0403 04:03:42.773310 30575 net.cpp:425] inception_5a/output_inception_5a/output_0_split <- inception_5a/output
I0403 04:03:42.773330 30575 net.cpp:399] inception_5a/output_inception_5a/output_0_split -> inception_5a/output_inception_5a/output_0_split_0
I0403 04:03:42.773351 30575 net.cpp:399] inception_5a/output_inception_5a/output_0_split -> inception_5a/output_inception_5a/output_0_split_1
I0403 04:03:42.773371 30575 net.cpp:399] inception_5a/output_inception_5a/output_0_split -> inception_5a/output_inception_5a/output_0_split_2
I0403 04:03:42.773392 30575 net.cpp:399] inception_5a/output_inception_5a/output_0_split -> inception_5a/output_inception_5a/output_0_split_3
I0403 04:03:42.773461 30575 net.cpp:141] Setting up inception_5a/output_inception_5a/output_0_split
I0403 04:03:42.773485 30575 net.cpp:148] Top shape: 24 832 7 7 (978432)
I0403 04:03:42.773504 30575 net.cpp:148] Top shape: 24 832 7 7 (978432)
I0403 04:03:42.773524 30575 net.cpp:148] Top shape: 24 832 7 7 (978432)
I0403 04:03:42.773540 30575 net.cpp:148] Top shape: 24 832 7 7 (978432)
I0403 04:03:42.773553 30575 net.cpp:156] Memory required for data: 1325219328
I0403 04:03:42.773567 30575 layer_factory.hpp:77] Creating layer inception_5b/1x1
I0403 04:03:42.773588 30575 net.cpp:91] Creating Layer inception_5b/1x1
I0403 04:03:42.773604 30575 net.cpp:425] inception_5b/1x1 <- inception_5a/output_inception_5a/output_0_split_0
I0403 04:03:42.773627 30575 net.cpp:399] inception_5b/1x1 -> inception_5b/1x1
I0403 04:03:42.776198 30575 net.cpp:141] Setting up inception_5b/1x1
I0403 04:03:42.776227 30575 net.cpp:148] Top shape: 24 384 7 7 (451584)
I0403 04:03:42.776243 30575 net.cpp:156] Memory required for data: 1327025664
I0403 04:03:42.776264 30575 layer_factory.hpp:77] Creating layer inception_5b/relu_1x1
I0403 04:03:42.776283 30575 net.cpp:91] Creating Layer inception_5b/relu_1x1
I0403 04:03:42.776299 30575 net.cpp:425] inception_5b/relu_1x1 <- inception_5b/1x1
I0403 04:03:42.776316 30575 net.cpp:386] inception_5b/relu_1x1 -> inception_5b/1x1 (in-place)
I0403 04:03:42.776336 30575 net.cpp:141] Setting up inception_5b/relu_1x1
I0403 04:03:42.776353 30575 net.cpp:148] Top shape: 24 384 7 7 (451584)
I0403 04:03:42.776367 30575 net.cpp:156] Memory required for data: 1328832000
I0403 04:03:42.776381 30575 layer_factory.hpp:77] Creating layer inception_5b/3x3_reduce
I0403 04:03:42.776404 30575 net.cpp:91] Creating Layer inception_5b/3x3_reduce
I0403 04:03:42.776422 30575 net.cpp:425] inception_5b/3x3_reduce <- inception_5a/output_inception_5a/output_0_split_1
I0403 04:03:42.776458 30575 net.cpp:399] inception_5b/3x3_reduce -> inception_5b/3x3_reduce
I0403 04:03:42.778087 30575 net.cpp:141] Setting up inception_5b/3x3_reduce
I0403 04:03:42.778115 30575 net.cpp:148] Top shape: 24 192 7 7 (225792)
I0403 04:03:42.778131 30575 net.cpp:156] Memory required for data: 1329735168
I0403 04:03:42.778149 30575 layer_factory.hpp:77] Creating layer inception_5b/relu_3x3_reduce
I0403 04:03:42.778170 30575 net.cpp:91] Creating Layer inception_5b/relu_3x3_reduce
I0403 04:03:42.778187 30575 net.cpp:425] inception_5b/relu_3x3_reduce <- inception_5b/3x3_reduce
I0403 04:03:42.778205 30575 net.cpp:386] inception_5b/relu_3x3_reduce -> inception_5b/3x3_reduce (in-place)
I0403 04:03:42.778225 30575 net.cpp:141] Setting up inception_5b/relu_3x3_reduce
I0403 04:03:42.778242 30575 net.cpp:148] Top shape: 24 192 7 7 (225792)
I0403 04:03:42.778256 30575 net.cpp:156] Memory required for data: 1330638336
I0403 04:03:42.778270 30575 layer_factory.hpp:77] Creating layer inception_5b/3x3
I0403 04:03:42.778295 30575 net.cpp:91] Creating Layer inception_5b/3x3
I0403 04:03:42.778311 30575 net.cpp:425] inception_5b/3x3 <- inception_5b/3x3_reduce
I0403 04:03:42.778332 30575 net.cpp:399] inception_5b/3x3 -> inception_5b/3x3
I0403 04:03:42.783715 30575 net.cpp:141] Setting up inception_5b/3x3
I0403 04:03:42.783741 30575 net.cpp:148] Top shape: 24 384 7 7 (451584)
I0403 04:03:42.783757 30575 net.cpp:156] Memory required for data: 1332444672
I0403 04:03:42.783774 30575 layer_factory.hpp:77] Creating layer inception_5b/relu_3x3
I0403 04:03:42.783793 30575 net.cpp:91] Creating Layer inception_5b/relu_3x3
I0403 04:03:42.783808 30575 net.cpp:425] inception_5b/relu_3x3 <- inception_5b/3x3
I0403 04:03:42.783828 30575 net.cpp:386] inception_5b/relu_3x3 -> inception_5b/3x3 (in-place)
I0403 04:03:42.783849 30575 net.cpp:141] Setting up inception_5b/relu_3x3
I0403 04:03:42.783865 30575 net.cpp:148] Top shape: 24 384 7 7 (451584)
I0403 04:03:42.783879 30575 net.cpp:156] Memory required for data: 1334251008
I0403 04:03:42.783892 30575 layer_factory.hpp:77] Creating layer inception_5b/5x5_reduce
I0403 04:03:42.783915 30575 net.cpp:91] Creating Layer inception_5b/5x5_reduce
I0403 04:03:42.783931 30575 net.cpp:425] inception_5b/5x5_reduce <- inception_5a/output_inception_5a/output_0_split_2
I0403 04:03:42.783951 30575 net.cpp:399] inception_5b/5x5_reduce -> inception_5b/5x5_reduce
I0403 04:03:42.784392 30575 net.cpp:141] Setting up inception_5b/5x5_reduce
I0403 04:03:42.784416 30575 net.cpp:148] Top shape: 24 48 7 7 (56448)
I0403 04:03:42.784430 30575 net.cpp:156] Memory required for data: 1334476800
I0403 04:03:42.784447 30575 layer_factory.hpp:77] Creating layer inception_5b/relu_5x5_reduce
I0403 04:03:42.784467 30575 net.cpp:91] Creating Layer inception_5b/relu_5x5_reduce
I0403 04:03:42.784483 30575 net.cpp:425] inception_5b/relu_5x5_reduce <- inception_5b/5x5_reduce
I0403 04:03:42.784500 30575 net.cpp:386] inception_5b/relu_5x5_reduce -> inception_5b/5x5_reduce (in-place)
I0403 04:03:42.784530 30575 net.cpp:141] Setting up inception_5b/relu_5x5_reduce
I0403 04:03:42.784548 30575 net.cpp:148] Top shape: 24 48 7 7 (56448)
I0403 04:03:42.784562 30575 net.cpp:156] Memory required for data: 1334702592
I0403 04:03:42.784576 30575 layer_factory.hpp:77] Creating layer inception_5b/5x5
I0403 04:03:42.784598 30575 net.cpp:91] Creating Layer inception_5b/5x5
I0403 04:03:42.784615 30575 net.cpp:425] inception_5b/5x5 <- inception_5b/5x5_reduce
I0403 04:03:42.784634 30575 net.cpp:399] inception_5b/5x5 -> inception_5b/5x5
I0403 04:03:42.785676 30575 net.cpp:141] Setting up inception_5b/5x5
I0403 04:03:42.785703 30575 net.cpp:148] Top shape: 24 128 7 7 (150528)
I0403 04:03:42.785719 30575 net.cpp:156] Memory required for data: 1335304704
I0403 04:03:42.785737 30575 layer_factory.hpp:77] Creating layer inception_5b/relu_5x5
I0403 04:03:42.785754 30575 net.cpp:91] Creating Layer inception_5b/relu_5x5
I0403 04:03:42.785770 30575 net.cpp:425] inception_5b/relu_5x5 <- inception_5b/5x5
I0403 04:03:42.785801 30575 net.cpp:386] inception_5b/relu_5x5 -> inception_5b/5x5 (in-place)
I0403 04:03:42.785821 30575 net.cpp:141] Setting up inception_5b/relu_5x5
I0403 04:03:42.785838 30575 net.cpp:148] Top shape: 24 128 7 7 (150528)
I0403 04:03:42.785852 30575 net.cpp:156] Memory required for data: 1335906816
I0403 04:03:42.785866 30575 layer_factory.hpp:77] Creating layer inception_5b/pool
I0403 04:03:42.785886 30575 net.cpp:91] Creating Layer inception_5b/pool
I0403 04:03:42.785902 30575 net.cpp:425] inception_5b/pool <- inception_5a/output_inception_5a/output_0_split_3
I0403 04:03:42.785918 30575 net.cpp:399] inception_5b/pool -> inception_5b/pool
I0403 04:03:42.785972 30575 net.cpp:141] Setting up inception_5b/pool
I0403 04:03:42.785995 30575 net.cpp:148] Top shape: 24 832 7 7 (978432)
I0403 04:03:42.786008 30575 net.cpp:156] Memory required for data: 1339820544
I0403 04:03:42.786022 30575 layer_factory.hpp:77] Creating layer inception_5b/pool_proj
I0403 04:03:42.786046 30575 net.cpp:91] Creating Layer inception_5b/pool_proj
I0403 04:03:42.786062 30575 net.cpp:425] inception_5b/pool_proj <- inception_5b/pool
I0403 04:03:42.786082 30575 net.cpp:399] inception_5b/pool_proj -> inception_5b/pool_proj
I0403 04:03:42.787380 30575 net.cpp:141] Setting up inception_5b/pool_proj
I0403 04:03:42.787407 30575 net.cpp:148] Top shape: 24 128 7 7 (150528)
I0403 04:03:42.787423 30575 net.cpp:156] Memory required for data: 1340422656
I0403 04:03:42.787441 30575 layer_factory.hpp:77] Creating layer inception_5b/relu_pool_proj
I0403 04:03:42.787459 30575 net.cpp:91] Creating Layer inception_5b/relu_pool_proj
I0403 04:03:42.787475 30575 net.cpp:425] inception_5b/relu_pool_proj <- inception_5b/pool_proj
I0403 04:03:42.787495 30575 net.cpp:386] inception_5b/relu_pool_proj -> inception_5b/pool_proj (in-place)
I0403 04:03:42.787520 30575 net.cpp:141] Setting up inception_5b/relu_pool_proj
I0403 04:03:42.787539 30575 net.cpp:148] Top shape: 24 128 7 7 (150528)
I0403 04:03:42.787551 30575 net.cpp:156] Memory required for data: 1341024768
I0403 04:03:42.787565 30575 layer_factory.hpp:77] Creating layer inception_5b/output
I0403 04:03:42.787582 30575 net.cpp:91] Creating Layer inception_5b/output
I0403 04:03:42.787598 30575 net.cpp:425] inception_5b/output <- inception_5b/1x1
I0403 04:03:42.787614 30575 net.cpp:425] inception_5b/output <- inception_5b/3x3
I0403 04:03:42.787629 30575 net.cpp:425] inception_5b/output <- inception_5b/5x5
I0403 04:03:42.787645 30575 net.cpp:425] inception_5b/output <- inception_5b/pool_proj
I0403 04:03:42.787662 30575 net.cpp:399] inception_5b/output -> inception_5b/output
I0403 04:03:42.787701 30575 net.cpp:141] Setting up inception_5b/output
I0403 04:03:42.787724 30575 net.cpp:148] Top shape: 24 1024 7 7 (1204224)
I0403 04:03:42.787739 30575 net.cpp:156] Memory required for data: 1345841664
I0403 04:03:42.787752 30575 layer_factory.hpp:77] Creating layer pool5/7x7_s1
I0403 04:03:42.787770 30575 net.cpp:91] Creating Layer pool5/7x7_s1
I0403 04:03:42.787784 30575 net.cpp:425] pool5/7x7_s1 <- inception_5b/output
I0403 04:03:42.787803 30575 net.cpp:399] pool5/7x7_s1 -> pool5/7x7_s1
I0403 04:03:42.787844 30575 net.cpp:141] Setting up pool5/7x7_s1
I0403 04:03:42.787866 30575 net.cpp:148] Top shape: 24 1024 1 1 (24576)
I0403 04:03:42.787880 30575 net.cpp:156] Memory required for data: 1345939968
I0403 04:03:42.787894 30575 layer_factory.hpp:77] Creating layer pool5/drop_7x7_s1
I0403 04:03:42.787912 30575 net.cpp:91] Creating Layer pool5/drop_7x7_s1
I0403 04:03:42.787926 30575 net.cpp:425] pool5/drop_7x7_s1 <- pool5/7x7_s1
I0403 04:03:42.787946 30575 net.cpp:386] pool5/drop_7x7_s1 -> pool5/7x7_s1 (in-place)
I0403 04:03:42.787982 30575 net.cpp:141] Setting up pool5/drop_7x7_s1
I0403 04:03:42.788005 30575 net.cpp:148] Top shape: 24 1024 1 1 (24576)
I0403 04:03:42.788020 30575 net.cpp:156] Memory required for data: 1346038272
I0403 04:03:42.788034 30575 layer_factory.hpp:77] Creating layer loss3/classifier_plantvillage
I0403 04:03:42.788053 30575 net.cpp:91] Creating Layer loss3/classifier_plantvillage
I0403 04:03:42.788081 30575 net.cpp:425] loss3/classifier_plantvillage <- pool5/7x7_s1
I0403 04:03:42.788100 30575 net.cpp:399] loss3/classifier_plantvillage -> loss3/classifier_plantvillage
I0403 04:03:42.788435 30575 net.cpp:141] Setting up loss3/classifier_plantvillage
I0403 04:03:42.788458 30575 net.cpp:148] Top shape: 24 38 (912)
I0403 04:03:42.788473 30575 net.cpp:156] Memory required for data: 1346041920
I0403 04:03:42.788489 30575 layer_factory.hpp:77] Creating layer loss1/loss
I0403 04:03:42.788516 30575 net.cpp:91] Creating Layer loss1/loss
I0403 04:03:42.788534 30575 net.cpp:425] loss1/loss <- loss1/classifier_plantvillage
I0403 04:03:42.788553 30575 net.cpp:425] loss1/loss <- label_data_1_split_0
I0403 04:03:42.788571 30575 net.cpp:399] loss1/loss -> loss1/loss
…
I0403 04:03:42.798300 30575 net.cpp:313] The NetState phase (1) differed from the phase (0) specified by a rule in layer data
I0403 04:03:42.802173 30575 net.cpp:49] Initializing net from parameters: 
state {
  phase: TEST
}
layer {
  name: "data"
  type: "Data"
  top: "data"
  top: "label"
  include {
    phase: TEST
  }
  transform_param {
    mirror: false
    crop_size: 224
    mean_file: "/home/mohanty/data/final_dataset/lmdb/color-20-80/mean.binaryproto"
  }
  data_param {
    source: "/home/mohanty/data/final_dataset/lmdb/color-20-80/test_db"
    batch_size: 24
    backend: LMDB
  }
}
layer {
  name: "conv1/7x7_s2"
  type: "Convolution"
  bottom: "data"
  top: "conv1/7x7_s2"
  param {
    lr_mult: 1
    decay_mult: 1
  }
  param {
    lr_mult: 2
    decay_mult: 0
  }
  convolution_param {
    num_output: 64
    pad: 3
    kernel_size: 7
    stride: 2
    weight_filler {
      type: "xavier"
      std: 0.1
    }
    bias_filler {
      type: "constant"
      value: 0.2
    }
  }
}
layer {
  name: "conv1/relu_7x7"
  type: "ReLU"
  bottom: "conv1/7x7_s2"
  top: "conv1/7x7_s2"
}
layer {
  name: "pool1/3x3_s2"
  type: "Pooling"
  bottom: "conv1/7x7_s2"
  top: "pool1/3x3_s2"
  pooling_param {
    pool: MAX
    kernel_size: 3
    stride: 2
  }
}
layer {
  name: "pool1/norm1"
  type: "LRN"
  bottom: "pool1/3x3_s2"
  top: "pool1/norm1"
  lrn_param {
    local_size: 5
    alpha: 0.0001
    beta: 0.75
  }
}
layer {
  name: "conv2/3x3_reduce"
  type: "Convolution"
  bottom: "pool1/norm1"
  top: "conv2/3x3_reduce"
  param {
    lr_mult: 1
    decay_mult: 1
  }
  param {
    lr_mult: 2
    decay_mult: 0
  }
  convolution_param {
    num_output: 64
    kernel_size: 1
    weight_filler {
      type: "xavier"
      std: 0.1
    }
    bias_filler {
      type: "constant"
      value: 0.2
    }
  }
}
layer {
  name: "conv2/relu_3x3_reduce"
  type: "ReLU"
  bottom: "conv2/3x3_reduce"
  top: "conv2/3x3_reduce"
}
layer {
  name: "conv2/3x3"
  type: "Convolution"
  bottom: "conv2/3x3_reduce"
  top: "conv2/3x3"
  param {
    lr_mult: 1
    decay_mult: 1
  }
  param {
    lr_mult: 2
    decay_mult: 0
  }
  convolution_param {
    num_output: 192
    pad: 1
    kernel_size: 3
    weight_filler {
      type: "xavier"
      std: 0.03
    }
    bias_filler {
      type: "constant"
      value: 0.2
    }
  }
}
layer {
  name: "conv2/relu_3x3"
  type: "ReLU"
  bottom: "conv2/3x3"
  top: "conv2/3x3"
}
layer {
  name: "conv2/norm2"
  type: "LRN"
  bottom: "conv2/3x3"
  top: "conv2/norm2"
  lrn_param {
    local_size: 5
    alpha: 0.0001
    beta: 0.75
  }
}
layer {
  name: "pool2/3x3_s2"
  type: "Pooling"
  bottom: "conv2/norm2"
  top: "pool2/3x3_s2"
  pooling_param {
    pool: MAX
    kernel_size: 3
    stride: 2
  }
}
layer {
  name: "inception_3a/1x1"
  type: "Convolution"
  bottom: "pool2/3x3_s2"
  top: "inception_3a/1x1"
  param {
    lr_mult: 1
    decay_mult: 1
  }
  param {
    lr_mult: 2
    decay_mult: 0
  }
  convolution_param {
    num_output: 64
    kernel_size: 1
    weight_filler {
      type: "xavier"
      std: 0.03
    }
    bias_filler {
      type: "constant"
      value: 0.2
    }
  }
}
layer {
  name: "inception_3a/relu_1x1"
  type: "ReLU"
  bottom: "inception_3a/1x1"
  top: "inception_3a/1x1"
}
layer {
  name: "inception_3a/3x3_reduce"
  type: "Convolution"
  bottom: "pool2/3x3_s2"
  top: "inception_3a/3x3_reduce"
  param {
    lr_mult: 1
    decay_mult: 1
  }
  param {
    lr_mult: 2
    decay_mult: 0
  }
  convolution_param {
    num_output: 96
    kernel_size: 1
    weight_filler {
      type: "xavier"
      std: 0.09
    }
    bias_filler {
      type: "constant"
      value: 0.2
    }
  }
}
layer {
  name: "inception_3a/relu_3x3_reduce"
  type: "ReLU"
  bottom: "inception_3a/3x3_reduce"
  top: "inception_3a/3x3_reduce"
}
layer {
  name: "inception_3a/3x3"
  type: "Convolution"
  bottom: "inception_3a/3x3_reduce"
  top: "inception_3a/3x3"
  param {
    lr_mult: 1
    decay_mult: 1
  }
  param {
    lr_mult: 2
    decay_mult: 0
  }
  convolution_param {
    num_output: 128
    pad: 1
    kernel_size: 3
    weight_filler {
      type: "xavier"
      std: 0.03
    }
    bias_filler {
      type: "constant"
      value: 0.2
    }
  }
}
layer {
  name: "inception_3a/relu_3x3"
  type: "ReLU"
  bottom: "inception_3a/3x3"
  top: "inception_3a/3x3"
}
layer {
  name: "inception_3a/5x5_reduce"
  type: "Convolution"
  bottom: "pool2/3x3_s2"
  top: "inception_3a/5x5_reduce"
  param {
    lr_mult: 1
    decay_mult: 1
  }
  param {
    lr_mult: 2
    decay_mult: 0
  }
  convolution_param {
    num_output: 16
    kernel_size: 1
    weight_filler {
      type: "xavier"
      std: 0.2
    }
    bias_filler {
      type: "constant"
      value: 0.2
    }
  }
}
layer {
  name: "inception_3a/relu_5x5_reduce"
  type: "ReLU"
  bottom: "inception_3a/5x5_reduce"
  top: "inception_3a/5x5_reduce"
}
layer {
  name: "inception_3a/5x5"
  type: "Convolution"
  bottom: "inception_3a/5x5_reduce"
  top: "inception_3a/5x5"
  param {
    lr_mult: 1
    decay_mult: 1
  }
  param {
    lr_mult: 2
    decay_mult: 0
  }
  convolution_param {
    num_output: 32
    pad: 2
    kernel_size: 5
    weight_filler {
      type: "xavier"
      std: 0.03
    }
    bias_filler {
      type: "constant"
      value: 0.2
    }
  }
}
layer {
  name: "inception_3a/relu_5x5"
  type: "ReLU"
  bottom: "inception_3a/5x5"
  top: "inception_3a/5x5"
}
layer {
  name: "inception_3a/pool"
  type: "Pooling"
  bottom: "pool2/3x3_s2"
  top: "inception_3a/pool"
  pooling_param {
    pool: MAX
    kernel_size: 3
    stride: 1
    pad: 1
  }
}
layer {
  name: "inception_3a/pool_proj"
  type: "Convolution"
  bottom: "inception_3a/pool"
  top: "inception_3a/pool_proj"
  param {
    lr_mult: 1
    decay_mult: 1
  }
  param {
    lr_mult: 2
    decay_mult: 0
  }
  convolution_param {
    num_output: 32
    kernel_size: 1
    weight_filler {
      type: "xavier"
      std: 0.1
    }
    bias_filler {
      type: "constant"
      value: 0.2
    }
  }
}
layer {
  name: "inception_3a/relu_pool_proj"
  type: "ReLU"
  bottom: "inception_3a/pool_proj"
  top: "inception_3a/pool_proj"
}
layer {
  name: "inception_3a/output"
  type: "Concat"
  bottom: "inception_3a/1x1"
  bottom: "inception_3a/3x3"
  bottom: "inception_3a/5x5"
  bottom: "inception_3a/pool_proj"
  top: "inception_3a/output"
}
layer {
  name: "inception_3b/1x1"
  type: "Convolution"
  bottom: "inception_3a/output"
  top: "inception_3b/1x1"
  param {
    lr_mult: 1
    decay_mult: 1
  }
  param {
    lr_mult: 2
    decay_mult: 0
  }
  convolution_param {
    num_output: 128
    kernel_size: 1
    weight_filler {
      type: "xavier"
      std: 0.03
    }
    bias_filler {
      type: "constant"
      value: 0.2
    }
  }
}
layer {
  name: "inception_3b/relu_1x1"
  type: "ReLU"
  bottom: "inception_3b/1x1"
  top: "inception_3b/1x1"
}
layer {
  name: "inception_3b/3x3_reduce"
  type: "Convolution"
  bottom: "inception_3a/output"
  top: "inception_3b/3x3_reduce"
  param {
    lr_mult: 1
    decay_mult: 1
  }
  param {
    lr_mult: 2
    decay_mult: 0
  }
  convolution_param {
    num_output: 128
    kernel_size: 1
    weight_filler {
      type: "xavier"
      std: 0.09
    }
    bias_filler {
      type: "constant"
      value: 0.2
    }
  }
}
layer {
  name: "inception_3b/relu_3x3_reduce"
  type: "ReLU"
  bottom: "inception_3b/3x3_reduce"
  top: "inception_3b/3x3_reduce"
}
layer {
  name: "inception_3b/3x3"
  type: "Convolution"
  bottom: "inception_3b/3x3_reduce"
  top: "inception_3b/3x3"
  param {
    lr_mult: 1
    decay_mult: 1
  }
  param {
    lr_mult: 2
    decay_mult: 0
  }
  convolution_param {
    num_output: 192
    pad: 1
    kernel_size: 3
    weight_filler {
      type: "xavier"
      std: 0.03
    }
    bias_filler {
      type: "constant"
      value: 0.2
    }
  }
}
layer {
  name: "inception_3b/relu_3x3"
  type: "ReLU"
  bottom: "inception_3b/3x3"
  top: "inception_3b/3x3"
}
layer {
  name: "inception_3b/5x5_reduce"
  type: "Convolution"
  bottom: "inception_3a/output"
  top: "inception_3b/5x5_reduce"
  param {
    lr_mult: 1
    decay_mult: 1
  }
  param {
    lr_mult: 2
    decay_mult: 0
  }
  convolution_param {
    num_output: 32
    kernel_size: 1
    weight_filler {
      type: "xavier"
      std: 0.2
    }
    bias_filler {
      type: "constant"
      value: 0.2
    }
  }
}
layer {
  name: "inception_3b/relu_5x5_reduce"
  type: "ReLU"
  bottom: "inception_3b/5x5_reduce"
  top: "inception_3b/5x5_reduce"
}
layer {
  name: "inception_3b/5x5"
  type: "Convolution"
  bottom: "inception_3b/5x5_reduce"
  top: "inception_3b/5x5"
  param {
    lr_mult: 1
    decay_mult: 1
  }
  param {
    lr_mult: 2
    decay_mult: 0
  }
  convolution_param {
    num_output: 96
    pad: 2
    kernel_size: 5
    weight_filler {
      type: "xavier"
      std: 0.03
    }
    bias_filler {
      type: "constant"
      value: 0.2
    }
  }
}
layer {
  name: "inception_3b/relu_5x5"
  type: "ReLU"
  bottom: "inception_3b/5x5"
  top: "inception_3b/5x5"
}
layer {
  name: "inception_3b/pool"
  type: "Pooling"
  bottom: "inception_3a/output"
  top: "inception_3b/pool"
  pooling_param {
    pool: MAX
    kernel_size: 3
    stride: 1
    pad: 1
  }
}
layer {
  name: "inception_3b/pool_proj"
  type: "Convolution"
  bottom: "inception_3b/pool"
  top: "inception_3b/pool_proj"
  param {
    lr_mult: 1
    decay_mult: 1
  }
  param {
    lr_mult: 2
    decay_mult: 0
  }
  convolution_param {
    num_output: 64
    kernel_size: 1
    weight_filler {
      type: "xavier"
      std: 0.1
    }
    bias_filler {
      type: "constant"
      value: 0.2
    }
  }
}
layer {
  name: "inception_3b/relu_pool_proj"
  type: "ReLU"
  bottom: "inception_3b/pool_proj"
  top: "inception_3b/pool_proj"
}
layer {
  name: "inception_3b/output"
  type: "Concat"
  bottom: "inception_3b/1x1"
  bottom: "inception_3b/3x3"
  bottom: "inception_3b/5x5"
  bottom: "inception_3b/pool_proj"
  top: "inception_3b/output"
}
layer {
  name: "pool3/3x3_s2"
  type: "Pooling"
  bottom: "inception_3b/output"
  top: "pool3/3x3_s2"
  pooling_param {
    pool: MAX
    kernel_size: 3
    stride: 2
  }
}
layer {
  name: "inception_4a/1x1"
  type: "Convolution"
  bottom: "pool3/3x3_s2"
  top: "inception_4a/1x1"
  param {
    lr_mult: 1
    decay_mult: 1
  }
  param {
    lr_mult: 2
    decay_mult: 0
  }
  convolution_param {
    num_output: 192
    kernel_size: 1
    weight_filler {
      type: "xavier"
      std: 0.03
    }
    bias_filler {
      type: "constant"
      value: 0.2
    }
  }
}
layer {
  name: "inception_4a/relu_1x1"
  type: "ReLU"
  bottom: "inception_4a/1x1"
  top: "inception_4a/1x1"
}
layer {
  name: "inception_4a/3x3_reduce"
  type: "Convolution"
  bottom: "pool3/3x3_s2"
  top: "inception_4a/3x3_reduce"
  param {
    lr_mult: 1
    decay_mult: 1
  }
  param {
    lr_mult: 2
    decay_mult: 0
  }
  convolution_param {
    num_output: 96
    kernel_size: 1
    weight_filler {
      type: "xavier"
      std: 0.09
    }
    bias_filler {
      type: "constant"
      value: 0.2
    }
  }
}
layer {
  name: "inception_4a/relu_3x3_reduce"
  type: "ReLU"
  bottom: "inception_4a/3x3_reduce"
  top: "inception_4a/3x3_reduce"
}
layer {
  name: "inception_4a/3x3"
  type: "Convolution"
  bottom: "inception_4a/3x3_reduce"
  top: "inception_4a/3x3"
  param {
    lr_mult: 1
    decay_mult: 1
  }
  param {
    lr_mult: 2
    decay_mult: 0
  }
  convolution_param {
    num_output: 208
    pad: 1
    kernel_size: 3
    weight_filler {
      type: "xavier"
      std: 0.03
    }
    bias_filler {
      type: "constant"
      value: 0.2
    }
  }
}
layer {
  name: "inception_4a/relu_3x3"
  type: "ReLU"
  bottom: "inception_4a/3x3"
  top: "inception_4a/3x3"
}
layer {
  name: "inception_4a/5x5_reduce"
  type: "Convolution"
  bottom: "pool3/3x3_s2"
  top: "inception_4a/5x5_reduce"
  param {
    lr_mult: 1
    decay_mult: 1
  }
  param {
    lr_mult: 2
    decay_mult: 0
  }
  convolution_param {
    num_output: 16
    kernel_size: 1
    weight_filler {
      type: "xavier"
      std: 0.2
    }
    bias_filler {
      type: "constant"
      value: 0.2
    }
  }
}
layer {
  name: "inception_4a/relu_5x5_reduce"
  type: "ReLU"
  bottom: "inception_4a/5x5_reduce"
  top: "inception_4a/5x5_reduce"
}
layer {
  name: "inception_4a/5x5"
  type: "Convolution"
  bottom: "inception_4a/5x5_reduce"
  top: "inception_4a/5x5"
  param {
    lr_mult: 1
    decay_mult: 1
  }
  param {
    lr_mult: 2
    decay_mult: 0
  }
  convolution_param {
    num_output: 48
    pad: 2
    kernel_size: 5
    weight_filler {
      type: "xavier"
      std: 0.03
    }
    bias_filler {
      type: "constant"
      value: 0.2
    }
  }
}
layer {
  name: "inception_4a/relu_5x5"
  type: "ReLU"
  bottom: "inception_4a/5x5"
  top: "inception_4a/5x5"
}
layer {
  name: "inception_4a/pool"
  type: "Pooling"
  bottom: "pool3/3x3_s2"
  top: "inception_4a/pool"
  pooling_param {
    pool: MAX
    kernel_size: 3
    stride: 1
    pad: 1
  }
}
layer {
  name: "inception_4a/pool_proj"
  type: "Convolution"
  bottom: "inception_4a/pool"
  top: "inception_4a/pool_proj"
  param {
    lr_mult: 1
    decay_mult: 1
  }
  param {
    lr_mult: 2
    decay_mult: 0
  }
  convolution_param {
    num_output: 64
    kernel_size: 1
    weight_filler {
      type: "xavier"
      std: 0.1
    }
    bias_filler {
      type: "constant"
      value: 0.2
    }
  }
}
layer {
  name: "inception_4a/relu_pool_proj"
  type: "ReLU"
  bottom: "inception_4a/pool_proj"
  top: "inception_4a/pool_proj"
}
layer {
  name: "inception_4a/output"
  type: "Concat"
  bottom: "inception_4a/1x1"
  bottom: "inception_4a/3x3"
  bottom: "inception_4a/5x5"
  bottom: "inception_4a/pool_proj"
  top: "inception_4a/output"
}
layer {
  name: "loss1/ave_pool"
  type: "Pooling"
  bottom: "inception_4a/output"
  top: "loss1/ave_pool"
  pooling_param {
    pool: AVE
    kernel_size: 5
    stride: 3
  }
}
layer {
  name: "loss1/conv"
  type: "Convolution"
  bottom: "loss1/ave_pool"
  top: "loss1/conv"
  param {
    lr_mult: 1
    decay_mult: 1
  }
  param {
    lr_mult: 2
    decay_mult: 0
  }
  convolution_param {
    num_output: 128
    kernel_size: 1
    weight_filler {
      type: "xavier"
      std: 0.08
    }
    bias_filler {
      type: "constant"
      value: 0.2
    }
  }
}
layer {
  name: "loss1/relu_conv"
  type: "ReLU"
  bottom: "loss1/conv"
  top: "loss1/conv"
}
layer {
  name: "loss1/fc"
  type: "InnerProduct"
  bottom: "loss1/conv"
  top: "loss1/fc"
  param {
    lr_mult: 1
    decay_mult: 1
  }
  param {
    lr_mult: 2
    decay_mult: 0
  }
  inner_product_param {
    num_output: 1024
    weight_filler {
      type: "xavier"
      std: 0.02
    }
    bias_filler {
      type: "constant"
      value: 0.2
    }
  }
}
layer {
  name: "loss1/relu_fc"
  type: "ReLU"
  bottom: "loss1/fc"
  top: "loss1/fc"
}
layer {
  name: "loss1/drop_fc"
  type: "Dropout"
  bottom: "loss1/fc"
  top: "loss1/fc"
  dropout_param {
    dropout_ratio: 0.7
  }
}
layer {
  name: "loss1/classifier_plantvillage"
  type: "InnerProduct"
  bottom: "loss1/fc"
  top: "loss1/classifier_plantvillage"
  param {
    lr_mult: 1
    decay_mult: 1
  }
  param {
    lr_mult: 2
    decay_mult: 0
  }
  inner_product_param {
    num_output: 38
    weight_filler {
      type: "xavier"
      std: 0.0009765625
    }
    bias_filler {
      type: "constant"
      value: 0
    }
  }
}
layer {
  name: "inception_4b/1x1"
  type: "Convolution"
  bottom: "inception_4a/output"
  top: "inception_4b/1x1"
  param {
    lr_mult: 1
    decay_mult: 1
  }
  param {
    lr_mult: 2
    decay_mult: 0
  }
  convolution_param {
    num_output: 160
    kernel_size: 1
    weight_filler {
      type: "xavier"
      std: 0.03
    }
    bias_filler {
      type: "constant"
      value: 0.2
    }
  }
}
layer {
  name: "inception_4b/relu_1x1"
…
I0403 04:03:43.036175 30575 layer_factory.hpp:77] Creating layer inception_4c/pool
I0403 04:03:43.036195 30575 net.cpp:91] Creating Layer inception_4c/pool
I0403 04:03:43.036212 30575 net.cpp:425] inception_4c/pool <- inception_4b/output_inception_4b/output_0_split_3
I0403 04:03:43.036231 30575 net.cpp:399] inception_4c/pool -> inception_4c/pool
I0403 04:03:43.036293 30575 net.cpp:141] Setting up inception_4c/pool
I0403 04:03:43.036316 30575 net.cpp:148] Top shape: 24 512 14 14 (2408448)
I0403 04:03:43.036331 30575 net.cpp:156] Memory required for data: 1060605120
I0403 04:03:43.036345 30575 layer_factory.hpp:77] Creating layer inception_4c/pool_proj
I0403 04:03:43.036368 30575 net.cpp:91] Creating Layer inception_4c/pool_proj
I0403 04:03:43.036386 30575 net.cpp:425] inception_4c/pool_proj <- inception_4c/pool
I0403 04:03:43.036406 30575 net.cpp:399] inception_4c/pool_proj -> inception_4c/pool_proj
I0403 04:03:43.036835 30575 net.cpp:141] Setting up inception_4c/pool_proj
I0403 04:03:43.036859 30575 net.cpp:148] Top shape: 24 64 14 14 (301056)
I0403 04:03:43.036875 30575 net.cpp:156] Memory required for data: 1061809344
I0403 04:03:43.036892 30575 layer_factory.hpp:77] Creating layer inception_4c/relu_pool_proj
I0403 04:03:43.036913 30575 net.cpp:91] Creating Layer inception_4c/relu_pool_proj
I0403 04:03:43.036931 30575 net.cpp:425] inception_4c/relu_pool_proj <- inception_4c/pool_proj
I0403 04:03:43.036949 30575 net.cpp:386] inception_4c/relu_pool_proj -> inception_4c/pool_proj (in-place)
I0403 04:03:43.036968 30575 net.cpp:141] Setting up inception_4c/relu_pool_proj
I0403 04:03:43.036986 30575 net.cpp:148] Top shape: 24 64 14 14 (301056)
I0403 04:03:43.037000 30575 net.cpp:156] Memory required for data: 1063013568
I0403 04:03:43.037014 30575 layer_factory.hpp:77] Creating layer inception_4c/output
I0403 04:03:43.037031 30575 net.cpp:91] Creating Layer inception_4c/output
I0403 04:03:43.037047 30575 net.cpp:425] inception_4c/output <- inception_4c/1x1
I0403 04:03:43.037063 30575 net.cpp:425] inception_4c/output <- inception_4c/3x3
I0403 04:03:43.037080 30575 net.cpp:425] inception_4c/output <- inception_4c/5x5
I0403 04:03:43.037094 30575 net.cpp:425] inception_4c/output <- inception_4c/pool_proj
I0403 04:03:43.037116 30575 net.cpp:399] inception_4c/output -> inception_4c/output
I0403 04:03:43.037158 30575 net.cpp:141] Setting up inception_4c/output
I0403 04:03:43.037184 30575 net.cpp:148] Top shape: 24 512 14 14 (2408448)
I0403 04:03:43.037199 30575 net.cpp:156] Memory required for data: 1072647360
I0403 04:03:43.037214 30575 layer_factory.hpp:77] Creating layer inception_4c/output_inception_4c/output_0_split
I0403 04:03:43.037232 30575 net.cpp:91] Creating Layer inception_4c/output_inception_4c/output_0_split
I0403 04:03:43.037248 30575 net.cpp:425] inception_4c/output_inception_4c/output_0_split <- inception_4c/output
I0403 04:03:43.037267 30575 net.cpp:399] inception_4c/output_inception_4c/output_0_split -> inception_4c/output_inception_4c/output_0_split_0
I0403 04:03:43.037287 30575 net.cpp:399] inception_4c/output_inception_4c/output_0_split -> inception_4c/output_inception_4c/output_0_split_1
I0403 04:03:43.037308 30575 net.cpp:399] inception_4c/output_inception_4c/output_0_split -> inception_4c/output_inception_4c/output_0_split_2
I0403 04:03:43.037328 30575 net.cpp:399] inception_4c/output_inception_4c/output_0_split -> inception_4c/output_inception_4c/output_0_split_3
I0403 04:03:43.037420 30575 net.cpp:141] Setting up inception_4c/output_inception_4c/output_0_split
I0403 04:03:43.037444 30575 net.cpp:148] Top shape: 24 512 14 14 (2408448)
I0403 04:03:43.037462 30575 net.cpp:148] Top shape: 24 512 14 14 (2408448)
I0403 04:03:43.037482 30575 net.cpp:148] Top shape: 24 512 14 14 (2408448)
I0403 04:03:43.037510 30575 net.cpp:148] Top shape: 24 512 14 14 (2408448)
I0403 04:03:43.037533 30575 net.cpp:156] Memory required for data: 1111182528
I0403 04:03:43.037554 30575 layer_factory.hpp:77] Creating layer inception_4d/1x1
I0403 04:03:43.037585 30575 net.cpp:91] Creating Layer inception_4d/1x1
I0403 04:03:43.037603 30575 net.cpp:425] inception_4d/1x1 <- inception_4c/output_inception_4c/output_0_split_0
I0403 04:03:43.037631 30575 net.cpp:399] inception_4d/1x1 -> inception_4d/1x1
I0403 04:03:43.038192 30575 net.cpp:141] Setting up inception_4d/1x1
I0403 04:03:43.038218 30575 net.cpp:148] Top shape: 24 112 14 14 (526848)
I0403 04:03:43.038233 30575 net.cpp:156] Memory required for data: 1113289920
I0403 04:03:43.038250 30575 layer_factory.hpp:77] Creating layer inception_4d/relu_1x1
I0403 04:03:43.038272 30575 net.cpp:91] Creating Layer inception_4d/relu_1x1
I0403 04:03:43.038290 30575 net.cpp:425] inception_4d/relu_1x1 <- inception_4d/1x1
I0403 04:03:43.038306 30575 net.cpp:386] inception_4d/relu_1x1 -> inception_4d/1x1 (in-place)
I0403 04:03:43.038326 30575 net.cpp:141] Setting up inception_4d/relu_1x1
I0403 04:03:43.038342 30575 net.cpp:148] Top shape: 24 112 14 14 (526848)
I0403 04:03:43.038357 30575 net.cpp:156] Memory required for data: 1115397312
I0403 04:03:43.038370 30575 layer_factory.hpp:77] Creating layer inception_4d/3x3_reduce
I0403 04:03:43.038394 30575 net.cpp:91] Creating Layer inception_4d/3x3_reduce
I0403 04:03:43.038411 30575 net.cpp:425] inception_4d/3x3_reduce <- inception_4c/output_inception_4c/output_0_split_1
I0403 04:03:43.038436 30575 net.cpp:399] inception_4d/3x3_reduce -> inception_4d/3x3_reduce
I0403 04:03:43.039104 30575 net.cpp:141] Setting up inception_4d/3x3_reduce
I0403 04:03:43.039129 30575 net.cpp:148] Top shape: 24 144 14 14 (677376)
I0403 04:03:43.039144 30575 net.cpp:156] Memory required for data: 1118106816
I0403 04:03:43.039161 30575 layer_factory.hpp:77] Creating layer inception_4d/relu_3x3_reduce
I0403 04:03:43.039180 30575 net.cpp:91] Creating Layer inception_4d/relu_3x3_reduce
I0403 04:03:43.039196 30575 net.cpp:425] inception_4d/relu_3x3_reduce <- inception_4d/3x3_reduce
I0403 04:03:43.039214 30575 net.cpp:386] inception_4d/relu_3x3_reduce -> inception_4d/3x3_reduce (in-place)
I0403 04:03:43.039233 30575 net.cpp:141] Setting up inception_4d/relu_3x3_reduce
I0403 04:03:43.039250 30575 net.cpp:148] Top shape: 24 144 14 14 (677376)
I0403 04:03:43.039266 30575 net.cpp:156] Memory required for data: 1120816320
I0403 04:03:43.039280 30575 layer_factory.hpp:77] Creating layer inception_4d/3x3
I0403 04:03:43.039317 30575 net.cpp:91] Creating Layer inception_4d/3x3
I0403 04:03:43.039343 30575 net.cpp:425] inception_4d/3x3 <- inception_4d/3x3_reduce
I0403 04:03:43.039374 30575 net.cpp:399] inception_4d/3x3 -> inception_4d/3x3
I0403 04:03:43.042549 30575 net.cpp:141] Setting up inception_4d/3x3
I0403 04:03:43.042578 30575 net.cpp:148] Top shape: 24 288 14 14 (1354752)
I0403 04:03:43.042595 30575 net.cpp:156] Memory required for data: 1126235328
I0403 04:03:43.042613 30575 layer_factory.hpp:77] Creating layer inception_4d/relu_3x3
I0403 04:03:43.042634 30575 net.cpp:91] Creating Layer inception_4d/relu_3x3
I0403 04:03:43.042650 30575 net.cpp:425] inception_4d/relu_3x3 <- inception_4d/3x3
I0403 04:03:43.042671 30575 net.cpp:386] inception_4d/relu_3x3 -> inception_4d/3x3 (in-place)
I0403 04:03:43.042721 30575 net.cpp:141] Setting up inception_4d/relu_3x3
I0403 04:03:43.042742 30575 net.cpp:148] Top shape: 24 288 14 14 (1354752)
I0403 04:03:43.042757 30575 net.cpp:156] Memory required for data: 1131654336
I0403 04:03:43.042770 30575 layer_factory.hpp:77] Creating layer inception_4d/5x5_reduce
I0403 04:03:43.042809 30575 net.cpp:91] Creating Layer inception_4d/5x5_reduce
I0403 04:03:43.042827 30575 net.cpp:425] inception_4d/5x5_reduce <- inception_4c/output_inception_4c/output_0_split_2
I0403 04:03:43.042847 30575 net.cpp:399] inception_4d/5x5_reduce -> inception_4d/5x5_reduce
I0403 04:03:43.043198 30575 net.cpp:141] Setting up inception_4d/5x5_reduce
I0403 04:03:43.043225 30575 net.cpp:148] Top shape: 24 32 14 14 (150528)
I0403 04:03:43.043241 30575 net.cpp:156] Memory required for data: 1132256448
I0403 04:03:43.043257 30575 layer_factory.hpp:77] Creating layer inception_4d/relu_5x5_reduce
I0403 04:03:43.043275 30575 net.cpp:91] Creating Layer inception_4d/relu_5x5_reduce
I0403 04:03:43.043292 30575 net.cpp:425] inception_4d/relu_5x5_reduce <- inception_4d/5x5_reduce
I0403 04:03:43.043309 30575 net.cpp:386] inception_4d/relu_5x5_reduce -> inception_4d/5x5_reduce (in-place)
I0403 04:03:43.043329 30575 net.cpp:141] Setting up inception_4d/relu_5x5_reduce
I0403 04:03:43.043346 30575 net.cpp:148] Top shape: 24 32 14 14 (150528)
I0403 04:03:43.043360 30575 net.cpp:156] Memory required for data: 1132858560
I0403 04:03:43.043375 30575 layer_factory.hpp:77] Creating layer inception_4d/5x5
I0403 04:03:43.043397 30575 net.cpp:91] Creating Layer inception_4d/5x5
I0403 04:03:43.043414 30575 net.cpp:425] inception_4d/5x5 <- inception_4d/5x5_reduce
I0403 04:03:43.043432 30575 net.cpp:399] inception_4d/5x5 -> inception_4d/5x5
I0403 04:03:43.044008 30575 net.cpp:141] Setting up inception_4d/5x5
I0403 04:03:43.044034 30575 net.cpp:148] Top shape: 24 64 14 14 (301056)
I0403 04:03:43.044049 30575 net.cpp:156] Memory required for data: 1134062784
I0403 04:03:43.044067 30575 layer_factory.hpp:77] Creating layer inception_4d/relu_5x5
I0403 04:03:43.044085 30575 net.cpp:91] Creating Layer inception_4d/relu_5x5
I0403 04:03:43.044102 30575 net.cpp:425] inception_4d/relu_5x5 <- inception_4d/5x5
I0403 04:03:43.044121 30575 net.cpp:386] inception_4d/relu_5x5 -> inception_4d/5x5 (in-place)
I0403 04:03:43.044142 30575 net.cpp:141] Setting up inception_4d/relu_5x5
I0403 04:03:43.044158 30575 net.cpp:148] Top shape: 24 64 14 14 (301056)
I0403 04:03:43.044173 30575 net.cpp:156] Memory required for data: 1135267008
I0403 04:03:43.044188 30575 layer_factory.hpp:77] Creating layer inception_4d/pool
I0403 04:03:43.044204 30575 net.cpp:91] Creating Layer inception_4d/pool
I0403 04:03:43.044220 30575 net.cpp:425] inception_4d/pool <- inception_4c/output_inception_4c/output_0_split_3
I0403 04:03:43.044240 30575 net.cpp:399] inception_4d/pool -> inception_4d/pool
I0403 04:03:43.044296 30575 net.cpp:141] Setting up inception_4d/pool
I0403 04:03:43.044320 30575 net.cpp:148] Top shape: 24 512 14 14 (2408448)
I0403 04:03:43.044335 30575 net.cpp:156] Memory required for data: 1144900800
I0403 04:03:43.044349 30575 layer_factory.hpp:77] Creating layer inception_4d/pool_proj
I0403 04:03:43.044373 30575 net.cpp:91] Creating Layer inception_4d/pool_proj
I0403 04:03:43.044390 30575 net.cpp:425] inception_4d/pool_proj <- inception_4d/pool
I0403 04:03:43.044411 30575 net.cpp:399] inception_4d/pool_proj -> inception_4d/pool_proj
I0403 04:03:43.044849 30575 net.cpp:141] Setting up inception_4d/pool_proj
I0403 04:03:43.044874 30575 net.cpp:148] Top shape: 24 64 14 14 (301056)
I0403 04:03:43.044890 30575 net.cpp:156] Memory required for data: 1146105024
I0403 04:03:43.044909 30575 layer_factory.hpp:77] Creating layer inception_4d/relu_pool_proj
I0403 04:03:43.044927 30575 net.cpp:91] Creating Layer inception_4d/relu_pool_proj
I0403 04:03:43.044944 30575 net.cpp:425] inception_4d/relu_pool_proj <- inception_4d/pool_proj
I0403 04:03:43.044961 30575 net.cpp:386] inception_4d/relu_pool_proj -> inception_4d/pool_proj (in-place)
I0403 04:03:43.044981 30575 net.cpp:141] Setting up inception_4d/relu_pool_proj
I0403 04:03:43.045023 30575 net.cpp:148] Top shape: 24 64 14 14 (301056)
I0403 04:03:43.045042 30575 net.cpp:156] Memory required for data: 1147309248
I0403 04:03:43.045122 30575 layer_factory.hpp:77] Creating layer inception_4d/output
I0403 04:03:43.045179 30575 net.cpp:91] Creating Layer inception_4d/output
I0403 04:03:43.045248 30575 net.cpp:425] inception_4d/output <- inception_4d/1x1
I0403 04:03:43.045317 30575 net.cpp:425] inception_4d/output <- inception_4d/3x3
I0403 04:03:43.045349 30575 net.cpp:425] inception_4d/output <- inception_4d/5x5
I0403 04:03:43.045369 30575 net.cpp:425] inception_4d/output <- inception_4d/pool_proj
I0403 04:03:43.045390 30575 net.cpp:399] inception_4d/output -> inception_4d/output
I0403 04:03:43.045434 30575 net.cpp:141] Setting up inception_4d/output
I0403 04:03:43.045459 30575 net.cpp:148] Top shape: 24 528 14 14 (2483712)
I0403 04:03:43.045474 30575 net.cpp:156] Memory required for data: 1157244096
I0403 04:03:43.045487 30575 layer_factory.hpp:77] Creating layer inception_4d/output_inception_4d/output_0_split
I0403 04:03:43.045511 30575 net.cpp:91] Creating Layer inception_4d/output_inception_4d/output_0_split
I0403 04:03:43.045528 30575 net.cpp:425] inception_4d/output_inception_4d/output_0_split <- inception_4d/output
I0403 04:03:43.045549 30575 net.cpp:399] inception_4d/output_inception_4d/output_0_split -> inception_4d/output_inception_4d/output_0_split_0
I0403 04:03:43.045570 30575 net.cpp:399] inception_4d/output_inception_4d/output_0_split -> inception_4d/output_inception_4d/output_0_split_1
I0403 04:03:43.045590 30575 net.cpp:399] inception_4d/output_inception_4d/output_0_split -> inception_4d/output_inception_4d/output_0_split_2
I0403 04:03:43.045611 30575 net.cpp:399] inception_4d/output_inception_4d/output_0_split -> inception_4d/output_inception_4d/output_0_split_3
I0403 04:03:43.045630 30575 net.cpp:399] inception_4d/output_inception_4d/output_0_split -> inception_4d/output_inception_4d/output_0_split_4
I0403 04:03:43.045717 30575 net.cpp:141] Setting up inception_4d/output_inception_4d/output_0_split
I0403 04:03:43.045740 30575 net.cpp:148] Top shape: 24 528 14 14 (2483712)
I0403 04:03:43.045758 30575 net.cpp:148] Top shape: 24 528 14 14 (2483712)
I0403 04:03:43.045773 30575 net.cpp:148] Top shape: 24 528 14 14 (2483712)
I0403 04:03:43.045788 30575 net.cpp:148] Top shape: 24 528 14 14 (2483712)
I0403 04:03:43.045802 30575 net.cpp:148] Top shape: 24 528 14 14 (2483712)
I0403 04:03:43.045816 30575 net.cpp:156] Memory required for data: 1206918336
I0403 04:03:43.045830 30575 layer_factory.hpp:77] Creating layer loss2/ave_pool
I0403 04:03:43.045850 30575 net.cpp:91] Creating Layer loss2/ave_pool
I0403 04:03:43.045866 30575 net.cpp:425] loss2/ave_pool <- inception_4d/output_inception_4d/output_0_split_0
I0403 04:03:43.045886 30575 net.cpp:399] loss2/ave_pool -> loss2/ave_pool
I0403 04:03:43.045928 30575 net.cpp:141] Setting up loss2/ave_pool
I0403 04:03:43.045950 30575 net.cpp:148] Top shape: 24 528 4 4 (202752)
I0403 04:03:43.045965 30575 net.cpp:156] Memory required for data: 1207729344
I0403 04:03:43.045979 30575 layer_factory.hpp:77] Creating layer loss2/conv
I0403 04:03:43.046003 30575 net.cpp:91] Creating Layer loss2/conv
I0403 04:03:43.046020 30575 net.cpp:425] loss2/conv <- loss2/ave_pool
I0403 04:03:43.046042 30575 net.cpp:399] loss2/conv -> loss2/conv
I0403 04:03:43.047185 30575 net.cpp:141] Setting up loss2/conv
I0403 04:03:43.047215 30575 net.cpp:148] Top shape: 24 128 4 4 (49152)
I0403 04:03:43.047232 30575 net.cpp:156] Memory required for data: 1207925952
I0403 04:03:43.047251 30575 layer_factory.hpp:77] Creating layer loss2/relu_conv
I0403 04:03:43.047271 30575 net.cpp:91] Creating Layer loss2/relu_conv
I0403 04:03:43.047287 30575 net.cpp:425] loss2/relu_conv <- loss2/conv
I0403 04:03:43.047305 30575 net.cpp:386] loss2/relu_conv -> loss2/conv (in-place)
I0403 04:03:43.047324 30575 net.cpp:141] Setting up loss2/relu_conv
I0403 04:03:43.047341 30575 net.cpp:148] Top shape: 24 128 4 4 (49152)
I0403 04:03:43.047355 30575 net.cpp:156] Memory required for data: 1208122560
I0403 04:03:43.047369 30575 layer_factory.hpp:77] Creating layer loss2/fc
I0403 04:03:43.047389 30575 net.cpp:91] Creating Layer loss2/fc
I0403 04:03:43.047405 30575 net.cpp:425] loss2/fc <- loss2/conv
I0403 04:03:43.047425 30575 net.cpp:399] loss2/fc -> loss2/fc
I0403 04:03:43.063665 30575 net.cpp:141] Setting up loss2/fc
I0403 04:03:43.063711 30575 net.cpp:148] Top shape: 24 1024 (24576)
I0403 04:03:43.063729 30575 net.cpp:156] Memory required for data: 1208220864
I0403 04:03:43.063748 30575 layer_factory.hpp:77] Creating layer loss2/relu_fc
I0403 04:03:43.063768 30575 net.cpp:91] Creating Layer loss2/relu_fc
I0403 04:03:43.063786 30575 net.cpp:425] loss2/relu_fc <- loss2/fc
I0403 04:03:43.063803 30575 net.cpp:386] loss2/relu_fc -> loss2/fc (in-place)
I0403 04:03:43.063823 30575 net.cpp:141] Setting up loss2/relu_fc
I0403 04:03:43.063840 30575 net.cpp:148] Top shape: 24 1024 (24576)
I0403 04:03:43.063854 30575 net.cpp:156] Memory required for data: 1208319168
I0403 04:03:43.063868 30575 layer_factory.hpp:77] Creating layer loss2/drop_fc
I0403 04:03:43.063886 30575 net.cpp:91] Creating Layer loss2/drop_fc
I0403 04:03:43.063901 30575 net.cpp:425] loss2/drop_fc <- loss2/fc
I0403 04:03:43.063920 30575 net.cpp:386] loss2/drop_fc -> loss2/fc (in-place)
I0403 04:03:43.063966 30575 net.cpp:141] Setting up loss2/drop_fc
I0403 04:03:43.063989 30575 net.cpp:148] Top shape: 24 1024 (24576)
I0403 04:03:43.064005 30575 net.cpp:156] Memory required for data: 1208417472
I0403 04:03:43.064019 30575 layer_factory.hpp:77] Creating layer loss2/classifier_plantvillage
I0403 04:03:43.064038 30575 net.cpp:91] Creating Layer loss2/classifier_plantvillage
I0403 04:03:43.064054 30575 net.cpp:425] loss2/classifier_plantvillage <- loss2/fc
I0403 04:03:43.064075 30575 net.cpp:399] loss2/classifier_plantvillage -> loss2/classifier_plantvillage
I0403 04:03:43.064419 30575 net.cpp:141] Setting up loss2/classifier_plantvillage
I0403 04:03:43.064442 30575 net.cpp:148] Top shape: 24 38 (912)
I0403 04:03:43.064457 30575 net.cpp:156] Memory required for data: 1208421120
I0403 04:03:43.064474 30575 layer_factory.hpp:77] Creating layer loss2/classifier_plantvillage_loss2/classifier_plantvillage_0_split
I0403 04:03:43.064496 30575 net.cpp:91] Creating Layer loss2/classifier_plantvillage_loss2/classifier_plantvillage_0_split
I0403 04:03:43.064522 30575 net.cpp:425] loss2/classifier_plantvillage_loss2/classifier_plantvillage_0_split <- loss2/classifier_plantvillage
I0403 04:03:43.064543 30575 net.cpp:399] loss2/classifier_plantvillage_loss2/classifier_plantvillage_0_split -> loss2/classifier_plantvillage_loss2/classifier_plantvillage_0_split_0
I0403 04:03:43.064563 30575 net.cpp:399] loss2/classifier_plantvillage_loss2/classifier_plantvillage_0_split -> loss2/classifier_plantvillage_loss2/classifier_plantvillage_0_split_1
I0403 04:03:43.064584 30575 net.cpp:399] loss2/classifier_plantvillage_loss2/classifier_plantvillage_0_split -> loss2/classifier_plantvillage_loss2/classifier_plantvillage_0_split_2
I0403 04:03:43.064651 30575 net.cpp:141] Setting up loss2/classifier_plantvillage_loss2/classifier_plantvillage_0_split
I0403 04:03:43.064672 30575 net.cpp:148] Top shape: 24 38 (912)
I0403 04:03:43.064688 30575 net.cpp:148] Top shape: 24 38 (912)
I0403 04:03:43.064704 30575 net.cpp:148] Top shape: 24 38 (912)
I0403 04:03:43.064718 30575 net.cpp:156] Memory required for data: 1208432064
I0403 04:03:43.064733 30575 layer_factory.hpp:77] Creating layer inception_4e/1x1
I0403 04:03:43.064759 30575 net.cpp:91] Creating Layer inception_4e/1x1
I0403 04:03:43.064776 30575 net.cpp:425] inception_4e/1x1 <- inception_4d/output_inception_4d/output_0_split_1
I0403 04:03:43.064795 30575 net.cpp:399] inception_4e/1x1 -> inception_4e/1x1
I0403 04:03:43.065821 30575 net.cpp:141] Setting up inception_4e/1x1
I0403 04:03:43.065846 30575 net.cpp:148] Top shape: 24 256 14 14 (1204224)
I0403 04:03:43.065861 30575 net.cpp:156] Memory required for data: 1213248960
I0403 04:03:43.065878 30575 layer_factory.hpp:77] Creating layer inception_4e/relu_1x1
I0403 04:03:43.065897 30575 net.cpp:91] Creating Layer inception_4e/relu_1x1
I0403 04:03:43.065913 30575 net.cpp:425] inception_4e/relu_1x1 <- inception_4e/1x1
I0403 04:03:43.065933 30575 net.cpp:386] inception_4e/relu_1x1 -> inception_4e/1x1 (in-place)
I0403 04:03:43.065953 30575 net.cpp:141] Setting up inception_4e/relu_1x1
I0403 04:03:43.065991 30575 net.cpp:148] Top shape: 24 256 14 14 (1204224)
I0403 04:03:43.066006 30575 net.cpp:156] Memory required for data: 1218065856
I0403 04:03:43.066020 30575 layer_factory.hpp:77] Creating layer inception_4e/3x3_reduce
I0403 04:03:43.066043 30575 net.cpp:91] Creating Layer inception_4e/3x3_reduce
I0403 04:03:43.066061 30575 net.cpp:425] inception_4e/3x3_reduce <- inception_4d/output_inception_4d/output_0_split_2
I0403 04:03:43.066079 30575 net.cpp:399] inception_4e/3x3_reduce -> inception_4e/3x3_reduce
I0403 04:03:43.067314 30575 net.cpp:141] Setting up inception_4e/3x3_reduce
I0403 04:03:43.067342 30575 net.cpp:148] Top shape: 24 160 14 14 (752640)
I0403 04:03:43.067358 30575 net.cpp:156] Memory required for data: 1221076416
I0403 04:03:43.067375 30575 layer_factory.hpp:77] Creating layer inception_4e/relu_3x3_reduce
I0403 04:03:43.067394 30575 net.cpp:91] Creating Layer inception_4e/relu_3x3_reduce
I0403 04:03:43.067409 30575 net.cpp:425] inception_4e/relu_3x3_reduce <- inception_4e/3x3_reduce
I0403 04:03:43.067426 30575 net.cpp:386] inception_4e/relu_3x3_reduce -> inception_4e/3x3_reduce (in-place)
I0403 04:03:43.067445 30575 net.cpp:141] Setting up inception_4e/relu_3x3_reduce
I0403 04:03:43.067461 30575 net.cpp:148] Top shape: 24 160 14 14 (752640)
I0403 04:03:43.067476 30575 net.cpp:156] Memory required for data: 1224086976
I0403 04:03:43.067489 30575 layer_factory.hpp:77] Creating layer inception_4e/3x3
I0403 04:03:43.067517 30575 net.cpp:91] Creating Layer inception_4e/3x3
I0403 04:03:43.067534 30575 net.cpp:425] inception_4e/3x3 <- inception_4e/3x3_reduce
I0403 04:03:43.067562 30575 net.cpp:399] inception_4e/3x3 -> inception_4e/3x3
I0403 04:03:43.071228 30575 net.cpp:141] Setting up inception_4e/3x3
I0403 04:03:43.071259 30575 net.cpp:148] Top shape: 24 320 14 14 (1505280)
I0403 04:03:43.071274 30575 net.cpp:156] Memory required for data: 1230108096
I0403 04:03:43.071293 30575 layer_factory.hpp:77] Creating layer inception_4e/relu_3x3
I0403 04:03:43.071311 30575 net.cpp:91] Creating Layer inception_4e/relu_3x3
I0403 04:03:43.071327 30575 net.cpp:425] inception_4e/relu_3x3 <- inception_4e/3x3
I0403 04:03:43.071344 30575 net.cpp:386] inception_4e/relu_3x3 -> inception_4e/3x3 (in-place)
I0403 04:03:43.071364 30575 net.cpp:141] Setting up inception_4e/relu_3x3
I0403 04:03:43.071382 30575 net.cpp:148] Top shape: 24 320 14 14 (1505280)
I0403 04:03:43.071398 30575 net.cpp:156] Memory required for data: 1236129216
I0403 04:03:43.071413 30575 layer_factory.hpp:77] Creating layer inception_4e/5x5_reduce
I0403 04:03:43.071436 30575 net.cpp:91] Creating Layer inception_4e/5x5_reduce
I0403 04:03:43.071454 30575 net.cpp:425] inception_4e/5x5_reduce <- inception_4d/output_inception_4d/output_0_split_3
I0403 04:03:43.071472 30575 net.cpp:399] inception_4e/5x5_reduce -> inception_4e/5x5_reduce
I0403 04:03:43.072314 30575 net.cpp:141] Setting up inception_4e/5x5_reduce
I0403 04:03:43.072341 30575 net.cpp:148] Top shape: 24 32 14 14 (150528)
I0403 04:03:43.072357 30575 net.cpp:156] Memory required for data: 1236731328
I0403 04:03:43.072374 30575 layer_factory.hpp:77] Creating layer inception_4e/relu_5x5_reduce
I0403 04:03:43.072393 30575 net.cpp:91] Creating Layer inception_4e/relu_5x5_reduce
I0403 04:03:43.072408 30575 net.cpp:425] inception_4e/relu_5x5_reduce <- inception_4e/5x5_reduce
I0403 04:03:43.072428 30575 net.cpp:386] inception_4e/relu_5x5_reduce -> inception_4e/5x5_reduce (in-place)
I0403 04:03:43.072448 30575 net.cpp:141] Setting up inception_4e/relu_5x5_reduce
I0403 04:03:43.072465 30575 net.cpp:148] Top shape: 24 32 14 14 (150528)
I0403 04:03:43.072479 30575 net.cpp:156] Memory required for data: 1237333440
I0403 04:03:43.072494 30575 layer_factory.hpp:77] Creating layer inception_4e/5x5
I0403 04:03:43.072536 30575 net.cpp:91] Creating Layer inception_4e/5x5
I0403 04:03:43.072556 30575 net.cpp:425] inception_4e/5x5 <- inception_4e/5x5_reduce
I0403 04:03:43.072578 30575 net.cpp:399] inception_4e/5x5 -> inception_4e/5x5
I0403 04:03:43.073323 30575 net.cpp:141] Setting up inception_4e/5x5
I0403 04:03:43.073361 30575 net.cpp:148] Top shape: 24 128 14 14 (602112)
I0403 04:03:43.073377 30575 net.cpp:156] Memory required for data: 1239741888
I0403 04:03:43.073395 30575 layer_factory.hpp:77] Creating layer inception_4e/relu_5x5
I0403 04:03:43.073412 30575 net.cpp:91] Creating Layer inception_4e/relu_5x5
I0403 04:03:43.073428 30575 net.cpp:425] inception_4e/relu_5x5 <- inception_4e/5x5
I0403 04:03:43.073446 30575 net.cpp:386] inception_4e/relu_5x5 -> inception_4e/5x5 (in-place)
I0403 04:03:43.073463 30575 net.cpp:141] Setting up inception_4e/relu_5x5
I0403 04:03:43.073480 30575 net.cpp:148] Top shape: 24 128 14 14 (602112)
I0403 04:03:43.073494 30575 net.cpp:156] Memory required for data: 1242150336
I0403 04:03:43.073511 30575 layer_factory.hpp:77] Creating layer inception_4e/pool
I0403 04:03:43.073531 30575 net.cpp:91] Creating Layer inception_4e/pool
I0403 04:03:43.073547 30575 net.cpp:425] inception_4e/pool <- inception_4d/output_inception_4d/output_0_split_4
I0403 04:03:43.073567 30575 net.cpp:399] inception_4e/pool -> inception_4e/pool
I0403 04:03:43.073621 30575 net.cpp:141] Setting up inception_4e/pool
I0403 04:03:43.073643 30575 net.cpp:148] Top shape: 24 528 14 14 (2483712)
I0403 04:03:43.073659 30575 net.cpp:156] Memory required for data: 1252085184
I0403 04:03:43.073678 30575 layer_factory.hpp:77] Creating layer inception_4e/pool_proj
I0403 04:03:43.073709 30575 net.cpp:91] Creating Layer inception_4e/pool_proj
I0403 04:03:43.073734 30575 net.cpp:425] inception_4e/pool_proj <- inception_4e/pool
I0403 04:03:43.073761 30575 net.cpp:399] inception_4e/pool_proj -> inception_4e/pool_proj
I0403 04:03:43.074328 30575 net.cpp:141] Setting up inception_4e/pool_proj
I0403 04:03:43.074353 30575 net.cpp:148] Top shape: 24 128 14 14 (602112)
I0403 04:03:43.074368 30575 net.cpp:156] Memory required for data: 1254493632
I0403 04:03:43.074385 30575 layer_factory.hpp:77] Creating layer inception_4e/relu_pool_proj
I0403 04:03:43.074405 30575 net.cpp:91] Creating Layer inception_4e/relu_pool_proj
I0403 04:03:43.074421 30575 net.cpp:425] inception_4e/relu_pool_proj <- inception_4e/pool_proj
I0403 04:03:43.074439 30575 net.cpp:386] inception_4e/relu_pool_proj -> inception_4e/pool_proj (in-place)
I0403 04:03:43.074457 30575 net.cpp:141] Setting up inception_4e/relu_pool_proj
I0403 04:03:43.074475 30575 net.cpp:148] Top shape: 24 128 14 14 (602112)
I0403 04:03:43.074487 30575 net.cpp:156] Memory required for data: 1256902080
I0403 04:03:43.074501 30575 layer_factory.hpp:77] Creating layer inception_4e/output
I0403 04:03:43.074545 30575 net.cpp:91] Creating Layer inception_4e/output
I0403 04:03:43.074563 30575 net.cpp:425] inception_4e/output <- inception_4e/1x1
I0403 04:03:43.074592 30575 net.cpp:425] inception_4e/output <- inception_4e/3x3
I0403 04:03:43.074609 30575 net.cpp:425] inception_4e/output <- inception_4e/5x5
I0403 04:03:43.074625 30575 net.cpp:425] inception_4e/output <- inception_4e/pool_proj
I0403 04:03:43.074643 30575 net.cpp:399] inception_4e/output -> inception_4e/output
I0403 04:03:43.074683 30575 net.cpp:141] Setting up inception_4e/output
I0403 04:03:43.074710 30575 net.cpp:148] Top shape: 24 832 14 14 (3913728)
I0403 04:03:43.074728 30575 net.cpp:156] Memory required for data: 1272556992
I0403 04:03:43.074743 30575 layer_factory.hpp:77] Creating layer pool4/3x3_s2
I0403 04:03:43.074761 30575 net.cpp:91] Creating Layer pool4/3x3_s2
I0403 04:03:43.074777 30575 net.cpp:425] pool4/3x3_s2 <- inception_4e/output
I0403 04:03:43.074798 30575 net.cpp:399] pool4/3x3_s2 -> pool4/3x3_s2
I0403 04:03:43.074851 30575 net.cpp:141] Setting up pool4/3x3_s2
I0403 04:03:43.074885 30575 net.cpp:148] Top shape: 24 832 7 7 (978432)
I0403 04:03:43.074899 30575 net.cpp:156] Memory required for data: 1276470720
I0403 04:03:43.074913 30575 layer_factory.hpp:77] Creating layer pool4/3x3_s2_pool4/3x3_s2_0_split
I0403 04:03:43.074934 30575 net.cpp:91] Creating Layer pool4/3x3_s2_pool4/3x3_s2_0_split
I0403 04:03:43.074951 30575 net.cpp:425] pool4/3x3_s2_pool4/3x3_s2_0_split <- pool4/3x3_s2
I0403 04:03:43.074982 30575 net.cpp:399] pool4/3x3_s2_pool4/3x3_s2_0_split -> pool4/3x3_s2_pool4/3x3_s2_0_split_0
I0403 04:03:43.075003 30575 net.cpp:399] pool4/3x3_s2_pool4/3x3_s2_0_split -> pool4/3x3_s2_pool4/3x3_s2_0_split_1
I0403 04:03:43.075024 30575 net.cpp:399] pool4/3x3_s2_pool4/3x3_s2_0_split -> pool4/3x3_s2_pool4/3x3_s2_0_split_2
I0403 04:03:43.075043 30575 net.cpp:399] pool4/3x3_s2_pool4/3x3_s2_0_split -> pool4/3x3_s2_pool4/3x3_s2_0_split_3
I0403 04:03:43.075110 30575 net.cpp:141] Setting up pool4/3x3_s2_pool4/3x3_s2_0_split
I0403 04:03:43.075134 30575 net.cpp:148] Top shape: 24 832 7 7 (978432)
I0403 04:03:43.075150 30575 net.cpp:148] Top shape: 24 832 7 7 (978432)
I0403 04:03:43.075165 30575 net.cpp:148] Top shape: 24 832 7 7 (978432)
I0403 04:03:43.075181 30575 net.cpp:148] Top shape: 24 832 7 7 (978432)
I0403 04:03:43.075194 30575 net.cpp:156] Memory required for data: 1292125632
I0403 04:03:43.075209 30575 layer_factory.hpp:77] Creating layer inception_5a/1x1
I0403 04:03:43.075234 30575 net.cpp:91] Creating Layer inception_5a/1x1
I0403 04:03:43.075253 30575 net.cpp:425] inception_5a/1x1 <- pool4/3x3_s2_pool4/3x3_s2_0_split_0
I0403 04:03:43.075275 30575 net.cpp:399] inception_5a/1x1 -> inception_5a/1x1
I0403 04:03:43.077172 30575 net.cpp:141] Setting up inception_5a/1x1
I0403 04:03:43.077199 30575 net.cpp:148] Top shape: 24 256 7 7 (301056)
I0403 04:03:43.077215 30575 net.cpp:156] Memory required for data: 1293329856
I0403 04:03:43.077234 30575 layer_factory.hpp:77] Creating layer inception_5a/relu_1x1
I0403 04:03:43.077253 30575 net.cpp:91] Creating Layer inception_5a/relu_1x1
I0403 04:03:43.077270 30575 net.cpp:425] inception_5a/relu_1x1 <- inception_5a/1x1
I0403 04:03:43.077291 30575 net.cpp:386] inception_5a/relu_1x1 -> inception_5a/1x1 (in-place)
I0403 04:03:43.077311 30575 net.cpp:141] Setting up inception_5a/relu_1x1
I0403 04:03:43.077328 30575 net.cpp:148] Top shape: 24 256 7 7 (301056)
I0403 04:03:43.077343 30575 net.cpp:156] Memory required for data: 1294534080
I0403 04:03:43.077358 30575 layer_factory.hpp:77] Creating layer inception_5a/3x3_reduce
I0403 04:03:43.077378 30575 net.cpp:91] Creating Layer inception_5a/3x3_reduce
I0403 04:03:43.077395 30575 net.cpp:425] inception_5a/3x3_reduce <- pool4/3x3_s2_pool4/3x3_s2_0_split_1
I0403 04:03:43.077416 30575 net.cpp:399] inception_5a/3x3_reduce -> inception_5a/3x3_reduce
I0403 04:03:43.078919 30575 net.cpp:141] Setting up inception_5a/3x3_reduce
I0403 04:03:43.078948 30575 net.cpp:148] Top shape: 24 160 7 7 (188160)
I0403 04:03:43.078963 30575 net.cpp:156] Memory required for data: 1295286720
I0403 04:03:43.078982 30575 layer_factory.hpp:77] Creating layer inception_5a/relu_3x3_reduce
I0403 04:03:43.079001 30575 net.cpp:91] Creating Layer inception_5a/relu_3x3_reduce
I0403 04:03:43.079018 30575 net.cpp:425] inception_5a/relu_3x3_reduce <- inception_5a/3x3_reduce
I0403 04:03:43.079038 30575 net.cpp:386] inception_5a/relu_3x3_reduce -> inception_5a/3x3_reduce (in-place)
I0403 04:03:43.079061 30575 net.cpp:141] Setting up inception_5a/relu_3x3_reduce
I0403 04:03:43.079078 30575 net.cpp:148] Top shape: 24 160 7 7 (188160)
I0403 04:03:43.079093 30575 net.cpp:156] Memory required for data: 1296039360
I0403 04:03:43.079107 30575 layer_factory.hpp:77] Creating layer inception_5a/3x3
I0403 04:03:43.079129 30575 net.cpp:91] Creating Layer inception_5a/3x3
I0403 04:03:43.079145 30575 net.cpp:425] inception_5a/3x3 <- inception_5a/3x3_reduce
I0403 04:03:43.079167 30575 net.cpp:399] inception_5a/3x3 -> inception_5a/3x3
I0403 04:03:43.084252 30575 net.cpp:141] Setting up inception_5a/3x3
I0403 04:03:43.084290 30575 net.cpp:148] Top shape: 24 320 7 7 (376320)
I0403 04:03:43.084307 30575 net.cpp:156] Memory required for data: 1297544640
I0403 04:03:43.084326 30575 layer_factory.hpp:77] Creating layer inception_5a/relu_3x3
I0403 04:03:43.084347 30575 net.cpp:91] Creating Layer inception_5a/relu_3x3
I0403 04:03:43.084363 30575 net.cpp:425] inception_5a/relu_3x3 <- inception_5a/3x3
I0403 04:03:43.084389 30575 net.cpp:386] inception_5a/relu_3x3 -> inception_5a/3x3 (in-place)
I0403 04:03:43.084427 30575 net.cpp:141] Setting up inception_5a/relu_3x3
I0403 04:03:43.084447 30575 net.cpp:148] Top shape: 24 320 7 7 (376320)
I0403 04:03:43.084463 30575 net.cpp:156] Memory required for data: 1299049920
I0403 04:03:43.084478 30575 layer_factory.hpp:77] Creating layer inception_5a/5x5_reduce
I0403 04:03:43.084499 30575 net.cpp:91] Creating Layer inception_5a/5x5_reduce
I0403 04:03:43.084530 30575 net.cpp:425] inception_5a/5x5_reduce <- pool4/3x3_s2_pool4/3x3_s2_0_split_2
I0403 04:03:43.084555 30575 net.cpp:399] inception_5a/5x5_reduce -> inception_5a/5x5_reduce
I0403 04:03:43.084939 30575 net.cpp:141] Setting up inception_5a/5x5_reduce
I0403 04:03:43.084964 30575 net.cpp:148] Top shape: 24 32 7 7 (37632)
I0403 04:03:43.084980 30575 net.cpp:156] Memory required for data: 1299200448
I0403 04:03:43.084998 30575 layer_factory.hpp:77] Creating layer inception_5a/relu_5x5_reduce
I0403 04:03:43.085017 30575 net.cpp:91] Creating Layer inception_5a/relu_5x5_reduce
I0403 04:03:43.085033 30575 net.cpp:425] inception_5a/relu_5x5_reduce <- inception_5a/5x5_reduce
I0403 04:03:43.085052 30575 net.cpp:386] inception_5a/relu_5x5_reduce -> inception_5a/5x5_reduce (in-place)
I0403 04:03:43.085072 30575 net.cpp:141] Setting up inception_5a/relu_5x5_reduce
I0403 04:03:43.085088 30575 net.cpp:148] Top shape: 24 32 7 7 (37632)
I0403 04:03:43.085103 30575 net.cpp:156] Memory required for data: 1299350976
I0403 04:03:43.085119 30575 layer_factory.hpp:77] Creating layer inception_5a/5x5
I0403 04:03:43.085144 30575 net.cpp:91] Creating Layer inception_5a/5x5
I0403 04:03:43.085161 30575 net.cpp:425] inception_5a/5x5 <- inception_5a/5x5_reduce
I0403 04:03:43.085186 30575 net.cpp:399] inception_5a/5x5 -> inception_5a/5x5
I0403 04:03:43.085999 30575 net.cpp:141] Setting up inception_5a/5x5
I0403 04:03:43.086024 30575 net.cpp:148] Top shape: 24 128 7 7 (150528)
I0403 04:03:43.086040 30575 net.cpp:156] Memory required for data: 1299953088
I0403 04:03:43.086060 30575 layer_factory.hpp:77] Creating layer inception_5a/relu_5x5
I0403 04:03:43.086082 30575 net.cpp:91] Creating Layer inception_5a/relu_5x5
I0403 04:03:43.086099 30575 net.cpp:425] inception_5a/relu_5x5 <- inception_5a/5x5
I0403 04:03:43.086117 30575 net.cpp:386] inception_5a/relu_5x5 -> inception_5a/5x5 (in-place)
I0403 04:03:43.086136 30575 net.cpp:141] Setting up inception_5a/relu_5x5
I0403 04:03:43.086153 30575 net.cpp:148] Top shape: 24 128 7 7 (150528)
I0403 04:03:43.086169 30575 net.cpp:156] Memory required for data: 1300555200
I0403 04:03:43.086182 30575 layer_factory.hpp:77] Creating layer inception_5a/pool
I0403 04:03:43.086200 30575 net.cpp:91] Creating Layer inception_5a/pool
I0403 04:03:43.086217 30575 net.cpp:425] inception_5a/pool <- pool4/3x3_s2_pool4/3x3_s2_0_split_3
I0403 04:03:43.086237 30575 net.cpp:399] inception_5a/pool -> inception_5a/pool
I0403 04:03:43.086290 30575 net.cpp:141] Setting up inception_5a/pool
I0403 04:03:43.086315 30575 net.cpp:148] Top shape: 24 832 7 7 (978432)
I0403 04:03:43.086330 30575 net.cpp:156] Memory required for data: 1304468928
I0403 04:03:43.086345 30575 layer_factory.hpp:77] Creating layer inception_5a/pool_proj
I0403 04:03:43.086367 30575 net.cpp:91] Creating Layer inception_5a/pool_proj
I0403 04:03:43.086385 30575 net.cpp:425] inception_5a/pool_proj <- inception_5a/pool
I0403 04:03:43.086405 30575 net.cpp:399] inception_5a/pool_proj -> inception_5a/pool_proj
I0403 04:03:43.087738 30575 net.cpp:141] Setting up inception_5a/pool_proj
I0403 04:03:43.087767 30575 net.cpp:148] Top shape: 24 128 7 7 (150528)
I0403 04:03:43.087784 30575 net.cpp:156] Memory required for data: 1305071040
I0403 04:03:43.087801 30575 layer_factory.hpp:77] Creating layer inception_5a/relu_pool_proj
I0403 04:03:43.087822 30575 net.cpp:91] Creating Layer inception_5a/relu_pool_proj
I0403 04:03:43.087839 30575 net.cpp:425] inception_5a/relu_pool_proj <- inception_5a/pool_proj
I0403 04:03:43.087857 30575 net.cpp:386] inception_5a/relu_pool_proj -> inception_5a/pool_proj (in-place)
I0403 04:03:43.087877 30575 net.cpp:141] Setting up inception_5a/relu_pool_proj
I0403 04:03:43.087909 30575 net.cpp:148] Top shape: 24 128 7 7 (150528)
I0403 04:03:43.087925 30575 net.cpp:156] Memory required for data: 1305673152
I0403 04:03:43.087939 30575 layer_factory.hpp:77] Creating layer inception_5a/output
I0403 04:03:43.087960 30575 net.cpp:91] Creating Layer inception_5a/output
I0403 04:03:43.087975 30575 net.cpp:425] inception_5a/output <- inception_5a/1x1
I0403 04:03:43.087992 30575 net.cpp:425] inception_5a/output <- inception_5a/3x3
I0403 04:03:43.088008 30575 net.cpp:425] inception_5a/output <- inception_5a/5x5
I0403 04:03:43.088024 30575 net.cpp:425] inception_5a/output <- inception_5a/pool_proj
I0403 04:03:43.088042 30575 net.cpp:399] inception_5a/output -> inception_5a/output
I0403 04:03:43.088083 30575 net.cpp:141] Setting up inception_5a/output
I0403 04:03:43.088109 30575 net.cpp:148] Top shape: 24 832 7 7 (978432)
I0403 04:03:43.088124 30575 net.cpp:156] Memory required for data: 1309586880
I0403 04:03:43.088138 30575 layer_factory.hpp:77] Creating layer inception_5a/output_inception_5a/output_0_split
I0403 04:03:43.088156 30575 net.cpp:91] Creating Layer inception_5a/output_inception_5a/output_0_split
I0403 04:03:43.088172 30575 net.cpp:425] inception_5a/output_inception_5a/output_0_split <- inception_5a/output
I0403 04:03:43.088192 30575 net.cpp:399] inception_5a/output_inception_5a/output_0_split -> inception_5a/output_inception_5a/output_0_split_0
I0403 04:03:43.088214 30575 net.cpp:399] inception_5a/output_inception_5a/output_0_split -> inception_5a/output_inception_5a/output_0_split_1
I0403 04:03:43.088250 30575 net.cpp:399] inception_5a/output_inception_5a/output_0_split -> inception_5a/output_inception_5a/output_0_split_2
I0403 04:03:43.088274 30575 net.cpp:399] inception_5a/output_inception_5a/output_0_split -> inception_5a/output_inception_5a/output_0_split_3
I0403 04:03:43.088342 30575 net.cpp:141] Setting up inception_5a/output_inception_5a/output_0_split
I0403 04:03:43.088367 30575 net.cpp:148] Top shape: 24 832 7 7 (978432)
I0403 04:03:43.088385 30575 net.cpp:148] Top shape: 24 832 7 7 (978432)
I0403 04:03:43.088402 30575 net.cpp:148] Top shape: 24 832 7 7 (978432)
I0403 04:03:43.088418 30575 net.cpp:148] Top shape: 24 832 7 7 (978432)
I0403 04:03:43.088433 30575 net.cpp:156] Memory required for data: 1325241792
I0403 04:03:43.088449 30575 layer_factory.hpp:77] Creating layer inception_5b/1x1
I0403 04:03:43.088470 30575 net.cpp:91] Creating Layer inception_5b/1x1
I0403 04:03:43.088487 30575 net.cpp:425] inception_5b/1x1 <- inception_5a/output_inception_5a/output_0_split_0
I0403 04:03:43.088513 30575 net.cpp:399] inception_5b/1x1 -> inception_5b/1x1
I0403 04:03:43.091096 30575 net.cpp:141] Setting up inception_5b/1x1
I0403 04:03:43.091130 30575 net.cpp:148] Top shape: 24 384 7 7 (451584)
I0403 04:03:43.091152 30575 net.cpp:156] Memory required for data: 1327048128
I0403 04:03:43.091171 30575 layer_factory.hpp:77] Creating layer inception_5b/relu_1x1
I0403 04:03:43.091192 30575 net.cpp:91] Creating Layer inception_5b/relu_1x1
I0403 04:03:43.091209 30575 net.cpp:425] inception_5b/relu_1x1 <- inception_5b/1x1
I0403 04:03:43.091228 30575 net.cpp:386] inception_5b/relu_1x1 -> inception_5b/1x1 (in-place)
I0403 04:03:43.091253 30575 net.cpp:141] Setting up inception_5b/relu_1x1
I0403 04:03:43.091269 30575 net.cpp:148] Top shape: 24 384 7 7 (451584)
I0403 04:03:43.091284 30575 net.cpp:156] Memory required for data: 1328854464
I0403 04:03:43.091300 30575 layer_factory.hpp:77] Creating layer inception_5b/3x3_reduce
I0403 04:03:43.091322 30575 net.cpp:91] Creating Layer inception_5b/3x3_reduce
I0403 04:03:43.091341 30575 net.cpp:425] inception_5b/3x3_reduce <- inception_5a/output_inception_5a/output_0_split_1
I0403 04:03:43.091364 30575 net.cpp:399] inception_5b/3x3_reduce -> inception_5b/3x3_reduce
I0403 04:03:43.092985 30575 net.cpp:141] Setting up inception_5b/3x3_reduce
I0403 04:03:43.093019 30575 net.cpp:148] Top shape: 24 192 7 7 (225792)
I0403 04:03:43.093039 30575 net.cpp:156] Memory required for data: 1329757632
I0403 04:03:43.093058 30575 layer_factory.hpp:77] Creating layer inception_5b/relu_3x3_reduce
I0403 04:03:43.093092 30575 net.cpp:91] Creating Layer inception_5b/relu_3x3_reduce
I0403 04:03:43.093111 30575 net.cpp:425] inception_5b/relu_3x3_reduce <- inception_5b/3x3_reduce
I0403 04:03:43.093127 30575 net.cpp:386] inception_5b/relu_3x3_reduce -> inception_5b/3x3_reduce (in-place)
I0403 04:03:43.093147 30575 net.cpp:141] Setting up inception_5b/relu_3x3_reduce
I0403 04:03:43.093164 30575 net.cpp:148] Top shape: 24 192 7 7 (225792)
I0403 04:03:43.093178 30575 net.cpp:156] Memory required for data: 1330660800
I0403 04:03:43.093192 30575 layer_factory.hpp:77] Creating layer inception_5b/3x3
I0403 04:03:43.093216 30575 net.cpp:91] Creating Layer inception_5b/3x3
I0403 04:03:43.093233 30575 net.cpp:425] inception_5b/3x3 <- inception_5b/3x3_reduce
I0403 04:03:43.093255 30575 net.cpp:399] inception_5b/3x3 -> inception_5b/3x3
I0403 04:03:43.098458 30575 net.cpp:141] Setting up inception_5b/3x3
I0403 04:03:43.098485 30575 net.cpp:148] Top shape: 24 384 7 7 (451584)
I0403 04:03:43.098500 30575 net.cpp:156] Memory required for data: 1332467136
I0403 04:03:43.098523 30575 layer_factory.hpp:77] Creating layer inception_5b/relu_3x3
I0403 04:03:43.098542 30575 net.cpp:91] Creating Layer inception_5b/relu_3x3
I0403 04:03:43.098557 30575 net.cpp:425] inception_5b/relu_3x3 <- inception_5b/3x3
I0403 04:03:43.098577 30575 net.cpp:386] inception_5b/relu_3x3 -> inception_5b/3x3 (in-place)
I0403 04:03:43.098598 30575 net.cpp:141] Setting up inception_5b/relu_3x3
I0403 04:03:43.098613 30575 net.cpp:148] Top shape: 24 384 7 7 (451584)
I0403 04:03:43.098628 30575 net.cpp:156] Memory required for data: 1334273472
I0403 04:03:43.098641 30575 layer_factory.hpp:77] Creating layer inception_5b/5x5_reduce
I0403 04:03:43.098664 30575 net.cpp:91] Creating Layer inception_5b/5x5_reduce
I0403 04:03:43.098681 30575 net.cpp:425] inception_5b/5x5_reduce <- inception_5a/output_inception_5a/output_0_split_2
I0403 04:03:43.098701 30575 net.cpp:399] inception_5b/5x5_reduce -> inception_5b/5x5_reduce
I0403 04:03:43.099647 30575 net.cpp:141] Setting up inception_5b/5x5_reduce
I0403 04:03:43.099675 30575 net.cpp:148] Top shape: 24 48 7 7 (56448)
I0403 04:03:43.099691 30575 net.cpp:156] Memory required for data: 1334499264
I0403 04:03:43.099709 30575 layer_factory.hpp:77] Creating layer inception_5b/relu_5x5_reduce
I0403 04:03:43.099726 30575 net.cpp:91] Creating Layer inception_5b/relu_5x5_reduce
I0403 04:03:43.099742 30575 net.cpp:425] inception_5b/relu_5x5_reduce <- inception_5b/5x5_reduce
I0403 04:03:43.099761 30575 net.cpp:386] inception_5b/relu_5x5_reduce -> inception_5b/5x5_reduce (in-place)
I0403 04:03:43.099781 30575 net.cpp:141] Setting up inception_5b/relu_5x5_reduce
I0403 04:03:43.099798 30575 net.cpp:148] Top shape: 24 48 7 7 (56448)
I0403 04:03:43.099812 30575 net.cpp:156] Memory required for data: 1334725056
I0403 04:03:43.099827 30575 layer_factory.hpp:77] Creating layer inception_5b/5x5
I0403 04:03:43.099849 30575 net.cpp:91] Creating Layer inception_5b/5x5
I0403 04:03:43.099866 30575 net.cpp:425] inception_5b/5x5 <- inception_5b/5x5_reduce
I0403 04:03:43.099885 30575 net.cpp:399] inception_5b/5x5 -> inception_5b/5x5
I0403 04:03:43.100942 30575 net.cpp:141] Setting up inception_5b/5x5
I0403 04:03:43.100966 30575 net.cpp:148] Top shape: 24 128 7 7 (150528)
I0403 04:03:43.100981 30575 net.cpp:156] Memory required for data: 1335327168
I0403 04:03:43.100998 30575 layer_factory.hpp:77] Creating layer inception_5b/relu_5x5
I0403 04:03:43.101016 30575 net.cpp:91] Creating Layer inception_5b/relu_5x5
I0403 04:03:43.101032 30575 net.cpp:425] inception_5b/relu_5x5 <- inception_5b/5x5
I0403 04:03:43.101052 30575 net.cpp:386] inception_5b/relu_5x5 -> inception_5b/5x5 (in-place)
I0403 04:03:43.101070 30575 net.cpp:141] Setting up inception_5b/relu_5x5
I0403 04:03:43.101089 30575 net.cpp:148] Top shape: 24 128 7 7 (150528)
I0403 04:03:43.101102 30575 net.cpp:156] Memory required for data: 1335929280
I0403 04:03:43.101115 30575 layer_factory.hpp:77] Creating layer inception_5b/pool
I0403 04:03:43.101132 30575 net.cpp:91] Creating Layer inception_5b/pool
I0403 04:03:43.101162 30575 net.cpp:425] inception_5b/pool <- inception_5a/output_inception_5a/output_0_split_3
I0403 04:03:43.101182 30575 net.cpp:399] inception_5b/pool -> inception_5b/pool
I0403 04:03:43.101238 30575 net.cpp:141] Setting up inception_5b/pool
I0403 04:03:43.101260 30575 net.cpp:148] Top shape: 24 832 7 7 (978432)
I0403 04:03:43.101277 30575 net.cpp:156] Memory required for data: 1339843008
I0403 04:03:43.101291 30575 layer_factory.hpp:77] Creating layer inception_5b/pool_proj
I0403 04:03:43.101315 30575 net.cpp:91] Creating Layer inception_5b/pool_proj
I0403 04:03:43.101332 30575 net.cpp:425] inception_5b/pool_proj <- inception_5b/pool
I0403 04:03:43.101353 30575 net.cpp:399] inception_5b/pool_proj -> inception_5b/pool_proj
I0403 04:03:43.102733 30575 net.cpp:141] Setting up inception_5b/pool_proj
I0403 04:03:43.102762 30575 net.cpp:148] Top shape: 24 128 7 7 (150528)
I0403 04:03:43.102779 30575 net.cpp:156] Memory required for data: 1340445120
I0403 04:03:43.102799 30575 layer_factory.hpp:77] Creating layer inception_5b/relu_pool_proj
I0403 04:03:43.102821 30575 net.cpp:91] Creating Layer inception_5b/relu_pool_proj
I0403 04:03:43.102839 30575 net.cpp:425] inception_5b/relu_pool_proj <- inception_5b/pool_proj
I0403 04:03:43.102869 30575 net.cpp:386] inception_5b/relu_pool_proj -> inception_5b/pool_proj (in-place)
I0403 04:03:43.102890 30575 net.cpp:141] Setting up inception_5b/relu_pool_proj
I0403 04:03:43.102907 30575 net.cpp:148] Top shape: 24 128 7 7 (150528)
I0403 04:03:43.102922 30575 net.cpp:156] Memory required for data: 1341047232
I0403 04:03:43.102936 30575 layer_factory.hpp:77] Creating layer inception_5b/output
I0403 04:03:43.102954 30575 net.cpp:91] Creating Layer inception_5b/output
I0403 04:03:43.102970 30575 net.cpp:425] inception_5b/output <- inception_5b/1x1
I0403 04:03:43.102987 30575 net.cpp:425] inception_5b/output <- inception_5b/3x3
I0403 04:03:43.103003 30575 net.cpp:425] inception_5b/output <- inception_5b/5x5
I0403 04:03:43.103020 30575 net.cpp:425] inception_5b/output <- inception_5b/pool_proj
I0403 04:03:43.103039 30575 net.cpp:399] inception_5b/output -> inception_5b/output
I0403 04:03:43.103080 30575 net.cpp:141] Setting up inception_5b/output
I0403 04:03:43.103104 30575 net.cpp:148] Top shape: 24 1024 7 7 (1204224)
I0403 04:03:43.103122 30575 net.cpp:156] Memory required for data: 1345864128
I0403 04:03:43.103137 30575 layer_factory.hpp:77] Creating layer pool5/7x7_s1
I0403 04:03:43.103157 30575 net.cpp:91] Creating Layer pool5/7x7_s1
I0403 04:03:43.103173 30575 net.cpp:425] pool5/7x7_s1 <- inception_5b/output
I0403 04:03:43.103191 30575 net.cpp:399] pool5/7x7_s1 -> pool5/7x7_s1
I0403 04:03:43.103232 30575 net.cpp:141] Setting up pool5/7x7_s1
I0403 04:03:43.103256 30575 net.cpp:148] Top shape: 24 1024 1 1 (24576)
I0403 04:03:43.103271 30575 net.cpp:156] Memory required for data: 1345962432
I0403 04:03:43.103286 30575 layer_factory.hpp:77] Creating layer pool5/drop_7x7_s1
I0403 04:03:43.103305 30575 net.cpp:91] Creating Layer pool5/drop_7x7_s1
I0403 04:03:43.103322 30575 net.cpp:425] pool5/drop_7x7_s1 <- pool5/7x7_s1
I0403 04:03:43.103340 30575 net.cpp:386] pool5/drop_7x7_s1 -> pool5/7x7_s1 (in-place)
I0403 04:03:43.103379 30575 net.cpp:141] Setting up pool5/drop_7x7_s1
I0403 04:03:43.103404 30575 net.cpp:148] Top shape: 24 1024 1 1 (24576)
I0403 04:03:43.103420 30575 net.cpp:156] Memory required for data: 1346060736
I0403 04:03:43.103435 30575 layer_factory.hpp:77] Creating layer loss3/classifier_plantvillage
I0403 04:03:43.103454 30575 net.cpp:91] Creating Layer loss3/classifier_plantvillage
I0403 04:03:43.103471 30575 net.cpp:425] loss3/classifier_plantvillage <- pool5/7x7_s1
I0403 04:03:43.103492 30575 net.cpp:399] loss3/classifier_plantvillage -> loss3/classifier_plantvillage
I0403 04:03:43.103823 30575 net.cpp:141] Setting up loss3/classifier_plantvillage
I0403 04:03:43.103850 30575 net.cpp:148] Top shape: 24 38 (912)
I0403 04:03:43.103866 30575 net.cpp:156] Memory required for data: 1346064384
I0403 04:03:43.103884 30575 layer_factory.hpp:77] Creating layer loss3/classifier_plantvillage_loss3/classifier_plantvillage_0_split
I0403 04:03:43.103919 30575 net.cpp:91] Creating Layer loss3/classifier_plantvillage_loss3/classifier_plantvillage_0_split
I0403 04:03:43.103936 30575 net.cpp:425] loss3/classifier_plantvillage_loss3/classifier_plantvillage_0_split <- loss3/classifier_plantvillage
I0403 04:03:43.103953 30575 net.cpp:399] loss3/classifier_plantvillage_loss3/classifier_plantvillage_0_split -> loss3/classifier_plantvillage_loss3/classifier_plantvillage_0_split_0
I0403 04:03:43.103974 30575 net.cpp:399] loss3/classifier_plantvillage_loss3/classifier_plantvillage_0_split -> loss3/classifier_plantvillage_loss3/classifier_plantvillage_0_split_1
I0403 04:03:43.103994 30575 net.cpp:399] loss3/classifier_plantvillage_loss3/classifier_plantvillage_0_split -> loss3/classifier_plantvillage_loss3/classifier_plantvillage_0_split_2
I0403 04:03:43.104059 30575 net.cpp:141] Setting up loss3/classifier_plantvillage_loss3/classifier_plantvillage_0_split
I0403 04:03:43.104082 30575 net.cpp:148] Top shape: 24 38 (912)
I0403 04:03:43.104099 30575 net.cpp:148] Top shape: 24 38 (912)
I0403 04:03:43.104115 30575 net.cpp:148] Top shape: 24 38 (912)
I0403 04:03:43.104128 30575 net.cpp:156] Memory required for data: 1346075328
I0403 04:03:43.104143 30575 layer_factory.hpp:77] Creating layer loss1/loss
I0403 04:03:43.104161 30575 net.cpp:91] Creating Layer loss1/loss
I0403 04:03:43.104177 30575 net.cpp:425] loss1/loss <- loss1/classifier_plantvillage_loss1/classifier_plantvillage_0_split_0
I0403 04:03:43.104194 30575 net.cpp:425] loss1/loss <- label_data_1_split_0
…
