…
I0403 15:13:57.760300 31322 net.cpp:313] The NetState phase (1) differed from the phase (0) specified by a rule in layer data
I0403 15:13:57.761502 31322 net.cpp:49] Initializing net from parameters: 
state {
  phase: TEST
}
layer {
  name: "data"
  type: "Data"
  top: "data"
  top: "label"
  include {
    phase: TEST
  }
  transform_param {
    mirror: false
    crop_size: 224
    mean_file: "/home/mohanty/data/final_dataset/lmdb/color-20-80/mean.binaryproto"
  }
  data_param {
    source: "/home/mohanty/data/final_dataset/lmdb/color-20-80/test_db"
    batch_size: 24
    backend: LMDB
  }
}
layer {
  name: "conv1/7x7_s2"
  type: "Convolution"
  bottom: "data"
  top: "conv1/7x7_s2"
  param {
    lr_mult: 1
    decay_mult: 1
  }
  param {
    lr_mult: 2
    decay_mult: 0
  }
  convolution_param {
    num_output: 64
    pad: 3
    kernel_size: 7
    stride: 2
    weight_filler {
      type: "xavier"
      std: 0.1
    }
    bias_filler {
      type: "constant"
      value: 0.2
    }
  }
}
layer {
  name: "conv1/relu_7x7"
  type: "ReLU"
  bottom: "conv1/7x7_s2"
  top: "conv1/7x7_s2"
}
layer {
  name: "pool1/3x3_s2"
  type: "Pooling"
  bottom: "conv1/7x7_s2"
  top: "pool1/3x3_s2"
  pooling_param {
    pool: MAX
    kernel_size: 3
    stride: 2
  }
}
layer {
  name: "pool1/norm1"
  type: "LRN"
  bottom: "pool1/3x3_s2"
  top: "pool1/norm1"
  lrn_param {
    local_size: 5
    alpha: 0.0001
    beta: 0.75
  }
}
layer {
  name: "conv2/3x3_reduce"
  type: "Convolution"
  bottom: "pool1/norm1"
  top: "conv2/3x3_reduce"
  param {
    lr_mult: 1
    decay_mult: 1
  }
  param {
    lr_mult: 2
    decay_mult: 0
  }
  convolution_param {
    num_output: 64
    kernel_size: 1
    weight_filler {
      type: "xavier"
      std: 0.1
    }
    bias_filler {
      type: "constant"
      value: 0.2
    }
  }
}
layer {
  name: "conv2/relu_3x3_reduce"
  type: "ReLU"
  bottom: "conv2/3x3_reduce"
  top: "conv2/3x3_reduce"
}
layer {
  name: "conv2/3x3"
  type: "Convolution"
  bottom: "conv2/3x3_reduce"
  top: "conv2/3x3"
  param {
    lr_mult: 1
    decay_mult: 1
  }
  param {
    lr_mult: 2
    decay_mult: 0
  }
  convolution_param {
    num_output: 192
    pad: 1
    kernel_size: 3
    weight_filler {
      type: "xavier"
      std: 0.03
    }
    bias_filler {
      type: "constant"
      value: 0.2
    }
  }
}
layer {
  name: "conv2/relu_3x3"
  type: "ReLU"
  bottom: "conv2/3x3"
  top: "conv2/3x3"
}
layer {
  name: "conv2/norm2"
  type: "LRN"
  bottom: "conv2/3x3"
  top: "conv2/norm2"
  lrn_param {
    local_size: 5
    alpha: 0.0001
    beta: 0.75
  }
}
layer {
  name: "pool2/3x3_s2"
  type: "Pooling"
  bottom: "conv2/norm2"
  top: "pool2/3x3_s2"
  pooling_param {
    pool: MAX
    kernel_size: 3
    stride: 2
  }
}
layer {
  name: "inception_3a/1x1"
  type: "Convolution"
  bottom: "pool2/3x3_s2"
  top: "inception_3a/1x1"
  param {
    lr_mult: 1
    decay_mult: 1
  }
  param {
    lr_mult: 2
    decay_mult: 0
  }
  convolution_param {
    num_output: 64
    kernel_size: 1
    weight_filler {
      type: "xavier"
      std: 0.03
    }
    bias_filler {
      type: "constant"
      value: 0.2
    }
  }
}
layer {
  name: "inception_3a/relu_1x1"
  type: "ReLU"
  bottom: "inception_3a/1x1"
  top: "inception_3a/1x1"
}
layer {
  name: "inception_3a/3x3_reduce"
  type: "Convolution"
  bottom: "pool2/3x3_s2"
  top: "inception_3a/3x3_reduce"
  param {
    lr_mult: 1
    decay_mult: 1
  }
  param {
    lr_mult: 2
    decay_mult: 0
  }
  convolution_param {
    num_output: 96
    kernel_size: 1
    weight_filler {
      type: "xavier"
      std: 0.09
    }
    bias_filler {
      type: "constant"
      value: 0.2
    }
  }
}
layer {
  name: "inception_3a/relu_3x3_reduce"
  type: "ReLU"
  bottom: "inception_3a/3x3_reduce"
  top: "inception_3a/3x3_reduce"
}
layer {
  name: "inception_3a/3x3"
  type: "Convolution"
  bottom: "inception_3a/3x3_reduce"
  top: "inception_3a/3x3"
  param {
    lr_mult: 1
    decay_mult: 1
  }
  param {
    lr_mult: 2
    decay_mult: 0
  }
  convolution_param {
    num_output: 128
    pad: 1
    kernel_size: 3
    weight_filler {
      type: "xavier"
      std: 0.03
    }
    bias_filler {
      type: "constant"
      value: 0.2
    }
  }
}
layer {
  name: "inception_3a/relu_3x3"
  type: "ReLU"
  bottom: "inception_3a/3x3"
  top: "inception_3a/3x3"
}
layer {
  name: "inception_3a/5x5_reduce"
  type: "Convolution"
  bottom: "pool2/3x3_s2"
  top: "inception_3a/5x5_reduce"
  param {
    lr_mult: 1
    decay_mult: 1
  }
  param {
    lr_mult: 2
    decay_mult: 0
  }
  convolution_param {
    num_output: 16
    kernel_size: 1
    weight_filler {
      type: "xavier"
      std: 0.2
    }
    bias_filler {
      type: "constant"
      value: 0.2
    }
  }
}
layer {
  name: "inception_3a/relu_5x5_reduce"
  type: "ReLU"
  bottom: "inception_3a/5x5_reduce"
  top: "inception_3a/5x5_reduce"
}
layer {
  name: "inception_3a/5x5"
  type: "Convolution"
  bottom: "inception_3a/5x5_reduce"
  top: "inception_3a/5x5"
  param {
    lr_mult: 1
    decay_mult: 1
  }
  param {
    lr_mult: 2
    decay_mult: 0
  }
  convolution_param {
    num_output: 32
    pad: 2
    kernel_size: 5
    weight_filler {
      type: "xavier"
      std: 0.03
    }
    bias_filler {
      type: "constant"
      value: 0.2
    }
  }
}
layer {
  name: "inception_3a/relu_5x5"
  type: "ReLU"
  bottom: "inception_3a/5x5"
  top: "inception_3a/5x5"
}
layer {
  name: "inception_3a/pool"
  type: "Pooling"
  bottom: "pool2/3x3_s2"
  top: "inception_3a/pool"
  pooling_param {
    pool: MAX
    kernel_size: 3
    stride: 1
    pad: 1
  }
}
layer {
  name: "inception_3a/pool_proj"
  type: "Convolution"
  bottom: "inception_3a/pool"
  top: "inception_3a/pool_proj"
  param {
    lr_mult: 1
    decay_mult: 1
  }
  param {
    lr_mult: 2
    decay_mult: 0
  }
  convolution_param {
    num_output: 32
    kernel_size: 1
    weight_filler {
      type: "xavier"
      std: 0.1
    }
    bias_filler {
      type: "constant"
      value: 0.2
    }
  }
}
layer {
  name: "inception_3a/relu_pool_proj"
  type: "ReLU"
  bottom: "inception_3a/pool_proj"
  top: "inception_3a/pool_proj"
}
layer {
  name: "inception_3a/output"
  type: "Concat"
  bottom: "inception_3a/1x1"
  bottom: "inception_3a/3x3"
  bottom: "inception_3a/5x5"
  bottom: "inception_3a/pool_proj"
  top: "inception_3a/output"
}
layer {
  name: "inception_3b/1x1"
  type: "Convolution"
  bottom: "inception_3a/output"
  top: "inception_3b/1x1"
  param {
    lr_mult: 1
    decay_mult: 1
  }
  param {
    lr_mult: 2
    decay_mult: 0
  }
  convolution_param {
    num_output: 128
    kernel_size: 1
    weight_filler {
      type: "xavier"
      std: 0.03
    }
    bias_filler {
      type: "constant"
      value: 0.2
    }
  }
}
layer {
  name: "inception_3b/relu_1x1"
  type: "ReLU"
  bottom: "inception_3b/1x1"
  top: "inception_3b/1x1"
}
layer {
  name: "inception_3b/3x3_reduce"
  type: "Convolution"
  bottom: "inception_3a/output"
  top: "inception_3b/3x3_reduce"
  param {
    lr_mult: 1
    decay_mult: 1
  }
  param {
    lr_mult: 2
    decay_mult: 0
  }
  convolution_param {
    num_output: 128
    kernel_size: 1
    weight_filler {
      type: "xavier"
      std: 0.09
    }
    bias_filler {
      type: "constant"
      value: 0.2
    }
  }
}
layer {
  name: "inception_3b/relu_3x3_reduce"
  type: "ReLU"
  bottom: "inception_3b/3x3_reduce"
  top: "inception_3b/3x3_reduce"
}
layer {
  name: "inception_3b/3x3"
  type: "Convolution"
  bottom: "inception_3b/3x3_reduce"
  top: "inception_3b/3x3"
  param {
    lr_mult: 1
    decay_mult: 1
  }
  param {
    lr_mult: 2
    decay_mult: 0
  }
  convolution_param {
    num_output: 192
    pad: 1
    kernel_size: 3
    weight_filler {
      type: "xavier"
      std: 0.03
    }
    bias_filler {
      type: "constant"
      value: 0.2
    }
  }
}
layer {
  name: "inception_3b/relu_3x3"
  type: "ReLU"
  bottom: "inception_3b/3x3"
  top: "inception_3b/3x3"
}
layer {
  name: "inception_3b/5x5_reduce"
  type: "Convolution"
  bottom: "inception_3a/output"
  top: "inception_3b/5x5_reduce"
  param {
    lr_mult: 1
    decay_mult: 1
  }
  param {
    lr_mult: 2
    decay_mult: 0
  }
  convolution_param {
    num_output: 32
    kernel_size: 1
    weight_filler {
      type: "xavier"
      std: 0.2
    }
    bias_filler {
      type: "constant"
      value: 0.2
    }
  }
}
layer {
  name: "inception_3b/relu_5x5_reduce"
  type: "ReLU"
  bottom: "inception_3b/5x5_reduce"
  top: "inception_3b/5x5_reduce"
}
layer {
  name: "inception_3b/5x5"
  type: "Convolution"
  bottom: "inception_3b/5x5_reduce"
  top: "inception_3b/5x5"
  param {
    lr_mult: 1
    decay_mult: 1
  }
  param {
    lr_mult: 2
    decay_mult: 0
  }
  convolution_param {
    num_output: 96
    pad: 2
    kernel_size: 5
    weight_filler {
      type: "xavier"
      std: 0.03
    }
    bias_filler {
      type: "constant"
      value: 0.2
    }
  }
}
layer {
  name: "inception_3b/relu_5x5"
  type: "ReLU"
  bottom: "inception_3b/5x5"
  top: "inception_3b/5x5"
}
layer {
  name: "inception_3b/pool"
  type: "Pooling"
  bottom: "inception_3a/output"
  top: "inception_3b/pool"
  pooling_param {
    pool: MAX
    kernel_size: 3
    stride: 1
    pad: 1
  }
}
layer {
  name: "inception_3b/pool_proj"
  type: "Convolution"
  bottom: "inception_3b/pool"
  top: "inception_3b/pool_proj"
  param {
    lr_mult: 1
    decay_mult: 1
  }
  param {
    lr_mult: 2
    decay_mult: 0
  }
  convolution_param {
    num_output: 64
    kernel_size: 1
    weight_filler {
      type: "xavier"
      std: 0.1
    }
    bias_filler {
      type: "constant"
      value: 0.2
    }
  }
}
layer {
  name: "inception_3b/relu_pool_proj"
  type: "ReLU"
  bottom: "inception_3b/pool_proj"
  top: "inception_3b/pool_proj"
}
layer {
  name: "inception_3b/output"
  type: "Concat"
  bottom: "inception_3b/1x1"
  bottom: "inception_3b/3x3"
  bottom: "inception_3b/5x5"
  bottom: "inception_3b/pool_proj"
  top: "inception_3b/output"
}
layer {
  name: "pool3/3x3_s2"
  type: "Pooling"
  bottom: "inception_3b/output"
  top: "pool3/3x3_s2"
  pooling_param {
    pool: MAX
    kernel_size: 3
    stride: 2
  }
}
layer {
  name: "inception_4a/1x1"
  type: "Convolution"
  bottom: "pool3/3x3_s2"
  top: "inception_4a/1x1"
  param {
    lr_mult: 1
    decay_mult: 1
  }
  param {
    lr_mult: 2
    decay_mult: 0
  }
  convolution_param {
    num_output: 192
    kernel_size: 1
    weight_filler {
      type: "xavier"
      std: 0.03
    }
    bias_filler {
      type: "constant"
      value: 0.2
    }
  }
}
layer {
  name: "inception_4a/relu_1x1"
  type: "ReLU"
  bottom: "inception_4a/1x1"
  top: "inception_4a/1x1"
}
layer {
  name: "inception_4a/3x3_reduce"
  type: "Convolution"
  bottom: "pool3/3x3_s2"
  top: "inception_4a/3x3_reduce"
  param {
    lr_mult: 1
    decay_mult: 1
  }
  param {
    lr_mult: 2
    decay_mult: 0
  }
  convolution_param {
    num_output: 96
    kernel_size: 1
    weight_filler {
      type: "xavier"
      std: 0.09
    }
    bias_filler {
      type: "constant"
      value: 0.2
    }
  }
}
layer {
  name: "inception_4a/relu_3x3_reduce"
  type: "ReLU"
  bottom: "inception_4a/3x3_reduce"
  top: "inception_4a/3x3_reduce"
}
layer {
  name: "inception_4a/3x3"
  type: "Convolution"
  bottom: "inception_4a/3x3_reduce"
  top: "inception_4a/3x3"
  param {
    lr_mult: 1
    decay_mult: 1
  }
  param {
    lr_mult: 2
    decay_mult: 0
  }
  convolution_param {
    num_output: 208
    pad: 1
    kernel_size: 3
    weight_filler {
      type: "xavier"
      std: 0.03
    }
    bias_filler {
      type: "constant"
      value: 0.2
    }
  }
}
layer {
  name: "inception_4a/relu_3x3"
  type: "ReLU"
  bottom: "inception_4a/3x3"
  top: "inception_4a/3x3"
}
layer {
  name: "inception_4a/5x5_reduce"
  type: "Convolution"
  bottom: "pool3/3x3_s2"
  top: "inception_4a/5x5_reduce"
  param {
    lr_mult: 1
    decay_mult: 1
  }
  param {
    lr_mult: 2
    decay_mult: 0
  }
  convolution_param {
    num_output: 16
    kernel_size: 1
    weight_filler {
      type: "xavier"
      std: 0.2
    }
    bias_filler {
      type: "constant"
      value: 0.2
    }
  }
}
layer {
  name: "inception_4a/relu_5x5_reduce"
  type: "ReLU"
  bottom: "inception_4a/5x5_reduce"
  top: "inception_4a/5x5_reduce"
}
layer {
  name: "inception_4a/5x5"
  type: "Convolution"
  bottom: "inception_4a/5x5_reduce"
  top: "inception_4a/5x5"
  param {
    lr_mult: 1
    decay_mult: 1
  }
  param {
    lr_mult: 2
    decay_mult: 0
  }
  convolution_param {
    num_output: 48
    pad: 2
    kernel_size: 5
    weight_filler {
      type: "xavier"
      std: 0.03
    }
    bias_filler {
      type: "constant"
      value: 0.2
    }
  }
}
layer {
  name: "inception_4a/relu_5x5"
  type: "ReLU"
  bottom: "inception_4a/5x5"
  top: "inception_4a/5x5"
}
layer {
  name: "inception_4a/pool"
  type: "Pooling"
  bottom: "pool3/3x3_s2"
  top: "inception_4a/pool"
  pooling_param {
    pool: MAX
    kernel_size: 3
    stride: 1
    pad: 1
  }
}
layer {
  name: "inception_4a/pool_proj"
  type: "Convolution"
  bottom: "inception_4a/pool"
  top: "inception_4a/pool_proj"
  param {
    lr_mult: 1
    decay_mult: 1
  }
  param {
    lr_mult: 2
    decay_mult: 0
  }
  convolution_param {
    num_output: 64
    kernel_size: 1
    weight_filler {
      type: "xavier"
      std: 0.1
    }
    bias_filler {
      type: "constant"
      value: 0.2
    }
  }
}
layer {
  name: "inception_4a/relu_pool_proj"
  type: "ReLU"
  bottom: "inception_4a/pool_proj"
  top: "inception_4a/pool_proj"
}
layer {
  name: "inception_4a/output"
  type: "Concat"
  bottom: "inception_4a/1x1"
  bottom: "inception_4a/3x3"
  bottom: "inception_4a/5x5"
  bottom: "inception_4a/pool_proj"
  top: "inception_4a/output"
}
layer {
  name: "loss1/ave_pool"
  type: "Pooling"
  bottom: "inception_4a/output"
  top: "loss1/ave_pool"
  pooling_param {
    pool: AVE
    kernel_size: 5
    stride: 3
  }
}
layer {
  name: "loss1/conv"
  type: "Convolution"
  bottom: "loss1/ave_pool"
  top: "loss1/conv"
  param {
    lr_mult: 1
    decay_mult: 1
  }
  param {
    lr_mult: 2
    decay_mult: 0
  }
  convolution_param {
    num_output: 128
    kernel_size: 1
    weight_filler {
      type: "xavier"
      std: 0.08
    }
    bias_filler {
      type: "constant"
      value: 0.2
    }
  }
}
layer {
  name: "loss1/relu_conv"
  type: "ReLU"
  bottom: "loss1/conv"
  top: "loss1/conv"
}
layer {
  name: "loss1/fc"
  type: "InnerProduct"
  bottom: "loss1/conv"
  top: "loss1/fc"
  param {
    lr_mult: 1
    decay_mult: 1
  }
  param {
    lr_mult: 2
    decay_mult: 0
  }
  inner_product_param {
    num_output: 1024
    weight_filler {
      type: "xavier"
      std: 0.02
    }
    bias_filler {
      type: "constant"
      value: 0.2
    }
  }
}
layer {
  name: "loss1/relu_fc"
  type: "ReLU"
  bottom: "loss1/fc"
  top: "loss1/fc"
}
layer {
  name: "loss1/drop_fc"
  type: "Dropout"
  bottom: "loss1/fc"
  top: "loss1/fc"
  dropout_param {
    dropout_ratio: 0.7
  }
}
layer {
  name: "loss1/classifier_plantvillage"
  type: "InnerProduct"
  bottom: "loss1/fc"
  top: "loss1/classifier_plantvillage"
  param {
    lr_mult: 1
    decay_mult: 1
  }
  param {
    lr_mult: 2
    decay_mult: 0
  }
  inner_product_param {
    num_output: 38
    weight_filler {
      type: "xavier"
      std: 0.0009765625
    }
    bias_filler {
      type: "constant"
      value: 0
    }
  }
}
layer {
  name: "inception_4b/1x1"
  type: "Convolution"
  bottom: "inception_4a/output"
  top: "inception_4b/1x1"
  param {
    lr_mult: 1
    decay_mult: 1
  }
  param {
    lr_mult: 2
    decay_mult: 0
  }
  convolution_param {
    num_output: 160
    kernel_size: 1
    weight_filler {
      type: "xavier"
      std: 0.03
    }
    bias_filler {
      type: "constant"
      value: 0.2
    }
  }
}
layer {
  name: "inception_4b/relu_1x1"
  type: "ReLU"
  bottom: "inception_4b/1x1"
  top: "inception_4b/1x1"
}
layer {
  name: "inception_4b/3x3_reduce"
  type: "Convolution"
  bottom: "inception_4a/output"
  top: "inception_4b/3x3_reduce"
  param {
    lr_mult: 1
    decay_mult: 1
  }
  param {
    lr_mult: 2
    decay_mult: 0
  }
  convolution_param {
    num_output: 112
    kernel_size: 1
    weight_filler {
      type: "xavier"
      std: 0.09
    }
    bias_filler {
      type: "constant"
      value: 0.2
    }
  }
}
layer {
  name: "inception_4b/relu_3x3_reduce"
  type: "ReLU"
  bottom: "inception_4b/3x3_reduce"
  top: "inception_4b/3x3_reduce"
}
layer {
  name: "inception_4b/3x3"
  type: "Convolution"
  bottom: "inception_4b/3x3_reduce"
  top: "inception_4b/3x3"
  param {
    lr_mult: 1
    decay_mult: 1
  }
  param {
    lr_mult: 2
    decay_mult: 0
  }
  convolution_param {
    num_output: 224
    pad: 1
    kernel_size: 3
    weight_filler {
      type: "xavier"
      std: 0.03
    }
    bias_filler {
      type: "constant"
      value: 0.2
    }
  }
}
layer {
  name: "inception_4b/relu_3x3"
  type: "ReLU"
  bottom: "inception_4b/3x3"
  top: "inception_4b/3x3"
}
layer {
  name: "inception_4b/5x5_reduce"
  type: "Convolution"
  bottom: "inception_4a/output"
  top: "inception_4b/5x5_reduce"
  param {
    lr_mult: 1
    decay_mult: 1
  }
  param {
    lr_mult: 2
    decay_mult: 0
  }
  convolution_param {
    num_output: 24
    kernel_size: 1
    weight_filler {
      type: "xavier"
      std: 0.2
    }
    bias_filler {
      type: "constant"
      value: 0.2
    }
  }
}
layer {
  name: "inception_4b/relu_5x5_reduce"
  type: "ReLU"
  bottom: "inception_4b/5x5_reduce"
  top: "inception_4b/5x5_reduce"
}
layer {
  name: "inception_4b/5x5"
  type: "Convolution"
  bottom: "inception_4b/5x5_reduce"
  top: "inception_4b/5x5"
  param {
    lr_mult: 1
    decay_mult: 1
  }
  param {
    lr_mult: 2
    decay_mult: 0
  }
  convolution_param {
    num_output: 64
    pad: 2
    kernel_size: 5
    weight_filler {
      type: "xavier"
      std: 0.03
    }
    bias_filler {
      type: "constant"
      value: 0.2
    }
  }
}
layer {
  name: "inception_4b/relu_5x5"
  type: "ReLU"
  bottom: "inception_4b/5x5"
  top: "inception_4b/5x5"
}
layer {
  name: "inception_4b/pool"
  type: "Pooling"
  bottom: "inception_4a/output"
  top: "inception_4b/pool"
  pooling_param {
    pool: MAX
    kernel_size: 3
    stride: 1
    pad: 1
  }
}
layer {
  name: "inception_4b/pool_proj"
  type: "Convolution"
  bottom: "inception_4b/pool"
  top: "inception_4b/pool_proj"
  param {
    lr_mult: 1
    decay_mult: 1
  }
  param {
    lr_mult: 2
    decay_mult: 0
  }
  convolution_param {
    num_output: 64
    kernel_size: 1
    weight_filler {
      type: "xavier"
      std: 0.1
    }
    bias_filler {
      type: "constant"
      value: 0.2
    }
  }
}
layer {
  name: "inception_4b/relu_pool_proj"
  type: "ReLU"
  bottom: "inception_4b/pool_proj"
  top: "inception_4b/pool_proj"
}
layer {
  name: "inception_4b/output"
  type: "Concat"
  bottom: "inception_4b/1x1"
  bottom: "inception_4b/3x3"
  bottom: "inception_4b/5x5"
  bottom: "inception_4b/pool_proj"
  top: "inception_4b/output"
}
layer {
  name: "inception_4c/1x1"
  type: "Convolution"
  bottom: "inception_4b/output"
  top: "inception_4c/1x1"
  param {
    lr_mult: 1
    decay_mult: 1
  }
  param {
    lr_mult: 2
    decay_mult: 0
  }
  convolution_param {
    num_output: 128
    kernel_size: 1
    weight_filler {
      type: "xavier"
      std: 0.03
    }
    bias_filler {
      type: "constant"
      value: 0.2
    }
  }
}
layer {
  name: "inception_4c/relu_1x1"
  type: "ReLU"
  bottom: "inception_4c/1x1"
  top: "inception_4c/1x1"
}
layer {
  name: "inception_4c/3x3_reduce"
  type: "Convolution"
  bottom: "inception_4b/output"
  top: "inception_4c/3x3_reduce"
  param {
    lr_mult: 1
    decay_mult: 1
  }
  param {
    lr_mult: 2
    decay_mult: 0
  }
  convolution_param {
    num_output: 128
    kernel_size: 1
    weight_filler {
      type: "xavier"
      std: 0.09
    }
    bias_filler {
      type: "constant"
      value: 0.2
    }
  }
}
layer {
  name: "inception_4c/relu_3x3_reduce"
  type: "ReLU"
  bottom: "inception_4c/3x3_reduce"
  top: "inception_4c/3x3_reduce"
}
layer {
  name: "inception_4c/3x3"
  type: "Convolution"
  bottom: "inception_4c/3x3_reduce"
  top: "inception_4c/3x3"
  param {
    lr_mult: 1
    decay_mult: 1
  }
  param {
    lr_mult: 2
    decay_mult: 0
  }
  convolution_param {
    num_output: 256
    pad: 1
    kernel_size: 3
    weight_filler {
      type: "xavier"
      std: 0.03
    }
    bias_filler {
      type: "constant"
      value: 0.2
    }
  }
}
layer {
  name: "inception_4c/relu_3x3"
  type: "ReLU"
  bottom: "inception_4c/3x3"
  top: "inception_4c/3x3"
}
layer {
  name: "inception_4c/5x5_reduce"
  type: "Convolution"
  bottom: "inception_4b/output"
  top: "inception_4c/5x5_reduce"
  param {
    lr_mult: 1
    decay_mult: 1
  }
  param {
    lr_mult: 2
    decay_mult: 0
  }
  convolution_param {
    num_output: 24
    kernel_size: 1
    weight_filler {
      type: "xavier"
      std: 0.2
    }
    bias_filler {
      type: "constant"
      value: 0.2
    }
  }
}
layer {
  name: "inception_4c/relu_5x5_reduce"
  type: "ReLU"
  bottom: "inception_4c/5x5_reduce"
  top: "inception_4c/5x5_reduce"
}
layer {
  name: "inception_4c/5x5"
  type: "Convolution"
  bottom: "inception_4c/5x5_reduce"
  top: "inception_4c/5x5"
  param {
    lr_mult: 1
    decay_mult: 1
  }
  param {
    lr_mult: 2
    decay_mult: 0
  }
  convolution_param {
    num_output: 64
    pad: 2
    kernel_size: 5
    weight_filler {
      type: "xavier"
      std: 0.03
    }
    bias_filler {
      type: "constant"
      value: 0.2
    }
  }
}
layer {
  name: "inception_4c/relu_5x5"
  type: "ReLU"
  bottom: "inception_4c/5x5"
  top: "inception_4c/5x5"
}
layer {
  name: "inception_4c/pool"
  type: "Pooling"
  bottom: "inception_4b/output"
  top: "inception_4c/pool"
  pooling_param {
    pool: MAX
    kernel_size: 3
    stride: 1
    pad: 1
  }
}
layer {
  name: "inception_4c/pool_proj"
  type: "Convolution"
  bottom: "inception_4c/pool"
  top: "inception_4c/pool_proj"
  param {
    lr_mult: 1
    decay_mult: 1
  }
  param {
    lr_mult: 2
    decay_mult: 0
  }
  convolution_param {
    num_output: 64
    kernel_size: 1
    weight_filler {
      type: "xavier"
      std: 0.1
    }
    bias_filler {
      type: "constant"
      value: 0.2
    }
  }
}
layer {
  name: "inception_4c/relu_pool_proj"
  type: "ReLU"
  bottom: "inception_4c/pool_proj"
  top: "inception_4c/pool_proj"
}
layer {
  name: "inception_4c/output"
  type: "Concat"
  bottom: "inception_4c/1x1"
  bottom: "inception_4c/3x3"
  bottom: "inception_4c/5x5"
  bottom: "inception_4c/pool_proj"
  top: "inception_4c/output"
}
layer {
  name: "inception_4d/1x1"
  type: "Convolution"
  bottom: "inception_4c/output"
  top: "inception_4d/1x1"
  param {
    lr_mult: 1
    decay_mult: 1
  }
  param {
    lr_mult: 2
    decay_mult: 0
  }
  convolution_param {
    num_output: 112
    kernel_size: 1
    weight_filler {
      type: "xavier"
      std: 0.03
    }
    bias_filler {
      type: "constant"
      value: 0.2
    }
  }
}
layer {
  name: "inception_4d/relu_1x1"
  type: "ReLU"
  bottom: "inception_4d/1x1"
  top: "inception_4d/1x1"
}
layer {
  name: "inception_4d/3x3_reduce"
  type: "Convolution"
  bottom: "inception_4c/output"
  top: "inception_4d/3x3_reduce"
  param {
    lr_mult: 1
    decay_mult: 1
  }
  param {
    lr_mult: 2
    decay_mult: 0
  }
  convolution_param {
    num_output: 144
    kernel_size: 1
    weight_filler {
      type: "xavier"
      std: 0.09
    }
    bias_filler {
      type: "constant"
      value: 0.2
    }
  }
}
layer {
  name: "inception_4d/relu_3x3_reduce"
  type: "ReLU"
  bottom: "inception_4d/3x3_reduce"
  top: "inception_4d/3x3_reduce"
}
layer {
  name: "inception_4d/3x3"
  type: "Convolution"
  bottom: "inception_4d/3x3_reduce"
  top: "inception_4d/3x3"
  param {
    lr_mult: 1
    decay_mult: 1
  }
  param {
    lr_mult: 2
    decay_mult: 0
  }
  convolution_param {
    num_output: 288
    pad: 1
    kernel_size: 3
    weight_filler {
      type: "xavier"
      std: 0.03
    }
    bias_filler {
      type: "constant"
      value: 0.2
    }
  }
}
layer {
  name: "inception_4d/relu_3x3"
  type: "ReLU"
  bottom: "inception_4d/3x3"
  top: "inception_4d/3x3"
}
layer {
  name: "inception_4d/5x5_reduce"
  type: "Convolution"
  bottom: "inception_4c/output"
  top: "inception_4d/5x5_reduce"
  param {
    lr_mult: 1
    decay_mult: 1
  }
  param {
    lr_mult: 2
    decay_mult: 0
  }
  convolution_param {
    num_output: 32
    kernel_size: 1
    weight_filler {
      type: "xavier"
      std: 0.2
    }
    bias_filler {
      type: "constant"
      value: 0.2
    }
  }
}
layer {
  name: "inception_4d/relu_5x5_reduce"
  type: "ReLU"
  bottom: "inception_4d/5x5_reduce"
  top: "inception_4d/5x5_reduce"
}
layer {
  name: "inception_4d/5x5"
  type: "Convolution"
  bottom: "inception_4d/5x5_reduce"
  top: "inception_4d/5x5"
  param {
    lr_mult: 1
    decay_mult: 1
  }
  param {
    lr_mult: 2
    decay_mult: 0
  }
  convolution_param {
    num_output: 64
    pad: 2
    kernel_size: 5
    weight_filler {
      type: "xavier"
      std: 0.03
    }
    bias_filler {
      type: "constant"
      value: 0.2
    }
  }
}
layer {
  name: "inception_4d/relu_5x5"
  type: "ReLU"
  bottom: "inception_4d/5x5"
  top: "inception_4d/5x5"
}
layer {
  name: "inception_4d/pool"
  type: "Pooling"
  bottom: "inception_4c/output"
  top: "inception_4d/pool"
  pooling_param {
    pool: MAX
    kernel_size: 3
    stride: 1
    pad: 1
  }
}
layer {
  name: "inception_4d/pool_proj"
  type: "Convolution"
  bottom: "inception_4d/pool"
  top: "inception_4d/pool_proj"
  param {
    lr_mult: 1
    decay_mult: 1
  }
  param {
    lr_mult: 2
    decay_mult: 0
  }
  convolution_param {
    num_output: 64
    kernel_size: 1
    weight_filler {
      type: "xavier"
      std: 0.1
    }
    bias_filler {
      type: "constant"
      value: 0.2
    }
  }
}
layer {
  name: "inception_4d/relu_pool_proj"
  type: "ReLU"
  bottom: "inception_4d/pool_proj"
  top: "inception_4d/pool_proj"
}
layer {
  name: "inception_4d/output"
  type: "Concat"
  bottom: "inception_4d/1x1"
  bottom: "inception_4d/3x3"
  bottom: "inception_4d/5x5"
  bottom: "inception_4d/pool_proj"
  top: "inception_4d/output"
}
layer {
  name: "loss2/ave_pool"
  type: "Pooling"
  bottom: "inception_4d/output"
  top: "loss2/ave_pool"
  pooling_param {
    pool: AVE
    kernel_size: 5
    stride: 3
  }
}
layer {
  name: "loss2/conv"
  type: "Convolution"
  bottom: "loss2/ave_pool"
  top: "loss2/conv"
  param {
    lr_mult: 1
    decay_mult: 1
  }
  param {
    lr_mult: 2
    decay_mult: 0
  }
  convolution_param {
    num_output: 128
    kernel_size: 1
    weight_filler {
      type: "xavier"
      std: 0.08
    }
    bias_filler {
      type: "constant"
      value: 0.2
    }
  }
}
layer {
  name: "loss2/relu_conv"
  type: "ReLU"
  bottom: "loss2/conv"
  top: "loss2/conv"
}
layer {
  name: "loss2/fc"
  type: "InnerProduct"
  bottom: "loss2/conv"
  top: "loss2/fc"
  param {
    lr_mult: 1
    decay_mult: 1
  }
  param {
    lr_mult: 2
    decay_mult: 0
  }
  inner_product_param {
    num_output: 1024
    weight_filler {
      type: "xavier"
      std: 0.02
    }
    bias_filler {
      type: "constant"
      value: 0.2
    }
  }
}
layer {
  name: "loss2/relu_fc"
  type: "ReLU"
  bottom: "loss2/fc"
  top: "loss2/fc"
}
layer {
  name: "loss2/drop_fc"
  type: "Dropout"
  bottom: "loss2/fc"
  top: "loss2/fc"
  dropout_param {
    dropout_ratio: 0.7
  }
}
layer {
  name: "loss2/classifier_plantvillage"
  type: "InnerProduct"
  bottom: "loss2/fc"
  top: "loss2/classifier_plantvillage"
  param {
    lr_mult: 1
    decay_mult: 1
  }
  param {
    lr_mult: 2
    decay_mult: 0
  }
  inner_product_param {
    num_output: 38
    weight_filler {
      type: "xavier"
      std: 0.0009765625
    }
    bias_filler {
      type: "constant"
      value: 0
    }
  }
}
layer {
  name: "inception_4e/1x1"
  type: "Convolution"
  bottom: "inception_4d/output"
  top: "inception_4e/1x1"
  param {
    lr_mult: 1
    decay_mult: 1
  }
  param {
    lr_mult: 2
    decay_mult: 0
  }
  convolution_param {
    num_output: 256
    kernel_size: 1
    weight_filler {
      type: "xavier"
      std: 0.03
    }
    bias_filler {
      type: "constant"
      value: 0.2
    }
  }
}
layer {
  name: "inception_4e/relu_1x1"
  type: "ReLU"
  bottom: "inception_4e/1x1"
  top: "inception_4e/1x1"
}
layer {
  name: "inception_4e/3x3_reduce"
  type: "Convolution"
  bottom: "inception_4d/output"
  top: "inception_4e/3x3_reduce"
  param {
    lr_mult: 1
    decay_mult: 1
  }
  param {
    lr_mult: 2
    decay_mult: 0
  }
  convolution_param {
    num_output: 160
    kernel_size: 1
    weight_filler {
      type: "xavier"
      std: 0.09
    }
    bias_filler {
      type: "constant"
      value: 0.2
    }
  }
}
layer {
  name: "inception_4e/relu_3x3_reduce"
  type: "ReLU"
  bottom: "inception_4e/3x3_reduce"
  top: "inception_4e/3x3_reduce"
}
layer {
  name: "inception_4e/3x3"
  type: "Convolution"
  bottom: "inception_4e/3x3_reduce"
  top: "inception_4e/3x3"
  param {
    lr_mult: 1
    decay_mult: 1
  }
  param {
    lr_mult: 2
    decay_mult: 0
  }
  convolution_param {
    num_output: 320
    pad: 1
    kernel_size: 3
    weight_filler {
      type: "xavier"
      std: 0.03
    }
    bias_filler {
      type: "constant"
      value: 0.2
    }
  }
}
layer {
  name: "inception_4e/relu_3x3"
  type: "ReLU"
  bottom: "inception_4e/3x3"
  top: "inception_4e/3x3"
}
layer {
  name: "inception_4e/5x5_reduce"
  type: "Convolution"
  bottom: "inception_4d/output"
  top: "inception_4e/5x5_reduce"
  param {
    lr_mult: 1
    decay_mult: 1
  }
  param {
    lr_mult: 2
    decay_mult: 0
  }
  convolution_param {
    num_output: 32
    kernel_size: 1
    weight_filler {
      type: "xavier"
      std: 0.2
    }
    bias_filler {
      type: "constant"
      value: 0.2
    }
  }
}
layer {
  name: "inception_4e/relu_5x5_reduce"
  type: "ReLU"
  bottom: "inception_4e/5x5_reduce"
  top: "inception_4e/5x5_reduce"
}
layer {
  name: "inception_4e/5x5"
  type: "Convolution"
  bottom: "inception_4e/5x5_reduce"
  top: "inception_4e/5x5"
  p
I0403 15:13:57.762747 31322 layer_factory.hpp:77] Creating layer data
I0403 15:13:57.763340 31322 net.cpp:91] Creating Layer data
I0403 15:13:57.763389 31322 net.cpp:399] data -> data
I0403 15:13:57.763442 31322 net.cpp:399] data -> label
I0403 15:13:57.763480 31322 data_transformer.cpp:25] Loading mean file from: /home/mohanty/data/final_dataset/lmdb/color-20-80/mean.binaryproto
I0403 15:13:57.765879 31326 db_lmdb.cpp:38] Opened lmdb /home/mohanty/data/final_dataset/lmdb/color-20-80/test_db
I0403 15:13:57.776461 31322 data_layer.cpp:41] output data size: 24,3,224,224
I0403 15:13:57.803630 31322 net.cpp:141] Setting up data
I0403 15:13:57.803704 31322 net.cpp:148] Top shape: 24 3 224 224 (3612672)
I0403 15:13:57.803726 31322 net.cpp:148] Top shape: 24 (24)
I0403 15:13:57.803743 31322 net.cpp:156] Memory required for data: 14450784
I0403 15:13:57.803773 31322 layer_factory.hpp:77] Creating layer label_data_1_split
I0403 15:13:57.803802 31322 net.cpp:91] Creating Layer label_data_1_split
I0403 15:13:57.803820 31322 net.cpp:425] label_data_1_split <- label
I0403 15:13:57.803853 31322 net.cpp:399] label_data_1_split -> label_data_1_split_0
I0403 15:13:57.803884 31322 net.cpp:399] label_data_1_split -> label_data_1_split_1
I0403 15:13:57.803906 31322 net.cpp:399] label_data_1_split -> label_data_1_split_2
I0403 15:13:57.803930 31322 net.cpp:399] label_data_1_split -> label_data_1_split_3
I0403 15:13:57.803951 31322 net.cpp:399] label_data_1_split -> label_data_1_split_4
I0403 15:13:57.803972 31322 net.cpp:399] label_data_1_split -> label_data_1_split_5
I0403 15:13:57.803992 31322 net.cpp:399] label_data_1_split -> label_data_1_split_6
I0403 15:13:57.804014 31322 net.cpp:399] label_data_1_split -> label_data_1_split_7
I0403 15:13:57.804034 31322 net.cpp:399] label_data_1_split -> label_data_1_split_8
I0403 15:13:57.804057 31322 net.cpp:399] label_data_1_split -> label_data_1_split_9
I0403 15:13:57.804177 31322 net.cpp:141] Setting up label_data_1_split
I0403 15:13:57.804201 31322 net.cpp:148] Top shape: 24 (24)
I0403 15:13:57.804220 31322 net.cpp:148] Top shape: 24 (24)
I0403 15:13:57.804239 31322 net.cpp:148] Top shape: 24 (24)
I0403 15:13:57.804255 31322 net.cpp:148] Top shape: 24 (24)
I0403 15:13:57.804272 31322 net.cpp:148] Top shape: 24 (24)
I0403 15:13:57.804291 31322 net.cpp:148] Top shape: 24 (24)
I0403 15:13:57.804307 31322 net.cpp:148] Top shape: 24 (24)
I0403 15:13:57.804323 31322 net.cpp:148] Top shape: 24 (24)
I0403 15:13:57.804340 31322 net.cpp:148] Top shape: 24 (24)
I0403 15:13:57.804370 31322 net.cpp:148] Top shape: 24 (24)
I0403 15:13:57.804417 31322 net.cpp:156] Memory required for data: 14451744
I0403 15:13:57.804437 31322 layer_factory.hpp:77] Creating layer conv1/7x7_s2
I0403 15:13:57.804471 31322 net.cpp:91] Creating Layer conv1/7x7_s2
I0403 15:13:57.804491 31322 net.cpp:425] conv1/7x7_s2 <- data
I0403 15:13:57.804512 31322 net.cpp:399] conv1/7x7_s2 -> conv1/7x7_s2
I0403 15:13:57.948731 31322 net.cpp:141] Setting up conv1/7x7_s2
I0403 15:13:57.948796 31322 net.cpp:148] Top shape: 24 64 112 112 (19267584)
I0403 15:13:57.948814 31322 net.cpp:156] Memory required for data: 91522080
I0403 15:13:57.948846 31322 layer_factory.hpp:77] Creating layer conv1/relu_7x7
I0403 15:13:57.948876 31322 net.cpp:91] Creating Layer conv1/relu_7x7
I0403 15:13:57.948896 31322 net.cpp:425] conv1/relu_7x7 <- conv1/7x7_s2
I0403 15:13:57.948918 31322 net.cpp:386] conv1/relu_7x7 -> conv1/7x7_s2 (in-place)
I0403 15:13:57.949179 31322 net.cpp:141] Setting up conv1/relu_7x7
I0403 15:13:57.949208 31322 net.cpp:148] Top shape: 24 64 112 112 (19267584)
I0403 15:13:57.949224 31322 net.cpp:156] Memory required for data: 168592416
I0403 15:13:57.949241 31322 layer_factory.hpp:77] Creating layer pool1/3x3_s2
I0403 15:13:57.949268 31322 net.cpp:91] Creating Layer pool1/3x3_s2
I0403 15:13:57.949288 31322 net.cpp:425] pool1/3x3_s2 <- conv1/7x7_s2
I0403 15:13:57.949308 31322 net.cpp:399] pool1/3x3_s2 -> pool1/3x3_s2
I0403 15:13:57.949388 31322 net.cpp:141] Setting up pool1/3x3_s2
I0403 15:13:57.949414 31322 net.cpp:148] Top shape: 24 64 56 56 (4816896)
I0403 15:13:57.949430 31322 net.cpp:156] Memory required for data: 187860000
I0403 15:13:57.949446 31322 layer_factory.hpp:77] Creating layer pool1/norm1
I0403 15:13:57.949473 31322 net.cpp:91] Creating Layer pool1/norm1
I0403 15:13:57.949493 31322 net.cpp:425] pool1/norm1 <- pool1/3x3_s2
I0403 15:13:57.949512 31322 net.cpp:399] pool1/norm1 -> pool1/norm1
I0403 15:13:57.949832 31322 net.cpp:141] Setting up pool1/norm1
I0403 15:13:57.949862 31322 net.cpp:148] Top shape: 24 64 56 56 (4816896)
I0403 15:13:57.949878 31322 net.cpp:156] Memory required for data: 207127584
I0403 15:13:57.949895 31322 layer_factory.hpp:77] Creating layer conv2/3x3_reduce
I0403 15:13:57.949923 31322 net.cpp:91] Creating Layer conv2/3x3_reduce
I0403 15:13:57.949942 31322 net.cpp:425] conv2/3x3_reduce <- pool1/norm1
I0403 15:13:57.949964 31322 net.cpp:399] conv2/3x3_reduce -> conv2/3x3_reduce
I0403 15:13:57.951334 31322 net.cpp:141] Setting up conv2/3x3_reduce
I0403 15:13:57.951365 31322 net.cpp:148] Top shape: 24 64 56 56 (4816896)
I0403 15:13:57.951383 31322 net.cpp:156] Memory required for data: 226395168
I0403 15:13:57.951406 31322 layer_factory.hpp:77] Creating layer conv2/relu_3x3_reduce
I0403 15:13:57.951427 31322 net.cpp:91] Creating Layer conv2/relu_3x3_reduce
I0403 15:13:57.951445 31322 net.cpp:425] conv2/relu_3x3_reduce <- conv2/3x3_reduce
I0403 15:13:57.951495 31322 net.cpp:386] conv2/relu_3x3_reduce -> conv2/3x3_reduce (in-place)
I0403 15:13:57.951753 31322 net.cpp:141] Setting up conv2/relu_3x3_reduce
I0403 15:13:57.951782 31322 net.cpp:148] Top shape: 24 64 56 56 (4816896)
I0403 15:13:57.951799 31322 net.cpp:156] Memory required for data: 245662752
I0403 15:13:57.951815 31322 layer_factory.hpp:77] Creating layer conv2/3x3
I0403 15:13:57.951838 31322 net.cpp:91] Creating Layer conv2/3x3
I0403 15:13:57.951858 31322 net.cpp:425] conv2/3x3 <- conv2/3x3_reduce
I0403 15:13:57.951879 31322 net.cpp:399] conv2/3x3 -> conv2/3x3
I0403 15:13:57.954219 31322 net.cpp:141] Setting up conv2/3x3
I0403 15:13:57.954252 31322 net.cpp:148] Top shape: 24 192 56 56 (14450688)
I0403 15:13:57.954284 31322 net.cpp:156] Memory required for data: 303465504
I0403 15:13:57.954308 31322 layer_factory.hpp:77] Creating layer conv2/relu_3x3
I0403 15:13:57.954334 31322 net.cpp:91] Creating Layer conv2/relu_3x3
I0403 15:13:57.954354 31322 net.cpp:425] conv2/relu_3x3 <- conv2/3x3
I0403 15:13:57.954373 31322 net.cpp:386] conv2/relu_3x3 -> conv2/3x3 (in-place)
I0403 15:13:57.954546 31322 net.cpp:141] Setting up conv2/relu_3x3
I0403 15:13:57.954586 31322 net.cpp:148] Top shape: 24 192 56 56 (14450688)
I0403 15:13:57.954637 31322 net.cpp:156] Memory required for data: 361268256
I0403 15:13:57.954653 31322 layer_factory.hpp:77] Creating layer conv2/norm2
I0403 15:13:57.954674 31322 net.cpp:91] Creating Layer conv2/norm2
I0403 15:13:57.954691 31322 net.cpp:425] conv2/norm2 <- conv2/3x3
I0403 15:13:57.954711 31322 net.cpp:399] conv2/norm2 -> conv2/norm2
I0403 15:13:57.955010 31322 net.cpp:141] Setting up conv2/norm2
I0403 15:13:57.955039 31322 net.cpp:148] Top shape: 24 192 56 56 (14450688)
I0403 15:13:57.955054 31322 net.cpp:156] Memory required for data: 419071008
I0403 15:13:57.955070 31322 layer_factory.hpp:77] Creating layer pool2/3x3_s2
I0403 15:13:57.955090 31322 net.cpp:91] Creating Layer pool2/3x3_s2
I0403 15:13:57.955106 31322 net.cpp:425] pool2/3x3_s2 <- conv2/norm2
I0403 15:13:57.955127 31322 net.cpp:399] pool2/3x3_s2 -> pool2/3x3_s2
I0403 15:13:57.955176 31322 net.cpp:141] Setting up pool2/3x3_s2
I0403 15:13:57.955200 31322 net.cpp:148] Top shape: 24 192 28 28 (3612672)
I0403 15:13:57.955217 31322 net.cpp:156] Memory required for data: 433521696
I0403 15:13:57.955235 31322 layer_factory.hpp:77] Creating layer pool2/3x3_s2_pool2/3x3_s2_0_split
I0403 15:13:57.955252 31322 net.cpp:91] Creating Layer pool2/3x3_s2_pool2/3x3_s2_0_split
I0403 15:13:57.955268 31322 net.cpp:425] pool2/3x3_s2_pool2/3x3_s2_0_split <- pool2/3x3_s2
I0403 15:13:57.955287 31322 net.cpp:399] pool2/3x3_s2_pool2/3x3_s2_0_split -> pool2/3x3_s2_pool2/3x3_s2_0_split_0
I0403 15:13:57.955307 31322 net.cpp:399] pool2/3x3_s2_pool2/3x3_s2_0_split -> pool2/3x3_s2_pool2/3x3_s2_0_split_1
I0403 15:13:57.955334 31322 net.cpp:399] pool2/3x3_s2_pool2/3x3_s2_0_split -> pool2/3x3_s2_pool2/3x3_s2_0_split_2
I0403 15:13:57.955355 31322 net.cpp:399] pool2/3x3_s2_pool2/3x3_s2_0_split -> pool2/3x3_s2_pool2/3x3_s2_0_split_3
I0403 15:13:57.955420 31322 net.cpp:141] Setting up pool2/3x3_s2_pool2/3x3_s2_0_split
I0403 15:13:57.955445 31322 net.cpp:148] Top shape: 24 192 28 28 (3612672)
I0403 15:13:57.955463 31322 net.cpp:148] Top shape: 24 192 28 28 (3612672)
I0403 15:13:57.955481 31322 net.cpp:148] Top shape: 24 192 28 28 (3612672)
I0403 15:13:57.955497 31322 net.cpp:148] Top shape: 24 192 28 28 (3612672)
I0403 15:13:57.955513 31322 net.cpp:156] Memory required for data: 491324448
I0403 15:13:57.955528 31322 layer_factory.hpp:77] Creating layer inception_3a/1x1
I0403 15:13:57.955549 31322 net.cpp:91] Creating Layer inception_3a/1x1
I0403 15:13:57.955565 31322 net.cpp:425] inception_3a/1x1 <- pool2/3x3_s2_pool2/3x3_s2_0_split_0
I0403 15:13:57.955585 31322 net.cpp:399] inception_3a/1x1 -> inception_3a/1x1
I0403 15:13:57.957062 31322 net.cpp:141] Setting up inception_3a/1x1
I0403 15:13:57.957093 31322 net.cpp:148] Top shape: 24 64 28 28 (1204224)
I0403 15:13:57.957109 31322 net.cpp:156] Memory required for data: 496141344
I0403 15:13:57.957130 31322 layer_factory.hpp:77] Creating layer inception_3a/relu_1x1
I0403 15:13:57.957150 31322 net.cpp:91] Creating Layer inception_3a/relu_1x1
I0403 15:13:57.957167 31322 net.cpp:425] inception_3a/relu_1x1 <- inception_3a/1x1
I0403 15:13:57.957186 31322 net.cpp:386] inception_3a/relu_1x1 -> inception_3a/1x1 (in-place)
I0403 15:13:57.957365 31322 net.cpp:141] Setting up inception_3a/relu_1x1
I0403 15:13:57.957394 31322 net.cpp:148] Top shape: 24 64 28 28 (1204224)
I0403 15:13:57.957411 31322 net.cpp:156] Memory required for data: 500958240
I0403 15:13:57.957427 31322 layer_factory.hpp:77] Creating layer inception_3a/3x3_reduce
I0403 15:13:57.957451 31322 net.cpp:91] Creating Layer inception_3a/3x3_reduce
I0403 15:13:57.957471 31322 net.cpp:425] inception_3a/3x3_reduce <- pool2/3x3_s2_pool2/3x3_s2_0_split_1
I0403 15:13:57.957492 31322 net.cpp:399] inception_3a/3x3_reduce -> inception_3a/3x3_reduce
I0403 15:13:57.959204 31322 net.cpp:141] Setting up inception_3a/3x3_reduce
I0403 15:13:57.959235 31322 net.cpp:148] Top shape: 24 96 28 28 (1806336)
I0403 15:13:57.959252 31322 net.cpp:156] Memory required for data: 508183584
I0403 15:13:57.959275 31322 layer_factory.hpp:77] Creating layer inception_3a/relu_3x3_reduce
I0403 15:13:57.959313 31322 net.cpp:91] Creating Layer inception_3a/relu_3x3_reduce
I0403 15:13:57.959339 31322 net.cpp:425] inception_3a/relu_3x3_reduce <- inception_3a/3x3_reduce
I0403 15:13:57.959360 31322 net.cpp:386] inception_3a/relu_3x3_reduce -> inception_3a/3x3_reduce (in-place)
I0403 15:13:57.959547 31322 net.cpp:141] Setting up inception_3a/relu_3x3_reduce
I0403 15:13:57.959574 31322 net.cpp:148] Top shape: 24 96 28 28 (1806336)
I0403 15:13:57.959590 31322 net.cpp:156] Memory required for data: 515408928
I0403 15:13:57.959606 31322 layer_factory.hpp:77] Creating layer inception_3a/3x3
I0403 15:13:57.959630 31322 net.cpp:91] Creating Layer inception_3a/3x3
I0403 15:13:57.959650 31322 net.cpp:425] inception_3a/3x3 <- inception_3a/3x3_reduce
I0403 15:13:57.959674 31322 net.cpp:399] inception_3a/3x3 -> inception_3a/3x3
I0403 15:13:57.961382 31322 net.cpp:141] Setting up inception_3a/3x3
I0403 15:13:57.961416 31322 net.cpp:148] Top shape: 24 128 28 28 (2408448)
I0403 15:13:57.961433 31322 net.cpp:156] Memory required for data: 525042720
I0403 15:13:57.961454 31322 layer_factory.hpp:77] Creating layer inception_3a/relu_3x3
I0403 15:13:57.961473 31322 net.cpp:91] Creating Layer inception_3a/relu_3x3
I0403 15:13:57.961491 31322 net.cpp:425] inception_3a/relu_3x3 <- inception_3a/3x3
I0403 15:13:57.961511 31322 net.cpp:386] inception_3a/relu_3x3 -> inception_3a/3x3 (in-place)
I0403 15:13:57.961791 31322 net.cpp:141] Setting up inception_3a/relu_3x3
I0403 15:13:57.961820 31322 net.cpp:148] Top shape: 24 128 28 28 (2408448)
I0403 15:13:57.961838 31322 net.cpp:156] Memory required for data: 534676512
I0403 15:13:57.961854 31322 layer_factory.hpp:77] Creating layer inception_3a/5x5_reduce
I0403 15:13:57.961879 31322 net.cpp:91] Creating Layer inception_3a/5x5_reduce
I0403 15:13:57.961899 31322 net.cpp:425] inception_3a/5x5_reduce <- pool2/3x3_s2_pool2/3x3_s2_0_split_2
I0403 15:13:57.961920 31322 net.cpp:399] inception_3a/5x5_reduce -> inception_3a/5x5_reduce
I0403 15:13:57.962888 31322 net.cpp:141] Setting up inception_3a/5x5_reduce
I0403 15:13:57.962918 31322 net.cpp:148] Top shape: 24 16 28 28 (301056)
I0403 15:13:57.962935 31322 net.cpp:156] Memory required for data: 535880736
I0403 15:13:57.962955 31322 layer_factory.hpp:77] Creating layer inception_3a/relu_5x5_reduce
I0403 15:13:57.962976 31322 net.cpp:91] Creating Layer inception_3a/relu_5x5_reduce
I0403 15:13:57.962995 31322 net.cpp:425] inception_3a/relu_5x5_reduce <- inception_3a/5x5_reduce
I0403 15:13:57.963016 31322 net.cpp:386] inception_3a/relu_5x5_reduce -> inception_3a/5x5_reduce (in-place)
I0403 15:13:57.963320 31322 net.cpp:141] Setting up inception_3a/relu_5x5_reduce
I0403 15:13:57.963347 31322 net.cpp:148] Top shape: 24 16 28 28 (301056)
I0403 15:13:57.963363 31322 net.cpp:156] Memory required for data: 537084960
I0403 15:13:57.963382 31322 layer_factory.hpp:77] Creating layer inception_3a/5x5
I0403 15:13:57.963405 31322 net.cpp:91] Creating Layer inception_3a/5x5
I0403 15:13:57.963424 31322 net.cpp:425] inception_3a/5x5 <- inception_3a/5x5_reduce
I0403 15:13:57.963446 31322 net.cpp:399] inception_3a/5x5 -> inception_3a/5x5
I0403 15:13:57.964495 31322 net.cpp:141] Setting up inception_3a/5x5
I0403 15:13:57.964529 31322 net.cpp:148] Top shape: 24 32 28 28 (602112)
I0403 15:13:57.964545 31322 net.cpp:156] Memory required for data: 539493408
I0403 15:13:57.964570 31322 layer_factory.hpp:77] Creating layer inception_3a/relu_5x5
I0403 15:13:57.964603 31322 net.cpp:91] Creating Layer inception_3a/relu_5x5
I0403 15:13:57.964620 31322 net.cpp:425] inception_3a/relu_5x5 <- inception_3a/5x5
I0403 15:13:57.964638 31322 net.cpp:386] inception_3a/relu_5x5 -> inception_3a/5x5 (in-place)
I0403 15:13:57.964820 31322 net.cpp:141] Setting up inception_3a/relu_5x5
I0403 15:13:57.964849 31322 net.cpp:148] Top shape: 24 32 28 28 (602112)
I0403 15:13:57.964866 31322 net.cpp:156] Memory required for data: 541901856
I0403 15:13:57.964884 31322 layer_factory.hpp:77] Creating layer inception_3a/pool
I0403 15:13:57.964903 31322 net.cpp:91] Creating Layer inception_3a/pool
I0403 15:13:57.964921 31322 net.cpp:425] inception_3a/pool <- pool2/3x3_s2_pool2/3x3_s2_0_split_3
I0403 15:13:57.964957 31322 net.cpp:399] inception_3a/pool -> inception_3a/pool
I0403 15:13:57.965018 31322 net.cpp:141] Setting up inception_3a/pool
I0403 15:13:57.965045 31322 net.cpp:148] Top shape: 24 192 28 28 (3612672)
I0403 15:13:57.965064 31322 net.cpp:156] Memory required for data: 556352544
I0403 15:13:57.965080 31322 layer_factory.hpp:77] Creating layer inception_3a/pool_proj
I0403 15:13:57.965104 31322 net.cpp:91] Creating Layer inception_3a/pool_proj
I0403 15:13:57.965124 31322 net.cpp:425] inception_3a/pool_proj <- inception_3a/pool
I0403 15:13:57.965145 31322 net.cpp:399] inception_3a/pool_proj -> inception_3a/pool_proj
I0403 15:13:57.966120 31322 net.cpp:141] Setting up inception_3a/pool_proj
I0403 15:13:57.966148 31322 net.cpp:148] Top shape: 24 32 28 28 (602112)
I0403 15:13:57.966166 31322 net.cpp:156] Memory required for data: 558760992
I0403 15:13:57.966190 31322 layer_factory.hpp:77] Creating layer inception_3a/relu_pool_proj
I0403 15:13:57.966212 31322 net.cpp:91] Creating Layer inception_3a/relu_pool_proj
I0403 15:13:57.966229 31322 net.cpp:425] inception_3a/relu_pool_proj <- inception_3a/pool_proj
I0403 15:13:57.966250 31322 net.cpp:386] inception_3a/relu_pool_proj -> inception_3a/pool_proj (in-place)
I0403 15:13:57.966533 31322 net.cpp:141] Setting up inception_3a/relu_pool_proj
I0403 15:13:57.966564 31322 net.cpp:148] Top shape: 24 32 28 28 (602112)
I0403 15:13:57.966583 31322 net.cpp:156] Memory required for data: 561169440
I0403 15:13:57.966600 31322 layer_factory.hpp:77] Creating layer inception_3a/output
I0403 15:13:57.966621 31322 net.cpp:91] Creating Layer inception_3a/output
I0403 15:13:57.966639 31322 net.cpp:425] inception_3a/output <- inception_3a/1x1
I0403 15:13:57.966657 31322 net.cpp:425] inception_3a/output <- inception_3a/3x3
I0403 15:13:57.966675 31322 net.cpp:425] inception_3a/output <- inception_3a/5x5
I0403 15:13:57.966691 31322 net.cpp:425] inception_3a/output <- inception_3a/pool_proj
I0403 15:13:57.966711 31322 net.cpp:399] inception_3a/output -> inception_3a/output
I0403 15:13:57.966760 31322 net.cpp:141] Setting up inception_3a/output
I0403 15:13:57.966786 31322 net.cpp:148] Top shape: 24 256 28 28 (4816896)
I0403 15:13:57.966802 31322 net.cpp:156] Memory required for data: 580437024
I0403 15:13:57.966820 31322 layer_factory.hpp:77] Creating layer inception_3a/output_inception_3a/output_0_split
I0403 15:13:57.966840 31322 net.cpp:91] Creating Layer inception_3a/output_inception_3a/output_0_split
I0403 15:13:57.966859 31322 net.cpp:425] inception_3a/output_inception_3a/output_0_split <- inception_3a/output
I0403 15:13:57.966879 31322 net.cpp:399] inception_3a/output_inception_3a/output_0_split -> inception_3a/output_inception_3a/output_0_split_0
I0403 15:13:57.966900 31322 net.cpp:399] inception_3a/output_inception_3a/output_0_split -> inception_3a/output_inception_3a/output_0_split_1
I0403 15:13:57.966925 31322 net.cpp:399] inception_3a/output_inception_3a/output_0_split -> inception_3a/output_inception_3a/output_0_split_2
I0403 15:13:57.966948 31322 net.cpp:399] inception_3a/output_inception_3a/output_0_split -> inception_3a/output_inception_3a/output_0_split_3
I0403 15:13:57.967025 31322 net.cpp:141] Setting up inception_3a/output_inception_3a/output_0_split
I0403 15:13:57.967051 31322 net.cpp:148] Top shape: 24 256 28 28 (4816896)
I0403 15:13:57.967068 31322 net.cpp:148] Top shape: 24 256 28 28 (4816896)
I0403 15:13:57.967084 31322 net.cpp:148] Top shape: 24 256 28 28 (4816896)
I0403 15:13:57.967102 31322 net.cpp:148] Top shape: 24 256 28 28 (4816896)
I0403 15:13:57.967116 31322 net.cpp:156] Memory required for data: 657507360
I0403 15:13:57.967133 31322 layer_factory.hpp:77] Creating layer inception_3b/1x1
I0403 15:13:57.967159 31322 net.cpp:91] Creating Layer inception_3b/1x1
I0403 15:13:57.967178 31322 net.cpp:425] inception_3b/1x1 <- inception_3a/output_inception_3a/output_0_split_0
I0403 15:13:57.967198 31322 net.cpp:399] inception_3b/1x1 -> inception_3b/1x1
I0403 15:13:57.968358 31322 net.cpp:141] Setting up inception_3b/1x1
I0403 15:13:57.968399 31322 net.cpp:148] Top shape: 24 128 28 28 (2408448)
I0403 15:13:57.968416 31322 net.cpp:156] Memory required for data: 667141152
I0403 15:13:57.968436 31322 layer_factory.hpp:77] Creating layer inception_3b/relu_1x1
I0403 15:13:57.968458 31322 net.cpp:91] Creating Layer inception_3b/relu_1x1
I0403 15:13:57.968477 31322 net.cpp:425] inception_3b/relu_1x1 <- inception_3b/1x1
I0403 15:13:57.968498 31322 net.cpp:386] inception_3b/relu_1x1 -> inception_3b/1x1 (in-place)
I0403 15:13:57.968678 31322 net.cpp:141] Setting up inception_3b/relu_1x1
I0403 15:13:57.968708 31322 net.cpp:148] Top shape: 24 128 28 28 (2408448)
I0403 15:13:57.968725 31322 net.cpp:156] Memory required for data: 676774944
I0403 15:13:57.968741 31322 layer_factory.hpp:77] Creating layer inception_3b/3x3_reduce
I0403 15:13:57.968765 31322 net.cpp:91] Creating Layer inception_3b/3x3_reduce
I0403 15:13:57.968786 31322 net.cpp:425] inception_3b/3x3_reduce <- inception_3a/output_inception_3a/output_0_split_1
I0403 15:13:57.968806 31322 net.cpp:399] inception_3b/3x3_reduce -> inception_3b/3x3_reduce
I0403 15:13:57.969964 31322 net.cpp:141] Setting up inception_3b/3x3_reduce
I0403 15:13:57.969995 31322 net.cpp:148] Top shape: 24 128 28 28 (2408448)
I0403 15:13:57.970011 31322 net.cpp:156] Memory required for data: 686408736
I0403 15:13:57.970032 31322 layer_factory.hpp:77] Creating layer inception_3b/relu_3x3_reduce
I0403 15:13:57.970054 31322 net.cpp:91] Creating Layer inception_3b/relu_3x3_reduce
I0403 15:13:57.970074 31322 net.cpp:425] inception_3b/relu_3x3_reduce <- inception_3b/3x3_reduce
I0403 15:13:57.970093 31322 net.cpp:386] inception_3b/relu_3x3_reduce -> inception_3b/3x3_reduce (in-place)
I0403 15:13:57.970270 31322 net.cpp:141] Setting up inception_3b/relu_3x3_reduce
I0403 15:13:57.970299 31322 net.cpp:148] Top shape: 24 128 28 28 (2408448)
I0403 15:13:57.970321 31322 net.cpp:156] Memory required for data: 696042528
I0403 15:13:57.970338 31322 layer_factory.hpp:77] Creating layer inception_3b/3x3
I0403 15:13:57.970366 31322 net.cpp:91] Creating Layer inception_3b/3x3
I0403 15:13:57.970387 31322 net.cpp:425] inception_3b/3x3 <- inception_3b/3x3_reduce
I0403 15:13:57.970409 31322 net.cpp:399] inception_3b/3x3 -> inception_3b/3x3
I0403 15:13:57.973327 31322 net.cpp:141] Setting up inception_3b/3x3
I0403 15:13:57.973359 31322 net.cpp:148] Top shape: 24 192 28 28 (3612672)
I0403 15:13:57.973377 31322 net.cpp:156] Memory required for data: 710493216
I0403 15:13:57.973397 31322 layer_factory.hpp:77] Creating layer inception_3b/relu_3x3
I0403 15:13:57.973417 31322 net.cpp:91] Creating Layer inception_3b/relu_3x3
I0403 15:13:57.973434 31322 net.cpp:425] inception_3b/relu_3x3 <- inception_3b/3x3
I0403 15:13:57.973454 31322 net.cpp:386] inception_3b/relu_3x3 -> inception_3b/3x3 (in-place)
I0403 15:13:57.973726 31322 net.cpp:141] Setting up inception_3b/relu_3x3
I0403 15:13:57.973757 31322 net.cpp:148] Top shape: 24 192 28 28 (3612672)
I0403 15:13:57.973775 31322 net.cpp:156] Memory required for data: 724943904
I0403 15:13:57.973791 31322 layer_factory.hpp:77] Creating layer inception_3b/5x5_reduce
I0403 15:13:57.973815 31322 net.cpp:91] Creating Layer inception_3b/5x5_reduce
I0403 15:13:57.973835 31322 net.cpp:425] inception_3b/5x5_reduce <- inception_3a/output_inception_3a/output_0_split_2
I0403 15:13:57.973856 31322 net.cpp:399] inception_3b/5x5_reduce -> inception_3b/5x5_reduce
I0403 15:13:57.974834 31322 net.cpp:141] Setting up inception_3b/5x5_reduce
I0403 15:13:57.974866 31322 net.cpp:148] Top shape: 24 32 28 28 (602112)
I0403 15:13:57.974884 31322 net.cpp:156] Memory required for data: 727352352
I0403 15:13:57.974905 31322 layer_factory.hpp:77] Creating layer inception_3b/relu_5x5_reduce
I0403 15:13:57.974925 31322 net.cpp:91] Creating Layer inception_3b/relu_5x5_reduce
I0403 15:13:57.974942 31322 net.cpp:425] inception_3b/relu_5x5_reduce <- inception_3b/5x5_reduce
I0403 15:13:57.974962 31322 net.cpp:386] inception_3b/relu_5x5_reduce -> inception_3b/5x5_reduce (in-place)
I0403 15:13:57.975154 31322 net.cpp:141] Setting up inception_3b/relu_5x5_reduce
I0403 15:13:57.975193 31322 net.cpp:148] Top shape: 24 32 28 28 (602112)
I0403 15:13:57.975210 31322 net.cpp:156] Memory required for data: 729760800
I0403 15:13:57.975226 31322 layer_factory.hpp:77] Creating layer inception_3b/5x5
I0403 15:13:57.975251 31322 net.cpp:91] Creating Layer inception_3b/5x5
I0403 15:13:57.975283 31322 net.cpp:425] inception_3b/5x5 <- inception_3b/5x5_reduce
I0403 15:13:57.975306 31322 net.cpp:399] inception_3b/5x5 -> inception_3b/5x5
I0403 15:13:57.977216 31322 net.cpp:141] Setting up inception_3b/5x5
I0403 15:13:57.977246 31322 net.cpp:148] Top shape: 24 96 28 28 (1806336)
I0403 15:13:57.977262 31322 net.cpp:156] Memory required for data: 736986144
I0403 15:13:57.977282 31322 layer_factory.hpp:77] Creating layer inception_3b/relu_5x5
I0403 15:13:57.977301 31322 net.cpp:91] Creating Layer inception_3b/relu_5x5
I0403 15:13:57.977324 31322 net.cpp:425] inception_3b/relu_5x5 <- inception_3b/5x5
I0403 15:13:57.977344 31322 net.cpp:386] inception_3b/relu_5x5 -> inception_3b/5x5 (in-place)
I0403 15:13:57.977527 31322 net.cpp:141] Setting up inception_3b/relu_5x5
I0403 15:13:57.977552 31322 net.cpp:148] Top shape: 24 96 28 28 (1806336)
I0403 15:13:57.977569 31322 net.cpp:156] Memory required for data: 744211488
I0403 15:13:57.977586 31322 layer_factory.hpp:77] Creating layer inception_3b/pool
I0403 15:13:57.977604 31322 net.cpp:91] Creating Layer inception_3b/pool
I0403 15:13:57.977623 31322 net.cpp:425] inception_3b/pool <- inception_3a/output_inception_3a/output_0_split_3
I0403 15:13:57.977641 31322 net.cpp:399] inception_3b/pool -> inception_3b/pool
I0403 15:13:57.977695 31322 net.cpp:141] Setting up inception_3b/pool
I0403 15:13:57.977720 31322 net.cpp:148] Top shape: 24 256 28 28 (4816896)
I0403 15:13:57.977735 31322 net.cpp:156] Memory required for data: 763479072
I0403 15:13:57.977751 31322 layer_factory.hpp:77] Creating layer inception_3b/pool_proj
I0403 15:13:57.977772 31322 net.cpp:91] Creating Layer inception_3b/pool_proj
I0403 15:13:57.977790 31322 net.cpp:425] inception_3b/pool_proj <- inception_3b/pool
I0403 15:13:57.977812 31322 net.cpp:399] inception_3b/pool_proj -> inception_3b/pool_proj
I0403 15:13:57.978821 31322 net.cpp:141] Setting up inception_3b/pool_proj
I0403 15:13:57.978849 31322 net.cpp:148] Top shape: 24 64 28 28 (1204224)
I0403 15:13:57.978865 31322 net.cpp:156] Memory required for data: 768295968
I0403 15:13:57.978884 31322 layer_factory.hpp:77] Creating layer inception_3b/relu_pool_proj
I0403 15:13:57.978905 31322 net.cpp:91] Creating Layer inception_3b/relu_pool_proj
I0403 15:13:57.978922 31322 net.cpp:425] inception_3b/relu_pool_proj <- inception_3b/pool_proj
I0403 15:13:57.978941 31322 net.cpp:386] inception_3b/relu_pool_proj -> inception_3b/pool_proj (in-place)
I0403 15:13:57.979328 31322 net.cpp:141] Setting up inception_3b/relu_pool_proj
I0403 15:13:57.979356 31322 net.cpp:148] Top shape: 24 64 28 28 (1204224)
I0403 15:13:57.979370 31322 net.cpp:156] Memory required for data: 773112864
I0403 15:13:57.979387 31322 layer_factory.hpp:77] Creating layer inception_3b/output
I0403 15:13:57.979405 31322 net.cpp:91] Creating Layer inception_3b/output
I0403 15:13:57.979421 31322 net.cpp:425] inception_3b/output <- inception_3b/1x1
I0403 15:13:57.979439 31322 net.cpp:425] inception_3b/output <- inception_3b/3x3
I0403 15:13:57.979455 31322 net.cpp:425] inception_3b/output <- inception_3b/5x5
I0403 15:13:57.979471 31322 net.cpp:425] inception_3b/output <- inception_3b/pool_proj
I0403 15:13:57.979490 31322 net.cpp:399] inception_3b/output -> inception_3b/output
I0403 15:13:57.979535 31322 net.cpp:141] Setting up inception_3b/output
I0403 15:13:57.979562 31322 net.cpp:148] Top shape: 24 480 28 28 (9031680)
I0403 15:13:57.979578 31322 net.cpp:156] Memory required for data: 809239584
I0403 15:13:57.979594 31322 layer_factory.hpp:77] Creating layer pool3/3x3_s2
I0403 15:13:57.979612 31322 net.cpp:91] Creating Layer pool3/3x3_s2
I0403 15:13:57.979629 31322 net.cpp:425] pool3/3x3_s2 <- inception_3b/output
I0403 15:13:57.979647 31322 net.cpp:399] pool3/3x3_s2 -> pool3/3x3_s2
I0403 15:13:57.979719 31322 net.cpp:141] Setting up pool3/3x3_s2
I0403 15:13:57.979743 31322 net.cpp:148] Top shape: 24 480 14 14 (2257920)
I0403 15:13:57.979758 31322 net.cpp:156] Memory required for data: 818271264
I0403 15:13:57.979773 31322 layer_factory.hpp:77] Creating layer pool3/3x3_s2_pool3/3x3_s2_0_split
I0403 15:13:57.979791 31322 net.cpp:91] Creating Layer pool3/3x3_s2_pool3/3x3_s2_0_split
I0403 15:13:57.979807 31322 net.cpp:425] pool3/3x3_s2_pool3/3x3_s2_0_split <- pool3/3x3_s2
I0403 15:13:57.979828 31322 net.cpp:399] pool3/3x3_s2_pool3/3x3_s2_0_split -> pool3/3x3_s2_pool3/3x3_s2_0_split_0
I0403 15:13:57.979849 31322 net.cpp:399] pool3/3x3_s2_pool3/3x3_s2_0_split -> pool3/3x3_s2_pool3/3x3_s2_0_split_1
I0403 15:13:57.979871 31322 net.cpp:399] pool3/3x3_s2_pool3/3x3_s2_0_split -> pool3/3x3_s2_pool3/3x3_s2_0_split_2
I0403 15:13:57.979890 31322 net.cpp:399] pool3/3x3_s2_pool3/3x3_s2_0_split -> pool3/3x3_s2_pool3/3x3_s2_0_split_3
I0403 15:13:57.979969 31322 net.cpp:141] Setting up pool3/3x3_s2_pool3/3x3_s2_0_split
I0403 15:13:57.979992 31322 net.cpp:148] Top shape: 24 480 14 14 (2257920)
I0403 15:13:57.980010 31322 net.cpp:148] Top shape: 24 480 14 14 (2257920)
I0403 15:13:57.980026 31322 net.cpp:148] Top shape: 24 480 14 14 (2257920)
I0403 15:13:57.980044 31322 net.cpp:148] Top shape: 24 480 14 14 (2257920)
I0403 15:13:57.980058 31322 net.cpp:156] Memory required for data: 854397984
I0403 15:13:57.980073 31322 layer_factory.hpp:77] Creating layer inception_4a/1x1
I0403 15:13:57.980096 31322 net.cpp:91] Creating Layer inception_4a/1x1
I0403 15:13:57.980115 31322 net.cpp:425] inception_4a/1x1 <- pool3/3x3_s2_pool3/3x3_s2_0_split_0
I0403 15:13:57.980137 31322 net.cpp:399] inception_4a/1x1 -> inception_4a/1x1
I0403 15:13:57.981711 31322 net.cpp:141] Setting up inception_4a/1x1
I0403 15:13:57.981740 31322 net.cpp:148] Top shape: 24 192 14 14 (903168)
I0403 15:13:57.981756 31322 net.cpp:156] Memory required for data: 858010656
I0403 15:13:57.981775 31322 layer_factory.hpp:77] Creating layer inception_4a/relu_1x1
I0403 15:13:57.981797 31322 net.cpp:91] Creating Layer inception_4a/relu_1x1
I0403 15:13:57.981814 31322 net.cpp:425] inception_4a/relu_1x1 <- inception_4a/1x1
I0403 15:13:57.981832 31322 net.cpp:386] inception_4a/relu_1x1 -> inception_4a/1x1 (in-place)
I0403 15:13:57.982000 31322 net.cpp:141] Setting up inception_4a/relu_1x1
I0403 15:13:57.982025 31322 net.cpp:148] Top shape: 24 192 14 14 (903168)
I0403 15:13:57.982041 31322 net.cpp:156] Memory required for data: 861623328
I0403 15:13:57.982056 31322 layer_factory.hpp:77] Creating layer inception_4a/3x3_reduce
I0403 15:13:57.982081 31322 net.cpp:91] Creating Layer inception_4a/3x3_reduce
I0403 15:13:57.982100 31322 net.cpp:425] inception_4a/3x3_reduce <- pool3/3x3_s2_pool3/3x3_s2_0_split_1
I0403 15:13:57.982120 31322 net.cpp:399] inception_4a/3x3_reduce -> inception_4a/3x3_reduce
I0403 15:13:57.983341 31322 net.cpp:141] Setting up inception_4a/3x3_reduce
I0403 15:13:57.983369 31322 net.cpp:148] Top shape: 24 96 14 14 (451584)
I0403 15:13:57.983386 31322 net.cpp:156] Memory required for data: 863429664
I0403 15:13:57.983412 31322 layer_factory.hpp:77] Creating layer inception_4a/relu_3x3_reduce
I0403 15:13:57.983433 31322 net.cpp:91] Creating Layer inception_4a/relu_3x3_reduce
I0403 15:13:57.983448 31322 net.cpp:425] inception_4a/relu_3x3_reduce <- inception_4a/3x3_reduce
I0403 15:13:57.983469 31322 net.cpp:386] inception_4a/relu_3x3_reduce -> inception_4a/3x3_reduce (in-place)
I0403 15:13:57.983640 31322 net.cpp:141] Setting up inception_4a/relu_3x3_reduce
I0403 15:13:57.983665 31322 net.cpp:148] Top shape: 24 96 14 14 (451584)
I0403 15:13:57.983680 31322 net.cpp:156] Memory required for data: 865236000
I0403 15:13:57.983697 31322 layer_factory.hpp:77] Creating layer inception_4a/3x3
I0403 15:13:57.983721 31322 net.cpp:91] Creating Layer inception_4a/3x3
I0403 15:13:57.983738 31322 net.cpp:425] inception_4a/3x3 <- inception_4a/3x3_reduce
I0403 15:13:57.983759 31322 net.cpp:399] inception_4a/3x3 -> inception_4a/3x3
I0403 15:13:57.986358 31322 net.cpp:141] Setting up inception_4a/3x3
I0403 15:13:57.986387 31322 net.cpp:148] Top shape: 24 208 14 14 (978432)
I0403 15:13:57.986404 31322 net.cpp:156] Memory required for data: 869149728
I0403 15:13:57.986423 31322 layer_factory.hpp:77] Creating layer inception_4a/relu_3x3
I0403 15:13:57.986445 31322 net.cpp:91] Creating Layer inception_4a/relu_3x3
I0403 15:13:57.986462 31322 net.cpp:425] inception_4a/relu_3x3 <- inception_4a/3x3
I0403 15:13:57.986480 31322 net.cpp:386] inception_4a/relu_3x3 -> inception_4a/3x3 (in-place)
I0403 15:13:57.986757 31322 net.cpp:141] Setting up inception_4a/relu_3x3
I0403 15:13:57.986783 31322 net.cpp:148] Top shape: 24 208 14 14 (978432)
I0403 15:13:57.986799 31322 net.cpp:156] Memory required for data: 873063456
I0403 15:13:57.986814 31322 layer_factory.hpp:77] Creating layer inception_4a/5x5_reduce
I0403 15:13:57.986837 31322 net.cpp:91] Creating Layer inception_4a/5x5_reduce
I0403 15:13:57.986855 31322 net.cpp:425] inception_4a/5x5_reduce <- pool3/3x3_s2_pool3/3x3_s2_0_split_2
I0403 15:13:57.986877 31322 net.cpp:399] inception_4a/5x5_reduce -> inception_4a/5x5_reduce
I0403 15:13:57.987948 31322 net.cpp:141] Setting up inception_4a/5x5_reduce
I0403 15:13:57.987978 31322 net.cpp:148] Top shape: 24 16 14 14 (75264)
I0403 15:13:57.987996 31322 net.cpp:156] Memory required for data: 873364512
I0403 15:13:57.988016 31322 layer_factory.hpp:77] Creating layer inception_4a/relu_5x5_reduce
I0403 15:13:57.988036 31322 net.cpp:91] Creating Layer inception_4a/relu_5x5_reduce
I0403 15:13:57.988052 31322 net.cpp:425] inception_4a/relu_5x5_reduce <- inception_4a/5x5_reduce
I0403 15:13:57.988070 31322 net.cpp:386] inception_4a/relu_5x5_reduce -> inception_4a/5x5_reduce (in-place)
I0403 15:13:57.988242 31322 net.cpp:141] Setting up inception_4a/relu_5x5_reduce
I0403 15:13:57.988270 31322 net.cpp:148] Top shape: 24 16 14 14 (75264)
I0403 15:13:57.988286 31322 net.cpp:156] Memory required for data: 873665568
I0403 15:13:57.988302 31322 layer_factory.hpp:77] Creating layer inception_4a/5x5
I0403 15:13:57.988330 31322 net.cpp:91] Creating Layer inception_4a/5x5
I0403 15:13:57.988349 31322 net.cpp:425] inception_4a/5x5 <- inception_4a/5x5_reduce
I0403 15:13:57.988373 31322 net.cpp:399] inception_4a/5x5 -> inception_4a/5x5
I0403 15:13:57.989442 31322 net.cpp:141] Setting up inception_4a/5x5
I0403 15:13:57.989472 31322 net.cpp:148] Top shape: 24 48 14 14 (225792)
I0403 15:13:57.989490 31322 net.cpp:156] Memory required for data: 874568736
I0403 15:13:57.989511 31322 layer_factory.hpp:77] Creating layer inception_4a/relu_5x5
I0403 15:13:57.989531 31322 net.cpp:91] Creating Layer inception_4a/relu_5x5
I0403 15:13:57.989547 31322 net.cpp:425] inception_4a/relu_5x5 <- inception_4a/5x5
I0403 15:13:57.989568 31322 net.cpp:386] inception_4a/relu_5x5 -> inception_4a/5x5 (in-place)
I0403 15:13:57.989761 31322 net.cpp:141] Setting up inception_4a/relu_5x5
I0403 15:13:57.989787 31322 net.cpp:148] Top shape: 24 48 14 14 (225792)
I0403 15:13:57.989804 31322 net.cpp:156] Memory required for data: 875471904
I0403 15:13:57.989821 31322 layer_factory.hpp:77] Creating layer inception_4a/pool
I0403 15:13:57.989841 31322 net.cpp:91] Creating Layer inception_4a/pool
I0403 15:13:57.989859 31322 net.cpp:425] inception_4a/pool <- pool3/3x3_s2_pool3/3x3_s2_0_split_3
I0403 15:13:57.989878 31322 net.cpp:399] inception_4a/pool -> inception_4a/pool
I0403 15:13:57.989943 31322 net.cpp:141] Setting up inception_4a/pool
I0403 15:13:57.989969 31322 net.cpp:148] Top shape: 24 480 14 14 (2257920)
I0403 15:13:57.989984 31322 net.cpp:156] Memory required for data: 884503584
I0403 15:13:57.990001 31322 layer_factory.hpp:77] Creating layer inception_4a/pool_proj
I0403 15:13:57.990025 31322 net.cpp:91] Creating Layer inception_4a/pool_proj
I0403 15:13:57.990042 31322 net.cpp:425] inception_4a/pool_proj <- inception_4a/pool
I0403 15:13:57.990064 31322 net.cpp:399] inception_4a/pool_proj -> inception_4a/pool_proj
I0403 15:13:57.991251 31322 net.cpp:141] Setting up inception_4a/pool_proj
I0403 15:13:57.991281 31322 net.cpp:148] Top shape: 24 64 14 14 (301056)
I0403 15:13:57.991313 31322 net.cpp:156] Memory required for data: 885707808
I0403 15:13:57.991339 31322 layer_factory.hpp:77] Creating layer inception_4a/relu_pool_proj
I0403 15:13:57.991358 31322 net.cpp:91] Creating Layer inception_4a/relu_pool_proj
I0403 15:13:57.991376 31322 net.cpp:425] inception_4a/relu_pool_proj <- inception_4a/pool_proj
I0403 15:13:57.991400 31322 net.cpp:386] inception_4a/relu_pool_proj -> inception_4a/pool_proj (in-place)
I0403 15:13:57.991689 31322 net.cpp:141] Setting up inception_4a/relu_pool_proj
I0403 15:13:57.991716 31322 net.cpp:148] Top shape: 24 64 14 14 (301056)
I0403 15:13:57.991734 31322 net.cpp:156] Memory required for data: 886912032
I0403 15:13:57.991750 31322 layer_factory.hpp:77] Creating layer inception_4a/output
I0403 15:13:57.991770 31322 net.cpp:91] Creating Layer inception_4a/output
I0403 15:13:57.991786 31322 net.cpp:425] inception_4a/output <- inception_4a/1x1
I0403 15:13:57.991803 31322 net.cpp:425] inception_4a/output <- inception_4a/3x3
I0403 15:13:57.991822 31322 net.cpp:425] inception_4a/output <- inception_4a/5x5
I0403 15:13:57.991839 31322 net.cpp:425] inception_4a/output <- inception_4a/pool_proj
I0403 15:13:57.991860 31322 net.cpp:399] inception_4a/output -> inception_4a/output
I0403 15:13:57.991909 31322 net.cpp:141] Setting up inception_4a/output
I0403 15:13:57.991935 31322 net.cpp:148] Top shape: 24 512 14 14 (2408448)
I0403 15:13:57.991952 31322 net.cpp:156] Memory required for data: 896545824
I0403 15:13:57.991969 31322 layer_factory.hpp:77] Creating layer inception_4a/output_inception_4a/output_0_split
I0403 15:13:57.991989 31322 net.cpp:91] Creating Layer inception_4a/output_inception_4a/output_0_split
I0403 15:13:57.992019 31322 net.cpp:425] inception_4a/output_inception_4a/output_0_split <- inception_4a/output
I0403 15:13:57.992041 31322 net.cpp:399] inception_4a/output_inception_4a/output_0_split -> inception_4a/output_inception_4a/output_0_split_0
I0403 15:13:57.992065 31322 net.cpp:399] inception_4a/output_inception_4a/output_0_split -> inception_4a/output_inception_4a/output_0_split_1
I0403 15:13:57.992089 31322 net.cpp:399] inception_4a/output_inception_4a/output_0_split -> inception_4a/output_inception_4a/output_0_split_2
I0403 15:13:57.992110 31322 net.cpp:399] inception_4a/output_inception_4a/output_0_split -> inception_4a/output_inception_4a/output_0_split_3
I0403 15:13:57.992132 31322 net.cpp:399] inception_4a/output_inception_4a/output_0_split -> inception_4a/output_inception_4a/output_0_split_4
I0403 15:13:57.992228 31322 net.cpp:141] Setting up inception_4a/output_inception_4a/output_0_split
I0403 15:13:57.992255 31322 net.cpp:148] Top shape: 24 512 14 14 (2408448)
I0403 15:13:57.992274 31322 net.cpp:148] Top shape: 24 512 14 14 (2408448)
I0403 15:13:57.992292 31322 net.cpp:148] Top shape: 24 512 14 14 (2408448)
I0403 15:13:57.992311 31322 net.cpp:148] Top shape: 24 512 14 14 (2408448)
I0403 15:13:57.992333 31322 net.cpp:148] Top shape: 24 512 14 14 (2408448)
I0403 15:13:57.992350 31322 net.cpp:156] Memory required for data: 944714784
I0403 15:13:57.992367 31322 layer_factory.hpp:77] Creating layer loss1/ave_pool
I0403 15:13:57.992386 31322 net.cpp:91] Creating Layer loss1/ave_pool
I0403 15:13:57.992403 31322 net.cpp:425] loss1/ave_pool <- inception_4a/output_inception_4a/output_0_split_0
I0403 15:13:57.992424 31322 net.cpp:399] loss1/ave_pool -> loss1/ave_pool
I0403 15:13:57.992635 31322 net.cpp:141] Setting up loss1/ave_pool
I0403 15:13:57.992661 31322 net.cpp:148] Top shape: 24 512 4 4 (196608)
I0403 15:13:57.992678 31322 net.cpp:156] Memory required for data: 945501216
I0403 15:13:57.992696 31322 layer_factory.hpp:77] Creating layer loss1/conv
I0403 15:13:57.992718 31322 net.cpp:91] Creating Layer loss1/conv
I0403 15:13:57.992738 31322 net.cpp:425] loss1/conv <- loss1/ave_pool
I0403 15:13:57.992759 31322 net.cpp:399] loss1/conv -> loss1/conv
I0403 15:13:57.994235 31322 net.cpp:141] Setting up loss1/conv
I0403 15:13:57.994264 31322 net.cpp:148] Top shape: 24 128 4 4 (49152)
I0403 15:13:57.994284 31322 net.cpp:156] Memory required for data: 945697824
I0403 15:13:57.994323 31322 layer_factory.hpp:77] Creating layer loss1/relu_conv
I0403 15:13:57.994346 31322 net.cpp:91] Creating Layer loss1/relu_conv
I0403 15:13:57.994364 31322 net.cpp:425] loss1/relu_conv <- loss1/conv
I0403 15:13:57.994385 31322 net.cpp:386] loss1/relu_conv -> loss1/conv (in-place)
I0403 15:13:57.994673 31322 net.cpp:141] Setting up loss1/relu_conv
I0403 15:13:57.994701 31322 net.cpp:148] Top shape: 24 128 4 4 (49152)
I0403 15:13:57.994722 31322 net.cpp:156] Memory required for data: 945894432
I0403 15:13:57.994740 31322 layer_factory.hpp:77] Creating layer loss1/fc
I0403 15:13:57.994765 31322 net.cpp:91] Creating Layer loss1/fc
I0403 15:13:57.994783 31322 net.cpp:425] loss1/fc <- loss1/conv
I0403 15:13:57.994807 31322 net.cpp:399] loss1/fc -> loss1/fc
I0403 15:13:58.013116 31322 net.cpp:141] Setting up loss1/fc
I0403 15:13:58.013175 31322 net.cpp:148] Top shape: 24 1024 (24576)
I0403 15:13:58.013192 31322 net.cpp:156] Memory required for data: 945992736
I0403 15:13:58.013214 31322 layer_factory.hpp:77] Creating layer loss1/relu_fc
I0403 15:13:58.013236 31322 net.cpp:91] Creating Layer loss1/relu_fc
I0403 15:13:58.013257 31322 net.cpp:425] loss1/relu_fc <- loss1/fc
I0403 15:13:58.013293 31322 net.cpp:386] loss1/relu_fc -> loss1/fc (in-place)
I0403 15:13:58.013520 31322 net.cpp:141] Setting up loss1/relu_fc
I0403 15:13:58.013550 31322 net.cpp:148] Top shape: 24 1024 (24576)
I0403 15:13:58.013578 31322 net.cpp:156] Memory required for data: 946091040
I0403 15:13:58.013594 31322 layer_factory.hpp:77] Creating layer loss1/drop_fc
I0403 15:13:58.013624 31322 net.cpp:91] Creating Layer loss1/drop_fc
I0403 15:13:58.013644 31322 net.cpp:425] loss1/drop_fc <- loss1/fc
I0403 15:13:58.013664 31322 net.cpp:386] loss1/drop_fc -> loss1/fc (in-place)
I0403 15:13:58.013720 31322 net.cpp:141] Setting up loss1/drop_fc
I0403 15:13:58.013747 31322 net.cpp:148] Top shape: 24 1024 (24576)
I0403 15:13:58.013763 31322 net.cpp:156] Memory required for data: 946189344
I0403 15:13:58.013780 31322 layer_factory.hpp:77] Creating layer loss1/classifier_plantvillage
I0403 15:13:58.013802 31322 net.cpp:91] Creating Layer loss1/classifier_plantvillage
I0403 15:13:58.013819 31322 net.cpp:425] loss1/classifier_plantvillage <- loss1/fc
I0403 15:13:58.013846 31322 net.cpp:399] loss1/classifier_plantvillage -> loss1/classifier_plantvillage
I0403 15:13:58.014806 31322 net.cpp:141] Setting up loss1/classifier_plantvillage
I0403 15:13:58.014837 31322 net.cpp:148] Top shape: 24 38 (912)
I0403 15:13:58.014853 31322 net.cpp:156] Memory required for data: 946192992
I0403 15:13:58.014873 31322 layer_factory.hpp:77] Creating layer loss1/classifier_plantvillage_loss1/classifier_plantvillage_0_split
I0403 15:13:58.014895 31322 net.cpp:91] Creating Layer loss1/classifier_plantvillage_loss1/classifier_plantvillage_0_split
I0403 15:13:58.014914 31322 net.cpp:425] loss1/classifier_plantvillage_loss1/classifier_plantvillage_0_split <- loss1/classifier_plantvillage
I0403 15:13:58.014935 31322 net.cpp:399] loss1/classifier_plantvillage_loss1/classifier_plantvillage_0_split -> loss1/classifier_plantvillage_loss1/classifier_plantvillage_0_split_0
I0403 15:13:58.014957 31322 net.cpp:399] loss1/classifier_plantvillage_loss1/classifier_plantvillage_0_split -> loss1/classifier_plantvillage_loss1/classifier_plantvillage_0_split_1
I0403 15:13:58.014981 31322 net.cpp:399] loss1/classifier_plantvillage_loss1/classifier_plantvillage_0_split -> loss1/classifier_plantvillage_loss1/classifier_plantvillage_0_split_2
I0403 15:13:58.015051 31322 net.cpp:141] Setting up loss1/classifier_plantvillage_loss1/classifier_plantvillage_0_split
I0403 15:13:58.015076 31322 net.cpp:148] Top shape: 24 38 (912)
I0403 15:13:58.015094 31322 net.cpp:148] Top shape: 24 38 (912)
I0403 15:13:58.015113 31322 net.cpp:148] Top shape: 24 38 (912)
I0403 15:13:58.015127 31322 net.cpp:156] Memory required for data: 946203936
I0403 15:13:58.015144 31322 layer_factory.hpp:77] Creating layer inception_4b/1x1
I0403 15:13:58.015167 31322 net.cpp:91] Creating Layer inception_4b/1x1
I0403 15:13:58.015207 31322 net.cpp:425] inception_4b/1x1 <- inception_4a/output_inception_4a/output_0_split_1
I0403 15:13:58.015233 31322 net.cpp:399] inception_4b/1x1 -> inception_4b/1x1
I0403 15:13:58.016969 31322 net.cpp:141] Setting up inception_4b/1x1
I0403 15:13:58.017001 31322 net.cpp:148] Top shape: 24 160 14 14 (752640)
I0403 15:13:58.017021 31322 net.cpp:156] Memory required for data: 949214496
I0403 15:13:58.017042 31322 layer_factory.hpp:77] Creating layer inception_4b/relu_1x1
I0403 15:13:58.017062 31322 net.cpp:91] Creating Layer inception_4b/relu_1x1
I0403 15:13:58.017081 31322 net.cpp:425] inception_4b/relu_1x1 <- inception_4b/1x1
I0403 15:13:58.017099 31322 net.cpp:386] inception_4b/relu_1x1 -> inception_4b/1x1 (in-place)
I0403 15:13:58.017287 31322 net.cpp:141] Setting up inception_4b/relu_1x1
I0403 15:13:58.017318 31322 net.cpp:148] Top shape: 24 160 14 14 (752640)
I0403 15:13:58.017338 31322 net.cpp:156] Memory required for data: 952225056
I0403 15:13:58.017354 31322 layer_factory.hpp:77] Creating layer inception_4b/3x3_reduce
I0403 15:13:58.017379 31322 net.cpp:91] Creating Layer inception_4b/3x3_reduce
I0403 15:13:58.017397 31322 net.cpp:425] inception_4b/3x3_reduce <- inception_4a/output_inception_4a/output_0_split_2
I0403 15:13:58.017422 31322 net.cpp:399] inception_4b/3x3_reduce -> inception_4b/3x3_reduce
I0403 15:13:58.018811 31322 net.cpp:141] Setting up inception_4b/3x3_reduce
I0403 15:13:58.018844 31322 net.cpp:148] Top shape: 24 112 14 14 (526848)
I0403 15:13:58.018863 31322 net.cpp:156] Memory required for data: 954332448
I0403 15:13:58.018884 31322 layer_factory.hpp:77] Creating layer inception_4b/relu_3x3_reduce
I0403 15:13:58.018904 31322 net.cpp:91] Creating Layer inception_4b/relu_3x3_reduce
I0403 15:13:58.018921 31322 net.cpp:425] inception_4b/relu_3x3_reduce <- inception_4b/3x3_reduce
I0403 15:13:58.018944 31322 net.cpp:386] inception_4b/relu_3x3_reduce -> inception_4b/3x3_reduce (in-place)
I0403 15:13:58.019229 31322 net.cpp:141] Setting up inception_4b/relu_3x3_reduce
I0403 15:13:58.019259 31322 net.cpp:148] Top shape: 24 112 14 14 (526848)
I0403 15:13:58.019276 31322 net.cpp:156] Memory required for data: 956439840
I0403 15:13:58.019294 31322 layer_factory.hpp:77] Creating layer inception_4b/3x3
I0403 15:13:58.019322 31322 net.cpp:91] Creating Layer inception_4b/3x3
I0403 15:13:58.019342 31322 net.cpp:425] inception_4b/3x3 <- inception_4b/3x3_reduce
I0403 15:13:58.019363 31322 net.cpp:399] inception_4b/3x3 -> inception_4b/3x3
I0403 15:13:58.022447 31322 net.cpp:141] Setting up inception_4b/3x3
I0403 15:13:58.022480 31322 net.cpp:148] Top shape: 24 224 14 14 (1053696)
I0403 15:13:58.022496 31322 net.cpp:156] Memory required for data: 960654624
I0403 15:13:58.022516 31322 layer_factory.hpp:77] Creating layer inception_4b/relu_3x3
I0403 15:13:58.022539 31322 net.cpp:91] Creating Layer inception_4b/relu_3x3
I0403 15:13:58.022558 31322 net.cpp:425] inception_4b/relu_3x3 <- inception_4b/3x3
I0403 15:13:58.022578 31322 net.cpp:386] inception_4b/relu_3x3 -> inception_4b/3x3 (in-place)
I0403 15:13:58.022766 31322 net.cpp:141] Setting up inception_4b/relu_3x3
I0403 15:13:58.022794 31322 net.cpp:148] Top shape: 24 224 14 14 (1053696)
I0403 15:13:58.022809 31322 net.cpp:156] Memory required for data: 964869408
I0403 15:13:58.022825 31322 layer_factory.hpp:77] Creating layer inception_4b/5x5_reduce
I0403 15:13:58.022851 31322 net.cpp:91] Creating Layer inception_4b/5x5_reduce
I0403 15:13:58.022871 31322 net.cpp:425] inception_4b/5x5_reduce <- inception_4a/output_inception_4a/output_0_split_3
I0403 15:13:58.022892 31322 net.cpp:399] inception_4b/5x5_reduce -> inception_4b/5x5_reduce
I0403 15:13:58.024004 31322 net.cpp:141] Setting up inception_4b/5x5_reduce
I0403 15:13:58.024036 31322 net.cpp:148] Top shape: 24 24 14 14 (112896)
I0403 15:13:58.024055 31322 net.cpp:156] Memory required for data: 965320992
I0403 15:13:58.024075 31322 layer_factory.hpp:77] Creating layer inception_4b/relu_5x5_reduce
I0403 15:13:58.024096 31322 net.cpp:91] Creating Layer inception_4b/relu_5x5_reduce
I0403 15:13:58.024129 31322 net.cpp:425] inception_4b/relu_5x5_reduce <- inception_4b/5x5_reduce
I0403 15:13:58.024152 31322 net.cpp:386] inception_4b/relu_5x5_reduce -> inception_4b/5x5_reduce (in-place)
I0403 15:13:58.024355 31322 net.cpp:141] Setting up inception_4b/relu_5x5_reduce
I0403 15:13:58.024382 31322 net.cpp:148] Top shape: 24 24 14 14 (112896)
I0403 15:13:58.024399 31322 net.cpp:156] Memory required for data: 965772576
I0403 15:13:58.024415 31322 layer_factory.hpp:77] Creating layer inception_4b/5x5
I0403 15:13:58.024441 31322 net.cpp:91] Creating Layer inception_4b/5x5
I0403 15:13:58.024461 31322 net.cpp:425] inception_4b/5x5 <- inception_4b/5x5_reduce
I0403 15:13:58.024483 31322 net.cpp:399] inception_4b/5x5 -> inception_4b/5x5
I0403 15:13:58.025729 31322 net.cpp:141] Setting up inception_4b/5x5
I0403 15:13:58.025761 31322 net.cpp:148] Top shape: 24 64 14 14 (301056)
I0403 15:13:58.025779 31322 net.cpp:156] Memory required for data: 966976800
I0403 15:13:58.025799 31322 layer_factory.hpp:77] Creating layer inception_4b/relu_5x5
I0403 15:13:58.025820 31322 net.cpp:91] Creating Layer inception_4b/relu_5x5
I0403 15:13:58.025838 31322 net.cpp:425] inception_4b/relu_5x5 <- inception_4b/5x5
I0403 15:13:58.025857 31322 net.cpp:386] inception_4b/relu_5x5 -> inception_4b/5x5 (in-place)
I0403 15:13:58.026149 31322 net.cpp:141] Setting up inception_4b/relu_5x5
I0403 15:13:58.026178 31322 net.cpp:148] Top shape: 24 64 14 14 (301056)
I0403 15:13:58.026196 31322 net.cpp:156] Memory required for data: 968181024
I0403 15:13:58.026213 31322 layer_factory.hpp:77] Creating layer inception_4b/pool
I0403 15:13:58.026235 31322 net.cpp:91] Creating Layer inception_4b/pool
I0403 15:13:58.026253 31322 net.cpp:425] inception_4b/pool <- inception_4a/output_inception_4a/output_0_split_4
I0403 15:13:58.026285 31322 net.cpp:399] inception_4b/pool -> inception_4b/pool
I0403 15:13:58.026361 31322 net.cpp:141] Setting up inception_4b/pool
I0403 15:13:58.026388 31322 net.cpp:148] Top shape: 24 512 14 14 (2408448)
I0403 15:13:58.026404 31322 net.cpp:156] Memory required for data: 977814816
I0403 15:13:58.026422 31322 layer_factory.hpp:77] Creating layer inception_4b/pool_proj
I0403 15:13:58.026448 31322 net.cpp:91] Creating Layer inception_4b/pool_proj
I0403 15:13:58.026468 31322 net.cpp:425] inception_4b/pool_proj <- inception_4b/pool
I0403 15:13:58.026490 31322 net.cpp:399] inception_4b/pool_proj -> inception_4b/pool_proj
I0403 15:13:58.027734 31322 net.cpp:141] Setting up inception_4b/pool_proj
I0403 15:13:58.027768 31322 net.cpp:148] Top shape: 24 64 14 14 (301056)
I0403 15:13:58.027792 31322 net.cpp:156] Memory required for data: 979019040
I0403 15:13:58.027818 31322 layer_factory.hpp:77] Creating layer inception_4b/relu_pool_proj
I0403 15:13:58.027839 31322 net.cpp:91] Creating Layer inception_4b/relu_pool_proj
I0403 15:13:58.027858 31322 net.cpp:425] inception_4b/relu_pool_proj <- inception_4b/pool_proj
I0403 15:13:58.027876 31322 net.cpp:386] inception_4b/relu_pool_proj -> inception_4b/pool_proj (in-place)
I0403 15:13:58.028067 31322 net.cpp:141] Setting up inception_4b/relu_pool_proj
I0403 15:13:58.028095 31322 net.cpp:148] Top shape: 24 64 14 14 (301056)
I0403 15:13:58.028110 31322 net.cpp:156] Memory required for data: 980223264
I0403 15:13:58.028127 31322 layer_factory.hpp:77] Creating layer inception_4b/output
I0403 15:13:58.028147 31322 net.cpp:91] Creating Layer inception_4b/output
I0403 15:13:58.028163 31322 net.cpp:425] inception_4b/output <- inception_4b/1x1
I0403 15:13:58.028182 31322 net.cpp:425] inception_4b/output <- inception_4b/3x3
I0403 15:13:58.028199 31322 net.cpp:425] inception_4b/output <- inception_4b/5x5
I0403 15:13:58.028216 31322 net.cpp:425] inception_4b/output <- inception_4b/pool_proj
I0403 15:13:58.028237 31322 net.cpp:399] inception_4b/output -> inception_4b/output
I0403 15:13:58.028285 31322 net.cpp:141] Setting up inception_4b/output
I0403 15:13:58.028322 31322 net.cpp:148] Top shape: 24 512 14 14 (2408448)
I0403 15:13:58.028343 31322 net.cpp:156] Memory required for data: 989857056
I0403 15:13:58.028381 31322 layer_factory.hpp:77] Creating layer inception_4b/output_inception_4b/output_0_split
I0403 15:13:58.028409 31322 net.cpp:91] Creating Layer inception_4b/output_inception_4b/output_0_split
I0403 15:13:58.028434 31322 net.cpp:425] inception_4b/output_inception_4b/output_0_split <- inception_4b/output
I0403 15:13:58.028460 31322 net.cpp:399] inception_4b/output_inception_4b/output_0_split -> inception_4b/output_inception_4b/output_0_split_0
I0403 15:13:58.028489 31322 net.cpp:399] inception_4b/output_inception_4b/output_0_split -> inception_4b/output_inception_4b/output_0_split_1
I0403 15:13:58.028512 31322 net.cpp:399] inception_4b/output_inception_4b/output_0_split -> inception_4b/output_inception_4b/output_0_split_2
I0403 15:13:58.028534 31322 net.cpp:399] inception_4b/output_inception_4b/output_0_split -> inception_4b/output_inception_4b/output_0_split_3
I0403 15:13:58.028620 31322 net.cpp:141] Setting up inception_4b/output_inception_4b/output_0_split
I0403 15:13:58.028645 31322 net.cpp:148] Top shape: 24 512 14 14 (2408448)
I0403 15:13:58.028662 31322 net.cpp:148] Top shape: 24 512 14 14 (2408448)
I0403 15:13:58.028681 31322 net.cpp:148] Top shape: 24 512 14 14 (2408448)
I0403 15:13:58.028697 31322 net.cpp:148] Top shape: 24 512 14 14 (2408448)
I0403 15:13:58.028712 31322 net.cpp:156] Memory required for data: 1028392224
I0403 15:13:58.028728 31322 layer_factory.hpp:77] Creating layer inception_4c/1x1
I0403 15:13:58.028751 31322 net.cpp:91] Creating Layer inception_4c/1x1
I0403 15:13:58.028770 31322 net.cpp:425] inception_4c/1x1 <- inception_4b/output_inception_4b/output_0_split_0
I0403 15:13:58.028794 31322 net.cpp:399] inception_4c/1x1 -> inception_4c/1x1
I0403 15:13:58.030277 31322 net.cpp:141] Setting up inception_4c/1x1
I0403 15:13:58.030305 31322 net.cpp:148] Top shape: 24 128 14 14 (602112)
I0403 15:13:58.030328 31322 net.cpp:156] Memory required for data: 1030800672
I0403 15:13:58.030349 31322 layer_factory.hpp:77] Creating layer inception_4c/relu_1x1
I0403 15:13:58.030371 31322 net.cpp:91] Creating Layer inception_4c/relu_1x1
I0403 15:13:58.030390 31322 net.cpp:425] inception_4c/relu_1x1 <- inception_4c/1x1
I0403 15:13:58.030410 31322 net.cpp:386] inception_4c/relu_1x1 -> inception_4c/1x1 (in-place)
I0403 15:13:58.030601 31322 net.cpp:141] Setting up inception_4c/relu_1x1
I0403 15:13:58.030628 31322 net.cpp:148] Top shape: 24 128 14 14 (602112)
I0403 15:13:58.030643 31322 net.cpp:156] Memory required for data: 1033209120
I0403 15:13:58.030659 31322 layer_factory.hpp:77] Creating layer inception_4c/3x3_reduce
I0403 15:13:58.030683 31322 net.cpp:91] Creating Layer inception_4c/3x3_reduce
I0403 15:13:58.030702 31322 net.cpp:425] inception_4c/3x3_reduce <- inception_4b/output_inception_4b/output_0_split_1
I0403 15:13:58.030726 31322 net.cpp:399] inception_4c/3x3_reduce -> inception_4c/3x3_reduce
I0403 15:13:58.032713 31322 net.cpp:141] Setting up inception_4c/3x3_reduce
I0403 15:13:58.032744 31322 net.cpp:148] Top shape: 24 128 14 14 (602112)
I0403 15:13:58.032760 31322 net.cpp:156] Memory required for data: 1035617568
I0403 15:13:58.032781 31322 layer_factory.hpp:77] Creating layer inception_4c/relu_3x3_reduce
I0403 15:13:58.032802 31322 net.cpp:91] Creating Layer inception_4c/relu_3x3_reduce
I0403 15:13:58.032820 31322 net.cpp:425] inception_4c/relu_3x3_reduce <- inception_4c/3x3_reduce
I0403 15:13:58.032840 31322 net.cpp:386] inception_4c/relu_3x3_reduce -> inception_4c/3x3_reduce (in-place)
I0403 15:13:58.033136 31322 net.cpp:141] Setting up inception_4c/relu_3x3_reduce
I0403 15:13:58.033165 31322 net.cpp:148] Top shape: 24 128 14 14 (602112)
I0403 15:13:58.033181 31322 net.cpp:156] Memory required for data: 1038026016
I0403 15:13:58.033198 31322 layer_factory.hpp:77] Creating layer inception_4c/3x3
I0403 15:13:58.033226 31322 net.cpp:91] Creating Layer inception_4c/3x3
I0403 15:13:58.033246 31322 net.cpp:425] inception_4c/3x3 <- inception_4c/3x3_reduce
I0403 15:13:58.033267 31322 net.cpp:399] inception_4c/3x3 -> inception_4c/3x3
I0403 15:13:58.036977 31322 net.cpp:141] Setting up inception_4c/3x3
I0403 15:13:58.037024 31322 net.cpp:148] Top shape: 24 256 14 14 (1204224)
I0403 15:13:58.037042 31322 net.cpp:156] Memory required for data: 1042842912
I0403 15:13:58.037077 31322 layer_factory.hpp:77] Creating layer inception_4c/relu_3x3
I0403 15:13:58.037101 31322 net.cpp:91] Creating Layer inception_4c/relu_3x3
I0403 15:13:58.037119 31322 net.cpp:425] inception_4c/relu_3x3 <- inception_4c/3x3
I0403 15:13:58.037138 31322 net.cpp:386] inception_4c/relu_3x3 -> inception_4c/3x3 (in-place)
I0403 15:13:58.037331 31322 net.cpp:141] Setting up inception_4c/relu_3x3
I0403 15:13:58.037364 31322 net.cpp:148] Top shape: 24 256 14 14 (1204224)
I0403 15:13:58.037380 31322 net.cpp:156] Memory required for data: 1047659808
I0403 15:13:58.037397 31322 layer_factory.hpp:77] Creating layer inception_4c/5x5_reduce
I0403 15:13:58.037423 31322 net.cpp:91] Creating Layer inception_4c/5x5_reduce
I0403 15:13:58.037442 31322 net.cpp:425] inception_4c/5x5_reduce <- inception_4b/output_inception_4b/output_0_split_2
I0403 15:13:58.037464 31322 net.cpp:399] inception_4c/5x5_reduce -> inception_4c/5x5_reduce
I0403 15:13:58.038602 31322 net.cpp:141] Setting up inception_4c/5x5_reduce
I0403 15:13:58.038647 31322 net.cpp:148] Top shape: 24 24 14 14 (112896)
I0403 15:13:58.038666 31322 net.cpp:156] Memory required for data: 1048111392
I0403 15:13:58.038686 31322 layer_factory.hpp:77] Creating layer inception_4c/relu_5x5_reduce
I0403 15:13:58.038707 31322 net.cpp:91] Creating Layer inception_4c/relu_5x5_reduce
I0403 15:13:58.038725 31322 net.cpp:425] inception_4c/relu_5x5_reduce <- inception_4c/5x5_reduce
I0403 15:13:58.038746 31322 net.cpp:386] inception_4c/relu_5x5_reduce -> inception_4c/5x5_reduce (in-place)
I0403 15:13:58.038939 31322 net.cpp:141] Setting up inception_4c/relu_5x5_reduce
I0403 15:13:58.038965 31322 net.cpp:148] Top shape: 24 24 14 14 (112896)
I0403 15:13:58.038981 31322 net.cpp:156] Memory required for data: 1048562976
I0403 15:13:58.038998 31322 layer_factory.hpp:77] Creating layer inception_4c/5x5
I0403 15:13:58.039022 31322 net.cpp:91] Creating Layer inception_4c/5x5
I0403 15:13:58.039041 31322 net.cpp:425] inception_4c/5x5 <- inception_4c/5x5_reduce
I0403 15:13:58.039065 31322 net.cpp:399] inception_4c/5x5 -> inception_4c/5x5
I0403 15:13:58.040352 31322 net.cpp:141] Setting up inception_4c/5x5
I0403 15:13:58.040381 31322 net.cpp:148] Top shape: 24 64 14 14 (301056)
I0403 15:13:58.040400 31322 net.cpp:156] Memory required for data: 1049767200
I0403 15:13:58.040421 31322 layer_factory.hpp:77] Creating layer inception_4c/relu_5x5
I0403 15:13:58.040441 31322 net.cpp:91] Creating Layer inception_4c/relu_5x5
I0403 15:13:58.040457 31322 net.cpp:425] inception_4c/relu_5x5 <- inception_4c/5x5
I0403 15:13:58.040478 31322 net.cpp:386] inception_4c/relu_5x5 -> inception_4c/5x5 (in-place)
I0403 15:13:58.040779 31322 net.cpp:141] Setting up inception_4c/relu_5x5
I0403 15:13:58.040807 31322 net.cpp:148] Top shape: 24 64 14 14 (301056)
I0403 15:13:58.040823 31322 net.cpp:156] Memory required for data: 1050971424
I0403 15:13:58.040841 31322 layer_factory.hpp:77] Creating layer inception_4c/pool
I0403 15:13:58.040861 31322 net.cpp:91] Creating Layer inception_4c/pool
I0403 15:13:58.040879 31322 net.cpp:425] inception_4c/pool <- inception_4b/output_inception_4b/output_0_split_3
I0403 15:13:58.040900 31322 net.cpp:399] inception_4c/pool -> inception_4c/pool
I0403 15:13:58.040967 31322 net.cpp:141] Setting up inception_4c/pool
I0403 15:13:58.040995 31322 net.cpp:148] Top shape: 24 512 14 14 (2408448)
I0403 15:13:58.041013 31322 net.cpp:156] Memory required for data: 1060605216
I0403 15:13:58.041029 31322 layer_factory.hpp:77] Creating layer inception_4c/pool_proj
I0403 15:13:58.041054 31322 net.cpp:91] Creating Layer inception_4c/pool_proj
I0403 15:13:58.041072 31322 net.cpp:425] inception_4c/pool_proj <- inception_4c/pool
I0403 15:13:58.041093 31322 net.cpp:399] inception_4c/pool_proj -> inception_4c/pool_proj
I0403 15:13:58.042352 31322 net.cpp:141] Setting up inception_4c/pool_proj
I0403 15:13:58.042384 31322 net.cpp:148] Top shape: 24 64 14 14 (301056)
I0403 15:13:58.042419 31322 net.cpp:156] Memory required for data: 1061809440
I0403 15:13:58.042440 31322 layer_factory.hpp:77] Creating layer inception_4c/relu_pool_proj
I0403 15:13:58.042460 31322 net.cpp:91] Creating Layer inception_4c/relu_pool_proj
I0403 15:13:58.042479 31322 net.cpp:425] inception_4c/relu_pool_proj <- inception_4c/pool_proj
I0403 15:13:58.042498 31322 net.cpp:386] inception_4c/relu_pool_proj -> inception_4c/pool_proj (in-place)
I0403 15:13:58.042690 31322 net.cpp:141] Setting up inception_4c/relu_pool_proj
I0403 15:13:58.042717 31322 net.cpp:148] Top shape: 24 64 14 14 (301056)
I0403 15:13:58.042735 31322 net.cpp:156] Memory required for data: 1063013664
I0403 15:13:58.042752 31322 layer_factory.hpp:77] Creating layer inception_4c/output
I0403 15:13:58.042770 31322 net.cpp:91] Creating Layer inception_4c/output
I0403 15:13:58.042788 31322 net.cpp:425] inception_4c/output <- inception_4c/1x1
I0403 15:13:58.042807 31322 net.cpp:425] inception_4c/output <- inception_4c/3x3
I0403 15:13:58.042825 31322 net.cpp:425] inception_4c/output <- inception_4c/5x5
I0403 15:13:58.042842 31322 net.cpp:425] inception_4c/output <- inception_4c/pool_proj
I0403 15:13:58.042863 31322 net.cpp:399] inception_4c/output -> inception_4c/output
I0403 15:13:58.042912 31322 net.cpp:141] Setting up inception_4c/output
I0403 15:13:58.042938 31322 net.cpp:148] Top shape: 24 512 14 14 (2408448)
I0403 15:13:58.042954 31322 net.cpp:156] Memory required for data: 1072647456
I0403 15:13:58.042970 31322 layer_factory.hpp:77] Creating layer inception_4c/output_inception_4c/output_0_split
I0403 15:13:58.042991 31322 net.cpp:91] Creating Layer inception_4c/output_inception_4c/output_0_split
I0403 15:13:58.043009 31322 net.cpp:425] inception_4c/output_inception_4c/output_0_split <- inception_4c/output
I0403 15:13:58.043028 31322 net.cpp:399] inception_4c/output_inception_4c/output_0_split -> inception_4c/output_inception_4c/output_0_split_0
I0403 15:13:58.043052 31322 net.cpp:399] inception_4c/output_inception_4c/output_0_split -> inception_4c/output_inception_4c/output_0_split_1
I0403 15:13:58.043077 31322 net.cpp:399] inception_4c/output_inception_4c/output_0_split -> inception_4c/output_inception_4c/output_0_split_2
I0403 15:13:58.043099 31322 net.cpp:399] inception_4c/output_inception_4c/output_0_split -> inception_4c/output_inception_4c/output_0_split_3
I0403 15:13:58.043187 31322 net.cpp:141] Setting up inception_4c/output_inception_4c/output_0_split
I0403 15:13:58.043212 31322 net.cpp:148] Top shape: 24 512 14 14 (2408448)
I0403 15:13:58.043231 31322 net.cpp:148] Top shape: 24 512 14 14 (2408448)
I0403 15:13:58.043247 31322 net.cpp:148] Top shape: 24 512 14 14 (2408448)
I0403 15:13:58.043264 31322 net.cpp:148] Top shape: 24 512 14 14 (2408448)
I0403 15:13:58.043279 31322 net.cpp:156] Memory required for data: 1111182624
I0403 15:13:58.043295 31322 layer_factory.hpp:77] Creating layer inception_4d/1x1
I0403 15:13:58.043323 31322 net.cpp:91] Creating Layer inception_4d/1x1
I0403 15:13:58.043344 31322 net.cpp:425] inception_4d/1x1 <- inception_4c/output_inception_4c/output_0_split_0
I0403 15:13:58.043366 31322 net.cpp:399] inception_4d/1x1 -> inception_4d/1x1
I0403 15:13:58.044800 31322 net.cpp:141] Setting up inception_4d/1x1
I0403 15:13:58.044829 31322 net.cpp:148] Top shape: 24 112 14 14 (526848)
I0403 15:13:58.044847 31322 net.cpp:156] Memory required for data: 1113290016
I0403 15:13:58.044867 31322 layer_factory.hpp:77] Creating layer inception_4d/relu_1x1
I0403 15:13:58.044889 31322 net.cpp:91] Creating Layer inception_4d/relu_1x1
I0403 15:13:58.044908 31322 net.cpp:425] inception_4d/relu_1x1 <- inception_4d/1x1
I0403 15:13:58.044926 31322 net.cpp:386] inception_4d/relu_1x1 -> inception_4d/1x1 (in-place)
I0403 15:13:58.045120 31322 net.cpp:141] Setting up inception_4d/relu_1x1
I0403 15:13:58.045146 31322 net.cpp:148] Top shape: 24 112 14 14 (526848)
I0403 15:13:58.045163 31322 net.cpp:156] Memory required for data: 1115397408
I0403 15:13:58.045181 31322 layer_factory.hpp:77] Creating layer inception_4d/3x3_reduce
I0403 15:13:58.045222 31322 net.cpp:91] Creating Layer inception_4d/3x3_reduce
I0403 15:13:58.045241 31322 net.cpp:425] inception_4d/3x3_reduce <- inception_4c/output_inception_4c/output_0_split_1
I0403 15:13:58.045264 31322 net.cpp:399] inception_4d/3x3_reduce -> inception_4d/3x3_reduce
I0403 15:13:58.046833 31322 net.cpp:141] Setting up inception_4d/3x3_reduce
I0403 15:13:58.046862 31322 net.cpp:148] Top shape: 24 144 14 14 (677376)
I0403 15:13:58.046880 31322 net.cpp:156] Memory required for data: 1118106912
I0403 15:13:58.046900 31322 layer_factory.hpp:77] Creating layer inception_4d/relu_3x3_reduce
I0403 15:13:58.046918 31322 net.cpp:91] Creating Layer inception_4d/relu_3x3_reduce
I0403 15:13:58.046936 31322 net.cpp:425] inception_4d/relu_3x3_reduce <- inception_4d/3x3_reduce
I0403 15:13:58.046957 31322 net.cpp:386] inception_4d/relu_3x3_reduce -> inception_4d/3x3_reduce (in-place)
I0403 15:13:58.047253 31322 net.cpp:141] Setting up inception_4d/relu_3x3_reduce
I0403 15:13:58.047281 31322 net.cpp:148] Top shape: 24 144 14 14 (677376)
I0403 15:13:58.047297 31322 net.cpp:156] Memory required for data: 1120816416
I0403 15:13:58.047313 31322 layer_factory.hpp:77] Creating layer inception_4d/3x3
I0403 15:13:58.047343 31322 net.cpp:91] Creating Layer inception_4d/3x3
I0403 15:13:58.047363 31322 net.cpp:425] inception_4d/3x3 <- inception_4d/3x3_reduce
I0403 15:13:58.047385 31322 net.cpp:399] inception_4d/3x3 -> inception_4d/3x3
I0403 15:13:58.051652 31322 net.cpp:141] Setting up inception_4d/3x3
I0403 15:13:58.051682 31322 net.cpp:148] Top shape: 24 288 14 14 (1354752)
I0403 15:13:58.051699 31322 net.cpp:156] Memory required for data: 1126235424
I0403 15:13:58.051719 31322 layer_factory.hpp:77] Creating layer inception_4d/relu_3x3
I0403 15:13:58.051741 31322 net.cpp:91] Creating Layer inception_4d/relu_3x3
I0403 15:13:58.051760 31322 net.cpp:425] inception_4d/relu_3x3 <- inception_4d/3x3
I0403 15:13:58.051779 31322 net.cpp:386] inception_4d/relu_3x3 -> inception_4d/3x3 (in-place)
I0403 15:13:58.051964 31322 net.cpp:141] Setting up inception_4d/relu_3x3
I0403 15:13:58.051992 31322 net.cpp:148] Top shape: 24 288 14 14 (1354752)
I0403 15:13:58.052008 31322 net.cpp:156] Memory required for data: 1131654432
I0403 15:13:58.052026 31322 layer_factory.hpp:77] Creating layer inception_4d/5x5_reduce
I0403 15:13:58.052049 31322 net.cpp:91] Creating Layer inception_4d/5x5_reduce
I0403 15:13:58.052068 31322 net.cpp:425] inception_4d/5x5_reduce <- inception_4c/output_inception_4c/output_0_split_2
I0403 15:13:58.052088 31322 net.cpp:399] inception_4d/5x5_reduce -> inception_4d/5x5_reduce
I0403 15:13:58.053231 31322 net.cpp:141] Setting up inception_4d/5x5_reduce
I0403 15:13:58.053272 31322 net.cpp:148] Top shape: 24 32 14 14 (150528)
I0403 15:13:58.053292 31322 net.cpp:156] Memory required for data: 1132256544
I0403 15:13:58.053313 31322 layer_factory.hpp:77] Creating layer inception_4d/relu_5x5_reduce
I0403 15:13:58.053349 31322 net.cpp:91] Creating Layer inception_4d/relu_5x5_reduce
I0403 15:13:58.053369 31322 net.cpp:425] inception_4d/relu_5x5_reduce <- inception_4d/5x5_reduce
I0403 15:13:58.053387 31322 net.cpp:386] inception_4d/relu_5x5_reduce -> inception_4d/5x5_reduce (in-place)
I0403 15:13:58.053596 31322 net.cpp:141] Setting up inception_4d/relu_5x5_reduce
I0403 15:13:58.053623 31322 net.cpp:148] Top shape: 24 32 14 14 (150528)
I0403 15:13:58.053640 31322 net.cpp:156] Memory required for data: 1132858656
I0403 15:13:58.053658 31322 layer_factory.hpp:77] Creating layer inception_4d/5x5
I0403 15:13:58.053681 31322 net.cpp:91] Creating Layer inception_4d/5x5
I0403 15:13:58.053701 31322 net.cpp:425] inception_4d/5x5 <- inception_4d/5x5_reduce
I0403 15:13:58.053721 31322 net.cpp:399] inception_4d/5x5 -> inception_4d/5x5
I0403 15:13:58.055189 31322 net.cpp:141] Setting up inception_4d/5x5
I0403 15:13:58.055219 31322 net.cpp:148] Top shape: 24 64 14 14 (301056)
I0403 15:13:58.055238 31322 net.cpp:156] Memory required for data: 1134062880
I0403 15:13:58.055260 31322 layer_factory.hpp:77] Creating layer inception_4d/relu_5x5
I0403 15:13:58.055294 31322 net.cpp:91] Creating Layer inception_4d/relu_5x5
I0403 15:13:58.055313 31322 net.cpp:425] inception_4d/relu_5x5 <- inception_4d/5x5
I0403 15:13:58.055340 31322 net.cpp:386] inception_4d/relu_5x5 -> inception_4d/5x5 (in-place)
I0403 15:13:58.055641 31322 net.cpp:141] Setting up inception_4d/relu_5x5
I0403 15:13:58.055670 31322 net.cpp:148] Top shape: 24 64 14 14 (301056)
I0403 15:13:58.055686 31322 net.cpp:156] Memory required for data: 1135267104
I0403 15:13:58.055704 31322 layer_factory.hpp:77] Creating layer inception_4d/pool
I0403 15:13:58.055723 31322 net.cpp:91] Creating Layer inception_4d/pool
I0403 15:13:58.055742 31322 net.cpp:425] inception_4d/pool <- inception_4c/output_inception_4c/output_0_split_3
I0403 15:13:58.055763 31322 net.cpp:399] inception_4d/pool -> inception_4d/pool
I0403 15:13:58.055830 31322 net.cpp:141] Setting up inception_4d/pool
I0403 15:13:58.055855 31322 net.cpp:148] Top shape: 24 512 14 14 (2408448)
I0403 15:13:58.055871 31322 net.cpp:156] Memory required for data: 1144900896
I0403 15:13:58.055887 31322 layer_factory.hpp:77] Creating layer inception_4d/pool_proj
I0403 15:13:58.055912 31322 net.cpp:91] Creating Layer inception_4d/pool_proj
I0403 15:13:58.055932 31322 net.cpp:425] inception_4d/pool_proj <- inception_4d/pool
I0403 15:13:58.055953 31322 net.cpp:399] inception_4d/pool_proj -> inception_4d/pool_proj
I0403 15:13:58.057755 31322 net.cpp:141] Setting up inception_4d/pool_proj
I0403 15:13:58.057785 31322 net.cpp:148] Top shape: 24 64 14 14 (301056)
I0403 15:13:58.057801 31322 net.cpp:156] Memory required for data: 1146105120
I0403 15:13:58.057821 31322 layer_factory.hpp:77] Creating layer inception_4d/relu_pool_proj
I0403 15:13:58.057844 31322 net.cpp:91] Creating Layer inception_4d/relu_pool_proj
I0403 15:13:58.057863 31322 net.cpp:425] inception_4d/relu_pool_proj <- inception_4d/pool_proj
I0403 15:13:58.057881 31322 net.cpp:386] inception_4d/relu_pool_proj -> inception_4d/pool_proj (in-place)
I0403 15:13:58.058061 31322 net.cpp:141] Setting up inception_4d/relu_pool_proj
I0403 15:13:58.058089 31322 net.cpp:148] Top shape: 24 64 14 14 (301056)
I0403 15:13:58.058106 31322 net.cpp:156] Memory required for data: 1147309344
I0403 15:13:58.058123 31322 layer_factory.hpp:77] Creating layer inception_4d/output
I0403 15:13:58.058140 31322 net.cpp:91] Creating Layer inception_4d/output
I0403 15:13:58.058157 31322 net.cpp:425] inception_4d/output <- inception_4d/1x1
I0403 15:13:58.058176 31322 net.cpp:425] inception_4d/output <- inception_4d/3x3
I0403 15:13:58.058193 31322 net.cpp:425] inception_4d/output <- inception_4d/5x5
I0403 15:13:58.058212 31322 net.cpp:425] inception_4d/output <- inception_4d/pool_proj
I0403 15:13:58.058229 31322 net.cpp:399] inception_4d/output -> inception_4d/output
I0403 15:13:58.058279 31322 net.cpp:141] Setting up inception_4d/output
I0403 15:13:58.058302 31322 net.cpp:148] Top shape: 24 528 14 14 (2483712)
I0403 15:13:58.058322 31322 net.cpp:156] Memory required for data: 1157244192
I0403 15:13:58.058338 31322 layer_factory.hpp:77] Creating layer inception_4d/output_inception_4d/output_0_split
I0403 15:13:58.058359 31322 net.cpp:91] Creating Layer inception_4d/output_inception_4d/output_0_split
I0403 15:13:58.058378 31322 net.cpp:425] inception_4d/output_inception_4d/output_0_split <- inception_4d/output
I0403 15:13:58.058398 31322 net.cpp:399] inception_4d/output_inception_4d/output_0_split -> inception_4d/output_inception_4d/output_0_split_0
I0403 15:13:58.058418 31322 net.cpp:399] inception_4d/output_inception_4d/output_0_split -> inception_4d/output_inception_4d/output_0_split_1
I0403 15:13:58.058439 31322 net.cpp:399] inception_4d/output_inception_4d/output_0_split -> inception_4d/output_inception_4d/output_0_split_2
I0403 15:13:58.058462 31322 net.cpp:399] inception_4d/output_inception_4d/output_0_split -> inception_4d/output_inception_4d/output_0_split_3
I0403 15:13:58.058485 31322 net.cpp:399] inception_4d/output_inception_4d/output_0_split -> inception_4d/output_inception_4d/output_0_split_4
I0403 15:13:58.058585 31322 net.cpp:141] Setting up inception_4d/output_inception_4d/output_0_split
I0403 15:13:58.058624 31322 net.cpp:148] Top shape: 24 528 14 14 (2483712)
I0403 15:13:58.058640 31322 net.cpp:148] Top shape: 24 528 14 14 (2483712)
I0403 15:13:58.058657 31322 net.cpp:148] Top shape: 24 528 14 14 (2483712)
I0403 15:13:58.058673 31322 net.cpp:148] Top shape: 24 528 14 14 (2483712)
I0403 15:13:58.058689 31322 net.cpp:148] Top shape: 24 528 14 14 (2483712)
I0403 15:13:58.058703 31322 net.cpp:156] Memory required for data: 1206918432
I0403 15:13:58.058719 31322 layer_factory.hpp:77] Creating layer loss2/ave_pool
I0403 15:13:58.058739 31322 net.cpp:91] Creating Layer loss2/ave_pool
I0403 15:13:58.058758 31322 net.cpp:425] loss2/ave_pool <- inception_4d/output_inception_4d/output_0_split_0
I0403 15:13:58.058778 31322 net.cpp:399] loss2/ave_pool -> loss2/ave_pool
I0403 15:13:58.059082 31322 net.cpp:141] Setting up loss2/ave_pool
I0403 15:13:58.059109 31322 net.cpp:148] Top shape: 24 528 4 4 (202752)
I0403 15:13:58.059124 31322 net.cpp:156] Memory required for data: 1207729440
I0403 15:13:58.059141 31322 layer_factory.hpp:77] Creating layer loss2/conv
I0403 15:13:58.059165 31322 net.cpp:91] Creating Layer loss2/conv
I0403 15:13:58.059185 31322 net.cpp:425] loss2/conv <- loss2/ave_pool
I0403 15:13:58.059206 31322 net.cpp:399] loss2/conv -> loss2/conv
I0403 15:13:58.061120 31322 net.cpp:141] Setting up loss2/conv
I0403 15:13:58.061148 31322 net.cpp:148] Top shape: 24 128 4 4 (49152)
I0403 15:13:58.061164 31322 net.cpp:156] Memory required for data: 1207926048
I0403 15:13:58.061184 31322 layer_factory.hpp:77] Creating layer loss2/relu_conv
I0403 15:13:58.061203 31322 net.cpp:91] Creating Layer loss2/relu_conv
I0403 15:13:58.061219 31322 net.cpp:425] loss2/relu_conv <- loss2/conv
I0403 15:13:58.061240 31322 net.cpp:386] loss2/relu_conv -> loss2/conv (in-place)
I0403 15:13:58.061529 31322 net.cpp:141] Setting up loss2/relu_conv
I0403 15:13:58.061556 31322 net.cpp:148] Top shape: 24 128 4 4 (49152)
I0403 15:13:58.061575 31322 net.cpp:156] Memory required for data: 1208122656
I0403 15:13:58.061591 31322 layer_factory.hpp:77] Creating layer loss2/fc
I0403 15:13:58.061610 31322 net.cpp:91] Creating Layer loss2/fc
I0403 15:13:58.061626 31322 net.cpp:425] loss2/fc <- loss2/conv
I0403 15:13:58.061648 31322 net.cpp:399] loss2/fc -> loss2/fc
I0403 15:13:58.078827 31322 net.cpp:141] Setting up loss2/fc
I0403 15:13:58.078860 31322 net.cpp:148] Top shape: 24 1024 (24576)
I0403 15:13:58.078878 31322 net.cpp:156] Memory required for data: 1208220960
I0403 15:13:58.078897 31322 layer_factory.hpp:77] Creating layer loss2/relu_fc
I0403 15:13:58.078917 31322 net.cpp:91] Creating Layer loss2/relu_fc
I0403 15:13:58.078933 31322 net.cpp:425] loss2/relu_fc <- loss2/fc
I0403 15:13:58.078951 31322 net.cpp:386] loss2/relu_fc -> loss2/fc (in-place)
I0403 15:13:58.079242 31322 net.cpp:141] Setting up loss2/relu_fc
I0403 15:13:58.079284 31322 net.cpp:148] Top shape: 24 1024 (24576)
I0403 15:13:58.079303 31322 net.cpp:156] Memory required for data: 1208319264
I0403 15:13:58.079324 31322 layer_factory.hpp:77] Creating layer loss2/drop_fc
I0403 15:13:58.079344 31322 net.cpp:91] Creating Layer loss2/drop_fc
I0403 15:13:58.079360 31322 net.cpp:425] loss2/drop_fc <- loss2/fc
I0403 15:13:58.079380 31322 net.cpp:386] loss2/drop_fc -> loss2/fc (in-place)
I0403 15:13:58.079432 31322 net.cpp:141] Setting up loss2/drop_fc
I0403 15:13:58.079457 31322 net.cpp:148] Top shape: 24 1024 (24576)
I0403 15:13:58.079473 31322 net.cpp:156] Memory required for data: 1208417568
I0403 15:13:58.079489 31322 layer_factory.hpp:77] Creating layer loss2/classifier_plantvillage
I0403 15:13:58.079514 31322 net.cpp:91] Creating Layer loss2/classifier_plantvillage
I0403 15:13:58.079532 31322 net.cpp:425] loss2/classifier_plantvillage <- loss2/fc
I0403 15:13:58.079565 31322 net.cpp:399] loss2/classifier_plantvillage -> loss2/classifier_plantvillage
I0403 15:13:58.079957 31322 net.cpp:141] Setting up loss2/classifier_plantvillage
I0403 15:13:58.079982 31322 net.cpp:148] Top shape: 24 38 (912)
I0403 15:13:58.079998 31322 net.cpp:156] Memory required for data: 1208421216
I0403 15:13:58.080034 31322 layer_factory.hpp:77] Creating layer loss2/classifier_plantvillage_loss2/classifier_plantvillage_0_split
I0403 15:13:58.080054 31322 net.cpp:91] Creating Layer loss2/classifier_plantvillage_loss2/classifier_plantvillage_0_split
I0403 15:13:58.080071 31322 net.cpp:425] loss2/classifier_plantvillage_loss2/classifier_plantvillage_0_split <- loss2/classifier_plantvillage
I0403 15:13:58.080092 31322 net.cpp:399] loss2/classifier_plantvillage_loss2/classifier_plantvillage_0_split -> loss2/classifier_plantvillage_loss2/classifier_plantvillage_0_split_0
I0403 15:13:58.080113 31322 net.cpp:399] loss2/classifier_plantvillage_loss2/classifier_plantvillage_0_split -> loss2/classifier_plantvillage_loss2/classifier_plantvillage_0_split_1
I0403 15:13:58.080135 31322 net.cpp:399] loss2/classifier_plantvillage_loss2/classifier_plantvillage_0_split -> loss2/classifier_plantvillage_loss2/classifier_plantvillage_0_split_2
I0403 15:13:58.080212 31322 net.cpp:141] Setting up loss2/classifier_plantvillage_loss2/classifier_plantvillage_0_split
I0403 15:13:58.080240 31322 net.cpp:148] Top shape: 24 38 (912)
I0403 15:13:58.080257 31322 net.cpp:148] Top shape: 24 38 (912)
I0403 15:13:58.080273 31322 net.cpp:148] Top shape: 24 38 (912)
I0403 15:13:58.080289 31322 net.cpp:156] Memory required for data: 1208432160
I0403 15:13:58.080304 31322 layer_factory.hpp:77] Creating layer inception_4e/1x1
I0403 15:13:58.080333 31322 net.cpp:91] Creating Layer inception_4e/1x1
I0403 15:13:58.080353 31322 net.cpp:425] inception_4e/1x1 <- inception_4d/output_inception_4d/output_0_split_1
I0403 15:13:58.080373 31322 net.cpp:399] inception_4e/1x1 -> inception_4e/1x1
I0403 15:13:58.082181 31322 net.cpp:141] Setting up inception_4e/1x1
I0403 15:13:58.082212 31322 net.cpp:148] Top shape: 24 256 14 14 (1204224)
I0403 15:13:58.082228 31322 net.cpp:156] Memory required for data: 1213249056
I0403 15:13:58.082249 31322 layer_factory.hpp:77] Creating layer inception_4e/relu_1x1
I0403 15:13:58.082269 31322 net.cpp:91] Creating Layer inception_4e/relu_1x1
I0403 15:13:58.082286 31322 net.cpp:425] inception_4e/relu_1x1 <- inception_4e/1x1
I0403 15:13:58.082309 31322 net.cpp:386] inception_4e/relu_1x1 -> inception_4e/1x1 (in-place)
I0403 15:13:58.082610 31322 net.cpp:141] Setting up inception_4e/relu_1x1
I0403 15:13:58.082639 31322 net.cpp:148] Top shape: 24 256 14 14 (1204224)
I0403 15:13:58.082658 31322 net.cpp:156] Memory required for data: 1218065952
I0403 15:13:58.082674 31322 layer_factory.hpp:77] Creating layer inception_4e/3x3_reduce
I0403 15:13:58.082697 31322 net.cpp:91] Creating Layer inception_4e/3x3_reduce
I0403 15:13:58.082717 31322 net.cpp:425] inception_4e/3x3_reduce <- inception_4d/output_inception_4d/output_0_split_2
I0403 15:13:58.082739 31322 net.cpp:399] inception_4e/3x3_reduce -> inception_4e/3x3_reduce
I0403 15:13:58.084894 31322 net.cpp:141] Setting up inception_4e/3x3_reduce
I0403 15:13:58.084928 31322 net.cpp:148] Top shape: 24 160 14 14 (752640)
I0403 15:13:58.084945 31322 net.cpp:156] Memory required for data: 1221076512
I0403 15:13:58.084966 31322 layer_factory.hpp:77] Creating layer inception_4e/relu_3x3_reduce
I0403 15:13:58.084986 31322 net.cpp:91] Creating Layer inception_4e/relu_3x3_reduce
I0403 15:13:58.085002 31322 net.cpp:425] inception_4e/relu_3x3_reduce <- inception_4e/3x3_reduce
I0403 15:13:58.085021 31322 net.cpp:386] inception_4e/relu_3x3_reduce -> inception_4e/3x3_reduce (in-place)
I0403 15:13:58.085211 31322 net.cpp:141] Setting up inception_4e/relu_3x3_reduce
I0403 15:13:58.085237 31322 net.cpp:148] Top shape: 24 160 14 14 (752640)
I0403 15:13:58.085253 31322 net.cpp:156] Memory required for data: 1224087072
I0403 15:13:58.085269 31322 layer_factory.hpp:77] Creating layer inception_4e/3x3
I0403 15:13:58.085294 31322 net.cpp:91] Creating Layer inception_4e/3x3
I0403 15:13:58.085317 31322 net.cpp:425] inception_4e/3x3 <- inception_4e/3x3_reduce
I0403 15:13:58.085341 31322 net.cpp:399] inception_4e/3x3 -> inception_4e/3x3
I0403 15:13:58.090574 31322 net.cpp:141] Setting up inception_4e/3x3
I0403 15:13:58.090621 31322 net.cpp:148] Top shape: 24 320 14 14 (1505280)
I0403 15:13:58.090638 31322 net.cpp:156] Memory required for data: 1230108192
I0403 15:13:58.090658 31322 layer_factory.hpp:77] Creating layer inception_4e/relu_3x3
I0403 15:13:58.090680 31322 net.cpp:91] Creating Layer inception_4e/relu_3x3
I0403 15:13:58.090699 31322 net.cpp:425] inception_4e/relu_3x3 <- inception_4e/3x3
I0403 15:13:58.090718 31322 net.cpp:386] inception_4e/relu_3x3 -> inception_4e/3x3 (in-place)
I0403 15:13:58.091022 31322 net.cpp:141] Setting up inception_4e/relu_3x3
I0403 15:13:58.091049 31322 net.cpp:148] Top shape: 24 320 14 14 (1505280)
I0403 15:13:58.091066 31322 net.cpp:156] Memory required for data: 1236129312
I0403 15:13:58.091084 31322 layer_factory.hpp:77] Creating layer inception_4e/5x5_reduce
I0403 15:13:58.091107 31322 net.cpp:91] Creating Layer inception_4e/5x5_reduce
I0403 15:13:58.091126 31322 net.cpp:425] inception_4e/5x5_reduce <- inception_4d/output_inception_4d/output_0_split_3
I0403 15:13:58.091150 31322 net.cpp:399] inception_4e/5x5_reduce -> inception_4e/5x5_reduce
I0403 15:13:58.092227 31322 net.cpp:141] Setting up inception_4e/5x5_reduce
I0403 15:13:58.092270 31322 net.cpp:148] Top shape: 24 32 14 14 (150528)
I0403 15:13:58.092290 31322 net.cpp:156] Memory required for data: 1236731424
I0403 15:13:58.092311 31322 layer_factory.hpp:77] Creating layer inception_4e/relu_5x5_reduce
I0403 15:13:58.092351 31322 net.cpp:91] Creating Layer inception_4e/relu_5x5_reduce
I0403 15:13:58.092370 31322 net.cpp:425] inception_4e/relu_5x5_reduce <- inception_4e/5x5_reduce
I0403 15:13:58.092393 31322 net.cpp:386] inception_4e/relu_5x5_reduce -> inception_4e/5x5_reduce (in-place)
I0403 15:13:58.092727 31322 net.cpp:141] Setting up inception_4e/relu_5x5_reduce
I0403 15:13:58.092757 31322 net.cpp:148] Top shape: 24 32 14 14 (150528)
I0403 15:13:58.092775 31322 net.cpp:156] Memory required for data: 1237333536
I0403 15:13:58.092792 31322 layer_factory.hpp:77] Creating layer inception_4e/5x5
I0403 15:13:58.092835 31322 net.cpp:91] Creating Layer inception_4e/5x5
I0403 15:13:58.092856 31322 net.cpp:425] inception_4e/5x5 <- inception_4e/5x5_reduce
I0403 15:13:58.092877 31322 net.cpp:399] inception_4e/5x5 -> inception_4e/5x5
I0403 15:13:58.094797 31322 net.cpp:141] Setting up inception_4e/5x5
I0403 15:13:58.094827 31322 net.cpp:148] Top shape: 24 128 14 14 (602112)
I0403 15:13:58.094846 31322 net.cpp:156] Memory required for data: 1239741984
I0403 15:13:58.094866 31322 layer_factory.hpp:77] Creating layer inception_4e/relu_5x5
I0403 15:13:58.094887 31322 net.cpp:91] Creating Layer inception_4e/relu_5x5
I0403 15:13:58.094907 31322 net.cpp:425] inception_4e/relu_5x5 <- inception_4e/5x5
I0403 15:13:58.094926 31322 net.cpp:386] inception_4e/relu_5x5 -> inception_4e/5x5 (in-place)
I0403 15:13:58.095132 31322 net.cpp:141] Setting up inception_4e/relu_5x5
I0403 15:13:58.095160 31322 net.cpp:148] Top shape: 24 128 14 14 (602112)
I0403 15:13:58.095176 31322 net.cpp:156] Memory required for data: 1242150432
I0403 15:13:58.095193 31322 layer_factory.hpp:77] Creating layer inception_4e/pool
I0403 15:13:58.095213 31322 net.cpp:91] Creating Layer inception_4e/pool
I0403 15:13:58.095232 31322 net.cpp:425] inception_4e/pool <- inception_4d/output_inception_4d/output_0_split_4
I0403 15:13:58.095255 31322 net.cpp:399] inception_4e/pool -> inception_4e/pool
I0403 15:13:58.095335 31322 net.cpp:141] Setting up inception_4e/pool
I0403 15:13:58.095360 31322 net.cpp:148] Top shape: 24 528 14 14 (2483712)
I0403 15:13:58.095377 31322 net.cpp:156] Memory required for data: 1252085280
I0403 15:13:58.095393 31322 layer_factory.hpp:77] Creating layer inception_4e/pool_proj
I0403 15:13:58.095419 31322 net.cpp:91] Creating Layer inception_4e/pool_proj
I0403 15:13:58.095440 31322 net.cpp:425] inception_4e/pool_proj <- inception_4e/pool
I0403 15:13:58.095460 31322 net.cpp:399] inception_4e/pool_proj -> inception_4e/pool_proj
I0403 15:13:58.097010 31322 net.cpp:141] Setting up inception_4e/pool_proj
I0403 15:13:58.097040 31322 net.cpp:148] Top shape: 24 128 14 14 (602112)
I0403 15:13:58.097071 31322 net.cpp:156] Memory required for data: 1254493728
I0403 15:13:58.097092 31322 layer_factory.hpp:77] Creating layer inception_4e/relu_pool_proj
I0403 15:13:58.097115 31322 net.cpp:91] Creating Layer inception_4e/relu_pool_proj
I0403 15:13:58.097133 31322 net.cpp:425] inception_4e/relu_pool_proj <- inception_4e/pool_proj
I0403 15:13:58.097153 31322 net.cpp:386] inception_4e/relu_pool_proj -> inception_4e/pool_proj (in-place)
I0403 15:13:58.097479 31322 net.cpp:141] Setting up inception_4e/relu_pool_proj
I0403 15:13:58.097508 31322 net.cpp:148] Top shape: 24 128 14 14 (602112)
I0403 15:13:58.097527 31322 net.cpp:156] Memory required for data: 1256902176
I0403 15:13:58.097543 31322 layer_factory.hpp:77] Creating layer inception_4e/output
I0403 15:13:58.097579 31322 net.cpp:91] Creating Layer inception_4e/output
I0403 15:13:58.097597 31322 net.cpp:425] inception_4e/output <- inception_4e/1x1
I0403 15:13:58.097615 31322 net.cpp:425] inception_4e/output <- inception_4e/3x3
I0403 15:13:58.097632 31322 net.cpp:425] inception_4e/output <- inception_4e/5x5
I0403 15:13:58.097651 31322 net.cpp:425] inception_4e/output <- inception_4e/pool_proj
I0403 15:13:58.097669 31322 net.cpp:399] inception_4e/output -> inception_4e/output
I0403 15:13:58.097724 31322 net.cpp:141] Setting up inception_4e/output
I0403 15:13:58.097750 31322 net.cpp:148] Top shape: 24 832 14 14 (3913728)
I0403 15:13:58.097766 31322 net.cpp:156] Memory required for data: 1272557088
I0403 15:13:58.097782 31322 layer_factory.hpp:77] Creating layer pool4/3x3_s2
I0403 15:13:58.097802 31322 net.cpp:91] Creating Layer pool4/3x3_s2
I0403 15:13:58.097820 31322 net.cpp:425] pool4/3x3_s2 <- inception_4e/output
I0403 15:13:58.097842 31322 net.cpp:399] pool4/3x3_s2 -> pool4/3x3_s2
I0403 15:13:58.097914 31322 net.cpp:141] Setting up pool4/3x3_s2
I0403 15:13:58.097940 31322 net.cpp:148] Top shape: 24 832 7 7 (978432)
I0403 15:13:58.097957 31322 net.cpp:156] Memory required for data: 1276470816
I0403 15:13:58.097973 31322 layer_factory.hpp:77] Creating layer pool4/3x3_s2_pool4/3x3_s2_0_split
I0403 15:13:58.097995 31322 net.cpp:91] Creating Layer pool4/3x3_s2_pool4/3x3_s2_0_split
I0403 15:13:58.098014 31322 net.cpp:425] pool4/3x3_s2_pool4/3x3_s2_0_split <- pool4/3x3_s2
I0403 15:13:58.098039 31322 net.cpp:399] pool4/3x3_s2_pool4/3x3_s2_0_split -> pool4/3x3_s2_pool4/3x3_s2_0_split_0
I0403 15:13:58.098062 31322 net.cpp:399] pool4/3x3_s2_pool4/3x3_s2_0_split -> pool4/3x3_s2_pool4/3x3_s2_0_split_1
I0403 15:13:58.098085 31322 net.cpp:399] pool4/3x3_s2_pool4/3x3_s2_0_split -> pool4/3x3_s2_pool4/3x3_s2_0_split_2
I0403 15:13:58.098107 31322 net.cpp:399] pool4/3x3_s2_pool4/3x3_s2_0_split -> pool4/3x3_s2_pool4/3x3_s2_0_split_3
I0403 15:13:58.098201 31322 net.cpp:141] Setting up pool4/3x3_s2_pool4/3x3_s2_0_split
I0403 15:13:58.098227 31322 net.cpp:148] Top shape: 24 832 7 7 (978432)
I0403 15:13:58.098248 31322 net.cpp:148] Top shape: 24 832 7 7 (978432)
I0403 15:13:58.098266 31322 net.cpp:148] Top shape: 24 832 7 7 (978432)
I0403 15:13:58.098283 31322 net.cpp:148] Top shape: 24 832 7 7 (978432)
I0403 15:13:58.098299 31322 net.cpp:156] Memory required for data: 1292125728
I0403 15:13:58.098314 31322 layer_factory.hpp:77] Creating layer inception_5a/1x1
I0403 15:13:58.098340 31322 net.cpp:91] Creating Layer inception_5a/1x1
I0403 15:13:58.098359 31322 net.cpp:425] inception_5a/1x1 <- pool4/3x3_s2_pool4/3x3_s2_0_split_0
I0403 15:13:58.098383 31322 net.cpp:399] inception_5a/1x1 -> inception_5a/1x1
I0403 15:13:58.101372 31322 net.cpp:141] Setting up inception_5a/1x1
I0403 15:13:58.101405 31322 net.cpp:148] Top shape: 24 256 7 7 (301056)
I0403 15:13:58.101424 31322 net.cpp:156] Memory required for data: 1293329952
I0403 15:13:58.101444 31322 layer_factory.hpp:77] Creating layer inception_5a/relu_1x1
I0403 15:13:58.101475 31322 net.cpp:91] Creating Layer inception_5a/relu_1x1
I0403 15:13:58.101490 31322 net.cpp:425] inception_5a/relu_1x1 <- inception_5a/1x1
I0403 15:13:58.101510 31322 net.cpp:386] inception_5a/relu_1x1 -> inception_5a/1x1 (in-place)
I0403 15:13:58.101845 31322 net.cpp:141] Setting up inception_5a/relu_1x1
I0403 15:13:58.101877 31322 net.cpp:148] Top shape: 24 256 7 7 (301056)
I0403 15:13:58.101897 31322 net.cpp:156] Memory required for data: 1294534176
I0403 15:13:58.101914 31322 layer_factory.hpp:77] Creating layer inception_5a/3x3_reduce
I0403 15:13:58.101939 31322 net.cpp:91] Creating Layer inception_5a/3x3_reduce
I0403 15:13:58.101960 31322 net.cpp:425] inception_5a/3x3_reduce <- pool4/3x3_s2_pool4/3x3_s2_0_split_1
I0403 15:13:58.101982 31322 net.cpp:399] inception_5a/3x3_reduce -> inception_5a/3x3_reduce
I0403 15:13:58.104557 31322 net.cpp:141] Setting up inception_5a/3x3_reduce
I0403 15:13:58.104588 31322 net.cpp:148] Top shape: 24 160 7 7 (188160)
I0403 15:13:58.104605 31322 net.cpp:156] Memory required for data: 1295286816
I0403 15:13:58.104625 31322 layer_factory.hpp:77] Creating layer inception_5a/relu_3x3_reduce
I0403 15:13:58.104648 31322 net.cpp:91] Creating Layer inception_5a/relu_3x3_reduce
I0403 15:13:58.104668 31322 net.cpp:425] inception_5a/relu_3x3_reduce <- inception_5a/3x3_reduce
I0403 15:13:58.104687 31322 net.cpp:386] inception_5a/relu_3x3_reduce -> inception_5a/3x3_reduce (in-place)
I0403 15:13:58.104883 31322 net.cpp:141] Setting up inception_5a/relu_3x3_reduce
I0403 15:13:58.104913 31322 net.cpp:148] Top shape: 24 160 7 7 (188160)
I0403 15:13:58.104929 31322 net.cpp:156] Memory required for data: 1296039456
I0403 15:13:58.104946 31322 layer_factory.hpp:77] Creating layer inception_5a/3x3
I0403 15:13:58.104971 31322 net.cpp:91] Creating Layer inception_5a/3x3
I0403 15:13:58.104991 31322 net.cpp:425] inception_5a/3x3 <- inception_5a/3x3_reduce
I0403 15:13:58.105012 31322 net.cpp:399] inception_5a/3x3 -> inception_5a/3x3
I0403 15:13:58.110224 31322 net.cpp:141] Setting up inception_5a/3x3
I0403 15:13:58.110255 31322 net.cpp:148] Top shape: 24 320 7 7 (376320)
I0403 15:13:58.110273 31322 net.cpp:156] Memory required for data: 1297544736
I0403 15:13:58.110294 31322 layer_factory.hpp:77] Creating layer inception_5a/relu_3x3
I0403 15:13:58.110321 31322 net.cpp:91] Creating Layer inception_5a/relu_3x3
I0403 15:13:58.110342 31322 net.cpp:425] inception_5a/relu_3x3 <- inception_5a/3x3
I0403 15:13:58.110360 31322 net.cpp:386] inception_5a/relu_3x3 -> inception_5a/3x3 (in-place)
I0403 15:13:58.110672 31322 net.cpp:141] Setting up inception_5a/relu_3x3
I0403 15:13:58.110700 31322 net.cpp:148] Top shape: 24 320 7 7 (376320)
I0403 15:13:58.110718 31322 net.cpp:156] Memory required for data: 1299050016
I0403 15:13:58.110734 31322 layer_factory.hpp:77] Creating layer inception_5a/5x5_reduce
I0403 15:13:58.110762 31322 net.cpp:91] Creating Layer inception_5a/5x5_reduce
I0403 15:13:58.110783 31322 net.cpp:425] inception_5a/5x5_reduce <- pool4/3x3_s2_pool4/3x3_s2_0_split_2
I0403 15:13:58.110803 31322 net.cpp:399] inception_5a/5x5_reduce -> inception_5a/5x5_reduce
I0403 15:13:58.112053 31322 net.cpp:141] Setting up inception_5a/5x5_reduce
I0403 15:13:58.112084 31322 net.cpp:148] Top shape: 24 32 7 7 (37632)
I0403 15:13:58.112102 31322 net.cpp:156] Memory required for data: 1299200544
I0403 15:13:58.112123 31322 layer_factory.hpp:77] Creating layer inception_5a/relu_5x5_reduce
I0403 15:13:58.112141 31322 net.cpp:91] Creating Layer inception_5a/relu_5x5_reduce
I0403 15:13:58.112159 31322 net.cpp:425] inception_5a/relu_5x5_reduce <- inception_5a/5x5_reduce
I0403 15:13:58.112179 31322 net.cpp:386] inception_5a/relu_5x5_reduce -> inception_5a/5x5_reduce (in-place)
I0403 15:13:58.112507 31322 net.cpp:141] Setting up inception_5a/relu_5x5_reduce
I0403 15:13:58.112535 31322 net.cpp:148] Top shape: 24 32 7 7 (37632)
I0403 15:13:58.112565 31322 net.cpp:156] Memory required for data: 1299351072
I0403 15:13:58.112581 31322 layer_factory.hpp:77] Creating layer inception_5a/5x5
I0403 15:13:58.112604 31322 net.cpp:91] Creating Layer inception_5a/5x5
I0403 15:13:58.112622 31322 net.cpp:425] inception_5a/5x5 <- inception_5a/5x5_reduce
I0403 15:13:58.112645 31322 net.cpp:399] inception_5a/5x5 -> inception_5a/5x5
I0403 15:13:58.114395 31322 net.cpp:141] Setting up inception_5a/5x5
I0403 15:13:58.114436 31322 net.cpp:148] Top shape: 24 128 7 7 (150528)
I0403 15:13:58.114454 31322 net.cpp:156] Memory required for data: 1299953184
I0403 15:13:58.114473 31322 layer_factory.hpp:77] Creating layer inception_5a/relu_5x5
I0403 15:13:58.114495 31322 net.cpp:91] Creating Layer inception_5a/relu_5x5
I0403 15:13:58.114514 31322 net.cpp:425] inception_5a/relu_5x5 <- inception_5a/5x5
I0403 15:13:58.114532 31322 net.cpp:386] inception_5a/relu_5x5 -> inception_5a/5x5 (in-place)
I0403 15:13:58.114725 31322 net.cpp:141] Setting up inception_5a/relu_5x5
I0403 15:13:58.114753 31322 net.cpp:148] Top shape: 24 128 7 7 (150528)
I0403 15:13:58.114768 31322 net.cpp:156] Memory required for data: 1300555296
I0403 15:13:58.114785 31322 layer_factory.hpp:77] Creating layer inception_5a/pool
I0403 15:13:58.114804 31322 net.cpp:91] Creating Layer inception_5a/pool
I0403 15:13:58.114821 31322 net.cpp:425] inception_5a/pool <- pool4/3x3_s2_pool4/3x3_s2_0_split_3
I0403 15:13:58.114843 31322 net.cpp:399] inception_5a/pool -> inception_5a/pool
I0403 15:13:58.114915 31322 net.cpp:141] Setting up inception_5a/pool
I0403 15:13:58.114940 31322 net.cpp:148] Top shape: 24 832 7 7 (978432)
I0403 15:13:58.114958 31322 net.cpp:156] Memory required for data: 1304469024
I0403 15:13:58.114974 31322 layer_factory.hpp:77] Creating layer inception_5a/pool_proj
I0403 15:13:58.114997 31322 net.cpp:91] Creating Layer inception_5a/pool_proj
I0403 15:13:58.115016 31322 net.cpp:425] inception_5a/pool_proj <- inception_5a/pool
I0403 15:13:58.115036 31322 net.cpp:399] inception_5a/pool_proj -> inception_5a/pool_proj
I0403 15:13:58.117421 31322 net.cpp:141] Setting up inception_5a/pool_proj
I0403 15:13:58.117451 31322 net.cpp:148] Top shape: 24 128 7 7 (150528)
I0403 15:13:58.117468 31322 net.cpp:156] Memory required for data: 1305071136
I0403 15:13:58.117488 31322 layer_factory.hpp:77] Creating layer inception_5a/relu_pool_proj
I0403 15:13:58.117509 31322 net.cpp:91] Creating Layer inception_5a/relu_pool_proj
I0403 15:13:58.117527 31322 net.cpp:425] inception_5a/relu_pool_proj <- inception_5a/pool_proj
I0403 15:13:58.117548 31322 net.cpp:386] inception_5a/relu_pool_proj -> inception_5a/pool_proj (in-place)
I0403 15:13:58.117851 31322 net.cpp:141] Setting up inception_5a/relu_pool_proj
I0403 15:13:58.117877 31322 net.cpp:148] Top shape: 24 128 7 7 (150528)
I0403 15:13:58.117893 31322 net.cpp:156] Memory required for data: 1305673248
I0403 15:13:58.117909 31322 layer_factory.hpp:77] Creating layer inception_5a/output
I0403 15:13:58.117931 31322 net.cpp:91] Creating Layer inception_5a/output
I0403 15:13:58.117949 31322 net.cpp:425] inception_5a/output <- inception_5a/1x1
I0403 15:13:58.117966 31322 net.cpp:425] inception_5a/output <- inception_5a/3x3
I0403 15:13:58.117985 31322 net.cpp:425] inception_5a/output <- inception_5a/5x5
I0403 15:13:58.118001 31322 net.cpp:425] inception_5a/output <- inception_5a/pool_proj
I0403 15:13:58.118021 31322 net.cpp:399] inception_5a/output -> inception_5a/output
I0403 15:13:58.118073 31322 net.cpp:141] Setting up inception_5a/output
I0403 15:13:58.118098 31322 net.cpp:148] Top shape: 24 832 7 7 (978432)
I0403 15:13:58.118116 31322 net.cpp:156] Memory required for data: 1309586976
I0403 15:13:58.118136 31322 layer_factory.hpp:77] Creating layer inception_5a/output_inception_5a/output_0_split
I0403 15:13:58.118155 31322 net.cpp:91] Creating Layer inception_5a/output_inception_5a/output_0_split
I0403 15:13:58.118172 31322 net.cpp:425] inception_5a/output_inception_5a/output_0_split <- inception_5a/output
I0403 15:13:58.118193 31322 net.cpp:399] inception_5a/output_inception_5a/output_0_split -> inception_5a/output_inception_5a/output_0_split_0
I0403 15:13:58.118214 31322 net.cpp:399] inception_5a/output_inception_5a/output_0_split -> inception_5a/output_inception_5a/output_0_split_1
I0403 15:13:58.118237 31322 net.cpp:399] inception_5a/output_inception_5a/output_0_split -> inception_5a/output_inception_5a/output_0_split_2
I0403 15:13:58.118258 31322 net.cpp:399] inception_5a/output_inception_5a/output_0_split -> inception_5a/output_inception_5a/output_0_split_3
I0403 15:13:58.118377 31322 net.cpp:141] Setting up inception_5a/output_inception_5a/output_0_split
I0403 15:13:58.118404 31322 net.cpp:148] Top shape: 24 832 7 7 (978432)
I0403 15:13:58.118422 31322 net.cpp:148] Top shape: 24 832 7 7 (978432)
I0403 15:13:58.118438 31322 net.cpp:148] Top shape: 24 832 7 7 (978432)
I0403 15:13:58.118455 31322 net.cpp:148] Top shape: 24 832 7 7 (978432)
I0403 15:13:58.118470 31322 net.cpp:156] Memory required for data: 1325241888
I0403 15:13:58.118486 31322 layer_factory.hpp:77] Creating layer inception_5b/1x1
I0403 15:13:58.118510 31322 net.cpp:91] Creating Layer inception_5b/1x1
I0403 15:13:58.118528 31322 net.cpp:425] inception_5b/1x1 <- inception_5a/output_inception_5a/output_0_split_0
I0403 15:13:58.118551 31322 net.cpp:399] inception_5b/1x1 -> inception_5b/1x1
I0403 15:13:58.122397 31322 net.cpp:141] Setting up inception_5b/1x1
I0403 15:13:58.122427 31322 net.cpp:148] Top shape: 24 384 7 7 (451584)
I0403 15:13:58.122444 31322 net.cpp:156] Memory required for data: 1327048224
I0403 15:13:58.122464 31322 layer_factory.hpp:77] Creating layer inception_5b/relu_1x1
I0403 15:13:58.122485 31322 net.cpp:91] Creating Layer inception_5b/relu_1x1
I0403 15:13:58.122503 31322 net.cpp:425] inception_5b/relu_1x1 <- inception_5b/1x1
I0403 15:13:58.122522 31322 net.cpp:386] inception_5b/relu_1x1 -> inception_5b/1x1 (in-place)
I0403 15:13:58.122839 31322 net.cpp:141] Setting up inception_5b/relu_1x1
I0403 15:13:58.122866 31322 net.cpp:148] Top shape: 24 384 7 7 (451584)
I0403 15:13:58.122882 31322 net.cpp:156] Memory required for data: 1328854560
I0403 15:13:58.122900 31322 layer_factory.hpp:77] Creating layer inception_5b/3x3_reduce
I0403 15:13:58.122922 31322 net.cpp:91] Creating Layer inception_5b/3x3_reduce
I0403 15:13:58.122941 31322 net.cpp:425] inception_5b/3x3_reduce <- inception_5a/output_inception_5a/output_0_split_1
I0403 15:13:58.122964 31322 net.cpp:399] inception_5b/3x3_reduce -> inception_5b/3x3_reduce
I0403 15:13:58.125689 31322 net.cpp:141] Setting up inception_5b/3x3_reduce
I0403 15:13:58.125717 31322 net.cpp:148] Top shape: 24 192 7 7 (225792)
I0403 15:13:58.125735 31322 net.cpp:156] Memory required for data: 1329757728
I0403 15:13:58.125754 31322 layer_factory.hpp:77] Creating layer inception_5b/relu_3x3_reduce
I0403 15:13:58.125777 31322 net.cpp:91] Creating Layer inception_5b/relu_3x3_reduce
I0403 15:13:58.125797 31322 net.cpp:425] inception_5b/relu_3x3_reduce <- inception_5b/3x3_reduce
I0403 15:13:58.125814 31322 net.cpp:386] inception_5b/relu_3x3_reduce -> inception_5b/3x3_reduce (in-place)
I0403 15:13:58.126010 31322 net.cpp:141] Setting up inception_5b/relu_3x3_reduce
I0403 15:13:58.126039 31322 net.cpp:148] Top shape: 24 192 7 7 (225792)
I0403 15:13:58.126056 31322 net.cpp:156] Memory required for data: 1330660896
I0403 15:13:58.126073 31322 layer_factory.hpp:77] Creating layer inception_5b/3x3
I0403 15:13:58.126096 31322 net.cpp:91] Creating Layer inception_5b/3x3
I0403 15:13:58.126116 31322 net.cpp:425] inception_5b/3x3 <- inception_5b/3x3_reduce
I0403 15:13:58.126135 31322 net.cpp:399] inception_5b/3x3 -> inception_5b/3x3
I0403 15:13:58.132736 31322 net.cpp:141] Setting up inception_5b/3x3
I0403 15:13:58.132766 31322 net.cpp:148] Top shape: 24 384 7 7 (451584)
I0403 15:13:58.132781 31322 net.cpp:156] Memory required for data: 1332467232
I0403 15:13:58.132800 31322 layer_factory.hpp:77] Creating layer inception_5b/relu_3x3
I0403 15:13:58.132822 31322 net.cpp:91] Creating Layer inception_5b/relu_3x3
I0403 15:13:58.132840 31322 net.cpp:425] inception_5b/relu_3x3 <- inception_5b/3x3
I0403 15:13:58.132858 31322 net.cpp:386] inception_5b/relu_3x3 -> inception_5b/3x3 (in-place)
I0403 15:13:58.133150 31322 net.cpp:141] Setting up inception_5b/relu_3x3
I0403 15:13:58.133177 31322 net.cpp:148] Top shape: 24 384 7 7 (451584)
I0403 15:13:58.133193 31322 net.cpp:156] Memory required for data: 1334273568
I0403 15:13:58.133209 31322 layer_factory.hpp:77] Creating layer inception_5b/5x5_reduce
I0403 15:13:58.133249 31322 net.cpp:91] Creating Layer inception_5b/5x5_reduce
I0403 15:13:58.133268 31322 net.cpp:425] inception_5b/5x5_reduce <- inception_5a/output_inception_5a/output_0_split_2
I0403 15:13:58.133293 31322 net.cpp:399] inception_5b/5x5_reduce -> inception_5b/5x5_reduce
I0403 15:13:58.134593 31322 net.cpp:141] Setting up inception_5b/5x5_reduce
I0403 15:13:58.134623 31322 net.cpp:148] Top shape: 24 48 7 7 (56448)
I0403 15:13:58.134639 31322 net.cpp:156] Memory required for data: 1334499360
I0403 15:13:58.134659 31322 layer_factory.hpp:77] Creating layer inception_5b/relu_5x5_reduce
I0403 15:13:58.134680 31322 net.cpp:91] Creating Layer inception_5b/relu_5x5_reduce
I0403 15:13:58.134697 31322 net.cpp:425] inception_5b/relu_5x5_reduce <- inception_5b/5x5_reduce
I0403 15:13:58.134716 31322 net.cpp:386] inception_5b/relu_5x5_reduce -> inception_5b/5x5_reduce (in-place)
I0403 15:13:58.135087 31322 net.cpp:141] Setting up inception_5b/relu_5x5_reduce
I0403 15:13:58.135113 31322 net.cpp:148] Top shape: 24 48 7 7 (56448)
I0403 15:13:58.135129 31322 net.cpp:156] Memory required for data: 1334725152
I0403 15:13:58.135145 31322 layer_factory.hpp:77] Creating layer inception_5b/5x5
I0403 15:13:58.135166 31322 net.cpp:91] Creating Layer inception_5b/5x5
I0403 15:13:58.135185 31322 net.cpp:425] inception_5b/5x5 <- inception_5b/5x5_reduce
I0403 15:13:58.135205 31322 net.cpp:399] inception_5b/5x5 -> inception_5b/5x5
I0403 15:13:58.137238 31322 net.cpp:141] Setting up inception_5b/5x5
I0403 15:13:58.137279 31322 net.cpp:148] Top shape: 24 128 7 7 (150528)
I0403 15:13:58.137298 31322 net.cpp:156] Memory required for data: 1335327264
I0403 15:13:58.137322 31322 layer_factory.hpp:77] Creating layer inception_5b/relu_5x5
I0403 15:13:58.137343 31322 net.cpp:91] Creating Layer inception_5b/relu_5x5
I0403 15:13:58.137362 31322 net.cpp:425] inception_5b/relu_5x5 <- inception_5b/5x5
I0403 15:13:58.137392 31322 net.cpp:386] inception_5b/relu_5x5 -> inception_5b/5x5 (in-place)
I0403 15:13:58.137604 31322 net.cpp:141] Setting up inception_5b/relu_5x5
I0403 15:13:58.137629 31322 net.cpp:148] Top shape: 24 128 7 7 (150528)
I0403 15:13:58.137647 31322 net.cpp:156] Memory required for data: 1335929376
I0403 15:13:58.137663 31322 layer_factory.hpp:77] Creating layer inception_5b/pool
I0403 15:13:58.137681 31322 net.cpp:91] Creating Layer inception_5b/pool
I0403 15:13:58.137697 31322 net.cpp:425] inception_5b/pool <- inception_5a/output_inception_5a/output_0_split_3
I0403 15:13:58.137718 31322 net.cpp:399] inception_5b/pool -> inception_5b/pool
I0403 15:13:58.137791 31322 net.cpp:141] Setting up inception_5b/pool
I0403 15:13:58.137819 31322 net.cpp:148] Top shape: 24 832 7 7 (978432)
I0403 15:13:58.137835 31322 net.cpp:156] Memory required for data: 1339843104
I0403 15:13:58.137850 31322 layer_factory.hpp:77] Creating layer inception_5b/pool_proj
I0403 15:13:58.137872 31322 net.cpp:91] Creating Layer inception_5b/pool_proj
I0403 15:13:58.137890 31322 net.cpp:425] inception_5b/pool_proj <- inception_5b/pool
I0403 15:13:58.137910 31322 net.cpp:399] inception_5b/pool_proj -> inception_5b/pool_proj
I0403 15:13:58.140252 31322 net.cpp:141] Setting up inception_5b/pool_proj
I0403 15:13:58.140283 31322 net.cpp:148] Top shape: 24 128 7 7 (150528)
I0403 15:13:58.140300 31322 net.cpp:156] Memory required for data: 1340445216
I0403 15:13:58.140324 31322 layer_factory.hpp:77] Creating layer inception_5b/relu_pool_proj
I0403 15:13:58.140347 31322 net.cpp:91] Creating Layer inception_5b/relu_pool_proj
I0403 15:13:58.140367 31322 net.cpp:425] inception_5b/relu_pool_proj <- inception_5b/pool_proj
I0403 15:13:58.140385 31322 net.cpp:386] inception_5b/relu_pool_proj -> inception_5b/pool_proj (in-place)
I0403 15:13:58.140692 31322 net.cpp:141] Setting up inception_5b/relu_pool_proj
I0403 15:13:58.140719 31322 net.cpp:148] Top shape: 24 128 7 7 (150528)
I0403 15:13:58.140736 31322 net.cpp:156] Memory required for data: 1341047328
I0403 15:13:58.140753 31322 layer_factory.hpp:77] Creating layer inception_5b/output
I0403 15:13:58.140774 31322 net.cpp:91] Creating Layer inception_5b/output
I0403 15:13:58.140805 31322 net.cpp:425] inception_5b/output <- inception_5b/1x1
I0403 15:13:58.140825 31322 net.cpp:425] inception_5b/output <- inception_5b/3x3
I0403 15:13:58.140842 31322 net.cpp:425] inception_5b/output <- inception_5b/5x5
I0403 15:13:58.140861 31322 net.cpp:425] inception_5b/output <- inception_5b/pool_proj
I0403 15:13:58.140879 31322 net.cpp:399] inception_5b/output -> inception_5b/output
I0403 15:13:58.140934 31322 net.cpp:141] Setting up inception_5b/output
I0403 15:13:58.140959 31322 net.cpp:148] Top shape: 24 1024 7 7 (1204224)
I0403 15:13:58.140975 31322 net.cpp:156] Memory required for data: 1345864224
I0403 15:13:58.140991 31322 layer_factory.hpp:77] Creating layer pool5/7x7_s1
I0403 15:13:58.141010 31322 net.cpp:91] Creating Layer pool5/7x7_s1
I0403 15:13:58.141027 31322 net.cpp:425] pool5/7x7_s1 <- inception_5b/output
I0403 15:13:58.141048 31322 net.cpp:399] pool5/7x7_s1 -> pool5/7x7_s1
I0403 15:13:58.141268 31322 net.cpp:141] Setting up pool5/7x7_s1
I0403 15:13:58.141297 31322 net.cpp:148] Top shape: 24 1024 1 1 (24576)
I0403 15:13:58.141317 31322 net.cpp:156] Memory required for data: 1345962528
I0403 15:13:58.141335 31322 layer_factory.hpp:77] Creating layer pool5/drop_7x7_s1
I0403 15:13:58.141356 31322 net.cpp:91] Creating Layer pool5/drop_7x7_s1
I0403 15:13:58.141373 31322 net.cpp:425] pool5/drop_7x7_s1 <- pool5/7x7_s1
I0403 15:13:58.141392 31322 net.cpp:386] pool5/drop_7x7_s1 -> pool5/7x7_s1 (in-place)
I0403 15:13:58.141446 31322 net.cpp:141] Setting up pool5/drop_7x7_s1
I0403 15:13:58.141470 31322 net.cpp:148] Top shape: 24 1024 1 1 (24576)
I0403 15:13:58.141486 31322 net.cpp:156] Memory required for data: 1346060832
I0403 15:13:58.141504 31322 layer_factory.hpp:77] Creating layer loss3/classifier_plantvillage
I0403 15:13:58.141525 31322 net.cpp:91] Creating Layer loss3/classifier_plantvillage
I0403 15:13:58.141543 31322 net.cpp:425] loss3/classifier_plantvillage <- pool5/7x7_s1
I0403 15:13:58.141563 31322 net.cpp:399] loss3/classifier_plantvillage -> loss3/classifier_plantvillage
I0403 15:13:58.141995 31322 net.cpp:141] Setting up loss3/classifier_plantvillage
I0403 15:13:58.142021 31322 net.cpp:148] Top shape: 24 38 (912)
I0403 15:13:58.142037 31322 net.cpp:156] Memory required for data: 1346064480
I0403 15:13:58.142057 31322 layer_factory.hpp:77] Creating layer loss3/classifier_plantvillage_loss3/classifier_plantvillage_0_split
I0403 15:13:58.142077 31322 net.cpp:91] Creating Layer loss3/classifier_plantvillage_loss3/classifier_plantvillage_0_split
I0403 15:13:58.142094 31322 net.cpp:425] loss3/classifier_plantvillage_loss3/classifier_plantvillage_0_split <- loss3/classifier_plantvillage
I0403 15:13:58.142117 31322 net.cpp:399] loss3/classifier_plantvillage_loss3/classifier_plantvillage_0_split -> loss3/classifier_plantvillage_loss3/classifier_plantvillage_0_split_0
I0403 15:13:58.142138 31322 net.cpp:399] loss3/classifier_plantvillage_loss3/classifier_plantvillage_0_split -> loss3/classifier_plantvillage_loss3/classifier_plantvillage_0_split_1
I0403 15:13:58.142161 31322 net.cpp:399] loss3/classifier_plantvillage_loss3/classifier_plantvillage_0_split -> loss3/classifier_plantvillage_loss3/classifier_plantvillage_0_split_2
I0403 15:13:58.142184 31322 net.cpp:399] loss3/classifier_plantvillage_loss3/classifier_plantvillage_0_split -> loss3/classifier_plantvillage_loss3/classifier_plantvillage_0_split_3
I0403 15:13:58.142287 31322 net.cpp:141] Setting up loss3/classifier_plantvillage_loss3/classifier_plantvillage_0_split
I0403 15:13:58.142310 31322 net.cpp:148] Top shape: 24 38 (912)
I0403 15:13:58.142331 31322 net.cpp:148] Top shape: 24 38 (912)
I0403 15:13:58.142349 31322 net.cpp:148] Top shape: 24 38 (912)
I0403 15:13:58.142369 31322 net.cpp:148] Top shape: 24 38 (912)
I0403 15:13:58.142384 31322 net.cpp:156] Memory required for data: 1346079072
I0403 15:13:58.142400 31322 layer_factory.hpp:77] Creating layer loss1/loss
I0403 15:13:58.142422 31322 net.cpp:91] Creating Layer loss1/loss
I0403 15:13:58.142441 31322 net.cpp:425] loss1/loss <- loss1/classifier_plantvillage_loss1/classifier_plantvillage_0_split_0
I0403 15:13:58.142473 31322 net.cpp:425] loss1/loss <- label_data_1_split_0
…
