…
I0403 14:49:12.111140 30347 net.cpp:313] The NetState phase (1) differed from the phase (0) specified by a rule in layer data
I0403 14:49:12.112360 30347 net.cpp:49] Initializing net from parameters: 
state {
  phase: TEST
}
layer {
  name: "data"
  type: "Data"
  top: "data"
  top: "label"
  include {
    phase: TEST
  }
  transform_param {
    mirror: false
    crop_size: 224
    mean_file: "/home/mohanty/data/final_dataset/lmdb/color-20-80/mean.binaryproto"
  }
  data_param {
    source: "/home/mohanty/data/final_dataset/lmdb/color-20-80/test_db"
    batch_size: 24
    backend: LMDB
  }
}
layer {
  name: "conv1/7x7_s2"
  type: "Convolution"
  bottom: "data"
  top: "conv1/7x7_s2"
  param {
    lr_mult: 1
    decay_mult: 1
  }
  param {
    lr_mult: 2
    decay_mult: 0
  }
  convolution_param {
    num_output: 64
    pad: 3
    kernel_size: 7
    stride: 2
    weight_filler {
      type: "xavier"
      std: 0.1
    }
    bias_filler {
      type: "constant"
      value: 0.2
    }
  }
}
layer {
  name: "conv1/relu_7x7"
  type: "ReLU"
  bottom: "conv1/7x7_s2"
  top: "conv1/7x7_s2"
}
layer {
  name: "pool1/3x3_s2"
  type: "Pooling"
  bottom: "conv1/7x7_s2"
  top: "pool1/3x3_s2"
  pooling_param {
    pool: MAX
    kernel_size: 3
    stride: 2
  }
}
layer {
  name: "pool1/norm1"
  type: "LRN"
  bottom: "pool1/3x3_s2"
  top: "pool1/norm1"
  lrn_param {
    local_size: 5
    alpha: 0.0001
    beta: 0.75
  }
}
layer {
  name: "conv2/3x3_reduce"
  type: "Convolution"
  bottom: "pool1/norm1"
  top: "conv2/3x3_reduce"
  param {
    lr_mult: 1
    decay_mult: 1
  }
  param {
    lr_mult: 2
    decay_mult: 0
  }
  convolution_param {
    num_output: 64
    kernel_size: 1
    weight_filler {
      type: "xavier"
      std: 0.1
    }
    bias_filler {
      type: "constant"
      value: 0.2
    }
  }
}
layer {
  name: "conv2/relu_3x3_reduce"
  type: "ReLU"
  bottom: "conv2/3x3_reduce"
  top: "conv2/3x3_reduce"
}
layer {
  name: "conv2/3x3"
  type: "Convolution"
  bottom: "conv2/3x3_reduce"
  top: "conv2/3x3"
  param {
    lr_mult: 1
    decay_mult: 1
  }
  param {
    lr_mult: 2
    decay_mult: 0
  }
  convolution_param {
    num_output: 192
    pad: 1
    kernel_size: 3
    weight_filler {
      type: "xavier"
      std: 0.03
    }
    bias_filler {
      type: "constant"
      value: 0.2
    }
  }
}
layer {
  name: "conv2/relu_3x3"
  type: "ReLU"
  bottom: "conv2/3x3"
  top: "conv2/3x3"
}
layer {
  name: "conv2/norm2"
  type: "LRN"
  bottom: "conv2/3x3"
  top: "conv2/norm2"
  lrn_param {
    local_size: 5
    alpha: 0.0001
    beta: 0.75
  }
}
layer {
  name: "pool2/3x3_s2"
  type: "Pooling"
  bottom: "conv2/norm2"
  top: "pool2/3x3_s2"
  pooling_param {
    pool: MAX
    kernel_size: 3
    stride: 2
  }
}
layer {
  name: "inception_3a/1x1"
  type: "Convolution"
  bottom: "pool2/3x3_s2"
  top: "inception_3a/1x1"
  param {
    lr_mult: 1
    decay_mult: 1
  }
  param {
    lr_mult: 2
    decay_mult: 0
  }
  convolution_param {
    num_output: 64
    kernel_size: 1
    weight_filler {
      type: "xavier"
      std: 0.03
    }
    bias_filler {
      type: "constant"
      value: 0.2
    }
  }
}
layer {
  name: "inception_3a/relu_1x1"
  type: "ReLU"
  bottom: "inception_3a/1x1"
  top: "inception_3a/1x1"
}
layer {
  name: "inception_3a/3x3_reduce"
  type: "Convolution"
  bottom: "pool2/3x3_s2"
  top: "inception_3a/3x3_reduce"
  param {
    lr_mult: 1
    decay_mult: 1
  }
  param {
    lr_mult: 2
    decay_mult: 0
  }
  convolution_param {
    num_output: 96
    kernel_size: 1
    weight_filler {
      type: "xavier"
      std: 0.09
    }
    bias_filler {
      type: "constant"
      value: 0.2
    }
  }
}
layer {
  name: "inception_3a/relu_3x3_reduce"
  type: "ReLU"
  bottom: "inception_3a/3x3_reduce"
  top: "inception_3a/3x3_reduce"
}
layer {
  name: "inception_3a/3x3"
  type: "Convolution"
  bottom: "inception_3a/3x3_reduce"
  top: "inception_3a/3x3"
  param {
    lr_mult: 1
    decay_mult: 1
  }
  param {
    lr_mult: 2
    decay_mult: 0
  }
  convolution_param {
    num_output: 128
    pad: 1
    kernel_size: 3
    weight_filler {
      type: "xavier"
      std: 0.03
    }
    bias_filler {
      type: "constant"
      value: 0.2
    }
  }
}
layer {
  name: "inception_3a/relu_3x3"
  type: "ReLU"
  bottom: "inception_3a/3x3"
  top: "inception_3a/3x3"
}
layer {
  name: "inception_3a/5x5_reduce"
  type: "Convolution"
  bottom: "pool2/3x3_s2"
  top: "inception_3a/5x5_reduce"
  param {
    lr_mult: 1
    decay_mult: 1
  }
  param {
    lr_mult: 2
    decay_mult: 0
  }
  convolution_param {
    num_output: 16
    kernel_size: 1
    weight_filler {
      type: "xavier"
      std: 0.2
    }
    bias_filler {
      type: "constant"
      value: 0.2
    }
  }
}
layer {
  name: "inception_3a/relu_5x5_reduce"
  type: "ReLU"
  bottom: "inception_3a/5x5_reduce"
  top: "inception_3a/5x5_reduce"
}
layer {
  name: "inception_3a/5x5"
  type: "Convolution"
  bottom: "inception_3a/5x5_reduce"
  top: "inception_3a/5x5"
  param {
    lr_mult: 1
    decay_mult: 1
  }
  param {
    lr_mult: 2
    decay_mult: 0
  }
  convolution_param {
    num_output: 32
    pad: 2
    kernel_size: 5
    weight_filler {
      type: "xavier"
      std: 0.03
    }
    bias_filler {
      type: "constant"
      value: 0.2
    }
  }
}
layer {
  name: "inception_3a/relu_5x5"
  type: "ReLU"
  bottom: "inception_3a/5x5"
  top: "inception_3a/5x5"
}
layer {
  name: "inception_3a/pool"
  type: "Pooling"
  bottom: "pool2/3x3_s2"
  top: "inception_3a/pool"
  pooling_param {
    pool: MAX
    kernel_size: 3
    stride: 1
    pad: 1
  }
}
layer {
  name: "inception_3a/pool_proj"
  type: "Convolution"
  bottom: "inception_3a/pool"
  top: "inception_3a/pool_proj"
  param {
    lr_mult: 1
    decay_mult: 1
  }
  param {
    lr_mult: 2
    decay_mult: 0
  }
  convolution_param {
    num_output: 32
    kernel_size: 1
    weight_filler {
      type: "xavier"
      std: 0.1
    }
    bias_filler {
      type: "constant"
      value: 0.2
    }
  }
}
layer {
  name: "inception_3a/relu_pool_proj"
  type: "ReLU"
  bottom: "inception_3a/pool_proj"
  top: "inception_3a/pool_proj"
}
layer {
  name: "inception_3a/output"
  type: "Concat"
  bottom: "inception_3a/1x1"
  bottom: "inception_3a/3x3"
  bottom: "inception_3a/5x5"
  bottom: "inception_3a/pool_proj"
  top: "inception_3a/output"
}
layer {
  name: "inception_3b/1x1"
  type: "Convolution"
  bottom: "inception_3a/output"
  top: "inception_3b/1x1"
  param {
    lr_mult: 1
    decay_mult: 1
  }
  param {
    lr_mult: 2
    decay_mult: 0
  }
  convolution_param {
    num_output: 128
    kernel_size: 1
    weight_filler {
      type: "xavier"
      std: 0.03
    }
    bias_filler {
      type: "constant"
      value: 0.2
    }
  }
}
layer {
  name: "inception_3b/relu_1x1"
  type: "ReLU"
  bottom: "inception_3b/1x1"
  top: "inception_3b/1x1"
}
layer {
  name: "inception_3b/3x3_reduce"
  type: "Convolution"
  bottom: "inception_3a/output"
  top: "inception_3b/3x3_reduce"
  param {
    lr_mult: 1
    decay_mult: 1
  }
  param {
    lr_mult: 2
    decay_mult: 0
  }
  convolution_param {
    num_output: 128
    kernel_size: 1
    weight_filler {
      type: "xavier"
      std: 0.09
    }
    bias_filler {
      type: "constant"
      value: 0.2
    }
  }
}
layer {
  name: "inception_3b/relu_3x3_reduce"
  type: "ReLU"
  bottom: "inception_3b/3x3_reduce"
  top: "inception_3b/3x3_reduce"
}
layer {
  name: "inception_3b/3x3"
  type: "Convolution"
  bottom: "inception_3b/3x3_reduce"
  top: "inception_3b/3x3"
  param {
    lr_mult: 1
    decay_mult: 1
  }
  param {
    lr_mult: 2
    decay_mult: 0
  }
  convolution_param {
    num_output: 192
    pad: 1
    kernel_size: 3
    weight_filler {
      type: "xavier"
      std: 0.03
    }
    bias_filler {
      type: "constant"
      value: 0.2
    }
  }
}
layer {
  name: "inception_3b/relu_3x3"
  type: "ReLU"
  bottom: "inception_3b/3x3"
  top: "inception_3b/3x3"
}
layer {
  name: "inception_3b/5x5_reduce"
  type: "Convolution"
  bottom: "inception_3a/output"
  top: "inception_3b/5x5_reduce"
  param {
    lr_mult: 1
    decay_mult: 1
  }
  param {
    lr_mult: 2
    decay_mult: 0
  }
  convolution_param {
    num_output: 32
    kernel_size: 1
    weight_filler {
      type: "xavier"
      std: 0.2
    }
    bias_filler {
      type: "constant"
      value: 0.2
    }
  }
}
layer {
  name: "inception_3b/relu_5x5_reduce"
  type: "ReLU"
  bottom: "inception_3b/5x5_reduce"
  top: "inception_3b/5x5_reduce"
}
layer {
  name: "inception_3b/5x5"
  type: "Convolution"
  bottom: "inception_3b/5x5_reduce"
  top: "inception_3b/5x5"
  param {
    lr_mult: 1
    decay_mult: 1
  }
  param {
    lr_mult: 2
    decay_mult: 0
  }
  convolution_param {
    num_output: 96
    pad: 2
    kernel_size: 5
    weight_filler {
      type: "xavier"
      std: 0.03
    }
    bias_filler {
      type: "constant"
      value: 0.2
    }
  }
}
layer {
  name: "inception_3b/relu_5x5"
  type: "ReLU"
  bottom: "inception_3b/5x5"
  top: "inception_3b/5x5"
}
layer {
  name: "inception_3b/pool"
  type: "Pooling"
  bottom: "inception_3a/output"
  top: "inception_3b/pool"
  pooling_param {
    pool: MAX
    kernel_size: 3
    stride: 1
    pad: 1
  }
}
layer {
  name: "inception_3b/pool_proj"
  type: "Convolution"
  bottom: "inception_3b/pool"
  top: "inception_3b/pool_proj"
  param {
    lr_mult: 1
    decay_mult: 1
  }
  param {
    lr_mult: 2
    decay_mult: 0
  }
  convolution_param {
    num_output: 64
    kernel_size: 1
    weight_filler {
      type: "xavier"
      std: 0.1
    }
    bias_filler {
      type: "constant"
      value: 0.2
    }
  }
}
layer {
  name: "inception_3b/relu_pool_proj"
  type: "ReLU"
  bottom: "inception_3b/pool_proj"
  top: "inception_3b/pool_proj"
}
layer {
  name: "inception_3b/output"
  type: "Concat"
  bottom: "inception_3b/1x1"
  bottom: "inception_3b/3x3"
  bottom: "inception_3b/5x5"
  bottom: "inception_3b/pool_proj"
  top: "inception_3b/output"
}
layer {
  name: "pool3/3x3_s2"
  type: "Pooling"
  bottom: "inception_3b/output"
  top: "pool3/3x3_s2"
  pooling_param {
    pool: MAX
    kernel_size: 3
    stride: 2
  }
}
layer {
  name: "inception_4a/1x1"
  type: "Convolution"
  bottom: "pool3/3x3_s2"
  top: "inception_4a/1x1"
  param {
    lr_mult: 1
    decay_mult: 1
  }
  param {
    lr_mult: 2
    decay_mult: 0
  }
  convolution_param {
    num_output: 192
    kernel_size: 1
    weight_filler {
      type: "xavier"
      std: 0.03
    }
    bias_filler {
      type: "constant"
      value: 0.2
    }
  }
}
layer {
  name: "inception_4a/relu_1x1"
  type: "ReLU"
  bottom: "inception_4a/1x1"
  top: "inception_4a/1x1"
}
layer {
  name: "inception_4a/3x3_reduce"
  type: "Convolution"
  bottom: "pool3/3x3_s2"
  top: "inception_4a/3x3_reduce"
  param {
    lr_mult: 1
    decay_mult: 1
  }
  param {
    lr_mult: 2
    decay_mult: 0
  }
  convolution_param {
    num_output: 96
    kernel_size: 1
    weight_filler {
      type: "xavier"
      std: 0.09
    }
    bias_filler {
      type: "constant"
      value: 0.2
    }
  }
}
layer {
  name: "inception_4a/relu_3x3_reduce"
  type: "ReLU"
  bottom: "inception_4a/3x3_reduce"
  top: "inception_4a/3x3_reduce"
}
layer {
  name: "inception_4a/3x3"
  type: "Convolution"
  bottom: "inception_4a/3x3_reduce"
  top: "inception_4a/3x3"
  param {
    lr_mult: 1
    decay_mult: 1
  }
  param {
    lr_mult: 2
    decay_mult: 0
  }
  convolution_param {
    num_output: 208
    pad: 1
    kernel_size: 3
    weight_filler {
      type: "xavier"
      std: 0.03
    }
    bias_filler {
      type: "constant"
      value: 0.2
    }
  }
}
layer {
  name: "inception_4a/relu_3x3"
  type: "ReLU"
  bottom: "inception_4a/3x3"
  top: "inception_4a/3x3"
}
layer {
  name: "inception_4a/5x5_reduce"
  type: "Convolution"
  bottom: "pool3/3x3_s2"
  top: "inception_4a/5x5_reduce"
  param {
    lr_mult: 1
    decay_mult: 1
  }
  param {
    lr_mult: 2
    decay_mult: 0
  }
  convolution_param {
    num_output: 16
    kernel_size: 1
    weight_filler {
      type: "xavier"
      std: 0.2
    }
    bias_filler {
      type: "constant"
      value: 0.2
    }
  }
}
layer {
  name: "inception_4a/relu_5x5_reduce"
  type: "ReLU"
  bottom: "inception_4a/5x5_reduce"
  top: "inception_4a/5x5_reduce"
}
layer {
  name: "inception_4a/5x5"
  type: "Convolution"
  bottom: "inception_4a/5x5_reduce"
  top: "inception_4a/5x5"
  param {
    lr_mult: 1
    decay_mult: 1
  }
  param {
    lr_mult: 2
    decay_mult: 0
  }
  convolution_param {
    num_output: 48
    pad: 2
    kernel_size: 5
    weight_filler {
      type: "xavier"
      std: 0.03
    }
    bias_filler {
      type: "constant"
      value: 0.2
    }
  }
}
layer {
  name: "inception_4a/relu_5x5"
  type: "ReLU"
  bottom: "inception_4a/5x5"
  top: "inception_4a/5x5"
}
layer {
  name: "inception_4a/pool"
  type: "Pooling"
  bottom: "pool3/3x3_s2"
  top: "inception_4a/pool"
  pooling_param {
    pool: MAX
    kernel_size: 3
    stride: 1
    pad: 1
  }
}
layer {
  name: "inception_4a/pool_proj"
  type: "Convolution"
  bottom: "inception_4a/pool"
  top: "inception_4a/pool_proj"
  param {
    lr_mult: 1
    decay_mult: 1
  }
  param {
    lr_mult: 2
    decay_mult: 0
  }
  convolution_param {
    num_output: 64
    kernel_size: 1
    weight_filler {
      type: "xavier"
      std: 0.1
    }
    bias_filler {
      type: "constant"
      value: 0.2
    }
  }
}
layer {
  name: "inception_4a/relu_pool_proj"
  type: "ReLU"
  bottom: "inception_4a/pool_proj"
  top: "inception_4a/pool_proj"
}
layer {
  name: "inception_4a/output"
  type: "Concat"
  bottom: "inception_4a/1x1"
  bottom: "inception_4a/3x3"
  bottom: "inception_4a/5x5"
  bottom: "inception_4a/pool_proj"
  top: "inception_4a/output"
}
layer {
  name: "loss1/ave_pool"
  type: "Pooling"
  bottom: "inception_4a/output"
  top: "loss1/ave_pool"
  pooling_param {
    pool: AVE
    kernel_size: 5
    stride: 3
  }
}
layer {
  name: "loss1/conv"
  type: "Convolution"
  bottom: "loss1/ave_pool"
  top: "loss1/conv"
  param {
    lr_mult: 1
    decay_mult: 1
  }
  param {
    lr_mult: 2
    decay_mult: 0
  }
  convolution_param {
    num_output: 128
    kernel_size: 1
    weight_filler {
      type: "xavier"
      std: 0.08
    }
    bias_filler {
      type: "constant"
      value: 0.2
    }
  }
}
layer {
  name: "loss1/relu_conv"
  type: "ReLU"
  bottom: "loss1/conv"
  top: "loss1/conv"
}
layer {
  name: "loss1/fc"
  type: "InnerProduct"
  bottom: "loss1/conv"
  top: "loss1/fc"
  param {
    lr_mult: 1
    decay_mult: 1
  }
  param {
    lr_mult: 2
    decay_mult: 0
  }
  inner_product_param {
    num_output: 1024
    weight_filler {
      type: "xavier"
      std: 0.02
    }
    bias_filler {
      type: "constant"
      value: 0.2
    }
  }
}
layer {
  name: "loss1/relu_fc"
  type: "ReLU"
  bottom: "loss1/fc"
  top: "loss1/fc"
}
layer {
  name: "loss1/drop_fc"
  type: "Dropout"
  bottom: "loss1/fc"
  top: "loss1/fc"
  dropout_param {
    dropout_ratio: 0.7
  }
}
layer {
  name: "loss1/classifier_plantvillage"
  type: "InnerProduct"
  bottom: "loss1/fc"
  top: "loss1/classifier_plantvillage"
  param {
    lr_mult: 1
    decay_mult: 1
  }
  param {
    lr_mult: 2
    decay_mult: 0
  }
  inner_product_param {
    num_output: 38
    weight_filler {
      type: "xavier"
      std: 0.0009765625
    }
    bias_filler {
      type: "constant"
      value: 0
    }
  }
}
layer {
  name: "inception_4b/1x1"
  type: "Convolution"
  bottom: "inception_4a/output"
  top: "inception_4b/1x1"
  param {
    lr_mult: 1
    decay_mult: 1
  }
  param {
    lr_mult: 2
    decay_mult: 0
  }
  convolution_param {
    num_output: 160
    kernel_size: 1
    weight_filler {
      type: "xavier"
      std: 0.03
    }
    bias_filler {
      type: "constant"
      value: 0.2
    }
  }
}
layer {
  name: "inception_4b/relu_1x1"
  type: "ReLU"
  bottom: "inception_4b/1x1"
  top: "inception_4b/1x1"
}
layer {
  name: "inception_4b/3x3_reduce"
  type: "Convolution"
  bottom: "inception_4a/output"
  top: "inception_4b/3x3_reduce"
  param {
    lr_mult: 1
    decay_mult: 1
  }
  param {
    lr_mult: 2
    decay_mult: 0
  }
  convolution_param {
    num_output: 112
    kernel_size: 1
    weight_filler {
      type: "xavier"
      std: 0.09
    }
    bias_filler {
      type: "constant"
      value: 0.2
    }
  }
}
layer {
  name: "inception_4b/relu_3x3_reduce"
  type: "ReLU"
  bottom: "inception_4b/3x3_reduce"
  top: "inception_4b/3x3_reduce"
}
layer {
  name: "inception_4b/3x3"
  type: "Convolution"
  bottom: "inception_4b/3x3_reduce"
  top: "inception_4b/3x3"
  param {
    lr_mult: 1
    decay_mult: 1
  }
  param {
    lr_mult: 2
    decay_mult: 0
  }
  convolution_param {
    num_output: 224
    pad: 1
    kernel_size: 3
    weight_filler {
      type: "xavier"
      std: 0.03
    }
    bias_filler {
      type: "constant"
      value: 0.2
    }
  }
}
layer {
  name: "inception_4b/relu_3x3"
  type: "ReLU"
  bottom: "inception_4b/3x3"
  top: "inception_4b/3x3"
}
layer {
  name: "inception_4b/5x5_reduce"
  type: "Convolution"
  bottom: "inception_4a/output"
  top: "inception_4b/5x5_reduce"
  param {
    lr_mult: 1
    decay_mult: 1
  }
  param {
    lr_mult: 2
    decay_mult: 0
  }
  convolution_param {
    num_output: 24
    kernel_size: 1
    weight_filler {
      type: "xavier"
      std: 0.2
    }
    bias_filler {
      type: "constant"
      value: 0.2
    }
  }
}
layer {
  name: "inception_4b/relu_5x5_reduce"
  type: "ReLU"
  bottom: "inception_4b/5x5_reduce"
  top: "inception_4b/5x5_reduce"
}
layer {
  name: "inception_4b/5x5"
  type: "Convolution"
  bottom: "inception_4b/5x5_reduce"
  top: "inception_4b/5x5"
  param {
    lr_mult: 1
    decay_mult: 1
  }
  param {
    lr_mult: 2
    decay_mult: 0
  }
  convolution_param {
    num_output: 64
    pad: 2
    kernel_size: 5
    weight_filler {
      type: "xavier"
      std: 0.03
    }
    bias_filler {
      type: "constant"
      value: 0.2
    }
  }
}
layer {
  name: "inception_4b/relu_5x5"
  type: "ReLU"
  bottom: "inception_4b/5x5"
  top: "inception_4b/5x5"
}
layer {
  name: "inception_4b/pool"
  type: "Pooling"
  bottom: "inception_4a/output"
  top: "inception_4b/pool"
  pooling_param {
    pool: MAX
    kernel_size: 3
    stride: 1
    pad: 1
  }
}
layer {
  name: "inception_4b/pool_proj"
  type: "Convolution"
  bottom: "inception_4b/pool"
  top: "inception_4b/pool_proj"
  param {
    lr_mult: 1
    decay_mult: 1
  }
  param {
    lr_mult: 2
    decay_mult: 0
  }
  convolution_param {
    num_output: 64
    kernel_size: 1
    weight_filler {
      type: "xavier"
      std: 0.1
    }
    bias_filler {
      type: "constant"
      value: 0.2
    }
  }
}
layer {
  name: "inception_4b/relu_pool_proj"
  type: "ReLU"
  bottom: "inception_4b/pool_proj"
  top: "inception_4b/pool_proj"
}
layer {
  name: "inception_4b/output"
  type: "Concat"
  bottom: "inception_4b/1x1"
  bottom: "inception_4b/3x3"
  bottom: "inception_4b/5x5"
  bottom: "inception_4b/pool_proj"
  top: "inception_4b/output"
}
layer {
  name: "inception_4c/1x1"
  type: "Convolution"
  bottom: "inception_4b/output"
  top: "inception_4c/1x1"
  param {
    lr_mult: 1
    decay_mult: 1
  }
  param {
    lr_mult: 2
    decay_mult: 0
  }
  convolution_param {
    num_output: 128
    kernel_size: 1
    weight_filler {
      type: "xavier"
      std: 0.03
    }
    bias_filler {
      type: "constant"
      value: 0.2
    }
  }
}
layer {
  name: "inception_4c/relu_1x1"
  type: "ReLU"
  bottom: "inception_4c/1x1"
  top: "inception_4c/1x1"
}
layer {
  name: "inception_4c/3x3_reduce"
  type: "Convolution"
  bottom: "inception_4b/output"
  top: "inception_4c/3x3_reduce"
  param {
    lr_mult: 1
    decay_mult: 1
  }
  param {
    lr_mult: 2
    decay_mult: 0
  }
  convolution_param {
    num_output: 128
    kernel_size: 1
    weight_filler {
      type: "xavier"
      std: 0.09
    }
    bias_filler {
      type: "constant"
      value: 0.2
    }
  }
}
layer {
  name: "inception_4c/relu_3x3_reduce"
  type: "ReLU"
  bottom: "inception_4c/3x3_reduce"
  top: "inception_4c/3x3_reduce"
}
layer {
  name: "inception_4c/3x3"
  type: "Convolution"
  bottom: "inception_4c/3x3_reduce"
  top: "inception_4c/3x3"
  param {
    lr_mult: 1
    decay_mult: 1
  }
  param {
    lr_mult: 2
    decay_mult: 0
  }
  convolution_param {
    num_output: 256
    pad: 1
    kernel_size: 3
    weight_filler {
      type: "xavier"
      std: 0.03
    }
    bias_filler {
      type: "constant"
      value: 0.2
    }
  }
}
layer {
  name: "inception_4c/relu_3x3"
  type: "ReLU"
  bottom: "inception_4c/3x3"
  top: "inception_4c/3x3"
}
layer {
  name: "inception_4c/5x5_reduce"
  type: "Convolution"
  bottom: "inception_4b/output"
  top: "inception_4c/5x5_reduce"
  param {
    lr_mult: 1
    decay_mult: 1
  }
  param {
    lr_mult: 2
    decay_mult: 0
  }
  convolution_param {
    num_output: 24
    kernel_size: 1
    weight_filler {
      type: "xavier"
      std: 0.2
    }
    bias_filler {
      type: "constant"
      value: 0.2
    }
  }
}
layer {
  name: "inception_4c/relu_5x5_reduce"
  type: "ReLU"
  bottom: "inception_4c/5x5_reduce"
  top: "inception_4c/5x5_reduce"
}
layer {
  name: "inception_4c/5x5"
  type: "Convolution"
  bottom: "inception_4c/5x5_reduce"
  top: "inception_4c/5x5"
  param {
    lr_mult: 1
    decay_mult: 1
  }
  param {
    lr_mult: 2
    decay_mult: 0
  }
  convolution_param {
    num_output: 64
    pad: 2
    kernel_size: 5
    weight_filler {
      type: "xavier"
      std: 0.03
    }
    bias_filler {
      type: "constant"
      value: 0.2
    }
  }
}
layer {
  name: "inception_4c/relu_5x5"
  type: "ReLU"
  bottom: "inception_4c/5x5"
  top: "inception_4c/5x5"
}
layer {
  name: "inception_4c/pool"
  type: "Pooling"
  bottom: "inception_4b/output"
  top: "inception_4c/pool"
  pooling_param {
    pool: MAX
    kernel_size: 3
    stride: 1
    pad: 1
  }
}
layer {
  name: "inception_4c/pool_proj"
  type: "Convolution"
  bottom: "inception_4c/pool"
  top: "inception_4c/pool_proj"
  param {
    lr_mult: 1
    decay_mult: 1
  }
  param {
    lr_mult: 2
    decay_mult: 0
  }
  convolution_param {
    num_output: 64
    kernel_size: 1
    weight_filler {
      type: "xavier"
      std: 0.1
    }
    bias_filler {
      type: "constant"
      value: 0.2
    }
  }
}
layer {
  name: "inception_4c/relu_pool_proj"
  type: "ReLU"
  bottom: "inception_4c/pool_proj"
  top: "inception_4c/pool_proj"
}
layer {
  name: "inception_4c/output"
  type: "Concat"
  bottom: "inception_4c/1x1"
  bottom: "inception_4c/3x3"
  bottom: "inception_4c/5x5"
  bottom: "inception_4c/pool_proj"
  top: "inception_4c/output"
}
layer {
  name: "inception_4d/1x1"
  type: "Convolution"
  bottom: "inception_4c/output"
  top: "inception_4d/1x1"
  param {
    lr_mult: 1
    decay_mult: 1
  }
  param {
    lr_mult: 2
    decay_mult: 0
  }
  convolution_param {
    num_output: 112
    kernel_size: 1
    weight_filler {
      type: "xavier"
      std: 0.03
    }
    bias_filler {
      type: "constant"
      value: 0.2
    }
  }
}
layer {
  name: "inception_4d/relu_1x1"
  type: "ReLU"
  bottom: "inception_4d/1x1"
  top: "inception_4d/1x1"
}
layer {
  name: "inception_4d/3x3_reduce"
  type: "Convolution"
  bottom: "inception_4c/output"
  top: "inception_4d/3x3_reduce"
  param {
    lr_mult: 1
    decay_mult: 1
  }
  param {
    lr_mult: 2
    decay_mult: 0
  }
  convolution_param {
    num_output: 144
    kernel_size: 1
    weight_filler {
      type: "xavier"
      std: 0.09
    }
    bias_filler {
      type: "constant"
      value: 0.2
    }
  }
}
layer {
  name: "inception_4d/relu_3x3_reduce"
  type: "ReLU"
  bottom: "inception_4d/3x3_reduce"
  top: "inception_4d/3x3_reduce"
}
layer {
  name: "inception_4d/3x3"
  type: "Convolution"
  bottom: "inception_4d/3x3_reduce"
  top: "inception_4d/3x3"
  param {
    lr_mult: 1
    decay_mult: 1
  }
  param {
    lr_mult: 2
    decay_mult: 0
  }
  convolution_param {
    num_output: 288
    pad: 1
    kernel_size: 3
    weight_filler {
      type: "xavier"
      std: 0.03
    }
    bias_filler {
      type: "constant"
      value: 0.2
    }
  }
}
layer {
  name: "inception_4d/relu_3x3"
  type: "ReLU"
  bottom: "inception_4d/3x3"
  top: "inception_4d/3x3"
}
layer {
  name: "inception_4d/5x5_reduce"
  type: "Convolution"
  bottom: "inception_4c/output"
  top: "inception_4d/5x5_reduce"
  param {
    lr_mult: 1
    decay_mult: 1
  }
  param {
    lr_mult: 2
    decay_mult: 0
  }
  convolution_param {
    num_output: 32
    kernel_size: 1
    weight_filler {
      type: "xavier"
      std: 0.2
    }
    bias_filler {
      type: "constant"
      value: 0.2
    }
  }
}
layer {
  name: "inception_4d/relu_5x5_reduce"
  type: "ReLU"
  bottom: "inception_4d/5x5_reduce"
  top: "inception_4d/5x5_reduce"
}
layer {
  name: "inception_4d/5x5"
  type: "Convolution"
  bottom: "inception_4d/5x5_reduce"
  top: "inception_4d/5x5"
  param {
    lr_mult: 1
    decay_mult: 1
  }
  param {
    lr_mult: 2
    decay_mult: 0
  }
  convolution_param {
    num_output: 64
    pad: 2
    kernel_size: 5
    weight_filler {
      type: "xavier"
      std: 0.03
    }
    bias_filler {
      type: "constant"
      value: 0.2
    }
  }
}
layer {
  name: "inception_4d/relu_5x5"
  type: "ReLU"
  bottom: "inception_4d/5x5"
  top: "inception_4d/5x5"
}
layer {
  name: "inception_4d/pool"
  type: "Pooling"
  bottom: "inception_4c/output"
  top: "inception_4d/pool"
  pooling_param {
    pool: MAX
    kernel_size: 3
    stride: 1
    pad: 1
  }
}
layer {
  name: "inception_4d/pool_proj"
  type: "Convolution"
  bottom: "inception_4d/pool"
  top: "inception_4d/pool_proj"
  param {
    lr_mult: 1
    decay_mult: 1
  }
  param {
    lr_mult: 2
    decay_mult: 0
  }
  convolution_param {
    num_output: 64
    kernel_size: 1
    weight_filler {
      type: "xavier"
      std: 0.1
    }
    bias_filler {
      type: "constant"
      value: 0.2
    }
  }
}
layer {
  name: "inception_4d/relu_pool_proj"
  type: "ReLU"
  bottom: "inception_4d/pool_proj"
  top: "inception_4d/pool_proj"
}
layer {
  name: "inception_4d/output"
  type: "Concat"
  bottom: "inception_4d/1x1"
  bottom: "inception_4d/3x3"
  bottom: "inception_4d/5x5"
  bottom: "inception_4d/pool_proj"
  top: "inception_4d/output"
}
layer {
  name: "loss2/ave_pool"
  type: "Pooling"
  bottom: "inception_4d/output"
  top: "loss2/ave_pool"
  pooling_param {
    pool: AVE
    kernel_size: 5
    stride: 3
  }
}
layer {
  name: "loss2/conv"
  type: "Convolution"
  bottom: "loss2/ave_pool"
  top: "loss2/conv"
  param {
    lr_mult: 1
    decay_mult: 1
  }
  param {
    lr_mult: 2
    decay_mult: 0
  }
  convolution_param {
    num_output: 128
    kernel_size: 1
    weight_filler {
      type: "xavier"
      std: 0.08
    }
    bias_filler {
      type: "constant"
      value: 0.2
    }
  }
}
layer {
  name: "loss2/relu_conv"
  type: "ReLU"
  bottom: "loss2/conv"
  top: "loss2/conv"
}
layer {
  name: "loss2/fc"
  type: "InnerProduct"
  bottom: "loss2/conv"
  top: "loss2/fc"
  param {
    lr_mult: 1
    decay_mult: 1
  }
  param {
    lr_mult: 2
    decay_mult: 0
  }
  inner_product_param {
    num_output: 1024
    weight_filler {
      type: "xavier"
      std: 0.02
    }
    bias_filler {
      type: "constant"
      value: 0.2
    }
  }
}
layer {
  name: "loss2/relu_fc"
  type: "ReLU"
  bottom: "loss2/fc"
  top: "loss2/fc"
}
layer {
  name: "loss2/drop_fc"
  type: "Dropout"
  bottom: "loss2/fc"
  top: "loss2/fc"
  dropout_param {
    dropout_ratio: 0.7
  }
}
layer {
  name: "loss2/classifier_plantvillage"
  type: "InnerProduct"
  bottom: "loss2/fc"
  top: "loss2/classifier_plantvillage"
  param {
    lr_mult: 1
    decay_mult: 1
  }
  param {
    lr_mult: 2
    decay_mult: 0
  }
  inner_product_param {
    num_output: 38
    weight_filler {
      type: "xavier"
      std: 0.0009765625
    }
    bias_filler {
      type: "constant"
      value: 0
    }
  }
}
layer {
  name: "inception_4e/1x1"
  type: "Convolution"
  bottom: "inception_4d/output"
  top: "inception_4e/1x1"
  param {
    lr_mult: 1
    decay_mult: 1
  }
  param {
    lr_mult: 2
    decay_mult: 0
  }
  convolution_param {
    num_output: 256
    kernel_size: 1
    weight_filler {
      type: "xavier"
      std: 0.03
    }
    bias_filler {
      type: "constant"
      value: 0.2
    }
  }
}
layer {
  name: "inception_4e/relu_1x1"
  type: "ReLU"
  bottom: "inception_4e/1x1"
  top: "inception_4e/1x1"
}
layer {
  name: "inception_4e/3x3_reduce"
  type: "Convolution"
  bottom: "inception_4d/output"
  top: "inception_4e/3x3_reduce"
  param {
    lr_mult: 1
    decay_mult: 1
  }
  param {
    lr_mult: 2
    decay_mult: 0
  }
  convolution_param {
    num_output: 160
    kernel_size: 1
    weight_filler {
      type: "xavier"
      std: 0.09
    }
    bias_filler {
      type: "constant"
      value: 0.2
    }
  }
}
layer {
  name: "inception_4e/relu_3x3_reduce"
  type: "ReLU"
  bottom: "inception_4e/3x3_reduce"
  top: "inception_4e/3x3_reduce"
}
layer {
  name: "inception_4e/3x3"
  type: "Convolution"
  bottom: "inception_4e/3x3_reduce"
  top: "inception_4e/3x3"
  param {
    lr_mult: 1
    decay_mult: 1
  }
  param {
    lr_mult: 2
    decay_mult: 0
  }
  convolution_param {
    num_output: 320
    pad: 1
    kernel_size: 3
    weight_filler {
      type: "xavier"
      std: 0.03
    }
    bias_filler {
      type: "constant"
      value: 0.2
    }
  }
}
layer {
  name: "inception_4e/relu_3x3"
  type: "ReLU"
  bottom: "inception_4e/3x3"
  top: "inception_4e/3x3"
}
layer {
  name: "inception_4e/5x5_reduce"
  type: "Convolution"
  bottom: "inception_4d/output"
  top: "inception_4e/5x5_reduce"
  param {
    lr_mult: 1
    decay_mult: 1
  }
  param {
    lr_mult: 2
    decay_mult: 0
  }
  convolution_param {
    num_output: 32
    kernel_size: 1
    weight_filler {
      type: "xavier"
      std: 0.2
    }
    bias_filler {
      type: "constant"
      value: 0.2
    }
  }
}
layer {
  name: "inception_4e/relu_5x5_reduce"
  type: "ReLU"
  bottom: "inception_4e/5x5_reduce"
  top: "inception_4e/5x5_reduce"
}
layer {
  name: "inception_4e/5x5"
  type: "Convolution"
  bottom: "inception_4e/5x5_reduce"
  top: "inception_4e/5x5"
  p
I0403 14:49:12.113634 30347 layer_factory.hpp:77] Creating layer data
I0403 14:49:12.114243 30347 net.cpp:91] Creating Layer data
I0403 14:49:12.114289 30347 net.cpp:399] data -> data
I0403 14:49:12.114342 30347 net.cpp:399] data -> label
I0403 14:49:12.114395 30347 data_transformer.cpp:25] Loading mean file from: /home/mohanty/data/final_dataset/lmdb/color-20-80/mean.binaryproto
I0403 14:49:12.116729 30361 db_lmdb.cpp:38] Opened lmdb /home/mohanty/data/final_dataset/lmdb/color-20-80/test_db
I0403 14:49:12.127951 30347 data_layer.cpp:41] output data size: 24,3,224,224
I0403 14:49:12.155730 30347 net.cpp:141] Setting up data
I0403 14:49:12.155819 30347 net.cpp:148] Top shape: 24 3 224 224 (3612672)
I0403 14:49:12.155843 30347 net.cpp:148] Top shape: 24 (24)
I0403 14:49:12.155860 30347 net.cpp:156] Memory required for data: 14450784
I0403 14:49:12.155890 30347 layer_factory.hpp:77] Creating layer label_data_1_split
I0403 14:49:12.155918 30347 net.cpp:91] Creating Layer label_data_1_split
I0403 14:49:12.155937 30347 net.cpp:425] label_data_1_split <- label
I0403 14:49:12.155972 30347 net.cpp:399] label_data_1_split -> label_data_1_split_0
I0403 14:49:12.156002 30347 net.cpp:399] label_data_1_split -> label_data_1_split_1
I0403 14:49:12.156026 30347 net.cpp:399] label_data_1_split -> label_data_1_split_2
I0403 14:49:12.156049 30347 net.cpp:399] label_data_1_split -> label_data_1_split_3
I0403 14:49:12.156069 30347 net.cpp:399] label_data_1_split -> label_data_1_split_4
I0403 14:49:12.156088 30347 net.cpp:399] label_data_1_split -> label_data_1_split_5
I0403 14:49:12.156110 30347 net.cpp:399] label_data_1_split -> label_data_1_split_6
I0403 14:49:12.156131 30347 net.cpp:399] label_data_1_split -> label_data_1_split_7
I0403 14:49:12.156152 30347 net.cpp:399] label_data_1_split -> label_data_1_split_8
I0403 14:49:12.156174 30347 net.cpp:399] label_data_1_split -> label_data_1_split_9
I0403 14:49:12.156293 30347 net.cpp:141] Setting up label_data_1_split
I0403 14:49:12.156318 30347 net.cpp:148] Top shape: 24 (24)
I0403 14:49:12.156337 30347 net.cpp:148] Top shape: 24 (24)
I0403 14:49:12.156359 30347 net.cpp:148] Top shape: 24 (24)
I0403 14:49:12.156381 30347 net.cpp:148] Top shape: 24 (24)
I0403 14:49:12.156399 30347 net.cpp:148] Top shape: 24 (24)
I0403 14:49:12.156415 30347 net.cpp:148] Top shape: 24 (24)
I0403 14:49:12.156432 30347 net.cpp:148] Top shape: 24 (24)
I0403 14:49:12.156448 30347 net.cpp:148] Top shape: 24 (24)
I0403 14:49:12.156464 30347 net.cpp:148] Top shape: 24 (24)
I0403 14:49:12.156483 30347 net.cpp:148] Top shape: 24 (24)
I0403 14:49:12.156530 30347 net.cpp:156] Memory required for data: 14451744
I0403 14:49:12.156548 30347 layer_factory.hpp:77] Creating layer conv1/7x7_s2
I0403 14:49:12.156580 30347 net.cpp:91] Creating Layer conv1/7x7_s2
I0403 14:49:12.156601 30347 net.cpp:425] conv1/7x7_s2 <- data
I0403 14:49:12.156622 30347 net.cpp:399] conv1/7x7_s2 -> conv1/7x7_s2
I0403 14:49:12.302603 30347 net.cpp:141] Setting up conv1/7x7_s2
I0403 14:49:12.302726 30347 net.cpp:148] Top shape: 24 64 112 112 (19267584)
I0403 14:49:12.302748 30347 net.cpp:156] Memory required for data: 91522080
I0403 14:49:12.302781 30347 layer_factory.hpp:77] Creating layer conv1/relu_7x7
I0403 14:49:12.302815 30347 net.cpp:91] Creating Layer conv1/relu_7x7
I0403 14:49:12.302835 30347 net.cpp:425] conv1/relu_7x7 <- conv1/7x7_s2
I0403 14:49:12.302860 30347 net.cpp:386] conv1/relu_7x7 -> conv1/7x7_s2 (in-place)
I0403 14:49:12.303143 30347 net.cpp:141] Setting up conv1/relu_7x7
I0403 14:49:12.303171 30347 net.cpp:148] Top shape: 24 64 112 112 (19267584)
I0403 14:49:12.303189 30347 net.cpp:156] Memory required for data: 168592416
I0403 14:49:12.303205 30347 layer_factory.hpp:77] Creating layer pool1/3x3_s2
I0403 14:49:12.303231 30347 net.cpp:91] Creating Layer pool1/3x3_s2
I0403 14:49:12.303251 30347 net.cpp:425] pool1/3x3_s2 <- conv1/7x7_s2
I0403 14:49:12.303273 30347 net.cpp:399] pool1/3x3_s2 -> pool1/3x3_s2
I0403 14:49:12.303360 30347 net.cpp:141] Setting up pool1/3x3_s2
I0403 14:49:12.303387 30347 net.cpp:148] Top shape: 24 64 56 56 (4816896)
I0403 14:49:12.303405 30347 net.cpp:156] Memory required for data: 187860000
I0403 14:49:12.303421 30347 layer_factory.hpp:77] Creating layer pool1/norm1
I0403 14:49:12.303448 30347 net.cpp:91] Creating Layer pool1/norm1
I0403 14:49:12.303469 30347 net.cpp:425] pool1/norm1 <- pool1/3x3_s2
I0403 14:49:12.303490 30347 net.cpp:399] pool1/norm1 -> pool1/norm1
I0403 14:49:12.303840 30347 net.cpp:141] Setting up pool1/norm1
I0403 14:49:12.303869 30347 net.cpp:148] Top shape: 24 64 56 56 (4816896)
I0403 14:49:12.303887 30347 net.cpp:156] Memory required for data: 207127584
I0403 14:49:12.303905 30347 layer_factory.hpp:77] Creating layer conv2/3x3_reduce
I0403 14:49:12.303933 30347 net.cpp:91] Creating Layer conv2/3x3_reduce
I0403 14:49:12.303954 30347 net.cpp:425] conv2/3x3_reduce <- pool1/norm1
I0403 14:49:12.303977 30347 net.cpp:399] conv2/3x3_reduce -> conv2/3x3_reduce
I0403 14:49:12.305573 30347 net.cpp:141] Setting up conv2/3x3_reduce
I0403 14:49:12.305606 30347 net.cpp:148] Top shape: 24 64 56 56 (4816896)
I0403 14:49:12.305634 30347 net.cpp:156] Memory required for data: 226395168
I0403 14:49:12.305670 30347 layer_factory.hpp:77] Creating layer conv2/relu_3x3_reduce
I0403 14:49:12.305696 30347 net.cpp:91] Creating Layer conv2/relu_3x3_reduce
I0403 14:49:12.305726 30347 net.cpp:425] conv2/relu_3x3_reduce <- conv2/3x3_reduce
I0403 14:49:12.305742 30347 net.cpp:386] conv2/relu_3x3_reduce -> conv2/3x3_reduce (in-place)
I0403 14:49:12.306022 30347 net.cpp:141] Setting up conv2/relu_3x3_reduce
I0403 14:49:12.306052 30347 net.cpp:148] Top shape: 24 64 56 56 (4816896)
I0403 14:49:12.306071 30347 net.cpp:156] Memory required for data: 245662752
I0403 14:49:12.306085 30347 layer_factory.hpp:77] Creating layer conv2/3x3
I0403 14:49:12.306109 30347 net.cpp:91] Creating Layer conv2/3x3
I0403 14:49:12.306128 30347 net.cpp:425] conv2/3x3 <- conv2/3x3_reduce
I0403 14:49:12.306148 30347 net.cpp:399] conv2/3x3 -> conv2/3x3
I0403 14:49:12.308683 30347 net.cpp:141] Setting up conv2/3x3
I0403 14:49:12.308729 30347 net.cpp:148] Top shape: 24 192 56 56 (14450688)
I0403 14:49:12.308748 30347 net.cpp:156] Memory required for data: 303465504
I0403 14:49:12.308769 30347 layer_factory.hpp:77] Creating layer conv2/relu_3x3
I0403 14:49:12.308789 30347 net.cpp:91] Creating Layer conv2/relu_3x3
I0403 14:49:12.308806 30347 net.cpp:425] conv2/relu_3x3 <- conv2/3x3
I0403 14:49:12.308825 30347 net.cpp:386] conv2/relu_3x3 -> conv2/3x3 (in-place)
I0403 14:49:12.309000 30347 net.cpp:141] Setting up conv2/relu_3x3
I0403 14:49:12.309026 30347 net.cpp:148] Top shape: 24 192 56 56 (14450688)
I0403 14:49:12.309063 30347 net.cpp:156] Memory required for data: 361268256
I0403 14:49:12.309080 30347 layer_factory.hpp:77] Creating layer conv2/norm2
I0403 14:49:12.309103 30347 net.cpp:91] Creating Layer conv2/norm2
I0403 14:49:12.309120 30347 net.cpp:425] conv2/norm2 <- conv2/3x3
I0403 14:49:12.309139 30347 net.cpp:399] conv2/norm2 -> conv2/norm2
I0403 14:49:12.309471 30347 net.cpp:141] Setting up conv2/norm2
I0403 14:49:12.309501 30347 net.cpp:148] Top shape: 24 192 56 56 (14450688)
I0403 14:49:12.309517 30347 net.cpp:156] Memory required for data: 419071008
I0403 14:49:12.309535 30347 layer_factory.hpp:77] Creating layer pool2/3x3_s2
I0403 14:49:12.309556 30347 net.cpp:91] Creating Layer pool2/3x3_s2
I0403 14:49:12.309576 30347 net.cpp:425] pool2/3x3_s2 <- conv2/norm2
I0403 14:49:12.309597 30347 net.cpp:399] pool2/3x3_s2 -> pool2/3x3_s2
I0403 14:49:12.309685 30347 net.cpp:141] Setting up pool2/3x3_s2
I0403 14:49:12.309723 30347 net.cpp:148] Top shape: 24 192 28 28 (3612672)
I0403 14:49:12.309739 30347 net.cpp:156] Memory required for data: 433521696
I0403 14:49:12.309754 30347 layer_factory.hpp:77] Creating layer pool2/3x3_s2_pool2/3x3_s2_0_split
I0403 14:49:12.309772 30347 net.cpp:91] Creating Layer pool2/3x3_s2_pool2/3x3_s2_0_split
I0403 14:49:12.309788 30347 net.cpp:425] pool2/3x3_s2_pool2/3x3_s2_0_split <- pool2/3x3_s2
I0403 14:49:12.309813 30347 net.cpp:399] pool2/3x3_s2_pool2/3x3_s2_0_split -> pool2/3x3_s2_pool2/3x3_s2_0_split_0
I0403 14:49:12.309834 30347 net.cpp:399] pool2/3x3_s2_pool2/3x3_s2_0_split -> pool2/3x3_s2_pool2/3x3_s2_0_split_1
I0403 14:49:12.309854 30347 net.cpp:399] pool2/3x3_s2_pool2/3x3_s2_0_split -> pool2/3x3_s2_pool2/3x3_s2_0_split_2
I0403 14:49:12.309875 30347 net.cpp:399] pool2/3x3_s2_pool2/3x3_s2_0_split -> pool2/3x3_s2_pool2/3x3_s2_0_split_3
I0403 14:49:12.309953 30347 net.cpp:141] Setting up pool2/3x3_s2_pool2/3x3_s2_0_split
I0403 14:49:12.309989 30347 net.cpp:148] Top shape: 24 192 28 28 (3612672)
I0403 14:49:12.310009 30347 net.cpp:148] Top shape: 24 192 28 28 (3612672)
I0403 14:49:12.310025 30347 net.cpp:148] Top shape: 24 192 28 28 (3612672)
I0403 14:49:12.310041 30347 net.cpp:148] Top shape: 24 192 28 28 (3612672)
I0403 14:49:12.310055 30347 net.cpp:156] Memory required for data: 491324448
I0403 14:49:12.310070 30347 layer_factory.hpp:77] Creating layer inception_3a/1x1
I0403 14:49:12.310092 30347 net.cpp:91] Creating Layer inception_3a/1x1
I0403 14:49:12.310111 30347 net.cpp:425] inception_3a/1x1 <- pool2/3x3_s2_pool2/3x3_s2_0_split_0
I0403 14:49:12.310128 30347 net.cpp:399] inception_3a/1x1 -> inception_3a/1x1
I0403 14:49:12.311744 30347 net.cpp:141] Setting up inception_3a/1x1
I0403 14:49:12.311774 30347 net.cpp:148] Top shape: 24 64 28 28 (1204224)
I0403 14:49:12.311791 30347 net.cpp:156] Memory required for data: 496141344
I0403 14:49:12.311810 30347 layer_factory.hpp:77] Creating layer inception_3a/relu_1x1
I0403 14:49:12.311831 30347 net.cpp:91] Creating Layer inception_3a/relu_1x1
I0403 14:49:12.311849 30347 net.cpp:425] inception_3a/relu_1x1 <- inception_3a/1x1
I0403 14:49:12.311867 30347 net.cpp:386] inception_3a/relu_1x1 -> inception_3a/1x1 (in-place)
I0403 14:49:12.312043 30347 net.cpp:141] Setting up inception_3a/relu_1x1
I0403 14:49:12.312069 30347 net.cpp:148] Top shape: 24 64 28 28 (1204224)
I0403 14:49:12.312085 30347 net.cpp:156] Memory required for data: 500958240
I0403 14:49:12.312100 30347 layer_factory.hpp:77] Creating layer inception_3a/3x3_reduce
I0403 14:49:12.312124 30347 net.cpp:91] Creating Layer inception_3a/3x3_reduce
I0403 14:49:12.312144 30347 net.cpp:425] inception_3a/3x3_reduce <- pool2/3x3_s2_pool2/3x3_s2_0_split_1
I0403 14:49:12.312165 30347 net.cpp:399] inception_3a/3x3_reduce -> inception_3a/3x3_reduce
I0403 14:49:12.313969 30347 net.cpp:141] Setting up inception_3a/3x3_reduce
I0403 14:49:12.314002 30347 net.cpp:148] Top shape: 24 96 28 28 (1806336)
I0403 14:49:12.314029 30347 net.cpp:156] Memory required for data: 508183584
I0403 14:49:12.314051 30347 layer_factory.hpp:77] Creating layer inception_3a/relu_3x3_reduce
I0403 14:49:12.314087 30347 net.cpp:91] Creating Layer inception_3a/relu_3x3_reduce
I0403 14:49:12.314106 30347 net.cpp:425] inception_3a/relu_3x3_reduce <- inception_3a/3x3_reduce
I0403 14:49:12.314126 30347 net.cpp:386] inception_3a/relu_3x3_reduce -> inception_3a/3x3_reduce (in-place)
I0403 14:49:12.314321 30347 net.cpp:141] Setting up inception_3a/relu_3x3_reduce
I0403 14:49:12.314369 30347 net.cpp:148] Top shape: 24 96 28 28 (1806336)
I0403 14:49:12.314390 30347 net.cpp:156] Memory required for data: 515408928
I0403 14:49:12.314406 30347 layer_factory.hpp:77] Creating layer inception_3a/3x3
I0403 14:49:12.314430 30347 net.cpp:91] Creating Layer inception_3a/3x3
I0403 14:49:12.314450 30347 net.cpp:425] inception_3a/3x3 <- inception_3a/3x3_reduce
I0403 14:49:12.314474 30347 net.cpp:399] inception_3a/3x3 -> inception_3a/3x3
I0403 14:49:12.316149 30347 net.cpp:141] Setting up inception_3a/3x3
I0403 14:49:12.316182 30347 net.cpp:148] Top shape: 24 128 28 28 (2408448)
I0403 14:49:12.316201 30347 net.cpp:156] Memory required for data: 525042720
I0403 14:49:12.316220 30347 layer_factory.hpp:77] Creating layer inception_3a/relu_3x3
I0403 14:49:12.316238 30347 net.cpp:91] Creating Layer inception_3a/relu_3x3
I0403 14:49:12.316254 30347 net.cpp:425] inception_3a/relu_3x3 <- inception_3a/3x3
I0403 14:49:12.316275 30347 net.cpp:386] inception_3a/relu_3x3 -> inception_3a/3x3 (in-place)
I0403 14:49:12.316550 30347 net.cpp:141] Setting up inception_3a/relu_3x3
I0403 14:49:12.316581 30347 net.cpp:148] Top shape: 24 128 28 28 (2408448)
I0403 14:49:12.316598 30347 net.cpp:156] Memory required for data: 534676512
I0403 14:49:12.316613 30347 layer_factory.hpp:77] Creating layer inception_3a/5x5_reduce
I0403 14:49:12.316637 30347 net.cpp:91] Creating Layer inception_3a/5x5_reduce
I0403 14:49:12.316655 30347 net.cpp:425] inception_3a/5x5_reduce <- pool2/3x3_s2_pool2/3x3_s2_0_split_2
I0403 14:49:12.316675 30347 net.cpp:399] inception_3a/5x5_reduce -> inception_3a/5x5_reduce
I0403 14:49:12.317630 30347 net.cpp:141] Setting up inception_3a/5x5_reduce
I0403 14:49:12.317657 30347 net.cpp:148] Top shape: 24 16 28 28 (301056)
I0403 14:49:12.317683 30347 net.cpp:156] Memory required for data: 535880736
I0403 14:49:12.317703 30347 layer_factory.hpp:77] Creating layer inception_3a/relu_5x5_reduce
I0403 14:49:12.317720 30347 net.cpp:91] Creating Layer inception_3a/relu_5x5_reduce
I0403 14:49:12.317736 30347 net.cpp:425] inception_3a/relu_5x5_reduce <- inception_3a/5x5_reduce
I0403 14:49:12.317759 30347 net.cpp:386] inception_3a/relu_5x5_reduce -> inception_3a/5x5_reduce (in-place)
I0403 14:49:12.318051 30347 net.cpp:141] Setting up inception_3a/relu_5x5_reduce
I0403 14:49:12.318078 30347 net.cpp:148] Top shape: 24 16 28 28 (301056)
I0403 14:49:12.318095 30347 net.cpp:156] Memory required for data: 537084960
I0403 14:49:12.318111 30347 layer_factory.hpp:77] Creating layer inception_3a/5x5
I0403 14:49:12.318135 30347 net.cpp:91] Creating Layer inception_3a/5x5
I0403 14:49:12.318152 30347 net.cpp:425] inception_3a/5x5 <- inception_3a/5x5_reduce
I0403 14:49:12.318176 30347 net.cpp:399] inception_3a/5x5 -> inception_3a/5x5
I0403 14:49:12.319202 30347 net.cpp:141] Setting up inception_3a/5x5
I0403 14:49:12.319232 30347 net.cpp:148] Top shape: 24 32 28 28 (602112)
I0403 14:49:12.319250 30347 net.cpp:156] Memory required for data: 539493408
I0403 14:49:12.319270 30347 layer_factory.hpp:77] Creating layer inception_3a/relu_5x5
I0403 14:49:12.319289 30347 net.cpp:91] Creating Layer inception_3a/relu_5x5
I0403 14:49:12.319308 30347 net.cpp:425] inception_3a/relu_5x5 <- inception_3a/5x5
I0403 14:49:12.319329 30347 net.cpp:386] inception_3a/relu_5x5 -> inception_3a/5x5 (in-place)
I0403 14:49:12.319506 30347 net.cpp:141] Setting up inception_3a/relu_5x5
I0403 14:49:12.319532 30347 net.cpp:148] Top shape: 24 32 28 28 (602112)
I0403 14:49:12.319546 30347 net.cpp:156] Memory required for data: 541901856
I0403 14:49:12.319561 30347 layer_factory.hpp:77] Creating layer inception_3a/pool
I0403 14:49:12.319581 30347 net.cpp:91] Creating Layer inception_3a/pool
I0403 14:49:12.319598 30347 net.cpp:425] inception_3a/pool <- pool2/3x3_s2_pool2/3x3_s2_0_split_3
I0403 14:49:12.319638 30347 net.cpp:399] inception_3a/pool -> inception_3a/pool
I0403 14:49:12.319697 30347 net.cpp:141] Setting up inception_3a/pool
I0403 14:49:12.319722 30347 net.cpp:148] Top shape: 24 192 28 28 (3612672)
I0403 14:49:12.319737 30347 net.cpp:156] Memory required for data: 556352544
I0403 14:49:12.319753 30347 layer_factory.hpp:77] Creating layer inception_3a/pool_proj
I0403 14:49:12.319778 30347 net.cpp:91] Creating Layer inception_3a/pool_proj
I0403 14:49:12.319797 30347 net.cpp:425] inception_3a/pool_proj <- inception_3a/pool
I0403 14:49:12.319818 30347 net.cpp:399] inception_3a/pool_proj -> inception_3a/pool_proj
I0403 14:49:12.320832 30347 net.cpp:141] Setting up inception_3a/pool_proj
I0403 14:49:12.320861 30347 net.cpp:148] Top shape: 24 32 28 28 (602112)
I0403 14:49:12.320878 30347 net.cpp:156] Memory required for data: 558760992
I0403 14:49:12.320915 30347 layer_factory.hpp:77] Creating layer inception_3a/relu_pool_proj
I0403 14:49:12.320936 30347 net.cpp:91] Creating Layer inception_3a/relu_pool_proj
I0403 14:49:12.320953 30347 net.cpp:425] inception_3a/relu_pool_proj <- inception_3a/pool_proj
I0403 14:49:12.320984 30347 net.cpp:386] inception_3a/relu_pool_proj -> inception_3a/pool_proj (in-place)
I0403 14:49:12.321254 30347 net.cpp:141] Setting up inception_3a/relu_pool_proj
I0403 14:49:12.321283 30347 net.cpp:148] Top shape: 24 32 28 28 (602112)
I0403 14:49:12.321300 30347 net.cpp:156] Memory required for data: 561169440
I0403 14:49:12.321316 30347 layer_factory.hpp:77] Creating layer inception_3a/output
I0403 14:49:12.321336 30347 net.cpp:91] Creating Layer inception_3a/output
I0403 14:49:12.321357 30347 net.cpp:425] inception_3a/output <- inception_3a/1x1
I0403 14:49:12.321375 30347 net.cpp:425] inception_3a/output <- inception_3a/3x3
I0403 14:49:12.321393 30347 net.cpp:425] inception_3a/output <- inception_3a/5x5
I0403 14:49:12.321409 30347 net.cpp:425] inception_3a/output <- inception_3a/pool_proj
I0403 14:49:12.321429 30347 net.cpp:399] inception_3a/output -> inception_3a/output
I0403 14:49:12.321477 30347 net.cpp:141] Setting up inception_3a/output
I0403 14:49:12.321501 30347 net.cpp:148] Top shape: 24 256 28 28 (4816896)
I0403 14:49:12.321517 30347 net.cpp:156] Memory required for data: 580437024
I0403 14:49:12.321532 30347 layer_factory.hpp:77] Creating layer inception_3a/output_inception_3a/output_0_split
I0403 14:49:12.321554 30347 net.cpp:91] Creating Layer inception_3a/output_inception_3a/output_0_split
I0403 14:49:12.321573 30347 net.cpp:425] inception_3a/output_inception_3a/output_0_split <- inception_3a/output
I0403 14:49:12.321604 30347 net.cpp:399] inception_3a/output_inception_3a/output_0_split -> inception_3a/output_inception_3a/output_0_split_0
I0403 14:49:12.321625 30347 net.cpp:399] inception_3a/output_inception_3a/output_0_split -> inception_3a/output_inception_3a/output_0_split_1
I0403 14:49:12.321652 30347 net.cpp:399] inception_3a/output_inception_3a/output_0_split -> inception_3a/output_inception_3a/output_0_split_2
I0403 14:49:12.321676 30347 net.cpp:399] inception_3a/output_inception_3a/output_0_split -> inception_3a/output_inception_3a/output_0_split_3
I0403 14:49:12.321750 30347 net.cpp:141] Setting up inception_3a/output_inception_3a/output_0_split
I0403 14:49:12.321779 30347 net.cpp:148] Top shape: 24 256 28 28 (4816896)
I0403 14:49:12.321796 30347 net.cpp:148] Top shape: 24 256 28 28 (4816896)
I0403 14:49:12.321813 30347 net.cpp:148] Top shape: 24 256 28 28 (4816896)
I0403 14:49:12.321830 30347 net.cpp:148] Top shape: 24 256 28 28 (4816896)
I0403 14:49:12.321844 30347 net.cpp:156] Memory required for data: 657507360
I0403 14:49:12.321861 30347 layer_factory.hpp:77] Creating layer inception_3b/1x1
I0403 14:49:12.321889 30347 net.cpp:91] Creating Layer inception_3b/1x1
I0403 14:49:12.321909 30347 net.cpp:425] inception_3b/1x1 <- inception_3a/output_inception_3a/output_0_split_0
I0403 14:49:12.321941 30347 net.cpp:399] inception_3b/1x1 -> inception_3b/1x1
I0403 14:49:12.323139 30347 net.cpp:141] Setting up inception_3b/1x1
I0403 14:49:12.323179 30347 net.cpp:148] Top shape: 24 128 28 28 (2408448)
I0403 14:49:12.323199 30347 net.cpp:156] Memory required for data: 667141152
I0403 14:49:12.323217 30347 layer_factory.hpp:77] Creating layer inception_3b/relu_1x1
I0403 14:49:12.323236 30347 net.cpp:91] Creating Layer inception_3b/relu_1x1
I0403 14:49:12.323253 30347 net.cpp:425] inception_3b/relu_1x1 <- inception_3b/1x1
I0403 14:49:12.323284 30347 net.cpp:386] inception_3b/relu_1x1 -> inception_3b/1x1 (in-place)
I0403 14:49:12.323472 30347 net.cpp:141] Setting up inception_3b/relu_1x1
I0403 14:49:12.323501 30347 net.cpp:148] Top shape: 24 128 28 28 (2408448)
I0403 14:49:12.323520 30347 net.cpp:156] Memory required for data: 676774944
I0403 14:49:12.323539 30347 layer_factory.hpp:77] Creating layer inception_3b/3x3_reduce
I0403 14:49:12.323572 30347 net.cpp:91] Creating Layer inception_3b/3x3_reduce
I0403 14:49:12.323591 30347 net.cpp:425] inception_3b/3x3_reduce <- inception_3a/output_inception_3a/output_0_split_1
I0403 14:49:12.323611 30347 net.cpp:399] inception_3b/3x3_reduce -> inception_3b/3x3_reduce
I0403 14:49:12.324772 30347 net.cpp:141] Setting up inception_3b/3x3_reduce
I0403 14:49:12.324802 30347 net.cpp:148] Top shape: 24 128 28 28 (2408448)
I0403 14:49:12.324818 30347 net.cpp:156] Memory required for data: 686408736
I0403 14:49:12.324837 30347 layer_factory.hpp:77] Creating layer inception_3b/relu_3x3_reduce
I0403 14:49:12.324858 30347 net.cpp:91] Creating Layer inception_3b/relu_3x3_reduce
I0403 14:49:12.324877 30347 net.cpp:425] inception_3b/relu_3x3_reduce <- inception_3b/3x3_reduce
I0403 14:49:12.324894 30347 net.cpp:386] inception_3b/relu_3x3_reduce -> inception_3b/3x3_reduce (in-place)
I0403 14:49:12.325065 30347 net.cpp:141] Setting up inception_3b/relu_3x3_reduce
I0403 14:49:12.325093 30347 net.cpp:148] Top shape: 24 128 28 28 (2408448)
I0403 14:49:12.325109 30347 net.cpp:156] Memory required for data: 696042528
I0403 14:49:12.325129 30347 layer_factory.hpp:77] Creating layer inception_3b/3x3
I0403 14:49:12.325153 30347 net.cpp:91] Creating Layer inception_3b/3x3
I0403 14:49:12.325172 30347 net.cpp:425] inception_3b/3x3 <- inception_3b/3x3_reduce
I0403 14:49:12.325194 30347 net.cpp:399] inception_3b/3x3 -> inception_3b/3x3
I0403 14:49:12.328272 30347 net.cpp:141] Setting up inception_3b/3x3
I0403 14:49:12.328305 30347 net.cpp:148] Top shape: 24 192 28 28 (3612672)
I0403 14:49:12.328325 30347 net.cpp:156] Memory required for data: 710493216
I0403 14:49:12.328343 30347 layer_factory.hpp:77] Creating layer inception_3b/relu_3x3
I0403 14:49:12.328367 30347 net.cpp:91] Creating Layer inception_3b/relu_3x3
I0403 14:49:12.328385 30347 net.cpp:425] inception_3b/relu_3x3 <- inception_3b/3x3
I0403 14:49:12.328405 30347 net.cpp:386] inception_3b/relu_3x3 -> inception_3b/3x3 (in-place)
I0403 14:49:12.328706 30347 net.cpp:141] Setting up inception_3b/relu_3x3
I0403 14:49:12.328735 30347 net.cpp:148] Top shape: 24 192 28 28 (3612672)
I0403 14:49:12.328752 30347 net.cpp:156] Memory required for data: 724943904
I0403 14:49:12.328766 30347 layer_factory.hpp:77] Creating layer inception_3b/5x5_reduce
I0403 14:49:12.328789 30347 net.cpp:91] Creating Layer inception_3b/5x5_reduce
I0403 14:49:12.328809 30347 net.cpp:425] inception_3b/5x5_reduce <- inception_3a/output_inception_3a/output_0_split_2
I0403 14:49:12.328827 30347 net.cpp:399] inception_3b/5x5_reduce -> inception_3b/5x5_reduce
I0403 14:49:12.329815 30347 net.cpp:141] Setting up inception_3b/5x5_reduce
I0403 14:49:12.329846 30347 net.cpp:148] Top shape: 24 32 28 28 (602112)
I0403 14:49:12.329864 30347 net.cpp:156] Memory required for data: 727352352
I0403 14:49:12.329884 30347 layer_factory.hpp:77] Creating layer inception_3b/relu_5x5_reduce
I0403 14:49:12.329905 30347 net.cpp:91] Creating Layer inception_3b/relu_5x5_reduce
I0403 14:49:12.329921 30347 net.cpp:425] inception_3b/relu_5x5_reduce <- inception_3b/5x5_reduce
I0403 14:49:12.329942 30347 net.cpp:386] inception_3b/relu_5x5_reduce -> inception_3b/5x5_reduce (in-place)
I0403 14:49:12.330116 30347 net.cpp:141] Setting up inception_3b/relu_5x5_reduce
I0403 14:49:12.330154 30347 net.cpp:148] Top shape: 24 32 28 28 (602112)
I0403 14:49:12.330170 30347 net.cpp:156] Memory required for data: 729760800
I0403 14:49:12.330185 30347 layer_factory.hpp:77] Creating layer inception_3b/5x5
I0403 14:49:12.330207 30347 net.cpp:91] Creating Layer inception_3b/5x5
I0403 14:49:12.330226 30347 net.cpp:425] inception_3b/5x5 <- inception_3b/5x5_reduce
I0403 14:49:12.330248 30347 net.cpp:399] inception_3b/5x5 -> inception_3b/5x5
I0403 14:49:12.332265 30347 net.cpp:141] Setting up inception_3b/5x5
I0403 14:49:12.332295 30347 net.cpp:148] Top shape: 24 96 28 28 (1806336)
I0403 14:49:12.332311 30347 net.cpp:156] Memory required for data: 736986144
I0403 14:49:12.332330 30347 layer_factory.hpp:77] Creating layer inception_3b/relu_5x5
I0403 14:49:12.332355 30347 net.cpp:91] Creating Layer inception_3b/relu_5x5
I0403 14:49:12.332373 30347 net.cpp:425] inception_3b/relu_5x5 <- inception_3b/5x5
I0403 14:49:12.332392 30347 net.cpp:386] inception_3b/relu_5x5 -> inception_3b/5x5 (in-place)
I0403 14:49:12.332583 30347 net.cpp:141] Setting up inception_3b/relu_5x5
I0403 14:49:12.332609 30347 net.cpp:148] Top shape: 24 96 28 28 (1806336)
I0403 14:49:12.332624 30347 net.cpp:156] Memory required for data: 744211488
I0403 14:49:12.332639 30347 layer_factory.hpp:77] Creating layer inception_3b/pool
I0403 14:49:12.332659 30347 net.cpp:91] Creating Layer inception_3b/pool
I0403 14:49:12.332675 30347 net.cpp:425] inception_3b/pool <- inception_3a/output_inception_3a/output_0_split_3
I0403 14:49:12.332695 30347 net.cpp:399] inception_3b/pool -> inception_3b/pool
I0403 14:49:12.332751 30347 net.cpp:141] Setting up inception_3b/pool
I0403 14:49:12.332774 30347 net.cpp:148] Top shape: 24 256 28 28 (4816896)
I0403 14:49:12.332790 30347 net.cpp:156] Memory required for data: 763479072
I0403 14:49:12.332805 30347 layer_factory.hpp:77] Creating layer inception_3b/pool_proj
I0403 14:49:12.332829 30347 net.cpp:91] Creating Layer inception_3b/pool_proj
I0403 14:49:12.332849 30347 net.cpp:425] inception_3b/pool_proj <- inception_3b/pool
I0403 14:49:12.332867 30347 net.cpp:399] inception_3b/pool_proj -> inception_3b/pool_proj
I0403 14:49:12.333912 30347 net.cpp:141] Setting up inception_3b/pool_proj
I0403 14:49:12.333941 30347 net.cpp:148] Top shape: 24 64 28 28 (1204224)
I0403 14:49:12.333958 30347 net.cpp:156] Memory required for data: 768295968
I0403 14:49:12.333977 30347 layer_factory.hpp:77] Creating layer inception_3b/relu_pool_proj
I0403 14:49:12.333997 30347 net.cpp:91] Creating Layer inception_3b/relu_pool_proj
I0403 14:49:12.334014 30347 net.cpp:425] inception_3b/relu_pool_proj <- inception_3b/pool_proj
I0403 14:49:12.334033 30347 net.cpp:386] inception_3b/relu_pool_proj -> inception_3b/pool_proj (in-place)
I0403 14:49:12.334444 30347 net.cpp:141] Setting up inception_3b/relu_pool_proj
I0403 14:49:12.334471 30347 net.cpp:148] Top shape: 24 64 28 28 (1204224)
I0403 14:49:12.334487 30347 net.cpp:156] Memory required for data: 773112864
I0403 14:49:12.334503 30347 layer_factory.hpp:77] Creating layer inception_3b/output
I0403 14:49:12.334522 30347 net.cpp:91] Creating Layer inception_3b/output
I0403 14:49:12.334543 30347 net.cpp:425] inception_3b/output <- inception_3b/1x1
I0403 14:49:12.334560 30347 net.cpp:425] inception_3b/output <- inception_3b/3x3
I0403 14:49:12.334579 30347 net.cpp:425] inception_3b/output <- inception_3b/5x5
I0403 14:49:12.334595 30347 net.cpp:425] inception_3b/output <- inception_3b/pool_proj
I0403 14:49:12.334615 30347 net.cpp:399] inception_3b/output -> inception_3b/output
I0403 14:49:12.334659 30347 net.cpp:141] Setting up inception_3b/output
I0403 14:49:12.334686 30347 net.cpp:148] Top shape: 24 480 28 28 (9031680)
I0403 14:49:12.334702 30347 net.cpp:156] Memory required for data: 809239584
I0403 14:49:12.334719 30347 layer_factory.hpp:77] Creating layer pool3/3x3_s2
I0403 14:49:12.334738 30347 net.cpp:91] Creating Layer pool3/3x3_s2
I0403 14:49:12.334754 30347 net.cpp:425] pool3/3x3_s2 <- inception_3b/output
I0403 14:49:12.334775 30347 net.cpp:399] pool3/3x3_s2 -> pool3/3x3_s2
I0403 14:49:12.334849 30347 net.cpp:141] Setting up pool3/3x3_s2
I0403 14:49:12.334874 30347 net.cpp:148] Top shape: 24 480 14 14 (2257920)
I0403 14:49:12.334890 30347 net.cpp:156] Memory required for data: 818271264
I0403 14:49:12.334905 30347 layer_factory.hpp:77] Creating layer pool3/3x3_s2_pool3/3x3_s2_0_split
I0403 14:49:12.334925 30347 net.cpp:91] Creating Layer pool3/3x3_s2_pool3/3x3_s2_0_split
I0403 14:49:12.334941 30347 net.cpp:425] pool3/3x3_s2_pool3/3x3_s2_0_split <- pool3/3x3_s2
I0403 14:49:12.334959 30347 net.cpp:399] pool3/3x3_s2_pool3/3x3_s2_0_split -> pool3/3x3_s2_pool3/3x3_s2_0_split_0
I0403 14:49:12.334980 30347 net.cpp:399] pool3/3x3_s2_pool3/3x3_s2_0_split -> pool3/3x3_s2_pool3/3x3_s2_0_split_1
I0403 14:49:12.335000 30347 net.cpp:399] pool3/3x3_s2_pool3/3x3_s2_0_split -> pool3/3x3_s2_pool3/3x3_s2_0_split_2
I0403 14:49:12.335021 30347 net.cpp:399] pool3/3x3_s2_pool3/3x3_s2_0_split -> pool3/3x3_s2_pool3/3x3_s2_0_split_3
I0403 14:49:12.335098 30347 net.cpp:141] Setting up pool3/3x3_s2_pool3/3x3_s2_0_split
I0403 14:49:12.335122 30347 net.cpp:148] Top shape: 24 480 14 14 (2257920)
I0403 14:49:12.335139 30347 net.cpp:148] Top shape: 24 480 14 14 (2257920)
I0403 14:49:12.335155 30347 net.cpp:148] Top shape: 24 480 14 14 (2257920)
I0403 14:49:12.335172 30347 net.cpp:148] Top shape: 24 480 14 14 (2257920)
I0403 14:49:12.335187 30347 net.cpp:156] Memory required for data: 854397984
I0403 14:49:12.335202 30347 layer_factory.hpp:77] Creating layer inception_4a/1x1
I0403 14:49:12.335224 30347 net.cpp:91] Creating Layer inception_4a/1x1
I0403 14:49:12.335243 30347 net.cpp:425] inception_4a/1x1 <- pool3/3x3_s2_pool3/3x3_s2_0_split_0
I0403 14:49:12.335264 30347 net.cpp:399] inception_4a/1x1 -> inception_4a/1x1
I0403 14:49:12.336823 30347 net.cpp:141] Setting up inception_4a/1x1
I0403 14:49:12.336853 30347 net.cpp:148] Top shape: 24 192 14 14 (903168)
I0403 14:49:12.336869 30347 net.cpp:156] Memory required for data: 858010656
I0403 14:49:12.336889 30347 layer_factory.hpp:77] Creating layer inception_4a/relu_1x1
I0403 14:49:12.336910 30347 net.cpp:91] Creating Layer inception_4a/relu_1x1
I0403 14:49:12.336926 30347 net.cpp:425] inception_4a/relu_1x1 <- inception_4a/1x1
I0403 14:49:12.336944 30347 net.cpp:386] inception_4a/relu_1x1 -> inception_4a/1x1 (in-place)
I0403 14:49:12.337118 30347 net.cpp:141] Setting up inception_4a/relu_1x1
I0403 14:49:12.337148 30347 net.cpp:148] Top shape: 24 192 14 14 (903168)
I0403 14:49:12.337165 30347 net.cpp:156] Memory required for data: 861623328
I0403 14:49:12.337182 30347 layer_factory.hpp:77] Creating layer inception_4a/3x3_reduce
I0403 14:49:12.337204 30347 net.cpp:91] Creating Layer inception_4a/3x3_reduce
I0403 14:49:12.337224 30347 net.cpp:425] inception_4a/3x3_reduce <- pool3/3x3_s2_pool3/3x3_s2_0_split_1
I0403 14:49:12.337242 30347 net.cpp:399] inception_4a/3x3_reduce -> inception_4a/3x3_reduce
I0403 14:49:12.338510 30347 net.cpp:141] Setting up inception_4a/3x3_reduce
I0403 14:49:12.338537 30347 net.cpp:148] Top shape: 24 96 14 14 (451584)
I0403 14:49:12.338553 30347 net.cpp:156] Memory required for data: 863429664
I0403 14:49:12.338582 30347 layer_factory.hpp:77] Creating layer inception_4a/relu_3x3_reduce
I0403 14:49:12.338601 30347 net.cpp:91] Creating Layer inception_4a/relu_3x3_reduce
I0403 14:49:12.338618 30347 net.cpp:425] inception_4a/relu_3x3_reduce <- inception_4a/3x3_reduce
I0403 14:49:12.338640 30347 net.cpp:386] inception_4a/relu_3x3_reduce -> inception_4a/3x3_reduce (in-place)
I0403 14:49:12.338817 30347 net.cpp:141] Setting up inception_4a/relu_3x3_reduce
I0403 14:49:12.338843 30347 net.cpp:148] Top shape: 24 96 14 14 (451584)
I0403 14:49:12.338860 30347 net.cpp:156] Memory required for data: 865236000
I0403 14:49:12.338876 30347 layer_factory.hpp:77] Creating layer inception_4a/3x3
I0403 14:49:12.338897 30347 net.cpp:91] Creating Layer inception_4a/3x3
I0403 14:49:12.338917 30347 net.cpp:425] inception_4a/3x3 <- inception_4a/3x3_reduce
I0403 14:49:12.338938 30347 net.cpp:399] inception_4a/3x3 -> inception_4a/3x3
I0403 14:49:12.341619 30347 net.cpp:141] Setting up inception_4a/3x3
I0403 14:49:12.341650 30347 net.cpp:148] Top shape: 24 208 14 14 (978432)
I0403 14:49:12.341665 30347 net.cpp:156] Memory required for data: 869149728
I0403 14:49:12.341683 30347 layer_factory.hpp:77] Creating layer inception_4a/relu_3x3
I0403 14:49:12.341706 30347 net.cpp:91] Creating Layer inception_4a/relu_3x3
I0403 14:49:12.341723 30347 net.cpp:425] inception_4a/relu_3x3 <- inception_4a/3x3
I0403 14:49:12.341742 30347 net.cpp:386] inception_4a/relu_3x3 -> inception_4a/3x3 (in-place)
I0403 14:49:12.342021 30347 net.cpp:141] Setting up inception_4a/relu_3x3
I0403 14:49:12.342049 30347 net.cpp:148] Top shape: 24 208 14 14 (978432)
I0403 14:49:12.342066 30347 net.cpp:156] Memory required for data: 873063456
I0403 14:49:12.342080 30347 layer_factory.hpp:77] Creating layer inception_4a/5x5_reduce
I0403 14:49:12.342106 30347 net.cpp:91] Creating Layer inception_4a/5x5_reduce
I0403 14:49:12.342126 30347 net.cpp:425] inception_4a/5x5_reduce <- pool3/3x3_s2_pool3/3x3_s2_0_split_2
I0403 14:49:12.342146 30347 net.cpp:399] inception_4a/5x5_reduce -> inception_4a/5x5_reduce
I0403 14:49:12.343170 30347 net.cpp:141] Setting up inception_4a/5x5_reduce
I0403 14:49:12.343201 30347 net.cpp:148] Top shape: 24 16 14 14 (75264)
I0403 14:49:12.343219 30347 net.cpp:156] Memory required for data: 873364512
I0403 14:49:12.343236 30347 layer_factory.hpp:77] Creating layer inception_4a/relu_5x5_reduce
I0403 14:49:12.343256 30347 net.cpp:91] Creating Layer inception_4a/relu_5x5_reduce
I0403 14:49:12.343272 30347 net.cpp:425] inception_4a/relu_5x5_reduce <- inception_4a/5x5_reduce
I0403 14:49:12.343293 30347 net.cpp:386] inception_4a/relu_5x5_reduce -> inception_4a/5x5_reduce (in-place)
I0403 14:49:12.343479 30347 net.cpp:141] Setting up inception_4a/relu_5x5_reduce
I0403 14:49:12.343505 30347 net.cpp:148] Top shape: 24 16 14 14 (75264)
I0403 14:49:12.343521 30347 net.cpp:156] Memory required for data: 873665568
I0403 14:49:12.343536 30347 layer_factory.hpp:77] Creating layer inception_4a/5x5
I0403 14:49:12.343559 30347 net.cpp:91] Creating Layer inception_4a/5x5
I0403 14:49:12.343580 30347 net.cpp:425] inception_4a/5x5 <- inception_4a/5x5_reduce
I0403 14:49:12.343602 30347 net.cpp:399] inception_4a/5x5 -> inception_4a/5x5
I0403 14:49:12.344704 30347 net.cpp:141] Setting up inception_4a/5x5
I0403 14:49:12.344733 30347 net.cpp:148] Top shape: 24 48 14 14 (225792)
I0403 14:49:12.344750 30347 net.cpp:156] Memory required for data: 874568736
I0403 14:49:12.344769 30347 layer_factory.hpp:77] Creating layer inception_4a/relu_5x5
I0403 14:49:12.344789 30347 net.cpp:91] Creating Layer inception_4a/relu_5x5
I0403 14:49:12.344805 30347 net.cpp:425] inception_4a/relu_5x5 <- inception_4a/5x5
I0403 14:49:12.344823 30347 net.cpp:386] inception_4a/relu_5x5 -> inception_4a/5x5 (in-place)
I0403 14:49:12.345003 30347 net.cpp:141] Setting up inception_4a/relu_5x5
I0403 14:49:12.345029 30347 net.cpp:148] Top shape: 24 48 14 14 (225792)
I0403 14:49:12.345046 30347 net.cpp:156] Memory required for data: 875471904
I0403 14:49:12.345060 30347 layer_factory.hpp:77] Creating layer inception_4a/pool
I0403 14:49:12.345080 30347 net.cpp:91] Creating Layer inception_4a/pool
I0403 14:49:12.345098 30347 net.cpp:425] inception_4a/pool <- pool3/3x3_s2_pool3/3x3_s2_0_split_3
I0403 14:49:12.345116 30347 net.cpp:399] inception_4a/pool -> inception_4a/pool
I0403 14:49:12.345183 30347 net.cpp:141] Setting up inception_4a/pool
I0403 14:49:12.345208 30347 net.cpp:148] Top shape: 24 480 14 14 (2257920)
I0403 14:49:12.345229 30347 net.cpp:156] Memory required for data: 884503584
I0403 14:49:12.345245 30347 layer_factory.hpp:77] Creating layer inception_4a/pool_proj
I0403 14:49:12.345268 30347 net.cpp:91] Creating Layer inception_4a/pool_proj
I0403 14:49:12.345285 30347 net.cpp:425] inception_4a/pool_proj <- inception_4a/pool
I0403 14:49:12.345306 30347 net.cpp:399] inception_4a/pool_proj -> inception_4a/pool_proj
I0403 14:49:12.346488 30347 net.cpp:141] Setting up inception_4a/pool_proj
I0403 14:49:12.346518 30347 net.cpp:148] Top shape: 24 64 14 14 (301056)
I0403 14:49:12.346550 30347 net.cpp:156] Memory required for data: 885707808
I0403 14:49:12.346570 30347 layer_factory.hpp:77] Creating layer inception_4a/relu_pool_proj
I0403 14:49:12.346592 30347 net.cpp:91] Creating Layer inception_4a/relu_pool_proj
I0403 14:49:12.346611 30347 net.cpp:425] inception_4a/relu_pool_proj <- inception_4a/pool_proj
I0403 14:49:12.346631 30347 net.cpp:386] inception_4a/relu_pool_proj -> inception_4a/pool_proj (in-place)
I0403 14:49:12.346912 30347 net.cpp:141] Setting up inception_4a/relu_pool_proj
I0403 14:49:12.346940 30347 net.cpp:148] Top shape: 24 64 14 14 (301056)
I0403 14:49:12.346956 30347 net.cpp:156] Memory required for data: 886912032
I0403 14:49:12.346973 30347 layer_factory.hpp:77] Creating layer inception_4a/output
I0403 14:49:12.346992 30347 net.cpp:91] Creating Layer inception_4a/output
I0403 14:49:12.347012 30347 net.cpp:425] inception_4a/output <- inception_4a/1x1
I0403 14:49:12.347029 30347 net.cpp:425] inception_4a/output <- inception_4a/3x3
I0403 14:49:12.347046 30347 net.cpp:425] inception_4a/output <- inception_4a/5x5
I0403 14:49:12.347064 30347 net.cpp:425] inception_4a/output <- inception_4a/pool_proj
I0403 14:49:12.347080 30347 net.cpp:399] inception_4a/output -> inception_4a/output
I0403 14:49:12.347126 30347 net.cpp:141] Setting up inception_4a/output
I0403 14:49:12.347152 30347 net.cpp:148] Top shape: 24 512 14 14 (2408448)
I0403 14:49:12.347168 30347 net.cpp:156] Memory required for data: 896545824
I0403 14:49:12.347184 30347 layer_factory.hpp:77] Creating layer inception_4a/output_inception_4a/output_0_split
I0403 14:49:12.347203 30347 net.cpp:91] Creating Layer inception_4a/output_inception_4a/output_0_split
I0403 14:49:12.347219 30347 net.cpp:425] inception_4a/output_inception_4a/output_0_split <- inception_4a/output
I0403 14:49:12.347240 30347 net.cpp:399] inception_4a/output_inception_4a/output_0_split -> inception_4a/output_inception_4a/output_0_split_0
I0403 14:49:12.347261 30347 net.cpp:399] inception_4a/output_inception_4a/output_0_split -> inception_4a/output_inception_4a/output_0_split_1
I0403 14:49:12.347283 30347 net.cpp:399] inception_4a/output_inception_4a/output_0_split -> inception_4a/output_inception_4a/output_0_split_2
I0403 14:49:12.347303 30347 net.cpp:399] inception_4a/output_inception_4a/output_0_split -> inception_4a/output_inception_4a/output_0_split_3
I0403 14:49:12.347323 30347 net.cpp:399] inception_4a/output_inception_4a/output_0_split -> inception_4a/output_inception_4a/output_0_split_4
I0403 14:49:12.347420 30347 net.cpp:141] Setting up inception_4a/output_inception_4a/output_0_split
I0403 14:49:12.347446 30347 net.cpp:148] Top shape: 24 512 14 14 (2408448)
I0403 14:49:12.347465 30347 net.cpp:148] Top shape: 24 512 14 14 (2408448)
I0403 14:49:12.347481 30347 net.cpp:148] Top shape: 24 512 14 14 (2408448)
I0403 14:49:12.347497 30347 net.cpp:148] Top shape: 24 512 14 14 (2408448)
I0403 14:49:12.347513 30347 net.cpp:148] Top shape: 24 512 14 14 (2408448)
I0403 14:49:12.347527 30347 net.cpp:156] Memory required for data: 944714784
I0403 14:49:12.347543 30347 layer_factory.hpp:77] Creating layer loss1/ave_pool
I0403 14:49:12.347563 30347 net.cpp:91] Creating Layer loss1/ave_pool
I0403 14:49:12.347579 30347 net.cpp:425] loss1/ave_pool <- inception_4a/output_inception_4a/output_0_split_0
I0403 14:49:12.347600 30347 net.cpp:399] loss1/ave_pool -> loss1/ave_pool
I0403 14:49:12.347810 30347 net.cpp:141] Setting up loss1/ave_pool
I0403 14:49:12.347836 30347 net.cpp:148] Top shape: 24 512 4 4 (196608)
I0403 14:49:12.347853 30347 net.cpp:156] Memory required for data: 945501216
I0403 14:49:12.347869 30347 layer_factory.hpp:77] Creating layer loss1/conv
I0403 14:49:12.347893 30347 net.cpp:91] Creating Layer loss1/conv
I0403 14:49:12.347911 30347 net.cpp:425] loss1/conv <- loss1/ave_pool
I0403 14:49:12.347934 30347 net.cpp:399] loss1/conv -> loss1/conv
I0403 14:49:12.349344 30347 net.cpp:141] Setting up loss1/conv
I0403 14:49:12.349390 30347 net.cpp:148] Top shape: 24 128 4 4 (49152)
I0403 14:49:12.349406 30347 net.cpp:156] Memory required for data: 945697824
I0403 14:49:12.349449 30347 layer_factory.hpp:77] Creating layer loss1/relu_conv
I0403 14:49:12.349472 30347 net.cpp:91] Creating Layer loss1/relu_conv
I0403 14:49:12.349491 30347 net.cpp:425] loss1/relu_conv <- loss1/conv
I0403 14:49:12.349510 30347 net.cpp:386] loss1/relu_conv -> loss1/conv (in-place)
I0403 14:49:12.349798 30347 net.cpp:141] Setting up loss1/relu_conv
I0403 14:49:12.349827 30347 net.cpp:148] Top shape: 24 128 4 4 (49152)
I0403 14:49:12.349841 30347 net.cpp:156] Memory required for data: 945894432
I0403 14:49:12.349858 30347 layer_factory.hpp:77] Creating layer loss1/fc
I0403 14:49:12.349884 30347 net.cpp:91] Creating Layer loss1/fc
I0403 14:49:12.349903 30347 net.cpp:425] loss1/fc <- loss1/conv
I0403 14:49:12.349926 30347 net.cpp:399] loss1/fc -> loss1/fc
I0403 14:49:12.367666 30347 net.cpp:141] Setting up loss1/fc
I0403 14:49:12.367719 30347 net.cpp:148] Top shape: 24 1024 (24576)
I0403 14:49:12.367736 30347 net.cpp:156] Memory required for data: 945992736
I0403 14:49:12.367755 30347 layer_factory.hpp:77] Creating layer loss1/relu_fc
I0403 14:49:12.367776 30347 net.cpp:91] Creating Layer loss1/relu_fc
I0403 14:49:12.367794 30347 net.cpp:425] loss1/relu_fc <- loss1/fc
I0403 14:49:12.367815 30347 net.cpp:386] loss1/relu_fc -> loss1/fc (in-place)
I0403 14:49:12.368018 30347 net.cpp:141] Setting up loss1/relu_fc
I0403 14:49:12.368047 30347 net.cpp:148] Top shape: 24 1024 (24576)
I0403 14:49:12.368063 30347 net.cpp:156] Memory required for data: 946091040
I0403 14:49:12.368079 30347 layer_factory.hpp:77] Creating layer loss1/drop_fc
I0403 14:49:12.368108 30347 net.cpp:91] Creating Layer loss1/drop_fc
I0403 14:49:12.368126 30347 net.cpp:425] loss1/drop_fc <- loss1/fc
I0403 14:49:12.368145 30347 net.cpp:386] loss1/drop_fc -> loss1/fc (in-place)
I0403 14:49:12.368201 30347 net.cpp:141] Setting up loss1/drop_fc
I0403 14:49:12.368235 30347 net.cpp:148] Top shape: 24 1024 (24576)
I0403 14:49:12.368250 30347 net.cpp:156] Memory required for data: 946189344
I0403 14:49:12.368266 30347 layer_factory.hpp:77] Creating layer loss1/classifier_plantvillage
I0403 14:49:12.368285 30347 net.cpp:91] Creating Layer loss1/classifier_plantvillage
I0403 14:49:12.368302 30347 net.cpp:425] loss1/classifier_plantvillage <- loss1/fc
I0403 14:49:12.368326 30347 net.cpp:399] loss1/classifier_plantvillage -> loss1/classifier_plantvillage
I0403 14:49:12.369279 30347 net.cpp:141] Setting up loss1/classifier_plantvillage
I0403 14:49:12.369307 30347 net.cpp:148] Top shape: 24 38 (912)
I0403 14:49:12.369323 30347 net.cpp:156] Memory required for data: 946192992
I0403 14:49:12.369341 30347 layer_factory.hpp:77] Creating layer loss1/classifier_plantvillage_loss1/classifier_plantvillage_0_split
I0403 14:49:12.369369 30347 net.cpp:91] Creating Layer loss1/classifier_plantvillage_loss1/classifier_plantvillage_0_split
I0403 14:49:12.369386 30347 net.cpp:425] loss1/classifier_plantvillage_loss1/classifier_plantvillage_0_split <- loss1/classifier_plantvillage
I0403 14:49:12.369405 30347 net.cpp:399] loss1/classifier_plantvillage_loss1/classifier_plantvillage_0_split -> loss1/classifier_plantvillage_loss1/classifier_plantvillage_0_split_0
I0403 14:49:12.369426 30347 net.cpp:399] loss1/classifier_plantvillage_loss1/classifier_plantvillage_0_split -> loss1/classifier_plantvillage_loss1/classifier_plantvillage_0_split_1
I0403 14:49:12.369446 30347 net.cpp:399] loss1/classifier_plantvillage_loss1/classifier_plantvillage_0_split -> loss1/classifier_plantvillage_loss1/classifier_plantvillage_0_split_2
I0403 14:49:12.369516 30347 net.cpp:141] Setting up loss1/classifier_plantvillage_loss1/classifier_plantvillage_0_split
I0403 14:49:12.369541 30347 net.cpp:148] Top shape: 24 38 (912)
I0403 14:49:12.369557 30347 net.cpp:148] Top shape: 24 38 (912)
I0403 14:49:12.369575 30347 net.cpp:148] Top shape: 24 38 (912)
I0403 14:49:12.369590 30347 net.cpp:156] Memory required for data: 946203936
I0403 14:49:12.369606 30347 layer_factory.hpp:77] Creating layer inception_4b/1x1
I0403 14:49:12.369629 30347 net.cpp:91] Creating Layer inception_4b/1x1
I0403 14:49:12.369671 30347 net.cpp:425] inception_4b/1x1 <- inception_4a/output_inception_4a/output_0_split_1
I0403 14:49:12.369693 30347 net.cpp:399] inception_4b/1x1 -> inception_4b/1x1
I0403 14:49:12.371378 30347 net.cpp:141] Setting up inception_4b/1x1
I0403 14:49:12.371410 30347 net.cpp:148] Top shape: 24 160 14 14 (752640)
I0403 14:49:12.371428 30347 net.cpp:156] Memory required for data: 949214496
I0403 14:49:12.371448 30347 layer_factory.hpp:77] Creating layer inception_4b/relu_1x1
I0403 14:49:12.371466 30347 net.cpp:91] Creating Layer inception_4b/relu_1x1
I0403 14:49:12.371484 30347 net.cpp:425] inception_4b/relu_1x1 <- inception_4b/1x1
I0403 14:49:12.371506 30347 net.cpp:386] inception_4b/relu_1x1 -> inception_4b/1x1 (in-place)
I0403 14:49:12.371685 30347 net.cpp:141] Setting up inception_4b/relu_1x1
I0403 14:49:12.371711 30347 net.cpp:148] Top shape: 24 160 14 14 (752640)
I0403 14:49:12.371726 30347 net.cpp:156] Memory required for data: 952225056
I0403 14:49:12.371742 30347 layer_factory.hpp:77] Creating layer inception_4b/3x3_reduce
I0403 14:49:12.371767 30347 net.cpp:91] Creating Layer inception_4b/3x3_reduce
I0403 14:49:12.371786 30347 net.cpp:425] inception_4b/3x3_reduce <- inception_4a/output_inception_4a/output_0_split_2
I0403 14:49:12.371808 30347 net.cpp:399] inception_4b/3x3_reduce -> inception_4b/3x3_reduce
I0403 14:49:12.373172 30347 net.cpp:141] Setting up inception_4b/3x3_reduce
I0403 14:49:12.373199 30347 net.cpp:148] Top shape: 24 112 14 14 (526848)
I0403 14:49:12.373216 30347 net.cpp:156] Memory required for data: 954332448
I0403 14:49:12.373234 30347 layer_factory.hpp:77] Creating layer inception_4b/relu_3x3_reduce
I0403 14:49:12.373253 30347 net.cpp:91] Creating Layer inception_4b/relu_3x3_reduce
I0403 14:49:12.373270 30347 net.cpp:425] inception_4b/relu_3x3_reduce <- inception_4b/3x3_reduce
I0403 14:49:12.373293 30347 net.cpp:386] inception_4b/relu_3x3_reduce -> inception_4b/3x3_reduce (in-place)
I0403 14:49:12.373584 30347 net.cpp:141] Setting up inception_4b/relu_3x3_reduce
I0403 14:49:12.373612 30347 net.cpp:148] Top shape: 24 112 14 14 (526848)
I0403 14:49:12.373627 30347 net.cpp:156] Memory required for data: 956439840
I0403 14:49:12.373643 30347 layer_factory.hpp:77] Creating layer inception_4b/3x3
I0403 14:49:12.373667 30347 net.cpp:91] Creating Layer inception_4b/3x3
I0403 14:49:12.373687 30347 net.cpp:425] inception_4b/3x3 <- inception_4b/3x3_reduce
I0403 14:49:12.373708 30347 net.cpp:399] inception_4b/3x3 -> inception_4b/3x3
I0403 14:49:12.376718 30347 net.cpp:141] Setting up inception_4b/3x3
I0403 14:49:12.376747 30347 net.cpp:148] Top shape: 24 224 14 14 (1053696)
I0403 14:49:12.376763 30347 net.cpp:156] Memory required for data: 960654624
I0403 14:49:12.376782 30347 layer_factory.hpp:77] Creating layer inception_4b/relu_3x3
I0403 14:49:12.376804 30347 net.cpp:91] Creating Layer inception_4b/relu_3x3
I0403 14:49:12.376821 30347 net.cpp:425] inception_4b/relu_3x3 <- inception_4b/3x3
I0403 14:49:12.376839 30347 net.cpp:386] inception_4b/relu_3x3 -> inception_4b/3x3 (in-place)
I0403 14:49:12.377020 30347 net.cpp:141] Setting up inception_4b/relu_3x3
I0403 14:49:12.377051 30347 net.cpp:148] Top shape: 24 224 14 14 (1053696)
I0403 14:49:12.377068 30347 net.cpp:156] Memory required for data: 964869408
I0403 14:49:12.377084 30347 layer_factory.hpp:77] Creating layer inception_4b/5x5_reduce
I0403 14:49:12.377107 30347 net.cpp:91] Creating Layer inception_4b/5x5_reduce
I0403 14:49:12.377126 30347 net.cpp:425] inception_4b/5x5_reduce <- inception_4a/output_inception_4a/output_0_split_3
I0403 14:49:12.377146 30347 net.cpp:399] inception_4b/5x5_reduce -> inception_4b/5x5_reduce
I0403 14:49:12.378237 30347 net.cpp:141] Setting up inception_4b/5x5_reduce
I0403 14:49:12.378268 30347 net.cpp:148] Top shape: 24 24 14 14 (112896)
I0403 14:49:12.378285 30347 net.cpp:156] Memory required for data: 965320992
I0403 14:49:12.378305 30347 layer_factory.hpp:77] Creating layer inception_4b/relu_5x5_reduce
I0403 14:49:12.378324 30347 net.cpp:91] Creating Layer inception_4b/relu_5x5_reduce
I0403 14:49:12.378361 30347 net.cpp:425] inception_4b/relu_5x5_reduce <- inception_4b/5x5_reduce
I0403 14:49:12.378384 30347 net.cpp:386] inception_4b/relu_5x5_reduce -> inception_4b/5x5_reduce (in-place)
I0403 14:49:12.378571 30347 net.cpp:141] Setting up inception_4b/relu_5x5_reduce
I0403 14:49:12.378597 30347 net.cpp:148] Top shape: 24 24 14 14 (112896)
I0403 14:49:12.378612 30347 net.cpp:156] Memory required for data: 965772576
I0403 14:49:12.378628 30347 layer_factory.hpp:77] Creating layer inception_4b/5x5
I0403 14:49:12.378650 30347 net.cpp:91] Creating Layer inception_4b/5x5
I0403 14:49:12.378669 30347 net.cpp:425] inception_4b/5x5 <- inception_4b/5x5_reduce
I0403 14:49:12.378690 30347 net.cpp:399] inception_4b/5x5 -> inception_4b/5x5
I0403 14:49:12.379912 30347 net.cpp:141] Setting up inception_4b/5x5
I0403 14:49:12.379943 30347 net.cpp:148] Top shape: 24 64 14 14 (301056)
I0403 14:49:12.379961 30347 net.cpp:156] Memory required for data: 966976800
I0403 14:49:12.379981 30347 layer_factory.hpp:77] Creating layer inception_4b/relu_5x5
I0403 14:49:12.380000 30347 net.cpp:91] Creating Layer inception_4b/relu_5x5
I0403 14:49:12.380017 30347 net.cpp:425] inception_4b/relu_5x5 <- inception_4b/5x5
I0403 14:49:12.380038 30347 net.cpp:386] inception_4b/relu_5x5 -> inception_4b/5x5 (in-place)
I0403 14:49:12.380321 30347 net.cpp:141] Setting up inception_4b/relu_5x5
I0403 14:49:12.380354 30347 net.cpp:148] Top shape: 24 64 14 14 (301056)
I0403 14:49:12.380373 30347 net.cpp:156] Memory required for data: 968181024
I0403 14:49:12.380389 30347 layer_factory.hpp:77] Creating layer inception_4b/pool
I0403 14:49:12.380409 30347 net.cpp:91] Creating Layer inception_4b/pool
I0403 14:49:12.380427 30347 net.cpp:425] inception_4b/pool <- inception_4a/output_inception_4a/output_0_split_4
I0403 14:49:12.380450 30347 net.cpp:399] inception_4b/pool -> inception_4b/pool
I0403 14:49:12.380518 30347 net.cpp:141] Setting up inception_4b/pool
I0403 14:49:12.380543 30347 net.cpp:148] Top shape: 24 512 14 14 (2408448)
I0403 14:49:12.380558 30347 net.cpp:156] Memory required for data: 977814816
I0403 14:49:12.380574 30347 layer_factory.hpp:77] Creating layer inception_4b/pool_proj
I0403 14:49:12.380596 30347 net.cpp:91] Creating Layer inception_4b/pool_proj
I0403 14:49:12.380616 30347 net.cpp:425] inception_4b/pool_proj <- inception_4b/pool
I0403 14:49:12.380637 30347 net.cpp:399] inception_4b/pool_proj -> inception_4b/pool_proj
I0403 14:49:12.381844 30347 net.cpp:141] Setting up inception_4b/pool_proj
I0403 14:49:12.381873 30347 net.cpp:148] Top shape: 24 64 14 14 (301056)
I0403 14:49:12.381891 30347 net.cpp:156] Memory required for data: 979019040
I0403 14:49:12.381909 30347 layer_factory.hpp:77] Creating layer inception_4b/relu_pool_proj
I0403 14:49:12.381928 30347 net.cpp:91] Creating Layer inception_4b/relu_pool_proj
I0403 14:49:12.381944 30347 net.cpp:425] inception_4b/relu_pool_proj <- inception_4b/pool_proj
I0403 14:49:12.381970 30347 net.cpp:386] inception_4b/relu_pool_proj -> inception_4b/pool_proj (in-place)
I0403 14:49:12.382153 30347 net.cpp:141] Setting up inception_4b/relu_pool_proj
I0403 14:49:12.382179 30347 net.cpp:148] Top shape: 24 64 14 14 (301056)
I0403 14:49:12.382194 30347 net.cpp:156] Memory required for data: 980223264
I0403 14:49:12.382210 30347 layer_factory.hpp:77] Creating layer inception_4b/output
I0403 14:49:12.382228 30347 net.cpp:91] Creating Layer inception_4b/output
I0403 14:49:12.382244 30347 net.cpp:425] inception_4b/output <- inception_4b/1x1
I0403 14:49:12.382262 30347 net.cpp:425] inception_4b/output <- inception_4b/3x3
I0403 14:49:12.382279 30347 net.cpp:425] inception_4b/output <- inception_4b/5x5
I0403 14:49:12.382294 30347 net.cpp:425] inception_4b/output <- inception_4b/pool_proj
I0403 14:49:12.382314 30347 net.cpp:399] inception_4b/output -> inception_4b/output
I0403 14:49:12.382364 30347 net.cpp:141] Setting up inception_4b/output
I0403 14:49:12.382391 30347 net.cpp:148] Top shape: 24 512 14 14 (2408448)
I0403 14:49:12.382407 30347 net.cpp:156] Memory required for data: 989857056
I0403 14:49:12.382436 30347 layer_factory.hpp:77] Creating layer inception_4b/output_inception_4b/output_0_split
I0403 14:49:12.382457 30347 net.cpp:91] Creating Layer inception_4b/output_inception_4b/output_0_split
I0403 14:49:12.382474 30347 net.cpp:425] inception_4b/output_inception_4b/output_0_split <- inception_4b/output
I0403 14:49:12.382491 30347 net.cpp:399] inception_4b/output_inception_4b/output_0_split -> inception_4b/output_inception_4b/output_0_split_0
I0403 14:49:12.382514 30347 net.cpp:399] inception_4b/output_inception_4b/output_0_split -> inception_4b/output_inception_4b/output_0_split_1
I0403 14:49:12.382536 30347 net.cpp:399] inception_4b/output_inception_4b/output_0_split -> inception_4b/output_inception_4b/output_0_split_2
I0403 14:49:12.382557 30347 net.cpp:399] inception_4b/output_inception_4b/output_0_split -> inception_4b/output_inception_4b/output_0_split_3
I0403 14:49:12.382647 30347 net.cpp:141] Setting up inception_4b/output_inception_4b/output_0_split
I0403 14:49:12.382671 30347 net.cpp:148] Top shape: 24 512 14 14 (2408448)
I0403 14:49:12.382688 30347 net.cpp:148] Top shape: 24 512 14 14 (2408448)
I0403 14:49:12.382704 30347 net.cpp:148] Top shape: 24 512 14 14 (2408448)
I0403 14:49:12.382721 30347 net.cpp:148] Top shape: 24 512 14 14 (2408448)
I0403 14:49:12.382735 30347 net.cpp:156] Memory required for data: 1028392224
I0403 14:49:12.382750 30347 layer_factory.hpp:77] Creating layer inception_4c/1x1
I0403 14:49:12.382773 30347 net.cpp:91] Creating Layer inception_4c/1x1
I0403 14:49:12.382791 30347 net.cpp:425] inception_4c/1x1 <- inception_4b/output_inception_4b/output_0_split_0
I0403 14:49:12.382810 30347 net.cpp:399] inception_4c/1x1 -> inception_4c/1x1
I0403 14:49:12.384243 30347 net.cpp:141] Setting up inception_4c/1x1
I0403 14:49:12.384271 30347 net.cpp:148] Top shape: 24 128 14 14 (602112)
I0403 14:49:12.384289 30347 net.cpp:156] Memory required for data: 1030800672
I0403 14:49:12.384308 30347 layer_factory.hpp:77] Creating layer inception_4c/relu_1x1
I0403 14:49:12.384332 30347 net.cpp:91] Creating Layer inception_4c/relu_1x1
I0403 14:49:12.384361 30347 net.cpp:425] inception_4c/relu_1x1 <- inception_4c/1x1
I0403 14:49:12.384382 30347 net.cpp:386] inception_4c/relu_1x1 -> inception_4c/1x1 (in-place)
I0403 14:49:12.384567 30347 net.cpp:141] Setting up inception_4c/relu_1x1
I0403 14:49:12.384591 30347 net.cpp:148] Top shape: 24 128 14 14 (602112)
I0403 14:49:12.384610 30347 net.cpp:156] Memory required for data: 1033209120
I0403 14:49:12.384626 30347 layer_factory.hpp:77] Creating layer inception_4c/3x3_reduce
I0403 14:49:12.384647 30347 net.cpp:91] Creating Layer inception_4c/3x3_reduce
I0403 14:49:12.384667 30347 net.cpp:425] inception_4c/3x3_reduce <- inception_4b/output_inception_4b/output_0_split_1
I0403 14:49:12.384688 30347 net.cpp:399] inception_4c/3x3_reduce -> inception_4c/3x3_reduce
I0403 14:49:12.386641 30347 net.cpp:141] Setting up inception_4c/3x3_reduce
I0403 14:49:12.386674 30347 net.cpp:148] Top shape: 24 128 14 14 (602112)
I0403 14:49:12.386693 30347 net.cpp:156] Memory required for data: 1035617568
I0403 14:49:12.386711 30347 layer_factory.hpp:77] Creating layer inception_4c/relu_3x3_reduce
I0403 14:49:12.386729 30347 net.cpp:91] Creating Layer inception_4c/relu_3x3_reduce
I0403 14:49:12.386746 30347 net.cpp:425] inception_4c/relu_3x3_reduce <- inception_4c/3x3_reduce
I0403 14:49:12.386765 30347 net.cpp:386] inception_4c/relu_3x3_reduce -> inception_4c/3x3_reduce (in-place)
I0403 14:49:12.387050 30347 net.cpp:141] Setting up inception_4c/relu_3x3_reduce
I0403 14:49:12.387084 30347 net.cpp:148] Top shape: 24 128 14 14 (602112)
I0403 14:49:12.387100 30347 net.cpp:156] Memory required for data: 1038026016
I0403 14:49:12.387116 30347 layer_factory.hpp:77] Creating layer inception_4c/3x3
I0403 14:49:12.387140 30347 net.cpp:91] Creating Layer inception_4c/3x3
I0403 14:49:12.387158 30347 net.cpp:425] inception_4c/3x3 <- inception_4c/3x3_reduce
I0403 14:49:12.387178 30347 net.cpp:399] inception_4c/3x3 -> inception_4c/3x3
I0403 14:49:12.390846 30347 net.cpp:141] Setting up inception_4c/3x3
I0403 14:49:12.390893 30347 net.cpp:148] Top shape: 24 256 14 14 (1204224)
I0403 14:49:12.390913 30347 net.cpp:156] Memory required for data: 1042842912
I0403 14:49:12.390944 30347 layer_factory.hpp:77] Creating layer inception_4c/relu_3x3
I0403 14:49:12.390965 30347 net.cpp:91] Creating Layer inception_4c/relu_3x3
I0403 14:49:12.390986 30347 net.cpp:425] inception_4c/relu_3x3 <- inception_4c/3x3
I0403 14:49:12.391010 30347 net.cpp:386] inception_4c/relu_3x3 -> inception_4c/3x3 (in-place)
I0403 14:49:12.391191 30347 net.cpp:141] Setting up inception_4c/relu_3x3
I0403 14:49:12.391219 30347 net.cpp:148] Top shape: 24 256 14 14 (1204224)
I0403 14:49:12.391235 30347 net.cpp:156] Memory required for data: 1047659808
I0403 14:49:12.391250 30347 layer_factory.hpp:77] Creating layer inception_4c/5x5_reduce
I0403 14:49:12.391275 30347 net.cpp:91] Creating Layer inception_4c/5x5_reduce
I0403 14:49:12.391305 30347 net.cpp:425] inception_4c/5x5_reduce <- inception_4b/output_inception_4b/output_0_split_2
I0403 14:49:12.391326 30347 net.cpp:399] inception_4c/5x5_reduce -> inception_4c/5x5_reduce
I0403 14:49:12.392417 30347 net.cpp:141] Setting up inception_4c/5x5_reduce
I0403 14:49:12.392449 30347 net.cpp:148] Top shape: 24 24 14 14 (112896)
I0403 14:49:12.392474 30347 net.cpp:156] Memory required for data: 1048111392
I0403 14:49:12.392494 30347 layer_factory.hpp:77] Creating layer inception_4c/relu_5x5_reduce
I0403 14:49:12.392518 30347 net.cpp:91] Creating Layer inception_4c/relu_5x5_reduce
I0403 14:49:12.392536 30347 net.cpp:425] inception_4c/relu_5x5_reduce <- inception_4c/5x5_reduce
I0403 14:49:12.392555 30347 net.cpp:386] inception_4c/relu_5x5_reduce -> inception_4c/5x5_reduce (in-place)
I0403 14:49:12.392745 30347 net.cpp:141] Setting up inception_4c/relu_5x5_reduce
I0403 14:49:12.392771 30347 net.cpp:148] Top shape: 24 24 14 14 (112896)
I0403 14:49:12.392786 30347 net.cpp:156] Memory required for data: 1048562976
I0403 14:49:12.392812 30347 layer_factory.hpp:77] Creating layer inception_4c/5x5
I0403 14:49:12.392834 30347 net.cpp:91] Creating Layer inception_4c/5x5
I0403 14:49:12.392853 30347 net.cpp:425] inception_4c/5x5 <- inception_4c/5x5_reduce
I0403 14:49:12.392874 30347 net.cpp:399] inception_4c/5x5 -> inception_4c/5x5
I0403 14:49:12.394112 30347 net.cpp:141] Setting up inception_4c/5x5
I0403 14:49:12.394140 30347 net.cpp:148] Top shape: 24 64 14 14 (301056)
I0403 14:49:12.394156 30347 net.cpp:156] Memory required for data: 1049767200
I0403 14:49:12.394176 30347 layer_factory.hpp:77] Creating layer inception_4c/relu_5x5
I0403 14:49:12.394194 30347 net.cpp:91] Creating Layer inception_4c/relu_5x5
I0403 14:49:12.394212 30347 net.cpp:425] inception_4c/relu_5x5 <- inception_4c/5x5
I0403 14:49:12.394232 30347 net.cpp:386] inception_4c/relu_5x5 -> inception_4c/5x5 (in-place)
I0403 14:49:12.394536 30347 net.cpp:141] Setting up inception_4c/relu_5x5
I0403 14:49:12.394563 30347 net.cpp:148] Top shape: 24 64 14 14 (301056)
I0403 14:49:12.394578 30347 net.cpp:156] Memory required for data: 1050971424
I0403 14:49:12.394595 30347 layer_factory.hpp:77] Creating layer inception_4c/pool
I0403 14:49:12.394613 30347 net.cpp:91] Creating Layer inception_4c/pool
I0403 14:49:12.394630 30347 net.cpp:425] inception_4c/pool <- inception_4b/output_inception_4b/output_0_split_3
I0403 14:49:12.394651 30347 net.cpp:399] inception_4c/pool -> inception_4c/pool
I0403 14:49:12.394718 30347 net.cpp:141] Setting up inception_4c/pool
I0403 14:49:12.394742 30347 net.cpp:148] Top shape: 24 512 14 14 (2408448)
I0403 14:49:12.394758 30347 net.cpp:156] Memory required for data: 1060605216
I0403 14:49:12.394773 30347 layer_factory.hpp:77] Creating layer inception_4c/pool_proj
I0403 14:49:12.394798 30347 net.cpp:91] Creating Layer inception_4c/pool_proj
I0403 14:49:12.394819 30347 net.cpp:425] inception_4c/pool_proj <- inception_4c/pool
I0403 14:49:12.394837 30347 net.cpp:399] inception_4c/pool_proj -> inception_4c/pool_proj
I0403 14:49:12.396059 30347 net.cpp:141] Setting up inception_4c/pool_proj
I0403 14:49:12.396090 30347 net.cpp:148] Top shape: 24 64 14 14 (301056)
I0403 14:49:12.396121 30347 net.cpp:156] Memory required for data: 1061809440
I0403 14:49:12.396141 30347 layer_factory.hpp:77] Creating layer inception_4c/relu_pool_proj
I0403 14:49:12.396160 30347 net.cpp:91] Creating Layer inception_4c/relu_pool_proj
I0403 14:49:12.396178 30347 net.cpp:425] inception_4c/relu_pool_proj <- inception_4c/pool_proj
I0403 14:49:12.396200 30347 net.cpp:386] inception_4c/relu_pool_proj -> inception_4c/pool_proj (in-place)
I0403 14:49:12.396387 30347 net.cpp:141] Setting up inception_4c/relu_pool_proj
I0403 14:49:12.396414 30347 net.cpp:148] Top shape: 24 64 14 14 (301056)
I0403 14:49:12.396430 30347 net.cpp:156] Memory required for data: 1063013664
I0403 14:49:12.396445 30347 layer_factory.hpp:77] Creating layer inception_4c/output
I0403 14:49:12.396463 30347 net.cpp:91] Creating Layer inception_4c/output
I0403 14:49:12.396481 30347 net.cpp:425] inception_4c/output <- inception_4c/1x1
I0403 14:49:12.396499 30347 net.cpp:425] inception_4c/output <- inception_4c/3x3
I0403 14:49:12.396515 30347 net.cpp:425] inception_4c/output <- inception_4c/5x5
I0403 14:49:12.396533 30347 net.cpp:425] inception_4c/output <- inception_4c/pool_proj
I0403 14:49:12.396553 30347 net.cpp:399] inception_4c/output -> inception_4c/output
I0403 14:49:12.396600 30347 net.cpp:141] Setting up inception_4c/output
I0403 14:49:12.396627 30347 net.cpp:148] Top shape: 24 512 14 14 (2408448)
I0403 14:49:12.396643 30347 net.cpp:156] Memory required for data: 1072647456
I0403 14:49:12.396659 30347 layer_factory.hpp:77] Creating layer inception_4c/output_inception_4c/output_0_split
I0403 14:49:12.396677 30347 net.cpp:91] Creating Layer inception_4c/output_inception_4c/output_0_split
I0403 14:49:12.396693 30347 net.cpp:425] inception_4c/output_inception_4c/output_0_split <- inception_4c/output
I0403 14:49:12.396711 30347 net.cpp:399] inception_4c/output_inception_4c/output_0_split -> inception_4c/output_inception_4c/output_0_split_0
I0403 14:49:12.396738 30347 net.cpp:399] inception_4c/output_inception_4c/output_0_split -> inception_4c/output_inception_4c/output_0_split_1
I0403 14:49:12.396759 30347 net.cpp:399] inception_4c/output_inception_4c/output_0_split -> inception_4c/output_inception_4c/output_0_split_2
I0403 14:49:12.396780 30347 net.cpp:399] inception_4c/output_inception_4c/output_0_split -> inception_4c/output_inception_4c/output_0_split_3
I0403 14:49:12.396869 30347 net.cpp:141] Setting up inception_4c/output_inception_4c/output_0_split
I0403 14:49:12.396893 30347 net.cpp:148] Top shape: 24 512 14 14 (2408448)
I0403 14:49:12.396910 30347 net.cpp:148] Top shape: 24 512 14 14 (2408448)
I0403 14:49:12.396925 30347 net.cpp:148] Top shape: 24 512 14 14 (2408448)
I0403 14:49:12.396942 30347 net.cpp:148] Top shape: 24 512 14 14 (2408448)
I0403 14:49:12.396956 30347 net.cpp:156] Memory required for data: 1111182624
I0403 14:49:12.396971 30347 layer_factory.hpp:77] Creating layer inception_4d/1x1
I0403 14:49:12.396993 30347 net.cpp:91] Creating Layer inception_4d/1x1
I0403 14:49:12.397013 30347 net.cpp:425] inception_4d/1x1 <- inception_4c/output_inception_4c/output_0_split_0
I0403 14:49:12.397032 30347 net.cpp:399] inception_4d/1x1 -> inception_4d/1x1
I0403 14:49:12.398418 30347 net.cpp:141] Setting up inception_4d/1x1
I0403 14:49:12.398449 30347 net.cpp:148] Top shape: 24 112 14 14 (526848)
I0403 14:49:12.398465 30347 net.cpp:156] Memory required for data: 1113290016
I0403 14:49:12.398485 30347 layer_factory.hpp:77] Creating layer inception_4d/relu_1x1
I0403 14:49:12.398506 30347 net.cpp:91] Creating Layer inception_4d/relu_1x1
I0403 14:49:12.398525 30347 net.cpp:425] inception_4d/relu_1x1 <- inception_4d/1x1
I0403 14:49:12.398543 30347 net.cpp:386] inception_4d/relu_1x1 -> inception_4d/1x1 (in-place)
I0403 14:49:12.398730 30347 net.cpp:141] Setting up inception_4d/relu_1x1
I0403 14:49:12.398758 30347 net.cpp:148] Top shape: 24 112 14 14 (526848)
I0403 14:49:12.398774 30347 net.cpp:156] Memory required for data: 1115397408
I0403 14:49:12.398789 30347 layer_factory.hpp:77] Creating layer inception_4d/3x3_reduce
I0403 14:49:12.398826 30347 net.cpp:91] Creating Layer inception_4d/3x3_reduce
I0403 14:49:12.398847 30347 net.cpp:425] inception_4d/3x3_reduce <- inception_4c/output_inception_4c/output_0_split_1
I0403 14:49:12.398867 30347 net.cpp:399] inception_4d/3x3_reduce -> inception_4d/3x3_reduce
I0403 14:49:12.400391 30347 net.cpp:141] Setting up inception_4d/3x3_reduce
I0403 14:49:12.400420 30347 net.cpp:148] Top shape: 24 144 14 14 (677376)
I0403 14:49:12.400435 30347 net.cpp:156] Memory required for data: 1118106912
I0403 14:49:12.400454 30347 layer_factory.hpp:77] Creating layer inception_4d/relu_3x3_reduce
I0403 14:49:12.400486 30347 net.cpp:91] Creating Layer inception_4d/relu_3x3_reduce
I0403 14:49:12.400504 30347 net.cpp:425] inception_4d/relu_3x3_reduce <- inception_4d/3x3_reduce
I0403 14:49:12.400523 30347 net.cpp:386] inception_4d/relu_3x3_reduce -> inception_4d/3x3_reduce (in-place)
I0403 14:49:12.400812 30347 net.cpp:141] Setting up inception_4d/relu_3x3_reduce
I0403 14:49:12.400840 30347 net.cpp:148] Top shape: 24 144 14 14 (677376)
I0403 14:49:12.400856 30347 net.cpp:156] Memory required for data: 1120816416
I0403 14:49:12.400871 30347 layer_factory.hpp:77] Creating layer inception_4d/3x3
I0403 14:49:12.400895 30347 net.cpp:91] Creating Layer inception_4d/3x3
I0403 14:49:12.400915 30347 net.cpp:425] inception_4d/3x3 <- inception_4d/3x3_reduce
I0403 14:49:12.400938 30347 net.cpp:399] inception_4d/3x3 -> inception_4d/3x3
I0403 14:49:12.405279 30347 net.cpp:141] Setting up inception_4d/3x3
I0403 14:49:12.405309 30347 net.cpp:148] Top shape: 24 288 14 14 (1354752)
I0403 14:49:12.405325 30347 net.cpp:156] Memory required for data: 1126235424
I0403 14:49:12.405344 30347 layer_factory.hpp:77] Creating layer inception_4d/relu_3x3
I0403 14:49:12.405371 30347 net.cpp:91] Creating Layer inception_4d/relu_3x3
I0403 14:49:12.405390 30347 net.cpp:425] inception_4d/relu_3x3 <- inception_4d/3x3
I0403 14:49:12.405408 30347 net.cpp:386] inception_4d/relu_3x3 -> inception_4d/3x3 (in-place)
I0403 14:49:12.405594 30347 net.cpp:141] Setting up inception_4d/relu_3x3
I0403 14:49:12.405622 30347 net.cpp:148] Top shape: 24 288 14 14 (1354752)
I0403 14:49:12.405638 30347 net.cpp:156] Memory required for data: 1131654432
I0403 14:49:12.405654 30347 layer_factory.hpp:77] Creating layer inception_4d/5x5_reduce
I0403 14:49:12.405676 30347 net.cpp:91] Creating Layer inception_4d/5x5_reduce
I0403 14:49:12.405696 30347 net.cpp:425] inception_4d/5x5_reduce <- inception_4c/output_inception_4c/output_0_split_2
I0403 14:49:12.405715 30347 net.cpp:399] inception_4d/5x5_reduce -> inception_4d/5x5_reduce
I0403 14:49:12.406883 30347 net.cpp:141] Setting up inception_4d/5x5_reduce
I0403 14:49:12.406913 30347 net.cpp:148] Top shape: 24 32 14 14 (150528)
I0403 14:49:12.406929 30347 net.cpp:156] Memory required for data: 1132256544
I0403 14:49:12.406946 30347 layer_factory.hpp:77] Creating layer inception_4d/relu_5x5_reduce
I0403 14:49:12.406967 30347 net.cpp:91] Creating Layer inception_4d/relu_5x5_reduce
I0403 14:49:12.406985 30347 net.cpp:425] inception_4d/relu_5x5_reduce <- inception_4d/5x5_reduce
I0403 14:49:12.407003 30347 net.cpp:386] inception_4d/relu_5x5_reduce -> inception_4d/5x5_reduce (in-place)
I0403 14:49:12.407191 30347 net.cpp:141] Setting up inception_4d/relu_5x5_reduce
I0403 14:49:12.407220 30347 net.cpp:148] Top shape: 24 32 14 14 (150528)
I0403 14:49:12.407237 30347 net.cpp:156] Memory required for data: 1132858656
I0403 14:49:12.407251 30347 layer_factory.hpp:77] Creating layer inception_4d/5x5
I0403 14:49:12.407277 30347 net.cpp:91] Creating Layer inception_4d/5x5
I0403 14:49:12.407296 30347 net.cpp:425] inception_4d/5x5 <- inception_4d/5x5_reduce
I0403 14:49:12.407320 30347 net.cpp:399] inception_4d/5x5 -> inception_4d/5x5
I0403 14:49:12.408807 30347 net.cpp:141] Setting up inception_4d/5x5
I0403 14:49:12.408836 30347 net.cpp:148] Top shape: 24 64 14 14 (301056)
I0403 14:49:12.408854 30347 net.cpp:156] Memory required for data: 1134062880
I0403 14:49:12.408872 30347 layer_factory.hpp:77] Creating layer inception_4d/relu_5x5
I0403 14:49:12.408906 30347 net.cpp:91] Creating Layer inception_4d/relu_5x5
I0403 14:49:12.408923 30347 net.cpp:425] inception_4d/relu_5x5 <- inception_4d/5x5
I0403 14:49:12.408944 30347 net.cpp:386] inception_4d/relu_5x5 -> inception_4d/5x5 (in-place)
I0403 14:49:12.409246 30347 net.cpp:141] Setting up inception_4d/relu_5x5
I0403 14:49:12.409274 30347 net.cpp:148] Top shape: 24 64 14 14 (301056)
I0403 14:49:12.409289 30347 net.cpp:156] Memory required for data: 1135267104
I0403 14:49:12.409306 30347 layer_factory.hpp:77] Creating layer inception_4d/pool
I0403 14:49:12.409323 30347 net.cpp:91] Creating Layer inception_4d/pool
I0403 14:49:12.409340 30347 net.cpp:425] inception_4d/pool <- inception_4c/output_inception_4c/output_0_split_3
I0403 14:49:12.409366 30347 net.cpp:399] inception_4d/pool -> inception_4d/pool
I0403 14:49:12.409437 30347 net.cpp:141] Setting up inception_4d/pool
I0403 14:49:12.409462 30347 net.cpp:148] Top shape: 24 512 14 14 (2408448)
I0403 14:49:12.409477 30347 net.cpp:156] Memory required for data: 1144900896
I0403 14:49:12.409492 30347 layer_factory.hpp:77] Creating layer inception_4d/pool_proj
I0403 14:49:12.409517 30347 net.cpp:91] Creating Layer inception_4d/pool_proj
I0403 14:49:12.409534 30347 net.cpp:425] inception_4d/pool_proj <- inception_4d/pool
I0403 14:49:12.409559 30347 net.cpp:399] inception_4d/pool_proj -> inception_4d/pool_proj
I0403 14:49:12.411348 30347 net.cpp:141] Setting up inception_4d/pool_proj
I0403 14:49:12.411380 30347 net.cpp:148] Top shape: 24 64 14 14 (301056)
I0403 14:49:12.411396 30347 net.cpp:156] Memory required for data: 1146105120
I0403 14:49:12.411414 30347 layer_factory.hpp:77] Creating layer inception_4d/relu_pool_proj
I0403 14:49:12.411437 30347 net.cpp:91] Creating Layer inception_4d/relu_pool_proj
I0403 14:49:12.411453 30347 net.cpp:425] inception_4d/relu_pool_proj <- inception_4d/pool_proj
I0403 14:49:12.411470 30347 net.cpp:386] inception_4d/relu_pool_proj -> inception_4d/pool_proj (in-place)
I0403 14:49:12.411661 30347 net.cpp:141] Setting up inception_4d/relu_pool_proj
I0403 14:49:12.411689 30347 net.cpp:148] Top shape: 24 64 14 14 (301056)
I0403 14:49:12.411706 30347 net.cpp:156] Memory required for data: 1147309344
I0403 14:49:12.411722 30347 layer_factory.hpp:77] Creating layer inception_4d/output
I0403 14:49:12.411741 30347 net.cpp:91] Creating Layer inception_4d/output
I0403 14:49:12.411756 30347 net.cpp:425] inception_4d/output <- inception_4d/1x1
I0403 14:49:12.411773 30347 net.cpp:425] inception_4d/output <- inception_4d/3x3
I0403 14:49:12.411789 30347 net.cpp:425] inception_4d/output <- inception_4d/5x5
I0403 14:49:12.411808 30347 net.cpp:425] inception_4d/output <- inception_4d/pool_proj
I0403 14:49:12.411828 30347 net.cpp:399] inception_4d/output -> inception_4d/output
I0403 14:49:12.411877 30347 net.cpp:141] Setting up inception_4d/output
I0403 14:49:12.411901 30347 net.cpp:148] Top shape: 24 528 14 14 (2483712)
I0403 14:49:12.411916 30347 net.cpp:156] Memory required for data: 1157244192
I0403 14:49:12.411931 30347 layer_factory.hpp:77] Creating layer inception_4d/output_inception_4d/output_0_split
I0403 14:49:12.411952 30347 net.cpp:91] Creating Layer inception_4d/output_inception_4d/output_0_split
I0403 14:49:12.411969 30347 net.cpp:425] inception_4d/output_inception_4d/output_0_split <- inception_4d/output
I0403 14:49:12.411988 30347 net.cpp:399] inception_4d/output_inception_4d/output_0_split -> inception_4d/output_inception_4d/output_0_split_0
I0403 14:49:12.412014 30347 net.cpp:399] inception_4d/output_inception_4d/output_0_split -> inception_4d/output_inception_4d/output_0_split_1
I0403 14:49:12.412035 30347 net.cpp:399] inception_4d/output_inception_4d/output_0_split -> inception_4d/output_inception_4d/output_0_split_2
I0403 14:49:12.412056 30347 net.cpp:399] inception_4d/output_inception_4d/output_0_split -> inception_4d/output_inception_4d/output_0_split_3
I0403 14:49:12.412076 30347 net.cpp:399] inception_4d/output_inception_4d/output_0_split -> inception_4d/output_inception_4d/output_0_split_4
I0403 14:49:12.412179 30347 net.cpp:141] Setting up inception_4d/output_inception_4d/output_0_split
I0403 14:49:12.412216 30347 net.cpp:148] Top shape: 24 528 14 14 (2483712)
I0403 14:49:12.412235 30347 net.cpp:148] Top shape: 24 528 14 14 (2483712)
I0403 14:49:12.412251 30347 net.cpp:148] Top shape: 24 528 14 14 (2483712)
I0403 14:49:12.412266 30347 net.cpp:148] Top shape: 24 528 14 14 (2483712)
I0403 14:49:12.412282 30347 net.cpp:148] Top shape: 24 528 14 14 (2483712)
I0403 14:49:12.412297 30347 net.cpp:156] Memory required for data: 1206918432
I0403 14:49:12.412312 30347 layer_factory.hpp:77] Creating layer loss2/ave_pool
I0403 14:49:12.412333 30347 net.cpp:91] Creating Layer loss2/ave_pool
I0403 14:49:12.412355 30347 net.cpp:425] loss2/ave_pool <- inception_4d/output_inception_4d/output_0_split_0
I0403 14:49:12.412376 30347 net.cpp:399] loss2/ave_pool -> loss2/ave_pool
I0403 14:49:12.412689 30347 net.cpp:141] Setting up loss2/ave_pool
I0403 14:49:12.412717 30347 net.cpp:148] Top shape: 24 528 4 4 (202752)
I0403 14:49:12.412736 30347 net.cpp:156] Memory required for data: 1207729440
I0403 14:49:12.412755 30347 layer_factory.hpp:77] Creating layer loss2/conv
I0403 14:49:12.412775 30347 net.cpp:91] Creating Layer loss2/conv
I0403 14:49:12.412793 30347 net.cpp:425] loss2/conv <- loss2/ave_pool
I0403 14:49:12.412824 30347 net.cpp:399] loss2/conv -> loss2/conv
I0403 14:49:12.414777 30347 net.cpp:141] Setting up loss2/conv
I0403 14:49:12.414808 30347 net.cpp:148] Top shape: 24 128 4 4 (49152)
I0403 14:49:12.414825 30347 net.cpp:156] Memory required for data: 1207926048
I0403 14:49:12.414845 30347 layer_factory.hpp:77] Creating layer loss2/relu_conv
I0403 14:49:12.414865 30347 net.cpp:91] Creating Layer loss2/relu_conv
I0403 14:49:12.414882 30347 net.cpp:425] loss2/relu_conv <- loss2/conv
I0403 14:49:12.414902 30347 net.cpp:386] loss2/relu_conv -> loss2/conv (in-place)
I0403 14:49:12.415189 30347 net.cpp:141] Setting up loss2/relu_conv
I0403 14:49:12.415220 30347 net.cpp:148] Top shape: 24 128 4 4 (49152)
I0403 14:49:12.415236 30347 net.cpp:156] Memory required for data: 1208122656
I0403 14:49:12.415251 30347 layer_factory.hpp:77] Creating layer loss2/fc
I0403 14:49:12.415271 30347 net.cpp:91] Creating Layer loss2/fc
I0403 14:49:12.415288 30347 net.cpp:425] loss2/fc <- loss2/conv
I0403 14:49:12.415312 30347 net.cpp:399] loss2/fc -> loss2/fc
I0403 14:49:12.433089 30347 net.cpp:141] Setting up loss2/fc
I0403 14:49:12.433138 30347 net.cpp:148] Top shape: 24 1024 (24576)
I0403 14:49:12.433154 30347 net.cpp:156] Memory required for data: 1208220960
I0403 14:49:12.433174 30347 layer_factory.hpp:77] Creating layer loss2/relu_fc
I0403 14:49:12.433197 30347 net.cpp:91] Creating Layer loss2/relu_fc
I0403 14:49:12.433215 30347 net.cpp:425] loss2/relu_fc <- loss2/fc
I0403 14:49:12.433235 30347 net.cpp:386] loss2/relu_fc -> loss2/fc (in-place)
I0403 14:49:12.433581 30347 net.cpp:141] Setting up loss2/relu_fc
I0403 14:49:12.433609 30347 net.cpp:148] Top shape: 24 1024 (24576)
I0403 14:49:12.433624 30347 net.cpp:156] Memory required for data: 1208319264
I0403 14:49:12.433640 30347 layer_factory.hpp:77] Creating layer loss2/drop_fc
I0403 14:49:12.433662 30347 net.cpp:91] Creating Layer loss2/drop_fc
I0403 14:49:12.433681 30347 net.cpp:425] loss2/drop_fc <- loss2/fc
I0403 14:49:12.433701 30347 net.cpp:386] loss2/drop_fc -> loss2/fc (in-place)
I0403 14:49:12.433753 30347 net.cpp:141] Setting up loss2/drop_fc
I0403 14:49:12.433779 30347 net.cpp:148] Top shape: 24 1024 (24576)
I0403 14:49:12.433794 30347 net.cpp:156] Memory required for data: 1208417568
I0403 14:49:12.433809 30347 layer_factory.hpp:77] Creating layer loss2/classifier_plantvillage
I0403 14:49:12.433832 30347 net.cpp:91] Creating Layer loss2/classifier_plantvillage
I0403 14:49:12.433851 30347 net.cpp:425] loss2/classifier_plantvillage <- loss2/fc
I0403 14:49:12.433871 30347 net.cpp:399] loss2/classifier_plantvillage -> loss2/classifier_plantvillage
I0403 14:49:12.434284 30347 net.cpp:141] Setting up loss2/classifier_plantvillage
I0403 14:49:12.434311 30347 net.cpp:148] Top shape: 24 38 (912)
I0403 14:49:12.434336 30347 net.cpp:156] Memory required for data: 1208421216
I0403 14:49:12.434389 30347 layer_factory.hpp:77] Creating layer loss2/classifier_plantvillage_loss2/classifier_plantvillage_0_split
I0403 14:49:12.434411 30347 net.cpp:91] Creating Layer loss2/classifier_plantvillage_loss2/classifier_plantvillage_0_split
I0403 14:49:12.434427 30347 net.cpp:425] loss2/classifier_plantvillage_loss2/classifier_plantvillage_0_split <- loss2/classifier_plantvillage
I0403 14:49:12.434448 30347 net.cpp:399] loss2/classifier_plantvillage_loss2/classifier_plantvillage_0_split -> loss2/classifier_plantvillage_loss2/classifier_plantvillage_0_split_0
I0403 14:49:12.434471 30347 net.cpp:399] loss2/classifier_plantvillage_loss2/classifier_plantvillage_0_split -> loss2/classifier_plantvillage_loss2/classifier_plantvillage_0_split_1
I0403 14:49:12.434491 30347 net.cpp:399] loss2/classifier_plantvillage_loss2/classifier_plantvillage_0_split -> loss2/classifier_plantvillage_loss2/classifier_plantvillage_0_split_2
I0403 14:49:12.434571 30347 net.cpp:141] Setting up loss2/classifier_plantvillage_loss2/classifier_plantvillage_0_split
I0403 14:49:12.434597 30347 net.cpp:148] Top shape: 24 38 (912)
I0403 14:49:12.434614 30347 net.cpp:148] Top shape: 24 38 (912)
I0403 14:49:12.434630 30347 net.cpp:148] Top shape: 24 38 (912)
I0403 14:49:12.434645 30347 net.cpp:156] Memory required for data: 1208432160
I0403 14:49:12.434660 30347 layer_factory.hpp:77] Creating layer inception_4e/1x1
I0403 14:49:12.434681 30347 net.cpp:91] Creating Layer inception_4e/1x1
I0403 14:49:12.434700 30347 net.cpp:425] inception_4e/1x1 <- inception_4d/output_inception_4d/output_0_split_1
I0403 14:49:12.434718 30347 net.cpp:399] inception_4e/1x1 -> inception_4e/1x1
I0403 14:49:12.436619 30347 net.cpp:141] Setting up inception_4e/1x1
I0403 14:49:12.436647 30347 net.cpp:148] Top shape: 24 256 14 14 (1204224)
I0403 14:49:12.436663 30347 net.cpp:156] Memory required for data: 1213249056
I0403 14:49:12.436682 30347 layer_factory.hpp:77] Creating layer inception_4e/relu_1x1
I0403 14:49:12.436702 30347 net.cpp:91] Creating Layer inception_4e/relu_1x1
I0403 14:49:12.436719 30347 net.cpp:425] inception_4e/relu_1x1 <- inception_4e/1x1
I0403 14:49:12.436740 30347 net.cpp:386] inception_4e/relu_1x1 -> inception_4e/1x1 (in-place)
I0403 14:49:12.437046 30347 net.cpp:141] Setting up inception_4e/relu_1x1
I0403 14:49:12.437073 30347 net.cpp:148] Top shape: 24 256 14 14 (1204224)
I0403 14:49:12.437089 30347 net.cpp:156] Memory required for data: 1218065952
I0403 14:49:12.437105 30347 layer_factory.hpp:77] Creating layer inception_4e/3x3_reduce
I0403 14:49:12.437129 30347 net.cpp:91] Creating Layer inception_4e/3x3_reduce
I0403 14:49:12.437150 30347 net.cpp:425] inception_4e/3x3_reduce <- inception_4d/output_inception_4d/output_0_split_2
I0403 14:49:12.437171 30347 net.cpp:399] inception_4e/3x3_reduce -> inception_4e/3x3_reduce
I0403 14:49:12.439306 30347 net.cpp:141] Setting up inception_4e/3x3_reduce
I0403 14:49:12.439342 30347 net.cpp:148] Top shape: 24 160 14 14 (752640)
I0403 14:49:12.439364 30347 net.cpp:156] Memory required for data: 1221076512
I0403 14:49:12.439384 30347 layer_factory.hpp:77] Creating layer inception_4e/relu_3x3_reduce
I0403 14:49:12.439402 30347 net.cpp:91] Creating Layer inception_4e/relu_3x3_reduce
I0403 14:49:12.439419 30347 net.cpp:425] inception_4e/relu_3x3_reduce <- inception_4e/3x3_reduce
I0403 14:49:12.439438 30347 net.cpp:386] inception_4e/relu_3x3_reduce -> inception_4e/3x3_reduce (in-place)
I0403 14:49:12.439626 30347 net.cpp:141] Setting up inception_4e/relu_3x3_reduce
I0403 14:49:12.439653 30347 net.cpp:148] Top shape: 24 160 14 14 (752640)
I0403 14:49:12.439668 30347 net.cpp:156] Memory required for data: 1224087072
I0403 14:49:12.439684 30347 layer_factory.hpp:77] Creating layer inception_4e/3x3
I0403 14:49:12.439707 30347 net.cpp:91] Creating Layer inception_4e/3x3
I0403 14:49:12.439725 30347 net.cpp:425] inception_4e/3x3 <- inception_4e/3x3_reduce
I0403 14:49:12.439748 30347 net.cpp:399] inception_4e/3x3 -> inception_4e/3x3
I0403 14:49:12.444779 30347 net.cpp:141] Setting up inception_4e/3x3
I0403 14:49:12.444825 30347 net.cpp:148] Top shape: 24 320 14 14 (1505280)
I0403 14:49:12.444842 30347 net.cpp:156] Memory required for data: 1230108192
I0403 14:49:12.444862 30347 layer_factory.hpp:77] Creating layer inception_4e/relu_3x3
I0403 14:49:12.444883 30347 net.cpp:91] Creating Layer inception_4e/relu_3x3
I0403 14:49:12.444901 30347 net.cpp:425] inception_4e/relu_3x3 <- inception_4e/3x3
I0403 14:49:12.444921 30347 net.cpp:386] inception_4e/relu_3x3 -> inception_4e/3x3 (in-place)
I0403 14:49:12.445221 30347 net.cpp:141] Setting up inception_4e/relu_3x3
I0403 14:49:12.445250 30347 net.cpp:148] Top shape: 24 320 14 14 (1505280)
I0403 14:49:12.445264 30347 net.cpp:156] Memory required for data: 1236129312
I0403 14:49:12.445281 30347 layer_factory.hpp:77] Creating layer inception_4e/5x5_reduce
I0403 14:49:12.445307 30347 net.cpp:91] Creating Layer inception_4e/5x5_reduce
I0403 14:49:12.445325 30347 net.cpp:425] inception_4e/5x5_reduce <- inception_4d/output_inception_4d/output_0_split_3
I0403 14:49:12.445353 30347 net.cpp:399] inception_4e/5x5_reduce -> inception_4e/5x5_reduce
I0403 14:49:12.446431 30347 net.cpp:141] Setting up inception_4e/5x5_reduce
I0403 14:49:12.446460 30347 net.cpp:148] Top shape: 24 32 14 14 (150528)
I0403 14:49:12.446476 30347 net.cpp:156] Memory required for data: 1236731424
I0403 14:49:12.446496 30347 layer_factory.hpp:77] Creating layer inception_4e/relu_5x5_reduce
I0403 14:49:12.446514 30347 net.cpp:91] Creating Layer inception_4e/relu_5x5_reduce
I0403 14:49:12.446532 30347 net.cpp:425] inception_4e/relu_5x5_reduce <- inception_4e/5x5_reduce
I0403 14:49:12.446552 30347 net.cpp:386] inception_4e/relu_5x5_reduce -> inception_4e/5x5_reduce (in-place)
I0403 14:49:12.446851 30347 net.cpp:141] Setting up inception_4e/relu_5x5_reduce
I0403 14:49:12.446878 30347 net.cpp:148] Top shape: 24 32 14 14 (150528)
I0403 14:49:12.446894 30347 net.cpp:156] Memory required for data: 1237333536
I0403 14:49:12.446909 30347 layer_factory.hpp:77] Creating layer inception_4e/5x5
I0403 14:49:12.446954 30347 net.cpp:91] Creating Layer inception_4e/5x5
I0403 14:49:12.446974 30347 net.cpp:425] inception_4e/5x5 <- inception_4e/5x5_reduce
I0403 14:49:12.446995 30347 net.cpp:399] inception_4e/5x5 -> inception_4e/5x5
I0403 14:49:12.448864 30347 net.cpp:141] Setting up inception_4e/5x5
I0403 14:49:12.448895 30347 net.cpp:148] Top shape: 24 128 14 14 (602112)
I0403 14:49:12.448912 30347 net.cpp:156] Memory required for data: 1239741984
I0403 14:49:12.448933 30347 layer_factory.hpp:77] Creating layer inception_4e/relu_5x5
I0403 14:49:12.448952 30347 net.cpp:91] Creating Layer inception_4e/relu_5x5
I0403 14:49:12.448969 30347 net.cpp:425] inception_4e/relu_5x5 <- inception_4e/5x5
I0403 14:49:12.448987 30347 net.cpp:386] inception_4e/relu_5x5 -> inception_4e/5x5 (in-place)
I0403 14:49:12.449189 30347 net.cpp:141] Setting up inception_4e/relu_5x5
I0403 14:49:12.449216 30347 net.cpp:148] Top shape: 24 128 14 14 (602112)
I0403 14:49:12.449231 30347 net.cpp:156] Memory required for data: 1242150432
I0403 14:49:12.449247 30347 layer_factory.hpp:77] Creating layer inception_4e/pool
I0403 14:49:12.449265 30347 net.cpp:91] Creating Layer inception_4e/pool
I0403 14:49:12.449281 30347 net.cpp:425] inception_4e/pool <- inception_4d/output_inception_4d/output_0_split_4
I0403 14:49:12.449303 30347 net.cpp:399] inception_4e/pool -> inception_4e/pool
I0403 14:49:12.449380 30347 net.cpp:141] Setting up inception_4e/pool
I0403 14:49:12.449409 30347 net.cpp:148] Top shape: 24 528 14 14 (2483712)
I0403 14:49:12.449424 30347 net.cpp:156] Memory required for data: 1252085280
I0403 14:49:12.449441 30347 layer_factory.hpp:77] Creating layer inception_4e/pool_proj
I0403 14:49:12.449463 30347 net.cpp:91] Creating Layer inception_4e/pool_proj
I0403 14:49:12.449483 30347 net.cpp:425] inception_4e/pool_proj <- inception_4e/pool
I0403 14:49:12.449502 30347 net.cpp:399] inception_4e/pool_proj -> inception_4e/pool_proj
I0403 14:49:12.451045 30347 net.cpp:141] Setting up inception_4e/pool_proj
I0403 14:49:12.451076 30347 net.cpp:148] Top shape: 24 128 14 14 (602112)
I0403 14:49:12.451107 30347 net.cpp:156] Memory required for data: 1254493728
I0403 14:49:12.451128 30347 layer_factory.hpp:77] Creating layer inception_4e/relu_pool_proj
I0403 14:49:12.451148 30347 net.cpp:91] Creating Layer inception_4e/relu_pool_proj
I0403 14:49:12.451165 30347 net.cpp:425] inception_4e/relu_pool_proj <- inception_4e/pool_proj
I0403 14:49:12.451184 30347 net.cpp:386] inception_4e/relu_pool_proj -> inception_4e/pool_proj (in-place)
I0403 14:49:12.451494 30347 net.cpp:141] Setting up inception_4e/relu_pool_proj
I0403 14:49:12.451524 30347 net.cpp:148] Top shape: 24 128 14 14 (602112)
I0403 14:49:12.451541 30347 net.cpp:156] Memory required for data: 1256902176
I0403 14:49:12.451566 30347 layer_factory.hpp:77] Creating layer inception_4e/output
I0403 14:49:12.451586 30347 net.cpp:91] Creating Layer inception_4e/output
I0403 14:49:12.451602 30347 net.cpp:425] inception_4e/output <- inception_4e/1x1
I0403 14:49:12.451619 30347 net.cpp:425] inception_4e/output <- inception_4e/3x3
I0403 14:49:12.451637 30347 net.cpp:425] inception_4e/output <- inception_4e/5x5
I0403 14:49:12.451653 30347 net.cpp:425] inception_4e/output <- inception_4e/pool_proj
I0403 14:49:12.451671 30347 net.cpp:399] inception_4e/output -> inception_4e/output
I0403 14:49:12.451724 30347 net.cpp:141] Setting up inception_4e/output
I0403 14:49:12.451748 30347 net.cpp:148] Top shape: 24 832 14 14 (3913728)
I0403 14:49:12.451763 30347 net.cpp:156] Memory required for data: 1272557088
I0403 14:49:12.451779 30347 layer_factory.hpp:77] Creating layer pool4/3x3_s2
I0403 14:49:12.451799 30347 net.cpp:91] Creating Layer pool4/3x3_s2
I0403 14:49:12.451817 30347 net.cpp:425] pool4/3x3_s2 <- inception_4e/output
I0403 14:49:12.451835 30347 net.cpp:399] pool4/3x3_s2 -> pool4/3x3_s2
I0403 14:49:12.451906 30347 net.cpp:141] Setting up pool4/3x3_s2
I0403 14:49:12.451931 30347 net.cpp:148] Top shape: 24 832 7 7 (978432)
I0403 14:49:12.451946 30347 net.cpp:156] Memory required for data: 1276470816
I0403 14:49:12.451962 30347 layer_factory.hpp:77] Creating layer pool4/3x3_s2_pool4/3x3_s2_0_split
I0403 14:49:12.451980 30347 net.cpp:91] Creating Layer pool4/3x3_s2_pool4/3x3_s2_0_split
I0403 14:49:12.451997 30347 net.cpp:425] pool4/3x3_s2_pool4/3x3_s2_0_split <- pool4/3x3_s2
I0403 14:49:12.452016 30347 net.cpp:399] pool4/3x3_s2_pool4/3x3_s2_0_split -> pool4/3x3_s2_pool4/3x3_s2_0_split_0
I0403 14:49:12.452039 30347 net.cpp:399] pool4/3x3_s2_pool4/3x3_s2_0_split -> pool4/3x3_s2_pool4/3x3_s2_0_split_1
I0403 14:49:12.452061 30347 net.cpp:399] pool4/3x3_s2_pool4/3x3_s2_0_split -> pool4/3x3_s2_pool4/3x3_s2_0_split_2
I0403 14:49:12.452081 30347 net.cpp:399] pool4/3x3_s2_pool4/3x3_s2_0_split -> pool4/3x3_s2_pool4/3x3_s2_0_split_3
I0403 14:49:12.452177 30347 net.cpp:141] Setting up pool4/3x3_s2_pool4/3x3_s2_0_split
I0403 14:49:12.452200 30347 net.cpp:148] Top shape: 24 832 7 7 (978432)
I0403 14:49:12.452217 30347 net.cpp:148] Top shape: 24 832 7 7 (978432)
I0403 14:49:12.452234 30347 net.cpp:148] Top shape: 24 832 7 7 (978432)
I0403 14:49:12.452250 30347 net.cpp:148] Top shape: 24 832 7 7 (978432)
I0403 14:49:12.452265 30347 net.cpp:156] Memory required for data: 1292125728
I0403 14:49:12.452280 30347 layer_factory.hpp:77] Creating layer inception_5a/1x1
I0403 14:49:12.452304 30347 net.cpp:91] Creating Layer inception_5a/1x1
I0403 14:49:12.452322 30347 net.cpp:425] inception_5a/1x1 <- pool4/3x3_s2_pool4/3x3_s2_0_split_0
I0403 14:49:12.452342 30347 net.cpp:399] inception_5a/1x1 -> inception_5a/1x1
I0403 14:49:12.455250 30347 net.cpp:141] Setting up inception_5a/1x1
I0403 14:49:12.455282 30347 net.cpp:148] Top shape: 24 256 7 7 (301056)
I0403 14:49:12.455299 30347 net.cpp:156] Memory required for data: 1293329952
I0403 14:49:12.455318 30347 layer_factory.hpp:77] Creating layer inception_5a/relu_1x1
I0403 14:49:12.455338 30347 net.cpp:91] Creating Layer inception_5a/relu_1x1
I0403 14:49:12.455360 30347 net.cpp:425] inception_5a/relu_1x1 <- inception_5a/1x1
I0403 14:49:12.455381 30347 net.cpp:386] inception_5a/relu_1x1 -> inception_5a/1x1 (in-place)
I0403 14:49:12.455698 30347 net.cpp:141] Setting up inception_5a/relu_1x1
I0403 14:49:12.455729 30347 net.cpp:148] Top shape: 24 256 7 7 (301056)
I0403 14:49:12.455745 30347 net.cpp:156] Memory required for data: 1294534176
I0403 14:49:12.455761 30347 layer_factory.hpp:77] Creating layer inception_5a/3x3_reduce
I0403 14:49:12.455785 30347 net.cpp:91] Creating Layer inception_5a/3x3_reduce
I0403 14:49:12.455806 30347 net.cpp:425] inception_5a/3x3_reduce <- pool4/3x3_s2_pool4/3x3_s2_0_split_1
I0403 14:49:12.455824 30347 net.cpp:399] inception_5a/3x3_reduce -> inception_5a/3x3_reduce
I0403 14:49:12.458294 30347 net.cpp:141] Setting up inception_5a/3x3_reduce
I0403 14:49:12.458325 30347 net.cpp:148] Top shape: 24 160 7 7 (188160)
I0403 14:49:12.458341 30347 net.cpp:156] Memory required for data: 1295286816
I0403 14:49:12.458366 30347 layer_factory.hpp:77] Creating layer inception_5a/relu_3x3_reduce
I0403 14:49:12.458389 30347 net.cpp:91] Creating Layer inception_5a/relu_3x3_reduce
I0403 14:49:12.458407 30347 net.cpp:425] inception_5a/relu_3x3_reduce <- inception_5a/3x3_reduce
I0403 14:49:12.458425 30347 net.cpp:386] inception_5a/relu_3x3_reduce -> inception_5a/3x3_reduce (in-place)
I0403 14:49:12.458613 30347 net.cpp:141] Setting up inception_5a/relu_3x3_reduce
I0403 14:49:12.458642 30347 net.cpp:148] Top shape: 24 160 7 7 (188160)
I0403 14:49:12.458657 30347 net.cpp:156] Memory required for data: 1296039456
I0403 14:49:12.458673 30347 layer_factory.hpp:77] Creating layer inception_5a/3x3
I0403 14:49:12.458698 30347 net.cpp:91] Creating Layer inception_5a/3x3
I0403 14:49:12.458715 30347 net.cpp:425] inception_5a/3x3 <- inception_5a/3x3_reduce
I0403 14:49:12.458735 30347 net.cpp:399] inception_5a/3x3 -> inception_5a/3x3
I0403 14:49:12.463814 30347 net.cpp:141] Setting up inception_5a/3x3
I0403 14:49:12.463847 30347 net.cpp:148] Top shape: 24 320 7 7 (376320)
I0403 14:49:12.463865 30347 net.cpp:156] Memory required for data: 1297544736
I0403 14:49:12.463886 30347 layer_factory.hpp:77] Creating layer inception_5a/relu_3x3
I0403 14:49:12.463904 30347 net.cpp:91] Creating Layer inception_5a/relu_3x3
I0403 14:49:12.463922 30347 net.cpp:425] inception_5a/relu_3x3 <- inception_5a/3x3
I0403 14:49:12.463940 30347 net.cpp:386] inception_5a/relu_3x3 -> inception_5a/3x3 (in-place)
I0403 14:49:12.464248 30347 net.cpp:141] Setting up inception_5a/relu_3x3
I0403 14:49:12.464280 30347 net.cpp:148] Top shape: 24 320 7 7 (376320)
I0403 14:49:12.464296 30347 net.cpp:156] Memory required for data: 1299050016
I0403 14:49:12.464313 30347 layer_factory.hpp:77] Creating layer inception_5a/5x5_reduce
I0403 14:49:12.464335 30347 net.cpp:91] Creating Layer inception_5a/5x5_reduce
I0403 14:49:12.464365 30347 net.cpp:425] inception_5a/5x5_reduce <- pool4/3x3_s2_pool4/3x3_s2_0_split_2
I0403 14:49:12.464390 30347 net.cpp:399] inception_5a/5x5_reduce -> inception_5a/5x5_reduce
I0403 14:49:12.465581 30347 net.cpp:141] Setting up inception_5a/5x5_reduce
I0403 14:49:12.465612 30347 net.cpp:148] Top shape: 24 32 7 7 (37632)
I0403 14:49:12.465631 30347 net.cpp:156] Memory required for data: 1299200544
I0403 14:49:12.465651 30347 layer_factory.hpp:77] Creating layer inception_5a/relu_5x5_reduce
I0403 14:49:12.465669 30347 net.cpp:91] Creating Layer inception_5a/relu_5x5_reduce
I0403 14:49:12.465687 30347 net.cpp:425] inception_5a/relu_5x5_reduce <- inception_5a/5x5_reduce
I0403 14:49:12.465708 30347 net.cpp:386] inception_5a/relu_5x5_reduce -> inception_5a/5x5_reduce (in-place)
I0403 14:49:12.466015 30347 net.cpp:141] Setting up inception_5a/relu_5x5_reduce
I0403 14:49:12.466043 30347 net.cpp:148] Top shape: 24 32 7 7 (37632)
I0403 14:49:12.466059 30347 net.cpp:156] Memory required for data: 1299351072
I0403 14:49:12.466075 30347 layer_factory.hpp:77] Creating layer inception_5a/5x5
I0403 14:49:12.466099 30347 net.cpp:91] Creating Layer inception_5a/5x5
I0403 14:49:12.466119 30347 net.cpp:425] inception_5a/5x5 <- inception_5a/5x5_reduce
I0403 14:49:12.466140 30347 net.cpp:399] inception_5a/5x5 -> inception_5a/5x5
I0403 14:49:12.467888 30347 net.cpp:141] Setting up inception_5a/5x5
I0403 14:49:12.467934 30347 net.cpp:148] Top shape: 24 128 7 7 (150528)
I0403 14:49:12.467952 30347 net.cpp:156] Memory required for data: 1299953184
I0403 14:49:12.467972 30347 layer_factory.hpp:77] Creating layer inception_5a/relu_5x5
I0403 14:49:12.467989 30347 net.cpp:91] Creating Layer inception_5a/relu_5x5
I0403 14:49:12.468006 30347 net.cpp:425] inception_5a/relu_5x5 <- inception_5a/5x5
I0403 14:49:12.468024 30347 net.cpp:386] inception_5a/relu_5x5 -> inception_5a/5x5 (in-place)
I0403 14:49:12.468224 30347 net.cpp:141] Setting up inception_5a/relu_5x5
I0403 14:49:12.468250 30347 net.cpp:148] Top shape: 24 128 7 7 (150528)
I0403 14:49:12.468266 30347 net.cpp:156] Memory required for data: 1300555296
I0403 14:49:12.468281 30347 layer_factory.hpp:77] Creating layer inception_5a/pool
I0403 14:49:12.468300 30347 net.cpp:91] Creating Layer inception_5a/pool
I0403 14:49:12.468317 30347 net.cpp:425] inception_5a/pool <- pool4/3x3_s2_pool4/3x3_s2_0_split_3
I0403 14:49:12.468338 30347 net.cpp:399] inception_5a/pool -> inception_5a/pool
I0403 14:49:12.468415 30347 net.cpp:141] Setting up inception_5a/pool
I0403 14:49:12.468442 30347 net.cpp:148] Top shape: 24 832 7 7 (978432)
I0403 14:49:12.468459 30347 net.cpp:156] Memory required for data: 1304469024
I0403 14:49:12.468477 30347 layer_factory.hpp:77] Creating layer inception_5a/pool_proj
I0403 14:49:12.468498 30347 net.cpp:91] Creating Layer inception_5a/pool_proj
I0403 14:49:12.468518 30347 net.cpp:425] inception_5a/pool_proj <- inception_5a/pool
I0403 14:49:12.468538 30347 net.cpp:399] inception_5a/pool_proj -> inception_5a/pool_proj
I0403 14:49:12.470841 30347 net.cpp:141] Setting up inception_5a/pool_proj
I0403 14:49:12.470872 30347 net.cpp:148] Top shape: 24 128 7 7 (150528)
I0403 14:49:12.470888 30347 net.cpp:156] Memory required for data: 1305071136
I0403 14:49:12.470908 30347 layer_factory.hpp:77] Creating layer inception_5a/relu_pool_proj
I0403 14:49:12.470929 30347 net.cpp:91] Creating Layer inception_5a/relu_pool_proj
I0403 14:49:12.470948 30347 net.cpp:425] inception_5a/relu_pool_proj <- inception_5a/pool_proj
I0403 14:49:12.470966 30347 net.cpp:386] inception_5a/relu_pool_proj -> inception_5a/pool_proj (in-place)
I0403 14:49:12.471266 30347 net.cpp:141] Setting up inception_5a/relu_pool_proj
I0403 14:49:12.471294 30347 net.cpp:148] Top shape: 24 128 7 7 (150528)
I0403 14:49:12.471310 30347 net.cpp:156] Memory required for data: 1305673248
I0403 14:49:12.471326 30347 layer_factory.hpp:77] Creating layer inception_5a/output
I0403 14:49:12.471351 30347 net.cpp:91] Creating Layer inception_5a/output
I0403 14:49:12.471370 30347 net.cpp:425] inception_5a/output <- inception_5a/1x1
I0403 14:49:12.471388 30347 net.cpp:425] inception_5a/output <- inception_5a/3x3
I0403 14:49:12.471406 30347 net.cpp:425] inception_5a/output <- inception_5a/5x5
I0403 14:49:12.471423 30347 net.cpp:425] inception_5a/output <- inception_5a/pool_proj
I0403 14:49:12.471442 30347 net.cpp:399] inception_5a/output -> inception_5a/output
I0403 14:49:12.471498 30347 net.cpp:141] Setting up inception_5a/output
I0403 14:49:12.471523 30347 net.cpp:148] Top shape: 24 832 7 7 (978432)
I0403 14:49:12.471537 30347 net.cpp:156] Memory required for data: 1309586976
I0403 14:49:12.471552 30347 layer_factory.hpp:77] Creating layer inception_5a/output_inception_5a/output_0_split
I0403 14:49:12.471571 30347 net.cpp:91] Creating Layer inception_5a/output_inception_5a/output_0_split
I0403 14:49:12.471590 30347 net.cpp:425] inception_5a/output_inception_5a/output_0_split <- inception_5a/output
I0403 14:49:12.471609 30347 net.cpp:399] inception_5a/output_inception_5a/output_0_split -> inception_5a/output_inception_5a/output_0_split_0
I0403 14:49:12.471632 30347 net.cpp:399] inception_5a/output_inception_5a/output_0_split -> inception_5a/output_inception_5a/output_0_split_1
I0403 14:49:12.471653 30347 net.cpp:399] inception_5a/output_inception_5a/output_0_split -> inception_5a/output_inception_5a/output_0_split_2
I0403 14:49:12.471675 30347 net.cpp:399] inception_5a/output_inception_5a/output_0_split -> inception_5a/output_inception_5a/output_0_split_3
I0403 14:49:12.471801 30347 net.cpp:141] Setting up inception_5a/output_inception_5a/output_0_split
I0403 14:49:12.471827 30347 net.cpp:148] Top shape: 24 832 7 7 (978432)
I0403 14:49:12.471845 30347 net.cpp:148] Top shape: 24 832 7 7 (978432)
I0403 14:49:12.471873 30347 net.cpp:148] Top shape: 24 832 7 7 (978432)
I0403 14:49:12.471890 30347 net.cpp:148] Top shape: 24 832 7 7 (978432)
I0403 14:49:12.471904 30347 net.cpp:156] Memory required for data: 1325241888
I0403 14:49:12.471920 30347 layer_factory.hpp:77] Creating layer inception_5b/1x1
I0403 14:49:12.471946 30347 net.cpp:91] Creating Layer inception_5b/1x1
I0403 14:49:12.471962 30347 net.cpp:425] inception_5b/1x1 <- inception_5a/output_inception_5a/output_0_split_0
I0403 14:49:12.471984 30347 net.cpp:399] inception_5b/1x1 -> inception_5b/1x1
I0403 14:49:12.475822 30347 net.cpp:141] Setting up inception_5b/1x1
I0403 14:49:12.475852 30347 net.cpp:148] Top shape: 24 384 7 7 (451584)
I0403 14:49:12.475869 30347 net.cpp:156] Memory required for data: 1327048224
I0403 14:49:12.475889 30347 layer_factory.hpp:77] Creating layer inception_5b/relu_1x1
I0403 14:49:12.475910 30347 net.cpp:91] Creating Layer inception_5b/relu_1x1
I0403 14:49:12.475929 30347 net.cpp:425] inception_5b/relu_1x1 <- inception_5b/1x1
I0403 14:49:12.475949 30347 net.cpp:386] inception_5b/relu_1x1 -> inception_5b/1x1 (in-place)
I0403 14:49:12.476256 30347 net.cpp:141] Setting up inception_5b/relu_1x1
I0403 14:49:12.476284 30347 net.cpp:148] Top shape: 24 384 7 7 (451584)
I0403 14:49:12.476300 30347 net.cpp:156] Memory required for data: 1328854560
I0403 14:49:12.476316 30347 layer_factory.hpp:77] Creating layer inception_5b/3x3_reduce
I0403 14:49:12.476341 30347 net.cpp:91] Creating Layer inception_5b/3x3_reduce
I0403 14:49:12.476364 30347 net.cpp:425] inception_5b/3x3_reduce <- inception_5a/output_inception_5a/output_0_split_1
I0403 14:49:12.476387 30347 net.cpp:399] inception_5b/3x3_reduce -> inception_5b/3x3_reduce
I0403 14:49:12.479094 30347 net.cpp:141] Setting up inception_5b/3x3_reduce
I0403 14:49:12.479125 30347 net.cpp:148] Top shape: 24 192 7 7 (225792)
I0403 14:49:12.479142 30347 net.cpp:156] Memory required for data: 1329757728
I0403 14:49:12.479161 30347 layer_factory.hpp:77] Creating layer inception_5b/relu_3x3_reduce
I0403 14:49:12.479182 30347 net.cpp:91] Creating Layer inception_5b/relu_3x3_reduce
I0403 14:49:12.479199 30347 net.cpp:425] inception_5b/relu_3x3_reduce <- inception_5b/3x3_reduce
I0403 14:49:12.479218 30347 net.cpp:386] inception_5b/relu_3x3_reduce -> inception_5b/3x3_reduce (in-place)
I0403 14:49:12.479409 30347 net.cpp:141] Setting up inception_5b/relu_3x3_reduce
I0403 14:49:12.479436 30347 net.cpp:148] Top shape: 24 192 7 7 (225792)
I0403 14:49:12.479452 30347 net.cpp:156] Memory required for data: 1330660896
I0403 14:49:12.479467 30347 layer_factory.hpp:77] Creating layer inception_5b/3x3
I0403 14:49:12.479490 30347 net.cpp:91] Creating Layer inception_5b/3x3
I0403 14:49:12.479507 30347 net.cpp:425] inception_5b/3x3 <- inception_5b/3x3_reduce
I0403 14:49:12.479529 30347 net.cpp:399] inception_5b/3x3 -> inception_5b/3x3
I0403 14:49:12.486279 30347 net.cpp:141] Setting up inception_5b/3x3
I0403 14:49:12.486310 30347 net.cpp:148] Top shape: 24 384 7 7 (451584)
I0403 14:49:12.486326 30347 net.cpp:156] Memory required for data: 1332467232
I0403 14:49:12.486349 30347 layer_factory.hpp:77] Creating layer inception_5b/relu_3x3
I0403 14:49:12.486371 30347 net.cpp:91] Creating Layer inception_5b/relu_3x3
I0403 14:49:12.486389 30347 net.cpp:425] inception_5b/relu_3x3 <- inception_5b/3x3
I0403 14:49:12.486407 30347 net.cpp:386] inception_5b/relu_3x3 -> inception_5b/3x3 (in-place)
I0403 14:49:12.486708 30347 net.cpp:141] Setting up inception_5b/relu_3x3
I0403 14:49:12.486735 30347 net.cpp:148] Top shape: 24 384 7 7 (451584)
I0403 14:49:12.486752 30347 net.cpp:156] Memory required for data: 1334273568
I0403 14:49:12.486768 30347 layer_factory.hpp:77] Creating layer inception_5b/5x5_reduce
I0403 14:49:12.486812 30347 net.cpp:91] Creating Layer inception_5b/5x5_reduce
I0403 14:49:12.486832 30347 net.cpp:425] inception_5b/5x5_reduce <- inception_5a/output_inception_5a/output_0_split_2
I0403 14:49:12.486852 30347 net.cpp:399] inception_5b/5x5_reduce -> inception_5b/5x5_reduce
I0403 14:49:12.488140 30347 net.cpp:141] Setting up inception_5b/5x5_reduce
I0403 14:49:12.488169 30347 net.cpp:148] Top shape: 24 48 7 7 (56448)
I0403 14:49:12.488189 30347 net.cpp:156] Memory required for data: 1334499360
I0403 14:49:12.488209 30347 layer_factory.hpp:77] Creating layer inception_5b/relu_5x5_reduce
I0403 14:49:12.488226 30347 net.cpp:91] Creating Layer inception_5b/relu_5x5_reduce
I0403 14:49:12.488256 30347 net.cpp:425] inception_5b/relu_5x5_reduce <- inception_5b/5x5_reduce
I0403 14:49:12.488276 30347 net.cpp:386] inception_5b/relu_5x5_reduce -> inception_5b/5x5_reduce (in-place)
I0403 14:49:12.488664 30347 net.cpp:141] Setting up inception_5b/relu_5x5_reduce
I0403 14:49:12.488692 30347 net.cpp:148] Top shape: 24 48 7 7 (56448)
I0403 14:49:12.488706 30347 net.cpp:156] Memory required for data: 1334725152
I0403 14:49:12.488734 30347 layer_factory.hpp:77] Creating layer inception_5b/5x5
I0403 14:49:12.488756 30347 net.cpp:91] Creating Layer inception_5b/5x5
I0403 14:49:12.488778 30347 net.cpp:425] inception_5b/5x5 <- inception_5b/5x5_reduce
I0403 14:49:12.488800 30347 net.cpp:399] inception_5b/5x5 -> inception_5b/5x5
I0403 14:49:12.490893 30347 net.cpp:141] Setting up inception_5b/5x5
I0403 14:49:12.490924 30347 net.cpp:148] Top shape: 24 128 7 7 (150528)
I0403 14:49:12.490942 30347 net.cpp:156] Memory required for data: 1335327264
I0403 14:49:12.490960 30347 layer_factory.hpp:77] Creating layer inception_5b/relu_5x5
I0403 14:49:12.490979 30347 net.cpp:91] Creating Layer inception_5b/relu_5x5
I0403 14:49:12.490995 30347 net.cpp:425] inception_5b/relu_5x5 <- inception_5b/5x5
I0403 14:49:12.491014 30347 net.cpp:386] inception_5b/relu_5x5 -> inception_5b/5x5 (in-place)
I0403 14:49:12.491205 30347 net.cpp:141] Setting up inception_5b/relu_5x5
I0403 14:49:12.491231 30347 net.cpp:148] Top shape: 24 128 7 7 (150528)
I0403 14:49:12.491246 30347 net.cpp:156] Memory required for data: 1335929376
I0403 14:49:12.491261 30347 layer_factory.hpp:77] Creating layer inception_5b/pool
I0403 14:49:12.491279 30347 net.cpp:91] Creating Layer inception_5b/pool
I0403 14:49:12.491296 30347 net.cpp:425] inception_5b/pool <- inception_5a/output_inception_5a/output_0_split_3
I0403 14:49:12.491315 30347 net.cpp:399] inception_5b/pool -> inception_5b/pool
I0403 14:49:12.491394 30347 net.cpp:141] Setting up inception_5b/pool
I0403 14:49:12.491420 30347 net.cpp:148] Top shape: 24 832 7 7 (978432)
I0403 14:49:12.491435 30347 net.cpp:156] Memory required for data: 1339843104
I0403 14:49:12.491448 30347 layer_factory.hpp:77] Creating layer inception_5b/pool_proj
I0403 14:49:12.491472 30347 net.cpp:91] Creating Layer inception_5b/pool_proj
I0403 14:49:12.491492 30347 net.cpp:425] inception_5b/pool_proj <- inception_5b/pool
I0403 14:49:12.491510 30347 net.cpp:399] inception_5b/pool_proj -> inception_5b/pool_proj
I0403 14:49:12.493842 30347 net.cpp:141] Setting up inception_5b/pool_proj
I0403 14:49:12.493875 30347 net.cpp:148] Top shape: 24 128 7 7 (150528)
I0403 14:49:12.493892 30347 net.cpp:156] Memory required for data: 1340445216
I0403 14:49:12.493911 30347 layer_factory.hpp:77] Creating layer inception_5b/relu_pool_proj
I0403 14:49:12.493930 30347 net.cpp:91] Creating Layer inception_5b/relu_pool_proj
I0403 14:49:12.493947 30347 net.cpp:425] inception_5b/relu_pool_proj <- inception_5b/pool_proj
I0403 14:49:12.493965 30347 net.cpp:386] inception_5b/relu_pool_proj -> inception_5b/pool_proj (in-place)
I0403 14:49:12.494282 30347 net.cpp:141] Setting up inception_5b/relu_pool_proj
I0403 14:49:12.494312 30347 net.cpp:148] Top shape: 24 128 7 7 (150528)
I0403 14:49:12.494328 30347 net.cpp:156] Memory required for data: 1341047328
I0403 14:49:12.494343 30347 layer_factory.hpp:77] Creating layer inception_5b/output
I0403 14:49:12.494374 30347 net.cpp:91] Creating Layer inception_5b/output
I0403 14:49:12.494405 30347 net.cpp:425] inception_5b/output <- inception_5b/1x1
I0403 14:49:12.494423 30347 net.cpp:425] inception_5b/output <- inception_5b/3x3
I0403 14:49:12.494441 30347 net.cpp:425] inception_5b/output <- inception_5b/5x5
I0403 14:49:12.494457 30347 net.cpp:425] inception_5b/output <- inception_5b/pool_proj
I0403 14:49:12.494477 30347 net.cpp:399] inception_5b/output -> inception_5b/output
I0403 14:49:12.494531 30347 net.cpp:141] Setting up inception_5b/output
I0403 14:49:12.494555 30347 net.cpp:148] Top shape: 24 1024 7 7 (1204224)
I0403 14:49:12.494571 30347 net.cpp:156] Memory required for data: 1345864224
I0403 14:49:12.494585 30347 layer_factory.hpp:77] Creating layer pool5/7x7_s1
I0403 14:49:12.494606 30347 net.cpp:91] Creating Layer pool5/7x7_s1
I0403 14:49:12.494624 30347 net.cpp:425] pool5/7x7_s1 <- inception_5b/output
I0403 14:49:12.494643 30347 net.cpp:399] pool5/7x7_s1 -> pool5/7x7_s1
I0403 14:49:12.494859 30347 net.cpp:141] Setting up pool5/7x7_s1
I0403 14:49:12.494887 30347 net.cpp:148] Top shape: 24 1024 1 1 (24576)
I0403 14:49:12.494904 30347 net.cpp:156] Memory required for data: 1345962528
I0403 14:49:12.494920 30347 layer_factory.hpp:77] Creating layer pool5/drop_7x7_s1
I0403 14:49:12.494937 30347 net.cpp:91] Creating Layer pool5/drop_7x7_s1
I0403 14:49:12.494953 30347 net.cpp:425] pool5/drop_7x7_s1 <- pool5/7x7_s1
I0403 14:49:12.494971 30347 net.cpp:386] pool5/drop_7x7_s1 -> pool5/7x7_s1 (in-place)
I0403 14:49:12.495021 30347 net.cpp:141] Setting up pool5/drop_7x7_s1
I0403 14:49:12.495045 30347 net.cpp:148] Top shape: 24 1024 1 1 (24576)
I0403 14:49:12.495060 30347 net.cpp:156] Memory required for data: 1346060832
I0403 14:49:12.495076 30347 layer_factory.hpp:77] Creating layer loss3/classifier_plantvillage
I0403 14:49:12.495097 30347 net.cpp:91] Creating Layer loss3/classifier_plantvillage
I0403 14:49:12.495116 30347 net.cpp:425] loss3/classifier_plantvillage <- pool5/7x7_s1
I0403 14:49:12.495136 30347 net.cpp:399] loss3/classifier_plantvillage -> loss3/classifier_plantvillage
I0403 14:49:12.495559 30347 net.cpp:141] Setting up loss3/classifier_plantvillage
I0403 14:49:12.495597 30347 net.cpp:148] Top shape: 24 38 (912)
I0403 14:49:12.495614 30347 net.cpp:156] Memory required for data: 1346064480
I0403 14:49:12.495632 30347 layer_factory.hpp:77] Creating layer loss3/classifier_plantvillage_loss3/classifier_plantvillage_0_split
I0403 14:49:12.495651 30347 net.cpp:91] Creating Layer loss3/classifier_plantvillage_loss3/classifier_plantvillage_0_split
I0403 14:49:12.495668 30347 net.cpp:425] loss3/classifier_plantvillage_loss3/classifier_plantvillage_0_split <- loss3/classifier_plantvillage
I0403 14:49:12.495690 30347 net.cpp:399] loss3/classifier_plantvillage_loss3/classifier_plantvillage_0_split -> loss3/classifier_plantvillage_loss3/classifier_plantvillage_0_split_0
I0403 14:49:12.495712 30347 net.cpp:399] loss3/classifier_plantvillage_loss3/classifier_plantvillage_0_split -> loss3/classifier_plantvillage_loss3/classifier_plantvillage_0_split_1
I0403 14:49:12.495733 30347 net.cpp:399] loss3/classifier_plantvillage_loss3/classifier_plantvillage_0_split -> loss3/classifier_plantvillage_loss3/classifier_plantvillage_0_split_2
I0403 14:49:12.495754 30347 net.cpp:399] loss3/classifier_plantvillage_loss3/classifier_plantvillage_0_split -> loss3/classifier_plantvillage_loss3/classifier_plantvillage_0_split_3
I0403 14:49:12.495862 30347 net.cpp:141] Setting up loss3/classifier_plantvillage_loss3/classifier_plantvillage_0_split
I0403 14:49:12.495887 30347 net.cpp:148] Top shape: 24 38 (912)
I0403 14:49:12.495904 30347 net.cpp:148] Top shape: 24 38 (912)
I0403 14:49:12.495934 30347 net.cpp:148] Top shape: 24 38 (912)
I0403 14:49:12.495949 30347 net.cpp:148] Top shape: 24 38 (912)
I0403 14:49:12.495962 30347 net.cpp:156] Memory required for data: 1346079072
I0403 14:49:12.495976 30347 layer_factory.hpp:77] Creating layer loss1/loss
I0403 14:49:12.495998 30347 net.cpp:91] Creating Layer loss1/loss
I0403 14:49:12.496016 30347 net.cpp:425] loss1/loss <- loss1/classifier_plantvillage_loss1/classifier_plantvillage_0_split_0
I0403 14:49:12.496048 30347 net.cpp:425] loss1/loss <- label_data_1_split_0
…
