…
I0403 14:27:10.729117 29725 net.cpp:313] The NetState phase (1) differed from the phase (0) specified by a rule in layer data
I0403 14:27:10.730271 29725 net.cpp:49] Initializing net from parameters: 
state {
  phase: TEST
}
layer {
  name: "data"
  type: "Data"
  top: "data"
  top: "label"
  include {
    phase: TEST
  }
  transform_param {
    mirror: false
    crop_size: 224
    mean_file: "/home/mohanty/data/final_dataset/lmdb/color-20-80/mean.binaryproto"
  }
  data_param {
    source: "/home/mohanty/data/final_dataset/lmdb/color-20-80/test_db"
    batch_size: 24
    backend: LMDB
  }
}
layer {
  name: "conv1/7x7_s2"
  type: "Convolution"
  bottom: "data"
  top: "conv1/7x7_s2"
  param {
    lr_mult: 1
    decay_mult: 1
  }
  param {
    lr_mult: 2
    decay_mult: 0
  }
  convolution_param {
    num_output: 64
    pad: 3
    kernel_size: 7
    stride: 2
    weight_filler {
      type: "xavier"
      std: 0.1
    }
    bias_filler {
      type: "constant"
      value: 0.2
    }
  }
}
layer {
  name: "conv1/relu_7x7"
  type: "ReLU"
  bottom: "conv1/7x7_s2"
  top: "conv1/7x7_s2"
}
layer {
  name: "pool1/3x3_s2"
  type: "Pooling"
  bottom: "conv1/7x7_s2"
  top: "pool1/3x3_s2"
  pooling_param {
    pool: MAX
    kernel_size: 3
    stride: 2
  }
}
layer {
  name: "pool1/norm1"
  type: "LRN"
  bottom: "pool1/3x3_s2"
  top: "pool1/norm1"
  lrn_param {
    local_size: 5
    alpha: 0.0001
    beta: 0.75
  }
}
layer {
  name: "conv2/3x3_reduce"
  type: "Convolution"
  bottom: "pool1/norm1"
  top: "conv2/3x3_reduce"
  param {
    lr_mult: 1
    decay_mult: 1
  }
  param {
    lr_mult: 2
    decay_mult: 0
  }
  convolution_param {
    num_output: 64
    kernel_size: 1
    weight_filler {
      type: "xavier"
      std: 0.1
    }
    bias_filler {
      type: "constant"
      value: 0.2
    }
  }
}
layer {
  name: "conv2/relu_3x3_reduce"
  type: "ReLU"
  bottom: "conv2/3x3_reduce"
  top: "conv2/3x3_reduce"
}
layer {
  name: "conv2/3x3"
  type: "Convolution"
  bottom: "conv2/3x3_reduce"
  top: "conv2/3x3"
  param {
    lr_mult: 1
    decay_mult: 1
  }
  param {
    lr_mult: 2
    decay_mult: 0
  }
  convolution_param {
    num_output: 192
    pad: 1
    kernel_size: 3
    weight_filler {
      type: "xavier"
      std: 0.03
    }
    bias_filler {
      type: "constant"
      value: 0.2
    }
  }
}
layer {
  name: "conv2/relu_3x3"
  type: "ReLU"
  bottom: "conv2/3x3"
  top: "conv2/3x3"
}
layer {
  name: "conv2/norm2"
  type: "LRN"
  bottom: "conv2/3x3"
  top: "conv2/norm2"
  lrn_param {
    local_size: 5
    alpha: 0.0001
    beta: 0.75
  }
}
layer {
  name: "pool2/3x3_s2"
  type: "Pooling"
  bottom: "conv2/norm2"
  top: "pool2/3x3_s2"
  pooling_param {
    pool: MAX
    kernel_size: 3
    stride: 2
  }
}
layer {
  name: "inception_3a/1x1"
  type: "Convolution"
  bottom: "pool2/3x3_s2"
  top: "inception_3a/1x1"
  param {
    lr_mult: 1
    decay_mult: 1
  }
  param {
    lr_mult: 2
    decay_mult: 0
  }
  convolution_param {
    num_output: 64
    kernel_size: 1
    weight_filler {
      type: "xavier"
      std: 0.03
    }
    bias_filler {
      type: "constant"
      value: 0.2
    }
  }
}
layer {
  name: "inception_3a/relu_1x1"
  type: "ReLU"
  bottom: "inception_3a/1x1"
  top: "inception_3a/1x1"
}
layer {
  name: "inception_3a/3x3_reduce"
  type: "Convolution"
  bottom: "pool2/3x3_s2"
  top: "inception_3a/3x3_reduce"
  param {
    lr_mult: 1
    decay_mult: 1
  }
  param {
    lr_mult: 2
    decay_mult: 0
  }
  convolution_param {
    num_output: 96
    kernel_size: 1
    weight_filler {
      type: "xavier"
      std: 0.09
    }
    bias_filler {
      type: "constant"
      value: 0.2
    }
  }
}
layer {
  name: "inception_3a/relu_3x3_reduce"
  type: "ReLU"
  bottom: "inception_3a/3x3_reduce"
  top: "inception_3a/3x3_reduce"
}
layer {
  name: "inception_3a/3x3"
  type: "Convolution"
  bottom: "inception_3a/3x3_reduce"
  top: "inception_3a/3x3"
  param {
    lr_mult: 1
    decay_mult: 1
  }
  param {
    lr_mult: 2
    decay_mult: 0
  }
  convolution_param {
    num_output: 128
    pad: 1
    kernel_size: 3
    weight_filler {
      type: "xavier"
      std: 0.03
    }
    bias_filler {
      type: "constant"
      value: 0.2
    }
  }
}
layer {
  name: "inception_3a/relu_3x3"
  type: "ReLU"
  bottom: "inception_3a/3x3"
  top: "inception_3a/3x3"
}
layer {
  name: "inception_3a/5x5_reduce"
  type: "Convolution"
  bottom: "pool2/3x3_s2"
  top: "inception_3a/5x5_reduce"
  param {
    lr_mult: 1
    decay_mult: 1
  }
  param {
    lr_mult: 2
    decay_mult: 0
  }
  convolution_param {
    num_output: 16
    kernel_size: 1
    weight_filler {
      type: "xavier"
      std: 0.2
    }
    bias_filler {
      type: "constant"
      value: 0.2
    }
  }
}
layer {
  name: "inception_3a/relu_5x5_reduce"
  type: "ReLU"
  bottom: "inception_3a/5x5_reduce"
  top: "inception_3a/5x5_reduce"
}
layer {
  name: "inception_3a/5x5"
  type: "Convolution"
  bottom: "inception_3a/5x5_reduce"
  top: "inception_3a/5x5"
  param {
    lr_mult: 1
    decay_mult: 1
  }
  param {
    lr_mult: 2
    decay_mult: 0
  }
  convolution_param {
    num_output: 32
    pad: 2
    kernel_size: 5
    weight_filler {
      type: "xavier"
      std: 0.03
    }
    bias_filler {
      type: "constant"
      value: 0.2
    }
  }
}
layer {
  name: "inception_3a/relu_5x5"
  type: "ReLU"
  bottom: "inception_3a/5x5"
  top: "inception_3a/5x5"
}
layer {
  name: "inception_3a/pool"
  type: "Pooling"
  bottom: "pool2/3x3_s2"
  top: "inception_3a/pool"
  pooling_param {
    pool: MAX
    kernel_size: 3
    stride: 1
    pad: 1
  }
}
layer {
  name: "inception_3a/pool_proj"
  type: "Convolution"
  bottom: "inception_3a/pool"
  top: "inception_3a/pool_proj"
  param {
    lr_mult: 1
    decay_mult: 1
  }
  param {
    lr_mult: 2
    decay_mult: 0
  }
  convolution_param {
    num_output: 32
    kernel_size: 1
    weight_filler {
      type: "xavier"
      std: 0.1
    }
    bias_filler {
      type: "constant"
      value: 0.2
    }
  }
}
layer {
  name: "inception_3a/relu_pool_proj"
  type: "ReLU"
  bottom: "inception_3a/pool_proj"
  top: "inception_3a/pool_proj"
}
layer {
  name: "inception_3a/output"
  type: "Concat"
  bottom: "inception_3a/1x1"
  bottom: "inception_3a/3x3"
  bottom: "inception_3a/5x5"
  bottom: "inception_3a/pool_proj"
  top: "inception_3a/output"
}
layer {
  name: "inception_3b/1x1"
  type: "Convolution"
  bottom: "inception_3a/output"
  top: "inception_3b/1x1"
  param {
    lr_mult: 1
    decay_mult: 1
  }
  param {
    lr_mult: 2
    decay_mult: 0
  }
  convolution_param {
    num_output: 128
    kernel_size: 1
    weight_filler {
      type: "xavier"
      std: 0.03
    }
    bias_filler {
      type: "constant"
      value: 0.2
    }
  }
}
layer {
  name: "inception_3b/relu_1x1"
  type: "ReLU"
  bottom: "inception_3b/1x1"
  top: "inception_3b/1x1"
}
layer {
  name: "inception_3b/3x3_reduce"
  type: "Convolution"
  bottom: "inception_3a/output"
  top: "inception_3b/3x3_reduce"
  param {
    lr_mult: 1
    decay_mult: 1
  }
  param {
    lr_mult: 2
    decay_mult: 0
  }
  convolution_param {
    num_output: 128
    kernel_size: 1
    weight_filler {
      type: "xavier"
      std: 0.09
    }
    bias_filler {
      type: "constant"
      value: 0.2
    }
  }
}
layer {
  name: "inception_3b/relu_3x3_reduce"
  type: "ReLU"
  bottom: "inception_3b/3x3_reduce"
  top: "inception_3b/3x3_reduce"
}
layer {
  name: "inception_3b/3x3"
  type: "Convolution"
  bottom: "inception_3b/3x3_reduce"
  top: "inception_3b/3x3"
  param {
    lr_mult: 1
    decay_mult: 1
  }
  param {
    lr_mult: 2
    decay_mult: 0
  }
  convolution_param {
    num_output: 192
    pad: 1
    kernel_size: 3
    weight_filler {
      type: "xavier"
      std: 0.03
    }
    bias_filler {
      type: "constant"
      value: 0.2
    }
  }
}
layer {
  name: "inception_3b/relu_3x3"
  type: "ReLU"
  bottom: "inception_3b/3x3"
  top: "inception_3b/3x3"
}
layer {
  name: "inception_3b/5x5_reduce"
  type: "Convolution"
  bottom: "inception_3a/output"
  top: "inception_3b/5x5_reduce"
  param {
    lr_mult: 1
    decay_mult: 1
  }
  param {
    lr_mult: 2
    decay_mult: 0
  }
  convolution_param {
    num_output: 32
    kernel_size: 1
    weight_filler {
      type: "xavier"
      std: 0.2
    }
    bias_filler {
      type: "constant"
      value: 0.2
    }
  }
}
layer {
  name: "inception_3b/relu_5x5_reduce"
  type: "ReLU"
  bottom: "inception_3b/5x5_reduce"
  top: "inception_3b/5x5_reduce"
}
layer {
  name: "inception_3b/5x5"
  type: "Convolution"
  bottom: "inception_3b/5x5_reduce"
  top: "inception_3b/5x5"
  param {
    lr_mult: 1
    decay_mult: 1
  }
  param {
    lr_mult: 2
    decay_mult: 0
  }
  convolution_param {
    num_output: 96
    pad: 2
    kernel_size: 5
    weight_filler {
      type: "xavier"
      std: 0.03
    }
    bias_filler {
      type: "constant"
      value: 0.2
    }
  }
}
layer {
  name: "inception_3b/relu_5x5"
  type: "ReLU"
  bottom: "inception_3b/5x5"
  top: "inception_3b/5x5"
}
layer {
  name: "inception_3b/pool"
  type: "Pooling"
  bottom: "inception_3a/output"
  top: "inception_3b/pool"
  pooling_param {
    pool: MAX
    kernel_size: 3
    stride: 1
    pad: 1
  }
}
layer {
  name: "inception_3b/pool_proj"
  type: "Convolution"
  bottom: "inception_3b/pool"
  top: "inception_3b/pool_proj"
  param {
    lr_mult: 1
    decay_mult: 1
  }
  param {
    lr_mult: 2
    decay_mult: 0
  }
  convolution_param {
    num_output: 64
    kernel_size: 1
    weight_filler {
      type: "xavier"
      std: 0.1
    }
    bias_filler {
      type: "constant"
      value: 0.2
    }
  }
}
layer {
  name: "inception_3b/relu_pool_proj"
  type: "ReLU"
  bottom: "inception_3b/pool_proj"
  top: "inception_3b/pool_proj"
}
layer {
  name: "inception_3b/output"
  type: "Concat"
  bottom: "inception_3b/1x1"
  bottom: "inception_3b/3x3"
  bottom: "inception_3b/5x5"
  bottom: "inception_3b/pool_proj"
  top: "inception_3b/output"
}
layer {
  name: "pool3/3x3_s2"
  type: "Pooling"
  bottom: "inception_3b/output"
  top: "pool3/3x3_s2"
  pooling_param {
    pool: MAX
    kernel_size: 3
    stride: 2
  }
}
layer {
  name: "inception_4a/1x1"
  type: "Convolution"
  bottom: "pool3/3x3_s2"
  top: "inception_4a/1x1"
  param {
    lr_mult: 1
    decay_mult: 1
  }
  param {
    lr_mult: 2
    decay_mult: 0
  }
  convolution_param {
    num_output: 192
    kernel_size: 1
    weight_filler {
      type: "xavier"
      std: 0.03
    }
    bias_filler {
      type: "constant"
      value: 0.2
    }
  }
}
layer {
  name: "inception_4a/relu_1x1"
  type: "ReLU"
  bottom: "inception_4a/1x1"
  top: "inception_4a/1x1"
}
layer {
  name: "inception_4a/3x3_reduce"
  type: "Convolution"
  bottom: "pool3/3x3_s2"
  top: "inception_4a/3x3_reduce"
  param {
    lr_mult: 1
    decay_mult: 1
  }
  param {
    lr_mult: 2
    decay_mult: 0
  }
  convolution_param {
    num_output: 96
    kernel_size: 1
    weight_filler {
      type: "xavier"
      std: 0.09
    }
    bias_filler {
      type: "constant"
      value: 0.2
    }
  }
}
layer {
  name: "inception_4a/relu_3x3_reduce"
  type: "ReLU"
  bottom: "inception_4a/3x3_reduce"
  top: "inception_4a/3x3_reduce"
}
layer {
  name: "inception_4a/3x3"
  type: "Convolution"
  bottom: "inception_4a/3x3_reduce"
  top: "inception_4a/3x3"
  param {
    lr_mult: 1
    decay_mult: 1
  }
  param {
    lr_mult: 2
    decay_mult: 0
  }
  convolution_param {
    num_output: 208
    pad: 1
    kernel_size: 3
    weight_filler {
      type: "xavier"
      std: 0.03
    }
    bias_filler {
      type: "constant"
      value: 0.2
    }
  }
}
layer {
  name: "inception_4a/relu_3x3"
  type: "ReLU"
  bottom: "inception_4a/3x3"
  top: "inception_4a/3x3"
}
layer {
  name: "inception_4a/5x5_reduce"
  type: "Convolution"
  bottom: "pool3/3x3_s2"
  top: "inception_4a/5x5_reduce"
  param {
    lr_mult: 1
    decay_mult: 1
  }
  param {
    lr_mult: 2
    decay_mult: 0
  }
  convolution_param {
    num_output: 16
    kernel_size: 1
    weight_filler {
      type: "xavier"
      std: 0.2
    }
    bias_filler {
      type: "constant"
      value: 0.2
    }
  }
}
layer {
  name: "inception_4a/relu_5x5_reduce"
  type: "ReLU"
  bottom: "inception_4a/5x5_reduce"
  top: "inception_4a/5x5_reduce"
}
layer {
  name: "inception_4a/5x5"
  type: "Convolution"
  bottom: "inception_4a/5x5_reduce"
  top: "inception_4a/5x5"
  param {
    lr_mult: 1
    decay_mult: 1
  }
  param {
    lr_mult: 2
    decay_mult: 0
  }
  convolution_param {
    num_output: 48
    pad: 2
    kernel_size: 5
    weight_filler {
      type: "xavier"
      std: 0.03
    }
    bias_filler {
      type: "constant"
      value: 0.2
    }
  }
}
layer {
  name: "inception_4a/relu_5x5"
  type: "ReLU"
  bottom: "inception_4a/5x5"
  top: "inception_4a/5x5"
}
layer {
  name: "inception_4a/pool"
  type: "Pooling"
  bottom: "pool3/3x3_s2"
  top: "inception_4a/pool"
  pooling_param {
    pool: MAX
    kernel_size: 3
    stride: 1
    pad: 1
  }
}
layer {
  name: "inception_4a/pool_proj"
  type: "Convolution"
  bottom: "inception_4a/pool"
  top: "inception_4a/pool_proj"
  param {
    lr_mult: 1
    decay_mult: 1
  }
  param {
    lr_mult: 2
    decay_mult: 0
  }
  convolution_param {
    num_output: 64
    kernel_size: 1
    weight_filler {
      type: "xavier"
      std: 0.1
    }
    bias_filler {
      type: "constant"
      value: 0.2
    }
  }
}
layer {
  name: "inception_4a/relu_pool_proj"
  type: "ReLU"
  bottom: "inception_4a/pool_proj"
  top: "inception_4a/pool_proj"
}
layer {
  name: "inception_4a/output"
  type: "Concat"
  bottom: "inception_4a/1x1"
  bottom: "inception_4a/3x3"
  bottom: "inception_4a/5x5"
  bottom: "inception_4a/pool_proj"
  top: "inception_4a/output"
}
layer {
  name: "loss1/ave_pool"
  type: "Pooling"
  bottom: "inception_4a/output"
  top: "loss1/ave_pool"
  pooling_param {
    pool: AVE
    kernel_size: 5
    stride: 3
  }
}
layer {
  name: "loss1/conv"
  type: "Convolution"
  bottom: "loss1/ave_pool"
  top: "loss1/conv"
  param {
    lr_mult: 1
    decay_mult: 1
  }
  param {
    lr_mult: 2
    decay_mult: 0
  }
  convolution_param {
    num_output: 128
    kernel_size: 1
    weight_filler {
      type: "xavier"
      std: 0.08
    }
    bias_filler {
      type: "constant"
      value: 0.2
    }
  }
}
layer {
  name: "loss1/relu_conv"
  type: "ReLU"
  bottom: "loss1/conv"
  top: "loss1/conv"
}
layer {
  name: "loss1/fc"
  type: "InnerProduct"
  bottom: "loss1/conv"
  top: "loss1/fc"
  param {
    lr_mult: 1
    decay_mult: 1
  }
  param {
    lr_mult: 2
    decay_mult: 0
  }
  inner_product_param {
    num_output: 1024
    weight_filler {
      type: "xavier"
      std: 0.02
    }
    bias_filler {
      type: "constant"
      value: 0.2
    }
  }
}
layer {
  name: "loss1/relu_fc"
  type: "ReLU"
  bottom: "loss1/fc"
  top: "loss1/fc"
}
layer {
  name: "loss1/drop_fc"
  type: "Dropout"
  bottom: "loss1/fc"
  top: "loss1/fc"
  dropout_param {
    dropout_ratio: 0.7
  }
}
layer {
  name: "loss1/classifier_plantvillage"
  type: "InnerProduct"
  bottom: "loss1/fc"
  top: "loss1/classifier_plantvillage"
  param {
    lr_mult: 1
    decay_mult: 1
  }
  param {
    lr_mult: 2
    decay_mult: 0
  }
  inner_product_param {
    num_output: 38
    weight_filler {
      type: "xavier"
      std: 0.0009765625
    }
    bias_filler {
      type: "constant"
      value: 0
    }
  }
}
layer {
  name: "inception_4b/1x1"
  type: "Convolution"
  bottom: "inception_4a/output"
  top: "inception_4b/1x1"
  param {
    lr_mult: 1
    decay_mult: 1
  }
  param {
    lr_mult: 2
    decay_mult: 0
  }
  convolution_param {
    num_output: 160
    kernel_size: 1
    weight_filler {
      type: "xavier"
      std: 0.03
    }
    bias_filler {
      type: "constant"
      value: 0.2
    }
  }
}
layer {
  name: "inception_4b/relu_1x1"
  type: "ReLU"
  bottom: "inception_4b/1x1"
  top: "inception_4b/1x1"
}
layer {
  name: "inception_4b/3x3_reduce"
  type: "Convolution"
  bottom: "inception_4a/output"
  top: "inception_4b/3x3_reduce"
  param {
    lr_mult: 1
    decay_mult: 1
  }
  param {
    lr_mult: 2
    decay_mult: 0
  }
  convolution_param {
    num_output: 112
    kernel_size: 1
    weight_filler {
      type: "xavier"
      std: 0.09
    }
    bias_filler {
      type: "constant"
      value: 0.2
    }
  }
}
layer {
  name: "inception_4b/relu_3x3_reduce"
  type: "ReLU"
  bottom: "inception_4b/3x3_reduce"
  top: "inception_4b/3x3_reduce"
}
layer {
  name: "inception_4b/3x3"
  type: "Convolution"
  bottom: "inception_4b/3x3_reduce"
  top: "inception_4b/3x3"
  param {
    lr_mult: 1
    decay_mult: 1
  }
  param {
    lr_mult: 2
    decay_mult: 0
  }
  convolution_param {
    num_output: 224
    pad: 1
    kernel_size: 3
    weight_filler {
      type: "xavier"
      std: 0.03
    }
    bias_filler {
      type: "constant"
      value: 0.2
    }
  }
}
layer {
  name: "inception_4b/relu_3x3"
  type: "ReLU"
  bottom: "inception_4b/3x3"
  top: "inception_4b/3x3"
}
layer {
  name: "inception_4b/5x5_reduce"
  type: "Convolution"
  bottom: "inception_4a/output"
  top: "inception_4b/5x5_reduce"
  param {
    lr_mult: 1
    decay_mult: 1
  }
  param {
    lr_mult: 2
    decay_mult: 0
  }
  convolution_param {
    num_output: 24
    kernel_size: 1
    weight_filler {
      type: "xavier"
      std: 0.2
    }
    bias_filler {
      type: "constant"
      value: 0.2
    }
  }
}
layer {
  name: "inception_4b/relu_5x5_reduce"
  type: "ReLU"
  bottom: "inception_4b/5x5_reduce"
  top: "inception_4b/5x5_reduce"
}
layer {
  name: "inception_4b/5x5"
  type: "Convolution"
  bottom: "inception_4b/5x5_reduce"
  top: "inception_4b/5x5"
  param {
    lr_mult: 1
    decay_mult: 1
  }
  param {
    lr_mult: 2
    decay_mult: 0
  }
  convolution_param {
    num_output: 64
    pad: 2
    kernel_size: 5
    weight_filler {
      type: "xavier"
      std: 0.03
    }
    bias_filler {
      type: "constant"
      value: 0.2
    }
  }
}
layer {
  name: "inception_4b/relu_5x5"
  type: "ReLU"
  bottom: "inception_4b/5x5"
  top: "inception_4b/5x5"
}
layer {
  name: "inception_4b/pool"
  type: "Pooling"
  bottom: "inception_4a/output"
  top: "inception_4b/pool"
  pooling_param {
    pool: MAX
    kernel_size: 3
    stride: 1
    pad: 1
  }
}
layer {
  name: "inception_4b/pool_proj"
  type: "Convolution"
  bottom: "inception_4b/pool"
  top: "inception_4b/pool_proj"
  param {
    lr_mult: 1
    decay_mult: 1
  }
  param {
    lr_mult: 2
    decay_mult: 0
  }
  convolution_param {
    num_output: 64
    kernel_size: 1
    weight_filler {
      type: "xavier"
      std: 0.1
    }
    bias_filler {
      type: "constant"
      value: 0.2
    }
  }
}
layer {
  name: "inception_4b/relu_pool_proj"
  type: "ReLU"
  bottom: "inception_4b/pool_proj"
  top: "inception_4b/pool_proj"
}
layer {
  name: "inception_4b/output"
  type: "Concat"
  bottom: "inception_4b/1x1"
  bottom: "inception_4b/3x3"
  bottom: "inception_4b/5x5"
  bottom: "inception_4b/pool_proj"
  top: "inception_4b/output"
}
layer {
  name: "inception_4c/1x1"
  type: "Convolution"
  bottom: "inception_4b/output"
  top: "inception_4c/1x1"
  param {
    lr_mult: 1
    decay_mult: 1
  }
  param {
    lr_mult: 2
    decay_mult: 0
  }
  convolution_param {
    num_output: 128
    kernel_size: 1
    weight_filler {
      type: "xavier"
      std: 0.03
    }
    bias_filler {
      type: "constant"
      value: 0.2
    }
  }
}
layer {
  name: "inception_4c/relu_1x1"
  type: "ReLU"
  bottom: "inception_4c/1x1"
  top: "inception_4c/1x1"
}
layer {
  name: "inception_4c/3x3_reduce"
  type: "Convolution"
  bottom: "inception_4b/output"
  top: "inception_4c/3x3_reduce"
  param {
    lr_mult: 1
    decay_mult: 1
  }
  param {
    lr_mult: 2
    decay_mult: 0
  }
  convolution_param {
    num_output: 128
    kernel_size: 1
    weight_filler {
      type: "xavier"
      std: 0.09
    }
    bias_filler {
      type: "constant"
      value: 0.2
    }
  }
}
layer {
  name: "inception_4c/relu_3x3_reduce"
  type: "ReLU"
  bottom: "inception_4c/3x3_reduce"
  top: "inception_4c/3x3_reduce"
}
layer {
  name: "inception_4c/3x3"
  type: "Convolution"
  bottom: "inception_4c/3x3_reduce"
  top: "inception_4c/3x3"
  param {
    lr_mult: 1
    decay_mult: 1
  }
  param {
    lr_mult: 2
    decay_mult: 0
  }
  convolution_param {
    num_output: 256
    pad: 1
    kernel_size: 3
    weight_filler {
      type: "xavier"
      std: 0.03
    }
    bias_filler {
      type: "constant"
      value: 0.2
    }
  }
}
layer {
  name: "inception_4c/relu_3x3"
  type: "ReLU"
  bottom: "inception_4c/3x3"
  top: "inception_4c/3x3"
}
layer {
  name: "inception_4c/5x5_reduce"
  type: "Convolution"
  bottom: "inception_4b/output"
  top: "inception_4c/5x5_reduce"
  param {
    lr_mult: 1
    decay_mult: 1
  }
  param {
    lr_mult: 2
    decay_mult: 0
  }
  convolution_param {
    num_output: 24
    kernel_size: 1
    weight_filler {
      type: "xavier"
      std: 0.2
    }
    bias_filler {
      type: "constant"
      value: 0.2
    }
  }
}
layer {
  name: "inception_4c/relu_5x5_reduce"
  type: "ReLU"
  bottom: "inception_4c/5x5_reduce"
  top: "inception_4c/5x5_reduce"
}
layer {
  name: "inception_4c/5x5"
  type: "Convolution"
  bottom: "inception_4c/5x5_reduce"
  top: "inception_4c/5x5"
  param {
    lr_mult: 1
    decay_mult: 1
  }
  param {
    lr_mult: 2
    decay_mult: 0
  }
  convolution_param {
    num_output: 64
    pad: 2
    kernel_size: 5
    weight_filler {
      type: "xavier"
      std: 0.03
    }
    bias_filler {
      type: "constant"
      value: 0.2
    }
  }
}
layer {
  name: "inception_4c/relu_5x5"
  type: "ReLU"
  bottom: "inception_4c/5x5"
  top: "inception_4c/5x5"
}
layer {
  name: "inception_4c/pool"
  type: "Pooling"
  bottom: "inception_4b/output"
  top: "inception_4c/pool"
  pooling_param {
    pool: MAX
    kernel_size: 3
    stride: 1
    pad: 1
  }
}
layer {
  name: "inception_4c/pool_proj"
  type: "Convolution"
  bottom: "inception_4c/pool"
  top: "inception_4c/pool_proj"
  param {
    lr_mult: 1
    decay_mult: 1
  }
  param {
    lr_mult: 2
    decay_mult: 0
  }
  convolution_param {
    num_output: 64
    kernel_size: 1
    weight_filler {
      type: "xavier"
      std: 0.1
    }
    bias_filler {
      type: "constant"
      value: 0.2
    }
  }
}
layer {
  name: "inception_4c/relu_pool_proj"
  type: "ReLU"
  bottom: "inception_4c/pool_proj"
  top: "inception_4c/pool_proj"
}
layer {
  name: "inception_4c/output"
  type: "Concat"
  bottom: "inception_4c/1x1"
  bottom: "inception_4c/3x3"
  bottom: "inception_4c/5x5"
  bottom: "inception_4c/pool_proj"
  top: "inception_4c/output"
}
layer {
  name: "inception_4d/1x1"
  type: "Convolution"
  bottom: "inception_4c/output"
  top: "inception_4d/1x1"
  param {
    lr_mult: 1
    decay_mult: 1
  }
  param {
    lr_mult: 2
    decay_mult: 0
  }
  convolution_param {
    num_output: 112
    kernel_size: 1
    weight_filler {
      type: "xavier"
      std: 0.03
    }
    bias_filler {
      type: "constant"
      value: 0.2
    }
  }
}
layer {
  name: "inception_4d/relu_1x1"
  type: "ReLU"
  bottom: "inception_4d/1x1"
  top: "inception_4d/1x1"
}
layer {
  name: "inception_4d/3x3_reduce"
  type: "Convolution"
  bottom: "inception_4c/output"
  top: "inception_4d/3x3_reduce"
  param {
    lr_mult: 1
    decay_mult: 1
  }
  param {
    lr_mult: 2
    decay_mult: 0
  }
  convolution_param {
    num_output: 144
    kernel_size: 1
    weight_filler {
      type: "xavier"
      std: 0.09
    }
    bias_filler {
      type: "constant"
      value: 0.2
    }
  }
}
layer {
  name: "inception_4d/relu_3x3_reduce"
  type: "ReLU"
  bottom: "inception_4d/3x3_reduce"
  top: "inception_4d/3x3_reduce"
}
layer {
  name: "inception_4d/3x3"
  type: "Convolution"
  bottom: "inception_4d/3x3_reduce"
  top: "inception_4d/3x3"
  param {
    lr_mult: 1
    decay_mult: 1
  }
  param {
    lr_mult: 2
    decay_mult: 0
  }
  convolution_param {
    num_output: 288
    pad: 1
    kernel_size: 3
    weight_filler {
      type: "xavier"
      std: 0.03
    }
    bias_filler {
      type: "constant"
      value: 0.2
    }
  }
}
layer {
  name: "inception_4d/relu_3x3"
  type: "ReLU"
  bottom: "inception_4d/3x3"
  top: "inception_4d/3x3"
}
layer {
  name: "inception_4d/5x5_reduce"
  type: "Convolution"
  bottom: "inception_4c/output"
  top: "inception_4d/5x5_reduce"
  param {
    lr_mult: 1
    decay_mult: 1
  }
  param {
    lr_mult: 2
    decay_mult: 0
  }
  convolution_param {
    num_output: 32
    kernel_size: 1
    weight_filler {
      type: "xavier"
      std: 0.2
    }
    bias_filler {
      type: "constant"
      value: 0.2
    }
  }
}
layer {
  name: "inception_4d/relu_5x5_reduce"
  type: "ReLU"
  bottom: "inception_4d/5x5_reduce"
  top: "inception_4d/5x5_reduce"
}
layer {
  name: "inception_4d/5x5"
  type: "Convolution"
  bottom: "inception_4d/5x5_reduce"
  top: "inception_4d/5x5"
  param {
    lr_mult: 1
    decay_mult: 1
  }
  param {
    lr_mult: 2
    decay_mult: 0
  }
  convolution_param {
    num_output: 64
    pad: 2
    kernel_size: 5
    weight_filler {
      type: "xavier"
      std: 0.03
    }
    bias_filler {
      type: "constant"
      value: 0.2
    }
  }
}
layer {
  name: "inception_4d/relu_5x5"
  type: "ReLU"
  bottom: "inception_4d/5x5"
  top: "inception_4d/5x5"
}
layer {
  name: "inception_4d/pool"
  type: "Pooling"
  bottom: "inception_4c/output"
  top: "inception_4d/pool"
  pooling_param {
    pool: MAX
    kernel_size: 3
    stride: 1
    pad: 1
  }
}
layer {
  name: "inception_4d/pool_proj"
  type: "Convolution"
  bottom: "inception_4d/pool"
  top: "inception_4d/pool_proj"
  param {
    lr_mult: 1
    decay_mult: 1
  }
  param {
    lr_mult: 2
    decay_mult: 0
  }
  convolution_param {
    num_output: 64
    kernel_size: 1
    weight_filler {
      type: "xavier"
      std: 0.1
    }
    bias_filler {
      type: "constant"
      value: 0.2
    }
  }
}
layer {
  name: "inception_4d/relu_pool_proj"
  type: "ReLU"
  bottom: "inception_4d/pool_proj"
  top: "inception_4d/pool_proj"
}
layer {
  name: "inception_4d/output"
  type: "Concat"
  bottom: "inception_4d/1x1"
  bottom: "inception_4d/3x3"
  bottom: "inception_4d/5x5"
  bottom: "inception_4d/pool_proj"
  top: "inception_4d/output"
}
layer {
  name: "loss2/ave_pool"
  type: "Pooling"
  bottom: "inception_4d/output"
  top: "loss2/ave_pool"
  pooling_param {
    pool: AVE
    kernel_size: 5
    stride: 3
  }
}
layer {
  name: "loss2/conv"
  type: "Convolution"
  bottom: "loss2/ave_pool"
  top: "loss2/conv"
  param {
    lr_mult: 1
    decay_mult: 1
  }
  param {
    lr_mult: 2
    decay_mult: 0
  }
  convolution_param {
    num_output: 128
    kernel_size: 1
    weight_filler {
      type: "xavier"
      std: 0.08
    }
    bias_filler {
      type: "constant"
      value: 0.2
    }
  }
}
layer {
  name: "loss2/relu_conv"
  type: "ReLU"
  bottom: "loss2/conv"
  top: "loss2/conv"
}
layer {
  name: "loss2/fc"
  type: "InnerProduct"
  bottom: "loss2/conv"
  top: "loss2/fc"
  param {
    lr_mult: 1
    decay_mult: 1
  }
  param {
    lr_mult: 2
    decay_mult: 0
  }
  inner_product_param {
    num_output: 1024
    weight_filler {
      type: "xavier"
      std: 0.02
    }
    bias_filler {
      type: "constant"
      value: 0.2
    }
  }
}
layer {
  name: "loss2/relu_fc"
  type: "ReLU"
  bottom: "loss2/fc"
  top: "loss2/fc"
}
layer {
  name: "loss2/drop_fc"
  type: "Dropout"
  bottom: "loss2/fc"
  top: "loss2/fc"
  dropout_param {
    dropout_ratio: 0.7
  }
}
layer {
  name: "loss2/classifier_plantvillage"
  type: "InnerProduct"
  bottom: "loss2/fc"
  top: "loss2/classifier_plantvillage"
  param {
    lr_mult: 1
    decay_mult: 1
  }
  param {
    lr_mult: 2
    decay_mult: 0
  }
  inner_product_param {
    num_output: 38
    weight_filler {
      type: "xavier"
      std: 0.0009765625
    }
    bias_filler {
      type: "constant"
      value: 0
    }
  }
}
layer {
  name: "inception_4e/1x1"
  type: "Convolution"
  bottom: "inception_4d/output"
  top: "inception_4e/1x1"
  param {
    lr_mult: 1
    decay_mult: 1
  }
  param {
    lr_mult: 2
    decay_mult: 0
  }
  convolution_param {
    num_output: 256
    kernel_size: 1
    weight_filler {
      type: "xavier"
      std: 0.03
    }
    bias_filler {
      type: "constant"
      value: 0.2
    }
  }
}
layer {
  name: "inception_4e/relu_1x1"
  type: "ReLU"
  bottom: "inception_4e/1x1"
  top: "inception_4e/1x1"
}
layer {
  name: "inception_4e/3x3_reduce"
  type: "Convolution"
  bottom: "inception_4d/output"
  top: "inception_4e/3x3_reduce"
  param {
    lr_mult: 1
    decay_mult: 1
  }
  param {
    lr_mult: 2
    decay_mult: 0
  }
  convolution_param {
    num_output: 160
    kernel_size: 1
    weight_filler {
      type: "xavier"
      std: 0.09
    }
    bias_filler {
      type: "constant"
      value: 0.2
    }
  }
}
layer {
  name: "inception_4e/relu_3x3_reduce"
  type: "ReLU"
  bottom: "inception_4e/3x3_reduce"
  top: "inception_4e/3x3_reduce"
}
layer {
  name: "inception_4e/3x3"
  type: "Convolution"
  bottom: "inception_4e/3x3_reduce"
  top: "inception_4e/3x3"
  param {
    lr_mult: 1
    decay_mult: 1
  }
  param {
    lr_mult: 2
    decay_mult: 0
  }
  convolution_param {
    num_output: 320
    pad: 1
    kernel_size: 3
    weight_filler {
      type: "xavier"
      std: 0.03
    }
    bias_filler {
      type: "constant"
      value: 0.2
    }
  }
}
layer {
  name: "inception_4e/relu_3x3"
  type: "ReLU"
  bottom: "inception_4e/3x3"
  top: "inception_4e/3x3"
}
layer {
  name: "inception_4e/5x5_reduce"
  type: "Convolution"
  bottom: "inception_4d/output"
  top: "inception_4e/5x5_reduce"
  param {
    lr_mult: 1
    decay_mult: 1
  }
  param {
    lr_mult: 2
    decay_mult: 0
  }
  convolution_param {
    num_output: 32
    kernel_size: 1
    weight_filler {
      type: "xavier"
      std: 0.2
    }
    bias_filler {
      type: "constant"
      value: 0.2
    }
  }
}
layer {
  name: "inception_4e/relu_5x5_reduce"
  type: "ReLU"
  bottom: "inception_4e/5x5_reduce"
  top: "inception_4e/5x5_reduce"
}
layer {
  name: "inception_4e/5x5"
  type: "Convolution"
  bottom: "inception_4e/5x5_reduce"
  top: "inception_4e/5x5"
  p
I0403 14:27:10.731567 29725 layer_factory.hpp:77] Creating layer data
I0403 14:27:10.732187 29725 net.cpp:91] Creating Layer data
I0403 14:27:10.732221 29725 net.cpp:399] data -> data
I0403 14:27:10.732275 29725 net.cpp:399] data -> label
I0403 14:27:10.732316 29725 data_transformer.cpp:25] Loading mean file from: /home/mohanty/data/final_dataset/lmdb/color-20-80/mean.binaryproto
I0403 14:27:10.734665 29731 db_lmdb.cpp:38] Opened lmdb /home/mohanty/data/final_dataset/lmdb/color-20-80/test_db
I0403 14:27:10.745707 29725 data_layer.cpp:41] output data size: 24,3,224,224
I0403 14:27:10.773313 29725 net.cpp:141] Setting up data
I0403 14:27:10.773413 29725 net.cpp:148] Top shape: 24 3 224 224 (3612672)
I0403 14:27:10.773438 29725 net.cpp:148] Top shape: 24 (24)
I0403 14:27:10.773455 29725 net.cpp:156] Memory required for data: 14450784
I0403 14:27:10.773485 29725 layer_factory.hpp:77] Creating layer label_data_1_split
I0403 14:27:10.773514 29725 net.cpp:91] Creating Layer label_data_1_split
I0403 14:27:10.773533 29725 net.cpp:425] label_data_1_split <- label
I0403 14:27:10.773566 29725 net.cpp:399] label_data_1_split -> label_data_1_split_0
I0403 14:27:10.773597 29725 net.cpp:399] label_data_1_split -> label_data_1_split_1
I0403 14:27:10.773619 29725 net.cpp:399] label_data_1_split -> label_data_1_split_2
I0403 14:27:10.773641 29725 net.cpp:399] label_data_1_split -> label_data_1_split_3
I0403 14:27:10.773663 29725 net.cpp:399] label_data_1_split -> label_data_1_split_4
I0403 14:27:10.773684 29725 net.cpp:399] label_data_1_split -> label_data_1_split_5
I0403 14:27:10.773705 29725 net.cpp:399] label_data_1_split -> label_data_1_split_6
I0403 14:27:10.773727 29725 net.cpp:399] label_data_1_split -> label_data_1_split_7
I0403 14:27:10.773751 29725 net.cpp:399] label_data_1_split -> label_data_1_split_8
I0403 14:27:10.773772 29725 net.cpp:399] label_data_1_split -> label_data_1_split_9
I0403 14:27:10.773893 29725 net.cpp:141] Setting up label_data_1_split
I0403 14:27:10.773919 29725 net.cpp:148] Top shape: 24 (24)
I0403 14:27:10.773938 29725 net.cpp:148] Top shape: 24 (24)
I0403 14:27:10.773955 29725 net.cpp:148] Top shape: 24 (24)
I0403 14:27:10.773972 29725 net.cpp:148] Top shape: 24 (24)
I0403 14:27:10.773989 29725 net.cpp:148] Top shape: 24 (24)
I0403 14:27:10.774006 29725 net.cpp:148] Top shape: 24 (24)
I0403 14:27:10.774024 29725 net.cpp:148] Top shape: 24 (24)
I0403 14:27:10.774040 29725 net.cpp:148] Top shape: 24 (24)
I0403 14:27:10.774057 29725 net.cpp:148] Top shape: 24 (24)
I0403 14:27:10.774075 29725 net.cpp:148] Top shape: 24 (24)
I0403 14:27:10.774121 29725 net.cpp:156] Memory required for data: 14451744
I0403 14:27:10.774138 29725 layer_factory.hpp:77] Creating layer conv1/7x7_s2
I0403 14:27:10.774173 29725 net.cpp:91] Creating Layer conv1/7x7_s2
I0403 14:27:10.774193 29725 net.cpp:425] conv1/7x7_s2 <- data
I0403 14:27:10.774214 29725 net.cpp:399] conv1/7x7_s2 -> conv1/7x7_s2
I0403 14:27:10.919286 29725 net.cpp:141] Setting up conv1/7x7_s2
I0403 14:27:10.919368 29725 net.cpp:148] Top shape: 24 64 112 112 (19267584)
I0403 14:27:10.919389 29725 net.cpp:156] Memory required for data: 91522080
I0403 14:27:10.919420 29725 layer_factory.hpp:77] Creating layer conv1/relu_7x7
I0403 14:27:10.919450 29725 net.cpp:91] Creating Layer conv1/relu_7x7
I0403 14:27:10.919471 29725 net.cpp:425] conv1/relu_7x7 <- conv1/7x7_s2
I0403 14:27:10.919492 29725 net.cpp:386] conv1/relu_7x7 -> conv1/7x7_s2 (in-place)
I0403 14:27:10.919756 29725 net.cpp:141] Setting up conv1/relu_7x7
I0403 14:27:10.919785 29725 net.cpp:148] Top shape: 24 64 112 112 (19267584)
I0403 14:27:10.919802 29725 net.cpp:156] Memory required for data: 168592416
I0403 14:27:10.919821 29725 layer_factory.hpp:77] Creating layer pool1/3x3_s2
I0403 14:27:10.919848 29725 net.cpp:91] Creating Layer pool1/3x3_s2
I0403 14:27:10.919868 29725 net.cpp:425] pool1/3x3_s2 <- conv1/7x7_s2
I0403 14:27:10.919888 29725 net.cpp:399] pool1/3x3_s2 -> pool1/3x3_s2
I0403 14:27:10.919965 29725 net.cpp:141] Setting up pool1/3x3_s2
I0403 14:27:10.919991 29725 net.cpp:148] Top shape: 24 64 56 56 (4816896)
I0403 14:27:10.920008 29725 net.cpp:156] Memory required for data: 187860000
I0403 14:27:10.920025 29725 layer_factory.hpp:77] Creating layer pool1/norm1
I0403 14:27:10.920052 29725 net.cpp:91] Creating Layer pool1/norm1
I0403 14:27:10.920071 29725 net.cpp:425] pool1/norm1 <- pool1/3x3_s2
I0403 14:27:10.920091 29725 net.cpp:399] pool1/norm1 -> pool1/norm1
I0403 14:27:10.920441 29725 net.cpp:141] Setting up pool1/norm1
I0403 14:27:10.920472 29725 net.cpp:148] Top shape: 24 64 56 56 (4816896)
I0403 14:27:10.920490 29725 net.cpp:156] Memory required for data: 207127584
I0403 14:27:10.920507 29725 layer_factory.hpp:77] Creating layer conv2/3x3_reduce
I0403 14:27:10.920532 29725 net.cpp:91] Creating Layer conv2/3x3_reduce
I0403 14:27:10.920550 29725 net.cpp:425] conv2/3x3_reduce <- pool1/norm1
I0403 14:27:10.920572 29725 net.cpp:399] conv2/3x3_reduce -> conv2/3x3_reduce
I0403 14:27:10.921972 29725 net.cpp:141] Setting up conv2/3x3_reduce
I0403 14:27:10.922005 29725 net.cpp:148] Top shape: 24 64 56 56 (4816896)
I0403 14:27:10.922024 29725 net.cpp:156] Memory required for data: 226395168
I0403 14:27:10.922049 29725 layer_factory.hpp:77] Creating layer conv2/relu_3x3_reduce
I0403 14:27:10.922072 29725 net.cpp:91] Creating Layer conv2/relu_3x3_reduce
I0403 14:27:10.922089 29725 net.cpp:425] conv2/relu_3x3_reduce <- conv2/3x3_reduce
I0403 14:27:10.922111 29725 net.cpp:386] conv2/relu_3x3_reduce -> conv2/3x3_reduce (in-place)
I0403 14:27:10.922421 29725 net.cpp:141] Setting up conv2/relu_3x3_reduce
I0403 14:27:10.922453 29725 net.cpp:148] Top shape: 24 64 56 56 (4816896)
I0403 14:27:10.922471 29725 net.cpp:156] Memory required for data: 245662752
I0403 14:27:10.922487 29725 layer_factory.hpp:77] Creating layer conv2/3x3
I0403 14:27:10.922513 29725 net.cpp:91] Creating Layer conv2/3x3
I0403 14:27:10.922533 29725 net.cpp:425] conv2/3x3 <- conv2/3x3_reduce
I0403 14:27:10.922554 29725 net.cpp:399] conv2/3x3 -> conv2/3x3
I0403 14:27:10.924993 29725 net.cpp:141] Setting up conv2/3x3
I0403 14:27:10.925029 29725 net.cpp:148] Top shape: 24 192 56 56 (14450688)
I0403 14:27:10.925047 29725 net.cpp:156] Memory required for data: 303465504
I0403 14:27:10.925071 29725 layer_factory.hpp:77] Creating layer conv2/relu_3x3
I0403 14:27:10.925092 29725 net.cpp:91] Creating Layer conv2/relu_3x3
I0403 14:27:10.925110 29725 net.cpp:425] conv2/relu_3x3 <- conv2/3x3
I0403 14:27:10.925132 29725 net.cpp:386] conv2/relu_3x3 -> conv2/3x3 (in-place)
I0403 14:27:10.925318 29725 net.cpp:141] Setting up conv2/relu_3x3
I0403 14:27:10.925350 29725 net.cpp:148] Top shape: 24 192 56 56 (14450688)
I0403 14:27:10.925386 29725 net.cpp:156] Memory required for data: 361268256
I0403 14:27:10.925405 29725 layer_factory.hpp:77] Creating layer conv2/norm2
I0403 14:27:10.925428 29725 net.cpp:91] Creating Layer conv2/norm2
I0403 14:27:10.925446 29725 net.cpp:425] conv2/norm2 <- conv2/3x3
I0403 14:27:10.925465 29725 net.cpp:399] conv2/norm2 -> conv2/norm2
I0403 14:27:10.925848 29725 net.cpp:141] Setting up conv2/norm2
I0403 14:27:10.925879 29725 net.cpp:148] Top shape: 24 192 56 56 (14450688)
I0403 14:27:10.925896 29725 net.cpp:156] Memory required for data: 419071008
I0403 14:27:10.925914 29725 layer_factory.hpp:77] Creating layer pool2/3x3_s2
I0403 14:27:10.925935 29725 net.cpp:91] Creating Layer pool2/3x3_s2
I0403 14:27:10.925956 29725 net.cpp:425] pool2/3x3_s2 <- conv2/norm2
I0403 14:27:10.925976 29725 net.cpp:399] pool2/3x3_s2 -> pool2/3x3_s2
I0403 14:27:10.926033 29725 net.cpp:141] Setting up pool2/3x3_s2
I0403 14:27:10.926059 29725 net.cpp:148] Top shape: 24 192 28 28 (3612672)
I0403 14:27:10.926075 29725 net.cpp:156] Memory required for data: 433521696
I0403 14:27:10.926092 29725 layer_factory.hpp:77] Creating layer pool2/3x3_s2_pool2/3x3_s2_0_split
I0403 14:27:10.926111 29725 net.cpp:91] Creating Layer pool2/3x3_s2_pool2/3x3_s2_0_split
I0403 14:27:10.926128 29725 net.cpp:425] pool2/3x3_s2_pool2/3x3_s2_0_split <- pool2/3x3_s2
I0403 14:27:10.926149 29725 net.cpp:399] pool2/3x3_s2_pool2/3x3_s2_0_split -> pool2/3x3_s2_pool2/3x3_s2_0_split_0
I0403 14:27:10.926172 29725 net.cpp:399] pool2/3x3_s2_pool2/3x3_s2_0_split -> pool2/3x3_s2_pool2/3x3_s2_0_split_1
I0403 14:27:10.926194 29725 net.cpp:399] pool2/3x3_s2_pool2/3x3_s2_0_split -> pool2/3x3_s2_pool2/3x3_s2_0_split_2
I0403 14:27:10.926214 29725 net.cpp:399] pool2/3x3_s2_pool2/3x3_s2_0_split -> pool2/3x3_s2_pool2/3x3_s2_0_split_3
I0403 14:27:10.926292 29725 net.cpp:141] Setting up pool2/3x3_s2_pool2/3x3_s2_0_split
I0403 14:27:10.926318 29725 net.cpp:148] Top shape: 24 192 28 28 (3612672)
I0403 14:27:10.926337 29725 net.cpp:148] Top shape: 24 192 28 28 (3612672)
I0403 14:27:10.926358 29725 net.cpp:148] Top shape: 24 192 28 28 (3612672)
I0403 14:27:10.926376 29725 net.cpp:148] Top shape: 24 192 28 28 (3612672)
I0403 14:27:10.926393 29725 net.cpp:156] Memory required for data: 491324448
I0403 14:27:10.926409 29725 layer_factory.hpp:77] Creating layer inception_3a/1x1
I0403 14:27:10.926434 29725 net.cpp:91] Creating Layer inception_3a/1x1
I0403 14:27:10.926451 29725 net.cpp:425] inception_3a/1x1 <- pool2/3x3_s2_pool2/3x3_s2_0_split_0
I0403 14:27:10.926475 29725 net.cpp:399] inception_3a/1x1 -> inception_3a/1x1
I0403 14:27:10.928066 29725 net.cpp:141] Setting up inception_3a/1x1
I0403 14:27:10.928099 29725 net.cpp:148] Top shape: 24 64 28 28 (1204224)
I0403 14:27:10.928119 29725 net.cpp:156] Memory required for data: 496141344
I0403 14:27:10.928140 29725 layer_factory.hpp:77] Creating layer inception_3a/relu_1x1
I0403 14:27:10.928160 29725 net.cpp:91] Creating Layer inception_3a/relu_1x1
I0403 14:27:10.928179 29725 net.cpp:425] inception_3a/relu_1x1 <- inception_3a/1x1
I0403 14:27:10.928196 29725 net.cpp:386] inception_3a/relu_1x1 -> inception_3a/1x1 (in-place)
I0403 14:27:10.928388 29725 net.cpp:141] Setting up inception_3a/relu_1x1
I0403 14:27:10.928416 29725 net.cpp:148] Top shape: 24 64 28 28 (1204224)
I0403 14:27:10.928431 29725 net.cpp:156] Memory required for data: 500958240
I0403 14:27:10.928448 29725 layer_factory.hpp:77] Creating layer inception_3a/3x3_reduce
I0403 14:27:10.928473 29725 net.cpp:91] Creating Layer inception_3a/3x3_reduce
I0403 14:27:10.928493 29725 net.cpp:425] inception_3a/3x3_reduce <- pool2/3x3_s2_pool2/3x3_s2_0_split_1
I0403 14:27:10.928515 29725 net.cpp:399] inception_3a/3x3_reduce -> inception_3a/3x3_reduce
I0403 14:27:10.930286 29725 net.cpp:141] Setting up inception_3a/3x3_reduce
I0403 14:27:10.930320 29725 net.cpp:148] Top shape: 24 96 28 28 (1806336)
I0403 14:27:10.930340 29725 net.cpp:156] Memory required for data: 508183584
I0403 14:27:10.930367 29725 layer_factory.hpp:77] Creating layer inception_3a/relu_3x3_reduce
I0403 14:27:10.930407 29725 net.cpp:91] Creating Layer inception_3a/relu_3x3_reduce
I0403 14:27:10.930426 29725 net.cpp:425] inception_3a/relu_3x3_reduce <- inception_3a/3x3_reduce
I0403 14:27:10.930449 29725 net.cpp:386] inception_3a/relu_3x3_reduce -> inception_3a/3x3_reduce (in-place)
I0403 14:27:10.930640 29725 net.cpp:141] Setting up inception_3a/relu_3x3_reduce
I0403 14:27:10.930667 29725 net.cpp:148] Top shape: 24 96 28 28 (1806336)
I0403 14:27:10.930683 29725 net.cpp:156] Memory required for data: 515408928
I0403 14:27:10.930699 29725 layer_factory.hpp:77] Creating layer inception_3a/3x3
I0403 14:27:10.930726 29725 net.cpp:91] Creating Layer inception_3a/3x3
I0403 14:27:10.930745 29725 net.cpp:425] inception_3a/3x3 <- inception_3a/3x3_reduce
I0403 14:27:10.930766 29725 net.cpp:399] inception_3a/3x3 -> inception_3a/3x3
I0403 14:27:10.932500 29725 net.cpp:141] Setting up inception_3a/3x3
I0403 14:27:10.932533 29725 net.cpp:148] Top shape: 24 128 28 28 (2408448)
I0403 14:27:10.932550 29725 net.cpp:156] Memory required for data: 525042720
I0403 14:27:10.932569 29725 layer_factory.hpp:77] Creating layer inception_3a/relu_3x3
I0403 14:27:10.932590 29725 net.cpp:91] Creating Layer inception_3a/relu_3x3
I0403 14:27:10.932607 29725 net.cpp:425] inception_3a/relu_3x3 <- inception_3a/3x3
I0403 14:27:10.932629 29725 net.cpp:386] inception_3a/relu_3x3 -> inception_3a/3x3 (in-place)
I0403 14:27:10.932915 29725 net.cpp:141] Setting up inception_3a/relu_3x3
I0403 14:27:10.932945 29725 net.cpp:148] Top shape: 24 128 28 28 (2408448)
I0403 14:27:10.932961 29725 net.cpp:156] Memory required for data: 534676512
I0403 14:27:10.932977 29725 layer_factory.hpp:77] Creating layer inception_3a/5x5_reduce
I0403 14:27:10.933003 29725 net.cpp:91] Creating Layer inception_3a/5x5_reduce
I0403 14:27:10.933023 29725 net.cpp:425] inception_3a/5x5_reduce <- pool2/3x3_s2_pool2/3x3_s2_0_split_2
I0403 14:27:10.933046 29725 net.cpp:399] inception_3a/5x5_reduce -> inception_3a/5x5_reduce
I0403 14:27:10.934054 29725 net.cpp:141] Setting up inception_3a/5x5_reduce
I0403 14:27:10.934085 29725 net.cpp:148] Top shape: 24 16 28 28 (301056)
I0403 14:27:10.934103 29725 net.cpp:156] Memory required for data: 535880736
I0403 14:27:10.934124 29725 layer_factory.hpp:77] Creating layer inception_3a/relu_5x5_reduce
I0403 14:27:10.934144 29725 net.cpp:91] Creating Layer inception_3a/relu_5x5_reduce
I0403 14:27:10.934162 29725 net.cpp:425] inception_3a/relu_5x5_reduce <- inception_3a/5x5_reduce
I0403 14:27:10.934183 29725 net.cpp:386] inception_3a/relu_5x5_reduce -> inception_3a/5x5_reduce (in-place)
I0403 14:27:10.934499 29725 net.cpp:141] Setting up inception_3a/relu_5x5_reduce
I0403 14:27:10.934527 29725 net.cpp:148] Top shape: 24 16 28 28 (301056)
I0403 14:27:10.934545 29725 net.cpp:156] Memory required for data: 537084960
I0403 14:27:10.934561 29725 layer_factory.hpp:77] Creating layer inception_3a/5x5
I0403 14:27:10.934587 29725 net.cpp:91] Creating Layer inception_3a/5x5
I0403 14:27:10.934605 29725 net.cpp:425] inception_3a/5x5 <- inception_3a/5x5_reduce
I0403 14:27:10.934628 29725 net.cpp:399] inception_3a/5x5 -> inception_3a/5x5
I0403 14:27:10.935677 29725 net.cpp:141] Setting up inception_3a/5x5
I0403 14:27:10.935709 29725 net.cpp:148] Top shape: 24 32 28 28 (602112)
I0403 14:27:10.935729 29725 net.cpp:156] Memory required for data: 539493408
I0403 14:27:10.935748 29725 layer_factory.hpp:77] Creating layer inception_3a/relu_5x5
I0403 14:27:10.935768 29725 net.cpp:91] Creating Layer inception_3a/relu_5x5
I0403 14:27:10.935786 29725 net.cpp:425] inception_3a/relu_5x5 <- inception_3a/5x5
I0403 14:27:10.935804 29725 net.cpp:386] inception_3a/relu_5x5 -> inception_3a/5x5 (in-place)
I0403 14:27:10.935986 29725 net.cpp:141] Setting up inception_3a/relu_5x5
I0403 14:27:10.936014 29725 net.cpp:148] Top shape: 24 32 28 28 (602112)
I0403 14:27:10.936034 29725 net.cpp:156] Memory required for data: 541901856
I0403 14:27:10.936050 29725 layer_factory.hpp:77] Creating layer inception_3a/pool
I0403 14:27:10.936069 29725 net.cpp:91] Creating Layer inception_3a/pool
I0403 14:27:10.936086 29725 net.cpp:425] inception_3a/pool <- pool2/3x3_s2_pool2/3x3_s2_0_split_3
I0403 14:27:10.936126 29725 net.cpp:399] inception_3a/pool -> inception_3a/pool
I0403 14:27:10.936189 29725 net.cpp:141] Setting up inception_3a/pool
I0403 14:27:10.936218 29725 net.cpp:148] Top shape: 24 192 28 28 (3612672)
I0403 14:27:10.936233 29725 net.cpp:156] Memory required for data: 556352544
I0403 14:27:10.936249 29725 layer_factory.hpp:77] Creating layer inception_3a/pool_proj
I0403 14:27:10.936274 29725 net.cpp:91] Creating Layer inception_3a/pool_proj
I0403 14:27:10.936295 29725 net.cpp:425] inception_3a/pool_proj <- inception_3a/pool
I0403 14:27:10.936316 29725 net.cpp:399] inception_3a/pool_proj -> inception_3a/pool_proj
I0403 14:27:10.937316 29725 net.cpp:141] Setting up inception_3a/pool_proj
I0403 14:27:10.937357 29725 net.cpp:148] Top shape: 24 32 28 28 (602112)
I0403 14:27:10.937381 29725 net.cpp:156] Memory required for data: 558760992
I0403 14:27:10.937408 29725 layer_factory.hpp:77] Creating layer inception_3a/relu_pool_proj
I0403 14:27:10.937432 29725 net.cpp:91] Creating Layer inception_3a/relu_pool_proj
I0403 14:27:10.937448 29725 net.cpp:425] inception_3a/relu_pool_proj <- inception_3a/pool_proj
I0403 14:27:10.937469 29725 net.cpp:386] inception_3a/relu_pool_proj -> inception_3a/pool_proj (in-place)
I0403 14:27:10.937752 29725 net.cpp:141] Setting up inception_3a/relu_pool_proj
I0403 14:27:10.937785 29725 net.cpp:148] Top shape: 24 32 28 28 (602112)
I0403 14:27:10.937801 29725 net.cpp:156] Memory required for data: 561169440
I0403 14:27:10.937819 29725 layer_factory.hpp:77] Creating layer inception_3a/output
I0403 14:27:10.937839 29725 net.cpp:91] Creating Layer inception_3a/output
I0403 14:27:10.937855 29725 net.cpp:425] inception_3a/output <- inception_3a/1x1
I0403 14:27:10.937873 29725 net.cpp:425] inception_3a/output <- inception_3a/3x3
I0403 14:27:10.937891 29725 net.cpp:425] inception_3a/output <- inception_3a/5x5
I0403 14:27:10.937907 29725 net.cpp:425] inception_3a/output <- inception_3a/pool_proj
I0403 14:27:10.937925 29725 net.cpp:399] inception_3a/output -> inception_3a/output
I0403 14:27:10.937976 29725 net.cpp:141] Setting up inception_3a/output
I0403 14:27:10.938004 29725 net.cpp:148] Top shape: 24 256 28 28 (4816896)
I0403 14:27:10.938020 29725 net.cpp:156] Memory required for data: 580437024
I0403 14:27:10.938036 29725 layer_factory.hpp:77] Creating layer inception_3a/output_inception_3a/output_0_split
I0403 14:27:10.938057 29725 net.cpp:91] Creating Layer inception_3a/output_inception_3a/output_0_split
I0403 14:27:10.938074 29725 net.cpp:425] inception_3a/output_inception_3a/output_0_split <- inception_3a/output
I0403 14:27:10.938092 29725 net.cpp:399] inception_3a/output_inception_3a/output_0_split -> inception_3a/output_inception_3a/output_0_split_0
I0403 14:27:10.938113 29725 net.cpp:399] inception_3a/output_inception_3a/output_0_split -> inception_3a/output_inception_3a/output_0_split_1
I0403 14:27:10.938139 29725 net.cpp:399] inception_3a/output_inception_3a/output_0_split -> inception_3a/output_inception_3a/output_0_split_2
I0403 14:27:10.938163 29725 net.cpp:399] inception_3a/output_inception_3a/output_0_split -> inception_3a/output_inception_3a/output_0_split_3
I0403 14:27:10.938241 29725 net.cpp:141] Setting up inception_3a/output_inception_3a/output_0_split
I0403 14:27:10.938267 29725 net.cpp:148] Top shape: 24 256 28 28 (4816896)
I0403 14:27:10.938285 29725 net.cpp:148] Top shape: 24 256 28 28 (4816896)
I0403 14:27:10.938302 29725 net.cpp:148] Top shape: 24 256 28 28 (4816896)
I0403 14:27:10.938318 29725 net.cpp:148] Top shape: 24 256 28 28 (4816896)
I0403 14:27:10.938334 29725 net.cpp:156] Memory required for data: 657507360
I0403 14:27:10.938354 29725 layer_factory.hpp:77] Creating layer inception_3b/1x1
I0403 14:27:10.938383 29725 net.cpp:91] Creating Layer inception_3b/1x1
I0403 14:27:10.938405 29725 net.cpp:425] inception_3b/1x1 <- inception_3a/output_inception_3a/output_0_split_0
I0403 14:27:10.938424 29725 net.cpp:399] inception_3b/1x1 -> inception_3b/1x1
I0403 14:27:10.939610 29725 net.cpp:141] Setting up inception_3b/1x1
I0403 14:27:10.939653 29725 net.cpp:148] Top shape: 24 128 28 28 (2408448)
I0403 14:27:10.939672 29725 net.cpp:156] Memory required for data: 667141152
I0403 14:27:10.939692 29725 layer_factory.hpp:77] Creating layer inception_3b/relu_1x1
I0403 14:27:10.939714 29725 net.cpp:91] Creating Layer inception_3b/relu_1x1
I0403 14:27:10.939733 29725 net.cpp:425] inception_3b/relu_1x1 <- inception_3b/1x1
I0403 14:27:10.939755 29725 net.cpp:386] inception_3b/relu_1x1 -> inception_3b/1x1 (in-place)
I0403 14:27:10.939941 29725 net.cpp:141] Setting up inception_3b/relu_1x1
I0403 14:27:10.939970 29725 net.cpp:148] Top shape: 24 128 28 28 (2408448)
I0403 14:27:10.939985 29725 net.cpp:156] Memory required for data: 676774944
I0403 14:27:10.940001 29725 layer_factory.hpp:77] Creating layer inception_3b/3x3_reduce
I0403 14:27:10.940026 29725 net.cpp:91] Creating Layer inception_3b/3x3_reduce
I0403 14:27:10.940044 29725 net.cpp:425] inception_3b/3x3_reduce <- inception_3a/output_inception_3a/output_0_split_1
I0403 14:27:10.940068 29725 net.cpp:399] inception_3b/3x3_reduce -> inception_3b/3x3_reduce
I0403 14:27:10.941248 29725 net.cpp:141] Setting up inception_3b/3x3_reduce
I0403 14:27:10.941279 29725 net.cpp:148] Top shape: 24 128 28 28 (2408448)
I0403 14:27:10.941301 29725 net.cpp:156] Memory required for data: 686408736
I0403 14:27:10.941323 29725 layer_factory.hpp:77] Creating layer inception_3b/relu_3x3_reduce
I0403 14:27:10.941342 29725 net.cpp:91] Creating Layer inception_3b/relu_3x3_reduce
I0403 14:27:10.941365 29725 net.cpp:425] inception_3b/relu_3x3_reduce <- inception_3b/3x3_reduce
I0403 14:27:10.941385 29725 net.cpp:386] inception_3b/relu_3x3_reduce -> inception_3b/3x3_reduce (in-place)
I0403 14:27:10.941565 29725 net.cpp:141] Setting up inception_3b/relu_3x3_reduce
I0403 14:27:10.941596 29725 net.cpp:148] Top shape: 24 128 28 28 (2408448)
I0403 14:27:10.941613 29725 net.cpp:156] Memory required for data: 696042528
I0403 14:27:10.941629 29725 layer_factory.hpp:77] Creating layer inception_3b/3x3
I0403 14:27:10.941658 29725 net.cpp:91] Creating Layer inception_3b/3x3
I0403 14:27:10.941676 29725 net.cpp:425] inception_3b/3x3 <- inception_3b/3x3_reduce
I0403 14:27:10.941699 29725 net.cpp:399] inception_3b/3x3 -> inception_3b/3x3
I0403 14:27:10.944773 29725 net.cpp:141] Setting up inception_3b/3x3
I0403 14:27:10.944808 29725 net.cpp:148] Top shape: 24 192 28 28 (3612672)
I0403 14:27:10.944825 29725 net.cpp:156] Memory required for data: 710493216
I0403 14:27:10.944846 29725 layer_factory.hpp:77] Creating layer inception_3b/relu_3x3
I0403 14:27:10.944866 29725 net.cpp:91] Creating Layer inception_3b/relu_3x3
I0403 14:27:10.944885 29725 net.cpp:425] inception_3b/relu_3x3 <- inception_3b/3x3
I0403 14:27:10.944907 29725 net.cpp:386] inception_3b/relu_3x3 -> inception_3b/3x3 (in-place)
I0403 14:27:10.945197 29725 net.cpp:141] Setting up inception_3b/relu_3x3
I0403 14:27:10.945235 29725 net.cpp:148] Top shape: 24 192 28 28 (3612672)
I0403 14:27:10.945256 29725 net.cpp:156] Memory required for data: 724943904
I0403 14:27:10.945274 29725 layer_factory.hpp:77] Creating layer inception_3b/5x5_reduce
I0403 14:27:10.945298 29725 net.cpp:91] Creating Layer inception_3b/5x5_reduce
I0403 14:27:10.945320 29725 net.cpp:425] inception_3b/5x5_reduce <- inception_3a/output_inception_3a/output_0_split_2
I0403 14:27:10.945345 29725 net.cpp:399] inception_3b/5x5_reduce -> inception_3b/5x5_reduce
I0403 14:27:10.946394 29725 net.cpp:141] Setting up inception_3b/5x5_reduce
I0403 14:27:10.946429 29725 net.cpp:148] Top shape: 24 32 28 28 (602112)
I0403 14:27:10.946446 29725 net.cpp:156] Memory required for data: 727352352
I0403 14:27:10.946470 29725 layer_factory.hpp:77] Creating layer inception_3b/relu_5x5_reduce
I0403 14:27:10.946492 29725 net.cpp:91] Creating Layer inception_3b/relu_5x5_reduce
I0403 14:27:10.946511 29725 net.cpp:425] inception_3b/relu_5x5_reduce <- inception_3b/5x5_reduce
I0403 14:27:10.946532 29725 net.cpp:386] inception_3b/relu_5x5_reduce -> inception_3b/5x5_reduce (in-place)
I0403 14:27:10.946724 29725 net.cpp:141] Setting up inception_3b/relu_5x5_reduce
I0403 14:27:10.946766 29725 net.cpp:148] Top shape: 24 32 28 28 (602112)
I0403 14:27:10.946784 29725 net.cpp:156] Memory required for data: 729760800
I0403 14:27:10.946800 29725 layer_factory.hpp:77] Creating layer inception_3b/5x5
I0403 14:27:10.946825 29725 net.cpp:91] Creating Layer inception_3b/5x5
I0403 14:27:10.946849 29725 net.cpp:425] inception_3b/5x5 <- inception_3b/5x5_reduce
I0403 14:27:10.946874 29725 net.cpp:399] inception_3b/5x5 -> inception_3b/5x5
I0403 14:27:10.949036 29725 net.cpp:141] Setting up inception_3b/5x5
I0403 14:27:10.949075 29725 net.cpp:148] Top shape: 24 96 28 28 (1806336)
I0403 14:27:10.949095 29725 net.cpp:156] Memory required for data: 736986144
I0403 14:27:10.949115 29725 layer_factory.hpp:77] Creating layer inception_3b/relu_5x5
I0403 14:27:10.949138 29725 net.cpp:91] Creating Layer inception_3b/relu_5x5
I0403 14:27:10.949156 29725 net.cpp:425] inception_3b/relu_5x5 <- inception_3b/5x5
I0403 14:27:10.949175 29725 net.cpp:386] inception_3b/relu_5x5 -> inception_3b/5x5 (in-place)
I0403 14:27:10.949399 29725 net.cpp:141] Setting up inception_3b/relu_5x5
I0403 14:27:10.949432 29725 net.cpp:148] Top shape: 24 96 28 28 (1806336)
I0403 14:27:10.949452 29725 net.cpp:156] Memory required for data: 744211488
I0403 14:27:10.949470 29725 layer_factory.hpp:77] Creating layer inception_3b/pool
I0403 14:27:10.949492 29725 net.cpp:91] Creating Layer inception_3b/pool
I0403 14:27:10.949512 29725 net.cpp:425] inception_3b/pool <- inception_3a/output_inception_3a/output_0_split_3
I0403 14:27:10.949535 29725 net.cpp:399] inception_3b/pool -> inception_3b/pool
I0403 14:27:10.949602 29725 net.cpp:141] Setting up inception_3b/pool
I0403 14:27:10.949632 29725 net.cpp:148] Top shape: 24 256 28 28 (4816896)
I0403 14:27:10.949653 29725 net.cpp:156] Memory required for data: 763479072
I0403 14:27:10.949671 29725 layer_factory.hpp:77] Creating layer inception_3b/pool_proj
I0403 14:27:10.949695 29725 net.cpp:91] Creating Layer inception_3b/pool_proj
I0403 14:27:10.949715 29725 net.cpp:425] inception_3b/pool_proj <- inception_3b/pool
I0403 14:27:10.949738 29725 net.cpp:399] inception_3b/pool_proj -> inception_3b/pool_proj
I0403 14:27:10.950850 29725 net.cpp:141] Setting up inception_3b/pool_proj
I0403 14:27:10.950881 29725 net.cpp:148] Top shape: 24 64 28 28 (1204224)
I0403 14:27:10.950899 29725 net.cpp:156] Memory required for data: 768295968
I0403 14:27:10.950919 29725 layer_factory.hpp:77] Creating layer inception_3b/relu_pool_proj
I0403 14:27:10.950942 29725 net.cpp:91] Creating Layer inception_3b/relu_pool_proj
I0403 14:27:10.950961 29725 net.cpp:425] inception_3b/relu_pool_proj <- inception_3b/pool_proj
I0403 14:27:10.950983 29725 net.cpp:386] inception_3b/relu_pool_proj -> inception_3b/pool_proj (in-place)
I0403 14:27:10.951398 29725 net.cpp:141] Setting up inception_3b/relu_pool_proj
I0403 14:27:10.951427 29725 net.cpp:148] Top shape: 24 64 28 28 (1204224)
I0403 14:27:10.951444 29725 net.cpp:156] Memory required for data: 773112864
I0403 14:27:10.951462 29725 layer_factory.hpp:77] Creating layer inception_3b/output
I0403 14:27:10.951480 29725 net.cpp:91] Creating Layer inception_3b/output
I0403 14:27:10.951498 29725 net.cpp:425] inception_3b/output <- inception_3b/1x1
I0403 14:27:10.951516 29725 net.cpp:425] inception_3b/output <- inception_3b/3x3
I0403 14:27:10.951534 29725 net.cpp:425] inception_3b/output <- inception_3b/5x5
I0403 14:27:10.951552 29725 net.cpp:425] inception_3b/output <- inception_3b/pool_proj
I0403 14:27:10.951575 29725 net.cpp:399] inception_3b/output -> inception_3b/output
I0403 14:27:10.951622 29725 net.cpp:141] Setting up inception_3b/output
I0403 14:27:10.951650 29725 net.cpp:148] Top shape: 24 480 28 28 (9031680)
I0403 14:27:10.951668 29725 net.cpp:156] Memory required for data: 809239584
I0403 14:27:10.951685 29725 layer_factory.hpp:77] Creating layer pool3/3x3_s2
I0403 14:27:10.951704 29725 net.cpp:91] Creating Layer pool3/3x3_s2
I0403 14:27:10.951721 29725 net.cpp:425] pool3/3x3_s2 <- inception_3b/output
I0403 14:27:10.951741 29725 net.cpp:399] pool3/3x3_s2 -> pool3/3x3_s2
I0403 14:27:10.951819 29725 net.cpp:141] Setting up pool3/3x3_s2
I0403 14:27:10.951846 29725 net.cpp:148] Top shape: 24 480 14 14 (2257920)
I0403 14:27:10.951863 29725 net.cpp:156] Memory required for data: 818271264
I0403 14:27:10.951879 29725 layer_factory.hpp:77] Creating layer pool3/3x3_s2_pool3/3x3_s2_0_split
I0403 14:27:10.951900 29725 net.cpp:91] Creating Layer pool3/3x3_s2_pool3/3x3_s2_0_split
I0403 14:27:10.951916 29725 net.cpp:425] pool3/3x3_s2_pool3/3x3_s2_0_split <- pool3/3x3_s2
I0403 14:27:10.951936 29725 net.cpp:399] pool3/3x3_s2_pool3/3x3_s2_0_split -> pool3/3x3_s2_pool3/3x3_s2_0_split_0
I0403 14:27:10.951958 29725 net.cpp:399] pool3/3x3_s2_pool3/3x3_s2_0_split -> pool3/3x3_s2_pool3/3x3_s2_0_split_1
I0403 14:27:10.951980 29725 net.cpp:399] pool3/3x3_s2_pool3/3x3_s2_0_split -> pool3/3x3_s2_pool3/3x3_s2_0_split_2
I0403 14:27:10.952004 29725 net.cpp:399] pool3/3x3_s2_pool3/3x3_s2_0_split -> pool3/3x3_s2_pool3/3x3_s2_0_split_3
I0403 14:27:10.952087 29725 net.cpp:141] Setting up pool3/3x3_s2_pool3/3x3_s2_0_split
I0403 14:27:10.952112 29725 net.cpp:148] Top shape: 24 480 14 14 (2257920)
I0403 14:27:10.952131 29725 net.cpp:148] Top shape: 24 480 14 14 (2257920)
I0403 14:27:10.952148 29725 net.cpp:148] Top shape: 24 480 14 14 (2257920)
I0403 14:27:10.952165 29725 net.cpp:148] Top shape: 24 480 14 14 (2257920)
I0403 14:27:10.952181 29725 net.cpp:156] Memory required for data: 854397984
I0403 14:27:10.952196 29725 layer_factory.hpp:77] Creating layer inception_4a/1x1
I0403 14:27:10.952221 29725 net.cpp:91] Creating Layer inception_4a/1x1
I0403 14:27:10.952239 29725 net.cpp:425] inception_4a/1x1 <- pool3/3x3_s2_pool3/3x3_s2_0_split_0
I0403 14:27:10.952262 29725 net.cpp:399] inception_4a/1x1 -> inception_4a/1x1
I0403 14:27:10.953903 29725 net.cpp:141] Setting up inception_4a/1x1
I0403 14:27:10.953933 29725 net.cpp:148] Top shape: 24 192 14 14 (903168)
I0403 14:27:10.953949 29725 net.cpp:156] Memory required for data: 858010656
I0403 14:27:10.953970 29725 layer_factory.hpp:77] Creating layer inception_4a/relu_1x1
I0403 14:27:10.953991 29725 net.cpp:91] Creating Layer inception_4a/relu_1x1
I0403 14:27:10.954010 29725 net.cpp:425] inception_4a/relu_1x1 <- inception_4a/1x1
I0403 14:27:10.954030 29725 net.cpp:386] inception_4a/relu_1x1 -> inception_4a/1x1 (in-place)
I0403 14:27:10.954212 29725 net.cpp:141] Setting up inception_4a/relu_1x1
I0403 14:27:10.954239 29725 net.cpp:148] Top shape: 24 192 14 14 (903168)
I0403 14:27:10.954255 29725 net.cpp:156] Memory required for data: 861623328
I0403 14:27:10.954272 29725 layer_factory.hpp:77] Creating layer inception_4a/3x3_reduce
I0403 14:27:10.954296 29725 net.cpp:91] Creating Layer inception_4a/3x3_reduce
I0403 14:27:10.954316 29725 net.cpp:425] inception_4a/3x3_reduce <- pool3/3x3_s2_pool3/3x3_s2_0_split_1
I0403 14:27:10.954336 29725 net.cpp:399] inception_4a/3x3_reduce -> inception_4a/3x3_reduce
I0403 14:27:10.955688 29725 net.cpp:141] Setting up inception_4a/3x3_reduce
I0403 14:27:10.955718 29725 net.cpp:148] Top shape: 24 96 14 14 (451584)
I0403 14:27:10.955734 29725 net.cpp:156] Memory required for data: 863429664
I0403 14:27:10.955762 29725 layer_factory.hpp:77] Creating layer inception_4a/relu_3x3_reduce
I0403 14:27:10.955785 29725 net.cpp:91] Creating Layer inception_4a/relu_3x3_reduce
I0403 14:27:10.955801 29725 net.cpp:425] inception_4a/relu_3x3_reduce <- inception_4a/3x3_reduce
I0403 14:27:10.955823 29725 net.cpp:386] inception_4a/relu_3x3_reduce -> inception_4a/3x3_reduce (in-place)
I0403 14:27:10.956004 29725 net.cpp:141] Setting up inception_4a/relu_3x3_reduce
I0403 14:27:10.956032 29725 net.cpp:148] Top shape: 24 96 14 14 (451584)
I0403 14:27:10.956048 29725 net.cpp:156] Memory required for data: 865236000
I0403 14:27:10.956064 29725 layer_factory.hpp:77] Creating layer inception_4a/3x3
I0403 14:27:10.956089 29725 net.cpp:91] Creating Layer inception_4a/3x3
I0403 14:27:10.956109 29725 net.cpp:425] inception_4a/3x3 <- inception_4a/3x3_reduce
I0403 14:27:10.956141 29725 net.cpp:399] inception_4a/3x3 -> inception_4a/3x3
I0403 14:27:10.958943 29725 net.cpp:141] Setting up inception_4a/3x3
I0403 14:27:10.958976 29725 net.cpp:148] Top shape: 24 208 14 14 (978432)
I0403 14:27:10.958994 29725 net.cpp:156] Memory required for data: 869149728
I0403 14:27:10.959014 29725 layer_factory.hpp:77] Creating layer inception_4a/relu_3x3
I0403 14:27:10.959033 29725 net.cpp:91] Creating Layer inception_4a/relu_3x3
I0403 14:27:10.959051 29725 net.cpp:425] inception_4a/relu_3x3 <- inception_4a/3x3
I0403 14:27:10.959069 29725 net.cpp:386] inception_4a/relu_3x3 -> inception_4a/3x3 (in-place)
I0403 14:27:10.959363 29725 net.cpp:141] Setting up inception_4a/relu_3x3
I0403 14:27:10.959393 29725 net.cpp:148] Top shape: 24 208 14 14 (978432)
I0403 14:27:10.959410 29725 net.cpp:156] Memory required for data: 873063456
I0403 14:27:10.959427 29725 layer_factory.hpp:77] Creating layer inception_4a/5x5_reduce
I0403 14:27:10.959449 29725 net.cpp:91] Creating Layer inception_4a/5x5_reduce
I0403 14:27:10.959466 29725 net.cpp:425] inception_4a/5x5_reduce <- pool3/3x3_s2_pool3/3x3_s2_0_split_2
I0403 14:27:10.959491 29725 net.cpp:399] inception_4a/5x5_reduce -> inception_4a/5x5_reduce
I0403 14:27:10.960573 29725 net.cpp:141] Setting up inception_4a/5x5_reduce
I0403 14:27:10.960604 29725 net.cpp:148] Top shape: 24 16 14 14 (75264)
I0403 14:27:10.960623 29725 net.cpp:156] Memory required for data: 873364512
I0403 14:27:10.960643 29725 layer_factory.hpp:77] Creating layer inception_4a/relu_5x5_reduce
I0403 14:27:10.960661 29725 net.cpp:91] Creating Layer inception_4a/relu_5x5_reduce
I0403 14:27:10.960680 29725 net.cpp:425] inception_4a/relu_5x5_reduce <- inception_4a/5x5_reduce
I0403 14:27:10.960698 29725 net.cpp:386] inception_4a/relu_5x5_reduce -> inception_4a/5x5_reduce (in-place)
I0403 14:27:10.960880 29725 net.cpp:141] Setting up inception_4a/relu_5x5_reduce
I0403 14:27:10.960906 29725 net.cpp:148] Top shape: 24 16 14 14 (75264)
I0403 14:27:10.960922 29725 net.cpp:156] Memory required for data: 873665568
I0403 14:27:10.960938 29725 layer_factory.hpp:77] Creating layer inception_4a/5x5
I0403 14:27:10.960963 29725 net.cpp:91] Creating Layer inception_4a/5x5
I0403 14:27:10.960979 29725 net.cpp:425] inception_4a/5x5 <- inception_4a/5x5_reduce
I0403 14:27:10.961001 29725 net.cpp:399] inception_4a/5x5 -> inception_4a/5x5
I0403 14:27:10.962128 29725 net.cpp:141] Setting up inception_4a/5x5
I0403 14:27:10.962158 29725 net.cpp:148] Top shape: 24 48 14 14 (225792)
I0403 14:27:10.962177 29725 net.cpp:156] Memory required for data: 874568736
I0403 14:27:10.962198 29725 layer_factory.hpp:77] Creating layer inception_4a/relu_5x5
I0403 14:27:10.962218 29725 net.cpp:91] Creating Layer inception_4a/relu_5x5
I0403 14:27:10.962235 29725 net.cpp:425] inception_4a/relu_5x5 <- inception_4a/5x5
I0403 14:27:10.962257 29725 net.cpp:386] inception_4a/relu_5x5 -> inception_4a/5x5 (in-place)
I0403 14:27:10.962460 29725 net.cpp:141] Setting up inception_4a/relu_5x5
I0403 14:27:10.962486 29725 net.cpp:148] Top shape: 24 48 14 14 (225792)
I0403 14:27:10.962502 29725 net.cpp:156] Memory required for data: 875471904
I0403 14:27:10.962519 29725 layer_factory.hpp:77] Creating layer inception_4a/pool
I0403 14:27:10.962540 29725 net.cpp:91] Creating Layer inception_4a/pool
I0403 14:27:10.962558 29725 net.cpp:425] inception_4a/pool <- pool3/3x3_s2_pool3/3x3_s2_0_split_3
I0403 14:27:10.962577 29725 net.cpp:399] inception_4a/pool -> inception_4a/pool
I0403 14:27:10.962641 29725 net.cpp:141] Setting up inception_4a/pool
I0403 14:27:10.962666 29725 net.cpp:148] Top shape: 24 480 14 14 (2257920)
I0403 14:27:10.962682 29725 net.cpp:156] Memory required for data: 884503584
I0403 14:27:10.962698 29725 layer_factory.hpp:77] Creating layer inception_4a/pool_proj
I0403 14:27:10.962721 29725 net.cpp:91] Creating Layer inception_4a/pool_proj
I0403 14:27:10.962740 29725 net.cpp:425] inception_4a/pool_proj <- inception_4a/pool
I0403 14:27:10.962764 29725 net.cpp:399] inception_4a/pool_proj -> inception_4a/pool_proj
I0403 14:27:10.963996 29725 net.cpp:141] Setting up inception_4a/pool_proj
I0403 14:27:10.964025 29725 net.cpp:148] Top shape: 24 64 14 14 (301056)
I0403 14:27:10.964058 29725 net.cpp:156] Memory required for data: 885707808
I0403 14:27:10.964079 29725 layer_factory.hpp:77] Creating layer inception_4a/relu_pool_proj
I0403 14:27:10.964102 29725 net.cpp:91] Creating Layer inception_4a/relu_pool_proj
I0403 14:27:10.964119 29725 net.cpp:425] inception_4a/relu_pool_proj <- inception_4a/pool_proj
I0403 14:27:10.964138 29725 net.cpp:386] inception_4a/relu_pool_proj -> inception_4a/pool_proj (in-place)
I0403 14:27:10.964437 29725 net.cpp:141] Setting up inception_4a/relu_pool_proj
I0403 14:27:10.964464 29725 net.cpp:148] Top shape: 24 64 14 14 (301056)
I0403 14:27:10.964483 29725 net.cpp:156] Memory required for data: 886912032
I0403 14:27:10.964498 29725 layer_factory.hpp:77] Creating layer inception_4a/output
I0403 14:27:10.964517 29725 net.cpp:91] Creating Layer inception_4a/output
I0403 14:27:10.964534 29725 net.cpp:425] inception_4a/output <- inception_4a/1x1
I0403 14:27:10.964551 29725 net.cpp:425] inception_4a/output <- inception_4a/3x3
I0403 14:27:10.964570 29725 net.cpp:425] inception_4a/output <- inception_4a/5x5
I0403 14:27:10.964586 29725 net.cpp:425] inception_4a/output <- inception_4a/pool_proj
I0403 14:27:10.964607 29725 net.cpp:399] inception_4a/output -> inception_4a/output
I0403 14:27:10.964655 29725 net.cpp:141] Setting up inception_4a/output
I0403 14:27:10.964680 29725 net.cpp:148] Top shape: 24 512 14 14 (2408448)
I0403 14:27:10.964696 29725 net.cpp:156] Memory required for data: 896545824
I0403 14:27:10.964712 29725 layer_factory.hpp:77] Creating layer inception_4a/output_inception_4a/output_0_split
I0403 14:27:10.964731 29725 net.cpp:91] Creating Layer inception_4a/output_inception_4a/output_0_split
I0403 14:27:10.964748 29725 net.cpp:425] inception_4a/output_inception_4a/output_0_split <- inception_4a/output
I0403 14:27:10.964771 29725 net.cpp:399] inception_4a/output_inception_4a/output_0_split -> inception_4a/output_inception_4a/output_0_split_0
I0403 14:27:10.964793 29725 net.cpp:399] inception_4a/output_inception_4a/output_0_split -> inception_4a/output_inception_4a/output_0_split_1
I0403 14:27:10.964815 29725 net.cpp:399] inception_4a/output_inception_4a/output_0_split -> inception_4a/output_inception_4a/output_0_split_2
I0403 14:27:10.964838 29725 net.cpp:399] inception_4a/output_inception_4a/output_0_split -> inception_4a/output_inception_4a/output_0_split_3
I0403 14:27:10.964860 29725 net.cpp:399] inception_4a/output_inception_4a/output_0_split -> inception_4a/output_inception_4a/output_0_split_4
I0403 14:27:10.964956 29725 net.cpp:141] Setting up inception_4a/output_inception_4a/output_0_split
I0403 14:27:10.964984 29725 net.cpp:148] Top shape: 24 512 14 14 (2408448)
I0403 14:27:10.965003 29725 net.cpp:148] Top shape: 24 512 14 14 (2408448)
I0403 14:27:10.965020 29725 net.cpp:148] Top shape: 24 512 14 14 (2408448)
I0403 14:27:10.965036 29725 net.cpp:148] Top shape: 24 512 14 14 (2408448)
I0403 14:27:10.965054 29725 net.cpp:148] Top shape: 24 512 14 14 (2408448)
I0403 14:27:10.965068 29725 net.cpp:156] Memory required for data: 944714784
I0403 14:27:10.965085 29725 layer_factory.hpp:77] Creating layer loss1/ave_pool
I0403 14:27:10.965103 29725 net.cpp:91] Creating Layer loss1/ave_pool
I0403 14:27:10.965119 29725 net.cpp:425] loss1/ave_pool <- inception_4a/output_inception_4a/output_0_split_0
I0403 14:27:10.965140 29725 net.cpp:399] loss1/ave_pool -> loss1/ave_pool
I0403 14:27:10.965356 29725 net.cpp:141] Setting up loss1/ave_pool
I0403 14:27:10.965384 29725 net.cpp:148] Top shape: 24 512 4 4 (196608)
I0403 14:27:10.965401 29725 net.cpp:156] Memory required for data: 945501216
I0403 14:27:10.965417 29725 layer_factory.hpp:77] Creating layer loss1/conv
I0403 14:27:10.965440 29725 net.cpp:91] Creating Layer loss1/conv
I0403 14:27:10.965459 29725 net.cpp:425] loss1/conv <- loss1/ave_pool
I0403 14:27:10.965481 29725 net.cpp:399] loss1/conv -> loss1/conv
I0403 14:27:10.966955 29725 net.cpp:141] Setting up loss1/conv
I0403 14:27:10.966989 29725 net.cpp:148] Top shape: 24 128 4 4 (49152)
I0403 14:27:10.967006 29725 net.cpp:156] Memory required for data: 945697824
I0403 14:27:10.967041 29725 layer_factory.hpp:77] Creating layer loss1/relu_conv
I0403 14:27:10.967061 29725 net.cpp:91] Creating Layer loss1/relu_conv
I0403 14:27:10.967079 29725 net.cpp:425] loss1/relu_conv <- loss1/conv
I0403 14:27:10.967098 29725 net.cpp:386] loss1/relu_conv -> loss1/conv (in-place)
I0403 14:27:10.967386 29725 net.cpp:141] Setting up loss1/relu_conv
I0403 14:27:10.967417 29725 net.cpp:148] Top shape: 24 128 4 4 (49152)
I0403 14:27:10.967434 29725 net.cpp:156] Memory required for data: 945894432
I0403 14:27:10.967453 29725 layer_factory.hpp:77] Creating layer loss1/fc
I0403 14:27:10.967478 29725 net.cpp:91] Creating Layer loss1/fc
I0403 14:27:10.967495 29725 net.cpp:425] loss1/fc <- loss1/conv
I0403 14:27:10.967530 29725 net.cpp:399] loss1/fc -> loss1/fc
I0403 14:27:10.986124 29725 net.cpp:141] Setting up loss1/fc
I0403 14:27:10.986176 29725 net.cpp:148] Top shape: 24 1024 (24576)
I0403 14:27:10.986193 29725 net.cpp:156] Memory required for data: 945992736
I0403 14:27:10.986215 29725 layer_factory.hpp:77] Creating layer loss1/relu_fc
I0403 14:27:10.986238 29725 net.cpp:91] Creating Layer loss1/relu_fc
I0403 14:27:10.986258 29725 net.cpp:425] loss1/relu_fc <- loss1/fc
I0403 14:27:10.986277 29725 net.cpp:386] loss1/relu_fc -> loss1/fc (in-place)
I0403 14:27:10.986500 29725 net.cpp:141] Setting up loss1/relu_fc
I0403 14:27:10.986528 29725 net.cpp:148] Top shape: 24 1024 (24576)
I0403 14:27:10.986546 29725 net.cpp:156] Memory required for data: 946091040
I0403 14:27:10.986562 29725 layer_factory.hpp:77] Creating layer loss1/drop_fc
I0403 14:27:10.986594 29725 net.cpp:91] Creating Layer loss1/drop_fc
I0403 14:27:10.986613 29725 net.cpp:425] loss1/drop_fc <- loss1/fc
I0403 14:27:10.986634 29725 net.cpp:386] loss1/drop_fc -> loss1/fc (in-place)
I0403 14:27:10.986690 29725 net.cpp:141] Setting up loss1/drop_fc
I0403 14:27:10.986716 29725 net.cpp:148] Top shape: 24 1024 (24576)
I0403 14:27:10.986734 29725 net.cpp:156] Memory required for data: 946189344
I0403 14:27:10.986752 29725 layer_factory.hpp:77] Creating layer loss1/classifier_plantvillage
I0403 14:27:10.986773 29725 net.cpp:91] Creating Layer loss1/classifier_plantvillage
I0403 14:27:10.986793 29725 net.cpp:425] loss1/classifier_plantvillage <- loss1/fc
I0403 14:27:10.986814 29725 net.cpp:399] loss1/classifier_plantvillage -> loss1/classifier_plantvillage
I0403 14:27:10.987783 29725 net.cpp:141] Setting up loss1/classifier_plantvillage
I0403 14:27:10.987818 29725 net.cpp:148] Top shape: 24 38 (912)
I0403 14:27:10.987836 29725 net.cpp:156] Memory required for data: 946192992
I0403 14:27:10.987856 29725 layer_factory.hpp:77] Creating layer loss1/classifier_plantvillage_loss1/classifier_plantvillage_0_split
I0403 14:27:10.987876 29725 net.cpp:91] Creating Layer loss1/classifier_plantvillage_loss1/classifier_plantvillage_0_split
I0403 14:27:10.987895 29725 net.cpp:425] loss1/classifier_plantvillage_loss1/classifier_plantvillage_0_split <- loss1/classifier_plantvillage
I0403 14:27:10.987913 29725 net.cpp:399] loss1/classifier_plantvillage_loss1/classifier_plantvillage_0_split -> loss1/classifier_plantvillage_loss1/classifier_plantvillage_0_split_0
I0403 14:27:10.987934 29725 net.cpp:399] loss1/classifier_plantvillage_loss1/classifier_plantvillage_0_split -> loss1/classifier_plantvillage_loss1/classifier_plantvillage_0_split_1
I0403 14:27:10.987959 29725 net.cpp:399] loss1/classifier_plantvillage_loss1/classifier_plantvillage_0_split -> loss1/classifier_plantvillage_loss1/classifier_plantvillage_0_split_2
I0403 14:27:10.988031 29725 net.cpp:141] Setting up loss1/classifier_plantvillage_loss1/classifier_plantvillage_0_split
I0403 14:27:10.988057 29725 net.cpp:148] Top shape: 24 38 (912)
I0403 14:27:10.988078 29725 net.cpp:148] Top shape: 24 38 (912)
I0403 14:27:10.988106 29725 net.cpp:148] Top shape: 24 38 (912)
I0403 14:27:10.988121 29725 net.cpp:156] Memory required for data: 946203936
I0403 14:27:10.988140 29725 layer_factory.hpp:77] Creating layer inception_4b/1x1
I0403 14:27:10.988163 29725 net.cpp:91] Creating Layer inception_4b/1x1
I0403 14:27:10.988205 29725 net.cpp:425] inception_4b/1x1 <- inception_4a/output_inception_4a/output_0_split_1
I0403 14:27:10.988231 29725 net.cpp:399] inception_4b/1x1 -> inception_4b/1x1
I0403 14:27:10.990025 29725 net.cpp:141] Setting up inception_4b/1x1
I0403 14:27:10.990057 29725 net.cpp:148] Top shape: 24 160 14 14 (752640)
I0403 14:27:10.990084 29725 net.cpp:156] Memory required for data: 949214496
I0403 14:27:10.990104 29725 layer_factory.hpp:77] Creating layer inception_4b/relu_1x1
I0403 14:27:10.990123 29725 net.cpp:91] Creating Layer inception_4b/relu_1x1
I0403 14:27:10.990149 29725 net.cpp:425] inception_4b/relu_1x1 <- inception_4b/1x1
I0403 14:27:10.990176 29725 net.cpp:386] inception_4b/relu_1x1 -> inception_4b/1x1 (in-place)
I0403 14:27:10.990393 29725 net.cpp:141] Setting up inception_4b/relu_1x1
I0403 14:27:10.990422 29725 net.cpp:148] Top shape: 24 160 14 14 (752640)
I0403 14:27:10.990442 29725 net.cpp:156] Memory required for data: 952225056
I0403 14:27:10.990460 29725 layer_factory.hpp:77] Creating layer inception_4b/3x3_reduce
I0403 14:27:10.990484 29725 net.cpp:91] Creating Layer inception_4b/3x3_reduce
I0403 14:27:10.990504 29725 net.cpp:425] inception_4b/3x3_reduce <- inception_4a/output_inception_4a/output_0_split_2
I0403 14:27:10.990526 29725 net.cpp:399] inception_4b/3x3_reduce -> inception_4b/3x3_reduce
I0403 14:27:10.992050 29725 net.cpp:141] Setting up inception_4b/3x3_reduce
I0403 14:27:10.992096 29725 net.cpp:148] Top shape: 24 112 14 14 (526848)
I0403 14:27:10.992117 29725 net.cpp:156] Memory required for data: 954332448
I0403 14:27:10.992141 29725 layer_factory.hpp:77] Creating layer inception_4b/relu_3x3_reduce
I0403 14:27:10.992162 29725 net.cpp:91] Creating Layer inception_4b/relu_3x3_reduce
I0403 14:27:10.992180 29725 net.cpp:425] inception_4b/relu_3x3_reduce <- inception_4b/3x3_reduce
I0403 14:27:10.992202 29725 net.cpp:386] inception_4b/relu_3x3_reduce -> inception_4b/3x3_reduce (in-place)
I0403 14:27:10.992506 29725 net.cpp:141] Setting up inception_4b/relu_3x3_reduce
I0403 14:27:10.992538 29725 net.cpp:148] Top shape: 24 112 14 14 (526848)
I0403 14:27:10.992560 29725 net.cpp:156] Memory required for data: 956439840
I0403 14:27:10.992585 29725 layer_factory.hpp:77] Creating layer inception_4b/3x3
I0403 14:27:10.992610 29725 net.cpp:91] Creating Layer inception_4b/3x3
I0403 14:27:10.992630 29725 net.cpp:425] inception_4b/3x3 <- inception_4b/3x3_reduce
I0403 14:27:10.992656 29725 net.cpp:399] inception_4b/3x3 -> inception_4b/3x3
I0403 14:27:10.995877 29725 net.cpp:141] Setting up inception_4b/3x3
I0403 14:27:10.995909 29725 net.cpp:148] Top shape: 24 224 14 14 (1053696)
I0403 14:27:10.995926 29725 net.cpp:156] Memory required for data: 960654624
I0403 14:27:10.995946 29725 layer_factory.hpp:77] Creating layer inception_4b/relu_3x3
I0403 14:27:10.995968 29725 net.cpp:91] Creating Layer inception_4b/relu_3x3
I0403 14:27:10.995987 29725 net.cpp:425] inception_4b/relu_3x3 <- inception_4b/3x3
I0403 14:27:10.996007 29725 net.cpp:386] inception_4b/relu_3x3 -> inception_4b/3x3 (in-place)
I0403 14:27:10.996207 29725 net.cpp:141] Setting up inception_4b/relu_3x3
I0403 14:27:10.996237 29725 net.cpp:148] Top shape: 24 224 14 14 (1053696)
I0403 14:27:10.996253 29725 net.cpp:156] Memory required for data: 964869408
I0403 14:27:10.996268 29725 layer_factory.hpp:77] Creating layer inception_4b/5x5_reduce
I0403 14:27:10.996294 29725 net.cpp:91] Creating Layer inception_4b/5x5_reduce
I0403 14:27:10.996315 29725 net.cpp:425] inception_4b/5x5_reduce <- inception_4a/output_inception_4a/output_0_split_3
I0403 14:27:10.996335 29725 net.cpp:399] inception_4b/5x5_reduce -> inception_4b/5x5_reduce
I0403 14:27:10.997508 29725 net.cpp:141] Setting up inception_4b/5x5_reduce
I0403 14:27:10.997540 29725 net.cpp:148] Top shape: 24 24 14 14 (112896)
I0403 14:27:10.997566 29725 net.cpp:156] Memory required for data: 965320992
I0403 14:27:10.997588 29725 layer_factory.hpp:77] Creating layer inception_4b/relu_5x5_reduce
I0403 14:27:10.997617 29725 net.cpp:91] Creating Layer inception_4b/relu_5x5_reduce
I0403 14:27:10.997650 29725 net.cpp:425] inception_4b/relu_5x5_reduce <- inception_4b/5x5_reduce
I0403 14:27:10.997678 29725 net.cpp:386] inception_4b/relu_5x5_reduce -> inception_4b/5x5_reduce (in-place)
I0403 14:27:10.997880 29725 net.cpp:141] Setting up inception_4b/relu_5x5_reduce
I0403 14:27:10.997918 29725 net.cpp:148] Top shape: 24 24 14 14 (112896)
I0403 14:27:10.997936 29725 net.cpp:156] Memory required for data: 965772576
I0403 14:27:10.997951 29725 layer_factory.hpp:77] Creating layer inception_4b/5x5
I0403 14:27:10.997975 29725 net.cpp:91] Creating Layer inception_4b/5x5
I0403 14:27:10.997997 29725 net.cpp:425] inception_4b/5x5 <- inception_4b/5x5_reduce
I0403 14:27:10.998019 29725 net.cpp:399] inception_4b/5x5 -> inception_4b/5x5
I0403 14:27:10.999372 29725 net.cpp:141] Setting up inception_4b/5x5
I0403 14:27:10.999407 29725 net.cpp:148] Top shape: 24 64 14 14 (301056)
I0403 14:27:10.999424 29725 net.cpp:156] Memory required for data: 966976800
I0403 14:27:10.999445 29725 layer_factory.hpp:77] Creating layer inception_4b/relu_5x5
I0403 14:27:10.999465 29725 net.cpp:91] Creating Layer inception_4b/relu_5x5
I0403 14:27:10.999485 29725 net.cpp:425] inception_4b/relu_5x5 <- inception_4b/5x5
I0403 14:27:10.999508 29725 net.cpp:386] inception_4b/relu_5x5 -> inception_4b/5x5 (in-place)
I0403 14:27:10.999814 29725 net.cpp:141] Setting up inception_4b/relu_5x5
I0403 14:27:10.999845 29725 net.cpp:148] Top shape: 24 64 14 14 (301056)
I0403 14:27:10.999868 29725 net.cpp:156] Memory required for data: 968181024
I0403 14:27:10.999886 29725 layer_factory.hpp:77] Creating layer inception_4b/pool
I0403 14:27:10.999907 29725 net.cpp:91] Creating Layer inception_4b/pool
I0403 14:27:10.999929 29725 net.cpp:425] inception_4b/pool <- inception_4a/output_inception_4a/output_0_split_4
I0403 14:27:10.999954 29725 net.cpp:399] inception_4b/pool -> inception_4b/pool
I0403 14:27:11.000025 29725 net.cpp:141] Setting up inception_4b/pool
I0403 14:27:11.000051 29725 net.cpp:148] Top shape: 24 512 14 14 (2408448)
I0403 14:27:11.000068 29725 net.cpp:156] Memory required for data: 977814816
I0403 14:27:11.000084 29725 layer_factory.hpp:77] Creating layer inception_4b/pool_proj
I0403 14:27:11.000109 29725 net.cpp:91] Creating Layer inception_4b/pool_proj
I0403 14:27:11.000129 29725 net.cpp:425] inception_4b/pool_proj <- inception_4b/pool
I0403 14:27:11.000160 29725 net.cpp:399] inception_4b/pool_proj -> inception_4b/pool_proj
I0403 14:27:11.001442 29725 net.cpp:141] Setting up inception_4b/pool_proj
I0403 14:27:11.001474 29725 net.cpp:148] Top shape: 24 64 14 14 (301056)
I0403 14:27:11.001493 29725 net.cpp:156] Memory required for data: 979019040
I0403 14:27:11.001514 29725 layer_factory.hpp:77] Creating layer inception_4b/relu_pool_proj
I0403 14:27:11.001551 29725 net.cpp:91] Creating Layer inception_4b/relu_pool_proj
I0403 14:27:11.001570 29725 net.cpp:425] inception_4b/relu_pool_proj <- inception_4b/pool_proj
I0403 14:27:11.001592 29725 net.cpp:386] inception_4b/relu_pool_proj -> inception_4b/pool_proj (in-place)
I0403 14:27:11.001787 29725 net.cpp:141] Setting up inception_4b/relu_pool_proj
I0403 14:27:11.001816 29725 net.cpp:148] Top shape: 24 64 14 14 (301056)
I0403 14:27:11.001832 29725 net.cpp:156] Memory required for data: 980223264
I0403 14:27:11.001848 29725 layer_factory.hpp:77] Creating layer inception_4b/output
I0403 14:27:11.001868 29725 net.cpp:91] Creating Layer inception_4b/output
I0403 14:27:11.001884 29725 net.cpp:425] inception_4b/output <- inception_4b/1x1
I0403 14:27:11.001902 29725 net.cpp:425] inception_4b/output <- inception_4b/3x3
I0403 14:27:11.001920 29725 net.cpp:425] inception_4b/output <- inception_4b/5x5
I0403 14:27:11.001941 29725 net.cpp:425] inception_4b/output <- inception_4b/pool_proj
I0403 14:27:11.001963 29725 net.cpp:399] inception_4b/output -> inception_4b/output
I0403 14:27:11.002013 29725 net.cpp:141] Setting up inception_4b/output
I0403 14:27:11.002041 29725 net.cpp:148] Top shape: 24 512 14 14 (2408448)
I0403 14:27:11.002060 29725 net.cpp:156] Memory required for data: 989857056
I0403 14:27:11.002099 29725 layer_factory.hpp:77] Creating layer inception_4b/output_inception_4b/output_0_split
I0403 14:27:11.002127 29725 net.cpp:91] Creating Layer inception_4b/output_inception_4b/output_0_split
I0403 14:27:11.002147 29725 net.cpp:425] inception_4b/output_inception_4b/output_0_split <- inception_4b/output
I0403 14:27:11.002169 29725 net.cpp:399] inception_4b/output_inception_4b/output_0_split -> inception_4b/output_inception_4b/output_0_split_0
I0403 14:27:11.002192 29725 net.cpp:399] inception_4b/output_inception_4b/output_0_split -> inception_4b/output_inception_4b/output_0_split_1
I0403 14:27:11.002215 29725 net.cpp:399] inception_4b/output_inception_4b/output_0_split -> inception_4b/output_inception_4b/output_0_split_2
I0403 14:27:11.002236 29725 net.cpp:399] inception_4b/output_inception_4b/output_0_split -> inception_4b/output_inception_4b/output_0_split_3
I0403 14:27:11.002339 29725 net.cpp:141] Setting up inception_4b/output_inception_4b/output_0_split
I0403 14:27:11.002375 29725 net.cpp:148] Top shape: 24 512 14 14 (2408448)
I0403 14:27:11.002400 29725 net.cpp:148] Top shape: 24 512 14 14 (2408448)
I0403 14:27:11.002425 29725 net.cpp:148] Top shape: 24 512 14 14 (2408448)
I0403 14:27:11.002442 29725 net.cpp:148] Top shape: 24 512 14 14 (2408448)
I0403 14:27:11.002470 29725 net.cpp:156] Memory required for data: 1028392224
I0403 14:27:11.002501 29725 layer_factory.hpp:77] Creating layer inception_4c/1x1
I0403 14:27:11.002523 29725 net.cpp:91] Creating Layer inception_4c/1x1
I0403 14:27:11.002554 29725 net.cpp:425] inception_4c/1x1 <- inception_4b/output_inception_4b/output_0_split_0
I0403 14:27:11.002579 29725 net.cpp:399] inception_4c/1x1 -> inception_4c/1x1
I0403 14:27:11.004161 29725 net.cpp:141] Setting up inception_4c/1x1
I0403 14:27:11.004194 29725 net.cpp:148] Top shape: 24 128 14 14 (602112)
I0403 14:27:11.004211 29725 net.cpp:156] Memory required for data: 1030800672
I0403 14:27:11.004231 29725 layer_factory.hpp:77] Creating layer inception_4c/relu_1x1
I0403 14:27:11.004256 29725 net.cpp:91] Creating Layer inception_4c/relu_1x1
I0403 14:27:11.004277 29725 net.cpp:425] inception_4c/relu_1x1 <- inception_4c/1x1
I0403 14:27:11.004297 29725 net.cpp:386] inception_4c/relu_1x1 -> inception_4c/1x1 (in-place)
I0403 14:27:11.004513 29725 net.cpp:141] Setting up inception_4c/relu_1x1
I0403 14:27:11.004540 29725 net.cpp:148] Top shape: 24 128 14 14 (602112)
I0403 14:27:11.004559 29725 net.cpp:156] Memory required for data: 1033209120
I0403 14:27:11.004585 29725 layer_factory.hpp:77] Creating layer inception_4c/3x3_reduce
I0403 14:27:11.004621 29725 net.cpp:91] Creating Layer inception_4c/3x3_reduce
I0403 14:27:11.004642 29725 net.cpp:425] inception_4c/3x3_reduce <- inception_4b/output_inception_4b/output_0_split_1
I0403 14:27:11.004667 29725 net.cpp:399] inception_4c/3x3_reduce -> inception_4c/3x3_reduce
I0403 14:27:11.006762 29725 net.cpp:141] Setting up inception_4c/3x3_reduce
I0403 14:27:11.006795 29725 net.cpp:148] Top shape: 24 128 14 14 (602112)
I0403 14:27:11.006814 29725 net.cpp:156] Memory required for data: 1035617568
I0403 14:27:11.006839 29725 layer_factory.hpp:77] Creating layer inception_4c/relu_3x3_reduce
I0403 14:27:11.006861 29725 net.cpp:91] Creating Layer inception_4c/relu_3x3_reduce
I0403 14:27:11.006880 29725 net.cpp:425] inception_4c/relu_3x3_reduce <- inception_4c/3x3_reduce
I0403 14:27:11.006898 29725 net.cpp:386] inception_4c/relu_3x3_reduce -> inception_4c/3x3_reduce (in-place)
I0403 14:27:11.007203 29725 net.cpp:141] Setting up inception_4c/relu_3x3_reduce
I0403 14:27:11.007232 29725 net.cpp:148] Top shape: 24 128 14 14 (602112)
I0403 14:27:11.007249 29725 net.cpp:156] Memory required for data: 1038026016
I0403 14:27:11.007266 29725 layer_factory.hpp:77] Creating layer inception_4c/3x3
I0403 14:27:11.007297 29725 net.cpp:91] Creating Layer inception_4c/3x3
I0403 14:27:11.007318 29725 net.cpp:425] inception_4c/3x3 <- inception_4c/3x3_reduce
I0403 14:27:11.007339 29725 net.cpp:399] inception_4c/3x3 -> inception_4c/3x3
I0403 14:27:11.011158 29725 net.cpp:141] Setting up inception_4c/3x3
I0403 14:27:11.011206 29725 net.cpp:148] Top shape: 24 256 14 14 (1204224)
I0403 14:27:11.011225 29725 net.cpp:156] Memory required for data: 1042842912
I0403 14:27:11.011260 29725 layer_factory.hpp:77] Creating layer inception_4c/relu_3x3
I0403 14:27:11.011282 29725 net.cpp:91] Creating Layer inception_4c/relu_3x3
I0403 14:27:11.011301 29725 net.cpp:425] inception_4c/relu_3x3 <- inception_4c/3x3
I0403 14:27:11.011323 29725 net.cpp:386] inception_4c/relu_3x3 -> inception_4c/3x3 (in-place)
I0403 14:27:11.011521 29725 net.cpp:141] Setting up inception_4c/relu_3x3
I0403 14:27:11.011554 29725 net.cpp:148] Top shape: 24 256 14 14 (1204224)
I0403 14:27:11.011571 29725 net.cpp:156] Memory required for data: 1047659808
I0403 14:27:11.011589 29725 layer_factory.hpp:77] Creating layer inception_4c/5x5_reduce
I0403 14:27:11.011615 29725 net.cpp:91] Creating Layer inception_4c/5x5_reduce
I0403 14:27:11.011636 29725 net.cpp:425] inception_4c/5x5_reduce <- inception_4b/output_inception_4b/output_0_split_2
I0403 14:27:11.011656 29725 net.cpp:399] inception_4c/5x5_reduce -> inception_4c/5x5_reduce
I0403 14:27:11.012819 29725 net.cpp:141] Setting up inception_4c/5x5_reduce
I0403 14:27:11.012852 29725 net.cpp:148] Top shape: 24 24 14 14 (112896)
I0403 14:27:11.012871 29725 net.cpp:156] Memory required for data: 1048111392
I0403 14:27:11.012892 29725 layer_factory.hpp:77] Creating layer inception_4c/relu_5x5_reduce
I0403 14:27:11.012912 29725 net.cpp:91] Creating Layer inception_4c/relu_5x5_reduce
I0403 14:27:11.012929 29725 net.cpp:425] inception_4c/relu_5x5_reduce <- inception_4c/5x5_reduce
I0403 14:27:11.012950 29725 net.cpp:386] inception_4c/relu_5x5_reduce -> inception_4c/5x5_reduce (in-place)
I0403 14:27:11.013147 29725 net.cpp:141] Setting up inception_4c/relu_5x5_reduce
I0403 14:27:11.013175 29725 net.cpp:148] Top shape: 24 24 14 14 (112896)
I0403 14:27:11.013191 29725 net.cpp:156] Memory required for data: 1048562976
I0403 14:27:11.013208 29725 layer_factory.hpp:77] Creating layer inception_4c/5x5
I0403 14:27:11.013232 29725 net.cpp:91] Creating Layer inception_4c/5x5
I0403 14:27:11.013252 29725 net.cpp:425] inception_4c/5x5 <- inception_4c/5x5_reduce
I0403 14:27:11.013274 29725 net.cpp:399] inception_4c/5x5 -> inception_4c/5x5
I0403 14:27:11.014611 29725 net.cpp:141] Setting up inception_4c/5x5
I0403 14:27:11.014641 29725 net.cpp:148] Top shape: 24 64 14 14 (301056)
I0403 14:27:11.014658 29725 net.cpp:156] Memory required for data: 1049767200
I0403 14:27:11.014678 29725 layer_factory.hpp:77] Creating layer inception_4c/relu_5x5
I0403 14:27:11.014700 29725 net.cpp:91] Creating Layer inception_4c/relu_5x5
I0403 14:27:11.014719 29725 net.cpp:425] inception_4c/relu_5x5 <- inception_4c/5x5
I0403 14:27:11.014737 29725 net.cpp:386] inception_4c/relu_5x5 -> inception_4c/5x5 (in-place)
I0403 14:27:11.015040 29725 net.cpp:141] Setting up inception_4c/relu_5x5
I0403 14:27:11.015069 29725 net.cpp:148] Top shape: 24 64 14 14 (301056)
I0403 14:27:11.015086 29725 net.cpp:156] Memory required for data: 1050971424
I0403 14:27:11.015103 29725 layer_factory.hpp:77] Creating layer inception_4c/pool
I0403 14:27:11.015122 29725 net.cpp:91] Creating Layer inception_4c/pool
I0403 14:27:11.015143 29725 net.cpp:425] inception_4c/pool <- inception_4b/output_inception_4b/output_0_split_3
I0403 14:27:11.015163 29725 net.cpp:399] inception_4c/pool -> inception_4c/pool
I0403 14:27:11.015234 29725 net.cpp:141] Setting up inception_4c/pool
I0403 14:27:11.015260 29725 net.cpp:148] Top shape: 24 512 14 14 (2408448)
I0403 14:27:11.015277 29725 net.cpp:156] Memory required for data: 1060605216
I0403 14:27:11.015293 29725 layer_factory.hpp:77] Creating layer inception_4c/pool_proj
I0403 14:27:11.015318 29725 net.cpp:91] Creating Layer inception_4c/pool_proj
I0403 14:27:11.015337 29725 net.cpp:425] inception_4c/pool_proj <- inception_4c/pool
I0403 14:27:11.015367 29725 net.cpp:399] inception_4c/pool_proj -> inception_4c/pool_proj
I0403 14:27:11.016657 29725 net.cpp:141] Setting up inception_4c/pool_proj
I0403 14:27:11.016691 29725 net.cpp:148] Top shape: 24 64 14 14 (301056)
I0403 14:27:11.016723 29725 net.cpp:156] Memory required for data: 1061809440
I0403 14:27:11.016744 29725 layer_factory.hpp:77] Creating layer inception_4c/relu_pool_proj
I0403 14:27:11.016765 29725 net.cpp:91] Creating Layer inception_4c/relu_pool_proj
I0403 14:27:11.016783 29725 net.cpp:425] inception_4c/relu_pool_proj <- inception_4c/pool_proj
I0403 14:27:11.016804 29725 net.cpp:386] inception_4c/relu_pool_proj -> inception_4c/pool_proj (in-place)
I0403 14:27:11.017004 29725 net.cpp:141] Setting up inception_4c/relu_pool_proj
I0403 14:27:11.017031 29725 net.cpp:148] Top shape: 24 64 14 14 (301056)
I0403 14:27:11.017047 29725 net.cpp:156] Memory required for data: 1063013664
I0403 14:27:11.017065 29725 layer_factory.hpp:77] Creating layer inception_4c/output
I0403 14:27:11.017083 29725 net.cpp:91] Creating Layer inception_4c/output
I0403 14:27:11.017101 29725 net.cpp:425] inception_4c/output <- inception_4c/1x1
I0403 14:27:11.017117 29725 net.cpp:425] inception_4c/output <- inception_4c/3x3
I0403 14:27:11.017135 29725 net.cpp:425] inception_4c/output <- inception_4c/5x5
I0403 14:27:11.017153 29725 net.cpp:425] inception_4c/output <- inception_4c/pool_proj
I0403 14:27:11.017174 29725 net.cpp:399] inception_4c/output -> inception_4c/output
I0403 14:27:11.017222 29725 net.cpp:141] Setting up inception_4c/output
I0403 14:27:11.017251 29725 net.cpp:148] Top shape: 24 512 14 14 (2408448)
I0403 14:27:11.017268 29725 net.cpp:156] Memory required for data: 1072647456
I0403 14:27:11.017284 29725 layer_factory.hpp:77] Creating layer inception_4c/output_inception_4c/output_0_split
I0403 14:27:11.017303 29725 net.cpp:91] Creating Layer inception_4c/output_inception_4c/output_0_split
I0403 14:27:11.017320 29725 net.cpp:425] inception_4c/output_inception_4c/output_0_split <- inception_4c/output
I0403 14:27:11.017341 29725 net.cpp:399] inception_4c/output_inception_4c/output_0_split -> inception_4c/output_inception_4c/output_0_split_0
I0403 14:27:11.017369 29725 net.cpp:399] inception_4c/output_inception_4c/output_0_split -> inception_4c/output_inception_4c/output_0_split_1
I0403 14:27:11.017392 29725 net.cpp:399] inception_4c/output_inception_4c/output_0_split -> inception_4c/output_inception_4c/output_0_split_2
I0403 14:27:11.017415 29725 net.cpp:399] inception_4c/output_inception_4c/output_0_split -> inception_4c/output_inception_4c/output_0_split_3
I0403 14:27:11.017504 29725 net.cpp:141] Setting up inception_4c/output_inception_4c/output_0_split
I0403 14:27:11.017531 29725 net.cpp:148] Top shape: 24 512 14 14 (2408448)
I0403 14:27:11.017550 29725 net.cpp:148] Top shape: 24 512 14 14 (2408448)
I0403 14:27:11.017567 29725 net.cpp:148] Top shape: 24 512 14 14 (2408448)
I0403 14:27:11.017585 29725 net.cpp:148] Top shape: 24 512 14 14 (2408448)
I0403 14:27:11.017599 29725 net.cpp:156] Memory required for data: 1111182624
I0403 14:27:11.017616 29725 layer_factory.hpp:77] Creating layer inception_4d/1x1
I0403 14:27:11.017640 29725 net.cpp:91] Creating Layer inception_4d/1x1
I0403 14:27:11.017659 29725 net.cpp:425] inception_4d/1x1 <- inception_4c/output_inception_4c/output_0_split_0
I0403 14:27:11.017685 29725 net.cpp:399] inception_4d/1x1 -> inception_4d/1x1
I0403 14:27:11.019161 29725 net.cpp:141] Setting up inception_4d/1x1
I0403 14:27:11.019192 29725 net.cpp:148] Top shape: 24 112 14 14 (526848)
I0403 14:27:11.019209 29725 net.cpp:156] Memory required for data: 1113290016
I0403 14:27:11.019229 29725 layer_factory.hpp:77] Creating layer inception_4d/relu_1x1
I0403 14:27:11.019253 29725 net.cpp:91] Creating Layer inception_4d/relu_1x1
I0403 14:27:11.019271 29725 net.cpp:425] inception_4d/relu_1x1 <- inception_4d/1x1
I0403 14:27:11.019291 29725 net.cpp:386] inception_4d/relu_1x1 -> inception_4d/1x1 (in-place)
I0403 14:27:11.019491 29725 net.cpp:141] Setting up inception_4d/relu_1x1
I0403 14:27:11.019520 29725 net.cpp:148] Top shape: 24 112 14 14 (526848)
I0403 14:27:11.019541 29725 net.cpp:156] Memory required for data: 1115397408
I0403 14:27:11.019557 29725 layer_factory.hpp:77] Creating layer inception_4d/3x3_reduce
I0403 14:27:11.019596 29725 net.cpp:91] Creating Layer inception_4d/3x3_reduce
I0403 14:27:11.019618 29725 net.cpp:425] inception_4d/3x3_reduce <- inception_4c/output_inception_4c/output_0_split_1
I0403 14:27:11.019639 29725 net.cpp:399] inception_4d/3x3_reduce -> inception_4d/3x3_reduce
I0403 14:27:11.021248 29725 net.cpp:141] Setting up inception_4d/3x3_reduce
I0403 14:27:11.021281 29725 net.cpp:148] Top shape: 24 144 14 14 (677376)
I0403 14:27:11.021298 29725 net.cpp:156] Memory required for data: 1118106912
I0403 14:27:11.021319 29725 layer_factory.hpp:77] Creating layer inception_4d/relu_3x3_reduce
I0403 14:27:11.021342 29725 net.cpp:91] Creating Layer inception_4d/relu_3x3_reduce
I0403 14:27:11.021365 29725 net.cpp:425] inception_4d/relu_3x3_reduce <- inception_4d/3x3_reduce
I0403 14:27:11.021385 29725 net.cpp:386] inception_4d/relu_3x3_reduce -> inception_4d/3x3_reduce (in-place)
I0403 14:27:11.021694 29725 net.cpp:141] Setting up inception_4d/relu_3x3_reduce
I0403 14:27:11.021724 29725 net.cpp:148] Top shape: 24 144 14 14 (677376)
I0403 14:27:11.021741 29725 net.cpp:156] Memory required for data: 1120816416
I0403 14:27:11.021757 29725 layer_factory.hpp:77] Creating layer inception_4d/3x3
I0403 14:27:11.021781 29725 net.cpp:91] Creating Layer inception_4d/3x3
I0403 14:27:11.021802 29725 net.cpp:425] inception_4d/3x3 <- inception_4d/3x3_reduce
I0403 14:27:11.021826 29725 net.cpp:399] inception_4d/3x3 -> inception_4d/3x3
I0403 14:27:11.026343 29725 net.cpp:141] Setting up inception_4d/3x3
I0403 14:27:11.026378 29725 net.cpp:148] Top shape: 24 288 14 14 (1354752)
I0403 14:27:11.026396 29725 net.cpp:156] Memory required for data: 1126235424
I0403 14:27:11.026417 29725 layer_factory.hpp:77] Creating layer inception_4d/relu_3x3
I0403 14:27:11.026440 29725 net.cpp:91] Creating Layer inception_4d/relu_3x3
I0403 14:27:11.026458 29725 net.cpp:425] inception_4d/relu_3x3 <- inception_4d/3x3
I0403 14:27:11.026479 29725 net.cpp:386] inception_4d/relu_3x3 -> inception_4d/3x3 (in-place)
I0403 14:27:11.026674 29725 net.cpp:141] Setting up inception_4d/relu_3x3
I0403 14:27:11.026701 29725 net.cpp:148] Top shape: 24 288 14 14 (1354752)
I0403 14:27:11.026720 29725 net.cpp:156] Memory required for data: 1131654432
I0403 14:27:11.026736 29725 layer_factory.hpp:77] Creating layer inception_4d/5x5_reduce
I0403 14:27:11.026762 29725 net.cpp:91] Creating Layer inception_4d/5x5_reduce
I0403 14:27:11.026782 29725 net.cpp:425] inception_4d/5x5_reduce <- inception_4c/output_inception_4c/output_0_split_2
I0403 14:27:11.026806 29725 net.cpp:399] inception_4d/5x5_reduce -> inception_4d/5x5_reduce
I0403 14:27:11.028024 29725 net.cpp:141] Setting up inception_4d/5x5_reduce
I0403 14:27:11.028054 29725 net.cpp:148] Top shape: 24 32 14 14 (150528)
I0403 14:27:11.028071 29725 net.cpp:156] Memory required for data: 1132256544
I0403 14:27:11.028092 29725 layer_factory.hpp:77] Creating layer inception_4d/relu_5x5_reduce
I0403 14:27:11.028115 29725 net.cpp:91] Creating Layer inception_4d/relu_5x5_reduce
I0403 14:27:11.028132 29725 net.cpp:425] inception_4d/relu_5x5_reduce <- inception_4d/5x5_reduce
I0403 14:27:11.028151 29725 net.cpp:386] inception_4d/relu_5x5_reduce -> inception_4d/5x5_reduce (in-place)
I0403 14:27:11.028354 29725 net.cpp:141] Setting up inception_4d/relu_5x5_reduce
I0403 14:27:11.028384 29725 net.cpp:148] Top shape: 24 32 14 14 (150528)
I0403 14:27:11.028403 29725 net.cpp:156] Memory required for data: 1132858656
I0403 14:27:11.028420 29725 layer_factory.hpp:77] Creating layer inception_4d/5x5
I0403 14:27:11.028445 29725 net.cpp:91] Creating Layer inception_4d/5x5
I0403 14:27:11.028465 29725 net.cpp:425] inception_4d/5x5 <- inception_4d/5x5_reduce
I0403 14:27:11.028487 29725 net.cpp:399] inception_4d/5x5 -> inception_4d/5x5
I0403 14:27:11.030063 29725 net.cpp:141] Setting up inception_4d/5x5
I0403 14:27:11.030095 29725 net.cpp:148] Top shape: 24 64 14 14 (301056)
I0403 14:27:11.030114 29725 net.cpp:156] Memory required for data: 1134062880
I0403 14:27:11.030136 29725 layer_factory.hpp:77] Creating layer inception_4d/relu_5x5
I0403 14:27:11.030172 29725 net.cpp:91] Creating Layer inception_4d/relu_5x5
I0403 14:27:11.030191 29725 net.cpp:425] inception_4d/relu_5x5 <- inception_4d/5x5
I0403 14:27:11.030212 29725 net.cpp:386] inception_4d/relu_5x5 -> inception_4d/5x5 (in-place)
I0403 14:27:11.030534 29725 net.cpp:141] Setting up inception_4d/relu_5x5
I0403 14:27:11.030565 29725 net.cpp:148] Top shape: 24 64 14 14 (301056)
I0403 14:27:11.030582 29725 net.cpp:156] Memory required for data: 1135267104
I0403 14:27:11.030599 29725 layer_factory.hpp:77] Creating layer inception_4d/pool
I0403 14:27:11.030619 29725 net.cpp:91] Creating Layer inception_4d/pool
I0403 14:27:11.030637 29725 net.cpp:425] inception_4d/pool <- inception_4c/output_inception_4c/output_0_split_3
I0403 14:27:11.030659 29725 net.cpp:399] inception_4d/pool -> inception_4d/pool
I0403 14:27:11.030732 29725 net.cpp:141] Setting up inception_4d/pool
I0403 14:27:11.030761 29725 net.cpp:148] Top shape: 24 512 14 14 (2408448)
I0403 14:27:11.030778 29725 net.cpp:156] Memory required for data: 1144900896
I0403 14:27:11.030796 29725 layer_factory.hpp:77] Creating layer inception_4d/pool_proj
I0403 14:27:11.030819 29725 net.cpp:91] Creating Layer inception_4d/pool_proj
I0403 14:27:11.030838 29725 net.cpp:425] inception_4d/pool_proj <- inception_4d/pool
I0403 14:27:11.030859 29725 net.cpp:399] inception_4d/pool_proj -> inception_4d/pool_proj
I0403 14:27:11.032723 29725 net.cpp:141] Setting up inception_4d/pool_proj
I0403 14:27:11.032757 29725 net.cpp:148] Top shape: 24 64 14 14 (301056)
I0403 14:27:11.032773 29725 net.cpp:156] Memory required for data: 1146105120
I0403 14:27:11.032794 29725 layer_factory.hpp:77] Creating layer inception_4d/relu_pool_proj
I0403 14:27:11.032816 29725 net.cpp:91] Creating Layer inception_4d/relu_pool_proj
I0403 14:27:11.032835 29725 net.cpp:425] inception_4d/relu_pool_proj <- inception_4d/pool_proj
I0403 14:27:11.032853 29725 net.cpp:386] inception_4d/relu_pool_proj -> inception_4d/pool_proj (in-place)
I0403 14:27:11.033056 29725 net.cpp:141] Setting up inception_4d/relu_pool_proj
I0403 14:27:11.033084 29725 net.cpp:148] Top shape: 24 64 14 14 (301056)
I0403 14:27:11.033100 29725 net.cpp:156] Memory required for data: 1147309344
I0403 14:27:11.033118 29725 layer_factory.hpp:77] Creating layer inception_4d/output
I0403 14:27:11.033136 29725 net.cpp:91] Creating Layer inception_4d/output
I0403 14:27:11.033154 29725 net.cpp:425] inception_4d/output <- inception_4d/1x1
I0403 14:27:11.033172 29725 net.cpp:425] inception_4d/output <- inception_4d/3x3
I0403 14:27:11.033190 29725 net.cpp:425] inception_4d/output <- inception_4d/5x5
I0403 14:27:11.033207 29725 net.cpp:425] inception_4d/output <- inception_4d/pool_proj
I0403 14:27:11.033228 29725 net.cpp:399] inception_4d/output -> inception_4d/output
I0403 14:27:11.033279 29725 net.cpp:141] Setting up inception_4d/output
I0403 14:27:11.033305 29725 net.cpp:148] Top shape: 24 528 14 14 (2483712)
I0403 14:27:11.033326 29725 net.cpp:156] Memory required for data: 1157244192
I0403 14:27:11.033342 29725 layer_factory.hpp:77] Creating layer inception_4d/output_inception_4d/output_0_split
I0403 14:27:11.033368 29725 net.cpp:91] Creating Layer inception_4d/output_inception_4d/output_0_split
I0403 14:27:11.033386 29725 net.cpp:425] inception_4d/output_inception_4d/output_0_split <- inception_4d/output
I0403 14:27:11.033406 29725 net.cpp:399] inception_4d/output_inception_4d/output_0_split -> inception_4d/output_inception_4d/output_0_split_0
I0403 14:27:11.033428 29725 net.cpp:399] inception_4d/output_inception_4d/output_0_split -> inception_4d/output_inception_4d/output_0_split_1
I0403 14:27:11.033452 29725 net.cpp:399] inception_4d/output_inception_4d/output_0_split -> inception_4d/output_inception_4d/output_0_split_2
I0403 14:27:11.033476 29725 net.cpp:399] inception_4d/output_inception_4d/output_0_split -> inception_4d/output_inception_4d/output_0_split_3
I0403 14:27:11.033499 29725 net.cpp:399] inception_4d/output_inception_4d/output_0_split -> inception_4d/output_inception_4d/output_0_split_4
I0403 14:27:11.033607 29725 net.cpp:141] Setting up inception_4d/output_inception_4d/output_0_split
I0403 14:27:11.033646 29725 net.cpp:148] Top shape: 24 528 14 14 (2483712)
I0403 14:27:11.033666 29725 net.cpp:148] Top shape: 24 528 14 14 (2483712)
I0403 14:27:11.033684 29725 net.cpp:148] Top shape: 24 528 14 14 (2483712)
I0403 14:27:11.033701 29725 net.cpp:148] Top shape: 24 528 14 14 (2483712)
I0403 14:27:11.033718 29725 net.cpp:148] Top shape: 24 528 14 14 (2483712)
I0403 14:27:11.033735 29725 net.cpp:156] Memory required for data: 1206918432
I0403 14:27:11.033751 29725 layer_factory.hpp:77] Creating layer loss2/ave_pool
I0403 14:27:11.033773 29725 net.cpp:91] Creating Layer loss2/ave_pool
I0403 14:27:11.033792 29725 net.cpp:425] loss2/ave_pool <- inception_4d/output_inception_4d/output_0_split_0
I0403 14:27:11.033813 29725 net.cpp:399] loss2/ave_pool -> loss2/ave_pool
I0403 14:27:11.034152 29725 net.cpp:141] Setting up loss2/ave_pool
I0403 14:27:11.034179 29725 net.cpp:148] Top shape: 24 528 4 4 (202752)
I0403 14:27:11.034196 29725 net.cpp:156] Memory required for data: 1207729440
I0403 14:27:11.034214 29725 layer_factory.hpp:77] Creating layer loss2/conv
I0403 14:27:11.034240 29725 net.cpp:91] Creating Layer loss2/conv
I0403 14:27:11.034258 29725 net.cpp:425] loss2/conv <- loss2/ave_pool
I0403 14:27:11.034278 29725 net.cpp:399] loss2/conv -> loss2/conv
I0403 14:27:11.036298 29725 net.cpp:141] Setting up loss2/conv
I0403 14:27:11.036329 29725 net.cpp:148] Top shape: 24 128 4 4 (49152)
I0403 14:27:11.036350 29725 net.cpp:156] Memory required for data: 1207926048
I0403 14:27:11.036371 29725 layer_factory.hpp:77] Creating layer loss2/relu_conv
I0403 14:27:11.036393 29725 net.cpp:91] Creating Layer loss2/relu_conv
I0403 14:27:11.036412 29725 net.cpp:425] loss2/relu_conv <- loss2/conv
I0403 14:27:11.036433 29725 net.cpp:386] loss2/relu_conv -> loss2/conv (in-place)
I0403 14:27:11.036741 29725 net.cpp:141] Setting up loss2/relu_conv
I0403 14:27:11.036769 29725 net.cpp:148] Top shape: 24 128 4 4 (49152)
I0403 14:27:11.036787 29725 net.cpp:156] Memory required for data: 1208122656
I0403 14:27:11.036803 29725 layer_factory.hpp:77] Creating layer loss2/fc
I0403 14:27:11.036824 29725 net.cpp:91] Creating Layer loss2/fc
I0403 14:27:11.036842 29725 net.cpp:425] loss2/fc <- loss2/conv
I0403 14:27:11.036865 29725 net.cpp:399] loss2/fc -> loss2/fc
I0403 14:27:11.055696 29725 net.cpp:141] Setting up loss2/fc
I0403 14:27:11.055747 29725 net.cpp:148] Top shape: 24 1024 (24576)
I0403 14:27:11.055765 29725 net.cpp:156] Memory required for data: 1208220960
I0403 14:27:11.055786 29725 layer_factory.hpp:77] Creating layer loss2/relu_fc
I0403 14:27:11.055807 29725 net.cpp:91] Creating Layer loss2/relu_fc
I0403 14:27:11.055827 29725 net.cpp:425] loss2/relu_fc <- loss2/fc
I0403 14:27:11.055847 29725 net.cpp:386] loss2/relu_fc -> loss2/fc (in-place)
I0403 14:27:11.056201 29725 net.cpp:141] Setting up loss2/relu_fc
I0403 14:27:11.056232 29725 net.cpp:148] Top shape: 24 1024 (24576)
I0403 14:27:11.056251 29725 net.cpp:156] Memory required for data: 1208319264
I0403 14:27:11.056267 29725 layer_factory.hpp:77] Creating layer loss2/drop_fc
I0403 14:27:11.056288 29725 net.cpp:91] Creating Layer loss2/drop_fc
I0403 14:27:11.056305 29725 net.cpp:425] loss2/drop_fc <- loss2/fc
I0403 14:27:11.056324 29725 net.cpp:386] loss2/drop_fc -> loss2/fc (in-place)
I0403 14:27:11.056386 29725 net.cpp:141] Setting up loss2/drop_fc
I0403 14:27:11.056413 29725 net.cpp:148] Top shape: 24 1024 (24576)
I0403 14:27:11.056430 29725 net.cpp:156] Memory required for data: 1208417568
I0403 14:27:11.056447 29725 layer_factory.hpp:77] Creating layer loss2/classifier_plantvillage
I0403 14:27:11.056470 29725 net.cpp:91] Creating Layer loss2/classifier_plantvillage
I0403 14:27:11.056488 29725 net.cpp:425] loss2/classifier_plantvillage <- loss2/fc
I0403 14:27:11.056509 29725 net.cpp:399] loss2/classifier_plantvillage -> loss2/classifier_plantvillage
I0403 14:27:11.056951 29725 net.cpp:141] Setting up loss2/classifier_plantvillage
I0403 14:27:11.056979 29725 net.cpp:148] Top shape: 24 38 (912)
I0403 14:27:11.056996 29725 net.cpp:156] Memory required for data: 1208421216
I0403 14:27:11.057040 29725 layer_factory.hpp:77] Creating layer loss2/classifier_plantvillage_loss2/classifier_plantvillage_0_split
I0403 14:27:11.057062 29725 net.cpp:91] Creating Layer loss2/classifier_plantvillage_loss2/classifier_plantvillage_0_split
I0403 14:27:11.057080 29725 net.cpp:425] loss2/classifier_plantvillage_loss2/classifier_plantvillage_0_split <- loss2/classifier_plantvillage
I0403 14:27:11.057101 29725 net.cpp:399] loss2/classifier_plantvillage_loss2/classifier_plantvillage_0_split -> loss2/classifier_plantvillage_loss2/classifier_plantvillage_0_split_0
I0403 14:27:11.057124 29725 net.cpp:399] loss2/classifier_plantvillage_loss2/classifier_plantvillage_0_split -> loss2/classifier_plantvillage_loss2/classifier_plantvillage_0_split_1
I0403 14:27:11.057147 29725 net.cpp:399] loss2/classifier_plantvillage_loss2/classifier_plantvillage_0_split -> loss2/classifier_plantvillage_loss2/classifier_plantvillage_0_split_2
I0403 14:27:11.057231 29725 net.cpp:141] Setting up loss2/classifier_plantvillage_loss2/classifier_plantvillage_0_split
I0403 14:27:11.057257 29725 net.cpp:148] Top shape: 24 38 (912)
I0403 14:27:11.057279 29725 net.cpp:148] Top shape: 24 38 (912)
I0403 14:27:11.057296 29725 net.cpp:148] Top shape: 24 38 (912)
I0403 14:27:11.057312 29725 net.cpp:156] Memory required for data: 1208432160
I0403 14:27:11.057327 29725 layer_factory.hpp:77] Creating layer inception_4e/1x1
I0403 14:27:11.057358 29725 net.cpp:91] Creating Layer inception_4e/1x1
I0403 14:27:11.057379 29725 net.cpp:425] inception_4e/1x1 <- inception_4d/output_inception_4d/output_0_split_1
I0403 14:27:11.057399 29725 net.cpp:399] inception_4e/1x1 -> inception_4e/1x1
I0403 14:27:11.059371 29725 net.cpp:141] Setting up inception_4e/1x1
I0403 14:27:11.059402 29725 net.cpp:148] Top shape: 24 256 14 14 (1204224)
I0403 14:27:11.059420 29725 net.cpp:156] Memory required for data: 1213249056
I0403 14:27:11.059440 29725 layer_factory.hpp:77] Creating layer inception_4e/relu_1x1
I0403 14:27:11.059463 29725 net.cpp:91] Creating Layer inception_4e/relu_1x1
I0403 14:27:11.059483 29725 net.cpp:425] inception_4e/relu_1x1 <- inception_4e/1x1
I0403 14:27:11.059502 29725 net.cpp:386] inception_4e/relu_1x1 -> inception_4e/1x1 (in-place)
I0403 14:27:11.059818 29725 net.cpp:141] Setting up inception_4e/relu_1x1
I0403 14:27:11.059846 29725 net.cpp:148] Top shape: 24 256 14 14 (1204224)
I0403 14:27:11.059864 29725 net.cpp:156] Memory required for data: 1218065952
I0403 14:27:11.059880 29725 layer_factory.hpp:77] Creating layer inception_4e/3x3_reduce
I0403 14:27:11.059905 29725 net.cpp:91] Creating Layer inception_4e/3x3_reduce
I0403 14:27:11.059924 29725 net.cpp:425] inception_4e/3x3_reduce <- inception_4d/output_inception_4d/output_0_split_2
I0403 14:27:11.059947 29725 net.cpp:399] inception_4e/3x3_reduce -> inception_4e/3x3_reduce
I0403 14:27:11.062223 29725 net.cpp:141] Setting up inception_4e/3x3_reduce
I0403 14:27:11.062255 29725 net.cpp:148] Top shape: 24 160 14 14 (752640)
I0403 14:27:11.062273 29725 net.cpp:156] Memory required for data: 1221076512
I0403 14:27:11.062294 29725 layer_factory.hpp:77] Creating layer inception_4e/relu_3x3_reduce
I0403 14:27:11.062314 29725 net.cpp:91] Creating Layer inception_4e/relu_3x3_reduce
I0403 14:27:11.062331 29725 net.cpp:425] inception_4e/relu_3x3_reduce <- inception_4e/3x3_reduce
I0403 14:27:11.062360 29725 net.cpp:386] inception_4e/relu_3x3_reduce -> inception_4e/3x3_reduce (in-place)
I0403 14:27:11.062562 29725 net.cpp:141] Setting up inception_4e/relu_3x3_reduce
I0403 14:27:11.062590 29725 net.cpp:148] Top shape: 24 160 14 14 (752640)
I0403 14:27:11.062607 29725 net.cpp:156] Memory required for data: 1224087072
I0403 14:27:11.062623 29725 layer_factory.hpp:77] Creating layer inception_4e/3x3
I0403 14:27:11.062647 29725 net.cpp:91] Creating Layer inception_4e/3x3
I0403 14:27:11.062666 29725 net.cpp:425] inception_4e/3x3 <- inception_4e/3x3_reduce
I0403 14:27:11.062690 29725 net.cpp:399] inception_4e/3x3 -> inception_4e/3x3
I0403 14:27:11.068053 29725 net.cpp:141] Setting up inception_4e/3x3
I0403 14:27:11.068099 29725 net.cpp:148] Top shape: 24 320 14 14 (1505280)
I0403 14:27:11.068117 29725 net.cpp:156] Memory required for data: 1230108192
I0403 14:27:11.068140 29725 layer_factory.hpp:77] Creating layer inception_4e/relu_3x3
I0403 14:27:11.068162 29725 net.cpp:91] Creating Layer inception_4e/relu_3x3
I0403 14:27:11.068181 29725 net.cpp:425] inception_4e/relu_3x3 <- inception_4e/3x3
I0403 14:27:11.068202 29725 net.cpp:386] inception_4e/relu_3x3 -> inception_4e/3x3 (in-place)
I0403 14:27:11.068529 29725 net.cpp:141] Setting up inception_4e/relu_3x3
I0403 14:27:11.068558 29725 net.cpp:148] Top shape: 24 320 14 14 (1505280)
I0403 14:27:11.068574 29725 net.cpp:156] Memory required for data: 1236129312
I0403 14:27:11.068591 29725 layer_factory.hpp:77] Creating layer inception_4e/5x5_reduce
I0403 14:27:11.068616 29725 net.cpp:91] Creating Layer inception_4e/5x5_reduce
I0403 14:27:11.068636 29725 net.cpp:425] inception_4e/5x5_reduce <- inception_4d/output_inception_4d/output_0_split_3
I0403 14:27:11.068660 29725 net.cpp:399] inception_4e/5x5_reduce -> inception_4e/5x5_reduce
I0403 14:27:11.069809 29725 net.cpp:141] Setting up inception_4e/5x5_reduce
I0403 14:27:11.069844 29725 net.cpp:148] Top shape: 24 32 14 14 (150528)
I0403 14:27:11.069861 29725 net.cpp:156] Memory required for data: 1236731424
I0403 14:27:11.069882 29725 layer_factory.hpp:77] Creating layer inception_4e/relu_5x5_reduce
I0403 14:27:11.069902 29725 net.cpp:91] Creating Layer inception_4e/relu_5x5_reduce
I0403 14:27:11.069919 29725 net.cpp:425] inception_4e/relu_5x5_reduce <- inception_4e/5x5_reduce
I0403 14:27:11.069941 29725 net.cpp:386] inception_4e/relu_5x5_reduce -> inception_4e/5x5_reduce (in-place)
I0403 14:27:11.070257 29725 net.cpp:141] Setting up inception_4e/relu_5x5_reduce
I0403 14:27:11.070287 29725 net.cpp:148] Top shape: 24 32 14 14 (150528)
I0403 14:27:11.070305 29725 net.cpp:156] Memory required for data: 1237333536
I0403 14:27:11.070322 29725 layer_factory.hpp:77] Creating layer inception_4e/5x5
I0403 14:27:11.070371 29725 net.cpp:91] Creating Layer inception_4e/5x5
I0403 14:27:11.070395 29725 net.cpp:425] inception_4e/5x5 <- inception_4e/5x5_reduce
I0403 14:27:11.070416 29725 net.cpp:399] inception_4e/5x5 -> inception_4e/5x5
I0403 14:27:11.072396 29725 net.cpp:141] Setting up inception_4e/5x5
I0403 14:27:11.072428 29725 net.cpp:148] Top shape: 24 128 14 14 (602112)
I0403 14:27:11.072446 29725 net.cpp:156] Memory required for data: 1239741984
I0403 14:27:11.072468 29725 layer_factory.hpp:77] Creating layer inception_4e/relu_5x5
I0403 14:27:11.072489 29725 net.cpp:91] Creating Layer inception_4e/relu_5x5
I0403 14:27:11.072506 29725 net.cpp:425] inception_4e/relu_5x5 <- inception_4e/5x5
I0403 14:27:11.072526 29725 net.cpp:386] inception_4e/relu_5x5 -> inception_4e/5x5 (in-place)
I0403 14:27:11.072741 29725 net.cpp:141] Setting up inception_4e/relu_5x5
I0403 14:27:11.072768 29725 net.cpp:148] Top shape: 24 128 14 14 (602112)
I0403 14:27:11.072785 29725 net.cpp:156] Memory required for data: 1242150432
I0403 14:27:11.072801 29725 layer_factory.hpp:77] Creating layer inception_4e/pool
I0403 14:27:11.072823 29725 net.cpp:91] Creating Layer inception_4e/pool
I0403 14:27:11.072840 29725 net.cpp:425] inception_4e/pool <- inception_4d/output_inception_4d/output_0_split_4
I0403 14:27:11.072862 29725 net.cpp:399] inception_4e/pool -> inception_4e/pool
I0403 14:27:11.072939 29725 net.cpp:141] Setting up inception_4e/pool
I0403 14:27:11.072965 29725 net.cpp:148] Top shape: 24 528 14 14 (2483712)
I0403 14:27:11.072983 29725 net.cpp:156] Memory required for data: 1252085280
I0403 14:27:11.072999 29725 layer_factory.hpp:77] Creating layer inception_4e/pool_proj
I0403 14:27:11.073024 29725 net.cpp:91] Creating Layer inception_4e/pool_proj
I0403 14:27:11.073043 29725 net.cpp:425] inception_4e/pool_proj <- inception_4e/pool
I0403 14:27:11.073063 29725 net.cpp:399] inception_4e/pool_proj -> inception_4e/pool_proj
I0403 14:27:11.074684 29725 net.cpp:141] Setting up inception_4e/pool_proj
I0403 14:27:11.074715 29725 net.cpp:148] Top shape: 24 128 14 14 (602112)
I0403 14:27:11.074746 29725 net.cpp:156] Memory required for data: 1254493728
I0403 14:27:11.074769 29725 layer_factory.hpp:77] Creating layer inception_4e/relu_pool_proj
I0403 14:27:11.074792 29725 net.cpp:91] Creating Layer inception_4e/relu_pool_proj
I0403 14:27:11.074811 29725 net.cpp:425] inception_4e/relu_pool_proj <- inception_4e/pool_proj
I0403 14:27:11.074829 29725 net.cpp:386] inception_4e/relu_pool_proj -> inception_4e/pool_proj (in-place)
I0403 14:27:11.075141 29725 net.cpp:141] Setting up inception_4e/relu_pool_proj
I0403 14:27:11.075170 29725 net.cpp:148] Top shape: 24 128 14 14 (602112)
I0403 14:27:11.075186 29725 net.cpp:156] Memory required for data: 1256902176
I0403 14:27:11.075203 29725 layer_factory.hpp:77] Creating layer inception_4e/output
I0403 14:27:11.075225 29725 net.cpp:91] Creating Layer inception_4e/output
I0403 14:27:11.075244 29725 net.cpp:425] inception_4e/output <- inception_4e/1x1
I0403 14:27:11.075263 29725 net.cpp:425] inception_4e/output <- inception_4e/3x3
I0403 14:27:11.075280 29725 net.cpp:425] inception_4e/output <- inception_4e/5x5
I0403 14:27:11.075299 29725 net.cpp:425] inception_4e/output <- inception_4e/pool_proj
I0403 14:27:11.075317 29725 net.cpp:399] inception_4e/output -> inception_4e/output
I0403 14:27:11.075379 29725 net.cpp:141] Setting up inception_4e/output
I0403 14:27:11.075405 29725 net.cpp:148] Top shape: 24 832 14 14 (3913728)
I0403 14:27:11.075423 29725 net.cpp:156] Memory required for data: 1272557088
I0403 14:27:11.075438 29725 layer_factory.hpp:77] Creating layer pool4/3x3_s2
I0403 14:27:11.075459 29725 net.cpp:91] Creating Layer pool4/3x3_s2
I0403 14:27:11.075475 29725 net.cpp:425] pool4/3x3_s2 <- inception_4e/output
I0403 14:27:11.075498 29725 net.cpp:399] pool4/3x3_s2 -> pool4/3x3_s2
I0403 14:27:11.075574 29725 net.cpp:141] Setting up pool4/3x3_s2
I0403 14:27:11.075600 29725 net.cpp:148] Top shape: 24 832 7 7 (978432)
I0403 14:27:11.075616 29725 net.cpp:156] Memory required for data: 1276470816
I0403 14:27:11.075633 29725 layer_factory.hpp:77] Creating layer pool4/3x3_s2_pool4/3x3_s2_0_split
I0403 14:27:11.075651 29725 net.cpp:91] Creating Layer pool4/3x3_s2_pool4/3x3_s2_0_split
I0403 14:27:11.075669 29725 net.cpp:425] pool4/3x3_s2_pool4/3x3_s2_0_split <- pool4/3x3_s2
I0403 14:27:11.075688 29725 net.cpp:399] pool4/3x3_s2_pool4/3x3_s2_0_split -> pool4/3x3_s2_pool4/3x3_s2_0_split_0
I0403 14:27:11.075711 29725 net.cpp:399] pool4/3x3_s2_pool4/3x3_s2_0_split -> pool4/3x3_s2_pool4/3x3_s2_0_split_1
I0403 14:27:11.075734 29725 net.cpp:399] pool4/3x3_s2_pool4/3x3_s2_0_split -> pool4/3x3_s2_pool4/3x3_s2_0_split_2
I0403 14:27:11.075755 29725 net.cpp:399] pool4/3x3_s2_pool4/3x3_s2_0_split -> pool4/3x3_s2_pool4/3x3_s2_0_split_3
I0403 14:27:11.075853 29725 net.cpp:141] Setting up pool4/3x3_s2_pool4/3x3_s2_0_split
I0403 14:27:11.075884 29725 net.cpp:148] Top shape: 24 832 7 7 (978432)
I0403 14:27:11.075904 29725 net.cpp:148] Top shape: 24 832 7 7 (978432)
I0403 14:27:11.075922 29725 net.cpp:148] Top shape: 24 832 7 7 (978432)
I0403 14:27:11.075939 29725 net.cpp:148] Top shape: 24 832 7 7 (978432)
I0403 14:27:11.075954 29725 net.cpp:156] Memory required for data: 1292125728
I0403 14:27:11.075971 29725 layer_factory.hpp:77] Creating layer inception_5a/1x1
I0403 14:27:11.075995 29725 net.cpp:91] Creating Layer inception_5a/1x1
I0403 14:27:11.076015 29725 net.cpp:425] inception_5a/1x1 <- pool4/3x3_s2_pool4/3x3_s2_0_split_0
I0403 14:27:11.076037 29725 net.cpp:399] inception_5a/1x1 -> inception_5a/1x1
I0403 14:27:11.079102 29725 net.cpp:141] Setting up inception_5a/1x1
I0403 14:27:11.079136 29725 net.cpp:148] Top shape: 24 256 7 7 (301056)
I0403 14:27:11.079155 29725 net.cpp:156] Memory required for data: 1293329952
I0403 14:27:11.079176 29725 layer_factory.hpp:77] Creating layer inception_5a/relu_1x1
I0403 14:27:11.079196 29725 net.cpp:91] Creating Layer inception_5a/relu_1x1
I0403 14:27:11.079215 29725 net.cpp:425] inception_5a/relu_1x1 <- inception_5a/1x1
I0403 14:27:11.079236 29725 net.cpp:386] inception_5a/relu_1x1 -> inception_5a/1x1 (in-place)
I0403 14:27:11.079577 29725 net.cpp:141] Setting up inception_5a/relu_1x1
I0403 14:27:11.079609 29725 net.cpp:148] Top shape: 24 256 7 7 (301056)
I0403 14:27:11.079627 29725 net.cpp:156] Memory required for data: 1294534176
I0403 14:27:11.079645 29725 layer_factory.hpp:77] Creating layer inception_5a/3x3_reduce
I0403 14:27:11.079670 29725 net.cpp:91] Creating Layer inception_5a/3x3_reduce
I0403 14:27:11.079691 29725 net.cpp:425] inception_5a/3x3_reduce <- pool4/3x3_s2_pool4/3x3_s2_0_split_1
I0403 14:27:11.079715 29725 net.cpp:399] inception_5a/3x3_reduce -> inception_5a/3x3_reduce
I0403 14:27:11.082355 29725 net.cpp:141] Setting up inception_5a/3x3_reduce
I0403 14:27:11.082387 29725 net.cpp:148] Top shape: 24 160 7 7 (188160)
I0403 14:27:11.082406 29725 net.cpp:156] Memory required for data: 1295286816
I0403 14:27:11.082427 29725 layer_factory.hpp:77] Creating layer inception_5a/relu_3x3_reduce
I0403 14:27:11.082449 29725 net.cpp:91] Creating Layer inception_5a/relu_3x3_reduce
I0403 14:27:11.082468 29725 net.cpp:425] inception_5a/relu_3x3_reduce <- inception_5a/3x3_reduce
I0403 14:27:11.082489 29725 net.cpp:386] inception_5a/relu_3x3_reduce -> inception_5a/3x3_reduce (in-place)
I0403 14:27:11.082691 29725 net.cpp:141] Setting up inception_5a/relu_3x3_reduce
I0403 14:27:11.082721 29725 net.cpp:148] Top shape: 24 160 7 7 (188160)
I0403 14:27:11.082738 29725 net.cpp:156] Memory required for data: 1296039456
I0403 14:27:11.082756 29725 layer_factory.hpp:77] Creating layer inception_5a/3x3
I0403 14:27:11.082780 29725 net.cpp:91] Creating Layer inception_5a/3x3
I0403 14:27:11.082800 29725 net.cpp:425] inception_5a/3x3 <- inception_5a/3x3_reduce
I0403 14:27:11.082823 29725 net.cpp:399] inception_5a/3x3 -> inception_5a/3x3
I0403 14:27:11.088201 29725 net.cpp:141] Setting up inception_5a/3x3
I0403 14:27:11.088245 29725 net.cpp:148] Top shape: 24 320 7 7 (376320)
I0403 14:27:11.088263 29725 net.cpp:156] Memory required for data: 1297544736
I0403 14:27:11.088284 29725 layer_factory.hpp:77] Creating layer inception_5a/relu_3x3
I0403 14:27:11.088304 29725 net.cpp:91] Creating Layer inception_5a/relu_3x3
I0403 14:27:11.088322 29725 net.cpp:425] inception_5a/relu_3x3 <- inception_5a/3x3
I0403 14:27:11.088345 29725 net.cpp:386] inception_5a/relu_3x3 -> inception_5a/3x3 (in-place)
I0403 14:27:11.088665 29725 net.cpp:141] Setting up inception_5a/relu_3x3
I0403 14:27:11.088696 29725 net.cpp:148] Top shape: 24 320 7 7 (376320)
I0403 14:27:11.088712 29725 net.cpp:156] Memory required for data: 1299050016
I0403 14:27:11.088731 29725 layer_factory.hpp:77] Creating layer inception_5a/5x5_reduce
I0403 14:27:11.088757 29725 net.cpp:91] Creating Layer inception_5a/5x5_reduce
I0403 14:27:11.088778 29725 net.cpp:425] inception_5a/5x5_reduce <- pool4/3x3_s2_pool4/3x3_s2_0_split_2
I0403 14:27:11.088800 29725 net.cpp:399] inception_5a/5x5_reduce -> inception_5a/5x5_reduce
I0403 14:27:11.090070 29725 net.cpp:141] Setting up inception_5a/5x5_reduce
I0403 14:27:11.090104 29725 net.cpp:148] Top shape: 24 32 7 7 (37632)
I0403 14:27:11.090123 29725 net.cpp:156] Memory required for data: 1299200544
I0403 14:27:11.090143 29725 layer_factory.hpp:77] Creating layer inception_5a/relu_5x5_reduce
I0403 14:27:11.090163 29725 net.cpp:91] Creating Layer inception_5a/relu_5x5_reduce
I0403 14:27:11.090181 29725 net.cpp:425] inception_5a/relu_5x5_reduce <- inception_5a/5x5_reduce
I0403 14:27:11.090209 29725 net.cpp:386] inception_5a/relu_5x5_reduce -> inception_5a/5x5_reduce (in-place)
I0403 14:27:11.090534 29725 net.cpp:141] Setting up inception_5a/relu_5x5_reduce
I0403 14:27:11.090564 29725 net.cpp:148] Top shape: 24 32 7 7 (37632)
I0403 14:27:11.090580 29725 net.cpp:156] Memory required for data: 1299351072
I0403 14:27:11.090597 29725 layer_factory.hpp:77] Creating layer inception_5a/5x5
I0403 14:27:11.090621 29725 net.cpp:91] Creating Layer inception_5a/5x5
I0403 14:27:11.090641 29725 net.cpp:425] inception_5a/5x5 <- inception_5a/5x5_reduce
I0403 14:27:11.090665 29725 net.cpp:399] inception_5a/5x5 -> inception_5a/5x5
I0403 14:27:11.092517 29725 net.cpp:141] Setting up inception_5a/5x5
I0403 14:27:11.092566 29725 net.cpp:148] Top shape: 24 128 7 7 (150528)
I0403 14:27:11.092584 29725 net.cpp:156] Memory required for data: 1299953184
I0403 14:27:11.092604 29725 layer_factory.hpp:77] Creating layer inception_5a/relu_5x5
I0403 14:27:11.092624 29725 net.cpp:91] Creating Layer inception_5a/relu_5x5
I0403 14:27:11.092643 29725 net.cpp:425] inception_5a/relu_5x5 <- inception_5a/5x5
I0403 14:27:11.092666 29725 net.cpp:386] inception_5a/relu_5x5 -> inception_5a/5x5 (in-place)
I0403 14:27:11.092871 29725 net.cpp:141] Setting up inception_5a/relu_5x5
I0403 14:27:11.092898 29725 net.cpp:148] Top shape: 24 128 7 7 (150528)
I0403 14:27:11.092916 29725 net.cpp:156] Memory required for data: 1300555296
I0403 14:27:11.092932 29725 layer_factory.hpp:77] Creating layer inception_5a/pool
I0403 14:27:11.092952 29725 net.cpp:91] Creating Layer inception_5a/pool
I0403 14:27:11.092969 29725 net.cpp:425] inception_5a/pool <- pool4/3x3_s2_pool4/3x3_s2_0_split_3
I0403 14:27:11.092993 29725 net.cpp:399] inception_5a/pool -> inception_5a/pool
I0403 14:27:11.093068 29725 net.cpp:141] Setting up inception_5a/pool
I0403 14:27:11.093094 29725 net.cpp:148] Top shape: 24 832 7 7 (978432)
I0403 14:27:11.093111 29725 net.cpp:156] Memory required for data: 1304469024
I0403 14:27:11.093127 29725 layer_factory.hpp:77] Creating layer inception_5a/pool_proj
I0403 14:27:11.093153 29725 net.cpp:91] Creating Layer inception_5a/pool_proj
I0403 14:27:11.093173 29725 net.cpp:425] inception_5a/pool_proj <- inception_5a/pool
I0403 14:27:11.093194 29725 net.cpp:399] inception_5a/pool_proj -> inception_5a/pool_proj
I0403 14:27:11.095665 29725 net.cpp:141] Setting up inception_5a/pool_proj
I0403 14:27:11.095700 29725 net.cpp:148] Top shape: 24 128 7 7 (150528)
I0403 14:27:11.095720 29725 net.cpp:156] Memory required for data: 1305071136
I0403 14:27:11.095739 29725 layer_factory.hpp:77] Creating layer inception_5a/relu_pool_proj
I0403 14:27:11.095760 29725 net.cpp:91] Creating Layer inception_5a/relu_pool_proj
I0403 14:27:11.095778 29725 net.cpp:425] inception_5a/relu_pool_proj <- inception_5a/pool_proj
I0403 14:27:11.095798 29725 net.cpp:386] inception_5a/relu_pool_proj -> inception_5a/pool_proj (in-place)
I0403 14:27:11.096122 29725 net.cpp:141] Setting up inception_5a/relu_pool_proj
I0403 14:27:11.096153 29725 net.cpp:148] Top shape: 24 128 7 7 (150528)
I0403 14:27:11.096171 29725 net.cpp:156] Memory required for data: 1305673248
I0403 14:27:11.096189 29725 layer_factory.hpp:77] Creating layer inception_5a/output
I0403 14:27:11.096210 29725 net.cpp:91] Creating Layer inception_5a/output
I0403 14:27:11.096226 29725 net.cpp:425] inception_5a/output <- inception_5a/1x1
I0403 14:27:11.096246 29725 net.cpp:425] inception_5a/output <- inception_5a/3x3
I0403 14:27:11.096263 29725 net.cpp:425] inception_5a/output <- inception_5a/5x5
I0403 14:27:11.096282 29725 net.cpp:425] inception_5a/output <- inception_5a/pool_proj
I0403 14:27:11.096299 29725 net.cpp:399] inception_5a/output -> inception_5a/output
I0403 14:27:11.096361 29725 net.cpp:141] Setting up inception_5a/output
I0403 14:27:11.096388 29725 net.cpp:148] Top shape: 24 832 7 7 (978432)
I0403 14:27:11.096405 29725 net.cpp:156] Memory required for data: 1309586976
I0403 14:27:11.096423 29725 layer_factory.hpp:77] Creating layer inception_5a/output_inception_5a/output_0_split
I0403 14:27:11.096442 29725 net.cpp:91] Creating Layer inception_5a/output_inception_5a/output_0_split
I0403 14:27:11.096463 29725 net.cpp:425] inception_5a/output_inception_5a/output_0_split <- inception_5a/output
I0403 14:27:11.096483 29725 net.cpp:399] inception_5a/output_inception_5a/output_0_split -> inception_5a/output_inception_5a/output_0_split_0
I0403 14:27:11.096504 29725 net.cpp:399] inception_5a/output_inception_5a/output_0_split -> inception_5a/output_inception_5a/output_0_split_1
I0403 14:27:11.096527 29725 net.cpp:399] inception_5a/output_inception_5a/output_0_split -> inception_5a/output_inception_5a/output_0_split_2
I0403 14:27:11.096550 29725 net.cpp:399] inception_5a/output_inception_5a/output_0_split -> inception_5a/output_inception_5a/output_0_split_3
I0403 14:27:11.096673 29725 net.cpp:141] Setting up inception_5a/output_inception_5a/output_0_split
I0403 14:27:11.096698 29725 net.cpp:148] Top shape: 24 832 7 7 (978432)
I0403 14:27:11.096716 29725 net.cpp:148] Top shape: 24 832 7 7 (978432)
I0403 14:27:11.096735 29725 net.cpp:148] Top shape: 24 832 7 7 (978432)
I0403 14:27:11.096752 29725 net.cpp:148] Top shape: 24 832 7 7 (978432)
I0403 14:27:11.096768 29725 net.cpp:156] Memory required for data: 1325241888
I0403 14:27:11.096786 29725 layer_factory.hpp:77] Creating layer inception_5b/1x1
I0403 14:27:11.096809 29725 net.cpp:91] Creating Layer inception_5b/1x1
I0403 14:27:11.096830 29725 net.cpp:425] inception_5b/1x1 <- inception_5a/output_inception_5a/output_0_split_0
I0403 14:27:11.096853 29725 net.cpp:399] inception_5b/1x1 -> inception_5b/1x1
I0403 14:27:11.100888 29725 net.cpp:141] Setting up inception_5b/1x1
I0403 14:27:11.100921 29725 net.cpp:148] Top shape: 24 384 7 7 (451584)
I0403 14:27:11.100939 29725 net.cpp:156] Memory required for data: 1327048224
I0403 14:27:11.100960 29725 layer_factory.hpp:77] Creating layer inception_5b/relu_1x1
I0403 14:27:11.100983 29725 net.cpp:91] Creating Layer inception_5b/relu_1x1
I0403 14:27:11.101003 29725 net.cpp:425] inception_5b/relu_1x1 <- inception_5b/1x1
I0403 14:27:11.101023 29725 net.cpp:386] inception_5b/relu_1x1 -> inception_5b/1x1 (in-place)
I0403 14:27:11.101356 29725 net.cpp:141] Setting up inception_5b/relu_1x1
I0403 14:27:11.101384 29725 net.cpp:148] Top shape: 24 384 7 7 (451584)
I0403 14:27:11.101402 29725 net.cpp:156] Memory required for data: 1328854560
I0403 14:27:11.101418 29725 layer_factory.hpp:77] Creating layer inception_5b/3x3_reduce
I0403 14:27:11.101444 29725 net.cpp:91] Creating Layer inception_5b/3x3_reduce
I0403 14:27:11.101462 29725 net.cpp:425] inception_5b/3x3_reduce <- inception_5a/output_inception_5a/output_0_split_1
I0403 14:27:11.101487 29725 net.cpp:399] inception_5b/3x3_reduce -> inception_5b/3x3_reduce
I0403 14:27:11.104356 29725 net.cpp:141] Setting up inception_5b/3x3_reduce
I0403 14:27:11.104388 29725 net.cpp:148] Top shape: 24 192 7 7 (225792)
I0403 14:27:11.104408 29725 net.cpp:156] Memory required for data: 1329757728
I0403 14:27:11.104428 29725 layer_factory.hpp:77] Creating layer inception_5b/relu_3x3_reduce
I0403 14:27:11.104451 29725 net.cpp:91] Creating Layer inception_5b/relu_3x3_reduce
I0403 14:27:11.104470 29725 net.cpp:425] inception_5b/relu_3x3_reduce <- inception_5b/3x3_reduce
I0403 14:27:11.104490 29725 net.cpp:386] inception_5b/relu_3x3_reduce -> inception_5b/3x3_reduce (in-place)
I0403 14:27:11.104693 29725 net.cpp:141] Setting up inception_5b/relu_3x3_reduce
I0403 14:27:11.104723 29725 net.cpp:148] Top shape: 24 192 7 7 (225792)
I0403 14:27:11.104740 29725 net.cpp:156] Memory required for data: 1330660896
I0403 14:27:11.104756 29725 layer_factory.hpp:77] Creating layer inception_5b/3x3
I0403 14:27:11.104779 29725 net.cpp:91] Creating Layer inception_5b/3x3
I0403 14:27:11.104799 29725 net.cpp:425] inception_5b/3x3 <- inception_5b/3x3_reduce
I0403 14:27:11.104820 29725 net.cpp:399] inception_5b/3x3 -> inception_5b/3x3
I0403 14:27:11.112016 29725 net.cpp:141] Setting up inception_5b/3x3
I0403 14:27:11.112051 29725 net.cpp:148] Top shape: 24 384 7 7 (451584)
I0403 14:27:11.112071 29725 net.cpp:156] Memory required for data: 1332467232
I0403 14:27:11.112092 29725 layer_factory.hpp:77] Creating layer inception_5b/relu_3x3
I0403 14:27:11.112112 29725 net.cpp:91] Creating Layer inception_5b/relu_3x3
I0403 14:27:11.112131 29725 net.cpp:425] inception_5b/relu_3x3 <- inception_5b/3x3
I0403 14:27:11.112150 29725 net.cpp:386] inception_5b/relu_3x3 -> inception_5b/3x3 (in-place)
I0403 14:27:11.112481 29725 net.cpp:141] Setting up inception_5b/relu_3x3
I0403 14:27:11.112514 29725 net.cpp:148] Top shape: 24 384 7 7 (451584)
I0403 14:27:11.112531 29725 net.cpp:156] Memory required for data: 1334273568
I0403 14:27:11.112547 29725 layer_factory.hpp:77] Creating layer inception_5b/5x5_reduce
I0403 14:27:11.112588 29725 net.cpp:91] Creating Layer inception_5b/5x5_reduce
I0403 14:27:11.112608 29725 net.cpp:425] inception_5b/5x5_reduce <- inception_5a/output_inception_5a/output_0_split_2
I0403 14:27:11.112632 29725 net.cpp:399] inception_5b/5x5_reduce -> inception_5b/5x5_reduce
I0403 14:27:11.114011 29725 net.cpp:141] Setting up inception_5b/5x5_reduce
I0403 14:27:11.114042 29725 net.cpp:148] Top shape: 24 48 7 7 (56448)
I0403 14:27:11.114061 29725 net.cpp:156] Memory required for data: 1334499360
I0403 14:27:11.114084 29725 layer_factory.hpp:77] Creating layer inception_5b/relu_5x5_reduce
I0403 14:27:11.114106 29725 net.cpp:91] Creating Layer inception_5b/relu_5x5_reduce
I0403 14:27:11.114125 29725 net.cpp:425] inception_5b/relu_5x5_reduce <- inception_5b/5x5_reduce
I0403 14:27:11.114145 29725 net.cpp:386] inception_5b/relu_5x5_reduce -> inception_5b/5x5_reduce (in-place)
I0403 14:27:11.114550 29725 net.cpp:141] Setting up inception_5b/relu_5x5_reduce
I0403 14:27:11.114579 29725 net.cpp:148] Top shape: 24 48 7 7 (56448)
I0403 14:27:11.114598 29725 net.cpp:156] Memory required for data: 1334725152
I0403 14:27:11.114614 29725 layer_factory.hpp:77] Creating layer inception_5b/5x5
I0403 14:27:11.114636 29725 net.cpp:91] Creating Layer inception_5b/5x5
I0403 14:27:11.114656 29725 net.cpp:425] inception_5b/5x5 <- inception_5b/5x5_reduce
I0403 14:27:11.114676 29725 net.cpp:399] inception_5b/5x5 -> inception_5b/5x5
I0403 14:27:11.116894 29725 net.cpp:141] Setting up inception_5b/5x5
I0403 14:27:11.116928 29725 net.cpp:148] Top shape: 24 128 7 7 (150528)
I0403 14:27:11.116946 29725 net.cpp:156] Memory required for data: 1335327264
I0403 14:27:11.116967 29725 layer_factory.hpp:77] Creating layer inception_5b/relu_5x5
I0403 14:27:11.116987 29725 net.cpp:91] Creating Layer inception_5b/relu_5x5
I0403 14:27:11.117004 29725 net.cpp:425] inception_5b/relu_5x5 <- inception_5b/5x5
I0403 14:27:11.117025 29725 net.cpp:386] inception_5b/relu_5x5 -> inception_5b/5x5 (in-place)
I0403 14:27:11.117236 29725 net.cpp:141] Setting up inception_5b/relu_5x5
I0403 14:27:11.117264 29725 net.cpp:148] Top shape: 24 128 7 7 (150528)
I0403 14:27:11.117280 29725 net.cpp:156] Memory required for data: 1335929376
I0403 14:27:11.117297 29725 layer_factory.hpp:77] Creating layer inception_5b/pool
I0403 14:27:11.117317 29725 net.cpp:91] Creating Layer inception_5b/pool
I0403 14:27:11.117336 29725 net.cpp:425] inception_5b/pool <- inception_5a/output_inception_5a/output_0_split_3
I0403 14:27:11.117365 29725 net.cpp:399] inception_5b/pool -> inception_5b/pool
I0403 14:27:11.117446 29725 net.cpp:141] Setting up inception_5b/pool
I0403 14:27:11.117473 29725 net.cpp:148] Top shape: 24 832 7 7 (978432)
I0403 14:27:11.117491 29725 net.cpp:156] Memory required for data: 1339843104
I0403 14:27:11.117506 29725 layer_factory.hpp:77] Creating layer inception_5b/pool_proj
I0403 14:27:11.117530 29725 net.cpp:91] Creating Layer inception_5b/pool_proj
I0403 14:27:11.117550 29725 net.cpp:425] inception_5b/pool_proj <- inception_5b/pool
I0403 14:27:11.117573 29725 net.cpp:399] inception_5b/pool_proj -> inception_5b/pool_proj
I0403 14:27:11.120046 29725 net.cpp:141] Setting up inception_5b/pool_proj
I0403 14:27:11.120081 29725 net.cpp:148] Top shape: 24 128 7 7 (150528)
I0403 14:27:11.120100 29725 net.cpp:156] Memory required for data: 1340445216
I0403 14:27:11.120121 29725 layer_factory.hpp:77] Creating layer inception_5b/relu_pool_proj
I0403 14:27:11.120143 29725 net.cpp:91] Creating Layer inception_5b/relu_pool_proj
I0403 14:27:11.120162 29725 net.cpp:425] inception_5b/relu_pool_proj <- inception_5b/pool_proj
I0403 14:27:11.120182 29725 net.cpp:386] inception_5b/relu_pool_proj -> inception_5b/pool_proj (in-place)
I0403 14:27:11.120512 29725 net.cpp:141] Setting up inception_5b/relu_pool_proj
I0403 14:27:11.120542 29725 net.cpp:148] Top shape: 24 128 7 7 (150528)
I0403 14:27:11.120558 29725 net.cpp:156] Memory required for data: 1341047328
I0403 14:27:11.120575 29725 layer_factory.hpp:77] Creating layer inception_5b/output
I0403 14:27:11.120597 29725 net.cpp:91] Creating Layer inception_5b/output
I0403 14:27:11.120630 29725 net.cpp:425] inception_5b/output <- inception_5b/1x1
I0403 14:27:11.120651 29725 net.cpp:425] inception_5b/output <- inception_5b/3x3
I0403 14:27:11.120669 29725 net.cpp:425] inception_5b/output <- inception_5b/5x5
I0403 14:27:11.120688 29725 net.cpp:425] inception_5b/output <- inception_5b/pool_proj
I0403 14:27:11.120707 29725 net.cpp:399] inception_5b/output -> inception_5b/output
I0403 14:27:11.120764 29725 net.cpp:141] Setting up inception_5b/output
I0403 14:27:11.120790 29725 net.cpp:148] Top shape: 24 1024 7 7 (1204224)
I0403 14:27:11.120807 29725 net.cpp:156] Memory required for data: 1345864224
I0403 14:27:11.120826 29725 layer_factory.hpp:77] Creating layer pool5/7x7_s1
I0403 14:27:11.120848 29725 net.cpp:91] Creating Layer pool5/7x7_s1
I0403 14:27:11.120868 29725 net.cpp:425] pool5/7x7_s1 <- inception_5b/output
I0403 14:27:11.120889 29725 net.cpp:399] pool5/7x7_s1 -> pool5/7x7_s1
I0403 14:27:11.121119 29725 net.cpp:141] Setting up pool5/7x7_s1
I0403 14:27:11.121150 29725 net.cpp:148] Top shape: 24 1024 1 1 (24576)
I0403 14:27:11.121166 29725 net.cpp:156] Memory required for data: 1345962528
I0403 14:27:11.121182 29725 layer_factory.hpp:77] Creating layer pool5/drop_7x7_s1
I0403 14:27:11.121201 29725 net.cpp:91] Creating Layer pool5/drop_7x7_s1
I0403 14:27:11.121219 29725 net.cpp:425] pool5/drop_7x7_s1 <- pool5/7x7_s1
I0403 14:27:11.121242 29725 net.cpp:386] pool5/drop_7x7_s1 -> pool5/7x7_s1 (in-place)
I0403 14:27:11.121296 29725 net.cpp:141] Setting up pool5/drop_7x7_s1
I0403 14:27:11.121322 29725 net.cpp:148] Top shape: 24 1024 1 1 (24576)
I0403 14:27:11.121338 29725 net.cpp:156] Memory required for data: 1346060832
I0403 14:27:11.121376 29725 layer_factory.hpp:77] Creating layer loss3/classifier_plantvillage
I0403 14:27:11.121402 29725 net.cpp:91] Creating Layer loss3/classifier_plantvillage
I0403 14:27:11.121423 29725 net.cpp:425] loss3/classifier_plantvillage <- pool5/7x7_s1
I0403 14:27:11.121451 29725 net.cpp:399] loss3/classifier_plantvillage -> loss3/classifier_plantvillage
I0403 14:27:11.121909 29725 net.cpp:141] Setting up loss3/classifier_plantvillage
I0403 14:27:11.121937 29725 net.cpp:148] Top shape: 24 38 (912)
I0403 14:27:11.121953 29725 net.cpp:156] Memory required for data: 1346064480
I0403 14:27:11.121973 29725 layer_factory.hpp:77] Creating layer loss3/classifier_plantvillage_loss3/classifier_plantvillage_0_split
I0403 14:27:11.121999 29725 net.cpp:91] Creating Layer loss3/classifier_plantvillage_loss3/classifier_plantvillage_0_split
I0403 14:27:11.122020 29725 net.cpp:425] loss3/classifier_plantvillage_loss3/classifier_plantvillage_0_split <- loss3/classifier_plantvillage
I0403 14:27:11.122038 29725 net.cpp:399] loss3/classifier_plantvillage_loss3/classifier_plantvillage_0_split -> loss3/classifier_plantvillage_loss3/classifier_plantvillage_0_split_0
I0403 14:27:11.122061 29725 net.cpp:399] loss3/classifier_plantvillage_loss3/classifier_plantvillage_0_split -> loss3/classifier_plantvillage_loss3/classifier_plantvillage_0_split_1
I0403 14:27:11.122081 29725 net.cpp:399] loss3/classifier_plantvillage_loss3/classifier_plantvillage_0_split -> loss3/classifier_plantvillage_loss3/classifier_plantvillage_0_split_2
I0403 14:27:11.122102 29725 net.cpp:399] loss3/classifier_plantvillage_loss3/classifier_plantvillage_0_split -> loss3/classifier_plantvillage_loss3/classifier_plantvillage_0_split_3
I0403 14:27:11.122212 29725 net.cpp:141] Setting up loss3/classifier_plantvillage_loss3/classifier_plantvillage_0_split
I0403 14:27:11.122239 29725 net.cpp:148] Top shape: 24 38 (912)
I0403 14:27:11.122257 29725 net.cpp:148] Top shape: 24 38 (912)
I0403 14:27:11.122273 29725 net.cpp:148] Top shape: 24 38 (912)
I0403 14:27:11.122290 29725 net.cpp:148] Top shape: 24 38 (912)
I0403 14:27:11.122306 29725 net.cpp:156] Memory required for data: 1346079072
I0403 14:27:11.122323 29725 layer_factory.hpp:77] Creating layer loss1/loss
I0403 14:27:11.122351 29725 net.cpp:91] Creating Layer loss1/loss
I0403 14:27:11.122372 29725 net.cpp:425] loss1/loss <- loss1/classifier_plantvillage_loss1/classifier_plantvillage_0_split_0
I0403 14:27:11.122406 29725 net.cpp:425] loss1/loss <- label_data_1_split_0
…
