…
I0403 14:40:58.610932 30117 net.cpp:313] The NetState phase (1) differed from the phase (0) specified by a rule in layer data
I0403 14:40:58.612124 30117 net.cpp:49] Initializing net from parameters: 
state {
  phase: TEST
}
layer {
  name: "data"
  type: "Data"
  top: "data"
  top: "label"
  include {
    phase: TEST
  }
  transform_param {
    mirror: false
    crop_size: 224
    mean_file: "/home/mohanty/data/final_dataset/lmdb/color-20-80/mean.binaryproto"
  }
  data_param {
    source: "/home/mohanty/data/final_dataset/lmdb/color-20-80/test_db"
    batch_size: 24
    backend: LMDB
  }
}
layer {
  name: "conv1/7x7_s2"
  type: "Convolution"
  bottom: "data"
  top: "conv1/7x7_s2"
  param {
    lr_mult: 1
    decay_mult: 1
  }
  param {
    lr_mult: 2
    decay_mult: 0
  }
  convolution_param {
    num_output: 64
    pad: 3
    kernel_size: 7
    stride: 2
    weight_filler {
      type: "xavier"
      std: 0.1
    }
    bias_filler {
      type: "constant"
      value: 0.2
    }
  }
}
layer {
  name: "conv1/relu_7x7"
  type: "ReLU"
  bottom: "conv1/7x7_s2"
  top: "conv1/7x7_s2"
}
layer {
  name: "pool1/3x3_s2"
  type: "Pooling"
  bottom: "conv1/7x7_s2"
  top: "pool1/3x3_s2"
  pooling_param {
    pool: MAX
    kernel_size: 3
    stride: 2
  }
}
layer {
  name: "pool1/norm1"
  type: "LRN"
  bottom: "pool1/3x3_s2"
  top: "pool1/norm1"
  lrn_param {
    local_size: 5
    alpha: 0.0001
    beta: 0.75
  }
}
layer {
  name: "conv2/3x3_reduce"
  type: "Convolution"
  bottom: "pool1/norm1"
  top: "conv2/3x3_reduce"
  param {
    lr_mult: 1
    decay_mult: 1
  }
  param {
    lr_mult: 2
    decay_mult: 0
  }
  convolution_param {
    num_output: 64
    kernel_size: 1
    weight_filler {
      type: "xavier"
      std: 0.1
    }
    bias_filler {
      type: "constant"
      value: 0.2
    }
  }
}
layer {
  name: "conv2/relu_3x3_reduce"
  type: "ReLU"
  bottom: "conv2/3x3_reduce"
  top: "conv2/3x3_reduce"
}
layer {
  name: "conv2/3x3"
  type: "Convolution"
  bottom: "conv2/3x3_reduce"
  top: "conv2/3x3"
  param {
    lr_mult: 1
    decay_mult: 1
  }
  param {
    lr_mult: 2
    decay_mult: 0
  }
  convolution_param {
    num_output: 192
    pad: 1
    kernel_size: 3
    weight_filler {
      type: "xavier"
      std: 0.03
    }
    bias_filler {
      type: "constant"
      value: 0.2
    }
  }
}
layer {
  name: "conv2/relu_3x3"
  type: "ReLU"
  bottom: "conv2/3x3"
  top: "conv2/3x3"
}
layer {
  name: "conv2/norm2"
  type: "LRN"
  bottom: "conv2/3x3"
  top: "conv2/norm2"
  lrn_param {
    local_size: 5
    alpha: 0.0001
    beta: 0.75
  }
}
layer {
  name: "pool2/3x3_s2"
  type: "Pooling"
  bottom: "conv2/norm2"
  top: "pool2/3x3_s2"
  pooling_param {
    pool: MAX
    kernel_size: 3
    stride: 2
  }
}
layer {
  name: "inception_3a/1x1"
  type: "Convolution"
  bottom: "pool2/3x3_s2"
  top: "inception_3a/1x1"
  param {
    lr_mult: 1
    decay_mult: 1
  }
  param {
    lr_mult: 2
    decay_mult: 0
  }
  convolution_param {
    num_output: 64
    kernel_size: 1
    weight_filler {
      type: "xavier"
      std: 0.03
    }
    bias_filler {
      type: "constant"
      value: 0.2
    }
  }
}
layer {
  name: "inception_3a/relu_1x1"
  type: "ReLU"
  bottom: "inception_3a/1x1"
  top: "inception_3a/1x1"
}
layer {
  name: "inception_3a/3x3_reduce"
  type: "Convolution"
  bottom: "pool2/3x3_s2"
  top: "inception_3a/3x3_reduce"
  param {
    lr_mult: 1
    decay_mult: 1
  }
  param {
    lr_mult: 2
    decay_mult: 0
  }
  convolution_param {
    num_output: 96
    kernel_size: 1
    weight_filler {
      type: "xavier"
      std: 0.09
    }
    bias_filler {
      type: "constant"
      value: 0.2
    }
  }
}
layer {
  name: "inception_3a/relu_3x3_reduce"
  type: "ReLU"
  bottom: "inception_3a/3x3_reduce"
  top: "inception_3a/3x3_reduce"
}
layer {
  name: "inception_3a/3x3"
  type: "Convolution"
  bottom: "inception_3a/3x3_reduce"
  top: "inception_3a/3x3"
  param {
    lr_mult: 1
    decay_mult: 1
  }
  param {
    lr_mult: 2
    decay_mult: 0
  }
  convolution_param {
    num_output: 128
    pad: 1
    kernel_size: 3
    weight_filler {
      type: "xavier"
      std: 0.03
    }
    bias_filler {
      type: "constant"
      value: 0.2
    }
  }
}
layer {
  name: "inception_3a/relu_3x3"
  type: "ReLU"
  bottom: "inception_3a/3x3"
  top: "inception_3a/3x3"
}
layer {
  name: "inception_3a/5x5_reduce"
  type: "Convolution"
  bottom: "pool2/3x3_s2"
  top: "inception_3a/5x5_reduce"
  param {
    lr_mult: 1
    decay_mult: 1
  }
  param {
    lr_mult: 2
    decay_mult: 0
  }
  convolution_param {
    num_output: 16
    kernel_size: 1
    weight_filler {
      type: "xavier"
      std: 0.2
    }
    bias_filler {
      type: "constant"
      value: 0.2
    }
  }
}
layer {
  name: "inception_3a/relu_5x5_reduce"
  type: "ReLU"
  bottom: "inception_3a/5x5_reduce"
  top: "inception_3a/5x5_reduce"
}
layer {
  name: "inception_3a/5x5"
  type: "Convolution"
  bottom: "inception_3a/5x5_reduce"
  top: "inception_3a/5x5"
  param {
    lr_mult: 1
    decay_mult: 1
  }
  param {
    lr_mult: 2
    decay_mult: 0
  }
  convolution_param {
    num_output: 32
    pad: 2
    kernel_size: 5
    weight_filler {
      type: "xavier"
      std: 0.03
    }
    bias_filler {
      type: "constant"
      value: 0.2
    }
  }
}
layer {
  name: "inception_3a/relu_5x5"
  type: "ReLU"
  bottom: "inception_3a/5x5"
  top: "inception_3a/5x5"
}
layer {
  name: "inception_3a/pool"
  type: "Pooling"
  bottom: "pool2/3x3_s2"
  top: "inception_3a/pool"
  pooling_param {
    pool: MAX
    kernel_size: 3
    stride: 1
    pad: 1
  }
}
layer {
  name: "inception_3a/pool_proj"
  type: "Convolution"
  bottom: "inception_3a/pool"
  top: "inception_3a/pool_proj"
  param {
    lr_mult: 1
    decay_mult: 1
  }
  param {
    lr_mult: 2
    decay_mult: 0
  }
  convolution_param {
    num_output: 32
    kernel_size: 1
    weight_filler {
      type: "xavier"
      std: 0.1
    }
    bias_filler {
      type: "constant"
      value: 0.2
    }
  }
}
layer {
  name: "inception_3a/relu_pool_proj"
  type: "ReLU"
  bottom: "inception_3a/pool_proj"
  top: "inception_3a/pool_proj"
}
layer {
  name: "inception_3a/output"
  type: "Concat"
  bottom: "inception_3a/1x1"
  bottom: "inception_3a/3x3"
  bottom: "inception_3a/5x5"
  bottom: "inception_3a/pool_proj"
  top: "inception_3a/output"
}
layer {
  name: "inception_3b/1x1"
  type: "Convolution"
  bottom: "inception_3a/output"
  top: "inception_3b/1x1"
  param {
    lr_mult: 1
    decay_mult: 1
  }
  param {
    lr_mult: 2
    decay_mult: 0
  }
  convolution_param {
    num_output: 128
    kernel_size: 1
    weight_filler {
      type: "xavier"
      std: 0.03
    }
    bias_filler {
      type: "constant"
      value: 0.2
    }
  }
}
layer {
  name: "inception_3b/relu_1x1"
  type: "ReLU"
  bottom: "inception_3b/1x1"
  top: "inception_3b/1x1"
}
layer {
  name: "inception_3b/3x3_reduce"
  type: "Convolution"
  bottom: "inception_3a/output"
  top: "inception_3b/3x3_reduce"
  param {
    lr_mult: 1
    decay_mult: 1
  }
  param {
    lr_mult: 2
    decay_mult: 0
  }
  convolution_param {
    num_output: 128
    kernel_size: 1
    weight_filler {
      type: "xavier"
      std: 0.09
    }
    bias_filler {
      type: "constant"
      value: 0.2
    }
  }
}
layer {
  name: "inception_3b/relu_3x3_reduce"
  type: "ReLU"
  bottom: "inception_3b/3x3_reduce"
  top: "inception_3b/3x3_reduce"
}
layer {
  name: "inception_3b/3x3"
  type: "Convolution"
  bottom: "inception_3b/3x3_reduce"
  top: "inception_3b/3x3"
  param {
    lr_mult: 1
    decay_mult: 1
  }
  param {
    lr_mult: 2
    decay_mult: 0
  }
  convolution_param {
    num_output: 192
    pad: 1
    kernel_size: 3
    weight_filler {
      type: "xavier"
      std: 0.03
    }
    bias_filler {
      type: "constant"
      value: 0.2
    }
  }
}
layer {
  name: "inception_3b/relu_3x3"
  type: "ReLU"
  bottom: "inception_3b/3x3"
  top: "inception_3b/3x3"
}
layer {
  name: "inception_3b/5x5_reduce"
  type: "Convolution"
  bottom: "inception_3a/output"
  top: "inception_3b/5x5_reduce"
  param {
    lr_mult: 1
    decay_mult: 1
  }
  param {
    lr_mult: 2
    decay_mult: 0
  }
  convolution_param {
    num_output: 32
    kernel_size: 1
    weight_filler {
      type: "xavier"
      std: 0.2
    }
    bias_filler {
      type: "constant"
      value: 0.2
    }
  }
}
layer {
  name: "inception_3b/relu_5x5_reduce"
  type: "ReLU"
  bottom: "inception_3b/5x5_reduce"
  top: "inception_3b/5x5_reduce"
}
layer {
  name: "inception_3b/5x5"
  type: "Convolution"
  bottom: "inception_3b/5x5_reduce"
  top: "inception_3b/5x5"
  param {
    lr_mult: 1
    decay_mult: 1
  }
  param {
    lr_mult: 2
    decay_mult: 0
  }
  convolution_param {
    num_output: 96
    pad: 2
    kernel_size: 5
    weight_filler {
      type: "xavier"
      std: 0.03
    }
    bias_filler {
      type: "constant"
      value: 0.2
    }
  }
}
layer {
  name: "inception_3b/relu_5x5"
  type: "ReLU"
  bottom: "inception_3b/5x5"
  top: "inception_3b/5x5"
}
layer {
  name: "inception_3b/pool"
  type: "Pooling"
  bottom: "inception_3a/output"
  top: "inception_3b/pool"
  pooling_param {
    pool: MAX
    kernel_size: 3
    stride: 1
    pad: 1
  }
}
layer {
  name: "inception_3b/pool_proj"
  type: "Convolution"
  bottom: "inception_3b/pool"
  top: "inception_3b/pool_proj"
  param {
    lr_mult: 1
    decay_mult: 1
  }
  param {
    lr_mult: 2
    decay_mult: 0
  }
  convolution_param {
    num_output: 64
    kernel_size: 1
    weight_filler {
      type: "xavier"
      std: 0.1
    }
    bias_filler {
      type: "constant"
      value: 0.2
    }
  }
}
layer {
  name: "inception_3b/relu_pool_proj"
  type: "ReLU"
  bottom: "inception_3b/pool_proj"
  top: "inception_3b/pool_proj"
}
layer {
  name: "inception_3b/output"
  type: "Concat"
  bottom: "inception_3b/1x1"
  bottom: "inception_3b/3x3"
  bottom: "inception_3b/5x5"
  bottom: "inception_3b/pool_proj"
  top: "inception_3b/output"
}
layer {
  name: "pool3/3x3_s2"
  type: "Pooling"
  bottom: "inception_3b/output"
  top: "pool3/3x3_s2"
  pooling_param {
    pool: MAX
    kernel_size: 3
    stride: 2
  }
}
layer {
  name: "inception_4a/1x1"
  type: "Convolution"
  bottom: "pool3/3x3_s2"
  top: "inception_4a/1x1"
  param {
    lr_mult: 1
    decay_mult: 1
  }
  param {
    lr_mult: 2
    decay_mult: 0
  }
  convolution_param {
    num_output: 192
    kernel_size: 1
    weight_filler {
      type: "xavier"
      std: 0.03
    }
    bias_filler {
      type: "constant"
      value: 0.2
    }
  }
}
layer {
  name: "inception_4a/relu_1x1"
  type: "ReLU"
  bottom: "inception_4a/1x1"
  top: "inception_4a/1x1"
}
layer {
  name: "inception_4a/3x3_reduce"
  type: "Convolution"
  bottom: "pool3/3x3_s2"
  top: "inception_4a/3x3_reduce"
  param {
    lr_mult: 1
    decay_mult: 1
  }
  param {
    lr_mult: 2
    decay_mult: 0
  }
  convolution_param {
    num_output: 96
    kernel_size: 1
    weight_filler {
      type: "xavier"
      std: 0.09
    }
    bias_filler {
      type: "constant"
      value: 0.2
    }
  }
}
layer {
  name: "inception_4a/relu_3x3_reduce"
  type: "ReLU"
  bottom: "inception_4a/3x3_reduce"
  top: "inception_4a/3x3_reduce"
}
layer {
  name: "inception_4a/3x3"
  type: "Convolution"
  bottom: "inception_4a/3x3_reduce"
  top: "inception_4a/3x3"
  param {
    lr_mult: 1
    decay_mult: 1
  }
  param {
    lr_mult: 2
    decay_mult: 0
  }
  convolution_param {
    num_output: 208
    pad: 1
    kernel_size: 3
    weight_filler {
      type: "xavier"
      std: 0.03
    }
    bias_filler {
      type: "constant"
      value: 0.2
    }
  }
}
layer {
  name: "inception_4a/relu_3x3"
  type: "ReLU"
  bottom: "inception_4a/3x3"
  top: "inception_4a/3x3"
}
layer {
  name: "inception_4a/5x5_reduce"
  type: "Convolution"
  bottom: "pool3/3x3_s2"
  top: "inception_4a/5x5_reduce"
  param {
    lr_mult: 1
    decay_mult: 1
  }
  param {
    lr_mult: 2
    decay_mult: 0
  }
  convolution_param {
    num_output: 16
    kernel_size: 1
    weight_filler {
      type: "xavier"
      std: 0.2
    }
    bias_filler {
      type: "constant"
      value: 0.2
    }
  }
}
layer {
  name: "inception_4a/relu_5x5_reduce"
  type: "ReLU"
  bottom: "inception_4a/5x5_reduce"
  top: "inception_4a/5x5_reduce"
}
layer {
  name: "inception_4a/5x5"
  type: "Convolution"
  bottom: "inception_4a/5x5_reduce"
  top: "inception_4a/5x5"
  param {
    lr_mult: 1
    decay_mult: 1
  }
  param {
    lr_mult: 2
    decay_mult: 0
  }
  convolution_param {
    num_output: 48
    pad: 2
    kernel_size: 5
    weight_filler {
      type: "xavier"
      std: 0.03
    }
    bias_filler {
      type: "constant"
      value: 0.2
    }
  }
}
layer {
  name: "inception_4a/relu_5x5"
  type: "ReLU"
  bottom: "inception_4a/5x5"
  top: "inception_4a/5x5"
}
layer {
  name: "inception_4a/pool"
  type: "Pooling"
  bottom: "pool3/3x3_s2"
  top: "inception_4a/pool"
  pooling_param {
    pool: MAX
    kernel_size: 3
    stride: 1
    pad: 1
  }
}
layer {
  name: "inception_4a/pool_proj"
  type: "Convolution"
  bottom: "inception_4a/pool"
  top: "inception_4a/pool_proj"
  param {
    lr_mult: 1
    decay_mult: 1
  }
  param {
    lr_mult: 2
    decay_mult: 0
  }
  convolution_param {
    num_output: 64
    kernel_size: 1
    weight_filler {
      type: "xavier"
      std: 0.1
    }
    bias_filler {
      type: "constant"
      value: 0.2
    }
  }
}
layer {
  name: "inception_4a/relu_pool_proj"
  type: "ReLU"
  bottom: "inception_4a/pool_proj"
  top: "inception_4a/pool_proj"
}
layer {
  name: "inception_4a/output"
  type: "Concat"
  bottom: "inception_4a/1x1"
  bottom: "inception_4a/3x3"
  bottom: "inception_4a/5x5"
  bottom: "inception_4a/pool_proj"
  top: "inception_4a/output"
}
layer {
  name: "loss1/ave_pool"
  type: "Pooling"
  bottom: "inception_4a/output"
  top: "loss1/ave_pool"
  pooling_param {
    pool: AVE
    kernel_size: 5
    stride: 3
  }
}
layer {
  name: "loss1/conv"
  type: "Convolution"
  bottom: "loss1/ave_pool"
  top: "loss1/conv"
  param {
    lr_mult: 1
    decay_mult: 1
  }
  param {
    lr_mult: 2
    decay_mult: 0
  }
  convolution_param {
    num_output: 128
    kernel_size: 1
    weight_filler {
      type: "xavier"
      std: 0.08
    }
    bias_filler {
      type: "constant"
      value: 0.2
    }
  }
}
layer {
  name: "loss1/relu_conv"
  type: "ReLU"
  bottom: "loss1/conv"
  top: "loss1/conv"
}
layer {
  name: "loss1/fc"
  type: "InnerProduct"
  bottom: "loss1/conv"
  top: "loss1/fc"
  param {
    lr_mult: 1
    decay_mult: 1
  }
  param {
    lr_mult: 2
    decay_mult: 0
  }
  inner_product_param {
    num_output: 1024
    weight_filler {
      type: "xavier"
      std: 0.02
    }
    bias_filler {
      type: "constant"
      value: 0.2
    }
  }
}
layer {
  name: "loss1/relu_fc"
  type: "ReLU"
  bottom: "loss1/fc"
  top: "loss1/fc"
}
layer {
  name: "loss1/drop_fc"
  type: "Dropout"
  bottom: "loss1/fc"
  top: "loss1/fc"
  dropout_param {
    dropout_ratio: 0.7
  }
}
layer {
  name: "loss1/classifier_plantvillage"
  type: "InnerProduct"
  bottom: "loss1/fc"
  top: "loss1/classifier_plantvillage"
  param {
    lr_mult: 1
    decay_mult: 1
  }
  param {
    lr_mult: 2
    decay_mult: 0
  }
  inner_product_param {
    num_output: 38
    weight_filler {
      type: "xavier"
      std: 0.0009765625
    }
    bias_filler {
      type: "constant"
      value: 0
    }
  }
}
layer {
  name: "inception_4b/1x1"
  type: "Convolution"
  bottom: "inception_4a/output"
  top: "inception_4b/1x1"
  param {
    lr_mult: 1
    decay_mult: 1
  }
  param {
    lr_mult: 2
    decay_mult: 0
  }
  convolution_param {
    num_output: 160
    kernel_size: 1
    weight_filler {
      type: "xavier"
      std: 0.03
    }
    bias_filler {
      type: "constant"
      value: 0.2
    }
  }
}
layer {
  name: "inception_4b/relu_1x1"
  type: "ReLU"
  bottom: "inception_4b/1x1"
  top: "inception_4b/1x1"
}
layer {
  name: "inception_4b/3x3_reduce"
  type: "Convolution"
  bottom: "inception_4a/output"
  top: "inception_4b/3x3_reduce"
  param {
    lr_mult: 1
    decay_mult: 1
  }
  param {
    lr_mult: 2
    decay_mult: 0
  }
  convolution_param {
    num_output: 112
    kernel_size: 1
    weight_filler {
      type: "xavier"
      std: 0.09
    }
    bias_filler {
      type: "constant"
      value: 0.2
    }
  }
}
layer {
  name: "inception_4b/relu_3x3_reduce"
  type: "ReLU"
  bottom: "inception_4b/3x3_reduce"
  top: "inception_4b/3x3_reduce"
}
layer {
  name: "inception_4b/3x3"
  type: "Convolution"
  bottom: "inception_4b/3x3_reduce"
  top: "inception_4b/3x3"
  param {
    lr_mult: 1
    decay_mult: 1
  }
  param {
    lr_mult: 2
    decay_mult: 0
  }
  convolution_param {
    num_output: 224
    pad: 1
    kernel_size: 3
    weight_filler {
      type: "xavier"
      std: 0.03
    }
    bias_filler {
      type: "constant"
      value: 0.2
    }
  }
}
layer {
  name: "inception_4b/relu_3x3"
  type: "ReLU"
  bottom: "inception_4b/3x3"
  top: "inception_4b/3x3"
}
layer {
  name: "inception_4b/5x5_reduce"
  type: "Convolution"
  bottom: "inception_4a/output"
  top: "inception_4b/5x5_reduce"
  param {
    lr_mult: 1
    decay_mult: 1
  }
  param {
    lr_mult: 2
    decay_mult: 0
  }
  convolution_param {
    num_output: 24
    kernel_size: 1
    weight_filler {
      type: "xavier"
      std: 0.2
    }
    bias_filler {
      type: "constant"
      value: 0.2
    }
  }
}
layer {
  name: "inception_4b/relu_5x5_reduce"
  type: "ReLU"
  bottom: "inception_4b/5x5_reduce"
  top: "inception_4b/5x5_reduce"
}
layer {
  name: "inception_4b/5x5"
  type: "Convolution"
  bottom: "inception_4b/5x5_reduce"
  top: "inception_4b/5x5"
  param {
    lr_mult: 1
    decay_mult: 1
  }
  param {
    lr_mult: 2
    decay_mult: 0
  }
  convolution_param {
    num_output: 64
    pad: 2
    kernel_size: 5
    weight_filler {
      type: "xavier"
      std: 0.03
    }
    bias_filler {
      type: "constant"
      value: 0.2
    }
  }
}
layer {
  name: "inception_4b/relu_5x5"
  type: "ReLU"
  bottom: "inception_4b/5x5"
  top: "inception_4b/5x5"
}
layer {
  name: "inception_4b/pool"
  type: "Pooling"
  bottom: "inception_4a/output"
  top: "inception_4b/pool"
  pooling_param {
    pool: MAX
    kernel_size: 3
    stride: 1
    pad: 1
  }
}
layer {
  name: "inception_4b/pool_proj"
  type: "Convolution"
  bottom: "inception_4b/pool"
  top: "inception_4b/pool_proj"
  param {
    lr_mult: 1
    decay_mult: 1
  }
  param {
    lr_mult: 2
    decay_mult: 0
  }
  convolution_param {
    num_output: 64
    kernel_size: 1
    weight_filler {
      type: "xavier"
      std: 0.1
    }
    bias_filler {
      type: "constant"
      value: 0.2
    }
  }
}
layer {
  name: "inception_4b/relu_pool_proj"
  type: "ReLU"
  bottom: "inception_4b/pool_proj"
  top: "inception_4b/pool_proj"
}
layer {
  name: "inception_4b/output"
  type: "Concat"
  bottom: "inception_4b/1x1"
  bottom: "inception_4b/3x3"
  bottom: "inception_4b/5x5"
  bottom: "inception_4b/pool_proj"
  top: "inception_4b/output"
}
layer {
  name: "inception_4c/1x1"
  type: "Convolution"
  bottom: "inception_4b/output"
  top: "inception_4c/1x1"
  param {
    lr_mult: 1
    decay_mult: 1
  }
  param {
    lr_mult: 2
    decay_mult: 0
  }
  convolution_param {
    num_output: 128
    kernel_size: 1
    weight_filler {
      type: "xavier"
      std: 0.03
    }
    bias_filler {
      type: "constant"
      value: 0.2
    }
  }
}
layer {
  name: "inception_4c/relu_1x1"
  type: "ReLU"
  bottom: "inception_4c/1x1"
  top: "inception_4c/1x1"
}
layer {
  name: "inception_4c/3x3_reduce"
  type: "Convolution"
  bottom: "inception_4b/output"
  top: "inception_4c/3x3_reduce"
  param {
    lr_mult: 1
    decay_mult: 1
  }
  param {
    lr_mult: 2
    decay_mult: 0
  }
  convolution_param {
    num_output: 128
    kernel_size: 1
    weight_filler {
      type: "xavier"
      std: 0.09
    }
    bias_filler {
      type: "constant"
      value: 0.2
    }
  }
}
layer {
  name: "inception_4c/relu_3x3_reduce"
  type: "ReLU"
  bottom: "inception_4c/3x3_reduce"
  top: "inception_4c/3x3_reduce"
}
layer {
  name: "inception_4c/3x3"
  type: "Convolution"
  bottom: "inception_4c/3x3_reduce"
  top: "inception_4c/3x3"
  param {
    lr_mult: 1
    decay_mult: 1
  }
  param {
    lr_mult: 2
    decay_mult: 0
  }
  convolution_param {
    num_output: 256
    pad: 1
    kernel_size: 3
    weight_filler {
      type: "xavier"
      std: 0.03
    }
    bias_filler {
      type: "constant"
      value: 0.2
    }
  }
}
layer {
  name: "inception_4c/relu_3x3"
  type: "ReLU"
  bottom: "inception_4c/3x3"
  top: "inception_4c/3x3"
}
layer {
  name: "inception_4c/5x5_reduce"
  type: "Convolution"
  bottom: "inception_4b/output"
  top: "inception_4c/5x5_reduce"
  param {
    lr_mult: 1
    decay_mult: 1
  }
  param {
    lr_mult: 2
    decay_mult: 0
  }
  convolution_param {
    num_output: 24
    kernel_size: 1
    weight_filler {
      type: "xavier"
      std: 0.2
    }
    bias_filler {
      type: "constant"
      value: 0.2
    }
  }
}
layer {
  name: "inception_4c/relu_5x5_reduce"
  type: "ReLU"
  bottom: "inception_4c/5x5_reduce"
  top: "inception_4c/5x5_reduce"
}
layer {
  name: "inception_4c/5x5"
  type: "Convolution"
  bottom: "inception_4c/5x5_reduce"
  top: "inception_4c/5x5"
  param {
    lr_mult: 1
    decay_mult: 1
  }
  param {
    lr_mult: 2
    decay_mult: 0
  }
  convolution_param {
    num_output: 64
    pad: 2
    kernel_size: 5
    weight_filler {
      type: "xavier"
      std: 0.03
    }
    bias_filler {
      type: "constant"
      value: 0.2
    }
  }
}
layer {
  name: "inception_4c/relu_5x5"
  type: "ReLU"
  bottom: "inception_4c/5x5"
  top: "inception_4c/5x5"
}
layer {
  name: "inception_4c/pool"
  type: "Pooling"
  bottom: "inception_4b/output"
  top: "inception_4c/pool"
  pooling_param {
    pool: MAX
    kernel_size: 3
    stride: 1
    pad: 1
  }
}
layer {
  name: "inception_4c/pool_proj"
  type: "Convolution"
  bottom: "inception_4c/pool"
  top: "inception_4c/pool_proj"
  param {
    lr_mult: 1
    decay_mult: 1
  }
  param {
    lr_mult: 2
    decay_mult: 0
  }
  convolution_param {
    num_output: 64
    kernel_size: 1
    weight_filler {
      type: "xavier"
      std: 0.1
    }
    bias_filler {
      type: "constant"
      value: 0.2
    }
  }
}
layer {
  name: "inception_4c/relu_pool_proj"
  type: "ReLU"
  bottom: "inception_4c/pool_proj"
  top: "inception_4c/pool_proj"
}
layer {
  name: "inception_4c/output"
  type: "Concat"
  bottom: "inception_4c/1x1"
  bottom: "inception_4c/3x3"
  bottom: "inception_4c/5x5"
  bottom: "inception_4c/pool_proj"
  top: "inception_4c/output"
}
layer {
  name: "inception_4d/1x1"
  type: "Convolution"
  bottom: "inception_4c/output"
  top: "inception_4d/1x1"
  param {
    lr_mult: 1
    decay_mult: 1
  }
  param {
    lr_mult: 2
    decay_mult: 0
  }
  convolution_param {
    num_output: 112
    kernel_size: 1
    weight_filler {
      type: "xavier"
      std: 0.03
    }
    bias_filler {
      type: "constant"
      value: 0.2
    }
  }
}
layer {
  name: "inception_4d/relu_1x1"
  type: "ReLU"
  bottom: "inception_4d/1x1"
  top: "inception_4d/1x1"
}
layer {
  name: "inception_4d/3x3_reduce"
  type: "Convolution"
  bottom: "inception_4c/output"
  top: "inception_4d/3x3_reduce"
  param {
    lr_mult: 1
    decay_mult: 1
  }
  param {
    lr_mult: 2
    decay_mult: 0
  }
  convolution_param {
    num_output: 144
    kernel_size: 1
    weight_filler {
      type: "xavier"
      std: 0.09
    }
    bias_filler {
      type: "constant"
      value: 0.2
    }
  }
}
layer {
  name: "inception_4d/relu_3x3_reduce"
  type: "ReLU"
  bottom: "inception_4d/3x3_reduce"
  top: "inception_4d/3x3_reduce"
}
layer {
  name: "inception_4d/3x3"
  type: "Convolution"
  bottom: "inception_4d/3x3_reduce"
  top: "inception_4d/3x3"
  param {
    lr_mult: 1
    decay_mult: 1
  }
  param {
    lr_mult: 2
    decay_mult: 0
  }
  convolution_param {
    num_output: 288
    pad: 1
    kernel_size: 3
    weight_filler {
      type: "xavier"
      std: 0.03
    }
    bias_filler {
      type: "constant"
      value: 0.2
    }
  }
}
layer {
  name: "inception_4d/relu_3x3"
  type: "ReLU"
  bottom: "inception_4d/3x3"
  top: "inception_4d/3x3"
}
layer {
  name: "inception_4d/5x5_reduce"
  type: "Convolution"
  bottom: "inception_4c/output"
  top: "inception_4d/5x5_reduce"
  param {
    lr_mult: 1
    decay_mult: 1
  }
  param {
    lr_mult: 2
    decay_mult: 0
  }
  convolution_param {
    num_output: 32
    kernel_size: 1
    weight_filler {
      type: "xavier"
      std: 0.2
    }
    bias_filler {
      type: "constant"
      value: 0.2
    }
  }
}
layer {
  name: "inception_4d/relu_5x5_reduce"
  type: "ReLU"
  bottom: "inception_4d/5x5_reduce"
  top: "inception_4d/5x5_reduce"
}
layer {
  name: "inception_4d/5x5"
  type: "Convolution"
  bottom: "inception_4d/5x5_reduce"
  top: "inception_4d/5x5"
  param {
    lr_mult: 1
    decay_mult: 1
  }
  param {
    lr_mult: 2
    decay_mult: 0
  }
  convolution_param {
    num_output: 64
    pad: 2
    kernel_size: 5
    weight_filler {
      type: "xavier"
      std: 0.03
    }
    bias_filler {
      type: "constant"
      value: 0.2
    }
  }
}
layer {
  name: "inception_4d/relu_5x5"
  type: "ReLU"
  bottom: "inception_4d/5x5"
  top: "inception_4d/5x5"
}
layer {
  name: "inception_4d/pool"
  type: "Pooling"
  bottom: "inception_4c/output"
  top: "inception_4d/pool"
  pooling_param {
    pool: MAX
    kernel_size: 3
    stride: 1
    pad: 1
  }
}
layer {
  name: "inception_4d/pool_proj"
  type: "Convolution"
  bottom: "inception_4d/pool"
  top: "inception_4d/pool_proj"
  param {
    lr_mult: 1
    decay_mult: 1
  }
  param {
    lr_mult: 2
    decay_mult: 0
  }
  convolution_param {
    num_output: 64
    kernel_size: 1
    weight_filler {
      type: "xavier"
      std: 0.1
    }
    bias_filler {
      type: "constant"
      value: 0.2
    }
  }
}
layer {
  name: "inception_4d/relu_pool_proj"
  type: "ReLU"
  bottom: "inception_4d/pool_proj"
  top: "inception_4d/pool_proj"
}
layer {
  name: "inception_4d/output"
  type: "Concat"
  bottom: "inception_4d/1x1"
  bottom: "inception_4d/3x3"
  bottom: "inception_4d/5x5"
  bottom: "inception_4d/pool_proj"
  top: "inception_4d/output"
}
layer {
  name: "loss2/ave_pool"
  type: "Pooling"
  bottom: "inception_4d/output"
  top: "loss2/ave_pool"
  pooling_param {
    pool: AVE
    kernel_size: 5
    stride: 3
  }
}
layer {
  name: "loss2/conv"
  type: "Convolution"
  bottom: "loss2/ave_pool"
  top: "loss2/conv"
  param {
    lr_mult: 1
    decay_mult: 1
  }
  param {
    lr_mult: 2
    decay_mult: 0
  }
  convolution_param {
    num_output: 128
    kernel_size: 1
    weight_filler {
      type: "xavier"
      std: 0.08
    }
    bias_filler {
      type: "constant"
      value: 0.2
    }
  }
}
layer {
  name: "loss2/relu_conv"
  type: "ReLU"
  bottom: "loss2/conv"
  top: "loss2/conv"
}
layer {
  name: "loss2/fc"
  type: "InnerProduct"
  bottom: "loss2/conv"
  top: "loss2/fc"
  param {
    lr_mult: 1
    decay_mult: 1
  }
  param {
    lr_mult: 2
    decay_mult: 0
  }
  inner_product_param {
    num_output: 1024
    weight_filler {
      type: "xavier"
      std: 0.02
    }
    bias_filler {
      type: "constant"
      value: 0.2
    }
  }
}
layer {
  name: "loss2/relu_fc"
  type: "ReLU"
  bottom: "loss2/fc"
  top: "loss2/fc"
}
layer {
  name: "loss2/drop_fc"
  type: "Dropout"
  bottom: "loss2/fc"
  top: "loss2/fc"
  dropout_param {
    dropout_ratio: 0.7
  }
}
layer {
  name: "loss2/classifier_plantvillage"
  type: "InnerProduct"
  bottom: "loss2/fc"
  top: "loss2/classifier_plantvillage"
  param {
    lr_mult: 1
    decay_mult: 1
  }
  param {
    lr_mult: 2
    decay_mult: 0
  }
  inner_product_param {
    num_output: 38
    weight_filler {
      type: "xavier"
      std: 0.0009765625
    }
    bias_filler {
      type: "constant"
      value: 0
    }
  }
}
layer {
  name: "inception_4e/1x1"
  type: "Convolution"
  bottom: "inception_4d/output"
  top: "inception_4e/1x1"
  param {
    lr_mult: 1
    decay_mult: 1
  }
  param {
    lr_mult: 2
    decay_mult: 0
  }
  convolution_param {
    num_output: 256
    kernel_size: 1
    weight_filler {
      type: "xavier"
      std: 0.03
    }
    bias_filler {
      type: "constant"
      value: 0.2
    }
  }
}
layer {
  name: "inception_4e/relu_1x1"
  type: "ReLU"
  bottom: "inception_4e/1x1"
  top: "inception_4e/1x1"
}
layer {
  name: "inception_4e/3x3_reduce"
  type: "Convolution"
  bottom: "inception_4d/output"
  top: "inception_4e/3x3_reduce"
  param {
    lr_mult: 1
    decay_mult: 1
  }
  param {
    lr_mult: 2
    decay_mult: 0
  }
  convolution_param {
    num_output: 160
    kernel_size: 1
    weight_filler {
      type: "xavier"
      std: 0.09
    }
    bias_filler {
      type: "constant"
      value: 0.2
    }
  }
}
layer {
  name: "inception_4e/relu_3x3_reduce"
  type: "ReLU"
  bottom: "inception_4e/3x3_reduce"
  top: "inception_4e/3x3_reduce"
}
layer {
  name: "inception_4e/3x3"
  type: "Convolution"
  bottom: "inception_4e/3x3_reduce"
  top: "inception_4e/3x3"
  param {
    lr_mult: 1
    decay_mult: 1
  }
  param {
    lr_mult: 2
    decay_mult: 0
  }
  convolution_param {
    num_output: 320
    pad: 1
    kernel_size: 3
    weight_filler {
      type: "xavier"
      std: 0.03
    }
    bias_filler {
      type: "constant"
      value: 0.2
    }
  }
}
layer {
  name: "inception_4e/relu_3x3"
  type: "ReLU"
  bottom: "inception_4e/3x3"
  top: "inception_4e/3x3"
}
layer {
  name: "inception_4e/5x5_reduce"
  type: "Convolution"
  bottom: "inception_4d/output"
  top: "inception_4e/5x5_reduce"
  param {
    lr_mult: 1
    decay_mult: 1
  }
  param {
    lr_mult: 2
    decay_mult: 0
  }
  convolution_param {
    num_output: 32
    kernel_size: 1
    weight_filler {
      type: "xavier"
      std: 0.2
    }
    bias_filler {
      type: "constant"
      value: 0.2
    }
  }
}
layer {
  name: "inception_4e/relu_5x5_reduce"
  type: "ReLU"
  bottom: "inception_4e/5x5_reduce"
  top: "inception_4e/5x5_reduce"
}
layer {
  name: "inception_4e/5x5"
  type: "Convolution"
  bottom: "inception_4e/5x5_reduce"
  top: "inception_4e/5x5"
  p
I0403 14:40:58.613412 30117 layer_factory.hpp:77] Creating layer data
I0403 14:40:58.614034 30117 net.cpp:91] Creating Layer data
I0403 14:40:58.614069 30117 net.cpp:399] data -> data
I0403 14:40:58.614123 30117 net.cpp:399] data -> label
I0403 14:40:58.614162 30117 data_transformer.cpp:25] Loading mean file from: /home/mohanty/data/final_dataset/lmdb/color-20-80/mean.binaryproto
I0403 14:40:58.617311 30120 db_lmdb.cpp:38] Opened lmdb /home/mohanty/data/final_dataset/lmdb/color-20-80/test_db
I0403 14:40:58.627631 30117 data_layer.cpp:41] output data size: 24,3,224,224
I0403 14:40:58.654664 30117 net.cpp:141] Setting up data
I0403 14:40:58.654755 30117 net.cpp:148] Top shape: 24 3 224 224 (3612672)
I0403 14:40:58.654779 30117 net.cpp:148] Top shape: 24 (24)
I0403 14:40:58.654796 30117 net.cpp:156] Memory required for data: 14450784
I0403 14:40:58.654826 30117 layer_factory.hpp:77] Creating layer label_data_1_split
I0403 14:40:58.654855 30117 net.cpp:91] Creating Layer label_data_1_split
I0403 14:40:58.654875 30117 net.cpp:425] label_data_1_split <- label
I0403 14:40:58.654908 30117 net.cpp:399] label_data_1_split -> label_data_1_split_0
I0403 14:40:58.654937 30117 net.cpp:399] label_data_1_split -> label_data_1_split_1
I0403 14:40:58.654961 30117 net.cpp:399] label_data_1_split -> label_data_1_split_2
I0403 14:40:58.654984 30117 net.cpp:399] label_data_1_split -> label_data_1_split_3
I0403 14:40:58.655005 30117 net.cpp:399] label_data_1_split -> label_data_1_split_4
I0403 14:40:58.655028 30117 net.cpp:399] label_data_1_split -> label_data_1_split_5
I0403 14:40:58.655050 30117 net.cpp:399] label_data_1_split -> label_data_1_split_6
I0403 14:40:58.655073 30117 net.cpp:399] label_data_1_split -> label_data_1_split_7
I0403 14:40:58.655093 30117 net.cpp:399] label_data_1_split -> label_data_1_split_8
I0403 14:40:58.655117 30117 net.cpp:399] label_data_1_split -> label_data_1_split_9
I0403 14:40:58.655236 30117 net.cpp:141] Setting up label_data_1_split
I0403 14:40:58.655262 30117 net.cpp:148] Top shape: 24 (24)
I0403 14:40:58.655282 30117 net.cpp:148] Top shape: 24 (24)
I0403 14:40:58.655298 30117 net.cpp:148] Top shape: 24 (24)
I0403 14:40:58.655315 30117 net.cpp:148] Top shape: 24 (24)
I0403 14:40:58.655333 30117 net.cpp:148] Top shape: 24 (24)
I0403 14:40:58.655354 30117 net.cpp:148] Top shape: 24 (24)
I0403 14:40:58.655372 30117 net.cpp:148] Top shape: 24 (24)
I0403 14:40:58.655390 30117 net.cpp:148] Top shape: 24 (24)
I0403 14:40:58.655407 30117 net.cpp:148] Top shape: 24 (24)
I0403 14:40:58.655429 30117 net.cpp:148] Top shape: 24 (24)
I0403 14:40:58.655478 30117 net.cpp:156] Memory required for data: 14451744
I0403 14:40:58.655495 30117 layer_factory.hpp:77] Creating layer conv1/7x7_s2
I0403 14:40:58.655529 30117 net.cpp:91] Creating Layer conv1/7x7_s2
I0403 14:40:58.655549 30117 net.cpp:425] conv1/7x7_s2 <- data
I0403 14:40:58.655570 30117 net.cpp:399] conv1/7x7_s2 -> conv1/7x7_s2
I0403 14:40:58.800520 30117 net.cpp:141] Setting up conv1/7x7_s2
I0403 14:40:58.800600 30117 net.cpp:148] Top shape: 24 64 112 112 (19267584)
I0403 14:40:58.800618 30117 net.cpp:156] Memory required for data: 91522080
I0403 14:40:58.800652 30117 layer_factory.hpp:77] Creating layer conv1/relu_7x7
I0403 14:40:58.800679 30117 net.cpp:91] Creating Layer conv1/relu_7x7
I0403 14:40:58.800699 30117 net.cpp:425] conv1/relu_7x7 <- conv1/7x7_s2
I0403 14:40:58.800721 30117 net.cpp:386] conv1/relu_7x7 -> conv1/7x7_s2 (in-place)
I0403 14:40:58.800989 30117 net.cpp:141] Setting up conv1/relu_7x7
I0403 14:40:58.801018 30117 net.cpp:148] Top shape: 24 64 112 112 (19267584)
I0403 14:40:58.801035 30117 net.cpp:156] Memory required for data: 168592416
I0403 14:40:58.801051 30117 layer_factory.hpp:77] Creating layer pool1/3x3_s2
I0403 14:40:58.801079 30117 net.cpp:91] Creating Layer pool1/3x3_s2
I0403 14:40:58.801100 30117 net.cpp:425] pool1/3x3_s2 <- conv1/7x7_s2
I0403 14:40:58.801120 30117 net.cpp:399] pool1/3x3_s2 -> pool1/3x3_s2
I0403 14:40:58.801198 30117 net.cpp:141] Setting up pool1/3x3_s2
I0403 14:40:58.801225 30117 net.cpp:148] Top shape: 24 64 56 56 (4816896)
I0403 14:40:58.801242 30117 net.cpp:156] Memory required for data: 187860000
I0403 14:40:58.801259 30117 layer_factory.hpp:77] Creating layer pool1/norm1
I0403 14:40:58.801285 30117 net.cpp:91] Creating Layer pool1/norm1
I0403 14:40:58.801304 30117 net.cpp:425] pool1/norm1 <- pool1/3x3_s2
I0403 14:40:58.801328 30117 net.cpp:399] pool1/norm1 -> pool1/norm1
I0403 14:40:58.801628 30117 net.cpp:141] Setting up pool1/norm1
I0403 14:40:58.801658 30117 net.cpp:148] Top shape: 24 64 56 56 (4816896)
I0403 14:40:58.801676 30117 net.cpp:156] Memory required for data: 207127584
I0403 14:40:58.801694 30117 layer_factory.hpp:77] Creating layer conv2/3x3_reduce
I0403 14:40:58.801720 30117 net.cpp:91] Creating Layer conv2/3x3_reduce
I0403 14:40:58.801738 30117 net.cpp:425] conv2/3x3_reduce <- pool1/norm1
I0403 14:40:58.801759 30117 net.cpp:399] conv2/3x3_reduce -> conv2/3x3_reduce
I0403 14:40:58.803156 30117 net.cpp:141] Setting up conv2/3x3_reduce
I0403 14:40:58.803187 30117 net.cpp:148] Top shape: 24 64 56 56 (4816896)
I0403 14:40:58.803206 30117 net.cpp:156] Memory required for data: 226395168
I0403 14:40:58.803230 30117 layer_factory.hpp:77] Creating layer conv2/relu_3x3_reduce
I0403 14:40:58.803249 30117 net.cpp:91] Creating Layer conv2/relu_3x3_reduce
I0403 14:40:58.803267 30117 net.cpp:425] conv2/relu_3x3_reduce <- conv2/3x3_reduce
I0403 14:40:58.803287 30117 net.cpp:386] conv2/relu_3x3_reduce -> conv2/3x3_reduce (in-place)
I0403 14:40:58.803566 30117 net.cpp:141] Setting up conv2/relu_3x3_reduce
I0403 14:40:58.803596 30117 net.cpp:148] Top shape: 24 64 56 56 (4816896)
I0403 14:40:58.803612 30117 net.cpp:156] Memory required for data: 245662752
I0403 14:40:58.803629 30117 layer_factory.hpp:77] Creating layer conv2/3x3
I0403 14:40:58.803653 30117 net.cpp:91] Creating Layer conv2/3x3
I0403 14:40:58.803671 30117 net.cpp:425] conv2/3x3 <- conv2/3x3_reduce
I0403 14:40:58.803691 30117 net.cpp:399] conv2/3x3 -> conv2/3x3
I0403 14:40:58.806114 30117 net.cpp:141] Setting up conv2/3x3
I0403 14:40:58.806148 30117 net.cpp:148] Top shape: 24 192 56 56 (14450688)
I0403 14:40:58.806166 30117 net.cpp:156] Memory required for data: 303465504
I0403 14:40:58.806190 30117 layer_factory.hpp:77] Creating layer conv2/relu_3x3
I0403 14:40:58.806210 30117 net.cpp:91] Creating Layer conv2/relu_3x3
I0403 14:40:58.806227 30117 net.cpp:425] conv2/relu_3x3 <- conv2/3x3
I0403 14:40:58.806246 30117 net.cpp:386] conv2/relu_3x3 -> conv2/3x3 (in-place)
I0403 14:40:58.806424 30117 net.cpp:141] Setting up conv2/relu_3x3
I0403 14:40:58.806452 30117 net.cpp:148] Top shape: 24 192 56 56 (14450688)
I0403 14:40:58.806504 30117 net.cpp:156] Memory required for data: 361268256
I0403 14:40:58.806522 30117 layer_factory.hpp:77] Creating layer conv2/norm2
I0403 14:40:58.806542 30117 net.cpp:91] Creating Layer conv2/norm2
I0403 14:40:58.806560 30117 net.cpp:425] conv2/norm2 <- conv2/3x3
I0403 14:40:58.806579 30117 net.cpp:399] conv2/norm2 -> conv2/norm2
I0403 14:40:58.806880 30117 net.cpp:141] Setting up conv2/norm2
I0403 14:40:58.806911 30117 net.cpp:148] Top shape: 24 192 56 56 (14450688)
I0403 14:40:58.806929 30117 net.cpp:156] Memory required for data: 419071008
I0403 14:40:58.806946 30117 layer_factory.hpp:77] Creating layer pool2/3x3_s2
I0403 14:40:58.806967 30117 net.cpp:91] Creating Layer pool2/3x3_s2
I0403 14:40:58.806982 30117 net.cpp:425] pool2/3x3_s2 <- conv2/norm2
I0403 14:40:58.807000 30117 net.cpp:399] pool2/3x3_s2 -> pool2/3x3_s2
I0403 14:40:58.807054 30117 net.cpp:141] Setting up pool2/3x3_s2
I0403 14:40:58.807080 30117 net.cpp:148] Top shape: 24 192 28 28 (3612672)
I0403 14:40:58.807096 30117 net.cpp:156] Memory required for data: 433521696
I0403 14:40:58.807112 30117 layer_factory.hpp:77] Creating layer pool2/3x3_s2_pool2/3x3_s2_0_split
I0403 14:40:58.807132 30117 net.cpp:91] Creating Layer pool2/3x3_s2_pool2/3x3_s2_0_split
I0403 14:40:58.807147 30117 net.cpp:425] pool2/3x3_s2_pool2/3x3_s2_0_split <- pool2/3x3_s2
I0403 14:40:58.807164 30117 net.cpp:399] pool2/3x3_s2_pool2/3x3_s2_0_split -> pool2/3x3_s2_pool2/3x3_s2_0_split_0
I0403 14:40:58.807186 30117 net.cpp:399] pool2/3x3_s2_pool2/3x3_s2_0_split -> pool2/3x3_s2_pool2/3x3_s2_0_split_1
I0403 14:40:58.807207 30117 net.cpp:399] pool2/3x3_s2_pool2/3x3_s2_0_split -> pool2/3x3_s2_pool2/3x3_s2_0_split_2
I0403 14:40:58.807229 30117 net.cpp:399] pool2/3x3_s2_pool2/3x3_s2_0_split -> pool2/3x3_s2_pool2/3x3_s2_0_split_3
I0403 14:40:58.807297 30117 net.cpp:141] Setting up pool2/3x3_s2_pool2/3x3_s2_0_split
I0403 14:40:58.807327 30117 net.cpp:148] Top shape: 24 192 28 28 (3612672)
I0403 14:40:58.807346 30117 net.cpp:148] Top shape: 24 192 28 28 (3612672)
I0403 14:40:58.807363 30117 net.cpp:148] Top shape: 24 192 28 28 (3612672)
I0403 14:40:58.807381 30117 net.cpp:148] Top shape: 24 192 28 28 (3612672)
I0403 14:40:58.807397 30117 net.cpp:156] Memory required for data: 491324448
I0403 14:40:58.807412 30117 layer_factory.hpp:77] Creating layer inception_3a/1x1
I0403 14:40:58.807435 30117 net.cpp:91] Creating Layer inception_3a/1x1
I0403 14:40:58.807451 30117 net.cpp:425] inception_3a/1x1 <- pool2/3x3_s2_pool2/3x3_s2_0_split_0
I0403 14:40:58.807471 30117 net.cpp:399] inception_3a/1x1 -> inception_3a/1x1
I0403 14:40:58.809041 30117 net.cpp:141] Setting up inception_3a/1x1
I0403 14:40:58.809072 30117 net.cpp:148] Top shape: 24 64 28 28 (1204224)
I0403 14:40:58.809089 30117 net.cpp:156] Memory required for data: 496141344
I0403 14:40:58.809109 30117 layer_factory.hpp:77] Creating layer inception_3a/relu_1x1
I0403 14:40:58.809133 30117 net.cpp:91] Creating Layer inception_3a/relu_1x1
I0403 14:40:58.809151 30117 net.cpp:425] inception_3a/relu_1x1 <- inception_3a/1x1
I0403 14:40:58.809170 30117 net.cpp:386] inception_3a/relu_1x1 -> inception_3a/1x1 (in-place)
I0403 14:40:58.809361 30117 net.cpp:141] Setting up inception_3a/relu_1x1
I0403 14:40:58.809391 30117 net.cpp:148] Top shape: 24 64 28 28 (1204224)
I0403 14:40:58.809408 30117 net.cpp:156] Memory required for data: 500958240
I0403 14:40:58.809425 30117 layer_factory.hpp:77] Creating layer inception_3a/3x3_reduce
I0403 14:40:58.809449 30117 net.cpp:91] Creating Layer inception_3a/3x3_reduce
I0403 14:40:58.809469 30117 net.cpp:425] inception_3a/3x3_reduce <- pool2/3x3_s2_pool2/3x3_s2_0_split_1
I0403 14:40:58.809490 30117 net.cpp:399] inception_3a/3x3_reduce -> inception_3a/3x3_reduce
I0403 14:40:58.811234 30117 net.cpp:141] Setting up inception_3a/3x3_reduce
I0403 14:40:58.811275 30117 net.cpp:148] Top shape: 24 96 28 28 (1806336)
I0403 14:40:58.811293 30117 net.cpp:156] Memory required for data: 508183584
I0403 14:40:58.811324 30117 layer_factory.hpp:77] Creating layer inception_3a/relu_3x3_reduce
I0403 14:40:58.811362 30117 net.cpp:91] Creating Layer inception_3a/relu_3x3_reduce
I0403 14:40:58.811388 30117 net.cpp:425] inception_3a/relu_3x3_reduce <- inception_3a/3x3_reduce
I0403 14:40:58.811409 30117 net.cpp:386] inception_3a/relu_3x3_reduce -> inception_3a/3x3_reduce (in-place)
I0403 14:40:58.811601 30117 net.cpp:141] Setting up inception_3a/relu_3x3_reduce
I0403 14:40:58.811630 30117 net.cpp:148] Top shape: 24 96 28 28 (1806336)
I0403 14:40:58.811645 30117 net.cpp:156] Memory required for data: 515408928
I0403 14:40:58.811662 30117 layer_factory.hpp:77] Creating layer inception_3a/3x3
I0403 14:40:58.811686 30117 net.cpp:91] Creating Layer inception_3a/3x3
I0403 14:40:58.811704 30117 net.cpp:425] inception_3a/3x3 <- inception_3a/3x3_reduce
I0403 14:40:58.811730 30117 net.cpp:399] inception_3a/3x3 -> inception_3a/3x3
I0403 14:40:58.813482 30117 net.cpp:141] Setting up inception_3a/3x3
I0403 14:40:58.813513 30117 net.cpp:148] Top shape: 24 128 28 28 (2408448)
I0403 14:40:58.813530 30117 net.cpp:156] Memory required for data: 525042720
I0403 14:40:58.813554 30117 layer_factory.hpp:77] Creating layer inception_3a/relu_3x3
I0403 14:40:58.813573 30117 net.cpp:91] Creating Layer inception_3a/relu_3x3
I0403 14:40:58.813591 30117 net.cpp:425] inception_3a/relu_3x3 <- inception_3a/3x3
I0403 14:40:58.813609 30117 net.cpp:386] inception_3a/relu_3x3 -> inception_3a/3x3 (in-place)
I0403 14:40:58.813896 30117 net.cpp:141] Setting up inception_3a/relu_3x3
I0403 14:40:58.813926 30117 net.cpp:148] Top shape: 24 128 28 28 (2408448)
I0403 14:40:58.813942 30117 net.cpp:156] Memory required for data: 534676512
I0403 14:40:58.813959 30117 layer_factory.hpp:77] Creating layer inception_3a/5x5_reduce
I0403 14:40:58.813988 30117 net.cpp:91] Creating Layer inception_3a/5x5_reduce
I0403 14:40:58.814007 30117 net.cpp:425] inception_3a/5x5_reduce <- pool2/3x3_s2_pool2/3x3_s2_0_split_2
I0403 14:40:58.814029 30117 net.cpp:399] inception_3a/5x5_reduce -> inception_3a/5x5_reduce
I0403 14:40:58.815039 30117 net.cpp:141] Setting up inception_3a/5x5_reduce
I0403 14:40:58.815073 30117 net.cpp:148] Top shape: 24 16 28 28 (301056)
I0403 14:40:58.815090 30117 net.cpp:156] Memory required for data: 535880736
I0403 14:40:58.815109 30117 layer_factory.hpp:77] Creating layer inception_3a/relu_5x5_reduce
I0403 14:40:58.815130 30117 net.cpp:91] Creating Layer inception_3a/relu_5x5_reduce
I0403 14:40:58.815148 30117 net.cpp:425] inception_3a/relu_5x5_reduce <- inception_3a/5x5_reduce
I0403 14:40:58.815171 30117 net.cpp:386] inception_3a/relu_5x5_reduce -> inception_3a/5x5_reduce (in-place)
I0403 14:40:58.815477 30117 net.cpp:141] Setting up inception_3a/relu_5x5_reduce
I0403 14:40:58.815507 30117 net.cpp:148] Top shape: 24 16 28 28 (301056)
I0403 14:40:58.815523 30117 net.cpp:156] Memory required for data: 537084960
I0403 14:40:58.815541 30117 layer_factory.hpp:77] Creating layer inception_3a/5x5
I0403 14:40:58.815564 30117 net.cpp:91] Creating Layer inception_3a/5x5
I0403 14:40:58.815583 30117 net.cpp:425] inception_3a/5x5 <- inception_3a/5x5_reduce
I0403 14:40:58.815605 30117 net.cpp:399] inception_3a/5x5 -> inception_3a/5x5
I0403 14:40:58.816669 30117 net.cpp:141] Setting up inception_3a/5x5
I0403 14:40:58.816699 30117 net.cpp:148] Top shape: 24 32 28 28 (602112)
I0403 14:40:58.816716 30117 net.cpp:156] Memory required for data: 539493408
I0403 14:40:58.816736 30117 layer_factory.hpp:77] Creating layer inception_3a/relu_5x5
I0403 14:40:58.816758 30117 net.cpp:91] Creating Layer inception_3a/relu_5x5
I0403 14:40:58.816777 30117 net.cpp:425] inception_3a/relu_5x5 <- inception_3a/5x5
I0403 14:40:58.816797 30117 net.cpp:386] inception_3a/relu_5x5 -> inception_3a/5x5 (in-place)
I0403 14:40:58.816980 30117 net.cpp:141] Setting up inception_3a/relu_5x5
I0403 14:40:58.817008 30117 net.cpp:148] Top shape: 24 32 28 28 (602112)
I0403 14:40:58.817023 30117 net.cpp:156] Memory required for data: 541901856
I0403 14:40:58.817039 30117 layer_factory.hpp:77] Creating layer inception_3a/pool
I0403 14:40:58.817059 30117 net.cpp:91] Creating Layer inception_3a/pool
I0403 14:40:58.817076 30117 net.cpp:425] inception_3a/pool <- pool2/3x3_s2_pool2/3x3_s2_0_split_3
I0403 14:40:58.817119 30117 net.cpp:399] inception_3a/pool -> inception_3a/pool
I0403 14:40:58.817183 30117 net.cpp:141] Setting up inception_3a/pool
I0403 14:40:58.817208 30117 net.cpp:148] Top shape: 24 192 28 28 (3612672)
I0403 14:40:58.817224 30117 net.cpp:156] Memory required for data: 556352544
I0403 14:40:58.817240 30117 layer_factory.hpp:77] Creating layer inception_3a/pool_proj
I0403 14:40:58.817278 30117 net.cpp:91] Creating Layer inception_3a/pool_proj
I0403 14:40:58.817299 30117 net.cpp:425] inception_3a/pool_proj <- inception_3a/pool
I0403 14:40:58.817332 30117 net.cpp:399] inception_3a/pool_proj -> inception_3a/pool_proj
I0403 14:40:58.818356 30117 net.cpp:141] Setting up inception_3a/pool_proj
I0403 14:40:58.818387 30117 net.cpp:148] Top shape: 24 32 28 28 (602112)
I0403 14:40:58.818403 30117 net.cpp:156] Memory required for data: 558760992
I0403 14:40:58.818429 30117 layer_factory.hpp:77] Creating layer inception_3a/relu_pool_proj
I0403 14:40:58.818450 30117 net.cpp:91] Creating Layer inception_3a/relu_pool_proj
I0403 14:40:58.818469 30117 net.cpp:425] inception_3a/relu_pool_proj <- inception_3a/pool_proj
I0403 14:40:58.818490 30117 net.cpp:386] inception_3a/relu_pool_proj -> inception_3a/pool_proj (in-place)
I0403 14:40:58.818783 30117 net.cpp:141] Setting up inception_3a/relu_pool_proj
I0403 14:40:58.818812 30117 net.cpp:148] Top shape: 24 32 28 28 (602112)
I0403 14:40:58.818828 30117 net.cpp:156] Memory required for data: 561169440
I0403 14:40:58.818845 30117 layer_factory.hpp:77] Creating layer inception_3a/output
I0403 14:40:58.818867 30117 net.cpp:91] Creating Layer inception_3a/output
I0403 14:40:58.818886 30117 net.cpp:425] inception_3a/output <- inception_3a/1x1
I0403 14:40:58.818907 30117 net.cpp:425] inception_3a/output <- inception_3a/3x3
I0403 14:40:58.818924 30117 net.cpp:425] inception_3a/output <- inception_3a/5x5
I0403 14:40:58.818941 30117 net.cpp:425] inception_3a/output <- inception_3a/pool_proj
I0403 14:40:58.818959 30117 net.cpp:399] inception_3a/output -> inception_3a/output
I0403 14:40:58.819011 30117 net.cpp:141] Setting up inception_3a/output
I0403 14:40:58.819037 30117 net.cpp:148] Top shape: 24 256 28 28 (4816896)
I0403 14:40:58.819053 30117 net.cpp:156] Memory required for data: 580437024
I0403 14:40:58.819069 30117 layer_factory.hpp:77] Creating layer inception_3a/output_inception_3a/output_0_split
I0403 14:40:58.819088 30117 net.cpp:91] Creating Layer inception_3a/output_inception_3a/output_0_split
I0403 14:40:58.819106 30117 net.cpp:425] inception_3a/output_inception_3a/output_0_split <- inception_3a/output
I0403 14:40:58.819128 30117 net.cpp:399] inception_3a/output_inception_3a/output_0_split -> inception_3a/output_inception_3a/output_0_split_0
I0403 14:40:58.819150 30117 net.cpp:399] inception_3a/output_inception_3a/output_0_split -> inception_3a/output_inception_3a/output_0_split_1
I0403 14:40:58.819177 30117 net.cpp:399] inception_3a/output_inception_3a/output_0_split -> inception_3a/output_inception_3a/output_0_split_2
I0403 14:40:58.819201 30117 net.cpp:399] inception_3a/output_inception_3a/output_0_split -> inception_3a/output_inception_3a/output_0_split_3
I0403 14:40:58.819278 30117 net.cpp:141] Setting up inception_3a/output_inception_3a/output_0_split
I0403 14:40:58.819303 30117 net.cpp:148] Top shape: 24 256 28 28 (4816896)
I0403 14:40:58.819339 30117 net.cpp:148] Top shape: 24 256 28 28 (4816896)
I0403 14:40:58.819360 30117 net.cpp:148] Top shape: 24 256 28 28 (4816896)
I0403 14:40:58.819377 30117 net.cpp:148] Top shape: 24 256 28 28 (4816896)
I0403 14:40:58.819392 30117 net.cpp:156] Memory required for data: 657507360
I0403 14:40:58.819408 30117 layer_factory.hpp:77] Creating layer inception_3b/1x1
I0403 14:40:58.819430 30117 net.cpp:91] Creating Layer inception_3b/1x1
I0403 14:40:58.819449 30117 net.cpp:425] inception_3b/1x1 <- inception_3a/output_inception_3a/output_0_split_0
I0403 14:40:58.819471 30117 net.cpp:399] inception_3b/1x1 -> inception_3b/1x1
I0403 14:40:58.820683 30117 net.cpp:141] Setting up inception_3b/1x1
I0403 14:40:58.820725 30117 net.cpp:148] Top shape: 24 128 28 28 (2408448)
I0403 14:40:58.820742 30117 net.cpp:156] Memory required for data: 667141152
I0403 14:40:58.820762 30117 layer_factory.hpp:77] Creating layer inception_3b/relu_1x1
I0403 14:40:58.820785 30117 net.cpp:91] Creating Layer inception_3b/relu_1x1
I0403 14:40:58.820803 30117 net.cpp:425] inception_3b/relu_1x1 <- inception_3b/1x1
I0403 14:40:58.820822 30117 net.cpp:386] inception_3b/relu_1x1 -> inception_3b/1x1 (in-place)
I0403 14:40:58.821003 30117 net.cpp:141] Setting up inception_3b/relu_1x1
I0403 14:40:58.821033 30117 net.cpp:148] Top shape: 24 128 28 28 (2408448)
I0403 14:40:58.821048 30117 net.cpp:156] Memory required for data: 676774944
I0403 14:40:58.821064 30117 layer_factory.hpp:77] Creating layer inception_3b/3x3_reduce
I0403 14:40:58.821089 30117 net.cpp:91] Creating Layer inception_3b/3x3_reduce
I0403 14:40:58.821106 30117 net.cpp:425] inception_3b/3x3_reduce <- inception_3a/output_inception_3a/output_0_split_1
I0403 14:40:58.821125 30117 net.cpp:399] inception_3b/3x3_reduce -> inception_3b/3x3_reduce
I0403 14:40:58.822284 30117 net.cpp:141] Setting up inception_3b/3x3_reduce
I0403 14:40:58.822319 30117 net.cpp:148] Top shape: 24 128 28 28 (2408448)
I0403 14:40:58.822337 30117 net.cpp:156] Memory required for data: 686408736
I0403 14:40:58.822357 30117 layer_factory.hpp:77] Creating layer inception_3b/relu_3x3_reduce
I0403 14:40:58.822379 30117 net.cpp:91] Creating Layer inception_3b/relu_3x3_reduce
I0403 14:40:58.822398 30117 net.cpp:425] inception_3b/relu_3x3_reduce <- inception_3b/3x3_reduce
I0403 14:40:58.822417 30117 net.cpp:386] inception_3b/relu_3x3_reduce -> inception_3b/3x3_reduce (in-place)
I0403 14:40:58.822597 30117 net.cpp:141] Setting up inception_3b/relu_3x3_reduce
I0403 14:40:58.822625 30117 net.cpp:148] Top shape: 24 128 28 28 (2408448)
I0403 14:40:58.822641 30117 net.cpp:156] Memory required for data: 696042528
I0403 14:40:58.822659 30117 layer_factory.hpp:77] Creating layer inception_3b/3x3
I0403 14:40:58.822685 30117 net.cpp:91] Creating Layer inception_3b/3x3
I0403 14:40:58.822703 30117 net.cpp:425] inception_3b/3x3 <- inception_3b/3x3_reduce
I0403 14:40:58.822726 30117 net.cpp:399] inception_3b/3x3 -> inception_3b/3x3
I0403 14:40:58.825696 30117 net.cpp:141] Setting up inception_3b/3x3
I0403 14:40:58.825726 30117 net.cpp:148] Top shape: 24 192 28 28 (3612672)
I0403 14:40:58.825744 30117 net.cpp:156] Memory required for data: 710493216
I0403 14:40:58.825764 30117 layer_factory.hpp:77] Creating layer inception_3b/relu_3x3
I0403 14:40:58.825789 30117 net.cpp:91] Creating Layer inception_3b/relu_3x3
I0403 14:40:58.825808 30117 net.cpp:425] inception_3b/relu_3x3 <- inception_3b/3x3
I0403 14:40:58.825826 30117 net.cpp:386] inception_3b/relu_3x3 -> inception_3b/3x3 (in-place)
I0403 14:40:58.826110 30117 net.cpp:141] Setting up inception_3b/relu_3x3
I0403 14:40:58.826138 30117 net.cpp:148] Top shape: 24 192 28 28 (3612672)
I0403 14:40:58.826154 30117 net.cpp:156] Memory required for data: 724943904
I0403 14:40:58.826169 30117 layer_factory.hpp:77] Creating layer inception_3b/5x5_reduce
I0403 14:40:58.826195 30117 net.cpp:91] Creating Layer inception_3b/5x5_reduce
I0403 14:40:58.826215 30117 net.cpp:425] inception_3b/5x5_reduce <- inception_3a/output_inception_3a/output_0_split_2
I0403 14:40:58.826236 30117 net.cpp:399] inception_3b/5x5_reduce -> inception_3b/5x5_reduce
I0403 14:40:58.827255 30117 net.cpp:141] Setting up inception_3b/5x5_reduce
I0403 14:40:58.827285 30117 net.cpp:148] Top shape: 24 32 28 28 (602112)
I0403 14:40:58.827301 30117 net.cpp:156] Memory required for data: 727352352
I0403 14:40:58.827325 30117 layer_factory.hpp:77] Creating layer inception_3b/relu_5x5_reduce
I0403 14:40:58.827348 30117 net.cpp:91] Creating Layer inception_3b/relu_5x5_reduce
I0403 14:40:58.827379 30117 net.cpp:425] inception_3b/relu_5x5_reduce <- inception_3b/5x5_reduce
I0403 14:40:58.827399 30117 net.cpp:386] inception_3b/relu_5x5_reduce -> inception_3b/5x5_reduce (in-place)
I0403 14:40:58.827615 30117 net.cpp:141] Setting up inception_3b/relu_5x5_reduce
I0403 14:40:58.827656 30117 net.cpp:148] Top shape: 24 32 28 28 (602112)
I0403 14:40:58.827672 30117 net.cpp:156] Memory required for data: 729760800
I0403 14:40:58.827687 30117 layer_factory.hpp:77] Creating layer inception_3b/5x5
I0403 14:40:58.827713 30117 net.cpp:91] Creating Layer inception_3b/5x5
I0403 14:40:58.827731 30117 net.cpp:425] inception_3b/5x5 <- inception_3b/5x5_reduce
I0403 14:40:58.827754 30117 net.cpp:399] inception_3b/5x5 -> inception_3b/5x5
I0403 14:40:58.829830 30117 net.cpp:141] Setting up inception_3b/5x5
I0403 14:40:58.829864 30117 net.cpp:148] Top shape: 24 96 28 28 (1806336)
I0403 14:40:58.829880 30117 net.cpp:156] Memory required for data: 736986144
I0403 14:40:58.829901 30117 layer_factory.hpp:77] Creating layer inception_3b/relu_5x5
I0403 14:40:58.829923 30117 net.cpp:91] Creating Layer inception_3b/relu_5x5
I0403 14:40:58.829941 30117 net.cpp:425] inception_3b/relu_5x5 <- inception_3b/5x5
I0403 14:40:58.829962 30117 net.cpp:386] inception_3b/relu_5x5 -> inception_3b/5x5 (in-place)
I0403 14:40:58.830168 30117 net.cpp:141] Setting up inception_3b/relu_5x5
I0403 14:40:58.830196 30117 net.cpp:148] Top shape: 24 96 28 28 (1806336)
I0403 14:40:58.830212 30117 net.cpp:156] Memory required for data: 744211488
I0403 14:40:58.830229 30117 layer_factory.hpp:77] Creating layer inception_3b/pool
I0403 14:40:58.830248 30117 net.cpp:91] Creating Layer inception_3b/pool
I0403 14:40:58.830267 30117 net.cpp:425] inception_3b/pool <- inception_3a/output_inception_3a/output_0_split_3
I0403 14:40:58.830287 30117 net.cpp:399] inception_3b/pool -> inception_3b/pool
I0403 14:40:58.830351 30117 net.cpp:141] Setting up inception_3b/pool
I0403 14:40:58.830379 30117 net.cpp:148] Top shape: 24 256 28 28 (4816896)
I0403 14:40:58.830394 30117 net.cpp:156] Memory required for data: 763479072
I0403 14:40:58.830410 30117 layer_factory.hpp:77] Creating layer inception_3b/pool_proj
I0403 14:40:58.830435 30117 net.cpp:91] Creating Layer inception_3b/pool_proj
I0403 14:40:58.830454 30117 net.cpp:425] inception_3b/pool_proj <- inception_3b/pool
I0403 14:40:58.830476 30117 net.cpp:399] inception_3b/pool_proj -> inception_3b/pool_proj
I0403 14:40:58.831578 30117 net.cpp:141] Setting up inception_3b/pool_proj
I0403 14:40:58.831609 30117 net.cpp:148] Top shape: 24 64 28 28 (1204224)
I0403 14:40:58.831626 30117 net.cpp:156] Memory required for data: 768295968
I0403 14:40:58.831647 30117 layer_factory.hpp:77] Creating layer inception_3b/relu_pool_proj
I0403 14:40:58.831667 30117 net.cpp:91] Creating Layer inception_3b/relu_pool_proj
I0403 14:40:58.831684 30117 net.cpp:425] inception_3b/relu_pool_proj <- inception_3b/pool_proj
I0403 14:40:58.831707 30117 net.cpp:386] inception_3b/relu_pool_proj -> inception_3b/pool_proj (in-place)
I0403 14:40:58.832121 30117 net.cpp:141] Setting up inception_3b/relu_pool_proj
I0403 14:40:58.832152 30117 net.cpp:148] Top shape: 24 64 28 28 (1204224)
I0403 14:40:58.832171 30117 net.cpp:156] Memory required for data: 773112864
I0403 14:40:58.832187 30117 layer_factory.hpp:77] Creating layer inception_3b/output
I0403 14:40:58.832206 30117 net.cpp:91] Creating Layer inception_3b/output
I0403 14:40:58.832222 30117 net.cpp:425] inception_3b/output <- inception_3b/1x1
I0403 14:40:58.832240 30117 net.cpp:425] inception_3b/output <- inception_3b/3x3
I0403 14:40:58.832259 30117 net.cpp:425] inception_3b/output <- inception_3b/5x5
I0403 14:40:58.832278 30117 net.cpp:425] inception_3b/output <- inception_3b/pool_proj
I0403 14:40:58.832298 30117 net.cpp:399] inception_3b/output -> inception_3b/output
I0403 14:40:58.832350 30117 net.cpp:141] Setting up inception_3b/output
I0403 14:40:58.832376 30117 net.cpp:148] Top shape: 24 480 28 28 (9031680)
I0403 14:40:58.832391 30117 net.cpp:156] Memory required for data: 809239584
I0403 14:40:58.832408 30117 layer_factory.hpp:77] Creating layer pool3/3x3_s2
I0403 14:40:58.832430 30117 net.cpp:91] Creating Layer pool3/3x3_s2
I0403 14:40:58.832449 30117 net.cpp:425] pool3/3x3_s2 <- inception_3b/output
I0403 14:40:58.832469 30117 net.cpp:399] pool3/3x3_s2 -> pool3/3x3_s2
I0403 14:40:58.832548 30117 net.cpp:141] Setting up pool3/3x3_s2
I0403 14:40:58.832573 30117 net.cpp:148] Top shape: 24 480 14 14 (2257920)
I0403 14:40:58.832590 30117 net.cpp:156] Memory required for data: 818271264
I0403 14:40:58.832607 30117 layer_factory.hpp:77] Creating layer pool3/3x3_s2_pool3/3x3_s2_0_split
I0403 14:40:58.832626 30117 net.cpp:91] Creating Layer pool3/3x3_s2_pool3/3x3_s2_0_split
I0403 14:40:58.832643 30117 net.cpp:425] pool3/3x3_s2_pool3/3x3_s2_0_split <- pool3/3x3_s2
I0403 14:40:58.832664 30117 net.cpp:399] pool3/3x3_s2_pool3/3x3_s2_0_split -> pool3/3x3_s2_pool3/3x3_s2_0_split_0
I0403 14:40:58.832685 30117 net.cpp:399] pool3/3x3_s2_pool3/3x3_s2_0_split -> pool3/3x3_s2_pool3/3x3_s2_0_split_1
I0403 14:40:58.832707 30117 net.cpp:399] pool3/3x3_s2_pool3/3x3_s2_0_split -> pool3/3x3_s2_pool3/3x3_s2_0_split_2
I0403 14:40:58.832728 30117 net.cpp:399] pool3/3x3_s2_pool3/3x3_s2_0_split -> pool3/3x3_s2_pool3/3x3_s2_0_split_3
I0403 14:40:58.832809 30117 net.cpp:141] Setting up pool3/3x3_s2_pool3/3x3_s2_0_split
I0403 14:40:58.832834 30117 net.cpp:148] Top shape: 24 480 14 14 (2257920)
I0403 14:40:58.832852 30117 net.cpp:148] Top shape: 24 480 14 14 (2257920)
I0403 14:40:58.832870 30117 net.cpp:148] Top shape: 24 480 14 14 (2257920)
I0403 14:40:58.832887 30117 net.cpp:148] Top shape: 24 480 14 14 (2257920)
I0403 14:40:58.832902 30117 net.cpp:156] Memory required for data: 854397984
I0403 14:40:58.832917 30117 layer_factory.hpp:77] Creating layer inception_4a/1x1
I0403 14:40:58.832942 30117 net.cpp:91] Creating Layer inception_4a/1x1
I0403 14:40:58.832960 30117 net.cpp:425] inception_4a/1x1 <- pool3/3x3_s2_pool3/3x3_s2_0_split_0
I0403 14:40:58.832983 30117 net.cpp:399] inception_4a/1x1 -> inception_4a/1x1
I0403 14:40:58.834678 30117 net.cpp:141] Setting up inception_4a/1x1
I0403 14:40:58.834710 30117 net.cpp:148] Top shape: 24 192 14 14 (903168)
I0403 14:40:58.834728 30117 net.cpp:156] Memory required for data: 858010656
I0403 14:40:58.834748 30117 layer_factory.hpp:77] Creating layer inception_4a/relu_1x1
I0403 14:40:58.834767 30117 net.cpp:91] Creating Layer inception_4a/relu_1x1
I0403 14:40:58.834784 30117 net.cpp:425] inception_4a/relu_1x1 <- inception_4a/1x1
I0403 14:40:58.834806 30117 net.cpp:386] inception_4a/relu_1x1 -> inception_4a/1x1 (in-place)
I0403 14:40:58.834990 30117 net.cpp:141] Setting up inception_4a/relu_1x1
I0403 14:40:58.835019 30117 net.cpp:148] Top shape: 24 192 14 14 (903168)
I0403 14:40:58.835036 30117 net.cpp:156] Memory required for data: 861623328
I0403 14:40:58.835052 30117 layer_factory.hpp:77] Creating layer inception_4a/3x3_reduce
I0403 14:40:58.835077 30117 net.cpp:91] Creating Layer inception_4a/3x3_reduce
I0403 14:40:58.835095 30117 net.cpp:425] inception_4a/3x3_reduce <- pool3/3x3_s2_pool3/3x3_s2_0_split_1
I0403 14:40:58.835119 30117 net.cpp:399] inception_4a/3x3_reduce -> inception_4a/3x3_reduce
I0403 14:40:58.836498 30117 net.cpp:141] Setting up inception_4a/3x3_reduce
I0403 14:40:58.836529 30117 net.cpp:148] Top shape: 24 96 14 14 (451584)
I0403 14:40:58.836551 30117 net.cpp:156] Memory required for data: 863429664
I0403 14:40:58.836590 30117 layer_factory.hpp:77] Creating layer inception_4a/relu_3x3_reduce
I0403 14:40:58.836616 30117 net.cpp:91] Creating Layer inception_4a/relu_3x3_reduce
I0403 14:40:58.836632 30117 net.cpp:425] inception_4a/relu_3x3_reduce <- inception_4a/3x3_reduce
I0403 14:40:58.836657 30117 net.cpp:386] inception_4a/relu_3x3_reduce -> inception_4a/3x3_reduce (in-place)
I0403 14:40:58.836850 30117 net.cpp:141] Setting up inception_4a/relu_3x3_reduce
I0403 14:40:58.836879 30117 net.cpp:148] Top shape: 24 96 14 14 (451584)
I0403 14:40:58.836894 30117 net.cpp:156] Memory required for data: 865236000
I0403 14:40:58.836910 30117 layer_factory.hpp:77] Creating layer inception_4a/3x3
I0403 14:40:58.836935 30117 net.cpp:91] Creating Layer inception_4a/3x3
I0403 14:40:58.836961 30117 net.cpp:425] inception_4a/3x3 <- inception_4a/3x3_reduce
I0403 14:40:58.836987 30117 net.cpp:399] inception_4a/3x3 -> inception_4a/3x3
I0403 14:40:58.839829 30117 net.cpp:141] Setting up inception_4a/3x3
I0403 14:40:58.839860 30117 net.cpp:148] Top shape: 24 208 14 14 (978432)
I0403 14:40:58.839882 30117 net.cpp:156] Memory required for data: 869149728
I0403 14:40:58.839905 30117 layer_factory.hpp:77] Creating layer inception_4a/relu_3x3
I0403 14:40:58.839929 30117 net.cpp:91] Creating Layer inception_4a/relu_3x3
I0403 14:40:58.839948 30117 net.cpp:425] inception_4a/relu_3x3 <- inception_4a/3x3
I0403 14:40:58.839968 30117 net.cpp:386] inception_4a/relu_3x3 -> inception_4a/3x3 (in-place)
I0403 14:40:58.840258 30117 net.cpp:141] Setting up inception_4a/relu_3x3
I0403 14:40:58.840291 30117 net.cpp:148] Top shape: 24 208 14 14 (978432)
I0403 14:40:58.840306 30117 net.cpp:156] Memory required for data: 873063456
I0403 14:40:58.840327 30117 layer_factory.hpp:77] Creating layer inception_4a/5x5_reduce
I0403 14:40:58.840356 30117 net.cpp:91] Creating Layer inception_4a/5x5_reduce
I0403 14:40:58.840376 30117 net.cpp:425] inception_4a/5x5_reduce <- pool3/3x3_s2_pool3/3x3_s2_0_split_2
I0403 14:40:58.840402 30117 net.cpp:399] inception_4a/5x5_reduce -> inception_4a/5x5_reduce
I0403 14:40:58.841475 30117 net.cpp:141] Setting up inception_4a/5x5_reduce
I0403 14:40:58.841506 30117 net.cpp:148] Top shape: 24 16 14 14 (75264)
I0403 14:40:58.841523 30117 net.cpp:156] Memory required for data: 873364512
I0403 14:40:58.841543 30117 layer_factory.hpp:77] Creating layer inception_4a/relu_5x5_reduce
I0403 14:40:58.841565 30117 net.cpp:91] Creating Layer inception_4a/relu_5x5_reduce
I0403 14:40:58.841585 30117 net.cpp:425] inception_4a/relu_5x5_reduce <- inception_4a/5x5_reduce
I0403 14:40:58.841605 30117 net.cpp:386] inception_4a/relu_5x5_reduce -> inception_4a/5x5_reduce (in-place)
I0403 14:40:58.841809 30117 net.cpp:141] Setting up inception_4a/relu_5x5_reduce
I0403 14:40:58.841840 30117 net.cpp:148] Top shape: 24 16 14 14 (75264)
I0403 14:40:58.841858 30117 net.cpp:156] Memory required for data: 873665568
I0403 14:40:58.841876 30117 layer_factory.hpp:77] Creating layer inception_4a/5x5
I0403 14:40:58.841900 30117 net.cpp:91] Creating Layer inception_4a/5x5
I0403 14:40:58.841919 30117 net.cpp:425] inception_4a/5x5 <- inception_4a/5x5_reduce
I0403 14:40:58.841941 30117 net.cpp:399] inception_4a/5x5 -> inception_4a/5x5
I0403 14:40:58.843102 30117 net.cpp:141] Setting up inception_4a/5x5
I0403 14:40:58.843134 30117 net.cpp:148] Top shape: 24 48 14 14 (225792)
I0403 14:40:58.843153 30117 net.cpp:156] Memory required for data: 874568736
I0403 14:40:58.843176 30117 layer_factory.hpp:77] Creating layer inception_4a/relu_5x5
I0403 14:40:58.843199 30117 net.cpp:91] Creating Layer inception_4a/relu_5x5
I0403 14:40:58.843215 30117 net.cpp:425] inception_4a/relu_5x5 <- inception_4a/5x5
I0403 14:40:58.843236 30117 net.cpp:386] inception_4a/relu_5x5 -> inception_4a/5x5 (in-place)
I0403 14:40:58.843447 30117 net.cpp:141] Setting up inception_4a/relu_5x5
I0403 14:40:58.843477 30117 net.cpp:148] Top shape: 24 48 14 14 (225792)
I0403 14:40:58.843493 30117 net.cpp:156] Memory required for data: 875471904
I0403 14:40:58.843510 30117 layer_factory.hpp:77] Creating layer inception_4a/pool
I0403 14:40:58.843531 30117 net.cpp:91] Creating Layer inception_4a/pool
I0403 14:40:58.843559 30117 net.cpp:425] inception_4a/pool <- pool3/3x3_s2_pool3/3x3_s2_0_split_3
I0403 14:40:58.843580 30117 net.cpp:399] inception_4a/pool -> inception_4a/pool
I0403 14:40:58.843647 30117 net.cpp:141] Setting up inception_4a/pool
I0403 14:40:58.843677 30117 net.cpp:148] Top shape: 24 480 14 14 (2257920)
I0403 14:40:58.843694 30117 net.cpp:156] Memory required for data: 884503584
I0403 14:40:58.843709 30117 layer_factory.hpp:77] Creating layer inception_4a/pool_proj
I0403 14:40:58.843739 30117 net.cpp:91] Creating Layer inception_4a/pool_proj
I0403 14:40:58.843760 30117 net.cpp:425] inception_4a/pool_proj <- inception_4a/pool
I0403 14:40:58.843781 30117 net.cpp:399] inception_4a/pool_proj -> inception_4a/pool_proj
I0403 14:40:58.845021 30117 net.cpp:141] Setting up inception_4a/pool_proj
I0403 14:40:58.845062 30117 net.cpp:148] Top shape: 24 64 14 14 (301056)
I0403 14:40:58.845098 30117 net.cpp:156] Memory required for data: 885707808
I0403 14:40:58.845129 30117 layer_factory.hpp:77] Creating layer inception_4a/relu_pool_proj
I0403 14:40:58.845154 30117 net.cpp:91] Creating Layer inception_4a/relu_pool_proj
I0403 14:40:58.845175 30117 net.cpp:425] inception_4a/relu_pool_proj <- inception_4a/pool_proj
I0403 14:40:58.845196 30117 net.cpp:386] inception_4a/relu_pool_proj -> inception_4a/pool_proj (in-place)
I0403 14:40:58.845518 30117 net.cpp:141] Setting up inception_4a/relu_pool_proj
I0403 14:40:58.845548 30117 net.cpp:148] Top shape: 24 64 14 14 (301056)
I0403 14:40:58.845564 30117 net.cpp:156] Memory required for data: 886912032
I0403 14:40:58.845582 30117 layer_factory.hpp:77] Creating layer inception_4a/output
I0403 14:40:58.845602 30117 net.cpp:91] Creating Layer inception_4a/output
I0403 14:40:58.845623 30117 net.cpp:425] inception_4a/output <- inception_4a/1x1
I0403 14:40:58.845643 30117 net.cpp:425] inception_4a/output <- inception_4a/3x3
I0403 14:40:58.845665 30117 net.cpp:425] inception_4a/output <- inception_4a/5x5
I0403 14:40:58.845684 30117 net.cpp:425] inception_4a/output <- inception_4a/pool_proj
I0403 14:40:58.845705 30117 net.cpp:399] inception_4a/output -> inception_4a/output
I0403 14:40:58.845753 30117 net.cpp:141] Setting up inception_4a/output
I0403 14:40:58.845782 30117 net.cpp:148] Top shape: 24 512 14 14 (2408448)
I0403 14:40:58.845800 30117 net.cpp:156] Memory required for data: 896545824
I0403 14:40:58.845816 30117 layer_factory.hpp:77] Creating layer inception_4a/output_inception_4a/output_0_split
I0403 14:40:58.845839 30117 net.cpp:91] Creating Layer inception_4a/output_inception_4a/output_0_split
I0403 14:40:58.845855 30117 net.cpp:425] inception_4a/output_inception_4a/output_0_split <- inception_4a/output
I0403 14:40:58.845877 30117 net.cpp:399] inception_4a/output_inception_4a/output_0_split -> inception_4a/output_inception_4a/output_0_split_0
I0403 14:40:58.845899 30117 net.cpp:399] inception_4a/output_inception_4a/output_0_split -> inception_4a/output_inception_4a/output_0_split_1
I0403 14:40:58.845927 30117 net.cpp:399] inception_4a/output_inception_4a/output_0_split -> inception_4a/output_inception_4a/output_0_split_2
I0403 14:40:58.845949 30117 net.cpp:399] inception_4a/output_inception_4a/output_0_split -> inception_4a/output_inception_4a/output_0_split_3
I0403 14:40:58.845971 30117 net.cpp:399] inception_4a/output_inception_4a/output_0_split -> inception_4a/output_inception_4a/output_0_split_4
I0403 14:40:58.846074 30117 net.cpp:141] Setting up inception_4a/output_inception_4a/output_0_split
I0403 14:40:58.846098 30117 net.cpp:148] Top shape: 24 512 14 14 (2408448)
I0403 14:40:58.846117 30117 net.cpp:148] Top shape: 24 512 14 14 (2408448)
I0403 14:40:58.846135 30117 net.cpp:148] Top shape: 24 512 14 14 (2408448)
I0403 14:40:58.846153 30117 net.cpp:148] Top shape: 24 512 14 14 (2408448)
I0403 14:40:58.846169 30117 net.cpp:148] Top shape: 24 512 14 14 (2408448)
I0403 14:40:58.846184 30117 net.cpp:156] Memory required for data: 944714784
I0403 14:40:58.846204 30117 layer_factory.hpp:77] Creating layer loss1/ave_pool
I0403 14:40:58.846227 30117 net.cpp:91] Creating Layer loss1/ave_pool
I0403 14:40:58.846245 30117 net.cpp:425] loss1/ave_pool <- inception_4a/output_inception_4a/output_0_split_0
I0403 14:40:58.846266 30117 net.cpp:399] loss1/ave_pool -> loss1/ave_pool
I0403 14:40:58.846496 30117 net.cpp:141] Setting up loss1/ave_pool
I0403 14:40:58.846531 30117 net.cpp:148] Top shape: 24 512 4 4 (196608)
I0403 14:40:58.846550 30117 net.cpp:156] Memory required for data: 945501216
I0403 14:40:58.846567 30117 layer_factory.hpp:77] Creating layer loss1/conv
I0403 14:40:58.846591 30117 net.cpp:91] Creating Layer loss1/conv
I0403 14:40:58.846611 30117 net.cpp:425] loss1/conv <- loss1/ave_pool
I0403 14:40:58.846632 30117 net.cpp:399] loss1/conv -> loss1/conv
I0403 14:40:58.848151 30117 net.cpp:141] Setting up loss1/conv
I0403 14:40:58.848183 30117 net.cpp:148] Top shape: 24 128 4 4 (49152)
I0403 14:40:58.848204 30117 net.cpp:156] Memory required for data: 945697824
I0403 14:40:58.848240 30117 layer_factory.hpp:77] Creating layer loss1/relu_conv
I0403 14:40:58.848265 30117 net.cpp:91] Creating Layer loss1/relu_conv
I0403 14:40:58.848284 30117 net.cpp:425] loss1/relu_conv <- loss1/conv
I0403 14:40:58.848312 30117 net.cpp:386] loss1/relu_conv -> loss1/conv (in-place)
I0403 14:40:58.848625 30117 net.cpp:141] Setting up loss1/relu_conv
I0403 14:40:58.848654 30117 net.cpp:148] Top shape: 24 128 4 4 (49152)
I0403 14:40:58.848675 30117 net.cpp:156] Memory required for data: 945894432
I0403 14:40:58.848695 30117 layer_factory.hpp:77] Creating layer loss1/fc
I0403 14:40:58.848721 30117 net.cpp:91] Creating Layer loss1/fc
I0403 14:40:58.848742 30117 net.cpp:425] loss1/fc <- loss1/conv
I0403 14:40:58.848773 30117 net.cpp:399] loss1/fc -> loss1/fc
I0403 14:40:58.867676 30117 net.cpp:141] Setting up loss1/fc
I0403 14:40:58.867714 30117 net.cpp:148] Top shape: 24 1024 (24576)
I0403 14:40:58.867733 30117 net.cpp:156] Memory required for data: 945992736
I0403 14:40:58.867755 30117 layer_factory.hpp:77] Creating layer loss1/relu_fc
I0403 14:40:58.867779 30117 net.cpp:91] Creating Layer loss1/relu_fc
I0403 14:40:58.867799 30117 net.cpp:425] loss1/relu_fc <- loss1/fc
I0403 14:40:58.867823 30117 net.cpp:386] loss1/relu_fc -> loss1/fc (in-place)
I0403 14:40:58.868049 30117 net.cpp:141] Setting up loss1/relu_fc
I0403 14:40:58.868077 30117 net.cpp:148] Top shape: 24 1024 (24576)
I0403 14:40:58.868094 30117 net.cpp:156] Memory required for data: 946091040
I0403 14:40:58.868111 30117 layer_factory.hpp:77] Creating layer loss1/drop_fc
I0403 14:40:58.868144 30117 net.cpp:91] Creating Layer loss1/drop_fc
I0403 14:40:58.868167 30117 net.cpp:425] loss1/drop_fc <- loss1/fc
I0403 14:40:58.868187 30117 net.cpp:386] loss1/drop_fc -> loss1/fc (in-place)
I0403 14:40:58.868245 30117 net.cpp:141] Setting up loss1/drop_fc
I0403 14:40:58.868279 30117 net.cpp:148] Top shape: 24 1024 (24576)
I0403 14:40:58.868296 30117 net.cpp:156] Memory required for data: 946189344
I0403 14:40:58.868319 30117 layer_factory.hpp:77] Creating layer loss1/classifier_plantvillage
I0403 14:40:58.868342 30117 net.cpp:91] Creating Layer loss1/classifier_plantvillage
I0403 14:40:58.868360 30117 net.cpp:425] loss1/classifier_plantvillage <- loss1/fc
I0403 14:40:58.868383 30117 net.cpp:399] loss1/classifier_plantvillage -> loss1/classifier_plantvillage
I0403 14:40:58.869381 30117 net.cpp:141] Setting up loss1/classifier_plantvillage
I0403 14:40:58.869413 30117 net.cpp:148] Top shape: 24 38 (912)
I0403 14:40:58.869447 30117 net.cpp:156] Memory required for data: 946192992
I0403 14:40:58.869469 30117 layer_factory.hpp:77] Creating layer loss1/classifier_plantvillage_loss1/classifier_plantvillage_0_split
I0403 14:40:58.869489 30117 net.cpp:91] Creating Layer loss1/classifier_plantvillage_loss1/classifier_plantvillage_0_split
I0403 14:40:58.869508 30117 net.cpp:425] loss1/classifier_plantvillage_loss1/classifier_plantvillage_0_split <- loss1/classifier_plantvillage
I0403 14:40:58.869530 30117 net.cpp:399] loss1/classifier_plantvillage_loss1/classifier_plantvillage_0_split -> loss1/classifier_plantvillage_loss1/classifier_plantvillage_0_split_0
I0403 14:40:58.869554 30117 net.cpp:399] loss1/classifier_plantvillage_loss1/classifier_plantvillage_0_split -> loss1/classifier_plantvillage_loss1/classifier_plantvillage_0_split_1
I0403 14:40:58.869576 30117 net.cpp:399] loss1/classifier_plantvillage_loss1/classifier_plantvillage_0_split -> loss1/classifier_plantvillage_loss1/classifier_plantvillage_0_split_2
I0403 14:40:58.869650 30117 net.cpp:141] Setting up loss1/classifier_plantvillage_loss1/classifier_plantvillage_0_split
I0403 14:40:58.869676 30117 net.cpp:148] Top shape: 24 38 (912)
I0403 14:40:58.869698 30117 net.cpp:148] Top shape: 24 38 (912)
I0403 14:40:58.869726 30117 net.cpp:148] Top shape: 24 38 (912)
I0403 14:40:58.869741 30117 net.cpp:156] Memory required for data: 946203936
I0403 14:40:58.869757 30117 layer_factory.hpp:77] Creating layer inception_4b/1x1
I0403 14:40:58.869786 30117 net.cpp:91] Creating Layer inception_4b/1x1
I0403 14:40:58.869835 30117 net.cpp:425] inception_4b/1x1 <- inception_4a/output_inception_4a/output_0_split_1
I0403 14:40:58.869860 30117 net.cpp:399] inception_4b/1x1 -> inception_4b/1x1
I0403 14:40:58.871635 30117 net.cpp:141] Setting up inception_4b/1x1
I0403 14:40:58.871670 30117 net.cpp:148] Top shape: 24 160 14 14 (752640)
I0403 14:40:58.871687 30117 net.cpp:156] Memory required for data: 949214496
I0403 14:40:58.871707 30117 layer_factory.hpp:77] Creating layer inception_4b/relu_1x1
I0403 14:40:58.871733 30117 net.cpp:91] Creating Layer inception_4b/relu_1x1
I0403 14:40:58.871760 30117 net.cpp:425] inception_4b/relu_1x1 <- inception_4b/1x1
I0403 14:40:58.871780 30117 net.cpp:386] inception_4b/relu_1x1 -> inception_4b/1x1 (in-place)
I0403 14:40:58.871968 30117 net.cpp:141] Setting up inception_4b/relu_1x1
I0403 14:40:58.871999 30117 net.cpp:148] Top shape: 24 160 14 14 (752640)
I0403 14:40:58.872019 30117 net.cpp:156] Memory required for data: 952225056
I0403 14:40:58.872035 30117 layer_factory.hpp:77] Creating layer inception_4b/3x3_reduce
I0403 14:40:58.872066 30117 net.cpp:91] Creating Layer inception_4b/3x3_reduce
I0403 14:40:58.872087 30117 net.cpp:425] inception_4b/3x3_reduce <- inception_4a/output_inception_4a/output_0_split_2
I0403 14:40:58.872109 30117 net.cpp:399] inception_4b/3x3_reduce -> inception_4b/3x3_reduce
I0403 14:40:58.873550 30117 net.cpp:141] Setting up inception_4b/3x3_reduce
I0403 14:40:58.873584 30117 net.cpp:148] Top shape: 24 112 14 14 (526848)
I0403 14:40:58.873602 30117 net.cpp:156] Memory required for data: 954332448
I0403 14:40:58.873623 30117 layer_factory.hpp:77] Creating layer inception_4b/relu_3x3_reduce
I0403 14:40:58.873643 30117 net.cpp:91] Creating Layer inception_4b/relu_3x3_reduce
I0403 14:40:58.873661 30117 net.cpp:425] inception_4b/relu_3x3_reduce <- inception_4b/3x3_reduce
I0403 14:40:58.873679 30117 net.cpp:386] inception_4b/relu_3x3_reduce -> inception_4b/3x3_reduce (in-place)
I0403 14:40:58.873980 30117 net.cpp:141] Setting up inception_4b/relu_3x3_reduce
I0403 14:40:58.874011 30117 net.cpp:148] Top shape: 24 112 14 14 (526848)
I0403 14:40:58.874049 30117 net.cpp:156] Memory required for data: 956439840
I0403 14:40:58.874066 30117 layer_factory.hpp:77] Creating layer inception_4b/3x3
I0403 14:40:58.874090 30117 net.cpp:91] Creating Layer inception_4b/3x3
I0403 14:40:58.874109 30117 net.cpp:425] inception_4b/3x3 <- inception_4b/3x3_reduce
I0403 14:40:58.874148 30117 net.cpp:399] inception_4b/3x3 -> inception_4b/3x3
I0403 14:40:58.877307 30117 net.cpp:141] Setting up inception_4b/3x3
I0403 14:40:58.877343 30117 net.cpp:148] Top shape: 24 224 14 14 (1053696)
I0403 14:40:58.877362 30117 net.cpp:156] Memory required for data: 960654624
I0403 14:40:58.877382 30117 layer_factory.hpp:77] Creating layer inception_4b/relu_3x3
I0403 14:40:58.877403 30117 net.cpp:91] Creating Layer inception_4b/relu_3x3
I0403 14:40:58.877425 30117 net.cpp:425] inception_4b/relu_3x3 <- inception_4b/3x3
I0403 14:40:58.877449 30117 net.cpp:386] inception_4b/relu_3x3 -> inception_4b/3x3 (in-place)
I0403 14:40:58.877647 30117 net.cpp:141] Setting up inception_4b/relu_3x3
I0403 14:40:58.877676 30117 net.cpp:148] Top shape: 24 224 14 14 (1053696)
I0403 14:40:58.877712 30117 net.cpp:156] Memory required for data: 964869408
I0403 14:40:58.877728 30117 layer_factory.hpp:77] Creating layer inception_4b/5x5_reduce
I0403 14:40:58.877753 30117 net.cpp:91] Creating Layer inception_4b/5x5_reduce
I0403 14:40:58.877773 30117 net.cpp:425] inception_4b/5x5_reduce <- inception_4a/output_inception_4a/output_0_split_3
I0403 14:40:58.877806 30117 net.cpp:399] inception_4b/5x5_reduce -> inception_4b/5x5_reduce
I0403 14:40:58.878963 30117 net.cpp:141] Setting up inception_4b/5x5_reduce
I0403 14:40:58.879004 30117 net.cpp:148] Top shape: 24 24 14 14 (112896)
I0403 14:40:58.879022 30117 net.cpp:156] Memory required for data: 965320992
I0403 14:40:58.879045 30117 layer_factory.hpp:77] Creating layer inception_4b/relu_5x5_reduce
I0403 14:40:58.879076 30117 net.cpp:91] Creating Layer inception_4b/relu_5x5_reduce
I0403 14:40:58.879111 30117 net.cpp:425] inception_4b/relu_5x5_reduce <- inception_4b/5x5_reduce
I0403 14:40:58.879130 30117 net.cpp:386] inception_4b/relu_5x5_reduce -> inception_4b/5x5_reduce (in-place)
I0403 14:40:58.879330 30117 net.cpp:141] Setting up inception_4b/relu_5x5_reduce
I0403 14:40:58.879361 30117 net.cpp:148] Top shape: 24 24 14 14 (112896)
I0403 14:40:58.879382 30117 net.cpp:156] Memory required for data: 965772576
I0403 14:40:58.879400 30117 layer_factory.hpp:77] Creating layer inception_4b/5x5
I0403 14:40:58.879426 30117 net.cpp:91] Creating Layer inception_4b/5x5
I0403 14:40:58.879446 30117 net.cpp:425] inception_4b/5x5 <- inception_4b/5x5_reduce
I0403 14:40:58.879472 30117 net.cpp:399] inception_4b/5x5 -> inception_4b/5x5
I0403 14:40:58.880772 30117 net.cpp:141] Setting up inception_4b/5x5
I0403 14:40:58.880812 30117 net.cpp:148] Top shape: 24 64 14 14 (301056)
I0403 14:40:58.880830 30117 net.cpp:156] Memory required for data: 966976800
I0403 14:40:58.880854 30117 layer_factory.hpp:77] Creating layer inception_4b/relu_5x5
I0403 14:40:58.880877 30117 net.cpp:91] Creating Layer inception_4b/relu_5x5
I0403 14:40:58.880897 30117 net.cpp:425] inception_4b/relu_5x5 <- inception_4b/5x5
I0403 14:40:58.880918 30117 net.cpp:386] inception_4b/relu_5x5 -> inception_4b/5x5 (in-place)
I0403 14:40:58.881219 30117 net.cpp:141] Setting up inception_4b/relu_5x5
I0403 14:40:58.881252 30117 net.cpp:148] Top shape: 24 64 14 14 (301056)
I0403 14:40:58.881269 30117 net.cpp:156] Memory required for data: 968181024
I0403 14:40:58.881285 30117 layer_factory.hpp:77] Creating layer inception_4b/pool
I0403 14:40:58.881307 30117 net.cpp:91] Creating Layer inception_4b/pool
I0403 14:40:58.881333 30117 net.cpp:425] inception_4b/pool <- inception_4a/output_inception_4a/output_0_split_4
I0403 14:40:58.881367 30117 net.cpp:399] inception_4b/pool -> inception_4b/pool
I0403 14:40:58.881438 30117 net.cpp:141] Setting up inception_4b/pool
I0403 14:40:58.881469 30117 net.cpp:148] Top shape: 24 512 14 14 (2408448)
I0403 14:40:58.881485 30117 net.cpp:156] Memory required for data: 977814816
I0403 14:40:58.881501 30117 layer_factory.hpp:77] Creating layer inception_4b/pool_proj
I0403 14:40:58.881528 30117 net.cpp:91] Creating Layer inception_4b/pool_proj
I0403 14:40:58.881549 30117 net.cpp:425] inception_4b/pool_proj <- inception_4b/pool
I0403 14:40:58.881572 30117 net.cpp:399] inception_4b/pool_proj -> inception_4b/pool_proj
I0403 14:40:58.882839 30117 net.cpp:141] Setting up inception_4b/pool_proj
I0403 14:40:58.882869 30117 net.cpp:148] Top shape: 24 64 14 14 (301056)
I0403 14:40:58.882889 30117 net.cpp:156] Memory required for data: 979019040
I0403 14:40:58.882918 30117 layer_factory.hpp:77] Creating layer inception_4b/relu_pool_proj
I0403 14:40:58.882947 30117 net.cpp:91] Creating Layer inception_4b/relu_pool_proj
I0403 14:40:58.882966 30117 net.cpp:425] inception_4b/relu_pool_proj <- inception_4b/pool_proj
I0403 14:40:58.882987 30117 net.cpp:386] inception_4b/relu_pool_proj -> inception_4b/pool_proj (in-place)
I0403 14:40:58.883178 30117 net.cpp:141] Setting up inception_4b/relu_pool_proj
I0403 14:40:58.883206 30117 net.cpp:148] Top shape: 24 64 14 14 (301056)
I0403 14:40:58.883224 30117 net.cpp:156] Memory required for data: 980223264
I0403 14:40:58.883245 30117 layer_factory.hpp:77] Creating layer inception_4b/output
I0403 14:40:58.883272 30117 net.cpp:91] Creating Layer inception_4b/output
I0403 14:40:58.883290 30117 net.cpp:425] inception_4b/output <- inception_4b/1x1
I0403 14:40:58.883307 30117 net.cpp:425] inception_4b/output <- inception_4b/3x3
I0403 14:40:58.883337 30117 net.cpp:425] inception_4b/output <- inception_4b/5x5
I0403 14:40:58.883358 30117 net.cpp:425] inception_4b/output <- inception_4b/pool_proj
I0403 14:40:58.883379 30117 net.cpp:399] inception_4b/output -> inception_4b/output
I0403 14:40:58.883431 30117 net.cpp:141] Setting up inception_4b/output
I0403 14:40:58.883461 30117 net.cpp:148] Top shape: 24 512 14 14 (2408448)
I0403 14:40:58.883481 30117 net.cpp:156] Memory required for data: 989857056
I0403 14:40:58.883515 30117 layer_factory.hpp:77] Creating layer inception_4b/output_inception_4b/output_0_split
I0403 14:40:58.883535 30117 net.cpp:91] Creating Layer inception_4b/output_inception_4b/output_0_split
I0403 14:40:58.883555 30117 net.cpp:425] inception_4b/output_inception_4b/output_0_split <- inception_4b/output
I0403 14:40:58.883576 30117 net.cpp:399] inception_4b/output_inception_4b/output_0_split -> inception_4b/output_inception_4b/output_0_split_0
I0403 14:40:58.883604 30117 net.cpp:399] inception_4b/output_inception_4b/output_0_split -> inception_4b/output_inception_4b/output_0_split_1
I0403 14:40:58.883630 30117 net.cpp:399] inception_4b/output_inception_4b/output_0_split -> inception_4b/output_inception_4b/output_0_split_2
I0403 14:40:58.883653 30117 net.cpp:399] inception_4b/output_inception_4b/output_0_split -> inception_4b/output_inception_4b/output_0_split_3
I0403 14:40:58.883746 30117 net.cpp:141] Setting up inception_4b/output_inception_4b/output_0_split
I0403 14:40:58.883772 30117 net.cpp:148] Top shape: 24 512 14 14 (2408448)
I0403 14:40:58.883792 30117 net.cpp:148] Top shape: 24 512 14 14 (2408448)
I0403 14:40:58.883822 30117 net.cpp:148] Top shape: 24 512 14 14 (2408448)
I0403 14:40:58.883841 30117 net.cpp:148] Top shape: 24 512 14 14 (2408448)
I0403 14:40:58.883857 30117 net.cpp:156] Memory required for data: 1028392224
I0403 14:40:58.883873 30117 layer_factory.hpp:77] Creating layer inception_4c/1x1
I0403 14:40:58.883896 30117 net.cpp:91] Creating Layer inception_4c/1x1
I0403 14:40:58.883914 30117 net.cpp:425] inception_4c/1x1 <- inception_4b/output_inception_4b/output_0_split_0
I0403 14:40:58.883937 30117 net.cpp:399] inception_4c/1x1 -> inception_4c/1x1
I0403 14:40:58.885457 30117 net.cpp:141] Setting up inception_4c/1x1
I0403 14:40:58.885490 30117 net.cpp:148] Top shape: 24 128 14 14 (602112)
I0403 14:40:58.885519 30117 net.cpp:156] Memory required for data: 1030800672
I0403 14:40:58.885540 30117 layer_factory.hpp:77] Creating layer inception_4c/relu_1x1
I0403 14:40:58.885560 30117 net.cpp:91] Creating Layer inception_4c/relu_1x1
I0403 14:40:58.885581 30117 net.cpp:425] inception_4c/relu_1x1 <- inception_4c/1x1
I0403 14:40:58.885612 30117 net.cpp:386] inception_4c/relu_1x1 -> inception_4c/1x1 (in-place)
I0403 14:40:58.885807 30117 net.cpp:141] Setting up inception_4c/relu_1x1
I0403 14:40:58.885836 30117 net.cpp:148] Top shape: 24 128 14 14 (602112)
I0403 14:40:58.885854 30117 net.cpp:156] Memory required for data: 1033209120
I0403 14:40:58.885870 30117 layer_factory.hpp:77] Creating layer inception_4c/3x3_reduce
I0403 14:40:58.885898 30117 net.cpp:91] Creating Layer inception_4c/3x3_reduce
I0403 14:40:58.885921 30117 net.cpp:425] inception_4c/3x3_reduce <- inception_4b/output_inception_4b/output_0_split_1
I0403 14:40:58.885943 30117 net.cpp:399] inception_4c/3x3_reduce -> inception_4c/3x3_reduce
I0403 14:40:58.887989 30117 net.cpp:141] Setting up inception_4c/3x3_reduce
I0403 14:40:58.888020 30117 net.cpp:148] Top shape: 24 128 14 14 (602112)
I0403 14:40:58.888037 30117 net.cpp:156] Memory required for data: 1035617568
I0403 14:40:58.888058 30117 layer_factory.hpp:77] Creating layer inception_4c/relu_3x3_reduce
I0403 14:40:58.888084 30117 net.cpp:91] Creating Layer inception_4c/relu_3x3_reduce
I0403 14:40:58.888103 30117 net.cpp:425] inception_4c/relu_3x3_reduce <- inception_4c/3x3_reduce
I0403 14:40:58.888121 30117 net.cpp:386] inception_4c/relu_3x3_reduce -> inception_4c/3x3_reduce (in-place)
I0403 14:40:58.888432 30117 net.cpp:141] Setting up inception_4c/relu_3x3_reduce
I0403 14:40:58.888460 30117 net.cpp:148] Top shape: 24 128 14 14 (602112)
I0403 14:40:58.888478 30117 net.cpp:156] Memory required for data: 1038026016
I0403 14:40:58.888494 30117 layer_factory.hpp:77] Creating layer inception_4c/3x3
I0403 14:40:58.888517 30117 net.cpp:91] Creating Layer inception_4c/3x3
I0403 14:40:58.888537 30117 net.cpp:425] inception_4c/3x3 <- inception_4c/3x3_reduce
I0403 14:40:58.888563 30117 net.cpp:399] inception_4c/3x3 -> inception_4c/3x3
I0403 14:40:58.892374 30117 net.cpp:141] Setting up inception_4c/3x3
I0403 14:40:58.892418 30117 net.cpp:148] Top shape: 24 256 14 14 (1204224)
I0403 14:40:58.892436 30117 net.cpp:156] Memory required for data: 1042842912
I0403 14:40:58.892473 30117 layer_factory.hpp:77] Creating layer inception_4c/relu_3x3
I0403 14:40:58.892500 30117 net.cpp:91] Creating Layer inception_4c/relu_3x3
I0403 14:40:58.892523 30117 net.cpp:425] inception_4c/relu_3x3 <- inception_4c/3x3
I0403 14:40:58.892541 30117 net.cpp:386] inception_4c/relu_3x3 -> inception_4c/3x3 (in-place)
I0403 14:40:58.892735 30117 net.cpp:141] Setting up inception_4c/relu_3x3
I0403 14:40:58.892768 30117 net.cpp:148] Top shape: 24 256 14 14 (1204224)
I0403 14:40:58.892786 30117 net.cpp:156] Memory required for data: 1047659808
I0403 14:40:58.892814 30117 layer_factory.hpp:77] Creating layer inception_4c/5x5_reduce
I0403 14:40:58.892848 30117 net.cpp:91] Creating Layer inception_4c/5x5_reduce
I0403 14:40:58.892869 30117 net.cpp:425] inception_4c/5x5_reduce <- inception_4b/output_inception_4b/output_0_split_2
I0403 14:40:58.892890 30117 net.cpp:399] inception_4c/5x5_reduce -> inception_4c/5x5_reduce
I0403 14:40:58.894065 30117 net.cpp:141] Setting up inception_4c/5x5_reduce
I0403 14:40:58.894103 30117 net.cpp:148] Top shape: 24 24 14 14 (112896)
I0403 14:40:58.894121 30117 net.cpp:156] Memory required for data: 1048111392
I0403 14:40:58.894142 30117 layer_factory.hpp:77] Creating layer inception_4c/relu_5x5_reduce
I0403 14:40:58.894161 30117 net.cpp:91] Creating Layer inception_4c/relu_5x5_reduce
I0403 14:40:58.894179 30117 net.cpp:425] inception_4c/relu_5x5_reduce <- inception_4c/5x5_reduce
I0403 14:40:58.894201 30117 net.cpp:386] inception_4c/relu_5x5_reduce -> inception_4c/5x5_reduce (in-place)
I0403 14:40:58.894409 30117 net.cpp:141] Setting up inception_4c/relu_5x5_reduce
I0403 14:40:58.894439 30117 net.cpp:148] Top shape: 24 24 14 14 (112896)
I0403 14:40:58.894459 30117 net.cpp:156] Memory required for data: 1048562976
I0403 14:40:58.894479 30117 layer_factory.hpp:77] Creating layer inception_4c/5x5
I0403 14:40:58.894505 30117 net.cpp:91] Creating Layer inception_4c/5x5
I0403 14:40:58.894527 30117 net.cpp:425] inception_4c/5x5 <- inception_4c/5x5_reduce
I0403 14:40:58.894547 30117 net.cpp:399] inception_4c/5x5 -> inception_4c/5x5
I0403 14:40:58.895877 30117 net.cpp:141] Setting up inception_4c/5x5
I0403 14:40:58.895922 30117 net.cpp:148] Top shape: 24 64 14 14 (301056)
I0403 14:40:58.895942 30117 net.cpp:156] Memory required for data: 1049767200
I0403 14:40:58.895964 30117 layer_factory.hpp:77] Creating layer inception_4c/relu_5x5
I0403 14:40:58.895984 30117 net.cpp:91] Creating Layer inception_4c/relu_5x5
I0403 14:40:58.896003 30117 net.cpp:425] inception_4c/relu_5x5 <- inception_4c/5x5
I0403 14:40:58.896028 30117 net.cpp:386] inception_4c/relu_5x5 -> inception_4c/5x5 (in-place)
I0403 14:40:58.896339 30117 net.cpp:141] Setting up inception_4c/relu_5x5
I0403 14:40:58.896369 30117 net.cpp:148] Top shape: 24 64 14 14 (301056)
I0403 14:40:58.896385 30117 net.cpp:156] Memory required for data: 1050971424
I0403 14:40:58.896406 30117 layer_factory.hpp:77] Creating layer inception_4c/pool
I0403 14:40:58.896428 30117 net.cpp:91] Creating Layer inception_4c/pool
I0403 14:40:58.896446 30117 net.cpp:425] inception_4c/pool <- inception_4b/output_inception_4b/output_0_split_3
I0403 14:40:58.896469 30117 net.cpp:399] inception_4c/pool -> inception_4c/pool
I0403 14:40:58.896543 30117 net.cpp:141] Setting up inception_4c/pool
I0403 14:40:58.896569 30117 net.cpp:148] Top shape: 24 512 14 14 (2408448)
I0403 14:40:58.896585 30117 net.cpp:156] Memory required for data: 1060605216
I0403 14:40:58.896605 30117 layer_factory.hpp:77] Creating layer inception_4c/pool_proj
I0403 14:40:58.896636 30117 net.cpp:91] Creating Layer inception_4c/pool_proj
I0403 14:40:58.896656 30117 net.cpp:425] inception_4c/pool_proj <- inception_4c/pool
I0403 14:40:58.896677 30117 net.cpp:399] inception_4c/pool_proj -> inception_4c/pool_proj
I0403 14:40:58.897975 30117 net.cpp:141] Setting up inception_4c/pool_proj
I0403 14:40:58.898006 30117 net.cpp:148] Top shape: 24 64 14 14 (301056)
I0403 14:40:58.898039 30117 net.cpp:156] Memory required for data: 1061809440
I0403 14:40:58.898061 30117 layer_factory.hpp:77] Creating layer inception_4c/relu_pool_proj
I0403 14:40:58.898083 30117 net.cpp:91] Creating Layer inception_4c/relu_pool_proj
I0403 14:40:58.898103 30117 net.cpp:425] inception_4c/relu_pool_proj <- inception_4c/pool_proj
I0403 14:40:58.898123 30117 net.cpp:386] inception_4c/relu_pool_proj -> inception_4c/pool_proj (in-place)
I0403 14:40:58.898327 30117 net.cpp:141] Setting up inception_4c/relu_pool_proj
I0403 14:40:58.898356 30117 net.cpp:148] Top shape: 24 64 14 14 (301056)
I0403 14:40:58.898372 30117 net.cpp:156] Memory required for data: 1063013664
I0403 14:40:58.898396 30117 layer_factory.hpp:77] Creating layer inception_4c/output
I0403 14:40:58.898427 30117 net.cpp:91] Creating Layer inception_4c/output
I0403 14:40:58.898444 30117 net.cpp:425] inception_4c/output <- inception_4c/1x1
I0403 14:40:58.898464 30117 net.cpp:425] inception_4c/output <- inception_4c/3x3
I0403 14:40:58.898485 30117 net.cpp:425] inception_4c/output <- inception_4c/5x5
I0403 14:40:58.898514 30117 net.cpp:425] inception_4c/output <- inception_4c/pool_proj
I0403 14:40:58.898536 30117 net.cpp:399] inception_4c/output -> inception_4c/output
I0403 14:40:58.898588 30117 net.cpp:141] Setting up inception_4c/output
I0403 14:40:58.898617 30117 net.cpp:148] Top shape: 24 512 14 14 (2408448)
I0403 14:40:58.898634 30117 net.cpp:156] Memory required for data: 1072647456
I0403 14:40:58.898651 30117 layer_factory.hpp:77] Creating layer inception_4c/output_inception_4c/output_0_split
I0403 14:40:58.898669 30117 net.cpp:91] Creating Layer inception_4c/output_inception_4c/output_0_split
I0403 14:40:58.898686 30117 net.cpp:425] inception_4c/output_inception_4c/output_0_split <- inception_4c/output
I0403 14:40:58.898705 30117 net.cpp:399] inception_4c/output_inception_4c/output_0_split -> inception_4c/output_inception_4c/output_0_split_0
I0403 14:40:58.898727 30117 net.cpp:399] inception_4c/output_inception_4c/output_0_split -> inception_4c/output_inception_4c/output_0_split_1
I0403 14:40:58.898753 30117 net.cpp:399] inception_4c/output_inception_4c/output_0_split -> inception_4c/output_inception_4c/output_0_split_2
I0403 14:40:58.898782 30117 net.cpp:399] inception_4c/output_inception_4c/output_0_split -> inception_4c/output_inception_4c/output_0_split_3
I0403 14:40:58.898879 30117 net.cpp:141] Setting up inception_4c/output_inception_4c/output_0_split
I0403 14:40:58.898908 30117 net.cpp:148] Top shape: 24 512 14 14 (2408448)
I0403 14:40:58.898927 30117 net.cpp:148] Top shape: 24 512 14 14 (2408448)
I0403 14:40:58.898946 30117 net.cpp:148] Top shape: 24 512 14 14 (2408448)
I0403 14:40:58.898962 30117 net.cpp:148] Top shape: 24 512 14 14 (2408448)
I0403 14:40:58.898984 30117 net.cpp:156] Memory required for data: 1111182624
I0403 14:40:58.899003 30117 layer_factory.hpp:77] Creating layer inception_4d/1x1
I0403 14:40:58.899037 30117 net.cpp:91] Creating Layer inception_4d/1x1
I0403 14:40:58.899057 30117 net.cpp:425] inception_4d/1x1 <- inception_4c/output_inception_4c/output_0_split_0
I0403 14:40:58.899087 30117 net.cpp:399] inception_4d/1x1 -> inception_4d/1x1
I0403 14:40:58.900574 30117 net.cpp:141] Setting up inception_4d/1x1
I0403 14:40:58.900612 30117 net.cpp:148] Top shape: 24 112 14 14 (526848)
I0403 14:40:58.900630 30117 net.cpp:156] Memory required for data: 1113290016
I0403 14:40:58.900651 30117 layer_factory.hpp:77] Creating layer inception_4d/relu_1x1
I0403 14:40:58.900674 30117 net.cpp:91] Creating Layer inception_4d/relu_1x1
I0403 14:40:58.900693 30117 net.cpp:425] inception_4d/relu_1x1 <- inception_4d/1x1
I0403 14:40:58.900712 30117 net.cpp:386] inception_4d/relu_1x1 -> inception_4d/1x1 (in-place)
I0403 14:40:58.900915 30117 net.cpp:141] Setting up inception_4d/relu_1x1
I0403 14:40:58.900948 30117 net.cpp:148] Top shape: 24 112 14 14 (526848)
I0403 14:40:58.900964 30117 net.cpp:156] Memory required for data: 1115397408
I0403 14:40:58.900990 30117 layer_factory.hpp:77] Creating layer inception_4d/3x3_reduce
I0403 14:40:58.901038 30117 net.cpp:91] Creating Layer inception_4d/3x3_reduce
I0403 14:40:58.901059 30117 net.cpp:425] inception_4d/3x3_reduce <- inception_4c/output_inception_4c/output_0_split_1
I0403 14:40:58.901082 30117 net.cpp:399] inception_4d/3x3_reduce -> inception_4d/3x3_reduce
I0403 14:40:58.902704 30117 net.cpp:141] Setting up inception_4d/3x3_reduce
I0403 14:40:58.902734 30117 net.cpp:148] Top shape: 24 144 14 14 (677376)
I0403 14:40:58.902751 30117 net.cpp:156] Memory required for data: 1118106912
I0403 14:40:58.902772 30117 layer_factory.hpp:77] Creating layer inception_4d/relu_3x3_reduce
I0403 14:40:58.902793 30117 net.cpp:91] Creating Layer inception_4d/relu_3x3_reduce
I0403 14:40:58.902822 30117 net.cpp:425] inception_4d/relu_3x3_reduce <- inception_4d/3x3_reduce
I0403 14:40:58.902847 30117 net.cpp:386] inception_4d/relu_3x3_reduce -> inception_4d/3x3_reduce (in-place)
I0403 14:40:58.903164 30117 net.cpp:141] Setting up inception_4d/relu_3x3_reduce
I0403 14:40:58.903194 30117 net.cpp:148] Top shape: 24 144 14 14 (677376)
I0403 14:40:58.903211 30117 net.cpp:156] Memory required for data: 1120816416
I0403 14:40:58.903229 30117 layer_factory.hpp:77] Creating layer inception_4d/3x3
I0403 14:40:58.903254 30117 net.cpp:91] Creating Layer inception_4d/3x3
I0403 14:40:58.903275 30117 net.cpp:425] inception_4d/3x3 <- inception_4d/3x3_reduce
I0403 14:40:58.903298 30117 net.cpp:399] inception_4d/3x3 -> inception_4d/3x3
I0403 14:40:58.907897 30117 net.cpp:141] Setting up inception_4d/3x3
I0403 14:40:58.907929 30117 net.cpp:148] Top shape: 24 288 14 14 (1354752)
I0403 14:40:58.907950 30117 net.cpp:156] Memory required for data: 1126235424
I0403 14:40:58.907974 30117 layer_factory.hpp:77] Creating layer inception_4d/relu_3x3
I0403 14:40:58.907999 30117 net.cpp:91] Creating Layer inception_4d/relu_3x3
I0403 14:40:58.908017 30117 net.cpp:425] inception_4d/relu_3x3 <- inception_4d/3x3
I0403 14:40:58.908036 30117 net.cpp:386] inception_4d/relu_3x3 -> inception_4d/3x3 (in-place)
I0403 14:40:58.908233 30117 net.cpp:141] Setting up inception_4d/relu_3x3
I0403 14:40:58.908262 30117 net.cpp:148] Top shape: 24 288 14 14 (1354752)
I0403 14:40:58.908279 30117 net.cpp:156] Memory required for data: 1131654432
I0403 14:40:58.908298 30117 layer_factory.hpp:77] Creating layer inception_4d/5x5_reduce
I0403 14:40:58.908326 30117 net.cpp:91] Creating Layer inception_4d/5x5_reduce
I0403 14:40:58.908347 30117 net.cpp:425] inception_4d/5x5_reduce <- inception_4c/output_inception_4c/output_0_split_2
I0403 14:40:58.908371 30117 net.cpp:399] inception_4d/5x5_reduce -> inception_4d/5x5_reduce
I0403 14:40:58.909610 30117 net.cpp:141] Setting up inception_4d/5x5_reduce
I0403 14:40:58.909641 30117 net.cpp:148] Top shape: 24 32 14 14 (150528)
I0403 14:40:58.909660 30117 net.cpp:156] Memory required for data: 1132256544
I0403 14:40:58.909690 30117 layer_factory.hpp:77] Creating layer inception_4d/relu_5x5_reduce
I0403 14:40:58.909715 30117 net.cpp:91] Creating Layer inception_4d/relu_5x5_reduce
I0403 14:40:58.909734 30117 net.cpp:425] inception_4d/relu_5x5_reduce <- inception_4d/5x5_reduce
I0403 14:40:58.909752 30117 net.cpp:386] inception_4d/relu_5x5_reduce -> inception_4d/5x5_reduce (in-place)
I0403 14:40:58.909960 30117 net.cpp:141] Setting up inception_4d/relu_5x5_reduce
I0403 14:40:58.909991 30117 net.cpp:148] Top shape: 24 32 14 14 (150528)
I0403 14:40:58.910009 30117 net.cpp:156] Memory required for data: 1132858656
I0403 14:40:58.910028 30117 layer_factory.hpp:77] Creating layer inception_4d/5x5
I0403 14:40:58.910068 30117 net.cpp:91] Creating Layer inception_4d/5x5
I0403 14:40:58.910087 30117 net.cpp:425] inception_4d/5x5 <- inception_4d/5x5_reduce
I0403 14:40:58.910109 30117 net.cpp:399] inception_4d/5x5 -> inception_4d/5x5
I0403 14:40:58.911708 30117 net.cpp:141] Setting up inception_4d/5x5
I0403 14:40:58.911741 30117 net.cpp:148] Top shape: 24 64 14 14 (301056)
I0403 14:40:58.911761 30117 net.cpp:156] Memory required for data: 1134062880
I0403 14:40:58.911782 30117 layer_factory.hpp:77] Creating layer inception_4d/relu_5x5
I0403 14:40:58.911818 30117 net.cpp:91] Creating Layer inception_4d/relu_5x5
I0403 14:40:58.911840 30117 net.cpp:425] inception_4d/relu_5x5 <- inception_4d/5x5
I0403 14:40:58.911860 30117 net.cpp:386] inception_4d/relu_5x5 -> inception_4d/5x5 (in-place)
I0403 14:40:58.912180 30117 net.cpp:141] Setting up inception_4d/relu_5x5
I0403 14:40:58.912214 30117 net.cpp:148] Top shape: 24 64 14 14 (301056)
I0403 14:40:58.912232 30117 net.cpp:156] Memory required for data: 1135267104
I0403 14:40:58.912250 30117 layer_factory.hpp:77] Creating layer inception_4d/pool
I0403 14:40:58.912273 30117 net.cpp:91] Creating Layer inception_4d/pool
I0403 14:40:58.912293 30117 net.cpp:425] inception_4d/pool <- inception_4c/output_inception_4c/output_0_split_3
I0403 14:40:58.912322 30117 net.cpp:399] inception_4d/pool -> inception_4d/pool
I0403 14:40:58.912397 30117 net.cpp:141] Setting up inception_4d/pool
I0403 14:40:58.912425 30117 net.cpp:148] Top shape: 24 512 14 14 (2408448)
I0403 14:40:58.912441 30117 net.cpp:156] Memory required for data: 1144900896
I0403 14:40:58.912457 30117 layer_factory.hpp:77] Creating layer inception_4d/pool_proj
I0403 14:40:58.912480 30117 net.cpp:91] Creating Layer inception_4d/pool_proj
I0403 14:40:58.912500 30117 net.cpp:425] inception_4d/pool_proj <- inception_4d/pool
I0403 14:40:58.912523 30117 net.cpp:399] inception_4d/pool_proj -> inception_4d/pool_proj
I0403 14:40:58.914404 30117 net.cpp:141] Setting up inception_4d/pool_proj
I0403 14:40:58.914446 30117 net.cpp:148] Top shape: 24 64 14 14 (301056)
I0403 14:40:58.914474 30117 net.cpp:156] Memory required for data: 1146105120
I0403 14:40:58.914495 30117 layer_factory.hpp:77] Creating layer inception_4d/relu_pool_proj
I0403 14:40:58.914520 30117 net.cpp:91] Creating Layer inception_4d/relu_pool_proj
I0403 14:40:58.914541 30117 net.cpp:425] inception_4d/relu_pool_proj <- inception_4d/pool_proj
I0403 14:40:58.914566 30117 net.cpp:386] inception_4d/relu_pool_proj -> inception_4d/pool_proj (in-place)
I0403 14:40:58.914770 30117 net.cpp:141] Setting up inception_4d/relu_pool_proj
I0403 14:40:58.914804 30117 net.cpp:148] Top shape: 24 64 14 14 (301056)
I0403 14:40:58.914824 30117 net.cpp:156] Memory required for data: 1147309344
I0403 14:40:58.914842 30117 layer_factory.hpp:77] Creating layer inception_4d/output
I0403 14:40:58.914861 30117 net.cpp:91] Creating Layer inception_4d/output
I0403 14:40:58.914880 30117 net.cpp:425] inception_4d/output <- inception_4d/1x1
I0403 14:40:58.914901 30117 net.cpp:425] inception_4d/output <- inception_4d/3x3
I0403 14:40:58.914924 30117 net.cpp:425] inception_4d/output <- inception_4d/5x5
I0403 14:40:58.914944 30117 net.cpp:425] inception_4d/output <- inception_4d/pool_proj
I0403 14:40:58.914964 30117 net.cpp:399] inception_4d/output -> inception_4d/output
I0403 14:40:58.915017 30117 net.cpp:141] Setting up inception_4d/output
I0403 14:40:58.915048 30117 net.cpp:148] Top shape: 24 528 14 14 (2483712)
I0403 14:40:58.915065 30117 net.cpp:156] Memory required for data: 1157244192
I0403 14:40:58.915081 30117 layer_factory.hpp:77] Creating layer inception_4d/output_inception_4d/output_0_split
I0403 14:40:58.915101 30117 net.cpp:91] Creating Layer inception_4d/output_inception_4d/output_0_split
I0403 14:40:58.915128 30117 net.cpp:425] inception_4d/output_inception_4d/output_0_split <- inception_4d/output
I0403 14:40:58.915153 30117 net.cpp:399] inception_4d/output_inception_4d/output_0_split -> inception_4d/output_inception_4d/output_0_split_0
I0403 14:40:58.915176 30117 net.cpp:399] inception_4d/output_inception_4d/output_0_split -> inception_4d/output_inception_4d/output_0_split_1
I0403 14:40:58.915205 30117 net.cpp:399] inception_4d/output_inception_4d/output_0_split -> inception_4d/output_inception_4d/output_0_split_2
I0403 14:40:58.915232 30117 net.cpp:399] inception_4d/output_inception_4d/output_0_split -> inception_4d/output_inception_4d/output_0_split_3
I0403 14:40:58.915253 30117 net.cpp:399] inception_4d/output_inception_4d/output_0_split -> inception_4d/output_inception_4d/output_0_split_4
I0403 14:40:58.915369 30117 net.cpp:141] Setting up inception_4d/output_inception_4d/output_0_split
I0403 14:40:58.915413 30117 net.cpp:148] Top shape: 24 528 14 14 (2483712)
I0403 14:40:58.915432 30117 net.cpp:148] Top shape: 24 528 14 14 (2483712)
I0403 14:40:58.915451 30117 net.cpp:148] Top shape: 24 528 14 14 (2483712)
I0403 14:40:58.915472 30117 net.cpp:148] Top shape: 24 528 14 14 (2483712)
I0403 14:40:58.915493 30117 net.cpp:148] Top shape: 24 528 14 14 (2483712)
I0403 14:40:58.915513 30117 net.cpp:156] Memory required for data: 1206918432
I0403 14:40:58.915529 30117 layer_factory.hpp:77] Creating layer loss2/ave_pool
I0403 14:40:58.915549 30117 net.cpp:91] Creating Layer loss2/ave_pool
I0403 14:40:58.915565 30117 net.cpp:425] loss2/ave_pool <- inception_4d/output_inception_4d/output_0_split_0
I0403 14:40:58.915588 30117 net.cpp:399] loss2/ave_pool -> loss2/ave_pool
I0403 14:40:58.915977 30117 net.cpp:141] Setting up loss2/ave_pool
I0403 14:40:58.916007 30117 net.cpp:148] Top shape: 24 528 4 4 (202752)
I0403 14:40:58.916023 30117 net.cpp:156] Memory required for data: 1207729440
I0403 14:40:58.916046 30117 layer_factory.hpp:77] Creating layer loss2/conv
I0403 14:40:58.916071 30117 net.cpp:91] Creating Layer loss2/conv
I0403 14:40:58.916090 30117 net.cpp:425] loss2/conv <- loss2/ave_pool
I0403 14:40:58.916113 30117 net.cpp:399] loss2/conv -> loss2/conv
I0403 14:40:58.918131 30117 net.cpp:141] Setting up loss2/conv
I0403 14:40:58.918169 30117 net.cpp:148] Top shape: 24 128 4 4 (49152)
I0403 14:40:58.918186 30117 net.cpp:156] Memory required for data: 1207926048
I0403 14:40:58.918207 30117 layer_factory.hpp:77] Creating layer loss2/relu_conv
I0403 14:40:58.918228 30117 net.cpp:91] Creating Layer loss2/relu_conv
I0403 14:40:58.918251 30117 net.cpp:425] loss2/relu_conv <- loss2/conv
I0403 14:40:58.918274 30117 net.cpp:386] loss2/relu_conv -> loss2/conv (in-place)
I0403 14:40:58.918586 30117 net.cpp:141] Setting up loss2/relu_conv
I0403 14:40:58.918618 30117 net.cpp:148] Top shape: 24 128 4 4 (49152)
I0403 14:40:58.918638 30117 net.cpp:156] Memory required for data: 1208122656
I0403 14:40:58.918654 30117 layer_factory.hpp:77] Creating layer loss2/fc
I0403 14:40:58.918678 30117 net.cpp:91] Creating Layer loss2/fc
I0403 14:40:58.918697 30117 net.cpp:425] loss2/fc <- loss2/conv
I0403 14:40:58.918721 30117 net.cpp:399] loss2/fc -> loss2/fc
I0403 14:40:58.937522 30117 net.cpp:141] Setting up loss2/fc
I0403 14:40:58.937580 30117 net.cpp:148] Top shape: 24 1024 (24576)
I0403 14:40:58.937598 30117 net.cpp:156] Memory required for data: 1208220960
I0403 14:40:58.937621 30117 layer_factory.hpp:77] Creating layer loss2/relu_fc
I0403 14:40:58.937646 30117 net.cpp:91] Creating Layer loss2/relu_fc
I0403 14:40:58.937667 30117 net.cpp:425] loss2/relu_fc <- loss2/fc
I0403 14:40:58.937688 30117 net.cpp:386] loss2/relu_fc -> loss2/fc (in-place)
I0403 14:40:58.938071 30117 net.cpp:141] Setting up loss2/relu_fc
I0403 14:40:58.938100 30117 net.cpp:148] Top shape: 24 1024 (24576)
I0403 14:40:58.938117 30117 net.cpp:156] Memory required for data: 1208319264
I0403 14:40:58.938134 30117 layer_factory.hpp:77] Creating layer loss2/drop_fc
I0403 14:40:58.938156 30117 net.cpp:91] Creating Layer loss2/drop_fc
I0403 14:40:58.938176 30117 net.cpp:425] loss2/drop_fc <- loss2/fc
I0403 14:40:58.938196 30117 net.cpp:386] loss2/drop_fc -> loss2/fc (in-place)
I0403 14:40:58.938253 30117 net.cpp:141] Setting up loss2/drop_fc
I0403 14:40:58.938282 30117 net.cpp:148] Top shape: 24 1024 (24576)
I0403 14:40:58.938299 30117 net.cpp:156] Memory required for data: 1208417568
I0403 14:40:58.938319 30117 layer_factory.hpp:77] Creating layer loss2/classifier_plantvillage
I0403 14:40:58.938344 30117 net.cpp:91] Creating Layer loss2/classifier_plantvillage
I0403 14:40:58.938360 30117 net.cpp:425] loss2/classifier_plantvillage <- loss2/fc
I0403 14:40:58.938385 30117 net.cpp:399] loss2/classifier_plantvillage -> loss2/classifier_plantvillage
I0403 14:40:58.938833 30117 net.cpp:141] Setting up loss2/classifier_plantvillage
I0403 14:40:58.938860 30117 net.cpp:148] Top shape: 24 38 (912)
I0403 14:40:58.938876 30117 net.cpp:156] Memory required for data: 1208421216
I0403 14:40:58.938923 30117 layer_factory.hpp:77] Creating layer loss2/classifier_plantvillage_loss2/classifier_plantvillage_0_split
I0403 14:40:58.938946 30117 net.cpp:91] Creating Layer loss2/classifier_plantvillage_loss2/classifier_plantvillage_0_split
I0403 14:40:58.938964 30117 net.cpp:425] loss2/classifier_plantvillage_loss2/classifier_plantvillage_0_split <- loss2/classifier_plantvillage
I0403 14:40:58.938987 30117 net.cpp:399] loss2/classifier_plantvillage_loss2/classifier_plantvillage_0_split -> loss2/classifier_plantvillage_loss2/classifier_plantvillage_0_split_0
I0403 14:40:58.939010 30117 net.cpp:399] loss2/classifier_plantvillage_loss2/classifier_plantvillage_0_split -> loss2/classifier_plantvillage_loss2/classifier_plantvillage_0_split_1
I0403 14:40:58.939033 30117 net.cpp:399] loss2/classifier_plantvillage_loss2/classifier_plantvillage_0_split -> loss2/classifier_plantvillage_loss2/classifier_plantvillage_0_split_2
I0403 14:40:58.939116 30117 net.cpp:141] Setting up loss2/classifier_plantvillage_loss2/classifier_plantvillage_0_split
I0403 14:40:58.939146 30117 net.cpp:148] Top shape: 24 38 (912)
I0403 14:40:58.939165 30117 net.cpp:148] Top shape: 24 38 (912)
I0403 14:40:58.939182 30117 net.cpp:148] Top shape: 24 38 (912)
I0403 14:40:58.939196 30117 net.cpp:156] Memory required for data: 1208432160
I0403 14:40:58.939213 30117 layer_factory.hpp:77] Creating layer inception_4e/1x1
I0403 14:40:58.939236 30117 net.cpp:91] Creating Layer inception_4e/1x1
I0403 14:40:58.939255 30117 net.cpp:425] inception_4e/1x1 <- inception_4d/output_inception_4d/output_0_split_1
I0403 14:40:58.939276 30117 net.cpp:399] inception_4e/1x1 -> inception_4e/1x1
I0403 14:40:58.941267 30117 net.cpp:141] Setting up inception_4e/1x1
I0403 14:40:58.941303 30117 net.cpp:148] Top shape: 24 256 14 14 (1204224)
I0403 14:40:58.941326 30117 net.cpp:156] Memory required for data: 1213249056
I0403 14:40:58.941347 30117 layer_factory.hpp:77] Creating layer inception_4e/relu_1x1
I0403 14:40:58.941370 30117 net.cpp:91] Creating Layer inception_4e/relu_1x1
I0403 14:40:58.941388 30117 net.cpp:425] inception_4e/relu_1x1 <- inception_4e/1x1
I0403 14:40:58.941411 30117 net.cpp:386] inception_4e/relu_1x1 -> inception_4e/1x1 (in-place)
I0403 14:40:58.941728 30117 net.cpp:141] Setting up inception_4e/relu_1x1
I0403 14:40:58.941756 30117 net.cpp:148] Top shape: 24 256 14 14 (1204224)
I0403 14:40:58.941772 30117 net.cpp:156] Memory required for data: 1218065952
I0403 14:40:58.941790 30117 layer_factory.hpp:77] Creating layer inception_4e/3x3_reduce
I0403 14:40:58.941814 30117 net.cpp:91] Creating Layer inception_4e/3x3_reduce
I0403 14:40:58.941833 30117 net.cpp:425] inception_4e/3x3_reduce <- inception_4d/output_inception_4d/output_0_split_2
I0403 14:40:58.941856 30117 net.cpp:399] inception_4e/3x3_reduce -> inception_4e/3x3_reduce
I0403 14:40:58.944171 30117 net.cpp:141] Setting up inception_4e/3x3_reduce
I0403 14:40:58.944205 30117 net.cpp:148] Top shape: 24 160 14 14 (752640)
I0403 14:40:58.944224 30117 net.cpp:156] Memory required for data: 1221076512
I0403 14:40:58.944245 30117 layer_factory.hpp:77] Creating layer inception_4e/relu_3x3_reduce
I0403 14:40:58.944267 30117 net.cpp:91] Creating Layer inception_4e/relu_3x3_reduce
I0403 14:40:58.944284 30117 net.cpp:425] inception_4e/relu_3x3_reduce <- inception_4e/3x3_reduce
I0403 14:40:58.944309 30117 net.cpp:386] inception_4e/relu_3x3_reduce -> inception_4e/3x3_reduce (in-place)
I0403 14:40:58.944524 30117 net.cpp:141] Setting up inception_4e/relu_3x3_reduce
I0403 14:40:58.944551 30117 net.cpp:148] Top shape: 24 160 14 14 (752640)
I0403 14:40:58.944571 30117 net.cpp:156] Memory required for data: 1224087072
I0403 14:40:58.944587 30117 layer_factory.hpp:77] Creating layer inception_4e/3x3
I0403 14:40:58.944612 30117 net.cpp:91] Creating Layer inception_4e/3x3
I0403 14:40:58.944633 30117 net.cpp:425] inception_4e/3x3 <- inception_4e/3x3_reduce
I0403 14:40:58.944663 30117 net.cpp:399] inception_4e/3x3 -> inception_4e/3x3
I0403 14:40:58.950023 30117 net.cpp:141] Setting up inception_4e/3x3
I0403 14:40:58.950067 30117 net.cpp:148] Top shape: 24 320 14 14 (1505280)
I0403 14:40:58.950088 30117 net.cpp:156] Memory required for data: 1230108192
I0403 14:40:58.950108 30117 layer_factory.hpp:77] Creating layer inception_4e/relu_3x3
I0403 14:40:58.950127 30117 net.cpp:91] Creating Layer inception_4e/relu_3x3
I0403 14:40:58.950145 30117 net.cpp:425] inception_4e/relu_3x3 <- inception_4e/3x3
I0403 14:40:58.950170 30117 net.cpp:386] inception_4e/relu_3x3 -> inception_4e/3x3 (in-place)
I0403 14:40:58.950495 30117 net.cpp:141] Setting up inception_4e/relu_3x3
I0403 14:40:58.950525 30117 net.cpp:148] Top shape: 24 320 14 14 (1505280)
I0403 14:40:58.950541 30117 net.cpp:156] Memory required for data: 1236129312
I0403 14:40:58.950557 30117 layer_factory.hpp:77] Creating layer inception_4e/5x5_reduce
I0403 14:40:58.950587 30117 net.cpp:91] Creating Layer inception_4e/5x5_reduce
I0403 14:40:58.950608 30117 net.cpp:425] inception_4e/5x5_reduce <- inception_4d/output_inception_4d/output_0_split_3
I0403 14:40:58.950633 30117 net.cpp:399] inception_4e/5x5_reduce -> inception_4e/5x5_reduce
I0403 14:40:58.951783 30117 net.cpp:141] Setting up inception_4e/5x5_reduce
I0403 14:40:58.951815 30117 net.cpp:148] Top shape: 24 32 14 14 (150528)
I0403 14:40:58.951834 30117 net.cpp:156] Memory required for data: 1236731424
I0403 14:40:58.951854 30117 layer_factory.hpp:77] Creating layer inception_4e/relu_5x5_reduce
I0403 14:40:58.951874 30117 net.cpp:91] Creating Layer inception_4e/relu_5x5_reduce
I0403 14:40:58.951891 30117 net.cpp:425] inception_4e/relu_5x5_reduce <- inception_4e/5x5_reduce
I0403 14:40:58.951911 30117 net.cpp:386] inception_4e/relu_5x5_reduce -> inception_4e/5x5_reduce (in-place)
I0403 14:40:58.952229 30117 net.cpp:141] Setting up inception_4e/relu_5x5_reduce
I0403 14:40:58.952261 30117 net.cpp:148] Top shape: 24 32 14 14 (150528)
I0403 14:40:58.952278 30117 net.cpp:156] Memory required for data: 1237333536
I0403 14:40:58.952296 30117 layer_factory.hpp:77] Creating layer inception_4e/5x5
I0403 14:40:58.952343 30117 net.cpp:91] Creating Layer inception_4e/5x5
I0403 14:40:58.952366 30117 net.cpp:425] inception_4e/5x5 <- inception_4e/5x5_reduce
I0403 14:40:58.952389 30117 net.cpp:399] inception_4e/5x5 -> inception_4e/5x5
I0403 14:40:58.954370 30117 net.cpp:141] Setting up inception_4e/5x5
I0403 14:40:58.954402 30117 net.cpp:148] Top shape: 24 128 14 14 (602112)
I0403 14:40:58.954421 30117 net.cpp:156] Memory required for data: 1239741984
I0403 14:40:58.954442 30117 layer_factory.hpp:77] Creating layer inception_4e/relu_5x5
I0403 14:40:58.954465 30117 net.cpp:91] Creating Layer inception_4e/relu_5x5
I0403 14:40:58.954485 30117 net.cpp:425] inception_4e/relu_5x5 <- inception_4e/5x5
I0403 14:40:58.954504 30117 net.cpp:386] inception_4e/relu_5x5 -> inception_4e/5x5 (in-place)
I0403 14:40:58.954720 30117 net.cpp:141] Setting up inception_4e/relu_5x5
I0403 14:40:58.954749 30117 net.cpp:148] Top shape: 24 128 14 14 (602112)
I0403 14:40:58.954766 30117 net.cpp:156] Memory required for data: 1242150432
I0403 14:40:58.954784 30117 layer_factory.hpp:77] Creating layer inception_4e/pool
I0403 14:40:58.954805 30117 net.cpp:91] Creating Layer inception_4e/pool
I0403 14:40:58.954823 30117 net.cpp:425] inception_4e/pool <- inception_4d/output_inception_4d/output_0_split_4
I0403 14:40:58.954844 30117 net.cpp:399] inception_4e/pool -> inception_4e/pool
I0403 14:40:58.954921 30117 net.cpp:141] Setting up inception_4e/pool
I0403 14:40:58.954948 30117 net.cpp:148] Top shape: 24 528 14 14 (2483712)
I0403 14:40:58.954964 30117 net.cpp:156] Memory required for data: 1252085280
I0403 14:40:58.954980 30117 layer_factory.hpp:77] Creating layer inception_4e/pool_proj
I0403 14:40:58.955005 30117 net.cpp:91] Creating Layer inception_4e/pool_proj
I0403 14:40:58.955024 30117 net.cpp:425] inception_4e/pool_proj <- inception_4e/pool
I0403 14:40:58.955047 30117 net.cpp:399] inception_4e/pool_proj -> inception_4e/pool_proj
I0403 14:40:58.956665 30117 net.cpp:141] Setting up inception_4e/pool_proj
I0403 14:40:58.956694 30117 net.cpp:148] Top shape: 24 128 14 14 (602112)
I0403 14:40:58.956727 30117 net.cpp:156] Memory required for data: 1254493728
I0403 14:40:58.956749 30117 layer_factory.hpp:77] Creating layer inception_4e/relu_pool_proj
I0403 14:40:58.956773 30117 net.cpp:91] Creating Layer inception_4e/relu_pool_proj
I0403 14:40:58.956791 30117 net.cpp:425] inception_4e/relu_pool_proj <- inception_4e/pool_proj
I0403 14:40:58.956809 30117 net.cpp:386] inception_4e/relu_pool_proj -> inception_4e/pool_proj (in-place)
I0403 14:40:58.957126 30117 net.cpp:141] Setting up inception_4e/relu_pool_proj
I0403 14:40:58.957155 30117 net.cpp:148] Top shape: 24 128 14 14 (602112)
I0403 14:40:58.957173 30117 net.cpp:156] Memory required for data: 1256902176
I0403 14:40:58.957190 30117 layer_factory.hpp:77] Creating layer inception_4e/output
I0403 14:40:58.957211 30117 net.cpp:91] Creating Layer inception_4e/output
I0403 14:40:58.957231 30117 net.cpp:425] inception_4e/output <- inception_4e/1x1
I0403 14:40:58.957248 30117 net.cpp:425] inception_4e/output <- inception_4e/3x3
I0403 14:40:58.957267 30117 net.cpp:425] inception_4e/output <- inception_4e/5x5
I0403 14:40:58.957285 30117 net.cpp:425] inception_4e/output <- inception_4e/pool_proj
I0403 14:40:58.957304 30117 net.cpp:399] inception_4e/output -> inception_4e/output
I0403 14:40:58.957366 30117 net.cpp:141] Setting up inception_4e/output
I0403 14:40:58.957392 30117 net.cpp:148] Top shape: 24 832 14 14 (3913728)
I0403 14:40:58.957409 30117 net.cpp:156] Memory required for data: 1272557088
I0403 14:40:58.957425 30117 layer_factory.hpp:77] Creating layer pool4/3x3_s2
I0403 14:40:58.957444 30117 net.cpp:91] Creating Layer pool4/3x3_s2
I0403 14:40:58.957461 30117 net.cpp:425] pool4/3x3_s2 <- inception_4e/output
I0403 14:40:58.957484 30117 net.cpp:399] pool4/3x3_s2 -> pool4/3x3_s2
I0403 14:40:58.957556 30117 net.cpp:141] Setting up pool4/3x3_s2
I0403 14:40:58.957587 30117 net.cpp:148] Top shape: 24 832 7 7 (978432)
I0403 14:40:58.957603 30117 net.cpp:156] Memory required for data: 1276470816
I0403 14:40:58.957620 30117 layer_factory.hpp:77] Creating layer pool4/3x3_s2_pool4/3x3_s2_0_split
I0403 14:40:58.957639 30117 net.cpp:91] Creating Layer pool4/3x3_s2_pool4/3x3_s2_0_split
I0403 14:40:58.957655 30117 net.cpp:425] pool4/3x3_s2_pool4/3x3_s2_0_split <- pool4/3x3_s2
I0403 14:40:58.957674 30117 net.cpp:399] pool4/3x3_s2_pool4/3x3_s2_0_split -> pool4/3x3_s2_pool4/3x3_s2_0_split_0
I0403 14:40:58.957697 30117 net.cpp:399] pool4/3x3_s2_pool4/3x3_s2_0_split -> pool4/3x3_s2_pool4/3x3_s2_0_split_1
I0403 14:40:58.957720 30117 net.cpp:399] pool4/3x3_s2_pool4/3x3_s2_0_split -> pool4/3x3_s2_pool4/3x3_s2_0_split_2
I0403 14:40:58.957742 30117 net.cpp:399] pool4/3x3_s2_pool4/3x3_s2_0_split -> pool4/3x3_s2_pool4/3x3_s2_0_split_3
I0403 14:40:58.957845 30117 net.cpp:141] Setting up pool4/3x3_s2_pool4/3x3_s2_0_split
I0403 14:40:58.957871 30117 net.cpp:148] Top shape: 24 832 7 7 (978432)
I0403 14:40:58.957890 30117 net.cpp:148] Top shape: 24 832 7 7 (978432)
I0403 14:40:58.957906 30117 net.cpp:148] Top shape: 24 832 7 7 (978432)
I0403 14:40:58.957923 30117 net.cpp:148] Top shape: 24 832 7 7 (978432)
I0403 14:40:58.957939 30117 net.cpp:156] Memory required for data: 1292125728
I0403 14:40:58.957955 30117 layer_factory.hpp:77] Creating layer inception_5a/1x1
I0403 14:40:58.957979 30117 net.cpp:91] Creating Layer inception_5a/1x1
I0403 14:40:58.957999 30117 net.cpp:425] inception_5a/1x1 <- pool4/3x3_s2_pool4/3x3_s2_0_split_0
I0403 14:40:58.958020 30117 net.cpp:399] inception_5a/1x1 -> inception_5a/1x1
I0403 14:40:58.961057 30117 net.cpp:141] Setting up inception_5a/1x1
I0403 14:40:58.961088 30117 net.cpp:148] Top shape: 24 256 7 7 (301056)
I0403 14:40:58.961105 30117 net.cpp:156] Memory required for data: 1293329952
I0403 14:40:58.961127 30117 layer_factory.hpp:77] Creating layer inception_5a/relu_1x1
I0403 14:40:58.961148 30117 net.cpp:91] Creating Layer inception_5a/relu_1x1
I0403 14:40:58.961166 30117 net.cpp:425] inception_5a/relu_1x1 <- inception_5a/1x1
I0403 14:40:58.961186 30117 net.cpp:386] inception_5a/relu_1x1 -> inception_5a/1x1 (in-place)
I0403 14:40:58.961522 30117 net.cpp:141] Setting up inception_5a/relu_1x1
I0403 14:40:58.961551 30117 net.cpp:148] Top shape: 24 256 7 7 (301056)
I0403 14:40:58.961570 30117 net.cpp:156] Memory required for data: 1294534176
I0403 14:40:58.961586 30117 layer_factory.hpp:77] Creating layer inception_5a/3x3_reduce
I0403 14:40:58.961612 30117 net.cpp:91] Creating Layer inception_5a/3x3_reduce
I0403 14:40:58.961632 30117 net.cpp:425] inception_5a/3x3_reduce <- pool4/3x3_s2_pool4/3x3_s2_0_split_1
I0403 14:40:58.961653 30117 net.cpp:399] inception_5a/3x3_reduce -> inception_5a/3x3_reduce
I0403 14:40:58.964282 30117 net.cpp:141] Setting up inception_5a/3x3_reduce
I0403 14:40:58.964313 30117 net.cpp:148] Top shape: 24 160 7 7 (188160)
I0403 14:40:58.964344 30117 net.cpp:156] Memory required for data: 1295286816
I0403 14:40:58.964365 30117 layer_factory.hpp:77] Creating layer inception_5a/relu_3x3_reduce
I0403 14:40:58.964388 30117 net.cpp:91] Creating Layer inception_5a/relu_3x3_reduce
I0403 14:40:58.964408 30117 net.cpp:425] inception_5a/relu_3x3_reduce <- inception_5a/3x3_reduce
I0403 14:40:58.964428 30117 net.cpp:386] inception_5a/relu_3x3_reduce -> inception_5a/3x3_reduce (in-place)
I0403 14:40:58.964629 30117 net.cpp:141] Setting up inception_5a/relu_3x3_reduce
I0403 14:40:58.964656 30117 net.cpp:148] Top shape: 24 160 7 7 (188160)
I0403 14:40:58.964673 30117 net.cpp:156] Memory required for data: 1296039456
I0403 14:40:58.964689 30117 layer_factory.hpp:77] Creating layer inception_5a/3x3
I0403 14:40:58.964716 30117 net.cpp:91] Creating Layer inception_5a/3x3
I0403 14:40:58.964735 30117 net.cpp:425] inception_5a/3x3 <- inception_5a/3x3_reduce
I0403 14:40:58.964756 30117 net.cpp:399] inception_5a/3x3 -> inception_5a/3x3
I0403 14:40:58.970121 30117 net.cpp:141] Setting up inception_5a/3x3
I0403 14:40:58.970157 30117 net.cpp:148] Top shape: 24 320 7 7 (376320)
I0403 14:40:58.970177 30117 net.cpp:156] Memory required for data: 1297544736
I0403 14:40:58.970199 30117 layer_factory.hpp:77] Creating layer inception_5a/relu_3x3
I0403 14:40:58.970218 30117 net.cpp:91] Creating Layer inception_5a/relu_3x3
I0403 14:40:58.970238 30117 net.cpp:425] inception_5a/relu_3x3 <- inception_5a/3x3
I0403 14:40:58.970257 30117 net.cpp:386] inception_5a/relu_3x3 -> inception_5a/3x3 (in-place)
I0403 14:40:58.970579 30117 net.cpp:141] Setting up inception_5a/relu_3x3
I0403 14:40:58.970610 30117 net.cpp:148] Top shape: 24 320 7 7 (376320)
I0403 14:40:58.970629 30117 net.cpp:156] Memory required for data: 1299050016
I0403 14:40:58.970646 30117 layer_factory.hpp:77] Creating layer inception_5a/5x5_reduce
I0403 14:40:58.970669 30117 net.cpp:91] Creating Layer inception_5a/5x5_reduce
I0403 14:40:58.970687 30117 net.cpp:425] inception_5a/5x5_reduce <- pool4/3x3_s2_pool4/3x3_s2_0_split_2
I0403 14:40:58.970712 30117 net.cpp:399] inception_5a/5x5_reduce -> inception_5a/5x5_reduce
I0403 14:40:58.971969 30117 net.cpp:141] Setting up inception_5a/5x5_reduce
I0403 14:40:58.972003 30117 net.cpp:148] Top shape: 24 32 7 7 (37632)
I0403 14:40:58.972023 30117 net.cpp:156] Memory required for data: 1299200544
I0403 14:40:58.972043 30117 layer_factory.hpp:77] Creating layer inception_5a/relu_5x5_reduce
I0403 14:40:58.972064 30117 net.cpp:91] Creating Layer inception_5a/relu_5x5_reduce
I0403 14:40:58.972082 30117 net.cpp:425] inception_5a/relu_5x5_reduce <- inception_5a/5x5_reduce
I0403 14:40:58.972105 30117 net.cpp:386] inception_5a/relu_5x5_reduce -> inception_5a/5x5_reduce (in-place)
I0403 14:40:58.972430 30117 net.cpp:141] Setting up inception_5a/relu_5x5_reduce
I0403 14:40:58.972462 30117 net.cpp:148] Top shape: 24 32 7 7 (37632)
I0403 14:40:58.972479 30117 net.cpp:156] Memory required for data: 1299351072
I0403 14:40:58.972496 30117 layer_factory.hpp:77] Creating layer inception_5a/5x5
I0403 14:40:58.972522 30117 net.cpp:91] Creating Layer inception_5a/5x5
I0403 14:40:58.972543 30117 net.cpp:425] inception_5a/5x5 <- inception_5a/5x5_reduce
I0403 14:40:58.972564 30117 net.cpp:399] inception_5a/5x5 -> inception_5a/5x5
I0403 14:40:58.974418 30117 net.cpp:141] Setting up inception_5a/5x5
I0403 14:40:58.974467 30117 net.cpp:148] Top shape: 24 128 7 7 (150528)
I0403 14:40:58.974488 30117 net.cpp:156] Memory required for data: 1299953184
I0403 14:40:58.974509 30117 layer_factory.hpp:77] Creating layer inception_5a/relu_5x5
I0403 14:40:58.974529 30117 net.cpp:91] Creating Layer inception_5a/relu_5x5
I0403 14:40:58.974546 30117 net.cpp:425] inception_5a/relu_5x5 <- inception_5a/5x5
I0403 14:40:58.974566 30117 net.cpp:386] inception_5a/relu_5x5 -> inception_5a/5x5 (in-place)
I0403 14:40:58.974776 30117 net.cpp:141] Setting up inception_5a/relu_5x5
I0403 14:40:58.974805 30117 net.cpp:148] Top shape: 24 128 7 7 (150528)
I0403 14:40:58.974823 30117 net.cpp:156] Memory required for data: 1300555296
I0403 14:40:58.974840 30117 layer_factory.hpp:77] Creating layer inception_5a/pool
I0403 14:40:58.974859 30117 net.cpp:91] Creating Layer inception_5a/pool
I0403 14:40:58.974877 30117 net.cpp:425] inception_5a/pool <- pool4/3x3_s2_pool4/3x3_s2_0_split_3
I0403 14:40:58.974901 30117 net.cpp:399] inception_5a/pool -> inception_5a/pool
I0403 14:40:58.974978 30117 net.cpp:141] Setting up inception_5a/pool
I0403 14:40:58.975008 30117 net.cpp:148] Top shape: 24 832 7 7 (978432)
I0403 14:40:58.975024 30117 net.cpp:156] Memory required for data: 1304469024
I0403 14:40:58.975041 30117 layer_factory.hpp:77] Creating layer inception_5a/pool_proj
I0403 14:40:58.975062 30117 net.cpp:91] Creating Layer inception_5a/pool_proj
I0403 14:40:58.975081 30117 net.cpp:425] inception_5a/pool_proj <- inception_5a/pool
I0403 14:40:58.975106 30117 net.cpp:399] inception_5a/pool_proj -> inception_5a/pool_proj
I0403 14:40:58.977541 30117 net.cpp:141] Setting up inception_5a/pool_proj
I0403 14:40:58.977574 30117 net.cpp:148] Top shape: 24 128 7 7 (150528)
I0403 14:40:58.977592 30117 net.cpp:156] Memory required for data: 1305071136
I0403 14:40:58.977613 30117 layer_factory.hpp:77] Creating layer inception_5a/relu_pool_proj
I0403 14:40:58.977637 30117 net.cpp:91] Creating Layer inception_5a/relu_pool_proj
I0403 14:40:58.977655 30117 net.cpp:425] inception_5a/relu_pool_proj <- inception_5a/pool_proj
I0403 14:40:58.977674 30117 net.cpp:386] inception_5a/relu_pool_proj -> inception_5a/pool_proj (in-place)
I0403 14:40:58.977994 30117 net.cpp:141] Setting up inception_5a/relu_pool_proj
I0403 14:40:58.978025 30117 net.cpp:148] Top shape: 24 128 7 7 (150528)
I0403 14:40:58.978044 30117 net.cpp:156] Memory required for data: 1305673248
I0403 14:40:58.978060 30117 layer_factory.hpp:77] Creating layer inception_5a/output
I0403 14:40:58.978082 30117 net.cpp:91] Creating Layer inception_5a/output
I0403 14:40:58.978101 30117 net.cpp:425] inception_5a/output <- inception_5a/1x1
I0403 14:40:58.978119 30117 net.cpp:425] inception_5a/output <- inception_5a/3x3
I0403 14:40:58.978137 30117 net.cpp:425] inception_5a/output <- inception_5a/5x5
I0403 14:40:58.978155 30117 net.cpp:425] inception_5a/output <- inception_5a/pool_proj
I0403 14:40:58.978174 30117 net.cpp:399] inception_5a/output -> inception_5a/output
I0403 14:40:58.978230 30117 net.cpp:141] Setting up inception_5a/output
I0403 14:40:58.978256 30117 net.cpp:148] Top shape: 24 832 7 7 (978432)
I0403 14:40:58.978273 30117 net.cpp:156] Memory required for data: 1309586976
I0403 14:40:58.978289 30117 layer_factory.hpp:77] Creating layer inception_5a/output_inception_5a/output_0_split
I0403 14:40:58.978308 30117 net.cpp:91] Creating Layer inception_5a/output_inception_5a/output_0_split
I0403 14:40:58.978330 30117 net.cpp:425] inception_5a/output_inception_5a/output_0_split <- inception_5a/output
I0403 14:40:58.978353 30117 net.cpp:399] inception_5a/output_inception_5a/output_0_split -> inception_5a/output_inception_5a/output_0_split_0
I0403 14:40:58.978377 30117 net.cpp:399] inception_5a/output_inception_5a/output_0_split -> inception_5a/output_inception_5a/output_0_split_1
I0403 14:40:58.978399 30117 net.cpp:399] inception_5a/output_inception_5a/output_0_split -> inception_5a/output_inception_5a/output_0_split_2
I0403 14:40:58.978422 30117 net.cpp:399] inception_5a/output_inception_5a/output_0_split -> inception_5a/output_inception_5a/output_0_split_3
I0403 14:40:58.978544 30117 net.cpp:141] Setting up inception_5a/output_inception_5a/output_0_split
I0403 14:40:58.978574 30117 net.cpp:148] Top shape: 24 832 7 7 (978432)
I0403 14:40:58.978595 30117 net.cpp:148] Top shape: 24 832 7 7 (978432)
I0403 14:40:58.978612 30117 net.cpp:148] Top shape: 24 832 7 7 (978432)
I0403 14:40:58.978631 30117 net.cpp:148] Top shape: 24 832 7 7 (978432)
I0403 14:40:58.978644 30117 net.cpp:156] Memory required for data: 1325241888
I0403 14:40:58.978660 30117 layer_factory.hpp:77] Creating layer inception_5b/1x1
I0403 14:40:58.978684 30117 net.cpp:91] Creating Layer inception_5b/1x1
I0403 14:40:58.978704 30117 net.cpp:425] inception_5b/1x1 <- inception_5a/output_inception_5a/output_0_split_0
I0403 14:40:58.978726 30117 net.cpp:399] inception_5b/1x1 -> inception_5b/1x1
I0403 14:40:58.982746 30117 net.cpp:141] Setting up inception_5b/1x1
I0403 14:40:58.982779 30117 net.cpp:148] Top shape: 24 384 7 7 (451584)
I0403 14:40:58.982796 30117 net.cpp:156] Memory required for data: 1327048224
I0403 14:40:58.982817 30117 layer_factory.hpp:77] Creating layer inception_5b/relu_1x1
I0403 14:40:58.982841 30117 net.cpp:91] Creating Layer inception_5b/relu_1x1
I0403 14:40:58.982861 30117 net.cpp:425] inception_5b/relu_1x1 <- inception_5b/1x1
I0403 14:40:58.982880 30117 net.cpp:386] inception_5b/relu_1x1 -> inception_5b/1x1 (in-place)
I0403 14:40:58.983206 30117 net.cpp:141] Setting up inception_5b/relu_1x1
I0403 14:40:58.983234 30117 net.cpp:148] Top shape: 24 384 7 7 (451584)
I0403 14:40:58.983252 30117 net.cpp:156] Memory required for data: 1328854560
I0403 14:40:58.983270 30117 layer_factory.hpp:77] Creating layer inception_5b/3x3_reduce
I0403 14:40:58.983295 30117 net.cpp:91] Creating Layer inception_5b/3x3_reduce
I0403 14:40:58.983325 30117 net.cpp:425] inception_5b/3x3_reduce <- inception_5a/output_inception_5a/output_0_split_1
I0403 14:40:58.983355 30117 net.cpp:399] inception_5b/3x3_reduce -> inception_5b/3x3_reduce
I0403 14:40:58.986232 30117 net.cpp:141] Setting up inception_5b/3x3_reduce
I0403 14:40:58.986268 30117 net.cpp:148] Top shape: 24 192 7 7 (225792)
I0403 14:40:58.986286 30117 net.cpp:156] Memory required for data: 1329757728
I0403 14:40:58.986307 30117 layer_factory.hpp:77] Creating layer inception_5b/relu_3x3_reduce
I0403 14:40:58.986335 30117 net.cpp:91] Creating Layer inception_5b/relu_3x3_reduce
I0403 14:40:58.986354 30117 net.cpp:425] inception_5b/relu_3x3_reduce <- inception_5b/3x3_reduce
I0403 14:40:58.986373 30117 net.cpp:386] inception_5b/relu_3x3_reduce -> inception_5b/3x3_reduce (in-place)
I0403 14:40:58.986582 30117 net.cpp:141] Setting up inception_5b/relu_3x3_reduce
I0403 14:40:58.986613 30117 net.cpp:148] Top shape: 24 192 7 7 (225792)
I0403 14:40:58.986629 30117 net.cpp:156] Memory required for data: 1330660896
I0403 14:40:58.986646 30117 layer_factory.hpp:77] Creating layer inception_5b/3x3
I0403 14:40:58.986670 30117 net.cpp:91] Creating Layer inception_5b/3x3
I0403 14:40:58.986690 30117 net.cpp:425] inception_5b/3x3 <- inception_5b/3x3_reduce
I0403 14:40:58.986711 30117 net.cpp:399] inception_5b/3x3 -> inception_5b/3x3
I0403 14:40:58.993865 30117 net.cpp:141] Setting up inception_5b/3x3
I0403 14:40:58.993901 30117 net.cpp:148] Top shape: 24 384 7 7 (451584)
I0403 14:40:58.993919 30117 net.cpp:156] Memory required for data: 1332467232
I0403 14:40:58.993940 30117 layer_factory.hpp:77] Creating layer inception_5b/relu_3x3
I0403 14:40:58.993963 30117 net.cpp:91] Creating Layer inception_5b/relu_3x3
I0403 14:40:58.993983 30117 net.cpp:425] inception_5b/relu_3x3 <- inception_5b/3x3
I0403 14:40:58.994001 30117 net.cpp:386] inception_5b/relu_3x3 -> inception_5b/3x3 (in-place)
I0403 14:40:58.994323 30117 net.cpp:141] Setting up inception_5b/relu_3x3
I0403 14:40:58.994376 30117 net.cpp:148] Top shape: 24 384 7 7 (451584)
I0403 14:40:58.994395 30117 net.cpp:156] Memory required for data: 1334273568
I0403 14:40:58.994417 30117 layer_factory.hpp:77] Creating layer inception_5b/5x5_reduce
I0403 14:40:58.994462 30117 net.cpp:91] Creating Layer inception_5b/5x5_reduce
I0403 14:40:58.994483 30117 net.cpp:425] inception_5b/5x5_reduce <- inception_5a/output_inception_5a/output_0_split_2
I0403 14:40:58.994508 30117 net.cpp:399] inception_5b/5x5_reduce -> inception_5b/5x5_reduce
I0403 14:40:58.995877 30117 net.cpp:141] Setting up inception_5b/5x5_reduce
I0403 14:40:58.995908 30117 net.cpp:148] Top shape: 24 48 7 7 (56448)
I0403 14:40:58.995925 30117 net.cpp:156] Memory required for data: 1334499360
I0403 14:40:58.995945 30117 layer_factory.hpp:77] Creating layer inception_5b/relu_5x5_reduce
I0403 14:40:58.995968 30117 net.cpp:91] Creating Layer inception_5b/relu_5x5_reduce
I0403 14:40:58.995990 30117 net.cpp:425] inception_5b/relu_5x5_reduce <- inception_5b/5x5_reduce
I0403 14:40:58.996011 30117 net.cpp:386] inception_5b/relu_5x5_reduce -> inception_5b/5x5_reduce (in-place)
I0403 14:40:58.996413 30117 net.cpp:141] Setting up inception_5b/relu_5x5_reduce
I0403 14:40:58.996451 30117 net.cpp:148] Top shape: 24 48 7 7 (56448)
I0403 14:40:58.996475 30117 net.cpp:156] Memory required for data: 1334725152
I0403 14:40:58.996502 30117 layer_factory.hpp:77] Creating layer inception_5b/5x5
I0403 14:40:58.996526 30117 net.cpp:91] Creating Layer inception_5b/5x5
I0403 14:40:58.996546 30117 net.cpp:425] inception_5b/5x5 <- inception_5b/5x5_reduce
I0403 14:40:58.996565 30117 net.cpp:399] inception_5b/5x5 -> inception_5b/5x5
I0403 14:40:58.998801 30117 net.cpp:141] Setting up inception_5b/5x5
I0403 14:40:58.998834 30117 net.cpp:148] Top shape: 24 128 7 7 (150528)
I0403 14:40:58.998852 30117 net.cpp:156] Memory required for data: 1335327264
I0403 14:40:58.998873 30117 layer_factory.hpp:77] Creating layer inception_5b/relu_5x5
I0403 14:40:58.998896 30117 net.cpp:91] Creating Layer inception_5b/relu_5x5
I0403 14:40:58.998921 30117 net.cpp:425] inception_5b/relu_5x5 <- inception_5b/5x5
I0403 14:40:58.998947 30117 net.cpp:386] inception_5b/relu_5x5 -> inception_5b/5x5 (in-place)
I0403 14:40:58.999161 30117 net.cpp:141] Setting up inception_5b/relu_5x5
I0403 14:40:58.999194 30117 net.cpp:148] Top shape: 24 128 7 7 (150528)
I0403 14:40:58.999212 30117 net.cpp:156] Memory required for data: 1335929376
I0403 14:40:58.999228 30117 layer_factory.hpp:77] Creating layer inception_5b/pool
I0403 14:40:58.999248 30117 net.cpp:91] Creating Layer inception_5b/pool
I0403 14:40:58.999266 30117 net.cpp:425] inception_5b/pool <- inception_5a/output_inception_5a/output_0_split_3
I0403 14:40:58.999289 30117 net.cpp:399] inception_5b/pool -> inception_5b/pool
I0403 14:40:58.999373 30117 net.cpp:141] Setting up inception_5b/pool
I0403 14:40:58.999400 30117 net.cpp:148] Top shape: 24 832 7 7 (978432)
I0403 14:40:58.999416 30117 net.cpp:156] Memory required for data: 1339843104
I0403 14:40:58.999433 30117 layer_factory.hpp:77] Creating layer inception_5b/pool_proj
I0403 14:40:58.999464 30117 net.cpp:91] Creating Layer inception_5b/pool_proj
I0403 14:40:58.999487 30117 net.cpp:425] inception_5b/pool_proj <- inception_5b/pool
I0403 14:40:58.999518 30117 net.cpp:399] inception_5b/pool_proj -> inception_5b/pool_proj
I0403 14:40:59.001987 30117 net.cpp:141] Setting up inception_5b/pool_proj
I0403 14:40:59.002020 30117 net.cpp:148] Top shape: 24 128 7 7 (150528)
I0403 14:40:59.002038 30117 net.cpp:156] Memory required for data: 1340445216
I0403 14:40:59.002058 30117 layer_factory.hpp:77] Creating layer inception_5b/relu_pool_proj
I0403 14:40:59.002081 30117 net.cpp:91] Creating Layer inception_5b/relu_pool_proj
I0403 14:40:59.002101 30117 net.cpp:425] inception_5b/relu_pool_proj <- inception_5b/pool_proj
I0403 14:40:59.002120 30117 net.cpp:386] inception_5b/relu_pool_proj -> inception_5b/pool_proj (in-place)
I0403 14:40:59.002446 30117 net.cpp:141] Setting up inception_5b/relu_pool_proj
I0403 14:40:59.002476 30117 net.cpp:148] Top shape: 24 128 7 7 (150528)
I0403 14:40:59.002492 30117 net.cpp:156] Memory required for data: 1341047328
I0403 14:40:59.002509 30117 layer_factory.hpp:77] Creating layer inception_5b/output
I0403 14:40:59.002531 30117 net.cpp:91] Creating Layer inception_5b/output
I0403 14:40:59.002564 30117 net.cpp:425] inception_5b/output <- inception_5b/1x1
I0403 14:40:59.002583 30117 net.cpp:425] inception_5b/output <- inception_5b/3x3
I0403 14:40:59.002602 30117 net.cpp:425] inception_5b/output <- inception_5b/5x5
I0403 14:40:59.002620 30117 net.cpp:425] inception_5b/output <- inception_5b/pool_proj
I0403 14:40:59.002638 30117 net.cpp:399] inception_5b/output -> inception_5b/output
I0403 14:40:59.002696 30117 net.cpp:141] Setting up inception_5b/output
I0403 14:40:59.002723 30117 net.cpp:148] Top shape: 24 1024 7 7 (1204224)
I0403 14:40:59.002739 30117 net.cpp:156] Memory required for data: 1345864224
I0403 14:40:59.002756 30117 layer_factory.hpp:77] Creating layer pool5/7x7_s1
I0403 14:40:59.002774 30117 net.cpp:91] Creating Layer pool5/7x7_s1
I0403 14:40:59.002791 30117 net.cpp:425] pool5/7x7_s1 <- inception_5b/output
I0403 14:40:59.002813 30117 net.cpp:399] pool5/7x7_s1 -> pool5/7x7_s1
I0403 14:40:59.003044 30117 net.cpp:141] Setting up pool5/7x7_s1
I0403 14:40:59.003075 30117 net.cpp:148] Top shape: 24 1024 1 1 (24576)
I0403 14:40:59.003093 30117 net.cpp:156] Memory required for data: 1345962528
I0403 14:40:59.003110 30117 layer_factory.hpp:77] Creating layer pool5/drop_7x7_s1
I0403 14:40:59.003130 30117 net.cpp:91] Creating Layer pool5/drop_7x7_s1
I0403 14:40:59.003146 30117 net.cpp:425] pool5/drop_7x7_s1 <- pool5/7x7_s1
I0403 14:40:59.003165 30117 net.cpp:386] pool5/drop_7x7_s1 -> pool5/7x7_s1 (in-place)
I0403 14:40:59.003221 30117 net.cpp:141] Setting up pool5/drop_7x7_s1
I0403 14:40:59.003248 30117 net.cpp:148] Top shape: 24 1024 1 1 (24576)
I0403 14:40:59.003265 30117 net.cpp:156] Memory required for data: 1346060832
I0403 14:40:59.003283 30117 layer_factory.hpp:77] Creating layer loss3/classifier_plantvillage
I0403 14:40:59.003305 30117 net.cpp:91] Creating Layer loss3/classifier_plantvillage
I0403 14:40:59.003337 30117 net.cpp:425] loss3/classifier_plantvillage <- pool5/7x7_s1
I0403 14:40:59.003361 30117 net.cpp:399] loss3/classifier_plantvillage -> loss3/classifier_plantvillage
I0403 14:40:59.003820 30117 net.cpp:141] Setting up loss3/classifier_plantvillage
I0403 14:40:59.003849 30117 net.cpp:148] Top shape: 24 38 (912)
I0403 14:40:59.003865 30117 net.cpp:156] Memory required for data: 1346064480
I0403 14:40:59.003885 30117 layer_factory.hpp:77] Creating layer loss3/classifier_plantvillage_loss3/classifier_plantvillage_0_split
I0403 14:40:59.003911 30117 net.cpp:91] Creating Layer loss3/classifier_plantvillage_loss3/classifier_plantvillage_0_split
I0403 14:40:59.003932 30117 net.cpp:425] loss3/classifier_plantvillage_loss3/classifier_plantvillage_0_split <- loss3/classifier_plantvillage
I0403 14:40:59.003955 30117 net.cpp:399] loss3/classifier_plantvillage_loss3/classifier_plantvillage_0_split -> loss3/classifier_plantvillage_loss3/classifier_plantvillage_0_split_0
I0403 14:40:59.003979 30117 net.cpp:399] loss3/classifier_plantvillage_loss3/classifier_plantvillage_0_split -> loss3/classifier_plantvillage_loss3/classifier_plantvillage_0_split_1
I0403 14:40:59.004004 30117 net.cpp:399] loss3/classifier_plantvillage_loss3/classifier_plantvillage_0_split -> loss3/classifier_plantvillage_loss3/classifier_plantvillage_0_split_2
I0403 14:40:59.004026 30117 net.cpp:399] loss3/classifier_plantvillage_loss3/classifier_plantvillage_0_split -> loss3/classifier_plantvillage_loss3/classifier_plantvillage_0_split_3
I0403 14:40:59.004138 30117 net.cpp:141] Setting up loss3/classifier_plantvillage_loss3/classifier_plantvillage_0_split
I0403 14:40:59.004168 30117 net.cpp:148] Top shape: 24 38 (912)
I0403 14:40:59.004186 30117 net.cpp:148] Top shape: 24 38 (912)
I0403 14:40:59.004204 30117 net.cpp:148] Top shape: 24 38 (912)
I0403 14:40:59.004220 30117 net.cpp:148] Top shape: 24 38 (912)
I0403 14:40:59.004235 30117 net.cpp:156] Memory required for data: 1346079072
I0403 14:40:59.004251 30117 layer_factory.hpp:77] Creating layer loss1/loss
I0403 14:40:59.004274 30117 net.cpp:91] Creating Layer loss1/loss
I0403 14:40:59.004293 30117 net.cpp:425] loss1/loss <- loss1/classifier_plantvillage_loss1/classifier_plantvillage_0_split_0
I0403 14:40:59.004333 30117 net.cpp:425] loss1/loss <- label_data_1_split_0
…
