…
I0403 15:08:28.425843 31187 net.cpp:313] The NetState phase (1) differed from the phase (0) specified by a rule in layer data
I0403 15:08:28.426960 31187 net.cpp:49] Initializing net from parameters: 
state {
  phase: TEST
}
layer {
  name: "data"
  type: "Data"
  top: "data"
  top: "label"
  include {
    phase: TEST
  }
  transform_param {
    mirror: false
    crop_size: 224
    mean_file: "/home/mohanty/data/final_dataset/lmdb/color-20-80/mean.binaryproto"
  }
  data_param {
    source: "/home/mohanty/data/final_dataset/lmdb/color-20-80/test_db"
    batch_size: 24
    backend: LMDB
  }
}
layer {
  name: "conv1/7x7_s2"
  type: "Convolution"
  bottom: "data"
  top: "conv1/7x7_s2"
  param {
    lr_mult: 1
    decay_mult: 1
  }
  param {
    lr_mult: 2
    decay_mult: 0
  }
  convolution_param {
    num_output: 64
    pad: 3
    kernel_size: 7
    stride: 2
    weight_filler {
      type: "xavier"
      std: 0.1
    }
    bias_filler {
      type: "constant"
      value: 0.2
    }
  }
}
layer {
  name: "conv1/relu_7x7"
  type: "ReLU"
  bottom: "conv1/7x7_s2"
  top: "conv1/7x7_s2"
}
layer {
  name: "pool1/3x3_s2"
  type: "Pooling"
  bottom: "conv1/7x7_s2"
  top: "pool1/3x3_s2"
  pooling_param {
    pool: MAX
    kernel_size: 3
    stride: 2
  }
}
layer {
  name: "pool1/norm1"
  type: "LRN"
  bottom: "pool1/3x3_s2"
  top: "pool1/norm1"
  lrn_param {
    local_size: 5
    alpha: 0.0001
    beta: 0.75
  }
}
layer {
  name: "conv2/3x3_reduce"
  type: "Convolution"
  bottom: "pool1/norm1"
  top: "conv2/3x3_reduce"
  param {
    lr_mult: 1
    decay_mult: 1
  }
  param {
    lr_mult: 2
    decay_mult: 0
  }
  convolution_param {
    num_output: 64
    kernel_size: 1
    weight_filler {
      type: "xavier"
      std: 0.1
    }
    bias_filler {
      type: "constant"
      value: 0.2
    }
  }
}
layer {
  name: "conv2/relu_3x3_reduce"
  type: "ReLU"
  bottom: "conv2/3x3_reduce"
  top: "conv2/3x3_reduce"
}
layer {
  name: "conv2/3x3"
  type: "Convolution"
  bottom: "conv2/3x3_reduce"
  top: "conv2/3x3"
  param {
    lr_mult: 1
    decay_mult: 1
  }
  param {
    lr_mult: 2
    decay_mult: 0
  }
  convolution_param {
    num_output: 192
    pad: 1
    kernel_size: 3
    weight_filler {
      type: "xavier"
      std: 0.03
    }
    bias_filler {
      type: "constant"
      value: 0.2
    }
  }
}
layer {
  name: "conv2/relu_3x3"
  type: "ReLU"
  bottom: "conv2/3x3"
  top: "conv2/3x3"
}
layer {
  name: "conv2/norm2"
  type: "LRN"
  bottom: "conv2/3x3"
  top: "conv2/norm2"
  lrn_param {
    local_size: 5
    alpha: 0.0001
    beta: 0.75
  }
}
layer {
  name: "pool2/3x3_s2"
  type: "Pooling"
  bottom: "conv2/norm2"
  top: "pool2/3x3_s2"
  pooling_param {
    pool: MAX
    kernel_size: 3
    stride: 2
  }
}
layer {
  name: "inception_3a/1x1"
  type: "Convolution"
  bottom: "pool2/3x3_s2"
  top: "inception_3a/1x1"
  param {
    lr_mult: 1
    decay_mult: 1
  }
  param {
    lr_mult: 2
    decay_mult: 0
  }
  convolution_param {
    num_output: 64
    kernel_size: 1
    weight_filler {
      type: "xavier"
      std: 0.03
    }
    bias_filler {
      type: "constant"
      value: 0.2
    }
  }
}
layer {
  name: "inception_3a/relu_1x1"
  type: "ReLU"
  bottom: "inception_3a/1x1"
  top: "inception_3a/1x1"
}
layer {
  name: "inception_3a/3x3_reduce"
  type: "Convolution"
  bottom: "pool2/3x3_s2"
  top: "inception_3a/3x3_reduce"
  param {
    lr_mult: 1
    decay_mult: 1
  }
  param {
    lr_mult: 2
    decay_mult: 0
  }
  convolution_param {
    num_output: 96
    kernel_size: 1
    weight_filler {
      type: "xavier"
      std: 0.09
    }
    bias_filler {
      type: "constant"
      value: 0.2
    }
  }
}
layer {
  name: "inception_3a/relu_3x3_reduce"
  type: "ReLU"
  bottom: "inception_3a/3x3_reduce"
  top: "inception_3a/3x3_reduce"
}
layer {
  name: "inception_3a/3x3"
  type: "Convolution"
  bottom: "inception_3a/3x3_reduce"
  top: "inception_3a/3x3"
  param {
    lr_mult: 1
    decay_mult: 1
  }
  param {
    lr_mult: 2
    decay_mult: 0
  }
  convolution_param {
    num_output: 128
    pad: 1
    kernel_size: 3
    weight_filler {
      type: "xavier"
      std: 0.03
    }
    bias_filler {
      type: "constant"
      value: 0.2
    }
  }
}
layer {
  name: "inception_3a/relu_3x3"
  type: "ReLU"
  bottom: "inception_3a/3x3"
  top: "inception_3a/3x3"
}
layer {
  name: "inception_3a/5x5_reduce"
  type: "Convolution"
  bottom: "pool2/3x3_s2"
  top: "inception_3a/5x5_reduce"
  param {
    lr_mult: 1
    decay_mult: 1
  }
  param {
    lr_mult: 2
    decay_mult: 0
  }
  convolution_param {
    num_output: 16
    kernel_size: 1
    weight_filler {
      type: "xavier"
      std: 0.2
    }
    bias_filler {
      type: "constant"
      value: 0.2
    }
  }
}
layer {
  name: "inception_3a/relu_5x5_reduce"
  type: "ReLU"
  bottom: "inception_3a/5x5_reduce"
  top: "inception_3a/5x5_reduce"
}
layer {
  name: "inception_3a/5x5"
  type: "Convolution"
  bottom: "inception_3a/5x5_reduce"
  top: "inception_3a/5x5"
  param {
    lr_mult: 1
    decay_mult: 1
  }
  param {
    lr_mult: 2
    decay_mult: 0
  }
  convolution_param {
    num_output: 32
    pad: 2
    kernel_size: 5
    weight_filler {
      type: "xavier"
      std: 0.03
    }
    bias_filler {
      type: "constant"
      value: 0.2
    }
  }
}
layer {
  name: "inception_3a/relu_5x5"
  type: "ReLU"
  bottom: "inception_3a/5x5"
  top: "inception_3a/5x5"
}
layer {
  name: "inception_3a/pool"
  type: "Pooling"
  bottom: "pool2/3x3_s2"
  top: "inception_3a/pool"
  pooling_param {
    pool: MAX
    kernel_size: 3
    stride: 1
    pad: 1
  }
}
layer {
  name: "inception_3a/pool_proj"
  type: "Convolution"
  bottom: "inception_3a/pool"
  top: "inception_3a/pool_proj"
  param {
    lr_mult: 1
    decay_mult: 1
  }
  param {
    lr_mult: 2
    decay_mult: 0
  }
  convolution_param {
    num_output: 32
    kernel_size: 1
    weight_filler {
      type: "xavier"
      std: 0.1
    }
    bias_filler {
      type: "constant"
      value: 0.2
    }
  }
}
layer {
  name: "inception_3a/relu_pool_proj"
  type: "ReLU"
  bottom: "inception_3a/pool_proj"
  top: "inception_3a/pool_proj"
}
layer {
  name: "inception_3a/output"
  type: "Concat"
  bottom: "inception_3a/1x1"
  bottom: "inception_3a/3x3"
  bottom: "inception_3a/5x5"
  bottom: "inception_3a/pool_proj"
  top: "inception_3a/output"
}
layer {
  name: "inception_3b/1x1"
  type: "Convolution"
  bottom: "inception_3a/output"
  top: "inception_3b/1x1"
  param {
    lr_mult: 1
    decay_mult: 1
  }
  param {
    lr_mult: 2
    decay_mult: 0
  }
  convolution_param {
    num_output: 128
    kernel_size: 1
    weight_filler {
      type: "xavier"
      std: 0.03
    }
    bias_filler {
      type: "constant"
      value: 0.2
    }
  }
}
layer {
  name: "inception_3b/relu_1x1"
  type: "ReLU"
  bottom: "inception_3b/1x1"
  top: "inception_3b/1x1"
}
layer {
  name: "inception_3b/3x3_reduce"
  type: "Convolution"
  bottom: "inception_3a/output"
  top: "inception_3b/3x3_reduce"
  param {
    lr_mult: 1
    decay_mult: 1
  }
  param {
    lr_mult: 2
    decay_mult: 0
  }
  convolution_param {
    num_output: 128
    kernel_size: 1
    weight_filler {
      type: "xavier"
      std: 0.09
    }
    bias_filler {
      type: "constant"
      value: 0.2
    }
  }
}
layer {
  name: "inception_3b/relu_3x3_reduce"
  type: "ReLU"
  bottom: "inception_3b/3x3_reduce"
  top: "inception_3b/3x3_reduce"
}
layer {
  name: "inception_3b/3x3"
  type: "Convolution"
  bottom: "inception_3b/3x3_reduce"
  top: "inception_3b/3x3"
  param {
    lr_mult: 1
    decay_mult: 1
  }
  param {
    lr_mult: 2
    decay_mult: 0
  }
  convolution_param {
    num_output: 192
    pad: 1
    kernel_size: 3
    weight_filler {
      type: "xavier"
      std: 0.03
    }
    bias_filler {
      type: "constant"
      value: 0.2
    }
  }
}
layer {
  name: "inception_3b/relu_3x3"
  type: "ReLU"
  bottom: "inception_3b/3x3"
  top: "inception_3b/3x3"
}
layer {
  name: "inception_3b/5x5_reduce"
  type: "Convolution"
  bottom: "inception_3a/output"
  top: "inception_3b/5x5_reduce"
  param {
    lr_mult: 1
    decay_mult: 1
  }
  param {
    lr_mult: 2
    decay_mult: 0
  }
  convolution_param {
    num_output: 32
    kernel_size: 1
    weight_filler {
      type: "xavier"
      std: 0.2
    }
    bias_filler {
      type: "constant"
      value: 0.2
    }
  }
}
layer {
  name: "inception_3b/relu_5x5_reduce"
  type: "ReLU"
  bottom: "inception_3b/5x5_reduce"
  top: "inception_3b/5x5_reduce"
}
layer {
  name: "inception_3b/5x5"
  type: "Convolution"
  bottom: "inception_3b/5x5_reduce"
  top: "inception_3b/5x5"
  param {
    lr_mult: 1
    decay_mult: 1
  }
  param {
    lr_mult: 2
    decay_mult: 0
  }
  convolution_param {
    num_output: 96
    pad: 2
    kernel_size: 5
    weight_filler {
      type: "xavier"
      std: 0.03
    }
    bias_filler {
      type: "constant"
      value: 0.2
    }
  }
}
layer {
  name: "inception_3b/relu_5x5"
  type: "ReLU"
  bottom: "inception_3b/5x5"
  top: "inception_3b/5x5"
}
layer {
  name: "inception_3b/pool"
  type: "Pooling"
  bottom: "inception_3a/output"
  top: "inception_3b/pool"
  pooling_param {
    pool: MAX
    kernel_size: 3
    stride: 1
    pad: 1
  }
}
layer {
  name: "inception_3b/pool_proj"
  type: "Convolution"
  bottom: "inception_3b/pool"
  top: "inception_3b/pool_proj"
  param {
    lr_mult: 1
    decay_mult: 1
  }
  param {
    lr_mult: 2
    decay_mult: 0
  }
  convolution_param {
    num_output: 64
    kernel_size: 1
    weight_filler {
      type: "xavier"
      std: 0.1
    }
    bias_filler {
      type: "constant"
      value: 0.2
    }
  }
}
layer {
  name: "inception_3b/relu_pool_proj"
  type: "ReLU"
  bottom: "inception_3b/pool_proj"
  top: "inception_3b/pool_proj"
}
layer {
  name: "inception_3b/output"
  type: "Concat"
  bottom: "inception_3b/1x1"
  bottom: "inception_3b/3x3"
  bottom: "inception_3b/5x5"
  bottom: "inception_3b/pool_proj"
  top: "inception_3b/output"
}
layer {
  name: "pool3/3x3_s2"
  type: "Pooling"
  bottom: "inception_3b/output"
  top: "pool3/3x3_s2"
  pooling_param {
    pool: MAX
    kernel_size: 3
    stride: 2
  }
}
layer {
  name: "inception_4a/1x1"
  type: "Convolution"
  bottom: "pool3/3x3_s2"
  top: "inception_4a/1x1"
  param {
    lr_mult: 1
    decay_mult: 1
  }
  param {
    lr_mult: 2
    decay_mult: 0
  }
  convolution_param {
    num_output: 192
    kernel_size: 1
    weight_filler {
      type: "xavier"
      std: 0.03
    }
    bias_filler {
      type: "constant"
      value: 0.2
    }
  }
}
layer {
  name: "inception_4a/relu_1x1"
  type: "ReLU"
  bottom: "inception_4a/1x1"
  top: "inception_4a/1x1"
}
layer {
  name: "inception_4a/3x3_reduce"
  type: "Convolution"
  bottom: "pool3/3x3_s2"
  top: "inception_4a/3x3_reduce"
  param {
    lr_mult: 1
    decay_mult: 1
  }
  param {
    lr_mult: 2
    decay_mult: 0
  }
  convolution_param {
    num_output: 96
    kernel_size: 1
    weight_filler {
      type: "xavier"
      std: 0.09
    }
    bias_filler {
      type: "constant"
      value: 0.2
    }
  }
}
layer {
  name: "inception_4a/relu_3x3_reduce"
  type: "ReLU"
  bottom: "inception_4a/3x3_reduce"
  top: "inception_4a/3x3_reduce"
}
layer {
  name: "inception_4a/3x3"
  type: "Convolution"
  bottom: "inception_4a/3x3_reduce"
  top: "inception_4a/3x3"
  param {
    lr_mult: 1
    decay_mult: 1
  }
  param {
    lr_mult: 2
    decay_mult: 0
  }
  convolution_param {
    num_output: 208
    pad: 1
    kernel_size: 3
    weight_filler {
      type: "xavier"
      std: 0.03
    }
    bias_filler {
      type: "constant"
      value: 0.2
    }
  }
}
layer {
  name: "inception_4a/relu_3x3"
  type: "ReLU"
  bottom: "inception_4a/3x3"
  top: "inception_4a/3x3"
}
layer {
  name: "inception_4a/5x5_reduce"
  type: "Convolution"
  bottom: "pool3/3x3_s2"
  top: "inception_4a/5x5_reduce"
  param {
    lr_mult: 1
    decay_mult: 1
  }
  param {
    lr_mult: 2
    decay_mult: 0
  }
  convolution_param {
    num_output: 16
    kernel_size: 1
    weight_filler {
      type: "xavier"
      std: 0.2
    }
    bias_filler {
      type: "constant"
      value: 0.2
    }
  }
}
layer {
  name: "inception_4a/relu_5x5_reduce"
  type: "ReLU"
  bottom: "inception_4a/5x5_reduce"
  top: "inception_4a/5x5_reduce"
}
layer {
  name: "inception_4a/5x5"
  type: "Convolution"
  bottom: "inception_4a/5x5_reduce"
  top: "inception_4a/5x5"
  param {
    lr_mult: 1
    decay_mult: 1
  }
  param {
    lr_mult: 2
    decay_mult: 0
  }
  convolution_param {
    num_output: 48
    pad: 2
    kernel_size: 5
    weight_filler {
      type: "xavier"
      std: 0.03
    }
    bias_filler {
      type: "constant"
      value: 0.2
    }
  }
}
layer {
  name: "inception_4a/relu_5x5"
  type: "ReLU"
  bottom: "inception_4a/5x5"
  top: "inception_4a/5x5"
}
layer {
  name: "inception_4a/pool"
  type: "Pooling"
  bottom: "pool3/3x3_s2"
  top: "inception_4a/pool"
  pooling_param {
    pool: MAX
    kernel_size: 3
    stride: 1
    pad: 1
  }
}
layer {
  name: "inception_4a/pool_proj"
  type: "Convolution"
  bottom: "inception_4a/pool"
  top: "inception_4a/pool_proj"
  param {
    lr_mult: 1
    decay_mult: 1
  }
  param {
    lr_mult: 2
    decay_mult: 0
  }
  convolution_param {
    num_output: 64
    kernel_size: 1
    weight_filler {
      type: "xavier"
      std: 0.1
    }
    bias_filler {
      type: "constant"
      value: 0.2
    }
  }
}
layer {
  name: "inception_4a/relu_pool_proj"
  type: "ReLU"
  bottom: "inception_4a/pool_proj"
  top: "inception_4a/pool_proj"
}
layer {
  name: "inception_4a/output"
  type: "Concat"
  bottom: "inception_4a/1x1"
  bottom: "inception_4a/3x3"
  bottom: "inception_4a/5x5"
  bottom: "inception_4a/pool_proj"
  top: "inception_4a/output"
}
layer {
  name: "loss1/ave_pool"
  type: "Pooling"
  bottom: "inception_4a/output"
  top: "loss1/ave_pool"
  pooling_param {
    pool: AVE
    kernel_size: 5
    stride: 3
  }
}
layer {
  name: "loss1/conv"
  type: "Convolution"
  bottom: "loss1/ave_pool"
  top: "loss1/conv"
  param {
    lr_mult: 1
    decay_mult: 1
  }
  param {
    lr_mult: 2
    decay_mult: 0
  }
  convolution_param {
    num_output: 128
    kernel_size: 1
    weight_filler {
      type: "xavier"
      std: 0.08
    }
    bias_filler {
      type: "constant"
      value: 0.2
    }
  }
}
layer {
  name: "loss1/relu_conv"
  type: "ReLU"
  bottom: "loss1/conv"
  top: "loss1/conv"
}
layer {
  name: "loss1/fc"
  type: "InnerProduct"
  bottom: "loss1/conv"
  top: "loss1/fc"
  param {
    lr_mult: 1
    decay_mult: 1
  }
  param {
    lr_mult: 2
    decay_mult: 0
  }
  inner_product_param {
    num_output: 1024
    weight_filler {
      type: "xavier"
      std: 0.02
    }
    bias_filler {
      type: "constant"
      value: 0.2
    }
  }
}
layer {
  name: "loss1/relu_fc"
  type: "ReLU"
  bottom: "loss1/fc"
  top: "loss1/fc"
}
layer {
  name: "loss1/drop_fc"
  type: "Dropout"
  bottom: "loss1/fc"
  top: "loss1/fc"
  dropout_param {
    dropout_ratio: 0.7
  }
}
layer {
  name: "loss1/classifier_plantvillage"
  type: "InnerProduct"
  bottom: "loss1/fc"
  top: "loss1/classifier_plantvillage"
  param {
    lr_mult: 1
    decay_mult: 1
  }
  param {
    lr_mult: 2
    decay_mult: 0
  }
  inner_product_param {
    num_output: 38
    weight_filler {
      type: "xavier"
      std: 0.0009765625
    }
    bias_filler {
      type: "constant"
      value: 0
    }
  }
}
layer {
  name: "inception_4b/1x1"
  type: "Convolution"
  bottom: "inception_4a/output"
  top: "inception_4b/1x1"
  param {
    lr_mult: 1
    decay_mult: 1
  }
  param {
    lr_mult: 2
    decay_mult: 0
  }
  convolution_param {
    num_output: 160
    kernel_size: 1
    weight_filler {
      type: "xavier"
      std: 0.03
    }
    bias_filler {
      type: "constant"
      value: 0.2
    }
  }
}
layer {
  name: "inception_4b/relu_1x1"
  type: "ReLU"
  bottom: "inception_4b/1x1"
  top: "inception_4b/1x1"
}
layer {
  name: "inception_4b/3x3_reduce"
  type: "Convolution"
  bottom: "inception_4a/output"
  top: "inception_4b/3x3_reduce"
  param {
    lr_mult: 1
    decay_mult: 1
  }
  param {
    lr_mult: 2
    decay_mult: 0
  }
  convolution_param {
    num_output: 112
    kernel_size: 1
    weight_filler {
      type: "xavier"
      std: 0.09
    }
    bias_filler {
      type: "constant"
      value: 0.2
    }
  }
}
layer {
  name: "inception_4b/relu_3x3_reduce"
  type: "ReLU"
  bottom: "inception_4b/3x3_reduce"
  top: "inception_4b/3x3_reduce"
}
layer {
  name: "inception_4b/3x3"
  type: "Convolution"
  bottom: "inception_4b/3x3_reduce"
  top: "inception_4b/3x3"
  param {
    lr_mult: 1
    decay_mult: 1
  }
  param {
    lr_mult: 2
    decay_mult: 0
  }
  convolution_param {
    num_output: 224
    pad: 1
    kernel_size: 3
    weight_filler {
      type: "xavier"
      std: 0.03
    }
    bias_filler {
      type: "constant"
      value: 0.2
    }
  }
}
layer {
  name: "inception_4b/relu_3x3"
  type: "ReLU"
  bottom: "inception_4b/3x3"
  top: "inception_4b/3x3"
}
layer {
  name: "inception_4b/5x5_reduce"
  type: "Convolution"
  bottom: "inception_4a/output"
  top: "inception_4b/5x5_reduce"
  param {
    lr_mult: 1
    decay_mult: 1
  }
  param {
    lr_mult: 2
    decay_mult: 0
  }
  convolution_param {
    num_output: 24
    kernel_size: 1
    weight_filler {
      type: "xavier"
      std: 0.2
    }
    bias_filler {
      type: "constant"
      value: 0.2
    }
  }
}
layer {
  name: "inception_4b/relu_5x5_reduce"
  type: "ReLU"
  bottom: "inception_4b/5x5_reduce"
  top: "inception_4b/5x5_reduce"
}
layer {
  name: "inception_4b/5x5"
  type: "Convolution"
  bottom: "inception_4b/5x5_reduce"
  top: "inception_4b/5x5"
  param {
    lr_mult: 1
    decay_mult: 1
  }
  param {
    lr_mult: 2
    decay_mult: 0
  }
  convolution_param {
    num_output: 64
    pad: 2
    kernel_size: 5
    weight_filler {
      type: "xavier"
      std: 0.03
    }
    bias_filler {
      type: "constant"
      value: 0.2
    }
  }
}
layer {
  name: "inception_4b/relu_5x5"
  type: "ReLU"
  bottom: "inception_4b/5x5"
  top: "inception_4b/5x5"
}
layer {
  name: "inception_4b/pool"
  type: "Pooling"
  bottom: "inception_4a/output"
  top: "inception_4b/pool"
  pooling_param {
    pool: MAX
    kernel_size: 3
    stride: 1
    pad: 1
  }
}
layer {
  name: "inception_4b/pool_proj"
  type: "Convolution"
  bottom: "inception_4b/pool"
  top: "inception_4b/pool_proj"
  param {
    lr_mult: 1
    decay_mult: 1
  }
  param {
    lr_mult: 2
    decay_mult: 0
  }
  convolution_param {
    num_output: 64
    kernel_size: 1
    weight_filler {
      type: "xavier"
      std: 0.1
    }
    bias_filler {
      type: "constant"
      value: 0.2
    }
  }
}
layer {
  name: "inception_4b/relu_pool_proj"
  type: "ReLU"
  bottom: "inception_4b/pool_proj"
  top: "inception_4b/pool_proj"
}
layer {
  name: "inception_4b/output"
  type: "Concat"
  bottom: "inception_4b/1x1"
  bottom: "inception_4b/3x3"
  bottom: "inception_4b/5x5"
  bottom: "inception_4b/pool_proj"
  top: "inception_4b/output"
}
layer {
  name: "inception_4c/1x1"
  type: "Convolution"
  bottom: "inception_4b/output"
  top: "inception_4c/1x1"
  param {
    lr_mult: 1
    decay_mult: 1
  }
  param {
    lr_mult: 2
    decay_mult: 0
  }
  convolution_param {
    num_output: 128
    kernel_size: 1
    weight_filler {
      type: "xavier"
      std: 0.03
    }
    bias_filler {
      type: "constant"
      value: 0.2
    }
  }
}
layer {
  name: "inception_4c/relu_1x1"
  type: "ReLU"
  bottom: "inception_4c/1x1"
  top: "inception_4c/1x1"
}
layer {
  name: "inception_4c/3x3_reduce"
  type: "Convolution"
  bottom: "inception_4b/output"
  top: "inception_4c/3x3_reduce"
  param {
    lr_mult: 1
    decay_mult: 1
  }
  param {
    lr_mult: 2
    decay_mult: 0
  }
  convolution_param {
    num_output: 128
    kernel_size: 1
    weight_filler {
      type: "xavier"
      std: 0.09
    }
    bias_filler {
      type: "constant"
      value: 0.2
    }
  }
}
layer {
  name: "inception_4c/relu_3x3_reduce"
  type: "ReLU"
  bottom: "inception_4c/3x3_reduce"
  top: "inception_4c/3x3_reduce"
}
layer {
  name: "inception_4c/3x3"
  type: "Convolution"
  bottom: "inception_4c/3x3_reduce"
  top: "inception_4c/3x3"
  param {
    lr_mult: 1
    decay_mult: 1
  }
  param {
    lr_mult: 2
    decay_mult: 0
  }
  convolution_param {
    num_output: 256
    pad: 1
    kernel_size: 3
    weight_filler {
      type: "xavier"
      std: 0.03
    }
    bias_filler {
      type: "constant"
      value: 0.2
    }
  }
}
layer {
  name: "inception_4c/relu_3x3"
  type: "ReLU"
  bottom: "inception_4c/3x3"
  top: "inception_4c/3x3"
}
layer {
  name: "inception_4c/5x5_reduce"
  type: "Convolution"
  bottom: "inception_4b/output"
  top: "inception_4c/5x5_reduce"
  param {
    lr_mult: 1
    decay_mult: 1
  }
  param {
    lr_mult: 2
    decay_mult: 0
  }
  convolution_param {
    num_output: 24
    kernel_size: 1
    weight_filler {
      type: "xavier"
      std: 0.2
    }
    bias_filler {
      type: "constant"
      value: 0.2
    }
  }
}
layer {
  name: "inception_4c/relu_5x5_reduce"
  type: "ReLU"
  bottom: "inception_4c/5x5_reduce"
  top: "inception_4c/5x5_reduce"
}
layer {
  name: "inception_4c/5x5"
  type: "Convolution"
  bottom: "inception_4c/5x5_reduce"
  top: "inception_4c/5x5"
  param {
    lr_mult: 1
    decay_mult: 1
  }
  param {
    lr_mult: 2
    decay_mult: 0
  }
  convolution_param {
    num_output: 64
    pad: 2
    kernel_size: 5
    weight_filler {
      type: "xavier"
      std: 0.03
    }
    bias_filler {
      type: "constant"
      value: 0.2
    }
  }
}
layer {
  name: "inception_4c/relu_5x5"
  type: "ReLU"
  bottom: "inception_4c/5x5"
  top: "inception_4c/5x5"
}
layer {
  name: "inception_4c/pool"
  type: "Pooling"
  bottom: "inception_4b/output"
  top: "inception_4c/pool"
  pooling_param {
    pool: MAX
    kernel_size: 3
    stride: 1
    pad: 1
  }
}
layer {
  name: "inception_4c/pool_proj"
  type: "Convolution"
  bottom: "inception_4c/pool"
  top: "inception_4c/pool_proj"
  param {
    lr_mult: 1
    decay_mult: 1
  }
  param {
    lr_mult: 2
    decay_mult: 0
  }
  convolution_param {
    num_output: 64
    kernel_size: 1
    weight_filler {
      type: "xavier"
      std: 0.1
    }
    bias_filler {
      type: "constant"
      value: 0.2
    }
  }
}
layer {
  name: "inception_4c/relu_pool_proj"
  type: "ReLU"
  bottom: "inception_4c/pool_proj"
  top: "inception_4c/pool_proj"
}
layer {
  name: "inception_4c/output"
  type: "Concat"
  bottom: "inception_4c/1x1"
  bottom: "inception_4c/3x3"
  bottom: "inception_4c/5x5"
  bottom: "inception_4c/pool_proj"
  top: "inception_4c/output"
}
layer {
  name: "inception_4d/1x1"
  type: "Convolution"
  bottom: "inception_4c/output"
  top: "inception_4d/1x1"
  param {
    lr_mult: 1
    decay_mult: 1
  }
  param {
    lr_mult: 2
    decay_mult: 0
  }
  convolution_param {
    num_output: 112
    kernel_size: 1
    weight_filler {
      type: "xavier"
      std: 0.03
    }
    bias_filler {
      type: "constant"
      value: 0.2
    }
  }
}
layer {
  name: "inception_4d/relu_1x1"
  type: "ReLU"
  bottom: "inception_4d/1x1"
  top: "inception_4d/1x1"
}
layer {
  name: "inception_4d/3x3_reduce"
  type: "Convolution"
  bottom: "inception_4c/output"
  top: "inception_4d/3x3_reduce"
  param {
    lr_mult: 1
    decay_mult: 1
  }
  param {
    lr_mult: 2
    decay_mult: 0
  }
  convolution_param {
    num_output: 144
    kernel_size: 1
    weight_filler {
      type: "xavier"
      std: 0.09
    }
    bias_filler {
      type: "constant"
      value: 0.2
    }
  }
}
layer {
  name: "inception_4d/relu_3x3_reduce"
  type: "ReLU"
  bottom: "inception_4d/3x3_reduce"
  top: "inception_4d/3x3_reduce"
}
layer {
  name: "inception_4d/3x3"
  type: "Convolution"
  bottom: "inception_4d/3x3_reduce"
  top: "inception_4d/3x3"
  param {
    lr_mult: 1
    decay_mult: 1
  }
  param {
    lr_mult: 2
    decay_mult: 0
  }
  convolution_param {
    num_output: 288
    pad: 1
    kernel_size: 3
    weight_filler {
      type: "xavier"
      std: 0.03
    }
    bias_filler {
      type: "constant"
      value: 0.2
    }
  }
}
layer {
  name: "inception_4d/relu_3x3"
  type: "ReLU"
  bottom: "inception_4d/3x3"
  top: "inception_4d/3x3"
}
layer {
  name: "inception_4d/5x5_reduce"
  type: "Convolution"
  bottom: "inception_4c/output"
  top: "inception_4d/5x5_reduce"
  param {
    lr_mult: 1
    decay_mult: 1
  }
  param {
    lr_mult: 2
    decay_mult: 0
  }
  convolution_param {
    num_output: 32
    kernel_size: 1
    weight_filler {
      type: "xavier"
      std: 0.2
    }
    bias_filler {
      type: "constant"
      value: 0.2
    }
  }
}
layer {
  name: "inception_4d/relu_5x5_reduce"
  type: "ReLU"
  bottom: "inception_4d/5x5_reduce"
  top: "inception_4d/5x5_reduce"
}
layer {
  name: "inception_4d/5x5"
  type: "Convolution"
  bottom: "inception_4d/5x5_reduce"
  top: "inception_4d/5x5"
  param {
    lr_mult: 1
    decay_mult: 1
  }
  param {
    lr_mult: 2
    decay_mult: 0
  }
  convolution_param {
    num_output: 64
    pad: 2
    kernel_size: 5
    weight_filler {
      type: "xavier"
      std: 0.03
    }
    bias_filler {
      type: "constant"
      value: 0.2
    }
  }
}
layer {
  name: "inception_4d/relu_5x5"
  type: "ReLU"
  bottom: "inception_4d/5x5"
  top: "inception_4d/5x5"
}
layer {
  name: "inception_4d/pool"
  type: "Pooling"
  bottom: "inception_4c/output"
  top: "inception_4d/pool"
  pooling_param {
    pool: MAX
    kernel_size: 3
    stride: 1
    pad: 1
  }
}
layer {
  name: "inception_4d/pool_proj"
  type: "Convolution"
  bottom: "inception_4d/pool"
  top: "inception_4d/pool_proj"
  param {
    lr_mult: 1
    decay_mult: 1
  }
  param {
    lr_mult: 2
    decay_mult: 0
  }
  convolution_param {
    num_output: 64
    kernel_size: 1
    weight_filler {
      type: "xavier"
      std: 0.1
    }
    bias_filler {
      type: "constant"
      value: 0.2
    }
  }
}
layer {
  name: "inception_4d/relu_pool_proj"
  type: "ReLU"
  bottom: "inception_4d/pool_proj"
  top: "inception_4d/pool_proj"
}
layer {
  name: "inception_4d/output"
  type: "Concat"
  bottom: "inception_4d/1x1"
  bottom: "inception_4d/3x3"
  bottom: "inception_4d/5x5"
  bottom: "inception_4d/pool_proj"
  top: "inception_4d/output"
}
layer {
  name: "loss2/ave_pool"
  type: "Pooling"
  bottom: "inception_4d/output"
  top: "loss2/ave_pool"
  pooling_param {
    pool: AVE
    kernel_size: 5
    stride: 3
  }
}
layer {
  name: "loss2/conv"
  type: "Convolution"
  bottom: "loss2/ave_pool"
  top: "loss2/conv"
  param {
    lr_mult: 1
    decay_mult: 1
  }
  param {
    lr_mult: 2
    decay_mult: 0
  }
  convolution_param {
    num_output: 128
    kernel_size: 1
    weight_filler {
      type: "xavier"
      std: 0.08
    }
    bias_filler {
      type: "constant"
      value: 0.2
    }
  }
}
layer {
  name: "loss2/relu_conv"
  type: "ReLU"
  bottom: "loss2/conv"
  top: "loss2/conv"
}
layer {
  name: "loss2/fc"
  type: "InnerProduct"
  bottom: "loss2/conv"
  top: "loss2/fc"
  param {
    lr_mult: 1
    decay_mult: 1
  }
  param {
    lr_mult: 2
    decay_mult: 0
  }
  inner_product_param {
    num_output: 1024
    weight_filler {
      type: "xavier"
      std: 0.02
    }
    bias_filler {
      type: "constant"
      value: 0.2
    }
  }
}
layer {
  name: "loss2/relu_fc"
  type: "ReLU"
  bottom: "loss2/fc"
  top: "loss2/fc"
}
layer {
  name: "loss2/drop_fc"
  type: "Dropout"
  bottom: "loss2/fc"
  top: "loss2/fc"
  dropout_param {
    dropout_ratio: 0.7
  }
}
layer {
  name: "loss2/classifier_plantvillage"
  type: "InnerProduct"
  bottom: "loss2/fc"
  top: "loss2/classifier_plantvillage"
  param {
    lr_mult: 1
    decay_mult: 1
  }
  param {
    lr_mult: 2
    decay_mult: 0
  }
  inner_product_param {
    num_output: 38
    weight_filler {
      type: "xavier"
      std: 0.0009765625
    }
    bias_filler {
      type: "constant"
      value: 0
    }
  }
}
layer {
  name: "inception_4e/1x1"
  type: "Convolution"
  bottom: "inception_4d/output"
  top: "inception_4e/1x1"
  param {
    lr_mult: 1
    decay_mult: 1
  }
  param {
    lr_mult: 2
    decay_mult: 0
  }
  convolution_param {
    num_output: 256
    kernel_size: 1
    weight_filler {
      type: "xavier"
      std: 0.03
    }
    bias_filler {
      type: "constant"
      value: 0.2
    }
  }
}
layer {
  name: "inception_4e/relu_1x1"
  type: "ReLU"
  bottom: "inception_4e/1x1"
  top: "inception_4e/1x1"
}
layer {
  name: "inception_4e/3x3_reduce"
  type: "Convolution"
  bottom: "inception_4d/output"
  top: "inception_4e/3x3_reduce"
  param {
    lr_mult: 1
    decay_mult: 1
  }
  param {
    lr_mult: 2
    decay_mult: 0
  }
  convolution_param {
    num_output: 160
    kernel_size: 1
    weight_filler {
      type: "xavier"
      std: 0.09
    }
    bias_filler {
      type: "constant"
      value: 0.2
    }
  }
}
layer {
  name: "inception_4e/relu_3x3_reduce"
  type: "ReLU"
  bottom: "inception_4e/3x3_reduce"
  top: "inception_4e/3x3_reduce"
}
layer {
  name: "inception_4e/3x3"
  type: "Convolution"
  bottom: "inception_4e/3x3_reduce"
  top: "inception_4e/3x3"
  param {
    lr_mult: 1
    decay_mult: 1
  }
  param {
    lr_mult: 2
    decay_mult: 0
  }
  convolution_param {
    num_output: 320
    pad: 1
    kernel_size: 3
    weight_filler {
      type: "xavier"
      std: 0.03
    }
    bias_filler {
      type: "constant"
      value: 0.2
    }
  }
}
layer {
  name: "inception_4e/relu_3x3"
  type: "ReLU"
  bottom: "inception_4e/3x3"
  top: "inception_4e/3x3"
}
layer {
  name: "inception_4e/5x5_reduce"
  type: "Convolution"
  bottom: "inception_4d/output"
  top: "inception_4e/5x5_reduce"
  param {
    lr_mult: 1
    decay_mult: 1
  }
  param {
    lr_mult: 2
    decay_mult: 0
  }
  convolution_param {
    num_output: 32
    kernel_size: 1
    weight_filler {
      type: "xavier"
      std: 0.2
    }
    bias_filler {
      type: "constant"
      value: 0.2
    }
  }
}
layer {
  name: "inception_4e/relu_5x5_reduce"
  type: "ReLU"
  bottom: "inception_4e/5x5_reduce"
  top: "inception_4e/5x5_reduce"
}
layer {
  name: "inception_4e/5x5"
  type: "Convolution"
  bottom: "inception_4e/5x5_reduce"
  top: "inception_4e/5x5"
  p
I0403 15:08:28.428244 31187 layer_factory.hpp:77] Creating layer data
I0403 15:08:28.428851 31187 net.cpp:91] Creating Layer data
I0403 15:08:28.428885 31187 net.cpp:399] data -> data
I0403 15:08:28.428937 31187 net.cpp:399] data -> label
I0403 15:08:28.428975 31187 data_transformer.cpp:25] Loading mean file from: /home/mohanty/data/final_dataset/lmdb/color-20-80/mean.binaryproto
I0403 15:08:28.431970 31191 db_lmdb.cpp:38] Opened lmdb /home/mohanty/data/final_dataset/lmdb/color-20-80/test_db
I0403 15:08:28.442308 31187 data_layer.cpp:41] output data size: 24,3,224,224
I0403 15:08:28.468602 31187 net.cpp:141] Setting up data
I0403 15:08:28.468680 31187 net.cpp:148] Top shape: 24 3 224 224 (3612672)
I0403 15:08:28.468703 31187 net.cpp:148] Top shape: 24 (24)
I0403 15:08:28.468719 31187 net.cpp:156] Memory required for data: 14450784
I0403 15:08:28.468746 31187 layer_factory.hpp:77] Creating layer label_data_1_split
I0403 15:08:28.468773 31187 net.cpp:91] Creating Layer label_data_1_split
I0403 15:08:28.468791 31187 net.cpp:425] label_data_1_split <- label
I0403 15:08:28.468822 31187 net.cpp:399] label_data_1_split -> label_data_1_split_0
I0403 15:08:28.468850 31187 net.cpp:399] label_data_1_split -> label_data_1_split_1
I0403 15:08:28.468873 31187 net.cpp:399] label_data_1_split -> label_data_1_split_2
I0403 15:08:28.468894 31187 net.cpp:399] label_data_1_split -> label_data_1_split_3
I0403 15:08:28.468914 31187 net.cpp:399] label_data_1_split -> label_data_1_split_4
I0403 15:08:28.468933 31187 net.cpp:399] label_data_1_split -> label_data_1_split_5
I0403 15:08:28.468953 31187 net.cpp:399] label_data_1_split -> label_data_1_split_6
I0403 15:08:28.468974 31187 net.cpp:399] label_data_1_split -> label_data_1_split_7
I0403 15:08:28.468994 31187 net.cpp:399] label_data_1_split -> label_data_1_split_8
I0403 15:08:28.469014 31187 net.cpp:399] label_data_1_split -> label_data_1_split_9
I0403 15:08:28.469128 31187 net.cpp:141] Setting up label_data_1_split
I0403 15:08:28.469151 31187 net.cpp:148] Top shape: 24 (24)
I0403 15:08:28.469169 31187 net.cpp:148] Top shape: 24 (24)
I0403 15:08:28.469185 31187 net.cpp:148] Top shape: 24 (24)
I0403 15:08:28.469202 31187 net.cpp:148] Top shape: 24 (24)
I0403 15:08:28.469218 31187 net.cpp:148] Top shape: 24 (24)
I0403 15:08:28.469233 31187 net.cpp:148] Top shape: 24 (24)
I0403 15:08:28.469249 31187 net.cpp:148] Top shape: 24 (24)
I0403 15:08:28.469265 31187 net.cpp:148] Top shape: 24 (24)
I0403 15:08:28.469282 31187 net.cpp:148] Top shape: 24 (24)
I0403 15:08:28.469298 31187 net.cpp:148] Top shape: 24 (24)
I0403 15:08:28.469347 31187 net.cpp:156] Memory required for data: 14451744
I0403 15:08:28.469364 31187 layer_factory.hpp:77] Creating layer conv1/7x7_s2
I0403 15:08:28.469396 31187 net.cpp:91] Creating Layer conv1/7x7_s2
I0403 15:08:28.469415 31187 net.cpp:425] conv1/7x7_s2 <- data
I0403 15:08:28.469436 31187 net.cpp:399] conv1/7x7_s2 -> conv1/7x7_s2
I0403 15:08:28.611016 31187 net.cpp:141] Setting up conv1/7x7_s2
I0403 15:08:28.611091 31187 net.cpp:148] Top shape: 24 64 112 112 (19267584)
I0403 15:08:28.611109 31187 net.cpp:156] Memory required for data: 91522080
I0403 15:08:28.611141 31187 layer_factory.hpp:77] Creating layer conv1/relu_7x7
I0403 15:08:28.611169 31187 net.cpp:91] Creating Layer conv1/relu_7x7
I0403 15:08:28.611189 31187 net.cpp:425] conv1/relu_7x7 <- conv1/7x7_s2
I0403 15:08:28.611210 31187 net.cpp:386] conv1/relu_7x7 -> conv1/7x7_s2 (in-place)
I0403 15:08:28.611479 31187 net.cpp:141] Setting up conv1/relu_7x7
I0403 15:08:28.611508 31187 net.cpp:148] Top shape: 24 64 112 112 (19267584)
I0403 15:08:28.611526 31187 net.cpp:156] Memory required for data: 168592416
I0403 15:08:28.611542 31187 layer_factory.hpp:77] Creating layer pool1/3x3_s2
I0403 15:08:28.611568 31187 net.cpp:91] Creating Layer pool1/3x3_s2
I0403 15:08:28.611588 31187 net.cpp:425] pool1/3x3_s2 <- conv1/7x7_s2
I0403 15:08:28.611606 31187 net.cpp:399] pool1/3x3_s2 -> pool1/3x3_s2
I0403 15:08:28.611682 31187 net.cpp:141] Setting up pool1/3x3_s2
I0403 15:08:28.611707 31187 net.cpp:148] Top shape: 24 64 56 56 (4816896)
I0403 15:08:28.611724 31187 net.cpp:156] Memory required for data: 187860000
I0403 15:08:28.611739 31187 layer_factory.hpp:77] Creating layer pool1/norm1
I0403 15:08:28.611765 31187 net.cpp:91] Creating Layer pool1/norm1
I0403 15:08:28.611783 31187 net.cpp:425] pool1/norm1 <- pool1/3x3_s2
I0403 15:08:28.611802 31187 net.cpp:399] pool1/norm1 -> pool1/norm1
I0403 15:08:28.612094 31187 net.cpp:141] Setting up pool1/norm1
I0403 15:08:28.612123 31187 net.cpp:148] Top shape: 24 64 56 56 (4816896)
I0403 15:08:28.612140 31187 net.cpp:156] Memory required for data: 207127584
I0403 15:08:28.612157 31187 layer_factory.hpp:77] Creating layer conv2/3x3_reduce
I0403 15:08:28.612182 31187 net.cpp:91] Creating Layer conv2/3x3_reduce
I0403 15:08:28.612200 31187 net.cpp:425] conv2/3x3_reduce <- pool1/norm1
I0403 15:08:28.612221 31187 net.cpp:399] conv2/3x3_reduce -> conv2/3x3_reduce
I0403 15:08:28.613665 31187 net.cpp:141] Setting up conv2/3x3_reduce
I0403 15:08:28.613697 31187 net.cpp:148] Top shape: 24 64 56 56 (4816896)
I0403 15:08:28.613714 31187 net.cpp:156] Memory required for data: 226395168
I0403 15:08:28.613737 31187 layer_factory.hpp:77] Creating layer conv2/relu_3x3_reduce
I0403 15:08:28.613756 31187 net.cpp:91] Creating Layer conv2/relu_3x3_reduce
I0403 15:08:28.613773 31187 net.cpp:425] conv2/relu_3x3_reduce <- conv2/3x3_reduce
I0403 15:08:28.613795 31187 net.cpp:386] conv2/relu_3x3_reduce -> conv2/3x3_reduce (in-place)
I0403 15:08:28.614070 31187 net.cpp:141] Setting up conv2/relu_3x3_reduce
I0403 15:08:28.614106 31187 net.cpp:148] Top shape: 24 64 56 56 (4816896)
I0403 15:08:28.614123 31187 net.cpp:156] Memory required for data: 245662752
I0403 15:08:28.614140 31187 layer_factory.hpp:77] Creating layer conv2/3x3
I0403 15:08:28.614164 31187 net.cpp:91] Creating Layer conv2/3x3
I0403 15:08:28.614183 31187 net.cpp:425] conv2/3x3 <- conv2/3x3_reduce
I0403 15:08:28.614205 31187 net.cpp:399] conv2/3x3 -> conv2/3x3
I0403 15:08:28.616559 31187 net.cpp:141] Setting up conv2/3x3
I0403 15:08:28.616592 31187 net.cpp:148] Top shape: 24 192 56 56 (14450688)
I0403 15:08:28.616610 31187 net.cpp:156] Memory required for data: 303465504
I0403 15:08:28.616632 31187 layer_factory.hpp:77] Creating layer conv2/relu_3x3
I0403 15:08:28.616653 31187 net.cpp:91] Creating Layer conv2/relu_3x3
I0403 15:08:28.616672 31187 net.cpp:425] conv2/relu_3x3 <- conv2/3x3
I0403 15:08:28.616689 31187 net.cpp:386] conv2/relu_3x3 -> conv2/3x3 (in-place)
I0403 15:08:28.616871 31187 net.cpp:141] Setting up conv2/relu_3x3
I0403 15:08:28.616899 31187 net.cpp:148] Top shape: 24 192 56 56 (14450688)
I0403 15:08:28.616946 31187 net.cpp:156] Memory required for data: 361268256
I0403 15:08:28.616964 31187 layer_factory.hpp:77] Creating layer conv2/norm2
I0403 15:08:28.616986 31187 net.cpp:91] Creating Layer conv2/norm2
I0403 15:08:28.617003 31187 net.cpp:425] conv2/norm2 <- conv2/3x3
I0403 15:08:28.617024 31187 net.cpp:399] conv2/norm2 -> conv2/norm2
I0403 15:08:28.617336 31187 net.cpp:141] Setting up conv2/norm2
I0403 15:08:28.617367 31187 net.cpp:148] Top shape: 24 192 56 56 (14450688)
I0403 15:08:28.617388 31187 net.cpp:156] Memory required for data: 419071008
I0403 15:08:28.617403 31187 layer_factory.hpp:77] Creating layer pool2/3x3_s2
I0403 15:08:28.617422 31187 net.cpp:91] Creating Layer pool2/3x3_s2
I0403 15:08:28.617439 31187 net.cpp:425] pool2/3x3_s2 <- conv2/norm2
I0403 15:08:28.617458 31187 net.cpp:399] pool2/3x3_s2 -> pool2/3x3_s2
I0403 15:08:28.617514 31187 net.cpp:141] Setting up pool2/3x3_s2
I0403 15:08:28.617539 31187 net.cpp:148] Top shape: 24 192 28 28 (3612672)
I0403 15:08:28.617555 31187 net.cpp:156] Memory required for data: 433521696
I0403 15:08:28.617573 31187 layer_factory.hpp:77] Creating layer pool2/3x3_s2_pool2/3x3_s2_0_split
I0403 15:08:28.617594 31187 net.cpp:91] Creating Layer pool2/3x3_s2_pool2/3x3_s2_0_split
I0403 15:08:28.617616 31187 net.cpp:425] pool2/3x3_s2_pool2/3x3_s2_0_split <- pool2/3x3_s2
I0403 15:08:28.617635 31187 net.cpp:399] pool2/3x3_s2_pool2/3x3_s2_0_split -> pool2/3x3_s2_pool2/3x3_s2_0_split_0
I0403 15:08:28.617655 31187 net.cpp:399] pool2/3x3_s2_pool2/3x3_s2_0_split -> pool2/3x3_s2_pool2/3x3_s2_0_split_1
I0403 15:08:28.617674 31187 net.cpp:399] pool2/3x3_s2_pool2/3x3_s2_0_split -> pool2/3x3_s2_pool2/3x3_s2_0_split_2
I0403 15:08:28.617698 31187 net.cpp:399] pool2/3x3_s2_pool2/3x3_s2_0_split -> pool2/3x3_s2_pool2/3x3_s2_0_split_3
I0403 15:08:28.617774 31187 net.cpp:141] Setting up pool2/3x3_s2_pool2/3x3_s2_0_split
I0403 15:08:28.617799 31187 net.cpp:148] Top shape: 24 192 28 28 (3612672)
I0403 15:08:28.617817 31187 net.cpp:148] Top shape: 24 192 28 28 (3612672)
I0403 15:08:28.617835 31187 net.cpp:148] Top shape: 24 192 28 28 (3612672)
I0403 15:08:28.617851 31187 net.cpp:148] Top shape: 24 192 28 28 (3612672)
I0403 15:08:28.617867 31187 net.cpp:156] Memory required for data: 491324448
I0403 15:08:28.617882 31187 layer_factory.hpp:77] Creating layer inception_3a/1x1
I0403 15:08:28.617904 31187 net.cpp:91] Creating Layer inception_3a/1x1
I0403 15:08:28.617923 31187 net.cpp:425] inception_3a/1x1 <- pool2/3x3_s2_pool2/3x3_s2_0_split_0
I0403 15:08:28.617945 31187 net.cpp:399] inception_3a/1x1 -> inception_3a/1x1
I0403 15:08:28.619505 31187 net.cpp:141] Setting up inception_3a/1x1
I0403 15:08:28.619536 31187 net.cpp:148] Top shape: 24 64 28 28 (1204224)
I0403 15:08:28.619554 31187 net.cpp:156] Memory required for data: 496141344
I0403 15:08:28.619575 31187 layer_factory.hpp:77] Creating layer inception_3a/relu_1x1
I0403 15:08:28.619593 31187 net.cpp:91] Creating Layer inception_3a/relu_1x1
I0403 15:08:28.619609 31187 net.cpp:425] inception_3a/relu_1x1 <- inception_3a/1x1
I0403 15:08:28.619631 31187 net.cpp:386] inception_3a/relu_1x1 -> inception_3a/1x1 (in-place)
I0403 15:08:28.619807 31187 net.cpp:141] Setting up inception_3a/relu_1x1
I0403 15:08:28.619835 31187 net.cpp:148] Top shape: 24 64 28 28 (1204224)
I0403 15:08:28.619851 31187 net.cpp:156] Memory required for data: 500958240
I0403 15:08:28.619866 31187 layer_factory.hpp:77] Creating layer inception_3a/3x3_reduce
I0403 15:08:28.619896 31187 net.cpp:91] Creating Layer inception_3a/3x3_reduce
I0403 15:08:28.619915 31187 net.cpp:425] inception_3a/3x3_reduce <- pool2/3x3_s2_pool2/3x3_s2_0_split_1
I0403 15:08:28.619938 31187 net.cpp:399] inception_3a/3x3_reduce -> inception_3a/3x3_reduce
I0403 15:08:28.621664 31187 net.cpp:141] Setting up inception_3a/3x3_reduce
I0403 15:08:28.621707 31187 net.cpp:148] Top shape: 24 96 28 28 (1806336)
I0403 15:08:28.621724 31187 net.cpp:156] Memory required for data: 508183584
I0403 15:08:28.621748 31187 layer_factory.hpp:77] Creating layer inception_3a/relu_3x3_reduce
I0403 15:08:28.621788 31187 net.cpp:91] Creating Layer inception_3a/relu_3x3_reduce
I0403 15:08:28.621808 31187 net.cpp:425] inception_3a/relu_3x3_reduce <- inception_3a/3x3_reduce
I0403 15:08:28.621827 31187 net.cpp:386] inception_3a/relu_3x3_reduce -> inception_3a/3x3_reduce (in-place)
I0403 15:08:28.622032 31187 net.cpp:141] Setting up inception_3a/relu_3x3_reduce
I0403 15:08:28.622061 31187 net.cpp:148] Top shape: 24 96 28 28 (1806336)
I0403 15:08:28.622078 31187 net.cpp:156] Memory required for data: 515408928
I0403 15:08:28.622095 31187 layer_factory.hpp:77] Creating layer inception_3a/3x3
I0403 15:08:28.622120 31187 net.cpp:91] Creating Layer inception_3a/3x3
I0403 15:08:28.622138 31187 net.cpp:425] inception_3a/3x3 <- inception_3a/3x3_reduce
I0403 15:08:28.622159 31187 net.cpp:399] inception_3a/3x3 -> inception_3a/3x3
I0403 15:08:28.623850 31187 net.cpp:141] Setting up inception_3a/3x3
I0403 15:08:28.623880 31187 net.cpp:148] Top shape: 24 128 28 28 (2408448)
I0403 15:08:28.623896 31187 net.cpp:156] Memory required for data: 525042720
I0403 15:08:28.623916 31187 layer_factory.hpp:77] Creating layer inception_3a/relu_3x3
I0403 15:08:28.623939 31187 net.cpp:91] Creating Layer inception_3a/relu_3x3
I0403 15:08:28.623957 31187 net.cpp:425] inception_3a/relu_3x3 <- inception_3a/3x3
I0403 15:08:28.623975 31187 net.cpp:386] inception_3a/relu_3x3 -> inception_3a/3x3 (in-place)
I0403 15:08:28.624254 31187 net.cpp:141] Setting up inception_3a/relu_3x3
I0403 15:08:28.624282 31187 net.cpp:148] Top shape: 24 128 28 28 (2408448)
I0403 15:08:28.624300 31187 net.cpp:156] Memory required for data: 534676512
I0403 15:08:28.624325 31187 layer_factory.hpp:77] Creating layer inception_3a/5x5_reduce
I0403 15:08:28.624353 31187 net.cpp:91] Creating Layer inception_3a/5x5_reduce
I0403 15:08:28.624373 31187 net.cpp:425] inception_3a/5x5_reduce <- pool2/3x3_s2_pool2/3x3_s2_0_split_2
I0403 15:08:28.624397 31187 net.cpp:399] inception_3a/5x5_reduce -> inception_3a/5x5_reduce
I0403 15:08:28.625394 31187 net.cpp:141] Setting up inception_3a/5x5_reduce
I0403 15:08:28.625425 31187 net.cpp:148] Top shape: 24 16 28 28 (301056)
I0403 15:08:28.625442 31187 net.cpp:156] Memory required for data: 535880736
I0403 15:08:28.625461 31187 layer_factory.hpp:77] Creating layer inception_3a/relu_5x5_reduce
I0403 15:08:28.625483 31187 net.cpp:91] Creating Layer inception_3a/relu_5x5_reduce
I0403 15:08:28.625500 31187 net.cpp:425] inception_3a/relu_5x5_reduce <- inception_3a/5x5_reduce
I0403 15:08:28.625519 31187 net.cpp:386] inception_3a/relu_5x5_reduce -> inception_3a/5x5_reduce (in-place)
I0403 15:08:28.625831 31187 net.cpp:141] Setting up inception_3a/relu_5x5_reduce
I0403 15:08:28.625859 31187 net.cpp:148] Top shape: 24 16 28 28 (301056)
I0403 15:08:28.625876 31187 net.cpp:156] Memory required for data: 537084960
I0403 15:08:28.625891 31187 layer_factory.hpp:77] Creating layer inception_3a/5x5
I0403 15:08:28.625916 31187 net.cpp:91] Creating Layer inception_3a/5x5
I0403 15:08:28.625936 31187 net.cpp:425] inception_3a/5x5 <- inception_3a/5x5_reduce
I0403 15:08:28.625955 31187 net.cpp:399] inception_3a/5x5 -> inception_3a/5x5
I0403 15:08:28.626992 31187 net.cpp:141] Setting up inception_3a/5x5
I0403 15:08:28.627020 31187 net.cpp:148] Top shape: 24 32 28 28 (602112)
I0403 15:08:28.627038 31187 net.cpp:156] Memory required for data: 539493408
I0403 15:08:28.627058 31187 layer_factory.hpp:77] Creating layer inception_3a/relu_5x5
I0403 15:08:28.627077 31187 net.cpp:91] Creating Layer inception_3a/relu_5x5
I0403 15:08:28.627094 31187 net.cpp:425] inception_3a/relu_5x5 <- inception_3a/5x5
I0403 15:08:28.627113 31187 net.cpp:386] inception_3a/relu_5x5 -> inception_3a/5x5 (in-place)
I0403 15:08:28.627285 31187 net.cpp:141] Setting up inception_3a/relu_5x5
I0403 15:08:28.627311 31187 net.cpp:148] Top shape: 24 32 28 28 (602112)
I0403 15:08:28.627333 31187 net.cpp:156] Memory required for data: 541901856
I0403 15:08:28.627348 31187 layer_factory.hpp:77] Creating layer inception_3a/pool
I0403 15:08:28.627367 31187 net.cpp:91] Creating Layer inception_3a/pool
I0403 15:08:28.627384 31187 net.cpp:425] inception_3a/pool <- pool2/3x3_s2_pool2/3x3_s2_0_split_3
I0403 15:08:28.627416 31187 net.cpp:399] inception_3a/pool -> inception_3a/pool
I0403 15:08:28.627476 31187 net.cpp:141] Setting up inception_3a/pool
I0403 15:08:28.627501 31187 net.cpp:148] Top shape: 24 192 28 28 (3612672)
I0403 15:08:28.627517 31187 net.cpp:156] Memory required for data: 556352544
I0403 15:08:28.627532 31187 layer_factory.hpp:77] Creating layer inception_3a/pool_proj
I0403 15:08:28.627555 31187 net.cpp:91] Creating Layer inception_3a/pool_proj
I0403 15:08:28.627575 31187 net.cpp:425] inception_3a/pool_proj <- inception_3a/pool
I0403 15:08:28.627599 31187 net.cpp:399] inception_3a/pool_proj -> inception_3a/pool_proj
I0403 15:08:28.628554 31187 net.cpp:141] Setting up inception_3a/pool_proj
I0403 15:08:28.628587 31187 net.cpp:148] Top shape: 24 32 28 28 (602112)
I0403 15:08:28.628602 31187 net.cpp:156] Memory required for data: 558760992
I0403 15:08:28.628623 31187 layer_factory.hpp:77] Creating layer inception_3a/relu_pool_proj
I0403 15:08:28.628645 31187 net.cpp:91] Creating Layer inception_3a/relu_pool_proj
I0403 15:08:28.628662 31187 net.cpp:425] inception_3a/relu_pool_proj <- inception_3a/pool_proj
I0403 15:08:28.628680 31187 net.cpp:386] inception_3a/relu_pool_proj -> inception_3a/pool_proj (in-place)
I0403 15:08:28.628952 31187 net.cpp:141] Setting up inception_3a/relu_pool_proj
I0403 15:08:28.628979 31187 net.cpp:148] Top shape: 24 32 28 28 (602112)
I0403 15:08:28.628995 31187 net.cpp:156] Memory required for data: 561169440
I0403 15:08:28.629011 31187 layer_factory.hpp:77] Creating layer inception_3a/output
I0403 15:08:28.629029 31187 net.cpp:91] Creating Layer inception_3a/output
I0403 15:08:28.629045 31187 net.cpp:425] inception_3a/output <- inception_3a/1x1
I0403 15:08:28.629065 31187 net.cpp:425] inception_3a/output <- inception_3a/3x3
I0403 15:08:28.629081 31187 net.cpp:425] inception_3a/output <- inception_3a/5x5
I0403 15:08:28.629097 31187 net.cpp:425] inception_3a/output <- inception_3a/pool_proj
I0403 15:08:28.629118 31187 net.cpp:399] inception_3a/output -> inception_3a/output
I0403 15:08:28.629163 31187 net.cpp:141] Setting up inception_3a/output
I0403 15:08:28.629191 31187 net.cpp:148] Top shape: 24 256 28 28 (4816896)
I0403 15:08:28.629207 31187 net.cpp:156] Memory required for data: 580437024
I0403 15:08:28.629222 31187 layer_factory.hpp:77] Creating layer inception_3a/output_inception_3a/output_0_split
I0403 15:08:28.629240 31187 net.cpp:91] Creating Layer inception_3a/output_inception_3a/output_0_split
I0403 15:08:28.629256 31187 net.cpp:425] inception_3a/output_inception_3a/output_0_split <- inception_3a/output
I0403 15:08:28.629273 31187 net.cpp:399] inception_3a/output_inception_3a/output_0_split -> inception_3a/output_inception_3a/output_0_split_0
I0403 15:08:28.629297 31187 net.cpp:399] inception_3a/output_inception_3a/output_0_split -> inception_3a/output_inception_3a/output_0_split_1
I0403 15:08:28.629325 31187 net.cpp:399] inception_3a/output_inception_3a/output_0_split -> inception_3a/output_inception_3a/output_0_split_2
I0403 15:08:28.629349 31187 net.cpp:399] inception_3a/output_inception_3a/output_0_split -> inception_3a/output_inception_3a/output_0_split_3
I0403 15:08:28.629426 31187 net.cpp:141] Setting up inception_3a/output_inception_3a/output_0_split
I0403 15:08:28.629451 31187 net.cpp:148] Top shape: 24 256 28 28 (4816896)
I0403 15:08:28.629470 31187 net.cpp:148] Top shape: 24 256 28 28 (4816896)
I0403 15:08:28.629487 31187 net.cpp:148] Top shape: 24 256 28 28 (4816896)
I0403 15:08:28.629503 31187 net.cpp:148] Top shape: 24 256 28 28 (4816896)
I0403 15:08:28.629518 31187 net.cpp:156] Memory required for data: 657507360
I0403 15:08:28.629534 31187 layer_factory.hpp:77] Creating layer inception_3b/1x1
I0403 15:08:28.629555 31187 net.cpp:91] Creating Layer inception_3b/1x1
I0403 15:08:28.629575 31187 net.cpp:425] inception_3b/1x1 <- inception_3a/output_inception_3a/output_0_split_0
I0403 15:08:28.629606 31187 net.cpp:399] inception_3b/1x1 -> inception_3b/1x1
I0403 15:08:28.630759 31187 net.cpp:141] Setting up inception_3b/1x1
I0403 15:08:28.630802 31187 net.cpp:148] Top shape: 24 128 28 28 (2408448)
I0403 15:08:28.630820 31187 net.cpp:156] Memory required for data: 667141152
I0403 15:08:28.630841 31187 layer_factory.hpp:77] Creating layer inception_3b/relu_1x1
I0403 15:08:28.630859 31187 net.cpp:91] Creating Layer inception_3b/relu_1x1
I0403 15:08:28.630877 31187 net.cpp:425] inception_3b/relu_1x1 <- inception_3b/1x1
I0403 15:08:28.630898 31187 net.cpp:386] inception_3b/relu_1x1 -> inception_3b/1x1 (in-place)
I0403 15:08:28.631079 31187 net.cpp:141] Setting up inception_3b/relu_1x1
I0403 15:08:28.631106 31187 net.cpp:148] Top shape: 24 128 28 28 (2408448)
I0403 15:08:28.631122 31187 net.cpp:156] Memory required for data: 676774944
I0403 15:08:28.631137 31187 layer_factory.hpp:77] Creating layer inception_3b/3x3_reduce
I0403 15:08:28.631163 31187 net.cpp:91] Creating Layer inception_3b/3x3_reduce
I0403 15:08:28.631182 31187 net.cpp:425] inception_3b/3x3_reduce <- inception_3a/output_inception_3a/output_0_split_1
I0403 15:08:28.631204 31187 net.cpp:399] inception_3b/3x3_reduce -> inception_3b/3x3_reduce
I0403 15:08:28.632365 31187 net.cpp:141] Setting up inception_3b/3x3_reduce
I0403 15:08:28.632396 31187 net.cpp:148] Top shape: 24 128 28 28 (2408448)
I0403 15:08:28.632413 31187 net.cpp:156] Memory required for data: 686408736
I0403 15:08:28.632432 31187 layer_factory.hpp:77] Creating layer inception_3b/relu_3x3_reduce
I0403 15:08:28.632452 31187 net.cpp:91] Creating Layer inception_3b/relu_3x3_reduce
I0403 15:08:28.632468 31187 net.cpp:425] inception_3b/relu_3x3_reduce <- inception_3b/3x3_reduce
I0403 15:08:28.632490 31187 net.cpp:386] inception_3b/relu_3x3_reduce -> inception_3b/3x3_reduce (in-place)
I0403 15:08:28.632668 31187 net.cpp:141] Setting up inception_3b/relu_3x3_reduce
I0403 15:08:28.632694 31187 net.cpp:148] Top shape: 24 128 28 28 (2408448)
I0403 15:08:28.632711 31187 net.cpp:156] Memory required for data: 696042528
I0403 15:08:28.632727 31187 layer_factory.hpp:77] Creating layer inception_3b/3x3
I0403 15:08:28.632755 31187 net.cpp:91] Creating Layer inception_3b/3x3
I0403 15:08:28.632773 31187 net.cpp:425] inception_3b/3x3 <- inception_3b/3x3_reduce
I0403 15:08:28.632794 31187 net.cpp:399] inception_3b/3x3 -> inception_3b/3x3
I0403 15:08:28.635758 31187 net.cpp:141] Setting up inception_3b/3x3
I0403 15:08:28.635788 31187 net.cpp:148] Top shape: 24 192 28 28 (3612672)
I0403 15:08:28.635805 31187 net.cpp:156] Memory required for data: 710493216
I0403 15:08:28.635824 31187 layer_factory.hpp:77] Creating layer inception_3b/relu_3x3
I0403 15:08:28.635843 31187 net.cpp:91] Creating Layer inception_3b/relu_3x3
I0403 15:08:28.635860 31187 net.cpp:425] inception_3b/relu_3x3 <- inception_3b/3x3
I0403 15:08:28.635880 31187 net.cpp:386] inception_3b/relu_3x3 -> inception_3b/3x3 (in-place)
I0403 15:08:28.636163 31187 net.cpp:141] Setting up inception_3b/relu_3x3
I0403 15:08:28.636193 31187 net.cpp:148] Top shape: 24 192 28 28 (3612672)
I0403 15:08:28.636209 31187 net.cpp:156] Memory required for data: 724943904
I0403 15:08:28.636224 31187 layer_factory.hpp:77] Creating layer inception_3b/5x5_reduce
I0403 15:08:28.636250 31187 net.cpp:91] Creating Layer inception_3b/5x5_reduce
I0403 15:08:28.636267 31187 net.cpp:425] inception_3b/5x5_reduce <- inception_3a/output_inception_3a/output_0_split_2
I0403 15:08:28.636291 31187 net.cpp:399] inception_3b/5x5_reduce -> inception_3b/5x5_reduce
I0403 15:08:28.637302 31187 net.cpp:141] Setting up inception_3b/5x5_reduce
I0403 15:08:28.637336 31187 net.cpp:148] Top shape: 24 32 28 28 (602112)
I0403 15:08:28.637354 31187 net.cpp:156] Memory required for data: 727352352
I0403 15:08:28.637374 31187 layer_factory.hpp:77] Creating layer inception_3b/relu_5x5_reduce
I0403 15:08:28.637392 31187 net.cpp:91] Creating Layer inception_3b/relu_5x5_reduce
I0403 15:08:28.637409 31187 net.cpp:425] inception_3b/relu_5x5_reduce <- inception_3b/5x5_reduce
I0403 15:08:28.637429 31187 net.cpp:386] inception_3b/relu_5x5_reduce -> inception_3b/5x5_reduce (in-place)
I0403 15:08:28.637610 31187 net.cpp:141] Setting up inception_3b/relu_5x5_reduce
I0403 15:08:28.637648 31187 net.cpp:148] Top shape: 24 32 28 28 (602112)
I0403 15:08:28.637665 31187 net.cpp:156] Memory required for data: 729760800
I0403 15:08:28.637682 31187 layer_factory.hpp:77] Creating layer inception_3b/5x5
I0403 15:08:28.637706 31187 net.cpp:91] Creating Layer inception_3b/5x5
I0403 15:08:28.637724 31187 net.cpp:425] inception_3b/5x5 <- inception_3b/5x5_reduce
I0403 15:08:28.637747 31187 net.cpp:399] inception_3b/5x5 -> inception_3b/5x5
I0403 15:08:28.639765 31187 net.cpp:141] Setting up inception_3b/5x5
I0403 15:08:28.639797 31187 net.cpp:148] Top shape: 24 96 28 28 (1806336)
I0403 15:08:28.639816 31187 net.cpp:156] Memory required for data: 736986144
I0403 15:08:28.639835 31187 layer_factory.hpp:77] Creating layer inception_3b/relu_5x5
I0403 15:08:28.639854 31187 net.cpp:91] Creating Layer inception_3b/relu_5x5
I0403 15:08:28.639870 31187 net.cpp:425] inception_3b/relu_5x5 <- inception_3b/5x5
I0403 15:08:28.639891 31187 net.cpp:386] inception_3b/relu_5x5 -> inception_3b/5x5 (in-place)
I0403 15:08:28.640085 31187 net.cpp:141] Setting up inception_3b/relu_5x5
I0403 15:08:28.640112 31187 net.cpp:148] Top shape: 24 96 28 28 (1806336)
I0403 15:08:28.640130 31187 net.cpp:156] Memory required for data: 744211488
I0403 15:08:28.640146 31187 layer_factory.hpp:77] Creating layer inception_3b/pool
I0403 15:08:28.640164 31187 net.cpp:91] Creating Layer inception_3b/pool
I0403 15:08:28.640182 31187 net.cpp:425] inception_3b/pool <- inception_3a/output_inception_3a/output_0_split_3
I0403 15:08:28.640202 31187 net.cpp:399] inception_3b/pool -> inception_3b/pool
I0403 15:08:28.640261 31187 net.cpp:141] Setting up inception_3b/pool
I0403 15:08:28.640286 31187 net.cpp:148] Top shape: 24 256 28 28 (4816896)
I0403 15:08:28.640303 31187 net.cpp:156] Memory required for data: 763479072
I0403 15:08:28.640322 31187 layer_factory.hpp:77] Creating layer inception_3b/pool_proj
I0403 15:08:28.640347 31187 net.cpp:91] Creating Layer inception_3b/pool_proj
I0403 15:08:28.640367 31187 net.cpp:425] inception_3b/pool_proj <- inception_3b/pool
I0403 15:08:28.640390 31187 net.cpp:399] inception_3b/pool_proj -> inception_3b/pool_proj
I0403 15:08:28.641472 31187 net.cpp:141] Setting up inception_3b/pool_proj
I0403 15:08:28.641502 31187 net.cpp:148] Top shape: 24 64 28 28 (1204224)
I0403 15:08:28.641520 31187 net.cpp:156] Memory required for data: 768295968
I0403 15:08:28.641538 31187 layer_factory.hpp:77] Creating layer inception_3b/relu_pool_proj
I0403 15:08:28.641561 31187 net.cpp:91] Creating Layer inception_3b/relu_pool_proj
I0403 15:08:28.641580 31187 net.cpp:425] inception_3b/relu_pool_proj <- inception_3b/pool_proj
I0403 15:08:28.641598 31187 net.cpp:386] inception_3b/relu_pool_proj -> inception_3b/pool_proj (in-place)
I0403 15:08:28.642005 31187 net.cpp:141] Setting up inception_3b/relu_pool_proj
I0403 15:08:28.642033 31187 net.cpp:148] Top shape: 24 64 28 28 (1204224)
I0403 15:08:28.642050 31187 net.cpp:156] Memory required for data: 773112864
I0403 15:08:28.642066 31187 layer_factory.hpp:77] Creating layer inception_3b/output
I0403 15:08:28.642086 31187 net.cpp:91] Creating Layer inception_3b/output
I0403 15:08:28.642103 31187 net.cpp:425] inception_3b/output <- inception_3b/1x1
I0403 15:08:28.642122 31187 net.cpp:425] inception_3b/output <- inception_3b/3x3
I0403 15:08:28.642139 31187 net.cpp:425] inception_3b/output <- inception_3b/5x5
I0403 15:08:28.642155 31187 net.cpp:425] inception_3b/output <- inception_3b/pool_proj
I0403 15:08:28.642174 31187 net.cpp:399] inception_3b/output -> inception_3b/output
I0403 15:08:28.642221 31187 net.cpp:141] Setting up inception_3b/output
I0403 15:08:28.642256 31187 net.cpp:148] Top shape: 24 480 28 28 (9031680)
I0403 15:08:28.642271 31187 net.cpp:156] Memory required for data: 809239584
I0403 15:08:28.642287 31187 layer_factory.hpp:77] Creating layer pool3/3x3_s2
I0403 15:08:28.642305 31187 net.cpp:91] Creating Layer pool3/3x3_s2
I0403 15:08:28.642328 31187 net.cpp:425] pool3/3x3_s2 <- inception_3b/output
I0403 15:08:28.642350 31187 net.cpp:399] pool3/3x3_s2 -> pool3/3x3_s2
I0403 15:08:28.642426 31187 net.cpp:141] Setting up pool3/3x3_s2
I0403 15:08:28.642452 31187 net.cpp:148] Top shape: 24 480 14 14 (2257920)
I0403 15:08:28.642467 31187 net.cpp:156] Memory required for data: 818271264
I0403 15:08:28.642480 31187 layer_factory.hpp:77] Creating layer pool3/3x3_s2_pool3/3x3_s2_0_split
I0403 15:08:28.642501 31187 net.cpp:91] Creating Layer pool3/3x3_s2_pool3/3x3_s2_0_split
I0403 15:08:28.642518 31187 net.cpp:425] pool3/3x3_s2_pool3/3x3_s2_0_split <- pool3/3x3_s2
I0403 15:08:28.642547 31187 net.cpp:399] pool3/3x3_s2_pool3/3x3_s2_0_split -> pool3/3x3_s2_pool3/3x3_s2_0_split_0
I0403 15:08:28.642570 31187 net.cpp:399] pool3/3x3_s2_pool3/3x3_s2_0_split -> pool3/3x3_s2_pool3/3x3_s2_0_split_1
I0403 15:08:28.642591 31187 net.cpp:399] pool3/3x3_s2_pool3/3x3_s2_0_split -> pool3/3x3_s2_pool3/3x3_s2_0_split_2
I0403 15:08:28.642611 31187 net.cpp:399] pool3/3x3_s2_pool3/3x3_s2_0_split -> pool3/3x3_s2_pool3/3x3_s2_0_split_3
I0403 15:08:28.642688 31187 net.cpp:141] Setting up pool3/3x3_s2_pool3/3x3_s2_0_split
I0403 15:08:28.642714 31187 net.cpp:148] Top shape: 24 480 14 14 (2257920)
I0403 15:08:28.642730 31187 net.cpp:148] Top shape: 24 480 14 14 (2257920)
I0403 15:08:28.642748 31187 net.cpp:148] Top shape: 24 480 14 14 (2257920)
I0403 15:08:28.642765 31187 net.cpp:148] Top shape: 24 480 14 14 (2257920)
I0403 15:08:28.642778 31187 net.cpp:156] Memory required for data: 854397984
I0403 15:08:28.642793 31187 layer_factory.hpp:77] Creating layer inception_4a/1x1
I0403 15:08:28.642817 31187 net.cpp:91] Creating Layer inception_4a/1x1
I0403 15:08:28.642834 31187 net.cpp:425] inception_4a/1x1 <- pool3/3x3_s2_pool3/3x3_s2_0_split_0
I0403 15:08:28.642856 31187 net.cpp:399] inception_4a/1x1 -> inception_4a/1x1
I0403 15:08:28.644471 31187 net.cpp:141] Setting up inception_4a/1x1
I0403 15:08:28.644503 31187 net.cpp:148] Top shape: 24 192 14 14 (903168)
I0403 15:08:28.644521 31187 net.cpp:156] Memory required for data: 858010656
I0403 15:08:28.644541 31187 layer_factory.hpp:77] Creating layer inception_4a/relu_1x1
I0403 15:08:28.644561 31187 net.cpp:91] Creating Layer inception_4a/relu_1x1
I0403 15:08:28.644578 31187 net.cpp:425] inception_4a/relu_1x1 <- inception_4a/1x1
I0403 15:08:28.644596 31187 net.cpp:386] inception_4a/relu_1x1 -> inception_4a/1x1 (in-place)
I0403 15:08:28.644778 31187 net.cpp:141] Setting up inception_4a/relu_1x1
I0403 15:08:28.644806 31187 net.cpp:148] Top shape: 24 192 14 14 (903168)
I0403 15:08:28.644824 31187 net.cpp:156] Memory required for data: 861623328
I0403 15:08:28.644840 31187 layer_factory.hpp:77] Creating layer inception_4a/3x3_reduce
I0403 15:08:28.644863 31187 net.cpp:91] Creating Layer inception_4a/3x3_reduce
I0403 15:08:28.644881 31187 net.cpp:425] inception_4a/3x3_reduce <- pool3/3x3_s2_pool3/3x3_s2_0_split_1
I0403 15:08:28.644904 31187 net.cpp:399] inception_4a/3x3_reduce -> inception_4a/3x3_reduce
I0403 15:08:28.646199 31187 net.cpp:141] Setting up inception_4a/3x3_reduce
I0403 15:08:28.646229 31187 net.cpp:148] Top shape: 24 96 14 14 (451584)
I0403 15:08:28.646246 31187 net.cpp:156] Memory required for data: 863429664
I0403 15:08:28.646273 31187 layer_factory.hpp:77] Creating layer inception_4a/relu_3x3_reduce
I0403 15:08:28.646294 31187 net.cpp:91] Creating Layer inception_4a/relu_3x3_reduce
I0403 15:08:28.646312 31187 net.cpp:425] inception_4a/relu_3x3_reduce <- inception_4a/3x3_reduce
I0403 15:08:28.646335 31187 net.cpp:386] inception_4a/relu_3x3_reduce -> inception_4a/3x3_reduce (in-place)
I0403 15:08:28.646515 31187 net.cpp:141] Setting up inception_4a/relu_3x3_reduce
I0403 15:08:28.646544 31187 net.cpp:148] Top shape: 24 96 14 14 (451584)
I0403 15:08:28.646560 31187 net.cpp:156] Memory required for data: 865236000
I0403 15:08:28.646579 31187 layer_factory.hpp:77] Creating layer inception_4a/3x3
I0403 15:08:28.646601 31187 net.cpp:91] Creating Layer inception_4a/3x3
I0403 15:08:28.646618 31187 net.cpp:425] inception_4a/3x3 <- inception_4a/3x3_reduce
I0403 15:08:28.646639 31187 net.cpp:399] inception_4a/3x3 -> inception_4a/3x3
I0403 15:08:28.649399 31187 net.cpp:141] Setting up inception_4a/3x3
I0403 15:08:28.649428 31187 net.cpp:148] Top shape: 24 208 14 14 (978432)
I0403 15:08:28.649446 31187 net.cpp:156] Memory required for data: 869149728
I0403 15:08:28.649463 31187 layer_factory.hpp:77] Creating layer inception_4a/relu_3x3
I0403 15:08:28.649482 31187 net.cpp:91] Creating Layer inception_4a/relu_3x3
I0403 15:08:28.649498 31187 net.cpp:425] inception_4a/relu_3x3 <- inception_4a/3x3
I0403 15:08:28.649518 31187 net.cpp:386] inception_4a/relu_3x3 -> inception_4a/3x3 (in-place)
I0403 15:08:28.649811 31187 net.cpp:141] Setting up inception_4a/relu_3x3
I0403 15:08:28.649838 31187 net.cpp:148] Top shape: 24 208 14 14 (978432)
I0403 15:08:28.649854 31187 net.cpp:156] Memory required for data: 873063456
I0403 15:08:28.649870 31187 layer_factory.hpp:77] Creating layer inception_4a/5x5_reduce
I0403 15:08:28.649894 31187 net.cpp:91] Creating Layer inception_4a/5x5_reduce
I0403 15:08:28.649914 31187 net.cpp:425] inception_4a/5x5_reduce <- pool3/3x3_s2_pool3/3x3_s2_0_split_2
I0403 15:08:28.649936 31187 net.cpp:399] inception_4a/5x5_reduce -> inception_4a/5x5_reduce
I0403 15:08:28.650954 31187 net.cpp:141] Setting up inception_4a/5x5_reduce
I0403 15:08:28.650982 31187 net.cpp:148] Top shape: 24 16 14 14 (75264)
I0403 15:08:28.651000 31187 net.cpp:156] Memory required for data: 873364512
I0403 15:08:28.651018 31187 layer_factory.hpp:77] Creating layer inception_4a/relu_5x5_reduce
I0403 15:08:28.651037 31187 net.cpp:91] Creating Layer inception_4a/relu_5x5_reduce
I0403 15:08:28.651053 31187 net.cpp:425] inception_4a/relu_5x5_reduce <- inception_4a/5x5_reduce
I0403 15:08:28.651073 31187 net.cpp:386] inception_4a/relu_5x5_reduce -> inception_4a/5x5_reduce (in-place)
I0403 15:08:28.651253 31187 net.cpp:141] Setting up inception_4a/relu_5x5_reduce
I0403 15:08:28.651280 31187 net.cpp:148] Top shape: 24 16 14 14 (75264)
I0403 15:08:28.651296 31187 net.cpp:156] Memory required for data: 873665568
I0403 15:08:28.651311 31187 layer_factory.hpp:77] Creating layer inception_4a/5x5
I0403 15:08:28.651340 31187 net.cpp:91] Creating Layer inception_4a/5x5
I0403 15:08:28.651360 31187 net.cpp:425] inception_4a/5x5 <- inception_4a/5x5_reduce
I0403 15:08:28.651381 31187 net.cpp:399] inception_4a/5x5 -> inception_4a/5x5
I0403 15:08:28.652467 31187 net.cpp:141] Setting up inception_4a/5x5
I0403 15:08:28.652497 31187 net.cpp:148] Top shape: 24 48 14 14 (225792)
I0403 15:08:28.652513 31187 net.cpp:156] Memory required for data: 874568736
I0403 15:08:28.652531 31187 layer_factory.hpp:77] Creating layer inception_4a/relu_5x5
I0403 15:08:28.652552 31187 net.cpp:91] Creating Layer inception_4a/relu_5x5
I0403 15:08:28.652572 31187 net.cpp:425] inception_4a/relu_5x5 <- inception_4a/5x5
I0403 15:08:28.652590 31187 net.cpp:386] inception_4a/relu_5x5 -> inception_4a/5x5 (in-place)
I0403 15:08:28.652768 31187 net.cpp:141] Setting up inception_4a/relu_5x5
I0403 15:08:28.652796 31187 net.cpp:148] Top shape: 24 48 14 14 (225792)
I0403 15:08:28.652813 31187 net.cpp:156] Memory required for data: 875471904
I0403 15:08:28.652829 31187 layer_factory.hpp:77] Creating layer inception_4a/pool
I0403 15:08:28.652847 31187 net.cpp:91] Creating Layer inception_4a/pool
I0403 15:08:28.652863 31187 net.cpp:425] inception_4a/pool <- pool3/3x3_s2_pool3/3x3_s2_0_split_3
I0403 15:08:28.652884 31187 net.cpp:399] inception_4a/pool -> inception_4a/pool
I0403 15:08:28.652947 31187 net.cpp:141] Setting up inception_4a/pool
I0403 15:08:28.652972 31187 net.cpp:148] Top shape: 24 480 14 14 (2257920)
I0403 15:08:28.652987 31187 net.cpp:156] Memory required for data: 884503584
I0403 15:08:28.653002 31187 layer_factory.hpp:77] Creating layer inception_4a/pool_proj
I0403 15:08:28.653024 31187 net.cpp:91] Creating Layer inception_4a/pool_proj
I0403 15:08:28.653043 31187 net.cpp:425] inception_4a/pool_proj <- inception_4a/pool
I0403 15:08:28.653064 31187 net.cpp:399] inception_4a/pool_proj -> inception_4a/pool_proj
I0403 15:08:28.654232 31187 net.cpp:141] Setting up inception_4a/pool_proj
I0403 15:08:28.654261 31187 net.cpp:148] Top shape: 24 64 14 14 (301056)
I0403 15:08:28.654295 31187 net.cpp:156] Memory required for data: 885707808
I0403 15:08:28.654325 31187 layer_factory.hpp:77] Creating layer inception_4a/relu_pool_proj
I0403 15:08:28.654350 31187 net.cpp:91] Creating Layer inception_4a/relu_pool_proj
I0403 15:08:28.654369 31187 net.cpp:425] inception_4a/relu_pool_proj <- inception_4a/pool_proj
I0403 15:08:28.654387 31187 net.cpp:386] inception_4a/relu_pool_proj -> inception_4a/pool_proj (in-place)
I0403 15:08:28.654673 31187 net.cpp:141] Setting up inception_4a/relu_pool_proj
I0403 15:08:28.654700 31187 net.cpp:148] Top shape: 24 64 14 14 (301056)
I0403 15:08:28.654716 31187 net.cpp:156] Memory required for data: 886912032
I0403 15:08:28.654732 31187 layer_factory.hpp:77] Creating layer inception_4a/output
I0403 15:08:28.654752 31187 net.cpp:91] Creating Layer inception_4a/output
I0403 15:08:28.654768 31187 net.cpp:425] inception_4a/output <- inception_4a/1x1
I0403 15:08:28.654786 31187 net.cpp:425] inception_4a/output <- inception_4a/3x3
I0403 15:08:28.654803 31187 net.cpp:425] inception_4a/output <- inception_4a/5x5
I0403 15:08:28.654819 31187 net.cpp:425] inception_4a/output <- inception_4a/pool_proj
I0403 15:08:28.654836 31187 net.cpp:399] inception_4a/output -> inception_4a/output
I0403 15:08:28.654884 31187 net.cpp:141] Setting up inception_4a/output
I0403 15:08:28.654909 31187 net.cpp:148] Top shape: 24 512 14 14 (2408448)
I0403 15:08:28.654924 31187 net.cpp:156] Memory required for data: 896545824
I0403 15:08:28.654938 31187 layer_factory.hpp:77] Creating layer inception_4a/output_inception_4a/output_0_split
I0403 15:08:28.654955 31187 net.cpp:91] Creating Layer inception_4a/output_inception_4a/output_0_split
I0403 15:08:28.654971 31187 net.cpp:425] inception_4a/output_inception_4a/output_0_split <- inception_4a/output
I0403 15:08:28.654991 31187 net.cpp:399] inception_4a/output_inception_4a/output_0_split -> inception_4a/output_inception_4a/output_0_split_0
I0403 15:08:28.655014 31187 net.cpp:399] inception_4a/output_inception_4a/output_0_split -> inception_4a/output_inception_4a/output_0_split_1
I0403 15:08:28.655035 31187 net.cpp:399] inception_4a/output_inception_4a/output_0_split -> inception_4a/output_inception_4a/output_0_split_2
I0403 15:08:28.655057 31187 net.cpp:399] inception_4a/output_inception_4a/output_0_split -> inception_4a/output_inception_4a/output_0_split_3
I0403 15:08:28.655077 31187 net.cpp:399] inception_4a/output_inception_4a/output_0_split -> inception_4a/output_inception_4a/output_0_split_4
I0403 15:08:28.655170 31187 net.cpp:141] Setting up inception_4a/output_inception_4a/output_0_split
I0403 15:08:28.655195 31187 net.cpp:148] Top shape: 24 512 14 14 (2408448)
I0403 15:08:28.655212 31187 net.cpp:148] Top shape: 24 512 14 14 (2408448)
I0403 15:08:28.655228 31187 net.cpp:148] Top shape: 24 512 14 14 (2408448)
I0403 15:08:28.655244 31187 net.cpp:148] Top shape: 24 512 14 14 (2408448)
I0403 15:08:28.655259 31187 net.cpp:148] Top shape: 24 512 14 14 (2408448)
I0403 15:08:28.655273 31187 net.cpp:156] Memory required for data: 944714784
I0403 15:08:28.655288 31187 layer_factory.hpp:77] Creating layer loss1/ave_pool
I0403 15:08:28.655305 31187 net.cpp:91] Creating Layer loss1/ave_pool
I0403 15:08:28.655326 31187 net.cpp:425] loss1/ave_pool <- inception_4a/output_inception_4a/output_0_split_0
I0403 15:08:28.655349 31187 net.cpp:399] loss1/ave_pool -> loss1/ave_pool
I0403 15:08:28.655555 31187 net.cpp:141] Setting up loss1/ave_pool
I0403 15:08:28.655583 31187 net.cpp:148] Top shape: 24 512 4 4 (196608)
I0403 15:08:28.655598 31187 net.cpp:156] Memory required for data: 945501216
I0403 15:08:28.655614 31187 layer_factory.hpp:77] Creating layer loss1/conv
I0403 15:08:28.655638 31187 net.cpp:91] Creating Layer loss1/conv
I0403 15:08:28.655657 31187 net.cpp:425] loss1/conv <- loss1/ave_pool
I0403 15:08:28.655675 31187 net.cpp:399] loss1/conv -> loss1/conv
I0403 15:08:28.657084 31187 net.cpp:141] Setting up loss1/conv
I0403 15:08:28.657114 31187 net.cpp:148] Top shape: 24 128 4 4 (49152)
I0403 15:08:28.657130 31187 net.cpp:156] Memory required for data: 945697824
I0403 15:08:28.657165 31187 layer_factory.hpp:77] Creating layer loss1/relu_conv
I0403 15:08:28.657184 31187 net.cpp:91] Creating Layer loss1/relu_conv
I0403 15:08:28.657201 31187 net.cpp:425] loss1/relu_conv <- loss1/conv
I0403 15:08:28.657220 31187 net.cpp:386] loss1/relu_conv -> loss1/conv (in-place)
I0403 15:08:28.657508 31187 net.cpp:141] Setting up loss1/relu_conv
I0403 15:08:28.657536 31187 net.cpp:148] Top shape: 24 128 4 4 (49152)
I0403 15:08:28.657553 31187 net.cpp:156] Memory required for data: 945894432
I0403 15:08:28.657570 31187 layer_factory.hpp:77] Creating layer loss1/fc
I0403 15:08:28.657594 31187 net.cpp:91] Creating Layer loss1/fc
I0403 15:08:28.657614 31187 net.cpp:425] loss1/fc <- loss1/conv
I0403 15:08:28.657635 31187 net.cpp:399] loss1/fc -> loss1/fc
I0403 15:08:28.675571 31187 net.cpp:141] Setting up loss1/fc
I0403 15:08:28.675609 31187 net.cpp:148] Top shape: 24 1024 (24576)
I0403 15:08:28.675627 31187 net.cpp:156] Memory required for data: 945992736
I0403 15:08:28.675647 31187 layer_factory.hpp:77] Creating layer loss1/relu_fc
I0403 15:08:28.675667 31187 net.cpp:91] Creating Layer loss1/relu_fc
I0403 15:08:28.675683 31187 net.cpp:425] loss1/relu_fc <- loss1/fc
I0403 15:08:28.675703 31187 net.cpp:386] loss1/relu_fc -> loss1/fc (in-place)
I0403 15:08:28.675897 31187 net.cpp:141] Setting up loss1/relu_fc
I0403 15:08:28.675925 31187 net.cpp:148] Top shape: 24 1024 (24576)
I0403 15:08:28.675941 31187 net.cpp:156] Memory required for data: 946091040
I0403 15:08:28.675958 31187 layer_factory.hpp:77] Creating layer loss1/drop_fc
I0403 15:08:28.675986 31187 net.cpp:91] Creating Layer loss1/drop_fc
I0403 15:08:28.676003 31187 net.cpp:425] loss1/drop_fc <- loss1/fc
I0403 15:08:28.676023 31187 net.cpp:386] loss1/drop_fc -> loss1/fc (in-place)
I0403 15:08:28.676082 31187 net.cpp:141] Setting up loss1/drop_fc
I0403 15:08:28.676107 31187 net.cpp:148] Top shape: 24 1024 (24576)
I0403 15:08:28.676123 31187 net.cpp:156] Memory required for data: 946189344
I0403 15:08:28.676139 31187 layer_factory.hpp:77] Creating layer loss1/classifier_plantvillage
I0403 15:08:28.676162 31187 net.cpp:91] Creating Layer loss1/classifier_plantvillage
I0403 15:08:28.676180 31187 net.cpp:425] loss1/classifier_plantvillage <- loss1/fc
I0403 15:08:28.676199 31187 net.cpp:399] loss1/classifier_plantvillage -> loss1/classifier_plantvillage
I0403 15:08:28.677134 31187 net.cpp:141] Setting up loss1/classifier_plantvillage
I0403 15:08:28.677165 31187 net.cpp:148] Top shape: 24 38 (912)
I0403 15:08:28.677184 31187 net.cpp:156] Memory required for data: 946192992
I0403 15:08:28.677203 31187 layer_factory.hpp:77] Creating layer loss1/classifier_plantvillage_loss1/classifier_plantvillage_0_split
I0403 15:08:28.677223 31187 net.cpp:91] Creating Layer loss1/classifier_plantvillage_loss1/classifier_plantvillage_0_split
I0403 15:08:28.677240 31187 net.cpp:425] loss1/classifier_plantvillage_loss1/classifier_plantvillage_0_split <- loss1/classifier_plantvillage
I0403 15:08:28.677259 31187 net.cpp:399] loss1/classifier_plantvillage_loss1/classifier_plantvillage_0_split -> loss1/classifier_plantvillage_loss1/classifier_plantvillage_0_split_0
I0403 15:08:28.677284 31187 net.cpp:399] loss1/classifier_plantvillage_loss1/classifier_plantvillage_0_split -> loss1/classifier_plantvillage_loss1/classifier_plantvillage_0_split_1
I0403 15:08:28.677306 31187 net.cpp:399] loss1/classifier_plantvillage_loss1/classifier_plantvillage_0_split -> loss1/classifier_plantvillage_loss1/classifier_plantvillage_0_split_2
I0403 15:08:28.677397 31187 net.cpp:141] Setting up loss1/classifier_plantvillage_loss1/classifier_plantvillage_0_split
I0403 15:08:28.677423 31187 net.cpp:148] Top shape: 24 38 (912)
I0403 15:08:28.677443 31187 net.cpp:148] Top shape: 24 38 (912)
I0403 15:08:28.677460 31187 net.cpp:148] Top shape: 24 38 (912)
I0403 15:08:28.677476 31187 net.cpp:156] Memory required for data: 946203936
I0403 15:08:28.677491 31187 layer_factory.hpp:77] Creating layer inception_4b/1x1
I0403 15:08:28.677515 31187 net.cpp:91] Creating Layer inception_4b/1x1
I0403 15:08:28.677551 31187 net.cpp:425] inception_4b/1x1 <- inception_4a/output_inception_4a/output_0_split_1
I0403 15:08:28.677583 31187 net.cpp:399] inception_4b/1x1 -> inception_4b/1x1
I0403 15:08:28.679338 31187 net.cpp:141] Setting up inception_4b/1x1
I0403 15:08:28.679369 31187 net.cpp:148] Top shape: 24 160 14 14 (752640)
I0403 15:08:28.679388 31187 net.cpp:156] Memory required for data: 949214496
I0403 15:08:28.679407 31187 layer_factory.hpp:77] Creating layer inception_4b/relu_1x1
I0403 15:08:28.679427 31187 net.cpp:91] Creating Layer inception_4b/relu_1x1
I0403 15:08:28.679445 31187 net.cpp:425] inception_4b/relu_1x1 <- inception_4b/1x1
I0403 15:08:28.679466 31187 net.cpp:386] inception_4b/relu_1x1 -> inception_4b/1x1 (in-place)
I0403 15:08:28.679661 31187 net.cpp:141] Setting up inception_4b/relu_1x1
I0403 15:08:28.679689 31187 net.cpp:148] Top shape: 24 160 14 14 (752640)
I0403 15:08:28.679705 31187 net.cpp:156] Memory required for data: 952225056
I0403 15:08:28.679723 31187 layer_factory.hpp:77] Creating layer inception_4b/3x3_reduce
I0403 15:08:28.679746 31187 net.cpp:91] Creating Layer inception_4b/3x3_reduce
I0403 15:08:28.679765 31187 net.cpp:425] inception_4b/3x3_reduce <- inception_4a/output_inception_4a/output_0_split_2
I0403 15:08:28.679787 31187 net.cpp:399] inception_4b/3x3_reduce -> inception_4b/3x3_reduce
I0403 15:08:28.681226 31187 net.cpp:141] Setting up inception_4b/3x3_reduce
I0403 15:08:28.681257 31187 net.cpp:148] Top shape: 24 112 14 14 (526848)
I0403 15:08:28.681274 31187 net.cpp:156] Memory required for data: 954332448
I0403 15:08:28.681294 31187 layer_factory.hpp:77] Creating layer inception_4b/relu_3x3_reduce
I0403 15:08:28.681325 31187 net.cpp:91] Creating Layer inception_4b/relu_3x3_reduce
I0403 15:08:28.681344 31187 net.cpp:425] inception_4b/relu_3x3_reduce <- inception_4b/3x3_reduce
I0403 15:08:28.681365 31187 net.cpp:386] inception_4b/relu_3x3_reduce -> inception_4b/3x3_reduce (in-place)
I0403 15:08:28.681668 31187 net.cpp:141] Setting up inception_4b/relu_3x3_reduce
I0403 15:08:28.681697 31187 net.cpp:148] Top shape: 24 112 14 14 (526848)
I0403 15:08:28.681715 31187 net.cpp:156] Memory required for data: 956439840
I0403 15:08:28.681730 31187 layer_factory.hpp:77] Creating layer inception_4b/3x3
I0403 15:08:28.681756 31187 net.cpp:91] Creating Layer inception_4b/3x3
I0403 15:08:28.681776 31187 net.cpp:425] inception_4b/3x3 <- inception_4b/3x3_reduce
I0403 15:08:28.681799 31187 net.cpp:399] inception_4b/3x3 -> inception_4b/3x3
I0403 15:08:28.684914 31187 net.cpp:141] Setting up inception_4b/3x3
I0403 15:08:28.684948 31187 net.cpp:148] Top shape: 24 224 14 14 (1053696)
I0403 15:08:28.684967 31187 net.cpp:156] Memory required for data: 960654624
I0403 15:08:28.684986 31187 layer_factory.hpp:77] Creating layer inception_4b/relu_3x3
I0403 15:08:28.685004 31187 net.cpp:91] Creating Layer inception_4b/relu_3x3
I0403 15:08:28.685022 31187 net.cpp:425] inception_4b/relu_3x3 <- inception_4b/3x3
I0403 15:08:28.685040 31187 net.cpp:386] inception_4b/relu_3x3 -> inception_4b/3x3 (in-place)
I0403 15:08:28.685232 31187 net.cpp:141] Setting up inception_4b/relu_3x3
I0403 15:08:28.685259 31187 net.cpp:148] Top shape: 24 224 14 14 (1053696)
I0403 15:08:28.685276 31187 net.cpp:156] Memory required for data: 964869408
I0403 15:08:28.685292 31187 layer_factory.hpp:77] Creating layer inception_4b/5x5_reduce
I0403 15:08:28.685319 31187 net.cpp:91] Creating Layer inception_4b/5x5_reduce
I0403 15:08:28.685339 31187 net.cpp:425] inception_4b/5x5_reduce <- inception_4a/output_inception_4a/output_0_split_3
I0403 15:08:28.685364 31187 net.cpp:399] inception_4b/5x5_reduce -> inception_4b/5x5_reduce
I0403 15:08:28.686492 31187 net.cpp:141] Setting up inception_4b/5x5_reduce
I0403 15:08:28.686522 31187 net.cpp:148] Top shape: 24 24 14 14 (112896)
I0403 15:08:28.686540 31187 net.cpp:156] Memory required for data: 965320992
I0403 15:08:28.686559 31187 layer_factory.hpp:77] Creating layer inception_4b/relu_5x5_reduce
I0403 15:08:28.686583 31187 net.cpp:91] Creating Layer inception_4b/relu_5x5_reduce
I0403 15:08:28.686615 31187 net.cpp:425] inception_4b/relu_5x5_reduce <- inception_4b/5x5_reduce
I0403 15:08:28.686635 31187 net.cpp:386] inception_4b/relu_5x5_reduce -> inception_4b/5x5_reduce (in-place)
I0403 15:08:28.686822 31187 net.cpp:141] Setting up inception_4b/relu_5x5_reduce
I0403 15:08:28.686849 31187 net.cpp:148] Top shape: 24 24 14 14 (112896)
I0403 15:08:28.686866 31187 net.cpp:156] Memory required for data: 965772576
I0403 15:08:28.686882 31187 layer_factory.hpp:77] Creating layer inception_4b/5x5
I0403 15:08:28.686908 31187 net.cpp:91] Creating Layer inception_4b/5x5
I0403 15:08:28.686926 31187 net.cpp:425] inception_4b/5x5 <- inception_4b/5x5_reduce
I0403 15:08:28.686947 31187 net.cpp:399] inception_4b/5x5 -> inception_4b/5x5
I0403 15:08:28.688210 31187 net.cpp:141] Setting up inception_4b/5x5
I0403 15:08:28.688241 31187 net.cpp:148] Top shape: 24 64 14 14 (301056)
I0403 15:08:28.688257 31187 net.cpp:156] Memory required for data: 966976800
I0403 15:08:28.688277 31187 layer_factory.hpp:77] Creating layer inception_4b/relu_5x5
I0403 15:08:28.688297 31187 net.cpp:91] Creating Layer inception_4b/relu_5x5
I0403 15:08:28.688313 31187 net.cpp:425] inception_4b/relu_5x5 <- inception_4b/5x5
I0403 15:08:28.688340 31187 net.cpp:386] inception_4b/relu_5x5 -> inception_4b/5x5 (in-place)
I0403 15:08:28.688635 31187 net.cpp:141] Setting up inception_4b/relu_5x5
I0403 15:08:28.688664 31187 net.cpp:148] Top shape: 24 64 14 14 (301056)
I0403 15:08:28.688680 31187 net.cpp:156] Memory required for data: 968181024
I0403 15:08:28.688696 31187 layer_factory.hpp:77] Creating layer inception_4b/pool
I0403 15:08:28.688716 31187 net.cpp:91] Creating Layer inception_4b/pool
I0403 15:08:28.688733 31187 net.cpp:425] inception_4b/pool <- inception_4a/output_inception_4a/output_0_split_4
I0403 15:08:28.688757 31187 net.cpp:399] inception_4b/pool -> inception_4b/pool
I0403 15:08:28.688824 31187 net.cpp:141] Setting up inception_4b/pool
I0403 15:08:28.688850 31187 net.cpp:148] Top shape: 24 512 14 14 (2408448)
I0403 15:08:28.688868 31187 net.cpp:156] Memory required for data: 977814816
I0403 15:08:28.688882 31187 layer_factory.hpp:77] Creating layer inception_4b/pool_proj
I0403 15:08:28.688908 31187 net.cpp:91] Creating Layer inception_4b/pool_proj
I0403 15:08:28.688926 31187 net.cpp:425] inception_4b/pool_proj <- inception_4b/pool
I0403 15:08:28.688946 31187 net.cpp:399] inception_4b/pool_proj -> inception_4b/pool_proj
I0403 15:08:28.690187 31187 net.cpp:141] Setting up inception_4b/pool_proj
I0403 15:08:28.690217 31187 net.cpp:148] Top shape: 24 64 14 14 (301056)
I0403 15:08:28.690234 31187 net.cpp:156] Memory required for data: 979019040
I0403 15:08:28.690254 31187 layer_factory.hpp:77] Creating layer inception_4b/relu_pool_proj
I0403 15:08:28.690274 31187 net.cpp:91] Creating Layer inception_4b/relu_pool_proj
I0403 15:08:28.690291 31187 net.cpp:425] inception_4b/relu_pool_proj <- inception_4b/pool_proj
I0403 15:08:28.690311 31187 net.cpp:386] inception_4b/relu_pool_proj -> inception_4b/pool_proj (in-place)
I0403 15:08:28.690503 31187 net.cpp:141] Setting up inception_4b/relu_pool_proj
I0403 15:08:28.690531 31187 net.cpp:148] Top shape: 24 64 14 14 (301056)
I0403 15:08:28.690547 31187 net.cpp:156] Memory required for data: 980223264
I0403 15:08:28.690562 31187 layer_factory.hpp:77] Creating layer inception_4b/output
I0403 15:08:28.690584 31187 net.cpp:91] Creating Layer inception_4b/output
I0403 15:08:28.690603 31187 net.cpp:425] inception_4b/output <- inception_4b/1x1
I0403 15:08:28.690620 31187 net.cpp:425] inception_4b/output <- inception_4b/3x3
I0403 15:08:28.690639 31187 net.cpp:425] inception_4b/output <- inception_4b/5x5
I0403 15:08:28.690655 31187 net.cpp:425] inception_4b/output <- inception_4b/pool_proj
I0403 15:08:28.690673 31187 net.cpp:399] inception_4b/output -> inception_4b/output
I0403 15:08:28.690722 31187 net.cpp:141] Setting up inception_4b/output
I0403 15:08:28.690748 31187 net.cpp:148] Top shape: 24 512 14 14 (2408448)
I0403 15:08:28.690763 31187 net.cpp:156] Memory required for data: 989857056
I0403 15:08:28.690794 31187 layer_factory.hpp:77] Creating layer inception_4b/output_inception_4b/output_0_split
I0403 15:08:28.690814 31187 net.cpp:91] Creating Layer inception_4b/output_inception_4b/output_0_split
I0403 15:08:28.690829 31187 net.cpp:425] inception_4b/output_inception_4b/output_0_split <- inception_4b/output
I0403 15:08:28.690850 31187 net.cpp:399] inception_4b/output_inception_4b/output_0_split -> inception_4b/output_inception_4b/output_0_split_0
I0403 15:08:28.690874 31187 net.cpp:399] inception_4b/output_inception_4b/output_0_split -> inception_4b/output_inception_4b/output_0_split_1
I0403 15:08:28.690896 31187 net.cpp:399] inception_4b/output_inception_4b/output_0_split -> inception_4b/output_inception_4b/output_0_split_2
I0403 15:08:28.690917 31187 net.cpp:399] inception_4b/output_inception_4b/output_0_split -> inception_4b/output_inception_4b/output_0_split_3
I0403 15:08:28.691004 31187 net.cpp:141] Setting up inception_4b/output_inception_4b/output_0_split
I0403 15:08:28.691030 31187 net.cpp:148] Top shape: 24 512 14 14 (2408448)
I0403 15:08:28.691047 31187 net.cpp:148] Top shape: 24 512 14 14 (2408448)
I0403 15:08:28.691064 31187 net.cpp:148] Top shape: 24 512 14 14 (2408448)
I0403 15:08:28.691081 31187 net.cpp:148] Top shape: 24 512 14 14 (2408448)
I0403 15:08:28.691095 31187 net.cpp:156] Memory required for data: 1028392224
I0403 15:08:28.691112 31187 layer_factory.hpp:77] Creating layer inception_4c/1x1
I0403 15:08:28.691135 31187 net.cpp:91] Creating Layer inception_4c/1x1
I0403 15:08:28.691154 31187 net.cpp:425] inception_4c/1x1 <- inception_4b/output_inception_4b/output_0_split_0
I0403 15:08:28.691176 31187 net.cpp:399] inception_4c/1x1 -> inception_4c/1x1
I0403 15:08:28.692669 31187 net.cpp:141] Setting up inception_4c/1x1
I0403 15:08:28.692700 31187 net.cpp:148] Top shape: 24 128 14 14 (602112)
I0403 15:08:28.692721 31187 net.cpp:156] Memory required for data: 1030800672
I0403 15:08:28.692742 31187 layer_factory.hpp:77] Creating layer inception_4c/relu_1x1
I0403 15:08:28.692761 31187 net.cpp:91] Creating Layer inception_4c/relu_1x1
I0403 15:08:28.692780 31187 net.cpp:425] inception_4c/relu_1x1 <- inception_4c/1x1
I0403 15:08:28.692800 31187 net.cpp:386] inception_4c/relu_1x1 -> inception_4c/1x1 (in-place)
I0403 15:08:28.692986 31187 net.cpp:141] Setting up inception_4c/relu_1x1
I0403 15:08:28.693016 31187 net.cpp:148] Top shape: 24 128 14 14 (602112)
I0403 15:08:28.693033 31187 net.cpp:156] Memory required for data: 1033209120
I0403 15:08:28.693049 31187 layer_factory.hpp:77] Creating layer inception_4c/3x3_reduce
I0403 15:08:28.693073 31187 net.cpp:91] Creating Layer inception_4c/3x3_reduce
I0403 15:08:28.693090 31187 net.cpp:425] inception_4c/3x3_reduce <- inception_4b/output_inception_4b/output_0_split_1
I0403 15:08:28.693111 31187 net.cpp:399] inception_4c/3x3_reduce -> inception_4c/3x3_reduce
I0403 15:08:28.695157 31187 net.cpp:141] Setting up inception_4c/3x3_reduce
I0403 15:08:28.695188 31187 net.cpp:148] Top shape: 24 128 14 14 (602112)
I0403 15:08:28.695206 31187 net.cpp:156] Memory required for data: 1035617568
I0403 15:08:28.695225 31187 layer_factory.hpp:77] Creating layer inception_4c/relu_3x3_reduce
I0403 15:08:28.695245 31187 net.cpp:91] Creating Layer inception_4c/relu_3x3_reduce
I0403 15:08:28.695261 31187 net.cpp:425] inception_4c/relu_3x3_reduce <- inception_4c/3x3_reduce
I0403 15:08:28.695282 31187 net.cpp:386] inception_4c/relu_3x3_reduce -> inception_4c/3x3_reduce (in-place)
I0403 15:08:28.695581 31187 net.cpp:141] Setting up inception_4c/relu_3x3_reduce
I0403 15:08:28.695611 31187 net.cpp:148] Top shape: 24 128 14 14 (602112)
I0403 15:08:28.695627 31187 net.cpp:156] Memory required for data: 1038026016
I0403 15:08:28.695643 31187 layer_factory.hpp:77] Creating layer inception_4c/3x3
I0403 15:08:28.695668 31187 net.cpp:91] Creating Layer inception_4c/3x3
I0403 15:08:28.695686 31187 net.cpp:425] inception_4c/3x3 <- inception_4c/3x3_reduce
I0403 15:08:28.695709 31187 net.cpp:399] inception_4c/3x3 -> inception_4c/3x3
I0403 15:08:28.699419 31187 net.cpp:141] Setting up inception_4c/3x3
I0403 15:08:28.699461 31187 net.cpp:148] Top shape: 24 256 14 14 (1204224)
I0403 15:08:28.699478 31187 net.cpp:156] Memory required for data: 1042842912
I0403 15:08:28.699512 31187 layer_factory.hpp:77] Creating layer inception_4c/relu_3x3
I0403 15:08:28.699532 31187 net.cpp:91] Creating Layer inception_4c/relu_3x3
I0403 15:08:28.699549 31187 net.cpp:425] inception_4c/relu_3x3 <- inception_4c/3x3
I0403 15:08:28.699569 31187 net.cpp:386] inception_4c/relu_3x3 -> inception_4c/3x3 (in-place)
I0403 15:08:28.699753 31187 net.cpp:141] Setting up inception_4c/relu_3x3
I0403 15:08:28.699779 31187 net.cpp:148] Top shape: 24 256 14 14 (1204224)
I0403 15:08:28.699795 31187 net.cpp:156] Memory required for data: 1047659808
I0403 15:08:28.699811 31187 layer_factory.hpp:77] Creating layer inception_4c/5x5_reduce
I0403 15:08:28.699836 31187 net.cpp:91] Creating Layer inception_4c/5x5_reduce
I0403 15:08:28.699854 31187 net.cpp:425] inception_4c/5x5_reduce <- inception_4b/output_inception_4b/output_0_split_2
I0403 15:08:28.699877 31187 net.cpp:399] inception_4c/5x5_reduce -> inception_4c/5x5_reduce
I0403 15:08:28.700984 31187 net.cpp:141] Setting up inception_4c/5x5_reduce
I0403 15:08:28.701014 31187 net.cpp:148] Top shape: 24 24 14 14 (112896)
I0403 15:08:28.701030 31187 net.cpp:156] Memory required for data: 1048111392
I0403 15:08:28.701050 31187 layer_factory.hpp:77] Creating layer inception_4c/relu_5x5_reduce
I0403 15:08:28.701071 31187 net.cpp:91] Creating Layer inception_4c/relu_5x5_reduce
I0403 15:08:28.701088 31187 net.cpp:425] inception_4c/relu_5x5_reduce <- inception_4c/5x5_reduce
I0403 15:08:28.701105 31187 net.cpp:386] inception_4c/relu_5x5_reduce -> inception_4c/5x5_reduce (in-place)
I0403 15:08:28.701293 31187 net.cpp:141] Setting up inception_4c/relu_5x5_reduce
I0403 15:08:28.701323 31187 net.cpp:148] Top shape: 24 24 14 14 (112896)
I0403 15:08:28.701340 31187 net.cpp:156] Memory required for data: 1048562976
I0403 15:08:28.701356 31187 layer_factory.hpp:77] Creating layer inception_4c/5x5
I0403 15:08:28.701380 31187 net.cpp:91] Creating Layer inception_4c/5x5
I0403 15:08:28.701400 31187 net.cpp:425] inception_4c/5x5 <- inception_4c/5x5_reduce
I0403 15:08:28.701421 31187 net.cpp:399] inception_4c/5x5 -> inception_4c/5x5
I0403 15:08:28.702672 31187 net.cpp:141] Setting up inception_4c/5x5
I0403 15:08:28.702700 31187 net.cpp:148] Top shape: 24 64 14 14 (301056)
I0403 15:08:28.702716 31187 net.cpp:156] Memory required for data: 1049767200
I0403 15:08:28.702735 31187 layer_factory.hpp:77] Creating layer inception_4c/relu_5x5
I0403 15:08:28.702757 31187 net.cpp:91] Creating Layer inception_4c/relu_5x5
I0403 15:08:28.702775 31187 net.cpp:425] inception_4c/relu_5x5 <- inception_4c/5x5
I0403 15:08:28.702793 31187 net.cpp:386] inception_4c/relu_5x5 -> inception_4c/5x5 (in-place)
I0403 15:08:28.703084 31187 net.cpp:141] Setting up inception_4c/relu_5x5
I0403 15:08:28.703111 31187 net.cpp:148] Top shape: 24 64 14 14 (301056)
I0403 15:08:28.703129 31187 net.cpp:156] Memory required for data: 1050971424
I0403 15:08:28.703143 31187 layer_factory.hpp:77] Creating layer inception_4c/pool
I0403 15:08:28.703164 31187 net.cpp:91] Creating Layer inception_4c/pool
I0403 15:08:28.703181 31187 net.cpp:425] inception_4c/pool <- inception_4b/output_inception_4b/output_0_split_3
I0403 15:08:28.703200 31187 net.cpp:399] inception_4c/pool -> inception_4c/pool
I0403 15:08:28.703269 31187 net.cpp:141] Setting up inception_4c/pool
I0403 15:08:28.703294 31187 net.cpp:148] Top shape: 24 512 14 14 (2408448)
I0403 15:08:28.703310 31187 net.cpp:156] Memory required for data: 1060605216
I0403 15:08:28.703330 31187 layer_factory.hpp:77] Creating layer inception_4c/pool_proj
I0403 15:08:28.703354 31187 net.cpp:91] Creating Layer inception_4c/pool_proj
I0403 15:08:28.703372 31187 net.cpp:425] inception_4c/pool_proj <- inception_4c/pool
I0403 15:08:28.703394 31187 net.cpp:399] inception_4c/pool_proj -> inception_4c/pool_proj
I0403 15:08:28.704638 31187 net.cpp:141] Setting up inception_4c/pool_proj
I0403 15:08:28.704666 31187 net.cpp:148] Top shape: 24 64 14 14 (301056)
I0403 15:08:28.704697 31187 net.cpp:156] Memory required for data: 1061809440
I0403 15:08:28.704717 31187 layer_factory.hpp:77] Creating layer inception_4c/relu_pool_proj
I0403 15:08:28.704736 31187 net.cpp:91] Creating Layer inception_4c/relu_pool_proj
I0403 15:08:28.704754 31187 net.cpp:425] inception_4c/relu_pool_proj <- inception_4c/pool_proj
I0403 15:08:28.704777 31187 net.cpp:386] inception_4c/relu_pool_proj -> inception_4c/pool_proj (in-place)
I0403 15:08:28.704964 31187 net.cpp:141] Setting up inception_4c/relu_pool_proj
I0403 15:08:28.704991 31187 net.cpp:148] Top shape: 24 64 14 14 (301056)
I0403 15:08:28.705008 31187 net.cpp:156] Memory required for data: 1063013664
I0403 15:08:28.705023 31187 layer_factory.hpp:77] Creating layer inception_4c/output
I0403 15:08:28.705042 31187 net.cpp:91] Creating Layer inception_4c/output
I0403 15:08:28.705060 31187 net.cpp:425] inception_4c/output <- inception_4c/1x1
I0403 15:08:28.705078 31187 net.cpp:425] inception_4c/output <- inception_4c/3x3
I0403 15:08:28.705095 31187 net.cpp:425] inception_4c/output <- inception_4c/5x5
I0403 15:08:28.705111 31187 net.cpp:425] inception_4c/output <- inception_4c/pool_proj
I0403 15:08:28.705128 31187 net.cpp:399] inception_4c/output -> inception_4c/output
I0403 15:08:28.705178 31187 net.cpp:141] Setting up inception_4c/output
I0403 15:08:28.705202 31187 net.cpp:148] Top shape: 24 512 14 14 (2408448)
I0403 15:08:28.705219 31187 net.cpp:156] Memory required for data: 1072647456
I0403 15:08:28.705235 31187 layer_factory.hpp:77] Creating layer inception_4c/output_inception_4c/output_0_split
I0403 15:08:28.705251 31187 net.cpp:91] Creating Layer inception_4c/output_inception_4c/output_0_split
I0403 15:08:28.705267 31187 net.cpp:425] inception_4c/output_inception_4c/output_0_split <- inception_4c/output
I0403 15:08:28.705291 31187 net.cpp:399] inception_4c/output_inception_4c/output_0_split -> inception_4c/output_inception_4c/output_0_split_0
I0403 15:08:28.705317 31187 net.cpp:399] inception_4c/output_inception_4c/output_0_split -> inception_4c/output_inception_4c/output_0_split_1
I0403 15:08:28.705341 31187 net.cpp:399] inception_4c/output_inception_4c/output_0_split -> inception_4c/output_inception_4c/output_0_split_2
I0403 15:08:28.705363 31187 net.cpp:399] inception_4c/output_inception_4c/output_0_split -> inception_4c/output_inception_4c/output_0_split_3
I0403 15:08:28.705449 31187 net.cpp:141] Setting up inception_4c/output_inception_4c/output_0_split
I0403 15:08:28.705476 31187 net.cpp:148] Top shape: 24 512 14 14 (2408448)
I0403 15:08:28.705493 31187 net.cpp:148] Top shape: 24 512 14 14 (2408448)
I0403 15:08:28.705508 31187 net.cpp:148] Top shape: 24 512 14 14 (2408448)
I0403 15:08:28.705524 31187 net.cpp:148] Top shape: 24 512 14 14 (2408448)
I0403 15:08:28.705538 31187 net.cpp:156] Memory required for data: 1111182624
I0403 15:08:28.705554 31187 layer_factory.hpp:77] Creating layer inception_4d/1x1
I0403 15:08:28.705579 31187 net.cpp:91] Creating Layer inception_4d/1x1
I0403 15:08:28.705597 31187 net.cpp:425] inception_4d/1x1 <- inception_4c/output_inception_4c/output_0_split_0
I0403 15:08:28.705618 31187 net.cpp:399] inception_4d/1x1 -> inception_4d/1x1
I0403 15:08:28.707010 31187 net.cpp:141] Setting up inception_4d/1x1
I0403 15:08:28.707041 31187 net.cpp:148] Top shape: 24 112 14 14 (526848)
I0403 15:08:28.707058 31187 net.cpp:156] Memory required for data: 1113290016
I0403 15:08:28.707077 31187 layer_factory.hpp:77] Creating layer inception_4d/relu_1x1
I0403 15:08:28.707103 31187 net.cpp:91] Creating Layer inception_4d/relu_1x1
I0403 15:08:28.707119 31187 net.cpp:425] inception_4d/relu_1x1 <- inception_4d/1x1
I0403 15:08:28.707139 31187 net.cpp:386] inception_4d/relu_1x1 -> inception_4d/1x1 (in-place)
I0403 15:08:28.707337 31187 net.cpp:141] Setting up inception_4d/relu_1x1
I0403 15:08:28.707363 31187 net.cpp:148] Top shape: 24 112 14 14 (526848)
I0403 15:08:28.707381 31187 net.cpp:156] Memory required for data: 1115397408
I0403 15:08:28.707401 31187 layer_factory.hpp:77] Creating layer inception_4d/3x3_reduce
I0403 15:08:28.707438 31187 net.cpp:91] Creating Layer inception_4d/3x3_reduce
I0403 15:08:28.707458 31187 net.cpp:425] inception_4d/3x3_reduce <- inception_4c/output_inception_4c/output_0_split_1
I0403 15:08:28.707479 31187 net.cpp:399] inception_4d/3x3_reduce -> inception_4d/3x3_reduce
I0403 15:08:28.708992 31187 net.cpp:141] Setting up inception_4d/3x3_reduce
I0403 15:08:28.709020 31187 net.cpp:148] Top shape: 24 144 14 14 (677376)
I0403 15:08:28.709038 31187 net.cpp:156] Memory required for data: 1118106912
I0403 15:08:28.709056 31187 layer_factory.hpp:77] Creating layer inception_4d/relu_3x3_reduce
I0403 15:08:28.709077 31187 net.cpp:91] Creating Layer inception_4d/relu_3x3_reduce
I0403 15:08:28.709095 31187 net.cpp:425] inception_4d/relu_3x3_reduce <- inception_4d/3x3_reduce
I0403 15:08:28.709112 31187 net.cpp:386] inception_4d/relu_3x3_reduce -> inception_4d/3x3_reduce (in-place)
I0403 15:08:28.709411 31187 net.cpp:141] Setting up inception_4d/relu_3x3_reduce
I0403 15:08:28.709439 31187 net.cpp:148] Top shape: 24 144 14 14 (677376)
I0403 15:08:28.709455 31187 net.cpp:156] Memory required for data: 1120816416
I0403 15:08:28.709470 31187 layer_factory.hpp:77] Creating layer inception_4d/3x3
I0403 15:08:28.709493 31187 net.cpp:91] Creating Layer inception_4d/3x3
I0403 15:08:28.709512 31187 net.cpp:425] inception_4d/3x3 <- inception_4d/3x3_reduce
I0403 15:08:28.709532 31187 net.cpp:399] inception_4d/3x3 -> inception_4d/3x3
I0403 15:08:28.713974 31187 net.cpp:141] Setting up inception_4d/3x3
I0403 15:08:28.714007 31187 net.cpp:148] Top shape: 24 288 14 14 (1354752)
I0403 15:08:28.714025 31187 net.cpp:156] Memory required for data: 1126235424
I0403 15:08:28.714046 31187 layer_factory.hpp:77] Creating layer inception_4d/relu_3x3
I0403 15:08:28.714066 31187 net.cpp:91] Creating Layer inception_4d/relu_3x3
I0403 15:08:28.714082 31187 net.cpp:425] inception_4d/relu_3x3 <- inception_4d/3x3
I0403 15:08:28.714103 31187 net.cpp:386] inception_4d/relu_3x3 -> inception_4d/3x3 (in-place)
I0403 15:08:28.714295 31187 net.cpp:141] Setting up inception_4d/relu_3x3
I0403 15:08:28.714334 31187 net.cpp:148] Top shape: 24 288 14 14 (1354752)
I0403 15:08:28.714352 31187 net.cpp:156] Memory required for data: 1131654432
I0403 15:08:28.714368 31187 layer_factory.hpp:77] Creating layer inception_4d/5x5_reduce
I0403 15:08:28.714391 31187 net.cpp:91] Creating Layer inception_4d/5x5_reduce
I0403 15:08:28.714411 31187 net.cpp:425] inception_4d/5x5_reduce <- inception_4c/output_inception_4c/output_0_split_2
I0403 15:08:28.714434 31187 net.cpp:399] inception_4d/5x5_reduce -> inception_4d/5x5_reduce
I0403 15:08:28.715632 31187 net.cpp:141] Setting up inception_4d/5x5_reduce
I0403 15:08:28.715664 31187 net.cpp:148] Top shape: 24 32 14 14 (150528)
I0403 15:08:28.715682 31187 net.cpp:156] Memory required for data: 1132256544
I0403 15:08:28.715703 31187 layer_factory.hpp:77] Creating layer inception_4d/relu_5x5_reduce
I0403 15:08:28.715721 31187 net.cpp:91] Creating Layer inception_4d/relu_5x5_reduce
I0403 15:08:28.715739 31187 net.cpp:425] inception_4d/relu_5x5_reduce <- inception_4d/5x5_reduce
I0403 15:08:28.715759 31187 net.cpp:386] inception_4d/relu_5x5_reduce -> inception_4d/5x5_reduce (in-place)
I0403 15:08:28.715956 31187 net.cpp:141] Setting up inception_4d/relu_5x5_reduce
I0403 15:08:28.715982 31187 net.cpp:148] Top shape: 24 32 14 14 (150528)
I0403 15:08:28.715999 31187 net.cpp:156] Memory required for data: 1132858656
I0403 15:08:28.716015 31187 layer_factory.hpp:77] Creating layer inception_4d/5x5
I0403 15:08:28.716037 31187 net.cpp:91] Creating Layer inception_4d/5x5
I0403 15:08:28.716056 31187 net.cpp:425] inception_4d/5x5 <- inception_4d/5x5_reduce
I0403 15:08:28.716078 31187 net.cpp:399] inception_4d/5x5 -> inception_4d/5x5
I0403 15:08:28.717639 31187 net.cpp:141] Setting up inception_4d/5x5
I0403 15:08:28.717669 31187 net.cpp:148] Top shape: 24 64 14 14 (301056)
I0403 15:08:28.717685 31187 net.cpp:156] Memory required for data: 1134062880
I0403 15:08:28.717705 31187 layer_factory.hpp:77] Creating layer inception_4d/relu_5x5
I0403 15:08:28.717746 31187 net.cpp:91] Creating Layer inception_4d/relu_5x5
I0403 15:08:28.717764 31187 net.cpp:425] inception_4d/relu_5x5 <- inception_4d/5x5
I0403 15:08:28.717783 31187 net.cpp:386] inception_4d/relu_5x5 -> inception_4d/5x5 (in-place)
I0403 15:08:28.718096 31187 net.cpp:141] Setting up inception_4d/relu_5x5
I0403 15:08:28.718124 31187 net.cpp:148] Top shape: 24 64 14 14 (301056)
I0403 15:08:28.718143 31187 net.cpp:156] Memory required for data: 1135267104
I0403 15:08:28.718159 31187 layer_factory.hpp:77] Creating layer inception_4d/pool
I0403 15:08:28.718180 31187 net.cpp:91] Creating Layer inception_4d/pool
I0403 15:08:28.718199 31187 net.cpp:425] inception_4d/pool <- inception_4c/output_inception_4c/output_0_split_3
I0403 15:08:28.718217 31187 net.cpp:399] inception_4d/pool -> inception_4d/pool
I0403 15:08:28.718288 31187 net.cpp:141] Setting up inception_4d/pool
I0403 15:08:28.718318 31187 net.cpp:148] Top shape: 24 512 14 14 (2408448)
I0403 15:08:28.718336 31187 net.cpp:156] Memory required for data: 1144900896
I0403 15:08:28.718353 31187 layer_factory.hpp:77] Creating layer inception_4d/pool_proj
I0403 15:08:28.718374 31187 net.cpp:91] Creating Layer inception_4d/pool_proj
I0403 15:08:28.718394 31187 net.cpp:425] inception_4d/pool_proj <- inception_4d/pool
I0403 15:08:28.718415 31187 net.cpp:399] inception_4d/pool_proj -> inception_4d/pool_proj
I0403 15:08:28.720366 31187 net.cpp:141] Setting up inception_4d/pool_proj
I0403 15:08:28.720399 31187 net.cpp:148] Top shape: 24 64 14 14 (301056)
I0403 15:08:28.720417 31187 net.cpp:156] Memory required for data: 1146105120
I0403 15:08:28.720437 31187 layer_factory.hpp:77] Creating layer inception_4d/relu_pool_proj
I0403 15:08:28.720455 31187 net.cpp:91] Creating Layer inception_4d/relu_pool_proj
I0403 15:08:28.720473 31187 net.cpp:425] inception_4d/relu_pool_proj <- inception_4d/pool_proj
I0403 15:08:28.720492 31187 net.cpp:386] inception_4d/relu_pool_proj -> inception_4d/pool_proj (in-place)
I0403 15:08:28.720680 31187 net.cpp:141] Setting up inception_4d/relu_pool_proj
I0403 15:08:28.720706 31187 net.cpp:148] Top shape: 24 64 14 14 (301056)
I0403 15:08:28.720722 31187 net.cpp:156] Memory required for data: 1147309344
I0403 15:08:28.720738 31187 layer_factory.hpp:77] Creating layer inception_4d/output
I0403 15:08:28.720757 31187 net.cpp:91] Creating Layer inception_4d/output
I0403 15:08:28.720772 31187 net.cpp:425] inception_4d/output <- inception_4d/1x1
I0403 15:08:28.720789 31187 net.cpp:425] inception_4d/output <- inception_4d/3x3
I0403 15:08:28.720808 31187 net.cpp:425] inception_4d/output <- inception_4d/5x5
I0403 15:08:28.720824 31187 net.cpp:425] inception_4d/output <- inception_4d/pool_proj
I0403 15:08:28.720844 31187 net.cpp:399] inception_4d/output -> inception_4d/output
I0403 15:08:28.720893 31187 net.cpp:141] Setting up inception_4d/output
I0403 15:08:28.720918 31187 net.cpp:148] Top shape: 24 528 14 14 (2483712)
I0403 15:08:28.720933 31187 net.cpp:156] Memory required for data: 1157244192
I0403 15:08:28.720949 31187 layer_factory.hpp:77] Creating layer inception_4d/output_inception_4d/output_0_split
I0403 15:08:28.720968 31187 net.cpp:91] Creating Layer inception_4d/output_inception_4d/output_0_split
I0403 15:08:28.720983 31187 net.cpp:425] inception_4d/output_inception_4d/output_0_split <- inception_4d/output
I0403 15:08:28.721004 31187 net.cpp:399] inception_4d/output_inception_4d/output_0_split -> inception_4d/output_inception_4d/output_0_split_0
I0403 15:08:28.721024 31187 net.cpp:399] inception_4d/output_inception_4d/output_0_split -> inception_4d/output_inception_4d/output_0_split_1
I0403 15:08:28.721046 31187 net.cpp:399] inception_4d/output_inception_4d/output_0_split -> inception_4d/output_inception_4d/output_0_split_2
I0403 15:08:28.721068 31187 net.cpp:399] inception_4d/output_inception_4d/output_0_split -> inception_4d/output_inception_4d/output_0_split_3
I0403 15:08:28.721091 31187 net.cpp:399] inception_4d/output_inception_4d/output_0_split -> inception_4d/output_inception_4d/output_0_split_4
I0403 15:08:28.721194 31187 net.cpp:141] Setting up inception_4d/output_inception_4d/output_0_split
I0403 15:08:28.721232 31187 net.cpp:148] Top shape: 24 528 14 14 (2483712)
I0403 15:08:28.721252 31187 net.cpp:148] Top shape: 24 528 14 14 (2483712)
I0403 15:08:28.721269 31187 net.cpp:148] Top shape: 24 528 14 14 (2483712)
I0403 15:08:28.721287 31187 net.cpp:148] Top shape: 24 528 14 14 (2483712)
I0403 15:08:28.721304 31187 net.cpp:148] Top shape: 24 528 14 14 (2483712)
I0403 15:08:28.721324 31187 net.cpp:156] Memory required for data: 1206918432
I0403 15:08:28.721341 31187 layer_factory.hpp:77] Creating layer loss2/ave_pool
I0403 15:08:28.721359 31187 net.cpp:91] Creating Layer loss2/ave_pool
I0403 15:08:28.721375 31187 net.cpp:425] loss2/ave_pool <- inception_4d/output_inception_4d/output_0_split_0
I0403 15:08:28.721396 31187 net.cpp:399] loss2/ave_pool -> loss2/ave_pool
I0403 15:08:28.721714 31187 net.cpp:141] Setting up loss2/ave_pool
I0403 15:08:28.721743 31187 net.cpp:148] Top shape: 24 528 4 4 (202752)
I0403 15:08:28.721761 31187 net.cpp:156] Memory required for data: 1207729440
I0403 15:08:28.721776 31187 layer_factory.hpp:77] Creating layer loss2/conv
I0403 15:08:28.721798 31187 net.cpp:91] Creating Layer loss2/conv
I0403 15:08:28.721818 31187 net.cpp:425] loss2/conv <- loss2/ave_pool
I0403 15:08:28.721837 31187 net.cpp:399] loss2/conv -> loss2/conv
I0403 15:08:28.723745 31187 net.cpp:141] Setting up loss2/conv
I0403 15:08:28.723775 31187 net.cpp:148] Top shape: 24 128 4 4 (49152)
I0403 15:08:28.723793 31187 net.cpp:156] Memory required for data: 1207926048
I0403 15:08:28.723812 31187 layer_factory.hpp:77] Creating layer loss2/relu_conv
I0403 15:08:28.723837 31187 net.cpp:91] Creating Layer loss2/relu_conv
I0403 15:08:28.723856 31187 net.cpp:425] loss2/relu_conv <- loss2/conv
I0403 15:08:28.723875 31187 net.cpp:386] loss2/relu_conv -> loss2/conv (in-place)
I0403 15:08:28.724165 31187 net.cpp:141] Setting up loss2/relu_conv
I0403 15:08:28.724194 31187 net.cpp:148] Top shape: 24 128 4 4 (49152)
I0403 15:08:28.724210 31187 net.cpp:156] Memory required for data: 1208122656
I0403 15:08:28.724225 31187 layer_factory.hpp:77] Creating layer loss2/fc
I0403 15:08:28.724247 31187 net.cpp:91] Creating Layer loss2/fc
I0403 15:08:28.724266 31187 net.cpp:425] loss2/fc <- loss2/conv
I0403 15:08:28.724285 31187 net.cpp:399] loss2/fc -> loss2/fc
I0403 15:08:28.741605 31187 net.cpp:141] Setting up loss2/fc
I0403 15:08:28.741638 31187 net.cpp:148] Top shape: 24 1024 (24576)
I0403 15:08:28.741653 31187 net.cpp:156] Memory required for data: 1208220960
I0403 15:08:28.741672 31187 layer_factory.hpp:77] Creating layer loss2/relu_fc
I0403 15:08:28.741690 31187 net.cpp:91] Creating Layer loss2/relu_fc
I0403 15:08:28.741708 31187 net.cpp:425] loss2/relu_fc <- loss2/fc
I0403 15:08:28.741727 31187 net.cpp:386] loss2/relu_fc -> loss2/fc (in-place)
I0403 15:08:28.742022 31187 net.cpp:141] Setting up loss2/relu_fc
I0403 15:08:28.742049 31187 net.cpp:148] Top shape: 24 1024 (24576)
I0403 15:08:28.742065 31187 net.cpp:156] Memory required for data: 1208319264
I0403 15:08:28.742080 31187 layer_factory.hpp:77] Creating layer loss2/drop_fc
I0403 15:08:28.742097 31187 net.cpp:91] Creating Layer loss2/drop_fc
I0403 15:08:28.742112 31187 net.cpp:425] loss2/drop_fc <- loss2/fc
I0403 15:08:28.742132 31187 net.cpp:386] loss2/drop_fc -> loss2/fc (in-place)
I0403 15:08:28.742182 31187 net.cpp:141] Setting up loss2/drop_fc
I0403 15:08:28.742208 31187 net.cpp:148] Top shape: 24 1024 (24576)
I0403 15:08:28.742223 31187 net.cpp:156] Memory required for data: 1208417568
I0403 15:08:28.742238 31187 layer_factory.hpp:77] Creating layer loss2/classifier_plantvillage
I0403 15:08:28.742256 31187 net.cpp:91] Creating Layer loss2/classifier_plantvillage
I0403 15:08:28.742274 31187 net.cpp:425] loss2/classifier_plantvillage <- loss2/fc
I0403 15:08:28.742295 31187 net.cpp:399] loss2/classifier_plantvillage -> loss2/classifier_plantvillage
I0403 15:08:28.742691 31187 net.cpp:141] Setting up loss2/classifier_plantvillage
I0403 15:08:28.742717 31187 net.cpp:148] Top shape: 24 38 (912)
I0403 15:08:28.742733 31187 net.cpp:156] Memory required for data: 1208421216
I0403 15:08:28.742770 31187 layer_factory.hpp:77] Creating layer loss2/classifier_plantvillage_loss2/classifier_plantvillage_0_split
I0403 15:08:28.742791 31187 net.cpp:91] Creating Layer loss2/classifier_plantvillage_loss2/classifier_plantvillage_0_split
I0403 15:08:28.742807 31187 net.cpp:425] loss2/classifier_plantvillage_loss2/classifier_plantvillage_0_split <- loss2/classifier_plantvillage
I0403 15:08:28.742825 31187 net.cpp:399] loss2/classifier_plantvillage_loss2/classifier_plantvillage_0_split -> loss2/classifier_plantvillage_loss2/classifier_plantvillage_0_split_0
I0403 15:08:28.742844 31187 net.cpp:399] loss2/classifier_plantvillage_loss2/classifier_plantvillage_0_split -> loss2/classifier_plantvillage_loss2/classifier_plantvillage_0_split_1
I0403 15:08:28.742868 31187 net.cpp:399] loss2/classifier_plantvillage_loss2/classifier_plantvillage_0_split -> loss2/classifier_plantvillage_loss2/classifier_plantvillage_0_split_2
I0403 15:08:28.742946 31187 net.cpp:141] Setting up loss2/classifier_plantvillage_loss2/classifier_plantvillage_0_split
I0403 15:08:28.742970 31187 net.cpp:148] Top shape: 24 38 (912)
I0403 15:08:28.742986 31187 net.cpp:148] Top shape: 24 38 (912)
I0403 15:08:28.743002 31187 net.cpp:148] Top shape: 24 38 (912)
I0403 15:08:28.743016 31187 net.cpp:156] Memory required for data: 1208432160
I0403 15:08:28.743031 31187 layer_factory.hpp:77] Creating layer inception_4e/1x1
I0403 15:08:28.743052 31187 net.cpp:91] Creating Layer inception_4e/1x1
I0403 15:08:28.743069 31187 net.cpp:425] inception_4e/1x1 <- inception_4d/output_inception_4d/output_0_split_1
I0403 15:08:28.743089 31187 net.cpp:399] inception_4e/1x1 -> inception_4e/1x1
I0403 15:08:28.744868 31187 net.cpp:141] Setting up inception_4e/1x1
I0403 15:08:28.744895 31187 net.cpp:148] Top shape: 24 256 14 14 (1204224)
I0403 15:08:28.744911 31187 net.cpp:156] Memory required for data: 1213249056
I0403 15:08:28.744930 31187 layer_factory.hpp:77] Creating layer inception_4e/relu_1x1
I0403 15:08:28.744951 31187 net.cpp:91] Creating Layer inception_4e/relu_1x1
I0403 15:08:28.744969 31187 net.cpp:425] inception_4e/relu_1x1 <- inception_4e/1x1
I0403 15:08:28.744987 31187 net.cpp:386] inception_4e/relu_1x1 -> inception_4e/1x1 (in-place)
I0403 15:08:28.745281 31187 net.cpp:141] Setting up inception_4e/relu_1x1
I0403 15:08:28.745308 31187 net.cpp:148] Top shape: 24 256 14 14 (1204224)
I0403 15:08:28.745329 31187 net.cpp:156] Memory required for data: 1218065952
I0403 15:08:28.745347 31187 layer_factory.hpp:77] Creating layer inception_4e/3x3_reduce
I0403 15:08:28.745368 31187 net.cpp:91] Creating Layer inception_4e/3x3_reduce
I0403 15:08:28.745385 31187 net.cpp:425] inception_4e/3x3_reduce <- inception_4d/output_inception_4d/output_0_split_2
I0403 15:08:28.745406 31187 net.cpp:399] inception_4e/3x3_reduce -> inception_4e/3x3_reduce
I0403 15:08:28.747483 31187 net.cpp:141] Setting up inception_4e/3x3_reduce
I0403 15:08:28.747509 31187 net.cpp:148] Top shape: 24 160 14 14 (752640)
I0403 15:08:28.747526 31187 net.cpp:156] Memory required for data: 1221076512
I0403 15:08:28.747545 31187 layer_factory.hpp:77] Creating layer inception_4e/relu_3x3_reduce
I0403 15:08:28.747565 31187 net.cpp:91] Creating Layer inception_4e/relu_3x3_reduce
I0403 15:08:28.747581 31187 net.cpp:425] inception_4e/relu_3x3_reduce <- inception_4e/3x3_reduce
I0403 15:08:28.747599 31187 net.cpp:386] inception_4e/relu_3x3_reduce -> inception_4e/3x3_reduce (in-place)
I0403 15:08:28.747782 31187 net.cpp:141] Setting up inception_4e/relu_3x3_reduce
I0403 15:08:28.747810 31187 net.cpp:148] Top shape: 24 160 14 14 (752640)
I0403 15:08:28.747828 31187 net.cpp:156] Memory required for data: 1224087072
I0403 15:08:28.747843 31187 layer_factory.hpp:77] Creating layer inception_4e/3x3
I0403 15:08:28.747864 31187 net.cpp:91] Creating Layer inception_4e/3x3
I0403 15:08:28.747880 31187 net.cpp:425] inception_4e/3x3 <- inception_4e/3x3_reduce
I0403 15:08:28.747901 31187 net.cpp:399] inception_4e/3x3 -> inception_4e/3x3
I0403 15:08:28.752765 31187 net.cpp:141] Setting up inception_4e/3x3
I0403 15:08:28.752810 31187 net.cpp:148] Top shape: 24 320 14 14 (1505280)
I0403 15:08:28.752827 31187 net.cpp:156] Memory required for data: 1230108192
I0403 15:08:28.752846 31187 layer_factory.hpp:77] Creating layer inception_4e/relu_3x3
I0403 15:08:28.752864 31187 net.cpp:91] Creating Layer inception_4e/relu_3x3
I0403 15:08:28.752882 31187 net.cpp:425] inception_4e/relu_3x3 <- inception_4e/3x3
I0403 15:08:28.752897 31187 net.cpp:386] inception_4e/relu_3x3 -> inception_4e/3x3 (in-place)
I0403 15:08:28.753197 31187 net.cpp:141] Setting up inception_4e/relu_3x3
I0403 15:08:28.753228 31187 net.cpp:148] Top shape: 24 320 14 14 (1505280)
I0403 15:08:28.753244 31187 net.cpp:156] Memory required for data: 1236129312
I0403 15:08:28.753259 31187 layer_factory.hpp:77] Creating layer inception_4e/5x5_reduce
I0403 15:08:28.753294 31187 net.cpp:91] Creating Layer inception_4e/5x5_reduce
I0403 15:08:28.753324 31187 net.cpp:425] inception_4e/5x5_reduce <- inception_4d/output_inception_4d/output_0_split_3
I0403 15:08:28.753358 31187 net.cpp:399] inception_4e/5x5_reduce -> inception_4e/5x5_reduce
I0403 15:08:28.754420 31187 net.cpp:141] Setting up inception_4e/5x5_reduce
I0403 15:08:28.754446 31187 net.cpp:148] Top shape: 24 32 14 14 (150528)
I0403 15:08:28.754463 31187 net.cpp:156] Memory required for data: 1236731424
I0403 15:08:28.754482 31187 layer_factory.hpp:77] Creating layer inception_4e/relu_5x5_reduce
I0403 15:08:28.754503 31187 net.cpp:91] Creating Layer inception_4e/relu_5x5_reduce
I0403 15:08:28.754520 31187 net.cpp:425] inception_4e/relu_5x5_reduce <- inception_4e/5x5_reduce
I0403 15:08:28.754539 31187 net.cpp:386] inception_4e/relu_5x5_reduce -> inception_4e/5x5_reduce (in-place)
I0403 15:08:28.754832 31187 net.cpp:141] Setting up inception_4e/relu_5x5_reduce
I0403 15:08:28.754858 31187 net.cpp:148] Top shape: 24 32 14 14 (150528)
I0403 15:08:28.754873 31187 net.cpp:156] Memory required for data: 1237333536
I0403 15:08:28.754889 31187 layer_factory.hpp:77] Creating layer inception_4e/5x5
I0403 15:08:28.754926 31187 net.cpp:91] Creating Layer inception_4e/5x5
I0403 15:08:28.754946 31187 net.cpp:425] inception_4e/5x5 <- inception_4e/5x5_reduce
I0403 15:08:28.754966 31187 net.cpp:399] inception_4e/5x5 -> inception_4e/5x5
I0403 15:08:28.756770 31187 net.cpp:141] Setting up inception_4e/5x5
I0403 15:08:28.756798 31187 net.cpp:148] Top shape: 24 128 14 14 (602112)
I0403 15:08:28.756814 31187 net.cpp:156] Memory required for data: 1239741984
I0403 15:08:28.756834 31187 layer_factory.hpp:77] Creating layer inception_4e/relu_5x5
I0403 15:08:28.756853 31187 net.cpp:91] Creating Layer inception_4e/relu_5x5
I0403 15:08:28.756870 31187 net.cpp:425] inception_4e/relu_5x5 <- inception_4e/5x5
I0403 15:08:28.756891 31187 net.cpp:386] inception_4e/relu_5x5 -> inception_4e/5x5 (in-place)
I0403 15:08:28.757086 31187 net.cpp:141] Setting up inception_4e/relu_5x5
I0403 15:08:28.757110 31187 net.cpp:148] Top shape: 24 128 14 14 (602112)
I0403 15:08:28.757127 31187 net.cpp:156] Memory required for data: 1242150432
I0403 15:08:28.757141 31187 layer_factory.hpp:77] Creating layer inception_4e/pool
I0403 15:08:28.757161 31187 net.cpp:91] Creating Layer inception_4e/pool
I0403 15:08:28.757179 31187 net.cpp:425] inception_4e/pool <- inception_4d/output_inception_4d/output_0_split_4
I0403 15:08:28.757197 31187 net.cpp:399] inception_4e/pool -> inception_4e/pool
I0403 15:08:28.757268 31187 net.cpp:141] Setting up inception_4e/pool
I0403 15:08:28.757293 31187 net.cpp:148] Top shape: 24 528 14 14 (2483712)
I0403 15:08:28.757308 31187 net.cpp:156] Memory required for data: 1252085280
I0403 15:08:28.757329 31187 layer_factory.hpp:77] Creating layer inception_4e/pool_proj
I0403 15:08:28.757354 31187 net.cpp:91] Creating Layer inception_4e/pool_proj
I0403 15:08:28.757370 31187 net.cpp:425] inception_4e/pool_proj <- inception_4e/pool
I0403 15:08:28.757391 31187 net.cpp:399] inception_4e/pool_proj -> inception_4e/pool_proj
I0403 15:08:28.758858 31187 net.cpp:141] Setting up inception_4e/pool_proj
I0403 15:08:28.758889 31187 net.cpp:148] Top shape: 24 128 14 14 (602112)
I0403 15:08:28.758919 31187 net.cpp:156] Memory required for data: 1254493728
I0403 15:08:28.758937 31187 layer_factory.hpp:77] Creating layer inception_4e/relu_pool_proj
I0403 15:08:28.758956 31187 net.cpp:91] Creating Layer inception_4e/relu_pool_proj
I0403 15:08:28.758972 31187 net.cpp:425] inception_4e/relu_pool_proj <- inception_4e/pool_proj
I0403 15:08:28.758992 31187 net.cpp:386] inception_4e/relu_pool_proj -> inception_4e/pool_proj (in-place)
I0403 15:08:28.759277 31187 net.cpp:141] Setting up inception_4e/relu_pool_proj
I0403 15:08:28.759306 31187 net.cpp:148] Top shape: 24 128 14 14 (602112)
I0403 15:08:28.759327 31187 net.cpp:156] Memory required for data: 1256902176
I0403 15:08:28.759344 31187 layer_factory.hpp:77] Creating layer inception_4e/output
I0403 15:08:28.759361 31187 net.cpp:91] Creating Layer inception_4e/output
I0403 15:08:28.759377 31187 net.cpp:425] inception_4e/output <- inception_4e/1x1
I0403 15:08:28.759394 31187 net.cpp:425] inception_4e/output <- inception_4e/3x3
I0403 15:08:28.759410 31187 net.cpp:425] inception_4e/output <- inception_4e/5x5
I0403 15:08:28.759426 31187 net.cpp:425] inception_4e/output <- inception_4e/pool_proj
I0403 15:08:28.759448 31187 net.cpp:399] inception_4e/output -> inception_4e/output
I0403 15:08:28.759495 31187 net.cpp:141] Setting up inception_4e/output
I0403 15:08:28.759519 31187 net.cpp:148] Top shape: 24 832 14 14 (3913728)
I0403 15:08:28.759536 31187 net.cpp:156] Memory required for data: 1272557088
I0403 15:08:28.759551 31187 layer_factory.hpp:77] Creating layer pool4/3x3_s2
I0403 15:08:28.759570 31187 net.cpp:91] Creating Layer pool4/3x3_s2
I0403 15:08:28.759588 31187 net.cpp:425] pool4/3x3_s2 <- inception_4e/output
I0403 15:08:28.759606 31187 net.cpp:399] pool4/3x3_s2 -> pool4/3x3_s2
I0403 15:08:28.759673 31187 net.cpp:141] Setting up pool4/3x3_s2
I0403 15:08:28.759697 31187 net.cpp:148] Top shape: 24 832 7 7 (978432)
I0403 15:08:28.759713 31187 net.cpp:156] Memory required for data: 1276470816
I0403 15:08:28.759728 31187 layer_factory.hpp:77] Creating layer pool4/3x3_s2_pool4/3x3_s2_0_split
I0403 15:08:28.759744 31187 net.cpp:91] Creating Layer pool4/3x3_s2_pool4/3x3_s2_0_split
I0403 15:08:28.759763 31187 net.cpp:425] pool4/3x3_s2_pool4/3x3_s2_0_split <- pool4/3x3_s2
I0403 15:08:28.759783 31187 net.cpp:399] pool4/3x3_s2_pool4/3x3_s2_0_split -> pool4/3x3_s2_pool4/3x3_s2_0_split_0
I0403 15:08:28.759802 31187 net.cpp:399] pool4/3x3_s2_pool4/3x3_s2_0_split -> pool4/3x3_s2_pool4/3x3_s2_0_split_1
I0403 15:08:28.759824 31187 net.cpp:399] pool4/3x3_s2_pool4/3x3_s2_0_split -> pool4/3x3_s2_pool4/3x3_s2_0_split_2
I0403 15:08:28.759843 31187 net.cpp:399] pool4/3x3_s2_pool4/3x3_s2_0_split -> pool4/3x3_s2_pool4/3x3_s2_0_split_3
I0403 15:08:28.759932 31187 net.cpp:141] Setting up pool4/3x3_s2_pool4/3x3_s2_0_split
I0403 15:08:28.759954 31187 net.cpp:148] Top shape: 24 832 7 7 (978432)
I0403 15:08:28.759973 31187 net.cpp:148] Top shape: 24 832 7 7 (978432)
I0403 15:08:28.759989 31187 net.cpp:148] Top shape: 24 832 7 7 (978432)
I0403 15:08:28.760004 31187 net.cpp:148] Top shape: 24 832 7 7 (978432)
I0403 15:08:28.760018 31187 net.cpp:156] Memory required for data: 1292125728
I0403 15:08:28.760033 31187 layer_factory.hpp:77] Creating layer inception_5a/1x1
I0403 15:08:28.760056 31187 net.cpp:91] Creating Layer inception_5a/1x1
I0403 15:08:28.760072 31187 net.cpp:425] inception_5a/1x1 <- pool4/3x3_s2_pool4/3x3_s2_0_split_0
I0403 15:08:28.760094 31187 net.cpp:399] inception_5a/1x1 -> inception_5a/1x1
I0403 15:08:28.762962 31187 net.cpp:141] Setting up inception_5a/1x1
I0403 15:08:28.762992 31187 net.cpp:148] Top shape: 24 256 7 7 (301056)
I0403 15:08:28.763008 31187 net.cpp:156] Memory required for data: 1293329952
I0403 15:08:28.763028 31187 layer_factory.hpp:77] Creating layer inception_5a/relu_1x1
I0403 15:08:28.763046 31187 net.cpp:91] Creating Layer inception_5a/relu_1x1
I0403 15:08:28.763062 31187 net.cpp:425] inception_5a/relu_1x1 <- inception_5a/1x1
I0403 15:08:28.763082 31187 net.cpp:386] inception_5a/relu_1x1 -> inception_5a/1x1 (in-place)
I0403 15:08:28.763406 31187 net.cpp:141] Setting up inception_5a/relu_1x1
I0403 15:08:28.763433 31187 net.cpp:148] Top shape: 24 256 7 7 (301056)
I0403 15:08:28.763450 31187 net.cpp:156] Memory required for data: 1294534176
I0403 15:08:28.763466 31187 layer_factory.hpp:77] Creating layer inception_5a/3x3_reduce
I0403 15:08:28.763489 31187 net.cpp:91] Creating Layer inception_5a/3x3_reduce
I0403 15:08:28.763509 31187 net.cpp:425] inception_5a/3x3_reduce <- pool4/3x3_s2_pool4/3x3_s2_0_split_1
I0403 15:08:28.763532 31187 net.cpp:399] inception_5a/3x3_reduce -> inception_5a/3x3_reduce
I0403 15:08:28.766072 31187 net.cpp:141] Setting up inception_5a/3x3_reduce
I0403 15:08:28.766108 31187 net.cpp:148] Top shape: 24 160 7 7 (188160)
I0403 15:08:28.766125 31187 net.cpp:156] Memory required for data: 1295286816
I0403 15:08:28.766145 31187 layer_factory.hpp:77] Creating layer inception_5a/relu_3x3_reduce
I0403 15:08:28.766173 31187 net.cpp:91] Creating Layer inception_5a/relu_3x3_reduce
I0403 15:08:28.766191 31187 net.cpp:425] inception_5a/relu_3x3_reduce <- inception_5a/3x3_reduce
I0403 15:08:28.766212 31187 net.cpp:386] inception_5a/relu_3x3_reduce -> inception_5a/3x3_reduce (in-place)
I0403 15:08:28.766413 31187 net.cpp:141] Setting up inception_5a/relu_3x3_reduce
I0403 15:08:28.766441 31187 net.cpp:148] Top shape: 24 160 7 7 (188160)
I0403 15:08:28.766456 31187 net.cpp:156] Memory required for data: 1296039456
I0403 15:08:28.766474 31187 layer_factory.hpp:77] Creating layer inception_5a/3x3
I0403 15:08:28.766497 31187 net.cpp:91] Creating Layer inception_5a/3x3
I0403 15:08:28.766515 31187 net.cpp:425] inception_5a/3x3 <- inception_5a/3x3_reduce
I0403 15:08:28.766538 31187 net.cpp:399] inception_5a/3x3 -> inception_5a/3x3
I0403 15:08:28.771735 31187 net.cpp:141] Setting up inception_5a/3x3
I0403 15:08:28.771766 31187 net.cpp:148] Top shape: 24 320 7 7 (376320)
I0403 15:08:28.771785 31187 net.cpp:156] Memory required for data: 1297544736
I0403 15:08:28.771803 31187 layer_factory.hpp:77] Creating layer inception_5a/relu_3x3
I0403 15:08:28.771828 31187 net.cpp:91] Creating Layer inception_5a/relu_3x3
I0403 15:08:28.771847 31187 net.cpp:425] inception_5a/relu_3x3 <- inception_5a/3x3
I0403 15:08:28.771867 31187 net.cpp:386] inception_5a/relu_3x3 -> inception_5a/3x3 (in-place)
I0403 15:08:28.772172 31187 net.cpp:141] Setting up inception_5a/relu_3x3
I0403 15:08:28.772200 31187 net.cpp:148] Top shape: 24 320 7 7 (376320)
I0403 15:08:28.772217 31187 net.cpp:156] Memory required for data: 1299050016
I0403 15:08:28.772233 31187 layer_factory.hpp:77] Creating layer inception_5a/5x5_reduce
I0403 15:08:28.772258 31187 net.cpp:91] Creating Layer inception_5a/5x5_reduce
I0403 15:08:28.772276 31187 net.cpp:425] inception_5a/5x5_reduce <- pool4/3x3_s2_pool4/3x3_s2_0_split_2
I0403 15:08:28.772300 31187 net.cpp:399] inception_5a/5x5_reduce -> inception_5a/5x5_reduce
I0403 15:08:28.773515 31187 net.cpp:141] Setting up inception_5a/5x5_reduce
I0403 15:08:28.773545 31187 net.cpp:148] Top shape: 24 32 7 7 (37632)
I0403 15:08:28.773563 31187 net.cpp:156] Memory required for data: 1299200544
I0403 15:08:28.773584 31187 layer_factory.hpp:77] Creating layer inception_5a/relu_5x5_reduce
I0403 15:08:28.773607 31187 net.cpp:91] Creating Layer inception_5a/relu_5x5_reduce
I0403 15:08:28.773624 31187 net.cpp:425] inception_5a/relu_5x5_reduce <- inception_5a/5x5_reduce
I0403 15:08:28.773643 31187 net.cpp:386] inception_5a/relu_5x5_reduce -> inception_5a/5x5_reduce (in-place)
I0403 15:08:28.773960 31187 net.cpp:141] Setting up inception_5a/relu_5x5_reduce
I0403 15:08:28.773989 31187 net.cpp:148] Top shape: 24 32 7 7 (37632)
I0403 15:08:28.774006 31187 net.cpp:156] Memory required for data: 1299351072
I0403 15:08:28.774024 31187 layer_factory.hpp:77] Creating layer inception_5a/5x5
I0403 15:08:28.774046 31187 net.cpp:91] Creating Layer inception_5a/5x5
I0403 15:08:28.774066 31187 net.cpp:425] inception_5a/5x5 <- inception_5a/5x5_reduce
I0403 15:08:28.774090 31187 net.cpp:399] inception_5a/5x5 -> inception_5a/5x5
I0403 15:08:28.775899 31187 net.cpp:141] Setting up inception_5a/5x5
I0403 15:08:28.775943 31187 net.cpp:148] Top shape: 24 128 7 7 (150528)
I0403 15:08:28.775964 31187 net.cpp:156] Memory required for data: 1299953184
I0403 15:08:28.775982 31187 layer_factory.hpp:77] Creating layer inception_5a/relu_5x5
I0403 15:08:28.776003 31187 net.cpp:91] Creating Layer inception_5a/relu_5x5
I0403 15:08:28.776021 31187 net.cpp:425] inception_5a/relu_5x5 <- inception_5a/5x5
I0403 15:08:28.776041 31187 net.cpp:386] inception_5a/relu_5x5 -> inception_5a/5x5 (in-place)
I0403 15:08:28.776243 31187 net.cpp:141] Setting up inception_5a/relu_5x5
I0403 15:08:28.776270 31187 net.cpp:148] Top shape: 24 128 7 7 (150528)
I0403 15:08:28.776286 31187 net.cpp:156] Memory required for data: 1300555296
I0403 15:08:28.776303 31187 layer_factory.hpp:77] Creating layer inception_5a/pool
I0403 15:08:28.776329 31187 net.cpp:91] Creating Layer inception_5a/pool
I0403 15:08:28.776350 31187 net.cpp:425] inception_5a/pool <- pool4/3x3_s2_pool4/3x3_s2_0_split_3
I0403 15:08:28.776368 31187 net.cpp:399] inception_5a/pool -> inception_5a/pool
I0403 15:08:28.776443 31187 net.cpp:141] Setting up inception_5a/pool
I0403 15:08:28.776468 31187 net.cpp:148] Top shape: 24 832 7 7 (978432)
I0403 15:08:28.776484 31187 net.cpp:156] Memory required for data: 1304469024
I0403 15:08:28.776500 31187 layer_factory.hpp:77] Creating layer inception_5a/pool_proj
I0403 15:08:28.776523 31187 net.cpp:91] Creating Layer inception_5a/pool_proj
I0403 15:08:28.776542 31187 net.cpp:425] inception_5a/pool_proj <- inception_5a/pool
I0403 15:08:28.776564 31187 net.cpp:399] inception_5a/pool_proj -> inception_5a/pool_proj
I0403 15:08:28.778934 31187 net.cpp:141] Setting up inception_5a/pool_proj
I0403 15:08:28.778965 31187 net.cpp:148] Top shape: 24 128 7 7 (150528)
I0403 15:08:28.778982 31187 net.cpp:156] Memory required for data: 1305071136
I0403 15:08:28.779001 31187 layer_factory.hpp:77] Creating layer inception_5a/relu_pool_proj
I0403 15:08:28.779021 31187 net.cpp:91] Creating Layer inception_5a/relu_pool_proj
I0403 15:08:28.779038 31187 net.cpp:425] inception_5a/relu_pool_proj <- inception_5a/pool_proj
I0403 15:08:28.779060 31187 net.cpp:386] inception_5a/relu_pool_proj -> inception_5a/pool_proj (in-place)
I0403 15:08:28.779376 31187 net.cpp:141] Setting up inception_5a/relu_pool_proj
I0403 15:08:28.779403 31187 net.cpp:148] Top shape: 24 128 7 7 (150528)
I0403 15:08:28.779419 31187 net.cpp:156] Memory required for data: 1305673248
I0403 15:08:28.779435 31187 layer_factory.hpp:77] Creating layer inception_5a/output
I0403 15:08:28.779453 31187 net.cpp:91] Creating Layer inception_5a/output
I0403 15:08:28.779471 31187 net.cpp:425] inception_5a/output <- inception_5a/1x1
I0403 15:08:28.779489 31187 net.cpp:425] inception_5a/output <- inception_5a/3x3
I0403 15:08:28.779507 31187 net.cpp:425] inception_5a/output <- inception_5a/5x5
I0403 15:08:28.779525 31187 net.cpp:425] inception_5a/output <- inception_5a/pool_proj
I0403 15:08:28.779548 31187 net.cpp:399] inception_5a/output -> inception_5a/output
I0403 15:08:28.779600 31187 net.cpp:141] Setting up inception_5a/output
I0403 15:08:28.779629 31187 net.cpp:148] Top shape: 24 832 7 7 (978432)
I0403 15:08:28.779645 31187 net.cpp:156] Memory required for data: 1309586976
I0403 15:08:28.779662 31187 layer_factory.hpp:77] Creating layer inception_5a/output_inception_5a/output_0_split
I0403 15:08:28.779680 31187 net.cpp:91] Creating Layer inception_5a/output_inception_5a/output_0_split
I0403 15:08:28.779698 31187 net.cpp:425] inception_5a/output_inception_5a/output_0_split <- inception_5a/output
I0403 15:08:28.779716 31187 net.cpp:399] inception_5a/output_inception_5a/output_0_split -> inception_5a/output_inception_5a/output_0_split_0
I0403 15:08:28.779738 31187 net.cpp:399] inception_5a/output_inception_5a/output_0_split -> inception_5a/output_inception_5a/output_0_split_1
I0403 15:08:28.779762 31187 net.cpp:399] inception_5a/output_inception_5a/output_0_split -> inception_5a/output_inception_5a/output_0_split_2
I0403 15:08:28.779786 31187 net.cpp:399] inception_5a/output_inception_5a/output_0_split -> inception_5a/output_inception_5a/output_0_split_3
I0403 15:08:28.779904 31187 net.cpp:141] Setting up inception_5a/output_inception_5a/output_0_split
I0403 15:08:28.779930 31187 net.cpp:148] Top shape: 24 832 7 7 (978432)
I0403 15:08:28.779948 31187 net.cpp:148] Top shape: 24 832 7 7 (978432)
I0403 15:08:28.779965 31187 net.cpp:148] Top shape: 24 832 7 7 (978432)
I0403 15:08:28.779983 31187 net.cpp:148] Top shape: 24 832 7 7 (978432)
I0403 15:08:28.779997 31187 net.cpp:156] Memory required for data: 1325241888
I0403 15:08:28.780014 31187 layer_factory.hpp:77] Creating layer inception_5b/1x1
I0403 15:08:28.780037 31187 net.cpp:91] Creating Layer inception_5b/1x1
I0403 15:08:28.780056 31187 net.cpp:425] inception_5b/1x1 <- inception_5a/output_inception_5a/output_0_split_0
I0403 15:08:28.780079 31187 net.cpp:399] inception_5b/1x1 -> inception_5b/1x1
I0403 15:08:28.783989 31187 net.cpp:141] Setting up inception_5b/1x1
I0403 15:08:28.784023 31187 net.cpp:148] Top shape: 24 384 7 7 (451584)
I0403 15:08:28.784040 31187 net.cpp:156] Memory required for data: 1327048224
I0403 15:08:28.784060 31187 layer_factory.hpp:77] Creating layer inception_5b/relu_1x1
I0403 15:08:28.784078 31187 net.cpp:91] Creating Layer inception_5b/relu_1x1
I0403 15:08:28.784096 31187 net.cpp:425] inception_5b/relu_1x1 <- inception_5b/1x1
I0403 15:08:28.784116 31187 net.cpp:386] inception_5b/relu_1x1 -> inception_5b/1x1 (in-place)
I0403 15:08:28.784435 31187 net.cpp:141] Setting up inception_5b/relu_1x1
I0403 15:08:28.784466 31187 net.cpp:148] Top shape: 24 384 7 7 (451584)
I0403 15:08:28.784482 31187 net.cpp:156] Memory required for data: 1328854560
I0403 15:08:28.784498 31187 layer_factory.hpp:77] Creating layer inception_5b/3x3_reduce
I0403 15:08:28.784521 31187 net.cpp:91] Creating Layer inception_5b/3x3_reduce
I0403 15:08:28.784540 31187 net.cpp:425] inception_5b/3x3_reduce <- inception_5a/output_inception_5a/output_0_split_1
I0403 15:08:28.784560 31187 net.cpp:399] inception_5b/3x3_reduce -> inception_5b/3x3_reduce
I0403 15:08:28.787243 31187 net.cpp:141] Setting up inception_5b/3x3_reduce
I0403 15:08:28.787276 31187 net.cpp:148] Top shape: 24 192 7 7 (225792)
I0403 15:08:28.787292 31187 net.cpp:156] Memory required for data: 1329757728
I0403 15:08:28.787312 31187 layer_factory.hpp:77] Creating layer inception_5b/relu_3x3_reduce
I0403 15:08:28.787336 31187 net.cpp:91] Creating Layer inception_5b/relu_3x3_reduce
I0403 15:08:28.787354 31187 net.cpp:425] inception_5b/relu_3x3_reduce <- inception_5b/3x3_reduce
I0403 15:08:28.787375 31187 net.cpp:386] inception_5b/relu_3x3_reduce -> inception_5b/3x3_reduce (in-place)
I0403 15:08:28.787571 31187 net.cpp:141] Setting up inception_5b/relu_3x3_reduce
I0403 15:08:28.787598 31187 net.cpp:148] Top shape: 24 192 7 7 (225792)
I0403 15:08:28.787618 31187 net.cpp:156] Memory required for data: 1330660896
I0403 15:08:28.787634 31187 layer_factory.hpp:77] Creating layer inception_5b/3x3
I0403 15:08:28.787657 31187 net.cpp:91] Creating Layer inception_5b/3x3
I0403 15:08:28.787675 31187 net.cpp:425] inception_5b/3x3 <- inception_5b/3x3_reduce
I0403 15:08:28.787698 31187 net.cpp:399] inception_5b/3x3 -> inception_5b/3x3
I0403 15:08:28.794445 31187 net.cpp:141] Setting up inception_5b/3x3
I0403 15:08:28.794476 31187 net.cpp:148] Top shape: 24 384 7 7 (451584)
I0403 15:08:28.794492 31187 net.cpp:156] Memory required for data: 1332467232
I0403 15:08:28.794512 31187 layer_factory.hpp:77] Creating layer inception_5b/relu_3x3
I0403 15:08:28.794530 31187 net.cpp:91] Creating Layer inception_5b/relu_3x3
I0403 15:08:28.794548 31187 net.cpp:425] inception_5b/relu_3x3 <- inception_5b/3x3
I0403 15:08:28.794569 31187 net.cpp:386] inception_5b/relu_3x3 -> inception_5b/3x3 (in-place)
I0403 15:08:28.794872 31187 net.cpp:141] Setting up inception_5b/relu_3x3
I0403 15:08:28.794899 31187 net.cpp:148] Top shape: 24 384 7 7 (451584)
I0403 15:08:28.794916 31187 net.cpp:156] Memory required for data: 1334273568
I0403 15:08:28.794932 31187 layer_factory.hpp:77] Creating layer inception_5b/5x5_reduce
I0403 15:08:28.794972 31187 net.cpp:91] Creating Layer inception_5b/5x5_reduce
I0403 15:08:28.794993 31187 net.cpp:425] inception_5b/5x5_reduce <- inception_5a/output_inception_5a/output_0_split_2
I0403 15:08:28.795016 31187 net.cpp:399] inception_5b/5x5_reduce -> inception_5b/5x5_reduce
I0403 15:08:28.796299 31187 net.cpp:141] Setting up inception_5b/5x5_reduce
I0403 15:08:28.796335 31187 net.cpp:148] Top shape: 24 48 7 7 (56448)
I0403 15:08:28.796355 31187 net.cpp:156] Memory required for data: 1334499360
I0403 15:08:28.796381 31187 layer_factory.hpp:77] Creating layer inception_5b/relu_5x5_reduce
I0403 15:08:28.796399 31187 net.cpp:91] Creating Layer inception_5b/relu_5x5_reduce
I0403 15:08:28.796416 31187 net.cpp:425] inception_5b/relu_5x5_reduce <- inception_5b/5x5_reduce
I0403 15:08:28.796439 31187 net.cpp:386] inception_5b/relu_5x5_reduce -> inception_5b/5x5_reduce (in-place)
I0403 15:08:28.796824 31187 net.cpp:141] Setting up inception_5b/relu_5x5_reduce
I0403 15:08:28.796852 31187 net.cpp:148] Top shape: 24 48 7 7 (56448)
I0403 15:08:28.796869 31187 net.cpp:156] Memory required for data: 1334725152
I0403 15:08:28.796885 31187 layer_factory.hpp:77] Creating layer inception_5b/5x5
I0403 15:08:28.796905 31187 net.cpp:91] Creating Layer inception_5b/5x5
I0403 15:08:28.796923 31187 net.cpp:425] inception_5b/5x5 <- inception_5b/5x5_reduce
I0403 15:08:28.796943 31187 net.cpp:399] inception_5b/5x5 -> inception_5b/5x5
I0403 15:08:28.799026 31187 net.cpp:141] Setting up inception_5b/5x5
I0403 15:08:28.799055 31187 net.cpp:148] Top shape: 24 128 7 7 (150528)
I0403 15:08:28.799072 31187 net.cpp:156] Memory required for data: 1335327264
I0403 15:08:28.799090 31187 layer_factory.hpp:77] Creating layer inception_5b/relu_5x5
I0403 15:08:28.799110 31187 net.cpp:91] Creating Layer inception_5b/relu_5x5
I0403 15:08:28.799129 31187 net.cpp:425] inception_5b/relu_5x5 <- inception_5b/5x5
I0403 15:08:28.799149 31187 net.cpp:386] inception_5b/relu_5x5 -> inception_5b/5x5 (in-place)
I0403 15:08:28.799355 31187 net.cpp:141] Setting up inception_5b/relu_5x5
I0403 15:08:28.799383 31187 net.cpp:148] Top shape: 24 128 7 7 (150528)
I0403 15:08:28.799401 31187 net.cpp:156] Memory required for data: 1335929376
I0403 15:08:28.799418 31187 layer_factory.hpp:77] Creating layer inception_5b/pool
I0403 15:08:28.799440 31187 net.cpp:91] Creating Layer inception_5b/pool
I0403 15:08:28.799458 31187 net.cpp:425] inception_5b/pool <- inception_5a/output_inception_5a/output_0_split_3
I0403 15:08:28.799477 31187 net.cpp:399] inception_5b/pool -> inception_5b/pool
I0403 15:08:28.799553 31187 net.cpp:141] Setting up inception_5b/pool
I0403 15:08:28.799582 31187 net.cpp:148] Top shape: 24 832 7 7 (978432)
I0403 15:08:28.799595 31187 net.cpp:156] Memory required for data: 1339843104
I0403 15:08:28.799610 31187 layer_factory.hpp:77] Creating layer inception_5b/pool_proj
I0403 15:08:28.799633 31187 net.cpp:91] Creating Layer inception_5b/pool_proj
I0403 15:08:28.799652 31187 net.cpp:425] inception_5b/pool_proj <- inception_5b/pool
I0403 15:08:28.799674 31187 net.cpp:399] inception_5b/pool_proj -> inception_5b/pool_proj
I0403 15:08:28.801998 31187 net.cpp:141] Setting up inception_5b/pool_proj
I0403 15:08:28.802029 31187 net.cpp:148] Top shape: 24 128 7 7 (150528)
I0403 15:08:28.802045 31187 net.cpp:156] Memory required for data: 1340445216
I0403 15:08:28.802065 31187 layer_factory.hpp:77] Creating layer inception_5b/relu_pool_proj
I0403 15:08:28.802084 31187 net.cpp:91] Creating Layer inception_5b/relu_pool_proj
I0403 15:08:28.802103 31187 net.cpp:425] inception_5b/relu_pool_proj <- inception_5b/pool_proj
I0403 15:08:28.802122 31187 net.cpp:386] inception_5b/relu_pool_proj -> inception_5b/pool_proj (in-place)
I0403 15:08:28.802428 31187 net.cpp:141] Setting up inception_5b/relu_pool_proj
I0403 15:08:28.802456 31187 net.cpp:148] Top shape: 24 128 7 7 (150528)
I0403 15:08:28.802472 31187 net.cpp:156] Memory required for data: 1341047328
I0403 15:08:28.802489 31187 layer_factory.hpp:77] Creating layer inception_5b/output
I0403 15:08:28.802506 31187 net.cpp:91] Creating Layer inception_5b/output
I0403 15:08:28.802541 31187 net.cpp:425] inception_5b/output <- inception_5b/1x1
I0403 15:08:28.802559 31187 net.cpp:425] inception_5b/output <- inception_5b/3x3
I0403 15:08:28.802578 31187 net.cpp:425] inception_5b/output <- inception_5b/5x5
I0403 15:08:28.802595 31187 net.cpp:425] inception_5b/output <- inception_5b/pool_proj
I0403 15:08:28.802616 31187 net.cpp:399] inception_5b/output -> inception_5b/output
I0403 15:08:28.802670 31187 net.cpp:141] Setting up inception_5b/output
I0403 15:08:28.802695 31187 net.cpp:148] Top shape: 24 1024 7 7 (1204224)
I0403 15:08:28.802711 31187 net.cpp:156] Memory required for data: 1345864224
I0403 15:08:28.802727 31187 layer_factory.hpp:77] Creating layer pool5/7x7_s1
I0403 15:08:28.802747 31187 net.cpp:91] Creating Layer pool5/7x7_s1
I0403 15:08:28.802764 31187 net.cpp:425] pool5/7x7_s1 <- inception_5b/output
I0403 15:08:28.802788 31187 net.cpp:399] pool5/7x7_s1 -> pool5/7x7_s1
I0403 15:08:28.803006 31187 net.cpp:141] Setting up pool5/7x7_s1
I0403 15:08:28.803033 31187 net.cpp:148] Top shape: 24 1024 1 1 (24576)
I0403 15:08:28.803050 31187 net.cpp:156] Memory required for data: 1345962528
I0403 15:08:28.803066 31187 layer_factory.hpp:77] Creating layer pool5/drop_7x7_s1
I0403 15:08:28.803083 31187 net.cpp:91] Creating Layer pool5/drop_7x7_s1
I0403 15:08:28.803099 31187 net.cpp:425] pool5/drop_7x7_s1 <- pool5/7x7_s1
I0403 15:08:28.803119 31187 net.cpp:386] pool5/drop_7x7_s1 -> pool5/7x7_s1 (in-place)
I0403 15:08:28.803170 31187 net.cpp:141] Setting up pool5/drop_7x7_s1
I0403 15:08:28.803197 31187 net.cpp:148] Top shape: 24 1024 1 1 (24576)
I0403 15:08:28.803213 31187 net.cpp:156] Memory required for data: 1346060832
I0403 15:08:28.803230 31187 layer_factory.hpp:77] Creating layer loss3/classifier_plantvillage
I0403 15:08:28.803248 31187 net.cpp:91] Creating Layer loss3/classifier_plantvillage
I0403 15:08:28.803264 31187 net.cpp:425] loss3/classifier_plantvillage <- pool5/7x7_s1
I0403 15:08:28.803287 31187 net.cpp:399] loss3/classifier_plantvillage -> loss3/classifier_plantvillage
I0403 15:08:28.803721 31187 net.cpp:141] Setting up loss3/classifier_plantvillage
I0403 15:08:28.803751 31187 net.cpp:148] Top shape: 24 38 (912)
I0403 15:08:28.803768 31187 net.cpp:156] Memory required for data: 1346064480
I0403 15:08:28.803791 31187 layer_factory.hpp:77] Creating layer loss3/classifier_plantvillage_loss3/classifier_plantvillage_0_split
I0403 15:08:28.803809 31187 net.cpp:91] Creating Layer loss3/classifier_plantvillage_loss3/classifier_plantvillage_0_split
I0403 15:08:28.803828 31187 net.cpp:425] loss3/classifier_plantvillage_loss3/classifier_plantvillage_0_split <- loss3/classifier_plantvillage
I0403 15:08:28.803845 31187 net.cpp:399] loss3/classifier_plantvillage_loss3/classifier_plantvillage_0_split -> loss3/classifier_plantvillage_loss3/classifier_plantvillage_0_split_0
I0403 15:08:28.803865 31187 net.cpp:399] loss3/classifier_plantvillage_loss3/classifier_plantvillage_0_split -> loss3/classifier_plantvillage_loss3/classifier_plantvillage_0_split_1
I0403 15:08:28.803901 31187 net.cpp:399] loss3/classifier_plantvillage_loss3/classifier_plantvillage_0_split -> loss3/classifier_plantvillage_loss3/classifier_plantvillage_0_split_2
I0403 15:08:28.803925 31187 net.cpp:399] loss3/classifier_plantvillage_loss3/classifier_plantvillage_0_split -> loss3/classifier_plantvillage_loss3/classifier_plantvillage_0_split_3
I0403 15:08:28.804030 31187 net.cpp:141] Setting up loss3/classifier_plantvillage_loss3/classifier_plantvillage_0_split
I0403 15:08:28.804056 31187 net.cpp:148] Top shape: 24 38 (912)
I0403 15:08:28.804074 31187 net.cpp:148] Top shape: 24 38 (912)
I0403 15:08:28.804090 31187 net.cpp:148] Top shape: 24 38 (912)
I0403 15:08:28.804105 31187 net.cpp:148] Top shape: 24 38 (912)
I0403 15:08:28.804121 31187 net.cpp:156] Memory required for data: 1346079072
I0403 15:08:28.804136 31187 layer_factory.hpp:77] Creating layer loss1/loss
I0403 15:08:28.804160 31187 net.cpp:91] Creating Layer loss1/loss
I0403 15:08:28.804191 31187 net.cpp:425] loss1/loss <- loss1/classifier_plantvillage_loss1/classifier_plantvillage_0_split_0
I0403 15:08:28.804224 31187 net.cpp:425] loss1/loss <- label_data_1_split_0
…
