…
I0403 15:02:59.076262 30947 net.cpp:313] The NetState phase (1) differed from the phase (0) specified by a rule in layer data
I0403 15:02:59.077473 30947 net.cpp:49] Initializing net from parameters: 
state {
  phase: TEST
}
layer {
  name: "data"
  type: "Data"
  top: "data"
  top: "label"
  include {
    phase: TEST
  }
  transform_param {
    mirror: false
    crop_size: 224
    mean_file: "/home/mohanty/data/final_dataset/lmdb/color-20-80/mean.binaryproto"
  }
  data_param {
    source: "/home/mohanty/data/final_dataset/lmdb/color-20-80/test_db"
    batch_size: 24
    backend: LMDB
  }
}
layer {
  name: "conv1/7x7_s2"
  type: "Convolution"
  bottom: "data"
  top: "conv1/7x7_s2"
  param {
    lr_mult: 1
    decay_mult: 1
  }
  param {
    lr_mult: 2
    decay_mult: 0
  }
  convolution_param {
    num_output: 64
    pad: 3
    kernel_size: 7
    stride: 2
    weight_filler {
      type: "xavier"
      std: 0.1
    }
    bias_filler {
      type: "constant"
      value: 0.2
    }
  }
}
layer {
  name: "conv1/relu_7x7"
  type: "ReLU"
  bottom: "conv1/7x7_s2"
  top: "conv1/7x7_s2"
}
layer {
  name: "pool1/3x3_s2"
  type: "Pooling"
  bottom: "conv1/7x7_s2"
  top: "pool1/3x3_s2"
  pooling_param {
    pool: MAX
    kernel_size: 3
    stride: 2
  }
}
layer {
  name: "pool1/norm1"
  type: "LRN"
  bottom: "pool1/3x3_s2"
  top: "pool1/norm1"
  lrn_param {
    local_size: 5
    alpha: 0.0001
    beta: 0.75
  }
}
layer {
  name: "conv2/3x3_reduce"
  type: "Convolution"
  bottom: "pool1/norm1"
  top: "conv2/3x3_reduce"
  param {
    lr_mult: 1
    decay_mult: 1
  }
  param {
    lr_mult: 2
    decay_mult: 0
  }
  convolution_param {
    num_output: 64
    kernel_size: 1
    weight_filler {
      type: "xavier"
      std: 0.1
    }
    bias_filler {
      type: "constant"
      value: 0.2
    }
  }
}
layer {
  name: "conv2/relu_3x3_reduce"
  type: "ReLU"
  bottom: "conv2/3x3_reduce"
  top: "conv2/3x3_reduce"
}
layer {
  name: "conv2/3x3"
  type: "Convolution"
  bottom: "conv2/3x3_reduce"
  top: "conv2/3x3"
  param {
    lr_mult: 1
    decay_mult: 1
  }
  param {
    lr_mult: 2
    decay_mult: 0
  }
  convolution_param {
    num_output: 192
    pad: 1
    kernel_size: 3
    weight_filler {
      type: "xavier"
      std: 0.03
    }
    bias_filler {
      type: "constant"
      value: 0.2
    }
  }
}
layer {
  name: "conv2/relu_3x3"
  type: "ReLU"
  bottom: "conv2/3x3"
  top: "conv2/3x3"
}
layer {
  name: "conv2/norm2"
  type: "LRN"
  bottom: "conv2/3x3"
  top: "conv2/norm2"
  lrn_param {
    local_size: 5
    alpha: 0.0001
    beta: 0.75
  }
}
layer {
  name: "pool2/3x3_s2"
  type: "Pooling"
  bottom: "conv2/norm2"
  top: "pool2/3x3_s2"
  pooling_param {
    pool: MAX
    kernel_size: 3
    stride: 2
  }
}
layer {
  name: "inception_3a/1x1"
  type: "Convolution"
  bottom: "pool2/3x3_s2"
  top: "inception_3a/1x1"
  param {
    lr_mult: 1
    decay_mult: 1
  }
  param {
    lr_mult: 2
    decay_mult: 0
  }
  convolution_param {
    num_output: 64
    kernel_size: 1
    weight_filler {
      type: "xavier"
      std: 0.03
    }
    bias_filler {
      type: "constant"
      value: 0.2
    }
  }
}
layer {
  name: "inception_3a/relu_1x1"
  type: "ReLU"
  bottom: "inception_3a/1x1"
  top: "inception_3a/1x1"
}
layer {
  name: "inception_3a/3x3_reduce"
  type: "Convolution"
  bottom: "pool2/3x3_s2"
  top: "inception_3a/3x3_reduce"
  param {
    lr_mult: 1
    decay_mult: 1
  }
  param {
    lr_mult: 2
    decay_mult: 0
  }
  convolution_param {
    num_output: 96
    kernel_size: 1
    weight_filler {
      type: "xavier"
      std: 0.09
    }
    bias_filler {
      type: "constant"
      value: 0.2
    }
  }
}
layer {
  name: "inception_3a/relu_3x3_reduce"
  type: "ReLU"
  bottom: "inception_3a/3x3_reduce"
  top: "inception_3a/3x3_reduce"
}
layer {
  name: "inception_3a/3x3"
  type: "Convolution"
  bottom: "inception_3a/3x3_reduce"
  top: "inception_3a/3x3"
  param {
    lr_mult: 1
    decay_mult: 1
  }
  param {
    lr_mult: 2
    decay_mult: 0
  }
  convolution_param {
    num_output: 128
    pad: 1
    kernel_size: 3
    weight_filler {
      type: "xavier"
      std: 0.03
    }
    bias_filler {
      type: "constant"
      value: 0.2
    }
  }
}
layer {
  name: "inception_3a/relu_3x3"
  type: "ReLU"
  bottom: "inception_3a/3x3"
  top: "inception_3a/3x3"
}
layer {
  name: "inception_3a/5x5_reduce"
  type: "Convolution"
  bottom: "pool2/3x3_s2"
  top: "inception_3a/5x5_reduce"
  param {
    lr_mult: 1
    decay_mult: 1
  }
  param {
    lr_mult: 2
    decay_mult: 0
  }
  convolution_param {
    num_output: 16
    kernel_size: 1
    weight_filler {
      type: "xavier"
      std: 0.2
    }
    bias_filler {
      type: "constant"
      value: 0.2
    }
  }
}
layer {
  name: "inception_3a/relu_5x5_reduce"
  type: "ReLU"
  bottom: "inception_3a/5x5_reduce"
  top: "inception_3a/5x5_reduce"
}
layer {
  name: "inception_3a/5x5"
  type: "Convolution"
  bottom: "inception_3a/5x5_reduce"
  top: "inception_3a/5x5"
  param {
    lr_mult: 1
    decay_mult: 1
  }
  param {
    lr_mult: 2
    decay_mult: 0
  }
  convolution_param {
    num_output: 32
    pad: 2
    kernel_size: 5
    weight_filler {
      type: "xavier"
      std: 0.03
    }
    bias_filler {
      type: "constant"
      value: 0.2
    }
  }
}
layer {
  name: "inception_3a/relu_5x5"
  type: "ReLU"
  bottom: "inception_3a/5x5"
  top: "inception_3a/5x5"
}
layer {
  name: "inception_3a/pool"
  type: "Pooling"
  bottom: "pool2/3x3_s2"
  top: "inception_3a/pool"
  pooling_param {
    pool: MAX
    kernel_size: 3
    stride: 1
    pad: 1
  }
}
layer {
  name: "inception_3a/pool_proj"
  type: "Convolution"
  bottom: "inception_3a/pool"
  top: "inception_3a/pool_proj"
  param {
    lr_mult: 1
    decay_mult: 1
  }
  param {
    lr_mult: 2
    decay_mult: 0
  }
  convolution_param {
    num_output: 32
    kernel_size: 1
    weight_filler {
      type: "xavier"
      std: 0.1
    }
    bias_filler {
      type: "constant"
      value: 0.2
    }
  }
}
layer {
  name: "inception_3a/relu_pool_proj"
  type: "ReLU"
  bottom: "inception_3a/pool_proj"
  top: "inception_3a/pool_proj"
}
layer {
  name: "inception_3a/output"
  type: "Concat"
  bottom: "inception_3a/1x1"
  bottom: "inception_3a/3x3"
  bottom: "inception_3a/5x5"
  bottom: "inception_3a/pool_proj"
  top: "inception_3a/output"
}
layer {
  name: "inception_3b/1x1"
  type: "Convolution"
  bottom: "inception_3a/output"
  top: "inception_3b/1x1"
  param {
    lr_mult: 1
    decay_mult: 1
  }
  param {
    lr_mult: 2
    decay_mult: 0
  }
  convolution_param {
    num_output: 128
    kernel_size: 1
    weight_filler {
      type: "xavier"
      std: 0.03
    }
    bias_filler {
      type: "constant"
      value: 0.2
    }
  }
}
layer {
  name: "inception_3b/relu_1x1"
  type: "ReLU"
  bottom: "inception_3b/1x1"
  top: "inception_3b/1x1"
}
layer {
  name: "inception_3b/3x3_reduce"
  type: "Convolution"
  bottom: "inception_3a/output"
  top: "inception_3b/3x3_reduce"
  param {
    lr_mult: 1
    decay_mult: 1
  }
  param {
    lr_mult: 2
    decay_mult: 0
  }
  convolution_param {
    num_output: 128
    kernel_size: 1
    weight_filler {
      type: "xavier"
      std: 0.09
    }
    bias_filler {
      type: "constant"
      value: 0.2
    }
  }
}
layer {
  name: "inception_3b/relu_3x3_reduce"
  type: "ReLU"
  bottom: "inception_3b/3x3_reduce"
  top: "inception_3b/3x3_reduce"
}
layer {
  name: "inception_3b/3x3"
  type: "Convolution"
  bottom: "inception_3b/3x3_reduce"
  top: "inception_3b/3x3"
  param {
    lr_mult: 1
    decay_mult: 1
  }
  param {
    lr_mult: 2
    decay_mult: 0
  }
  convolution_param {
    num_output: 192
    pad: 1
    kernel_size: 3
    weight_filler {
      type: "xavier"
      std: 0.03
    }
    bias_filler {
      type: "constant"
      value: 0.2
    }
  }
}
layer {
  name: "inception_3b/relu_3x3"
  type: "ReLU"
  bottom: "inception_3b/3x3"
  top: "inception_3b/3x3"
}
layer {
  name: "inception_3b/5x5_reduce"
  type: "Convolution"
  bottom: "inception_3a/output"
  top: "inception_3b/5x5_reduce"
  param {
    lr_mult: 1
    decay_mult: 1
  }
  param {
    lr_mult: 2
    decay_mult: 0
  }
  convolution_param {
    num_output: 32
    kernel_size: 1
    weight_filler {
      type: "xavier"
      std: 0.2
    }
    bias_filler {
      type: "constant"
      value: 0.2
    }
  }
}
layer {
  name: "inception_3b/relu_5x5_reduce"
  type: "ReLU"
  bottom: "inception_3b/5x5_reduce"
  top: "inception_3b/5x5_reduce"
}
layer {
  name: "inception_3b/5x5"
  type: "Convolution"
  bottom: "inception_3b/5x5_reduce"
  top: "inception_3b/5x5"
  param {
    lr_mult: 1
    decay_mult: 1
  }
  param {
    lr_mult: 2
    decay_mult: 0
  }
  convolution_param {
    num_output: 96
    pad: 2
    kernel_size: 5
    weight_filler {
      type: "xavier"
      std: 0.03
    }
    bias_filler {
      type: "constant"
      value: 0.2
    }
  }
}
layer {
  name: "inception_3b/relu_5x5"
  type: "ReLU"
  bottom: "inception_3b/5x5"
  top: "inception_3b/5x5"
}
layer {
  name: "inception_3b/pool"
  type: "Pooling"
  bottom: "inception_3a/output"
  top: "inception_3b/pool"
  pooling_param {
    pool: MAX
    kernel_size: 3
    stride: 1
    pad: 1
  }
}
layer {
  name: "inception_3b/pool_proj"
  type: "Convolution"
  bottom: "inception_3b/pool"
  top: "inception_3b/pool_proj"
  param {
    lr_mult: 1
    decay_mult: 1
  }
  param {
    lr_mult: 2
    decay_mult: 0
  }
  convolution_param {
    num_output: 64
    kernel_size: 1
    weight_filler {
      type: "xavier"
      std: 0.1
    }
    bias_filler {
      type: "constant"
      value: 0.2
    }
  }
}
layer {
  name: "inception_3b/relu_pool_proj"
  type: "ReLU"
  bottom: "inception_3b/pool_proj"
  top: "inception_3b/pool_proj"
}
layer {
  name: "inception_3b/output"
  type: "Concat"
  bottom: "inception_3b/1x1"
  bottom: "inception_3b/3x3"
  bottom: "inception_3b/5x5"
  bottom: "inception_3b/pool_proj"
  top: "inception_3b/output"
}
layer {
  name: "pool3/3x3_s2"
  type: "Pooling"
  bottom: "inception_3b/output"
  top: "pool3/3x3_s2"
  pooling_param {
    pool: MAX
    kernel_size: 3
    stride: 2
  }
}
layer {
  name: "inception_4a/1x1"
  type: "Convolution"
  bottom: "pool3/3x3_s2"
  top: "inception_4a/1x1"
  param {
    lr_mult: 1
    decay_mult: 1
  }
  param {
    lr_mult: 2
    decay_mult: 0
  }
  convolution_param {
    num_output: 192
    kernel_size: 1
    weight_filler {
      type: "xavier"
      std: 0.03
    }
    bias_filler {
      type: "constant"
      value: 0.2
    }
  }
}
layer {
  name: "inception_4a/relu_1x1"
  type: "ReLU"
  bottom: "inception_4a/1x1"
  top: "inception_4a/1x1"
}
layer {
  name: "inception_4a/3x3_reduce"
  type: "Convolution"
  bottom: "pool3/3x3_s2"
  top: "inception_4a/3x3_reduce"
  param {
    lr_mult: 1
    decay_mult: 1
  }
  param {
    lr_mult: 2
    decay_mult: 0
  }
  convolution_param {
    num_output: 96
    kernel_size: 1
    weight_filler {
      type: "xavier"
      std: 0.09
    }
    bias_filler {
      type: "constant"
      value: 0.2
    }
  }
}
layer {
  name: "inception_4a/relu_3x3_reduce"
  type: "ReLU"
  bottom: "inception_4a/3x3_reduce"
  top: "inception_4a/3x3_reduce"
}
layer {
  name: "inception_4a/3x3"
  type: "Convolution"
  bottom: "inception_4a/3x3_reduce"
  top: "inception_4a/3x3"
  param {
    lr_mult: 1
    decay_mult: 1
  }
  param {
    lr_mult: 2
    decay_mult: 0
  }
  convolution_param {
    num_output: 208
    pad: 1
    kernel_size: 3
    weight_filler {
      type: "xavier"
      std: 0.03
    }
    bias_filler {
      type: "constant"
      value: 0.2
    }
  }
}
layer {
  name: "inception_4a/relu_3x3"
  type: "ReLU"
  bottom: "inception_4a/3x3"
  top: "inception_4a/3x3"
}
layer {
  name: "inception_4a/5x5_reduce"
  type: "Convolution"
  bottom: "pool3/3x3_s2"
  top: "inception_4a/5x5_reduce"
  param {
    lr_mult: 1
    decay_mult: 1
  }
  param {
    lr_mult: 2
    decay_mult: 0
  }
  convolution_param {
    num_output: 16
    kernel_size: 1
    weight_filler {
      type: "xavier"
      std: 0.2
    }
    bias_filler {
      type: "constant"
      value: 0.2
    }
  }
}
layer {
  name: "inception_4a/relu_5x5_reduce"
  type: "ReLU"
  bottom: "inception_4a/5x5_reduce"
  top: "inception_4a/5x5_reduce"
}
layer {
  name: "inception_4a/5x5"
  type: "Convolution"
  bottom: "inception_4a/5x5_reduce"
  top: "inception_4a/5x5"
  param {
    lr_mult: 1
    decay_mult: 1
  }
  param {
    lr_mult: 2
    decay_mult: 0
  }
  convolution_param {
    num_output: 48
    pad: 2
    kernel_size: 5
    weight_filler {
      type: "xavier"
      std: 0.03
    }
    bias_filler {
      type: "constant"
      value: 0.2
    }
  }
}
layer {
  name: "inception_4a/relu_5x5"
  type: "ReLU"
  bottom: "inception_4a/5x5"
  top: "inception_4a/5x5"
}
layer {
  name: "inception_4a/pool"
  type: "Pooling"
  bottom: "pool3/3x3_s2"
  top: "inception_4a/pool"
  pooling_param {
    pool: MAX
    kernel_size: 3
    stride: 1
    pad: 1
  }
}
layer {
  name: "inception_4a/pool_proj"
  type: "Convolution"
  bottom: "inception_4a/pool"
  top: "inception_4a/pool_proj"
  param {
    lr_mult: 1
    decay_mult: 1
  }
  param {
    lr_mult: 2
    decay_mult: 0
  }
  convolution_param {
    num_output: 64
    kernel_size: 1
    weight_filler {
      type: "xavier"
      std: 0.1
    }
    bias_filler {
      type: "constant"
      value: 0.2
    }
  }
}
layer {
  name: "inception_4a/relu_pool_proj"
  type: "ReLU"
  bottom: "inception_4a/pool_proj"
  top: "inception_4a/pool_proj"
}
layer {
  name: "inception_4a/output"
  type: "Concat"
  bottom: "inception_4a/1x1"
  bottom: "inception_4a/3x3"
  bottom: "inception_4a/5x5"
  bottom: "inception_4a/pool_proj"
  top: "inception_4a/output"
}
layer {
  name: "loss1/ave_pool"
  type: "Pooling"
  bottom: "inception_4a/output"
  top: "loss1/ave_pool"
  pooling_param {
    pool: AVE
    kernel_size: 5
    stride: 3
  }
}
layer {
  name: "loss1/conv"
  type: "Convolution"
  bottom: "loss1/ave_pool"
  top: "loss1/conv"
  param {
    lr_mult: 1
    decay_mult: 1
  }
  param {
    lr_mult: 2
    decay_mult: 0
  }
  convolution_param {
    num_output: 128
    kernel_size: 1
    weight_filler {
      type: "xavier"
      std: 0.08
    }
    bias_filler {
      type: "constant"
      value: 0.2
    }
  }
}
layer {
  name: "loss1/relu_conv"
  type: "ReLU"
  bottom: "loss1/conv"
  top: "loss1/conv"
}
layer {
  name: "loss1/fc"
  type: "InnerProduct"
  bottom: "loss1/conv"
  top: "loss1/fc"
  param {
    lr_mult: 1
    decay_mult: 1
  }
  param {
    lr_mult: 2
    decay_mult: 0
  }
  inner_product_param {
    num_output: 1024
    weight_filler {
      type: "xavier"
      std: 0.02
    }
    bias_filler {
      type: "constant"
      value: 0.2
    }
  }
}
layer {
  name: "loss1/relu_fc"
  type: "ReLU"
  bottom: "loss1/fc"
  top: "loss1/fc"
}
layer {
  name: "loss1/drop_fc"
  type: "Dropout"
  bottom: "loss1/fc"
  top: "loss1/fc"
  dropout_param {
    dropout_ratio: 0.7
  }
}
layer {
  name: "loss1/classifier_plantvillage"
  type: "InnerProduct"
  bottom: "loss1/fc"
  top: "loss1/classifier_plantvillage"
  param {
    lr_mult: 1
    decay_mult: 1
  }
  param {
    lr_mult: 2
    decay_mult: 0
  }
  inner_product_param {
    num_output: 38
    weight_filler {
      type: "xavier"
      std: 0.0009765625
    }
    bias_filler {
      type: "constant"
      value: 0
    }
  }
}
layer {
  name: "inception_4b/1x1"
  type: "Convolution"
  bottom: "inception_4a/output"
  top: "inception_4b/1x1"
  param {
    lr_mult: 1
    decay_mult: 1
  }
  param {
    lr_mult: 2
    decay_mult: 0
  }
  convolution_param {
    num_output: 160
    kernel_size: 1
    weight_filler {
      type: "xavier"
      std: 0.03
    }
    bias_filler {
      type: "constant"
      value: 0.2
    }
  }
}
layer {
  name: "inception_4b/relu_1x1"
  type: "ReLU"
  bottom: "inception_4b/1x1"
  top: "inception_4b/1x1"
}
layer {
  name: "inception_4b/3x3_reduce"
  type: "Convolution"
  bottom: "inception_4a/output"
  top: "inception_4b/3x3_reduce"
  param {
    lr_mult: 1
    decay_mult: 1
  }
  param {
    lr_mult: 2
    decay_mult: 0
  }
  convolution_param {
    num_output: 112
    kernel_size: 1
    weight_filler {
      type: "xavier"
      std: 0.09
    }
    bias_filler {
      type: "constant"
      value: 0.2
    }
  }
}
layer {
  name: "inception_4b/relu_3x3_reduce"
  type: "ReLU"
  bottom: "inception_4b/3x3_reduce"
  top: "inception_4b/3x3_reduce"
}
layer {
  name: "inception_4b/3x3"
  type: "Convolution"
  bottom: "inception_4b/3x3_reduce"
  top: "inception_4b/3x3"
  param {
    lr_mult: 1
    decay_mult: 1
  }
  param {
    lr_mult: 2
    decay_mult: 0
  }
  convolution_param {
    num_output: 224
    pad: 1
    kernel_size: 3
    weight_filler {
      type: "xavier"
      std: 0.03
    }
    bias_filler {
      type: "constant"
      value: 0.2
    }
  }
}
layer {
  name: "inception_4b/relu_3x3"
  type: "ReLU"
  bottom: "inception_4b/3x3"
  top: "inception_4b/3x3"
}
layer {
  name: "inception_4b/5x5_reduce"
  type: "Convolution"
  bottom: "inception_4a/output"
  top: "inception_4b/5x5_reduce"
  param {
    lr_mult: 1
    decay_mult: 1
  }
  param {
    lr_mult: 2
    decay_mult: 0
  }
  convolution_param {
    num_output: 24
    kernel_size: 1
    weight_filler {
      type: "xavier"
      std: 0.2
    }
    bias_filler {
      type: "constant"
      value: 0.2
    }
  }
}
layer {
  name: "inception_4b/relu_5x5_reduce"
  type: "ReLU"
  bottom: "inception_4b/5x5_reduce"
  top: "inception_4b/5x5_reduce"
}
layer {
  name: "inception_4b/5x5"
  type: "Convolution"
  bottom: "inception_4b/5x5_reduce"
  top: "inception_4b/5x5"
  param {
    lr_mult: 1
    decay_mult: 1
  }
  param {
    lr_mult: 2
    decay_mult: 0
  }
  convolution_param {
    num_output: 64
    pad: 2
    kernel_size: 5
    weight_filler {
      type: "xavier"
      std: 0.03
    }
    bias_filler {
      type: "constant"
      value: 0.2
    }
  }
}
layer {
  name: "inception_4b/relu_5x5"
  type: "ReLU"
  bottom: "inception_4b/5x5"
  top: "inception_4b/5x5"
}
layer {
  name: "inception_4b/pool"
  type: "Pooling"
  bottom: "inception_4a/output"
  top: "inception_4b/pool"
  pooling_param {
    pool: MAX
    kernel_size: 3
    stride: 1
    pad: 1
  }
}
layer {
  name: "inception_4b/pool_proj"
  type: "Convolution"
  bottom: "inception_4b/pool"
  top: "inception_4b/pool_proj"
  param {
    lr_mult: 1
    decay_mult: 1
  }
  param {
    lr_mult: 2
    decay_mult: 0
  }
  convolution_param {
    num_output: 64
    kernel_size: 1
    weight_filler {
      type: "xavier"
      std: 0.1
    }
    bias_filler {
      type: "constant"
      value: 0.2
    }
  }
}
layer {
  name: "inception_4b/relu_pool_proj"
  type: "ReLU"
  bottom: "inception_4b/pool_proj"
  top: "inception_4b/pool_proj"
}
layer {
  name: "inception_4b/output"
  type: "Concat"
  bottom: "inception_4b/1x1"
  bottom: "inception_4b/3x3"
  bottom: "inception_4b/5x5"
  bottom: "inception_4b/pool_proj"
  top: "inception_4b/output"
}
layer {
  name: "inception_4c/1x1"
  type: "Convolution"
  bottom: "inception_4b/output"
  top: "inception_4c/1x1"
  param {
    lr_mult: 1
    decay_mult: 1
  }
  param {
    lr_mult: 2
    decay_mult: 0
  }
  convolution_param {
    num_output: 128
    kernel_size: 1
    weight_filler {
      type: "xavier"
      std: 0.03
    }
    bias_filler {
      type: "constant"
      value: 0.2
    }
  }
}
layer {
  name: "inception_4c/relu_1x1"
  type: "ReLU"
  bottom: "inception_4c/1x1"
  top: "inception_4c/1x1"
}
layer {
  name: "inception_4c/3x3_reduce"
  type: "Convolution"
  bottom: "inception_4b/output"
  top: "inception_4c/3x3_reduce"
  param {
    lr_mult: 1
    decay_mult: 1
  }
  param {
    lr_mult: 2
    decay_mult: 0
  }
  convolution_param {
    num_output: 128
    kernel_size: 1
    weight_filler {
      type: "xavier"
      std: 0.09
    }
    bias_filler {
      type: "constant"
      value: 0.2
    }
  }
}
layer {
  name: "inception_4c/relu_3x3_reduce"
  type: "ReLU"
  bottom: "inception_4c/3x3_reduce"
  top: "inception_4c/3x3_reduce"
}
layer {
  name: "inception_4c/3x3"
  type: "Convolution"
  bottom: "inception_4c/3x3_reduce"
  top: "inception_4c/3x3"
  param {
    lr_mult: 1
    decay_mult: 1
  }
  param {
    lr_mult: 2
    decay_mult: 0
  }
  convolution_param {
    num_output: 256
    pad: 1
    kernel_size: 3
    weight_filler {
      type: "xavier"
      std: 0.03
    }
    bias_filler {
      type: "constant"
      value: 0.2
    }
  }
}
layer {
  name: "inception_4c/relu_3x3"
  type: "ReLU"
  bottom: "inception_4c/3x3"
  top: "inception_4c/3x3"
}
layer {
  name: "inception_4c/5x5_reduce"
  type: "Convolution"
  bottom: "inception_4b/output"
  top: "inception_4c/5x5_reduce"
  param {
    lr_mult: 1
    decay_mult: 1
  }
  param {
    lr_mult: 2
    decay_mult: 0
  }
  convolution_param {
    num_output: 24
    kernel_size: 1
    weight_filler {
      type: "xavier"
      std: 0.2
    }
    bias_filler {
      type: "constant"
      value: 0.2
    }
  }
}
layer {
  name: "inception_4c/relu_5x5_reduce"
  type: "ReLU"
  bottom: "inception_4c/5x5_reduce"
  top: "inception_4c/5x5_reduce"
}
layer {
  name: "inception_4c/5x5"
  type: "Convolution"
  bottom: "inception_4c/5x5_reduce"
  top: "inception_4c/5x5"
  param {
    lr_mult: 1
    decay_mult: 1
  }
  param {
    lr_mult: 2
    decay_mult: 0
  }
  convolution_param {
    num_output: 64
    pad: 2
    kernel_size: 5
    weight_filler {
      type: "xavier"
      std: 0.03
    }
    bias_filler {
      type: "constant"
      value: 0.2
    }
  }
}
layer {
  name: "inception_4c/relu_5x5"
  type: "ReLU"
  bottom: "inception_4c/5x5"
  top: "inception_4c/5x5"
}
layer {
  name: "inception_4c/pool"
  type: "Pooling"
  bottom: "inception_4b/output"
  top: "inception_4c/pool"
  pooling_param {
    pool: MAX
    kernel_size: 3
    stride: 1
    pad: 1
  }
}
layer {
  name: "inception_4c/pool_proj"
  type: "Convolution"
  bottom: "inception_4c/pool"
  top: "inception_4c/pool_proj"
  param {
    lr_mult: 1
    decay_mult: 1
  }
  param {
    lr_mult: 2
    decay_mult: 0
  }
  convolution_param {
    num_output: 64
    kernel_size: 1
    weight_filler {
      type: "xavier"
      std: 0.1
    }
    bias_filler {
      type: "constant"
      value: 0.2
    }
  }
}
layer {
  name: "inception_4c/relu_pool_proj"
  type: "ReLU"
  bottom: "inception_4c/pool_proj"
  top: "inception_4c/pool_proj"
}
layer {
  name: "inception_4c/output"
  type: "Concat"
  bottom: "inception_4c/1x1"
  bottom: "inception_4c/3x3"
  bottom: "inception_4c/5x5"
  bottom: "inception_4c/pool_proj"
  top: "inception_4c/output"
}
layer {
  name: "inception_4d/1x1"
  type: "Convolution"
  bottom: "inception_4c/output"
  top: "inception_4d/1x1"
  param {
    lr_mult: 1
    decay_mult: 1
  }
  param {
    lr_mult: 2
    decay_mult: 0
  }
  convolution_param {
    num_output: 112
    kernel_size: 1
    weight_filler {
      type: "xavier"
      std: 0.03
    }
    bias_filler {
      type: "constant"
      value: 0.2
    }
  }
}
layer {
  name: "inception_4d/relu_1x1"
  type: "ReLU"
  bottom: "inception_4d/1x1"
  top: "inception_4d/1x1"
}
layer {
  name: "inception_4d/3x3_reduce"
  type: "Convolution"
  bottom: "inception_4c/output"
  top: "inception_4d/3x3_reduce"
  param {
    lr_mult: 1
    decay_mult: 1
  }
  param {
    lr_mult: 2
    decay_mult: 0
  }
  convolution_param {
    num_output: 144
    kernel_size: 1
    weight_filler {
      type: "xavier"
      std: 0.09
    }
    bias_filler {
      type: "constant"
      value: 0.2
    }
  }
}
layer {
  name: "inception_4d/relu_3x3_reduce"
  type: "ReLU"
  bottom: "inception_4d/3x3_reduce"
  top: "inception_4d/3x3_reduce"
}
layer {
  name: "inception_4d/3x3"
  type: "Convolution"
  bottom: "inception_4d/3x3_reduce"
  top: "inception_4d/3x3"
  param {
    lr_mult: 1
    decay_mult: 1
  }
  param {
    lr_mult: 2
    decay_mult: 0
  }
  convolution_param {
    num_output: 288
    pad: 1
    kernel_size: 3
    weight_filler {
      type: "xavier"
      std: 0.03
    }
    bias_filler {
      type: "constant"
      value: 0.2
    }
  }
}
layer {
  name: "inception_4d/relu_3x3"
  type: "ReLU"
  bottom: "inception_4d/3x3"
  top: "inception_4d/3x3"
}
layer {
  name: "inception_4d/5x5_reduce"
  type: "Convolution"
  bottom: "inception_4c/output"
  top: "inception_4d/5x5_reduce"
  param {
    lr_mult: 1
    decay_mult: 1
  }
  param {
    lr_mult: 2
    decay_mult: 0
  }
  convolution_param {
    num_output: 32
    kernel_size: 1
    weight_filler {
      type: "xavier"
      std: 0.2
    }
    bias_filler {
      type: "constant"
      value: 0.2
    }
  }
}
layer {
  name: "inception_4d/relu_5x5_reduce"
  type: "ReLU"
  bottom: "inception_4d/5x5_reduce"
  top: "inception_4d/5x5_reduce"
}
layer {
  name: "inception_4d/5x5"
  type: "Convolution"
  bottom: "inception_4d/5x5_reduce"
  top: "inception_4d/5x5"
  param {
    lr_mult: 1
    decay_mult: 1
  }
  param {
    lr_mult: 2
    decay_mult: 0
  }
  convolution_param {
    num_output: 64
    pad: 2
    kernel_size: 5
    weight_filler {
      type: "xavier"
      std: 0.03
    }
    bias_filler {
      type: "constant"
      value: 0.2
    }
  }
}
layer {
  name: "inception_4d/relu_5x5"
  type: "ReLU"
  bottom: "inception_4d/5x5"
  top: "inception_4d/5x5"
}
layer {
  name: "inception_4d/pool"
  type: "Pooling"
  bottom: "inception_4c/output"
  top: "inception_4d/pool"
  pooling_param {
    pool: MAX
    kernel_size: 3
    stride: 1
    pad: 1
  }
}
layer {
  name: "inception_4d/pool_proj"
  type: "Convolution"
  bottom: "inception_4d/pool"
  top: "inception_4d/pool_proj"
  param {
    lr_mult: 1
    decay_mult: 1
  }
  param {
    lr_mult: 2
    decay_mult: 0
  }
  convolution_param {
    num_output: 64
    kernel_size: 1
    weight_filler {
      type: "xavier"
      std: 0.1
    }
    bias_filler {
      type: "constant"
      value: 0.2
    }
  }
}
layer {
  name: "inception_4d/relu_pool_proj"
  type: "ReLU"
  bottom: "inception_4d/pool_proj"
  top: "inception_4d/pool_proj"
}
layer {
  name: "inception_4d/output"
  type: "Concat"
  bottom: "inception_4d/1x1"
  bottom: "inception_4d/3x3"
  bottom: "inception_4d/5x5"
  bottom: "inception_4d/pool_proj"
  top: "inception_4d/output"
}
layer {
  name: "loss2/ave_pool"
  type: "Pooling"
  bottom: "inception_4d/output"
  top: "loss2/ave_pool"
  pooling_param {
    pool: AVE
    kernel_size: 5
    stride: 3
  }
}
layer {
  name: "loss2/conv"
  type: "Convolution"
  bottom: "loss2/ave_pool"
  top: "loss2/conv"
  param {
    lr_mult: 1
    decay_mult: 1
  }
  param {
    lr_mult: 2
    decay_mult: 0
  }
  convolution_param {
    num_output: 128
    kernel_size: 1
    weight_filler {
      type: "xavier"
      std: 0.08
    }
    bias_filler {
      type: "constant"
      value: 0.2
    }
  }
}
layer {
  name: "loss2/relu_conv"
  type: "ReLU"
  bottom: "loss2/conv"
  top: "loss2/conv"
}
layer {
  name: "loss2/fc"
  type: "InnerProduct"
  bottom: "loss2/conv"
  top: "loss2/fc"
  param {
    lr_mult: 1
    decay_mult: 1
  }
  param {
    lr_mult: 2
    decay_mult: 0
  }
  inner_product_param {
    num_output: 1024
    weight_filler {
      type: "xavier"
      std: 0.02
    }
    bias_filler {
      type: "constant"
      value: 0.2
    }
  }
}
layer {
  name: "loss2/relu_fc"
  type: "ReLU"
  bottom: "loss2/fc"
  top: "loss2/fc"
}
layer {
  name: "loss2/drop_fc"
  type: "Dropout"
  bottom: "loss2/fc"
  top: "loss2/fc"
  dropout_param {
    dropout_ratio: 0.7
  }
}
layer {
  name: "loss2/classifier_plantvillage"
  type: "InnerProduct"
  bottom: "loss2/fc"
  top: "loss2/classifier_plantvillage"
  param {
    lr_mult: 1
    decay_mult: 1
  }
  param {
    lr_mult: 2
    decay_mult: 0
  }
  inner_product_param {
    num_output: 38
    weight_filler {
      type: "xavier"
      std: 0.0009765625
    }
    bias_filler {
      type: "constant"
      value: 0
    }
  }
}
layer {
  name: "inception_4e/1x1"
  type: "Convolution"
  bottom: "inception_4d/output"
  top: "inception_4e/1x1"
  param {
    lr_mult: 1
    decay_mult: 1
  }
  param {
    lr_mult: 2
    decay_mult: 0
  }
  convolution_param {
    num_output: 256
    kernel_size: 1
    weight_filler {
      type: "xavier"
      std: 0.03
    }
    bias_filler {
      type: "constant"
      value: 0.2
    }
  }
}
layer {
  name: "inception_4e/relu_1x1"
  type: "ReLU"
  bottom: "inception_4e/1x1"
  top: "inception_4e/1x1"
}
layer {
  name: "inception_4e/3x3_reduce"
  type: "Convolution"
  bottom: "inception_4d/output"
  top: "inception_4e/3x3_reduce"
  param {
    lr_mult: 1
    decay_mult: 1
  }
  param {
    lr_mult: 2
    decay_mult: 0
  }
  convolution_param {
    num_output: 160
    kernel_size: 1
    weight_filler {
      type: "xavier"
      std: 0.09
    }
    bias_filler {
      type: "constant"
      value: 0.2
    }
  }
}
layer {
  name: "inception_4e/relu_3x3_reduce"
  type: "ReLU"
  bottom: "inception_4e/3x3_reduce"
  top: "inception_4e/3x3_reduce"
}
layer {
  name: "inception_4e/3x3"
  type: "Convolution"
  bottom: "inception_4e/3x3_reduce"
  top: "inception_4e/3x3"
  param {
    lr_mult: 1
    decay_mult: 1
  }
  param {
    lr_mult: 2
    decay_mult: 0
  }
  convolution_param {
    num_output: 320
    pad: 1
    kernel_size: 3
    weight_filler {
      type: "xavier"
      std: 0.03
    }
    bias_filler {
      type: "constant"
      value: 0.2
    }
  }
}
layer {
  name: "inception_4e/relu_3x3"
  type: "ReLU"
  bottom: "inception_4e/3x3"
  top: "inception_4e/3x3"
}
layer {
  name: "inception_4e/5x5_reduce"
  type: "Convolution"
  bottom: "inception_4d/output"
  top: "inception_4e/5x5_reduce"
  param {
    lr_mult: 1
    decay_mult: 1
  }
  param {
    lr_mult: 2
    decay_mult: 0
  }
  convolution_param {
    num_output: 32
    kernel_size: 1
    weight_filler {
      type: "xavier"
      std: 0.2
    }
    bias_filler {
      type: "constant"
      value: 0.2
    }
  }
}
layer {
  name: "inception_4e/relu_5x5_reduce"
  type: "ReLU"
  bottom: "inception_4e/5x5_reduce"
  top: "inception_4e/5x5_reduce"
}
layer {
  name: "inception_4e/5x5"
  type: "Convolution"
  bottom: "inception_4e/5x5_reduce"
  top: "inception_4e/5x5"
  p
I0403 15:02:59.078786 30947 layer_factory.hpp:77] Creating layer data
I0403 15:02:59.079406 30947 net.cpp:91] Creating Layer data
I0403 15:02:59.079438 30947 net.cpp:399] data -> data
I0403 15:02:59.079491 30947 net.cpp:399] data -> label
I0403 15:02:59.079530 30947 data_transformer.cpp:25] Loading mean file from: /home/mohanty/data/final_dataset/lmdb/color-20-80/mean.binaryproto
I0403 15:02:59.082130 30952 db_lmdb.cpp:38] Opened lmdb /home/mohanty/data/final_dataset/lmdb/color-20-80/test_db
I0403 15:02:59.093011 30947 data_layer.cpp:41] output data size: 24,3,224,224
I0403 15:02:59.122426 30947 net.cpp:141] Setting up data
I0403 15:02:59.122517 30947 net.cpp:148] Top shape: 24 3 224 224 (3612672)
I0403 15:02:59.122542 30947 net.cpp:148] Top shape: 24 (24)
I0403 15:02:59.122558 30947 net.cpp:156] Memory required for data: 14450784
I0403 15:02:59.122587 30947 layer_factory.hpp:77] Creating layer label_data_1_split
I0403 15:02:59.122617 30947 net.cpp:91] Creating Layer label_data_1_split
I0403 15:02:59.122638 30947 net.cpp:425] label_data_1_split <- label
I0403 15:02:59.122670 30947 net.cpp:399] label_data_1_split -> label_data_1_split_0
I0403 15:02:59.122700 30947 net.cpp:399] label_data_1_split -> label_data_1_split_1
I0403 15:02:59.122723 30947 net.cpp:399] label_data_1_split -> label_data_1_split_2
I0403 15:02:59.122745 30947 net.cpp:399] label_data_1_split -> label_data_1_split_3
I0403 15:02:59.122766 30947 net.cpp:399] label_data_1_split -> label_data_1_split_4
I0403 15:02:59.122788 30947 net.cpp:399] label_data_1_split -> label_data_1_split_5
I0403 15:02:59.122810 30947 net.cpp:399] label_data_1_split -> label_data_1_split_6
I0403 15:02:59.122833 30947 net.cpp:399] label_data_1_split -> label_data_1_split_7
I0403 15:02:59.122853 30947 net.cpp:399] label_data_1_split -> label_data_1_split_8
I0403 15:02:59.122874 30947 net.cpp:399] label_data_1_split -> label_data_1_split_9
I0403 15:02:59.122998 30947 net.cpp:141] Setting up label_data_1_split
I0403 15:02:59.123024 30947 net.cpp:148] Top shape: 24 (24)
I0403 15:02:59.123042 30947 net.cpp:148] Top shape: 24 (24)
I0403 15:02:59.123059 30947 net.cpp:148] Top shape: 24 (24)
I0403 15:02:59.123075 30947 net.cpp:148] Top shape: 24 (24)
I0403 15:02:59.123092 30947 net.cpp:148] Top shape: 24 (24)
I0403 15:02:59.123108 30947 net.cpp:148] Top shape: 24 (24)
I0403 15:02:59.123126 30947 net.cpp:148] Top shape: 24 (24)
I0403 15:02:59.123142 30947 net.cpp:148] Top shape: 24 (24)
I0403 15:02:59.123158 30947 net.cpp:148] Top shape: 24 (24)
I0403 15:02:59.123175 30947 net.cpp:148] Top shape: 24 (24)
I0403 15:02:59.123222 30947 net.cpp:156] Memory required for data: 14451744
I0403 15:02:59.123239 30947 layer_factory.hpp:77] Creating layer conv1/7x7_s2
I0403 15:02:59.123275 30947 net.cpp:91] Creating Layer conv1/7x7_s2
I0403 15:02:59.123296 30947 net.cpp:425] conv1/7x7_s2 <- data
I0403 15:02:59.123327 30947 net.cpp:399] conv1/7x7_s2 -> conv1/7x7_s2
I0403 15:02:59.267017 30947 net.cpp:141] Setting up conv1/7x7_s2
I0403 15:02:59.267096 30947 net.cpp:148] Top shape: 24 64 112 112 (19267584)
I0403 15:02:59.267115 30947 net.cpp:156] Memory required for data: 91522080
I0403 15:02:59.267148 30947 layer_factory.hpp:77] Creating layer conv1/relu_7x7
I0403 15:02:59.267182 30947 net.cpp:91] Creating Layer conv1/relu_7x7
I0403 15:02:59.267204 30947 net.cpp:425] conv1/relu_7x7 <- conv1/7x7_s2
I0403 15:02:59.267225 30947 net.cpp:386] conv1/relu_7x7 -> conv1/7x7_s2 (in-place)
I0403 15:02:59.267526 30947 net.cpp:141] Setting up conv1/relu_7x7
I0403 15:02:59.267556 30947 net.cpp:148] Top shape: 24 64 112 112 (19267584)
I0403 15:02:59.267573 30947 net.cpp:156] Memory required for data: 168592416
I0403 15:02:59.267590 30947 layer_factory.hpp:77] Creating layer pool1/3x3_s2
I0403 15:02:59.267619 30947 net.cpp:91] Creating Layer pool1/3x3_s2
I0403 15:02:59.267638 30947 net.cpp:425] pool1/3x3_s2 <- conv1/7x7_s2
I0403 15:02:59.267658 30947 net.cpp:399] pool1/3x3_s2 -> pool1/3x3_s2
I0403 15:02:59.267740 30947 net.cpp:141] Setting up pool1/3x3_s2
I0403 15:02:59.267767 30947 net.cpp:148] Top shape: 24 64 56 56 (4816896)
I0403 15:02:59.267782 30947 net.cpp:156] Memory required for data: 187860000
I0403 15:02:59.267798 30947 layer_factory.hpp:77] Creating layer pool1/norm1
I0403 15:02:59.267827 30947 net.cpp:91] Creating Layer pool1/norm1
I0403 15:02:59.267845 30947 net.cpp:425] pool1/norm1 <- pool1/3x3_s2
I0403 15:02:59.267864 30947 net.cpp:399] pool1/norm1 -> pool1/norm1
I0403 15:02:59.268180 30947 net.cpp:141] Setting up pool1/norm1
I0403 15:02:59.268213 30947 net.cpp:148] Top shape: 24 64 56 56 (4816896)
I0403 15:02:59.268231 30947 net.cpp:156] Memory required for data: 207127584
I0403 15:02:59.268247 30947 layer_factory.hpp:77] Creating layer conv2/3x3_reduce
I0403 15:02:59.268275 30947 net.cpp:91] Creating Layer conv2/3x3_reduce
I0403 15:02:59.268324 30947 net.cpp:425] conv2/3x3_reduce <- pool1/norm1
I0403 15:02:59.268350 30947 net.cpp:399] conv2/3x3_reduce -> conv2/3x3_reduce
I0403 15:02:59.269812 30947 net.cpp:141] Setting up conv2/3x3_reduce
I0403 15:02:59.269845 30947 net.cpp:148] Top shape: 24 64 56 56 (4816896)
I0403 15:02:59.269861 30947 net.cpp:156] Memory required for data: 226395168
I0403 15:02:59.269883 30947 layer_factory.hpp:77] Creating layer conv2/relu_3x3_reduce
I0403 15:02:59.269904 30947 net.cpp:91] Creating Layer conv2/relu_3x3_reduce
I0403 15:02:59.269922 30947 net.cpp:425] conv2/relu_3x3_reduce <- conv2/3x3_reduce
I0403 15:02:59.269942 30947 net.cpp:386] conv2/relu_3x3_reduce -> conv2/3x3_reduce (in-place)
I0403 15:02:59.270259 30947 net.cpp:141] Setting up conv2/relu_3x3_reduce
I0403 15:02:59.270288 30947 net.cpp:148] Top shape: 24 64 56 56 (4816896)
I0403 15:02:59.270305 30947 net.cpp:156] Memory required for data: 245662752
I0403 15:02:59.270328 30947 layer_factory.hpp:77] Creating layer conv2/3x3
I0403 15:02:59.270355 30947 net.cpp:91] Creating Layer conv2/3x3
I0403 15:02:59.270376 30947 net.cpp:425] conv2/3x3 <- conv2/3x3_reduce
I0403 15:02:59.270400 30947 net.cpp:399] conv2/3x3 -> conv2/3x3
I0403 15:02:59.272855 30947 net.cpp:141] Setting up conv2/3x3
I0403 15:02:59.272888 30947 net.cpp:148] Top shape: 24 192 56 56 (14450688)
I0403 15:02:59.272904 30947 net.cpp:156] Memory required for data: 303465504
I0403 15:02:59.272927 30947 layer_factory.hpp:77] Creating layer conv2/relu_3x3
I0403 15:02:59.272953 30947 net.cpp:91] Creating Layer conv2/relu_3x3
I0403 15:02:59.272971 30947 net.cpp:425] conv2/relu_3x3 <- conv2/3x3
I0403 15:02:59.272991 30947 net.cpp:386] conv2/relu_3x3 -> conv2/3x3 (in-place)
I0403 15:02:59.273180 30947 net.cpp:141] Setting up conv2/relu_3x3
I0403 15:02:59.273210 30947 net.cpp:148] Top shape: 24 192 56 56 (14450688)
I0403 15:02:59.273257 30947 net.cpp:156] Memory required for data: 361268256
I0403 15:02:59.273274 30947 layer_factory.hpp:77] Creating layer conv2/norm2
I0403 15:02:59.273294 30947 net.cpp:91] Creating Layer conv2/norm2
I0403 15:02:59.273313 30947 net.cpp:425] conv2/norm2 <- conv2/3x3
I0403 15:02:59.273340 30947 net.cpp:399] conv2/norm2 -> conv2/norm2
I0403 15:02:59.273669 30947 net.cpp:141] Setting up conv2/norm2
I0403 15:02:59.273699 30947 net.cpp:148] Top shape: 24 192 56 56 (14450688)
I0403 15:02:59.273715 30947 net.cpp:156] Memory required for data: 419071008
I0403 15:02:59.273731 30947 layer_factory.hpp:77] Creating layer pool2/3x3_s2
I0403 15:02:59.273751 30947 net.cpp:91] Creating Layer pool2/3x3_s2
I0403 15:02:59.273767 30947 net.cpp:425] pool2/3x3_s2 <- conv2/norm2
I0403 15:02:59.273792 30947 net.cpp:399] pool2/3x3_s2 -> pool2/3x3_s2
I0403 15:02:59.273849 30947 net.cpp:141] Setting up pool2/3x3_s2
I0403 15:02:59.273874 30947 net.cpp:148] Top shape: 24 192 28 28 (3612672)
I0403 15:02:59.273890 30947 net.cpp:156] Memory required for data: 433521696
I0403 15:02:59.273905 30947 layer_factory.hpp:77] Creating layer pool2/3x3_s2_pool2/3x3_s2_0_split
I0403 15:02:59.273927 30947 net.cpp:91] Creating Layer pool2/3x3_s2_pool2/3x3_s2_0_split
I0403 15:02:59.273946 30947 net.cpp:425] pool2/3x3_s2_pool2/3x3_s2_0_split <- pool2/3x3_s2
I0403 15:02:59.273963 30947 net.cpp:399] pool2/3x3_s2_pool2/3x3_s2_0_split -> pool2/3x3_s2_pool2/3x3_s2_0_split_0
I0403 15:02:59.273986 30947 net.cpp:399] pool2/3x3_s2_pool2/3x3_s2_0_split -> pool2/3x3_s2_pool2/3x3_s2_0_split_1
I0403 15:02:59.274009 30947 net.cpp:399] pool2/3x3_s2_pool2/3x3_s2_0_split -> pool2/3x3_s2_pool2/3x3_s2_0_split_2
I0403 15:02:59.274030 30947 net.cpp:399] pool2/3x3_s2_pool2/3x3_s2_0_split -> pool2/3x3_s2_pool2/3x3_s2_0_split_3
I0403 15:02:59.274104 30947 net.cpp:141] Setting up pool2/3x3_s2_pool2/3x3_s2_0_split
I0403 15:02:59.274129 30947 net.cpp:148] Top shape: 24 192 28 28 (3612672)
I0403 15:02:59.274147 30947 net.cpp:148] Top shape: 24 192 28 28 (3612672)
I0403 15:02:59.274163 30947 net.cpp:148] Top shape: 24 192 28 28 (3612672)
I0403 15:02:59.274179 30947 net.cpp:148] Top shape: 24 192 28 28 (3612672)
I0403 15:02:59.274194 30947 net.cpp:156] Memory required for data: 491324448
I0403 15:02:59.274209 30947 layer_factory.hpp:77] Creating layer inception_3a/1x1
I0403 15:02:59.274233 30947 net.cpp:91] Creating Layer inception_3a/1x1
I0403 15:02:59.274250 30947 net.cpp:425] inception_3a/1x1 <- pool2/3x3_s2_pool2/3x3_s2_0_split_0
I0403 15:02:59.274273 30947 net.cpp:399] inception_3a/1x1 -> inception_3a/1x1
I0403 15:02:59.275904 30947 net.cpp:141] Setting up inception_3a/1x1
I0403 15:02:59.275938 30947 net.cpp:148] Top shape: 24 64 28 28 (1204224)
I0403 15:02:59.275954 30947 net.cpp:156] Memory required for data: 496141344
I0403 15:02:59.275974 30947 layer_factory.hpp:77] Creating layer inception_3a/relu_1x1
I0403 15:02:59.275997 30947 net.cpp:91] Creating Layer inception_3a/relu_1x1
I0403 15:02:59.276016 30947 net.cpp:425] inception_3a/relu_1x1 <- inception_3a/1x1
I0403 15:02:59.276036 30947 net.cpp:386] inception_3a/relu_1x1 -> inception_3a/1x1 (in-place)
I0403 15:02:59.276221 30947 net.cpp:141] Setting up inception_3a/relu_1x1
I0403 15:02:59.276247 30947 net.cpp:148] Top shape: 24 64 28 28 (1204224)
I0403 15:02:59.276263 30947 net.cpp:156] Memory required for data: 500958240
I0403 15:02:59.276279 30947 layer_factory.hpp:77] Creating layer inception_3a/3x3_reduce
I0403 15:02:59.276304 30947 net.cpp:91] Creating Layer inception_3a/3x3_reduce
I0403 15:02:59.276326 30947 net.cpp:425] inception_3a/3x3_reduce <- pool2/3x3_s2_pool2/3x3_s2_0_split_1
I0403 15:02:59.276350 30947 net.cpp:399] inception_3a/3x3_reduce -> inception_3a/3x3_reduce
I0403 15:02:59.278123 30947 net.cpp:141] Setting up inception_3a/3x3_reduce
I0403 15:02:59.278156 30947 net.cpp:148] Top shape: 24 96 28 28 (1806336)
I0403 15:02:59.278172 30947 net.cpp:156] Memory required for data: 508183584
I0403 15:02:59.278197 30947 layer_factory.hpp:77] Creating layer inception_3a/relu_3x3_reduce
I0403 15:02:59.278237 30947 net.cpp:91] Creating Layer inception_3a/relu_3x3_reduce
I0403 15:02:59.278257 30947 net.cpp:425] inception_3a/relu_3x3_reduce <- inception_3a/3x3_reduce
I0403 15:02:59.278276 30947 net.cpp:386] inception_3a/relu_3x3_reduce -> inception_3a/3x3_reduce (in-place)
I0403 15:02:59.278473 30947 net.cpp:141] Setting up inception_3a/relu_3x3_reduce
I0403 15:02:59.278501 30947 net.cpp:148] Top shape: 24 96 28 28 (1806336)
I0403 15:02:59.278517 30947 net.cpp:156] Memory required for data: 515408928
I0403 15:02:59.278534 30947 layer_factory.hpp:77] Creating layer inception_3a/3x3
I0403 15:02:59.278558 30947 net.cpp:91] Creating Layer inception_3a/3x3
I0403 15:02:59.278579 30947 net.cpp:425] inception_3a/3x3 <- inception_3a/3x3_reduce
I0403 15:02:59.278604 30947 net.cpp:399] inception_3a/3x3 -> inception_3a/3x3
I0403 15:02:59.280338 30947 net.cpp:141] Setting up inception_3a/3x3
I0403 15:02:59.280367 30947 net.cpp:148] Top shape: 24 128 28 28 (2408448)
I0403 15:02:59.280385 30947 net.cpp:156] Memory required for data: 525042720
I0403 15:02:59.280405 30947 layer_factory.hpp:77] Creating layer inception_3a/relu_3x3
I0403 15:02:59.280428 30947 net.cpp:91] Creating Layer inception_3a/relu_3x3
I0403 15:02:59.280447 30947 net.cpp:425] inception_3a/relu_3x3 <- inception_3a/3x3
I0403 15:02:59.280465 30947 net.cpp:386] inception_3a/relu_3x3 -> inception_3a/3x3 (in-place)
I0403 15:02:59.280751 30947 net.cpp:141] Setting up inception_3a/relu_3x3
I0403 15:02:59.280781 30947 net.cpp:148] Top shape: 24 128 28 28 (2408448)
I0403 15:02:59.280797 30947 net.cpp:156] Memory required for data: 534676512
I0403 15:02:59.280812 30947 layer_factory.hpp:77] Creating layer inception_3a/5x5_reduce
I0403 15:02:59.280836 30947 net.cpp:91] Creating Layer inception_3a/5x5_reduce
I0403 15:02:59.280856 30947 net.cpp:425] inception_3a/5x5_reduce <- pool2/3x3_s2_pool2/3x3_s2_0_split_2
I0403 15:02:59.280879 30947 net.cpp:399] inception_3a/5x5_reduce -> inception_3a/5x5_reduce
I0403 15:02:59.281888 30947 net.cpp:141] Setting up inception_3a/5x5_reduce
I0403 15:02:59.281918 30947 net.cpp:148] Top shape: 24 16 28 28 (301056)
I0403 15:02:59.281934 30947 net.cpp:156] Memory required for data: 535880736
I0403 15:02:59.281955 30947 layer_factory.hpp:77] Creating layer inception_3a/relu_5x5_reduce
I0403 15:02:59.281976 30947 net.cpp:91] Creating Layer inception_3a/relu_5x5_reduce
I0403 15:02:59.281994 30947 net.cpp:425] inception_3a/relu_5x5_reduce <- inception_3a/5x5_reduce
I0403 15:02:59.282014 30947 net.cpp:386] inception_3a/relu_5x5_reduce -> inception_3a/5x5_reduce (in-place)
I0403 15:02:59.282331 30947 net.cpp:141] Setting up inception_3a/relu_5x5_reduce
I0403 15:02:59.282362 30947 net.cpp:148] Top shape: 24 16 28 28 (301056)
I0403 15:02:59.282380 30947 net.cpp:156] Memory required for data: 537084960
I0403 15:02:59.282397 30947 layer_factory.hpp:77] Creating layer inception_3a/5x5
I0403 15:02:59.282420 30947 net.cpp:91] Creating Layer inception_3a/5x5
I0403 15:02:59.282438 30947 net.cpp:425] inception_3a/5x5 <- inception_3a/5x5_reduce
I0403 15:02:59.282460 30947 net.cpp:399] inception_3a/5x5 -> inception_3a/5x5
I0403 15:02:59.283531 30947 net.cpp:141] Setting up inception_3a/5x5
I0403 15:02:59.283588 30947 net.cpp:148] Top shape: 24 32 28 28 (602112)
I0403 15:02:59.283625 30947 net.cpp:156] Memory required for data: 539493408
I0403 15:02:59.283676 30947 layer_factory.hpp:77] Creating layer inception_3a/relu_5x5
I0403 15:02:59.283718 30947 net.cpp:91] Creating Layer inception_3a/relu_5x5
I0403 15:02:59.283743 30947 net.cpp:425] inception_3a/relu_5x5 <- inception_3a/5x5
I0403 15:02:59.283771 30947 net.cpp:386] inception_3a/relu_5x5 -> inception_3a/5x5 (in-place)
I0403 15:02:59.283973 30947 net.cpp:141] Setting up inception_3a/relu_5x5
I0403 15:02:59.284001 30947 net.cpp:148] Top shape: 24 32 28 28 (602112)
I0403 15:02:59.284025 30947 net.cpp:156] Memory required for data: 541901856
I0403 15:02:59.284041 30947 layer_factory.hpp:77] Creating layer inception_3a/pool
I0403 15:02:59.284065 30947 net.cpp:91] Creating Layer inception_3a/pool
I0403 15:02:59.284082 30947 net.cpp:425] inception_3a/pool <- pool2/3x3_s2_pool2/3x3_s2_0_split_3
I0403 15:02:59.284117 30947 net.cpp:399] inception_3a/pool -> inception_3a/pool
I0403 15:02:59.284181 30947 net.cpp:141] Setting up inception_3a/pool
I0403 15:02:59.284207 30947 net.cpp:148] Top shape: 24 192 28 28 (3612672)
I0403 15:02:59.284224 30947 net.cpp:156] Memory required for data: 556352544
I0403 15:02:59.284240 30947 layer_factory.hpp:77] Creating layer inception_3a/pool_proj
I0403 15:02:59.284265 30947 net.cpp:91] Creating Layer inception_3a/pool_proj
I0403 15:02:59.284283 30947 net.cpp:425] inception_3a/pool_proj <- inception_3a/pool
I0403 15:02:59.284307 30947 net.cpp:399] inception_3a/pool_proj -> inception_3a/pool_proj
I0403 15:02:59.285334 30947 net.cpp:141] Setting up inception_3a/pool_proj
I0403 15:02:59.285367 30947 net.cpp:148] Top shape: 24 32 28 28 (602112)
I0403 15:02:59.285385 30947 net.cpp:156] Memory required for data: 558760992
I0403 15:02:59.285409 30947 layer_factory.hpp:77] Creating layer inception_3a/relu_pool_proj
I0403 15:02:59.285434 30947 net.cpp:91] Creating Layer inception_3a/relu_pool_proj
I0403 15:02:59.285452 30947 net.cpp:425] inception_3a/relu_pool_proj <- inception_3a/pool_proj
I0403 15:02:59.285471 30947 net.cpp:386] inception_3a/relu_pool_proj -> inception_3a/pool_proj (in-place)
I0403 15:02:59.285756 30947 net.cpp:141] Setting up inception_3a/relu_pool_proj
I0403 15:02:59.285784 30947 net.cpp:148] Top shape: 24 32 28 28 (602112)
I0403 15:02:59.285800 30947 net.cpp:156] Memory required for data: 561169440
I0403 15:02:59.285816 30947 layer_factory.hpp:77] Creating layer inception_3a/output
I0403 15:02:59.285838 30947 net.cpp:91] Creating Layer inception_3a/output
I0403 15:02:59.285856 30947 net.cpp:425] inception_3a/output <- inception_3a/1x1
I0403 15:02:59.285874 30947 net.cpp:425] inception_3a/output <- inception_3a/3x3
I0403 15:02:59.285892 30947 net.cpp:425] inception_3a/output <- inception_3a/5x5
I0403 15:02:59.285910 30947 net.cpp:425] inception_3a/output <- inception_3a/pool_proj
I0403 15:02:59.285929 30947 net.cpp:399] inception_3a/output -> inception_3a/output
I0403 15:02:59.285979 30947 net.cpp:141] Setting up inception_3a/output
I0403 15:02:59.286008 30947 net.cpp:148] Top shape: 24 256 28 28 (4816896)
I0403 15:02:59.286026 30947 net.cpp:156] Memory required for data: 580437024
I0403 15:02:59.286041 30947 layer_factory.hpp:77] Creating layer inception_3a/output_inception_3a/output_0_split
I0403 15:02:59.286058 30947 net.cpp:91] Creating Layer inception_3a/output_inception_3a/output_0_split
I0403 15:02:59.286075 30947 net.cpp:425] inception_3a/output_inception_3a/output_0_split <- inception_3a/output
I0403 15:02:59.286098 30947 net.cpp:399] inception_3a/output_inception_3a/output_0_split -> inception_3a/output_inception_3a/output_0_split_0
I0403 15:02:59.286119 30947 net.cpp:399] inception_3a/output_inception_3a/output_0_split -> inception_3a/output_inception_3a/output_0_split_1
I0403 15:02:59.286144 30947 net.cpp:399] inception_3a/output_inception_3a/output_0_split -> inception_3a/output_inception_3a/output_0_split_2
I0403 15:02:59.286166 30947 net.cpp:399] inception_3a/output_inception_3a/output_0_split -> inception_3a/output_inception_3a/output_0_split_3
I0403 15:02:59.286247 30947 net.cpp:141] Setting up inception_3a/output_inception_3a/output_0_split
I0403 15:02:59.286274 30947 net.cpp:148] Top shape: 24 256 28 28 (4816896)
I0403 15:02:59.286291 30947 net.cpp:148] Top shape: 24 256 28 28 (4816896)
I0403 15:02:59.286309 30947 net.cpp:148] Top shape: 24 256 28 28 (4816896)
I0403 15:02:59.286344 30947 net.cpp:148] Top shape: 24 256 28 28 (4816896)
I0403 15:02:59.286360 30947 net.cpp:156] Memory required for data: 657507360
I0403 15:02:59.286375 30947 layer_factory.hpp:77] Creating layer inception_3b/1x1
I0403 15:02:59.286401 30947 net.cpp:91] Creating Layer inception_3b/1x1
I0403 15:02:59.286419 30947 net.cpp:425] inception_3b/1x1 <- inception_3a/output_inception_3a/output_0_split_0
I0403 15:02:59.286442 30947 net.cpp:399] inception_3b/1x1 -> inception_3b/1x1
I0403 15:02:59.287624 30947 net.cpp:141] Setting up inception_3b/1x1
I0403 15:02:59.287667 30947 net.cpp:148] Top shape: 24 128 28 28 (2408448)
I0403 15:02:59.287683 30947 net.cpp:156] Memory required for data: 667141152
I0403 15:02:59.287703 30947 layer_factory.hpp:77] Creating layer inception_3b/relu_1x1
I0403 15:02:59.287722 30947 net.cpp:91] Creating Layer inception_3b/relu_1x1
I0403 15:02:59.287739 30947 net.cpp:425] inception_3b/relu_1x1 <- inception_3b/1x1
I0403 15:02:59.287760 30947 net.cpp:386] inception_3b/relu_1x1 -> inception_3b/1x1 (in-place)
I0403 15:02:59.287940 30947 net.cpp:141] Setting up inception_3b/relu_1x1
I0403 15:02:59.287968 30947 net.cpp:148] Top shape: 24 128 28 28 (2408448)
I0403 15:02:59.287983 30947 net.cpp:156] Memory required for data: 676774944
I0403 15:02:59.287999 30947 layer_factory.hpp:77] Creating layer inception_3b/3x3_reduce
I0403 15:02:59.288023 30947 net.cpp:91] Creating Layer inception_3b/3x3_reduce
I0403 15:02:59.288041 30947 net.cpp:425] inception_3b/3x3_reduce <- inception_3a/output_inception_3a/output_0_split_1
I0403 15:02:59.288064 30947 net.cpp:399] inception_3b/3x3_reduce -> inception_3b/3x3_reduce
I0403 15:02:59.289230 30947 net.cpp:141] Setting up inception_3b/3x3_reduce
I0403 15:02:59.289259 30947 net.cpp:148] Top shape: 24 128 28 28 (2408448)
I0403 15:02:59.289276 30947 net.cpp:156] Memory required for data: 686408736
I0403 15:02:59.289296 30947 layer_factory.hpp:77] Creating layer inception_3b/relu_3x3_reduce
I0403 15:02:59.289319 30947 net.cpp:91] Creating Layer inception_3b/relu_3x3_reduce
I0403 15:02:59.289336 30947 net.cpp:425] inception_3b/relu_3x3_reduce <- inception_3b/3x3_reduce
I0403 15:02:59.289357 30947 net.cpp:386] inception_3b/relu_3x3_reduce -> inception_3b/3x3_reduce (in-place)
I0403 15:02:59.289533 30947 net.cpp:141] Setting up inception_3b/relu_3x3_reduce
I0403 15:02:59.289559 30947 net.cpp:148] Top shape: 24 128 28 28 (2408448)
I0403 15:02:59.289577 30947 net.cpp:156] Memory required for data: 696042528
I0403 15:02:59.289592 30947 layer_factory.hpp:77] Creating layer inception_3b/3x3
I0403 15:02:59.289619 30947 net.cpp:91] Creating Layer inception_3b/3x3
I0403 15:02:59.289639 30947 net.cpp:425] inception_3b/3x3 <- inception_3b/3x3_reduce
I0403 15:02:59.289659 30947 net.cpp:399] inception_3b/3x3 -> inception_3b/3x3
I0403 15:02:59.292631 30947 net.cpp:141] Setting up inception_3b/3x3
I0403 15:02:59.292664 30947 net.cpp:148] Top shape: 24 192 28 28 (3612672)
I0403 15:02:59.292680 30947 net.cpp:156] Memory required for data: 710493216
I0403 15:02:59.292700 30947 layer_factory.hpp:77] Creating layer inception_3b/relu_3x3
I0403 15:02:59.292722 30947 net.cpp:91] Creating Layer inception_3b/relu_3x3
I0403 15:02:59.292742 30947 net.cpp:425] inception_3b/relu_3x3 <- inception_3b/3x3
I0403 15:02:59.292760 30947 net.cpp:386] inception_3b/relu_3x3 -> inception_3b/3x3 (in-place)
I0403 15:02:59.293041 30947 net.cpp:141] Setting up inception_3b/relu_3x3
I0403 15:02:59.293068 30947 net.cpp:148] Top shape: 24 192 28 28 (3612672)
I0403 15:02:59.293084 30947 net.cpp:156] Memory required for data: 724943904
I0403 15:02:59.293100 30947 layer_factory.hpp:77] Creating layer inception_3b/5x5_reduce
I0403 15:02:59.293123 30947 net.cpp:91] Creating Layer inception_3b/5x5_reduce
I0403 15:02:59.293143 30947 net.cpp:425] inception_3b/5x5_reduce <- inception_3a/output_inception_3a/output_0_split_2
I0403 15:02:59.293166 30947 net.cpp:399] inception_3b/5x5_reduce -> inception_3b/5x5_reduce
I0403 15:02:59.294178 30947 net.cpp:141] Setting up inception_3b/5x5_reduce
I0403 15:02:59.294209 30947 net.cpp:148] Top shape: 24 32 28 28 (602112)
I0403 15:02:59.294224 30947 net.cpp:156] Memory required for data: 727352352
I0403 15:02:59.294255 30947 layer_factory.hpp:77] Creating layer inception_3b/relu_5x5_reduce
I0403 15:02:59.294280 30947 net.cpp:91] Creating Layer inception_3b/relu_5x5_reduce
I0403 15:02:59.294299 30947 net.cpp:425] inception_3b/relu_5x5_reduce <- inception_3b/5x5_reduce
I0403 15:02:59.294329 30947 net.cpp:386] inception_3b/relu_5x5_reduce -> inception_3b/5x5_reduce (in-place)
I0403 15:02:59.294522 30947 net.cpp:141] Setting up inception_3b/relu_5x5_reduce
I0403 15:02:59.294574 30947 net.cpp:148] Top shape: 24 32 28 28 (602112)
I0403 15:02:59.294590 30947 net.cpp:156] Memory required for data: 729760800
I0403 15:02:59.294605 30947 layer_factory.hpp:77] Creating layer inception_3b/5x5
I0403 15:02:59.294631 30947 net.cpp:91] Creating Layer inception_3b/5x5
I0403 15:02:59.294651 30947 net.cpp:425] inception_3b/5x5 <- inception_3b/5x5_reduce
I0403 15:02:59.294672 30947 net.cpp:399] inception_3b/5x5 -> inception_3b/5x5
I0403 15:02:59.296663 30947 net.cpp:141] Setting up inception_3b/5x5
I0403 15:02:59.296695 30947 net.cpp:148] Top shape: 24 96 28 28 (1806336)
I0403 15:02:59.296715 30947 net.cpp:156] Memory required for data: 736986144
I0403 15:02:59.296736 30947 layer_factory.hpp:77] Creating layer inception_3b/relu_5x5
I0403 15:02:59.296753 30947 net.cpp:91] Creating Layer inception_3b/relu_5x5
I0403 15:02:59.296769 30947 net.cpp:425] inception_3b/relu_5x5 <- inception_3b/5x5
I0403 15:02:59.296792 30947 net.cpp:386] inception_3b/relu_5x5 -> inception_3b/5x5 (in-place)
I0403 15:02:59.296984 30947 net.cpp:141] Setting up inception_3b/relu_5x5
I0403 15:02:59.297011 30947 net.cpp:148] Top shape: 24 96 28 28 (1806336)
I0403 15:02:59.297027 30947 net.cpp:156] Memory required for data: 744211488
I0403 15:02:59.297044 30947 layer_factory.hpp:77] Creating layer inception_3b/pool
I0403 15:02:59.297062 30947 net.cpp:91] Creating Layer inception_3b/pool
I0403 15:02:59.297080 30947 net.cpp:425] inception_3b/pool <- inception_3a/output_inception_3a/output_0_split_3
I0403 15:02:59.297098 30947 net.cpp:399] inception_3b/pool -> inception_3b/pool
I0403 15:02:59.297158 30947 net.cpp:141] Setting up inception_3b/pool
I0403 15:02:59.297184 30947 net.cpp:148] Top shape: 24 256 28 28 (4816896)
I0403 15:02:59.297199 30947 net.cpp:156] Memory required for data: 763479072
I0403 15:02:59.297215 30947 layer_factory.hpp:77] Creating layer inception_3b/pool_proj
I0403 15:02:59.297238 30947 net.cpp:91] Creating Layer inception_3b/pool_proj
I0403 15:02:59.297257 30947 net.cpp:425] inception_3b/pool_proj <- inception_3b/pool
I0403 15:02:59.297279 30947 net.cpp:399] inception_3b/pool_proj -> inception_3b/pool_proj
I0403 15:02:59.298359 30947 net.cpp:141] Setting up inception_3b/pool_proj
I0403 15:02:59.298388 30947 net.cpp:148] Top shape: 24 64 28 28 (1204224)
I0403 15:02:59.298403 30947 net.cpp:156] Memory required for data: 768295968
I0403 15:02:59.298424 30947 layer_factory.hpp:77] Creating layer inception_3b/relu_pool_proj
I0403 15:02:59.298445 30947 net.cpp:91] Creating Layer inception_3b/relu_pool_proj
I0403 15:02:59.298463 30947 net.cpp:425] inception_3b/relu_pool_proj <- inception_3b/pool_proj
I0403 15:02:59.298482 30947 net.cpp:386] inception_3b/relu_pool_proj -> inception_3b/pool_proj (in-place)
I0403 15:02:59.298882 30947 net.cpp:141] Setting up inception_3b/relu_pool_proj
I0403 15:02:59.298909 30947 net.cpp:148] Top shape: 24 64 28 28 (1204224)
I0403 15:02:59.298925 30947 net.cpp:156] Memory required for data: 773112864
I0403 15:02:59.298943 30947 layer_factory.hpp:77] Creating layer inception_3b/output
I0403 15:02:59.298962 30947 net.cpp:91] Creating Layer inception_3b/output
I0403 15:02:59.298979 30947 net.cpp:425] inception_3b/output <- inception_3b/1x1
I0403 15:02:59.298997 30947 net.cpp:425] inception_3b/output <- inception_3b/3x3
I0403 15:02:59.299015 30947 net.cpp:425] inception_3b/output <- inception_3b/5x5
I0403 15:02:59.299031 30947 net.cpp:425] inception_3b/output <- inception_3b/pool_proj
I0403 15:02:59.299048 30947 net.cpp:399] inception_3b/output -> inception_3b/output
I0403 15:02:59.299096 30947 net.cpp:141] Setting up inception_3b/output
I0403 15:02:59.299121 30947 net.cpp:148] Top shape: 24 480 28 28 (9031680)
I0403 15:02:59.299136 30947 net.cpp:156] Memory required for data: 809239584
I0403 15:02:59.299150 30947 layer_factory.hpp:77] Creating layer pool3/3x3_s2
I0403 15:02:59.299170 30947 net.cpp:91] Creating Layer pool3/3x3_s2
I0403 15:02:59.299186 30947 net.cpp:425] pool3/3x3_s2 <- inception_3b/output
I0403 15:02:59.299214 30947 net.cpp:399] pool3/3x3_s2 -> pool3/3x3_s2
I0403 15:02:59.299291 30947 net.cpp:141] Setting up pool3/3x3_s2
I0403 15:02:59.299320 30947 net.cpp:148] Top shape: 24 480 14 14 (2257920)
I0403 15:02:59.299338 30947 net.cpp:156] Memory required for data: 818271264
I0403 15:02:59.299353 30947 layer_factory.hpp:77] Creating layer pool3/3x3_s2_pool3/3x3_s2_0_split
I0403 15:02:59.299372 30947 net.cpp:91] Creating Layer pool3/3x3_s2_pool3/3x3_s2_0_split
I0403 15:02:59.299389 30947 net.cpp:425] pool3/3x3_s2_pool3/3x3_s2_0_split <- pool3/3x3_s2
I0403 15:02:59.299410 30947 net.cpp:399] pool3/3x3_s2_pool3/3x3_s2_0_split -> pool3/3x3_s2_pool3/3x3_s2_0_split_0
I0403 15:02:59.299432 30947 net.cpp:399] pool3/3x3_s2_pool3/3x3_s2_0_split -> pool3/3x3_s2_pool3/3x3_s2_0_split_1
I0403 15:02:59.299451 30947 net.cpp:399] pool3/3x3_s2_pool3/3x3_s2_0_split -> pool3/3x3_s2_pool3/3x3_s2_0_split_2
I0403 15:02:59.299484 30947 net.cpp:399] pool3/3x3_s2_pool3/3x3_s2_0_split -> pool3/3x3_s2_pool3/3x3_s2_0_split_3
I0403 15:02:59.299561 30947 net.cpp:141] Setting up pool3/3x3_s2_pool3/3x3_s2_0_split
I0403 15:02:59.299584 30947 net.cpp:148] Top shape: 24 480 14 14 (2257920)
I0403 15:02:59.299602 30947 net.cpp:148] Top shape: 24 480 14 14 (2257920)
I0403 15:02:59.299618 30947 net.cpp:148] Top shape: 24 480 14 14 (2257920)
I0403 15:02:59.299633 30947 net.cpp:148] Top shape: 24 480 14 14 (2257920)
I0403 15:02:59.299646 30947 net.cpp:156] Memory required for data: 854397984
I0403 15:02:59.299660 30947 layer_factory.hpp:77] Creating layer inception_4a/1x1
I0403 15:02:59.299685 30947 net.cpp:91] Creating Layer inception_4a/1x1
I0403 15:02:59.299703 30947 net.cpp:425] inception_4a/1x1 <- pool3/3x3_s2_pool3/3x3_s2_0_split_0
I0403 15:02:59.299723 30947 net.cpp:399] inception_4a/1x1 -> inception_4a/1x1
I0403 15:02:59.301273 30947 net.cpp:141] Setting up inception_4a/1x1
I0403 15:02:59.301303 30947 net.cpp:148] Top shape: 24 192 14 14 (903168)
I0403 15:02:59.301326 30947 net.cpp:156] Memory required for data: 858010656
I0403 15:02:59.301345 30947 layer_factory.hpp:77] Creating layer inception_4a/relu_1x1
I0403 15:02:59.301364 30947 net.cpp:91] Creating Layer inception_4a/relu_1x1
I0403 15:02:59.301381 30947 net.cpp:425] inception_4a/relu_1x1 <- inception_4a/1x1
I0403 15:02:59.301401 30947 net.cpp:386] inception_4a/relu_1x1 -> inception_4a/1x1 (in-place)
I0403 15:02:59.301578 30947 net.cpp:141] Setting up inception_4a/relu_1x1
I0403 15:02:59.301602 30947 net.cpp:148] Top shape: 24 192 14 14 (903168)
I0403 15:02:59.301617 30947 net.cpp:156] Memory required for data: 861623328
I0403 15:02:59.301632 30947 layer_factory.hpp:77] Creating layer inception_4a/3x3_reduce
I0403 15:02:59.301654 30947 net.cpp:91] Creating Layer inception_4a/3x3_reduce
I0403 15:02:59.301673 30947 net.cpp:425] inception_4a/3x3_reduce <- pool3/3x3_s2_pool3/3x3_s2_0_split_1
I0403 15:02:59.301694 30947 net.cpp:399] inception_4a/3x3_reduce -> inception_4a/3x3_reduce
I0403 15:02:59.302963 30947 net.cpp:141] Setting up inception_4a/3x3_reduce
I0403 15:02:59.302992 30947 net.cpp:148] Top shape: 24 96 14 14 (451584)
I0403 15:02:59.303010 30947 net.cpp:156] Memory required for data: 863429664
I0403 15:02:59.303035 30947 layer_factory.hpp:77] Creating layer inception_4a/relu_3x3_reduce
I0403 15:02:59.303056 30947 net.cpp:91] Creating Layer inception_4a/relu_3x3_reduce
I0403 15:02:59.303074 30947 net.cpp:425] inception_4a/relu_3x3_reduce <- inception_4a/3x3_reduce
I0403 15:02:59.303092 30947 net.cpp:386] inception_4a/relu_3x3_reduce -> inception_4a/3x3_reduce (in-place)
I0403 15:02:59.303269 30947 net.cpp:141] Setting up inception_4a/relu_3x3_reduce
I0403 15:02:59.303297 30947 net.cpp:148] Top shape: 24 96 14 14 (451584)
I0403 15:02:59.303313 30947 net.cpp:156] Memory required for data: 865236000
I0403 15:02:59.303333 30947 layer_factory.hpp:77] Creating layer inception_4a/3x3
I0403 15:02:59.303355 30947 net.cpp:91] Creating Layer inception_4a/3x3
I0403 15:02:59.303375 30947 net.cpp:425] inception_4a/3x3 <- inception_4a/3x3_reduce
I0403 15:02:59.303395 30947 net.cpp:399] inception_4a/3x3 -> inception_4a/3x3
I0403 15:02:59.306061 30947 net.cpp:141] Setting up inception_4a/3x3
I0403 15:02:59.306090 30947 net.cpp:148] Top shape: 24 208 14 14 (978432)
I0403 15:02:59.306107 30947 net.cpp:156] Memory required for data: 869149728
I0403 15:02:59.306125 30947 layer_factory.hpp:77] Creating layer inception_4a/relu_3x3
I0403 15:02:59.306145 30947 net.cpp:91] Creating Layer inception_4a/relu_3x3
I0403 15:02:59.306162 30947 net.cpp:425] inception_4a/relu_3x3 <- inception_4a/3x3
I0403 15:02:59.306183 30947 net.cpp:386] inception_4a/relu_3x3 -> inception_4a/3x3 (in-place)
I0403 15:02:59.306473 30947 net.cpp:141] Setting up inception_4a/relu_3x3
I0403 15:02:59.306499 30947 net.cpp:148] Top shape: 24 208 14 14 (978432)
I0403 15:02:59.306514 30947 net.cpp:156] Memory required for data: 873063456
I0403 15:02:59.306530 30947 layer_factory.hpp:77] Creating layer inception_4a/5x5_reduce
I0403 15:02:59.306555 30947 net.cpp:91] Creating Layer inception_4a/5x5_reduce
I0403 15:02:59.306584 30947 net.cpp:425] inception_4a/5x5_reduce <- pool3/3x3_s2_pool3/3x3_s2_0_split_2
I0403 15:02:59.306607 30947 net.cpp:399] inception_4a/5x5_reduce -> inception_4a/5x5_reduce
I0403 15:02:59.307615 30947 net.cpp:141] Setting up inception_4a/5x5_reduce
I0403 15:02:59.307643 30947 net.cpp:148] Top shape: 24 16 14 14 (75264)
I0403 15:02:59.307659 30947 net.cpp:156] Memory required for data: 873364512
I0403 15:02:59.307678 30947 layer_factory.hpp:77] Creating layer inception_4a/relu_5x5_reduce
I0403 15:02:59.307701 30947 net.cpp:91] Creating Layer inception_4a/relu_5x5_reduce
I0403 15:02:59.307719 30947 net.cpp:425] inception_4a/relu_5x5_reduce <- inception_4a/5x5_reduce
I0403 15:02:59.307737 30947 net.cpp:386] inception_4a/relu_5x5_reduce -> inception_4a/5x5_reduce (in-place)
I0403 15:02:59.307915 30947 net.cpp:141] Setting up inception_4a/relu_5x5_reduce
I0403 15:02:59.307941 30947 net.cpp:148] Top shape: 24 16 14 14 (75264)
I0403 15:02:59.307956 30947 net.cpp:156] Memory required for data: 873665568
I0403 15:02:59.307971 30947 layer_factory.hpp:77] Creating layer inception_4a/5x5
I0403 15:02:59.307996 30947 net.cpp:91] Creating Layer inception_4a/5x5
I0403 15:02:59.308013 30947 net.cpp:425] inception_4a/5x5 <- inception_4a/5x5_reduce
I0403 15:02:59.308033 30947 net.cpp:399] inception_4a/5x5 -> inception_4a/5x5
I0403 15:02:59.309108 30947 net.cpp:141] Setting up inception_4a/5x5
I0403 15:02:59.309136 30947 net.cpp:148] Top shape: 24 48 14 14 (225792)
I0403 15:02:59.309154 30947 net.cpp:156] Memory required for data: 874568736
I0403 15:02:59.309173 30947 layer_factory.hpp:77] Creating layer inception_4a/relu_5x5
I0403 15:02:59.309195 30947 net.cpp:91] Creating Layer inception_4a/relu_5x5
I0403 15:02:59.309211 30947 net.cpp:425] inception_4a/relu_5x5 <- inception_4a/5x5
I0403 15:02:59.309229 30947 net.cpp:386] inception_4a/relu_5x5 -> inception_4a/5x5 (in-place)
I0403 15:02:59.309408 30947 net.cpp:141] Setting up inception_4a/relu_5x5
I0403 15:02:59.309437 30947 net.cpp:148] Top shape: 24 48 14 14 (225792)
I0403 15:02:59.309453 30947 net.cpp:156] Memory required for data: 875471904
I0403 15:02:59.309469 30947 layer_factory.hpp:77] Creating layer inception_4a/pool
I0403 15:02:59.309489 30947 net.cpp:91] Creating Layer inception_4a/pool
I0403 15:02:59.309504 30947 net.cpp:425] inception_4a/pool <- pool3/3x3_s2_pool3/3x3_s2_0_split_3
I0403 15:02:59.309525 30947 net.cpp:399] inception_4a/pool -> inception_4a/pool
I0403 15:02:59.309587 30947 net.cpp:141] Setting up inception_4a/pool
I0403 15:02:59.309613 30947 net.cpp:148] Top shape: 24 480 14 14 (2257920)
I0403 15:02:59.309629 30947 net.cpp:156] Memory required for data: 884503584
I0403 15:02:59.309644 30947 layer_factory.hpp:77] Creating layer inception_4a/pool_proj
I0403 15:02:59.309664 30947 net.cpp:91] Creating Layer inception_4a/pool_proj
I0403 15:02:59.309682 30947 net.cpp:425] inception_4a/pool_proj <- inception_4a/pool
I0403 15:02:59.309703 30947 net.cpp:399] inception_4a/pool_proj -> inception_4a/pool_proj
I0403 15:02:59.310865 30947 net.cpp:141] Setting up inception_4a/pool_proj
I0403 15:02:59.310897 30947 net.cpp:148] Top shape: 24 64 14 14 (301056)
I0403 15:02:59.310928 30947 net.cpp:156] Memory required for data: 885707808
I0403 15:02:59.310950 30947 layer_factory.hpp:77] Creating layer inception_4a/relu_pool_proj
I0403 15:02:59.310968 30947 net.cpp:91] Creating Layer inception_4a/relu_pool_proj
I0403 15:02:59.310984 30947 net.cpp:425] inception_4a/relu_pool_proj <- inception_4a/pool_proj
I0403 15:02:59.311002 30947 net.cpp:386] inception_4a/relu_pool_proj -> inception_4a/pool_proj (in-place)
I0403 15:02:59.311282 30947 net.cpp:141] Setting up inception_4a/relu_pool_proj
I0403 15:02:59.311312 30947 net.cpp:148] Top shape: 24 64 14 14 (301056)
I0403 15:02:59.311336 30947 net.cpp:156] Memory required for data: 886912032
I0403 15:02:59.311352 30947 layer_factory.hpp:77] Creating layer inception_4a/output
I0403 15:02:59.311372 30947 net.cpp:91] Creating Layer inception_4a/output
I0403 15:02:59.311386 30947 net.cpp:425] inception_4a/output <- inception_4a/1x1
I0403 15:02:59.311403 30947 net.cpp:425] inception_4a/output <- inception_4a/3x3
I0403 15:02:59.311420 30947 net.cpp:425] inception_4a/output <- inception_4a/5x5
I0403 15:02:59.311436 30947 net.cpp:425] inception_4a/output <- inception_4a/pool_proj
I0403 15:02:59.311455 30947 net.cpp:399] inception_4a/output -> inception_4a/output
I0403 15:02:59.311501 30947 net.cpp:141] Setting up inception_4a/output
I0403 15:02:59.311524 30947 net.cpp:148] Top shape: 24 512 14 14 (2408448)
I0403 15:02:59.311539 30947 net.cpp:156] Memory required for data: 896545824
I0403 15:02:59.311554 30947 layer_factory.hpp:77] Creating layer inception_4a/output_inception_4a/output_0_split
I0403 15:02:59.311575 30947 net.cpp:91] Creating Layer inception_4a/output_inception_4a/output_0_split
I0403 15:02:59.311594 30947 net.cpp:425] inception_4a/output_inception_4a/output_0_split <- inception_4a/output
I0403 15:02:59.311612 30947 net.cpp:399] inception_4a/output_inception_4a/output_0_split -> inception_4a/output_inception_4a/output_0_split_0
I0403 15:02:59.311633 30947 net.cpp:399] inception_4a/output_inception_4a/output_0_split -> inception_4a/output_inception_4a/output_0_split_1
I0403 15:02:59.311655 30947 net.cpp:399] inception_4a/output_inception_4a/output_0_split -> inception_4a/output_inception_4a/output_0_split_2
I0403 15:02:59.311676 30947 net.cpp:399] inception_4a/output_inception_4a/output_0_split -> inception_4a/output_inception_4a/output_0_split_3
I0403 15:02:59.311699 30947 net.cpp:399] inception_4a/output_inception_4a/output_0_split -> inception_4a/output_inception_4a/output_0_split_4
I0403 15:02:59.311791 30947 net.cpp:141] Setting up inception_4a/output_inception_4a/output_0_split
I0403 15:02:59.311815 30947 net.cpp:148] Top shape: 24 512 14 14 (2408448)
I0403 15:02:59.311831 30947 net.cpp:148] Top shape: 24 512 14 14 (2408448)
I0403 15:02:59.311847 30947 net.cpp:148] Top shape: 24 512 14 14 (2408448)
I0403 15:02:59.311863 30947 net.cpp:148] Top shape: 24 512 14 14 (2408448)
I0403 15:02:59.311878 30947 net.cpp:148] Top shape: 24 512 14 14 (2408448)
I0403 15:02:59.311892 30947 net.cpp:156] Memory required for data: 944714784
I0403 15:02:59.311908 30947 layer_factory.hpp:77] Creating layer loss1/ave_pool
I0403 15:02:59.311928 30947 net.cpp:91] Creating Layer loss1/ave_pool
I0403 15:02:59.311945 30947 net.cpp:425] loss1/ave_pool <- inception_4a/output_inception_4a/output_0_split_0
I0403 15:02:59.311964 30947 net.cpp:399] loss1/ave_pool -> loss1/ave_pool
I0403 15:02:59.312170 30947 net.cpp:141] Setting up loss1/ave_pool
I0403 15:02:59.312199 30947 net.cpp:148] Top shape: 24 512 4 4 (196608)
I0403 15:02:59.312216 30947 net.cpp:156] Memory required for data: 945501216
I0403 15:02:59.312232 30947 layer_factory.hpp:77] Creating layer loss1/conv
I0403 15:02:59.312254 30947 net.cpp:91] Creating Layer loss1/conv
I0403 15:02:59.312273 30947 net.cpp:425] loss1/conv <- loss1/ave_pool
I0403 15:02:59.312291 30947 net.cpp:399] loss1/conv -> loss1/conv
I0403 15:02:59.313709 30947 net.cpp:141] Setting up loss1/conv
I0403 15:02:59.313737 30947 net.cpp:148] Top shape: 24 128 4 4 (49152)
I0403 15:02:59.313753 30947 net.cpp:156] Memory required for data: 945697824
I0403 15:02:59.313787 30947 layer_factory.hpp:77] Creating layer loss1/relu_conv
I0403 15:02:59.313810 30947 net.cpp:91] Creating Layer loss1/relu_conv
I0403 15:02:59.313827 30947 net.cpp:425] loss1/relu_conv <- loss1/conv
I0403 15:02:59.313845 30947 net.cpp:386] loss1/relu_conv -> loss1/conv (in-place)
I0403 15:02:59.314121 30947 net.cpp:141] Setting up loss1/relu_conv
I0403 15:02:59.314148 30947 net.cpp:148] Top shape: 24 128 4 4 (49152)
I0403 15:02:59.314163 30947 net.cpp:156] Memory required for data: 945894432
I0403 15:02:59.314180 30947 layer_factory.hpp:77] Creating layer loss1/fc
I0403 15:02:59.314208 30947 net.cpp:91] Creating Layer loss1/fc
I0403 15:02:59.314227 30947 net.cpp:425] loss1/fc <- loss1/conv
I0403 15:02:59.314246 30947 net.cpp:399] loss1/fc -> loss1/fc
I0403 15:02:59.331933 30947 net.cpp:141] Setting up loss1/fc
I0403 15:02:59.331987 30947 net.cpp:148] Top shape: 24 1024 (24576)
I0403 15:02:59.332005 30947 net.cpp:156] Memory required for data: 945992736
I0403 15:02:59.332026 30947 layer_factory.hpp:77] Creating layer loss1/relu_fc
I0403 15:02:59.332049 30947 net.cpp:91] Creating Layer loss1/relu_fc
I0403 15:02:59.332069 30947 net.cpp:425] loss1/relu_fc <- loss1/fc
I0403 15:02:59.332092 30947 net.cpp:386] loss1/relu_fc -> loss1/fc (in-place)
I0403 15:02:59.332304 30947 net.cpp:141] Setting up loss1/relu_fc
I0403 15:02:59.332334 30947 net.cpp:148] Top shape: 24 1024 (24576)
I0403 15:02:59.332351 30947 net.cpp:156] Memory required for data: 946091040
I0403 15:02:59.332368 30947 layer_factory.hpp:77] Creating layer loss1/drop_fc
I0403 15:02:59.332399 30947 net.cpp:91] Creating Layer loss1/drop_fc
I0403 15:02:59.332420 30947 net.cpp:425] loss1/drop_fc <- loss1/fc
I0403 15:02:59.332439 30947 net.cpp:386] loss1/drop_fc -> loss1/fc (in-place)
I0403 15:02:59.332494 30947 net.cpp:141] Setting up loss1/drop_fc
I0403 15:02:59.332517 30947 net.cpp:148] Top shape: 24 1024 (24576)
I0403 15:02:59.332533 30947 net.cpp:156] Memory required for data: 946189344
I0403 15:02:59.332550 30947 layer_factory.hpp:77] Creating layer loss1/classifier_plantvillage
I0403 15:02:59.332573 30947 net.cpp:91] Creating Layer loss1/classifier_plantvillage
I0403 15:02:59.332592 30947 net.cpp:425] loss1/classifier_plantvillage <- loss1/fc
I0403 15:02:59.332613 30947 net.cpp:399] loss1/classifier_plantvillage -> loss1/classifier_plantvillage
I0403 15:02:59.333539 30947 net.cpp:141] Setting up loss1/classifier_plantvillage
I0403 15:02:59.333570 30947 net.cpp:148] Top shape: 24 38 (912)
I0403 15:02:59.333587 30947 net.cpp:156] Memory required for data: 946192992
I0403 15:02:59.333607 30947 layer_factory.hpp:77] Creating layer loss1/classifier_plantvillage_loss1/classifier_plantvillage_0_split
I0403 15:02:59.333627 30947 net.cpp:91] Creating Layer loss1/classifier_plantvillage_loss1/classifier_plantvillage_0_split
I0403 15:02:59.333643 30947 net.cpp:425] loss1/classifier_plantvillage_loss1/classifier_plantvillage_0_split <- loss1/classifier_plantvillage
I0403 15:02:59.333664 30947 net.cpp:399] loss1/classifier_plantvillage_loss1/classifier_plantvillage_0_split -> loss1/classifier_plantvillage_loss1/classifier_plantvillage_0_split_0
I0403 15:02:59.333694 30947 net.cpp:399] loss1/classifier_plantvillage_loss1/classifier_plantvillage_0_split -> loss1/classifier_plantvillage_loss1/classifier_plantvillage_0_split_1
I0403 15:02:59.333715 30947 net.cpp:399] loss1/classifier_plantvillage_loss1/classifier_plantvillage_0_split -> loss1/classifier_plantvillage_loss1/classifier_plantvillage_0_split_2
I0403 15:02:59.333782 30947 net.cpp:141] Setting up loss1/classifier_plantvillage_loss1/classifier_plantvillage_0_split
I0403 15:02:59.333806 30947 net.cpp:148] Top shape: 24 38 (912)
I0403 15:02:59.333822 30947 net.cpp:148] Top shape: 24 38 (912)
I0403 15:02:59.333837 30947 net.cpp:148] Top shape: 24 38 (912)
I0403 15:02:59.333852 30947 net.cpp:156] Memory required for data: 946203936
I0403 15:02:59.333866 30947 layer_factory.hpp:77] Creating layer inception_4b/1x1
I0403 15:02:59.333890 30947 net.cpp:91] Creating Layer inception_4b/1x1
I0403 15:02:59.333935 30947 net.cpp:425] inception_4b/1x1 <- inception_4a/output_inception_4a/output_0_split_1
I0403 15:02:59.333956 30947 net.cpp:399] inception_4b/1x1 -> inception_4b/1x1
I0403 15:02:59.335646 30947 net.cpp:141] Setting up inception_4b/1x1
I0403 15:02:59.335675 30947 net.cpp:148] Top shape: 24 160 14 14 (752640)
I0403 15:02:59.335691 30947 net.cpp:156] Memory required for data: 949214496
I0403 15:02:59.335711 30947 layer_factory.hpp:77] Creating layer inception_4b/relu_1x1
I0403 15:02:59.335732 30947 net.cpp:91] Creating Layer inception_4b/relu_1x1
I0403 15:02:59.335752 30947 net.cpp:425] inception_4b/relu_1x1 <- inception_4b/1x1
I0403 15:02:59.335769 30947 net.cpp:386] inception_4b/relu_1x1 -> inception_4b/1x1 (in-place)
I0403 15:02:59.335949 30947 net.cpp:141] Setting up inception_4b/relu_1x1
I0403 15:02:59.335975 30947 net.cpp:148] Top shape: 24 160 14 14 (752640)
I0403 15:02:59.335991 30947 net.cpp:156] Memory required for data: 952225056
I0403 15:02:59.336006 30947 layer_factory.hpp:77] Creating layer inception_4b/3x3_reduce
I0403 15:02:59.336030 30947 net.cpp:91] Creating Layer inception_4b/3x3_reduce
I0403 15:02:59.336048 30947 net.cpp:425] inception_4b/3x3_reduce <- inception_4a/output_inception_4a/output_0_split_2
I0403 15:02:59.336068 30947 net.cpp:399] inception_4b/3x3_reduce -> inception_4b/3x3_reduce
I0403 15:02:59.337427 30947 net.cpp:141] Setting up inception_4b/3x3_reduce
I0403 15:02:59.337456 30947 net.cpp:148] Top shape: 24 112 14 14 (526848)
I0403 15:02:59.337472 30947 net.cpp:156] Memory required for data: 954332448
I0403 15:02:59.337491 30947 layer_factory.hpp:77] Creating layer inception_4b/relu_3x3_reduce
I0403 15:02:59.337517 30947 net.cpp:91] Creating Layer inception_4b/relu_3x3_reduce
I0403 15:02:59.337534 30947 net.cpp:425] inception_4b/relu_3x3_reduce <- inception_4b/3x3_reduce
I0403 15:02:59.337553 30947 net.cpp:386] inception_4b/relu_3x3_reduce -> inception_4b/3x3_reduce (in-place)
I0403 15:02:59.337836 30947 net.cpp:141] Setting up inception_4b/relu_3x3_reduce
I0403 15:02:59.337862 30947 net.cpp:148] Top shape: 24 112 14 14 (526848)
I0403 15:02:59.337878 30947 net.cpp:156] Memory required for data: 956439840
I0403 15:02:59.337894 30947 layer_factory.hpp:77] Creating layer inception_4b/3x3
I0403 15:02:59.337916 30947 net.cpp:91] Creating Layer inception_4b/3x3
I0403 15:02:59.337935 30947 net.cpp:425] inception_4b/3x3 <- inception_4b/3x3_reduce
I0403 15:02:59.337956 30947 net.cpp:399] inception_4b/3x3 -> inception_4b/3x3
I0403 15:02:59.340966 30947 net.cpp:141] Setting up inception_4b/3x3
I0403 15:02:59.340998 30947 net.cpp:148] Top shape: 24 224 14 14 (1053696)
I0403 15:02:59.341015 30947 net.cpp:156] Memory required for data: 960654624
I0403 15:02:59.341034 30947 layer_factory.hpp:77] Creating layer inception_4b/relu_3x3
I0403 15:02:59.341054 30947 net.cpp:91] Creating Layer inception_4b/relu_3x3
I0403 15:02:59.341071 30947 net.cpp:425] inception_4b/relu_3x3 <- inception_4b/3x3
I0403 15:02:59.341092 30947 net.cpp:386] inception_4b/relu_3x3 -> inception_4b/3x3 (in-place)
I0403 15:02:59.341271 30947 net.cpp:141] Setting up inception_4b/relu_3x3
I0403 15:02:59.341297 30947 net.cpp:148] Top shape: 24 224 14 14 (1053696)
I0403 15:02:59.341313 30947 net.cpp:156] Memory required for data: 964869408
I0403 15:02:59.341333 30947 layer_factory.hpp:77] Creating layer inception_4b/5x5_reduce
I0403 15:02:59.341357 30947 net.cpp:91] Creating Layer inception_4b/5x5_reduce
I0403 15:02:59.341375 30947 net.cpp:425] inception_4b/5x5_reduce <- inception_4a/output_inception_4a/output_0_split_3
I0403 15:02:59.341398 30947 net.cpp:399] inception_4b/5x5_reduce -> inception_4b/5x5_reduce
I0403 15:02:59.342483 30947 net.cpp:141] Setting up inception_4b/5x5_reduce
I0403 15:02:59.342511 30947 net.cpp:148] Top shape: 24 24 14 14 (112896)
I0403 15:02:59.342527 30947 net.cpp:156] Memory required for data: 965320992
I0403 15:02:59.342546 30947 layer_factory.hpp:77] Creating layer inception_4b/relu_5x5_reduce
I0403 15:02:59.342567 30947 net.cpp:91] Creating Layer inception_4b/relu_5x5_reduce
I0403 15:02:59.342600 30947 net.cpp:425] inception_4b/relu_5x5_reduce <- inception_4b/5x5_reduce
I0403 15:02:59.342620 30947 net.cpp:386] inception_4b/relu_5x5_reduce -> inception_4b/5x5_reduce (in-place)
I0403 15:02:59.342800 30947 net.cpp:141] Setting up inception_4b/relu_5x5_reduce
I0403 15:02:59.342828 30947 net.cpp:148] Top shape: 24 24 14 14 (112896)
I0403 15:02:59.342844 30947 net.cpp:156] Memory required for data: 965772576
I0403 15:02:59.342859 30947 layer_factory.hpp:77] Creating layer inception_4b/5x5
I0403 15:02:59.342881 30947 net.cpp:91] Creating Layer inception_4b/5x5
I0403 15:02:59.342898 30947 net.cpp:425] inception_4b/5x5 <- inception_4b/5x5_reduce
I0403 15:02:59.342918 30947 net.cpp:399] inception_4b/5x5 -> inception_4b/5x5
I0403 15:02:59.344158 30947 net.cpp:141] Setting up inception_4b/5x5
I0403 15:02:59.344187 30947 net.cpp:148] Top shape: 24 64 14 14 (301056)
I0403 15:02:59.344202 30947 net.cpp:156] Memory required for data: 966976800
I0403 15:02:59.344221 30947 layer_factory.hpp:77] Creating layer inception_4b/relu_5x5
I0403 15:02:59.344241 30947 net.cpp:91] Creating Layer inception_4b/relu_5x5
I0403 15:02:59.344259 30947 net.cpp:425] inception_4b/relu_5x5 <- inception_4b/5x5
I0403 15:02:59.344276 30947 net.cpp:386] inception_4b/relu_5x5 -> inception_4b/5x5 (in-place)
I0403 15:02:59.344574 30947 net.cpp:141] Setting up inception_4b/relu_5x5
I0403 15:02:59.344601 30947 net.cpp:148] Top shape: 24 64 14 14 (301056)
I0403 15:02:59.344616 30947 net.cpp:156] Memory required for data: 968181024
I0403 15:02:59.344631 30947 layer_factory.hpp:77] Creating layer inception_4b/pool
I0403 15:02:59.344650 30947 net.cpp:91] Creating Layer inception_4b/pool
I0403 15:02:59.344667 30947 net.cpp:425] inception_4b/pool <- inception_4a/output_inception_4a/output_0_split_4
I0403 15:02:59.344691 30947 net.cpp:399] inception_4b/pool -> inception_4b/pool
I0403 15:02:59.344758 30947 net.cpp:141] Setting up inception_4b/pool
I0403 15:02:59.344784 30947 net.cpp:148] Top shape: 24 512 14 14 (2408448)
I0403 15:02:59.344799 30947 net.cpp:156] Memory required for data: 977814816
I0403 15:02:59.344813 30947 layer_factory.hpp:77] Creating layer inception_4b/pool_proj
I0403 15:02:59.344836 30947 net.cpp:91] Creating Layer inception_4b/pool_proj
I0403 15:02:59.344854 30947 net.cpp:425] inception_4b/pool_proj <- inception_4b/pool
I0403 15:02:59.344887 30947 net.cpp:399] inception_4b/pool_proj -> inception_4b/pool_proj
I0403 15:02:59.346040 30947 net.cpp:141] Setting up inception_4b/pool_proj
I0403 15:02:59.346068 30947 net.cpp:148] Top shape: 24 64 14 14 (301056)
I0403 15:02:59.346084 30947 net.cpp:156] Memory required for data: 979019040
I0403 15:02:59.346102 30947 layer_factory.hpp:77] Creating layer inception_4b/relu_pool_proj
I0403 15:02:59.346123 30947 net.cpp:91] Creating Layer inception_4b/relu_pool_proj
I0403 15:02:59.346154 30947 net.cpp:425] inception_4b/relu_pool_proj <- inception_4b/pool_proj
I0403 15:02:59.346174 30947 net.cpp:386] inception_4b/relu_pool_proj -> inception_4b/pool_proj (in-place)
I0403 15:02:59.346357 30947 net.cpp:141] Setting up inception_4b/relu_pool_proj
I0403 15:02:59.346384 30947 net.cpp:148] Top shape: 24 64 14 14 (301056)
I0403 15:02:59.346400 30947 net.cpp:156] Memory required for data: 980223264
I0403 15:02:59.346415 30947 layer_factory.hpp:77] Creating layer inception_4b/output
I0403 15:02:59.346434 30947 net.cpp:91] Creating Layer inception_4b/output
I0403 15:02:59.346452 30947 net.cpp:425] inception_4b/output <- inception_4b/1x1
I0403 15:02:59.346482 30947 net.cpp:425] inception_4b/output <- inception_4b/3x3
I0403 15:02:59.346498 30947 net.cpp:425] inception_4b/output <- inception_4b/5x5
I0403 15:02:59.346514 30947 net.cpp:425] inception_4b/output <- inception_4b/pool_proj
I0403 15:02:59.346530 30947 net.cpp:399] inception_4b/output -> inception_4b/output
I0403 15:02:59.346578 30947 net.cpp:141] Setting up inception_4b/output
I0403 15:02:59.346602 30947 net.cpp:148] Top shape: 24 512 14 14 (2408448)
I0403 15:02:59.346616 30947 net.cpp:156] Memory required for data: 989857056
I0403 15:02:59.346644 30947 layer_factory.hpp:77] Creating layer inception_4b/output_inception_4b/output_0_split
I0403 15:02:59.346663 30947 net.cpp:91] Creating Layer inception_4b/output_inception_4b/output_0_split
I0403 15:02:59.346679 30947 net.cpp:425] inception_4b/output_inception_4b/output_0_split <- inception_4b/output
I0403 15:02:59.346699 30947 net.cpp:399] inception_4b/output_inception_4b/output_0_split -> inception_4b/output_inception_4b/output_0_split_0
I0403 15:02:59.346720 30947 net.cpp:399] inception_4b/output_inception_4b/output_0_split -> inception_4b/output_inception_4b/output_0_split_1
I0403 15:02:59.346741 30947 net.cpp:399] inception_4b/output_inception_4b/output_0_split -> inception_4b/output_inception_4b/output_0_split_2
I0403 15:02:59.346761 30947 net.cpp:399] inception_4b/output_inception_4b/output_0_split -> inception_4b/output_inception_4b/output_0_split_3
I0403 15:02:59.346846 30947 net.cpp:141] Setting up inception_4b/output_inception_4b/output_0_split
I0403 15:02:59.346870 30947 net.cpp:148] Top shape: 24 512 14 14 (2408448)
I0403 15:02:59.346885 30947 net.cpp:148] Top shape: 24 512 14 14 (2408448)
I0403 15:02:59.346901 30947 net.cpp:148] Top shape: 24 512 14 14 (2408448)
I0403 15:02:59.346916 30947 net.cpp:148] Top shape: 24 512 14 14 (2408448)
I0403 15:02:59.346930 30947 net.cpp:156] Memory required for data: 1028392224
I0403 15:02:59.346945 30947 layer_factory.hpp:77] Creating layer inception_4c/1x1
I0403 15:02:59.346967 30947 net.cpp:91] Creating Layer inception_4c/1x1
I0403 15:02:59.346984 30947 net.cpp:425] inception_4c/1x1 <- inception_4b/output_inception_4b/output_0_split_0
I0403 15:02:59.347005 30947 net.cpp:399] inception_4c/1x1 -> inception_4c/1x1
I0403 15:02:59.348426 30947 net.cpp:141] Setting up inception_4c/1x1
I0403 15:02:59.348455 30947 net.cpp:148] Top shape: 24 128 14 14 (602112)
I0403 15:02:59.348470 30947 net.cpp:156] Memory required for data: 1030800672
I0403 15:02:59.348492 30947 layer_factory.hpp:77] Creating layer inception_4c/relu_1x1
I0403 15:02:59.348511 30947 net.cpp:91] Creating Layer inception_4c/relu_1x1
I0403 15:02:59.348527 30947 net.cpp:425] inception_4c/relu_1x1 <- inception_4c/1x1
I0403 15:02:59.348544 30947 net.cpp:386] inception_4c/relu_1x1 -> inception_4c/1x1 (in-place)
I0403 15:02:59.348721 30947 net.cpp:141] Setting up inception_4c/relu_1x1
I0403 15:02:59.348747 30947 net.cpp:148] Top shape: 24 128 14 14 (602112)
I0403 15:02:59.348762 30947 net.cpp:156] Memory required for data: 1033209120
I0403 15:02:59.348775 30947 layer_factory.hpp:77] Creating layer inception_4c/3x3_reduce
I0403 15:02:59.348796 30947 net.cpp:91] Creating Layer inception_4c/3x3_reduce
I0403 15:02:59.348814 30947 net.cpp:425] inception_4c/3x3_reduce <- inception_4b/output_inception_4b/output_0_split_1
I0403 15:02:59.348835 30947 net.cpp:399] inception_4c/3x3_reduce -> inception_4c/3x3_reduce
I0403 15:02:59.350778 30947 net.cpp:141] Setting up inception_4c/3x3_reduce
I0403 15:02:59.350808 30947 net.cpp:148] Top shape: 24 128 14 14 (602112)
I0403 15:02:59.350824 30947 net.cpp:156] Memory required for data: 1035617568
I0403 15:02:59.350843 30947 layer_factory.hpp:77] Creating layer inception_4c/relu_3x3_reduce
I0403 15:02:59.350863 30947 net.cpp:91] Creating Layer inception_4c/relu_3x3_reduce
I0403 15:02:59.350891 30947 net.cpp:425] inception_4c/relu_3x3_reduce <- inception_4c/3x3_reduce
I0403 15:02:59.350911 30947 net.cpp:386] inception_4c/relu_3x3_reduce -> inception_4c/3x3_reduce (in-place)
I0403 15:02:59.351197 30947 net.cpp:141] Setting up inception_4c/relu_3x3_reduce
I0403 15:02:59.351222 30947 net.cpp:148] Top shape: 24 128 14 14 (602112)
I0403 15:02:59.351238 30947 net.cpp:156] Memory required for data: 1038026016
I0403 15:02:59.351251 30947 layer_factory.hpp:77] Creating layer inception_4c/3x3
I0403 15:02:59.351275 30947 net.cpp:91] Creating Layer inception_4c/3x3
I0403 15:02:59.351294 30947 net.cpp:425] inception_4c/3x3 <- inception_4c/3x3_reduce
I0403 15:02:59.351320 30947 net.cpp:399] inception_4c/3x3 -> inception_4c/3x3
I0403 15:02:59.354887 30947 net.cpp:141] Setting up inception_4c/3x3
I0403 15:02:59.354928 30947 net.cpp:148] Top shape: 24 256 14 14 (1204224)
I0403 15:02:59.354945 30947 net.cpp:156] Memory required for data: 1042842912
I0403 15:02:59.354977 30947 layer_factory.hpp:77] Creating layer inception_4c/relu_3x3
I0403 15:02:59.355001 30947 net.cpp:91] Creating Layer inception_4c/relu_3x3
I0403 15:02:59.355018 30947 net.cpp:425] inception_4c/relu_3x3 <- inception_4c/3x3
I0403 15:02:59.355036 30947 net.cpp:386] inception_4c/relu_3x3 -> inception_4c/3x3 (in-place)
I0403 15:02:59.355232 30947 net.cpp:141] Setting up inception_4c/relu_3x3
I0403 15:02:59.355258 30947 net.cpp:148] Top shape: 24 256 14 14 (1204224)
I0403 15:02:59.355273 30947 net.cpp:156] Memory required for data: 1047659808
I0403 15:02:59.355288 30947 layer_factory.hpp:77] Creating layer inception_4c/5x5_reduce
I0403 15:02:59.355311 30947 net.cpp:91] Creating Layer inception_4c/5x5_reduce
I0403 15:02:59.355334 30947 net.cpp:425] inception_4c/5x5_reduce <- inception_4b/output_inception_4b/output_0_split_2
I0403 15:02:59.355370 30947 net.cpp:399] inception_4c/5x5_reduce -> inception_4c/5x5_reduce
I0403 15:02:59.356428 30947 net.cpp:141] Setting up inception_4c/5x5_reduce
I0403 15:02:59.356456 30947 net.cpp:148] Top shape: 24 24 14 14 (112896)
I0403 15:02:59.356472 30947 net.cpp:156] Memory required for data: 1048111392
I0403 15:02:59.356490 30947 layer_factory.hpp:77] Creating layer inception_4c/relu_5x5_reduce
I0403 15:02:59.356511 30947 net.cpp:91] Creating Layer inception_4c/relu_5x5_reduce
I0403 15:02:59.356528 30947 net.cpp:425] inception_4c/relu_5x5_reduce <- inception_4c/5x5_reduce
I0403 15:02:59.356562 30947 net.cpp:386] inception_4c/relu_5x5_reduce -> inception_4c/5x5_reduce (in-place)
I0403 15:02:59.356747 30947 net.cpp:141] Setting up inception_4c/relu_5x5_reduce
I0403 15:02:59.356775 30947 net.cpp:148] Top shape: 24 24 14 14 (112896)
I0403 15:02:59.356791 30947 net.cpp:156] Memory required for data: 1048562976
I0403 15:02:59.356807 30947 layer_factory.hpp:77] Creating layer inception_4c/5x5
I0403 15:02:59.356827 30947 net.cpp:91] Creating Layer inception_4c/5x5
I0403 15:02:59.356856 30947 net.cpp:425] inception_4c/5x5 <- inception_4c/5x5_reduce
I0403 15:02:59.356878 30947 net.cpp:399] inception_4c/5x5 -> inception_4c/5x5
I0403 15:02:59.358094 30947 net.cpp:141] Setting up inception_4c/5x5
I0403 15:02:59.358122 30947 net.cpp:148] Top shape: 24 64 14 14 (301056)
I0403 15:02:59.358139 30947 net.cpp:156] Memory required for data: 1049767200
I0403 15:02:59.358156 30947 layer_factory.hpp:77] Creating layer inception_4c/relu_5x5
I0403 15:02:59.358177 30947 net.cpp:91] Creating Layer inception_4c/relu_5x5
I0403 15:02:59.358196 30947 net.cpp:425] inception_4c/relu_5x5 <- inception_4c/5x5
I0403 15:02:59.358213 30947 net.cpp:386] inception_4c/relu_5x5 -> inception_4c/5x5 (in-place)
I0403 15:02:59.358515 30947 net.cpp:141] Setting up inception_4c/relu_5x5
I0403 15:02:59.358543 30947 net.cpp:148] Top shape: 24 64 14 14 (301056)
I0403 15:02:59.358558 30947 net.cpp:156] Memory required for data: 1050971424
I0403 15:02:59.358573 30947 layer_factory.hpp:77] Creating layer inception_4c/pool
I0403 15:02:59.358593 30947 net.cpp:91] Creating Layer inception_4c/pool
I0403 15:02:59.358611 30947 net.cpp:425] inception_4c/pool <- inception_4b/output_inception_4b/output_0_split_3
I0403 15:02:59.358630 30947 net.cpp:399] inception_4c/pool -> inception_4c/pool
I0403 15:02:59.358695 30947 net.cpp:141] Setting up inception_4c/pool
I0403 15:02:59.358721 30947 net.cpp:148] Top shape: 24 512 14 14 (2408448)
I0403 15:02:59.358734 30947 net.cpp:156] Memory required for data: 1060605216
I0403 15:02:59.358748 30947 layer_factory.hpp:77] Creating layer inception_4c/pool_proj
I0403 15:02:59.358772 30947 net.cpp:91] Creating Layer inception_4c/pool_proj
I0403 15:02:59.358788 30947 net.cpp:425] inception_4c/pool_proj <- inception_4c/pool
I0403 15:02:59.358809 30947 net.cpp:399] inception_4c/pool_proj -> inception_4c/pool_proj
I0403 15:02:59.360024 30947 net.cpp:141] Setting up inception_4c/pool_proj
I0403 15:02:59.360052 30947 net.cpp:148] Top shape: 24 64 14 14 (301056)
I0403 15:02:59.360082 30947 net.cpp:156] Memory required for data: 1061809440
I0403 15:02:59.360102 30947 layer_factory.hpp:77] Creating layer inception_4c/relu_pool_proj
I0403 15:02:59.360123 30947 net.cpp:91] Creating Layer inception_4c/relu_pool_proj
I0403 15:02:59.360141 30947 net.cpp:425] inception_4c/relu_pool_proj <- inception_4c/pool_proj
I0403 15:02:59.360160 30947 net.cpp:386] inception_4c/relu_pool_proj -> inception_4c/pool_proj (in-place)
I0403 15:02:59.360362 30947 net.cpp:141] Setting up inception_4c/relu_pool_proj
I0403 15:02:59.360386 30947 net.cpp:148] Top shape: 24 64 14 14 (301056)
I0403 15:02:59.360401 30947 net.cpp:156] Memory required for data: 1063013664
I0403 15:02:59.360416 30947 layer_factory.hpp:77] Creating layer inception_4c/output
I0403 15:02:59.360436 30947 net.cpp:91] Creating Layer inception_4c/output
I0403 15:02:59.360453 30947 net.cpp:425] inception_4c/output <- inception_4c/1x1
I0403 15:02:59.360471 30947 net.cpp:425] inception_4c/output <- inception_4c/3x3
I0403 15:02:59.360487 30947 net.cpp:425] inception_4c/output <- inception_4c/5x5
I0403 15:02:59.360503 30947 net.cpp:425] inception_4c/output <- inception_4c/pool_proj
I0403 15:02:59.360533 30947 net.cpp:399] inception_4c/output -> inception_4c/output
I0403 15:02:59.360580 30947 net.cpp:141] Setting up inception_4c/output
I0403 15:02:59.360605 30947 net.cpp:148] Top shape: 24 512 14 14 (2408448)
I0403 15:02:59.360620 30947 net.cpp:156] Memory required for data: 1072647456
I0403 15:02:59.360633 30947 layer_factory.hpp:77] Creating layer inception_4c/output_inception_4c/output_0_split
I0403 15:02:59.360651 30947 net.cpp:91] Creating Layer inception_4c/output_inception_4c/output_0_split
I0403 15:02:59.360666 30947 net.cpp:425] inception_4c/output_inception_4c/output_0_split <- inception_4c/output
I0403 15:02:59.360687 30947 net.cpp:399] inception_4c/output_inception_4c/output_0_split -> inception_4c/output_inception_4c/output_0_split_0
I0403 15:02:59.360708 30947 net.cpp:399] inception_4c/output_inception_4c/output_0_split -> inception_4c/output_inception_4c/output_0_split_1
I0403 15:02:59.360729 30947 net.cpp:399] inception_4c/output_inception_4c/output_0_split -> inception_4c/output_inception_4c/output_0_split_2
I0403 15:02:59.360749 30947 net.cpp:399] inception_4c/output_inception_4c/output_0_split -> inception_4c/output_inception_4c/output_0_split_3
I0403 15:02:59.360832 30947 net.cpp:141] Setting up inception_4c/output_inception_4c/output_0_split
I0403 15:02:59.360858 30947 net.cpp:148] Top shape: 24 512 14 14 (2408448)
I0403 15:02:59.360875 30947 net.cpp:148] Top shape: 24 512 14 14 (2408448)
I0403 15:02:59.360890 30947 net.cpp:148] Top shape: 24 512 14 14 (2408448)
I0403 15:02:59.360906 30947 net.cpp:148] Top shape: 24 512 14 14 (2408448)
I0403 15:02:59.360919 30947 net.cpp:156] Memory required for data: 1111182624
I0403 15:02:59.360934 30947 layer_factory.hpp:77] Creating layer inception_4d/1x1
I0403 15:02:59.360955 30947 net.cpp:91] Creating Layer inception_4d/1x1
I0403 15:02:59.360975 30947 net.cpp:425] inception_4d/1x1 <- inception_4c/output_inception_4c/output_0_split_0
I0403 15:02:59.360994 30947 net.cpp:399] inception_4d/1x1 -> inception_4d/1x1
I0403 15:02:59.362375 30947 net.cpp:141] Setting up inception_4d/1x1
I0403 15:02:59.362404 30947 net.cpp:148] Top shape: 24 112 14 14 (526848)
I0403 15:02:59.362421 30947 net.cpp:156] Memory required for data: 1113290016
I0403 15:02:59.362438 30947 layer_factory.hpp:77] Creating layer inception_4d/relu_1x1
I0403 15:02:59.362455 30947 net.cpp:91] Creating Layer inception_4d/relu_1x1
I0403 15:02:59.362471 30947 net.cpp:425] inception_4d/relu_1x1 <- inception_4d/1x1
I0403 15:02:59.362491 30947 net.cpp:386] inception_4d/relu_1x1 -> inception_4d/1x1 (in-place)
I0403 15:02:59.362684 30947 net.cpp:141] Setting up inception_4d/relu_1x1
I0403 15:02:59.362710 30947 net.cpp:148] Top shape: 24 112 14 14 (526848)
I0403 15:02:59.362725 30947 net.cpp:156] Memory required for data: 1115397408
I0403 15:02:59.362740 30947 layer_factory.hpp:77] Creating layer inception_4d/3x3_reduce
I0403 15:02:59.362776 30947 net.cpp:91] Creating Layer inception_4d/3x3_reduce
I0403 15:02:59.362795 30947 net.cpp:425] inception_4d/3x3_reduce <- inception_4c/output_inception_4c/output_0_split_1
I0403 15:02:59.362818 30947 net.cpp:399] inception_4d/3x3_reduce -> inception_4d/3x3_reduce
I0403 15:02:59.364334 30947 net.cpp:141] Setting up inception_4d/3x3_reduce
I0403 15:02:59.364377 30947 net.cpp:148] Top shape: 24 144 14 14 (677376)
I0403 15:02:59.364393 30947 net.cpp:156] Memory required for data: 1118106912
I0403 15:02:59.364413 30947 layer_factory.hpp:77] Creating layer inception_4d/relu_3x3_reduce
I0403 15:02:59.364430 30947 net.cpp:91] Creating Layer inception_4d/relu_3x3_reduce
I0403 15:02:59.364446 30947 net.cpp:425] inception_4d/relu_3x3_reduce <- inception_4d/3x3_reduce
I0403 15:02:59.364464 30947 net.cpp:386] inception_4d/relu_3x3_reduce -> inception_4d/3x3_reduce (in-place)
I0403 15:02:59.364753 30947 net.cpp:141] Setting up inception_4d/relu_3x3_reduce
I0403 15:02:59.364780 30947 net.cpp:148] Top shape: 24 144 14 14 (677376)
I0403 15:02:59.364795 30947 net.cpp:156] Memory required for data: 1120816416
I0403 15:02:59.364810 30947 layer_factory.hpp:77] Creating layer inception_4d/3x3
I0403 15:02:59.364832 30947 net.cpp:91] Creating Layer inception_4d/3x3
I0403 15:02:59.364851 30947 net.cpp:425] inception_4d/3x3 <- inception_4d/3x3_reduce
I0403 15:02:59.364871 30947 net.cpp:399] inception_4d/3x3 -> inception_4d/3x3
I0403 15:02:59.369107 30947 net.cpp:141] Setting up inception_4d/3x3
I0403 15:02:59.369137 30947 net.cpp:148] Top shape: 24 288 14 14 (1354752)
I0403 15:02:59.369151 30947 net.cpp:156] Memory required for data: 1126235424
I0403 15:02:59.369170 30947 layer_factory.hpp:77] Creating layer inception_4d/relu_3x3
I0403 15:02:59.369190 30947 net.cpp:91] Creating Layer inception_4d/relu_3x3
I0403 15:02:59.369206 30947 net.cpp:425] inception_4d/relu_3x3 <- inception_4d/3x3
I0403 15:02:59.369225 30947 net.cpp:386] inception_4d/relu_3x3 -> inception_4d/3x3 (in-place)
I0403 15:02:59.369407 30947 net.cpp:141] Setting up inception_4d/relu_3x3
I0403 15:02:59.369433 30947 net.cpp:148] Top shape: 24 288 14 14 (1354752)
I0403 15:02:59.369448 30947 net.cpp:156] Memory required for data: 1131654432
I0403 15:02:59.369464 30947 layer_factory.hpp:77] Creating layer inception_4d/5x5_reduce
I0403 15:02:59.369488 30947 net.cpp:91] Creating Layer inception_4d/5x5_reduce
I0403 15:02:59.369505 30947 net.cpp:425] inception_4d/5x5_reduce <- inception_4c/output_inception_4c/output_0_split_2
I0403 15:02:59.369526 30947 net.cpp:399] inception_4d/5x5_reduce -> inception_4d/5x5_reduce
I0403 15:02:59.370684 30947 net.cpp:141] Setting up inception_4d/5x5_reduce
I0403 15:02:59.370714 30947 net.cpp:148] Top shape: 24 32 14 14 (150528)
I0403 15:02:59.370730 30947 net.cpp:156] Memory required for data: 1132256544
I0403 15:02:59.370749 30947 layer_factory.hpp:77] Creating layer inception_4d/relu_5x5_reduce
I0403 15:02:59.370769 30947 net.cpp:91] Creating Layer inception_4d/relu_5x5_reduce
I0403 15:02:59.370784 30947 net.cpp:425] inception_4d/relu_5x5_reduce <- inception_4d/5x5_reduce
I0403 15:02:59.370802 30947 net.cpp:386] inception_4d/relu_5x5_reduce -> inception_4d/5x5_reduce (in-place)
I0403 15:02:59.370985 30947 net.cpp:141] Setting up inception_4d/relu_5x5_reduce
I0403 15:02:59.371011 30947 net.cpp:148] Top shape: 24 32 14 14 (150528)
I0403 15:02:59.371024 30947 net.cpp:156] Memory required for data: 1132858656
I0403 15:02:59.371040 30947 layer_factory.hpp:77] Creating layer inception_4d/5x5
I0403 15:02:59.371062 30947 net.cpp:91] Creating Layer inception_4d/5x5
I0403 15:02:59.371080 30947 net.cpp:425] inception_4d/5x5 <- inception_4d/5x5_reduce
I0403 15:02:59.371100 30947 net.cpp:399] inception_4d/5x5 -> inception_4d/5x5
I0403 15:02:59.372584 30947 net.cpp:141] Setting up inception_4d/5x5
I0403 15:02:59.372614 30947 net.cpp:148] Top shape: 24 64 14 14 (301056)
I0403 15:02:59.372630 30947 net.cpp:156] Memory required for data: 1134062880
I0403 15:02:59.372650 30947 layer_factory.hpp:77] Creating layer inception_4d/relu_5x5
I0403 15:02:59.372686 30947 net.cpp:91] Creating Layer inception_4d/relu_5x5
I0403 15:02:59.372705 30947 net.cpp:425] inception_4d/relu_5x5 <- inception_4d/5x5
I0403 15:02:59.372725 30947 net.cpp:386] inception_4d/relu_5x5 -> inception_4d/5x5 (in-place)
I0403 15:02:59.373028 30947 net.cpp:141] Setting up inception_4d/relu_5x5
I0403 15:02:59.373055 30947 net.cpp:148] Top shape: 24 64 14 14 (301056)
I0403 15:02:59.373071 30947 net.cpp:156] Memory required for data: 1135267104
I0403 15:02:59.373086 30947 layer_factory.hpp:77] Creating layer inception_4d/pool
I0403 15:02:59.373107 30947 net.cpp:91] Creating Layer inception_4d/pool
I0403 15:02:59.373124 30947 net.cpp:425] inception_4d/pool <- inception_4c/output_inception_4c/output_0_split_3
I0403 15:02:59.373143 30947 net.cpp:399] inception_4d/pool -> inception_4d/pool
I0403 15:02:59.373214 30947 net.cpp:141] Setting up inception_4d/pool
I0403 15:02:59.373241 30947 net.cpp:148] Top shape: 24 512 14 14 (2408448)
I0403 15:02:59.373256 30947 net.cpp:156] Memory required for data: 1144900896
I0403 15:02:59.373271 30947 layer_factory.hpp:77] Creating layer inception_4d/pool_proj
I0403 15:02:59.373294 30947 net.cpp:91] Creating Layer inception_4d/pool_proj
I0403 15:02:59.373312 30947 net.cpp:425] inception_4d/pool_proj <- inception_4d/pool
I0403 15:02:59.373339 30947 net.cpp:399] inception_4d/pool_proj -> inception_4d/pool_proj
I0403 15:02:59.375113 30947 net.cpp:141] Setting up inception_4d/pool_proj
I0403 15:02:59.375144 30947 net.cpp:148] Top shape: 24 64 14 14 (301056)
I0403 15:02:59.375159 30947 net.cpp:156] Memory required for data: 1146105120
I0403 15:02:59.375180 30947 layer_factory.hpp:77] Creating layer inception_4d/relu_pool_proj
I0403 15:02:59.375198 30947 net.cpp:91] Creating Layer inception_4d/relu_pool_proj
I0403 15:02:59.375216 30947 net.cpp:425] inception_4d/relu_pool_proj <- inception_4d/pool_proj
I0403 15:02:59.375236 30947 net.cpp:386] inception_4d/relu_pool_proj -> inception_4d/pool_proj (in-place)
I0403 15:02:59.375428 30947 net.cpp:141] Setting up inception_4d/relu_pool_proj
I0403 15:02:59.375457 30947 net.cpp:148] Top shape: 24 64 14 14 (301056)
I0403 15:02:59.375471 30947 net.cpp:156] Memory required for data: 1147309344
I0403 15:02:59.375486 30947 layer_factory.hpp:77] Creating layer inception_4d/output
I0403 15:02:59.375509 30947 net.cpp:91] Creating Layer inception_4d/output
I0403 15:02:59.375526 30947 net.cpp:425] inception_4d/output <- inception_4d/1x1
I0403 15:02:59.375545 30947 net.cpp:425] inception_4d/output <- inception_4d/3x3
I0403 15:02:59.375561 30947 net.cpp:425] inception_4d/output <- inception_4d/5x5
I0403 15:02:59.375577 30947 net.cpp:425] inception_4d/output <- inception_4d/pool_proj
I0403 15:02:59.375596 30947 net.cpp:399] inception_4d/output -> inception_4d/output
I0403 15:02:59.375644 30947 net.cpp:141] Setting up inception_4d/output
I0403 15:02:59.375669 30947 net.cpp:148] Top shape: 24 528 14 14 (2483712)
I0403 15:02:59.375685 30947 net.cpp:156] Memory required for data: 1157244192
I0403 15:02:59.375700 30947 layer_factory.hpp:77] Creating layer inception_4d/output_inception_4d/output_0_split
I0403 15:02:59.375720 30947 net.cpp:91] Creating Layer inception_4d/output_inception_4d/output_0_split
I0403 15:02:59.375735 30947 net.cpp:425] inception_4d/output_inception_4d/output_0_split <- inception_4d/output
I0403 15:02:59.375754 30947 net.cpp:399] inception_4d/output_inception_4d/output_0_split -> inception_4d/output_inception_4d/output_0_split_0
I0403 15:02:59.375777 30947 net.cpp:399] inception_4d/output_inception_4d/output_0_split -> inception_4d/output_inception_4d/output_0_split_1
I0403 15:02:59.375798 30947 net.cpp:399] inception_4d/output_inception_4d/output_0_split -> inception_4d/output_inception_4d/output_0_split_2
I0403 15:02:59.375820 30947 net.cpp:399] inception_4d/output_inception_4d/output_0_split -> inception_4d/output_inception_4d/output_0_split_3
I0403 15:02:59.375843 30947 net.cpp:399] inception_4d/output_inception_4d/output_0_split -> inception_4d/output_inception_4d/output_0_split_4
I0403 15:02:59.375948 30947 net.cpp:141] Setting up inception_4d/output_inception_4d/output_0_split
I0403 15:02:59.375987 30947 net.cpp:148] Top shape: 24 528 14 14 (2483712)
I0403 15:02:59.376006 30947 net.cpp:148] Top shape: 24 528 14 14 (2483712)
I0403 15:02:59.376024 30947 net.cpp:148] Top shape: 24 528 14 14 (2483712)
I0403 15:02:59.376040 30947 net.cpp:148] Top shape: 24 528 14 14 (2483712)
I0403 15:02:59.376056 30947 net.cpp:148] Top shape: 24 528 14 14 (2483712)
I0403 15:02:59.376071 30947 net.cpp:156] Memory required for data: 1206918432
I0403 15:02:59.376087 30947 layer_factory.hpp:77] Creating layer loss2/ave_pool
I0403 15:02:59.376106 30947 net.cpp:91] Creating Layer loss2/ave_pool
I0403 15:02:59.376121 30947 net.cpp:425] loss2/ave_pool <- inception_4d/output_inception_4d/output_0_split_0
I0403 15:02:59.376142 30947 net.cpp:399] loss2/ave_pool -> loss2/ave_pool
I0403 15:02:59.376478 30947 net.cpp:141] Setting up loss2/ave_pool
I0403 15:02:59.376507 30947 net.cpp:148] Top shape: 24 528 4 4 (202752)
I0403 15:02:59.376523 30947 net.cpp:156] Memory required for data: 1207729440
I0403 15:02:59.376539 30947 layer_factory.hpp:77] Creating layer loss2/conv
I0403 15:02:59.376562 30947 net.cpp:91] Creating Layer loss2/conv
I0403 15:02:59.376581 30947 net.cpp:425] loss2/conv <- loss2/ave_pool
I0403 15:02:59.376603 30947 net.cpp:399] loss2/conv -> loss2/conv
I0403 15:02:59.378577 30947 net.cpp:141] Setting up loss2/conv
I0403 15:02:59.378608 30947 net.cpp:148] Top shape: 24 128 4 4 (49152)
I0403 15:02:59.378624 30947 net.cpp:156] Memory required for data: 1207926048
I0403 15:02:59.378644 30947 layer_factory.hpp:77] Creating layer loss2/relu_conv
I0403 15:02:59.378679 30947 net.cpp:91] Creating Layer loss2/relu_conv
I0403 15:02:59.378696 30947 net.cpp:425] loss2/relu_conv <- loss2/conv
I0403 15:02:59.378715 30947 net.cpp:386] loss2/relu_conv -> loss2/conv (in-place)
I0403 15:02:59.379014 30947 net.cpp:141] Setting up loss2/relu_conv
I0403 15:02:59.379041 30947 net.cpp:148] Top shape: 24 128 4 4 (49152)
I0403 15:02:59.379057 30947 net.cpp:156] Memory required for data: 1208122656
I0403 15:02:59.379073 30947 layer_factory.hpp:77] Creating layer loss2/fc
I0403 15:02:59.379096 30947 net.cpp:91] Creating Layer loss2/fc
I0403 15:02:59.379112 30947 net.cpp:425] loss2/fc <- loss2/conv
I0403 15:02:59.379132 30947 net.cpp:399] loss2/fc -> loss2/fc
I0403 15:02:59.397136 30947 net.cpp:141] Setting up loss2/fc
I0403 15:02:59.397178 30947 net.cpp:148] Top shape: 24 1024 (24576)
I0403 15:02:59.397194 30947 net.cpp:156] Memory required for data: 1208220960
I0403 15:02:59.397212 30947 layer_factory.hpp:77] Creating layer loss2/relu_fc
I0403 15:02:59.397233 30947 net.cpp:91] Creating Layer loss2/relu_fc
I0403 15:02:59.397251 30947 net.cpp:425] loss2/relu_fc <- loss2/fc
I0403 15:02:59.397272 30947 net.cpp:386] loss2/relu_fc -> loss2/fc (in-place)
I0403 15:02:59.397608 30947 net.cpp:141] Setting up loss2/relu_fc
I0403 15:02:59.397635 30947 net.cpp:148] Top shape: 24 1024 (24576)
I0403 15:02:59.397651 30947 net.cpp:156] Memory required for data: 1208319264
I0403 15:02:59.397668 30947 layer_factory.hpp:77] Creating layer loss2/drop_fc
I0403 15:02:59.397686 30947 net.cpp:91] Creating Layer loss2/drop_fc
I0403 15:02:59.397703 30947 net.cpp:425] loss2/drop_fc <- loss2/fc
I0403 15:02:59.397724 30947 net.cpp:386] loss2/drop_fc -> loss2/fc (in-place)
I0403 15:02:59.397773 30947 net.cpp:141] Setting up loss2/drop_fc
I0403 15:02:59.397801 30947 net.cpp:148] Top shape: 24 1024 (24576)
I0403 15:02:59.397819 30947 net.cpp:156] Memory required for data: 1208417568
I0403 15:02:59.397833 30947 layer_factory.hpp:77] Creating layer loss2/classifier_plantvillage
I0403 15:02:59.397857 30947 net.cpp:91] Creating Layer loss2/classifier_plantvillage
I0403 15:02:59.397874 30947 net.cpp:425] loss2/classifier_plantvillage <- loss2/fc
I0403 15:02:59.397896 30947 net.cpp:399] loss2/classifier_plantvillage -> loss2/classifier_plantvillage
I0403 15:02:59.398325 30947 net.cpp:141] Setting up loss2/classifier_plantvillage
I0403 15:02:59.398355 30947 net.cpp:148] Top shape: 24 38 (912)
I0403 15:02:59.398371 30947 net.cpp:156] Memory required for data: 1208421216
I0403 15:02:59.398411 30947 layer_factory.hpp:77] Creating layer loss2/classifier_plantvillage_loss2/classifier_plantvillage_0_split
I0403 15:02:59.398433 30947 net.cpp:91] Creating Layer loss2/classifier_plantvillage_loss2/classifier_plantvillage_0_split
I0403 15:02:59.398452 30947 net.cpp:425] loss2/classifier_plantvillage_loss2/classifier_plantvillage_0_split <- loss2/classifier_plantvillage
I0403 15:02:59.398470 30947 net.cpp:399] loss2/classifier_plantvillage_loss2/classifier_plantvillage_0_split -> loss2/classifier_plantvillage_loss2/classifier_plantvillage_0_split_0
I0403 15:02:59.398491 30947 net.cpp:399] loss2/classifier_plantvillage_loss2/classifier_plantvillage_0_split -> loss2/classifier_plantvillage_loss2/classifier_plantvillage_0_split_1
I0403 15:02:59.398516 30947 net.cpp:399] loss2/classifier_plantvillage_loss2/classifier_plantvillage_0_split -> loss2/classifier_plantvillage_loss2/classifier_plantvillage_0_split_2
I0403 15:02:59.398612 30947 net.cpp:141] Setting up loss2/classifier_plantvillage_loss2/classifier_plantvillage_0_split
I0403 15:02:59.398635 30947 net.cpp:148] Top shape: 24 38 (912)
I0403 15:02:59.398653 30947 net.cpp:148] Top shape: 24 38 (912)
I0403 15:02:59.398669 30947 net.cpp:148] Top shape: 24 38 (912)
I0403 15:02:59.398684 30947 net.cpp:156] Memory required for data: 1208432160
I0403 15:02:59.398699 30947 layer_factory.hpp:77] Creating layer inception_4e/1x1
I0403 15:02:59.398720 30947 net.cpp:91] Creating Layer inception_4e/1x1
I0403 15:02:59.398737 30947 net.cpp:425] inception_4e/1x1 <- inception_4d/output_inception_4d/output_0_split_1
I0403 15:02:59.398761 30947 net.cpp:399] inception_4e/1x1 -> inception_4e/1x1
I0403 15:02:59.400625 30947 net.cpp:141] Setting up inception_4e/1x1
I0403 15:02:59.400656 30947 net.cpp:148] Top shape: 24 256 14 14 (1204224)
I0403 15:02:59.400673 30947 net.cpp:156] Memory required for data: 1213249056
I0403 15:02:59.400692 30947 layer_factory.hpp:77] Creating layer inception_4e/relu_1x1
I0403 15:02:59.400713 30947 net.cpp:91] Creating Layer inception_4e/relu_1x1
I0403 15:02:59.400732 30947 net.cpp:425] inception_4e/relu_1x1 <- inception_4e/1x1
I0403 15:02:59.400750 30947 net.cpp:386] inception_4e/relu_1x1 -> inception_4e/1x1 (in-place)
I0403 15:02:59.401056 30947 net.cpp:141] Setting up inception_4e/relu_1x1
I0403 15:02:59.401083 30947 net.cpp:148] Top shape: 24 256 14 14 (1204224)
I0403 15:02:59.401099 30947 net.cpp:156] Memory required for data: 1218065952
I0403 15:02:59.401114 30947 layer_factory.hpp:77] Creating layer inception_4e/3x3_reduce
I0403 15:02:59.401140 30947 net.cpp:91] Creating Layer inception_4e/3x3_reduce
I0403 15:02:59.401160 30947 net.cpp:425] inception_4e/3x3_reduce <- inception_4d/output_inception_4d/output_0_split_2
I0403 15:02:59.401186 30947 net.cpp:399] inception_4e/3x3_reduce -> inception_4e/3x3_reduce
I0403 15:02:59.403378 30947 net.cpp:141] Setting up inception_4e/3x3_reduce
I0403 15:02:59.403408 30947 net.cpp:148] Top shape: 24 160 14 14 (752640)
I0403 15:02:59.403424 30947 net.cpp:156] Memory required for data: 1221076512
I0403 15:02:59.403444 30947 layer_factory.hpp:77] Creating layer inception_4e/relu_3x3_reduce
I0403 15:02:59.403465 30947 net.cpp:91] Creating Layer inception_4e/relu_3x3_reduce
I0403 15:02:59.403483 30947 net.cpp:425] inception_4e/relu_3x3_reduce <- inception_4e/3x3_reduce
I0403 15:02:59.403502 30947 net.cpp:386] inception_4e/relu_3x3_reduce -> inception_4e/3x3_reduce (in-place)
I0403 15:02:59.403694 30947 net.cpp:141] Setting up inception_4e/relu_3x3_reduce
I0403 15:02:59.403723 30947 net.cpp:148] Top shape: 24 160 14 14 (752640)
I0403 15:02:59.403741 30947 net.cpp:156] Memory required for data: 1224087072
I0403 15:02:59.403758 30947 layer_factory.hpp:77] Creating layer inception_4e/3x3
I0403 15:02:59.403779 30947 net.cpp:91] Creating Layer inception_4e/3x3
I0403 15:02:59.403797 30947 net.cpp:425] inception_4e/3x3 <- inception_4e/3x3_reduce
I0403 15:02:59.403817 30947 net.cpp:399] inception_4e/3x3 -> inception_4e/3x3
I0403 15:02:59.409075 30947 net.cpp:141] Setting up inception_4e/3x3
I0403 15:02:59.409121 30947 net.cpp:148] Top shape: 24 320 14 14 (1505280)
I0403 15:02:59.409139 30947 net.cpp:156] Memory required for data: 1230108192
I0403 15:02:59.409160 30947 layer_factory.hpp:77] Creating layer inception_4e/relu_3x3
I0403 15:02:59.409180 30947 net.cpp:91] Creating Layer inception_4e/relu_3x3
I0403 15:02:59.409199 30947 net.cpp:425] inception_4e/relu_3x3 <- inception_4e/3x3
I0403 15:02:59.409220 30947 net.cpp:386] inception_4e/relu_3x3 -> inception_4e/3x3 (in-place)
I0403 15:02:59.409538 30947 net.cpp:141] Setting up inception_4e/relu_3x3
I0403 15:02:59.409569 30947 net.cpp:148] Top shape: 24 320 14 14 (1505280)
I0403 15:02:59.409585 30947 net.cpp:156] Memory required for data: 1236129312
I0403 15:02:59.409602 30947 layer_factory.hpp:77] Creating layer inception_4e/5x5_reduce
I0403 15:02:59.409627 30947 net.cpp:91] Creating Layer inception_4e/5x5_reduce
I0403 15:02:59.409646 30947 net.cpp:425] inception_4e/5x5_reduce <- inception_4d/output_inception_4d/output_0_split_3
I0403 15:02:59.409668 30947 net.cpp:399] inception_4e/5x5_reduce -> inception_4e/5x5_reduce
I0403 15:02:59.410785 30947 net.cpp:141] Setting up inception_4e/5x5_reduce
I0403 15:02:59.410815 30947 net.cpp:148] Top shape: 24 32 14 14 (150528)
I0403 15:02:59.410831 30947 net.cpp:156] Memory required for data: 1236731424
I0403 15:02:59.410851 30947 layer_factory.hpp:77] Creating layer inception_4e/relu_5x5_reduce
I0403 15:02:59.410872 30947 net.cpp:91] Creating Layer inception_4e/relu_5x5_reduce
I0403 15:02:59.410890 30947 net.cpp:425] inception_4e/relu_5x5_reduce <- inception_4e/5x5_reduce
I0403 15:02:59.410909 30947 net.cpp:386] inception_4e/relu_5x5_reduce -> inception_4e/5x5_reduce (in-place)
I0403 15:02:59.411221 30947 net.cpp:141] Setting up inception_4e/relu_5x5_reduce
I0403 15:02:59.411248 30947 net.cpp:148] Top shape: 24 32 14 14 (150528)
I0403 15:02:59.411264 30947 net.cpp:156] Memory required for data: 1237333536
I0403 15:02:59.411279 30947 layer_factory.hpp:77] Creating layer inception_4e/5x5
I0403 15:02:59.411324 30947 net.cpp:91] Creating Layer inception_4e/5x5
I0403 15:02:59.411345 30947 net.cpp:425] inception_4e/5x5 <- inception_4e/5x5_reduce
I0403 15:02:59.411368 30947 net.cpp:399] inception_4e/5x5 -> inception_4e/5x5
I0403 15:02:59.413295 30947 net.cpp:141] Setting up inception_4e/5x5
I0403 15:02:59.413328 30947 net.cpp:148] Top shape: 24 128 14 14 (602112)
I0403 15:02:59.413347 30947 net.cpp:156] Memory required for data: 1239741984
I0403 15:02:59.413368 30947 layer_factory.hpp:77] Creating layer inception_4e/relu_5x5
I0403 15:02:59.413388 30947 net.cpp:91] Creating Layer inception_4e/relu_5x5
I0403 15:02:59.413405 30947 net.cpp:425] inception_4e/relu_5x5 <- inception_4e/5x5
I0403 15:02:59.413426 30947 net.cpp:386] inception_4e/relu_5x5 -> inception_4e/5x5 (in-place)
I0403 15:02:59.413633 30947 net.cpp:141] Setting up inception_4e/relu_5x5
I0403 15:02:59.413661 30947 net.cpp:148] Top shape: 24 128 14 14 (602112)
I0403 15:02:59.413677 30947 net.cpp:156] Memory required for data: 1242150432
I0403 15:02:59.413693 30947 layer_factory.hpp:77] Creating layer inception_4e/pool
I0403 15:02:59.413715 30947 net.cpp:91] Creating Layer inception_4e/pool
I0403 15:02:59.413733 30947 net.cpp:425] inception_4e/pool <- inception_4d/output_inception_4d/output_0_split_4
I0403 15:02:59.413751 30947 net.cpp:399] inception_4e/pool -> inception_4e/pool
I0403 15:02:59.413826 30947 net.cpp:141] Setting up inception_4e/pool
I0403 15:02:59.413851 30947 net.cpp:148] Top shape: 24 528 14 14 (2483712)
I0403 15:02:59.413867 30947 net.cpp:156] Memory required for data: 1252085280
I0403 15:02:59.413883 30947 layer_factory.hpp:77] Creating layer inception_4e/pool_proj
I0403 15:02:59.413908 30947 net.cpp:91] Creating Layer inception_4e/pool_proj
I0403 15:02:59.413925 30947 net.cpp:425] inception_4e/pool_proj <- inception_4e/pool
I0403 15:02:59.413947 30947 net.cpp:399] inception_4e/pool_proj -> inception_4e/pool_proj
I0403 15:02:59.415520 30947 net.cpp:141] Setting up inception_4e/pool_proj
I0403 15:02:59.415550 30947 net.cpp:148] Top shape: 24 128 14 14 (602112)
I0403 15:02:59.415583 30947 net.cpp:156] Memory required for data: 1254493728
I0403 15:02:59.415603 30947 layer_factory.hpp:77] Creating layer inception_4e/relu_pool_proj
I0403 15:02:59.415622 30947 net.cpp:91] Creating Layer inception_4e/relu_pool_proj
I0403 15:02:59.415639 30947 net.cpp:425] inception_4e/relu_pool_proj <- inception_4e/pool_proj
I0403 15:02:59.415660 30947 net.cpp:386] inception_4e/relu_pool_proj -> inception_4e/pool_proj (in-place)
I0403 15:02:59.415964 30947 net.cpp:141] Setting up inception_4e/relu_pool_proj
I0403 15:02:59.415992 30947 net.cpp:148] Top shape: 24 128 14 14 (602112)
I0403 15:02:59.416008 30947 net.cpp:156] Memory required for data: 1256902176
I0403 15:02:59.416024 30947 layer_factory.hpp:77] Creating layer inception_4e/output
I0403 15:02:59.416043 30947 net.cpp:91] Creating Layer inception_4e/output
I0403 15:02:59.416060 30947 net.cpp:425] inception_4e/output <- inception_4e/1x1
I0403 15:02:59.416079 30947 net.cpp:425] inception_4e/output <- inception_4e/3x3
I0403 15:02:59.416095 30947 net.cpp:425] inception_4e/output <- inception_4e/5x5
I0403 15:02:59.416113 30947 net.cpp:425] inception_4e/output <- inception_4e/pool_proj
I0403 15:02:59.416136 30947 net.cpp:399] inception_4e/output -> inception_4e/output
I0403 15:02:59.416187 30947 net.cpp:141] Setting up inception_4e/output
I0403 15:02:59.416214 30947 net.cpp:148] Top shape: 24 832 14 14 (3913728)
I0403 15:02:59.416230 30947 net.cpp:156] Memory required for data: 1272557088
I0403 15:02:59.416246 30947 layer_factory.hpp:77] Creating layer pool4/3x3_s2
I0403 15:02:59.416265 30947 net.cpp:91] Creating Layer pool4/3x3_s2
I0403 15:02:59.416283 30947 net.cpp:425] pool4/3x3_s2 <- inception_4e/output
I0403 15:02:59.416303 30947 net.cpp:399] pool4/3x3_s2 -> pool4/3x3_s2
I0403 15:02:59.416379 30947 net.cpp:141] Setting up pool4/3x3_s2
I0403 15:02:59.416405 30947 net.cpp:148] Top shape: 24 832 7 7 (978432)
I0403 15:02:59.416420 30947 net.cpp:156] Memory required for data: 1276470816
I0403 15:02:59.416436 30947 layer_factory.hpp:77] Creating layer pool4/3x3_s2_pool4/3x3_s2_0_split
I0403 15:02:59.416455 30947 net.cpp:91] Creating Layer pool4/3x3_s2_pool4/3x3_s2_0_split
I0403 15:02:59.416471 30947 net.cpp:425] pool4/3x3_s2_pool4/3x3_s2_0_split <- pool4/3x3_s2
I0403 15:02:59.416492 30947 net.cpp:399] pool4/3x3_s2_pool4/3x3_s2_0_split -> pool4/3x3_s2_pool4/3x3_s2_0_split_0
I0403 15:02:59.416513 30947 net.cpp:399] pool4/3x3_s2_pool4/3x3_s2_0_split -> pool4/3x3_s2_pool4/3x3_s2_0_split_1
I0403 15:02:59.416535 30947 net.cpp:399] pool4/3x3_s2_pool4/3x3_s2_0_split -> pool4/3x3_s2_pool4/3x3_s2_0_split_2
I0403 15:02:59.416559 30947 net.cpp:399] pool4/3x3_s2_pool4/3x3_s2_0_split -> pool4/3x3_s2_pool4/3x3_s2_0_split_3
I0403 15:02:59.416658 30947 net.cpp:141] Setting up pool4/3x3_s2_pool4/3x3_s2_0_split
I0403 15:02:59.416683 30947 net.cpp:148] Top shape: 24 832 7 7 (978432)
I0403 15:02:59.416700 30947 net.cpp:148] Top shape: 24 832 7 7 (978432)
I0403 15:02:59.416718 30947 net.cpp:148] Top shape: 24 832 7 7 (978432)
I0403 15:02:59.416733 30947 net.cpp:148] Top shape: 24 832 7 7 (978432)
I0403 15:02:59.416748 30947 net.cpp:156] Memory required for data: 1292125728
I0403 15:02:59.416762 30947 layer_factory.hpp:77] Creating layer inception_5a/1x1
I0403 15:02:59.416785 30947 net.cpp:91] Creating Layer inception_5a/1x1
I0403 15:02:59.416803 30947 net.cpp:425] inception_5a/1x1 <- pool4/3x3_s2_pool4/3x3_s2_0_split_0
I0403 15:02:59.416826 30947 net.cpp:399] inception_5a/1x1 -> inception_5a/1x1
I0403 15:02:59.419785 30947 net.cpp:141] Setting up inception_5a/1x1
I0403 15:02:59.419816 30947 net.cpp:148] Top shape: 24 256 7 7 (301056)
I0403 15:02:59.419833 30947 net.cpp:156] Memory required for data: 1293329952
I0403 15:02:59.419852 30947 layer_factory.hpp:77] Creating layer inception_5a/relu_1x1
I0403 15:02:59.419873 30947 net.cpp:91] Creating Layer inception_5a/relu_1x1
I0403 15:02:59.419891 30947 net.cpp:425] inception_5a/relu_1x1 <- inception_5a/1x1
I0403 15:02:59.419910 30947 net.cpp:386] inception_5a/relu_1x1 -> inception_5a/1x1 (in-place)
I0403 15:02:59.420234 30947 net.cpp:141] Setting up inception_5a/relu_1x1
I0403 15:02:59.420263 30947 net.cpp:148] Top shape: 24 256 7 7 (301056)
I0403 15:02:59.420279 30947 net.cpp:156] Memory required for data: 1294534176
I0403 15:02:59.420296 30947 layer_factory.hpp:77] Creating layer inception_5a/3x3_reduce
I0403 15:02:59.420323 30947 net.cpp:91] Creating Layer inception_5a/3x3_reduce
I0403 15:02:59.420344 30947 net.cpp:425] inception_5a/3x3_reduce <- pool4/3x3_s2_pool4/3x3_s2_0_split_1
I0403 15:02:59.420367 30947 net.cpp:399] inception_5a/3x3_reduce -> inception_5a/3x3_reduce
I0403 15:02:59.422909 30947 net.cpp:141] Setting up inception_5a/3x3_reduce
I0403 15:02:59.422943 30947 net.cpp:148] Top shape: 24 160 7 7 (188160)
I0403 15:02:59.422960 30947 net.cpp:156] Memory required for data: 1295286816
I0403 15:02:59.422981 30947 layer_factory.hpp:77] Creating layer inception_5a/relu_3x3_reduce
I0403 15:02:59.423001 30947 net.cpp:91] Creating Layer inception_5a/relu_3x3_reduce
I0403 15:02:59.423017 30947 net.cpp:425] inception_5a/relu_3x3_reduce <- inception_5a/3x3_reduce
I0403 15:02:59.423038 30947 net.cpp:386] inception_5a/relu_3x3_reduce -> inception_5a/3x3_reduce (in-place)
I0403 15:02:59.423239 30947 net.cpp:141] Setting up inception_5a/relu_3x3_reduce
I0403 15:02:59.423266 30947 net.cpp:148] Top shape: 24 160 7 7 (188160)
I0403 15:02:59.423281 30947 net.cpp:156] Memory required for data: 1296039456
I0403 15:02:59.423296 30947 layer_factory.hpp:77] Creating layer inception_5a/3x3
I0403 15:02:59.423326 30947 net.cpp:91] Creating Layer inception_5a/3x3
I0403 15:02:59.423348 30947 net.cpp:425] inception_5a/3x3 <- inception_5a/3x3_reduce
I0403 15:02:59.423370 30947 net.cpp:399] inception_5a/3x3 -> inception_5a/3x3
I0403 15:02:59.428594 30947 net.cpp:141] Setting up inception_5a/3x3
I0403 15:02:59.428625 30947 net.cpp:148] Top shape: 24 320 7 7 (376320)
I0403 15:02:59.428642 30947 net.cpp:156] Memory required for data: 1297544736
I0403 15:02:59.428663 30947 layer_factory.hpp:77] Creating layer inception_5a/relu_3x3
I0403 15:02:59.428683 30947 net.cpp:91] Creating Layer inception_5a/relu_3x3
I0403 15:02:59.428702 30947 net.cpp:425] inception_5a/relu_3x3 <- inception_5a/3x3
I0403 15:02:59.428721 30947 net.cpp:386] inception_5a/relu_3x3 -> inception_5a/3x3 (in-place)
I0403 15:02:59.429030 30947 net.cpp:141] Setting up inception_5a/relu_3x3
I0403 15:02:59.429059 30947 net.cpp:148] Top shape: 24 320 7 7 (376320)
I0403 15:02:59.429075 30947 net.cpp:156] Memory required for data: 1299050016
I0403 15:02:59.429091 30947 layer_factory.hpp:77] Creating layer inception_5a/5x5_reduce
I0403 15:02:59.429114 30947 net.cpp:91] Creating Layer inception_5a/5x5_reduce
I0403 15:02:59.429133 30947 net.cpp:425] inception_5a/5x5_reduce <- pool4/3x3_s2_pool4/3x3_s2_0_split_2
I0403 15:02:59.429157 30947 net.cpp:399] inception_5a/5x5_reduce -> inception_5a/5x5_reduce
I0403 15:02:59.430389 30947 net.cpp:141] Setting up inception_5a/5x5_reduce
I0403 15:02:59.430423 30947 net.cpp:148] Top shape: 24 32 7 7 (37632)
I0403 15:02:59.430440 30947 net.cpp:156] Memory required for data: 1299200544
I0403 15:02:59.430460 30947 layer_factory.hpp:77] Creating layer inception_5a/relu_5x5_reduce
I0403 15:02:59.430480 30947 net.cpp:91] Creating Layer inception_5a/relu_5x5_reduce
I0403 15:02:59.430496 30947 net.cpp:425] inception_5a/relu_5x5_reduce <- inception_5a/5x5_reduce
I0403 15:02:59.430515 30947 net.cpp:386] inception_5a/relu_5x5_reduce -> inception_5a/5x5_reduce (in-place)
I0403 15:02:59.430826 30947 net.cpp:141] Setting up inception_5a/relu_5x5_reduce
I0403 15:02:59.430855 30947 net.cpp:148] Top shape: 24 32 7 7 (37632)
I0403 15:02:59.430871 30947 net.cpp:156] Memory required for data: 1299351072
I0403 15:02:59.430887 30947 layer_factory.hpp:77] Creating layer inception_5a/5x5
I0403 15:02:59.430910 30947 net.cpp:91] Creating Layer inception_5a/5x5
I0403 15:02:59.430930 30947 net.cpp:425] inception_5a/5x5 <- inception_5a/5x5_reduce
I0403 15:02:59.430953 30947 net.cpp:399] inception_5a/5x5 -> inception_5a/5x5
I0403 15:02:59.432749 30947 net.cpp:141] Setting up inception_5a/5x5
I0403 15:02:59.432792 30947 net.cpp:148] Top shape: 24 128 7 7 (150528)
I0403 15:02:59.432808 30947 net.cpp:156] Memory required for data: 1299953184
I0403 15:02:59.432829 30947 layer_factory.hpp:77] Creating layer inception_5a/relu_5x5
I0403 15:02:59.432852 30947 net.cpp:91] Creating Layer inception_5a/relu_5x5
I0403 15:02:59.432870 30947 net.cpp:425] inception_5a/relu_5x5 <- inception_5a/5x5
I0403 15:02:59.432888 30947 net.cpp:386] inception_5a/relu_5x5 -> inception_5a/5x5 (in-place)
I0403 15:02:59.433089 30947 net.cpp:141] Setting up inception_5a/relu_5x5
I0403 15:02:59.433115 30947 net.cpp:148] Top shape: 24 128 7 7 (150528)
I0403 15:02:59.433133 30947 net.cpp:156] Memory required for data: 1300555296
I0403 15:02:59.433151 30947 layer_factory.hpp:77] Creating layer inception_5a/pool
I0403 15:02:59.433169 30947 net.cpp:91] Creating Layer inception_5a/pool
I0403 15:02:59.433187 30947 net.cpp:425] inception_5a/pool <- pool4/3x3_s2_pool4/3x3_s2_0_split_3
I0403 15:02:59.433205 30947 net.cpp:399] inception_5a/pool -> inception_5a/pool
I0403 15:02:59.433280 30947 net.cpp:141] Setting up inception_5a/pool
I0403 15:02:59.433306 30947 net.cpp:148] Top shape: 24 832 7 7 (978432)
I0403 15:02:59.433326 30947 net.cpp:156] Memory required for data: 1304469024
I0403 15:02:59.433342 30947 layer_factory.hpp:77] Creating layer inception_5a/pool_proj
I0403 15:02:59.433367 30947 net.cpp:91] Creating Layer inception_5a/pool_proj
I0403 15:02:59.433387 30947 net.cpp:425] inception_5a/pool_proj <- inception_5a/pool
I0403 15:02:59.433408 30947 net.cpp:399] inception_5a/pool_proj -> inception_5a/pool_proj
I0403 15:02:59.435773 30947 net.cpp:141] Setting up inception_5a/pool_proj
I0403 15:02:59.435803 30947 net.cpp:148] Top shape: 24 128 7 7 (150528)
I0403 15:02:59.435819 30947 net.cpp:156] Memory required for data: 1305071136
I0403 15:02:59.435839 30947 layer_factory.hpp:77] Creating layer inception_5a/relu_pool_proj
I0403 15:02:59.435858 30947 net.cpp:91] Creating Layer inception_5a/relu_pool_proj
I0403 15:02:59.435879 30947 net.cpp:425] inception_5a/relu_pool_proj <- inception_5a/pool_proj
I0403 15:02:59.435897 30947 net.cpp:386] inception_5a/relu_pool_proj -> inception_5a/pool_proj (in-place)
I0403 15:02:59.436208 30947 net.cpp:141] Setting up inception_5a/relu_pool_proj
I0403 15:02:59.436236 30947 net.cpp:148] Top shape: 24 128 7 7 (150528)
I0403 15:02:59.436254 30947 net.cpp:156] Memory required for data: 1305673248
I0403 15:02:59.436270 30947 layer_factory.hpp:77] Creating layer inception_5a/output
I0403 15:02:59.436288 30947 net.cpp:91] Creating Layer inception_5a/output
I0403 15:02:59.436305 30947 net.cpp:425] inception_5a/output <- inception_5a/1x1
I0403 15:02:59.436328 30947 net.cpp:425] inception_5a/output <- inception_5a/3x3
I0403 15:02:59.436347 30947 net.cpp:425] inception_5a/output <- inception_5a/5x5
I0403 15:02:59.436363 30947 net.cpp:425] inception_5a/output <- inception_5a/pool_proj
I0403 15:02:59.436398 30947 net.cpp:399] inception_5a/output -> inception_5a/output
I0403 15:02:59.436450 30947 net.cpp:141] Setting up inception_5a/output
I0403 15:02:59.436477 30947 net.cpp:148] Top shape: 24 832 7 7 (978432)
I0403 15:02:59.436492 30947 net.cpp:156] Memory required for data: 1309586976
I0403 15:02:59.436507 30947 layer_factory.hpp:77] Creating layer inception_5a/output_inception_5a/output_0_split
I0403 15:02:59.436527 30947 net.cpp:91] Creating Layer inception_5a/output_inception_5a/output_0_split
I0403 15:02:59.436543 30947 net.cpp:425] inception_5a/output_inception_5a/output_0_split <- inception_5a/output
I0403 15:02:59.436561 30947 net.cpp:399] inception_5a/output_inception_5a/output_0_split -> inception_5a/output_inception_5a/output_0_split_0
I0403 15:02:59.436589 30947 net.cpp:399] inception_5a/output_inception_5a/output_0_split -> inception_5a/output_inception_5a/output_0_split_1
I0403 15:02:59.436610 30947 net.cpp:399] inception_5a/output_inception_5a/output_0_split -> inception_5a/output_inception_5a/output_0_split_2
I0403 15:02:59.436631 30947 net.cpp:399] inception_5a/output_inception_5a/output_0_split -> inception_5a/output_inception_5a/output_0_split_3
I0403 15:02:59.436744 30947 net.cpp:141] Setting up inception_5a/output_inception_5a/output_0_split
I0403 15:02:59.436769 30947 net.cpp:148] Top shape: 24 832 7 7 (978432)
I0403 15:02:59.436786 30947 net.cpp:148] Top shape: 24 832 7 7 (978432)
I0403 15:02:59.436801 30947 net.cpp:148] Top shape: 24 832 7 7 (978432)
I0403 15:02:59.436817 30947 net.cpp:148] Top shape: 24 832 7 7 (978432)
I0403 15:02:59.436830 30947 net.cpp:156] Memory required for data: 1325241888
I0403 15:02:59.436846 30947 layer_factory.hpp:77] Creating layer inception_5b/1x1
I0403 15:02:59.436868 30947 net.cpp:91] Creating Layer inception_5b/1x1
I0403 15:02:59.436887 30947 net.cpp:425] inception_5b/1x1 <- inception_5a/output_inception_5a/output_0_split_0
I0403 15:02:59.436908 30947 net.cpp:399] inception_5b/1x1 -> inception_5b/1x1
I0403 15:02:59.440771 30947 net.cpp:141] Setting up inception_5b/1x1
I0403 15:02:59.440814 30947 net.cpp:148] Top shape: 24 384 7 7 (451584)
I0403 15:02:59.440830 30947 net.cpp:156] Memory required for data: 1327048224
I0403 15:02:59.440850 30947 layer_factory.hpp:77] Creating layer inception_5b/relu_1x1
I0403 15:02:59.440868 30947 net.cpp:91] Creating Layer inception_5b/relu_1x1
I0403 15:02:59.440886 30947 net.cpp:425] inception_5b/relu_1x1 <- inception_5b/1x1
I0403 15:02:59.440907 30947 net.cpp:386] inception_5b/relu_1x1 -> inception_5b/1x1 (in-place)
I0403 15:02:59.441218 30947 net.cpp:141] Setting up inception_5b/relu_1x1
I0403 15:02:59.441246 30947 net.cpp:148] Top shape: 24 384 7 7 (451584)
I0403 15:02:59.441262 30947 net.cpp:156] Memory required for data: 1328854560
I0403 15:02:59.441277 30947 layer_factory.hpp:77] Creating layer inception_5b/3x3_reduce
I0403 15:02:59.441299 30947 net.cpp:91] Creating Layer inception_5b/3x3_reduce
I0403 15:02:59.441321 30947 net.cpp:425] inception_5b/3x3_reduce <- inception_5a/output_inception_5a/output_0_split_1
I0403 15:02:59.441347 30947 net.cpp:399] inception_5b/3x3_reduce -> inception_5b/3x3_reduce
I0403 15:02:59.444043 30947 net.cpp:141] Setting up inception_5b/3x3_reduce
I0403 15:02:59.444077 30947 net.cpp:148] Top shape: 24 192 7 7 (225792)
I0403 15:02:59.444095 30947 net.cpp:156] Memory required for data: 1329757728
I0403 15:02:59.444115 30947 layer_factory.hpp:77] Creating layer inception_5b/relu_3x3_reduce
I0403 15:02:59.444134 30947 net.cpp:91] Creating Layer inception_5b/relu_3x3_reduce
I0403 15:02:59.444151 30947 net.cpp:425] inception_5b/relu_3x3_reduce <- inception_5b/3x3_reduce
I0403 15:02:59.444172 30947 net.cpp:386] inception_5b/relu_3x3_reduce -> inception_5b/3x3_reduce (in-place)
I0403 15:02:59.444378 30947 net.cpp:141] Setting up inception_5b/relu_3x3_reduce
I0403 15:02:59.444406 30947 net.cpp:148] Top shape: 24 192 7 7 (225792)
I0403 15:02:59.444422 30947 net.cpp:156] Memory required for data: 1330660896
I0403 15:02:59.444437 30947 layer_factory.hpp:77] Creating layer inception_5b/3x3
I0403 15:02:59.444459 30947 net.cpp:91] Creating Layer inception_5b/3x3
I0403 15:02:59.444478 30947 net.cpp:425] inception_5b/3x3 <- inception_5b/3x3_reduce
I0403 15:02:59.444500 30947 net.cpp:399] inception_5b/3x3 -> inception_5b/3x3
I0403 15:02:59.451241 30947 net.cpp:141] Setting up inception_5b/3x3
I0403 15:02:59.451270 30947 net.cpp:148] Top shape: 24 384 7 7 (451584)
I0403 15:02:59.451287 30947 net.cpp:156] Memory required for data: 1332467232
I0403 15:02:59.451306 30947 layer_factory.hpp:77] Creating layer inception_5b/relu_3x3
I0403 15:02:59.451330 30947 net.cpp:91] Creating Layer inception_5b/relu_3x3
I0403 15:02:59.451352 30947 net.cpp:425] inception_5b/relu_3x3 <- inception_5b/3x3
I0403 15:02:59.451371 30947 net.cpp:386] inception_5b/relu_3x3 -> inception_5b/3x3 (in-place)
I0403 15:02:59.451670 30947 net.cpp:141] Setting up inception_5b/relu_3x3
I0403 15:02:59.451697 30947 net.cpp:148] Top shape: 24 384 7 7 (451584)
I0403 15:02:59.451712 30947 net.cpp:156] Memory required for data: 1334273568
I0403 15:02:59.451728 30947 layer_factory.hpp:77] Creating layer inception_5b/5x5_reduce
I0403 15:02:59.451769 30947 net.cpp:91] Creating Layer inception_5b/5x5_reduce
I0403 15:02:59.451792 30947 net.cpp:425] inception_5b/5x5_reduce <- inception_5a/output_inception_5a/output_0_split_2
I0403 15:02:59.451814 30947 net.cpp:399] inception_5b/5x5_reduce -> inception_5b/5x5_reduce
I0403 15:02:59.453100 30947 net.cpp:141] Setting up inception_5b/5x5_reduce
I0403 15:02:59.453130 30947 net.cpp:148] Top shape: 24 48 7 7 (56448)
I0403 15:02:59.453146 30947 net.cpp:156] Memory required for data: 1334499360
I0403 15:02:59.453166 30947 layer_factory.hpp:77] Creating layer inception_5b/relu_5x5_reduce
I0403 15:02:59.453186 30947 net.cpp:91] Creating Layer inception_5b/relu_5x5_reduce
I0403 15:02:59.453202 30947 net.cpp:425] inception_5b/relu_5x5_reduce <- inception_5b/5x5_reduce
I0403 15:02:59.453223 30947 net.cpp:386] inception_5b/relu_5x5_reduce -> inception_5b/5x5_reduce (in-place)
I0403 15:02:59.453610 30947 net.cpp:141] Setting up inception_5b/relu_5x5_reduce
I0403 15:02:59.453639 30947 net.cpp:148] Top shape: 24 48 7 7 (56448)
I0403 15:02:59.453655 30947 net.cpp:156] Memory required for data: 1334725152
I0403 15:02:59.453670 30947 layer_factory.hpp:77] Creating layer inception_5b/5x5
I0403 15:02:59.453691 30947 net.cpp:91] Creating Layer inception_5b/5x5
I0403 15:02:59.453709 30947 net.cpp:425] inception_5b/5x5 <- inception_5b/5x5_reduce
I0403 15:02:59.453729 30947 net.cpp:399] inception_5b/5x5 -> inception_5b/5x5
I0403 15:02:59.455843 30947 net.cpp:141] Setting up inception_5b/5x5
I0403 15:02:59.455873 30947 net.cpp:148] Top shape: 24 128 7 7 (150528)
I0403 15:02:59.455889 30947 net.cpp:156] Memory required for data: 1335327264
I0403 15:02:59.455909 30947 layer_factory.hpp:77] Creating layer inception_5b/relu_5x5
I0403 15:02:59.455931 30947 net.cpp:91] Creating Layer inception_5b/relu_5x5
I0403 15:02:59.455950 30947 net.cpp:425] inception_5b/relu_5x5 <- inception_5b/5x5
I0403 15:02:59.455967 30947 net.cpp:386] inception_5b/relu_5x5 -> inception_5b/5x5 (in-place)
I0403 15:02:59.456166 30947 net.cpp:141] Setting up inception_5b/relu_5x5
I0403 15:02:59.456192 30947 net.cpp:148] Top shape: 24 128 7 7 (150528)
I0403 15:02:59.456208 30947 net.cpp:156] Memory required for data: 1335929376
I0403 15:02:59.456224 30947 layer_factory.hpp:77] Creating layer inception_5b/pool
I0403 15:02:59.456246 30947 net.cpp:91] Creating Layer inception_5b/pool
I0403 15:02:59.456264 30947 net.cpp:425] inception_5b/pool <- inception_5a/output_inception_5a/output_0_split_3
I0403 15:02:59.456284 30947 net.cpp:399] inception_5b/pool -> inception_5b/pool
I0403 15:02:59.456364 30947 net.cpp:141] Setting up inception_5b/pool
I0403 15:02:59.456389 30947 net.cpp:148] Top shape: 24 832 7 7 (978432)
I0403 15:02:59.456404 30947 net.cpp:156] Memory required for data: 1339843104
I0403 15:02:59.456420 30947 layer_factory.hpp:77] Creating layer inception_5b/pool_proj
I0403 15:02:59.456442 30947 net.cpp:91] Creating Layer inception_5b/pool_proj
I0403 15:02:59.456462 30947 net.cpp:425] inception_5b/pool_proj <- inception_5b/pool
I0403 15:02:59.456483 30947 net.cpp:399] inception_5b/pool_proj -> inception_5b/pool_proj
I0403 15:02:59.458817 30947 net.cpp:141] Setting up inception_5b/pool_proj
I0403 15:02:59.458847 30947 net.cpp:148] Top shape: 24 128 7 7 (150528)
I0403 15:02:59.458863 30947 net.cpp:156] Memory required for data: 1340445216
I0403 15:02:59.458881 30947 layer_factory.hpp:77] Creating layer inception_5b/relu_pool_proj
I0403 15:02:59.458901 30947 net.cpp:91] Creating Layer inception_5b/relu_pool_proj
I0403 15:02:59.458920 30947 net.cpp:425] inception_5b/relu_pool_proj <- inception_5b/pool_proj
I0403 15:02:59.458941 30947 net.cpp:386] inception_5b/relu_pool_proj -> inception_5b/pool_proj (in-place)
I0403 15:02:59.459244 30947 net.cpp:141] Setting up inception_5b/relu_pool_proj
I0403 15:02:59.459270 30947 net.cpp:148] Top shape: 24 128 7 7 (150528)
I0403 15:02:59.459286 30947 net.cpp:156] Memory required for data: 1341047328
I0403 15:02:59.459302 30947 layer_factory.hpp:77] Creating layer inception_5b/output
I0403 15:02:59.459324 30947 net.cpp:91] Creating Layer inception_5b/output
I0403 15:02:59.459357 30947 net.cpp:425] inception_5b/output <- inception_5b/1x1
I0403 15:02:59.459374 30947 net.cpp:425] inception_5b/output <- inception_5b/3x3
I0403 15:02:59.459391 30947 net.cpp:425] inception_5b/output <- inception_5b/5x5
I0403 15:02:59.459408 30947 net.cpp:425] inception_5b/output <- inception_5b/pool_proj
I0403 15:02:59.459429 30947 net.cpp:399] inception_5b/output -> inception_5b/output
I0403 15:02:59.459493 30947 net.cpp:141] Setting up inception_5b/output
I0403 15:02:59.459522 30947 net.cpp:148] Top shape: 24 1024 7 7 (1204224)
I0403 15:02:59.459537 30947 net.cpp:156] Memory required for data: 1345864224
I0403 15:02:59.459550 30947 layer_factory.hpp:77] Creating layer pool5/7x7_s1
I0403 15:02:59.459569 30947 net.cpp:91] Creating Layer pool5/7x7_s1
I0403 15:02:59.459585 30947 net.cpp:425] pool5/7x7_s1 <- inception_5b/output
I0403 15:02:59.459609 30947 net.cpp:399] pool5/7x7_s1 -> pool5/7x7_s1
I0403 15:02:59.459827 30947 net.cpp:141] Setting up pool5/7x7_s1
I0403 15:02:59.459854 30947 net.cpp:148] Top shape: 24 1024 1 1 (24576)
I0403 15:02:59.459870 30947 net.cpp:156] Memory required for data: 1345962528
I0403 15:02:59.459885 30947 layer_factory.hpp:77] Creating layer pool5/drop_7x7_s1
I0403 15:02:59.459904 30947 net.cpp:91] Creating Layer pool5/drop_7x7_s1
I0403 15:02:59.459921 30947 net.cpp:425] pool5/drop_7x7_s1 <- pool5/7x7_s1
I0403 15:02:59.459942 30947 net.cpp:386] pool5/drop_7x7_s1 -> pool5/7x7_s1 (in-place)
I0403 15:02:59.459996 30947 net.cpp:141] Setting up pool5/drop_7x7_s1
I0403 15:02:59.460021 30947 net.cpp:148] Top shape: 24 1024 1 1 (24576)
I0403 15:02:59.460036 30947 net.cpp:156] Memory required for data: 1346060832
I0403 15:02:59.460050 30947 layer_factory.hpp:77] Creating layer loss3/classifier_plantvillage
I0403 15:02:59.460070 30947 net.cpp:91] Creating Layer loss3/classifier_plantvillage
I0403 15:02:59.460088 30947 net.cpp:425] loss3/classifier_plantvillage <- pool5/7x7_s1
I0403 15:02:59.460109 30947 net.cpp:399] loss3/classifier_plantvillage -> loss3/classifier_plantvillage
I0403 15:02:59.460548 30947 net.cpp:141] Setting up loss3/classifier_plantvillage
I0403 15:02:59.460575 30947 net.cpp:148] Top shape: 24 38 (912)
I0403 15:02:59.460590 30947 net.cpp:156] Memory required for data: 1346064480
I0403 15:02:59.460610 30947 layer_factory.hpp:77] Creating layer loss3/classifier_plantvillage_loss3/classifier_plantvillage_0_split
I0403 15:02:59.460633 30947 net.cpp:91] Creating Layer loss3/classifier_plantvillage_loss3/classifier_plantvillage_0_split
I0403 15:02:59.460650 30947 net.cpp:425] loss3/classifier_plantvillage_loss3/classifier_plantvillage_0_split <- loss3/classifier_plantvillage
I0403 15:02:59.460670 30947 net.cpp:399] loss3/classifier_plantvillage_loss3/classifier_plantvillage_0_split -> loss3/classifier_plantvillage_loss3/classifier_plantvillage_0_split_0
I0403 15:02:59.460693 30947 net.cpp:399] loss3/classifier_plantvillage_loss3/classifier_plantvillage_0_split -> loss3/classifier_plantvillage_loss3/classifier_plantvillage_0_split_1
I0403 15:02:59.460714 30947 net.cpp:399] loss3/classifier_plantvillage_loss3/classifier_plantvillage_0_split -> loss3/classifier_plantvillage_loss3/classifier_plantvillage_0_split_2
I0403 15:02:59.460764 30947 net.cpp:399] loss3/classifier_plantvillage_loss3/classifier_plantvillage_0_split -> loss3/classifier_plantvillage_loss3/classifier_plantvillage_0_split_3
I0403 15:02:59.460893 30947 net.cpp:141] Setting up loss3/classifier_plantvillage_loss3/classifier_plantvillage_0_split
I0403 15:02:59.460929 30947 net.cpp:148] Top shape: 24 38 (912)
I0403 15:02:59.460947 30947 net.cpp:148] Top shape: 24 38 (912)
I0403 15:02:59.460963 30947 net.cpp:148] Top shape: 24 38 (912)
I0403 15:02:59.460978 30947 net.cpp:148] Top shape: 24 38 (912)
I0403 15:02:59.460993 30947 net.cpp:156] Memory required for data: 1346079072
I0403 15:02:59.461007 30947 layer_factory.hpp:77] Creating layer loss1/loss
I0403 15:02:59.461029 30947 net.cpp:91] Creating Layer loss1/loss
I0403 15:02:59.461046 30947 net.cpp:425] loss1/loss <- loss1/classifier_plantvillage_loss1/classifier_plantvillage_0_split_0
I0403 15:02:59.461079 30947 net.cpp:425] loss1/loss <- label_data_1_split_0
…
