…
I0403 15:00:14.862299 30861 net.cpp:313] The NetState phase (1) differed from the phase (0) specified by a rule in layer data
I0403 15:00:14.863494 30861 net.cpp:49] Initializing net from parameters: 
state {
  phase: TEST
}
layer {
  name: "data"
  type: "Data"
  top: "data"
  top: "label"
  include {
    phase: TEST
  }
  transform_param {
    mirror: false
    crop_size: 224
    mean_file: "/home/mohanty/data/final_dataset/lmdb/color-20-80/mean.binaryproto"
  }
  data_param {
    source: "/home/mohanty/data/final_dataset/lmdb/color-20-80/test_db"
    batch_size: 24
    backend: LMDB
  }
}
layer {
  name: "conv1/7x7_s2"
  type: "Convolution"
  bottom: "data"
  top: "conv1/7x7_s2"
  param {
    lr_mult: 1
    decay_mult: 1
  }
  param {
    lr_mult: 2
    decay_mult: 0
  }
  convolution_param {
    num_output: 64
    pad: 3
    kernel_size: 7
    stride: 2
    weight_filler {
      type: "xavier"
      std: 0.1
    }
    bias_filler {
      type: "constant"
      value: 0.2
    }
  }
}
layer {
  name: "conv1/relu_7x7"
  type: "ReLU"
  bottom: "conv1/7x7_s2"
  top: "conv1/7x7_s2"
}
layer {
  name: "pool1/3x3_s2"
  type: "Pooling"
  bottom: "conv1/7x7_s2"
  top: "pool1/3x3_s2"
  pooling_param {
    pool: MAX
    kernel_size: 3
    stride: 2
  }
}
layer {
  name: "pool1/norm1"
  type: "LRN"
  bottom: "pool1/3x3_s2"
  top: "pool1/norm1"
  lrn_param {
    local_size: 5
    alpha: 0.0001
    beta: 0.75
  }
}
layer {
  name: "conv2/3x3_reduce"
  type: "Convolution"
  bottom: "pool1/norm1"
  top: "conv2/3x3_reduce"
  param {
    lr_mult: 1
    decay_mult: 1
  }
  param {
    lr_mult: 2
    decay_mult: 0
  }
  convolution_param {
    num_output: 64
    kernel_size: 1
    weight_filler {
      type: "xavier"
      std: 0.1
    }
    bias_filler {
      type: "constant"
      value: 0.2
    }
  }
}
layer {
  name: "conv2/relu_3x3_reduce"
  type: "ReLU"
  bottom: "conv2/3x3_reduce"
  top: "conv2/3x3_reduce"
}
layer {
  name: "conv2/3x3"
  type: "Convolution"
  bottom: "conv2/3x3_reduce"
  top: "conv2/3x3"
  param {
    lr_mult: 1
    decay_mult: 1
  }
  param {
    lr_mult: 2
    decay_mult: 0
  }
  convolution_param {
    num_output: 192
    pad: 1
    kernel_size: 3
    weight_filler {
      type: "xavier"
      std: 0.03
    }
    bias_filler {
      type: "constant"
      value: 0.2
    }
  }
}
layer {
  name: "conv2/relu_3x3"
  type: "ReLU"
  bottom: "conv2/3x3"
  top: "conv2/3x3"
}
layer {
  name: "conv2/norm2"
  type: "LRN"
  bottom: "conv2/3x3"
  top: "conv2/norm2"
  lrn_param {
    local_size: 5
    alpha: 0.0001
    beta: 0.75
  }
}
layer {
  name: "pool2/3x3_s2"
  type: "Pooling"
  bottom: "conv2/norm2"
  top: "pool2/3x3_s2"
  pooling_param {
    pool: MAX
    kernel_size: 3
    stride: 2
  }
}
layer {
  name: "inception_3a/1x1"
  type: "Convolution"
  bottom: "pool2/3x3_s2"
  top: "inception_3a/1x1"
  param {
    lr_mult: 1
    decay_mult: 1
  }
  param {
    lr_mult: 2
    decay_mult: 0
  }
  convolution_param {
    num_output: 64
    kernel_size: 1
    weight_filler {
      type: "xavier"
      std: 0.03
    }
    bias_filler {
      type: "constant"
      value: 0.2
    }
  }
}
layer {
  name: "inception_3a/relu_1x1"
  type: "ReLU"
  bottom: "inception_3a/1x1"
  top: "inception_3a/1x1"
}
layer {
  name: "inception_3a/3x3_reduce"
  type: "Convolution"
  bottom: "pool2/3x3_s2"
  top: "inception_3a/3x3_reduce"
  param {
    lr_mult: 1
    decay_mult: 1
  }
  param {
    lr_mult: 2
    decay_mult: 0
  }
  convolution_param {
    num_output: 96
    kernel_size: 1
    weight_filler {
      type: "xavier"
      std: 0.09
    }
    bias_filler {
      type: "constant"
      value: 0.2
    }
  }
}
layer {
  name: "inception_3a/relu_3x3_reduce"
  type: "ReLU"
  bottom: "inception_3a/3x3_reduce"
  top: "inception_3a/3x3_reduce"
}
layer {
  name: "inception_3a/3x3"
  type: "Convolution"
  bottom: "inception_3a/3x3_reduce"
  top: "inception_3a/3x3"
  param {
    lr_mult: 1
    decay_mult: 1
  }
  param {
    lr_mult: 2
    decay_mult: 0
  }
  convolution_param {
    num_output: 128
    pad: 1
    kernel_size: 3
    weight_filler {
      type: "xavier"
      std: 0.03
    }
    bias_filler {
      type: "constant"
      value: 0.2
    }
  }
}
layer {
  name: "inception_3a/relu_3x3"
  type: "ReLU"
  bottom: "inception_3a/3x3"
  top: "inception_3a/3x3"
}
layer {
  name: "inception_3a/5x5_reduce"
  type: "Convolution"
  bottom: "pool2/3x3_s2"
  top: "inception_3a/5x5_reduce"
  param {
    lr_mult: 1
    decay_mult: 1
  }
  param {
    lr_mult: 2
    decay_mult: 0
  }
  convolution_param {
    num_output: 16
    kernel_size: 1
    weight_filler {
      type: "xavier"
      std: 0.2
    }
    bias_filler {
      type: "constant"
      value: 0.2
    }
  }
}
layer {
  name: "inception_3a/relu_5x5_reduce"
  type: "ReLU"
  bottom: "inception_3a/5x5_reduce"
  top: "inception_3a/5x5_reduce"
}
layer {
  name: "inception_3a/5x5"
  type: "Convolution"
  bottom: "inception_3a/5x5_reduce"
  top: "inception_3a/5x5"
  param {
    lr_mult: 1
    decay_mult: 1
  }
  param {
    lr_mult: 2
    decay_mult: 0
  }
  convolution_param {
    num_output: 32
    pad: 2
    kernel_size: 5
    weight_filler {
      type: "xavier"
      std: 0.03
    }
    bias_filler {
      type: "constant"
      value: 0.2
    }
  }
}
layer {
  name: "inception_3a/relu_5x5"
  type: "ReLU"
  bottom: "inception_3a/5x5"
  top: "inception_3a/5x5"
}
layer {
  name: "inception_3a/pool"
  type: "Pooling"
  bottom: "pool2/3x3_s2"
  top: "inception_3a/pool"
  pooling_param {
    pool: MAX
    kernel_size: 3
    stride: 1
    pad: 1
  }
}
layer {
  name: "inception_3a/pool_proj"
  type: "Convolution"
  bottom: "inception_3a/pool"
  top: "inception_3a/pool_proj"
  param {
    lr_mult: 1
    decay_mult: 1
  }
  param {
    lr_mult: 2
    decay_mult: 0
  }
  convolution_param {
    num_output: 32
    kernel_size: 1
    weight_filler {
      type: "xavier"
      std: 0.1
    }
    bias_filler {
      type: "constant"
      value: 0.2
    }
  }
}
layer {
  name: "inception_3a/relu_pool_proj"
  type: "ReLU"
  bottom: "inception_3a/pool_proj"
  top: "inception_3a/pool_proj"
}
layer {
  name: "inception_3a/output"
  type: "Concat"
  bottom: "inception_3a/1x1"
  bottom: "inception_3a/3x3"
  bottom: "inception_3a/5x5"
  bottom: "inception_3a/pool_proj"
  top: "inception_3a/output"
}
layer {
  name: "inception_3b/1x1"
  type: "Convolution"
  bottom: "inception_3a/output"
  top: "inception_3b/1x1"
  param {
    lr_mult: 1
    decay_mult: 1
  }
  param {
    lr_mult: 2
    decay_mult: 0
  }
  convolution_param {
    num_output: 128
    kernel_size: 1
    weight_filler {
      type: "xavier"
      std: 0.03
    }
    bias_filler {
      type: "constant"
      value: 0.2
    }
  }
}
layer {
  name: "inception_3b/relu_1x1"
  type: "ReLU"
  bottom: "inception_3b/1x1"
  top: "inception_3b/1x1"
}
layer {
  name: "inception_3b/3x3_reduce"
  type: "Convolution"
  bottom: "inception_3a/output"
  top: "inception_3b/3x3_reduce"
  param {
    lr_mult: 1
    decay_mult: 1
  }
  param {
    lr_mult: 2
    decay_mult: 0
  }
  convolution_param {
    num_output: 128
    kernel_size: 1
    weight_filler {
      type: "xavier"
      std: 0.09
    }
    bias_filler {
      type: "constant"
      value: 0.2
    }
  }
}
layer {
  name: "inception_3b/relu_3x3_reduce"
  type: "ReLU"
  bottom: "inception_3b/3x3_reduce"
  top: "inception_3b/3x3_reduce"
}
layer {
  name: "inception_3b/3x3"
  type: "Convolution"
  bottom: "inception_3b/3x3_reduce"
  top: "inception_3b/3x3"
  param {
    lr_mult: 1
    decay_mult: 1
  }
  param {
    lr_mult: 2
    decay_mult: 0
  }
  convolution_param {
    num_output: 192
    pad: 1
    kernel_size: 3
    weight_filler {
      type: "xavier"
      std: 0.03
    }
    bias_filler {
      type: "constant"
      value: 0.2
    }
  }
}
layer {
  name: "inception_3b/relu_3x3"
  type: "ReLU"
  bottom: "inception_3b/3x3"
  top: "inception_3b/3x3"
}
layer {
  name: "inception_3b/5x5_reduce"
  type: "Convolution"
  bottom: "inception_3a/output"
  top: "inception_3b/5x5_reduce"
  param {
    lr_mult: 1
    decay_mult: 1
  }
  param {
    lr_mult: 2
    decay_mult: 0
  }
  convolution_param {
    num_output: 32
    kernel_size: 1
    weight_filler {
      type: "xavier"
      std: 0.2
    }
    bias_filler {
      type: "constant"
      value: 0.2
    }
  }
}
layer {
  name: "inception_3b/relu_5x5_reduce"
  type: "ReLU"
  bottom: "inception_3b/5x5_reduce"
  top: "inception_3b/5x5_reduce"
}
layer {
  name: "inception_3b/5x5"
  type: "Convolution"
  bottom: "inception_3b/5x5_reduce"
  top: "inception_3b/5x5"
  param {
    lr_mult: 1
    decay_mult: 1
  }
  param {
    lr_mult: 2
    decay_mult: 0
  }
  convolution_param {
    num_output: 96
    pad: 2
    kernel_size: 5
    weight_filler {
      type: "xavier"
      std: 0.03
    }
    bias_filler {
      type: "constant"
      value: 0.2
    }
  }
}
layer {
  name: "inception_3b/relu_5x5"
  type: "ReLU"
  bottom: "inception_3b/5x5"
  top: "inception_3b/5x5"
}
layer {
  name: "inception_3b/pool"
  type: "Pooling"
  bottom: "inception_3a/output"
  top: "inception_3b/pool"
  pooling_param {
    pool: MAX
    kernel_size: 3
    stride: 1
    pad: 1
  }
}
layer {
  name: "inception_3b/pool_proj"
  type: "Convolution"
  bottom: "inception_3b/pool"
  top: "inception_3b/pool_proj"
  param {
    lr_mult: 1
    decay_mult: 1
  }
  param {
    lr_mult: 2
    decay_mult: 0
  }
  convolution_param {
    num_output: 64
    kernel_size: 1
    weight_filler {
      type: "xavier"
      std: 0.1
    }
    bias_filler {
      type: "constant"
      value: 0.2
    }
  }
}
layer {
  name: "inception_3b/relu_pool_proj"
  type: "ReLU"
  bottom: "inception_3b/pool_proj"
  top: "inception_3b/pool_proj"
}
layer {
  name: "inception_3b/output"
  type: "Concat"
  bottom: "inception_3b/1x1"
  bottom: "inception_3b/3x3"
  bottom: "inception_3b/5x5"
  bottom: "inception_3b/pool_proj"
  top: "inception_3b/output"
}
layer {
  name: "pool3/3x3_s2"
  type: "Pooling"
  bottom: "inception_3b/output"
  top: "pool3/3x3_s2"
  pooling_param {
    pool: MAX
    kernel_size: 3
    stride: 2
  }
}
layer {
  name: "inception_4a/1x1"
  type: "Convolution"
  bottom: "pool3/3x3_s2"
  top: "inception_4a/1x1"
  param {
    lr_mult: 1
    decay_mult: 1
  }
  param {
    lr_mult: 2
    decay_mult: 0
  }
  convolution_param {
    num_output: 192
    kernel_size: 1
    weight_filler {
      type: "xavier"
      std: 0.03
    }
    bias_filler {
      type: "constant"
      value: 0.2
    }
  }
}
layer {
  name: "inception_4a/relu_1x1"
  type: "ReLU"
  bottom: "inception_4a/1x1"
  top: "inception_4a/1x1"
}
layer {
  name: "inception_4a/3x3_reduce"
  type: "Convolution"
  bottom: "pool3/3x3_s2"
  top: "inception_4a/3x3_reduce"
  param {
    lr_mult: 1
    decay_mult: 1
  }
  param {
    lr_mult: 2
    decay_mult: 0
  }
  convolution_param {
    num_output: 96
    kernel_size: 1
    weight_filler {
      type: "xavier"
      std: 0.09
    }
    bias_filler {
      type: "constant"
      value: 0.2
    }
  }
}
layer {
  name: "inception_4a/relu_3x3_reduce"
  type: "ReLU"
  bottom: "inception_4a/3x3_reduce"
  top: "inception_4a/3x3_reduce"
}
layer {
  name: "inception_4a/3x3"
  type: "Convolution"
  bottom: "inception_4a/3x3_reduce"
  top: "inception_4a/3x3"
  param {
    lr_mult: 1
    decay_mult: 1
  }
  param {
    lr_mult: 2
    decay_mult: 0
  }
  convolution_param {
    num_output: 208
    pad: 1
    kernel_size: 3
    weight_filler {
      type: "xavier"
      std: 0.03
    }
    bias_filler {
      type: "constant"
      value: 0.2
    }
  }
}
layer {
  name: "inception_4a/relu_3x3"
  type: "ReLU"
  bottom: "inception_4a/3x3"
  top: "inception_4a/3x3"
}
layer {
  name: "inception_4a/5x5_reduce"
  type: "Convolution"
  bottom: "pool3/3x3_s2"
  top: "inception_4a/5x5_reduce"
  param {
    lr_mult: 1
    decay_mult: 1
  }
  param {
    lr_mult: 2
    decay_mult: 0
  }
  convolution_param {
    num_output: 16
    kernel_size: 1
    weight_filler {
      type: "xavier"
      std: 0.2
    }
    bias_filler {
      type: "constant"
      value: 0.2
    }
  }
}
layer {
  name: "inception_4a/relu_5x5_reduce"
  type: "ReLU"
  bottom: "inception_4a/5x5_reduce"
  top: "inception_4a/5x5_reduce"
}
layer {
  name: "inception_4a/5x5"
  type: "Convolution"
  bottom: "inception_4a/5x5_reduce"
  top: "inception_4a/5x5"
  param {
    lr_mult: 1
    decay_mult: 1
  }
  param {
    lr_mult: 2
    decay_mult: 0
  }
  convolution_param {
    num_output: 48
    pad: 2
    kernel_size: 5
    weight_filler {
      type: "xavier"
      std: 0.03
    }
    bias_filler {
      type: "constant"
      value: 0.2
    }
  }
}
layer {
  name: "inception_4a/relu_5x5"
  type: "ReLU"
  bottom: "inception_4a/5x5"
  top: "inception_4a/5x5"
}
layer {
  name: "inception_4a/pool"
  type: "Pooling"
  bottom: "pool3/3x3_s2"
  top: "inception_4a/pool"
  pooling_param {
    pool: MAX
    kernel_size: 3
    stride: 1
    pad: 1
  }
}
layer {
  name: "inception_4a/pool_proj"
  type: "Convolution"
  bottom: "inception_4a/pool"
  top: "inception_4a/pool_proj"
  param {
    lr_mult: 1
    decay_mult: 1
  }
  param {
    lr_mult: 2
    decay_mult: 0
  }
  convolution_param {
    num_output: 64
    kernel_size: 1
    weight_filler {
      type: "xavier"
      std: 0.1
    }
    bias_filler {
      type: "constant"
      value: 0.2
    }
  }
}
layer {
  name: "inception_4a/relu_pool_proj"
  type: "ReLU"
  bottom: "inception_4a/pool_proj"
  top: "inception_4a/pool_proj"
}
layer {
  name: "inception_4a/output"
  type: "Concat"
  bottom: "inception_4a/1x1"
  bottom: "inception_4a/3x3"
  bottom: "inception_4a/5x5"
  bottom: "inception_4a/pool_proj"
  top: "inception_4a/output"
}
layer {
  name: "loss1/ave_pool"
  type: "Pooling"
  bottom: "inception_4a/output"
  top: "loss1/ave_pool"
  pooling_param {
    pool: AVE
    kernel_size: 5
    stride: 3
  }
}
layer {
  name: "loss1/conv"
  type: "Convolution"
  bottom: "loss1/ave_pool"
  top: "loss1/conv"
  param {
    lr_mult: 1
    decay_mult: 1
  }
  param {
    lr_mult: 2
    decay_mult: 0
  }
  convolution_param {
    num_output: 128
    kernel_size: 1
    weight_filler {
      type: "xavier"
      std: 0.08
    }
    bias_filler {
      type: "constant"
      value: 0.2
    }
  }
}
layer {
  name: "loss1/relu_conv"
  type: "ReLU"
  bottom: "loss1/conv"
  top: "loss1/conv"
}
layer {
  name: "loss1/fc"
  type: "InnerProduct"
  bottom: "loss1/conv"
  top: "loss1/fc"
  param {
    lr_mult: 1
    decay_mult: 1
  }
  param {
    lr_mult: 2
    decay_mult: 0
  }
  inner_product_param {
    num_output: 1024
    weight_filler {
      type: "xavier"
      std: 0.02
    }
    bias_filler {
      type: "constant"
      value: 0.2
    }
  }
}
layer {
  name: "loss1/relu_fc"
  type: "ReLU"
  bottom: "loss1/fc"
  top: "loss1/fc"
}
layer {
  name: "loss1/drop_fc"
  type: "Dropout"
  bottom: "loss1/fc"
  top: "loss1/fc"
  dropout_param {
    dropout_ratio: 0.7
  }
}
layer {
  name: "loss1/classifier_plantvillage"
  type: "InnerProduct"
  bottom: "loss1/fc"
  top: "loss1/classifier_plantvillage"
  param {
    lr_mult: 1
    decay_mult: 1
  }
  param {
    lr_mult: 2
    decay_mult: 0
  }
  inner_product_param {
    num_output: 38
    weight_filler {
      type: "xavier"
      std: 0.0009765625
    }
    bias_filler {
      type: "constant"
      value: 0
    }
  }
}
layer {
  name: "inception_4b/1x1"
  type: "Convolution"
  bottom: "inception_4a/output"
  top: "inception_4b/1x1"
  param {
    lr_mult: 1
    decay_mult: 1
  }
  param {
    lr_mult: 2
    decay_mult: 0
  }
  convolution_param {
    num_output: 160
    kernel_size: 1
    weight_filler {
      type: "xavier"
      std: 0.03
    }
    bias_filler {
      type: "constant"
      value: 0.2
    }
  }
}
layer {
  name: "inception_4b/relu_1x1"
  type: "ReLU"
  bottom: "inception_4b/1x1"
  top: "inception_4b/1x1"
}
layer {
  name: "inception_4b/3x3_reduce"
  type: "Convolution"
  bottom: "inception_4a/output"
  top: "inception_4b/3x3_reduce"
  param {
    lr_mult: 1
    decay_mult: 1
  }
  param {
    lr_mult: 2
    decay_mult: 0
  }
  convolution_param {
    num_output: 112
    kernel_size: 1
    weight_filler {
      type: "xavier"
      std: 0.09
    }
    bias_filler {
      type: "constant"
      value: 0.2
    }
  }
}
layer {
  name: "inception_4b/relu_3x3_reduce"
  type: "ReLU"
  bottom: "inception_4b/3x3_reduce"
  top: "inception_4b/3x3_reduce"
}
layer {
  name: "inception_4b/3x3"
  type: "Convolution"
  bottom: "inception_4b/3x3_reduce"
  top: "inception_4b/3x3"
  param {
    lr_mult: 1
    decay_mult: 1
  }
  param {
    lr_mult: 2
    decay_mult: 0
  }
  convolution_param {
    num_output: 224
    pad: 1
    kernel_size: 3
    weight_filler {
      type: "xavier"
      std: 0.03
    }
    bias_filler {
      type: "constant"
      value: 0.2
    }
  }
}
layer {
  name: "inception_4b/relu_3x3"
  type: "ReLU"
  bottom: "inception_4b/3x3"
  top: "inception_4b/3x3"
}
layer {
  name: "inception_4b/5x5_reduce"
  type: "Convolution"
  bottom: "inception_4a/output"
  top: "inception_4b/5x5_reduce"
  param {
    lr_mult: 1
    decay_mult: 1
  }
  param {
    lr_mult: 2
    decay_mult: 0
  }
  convolution_param {
    num_output: 24
    kernel_size: 1
    weight_filler {
      type: "xavier"
      std: 0.2
    }
    bias_filler {
      type: "constant"
      value: 0.2
    }
  }
}
layer {
  name: "inception_4b/relu_5x5_reduce"
  type: "ReLU"
  bottom: "inception_4b/5x5_reduce"
  top: "inception_4b/5x5_reduce"
}
layer {
  name: "inception_4b/5x5"
  type: "Convolution"
  bottom: "inception_4b/5x5_reduce"
  top: "inception_4b/5x5"
  param {
    lr_mult: 1
    decay_mult: 1
  }
  param {
    lr_mult: 2
    decay_mult: 0
  }
  convolution_param {
    num_output: 64
    pad: 2
    kernel_size: 5
    weight_filler {
      type: "xavier"
      std: 0.03
    }
    bias_filler {
      type: "constant"
      value: 0.2
    }
  }
}
layer {
  name: "inception_4b/relu_5x5"
  type: "ReLU"
  bottom: "inception_4b/5x5"
  top: "inception_4b/5x5"
}
layer {
  name: "inception_4b/pool"
  type: "Pooling"
  bottom: "inception_4a/output"
  top: "inception_4b/pool"
  pooling_param {
    pool: MAX
    kernel_size: 3
    stride: 1
    pad: 1
  }
}
layer {
  name: "inception_4b/pool_proj"
  type: "Convolution"
  bottom: "inception_4b/pool"
  top: "inception_4b/pool_proj"
  param {
    lr_mult: 1
    decay_mult: 1
  }
  param {
    lr_mult: 2
    decay_mult: 0
  }
  convolution_param {
    num_output: 64
    kernel_size: 1
    weight_filler {
      type: "xavier"
      std: 0.1
    }
    bias_filler {
      type: "constant"
      value: 0.2
    }
  }
}
layer {
  name: "inception_4b/relu_pool_proj"
  type: "ReLU"
  bottom: "inception_4b/pool_proj"
  top: "inception_4b/pool_proj"
}
layer {
  name: "inception_4b/output"
  type: "Concat"
  bottom: "inception_4b/1x1"
  bottom: "inception_4b/3x3"
  bottom: "inception_4b/5x5"
  bottom: "inception_4b/pool_proj"
  top: "inception_4b/output"
}
layer {
  name: "inception_4c/1x1"
  type: "Convolution"
  bottom: "inception_4b/output"
  top: "inception_4c/1x1"
  param {
    lr_mult: 1
    decay_mult: 1
  }
  param {
    lr_mult: 2
    decay_mult: 0
  }
  convolution_param {
    num_output: 128
    kernel_size: 1
    weight_filler {
      type: "xavier"
      std: 0.03
    }
    bias_filler {
      type: "constant"
      value: 0.2
    }
  }
}
layer {
  name: "inception_4c/relu_1x1"
  type: "ReLU"
  bottom: "inception_4c/1x1"
  top: "inception_4c/1x1"
}
layer {
  name: "inception_4c/3x3_reduce"
  type: "Convolution"
  bottom: "inception_4b/output"
  top: "inception_4c/3x3_reduce"
  param {
    lr_mult: 1
    decay_mult: 1
  }
  param {
    lr_mult: 2
    decay_mult: 0
  }
  convolution_param {
    num_output: 128
    kernel_size: 1
    weight_filler {
      type: "xavier"
      std: 0.09
    }
    bias_filler {
      type: "constant"
      value: 0.2
    }
  }
}
layer {
  name: "inception_4c/relu_3x3_reduce"
  type: "ReLU"
  bottom: "inception_4c/3x3_reduce"
  top: "inception_4c/3x3_reduce"
}
layer {
  name: "inception_4c/3x3"
  type: "Convolution"
  bottom: "inception_4c/3x3_reduce"
  top: "inception_4c/3x3"
  param {
    lr_mult: 1
    decay_mult: 1
  }
  param {
    lr_mult: 2
    decay_mult: 0
  }
  convolution_param {
    num_output: 256
    pad: 1
    kernel_size: 3
    weight_filler {
      type: "xavier"
      std: 0.03
    }
    bias_filler {
      type: "constant"
      value: 0.2
    }
  }
}
layer {
  name: "inception_4c/relu_3x3"
  type: "ReLU"
  bottom: "inception_4c/3x3"
  top: "inception_4c/3x3"
}
layer {
  name: "inception_4c/5x5_reduce"
  type: "Convolution"
  bottom: "inception_4b/output"
  top: "inception_4c/5x5_reduce"
  param {
    lr_mult: 1
    decay_mult: 1
  }
  param {
    lr_mult: 2
    decay_mult: 0
  }
  convolution_param {
    num_output: 24
    kernel_size: 1
    weight_filler {
      type: "xavier"
      std: 0.2
    }
    bias_filler {
      type: "constant"
      value: 0.2
    }
  }
}
layer {
  name: "inception_4c/relu_5x5_reduce"
  type: "ReLU"
  bottom: "inception_4c/5x5_reduce"
  top: "inception_4c/5x5_reduce"
}
layer {
  name: "inception_4c/5x5"
  type: "Convolution"
  bottom: "inception_4c/5x5_reduce"
  top: "inception_4c/5x5"
  param {
    lr_mult: 1
    decay_mult: 1
  }
  param {
    lr_mult: 2
    decay_mult: 0
  }
  convolution_param {
    num_output: 64
    pad: 2
    kernel_size: 5
    weight_filler {
      type: "xavier"
      std: 0.03
    }
    bias_filler {
      type: "constant"
      value: 0.2
    }
  }
}
layer {
  name: "inception_4c/relu_5x5"
  type: "ReLU"
  bottom: "inception_4c/5x5"
  top: "inception_4c/5x5"
}
layer {
  name: "inception_4c/pool"
  type: "Pooling"
  bottom: "inception_4b/output"
  top: "inception_4c/pool"
  pooling_param {
    pool: MAX
    kernel_size: 3
    stride: 1
    pad: 1
  }
}
layer {
  name: "inception_4c/pool_proj"
  type: "Convolution"
  bottom: "inception_4c/pool"
  top: "inception_4c/pool_proj"
  param {
    lr_mult: 1
    decay_mult: 1
  }
  param {
    lr_mult: 2
    decay_mult: 0
  }
  convolution_param {
    num_output: 64
    kernel_size: 1
    weight_filler {
      type: "xavier"
      std: 0.1
    }
    bias_filler {
      type: "constant"
      value: 0.2
    }
  }
}
layer {
  name: "inception_4c/relu_pool_proj"
  type: "ReLU"
  bottom: "inception_4c/pool_proj"
  top: "inception_4c/pool_proj"
}
layer {
  name: "inception_4c/output"
  type: "Concat"
  bottom: "inception_4c/1x1"
  bottom: "inception_4c/3x3"
  bottom: "inception_4c/5x5"
  bottom: "inception_4c/pool_proj"
  top: "inception_4c/output"
}
layer {
  name: "inception_4d/1x1"
  type: "Convolution"
  bottom: "inception_4c/output"
  top: "inception_4d/1x1"
  param {
    lr_mult: 1
    decay_mult: 1
  }
  param {
    lr_mult: 2
    decay_mult: 0
  }
  convolution_param {
    num_output: 112
    kernel_size: 1
    weight_filler {
      type: "xavier"
      std: 0.03
    }
    bias_filler {
      type: "constant"
      value: 0.2
    }
  }
}
layer {
  name: "inception_4d/relu_1x1"
  type: "ReLU"
  bottom: "inception_4d/1x1"
  top: "inception_4d/1x1"
}
layer {
  name: "inception_4d/3x3_reduce"
  type: "Convolution"
  bottom: "inception_4c/output"
  top: "inception_4d/3x3_reduce"
  param {
    lr_mult: 1
    decay_mult: 1
  }
  param {
    lr_mult: 2
    decay_mult: 0
  }
  convolution_param {
    num_output: 144
    kernel_size: 1
    weight_filler {
      type: "xavier"
      std: 0.09
    }
    bias_filler {
      type: "constant"
      value: 0.2
    }
  }
}
layer {
  name: "inception_4d/relu_3x3_reduce"
  type: "ReLU"
  bottom: "inception_4d/3x3_reduce"
  top: "inception_4d/3x3_reduce"
}
layer {
  name: "inception_4d/3x3"
  type: "Convolution"
  bottom: "inception_4d/3x3_reduce"
  top: "inception_4d/3x3"
  param {
    lr_mult: 1
    decay_mult: 1
  }
  param {
    lr_mult: 2
    decay_mult: 0
  }
  convolution_param {
    num_output: 288
    pad: 1
    kernel_size: 3
    weight_filler {
      type: "xavier"
      std: 0.03
    }
    bias_filler {
      type: "constant"
      value: 0.2
    }
  }
}
layer {
  name: "inception_4d/relu_3x3"
  type: "ReLU"
  bottom: "inception_4d/3x3"
  top: "inception_4d/3x3"
}
layer {
  name: "inception_4d/5x5_reduce"
  type: "Convolution"
  bottom: "inception_4c/output"
  top: "inception_4d/5x5_reduce"
  param {
    lr_mult: 1
    decay_mult: 1
  }
  param {
    lr_mult: 2
    decay_mult: 0
  }
  convolution_param {
    num_output: 32
    kernel_size: 1
    weight_filler {
      type: "xavier"
      std: 0.2
    }
    bias_filler {
      type: "constant"
      value: 0.2
    }
  }
}
layer {
  name: "inception_4d/relu_5x5_reduce"
  type: "ReLU"
  bottom: "inception_4d/5x5_reduce"
  top: "inception_4d/5x5_reduce"
}
layer {
  name: "inception_4d/5x5"
  type: "Convolution"
  bottom: "inception_4d/5x5_reduce"
  top: "inception_4d/5x5"
  param {
    lr_mult: 1
    decay_mult: 1
  }
  param {
    lr_mult: 2
    decay_mult: 0
  }
  convolution_param {
    num_output: 64
    pad: 2
    kernel_size: 5
    weight_filler {
      type: "xavier"
      std: 0.03
    }
    bias_filler {
      type: "constant"
      value: 0.2
    }
  }
}
layer {
  name: "inception_4d/relu_5x5"
  type: "ReLU"
  bottom: "inception_4d/5x5"
  top: "inception_4d/5x5"
}
layer {
  name: "inception_4d/pool"
  type: "Pooling"
  bottom: "inception_4c/output"
  top: "inception_4d/pool"
  pooling_param {
    pool: MAX
    kernel_size: 3
    stride: 1
    pad: 1
  }
}
layer {
  name: "inception_4d/pool_proj"
  type: "Convolution"
  bottom: "inception_4d/pool"
  top: "inception_4d/pool_proj"
  param {
    lr_mult: 1
    decay_mult: 1
  }
  param {
    lr_mult: 2
    decay_mult: 0
  }
  convolution_param {
    num_output: 64
    kernel_size: 1
    weight_filler {
      type: "xavier"
      std: 0.1
    }
    bias_filler {
      type: "constant"
      value: 0.2
    }
  }
}
layer {
  name: "inception_4d/relu_pool_proj"
  type: "ReLU"
  bottom: "inception_4d/pool_proj"
  top: "inception_4d/pool_proj"
}
layer {
  name: "inception_4d/output"
  type: "Concat"
  bottom: "inception_4d/1x1"
  bottom: "inception_4d/3x3"
  bottom: "inception_4d/5x5"
  bottom: "inception_4d/pool_proj"
  top: "inception_4d/output"
}
layer {
  name: "loss2/ave_pool"
  type: "Pooling"
  bottom: "inception_4d/output"
  top: "loss2/ave_pool"
  pooling_param {
    pool: AVE
    kernel_size: 5
    stride: 3
  }
}
layer {
  name: "loss2/conv"
  type: "Convolution"
  bottom: "loss2/ave_pool"
  top: "loss2/conv"
  param {
    lr_mult: 1
    decay_mult: 1
  }
  param {
    lr_mult: 2
    decay_mult: 0
  }
  convolution_param {
    num_output: 128
    kernel_size: 1
    weight_filler {
      type: "xavier"
      std: 0.08
    }
    bias_filler {
      type: "constant"
      value: 0.2
    }
  }
}
layer {
  name: "loss2/relu_conv"
  type: "ReLU"
  bottom: "loss2/conv"
  top: "loss2/conv"
}
layer {
  name: "loss2/fc"
  type: "InnerProduct"
  bottom: "loss2/conv"
  top: "loss2/fc"
  param {
    lr_mult: 1
    decay_mult: 1
  }
  param {
    lr_mult: 2
    decay_mult: 0
  }
  inner_product_param {
    num_output: 1024
    weight_filler {
      type: "xavier"
      std: 0.02
    }
    bias_filler {
      type: "constant"
      value: 0.2
    }
  }
}
layer {
  name: "loss2/relu_fc"
  type: "ReLU"
  bottom: "loss2/fc"
  top: "loss2/fc"
}
layer {
  name: "loss2/drop_fc"
  type: "Dropout"
  bottom: "loss2/fc"
  top: "loss2/fc"
  dropout_param {
    dropout_ratio: 0.7
  }
}
layer {
  name: "loss2/classifier_plantvillage"
  type: "InnerProduct"
  bottom: "loss2/fc"
  top: "loss2/classifier_plantvillage"
  param {
    lr_mult: 1
    decay_mult: 1
  }
  param {
    lr_mult: 2
    decay_mult: 0
  }
  inner_product_param {
    num_output: 38
    weight_filler {
      type: "xavier"
      std: 0.0009765625
    }
    bias_filler {
      type: "constant"
      value: 0
    }
  }
}
layer {
  name: "inception_4e/1x1"
  type: "Convolution"
  bottom: "inception_4d/output"
  top: "inception_4e/1x1"
  param {
    lr_mult: 1
    decay_mult: 1
  }
  param {
    lr_mult: 2
    decay_mult: 0
  }
  convolution_param {
    num_output: 256
    kernel_size: 1
    weight_filler {
      type: "xavier"
      std: 0.03
    }
    bias_filler {
      type: "constant"
      value: 0.2
    }
  }
}
layer {
  name: "inception_4e/relu_1x1"
  type: "ReLU"
  bottom: "inception_4e/1x1"
  top: "inception_4e/1x1"
}
layer {
  name: "inception_4e/3x3_reduce"
  type: "Convolution"
  bottom: "inception_4d/output"
  top: "inception_4e/3x3_reduce"
  param {
    lr_mult: 1
    decay_mult: 1
  }
  param {
    lr_mult: 2
    decay_mult: 0
  }
  convolution_param {
    num_output: 160
    kernel_size: 1
    weight_filler {
      type: "xavier"
      std: 0.09
    }
    bias_filler {
      type: "constant"
      value: 0.2
    }
  }
}
layer {
  name: "inception_4e/relu_3x3_reduce"
  type: "ReLU"
  bottom: "inception_4e/3x3_reduce"
  top: "inception_4e/3x3_reduce"
}
layer {
  name: "inception_4e/3x3"
  type: "Convolution"
  bottom: "inception_4e/3x3_reduce"
  top: "inception_4e/3x3"
  param {
    lr_mult: 1
    decay_mult: 1
  }
  param {
    lr_mult: 2
    decay_mult: 0
  }
  convolution_param {
    num_output: 320
    pad: 1
    kernel_size: 3
    weight_filler {
      type: "xavier"
      std: 0.03
    }
    bias_filler {
      type: "constant"
      value: 0.2
    }
  }
}
layer {
  name: "inception_4e/relu_3x3"
  type: "ReLU"
  bottom: "inception_4e/3x3"
  top: "inception_4e/3x3"
}
layer {
  name: "inception_4e/5x5_reduce"
  type: "Convolution"
  bottom: "inception_4d/output"
  top: "inception_4e/5x5_reduce"
  param {
    lr_mult: 1
    decay_mult: 1
  }
  param {
    lr_mult: 2
    decay_mult: 0
  }
  convolution_param {
    num_output: 32
    kernel_size: 1
    weight_filler {
      type: "xavier"
      std: 0.2
    }
    bias_filler {
      type: "constant"
      value: 0.2
    }
  }
}
layer {
  name: "inception_4e/relu_5x5_reduce"
  type: "ReLU"
  bottom: "inception_4e/5x5_reduce"
  top: "inception_4e/5x5_reduce"
}
layer {
  name: "inception_4e/5x5"
  type: "Convolution"
  bottom: "inception_4e/5x5_reduce"
  top: "inception_4e/5x5"
  p
I0403 15:00:14.864845 30861 layer_factory.hpp:77] Creating layer data
I0403 15:00:14.865481 30861 net.cpp:91] Creating Layer data
I0403 15:00:14.865535 30861 net.cpp:399] data -> data
I0403 15:00:14.865597 30861 net.cpp:399] data -> label
I0403 15:00:14.865666 30861 data_transformer.cpp:25] Loading mean file from: /home/mohanty/data/final_dataset/lmdb/color-20-80/mean.binaryproto
I0403 15:00:14.868752 30866 db_lmdb.cpp:38] Opened lmdb /home/mohanty/data/final_dataset/lmdb/color-20-80/test_db
I0403 15:00:14.878963 30861 data_layer.cpp:41] output data size: 24,3,224,224
I0403 15:00:14.906857 30861 net.cpp:141] Setting up data
I0403 15:00:14.906918 30861 net.cpp:148] Top shape: 24 3 224 224 (3612672)
I0403 15:00:14.906941 30861 net.cpp:148] Top shape: 24 (24)
I0403 15:00:14.906957 30861 net.cpp:156] Memory required for data: 14450784
I0403 15:00:14.906985 30861 layer_factory.hpp:77] Creating layer label_data_1_split
I0403 15:00:14.907012 30861 net.cpp:91] Creating Layer label_data_1_split
I0403 15:00:14.907032 30861 net.cpp:425] label_data_1_split <- label
I0403 15:00:14.907080 30861 net.cpp:399] label_data_1_split -> label_data_1_split_0
I0403 15:00:14.907132 30861 net.cpp:399] label_data_1_split -> label_data_1_split_1
I0403 15:00:14.907160 30861 net.cpp:399] label_data_1_split -> label_data_1_split_2
I0403 15:00:14.907240 30861 net.cpp:399] label_data_1_split -> label_data_1_split_3
I0403 15:00:14.907330 30861 net.cpp:399] label_data_1_split -> label_data_1_split_4
I0403 15:00:14.907356 30861 net.cpp:399] label_data_1_split -> label_data_1_split_5
I0403 15:00:14.907382 30861 net.cpp:399] label_data_1_split -> label_data_1_split_6
I0403 15:00:14.907404 30861 net.cpp:399] label_data_1_split -> label_data_1_split_7
I0403 15:00:14.907426 30861 net.cpp:399] label_data_1_split -> label_data_1_split_8
I0403 15:00:14.907452 30861 net.cpp:399] label_data_1_split -> label_data_1_split_9
I0403 15:00:14.907573 30861 net.cpp:141] Setting up label_data_1_split
I0403 15:00:14.907616 30861 net.cpp:148] Top shape: 24 (24)
I0403 15:00:14.907640 30861 net.cpp:148] Top shape: 24 (24)
I0403 15:00:14.907672 30861 net.cpp:148] Top shape: 24 (24)
I0403 15:00:14.907692 30861 net.cpp:148] Top shape: 24 (24)
I0403 15:00:14.907711 30861 net.cpp:148] Top shape: 24 (24)
I0403 15:00:14.907733 30861 net.cpp:148] Top shape: 24 (24)
I0403 15:00:14.907753 30861 net.cpp:148] Top shape: 24 (24)
I0403 15:00:14.907770 30861 net.cpp:148] Top shape: 24 (24)
I0403 15:00:14.907786 30861 net.cpp:148] Top shape: 24 (24)
I0403 15:00:14.907809 30861 net.cpp:148] Top shape: 24 (24)
I0403 15:00:14.907858 30861 net.cpp:156] Memory required for data: 14451744
I0403 15:00:14.907879 30861 layer_factory.hpp:77] Creating layer conv1/7x7_s2
I0403 15:00:14.907917 30861 net.cpp:91] Creating Layer conv1/7x7_s2
I0403 15:00:14.907938 30861 net.cpp:425] conv1/7x7_s2 <- data
I0403 15:00:14.907971 30861 net.cpp:399] conv1/7x7_s2 -> conv1/7x7_s2
I0403 15:00:15.049286 30861 net.cpp:141] Setting up conv1/7x7_s2
I0403 15:00:15.049371 30861 net.cpp:148] Top shape: 24 64 112 112 (19267584)
I0403 15:00:15.049396 30861 net.cpp:156] Memory required for data: 91522080
I0403 15:00:15.049437 30861 layer_factory.hpp:77] Creating layer conv1/relu_7x7
I0403 15:00:15.049473 30861 net.cpp:91] Creating Layer conv1/relu_7x7
I0403 15:00:15.049499 30861 net.cpp:425] conv1/relu_7x7 <- conv1/7x7_s2
I0403 15:00:15.049527 30861 net.cpp:386] conv1/relu_7x7 -> conv1/7x7_s2 (in-place)
I0403 15:00:15.049821 30861 net.cpp:141] Setting up conv1/relu_7x7
I0403 15:00:15.049855 30861 net.cpp:148] Top shape: 24 64 112 112 (19267584)
I0403 15:00:15.049877 30861 net.cpp:156] Memory required for data: 168592416
I0403 15:00:15.049901 30861 layer_factory.hpp:77] Creating layer pool1/3x3_s2
I0403 15:00:15.049935 30861 net.cpp:91] Creating Layer pool1/3x3_s2
I0403 15:00:15.049957 30861 net.cpp:425] pool1/3x3_s2 <- conv1/7x7_s2
I0403 15:00:15.049979 30861 net.cpp:399] pool1/3x3_s2 -> pool1/3x3_s2
I0403 15:00:15.050070 30861 net.cpp:141] Setting up pool1/3x3_s2
I0403 15:00:15.050099 30861 net.cpp:148] Top shape: 24 64 56 56 (4816896)
I0403 15:00:15.050118 30861 net.cpp:156] Memory required for data: 187860000
I0403 15:00:15.050138 30861 layer_factory.hpp:77] Creating layer pool1/norm1
I0403 15:00:15.050174 30861 net.cpp:91] Creating Layer pool1/norm1
I0403 15:00:15.050207 30861 net.cpp:425] pool1/norm1 <- pool1/3x3_s2
I0403 15:00:15.050230 30861 net.cpp:399] pool1/norm1 -> pool1/norm1
I0403 15:00:15.050590 30861 net.cpp:141] Setting up pool1/norm1
I0403 15:00:15.050621 30861 net.cpp:148] Top shape: 24 64 56 56 (4816896)
I0403 15:00:15.050637 30861 net.cpp:156] Memory required for data: 207127584
I0403 15:00:15.050654 30861 layer_factory.hpp:77] Creating layer conv2/3x3_reduce
I0403 15:00:15.050684 30861 net.cpp:91] Creating Layer conv2/3x3_reduce
I0403 15:00:15.050704 30861 net.cpp:425] conv2/3x3_reduce <- pool1/norm1
I0403 15:00:15.050726 30861 net.cpp:399] conv2/3x3_reduce -> conv2/3x3_reduce
I0403 15:00:15.052173 30861 net.cpp:141] Setting up conv2/3x3_reduce
I0403 15:00:15.052217 30861 net.cpp:148] Top shape: 24 64 56 56 (4816896)
I0403 15:00:15.052240 30861 net.cpp:156] Memory required for data: 226395168
I0403 15:00:15.052274 30861 layer_factory.hpp:77] Creating layer conv2/relu_3x3_reduce
I0403 15:00:15.052299 30861 net.cpp:91] Creating Layer conv2/relu_3x3_reduce
I0403 15:00:15.052330 30861 net.cpp:425] conv2/relu_3x3_reduce <- conv2/3x3_reduce
I0403 15:00:15.052350 30861 net.cpp:386] conv2/relu_3x3_reduce -> conv2/3x3_reduce (in-place)
I0403 15:00:15.052649 30861 net.cpp:141] Setting up conv2/relu_3x3_reduce
I0403 15:00:15.052691 30861 net.cpp:148] Top shape: 24 64 56 56 (4816896)
I0403 15:00:15.052722 30861 net.cpp:156] Memory required for data: 245662752
I0403 15:00:15.052755 30861 layer_factory.hpp:77] Creating layer conv2/3x3
I0403 15:00:15.052781 30861 net.cpp:91] Creating Layer conv2/3x3
I0403 15:00:15.052801 30861 net.cpp:425] conv2/3x3 <- conv2/3x3_reduce
I0403 15:00:15.052829 30861 net.cpp:399] conv2/3x3 -> conv2/3x3
I0403 15:00:15.055402 30861 net.cpp:141] Setting up conv2/3x3
I0403 15:00:15.055449 30861 net.cpp:148] Top shape: 24 192 56 56 (14450688)
I0403 15:00:15.055508 30861 net.cpp:156] Memory required for data: 303465504
I0403 15:00:15.055553 30861 layer_factory.hpp:77] Creating layer conv2/relu_3x3
I0403 15:00:15.055579 30861 net.cpp:91] Creating Layer conv2/relu_3x3
I0403 15:00:15.055603 30861 net.cpp:425] conv2/relu_3x3 <- conv2/3x3
I0403 15:00:15.055627 30861 net.cpp:386] conv2/relu_3x3 -> conv2/3x3 (in-place)
I0403 15:00:15.055819 30861 net.cpp:141] Setting up conv2/relu_3x3
I0403 15:00:15.055853 30861 net.cpp:148] Top shape: 24 192 56 56 (14450688)
I0403 15:00:15.055910 30861 net.cpp:156] Memory required for data: 361268256
I0403 15:00:15.055930 30861 layer_factory.hpp:77] Creating layer conv2/norm2
I0403 15:00:15.055961 30861 net.cpp:91] Creating Layer conv2/norm2
I0403 15:00:15.055986 30861 net.cpp:425] conv2/norm2 <- conv2/3x3
I0403 15:00:15.056012 30861 net.cpp:399] conv2/norm2 -> conv2/norm2
I0403 15:00:15.056345 30861 net.cpp:141] Setting up conv2/norm2
I0403 15:00:15.056378 30861 net.cpp:148] Top shape: 24 192 56 56 (14450688)
I0403 15:00:15.056401 30861 net.cpp:156] Memory required for data: 419071008
I0403 15:00:15.056418 30861 layer_factory.hpp:77] Creating layer pool2/3x3_s2
I0403 15:00:15.056447 30861 net.cpp:91] Creating Layer pool2/3x3_s2
I0403 15:00:15.056465 30861 net.cpp:425] pool2/3x3_s2 <- conv2/norm2
I0403 15:00:15.056493 30861 net.cpp:399] pool2/3x3_s2 -> pool2/3x3_s2
I0403 15:00:15.056556 30861 net.cpp:141] Setting up pool2/3x3_s2
I0403 15:00:15.056584 30861 net.cpp:148] Top shape: 24 192 28 28 (3612672)
I0403 15:00:15.056607 30861 net.cpp:156] Memory required for data: 433521696
I0403 15:00:15.056629 30861 layer_factory.hpp:77] Creating layer pool2/3x3_s2_pool2/3x3_s2_0_split
I0403 15:00:15.056651 30861 net.cpp:91] Creating Layer pool2/3x3_s2_pool2/3x3_s2_0_split
I0403 15:00:15.056674 30861 net.cpp:425] pool2/3x3_s2_pool2/3x3_s2_0_split <- pool2/3x3_s2
I0403 15:00:15.056699 30861 net.cpp:399] pool2/3x3_s2_pool2/3x3_s2_0_split -> pool2/3x3_s2_pool2/3x3_s2_0_split_0
I0403 15:00:15.056727 30861 net.cpp:399] pool2/3x3_s2_pool2/3x3_s2_0_split -> pool2/3x3_s2_pool2/3x3_s2_0_split_1
I0403 15:00:15.056753 30861 net.cpp:399] pool2/3x3_s2_pool2/3x3_s2_0_split -> pool2/3x3_s2_pool2/3x3_s2_0_split_2
I0403 15:00:15.056784 30861 net.cpp:399] pool2/3x3_s2_pool2/3x3_s2_0_split -> pool2/3x3_s2_pool2/3x3_s2_0_split_3
I0403 15:00:15.056860 30861 net.cpp:141] Setting up pool2/3x3_s2_pool2/3x3_s2_0_split
I0403 15:00:15.056893 30861 net.cpp:148] Top shape: 24 192 28 28 (3612672)
I0403 15:00:15.056921 30861 net.cpp:148] Top shape: 24 192 28 28 (3612672)
I0403 15:00:15.056946 30861 net.cpp:148] Top shape: 24 192 28 28 (3612672)
I0403 15:00:15.056969 30861 net.cpp:148] Top shape: 24 192 28 28 (3612672)
I0403 15:00:15.056987 30861 net.cpp:156] Memory required for data: 491324448
I0403 15:00:15.057008 30861 layer_factory.hpp:77] Creating layer inception_3a/1x1
I0403 15:00:15.057036 30861 net.cpp:91] Creating Layer inception_3a/1x1
I0403 15:00:15.057063 30861 net.cpp:425] inception_3a/1x1 <- pool2/3x3_s2_pool2/3x3_s2_0_split_0
I0403 15:00:15.057090 30861 net.cpp:399] inception_3a/1x1 -> inception_3a/1x1
I0403 15:00:15.058732 30861 net.cpp:141] Setting up inception_3a/1x1
I0403 15:00:15.058768 30861 net.cpp:148] Top shape: 24 64 28 28 (1204224)
I0403 15:00:15.058791 30861 net.cpp:156] Memory required for data: 496141344
I0403 15:00:15.058815 30861 layer_factory.hpp:77] Creating layer inception_3a/relu_1x1
I0403 15:00:15.058845 30861 net.cpp:91] Creating Layer inception_3a/relu_1x1
I0403 15:00:15.058892 30861 net.cpp:425] inception_3a/relu_1x1 <- inception_3a/1x1
I0403 15:00:15.058956 30861 net.cpp:386] inception_3a/relu_1x1 -> inception_3a/1x1 (in-place)
I0403 15:00:15.059155 30861 net.cpp:141] Setting up inception_3a/relu_1x1
I0403 15:00:15.059190 30861 net.cpp:148] Top shape: 24 64 28 28 (1204224)
I0403 15:00:15.059212 30861 net.cpp:156] Memory required for data: 500958240
I0403 15:00:15.059231 30861 layer_factory.hpp:77] Creating layer inception_3a/3x3_reduce
I0403 15:00:15.059257 30861 net.cpp:91] Creating Layer inception_3a/3x3_reduce
I0403 15:00:15.059278 30861 net.cpp:425] inception_3a/3x3_reduce <- pool2/3x3_s2_pool2/3x3_s2_0_split_1
I0403 15:00:15.059299 30861 net.cpp:399] inception_3a/3x3_reduce -> inception_3a/3x3_reduce
I0403 15:00:15.061162 30861 net.cpp:141] Setting up inception_3a/3x3_reduce
I0403 15:00:15.061203 30861 net.cpp:148] Top shape: 24 96 28 28 (1806336)
I0403 15:00:15.061228 30861 net.cpp:156] Memory required for data: 508183584
I0403 15:00:15.061262 30861 layer_factory.hpp:77] Creating layer inception_3a/relu_3x3_reduce
I0403 15:00:15.061307 30861 net.cpp:91] Creating Layer inception_3a/relu_3x3_reduce
I0403 15:00:15.061338 30861 net.cpp:425] inception_3a/relu_3x3_reduce <- inception_3a/3x3_reduce
I0403 15:00:15.061368 30861 net.cpp:386] inception_3a/relu_3x3_reduce -> inception_3a/3x3_reduce (in-place)
I0403 15:00:15.061568 30861 net.cpp:141] Setting up inception_3a/relu_3x3_reduce
I0403 15:00:15.061604 30861 net.cpp:148] Top shape: 24 96 28 28 (1806336)
I0403 15:00:15.061620 30861 net.cpp:156] Memory required for data: 515408928
I0403 15:00:15.061645 30861 layer_factory.hpp:77] Creating layer inception_3a/3x3
I0403 15:00:15.061671 30861 net.cpp:91] Creating Layer inception_3a/3x3
I0403 15:00:15.061699 30861 net.cpp:425] inception_3a/3x3 <- inception_3a/3x3_reduce
I0403 15:00:15.061729 30861 net.cpp:399] inception_3a/3x3 -> inception_3a/3x3
I0403 15:00:15.063536 30861 net.cpp:141] Setting up inception_3a/3x3
I0403 15:00:15.063570 30861 net.cpp:148] Top shape: 24 128 28 28 (2408448)
I0403 15:00:15.063596 30861 net.cpp:156] Memory required for data: 525042720
I0403 15:00:15.063623 30861 layer_factory.hpp:77] Creating layer inception_3a/relu_3x3
I0403 15:00:15.063652 30861 net.cpp:91] Creating Layer inception_3a/relu_3x3
I0403 15:00:15.063671 30861 net.cpp:425] inception_3a/relu_3x3 <- inception_3a/3x3
I0403 15:00:15.063694 30861 net.cpp:386] inception_3a/relu_3x3 -> inception_3a/3x3 (in-place)
I0403 15:00:15.063990 30861 net.cpp:141] Setting up inception_3a/relu_3x3
I0403 15:00:15.064028 30861 net.cpp:148] Top shape: 24 128 28 28 (2408448)
I0403 15:00:15.064050 30861 net.cpp:156] Memory required for data: 534676512
I0403 15:00:15.064074 30861 layer_factory.hpp:77] Creating layer inception_3a/5x5_reduce
I0403 15:00:15.064102 30861 net.cpp:91] Creating Layer inception_3a/5x5_reduce
I0403 15:00:15.064127 30861 net.cpp:425] inception_3a/5x5_reduce <- pool2/3x3_s2_pool2/3x3_s2_0_split_2
I0403 15:00:15.064148 30861 net.cpp:399] inception_3a/5x5_reduce -> inception_3a/5x5_reduce
I0403 15:00:15.065249 30861 net.cpp:141] Setting up inception_3a/5x5_reduce
I0403 15:00:15.065289 30861 net.cpp:148] Top shape: 24 16 28 28 (301056)
I0403 15:00:15.065307 30861 net.cpp:156] Memory required for data: 535880736
I0403 15:00:15.065340 30861 layer_factory.hpp:77] Creating layer inception_3a/relu_5x5_reduce
I0403 15:00:15.065366 30861 net.cpp:91] Creating Layer inception_3a/relu_5x5_reduce
I0403 15:00:15.065384 30861 net.cpp:425] inception_3a/relu_5x5_reduce <- inception_3a/5x5_reduce
I0403 15:00:15.065415 30861 net.cpp:386] inception_3a/relu_5x5_reduce -> inception_3a/5x5_reduce (in-place)
I0403 15:00:15.065727 30861 net.cpp:141] Setting up inception_3a/relu_5x5_reduce
I0403 15:00:15.065764 30861 net.cpp:148] Top shape: 24 16 28 28 (301056)
I0403 15:00:15.065784 30861 net.cpp:156] Memory required for data: 537084960
I0403 15:00:15.065804 30861 layer_factory.hpp:77] Creating layer inception_3a/5x5
I0403 15:00:15.065835 30861 net.cpp:91] Creating Layer inception_3a/5x5
I0403 15:00:15.065862 30861 net.cpp:425] inception_3a/5x5 <- inception_3a/5x5_reduce
I0403 15:00:15.065888 30861 net.cpp:399] inception_3a/5x5 -> inception_3a/5x5
I0403 15:00:15.067028 30861 net.cpp:141] Setting up inception_3a/5x5
I0403 15:00:15.067059 30861 net.cpp:148] Top shape: 24 32 28 28 (602112)
I0403 15:00:15.067076 30861 net.cpp:156] Memory required for data: 539493408
I0403 15:00:15.067097 30861 layer_factory.hpp:77] Creating layer inception_3a/relu_5x5
I0403 15:00:15.067121 30861 net.cpp:91] Creating Layer inception_3a/relu_5x5
I0403 15:00:15.067139 30861 net.cpp:425] inception_3a/relu_5x5 <- inception_3a/5x5
I0403 15:00:15.067159 30861 net.cpp:386] inception_3a/relu_5x5 -> inception_3a/5x5 (in-place)
I0403 15:00:15.067350 30861 net.cpp:141] Setting up inception_3a/relu_5x5
I0403 15:00:15.067380 30861 net.cpp:148] Top shape: 24 32 28 28 (602112)
I0403 15:00:15.067397 30861 net.cpp:156] Memory required for data: 541901856
I0403 15:00:15.067415 30861 layer_factory.hpp:77] Creating layer inception_3a/pool
I0403 15:00:15.067435 30861 net.cpp:91] Creating Layer inception_3a/pool
I0403 15:00:15.067454 30861 net.cpp:425] inception_3a/pool <- pool2/3x3_s2_pool2/3x3_s2_0_split_3
I0403 15:00:15.067492 30861 net.cpp:399] inception_3a/pool -> inception_3a/pool
I0403 15:00:15.067555 30861 net.cpp:141] Setting up inception_3a/pool
I0403 15:00:15.067582 30861 net.cpp:148] Top shape: 24 192 28 28 (3612672)
I0403 15:00:15.067598 30861 net.cpp:156] Memory required for data: 556352544
I0403 15:00:15.067615 30861 layer_factory.hpp:77] Creating layer inception_3a/pool_proj
I0403 15:00:15.067639 30861 net.cpp:91] Creating Layer inception_3a/pool_proj
I0403 15:00:15.067659 30861 net.cpp:425] inception_3a/pool_proj <- inception_3a/pool
I0403 15:00:15.067679 30861 net.cpp:399] inception_3a/pool_proj -> inception_3a/pool_proj
I0403 15:00:15.068760 30861 net.cpp:141] Setting up inception_3a/pool_proj
I0403 15:00:15.068799 30861 net.cpp:148] Top shape: 24 32 28 28 (602112)
I0403 15:00:15.068825 30861 net.cpp:156] Memory required for data: 558760992
I0403 15:00:15.068858 30861 layer_factory.hpp:77] Creating layer inception_3a/relu_pool_proj
I0403 15:00:15.068886 30861 net.cpp:91] Creating Layer inception_3a/relu_pool_proj
I0403 15:00:15.068910 30861 net.cpp:425] inception_3a/relu_pool_proj <- inception_3a/pool_proj
I0403 15:00:15.068934 30861 net.cpp:386] inception_3a/relu_pool_proj -> inception_3a/pool_proj (in-place)
I0403 15:00:15.069234 30861 net.cpp:141] Setting up inception_3a/relu_pool_proj
I0403 15:00:15.069267 30861 net.cpp:148] Top shape: 24 32 28 28 (602112)
I0403 15:00:15.069289 30861 net.cpp:156] Memory required for data: 561169440
I0403 15:00:15.069314 30861 layer_factory.hpp:77] Creating layer inception_3a/output
I0403 15:00:15.069349 30861 net.cpp:91] Creating Layer inception_3a/output
I0403 15:00:15.069375 30861 net.cpp:425] inception_3a/output <- inception_3a/1x1
I0403 15:00:15.069445 30861 net.cpp:425] inception_3a/output <- inception_3a/3x3
I0403 15:00:15.069473 30861 net.cpp:425] inception_3a/output <- inception_3a/5x5
I0403 15:00:15.069491 30861 net.cpp:425] inception_3a/output <- inception_3a/pool_proj
I0403 15:00:15.069514 30861 net.cpp:399] inception_3a/output -> inception_3a/output
I0403 15:00:15.069571 30861 net.cpp:141] Setting up inception_3a/output
I0403 15:00:15.069604 30861 net.cpp:148] Top shape: 24 256 28 28 (4816896)
I0403 15:00:15.069624 30861 net.cpp:156] Memory required for data: 580437024
I0403 15:00:15.069650 30861 layer_factory.hpp:77] Creating layer inception_3a/output_inception_3a/output_0_split
I0403 15:00:15.069674 30861 net.cpp:91] Creating Layer inception_3a/output_inception_3a/output_0_split
I0403 15:00:15.069695 30861 net.cpp:425] inception_3a/output_inception_3a/output_0_split <- inception_3a/output
I0403 15:00:15.069725 30861 net.cpp:399] inception_3a/output_inception_3a/output_0_split -> inception_3a/output_inception_3a/output_0_split_0
I0403 15:00:15.069753 30861 net.cpp:399] inception_3a/output_inception_3a/output_0_split -> inception_3a/output_inception_3a/output_0_split_1
I0403 15:00:15.069788 30861 net.cpp:399] inception_3a/output_inception_3a/output_0_split -> inception_3a/output_inception_3a/output_0_split_2
I0403 15:00:15.069815 30861 net.cpp:399] inception_3a/output_inception_3a/output_0_split -> inception_3a/output_inception_3a/output_0_split_3
I0403 15:00:15.069900 30861 net.cpp:141] Setting up inception_3a/output_inception_3a/output_0_split
I0403 15:00:15.069924 30861 net.cpp:148] Top shape: 24 256 28 28 (4816896)
I0403 15:00:15.069954 30861 net.cpp:148] Top shape: 24 256 28 28 (4816896)
I0403 15:00:15.069979 30861 net.cpp:148] Top shape: 24 256 28 28 (4816896)
I0403 15:00:15.070003 30861 net.cpp:148] Top shape: 24 256 28 28 (4816896)
I0403 15:00:15.070024 30861 net.cpp:156] Memory required for data: 657507360
I0403 15:00:15.070050 30861 layer_factory.hpp:77] Creating layer inception_3b/1x1
I0403 15:00:15.070072 30861 net.cpp:91] Creating Layer inception_3b/1x1
I0403 15:00:15.070092 30861 net.cpp:425] inception_3b/1x1 <- inception_3a/output_inception_3a/output_0_split_0
I0403 15:00:15.070116 30861 net.cpp:399] inception_3b/1x1 -> inception_3b/1x1
I0403 15:00:15.071372 30861 net.cpp:141] Setting up inception_3b/1x1
I0403 15:00:15.071416 30861 net.cpp:148] Top shape: 24 128 28 28 (2408448)
I0403 15:00:15.071434 30861 net.cpp:156] Memory required for data: 667141152
I0403 15:00:15.071454 30861 layer_factory.hpp:77] Creating layer inception_3b/relu_1x1
I0403 15:00:15.071476 30861 net.cpp:91] Creating Layer inception_3b/relu_1x1
I0403 15:00:15.071496 30861 net.cpp:425] inception_3b/relu_1x1 <- inception_3b/1x1
I0403 15:00:15.071516 30861 net.cpp:386] inception_3b/relu_1x1 -> inception_3b/1x1 (in-place)
I0403 15:00:15.071702 30861 net.cpp:141] Setting up inception_3b/relu_1x1
I0403 15:00:15.071729 30861 net.cpp:148] Top shape: 24 128 28 28 (2408448)
I0403 15:00:15.071745 30861 net.cpp:156] Memory required for data: 676774944
I0403 15:00:15.071763 30861 layer_factory.hpp:77] Creating layer inception_3b/3x3_reduce
I0403 15:00:15.071789 30861 net.cpp:91] Creating Layer inception_3b/3x3_reduce
I0403 15:00:15.071810 30861 net.cpp:425] inception_3b/3x3_reduce <- inception_3a/output_inception_3a/output_0_split_1
I0403 15:00:15.071830 30861 net.cpp:399] inception_3b/3x3_reduce -> inception_3b/3x3_reduce
I0403 15:00:15.073029 30861 net.cpp:141] Setting up inception_3b/3x3_reduce
I0403 15:00:15.073060 30861 net.cpp:148] Top shape: 24 128 28 28 (2408448)
I0403 15:00:15.073077 30861 net.cpp:156] Memory required for data: 686408736
I0403 15:00:15.073098 30861 layer_factory.hpp:77] Creating layer inception_3b/relu_3x3_reduce
I0403 15:00:15.073120 30861 net.cpp:91] Creating Layer inception_3b/relu_3x3_reduce
I0403 15:00:15.073139 30861 net.cpp:425] inception_3b/relu_3x3_reduce <- inception_3b/3x3_reduce
I0403 15:00:15.073189 30861 net.cpp:386] inception_3b/relu_3x3_reduce -> inception_3b/3x3_reduce (in-place)
I0403 15:00:15.073380 30861 net.cpp:141] Setting up inception_3b/relu_3x3_reduce
I0403 15:00:15.073412 30861 net.cpp:148] Top shape: 24 128 28 28 (2408448)
I0403 15:00:15.073429 30861 net.cpp:156] Memory required for data: 696042528
I0403 15:00:15.073446 30861 layer_factory.hpp:77] Creating layer inception_3b/3x3
I0403 15:00:15.073474 30861 net.cpp:91] Creating Layer inception_3b/3x3
I0403 15:00:15.073494 30861 net.cpp:425] inception_3b/3x3 <- inception_3b/3x3_reduce
I0403 15:00:15.073518 30861 net.cpp:399] inception_3b/3x3 -> inception_3b/3x3
I0403 15:00:15.076632 30861 net.cpp:141] Setting up inception_3b/3x3
I0403 15:00:15.076664 30861 net.cpp:148] Top shape: 24 192 28 28 (3612672)
I0403 15:00:15.076681 30861 net.cpp:156] Memory required for data: 710493216
I0403 15:00:15.076701 30861 layer_factory.hpp:77] Creating layer inception_3b/relu_3x3
I0403 15:00:15.076725 30861 net.cpp:91] Creating Layer inception_3b/relu_3x3
I0403 15:00:15.076743 30861 net.cpp:425] inception_3b/relu_3x3 <- inception_3b/3x3
I0403 15:00:15.076763 30861 net.cpp:386] inception_3b/relu_3x3 -> inception_3b/3x3 (in-place)
I0403 15:00:15.077055 30861 net.cpp:141] Setting up inception_3b/relu_3x3
I0403 15:00:15.077085 30861 net.cpp:148] Top shape: 24 192 28 28 (3612672)
I0403 15:00:15.077101 30861 net.cpp:156] Memory required for data: 724943904
I0403 15:00:15.077117 30861 layer_factory.hpp:77] Creating layer inception_3b/5x5_reduce
I0403 15:00:15.077145 30861 net.cpp:91] Creating Layer inception_3b/5x5_reduce
I0403 15:00:15.077167 30861 net.cpp:425] inception_3b/5x5_reduce <- inception_3a/output_inception_3a/output_0_split_2
I0403 15:00:15.077188 30861 net.cpp:399] inception_3b/5x5_reduce -> inception_3b/5x5_reduce
I0403 15:00:15.078224 30861 net.cpp:141] Setting up inception_3b/5x5_reduce
I0403 15:00:15.078254 30861 net.cpp:148] Top shape: 24 32 28 28 (602112)
I0403 15:00:15.078271 30861 net.cpp:156] Memory required for data: 727352352
I0403 15:00:15.078291 30861 layer_factory.hpp:77] Creating layer inception_3b/relu_5x5_reduce
I0403 15:00:15.078317 30861 net.cpp:91] Creating Layer inception_3b/relu_5x5_reduce
I0403 15:00:15.078339 30861 net.cpp:425] inception_3b/relu_5x5_reduce <- inception_3b/5x5_reduce
I0403 15:00:15.078359 30861 net.cpp:386] inception_3b/relu_5x5_reduce -> inception_3b/5x5_reduce (in-place)
I0403 15:00:15.078548 30861 net.cpp:141] Setting up inception_3b/relu_5x5_reduce
I0403 15:00:15.078589 30861 net.cpp:148] Top shape: 24 32 28 28 (602112)
I0403 15:00:15.078606 30861 net.cpp:156] Memory required for data: 729760800
I0403 15:00:15.078624 30861 layer_factory.hpp:77] Creating layer inception_3b/5x5
I0403 15:00:15.078649 30861 net.cpp:91] Creating Layer inception_3b/5x5
I0403 15:00:15.078668 30861 net.cpp:425] inception_3b/5x5 <- inception_3b/5x5_reduce
I0403 15:00:15.078691 30861 net.cpp:399] inception_3b/5x5 -> inception_3b/5x5
I0403 15:00:15.080817 30861 net.cpp:141] Setting up inception_3b/5x5
I0403 15:00:15.080852 30861 net.cpp:148] Top shape: 24 96 28 28 (1806336)
I0403 15:00:15.080868 30861 net.cpp:156] Memory required for data: 736986144
I0403 15:00:15.080888 30861 layer_factory.hpp:77] Creating layer inception_3b/relu_5x5
I0403 15:00:15.080910 30861 net.cpp:91] Creating Layer inception_3b/relu_5x5
I0403 15:00:15.080929 30861 net.cpp:425] inception_3b/relu_5x5 <- inception_3b/5x5
I0403 15:00:15.080950 30861 net.cpp:386] inception_3b/relu_5x5 -> inception_3b/5x5 (in-place)
I0403 15:00:15.081154 30861 net.cpp:141] Setting up inception_3b/relu_5x5
I0403 15:00:15.081182 30861 net.cpp:148] Top shape: 24 96 28 28 (1806336)
I0403 15:00:15.081199 30861 net.cpp:156] Memory required for data: 744211488
I0403 15:00:15.081217 30861 layer_factory.hpp:77] Creating layer inception_3b/pool
I0403 15:00:15.081238 30861 net.cpp:91] Creating Layer inception_3b/pool
I0403 15:00:15.081255 30861 net.cpp:425] inception_3b/pool <- inception_3a/output_inception_3a/output_0_split_3
I0403 15:00:15.081276 30861 net.cpp:399] inception_3b/pool -> inception_3b/pool
I0403 15:00:15.081341 30861 net.cpp:141] Setting up inception_3b/pool
I0403 15:00:15.081367 30861 net.cpp:148] Top shape: 24 256 28 28 (4816896)
I0403 15:00:15.081382 30861 net.cpp:156] Memory required for data: 763479072
I0403 15:00:15.081399 30861 layer_factory.hpp:77] Creating layer inception_3b/pool_proj
I0403 15:00:15.081424 30861 net.cpp:91] Creating Layer inception_3b/pool_proj
I0403 15:00:15.081444 30861 net.cpp:425] inception_3b/pool_proj <- inception_3b/pool
I0403 15:00:15.081466 30861 net.cpp:399] inception_3b/pool_proj -> inception_3b/pool_proj
I0403 15:00:15.082584 30861 net.cpp:141] Setting up inception_3b/pool_proj
I0403 15:00:15.082614 30861 net.cpp:148] Top shape: 24 64 28 28 (1204224)
I0403 15:00:15.082631 30861 net.cpp:156] Memory required for data: 768295968
I0403 15:00:15.082653 30861 layer_factory.hpp:77] Creating layer inception_3b/relu_pool_proj
I0403 15:00:15.082674 30861 net.cpp:91] Creating Layer inception_3b/relu_pool_proj
I0403 15:00:15.082691 30861 net.cpp:425] inception_3b/relu_pool_proj <- inception_3b/pool_proj
I0403 15:00:15.082712 30861 net.cpp:386] inception_3b/relu_pool_proj -> inception_3b/pool_proj (in-place)
I0403 15:00:15.083132 30861 net.cpp:141] Setting up inception_3b/relu_pool_proj
I0403 15:00:15.083163 30861 net.cpp:148] Top shape: 24 64 28 28 (1204224)
I0403 15:00:15.083181 30861 net.cpp:156] Memory required for data: 773112864
I0403 15:00:15.083197 30861 layer_factory.hpp:77] Creating layer inception_3b/output
I0403 15:00:15.083217 30861 net.cpp:91] Creating Layer inception_3b/output
I0403 15:00:15.083236 30861 net.cpp:425] inception_3b/output <- inception_3b/1x1
I0403 15:00:15.083256 30861 net.cpp:425] inception_3b/output <- inception_3b/3x3
I0403 15:00:15.083272 30861 net.cpp:425] inception_3b/output <- inception_3b/5x5
I0403 15:00:15.083289 30861 net.cpp:425] inception_3b/output <- inception_3b/pool_proj
I0403 15:00:15.083310 30861 net.cpp:399] inception_3b/output -> inception_3b/output
I0403 15:00:15.083362 30861 net.cpp:141] Setting up inception_3b/output
I0403 15:00:15.083387 30861 net.cpp:148] Top shape: 24 480 28 28 (9031680)
I0403 15:00:15.083405 30861 net.cpp:156] Memory required for data: 809239584
I0403 15:00:15.083421 30861 layer_factory.hpp:77] Creating layer pool3/3x3_s2
I0403 15:00:15.083443 30861 net.cpp:91] Creating Layer pool3/3x3_s2
I0403 15:00:15.083462 30861 net.cpp:425] pool3/3x3_s2 <- inception_3b/output
I0403 15:00:15.083482 30861 net.cpp:399] pool3/3x3_s2 -> pool3/3x3_s2
I0403 15:00:15.083559 30861 net.cpp:141] Setting up pool3/3x3_s2
I0403 15:00:15.083587 30861 net.cpp:148] Top shape: 24 480 14 14 (2257920)
I0403 15:00:15.083606 30861 net.cpp:156] Memory required for data: 818271264
I0403 15:00:15.083621 30861 layer_factory.hpp:77] Creating layer pool3/3x3_s2_pool3/3x3_s2_0_split
I0403 15:00:15.083642 30861 net.cpp:91] Creating Layer pool3/3x3_s2_pool3/3x3_s2_0_split
I0403 15:00:15.083658 30861 net.cpp:425] pool3/3x3_s2_pool3/3x3_s2_0_split <- pool3/3x3_s2
I0403 15:00:15.083680 30861 net.cpp:399] pool3/3x3_s2_pool3/3x3_s2_0_split -> pool3/3x3_s2_pool3/3x3_s2_0_split_0
I0403 15:00:15.083703 30861 net.cpp:399] pool3/3x3_s2_pool3/3x3_s2_0_split -> pool3/3x3_s2_pool3/3x3_s2_0_split_1
I0403 15:00:15.083725 30861 net.cpp:399] pool3/3x3_s2_pool3/3x3_s2_0_split -> pool3/3x3_s2_pool3/3x3_s2_0_split_2
I0403 15:00:15.083746 30861 net.cpp:399] pool3/3x3_s2_pool3/3x3_s2_0_split -> pool3/3x3_s2_pool3/3x3_s2_0_split_3
I0403 15:00:15.083827 30861 net.cpp:141] Setting up pool3/3x3_s2_pool3/3x3_s2_0_split
I0403 15:00:15.083852 30861 net.cpp:148] Top shape: 24 480 14 14 (2257920)
I0403 15:00:15.083869 30861 net.cpp:148] Top shape: 24 480 14 14 (2257920)
I0403 15:00:15.083886 30861 net.cpp:148] Top shape: 24 480 14 14 (2257920)
I0403 15:00:15.083904 30861 net.cpp:148] Top shape: 24 480 14 14 (2257920)
I0403 15:00:15.083920 30861 net.cpp:156] Memory required for data: 854397984
I0403 15:00:15.083935 30861 layer_factory.hpp:77] Creating layer inception_4a/1x1
I0403 15:00:15.083959 30861 net.cpp:91] Creating Layer inception_4a/1x1
I0403 15:00:15.083978 30861 net.cpp:425] inception_4a/1x1 <- pool3/3x3_s2_pool3/3x3_s2_0_split_0
I0403 15:00:15.084002 30861 net.cpp:399] inception_4a/1x1 -> inception_4a/1x1
I0403 15:00:15.085666 30861 net.cpp:141] Setting up inception_4a/1x1
I0403 15:00:15.085696 30861 net.cpp:148] Top shape: 24 192 14 14 (903168)
I0403 15:00:15.085714 30861 net.cpp:156] Memory required for data: 858010656
I0403 15:00:15.085734 30861 layer_factory.hpp:77] Creating layer inception_4a/relu_1x1
I0403 15:00:15.085753 30861 net.cpp:91] Creating Layer inception_4a/relu_1x1
I0403 15:00:15.085770 30861 net.cpp:425] inception_4a/relu_1x1 <- inception_4a/1x1
I0403 15:00:15.085791 30861 net.cpp:386] inception_4a/relu_1x1 -> inception_4a/1x1 (in-place)
I0403 15:00:15.085978 30861 net.cpp:141] Setting up inception_4a/relu_1x1
I0403 15:00:15.086006 30861 net.cpp:148] Top shape: 24 192 14 14 (903168)
I0403 15:00:15.086024 30861 net.cpp:156] Memory required for data: 861623328
I0403 15:00:15.086040 30861 layer_factory.hpp:77] Creating layer inception_4a/3x3_reduce
I0403 15:00:15.086063 30861 net.cpp:91] Creating Layer inception_4a/3x3_reduce
I0403 15:00:15.086082 30861 net.cpp:425] inception_4a/3x3_reduce <- pool3/3x3_s2_pool3/3x3_s2_0_split_1
I0403 15:00:15.086105 30861 net.cpp:399] inception_4a/3x3_reduce -> inception_4a/3x3_reduce
I0403 15:00:15.087522 30861 net.cpp:141] Setting up inception_4a/3x3_reduce
I0403 15:00:15.087553 30861 net.cpp:148] Top shape: 24 96 14 14 (451584)
I0403 15:00:15.087576 30861 net.cpp:156] Memory required for data: 863429664
I0403 15:00:15.087606 30861 layer_factory.hpp:77] Creating layer inception_4a/relu_3x3_reduce
I0403 15:00:15.087628 30861 net.cpp:91] Creating Layer inception_4a/relu_3x3_reduce
I0403 15:00:15.087646 30861 net.cpp:425] inception_4a/relu_3x3_reduce <- inception_4a/3x3_reduce
I0403 15:00:15.087667 30861 net.cpp:386] inception_4a/relu_3x3_reduce -> inception_4a/3x3_reduce (in-place)
I0403 15:00:15.087848 30861 net.cpp:141] Setting up inception_4a/relu_3x3_reduce
I0403 15:00:15.087877 30861 net.cpp:148] Top shape: 24 96 14 14 (451584)
I0403 15:00:15.087893 30861 net.cpp:156] Memory required for data: 865236000
I0403 15:00:15.087909 30861 layer_factory.hpp:77] Creating layer inception_4a/3x3
I0403 15:00:15.087934 30861 net.cpp:91] Creating Layer inception_4a/3x3
I0403 15:00:15.087955 30861 net.cpp:425] inception_4a/3x3 <- inception_4a/3x3_reduce
I0403 15:00:15.087978 30861 net.cpp:399] inception_4a/3x3 -> inception_4a/3x3
I0403 15:00:15.090800 30861 net.cpp:141] Setting up inception_4a/3x3
I0403 15:00:15.090829 30861 net.cpp:148] Top shape: 24 208 14 14 (978432)
I0403 15:00:15.090847 30861 net.cpp:156] Memory required for data: 869149728
I0403 15:00:15.090868 30861 layer_factory.hpp:77] Creating layer inception_4a/relu_3x3
I0403 15:00:15.090891 30861 net.cpp:91] Creating Layer inception_4a/relu_3x3
I0403 15:00:15.090911 30861 net.cpp:425] inception_4a/relu_3x3 <- inception_4a/3x3
I0403 15:00:15.090930 30861 net.cpp:386] inception_4a/relu_3x3 -> inception_4a/3x3 (in-place)
I0403 15:00:15.091225 30861 net.cpp:141] Setting up inception_4a/relu_3x3
I0403 15:00:15.091255 30861 net.cpp:148] Top shape: 24 208 14 14 (978432)
I0403 15:00:15.091272 30861 net.cpp:156] Memory required for data: 873063456
I0403 15:00:15.091289 30861 layer_factory.hpp:77] Creating layer inception_4a/5x5_reduce
I0403 15:00:15.091312 30861 net.cpp:91] Creating Layer inception_4a/5x5_reduce
I0403 15:00:15.091337 30861 net.cpp:425] inception_4a/5x5_reduce <- pool3/3x3_s2_pool3/3x3_s2_0_split_2
I0403 15:00:15.091362 30861 net.cpp:399] inception_4a/5x5_reduce -> inception_4a/5x5_reduce
I0403 15:00:15.092486 30861 net.cpp:141] Setting up inception_4a/5x5_reduce
I0403 15:00:15.092520 30861 net.cpp:148] Top shape: 24 16 14 14 (75264)
I0403 15:00:15.092537 30861 net.cpp:156] Memory required for data: 873364512
I0403 15:00:15.092557 30861 layer_factory.hpp:77] Creating layer inception_4a/relu_5x5_reduce
I0403 15:00:15.092581 30861 net.cpp:91] Creating Layer inception_4a/relu_5x5_reduce
I0403 15:00:15.092599 30861 net.cpp:425] inception_4a/relu_5x5_reduce <- inception_4a/5x5_reduce
I0403 15:00:15.092618 30861 net.cpp:386] inception_4a/relu_5x5_reduce -> inception_4a/5x5_reduce (in-place)
I0403 15:00:15.092803 30861 net.cpp:141] Setting up inception_4a/relu_5x5_reduce
I0403 15:00:15.092833 30861 net.cpp:148] Top shape: 24 16 14 14 (75264)
I0403 15:00:15.092852 30861 net.cpp:156] Memory required for data: 873665568
I0403 15:00:15.092869 30861 layer_factory.hpp:77] Creating layer inception_4a/5x5
I0403 15:00:15.092892 30861 net.cpp:91] Creating Layer inception_4a/5x5
I0403 15:00:15.092911 30861 net.cpp:425] inception_4a/5x5 <- inception_4a/5x5_reduce
I0403 15:00:15.092932 30861 net.cpp:399] inception_4a/5x5 -> inception_4a/5x5
I0403 15:00:15.094070 30861 net.cpp:141] Setting up inception_4a/5x5
I0403 15:00:15.094105 30861 net.cpp:148] Top shape: 24 48 14 14 (225792)
I0403 15:00:15.094122 30861 net.cpp:156] Memory required for data: 874568736
I0403 15:00:15.094143 30861 layer_factory.hpp:77] Creating layer inception_4a/relu_5x5
I0403 15:00:15.094164 30861 net.cpp:91] Creating Layer inception_4a/relu_5x5
I0403 15:00:15.094182 30861 net.cpp:425] inception_4a/relu_5x5 <- inception_4a/5x5
I0403 15:00:15.094203 30861 net.cpp:386] inception_4a/relu_5x5 -> inception_4a/5x5 (in-place)
I0403 15:00:15.094403 30861 net.cpp:141] Setting up inception_4a/relu_5x5
I0403 15:00:15.094431 30861 net.cpp:148] Top shape: 24 48 14 14 (225792)
I0403 15:00:15.094447 30861 net.cpp:156] Memory required for data: 875471904
I0403 15:00:15.094465 30861 layer_factory.hpp:77] Creating layer inception_4a/pool
I0403 15:00:15.094483 30861 net.cpp:91] Creating Layer inception_4a/pool
I0403 15:00:15.094501 30861 net.cpp:425] inception_4a/pool <- pool3/3x3_s2_pool3/3x3_s2_0_split_3
I0403 15:00:15.094522 30861 net.cpp:399] inception_4a/pool -> inception_4a/pool
I0403 15:00:15.094588 30861 net.cpp:141] Setting up inception_4a/pool
I0403 15:00:15.094615 30861 net.cpp:148] Top shape: 24 480 14 14 (2257920)
I0403 15:00:15.094631 30861 net.cpp:156] Memory required for data: 884503584
I0403 15:00:15.094648 30861 layer_factory.hpp:77] Creating layer inception_4a/pool_proj
I0403 15:00:15.094674 30861 net.cpp:91] Creating Layer inception_4a/pool_proj
I0403 15:00:15.094693 30861 net.cpp:425] inception_4a/pool_proj <- inception_4a/pool
I0403 15:00:15.099764 30861 net.cpp:399] inception_4a/pool_proj -> inception_4a/pool_proj
I0403 15:00:15.101037 30861 net.cpp:141] Setting up inception_4a/pool_proj
I0403 15:00:15.101079 30861 net.cpp:148] Top shape: 24 64 14 14 (301056)
I0403 15:00:15.101114 30861 net.cpp:156] Memory required for data: 885707808
I0403 15:00:15.101136 30861 layer_factory.hpp:77] Creating layer inception_4a/relu_pool_proj
I0403 15:00:15.101156 30861 net.cpp:91] Creating Layer inception_4a/relu_pool_proj
I0403 15:00:15.101174 30861 net.cpp:425] inception_4a/relu_pool_proj <- inception_4a/pool_proj
I0403 15:00:15.101196 30861 net.cpp:386] inception_4a/relu_pool_proj -> inception_4a/pool_proj (in-place)
I0403 15:00:15.101506 30861 net.cpp:141] Setting up inception_4a/relu_pool_proj
I0403 15:00:15.101534 30861 net.cpp:148] Top shape: 24 64 14 14 (301056)
I0403 15:00:15.101552 30861 net.cpp:156] Memory required for data: 886912032
I0403 15:00:15.101567 30861 layer_factory.hpp:77] Creating layer inception_4a/output
I0403 15:00:15.101586 30861 net.cpp:91] Creating Layer inception_4a/output
I0403 15:00:15.101603 30861 net.cpp:425] inception_4a/output <- inception_4a/1x1
I0403 15:00:15.101619 30861 net.cpp:425] inception_4a/output <- inception_4a/3x3
I0403 15:00:15.101637 30861 net.cpp:425] inception_4a/output <- inception_4a/5x5
I0403 15:00:15.101654 30861 net.cpp:425] inception_4a/output <- inception_4a/pool_proj
I0403 15:00:15.101675 30861 net.cpp:399] inception_4a/output -> inception_4a/output
I0403 15:00:15.101721 30861 net.cpp:141] Setting up inception_4a/output
I0403 15:00:15.101745 30861 net.cpp:148] Top shape: 24 512 14 14 (2408448)
I0403 15:00:15.101761 30861 net.cpp:156] Memory required for data: 896545824
I0403 15:00:15.101776 30861 layer_factory.hpp:77] Creating layer inception_4a/output_inception_4a/output_0_split
I0403 15:00:15.101799 30861 net.cpp:91] Creating Layer inception_4a/output_inception_4a/output_0_split
I0403 15:00:15.101817 30861 net.cpp:425] inception_4a/output_inception_4a/output_0_split <- inception_4a/output
I0403 15:00:15.101840 30861 net.cpp:399] inception_4a/output_inception_4a/output_0_split -> inception_4a/output_inception_4a/output_0_split_0
I0403 15:00:15.101861 30861 net.cpp:399] inception_4a/output_inception_4a/output_0_split -> inception_4a/output_inception_4a/output_0_split_1
I0403 15:00:15.101882 30861 net.cpp:399] inception_4a/output_inception_4a/output_0_split -> inception_4a/output_inception_4a/output_0_split_2
I0403 15:00:15.101903 30861 net.cpp:399] inception_4a/output_inception_4a/output_0_split -> inception_4a/output_inception_4a/output_0_split_3
I0403 15:00:15.101924 30861 net.cpp:399] inception_4a/output_inception_4a/output_0_split -> inception_4a/output_inception_4a/output_0_split_4
I0403 15:00:15.102020 30861 net.cpp:141] Setting up inception_4a/output_inception_4a/output_0_split
I0403 15:00:15.102046 30861 net.cpp:148] Top shape: 24 512 14 14 (2408448)
I0403 15:00:15.102062 30861 net.cpp:148] Top shape: 24 512 14 14 (2408448)
I0403 15:00:15.102079 30861 net.cpp:148] Top shape: 24 512 14 14 (2408448)
I0403 15:00:15.102095 30861 net.cpp:148] Top shape: 24 512 14 14 (2408448)
I0403 15:00:15.102113 30861 net.cpp:148] Top shape: 24 512 14 14 (2408448)
I0403 15:00:15.102139 30861 net.cpp:156] Memory required for data: 944714784
I0403 15:00:15.102156 30861 layer_factory.hpp:77] Creating layer loss1/ave_pool
I0403 15:00:15.102177 30861 net.cpp:91] Creating Layer loss1/ave_pool
I0403 15:00:15.102195 30861 net.cpp:425] loss1/ave_pool <- inception_4a/output_inception_4a/output_0_split_0
I0403 15:00:15.102215 30861 net.cpp:399] loss1/ave_pool -> loss1/ave_pool
I0403 15:00:15.102452 30861 net.cpp:141] Setting up loss1/ave_pool
I0403 15:00:15.102479 30861 net.cpp:148] Top shape: 24 512 4 4 (196608)
I0403 15:00:15.102496 30861 net.cpp:156] Memory required for data: 945501216
I0403 15:00:15.102512 30861 layer_factory.hpp:77] Creating layer loss1/conv
I0403 15:00:15.102537 30861 net.cpp:91] Creating Layer loss1/conv
I0403 15:00:15.102556 30861 net.cpp:425] loss1/conv <- loss1/ave_pool
I0403 15:00:15.102581 30861 net.cpp:399] loss1/conv -> loss1/conv
I0403 15:00:15.104135 30861 net.cpp:141] Setting up loss1/conv
I0403 15:00:15.104166 30861 net.cpp:148] Top shape: 24 128 4 4 (49152)
I0403 15:00:15.104182 30861 net.cpp:156] Memory required for data: 945697824
I0403 15:00:15.104217 30861 layer_factory.hpp:77] Creating layer loss1/relu_conv
I0403 15:00:15.104240 30861 net.cpp:91] Creating Layer loss1/relu_conv
I0403 15:00:15.104259 30861 net.cpp:425] loss1/relu_conv <- loss1/conv
I0403 15:00:15.104279 30861 net.cpp:386] loss1/relu_conv -> loss1/conv (in-place)
I0403 15:00:15.104581 30861 net.cpp:141] Setting up loss1/relu_conv
I0403 15:00:15.104609 30861 net.cpp:148] Top shape: 24 128 4 4 (49152)
I0403 15:00:15.104625 30861 net.cpp:156] Memory required for data: 945894432
I0403 15:00:15.104642 30861 layer_factory.hpp:77] Creating layer loss1/fc
I0403 15:00:15.104670 30861 net.cpp:91] Creating Layer loss1/fc
I0403 15:00:15.104689 30861 net.cpp:425] loss1/fc <- loss1/conv
I0403 15:00:15.104712 30861 net.cpp:399] loss1/fc -> loss1/fc
I0403 15:00:15.123425 30861 net.cpp:141] Setting up loss1/fc
I0403 15:00:15.123481 30861 net.cpp:148] Top shape: 24 1024 (24576)
I0403 15:00:15.123499 30861 net.cpp:156] Memory required for data: 945992736
I0403 15:00:15.123533 30861 layer_factory.hpp:77] Creating layer loss1/relu_fc
I0403 15:00:15.123554 30861 net.cpp:91] Creating Layer loss1/relu_fc
I0403 15:00:15.123574 30861 net.cpp:425] loss1/relu_fc <- loss1/fc
I0403 15:00:15.123599 30861 net.cpp:386] loss1/relu_fc -> loss1/fc (in-place)
I0403 15:00:15.123817 30861 net.cpp:141] Setting up loss1/relu_fc
I0403 15:00:15.123844 30861 net.cpp:148] Top shape: 24 1024 (24576)
I0403 15:00:15.123860 30861 net.cpp:156] Memory required for data: 946091040
I0403 15:00:15.123883 30861 layer_factory.hpp:77] Creating layer loss1/drop_fc
I0403 15:00:15.123921 30861 net.cpp:91] Creating Layer loss1/drop_fc
I0403 15:00:15.123940 30861 net.cpp:425] loss1/drop_fc <- loss1/fc
I0403 15:00:15.123960 30861 net.cpp:386] loss1/drop_fc -> loss1/fc (in-place)
I0403 15:00:15.124014 30861 net.cpp:141] Setting up loss1/drop_fc
I0403 15:00:15.124043 30861 net.cpp:148] Top shape: 24 1024 (24576)
I0403 15:00:15.124059 30861 net.cpp:156] Memory required for data: 946189344
I0403 15:00:15.124078 30861 layer_factory.hpp:77] Creating layer loss1/classifier_plantvillage
I0403 15:00:15.124096 30861 net.cpp:91] Creating Layer loss1/classifier_plantvillage
I0403 15:00:15.124114 30861 net.cpp:425] loss1/classifier_plantvillage <- loss1/fc
I0403 15:00:15.124136 30861 net.cpp:399] loss1/classifier_plantvillage -> loss1/classifier_plantvillage
I0403 15:00:15.125179 30861 net.cpp:141] Setting up loss1/classifier_plantvillage
I0403 15:00:15.125208 30861 net.cpp:148] Top shape: 24 38 (912)
I0403 15:00:15.125224 30861 net.cpp:156] Memory required for data: 946192992
I0403 15:00:15.125243 30861 layer_factory.hpp:77] Creating layer loss1/classifier_plantvillage_loss1/classifier_plantvillage_0_split
I0403 15:00:15.125263 30861 net.cpp:91] Creating Layer loss1/classifier_plantvillage_loss1/classifier_plantvillage_0_split
I0403 15:00:15.125280 30861 net.cpp:425] loss1/classifier_plantvillage_loss1/classifier_plantvillage_0_split <- loss1/classifier_plantvillage
I0403 15:00:15.125301 30861 net.cpp:399] loss1/classifier_plantvillage_loss1/classifier_plantvillage_0_split -> loss1/classifier_plantvillage_loss1/classifier_plantvillage_0_split_0
I0403 15:00:15.125329 30861 net.cpp:399] loss1/classifier_plantvillage_loss1/classifier_plantvillage_0_split -> loss1/classifier_plantvillage_loss1/classifier_plantvillage_0_split_1
I0403 15:00:15.125352 30861 net.cpp:399] loss1/classifier_plantvillage_loss1/classifier_plantvillage_0_split -> loss1/classifier_plantvillage_loss1/classifier_plantvillage_0_split_2
I0403 15:00:15.125422 30861 net.cpp:141] Setting up loss1/classifier_plantvillage_loss1/classifier_plantvillage_0_split
I0403 15:00:15.125447 30861 net.cpp:148] Top shape: 24 38 (912)
I0403 15:00:15.125463 30861 net.cpp:148] Top shape: 24 38 (912)
I0403 15:00:15.125481 30861 net.cpp:148] Top shape: 24 38 (912)
I0403 15:00:15.125496 30861 net.cpp:156] Memory required for data: 946203936
I0403 15:00:15.125511 30861 layer_factory.hpp:77] Creating layer inception_4b/1x1
I0403 15:00:15.125535 30861 net.cpp:91] Creating Layer inception_4b/1x1
I0403 15:00:15.125586 30861 net.cpp:425] inception_4b/1x1 <- inception_4a/output_inception_4a/output_0_split_1
I0403 15:00:15.125608 30861 net.cpp:399] inception_4b/1x1 -> inception_4b/1x1
I0403 15:00:15.127382 30861 net.cpp:141] Setting up inception_4b/1x1
I0403 15:00:15.127413 30861 net.cpp:148] Top shape: 24 160 14 14 (752640)
I0403 15:00:15.127429 30861 net.cpp:156] Memory required for data: 949214496
I0403 15:00:15.127447 30861 layer_factory.hpp:77] Creating layer inception_4b/relu_1x1
I0403 15:00:15.127470 30861 net.cpp:91] Creating Layer inception_4b/relu_1x1
I0403 15:00:15.127488 30861 net.cpp:425] inception_4b/relu_1x1 <- inception_4b/1x1
I0403 15:00:15.127507 30861 net.cpp:386] inception_4b/relu_1x1 -> inception_4b/1x1 (in-place)
I0403 15:00:15.127701 30861 net.cpp:141] Setting up inception_4b/relu_1x1
I0403 15:00:15.127730 30861 net.cpp:148] Top shape: 24 160 14 14 (752640)
I0403 15:00:15.127748 30861 net.cpp:156] Memory required for data: 952225056
I0403 15:00:15.127763 30861 layer_factory.hpp:77] Creating layer inception_4b/3x3_reduce
I0403 15:00:15.127786 30861 net.cpp:91] Creating Layer inception_4b/3x3_reduce
I0403 15:00:15.127806 30861 net.cpp:425] inception_4b/3x3_reduce <- inception_4a/output_inception_4a/output_0_split_2
I0403 15:00:15.127826 30861 net.cpp:399] inception_4b/3x3_reduce -> inception_4b/3x3_reduce
I0403 15:00:15.129305 30861 net.cpp:141] Setting up inception_4b/3x3_reduce
I0403 15:00:15.129341 30861 net.cpp:148] Top shape: 24 112 14 14 (526848)
I0403 15:00:15.129360 30861 net.cpp:156] Memory required for data: 954332448
I0403 15:00:15.129380 30861 layer_factory.hpp:77] Creating layer inception_4b/relu_3x3_reduce
I0403 15:00:15.129400 30861 net.cpp:91] Creating Layer inception_4b/relu_3x3_reduce
I0403 15:00:15.129417 30861 net.cpp:425] inception_4b/relu_3x3_reduce <- inception_4b/3x3_reduce
I0403 15:00:15.129436 30861 net.cpp:386] inception_4b/relu_3x3_reduce -> inception_4b/3x3_reduce (in-place)
I0403 15:00:15.129742 30861 net.cpp:141] Setting up inception_4b/relu_3x3_reduce
I0403 15:00:15.129775 30861 net.cpp:148] Top shape: 24 112 14 14 (526848)
I0403 15:00:15.129791 30861 net.cpp:156] Memory required for data: 956439840
I0403 15:00:15.129808 30861 layer_factory.hpp:77] Creating layer inception_4b/3x3
I0403 15:00:15.129842 30861 net.cpp:91] Creating Layer inception_4b/3x3
I0403 15:00:15.129860 30861 net.cpp:425] inception_4b/3x3 <- inception_4b/3x3_reduce
I0403 15:00:15.129880 30861 net.cpp:399] inception_4b/3x3 -> inception_4b/3x3
I0403 15:00:15.132997 30861 net.cpp:141] Setting up inception_4b/3x3
I0403 15:00:15.133028 30861 net.cpp:148] Top shape: 24 224 14 14 (1053696)
I0403 15:00:15.133044 30861 net.cpp:156] Memory required for data: 960654624
I0403 15:00:15.133077 30861 layer_factory.hpp:77] Creating layer inception_4b/relu_3x3
I0403 15:00:15.133096 30861 net.cpp:91] Creating Layer inception_4b/relu_3x3
I0403 15:00:15.133113 30861 net.cpp:425] inception_4b/relu_3x3 <- inception_4b/3x3
I0403 15:00:15.133134 30861 net.cpp:386] inception_4b/relu_3x3 -> inception_4b/3x3 (in-place)
I0403 15:00:15.133342 30861 net.cpp:141] Setting up inception_4b/relu_3x3
I0403 15:00:15.133370 30861 net.cpp:148] Top shape: 24 224 14 14 (1053696)
I0403 15:00:15.133388 30861 net.cpp:156] Memory required for data: 964869408
I0403 15:00:15.133404 30861 layer_factory.hpp:77] Creating layer inception_4b/5x5_reduce
I0403 15:00:15.133429 30861 net.cpp:91] Creating Layer inception_4b/5x5_reduce
I0403 15:00:15.133447 30861 net.cpp:425] inception_4b/5x5_reduce <- inception_4a/output_inception_4a/output_0_split_3
I0403 15:00:15.133472 30861 net.cpp:399] inception_4b/5x5_reduce -> inception_4b/5x5_reduce
I0403 15:00:15.134649 30861 net.cpp:141] Setting up inception_4b/5x5_reduce
I0403 15:00:15.134681 30861 net.cpp:148] Top shape: 24 24 14 14 (112896)
I0403 15:00:15.134701 30861 net.cpp:156] Memory required for data: 965320992
I0403 15:00:15.134721 30861 layer_factory.hpp:77] Creating layer inception_4b/relu_5x5_reduce
I0403 15:00:15.134739 30861 net.cpp:91] Creating Layer inception_4b/relu_5x5_reduce
I0403 15:00:15.134774 30861 net.cpp:425] inception_4b/relu_5x5_reduce <- inception_4b/5x5_reduce
I0403 15:00:15.134806 30861 net.cpp:386] inception_4b/relu_5x5_reduce -> inception_4b/5x5_reduce (in-place)
I0403 15:00:15.134991 30861 net.cpp:141] Setting up inception_4b/relu_5x5_reduce
I0403 15:00:15.135020 30861 net.cpp:148] Top shape: 24 24 14 14 (112896)
I0403 15:00:15.135036 30861 net.cpp:156] Memory required for data: 965772576
I0403 15:00:15.135052 30861 layer_factory.hpp:77] Creating layer inception_4b/5x5
I0403 15:00:15.135076 30861 net.cpp:91] Creating Layer inception_4b/5x5
I0403 15:00:15.135097 30861 net.cpp:425] inception_4b/5x5 <- inception_4b/5x5_reduce
I0403 15:00:15.135116 30861 net.cpp:399] inception_4b/5x5 -> inception_4b/5x5
I0403 15:00:15.136394 30861 net.cpp:141] Setting up inception_4b/5x5
I0403 15:00:15.136425 30861 net.cpp:148] Top shape: 24 64 14 14 (301056)
I0403 15:00:15.136441 30861 net.cpp:156] Memory required for data: 966976800
I0403 15:00:15.136461 30861 layer_factory.hpp:77] Creating layer inception_4b/relu_5x5
I0403 15:00:15.136485 30861 net.cpp:91] Creating Layer inception_4b/relu_5x5
I0403 15:00:15.136505 30861 net.cpp:425] inception_4b/relu_5x5 <- inception_4b/5x5
I0403 15:00:15.136524 30861 net.cpp:386] inception_4b/relu_5x5 -> inception_4b/5x5 (in-place)
I0403 15:00:15.136829 30861 net.cpp:141] Setting up inception_4b/relu_5x5
I0403 15:00:15.136858 30861 net.cpp:148] Top shape: 24 64 14 14 (301056)
I0403 15:00:15.136873 30861 net.cpp:156] Memory required for data: 968181024
I0403 15:00:15.136889 30861 layer_factory.hpp:77] Creating layer inception_4b/pool
I0403 15:00:15.136914 30861 net.cpp:91] Creating Layer inception_4b/pool
I0403 15:00:15.136931 30861 net.cpp:425] inception_4b/pool <- inception_4a/output_inception_4a/output_0_split_4
I0403 15:00:15.136952 30861 net.cpp:399] inception_4b/pool -> inception_4b/pool
I0403 15:00:15.137019 30861 net.cpp:141] Setting up inception_4b/pool
I0403 15:00:15.137045 30861 net.cpp:148] Top shape: 24 512 14 14 (2408448)
I0403 15:00:15.137061 30861 net.cpp:156] Memory required for data: 977814816
I0403 15:00:15.137078 30861 layer_factory.hpp:77] Creating layer inception_4b/pool_proj
I0403 15:00:15.137101 30861 net.cpp:91] Creating Layer inception_4b/pool_proj
I0403 15:00:15.137121 30861 net.cpp:425] inception_4b/pool_proj <- inception_4b/pool
I0403 15:00:15.137145 30861 net.cpp:399] inception_4b/pool_proj -> inception_4b/pool_proj
I0403 15:00:15.138458 30861 net.cpp:141] Setting up inception_4b/pool_proj
I0403 15:00:15.138487 30861 net.cpp:148] Top shape: 24 64 14 14 (301056)
I0403 15:00:15.138504 30861 net.cpp:156] Memory required for data: 979019040
I0403 15:00:15.138525 30861 layer_factory.hpp:77] Creating layer inception_4b/relu_pool_proj
I0403 15:00:15.138546 30861 net.cpp:91] Creating Layer inception_4b/relu_pool_proj
I0403 15:00:15.138564 30861 net.cpp:425] inception_4b/relu_pool_proj <- inception_4b/pool_proj
I0403 15:00:15.138583 30861 net.cpp:386] inception_4b/relu_pool_proj -> inception_4b/pool_proj (in-place)
I0403 15:00:15.138767 30861 net.cpp:141] Setting up inception_4b/relu_pool_proj
I0403 15:00:15.138793 30861 net.cpp:148] Top shape: 24 64 14 14 (301056)
I0403 15:00:15.138809 30861 net.cpp:156] Memory required for data: 980223264
I0403 15:00:15.138825 30861 layer_factory.hpp:77] Creating layer inception_4b/output
I0403 15:00:15.138844 30861 net.cpp:91] Creating Layer inception_4b/output
I0403 15:00:15.138860 30861 net.cpp:425] inception_4b/output <- inception_4b/1x1
I0403 15:00:15.138876 30861 net.cpp:425] inception_4b/output <- inception_4b/3x3
I0403 15:00:15.138892 30861 net.cpp:425] inception_4b/output <- inception_4b/5x5
I0403 15:00:15.138911 30861 net.cpp:425] inception_4b/output <- inception_4b/pool_proj
I0403 15:00:15.138931 30861 net.cpp:399] inception_4b/output -> inception_4b/output
I0403 15:00:15.138978 30861 net.cpp:141] Setting up inception_4b/output
I0403 15:00:15.139005 30861 net.cpp:148] Top shape: 24 512 14 14 (2408448)
I0403 15:00:15.139021 30861 net.cpp:156] Memory required for data: 989857056
I0403 15:00:15.139052 30861 layer_factory.hpp:77] Creating layer inception_4b/output_inception_4b/output_0_split
I0403 15:00:15.139072 30861 net.cpp:91] Creating Layer inception_4b/output_inception_4b/output_0_split
I0403 15:00:15.139088 30861 net.cpp:425] inception_4b/output_inception_4b/output_0_split <- inception_4b/output
I0403 15:00:15.139108 30861 net.cpp:399] inception_4b/output_inception_4b/output_0_split -> inception_4b/output_inception_4b/output_0_split_0
I0403 15:00:15.139129 30861 net.cpp:399] inception_4b/output_inception_4b/output_0_split -> inception_4b/output_inception_4b/output_0_split_1
I0403 15:00:15.139150 30861 net.cpp:399] inception_4b/output_inception_4b/output_0_split -> inception_4b/output_inception_4b/output_0_split_2
I0403 15:00:15.139174 30861 net.cpp:399] inception_4b/output_inception_4b/output_0_split -> inception_4b/output_inception_4b/output_0_split_3
I0403 15:00:15.139277 30861 net.cpp:141] Setting up inception_4b/output_inception_4b/output_0_split
I0403 15:00:15.139304 30861 net.cpp:148] Top shape: 24 512 14 14 (2408448)
I0403 15:00:15.139328 30861 net.cpp:148] Top shape: 24 512 14 14 (2408448)
I0403 15:00:15.139346 30861 net.cpp:148] Top shape: 24 512 14 14 (2408448)
I0403 15:00:15.139369 30861 net.cpp:148] Top shape: 24 512 14 14 (2408448)
I0403 15:00:15.139384 30861 net.cpp:156] Memory required for data: 1028392224
I0403 15:00:15.139399 30861 layer_factory.hpp:77] Creating layer inception_4c/1x1
I0403 15:00:15.139423 30861 net.cpp:91] Creating Layer inception_4c/1x1
I0403 15:00:15.139443 30861 net.cpp:425] inception_4c/1x1 <- inception_4b/output_inception_4b/output_0_split_0
I0403 15:00:15.139467 30861 net.cpp:399] inception_4c/1x1 -> inception_4c/1x1
I0403 15:00:15.141003 30861 net.cpp:141] Setting up inception_4c/1x1
I0403 15:00:15.141032 30861 net.cpp:148] Top shape: 24 128 14 14 (602112)
I0403 15:00:15.141049 30861 net.cpp:156] Memory required for data: 1030800672
I0403 15:00:15.141069 30861 layer_factory.hpp:77] Creating layer inception_4c/relu_1x1
I0403 15:00:15.141088 30861 net.cpp:91] Creating Layer inception_4c/relu_1x1
I0403 15:00:15.141105 30861 net.cpp:425] inception_4c/relu_1x1 <- inception_4c/1x1
I0403 15:00:15.141126 30861 net.cpp:386] inception_4c/relu_1x1 -> inception_4c/1x1 (in-place)
I0403 15:00:15.141325 30861 net.cpp:141] Setting up inception_4c/relu_1x1
I0403 15:00:15.141351 30861 net.cpp:148] Top shape: 24 128 14 14 (602112)
I0403 15:00:15.141367 30861 net.cpp:156] Memory required for data: 1033209120
I0403 15:00:15.141382 30861 layer_factory.hpp:77] Creating layer inception_4c/3x3_reduce
I0403 15:00:15.141407 30861 net.cpp:91] Creating Layer inception_4c/3x3_reduce
I0403 15:00:15.141425 30861 net.cpp:425] inception_4c/3x3_reduce <- inception_4b/output_inception_4b/output_0_split_1
I0403 15:00:15.141449 30861 net.cpp:399] inception_4c/3x3_reduce -> inception_4c/3x3_reduce
I0403 15:00:15.143517 30861 net.cpp:141] Setting up inception_4c/3x3_reduce
I0403 15:00:15.143546 30861 net.cpp:148] Top shape: 24 128 14 14 (602112)
I0403 15:00:15.143563 30861 net.cpp:156] Memory required for data: 1035617568
I0403 15:00:15.143582 30861 layer_factory.hpp:77] Creating layer inception_4c/relu_3x3_reduce
I0403 15:00:15.143604 30861 net.cpp:91] Creating Layer inception_4c/relu_3x3_reduce
I0403 15:00:15.143621 30861 net.cpp:425] inception_4c/relu_3x3_reduce <- inception_4c/3x3_reduce
I0403 15:00:15.143640 30861 net.cpp:386] inception_4c/relu_3x3_reduce -> inception_4c/3x3_reduce (in-place)
I0403 15:00:15.143929 30861 net.cpp:141] Setting up inception_4c/relu_3x3_reduce
I0403 15:00:15.143957 30861 net.cpp:148] Top shape: 24 128 14 14 (602112)
I0403 15:00:15.143973 30861 net.cpp:156] Memory required for data: 1038026016
I0403 15:00:15.143988 30861 layer_factory.hpp:77] Creating layer inception_4c/3x3
I0403 15:00:15.144012 30861 net.cpp:91] Creating Layer inception_4c/3x3
I0403 15:00:15.144032 30861 net.cpp:425] inception_4c/3x3 <- inception_4c/3x3_reduce
I0403 15:00:15.144054 30861 net.cpp:399] inception_4c/3x3 -> inception_4c/3x3
I0403 15:00:15.147781 30861 net.cpp:141] Setting up inception_4c/3x3
I0403 15:00:15.147824 30861 net.cpp:148] Top shape: 24 256 14 14 (1204224)
I0403 15:00:15.147840 30861 net.cpp:156] Memory required for data: 1042842912
I0403 15:00:15.147874 30861 layer_factory.hpp:77] Creating layer inception_4c/relu_3x3
I0403 15:00:15.147897 30861 net.cpp:91] Creating Layer inception_4c/relu_3x3
I0403 15:00:15.147915 30861 net.cpp:425] inception_4c/relu_3x3 <- inception_4c/3x3
I0403 15:00:15.147933 30861 net.cpp:386] inception_4c/relu_3x3 -> inception_4c/3x3 (in-place)
I0403 15:00:15.148118 30861 net.cpp:141] Setting up inception_4c/relu_3x3
I0403 15:00:15.148147 30861 net.cpp:148] Top shape: 24 256 14 14 (1204224)
I0403 15:00:15.148164 30861 net.cpp:156] Memory required for data: 1047659808
I0403 15:00:15.148178 30861 layer_factory.hpp:77] Creating layer inception_4c/5x5_reduce
I0403 15:00:15.148198 30861 net.cpp:91] Creating Layer inception_4c/5x5_reduce
I0403 15:00:15.148216 30861 net.cpp:425] inception_4c/5x5_reduce <- inception_4b/output_inception_4b/output_0_split_2
I0403 15:00:15.148239 30861 net.cpp:399] inception_4c/5x5_reduce -> inception_4c/5x5_reduce
I0403 15:00:15.149407 30861 net.cpp:141] Setting up inception_4c/5x5_reduce
I0403 15:00:15.149436 30861 net.cpp:148] Top shape: 24 24 14 14 (112896)
I0403 15:00:15.149456 30861 net.cpp:156] Memory required for data: 1048111392
I0403 15:00:15.149476 30861 layer_factory.hpp:77] Creating layer inception_4c/relu_5x5_reduce
I0403 15:00:15.149495 30861 net.cpp:91] Creating Layer inception_4c/relu_5x5_reduce
I0403 15:00:15.149513 30861 net.cpp:425] inception_4c/relu_5x5_reduce <- inception_4c/5x5_reduce
I0403 15:00:15.149531 30861 net.cpp:386] inception_4c/relu_5x5_reduce -> inception_4c/5x5_reduce (in-place)
I0403 15:00:15.149714 30861 net.cpp:141] Setting up inception_4c/relu_5x5_reduce
I0403 15:00:15.149742 30861 net.cpp:148] Top shape: 24 24 14 14 (112896)
I0403 15:00:15.149758 30861 net.cpp:156] Memory required for data: 1048562976
I0403 15:00:15.149775 30861 layer_factory.hpp:77] Creating layer inception_4c/5x5
I0403 15:00:15.149796 30861 net.cpp:91] Creating Layer inception_4c/5x5
I0403 15:00:15.149814 30861 net.cpp:425] inception_4c/5x5 <- inception_4c/5x5_reduce
I0403 15:00:15.149834 30861 net.cpp:399] inception_4c/5x5 -> inception_4c/5x5
I0403 15:00:15.151104 30861 net.cpp:141] Setting up inception_4c/5x5
I0403 15:00:15.151134 30861 net.cpp:148] Top shape: 24 64 14 14 (301056)
I0403 15:00:15.151149 30861 net.cpp:156] Memory required for data: 1049767200
I0403 15:00:15.151170 30861 layer_factory.hpp:77] Creating layer inception_4c/relu_5x5
I0403 15:00:15.151188 30861 net.cpp:91] Creating Layer inception_4c/relu_5x5
I0403 15:00:15.151206 30861 net.cpp:425] inception_4c/relu_5x5 <- inception_4c/5x5
I0403 15:00:15.151226 30861 net.cpp:386] inception_4c/relu_5x5 -> inception_4c/5x5 (in-place)
I0403 15:00:15.151520 30861 net.cpp:141] Setting up inception_4c/relu_5x5
I0403 15:00:15.151547 30861 net.cpp:148] Top shape: 24 64 14 14 (301056)
I0403 15:00:15.151564 30861 net.cpp:156] Memory required for data: 1050971424
I0403 15:00:15.151582 30861 layer_factory.hpp:77] Creating layer inception_4c/pool
I0403 15:00:15.151599 30861 net.cpp:91] Creating Layer inception_4c/pool
I0403 15:00:15.151615 30861 net.cpp:425] inception_4c/pool <- inception_4b/output_inception_4b/output_0_split_3
I0403 15:00:15.151636 30861 net.cpp:399] inception_4c/pool -> inception_4c/pool
I0403 15:00:15.151702 30861 net.cpp:141] Setting up inception_4c/pool
I0403 15:00:15.151727 30861 net.cpp:148] Top shape: 24 512 14 14 (2408448)
I0403 15:00:15.151743 30861 net.cpp:156] Memory required for data: 1060605216
I0403 15:00:15.151758 30861 layer_factory.hpp:77] Creating layer inception_4c/pool_proj
I0403 15:00:15.151782 30861 net.cpp:91] Creating Layer inception_4c/pool_proj
I0403 15:00:15.151801 30861 net.cpp:425] inception_4c/pool_proj <- inception_4c/pool
I0403 15:00:15.151821 30861 net.cpp:399] inception_4c/pool_proj -> inception_4c/pool_proj
I0403 15:00:15.153102 30861 net.cpp:141] Setting up inception_4c/pool_proj
I0403 15:00:15.153132 30861 net.cpp:148] Top shape: 24 64 14 14 (301056)
I0403 15:00:15.153163 30861 net.cpp:156] Memory required for data: 1061809440
I0403 15:00:15.153183 30861 layer_factory.hpp:77] Creating layer inception_4c/relu_pool_proj
I0403 15:00:15.153204 30861 net.cpp:91] Creating Layer inception_4c/relu_pool_proj
I0403 15:00:15.153223 30861 net.cpp:425] inception_4c/relu_pool_proj <- inception_4c/pool_proj
I0403 15:00:15.153242 30861 net.cpp:386] inception_4c/relu_pool_proj -> inception_4c/pool_proj (in-place)
I0403 15:00:15.153446 30861 net.cpp:141] Setting up inception_4c/relu_pool_proj
I0403 15:00:15.153475 30861 net.cpp:148] Top shape: 24 64 14 14 (301056)
I0403 15:00:15.153489 30861 net.cpp:156] Memory required for data: 1063013664
I0403 15:00:15.153504 30861 layer_factory.hpp:77] Creating layer inception_4c/output
I0403 15:00:15.153522 30861 net.cpp:91] Creating Layer inception_4c/output
I0403 15:00:15.153539 30861 net.cpp:425] inception_4c/output <- inception_4c/1x1
I0403 15:00:15.153556 30861 net.cpp:425] inception_4c/output <- inception_4c/3x3
I0403 15:00:15.153574 30861 net.cpp:425] inception_4c/output <- inception_4c/5x5
I0403 15:00:15.153591 30861 net.cpp:425] inception_4c/output <- inception_4c/pool_proj
I0403 15:00:15.153609 30861 net.cpp:399] inception_4c/output -> inception_4c/output
I0403 15:00:15.153658 30861 net.cpp:141] Setting up inception_4c/output
I0403 15:00:15.153682 30861 net.cpp:148] Top shape: 24 512 14 14 (2408448)
I0403 15:00:15.153697 30861 net.cpp:156] Memory required for data: 1072647456
I0403 15:00:15.153713 30861 layer_factory.hpp:77] Creating layer inception_4c/output_inception_4c/output_0_split
I0403 15:00:15.153733 30861 net.cpp:91] Creating Layer inception_4c/output_inception_4c/output_0_split
I0403 15:00:15.153750 30861 net.cpp:425] inception_4c/output_inception_4c/output_0_split <- inception_4c/output
I0403 15:00:15.153769 30861 net.cpp:399] inception_4c/output_inception_4c/output_0_split -> inception_4c/output_inception_4c/output_0_split_0
I0403 15:00:15.153790 30861 net.cpp:399] inception_4c/output_inception_4c/output_0_split -> inception_4c/output_inception_4c/output_0_split_1
I0403 15:00:15.153810 30861 net.cpp:399] inception_4c/output_inception_4c/output_0_split -> inception_4c/output_inception_4c/output_0_split_2
I0403 15:00:15.153833 30861 net.cpp:399] inception_4c/output_inception_4c/output_0_split -> inception_4c/output_inception_4c/output_0_split_3
I0403 15:00:15.153923 30861 net.cpp:141] Setting up inception_4c/output_inception_4c/output_0_split
I0403 15:00:15.153947 30861 net.cpp:148] Top shape: 24 512 14 14 (2408448)
I0403 15:00:15.153964 30861 net.cpp:148] Top shape: 24 512 14 14 (2408448)
I0403 15:00:15.153978 30861 net.cpp:148] Top shape: 24 512 14 14 (2408448)
I0403 15:00:15.153995 30861 net.cpp:148] Top shape: 24 512 14 14 (2408448)
I0403 15:00:15.154008 30861 net.cpp:156] Memory required for data: 1111182624
I0403 15:00:15.154023 30861 layer_factory.hpp:77] Creating layer inception_4d/1x1
I0403 15:00:15.154047 30861 net.cpp:91] Creating Layer inception_4d/1x1
I0403 15:00:15.154065 30861 net.cpp:425] inception_4d/1x1 <- inception_4c/output_inception_4c/output_0_split_0
I0403 15:00:15.154086 30861 net.cpp:399] inception_4d/1x1 -> inception_4d/1x1
I0403 15:00:15.155647 30861 net.cpp:141] Setting up inception_4d/1x1
I0403 15:00:15.155679 30861 net.cpp:148] Top shape: 24 112 14 14 (526848)
I0403 15:00:15.155696 30861 net.cpp:156] Memory required for data: 1113290016
I0403 15:00:15.155716 30861 layer_factory.hpp:77] Creating layer inception_4d/relu_1x1
I0403 15:00:15.155738 30861 net.cpp:91] Creating Layer inception_4d/relu_1x1
I0403 15:00:15.155756 30861 net.cpp:425] inception_4d/relu_1x1 <- inception_4d/1x1
I0403 15:00:15.155776 30861 net.cpp:386] inception_4d/relu_1x1 -> inception_4d/1x1 (in-place)
I0403 15:00:15.155977 30861 net.cpp:141] Setting up inception_4d/relu_1x1
I0403 15:00:15.156004 30861 net.cpp:148] Top shape: 24 112 14 14 (526848)
I0403 15:00:15.156021 30861 net.cpp:156] Memory required for data: 1115397408
I0403 15:00:15.156038 30861 layer_factory.hpp:77] Creating layer inception_4d/3x3_reduce
I0403 15:00:15.156080 30861 net.cpp:91] Creating Layer inception_4d/3x3_reduce
I0403 15:00:15.156101 30861 net.cpp:425] inception_4d/3x3_reduce <- inception_4c/output_inception_4c/output_0_split_1
I0403 15:00:15.156124 30861 net.cpp:399] inception_4d/3x3_reduce -> inception_4d/3x3_reduce
I0403 15:00:15.157735 30861 net.cpp:141] Setting up inception_4d/3x3_reduce
I0403 15:00:15.157768 30861 net.cpp:148] Top shape: 24 144 14 14 (677376)
I0403 15:00:15.157786 30861 net.cpp:156] Memory required for data: 1118106912
I0403 15:00:15.157807 30861 layer_factory.hpp:77] Creating layer inception_4d/relu_3x3_reduce
I0403 15:00:15.157827 30861 net.cpp:91] Creating Layer inception_4d/relu_3x3_reduce
I0403 15:00:15.157845 30861 net.cpp:425] inception_4d/relu_3x3_reduce <- inception_4d/3x3_reduce
I0403 15:00:15.157867 30861 net.cpp:386] inception_4d/relu_3x3_reduce -> inception_4d/3x3_reduce (in-place)
I0403 15:00:15.158179 30861 net.cpp:141] Setting up inception_4d/relu_3x3_reduce
I0403 15:00:15.158210 30861 net.cpp:148] Top shape: 24 144 14 14 (677376)
I0403 15:00:15.158228 30861 net.cpp:156] Memory required for data: 1120816416
I0403 15:00:15.158244 30861 layer_factory.hpp:77] Creating layer inception_4d/3x3
I0403 15:00:15.158268 30861 net.cpp:91] Creating Layer inception_4d/3x3
I0403 15:00:15.158288 30861 net.cpp:425] inception_4d/3x3 <- inception_4d/3x3_reduce
I0403 15:00:15.158311 30861 net.cpp:399] inception_4d/3x3 -> inception_4d/3x3
I0403 15:00:15.162879 30861 net.cpp:141] Setting up inception_4d/3x3
I0403 15:00:15.162914 30861 net.cpp:148] Top shape: 24 288 14 14 (1354752)
I0403 15:00:15.162930 30861 net.cpp:156] Memory required for data: 1126235424
I0403 15:00:15.162950 30861 layer_factory.hpp:77] Creating layer inception_4d/relu_3x3
I0403 15:00:15.162972 30861 net.cpp:91] Creating Layer inception_4d/relu_3x3
I0403 15:00:15.162992 30861 net.cpp:425] inception_4d/relu_3x3 <- inception_4d/3x3
I0403 15:00:15.163012 30861 net.cpp:386] inception_4d/relu_3x3 -> inception_4d/3x3 (in-place)
I0403 15:00:15.163208 30861 net.cpp:141] Setting up inception_4d/relu_3x3
I0403 15:00:15.163235 30861 net.cpp:148] Top shape: 24 288 14 14 (1354752)
I0403 15:00:15.163252 30861 net.cpp:156] Memory required for data: 1131654432
I0403 15:00:15.163269 30861 layer_factory.hpp:77] Creating layer inception_4d/5x5_reduce
I0403 15:00:15.163295 30861 net.cpp:91] Creating Layer inception_4d/5x5_reduce
I0403 15:00:15.163313 30861 net.cpp:425] inception_4d/5x5_reduce <- inception_4c/output_inception_4c/output_0_split_2
I0403 15:00:15.163341 30861 net.cpp:399] inception_4d/5x5_reduce -> inception_4d/5x5_reduce
I0403 15:00:15.164566 30861 net.cpp:141] Setting up inception_4d/5x5_reduce
I0403 15:00:15.164597 30861 net.cpp:148] Top shape: 24 32 14 14 (150528)
I0403 15:00:15.164614 30861 net.cpp:156] Memory required for data: 1132256544
I0403 15:00:15.164634 30861 layer_factory.hpp:77] Creating layer inception_4d/relu_5x5_reduce
I0403 15:00:15.164657 30861 net.cpp:91] Creating Layer inception_4d/relu_5x5_reduce
I0403 15:00:15.164677 30861 net.cpp:425] inception_4d/relu_5x5_reduce <- inception_4d/5x5_reduce
I0403 15:00:15.164696 30861 net.cpp:386] inception_4d/relu_5x5_reduce -> inception_4d/5x5_reduce (in-place)
I0403 15:00:15.164896 30861 net.cpp:141] Setting up inception_4d/relu_5x5_reduce
I0403 15:00:15.164926 30861 net.cpp:148] Top shape: 24 32 14 14 (150528)
I0403 15:00:15.164942 30861 net.cpp:156] Memory required for data: 1132858656
I0403 15:00:15.164959 30861 layer_factory.hpp:77] Creating layer inception_4d/5x5
I0403 15:00:15.164981 30861 net.cpp:91] Creating Layer inception_4d/5x5
I0403 15:00:15.164999 30861 net.cpp:425] inception_4d/5x5 <- inception_4d/5x5_reduce
I0403 15:00:15.165021 30861 net.cpp:399] inception_4d/5x5 -> inception_4d/5x5
I0403 15:00:15.166616 30861 net.cpp:141] Setting up inception_4d/5x5
I0403 15:00:15.166649 30861 net.cpp:148] Top shape: 24 64 14 14 (301056)
I0403 15:00:15.166667 30861 net.cpp:156] Memory required for data: 1134062880
I0403 15:00:15.166689 30861 layer_factory.hpp:77] Creating layer inception_4d/relu_5x5
I0403 15:00:15.166726 30861 net.cpp:91] Creating Layer inception_4d/relu_5x5
I0403 15:00:15.166745 30861 net.cpp:425] inception_4d/relu_5x5 <- inception_4d/5x5
I0403 15:00:15.166765 30861 net.cpp:386] inception_4d/relu_5x5 -> inception_4d/5x5 (in-place)
I0403 15:00:15.167086 30861 net.cpp:141] Setting up inception_4d/relu_5x5
I0403 15:00:15.167117 30861 net.cpp:148] Top shape: 24 64 14 14 (301056)
I0403 15:00:15.167135 30861 net.cpp:156] Memory required for data: 1135267104
I0403 15:00:15.167150 30861 layer_factory.hpp:77] Creating layer inception_4d/pool
I0403 15:00:15.167171 30861 net.cpp:91] Creating Layer inception_4d/pool
I0403 15:00:15.167189 30861 net.cpp:425] inception_4d/pool <- inception_4c/output_inception_4c/output_0_split_3
I0403 15:00:15.167209 30861 net.cpp:399] inception_4d/pool -> inception_4d/pool
I0403 15:00:15.167281 30861 net.cpp:141] Setting up inception_4d/pool
I0403 15:00:15.167307 30861 net.cpp:148] Top shape: 24 512 14 14 (2408448)
I0403 15:00:15.167330 30861 net.cpp:156] Memory required for data: 1144900896
I0403 15:00:15.167346 30861 layer_factory.hpp:77] Creating layer inception_4d/pool_proj
I0403 15:00:15.167369 30861 net.cpp:91] Creating Layer inception_4d/pool_proj
I0403 15:00:15.167390 30861 net.cpp:425] inception_4d/pool_proj <- inception_4d/pool
I0403 15:00:15.167413 30861 net.cpp:399] inception_4d/pool_proj -> inception_4d/pool_proj
I0403 15:00:15.169270 30861 net.cpp:141] Setting up inception_4d/pool_proj
I0403 15:00:15.169301 30861 net.cpp:148] Top shape: 24 64 14 14 (301056)
I0403 15:00:15.169323 30861 net.cpp:156] Memory required for data: 1146105120
I0403 15:00:15.169344 30861 layer_factory.hpp:77] Creating layer inception_4d/relu_pool_proj
I0403 15:00:15.169368 30861 net.cpp:91] Creating Layer inception_4d/relu_pool_proj
I0403 15:00:15.169389 30861 net.cpp:425] inception_4d/relu_pool_proj <- inception_4d/pool_proj
I0403 15:00:15.169407 30861 net.cpp:386] inception_4d/relu_pool_proj -> inception_4d/pool_proj (in-place)
I0403 15:00:15.169607 30861 net.cpp:141] Setting up inception_4d/relu_pool_proj
I0403 15:00:15.169634 30861 net.cpp:148] Top shape: 24 64 14 14 (301056)
I0403 15:00:15.169651 30861 net.cpp:156] Memory required for data: 1147309344
I0403 15:00:15.169667 30861 layer_factory.hpp:77] Creating layer inception_4d/output
I0403 15:00:15.169688 30861 net.cpp:91] Creating Layer inception_4d/output
I0403 15:00:15.169706 30861 net.cpp:425] inception_4d/output <- inception_4d/1x1
I0403 15:00:15.169725 30861 net.cpp:425] inception_4d/output <- inception_4d/3x3
I0403 15:00:15.169744 30861 net.cpp:425] inception_4d/output <- inception_4d/5x5
I0403 15:00:15.169761 30861 net.cpp:425] inception_4d/output <- inception_4d/pool_proj
I0403 15:00:15.169780 30861 net.cpp:399] inception_4d/output -> inception_4d/output
I0403 15:00:15.169832 30861 net.cpp:141] Setting up inception_4d/output
I0403 15:00:15.169858 30861 net.cpp:148] Top shape: 24 528 14 14 (2483712)
I0403 15:00:15.169874 30861 net.cpp:156] Memory required for data: 1157244192
I0403 15:00:15.169891 30861 layer_factory.hpp:77] Creating layer inception_4d/output_inception_4d/output_0_split
I0403 15:00:15.169910 30861 net.cpp:91] Creating Layer inception_4d/output_inception_4d/output_0_split
I0403 15:00:15.169926 30861 net.cpp:425] inception_4d/output_inception_4d/output_0_split <- inception_4d/output
I0403 15:00:15.169948 30861 net.cpp:399] inception_4d/output_inception_4d/output_0_split -> inception_4d/output_inception_4d/output_0_split_0
I0403 15:00:15.169971 30861 net.cpp:399] inception_4d/output_inception_4d/output_0_split -> inception_4d/output_inception_4d/output_0_split_1
I0403 15:00:15.169994 30861 net.cpp:399] inception_4d/output_inception_4d/output_0_split -> inception_4d/output_inception_4d/output_0_split_2
I0403 15:00:15.170022 30861 net.cpp:399] inception_4d/output_inception_4d/output_0_split -> inception_4d/output_inception_4d/output_0_split_3
I0403 15:00:15.170044 30861 net.cpp:399] inception_4d/output_inception_4d/output_0_split -> inception_4d/output_inception_4d/output_0_split_4
I0403 15:00:15.170152 30861 net.cpp:141] Setting up inception_4d/output_inception_4d/output_0_split
I0403 15:00:15.170192 30861 net.cpp:148] Top shape: 24 528 14 14 (2483712)
I0403 15:00:15.170212 30861 net.cpp:148] Top shape: 24 528 14 14 (2483712)
I0403 15:00:15.170229 30861 net.cpp:148] Top shape: 24 528 14 14 (2483712)
I0403 15:00:15.170248 30861 net.cpp:148] Top shape: 24 528 14 14 (2483712)
I0403 15:00:15.170264 30861 net.cpp:148] Top shape: 24 528 14 14 (2483712)
I0403 15:00:15.170279 30861 net.cpp:156] Memory required for data: 1206918432
I0403 15:00:15.170295 30861 layer_factory.hpp:77] Creating layer loss2/ave_pool
I0403 15:00:15.170317 30861 net.cpp:91] Creating Layer loss2/ave_pool
I0403 15:00:15.170337 30861 net.cpp:425] loss2/ave_pool <- inception_4d/output_inception_4d/output_0_split_0
I0403 15:00:15.170361 30861 net.cpp:399] loss2/ave_pool -> loss2/ave_pool
I0403 15:00:15.170696 30861 net.cpp:141] Setting up loss2/ave_pool
I0403 15:00:15.170733 30861 net.cpp:148] Top shape: 24 528 4 4 (202752)
I0403 15:00:15.170750 30861 net.cpp:156] Memory required for data: 1207729440
I0403 15:00:15.170768 30861 layer_factory.hpp:77] Creating layer loss2/conv
I0403 15:00:15.170791 30861 net.cpp:91] Creating Layer loss2/conv
I0403 15:00:15.170812 30861 net.cpp:425] loss2/conv <- loss2/ave_pool
I0403 15:00:15.170835 30861 net.cpp:399] loss2/conv -> loss2/conv
I0403 15:00:15.172896 30861 net.cpp:141] Setting up loss2/conv
I0403 15:00:15.172930 30861 net.cpp:148] Top shape: 24 128 4 4 (49152)
I0403 15:00:15.172948 30861 net.cpp:156] Memory required for data: 1207926048
I0403 15:00:15.172969 30861 layer_factory.hpp:77] Creating layer loss2/relu_conv
I0403 15:00:15.172989 30861 net.cpp:91] Creating Layer loss2/relu_conv
I0403 15:00:15.173008 30861 net.cpp:425] loss2/relu_conv <- loss2/conv
I0403 15:00:15.173030 30861 net.cpp:386] loss2/relu_conv -> loss2/conv (in-place)
I0403 15:00:15.173351 30861 net.cpp:141] Setting up loss2/relu_conv
I0403 15:00:15.173382 30861 net.cpp:148] Top shape: 24 128 4 4 (49152)
I0403 15:00:15.173399 30861 net.cpp:156] Memory required for data: 1208122656
I0403 15:00:15.173427 30861 layer_factory.hpp:77] Creating layer loss2/fc
I0403 15:00:15.173449 30861 net.cpp:91] Creating Layer loss2/fc
I0403 15:00:15.173465 30861 net.cpp:425] loss2/fc <- loss2/conv
I0403 15:00:15.173487 30861 net.cpp:399] loss2/fc -> loss2/fc
I0403 15:00:15.191782 30861 net.cpp:141] Setting up loss2/fc
I0403 15:00:15.191835 30861 net.cpp:148] Top shape: 24 1024 (24576)
I0403 15:00:15.191853 30861 net.cpp:156] Memory required for data: 1208220960
I0403 15:00:15.191874 30861 layer_factory.hpp:77] Creating layer loss2/relu_fc
I0403 15:00:15.191898 30861 net.cpp:91] Creating Layer loss2/relu_fc
I0403 15:00:15.191917 30861 net.cpp:425] loss2/relu_fc <- loss2/fc
I0403 15:00:15.191937 30861 net.cpp:386] loss2/relu_fc -> loss2/fc (in-place)
I0403 15:00:15.192296 30861 net.cpp:141] Setting up loss2/relu_fc
I0403 15:00:15.192327 30861 net.cpp:148] Top shape: 24 1024 (24576)
I0403 15:00:15.192345 30861 net.cpp:156] Memory required for data: 1208319264
I0403 15:00:15.192361 30861 layer_factory.hpp:77] Creating layer loss2/drop_fc
I0403 15:00:15.192384 30861 net.cpp:91] Creating Layer loss2/drop_fc
I0403 15:00:15.192404 30861 net.cpp:425] loss2/drop_fc <- loss2/fc
I0403 15:00:15.192423 30861 net.cpp:386] loss2/drop_fc -> loss2/fc (in-place)
I0403 15:00:15.192479 30861 net.cpp:141] Setting up loss2/drop_fc
I0403 15:00:15.192504 30861 net.cpp:148] Top shape: 24 1024 (24576)
I0403 15:00:15.192519 30861 net.cpp:156] Memory required for data: 1208417568
I0403 15:00:15.192534 30861 layer_factory.hpp:77] Creating layer loss2/classifier_plantvillage
I0403 15:00:15.192555 30861 net.cpp:91] Creating Layer loss2/classifier_plantvillage
I0403 15:00:15.192574 30861 net.cpp:425] loss2/classifier_plantvillage <- loss2/fc
I0403 15:00:15.192597 30861 net.cpp:399] loss2/classifier_plantvillage -> loss2/classifier_plantvillage
I0403 15:00:15.193024 30861 net.cpp:141] Setting up loss2/classifier_plantvillage
I0403 15:00:15.193051 30861 net.cpp:148] Top shape: 24 38 (912)
I0403 15:00:15.193073 30861 net.cpp:156] Memory required for data: 1208421216
I0403 15:00:15.193119 30861 layer_factory.hpp:77] Creating layer loss2/classifier_plantvillage_loss2/classifier_plantvillage_0_split
I0403 15:00:15.193140 30861 net.cpp:91] Creating Layer loss2/classifier_plantvillage_loss2/classifier_plantvillage_0_split
I0403 15:00:15.193157 30861 net.cpp:425] loss2/classifier_plantvillage_loss2/classifier_plantvillage_0_split <- loss2/classifier_plantvillage
I0403 15:00:15.193178 30861 net.cpp:399] loss2/classifier_plantvillage_loss2/classifier_plantvillage_0_split -> loss2/classifier_plantvillage_loss2/classifier_plantvillage_0_split_0
I0403 15:00:15.193200 30861 net.cpp:399] loss2/classifier_plantvillage_loss2/classifier_plantvillage_0_split -> loss2/classifier_plantvillage_loss2/classifier_plantvillage_0_split_1
I0403 15:00:15.193223 30861 net.cpp:399] loss2/classifier_plantvillage_loss2/classifier_plantvillage_0_split -> loss2/classifier_plantvillage_loss2/classifier_plantvillage_0_split_2
I0403 15:00:15.193302 30861 net.cpp:141] Setting up loss2/classifier_plantvillage_loss2/classifier_plantvillage_0_split
I0403 15:00:15.193331 30861 net.cpp:148] Top shape: 24 38 (912)
I0403 15:00:15.193349 30861 net.cpp:148] Top shape: 24 38 (912)
I0403 15:00:15.193367 30861 net.cpp:148] Top shape: 24 38 (912)
I0403 15:00:15.193382 30861 net.cpp:156] Memory required for data: 1208432160
I0403 15:00:15.193397 30861 layer_factory.hpp:77] Creating layer inception_4e/1x1
I0403 15:00:15.193423 30861 net.cpp:91] Creating Layer inception_4e/1x1
I0403 15:00:15.193442 30861 net.cpp:425] inception_4e/1x1 <- inception_4d/output_inception_4d/output_0_split_1
I0403 15:00:15.193464 30861 net.cpp:399] inception_4e/1x1 -> inception_4e/1x1
I0403 15:00:15.195394 30861 net.cpp:141] Setting up inception_4e/1x1
I0403 15:00:15.195426 30861 net.cpp:148] Top shape: 24 256 14 14 (1204224)
I0403 15:00:15.195444 30861 net.cpp:156] Memory required for data: 1213249056
I0403 15:00:15.195466 30861 layer_factory.hpp:77] Creating layer inception_4e/relu_1x1
I0403 15:00:15.195485 30861 net.cpp:91] Creating Layer inception_4e/relu_1x1
I0403 15:00:15.195504 30861 net.cpp:425] inception_4e/relu_1x1 <- inception_4e/1x1
I0403 15:00:15.195525 30861 net.cpp:386] inception_4e/relu_1x1 -> inception_4e/1x1 (in-place)
I0403 15:00:15.196028 30861 net.cpp:141] Setting up inception_4e/relu_1x1
I0403 15:00:15.196059 30861 net.cpp:148] Top shape: 24 256 14 14 (1204224)
I0403 15:00:15.196075 30861 net.cpp:156] Memory required for data: 1218065952
I0403 15:00:15.196092 30861 layer_factory.hpp:77] Creating layer inception_4e/3x3_reduce
I0403 15:00:15.196116 30861 net.cpp:91] Creating Layer inception_4e/3x3_reduce
I0403 15:00:15.196135 30861 net.cpp:425] inception_4e/3x3_reduce <- inception_4d/output_inception_4d/output_0_split_2
I0403 15:00:15.196157 30861 net.cpp:399] inception_4e/3x3_reduce -> inception_4e/3x3_reduce
I0403 15:00:15.198380 30861 net.cpp:141] Setting up inception_4e/3x3_reduce
I0403 15:00:15.198413 30861 net.cpp:148] Top shape: 24 160 14 14 (752640)
I0403 15:00:15.198431 30861 net.cpp:156] Memory required for data: 1221076512
I0403 15:00:15.198451 30861 layer_factory.hpp:77] Creating layer inception_4e/relu_3x3_reduce
I0403 15:00:15.198472 30861 net.cpp:91] Creating Layer inception_4e/relu_3x3_reduce
I0403 15:00:15.198492 30861 net.cpp:425] inception_4e/relu_3x3_reduce <- inception_4e/3x3_reduce
I0403 15:00:15.198513 30861 net.cpp:386] inception_4e/relu_3x3_reduce -> inception_4e/3x3_reduce (in-place)
I0403 15:00:15.198722 30861 net.cpp:141] Setting up inception_4e/relu_3x3_reduce
I0403 15:00:15.198748 30861 net.cpp:148] Top shape: 24 160 14 14 (752640)
I0403 15:00:15.198765 30861 net.cpp:156] Memory required for data: 1224087072
I0403 15:00:15.198781 30861 layer_factory.hpp:77] Creating layer inception_4e/3x3
I0403 15:00:15.198804 30861 net.cpp:91] Creating Layer inception_4e/3x3
I0403 15:00:15.198824 30861 net.cpp:425] inception_4e/3x3 <- inception_4e/3x3_reduce
I0403 15:00:15.198848 30861 net.cpp:399] inception_4e/3x3 -> inception_4e/3x3
I0403 15:00:15.204046 30861 net.cpp:141] Setting up inception_4e/3x3
I0403 15:00:15.204092 30861 net.cpp:148] Top shape: 24 320 14 14 (1505280)
I0403 15:00:15.204108 30861 net.cpp:156] Memory required for data: 1230108192
I0403 15:00:15.204129 30861 layer_factory.hpp:77] Creating layer inception_4e/relu_3x3
I0403 15:00:15.204149 30861 net.cpp:91] Creating Layer inception_4e/relu_3x3
I0403 15:00:15.204167 30861 net.cpp:425] inception_4e/relu_3x3 <- inception_4e/3x3
I0403 15:00:15.204187 30861 net.cpp:386] inception_4e/relu_3x3 -> inception_4e/3x3 (in-place)
I0403 15:00:15.204519 30861 net.cpp:141] Setting up inception_4e/relu_3x3
I0403 15:00:15.204546 30861 net.cpp:148] Top shape: 24 320 14 14 (1505280)
I0403 15:00:15.204563 30861 net.cpp:156] Memory required for data: 1236129312
I0403 15:00:15.204579 30861 layer_factory.hpp:77] Creating layer inception_4e/5x5_reduce
I0403 15:00:15.204604 30861 net.cpp:91] Creating Layer inception_4e/5x5_reduce
I0403 15:00:15.204622 30861 net.cpp:425] inception_4e/5x5_reduce <- inception_4d/output_inception_4d/output_0_split_3
I0403 15:00:15.204645 30861 net.cpp:399] inception_4e/5x5_reduce -> inception_4e/5x5_reduce
I0403 15:00:15.205754 30861 net.cpp:141] Setting up inception_4e/5x5_reduce
I0403 15:00:15.205786 30861 net.cpp:148] Top shape: 24 32 14 14 (150528)
I0403 15:00:15.205803 30861 net.cpp:156] Memory required for data: 1236731424
I0403 15:00:15.205822 30861 layer_factory.hpp:77] Creating layer inception_4e/relu_5x5_reduce
I0403 15:00:15.205842 30861 net.cpp:91] Creating Layer inception_4e/relu_5x5_reduce
I0403 15:00:15.205859 30861 net.cpp:425] inception_4e/relu_5x5_reduce <- inception_4e/5x5_reduce
I0403 15:00:15.205878 30861 net.cpp:386] inception_4e/relu_5x5_reduce -> inception_4e/5x5_reduce (in-place)
I0403 15:00:15.206193 30861 net.cpp:141] Setting up inception_4e/relu_5x5_reduce
I0403 15:00:15.206223 30861 net.cpp:148] Top shape: 24 32 14 14 (150528)
I0403 15:00:15.206241 30861 net.cpp:156] Memory required for data: 1237333536
I0403 15:00:15.206257 30861 layer_factory.hpp:77] Creating layer inception_4e/5x5
I0403 15:00:15.206300 30861 net.cpp:91] Creating Layer inception_4e/5x5
I0403 15:00:15.206324 30861 net.cpp:425] inception_4e/5x5 <- inception_4e/5x5_reduce
I0403 15:00:15.206346 30861 net.cpp:399] inception_4e/5x5 -> inception_4e/5x5
I0403 15:00:15.208250 30861 net.cpp:141] Setting up inception_4e/5x5
I0403 15:00:15.208281 30861 net.cpp:148] Top shape: 24 128 14 14 (602112)
I0403 15:00:15.208297 30861 net.cpp:156] Memory required for data: 1239741984
I0403 15:00:15.208322 30861 layer_factory.hpp:77] Creating layer inception_4e/relu_5x5
I0403 15:00:15.208344 30861 net.cpp:91] Creating Layer inception_4e/relu_5x5
I0403 15:00:15.208364 30861 net.cpp:425] inception_4e/relu_5x5 <- inception_4e/5x5
I0403 15:00:15.208382 30861 net.cpp:386] inception_4e/relu_5x5 -> inception_4e/5x5 (in-place)
I0403 15:00:15.208586 30861 net.cpp:141] Setting up inception_4e/relu_5x5
I0403 15:00:15.208616 30861 net.cpp:148] Top shape: 24 128 14 14 (602112)
I0403 15:00:15.208632 30861 net.cpp:156] Memory required for data: 1242150432
I0403 15:00:15.208648 30861 layer_factory.hpp:77] Creating layer inception_4e/pool
I0403 15:00:15.208668 30861 net.cpp:91] Creating Layer inception_4e/pool
I0403 15:00:15.208685 30861 net.cpp:425] inception_4e/pool <- inception_4d/output_inception_4d/output_0_split_4
I0403 15:00:15.208706 30861 net.cpp:399] inception_4e/pool -> inception_4e/pool
I0403 15:00:15.208778 30861 net.cpp:141] Setting up inception_4e/pool
I0403 15:00:15.208803 30861 net.cpp:148] Top shape: 24 528 14 14 (2483712)
I0403 15:00:15.208819 30861 net.cpp:156] Memory required for data: 1252085280
I0403 15:00:15.208837 30861 layer_factory.hpp:77] Creating layer inception_4e/pool_proj
I0403 15:00:15.208860 30861 net.cpp:91] Creating Layer inception_4e/pool_proj
I0403 15:00:15.208878 30861 net.cpp:425] inception_4e/pool_proj <- inception_4e/pool
I0403 15:00:15.208900 30861 net.cpp:399] inception_4e/pool_proj -> inception_4e/pool_proj
I0403 15:00:15.210476 30861 net.cpp:141] Setting up inception_4e/pool_proj
I0403 15:00:15.210507 30861 net.cpp:148] Top shape: 24 128 14 14 (602112)
I0403 15:00:15.210539 30861 net.cpp:156] Memory required for data: 1254493728
I0403 15:00:15.210562 30861 layer_factory.hpp:77] Creating layer inception_4e/relu_pool_proj
I0403 15:00:15.210585 30861 net.cpp:91] Creating Layer inception_4e/relu_pool_proj
I0403 15:00:15.210603 30861 net.cpp:425] inception_4e/relu_pool_proj <- inception_4e/pool_proj
I0403 15:00:15.210623 30861 net.cpp:386] inception_4e/relu_pool_proj -> inception_4e/pool_proj (in-place)
I0403 15:00:15.210933 30861 net.cpp:141] Setting up inception_4e/relu_pool_proj
I0403 15:00:15.210963 30861 net.cpp:148] Top shape: 24 128 14 14 (602112)
I0403 15:00:15.210980 30861 net.cpp:156] Memory required for data: 1256902176
I0403 15:00:15.210997 30861 layer_factory.hpp:77] Creating layer inception_4e/output
I0403 15:00:15.211019 30861 net.cpp:91] Creating Layer inception_4e/output
I0403 15:00:15.211038 30861 net.cpp:425] inception_4e/output <- inception_4e/1x1
I0403 15:00:15.211057 30861 net.cpp:425] inception_4e/output <- inception_4e/3x3
I0403 15:00:15.211076 30861 net.cpp:425] inception_4e/output <- inception_4e/5x5
I0403 15:00:15.211093 30861 net.cpp:425] inception_4e/output <- inception_4e/pool_proj
I0403 15:00:15.211112 30861 net.cpp:399] inception_4e/output -> inception_4e/output
I0403 15:00:15.211168 30861 net.cpp:141] Setting up inception_4e/output
I0403 15:00:15.211192 30861 net.cpp:148] Top shape: 24 832 14 14 (3913728)
I0403 15:00:15.211210 30861 net.cpp:156] Memory required for data: 1272557088
I0403 15:00:15.211225 30861 layer_factory.hpp:77] Creating layer pool4/3x3_s2
I0403 15:00:15.211246 30861 net.cpp:91] Creating Layer pool4/3x3_s2
I0403 15:00:15.211264 30861 net.cpp:425] pool4/3x3_s2 <- inception_4e/output
I0403 15:00:15.211287 30861 net.cpp:399] pool4/3x3_s2 -> pool4/3x3_s2
I0403 15:00:15.211364 30861 net.cpp:141] Setting up pool4/3x3_s2
I0403 15:00:15.211392 30861 net.cpp:148] Top shape: 24 832 7 7 (978432)
I0403 15:00:15.211410 30861 net.cpp:156] Memory required for data: 1276470816
I0403 15:00:15.211427 30861 layer_factory.hpp:77] Creating layer pool4/3x3_s2_pool4/3x3_s2_0_split
I0403 15:00:15.211447 30861 net.cpp:91] Creating Layer pool4/3x3_s2_pool4/3x3_s2_0_split
I0403 15:00:15.211463 30861 net.cpp:425] pool4/3x3_s2_pool4/3x3_s2_0_split <- pool4/3x3_s2
I0403 15:00:15.211483 30861 net.cpp:399] pool4/3x3_s2_pool4/3x3_s2_0_split -> pool4/3x3_s2_pool4/3x3_s2_0_split_0
I0403 15:00:15.211504 30861 net.cpp:399] pool4/3x3_s2_pool4/3x3_s2_0_split -> pool4/3x3_s2_pool4/3x3_s2_0_split_1
I0403 15:00:15.211529 30861 net.cpp:399] pool4/3x3_s2_pool4/3x3_s2_0_split -> pool4/3x3_s2_pool4/3x3_s2_0_split_2
I0403 15:00:15.211551 30861 net.cpp:399] pool4/3x3_s2_pool4/3x3_s2_0_split -> pool4/3x3_s2_pool4/3x3_s2_0_split_3
I0403 15:00:15.211659 30861 net.cpp:141] Setting up pool4/3x3_s2_pool4/3x3_s2_0_split
I0403 15:00:15.211685 30861 net.cpp:148] Top shape: 24 832 7 7 (978432)
I0403 15:00:15.211704 30861 net.cpp:148] Top shape: 24 832 7 7 (978432)
I0403 15:00:15.211721 30861 net.cpp:148] Top shape: 24 832 7 7 (978432)
I0403 15:00:15.211738 30861 net.cpp:148] Top shape: 24 832 7 7 (978432)
I0403 15:00:15.211753 30861 net.cpp:156] Memory required for data: 1292125728
I0403 15:00:15.211769 30861 layer_factory.hpp:77] Creating layer inception_5a/1x1
I0403 15:00:15.211794 30861 net.cpp:91] Creating Layer inception_5a/1x1
I0403 15:00:15.211813 30861 net.cpp:425] inception_5a/1x1 <- pool4/3x3_s2_pool4/3x3_s2_0_split_0
I0403 15:00:15.211838 30861 net.cpp:399] inception_5a/1x1 -> inception_5a/1x1
I0403 15:00:15.214880 30861 net.cpp:141] Setting up inception_5a/1x1
I0403 15:00:15.214916 30861 net.cpp:148] Top shape: 24 256 7 7 (301056)
I0403 15:00:15.214933 30861 net.cpp:156] Memory required for data: 1293329952
I0403 15:00:15.214954 30861 layer_factory.hpp:77] Creating layer inception_5a/relu_1x1
I0403 15:00:15.214977 30861 net.cpp:91] Creating Layer inception_5a/relu_1x1
I0403 15:00:15.214997 30861 net.cpp:425] inception_5a/relu_1x1 <- inception_5a/1x1
I0403 15:00:15.215016 30861 net.cpp:386] inception_5a/relu_1x1 -> inception_5a/1x1 (in-place)
I0403 15:00:15.215354 30861 net.cpp:141] Setting up inception_5a/relu_1x1
I0403 15:00:15.215384 30861 net.cpp:148] Top shape: 24 256 7 7 (301056)
I0403 15:00:15.215401 30861 net.cpp:156] Memory required for data: 1294534176
I0403 15:00:15.215420 30861 layer_factory.hpp:77] Creating layer inception_5a/3x3_reduce
I0403 15:00:15.215445 30861 net.cpp:91] Creating Layer inception_5a/3x3_reduce
I0403 15:00:15.215464 30861 net.cpp:425] inception_5a/3x3_reduce <- pool4/3x3_s2_pool4/3x3_s2_0_split_1
I0403 15:00:15.215486 30861 net.cpp:399] inception_5a/3x3_reduce -> inception_5a/3x3_reduce
I0403 15:00:15.218103 30861 net.cpp:141] Setting up inception_5a/3x3_reduce
I0403 15:00:15.218137 30861 net.cpp:148] Top shape: 24 160 7 7 (188160)
I0403 15:00:15.218154 30861 net.cpp:156] Memory required for data: 1295286816
I0403 15:00:15.218174 30861 layer_factory.hpp:77] Creating layer inception_5a/relu_3x3_reduce
I0403 15:00:15.218196 30861 net.cpp:91] Creating Layer inception_5a/relu_3x3_reduce
I0403 15:00:15.218224 30861 net.cpp:425] inception_5a/relu_3x3_reduce <- inception_5a/3x3_reduce
I0403 15:00:15.218245 30861 net.cpp:386] inception_5a/relu_3x3_reduce -> inception_5a/3x3_reduce (in-place)
I0403 15:00:15.218451 30861 net.cpp:141] Setting up inception_5a/relu_3x3_reduce
I0403 15:00:15.218479 30861 net.cpp:148] Top shape: 24 160 7 7 (188160)
I0403 15:00:15.218497 30861 net.cpp:156] Memory required for data: 1296039456
I0403 15:00:15.218513 30861 layer_factory.hpp:77] Creating layer inception_5a/3x3
I0403 15:00:15.218538 30861 net.cpp:91] Creating Layer inception_5a/3x3
I0403 15:00:15.218559 30861 net.cpp:425] inception_5a/3x3 <- inception_5a/3x3_reduce
I0403 15:00:15.218581 30861 net.cpp:399] inception_5a/3x3 -> inception_5a/3x3
I0403 15:00:15.223943 30861 net.cpp:141] Setting up inception_5a/3x3
I0403 15:00:15.223978 30861 net.cpp:148] Top shape: 24 320 7 7 (376320)
I0403 15:00:15.223994 30861 net.cpp:156] Memory required for data: 1297544736
I0403 15:00:15.224014 30861 layer_factory.hpp:77] Creating layer inception_5a/relu_3x3
I0403 15:00:15.224037 30861 net.cpp:91] Creating Layer inception_5a/relu_3x3
I0403 15:00:15.224056 30861 net.cpp:425] inception_5a/relu_3x3 <- inception_5a/3x3
I0403 15:00:15.224076 30861 net.cpp:386] inception_5a/relu_3x3 -> inception_5a/3x3 (in-place)
I0403 15:00:15.224401 30861 net.cpp:141] Setting up inception_5a/relu_3x3
I0403 15:00:15.224431 30861 net.cpp:148] Top shape: 24 320 7 7 (376320)
I0403 15:00:15.224447 30861 net.cpp:156] Memory required for data: 1299050016
I0403 15:00:15.224463 30861 layer_factory.hpp:77] Creating layer inception_5a/5x5_reduce
I0403 15:00:15.224488 30861 net.cpp:91] Creating Layer inception_5a/5x5_reduce
I0403 15:00:15.224509 30861 net.cpp:425] inception_5a/5x5_reduce <- pool4/3x3_s2_pool4/3x3_s2_0_split_2
I0403 15:00:15.224532 30861 net.cpp:399] inception_5a/5x5_reduce -> inception_5a/5x5_reduce
I0403 15:00:15.225790 30861 net.cpp:141] Setting up inception_5a/5x5_reduce
I0403 15:00:15.225824 30861 net.cpp:148] Top shape: 24 32 7 7 (37632)
I0403 15:00:15.225842 30861 net.cpp:156] Memory required for data: 1299200544
I0403 15:00:15.225862 30861 layer_factory.hpp:77] Creating layer inception_5a/relu_5x5_reduce
I0403 15:00:15.225883 30861 net.cpp:91] Creating Layer inception_5a/relu_5x5_reduce
I0403 15:00:15.225900 30861 net.cpp:425] inception_5a/relu_5x5_reduce <- inception_5a/5x5_reduce
I0403 15:00:15.225922 30861 net.cpp:386] inception_5a/relu_5x5_reduce -> inception_5a/5x5_reduce (in-place)
I0403 15:00:15.226243 30861 net.cpp:141] Setting up inception_5a/relu_5x5_reduce
I0403 15:00:15.226274 30861 net.cpp:148] Top shape: 24 32 7 7 (37632)
I0403 15:00:15.226292 30861 net.cpp:156] Memory required for data: 1299351072
I0403 15:00:15.226310 30861 layer_factory.hpp:77] Creating layer inception_5a/5x5
I0403 15:00:15.226339 30861 net.cpp:91] Creating Layer inception_5a/5x5
I0403 15:00:15.226361 30861 net.cpp:425] inception_5a/5x5 <- inception_5a/5x5_reduce
I0403 15:00:15.226382 30861 net.cpp:399] inception_5a/5x5 -> inception_5a/5x5
I0403 15:00:15.228217 30861 net.cpp:141] Setting up inception_5a/5x5
I0403 15:00:15.228269 30861 net.cpp:148] Top shape: 24 128 7 7 (150528)
I0403 15:00:15.228287 30861 net.cpp:156] Memory required for data: 1299953184
I0403 15:00:15.228308 30861 layer_factory.hpp:77] Creating layer inception_5a/relu_5x5
I0403 15:00:15.228338 30861 net.cpp:91] Creating Layer inception_5a/relu_5x5
I0403 15:00:15.228356 30861 net.cpp:425] inception_5a/relu_5x5 <- inception_5a/5x5
I0403 15:00:15.228376 30861 net.cpp:386] inception_5a/relu_5x5 -> inception_5a/5x5 (in-place)
I0403 15:00:15.228582 30861 net.cpp:141] Setting up inception_5a/relu_5x5
I0403 15:00:15.228612 30861 net.cpp:148] Top shape: 24 128 7 7 (150528)
I0403 15:00:15.228629 30861 net.cpp:156] Memory required for data: 1300555296
I0403 15:00:15.228646 30861 layer_factory.hpp:77] Creating layer inception_5a/pool
I0403 15:00:15.228667 30861 net.cpp:91] Creating Layer inception_5a/pool
I0403 15:00:15.228684 30861 net.cpp:425] inception_5a/pool <- pool4/3x3_s2_pool4/3x3_s2_0_split_3
I0403 15:00:15.228708 30861 net.cpp:399] inception_5a/pool -> inception_5a/pool
I0403 15:00:15.228785 30861 net.cpp:141] Setting up inception_5a/pool
I0403 15:00:15.228811 30861 net.cpp:148] Top shape: 24 832 7 7 (978432)
I0403 15:00:15.228826 30861 net.cpp:156] Memory required for data: 1304469024
I0403 15:00:15.228842 30861 layer_factory.hpp:77] Creating layer inception_5a/pool_proj
I0403 15:00:15.228868 30861 net.cpp:91] Creating Layer inception_5a/pool_proj
I0403 15:00:15.228888 30861 net.cpp:425] inception_5a/pool_proj <- inception_5a/pool
I0403 15:00:15.228911 30861 net.cpp:399] inception_5a/pool_proj -> inception_5a/pool_proj
I0403 15:00:15.231338 30861 net.cpp:141] Setting up inception_5a/pool_proj
I0403 15:00:15.231370 30861 net.cpp:148] Top shape: 24 128 7 7 (150528)
I0403 15:00:15.231389 30861 net.cpp:156] Memory required for data: 1305071136
I0403 15:00:15.231410 30861 layer_factory.hpp:77] Creating layer inception_5a/relu_pool_proj
I0403 15:00:15.231431 30861 net.cpp:91] Creating Layer inception_5a/relu_pool_proj
I0403 15:00:15.231451 30861 net.cpp:425] inception_5a/relu_pool_proj <- inception_5a/pool_proj
I0403 15:00:15.231470 30861 net.cpp:386] inception_5a/relu_pool_proj -> inception_5a/pool_proj (in-place)
I0403 15:00:15.231799 30861 net.cpp:141] Setting up inception_5a/relu_pool_proj
I0403 15:00:15.231828 30861 net.cpp:148] Top shape: 24 128 7 7 (150528)
I0403 15:00:15.231844 30861 net.cpp:156] Memory required for data: 1305673248
I0403 15:00:15.231860 30861 layer_factory.hpp:77] Creating layer inception_5a/output
I0403 15:00:15.231879 30861 net.cpp:91] Creating Layer inception_5a/output
I0403 15:00:15.231905 30861 net.cpp:425] inception_5a/output <- inception_5a/1x1
I0403 15:00:15.231923 30861 net.cpp:425] inception_5a/output <- inception_5a/3x3
I0403 15:00:15.231941 30861 net.cpp:425] inception_5a/output <- inception_5a/5x5
I0403 15:00:15.231958 30861 net.cpp:425] inception_5a/output <- inception_5a/pool_proj
I0403 15:00:15.231979 30861 net.cpp:399] inception_5a/output -> inception_5a/output
I0403 15:00:15.232035 30861 net.cpp:141] Setting up inception_5a/output
I0403 15:00:15.232060 30861 net.cpp:148] Top shape: 24 832 7 7 (978432)
I0403 15:00:15.232076 30861 net.cpp:156] Memory required for data: 1309586976
I0403 15:00:15.232092 30861 layer_factory.hpp:77] Creating layer inception_5a/output_inception_5a/output_0_split
I0403 15:00:15.232111 30861 net.cpp:91] Creating Layer inception_5a/output_inception_5a/output_0_split
I0403 15:00:15.232127 30861 net.cpp:425] inception_5a/output_inception_5a/output_0_split <- inception_5a/output
I0403 15:00:15.232148 30861 net.cpp:399] inception_5a/output_inception_5a/output_0_split -> inception_5a/output_inception_5a/output_0_split_0
I0403 15:00:15.232172 30861 net.cpp:399] inception_5a/output_inception_5a/output_0_split -> inception_5a/output_inception_5a/output_0_split_1
I0403 15:00:15.232193 30861 net.cpp:399] inception_5a/output_inception_5a/output_0_split -> inception_5a/output_inception_5a/output_0_split_2
I0403 15:00:15.232216 30861 net.cpp:399] inception_5a/output_inception_5a/output_0_split -> inception_5a/output_inception_5a/output_0_split_3
I0403 15:00:15.232342 30861 net.cpp:141] Setting up inception_5a/output_inception_5a/output_0_split
I0403 15:00:15.232370 30861 net.cpp:148] Top shape: 24 832 7 7 (978432)
I0403 15:00:15.232389 30861 net.cpp:148] Top shape: 24 832 7 7 (978432)
I0403 15:00:15.232406 30861 net.cpp:148] Top shape: 24 832 7 7 (978432)
I0403 15:00:15.232422 30861 net.cpp:148] Top shape: 24 832 7 7 (978432)
I0403 15:00:15.232439 30861 net.cpp:156] Memory required for data: 1325241888
I0403 15:00:15.232455 30861 layer_factory.hpp:77] Creating layer inception_5b/1x1
I0403 15:00:15.232478 30861 net.cpp:91] Creating Layer inception_5b/1x1
I0403 15:00:15.232497 30861 net.cpp:425] inception_5b/1x1 <- inception_5a/output_inception_5a/output_0_split_0
I0403 15:00:15.232517 30861 net.cpp:399] inception_5b/1x1 -> inception_5b/1x1
I0403 15:00:15.236456 30861 net.cpp:141] Setting up inception_5b/1x1
I0403 15:00:15.236488 30861 net.cpp:148] Top shape: 24 384 7 7 (451584)
I0403 15:00:15.236506 30861 net.cpp:156] Memory required for data: 1327048224
I0403 15:00:15.236526 30861 layer_factory.hpp:77] Creating layer inception_5b/relu_1x1
I0403 15:00:15.236547 30861 net.cpp:91] Creating Layer inception_5b/relu_1x1
I0403 15:00:15.236565 30861 net.cpp:425] inception_5b/relu_1x1 <- inception_5b/1x1
I0403 15:00:15.236584 30861 net.cpp:386] inception_5b/relu_1x1 -> inception_5b/1x1 (in-place)
I0403 15:00:15.236903 30861 net.cpp:141] Setting up inception_5b/relu_1x1
I0403 15:00:15.236932 30861 net.cpp:148] Top shape: 24 384 7 7 (451584)
I0403 15:00:15.236948 30861 net.cpp:156] Memory required for data: 1328854560
I0403 15:00:15.236964 30861 layer_factory.hpp:77] Creating layer inception_5b/3x3_reduce
I0403 15:00:15.236989 30861 net.cpp:91] Creating Layer inception_5b/3x3_reduce
I0403 15:00:15.237009 30861 net.cpp:425] inception_5b/3x3_reduce <- inception_5a/output_inception_5a/output_0_split_1
I0403 15:00:15.237032 30861 net.cpp:399] inception_5b/3x3_reduce -> inception_5b/3x3_reduce
I0403 15:00:15.239804 30861 net.cpp:141] Setting up inception_5b/3x3_reduce
I0403 15:00:15.239836 30861 net.cpp:148] Top shape: 24 192 7 7 (225792)
I0403 15:00:15.239853 30861 net.cpp:156] Memory required for data: 1329757728
I0403 15:00:15.239873 30861 layer_factory.hpp:77] Creating layer inception_5b/relu_3x3_reduce
I0403 15:00:15.239895 30861 net.cpp:91] Creating Layer inception_5b/relu_3x3_reduce
I0403 15:00:15.239914 30861 net.cpp:425] inception_5b/relu_3x3_reduce <- inception_5b/3x3_reduce
I0403 15:00:15.239933 30861 net.cpp:386] inception_5b/relu_3x3_reduce -> inception_5b/3x3_reduce (in-place)
I0403 15:00:15.240130 30861 net.cpp:141] Setting up inception_5b/relu_3x3_reduce
I0403 15:00:15.240159 30861 net.cpp:148] Top shape: 24 192 7 7 (225792)
I0403 15:00:15.240176 30861 net.cpp:156] Memory required for data: 1330660896
I0403 15:00:15.240192 30861 layer_factory.hpp:77] Creating layer inception_5b/3x3
I0403 15:00:15.240213 30861 net.cpp:91] Creating Layer inception_5b/3x3
I0403 15:00:15.240231 30861 net.cpp:425] inception_5b/3x3 <- inception_5b/3x3_reduce
I0403 15:00:15.240253 30861 net.cpp:399] inception_5b/3x3 -> inception_5b/3x3
I0403 15:00:15.247243 30861 net.cpp:141] Setting up inception_5b/3x3
I0403 15:00:15.247275 30861 net.cpp:148] Top shape: 24 384 7 7 (451584)
I0403 15:00:15.247292 30861 net.cpp:156] Memory required for data: 1332467232
I0403 15:00:15.247313 30861 layer_factory.hpp:77] Creating layer inception_5b/relu_3x3
I0403 15:00:15.247339 30861 net.cpp:91] Creating Layer inception_5b/relu_3x3
I0403 15:00:15.247359 30861 net.cpp:425] inception_5b/relu_3x3 <- inception_5b/3x3
I0403 15:00:15.247378 30861 net.cpp:386] inception_5b/relu_3x3 -> inception_5b/3x3 (in-place)
I0403 15:00:15.247696 30861 net.cpp:141] Setting up inception_5b/relu_3x3
I0403 15:00:15.247725 30861 net.cpp:148] Top shape: 24 384 7 7 (451584)
I0403 15:00:15.247740 30861 net.cpp:156] Memory required for data: 1334273568
I0403 15:00:15.247756 30861 layer_factory.hpp:77] Creating layer inception_5b/5x5_reduce
I0403 15:00:15.247798 30861 net.cpp:91] Creating Layer inception_5b/5x5_reduce
I0403 15:00:15.247820 30861 net.cpp:425] inception_5b/5x5_reduce <- inception_5a/output_inception_5a/output_0_split_2
I0403 15:00:15.247844 30861 net.cpp:399] inception_5b/5x5_reduce -> inception_5b/5x5_reduce
I0403 15:00:15.249171 30861 net.cpp:141] Setting up inception_5b/5x5_reduce
I0403 15:00:15.249202 30861 net.cpp:148] Top shape: 24 48 7 7 (56448)
I0403 15:00:15.249218 30861 net.cpp:156] Memory required for data: 1334499360
I0403 15:00:15.249238 30861 layer_factory.hpp:77] Creating layer inception_5b/relu_5x5_reduce
I0403 15:00:15.249260 30861 net.cpp:91] Creating Layer inception_5b/relu_5x5_reduce
I0403 15:00:15.249280 30861 net.cpp:425] inception_5b/relu_5x5_reduce <- inception_5b/5x5_reduce
I0403 15:00:15.249299 30861 net.cpp:386] inception_5b/relu_5x5_reduce -> inception_5b/5x5_reduce (in-place)
I0403 15:00:15.249696 30861 net.cpp:141] Setting up inception_5b/relu_5x5_reduce
I0403 15:00:15.249724 30861 net.cpp:148] Top shape: 24 48 7 7 (56448)
I0403 15:00:15.249742 30861 net.cpp:156] Memory required for data: 1334725152
I0403 15:00:15.249758 30861 layer_factory.hpp:77] Creating layer inception_5b/5x5
I0403 15:00:15.249779 30861 net.cpp:91] Creating Layer inception_5b/5x5
I0403 15:00:15.249797 30861 net.cpp:425] inception_5b/5x5 <- inception_5b/5x5_reduce
I0403 15:00:15.249817 30861 net.cpp:399] inception_5b/5x5 -> inception_5b/5x5
I0403 15:00:15.251981 30861 net.cpp:141] Setting up inception_5b/5x5
I0403 15:00:15.252009 30861 net.cpp:148] Top shape: 24 128 7 7 (150528)
I0403 15:00:15.252027 30861 net.cpp:156] Memory required for data: 1335327264
I0403 15:00:15.252046 30861 layer_factory.hpp:77] Creating layer inception_5b/relu_5x5
I0403 15:00:15.252068 30861 net.cpp:91] Creating Layer inception_5b/relu_5x5
I0403 15:00:15.252085 30861 net.cpp:425] inception_5b/relu_5x5 <- inception_5b/5x5
I0403 15:00:15.252104 30861 net.cpp:386] inception_5b/relu_5x5 -> inception_5b/5x5 (in-place)
I0403 15:00:15.252307 30861 net.cpp:141] Setting up inception_5b/relu_5x5
I0403 15:00:15.252337 30861 net.cpp:148] Top shape: 24 128 7 7 (150528)
I0403 15:00:15.252354 30861 net.cpp:156] Memory required for data: 1335929376
I0403 15:00:15.252370 30861 layer_factory.hpp:77] Creating layer inception_5b/pool
I0403 15:00:15.252390 30861 net.cpp:91] Creating Layer inception_5b/pool
I0403 15:00:15.252408 30861 net.cpp:425] inception_5b/pool <- inception_5a/output_inception_5a/output_0_split_3
I0403 15:00:15.252429 30861 net.cpp:399] inception_5b/pool -> inception_5b/pool
I0403 15:00:15.252506 30861 net.cpp:141] Setting up inception_5b/pool
I0403 15:00:15.252532 30861 net.cpp:148] Top shape: 24 832 7 7 (978432)
I0403 15:00:15.252547 30861 net.cpp:156] Memory required for data: 1339843104
I0403 15:00:15.252563 30861 layer_factory.hpp:77] Creating layer inception_5b/pool_proj
I0403 15:00:15.252588 30861 net.cpp:91] Creating Layer inception_5b/pool_proj
I0403 15:00:15.252607 30861 net.cpp:425] inception_5b/pool_proj <- inception_5b/pool
I0403 15:00:15.252627 30861 net.cpp:399] inception_5b/pool_proj -> inception_5b/pool_proj
I0403 15:00:15.255034 30861 net.cpp:141] Setting up inception_5b/pool_proj
I0403 15:00:15.255065 30861 net.cpp:148] Top shape: 24 128 7 7 (150528)
I0403 15:00:15.255082 30861 net.cpp:156] Memory required for data: 1340445216
I0403 15:00:15.255101 30861 layer_factory.hpp:77] Creating layer inception_5b/relu_pool_proj
I0403 15:00:15.255123 30861 net.cpp:91] Creating Layer inception_5b/relu_pool_proj
I0403 15:00:15.255141 30861 net.cpp:425] inception_5b/relu_pool_proj <- inception_5b/pool_proj
I0403 15:00:15.255161 30861 net.cpp:386] inception_5b/relu_pool_proj -> inception_5b/pool_proj (in-place)
I0403 15:00:15.255478 30861 net.cpp:141] Setting up inception_5b/relu_pool_proj
I0403 15:00:15.255507 30861 net.cpp:148] Top shape: 24 128 7 7 (150528)
I0403 15:00:15.255523 30861 net.cpp:156] Memory required for data: 1341047328
I0403 15:00:15.255538 30861 layer_factory.hpp:77] Creating layer inception_5b/output
I0403 15:00:15.255560 30861 net.cpp:91] Creating Layer inception_5b/output
I0403 15:00:15.255592 30861 net.cpp:425] inception_5b/output <- inception_5b/1x1
I0403 15:00:15.255612 30861 net.cpp:425] inception_5b/output <- inception_5b/3x3
I0403 15:00:15.255630 30861 net.cpp:425] inception_5b/output <- inception_5b/5x5
I0403 15:00:15.255647 30861 net.cpp:425] inception_5b/output <- inception_5b/pool_proj
I0403 15:00:15.255666 30861 net.cpp:399] inception_5b/output -> inception_5b/output
I0403 15:00:15.255723 30861 net.cpp:141] Setting up inception_5b/output
I0403 15:00:15.255749 30861 net.cpp:148] Top shape: 24 1024 7 7 (1204224)
I0403 15:00:15.255765 30861 net.cpp:156] Memory required for data: 1345864224
I0403 15:00:15.255781 30861 layer_factory.hpp:77] Creating layer pool5/7x7_s1
I0403 15:00:15.255800 30861 net.cpp:91] Creating Layer pool5/7x7_s1
I0403 15:00:15.255818 30861 net.cpp:425] pool5/7x7_s1 <- inception_5b/output
I0403 15:00:15.255841 30861 net.cpp:399] pool5/7x7_s1 -> pool5/7x7_s1
I0403 15:00:15.256067 30861 net.cpp:141] Setting up pool5/7x7_s1
I0403 15:00:15.256098 30861 net.cpp:148] Top shape: 24 1024 1 1 (24576)
I0403 15:00:15.256114 30861 net.cpp:156] Memory required for data: 1345962528
I0403 15:00:15.256130 30861 layer_factory.hpp:77] Creating layer pool5/drop_7x7_s1
I0403 15:00:15.256150 30861 net.cpp:91] Creating Layer pool5/drop_7x7_s1
I0403 15:00:15.256167 30861 net.cpp:425] pool5/drop_7x7_s1 <- pool5/7x7_s1
I0403 15:00:15.256186 30861 net.cpp:386] pool5/drop_7x7_s1 -> pool5/7x7_s1 (in-place)
I0403 15:00:15.256240 30861 net.cpp:141] Setting up pool5/drop_7x7_s1
I0403 15:00:15.256265 30861 net.cpp:148] Top shape: 24 1024 1 1 (24576)
I0403 15:00:15.256281 30861 net.cpp:156] Memory required for data: 1346060832
I0403 15:00:15.256296 30861 layer_factory.hpp:77] Creating layer loss3/classifier_plantvillage
I0403 15:00:15.256324 30861 net.cpp:91] Creating Layer loss3/classifier_plantvillage
I0403 15:00:15.256342 30861 net.cpp:425] loss3/classifier_plantvillage <- pool5/7x7_s1
I0403 15:00:15.256363 30861 net.cpp:399] loss3/classifier_plantvillage -> loss3/classifier_plantvillage
I0403 15:00:15.256808 30861 net.cpp:141] Setting up loss3/classifier_plantvillage
I0403 15:00:15.256834 30861 net.cpp:148] Top shape: 24 38 (912)
I0403 15:00:15.256850 30861 net.cpp:156] Memory required for data: 1346064480
I0403 15:00:15.256868 30861 layer_factory.hpp:77] Creating layer loss3/classifier_plantvillage_loss3/classifier_plantvillage_0_split
I0403 15:00:15.256888 30861 net.cpp:91] Creating Layer loss3/classifier_plantvillage_loss3/classifier_plantvillage_0_split
I0403 15:00:15.256906 30861 net.cpp:425] loss3/classifier_plantvillage_loss3/classifier_plantvillage_0_split <- loss3/classifier_plantvillage
I0403 15:00:15.256928 30861 net.cpp:399] loss3/classifier_plantvillage_loss3/classifier_plantvillage_0_split -> loss3/classifier_plantvillage_loss3/classifier_plantvillage_0_split_0
I0403 15:00:15.256952 30861 net.cpp:399] loss3/classifier_plantvillage_loss3/classifier_plantvillage_0_split -> loss3/classifier_plantvillage_loss3/classifier_plantvillage_0_split_1
I0403 15:00:15.256973 30861 net.cpp:399] loss3/classifier_plantvillage_loss3/classifier_plantvillage_0_split -> loss3/classifier_plantvillage_loss3/classifier_plantvillage_0_split_2
I0403 15:00:15.256994 30861 net.cpp:399] loss3/classifier_plantvillage_loss3/classifier_plantvillage_0_split -> loss3/classifier_plantvillage_loss3/classifier_plantvillage_0_split_3
I0403 15:00:15.257102 30861 net.cpp:141] Setting up loss3/classifier_plantvillage_loss3/classifier_plantvillage_0_split
I0403 15:00:15.257130 30861 net.cpp:148] Top shape: 24 38 (912)
I0403 15:00:15.257148 30861 net.cpp:148] Top shape: 24 38 (912)
I0403 15:00:15.257165 30861 net.cpp:148] Top shape: 24 38 (912)
I0403 15:00:15.257181 30861 net.cpp:148] Top shape: 24 38 (912)
I0403 15:00:15.257196 30861 net.cpp:156] Memory required for data: 1346079072
I0403 15:00:15.257211 30861 layer_factory.hpp:77] Creating layer loss1/loss
I0403 15:00:15.257235 30861 net.cpp:91] Creating Layer loss1/loss
I0403 15:00:15.257253 30861 net.cpp:425] loss1/loss <- loss1/classifier_plantvillage_loss1/classifier_plantvillage_0_split_0
I0403 15:00:15.257287 30861 net.cpp:425] loss1/loss <- label_data_1_split_0
…
