…
I0403 15:05:42.986343 31123 net.cpp:313] The NetState phase (1) differed from the phase (0) specified by a rule in layer data
I0403 15:05:42.987483 31123 net.cpp:49] Initializing net from parameters: 
state {
  phase: TEST
}
layer {
  name: "data"
  type: "Data"
  top: "data"
  top: "label"
  include {
    phase: TEST
  }
  transform_param {
    mirror: false
    crop_size: 224
    mean_file: "/home/mohanty/data/final_dataset/lmdb/color-20-80/mean.binaryproto"
  }
  data_param {
    source: "/home/mohanty/data/final_dataset/lmdb/color-20-80/test_db"
    batch_size: 24
    backend: LMDB
  }
}
layer {
  name: "conv1/7x7_s2"
  type: "Convolution"
  bottom: "data"
  top: "conv1/7x7_s2"
  param {
    lr_mult: 1
    decay_mult: 1
  }
  param {
    lr_mult: 2
    decay_mult: 0
  }
  convolution_param {
    num_output: 64
    pad: 3
    kernel_size: 7
    stride: 2
    weight_filler {
      type: "xavier"
      std: 0.1
    }
    bias_filler {
      type: "constant"
      value: 0.2
    }
  }
}
layer {
  name: "conv1/relu_7x7"
  type: "ReLU"
  bottom: "conv1/7x7_s2"
  top: "conv1/7x7_s2"
}
layer {
  name: "pool1/3x3_s2"
  type: "Pooling"
  bottom: "conv1/7x7_s2"
  top: "pool1/3x3_s2"
  pooling_param {
    pool: MAX
    kernel_size: 3
    stride: 2
  }
}
layer {
  name: "pool1/norm1"
  type: "LRN"
  bottom: "pool1/3x3_s2"
  top: "pool1/norm1"
  lrn_param {
    local_size: 5
    alpha: 0.0001
    beta: 0.75
  }
}
layer {
  name: "conv2/3x3_reduce"
  type: "Convolution"
  bottom: "pool1/norm1"
  top: "conv2/3x3_reduce"
  param {
    lr_mult: 1
    decay_mult: 1
  }
  param {
    lr_mult: 2
    decay_mult: 0
  }
  convolution_param {
    num_output: 64
    kernel_size: 1
    weight_filler {
      type: "xavier"
      std: 0.1
    }
    bias_filler {
      type: "constant"
      value: 0.2
    }
  }
}
layer {
  name: "conv2/relu_3x3_reduce"
  type: "ReLU"
  bottom: "conv2/3x3_reduce"
  top: "conv2/3x3_reduce"
}
layer {
  name: "conv2/3x3"
  type: "Convolution"
  bottom: "conv2/3x3_reduce"
  top: "conv2/3x3"
  param {
    lr_mult: 1
    decay_mult: 1
  }
  param {
    lr_mult: 2
    decay_mult: 0
  }
  convolution_param {
    num_output: 192
    pad: 1
    kernel_size: 3
    weight_filler {
      type: "xavier"
      std: 0.03
    }
    bias_filler {
      type: "constant"
      value: 0.2
    }
  }
}
layer {
  name: "conv2/relu_3x3"
  type: "ReLU"
  bottom: "conv2/3x3"
  top: "conv2/3x3"
}
layer {
  name: "conv2/norm2"
  type: "LRN"
  bottom: "conv2/3x3"
  top: "conv2/norm2"
  lrn_param {
    local_size: 5
    alpha: 0.0001
    beta: 0.75
  }
}
layer {
  name: "pool2/3x3_s2"
  type: "Pooling"
  bottom: "conv2/norm2"
  top: "pool2/3x3_s2"
  pooling_param {
    pool: MAX
    kernel_size: 3
    stride: 2
  }
}
layer {
  name: "inception_3a/1x1"
  type: "Convolution"
  bottom: "pool2/3x3_s2"
  top: "inception_3a/1x1"
  param {
    lr_mult: 1
    decay_mult: 1
  }
  param {
    lr_mult: 2
    decay_mult: 0
  }
  convolution_param {
    num_output: 64
    kernel_size: 1
    weight_filler {
      type: "xavier"
      std: 0.03
    }
    bias_filler {
      type: "constant"
      value: 0.2
    }
  }
}
layer {
  name: "inception_3a/relu_1x1"
  type: "ReLU"
  bottom: "inception_3a/1x1"
  top: "inception_3a/1x1"
}
layer {
  name: "inception_3a/3x3_reduce"
  type: "Convolution"
  bottom: "pool2/3x3_s2"
  top: "inception_3a/3x3_reduce"
  param {
    lr_mult: 1
    decay_mult: 1
  }
  param {
    lr_mult: 2
    decay_mult: 0
  }
  convolution_param {
    num_output: 96
    kernel_size: 1
    weight_filler {
      type: "xavier"
      std: 0.09
    }
    bias_filler {
      type: "constant"
      value: 0.2
    }
  }
}
layer {
  name: "inception_3a/relu_3x3_reduce"
  type: "ReLU"
  bottom: "inception_3a/3x3_reduce"
  top: "inception_3a/3x3_reduce"
}
layer {
  name: "inception_3a/3x3"
  type: "Convolution"
  bottom: "inception_3a/3x3_reduce"
  top: "inception_3a/3x3"
  param {
    lr_mult: 1
    decay_mult: 1
  }
  param {
    lr_mult: 2
    decay_mult: 0
  }
  convolution_param {
    num_output: 128
    pad: 1
    kernel_size: 3
    weight_filler {
      type: "xavier"
      std: 0.03
    }
    bias_filler {
      type: "constant"
      value: 0.2
    }
  }
}
layer {
  name: "inception_3a/relu_3x3"
  type: "ReLU"
  bottom: "inception_3a/3x3"
  top: "inception_3a/3x3"
}
layer {
  name: "inception_3a/5x5_reduce"
  type: "Convolution"
  bottom: "pool2/3x3_s2"
  top: "inception_3a/5x5_reduce"
  param {
    lr_mult: 1
    decay_mult: 1
  }
  param {
    lr_mult: 2
    decay_mult: 0
  }
  convolution_param {
    num_output: 16
    kernel_size: 1
    weight_filler {
      type: "xavier"
      std: 0.2
    }
    bias_filler {
      type: "constant"
      value: 0.2
    }
  }
}
layer {
  name: "inception_3a/relu_5x5_reduce"
  type: "ReLU"
  bottom: "inception_3a/5x5_reduce"
  top: "inception_3a/5x5_reduce"
}
layer {
  name: "inception_3a/5x5"
  type: "Convolution"
  bottom: "inception_3a/5x5_reduce"
  top: "inception_3a/5x5"
  param {
    lr_mult: 1
    decay_mult: 1
  }
  param {
    lr_mult: 2
    decay_mult: 0
  }
  convolution_param {
    num_output: 32
    pad: 2
    kernel_size: 5
    weight_filler {
      type: "xavier"
      std: 0.03
    }
    bias_filler {
      type: "constant"
      value: 0.2
    }
  }
}
layer {
  name: "inception_3a/relu_5x5"
  type: "ReLU"
  bottom: "inception_3a/5x5"
  top: "inception_3a/5x5"
}
layer {
  name: "inception_3a/pool"
  type: "Pooling"
  bottom: "pool2/3x3_s2"
  top: "inception_3a/pool"
  pooling_param {
    pool: MAX
    kernel_size: 3
    stride: 1
    pad: 1
  }
}
layer {
  name: "inception_3a/pool_proj"
  type: "Convolution"
  bottom: "inception_3a/pool"
  top: "inception_3a/pool_proj"
  param {
    lr_mult: 1
    decay_mult: 1
  }
  param {
    lr_mult: 2
    decay_mult: 0
  }
  convolution_param {
    num_output: 32
    kernel_size: 1
    weight_filler {
      type: "xavier"
      std: 0.1
    }
    bias_filler {
      type: "constant"
      value: 0.2
    }
  }
}
layer {
  name: "inception_3a/relu_pool_proj"
  type: "ReLU"
  bottom: "inception_3a/pool_proj"
  top: "inception_3a/pool_proj"
}
layer {
  name: "inception_3a/output"
  type: "Concat"
  bottom: "inception_3a/1x1"
  bottom: "inception_3a/3x3"
  bottom: "inception_3a/5x5"
  bottom: "inception_3a/pool_proj"
  top: "inception_3a/output"
}
layer {
  name: "inception_3b/1x1"
  type: "Convolution"
  bottom: "inception_3a/output"
  top: "inception_3b/1x1"
  param {
    lr_mult: 1
    decay_mult: 1
  }
  param {
    lr_mult: 2
    decay_mult: 0
  }
  convolution_param {
    num_output: 128
    kernel_size: 1
    weight_filler {
      type: "xavier"
      std: 0.03
    }
    bias_filler {
      type: "constant"
      value: 0.2
    }
  }
}
layer {
  name: "inception_3b/relu_1x1"
  type: "ReLU"
  bottom: "inception_3b/1x1"
  top: "inception_3b/1x1"
}
layer {
  name: "inception_3b/3x3_reduce"
  type: "Convolution"
  bottom: "inception_3a/output"
  top: "inception_3b/3x3_reduce"
  param {
    lr_mult: 1
    decay_mult: 1
  }
  param {
    lr_mult: 2
    decay_mult: 0
  }
  convolution_param {
    num_output: 128
    kernel_size: 1
    weight_filler {
      type: "xavier"
      std: 0.09
    }
    bias_filler {
      type: "constant"
      value: 0.2
    }
  }
}
layer {
  name: "inception_3b/relu_3x3_reduce"
  type: "ReLU"
  bottom: "inception_3b/3x3_reduce"
  top: "inception_3b/3x3_reduce"
}
layer {
  name: "inception_3b/3x3"
  type: "Convolution"
  bottom: "inception_3b/3x3_reduce"
  top: "inception_3b/3x3"
  param {
    lr_mult: 1
    decay_mult: 1
  }
  param {
    lr_mult: 2
    decay_mult: 0
  }
  convolution_param {
    num_output: 192
    pad: 1
    kernel_size: 3
    weight_filler {
      type: "xavier"
      std: 0.03
    }
    bias_filler {
      type: "constant"
      value: 0.2
    }
  }
}
layer {
  name: "inception_3b/relu_3x3"
  type: "ReLU"
  bottom: "inception_3b/3x3"
  top: "inception_3b/3x3"
}
layer {
  name: "inception_3b/5x5_reduce"
  type: "Convolution"
  bottom: "inception_3a/output"
  top: "inception_3b/5x5_reduce"
  param {
    lr_mult: 1
    decay_mult: 1
  }
  param {
    lr_mult: 2
    decay_mult: 0
  }
  convolution_param {
    num_output: 32
    kernel_size: 1
    weight_filler {
      type: "xavier"
      std: 0.2
    }
    bias_filler {
      type: "constant"
      value: 0.2
    }
  }
}
layer {
  name: "inception_3b/relu_5x5_reduce"
  type: "ReLU"
  bottom: "inception_3b/5x5_reduce"
  top: "inception_3b/5x5_reduce"
}
layer {
  name: "inception_3b/5x5"
  type: "Convolution"
  bottom: "inception_3b/5x5_reduce"
  top: "inception_3b/5x5"
  param {
    lr_mult: 1
    decay_mult: 1
  }
  param {
    lr_mult: 2
    decay_mult: 0
  }
  convolution_param {
    num_output: 96
    pad: 2
    kernel_size: 5
    weight_filler {
      type: "xavier"
      std: 0.03
    }
    bias_filler {
      type: "constant"
      value: 0.2
    }
  }
}
layer {
  name: "inception_3b/relu_5x5"
  type: "ReLU"
  bottom: "inception_3b/5x5"
  top: "inception_3b/5x5"
}
layer {
  name: "inception_3b/pool"
  type: "Pooling"
  bottom: "inception_3a/output"
  top: "inception_3b/pool"
  pooling_param {
    pool: MAX
    kernel_size: 3
    stride: 1
    pad: 1
  }
}
layer {
  name: "inception_3b/pool_proj"
  type: "Convolution"
  bottom: "inception_3b/pool"
  top: "inception_3b/pool_proj"
  param {
    lr_mult: 1
    decay_mult: 1
  }
  param {
    lr_mult: 2
    decay_mult: 0
  }
  convolution_param {
    num_output: 64
    kernel_size: 1
    weight_filler {
      type: "xavier"
      std: 0.1
    }
    bias_filler {
      type: "constant"
      value: 0.2
    }
  }
}
layer {
  name: "inception_3b/relu_pool_proj"
  type: "ReLU"
  bottom: "inception_3b/pool_proj"
  top: "inception_3b/pool_proj"
}
layer {
  name: "inception_3b/output"
  type: "Concat"
  bottom: "inception_3b/1x1"
  bottom: "inception_3b/3x3"
  bottom: "inception_3b/5x5"
  bottom: "inception_3b/pool_proj"
  top: "inception_3b/output"
}
layer {
  name: "pool3/3x3_s2"
  type: "Pooling"
  bottom: "inception_3b/output"
  top: "pool3/3x3_s2"
  pooling_param {
    pool: MAX
    kernel_size: 3
    stride: 2
  }
}
layer {
  name: "inception_4a/1x1"
  type: "Convolution"
  bottom: "pool3/3x3_s2"
  top: "inception_4a/1x1"
  param {
    lr_mult: 1
    decay_mult: 1
  }
  param {
    lr_mult: 2
    decay_mult: 0
  }
  convolution_param {
    num_output: 192
    kernel_size: 1
    weight_filler {
      type: "xavier"
      std: 0.03
    }
    bias_filler {
      type: "constant"
      value: 0.2
    }
  }
}
layer {
  name: "inception_4a/relu_1x1"
  type: "ReLU"
  bottom: "inception_4a/1x1"
  top: "inception_4a/1x1"
}
layer {
  name: "inception_4a/3x3_reduce"
  type: "Convolution"
  bottom: "pool3/3x3_s2"
  top: "inception_4a/3x3_reduce"
  param {
    lr_mult: 1
    decay_mult: 1
  }
  param {
    lr_mult: 2
    decay_mult: 0
  }
  convolution_param {
    num_output: 96
    kernel_size: 1
    weight_filler {
      type: "xavier"
      std: 0.09
    }
    bias_filler {
      type: "constant"
      value: 0.2
    }
  }
}
layer {
  name: "inception_4a/relu_3x3_reduce"
  type: "ReLU"
  bottom: "inception_4a/3x3_reduce"
  top: "inception_4a/3x3_reduce"
}
layer {
  name: "inception_4a/3x3"
  type: "Convolution"
  bottom: "inception_4a/3x3_reduce"
  top: "inception_4a/3x3"
  param {
    lr_mult: 1
    decay_mult: 1
  }
  param {
    lr_mult: 2
    decay_mult: 0
  }
  convolution_param {
    num_output: 208
    pad: 1
    kernel_size: 3
    weight_filler {
      type: "xavier"
      std: 0.03
    }
    bias_filler {
      type: "constant"
      value: 0.2
    }
  }
}
layer {
  name: "inception_4a/relu_3x3"
  type: "ReLU"
  bottom: "inception_4a/3x3"
  top: "inception_4a/3x3"
}
layer {
  name: "inception_4a/5x5_reduce"
  type: "Convolution"
  bottom: "pool3/3x3_s2"
  top: "inception_4a/5x5_reduce"
  param {
    lr_mult: 1
    decay_mult: 1
  }
  param {
    lr_mult: 2
    decay_mult: 0
  }
  convolution_param {
    num_output: 16
    kernel_size: 1
    weight_filler {
      type: "xavier"
      std: 0.2
    }
    bias_filler {
      type: "constant"
      value: 0.2
    }
  }
}
layer {
  name: "inception_4a/relu_5x5_reduce"
  type: "ReLU"
  bottom: "inception_4a/5x5_reduce"
  top: "inception_4a/5x5_reduce"
}
layer {
  name: "inception_4a/5x5"
  type: "Convolution"
  bottom: "inception_4a/5x5_reduce"
  top: "inception_4a/5x5"
  param {
    lr_mult: 1
    decay_mult: 1
  }
  param {
    lr_mult: 2
    decay_mult: 0
  }
  convolution_param {
    num_output: 48
    pad: 2
    kernel_size: 5
    weight_filler {
      type: "xavier"
      std: 0.03
    }
    bias_filler {
      type: "constant"
      value: 0.2
    }
  }
}
layer {
  name: "inception_4a/relu_5x5"
  type: "ReLU"
  bottom: "inception_4a/5x5"
  top: "inception_4a/5x5"
}
layer {
  name: "inception_4a/pool"
  type: "Pooling"
  bottom: "pool3/3x3_s2"
  top: "inception_4a/pool"
  pooling_param {
    pool: MAX
    kernel_size: 3
    stride: 1
    pad: 1
  }
}
layer {
  name: "inception_4a/pool_proj"
  type: "Convolution"
  bottom: "inception_4a/pool"
  top: "inception_4a/pool_proj"
  param {
    lr_mult: 1
    decay_mult: 1
  }
  param {
    lr_mult: 2
    decay_mult: 0
  }
  convolution_param {
    num_output: 64
    kernel_size: 1
    weight_filler {
      type: "xavier"
      std: 0.1
    }
    bias_filler {
      type: "constant"
      value: 0.2
    }
  }
}
layer {
  name: "inception_4a/relu_pool_proj"
  type: "ReLU"
  bottom: "inception_4a/pool_proj"
  top: "inception_4a/pool_proj"
}
layer {
  name: "inception_4a/output"
  type: "Concat"
  bottom: "inception_4a/1x1"
  bottom: "inception_4a/3x3"
  bottom: "inception_4a/5x5"
  bottom: "inception_4a/pool_proj"
  top: "inception_4a/output"
}
layer {
  name: "loss1/ave_pool"
  type: "Pooling"
  bottom: "inception_4a/output"
  top: "loss1/ave_pool"
  pooling_param {
    pool: AVE
    kernel_size: 5
    stride: 3
  }
}
layer {
  name: "loss1/conv"
  type: "Convolution"
  bottom: "loss1/ave_pool"
  top: "loss1/conv"
  param {
    lr_mult: 1
    decay_mult: 1
  }
  param {
    lr_mult: 2
    decay_mult: 0
  }
  convolution_param {
    num_output: 128
    kernel_size: 1
    weight_filler {
      type: "xavier"
      std: 0.08
    }
    bias_filler {
      type: "constant"
      value: 0.2
    }
  }
}
layer {
  name: "loss1/relu_conv"
  type: "ReLU"
  bottom: "loss1/conv"
  top: "loss1/conv"
}
layer {
  name: "loss1/fc"
  type: "InnerProduct"
  bottom: "loss1/conv"
  top: "loss1/fc"
  param {
    lr_mult: 1
    decay_mult: 1
  }
  param {
    lr_mult: 2
    decay_mult: 0
  }
  inner_product_param {
    num_output: 1024
    weight_filler {
      type: "xavier"
      std: 0.02
    }
    bias_filler {
      type: "constant"
      value: 0.2
    }
  }
}
layer {
  name: "loss1/relu_fc"
  type: "ReLU"
  bottom: "loss1/fc"
  top: "loss1/fc"
}
layer {
  name: "loss1/drop_fc"
  type: "Dropout"
  bottom: "loss1/fc"
  top: "loss1/fc"
  dropout_param {
    dropout_ratio: 0.7
  }
}
layer {
  name: "loss1/classifier_plantvillage"
  type: "InnerProduct"
  bottom: "loss1/fc"
  top: "loss1/classifier_plantvillage"
  param {
    lr_mult: 1
    decay_mult: 1
  }
  param {
    lr_mult: 2
    decay_mult: 0
  }
  inner_product_param {
    num_output: 38
    weight_filler {
      type: "xavier"
      std: 0.0009765625
    }
    bias_filler {
      type: "constant"
      value: 0
    }
  }
}
layer {
  name: "inception_4b/1x1"
  type: "Convolution"
  bottom: "inception_4a/output"
  top: "inception_4b/1x1"
  param {
    lr_mult: 1
    decay_mult: 1
  }
  param {
    lr_mult: 2
    decay_mult: 0
  }
  convolution_param {
    num_output: 160
    kernel_size: 1
    weight_filler {
      type: "xavier"
      std: 0.03
    }
    bias_filler {
      type: "constant"
      value: 0.2
    }
  }
}
layer {
  name: "inception_4b/relu_1x1"
  type: "ReLU"
  bottom: "inception_4b/1x1"
  top: "inception_4b/1x1"
}
layer {
  name: "inception_4b/3x3_reduce"
  type: "Convolution"
  bottom: "inception_4a/output"
  top: "inception_4b/3x3_reduce"
  param {
    lr_mult: 1
    decay_mult: 1
  }
  param {
    lr_mult: 2
    decay_mult: 0
  }
  convolution_param {
    num_output: 112
    kernel_size: 1
    weight_filler {
      type: "xavier"
      std: 0.09
    }
    bias_filler {
      type: "constant"
      value: 0.2
    }
  }
}
layer {
  name: "inception_4b/relu_3x3_reduce"
  type: "ReLU"
  bottom: "inception_4b/3x3_reduce"
  top: "inception_4b/3x3_reduce"
}
layer {
  name: "inception_4b/3x3"
  type: "Convolution"
  bottom: "inception_4b/3x3_reduce"
  top: "inception_4b/3x3"
  param {
    lr_mult: 1
    decay_mult: 1
  }
  param {
    lr_mult: 2
    decay_mult: 0
  }
  convolution_param {
    num_output: 224
    pad: 1
    kernel_size: 3
    weight_filler {
      type: "xavier"
      std: 0.03
    }
    bias_filler {
      type: "constant"
      value: 0.2
    }
  }
}
layer {
  name: "inception_4b/relu_3x3"
  type: "ReLU"
  bottom: "inception_4b/3x3"
  top: "inception_4b/3x3"
}
layer {
  name: "inception_4b/5x5_reduce"
  type: "Convolution"
  bottom: "inception_4a/output"
  top: "inception_4b/5x5_reduce"
  param {
    lr_mult: 1
    decay_mult: 1
  }
  param {
    lr_mult: 2
    decay_mult: 0
  }
  convolution_param {
    num_output: 24
    kernel_size: 1
    weight_filler {
      type: "xavier"
      std: 0.2
    }
    bias_filler {
      type: "constant"
      value: 0.2
    }
  }
}
layer {
  name: "inception_4b/relu_5x5_reduce"
  type: "ReLU"
  bottom: "inception_4b/5x5_reduce"
  top: "inception_4b/5x5_reduce"
}
layer {
  name: "inception_4b/5x5"
  type: "Convolution"
  bottom: "inception_4b/5x5_reduce"
  top: "inception_4b/5x5"
  param {
    lr_mult: 1
    decay_mult: 1
  }
  param {
    lr_mult: 2
    decay_mult: 0
  }
  convolution_param {
    num_output: 64
    pad: 2
    kernel_size: 5
    weight_filler {
      type: "xavier"
      std: 0.03
    }
    bias_filler {
      type: "constant"
      value: 0.2
    }
  }
}
layer {
  name: "inception_4b/relu_5x5"
  type: "ReLU"
  bottom: "inception_4b/5x5"
  top: "inception_4b/5x5"
}
layer {
  name: "inception_4b/pool"
  type: "Pooling"
  bottom: "inception_4a/output"
  top: "inception_4b/pool"
  pooling_param {
    pool: MAX
    kernel_size: 3
    stride: 1
    pad: 1
  }
}
layer {
  name: "inception_4b/pool_proj"
  type: "Convolution"
  bottom: "inception_4b/pool"
  top: "inception_4b/pool_proj"
  param {
    lr_mult: 1
    decay_mult: 1
  }
  param {
    lr_mult: 2
    decay_mult: 0
  }
  convolution_param {
    num_output: 64
    kernel_size: 1
    weight_filler {
      type: "xavier"
      std: 0.1
    }
    bias_filler {
      type: "constant"
      value: 0.2
    }
  }
}
layer {
  name: "inception_4b/relu_pool_proj"
  type: "ReLU"
  bottom: "inception_4b/pool_proj"
  top: "inception_4b/pool_proj"
}
layer {
  name: "inception_4b/output"
  type: "Concat"
  bottom: "inception_4b/1x1"
  bottom: "inception_4b/3x3"
  bottom: "inception_4b/5x5"
  bottom: "inception_4b/pool_proj"
  top: "inception_4b/output"
}
layer {
  name: "inception_4c/1x1"
  type: "Convolution"
  bottom: "inception_4b/output"
  top: "inception_4c/1x1"
  param {
    lr_mult: 1
    decay_mult: 1
  }
  param {
    lr_mult: 2
    decay_mult: 0
  }
  convolution_param {
    num_output: 128
    kernel_size: 1
    weight_filler {
      type: "xavier"
      std: 0.03
    }
    bias_filler {
      type: "constant"
      value: 0.2
    }
  }
}
layer {
  name: "inception_4c/relu_1x1"
  type: "ReLU"
  bottom: "inception_4c/1x1"
  top: "inception_4c/1x1"
}
layer {
  name: "inception_4c/3x3_reduce"
  type: "Convolution"
  bottom: "inception_4b/output"
  top: "inception_4c/3x3_reduce"
  param {
    lr_mult: 1
    decay_mult: 1
  }
  param {
    lr_mult: 2
    decay_mult: 0
  }
  convolution_param {
    num_output: 128
    kernel_size: 1
    weight_filler {
      type: "xavier"
      std: 0.09
    }
    bias_filler {
      type: "constant"
      value: 0.2
    }
  }
}
layer {
  name: "inception_4c/relu_3x3_reduce"
  type: "ReLU"
  bottom: "inception_4c/3x3_reduce"
  top: "inception_4c/3x3_reduce"
}
layer {
  name: "inception_4c/3x3"
  type: "Convolution"
  bottom: "inception_4c/3x3_reduce"
  top: "inception_4c/3x3"
  param {
    lr_mult: 1
    decay_mult: 1
  }
  param {
    lr_mult: 2
    decay_mult: 0
  }
  convolution_param {
    num_output: 256
    pad: 1
    kernel_size: 3
    weight_filler {
      type: "xavier"
      std: 0.03
    }
    bias_filler {
      type: "constant"
      value: 0.2
    }
  }
}
layer {
  name: "inception_4c/relu_3x3"
  type: "ReLU"
  bottom: "inception_4c/3x3"
  top: "inception_4c/3x3"
}
layer {
  name: "inception_4c/5x5_reduce"
  type: "Convolution"
  bottom: "inception_4b/output"
  top: "inception_4c/5x5_reduce"
  param {
    lr_mult: 1
    decay_mult: 1
  }
  param {
    lr_mult: 2
    decay_mult: 0
  }
  convolution_param {
    num_output: 24
    kernel_size: 1
    weight_filler {
      type: "xavier"
      std: 0.2
    }
    bias_filler {
      type: "constant"
      value: 0.2
    }
  }
}
layer {
  name: "inception_4c/relu_5x5_reduce"
  type: "ReLU"
  bottom: "inception_4c/5x5_reduce"
  top: "inception_4c/5x5_reduce"
}
layer {
  name: "inception_4c/5x5"
  type: "Convolution"
  bottom: "inception_4c/5x5_reduce"
  top: "inception_4c/5x5"
  param {
    lr_mult: 1
    decay_mult: 1
  }
  param {
    lr_mult: 2
    decay_mult: 0
  }
  convolution_param {
    num_output: 64
    pad: 2
    kernel_size: 5
    weight_filler {
      type: "xavier"
      std: 0.03
    }
    bias_filler {
      type: "constant"
      value: 0.2
    }
  }
}
layer {
  name: "inception_4c/relu_5x5"
  type: "ReLU"
  bottom: "inception_4c/5x5"
  top: "inception_4c/5x5"
}
layer {
  name: "inception_4c/pool"
  type: "Pooling"
  bottom: "inception_4b/output"
  top: "inception_4c/pool"
  pooling_param {
    pool: MAX
    kernel_size: 3
    stride: 1
    pad: 1
  }
}
layer {
  name: "inception_4c/pool_proj"
  type: "Convolution"
  bottom: "inception_4c/pool"
  top: "inception_4c/pool_proj"
  param {
    lr_mult: 1
    decay_mult: 1
  }
  param {
    lr_mult: 2
    decay_mult: 0
  }
  convolution_param {
    num_output: 64
    kernel_size: 1
    weight_filler {
      type: "xavier"
      std: 0.1
    }
    bias_filler {
      type: "constant"
      value: 0.2
    }
  }
}
layer {
  name: "inception_4c/relu_pool_proj"
  type: "ReLU"
  bottom: "inception_4c/pool_proj"
  top: "inception_4c/pool_proj"
}
layer {
  name: "inception_4c/output"
  type: "Concat"
  bottom: "inception_4c/1x1"
  bottom: "inception_4c/3x3"
  bottom: "inception_4c/5x5"
  bottom: "inception_4c/pool_proj"
  top: "inception_4c/output"
}
layer {
  name: "inception_4d/1x1"
  type: "Convolution"
  bottom: "inception_4c/output"
  top: "inception_4d/1x1"
  param {
    lr_mult: 1
    decay_mult: 1
  }
  param {
    lr_mult: 2
    decay_mult: 0
  }
  convolution_param {
    num_output: 112
    kernel_size: 1
    weight_filler {
      type: "xavier"
      std: 0.03
    }
    bias_filler {
      type: "constant"
      value: 0.2
    }
  }
}
layer {
  name: "inception_4d/relu_1x1"
  type: "ReLU"
  bottom: "inception_4d/1x1"
  top: "inception_4d/1x1"
}
layer {
  name: "inception_4d/3x3_reduce"
  type: "Convolution"
  bottom: "inception_4c/output"
  top: "inception_4d/3x3_reduce"
  param {
    lr_mult: 1
    decay_mult: 1
  }
  param {
    lr_mult: 2
    decay_mult: 0
  }
  convolution_param {
    num_output: 144
    kernel_size: 1
    weight_filler {
      type: "xavier"
      std: 0.09
    }
    bias_filler {
      type: "constant"
      value: 0.2
    }
  }
}
layer {
  name: "inception_4d/relu_3x3_reduce"
  type: "ReLU"
  bottom: "inception_4d/3x3_reduce"
  top: "inception_4d/3x3_reduce"
}
layer {
  name: "inception_4d/3x3"
  type: "Convolution"
  bottom: "inception_4d/3x3_reduce"
  top: "inception_4d/3x3"
  param {
    lr_mult: 1
    decay_mult: 1
  }
  param {
    lr_mult: 2
    decay_mult: 0
  }
  convolution_param {
    num_output: 288
    pad: 1
    kernel_size: 3
    weight_filler {
      type: "xavier"
      std: 0.03
    }
    bias_filler {
      type: "constant"
      value: 0.2
    }
  }
}
layer {
  name: "inception_4d/relu_3x3"
  type: "ReLU"
  bottom: "inception_4d/3x3"
  top: "inception_4d/3x3"
}
layer {
  name: "inception_4d/5x5_reduce"
  type: "Convolution"
  bottom: "inception_4c/output"
  top: "inception_4d/5x5_reduce"
  param {
    lr_mult: 1
    decay_mult: 1
  }
  param {
    lr_mult: 2
    decay_mult: 0
  }
  convolution_param {
    num_output: 32
    kernel_size: 1
    weight_filler {
      type: "xavier"
      std: 0.2
    }
    bias_filler {
      type: "constant"
      value: 0.2
    }
  }
}
layer {
  name: "inception_4d/relu_5x5_reduce"
  type: "ReLU"
  bottom: "inception_4d/5x5_reduce"
  top: "inception_4d/5x5_reduce"
}
layer {
  name: "inception_4d/5x5"
  type: "Convolution"
  bottom: "inception_4d/5x5_reduce"
  top: "inception_4d/5x5"
  param {
    lr_mult: 1
    decay_mult: 1
  }
  param {
    lr_mult: 2
    decay_mult: 0
  }
  convolution_param {
    num_output: 64
    pad: 2
    kernel_size: 5
    weight_filler {
      type: "xavier"
      std: 0.03
    }
    bias_filler {
      type: "constant"
      value: 0.2
    }
  }
}
layer {
  name: "inception_4d/relu_5x5"
  type: "ReLU"
  bottom: "inception_4d/5x5"
  top: "inception_4d/5x5"
}
layer {
  name: "inception_4d/pool"
  type: "Pooling"
  bottom: "inception_4c/output"
  top: "inception_4d/pool"
  pooling_param {
    pool: MAX
    kernel_size: 3
    stride: 1
    pad: 1
  }
}
layer {
  name: "inception_4d/pool_proj"
  type: "Convolution"
  bottom: "inception_4d/pool"
  top: "inception_4d/pool_proj"
  param {
    lr_mult: 1
    decay_mult: 1
  }
  param {
    lr_mult: 2
    decay_mult: 0
  }
  convolution_param {
    num_output: 64
    kernel_size: 1
    weight_filler {
      type: "xavier"
      std: 0.1
    }
    bias_filler {
      type: "constant"
      value: 0.2
    }
  }
}
layer {
  name: "inception_4d/relu_pool_proj"
  type: "ReLU"
  bottom: "inception_4d/pool_proj"
  top: "inception_4d/pool_proj"
}
layer {
  name: "inception_4d/output"
  type: "Concat"
  bottom: "inception_4d/1x1"
  bottom: "inception_4d/3x3"
  bottom: "inception_4d/5x5"
  bottom: "inception_4d/pool_proj"
  top: "inception_4d/output"
}
layer {
  name: "loss2/ave_pool"
  type: "Pooling"
  bottom: "inception_4d/output"
  top: "loss2/ave_pool"
  pooling_param {
    pool: AVE
    kernel_size: 5
    stride: 3
  }
}
layer {
  name: "loss2/conv"
  type: "Convolution"
  bottom: "loss2/ave_pool"
  top: "loss2/conv"
  param {
    lr_mult: 1
    decay_mult: 1
  }
  param {
    lr_mult: 2
    decay_mult: 0
  }
  convolution_param {
    num_output: 128
    kernel_size: 1
    weight_filler {
      type: "xavier"
      std: 0.08
    }
    bias_filler {
      type: "constant"
      value: 0.2
    }
  }
}
layer {
  name: "loss2/relu_conv"
  type: "ReLU"
  bottom: "loss2/conv"
  top: "loss2/conv"
}
layer {
  name: "loss2/fc"
  type: "InnerProduct"
  bottom: "loss2/conv"
  top: "loss2/fc"
  param {
    lr_mult: 1
    decay_mult: 1
  }
  param {
    lr_mult: 2
    decay_mult: 0
  }
  inner_product_param {
    num_output: 1024
    weight_filler {
      type: "xavier"
      std: 0.02
    }
    bias_filler {
      type: "constant"
      value: 0.2
    }
  }
}
layer {
  name: "loss2/relu_fc"
  type: "ReLU"
  bottom: "loss2/fc"
  top: "loss2/fc"
}
layer {
  name: "loss2/drop_fc"
  type: "Dropout"
  bottom: "loss2/fc"
  top: "loss2/fc"
  dropout_param {
    dropout_ratio: 0.7
  }
}
layer {
  name: "loss2/classifier_plantvillage"
  type: "InnerProduct"
  bottom: "loss2/fc"
  top: "loss2/classifier_plantvillage"
  param {
    lr_mult: 1
    decay_mult: 1
  }
  param {
    lr_mult: 2
    decay_mult: 0
  }
  inner_product_param {
    num_output: 38
    weight_filler {
      type: "xavier"
      std: 0.0009765625
    }
    bias_filler {
      type: "constant"
      value: 0
    }
  }
}
layer {
  name: "inception_4e/1x1"
  type: "Convolution"
  bottom: "inception_4d/output"
  top: "inception_4e/1x1"
  param {
    lr_mult: 1
    decay_mult: 1
  }
  param {
    lr_mult: 2
    decay_mult: 0
  }
  convolution_param {
    num_output: 256
    kernel_size: 1
    weight_filler {
      type: "xavier"
      std: 0.03
    }
    bias_filler {
      type: "constant"
      value: 0.2
    }
  }
}
layer {
  name: "inception_4e/relu_1x1"
  type: "ReLU"
  bottom: "inception_4e/1x1"
  top: "inception_4e/1x1"
}
layer {
  name: "inception_4e/3x3_reduce"
  type: "Convolution"
  bottom: "inception_4d/output"
  top: "inception_4e/3x3_reduce"
  param {
    lr_mult: 1
    decay_mult: 1
  }
  param {
    lr_mult: 2
    decay_mult: 0
  }
  convolution_param {
    num_output: 160
    kernel_size: 1
    weight_filler {
      type: "xavier"
      std: 0.09
    }
    bias_filler {
      type: "constant"
      value: 0.2
    }
  }
}
layer {
  name: "inception_4e/relu_3x3_reduce"
  type: "ReLU"
  bottom: "inception_4e/3x3_reduce"
  top: "inception_4e/3x3_reduce"
}
layer {
  name: "inception_4e/3x3"
  type: "Convolution"
  bottom: "inception_4e/3x3_reduce"
  top: "inception_4e/3x3"
  param {
    lr_mult: 1
    decay_mult: 1
  }
  param {
    lr_mult: 2
    decay_mult: 0
  }
  convolution_param {
    num_output: 320
    pad: 1
    kernel_size: 3
    weight_filler {
      type: "xavier"
      std: 0.03
    }
    bias_filler {
      type: "constant"
      value: 0.2
    }
  }
}
layer {
  name: "inception_4e/relu_3x3"
  type: "ReLU"
  bottom: "inception_4e/3x3"
  top: "inception_4e/3x3"
}
layer {
  name: "inception_4e/5x5_reduce"
  type: "Convolution"
  bottom: "inception_4d/output"
  top: "inception_4e/5x5_reduce"
  param {
    lr_mult: 1
    decay_mult: 1
  }
  param {
    lr_mult: 2
    decay_mult: 0
  }
  convolution_param {
    num_output: 32
    kernel_size: 1
    weight_filler {
      type: "xavier"
      std: 0.2
    }
    bias_filler {
      type: "constant"
      value: 0.2
    }
  }
}
layer {
  name: "inception_4e/relu_5x5_reduce"
  type: "ReLU"
  bottom: "inception_4e/5x5_reduce"
  top: "inception_4e/5x5_reduce"
}
layer {
  name: "inception_4e/5x5"
  type: "Convolution"
  bottom: "inception_4e/5x5_reduce"
  top: "inception_4e/5x5"
  p
I0403 15:05:42.988762 31123 layer_factory.hpp:77] Creating layer data
I0403 15:05:42.989358 31123 net.cpp:91] Creating Layer data
I0403 15:05:42.989389 31123 net.cpp:399] data -> data
I0403 15:05:42.989441 31123 net.cpp:399] data -> label
I0403 15:05:42.989478 31123 data_transformer.cpp:25] Loading mean file from: /home/mohanty/data/final_dataset/lmdb/color-20-80/mean.binaryproto
I0403 15:05:42.991714 31127 db_lmdb.cpp:38] Opened lmdb /home/mohanty/data/final_dataset/lmdb/color-20-80/test_db
I0403 15:05:43.002878 31123 data_layer.cpp:41] output data size: 24,3,224,224
I0403 15:05:43.030763 31123 net.cpp:141] Setting up data
I0403 15:05:43.030840 31123 net.cpp:148] Top shape: 24 3 224 224 (3612672)
I0403 15:05:43.030864 31123 net.cpp:148] Top shape: 24 (24)
I0403 15:05:43.030880 31123 net.cpp:156] Memory required for data: 14450784
I0403 15:05:43.030907 31123 layer_factory.hpp:77] Creating layer label_data_1_split
I0403 15:05:43.030935 31123 net.cpp:91] Creating Layer label_data_1_split
I0403 15:05:43.030953 31123 net.cpp:425] label_data_1_split <- label
I0403 15:05:43.030984 31123 net.cpp:399] label_data_1_split -> label_data_1_split_0
I0403 15:05:43.031013 31123 net.cpp:399] label_data_1_split -> label_data_1_split_1
I0403 15:05:43.031033 31123 net.cpp:399] label_data_1_split -> label_data_1_split_2
I0403 15:05:43.031055 31123 net.cpp:399] label_data_1_split -> label_data_1_split_3
I0403 15:05:43.031075 31123 net.cpp:399] label_data_1_split -> label_data_1_split_4
I0403 15:05:43.031095 31123 net.cpp:399] label_data_1_split -> label_data_1_split_5
I0403 15:05:43.031113 31123 net.cpp:399] label_data_1_split -> label_data_1_split_6
I0403 15:05:43.031134 31123 net.cpp:399] label_data_1_split -> label_data_1_split_7
I0403 15:05:43.031153 31123 net.cpp:399] label_data_1_split -> label_data_1_split_8
I0403 15:05:43.031174 31123 net.cpp:399] label_data_1_split -> label_data_1_split_9
I0403 15:05:43.031307 31123 net.cpp:141] Setting up label_data_1_split
I0403 15:05:43.031332 31123 net.cpp:148] Top shape: 24 (24)
I0403 15:05:43.031353 31123 net.cpp:148] Top shape: 24 (24)
I0403 15:05:43.031371 31123 net.cpp:148] Top shape: 24 (24)
I0403 15:05:43.031388 31123 net.cpp:148] Top shape: 24 (24)
I0403 15:05:43.031405 31123 net.cpp:148] Top shape: 24 (24)
I0403 15:05:43.031421 31123 net.cpp:148] Top shape: 24 (24)
I0403 15:05:43.031438 31123 net.cpp:148] Top shape: 24 (24)
I0403 15:05:43.031455 31123 net.cpp:148] Top shape: 24 (24)
I0403 15:05:43.031471 31123 net.cpp:148] Top shape: 24 (24)
I0403 15:05:43.031487 31123 net.cpp:148] Top shape: 24 (24)
I0403 15:05:43.031535 31123 net.cpp:156] Memory required for data: 14451744
I0403 15:05:43.031566 31123 layer_factory.hpp:77] Creating layer conv1/7x7_s2
I0403 15:05:43.031599 31123 net.cpp:91] Creating Layer conv1/7x7_s2
I0403 15:05:43.031617 31123 net.cpp:425] conv1/7x7_s2 <- data
I0403 15:05:43.031637 31123 net.cpp:399] conv1/7x7_s2 -> conv1/7x7_s2
I0403 15:05:43.174221 31123 net.cpp:141] Setting up conv1/7x7_s2
I0403 15:05:43.174298 31123 net.cpp:148] Top shape: 24 64 112 112 (19267584)
I0403 15:05:43.174316 31123 net.cpp:156] Memory required for data: 91522080
I0403 15:05:43.174353 31123 layer_factory.hpp:77] Creating layer conv1/relu_7x7
I0403 15:05:43.174386 31123 net.cpp:91] Creating Layer conv1/relu_7x7
I0403 15:05:43.174404 31123 net.cpp:425] conv1/relu_7x7 <- conv1/7x7_s2
I0403 15:05:43.174425 31123 net.cpp:386] conv1/relu_7x7 -> conv1/7x7_s2 (in-place)
I0403 15:05:43.174696 31123 net.cpp:141] Setting up conv1/relu_7x7
I0403 15:05:43.174726 31123 net.cpp:148] Top shape: 24 64 112 112 (19267584)
I0403 15:05:43.174742 31123 net.cpp:156] Memory required for data: 168592416
I0403 15:05:43.174758 31123 layer_factory.hpp:77] Creating layer pool1/3x3_s2
I0403 15:05:43.174785 31123 net.cpp:91] Creating Layer pool1/3x3_s2
I0403 15:05:43.174804 31123 net.cpp:425] pool1/3x3_s2 <- conv1/7x7_s2
I0403 15:05:43.174824 31123 net.cpp:399] pool1/3x3_s2 -> pool1/3x3_s2
I0403 15:05:43.174901 31123 net.cpp:141] Setting up pool1/3x3_s2
I0403 15:05:43.174927 31123 net.cpp:148] Top shape: 24 64 56 56 (4816896)
I0403 15:05:43.174944 31123 net.cpp:156] Memory required for data: 187860000
I0403 15:05:43.174959 31123 layer_factory.hpp:77] Creating layer pool1/norm1
I0403 15:05:43.174993 31123 net.cpp:91] Creating Layer pool1/norm1
I0403 15:05:43.175012 31123 net.cpp:425] pool1/norm1 <- pool1/3x3_s2
I0403 15:05:43.175031 31123 net.cpp:399] pool1/norm1 -> pool1/norm1
I0403 15:05:43.175330 31123 net.cpp:141] Setting up pool1/norm1
I0403 15:05:43.175364 31123 net.cpp:148] Top shape: 24 64 56 56 (4816896)
I0403 15:05:43.175382 31123 net.cpp:156] Memory required for data: 207127584
I0403 15:05:43.175400 31123 layer_factory.hpp:77] Creating layer conv2/3x3_reduce
I0403 15:05:43.175426 31123 net.cpp:91] Creating Layer conv2/3x3_reduce
I0403 15:05:43.175494 31123 net.cpp:425] conv2/3x3_reduce <- pool1/norm1
I0403 15:05:43.175521 31123 net.cpp:399] conv2/3x3_reduce -> conv2/3x3_reduce
I0403 15:05:43.176946 31123 net.cpp:141] Setting up conv2/3x3_reduce
I0403 15:05:43.176981 31123 net.cpp:148] Top shape: 24 64 56 56 (4816896)
I0403 15:05:43.177000 31123 net.cpp:156] Memory required for data: 226395168
I0403 15:05:43.177023 31123 layer_factory.hpp:77] Creating layer conv2/relu_3x3_reduce
I0403 15:05:43.177047 31123 net.cpp:91] Creating Layer conv2/relu_3x3_reduce
I0403 15:05:43.177098 31123 net.cpp:425] conv2/relu_3x3_reduce <- conv2/3x3_reduce
I0403 15:05:43.177120 31123 net.cpp:386] conv2/relu_3x3_reduce -> conv2/3x3_reduce (in-place)
I0403 15:05:43.177412 31123 net.cpp:141] Setting up conv2/relu_3x3_reduce
I0403 15:05:43.177443 31123 net.cpp:148] Top shape: 24 64 56 56 (4816896)
I0403 15:05:43.177460 31123 net.cpp:156] Memory required for data: 245662752
I0403 15:05:43.177477 31123 layer_factory.hpp:77] Creating layer conv2/3x3
I0403 15:05:43.177502 31123 net.cpp:91] Creating Layer conv2/3x3
I0403 15:05:43.177521 31123 net.cpp:425] conv2/3x3 <- conv2/3x3_reduce
I0403 15:05:43.177542 31123 net.cpp:399] conv2/3x3 -> conv2/3x3
I0403 15:05:43.179971 31123 net.cpp:141] Setting up conv2/3x3
I0403 15:05:43.180006 31123 net.cpp:148] Top shape: 24 192 56 56 (14450688)
I0403 15:05:43.180024 31123 net.cpp:156] Memory required for data: 303465504
I0403 15:05:43.180048 31123 layer_factory.hpp:77] Creating layer conv2/relu_3x3
I0403 15:05:43.180069 31123 net.cpp:91] Creating Layer conv2/relu_3x3
I0403 15:05:43.180086 31123 net.cpp:425] conv2/relu_3x3 <- conv2/3x3
I0403 15:05:43.180104 31123 net.cpp:386] conv2/relu_3x3 -> conv2/3x3 (in-place)
I0403 15:05:43.180294 31123 net.cpp:141] Setting up conv2/relu_3x3
I0403 15:05:43.180322 31123 net.cpp:148] Top shape: 24 192 56 56 (14450688)
I0403 15:05:43.180376 31123 net.cpp:156] Memory required for data: 361268256
I0403 15:05:43.180393 31123 layer_factory.hpp:77] Creating layer conv2/norm2
I0403 15:05:43.180416 31123 net.cpp:91] Creating Layer conv2/norm2
I0403 15:05:43.180435 31123 net.cpp:425] conv2/norm2 <- conv2/3x3
I0403 15:05:43.180455 31123 net.cpp:399] conv2/norm2 -> conv2/norm2
I0403 15:05:43.180778 31123 net.cpp:141] Setting up conv2/norm2
I0403 15:05:43.180835 31123 net.cpp:148] Top shape: 24 192 56 56 (14450688)
I0403 15:05:43.180855 31123 net.cpp:156] Memory required for data: 419071008
I0403 15:05:43.180872 31123 layer_factory.hpp:77] Creating layer pool2/3x3_s2
I0403 15:05:43.180894 31123 net.cpp:91] Creating Layer pool2/3x3_s2
I0403 15:05:43.180913 31123 net.cpp:425] pool2/3x3_s2 <- conv2/norm2
I0403 15:05:43.180933 31123 net.cpp:399] pool2/3x3_s2 -> pool2/3x3_s2
I0403 15:05:43.180990 31123 net.cpp:141] Setting up pool2/3x3_s2
I0403 15:05:43.181015 31123 net.cpp:148] Top shape: 24 192 28 28 (3612672)
I0403 15:05:43.181031 31123 net.cpp:156] Memory required for data: 433521696
I0403 15:05:43.181047 31123 layer_factory.hpp:77] Creating layer pool2/3x3_s2_pool2/3x3_s2_0_split
I0403 15:05:43.181066 31123 net.cpp:91] Creating Layer pool2/3x3_s2_pool2/3x3_s2_0_split
I0403 15:05:43.181083 31123 net.cpp:425] pool2/3x3_s2_pool2/3x3_s2_0_split <- pool2/3x3_s2
I0403 15:05:43.181107 31123 net.cpp:399] pool2/3x3_s2_pool2/3x3_s2_0_split -> pool2/3x3_s2_pool2/3x3_s2_0_split_0
I0403 15:05:43.181128 31123 net.cpp:399] pool2/3x3_s2_pool2/3x3_s2_0_split -> pool2/3x3_s2_pool2/3x3_s2_0_split_1
I0403 15:05:43.181149 31123 net.cpp:399] pool2/3x3_s2_pool2/3x3_s2_0_split -> pool2/3x3_s2_pool2/3x3_s2_0_split_2
I0403 15:05:43.181171 31123 net.cpp:399] pool2/3x3_s2_pool2/3x3_s2_0_split -> pool2/3x3_s2_pool2/3x3_s2_0_split_3
I0403 15:05:43.181246 31123 net.cpp:141] Setting up pool2/3x3_s2_pool2/3x3_s2_0_split
I0403 15:05:43.181273 31123 net.cpp:148] Top shape: 24 192 28 28 (3612672)
I0403 15:05:43.181293 31123 net.cpp:148] Top shape: 24 192 28 28 (3612672)
I0403 15:05:43.181309 31123 net.cpp:148] Top shape: 24 192 28 28 (3612672)
I0403 15:05:43.181325 31123 net.cpp:148] Top shape: 24 192 28 28 (3612672)
I0403 15:05:43.181341 31123 net.cpp:156] Memory required for data: 491324448
I0403 15:05:43.181361 31123 layer_factory.hpp:77] Creating layer inception_3a/1x1
I0403 15:05:43.181387 31123 net.cpp:91] Creating Layer inception_3a/1x1
I0403 15:05:43.181406 31123 net.cpp:425] inception_3a/1x1 <- pool2/3x3_s2_pool2/3x3_s2_0_split_0
I0403 15:05:43.181428 31123 net.cpp:399] inception_3a/1x1 -> inception_3a/1x1
I0403 15:05:43.183094 31123 net.cpp:141] Setting up inception_3a/1x1
I0403 15:05:43.183126 31123 net.cpp:148] Top shape: 24 64 28 28 (1204224)
I0403 15:05:43.183143 31123 net.cpp:156] Memory required for data: 496141344
I0403 15:05:43.183164 31123 layer_factory.hpp:77] Creating layer inception_3a/relu_1x1
I0403 15:05:43.183187 31123 net.cpp:91] Creating Layer inception_3a/relu_1x1
I0403 15:05:43.183204 31123 net.cpp:425] inception_3a/relu_1x1 <- inception_3a/1x1
I0403 15:05:43.183223 31123 net.cpp:386] inception_3a/relu_1x1 -> inception_3a/1x1 (in-place)
I0403 15:05:43.183419 31123 net.cpp:141] Setting up inception_3a/relu_1x1
I0403 15:05:43.183447 31123 net.cpp:148] Top shape: 24 64 28 28 (1204224)
I0403 15:05:43.183464 31123 net.cpp:156] Memory required for data: 500958240
I0403 15:05:43.183480 31123 layer_factory.hpp:77] Creating layer inception_3a/3x3_reduce
I0403 15:05:43.183504 31123 net.cpp:91] Creating Layer inception_3a/3x3_reduce
I0403 15:05:43.183523 31123 net.cpp:425] inception_3a/3x3_reduce <- pool2/3x3_s2_pool2/3x3_s2_0_split_1
I0403 15:05:43.183547 31123 net.cpp:399] inception_3a/3x3_reduce -> inception_3a/3x3_reduce
I0403 15:05:43.185330 31123 net.cpp:141] Setting up inception_3a/3x3_reduce
I0403 15:05:43.185369 31123 net.cpp:148] Top shape: 24 96 28 28 (1806336)
I0403 15:05:43.185389 31123 net.cpp:156] Memory required for data: 508183584
I0403 15:05:43.185412 31123 layer_factory.hpp:77] Creating layer inception_3a/relu_3x3_reduce
I0403 15:05:43.185451 31123 net.cpp:91] Creating Layer inception_3a/relu_3x3_reduce
I0403 15:05:43.185470 31123 net.cpp:425] inception_3a/relu_3x3_reduce <- inception_3a/3x3_reduce
I0403 15:05:43.185492 31123 net.cpp:386] inception_3a/relu_3x3_reduce -> inception_3a/3x3_reduce (in-place)
I0403 15:05:43.185688 31123 net.cpp:141] Setting up inception_3a/relu_3x3_reduce
I0403 15:05:43.185714 31123 net.cpp:148] Top shape: 24 96 28 28 (1806336)
I0403 15:05:43.185730 31123 net.cpp:156] Memory required for data: 515408928
I0403 15:05:43.185746 31123 layer_factory.hpp:77] Creating layer inception_3a/3x3
I0403 15:05:43.185770 31123 net.cpp:91] Creating Layer inception_3a/3x3
I0403 15:05:43.185788 31123 net.cpp:425] inception_3a/3x3 <- inception_3a/3x3_reduce
I0403 15:05:43.185812 31123 net.cpp:399] inception_3a/3x3 -> inception_3a/3x3
I0403 15:05:43.187578 31123 net.cpp:141] Setting up inception_3a/3x3
I0403 15:05:43.187613 31123 net.cpp:148] Top shape: 24 128 28 28 (2408448)
I0403 15:05:43.187630 31123 net.cpp:156] Memory required for data: 525042720
I0403 15:05:43.187650 31123 layer_factory.hpp:77] Creating layer inception_3a/relu_3x3
I0403 15:05:43.187670 31123 net.cpp:91] Creating Layer inception_3a/relu_3x3
I0403 15:05:43.187687 31123 net.cpp:425] inception_3a/relu_3x3 <- inception_3a/3x3
I0403 15:05:43.187708 31123 net.cpp:386] inception_3a/relu_3x3 -> inception_3a/3x3 (in-place)
I0403 15:05:43.187990 31123 net.cpp:141] Setting up inception_3a/relu_3x3
I0403 15:05:43.188022 31123 net.cpp:148] Top shape: 24 128 28 28 (2408448)
I0403 15:05:43.188040 31123 net.cpp:156] Memory required for data: 534676512
I0403 15:05:43.188057 31123 layer_factory.hpp:77] Creating layer inception_3a/5x5_reduce
I0403 15:05:43.188081 31123 net.cpp:91] Creating Layer inception_3a/5x5_reduce
I0403 15:05:43.188100 31123 net.cpp:425] inception_3a/5x5_reduce <- pool2/3x3_s2_pool2/3x3_s2_0_split_2
I0403 15:05:43.188122 31123 net.cpp:399] inception_3a/5x5_reduce -> inception_3a/5x5_reduce
I0403 15:05:43.189124 31123 net.cpp:141] Setting up inception_3a/5x5_reduce
I0403 15:05:43.189155 31123 net.cpp:148] Top shape: 24 16 28 28 (301056)
I0403 15:05:43.189172 31123 net.cpp:156] Memory required for data: 535880736
I0403 15:05:43.189193 31123 layer_factory.hpp:77] Creating layer inception_3a/relu_5x5_reduce
I0403 15:05:43.189211 31123 net.cpp:91] Creating Layer inception_3a/relu_5x5_reduce
I0403 15:05:43.189229 31123 net.cpp:425] inception_3a/relu_5x5_reduce <- inception_3a/5x5_reduce
I0403 15:05:43.189251 31123 net.cpp:386] inception_3a/relu_5x5_reduce -> inception_3a/5x5_reduce (in-place)
I0403 15:05:43.189574 31123 net.cpp:141] Setting up inception_3a/relu_5x5_reduce
I0403 15:05:43.189602 31123 net.cpp:148] Top shape: 24 16 28 28 (301056)
I0403 15:05:43.189618 31123 net.cpp:156] Memory required for data: 537084960
I0403 15:05:43.189635 31123 layer_factory.hpp:77] Creating layer inception_3a/5x5
I0403 15:05:43.189659 31123 net.cpp:91] Creating Layer inception_3a/5x5
I0403 15:05:43.189678 31123 net.cpp:425] inception_3a/5x5 <- inception_3a/5x5_reduce
I0403 15:05:43.189700 31123 net.cpp:399] inception_3a/5x5 -> inception_3a/5x5
I0403 15:05:43.190767 31123 net.cpp:141] Setting up inception_3a/5x5
I0403 15:05:43.190798 31123 net.cpp:148] Top shape: 24 32 28 28 (602112)
I0403 15:05:43.190815 31123 net.cpp:156] Memory required for data: 539493408
I0403 15:05:43.190835 31123 layer_factory.hpp:77] Creating layer inception_3a/relu_5x5
I0403 15:05:43.190855 31123 net.cpp:91] Creating Layer inception_3a/relu_5x5
I0403 15:05:43.190871 31123 net.cpp:425] inception_3a/relu_5x5 <- inception_3a/5x5
I0403 15:05:43.190892 31123 net.cpp:386] inception_3a/relu_5x5 -> inception_3a/5x5 (in-place)
I0403 15:05:43.191076 31123 net.cpp:141] Setting up inception_3a/relu_5x5
I0403 15:05:43.191103 31123 net.cpp:148] Top shape: 24 32 28 28 (602112)
I0403 15:05:43.191119 31123 net.cpp:156] Memory required for data: 541901856
I0403 15:05:43.191135 31123 layer_factory.hpp:77] Creating layer inception_3a/pool
I0403 15:05:43.191154 31123 net.cpp:91] Creating Layer inception_3a/pool
I0403 15:05:43.191171 31123 net.cpp:425] inception_3a/pool <- pool2/3x3_s2_pool2/3x3_s2_0_split_3
I0403 15:05:43.191210 31123 net.cpp:399] inception_3a/pool -> inception_3a/pool
I0403 15:05:43.191272 31123 net.cpp:141] Setting up inception_3a/pool
I0403 15:05:43.191298 31123 net.cpp:148] Top shape: 24 192 28 28 (3612672)
I0403 15:05:43.191313 31123 net.cpp:156] Memory required for data: 556352544
I0403 15:05:43.191330 31123 layer_factory.hpp:77] Creating layer inception_3a/pool_proj
I0403 15:05:43.191360 31123 net.cpp:91] Creating Layer inception_3a/pool_proj
I0403 15:05:43.191381 31123 net.cpp:425] inception_3a/pool_proj <- inception_3a/pool
I0403 15:05:43.191401 31123 net.cpp:399] inception_3a/pool_proj -> inception_3a/pool_proj
I0403 15:05:43.192422 31123 net.cpp:141] Setting up inception_3a/pool_proj
I0403 15:05:43.192452 31123 net.cpp:148] Top shape: 24 32 28 28 (602112)
I0403 15:05:43.192471 31123 net.cpp:156] Memory required for data: 558760992
I0403 15:05:43.192497 31123 layer_factory.hpp:77] Creating layer inception_3a/relu_pool_proj
I0403 15:05:43.192518 31123 net.cpp:91] Creating Layer inception_3a/relu_pool_proj
I0403 15:05:43.192536 31123 net.cpp:425] inception_3a/relu_pool_proj <- inception_3a/pool_proj
I0403 15:05:43.192558 31123 net.cpp:386] inception_3a/relu_pool_proj -> inception_3a/pool_proj (in-place)
I0403 15:05:43.192847 31123 net.cpp:141] Setting up inception_3a/relu_pool_proj
I0403 15:05:43.192878 31123 net.cpp:148] Top shape: 24 32 28 28 (602112)
I0403 15:05:43.192896 31123 net.cpp:156] Memory required for data: 561169440
I0403 15:05:43.192912 31123 layer_factory.hpp:77] Creating layer inception_3a/output
I0403 15:05:43.192932 31123 net.cpp:91] Creating Layer inception_3a/output
I0403 15:05:43.192951 31123 net.cpp:425] inception_3a/output <- inception_3a/1x1
I0403 15:05:43.192970 31123 net.cpp:425] inception_3a/output <- inception_3a/3x3
I0403 15:05:43.192986 31123 net.cpp:425] inception_3a/output <- inception_3a/5x5
I0403 15:05:43.193003 31123 net.cpp:425] inception_3a/output <- inception_3a/pool_proj
I0403 15:05:43.193024 31123 net.cpp:399] inception_3a/output -> inception_3a/output
I0403 15:05:43.193073 31123 net.cpp:141] Setting up inception_3a/output
I0403 15:05:43.193097 31123 net.cpp:148] Top shape: 24 256 28 28 (4816896)
I0403 15:05:43.193112 31123 net.cpp:156] Memory required for data: 580437024
I0403 15:05:43.193128 31123 layer_factory.hpp:77] Creating layer inception_3a/output_inception_3a/output_0_split
I0403 15:05:43.193150 31123 net.cpp:91] Creating Layer inception_3a/output_inception_3a/output_0_split
I0403 15:05:43.193168 31123 net.cpp:425] inception_3a/output_inception_3a/output_0_split <- inception_3a/output
I0403 15:05:43.193186 31123 net.cpp:399] inception_3a/output_inception_3a/output_0_split -> inception_3a/output_inception_3a/output_0_split_0
I0403 15:05:43.193207 31123 net.cpp:399] inception_3a/output_inception_3a/output_0_split -> inception_3a/output_inception_3a/output_0_split_1
I0403 15:05:43.193233 31123 net.cpp:399] inception_3a/output_inception_3a/output_0_split -> inception_3a/output_inception_3a/output_0_split_2
I0403 15:05:43.193258 31123 net.cpp:399] inception_3a/output_inception_3a/output_0_split -> inception_3a/output_inception_3a/output_0_split_3
I0403 15:05:43.193333 31123 net.cpp:141] Setting up inception_3a/output_inception_3a/output_0_split
I0403 15:05:43.193367 31123 net.cpp:148] Top shape: 24 256 28 28 (4816896)
I0403 15:05:43.193387 31123 net.cpp:148] Top shape: 24 256 28 28 (4816896)
I0403 15:05:43.193403 31123 net.cpp:148] Top shape: 24 256 28 28 (4816896)
I0403 15:05:43.193419 31123 net.cpp:148] Top shape: 24 256 28 28 (4816896)
I0403 15:05:43.193435 31123 net.cpp:156] Memory required for data: 657507360
I0403 15:05:43.193450 31123 layer_factory.hpp:77] Creating layer inception_3b/1x1
I0403 15:05:43.193475 31123 net.cpp:91] Creating Layer inception_3b/1x1
I0403 15:05:43.193492 31123 net.cpp:425] inception_3b/1x1 <- inception_3a/output_inception_3a/output_0_split_0
I0403 15:05:43.193512 31123 net.cpp:399] inception_3b/1x1 -> inception_3b/1x1
I0403 15:05:43.194707 31123 net.cpp:141] Setting up inception_3b/1x1
I0403 15:05:43.194757 31123 net.cpp:148] Top shape: 24 128 28 28 (2408448)
I0403 15:05:43.194782 31123 net.cpp:156] Memory required for data: 667141152
I0403 15:05:43.194808 31123 layer_factory.hpp:77] Creating layer inception_3b/relu_1x1
I0403 15:05:43.194830 31123 net.cpp:91] Creating Layer inception_3b/relu_1x1
I0403 15:05:43.194850 31123 net.cpp:425] inception_3b/relu_1x1 <- inception_3b/1x1
I0403 15:05:43.194874 31123 net.cpp:386] inception_3b/relu_1x1 -> inception_3b/1x1 (in-place)
I0403 15:05:43.195058 31123 net.cpp:141] Setting up inception_3b/relu_1x1
I0403 15:05:43.195088 31123 net.cpp:148] Top shape: 24 128 28 28 (2408448)
I0403 15:05:43.195106 31123 net.cpp:156] Memory required for data: 676774944
I0403 15:05:43.195122 31123 layer_factory.hpp:77] Creating layer inception_3b/3x3_reduce
I0403 15:05:43.195145 31123 net.cpp:91] Creating Layer inception_3b/3x3_reduce
I0403 15:05:43.195164 31123 net.cpp:425] inception_3b/3x3_reduce <- inception_3a/output_inception_3a/output_0_split_1
I0403 15:05:43.195184 31123 net.cpp:399] inception_3b/3x3_reduce -> inception_3b/3x3_reduce
I0403 15:05:43.196578 31123 net.cpp:141] Setting up inception_3b/3x3_reduce
I0403 15:05:43.196609 31123 net.cpp:148] Top shape: 24 128 28 28 (2408448)
I0403 15:05:43.196625 31123 net.cpp:156] Memory required for data: 686408736
I0403 15:05:43.196646 31123 layer_factory.hpp:77] Creating layer inception_3b/relu_3x3_reduce
I0403 15:05:43.196668 31123 net.cpp:91] Creating Layer inception_3b/relu_3x3_reduce
I0403 15:05:43.196686 31123 net.cpp:425] inception_3b/relu_3x3_reduce <- inception_3b/3x3_reduce
I0403 15:05:43.196705 31123 net.cpp:386] inception_3b/relu_3x3_reduce -> inception_3b/3x3_reduce (in-place)
I0403 15:05:43.196889 31123 net.cpp:141] Setting up inception_3b/relu_3x3_reduce
I0403 15:05:43.196918 31123 net.cpp:148] Top shape: 24 128 28 28 (2408448)
I0403 15:05:43.196933 31123 net.cpp:156] Memory required for data: 696042528
I0403 15:05:43.196949 31123 layer_factory.hpp:77] Creating layer inception_3b/3x3
I0403 15:05:43.196975 31123 net.cpp:91] Creating Layer inception_3b/3x3
I0403 15:05:43.196995 31123 net.cpp:425] inception_3b/3x3 <- inception_3b/3x3_reduce
I0403 15:05:43.197017 31123 net.cpp:399] inception_3b/3x3 -> inception_3b/3x3
I0403 15:05:43.200094 31123 net.cpp:141] Setting up inception_3b/3x3
I0403 15:05:43.200129 31123 net.cpp:148] Top shape: 24 192 28 28 (3612672)
I0403 15:05:43.200146 31123 net.cpp:156] Memory required for data: 710493216
I0403 15:05:43.200166 31123 layer_factory.hpp:77] Creating layer inception_3b/relu_3x3
I0403 15:05:43.200186 31123 net.cpp:91] Creating Layer inception_3b/relu_3x3
I0403 15:05:43.200204 31123 net.cpp:425] inception_3b/relu_3x3 <- inception_3b/3x3
I0403 15:05:43.200227 31123 net.cpp:386] inception_3b/relu_3x3 -> inception_3b/3x3 (in-place)
I0403 15:05:43.200517 31123 net.cpp:141] Setting up inception_3b/relu_3x3
I0403 15:05:43.200547 31123 net.cpp:148] Top shape: 24 192 28 28 (3612672)
I0403 15:05:43.200567 31123 net.cpp:156] Memory required for data: 724943904
I0403 15:05:43.200582 31123 layer_factory.hpp:77] Creating layer inception_3b/5x5_reduce
I0403 15:05:43.200610 31123 net.cpp:91] Creating Layer inception_3b/5x5_reduce
I0403 15:05:43.200630 31123 net.cpp:425] inception_3b/5x5_reduce <- inception_3a/output_inception_3a/output_0_split_2
I0403 15:05:43.200652 31123 net.cpp:399] inception_3b/5x5_reduce -> inception_3b/5x5_reduce
I0403 15:05:43.201689 31123 net.cpp:141] Setting up inception_3b/5x5_reduce
I0403 15:05:43.201721 31123 net.cpp:148] Top shape: 24 32 28 28 (602112)
I0403 15:05:43.201740 31123 net.cpp:156] Memory required for data: 727352352
I0403 15:05:43.201758 31123 layer_factory.hpp:77] Creating layer inception_3b/relu_5x5_reduce
I0403 15:05:43.201778 31123 net.cpp:91] Creating Layer inception_3b/relu_5x5_reduce
I0403 15:05:43.201797 31123 net.cpp:425] inception_3b/relu_5x5_reduce <- inception_3b/5x5_reduce
I0403 15:05:43.201818 31123 net.cpp:386] inception_3b/relu_5x5_reduce -> inception_3b/5x5_reduce (in-place)
I0403 15:05:43.202005 31123 net.cpp:141] Setting up inception_3b/relu_5x5_reduce
I0403 15:05:43.202045 31123 net.cpp:148] Top shape: 24 32 28 28 (602112)
I0403 15:05:43.202062 31123 net.cpp:156] Memory required for data: 729760800
I0403 15:05:43.202078 31123 layer_factory.hpp:77] Creating layer inception_3b/5x5
I0403 15:05:43.202102 31123 net.cpp:91] Creating Layer inception_3b/5x5
I0403 15:05:43.202122 31123 net.cpp:425] inception_3b/5x5 <- inception_3b/5x5_reduce
I0403 15:05:43.202145 31123 net.cpp:399] inception_3b/5x5 -> inception_3b/5x5
I0403 15:05:43.204206 31123 net.cpp:141] Setting up inception_3b/5x5
I0403 15:05:43.204236 31123 net.cpp:148] Top shape: 24 96 28 28 (1806336)
I0403 15:05:43.204253 31123 net.cpp:156] Memory required for data: 736986144
I0403 15:05:43.204272 31123 layer_factory.hpp:77] Creating layer inception_3b/relu_5x5
I0403 15:05:43.204293 31123 net.cpp:91] Creating Layer inception_3b/relu_5x5
I0403 15:05:43.204313 31123 net.cpp:425] inception_3b/relu_5x5 <- inception_3b/5x5
I0403 15:05:43.204330 31123 net.cpp:386] inception_3b/relu_5x5 -> inception_3b/5x5 (in-place)
I0403 15:05:43.204533 31123 net.cpp:141] Setting up inception_3b/relu_5x5
I0403 15:05:43.204560 31123 net.cpp:148] Top shape: 24 96 28 28 (1806336)
I0403 15:05:43.204577 31123 net.cpp:156] Memory required for data: 744211488
I0403 15:05:43.204592 31123 layer_factory.hpp:77] Creating layer inception_3b/pool
I0403 15:05:43.204612 31123 net.cpp:91] Creating Layer inception_3b/pool
I0403 15:05:43.204628 31123 net.cpp:425] inception_3b/pool <- inception_3a/output_inception_3a/output_0_split_3
I0403 15:05:43.204648 31123 net.cpp:399] inception_3b/pool -> inception_3b/pool
I0403 15:05:43.204704 31123 net.cpp:141] Setting up inception_3b/pool
I0403 15:05:43.204730 31123 net.cpp:148] Top shape: 24 256 28 28 (4816896)
I0403 15:05:43.204746 31123 net.cpp:156] Memory required for data: 763479072
I0403 15:05:43.204761 31123 layer_factory.hpp:77] Creating layer inception_3b/pool_proj
I0403 15:05:43.204787 31123 net.cpp:91] Creating Layer inception_3b/pool_proj
I0403 15:05:43.204805 31123 net.cpp:425] inception_3b/pool_proj <- inception_3b/pool
I0403 15:05:43.204825 31123 net.cpp:399] inception_3b/pool_proj -> inception_3b/pool_proj
I0403 15:05:43.205932 31123 net.cpp:141] Setting up inception_3b/pool_proj
I0403 15:05:43.205961 31123 net.cpp:148] Top shape: 24 64 28 28 (1204224)
I0403 15:05:43.205977 31123 net.cpp:156] Memory required for data: 768295968
I0403 15:05:43.205996 31123 layer_factory.hpp:77] Creating layer inception_3b/relu_pool_proj
I0403 15:05:43.206018 31123 net.cpp:91] Creating Layer inception_3b/relu_pool_proj
I0403 15:05:43.206037 31123 net.cpp:425] inception_3b/relu_pool_proj <- inception_3b/pool_proj
I0403 15:05:43.206055 31123 net.cpp:386] inception_3b/relu_pool_proj -> inception_3b/pool_proj (in-place)
I0403 15:05:43.206459 31123 net.cpp:141] Setting up inception_3b/relu_pool_proj
I0403 15:05:43.206486 31123 net.cpp:148] Top shape: 24 64 28 28 (1204224)
I0403 15:05:43.206502 31123 net.cpp:156] Memory required for data: 773112864
I0403 15:05:43.206518 31123 layer_factory.hpp:77] Creating layer inception_3b/output
I0403 15:05:43.206535 31123 net.cpp:91] Creating Layer inception_3b/output
I0403 15:05:43.206552 31123 net.cpp:425] inception_3b/output <- inception_3b/1x1
I0403 15:05:43.206571 31123 net.cpp:425] inception_3b/output <- inception_3b/3x3
I0403 15:05:43.206588 31123 net.cpp:425] inception_3b/output <- inception_3b/5x5
I0403 15:05:43.206604 31123 net.cpp:425] inception_3b/output <- inception_3b/pool_proj
I0403 15:05:43.206625 31123 net.cpp:399] inception_3b/output -> inception_3b/output
I0403 15:05:43.206671 31123 net.cpp:141] Setting up inception_3b/output
I0403 15:05:43.206698 31123 net.cpp:148] Top shape: 24 480 28 28 (9031680)
I0403 15:05:43.206714 31123 net.cpp:156] Memory required for data: 809239584
I0403 15:05:43.206729 31123 layer_factory.hpp:77] Creating layer pool3/3x3_s2
I0403 15:05:43.206748 31123 net.cpp:91] Creating Layer pool3/3x3_s2
I0403 15:05:43.206764 31123 net.cpp:425] pool3/3x3_s2 <- inception_3b/output
I0403 15:05:43.206785 31123 net.cpp:399] pool3/3x3_s2 -> pool3/3x3_s2
I0403 15:05:43.206859 31123 net.cpp:141] Setting up pool3/3x3_s2
I0403 15:05:43.206884 31123 net.cpp:148] Top shape: 24 480 14 14 (2257920)
I0403 15:05:43.206899 31123 net.cpp:156] Memory required for data: 818271264
I0403 15:05:43.206914 31123 layer_factory.hpp:77] Creating layer pool3/3x3_s2_pool3/3x3_s2_0_split
I0403 15:05:43.206938 31123 net.cpp:91] Creating Layer pool3/3x3_s2_pool3/3x3_s2_0_split
I0403 15:05:43.206955 31123 net.cpp:425] pool3/3x3_s2_pool3/3x3_s2_0_split <- pool3/3x3_s2
I0403 15:05:43.206974 31123 net.cpp:399] pool3/3x3_s2_pool3/3x3_s2_0_split -> pool3/3x3_s2_pool3/3x3_s2_0_split_0
I0403 15:05:43.206992 31123 net.cpp:399] pool3/3x3_s2_pool3/3x3_s2_0_split -> pool3/3x3_s2_pool3/3x3_s2_0_split_1
I0403 15:05:43.207012 31123 net.cpp:399] pool3/3x3_s2_pool3/3x3_s2_0_split -> pool3/3x3_s2_pool3/3x3_s2_0_split_2
I0403 15:05:43.207032 31123 net.cpp:399] pool3/3x3_s2_pool3/3x3_s2_0_split -> pool3/3x3_s2_pool3/3x3_s2_0_split_3
I0403 15:05:43.207110 31123 net.cpp:141] Setting up pool3/3x3_s2_pool3/3x3_s2_0_split
I0403 15:05:43.207135 31123 net.cpp:148] Top shape: 24 480 14 14 (2257920)
I0403 15:05:43.207154 31123 net.cpp:148] Top shape: 24 480 14 14 (2257920)
I0403 15:05:43.207170 31123 net.cpp:148] Top shape: 24 480 14 14 (2257920)
I0403 15:05:43.207186 31123 net.cpp:148] Top shape: 24 480 14 14 (2257920)
I0403 15:05:43.207201 31123 net.cpp:156] Memory required for data: 854397984
I0403 15:05:43.207217 31123 layer_factory.hpp:77] Creating layer inception_4a/1x1
I0403 15:05:43.207240 31123 net.cpp:91] Creating Layer inception_4a/1x1
I0403 15:05:43.207273 31123 net.cpp:425] inception_4a/1x1 <- pool3/3x3_s2_pool3/3x3_s2_0_split_0
I0403 15:05:43.207298 31123 net.cpp:399] inception_4a/1x1 -> inception_4a/1x1
I0403 15:05:43.208922 31123 net.cpp:141] Setting up inception_4a/1x1
I0403 15:05:43.208952 31123 net.cpp:148] Top shape: 24 192 14 14 (903168)
I0403 15:05:43.208968 31123 net.cpp:156] Memory required for data: 858010656
I0403 15:05:43.208987 31123 layer_factory.hpp:77] Creating layer inception_4a/relu_1x1
I0403 15:05:43.209008 31123 net.cpp:91] Creating Layer inception_4a/relu_1x1
I0403 15:05:43.209028 31123 net.cpp:425] inception_4a/relu_1x1 <- inception_4a/1x1
I0403 15:05:43.209045 31123 net.cpp:386] inception_4a/relu_1x1 -> inception_4a/1x1 (in-place)
I0403 15:05:43.209225 31123 net.cpp:141] Setting up inception_4a/relu_1x1
I0403 15:05:43.209254 31123 net.cpp:148] Top shape: 24 192 14 14 (903168)
I0403 15:05:43.209271 31123 net.cpp:156] Memory required for data: 861623328
I0403 15:05:43.209286 31123 layer_factory.hpp:77] Creating layer inception_4a/3x3_reduce
I0403 15:05:43.209309 31123 net.cpp:91] Creating Layer inception_4a/3x3_reduce
I0403 15:05:43.209328 31123 net.cpp:425] inception_4a/3x3_reduce <- pool3/3x3_s2_pool3/3x3_s2_0_split_1
I0403 15:05:43.209352 31123 net.cpp:399] inception_4a/3x3_reduce -> inception_4a/3x3_reduce
I0403 15:05:43.210687 31123 net.cpp:141] Setting up inception_4a/3x3_reduce
I0403 15:05:43.210717 31123 net.cpp:148] Top shape: 24 96 14 14 (451584)
I0403 15:05:43.210733 31123 net.cpp:156] Memory required for data: 863429664
I0403 15:05:43.210759 31123 layer_factory.hpp:77] Creating layer inception_4a/relu_3x3_reduce
I0403 15:05:43.210780 31123 net.cpp:91] Creating Layer inception_4a/relu_3x3_reduce
I0403 15:05:43.210798 31123 net.cpp:425] inception_4a/relu_3x3_reduce <- inception_4a/3x3_reduce
I0403 15:05:43.210819 31123 net.cpp:386] inception_4a/relu_3x3_reduce -> inception_4a/3x3_reduce (in-place)
I0403 15:05:43.210999 31123 net.cpp:141] Setting up inception_4a/relu_3x3_reduce
I0403 15:05:43.211024 31123 net.cpp:148] Top shape: 24 96 14 14 (451584)
I0403 15:05:43.211040 31123 net.cpp:156] Memory required for data: 865236000
I0403 15:05:43.211055 31123 layer_factory.hpp:77] Creating layer inception_4a/3x3
I0403 15:05:43.211079 31123 net.cpp:91] Creating Layer inception_4a/3x3
I0403 15:05:43.211097 31123 net.cpp:425] inception_4a/3x3 <- inception_4a/3x3_reduce
I0403 15:05:43.211118 31123 net.cpp:399] inception_4a/3x3 -> inception_4a/3x3
I0403 15:05:43.213862 31123 net.cpp:141] Setting up inception_4a/3x3
I0403 15:05:43.213892 31123 net.cpp:148] Top shape: 24 208 14 14 (978432)
I0403 15:05:43.213908 31123 net.cpp:156] Memory required for data: 869149728
I0403 15:05:43.213928 31123 layer_factory.hpp:77] Creating layer inception_4a/relu_3x3
I0403 15:05:43.213950 31123 net.cpp:91] Creating Layer inception_4a/relu_3x3
I0403 15:05:43.213968 31123 net.cpp:425] inception_4a/relu_3x3 <- inception_4a/3x3
I0403 15:05:43.213985 31123 net.cpp:386] inception_4a/relu_3x3 -> inception_4a/3x3 (in-place)
I0403 15:05:43.214270 31123 net.cpp:141] Setting up inception_4a/relu_3x3
I0403 15:05:43.214298 31123 net.cpp:148] Top shape: 24 208 14 14 (978432)
I0403 15:05:43.214315 31123 net.cpp:156] Memory required for data: 873063456
I0403 15:05:43.214331 31123 layer_factory.hpp:77] Creating layer inception_4a/5x5_reduce
I0403 15:05:43.214367 31123 net.cpp:91] Creating Layer inception_4a/5x5_reduce
I0403 15:05:43.214388 31123 net.cpp:425] inception_4a/5x5_reduce <- pool3/3x3_s2_pool3/3x3_s2_0_split_2
I0403 15:05:43.214409 31123 net.cpp:399] inception_4a/5x5_reduce -> inception_4a/5x5_reduce
I0403 15:05:43.215456 31123 net.cpp:141] Setting up inception_4a/5x5_reduce
I0403 15:05:43.215487 31123 net.cpp:148] Top shape: 24 16 14 14 (75264)
I0403 15:05:43.215504 31123 net.cpp:156] Memory required for data: 873364512
I0403 15:05:43.215524 31123 layer_factory.hpp:77] Creating layer inception_4a/relu_5x5_reduce
I0403 15:05:43.215544 31123 net.cpp:91] Creating Layer inception_4a/relu_5x5_reduce
I0403 15:05:43.215574 31123 net.cpp:425] inception_4a/relu_5x5_reduce <- inception_4a/5x5_reduce
I0403 15:05:43.215595 31123 net.cpp:386] inception_4a/relu_5x5_reduce -> inception_4a/5x5_reduce (in-place)
I0403 15:05:43.215780 31123 net.cpp:141] Setting up inception_4a/relu_5x5_reduce
I0403 15:05:43.215807 31123 net.cpp:148] Top shape: 24 16 14 14 (75264)
I0403 15:05:43.215822 31123 net.cpp:156] Memory required for data: 873665568
I0403 15:05:43.215837 31123 layer_factory.hpp:77] Creating layer inception_4a/5x5
I0403 15:05:43.215862 31123 net.cpp:91] Creating Layer inception_4a/5x5
I0403 15:05:43.215879 31123 net.cpp:425] inception_4a/5x5 <- inception_4a/5x5_reduce
I0403 15:05:43.215903 31123 net.cpp:399] inception_4a/5x5 -> inception_4a/5x5
I0403 15:05:43.217002 31123 net.cpp:141] Setting up inception_4a/5x5
I0403 15:05:43.217032 31123 net.cpp:148] Top shape: 24 48 14 14 (225792)
I0403 15:05:43.217048 31123 net.cpp:156] Memory required for data: 874568736
I0403 15:05:43.217067 31123 layer_factory.hpp:77] Creating layer inception_4a/relu_5x5
I0403 15:05:43.217088 31123 net.cpp:91] Creating Layer inception_4a/relu_5x5
I0403 15:05:43.217105 31123 net.cpp:425] inception_4a/relu_5x5 <- inception_4a/5x5
I0403 15:05:43.217124 31123 net.cpp:386] inception_4a/relu_5x5 -> inception_4a/5x5 (in-place)
I0403 15:05:43.217300 31123 net.cpp:141] Setting up inception_4a/relu_5x5
I0403 15:05:43.217327 31123 net.cpp:148] Top shape: 24 48 14 14 (225792)
I0403 15:05:43.217342 31123 net.cpp:156] Memory required for data: 875471904
I0403 15:05:43.217362 31123 layer_factory.hpp:77] Creating layer inception_4a/pool
I0403 15:05:43.217384 31123 net.cpp:91] Creating Layer inception_4a/pool
I0403 15:05:43.217402 31123 net.cpp:425] inception_4a/pool <- pool3/3x3_s2_pool3/3x3_s2_0_split_3
I0403 15:05:43.217422 31123 net.cpp:399] inception_4a/pool -> inception_4a/pool
I0403 15:05:43.217486 31123 net.cpp:141] Setting up inception_4a/pool
I0403 15:05:43.217512 31123 net.cpp:148] Top shape: 24 480 14 14 (2257920)
I0403 15:05:43.217526 31123 net.cpp:156] Memory required for data: 884503584
I0403 15:05:43.217542 31123 layer_factory.hpp:77] Creating layer inception_4a/pool_proj
I0403 15:05:43.217566 31123 net.cpp:91] Creating Layer inception_4a/pool_proj
I0403 15:05:43.217586 31123 net.cpp:425] inception_4a/pool_proj <- inception_4a/pool
I0403 15:05:43.217607 31123 net.cpp:399] inception_4a/pool_proj -> inception_4a/pool_proj
I0403 15:05:43.218775 31123 net.cpp:141] Setting up inception_4a/pool_proj
I0403 15:05:43.218803 31123 net.cpp:148] Top shape: 24 64 14 14 (301056)
I0403 15:05:43.218837 31123 net.cpp:156] Memory required for data: 885707808
I0403 15:05:43.218857 31123 layer_factory.hpp:77] Creating layer inception_4a/relu_pool_proj
I0403 15:05:43.218879 31123 net.cpp:91] Creating Layer inception_4a/relu_pool_proj
I0403 15:05:43.218897 31123 net.cpp:425] inception_4a/relu_pool_proj <- inception_4a/pool_proj
I0403 15:05:43.218916 31123 net.cpp:386] inception_4a/relu_pool_proj -> inception_4a/pool_proj (in-place)
I0403 15:05:43.219204 31123 net.cpp:141] Setting up inception_4a/relu_pool_proj
I0403 15:05:43.219231 31123 net.cpp:148] Top shape: 24 64 14 14 (301056)
I0403 15:05:43.219247 31123 net.cpp:156] Memory required for data: 886912032
I0403 15:05:43.219264 31123 layer_factory.hpp:77] Creating layer inception_4a/output
I0403 15:05:43.219281 31123 net.cpp:91] Creating Layer inception_4a/output
I0403 15:05:43.219300 31123 net.cpp:425] inception_4a/output <- inception_4a/1x1
I0403 15:05:43.219317 31123 net.cpp:425] inception_4a/output <- inception_4a/3x3
I0403 15:05:43.219333 31123 net.cpp:425] inception_4a/output <- inception_4a/5x5
I0403 15:05:43.219357 31123 net.cpp:425] inception_4a/output <- inception_4a/pool_proj
I0403 15:05:43.219375 31123 net.cpp:399] inception_4a/output -> inception_4a/output
I0403 15:05:43.219421 31123 net.cpp:141] Setting up inception_4a/output
I0403 15:05:43.219449 31123 net.cpp:148] Top shape: 24 512 14 14 (2408448)
I0403 15:05:43.219465 31123 net.cpp:156] Memory required for data: 896545824
I0403 15:05:43.219480 31123 layer_factory.hpp:77] Creating layer inception_4a/output_inception_4a/output_0_split
I0403 15:05:43.219497 31123 net.cpp:91] Creating Layer inception_4a/output_inception_4a/output_0_split
I0403 15:05:43.219514 31123 net.cpp:425] inception_4a/output_inception_4a/output_0_split <- inception_4a/output
I0403 15:05:43.219535 31123 net.cpp:399] inception_4a/output_inception_4a/output_0_split -> inception_4a/output_inception_4a/output_0_split_0
I0403 15:05:43.219557 31123 net.cpp:399] inception_4a/output_inception_4a/output_0_split -> inception_4a/output_inception_4a/output_0_split_1
I0403 15:05:43.219580 31123 net.cpp:399] inception_4a/output_inception_4a/output_0_split -> inception_4a/output_inception_4a/output_0_split_2
I0403 15:05:43.219601 31123 net.cpp:399] inception_4a/output_inception_4a/output_0_split -> inception_4a/output_inception_4a/output_0_split_3
I0403 15:05:43.219622 31123 net.cpp:399] inception_4a/output_inception_4a/output_0_split -> inception_4a/output_inception_4a/output_0_split_4
I0403 15:05:43.219714 31123 net.cpp:141] Setting up inception_4a/output_inception_4a/output_0_split
I0403 15:05:43.219739 31123 net.cpp:148] Top shape: 24 512 14 14 (2408448)
I0403 15:05:43.219759 31123 net.cpp:148] Top shape: 24 512 14 14 (2408448)
I0403 15:05:43.219776 31123 net.cpp:148] Top shape: 24 512 14 14 (2408448)
I0403 15:05:43.219791 31123 net.cpp:148] Top shape: 24 512 14 14 (2408448)
I0403 15:05:43.219807 31123 net.cpp:148] Top shape: 24 512 14 14 (2408448)
I0403 15:05:43.219822 31123 net.cpp:156] Memory required for data: 944714784
I0403 15:05:43.219838 31123 layer_factory.hpp:77] Creating layer loss1/ave_pool
I0403 15:05:43.219856 31123 net.cpp:91] Creating Layer loss1/ave_pool
I0403 15:05:43.219872 31123 net.cpp:425] loss1/ave_pool <- inception_4a/output_inception_4a/output_0_split_0
I0403 15:05:43.219894 31123 net.cpp:399] loss1/ave_pool -> loss1/ave_pool
I0403 15:05:43.220106 31123 net.cpp:141] Setting up loss1/ave_pool
I0403 15:05:43.220134 31123 net.cpp:148] Top shape: 24 512 4 4 (196608)
I0403 15:05:43.220149 31123 net.cpp:156] Memory required for data: 945501216
I0403 15:05:43.220165 31123 layer_factory.hpp:77] Creating layer loss1/conv
I0403 15:05:43.220188 31123 net.cpp:91] Creating Layer loss1/conv
I0403 15:05:43.220206 31123 net.cpp:425] loss1/conv <- loss1/ave_pool
I0403 15:05:43.220228 31123 net.cpp:399] loss1/conv -> loss1/conv
I0403 15:05:43.221701 31123 net.cpp:141] Setting up loss1/conv
I0403 15:05:43.221731 31123 net.cpp:148] Top shape: 24 128 4 4 (49152)
I0403 15:05:43.221748 31123 net.cpp:156] Memory required for data: 945697824
I0403 15:05:43.221783 31123 layer_factory.hpp:77] Creating layer loss1/relu_conv
I0403 15:05:43.221806 31123 net.cpp:91] Creating Layer loss1/relu_conv
I0403 15:05:43.221823 31123 net.cpp:425] loss1/relu_conv <- loss1/conv
I0403 15:05:43.221842 31123 net.cpp:386] loss1/relu_conv -> loss1/conv (in-place)
I0403 15:05:43.222128 31123 net.cpp:141] Setting up loss1/relu_conv
I0403 15:05:43.222157 31123 net.cpp:148] Top shape: 24 128 4 4 (49152)
I0403 15:05:43.222172 31123 net.cpp:156] Memory required for data: 945894432
I0403 15:05:43.222189 31123 layer_factory.hpp:77] Creating layer loss1/fc
I0403 15:05:43.222216 31123 net.cpp:91] Creating Layer loss1/fc
I0403 15:05:43.222235 31123 net.cpp:425] loss1/fc <- loss1/conv
I0403 15:05:43.222257 31123 net.cpp:399] loss1/fc -> loss1/fc
I0403 15:05:43.240674 31123 net.cpp:141] Setting up loss1/fc
I0403 15:05:43.240706 31123 net.cpp:148] Top shape: 24 1024 (24576)
I0403 15:05:43.240723 31123 net.cpp:156] Memory required for data: 945992736
I0403 15:05:43.240744 31123 layer_factory.hpp:77] Creating layer loss1/relu_fc
I0403 15:05:43.240762 31123 net.cpp:91] Creating Layer loss1/relu_fc
I0403 15:05:43.240779 31123 net.cpp:425] loss1/relu_fc <- loss1/fc
I0403 15:05:43.240799 31123 net.cpp:386] loss1/relu_fc -> loss1/fc (in-place)
I0403 15:05:43.240988 31123 net.cpp:141] Setting up loss1/relu_fc
I0403 15:05:43.241017 31123 net.cpp:148] Top shape: 24 1024 (24576)
I0403 15:05:43.241035 31123 net.cpp:156] Memory required for data: 946091040
I0403 15:05:43.241052 31123 layer_factory.hpp:77] Creating layer loss1/drop_fc
I0403 15:05:43.241080 31123 net.cpp:91] Creating Layer loss1/drop_fc
I0403 15:05:43.241097 31123 net.cpp:425] loss1/drop_fc <- loss1/fc
I0403 15:05:43.241117 31123 net.cpp:386] loss1/drop_fc -> loss1/fc (in-place)
I0403 15:05:43.241170 31123 net.cpp:141] Setting up loss1/drop_fc
I0403 15:05:43.241195 31123 net.cpp:148] Top shape: 24 1024 (24576)
I0403 15:05:43.241211 31123 net.cpp:156] Memory required for data: 946189344
I0403 15:05:43.241227 31123 layer_factory.hpp:77] Creating layer loss1/classifier_plantvillage
I0403 15:05:43.241245 31123 net.cpp:91] Creating Layer loss1/classifier_plantvillage
I0403 15:05:43.241262 31123 net.cpp:425] loss1/classifier_plantvillage <- loss1/fc
I0403 15:05:43.241284 31123 net.cpp:399] loss1/classifier_plantvillage -> loss1/classifier_plantvillage
I0403 15:05:43.242221 31123 net.cpp:141] Setting up loss1/classifier_plantvillage
I0403 15:05:43.242251 31123 net.cpp:148] Top shape: 24 38 (912)
I0403 15:05:43.242267 31123 net.cpp:156] Memory required for data: 946192992
I0403 15:05:43.242286 31123 layer_factory.hpp:77] Creating layer loss1/classifier_plantvillage_loss1/classifier_plantvillage_0_split
I0403 15:05:43.242308 31123 net.cpp:91] Creating Layer loss1/classifier_plantvillage_loss1/classifier_plantvillage_0_split
I0403 15:05:43.242326 31123 net.cpp:425] loss1/classifier_plantvillage_loss1/classifier_plantvillage_0_split <- loss1/classifier_plantvillage
I0403 15:05:43.242348 31123 net.cpp:399] loss1/classifier_plantvillage_loss1/classifier_plantvillage_0_split -> loss1/classifier_plantvillage_loss1/classifier_plantvillage_0_split_0
I0403 15:05:43.242370 31123 net.cpp:399] loss1/classifier_plantvillage_loss1/classifier_plantvillage_0_split -> loss1/classifier_plantvillage_loss1/classifier_plantvillage_0_split_1
I0403 15:05:43.242393 31123 net.cpp:399] loss1/classifier_plantvillage_loss1/classifier_plantvillage_0_split -> loss1/classifier_plantvillage_loss1/classifier_plantvillage_0_split_2
I0403 15:05:43.242465 31123 net.cpp:141] Setting up loss1/classifier_plantvillage_loss1/classifier_plantvillage_0_split
I0403 15:05:43.242489 31123 net.cpp:148] Top shape: 24 38 (912)
I0403 15:05:43.242506 31123 net.cpp:148] Top shape: 24 38 (912)
I0403 15:05:43.242522 31123 net.cpp:148] Top shape: 24 38 (912)
I0403 15:05:43.242537 31123 net.cpp:156] Memory required for data: 946203936
I0403 15:05:43.242552 31123 layer_factory.hpp:77] Creating layer inception_4b/1x1
I0403 15:05:43.242574 31123 net.cpp:91] Creating Layer inception_4b/1x1
I0403 15:05:43.242607 31123 net.cpp:425] inception_4b/1x1 <- inception_4a/output_inception_4a/output_0_split_1
I0403 15:05:43.242629 31123 net.cpp:399] inception_4b/1x1 -> inception_4b/1x1
I0403 15:05:43.244308 31123 net.cpp:141] Setting up inception_4b/1x1
I0403 15:05:43.244340 31123 net.cpp:148] Top shape: 24 160 14 14 (752640)
I0403 15:05:43.244369 31123 net.cpp:156] Memory required for data: 949214496
I0403 15:05:43.244390 31123 layer_factory.hpp:77] Creating layer inception_4b/relu_1x1
I0403 15:05:43.244411 31123 net.cpp:91] Creating Layer inception_4b/relu_1x1
I0403 15:05:43.244428 31123 net.cpp:425] inception_4b/relu_1x1 <- inception_4b/1x1
I0403 15:05:43.244451 31123 net.cpp:386] inception_4b/relu_1x1 -> inception_4b/1x1 (in-place)
I0403 15:05:43.244635 31123 net.cpp:141] Setting up inception_4b/relu_1x1
I0403 15:05:43.244663 31123 net.cpp:148] Top shape: 24 160 14 14 (752640)
I0403 15:05:43.244678 31123 net.cpp:156] Memory required for data: 952225056
I0403 15:05:43.244693 31123 layer_factory.hpp:77] Creating layer inception_4b/3x3_reduce
I0403 15:05:43.244717 31123 net.cpp:91] Creating Layer inception_4b/3x3_reduce
I0403 15:05:43.244736 31123 net.cpp:425] inception_4b/3x3_reduce <- inception_4a/output_inception_4a/output_0_split_2
I0403 15:05:43.244758 31123 net.cpp:399] inception_4b/3x3_reduce -> inception_4b/3x3_reduce
I0403 15:05:43.246151 31123 net.cpp:141] Setting up inception_4b/3x3_reduce
I0403 15:05:43.246179 31123 net.cpp:148] Top shape: 24 112 14 14 (526848)
I0403 15:05:43.246196 31123 net.cpp:156] Memory required for data: 954332448
I0403 15:05:43.246214 31123 layer_factory.hpp:77] Creating layer inception_4b/relu_3x3_reduce
I0403 15:05:43.246233 31123 net.cpp:91] Creating Layer inception_4b/relu_3x3_reduce
I0403 15:05:43.246250 31123 net.cpp:425] inception_4b/relu_3x3_reduce <- inception_4b/3x3_reduce
I0403 15:05:43.246270 31123 net.cpp:386] inception_4b/relu_3x3_reduce -> inception_4b/3x3_reduce (in-place)
I0403 15:05:43.246553 31123 net.cpp:141] Setting up inception_4b/relu_3x3_reduce
I0403 15:05:43.246582 31123 net.cpp:148] Top shape: 24 112 14 14 (526848)
I0403 15:05:43.246598 31123 net.cpp:156] Memory required for data: 956439840
I0403 15:05:43.246613 31123 layer_factory.hpp:77] Creating layer inception_4b/3x3
I0403 15:05:43.246634 31123 net.cpp:91] Creating Layer inception_4b/3x3
I0403 15:05:43.246652 31123 net.cpp:425] inception_4b/3x3 <- inception_4b/3x3_reduce
I0403 15:05:43.246675 31123 net.cpp:399] inception_4b/3x3 -> inception_4b/3x3
I0403 15:05:43.249733 31123 net.cpp:141] Setting up inception_4b/3x3
I0403 15:05:43.249764 31123 net.cpp:148] Top shape: 24 224 14 14 (1053696)
I0403 15:05:43.249781 31123 net.cpp:156] Memory required for data: 960654624
I0403 15:05:43.249800 31123 layer_factory.hpp:77] Creating layer inception_4b/relu_3x3
I0403 15:05:43.249821 31123 net.cpp:91] Creating Layer inception_4b/relu_3x3
I0403 15:05:43.249840 31123 net.cpp:425] inception_4b/relu_3x3 <- inception_4b/3x3
I0403 15:05:43.249860 31123 net.cpp:386] inception_4b/relu_3x3 -> inception_4b/3x3 (in-place)
I0403 15:05:43.250052 31123 net.cpp:141] Setting up inception_4b/relu_3x3
I0403 15:05:43.250082 31123 net.cpp:148] Top shape: 24 224 14 14 (1053696)
I0403 15:05:43.250098 31123 net.cpp:156] Memory required for data: 964869408
I0403 15:05:43.250113 31123 layer_factory.hpp:77] Creating layer inception_4b/5x5_reduce
I0403 15:05:43.250138 31123 net.cpp:91] Creating Layer inception_4b/5x5_reduce
I0403 15:05:43.250157 31123 net.cpp:425] inception_4b/5x5_reduce <- inception_4a/output_inception_4a/output_0_split_3
I0403 15:05:43.250177 31123 net.cpp:399] inception_4b/5x5_reduce -> inception_4b/5x5_reduce
I0403 15:05:43.251314 31123 net.cpp:141] Setting up inception_4b/5x5_reduce
I0403 15:05:43.251345 31123 net.cpp:148] Top shape: 24 24 14 14 (112896)
I0403 15:05:43.251366 31123 net.cpp:156] Memory required for data: 965320992
I0403 15:05:43.251386 31123 layer_factory.hpp:77] Creating layer inception_4b/relu_5x5_reduce
I0403 15:05:43.251407 31123 net.cpp:91] Creating Layer inception_4b/relu_5x5_reduce
I0403 15:05:43.251441 31123 net.cpp:425] inception_4b/relu_5x5_reduce <- inception_4b/5x5_reduce
I0403 15:05:43.251463 31123 net.cpp:386] inception_4b/relu_5x5_reduce -> inception_4b/5x5_reduce (in-place)
I0403 15:05:43.251652 31123 net.cpp:141] Setting up inception_4b/relu_5x5_reduce
I0403 15:05:43.251678 31123 net.cpp:148] Top shape: 24 24 14 14 (112896)
I0403 15:05:43.251694 31123 net.cpp:156] Memory required for data: 965772576
I0403 15:05:43.251709 31123 layer_factory.hpp:77] Creating layer inception_4b/5x5
I0403 15:05:43.251732 31123 net.cpp:91] Creating Layer inception_4b/5x5
I0403 15:05:43.251751 31123 net.cpp:425] inception_4b/5x5 <- inception_4b/5x5_reduce
I0403 15:05:43.251773 31123 net.cpp:399] inception_4b/5x5 -> inception_4b/5x5
I0403 15:05:43.253018 31123 net.cpp:141] Setting up inception_4b/5x5
I0403 15:05:43.253051 31123 net.cpp:148] Top shape: 24 64 14 14 (301056)
I0403 15:05:43.253067 31123 net.cpp:156] Memory required for data: 966976800
I0403 15:05:43.253087 31123 layer_factory.hpp:77] Creating layer inception_4b/relu_5x5
I0403 15:05:43.253106 31123 net.cpp:91] Creating Layer inception_4b/relu_5x5
I0403 15:05:43.253123 31123 net.cpp:425] inception_4b/relu_5x5 <- inception_4b/5x5
I0403 15:05:43.253145 31123 net.cpp:386] inception_4b/relu_5x5 -> inception_4b/5x5 (in-place)
I0403 15:05:43.253438 31123 net.cpp:141] Setting up inception_4b/relu_5x5
I0403 15:05:43.253470 31123 net.cpp:148] Top shape: 24 64 14 14 (301056)
I0403 15:05:43.253489 31123 net.cpp:156] Memory required for data: 968181024
I0403 15:05:43.253504 31123 layer_factory.hpp:77] Creating layer inception_4b/pool
I0403 15:05:43.253523 31123 net.cpp:91] Creating Layer inception_4b/pool
I0403 15:05:43.253540 31123 net.cpp:425] inception_4b/pool <- inception_4a/output_inception_4a/output_0_split_4
I0403 15:05:43.253561 31123 net.cpp:399] inception_4b/pool -> inception_4b/pool
I0403 15:05:43.253628 31123 net.cpp:141] Setting up inception_4b/pool
I0403 15:05:43.253653 31123 net.cpp:148] Top shape: 24 512 14 14 (2408448)
I0403 15:05:43.253667 31123 net.cpp:156] Memory required for data: 977814816
I0403 15:05:43.253681 31123 layer_factory.hpp:77] Creating layer inception_4b/pool_proj
I0403 15:05:43.253706 31123 net.cpp:91] Creating Layer inception_4b/pool_proj
I0403 15:05:43.253723 31123 net.cpp:425] inception_4b/pool_proj <- inception_4b/pool
I0403 15:05:43.253746 31123 net.cpp:399] inception_4b/pool_proj -> inception_4b/pool_proj
I0403 15:05:43.254981 31123 net.cpp:141] Setting up inception_4b/pool_proj
I0403 15:05:43.255012 31123 net.cpp:148] Top shape: 24 64 14 14 (301056)
I0403 15:05:43.255030 31123 net.cpp:156] Memory required for data: 979019040
I0403 15:05:43.255049 31123 layer_factory.hpp:77] Creating layer inception_4b/relu_pool_proj
I0403 15:05:43.255069 31123 net.cpp:91] Creating Layer inception_4b/relu_pool_proj
I0403 15:05:43.255085 31123 net.cpp:425] inception_4b/relu_pool_proj <- inception_4b/pool_proj
I0403 15:05:43.255106 31123 net.cpp:386] inception_4b/relu_pool_proj -> inception_4b/pool_proj (in-place)
I0403 15:05:43.255306 31123 net.cpp:141] Setting up inception_4b/relu_pool_proj
I0403 15:05:43.255333 31123 net.cpp:148] Top shape: 24 64 14 14 (301056)
I0403 15:05:43.255354 31123 net.cpp:156] Memory required for data: 980223264
I0403 15:05:43.255373 31123 layer_factory.hpp:77] Creating layer inception_4b/output
I0403 15:05:43.255391 31123 net.cpp:91] Creating Layer inception_4b/output
I0403 15:05:43.255409 31123 net.cpp:425] inception_4b/output <- inception_4b/1x1
I0403 15:05:43.255427 31123 net.cpp:425] inception_4b/output <- inception_4b/3x3
I0403 15:05:43.255445 31123 net.cpp:425] inception_4b/output <- inception_4b/5x5
I0403 15:05:43.255461 31123 net.cpp:425] inception_4b/output <- inception_4b/pool_proj
I0403 15:05:43.255482 31123 net.cpp:399] inception_4b/output -> inception_4b/output
I0403 15:05:43.255530 31123 net.cpp:141] Setting up inception_4b/output
I0403 15:05:43.255570 31123 net.cpp:148] Top shape: 24 512 14 14 (2408448)
I0403 15:05:43.255586 31123 net.cpp:156] Memory required for data: 989857056
I0403 15:05:43.255617 31123 layer_factory.hpp:77] Creating layer inception_4b/output_inception_4b/output_0_split
I0403 15:05:43.255637 31123 net.cpp:91] Creating Layer inception_4b/output_inception_4b/output_0_split
I0403 15:05:43.255655 31123 net.cpp:425] inception_4b/output_inception_4b/output_0_split <- inception_4b/output
I0403 15:05:43.255672 31123 net.cpp:399] inception_4b/output_inception_4b/output_0_split -> inception_4b/output_inception_4b/output_0_split_0
I0403 15:05:43.255697 31123 net.cpp:399] inception_4b/output_inception_4b/output_0_split -> inception_4b/output_inception_4b/output_0_split_1
I0403 15:05:43.255718 31123 net.cpp:399] inception_4b/output_inception_4b/output_0_split -> inception_4b/output_inception_4b/output_0_split_2
I0403 15:05:43.255739 31123 net.cpp:399] inception_4b/output_inception_4b/output_0_split -> inception_4b/output_inception_4b/output_0_split_3
I0403 15:05:43.255826 31123 net.cpp:141] Setting up inception_4b/output_inception_4b/output_0_split
I0403 15:05:43.255851 31123 net.cpp:148] Top shape: 24 512 14 14 (2408448)
I0403 15:05:43.255868 31123 net.cpp:148] Top shape: 24 512 14 14 (2408448)
I0403 15:05:43.255884 31123 net.cpp:148] Top shape: 24 512 14 14 (2408448)
I0403 15:05:43.255900 31123 net.cpp:148] Top shape: 24 512 14 14 (2408448)
I0403 15:05:43.255915 31123 net.cpp:156] Memory required for data: 1028392224
I0403 15:05:43.255929 31123 layer_factory.hpp:77] Creating layer inception_4c/1x1
I0403 15:05:43.255954 31123 net.cpp:91] Creating Layer inception_4c/1x1
I0403 15:05:43.255972 31123 net.cpp:425] inception_4c/1x1 <- inception_4b/output_inception_4b/output_0_split_0
I0403 15:05:43.255993 31123 net.cpp:399] inception_4c/1x1 -> inception_4c/1x1
I0403 15:05:43.257470 31123 net.cpp:141] Setting up inception_4c/1x1
I0403 15:05:43.257500 31123 net.cpp:148] Top shape: 24 128 14 14 (602112)
I0403 15:05:43.257518 31123 net.cpp:156] Memory required for data: 1030800672
I0403 15:05:43.257535 31123 layer_factory.hpp:77] Creating layer inception_4c/relu_1x1
I0403 15:05:43.257557 31123 net.cpp:91] Creating Layer inception_4c/relu_1x1
I0403 15:05:43.257577 31123 net.cpp:425] inception_4c/relu_1x1 <- inception_4c/1x1
I0403 15:05:43.257596 31123 net.cpp:386] inception_4c/relu_1x1 -> inception_4c/1x1 (in-place)
I0403 15:05:43.257781 31123 net.cpp:141] Setting up inception_4c/relu_1x1
I0403 15:05:43.257808 31123 net.cpp:148] Top shape: 24 128 14 14 (602112)
I0403 15:05:43.257825 31123 net.cpp:156] Memory required for data: 1033209120
I0403 15:05:43.257840 31123 layer_factory.hpp:77] Creating layer inception_4c/3x3_reduce
I0403 15:05:43.257861 31123 net.cpp:91] Creating Layer inception_4c/3x3_reduce
I0403 15:05:43.257879 31123 net.cpp:425] inception_4c/3x3_reduce <- inception_4b/output_inception_4b/output_0_split_1
I0403 15:05:43.257902 31123 net.cpp:399] inception_4c/3x3_reduce -> inception_4c/3x3_reduce
I0403 15:05:43.259899 31123 net.cpp:141] Setting up inception_4c/3x3_reduce
I0403 15:05:43.259932 31123 net.cpp:148] Top shape: 24 128 14 14 (602112)
I0403 15:05:43.259950 31123 net.cpp:156] Memory required for data: 1035617568
I0403 15:05:43.259970 31123 layer_factory.hpp:77] Creating layer inception_4c/relu_3x3_reduce
I0403 15:05:43.259989 31123 net.cpp:91] Creating Layer inception_4c/relu_3x3_reduce
I0403 15:05:43.260006 31123 net.cpp:425] inception_4c/relu_3x3_reduce <- inception_4c/3x3_reduce
I0403 15:05:43.260023 31123 net.cpp:386] inception_4c/relu_3x3_reduce -> inception_4c/3x3_reduce (in-place)
I0403 15:05:43.260334 31123 net.cpp:141] Setting up inception_4c/relu_3x3_reduce
I0403 15:05:43.260370 31123 net.cpp:148] Top shape: 24 128 14 14 (602112)
I0403 15:05:43.260388 31123 net.cpp:156] Memory required for data: 1038026016
I0403 15:05:43.260406 31123 layer_factory.hpp:77] Creating layer inception_4c/3x3
I0403 15:05:43.260432 31123 net.cpp:91] Creating Layer inception_4c/3x3
I0403 15:05:43.260452 31123 net.cpp:425] inception_4c/3x3 <- inception_4c/3x3_reduce
I0403 15:05:43.260471 31123 net.cpp:399] inception_4c/3x3 -> inception_4c/3x3
I0403 15:05:43.264263 31123 net.cpp:141] Setting up inception_4c/3x3
I0403 15:05:43.264309 31123 net.cpp:148] Top shape: 24 256 14 14 (1204224)
I0403 15:05:43.264328 31123 net.cpp:156] Memory required for data: 1042842912
I0403 15:05:43.264371 31123 layer_factory.hpp:77] Creating layer inception_4c/relu_3x3
I0403 15:05:43.264400 31123 net.cpp:91] Creating Layer inception_4c/relu_3x3
I0403 15:05:43.264418 31123 net.cpp:425] inception_4c/relu_3x3 <- inception_4c/3x3
I0403 15:05:43.264439 31123 net.cpp:386] inception_4c/relu_3x3 -> inception_4c/3x3 (in-place)
I0403 15:05:43.264627 31123 net.cpp:141] Setting up inception_4c/relu_3x3
I0403 15:05:43.264654 31123 net.cpp:148] Top shape: 24 256 14 14 (1204224)
I0403 15:05:43.264669 31123 net.cpp:156] Memory required for data: 1047659808
I0403 15:05:43.264685 31123 layer_factory.hpp:77] Creating layer inception_4c/5x5_reduce
I0403 15:05:43.264709 31123 net.cpp:91] Creating Layer inception_4c/5x5_reduce
I0403 15:05:43.264729 31123 net.cpp:425] inception_4c/5x5_reduce <- inception_4b/output_inception_4b/output_0_split_2
I0403 15:05:43.264751 31123 net.cpp:399] inception_4c/5x5_reduce -> inception_4c/5x5_reduce
I0403 15:05:43.265897 31123 net.cpp:141] Setting up inception_4c/5x5_reduce
I0403 15:05:43.265928 31123 net.cpp:148] Top shape: 24 24 14 14 (112896)
I0403 15:05:43.265945 31123 net.cpp:156] Memory required for data: 1048111392
I0403 15:05:43.265965 31123 layer_factory.hpp:77] Creating layer inception_4c/relu_5x5_reduce
I0403 15:05:43.265985 31123 net.cpp:91] Creating Layer inception_4c/relu_5x5_reduce
I0403 15:05:43.266000 31123 net.cpp:425] inception_4c/relu_5x5_reduce <- inception_4c/5x5_reduce
I0403 15:05:43.266021 31123 net.cpp:386] inception_4c/relu_5x5_reduce -> inception_4c/5x5_reduce (in-place)
I0403 15:05:43.266213 31123 net.cpp:141] Setting up inception_4c/relu_5x5_reduce
I0403 15:05:43.266243 31123 net.cpp:148] Top shape: 24 24 14 14 (112896)
I0403 15:05:43.266258 31123 net.cpp:156] Memory required for data: 1048562976
I0403 15:05:43.266273 31123 layer_factory.hpp:77] Creating layer inception_4c/5x5
I0403 15:05:43.266296 31123 net.cpp:91] Creating Layer inception_4c/5x5
I0403 15:05:43.266315 31123 net.cpp:425] inception_4c/5x5 <- inception_4c/5x5_reduce
I0403 15:05:43.266338 31123 net.cpp:399] inception_4c/5x5 -> inception_4c/5x5
I0403 15:05:43.267611 31123 net.cpp:141] Setting up inception_4c/5x5
I0403 15:05:43.267642 31123 net.cpp:148] Top shape: 24 64 14 14 (301056)
I0403 15:05:43.267657 31123 net.cpp:156] Memory required for data: 1049767200
I0403 15:05:43.267678 31123 layer_factory.hpp:77] Creating layer inception_4c/relu_5x5
I0403 15:05:43.267696 31123 net.cpp:91] Creating Layer inception_4c/relu_5x5
I0403 15:05:43.267714 31123 net.cpp:425] inception_4c/relu_5x5 <- inception_4c/5x5
I0403 15:05:43.267736 31123 net.cpp:386] inception_4c/relu_5x5 -> inception_4c/5x5 (in-place)
I0403 15:05:43.268033 31123 net.cpp:141] Setting up inception_4c/relu_5x5
I0403 15:05:43.268061 31123 net.cpp:148] Top shape: 24 64 14 14 (301056)
I0403 15:05:43.268077 31123 net.cpp:156] Memory required for data: 1050971424
I0403 15:05:43.268093 31123 layer_factory.hpp:77] Creating layer inception_4c/pool
I0403 15:05:43.268112 31123 net.cpp:91] Creating Layer inception_4c/pool
I0403 15:05:43.268128 31123 net.cpp:425] inception_4c/pool <- inception_4b/output_inception_4b/output_0_split_3
I0403 15:05:43.268151 31123 net.cpp:399] inception_4c/pool -> inception_4c/pool
I0403 15:05:43.268218 31123 net.cpp:141] Setting up inception_4c/pool
I0403 15:05:43.268244 31123 net.cpp:148] Top shape: 24 512 14 14 (2408448)
I0403 15:05:43.268260 31123 net.cpp:156] Memory required for data: 1060605216
I0403 15:05:43.268275 31123 layer_factory.hpp:77] Creating layer inception_4c/pool_proj
I0403 15:05:43.268298 31123 net.cpp:91] Creating Layer inception_4c/pool_proj
I0403 15:05:43.268317 31123 net.cpp:425] inception_4c/pool_proj <- inception_4c/pool
I0403 15:05:43.268337 31123 net.cpp:399] inception_4c/pool_proj -> inception_4c/pool_proj
I0403 15:05:43.269595 31123 net.cpp:141] Setting up inception_4c/pool_proj
I0403 15:05:43.269626 31123 net.cpp:148] Top shape: 24 64 14 14 (301056)
I0403 15:05:43.269659 31123 net.cpp:156] Memory required for data: 1061809440
I0403 15:05:43.269680 31123 layer_factory.hpp:77] Creating layer inception_4c/relu_pool_proj
I0403 15:05:43.269700 31123 net.cpp:91] Creating Layer inception_4c/relu_pool_proj
I0403 15:05:43.269717 31123 net.cpp:425] inception_4c/relu_pool_proj <- inception_4c/pool_proj
I0403 15:05:43.269739 31123 net.cpp:386] inception_4c/relu_pool_proj -> inception_4c/pool_proj (in-place)
I0403 15:05:43.269928 31123 net.cpp:141] Setting up inception_4c/relu_pool_proj
I0403 15:05:43.269954 31123 net.cpp:148] Top shape: 24 64 14 14 (301056)
I0403 15:05:43.269970 31123 net.cpp:156] Memory required for data: 1063013664
I0403 15:05:43.269986 31123 layer_factory.hpp:77] Creating layer inception_4c/output
I0403 15:05:43.270004 31123 net.cpp:91] Creating Layer inception_4c/output
I0403 15:05:43.270022 31123 net.cpp:425] inception_4c/output <- inception_4c/1x1
I0403 15:05:43.270040 31123 net.cpp:425] inception_4c/output <- inception_4c/3x3
I0403 15:05:43.270056 31123 net.cpp:425] inception_4c/output <- inception_4c/5x5
I0403 15:05:43.270074 31123 net.cpp:425] inception_4c/output <- inception_4c/pool_proj
I0403 15:05:43.270094 31123 net.cpp:399] inception_4c/output -> inception_4c/output
I0403 15:05:43.270143 31123 net.cpp:141] Setting up inception_4c/output
I0403 15:05:43.270170 31123 net.cpp:148] Top shape: 24 512 14 14 (2408448)
I0403 15:05:43.270186 31123 net.cpp:156] Memory required for data: 1072647456
I0403 15:05:43.270202 31123 layer_factory.hpp:77] Creating layer inception_4c/output_inception_4c/output_0_split
I0403 15:05:43.270220 31123 net.cpp:91] Creating Layer inception_4c/output_inception_4c/output_0_split
I0403 15:05:43.270236 31123 net.cpp:425] inception_4c/output_inception_4c/output_0_split <- inception_4c/output
I0403 15:05:43.270253 31123 net.cpp:399] inception_4c/output_inception_4c/output_0_split -> inception_4c/output_inception_4c/output_0_split_0
I0403 15:05:43.270288 31123 net.cpp:399] inception_4c/output_inception_4c/output_0_split -> inception_4c/output_inception_4c/output_0_split_1
I0403 15:05:43.270311 31123 net.cpp:399] inception_4c/output_inception_4c/output_0_split -> inception_4c/output_inception_4c/output_0_split_2
I0403 15:05:43.270333 31123 net.cpp:399] inception_4c/output_inception_4c/output_0_split -> inception_4c/output_inception_4c/output_0_split_3
I0403 15:05:43.270432 31123 net.cpp:141] Setting up inception_4c/output_inception_4c/output_0_split
I0403 15:05:43.270459 31123 net.cpp:148] Top shape: 24 512 14 14 (2408448)
I0403 15:05:43.270478 31123 net.cpp:148] Top shape: 24 512 14 14 (2408448)
I0403 15:05:43.270494 31123 net.cpp:148] Top shape: 24 512 14 14 (2408448)
I0403 15:05:43.270511 31123 net.cpp:148] Top shape: 24 512 14 14 (2408448)
I0403 15:05:43.270526 31123 net.cpp:156] Memory required for data: 1111182624
I0403 15:05:43.270542 31123 layer_factory.hpp:77] Creating layer inception_4d/1x1
I0403 15:05:43.270578 31123 net.cpp:91] Creating Layer inception_4d/1x1
I0403 15:05:43.270596 31123 net.cpp:425] inception_4d/1x1 <- inception_4c/output_inception_4c/output_0_split_0
I0403 15:05:43.270617 31123 net.cpp:399] inception_4d/1x1 -> inception_4d/1x1
I0403 15:05:43.272044 31123 net.cpp:141] Setting up inception_4d/1x1
I0403 15:05:43.272073 31123 net.cpp:148] Top shape: 24 112 14 14 (526848)
I0403 15:05:43.272089 31123 net.cpp:156] Memory required for data: 1113290016
I0403 15:05:43.272107 31123 layer_factory.hpp:77] Creating layer inception_4d/relu_1x1
I0403 15:05:43.272130 31123 net.cpp:91] Creating Layer inception_4d/relu_1x1
I0403 15:05:43.272147 31123 net.cpp:425] inception_4d/relu_1x1 <- inception_4d/1x1
I0403 15:05:43.272166 31123 net.cpp:386] inception_4d/relu_1x1 -> inception_4d/1x1 (in-place)
I0403 15:05:43.272357 31123 net.cpp:141] Setting up inception_4d/relu_1x1
I0403 15:05:43.272387 31123 net.cpp:148] Top shape: 24 112 14 14 (526848)
I0403 15:05:43.272404 31123 net.cpp:156] Memory required for data: 1115397408
I0403 15:05:43.272420 31123 layer_factory.hpp:77] Creating layer inception_4d/3x3_reduce
I0403 15:05:43.272459 31123 net.cpp:91] Creating Layer inception_4d/3x3_reduce
I0403 15:05:43.272478 31123 net.cpp:425] inception_4d/3x3_reduce <- inception_4c/output_inception_4c/output_0_split_1
I0403 15:05:43.272500 31123 net.cpp:399] inception_4d/3x3_reduce -> inception_4d/3x3_reduce
I0403 15:05:43.274063 31123 net.cpp:141] Setting up inception_4d/3x3_reduce
I0403 15:05:43.274092 31123 net.cpp:148] Top shape: 24 144 14 14 (677376)
I0403 15:05:43.274109 31123 net.cpp:156] Memory required for data: 1118106912
I0403 15:05:43.274129 31123 layer_factory.hpp:77] Creating layer inception_4d/relu_3x3_reduce
I0403 15:05:43.274150 31123 net.cpp:91] Creating Layer inception_4d/relu_3x3_reduce
I0403 15:05:43.274169 31123 net.cpp:425] inception_4d/relu_3x3_reduce <- inception_4d/3x3_reduce
I0403 15:05:43.274189 31123 net.cpp:386] inception_4d/relu_3x3_reduce -> inception_4d/3x3_reduce (in-place)
I0403 15:05:43.274498 31123 net.cpp:141] Setting up inception_4d/relu_3x3_reduce
I0403 15:05:43.274526 31123 net.cpp:148] Top shape: 24 144 14 14 (677376)
I0403 15:05:43.274544 31123 net.cpp:156] Memory required for data: 1120816416
I0403 15:05:43.274559 31123 layer_factory.hpp:77] Creating layer inception_4d/3x3
I0403 15:05:43.274585 31123 net.cpp:91] Creating Layer inception_4d/3x3
I0403 15:05:43.274603 31123 net.cpp:425] inception_4d/3x3 <- inception_4d/3x3_reduce
I0403 15:05:43.274626 31123 net.cpp:399] inception_4d/3x3 -> inception_4d/3x3
I0403 15:05:43.279099 31123 net.cpp:141] Setting up inception_4d/3x3
I0403 15:05:43.279129 31123 net.cpp:148] Top shape: 24 288 14 14 (1354752)
I0403 15:05:43.279150 31123 net.cpp:156] Memory required for data: 1126235424
I0403 15:05:43.279170 31123 layer_factory.hpp:77] Creating layer inception_4d/relu_3x3
I0403 15:05:43.279189 31123 net.cpp:91] Creating Layer inception_4d/relu_3x3
I0403 15:05:43.279207 31123 net.cpp:425] inception_4d/relu_3x3 <- inception_4d/3x3
I0403 15:05:43.279225 31123 net.cpp:386] inception_4d/relu_3x3 -> inception_4d/3x3 (in-place)
I0403 15:05:43.279423 31123 net.cpp:141] Setting up inception_4d/relu_3x3
I0403 15:05:43.279453 31123 net.cpp:148] Top shape: 24 288 14 14 (1354752)
I0403 15:05:43.279469 31123 net.cpp:156] Memory required for data: 1131654432
I0403 15:05:43.279485 31123 layer_factory.hpp:77] Creating layer inception_4d/5x5_reduce
I0403 15:05:43.279508 31123 net.cpp:91] Creating Layer inception_4d/5x5_reduce
I0403 15:05:43.279528 31123 net.cpp:425] inception_4d/5x5_reduce <- inception_4c/output_inception_4c/output_0_split_2
I0403 15:05:43.279548 31123 net.cpp:399] inception_4d/5x5_reduce -> inception_4d/5x5_reduce
I0403 15:05:43.280750 31123 net.cpp:141] Setting up inception_4d/5x5_reduce
I0403 15:05:43.280779 31123 net.cpp:148] Top shape: 24 32 14 14 (150528)
I0403 15:05:43.280796 31123 net.cpp:156] Memory required for data: 1132256544
I0403 15:05:43.280814 31123 layer_factory.hpp:77] Creating layer inception_4d/relu_5x5_reduce
I0403 15:05:43.280835 31123 net.cpp:91] Creating Layer inception_4d/relu_5x5_reduce
I0403 15:05:43.280853 31123 net.cpp:425] inception_4d/relu_5x5_reduce <- inception_4d/5x5_reduce
I0403 15:05:43.280872 31123 net.cpp:386] inception_4d/relu_5x5_reduce -> inception_4d/5x5_reduce (in-place)
I0403 15:05:43.281064 31123 net.cpp:141] Setting up inception_4d/relu_5x5_reduce
I0403 15:05:43.281092 31123 net.cpp:148] Top shape: 24 32 14 14 (150528)
I0403 15:05:43.281108 31123 net.cpp:156] Memory required for data: 1132858656
I0403 15:05:43.281123 31123 layer_factory.hpp:77] Creating layer inception_4d/5x5
I0403 15:05:43.281147 31123 net.cpp:91] Creating Layer inception_4d/5x5
I0403 15:05:43.281167 31123 net.cpp:425] inception_4d/5x5 <- inception_4d/5x5_reduce
I0403 15:05:43.281189 31123 net.cpp:399] inception_4d/5x5 -> inception_4d/5x5
I0403 15:05:43.282713 31123 net.cpp:141] Setting up inception_4d/5x5
I0403 15:05:43.282743 31123 net.cpp:148] Top shape: 24 64 14 14 (301056)
I0403 15:05:43.282758 31123 net.cpp:156] Memory required for data: 1134062880
I0403 15:05:43.282778 31123 layer_factory.hpp:77] Creating layer inception_4d/relu_5x5
I0403 15:05:43.282814 31123 net.cpp:91] Creating Layer inception_4d/relu_5x5
I0403 15:05:43.282830 31123 net.cpp:425] inception_4d/relu_5x5 <- inception_4d/5x5
I0403 15:05:43.282851 31123 net.cpp:386] inception_4d/relu_5x5 -> inception_4d/5x5 (in-place)
I0403 15:05:43.283164 31123 net.cpp:141] Setting up inception_4d/relu_5x5
I0403 15:05:43.283192 31123 net.cpp:148] Top shape: 24 64 14 14 (301056)
I0403 15:05:43.283208 31123 net.cpp:156] Memory required for data: 1135267104
I0403 15:05:43.283226 31123 layer_factory.hpp:77] Creating layer inception_4d/pool
I0403 15:05:43.283244 31123 net.cpp:91] Creating Layer inception_4d/pool
I0403 15:05:43.283262 31123 net.cpp:425] inception_4d/pool <- inception_4c/output_inception_4c/output_0_split_3
I0403 15:05:43.283283 31123 net.cpp:399] inception_4d/pool -> inception_4d/pool
I0403 15:05:43.283361 31123 net.cpp:141] Setting up inception_4d/pool
I0403 15:05:43.283388 31123 net.cpp:148] Top shape: 24 512 14 14 (2408448)
I0403 15:05:43.283404 31123 net.cpp:156] Memory required for data: 1144900896
I0403 15:05:43.283421 31123 layer_factory.hpp:77] Creating layer inception_4d/pool_proj
I0403 15:05:43.283445 31123 net.cpp:91] Creating Layer inception_4d/pool_proj
I0403 15:05:43.283465 31123 net.cpp:425] inception_4d/pool_proj <- inception_4d/pool
I0403 15:05:43.283485 31123 net.cpp:399] inception_4d/pool_proj -> inception_4d/pool_proj
I0403 15:05:43.285320 31123 net.cpp:141] Setting up inception_4d/pool_proj
I0403 15:05:43.285357 31123 net.cpp:148] Top shape: 24 64 14 14 (301056)
I0403 15:05:43.285388 31123 net.cpp:156] Memory required for data: 1146105120
I0403 15:05:43.285409 31123 layer_factory.hpp:77] Creating layer inception_4d/relu_pool_proj
I0403 15:05:43.285429 31123 net.cpp:91] Creating Layer inception_4d/relu_pool_proj
I0403 15:05:43.285446 31123 net.cpp:425] inception_4d/relu_pool_proj <- inception_4d/pool_proj
I0403 15:05:43.285465 31123 net.cpp:386] inception_4d/relu_pool_proj -> inception_4d/pool_proj (in-place)
I0403 15:05:43.285672 31123 net.cpp:141] Setting up inception_4d/relu_pool_proj
I0403 15:05:43.285706 31123 net.cpp:148] Top shape: 24 64 14 14 (301056)
I0403 15:05:43.285730 31123 net.cpp:156] Memory required for data: 1147309344
I0403 15:05:43.285755 31123 layer_factory.hpp:77] Creating layer inception_4d/output
I0403 15:05:43.285781 31123 net.cpp:91] Creating Layer inception_4d/output
I0403 15:05:43.285806 31123 net.cpp:425] inception_4d/output <- inception_4d/1x1
I0403 15:05:43.285825 31123 net.cpp:425] inception_4d/output <- inception_4d/3x3
I0403 15:05:43.285842 31123 net.cpp:425] inception_4d/output <- inception_4d/5x5
I0403 15:05:43.285859 31123 net.cpp:425] inception_4d/output <- inception_4d/pool_proj
I0403 15:05:43.285879 31123 net.cpp:399] inception_4d/output -> inception_4d/output
I0403 15:05:43.285928 31123 net.cpp:141] Setting up inception_4d/output
I0403 15:05:43.285953 31123 net.cpp:148] Top shape: 24 528 14 14 (2483712)
I0403 15:05:43.285969 31123 net.cpp:156] Memory required for data: 1157244192
I0403 15:05:43.285984 31123 layer_factory.hpp:77] Creating layer inception_4d/output_inception_4d/output_0_split
I0403 15:05:43.286005 31123 net.cpp:91] Creating Layer inception_4d/output_inception_4d/output_0_split
I0403 15:05:43.286022 31123 net.cpp:425] inception_4d/output_inception_4d/output_0_split <- inception_4d/output
I0403 15:05:43.286041 31123 net.cpp:399] inception_4d/output_inception_4d/output_0_split -> inception_4d/output_inception_4d/output_0_split_0
I0403 15:05:43.286067 31123 net.cpp:399] inception_4d/output_inception_4d/output_0_split -> inception_4d/output_inception_4d/output_0_split_1
I0403 15:05:43.286089 31123 net.cpp:399] inception_4d/output_inception_4d/output_0_split -> inception_4d/output_inception_4d/output_0_split_2
I0403 15:05:43.286111 31123 net.cpp:399] inception_4d/output_inception_4d/output_0_split -> inception_4d/output_inception_4d/output_0_split_3
I0403 15:05:43.286133 31123 net.cpp:399] inception_4d/output_inception_4d/output_0_split -> inception_4d/output_inception_4d/output_0_split_4
I0403 15:05:43.286238 31123 net.cpp:141] Setting up inception_4d/output_inception_4d/output_0_split
I0403 15:05:43.286276 31123 net.cpp:148] Top shape: 24 528 14 14 (2483712)
I0403 15:05:43.286293 31123 net.cpp:148] Top shape: 24 528 14 14 (2483712)
I0403 15:05:43.286310 31123 net.cpp:148] Top shape: 24 528 14 14 (2483712)
I0403 15:05:43.286326 31123 net.cpp:148] Top shape: 24 528 14 14 (2483712)
I0403 15:05:43.286344 31123 net.cpp:148] Top shape: 24 528 14 14 (2483712)
I0403 15:05:43.286362 31123 net.cpp:156] Memory required for data: 1206918432
I0403 15:05:43.286378 31123 layer_factory.hpp:77] Creating layer loss2/ave_pool
I0403 15:05:43.286401 31123 net.cpp:91] Creating Layer loss2/ave_pool
I0403 15:05:43.286417 31123 net.cpp:425] loss2/ave_pool <- inception_4d/output_inception_4d/output_0_split_0
I0403 15:05:43.286437 31123 net.cpp:399] loss2/ave_pool -> loss2/ave_pool
I0403 15:05:43.286890 31123 net.cpp:141] Setting up loss2/ave_pool
I0403 15:05:43.286921 31123 net.cpp:148] Top shape: 24 528 4 4 (202752)
I0403 15:05:43.286938 31123 net.cpp:156] Memory required for data: 1207729440
I0403 15:05:43.286954 31123 layer_factory.hpp:77] Creating layer loss2/conv
I0403 15:05:43.286975 31123 net.cpp:91] Creating Layer loss2/conv
I0403 15:05:43.286994 31123 net.cpp:425] loss2/conv <- loss2/ave_pool
I0403 15:05:43.287019 31123 net.cpp:399] loss2/conv -> loss2/conv
I0403 15:05:43.289012 31123 net.cpp:141] Setting up loss2/conv
I0403 15:05:43.289042 31123 net.cpp:148] Top shape: 24 128 4 4 (49152)
I0403 15:05:43.289059 31123 net.cpp:156] Memory required for data: 1207926048
I0403 15:05:43.289079 31123 layer_factory.hpp:77] Creating layer loss2/relu_conv
I0403 15:05:43.289098 31123 net.cpp:91] Creating Layer loss2/relu_conv
I0403 15:05:43.289116 31123 net.cpp:425] loss2/relu_conv <- loss2/conv
I0403 15:05:43.289136 31123 net.cpp:386] loss2/relu_conv -> loss2/conv (in-place)
I0403 15:05:43.289443 31123 net.cpp:141] Setting up loss2/relu_conv
I0403 15:05:43.289471 31123 net.cpp:148] Top shape: 24 128 4 4 (49152)
I0403 15:05:43.289487 31123 net.cpp:156] Memory required for data: 1208122656
I0403 15:05:43.289504 31123 layer_factory.hpp:77] Creating layer loss2/fc
I0403 15:05:43.289523 31123 net.cpp:91] Creating Layer loss2/fc
I0403 15:05:43.289541 31123 net.cpp:425] loss2/fc <- loss2/conv
I0403 15:05:43.289564 31123 net.cpp:399] loss2/fc -> loss2/fc
I0403 15:05:43.307523 31123 net.cpp:141] Setting up loss2/fc
I0403 15:05:43.307559 31123 net.cpp:148] Top shape: 24 1024 (24576)
I0403 15:05:43.307576 31123 net.cpp:156] Memory required for data: 1208220960
I0403 15:05:43.307595 31123 layer_factory.hpp:77] Creating layer loss2/relu_fc
I0403 15:05:43.307615 31123 net.cpp:91] Creating Layer loss2/relu_fc
I0403 15:05:43.307634 31123 net.cpp:425] loss2/relu_fc <- loss2/fc
I0403 15:05:43.307653 31123 net.cpp:386] loss2/relu_fc -> loss2/fc (in-place)
I0403 15:05:43.307955 31123 net.cpp:141] Setting up loss2/relu_fc
I0403 15:05:43.307984 31123 net.cpp:148] Top shape: 24 1024 (24576)
I0403 15:05:43.308001 31123 net.cpp:156] Memory required for data: 1208319264
I0403 15:05:43.308017 31123 layer_factory.hpp:77] Creating layer loss2/drop_fc
I0403 15:05:43.308035 31123 net.cpp:91] Creating Layer loss2/drop_fc
I0403 15:05:43.308051 31123 net.cpp:425] loss2/drop_fc <- loss2/fc
I0403 15:05:43.308068 31123 net.cpp:386] loss2/drop_fc -> loss2/fc (in-place)
I0403 15:05:43.308118 31123 net.cpp:141] Setting up loss2/drop_fc
I0403 15:05:43.308142 31123 net.cpp:148] Top shape: 24 1024 (24576)
I0403 15:05:43.308158 31123 net.cpp:156] Memory required for data: 1208417568
I0403 15:05:43.308173 31123 layer_factory.hpp:77] Creating layer loss2/classifier_plantvillage
I0403 15:05:43.308195 31123 net.cpp:91] Creating Layer loss2/classifier_plantvillage
I0403 15:05:43.308212 31123 net.cpp:425] loss2/classifier_plantvillage <- loss2/fc
I0403 15:05:43.308230 31123 net.cpp:399] loss2/classifier_plantvillage -> loss2/classifier_plantvillage
I0403 15:05:43.308641 31123 net.cpp:141] Setting up loss2/classifier_plantvillage
I0403 15:05:43.308667 31123 net.cpp:148] Top shape: 24 38 (912)
I0403 15:05:43.308682 31123 net.cpp:156] Memory required for data: 1208421216
I0403 15:05:43.308720 31123 layer_factory.hpp:77] Creating layer loss2/classifier_plantvillage_loss2/classifier_plantvillage_0_split
I0403 15:05:43.308740 31123 net.cpp:91] Creating Layer loss2/classifier_plantvillage_loss2/classifier_plantvillage_0_split
I0403 15:05:43.308758 31123 net.cpp:425] loss2/classifier_plantvillage_loss2/classifier_plantvillage_0_split <- loss2/classifier_plantvillage
I0403 15:05:43.308778 31123 net.cpp:399] loss2/classifier_plantvillage_loss2/classifier_plantvillage_0_split -> loss2/classifier_plantvillage_loss2/classifier_plantvillage_0_split_0
I0403 15:05:43.308799 31123 net.cpp:399] loss2/classifier_plantvillage_loss2/classifier_plantvillage_0_split -> loss2/classifier_plantvillage_loss2/classifier_plantvillage_0_split_1
I0403 15:05:43.308821 31123 net.cpp:399] loss2/classifier_plantvillage_loss2/classifier_plantvillage_0_split -> loss2/classifier_plantvillage_loss2/classifier_plantvillage_0_split_2
I0403 15:05:43.308898 31123 net.cpp:141] Setting up loss2/classifier_plantvillage_loss2/classifier_plantvillage_0_split
I0403 15:05:43.308926 31123 net.cpp:148] Top shape: 24 38 (912)
I0403 15:05:43.308943 31123 net.cpp:148] Top shape: 24 38 (912)
I0403 15:05:43.308959 31123 net.cpp:148] Top shape: 24 38 (912)
I0403 15:05:43.308974 31123 net.cpp:156] Memory required for data: 1208432160
I0403 15:05:43.308989 31123 layer_factory.hpp:77] Creating layer inception_4e/1x1
I0403 15:05:43.309008 31123 net.cpp:91] Creating Layer inception_4e/1x1
I0403 15:05:43.309026 31123 net.cpp:425] inception_4e/1x1 <- inception_4d/output_inception_4d/output_0_split_1
I0403 15:05:43.309046 31123 net.cpp:399] inception_4e/1x1 -> inception_4e/1x1
I0403 15:05:43.310909 31123 net.cpp:141] Setting up inception_4e/1x1
I0403 15:05:43.310938 31123 net.cpp:148] Top shape: 24 256 14 14 (1204224)
I0403 15:05:43.310955 31123 net.cpp:156] Memory required for data: 1213249056
I0403 15:05:43.310973 31123 layer_factory.hpp:77] Creating layer inception_4e/relu_1x1
I0403 15:05:43.310992 31123 net.cpp:91] Creating Layer inception_4e/relu_1x1
I0403 15:05:43.311007 31123 net.cpp:425] inception_4e/relu_1x1 <- inception_4e/1x1
I0403 15:05:43.311027 31123 net.cpp:386] inception_4e/relu_1x1 -> inception_4e/1x1 (in-place)
I0403 15:05:43.311328 31123 net.cpp:141] Setting up inception_4e/relu_1x1
I0403 15:05:43.311359 31123 net.cpp:148] Top shape: 24 256 14 14 (1204224)
I0403 15:05:43.311377 31123 net.cpp:156] Memory required for data: 1218065952
I0403 15:05:43.311393 31123 layer_factory.hpp:77] Creating layer inception_4e/3x3_reduce
I0403 15:05:43.311415 31123 net.cpp:91] Creating Layer inception_4e/3x3_reduce
I0403 15:05:43.311434 31123 net.cpp:425] inception_4e/3x3_reduce <- inception_4d/output_inception_4d/output_0_split_2
I0403 15:05:43.311456 31123 net.cpp:399] inception_4e/3x3_reduce -> inception_4e/3x3_reduce
I0403 15:05:43.313622 31123 net.cpp:141] Setting up inception_4e/3x3_reduce
I0403 15:05:43.313654 31123 net.cpp:148] Top shape: 24 160 14 14 (752640)
I0403 15:05:43.313673 31123 net.cpp:156] Memory required for data: 1221076512
I0403 15:05:43.313693 31123 layer_factory.hpp:77] Creating layer inception_4e/relu_3x3_reduce
I0403 15:05:43.313710 31123 net.cpp:91] Creating Layer inception_4e/relu_3x3_reduce
I0403 15:05:43.313726 31123 net.cpp:425] inception_4e/relu_3x3_reduce <- inception_4e/3x3_reduce
I0403 15:05:43.313747 31123 net.cpp:386] inception_4e/relu_3x3_reduce -> inception_4e/3x3_reduce (in-place)
I0403 15:05:43.313935 31123 net.cpp:141] Setting up inception_4e/relu_3x3_reduce
I0403 15:05:43.313961 31123 net.cpp:148] Top shape: 24 160 14 14 (752640)
I0403 15:05:43.313977 31123 net.cpp:156] Memory required for data: 1224087072
I0403 15:05:43.313992 31123 layer_factory.hpp:77] Creating layer inception_4e/3x3
I0403 15:05:43.314014 31123 net.cpp:91] Creating Layer inception_4e/3x3
I0403 15:05:43.314033 31123 net.cpp:425] inception_4e/3x3 <- inception_4e/3x3_reduce
I0403 15:05:43.314056 31123 net.cpp:399] inception_4e/3x3 -> inception_4e/3x3
I0403 15:05:43.319129 31123 net.cpp:141] Setting up inception_4e/3x3
I0403 15:05:43.319174 31123 net.cpp:148] Top shape: 24 320 14 14 (1505280)
I0403 15:05:43.319190 31123 net.cpp:156] Memory required for data: 1230108192
I0403 15:05:43.319210 31123 layer_factory.hpp:77] Creating layer inception_4e/relu_3x3
I0403 15:05:43.319231 31123 net.cpp:91] Creating Layer inception_4e/relu_3x3
I0403 15:05:43.319248 31123 net.cpp:425] inception_4e/relu_3x3 <- inception_4e/3x3
I0403 15:05:43.319267 31123 net.cpp:386] inception_4e/relu_3x3 -> inception_4e/3x3 (in-place)
I0403 15:05:43.319581 31123 net.cpp:141] Setting up inception_4e/relu_3x3
I0403 15:05:43.319607 31123 net.cpp:148] Top shape: 24 320 14 14 (1505280)
I0403 15:05:43.319623 31123 net.cpp:156] Memory required for data: 1236129312
I0403 15:05:43.319638 31123 layer_factory.hpp:77] Creating layer inception_4e/5x5_reduce
I0403 15:05:43.319663 31123 net.cpp:91] Creating Layer inception_4e/5x5_reduce
I0403 15:05:43.319687 31123 net.cpp:425] inception_4e/5x5_reduce <- inception_4d/output_inception_4d/output_0_split_3
I0403 15:05:43.319707 31123 net.cpp:399] inception_4e/5x5_reduce -> inception_4e/5x5_reduce
I0403 15:05:43.320786 31123 net.cpp:141] Setting up inception_4e/5x5_reduce
I0403 15:05:43.320814 31123 net.cpp:148] Top shape: 24 32 14 14 (150528)
I0403 15:05:43.320830 31123 net.cpp:156] Memory required for data: 1236731424
I0403 15:05:43.320849 31123 layer_factory.hpp:77] Creating layer inception_4e/relu_5x5_reduce
I0403 15:05:43.320868 31123 net.cpp:91] Creating Layer inception_4e/relu_5x5_reduce
I0403 15:05:43.320885 31123 net.cpp:425] inception_4e/relu_5x5_reduce <- inception_4e/5x5_reduce
I0403 15:05:43.320904 31123 net.cpp:386] inception_4e/relu_5x5_reduce -> inception_4e/5x5_reduce (in-place)
I0403 15:05:43.321204 31123 net.cpp:141] Setting up inception_4e/relu_5x5_reduce
I0403 15:05:43.321231 31123 net.cpp:148] Top shape: 24 32 14 14 (150528)
I0403 15:05:43.321247 31123 net.cpp:156] Memory required for data: 1237333536
I0403 15:05:43.321275 31123 layer_factory.hpp:77] Creating layer inception_4e/5x5
I0403 15:05:43.321316 31123 net.cpp:91] Creating Layer inception_4e/5x5
I0403 15:05:43.321337 31123 net.cpp:425] inception_4e/5x5 <- inception_4e/5x5_reduce
I0403 15:05:43.321363 31123 net.cpp:399] inception_4e/5x5 -> inception_4e/5x5
I0403 15:05:43.323231 31123 net.cpp:141] Setting up inception_4e/5x5
I0403 15:05:43.323276 31123 net.cpp:148] Top shape: 24 128 14 14 (602112)
I0403 15:05:43.323293 31123 net.cpp:156] Memory required for data: 1239741984
I0403 15:05:43.323313 31123 layer_factory.hpp:77] Creating layer inception_4e/relu_5x5
I0403 15:05:43.323333 31123 net.cpp:91] Creating Layer inception_4e/relu_5x5
I0403 15:05:43.323361 31123 net.cpp:425] inception_4e/relu_5x5 <- inception_4e/5x5
I0403 15:05:43.323385 31123 net.cpp:386] inception_4e/relu_5x5 -> inception_4e/5x5 (in-place)
I0403 15:05:43.323603 31123 net.cpp:141] Setting up inception_4e/relu_5x5
I0403 15:05:43.323628 31123 net.cpp:148] Top shape: 24 128 14 14 (602112)
I0403 15:05:43.323644 31123 net.cpp:156] Memory required for data: 1242150432
I0403 15:05:43.323659 31123 layer_factory.hpp:77] Creating layer inception_4e/pool
I0403 15:05:43.323678 31123 net.cpp:91] Creating Layer inception_4e/pool
I0403 15:05:43.323696 31123 net.cpp:425] inception_4e/pool <- inception_4d/output_inception_4d/output_0_split_4
I0403 15:05:43.323719 31123 net.cpp:399] inception_4e/pool -> inception_4e/pool
I0403 15:05:43.323788 31123 net.cpp:141] Setting up inception_4e/pool
I0403 15:05:43.323819 31123 net.cpp:148] Top shape: 24 528 14 14 (2483712)
I0403 15:05:43.323837 31123 net.cpp:156] Memory required for data: 1252085280
I0403 15:05:43.323853 31123 layer_factory.hpp:77] Creating layer inception_4e/pool_proj
I0403 15:05:43.323874 31123 net.cpp:91] Creating Layer inception_4e/pool_proj
I0403 15:05:43.323894 31123 net.cpp:425] inception_4e/pool_proj <- inception_4e/pool
I0403 15:05:43.323912 31123 net.cpp:399] inception_4e/pool_proj -> inception_4e/pool_proj
I0403 15:05:43.325422 31123 net.cpp:141] Setting up inception_4e/pool_proj
I0403 15:05:43.325453 31123 net.cpp:148] Top shape: 24 128 14 14 (602112)
I0403 15:05:43.325484 31123 net.cpp:156] Memory required for data: 1254493728
I0403 15:05:43.325503 31123 layer_factory.hpp:77] Creating layer inception_4e/relu_pool_proj
I0403 15:05:43.325522 31123 net.cpp:91] Creating Layer inception_4e/relu_pool_proj
I0403 15:05:43.325539 31123 net.cpp:425] inception_4e/relu_pool_proj <- inception_4e/pool_proj
I0403 15:05:43.325557 31123 net.cpp:386] inception_4e/relu_pool_proj -> inception_4e/pool_proj (in-place)
I0403 15:05:43.325852 31123 net.cpp:141] Setting up inception_4e/relu_pool_proj
I0403 15:05:43.325881 31123 net.cpp:148] Top shape: 24 128 14 14 (602112)
I0403 15:05:43.325898 31123 net.cpp:156] Memory required for data: 1256902176
I0403 15:05:43.325913 31123 layer_factory.hpp:77] Creating layer inception_4e/output
I0403 15:05:43.325932 31123 net.cpp:91] Creating Layer inception_4e/output
I0403 15:05:43.325948 31123 net.cpp:425] inception_4e/output <- inception_4e/1x1
I0403 15:05:43.325965 31123 net.cpp:425] inception_4e/output <- inception_4e/3x3
I0403 15:05:43.325980 31123 net.cpp:425] inception_4e/output <- inception_4e/5x5
I0403 15:05:43.325997 31123 net.cpp:425] inception_4e/output <- inception_4e/pool_proj
I0403 15:05:43.326014 31123 net.cpp:399] inception_4e/output -> inception_4e/output
I0403 15:05:43.326066 31123 net.cpp:141] Setting up inception_4e/output
I0403 15:05:43.326091 31123 net.cpp:148] Top shape: 24 832 14 14 (3913728)
I0403 15:05:43.326105 31123 net.cpp:156] Memory required for data: 1272557088
I0403 15:05:43.326120 31123 layer_factory.hpp:77] Creating layer pool4/3x3_s2
I0403 15:05:43.326139 31123 net.cpp:91] Creating Layer pool4/3x3_s2
I0403 15:05:43.326156 31123 net.cpp:425] pool4/3x3_s2 <- inception_4e/output
I0403 15:05:43.326175 31123 net.cpp:399] pool4/3x3_s2 -> pool4/3x3_s2
I0403 15:05:43.326244 31123 net.cpp:141] Setting up pool4/3x3_s2
I0403 15:05:43.326269 31123 net.cpp:148] Top shape: 24 832 7 7 (978432)
I0403 15:05:43.326284 31123 net.cpp:156] Memory required for data: 1276470816
I0403 15:05:43.326299 31123 layer_factory.hpp:77] Creating layer pool4/3x3_s2_pool4/3x3_s2_0_split
I0403 15:05:43.326318 31123 net.cpp:91] Creating Layer pool4/3x3_s2_pool4/3x3_s2_0_split
I0403 15:05:43.326333 31123 net.cpp:425] pool4/3x3_s2_pool4/3x3_s2_0_split <- pool4/3x3_s2
I0403 15:05:43.326357 31123 net.cpp:399] pool4/3x3_s2_pool4/3x3_s2_0_split -> pool4/3x3_s2_pool4/3x3_s2_0_split_0
I0403 15:05:43.326380 31123 net.cpp:399] pool4/3x3_s2_pool4/3x3_s2_0_split -> pool4/3x3_s2_pool4/3x3_s2_0_split_1
I0403 15:05:43.326400 31123 net.cpp:399] pool4/3x3_s2_pool4/3x3_s2_0_split -> pool4/3x3_s2_pool4/3x3_s2_0_split_2
I0403 15:05:43.326419 31123 net.cpp:399] pool4/3x3_s2_pool4/3x3_s2_0_split -> pool4/3x3_s2_pool4/3x3_s2_0_split_3
I0403 15:05:43.326509 31123 net.cpp:141] Setting up pool4/3x3_s2_pool4/3x3_s2_0_split
I0403 15:05:43.326536 31123 net.cpp:148] Top shape: 24 832 7 7 (978432)
I0403 15:05:43.326555 31123 net.cpp:148] Top shape: 24 832 7 7 (978432)
I0403 15:05:43.326573 31123 net.cpp:148] Top shape: 24 832 7 7 (978432)
I0403 15:05:43.326601 31123 net.cpp:148] Top shape: 24 832 7 7 (978432)
I0403 15:05:43.326616 31123 net.cpp:156] Memory required for data: 1292125728
I0403 15:05:43.326632 31123 layer_factory.hpp:77] Creating layer inception_5a/1x1
I0403 15:05:43.326653 31123 net.cpp:91] Creating Layer inception_5a/1x1
I0403 15:05:43.326671 31123 net.cpp:425] inception_5a/1x1 <- pool4/3x3_s2_pool4/3x3_s2_0_split_0
I0403 15:05:43.326690 31123 net.cpp:399] inception_5a/1x1 -> inception_5a/1x1
I0403 15:05:43.329586 31123 net.cpp:141] Setting up inception_5a/1x1
I0403 15:05:43.329622 31123 net.cpp:148] Top shape: 24 256 7 7 (301056)
I0403 15:05:43.329638 31123 net.cpp:156] Memory required for data: 1293329952
I0403 15:05:43.329658 31123 layer_factory.hpp:77] Creating layer inception_5a/relu_1x1
I0403 15:05:43.329676 31123 net.cpp:91] Creating Layer inception_5a/relu_1x1
I0403 15:05:43.329694 31123 net.cpp:425] inception_5a/relu_1x1 <- inception_5a/1x1
I0403 15:05:43.329713 31123 net.cpp:386] inception_5a/relu_1x1 -> inception_5a/1x1 (in-place)
I0403 15:05:43.330026 31123 net.cpp:141] Setting up inception_5a/relu_1x1
I0403 15:05:43.330055 31123 net.cpp:148] Top shape: 24 256 7 7 (301056)
I0403 15:05:43.330072 31123 net.cpp:156] Memory required for data: 1294534176
I0403 15:05:43.330088 31123 layer_factory.hpp:77] Creating layer inception_5a/3x3_reduce
I0403 15:05:43.330111 31123 net.cpp:91] Creating Layer inception_5a/3x3_reduce
I0403 15:05:43.330128 31123 net.cpp:425] inception_5a/3x3_reduce <- pool4/3x3_s2_pool4/3x3_s2_0_split_1
I0403 15:05:43.330148 31123 net.cpp:399] inception_5a/3x3_reduce -> inception_5a/3x3_reduce
I0403 15:05:43.332612 31123 net.cpp:141] Setting up inception_5a/3x3_reduce
I0403 15:05:43.332641 31123 net.cpp:148] Top shape: 24 160 7 7 (188160)
I0403 15:05:43.332658 31123 net.cpp:156] Memory required for data: 1295286816
I0403 15:05:43.332676 31123 layer_factory.hpp:77] Creating layer inception_5a/relu_3x3_reduce
I0403 15:05:43.332698 31123 net.cpp:91] Creating Layer inception_5a/relu_3x3_reduce
I0403 15:05:43.332716 31123 net.cpp:425] inception_5a/relu_3x3_reduce <- inception_5a/3x3_reduce
I0403 15:05:43.332734 31123 net.cpp:386] inception_5a/relu_3x3_reduce -> inception_5a/3x3_reduce (in-place)
I0403 15:05:43.332924 31123 net.cpp:141] Setting up inception_5a/relu_3x3_reduce
I0403 15:05:43.332953 31123 net.cpp:148] Top shape: 24 160 7 7 (188160)
I0403 15:05:43.332970 31123 net.cpp:156] Memory required for data: 1296039456
I0403 15:05:43.332986 31123 layer_factory.hpp:77] Creating layer inception_5a/3x3
I0403 15:05:43.333010 31123 net.cpp:91] Creating Layer inception_5a/3x3
I0403 15:05:43.333029 31123 net.cpp:425] inception_5a/3x3 <- inception_5a/3x3_reduce
I0403 15:05:43.333048 31123 net.cpp:399] inception_5a/3x3 -> inception_5a/3x3
I0403 15:05:43.338145 31123 net.cpp:141] Setting up inception_5a/3x3
I0403 15:05:43.338177 31123 net.cpp:148] Top shape: 24 320 7 7 (376320)
I0403 15:05:43.338196 31123 net.cpp:156] Memory required for data: 1297544736
I0403 15:05:43.338214 31123 layer_factory.hpp:77] Creating layer inception_5a/relu_3x3
I0403 15:05:43.338233 31123 net.cpp:91] Creating Layer inception_5a/relu_3x3
I0403 15:05:43.338251 31123 net.cpp:425] inception_5a/relu_3x3 <- inception_5a/3x3
I0403 15:05:43.338280 31123 net.cpp:386] inception_5a/relu_3x3 -> inception_5a/3x3 (in-place)
I0403 15:05:43.338624 31123 net.cpp:141] Setting up inception_5a/relu_3x3
I0403 15:05:43.338654 31123 net.cpp:148] Top shape: 24 320 7 7 (376320)
I0403 15:05:43.338671 31123 net.cpp:156] Memory required for data: 1299050016
I0403 15:05:43.338687 31123 layer_factory.hpp:77] Creating layer inception_5a/5x5_reduce
I0403 15:05:43.338711 31123 net.cpp:91] Creating Layer inception_5a/5x5_reduce
I0403 15:05:43.338731 31123 net.cpp:425] inception_5a/5x5_reduce <- pool4/3x3_s2_pool4/3x3_s2_0_split_2
I0403 15:05:43.338752 31123 net.cpp:399] inception_5a/5x5_reduce -> inception_5a/5x5_reduce
I0403 15:05:43.339956 31123 net.cpp:141] Setting up inception_5a/5x5_reduce
I0403 15:05:43.339988 31123 net.cpp:148] Top shape: 24 32 7 7 (37632)
I0403 15:05:43.340006 31123 net.cpp:156] Memory required for data: 1299200544
I0403 15:05:43.340025 31123 layer_factory.hpp:77] Creating layer inception_5a/relu_5x5_reduce
I0403 15:05:43.340044 31123 net.cpp:91] Creating Layer inception_5a/relu_5x5_reduce
I0403 15:05:43.340062 31123 net.cpp:425] inception_5a/relu_5x5_reduce <- inception_5a/5x5_reduce
I0403 15:05:43.340082 31123 net.cpp:386] inception_5a/relu_5x5_reduce -> inception_5a/5x5_reduce (in-place)
I0403 15:05:43.340397 31123 net.cpp:141] Setting up inception_5a/relu_5x5_reduce
I0403 15:05:43.340425 31123 net.cpp:148] Top shape: 24 32 7 7 (37632)
I0403 15:05:43.340441 31123 net.cpp:156] Memory required for data: 1299351072
I0403 15:05:43.340457 31123 layer_factory.hpp:77] Creating layer inception_5a/5x5
I0403 15:05:43.340481 31123 net.cpp:91] Creating Layer inception_5a/5x5
I0403 15:05:43.340502 31123 net.cpp:425] inception_5a/5x5 <- inception_5a/5x5_reduce
I0403 15:05:43.340525 31123 net.cpp:399] inception_5a/5x5 -> inception_5a/5x5
I0403 15:05:43.342299 31123 net.cpp:141] Setting up inception_5a/5x5
I0403 15:05:43.342342 31123 net.cpp:148] Top shape: 24 128 7 7 (150528)
I0403 15:05:43.342365 31123 net.cpp:156] Memory required for data: 1299953184
I0403 15:05:43.342386 31123 layer_factory.hpp:77] Creating layer inception_5a/relu_5x5
I0403 15:05:43.342406 31123 net.cpp:91] Creating Layer inception_5a/relu_5x5
I0403 15:05:43.342422 31123 net.cpp:425] inception_5a/relu_5x5 <- inception_5a/5x5
I0403 15:05:43.342440 31123 net.cpp:386] inception_5a/relu_5x5 -> inception_5a/5x5 (in-place)
I0403 15:05:43.342646 31123 net.cpp:141] Setting up inception_5a/relu_5x5
I0403 15:05:43.342674 31123 net.cpp:148] Top shape: 24 128 7 7 (150528)
I0403 15:05:43.342689 31123 net.cpp:156] Memory required for data: 1300555296
I0403 15:05:43.342705 31123 layer_factory.hpp:77] Creating layer inception_5a/pool
I0403 15:05:43.342725 31123 net.cpp:91] Creating Layer inception_5a/pool
I0403 15:05:43.342741 31123 net.cpp:425] inception_5a/pool <- pool4/3x3_s2_pool4/3x3_s2_0_split_3
I0403 15:05:43.342763 31123 net.cpp:399] inception_5a/pool -> inception_5a/pool
I0403 15:05:43.342835 31123 net.cpp:141] Setting up inception_5a/pool
I0403 15:05:43.342864 31123 net.cpp:148] Top shape: 24 832 7 7 (978432)
I0403 15:05:43.342880 31123 net.cpp:156] Memory required for data: 1304469024
I0403 15:05:43.342895 31123 layer_factory.hpp:77] Creating layer inception_5a/pool_proj
I0403 15:05:43.342917 31123 net.cpp:91] Creating Layer inception_5a/pool_proj
I0403 15:05:43.342936 31123 net.cpp:425] inception_5a/pool_proj <- inception_5a/pool
I0403 15:05:43.342957 31123 net.cpp:399] inception_5a/pool_proj -> inception_5a/pool_proj
I0403 15:05:43.345402 31123 net.cpp:141] Setting up inception_5a/pool_proj
I0403 15:05:43.345433 31123 net.cpp:148] Top shape: 24 128 7 7 (150528)
I0403 15:05:43.345450 31123 net.cpp:156] Memory required for data: 1305071136
I0403 15:05:43.345473 31123 layer_factory.hpp:77] Creating layer inception_5a/relu_pool_proj
I0403 15:05:43.345496 31123 net.cpp:91] Creating Layer inception_5a/relu_pool_proj
I0403 15:05:43.345515 31123 net.cpp:425] inception_5a/relu_pool_proj <- inception_5a/pool_proj
I0403 15:05:43.345535 31123 net.cpp:386] inception_5a/relu_pool_proj -> inception_5a/pool_proj (in-place)
I0403 15:05:43.345842 31123 net.cpp:141] Setting up inception_5a/relu_pool_proj
I0403 15:05:43.345871 31123 net.cpp:148] Top shape: 24 128 7 7 (150528)
I0403 15:05:43.345887 31123 net.cpp:156] Memory required for data: 1305673248
I0403 15:05:43.345903 31123 layer_factory.hpp:77] Creating layer inception_5a/output
I0403 15:05:43.345924 31123 net.cpp:91] Creating Layer inception_5a/output
I0403 15:05:43.345945 31123 net.cpp:425] inception_5a/output <- inception_5a/1x1
I0403 15:05:43.345963 31123 net.cpp:425] inception_5a/output <- inception_5a/3x3
I0403 15:05:43.345981 31123 net.cpp:425] inception_5a/output <- inception_5a/5x5
I0403 15:05:43.345999 31123 net.cpp:425] inception_5a/output <- inception_5a/pool_proj
I0403 15:05:43.346015 31123 net.cpp:399] inception_5a/output -> inception_5a/output
I0403 15:05:43.346070 31123 net.cpp:141] Setting up inception_5a/output
I0403 15:05:43.346096 31123 net.cpp:148] Top shape: 24 832 7 7 (978432)
I0403 15:05:43.346110 31123 net.cpp:156] Memory required for data: 1309586976
I0403 15:05:43.346125 31123 layer_factory.hpp:77] Creating layer inception_5a/output_inception_5a/output_0_split
I0403 15:05:43.346143 31123 net.cpp:91] Creating Layer inception_5a/output_inception_5a/output_0_split
I0403 15:05:43.346160 31123 net.cpp:425] inception_5a/output_inception_5a/output_0_split <- inception_5a/output
I0403 15:05:43.346180 31123 net.cpp:399] inception_5a/output_inception_5a/output_0_split -> inception_5a/output_inception_5a/output_0_split_0
I0403 15:05:43.346204 31123 net.cpp:399] inception_5a/output_inception_5a/output_0_split -> inception_5a/output_inception_5a/output_0_split_1
I0403 15:05:43.346225 31123 net.cpp:399] inception_5a/output_inception_5a/output_0_split -> inception_5a/output_inception_5a/output_0_split_2
I0403 15:05:43.346247 31123 net.cpp:399] inception_5a/output_inception_5a/output_0_split -> inception_5a/output_inception_5a/output_0_split_3
I0403 15:05:43.346372 31123 net.cpp:141] Setting up inception_5a/output_inception_5a/output_0_split
I0403 15:05:43.346398 31123 net.cpp:148] Top shape: 24 832 7 7 (978432)
I0403 15:05:43.346415 31123 net.cpp:148] Top shape: 24 832 7 7 (978432)
I0403 15:05:43.346432 31123 net.cpp:148] Top shape: 24 832 7 7 (978432)
I0403 15:05:43.346448 31123 net.cpp:148] Top shape: 24 832 7 7 (978432)
I0403 15:05:43.346462 31123 net.cpp:156] Memory required for data: 1325241888
I0403 15:05:43.346477 31123 layer_factory.hpp:77] Creating layer inception_5b/1x1
I0403 15:05:43.346500 31123 net.cpp:91] Creating Layer inception_5b/1x1
I0403 15:05:43.346520 31123 net.cpp:425] inception_5b/1x1 <- inception_5a/output_inception_5a/output_0_split_0
I0403 15:05:43.346542 31123 net.cpp:399] inception_5b/1x1 -> inception_5b/1x1
I0403 15:05:43.350493 31123 net.cpp:141] Setting up inception_5b/1x1
I0403 15:05:43.350523 31123 net.cpp:148] Top shape: 24 384 7 7 (451584)
I0403 15:05:43.350540 31123 net.cpp:156] Memory required for data: 1327048224
I0403 15:05:43.350558 31123 layer_factory.hpp:77] Creating layer inception_5b/relu_1x1
I0403 15:05:43.350582 31123 net.cpp:91] Creating Layer inception_5b/relu_1x1
I0403 15:05:43.350601 31123 net.cpp:425] inception_5b/relu_1x1 <- inception_5b/1x1
I0403 15:05:43.350620 31123 net.cpp:386] inception_5b/relu_1x1 -> inception_5b/1x1 (in-place)
I0403 15:05:43.350941 31123 net.cpp:141] Setting up inception_5b/relu_1x1
I0403 15:05:43.350970 31123 net.cpp:148] Top shape: 24 384 7 7 (451584)
I0403 15:05:43.350986 31123 net.cpp:156] Memory required for data: 1328854560
I0403 15:05:43.351001 31123 layer_factory.hpp:77] Creating layer inception_5b/3x3_reduce
I0403 15:05:43.351024 31123 net.cpp:91] Creating Layer inception_5b/3x3_reduce
I0403 15:05:43.351043 31123 net.cpp:425] inception_5b/3x3_reduce <- inception_5a/output_inception_5a/output_0_split_1
I0403 15:05:43.351066 31123 net.cpp:399] inception_5b/3x3_reduce -> inception_5b/3x3_reduce
I0403 15:05:43.353863 31123 net.cpp:141] Setting up inception_5b/3x3_reduce
I0403 15:05:43.353893 31123 net.cpp:148] Top shape: 24 192 7 7 (225792)
I0403 15:05:43.353909 31123 net.cpp:156] Memory required for data: 1329757728
I0403 15:05:43.353929 31123 layer_factory.hpp:77] Creating layer inception_5b/relu_3x3_reduce
I0403 15:05:43.353950 31123 net.cpp:91] Creating Layer inception_5b/relu_3x3_reduce
I0403 15:05:43.353970 31123 net.cpp:425] inception_5b/relu_3x3_reduce <- inception_5b/3x3_reduce
I0403 15:05:43.353988 31123 net.cpp:386] inception_5b/relu_3x3_reduce -> inception_5b/3x3_reduce (in-place)
I0403 15:05:43.354189 31123 net.cpp:141] Setting up inception_5b/relu_3x3_reduce
I0403 15:05:43.354219 31123 net.cpp:148] Top shape: 24 192 7 7 (225792)
I0403 15:05:43.354234 31123 net.cpp:156] Memory required for data: 1330660896
I0403 15:05:43.354249 31123 layer_factory.hpp:77] Creating layer inception_5b/3x3
I0403 15:05:43.354272 31123 net.cpp:91] Creating Layer inception_5b/3x3
I0403 15:05:43.354292 31123 net.cpp:425] inception_5b/3x3 <- inception_5b/3x3_reduce
I0403 15:05:43.354316 31123 net.cpp:399] inception_5b/3x3 -> inception_5b/3x3
I0403 15:05:43.361310 31123 net.cpp:141] Setting up inception_5b/3x3
I0403 15:05:43.361341 31123 net.cpp:148] Top shape: 24 384 7 7 (451584)
I0403 15:05:43.361363 31123 net.cpp:156] Memory required for data: 1332467232
I0403 15:05:43.361384 31123 layer_factory.hpp:77] Creating layer inception_5b/relu_3x3
I0403 15:05:43.361407 31123 net.cpp:91] Creating Layer inception_5b/relu_3x3
I0403 15:05:43.361426 31123 net.cpp:425] inception_5b/relu_3x3 <- inception_5b/3x3
I0403 15:05:43.361445 31123 net.cpp:386] inception_5b/relu_3x3 -> inception_5b/3x3 (in-place)
I0403 15:05:43.361769 31123 net.cpp:141] Setting up inception_5b/relu_3x3
I0403 15:05:43.361798 31123 net.cpp:148] Top shape: 24 384 7 7 (451584)
I0403 15:05:43.361814 31123 net.cpp:156] Memory required for data: 1334273568
I0403 15:05:43.361829 31123 layer_factory.hpp:77] Creating layer inception_5b/5x5_reduce
I0403 15:05:43.361873 31123 net.cpp:91] Creating Layer inception_5b/5x5_reduce
I0403 15:05:43.361894 31123 net.cpp:425] inception_5b/5x5_reduce <- inception_5a/output_inception_5a/output_0_split_2
I0403 15:05:43.361915 31123 net.cpp:399] inception_5b/5x5_reduce -> inception_5b/5x5_reduce
I0403 15:05:43.363234 31123 net.cpp:141] Setting up inception_5b/5x5_reduce
I0403 15:05:43.363281 31123 net.cpp:148] Top shape: 24 48 7 7 (56448)
I0403 15:05:43.363301 31123 net.cpp:156] Memory required for data: 1334499360
I0403 15:05:43.363320 31123 layer_factory.hpp:77] Creating layer inception_5b/relu_5x5_reduce
I0403 15:05:43.363340 31123 net.cpp:91] Creating Layer inception_5b/relu_5x5_reduce
I0403 15:05:43.363371 31123 net.cpp:425] inception_5b/relu_5x5_reduce <- inception_5b/5x5_reduce
I0403 15:05:43.363394 31123 net.cpp:386] inception_5b/relu_5x5_reduce -> inception_5b/5x5_reduce (in-place)
I0403 15:05:43.363806 31123 net.cpp:141] Setting up inception_5b/relu_5x5_reduce
I0403 15:05:43.363833 31123 net.cpp:148] Top shape: 24 48 7 7 (56448)
I0403 15:05:43.363849 31123 net.cpp:156] Memory required for data: 1334725152
I0403 15:05:43.363865 31123 layer_factory.hpp:77] Creating layer inception_5b/5x5
I0403 15:05:43.363886 31123 net.cpp:91] Creating Layer inception_5b/5x5
I0403 15:05:43.363905 31123 net.cpp:425] inception_5b/5x5 <- inception_5b/5x5_reduce
I0403 15:05:43.363925 31123 net.cpp:399] inception_5b/5x5 -> inception_5b/5x5
I0403 15:05:43.366081 31123 net.cpp:141] Setting up inception_5b/5x5
I0403 15:05:43.366112 31123 net.cpp:148] Top shape: 24 128 7 7 (150528)
I0403 15:05:43.366132 31123 net.cpp:156] Memory required for data: 1335327264
I0403 15:05:43.366150 31123 layer_factory.hpp:77] Creating layer inception_5b/relu_5x5
I0403 15:05:43.366170 31123 net.cpp:91] Creating Layer inception_5b/relu_5x5
I0403 15:05:43.366188 31123 net.cpp:425] inception_5b/relu_5x5 <- inception_5b/5x5
I0403 15:05:43.366209 31123 net.cpp:386] inception_5b/relu_5x5 -> inception_5b/5x5 (in-place)
I0403 15:05:43.366417 31123 net.cpp:141] Setting up inception_5b/relu_5x5
I0403 15:05:43.366444 31123 net.cpp:148] Top shape: 24 128 7 7 (150528)
I0403 15:05:43.366459 31123 net.cpp:156] Memory required for data: 1335929376
I0403 15:05:43.366475 31123 layer_factory.hpp:77] Creating layer inception_5b/pool
I0403 15:05:43.366494 31123 net.cpp:91] Creating Layer inception_5b/pool
I0403 15:05:43.366511 31123 net.cpp:425] inception_5b/pool <- inception_5a/output_inception_5a/output_0_split_3
I0403 15:05:43.366535 31123 net.cpp:399] inception_5b/pool -> inception_5b/pool
I0403 15:05:43.366612 31123 net.cpp:141] Setting up inception_5b/pool
I0403 15:05:43.366638 31123 net.cpp:148] Top shape: 24 832 7 7 (978432)
I0403 15:05:43.366653 31123 net.cpp:156] Memory required for data: 1339843104
I0403 15:05:43.366668 31123 layer_factory.hpp:77] Creating layer inception_5b/pool_proj
I0403 15:05:43.366693 31123 net.cpp:91] Creating Layer inception_5b/pool_proj
I0403 15:05:43.366713 31123 net.cpp:425] inception_5b/pool_proj <- inception_5b/pool
I0403 15:05:43.366734 31123 net.cpp:399] inception_5b/pool_proj -> inception_5b/pool_proj
I0403 15:05:43.369151 31123 net.cpp:141] Setting up inception_5b/pool_proj
I0403 15:05:43.369184 31123 net.cpp:148] Top shape: 24 128 7 7 (150528)
I0403 15:05:43.369202 31123 net.cpp:156] Memory required for data: 1340445216
I0403 15:05:43.369222 31123 layer_factory.hpp:77] Creating layer inception_5b/relu_pool_proj
I0403 15:05:43.369242 31123 net.cpp:91] Creating Layer inception_5b/relu_pool_proj
I0403 15:05:43.369259 31123 net.cpp:425] inception_5b/relu_pool_proj <- inception_5b/pool_proj
I0403 15:05:43.369277 31123 net.cpp:386] inception_5b/relu_pool_proj -> inception_5b/pool_proj (in-place)
I0403 15:05:43.369591 31123 net.cpp:141] Setting up inception_5b/relu_pool_proj
I0403 15:05:43.369621 31123 net.cpp:148] Top shape: 24 128 7 7 (150528)
I0403 15:05:43.369638 31123 net.cpp:156] Memory required for data: 1341047328
I0403 15:05:43.369654 31123 layer_factory.hpp:77] Creating layer inception_5b/output
I0403 15:05:43.369673 31123 net.cpp:91] Creating Layer inception_5b/output
I0403 15:05:43.369706 31123 net.cpp:425] inception_5b/output <- inception_5b/1x1
I0403 15:05:43.369726 31123 net.cpp:425] inception_5b/output <- inception_5b/3x3
I0403 15:05:43.369745 31123 net.cpp:425] inception_5b/output <- inception_5b/5x5
I0403 15:05:43.369761 31123 net.cpp:425] inception_5b/output <- inception_5b/pool_proj
I0403 15:05:43.369781 31123 net.cpp:399] inception_5b/output -> inception_5b/output
I0403 15:05:43.369835 31123 net.cpp:141] Setting up inception_5b/output
I0403 15:05:43.369861 31123 net.cpp:148] Top shape: 24 1024 7 7 (1204224)
I0403 15:05:43.369877 31123 net.cpp:156] Memory required for data: 1345864224
I0403 15:05:43.369892 31123 layer_factory.hpp:77] Creating layer pool5/7x7_s1
I0403 15:05:43.369913 31123 net.cpp:91] Creating Layer pool5/7x7_s1
I0403 15:05:43.369930 31123 net.cpp:425] pool5/7x7_s1 <- inception_5b/output
I0403 15:05:43.369951 31123 net.cpp:399] pool5/7x7_s1 -> pool5/7x7_s1
I0403 15:05:43.370178 31123 net.cpp:141] Setting up pool5/7x7_s1
I0403 15:05:43.370208 31123 net.cpp:148] Top shape: 24 1024 1 1 (24576)
I0403 15:05:43.370225 31123 net.cpp:156] Memory required for data: 1345962528
I0403 15:05:43.370241 31123 layer_factory.hpp:77] Creating layer pool5/drop_7x7_s1
I0403 15:05:43.370260 31123 net.cpp:91] Creating Layer pool5/drop_7x7_s1
I0403 15:05:43.370277 31123 net.cpp:425] pool5/drop_7x7_s1 <- pool5/7x7_s1
I0403 15:05:43.370296 31123 net.cpp:386] pool5/drop_7x7_s1 -> pool5/7x7_s1 (in-place)
I0403 15:05:43.370353 31123 net.cpp:141] Setting up pool5/drop_7x7_s1
I0403 15:05:43.370378 31123 net.cpp:148] Top shape: 24 1024 1 1 (24576)
I0403 15:05:43.370407 31123 net.cpp:156] Memory required for data: 1346060832
I0403 15:05:43.370424 31123 layer_factory.hpp:77] Creating layer loss3/classifier_plantvillage
I0403 15:05:43.370446 31123 net.cpp:91] Creating Layer loss3/classifier_plantvillage
I0403 15:05:43.370465 31123 net.cpp:425] loss3/classifier_plantvillage <- pool5/7x7_s1
I0403 15:05:43.370483 31123 net.cpp:399] loss3/classifier_plantvillage -> loss3/classifier_plantvillage
I0403 15:05:43.370920 31123 net.cpp:141] Setting up loss3/classifier_plantvillage
I0403 15:05:43.370947 31123 net.cpp:148] Top shape: 24 38 (912)
I0403 15:05:43.370962 31123 net.cpp:156] Memory required for data: 1346064480
I0403 15:05:43.370982 31123 layer_factory.hpp:77] Creating layer loss3/classifier_plantvillage_loss3/classifier_plantvillage_0_split
I0403 15:05:43.371001 31123 net.cpp:91] Creating Layer loss3/classifier_plantvillage_loss3/classifier_plantvillage_0_split
I0403 15:05:43.371017 31123 net.cpp:425] loss3/classifier_plantvillage_loss3/classifier_plantvillage_0_split <- loss3/classifier_plantvillage
I0403 15:05:43.371039 31123 net.cpp:399] loss3/classifier_plantvillage_loss3/classifier_plantvillage_0_split -> loss3/classifier_plantvillage_loss3/classifier_plantvillage_0_split_0
I0403 15:05:43.371062 31123 net.cpp:399] loss3/classifier_plantvillage_loss3/classifier_plantvillage_0_split -> loss3/classifier_plantvillage_loss3/classifier_plantvillage_0_split_1
I0403 15:05:43.371083 31123 net.cpp:399] loss3/classifier_plantvillage_loss3/classifier_plantvillage_0_split -> loss3/classifier_plantvillage_loss3/classifier_plantvillage_0_split_2
I0403 15:05:43.371105 31123 net.cpp:399] loss3/classifier_plantvillage_loss3/classifier_plantvillage_0_split -> loss3/classifier_plantvillage_loss3/classifier_plantvillage_0_split_3
I0403 15:05:43.371214 31123 net.cpp:141] Setting up loss3/classifier_plantvillage_loss3/classifier_plantvillage_0_split
I0403 15:05:43.371240 31123 net.cpp:148] Top shape: 24 38 (912)
I0403 15:05:43.371256 31123 net.cpp:148] Top shape: 24 38 (912)
I0403 15:05:43.371273 31123 net.cpp:148] Top shape: 24 38 (912)
I0403 15:05:43.371289 31123 net.cpp:148] Top shape: 24 38 (912)
I0403 15:05:43.371304 31123 net.cpp:156] Memory required for data: 1346079072
I0403 15:05:43.371318 31123 layer_factory.hpp:77] Creating layer loss1/loss
I0403 15:05:43.371341 31123 net.cpp:91] Creating Layer loss1/loss
I0403 15:05:43.371364 31123 net.cpp:425] loss1/loss <- loss1/classifier_plantvillage_loss1/classifier_plantvillage_0_split_0
I0403 15:05:43.371398 31123 net.cpp:425] loss1/loss <- label_data_1_split_0
…
