…
I0403 14:57:28.060248 30670 net.cpp:313] The NetState phase (1) differed from the phase (0) specified by a rule in layer data
I0403 14:57:28.061477 30670 net.cpp:49] Initializing net from parameters: 
state {
  phase: TEST
}
layer {
  name: "data"
  type: "Data"
  top: "data"
  top: "label"
  include {
    phase: TEST
  }
  transform_param {
    mirror: false
    crop_size: 224
    mean_file: "/home/mohanty/data/final_dataset/lmdb/color-20-80/mean.binaryproto"
  }
  data_param {
    source: "/home/mohanty/data/final_dataset/lmdb/color-20-80/test_db"
    batch_size: 24
    backend: LMDB
  }
}
layer {
  name: "conv1/7x7_s2"
  type: "Convolution"
  bottom: "data"
  top: "conv1/7x7_s2"
  param {
    lr_mult: 1
    decay_mult: 1
  }
  param {
    lr_mult: 2
    decay_mult: 0
  }
  convolution_param {
    num_output: 64
    pad: 3
    kernel_size: 7
    stride: 2
    weight_filler {
      type: "xavier"
      std: 0.1
    }
    bias_filler {
      type: "constant"
      value: 0.2
    }
  }
}
layer {
  name: "conv1/relu_7x7"
  type: "ReLU"
  bottom: "conv1/7x7_s2"
  top: "conv1/7x7_s2"
}
layer {
  name: "pool1/3x3_s2"
  type: "Pooling"
  bottom: "conv1/7x7_s2"
  top: "pool1/3x3_s2"
  pooling_param {
    pool: MAX
    kernel_size: 3
    stride: 2
  }
}
layer {
  name: "pool1/norm1"
  type: "LRN"
  bottom: "pool1/3x3_s2"
  top: "pool1/norm1"
  lrn_param {
    local_size: 5
    alpha: 0.0001
    beta: 0.75
  }
}
layer {
  name: "conv2/3x3_reduce"
  type: "Convolution"
  bottom: "pool1/norm1"
  top: "conv2/3x3_reduce"
  param {
    lr_mult: 1
    decay_mult: 1
  }
  param {
    lr_mult: 2
    decay_mult: 0
  }
  convolution_param {
    num_output: 64
    kernel_size: 1
    weight_filler {
      type: "xavier"
      std: 0.1
    }
    bias_filler {
      type: "constant"
      value: 0.2
    }
  }
}
layer {
  name: "conv2/relu_3x3_reduce"
  type: "ReLU"
  bottom: "conv2/3x3_reduce"
  top: "conv2/3x3_reduce"
}
layer {
  name: "conv2/3x3"
  type: "Convolution"
  bottom: "conv2/3x3_reduce"
  top: "conv2/3x3"
  param {
    lr_mult: 1
    decay_mult: 1
  }
  param {
    lr_mult: 2
    decay_mult: 0
  }
  convolution_param {
    num_output: 192
    pad: 1
    kernel_size: 3
    weight_filler {
      type: "xavier"
      std: 0.03
    }
    bias_filler {
      type: "constant"
      value: 0.2
    }
  }
}
layer {
  name: "conv2/relu_3x3"
  type: "ReLU"
  bottom: "conv2/3x3"
  top: "conv2/3x3"
}
layer {
  name: "conv2/norm2"
  type: "LRN"
  bottom: "conv2/3x3"
  top: "conv2/norm2"
  lrn_param {
    local_size: 5
    alpha: 0.0001
    beta: 0.75
  }
}
layer {
  name: "pool2/3x3_s2"
  type: "Pooling"
  bottom: "conv2/norm2"
  top: "pool2/3x3_s2"
  pooling_param {
    pool: MAX
    kernel_size: 3
    stride: 2
  }
}
layer {
  name: "inception_3a/1x1"
  type: "Convolution"
  bottom: "pool2/3x3_s2"
  top: "inception_3a/1x1"
  param {
    lr_mult: 1
    decay_mult: 1
  }
  param {
    lr_mult: 2
    decay_mult: 0
  }
  convolution_param {
    num_output: 64
    kernel_size: 1
    weight_filler {
      type: "xavier"
      std: 0.03
    }
    bias_filler {
      type: "constant"
      value: 0.2
    }
  }
}
layer {
  name: "inception_3a/relu_1x1"
  type: "ReLU"
  bottom: "inception_3a/1x1"
  top: "inception_3a/1x1"
}
layer {
  name: "inception_3a/3x3_reduce"
  type: "Convolution"
  bottom: "pool2/3x3_s2"
  top: "inception_3a/3x3_reduce"
  param {
    lr_mult: 1
    decay_mult: 1
  }
  param {
    lr_mult: 2
    decay_mult: 0
  }
  convolution_param {
    num_output: 96
    kernel_size: 1
    weight_filler {
      type: "xavier"
      std: 0.09
    }
    bias_filler {
      type: "constant"
      value: 0.2
    }
  }
}
layer {
  name: "inception_3a/relu_3x3_reduce"
  type: "ReLU"
  bottom: "inception_3a/3x3_reduce"
  top: "inception_3a/3x3_reduce"
}
layer {
  name: "inception_3a/3x3"
  type: "Convolution"
  bottom: "inception_3a/3x3_reduce"
  top: "inception_3a/3x3"
  param {
    lr_mult: 1
    decay_mult: 1
  }
  param {
    lr_mult: 2
    decay_mult: 0
  }
  convolution_param {
    num_output: 128
    pad: 1
    kernel_size: 3
    weight_filler {
      type: "xavier"
      std: 0.03
    }
    bias_filler {
      type: "constant"
      value: 0.2
    }
  }
}
layer {
  name: "inception_3a/relu_3x3"
  type: "ReLU"
  bottom: "inception_3a/3x3"
  top: "inception_3a/3x3"
}
layer {
  name: "inception_3a/5x5_reduce"
  type: "Convolution"
  bottom: "pool2/3x3_s2"
  top: "inception_3a/5x5_reduce"
  param {
    lr_mult: 1
    decay_mult: 1
  }
  param {
    lr_mult: 2
    decay_mult: 0
  }
  convolution_param {
    num_output: 16
    kernel_size: 1
    weight_filler {
      type: "xavier"
      std: 0.2
    }
    bias_filler {
      type: "constant"
      value: 0.2
    }
  }
}
layer {
  name: "inception_3a/relu_5x5_reduce"
  type: "ReLU"
  bottom: "inception_3a/5x5_reduce"
  top: "inception_3a/5x5_reduce"
}
layer {
  name: "inception_3a/5x5"
  type: "Convolution"
  bottom: "inception_3a/5x5_reduce"
  top: "inception_3a/5x5"
  param {
    lr_mult: 1
    decay_mult: 1
  }
  param {
    lr_mult: 2
    decay_mult: 0
  }
  convolution_param {
    num_output: 32
    pad: 2
    kernel_size: 5
    weight_filler {
      type: "xavier"
      std: 0.03
    }
    bias_filler {
      type: "constant"
      value: 0.2
    }
  }
}
layer {
  name: "inception_3a/relu_5x5"
  type: "ReLU"
  bottom: "inception_3a/5x5"
  top: "inception_3a/5x5"
}
layer {
  name: "inception_3a/pool"
  type: "Pooling"
  bottom: "pool2/3x3_s2"
  top: "inception_3a/pool"
  pooling_param {
    pool: MAX
    kernel_size: 3
    stride: 1
    pad: 1
  }
}
layer {
  name: "inception_3a/pool_proj"
  type: "Convolution"
  bottom: "inception_3a/pool"
  top: "inception_3a/pool_proj"
  param {
    lr_mult: 1
    decay_mult: 1
  }
  param {
    lr_mult: 2
    decay_mult: 0
  }
  convolution_param {
    num_output: 32
    kernel_size: 1
    weight_filler {
      type: "xavier"
      std: 0.1
    }
    bias_filler {
      type: "constant"
      value: 0.2
    }
  }
}
layer {
  name: "inception_3a/relu_pool_proj"
  type: "ReLU"
  bottom: "inception_3a/pool_proj"
  top: "inception_3a/pool_proj"
}
layer {
  name: "inception_3a/output"
  type: "Concat"
  bottom: "inception_3a/1x1"
  bottom: "inception_3a/3x3"
  bottom: "inception_3a/5x5"
  bottom: "inception_3a/pool_proj"
  top: "inception_3a/output"
}
layer {
  name: "inception_3b/1x1"
  type: "Convolution"
  bottom: "inception_3a/output"
  top: "inception_3b/1x1"
  param {
    lr_mult: 1
    decay_mult: 1
  }
  param {
    lr_mult: 2
    decay_mult: 0
  }
  convolution_param {
    num_output: 128
    kernel_size: 1
    weight_filler {
      type: "xavier"
      std: 0.03
    }
    bias_filler {
      type: "constant"
      value: 0.2
    }
  }
}
layer {
  name: "inception_3b/relu_1x1"
  type: "ReLU"
  bottom: "inception_3b/1x1"
  top: "inception_3b/1x1"
}
layer {
  name: "inception_3b/3x3_reduce"
  type: "Convolution"
  bottom: "inception_3a/output"
  top: "inception_3b/3x3_reduce"
  param {
    lr_mult: 1
    decay_mult: 1
  }
  param {
    lr_mult: 2
    decay_mult: 0
  }
  convolution_param {
    num_output: 128
    kernel_size: 1
    weight_filler {
      type: "xavier"
      std: 0.09
    }
    bias_filler {
      type: "constant"
      value: 0.2
    }
  }
}
layer {
  name: "inception_3b/relu_3x3_reduce"
  type: "ReLU"
  bottom: "inception_3b/3x3_reduce"
  top: "inception_3b/3x3_reduce"
}
layer {
  name: "inception_3b/3x3"
  type: "Convolution"
  bottom: "inception_3b/3x3_reduce"
  top: "inception_3b/3x3"
  param {
    lr_mult: 1
    decay_mult: 1
  }
  param {
    lr_mult: 2
    decay_mult: 0
  }
  convolution_param {
    num_output: 192
    pad: 1
    kernel_size: 3
    weight_filler {
      type: "xavier"
      std: 0.03
    }
    bias_filler {
      type: "constant"
      value: 0.2
    }
  }
}
layer {
  name: "inception_3b/relu_3x3"
  type: "ReLU"
  bottom: "inception_3b/3x3"
  top: "inception_3b/3x3"
}
layer {
  name: "inception_3b/5x5_reduce"
  type: "Convolution"
  bottom: "inception_3a/output"
  top: "inception_3b/5x5_reduce"
  param {
    lr_mult: 1
    decay_mult: 1
  }
  param {
    lr_mult: 2
    decay_mult: 0
  }
  convolution_param {
    num_output: 32
    kernel_size: 1
    weight_filler {
      type: "xavier"
      std: 0.2
    }
    bias_filler {
      type: "constant"
      value: 0.2
    }
  }
}
layer {
  name: "inception_3b/relu_5x5_reduce"
  type: "ReLU"
  bottom: "inception_3b/5x5_reduce"
  top: "inception_3b/5x5_reduce"
}
layer {
  name: "inception_3b/5x5"
  type: "Convolution"
  bottom: "inception_3b/5x5_reduce"
  top: "inception_3b/5x5"
  param {
    lr_mult: 1
    decay_mult: 1
  }
  param {
    lr_mult: 2
    decay_mult: 0
  }
  convolution_param {
    num_output: 96
    pad: 2
    kernel_size: 5
    weight_filler {
      type: "xavier"
      std: 0.03
    }
    bias_filler {
      type: "constant"
      value: 0.2
    }
  }
}
layer {
  name: "inception_3b/relu_5x5"
  type: "ReLU"
  bottom: "inception_3b/5x5"
  top: "inception_3b/5x5"
}
layer {
  name: "inception_3b/pool"
  type: "Pooling"
  bottom: "inception_3a/output"
  top: "inception_3b/pool"
  pooling_param {
    pool: MAX
    kernel_size: 3
    stride: 1
    pad: 1
  }
}
layer {
  name: "inception_3b/pool_proj"
  type: "Convolution"
  bottom: "inception_3b/pool"
  top: "inception_3b/pool_proj"
  param {
    lr_mult: 1
    decay_mult: 1
  }
  param {
    lr_mult: 2
    decay_mult: 0
  }
  convolution_param {
    num_output: 64
    kernel_size: 1
    weight_filler {
      type: "xavier"
      std: 0.1
    }
    bias_filler {
      type: "constant"
      value: 0.2
    }
  }
}
layer {
  name: "inception_3b/relu_pool_proj"
  type: "ReLU"
  bottom: "inception_3b/pool_proj"
  top: "inception_3b/pool_proj"
}
layer {
  name: "inception_3b/output"
  type: "Concat"
  bottom: "inception_3b/1x1"
  bottom: "inception_3b/3x3"
  bottom: "inception_3b/5x5"
  bottom: "inception_3b/pool_proj"
  top: "inception_3b/output"
}
layer {
  name: "pool3/3x3_s2"
  type: "Pooling"
  bottom: "inception_3b/output"
  top: "pool3/3x3_s2"
  pooling_param {
    pool: MAX
    kernel_size: 3
    stride: 2
  }
}
layer {
  name: "inception_4a/1x1"
  type: "Convolution"
  bottom: "pool3/3x3_s2"
  top: "inception_4a/1x1"
  param {
    lr_mult: 1
    decay_mult: 1
  }
  param {
    lr_mult: 2
    decay_mult: 0
  }
  convolution_param {
    num_output: 192
    kernel_size: 1
    weight_filler {
      type: "xavier"
      std: 0.03
    }
    bias_filler {
      type: "constant"
      value: 0.2
    }
  }
}
layer {
  name: "inception_4a/relu_1x1"
  type: "ReLU"
  bottom: "inception_4a/1x1"
  top: "inception_4a/1x1"
}
layer {
  name: "inception_4a/3x3_reduce"
  type: "Convolution"
  bottom: "pool3/3x3_s2"
  top: "inception_4a/3x3_reduce"
  param {
    lr_mult: 1
    decay_mult: 1
  }
  param {
    lr_mult: 2
    decay_mult: 0
  }
  convolution_param {
    num_output: 96
    kernel_size: 1
    weight_filler {
      type: "xavier"
      std: 0.09
    }
    bias_filler {
      type: "constant"
      value: 0.2
    }
  }
}
layer {
  name: "inception_4a/relu_3x3_reduce"
  type: "ReLU"
  bottom: "inception_4a/3x3_reduce"
  top: "inception_4a/3x3_reduce"
}
layer {
  name: "inception_4a/3x3"
  type: "Convolution"
  bottom: "inception_4a/3x3_reduce"
  top: "inception_4a/3x3"
  param {
    lr_mult: 1
    decay_mult: 1
  }
  param {
    lr_mult: 2
    decay_mult: 0
  }
  convolution_param {
    num_output: 208
    pad: 1
    kernel_size: 3
    weight_filler {
      type: "xavier"
      std: 0.03
    }
    bias_filler {
      type: "constant"
      value: 0.2
    }
  }
}
layer {
  name: "inception_4a/relu_3x3"
  type: "ReLU"
  bottom: "inception_4a/3x3"
  top: "inception_4a/3x3"
}
layer {
  name: "inception_4a/5x5_reduce"
  type: "Convolution"
  bottom: "pool3/3x3_s2"
  top: "inception_4a/5x5_reduce"
  param {
    lr_mult: 1
    decay_mult: 1
  }
  param {
    lr_mult: 2
    decay_mult: 0
  }
  convolution_param {
    num_output: 16
    kernel_size: 1
    weight_filler {
      type: "xavier"
      std: 0.2
    }
    bias_filler {
      type: "constant"
      value: 0.2
    }
  }
}
layer {
  name: "inception_4a/relu_5x5_reduce"
  type: "ReLU"
  bottom: "inception_4a/5x5_reduce"
  top: "inception_4a/5x5_reduce"
}
layer {
  name: "inception_4a/5x5"
  type: "Convolution"
  bottom: "inception_4a/5x5_reduce"
  top: "inception_4a/5x5"
  param {
    lr_mult: 1
    decay_mult: 1
  }
  param {
    lr_mult: 2
    decay_mult: 0
  }
  convolution_param {
    num_output: 48
    pad: 2
    kernel_size: 5
    weight_filler {
      type: "xavier"
      std: 0.03
    }
    bias_filler {
      type: "constant"
      value: 0.2
    }
  }
}
layer {
  name: "inception_4a/relu_5x5"
  type: "ReLU"
  bottom: "inception_4a/5x5"
  top: "inception_4a/5x5"
}
layer {
  name: "inception_4a/pool"
  type: "Pooling"
  bottom: "pool3/3x3_s2"
  top: "inception_4a/pool"
  pooling_param {
    pool: MAX
    kernel_size: 3
    stride: 1
    pad: 1
  }
}
layer {
  name: "inception_4a/pool_proj"
  type: "Convolution"
  bottom: "inception_4a/pool"
  top: "inception_4a/pool_proj"
  param {
    lr_mult: 1
    decay_mult: 1
  }
  param {
    lr_mult: 2
    decay_mult: 0
  }
  convolution_param {
    num_output: 64
    kernel_size: 1
    weight_filler {
      type: "xavier"
      std: 0.1
    }
    bias_filler {
      type: "constant"
      value: 0.2
    }
  }
}
layer {
  name: "inception_4a/relu_pool_proj"
  type: "ReLU"
  bottom: "inception_4a/pool_proj"
  top: "inception_4a/pool_proj"
}
layer {
  name: "inception_4a/output"
  type: "Concat"
  bottom: "inception_4a/1x1"
  bottom: "inception_4a/3x3"
  bottom: "inception_4a/5x5"
  bottom: "inception_4a/pool_proj"
  top: "inception_4a/output"
}
layer {
  name: "loss1/ave_pool"
  type: "Pooling"
  bottom: "inception_4a/output"
  top: "loss1/ave_pool"
  pooling_param {
    pool: AVE
    kernel_size: 5
    stride: 3
  }
}
layer {
  name: "loss1/conv"
  type: "Convolution"
  bottom: "loss1/ave_pool"
  top: "loss1/conv"
  param {
    lr_mult: 1
    decay_mult: 1
  }
  param {
    lr_mult: 2
    decay_mult: 0
  }
  convolution_param {
    num_output: 128
    kernel_size: 1
    weight_filler {
      type: "xavier"
      std: 0.08
    }
    bias_filler {
      type: "constant"
      value: 0.2
    }
  }
}
layer {
  name: "loss1/relu_conv"
  type: "ReLU"
  bottom: "loss1/conv"
  top: "loss1/conv"
}
layer {
  name: "loss1/fc"
  type: "InnerProduct"
  bottom: "loss1/conv"
  top: "loss1/fc"
  param {
    lr_mult: 1
    decay_mult: 1
  }
  param {
    lr_mult: 2
    decay_mult: 0
  }
  inner_product_param {
    num_output: 1024
    weight_filler {
      type: "xavier"
      std: 0.02
    }
    bias_filler {
      type: "constant"
      value: 0.2
    }
  }
}
layer {
  name: "loss1/relu_fc"
  type: "ReLU"
  bottom: "loss1/fc"
  top: "loss1/fc"
}
layer {
  name: "loss1/drop_fc"
  type: "Dropout"
  bottom: "loss1/fc"
  top: "loss1/fc"
  dropout_param {
    dropout_ratio: 0.7
  }
}
layer {
  name: "loss1/classifier_plantvillage"
  type: "InnerProduct"
  bottom: "loss1/fc"
  top: "loss1/classifier_plantvillage"
  param {
    lr_mult: 1
    decay_mult: 1
  }
  param {
    lr_mult: 2
    decay_mult: 0
  }
  inner_product_param {
    num_output: 38
    weight_filler {
      type: "xavier"
      std: 0.0009765625
    }
    bias_filler {
      type: "constant"
      value: 0
    }
  }
}
layer {
  name: "inception_4b/1x1"
  type: "Convolution"
  bottom: "inception_4a/output"
  top: "inception_4b/1x1"
  param {
    lr_mult: 1
    decay_mult: 1
  }
  param {
    lr_mult: 2
    decay_mult: 0
  }
  convolution_param {
    num_output: 160
    kernel_size: 1
    weight_filler {
      type: "xavier"
      std: 0.03
    }
    bias_filler {
      type: "constant"
      value: 0.2
    }
  }
}
layer {
  name: "inception_4b/relu_1x1"
  type: "ReLU"
  bottom: "inception_4b/1x1"
  top: "inception_4b/1x1"
}
layer {
  name: "inception_4b/3x3_reduce"
  type: "Convolution"
  bottom: "inception_4a/output"
  top: "inception_4b/3x3_reduce"
  param {
    lr_mult: 1
    decay_mult: 1
  }
  param {
    lr_mult: 2
    decay_mult: 0
  }
  convolution_param {
    num_output: 112
    kernel_size: 1
    weight_filler {
      type: "xavier"
      std: 0.09
    }
    bias_filler {
      type: "constant"
      value: 0.2
    }
  }
}
layer {
  name: "inception_4b/relu_3x3_reduce"
  type: "ReLU"
  bottom: "inception_4b/3x3_reduce"
  top: "inception_4b/3x3_reduce"
}
layer {
  name: "inception_4b/3x3"
  type: "Convolution"
  bottom: "inception_4b/3x3_reduce"
  top: "inception_4b/3x3"
  param {
    lr_mult: 1
    decay_mult: 1
  }
  param {
    lr_mult: 2
    decay_mult: 0
  }
  convolution_param {
    num_output: 224
    pad: 1
    kernel_size: 3
    weight_filler {
      type: "xavier"
      std: 0.03
    }
    bias_filler {
      type: "constant"
      value: 0.2
    }
  }
}
layer {
  name: "inception_4b/relu_3x3"
  type: "ReLU"
  bottom: "inception_4b/3x3"
  top: "inception_4b/3x3"
}
layer {
  name: "inception_4b/5x5_reduce"
  type: "Convolution"
  bottom: "inception_4a/output"
  top: "inception_4b/5x5_reduce"
  param {
    lr_mult: 1
    decay_mult: 1
  }
  param {
    lr_mult: 2
    decay_mult: 0
  }
  convolution_param {
    num_output: 24
    kernel_size: 1
    weight_filler {
      type: "xavier"
      std: 0.2
    }
    bias_filler {
      type: "constant"
      value: 0.2
    }
  }
}
layer {
  name: "inception_4b/relu_5x5_reduce"
  type: "ReLU"
  bottom: "inception_4b/5x5_reduce"
  top: "inception_4b/5x5_reduce"
}
layer {
  name: "inception_4b/5x5"
  type: "Convolution"
  bottom: "inception_4b/5x5_reduce"
  top: "inception_4b/5x5"
  param {
    lr_mult: 1
    decay_mult: 1
  }
  param {
    lr_mult: 2
    decay_mult: 0
  }
  convolution_param {
    num_output: 64
    pad: 2
    kernel_size: 5
    weight_filler {
      type: "xavier"
      std: 0.03
    }
    bias_filler {
      type: "constant"
      value: 0.2
    }
  }
}
layer {
  name: "inception_4b/relu_5x5"
  type: "ReLU"
  bottom: "inception_4b/5x5"
  top: "inception_4b/5x5"
}
layer {
  name: "inception_4b/pool"
  type: "Pooling"
  bottom: "inception_4a/output"
  top: "inception_4b/pool"
  pooling_param {
    pool: MAX
    kernel_size: 3
    stride: 1
    pad: 1
  }
}
layer {
  name: "inception_4b/pool_proj"
  type: "Convolution"
  bottom: "inception_4b/pool"
  top: "inception_4b/pool_proj"
  param {
    lr_mult: 1
    decay_mult: 1
  }
  param {
    lr_mult: 2
    decay_mult: 0
  }
  convolution_param {
    num_output: 64
    kernel_size: 1
    weight_filler {
      type: "xavier"
      std: 0.1
    }
    bias_filler {
      type: "constant"
      value: 0.2
    }
  }
}
layer {
  name: "inception_4b/relu_pool_proj"
  type: "ReLU"
  bottom: "inception_4b/pool_proj"
  top: "inception_4b/pool_proj"
}
layer {
  name: "inception_4b/output"
  type: "Concat"
  bottom: "inception_4b/1x1"
  bottom: "inception_4b/3x3"
  bottom: "inception_4b/5x5"
  bottom: "inception_4b/pool_proj"
  top: "inception_4b/output"
}
layer {
  name: "inception_4c/1x1"
  type: "Convolution"
  bottom: "inception_4b/output"
  top: "inception_4c/1x1"
  param {
    lr_mult: 1
    decay_mult: 1
  }
  param {
    lr_mult: 2
    decay_mult: 0
  }
  convolution_param {
    num_output: 128
    kernel_size: 1
    weight_filler {
      type: "xavier"
      std: 0.03
    }
    bias_filler {
      type: "constant"
      value: 0.2
    }
  }
}
layer {
  name: "inception_4c/relu_1x1"
  type: "ReLU"
  bottom: "inception_4c/1x1"
  top: "inception_4c/1x1"
}
layer {
  name: "inception_4c/3x3_reduce"
  type: "Convolution"
  bottom: "inception_4b/output"
  top: "inception_4c/3x3_reduce"
  param {
    lr_mult: 1
    decay_mult: 1
  }
  param {
    lr_mult: 2
    decay_mult: 0
  }
  convolution_param {
    num_output: 128
    kernel_size: 1
    weight_filler {
      type: "xavier"
      std: 0.09
    }
    bias_filler {
      type: "constant"
      value: 0.2
    }
  }
}
layer {
  name: "inception_4c/relu_3x3_reduce"
  type: "ReLU"
  bottom: "inception_4c/3x3_reduce"
  top: "inception_4c/3x3_reduce"
}
layer {
  name: "inception_4c/3x3"
  type: "Convolution"
  bottom: "inception_4c/3x3_reduce"
  top: "inception_4c/3x3"
  param {
    lr_mult: 1
    decay_mult: 1
  }
  param {
    lr_mult: 2
    decay_mult: 0
  }
  convolution_param {
    num_output: 256
    pad: 1
    kernel_size: 3
    weight_filler {
      type: "xavier"
      std: 0.03
    }
    bias_filler {
      type: "constant"
      value: 0.2
    }
  }
}
layer {
  name: "inception_4c/relu_3x3"
  type: "ReLU"
  bottom: "inception_4c/3x3"
  top: "inception_4c/3x3"
}
layer {
  name: "inception_4c/5x5_reduce"
  type: "Convolution"
  bottom: "inception_4b/output"
  top: "inception_4c/5x5_reduce"
  param {
    lr_mult: 1
    decay_mult: 1
  }
  param {
    lr_mult: 2
    decay_mult: 0
  }
  convolution_param {
    num_output: 24
    kernel_size: 1
    weight_filler {
      type: "xavier"
      std: 0.2
    }
    bias_filler {
      type: "constant"
      value: 0.2
    }
  }
}
layer {
  name: "inception_4c/relu_5x5_reduce"
  type: "ReLU"
  bottom: "inception_4c/5x5_reduce"
  top: "inception_4c/5x5_reduce"
}
layer {
  name: "inception_4c/5x5"
  type: "Convolution"
  bottom: "inception_4c/5x5_reduce"
  top: "inception_4c/5x5"
  param {
    lr_mult: 1
    decay_mult: 1
  }
  param {
    lr_mult: 2
    decay_mult: 0
  }
  convolution_param {
    num_output: 64
    pad: 2
    kernel_size: 5
    weight_filler {
      type: "xavier"
      std: 0.03
    }
    bias_filler {
      type: "constant"
      value: 0.2
    }
  }
}
layer {
  name: "inception_4c/relu_5x5"
  type: "ReLU"
  bottom: "inception_4c/5x5"
  top: "inception_4c/5x5"
}
layer {
  name: "inception_4c/pool"
  type: "Pooling"
  bottom: "inception_4b/output"
  top: "inception_4c/pool"
  pooling_param {
    pool: MAX
    kernel_size: 3
    stride: 1
    pad: 1
  }
}
layer {
  name: "inception_4c/pool_proj"
  type: "Convolution"
  bottom: "inception_4c/pool"
  top: "inception_4c/pool_proj"
  param {
    lr_mult: 1
    decay_mult: 1
  }
  param {
    lr_mult: 2
    decay_mult: 0
  }
  convolution_param {
    num_output: 64
    kernel_size: 1
    weight_filler {
      type: "xavier"
      std: 0.1
    }
    bias_filler {
      type: "constant"
      value: 0.2
    }
  }
}
layer {
  name: "inception_4c/relu_pool_proj"
  type: "ReLU"
  bottom: "inception_4c/pool_proj"
  top: "inception_4c/pool_proj"
}
layer {
  name: "inception_4c/output"
  type: "Concat"
  bottom: "inception_4c/1x1"
  bottom: "inception_4c/3x3"
  bottom: "inception_4c/5x5"
  bottom: "inception_4c/pool_proj"
  top: "inception_4c/output"
}
layer {
  name: "inception_4d/1x1"
  type: "Convolution"
  bottom: "inception_4c/output"
  top: "inception_4d/1x1"
  param {
    lr_mult: 1
    decay_mult: 1
  }
  param {
    lr_mult: 2
    decay_mult: 0
  }
  convolution_param {
    num_output: 112
    kernel_size: 1
    weight_filler {
      type: "xavier"
      std: 0.03
    }
    bias_filler {
      type: "constant"
      value: 0.2
    }
  }
}
layer {
  name: "inception_4d/relu_1x1"
  type: "ReLU"
  bottom: "inception_4d/1x1"
  top: "inception_4d/1x1"
}
layer {
  name: "inception_4d/3x3_reduce"
  type: "Convolution"
  bottom: "inception_4c/output"
  top: "inception_4d/3x3_reduce"
  param {
    lr_mult: 1
    decay_mult: 1
  }
  param {
    lr_mult: 2
    decay_mult: 0
  }
  convolution_param {
    num_output: 144
    kernel_size: 1
    weight_filler {
      type: "xavier"
      std: 0.09
    }
    bias_filler {
      type: "constant"
      value: 0.2
    }
  }
}
layer {
  name: "inception_4d/relu_3x3_reduce"
  type: "ReLU"
  bottom: "inception_4d/3x3_reduce"
  top: "inception_4d/3x3_reduce"
}
layer {
  name: "inception_4d/3x3"
  type: "Convolution"
  bottom: "inception_4d/3x3_reduce"
  top: "inception_4d/3x3"
  param {
    lr_mult: 1
    decay_mult: 1
  }
  param {
    lr_mult: 2
    decay_mult: 0
  }
  convolution_param {
    num_output: 288
    pad: 1
    kernel_size: 3
    weight_filler {
      type: "xavier"
      std: 0.03
    }
    bias_filler {
      type: "constant"
      value: 0.2
    }
  }
}
layer {
  name: "inception_4d/relu_3x3"
  type: "ReLU"
  bottom: "inception_4d/3x3"
  top: "inception_4d/3x3"
}
layer {
  name: "inception_4d/5x5_reduce"
  type: "Convolution"
  bottom: "inception_4c/output"
  top: "inception_4d/5x5_reduce"
  param {
    lr_mult: 1
    decay_mult: 1
  }
  param {
    lr_mult: 2
    decay_mult: 0
  }
  convolution_param {
    num_output: 32
    kernel_size: 1
    weight_filler {
      type: "xavier"
      std: 0.2
    }
    bias_filler {
      type: "constant"
      value: 0.2
    }
  }
}
layer {
  name: "inception_4d/relu_5x5_reduce"
  type: "ReLU"
  bottom: "inception_4d/5x5_reduce"
  top: "inception_4d/5x5_reduce"
}
layer {
  name: "inception_4d/5x5"
  type: "Convolution"
  bottom: "inception_4d/5x5_reduce"
  top: "inception_4d/5x5"
  param {
    lr_mult: 1
    decay_mult: 1
  }
  param {
    lr_mult: 2
    decay_mult: 0
  }
  convolution_param {
    num_output: 64
    pad: 2
    kernel_size: 5
    weight_filler {
      type: "xavier"
      std: 0.03
    }
    bias_filler {
      type: "constant"
      value: 0.2
    }
  }
}
layer {
  name: "inception_4d/relu_5x5"
  type: "ReLU"
  bottom: "inception_4d/5x5"
  top: "inception_4d/5x5"
}
layer {
  name: "inception_4d/pool"
  type: "Pooling"
  bottom: "inception_4c/output"
  top: "inception_4d/pool"
  pooling_param {
    pool: MAX
    kernel_size: 3
    stride: 1
    pad: 1
  }
}
layer {
  name: "inception_4d/pool_proj"
  type: "Convolution"
  bottom: "inception_4d/pool"
  top: "inception_4d/pool_proj"
  param {
    lr_mult: 1
    decay_mult: 1
  }
  param {
    lr_mult: 2
    decay_mult: 0
  }
  convolution_param {
    num_output: 64
    kernel_size: 1
    weight_filler {
      type: "xavier"
      std: 0.1
    }
    bias_filler {
      type: "constant"
      value: 0.2
    }
  }
}
layer {
  name: "inception_4d/relu_pool_proj"
  type: "ReLU"
  bottom: "inception_4d/pool_proj"
  top: "inception_4d/pool_proj"
}
layer {
  name: "inception_4d/output"
  type: "Concat"
  bottom: "inception_4d/1x1"
  bottom: "inception_4d/3x3"
  bottom: "inception_4d/5x5"
  bottom: "inception_4d/pool_proj"
  top: "inception_4d/output"
}
layer {
  name: "loss2/ave_pool"
  type: "Pooling"
  bottom: "inception_4d/output"
  top: "loss2/ave_pool"
  pooling_param {
    pool: AVE
    kernel_size: 5
    stride: 3
  }
}
layer {
  name: "loss2/conv"
  type: "Convolution"
  bottom: "loss2/ave_pool"
  top: "loss2/conv"
  param {
    lr_mult: 1
    decay_mult: 1
  }
  param {
    lr_mult: 2
    decay_mult: 0
  }
  convolution_param {
    num_output: 128
    kernel_size: 1
    weight_filler {
      type: "xavier"
      std: 0.08
    }
    bias_filler {
      type: "constant"
      value: 0.2
    }
  }
}
layer {
  name: "loss2/relu_conv"
  type: "ReLU"
  bottom: "loss2/conv"
  top: "loss2/conv"
}
layer {
  name: "loss2/fc"
  type: "InnerProduct"
  bottom: "loss2/conv"
  top: "loss2/fc"
  param {
    lr_mult: 1
    decay_mult: 1
  }
  param {
    lr_mult: 2
    decay_mult: 0
  }
  inner_product_param {
    num_output: 1024
    weight_filler {
      type: "xavier"
      std: 0.02
    }
    bias_filler {
      type: "constant"
      value: 0.2
    }
  }
}
layer {
  name: "loss2/relu_fc"
  type: "ReLU"
  bottom: "loss2/fc"
  top: "loss2/fc"
}
layer {
  name: "loss2/drop_fc"
  type: "Dropout"
  bottom: "loss2/fc"
  top: "loss2/fc"
  dropout_param {
    dropout_ratio: 0.7
  }
}
layer {
  name: "loss2/classifier_plantvillage"
  type: "InnerProduct"
  bottom: "loss2/fc"
  top: "loss2/classifier_plantvillage"
  param {
    lr_mult: 1
    decay_mult: 1
  }
  param {
    lr_mult: 2
    decay_mult: 0
  }
  inner_product_param {
    num_output: 38
    weight_filler {
      type: "xavier"
      std: 0.0009765625
    }
    bias_filler {
      type: "constant"
      value: 0
    }
  }
}
layer {
  name: "inception_4e/1x1"
  type: "Convolution"
  bottom: "inception_4d/output"
  top: "inception_4e/1x1"
  param {
    lr_mult: 1
    decay_mult: 1
  }
  param {
    lr_mult: 2
    decay_mult: 0
  }
  convolution_param {
    num_output: 256
    kernel_size: 1
    weight_filler {
      type: "xavier"
      std: 0.03
    }
    bias_filler {
      type: "constant"
      value: 0.2
    }
  }
}
layer {
  name: "inception_4e/relu_1x1"
  type: "ReLU"
  bottom: "inception_4e/1x1"
  top: "inception_4e/1x1"
}
layer {
  name: "inception_4e/3x3_reduce"
  type: "Convolution"
  bottom: "inception_4d/output"
  top: "inception_4e/3x3_reduce"
  param {
    lr_mult: 1
    decay_mult: 1
  }
  param {
    lr_mult: 2
    decay_mult: 0
  }
  convolution_param {
    num_output: 160
    kernel_size: 1
    weight_filler {
      type: "xavier"
      std: 0.09
    }
    bias_filler {
      type: "constant"
      value: 0.2
    }
  }
}
layer {
  name: "inception_4e/relu_3x3_reduce"
  type: "ReLU"
  bottom: "inception_4e/3x3_reduce"
  top: "inception_4e/3x3_reduce"
}
layer {
  name: "inception_4e/3x3"
  type: "Convolution"
  bottom: "inception_4e/3x3_reduce"
  top: "inception_4e/3x3"
  param {
    lr_mult: 1
    decay_mult: 1
  }
  param {
    lr_mult: 2
    decay_mult: 0
  }
  convolution_param {
    num_output: 320
    pad: 1
    kernel_size: 3
    weight_filler {
      type: "xavier"
      std: 0.03
    }
    bias_filler {
      type: "constant"
      value: 0.2
    }
  }
}
layer {
  name: "inception_4e/relu_3x3"
  type: "ReLU"
  bottom: "inception_4e/3x3"
  top: "inception_4e/3x3"
}
layer {
  name: "inception_4e/5x5_reduce"
  type: "Convolution"
  bottom: "inception_4d/output"
  top: "inception_4e/5x5_reduce"
  param {
    lr_mult: 1
    decay_mult: 1
  }
  param {
    lr_mult: 2
    decay_mult: 0
  }
  convolution_param {
    num_output: 32
    kernel_size: 1
    weight_filler {
      type: "xavier"
      std: 0.2
    }
    bias_filler {
      type: "constant"
      value: 0.2
    }
  }
}
layer {
  name: "inception_4e/relu_5x5_reduce"
  type: "ReLU"
  bottom: "inception_4e/5x5_reduce"
  top: "inception_4e/5x5_reduce"
}
layer {
  name: "inception_4e/5x5"
  type: "Convolution"
  bottom: "inception_4e/5x5_reduce"
  top: "inception_4e/5x5"
  p
I0403 14:57:28.062779 30670 layer_factory.hpp:77] Creating layer data
I0403 14:57:28.063454 30670 net.cpp:91] Creating Layer data
I0403 14:57:28.063490 30670 net.cpp:399] data -> data
I0403 14:57:28.063549 30670 net.cpp:399] data -> label
I0403 14:57:28.063587 30670 data_transformer.cpp:25] Loading mean file from: /home/mohanty/data/final_dataset/lmdb/color-20-80/mean.binaryproto
I0403 14:57:28.067129 30678 db_lmdb.cpp:38] Opened lmdb /home/mohanty/data/final_dataset/lmdb/color-20-80/test_db
I0403 14:57:28.078145 30670 data_layer.cpp:41] output data size: 24,3,224,224
I0403 14:57:28.134042 30670 net.cpp:141] Setting up data
I0403 14:57:28.134130 30670 net.cpp:148] Top shape: 24 3 224 224 (3612672)
I0403 14:57:28.134155 30670 net.cpp:148] Top shape: 24 (24)
I0403 14:57:28.134174 30670 net.cpp:156] Memory required for data: 14450784
I0403 14:57:28.134204 30670 layer_factory.hpp:77] Creating layer label_data_1_split
I0403 14:57:28.134291 30670 net.cpp:91] Creating Layer label_data_1_split
I0403 14:57:28.134316 30670 net.cpp:425] label_data_1_split <- label
I0403 14:57:28.134366 30670 net.cpp:399] label_data_1_split -> label_data_1_split_0
I0403 14:57:28.134400 30670 net.cpp:399] label_data_1_split -> label_data_1_split_1
I0403 14:57:28.134472 30670 net.cpp:399] label_data_1_split -> label_data_1_split_2
I0403 14:57:28.134503 30670 net.cpp:399] label_data_1_split -> label_data_1_split_3
I0403 14:57:28.134526 30670 net.cpp:399] label_data_1_split -> label_data_1_split_4
I0403 14:57:28.134549 30670 net.cpp:399] label_data_1_split -> label_data_1_split_5
I0403 14:57:28.134572 30670 net.cpp:399] label_data_1_split -> label_data_1_split_6
I0403 14:57:28.134596 30670 net.cpp:399] label_data_1_split -> label_data_1_split_7
I0403 14:57:28.134618 30670 net.cpp:399] label_data_1_split -> label_data_1_split_8
I0403 14:57:28.134690 30670 net.cpp:399] label_data_1_split -> label_data_1_split_9
I0403 14:57:28.134817 30670 net.cpp:141] Setting up label_data_1_split
I0403 14:57:28.134891 30670 net.cpp:148] Top shape: 24 (24)
I0403 14:57:28.134912 30670 net.cpp:148] Top shape: 24 (24)
I0403 14:57:28.134932 30670 net.cpp:148] Top shape: 24 (24)
I0403 14:57:28.134951 30670 net.cpp:148] Top shape: 24 (24)
I0403 14:57:28.134970 30670 net.cpp:148] Top shape: 24 (24)
I0403 14:57:28.134987 30670 net.cpp:148] Top shape: 24 (24)
I0403 14:57:28.135007 30670 net.cpp:148] Top shape: 24 (24)
I0403 14:57:28.135025 30670 net.cpp:148] Top shape: 24 (24)
I0403 14:57:28.135094 30670 net.cpp:148] Top shape: 24 (24)
I0403 14:57:28.135113 30670 net.cpp:148] Top shape: 24 (24)
I0403 14:57:28.135155 30670 net.cpp:156] Memory required for data: 14451744
I0403 14:57:28.135174 30670 layer_factory.hpp:77] Creating layer conv1/7x7_s2
I0403 14:57:28.135210 30670 net.cpp:91] Creating Layer conv1/7x7_s2
I0403 14:57:28.135275 30670 net.cpp:425] conv1/7x7_s2 <- data
I0403 14:57:28.135308 30670 net.cpp:399] conv1/7x7_s2 -> conv1/7x7_s2
I0403 14:57:28.313256 30670 net.cpp:141] Setting up conv1/7x7_s2
I0403 14:57:28.313361 30670 net.cpp:148] Top shape: 24 64 112 112 (19267584)
I0403 14:57:28.313386 30670 net.cpp:156] Memory required for data: 91522080
I0403 14:57:28.313421 30670 layer_factory.hpp:77] Creating layer conv1/relu_7x7
I0403 14:57:28.313452 30670 net.cpp:91] Creating Layer conv1/relu_7x7
I0403 14:57:28.313474 30670 net.cpp:425] conv1/relu_7x7 <- conv1/7x7_s2
I0403 14:57:28.313496 30670 net.cpp:386] conv1/relu_7x7 -> conv1/7x7_s2 (in-place)
I0403 14:57:28.313784 30670 net.cpp:141] Setting up conv1/relu_7x7
I0403 14:57:28.313814 30670 net.cpp:148] Top shape: 24 64 112 112 (19267584)
I0403 14:57:28.313832 30670 net.cpp:156] Memory required for data: 168592416
I0403 14:57:28.313850 30670 layer_factory.hpp:77] Creating layer pool1/3x3_s2
I0403 14:57:28.313879 30670 net.cpp:91] Creating Layer pool1/3x3_s2
I0403 14:57:28.313899 30670 net.cpp:425] pool1/3x3_s2 <- conv1/7x7_s2
I0403 14:57:28.313920 30670 net.cpp:399] pool1/3x3_s2 -> pool1/3x3_s2
I0403 14:57:28.314007 30670 net.cpp:141] Setting up pool1/3x3_s2
I0403 14:57:28.314054 30670 net.cpp:148] Top shape: 24 64 56 56 (4816896)
I0403 14:57:28.314090 30670 net.cpp:156] Memory required for data: 187860000
I0403 14:57:28.314108 30670 layer_factory.hpp:77] Creating layer pool1/norm1
I0403 14:57:28.314147 30670 net.cpp:91] Creating Layer pool1/norm1
I0403 14:57:28.314191 30670 net.cpp:425] pool1/norm1 <- pool1/3x3_s2
I0403 14:57:28.314215 30670 net.cpp:399] pool1/norm1 -> pool1/norm1
I0403 14:57:28.314551 30670 net.cpp:141] Setting up pool1/norm1
I0403 14:57:28.314584 30670 net.cpp:148] Top shape: 24 64 56 56 (4816896)
I0403 14:57:28.314601 30670 net.cpp:156] Memory required for data: 207127584
I0403 14:57:28.314618 30670 layer_factory.hpp:77] Creating layer conv2/3x3_reduce
I0403 14:57:28.314647 30670 net.cpp:91] Creating Layer conv2/3x3_reduce
I0403 14:57:28.314666 30670 net.cpp:425] conv2/3x3_reduce <- pool1/norm1
I0403 14:57:28.314692 30670 net.cpp:399] conv2/3x3_reduce -> conv2/3x3_reduce
I0403 14:57:28.316186 30670 net.cpp:141] Setting up conv2/3x3_reduce
I0403 14:57:28.316221 30670 net.cpp:148] Top shape: 24 64 56 56 (4816896)
I0403 14:57:28.316241 30670 net.cpp:156] Memory required for data: 226395168
I0403 14:57:28.316264 30670 layer_factory.hpp:77] Creating layer conv2/relu_3x3_reduce
I0403 14:57:28.316287 30670 net.cpp:91] Creating Layer conv2/relu_3x3_reduce
I0403 14:57:28.316305 30670 net.cpp:425] conv2/relu_3x3_reduce <- conv2/3x3_reduce
I0403 14:57:28.316335 30670 net.cpp:386] conv2/relu_3x3_reduce -> conv2/3x3_reduce (in-place)
I0403 14:57:28.316622 30670 net.cpp:141] Setting up conv2/relu_3x3_reduce
I0403 14:57:28.316653 30670 net.cpp:148] Top shape: 24 64 56 56 (4816896)
I0403 14:57:28.316673 30670 net.cpp:156] Memory required for data: 245662752
I0403 14:57:28.316689 30670 layer_factory.hpp:77] Creating layer conv2/3x3
I0403 14:57:28.316716 30670 net.cpp:91] Creating Layer conv2/3x3
I0403 14:57:28.316736 30670 net.cpp:425] conv2/3x3 <- conv2/3x3_reduce
I0403 14:57:28.316761 30670 net.cpp:399] conv2/3x3 -> conv2/3x3
I0403 14:57:28.319305 30670 net.cpp:141] Setting up conv2/3x3
I0403 14:57:28.319349 30670 net.cpp:148] Top shape: 24 192 56 56 (14450688)
I0403 14:57:28.319367 30670 net.cpp:156] Memory required for data: 303465504
I0403 14:57:28.319392 30670 layer_factory.hpp:77] Creating layer conv2/relu_3x3
I0403 14:57:28.319413 30670 net.cpp:91] Creating Layer conv2/relu_3x3
I0403 14:57:28.319430 30670 net.cpp:425] conv2/relu_3x3 <- conv2/3x3
I0403 14:57:28.319452 30670 net.cpp:386] conv2/relu_3x3 -> conv2/3x3 (in-place)
I0403 14:57:28.319639 30670 net.cpp:141] Setting up conv2/relu_3x3
I0403 14:57:28.319669 30670 net.cpp:148] Top shape: 24 192 56 56 (14450688)
I0403 14:57:28.319722 30670 net.cpp:156] Memory required for data: 361268256
I0403 14:57:28.319741 30670 layer_factory.hpp:77] Creating layer conv2/norm2
I0403 14:57:28.319764 30670 net.cpp:91] Creating Layer conv2/norm2
I0403 14:57:28.319782 30670 net.cpp:425] conv2/norm2 <- conv2/3x3
I0403 14:57:28.319805 30670 net.cpp:399] conv2/norm2 -> conv2/norm2
I0403 14:57:28.320127 30670 net.cpp:141] Setting up conv2/norm2
I0403 14:57:28.320159 30670 net.cpp:148] Top shape: 24 192 56 56 (14450688)
I0403 14:57:28.320176 30670 net.cpp:156] Memory required for data: 419071008
I0403 14:57:28.320194 30670 layer_factory.hpp:77] Creating layer pool2/3x3_s2
I0403 14:57:28.320215 30670 net.cpp:91] Creating Layer pool2/3x3_s2
I0403 14:57:28.320235 30670 net.cpp:425] pool2/3x3_s2 <- conv2/norm2
I0403 14:57:28.320257 30670 net.cpp:399] pool2/3x3_s2 -> pool2/3x3_s2
I0403 14:57:28.320320 30670 net.cpp:141] Setting up pool2/3x3_s2
I0403 14:57:28.320348 30670 net.cpp:148] Top shape: 24 192 28 28 (3612672)
I0403 14:57:28.320368 30670 net.cpp:156] Memory required for data: 433521696
I0403 14:57:28.320384 30670 layer_factory.hpp:77] Creating layer pool2/3x3_s2_pool2/3x3_s2_0_split
I0403 14:57:28.320408 30670 net.cpp:91] Creating Layer pool2/3x3_s2_pool2/3x3_s2_0_split
I0403 14:57:28.320425 30670 net.cpp:425] pool2/3x3_s2_pool2/3x3_s2_0_split <- pool2/3x3_s2
I0403 14:57:28.320446 30670 net.cpp:399] pool2/3x3_s2_pool2/3x3_s2_0_split -> pool2/3x3_s2_pool2/3x3_s2_0_split_0
I0403 14:57:28.320469 30670 net.cpp:399] pool2/3x3_s2_pool2/3x3_s2_0_split -> pool2/3x3_s2_pool2/3x3_s2_0_split_1
I0403 14:57:28.320490 30670 net.cpp:399] pool2/3x3_s2_pool2/3x3_s2_0_split -> pool2/3x3_s2_pool2/3x3_s2_0_split_2
I0403 14:57:28.320515 30670 net.cpp:399] pool2/3x3_s2_pool2/3x3_s2_0_split -> pool2/3x3_s2_pool2/3x3_s2_0_split_3
I0403 14:57:28.320591 30670 net.cpp:141] Setting up pool2/3x3_s2_pool2/3x3_s2_0_split
I0403 14:57:28.320618 30670 net.cpp:148] Top shape: 24 192 28 28 (3612672)
I0403 14:57:28.320636 30670 net.cpp:148] Top shape: 24 192 28 28 (3612672)
I0403 14:57:28.320654 30670 net.cpp:148] Top shape: 24 192 28 28 (3612672)
I0403 14:57:28.320672 30670 net.cpp:148] Top shape: 24 192 28 28 (3612672)
I0403 14:57:28.320688 30670 net.cpp:156] Memory required for data: 491324448
I0403 14:57:28.320705 30670 layer_factory.hpp:77] Creating layer inception_3a/1x1
I0403 14:57:28.320730 30670 net.cpp:91] Creating Layer inception_3a/1x1
I0403 14:57:28.320750 30670 net.cpp:425] inception_3a/1x1 <- pool2/3x3_s2_pool2/3x3_s2_0_split_0
I0403 14:57:28.320775 30670 net.cpp:399] inception_3a/1x1 -> inception_3a/1x1
I0403 14:57:28.322367 30670 net.cpp:141] Setting up inception_3a/1x1
I0403 14:57:28.322402 30670 net.cpp:148] Top shape: 24 64 28 28 (1204224)
I0403 14:57:28.322422 30670 net.cpp:156] Memory required for data: 496141344
I0403 14:57:28.322443 30670 layer_factory.hpp:77] Creating layer inception_3a/relu_1x1
I0403 14:57:28.322463 30670 net.cpp:91] Creating Layer inception_3a/relu_1x1
I0403 14:57:28.322480 30670 net.cpp:425] inception_3a/relu_1x1 <- inception_3a/1x1
I0403 14:57:28.322504 30670 net.cpp:386] inception_3a/relu_1x1 -> inception_3a/1x1 (in-place)
I0403 14:57:28.322693 30670 net.cpp:141] Setting up inception_3a/relu_1x1
I0403 14:57:28.322721 30670 net.cpp:148] Top shape: 24 64 28 28 (1204224)
I0403 14:57:28.322739 30670 net.cpp:156] Memory required for data: 500958240
I0403 14:57:28.322757 30670 layer_factory.hpp:77] Creating layer inception_3a/3x3_reduce
I0403 14:57:28.322783 30670 net.cpp:91] Creating Layer inception_3a/3x3_reduce
I0403 14:57:28.322804 30670 net.cpp:425] inception_3a/3x3_reduce <- pool2/3x3_s2_pool2/3x3_s2_0_split_1
I0403 14:57:28.322829 30670 net.cpp:399] inception_3a/3x3_reduce -> inception_3a/3x3_reduce
I0403 14:57:28.324585 30670 net.cpp:141] Setting up inception_3a/3x3_reduce
I0403 14:57:28.324622 30670 net.cpp:148] Top shape: 24 96 28 28 (1806336)
I0403 14:57:28.324643 30670 net.cpp:156] Memory required for data: 508183584
I0403 14:57:28.324671 30670 layer_factory.hpp:77] Creating layer inception_3a/relu_3x3_reduce
I0403 14:57:28.324714 30670 net.cpp:91] Creating Layer inception_3a/relu_3x3_reduce
I0403 14:57:28.324734 30670 net.cpp:425] inception_3a/relu_3x3_reduce <- inception_3a/3x3_reduce
I0403 14:57:28.324755 30670 net.cpp:386] inception_3a/relu_3x3_reduce -> inception_3a/3x3_reduce (in-place)
I0403 14:57:28.324945 30670 net.cpp:141] Setting up inception_3a/relu_3x3_reduce
I0403 14:57:28.325022 30670 net.cpp:148] Top shape: 24 96 28 28 (1806336)
I0403 14:57:28.325043 30670 net.cpp:156] Memory required for data: 515408928
I0403 14:57:28.325062 30670 layer_factory.hpp:77] Creating layer inception_3a/3x3
I0403 14:57:28.325088 30670 net.cpp:91] Creating Layer inception_3a/3x3
I0403 14:57:28.325111 30670 net.cpp:425] inception_3a/3x3 <- inception_3a/3x3_reduce
I0403 14:57:28.325140 30670 net.cpp:399] inception_3a/3x3 -> inception_3a/3x3
I0403 14:57:28.326901 30670 net.cpp:141] Setting up inception_3a/3x3
I0403 14:57:28.326936 30670 net.cpp:148] Top shape: 24 128 28 28 (2408448)
I0403 14:57:28.326961 30670 net.cpp:156] Memory required for data: 525042720
I0403 14:57:28.326992 30670 layer_factory.hpp:77] Creating layer inception_3a/relu_3x3
I0403 14:57:28.327015 30670 net.cpp:91] Creating Layer inception_3a/relu_3x3
I0403 14:57:28.327033 30670 net.cpp:425] inception_3a/relu_3x3 <- inception_3a/3x3
I0403 14:57:28.327057 30670 net.cpp:386] inception_3a/relu_3x3 -> inception_3a/3x3 (in-place)
I0403 14:57:28.327350 30670 net.cpp:141] Setting up inception_3a/relu_3x3
I0403 14:57:28.327383 30670 net.cpp:148] Top shape: 24 128 28 28 (2408448)
I0403 14:57:28.327402 30670 net.cpp:156] Memory required for data: 534676512
I0403 14:57:28.327420 30670 layer_factory.hpp:77] Creating layer inception_3a/5x5_reduce
I0403 14:57:28.327457 30670 net.cpp:91] Creating Layer inception_3a/5x5_reduce
I0403 14:57:28.327479 30670 net.cpp:425] inception_3a/5x5_reduce <- pool2/3x3_s2_pool2/3x3_s2_0_split_2
I0403 14:57:28.327504 30670 net.cpp:399] inception_3a/5x5_reduce -> inception_3a/5x5_reduce
I0403 14:57:28.328515 30670 net.cpp:141] Setting up inception_3a/5x5_reduce
I0403 14:57:28.328546 30670 net.cpp:148] Top shape: 24 16 28 28 (301056)
I0403 14:57:28.328567 30670 net.cpp:156] Memory required for data: 535880736
I0403 14:57:28.328596 30670 layer_factory.hpp:77] Creating layer inception_3a/relu_5x5_reduce
I0403 14:57:28.328620 30670 net.cpp:91] Creating Layer inception_3a/relu_5x5_reduce
I0403 14:57:28.328640 30670 net.cpp:425] inception_3a/relu_5x5_reduce <- inception_3a/5x5_reduce
I0403 14:57:28.328660 30670 net.cpp:386] inception_3a/relu_5x5_reduce -> inception_3a/5x5_reduce (in-place)
I0403 14:57:28.328981 30670 net.cpp:141] Setting up inception_3a/relu_5x5_reduce
I0403 14:57:28.329010 30670 net.cpp:148] Top shape: 24 16 28 28 (301056)
I0403 14:57:28.329026 30670 net.cpp:156] Memory required for data: 537084960
I0403 14:57:28.329041 30670 layer_factory.hpp:77] Creating layer inception_3a/5x5
I0403 14:57:28.329067 30670 net.cpp:91] Creating Layer inception_3a/5x5
I0403 14:57:28.329087 30670 net.cpp:425] inception_3a/5x5 <- inception_3a/5x5_reduce
I0403 14:57:28.329112 30670 net.cpp:399] inception_3a/5x5 -> inception_3a/5x5
I0403 14:57:28.330173 30670 net.cpp:141] Setting up inception_3a/5x5
I0403 14:57:28.330204 30670 net.cpp:148] Top shape: 24 32 28 28 (602112)
I0403 14:57:28.330224 30670 net.cpp:156] Memory required for data: 539493408
I0403 14:57:28.330247 30670 layer_factory.hpp:77] Creating layer inception_3a/relu_5x5
I0403 14:57:28.330268 30670 net.cpp:91] Creating Layer inception_3a/relu_5x5
I0403 14:57:28.330286 30670 net.cpp:425] inception_3a/relu_5x5 <- inception_3a/5x5
I0403 14:57:28.330309 30670 net.cpp:386] inception_3a/relu_5x5 -> inception_3a/5x5 (in-place)
I0403 14:57:28.330497 30670 net.cpp:141] Setting up inception_3a/relu_5x5
I0403 14:57:28.330526 30670 net.cpp:148] Top shape: 24 32 28 28 (602112)
I0403 14:57:28.330544 30670 net.cpp:156] Memory required for data: 541901856
I0403 14:57:28.330560 30670 layer_factory.hpp:77] Creating layer inception_3a/pool
I0403 14:57:28.330586 30670 net.cpp:91] Creating Layer inception_3a/pool
I0403 14:57:28.330607 30670 net.cpp:425] inception_3a/pool <- pool2/3x3_s2_pool2/3x3_s2_0_split_3
I0403 14:57:28.330646 30670 net.cpp:399] inception_3a/pool -> inception_3a/pool
I0403 14:57:28.330711 30670 net.cpp:141] Setting up inception_3a/pool
I0403 14:57:28.330739 30670 net.cpp:148] Top shape: 24 192 28 28 (3612672)
I0403 14:57:28.330755 30670 net.cpp:156] Memory required for data: 556352544
I0403 14:57:28.330771 30670 layer_factory.hpp:77] Creating layer inception_3a/pool_proj
I0403 14:57:28.330797 30670 net.cpp:91] Creating Layer inception_3a/pool_proj
I0403 14:57:28.330817 30670 net.cpp:425] inception_3a/pool_proj <- inception_3a/pool
I0403 14:57:28.330842 30670 net.cpp:399] inception_3a/pool_proj -> inception_3a/pool_proj
I0403 14:57:28.331854 30670 net.cpp:141] Setting up inception_3a/pool_proj
I0403 14:57:28.331888 30670 net.cpp:148] Top shape: 24 32 28 28 (602112)
I0403 14:57:28.331912 30670 net.cpp:156] Memory required for data: 558760992
I0403 14:57:28.331936 30670 layer_factory.hpp:77] Creating layer inception_3a/relu_pool_proj
I0403 14:57:28.331960 30670 net.cpp:91] Creating Layer inception_3a/relu_pool_proj
I0403 14:57:28.331981 30670 net.cpp:425] inception_3a/relu_pool_proj <- inception_3a/pool_proj
I0403 14:57:28.332001 30670 net.cpp:386] inception_3a/relu_pool_proj -> inception_3a/pool_proj (in-place)
I0403 14:57:28.332293 30670 net.cpp:141] Setting up inception_3a/relu_pool_proj
I0403 14:57:28.332329 30670 net.cpp:148] Top shape: 24 32 28 28 (602112)
I0403 14:57:28.332347 30670 net.cpp:156] Memory required for data: 561169440
I0403 14:57:28.332366 30670 layer_factory.hpp:77] Creating layer inception_3a/output
I0403 14:57:28.332388 30670 net.cpp:91] Creating Layer inception_3a/output
I0403 14:57:28.332404 30670 net.cpp:425] inception_3a/output <- inception_3a/1x1
I0403 14:57:28.332422 30670 net.cpp:425] inception_3a/output <- inception_3a/3x3
I0403 14:57:28.332440 30670 net.cpp:425] inception_3a/output <- inception_3a/5x5
I0403 14:57:28.332459 30670 net.cpp:425] inception_3a/output <- inception_3a/pool_proj
I0403 14:57:28.332485 30670 net.cpp:399] inception_3a/output -> inception_3a/output
I0403 14:57:28.332537 30670 net.cpp:141] Setting up inception_3a/output
I0403 14:57:28.332566 30670 net.cpp:148] Top shape: 24 256 28 28 (4816896)
I0403 14:57:28.332587 30670 net.cpp:156] Memory required for data: 580437024
I0403 14:57:28.332603 30670 layer_factory.hpp:77] Creating layer inception_3a/output_inception_3a/output_0_split
I0403 14:57:28.332623 30670 net.cpp:91] Creating Layer inception_3a/output_inception_3a/output_0_split
I0403 14:57:28.332639 30670 net.cpp:425] inception_3a/output_inception_3a/output_0_split <- inception_3a/output
I0403 14:57:28.332659 30670 net.cpp:399] inception_3a/output_inception_3a/output_0_split -> inception_3a/output_inception_3a/output_0_split_0
I0403 14:57:28.332681 30670 net.cpp:399] inception_3a/output_inception_3a/output_0_split -> inception_3a/output_inception_3a/output_0_split_1
I0403 14:57:28.332708 30670 net.cpp:399] inception_3a/output_inception_3a/output_0_split -> inception_3a/output_inception_3a/output_0_split_2
I0403 14:57:28.332731 30670 net.cpp:399] inception_3a/output_inception_3a/output_0_split -> inception_3a/output_inception_3a/output_0_split_3
I0403 14:57:28.332813 30670 net.cpp:141] Setting up inception_3a/output_inception_3a/output_0_split
I0403 14:57:28.332840 30670 net.cpp:148] Top shape: 24 256 28 28 (4816896)
I0403 14:57:28.332861 30670 net.cpp:148] Top shape: 24 256 28 28 (4816896)
I0403 14:57:28.332880 30670 net.cpp:148] Top shape: 24 256 28 28 (4816896)
I0403 14:57:28.332897 30670 net.cpp:148] Top shape: 24 256 28 28 (4816896)
I0403 14:57:28.332912 30670 net.cpp:156] Memory required for data: 657507360
I0403 14:57:28.332929 30670 layer_factory.hpp:77] Creating layer inception_3b/1x1
I0403 14:57:28.332955 30670 net.cpp:91] Creating Layer inception_3b/1x1
I0403 14:57:28.332974 30670 net.cpp:425] inception_3b/1x1 <- inception_3a/output_inception_3a/output_0_split_0
I0403 14:57:28.332998 30670 net.cpp:399] inception_3b/1x1 -> inception_3b/1x1
I0403 14:57:28.334208 30670 net.cpp:141] Setting up inception_3b/1x1
I0403 14:57:28.334254 30670 net.cpp:148] Top shape: 24 128 28 28 (2408448)
I0403 14:57:28.334275 30670 net.cpp:156] Memory required for data: 667141152
I0403 14:57:28.334296 30670 layer_factory.hpp:77] Creating layer inception_3b/relu_1x1
I0403 14:57:28.334319 30670 net.cpp:91] Creating Layer inception_3b/relu_1x1
I0403 14:57:28.334338 30670 net.cpp:425] inception_3b/relu_1x1 <- inception_3b/1x1
I0403 14:57:28.334360 30670 net.cpp:386] inception_3b/relu_1x1 -> inception_3b/1x1 (in-place)
I0403 14:57:28.334547 30670 net.cpp:141] Setting up inception_3b/relu_1x1
I0403 14:57:28.334575 30670 net.cpp:148] Top shape: 24 128 28 28 (2408448)
I0403 14:57:28.334594 30670 net.cpp:156] Memory required for data: 676774944
I0403 14:57:28.334610 30670 layer_factory.hpp:77] Creating layer inception_3b/3x3_reduce
I0403 14:57:28.334635 30670 net.cpp:91] Creating Layer inception_3b/3x3_reduce
I0403 14:57:28.334653 30670 net.cpp:425] inception_3b/3x3_reduce <- inception_3a/output_inception_3a/output_0_split_1
I0403 14:57:28.334676 30670 net.cpp:399] inception_3b/3x3_reduce -> inception_3b/3x3_reduce
I0403 14:57:28.335870 30670 net.cpp:141] Setting up inception_3b/3x3_reduce
I0403 14:57:28.335904 30670 net.cpp:148] Top shape: 24 128 28 28 (2408448)
I0403 14:57:28.335923 30670 net.cpp:156] Memory required for data: 686408736
I0403 14:57:28.335944 30670 layer_factory.hpp:77] Creating layer inception_3b/relu_3x3_reduce
I0403 14:57:28.335964 30670 net.cpp:91] Creating Layer inception_3b/relu_3x3_reduce
I0403 14:57:28.335980 30670 net.cpp:425] inception_3b/relu_3x3_reduce <- inception_3b/3x3_reduce
I0403 14:57:28.335999 30670 net.cpp:386] inception_3b/relu_3x3_reduce -> inception_3b/3x3_reduce (in-place)
I0403 14:57:28.336184 30670 net.cpp:141] Setting up inception_3b/relu_3x3_reduce
I0403 14:57:28.336212 30670 net.cpp:148] Top shape: 24 128 28 28 (2408448)
I0403 14:57:28.336228 30670 net.cpp:156] Memory required for data: 696042528
I0403 14:57:28.336244 30670 layer_factory.hpp:77] Creating layer inception_3b/3x3
I0403 14:57:28.336272 30670 net.cpp:91] Creating Layer inception_3b/3x3
I0403 14:57:28.336293 30670 net.cpp:425] inception_3b/3x3 <- inception_3b/3x3_reduce
I0403 14:57:28.336319 30670 net.cpp:399] inception_3b/3x3 -> inception_3b/3x3
I0403 14:57:28.339412 30670 net.cpp:141] Setting up inception_3b/3x3
I0403 14:57:28.339445 30670 net.cpp:148] Top shape: 24 192 28 28 (3612672)
I0403 14:57:28.339462 30670 net.cpp:156] Memory required for data: 710493216
I0403 14:57:28.339483 30670 layer_factory.hpp:77] Creating layer inception_3b/relu_3x3
I0403 14:57:28.339503 30670 net.cpp:91] Creating Layer inception_3b/relu_3x3
I0403 14:57:28.339519 30670 net.cpp:425] inception_3b/relu_3x3 <- inception_3b/3x3
I0403 14:57:28.339540 30670 net.cpp:386] inception_3b/relu_3x3 -> inception_3b/3x3 (in-place)
I0403 14:57:28.339828 30670 net.cpp:141] Setting up inception_3b/relu_3x3
I0403 14:57:28.339859 30670 net.cpp:148] Top shape: 24 192 28 28 (3612672)
I0403 14:57:28.339875 30670 net.cpp:156] Memory required for data: 724943904
I0403 14:57:28.339892 30670 layer_factory.hpp:77] Creating layer inception_3b/5x5_reduce
I0403 14:57:28.339921 30670 net.cpp:91] Creating Layer inception_3b/5x5_reduce
I0403 14:57:28.339939 30670 net.cpp:425] inception_3b/5x5_reduce <- inception_3a/output_inception_3a/output_0_split_2
I0403 14:57:28.339964 30670 net.cpp:399] inception_3b/5x5_reduce -> inception_3b/5x5_reduce
I0403 14:57:28.341004 30670 net.cpp:141] Setting up inception_3b/5x5_reduce
I0403 14:57:28.341037 30670 net.cpp:148] Top shape: 24 32 28 28 (602112)
I0403 14:57:28.341055 30670 net.cpp:156] Memory required for data: 727352352
I0403 14:57:28.341075 30670 layer_factory.hpp:77] Creating layer inception_3b/relu_5x5_reduce
I0403 14:57:28.341099 30670 net.cpp:91] Creating Layer inception_3b/relu_5x5_reduce
I0403 14:57:28.341117 30670 net.cpp:425] inception_3b/relu_5x5_reduce <- inception_3b/5x5_reduce
I0403 14:57:28.341138 30670 net.cpp:386] inception_3b/relu_5x5_reduce -> inception_3b/5x5_reduce (in-place)
I0403 14:57:28.341334 30670 net.cpp:141] Setting up inception_3b/relu_5x5_reduce
I0403 14:57:28.341380 30670 net.cpp:148] Top shape: 24 32 28 28 (602112)
I0403 14:57:28.341398 30670 net.cpp:156] Memory required for data: 729760800
I0403 14:57:28.341415 30670 layer_factory.hpp:77] Creating layer inception_3b/5x5
I0403 14:57:28.341440 30670 net.cpp:91] Creating Layer inception_3b/5x5
I0403 14:57:28.341464 30670 net.cpp:425] inception_3b/5x5 <- inception_3b/5x5_reduce
I0403 14:57:28.341488 30670 net.cpp:399] inception_3b/5x5 -> inception_3b/5x5
I0403 14:57:28.343564 30670 net.cpp:141] Setting up inception_3b/5x5
I0403 14:57:28.343598 30670 net.cpp:148] Top shape: 24 96 28 28 (1806336)
I0403 14:57:28.343617 30670 net.cpp:156] Memory required for data: 736986144
I0403 14:57:28.343641 30670 layer_factory.hpp:77] Creating layer inception_3b/relu_5x5
I0403 14:57:28.343662 30670 net.cpp:91] Creating Layer inception_3b/relu_5x5
I0403 14:57:28.343680 30670 net.cpp:425] inception_3b/relu_5x5 <- inception_3b/5x5
I0403 14:57:28.343700 30670 net.cpp:386] inception_3b/relu_5x5 -> inception_3b/5x5 (in-place)
I0403 14:57:28.343904 30670 net.cpp:141] Setting up inception_3b/relu_5x5
I0403 14:57:28.343932 30670 net.cpp:148] Top shape: 24 96 28 28 (1806336)
I0403 14:57:28.343948 30670 net.cpp:156] Memory required for data: 744211488
I0403 14:57:28.343966 30670 layer_factory.hpp:77] Creating layer inception_3b/pool
I0403 14:57:28.343986 30670 net.cpp:91] Creating Layer inception_3b/pool
I0403 14:57:28.344003 30670 net.cpp:425] inception_3b/pool <- inception_3a/output_inception_3a/output_0_split_3
I0403 14:57:28.344022 30670 net.cpp:399] inception_3b/pool -> inception_3b/pool
I0403 14:57:28.344084 30670 net.cpp:141] Setting up inception_3b/pool
I0403 14:57:28.344113 30670 net.cpp:148] Top shape: 24 256 28 28 (4816896)
I0403 14:57:28.344130 30670 net.cpp:156] Memory required for data: 763479072
I0403 14:57:28.344146 30670 layer_factory.hpp:77] Creating layer inception_3b/pool_proj
I0403 14:57:28.344171 30670 net.cpp:91] Creating Layer inception_3b/pool_proj
I0403 14:57:28.344189 30670 net.cpp:425] inception_3b/pool_proj <- inception_3b/pool
I0403 14:57:28.344210 30670 net.cpp:399] inception_3b/pool_proj -> inception_3b/pool_proj
I0403 14:57:28.345340 30670 net.cpp:141] Setting up inception_3b/pool_proj
I0403 14:57:28.345371 30670 net.cpp:148] Top shape: 24 64 28 28 (1204224)
I0403 14:57:28.345389 30670 net.cpp:156] Memory required for data: 768295968
I0403 14:57:28.345412 30670 layer_factory.hpp:77] Creating layer inception_3b/relu_pool_proj
I0403 14:57:28.345435 30670 net.cpp:91] Creating Layer inception_3b/relu_pool_proj
I0403 14:57:28.345456 30670 net.cpp:425] inception_3b/relu_pool_proj <- inception_3b/pool_proj
I0403 14:57:28.345475 30670 net.cpp:386] inception_3b/relu_pool_proj -> inception_3b/pool_proj (in-place)
I0403 14:57:28.345897 30670 net.cpp:141] Setting up inception_3b/relu_pool_proj
I0403 14:57:28.345927 30670 net.cpp:148] Top shape: 24 64 28 28 (1204224)
I0403 14:57:28.345945 30670 net.cpp:156] Memory required for data: 773112864
I0403 14:57:28.345963 30670 layer_factory.hpp:77] Creating layer inception_3b/output
I0403 14:57:28.345983 30670 net.cpp:91] Creating Layer inception_3b/output
I0403 14:57:28.346000 30670 net.cpp:425] inception_3b/output <- inception_3b/1x1
I0403 14:57:28.346021 30670 net.cpp:425] inception_3b/output <- inception_3b/3x3
I0403 14:57:28.346040 30670 net.cpp:425] inception_3b/output <- inception_3b/5x5
I0403 14:57:28.346058 30670 net.cpp:425] inception_3b/output <- inception_3b/pool_proj
I0403 14:57:28.346079 30670 net.cpp:399] inception_3b/output -> inception_3b/output
I0403 14:57:28.346132 30670 net.cpp:141] Setting up inception_3b/output
I0403 14:57:28.346158 30670 net.cpp:148] Top shape: 24 480 28 28 (9031680)
I0403 14:57:28.346175 30670 net.cpp:156] Memory required for data: 809239584
I0403 14:57:28.346192 30670 layer_factory.hpp:77] Creating layer pool3/3x3_s2
I0403 14:57:28.346213 30670 net.cpp:91] Creating Layer pool3/3x3_s2
I0403 14:57:28.346231 30670 net.cpp:425] pool3/3x3_s2 <- inception_3b/output
I0403 14:57:28.346254 30670 net.cpp:399] pool3/3x3_s2 -> pool3/3x3_s2
I0403 14:57:28.346335 30670 net.cpp:141] Setting up pool3/3x3_s2
I0403 14:57:28.346362 30670 net.cpp:148] Top shape: 24 480 14 14 (2257920)
I0403 14:57:28.346379 30670 net.cpp:156] Memory required for data: 818271264
I0403 14:57:28.346395 30670 layer_factory.hpp:77] Creating layer pool3/3x3_s2_pool3/3x3_s2_0_split
I0403 14:57:28.346420 30670 net.cpp:91] Creating Layer pool3/3x3_s2_pool3/3x3_s2_0_split
I0403 14:57:28.346438 30670 net.cpp:425] pool3/3x3_s2_pool3/3x3_s2_0_split <- pool3/3x3_s2
I0403 14:57:28.346459 30670 net.cpp:399] pool3/3x3_s2_pool3/3x3_s2_0_split -> pool3/3x3_s2_pool3/3x3_s2_0_split_0
I0403 14:57:28.346480 30670 net.cpp:399] pool3/3x3_s2_pool3/3x3_s2_0_split -> pool3/3x3_s2_pool3/3x3_s2_0_split_1
I0403 14:57:28.346506 30670 net.cpp:399] pool3/3x3_s2_pool3/3x3_s2_0_split -> pool3/3x3_s2_pool3/3x3_s2_0_split_2
I0403 14:57:28.346529 30670 net.cpp:399] pool3/3x3_s2_pool3/3x3_s2_0_split -> pool3/3x3_s2_pool3/3x3_s2_0_split_3
I0403 14:57:28.346608 30670 net.cpp:141] Setting up pool3/3x3_s2_pool3/3x3_s2_0_split
I0403 14:57:28.346633 30670 net.cpp:148] Top shape: 24 480 14 14 (2257920)
I0403 14:57:28.346652 30670 net.cpp:148] Top shape: 24 480 14 14 (2257920)
I0403 14:57:28.346671 30670 net.cpp:148] Top shape: 24 480 14 14 (2257920)
I0403 14:57:28.346689 30670 net.cpp:148] Top shape: 24 480 14 14 (2257920)
I0403 14:57:28.346706 30670 net.cpp:156] Memory required for data: 854397984
I0403 14:57:28.346722 30670 layer_factory.hpp:77] Creating layer inception_4a/1x1
I0403 14:57:28.346747 30670 net.cpp:91] Creating Layer inception_4a/1x1
I0403 14:57:28.346767 30670 net.cpp:425] inception_4a/1x1 <- pool3/3x3_s2_pool3/3x3_s2_0_split_0
I0403 14:57:28.346789 30670 net.cpp:399] inception_4a/1x1 -> inception_4a/1x1
I0403 14:57:28.348441 30670 net.cpp:141] Setting up inception_4a/1x1
I0403 14:57:28.348472 30670 net.cpp:148] Top shape: 24 192 14 14 (903168)
I0403 14:57:28.348489 30670 net.cpp:156] Memory required for data: 858010656
I0403 14:57:28.348512 30670 layer_factory.hpp:77] Creating layer inception_4a/relu_1x1
I0403 14:57:28.348536 30670 net.cpp:91] Creating Layer inception_4a/relu_1x1
I0403 14:57:28.348557 30670 net.cpp:425] inception_4a/relu_1x1 <- inception_4a/1x1
I0403 14:57:28.348578 30670 net.cpp:386] inception_4a/relu_1x1 -> inception_4a/1x1 (in-place)
I0403 14:57:28.348768 30670 net.cpp:141] Setting up inception_4a/relu_1x1
I0403 14:57:28.348798 30670 net.cpp:148] Top shape: 24 192 14 14 (903168)
I0403 14:57:28.348817 30670 net.cpp:156] Memory required for data: 861623328
I0403 14:57:28.348834 30670 layer_factory.hpp:77] Creating layer inception_4a/3x3_reduce
I0403 14:57:28.348861 30670 net.cpp:91] Creating Layer inception_4a/3x3_reduce
I0403 14:57:28.348882 30670 net.cpp:425] inception_4a/3x3_reduce <- pool3/3x3_s2_pool3/3x3_s2_0_split_1
I0403 14:57:28.348902 30670 net.cpp:399] inception_4a/3x3_reduce -> inception_4a/3x3_reduce
I0403 14:57:28.350244 30670 net.cpp:141] Setting up inception_4a/3x3_reduce
I0403 14:57:28.350275 30670 net.cpp:148] Top shape: 24 96 14 14 (451584)
I0403 14:57:28.350293 30670 net.cpp:156] Memory required for data: 863429664
I0403 14:57:28.350330 30670 layer_factory.hpp:77] Creating layer inception_4a/relu_3x3_reduce
I0403 14:57:28.350356 30670 net.cpp:91] Creating Layer inception_4a/relu_3x3_reduce
I0403 14:57:28.350376 30670 net.cpp:425] inception_4a/relu_3x3_reduce <- inception_4a/3x3_reduce
I0403 14:57:28.350396 30670 net.cpp:386] inception_4a/relu_3x3_reduce -> inception_4a/3x3_reduce (in-place)
I0403 14:57:28.350580 30670 net.cpp:141] Setting up inception_4a/relu_3x3_reduce
I0403 14:57:28.350610 30670 net.cpp:148] Top shape: 24 96 14 14 (451584)
I0403 14:57:28.350627 30670 net.cpp:156] Memory required for data: 865236000
I0403 14:57:28.350643 30670 layer_factory.hpp:77] Creating layer inception_4a/3x3
I0403 14:57:28.350667 30670 net.cpp:91] Creating Layer inception_4a/3x3
I0403 14:57:28.350687 30670 net.cpp:425] inception_4a/3x3 <- inception_4a/3x3_reduce
I0403 14:57:28.350708 30670 net.cpp:399] inception_4a/3x3 -> inception_4a/3x3
I0403 14:57:28.353533 30670 net.cpp:141] Setting up inception_4a/3x3
I0403 14:57:28.353569 30670 net.cpp:148] Top shape: 24 208 14 14 (978432)
I0403 14:57:28.353588 30670 net.cpp:156] Memory required for data: 869149728
I0403 14:57:28.353610 30670 layer_factory.hpp:77] Creating layer inception_4a/relu_3x3
I0403 14:57:28.353631 30670 net.cpp:91] Creating Layer inception_4a/relu_3x3
I0403 14:57:28.353647 30670 net.cpp:425] inception_4a/relu_3x3 <- inception_4a/3x3
I0403 14:57:28.353669 30670 net.cpp:386] inception_4a/relu_3x3 -> inception_4a/3x3 (in-place)
I0403 14:57:28.353962 30670 net.cpp:141] Setting up inception_4a/relu_3x3
I0403 14:57:28.353992 30670 net.cpp:148] Top shape: 24 208 14 14 (978432)
I0403 14:57:28.354010 30670 net.cpp:156] Memory required for data: 873063456
I0403 14:57:28.354027 30670 layer_factory.hpp:77] Creating layer inception_4a/5x5_reduce
I0403 14:57:28.354051 30670 net.cpp:91] Creating Layer inception_4a/5x5_reduce
I0403 14:57:28.354070 30670 net.cpp:425] inception_4a/5x5_reduce <- pool3/3x3_s2_pool3/3x3_s2_0_split_2
I0403 14:57:28.354091 30670 net.cpp:399] inception_4a/5x5_reduce -> inception_4a/5x5_reduce
I0403 14:57:28.355185 30670 net.cpp:141] Setting up inception_4a/5x5_reduce
I0403 14:57:28.355216 30670 net.cpp:148] Top shape: 24 16 14 14 (75264)
I0403 14:57:28.355234 30670 net.cpp:156] Memory required for data: 873364512
I0403 14:57:28.355257 30670 layer_factory.hpp:77] Creating layer inception_4a/relu_5x5_reduce
I0403 14:57:28.355280 30670 net.cpp:91] Creating Layer inception_4a/relu_5x5_reduce
I0403 14:57:28.355298 30670 net.cpp:425] inception_4a/relu_5x5_reduce <- inception_4a/5x5_reduce
I0403 14:57:28.355326 30670 net.cpp:386] inception_4a/relu_5x5_reduce -> inception_4a/5x5_reduce (in-place)
I0403 14:57:28.355516 30670 net.cpp:141] Setting up inception_4a/relu_5x5_reduce
I0403 14:57:28.379578 30670 net.cpp:148] Top shape: 24 16 14 14 (75264)
I0403 14:57:28.379598 30670 net.cpp:156] Memory required for data: 873665568
I0403 14:57:28.379628 30670 layer_factory.hpp:77] Creating layer inception_4a/5x5
I0403 14:57:28.379657 30670 net.cpp:91] Creating Layer inception_4a/5x5
I0403 14:57:28.379678 30670 net.cpp:425] inception_4a/5x5 <- inception_4a/5x5_reduce
I0403 14:57:28.379703 30670 net.cpp:399] inception_4a/5x5 -> inception_4a/5x5
I0403 14:57:28.380849 30670 net.cpp:141] Setting up inception_4a/5x5
I0403 14:57:28.380880 30670 net.cpp:148] Top shape: 24 48 14 14 (225792)
I0403 14:57:28.380900 30670 net.cpp:156] Memory required for data: 874568736
I0403 14:57:28.380920 30670 layer_factory.hpp:77] Creating layer inception_4a/relu_5x5
I0403 14:57:28.380944 30670 net.cpp:91] Creating Layer inception_4a/relu_5x5
I0403 14:57:28.380961 30670 net.cpp:425] inception_4a/relu_5x5 <- inception_4a/5x5
I0403 14:57:28.380980 30670 net.cpp:386] inception_4a/relu_5x5 -> inception_4a/5x5 (in-place)
I0403 14:57:28.381160 30670 net.cpp:141] Setting up inception_4a/relu_5x5
I0403 14:57:28.381188 30670 net.cpp:148] Top shape: 24 48 14 14 (225792)
I0403 14:57:28.381204 30670 net.cpp:156] Memory required for data: 875471904
I0403 14:57:28.381222 30670 layer_factory.hpp:77] Creating layer inception_4a/pool
I0403 14:57:28.381242 30670 net.cpp:91] Creating Layer inception_4a/pool
I0403 14:57:28.381261 30670 net.cpp:425] inception_4a/pool <- pool3/3x3_s2_pool3/3x3_s2_0_split_3
I0403 14:57:28.381280 30670 net.cpp:399] inception_4a/pool -> inception_4a/pool
I0403 14:57:28.381351 30670 net.cpp:141] Setting up inception_4a/pool
I0403 14:57:28.381376 30670 net.cpp:148] Top shape: 24 480 14 14 (2257920)
I0403 14:57:28.381392 30670 net.cpp:156] Memory required for data: 884503584
I0403 14:57:28.381408 30670 layer_factory.hpp:77] Creating layer inception_4a/pool_proj
I0403 14:57:28.381431 30670 net.cpp:91] Creating Layer inception_4a/pool_proj
I0403 14:57:28.381455 30670 net.cpp:425] inception_4a/pool_proj <- inception_4a/pool
I0403 14:57:28.381477 30670 net.cpp:399] inception_4a/pool_proj -> inception_4a/pool_proj
I0403 14:57:28.382669 30670 net.cpp:141] Setting up inception_4a/pool_proj
I0403 14:57:28.382699 30670 net.cpp:148] Top shape: 24 64 14 14 (301056)
I0403 14:57:28.382732 30670 net.cpp:156] Memory required for data: 885707808
I0403 14:57:28.382753 30670 layer_factory.hpp:77] Creating layer inception_4a/relu_pool_proj
I0403 14:57:28.382776 30670 net.cpp:91] Creating Layer inception_4a/relu_pool_proj
I0403 14:57:28.382796 30670 net.cpp:425] inception_4a/relu_pool_proj <- inception_4a/pool_proj
I0403 14:57:28.382813 30670 net.cpp:386] inception_4a/relu_pool_proj -> inception_4a/pool_proj (in-place)
I0403 14:57:28.383103 30670 net.cpp:141] Setting up inception_4a/relu_pool_proj
I0403 14:57:28.383131 30670 net.cpp:148] Top shape: 24 64 14 14 (301056)
I0403 14:57:28.383148 30670 net.cpp:156] Memory required for data: 886912032
I0403 14:57:28.383165 30670 layer_factory.hpp:77] Creating layer inception_4a/output
I0403 14:57:28.383189 30670 net.cpp:91] Creating Layer inception_4a/output
I0403 14:57:28.383208 30670 net.cpp:425] inception_4a/output <- inception_4a/1x1
I0403 14:57:28.383229 30670 net.cpp:425] inception_4a/output <- inception_4a/3x3
I0403 14:57:28.383249 30670 net.cpp:425] inception_4a/output <- inception_4a/5x5
I0403 14:57:28.383275 30670 net.cpp:425] inception_4a/output <- inception_4a/pool_proj
I0403 14:57:28.383296 30670 net.cpp:399] inception_4a/output -> inception_4a/output
I0403 14:57:28.383352 30670 net.cpp:141] Setting up inception_4a/output
I0403 14:57:28.383376 30670 net.cpp:148] Top shape: 24 512 14 14 (2408448)
I0403 14:57:28.383394 30670 net.cpp:156] Memory required for data: 896545824
I0403 14:57:28.383410 30670 layer_factory.hpp:77] Creating layer inception_4a/output_inception_4a/output_0_split
I0403 14:57:28.383430 30670 net.cpp:91] Creating Layer inception_4a/output_inception_4a/output_0_split
I0403 14:57:28.383450 30670 net.cpp:425] inception_4a/output_inception_4a/output_0_split <- inception_4a/output
I0403 14:57:28.383471 30670 net.cpp:399] inception_4a/output_inception_4a/output_0_split -> inception_4a/output_inception_4a/output_0_split_0
I0403 14:57:28.383494 30670 net.cpp:399] inception_4a/output_inception_4a/output_0_split -> inception_4a/output_inception_4a/output_0_split_1
I0403 14:57:28.383517 30670 net.cpp:399] inception_4a/output_inception_4a/output_0_split -> inception_4a/output_inception_4a/output_0_split_2
I0403 14:57:28.383539 30670 net.cpp:399] inception_4a/output_inception_4a/output_0_split -> inception_4a/output_inception_4a/output_0_split_3
I0403 14:57:28.383563 30670 net.cpp:399] inception_4a/output_inception_4a/output_0_split -> inception_4a/output_inception_4a/output_0_split_4
I0403 14:57:28.383661 30670 net.cpp:141] Setting up inception_4a/output_inception_4a/output_0_split
I0403 14:57:28.383687 30670 net.cpp:148] Top shape: 24 512 14 14 (2408448)
I0403 14:57:28.383704 30670 net.cpp:148] Top shape: 24 512 14 14 (2408448)
I0403 14:57:28.383721 30670 net.cpp:148] Top shape: 24 512 14 14 (2408448)
I0403 14:57:28.383739 30670 net.cpp:148] Top shape: 24 512 14 14 (2408448)
I0403 14:57:28.383756 30670 net.cpp:148] Top shape: 24 512 14 14 (2408448)
I0403 14:57:28.383774 30670 net.cpp:156] Memory required for data: 944714784
I0403 14:57:28.383790 30670 layer_factory.hpp:77] Creating layer loss1/ave_pool
I0403 14:57:28.383810 30670 net.cpp:91] Creating Layer loss1/ave_pool
I0403 14:57:28.383828 30670 net.cpp:425] loss1/ave_pool <- inception_4a/output_inception_4a/output_0_split_0
I0403 14:57:28.383852 30670 net.cpp:399] loss1/ave_pool -> loss1/ave_pool
I0403 14:57:28.384068 30670 net.cpp:141] Setting up loss1/ave_pool
I0403 14:57:28.384095 30670 net.cpp:148] Top shape: 24 512 4 4 (196608)
I0403 14:57:28.384110 30670 net.cpp:156] Memory required for data: 945501216
I0403 14:57:28.384126 30670 layer_factory.hpp:77] Creating layer loss1/conv
I0403 14:57:28.384151 30670 net.cpp:91] Creating Layer loss1/conv
I0403 14:57:28.384171 30670 net.cpp:425] loss1/conv <- loss1/ave_pool
I0403 14:57:28.384194 30670 net.cpp:399] loss1/conv -> loss1/conv
I0403 14:57:28.385648 30670 net.cpp:141] Setting up loss1/conv
I0403 14:57:28.385681 30670 net.cpp:148] Top shape: 24 128 4 4 (49152)
I0403 14:57:28.385700 30670 net.cpp:156] Memory required for data: 945697824
I0403 14:57:28.385736 30670 layer_factory.hpp:77] Creating layer loss1/relu_conv
I0403 14:57:28.385757 30670 net.cpp:91] Creating Layer loss1/relu_conv
I0403 14:57:28.385774 30670 net.cpp:425] loss1/relu_conv <- loss1/conv
I0403 14:57:28.385795 30670 net.cpp:386] loss1/relu_conv -> loss1/conv (in-place)
I0403 14:57:28.386081 30670 net.cpp:141] Setting up loss1/relu_conv
I0403 14:57:28.386112 30670 net.cpp:148] Top shape: 24 128 4 4 (49152)
I0403 14:57:28.386132 30670 net.cpp:156] Memory required for data: 945894432
I0403 14:57:28.386147 30670 layer_factory.hpp:77] Creating layer loss1/fc
I0403 14:57:28.386173 30670 net.cpp:91] Creating Layer loss1/fc
I0403 14:57:28.386193 30670 net.cpp:425] loss1/fc <- loss1/conv
I0403 14:57:28.386214 30670 net.cpp:399] loss1/fc -> loss1/fc
I0403 14:57:28.404680 30670 net.cpp:141] Setting up loss1/fc
I0403 14:57:28.404768 30670 net.cpp:148] Top shape: 24 1024 (24576)
I0403 14:57:28.404786 30670 net.cpp:156] Memory required for data: 945992736
I0403 14:57:28.404810 30670 layer_factory.hpp:77] Creating layer loss1/relu_fc
I0403 14:57:28.404834 30670 net.cpp:91] Creating Layer loss1/relu_fc
I0403 14:57:28.404855 30670 net.cpp:425] loss1/relu_fc <- loss1/fc
I0403 14:57:28.404875 30670 net.cpp:386] loss1/relu_fc -> loss1/fc (in-place)
I0403 14:57:28.405128 30670 net.cpp:141] Setting up loss1/relu_fc
I0403 14:57:28.405156 30670 net.cpp:148] Top shape: 24 1024 (24576)
I0403 14:57:28.405174 30670 net.cpp:156] Memory required for data: 946091040
I0403 14:57:28.405189 30670 layer_factory.hpp:77] Creating layer loss1/drop_fc
I0403 14:57:28.405222 30670 net.cpp:91] Creating Layer loss1/drop_fc
I0403 14:57:28.405242 30670 net.cpp:425] loss1/drop_fc <- loss1/fc
I0403 14:57:28.405261 30670 net.cpp:386] loss1/drop_fc -> loss1/fc (in-place)
I0403 14:57:28.405325 30670 net.cpp:141] Setting up loss1/drop_fc
I0403 14:57:28.405352 30670 net.cpp:148] Top shape: 24 1024 (24576)
I0403 14:57:28.405369 30670 net.cpp:156] Memory required for data: 946189344
I0403 14:57:28.405387 30670 layer_factory.hpp:77] Creating layer loss1/classifier_plantvillage
I0403 14:57:28.405414 30670 net.cpp:91] Creating Layer loss1/classifier_plantvillage
I0403 14:57:28.405433 30670 net.cpp:425] loss1/classifier_plantvillage <- loss1/fc
I0403 14:57:28.405453 30670 net.cpp:399] loss1/classifier_plantvillage -> loss1/classifier_plantvillage
I0403 14:57:28.406478 30670 net.cpp:141] Setting up loss1/classifier_plantvillage
I0403 14:57:28.406510 30670 net.cpp:148] Top shape: 24 38 (912)
I0403 14:57:28.406527 30670 net.cpp:156] Memory required for data: 946192992
I0403 14:57:28.406548 30670 layer_factory.hpp:77] Creating layer loss1/classifier_plantvillage_loss1/classifier_plantvillage_0_split
I0403 14:57:28.406568 30670 net.cpp:91] Creating Layer loss1/classifier_plantvillage_loss1/classifier_plantvillage_0_split
I0403 14:57:28.406585 30670 net.cpp:425] loss1/classifier_plantvillage_loss1/classifier_plantvillage_0_split <- loss1/classifier_plantvillage
I0403 14:57:28.406605 30670 net.cpp:399] loss1/classifier_plantvillage_loss1/classifier_plantvillage_0_split -> loss1/classifier_plantvillage_loss1/classifier_plantvillage_0_split_0
I0403 14:57:28.406627 30670 net.cpp:399] loss1/classifier_plantvillage_loss1/classifier_plantvillage_0_split -> loss1/classifier_plantvillage_loss1/classifier_plantvillage_0_split_1
I0403 14:57:28.406652 30670 net.cpp:399] loss1/classifier_plantvillage_loss1/classifier_plantvillage_0_split -> loss1/classifier_plantvillage_loss1/classifier_plantvillage_0_split_2
I0403 14:57:28.406721 30670 net.cpp:141] Setting up loss1/classifier_plantvillage_loss1/classifier_plantvillage_0_split
I0403 14:57:28.406746 30670 net.cpp:148] Top shape: 24 38 (912)
I0403 14:57:28.406765 30670 net.cpp:148] Top shape: 24 38 (912)
I0403 14:57:28.406782 30670 net.cpp:148] Top shape: 24 38 (912)
I0403 14:57:28.406800 30670 net.cpp:156] Memory required for data: 946203936
I0403 14:57:28.406816 30670 layer_factory.hpp:77] Creating layer inception_4b/1x1
I0403 14:57:28.406841 30670 net.cpp:91] Creating Layer inception_4b/1x1
I0403 14:57:28.406893 30670 net.cpp:425] inception_4b/1x1 <- inception_4a/output_inception_4a/output_0_split_1
I0403 14:57:28.406925 30670 net.cpp:399] inception_4b/1x1 -> inception_4b/1x1
I0403 14:57:28.408663 30670 net.cpp:141] Setting up inception_4b/1x1
I0403 14:57:28.408696 30670 net.cpp:148] Top shape: 24 160 14 14 (752640)
I0403 14:57:28.408713 30670 net.cpp:156] Memory required for data: 949214496
I0403 14:57:28.408733 30670 layer_factory.hpp:77] Creating layer inception_4b/relu_1x1
I0403 14:57:28.408753 30670 net.cpp:91] Creating Layer inception_4b/relu_1x1
I0403 14:57:28.408771 30670 net.cpp:425] inception_4b/relu_1x1 <- inception_4b/1x1
I0403 14:57:28.408797 30670 net.cpp:386] inception_4b/relu_1x1 -> inception_4b/1x1 (in-place)
I0403 14:57:28.408982 30670 net.cpp:141] Setting up inception_4b/relu_1x1
I0403 14:57:28.409008 30670 net.cpp:148] Top shape: 24 160 14 14 (752640)
I0403 14:57:28.409024 30670 net.cpp:156] Memory required for data: 952225056
I0403 14:57:28.409041 30670 layer_factory.hpp:77] Creating layer inception_4b/3x3_reduce
I0403 14:57:28.409065 30670 net.cpp:91] Creating Layer inception_4b/3x3_reduce
I0403 14:57:28.409085 30670 net.cpp:425] inception_4b/3x3_reduce <- inception_4a/output_inception_4a/output_0_split_2
I0403 14:57:28.409108 30670 net.cpp:399] inception_4b/3x3_reduce -> inception_4b/3x3_reduce
I0403 14:57:28.410502 30670 net.cpp:141] Setting up inception_4b/3x3_reduce
I0403 14:57:28.410533 30670 net.cpp:148] Top shape: 24 112 14 14 (526848)
I0403 14:57:28.410552 30670 net.cpp:156] Memory required for data: 954332448
I0403 14:57:28.410573 30670 layer_factory.hpp:77] Creating layer inception_4b/relu_3x3_reduce
I0403 14:57:28.410595 30670 net.cpp:91] Creating Layer inception_4b/relu_3x3_reduce
I0403 14:57:28.410614 30670 net.cpp:425] inception_4b/relu_3x3_reduce <- inception_4b/3x3_reduce
I0403 14:57:28.410635 30670 net.cpp:386] inception_4b/relu_3x3_reduce -> inception_4b/3x3_reduce (in-place)
I0403 14:57:28.410926 30670 net.cpp:141] Setting up inception_4b/relu_3x3_reduce
I0403 14:57:28.410956 30670 net.cpp:148] Top shape: 24 112 14 14 (526848)
I0403 14:57:28.410974 30670 net.cpp:156] Memory required for data: 956439840
I0403 14:57:28.410989 30670 layer_factory.hpp:77] Creating layer inception_4b/3x3
I0403 14:57:28.411016 30670 net.cpp:91] Creating Layer inception_4b/3x3
I0403 14:57:28.411036 30670 net.cpp:425] inception_4b/3x3 <- inception_4b/3x3_reduce
I0403 14:57:28.411062 30670 net.cpp:399] inception_4b/3x3 -> inception_4b/3x3
I0403 14:57:28.414103 30670 net.cpp:141] Setting up inception_4b/3x3
I0403 14:57:28.415730 30670 net.cpp:148] Top shape: 24 224 14 14 (1053696)
I0403 14:57:28.415753 30670 net.cpp:156] Memory required for data: 960654624
I0403 14:57:28.415776 30670 layer_factory.hpp:77] Creating layer inception_4b/relu_3x3
I0403 14:57:28.415802 30670 net.cpp:91] Creating Layer inception_4b/relu_3x3
I0403 14:57:28.415822 30670 net.cpp:425] inception_4b/relu_3x3 <- inception_4b/3x3
I0403 14:57:28.415843 30670 net.cpp:386] inception_4b/relu_3x3 -> inception_4b/3x3 (in-place)
I0403 14:57:28.416049 30670 net.cpp:141] Setting up inception_4b/relu_3x3
I0403 14:57:28.416079 30670 net.cpp:148] Top shape: 24 224 14 14 (1053696)
I0403 14:57:28.416098 30670 net.cpp:156] Memory required for data: 964869408
I0403 14:57:28.416115 30670 layer_factory.hpp:77] Creating layer inception_4b/5x5_reduce
I0403 14:57:28.416141 30670 net.cpp:91] Creating Layer inception_4b/5x5_reduce
I0403 14:57:28.416162 30670 net.cpp:425] inception_4b/5x5_reduce <- inception_4a/output_inception_4a/output_0_split_3
I0403 14:57:28.416182 30670 net.cpp:399] inception_4b/5x5_reduce -> inception_4b/5x5_reduce
I0403 14:57:28.417345 30670 net.cpp:141] Setting up inception_4b/5x5_reduce
I0403 14:57:28.417376 30670 net.cpp:148] Top shape: 24 24 14 14 (112896)
I0403 14:57:28.417394 30670 net.cpp:156] Memory required for data: 965320992
I0403 14:57:28.417414 30670 layer_factory.hpp:77] Creating layer inception_4b/relu_5x5_reduce
I0403 14:57:28.417435 30670 net.cpp:91] Creating Layer inception_4b/relu_5x5_reduce
I0403 14:57:28.417472 30670 net.cpp:425] inception_4b/relu_5x5_reduce <- inception_4b/5x5_reduce
I0403 14:57:28.417497 30670 net.cpp:386] inception_4b/relu_5x5_reduce -> inception_4b/5x5_reduce (in-place)
I0403 14:57:28.417685 30670 net.cpp:141] Setting up inception_4b/relu_5x5_reduce
I0403 14:57:28.417714 30670 net.cpp:148] Top shape: 24 24 14 14 (112896)
I0403 14:57:28.417732 30670 net.cpp:156] Memory required for data: 965772576
I0403 14:57:28.417747 30670 layer_factory.hpp:77] Creating layer inception_4b/5x5
I0403 14:57:28.417773 30670 net.cpp:91] Creating Layer inception_4b/5x5
I0403 14:57:28.417793 30670 net.cpp:425] inception_4b/5x5 <- inception_4b/5x5_reduce
I0403 14:57:28.417817 30670 net.cpp:399] inception_4b/5x5 -> inception_4b/5x5
I0403 14:57:28.419078 30670 net.cpp:141] Setting up inception_4b/5x5
I0403 14:57:28.419111 30670 net.cpp:148] Top shape: 24 64 14 14 (301056)
I0403 14:57:28.419128 30670 net.cpp:156] Memory required for data: 966976800
I0403 14:57:28.419149 30670 layer_factory.hpp:77] Creating layer inception_4b/relu_5x5
I0403 14:57:28.419170 30670 net.cpp:91] Creating Layer inception_4b/relu_5x5
I0403 14:57:28.419188 30670 net.cpp:425] inception_4b/relu_5x5 <- inception_4b/5x5
I0403 14:57:28.419211 30670 net.cpp:386] inception_4b/relu_5x5 -> inception_4b/5x5 (in-place)
I0403 14:57:28.419512 30670 net.cpp:141] Setting up inception_4b/relu_5x5
I0403 14:57:28.419539 30670 net.cpp:148] Top shape: 24 64 14 14 (301056)
I0403 14:57:28.419555 30670 net.cpp:156] Memory required for data: 968181024
I0403 14:57:28.419575 30670 layer_factory.hpp:77] Creating layer inception_4b/pool
I0403 14:57:28.419596 30670 net.cpp:91] Creating Layer inception_4b/pool
I0403 14:57:28.419615 30670 net.cpp:425] inception_4b/pool <- inception_4a/output_inception_4a/output_0_split_4
I0403 14:57:28.419638 30670 net.cpp:399] inception_4b/pool -> inception_4b/pool
I0403 14:57:28.419709 30670 net.cpp:141] Setting up inception_4b/pool
I0403 14:57:28.419734 30670 net.cpp:148] Top shape: 24 512 14 14 (2408448)
I0403 14:57:28.419751 30670 net.cpp:156] Memory required for data: 977814816
I0403 14:57:28.419767 30670 layer_factory.hpp:77] Creating layer inception_4b/pool_proj
I0403 14:57:28.419793 30670 net.cpp:91] Creating Layer inception_4b/pool_proj
I0403 14:57:28.419812 30670 net.cpp:425] inception_4b/pool_proj <- inception_4b/pool
I0403 14:57:28.419833 30670 net.cpp:399] inception_4b/pool_proj -> inception_4b/pool_proj
I0403 14:57:28.421078 30670 net.cpp:141] Setting up inception_4b/pool_proj
I0403 14:57:28.421108 30670 net.cpp:148] Top shape: 24 64 14 14 (301056)
I0403 14:57:28.421125 30670 net.cpp:156] Memory required for data: 979019040
I0403 14:57:28.421146 30670 layer_factory.hpp:77] Creating layer inception_4b/relu_pool_proj
I0403 14:57:28.421167 30670 net.cpp:91] Creating Layer inception_4b/relu_pool_proj
I0403 14:57:28.421185 30670 net.cpp:425] inception_4b/relu_pool_proj <- inception_4b/pool_proj
I0403 14:57:28.421207 30670 net.cpp:386] inception_4b/relu_pool_proj -> inception_4b/pool_proj (in-place)
I0403 14:57:28.421402 30670 net.cpp:141] Setting up inception_4b/relu_pool_proj
I0403 14:57:28.421430 30670 net.cpp:148] Top shape: 24 64 14 14 (301056)
I0403 14:57:28.421447 30670 net.cpp:156] Memory required for data: 980223264
I0403 14:57:28.421463 30670 layer_factory.hpp:77] Creating layer inception_4b/output
I0403 14:57:28.421486 30670 net.cpp:91] Creating Layer inception_4b/output
I0403 14:57:28.421507 30670 net.cpp:425] inception_4b/output <- inception_4b/1x1
I0403 14:57:28.421525 30670 net.cpp:425] inception_4b/output <- inception_4b/3x3
I0403 14:57:28.421545 30670 net.cpp:425] inception_4b/output <- inception_4b/5x5
I0403 14:57:28.421563 30670 net.cpp:425] inception_4b/output <- inception_4b/pool_proj
I0403 14:57:28.421582 30670 net.cpp:399] inception_4b/output -> inception_4b/output
I0403 14:57:28.421633 30670 net.cpp:141] Setting up inception_4b/output
I0403 14:57:28.421658 30670 net.cpp:148] Top shape: 24 512 14 14 (2408448)
I0403 14:57:28.421674 30670 net.cpp:156] Memory required for data: 989857056
I0403 14:57:28.421706 30670 layer_factory.hpp:77] Creating layer inception_4b/output_inception_4b/output_0_split
I0403 14:57:28.421726 30670 net.cpp:91] Creating Layer inception_4b/output_inception_4b/output_0_split
I0403 14:57:28.421744 30670 net.cpp:425] inception_4b/output_inception_4b/output_0_split <- inception_4b/output
I0403 14:57:28.421768 30670 net.cpp:399] inception_4b/output_inception_4b/output_0_split -> inception_4b/output_inception_4b/output_0_split_0
I0403 14:57:28.421790 30670 net.cpp:399] inception_4b/output_inception_4b/output_0_split -> inception_4b/output_inception_4b/output_0_split_1
I0403 14:57:28.421813 30670 net.cpp:399] inception_4b/output_inception_4b/output_0_split -> inception_4b/output_inception_4b/output_0_split_2
I0403 14:57:28.421836 30670 net.cpp:399] inception_4b/output_inception_4b/output_0_split -> inception_4b/output_inception_4b/output_0_split_3
I0403 14:57:28.421924 30670 net.cpp:141] Setting up inception_4b/output_inception_4b/output_0_split
I0403 14:57:28.421952 30670 net.cpp:148] Top shape: 24 512 14 14 (2408448)
I0403 14:57:28.421970 30670 net.cpp:148] Top shape: 24 512 14 14 (2408448)
I0403 14:57:28.421988 30670 net.cpp:148] Top shape: 24 512 14 14 (2408448)
I0403 14:57:28.422004 30670 net.cpp:148] Top shape: 24 512 14 14 (2408448)
I0403 14:57:28.422020 30670 net.cpp:156] Memory required for data: 1028392224
I0403 14:57:28.422039 30670 layer_factory.hpp:77] Creating layer inception_4c/1x1
I0403 14:57:28.422063 30670 net.cpp:91] Creating Layer inception_4c/1x1
I0403 14:57:28.422082 30670 net.cpp:425] inception_4c/1x1 <- inception_4b/output_inception_4b/output_0_split_0
I0403 14:57:28.422103 30670 net.cpp:399] inception_4c/1x1 -> inception_4c/1x1
I0403 14:57:28.423632 30670 net.cpp:141] Setting up inception_4c/1x1
I0403 14:57:28.423663 30670 net.cpp:148] Top shape: 24 128 14 14 (602112)
I0403 14:57:28.423681 30670 net.cpp:156] Memory required for data: 1030800672
I0403 14:57:28.423702 30670 layer_factory.hpp:77] Creating layer inception_4c/relu_1x1
I0403 14:57:28.423722 30670 net.cpp:91] Creating Layer inception_4c/relu_1x1
I0403 14:57:28.423740 30670 net.cpp:425] inception_4c/relu_1x1 <- inception_4c/1x1
I0403 14:57:28.423759 30670 net.cpp:386] inception_4c/relu_1x1 -> inception_4c/1x1 (in-place)
I0403 14:57:28.423951 30670 net.cpp:141] Setting up inception_4c/relu_1x1
I0403 14:57:28.423981 30670 net.cpp:148] Top shape: 24 128 14 14 (602112)
I0403 14:57:28.424000 30670 net.cpp:156] Memory required for data: 1033209120
I0403 14:57:28.424015 30670 layer_factory.hpp:77] Creating layer inception_4c/3x3_reduce
I0403 14:57:28.424041 30670 net.cpp:91] Creating Layer inception_4c/3x3_reduce
I0403 14:57:28.424062 30670 net.cpp:425] inception_4c/3x3_reduce <- inception_4b/output_inception_4b/output_0_split_1
I0403 14:57:28.424082 30670 net.cpp:399] inception_4c/3x3_reduce -> inception_4c/3x3_reduce
I0403 14:57:28.426103 30670 net.cpp:141] Setting up inception_4c/3x3_reduce
I0403 14:57:28.426138 30670 net.cpp:148] Top shape: 24 128 14 14 (602112)
I0403 14:57:28.426157 30670 net.cpp:156] Memory required for data: 1035617568
I0403 14:57:28.426179 30670 layer_factory.hpp:77] Creating layer inception_4c/relu_3x3_reduce
I0403 14:57:28.426200 30670 net.cpp:91] Creating Layer inception_4c/relu_3x3_reduce
I0403 14:57:28.426220 30670 net.cpp:425] inception_4c/relu_3x3_reduce <- inception_4c/3x3_reduce
I0403 14:57:28.426240 30670 net.cpp:386] inception_4c/relu_3x3_reduce -> inception_4c/3x3_reduce (in-place)
I0403 14:57:28.426538 30670 net.cpp:141] Setting up inception_4c/relu_3x3_reduce
I0403 14:57:28.426569 30670 net.cpp:148] Top shape: 24 128 14 14 (602112)
I0403 14:57:28.426587 30670 net.cpp:156] Memory required for data: 1038026016
I0403 14:57:28.426604 30670 layer_factory.hpp:77] Creating layer inception_4c/3x3
I0403 14:57:28.426631 30670 net.cpp:91] Creating Layer inception_4c/3x3
I0403 14:57:28.426652 30670 net.cpp:425] inception_4c/3x3 <- inception_4c/3x3_reduce
I0403 14:57:28.426673 30670 net.cpp:399] inception_4c/3x3 -> inception_4c/3x3
I0403 14:57:28.430425 30670 net.cpp:141] Setting up inception_4c/3x3
I0403 14:57:28.430475 30670 net.cpp:148] Top shape: 24 256 14 14 (1204224)
I0403 14:57:28.430495 30670 net.cpp:156] Memory required for data: 1042842912
I0403 14:57:28.430533 30670 layer_factory.hpp:77] Creating layer inception_4c/relu_3x3
I0403 14:57:28.430557 30670 net.cpp:91] Creating Layer inception_4c/relu_3x3
I0403 14:57:28.430577 30670 net.cpp:425] inception_4c/relu_3x3 <- inception_4c/3x3
I0403 14:57:28.430600 30670 net.cpp:386] inception_4c/relu_3x3 -> inception_4c/3x3 (in-place)
I0403 14:57:28.430790 30670 net.cpp:141] Setting up inception_4c/relu_3x3
I0403 14:57:28.430819 30670 net.cpp:148] Top shape: 24 256 14 14 (1204224)
I0403 14:57:28.430835 30670 net.cpp:156] Memory required for data: 1047659808
I0403 14:57:28.430851 30670 layer_factory.hpp:77] Creating layer inception_4c/5x5_reduce
I0403 14:57:28.430878 30670 net.cpp:91] Creating Layer inception_4c/5x5_reduce
I0403 14:57:28.430898 30670 net.cpp:425] inception_4c/5x5_reduce <- inception_4b/output_inception_4b/output_0_split_2
I0403 14:57:28.430922 30670 net.cpp:399] inception_4c/5x5_reduce -> inception_4c/5x5_reduce
I0403 14:57:28.432035 30670 net.cpp:141] Setting up inception_4c/5x5_reduce
I0403 14:57:28.432080 30670 net.cpp:148] Top shape: 24 24 14 14 (112896)
I0403 14:57:28.432101 30670 net.cpp:156] Memory required for data: 1048111392
I0403 14:57:28.432121 30670 layer_factory.hpp:77] Creating layer inception_4c/relu_5x5_reduce
I0403 14:57:28.432142 30670 net.cpp:91] Creating Layer inception_4c/relu_5x5_reduce
I0403 14:57:28.432159 30670 net.cpp:425] inception_4c/relu_5x5_reduce <- inception_4c/5x5_reduce
I0403 14:57:28.432180 30670 net.cpp:386] inception_4c/relu_5x5_reduce -> inception_4c/5x5_reduce (in-place)
I0403 14:57:28.432376 30670 net.cpp:141] Setting up inception_4c/relu_5x5_reduce
I0403 14:57:28.432404 30670 net.cpp:148] Top shape: 24 24 14 14 (112896)
I0403 14:57:28.432420 30670 net.cpp:156] Memory required for data: 1048562976
I0403 14:57:28.432437 30670 layer_factory.hpp:77] Creating layer inception_4c/5x5
I0403 14:57:28.432461 30670 net.cpp:91] Creating Layer inception_4c/5x5
I0403 14:57:28.432481 30670 net.cpp:425] inception_4c/5x5 <- inception_4c/5x5_reduce
I0403 14:57:28.432504 30670 net.cpp:399] inception_4c/5x5 -> inception_4c/5x5
I0403 14:57:28.433827 30670 net.cpp:141] Setting up inception_4c/5x5
I0403 14:57:28.433857 30670 net.cpp:148] Top shape: 24 64 14 14 (301056)
I0403 14:57:28.433876 30670 net.cpp:156] Memory required for data: 1049767200
I0403 14:57:28.433897 30670 layer_factory.hpp:77] Creating layer inception_4c/relu_5x5
I0403 14:57:28.433920 30670 net.cpp:91] Creating Layer inception_4c/relu_5x5
I0403 14:57:28.433939 30670 net.cpp:425] inception_4c/relu_5x5 <- inception_4c/5x5
I0403 14:57:28.433957 30670 net.cpp:386] inception_4c/relu_5x5 -> inception_4c/5x5 (in-place)
I0403 14:57:28.434260 30670 net.cpp:141] Setting up inception_4c/relu_5x5
I0403 14:57:28.434289 30670 net.cpp:148] Top shape: 24 64 14 14 (301056)
I0403 14:57:28.434309 30670 net.cpp:156] Memory required for data: 1050971424
I0403 14:57:28.434341 30670 layer_factory.hpp:77] Creating layer inception_4c/pool
I0403 14:57:28.434370 30670 net.cpp:91] Creating Layer inception_4c/pool
I0403 14:57:28.434388 30670 net.cpp:425] inception_4c/pool <- inception_4b/output_inception_4b/output_0_split_3
I0403 14:57:28.434411 30670 net.cpp:399] inception_4c/pool -> inception_4c/pool
I0403 14:57:28.434480 30670 net.cpp:141] Setting up inception_4c/pool
I0403 14:57:28.434506 30670 net.cpp:148] Top shape: 24 512 14 14 (2408448)
I0403 14:57:28.434525 30670 net.cpp:156] Memory required for data: 1060605216
I0403 14:57:28.434541 30670 layer_factory.hpp:77] Creating layer inception_4c/pool_proj
I0403 14:57:28.434566 30670 net.cpp:91] Creating Layer inception_4c/pool_proj
I0403 14:57:28.434586 30670 net.cpp:425] inception_4c/pool_proj <- inception_4c/pool
I0403 14:57:28.434608 30670 net.cpp:399] inception_4c/pool_proj -> inception_4c/pool_proj
I0403 14:57:28.435878 30670 net.cpp:141] Setting up inception_4c/pool_proj
I0403 14:57:28.449524 30670 net.cpp:148] Top shape: 24 64 14 14 (301056)
I0403 14:57:28.449565 30670 net.cpp:156] Memory required for data: 1061809440
I0403 14:57:28.449590 30670 layer_factory.hpp:77] Creating layer inception_4c/relu_pool_proj
I0403 14:57:28.449612 30670 net.cpp:91] Creating Layer inception_4c/relu_pool_proj
I0403 14:57:28.449630 30670 net.cpp:425] inception_4c/relu_pool_proj <- inception_4c/pool_proj
I0403 14:57:28.449654 30670 net.cpp:386] inception_4c/relu_pool_proj -> inception_4c/pool_proj (in-place)
I0403 14:57:28.449868 30670 net.cpp:141] Setting up inception_4c/relu_pool_proj
I0403 14:57:28.449897 30670 net.cpp:148] Top shape: 24 64 14 14 (301056)
I0403 14:57:28.449914 30670 net.cpp:156] Memory required for data: 1063013664
I0403 14:57:28.449933 30670 layer_factory.hpp:77] Creating layer inception_4c/output
I0403 14:57:28.449955 30670 net.cpp:91] Creating Layer inception_4c/output
I0403 14:57:28.449986 30670 net.cpp:425] inception_4c/output <- inception_4c/1x1
I0403 14:57:28.450004 30670 net.cpp:425] inception_4c/output <- inception_4c/3x3
I0403 14:57:28.450022 30670 net.cpp:425] inception_4c/output <- inception_4c/5x5
I0403 14:57:28.450042 30670 net.cpp:425] inception_4c/output <- inception_4c/pool_proj
I0403 14:57:28.450060 30670 net.cpp:399] inception_4c/output -> inception_4c/output
I0403 14:57:28.450109 30670 net.cpp:141] Setting up inception_4c/output
I0403 14:57:28.450139 30670 net.cpp:148] Top shape: 24 512 14 14 (2408448)
I0403 14:57:28.450155 30670 net.cpp:156] Memory required for data: 1072647456
I0403 14:57:28.450171 30670 layer_factory.hpp:77] Creating layer inception_4c/output_inception_4c/output_0_split
I0403 14:57:28.450191 30670 net.cpp:91] Creating Layer inception_4c/output_inception_4c/output_0_split
I0403 14:57:28.450211 30670 net.cpp:425] inception_4c/output_inception_4c/output_0_split <- inception_4c/output
I0403 14:57:28.450232 30670 net.cpp:399] inception_4c/output_inception_4c/output_0_split -> inception_4c/output_inception_4c/output_0_split_0
I0403 14:57:28.450255 30670 net.cpp:399] inception_4c/output_inception_4c/output_0_split -> inception_4c/output_inception_4c/output_0_split_1
I0403 14:57:28.450278 30670 net.cpp:399] inception_4c/output_inception_4c/output_0_split -> inception_4c/output_inception_4c/output_0_split_2
I0403 14:57:28.450299 30670 net.cpp:399] inception_4c/output_inception_4c/output_0_split -> inception_4c/output_inception_4c/output_0_split_3
I0403 14:57:28.450404 30670 net.cpp:141] Setting up inception_4c/output_inception_4c/output_0_split
I0403 14:57:28.450434 30670 net.cpp:148] Top shape: 24 512 14 14 (2408448)
I0403 14:57:28.450453 30670 net.cpp:148] Top shape: 24 512 14 14 (2408448)
I0403 14:57:28.450472 30670 net.cpp:148] Top shape: 24 512 14 14 (2408448)
I0403 14:57:28.450489 30670 net.cpp:148] Top shape: 24 512 14 14 (2408448)
I0403 14:57:28.450505 30670 net.cpp:156] Memory required for data: 1111182624
I0403 14:57:28.450522 30670 layer_factory.hpp:77] Creating layer inception_4d/1x1
I0403 14:57:28.450546 30670 net.cpp:91] Creating Layer inception_4d/1x1
I0403 14:57:28.450565 30670 net.cpp:425] inception_4d/1x1 <- inception_4c/output_inception_4c/output_0_split_0
I0403 14:57:28.450587 30670 net.cpp:399] inception_4d/1x1 -> inception_4d/1x1
I0403 14:57:28.452059 30670 net.cpp:141] Setting up inception_4d/1x1
I0403 14:57:28.452091 30670 net.cpp:148] Top shape: 24 112 14 14 (526848)
I0403 14:57:28.452111 30670 net.cpp:156] Memory required for data: 1113290016
I0403 14:57:28.452131 30670 layer_factory.hpp:77] Creating layer inception_4d/relu_1x1
I0403 14:57:28.452152 30670 net.cpp:91] Creating Layer inception_4d/relu_1x1
I0403 14:57:28.452172 30670 net.cpp:425] inception_4d/relu_1x1 <- inception_4d/1x1
I0403 14:57:28.452190 30670 net.cpp:386] inception_4d/relu_1x1 -> inception_4d/1x1 (in-place)
I0403 14:57:28.452392 30670 net.cpp:141] Setting up inception_4d/relu_1x1
I0403 14:57:28.452424 30670 net.cpp:148] Top shape: 24 112 14 14 (526848)
I0403 14:57:28.452441 30670 net.cpp:156] Memory required for data: 1115397408
I0403 14:57:28.452458 30670 layer_factory.hpp:77] Creating layer inception_4d/3x3_reduce
I0403 14:57:28.452498 30670 net.cpp:91] Creating Layer inception_4d/3x3_reduce
I0403 14:57:28.452519 30670 net.cpp:425] inception_4d/3x3_reduce <- inception_4c/output_inception_4c/output_0_split_1
I0403 14:57:28.452543 30670 net.cpp:399] inception_4d/3x3_reduce -> inception_4d/3x3_reduce
I0403 14:57:28.454107 30670 net.cpp:141] Setting up inception_4d/3x3_reduce
I0403 14:57:28.454140 30670 net.cpp:148] Top shape: 24 144 14 14 (677376)
I0403 14:57:28.454157 30670 net.cpp:156] Memory required for data: 1118106912
I0403 14:57:28.454177 30670 layer_factory.hpp:77] Creating layer inception_4d/relu_3x3_reduce
I0403 14:57:28.454197 30670 net.cpp:91] Creating Layer inception_4d/relu_3x3_reduce
I0403 14:57:28.454216 30670 net.cpp:425] inception_4d/relu_3x3_reduce <- inception_4d/3x3_reduce
I0403 14:57:28.454234 30670 net.cpp:386] inception_4d/relu_3x3_reduce -> inception_4d/3x3_reduce (in-place)
I0403 14:57:28.454546 30670 net.cpp:141] Setting up inception_4d/relu_3x3_reduce
I0403 14:57:28.454577 30670 net.cpp:148] Top shape: 24 144 14 14 (677376)
I0403 14:57:28.454593 30670 net.cpp:156] Memory required for data: 1120816416
I0403 14:57:28.454610 30670 layer_factory.hpp:77] Creating layer inception_4d/3x3
I0403 14:57:28.454637 30670 net.cpp:91] Creating Layer inception_4d/3x3
I0403 14:57:28.454655 30670 net.cpp:425] inception_4d/3x3 <- inception_4d/3x3_reduce
I0403 14:57:28.454680 30670 net.cpp:399] inception_4d/3x3 -> inception_4d/3x3
I0403 14:57:28.459107 30670 net.cpp:141] Setting up inception_4d/3x3
I0403 14:57:28.459141 30670 net.cpp:148] Top shape: 24 288 14 14 (1354752)
I0403 14:57:28.459161 30670 net.cpp:156] Memory required for data: 1126235424
I0403 14:57:28.459182 30670 layer_factory.hpp:77] Creating layer inception_4d/relu_3x3
I0403 14:57:28.459203 30670 net.cpp:91] Creating Layer inception_4d/relu_3x3
I0403 14:57:28.459219 30670 net.cpp:425] inception_4d/relu_3x3 <- inception_4d/3x3
I0403 14:57:28.459241 30670 net.cpp:386] inception_4d/relu_3x3 -> inception_4d/3x3 (in-place)
I0403 14:57:28.459439 30670 net.cpp:141] Setting up inception_4d/relu_3x3
I0403 14:57:28.459465 30670 net.cpp:148] Top shape: 24 288 14 14 (1354752)
I0403 14:57:28.459482 30670 net.cpp:156] Memory required for data: 1131654432
I0403 14:57:28.459498 30670 layer_factory.hpp:77] Creating layer inception_4d/5x5_reduce
I0403 14:57:28.459523 30670 net.cpp:91] Creating Layer inception_4d/5x5_reduce
I0403 14:57:28.459544 30670 net.cpp:425] inception_4d/5x5_reduce <- inception_4c/output_inception_4c/output_0_split_2
I0403 14:57:28.459570 30670 net.cpp:399] inception_4d/5x5_reduce -> inception_4d/5x5_reduce
I0403 14:57:28.460769 30670 net.cpp:141] Setting up inception_4d/5x5_reduce
I0403 14:57:28.460803 30670 net.cpp:148] Top shape: 24 32 14 14 (150528)
I0403 14:57:28.460820 30670 net.cpp:156] Memory required for data: 1132256544
I0403 14:57:28.460840 30670 layer_factory.hpp:77] Creating layer inception_4d/relu_5x5_reduce
I0403 14:57:28.460862 30670 net.cpp:91] Creating Layer inception_4d/relu_5x5_reduce
I0403 14:57:28.460881 30670 net.cpp:425] inception_4d/relu_5x5_reduce <- inception_4d/5x5_reduce
I0403 14:57:28.460899 30670 net.cpp:386] inception_4d/relu_5x5_reduce -> inception_4d/5x5_reduce (in-place)
I0403 14:57:28.461098 30670 net.cpp:141] Setting up inception_4d/relu_5x5_reduce
I0403 14:57:28.461127 30670 net.cpp:148] Top shape: 24 32 14 14 (150528)
I0403 14:57:28.461143 30670 net.cpp:156] Memory required for data: 1132858656
I0403 14:57:28.461159 30670 layer_factory.hpp:77] Creating layer inception_4d/5x5
I0403 14:57:28.461184 30670 net.cpp:91] Creating Layer inception_4d/5x5
I0403 14:57:28.461205 30670 net.cpp:425] inception_4d/5x5 <- inception_4d/5x5_reduce
I0403 14:57:28.461228 30670 net.cpp:399] inception_4d/5x5 -> inception_4d/5x5
I0403 14:57:28.462780 30670 net.cpp:141] Setting up inception_4d/5x5
I0403 14:57:28.462811 30670 net.cpp:148] Top shape: 24 64 14 14 (301056)
I0403 14:57:28.462828 30670 net.cpp:156] Memory required for data: 1134062880
I0403 14:57:28.462849 30670 layer_factory.hpp:77] Creating layer inception_4d/relu_5x5
I0403 14:57:28.462891 30670 net.cpp:91] Creating Layer inception_4d/relu_5x5
I0403 14:57:28.462911 30670 net.cpp:425] inception_4d/relu_5x5 <- inception_4d/5x5
I0403 14:57:28.462931 30670 net.cpp:386] inception_4d/relu_5x5 -> inception_4d/5x5 (in-place)
I0403 14:57:28.463241 30670 net.cpp:141] Setting up inception_4d/relu_5x5
I0403 14:57:28.463269 30670 net.cpp:148] Top shape: 24 64 14 14 (301056)
I0403 14:57:28.463291 30670 net.cpp:156] Memory required for data: 1135267104
I0403 14:57:28.463309 30670 layer_factory.hpp:77] Creating layer inception_4d/pool
I0403 14:57:28.463336 30670 net.cpp:91] Creating Layer inception_4d/pool
I0403 14:57:28.463356 30670 net.cpp:425] inception_4d/pool <- inception_4c/output_inception_4c/output_0_split_3
I0403 14:57:28.463378 30670 net.cpp:399] inception_4d/pool -> inception_4d/pool
I0403 14:57:28.463452 30670 net.cpp:141] Setting up inception_4d/pool
I0403 14:57:28.463479 30670 net.cpp:148] Top shape: 24 512 14 14 (2408448)
I0403 14:57:28.463495 30670 net.cpp:156] Memory required for data: 1144900896
I0403 14:57:28.463512 30670 layer_factory.hpp:77] Creating layer inception_4d/pool_proj
I0403 14:57:28.463537 30670 net.cpp:91] Creating Layer inception_4d/pool_proj
I0403 14:57:28.463557 30670 net.cpp:425] inception_4d/pool_proj <- inception_4d/pool
I0403 14:57:28.463582 30670 net.cpp:399] inception_4d/pool_proj -> inception_4d/pool_proj
I0403 14:57:28.465435 30670 net.cpp:141] Setting up inception_4d/pool_proj
I0403 14:57:28.465483 30670 net.cpp:148] Top shape: 24 64 14 14 (301056)
I0403 14:57:28.465508 30670 net.cpp:156] Memory required for data: 1146105120
I0403 14:57:28.465531 30670 layer_factory.hpp:77] Creating layer inception_4d/relu_pool_proj
I0403 14:57:28.465553 30670 net.cpp:91] Creating Layer inception_4d/relu_pool_proj
I0403 14:57:28.465576 30670 net.cpp:425] inception_4d/relu_pool_proj <- inception_4d/pool_proj
I0403 14:57:28.465603 30670 net.cpp:386] inception_4d/relu_pool_proj -> inception_4d/pool_proj (in-place)
I0403 14:57:28.465817 30670 net.cpp:141] Setting up inception_4d/relu_pool_proj
I0403 14:57:28.465845 30670 net.cpp:148] Top shape: 24 64 14 14 (301056)
I0403 14:57:28.465860 30670 net.cpp:156] Memory required for data: 1147309344
I0403 14:57:28.465876 30670 layer_factory.hpp:77] Creating layer inception_4d/output
I0403 14:57:28.465896 30670 net.cpp:91] Creating Layer inception_4d/output
I0403 14:57:28.465915 30670 net.cpp:425] inception_4d/output <- inception_4d/1x1
I0403 14:57:28.465934 30670 net.cpp:425] inception_4d/output <- inception_4d/3x3
I0403 14:57:28.465952 30670 net.cpp:425] inception_4d/output <- inception_4d/5x5
I0403 14:57:28.465970 30670 net.cpp:425] inception_4d/output <- inception_4d/pool_proj
I0403 14:57:28.465991 30670 net.cpp:399] inception_4d/output -> inception_4d/output
I0403 14:57:28.466043 30670 net.cpp:141] Setting up inception_4d/output
I0403 14:57:28.466071 30670 net.cpp:148] Top shape: 24 528 14 14 (2483712)
I0403 14:57:28.466089 30670 net.cpp:156] Memory required for data: 1157244192
I0403 14:57:28.466104 30670 layer_factory.hpp:77] Creating layer inception_4d/output_inception_4d/output_0_split
I0403 14:57:28.466125 30670 net.cpp:91] Creating Layer inception_4d/output_inception_4d/output_0_split
I0403 14:57:28.466143 30670 net.cpp:425] inception_4d/output_inception_4d/output_0_split <- inception_4d/output
I0403 14:57:28.466163 30670 net.cpp:399] inception_4d/output_inception_4d/output_0_split -> inception_4d/output_inception_4d/output_0_split_0
I0403 14:57:28.466189 30670 net.cpp:399] inception_4d/output_inception_4d/output_0_split -> inception_4d/output_inception_4d/output_0_split_1
I0403 14:57:28.466214 30670 net.cpp:399] inception_4d/output_inception_4d/output_0_split -> inception_4d/output_inception_4d/output_0_split_2
I0403 14:57:28.466238 30670 net.cpp:399] inception_4d/output_inception_4d/output_0_split -> inception_4d/output_inception_4d/output_0_split_3
I0403 14:57:28.466259 30670 net.cpp:399] inception_4d/output_inception_4d/output_0_split -> inception_4d/output_inception_4d/output_0_split_4
I0403 14:57:28.466374 30670 net.cpp:141] Setting up inception_4d/output_inception_4d/output_0_split
I0403 14:57:28.466413 30670 net.cpp:148] Top shape: 24 528 14 14 (2483712)
I0403 14:57:28.466434 30670 net.cpp:148] Top shape: 24 528 14 14 (2483712)
I0403 14:57:28.466454 30670 net.cpp:148] Top shape: 24 528 14 14 (2483712)
I0403 14:57:28.466471 30670 net.cpp:148] Top shape: 24 528 14 14 (2483712)
I0403 14:57:28.466490 30670 net.cpp:148] Top shape: 24 528 14 14 (2483712)
I0403 14:57:28.466506 30670 net.cpp:156] Memory required for data: 1206918432
I0403 14:57:28.466523 30670 layer_factory.hpp:77] Creating layer loss2/ave_pool
I0403 14:57:28.466542 30670 net.cpp:91] Creating Layer loss2/ave_pool
I0403 14:57:28.466562 30670 net.cpp:425] loss2/ave_pool <- inception_4d/output_inception_4d/output_0_split_0
I0403 14:57:28.466583 30670 net.cpp:399] loss2/ave_pool -> loss2/ave_pool
I0403 14:57:28.466915 30670 net.cpp:141] Setting up loss2/ave_pool
I0403 14:57:28.466945 30670 net.cpp:148] Top shape: 24 528 4 4 (202752)
I0403 14:57:28.466963 30670 net.cpp:156] Memory required for data: 1207729440
I0403 14:57:28.466979 30670 layer_factory.hpp:77] Creating layer loss2/conv
I0403 14:57:28.467002 30670 net.cpp:91] Creating Layer loss2/conv
I0403 14:57:28.467021 30670 net.cpp:425] loss2/conv <- loss2/ave_pool
I0403 14:57:28.467041 30670 net.cpp:399] loss2/conv -> loss2/conv
I0403 14:57:28.469046 30670 net.cpp:141] Setting up loss2/conv
I0403 14:57:28.469076 30670 net.cpp:148] Top shape: 24 128 4 4 (49152)
I0403 14:57:28.469095 30670 net.cpp:156] Memory required for data: 1207926048
I0403 14:57:28.469116 30670 layer_factory.hpp:77] Creating layer loss2/relu_conv
I0403 14:57:28.469137 30670 net.cpp:91] Creating Layer loss2/relu_conv
I0403 14:57:28.469156 30670 net.cpp:425] loss2/relu_conv <- loss2/conv
I0403 14:57:28.483918 30670 net.cpp:386] loss2/relu_conv -> loss2/conv (in-place)
I0403 14:57:28.484254 30670 net.cpp:141] Setting up loss2/relu_conv
I0403 14:57:28.484287 30670 net.cpp:148] Top shape: 24 128 4 4 (49152)
I0403 14:57:28.484304 30670 net.cpp:156] Memory required for data: 1208122656
I0403 14:57:28.484354 30670 layer_factory.hpp:77] Creating layer loss2/fc
I0403 14:57:28.484377 30670 net.cpp:91] Creating Layer loss2/fc
I0403 14:57:28.484395 30670 net.cpp:425] loss2/fc <- loss2/conv
I0403 14:57:28.484419 30670 net.cpp:399] loss2/fc -> loss2/fc
I0403 14:57:28.502966 30670 net.cpp:141] Setting up loss2/fc
I0403 14:57:28.503052 30670 net.cpp:148] Top shape: 24 1024 (24576)
I0403 14:57:28.503069 30670 net.cpp:156] Memory required for data: 1208220960
I0403 14:57:28.503093 30670 layer_factory.hpp:77] Creating layer loss2/relu_fc
I0403 14:57:28.503118 30670 net.cpp:91] Creating Layer loss2/relu_fc
I0403 14:57:28.503139 30670 net.cpp:425] loss2/relu_fc <- loss2/fc
I0403 14:57:28.503160 30670 net.cpp:386] loss2/relu_fc -> loss2/fc (in-place)
I0403 14:57:28.503645 30670 net.cpp:141] Setting up loss2/relu_fc
I0403 14:57:28.503674 30670 net.cpp:148] Top shape: 24 1024 (24576)
I0403 14:57:28.503690 30670 net.cpp:156] Memory required for data: 1208319264
I0403 14:57:28.503706 30670 layer_factory.hpp:77] Creating layer loss2/drop_fc
I0403 14:57:28.503726 30670 net.cpp:91] Creating Layer loss2/drop_fc
I0403 14:57:28.503744 30670 net.cpp:425] loss2/drop_fc <- loss2/fc
I0403 14:57:28.503765 30670 net.cpp:386] loss2/drop_fc -> loss2/fc (in-place)
I0403 14:57:28.503819 30670 net.cpp:141] Setting up loss2/drop_fc
I0403 14:57:28.503845 30670 net.cpp:148] Top shape: 24 1024 (24576)
I0403 14:57:28.503861 30670 net.cpp:156] Memory required for data: 1208417568
I0403 14:57:28.503877 30670 layer_factory.hpp:77] Creating layer loss2/classifier_plantvillage
I0403 14:57:28.503901 30670 net.cpp:91] Creating Layer loss2/classifier_plantvillage
I0403 14:57:28.503919 30670 net.cpp:425] loss2/classifier_plantvillage <- loss2/fc
I0403 14:57:28.503942 30670 net.cpp:399] loss2/classifier_plantvillage -> loss2/classifier_plantvillage
I0403 14:57:28.504397 30670 net.cpp:141] Setting up loss2/classifier_plantvillage
I0403 14:57:28.504426 30670 net.cpp:148] Top shape: 24 38 (912)
I0403 14:57:28.504442 30670 net.cpp:156] Memory required for data: 1208421216
I0403 14:57:28.504500 30670 layer_factory.hpp:77] Creating layer loss2/classifier_plantvillage_loss2/classifier_plantvillage_0_split
I0403 14:57:28.504521 30670 net.cpp:91] Creating Layer loss2/classifier_plantvillage_loss2/classifier_plantvillage_0_split
I0403 14:57:28.504539 30670 net.cpp:425] loss2/classifier_plantvillage_loss2/classifier_plantvillage_0_split <- loss2/classifier_plantvillage
I0403 14:57:28.504559 30670 net.cpp:399] loss2/classifier_plantvillage_loss2/classifier_plantvillage_0_split -> loss2/classifier_plantvillage_loss2/classifier_plantvillage_0_split_0
I0403 14:57:28.504582 30670 net.cpp:399] loss2/classifier_plantvillage_loss2/classifier_plantvillage_0_split -> loss2/classifier_plantvillage_loss2/classifier_plantvillage_0_split_1
I0403 14:57:28.504604 30670 net.cpp:399] loss2/classifier_plantvillage_loss2/classifier_plantvillage_0_split -> loss2/classifier_plantvillage_loss2/classifier_plantvillage_0_split_2
I0403 14:57:28.504688 30670 net.cpp:141] Setting up loss2/classifier_plantvillage_loss2/classifier_plantvillage_0_split
I0403 14:57:28.504714 30670 net.cpp:148] Top shape: 24 38 (912)
I0403 14:57:28.504730 30670 net.cpp:148] Top shape: 24 38 (912)
I0403 14:57:28.504746 30670 net.cpp:148] Top shape: 24 38 (912)
I0403 14:57:28.504760 30670 net.cpp:156] Memory required for data: 1208432160
I0403 14:57:28.504776 30670 layer_factory.hpp:77] Creating layer inception_4e/1x1
I0403 14:57:28.504803 30670 net.cpp:91] Creating Layer inception_4e/1x1
I0403 14:57:28.504823 30670 net.cpp:425] inception_4e/1x1 <- inception_4d/output_inception_4d/output_0_split_1
I0403 14:57:28.504843 30670 net.cpp:399] inception_4e/1x1 -> inception_4e/1x1
I0403 14:57:28.507000 30670 net.cpp:141] Setting up inception_4e/1x1
I0403 14:57:28.507074 30670 net.cpp:148] Top shape: 24 256 14 14 (1204224)
I0403 14:57:28.507091 30670 net.cpp:156] Memory required for data: 1213249056
I0403 14:57:28.507114 30670 layer_factory.hpp:77] Creating layer inception_4e/relu_1x1
I0403 14:57:28.507141 30670 net.cpp:91] Creating Layer inception_4e/relu_1x1
I0403 14:57:28.507163 30670 net.cpp:425] inception_4e/relu_1x1 <- inception_4e/1x1
I0403 14:57:28.507182 30670 net.cpp:386] inception_4e/relu_1x1 -> inception_4e/1x1 (in-place)
I0403 14:57:28.507505 30670 net.cpp:141] Setting up inception_4e/relu_1x1
I0403 14:57:28.507532 30670 net.cpp:148] Top shape: 24 256 14 14 (1204224)
I0403 14:57:28.507549 30670 net.cpp:156] Memory required for data: 1218065952
I0403 14:57:28.507563 30670 layer_factory.hpp:77] Creating layer inception_4e/3x3_reduce
I0403 14:57:28.507594 30670 net.cpp:91] Creating Layer inception_4e/3x3_reduce
I0403 14:57:28.507614 30670 net.cpp:425] inception_4e/3x3_reduce <- inception_4d/output_inception_4d/output_0_split_2
I0403 14:57:28.507637 30670 net.cpp:399] inception_4e/3x3_reduce -> inception_4e/3x3_reduce
I0403 14:57:28.510071 30670 net.cpp:141] Setting up inception_4e/3x3_reduce
I0403 14:57:28.510149 30670 net.cpp:148] Top shape: 24 160 14 14 (752640)
I0403 14:57:28.510165 30670 net.cpp:156] Memory required for data: 1221076512
I0403 14:57:28.510187 30670 layer_factory.hpp:77] Creating layer inception_4e/relu_3x3_reduce
I0403 14:57:28.510210 30670 net.cpp:91] Creating Layer inception_4e/relu_3x3_reduce
I0403 14:57:28.510231 30670 net.cpp:425] inception_4e/relu_3x3_reduce <- inception_4e/3x3_reduce
I0403 14:57:28.510253 30670 net.cpp:386] inception_4e/relu_3x3_reduce -> inception_4e/3x3_reduce (in-place)
I0403 14:57:28.510465 30670 net.cpp:141] Setting up inception_4e/relu_3x3_reduce
I0403 14:57:28.510496 30670 net.cpp:148] Top shape: 24 160 14 14 (752640)
I0403 14:57:28.510512 30670 net.cpp:156] Memory required for data: 1224087072
I0403 14:57:28.510527 30670 layer_factory.hpp:77] Creating layer inception_4e/3x3
I0403 14:57:28.510555 30670 net.cpp:91] Creating Layer inception_4e/3x3
I0403 14:57:28.510574 30670 net.cpp:425] inception_4e/3x3 <- inception_4e/3x3_reduce
I0403 14:57:28.510597 30670 net.cpp:399] inception_4e/3x3 -> inception_4e/3x3
I0403 14:57:28.516319 30670 net.cpp:141] Setting up inception_4e/3x3
I0403 14:57:28.516438 30670 net.cpp:148] Top shape: 24 320 14 14 (1505280)
I0403 14:57:28.516458 30670 net.cpp:156] Memory required for data: 1230108192
I0403 14:57:28.516481 30670 layer_factory.hpp:77] Creating layer inception_4e/relu_3x3
I0403 14:57:28.516507 30670 net.cpp:91] Creating Layer inception_4e/relu_3x3
I0403 14:57:28.516530 30670 net.cpp:425] inception_4e/relu_3x3 <- inception_4e/3x3
I0403 14:57:28.516551 30670 net.cpp:386] inception_4e/relu_3x3 -> inception_4e/3x3 (in-place)
I0403 14:57:28.516885 30670 net.cpp:141] Setting up inception_4e/relu_3x3
I0403 14:57:28.516921 30670 net.cpp:148] Top shape: 24 320 14 14 (1505280)
I0403 14:57:28.516937 30670 net.cpp:156] Memory required for data: 1236129312
I0403 14:57:28.516953 30670 layer_factory.hpp:77] Creating layer inception_4e/5x5_reduce
I0403 14:57:28.516983 30670 net.cpp:91] Creating Layer inception_4e/5x5_reduce
I0403 14:57:28.517002 30670 net.cpp:425] inception_4e/5x5_reduce <- inception_4d/output_inception_4d/output_0_split_3
I0403 14:57:28.517024 30670 net.cpp:399] inception_4e/5x5_reduce -> inception_4e/5x5_reduce
I0403 14:57:28.518211 30670 net.cpp:141] Setting up inception_4e/5x5_reduce
I0403 14:57:28.518250 30670 net.cpp:148] Top shape: 24 32 14 14 (150528)
I0403 14:57:28.518267 30670 net.cpp:156] Memory required for data: 1236731424
I0403 14:57:28.518287 30670 layer_factory.hpp:77] Creating layer inception_4e/relu_5x5_reduce
I0403 14:57:28.518309 30670 net.cpp:91] Creating Layer inception_4e/relu_5x5_reduce
I0403 14:57:28.518332 30670 net.cpp:425] inception_4e/relu_5x5_reduce <- inception_4e/5x5_reduce
I0403 14:57:28.518352 30670 net.cpp:386] inception_4e/relu_5x5_reduce -> inception_4e/5x5_reduce (in-place)
I0403 14:57:28.518657 30670 net.cpp:141] Setting up inception_4e/relu_5x5_reduce
I0403 14:57:28.518685 30670 net.cpp:148] Top shape: 24 32 14 14 (150528)
I0403 14:57:28.518702 30670 net.cpp:156] Memory required for data: 1237333536
I0403 14:57:28.518718 30670 layer_factory.hpp:77] Creating layer inception_4e/5x5
I0403 14:57:28.518765 30670 net.cpp:91] Creating Layer inception_4e/5x5
I0403 14:57:28.518786 30670 net.cpp:425] inception_4e/5x5 <- inception_4e/5x5_reduce
I0403 14:57:28.518807 30670 net.cpp:399] inception_4e/5x5 -> inception_4e/5x5
I0403 14:57:28.520879 30670 net.cpp:141] Setting up inception_4e/5x5
I0403 14:57:28.520947 30670 net.cpp:148] Top shape: 24 128 14 14 (602112)
I0403 14:57:28.520966 30670 net.cpp:156] Memory required for data: 1239741984
I0403 14:57:28.520989 30670 layer_factory.hpp:77] Creating layer inception_4e/relu_5x5
I0403 14:57:28.521011 30670 net.cpp:91] Creating Layer inception_4e/relu_5x5
I0403 14:57:28.521031 30670 net.cpp:425] inception_4e/relu_5x5 <- inception_4e/5x5
I0403 14:57:28.521052 30670 net.cpp:386] inception_4e/relu_5x5 -> inception_4e/5x5 (in-place)
I0403 14:57:28.521256 30670 net.cpp:141] Setting up inception_4e/relu_5x5
I0403 14:57:28.521282 30670 net.cpp:148] Top shape: 24 128 14 14 (602112)
I0403 14:57:28.521298 30670 net.cpp:156] Memory required for data: 1242150432
I0403 14:57:28.521313 30670 layer_factory.hpp:77] Creating layer inception_4e/pool
I0403 14:57:28.521338 30670 net.cpp:91] Creating Layer inception_4e/pool
I0403 14:57:28.521356 30670 net.cpp:425] inception_4e/pool <- inception_4d/output_inception_4d/output_0_split_4
I0403 14:57:28.521379 30670 net.cpp:399] inception_4e/pool -> inception_4e/pool
I0403 14:57:28.521458 30670 net.cpp:141] Setting up inception_4e/pool
I0403 14:57:28.521484 30670 net.cpp:148] Top shape: 24 528 14 14 (2483712)
I0403 14:57:28.521499 30670 net.cpp:156] Memory required for data: 1252085280
I0403 14:57:28.521513 30670 layer_factory.hpp:77] Creating layer inception_4e/pool_proj
I0403 14:57:28.521543 30670 net.cpp:91] Creating Layer inception_4e/pool_proj
I0403 14:57:28.521571 30670 net.cpp:425] inception_4e/pool_proj <- inception_4e/pool
I0403 14:57:28.521591 30670 net.cpp:399] inception_4e/pool_proj -> inception_4e/pool_proj
I0403 14:57:28.523231 30670 net.cpp:141] Setting up inception_4e/pool_proj
I0403 14:57:28.523284 30670 net.cpp:148] Top shape: 24 128 14 14 (602112)
I0403 14:57:28.523350 30670 net.cpp:156] Memory required for data: 1254493728
I0403 14:57:28.523373 30670 layer_factory.hpp:77] Creating layer inception_4e/relu_pool_proj
I0403 14:57:28.523394 30670 net.cpp:91] Creating Layer inception_4e/relu_pool_proj
I0403 14:57:28.523412 30670 net.cpp:425] inception_4e/relu_pool_proj <- inception_4e/pool_proj
I0403 14:57:28.523434 30670 net.cpp:386] inception_4e/relu_pool_proj -> inception_4e/pool_proj (in-place)
I0403 14:57:28.523736 30670 net.cpp:141] Setting up inception_4e/relu_pool_proj
I0403 14:57:28.523766 30670 net.cpp:148] Top shape: 24 128 14 14 (602112)
I0403 14:57:28.523782 30670 net.cpp:156] Memory required for data: 1256902176
I0403 14:57:28.523798 30670 layer_factory.hpp:77] Creating layer inception_4e/output
I0403 14:57:28.523816 30670 net.cpp:91] Creating Layer inception_4e/output
I0403 14:57:28.523834 30670 net.cpp:425] inception_4e/output <- inception_4e/1x1
I0403 14:57:28.523852 30670 net.cpp:425] inception_4e/output <- inception_4e/3x3
I0403 14:57:28.523869 30670 net.cpp:425] inception_4e/output <- inception_4e/5x5
I0403 14:57:28.523886 30670 net.cpp:425] inception_4e/output <- inception_4e/pool_proj
I0403 14:57:28.523905 30670 net.cpp:399] inception_4e/output -> inception_4e/output
I0403 14:57:28.523964 30670 net.cpp:141] Setting up inception_4e/output
I0403 14:57:28.523988 30670 net.cpp:148] Top shape: 24 832 14 14 (3913728)
I0403 14:57:28.524004 30670 net.cpp:156] Memory required for data: 1272557088
I0403 14:57:28.524020 30670 layer_factory.hpp:77] Creating layer pool4/3x3_s2
I0403 14:57:28.524042 30670 net.cpp:91] Creating Layer pool4/3x3_s2
I0403 14:57:28.524060 30670 net.cpp:425] pool4/3x3_s2 <- inception_4e/output
I0403 14:57:28.524080 30670 net.cpp:399] pool4/3x3_s2 -> pool4/3x3_s2
I0403 14:57:28.524166 30670 net.cpp:141] Setting up pool4/3x3_s2
I0403 14:57:28.524193 30670 net.cpp:148] Top shape: 24 832 7 7 (978432)
I0403 14:57:28.524209 30670 net.cpp:156] Memory required for data: 1276470816
I0403 14:57:28.524225 30670 layer_factory.hpp:77] Creating layer pool4/3x3_s2_pool4/3x3_s2_0_split
I0403 14:57:28.524243 30670 net.cpp:91] Creating Layer pool4/3x3_s2_pool4/3x3_s2_0_split
I0403 14:57:28.524260 30670 net.cpp:425] pool4/3x3_s2_pool4/3x3_s2_0_split <- pool4/3x3_s2
I0403 14:57:28.524281 30670 net.cpp:399] pool4/3x3_s2_pool4/3x3_s2_0_split -> pool4/3x3_s2_pool4/3x3_s2_0_split_0
I0403 14:57:28.524302 30670 net.cpp:399] pool4/3x3_s2_pool4/3x3_s2_0_split -> pool4/3x3_s2_pool4/3x3_s2_0_split_1
I0403 14:57:28.524330 30670 net.cpp:399] pool4/3x3_s2_pool4/3x3_s2_0_split -> pool4/3x3_s2_pool4/3x3_s2_0_split_2
I0403 14:57:28.524353 30670 net.cpp:399] pool4/3x3_s2_pool4/3x3_s2_0_split -> pool4/3x3_s2_pool4/3x3_s2_0_split_3
I0403 14:57:28.524458 30670 net.cpp:141] Setting up pool4/3x3_s2_pool4/3x3_s2_0_split
I0403 14:57:28.524483 30670 net.cpp:148] Top shape: 24 832 7 7 (978432)
I0403 14:57:28.524500 30670 net.cpp:148] Top shape: 24 832 7 7 (978432)
I0403 14:57:28.524516 30670 net.cpp:148] Top shape: 24 832 7 7 (978432)
I0403 14:57:28.524531 30670 net.cpp:148] Top shape: 24 832 7 7 (978432)
I0403 14:57:28.524546 30670 net.cpp:156] Memory required for data: 1292125728
I0403 14:57:28.524562 30670 layer_factory.hpp:77] Creating layer inception_5a/1x1
I0403 14:57:28.524590 30670 net.cpp:91] Creating Layer inception_5a/1x1
I0403 14:57:28.524608 30670 net.cpp:425] inception_5a/1x1 <- pool4/3x3_s2_pool4/3x3_s2_0_split_0
I0403 14:57:28.524629 30670 net.cpp:399] inception_5a/1x1 -> inception_5a/1x1
I0403 14:57:28.527858 30670 net.cpp:141] Setting up inception_5a/1x1
I0403 14:57:28.527927 30670 net.cpp:148] Top shape: 24 256 7 7 (301056)
I0403 14:57:28.527954 30670 net.cpp:156] Memory required for data: 1293329952
I0403 14:57:28.527976 30670 layer_factory.hpp:77] Creating layer inception_5a/relu_1x1
I0403 14:57:28.527998 30670 net.cpp:91] Creating Layer inception_5a/relu_1x1
I0403 14:57:28.528017 30670 net.cpp:425] inception_5a/relu_1x1 <- inception_5a/1x1
I0403 14:57:28.528039 30670 net.cpp:386] inception_5a/relu_1x1 -> inception_5a/1x1 (in-place)
I0403 14:57:28.528388 30670 net.cpp:141] Setting up inception_5a/relu_1x1
I0403 14:57:28.528416 30670 net.cpp:148] Top shape: 24 256 7 7 (301056)
I0403 14:57:28.528431 30670 net.cpp:156] Memory required for data: 1294534176
I0403 14:57:28.528448 30670 layer_factory.hpp:77] Creating layer inception_5a/3x3_reduce
I0403 14:57:28.528475 30670 net.cpp:91] Creating Layer inception_5a/3x3_reduce
I0403 14:57:28.528496 30670 net.cpp:425] inception_5a/3x3_reduce <- pool4/3x3_s2_pool4/3x3_s2_0_split_1
I0403 14:57:28.528517 30670 net.cpp:399] inception_5a/3x3_reduce -> inception_5a/3x3_reduce
I0403 14:57:28.531105 30670 net.cpp:141] Setting up inception_5a/3x3_reduce
I0403 14:57:28.531136 30670 net.cpp:148] Top shape: 24 160 7 7 (188160)
I0403 14:57:28.531153 30670 net.cpp:156] Memory required for data: 1295286816
I0403 14:57:28.531173 30670 layer_factory.hpp:77] Creating layer inception_5a/relu_3x3_reduce
I0403 14:57:28.531194 30670 net.cpp:91] Creating Layer inception_5a/relu_3x3_reduce
I0403 14:57:28.531213 30670 net.cpp:425] inception_5a/relu_3x3_reduce <- inception_5a/3x3_reduce
I0403 14:57:28.531231 30670 net.cpp:386] inception_5a/relu_3x3_reduce -> inception_5a/3x3_reduce (in-place)
I0403 14:57:28.531432 30670 net.cpp:141] Setting up inception_5a/relu_3x3_reduce
I0403 14:57:28.531458 30670 net.cpp:148] Top shape: 24 160 7 7 (188160)
I0403 14:57:28.531474 30670 net.cpp:156] Memory required for data: 1296039456
I0403 14:57:28.531491 30670 layer_factory.hpp:77] Creating layer inception_5a/3x3
I0403 14:57:28.531515 30670 net.cpp:91] Creating Layer inception_5a/3x3
I0403 14:57:28.531534 30670 net.cpp:425] inception_5a/3x3 <- inception_5a/3x3_reduce
I0403 14:57:28.531556 30670 net.cpp:399] inception_5a/3x3 -> inception_5a/3x3
I0403 14:57:28.536756 30670 net.cpp:141] Setting up inception_5a/3x3
I0403 14:57:28.536790 30670 net.cpp:148] Top shape: 24 320 7 7 (376320)
I0403 14:57:28.536808 30670 net.cpp:156] Memory required for data: 1297544736
I0403 14:57:28.536828 30670 layer_factory.hpp:77] Creating layer inception_5a/relu_3x3
I0403 14:57:28.536849 30670 net.cpp:91] Creating Layer inception_5a/relu_3x3
I0403 14:57:28.536865 30670 net.cpp:425] inception_5a/relu_3x3 <- inception_5a/3x3
I0403 14:57:28.536885 30670 net.cpp:386] inception_5a/relu_3x3 -> inception_5a/3x3 (in-place)
I0403 14:57:28.537189 30670 net.cpp:141] Setting up inception_5a/relu_3x3
I0403 14:57:28.537220 30670 net.cpp:148] Top shape: 24 320 7 7 (376320)
I0403 14:57:28.537235 30670 net.cpp:156] Memory required for data: 1299050016
I0403 14:57:28.537252 30670 layer_factory.hpp:77] Creating layer inception_5a/5x5_reduce
I0403 14:57:28.537277 30670 net.cpp:91] Creating Layer inception_5a/5x5_reduce
I0403 14:57:28.537297 30670 net.cpp:425] inception_5a/5x5_reduce <- pool4/3x3_s2_pool4/3x3_s2_0_split_2
I0403 14:57:28.537328 30670 net.cpp:399] inception_5a/5x5_reduce -> inception_5a/5x5_reduce
I0403 14:57:28.538559 30670 net.cpp:141] Setting up inception_5a/5x5_reduce
I0403 14:57:28.538590 30670 net.cpp:148] Top shape: 24 32 7 7 (37632)
I0403 14:57:28.538609 30670 net.cpp:156] Memory required for data: 1299200544
I0403 14:57:28.538628 30670 layer_factory.hpp:77] Creating layer inception_5a/relu_5x5_reduce
I0403 14:57:28.538650 30670 net.cpp:91] Creating Layer inception_5a/relu_5x5_reduce
I0403 14:57:28.538666 30670 net.cpp:425] inception_5a/relu_5x5_reduce <- inception_5a/5x5_reduce
I0403 14:57:28.538686 30670 net.cpp:386] inception_5a/relu_5x5_reduce -> inception_5a/5x5_reduce (in-place)
I0403 14:57:28.539000 30670 net.cpp:141] Setting up inception_5a/relu_5x5_reduce
I0403 14:57:28.539027 30670 net.cpp:148] Top shape: 24 32 7 7 (37632)
I0403 14:57:28.539044 30670 net.cpp:156] Memory required for data: 1299351072
I0403 14:57:28.539060 30670 layer_factory.hpp:77] Creating layer inception_5a/5x5
I0403 14:57:28.539085 30670 net.cpp:91] Creating Layer inception_5a/5x5
I0403 14:57:28.539105 30670 net.cpp:425] inception_5a/5x5 <- inception_5a/5x5_reduce
I0403 14:57:28.539127 30670 net.cpp:399] inception_5a/5x5 -> inception_5a/5x5
I0403 14:57:28.540925 30670 net.cpp:141] Setting up inception_5a/5x5
I0403 14:57:28.540969 30670 net.cpp:148] Top shape: 24 128 7 7 (150528)
I0403 14:57:28.540988 30670 net.cpp:156] Memory required for data: 1299953184
I0403 14:57:28.541009 30670 layer_factory.hpp:77] Creating layer inception_5a/relu_5x5
I0403 14:57:28.541028 30670 net.cpp:91] Creating Layer inception_5a/relu_5x5
I0403 14:57:28.541045 30670 net.cpp:425] inception_5a/relu_5x5 <- inception_5a/5x5
I0403 14:57:28.541066 30670 net.cpp:386] inception_5a/relu_5x5 -> inception_5a/5x5 (in-place)
I0403 14:57:28.541267 30670 net.cpp:141] Setting up inception_5a/relu_5x5
I0403 14:57:28.541295 30670 net.cpp:148] Top shape: 24 128 7 7 (150528)
I0403 14:57:28.541311 30670 net.cpp:156] Memory required for data: 1300555296
I0403 14:57:28.541331 30670 layer_factory.hpp:77] Creating layer inception_5a/pool
I0403 14:57:28.541352 30670 net.cpp:91] Creating Layer inception_5a/pool
I0403 14:57:28.541369 30670 net.cpp:425] inception_5a/pool <- pool4/3x3_s2_pool4/3x3_s2_0_split_3
I0403 14:57:28.541390 30670 net.cpp:399] inception_5a/pool -> inception_5a/pool
I0403 14:57:28.541468 30670 net.cpp:141] Setting up inception_5a/pool
I0403 14:57:28.541494 30670 net.cpp:148] Top shape: 24 832 7 7 (978432)
I0403 14:57:28.541509 30670 net.cpp:156] Memory required for data: 1304469024
I0403 14:57:28.541525 30670 layer_factory.hpp:77] Creating layer inception_5a/pool_proj
I0403 14:57:28.541548 30670 net.cpp:91] Creating Layer inception_5a/pool_proj
I0403 14:57:28.541566 30670 net.cpp:425] inception_5a/pool_proj <- inception_5a/pool
I0403 14:57:28.541589 30670 net.cpp:399] inception_5a/pool_proj -> inception_5a/pool_proj
I0403 14:57:28.543936 30670 net.cpp:141] Setting up inception_5a/pool_proj
I0403 14:57:28.543968 30670 net.cpp:148] Top shape: 24 128 7 7 (150528)
I0403 14:57:28.543987 30670 net.cpp:156] Memory required for data: 1305071136
I0403 14:57:28.544006 30670 layer_factory.hpp:77] Creating layer inception_5a/relu_pool_proj
I0403 14:57:28.544025 30670 net.cpp:91] Creating Layer inception_5a/relu_pool_proj
I0403 14:57:28.544044 30670 net.cpp:425] inception_5a/relu_pool_proj <- inception_5a/pool_proj
I0403 14:57:28.544062 30670 net.cpp:386] inception_5a/relu_pool_proj -> inception_5a/pool_proj (in-place)
I0403 14:57:28.544380 30670 net.cpp:141] Setting up inception_5a/relu_pool_proj
I0403 14:57:28.544411 30670 net.cpp:148] Top shape: 24 128 7 7 (150528)
I0403 14:57:28.544430 30670 net.cpp:156] Memory required for data: 1305673248
I0403 14:57:28.544446 30670 layer_factory.hpp:77] Creating layer inception_5a/output
I0403 14:57:28.544466 30670 net.cpp:91] Creating Layer inception_5a/output
I0403 14:57:28.544482 30670 net.cpp:425] inception_5a/output <- inception_5a/1x1
I0403 14:57:28.544502 30670 net.cpp:425] inception_5a/output <- inception_5a/3x3
I0403 14:57:28.544518 30670 net.cpp:425] inception_5a/output <- inception_5a/5x5
I0403 14:57:28.544535 30670 net.cpp:425] inception_5a/output <- inception_5a/pool_proj
I0403 14:57:28.544553 30670 net.cpp:399] inception_5a/output -> inception_5a/output
I0403 14:57:28.544610 30670 net.cpp:141] Setting up inception_5a/output
I0403 14:57:28.544636 30670 net.cpp:148] Top shape: 24 832 7 7 (978432)
I0403 14:57:28.544651 30670 net.cpp:156] Memory required for data: 1309586976
I0403 14:57:28.544667 30670 layer_factory.hpp:77] Creating layer inception_5a/output_inception_5a/output_0_split
I0403 14:57:28.544687 30670 net.cpp:91] Creating Layer inception_5a/output_inception_5a/output_0_split
I0403 14:57:28.544705 30670 net.cpp:425] inception_5a/output_inception_5a/output_0_split <- inception_5a/output
I0403 14:57:28.544724 30670 net.cpp:399] inception_5a/output_inception_5a/output_0_split -> inception_5a/output_inception_5a/output_0_split_0
I0403 14:57:28.544747 30670 net.cpp:399] inception_5a/output_inception_5a/output_0_split -> inception_5a/output_inception_5a/output_0_split_1
I0403 14:57:28.544769 30670 net.cpp:399] inception_5a/output_inception_5a/output_0_split -> inception_5a/output_inception_5a/output_0_split_2
I0403 14:57:28.544790 30670 net.cpp:399] inception_5a/output_inception_5a/output_0_split -> inception_5a/output_inception_5a/output_0_split_3
I0403 14:57:28.544908 30670 net.cpp:141] Setting up inception_5a/output_inception_5a/output_0_split
I0403 14:57:28.544934 30670 net.cpp:148] Top shape: 24 832 7 7 (978432)
I0403 14:57:28.544950 30670 net.cpp:148] Top shape: 24 832 7 7 (978432)
I0403 14:57:28.544967 30670 net.cpp:148] Top shape: 24 832 7 7 (978432)
I0403 14:57:28.544983 30670 net.cpp:148] Top shape: 24 832 7 7 (978432)
I0403 14:57:28.544998 30670 net.cpp:156] Memory required for data: 1325241888
I0403 14:57:28.545013 30670 layer_factory.hpp:77] Creating layer inception_5b/1x1
I0403 14:57:28.545038 30670 net.cpp:91] Creating Layer inception_5b/1x1
I0403 14:57:28.545058 30670 net.cpp:425] inception_5b/1x1 <- inception_5a/output_inception_5a/output_0_split_0
I0403 14:57:28.545079 30670 net.cpp:399] inception_5b/1x1 -> inception_5b/1x1
I0403 14:57:28.549041 30670 net.cpp:141] Setting up inception_5b/1x1
I0403 14:57:28.549072 30670 net.cpp:148] Top shape: 24 384 7 7 (451584)
I0403 14:57:28.549088 30670 net.cpp:156] Memory required for data: 1327048224
I0403 14:57:28.549108 30670 layer_factory.hpp:77] Creating layer inception_5b/relu_1x1
I0403 14:57:28.549129 30670 net.cpp:91] Creating Layer inception_5b/relu_1x1
I0403 14:57:28.549149 30670 net.cpp:425] inception_5b/relu_1x1 <- inception_5b/1x1
I0403 14:57:28.549165 30670 net.cpp:386] inception_5b/relu_1x1 -> inception_5b/1x1 (in-place)
I0403 14:57:28.549479 30670 net.cpp:141] Setting up inception_5b/relu_1x1
I0403 14:57:28.549506 30670 net.cpp:148] Top shape: 24 384 7 7 (451584)
I0403 14:57:28.549521 30670 net.cpp:156] Memory required for data: 1328854560
I0403 14:57:28.549536 30670 layer_factory.hpp:77] Creating layer inception_5b/3x3_reduce
I0403 14:57:28.549562 30670 net.cpp:91] Creating Layer inception_5b/3x3_reduce
I0403 14:57:28.549581 30670 net.cpp:425] inception_5b/3x3_reduce <- inception_5a/output_inception_5a/output_0_split_1
I0403 14:57:28.549600 30670 net.cpp:399] inception_5b/3x3_reduce -> inception_5b/3x3_reduce
I0403 14:57:28.552273 30670 net.cpp:141] Setting up inception_5b/3x3_reduce
I0403 14:57:28.552304 30670 net.cpp:148] Top shape: 24 192 7 7 (225792)
I0403 14:57:28.552327 30670 net.cpp:156] Memory required for data: 1329757728
I0403 14:57:28.552347 30670 layer_factory.hpp:77] Creating layer inception_5b/relu_3x3_reduce
I0403 14:57:28.552366 30670 net.cpp:91] Creating Layer inception_5b/relu_3x3_reduce
I0403 14:57:28.552383 30670 net.cpp:425] inception_5b/relu_3x3_reduce <- inception_5b/3x3_reduce
I0403 14:57:28.552400 30670 net.cpp:386] inception_5b/relu_3x3_reduce -> inception_5b/3x3_reduce (in-place)
I0403 14:57:28.552595 30670 net.cpp:141] Setting up inception_5b/relu_3x3_reduce
I0403 14:57:28.552623 30670 net.cpp:148] Top shape: 24 192 7 7 (225792)
I0403 14:57:28.552637 30670 net.cpp:156] Memory required for data: 1330660896
I0403 14:57:28.552651 30670 layer_factory.hpp:77] Creating layer inception_5b/3x3
I0403 14:57:28.552677 30670 net.cpp:91] Creating Layer inception_5b/3x3
I0403 14:57:28.552696 30670 net.cpp:425] inception_5b/3x3 <- inception_5b/3x3_reduce
I0403 14:57:28.552719 30670 net.cpp:399] inception_5b/3x3 -> inception_5b/3x3
I0403 14:57:28.559523 30670 net.cpp:141] Setting up inception_5b/3x3
I0403 14:57:28.559556 30670 net.cpp:148] Top shape: 24 384 7 7 (451584)
I0403 14:57:28.559576 30670 net.cpp:156] Memory required for data: 1332467232
I0403 14:57:28.559597 30670 layer_factory.hpp:77] Creating layer inception_5b/relu_3x3
I0403 14:57:28.559614 30670 net.cpp:91] Creating Layer inception_5b/relu_3x3
I0403 14:57:28.559633 30670 net.cpp:425] inception_5b/relu_3x3 <- inception_5b/3x3
I0403 14:57:28.559650 30670 net.cpp:386] inception_5b/relu_3x3 -> inception_5b/3x3 (in-place)
I0403 14:57:28.559952 30670 net.cpp:141] Setting up inception_5b/relu_3x3
I0403 14:57:28.559983 30670 net.cpp:148] Top shape: 24 384 7 7 (451584)
I0403 14:57:28.559999 30670 net.cpp:156] Memory required for data: 1334273568
I0403 14:57:28.560015 30670 layer_factory.hpp:77] Creating layer inception_5b/5x5_reduce
I0403 14:57:28.560055 30670 net.cpp:91] Creating Layer inception_5b/5x5_reduce
I0403 14:57:28.560075 30670 net.cpp:425] inception_5b/5x5_reduce <- inception_5a/output_inception_5a/output_0_split_2
I0403 14:57:28.560094 30670 net.cpp:399] inception_5b/5x5_reduce -> inception_5b/5x5_reduce
I0403 14:57:28.561381 30670 net.cpp:141] Setting up inception_5b/5x5_reduce
I0403 14:57:28.561413 30670 net.cpp:148] Top shape: 24 48 7 7 (56448)
I0403 14:57:28.561429 30670 net.cpp:156] Memory required for data: 1334499360
I0403 14:57:28.561450 30670 layer_factory.hpp:77] Creating layer inception_5b/relu_5x5_reduce
I0403 14:57:28.561468 30670 net.cpp:91] Creating Layer inception_5b/relu_5x5_reduce
I0403 14:57:28.561486 30670 net.cpp:425] inception_5b/relu_5x5_reduce <- inception_5b/5x5_reduce
I0403 14:57:28.561506 30670 net.cpp:386] inception_5b/relu_5x5_reduce -> inception_5b/5x5_reduce (in-place)
I0403 14:57:28.561880 30670 net.cpp:141] Setting up inception_5b/relu_5x5_reduce
I0403 14:57:28.561909 30670 net.cpp:148] Top shape: 24 48 7 7 (56448)
I0403 14:57:28.561924 30670 net.cpp:156] Memory required for data: 1334725152
I0403 14:57:28.561941 30670 layer_factory.hpp:77] Creating layer inception_5b/5x5
I0403 14:57:28.561962 30670 net.cpp:91] Creating Layer inception_5b/5x5
I0403 14:57:28.561980 30670 net.cpp:425] inception_5b/5x5 <- inception_5b/5x5_reduce
I0403 14:57:28.561998 30670 net.cpp:399] inception_5b/5x5 -> inception_5b/5x5
I0403 14:57:28.564084 30670 net.cpp:141] Setting up inception_5b/5x5
I0403 14:57:28.564113 30670 net.cpp:148] Top shape: 24 128 7 7 (150528)
I0403 14:57:28.564128 30670 net.cpp:156] Memory required for data: 1335327264
I0403 14:57:28.564147 30670 layer_factory.hpp:77] Creating layer inception_5b/relu_5x5
I0403 14:57:28.564167 30670 net.cpp:91] Creating Layer inception_5b/relu_5x5
I0403 14:57:28.564183 30670 net.cpp:425] inception_5b/relu_5x5 <- inception_5b/5x5
I0403 14:57:28.564203 30670 net.cpp:386] inception_5b/relu_5x5 -> inception_5b/5x5 (in-place)
I0403 14:57:28.564410 30670 net.cpp:141] Setting up inception_5b/relu_5x5
I0403 14:57:28.564437 30670 net.cpp:148] Top shape: 24 128 7 7 (150528)
I0403 14:57:28.564452 30670 net.cpp:156] Memory required for data: 1335929376
I0403 14:57:28.564470 30670 layer_factory.hpp:77] Creating layer inception_5b/pool
I0403 14:57:28.564489 30670 net.cpp:91] Creating Layer inception_5b/pool
I0403 14:57:28.564508 30670 net.cpp:425] inception_5b/pool <- inception_5a/output_inception_5a/output_0_split_3
I0403 14:57:28.564527 30670 net.cpp:399] inception_5b/pool -> inception_5b/pool
I0403 14:57:28.564602 30670 net.cpp:141] Setting up inception_5b/pool
I0403 14:57:28.564627 30670 net.cpp:148] Top shape: 24 832 7 7 (978432)
I0403 14:57:28.564643 30670 net.cpp:156] Memory required for data: 1339843104
I0403 14:57:28.564658 30670 layer_factory.hpp:77] Creating layer inception_5b/pool_proj
I0403 14:57:28.564680 30670 net.cpp:91] Creating Layer inception_5b/pool_proj
I0403 14:57:28.564699 30670 net.cpp:425] inception_5b/pool_proj <- inception_5b/pool
I0403 14:57:28.564720 30670 net.cpp:399] inception_5b/pool_proj -> inception_5b/pool_proj
I0403 14:57:28.567106 30670 net.cpp:141] Setting up inception_5b/pool_proj
I0403 14:57:28.567137 30670 net.cpp:148] Top shape: 24 128 7 7 (150528)
I0403 14:57:28.567155 30670 net.cpp:156] Memory required for data: 1340445216
I0403 14:57:28.567174 30670 layer_factory.hpp:77] Creating layer inception_5b/relu_pool_proj
I0403 14:57:28.567193 30670 net.cpp:91] Creating Layer inception_5b/relu_pool_proj
I0403 14:57:28.567210 30670 net.cpp:425] inception_5b/relu_pool_proj <- inception_5b/pool_proj
I0403 14:57:28.567231 30670 net.cpp:386] inception_5b/relu_pool_proj -> inception_5b/pool_proj (in-place)
I0403 14:57:28.567612 30670 net.cpp:141] Setting up inception_5b/relu_pool_proj
I0403 14:57:28.567642 30670 net.cpp:148] Top shape: 24 128 7 7 (150528)
I0403 14:57:28.567658 30670 net.cpp:156] Memory required for data: 1341047328
I0403 14:57:28.567674 30670 layer_factory.hpp:77] Creating layer inception_5b/output
I0403 14:57:28.567692 30670 net.cpp:91] Creating Layer inception_5b/output
I0403 14:57:28.567724 30670 net.cpp:425] inception_5b/output <- inception_5b/1x1
I0403 14:57:28.567744 30670 net.cpp:425] inception_5b/output <- inception_5b/3x3
I0403 14:57:28.567761 30670 net.cpp:425] inception_5b/output <- inception_5b/5x5
I0403 14:57:28.567780 30670 net.cpp:425] inception_5b/output <- inception_5b/pool_proj
I0403 14:57:28.567800 30670 net.cpp:399] inception_5b/output -> inception_5b/output
I0403 14:57:28.567853 30670 net.cpp:141] Setting up inception_5b/output
I0403 14:57:28.567878 30670 net.cpp:148] Top shape: 24 1024 7 7 (1204224)
I0403 14:57:28.567893 30670 net.cpp:156] Memory required for data: 1345864224
I0403 14:57:28.567910 30670 layer_factory.hpp:77] Creating layer pool5/7x7_s1
I0403 14:57:28.567931 30670 net.cpp:91] Creating Layer pool5/7x7_s1
I0403 14:57:28.567948 30670 net.cpp:425] pool5/7x7_s1 <- inception_5b/output
I0403 14:57:28.567968 30670 net.cpp:399] pool5/7x7_s1 -> pool5/7x7_s1
I0403 14:57:28.568191 30670 net.cpp:141] Setting up pool5/7x7_s1
I0403 14:57:28.568217 30670 net.cpp:148] Top shape: 24 1024 1 1 (24576)
I0403 14:57:28.568233 30670 net.cpp:156] Memory required for data: 1345962528
I0403 14:57:28.568249 30670 layer_factory.hpp:77] Creating layer pool5/drop_7x7_s1
I0403 14:57:28.568269 30670 net.cpp:91] Creating Layer pool5/drop_7x7_s1
I0403 14:57:28.568284 30670 net.cpp:425] pool5/drop_7x7_s1 <- pool5/7x7_s1
I0403 14:57:28.568305 30670 net.cpp:386] pool5/drop_7x7_s1 -> pool5/7x7_s1 (in-place)
I0403 14:57:28.568375 30670 net.cpp:141] Setting up pool5/drop_7x7_s1
I0403 14:57:28.568400 30670 net.cpp:148] Top shape: 24 1024 1 1 (24576)
I0403 14:57:28.568416 30670 net.cpp:156] Memory required for data: 1346060832
I0403 14:57:28.568433 30670 layer_factory.hpp:77] Creating layer loss3/classifier_plantvillage
I0403 14:57:28.568455 30670 net.cpp:91] Creating Layer loss3/classifier_plantvillage
I0403 14:57:28.568473 30670 net.cpp:425] loss3/classifier_plantvillage <- pool5/7x7_s1
I0403 14:57:28.568497 30670 net.cpp:399] loss3/classifier_plantvillage -> loss3/classifier_plantvillage
I0403 14:57:28.568943 30670 net.cpp:141] Setting up loss3/classifier_plantvillage
I0403 14:57:28.568969 30670 net.cpp:148] Top shape: 24 38 (912)
I0403 14:57:28.568984 30670 net.cpp:156] Memory required for data: 1346064480
I0403 14:57:28.569003 30670 layer_factory.hpp:77] Creating layer loss3/classifier_plantvillage_loss3/classifier_plantvillage_0_split
I0403 14:57:28.569025 30670 net.cpp:91] Creating Layer loss3/classifier_plantvillage_loss3/classifier_plantvillage_0_split
I0403 14:57:28.569042 30670 net.cpp:425] loss3/classifier_plantvillage_loss3/classifier_plantvillage_0_split <- loss3/classifier_plantvillage
I0403 14:57:28.569061 30670 net.cpp:399] loss3/classifier_plantvillage_loss3/classifier_plantvillage_0_split -> loss3/classifier_plantvillage_loss3/classifier_plantvillage_0_split_0
I0403 14:57:28.569082 30670 net.cpp:399] loss3/classifier_plantvillage_loss3/classifier_plantvillage_0_split -> loss3/classifier_plantvillage_loss3/classifier_plantvillage_0_split_1
I0403 14:57:28.569103 30670 net.cpp:399] loss3/classifier_plantvillage_loss3/classifier_plantvillage_0_split -> loss3/classifier_plantvillage_loss3/classifier_plantvillage_0_split_2
I0403 14:57:28.569128 30670 net.cpp:399] loss3/classifier_plantvillage_loss3/classifier_plantvillage_0_split -> loss3/classifier_plantvillage_loss3/classifier_plantvillage_0_split_3
I0403 14:57:28.569228 30670 net.cpp:141] Setting up loss3/classifier_plantvillage_loss3/classifier_plantvillage_0_split
I0403 14:57:28.569252 30670 net.cpp:148] Top shape: 24 38 (912)
I0403 14:57:28.569269 30670 net.cpp:148] Top shape: 24 38 (912)
I0403 14:57:28.569285 30670 net.cpp:148] Top shape: 24 38 (912)
I0403 14:57:28.569301 30670 net.cpp:148] Top shape: 24 38 (912)
I0403 14:57:28.569319 30670 net.cpp:156] Memory required for data: 1346079072
I0403 14:57:28.569335 30670 layer_factory.hpp:77] Creating layer loss1/loss
I0403 14:57:28.569358 30670 net.cpp:91] Creating Layer loss1/loss
I0403 14:57:28.569375 30670 net.cpp:425] loss1/loss <- loss1/classifier_plantvillage_loss1/classifier_plantvillage_0_split_0
I0403 14:57:28.569407 30670 net.cpp:425] loss1/loss <- label_data_1_split_0
…
