…
I0403 14:16:13.340867 29507 net.cpp:313] The NetState phase (1) differed from the phase (0) specified by a rule in layer data
I0403 14:16:13.342020 29507 net.cpp:49] Initializing net from parameters: 
state {
  phase: TEST
}
layer {
  name: "data"
  type: "Data"
  top: "data"
  top: "label"
  include {
    phase: TEST
  }
  transform_param {
    mirror: false
    crop_size: 224
    mean_file: "/home/mohanty/data/final_dataset/lmdb/color-20-80/mean.binaryproto"
  }
  data_param {
    source: "/home/mohanty/data/final_dataset/lmdb/color-20-80/test_db"
    batch_size: 24
    backend: LMDB
  }
}
layer {
  name: "conv1/7x7_s2"
  type: "Convolution"
  bottom: "data"
  top: "conv1/7x7_s2"
  param {
    lr_mult: 1
    decay_mult: 1
  }
  param {
    lr_mult: 2
    decay_mult: 0
  }
  convolution_param {
    num_output: 64
    pad: 3
    kernel_size: 7
    stride: 2
    weight_filler {
      type: "xavier"
      std: 0.1
    }
    bias_filler {
      type: "constant"
      value: 0.2
    }
  }
}
layer {
  name: "conv1/relu_7x7"
  type: "ReLU"
  bottom: "conv1/7x7_s2"
  top: "conv1/7x7_s2"
}
layer {
  name: "pool1/3x3_s2"
  type: "Pooling"
  bottom: "conv1/7x7_s2"
  top: "pool1/3x3_s2"
  pooling_param {
    pool: MAX
    kernel_size: 3
    stride: 2
  }
}
layer {
  name: "pool1/norm1"
  type: "LRN"
  bottom: "pool1/3x3_s2"
  top: "pool1/norm1"
  lrn_param {
    local_size: 5
    alpha: 0.0001
    beta: 0.75
  }
}
layer {
  name: "conv2/3x3_reduce"
  type: "Convolution"
  bottom: "pool1/norm1"
  top: "conv2/3x3_reduce"
  param {
    lr_mult: 1
    decay_mult: 1
  }
  param {
    lr_mult: 2
    decay_mult: 0
  }
  convolution_param {
    num_output: 64
    kernel_size: 1
    weight_filler {
      type: "xavier"
      std: 0.1
    }
    bias_filler {
      type: "constant"
      value: 0.2
    }
  }
}
layer {
  name: "conv2/relu_3x3_reduce"
  type: "ReLU"
  bottom: "conv2/3x3_reduce"
  top: "conv2/3x3_reduce"
}
layer {
  name: "conv2/3x3"
  type: "Convolution"
  bottom: "conv2/3x3_reduce"
  top: "conv2/3x3"
  param {
    lr_mult: 1
    decay_mult: 1
  }
  param {
    lr_mult: 2
    decay_mult: 0
  }
  convolution_param {
    num_output: 192
    pad: 1
    kernel_size: 3
    weight_filler {
      type: "xavier"
      std: 0.03
    }
    bias_filler {
      type: "constant"
      value: 0.2
    }
  }
}
layer {
  name: "conv2/relu_3x3"
  type: "ReLU"
  bottom: "conv2/3x3"
  top: "conv2/3x3"
}
layer {
  name: "conv2/norm2"
  type: "LRN"
  bottom: "conv2/3x3"
  top: "conv2/norm2"
  lrn_param {
    local_size: 5
    alpha: 0.0001
    beta: 0.75
  }
}
layer {
  name: "pool2/3x3_s2"
  type: "Pooling"
  bottom: "conv2/norm2"
  top: "pool2/3x3_s2"
  pooling_param {
    pool: MAX
    kernel_size: 3
    stride: 2
  }
}
layer {
  name: "inception_3a/1x1"
  type: "Convolution"
  bottom: "pool2/3x3_s2"
  top: "inception_3a/1x1"
  param {
    lr_mult: 1
    decay_mult: 1
  }
  param {
    lr_mult: 2
    decay_mult: 0
  }
  convolution_param {
    num_output: 64
    kernel_size: 1
    weight_filler {
      type: "xavier"
      std: 0.03
    }
    bias_filler {
      type: "constant"
      value: 0.2
    }
  }
}
layer {
  name: "inception_3a/relu_1x1"
  type: "ReLU"
  bottom: "inception_3a/1x1"
  top: "inception_3a/1x1"
}
layer {
  name: "inception_3a/3x3_reduce"
  type: "Convolution"
  bottom: "pool2/3x3_s2"
  top: "inception_3a/3x3_reduce"
  param {
    lr_mult: 1
    decay_mult: 1
  }
  param {
    lr_mult: 2
    decay_mult: 0
  }
  convolution_param {
    num_output: 96
    kernel_size: 1
    weight_filler {
      type: "xavier"
      std: 0.09
    }
    bias_filler {
      type: "constant"
      value: 0.2
    }
  }
}
layer {
  name: "inception_3a/relu_3x3_reduce"
  type: "ReLU"
  bottom: "inception_3a/3x3_reduce"
  top: "inception_3a/3x3_reduce"
}
layer {
  name: "inception_3a/3x3"
  type: "Convolution"
  bottom: "inception_3a/3x3_reduce"
  top: "inception_3a/3x3"
  param {
    lr_mult: 1
    decay_mult: 1
  }
  param {
    lr_mult: 2
    decay_mult: 0
  }
  convolution_param {
    num_output: 128
    pad: 1
    kernel_size: 3
    weight_filler {
      type: "xavier"
      std: 0.03
    }
    bias_filler {
      type: "constant"
      value: 0.2
    }
  }
}
layer {
  name: "inception_3a/relu_3x3"
  type: "ReLU"
  bottom: "inception_3a/3x3"
  top: "inception_3a/3x3"
}
layer {
  name: "inception_3a/5x5_reduce"
  type: "Convolution"
  bottom: "pool2/3x3_s2"
  top: "inception_3a/5x5_reduce"
  param {
    lr_mult: 1
    decay_mult: 1
  }
  param {
    lr_mult: 2
    decay_mult: 0
  }
  convolution_param {
    num_output: 16
    kernel_size: 1
    weight_filler {
      type: "xavier"
      std: 0.2
    }
    bias_filler {
      type: "constant"
      value: 0.2
    }
  }
}
layer {
  name: "inception_3a/relu_5x5_reduce"
  type: "ReLU"
  bottom: "inception_3a/5x5_reduce"
  top: "inception_3a/5x5_reduce"
}
layer {
  name: "inception_3a/5x5"
  type: "Convolution"
  bottom: "inception_3a/5x5_reduce"
  top: "inception_3a/5x5"
  param {
    lr_mult: 1
    decay_mult: 1
  }
  param {
    lr_mult: 2
    decay_mult: 0
  }
  convolution_param {
    num_output: 32
    pad: 2
    kernel_size: 5
    weight_filler {
      type: "xavier"
      std: 0.03
    }
    bias_filler {
      type: "constant"
      value: 0.2
    }
  }
}
layer {
  name: "inception_3a/relu_5x5"
  type: "ReLU"
  bottom: "inception_3a/5x5"
  top: "inception_3a/5x5"
}
layer {
  name: "inception_3a/pool"
  type: "Pooling"
  bottom: "pool2/3x3_s2"
  top: "inception_3a/pool"
  pooling_param {
    pool: MAX
    kernel_size: 3
    stride: 1
    pad: 1
  }
}
layer {
  name: "inception_3a/pool_proj"
  type: "Convolution"
  bottom: "inception_3a/pool"
  top: "inception_3a/pool_proj"
  param {
    lr_mult: 1
    decay_mult: 1
  }
  param {
    lr_mult: 2
    decay_mult: 0
  }
  convolution_param {
    num_output: 32
    kernel_size: 1
    weight_filler {
      type: "xavier"
      std: 0.1
    }
    bias_filler {
      type: "constant"
      value: 0.2
    }
  }
}
layer {
  name: "inception_3a/relu_pool_proj"
  type: "ReLU"
  bottom: "inception_3a/pool_proj"
  top: "inception_3a/pool_proj"
}
layer {
  name: "inception_3a/output"
  type: "Concat"
  bottom: "inception_3a/1x1"
  bottom: "inception_3a/3x3"
  bottom: "inception_3a/5x5"
  bottom: "inception_3a/pool_proj"
  top: "inception_3a/output"
}
layer {
  name: "inception_3b/1x1"
  type: "Convolution"
  bottom: "inception_3a/output"
  top: "inception_3b/1x1"
  param {
    lr_mult: 1
    decay_mult: 1
  }
  param {
    lr_mult: 2
    decay_mult: 0
  }
  convolution_param {
    num_output: 128
    kernel_size: 1
    weight_filler {
      type: "xavier"
      std: 0.03
    }
    bias_filler {
      type: "constant"
      value: 0.2
    }
  }
}
layer {
  name: "inception_3b/relu_1x1"
  type: "ReLU"
  bottom: "inception_3b/1x1"
  top: "inception_3b/1x1"
}
layer {
  name: "inception_3b/3x3_reduce"
  type: "Convolution"
  bottom: "inception_3a/output"
  top: "inception_3b/3x3_reduce"
  param {
    lr_mult: 1
    decay_mult: 1
  }
  param {
    lr_mult: 2
    decay_mult: 0
  }
  convolution_param {
    num_output: 128
    kernel_size: 1
    weight_filler {
      type: "xavier"
      std: 0.09
    }
    bias_filler {
      type: "constant"
      value: 0.2
    }
  }
}
layer {
  name: "inception_3b/relu_3x3_reduce"
  type: "ReLU"
  bottom: "inception_3b/3x3_reduce"
  top: "inception_3b/3x3_reduce"
}
layer {
  name: "inception_3b/3x3"
  type: "Convolution"
  bottom: "inception_3b/3x3_reduce"
  top: "inception_3b/3x3"
  param {
    lr_mult: 1
    decay_mult: 1
  }
  param {
    lr_mult: 2
    decay_mult: 0
  }
  convolution_param {
    num_output: 192
    pad: 1
    kernel_size: 3
    weight_filler {
      type: "xavier"
      std: 0.03
    }
    bias_filler {
      type: "constant"
      value: 0.2
    }
  }
}
layer {
  name: "inception_3b/relu_3x3"
  type: "ReLU"
  bottom: "inception_3b/3x3"
  top: "inception_3b/3x3"
}
layer {
  name: "inception_3b/5x5_reduce"
  type: "Convolution"
  bottom: "inception_3a/output"
  top: "inception_3b/5x5_reduce"
  param {
    lr_mult: 1
    decay_mult: 1
  }
  param {
    lr_mult: 2
    decay_mult: 0
  }
  convolution_param {
    num_output: 32
    kernel_size: 1
    weight_filler {
      type: "xavier"
      std: 0.2
    }
    bias_filler {
      type: "constant"
      value: 0.2
    }
  }
}
layer {
  name: "inception_3b/relu_5x5_reduce"
  type: "ReLU"
  bottom: "inception_3b/5x5_reduce"
  top: "inception_3b/5x5_reduce"
}
layer {
  name: "inception_3b/5x5"
  type: "Convolution"
  bottom: "inception_3b/5x5_reduce"
  top: "inception_3b/5x5"
  param {
    lr_mult: 1
    decay_mult: 1
  }
  param {
    lr_mult: 2
    decay_mult: 0
  }
  convolution_param {
    num_output: 96
    pad: 2
    kernel_size: 5
    weight_filler {
      type: "xavier"
      std: 0.03
    }
    bias_filler {
      type: "constant"
      value: 0.2
    }
  }
}
layer {
  name: "inception_3b/relu_5x5"
  type: "ReLU"
  bottom: "inception_3b/5x5"
  top: "inception_3b/5x5"
}
layer {
  name: "inception_3b/pool"
  type: "Pooling"
  bottom: "inception_3a/output"
  top: "inception_3b/pool"
  pooling_param {
    pool: MAX
    kernel_size: 3
    stride: 1
    pad: 1
  }
}
layer {
  name: "inception_3b/pool_proj"
  type: "Convolution"
  bottom: "inception_3b/pool"
  top: "inception_3b/pool_proj"
  param {
    lr_mult: 1
    decay_mult: 1
  }
  param {
    lr_mult: 2
    decay_mult: 0
  }
  convolution_param {
    num_output: 64
    kernel_size: 1
    weight_filler {
      type: "xavier"
      std: 0.1
    }
    bias_filler {
      type: "constant"
      value: 0.2
    }
  }
}
layer {
  name: "inception_3b/relu_pool_proj"
  type: "ReLU"
  bottom: "inception_3b/pool_proj"
  top: "inception_3b/pool_proj"
}
layer {
  name: "inception_3b/output"
  type: "Concat"
  bottom: "inception_3b/1x1"
  bottom: "inception_3b/3x3"
  bottom: "inception_3b/5x5"
  bottom: "inception_3b/pool_proj"
  top: "inception_3b/output"
}
layer {
  name: "pool3/3x3_s2"
  type: "Pooling"
  bottom: "inception_3b/output"
  top: "pool3/3x3_s2"
  pooling_param {
    pool: MAX
    kernel_size: 3
    stride: 2
  }
}
layer {
  name: "inception_4a/1x1"
  type: "Convolution"
  bottom: "pool3/3x3_s2"
  top: "inception_4a/1x1"
  param {
    lr_mult: 1
    decay_mult: 1
  }
  param {
    lr_mult: 2
    decay_mult: 0
  }
  convolution_param {
    num_output: 192
    kernel_size: 1
    weight_filler {
      type: "xavier"
      std: 0.03
    }
    bias_filler {
      type: "constant"
      value: 0.2
    }
  }
}
layer {
  name: "inception_4a/relu_1x1"
  type: "ReLU"
  bottom: "inception_4a/1x1"
  top: "inception_4a/1x1"
}
layer {
  name: "inception_4a/3x3_reduce"
  type: "Convolution"
  bottom: "pool3/3x3_s2"
  top: "inception_4a/3x3_reduce"
  param {
    lr_mult: 1
    decay_mult: 1
  }
  param {
    lr_mult: 2
    decay_mult: 0
  }
  convolution_param {
    num_output: 96
    kernel_size: 1
    weight_filler {
      type: "xavier"
      std: 0.09
    }
    bias_filler {
      type: "constant"
      value: 0.2
    }
  }
}
layer {
  name: "inception_4a/relu_3x3_reduce"
  type: "ReLU"
  bottom: "inception_4a/3x3_reduce"
  top: "inception_4a/3x3_reduce"
}
layer {
  name: "inception_4a/3x3"
  type: "Convolution"
  bottom: "inception_4a/3x3_reduce"
  top: "inception_4a/3x3"
  param {
    lr_mult: 1
    decay_mult: 1
  }
  param {
    lr_mult: 2
    decay_mult: 0
  }
  convolution_param {
    num_output: 208
    pad: 1
    kernel_size: 3
    weight_filler {
      type: "xavier"
      std: 0.03
    }
    bias_filler {
      type: "constant"
      value: 0.2
    }
  }
}
layer {
  name: "inception_4a/relu_3x3"
  type: "ReLU"
  bottom: "inception_4a/3x3"
  top: "inception_4a/3x3"
}
layer {
  name: "inception_4a/5x5_reduce"
  type: "Convolution"
  bottom: "pool3/3x3_s2"
  top: "inception_4a/5x5_reduce"
  param {
    lr_mult: 1
    decay_mult: 1
  }
  param {
    lr_mult: 2
    decay_mult: 0
  }
  convolution_param {
    num_output: 16
    kernel_size: 1
    weight_filler {
      type: "xavier"
      std: 0.2
    }
    bias_filler {
      type: "constant"
      value: 0.2
    }
  }
}
layer {
  name: "inception_4a/relu_5x5_reduce"
  type: "ReLU"
  bottom: "inception_4a/5x5_reduce"
  top: "inception_4a/5x5_reduce"
}
layer {
  name: "inception_4a/5x5"
  type: "Convolution"
  bottom: "inception_4a/5x5_reduce"
  top: "inception_4a/5x5"
  param {
    lr_mult: 1
    decay_mult: 1
  }
  param {
    lr_mult: 2
    decay_mult: 0
  }
  convolution_param {
    num_output: 48
    pad: 2
    kernel_size: 5
    weight_filler {
      type: "xavier"
      std: 0.03
    }
    bias_filler {
      type: "constant"
      value: 0.2
    }
  }
}
layer {
  name: "inception_4a/relu_5x5"
  type: "ReLU"
  bottom: "inception_4a/5x5"
  top: "inception_4a/5x5"
}
layer {
  name: "inception_4a/pool"
  type: "Pooling"
  bottom: "pool3/3x3_s2"
  top: "inception_4a/pool"
  pooling_param {
    pool: MAX
    kernel_size: 3
    stride: 1
    pad: 1
  }
}
layer {
  name: "inception_4a/pool_proj"
  type: "Convolution"
  bottom: "inception_4a/pool"
  top: "inception_4a/pool_proj"
  param {
    lr_mult: 1
    decay_mult: 1
  }
  param {
    lr_mult: 2
    decay_mult: 0
  }
  convolution_param {
    num_output: 64
    kernel_size: 1
    weight_filler {
      type: "xavier"
      std: 0.1
    }
    bias_filler {
      type: "constant"
      value: 0.2
    }
  }
}
layer {
  name: "inception_4a/relu_pool_proj"
  type: "ReLU"
  bottom: "inception_4a/pool_proj"
  top: "inception_4a/pool_proj"
}
layer {
  name: "inception_4a/output"
  type: "Concat"
  bottom: "inception_4a/1x1"
  bottom: "inception_4a/3x3"
  bottom: "inception_4a/5x5"
  bottom: "inception_4a/pool_proj"
  top: "inception_4a/output"
}
layer {
  name: "loss1/ave_pool"
  type: "Pooling"
  bottom: "inception_4a/output"
  top: "loss1/ave_pool"
  pooling_param {
    pool: AVE
    kernel_size: 5
    stride: 3
  }
}
layer {
  name: "loss1/conv"
  type: "Convolution"
  bottom: "loss1/ave_pool"
  top: "loss1/conv"
  param {
    lr_mult: 1
    decay_mult: 1
  }
  param {
    lr_mult: 2
    decay_mult: 0
  }
  convolution_param {
    num_output: 128
    kernel_size: 1
    weight_filler {
      type: "xavier"
      std: 0.08
    }
    bias_filler {
      type: "constant"
      value: 0.2
    }
  }
}
layer {
  name: "loss1/relu_conv"
  type: "ReLU"
  bottom: "loss1/conv"
  top: "loss1/conv"
}
layer {
  name: "loss1/fc"
  type: "InnerProduct"
  bottom: "loss1/conv"
  top: "loss1/fc"
  param {
    lr_mult: 1
    decay_mult: 1
  }
  param {
    lr_mult: 2
    decay_mult: 0
  }
  inner_product_param {
    num_output: 1024
    weight_filler {
      type: "xavier"
      std: 0.02
    }
    bias_filler {
      type: "constant"
      value: 0.2
    }
  }
}
layer {
  name: "loss1/relu_fc"
  type: "ReLU"
  bottom: "loss1/fc"
  top: "loss1/fc"
}
layer {
  name: "loss1/drop_fc"
  type: "Dropout"
  bottom: "loss1/fc"
  top: "loss1/fc"
  dropout_param {
    dropout_ratio: 0.7
  }
}
layer {
  name: "loss1/classifier_plantvillage"
  type: "InnerProduct"
  bottom: "loss1/fc"
  top: "loss1/classifier_plantvillage"
  param {
    lr_mult: 1
    decay_mult: 1
  }
  param {
    lr_mult: 2
    decay_mult: 0
  }
  inner_product_param {
    num_output: 38
    weight_filler {
      type: "xavier"
      std: 0.0009765625
    }
    bias_filler {
      type: "constant"
      value: 0
    }
  }
}
layer {
  name: "inception_4b/1x1"
  type: "Convolution"
  bottom: "inception_4a/output"
  top: "inception_4b/1x1"
  param {
    lr_mult: 1
    decay_mult: 1
  }
  param {
    lr_mult: 2
    decay_mult: 0
  }
  convolution_param {
    num_output: 160
    kernel_size: 1
    weight_filler {
      type: "xavier"
      std: 0.03
    }
    bias_filler {
      type: "constant"
      value: 0.2
    }
  }
}
layer {
  name: "inception_4b/relu_1x1"
  type: "ReLU"
  bottom: "inception_4b/1x1"
  top: "inception_4b/1x1"
}
layer {
  name: "inception_4b/3x3_reduce"
  type: "Convolution"
  bottom: "inception_4a/output"
  top: "inception_4b/3x3_reduce"
  param {
    lr_mult: 1
    decay_mult: 1
  }
  param {
    lr_mult: 2
    decay_mult: 0
  }
  convolution_param {
    num_output: 112
    kernel_size: 1
    weight_filler {
      type: "xavier"
      std: 0.09
    }
    bias_filler {
      type: "constant"
      value: 0.2
    }
  }
}
layer {
  name: "inception_4b/relu_3x3_reduce"
  type: "ReLU"
  bottom: "inception_4b/3x3_reduce"
  top: "inception_4b/3x3_reduce"
}
layer {
  name: "inception_4b/3x3"
  type: "Convolution"
  bottom: "inception_4b/3x3_reduce"
  top: "inception_4b/3x3"
  param {
    lr_mult: 1
    decay_mult: 1
  }
  param {
    lr_mult: 2
    decay_mult: 0
  }
  convolution_param {
    num_output: 224
    pad: 1
    kernel_size: 3
    weight_filler {
      type: "xavier"
      std: 0.03
    }
    bias_filler {
      type: "constant"
      value: 0.2
    }
  }
}
layer {
  name: "inception_4b/relu_3x3"
  type: "ReLU"
  bottom: "inception_4b/3x3"
  top: "inception_4b/3x3"
}
layer {
  name: "inception_4b/5x5_reduce"
  type: "Convolution"
  bottom: "inception_4a/output"
  top: "inception_4b/5x5_reduce"
  param {
    lr_mult: 1
    decay_mult: 1
  }
  param {
    lr_mult: 2
    decay_mult: 0
  }
  convolution_param {
    num_output: 24
    kernel_size: 1
    weight_filler {
      type: "xavier"
      std: 0.2
    }
    bias_filler {
      type: "constant"
      value: 0.2
    }
  }
}
layer {
  name: "inception_4b/relu_5x5_reduce"
  type: "ReLU"
  bottom: "inception_4b/5x5_reduce"
  top: "inception_4b/5x5_reduce"
}
layer {
  name: "inception_4b/5x5"
  type: "Convolution"
  bottom: "inception_4b/5x5_reduce"
  top: "inception_4b/5x5"
  param {
    lr_mult: 1
    decay_mult: 1
  }
  param {
    lr_mult: 2
    decay_mult: 0
  }
  convolution_param {
    num_output: 64
    pad: 2
    kernel_size: 5
    weight_filler {
      type: "xavier"
      std: 0.03
    }
    bias_filler {
      type: "constant"
      value: 0.2
    }
  }
}
layer {
  name: "inception_4b/relu_5x5"
  type: "ReLU"
  bottom: "inception_4b/5x5"
  top: "inception_4b/5x5"
}
layer {
  name: "inception_4b/pool"
  type: "Pooling"
  bottom: "inception_4a/output"
  top: "inception_4b/pool"
  pooling_param {
    pool: MAX
    kernel_size: 3
    stride: 1
    pad: 1
  }
}
layer {
  name: "inception_4b/pool_proj"
  type: "Convolution"
  bottom: "inception_4b/pool"
  top: "inception_4b/pool_proj"
  param {
    lr_mult: 1
    decay_mult: 1
  }
  param {
    lr_mult: 2
    decay_mult: 0
  }
  convolution_param {
    num_output: 64
    kernel_size: 1
    weight_filler {
      type: "xavier"
      std: 0.1
    }
    bias_filler {
      type: "constant"
      value: 0.2
    }
  }
}
layer {
  name: "inception_4b/relu_pool_proj"
  type: "ReLU"
  bottom: "inception_4b/pool_proj"
  top: "inception_4b/pool_proj"
}
layer {
  name: "inception_4b/output"
  type: "Concat"
  bottom: "inception_4b/1x1"
  bottom: "inception_4b/3x3"
  bottom: "inception_4b/5x5"
  bottom: "inception_4b/pool_proj"
  top: "inception_4b/output"
}
layer {
  name: "inception_4c/1x1"
  type: "Convolution"
  bottom: "inception_4b/output"
  top: "inception_4c/1x1"
  param {
    lr_mult: 1
    decay_mult: 1
  }
  param {
    lr_mult: 2
    decay_mult: 0
  }
  convolution_param {
    num_output: 128
    kernel_size: 1
    weight_filler {
      type: "xavier"
      std: 0.03
    }
    bias_filler {
      type: "constant"
      value: 0.2
    }
  }
}
layer {
  name: "inception_4c/relu_1x1"
  type: "ReLU"
  bottom: "inception_4c/1x1"
  top: "inception_4c/1x1"
}
layer {
  name: "inception_4c/3x3_reduce"
  type: "Convolution"
  bottom: "inception_4b/output"
  top: "inception_4c/3x3_reduce"
  param {
    lr_mult: 1
    decay_mult: 1
  }
  param {
    lr_mult: 2
    decay_mult: 0
  }
  convolution_param {
    num_output: 128
    kernel_size: 1
    weight_filler {
      type: "xavier"
      std: 0.09
    }
    bias_filler {
      type: "constant"
      value: 0.2
    }
  }
}
layer {
  name: "inception_4c/relu_3x3_reduce"
  type: "ReLU"
  bottom: "inception_4c/3x3_reduce"
  top: "inception_4c/3x3_reduce"
}
layer {
  name: "inception_4c/3x3"
  type: "Convolution"
  bottom: "inception_4c/3x3_reduce"
  top: "inception_4c/3x3"
  param {
    lr_mult: 1
    decay_mult: 1
  }
  param {
    lr_mult: 2
    decay_mult: 0
  }
  convolution_param {
    num_output: 256
    pad: 1
    kernel_size: 3
    weight_filler {
      type: "xavier"
      std: 0.03
    }
    bias_filler {
      type: "constant"
      value: 0.2
    }
  }
}
layer {
  name: "inception_4c/relu_3x3"
  type: "ReLU"
  bottom: "inception_4c/3x3"
  top: "inception_4c/3x3"
}
layer {
  name: "inception_4c/5x5_reduce"
  type: "Convolution"
  bottom: "inception_4b/output"
  top: "inception_4c/5x5_reduce"
  param {
    lr_mult: 1
    decay_mult: 1
  }
  param {
    lr_mult: 2
    decay_mult: 0
  }
  convolution_param {
    num_output: 24
    kernel_size: 1
    weight_filler {
      type: "xavier"
      std: 0.2
    }
    bias_filler {
      type: "constant"
      value: 0.2
    }
  }
}
layer {
  name: "inception_4c/relu_5x5_reduce"
  type: "ReLU"
  bottom: "inception_4c/5x5_reduce"
  top: "inception_4c/5x5_reduce"
}
layer {
  name: "inception_4c/5x5"
  type: "Convolution"
  bottom: "inception_4c/5x5_reduce"
  top: "inception_4c/5x5"
  param {
    lr_mult: 1
    decay_mult: 1
  }
  param {
    lr_mult: 2
    decay_mult: 0
  }
  convolution_param {
    num_output: 64
    pad: 2
    kernel_size: 5
    weight_filler {
      type: "xavier"
      std: 0.03
    }
    bias_filler {
      type: "constant"
      value: 0.2
    }
  }
}
layer {
  name: "inception_4c/relu_5x5"
  type: "ReLU"
  bottom: "inception_4c/5x5"
  top: "inception_4c/5x5"
}
layer {
  name: "inception_4c/pool"
  type: "Pooling"
  bottom: "inception_4b/output"
  top: "inception_4c/pool"
  pooling_param {
    pool: MAX
    kernel_size: 3
    stride: 1
    pad: 1
  }
}
layer {
  name: "inception_4c/pool_proj"
  type: "Convolution"
  bottom: "inception_4c/pool"
  top: "inception_4c/pool_proj"
  param {
    lr_mult: 1
    decay_mult: 1
  }
  param {
    lr_mult: 2
    decay_mult: 0
  }
  convolution_param {
    num_output: 64
    kernel_size: 1
    weight_filler {
      type: "xavier"
      std: 0.1
    }
    bias_filler {
      type: "constant"
      value: 0.2
    }
  }
}
layer {
  name: "inception_4c/relu_pool_proj"
  type: "ReLU"
  bottom: "inception_4c/pool_proj"
  top: "inception_4c/pool_proj"
}
layer {
  name: "inception_4c/output"
  type: "Concat"
  bottom: "inception_4c/1x1"
  bottom: "inception_4c/3x3"
  bottom: "inception_4c/5x5"
  bottom: "inception_4c/pool_proj"
  top: "inception_4c/output"
}
layer {
  name: "inception_4d/1x1"
  type: "Convolution"
  bottom: "inception_4c/output"
  top: "inception_4d/1x1"
  param {
    lr_mult: 1
    decay_mult: 1
  }
  param {
    lr_mult: 2
    decay_mult: 0
  }
  convolution_param {
    num_output: 112
    kernel_size: 1
    weight_filler {
      type: "xavier"
      std: 0.03
    }
    bias_filler {
      type: "constant"
      value: 0.2
    }
  }
}
layer {
  name: "inception_4d/relu_1x1"
  type: "ReLU"
  bottom: "inception_4d/1x1"
  top: "inception_4d/1x1"
}
layer {
  name: "inception_4d/3x3_reduce"
  type: "Convolution"
  bottom: "inception_4c/output"
  top: "inception_4d/3x3_reduce"
  param {
    lr_mult: 1
    decay_mult: 1
  }
  param {
    lr_mult: 2
    decay_mult: 0
  }
  convolution_param {
    num_output: 144
    kernel_size: 1
    weight_filler {
      type: "xavier"
      std: 0.09
    }
    bias_filler {
      type: "constant"
      value: 0.2
    }
  }
}
layer {
  name: "inception_4d/relu_3x3_reduce"
  type: "ReLU"
  bottom: "inception_4d/3x3_reduce"
  top: "inception_4d/3x3_reduce"
}
layer {
  name: "inception_4d/3x3"
  type: "Convolution"
  bottom: "inception_4d/3x3_reduce"
  top: "inception_4d/3x3"
  param {
    lr_mult: 1
    decay_mult: 1
  }
  param {
    lr_mult: 2
    decay_mult: 0
  }
  convolution_param {
    num_output: 288
    pad: 1
    kernel_size: 3
    weight_filler {
      type: "xavier"
      std: 0.03
    }
    bias_filler {
      type: "constant"
      value: 0.2
    }
  }
}
layer {
  name: "inception_4d/relu_3x3"
  type: "ReLU"
  bottom: "inception_4d/3x3"
  top: "inception_4d/3x3"
}
layer {
  name: "inception_4d/5x5_reduce"
  type: "Convolution"
  bottom: "inception_4c/output"
  top: "inception_4d/5x5_reduce"
  param {
    lr_mult: 1
    decay_mult: 1
  }
  param {
    lr_mult: 2
    decay_mult: 0
  }
  convolution_param {
    num_output: 32
    kernel_size: 1
    weight_filler {
      type: "xavier"
      std: 0.2
    }
    bias_filler {
      type: "constant"
      value: 0.2
    }
  }
}
layer {
  name: "inception_4d/relu_5x5_reduce"
  type: "ReLU"
  bottom: "inception_4d/5x5_reduce"
  top: "inception_4d/5x5_reduce"
}
layer {
  name: "inception_4d/5x5"
  type: "Convolution"
  bottom: "inception_4d/5x5_reduce"
  top: "inception_4d/5x5"
  param {
    lr_mult: 1
    decay_mult: 1
  }
  param {
    lr_mult: 2
    decay_mult: 0
  }
  convolution_param {
    num_output: 64
    pad: 2
    kernel_size: 5
    weight_filler {
      type: "xavier"
      std: 0.03
    }
    bias_filler {
      type: "constant"
      value: 0.2
    }
  }
}
layer {
  name: "inception_4d/relu_5x5"
  type: "ReLU"
  bottom: "inception_4d/5x5"
  top: "inception_4d/5x5"
}
layer {
  name: "inception_4d/pool"
  type: "Pooling"
  bottom: "inception_4c/output"
  top: "inception_4d/pool"
  pooling_param {
    pool: MAX
    kernel_size: 3
    stride: 1
    pad: 1
  }
}
layer {
  name: "inception_4d/pool_proj"
  type: "Convolution"
  bottom: "inception_4d/pool"
  top: "inception_4d/pool_proj"
  param {
    lr_mult: 1
    decay_mult: 1
  }
  param {
    lr_mult: 2
    decay_mult: 0
  }
  convolution_param {
    num_output: 64
    kernel_size: 1
    weight_filler {
      type: "xavier"
      std: 0.1
    }
    bias_filler {
      type: "constant"
      value: 0.2
    }
  }
}
layer {
  name: "inception_4d/relu_pool_proj"
  type: "ReLU"
  bottom: "inception_4d/pool_proj"
  top: "inception_4d/pool_proj"
}
layer {
  name: "inception_4d/output"
  type: "Concat"
  bottom: "inception_4d/1x1"
  bottom: "inception_4d/3x3"
  bottom: "inception_4d/5x5"
  bottom: "inception_4d/pool_proj"
  top: "inception_4d/output"
}
layer {
  name: "loss2/ave_pool"
  type: "Pooling"
  bottom: "inception_4d/output"
  top: "loss2/ave_pool"
  pooling_param {
    pool: AVE
    kernel_size: 5
    stride: 3
  }
}
layer {
  name: "loss2/conv"
  type: "Convolution"
  bottom: "loss2/ave_pool"
  top: "loss2/conv"
  param {
    lr_mult: 1
    decay_mult: 1
  }
  param {
    lr_mult: 2
    decay_mult: 0
  }
  convolution_param {
    num_output: 128
    kernel_size: 1
    weight_filler {
      type: "xavier"
      std: 0.08
    }
    bias_filler {
      type: "constant"
      value: 0.2
    }
  }
}
layer {
  name: "loss2/relu_conv"
  type: "ReLU"
  bottom: "loss2/conv"
  top: "loss2/conv"
}
layer {
  name: "loss2/fc"
  type: "InnerProduct"
  bottom: "loss2/conv"
  top: "loss2/fc"
  param {
    lr_mult: 1
    decay_mult: 1
  }
  param {
    lr_mult: 2
    decay_mult: 0
  }
  inner_product_param {
    num_output: 1024
    weight_filler {
      type: "xavier"
      std: 0.02
    }
    bias_filler {
      type: "constant"
      value: 0.2
    }
  }
}
layer {
  name: "loss2/relu_fc"
  type: "ReLU"
  bottom: "loss2/fc"
  top: "loss2/fc"
}
layer {
  name: "loss2/drop_fc"
  type: "Dropout"
  bottom: "loss2/fc"
  top: "loss2/fc"
  dropout_param {
    dropout_ratio: 0.7
  }
}
layer {
  name: "loss2/classifier_plantvillage"
  type: "InnerProduct"
  bottom: "loss2/fc"
  top: "loss2/classifier_plantvillage"
  param {
    lr_mult: 1
    decay_mult: 1
  }
  param {
    lr_mult: 2
    decay_mult: 0
  }
  inner_product_param {
    num_output: 38
    weight_filler {
      type: "xavier"
      std: 0.0009765625
    }
    bias_filler {
      type: "constant"
      value: 0
    }
  }
}
layer {
  name: "inception_4e/1x1"
  type: "Convolution"
  bottom: "inception_4d/output"
  top: "inception_4e/1x1"
  param {
    lr_mult: 1
    decay_mult: 1
  }
  param {
    lr_mult: 2
    decay_mult: 0
  }
  convolution_param {
    num_output: 256
    kernel_size: 1
    weight_filler {
      type: "xavier"
      std: 0.03
    }
    bias_filler {
      type: "constant"
      value: 0.2
    }
  }
}
layer {
  name: "inception_4e/relu_1x1"
  type: "ReLU"
  bottom: "inception_4e/1x1"
  top: "inception_4e/1x1"
}
layer {
  name: "inception_4e/3x3_reduce"
  type: "Convolution"
  bottom: "inception_4d/output"
  top: "inception_4e/3x3_reduce"
  param {
    lr_mult: 1
    decay_mult: 1
  }
  param {
    lr_mult: 2
    decay_mult: 0
  }
  convolution_param {
    num_output: 160
    kernel_size: 1
    weight_filler {
      type: "xavier"
      std: 0.09
    }
    bias_filler {
      type: "constant"
      value: 0.2
    }
  }
}
layer {
  name: "inception_4e/relu_3x3_reduce"
  type: "ReLU"
  bottom: "inception_4e/3x3_reduce"
  top: "inception_4e/3x3_reduce"
}
layer {
  name: "inception_4e/3x3"
  type: "Convolution"
  bottom: "inception_4e/3x3_reduce"
  top: "inception_4e/3x3"
  param {
    lr_mult: 1
    decay_mult: 1
  }
  param {
    lr_mult: 2
    decay_mult: 0
  }
  convolution_param {
    num_output: 320
    pad: 1
    kernel_size: 3
    weight_filler {
      type: "xavier"
      std: 0.03
    }
    bias_filler {
      type: "constant"
      value: 0.2
    }
  }
}
layer {
  name: "inception_4e/relu_3x3"
  type: "ReLU"
  bottom: "inception_4e/3x3"
  top: "inception_4e/3x3"
}
layer {
  name: "inception_4e/5x5_reduce"
  type: "Convolution"
  bottom: "inception_4d/output"
  top: "inception_4e/5x5_reduce"
  param {
    lr_mult: 1
    decay_mult: 1
  }
  param {
    lr_mult: 2
    decay_mult: 0
  }
  convolution_param {
    num_output: 32
    kernel_size: 1
    weight_filler {
      type: "xavier"
      std: 0.2
    }
    bias_filler {
      type: "constant"
      value: 0.2
    }
  }
}
layer {
  name: "inception_4e/relu_5x5_reduce"
  type: "ReLU"
  bottom: "inception_4e/5x5_reduce"
  top: "inception_4e/5x5_reduce"
}
layer {
  name: "inception_4e/5x5"
  type: "Convolution"
  bottom: "inception_4e/5x5_reduce"
  top: "inception_4e/5x5"
  p
I0403 14:16:13.343310 29507 layer_factory.hpp:77] Creating layer data
I0403 14:16:13.343912 29507 net.cpp:91] Creating Layer data
I0403 14:16:13.343945 29507 net.cpp:399] data -> data
I0403 14:16:13.343997 29507 net.cpp:399] data -> label
I0403 14:16:13.344033 29507 data_transformer.cpp:25] Loading mean file from: /home/mohanty/data/final_dataset/lmdb/color-20-80/mean.binaryproto
I0403 14:16:13.346817 29510 db_lmdb.cpp:38] Opened lmdb /home/mohanty/data/final_dataset/lmdb/color-20-80/test_db
I0403 14:16:13.357746 29507 data_layer.cpp:41] output data size: 24,3,224,224
I0403 14:16:13.385105 29507 net.cpp:141] Setting up data
I0403 14:16:13.385195 29507 net.cpp:148] Top shape: 24 3 224 224 (3612672)
I0403 14:16:13.385216 29507 net.cpp:148] Top shape: 24 (24)
I0403 14:16:13.385233 29507 net.cpp:156] Memory required for data: 14450784
I0403 14:16:13.385262 29507 layer_factory.hpp:77] Creating layer label_data_1_split
I0403 14:16:13.385291 29507 net.cpp:91] Creating Layer label_data_1_split
I0403 14:16:13.385318 29507 net.cpp:425] label_data_1_split <- label
I0403 14:16:13.385352 29507 net.cpp:399] label_data_1_split -> label_data_1_split_0
I0403 14:16:13.385383 29507 net.cpp:399] label_data_1_split -> label_data_1_split_1
I0403 14:16:13.385404 29507 net.cpp:399] label_data_1_split -> label_data_1_split_2
I0403 14:16:13.385426 29507 net.cpp:399] label_data_1_split -> label_data_1_split_3
I0403 14:16:13.385447 29507 net.cpp:399] label_data_1_split -> label_data_1_split_4
I0403 14:16:13.385468 29507 net.cpp:399] label_data_1_split -> label_data_1_split_5
I0403 14:16:13.385488 29507 net.cpp:399] label_data_1_split -> label_data_1_split_6
I0403 14:16:13.385509 29507 net.cpp:399] label_data_1_split -> label_data_1_split_7
I0403 14:16:13.385529 29507 net.cpp:399] label_data_1_split -> label_data_1_split_8
I0403 14:16:13.385550 29507 net.cpp:399] label_data_1_split -> label_data_1_split_9
I0403 14:16:13.385670 29507 net.cpp:141] Setting up label_data_1_split
I0403 14:16:13.385695 29507 net.cpp:148] Top shape: 24 (24)
I0403 14:16:13.385712 29507 net.cpp:148] Top shape: 24 (24)
I0403 14:16:13.385728 29507 net.cpp:148] Top shape: 24 (24)
I0403 14:16:13.385746 29507 net.cpp:148] Top shape: 24 (24)
I0403 14:16:13.385762 29507 net.cpp:148] Top shape: 24 (24)
I0403 14:16:13.385779 29507 net.cpp:148] Top shape: 24 (24)
I0403 14:16:13.385794 29507 net.cpp:148] Top shape: 24 (24)
I0403 14:16:13.385810 29507 net.cpp:148] Top shape: 24 (24)
I0403 14:16:13.385828 29507 net.cpp:148] Top shape: 24 (24)
I0403 14:16:13.385843 29507 net.cpp:148] Top shape: 24 (24)
I0403 14:16:13.385888 29507 net.cpp:156] Memory required for data: 14451744
I0403 14:16:13.385905 29507 layer_factory.hpp:77] Creating layer conv1/7x7_s2
I0403 14:16:13.385938 29507 net.cpp:91] Creating Layer conv1/7x7_s2
I0403 14:16:13.385957 29507 net.cpp:425] conv1/7x7_s2 <- data
I0403 14:16:13.385990 29507 net.cpp:399] conv1/7x7_s2 -> conv1/7x7_s2
I0403 14:16:13.526973 29507 net.cpp:141] Setting up conv1/7x7_s2
I0403 14:16:13.527050 29507 net.cpp:148] Top shape: 24 64 112 112 (19267584)
I0403 14:16:13.527070 29507 net.cpp:156] Memory required for data: 91522080
I0403 14:16:13.527103 29507 layer_factory.hpp:77] Creating layer conv1/relu_7x7
I0403 14:16:13.527132 29507 net.cpp:91] Creating Layer conv1/relu_7x7
I0403 14:16:13.527151 29507 net.cpp:425] conv1/relu_7x7 <- conv1/7x7_s2
I0403 14:16:13.527171 29507 net.cpp:386] conv1/relu_7x7 -> conv1/7x7_s2 (in-place)
I0403 14:16:13.527446 29507 net.cpp:141] Setting up conv1/relu_7x7
I0403 14:16:13.527474 29507 net.cpp:148] Top shape: 24 64 112 112 (19267584)
I0403 14:16:13.527492 29507 net.cpp:156] Memory required for data: 168592416
I0403 14:16:13.527508 29507 layer_factory.hpp:77] Creating layer pool1/3x3_s2
I0403 14:16:13.527534 29507 net.cpp:91] Creating Layer pool1/3x3_s2
I0403 14:16:13.527554 29507 net.cpp:425] pool1/3x3_s2 <- conv1/7x7_s2
I0403 14:16:13.527573 29507 net.cpp:399] pool1/3x3_s2 -> pool1/3x3_s2
I0403 14:16:13.527650 29507 net.cpp:141] Setting up pool1/3x3_s2
I0403 14:16:13.527678 29507 net.cpp:148] Top shape: 24 64 56 56 (4816896)
I0403 14:16:13.527693 29507 net.cpp:156] Memory required for data: 187860000
I0403 14:16:13.527709 29507 layer_factory.hpp:77] Creating layer pool1/norm1
I0403 14:16:13.527735 29507 net.cpp:91] Creating Layer pool1/norm1
I0403 14:16:13.527755 29507 net.cpp:425] pool1/norm1 <- pool1/3x3_s2
I0403 14:16:13.527775 29507 net.cpp:399] pool1/norm1 -> pool1/norm1
I0403 14:16:13.528072 29507 net.cpp:141] Setting up pool1/norm1
I0403 14:16:13.528102 29507 net.cpp:148] Top shape: 24 64 56 56 (4816896)
I0403 14:16:13.528120 29507 net.cpp:156] Memory required for data: 207127584
I0403 14:16:13.528136 29507 layer_factory.hpp:77] Creating layer conv2/3x3_reduce
I0403 14:16:13.528162 29507 net.cpp:91] Creating Layer conv2/3x3_reduce
I0403 14:16:13.528180 29507 net.cpp:425] conv2/3x3_reduce <- pool1/norm1
I0403 14:16:13.528200 29507 net.cpp:399] conv2/3x3_reduce -> conv2/3x3_reduce
I0403 14:16:13.529618 29507 net.cpp:141] Setting up conv2/3x3_reduce
I0403 14:16:13.529650 29507 net.cpp:148] Top shape: 24 64 56 56 (4816896)
I0403 14:16:13.529669 29507 net.cpp:156] Memory required for data: 226395168
I0403 14:16:13.529690 29507 layer_factory.hpp:77] Creating layer conv2/relu_3x3_reduce
I0403 14:16:13.529711 29507 net.cpp:91] Creating Layer conv2/relu_3x3_reduce
I0403 14:16:13.529728 29507 net.cpp:425] conv2/relu_3x3_reduce <- conv2/3x3_reduce
I0403 14:16:13.529747 29507 net.cpp:386] conv2/relu_3x3_reduce -> conv2/3x3_reduce (in-place)
I0403 14:16:13.530078 29507 net.cpp:141] Setting up conv2/relu_3x3_reduce
I0403 14:16:13.530107 29507 net.cpp:148] Top shape: 24 64 56 56 (4816896)
I0403 14:16:13.530124 29507 net.cpp:156] Memory required for data: 245662752
I0403 14:16:13.530140 29507 layer_factory.hpp:77] Creating layer conv2/3x3
I0403 14:16:13.530164 29507 net.cpp:91] Creating Layer conv2/3x3
I0403 14:16:13.530184 29507 net.cpp:425] conv2/3x3 <- conv2/3x3_reduce
I0403 14:16:13.530203 29507 net.cpp:399] conv2/3x3 -> conv2/3x3
I0403 14:16:13.532544 29507 net.cpp:141] Setting up conv2/3x3
I0403 14:16:13.532577 29507 net.cpp:148] Top shape: 24 192 56 56 (14450688)
I0403 14:16:13.532595 29507 net.cpp:156] Memory required for data: 303465504
I0403 14:16:13.532618 29507 layer_factory.hpp:77] Creating layer conv2/relu_3x3
I0403 14:16:13.532639 29507 net.cpp:91] Creating Layer conv2/relu_3x3
I0403 14:16:13.532657 29507 net.cpp:425] conv2/relu_3x3 <- conv2/3x3
I0403 14:16:13.532676 29507 net.cpp:386] conv2/relu_3x3 -> conv2/3x3 (in-place)
I0403 14:16:13.532848 29507 net.cpp:141] Setting up conv2/relu_3x3
I0403 14:16:13.532876 29507 net.cpp:148] Top shape: 24 192 56 56 (14450688)
I0403 14:16:13.532927 29507 net.cpp:156] Memory required for data: 361268256
I0403 14:16:13.532944 29507 layer_factory.hpp:77] Creating layer conv2/norm2
I0403 14:16:13.532965 29507 net.cpp:91] Creating Layer conv2/norm2
I0403 14:16:13.532984 29507 net.cpp:425] conv2/norm2 <- conv2/3x3
I0403 14:16:13.533004 29507 net.cpp:399] conv2/norm2 -> conv2/norm2
I0403 14:16:13.533305 29507 net.cpp:141] Setting up conv2/norm2
I0403 14:16:13.533347 29507 net.cpp:148] Top shape: 24 192 56 56 (14450688)
I0403 14:16:13.533366 29507 net.cpp:156] Memory required for data: 419071008
I0403 14:16:13.533382 29507 layer_factory.hpp:77] Creating layer pool2/3x3_s2
I0403 14:16:13.533402 29507 net.cpp:91] Creating Layer pool2/3x3_s2
I0403 14:16:13.533421 29507 net.cpp:425] pool2/3x3_s2 <- conv2/norm2
I0403 14:16:13.533442 29507 net.cpp:399] pool2/3x3_s2 -> pool2/3x3_s2
I0403 14:16:13.533495 29507 net.cpp:141] Setting up pool2/3x3_s2
I0403 14:16:13.533520 29507 net.cpp:148] Top shape: 24 192 28 28 (3612672)
I0403 14:16:13.533537 29507 net.cpp:156] Memory required for data: 433521696
I0403 14:16:13.533553 29507 layer_factory.hpp:77] Creating layer pool2/3x3_s2_pool2/3x3_s2_0_split
I0403 14:16:13.533571 29507 net.cpp:91] Creating Layer pool2/3x3_s2_pool2/3x3_s2_0_split
I0403 14:16:13.533587 29507 net.cpp:425] pool2/3x3_s2_pool2/3x3_s2_0_split <- pool2/3x3_s2
I0403 14:16:13.533606 29507 net.cpp:399] pool2/3x3_s2_pool2/3x3_s2_0_split -> pool2/3x3_s2_pool2/3x3_s2_0_split_0
I0403 14:16:13.533625 29507 net.cpp:399] pool2/3x3_s2_pool2/3x3_s2_0_split -> pool2/3x3_s2_pool2/3x3_s2_0_split_1
I0403 14:16:13.533646 29507 net.cpp:399] pool2/3x3_s2_pool2/3x3_s2_0_split -> pool2/3x3_s2_pool2/3x3_s2_0_split_2
I0403 14:16:13.533668 29507 net.cpp:399] pool2/3x3_s2_pool2/3x3_s2_0_split -> pool2/3x3_s2_pool2/3x3_s2_0_split_3
I0403 14:16:13.533736 29507 net.cpp:141] Setting up pool2/3x3_s2_pool2/3x3_s2_0_split
I0403 14:16:13.533762 29507 net.cpp:148] Top shape: 24 192 28 28 (3612672)
I0403 14:16:13.533779 29507 net.cpp:148] Top shape: 24 192 28 28 (3612672)
I0403 14:16:13.533795 29507 net.cpp:148] Top shape: 24 192 28 28 (3612672)
I0403 14:16:13.533812 29507 net.cpp:148] Top shape: 24 192 28 28 (3612672)
I0403 14:16:13.533826 29507 net.cpp:156] Memory required for data: 491324448
I0403 14:16:13.533843 29507 layer_factory.hpp:77] Creating layer inception_3a/1x1
I0403 14:16:13.533864 29507 net.cpp:91] Creating Layer inception_3a/1x1
I0403 14:16:13.533881 29507 net.cpp:425] inception_3a/1x1 <- pool2/3x3_s2_pool2/3x3_s2_0_split_0
I0403 14:16:13.533900 29507 net.cpp:399] inception_3a/1x1 -> inception_3a/1x1
I0403 14:16:13.535495 29507 net.cpp:141] Setting up inception_3a/1x1
I0403 14:16:13.535527 29507 net.cpp:148] Top shape: 24 64 28 28 (1204224)
I0403 14:16:13.535545 29507 net.cpp:156] Memory required for data: 496141344
I0403 14:16:13.535565 29507 layer_factory.hpp:77] Creating layer inception_3a/relu_1x1
I0403 14:16:13.535588 29507 net.cpp:91] Creating Layer inception_3a/relu_1x1
I0403 14:16:13.535607 29507 net.cpp:425] inception_3a/relu_1x1 <- inception_3a/1x1
I0403 14:16:13.535627 29507 net.cpp:386] inception_3a/relu_1x1 -> inception_3a/1x1 (in-place)
I0403 14:16:13.535814 29507 net.cpp:141] Setting up inception_3a/relu_1x1
I0403 14:16:13.535840 29507 net.cpp:148] Top shape: 24 64 28 28 (1204224)
I0403 14:16:13.535856 29507 net.cpp:156] Memory required for data: 500958240
I0403 14:16:13.535872 29507 layer_factory.hpp:77] Creating layer inception_3a/3x3_reduce
I0403 14:16:13.535899 29507 net.cpp:91] Creating Layer inception_3a/3x3_reduce
I0403 14:16:13.535919 29507 net.cpp:425] inception_3a/3x3_reduce <- pool2/3x3_s2_pool2/3x3_s2_0_split_1
I0403 14:16:13.535939 29507 net.cpp:399] inception_3a/3x3_reduce -> inception_3a/3x3_reduce
I0403 14:16:13.537719 29507 net.cpp:141] Setting up inception_3a/3x3_reduce
I0403 14:16:13.537751 29507 net.cpp:148] Top shape: 24 96 28 28 (1806336)
I0403 14:16:13.537768 29507 net.cpp:156] Memory required for data: 508183584
I0403 14:16:13.537791 29507 layer_factory.hpp:77] Creating layer inception_3a/relu_3x3_reduce
I0403 14:16:13.537833 29507 net.cpp:91] Creating Layer inception_3a/relu_3x3_reduce
I0403 14:16:13.537854 29507 net.cpp:425] inception_3a/relu_3x3_reduce <- inception_3a/3x3_reduce
I0403 14:16:13.537876 29507 net.cpp:386] inception_3a/relu_3x3_reduce -> inception_3a/3x3_reduce (in-place)
I0403 14:16:13.538071 29507 net.cpp:141] Setting up inception_3a/relu_3x3_reduce
I0403 14:16:13.538099 29507 net.cpp:148] Top shape: 24 96 28 28 (1806336)
I0403 14:16:13.538113 29507 net.cpp:156] Memory required for data: 515408928
I0403 14:16:13.538130 29507 layer_factory.hpp:77] Creating layer inception_3a/3x3
I0403 14:16:13.538153 29507 net.cpp:91] Creating Layer inception_3a/3x3
I0403 14:16:13.538172 29507 net.cpp:425] inception_3a/3x3 <- inception_3a/3x3_reduce
I0403 14:16:13.538197 29507 net.cpp:399] inception_3a/3x3 -> inception_3a/3x3
I0403 14:16:13.539952 29507 net.cpp:141] Setting up inception_3a/3x3
I0403 14:16:13.539984 29507 net.cpp:148] Top shape: 24 128 28 28 (2408448)
I0403 14:16:13.540004 29507 net.cpp:156] Memory required for data: 525042720
I0403 14:16:13.540024 29507 layer_factory.hpp:77] Creating layer inception_3a/relu_3x3
I0403 14:16:13.540045 29507 net.cpp:91] Creating Layer inception_3a/relu_3x3
I0403 14:16:13.540062 29507 net.cpp:425] inception_3a/relu_3x3 <- inception_3a/3x3
I0403 14:16:13.540081 29507 net.cpp:386] inception_3a/relu_3x3 -> inception_3a/3x3 (in-place)
I0403 14:16:13.540380 29507 net.cpp:141] Setting up inception_3a/relu_3x3
I0403 14:16:13.540410 29507 net.cpp:148] Top shape: 24 128 28 28 (2408448)
I0403 14:16:13.540429 29507 net.cpp:156] Memory required for data: 534676512
I0403 14:16:13.540444 29507 layer_factory.hpp:77] Creating layer inception_3a/5x5_reduce
I0403 14:16:13.540467 29507 net.cpp:91] Creating Layer inception_3a/5x5_reduce
I0403 14:16:13.540484 29507 net.cpp:425] inception_3a/5x5_reduce <- pool2/3x3_s2_pool2/3x3_s2_0_split_2
I0403 14:16:13.540511 29507 net.cpp:399] inception_3a/5x5_reduce -> inception_3a/5x5_reduce
I0403 14:16:13.541528 29507 net.cpp:141] Setting up inception_3a/5x5_reduce
I0403 14:16:13.541563 29507 net.cpp:148] Top shape: 24 16 28 28 (301056)
I0403 14:16:13.541580 29507 net.cpp:156] Memory required for data: 535880736
I0403 14:16:13.541600 29507 layer_factory.hpp:77] Creating layer inception_3a/relu_5x5_reduce
I0403 14:16:13.541620 29507 net.cpp:91] Creating Layer inception_3a/relu_5x5_reduce
I0403 14:16:13.541636 29507 net.cpp:425] inception_3a/relu_5x5_reduce <- inception_3a/5x5_reduce
I0403 14:16:13.541654 29507 net.cpp:386] inception_3a/relu_5x5_reduce -> inception_3a/5x5_reduce (in-place)
I0403 14:16:13.541970 29507 net.cpp:141] Setting up inception_3a/relu_5x5_reduce
I0403 14:16:13.541998 29507 net.cpp:148] Top shape: 24 16 28 28 (301056)
I0403 14:16:13.542016 29507 net.cpp:156] Memory required for data: 537084960
I0403 14:16:13.542031 29507 layer_factory.hpp:77] Creating layer inception_3a/5x5
I0403 14:16:13.542054 29507 net.cpp:91] Creating Layer inception_3a/5x5
I0403 14:16:13.542073 29507 net.cpp:425] inception_3a/5x5 <- inception_3a/5x5_reduce
I0403 14:16:13.542098 29507 net.cpp:399] inception_3a/5x5 -> inception_3a/5x5
I0403 14:16:13.543169 29507 net.cpp:141] Setting up inception_3a/5x5
I0403 14:16:13.543198 29507 net.cpp:148] Top shape: 24 32 28 28 (602112)
I0403 14:16:13.543215 29507 net.cpp:156] Memory required for data: 539493408
I0403 14:16:13.543236 29507 layer_factory.hpp:77] Creating layer inception_3a/relu_5x5
I0403 14:16:13.543257 29507 net.cpp:91] Creating Layer inception_3a/relu_5x5
I0403 14:16:13.543275 29507 net.cpp:425] inception_3a/relu_5x5 <- inception_3a/5x5
I0403 14:16:13.543294 29507 net.cpp:386] inception_3a/relu_5x5 -> inception_3a/5x5 (in-place)
I0403 14:16:13.543484 29507 net.cpp:141] Setting up inception_3a/relu_5x5
I0403 14:16:13.543514 29507 net.cpp:148] Top shape: 24 32 28 28 (602112)
I0403 14:16:13.543531 29507 net.cpp:156] Memory required for data: 541901856
I0403 14:16:13.543548 29507 layer_factory.hpp:77] Creating layer inception_3a/pool
I0403 14:16:13.543567 29507 net.cpp:91] Creating Layer inception_3a/pool
I0403 14:16:13.543584 29507 net.cpp:425] inception_3a/pool <- pool2/3x3_s2_pool2/3x3_s2_0_split_3
I0403 14:16:13.543624 29507 net.cpp:399] inception_3a/pool -> inception_3a/pool
I0403 14:16:13.543687 29507 net.cpp:141] Setting up inception_3a/pool
I0403 14:16:13.543714 29507 net.cpp:148] Top shape: 24 192 28 28 (3612672)
I0403 14:16:13.543730 29507 net.cpp:156] Memory required for data: 556352544
I0403 14:16:13.543745 29507 layer_factory.hpp:77] Creating layer inception_3a/pool_proj
I0403 14:16:13.543769 29507 net.cpp:91] Creating Layer inception_3a/pool_proj
I0403 14:16:13.543788 29507 net.cpp:425] inception_3a/pool_proj <- inception_3a/pool
I0403 14:16:13.543812 29507 net.cpp:399] inception_3a/pool_proj -> inception_3a/pool_proj
I0403 14:16:13.544842 29507 net.cpp:141] Setting up inception_3a/pool_proj
I0403 14:16:13.544872 29507 net.cpp:148] Top shape: 24 32 28 28 (602112)
I0403 14:16:13.544888 29507 net.cpp:156] Memory required for data: 558760992
I0403 14:16:13.544914 29507 layer_factory.hpp:77] Creating layer inception_3a/relu_pool_proj
I0403 14:16:13.544937 29507 net.cpp:91] Creating Layer inception_3a/relu_pool_proj
I0403 14:16:13.544955 29507 net.cpp:425] inception_3a/relu_pool_proj <- inception_3a/pool_proj
I0403 14:16:13.544973 29507 net.cpp:386] inception_3a/relu_pool_proj -> inception_3a/pool_proj (in-place)
I0403 14:16:13.545272 29507 net.cpp:141] Setting up inception_3a/relu_pool_proj
I0403 14:16:13.545301 29507 net.cpp:148] Top shape: 24 32 28 28 (602112)
I0403 14:16:13.545326 29507 net.cpp:156] Memory required for data: 561169440
I0403 14:16:13.545343 29507 layer_factory.hpp:77] Creating layer inception_3a/output
I0403 14:16:13.545374 29507 net.cpp:91] Creating Layer inception_3a/output
I0403 14:16:13.545390 29507 net.cpp:425] inception_3a/output <- inception_3a/1x1
I0403 14:16:13.545418 29507 net.cpp:425] inception_3a/output <- inception_3a/3x3
I0403 14:16:13.545436 29507 net.cpp:425] inception_3a/output <- inception_3a/5x5
I0403 14:16:13.545452 29507 net.cpp:425] inception_3a/output <- inception_3a/pool_proj
I0403 14:16:13.545480 29507 net.cpp:399] inception_3a/output -> inception_3a/output
I0403 14:16:13.545531 29507 net.cpp:141] Setting up inception_3a/output
I0403 14:16:13.545554 29507 net.cpp:148] Top shape: 24 256 28 28 (4816896)
I0403 14:16:13.545570 29507 net.cpp:156] Memory required for data: 580437024
I0403 14:16:13.545586 29507 layer_factory.hpp:77] Creating layer inception_3a/output_inception_3a/output_0_split
I0403 14:16:13.545604 29507 net.cpp:91] Creating Layer inception_3a/output_inception_3a/output_0_split
I0403 14:16:13.545620 29507 net.cpp:425] inception_3a/output_inception_3a/output_0_split <- inception_3a/output
I0403 14:16:13.545640 29507 net.cpp:399] inception_3a/output_inception_3a/output_0_split -> inception_3a/output_inception_3a/output_0_split_0
I0403 14:16:13.545661 29507 net.cpp:399] inception_3a/output_inception_3a/output_0_split -> inception_3a/output_inception_3a/output_0_split_1
I0403 14:16:13.545687 29507 net.cpp:399] inception_3a/output_inception_3a/output_0_split -> inception_3a/output_inception_3a/output_0_split_2
I0403 14:16:13.545711 29507 net.cpp:399] inception_3a/output_inception_3a/output_0_split -> inception_3a/output_inception_3a/output_0_split_3
I0403 14:16:13.545795 29507 net.cpp:141] Setting up inception_3a/output_inception_3a/output_0_split
I0403 14:16:13.545819 29507 net.cpp:148] Top shape: 24 256 28 28 (4816896)
I0403 14:16:13.545836 29507 net.cpp:148] Top shape: 24 256 28 28 (4816896)
I0403 14:16:13.545853 29507 net.cpp:148] Top shape: 24 256 28 28 (4816896)
I0403 14:16:13.545869 29507 net.cpp:148] Top shape: 24 256 28 28 (4816896)
I0403 14:16:13.545884 29507 net.cpp:156] Memory required for data: 657507360
I0403 14:16:13.545899 29507 layer_factory.hpp:77] Creating layer inception_3b/1x1
I0403 14:16:13.545922 29507 net.cpp:91] Creating Layer inception_3b/1x1
I0403 14:16:13.545941 29507 net.cpp:425] inception_3b/1x1 <- inception_3a/output_inception_3a/output_0_split_0
I0403 14:16:13.545964 29507 net.cpp:399] inception_3b/1x1 -> inception_3b/1x1
I0403 14:16:13.547134 29507 net.cpp:141] Setting up inception_3b/1x1
I0403 14:16:13.547176 29507 net.cpp:148] Top shape: 24 128 28 28 (2408448)
I0403 14:16:13.547194 29507 net.cpp:156] Memory required for data: 667141152
I0403 14:16:13.547212 29507 layer_factory.hpp:77] Creating layer inception_3b/relu_1x1
I0403 14:16:13.547235 29507 net.cpp:91] Creating Layer inception_3b/relu_1x1
I0403 14:16:13.547253 29507 net.cpp:425] inception_3b/relu_1x1 <- inception_3b/1x1
I0403 14:16:13.547272 29507 net.cpp:386] inception_3b/relu_1x1 -> inception_3b/1x1 (in-place)
I0403 14:16:13.547477 29507 net.cpp:141] Setting up inception_3b/relu_1x1
I0403 14:16:13.547507 29507 net.cpp:148] Top shape: 24 128 28 28 (2408448)
I0403 14:16:13.547523 29507 net.cpp:156] Memory required for data: 676774944
I0403 14:16:13.547539 29507 layer_factory.hpp:77] Creating layer inception_3b/3x3_reduce
I0403 14:16:13.547560 29507 net.cpp:91] Creating Layer inception_3b/3x3_reduce
I0403 14:16:13.547579 29507 net.cpp:425] inception_3b/3x3_reduce <- inception_3a/output_inception_3a/output_0_split_1
I0403 14:16:13.547612 29507 net.cpp:399] inception_3b/3x3_reduce -> inception_3b/3x3_reduce
I0403 14:16:13.548777 29507 net.cpp:141] Setting up inception_3b/3x3_reduce
I0403 14:16:13.548807 29507 net.cpp:148] Top shape: 24 128 28 28 (2408448)
I0403 14:16:13.548823 29507 net.cpp:156] Memory required for data: 686408736
I0403 14:16:13.548843 29507 layer_factory.hpp:77] Creating layer inception_3b/relu_3x3_reduce
I0403 14:16:13.548866 29507 net.cpp:91] Creating Layer inception_3b/relu_3x3_reduce
I0403 14:16:13.548884 29507 net.cpp:425] inception_3b/relu_3x3_reduce <- inception_3b/3x3_reduce
I0403 14:16:13.548903 29507 net.cpp:386] inception_3b/relu_3x3_reduce -> inception_3b/3x3_reduce (in-place)
I0403 14:16:13.549083 29507 net.cpp:141] Setting up inception_3b/relu_3x3_reduce
I0403 14:16:13.549109 29507 net.cpp:148] Top shape: 24 128 28 28 (2408448)
I0403 14:16:13.549124 29507 net.cpp:156] Memory required for data: 696042528
I0403 14:16:13.549140 29507 layer_factory.hpp:77] Creating layer inception_3b/3x3
I0403 14:16:13.549167 29507 net.cpp:91] Creating Layer inception_3b/3x3
I0403 14:16:13.549186 29507 net.cpp:425] inception_3b/3x3 <- inception_3b/3x3_reduce
I0403 14:16:13.549207 29507 net.cpp:399] inception_3b/3x3 -> inception_3b/3x3
I0403 14:16:13.552219 29507 net.cpp:141] Setting up inception_3b/3x3
I0403 14:16:13.552250 29507 net.cpp:148] Top shape: 24 192 28 28 (3612672)
I0403 14:16:13.552270 29507 net.cpp:156] Memory required for data: 710493216
I0403 14:16:13.552289 29507 layer_factory.hpp:77] Creating layer inception_3b/relu_3x3
I0403 14:16:13.552307 29507 net.cpp:91] Creating Layer inception_3b/relu_3x3
I0403 14:16:13.552331 29507 net.cpp:425] inception_3b/relu_3x3 <- inception_3b/3x3
I0403 14:16:13.552350 29507 net.cpp:386] inception_3b/relu_3x3 -> inception_3b/3x3 (in-place)
I0403 14:16:13.552639 29507 net.cpp:141] Setting up inception_3b/relu_3x3
I0403 14:16:13.552667 29507 net.cpp:148] Top shape: 24 192 28 28 (3612672)
I0403 14:16:13.552687 29507 net.cpp:156] Memory required for data: 724943904
I0403 14:16:13.552705 29507 layer_factory.hpp:77] Creating layer inception_3b/5x5_reduce
I0403 14:16:13.552726 29507 net.cpp:91] Creating Layer inception_3b/5x5_reduce
I0403 14:16:13.552744 29507 net.cpp:425] inception_3b/5x5_reduce <- inception_3a/output_inception_3a/output_0_split_2
I0403 14:16:13.552767 29507 net.cpp:399] inception_3b/5x5_reduce -> inception_3b/5x5_reduce
I0403 14:16:13.553807 29507 net.cpp:141] Setting up inception_3b/5x5_reduce
I0403 14:16:13.553835 29507 net.cpp:148] Top shape: 24 32 28 28 (602112)
I0403 14:16:13.553853 29507 net.cpp:156] Memory required for data: 727352352
I0403 14:16:13.553872 29507 layer_factory.hpp:77] Creating layer inception_3b/relu_5x5_reduce
I0403 14:16:13.553899 29507 net.cpp:91] Creating Layer inception_3b/relu_5x5_reduce
I0403 14:16:13.553916 29507 net.cpp:425] inception_3b/relu_5x5_reduce <- inception_3b/5x5_reduce
I0403 14:16:13.553936 29507 net.cpp:386] inception_3b/relu_5x5_reduce -> inception_3b/5x5_reduce (in-place)
I0403 14:16:13.554121 29507 net.cpp:141] Setting up inception_3b/relu_5x5_reduce
I0403 14:16:13.554162 29507 net.cpp:148] Top shape: 24 32 28 28 (602112)
I0403 14:16:13.554178 29507 net.cpp:156] Memory required for data: 729760800
I0403 14:16:13.554195 29507 layer_factory.hpp:77] Creating layer inception_3b/5x5
I0403 14:16:13.554219 29507 net.cpp:91] Creating Layer inception_3b/5x5
I0403 14:16:13.554237 29507 net.cpp:425] inception_3b/5x5 <- inception_3b/5x5_reduce
I0403 14:16:13.554258 29507 net.cpp:399] inception_3b/5x5 -> inception_3b/5x5
I0403 14:16:13.556330 29507 net.cpp:141] Setting up inception_3b/5x5
I0403 14:16:13.556361 29507 net.cpp:148] Top shape: 24 96 28 28 (1806336)
I0403 14:16:13.556378 29507 net.cpp:156] Memory required for data: 736986144
I0403 14:16:13.556397 29507 layer_factory.hpp:77] Creating layer inception_3b/relu_5x5
I0403 14:16:13.556418 29507 net.cpp:91] Creating Layer inception_3b/relu_5x5
I0403 14:16:13.556437 29507 net.cpp:425] inception_3b/relu_5x5 <- inception_3b/5x5
I0403 14:16:13.556455 29507 net.cpp:386] inception_3b/relu_5x5 -> inception_3b/5x5 (in-place)
I0403 14:16:13.556653 29507 net.cpp:141] Setting up inception_3b/relu_5x5
I0403 14:16:13.556680 29507 net.cpp:148] Top shape: 24 96 28 28 (1806336)
I0403 14:16:13.556696 29507 net.cpp:156] Memory required for data: 744211488
I0403 14:16:13.556711 29507 layer_factory.hpp:77] Creating layer inception_3b/pool
I0403 14:16:13.556730 29507 net.cpp:91] Creating Layer inception_3b/pool
I0403 14:16:13.556747 29507 net.cpp:425] inception_3b/pool <- inception_3a/output_inception_3a/output_0_split_3
I0403 14:16:13.556766 29507 net.cpp:399] inception_3b/pool -> inception_3b/pool
I0403 14:16:13.556824 29507 net.cpp:141] Setting up inception_3b/pool
I0403 14:16:13.556848 29507 net.cpp:148] Top shape: 24 256 28 28 (4816896)
I0403 14:16:13.556864 29507 net.cpp:156] Memory required for data: 763479072
I0403 14:16:13.556879 29507 layer_factory.hpp:77] Creating layer inception_3b/pool_proj
I0403 14:16:13.556903 29507 net.cpp:91] Creating Layer inception_3b/pool_proj
I0403 14:16:13.556921 29507 net.cpp:425] inception_3b/pool_proj <- inception_3b/pool
I0403 14:16:13.556942 29507 net.cpp:399] inception_3b/pool_proj -> inception_3b/pool_proj
I0403 14:16:13.558029 29507 net.cpp:141] Setting up inception_3b/pool_proj
I0403 14:16:13.558060 29507 net.cpp:148] Top shape: 24 64 28 28 (1204224)
I0403 14:16:13.558078 29507 net.cpp:156] Memory required for data: 768295968
I0403 14:16:13.558097 29507 layer_factory.hpp:77] Creating layer inception_3b/relu_pool_proj
I0403 14:16:13.558116 29507 net.cpp:91] Creating Layer inception_3b/relu_pool_proj
I0403 14:16:13.558135 29507 net.cpp:425] inception_3b/relu_pool_proj <- inception_3b/pool_proj
I0403 14:16:13.558156 29507 net.cpp:386] inception_3b/relu_pool_proj -> inception_3b/pool_proj (in-place)
I0403 14:16:13.558579 29507 net.cpp:141] Setting up inception_3b/relu_pool_proj
I0403 14:16:13.558609 29507 net.cpp:148] Top shape: 24 64 28 28 (1204224)
I0403 14:16:13.558624 29507 net.cpp:156] Memory required for data: 773112864
I0403 14:16:13.558640 29507 layer_factory.hpp:77] Creating layer inception_3b/output
I0403 14:16:13.558658 29507 net.cpp:91] Creating Layer inception_3b/output
I0403 14:16:13.558676 29507 net.cpp:425] inception_3b/output <- inception_3b/1x1
I0403 14:16:13.558693 29507 net.cpp:425] inception_3b/output <- inception_3b/3x3
I0403 14:16:13.558711 29507 net.cpp:425] inception_3b/output <- inception_3b/5x5
I0403 14:16:13.558727 29507 net.cpp:425] inception_3b/output <- inception_3b/pool_proj
I0403 14:16:13.558745 29507 net.cpp:399] inception_3b/output -> inception_3b/output
I0403 14:16:13.558791 29507 net.cpp:141] Setting up inception_3b/output
I0403 14:16:13.558816 29507 net.cpp:148] Top shape: 24 480 28 28 (9031680)
I0403 14:16:13.558831 29507 net.cpp:156] Memory required for data: 809239584
I0403 14:16:13.558845 29507 layer_factory.hpp:77] Creating layer pool3/3x3_s2
I0403 14:16:13.558866 29507 net.cpp:91] Creating Layer pool3/3x3_s2
I0403 14:16:13.558884 29507 net.cpp:425] pool3/3x3_s2 <- inception_3b/output
I0403 14:16:13.558902 29507 net.cpp:399] pool3/3x3_s2 -> pool3/3x3_s2
I0403 14:16:13.558976 29507 net.cpp:141] Setting up pool3/3x3_s2
I0403 14:16:13.559001 29507 net.cpp:148] Top shape: 24 480 14 14 (2257920)
I0403 14:16:13.559016 29507 net.cpp:156] Memory required for data: 818271264
I0403 14:16:13.559031 29507 layer_factory.hpp:77] Creating layer pool3/3x3_s2_pool3/3x3_s2_0_split
I0403 14:16:13.559047 29507 net.cpp:91] Creating Layer pool3/3x3_s2_pool3/3x3_s2_0_split
I0403 14:16:13.559063 29507 net.cpp:425] pool3/3x3_s2_pool3/3x3_s2_0_split <- pool3/3x3_s2
I0403 14:16:13.559083 29507 net.cpp:399] pool3/3x3_s2_pool3/3x3_s2_0_split -> pool3/3x3_s2_pool3/3x3_s2_0_split_0
I0403 14:16:13.559104 29507 net.cpp:399] pool3/3x3_s2_pool3/3x3_s2_0_split -> pool3/3x3_s2_pool3/3x3_s2_0_split_1
I0403 14:16:13.559125 29507 net.cpp:399] pool3/3x3_s2_pool3/3x3_s2_0_split -> pool3/3x3_s2_pool3/3x3_s2_0_split_2
I0403 14:16:13.559146 29507 net.cpp:399] pool3/3x3_s2_pool3/3x3_s2_0_split -> pool3/3x3_s2_pool3/3x3_s2_0_split_3
I0403 14:16:13.559222 29507 net.cpp:141] Setting up pool3/3x3_s2_pool3/3x3_s2_0_split
I0403 14:16:13.559247 29507 net.cpp:148] Top shape: 24 480 14 14 (2257920)
I0403 14:16:13.559267 29507 net.cpp:148] Top shape: 24 480 14 14 (2257920)
I0403 14:16:13.559283 29507 net.cpp:148] Top shape: 24 480 14 14 (2257920)
I0403 14:16:13.559312 29507 net.cpp:148] Top shape: 24 480 14 14 (2257920)
I0403 14:16:13.559335 29507 net.cpp:156] Memory required for data: 854397984
I0403 14:16:13.559363 29507 layer_factory.hpp:77] Creating layer inception_4a/1x1
I0403 14:16:13.559387 29507 net.cpp:91] Creating Layer inception_4a/1x1
I0403 14:16:13.559407 29507 net.cpp:425] inception_4a/1x1 <- pool3/3x3_s2_pool3/3x3_s2_0_split_0
I0403 14:16:13.559430 29507 net.cpp:399] inception_4a/1x1 -> inception_4a/1x1
I0403 14:16:13.561059 29507 net.cpp:141] Setting up inception_4a/1x1
I0403 14:16:13.561089 29507 net.cpp:148] Top shape: 24 192 14 14 (903168)
I0403 14:16:13.561105 29507 net.cpp:156] Memory required for data: 858010656
I0403 14:16:13.561125 29507 layer_factory.hpp:77] Creating layer inception_4a/relu_1x1
I0403 14:16:13.561146 29507 net.cpp:91] Creating Layer inception_4a/relu_1x1
I0403 14:16:13.561163 29507 net.cpp:425] inception_4a/relu_1x1 <- inception_4a/1x1
I0403 14:16:13.561184 29507 net.cpp:386] inception_4a/relu_1x1 -> inception_4a/1x1 (in-place)
I0403 14:16:13.561373 29507 net.cpp:141] Setting up inception_4a/relu_1x1
I0403 14:16:13.561400 29507 net.cpp:148] Top shape: 24 192 14 14 (903168)
I0403 14:16:13.561416 29507 net.cpp:156] Memory required for data: 861623328
I0403 14:16:13.561432 29507 layer_factory.hpp:77] Creating layer inception_4a/3x3_reduce
I0403 14:16:13.561455 29507 net.cpp:91] Creating Layer inception_4a/3x3_reduce
I0403 14:16:13.561472 29507 net.cpp:425] inception_4a/3x3_reduce <- pool3/3x3_s2_pool3/3x3_s2_0_split_1
I0403 14:16:13.561494 29507 net.cpp:399] inception_4a/3x3_reduce -> inception_4a/3x3_reduce
I0403 14:16:13.562810 29507 net.cpp:141] Setting up inception_4a/3x3_reduce
I0403 14:16:13.562839 29507 net.cpp:148] Top shape: 24 96 14 14 (451584)
I0403 14:16:13.562855 29507 net.cpp:156] Memory required for data: 863429664
I0403 14:16:13.562881 29507 layer_factory.hpp:77] Creating layer inception_4a/relu_3x3_reduce
I0403 14:16:13.562903 29507 net.cpp:91] Creating Layer inception_4a/relu_3x3_reduce
I0403 14:16:13.562922 29507 net.cpp:425] inception_4a/relu_3x3_reduce <- inception_4a/3x3_reduce
I0403 14:16:13.562942 29507 net.cpp:386] inception_4a/relu_3x3_reduce -> inception_4a/3x3_reduce (in-place)
I0403 14:16:13.563128 29507 net.cpp:141] Setting up inception_4a/relu_3x3_reduce
I0403 14:16:13.563155 29507 net.cpp:148] Top shape: 24 96 14 14 (451584)
I0403 14:16:13.563171 29507 net.cpp:156] Memory required for data: 865236000
I0403 14:16:13.563187 29507 layer_factory.hpp:77] Creating layer inception_4a/3x3
I0403 14:16:13.563211 29507 net.cpp:91] Creating Layer inception_4a/3x3
I0403 14:16:13.563230 29507 net.cpp:425] inception_4a/3x3 <- inception_4a/3x3_reduce
I0403 14:16:13.563252 29507 net.cpp:399] inception_4a/3x3 -> inception_4a/3x3
I0403 14:16:13.566026 29507 net.cpp:141] Setting up inception_4a/3x3
I0403 14:16:13.566057 29507 net.cpp:148] Top shape: 24 208 14 14 (978432)
I0403 14:16:13.566074 29507 net.cpp:156] Memory required for data: 869149728
I0403 14:16:13.566093 29507 layer_factory.hpp:77] Creating layer inception_4a/relu_3x3
I0403 14:16:13.566115 29507 net.cpp:91] Creating Layer inception_4a/relu_3x3
I0403 14:16:13.566134 29507 net.cpp:425] inception_4a/relu_3x3 <- inception_4a/3x3
I0403 14:16:13.566154 29507 net.cpp:386] inception_4a/relu_3x3 -> inception_4a/3x3 (in-place)
I0403 14:16:13.566447 29507 net.cpp:141] Setting up inception_4a/relu_3x3
I0403 14:16:13.566474 29507 net.cpp:148] Top shape: 24 208 14 14 (978432)
I0403 14:16:13.566490 29507 net.cpp:156] Memory required for data: 873063456
I0403 14:16:13.566506 29507 layer_factory.hpp:77] Creating layer inception_4a/5x5_reduce
I0403 14:16:13.566530 29507 net.cpp:91] Creating Layer inception_4a/5x5_reduce
I0403 14:16:13.566550 29507 net.cpp:425] inception_4a/5x5_reduce <- pool3/3x3_s2_pool3/3x3_s2_0_split_2
I0403 14:16:13.566576 29507 net.cpp:399] inception_4a/5x5_reduce -> inception_4a/5x5_reduce
I0403 14:16:13.567651 29507 net.cpp:141] Setting up inception_4a/5x5_reduce
I0403 14:16:13.567680 29507 net.cpp:148] Top shape: 24 16 14 14 (75264)
I0403 14:16:13.567698 29507 net.cpp:156] Memory required for data: 873364512
I0403 14:16:13.567718 29507 layer_factory.hpp:77] Creating layer inception_4a/relu_5x5_reduce
I0403 14:16:13.567739 29507 net.cpp:91] Creating Layer inception_4a/relu_5x5_reduce
I0403 14:16:13.567759 29507 net.cpp:425] inception_4a/relu_5x5_reduce <- inception_4a/5x5_reduce
I0403 14:16:13.567776 29507 net.cpp:386] inception_4a/relu_5x5_reduce -> inception_4a/5x5_reduce (in-place)
I0403 14:16:13.567961 29507 net.cpp:141] Setting up inception_4a/relu_5x5_reduce
I0403 14:16:13.567989 29507 net.cpp:148] Top shape: 24 16 14 14 (75264)
I0403 14:16:13.568006 29507 net.cpp:156] Memory required for data: 873665568
I0403 14:16:13.568022 29507 layer_factory.hpp:77] Creating layer inception_4a/5x5
I0403 14:16:13.568045 29507 net.cpp:91] Creating Layer inception_4a/5x5
I0403 14:16:13.568063 29507 net.cpp:425] inception_4a/5x5 <- inception_4a/5x5_reduce
I0403 14:16:13.568083 29507 net.cpp:399] inception_4a/5x5 -> inception_4a/5x5
I0403 14:16:13.569193 29507 net.cpp:141] Setting up inception_4a/5x5
I0403 14:16:13.569226 29507 net.cpp:148] Top shape: 24 48 14 14 (225792)
I0403 14:16:13.569243 29507 net.cpp:156] Memory required for data: 874568736
I0403 14:16:13.569265 29507 layer_factory.hpp:77] Creating layer inception_4a/relu_5x5
I0403 14:16:13.569284 29507 net.cpp:91] Creating Layer inception_4a/relu_5x5
I0403 14:16:13.569303 29507 net.cpp:425] inception_4a/relu_5x5 <- inception_4a/5x5
I0403 14:16:13.569324 29507 net.cpp:386] inception_4a/relu_5x5 -> inception_4a/5x5 (in-place)
I0403 14:16:13.569510 29507 net.cpp:141] Setting up inception_4a/relu_5x5
I0403 14:16:13.569536 29507 net.cpp:148] Top shape: 24 48 14 14 (225792)
I0403 14:16:13.569552 29507 net.cpp:156] Memory required for data: 875471904
I0403 14:16:13.569568 29507 layer_factory.hpp:77] Creating layer inception_4a/pool
I0403 14:16:13.569587 29507 net.cpp:91] Creating Layer inception_4a/pool
I0403 14:16:13.569603 29507 net.cpp:425] inception_4a/pool <- pool3/3x3_s2_pool3/3x3_s2_0_split_3
I0403 14:16:13.569624 29507 net.cpp:399] inception_4a/pool -> inception_4a/pool
I0403 14:16:13.569687 29507 net.cpp:141] Setting up inception_4a/pool
I0403 14:16:13.569713 29507 net.cpp:148] Top shape: 24 480 14 14 (2257920)
I0403 14:16:13.569728 29507 net.cpp:156] Memory required for data: 884503584
I0403 14:16:13.569744 29507 layer_factory.hpp:77] Creating layer inception_4a/pool_proj
I0403 14:16:13.569769 29507 net.cpp:91] Creating Layer inception_4a/pool_proj
I0403 14:16:13.569788 29507 net.cpp:425] inception_4a/pool_proj <- inception_4a/pool
I0403 14:16:13.569810 29507 net.cpp:399] inception_4a/pool_proj -> inception_4a/pool_proj
I0403 14:16:13.571050 29507 net.cpp:141] Setting up inception_4a/pool_proj
I0403 14:16:13.571080 29507 net.cpp:148] Top shape: 24 64 14 14 (301056)
I0403 14:16:13.571115 29507 net.cpp:156] Memory required for data: 885707808
I0403 14:16:13.571135 29507 layer_factory.hpp:77] Creating layer inception_4a/relu_pool_proj
I0403 14:16:13.571156 29507 net.cpp:91] Creating Layer inception_4a/relu_pool_proj
I0403 14:16:13.571173 29507 net.cpp:425] inception_4a/relu_pool_proj <- inception_4a/pool_proj
I0403 14:16:13.571195 29507 net.cpp:386] inception_4a/relu_pool_proj -> inception_4a/pool_proj (in-place)
I0403 14:16:13.571511 29507 net.cpp:141] Setting up inception_4a/relu_pool_proj
I0403 14:16:13.571539 29507 net.cpp:148] Top shape: 24 64 14 14 (301056)
I0403 14:16:13.571555 29507 net.cpp:156] Memory required for data: 886912032
I0403 14:16:13.571573 29507 layer_factory.hpp:77] Creating layer inception_4a/output
I0403 14:16:13.571604 29507 net.cpp:91] Creating Layer inception_4a/output
I0403 14:16:13.571621 29507 net.cpp:425] inception_4a/output <- inception_4a/1x1
I0403 14:16:13.571641 29507 net.cpp:425] inception_4a/output <- inception_4a/3x3
I0403 14:16:13.571657 29507 net.cpp:425] inception_4a/output <- inception_4a/5x5
I0403 14:16:13.571674 29507 net.cpp:425] inception_4a/output <- inception_4a/pool_proj
I0403 14:16:13.571694 29507 net.cpp:399] inception_4a/output -> inception_4a/output
I0403 14:16:13.571741 29507 net.cpp:141] Setting up inception_4a/output
I0403 14:16:13.571769 29507 net.cpp:148] Top shape: 24 512 14 14 (2408448)
I0403 14:16:13.571786 29507 net.cpp:156] Memory required for data: 896545824
I0403 14:16:13.571802 29507 layer_factory.hpp:77] Creating layer inception_4a/output_inception_4a/output_0_split
I0403 14:16:13.571820 29507 net.cpp:91] Creating Layer inception_4a/output_inception_4a/output_0_split
I0403 14:16:13.571837 29507 net.cpp:425] inception_4a/output_inception_4a/output_0_split <- inception_4a/output
I0403 14:16:13.571856 29507 net.cpp:399] inception_4a/output_inception_4a/output_0_split -> inception_4a/output_inception_4a/output_0_split_0
I0403 14:16:13.571877 29507 net.cpp:399] inception_4a/output_inception_4a/output_0_split -> inception_4a/output_inception_4a/output_0_split_1
I0403 14:16:13.571902 29507 net.cpp:399] inception_4a/output_inception_4a/output_0_split -> inception_4a/output_inception_4a/output_0_split_2
I0403 14:16:13.571925 29507 net.cpp:399] inception_4a/output_inception_4a/output_0_split -> inception_4a/output_inception_4a/output_0_split_3
I0403 14:16:13.571948 29507 net.cpp:399] inception_4a/output_inception_4a/output_0_split -> inception_4a/output_inception_4a/output_0_split_4
I0403 14:16:13.572041 29507 net.cpp:141] Setting up inception_4a/output_inception_4a/output_0_split
I0403 14:16:13.572067 29507 net.cpp:148] Top shape: 24 512 14 14 (2408448)
I0403 14:16:13.572084 29507 net.cpp:148] Top shape: 24 512 14 14 (2408448)
I0403 14:16:13.572103 29507 net.cpp:148] Top shape: 24 512 14 14 (2408448)
I0403 14:16:13.572118 29507 net.cpp:148] Top shape: 24 512 14 14 (2408448)
I0403 14:16:13.572134 29507 net.cpp:148] Top shape: 24 512 14 14 (2408448)
I0403 14:16:13.572149 29507 net.cpp:156] Memory required for data: 944714784
I0403 14:16:13.572165 29507 layer_factory.hpp:77] Creating layer loss1/ave_pool
I0403 14:16:13.572185 29507 net.cpp:91] Creating Layer loss1/ave_pool
I0403 14:16:13.572204 29507 net.cpp:425] loss1/ave_pool <- inception_4a/output_inception_4a/output_0_split_0
I0403 14:16:13.572222 29507 net.cpp:399] loss1/ave_pool -> loss1/ave_pool
I0403 14:16:13.572440 29507 net.cpp:141] Setting up loss1/ave_pool
I0403 14:16:13.572466 29507 net.cpp:148] Top shape: 24 512 4 4 (196608)
I0403 14:16:13.572482 29507 net.cpp:156] Memory required for data: 945501216
I0403 14:16:13.572499 29507 layer_factory.hpp:77] Creating layer loss1/conv
I0403 14:16:13.572522 29507 net.cpp:91] Creating Layer loss1/conv
I0403 14:16:13.572541 29507 net.cpp:425] loss1/conv <- loss1/ave_pool
I0403 14:16:13.572563 29507 net.cpp:399] loss1/conv -> loss1/conv
I0403 14:16:13.574018 29507 net.cpp:141] Setting up loss1/conv
I0403 14:16:13.574048 29507 net.cpp:148] Top shape: 24 128 4 4 (49152)
I0403 14:16:13.574064 29507 net.cpp:156] Memory required for data: 945697824
I0403 14:16:13.574101 29507 layer_factory.hpp:77] Creating layer loss1/relu_conv
I0403 14:16:13.574123 29507 net.cpp:91] Creating Layer loss1/relu_conv
I0403 14:16:13.574143 29507 net.cpp:425] loss1/relu_conv <- loss1/conv
I0403 14:16:13.574162 29507 net.cpp:386] loss1/relu_conv -> loss1/conv (in-place)
I0403 14:16:13.574470 29507 net.cpp:141] Setting up loss1/relu_conv
I0403 14:16:13.574498 29507 net.cpp:148] Top shape: 24 128 4 4 (49152)
I0403 14:16:13.574515 29507 net.cpp:156] Memory required for data: 945894432
I0403 14:16:13.574532 29507 layer_factory.hpp:77] Creating layer loss1/fc
I0403 14:16:13.574559 29507 net.cpp:91] Creating Layer loss1/fc
I0403 14:16:13.574592 29507 net.cpp:425] loss1/fc <- loss1/conv
I0403 14:16:13.574612 29507 net.cpp:399] loss1/fc -> loss1/fc
I0403 14:16:13.592571 29507 net.cpp:141] Setting up loss1/fc
I0403 14:16:13.592624 29507 net.cpp:148] Top shape: 24 1024 (24576)
I0403 14:16:13.592641 29507 net.cpp:156] Memory required for data: 945992736
I0403 14:16:13.592661 29507 layer_factory.hpp:77] Creating layer loss1/relu_fc
I0403 14:16:13.592682 29507 net.cpp:91] Creating Layer loss1/relu_fc
I0403 14:16:13.592700 29507 net.cpp:425] loss1/relu_fc <- loss1/fc
I0403 14:16:13.592720 29507 net.cpp:386] loss1/relu_fc -> loss1/fc (in-place)
I0403 14:16:13.592932 29507 net.cpp:141] Setting up loss1/relu_fc
I0403 14:16:13.592958 29507 net.cpp:148] Top shape: 24 1024 (24576)
I0403 14:16:13.592973 29507 net.cpp:156] Memory required for data: 946091040
I0403 14:16:13.592989 29507 layer_factory.hpp:77] Creating layer loss1/drop_fc
I0403 14:16:13.593019 29507 net.cpp:91] Creating Layer loss1/drop_fc
I0403 14:16:13.593037 29507 net.cpp:425] loss1/drop_fc <- loss1/fc
I0403 14:16:13.593055 29507 net.cpp:386] loss1/drop_fc -> loss1/fc (in-place)
I0403 14:16:13.593107 29507 net.cpp:141] Setting up loss1/drop_fc
I0403 14:16:13.593135 29507 net.cpp:148] Top shape: 24 1024 (24576)
I0403 14:16:13.593152 29507 net.cpp:156] Memory required for data: 946189344
I0403 14:16:13.593168 29507 layer_factory.hpp:77] Creating layer loss1/classifier_plantvillage
I0403 14:16:13.593189 29507 net.cpp:91] Creating Layer loss1/classifier_plantvillage
I0403 14:16:13.593204 29507 net.cpp:425] loss1/classifier_plantvillage <- loss1/fc
I0403 14:16:13.593226 29507 net.cpp:399] loss1/classifier_plantvillage -> loss1/classifier_plantvillage
I0403 14:16:13.594188 29507 net.cpp:141] Setting up loss1/classifier_plantvillage
I0403 14:16:13.594218 29507 net.cpp:148] Top shape: 24 38 (912)
I0403 14:16:13.594233 29507 net.cpp:156] Memory required for data: 946192992
I0403 14:16:13.594254 29507 layer_factory.hpp:77] Creating layer loss1/classifier_plantvillage_loss1/classifier_plantvillage_0_split
I0403 14:16:13.594272 29507 net.cpp:91] Creating Layer loss1/classifier_plantvillage_loss1/classifier_plantvillage_0_split
I0403 14:16:13.594293 29507 net.cpp:425] loss1/classifier_plantvillage_loss1/classifier_plantvillage_0_split <- loss1/classifier_plantvillage
I0403 14:16:13.594311 29507 net.cpp:399] loss1/classifier_plantvillage_loss1/classifier_plantvillage_0_split -> loss1/classifier_plantvillage_loss1/classifier_plantvillage_0_split_0
I0403 14:16:13.594338 29507 net.cpp:399] loss1/classifier_plantvillage_loss1/classifier_plantvillage_0_split -> loss1/classifier_plantvillage_loss1/classifier_plantvillage_0_split_1
I0403 14:16:13.594360 29507 net.cpp:399] loss1/classifier_plantvillage_loss1/classifier_plantvillage_0_split -> loss1/classifier_plantvillage_loss1/classifier_plantvillage_0_split_2
I0403 14:16:13.594427 29507 net.cpp:141] Setting up loss1/classifier_plantvillage_loss1/classifier_plantvillage_0_split
I0403 14:16:13.594455 29507 net.cpp:148] Top shape: 24 38 (912)
I0403 14:16:13.594471 29507 net.cpp:148] Top shape: 24 38 (912)
I0403 14:16:13.594487 29507 net.cpp:148] Top shape: 24 38 (912)
I0403 14:16:13.594501 29507 net.cpp:156] Memory required for data: 946203936
I0403 14:16:13.594516 29507 layer_factory.hpp:77] Creating layer inception_4b/1x1
I0403 14:16:13.594538 29507 net.cpp:91] Creating Layer inception_4b/1x1
I0403 14:16:13.594581 29507 net.cpp:425] inception_4b/1x1 <- inception_4a/output_inception_4a/output_0_split_1
I0403 14:16:13.594602 29507 net.cpp:399] inception_4b/1x1 -> inception_4b/1x1
I0403 14:16:13.596273 29507 net.cpp:141] Setting up inception_4b/1x1
I0403 14:16:13.596304 29507 net.cpp:148] Top shape: 24 160 14 14 (752640)
I0403 14:16:13.596325 29507 net.cpp:156] Memory required for data: 949214496
I0403 14:16:13.596345 29507 layer_factory.hpp:77] Creating layer inception_4b/relu_1x1
I0403 14:16:13.596367 29507 net.cpp:91] Creating Layer inception_4b/relu_1x1
I0403 14:16:13.596386 29507 net.cpp:425] inception_4b/relu_1x1 <- inception_4b/1x1
I0403 14:16:13.596405 29507 net.cpp:386] inception_4b/relu_1x1 -> inception_4b/1x1 (in-place)
I0403 14:16:13.596586 29507 net.cpp:141] Setting up inception_4b/relu_1x1
I0403 14:16:13.596613 29507 net.cpp:148] Top shape: 24 160 14 14 (752640)
I0403 14:16:13.596629 29507 net.cpp:156] Memory required for data: 952225056
I0403 14:16:13.596645 29507 layer_factory.hpp:77] Creating layer inception_4b/3x3_reduce
I0403 14:16:13.596668 29507 net.cpp:91] Creating Layer inception_4b/3x3_reduce
I0403 14:16:13.596685 29507 net.cpp:425] inception_4b/3x3_reduce <- inception_4a/output_inception_4a/output_0_split_2
I0403 14:16:13.596704 29507 net.cpp:399] inception_4b/3x3_reduce -> inception_4b/3x3_reduce
I0403 14:16:13.598083 29507 net.cpp:141] Setting up inception_4b/3x3_reduce
I0403 14:16:13.598112 29507 net.cpp:148] Top shape: 24 112 14 14 (526848)
I0403 14:16:13.598127 29507 net.cpp:156] Memory required for data: 954332448
I0403 14:16:13.598150 29507 layer_factory.hpp:77] Creating layer inception_4b/relu_3x3_reduce
I0403 14:16:13.598170 29507 net.cpp:91] Creating Layer inception_4b/relu_3x3_reduce
I0403 14:16:13.598187 29507 net.cpp:425] inception_4b/relu_3x3_reduce <- inception_4b/3x3_reduce
I0403 14:16:13.598206 29507 net.cpp:386] inception_4b/relu_3x3_reduce -> inception_4b/3x3_reduce (in-place)
I0403 14:16:13.598515 29507 net.cpp:141] Setting up inception_4b/relu_3x3_reduce
I0403 14:16:13.598542 29507 net.cpp:148] Top shape: 24 112 14 14 (526848)
I0403 14:16:13.598558 29507 net.cpp:156] Memory required for data: 956439840
I0403 14:16:13.598574 29507 layer_factory.hpp:77] Creating layer inception_4b/3x3
I0403 14:16:13.598613 29507 net.cpp:91] Creating Layer inception_4b/3x3
I0403 14:16:13.598631 29507 net.cpp:425] inception_4b/3x3 <- inception_4b/3x3_reduce
I0403 14:16:13.598650 29507 net.cpp:399] inception_4b/3x3 -> inception_4b/3x3
I0403 14:16:13.601663 29507 net.cpp:141] Setting up inception_4b/3x3
I0403 14:16:13.601696 29507 net.cpp:148] Top shape: 24 224 14 14 (1053696)
I0403 14:16:13.601712 29507 net.cpp:156] Memory required for data: 960654624
I0403 14:16:13.601732 29507 layer_factory.hpp:77] Creating layer inception_4b/relu_3x3
I0403 14:16:13.601750 29507 net.cpp:91] Creating Layer inception_4b/relu_3x3
I0403 14:16:13.601770 29507 net.cpp:425] inception_4b/relu_3x3 <- inception_4b/3x3
I0403 14:16:13.601790 29507 net.cpp:386] inception_4b/relu_3x3 -> inception_4b/3x3 (in-place)
I0403 14:16:13.601974 29507 net.cpp:141] Setting up inception_4b/relu_3x3
I0403 14:16:13.602000 29507 net.cpp:148] Top shape: 24 224 14 14 (1053696)
I0403 14:16:13.602017 29507 net.cpp:156] Memory required for data: 964869408
I0403 14:16:13.602031 29507 layer_factory.hpp:77] Creating layer inception_4b/5x5_reduce
I0403 14:16:13.602053 29507 net.cpp:91] Creating Layer inception_4b/5x5_reduce
I0403 14:16:13.602072 29507 net.cpp:425] inception_4b/5x5_reduce <- inception_4a/output_inception_4a/output_0_split_3
I0403 14:16:13.602097 29507 net.cpp:399] inception_4b/5x5_reduce -> inception_4b/5x5_reduce
I0403 14:16:13.603217 29507 net.cpp:141] Setting up inception_4b/5x5_reduce
I0403 14:16:13.603246 29507 net.cpp:148] Top shape: 24 24 14 14 (112896)
I0403 14:16:13.603262 29507 net.cpp:156] Memory required for data: 965320992
I0403 14:16:13.603281 29507 layer_factory.hpp:77] Creating layer inception_4b/relu_5x5_reduce
I0403 14:16:13.603302 29507 net.cpp:91] Creating Layer inception_4b/relu_5x5_reduce
I0403 14:16:13.603339 29507 net.cpp:425] inception_4b/relu_5x5_reduce <- inception_4b/5x5_reduce
I0403 14:16:13.603359 29507 net.cpp:386] inception_4b/relu_5x5_reduce -> inception_4b/5x5_reduce (in-place)
I0403 14:16:13.603544 29507 net.cpp:141] Setting up inception_4b/relu_5x5_reduce
I0403 14:16:13.603570 29507 net.cpp:148] Top shape: 24 24 14 14 (112896)
I0403 14:16:13.603585 29507 net.cpp:156] Memory required for data: 965772576
I0403 14:16:13.603600 29507 layer_factory.hpp:77] Creating layer inception_4b/5x5
I0403 14:16:13.603622 29507 net.cpp:91] Creating Layer inception_4b/5x5
I0403 14:16:13.603641 29507 net.cpp:425] inception_4b/5x5 <- inception_4b/5x5_reduce
I0403 14:16:13.603662 29507 net.cpp:399] inception_4b/5x5 -> inception_4b/5x5
I0403 14:16:13.604894 29507 net.cpp:141] Setting up inception_4b/5x5
I0403 14:16:13.604923 29507 net.cpp:148] Top shape: 24 64 14 14 (301056)
I0403 14:16:13.604939 29507 net.cpp:156] Memory required for data: 966976800
I0403 14:16:13.604957 29507 layer_factory.hpp:77] Creating layer inception_4b/relu_5x5
I0403 14:16:13.604979 29507 net.cpp:91] Creating Layer inception_4b/relu_5x5
I0403 14:16:13.604998 29507 net.cpp:425] inception_4b/relu_5x5 <- inception_4b/5x5
I0403 14:16:13.605016 29507 net.cpp:386] inception_4b/relu_5x5 -> inception_4b/5x5 (in-place)
I0403 14:16:13.605317 29507 net.cpp:141] Setting up inception_4b/relu_5x5
I0403 14:16:13.605345 29507 net.cpp:148] Top shape: 24 64 14 14 (301056)
I0403 14:16:13.605361 29507 net.cpp:156] Memory required for data: 968181024
I0403 14:16:13.605377 29507 layer_factory.hpp:77] Creating layer inception_4b/pool
I0403 14:16:13.605398 29507 net.cpp:91] Creating Layer inception_4b/pool
I0403 14:16:13.605417 29507 net.cpp:425] inception_4b/pool <- inception_4a/output_inception_4a/output_0_split_4
I0403 14:16:13.605437 29507 net.cpp:399] inception_4b/pool -> inception_4b/pool
I0403 14:16:13.605509 29507 net.cpp:141] Setting up inception_4b/pool
I0403 14:16:13.605533 29507 net.cpp:148] Top shape: 24 512 14 14 (2408448)
I0403 14:16:13.605550 29507 net.cpp:156] Memory required for data: 977814816
I0403 14:16:13.605564 29507 layer_factory.hpp:77] Creating layer inception_4b/pool_proj
I0403 14:16:13.605598 29507 net.cpp:91] Creating Layer inception_4b/pool_proj
I0403 14:16:13.605617 29507 net.cpp:425] inception_4b/pool_proj <- inception_4b/pool
I0403 14:16:13.605640 29507 net.cpp:399] inception_4b/pool_proj -> inception_4b/pool_proj
I0403 14:16:13.606842 29507 net.cpp:141] Setting up inception_4b/pool_proj
I0403 14:16:13.606869 29507 net.cpp:148] Top shape: 24 64 14 14 (301056)
I0403 14:16:13.606885 29507 net.cpp:156] Memory required for data: 979019040
I0403 14:16:13.606904 29507 layer_factory.hpp:77] Creating layer inception_4b/relu_pool_proj
I0403 14:16:13.606927 29507 net.cpp:91] Creating Layer inception_4b/relu_pool_proj
I0403 14:16:13.606945 29507 net.cpp:425] inception_4b/relu_pool_proj <- inception_4b/pool_proj
I0403 14:16:13.606964 29507 net.cpp:386] inception_4b/relu_pool_proj -> inception_4b/pool_proj (in-place)
I0403 14:16:13.607146 29507 net.cpp:141] Setting up inception_4b/relu_pool_proj
I0403 14:16:13.607173 29507 net.cpp:148] Top shape: 24 64 14 14 (301056)
I0403 14:16:13.607189 29507 net.cpp:156] Memory required for data: 980223264
I0403 14:16:13.607205 29507 layer_factory.hpp:77] Creating layer inception_4b/output
I0403 14:16:13.607223 29507 net.cpp:91] Creating Layer inception_4b/output
I0403 14:16:13.607239 29507 net.cpp:425] inception_4b/output <- inception_4b/1x1
I0403 14:16:13.607257 29507 net.cpp:425] inception_4b/output <- inception_4b/3x3
I0403 14:16:13.607273 29507 net.cpp:425] inception_4b/output <- inception_4b/5x5
I0403 14:16:13.607302 29507 net.cpp:425] inception_4b/output <- inception_4b/pool_proj
I0403 14:16:13.607331 29507 net.cpp:399] inception_4b/output -> inception_4b/output
I0403 14:16:13.607380 29507 net.cpp:141] Setting up inception_4b/output
I0403 14:16:13.607405 29507 net.cpp:148] Top shape: 24 512 14 14 (2408448)
I0403 14:16:13.607421 29507 net.cpp:156] Memory required for data: 989857056
I0403 14:16:13.607453 29507 layer_factory.hpp:77] Creating layer inception_4b/output_inception_4b/output_0_split
I0403 14:16:13.607475 29507 net.cpp:91] Creating Layer inception_4b/output_inception_4b/output_0_split
I0403 14:16:13.607491 29507 net.cpp:425] inception_4b/output_inception_4b/output_0_split <- inception_4b/output
I0403 14:16:13.607511 29507 net.cpp:399] inception_4b/output_inception_4b/output_0_split -> inception_4b/output_inception_4b/output_0_split_0
I0403 14:16:13.607532 29507 net.cpp:399] inception_4b/output_inception_4b/output_0_split -> inception_4b/output_inception_4b/output_0_split_1
I0403 14:16:13.607555 29507 net.cpp:399] inception_4b/output_inception_4b/output_0_split -> inception_4b/output_inception_4b/output_0_split_2
I0403 14:16:13.607590 29507 net.cpp:399] inception_4b/output_inception_4b/output_0_split -> inception_4b/output_inception_4b/output_0_split_3
I0403 14:16:13.607673 29507 net.cpp:141] Setting up inception_4b/output_inception_4b/output_0_split
I0403 14:16:13.607697 29507 net.cpp:148] Top shape: 24 512 14 14 (2408448)
I0403 14:16:13.607714 29507 net.cpp:148] Top shape: 24 512 14 14 (2408448)
I0403 14:16:13.607730 29507 net.cpp:148] Top shape: 24 512 14 14 (2408448)
I0403 14:16:13.607746 29507 net.cpp:148] Top shape: 24 512 14 14 (2408448)
I0403 14:16:13.607761 29507 net.cpp:156] Memory required for data: 1028392224
I0403 14:16:13.607775 29507 layer_factory.hpp:77] Creating layer inception_4c/1x1
I0403 14:16:13.607797 29507 net.cpp:91] Creating Layer inception_4c/1x1
I0403 14:16:13.607815 29507 net.cpp:425] inception_4c/1x1 <- inception_4b/output_inception_4b/output_0_split_0
I0403 14:16:13.607836 29507 net.cpp:399] inception_4c/1x1 -> inception_4c/1x1
I0403 14:16:13.609266 29507 net.cpp:141] Setting up inception_4c/1x1
I0403 14:16:13.609297 29507 net.cpp:148] Top shape: 24 128 14 14 (602112)
I0403 14:16:13.609321 29507 net.cpp:156] Memory required for data: 1030800672
I0403 14:16:13.609357 29507 layer_factory.hpp:77] Creating layer inception_4c/relu_1x1
I0403 14:16:13.609388 29507 net.cpp:91] Creating Layer inception_4c/relu_1x1
I0403 14:16:13.609405 29507 net.cpp:425] inception_4c/relu_1x1 <- inception_4c/1x1
I0403 14:16:13.609426 29507 net.cpp:386] inception_4c/relu_1x1 -> inception_4c/1x1 (in-place)
I0403 14:16:13.609617 29507 net.cpp:141] Setting up inception_4c/relu_1x1
I0403 14:16:13.609644 29507 net.cpp:148] Top shape: 24 128 14 14 (602112)
I0403 14:16:13.609670 29507 net.cpp:156] Memory required for data: 1033209120
I0403 14:16:13.609685 29507 layer_factory.hpp:77] Creating layer inception_4c/3x3_reduce
I0403 14:16:13.609709 29507 net.cpp:91] Creating Layer inception_4c/3x3_reduce
I0403 14:16:13.609727 29507 net.cpp:425] inception_4c/3x3_reduce <- inception_4b/output_inception_4b/output_0_split_1
I0403 14:16:13.609748 29507 net.cpp:399] inception_4c/3x3_reduce -> inception_4c/3x3_reduce
I0403 14:16:13.611784 29507 net.cpp:141] Setting up inception_4c/3x3_reduce
I0403 14:16:13.611815 29507 net.cpp:148] Top shape: 24 128 14 14 (602112)
I0403 14:16:13.611832 29507 net.cpp:156] Memory required for data: 1035617568
I0403 14:16:13.611852 29507 layer_factory.hpp:77] Creating layer inception_4c/relu_3x3_reduce
I0403 14:16:13.611874 29507 net.cpp:91] Creating Layer inception_4c/relu_3x3_reduce
I0403 14:16:13.611893 29507 net.cpp:425] inception_4c/relu_3x3_reduce <- inception_4c/3x3_reduce
I0403 14:16:13.611912 29507 net.cpp:386] inception_4c/relu_3x3_reduce -> inception_4c/3x3_reduce (in-place)
I0403 14:16:13.612210 29507 net.cpp:141] Setting up inception_4c/relu_3x3_reduce
I0403 14:16:13.612238 29507 net.cpp:148] Top shape: 24 128 14 14 (602112)
I0403 14:16:13.612254 29507 net.cpp:156] Memory required for data: 1038026016
I0403 14:16:13.612270 29507 layer_factory.hpp:77] Creating layer inception_4c/3x3
I0403 14:16:13.612294 29507 net.cpp:91] Creating Layer inception_4c/3x3
I0403 14:16:13.612313 29507 net.cpp:425] inception_4c/3x3 <- inception_4c/3x3_reduce
I0403 14:16:13.612344 29507 net.cpp:399] inception_4c/3x3 -> inception_4c/3x3
I0403 14:16:13.616063 29507 net.cpp:141] Setting up inception_4c/3x3
I0403 14:16:13.616108 29507 net.cpp:148] Top shape: 24 256 14 14 (1204224)
I0403 14:16:13.616127 29507 net.cpp:156] Memory required for data: 1042842912
I0403 14:16:13.616159 29507 layer_factory.hpp:77] Creating layer inception_4c/relu_3x3
I0403 14:16:13.616184 29507 net.cpp:91] Creating Layer inception_4c/relu_3x3
I0403 14:16:13.616204 29507 net.cpp:425] inception_4c/relu_3x3 <- inception_4c/3x3
I0403 14:16:13.616221 29507 net.cpp:386] inception_4c/relu_3x3 -> inception_4c/3x3 (in-place)
I0403 14:16:13.616433 29507 net.cpp:141] Setting up inception_4c/relu_3x3
I0403 14:16:13.616461 29507 net.cpp:148] Top shape: 24 256 14 14 (1204224)
I0403 14:16:13.616477 29507 net.cpp:156] Memory required for data: 1047659808
I0403 14:16:13.616492 29507 layer_factory.hpp:77] Creating layer inception_4c/5x5_reduce
I0403 14:16:13.616519 29507 net.cpp:91] Creating Layer inception_4c/5x5_reduce
I0403 14:16:13.616539 29507 net.cpp:425] inception_4c/5x5_reduce <- inception_4b/output_inception_4b/output_0_split_2
I0403 14:16:13.616570 29507 net.cpp:399] inception_4c/5x5_reduce -> inception_4c/5x5_reduce
I0403 14:16:13.617705 29507 net.cpp:141] Setting up inception_4c/5x5_reduce
I0403 14:16:13.617734 29507 net.cpp:148] Top shape: 24 24 14 14 (112896)
I0403 14:16:13.617751 29507 net.cpp:156] Memory required for data: 1048111392
I0403 14:16:13.617771 29507 layer_factory.hpp:77] Creating layer inception_4c/relu_5x5_reduce
I0403 14:16:13.617792 29507 net.cpp:91] Creating Layer inception_4c/relu_5x5_reduce
I0403 14:16:13.617810 29507 net.cpp:425] inception_4c/relu_5x5_reduce <- inception_4c/5x5_reduce
I0403 14:16:13.617830 29507 net.cpp:386] inception_4c/relu_5x5_reduce -> inception_4c/5x5_reduce (in-place)
I0403 14:16:13.618026 29507 net.cpp:141] Setting up inception_4c/relu_5x5_reduce
I0403 14:16:13.618053 29507 net.cpp:148] Top shape: 24 24 14 14 (112896)
I0403 14:16:13.618068 29507 net.cpp:156] Memory required for data: 1048562976
I0403 14:16:13.618084 29507 layer_factory.hpp:77] Creating layer inception_4c/5x5
I0403 14:16:13.618108 29507 net.cpp:91] Creating Layer inception_4c/5x5
I0403 14:16:13.618127 29507 net.cpp:425] inception_4c/5x5 <- inception_4c/5x5_reduce
I0403 14:16:13.618149 29507 net.cpp:399] inception_4c/5x5 -> inception_4c/5x5
I0403 14:16:13.619438 29507 net.cpp:141] Setting up inception_4c/5x5
I0403 14:16:13.619470 29507 net.cpp:148] Top shape: 24 64 14 14 (301056)
I0403 14:16:13.619488 29507 net.cpp:156] Memory required for data: 1049767200
I0403 14:16:13.619508 29507 layer_factory.hpp:77] Creating layer inception_4c/relu_5x5
I0403 14:16:13.619529 29507 net.cpp:91] Creating Layer inception_4c/relu_5x5
I0403 14:16:13.619549 29507 net.cpp:425] inception_4c/relu_5x5 <- inception_4c/5x5
I0403 14:16:13.619570 29507 net.cpp:386] inception_4c/relu_5x5 -> inception_4c/5x5 (in-place)
I0403 14:16:13.619868 29507 net.cpp:141] Setting up inception_4c/relu_5x5
I0403 14:16:13.619899 29507 net.cpp:148] Top shape: 24 64 14 14 (301056)
I0403 14:16:13.619915 29507 net.cpp:156] Memory required for data: 1050971424
I0403 14:16:13.619930 29507 layer_factory.hpp:77] Creating layer inception_4c/pool
I0403 14:16:13.619949 29507 net.cpp:91] Creating Layer inception_4c/pool
I0403 14:16:13.619966 29507 net.cpp:425] inception_4c/pool <- inception_4b/output_inception_4b/output_0_split_3
I0403 14:16:13.619987 29507 net.cpp:399] inception_4c/pool -> inception_4c/pool
I0403 14:16:13.620054 29507 net.cpp:141] Setting up inception_4c/pool
I0403 14:16:13.620081 29507 net.cpp:148] Top shape: 24 512 14 14 (2408448)
I0403 14:16:13.620097 29507 net.cpp:156] Memory required for data: 1060605216
I0403 14:16:13.620115 29507 layer_factory.hpp:77] Creating layer inception_4c/pool_proj
I0403 14:16:13.620136 29507 net.cpp:91] Creating Layer inception_4c/pool_proj
I0403 14:16:13.620152 29507 net.cpp:425] inception_4c/pool_proj <- inception_4c/pool
I0403 14:16:13.620173 29507 net.cpp:399] inception_4c/pool_proj -> inception_4c/pool_proj
I0403 14:16:13.621476 29507 net.cpp:141] Setting up inception_4c/pool_proj
I0403 14:16:13.621506 29507 net.cpp:148] Top shape: 24 64 14 14 (301056)
I0403 14:16:13.621538 29507 net.cpp:156] Memory required for data: 1061809440
I0403 14:16:13.621559 29507 layer_factory.hpp:77] Creating layer inception_4c/relu_pool_proj
I0403 14:16:13.621584 29507 net.cpp:91] Creating Layer inception_4c/relu_pool_proj
I0403 14:16:13.621603 29507 net.cpp:425] inception_4c/relu_pool_proj <- inception_4c/pool_proj
I0403 14:16:13.621621 29507 net.cpp:386] inception_4c/relu_pool_proj -> inception_4c/pool_proj (in-place)
I0403 14:16:13.621819 29507 net.cpp:141] Setting up inception_4c/relu_pool_proj
I0403 14:16:13.621846 29507 net.cpp:148] Top shape: 24 64 14 14 (301056)
I0403 14:16:13.621863 29507 net.cpp:156] Memory required for data: 1063013664
I0403 14:16:13.621881 29507 layer_factory.hpp:77] Creating layer inception_4c/output
I0403 14:16:13.621898 29507 net.cpp:91] Creating Layer inception_4c/output
I0403 14:16:13.621915 29507 net.cpp:425] inception_4c/output <- inception_4c/1x1
I0403 14:16:13.621933 29507 net.cpp:425] inception_4c/output <- inception_4c/3x3
I0403 14:16:13.621950 29507 net.cpp:425] inception_4c/output <- inception_4c/5x5
I0403 14:16:13.621968 29507 net.cpp:425] inception_4c/output <- inception_4c/pool_proj
I0403 14:16:13.621987 29507 net.cpp:399] inception_4c/output -> inception_4c/output
I0403 14:16:13.622036 29507 net.cpp:141] Setting up inception_4c/output
I0403 14:16:13.622061 29507 net.cpp:148] Top shape: 24 512 14 14 (2408448)
I0403 14:16:13.622077 29507 net.cpp:156] Memory required for data: 1072647456
I0403 14:16:13.622092 29507 layer_factory.hpp:77] Creating layer inception_4c/output_inception_4c/output_0_split
I0403 14:16:13.622112 29507 net.cpp:91] Creating Layer inception_4c/output_inception_4c/output_0_split
I0403 14:16:13.622130 29507 net.cpp:425] inception_4c/output_inception_4c/output_0_split <- inception_4c/output
I0403 14:16:13.622149 29507 net.cpp:399] inception_4c/output_inception_4c/output_0_split -> inception_4c/output_inception_4c/output_0_split_0
I0403 14:16:13.622170 29507 net.cpp:399] inception_4c/output_inception_4c/output_0_split -> inception_4c/output_inception_4c/output_0_split_1
I0403 14:16:13.622195 29507 net.cpp:399] inception_4c/output_inception_4c/output_0_split -> inception_4c/output_inception_4c/output_0_split_2
I0403 14:16:13.622217 29507 net.cpp:399] inception_4c/output_inception_4c/output_0_split -> inception_4c/output_inception_4c/output_0_split_3
I0403 14:16:13.622304 29507 net.cpp:141] Setting up inception_4c/output_inception_4c/output_0_split
I0403 14:16:13.622334 29507 net.cpp:148] Top shape: 24 512 14 14 (2408448)
I0403 14:16:13.622352 29507 net.cpp:148] Top shape: 24 512 14 14 (2408448)
I0403 14:16:13.622370 29507 net.cpp:148] Top shape: 24 512 14 14 (2408448)
I0403 14:16:13.622385 29507 net.cpp:148] Top shape: 24 512 14 14 (2408448)
I0403 14:16:13.622400 29507 net.cpp:156] Memory required for data: 1111182624
I0403 14:16:13.622416 29507 layer_factory.hpp:77] Creating layer inception_4d/1x1
I0403 14:16:13.622438 29507 net.cpp:91] Creating Layer inception_4d/1x1
I0403 14:16:13.622457 29507 net.cpp:425] inception_4d/1x1 <- inception_4c/output_inception_4c/output_0_split_0
I0403 14:16:13.622479 29507 net.cpp:399] inception_4d/1x1 -> inception_4d/1x1
I0403 14:16:13.623916 29507 net.cpp:141] Setting up inception_4d/1x1
I0403 14:16:13.623947 29507 net.cpp:148] Top shape: 24 112 14 14 (526848)
I0403 14:16:13.623963 29507 net.cpp:156] Memory required for data: 1113290016
I0403 14:16:13.623983 29507 layer_factory.hpp:77] Creating layer inception_4d/relu_1x1
I0403 14:16:13.624006 29507 net.cpp:91] Creating Layer inception_4d/relu_1x1
I0403 14:16:13.624023 29507 net.cpp:425] inception_4d/relu_1x1 <- inception_4d/1x1
I0403 14:16:13.624043 29507 net.cpp:386] inception_4d/relu_1x1 -> inception_4d/1x1 (in-place)
I0403 14:16:13.624234 29507 net.cpp:141] Setting up inception_4d/relu_1x1
I0403 14:16:13.624259 29507 net.cpp:148] Top shape: 24 112 14 14 (526848)
I0403 14:16:13.624275 29507 net.cpp:156] Memory required for data: 1115397408
I0403 14:16:13.624291 29507 layer_factory.hpp:77] Creating layer inception_4d/3x3_reduce
I0403 14:16:13.624339 29507 net.cpp:91] Creating Layer inception_4d/3x3_reduce
I0403 14:16:13.624364 29507 net.cpp:425] inception_4d/3x3_reduce <- inception_4c/output_inception_4c/output_0_split_1
I0403 14:16:13.624384 29507 net.cpp:399] inception_4d/3x3_reduce -> inception_4d/3x3_reduce
I0403 14:16:13.625982 29507 net.cpp:141] Setting up inception_4d/3x3_reduce
I0403 14:16:13.626010 29507 net.cpp:148] Top shape: 24 144 14 14 (677376)
I0403 14:16:13.626027 29507 net.cpp:156] Memory required for data: 1118106912
I0403 14:16:13.626045 29507 layer_factory.hpp:77] Creating layer inception_4d/relu_3x3_reduce
I0403 14:16:13.626065 29507 net.cpp:91] Creating Layer inception_4d/relu_3x3_reduce
I0403 14:16:13.626082 29507 net.cpp:425] inception_4d/relu_3x3_reduce <- inception_4d/3x3_reduce
I0403 14:16:13.626103 29507 net.cpp:386] inception_4d/relu_3x3_reduce -> inception_4d/3x3_reduce (in-place)
I0403 14:16:13.626411 29507 net.cpp:141] Setting up inception_4d/relu_3x3_reduce
I0403 14:16:13.626438 29507 net.cpp:148] Top shape: 24 144 14 14 (677376)
I0403 14:16:13.626454 29507 net.cpp:156] Memory required for data: 1120816416
I0403 14:16:13.626471 29507 layer_factory.hpp:77] Creating layer inception_4d/3x3
I0403 14:16:13.626493 29507 net.cpp:91] Creating Layer inception_4d/3x3
I0403 14:16:13.626513 29507 net.cpp:425] inception_4d/3x3 <- inception_4d/3x3_reduce
I0403 14:16:13.626535 29507 net.cpp:399] inception_4d/3x3 -> inception_4d/3x3
I0403 14:16:13.630924 29507 net.cpp:141] Setting up inception_4d/3x3
I0403 14:16:13.630955 29507 net.cpp:148] Top shape: 24 288 14 14 (1354752)
I0403 14:16:13.630971 29507 net.cpp:156] Memory required for data: 1126235424
I0403 14:16:13.630990 29507 layer_factory.hpp:77] Creating layer inception_4d/relu_3x3
I0403 14:16:13.631011 29507 net.cpp:91] Creating Layer inception_4d/relu_3x3
I0403 14:16:13.631029 29507 net.cpp:425] inception_4d/relu_3x3 <- inception_4d/3x3
I0403 14:16:13.631047 29507 net.cpp:386] inception_4d/relu_3x3 -> inception_4d/3x3 (in-place)
I0403 14:16:13.631235 29507 net.cpp:141] Setting up inception_4d/relu_3x3
I0403 14:16:13.631263 29507 net.cpp:148] Top shape: 24 288 14 14 (1354752)
I0403 14:16:13.631279 29507 net.cpp:156] Memory required for data: 1131654432
I0403 14:16:13.631295 29507 layer_factory.hpp:77] Creating layer inception_4d/5x5_reduce
I0403 14:16:13.631319 29507 net.cpp:91] Creating Layer inception_4d/5x5_reduce
I0403 14:16:13.631337 29507 net.cpp:425] inception_4d/5x5_reduce <- inception_4c/output_inception_4c/output_0_split_2
I0403 14:16:13.631359 29507 net.cpp:399] inception_4d/5x5_reduce -> inception_4d/5x5_reduce
I0403 14:16:13.632530 29507 net.cpp:141] Setting up inception_4d/5x5_reduce
I0403 14:16:13.632560 29507 net.cpp:148] Top shape: 24 32 14 14 (150528)
I0403 14:16:13.632575 29507 net.cpp:156] Memory required for data: 1132256544
I0403 14:16:13.632594 29507 layer_factory.hpp:77] Creating layer inception_4d/relu_5x5_reduce
I0403 14:16:13.632616 29507 net.cpp:91] Creating Layer inception_4d/relu_5x5_reduce
I0403 14:16:13.632632 29507 net.cpp:425] inception_4d/relu_5x5_reduce <- inception_4d/5x5_reduce
I0403 14:16:13.632650 29507 net.cpp:386] inception_4d/relu_5x5_reduce -> inception_4d/5x5_reduce (in-place)
I0403 14:16:13.632843 29507 net.cpp:141] Setting up inception_4d/relu_5x5_reduce
I0403 14:16:13.632868 29507 net.cpp:148] Top shape: 24 32 14 14 (150528)
I0403 14:16:13.632884 29507 net.cpp:156] Memory required for data: 1132858656
I0403 14:16:13.632899 29507 layer_factory.hpp:77] Creating layer inception_4d/5x5
I0403 14:16:13.632923 29507 net.cpp:91] Creating Layer inception_4d/5x5
I0403 14:16:13.632941 29507 net.cpp:425] inception_4d/5x5 <- inception_4d/5x5_reduce
I0403 14:16:13.632961 29507 net.cpp:399] inception_4d/5x5 -> inception_4d/5x5
I0403 14:16:13.634500 29507 net.cpp:141] Setting up inception_4d/5x5
I0403 14:16:13.634528 29507 net.cpp:148] Top shape: 24 64 14 14 (301056)
I0403 14:16:13.634554 29507 net.cpp:156] Memory required for data: 1134062880
I0403 14:16:13.634578 29507 layer_factory.hpp:77] Creating layer inception_4d/relu_5x5
I0403 14:16:13.634613 29507 net.cpp:91] Creating Layer inception_4d/relu_5x5
I0403 14:16:13.634630 29507 net.cpp:425] inception_4d/relu_5x5 <- inception_4d/5x5
I0403 14:16:13.634649 29507 net.cpp:386] inception_4d/relu_5x5 -> inception_4d/5x5 (in-place)
I0403 14:16:13.634953 29507 net.cpp:141] Setting up inception_4d/relu_5x5
I0403 14:16:13.634984 29507 net.cpp:148] Top shape: 24 64 14 14 (301056)
I0403 14:16:13.635000 29507 net.cpp:156] Memory required for data: 1135267104
I0403 14:16:13.635016 29507 layer_factory.hpp:77] Creating layer inception_4d/pool
I0403 14:16:13.635035 29507 net.cpp:91] Creating Layer inception_4d/pool
I0403 14:16:13.635051 29507 net.cpp:425] inception_4d/pool <- inception_4c/output_inception_4c/output_0_split_3
I0403 14:16:13.635072 29507 net.cpp:399] inception_4d/pool -> inception_4d/pool
I0403 14:16:13.635139 29507 net.cpp:141] Setting up inception_4d/pool
I0403 14:16:13.635164 29507 net.cpp:148] Top shape: 24 512 14 14 (2408448)
I0403 14:16:13.635179 29507 net.cpp:156] Memory required for data: 1144900896
I0403 14:16:13.635195 29507 layer_factory.hpp:77] Creating layer inception_4d/pool_proj
I0403 14:16:13.635217 29507 net.cpp:91] Creating Layer inception_4d/pool_proj
I0403 14:16:13.635237 29507 net.cpp:425] inception_4d/pool_proj <- inception_4d/pool
I0403 14:16:13.635272 29507 net.cpp:399] inception_4d/pool_proj -> inception_4d/pool_proj
I0403 14:16:13.637058 29507 net.cpp:141] Setting up inception_4d/pool_proj
I0403 14:16:13.637089 29507 net.cpp:148] Top shape: 24 64 14 14 (301056)
I0403 14:16:13.637106 29507 net.cpp:156] Memory required for data: 1146105120
I0403 14:16:13.637125 29507 layer_factory.hpp:77] Creating layer inception_4d/relu_pool_proj
I0403 14:16:13.637147 29507 net.cpp:91] Creating Layer inception_4d/relu_pool_proj
I0403 14:16:13.637164 29507 net.cpp:425] inception_4d/relu_pool_proj <- inception_4d/pool_proj
I0403 14:16:13.637182 29507 net.cpp:386] inception_4d/relu_pool_proj -> inception_4d/pool_proj (in-place)
I0403 14:16:13.637404 29507 net.cpp:141] Setting up inception_4d/relu_pool_proj
I0403 14:16:13.637433 29507 net.cpp:148] Top shape: 24 64 14 14 (301056)
I0403 14:16:13.637449 29507 net.cpp:156] Memory required for data: 1147309344
I0403 14:16:13.637465 29507 layer_factory.hpp:77] Creating layer inception_4d/output
I0403 14:16:13.637482 29507 net.cpp:91] Creating Layer inception_4d/output
I0403 14:16:13.637498 29507 net.cpp:425] inception_4d/output <- inception_4d/1x1
I0403 14:16:13.637516 29507 net.cpp:425] inception_4d/output <- inception_4d/3x3
I0403 14:16:13.637532 29507 net.cpp:425] inception_4d/output <- inception_4d/5x5
I0403 14:16:13.637562 29507 net.cpp:425] inception_4d/output <- inception_4d/pool_proj
I0403 14:16:13.637578 29507 net.cpp:399] inception_4d/output -> inception_4d/output
I0403 14:16:13.637629 29507 net.cpp:141] Setting up inception_4d/output
I0403 14:16:13.637652 29507 net.cpp:148] Top shape: 24 528 14 14 (2483712)
I0403 14:16:13.637667 29507 net.cpp:156] Memory required for data: 1157244192
I0403 14:16:13.637681 29507 layer_factory.hpp:77] Creating layer inception_4d/output_inception_4d/output_0_split
I0403 14:16:13.637701 29507 net.cpp:91] Creating Layer inception_4d/output_inception_4d/output_0_split
I0403 14:16:13.637718 29507 net.cpp:425] inception_4d/output_inception_4d/output_0_split <- inception_4d/output
I0403 14:16:13.637735 29507 net.cpp:399] inception_4d/output_inception_4d/output_0_split -> inception_4d/output_inception_4d/output_0_split_0
I0403 14:16:13.637756 29507 net.cpp:399] inception_4d/output_inception_4d/output_0_split -> inception_4d/output_inception_4d/output_0_split_1
I0403 14:16:13.637776 29507 net.cpp:399] inception_4d/output_inception_4d/output_0_split -> inception_4d/output_inception_4d/output_0_split_2
I0403 14:16:13.637796 29507 net.cpp:399] inception_4d/output_inception_4d/output_0_split -> inception_4d/output_inception_4d/output_0_split_3
I0403 14:16:13.637819 29507 net.cpp:399] inception_4d/output_inception_4d/output_0_split -> inception_4d/output_inception_4d/output_0_split_4
I0403 14:16:13.637923 29507 net.cpp:141] Setting up inception_4d/output_inception_4d/output_0_split
I0403 14:16:13.637959 29507 net.cpp:148] Top shape: 24 528 14 14 (2483712)
I0403 14:16:13.637976 29507 net.cpp:148] Top shape: 24 528 14 14 (2483712)
I0403 14:16:13.637992 29507 net.cpp:148] Top shape: 24 528 14 14 (2483712)
I0403 14:16:13.638007 29507 net.cpp:148] Top shape: 24 528 14 14 (2483712)
I0403 14:16:13.638022 29507 net.cpp:148] Top shape: 24 528 14 14 (2483712)
I0403 14:16:13.638037 29507 net.cpp:156] Memory required for data: 1206918432
I0403 14:16:13.638051 29507 layer_factory.hpp:77] Creating layer loss2/ave_pool
I0403 14:16:13.638069 29507 net.cpp:91] Creating Layer loss2/ave_pool
I0403 14:16:13.638085 29507 net.cpp:425] loss2/ave_pool <- inception_4d/output_inception_4d/output_0_split_0
I0403 14:16:13.638106 29507 net.cpp:399] loss2/ave_pool -> loss2/ave_pool
I0403 14:16:13.638416 29507 net.cpp:141] Setting up loss2/ave_pool
I0403 14:16:13.638442 29507 net.cpp:148] Top shape: 24 528 4 4 (202752)
I0403 14:16:13.638458 29507 net.cpp:156] Memory required for data: 1207729440
I0403 14:16:13.638473 29507 layer_factory.hpp:77] Creating layer loss2/conv
I0403 14:16:13.638495 29507 net.cpp:91] Creating Layer loss2/conv
I0403 14:16:13.638512 29507 net.cpp:425] loss2/conv <- loss2/ave_pool
I0403 14:16:13.638533 29507 net.cpp:399] loss2/conv -> loss2/conv
I0403 14:16:13.640477 29507 net.cpp:141] Setting up loss2/conv
I0403 14:16:13.640511 29507 net.cpp:148] Top shape: 24 128 4 4 (49152)
I0403 14:16:13.640542 29507 net.cpp:156] Memory required for data: 1207926048
I0403 14:16:13.640561 29507 layer_factory.hpp:77] Creating layer loss2/relu_conv
I0403 14:16:13.640580 29507 net.cpp:91] Creating Layer loss2/relu_conv
I0403 14:16:13.640612 29507 net.cpp:425] loss2/relu_conv <- loss2/conv
I0403 14:16:13.640630 29507 net.cpp:386] loss2/relu_conv -> loss2/conv (in-place)
I0403 14:16:13.640928 29507 net.cpp:141] Setting up loss2/relu_conv
I0403 14:16:13.640956 29507 net.cpp:148] Top shape: 24 128 4 4 (49152)
I0403 14:16:13.640972 29507 net.cpp:156] Memory required for data: 1208122656
I0403 14:16:13.640987 29507 layer_factory.hpp:77] Creating layer loss2/fc
I0403 14:16:13.641006 29507 net.cpp:91] Creating Layer loss2/fc
I0403 14:16:13.641023 29507 net.cpp:425] loss2/fc <- loss2/conv
I0403 14:16:13.641044 29507 net.cpp:399] loss2/fc -> loss2/fc
I0403 14:16:13.658860 29507 net.cpp:141] Setting up loss2/fc
I0403 14:16:13.658910 29507 net.cpp:148] Top shape: 24 1024 (24576)
I0403 14:16:13.658926 29507 net.cpp:156] Memory required for data: 1208220960
I0403 14:16:13.658946 29507 layer_factory.hpp:77] Creating layer loss2/relu_fc
I0403 14:16:13.658968 29507 net.cpp:91] Creating Layer loss2/relu_fc
I0403 14:16:13.658987 29507 net.cpp:425] loss2/relu_fc <- loss2/fc
I0403 14:16:13.659008 29507 net.cpp:386] loss2/relu_fc -> loss2/fc (in-place)
I0403 14:16:13.659344 29507 net.cpp:141] Setting up loss2/relu_fc
I0403 14:16:13.659371 29507 net.cpp:148] Top shape: 24 1024 (24576)
I0403 14:16:13.659386 29507 net.cpp:156] Memory required for data: 1208319264
I0403 14:16:13.659404 29507 layer_factory.hpp:77] Creating layer loss2/drop_fc
I0403 14:16:13.659425 29507 net.cpp:91] Creating Layer loss2/drop_fc
I0403 14:16:13.659443 29507 net.cpp:425] loss2/drop_fc <- loss2/fc
I0403 14:16:13.659461 29507 net.cpp:386] loss2/drop_fc -> loss2/fc (in-place)
I0403 14:16:13.659514 29507 net.cpp:141] Setting up loss2/drop_fc
I0403 14:16:13.659538 29507 net.cpp:148] Top shape: 24 1024 (24576)
I0403 14:16:13.659553 29507 net.cpp:156] Memory required for data: 1208417568
I0403 14:16:13.659569 29507 layer_factory.hpp:77] Creating layer loss2/classifier_plantvillage
I0403 14:16:13.659589 29507 net.cpp:91] Creating Layer loss2/classifier_plantvillage
I0403 14:16:13.659605 29507 net.cpp:425] loss2/classifier_plantvillage <- loss2/fc
I0403 14:16:13.659626 29507 net.cpp:399] loss2/classifier_plantvillage -> loss2/classifier_plantvillage
I0403 14:16:13.660043 29507 net.cpp:141] Setting up loss2/classifier_plantvillage
I0403 14:16:13.660071 29507 net.cpp:148] Top shape: 24 38 (912)
I0403 14:16:13.660087 29507 net.cpp:156] Memory required for data: 1208421216
I0403 14:16:13.660130 29507 layer_factory.hpp:77] Creating layer loss2/classifier_plantvillage_loss2/classifier_plantvillage_0_split
I0403 14:16:13.660161 29507 net.cpp:91] Creating Layer loss2/classifier_plantvillage_loss2/classifier_plantvillage_0_split
I0403 14:16:13.660179 29507 net.cpp:425] loss2/classifier_plantvillage_loss2/classifier_plantvillage_0_split <- loss2/classifier_plantvillage
I0403 14:16:13.660200 29507 net.cpp:399] loss2/classifier_plantvillage_loss2/classifier_plantvillage_0_split -> loss2/classifier_plantvillage_loss2/classifier_plantvillage_0_split_0
I0403 14:16:13.660221 29507 net.cpp:399] loss2/classifier_plantvillage_loss2/classifier_plantvillage_0_split -> loss2/classifier_plantvillage_loss2/classifier_plantvillage_0_split_1
I0403 14:16:13.660241 29507 net.cpp:399] loss2/classifier_plantvillage_loss2/classifier_plantvillage_0_split -> loss2/classifier_plantvillage_loss2/classifier_plantvillage_0_split_2
I0403 14:16:13.660352 29507 net.cpp:141] Setting up loss2/classifier_plantvillage_loss2/classifier_plantvillage_0_split
I0403 14:16:13.660387 29507 net.cpp:148] Top shape: 24 38 (912)
I0403 14:16:13.660406 29507 net.cpp:148] Top shape: 24 38 (912)
I0403 14:16:13.660423 29507 net.cpp:148] Top shape: 24 38 (912)
I0403 14:16:13.660439 29507 net.cpp:156] Memory required for data: 1208432160
I0403 14:16:13.660454 29507 layer_factory.hpp:77] Creating layer inception_4e/1x1
I0403 14:16:13.660477 29507 net.cpp:91] Creating Layer inception_4e/1x1
I0403 14:16:13.660496 29507 net.cpp:425] inception_4e/1x1 <- inception_4d/output_inception_4d/output_0_split_1
I0403 14:16:13.660519 29507 net.cpp:399] inception_4e/1x1 -> inception_4e/1x1
I0403 14:16:13.662461 29507 net.cpp:141] Setting up inception_4e/1x1
I0403 14:16:13.662494 29507 net.cpp:148] Top shape: 24 256 14 14 (1204224)
I0403 14:16:13.662513 29507 net.cpp:156] Memory required for data: 1213249056
I0403 14:16:13.662533 29507 layer_factory.hpp:77] Creating layer inception_4e/relu_1x1
I0403 14:16:13.662564 29507 net.cpp:91] Creating Layer inception_4e/relu_1x1
I0403 14:16:13.662580 29507 net.cpp:425] inception_4e/relu_1x1 <- inception_4e/1x1
I0403 14:16:13.662600 29507 net.cpp:386] inception_4e/relu_1x1 -> inception_4e/1x1 (in-place)
I0403 14:16:13.662905 29507 net.cpp:141] Setting up inception_4e/relu_1x1
I0403 14:16:13.662935 29507 net.cpp:148] Top shape: 24 256 14 14 (1204224)
I0403 14:16:13.662951 29507 net.cpp:156] Memory required for data: 1218065952
I0403 14:16:13.662967 29507 layer_factory.hpp:77] Creating layer inception_4e/3x3_reduce
I0403 14:16:13.662989 29507 net.cpp:91] Creating Layer inception_4e/3x3_reduce
I0403 14:16:13.663008 29507 net.cpp:425] inception_4e/3x3_reduce <- inception_4d/output_inception_4d/output_0_split_2
I0403 14:16:13.663028 29507 net.cpp:399] inception_4e/3x3_reduce -> inception_4e/3x3_reduce
I0403 14:16:13.665233 29507 net.cpp:141] Setting up inception_4e/3x3_reduce
I0403 14:16:13.665279 29507 net.cpp:148] Top shape: 24 160 14 14 (752640)
I0403 14:16:13.665299 29507 net.cpp:156] Memory required for data: 1221076512
I0403 14:16:13.665324 29507 layer_factory.hpp:77] Creating layer inception_4e/relu_3x3_reduce
I0403 14:16:13.665357 29507 net.cpp:91] Creating Layer inception_4e/relu_3x3_reduce
I0403 14:16:13.665375 29507 net.cpp:425] inception_4e/relu_3x3_reduce <- inception_4e/3x3_reduce
I0403 14:16:13.665392 29507 net.cpp:386] inception_4e/relu_3x3_reduce -> inception_4e/3x3_reduce (in-place)
I0403 14:16:13.665601 29507 net.cpp:141] Setting up inception_4e/relu_3x3_reduce
I0403 14:16:13.665629 29507 net.cpp:148] Top shape: 24 160 14 14 (752640)
I0403 14:16:13.665647 29507 net.cpp:156] Memory required for data: 1224087072
I0403 14:16:13.665663 29507 layer_factory.hpp:77] Creating layer inception_4e/3x3
I0403 14:16:13.665685 29507 net.cpp:91] Creating Layer inception_4e/3x3
I0403 14:16:13.665704 29507 net.cpp:425] inception_4e/3x3 <- inception_4e/3x3_reduce
I0403 14:16:13.665725 29507 net.cpp:399] inception_4e/3x3 -> inception_4e/3x3
I0403 14:16:13.670938 29507 net.cpp:141] Setting up inception_4e/3x3
I0403 14:16:13.670985 29507 net.cpp:148] Top shape: 24 320 14 14 (1505280)
I0403 14:16:13.671005 29507 net.cpp:156] Memory required for data: 1230108192
I0403 14:16:13.671025 29507 layer_factory.hpp:77] Creating layer inception_4e/relu_3x3
I0403 14:16:13.671044 29507 net.cpp:91] Creating Layer inception_4e/relu_3x3
I0403 14:16:13.671062 29507 net.cpp:425] inception_4e/relu_3x3 <- inception_4e/3x3
I0403 14:16:13.671087 29507 net.cpp:386] inception_4e/relu_3x3 -> inception_4e/3x3 (in-place)
I0403 14:16:13.671401 29507 net.cpp:141] Setting up inception_4e/relu_3x3
I0403 14:16:13.671429 29507 net.cpp:148] Top shape: 24 320 14 14 (1505280)
I0403 14:16:13.671445 29507 net.cpp:156] Memory required for data: 1236129312
I0403 14:16:13.671461 29507 layer_factory.hpp:77] Creating layer inception_4e/5x5_reduce
I0403 14:16:13.671486 29507 net.cpp:91] Creating Layer inception_4e/5x5_reduce
I0403 14:16:13.671505 29507 net.cpp:425] inception_4e/5x5_reduce <- inception_4d/output_inception_4d/output_0_split_3
I0403 14:16:13.671528 29507 net.cpp:399] inception_4e/5x5_reduce -> inception_4e/5x5_reduce
I0403 14:16:13.672654 29507 net.cpp:141] Setting up inception_4e/5x5_reduce
I0403 14:16:13.672683 29507 net.cpp:148] Top shape: 24 32 14 14 (150528)
I0403 14:16:13.672699 29507 net.cpp:156] Memory required for data: 1236731424
I0403 14:16:13.672719 29507 layer_factory.hpp:77] Creating layer inception_4e/relu_5x5_reduce
I0403 14:16:13.672740 29507 net.cpp:91] Creating Layer inception_4e/relu_5x5_reduce
I0403 14:16:13.672757 29507 net.cpp:425] inception_4e/relu_5x5_reduce <- inception_4e/5x5_reduce
I0403 14:16:13.672775 29507 net.cpp:386] inception_4e/relu_5x5_reduce -> inception_4e/5x5_reduce (in-place)
I0403 14:16:13.673074 29507 net.cpp:141] Setting up inception_4e/relu_5x5_reduce
I0403 14:16:13.673100 29507 net.cpp:148] Top shape: 24 32 14 14 (150528)
I0403 14:16:13.673116 29507 net.cpp:156] Memory required for data: 1237333536
I0403 14:16:13.673131 29507 layer_factory.hpp:77] Creating layer inception_4e/5x5
I0403 14:16:13.673171 29507 net.cpp:91] Creating Layer inception_4e/5x5
I0403 14:16:13.673190 29507 net.cpp:425] inception_4e/5x5 <- inception_4e/5x5_reduce
I0403 14:16:13.673209 29507 net.cpp:399] inception_4e/5x5 -> inception_4e/5x5
I0403 14:16:13.675197 29507 net.cpp:141] Setting up inception_4e/5x5
I0403 14:16:13.675225 29507 net.cpp:148] Top shape: 24 128 14 14 (602112)
I0403 14:16:13.675256 29507 net.cpp:156] Memory required for data: 1239741984
I0403 14:16:13.675276 29507 layer_factory.hpp:77] Creating layer inception_4e/relu_5x5
I0403 14:16:13.675312 29507 net.cpp:91] Creating Layer inception_4e/relu_5x5
I0403 14:16:13.675336 29507 net.cpp:425] inception_4e/relu_5x5 <- inception_4e/5x5
I0403 14:16:13.675355 29507 net.cpp:386] inception_4e/relu_5x5 -> inception_4e/5x5 (in-place)
I0403 14:16:13.675580 29507 net.cpp:141] Setting up inception_4e/relu_5x5
I0403 14:16:13.675621 29507 net.cpp:148] Top shape: 24 128 14 14 (602112)
I0403 14:16:13.675637 29507 net.cpp:156] Memory required for data: 1242150432
I0403 14:16:13.675652 29507 layer_factory.hpp:77] Creating layer inception_4e/pool
I0403 14:16:13.675671 29507 net.cpp:91] Creating Layer inception_4e/pool
I0403 14:16:13.675688 29507 net.cpp:425] inception_4e/pool <- inception_4d/output_inception_4d/output_0_split_4
I0403 14:16:13.675706 29507 net.cpp:399] inception_4e/pool -> inception_4e/pool
I0403 14:16:13.675779 29507 net.cpp:141] Setting up inception_4e/pool
I0403 14:16:13.675804 29507 net.cpp:148] Top shape: 24 528 14 14 (2483712)
I0403 14:16:13.675819 29507 net.cpp:156] Memory required for data: 1252085280
I0403 14:16:13.675835 29507 layer_factory.hpp:77] Creating layer inception_4e/pool_proj
I0403 14:16:13.675858 29507 net.cpp:91] Creating Layer inception_4e/pool_proj
I0403 14:16:13.675876 29507 net.cpp:425] inception_4e/pool_proj <- inception_4e/pool
I0403 14:16:13.675899 29507 net.cpp:399] inception_4e/pool_proj -> inception_4e/pool_proj
I0403 14:16:13.677459 29507 net.cpp:141] Setting up inception_4e/pool_proj
I0403 14:16:13.677497 29507 net.cpp:148] Top shape: 24 128 14 14 (602112)
I0403 14:16:13.677528 29507 net.cpp:156] Memory required for data: 1254493728
I0403 14:16:13.677549 29507 layer_factory.hpp:77] Creating layer inception_4e/relu_pool_proj
I0403 14:16:13.677570 29507 net.cpp:91] Creating Layer inception_4e/relu_pool_proj
I0403 14:16:13.677588 29507 net.cpp:425] inception_4e/relu_pool_proj <- inception_4e/pool_proj
I0403 14:16:13.677606 29507 net.cpp:386] inception_4e/relu_pool_proj -> inception_4e/pool_proj (in-place)
I0403 14:16:13.677935 29507 net.cpp:141] Setting up inception_4e/relu_pool_proj
I0403 14:16:13.677963 29507 net.cpp:148] Top shape: 24 128 14 14 (602112)
I0403 14:16:13.677978 29507 net.cpp:156] Memory required for data: 1256902176
I0403 14:16:13.677994 29507 layer_factory.hpp:77] Creating layer inception_4e/output
I0403 14:16:13.678012 29507 net.cpp:91] Creating Layer inception_4e/output
I0403 14:16:13.678030 29507 net.cpp:425] inception_4e/output <- inception_4e/1x1
I0403 14:16:13.678048 29507 net.cpp:425] inception_4e/output <- inception_4e/3x3
I0403 14:16:13.678078 29507 net.cpp:425] inception_4e/output <- inception_4e/5x5
I0403 14:16:13.678095 29507 net.cpp:425] inception_4e/output <- inception_4e/pool_proj
I0403 14:16:13.678115 29507 net.cpp:399] inception_4e/output -> inception_4e/output
I0403 14:16:13.678169 29507 net.cpp:141] Setting up inception_4e/output
I0403 14:16:13.678195 29507 net.cpp:148] Top shape: 24 832 14 14 (3913728)
I0403 14:16:13.678210 29507 net.cpp:156] Memory required for data: 1272557088
I0403 14:16:13.678225 29507 layer_factory.hpp:77] Creating layer pool4/3x3_s2
I0403 14:16:13.678243 29507 net.cpp:91] Creating Layer pool4/3x3_s2
I0403 14:16:13.678261 29507 net.cpp:425] pool4/3x3_s2 <- inception_4e/output
I0403 14:16:13.678282 29507 net.cpp:399] pool4/3x3_s2 -> pool4/3x3_s2
I0403 14:16:13.678354 29507 net.cpp:141] Setting up pool4/3x3_s2
I0403 14:16:13.678380 29507 net.cpp:148] Top shape: 24 832 7 7 (978432)
I0403 14:16:13.678395 29507 net.cpp:156] Memory required for data: 1276470816
I0403 14:16:13.678411 29507 layer_factory.hpp:77] Creating layer pool4/3x3_s2_pool4/3x3_s2_0_split
I0403 14:16:13.678431 29507 net.cpp:91] Creating Layer pool4/3x3_s2_pool4/3x3_s2_0_split
I0403 14:16:13.678450 29507 net.cpp:425] pool4/3x3_s2_pool4/3x3_s2_0_split <- pool4/3x3_s2
I0403 14:16:13.678469 29507 net.cpp:399] pool4/3x3_s2_pool4/3x3_s2_0_split -> pool4/3x3_s2_pool4/3x3_s2_0_split_0
I0403 14:16:13.678493 29507 net.cpp:399] pool4/3x3_s2_pool4/3x3_s2_0_split -> pool4/3x3_s2_pool4/3x3_s2_0_split_1
I0403 14:16:13.678515 29507 net.cpp:399] pool4/3x3_s2_pool4/3x3_s2_0_split -> pool4/3x3_s2_pool4/3x3_s2_0_split_2
I0403 14:16:13.678535 29507 net.cpp:399] pool4/3x3_s2_pool4/3x3_s2_0_split -> pool4/3x3_s2_pool4/3x3_s2_0_split_3
I0403 14:16:13.678627 29507 net.cpp:141] Setting up pool4/3x3_s2_pool4/3x3_s2_0_split
I0403 14:16:13.678661 29507 net.cpp:148] Top shape: 24 832 7 7 (978432)
I0403 14:16:13.678678 29507 net.cpp:148] Top shape: 24 832 7 7 (978432)
I0403 14:16:13.678695 29507 net.cpp:148] Top shape: 24 832 7 7 (978432)
I0403 14:16:13.678710 29507 net.cpp:148] Top shape: 24 832 7 7 (978432)
I0403 14:16:13.678725 29507 net.cpp:156] Memory required for data: 1292125728
I0403 14:16:13.678741 29507 layer_factory.hpp:77] Creating layer inception_5a/1x1
I0403 14:16:13.678767 29507 net.cpp:91] Creating Layer inception_5a/1x1
I0403 14:16:13.678786 29507 net.cpp:425] inception_5a/1x1 <- pool4/3x3_s2_pool4/3x3_s2_0_split_0
I0403 14:16:13.678807 29507 net.cpp:399] inception_5a/1x1 -> inception_5a/1x1
I0403 14:16:13.681725 29507 net.cpp:141] Setting up inception_5a/1x1
I0403 14:16:13.681753 29507 net.cpp:148] Top shape: 24 256 7 7 (301056)
I0403 14:16:13.681771 29507 net.cpp:156] Memory required for data: 1293329952
I0403 14:16:13.681788 29507 layer_factory.hpp:77] Creating layer inception_5a/relu_1x1
I0403 14:16:13.681810 29507 net.cpp:91] Creating Layer inception_5a/relu_1x1
I0403 14:16:13.681828 29507 net.cpp:425] inception_5a/relu_1x1 <- inception_5a/1x1
I0403 14:16:13.681845 29507 net.cpp:386] inception_5a/relu_1x1 -> inception_5a/1x1 (in-place)
I0403 14:16:13.682154 29507 net.cpp:141] Setting up inception_5a/relu_1x1
I0403 14:16:13.682180 29507 net.cpp:148] Top shape: 24 256 7 7 (301056)
I0403 14:16:13.682196 29507 net.cpp:156] Memory required for data: 1294534176
I0403 14:16:13.682210 29507 layer_factory.hpp:77] Creating layer inception_5a/3x3_reduce
I0403 14:16:13.682234 29507 net.cpp:91] Creating Layer inception_5a/3x3_reduce
I0403 14:16:13.682251 29507 net.cpp:425] inception_5a/3x3_reduce <- pool4/3x3_s2_pool4/3x3_s2_0_split_1
I0403 14:16:13.682274 29507 net.cpp:399] inception_5a/3x3_reduce -> inception_5a/3x3_reduce
I0403 14:16:13.684777 29507 net.cpp:141] Setting up inception_5a/3x3_reduce
I0403 14:16:13.684808 29507 net.cpp:148] Top shape: 24 160 7 7 (188160)
I0403 14:16:13.684825 29507 net.cpp:156] Memory required for data: 1295286816
I0403 14:16:13.684845 29507 layer_factory.hpp:77] Creating layer inception_5a/relu_3x3_reduce
I0403 14:16:13.684864 29507 net.cpp:91] Creating Layer inception_5a/relu_3x3_reduce
I0403 14:16:13.684881 29507 net.cpp:425] inception_5a/relu_3x3_reduce <- inception_5a/3x3_reduce
I0403 14:16:13.684902 29507 net.cpp:386] inception_5a/relu_3x3_reduce -> inception_5a/3x3_reduce (in-place)
I0403 14:16:13.685103 29507 net.cpp:141] Setting up inception_5a/relu_3x3_reduce
I0403 14:16:13.685128 29507 net.cpp:148] Top shape: 24 160 7 7 (188160)
I0403 14:16:13.685143 29507 net.cpp:156] Memory required for data: 1296039456
I0403 14:16:13.685159 29507 layer_factory.hpp:77] Creating layer inception_5a/3x3
I0403 14:16:13.685181 29507 net.cpp:91] Creating Layer inception_5a/3x3
I0403 14:16:13.685199 29507 net.cpp:425] inception_5a/3x3 <- inception_5a/3x3_reduce
I0403 14:16:13.685220 29507 net.cpp:399] inception_5a/3x3 -> inception_5a/3x3
I0403 14:16:13.690249 29507 net.cpp:141] Setting up inception_5a/3x3
I0403 14:16:13.690280 29507 net.cpp:148] Top shape: 24 320 7 7 (376320)
I0403 14:16:13.690296 29507 net.cpp:156] Memory required for data: 1297544736
I0403 14:16:13.690320 29507 layer_factory.hpp:77] Creating layer inception_5a/relu_3x3
I0403 14:16:13.690341 29507 net.cpp:91] Creating Layer inception_5a/relu_3x3
I0403 14:16:13.690359 29507 net.cpp:425] inception_5a/relu_3x3 <- inception_5a/3x3
I0403 14:16:13.690377 29507 net.cpp:386] inception_5a/relu_3x3 -> inception_5a/3x3 (in-place)
I0403 14:16:13.690678 29507 net.cpp:141] Setting up inception_5a/relu_3x3
I0403 14:16:13.690704 29507 net.cpp:148] Top shape: 24 320 7 7 (376320)
I0403 14:16:13.690721 29507 net.cpp:156] Memory required for data: 1299050016
I0403 14:16:13.690737 29507 layer_factory.hpp:77] Creating layer inception_5a/5x5_reduce
I0403 14:16:13.690758 29507 net.cpp:91] Creating Layer inception_5a/5x5_reduce
I0403 14:16:13.690779 29507 net.cpp:425] inception_5a/5x5_reduce <- pool4/3x3_s2_pool4/3x3_s2_0_split_2
I0403 14:16:13.690799 29507 net.cpp:399] inception_5a/5x5_reduce -> inception_5a/5x5_reduce
I0403 14:16:13.691964 29507 net.cpp:141] Setting up inception_5a/5x5_reduce
I0403 14:16:13.691995 29507 net.cpp:148] Top shape: 24 32 7 7 (37632)
I0403 14:16:13.692011 29507 net.cpp:156] Memory required for data: 1299200544
I0403 14:16:13.692031 29507 layer_factory.hpp:77] Creating layer inception_5a/relu_5x5_reduce
I0403 14:16:13.692050 29507 net.cpp:91] Creating Layer inception_5a/relu_5x5_reduce
I0403 14:16:13.692067 29507 net.cpp:425] inception_5a/relu_5x5_reduce <- inception_5a/5x5_reduce
I0403 14:16:13.692085 29507 net.cpp:386] inception_5a/relu_5x5_reduce -> inception_5a/5x5_reduce (in-place)
I0403 14:16:13.692387 29507 net.cpp:141] Setting up inception_5a/relu_5x5_reduce
I0403 14:16:13.692416 29507 net.cpp:148] Top shape: 24 32 7 7 (37632)
I0403 14:16:13.692432 29507 net.cpp:156] Memory required for data: 1299351072
I0403 14:16:13.692447 29507 layer_factory.hpp:77] Creating layer inception_5a/5x5
I0403 14:16:13.692468 29507 net.cpp:91] Creating Layer inception_5a/5x5
I0403 14:16:13.692487 29507 net.cpp:425] inception_5a/5x5 <- inception_5a/5x5_reduce
I0403 14:16:13.692507 29507 net.cpp:399] inception_5a/5x5 -> inception_5a/5x5
I0403 14:16:13.694236 29507 net.cpp:141] Setting up inception_5a/5x5
I0403 14:16:13.694278 29507 net.cpp:148] Top shape: 24 128 7 7 (150528)
I0403 14:16:13.694294 29507 net.cpp:156] Memory required for data: 1299953184
I0403 14:16:13.694314 29507 layer_factory.hpp:77] Creating layer inception_5a/relu_5x5
I0403 14:16:13.694339 29507 net.cpp:91] Creating Layer inception_5a/relu_5x5
I0403 14:16:13.694357 29507 net.cpp:425] inception_5a/relu_5x5 <- inception_5a/5x5
I0403 14:16:13.694375 29507 net.cpp:386] inception_5a/relu_5x5 -> inception_5a/5x5 (in-place)
I0403 14:16:13.694571 29507 net.cpp:141] Setting up inception_5a/relu_5x5
I0403 14:16:13.694598 29507 net.cpp:148] Top shape: 24 128 7 7 (150528)
I0403 14:16:13.694613 29507 net.cpp:156] Memory required for data: 1300555296
I0403 14:16:13.694629 29507 layer_factory.hpp:77] Creating layer inception_5a/pool
I0403 14:16:13.694646 29507 net.cpp:91] Creating Layer inception_5a/pool
I0403 14:16:13.694664 29507 net.cpp:425] inception_5a/pool <- pool4/3x3_s2_pool4/3x3_s2_0_split_3
I0403 14:16:13.694684 29507 net.cpp:399] inception_5a/pool -> inception_5a/pool
I0403 14:16:13.694753 29507 net.cpp:141] Setting up inception_5a/pool
I0403 14:16:13.694777 29507 net.cpp:148] Top shape: 24 832 7 7 (978432)
I0403 14:16:13.694792 29507 net.cpp:156] Memory required for data: 1304469024
I0403 14:16:13.694808 29507 layer_factory.hpp:77] Creating layer inception_5a/pool_proj
I0403 14:16:13.694829 29507 net.cpp:91] Creating Layer inception_5a/pool_proj
I0403 14:16:13.694859 29507 net.cpp:425] inception_5a/pool_proj <- inception_5a/pool
I0403 14:16:13.694877 29507 net.cpp:399] inception_5a/pool_proj -> inception_5a/pool_proj
I0403 14:16:13.697175 29507 net.cpp:141] Setting up inception_5a/pool_proj
I0403 14:16:13.697206 29507 net.cpp:148] Top shape: 24 128 7 7 (150528)
I0403 14:16:13.697222 29507 net.cpp:156] Memory required for data: 1305071136
I0403 14:16:13.697242 29507 layer_factory.hpp:77] Creating layer inception_5a/relu_pool_proj
I0403 14:16:13.697263 29507 net.cpp:91] Creating Layer inception_5a/relu_pool_proj
I0403 14:16:13.697280 29507 net.cpp:425] inception_5a/relu_pool_proj <- inception_5a/pool_proj
I0403 14:16:13.697298 29507 net.cpp:386] inception_5a/relu_pool_proj -> inception_5a/pool_proj (in-place)
I0403 14:16:13.697618 29507 net.cpp:141] Setting up inception_5a/relu_pool_proj
I0403 14:16:13.697646 29507 net.cpp:148] Top shape: 24 128 7 7 (150528)
I0403 14:16:13.697662 29507 net.cpp:156] Memory required for data: 1305673248
I0403 14:16:13.697679 29507 layer_factory.hpp:77] Creating layer inception_5a/output
I0403 14:16:13.697700 29507 net.cpp:91] Creating Layer inception_5a/output
I0403 14:16:13.697716 29507 net.cpp:425] inception_5a/output <- inception_5a/1x1
I0403 14:16:13.697736 29507 net.cpp:425] inception_5a/output <- inception_5a/3x3
I0403 14:16:13.697753 29507 net.cpp:425] inception_5a/output <- inception_5a/5x5
I0403 14:16:13.697772 29507 net.cpp:425] inception_5a/output <- inception_5a/pool_proj
I0403 14:16:13.697789 29507 net.cpp:399] inception_5a/output -> inception_5a/output
I0403 14:16:13.697849 29507 net.cpp:141] Setting up inception_5a/output
I0403 14:16:13.697876 29507 net.cpp:148] Top shape: 24 832 7 7 (978432)
I0403 14:16:13.697906 29507 net.cpp:156] Memory required for data: 1309586976
I0403 14:16:13.697921 29507 layer_factory.hpp:77] Creating layer inception_5a/output_inception_5a/output_0_split
I0403 14:16:13.697938 29507 net.cpp:91] Creating Layer inception_5a/output_inception_5a/output_0_split
I0403 14:16:13.697955 29507 net.cpp:425] inception_5a/output_inception_5a/output_0_split <- inception_5a/output
I0403 14:16:13.697976 29507 net.cpp:399] inception_5a/output_inception_5a/output_0_split -> inception_5a/output_inception_5a/output_0_split_0
I0403 14:16:13.697998 29507 net.cpp:399] inception_5a/output_inception_5a/output_0_split -> inception_5a/output_inception_5a/output_0_split_1
I0403 14:16:13.698017 29507 net.cpp:399] inception_5a/output_inception_5a/output_0_split -> inception_5a/output_inception_5a/output_0_split_2
I0403 14:16:13.698038 29507 net.cpp:399] inception_5a/output_inception_5a/output_0_split -> inception_5a/output_inception_5a/output_0_split_3
I0403 14:16:13.698151 29507 net.cpp:141] Setting up inception_5a/output_inception_5a/output_0_split
I0403 14:16:13.698179 29507 net.cpp:148] Top shape: 24 832 7 7 (978432)
I0403 14:16:13.698197 29507 net.cpp:148] Top shape: 24 832 7 7 (978432)
I0403 14:16:13.698213 29507 net.cpp:148] Top shape: 24 832 7 7 (978432)
I0403 14:16:13.698230 29507 net.cpp:148] Top shape: 24 832 7 7 (978432)
I0403 14:16:13.698243 29507 net.cpp:156] Memory required for data: 1325241888
I0403 14:16:13.698257 29507 layer_factory.hpp:77] Creating layer inception_5b/1x1
I0403 14:16:13.698281 29507 net.cpp:91] Creating Layer inception_5b/1x1
I0403 14:16:13.698298 29507 net.cpp:425] inception_5b/1x1 <- inception_5a/output_inception_5a/output_0_split_0
I0403 14:16:13.698323 29507 net.cpp:399] inception_5b/1x1 -> inception_5b/1x1
I0403 14:16:13.702260 29507 net.cpp:141] Setting up inception_5b/1x1
I0403 14:16:13.702291 29507 net.cpp:148] Top shape: 24 384 7 7 (451584)
I0403 14:16:13.702308 29507 net.cpp:156] Memory required for data: 1327048224
I0403 14:16:13.702332 29507 layer_factory.hpp:77] Creating layer inception_5b/relu_1x1
I0403 14:16:13.702353 29507 net.cpp:91] Creating Layer inception_5b/relu_1x1
I0403 14:16:13.702369 29507 net.cpp:425] inception_5b/relu_1x1 <- inception_5b/1x1
I0403 14:16:13.702389 29507 net.cpp:386] inception_5b/relu_1x1 -> inception_5b/1x1 (in-place)
I0403 14:16:13.702702 29507 net.cpp:141] Setting up inception_5b/relu_1x1
I0403 14:16:13.702729 29507 net.cpp:148] Top shape: 24 384 7 7 (451584)
I0403 14:16:13.702745 29507 net.cpp:156] Memory required for data: 1328854560
I0403 14:16:13.702760 29507 layer_factory.hpp:77] Creating layer inception_5b/3x3_reduce
I0403 14:16:13.702785 29507 net.cpp:91] Creating Layer inception_5b/3x3_reduce
I0403 14:16:13.702803 29507 net.cpp:425] inception_5b/3x3_reduce <- inception_5a/output_inception_5a/output_0_split_1
I0403 14:16:13.702826 29507 net.cpp:399] inception_5b/3x3_reduce -> inception_5b/3x3_reduce
I0403 14:16:13.705541 29507 net.cpp:141] Setting up inception_5b/3x3_reduce
I0403 14:16:13.705585 29507 net.cpp:148] Top shape: 24 192 7 7 (225792)
I0403 14:16:13.705602 29507 net.cpp:156] Memory required for data: 1329757728
I0403 14:16:13.705622 29507 layer_factory.hpp:77] Creating layer inception_5b/relu_3x3_reduce
I0403 14:16:13.705642 29507 net.cpp:91] Creating Layer inception_5b/relu_3x3_reduce
I0403 14:16:13.705660 29507 net.cpp:425] inception_5b/relu_3x3_reduce <- inception_5b/3x3_reduce
I0403 14:16:13.705679 29507 net.cpp:386] inception_5b/relu_3x3_reduce -> inception_5b/3x3_reduce (in-place)
I0403 14:16:13.705876 29507 net.cpp:141] Setting up inception_5b/relu_3x3_reduce
I0403 14:16:13.705904 29507 net.cpp:148] Top shape: 24 192 7 7 (225792)
I0403 14:16:13.705919 29507 net.cpp:156] Memory required for data: 1330660896
I0403 14:16:13.705935 29507 layer_factory.hpp:77] Creating layer inception_5b/3x3
I0403 14:16:13.705958 29507 net.cpp:91] Creating Layer inception_5b/3x3
I0403 14:16:13.705976 29507 net.cpp:425] inception_5b/3x3 <- inception_5b/3x3_reduce
I0403 14:16:13.705996 29507 net.cpp:399] inception_5b/3x3 -> inception_5b/3x3
I0403 14:16:13.712725 29507 net.cpp:141] Setting up inception_5b/3x3
I0403 14:16:13.712756 29507 net.cpp:148] Top shape: 24 384 7 7 (451584)
I0403 14:16:13.712774 29507 net.cpp:156] Memory required for data: 1332467232
I0403 14:16:13.712791 29507 layer_factory.hpp:77] Creating layer inception_5b/relu_3x3
I0403 14:16:13.712812 29507 net.cpp:91] Creating Layer inception_5b/relu_3x3
I0403 14:16:13.712831 29507 net.cpp:425] inception_5b/relu_3x3 <- inception_5b/3x3
I0403 14:16:13.712848 29507 net.cpp:386] inception_5b/relu_3x3 -> inception_5b/3x3 (in-place)
I0403 14:16:13.713156 29507 net.cpp:141] Setting up inception_5b/relu_3x3
I0403 14:16:13.713184 29507 net.cpp:148] Top shape: 24 384 7 7 (451584)
I0403 14:16:13.713199 29507 net.cpp:156] Memory required for data: 1334273568
I0403 14:16:13.713214 29507 layer_factory.hpp:77] Creating layer inception_5b/5x5_reduce
I0403 14:16:13.713255 29507 net.cpp:91] Creating Layer inception_5b/5x5_reduce
I0403 14:16:13.713275 29507 net.cpp:425] inception_5b/5x5_reduce <- inception_5a/output_inception_5a/output_0_split_2
I0403 14:16:13.713297 29507 net.cpp:399] inception_5b/5x5_reduce -> inception_5b/5x5_reduce
I0403 14:16:13.714640 29507 net.cpp:141] Setting up inception_5b/5x5_reduce
I0403 14:16:13.714668 29507 net.cpp:148] Top shape: 24 48 7 7 (56448)
I0403 14:16:13.714684 29507 net.cpp:156] Memory required for data: 1334499360
I0403 14:16:13.714704 29507 layer_factory.hpp:77] Creating layer inception_5b/relu_5x5_reduce
I0403 14:16:13.714725 29507 net.cpp:91] Creating Layer inception_5b/relu_5x5_reduce
I0403 14:16:13.714745 29507 net.cpp:425] inception_5b/relu_5x5_reduce <- inception_5b/5x5_reduce
I0403 14:16:13.714766 29507 net.cpp:386] inception_5b/relu_5x5_reduce -> inception_5b/5x5_reduce (in-place)
I0403 14:16:13.715143 29507 net.cpp:141] Setting up inception_5b/relu_5x5_reduce
I0403 14:16:13.715170 29507 net.cpp:148] Top shape: 24 48 7 7 (56448)
I0403 14:16:13.715186 29507 net.cpp:156] Memory required for data: 1334725152
I0403 14:16:13.715203 29507 layer_factory.hpp:77] Creating layer inception_5b/5x5
I0403 14:16:13.715222 29507 net.cpp:91] Creating Layer inception_5b/5x5
I0403 14:16:13.715240 29507 net.cpp:425] inception_5b/5x5 <- inception_5b/5x5_reduce
I0403 14:16:13.715260 29507 net.cpp:399] inception_5b/5x5 -> inception_5b/5x5
I0403 14:16:13.717401 29507 net.cpp:141] Setting up inception_5b/5x5
I0403 14:16:13.717429 29507 net.cpp:148] Top shape: 24 128 7 7 (150528)
I0403 14:16:13.717447 29507 net.cpp:156] Memory required for data: 1335327264
I0403 14:16:13.717465 29507 layer_factory.hpp:77] Creating layer inception_5b/relu_5x5
I0403 14:16:13.717491 29507 net.cpp:91] Creating Layer inception_5b/relu_5x5
I0403 14:16:13.717509 29507 net.cpp:425] inception_5b/relu_5x5 <- inception_5b/5x5
I0403 14:16:13.717527 29507 net.cpp:386] inception_5b/relu_5x5 -> inception_5b/5x5 (in-place)
I0403 14:16:13.717736 29507 net.cpp:141] Setting up inception_5b/relu_5x5
I0403 14:16:13.717763 29507 net.cpp:148] Top shape: 24 128 7 7 (150528)
I0403 14:16:13.717780 29507 net.cpp:156] Memory required for data: 1335929376
I0403 14:16:13.717795 29507 layer_factory.hpp:77] Creating layer inception_5b/pool
I0403 14:16:13.717814 29507 net.cpp:91] Creating Layer inception_5b/pool
I0403 14:16:13.717831 29507 net.cpp:425] inception_5b/pool <- inception_5a/output_inception_5a/output_0_split_3
I0403 14:16:13.717854 29507 net.cpp:399] inception_5b/pool -> inception_5b/pool
I0403 14:16:13.717931 29507 net.cpp:141] Setting up inception_5b/pool
I0403 14:16:13.717957 29507 net.cpp:148] Top shape: 24 832 7 7 (978432)
I0403 14:16:13.717972 29507 net.cpp:156] Memory required for data: 1339843104
I0403 14:16:13.717986 29507 layer_factory.hpp:77] Creating layer inception_5b/pool_proj
I0403 14:16:13.718009 29507 net.cpp:91] Creating Layer inception_5b/pool_proj
I0403 14:16:13.718029 29507 net.cpp:425] inception_5b/pool_proj <- inception_5b/pool
I0403 14:16:13.718050 29507 net.cpp:399] inception_5b/pool_proj -> inception_5b/pool_proj
I0403 14:16:13.720489 29507 net.cpp:141] Setting up inception_5b/pool_proj
I0403 14:16:13.720521 29507 net.cpp:148] Top shape: 24 128 7 7 (150528)
I0403 14:16:13.720541 29507 net.cpp:156] Memory required for data: 1340445216
I0403 14:16:13.720559 29507 layer_factory.hpp:77] Creating layer inception_5b/relu_pool_proj
I0403 14:16:13.720580 29507 net.cpp:91] Creating Layer inception_5b/relu_pool_proj
I0403 14:16:13.720598 29507 net.cpp:425] inception_5b/relu_pool_proj <- inception_5b/pool_proj
I0403 14:16:13.720618 29507 net.cpp:386] inception_5b/relu_pool_proj -> inception_5b/pool_proj (in-place)
I0403 14:16:13.720935 29507 net.cpp:141] Setting up inception_5b/relu_pool_proj
I0403 14:16:13.720963 29507 net.cpp:148] Top shape: 24 128 7 7 (150528)
I0403 14:16:13.720979 29507 net.cpp:156] Memory required for data: 1341047328
I0403 14:16:13.720994 29507 layer_factory.hpp:77] Creating layer inception_5b/output
I0403 14:16:13.721014 29507 net.cpp:91] Creating Layer inception_5b/output
I0403 14:16:13.721045 29507 net.cpp:425] inception_5b/output <- inception_5b/1x1
I0403 14:16:13.721066 29507 net.cpp:425] inception_5b/output <- inception_5b/3x3
I0403 14:16:13.721086 29507 net.cpp:425] inception_5b/output <- inception_5b/5x5
I0403 14:16:13.721104 29507 net.cpp:425] inception_5b/output <- inception_5b/pool_proj
I0403 14:16:13.721122 29507 net.cpp:399] inception_5b/output -> inception_5b/output
I0403 14:16:13.721179 29507 net.cpp:141] Setting up inception_5b/output
I0403 14:16:13.721204 29507 net.cpp:148] Top shape: 24 1024 7 7 (1204224)
I0403 14:16:13.721218 29507 net.cpp:156] Memory required for data: 1345864224
I0403 14:16:13.721235 29507 layer_factory.hpp:77] Creating layer pool5/7x7_s1
I0403 14:16:13.721253 29507 net.cpp:91] Creating Layer pool5/7x7_s1
I0403 14:16:13.721271 29507 net.cpp:425] pool5/7x7_s1 <- inception_5b/output
I0403 14:16:13.721292 29507 net.cpp:399] pool5/7x7_s1 -> pool5/7x7_s1
I0403 14:16:13.721523 29507 net.cpp:141] Setting up pool5/7x7_s1
I0403 14:16:13.721550 29507 net.cpp:148] Top shape: 24 1024 1 1 (24576)
I0403 14:16:13.721567 29507 net.cpp:156] Memory required for data: 1345962528
I0403 14:16:13.721583 29507 layer_factory.hpp:77] Creating layer pool5/drop_7x7_s1
I0403 14:16:13.721604 29507 net.cpp:91] Creating Layer pool5/drop_7x7_s1
I0403 14:16:13.721622 29507 net.cpp:425] pool5/drop_7x7_s1 <- pool5/7x7_s1
I0403 14:16:13.721642 29507 net.cpp:386] pool5/drop_7x7_s1 -> pool5/7x7_s1 (in-place)
I0403 14:16:13.721695 29507 net.cpp:141] Setting up pool5/drop_7x7_s1
I0403 14:16:13.721720 29507 net.cpp:148] Top shape: 24 1024 1 1 (24576)
I0403 14:16:13.721736 29507 net.cpp:156] Memory required for data: 1346060832
I0403 14:16:13.721751 29507 layer_factory.hpp:77] Creating layer loss3/classifier_plantvillage
I0403 14:16:13.721771 29507 net.cpp:91] Creating Layer loss3/classifier_plantvillage
I0403 14:16:13.721787 29507 net.cpp:425] loss3/classifier_plantvillage <- pool5/7x7_s1
I0403 14:16:13.721809 29507 net.cpp:399] loss3/classifier_plantvillage -> loss3/classifier_plantvillage
I0403 14:16:13.722256 29507 net.cpp:141] Setting up loss3/classifier_plantvillage
I0403 14:16:13.722282 29507 net.cpp:148] Top shape: 24 38 (912)
I0403 14:16:13.722300 29507 net.cpp:156] Memory required for data: 1346064480
I0403 14:16:13.722322 29507 layer_factory.hpp:77] Creating layer loss3/classifier_plantvillage_loss3/classifier_plantvillage_0_split
I0403 14:16:13.722343 29507 net.cpp:91] Creating Layer loss3/classifier_plantvillage_loss3/classifier_plantvillage_0_split
I0403 14:16:13.722359 29507 net.cpp:425] loss3/classifier_plantvillage_loss3/classifier_plantvillage_0_split <- loss3/classifier_plantvillage
I0403 14:16:13.722381 29507 net.cpp:399] loss3/classifier_plantvillage_loss3/classifier_plantvillage_0_split -> loss3/classifier_plantvillage_loss3/classifier_plantvillage_0_split_0
I0403 14:16:13.722404 29507 net.cpp:399] loss3/classifier_plantvillage_loss3/classifier_plantvillage_0_split -> loss3/classifier_plantvillage_loss3/classifier_plantvillage_0_split_1
I0403 14:16:13.722426 29507 net.cpp:399] loss3/classifier_plantvillage_loss3/classifier_plantvillage_0_split -> loss3/classifier_plantvillage_loss3/classifier_plantvillage_0_split_2
I0403 14:16:13.722448 29507 net.cpp:399] loss3/classifier_plantvillage_loss3/classifier_plantvillage_0_split -> loss3/classifier_plantvillage_loss3/classifier_plantvillage_0_split_3
I0403 14:16:13.722554 29507 net.cpp:141] Setting up loss3/classifier_plantvillage_loss3/classifier_plantvillage_0_split
I0403 14:16:13.722580 29507 net.cpp:148] Top shape: 24 38 (912)
I0403 14:16:13.722599 29507 net.cpp:148] Top shape: 24 38 (912)
I0403 14:16:13.722615 29507 net.cpp:148] Top shape: 24 38 (912)
I0403 14:16:13.722631 29507 net.cpp:148] Top shape: 24 38 (912)
I0403 14:16:13.722647 29507 net.cpp:156] Memory required for data: 1346079072
I0403 14:16:13.722662 29507 layer_factory.hpp:77] Creating layer loss1/loss
I0403 14:16:13.722686 29507 net.cpp:91] Creating Layer loss1/loss
I0403 14:16:13.722703 29507 net.cpp:425] loss1/loss <- loss1/classifier_plantvillage_loss1/classifier_plantvillage_0_split_0
I0403 14:16:13.722736 29507 net.cpp:425] loss1/loss <- label_data_1_split_0
…
