…
I0403 14:10:44.966845 29406 net.cpp:313] The NetState phase (1) differed from the phase (0) specified by a rule in layer data
I0403 14:10:44.968072 29406 net.cpp:49] Initializing net from parameters: 
state {
  phase: TEST
}
layer {
  name: "data"
  type: "Data"
  top: "data"
  top: "label"
  include {
    phase: TEST
  }
  transform_param {
    mirror: false
    crop_size: 224
    mean_file: "/home/mohanty/data/final_dataset/lmdb/color-20-80/mean.binaryproto"
  }
  data_param {
    source: "/home/mohanty/data/final_dataset/lmdb/color-20-80/test_db"
    batch_size: 24
    backend: LMDB
  }
}
layer {
  name: "conv1/7x7_s2"
  type: "Convolution"
  bottom: "data"
  top: "conv1/7x7_s2"
  param {
    lr_mult: 1
    decay_mult: 1
  }
  param {
    lr_mult: 2
    decay_mult: 0
  }
  convolution_param {
    num_output: 64
    pad: 3
    kernel_size: 7
    stride: 2
    weight_filler {
      type: "xavier"
      std: 0.1
    }
    bias_filler {
      type: "constant"
      value: 0.2
    }
  }
}
layer {
  name: "conv1/relu_7x7"
  type: "ReLU"
  bottom: "conv1/7x7_s2"
  top: "conv1/7x7_s2"
}
layer {
  name: "pool1/3x3_s2"
  type: "Pooling"
  bottom: "conv1/7x7_s2"
  top: "pool1/3x3_s2"
  pooling_param {
    pool: MAX
    kernel_size: 3
    stride: 2
  }
}
layer {
  name: "pool1/norm1"
  type: "LRN"
  bottom: "pool1/3x3_s2"
  top: "pool1/norm1"
  lrn_param {
    local_size: 5
    alpha: 0.0001
    beta: 0.75
  }
}
layer {
  name: "conv2/3x3_reduce"
  type: "Convolution"
  bottom: "pool1/norm1"
  top: "conv2/3x3_reduce"
  param {
    lr_mult: 1
    decay_mult: 1
  }
  param {
    lr_mult: 2
    decay_mult: 0
  }
  convolution_param {
    num_output: 64
    kernel_size: 1
    weight_filler {
      type: "xavier"
      std: 0.1
    }
    bias_filler {
      type: "constant"
      value: 0.2
    }
  }
}
layer {
  name: "conv2/relu_3x3_reduce"
  type: "ReLU"
  bottom: "conv2/3x3_reduce"
  top: "conv2/3x3_reduce"
}
layer {
  name: "conv2/3x3"
  type: "Convolution"
  bottom: "conv2/3x3_reduce"
  top: "conv2/3x3"
  param {
    lr_mult: 1
    decay_mult: 1
  }
  param {
    lr_mult: 2
    decay_mult: 0
  }
  convolution_param {
    num_output: 192
    pad: 1
    kernel_size: 3
    weight_filler {
      type: "xavier"
      std: 0.03
    }
    bias_filler {
      type: "constant"
      value: 0.2
    }
  }
}
layer {
  name: "conv2/relu_3x3"
  type: "ReLU"
  bottom: "conv2/3x3"
  top: "conv2/3x3"
}
layer {
  name: "conv2/norm2"
  type: "LRN"
  bottom: "conv2/3x3"
  top: "conv2/norm2"
  lrn_param {
    local_size: 5
    alpha: 0.0001
    beta: 0.75
  }
}
layer {
  name: "pool2/3x3_s2"
  type: "Pooling"
  bottom: "conv2/norm2"
  top: "pool2/3x3_s2"
  pooling_param {
    pool: MAX
    kernel_size: 3
    stride: 2
  }
}
layer {
  name: "inception_3a/1x1"
  type: "Convolution"
  bottom: "pool2/3x3_s2"
  top: "inception_3a/1x1"
  param {
    lr_mult: 1
    decay_mult: 1
  }
  param {
    lr_mult: 2
    decay_mult: 0
  }
  convolution_param {
    num_output: 64
    kernel_size: 1
    weight_filler {
      type: "xavier"
      std: 0.03
    }
    bias_filler {
      type: "constant"
      value: 0.2
    }
  }
}
layer {
  name: "inception_3a/relu_1x1"
  type: "ReLU"
  bottom: "inception_3a/1x1"
  top: "inception_3a/1x1"
}
layer {
  name: "inception_3a/3x3_reduce"
  type: "Convolution"
  bottom: "pool2/3x3_s2"
  top: "inception_3a/3x3_reduce"
  param {
    lr_mult: 1
    decay_mult: 1
  }
  param {
    lr_mult: 2
    decay_mult: 0
  }
  convolution_param {
    num_output: 96
    kernel_size: 1
    weight_filler {
      type: "xavier"
      std: 0.09
    }
    bias_filler {
      type: "constant"
      value: 0.2
    }
  }
}
layer {
  name: "inception_3a/relu_3x3_reduce"
  type: "ReLU"
  bottom: "inception_3a/3x3_reduce"
  top: "inception_3a/3x3_reduce"
}
layer {
  name: "inception_3a/3x3"
  type: "Convolution"
  bottom: "inception_3a/3x3_reduce"
  top: "inception_3a/3x3"
  param {
    lr_mult: 1
    decay_mult: 1
  }
  param {
    lr_mult: 2
    decay_mult: 0
  }
  convolution_param {
    num_output: 128
    pad: 1
    kernel_size: 3
    weight_filler {
      type: "xavier"
      std: 0.03
    }
    bias_filler {
      type: "constant"
      value: 0.2
    }
  }
}
layer {
  name: "inception_3a/relu_3x3"
  type: "ReLU"
  bottom: "inception_3a/3x3"
  top: "inception_3a/3x3"
}
layer {
  name: "inception_3a/5x5_reduce"
  type: "Convolution"
  bottom: "pool2/3x3_s2"
  top: "inception_3a/5x5_reduce"
  param {
    lr_mult: 1
    decay_mult: 1
  }
  param {
    lr_mult: 2
    decay_mult: 0
  }
  convolution_param {
    num_output: 16
    kernel_size: 1
    weight_filler {
      type: "xavier"
      std: 0.2
    }
    bias_filler {
      type: "constant"
      value: 0.2
    }
  }
}
layer {
  name: "inception_3a/relu_5x5_reduce"
  type: "ReLU"
  bottom: "inception_3a/5x5_reduce"
  top: "inception_3a/5x5_reduce"
}
layer {
  name: "inception_3a/5x5"
  type: "Convolution"
  bottom: "inception_3a/5x5_reduce"
  top: "inception_3a/5x5"
  param {
    lr_mult: 1
    decay_mult: 1
  }
  param {
    lr_mult: 2
    decay_mult: 0
  }
  convolution_param {
    num_output: 32
    pad: 2
    kernel_size: 5
    weight_filler {
      type: "xavier"
      std: 0.03
    }
    bias_filler {
      type: "constant"
      value: 0.2
    }
  }
}
layer {
  name: "inception_3a/relu_5x5"
  type: "ReLU"
  bottom: "inception_3a/5x5"
  top: "inception_3a/5x5"
}
layer {
  name: "inception_3a/pool"
  type: "Pooling"
  bottom: "pool2/3x3_s2"
  top: "inception_3a/pool"
  pooling_param {
    pool: MAX
    kernel_size: 3
    stride: 1
    pad: 1
  }
}
layer {
  name: "inception_3a/pool_proj"
  type: "Convolution"
  bottom: "inception_3a/pool"
  top: "inception_3a/pool_proj"
  param {
    lr_mult: 1
    decay_mult: 1
  }
  param {
    lr_mult: 2
    decay_mult: 0
  }
  convolution_param {
    num_output: 32
    kernel_size: 1
    weight_filler {
      type: "xavier"
      std: 0.1
    }
    bias_filler {
      type: "constant"
      value: 0.2
    }
  }
}
layer {
  name: "inception_3a/relu_pool_proj"
  type: "ReLU"
  bottom: "inception_3a/pool_proj"
  top: "inception_3a/pool_proj"
}
layer {
  name: "inception_3a/output"
  type: "Concat"
  bottom: "inception_3a/1x1"
  bottom: "inception_3a/3x3"
  bottom: "inception_3a/5x5"
  bottom: "inception_3a/pool_proj"
  top: "inception_3a/output"
}
layer {
  name: "inception_3b/1x1"
  type: "Convolution"
  bottom: "inception_3a/output"
  top: "inception_3b/1x1"
  param {
    lr_mult: 1
    decay_mult: 1
  }
  param {
    lr_mult: 2
    decay_mult: 0
  }
  convolution_param {
    num_output: 128
    kernel_size: 1
    weight_filler {
      type: "xavier"
      std: 0.03
    }
    bias_filler {
      type: "constant"
      value: 0.2
    }
  }
}
layer {
  name: "inception_3b/relu_1x1"
  type: "ReLU"
  bottom: "inception_3b/1x1"
  top: "inception_3b/1x1"
}
layer {
  name: "inception_3b/3x3_reduce"
  type: "Convolution"
  bottom: "inception_3a/output"
  top: "inception_3b/3x3_reduce"
  param {
    lr_mult: 1
    decay_mult: 1
  }
  param {
    lr_mult: 2
    decay_mult: 0
  }
  convolution_param {
    num_output: 128
    kernel_size: 1
    weight_filler {
      type: "xavier"
      std: 0.09
    }
    bias_filler {
      type: "constant"
      value: 0.2
    }
  }
}
layer {
  name: "inception_3b/relu_3x3_reduce"
  type: "ReLU"
  bottom: "inception_3b/3x3_reduce"
  top: "inception_3b/3x3_reduce"
}
layer {
  name: "inception_3b/3x3"
  type: "Convolution"
  bottom: "inception_3b/3x3_reduce"
  top: "inception_3b/3x3"
  param {
    lr_mult: 1
    decay_mult: 1
  }
  param {
    lr_mult: 2
    decay_mult: 0
  }
  convolution_param {
    num_output: 192
    pad: 1
    kernel_size: 3
    weight_filler {
      type: "xavier"
      std: 0.03
    }
    bias_filler {
      type: "constant"
      value: 0.2
    }
  }
}
layer {
  name: "inception_3b/relu_3x3"
  type: "ReLU"
  bottom: "inception_3b/3x3"
  top: "inception_3b/3x3"
}
layer {
  name: "inception_3b/5x5_reduce"
  type: "Convolution"
  bottom: "inception_3a/output"
  top: "inception_3b/5x5_reduce"
  param {
    lr_mult: 1
    decay_mult: 1
  }
  param {
    lr_mult: 2
    decay_mult: 0
  }
  convolution_param {
    num_output: 32
    kernel_size: 1
    weight_filler {
      type: "xavier"
      std: 0.2
    }
    bias_filler {
      type: "constant"
      value: 0.2
    }
  }
}
layer {
  name: "inception_3b/relu_5x5_reduce"
  type: "ReLU"
  bottom: "inception_3b/5x5_reduce"
  top: "inception_3b/5x5_reduce"
}
layer {
  name: "inception_3b/5x5"
  type: "Convolution"
  bottom: "inception_3b/5x5_reduce"
  top: "inception_3b/5x5"
  param {
    lr_mult: 1
    decay_mult: 1
  }
  param {
    lr_mult: 2
    decay_mult: 0
  }
  convolution_param {
    num_output: 96
    pad: 2
    kernel_size: 5
    weight_filler {
      type: "xavier"
      std: 0.03
    }
    bias_filler {
      type: "constant"
      value: 0.2
    }
  }
}
layer {
  name: "inception_3b/relu_5x5"
  type: "ReLU"
  bottom: "inception_3b/5x5"
  top: "inception_3b/5x5"
}
layer {
  name: "inception_3b/pool"
  type: "Pooling"
  bottom: "inception_3a/output"
  top: "inception_3b/pool"
  pooling_param {
    pool: MAX
    kernel_size: 3
    stride: 1
    pad: 1
  }
}
layer {
  name: "inception_3b/pool_proj"
  type: "Convolution"
  bottom: "inception_3b/pool"
  top: "inception_3b/pool_proj"
  param {
    lr_mult: 1
    decay_mult: 1
  }
  param {
    lr_mult: 2
    decay_mult: 0
  }
  convolution_param {
    num_output: 64
    kernel_size: 1
    weight_filler {
      type: "xavier"
      std: 0.1
    }
    bias_filler {
      type: "constant"
      value: 0.2
    }
  }
}
layer {
  name: "inception_3b/relu_pool_proj"
  type: "ReLU"
  bottom: "inception_3b/pool_proj"
  top: "inception_3b/pool_proj"
}
layer {
  name: "inception_3b/output"
  type: "Concat"
  bottom: "inception_3b/1x1"
  bottom: "inception_3b/3x3"
  bottom: "inception_3b/5x5"
  bottom: "inception_3b/pool_proj"
  top: "inception_3b/output"
}
layer {
  name: "pool3/3x3_s2"
  type: "Pooling"
  bottom: "inception_3b/output"
  top: "pool3/3x3_s2"
  pooling_param {
    pool: MAX
    kernel_size: 3
    stride: 2
  }
}
layer {
  name: "inception_4a/1x1"
  type: "Convolution"
  bottom: "pool3/3x3_s2"
  top: "inception_4a/1x1"
  param {
    lr_mult: 1
    decay_mult: 1
  }
  param {
    lr_mult: 2
    decay_mult: 0
  }
  convolution_param {
    num_output: 192
    kernel_size: 1
    weight_filler {
      type: "xavier"
      std: 0.03
    }
    bias_filler {
      type: "constant"
      value: 0.2
    }
  }
}
layer {
  name: "inception_4a/relu_1x1"
  type: "ReLU"
  bottom: "inception_4a/1x1"
  top: "inception_4a/1x1"
}
layer {
  name: "inception_4a/3x3_reduce"
  type: "Convolution"
  bottom: "pool3/3x3_s2"
  top: "inception_4a/3x3_reduce"
  param {
    lr_mult: 1
    decay_mult: 1
  }
  param {
    lr_mult: 2
    decay_mult: 0
  }
  convolution_param {
    num_output: 96
    kernel_size: 1
    weight_filler {
      type: "xavier"
      std: 0.09
    }
    bias_filler {
      type: "constant"
      value: 0.2
    }
  }
}
layer {
  name: "inception_4a/relu_3x3_reduce"
  type: "ReLU"
  bottom: "inception_4a/3x3_reduce"
  top: "inception_4a/3x3_reduce"
}
layer {
  name: "inception_4a/3x3"
  type: "Convolution"
  bottom: "inception_4a/3x3_reduce"
  top: "inception_4a/3x3"
  param {
    lr_mult: 1
    decay_mult: 1
  }
  param {
    lr_mult: 2
    decay_mult: 0
  }
  convolution_param {
    num_output: 208
    pad: 1
    kernel_size: 3
    weight_filler {
      type: "xavier"
      std: 0.03
    }
    bias_filler {
      type: "constant"
      value: 0.2
    }
  }
}
layer {
  name: "inception_4a/relu_3x3"
  type: "ReLU"
  bottom: "inception_4a/3x3"
  top: "inception_4a/3x3"
}
layer {
  name: "inception_4a/5x5_reduce"
  type: "Convolution"
  bottom: "pool3/3x3_s2"
  top: "inception_4a/5x5_reduce"
  param {
    lr_mult: 1
    decay_mult: 1
  }
  param {
    lr_mult: 2
    decay_mult: 0
  }
  convolution_param {
    num_output: 16
    kernel_size: 1
    weight_filler {
      type: "xavier"
      std: 0.2
    }
    bias_filler {
      type: "constant"
      value: 0.2
    }
  }
}
layer {
  name: "inception_4a/relu_5x5_reduce"
  type: "ReLU"
  bottom: "inception_4a/5x5_reduce"
  top: "inception_4a/5x5_reduce"
}
layer {
  name: "inception_4a/5x5"
  type: "Convolution"
  bottom: "inception_4a/5x5_reduce"
  top: "inception_4a/5x5"
  param {
    lr_mult: 1
    decay_mult: 1
  }
  param {
    lr_mult: 2
    decay_mult: 0
  }
  convolution_param {
    num_output: 48
    pad: 2
    kernel_size: 5
    weight_filler {
      type: "xavier"
      std: 0.03
    }
    bias_filler {
      type: "constant"
      value: 0.2
    }
  }
}
layer {
  name: "inception_4a/relu_5x5"
  type: "ReLU"
  bottom: "inception_4a/5x5"
  top: "inception_4a/5x5"
}
layer {
  name: "inception_4a/pool"
  type: "Pooling"
  bottom: "pool3/3x3_s2"
  top: "inception_4a/pool"
  pooling_param {
    pool: MAX
    kernel_size: 3
    stride: 1
    pad: 1
  }
}
layer {
  name: "inception_4a/pool_proj"
  type: "Convolution"
  bottom: "inception_4a/pool"
  top: "inception_4a/pool_proj"
  param {
    lr_mult: 1
    decay_mult: 1
  }
  param {
    lr_mult: 2
    decay_mult: 0
  }
  convolution_param {
    num_output: 64
    kernel_size: 1
    weight_filler {
      type: "xavier"
      std: 0.1
    }
    bias_filler {
      type: "constant"
      value: 0.2
    }
  }
}
layer {
  name: "inception_4a/relu_pool_proj"
  type: "ReLU"
  bottom: "inception_4a/pool_proj"
  top: "inception_4a/pool_proj"
}
layer {
  name: "inception_4a/output"
  type: "Concat"
  bottom: "inception_4a/1x1"
  bottom: "inception_4a/3x3"
  bottom: "inception_4a/5x5"
  bottom: "inception_4a/pool_proj"
  top: "inception_4a/output"
}
layer {
  name: "loss1/ave_pool"
  type: "Pooling"
  bottom: "inception_4a/output"
  top: "loss1/ave_pool"
  pooling_param {
    pool: AVE
    kernel_size: 5
    stride: 3
  }
}
layer {
  name: "loss1/conv"
  type: "Convolution"
  bottom: "loss1/ave_pool"
  top: "loss1/conv"
  param {
    lr_mult: 1
    decay_mult: 1
  }
  param {
    lr_mult: 2
    decay_mult: 0
  }
  convolution_param {
    num_output: 128
    kernel_size: 1
    weight_filler {
      type: "xavier"
      std: 0.08
    }
    bias_filler {
      type: "constant"
      value: 0.2
    }
  }
}
layer {
  name: "loss1/relu_conv"
  type: "ReLU"
  bottom: "loss1/conv"
  top: "loss1/conv"
}
layer {
  name: "loss1/fc"
  type: "InnerProduct"
  bottom: "loss1/conv"
  top: "loss1/fc"
  param {
    lr_mult: 1
    decay_mult: 1
  }
  param {
    lr_mult: 2
    decay_mult: 0
  }
  inner_product_param {
    num_output: 1024
    weight_filler {
      type: "xavier"
      std: 0.02
    }
    bias_filler {
      type: "constant"
      value: 0.2
    }
  }
}
layer {
  name: "loss1/relu_fc"
  type: "ReLU"
  bottom: "loss1/fc"
  top: "loss1/fc"
}
layer {
  name: "loss1/drop_fc"
  type: "Dropout"
  bottom: "loss1/fc"
  top: "loss1/fc"
  dropout_param {
    dropout_ratio: 0.7
  }
}
layer {
  name: "loss1/classifier_plantvillage"
  type: "InnerProduct"
  bottom: "loss1/fc"
  top: "loss1/classifier_plantvillage"
  param {
    lr_mult: 1
    decay_mult: 1
  }
  param {
    lr_mult: 2
    decay_mult: 0
  }
  inner_product_param {
    num_output: 38
    weight_filler {
      type: "xavier"
      std: 0.0009765625
    }
    bias_filler {
      type: "constant"
      value: 0
    }
  }
}
layer {
  name: "inception_4b/1x1"
  type: "Convolution"
  bottom: "inception_4a/output"
  top: "inception_4b/1x1"
  param {
    lr_mult: 1
    decay_mult: 1
  }
  param {
    lr_mult: 2
    decay_mult: 0
  }
  convolution_param {
    num_output: 160
    kernel_size: 1
    weight_filler {
      type: "xavier"
      std: 0.03
    }
    bias_filler {
      type: "constant"
      value: 0.2
    }
  }
}
layer {
  name: "inception_4b/relu_1x1"
  type: "ReLU"
  bottom: "inception_4b/1x1"
  top: "inception_4b/1x1"
}
layer {
  name: "inception_4b/3x3_reduce"
  type: "Convolution"
  bottom: "inception_4a/output"
  top: "inception_4b/3x3_reduce"
  param {
    lr_mult: 1
    decay_mult: 1
  }
  param {
    lr_mult: 2
    decay_mult: 0
  }
  convolution_param {
    num_output: 112
    kernel_size: 1
    weight_filler {
      type: "xavier"
      std: 0.09
    }
    bias_filler {
      type: "constant"
      value: 0.2
    }
  }
}
layer {
  name: "inception_4b/relu_3x3_reduce"
  type: "ReLU"
  bottom: "inception_4b/3x3_reduce"
  top: "inception_4b/3x3_reduce"
}
layer {
  name: "inception_4b/3x3"
  type: "Convolution"
  bottom: "inception_4b/3x3_reduce"
  top: "inception_4b/3x3"
  param {
    lr_mult: 1
    decay_mult: 1
  }
  param {
    lr_mult: 2
    decay_mult: 0
  }
  convolution_param {
    num_output: 224
    pad: 1
    kernel_size: 3
    weight_filler {
      type: "xavier"
      std: 0.03
    }
    bias_filler {
      type: "constant"
      value: 0.2
    }
  }
}
layer {
  name: "inception_4b/relu_3x3"
  type: "ReLU"
  bottom: "inception_4b/3x3"
  top: "inception_4b/3x3"
}
layer {
  name: "inception_4b/5x5_reduce"
  type: "Convolution"
  bottom: "inception_4a/output"
  top: "inception_4b/5x5_reduce"
  param {
    lr_mult: 1
    decay_mult: 1
  }
  param {
    lr_mult: 2
    decay_mult: 0
  }
  convolution_param {
    num_output: 24
    kernel_size: 1
    weight_filler {
      type: "xavier"
      std: 0.2
    }
    bias_filler {
      type: "constant"
      value: 0.2
    }
  }
}
layer {
  name: "inception_4b/relu_5x5_reduce"
  type: "ReLU"
  bottom: "inception_4b/5x5_reduce"
  top: "inception_4b/5x5_reduce"
}
layer {
  name: "inception_4b/5x5"
  type: "Convolution"
  bottom: "inception_4b/5x5_reduce"
  top: "inception_4b/5x5"
  param {
    lr_mult: 1
    decay_mult: 1
  }
  param {
    lr_mult: 2
    decay_mult: 0
  }
  convolution_param {
    num_output: 64
    pad: 2
    kernel_size: 5
    weight_filler {
      type: "xavier"
      std: 0.03
    }
    bias_filler {
      type: "constant"
      value: 0.2
    }
  }
}
layer {
  name: "inception_4b/relu_5x5"
  type: "ReLU"
  bottom: "inception_4b/5x5"
  top: "inception_4b/5x5"
}
layer {
  name: "inception_4b/pool"
  type: "Pooling"
  bottom: "inception_4a/output"
  top: "inception_4b/pool"
  pooling_param {
    pool: MAX
    kernel_size: 3
    stride: 1
    pad: 1
  }
}
layer {
  name: "inception_4b/pool_proj"
  type: "Convolution"
  bottom: "inception_4b/pool"
  top: "inception_4b/pool_proj"
  param {
    lr_mult: 1
    decay_mult: 1
  }
  param {
    lr_mult: 2
    decay_mult: 0
  }
  convolution_param {
    num_output: 64
    kernel_size: 1
    weight_filler {
      type: "xavier"
      std: 0.1
    }
    bias_filler {
      type: "constant"
      value: 0.2
    }
  }
}
layer {
  name: "inception_4b/relu_pool_proj"
  type: "ReLU"
  bottom: "inception_4b/pool_proj"
  top: "inception_4b/pool_proj"
}
layer {
  name: "inception_4b/output"
  type: "Concat"
  bottom: "inception_4b/1x1"
  bottom: "inception_4b/3x3"
  bottom: "inception_4b/5x5"
  bottom: "inception_4b/pool_proj"
  top: "inception_4b/output"
}
layer {
  name: "inception_4c/1x1"
  type: "Convolution"
  bottom: "inception_4b/output"
  top: "inception_4c/1x1"
  param {
    lr_mult: 1
    decay_mult: 1
  }
  param {
    lr_mult: 2
    decay_mult: 0
  }
  convolution_param {
    num_output: 128
    kernel_size: 1
    weight_filler {
      type: "xavier"
      std: 0.03
    }
    bias_filler {
      type: "constant"
      value: 0.2
    }
  }
}
layer {
  name: "inception_4c/relu_1x1"
  type: "ReLU"
  bottom: "inception_4c/1x1"
  top: "inception_4c/1x1"
}
layer {
  name: "inception_4c/3x3_reduce"
  type: "Convolution"
  bottom: "inception_4b/output"
  top: "inception_4c/3x3_reduce"
  param {
    lr_mult: 1
    decay_mult: 1
  }
  param {
    lr_mult: 2
    decay_mult: 0
  }
  convolution_param {
    num_output: 128
    kernel_size: 1
    weight_filler {
      type: "xavier"
      std: 0.09
    }
    bias_filler {
      type: "constant"
      value: 0.2
    }
  }
}
layer {
  name: "inception_4c/relu_3x3_reduce"
  type: "ReLU"
  bottom: "inception_4c/3x3_reduce"
  top: "inception_4c/3x3_reduce"
}
layer {
  name: "inception_4c/3x3"
  type: "Convolution"
  bottom: "inception_4c/3x3_reduce"
  top: "inception_4c/3x3"
  param {
    lr_mult: 1
    decay_mult: 1
  }
  param {
    lr_mult: 2
    decay_mult: 0
  }
  convolution_param {
    num_output: 256
    pad: 1
    kernel_size: 3
    weight_filler {
      type: "xavier"
      std: 0.03
    }
    bias_filler {
      type: "constant"
      value: 0.2
    }
  }
}
layer {
  name: "inception_4c/relu_3x3"
  type: "ReLU"
  bottom: "inception_4c/3x3"
  top: "inception_4c/3x3"
}
layer {
  name: "inception_4c/5x5_reduce"
  type: "Convolution"
  bottom: "inception_4b/output"
  top: "inception_4c/5x5_reduce"
  param {
    lr_mult: 1
    decay_mult: 1
  }
  param {
    lr_mult: 2
    decay_mult: 0
  }
  convolution_param {
    num_output: 24
    kernel_size: 1
    weight_filler {
      type: "xavier"
      std: 0.2
    }
    bias_filler {
      type: "constant"
      value: 0.2
    }
  }
}
layer {
  name: "inception_4c/relu_5x5_reduce"
  type: "ReLU"
  bottom: "inception_4c/5x5_reduce"
  top: "inception_4c/5x5_reduce"
}
layer {
  name: "inception_4c/5x5"
  type: "Convolution"
  bottom: "inception_4c/5x5_reduce"
  top: "inception_4c/5x5"
  param {
    lr_mult: 1
    decay_mult: 1
  }
  param {
    lr_mult: 2
    decay_mult: 0
  }
  convolution_param {
    num_output: 64
    pad: 2
    kernel_size: 5
    weight_filler {
      type: "xavier"
      std: 0.03
    }
    bias_filler {
      type: "constant"
      value: 0.2
    }
  }
}
layer {
  name: "inception_4c/relu_5x5"
  type: "ReLU"
  bottom: "inception_4c/5x5"
  top: "inception_4c/5x5"
}
layer {
  name: "inception_4c/pool"
  type: "Pooling"
  bottom: "inception_4b/output"
  top: "inception_4c/pool"
  pooling_param {
    pool: MAX
    kernel_size: 3
    stride: 1
    pad: 1
  }
}
layer {
  name: "inception_4c/pool_proj"
  type: "Convolution"
  bottom: "inception_4c/pool"
  top: "inception_4c/pool_proj"
  param {
    lr_mult: 1
    decay_mult: 1
  }
  param {
    lr_mult: 2
    decay_mult: 0
  }
  convolution_param {
    num_output: 64
    kernel_size: 1
    weight_filler {
      type: "xavier"
      std: 0.1
    }
    bias_filler {
      type: "constant"
      value: 0.2
    }
  }
}
layer {
  name: "inception_4c/relu_pool_proj"
  type: "ReLU"
  bottom: "inception_4c/pool_proj"
  top: "inception_4c/pool_proj"
}
layer {
  name: "inception_4c/output"
  type: "Concat"
  bottom: "inception_4c/1x1"
  bottom: "inception_4c/3x3"
  bottom: "inception_4c/5x5"
  bottom: "inception_4c/pool_proj"
  top: "inception_4c/output"
}
layer {
  name: "inception_4d/1x1"
  type: "Convolution"
  bottom: "inception_4c/output"
  top: "inception_4d/1x1"
  param {
    lr_mult: 1
    decay_mult: 1
  }
  param {
    lr_mult: 2
    decay_mult: 0
  }
  convolution_param {
    num_output: 112
    kernel_size: 1
    weight_filler {
      type: "xavier"
      std: 0.03
    }
    bias_filler {
      type: "constant"
      value: 0.2
    }
  }
}
layer {
  name: "inception_4d/relu_1x1"
  type: "ReLU"
  bottom: "inception_4d/1x1"
  top: "inception_4d/1x1"
}
layer {
  name: "inception_4d/3x3_reduce"
  type: "Convolution"
  bottom: "inception_4c/output"
  top: "inception_4d/3x3_reduce"
  param {
    lr_mult: 1
    decay_mult: 1
  }
  param {
    lr_mult: 2
    decay_mult: 0
  }
  convolution_param {
    num_output: 144
    kernel_size: 1
    weight_filler {
      type: "xavier"
      std: 0.09
    }
    bias_filler {
      type: "constant"
      value: 0.2
    }
  }
}
layer {
  name: "inception_4d/relu_3x3_reduce"
  type: "ReLU"
  bottom: "inception_4d/3x3_reduce"
  top: "inception_4d/3x3_reduce"
}
layer {
  name: "inception_4d/3x3"
  type: "Convolution"
  bottom: "inception_4d/3x3_reduce"
  top: "inception_4d/3x3"
  param {
    lr_mult: 1
    decay_mult: 1
  }
  param {
    lr_mult: 2
    decay_mult: 0
  }
  convolution_param {
    num_output: 288
    pad: 1
    kernel_size: 3
    weight_filler {
      type: "xavier"
      std: 0.03
    }
    bias_filler {
      type: "constant"
      value: 0.2
    }
  }
}
layer {
  name: "inception_4d/relu_3x3"
  type: "ReLU"
  bottom: "inception_4d/3x3"
  top: "inception_4d/3x3"
}
layer {
  name: "inception_4d/5x5_reduce"
  type: "Convolution"
  bottom: "inception_4c/output"
  top: "inception_4d/5x5_reduce"
  param {
    lr_mult: 1
    decay_mult: 1
  }
  param {
    lr_mult: 2
    decay_mult: 0
  }
  convolution_param {
    num_output: 32
    kernel_size: 1
    weight_filler {
      type: "xavier"
      std: 0.2
    }
    bias_filler {
      type: "constant"
      value: 0.2
    }
  }
}
layer {
  name: "inception_4d/relu_5x5_reduce"
  type: "ReLU"
  bottom: "inception_4d/5x5_reduce"
  top: "inception_4d/5x5_reduce"
}
layer {
  name: "inception_4d/5x5"
  type: "Convolution"
  bottom: "inception_4d/5x5_reduce"
  top: "inception_4d/5x5"
  param {
    lr_mult: 1
    decay_mult: 1
  }
  param {
    lr_mult: 2
    decay_mult: 0
  }
  convolution_param {
    num_output: 64
    pad: 2
    kernel_size: 5
    weight_filler {
      type: "xavier"
      std: 0.03
    }
    bias_filler {
      type: "constant"
      value: 0.2
    }
  }
}
layer {
  name: "inception_4d/relu_5x5"
  type: "ReLU"
  bottom: "inception_4d/5x5"
  top: "inception_4d/5x5"
}
layer {
  name: "inception_4d/pool"
  type: "Pooling"
  bottom: "inception_4c/output"
  top: "inception_4d/pool"
  pooling_param {
    pool: MAX
    kernel_size: 3
    stride: 1
    pad: 1
  }
}
layer {
  name: "inception_4d/pool_proj"
  type: "Convolution"
  bottom: "inception_4d/pool"
  top: "inception_4d/pool_proj"
  param {
    lr_mult: 1
    decay_mult: 1
  }
  param {
    lr_mult: 2
    decay_mult: 0
  }
  convolution_param {
    num_output: 64
    kernel_size: 1
    weight_filler {
      type: "xavier"
      std: 0.1
    }
    bias_filler {
      type: "constant"
      value: 0.2
    }
  }
}
layer {
  name: "inception_4d/relu_pool_proj"
  type: "ReLU"
  bottom: "inception_4d/pool_proj"
  top: "inception_4d/pool_proj"
}
layer {
  name: "inception_4d/output"
  type: "Concat"
  bottom: "inception_4d/1x1"
  bottom: "inception_4d/3x3"
  bottom: "inception_4d/5x5"
  bottom: "inception_4d/pool_proj"
  top: "inception_4d/output"
}
layer {
  name: "loss2/ave_pool"
  type: "Pooling"
  bottom: "inception_4d/output"
  top: "loss2/ave_pool"
  pooling_param {
    pool: AVE
    kernel_size: 5
    stride: 3
  }
}
layer {
  name: "loss2/conv"
  type: "Convolution"
  bottom: "loss2/ave_pool"
  top: "loss2/conv"
  param {
    lr_mult: 1
    decay_mult: 1
  }
  param {
    lr_mult: 2
    decay_mult: 0
  }
  convolution_param {
    num_output: 128
    kernel_size: 1
    weight_filler {
      type: "xavier"
      std: 0.08
    }
    bias_filler {
      type: "constant"
      value: 0.2
    }
  }
}
layer {
  name: "loss2/relu_conv"
  type: "ReLU"
  bottom: "loss2/conv"
  top: "loss2/conv"
}
layer {
  name: "loss2/fc"
  type: "InnerProduct"
  bottom: "loss2/conv"
  top: "loss2/fc"
  param {
    lr_mult: 1
    decay_mult: 1
  }
  param {
    lr_mult: 2
    decay_mult: 0
  }
  inner_product_param {
    num_output: 1024
    weight_filler {
      type: "xavier"
      std: 0.02
    }
    bias_filler {
      type: "constant"
      value: 0.2
    }
  }
}
layer {
  name: "loss2/relu_fc"
  type: "ReLU"
  bottom: "loss2/fc"
  top: "loss2/fc"
}
layer {
  name: "loss2/drop_fc"
  type: "Dropout"
  bottom: "loss2/fc"
  top: "loss2/fc"
  dropout_param {
    dropout_ratio: 0.7
  }
}
layer {
  name: "loss2/classifier_plantvillage"
  type: "InnerProduct"
  bottom: "loss2/fc"
  top: "loss2/classifier_plantvillage"
  param {
    lr_mult: 1
    decay_mult: 1
  }
  param {
    lr_mult: 2
    decay_mult: 0
  }
  inner_product_param {
    num_output: 38
    weight_filler {
      type: "xavier"
      std: 0.0009765625
    }
    bias_filler {
      type: "constant"
      value: 0
    }
  }
}
layer {
  name: "inception_4e/1x1"
  type: "Convolution"
  bottom: "inception_4d/output"
  top: "inception_4e/1x1"
  param {
    lr_mult: 1
    decay_mult: 1
  }
  param {
    lr_mult: 2
    decay_mult: 0
  }
  convolution_param {
    num_output: 256
    kernel_size: 1
    weight_filler {
      type: "xavier"
      std: 0.03
    }
    bias_filler {
      type: "constant"
      value: 0.2
    }
  }
}
layer {
  name: "inception_4e/relu_1x1"
  type: "ReLU"
  bottom: "inception_4e/1x1"
  top: "inception_4e/1x1"
}
layer {
  name: "inception_4e/3x3_reduce"
  type: "Convolution"
  bottom: "inception_4d/output"
  top: "inception_4e/3x3_reduce"
  param {
    lr_mult: 1
    decay_mult: 1
  }
  param {
    lr_mult: 2
    decay_mult: 0
  }
  convolution_param {
    num_output: 160
    kernel_size: 1
    weight_filler {
      type: "xavier"
      std: 0.09
    }
    bias_filler {
      type: "constant"
      value: 0.2
    }
  }
}
layer {
  name: "inception_4e/relu_3x3_reduce"
  type: "ReLU"
  bottom: "inception_4e/3x3_reduce"
  top: "inception_4e/3x3_reduce"
}
layer {
  name: "inception_4e/3x3"
  type: "Convolution"
  bottom: "inception_4e/3x3_reduce"
  top: "inception_4e/3x3"
  param {
    lr_mult: 1
    decay_mult: 1
  }
  param {
    lr_mult: 2
    decay_mult: 0
  }
  convolution_param {
    num_output: 320
    pad: 1
    kernel_size: 3
    weight_filler {
      type: "xavier"
      std: 0.03
    }
    bias_filler {
      type: "constant"
      value: 0.2
    }
  }
}
layer {
  name: "inception_4e/relu_3x3"
  type: "ReLU"
  bottom: "inception_4e/3x3"
  top: "inception_4e/3x3"
}
layer {
  name: "inception_4e/5x5_reduce"
  type: "Convolution"
  bottom: "inception_4d/output"
  top: "inception_4e/5x5_reduce"
  param {
    lr_mult: 1
    decay_mult: 1
  }
  param {
    lr_mult: 2
    decay_mult: 0
  }
  convolution_param {
    num_output: 32
    kernel_size: 1
    weight_filler {
      type: "xavier"
      std: 0.2
    }
    bias_filler {
      type: "constant"
      value: 0.2
    }
  }
}
layer {
  name: "inception_4e/relu_5x5_reduce"
  type: "ReLU"
  bottom: "inception_4e/5x5_reduce"
  top: "inception_4e/5x5_reduce"
}
layer {
  name: "inception_4e/5x5"
  type: "Convolution"
  bottom: "inception_4e/5x5_reduce"
  top: "inception_4e/5x5"
  p
I0403 14:10:44.969333 29406 layer_factory.hpp:77] Creating layer data
I0403 14:10:44.969939 29406 net.cpp:91] Creating Layer data
I0403 14:10:44.969970 29406 net.cpp:399] data -> data
I0403 14:10:44.970019 29406 net.cpp:399] data -> label
I0403 14:10:44.970057 29406 data_transformer.cpp:25] Loading mean file from: /home/mohanty/data/final_dataset/lmdb/color-20-80/mean.binaryproto
I0403 14:10:44.973132 29409 db_lmdb.cpp:38] Opened lmdb /home/mohanty/data/final_dataset/lmdb/color-20-80/test_db
I0403 14:10:44.983711 29406 data_layer.cpp:41] output data size: 24,3,224,224
I0403 14:10:45.013684 29406 net.cpp:141] Setting up data
I0403 14:10:45.013772 29406 net.cpp:148] Top shape: 24 3 224 224 (3612672)
I0403 14:10:45.013797 29406 net.cpp:148] Top shape: 24 (24)
I0403 14:10:45.013813 29406 net.cpp:156] Memory required for data: 14450784
I0403 14:10:45.013841 29406 layer_factory.hpp:77] Creating layer label_data_1_split
I0403 14:10:45.013869 29406 net.cpp:91] Creating Layer label_data_1_split
I0403 14:10:45.013887 29406 net.cpp:425] label_data_1_split <- label
I0403 14:10:45.013919 29406 net.cpp:399] label_data_1_split -> label_data_1_split_0
I0403 14:10:45.013948 29406 net.cpp:399] label_data_1_split -> label_data_1_split_1
I0403 14:10:45.013972 29406 net.cpp:399] label_data_1_split -> label_data_1_split_2
I0403 14:10:45.013993 29406 net.cpp:399] label_data_1_split -> label_data_1_split_3
I0403 14:10:45.014014 29406 net.cpp:399] label_data_1_split -> label_data_1_split_4
I0403 14:10:45.014034 29406 net.cpp:399] label_data_1_split -> label_data_1_split_5
I0403 14:10:45.014055 29406 net.cpp:399] label_data_1_split -> label_data_1_split_6
I0403 14:10:45.014076 29406 net.cpp:399] label_data_1_split -> label_data_1_split_7
I0403 14:10:45.014098 29406 net.cpp:399] label_data_1_split -> label_data_1_split_8
I0403 14:10:45.014119 29406 net.cpp:399] label_data_1_split -> label_data_1_split_9
I0403 14:10:45.014250 29406 net.cpp:141] Setting up label_data_1_split
I0403 14:10:45.014274 29406 net.cpp:148] Top shape: 24 (24)
I0403 14:10:45.014293 29406 net.cpp:148] Top shape: 24 (24)
I0403 14:10:45.014310 29406 net.cpp:148] Top shape: 24 (24)
I0403 14:10:45.014328 29406 net.cpp:148] Top shape: 24 (24)
I0403 14:10:45.014344 29406 net.cpp:148] Top shape: 24 (24)
I0403 14:10:45.014367 29406 net.cpp:148] Top shape: 24 (24)
I0403 14:10:45.014384 29406 net.cpp:148] Top shape: 24 (24)
I0403 14:10:45.014401 29406 net.cpp:148] Top shape: 24 (24)
I0403 14:10:45.014418 29406 net.cpp:148] Top shape: 24 (24)
I0403 14:10:45.014438 29406 net.cpp:148] Top shape: 24 (24)
I0403 14:10:45.014487 29406 net.cpp:156] Memory required for data: 14451744
I0403 14:10:45.014503 29406 layer_factory.hpp:77] Creating layer conv1/7x7_s2
I0403 14:10:45.014538 29406 net.cpp:91] Creating Layer conv1/7x7_s2
I0403 14:10:45.014560 29406 net.cpp:425] conv1/7x7_s2 <- data
I0403 14:10:45.014580 29406 net.cpp:399] conv1/7x7_s2 -> conv1/7x7_s2
I0403 14:10:45.155899 29406 net.cpp:141] Setting up conv1/7x7_s2
I0403 14:10:45.155977 29406 net.cpp:148] Top shape: 24 64 112 112 (19267584)
I0403 14:10:45.155995 29406 net.cpp:156] Memory required for data: 91522080
I0403 14:10:45.156028 29406 layer_factory.hpp:77] Creating layer conv1/relu_7x7
I0403 14:10:45.156059 29406 net.cpp:91] Creating Layer conv1/relu_7x7
I0403 14:10:45.156078 29406 net.cpp:425] conv1/relu_7x7 <- conv1/7x7_s2
I0403 14:10:45.156098 29406 net.cpp:386] conv1/relu_7x7 -> conv1/7x7_s2 (in-place)
I0403 14:10:45.156388 29406 net.cpp:141] Setting up conv1/relu_7x7
I0403 14:10:45.156419 29406 net.cpp:148] Top shape: 24 64 112 112 (19267584)
I0403 14:10:45.156436 29406 net.cpp:156] Memory required for data: 168592416
I0403 14:10:45.156452 29406 layer_factory.hpp:77] Creating layer pool1/3x3_s2
I0403 14:10:45.156481 29406 net.cpp:91] Creating Layer pool1/3x3_s2
I0403 14:10:45.156499 29406 net.cpp:425] pool1/3x3_s2 <- conv1/7x7_s2
I0403 14:10:45.156523 29406 net.cpp:399] pool1/3x3_s2 -> pool1/3x3_s2
I0403 14:10:45.156602 29406 net.cpp:141] Setting up pool1/3x3_s2
I0403 14:10:45.156628 29406 net.cpp:148] Top shape: 24 64 56 56 (4816896)
I0403 14:10:45.156644 29406 net.cpp:156] Memory required for data: 187860000
I0403 14:10:45.156661 29406 layer_factory.hpp:77] Creating layer pool1/norm1
I0403 14:10:45.156689 29406 net.cpp:91] Creating Layer pool1/norm1
I0403 14:10:45.156708 29406 net.cpp:425] pool1/norm1 <- pool1/3x3_s2
I0403 14:10:45.156769 29406 net.cpp:399] pool1/norm1 -> pool1/norm1
I0403 14:10:45.157081 29406 net.cpp:141] Setting up pool1/norm1
I0403 14:10:45.157112 29406 net.cpp:148] Top shape: 24 64 56 56 (4816896)
I0403 14:10:45.157129 29406 net.cpp:156] Memory required for data: 207127584
I0403 14:10:45.157145 29406 layer_factory.hpp:77] Creating layer conv2/3x3_reduce
I0403 14:10:45.157171 29406 net.cpp:91] Creating Layer conv2/3x3_reduce
I0403 14:10:45.157189 29406 net.cpp:425] conv2/3x3_reduce <- pool1/norm1
I0403 14:10:45.157209 29406 net.cpp:399] conv2/3x3_reduce -> conv2/3x3_reduce
I0403 14:10:45.158700 29406 net.cpp:141] Setting up conv2/3x3_reduce
I0403 14:10:45.158731 29406 net.cpp:148] Top shape: 24 64 56 56 (4816896)
I0403 14:10:45.158749 29406 net.cpp:156] Memory required for data: 226395168
I0403 14:10:45.158771 29406 layer_factory.hpp:77] Creating layer conv2/relu_3x3_reduce
I0403 14:10:45.158792 29406 net.cpp:91] Creating Layer conv2/relu_3x3_reduce
I0403 14:10:45.158810 29406 net.cpp:425] conv2/relu_3x3_reduce <- conv2/3x3_reduce
I0403 14:10:45.158828 29406 net.cpp:386] conv2/relu_3x3_reduce -> conv2/3x3_reduce (in-place)
I0403 14:10:45.159109 29406 net.cpp:141] Setting up conv2/relu_3x3_reduce
I0403 14:10:45.159137 29406 net.cpp:148] Top shape: 24 64 56 56 (4816896)
I0403 14:10:45.159153 29406 net.cpp:156] Memory required for data: 245662752
I0403 14:10:45.159168 29406 layer_factory.hpp:77] Creating layer conv2/3x3
I0403 14:10:45.159193 29406 net.cpp:91] Creating Layer conv2/3x3
I0403 14:10:45.159211 29406 net.cpp:425] conv2/3x3 <- conv2/3x3_reduce
I0403 14:10:45.159235 29406 net.cpp:399] conv2/3x3 -> conv2/3x3
I0403 14:10:45.161633 29406 net.cpp:141] Setting up conv2/3x3
I0403 14:10:45.161664 29406 net.cpp:148] Top shape: 24 192 56 56 (14450688)
I0403 14:10:45.161682 29406 net.cpp:156] Memory required for data: 303465504
I0403 14:10:45.161705 29406 layer_factory.hpp:77] Creating layer conv2/relu_3x3
I0403 14:10:45.161725 29406 net.cpp:91] Creating Layer conv2/relu_3x3
I0403 14:10:45.161743 29406 net.cpp:425] conv2/relu_3x3 <- conv2/3x3
I0403 14:10:45.161762 29406 net.cpp:386] conv2/relu_3x3 -> conv2/3x3 (in-place)
I0403 14:10:45.161964 29406 net.cpp:141] Setting up conv2/relu_3x3
I0403 14:10:45.162005 29406 net.cpp:148] Top shape: 24 192 56 56 (14450688)
I0403 14:10:45.162052 29406 net.cpp:156] Memory required for data: 361268256
I0403 14:10:45.162070 29406 layer_factory.hpp:77] Creating layer conv2/norm2
I0403 14:10:45.162088 29406 net.cpp:91] Creating Layer conv2/norm2
I0403 14:10:45.162106 29406 net.cpp:425] conv2/norm2 <- conv2/3x3
I0403 14:10:45.162127 29406 net.cpp:399] conv2/norm2 -> conv2/norm2
I0403 14:10:45.162453 29406 net.cpp:141] Setting up conv2/norm2
I0403 14:10:45.162480 29406 net.cpp:148] Top shape: 24 192 56 56 (14450688)
I0403 14:10:45.162495 29406 net.cpp:156] Memory required for data: 419071008
I0403 14:10:45.162513 29406 layer_factory.hpp:77] Creating layer pool2/3x3_s2
I0403 14:10:45.162530 29406 net.cpp:91] Creating Layer pool2/3x3_s2
I0403 14:10:45.162547 29406 net.cpp:425] pool2/3x3_s2 <- conv2/norm2
I0403 14:10:45.162567 29406 net.cpp:399] pool2/3x3_s2 -> pool2/3x3_s2
I0403 14:10:45.162619 29406 net.cpp:141] Setting up pool2/3x3_s2
I0403 14:10:45.162643 29406 net.cpp:148] Top shape: 24 192 28 28 (3612672)
I0403 14:10:45.162658 29406 net.cpp:156] Memory required for data: 433521696
I0403 14:10:45.162673 29406 layer_factory.hpp:77] Creating layer pool2/3x3_s2_pool2/3x3_s2_0_split
I0403 14:10:45.162693 29406 net.cpp:91] Creating Layer pool2/3x3_s2_pool2/3x3_s2_0_split
I0403 14:10:45.162710 29406 net.cpp:425] pool2/3x3_s2_pool2/3x3_s2_0_split <- pool2/3x3_s2
I0403 14:10:45.162731 29406 net.cpp:399] pool2/3x3_s2_pool2/3x3_s2_0_split -> pool2/3x3_s2_pool2/3x3_s2_0_split_0
I0403 14:10:45.162752 29406 net.cpp:399] pool2/3x3_s2_pool2/3x3_s2_0_split -> pool2/3x3_s2_pool2/3x3_s2_0_split_1
I0403 14:10:45.162772 29406 net.cpp:399] pool2/3x3_s2_pool2/3x3_s2_0_split -> pool2/3x3_s2_pool2/3x3_s2_0_split_2
I0403 14:10:45.162792 29406 net.cpp:399] pool2/3x3_s2_pool2/3x3_s2_0_split -> pool2/3x3_s2_pool2/3x3_s2_0_split_3
I0403 14:10:45.162860 29406 net.cpp:141] Setting up pool2/3x3_s2_pool2/3x3_s2_0_split
I0403 14:10:45.162884 29406 net.cpp:148] Top shape: 24 192 28 28 (3612672)
I0403 14:10:45.162901 29406 net.cpp:148] Top shape: 24 192 28 28 (3612672)
I0403 14:10:45.162917 29406 net.cpp:148] Top shape: 24 192 28 28 (3612672)
I0403 14:10:45.162932 29406 net.cpp:148] Top shape: 24 192 28 28 (3612672)
I0403 14:10:45.162946 29406 net.cpp:156] Memory required for data: 491324448
I0403 14:10:45.162961 29406 layer_factory.hpp:77] Creating layer inception_3a/1x1
I0403 14:10:45.162983 29406 net.cpp:91] Creating Layer inception_3a/1x1
I0403 14:10:45.163002 29406 net.cpp:425] inception_3a/1x1 <- pool2/3x3_s2_pool2/3x3_s2_0_split_0
I0403 14:10:45.163022 29406 net.cpp:399] inception_3a/1x1 -> inception_3a/1x1
I0403 14:10:45.164604 29406 net.cpp:141] Setting up inception_3a/1x1
I0403 14:10:45.164635 29406 net.cpp:148] Top shape: 24 64 28 28 (1204224)
I0403 14:10:45.164651 29406 net.cpp:156] Memory required for data: 496141344
I0403 14:10:45.164670 29406 layer_factory.hpp:77] Creating layer inception_3a/relu_1x1
I0403 14:10:45.164691 29406 net.cpp:91] Creating Layer inception_3a/relu_1x1
I0403 14:10:45.164708 29406 net.cpp:425] inception_3a/relu_1x1 <- inception_3a/1x1
I0403 14:10:45.164726 29406 net.cpp:386] inception_3a/relu_1x1 -> inception_3a/1x1 (in-place)
I0403 14:10:45.164896 29406 net.cpp:141] Setting up inception_3a/relu_1x1
I0403 14:10:45.164921 29406 net.cpp:148] Top shape: 24 64 28 28 (1204224)
I0403 14:10:45.164937 29406 net.cpp:156] Memory required for data: 500958240
I0403 14:10:45.164953 29406 layer_factory.hpp:77] Creating layer inception_3a/3x3_reduce
I0403 14:10:45.164978 29406 net.cpp:91] Creating Layer inception_3a/3x3_reduce
I0403 14:10:45.164994 29406 net.cpp:425] inception_3a/3x3_reduce <- pool2/3x3_s2_pool2/3x3_s2_0_split_1
I0403 14:10:45.165014 29406 net.cpp:399] inception_3a/3x3_reduce -> inception_3a/3x3_reduce
I0403 14:10:45.166759 29406 net.cpp:141] Setting up inception_3a/3x3_reduce
I0403 14:10:45.166790 29406 net.cpp:148] Top shape: 24 96 28 28 (1806336)
I0403 14:10:45.166807 29406 net.cpp:156] Memory required for data: 508183584
I0403 14:10:45.166828 29406 layer_factory.hpp:77] Creating layer inception_3a/relu_3x3_reduce
I0403 14:10:45.166867 29406 net.cpp:91] Creating Layer inception_3a/relu_3x3_reduce
I0403 14:10:45.166887 29406 net.cpp:425] inception_3a/relu_3x3_reduce <- inception_3a/3x3_reduce
I0403 14:10:45.166904 29406 net.cpp:386] inception_3a/relu_3x3_reduce -> inception_3a/3x3_reduce (in-place)
I0403 14:10:45.167088 29406 net.cpp:141] Setting up inception_3a/relu_3x3_reduce
I0403 14:10:45.167114 29406 net.cpp:148] Top shape: 24 96 28 28 (1806336)
I0403 14:10:45.167129 29406 net.cpp:156] Memory required for data: 515408928
I0403 14:10:45.167145 29406 layer_factory.hpp:77] Creating layer inception_3a/3x3
I0403 14:10:45.167168 29406 net.cpp:91] Creating Layer inception_3a/3x3
I0403 14:10:45.167199 29406 net.cpp:425] inception_3a/3x3 <- inception_3a/3x3_reduce
I0403 14:10:45.167223 29406 net.cpp:399] inception_3a/3x3 -> inception_3a/3x3
I0403 14:10:45.168875 29406 net.cpp:141] Setting up inception_3a/3x3
I0403 14:10:45.168903 29406 net.cpp:148] Top shape: 24 128 28 28 (2408448)
I0403 14:10:45.168920 29406 net.cpp:156] Memory required for data: 525042720
I0403 14:10:45.168938 29406 layer_factory.hpp:77] Creating layer inception_3a/relu_3x3
I0403 14:10:45.168959 29406 net.cpp:91] Creating Layer inception_3a/relu_3x3
I0403 14:10:45.168977 29406 net.cpp:425] inception_3a/relu_3x3 <- inception_3a/3x3
I0403 14:10:45.169006 29406 net.cpp:386] inception_3a/relu_3x3 -> inception_3a/3x3 (in-place)
I0403 14:10:45.169287 29406 net.cpp:141] Setting up inception_3a/relu_3x3
I0403 14:10:45.169327 29406 net.cpp:148] Top shape: 24 128 28 28 (2408448)
I0403 14:10:45.169342 29406 net.cpp:156] Memory required for data: 534676512
I0403 14:10:45.169361 29406 layer_factory.hpp:77] Creating layer inception_3a/5x5_reduce
I0403 14:10:45.169384 29406 net.cpp:91] Creating Layer inception_3a/5x5_reduce
I0403 14:10:45.169401 29406 net.cpp:425] inception_3a/5x5_reduce <- pool2/3x3_s2_pool2/3x3_s2_0_split_2
I0403 14:10:45.169423 29406 net.cpp:399] inception_3a/5x5_reduce -> inception_3a/5x5_reduce
I0403 14:10:45.170367 29406 net.cpp:141] Setting up inception_3a/5x5_reduce
I0403 14:10:45.170397 29406 net.cpp:148] Top shape: 24 16 28 28 (301056)
I0403 14:10:45.170415 29406 net.cpp:156] Memory required for data: 535880736
I0403 14:10:45.170434 29406 layer_factory.hpp:77] Creating layer inception_3a/relu_5x5_reduce
I0403 14:10:45.170452 29406 net.cpp:91] Creating Layer inception_3a/relu_5x5_reduce
I0403 14:10:45.170469 29406 net.cpp:425] inception_3a/relu_5x5_reduce <- inception_3a/5x5_reduce
I0403 14:10:45.170487 29406 net.cpp:386] inception_3a/relu_5x5_reduce -> inception_3a/5x5_reduce (in-place)
I0403 14:10:45.170795 29406 net.cpp:141] Setting up inception_3a/relu_5x5_reduce
I0403 14:10:45.170826 29406 net.cpp:148] Top shape: 24 16 28 28 (301056)
I0403 14:10:45.170843 29406 net.cpp:156] Memory required for data: 537084960
I0403 14:10:45.170861 29406 layer_factory.hpp:77] Creating layer inception_3a/5x5
I0403 14:10:45.170882 29406 net.cpp:91] Creating Layer inception_3a/5x5
I0403 14:10:45.170902 29406 net.cpp:425] inception_3a/5x5 <- inception_3a/5x5_reduce
I0403 14:10:45.170922 29406 net.cpp:399] inception_3a/5x5 -> inception_3a/5x5
I0403 14:10:45.171977 29406 net.cpp:141] Setting up inception_3a/5x5
I0403 14:10:45.172005 29406 net.cpp:148] Top shape: 24 32 28 28 (602112)
I0403 14:10:45.172021 29406 net.cpp:156] Memory required for data: 539493408
I0403 14:10:45.172040 29406 layer_factory.hpp:77] Creating layer inception_3a/relu_5x5
I0403 14:10:45.172061 29406 net.cpp:91] Creating Layer inception_3a/relu_5x5
I0403 14:10:45.172080 29406 net.cpp:425] inception_3a/relu_5x5 <- inception_3a/5x5
I0403 14:10:45.172098 29406 net.cpp:386] inception_3a/relu_5x5 -> inception_3a/5x5 (in-place)
I0403 14:10:45.172272 29406 net.cpp:141] Setting up inception_3a/relu_5x5
I0403 14:10:45.172298 29406 net.cpp:148] Top shape: 24 32 28 28 (602112)
I0403 14:10:45.172313 29406 net.cpp:156] Memory required for data: 541901856
I0403 14:10:45.172329 29406 layer_factory.hpp:77] Creating layer inception_3a/pool
I0403 14:10:45.172354 29406 net.cpp:91] Creating Layer inception_3a/pool
I0403 14:10:45.172374 29406 net.cpp:425] inception_3a/pool <- pool2/3x3_s2_pool2/3x3_s2_0_split_3
I0403 14:10:45.172407 29406 net.cpp:399] inception_3a/pool -> inception_3a/pool
I0403 14:10:45.172471 29406 net.cpp:141] Setting up inception_3a/pool
I0403 14:10:45.172495 29406 net.cpp:148] Top shape: 24 192 28 28 (3612672)
I0403 14:10:45.172513 29406 net.cpp:156] Memory required for data: 556352544
I0403 14:10:45.172529 29406 layer_factory.hpp:77] Creating layer inception_3a/pool_proj
I0403 14:10:45.172552 29406 net.cpp:91] Creating Layer inception_3a/pool_proj
I0403 14:10:45.172570 29406 net.cpp:425] inception_3a/pool_proj <- inception_3a/pool
I0403 14:10:45.172592 29406 net.cpp:399] inception_3a/pool_proj -> inception_3a/pool_proj
I0403 14:10:45.173571 29406 net.cpp:141] Setting up inception_3a/pool_proj
I0403 14:10:45.173604 29406 net.cpp:148] Top shape: 24 32 28 28 (602112)
I0403 14:10:45.173620 29406 net.cpp:156] Memory required for data: 558760992
I0403 14:10:45.173645 29406 layer_factory.hpp:77] Creating layer inception_3a/relu_pool_proj
I0403 14:10:45.173665 29406 net.cpp:91] Creating Layer inception_3a/relu_pool_proj
I0403 14:10:45.173681 29406 net.cpp:425] inception_3a/relu_pool_proj <- inception_3a/pool_proj
I0403 14:10:45.173699 29406 net.cpp:386] inception_3a/relu_pool_proj -> inception_3a/pool_proj (in-place)
I0403 14:10:45.173987 29406 net.cpp:141] Setting up inception_3a/relu_pool_proj
I0403 14:10:45.174013 29406 net.cpp:148] Top shape: 24 32 28 28 (602112)
I0403 14:10:45.174029 29406 net.cpp:156] Memory required for data: 561169440
I0403 14:10:45.174044 29406 layer_factory.hpp:77] Creating layer inception_3a/output
I0403 14:10:45.174065 29406 net.cpp:91] Creating Layer inception_3a/output
I0403 14:10:45.174082 29406 net.cpp:425] inception_3a/output <- inception_3a/1x1
I0403 14:10:45.174098 29406 net.cpp:425] inception_3a/output <- inception_3a/3x3
I0403 14:10:45.174114 29406 net.cpp:425] inception_3a/output <- inception_3a/5x5
I0403 14:10:45.174130 29406 net.cpp:425] inception_3a/output <- inception_3a/pool_proj
I0403 14:10:45.174147 29406 net.cpp:399] inception_3a/output -> inception_3a/output
I0403 14:10:45.174196 29406 net.cpp:141] Setting up inception_3a/output
I0403 14:10:45.174221 29406 net.cpp:148] Top shape: 24 256 28 28 (4816896)
I0403 14:10:45.174237 29406 net.cpp:156] Memory required for data: 580437024
I0403 14:10:45.174252 29406 layer_factory.hpp:77] Creating layer inception_3a/output_inception_3a/output_0_split
I0403 14:10:45.174268 29406 net.cpp:91] Creating Layer inception_3a/output_inception_3a/output_0_split
I0403 14:10:45.174283 29406 net.cpp:425] inception_3a/output_inception_3a/output_0_split <- inception_3a/output
I0403 14:10:45.174302 29406 net.cpp:399] inception_3a/output_inception_3a/output_0_split -> inception_3a/output_inception_3a/output_0_split_0
I0403 14:10:45.174324 29406 net.cpp:399] inception_3a/output_inception_3a/output_0_split -> inception_3a/output_inception_3a/output_0_split_1
I0403 14:10:45.174371 29406 net.cpp:399] inception_3a/output_inception_3a/output_0_split -> inception_3a/output_inception_3a/output_0_split_2
I0403 14:10:45.174397 29406 net.cpp:399] inception_3a/output_inception_3a/output_0_split -> inception_3a/output_inception_3a/output_0_split_3
I0403 14:10:45.174477 29406 net.cpp:141] Setting up inception_3a/output_inception_3a/output_0_split
I0403 14:10:45.174502 29406 net.cpp:148] Top shape: 24 256 28 28 (4816896)
I0403 14:10:45.174520 29406 net.cpp:148] Top shape: 24 256 28 28 (4816896)
I0403 14:10:45.174536 29406 net.cpp:148] Top shape: 24 256 28 28 (4816896)
I0403 14:10:45.174552 29406 net.cpp:148] Top shape: 24 256 28 28 (4816896)
I0403 14:10:45.174567 29406 net.cpp:156] Memory required for data: 657507360
I0403 14:10:45.174583 29406 layer_factory.hpp:77] Creating layer inception_3b/1x1
I0403 14:10:45.174607 29406 net.cpp:91] Creating Layer inception_3b/1x1
I0403 14:10:45.174625 29406 net.cpp:425] inception_3b/1x1 <- inception_3a/output_inception_3a/output_0_split_0
I0403 14:10:45.174648 29406 net.cpp:399] inception_3b/1x1 -> inception_3b/1x1
I0403 14:10:45.175809 29406 net.cpp:141] Setting up inception_3b/1x1
I0403 14:10:45.175850 29406 net.cpp:148] Top shape: 24 128 28 28 (2408448)
I0403 14:10:45.175868 29406 net.cpp:156] Memory required for data: 667141152
I0403 14:10:45.175887 29406 layer_factory.hpp:77] Creating layer inception_3b/relu_1x1
I0403 14:10:45.175906 29406 net.cpp:91] Creating Layer inception_3b/relu_1x1
I0403 14:10:45.175923 29406 net.cpp:425] inception_3b/relu_1x1 <- inception_3b/1x1
I0403 14:10:45.175945 29406 net.cpp:386] inception_3b/relu_1x1 -> inception_3b/1x1 (in-place)
I0403 14:10:45.176126 29406 net.cpp:141] Setting up inception_3b/relu_1x1
I0403 14:10:45.176152 29406 net.cpp:148] Top shape: 24 128 28 28 (2408448)
I0403 14:10:45.176168 29406 net.cpp:156] Memory required for data: 676774944
I0403 14:10:45.176183 29406 layer_factory.hpp:77] Creating layer inception_3b/3x3_reduce
I0403 14:10:45.176206 29406 net.cpp:91] Creating Layer inception_3b/3x3_reduce
I0403 14:10:45.176226 29406 net.cpp:425] inception_3b/3x3_reduce <- inception_3a/output_inception_3a/output_0_split_1
I0403 14:10:45.176249 29406 net.cpp:399] inception_3b/3x3_reduce -> inception_3b/3x3_reduce
I0403 14:10:45.177403 29406 net.cpp:141] Setting up inception_3b/3x3_reduce
I0403 14:10:45.177431 29406 net.cpp:148] Top shape: 24 128 28 28 (2408448)
I0403 14:10:45.177448 29406 net.cpp:156] Memory required for data: 686408736
I0403 14:10:45.177466 29406 layer_factory.hpp:77] Creating layer inception_3b/relu_3x3_reduce
I0403 14:10:45.177487 29406 net.cpp:91] Creating Layer inception_3b/relu_3x3_reduce
I0403 14:10:45.177505 29406 net.cpp:425] inception_3b/relu_3x3_reduce <- inception_3b/3x3_reduce
I0403 14:10:45.177521 29406 net.cpp:386] inception_3b/relu_3x3_reduce -> inception_3b/3x3_reduce (in-place)
I0403 14:10:45.177696 29406 net.cpp:141] Setting up inception_3b/relu_3x3_reduce
I0403 14:10:45.177722 29406 net.cpp:148] Top shape: 24 128 28 28 (2408448)
I0403 14:10:45.177738 29406 net.cpp:156] Memory required for data: 696042528
I0403 14:10:45.177754 29406 layer_factory.hpp:77] Creating layer inception_3b/3x3
I0403 14:10:45.177780 29406 net.cpp:91] Creating Layer inception_3b/3x3
I0403 14:10:45.177799 29406 net.cpp:425] inception_3b/3x3 <- inception_3b/3x3_reduce
I0403 14:10:45.177819 29406 net.cpp:399] inception_3b/3x3 -> inception_3b/3x3
I0403 14:10:45.180711 29406 net.cpp:141] Setting up inception_3b/3x3
I0403 14:10:45.180739 29406 net.cpp:148] Top shape: 24 192 28 28 (3612672)
I0403 14:10:45.180755 29406 net.cpp:156] Memory required for data: 710493216
I0403 14:10:45.180774 29406 layer_factory.hpp:77] Creating layer inception_3b/relu_3x3
I0403 14:10:45.180794 29406 net.cpp:91] Creating Layer inception_3b/relu_3x3
I0403 14:10:45.180811 29406 net.cpp:425] inception_3b/relu_3x3 <- inception_3b/3x3
I0403 14:10:45.180830 29406 net.cpp:386] inception_3b/relu_3x3 -> inception_3b/3x3 (in-place)
I0403 14:10:45.181094 29406 net.cpp:141] Setting up inception_3b/relu_3x3
I0403 14:10:45.181120 29406 net.cpp:148] Top shape: 24 192 28 28 (3612672)
I0403 14:10:45.181135 29406 net.cpp:156] Memory required for data: 724943904
I0403 14:10:45.181150 29406 layer_factory.hpp:77] Creating layer inception_3b/5x5_reduce
I0403 14:10:45.181174 29406 net.cpp:91] Creating Layer inception_3b/5x5_reduce
I0403 14:10:45.181191 29406 net.cpp:425] inception_3b/5x5_reduce <- inception_3a/output_inception_3a/output_0_split_2
I0403 14:10:45.181212 29406 net.cpp:399] inception_3b/5x5_reduce -> inception_3b/5x5_reduce
I0403 14:10:45.182193 29406 net.cpp:141] Setting up inception_3b/5x5_reduce
I0403 14:10:45.182221 29406 net.cpp:148] Top shape: 24 32 28 28 (602112)
I0403 14:10:45.182237 29406 net.cpp:156] Memory required for data: 727352352
I0403 14:10:45.182255 29406 layer_factory.hpp:77] Creating layer inception_3b/relu_5x5_reduce
I0403 14:10:45.182276 29406 net.cpp:91] Creating Layer inception_3b/relu_5x5_reduce
I0403 14:10:45.182296 29406 net.cpp:425] inception_3b/relu_5x5_reduce <- inception_3b/5x5_reduce
I0403 14:10:45.182312 29406 net.cpp:386] inception_3b/relu_5x5_reduce -> inception_3b/5x5_reduce (in-place)
I0403 14:10:45.182492 29406 net.cpp:141] Setting up inception_3b/relu_5x5_reduce
I0403 14:10:45.182530 29406 net.cpp:148] Top shape: 24 32 28 28 (602112)
I0403 14:10:45.182548 29406 net.cpp:156] Memory required for data: 729760800
I0403 14:10:45.182564 29406 layer_factory.hpp:77] Creating layer inception_3b/5x5
I0403 14:10:45.182587 29406 net.cpp:91] Creating Layer inception_3b/5x5
I0403 14:10:45.182606 29406 net.cpp:425] inception_3b/5x5 <- inception_3b/5x5_reduce
I0403 14:10:45.182626 29406 net.cpp:399] inception_3b/5x5 -> inception_3b/5x5
I0403 14:10:45.184577 29406 net.cpp:141] Setting up inception_3b/5x5
I0403 14:10:45.184608 29406 net.cpp:148] Top shape: 24 96 28 28 (1806336)
I0403 14:10:45.184624 29406 net.cpp:156] Memory required for data: 736986144
I0403 14:10:45.184643 29406 layer_factory.hpp:77] Creating layer inception_3b/relu_5x5
I0403 14:10:45.184664 29406 net.cpp:91] Creating Layer inception_3b/relu_5x5
I0403 14:10:45.184684 29406 net.cpp:425] inception_3b/relu_5x5 <- inception_3b/5x5
I0403 14:10:45.184700 29406 net.cpp:386] inception_3b/relu_5x5 -> inception_3b/5x5 (in-place)
I0403 14:10:45.184890 29406 net.cpp:141] Setting up inception_3b/relu_5x5
I0403 14:10:45.184916 29406 net.cpp:148] Top shape: 24 96 28 28 (1806336)
I0403 14:10:45.184931 29406 net.cpp:156] Memory required for data: 744211488
I0403 14:10:45.184947 29406 layer_factory.hpp:77] Creating layer inception_3b/pool
I0403 14:10:45.184965 29406 net.cpp:91] Creating Layer inception_3b/pool
I0403 14:10:45.184981 29406 net.cpp:425] inception_3b/pool <- inception_3a/output_inception_3a/output_0_split_3
I0403 14:10:45.185000 29406 net.cpp:399] inception_3b/pool -> inception_3b/pool
I0403 14:10:45.185057 29406 net.cpp:141] Setting up inception_3b/pool
I0403 14:10:45.185081 29406 net.cpp:148] Top shape: 24 256 28 28 (4816896)
I0403 14:10:45.185096 29406 net.cpp:156] Memory required for data: 763479072
I0403 14:10:45.185111 29406 layer_factory.hpp:77] Creating layer inception_3b/pool_proj
I0403 14:10:45.185133 29406 net.cpp:91] Creating Layer inception_3b/pool_proj
I0403 14:10:45.185150 29406 net.cpp:425] inception_3b/pool_proj <- inception_3b/pool
I0403 14:10:45.185173 29406 net.cpp:399] inception_3b/pool_proj -> inception_3b/pool_proj
I0403 14:10:45.186215 29406 net.cpp:141] Setting up inception_3b/pool_proj
I0403 14:10:45.186255 29406 net.cpp:148] Top shape: 24 64 28 28 (1204224)
I0403 14:10:45.186274 29406 net.cpp:156] Memory required for data: 768295968
I0403 14:10:45.186292 29406 layer_factory.hpp:77] Creating layer inception_3b/relu_pool_proj
I0403 14:10:45.186311 29406 net.cpp:91] Creating Layer inception_3b/relu_pool_proj
I0403 14:10:45.186328 29406 net.cpp:425] inception_3b/relu_pool_proj <- inception_3b/pool_proj
I0403 14:10:45.186352 29406 net.cpp:386] inception_3b/relu_pool_proj -> inception_3b/pool_proj (in-place)
I0403 14:10:45.186750 29406 net.cpp:141] Setting up inception_3b/relu_pool_proj
I0403 14:10:45.186780 29406 net.cpp:148] Top shape: 24 64 28 28 (1204224)
I0403 14:10:45.186796 29406 net.cpp:156] Memory required for data: 773112864
I0403 14:10:45.186811 29406 layer_factory.hpp:77] Creating layer inception_3b/output
I0403 14:10:45.186830 29406 net.cpp:91] Creating Layer inception_3b/output
I0403 14:10:45.186844 29406 net.cpp:425] inception_3b/output <- inception_3b/1x1
I0403 14:10:45.186862 29406 net.cpp:425] inception_3b/output <- inception_3b/3x3
I0403 14:10:45.186878 29406 net.cpp:425] inception_3b/output <- inception_3b/5x5
I0403 14:10:45.186907 29406 net.cpp:425] inception_3b/output <- inception_3b/pool_proj
I0403 14:10:45.186923 29406 net.cpp:399] inception_3b/output -> inception_3b/output
I0403 14:10:45.186967 29406 net.cpp:141] Setting up inception_3b/output
I0403 14:10:45.186991 29406 net.cpp:148] Top shape: 24 480 28 28 (9031680)
I0403 14:10:45.187005 29406 net.cpp:156] Memory required for data: 809239584
I0403 14:10:45.187021 29406 layer_factory.hpp:77] Creating layer pool3/3x3_s2
I0403 14:10:45.187038 29406 net.cpp:91] Creating Layer pool3/3x3_s2
I0403 14:10:45.187055 29406 net.cpp:425] pool3/3x3_s2 <- inception_3b/output
I0403 14:10:45.187073 29406 net.cpp:399] pool3/3x3_s2 -> pool3/3x3_s2
I0403 14:10:45.187144 29406 net.cpp:141] Setting up pool3/3x3_s2
I0403 14:10:45.187168 29406 net.cpp:148] Top shape: 24 480 14 14 (2257920)
I0403 14:10:45.187182 29406 net.cpp:156] Memory required for data: 818271264
I0403 14:10:45.187196 29406 layer_factory.hpp:77] Creating layer pool3/3x3_s2_pool3/3x3_s2_0_split
I0403 14:10:45.187213 29406 net.cpp:91] Creating Layer pool3/3x3_s2_pool3/3x3_s2_0_split
I0403 14:10:45.187228 29406 net.cpp:425] pool3/3x3_s2_pool3/3x3_s2_0_split <- pool3/3x3_s2
I0403 14:10:45.187248 29406 net.cpp:399] pool3/3x3_s2_pool3/3x3_s2_0_split -> pool3/3x3_s2_pool3/3x3_s2_0_split_0
I0403 14:10:45.187269 29406 net.cpp:399] pool3/3x3_s2_pool3/3x3_s2_0_split -> pool3/3x3_s2_pool3/3x3_s2_0_split_1
I0403 14:10:45.187289 29406 net.cpp:399] pool3/3x3_s2_pool3/3x3_s2_0_split -> pool3/3x3_s2_pool3/3x3_s2_0_split_2
I0403 14:10:45.187309 29406 net.cpp:399] pool3/3x3_s2_pool3/3x3_s2_0_split -> pool3/3x3_s2_pool3/3x3_s2_0_split_3
I0403 14:10:45.187388 29406 net.cpp:141] Setting up pool3/3x3_s2_pool3/3x3_s2_0_split
I0403 14:10:45.187414 29406 net.cpp:148] Top shape: 24 480 14 14 (2257920)
I0403 14:10:45.187432 29406 net.cpp:148] Top shape: 24 480 14 14 (2257920)
I0403 14:10:45.187448 29406 net.cpp:148] Top shape: 24 480 14 14 (2257920)
I0403 14:10:45.187463 29406 net.cpp:148] Top shape: 24 480 14 14 (2257920)
I0403 14:10:45.187476 29406 net.cpp:156] Memory required for data: 854397984
I0403 14:10:45.187490 29406 layer_factory.hpp:77] Creating layer inception_4a/1x1
I0403 14:10:45.187515 29406 net.cpp:91] Creating Layer inception_4a/1x1
I0403 14:10:45.187531 29406 net.cpp:425] inception_4a/1x1 <- pool3/3x3_s2_pool3/3x3_s2_0_split_0
I0403 14:10:45.187563 29406 net.cpp:399] inception_4a/1x1 -> inception_4a/1x1
I0403 14:10:45.189128 29406 net.cpp:141] Setting up inception_4a/1x1
I0403 14:10:45.189157 29406 net.cpp:148] Top shape: 24 192 14 14 (903168)
I0403 14:10:45.189174 29406 net.cpp:156] Memory required for data: 858010656
I0403 14:10:45.189193 29406 layer_factory.hpp:77] Creating layer inception_4a/relu_1x1
I0403 14:10:45.189210 29406 net.cpp:91] Creating Layer inception_4a/relu_1x1
I0403 14:10:45.189225 29406 net.cpp:425] inception_4a/relu_1x1 <- inception_4a/1x1
I0403 14:10:45.189244 29406 net.cpp:386] inception_4a/relu_1x1 -> inception_4a/1x1 (in-place)
I0403 14:10:45.189420 29406 net.cpp:141] Setting up inception_4a/relu_1x1
I0403 14:10:45.189445 29406 net.cpp:148] Top shape: 24 192 14 14 (903168)
I0403 14:10:45.189460 29406 net.cpp:156] Memory required for data: 861623328
I0403 14:10:45.189473 29406 layer_factory.hpp:77] Creating layer inception_4a/3x3_reduce
I0403 14:10:45.189496 29406 net.cpp:91] Creating Layer inception_4a/3x3_reduce
I0403 14:10:45.189514 29406 net.cpp:425] inception_4a/3x3_reduce <- pool3/3x3_s2_pool3/3x3_s2_0_split_1
I0403 14:10:45.189537 29406 net.cpp:399] inception_4a/3x3_reduce -> inception_4a/3x3_reduce
I0403 14:10:45.190810 29406 net.cpp:141] Setting up inception_4a/3x3_reduce
I0403 14:10:45.190840 29406 net.cpp:148] Top shape: 24 96 14 14 (451584)
I0403 14:10:45.190856 29406 net.cpp:156] Memory required for data: 863429664
I0403 14:10:45.190878 29406 layer_factory.hpp:77] Creating layer inception_4a/relu_3x3_reduce
I0403 14:10:45.190898 29406 net.cpp:91] Creating Layer inception_4a/relu_3x3_reduce
I0403 14:10:45.190915 29406 net.cpp:425] inception_4a/relu_3x3_reduce <- inception_4a/3x3_reduce
I0403 14:10:45.190933 29406 net.cpp:386] inception_4a/relu_3x3_reduce -> inception_4a/3x3_reduce (in-place)
I0403 14:10:45.191102 29406 net.cpp:141] Setting up inception_4a/relu_3x3_reduce
I0403 14:10:45.191126 29406 net.cpp:148] Top shape: 24 96 14 14 (451584)
I0403 14:10:45.191140 29406 net.cpp:156] Memory required for data: 865236000
I0403 14:10:45.191155 29406 layer_factory.hpp:77] Creating layer inception_4a/3x3
I0403 14:10:45.191176 29406 net.cpp:91] Creating Layer inception_4a/3x3
I0403 14:10:45.191195 29406 net.cpp:425] inception_4a/3x3 <- inception_4a/3x3_reduce
I0403 14:10:45.191215 29406 net.cpp:399] inception_4a/3x3 -> inception_4a/3x3
I0403 14:10:45.193902 29406 net.cpp:141] Setting up inception_4a/3x3
I0403 14:10:45.193930 29406 net.cpp:148] Top shape: 24 208 14 14 (978432)
I0403 14:10:45.193946 29406 net.cpp:156] Memory required for data: 869149728
I0403 14:10:45.193966 29406 layer_factory.hpp:77] Creating layer inception_4a/relu_3x3
I0403 14:10:45.193986 29406 net.cpp:91] Creating Layer inception_4a/relu_3x3
I0403 14:10:45.194002 29406 net.cpp:425] inception_4a/relu_3x3 <- inception_4a/3x3
I0403 14:10:45.194021 29406 net.cpp:386] inception_4a/relu_3x3 -> inception_4a/3x3 (in-place)
I0403 14:10:45.194300 29406 net.cpp:141] Setting up inception_4a/relu_3x3
I0403 14:10:45.194327 29406 net.cpp:148] Top shape: 24 208 14 14 (978432)
I0403 14:10:45.194342 29406 net.cpp:156] Memory required for data: 873063456
I0403 14:10:45.194371 29406 layer_factory.hpp:77] Creating layer inception_4a/5x5_reduce
I0403 14:10:45.194396 29406 net.cpp:91] Creating Layer inception_4a/5x5_reduce
I0403 14:10:45.194414 29406 net.cpp:425] inception_4a/5x5_reduce <- pool3/3x3_s2_pool3/3x3_s2_0_split_2
I0403 14:10:45.194435 29406 net.cpp:399] inception_4a/5x5_reduce -> inception_4a/5x5_reduce
I0403 14:10:45.195446 29406 net.cpp:141] Setting up inception_4a/5x5_reduce
I0403 14:10:45.195473 29406 net.cpp:148] Top shape: 24 16 14 14 (75264)
I0403 14:10:45.195490 29406 net.cpp:156] Memory required for data: 873364512
I0403 14:10:45.195511 29406 layer_factory.hpp:77] Creating layer inception_4a/relu_5x5_reduce
I0403 14:10:45.195531 29406 net.cpp:91] Creating Layer inception_4a/relu_5x5_reduce
I0403 14:10:45.195560 29406 net.cpp:425] inception_4a/relu_5x5_reduce <- inception_4a/5x5_reduce
I0403 14:10:45.195579 29406 net.cpp:386] inception_4a/relu_5x5_reduce -> inception_4a/5x5_reduce (in-place)
I0403 14:10:45.195766 29406 net.cpp:141] Setting up inception_4a/relu_5x5_reduce
I0403 14:10:45.195792 29406 net.cpp:148] Top shape: 24 16 14 14 (75264)
I0403 14:10:45.195808 29406 net.cpp:156] Memory required for data: 873665568
I0403 14:10:45.195825 29406 layer_factory.hpp:77] Creating layer inception_4a/5x5
I0403 14:10:45.195861 29406 net.cpp:91] Creating Layer inception_4a/5x5
I0403 14:10:45.195879 29406 net.cpp:425] inception_4a/5x5 <- inception_4a/5x5_reduce
I0403 14:10:45.195899 29406 net.cpp:399] inception_4a/5x5 -> inception_4a/5x5
I0403 14:10:45.197006 29406 net.cpp:141] Setting up inception_4a/5x5
I0403 14:10:45.197036 29406 net.cpp:148] Top shape: 24 48 14 14 (225792)
I0403 14:10:45.197053 29406 net.cpp:156] Memory required for data: 874568736
I0403 14:10:45.197073 29406 layer_factory.hpp:77] Creating layer inception_4a/relu_5x5
I0403 14:10:45.197104 29406 net.cpp:91] Creating Layer inception_4a/relu_5x5
I0403 14:10:45.197119 29406 net.cpp:425] inception_4a/relu_5x5 <- inception_4a/5x5
I0403 14:10:45.197136 29406 net.cpp:386] inception_4a/relu_5x5 -> inception_4a/5x5 (in-place)
I0403 14:10:45.197307 29406 net.cpp:141] Setting up inception_4a/relu_5x5
I0403 14:10:45.197335 29406 net.cpp:148] Top shape: 24 48 14 14 (225792)
I0403 14:10:45.197355 29406 net.cpp:156] Memory required for data: 875471904
I0403 14:10:45.197371 29406 layer_factory.hpp:77] Creating layer inception_4a/pool
I0403 14:10:45.197387 29406 net.cpp:91] Creating Layer inception_4a/pool
I0403 14:10:45.197403 29406 net.cpp:425] inception_4a/pool <- pool3/3x3_s2_pool3/3x3_s2_0_split_3
I0403 14:10:45.197422 29406 net.cpp:399] inception_4a/pool -> inception_4a/pool
I0403 14:10:45.197481 29406 net.cpp:141] Setting up inception_4a/pool
I0403 14:10:45.197507 29406 net.cpp:148] Top shape: 24 480 14 14 (2257920)
I0403 14:10:45.197525 29406 net.cpp:156] Memory required for data: 884503584
I0403 14:10:45.197540 29406 layer_factory.hpp:77] Creating layer inception_4a/pool_proj
I0403 14:10:45.197561 29406 net.cpp:91] Creating Layer inception_4a/pool_proj
I0403 14:10:45.197578 29406 net.cpp:425] inception_4a/pool_proj <- inception_4a/pool
I0403 14:10:45.197597 29406 net.cpp:399] inception_4a/pool_proj -> inception_4a/pool_proj
I0403 14:10:45.198740 29406 net.cpp:141] Setting up inception_4a/pool_proj
I0403 14:10:45.198773 29406 net.cpp:148] Top shape: 24 64 14 14 (301056)
I0403 14:10:45.198807 29406 net.cpp:156] Memory required for data: 885707808
I0403 14:10:45.198838 29406 layer_factory.hpp:77] Creating layer inception_4a/relu_pool_proj
I0403 14:10:45.198856 29406 net.cpp:91] Creating Layer inception_4a/relu_pool_proj
I0403 14:10:45.198873 29406 net.cpp:425] inception_4a/relu_pool_proj <- inception_4a/pool_proj
I0403 14:10:45.198892 29406 net.cpp:386] inception_4a/relu_pool_proj -> inception_4a/pool_proj (in-place)
I0403 14:10:45.199165 29406 net.cpp:141] Setting up inception_4a/relu_pool_proj
I0403 14:10:45.199196 29406 net.cpp:148] Top shape: 24 64 14 14 (301056)
I0403 14:10:45.199213 29406 net.cpp:156] Memory required for data: 886912032
I0403 14:10:45.199229 29406 layer_factory.hpp:77] Creating layer inception_4a/output
I0403 14:10:45.199246 29406 net.cpp:91] Creating Layer inception_4a/output
I0403 14:10:45.199262 29406 net.cpp:425] inception_4a/output <- inception_4a/1x1
I0403 14:10:45.199278 29406 net.cpp:425] inception_4a/output <- inception_4a/3x3
I0403 14:10:45.199295 29406 net.cpp:425] inception_4a/output <- inception_4a/5x5
I0403 14:10:45.199311 29406 net.cpp:425] inception_4a/output <- inception_4a/pool_proj
I0403 14:10:45.199327 29406 net.cpp:399] inception_4a/output -> inception_4a/output
I0403 14:10:45.199375 29406 net.cpp:141] Setting up inception_4a/output
I0403 14:10:45.199399 29406 net.cpp:148] Top shape: 24 512 14 14 (2408448)
I0403 14:10:45.199414 29406 net.cpp:156] Memory required for data: 896545824
I0403 14:10:45.199429 29406 layer_factory.hpp:77] Creating layer inception_4a/output_inception_4a/output_0_split
I0403 14:10:45.199448 29406 net.cpp:91] Creating Layer inception_4a/output_inception_4a/output_0_split
I0403 14:10:45.199465 29406 net.cpp:425] inception_4a/output_inception_4a/output_0_split <- inception_4a/output
I0403 14:10:45.199482 29406 net.cpp:399] inception_4a/output_inception_4a/output_0_split -> inception_4a/output_inception_4a/output_0_split_0
I0403 14:10:45.199502 29406 net.cpp:399] inception_4a/output_inception_4a/output_0_split -> inception_4a/output_inception_4a/output_0_split_1
I0403 14:10:45.199522 29406 net.cpp:399] inception_4a/output_inception_4a/output_0_split -> inception_4a/output_inception_4a/output_0_split_2
I0403 14:10:45.199545 29406 net.cpp:399] inception_4a/output_inception_4a/output_0_split -> inception_4a/output_inception_4a/output_0_split_3
I0403 14:10:45.199566 29406 net.cpp:399] inception_4a/output_inception_4a/output_0_split -> inception_4a/output_inception_4a/output_0_split_4
I0403 14:10:45.199656 29406 net.cpp:141] Setting up inception_4a/output_inception_4a/output_0_split
I0403 14:10:45.199679 29406 net.cpp:148] Top shape: 24 512 14 14 (2408448)
I0403 14:10:45.199697 29406 net.cpp:148] Top shape: 24 512 14 14 (2408448)
I0403 14:10:45.199712 29406 net.cpp:148] Top shape: 24 512 14 14 (2408448)
I0403 14:10:45.199728 29406 net.cpp:148] Top shape: 24 512 14 14 (2408448)
I0403 14:10:45.199743 29406 net.cpp:148] Top shape: 24 512 14 14 (2408448)
I0403 14:10:45.199758 29406 net.cpp:156] Memory required for data: 944714784
I0403 14:10:45.199772 29406 layer_factory.hpp:77] Creating layer loss1/ave_pool
I0403 14:10:45.199792 29406 net.cpp:91] Creating Layer loss1/ave_pool
I0403 14:10:45.199810 29406 net.cpp:425] loss1/ave_pool <- inception_4a/output_inception_4a/output_0_split_0
I0403 14:10:45.199827 29406 net.cpp:399] loss1/ave_pool -> loss1/ave_pool
I0403 14:10:45.200028 29406 net.cpp:141] Setting up loss1/ave_pool
I0403 14:10:45.200057 29406 net.cpp:148] Top shape: 24 512 4 4 (196608)
I0403 14:10:45.200072 29406 net.cpp:156] Memory required for data: 945501216
I0403 14:10:45.200085 29406 layer_factory.hpp:77] Creating layer loss1/conv
I0403 14:10:45.200108 29406 net.cpp:91] Creating Layer loss1/conv
I0403 14:10:45.200125 29406 net.cpp:425] loss1/conv <- loss1/ave_pool
I0403 14:10:45.200145 29406 net.cpp:399] loss1/conv -> loss1/conv
I0403 14:10:45.201553 29406 net.cpp:141] Setting up loss1/conv
I0403 14:10:45.201581 29406 net.cpp:148] Top shape: 24 128 4 4 (49152)
I0403 14:10:45.201598 29406 net.cpp:156] Memory required for data: 945697824
I0403 14:10:45.201632 29406 layer_factory.hpp:77] Creating layer loss1/relu_conv
I0403 14:10:45.201654 29406 net.cpp:91] Creating Layer loss1/relu_conv
I0403 14:10:45.201673 29406 net.cpp:425] loss1/relu_conv <- loss1/conv
I0403 14:10:45.201689 29406 net.cpp:386] loss1/relu_conv -> loss1/conv (in-place)
I0403 14:10:45.201974 29406 net.cpp:141] Setting up loss1/relu_conv
I0403 14:10:45.202004 29406 net.cpp:148] Top shape: 24 128 4 4 (49152)
I0403 14:10:45.202020 29406 net.cpp:156] Memory required for data: 945894432
I0403 14:10:45.202036 29406 layer_factory.hpp:77] Creating layer loss1/fc
I0403 14:10:45.202061 29406 net.cpp:91] Creating Layer loss1/fc
I0403 14:10:45.202080 29406 net.cpp:425] loss1/fc <- loss1/conv
I0403 14:10:45.202100 29406 net.cpp:399] loss1/fc -> loss1/fc
I0403 14:10:45.219799 29406 net.cpp:141] Setting up loss1/fc
I0403 14:10:45.219862 29406 net.cpp:148] Top shape: 24 1024 (24576)
I0403 14:10:45.219878 29406 net.cpp:156] Memory required for data: 945992736
I0403 14:10:45.219898 29406 layer_factory.hpp:77] Creating layer loss1/relu_fc
I0403 14:10:45.219919 29406 net.cpp:91] Creating Layer loss1/relu_fc
I0403 14:10:45.219936 29406 net.cpp:425] loss1/relu_fc <- loss1/fc
I0403 14:10:45.219957 29406 net.cpp:386] loss1/relu_fc -> loss1/fc (in-place)
I0403 14:10:45.220165 29406 net.cpp:141] Setting up loss1/relu_fc
I0403 14:10:45.220191 29406 net.cpp:148] Top shape: 24 1024 (24576)
I0403 14:10:45.220206 29406 net.cpp:156] Memory required for data: 946091040
I0403 14:10:45.220221 29406 layer_factory.hpp:77] Creating layer loss1/drop_fc
I0403 14:10:45.220248 29406 net.cpp:91] Creating Layer loss1/drop_fc
I0403 14:10:45.220268 29406 net.cpp:425] loss1/drop_fc <- loss1/fc
I0403 14:10:45.220286 29406 net.cpp:386] loss1/drop_fc -> loss1/fc (in-place)
I0403 14:10:45.220340 29406 net.cpp:141] Setting up loss1/drop_fc
I0403 14:10:45.220366 29406 net.cpp:148] Top shape: 24 1024 (24576)
I0403 14:10:45.220382 29406 net.cpp:156] Memory required for data: 946189344
I0403 14:10:45.220399 29406 layer_factory.hpp:77] Creating layer loss1/classifier_plantvillage
I0403 14:10:45.220422 29406 net.cpp:91] Creating Layer loss1/classifier_plantvillage
I0403 14:10:45.220438 29406 net.cpp:425] loss1/classifier_plantvillage <- loss1/fc
I0403 14:10:45.220460 29406 net.cpp:399] loss1/classifier_plantvillage -> loss1/classifier_plantvillage
I0403 14:10:45.221388 29406 net.cpp:141] Setting up loss1/classifier_plantvillage
I0403 14:10:45.221417 29406 net.cpp:148] Top shape: 24 38 (912)
I0403 14:10:45.221433 29406 net.cpp:156] Memory required for data: 946192992
I0403 14:10:45.221452 29406 layer_factory.hpp:77] Creating layer loss1/classifier_plantvillage_loss1/classifier_plantvillage_0_split
I0403 14:10:45.221472 29406 net.cpp:91] Creating Layer loss1/classifier_plantvillage_loss1/classifier_plantvillage_0_split
I0403 14:10:45.221487 29406 net.cpp:425] loss1/classifier_plantvillage_loss1/classifier_plantvillage_0_split <- loss1/classifier_plantvillage
I0403 14:10:45.221508 29406 net.cpp:399] loss1/classifier_plantvillage_loss1/classifier_plantvillage_0_split -> loss1/classifier_plantvillage_loss1/classifier_plantvillage_0_split_0
I0403 14:10:45.221529 29406 net.cpp:399] loss1/classifier_plantvillage_loss1/classifier_plantvillage_0_split -> loss1/classifier_plantvillage_loss1/classifier_plantvillage_0_split_1
I0403 14:10:45.221550 29406 net.cpp:399] loss1/classifier_plantvillage_loss1/classifier_plantvillage_0_split -> loss1/classifier_plantvillage_loss1/classifier_plantvillage_0_split_2
I0403 14:10:45.221621 29406 net.cpp:141] Setting up loss1/classifier_plantvillage_loss1/classifier_plantvillage_0_split
I0403 14:10:45.221647 29406 net.cpp:148] Top shape: 24 38 (912)
I0403 14:10:45.221676 29406 net.cpp:148] Top shape: 24 38 (912)
I0403 14:10:45.221693 29406 net.cpp:148] Top shape: 24 38 (912)
I0403 14:10:45.221705 29406 net.cpp:156] Memory required for data: 946203936
I0403 14:10:45.221719 29406 layer_factory.hpp:77] Creating layer inception_4b/1x1
I0403 14:10:45.221741 29406 net.cpp:91] Creating Layer inception_4b/1x1
I0403 14:10:45.221781 29406 net.cpp:425] inception_4b/1x1 <- inception_4a/output_inception_4a/output_0_split_1
I0403 14:10:45.221802 29406 net.cpp:399] inception_4b/1x1 -> inception_4b/1x1
I0403 14:10:45.223501 29406 net.cpp:141] Setting up inception_4b/1x1
I0403 14:10:45.223531 29406 net.cpp:148] Top shape: 24 160 14 14 (752640)
I0403 14:10:45.223547 29406 net.cpp:156] Memory required for data: 949214496
I0403 14:10:45.223565 29406 layer_factory.hpp:77] Creating layer inception_4b/relu_1x1
I0403 14:10:45.223585 29406 net.cpp:91] Creating Layer inception_4b/relu_1x1
I0403 14:10:45.223603 29406 net.cpp:425] inception_4b/relu_1x1 <- inception_4b/1x1
I0403 14:10:45.223619 29406 net.cpp:386] inception_4b/relu_1x1 -> inception_4b/1x1 (in-place)
I0403 14:10:45.223798 29406 net.cpp:141] Setting up inception_4b/relu_1x1
I0403 14:10:45.223822 29406 net.cpp:148] Top shape: 24 160 14 14 (752640)
I0403 14:10:45.223837 29406 net.cpp:156] Memory required for data: 952225056
I0403 14:10:45.223851 29406 layer_factory.hpp:77] Creating layer inception_4b/3x3_reduce
I0403 14:10:45.223876 29406 net.cpp:91] Creating Layer inception_4b/3x3_reduce
I0403 14:10:45.223894 29406 net.cpp:425] inception_4b/3x3_reduce <- inception_4a/output_inception_4a/output_0_split_2
I0403 14:10:45.223913 29406 net.cpp:399] inception_4b/3x3_reduce -> inception_4b/3x3_reduce
I0403 14:10:45.225256 29406 net.cpp:141] Setting up inception_4b/3x3_reduce
I0403 14:10:45.225286 29406 net.cpp:148] Top shape: 24 112 14 14 (526848)
I0403 14:10:45.225301 29406 net.cpp:156] Memory required for data: 954332448
I0403 14:10:45.225319 29406 layer_factory.hpp:77] Creating layer inception_4b/relu_3x3_reduce
I0403 14:10:45.225342 29406 net.cpp:91] Creating Layer inception_4b/relu_3x3_reduce
I0403 14:10:45.225364 29406 net.cpp:425] inception_4b/relu_3x3_reduce <- inception_4b/3x3_reduce
I0403 14:10:45.225383 29406 net.cpp:386] inception_4b/relu_3x3_reduce -> inception_4b/3x3_reduce (in-place)
I0403 14:10:45.225666 29406 net.cpp:141] Setting up inception_4b/relu_3x3_reduce
I0403 14:10:45.225693 29406 net.cpp:148] Top shape: 24 112 14 14 (526848)
I0403 14:10:45.225708 29406 net.cpp:156] Memory required for data: 956439840
I0403 14:10:45.225723 29406 layer_factory.hpp:77] Creating layer inception_4b/3x3
I0403 14:10:45.225747 29406 net.cpp:91] Creating Layer inception_4b/3x3
I0403 14:10:45.225765 29406 net.cpp:425] inception_4b/3x3 <- inception_4b/3x3_reduce
I0403 14:10:45.225786 29406 net.cpp:399] inception_4b/3x3 -> inception_4b/3x3
I0403 14:10:45.228759 29406 net.cpp:141] Setting up inception_4b/3x3
I0403 14:10:45.228790 29406 net.cpp:148] Top shape: 24 224 14 14 (1053696)
I0403 14:10:45.228807 29406 net.cpp:156] Memory required for data: 960654624
I0403 14:10:45.228826 29406 layer_factory.hpp:77] Creating layer inception_4b/relu_3x3
I0403 14:10:45.228843 29406 net.cpp:91] Creating Layer inception_4b/relu_3x3
I0403 14:10:45.228859 29406 net.cpp:425] inception_4b/relu_3x3 <- inception_4b/3x3
I0403 14:10:45.228878 29406 net.cpp:386] inception_4b/relu_3x3 -> inception_4b/3x3 (in-place)
I0403 14:10:45.229054 29406 net.cpp:141] Setting up inception_4b/relu_3x3
I0403 14:10:45.229080 29406 net.cpp:148] Top shape: 24 224 14 14 (1053696)
I0403 14:10:45.229095 29406 net.cpp:156] Memory required for data: 964869408
I0403 14:10:45.229110 29406 layer_factory.hpp:77] Creating layer inception_4b/5x5_reduce
I0403 14:10:45.229132 29406 net.cpp:91] Creating Layer inception_4b/5x5_reduce
I0403 14:10:45.229151 29406 net.cpp:425] inception_4b/5x5_reduce <- inception_4a/output_inception_4a/output_0_split_3
I0403 14:10:45.229172 29406 net.cpp:399] inception_4b/5x5_reduce -> inception_4b/5x5_reduce
I0403 14:10:45.230263 29406 net.cpp:141] Setting up inception_4b/5x5_reduce
I0403 14:10:45.230290 29406 net.cpp:148] Top shape: 24 24 14 14 (112896)
I0403 14:10:45.230306 29406 net.cpp:156] Memory required for data: 965320992
I0403 14:10:45.230324 29406 layer_factory.hpp:77] Creating layer inception_4b/relu_5x5_reduce
I0403 14:10:45.230345 29406 net.cpp:91] Creating Layer inception_4b/relu_5x5_reduce
I0403 14:10:45.230381 29406 net.cpp:425] inception_4b/relu_5x5_reduce <- inception_4b/5x5_reduce
I0403 14:10:45.230398 29406 net.cpp:386] inception_4b/relu_5x5_reduce -> inception_4b/5x5_reduce (in-place)
I0403 14:10:45.230578 29406 net.cpp:141] Setting up inception_4b/relu_5x5_reduce
I0403 14:10:45.230604 29406 net.cpp:148] Top shape: 24 24 14 14 (112896)
I0403 14:10:45.230622 29406 net.cpp:156] Memory required for data: 965772576
I0403 14:10:45.230638 29406 layer_factory.hpp:77] Creating layer inception_4b/5x5
I0403 14:10:45.230659 29406 net.cpp:91] Creating Layer inception_4b/5x5
I0403 14:10:45.230675 29406 net.cpp:425] inception_4b/5x5 <- inception_4b/5x5_reduce
I0403 14:10:45.230695 29406 net.cpp:399] inception_4b/5x5 -> inception_4b/5x5
I0403 14:10:45.231922 29406 net.cpp:141] Setting up inception_4b/5x5
I0403 14:10:45.231950 29406 net.cpp:148] Top shape: 24 64 14 14 (301056)
I0403 14:10:45.231966 29406 net.cpp:156] Memory required for data: 966976800
I0403 14:10:45.231984 29406 layer_factory.hpp:77] Creating layer inception_4b/relu_5x5
I0403 14:10:45.232005 29406 net.cpp:91] Creating Layer inception_4b/relu_5x5
I0403 14:10:45.232023 29406 net.cpp:425] inception_4b/relu_5x5 <- inception_4b/5x5
I0403 14:10:45.232039 29406 net.cpp:386] inception_4b/relu_5x5 -> inception_4b/5x5 (in-place)
I0403 14:10:45.232322 29406 net.cpp:141] Setting up inception_4b/relu_5x5
I0403 14:10:45.232352 29406 net.cpp:148] Top shape: 24 64 14 14 (301056)
I0403 14:10:45.232368 29406 net.cpp:156] Memory required for data: 968181024
I0403 14:10:45.232384 29406 layer_factory.hpp:77] Creating layer inception_4b/pool
I0403 14:10:45.232405 29406 net.cpp:91] Creating Layer inception_4b/pool
I0403 14:10:45.232421 29406 net.cpp:425] inception_4b/pool <- inception_4a/output_inception_4a/output_0_split_4
I0403 14:10:45.232439 29406 net.cpp:399] inception_4b/pool -> inception_4b/pool
I0403 14:10:45.232501 29406 net.cpp:141] Setting up inception_4b/pool
I0403 14:10:45.232527 29406 net.cpp:148] Top shape: 24 512 14 14 (2408448)
I0403 14:10:45.232542 29406 net.cpp:156] Memory required for data: 977814816
I0403 14:10:45.232556 29406 layer_factory.hpp:77] Creating layer inception_4b/pool_proj
I0403 14:10:45.232578 29406 net.cpp:91] Creating Layer inception_4b/pool_proj
I0403 14:10:45.232594 29406 net.cpp:425] inception_4b/pool_proj <- inception_4b/pool
I0403 14:10:45.232614 29406 net.cpp:399] inception_4b/pool_proj -> inception_4b/pool_proj
I0403 14:10:45.233786 29406 net.cpp:141] Setting up inception_4b/pool_proj
I0403 14:10:45.233814 29406 net.cpp:148] Top shape: 24 64 14 14 (301056)
I0403 14:10:45.233829 29406 net.cpp:156] Memory required for data: 979019040
I0403 14:10:45.233846 29406 layer_factory.hpp:77] Creating layer inception_4b/relu_pool_proj
I0403 14:10:45.233867 29406 net.cpp:91] Creating Layer inception_4b/relu_pool_proj
I0403 14:10:45.233886 29406 net.cpp:425] inception_4b/relu_pool_proj <- inception_4b/pool_proj
I0403 14:10:45.233902 29406 net.cpp:386] inception_4b/relu_pool_proj -> inception_4b/pool_proj (in-place)
I0403 14:10:45.234081 29406 net.cpp:141] Setting up inception_4b/relu_pool_proj
I0403 14:10:45.234110 29406 net.cpp:148] Top shape: 24 64 14 14 (301056)
I0403 14:10:45.234127 29406 net.cpp:156] Memory required for data: 980223264
I0403 14:10:45.234140 29406 layer_factory.hpp:77] Creating layer inception_4b/output
I0403 14:10:45.234158 29406 net.cpp:91] Creating Layer inception_4b/output
I0403 14:10:45.234174 29406 net.cpp:425] inception_4b/output <- inception_4b/1x1
I0403 14:10:45.234190 29406 net.cpp:425] inception_4b/output <- inception_4b/3x3
I0403 14:10:45.234206 29406 net.cpp:425] inception_4b/output <- inception_4b/5x5
I0403 14:10:45.234221 29406 net.cpp:425] inception_4b/output <- inception_4b/pool_proj
I0403 14:10:45.234238 29406 net.cpp:399] inception_4b/output -> inception_4b/output
I0403 14:10:45.234283 29406 net.cpp:141] Setting up inception_4b/output
I0403 14:10:45.234308 29406 net.cpp:148] Top shape: 24 512 14 14 (2408448)
I0403 14:10:45.234323 29406 net.cpp:156] Memory required for data: 989857056
I0403 14:10:45.234360 29406 layer_factory.hpp:77] Creating layer inception_4b/output_inception_4b/output_0_split
I0403 14:10:45.234381 29406 net.cpp:91] Creating Layer inception_4b/output_inception_4b/output_0_split
I0403 14:10:45.234397 29406 net.cpp:425] inception_4b/output_inception_4b/output_0_split <- inception_4b/output
I0403 14:10:45.234417 29406 net.cpp:399] inception_4b/output_inception_4b/output_0_split -> inception_4b/output_inception_4b/output_0_split_0
I0403 14:10:45.234438 29406 net.cpp:399] inception_4b/output_inception_4b/output_0_split -> inception_4b/output_inception_4b/output_0_split_1
I0403 14:10:45.234459 29406 net.cpp:399] inception_4b/output_inception_4b/output_0_split -> inception_4b/output_inception_4b/output_0_split_2
I0403 14:10:45.234483 29406 net.cpp:399] inception_4b/output_inception_4b/output_0_split -> inception_4b/output_inception_4b/output_0_split_3
I0403 14:10:45.234566 29406 net.cpp:141] Setting up inception_4b/output_inception_4b/output_0_split
I0403 14:10:45.234591 29406 net.cpp:148] Top shape: 24 512 14 14 (2408448)
I0403 14:10:45.234606 29406 net.cpp:148] Top shape: 24 512 14 14 (2408448)
I0403 14:10:45.234621 29406 net.cpp:148] Top shape: 24 512 14 14 (2408448)
I0403 14:10:45.234635 29406 net.cpp:148] Top shape: 24 512 14 14 (2408448)
I0403 14:10:45.234649 29406 net.cpp:156] Memory required for data: 1028392224
I0403 14:10:45.234664 29406 layer_factory.hpp:77] Creating layer inception_4c/1x1
I0403 14:10:45.234686 29406 net.cpp:91] Creating Layer inception_4c/1x1
I0403 14:10:45.234704 29406 net.cpp:425] inception_4c/1x1 <- inception_4b/output_inception_4b/output_0_split_0
I0403 14:10:45.234724 29406 net.cpp:399] inception_4c/1x1 -> inception_4c/1x1
I0403 14:10:45.236156 29406 net.cpp:141] Setting up inception_4c/1x1
I0403 14:10:45.236187 29406 net.cpp:148] Top shape: 24 128 14 14 (602112)
I0403 14:10:45.236204 29406 net.cpp:156] Memory required for data: 1030800672
I0403 14:10:45.236222 29406 layer_factory.hpp:77] Creating layer inception_4c/relu_1x1
I0403 14:10:45.236240 29406 net.cpp:91] Creating Layer inception_4c/relu_1x1
I0403 14:10:45.236258 29406 net.cpp:425] inception_4c/relu_1x1 <- inception_4c/1x1
I0403 14:10:45.236277 29406 net.cpp:386] inception_4c/relu_1x1 -> inception_4c/1x1 (in-place)
I0403 14:10:45.236459 29406 net.cpp:141] Setting up inception_4c/relu_1x1
I0403 14:10:45.236485 29406 net.cpp:148] Top shape: 24 128 14 14 (602112)
I0403 14:10:45.236500 29406 net.cpp:156] Memory required for data: 1033209120
I0403 14:10:45.236516 29406 layer_factory.hpp:77] Creating layer inception_4c/3x3_reduce
I0403 14:10:45.236537 29406 net.cpp:91] Creating Layer inception_4c/3x3_reduce
I0403 14:10:45.236555 29406 net.cpp:425] inception_4c/3x3_reduce <- inception_4b/output_inception_4b/output_0_split_1
I0403 14:10:45.236577 29406 net.cpp:399] inception_4c/3x3_reduce -> inception_4c/3x3_reduce
I0403 14:10:45.238482 29406 net.cpp:141] Setting up inception_4c/3x3_reduce
I0403 14:10:45.238512 29406 net.cpp:148] Top shape: 24 128 14 14 (602112)
I0403 14:10:45.238528 29406 net.cpp:156] Memory required for data: 1035617568
I0403 14:10:45.238546 29406 layer_factory.hpp:77] Creating layer inception_4c/relu_3x3_reduce
I0403 14:10:45.238566 29406 net.cpp:91] Creating Layer inception_4c/relu_3x3_reduce
I0403 14:10:45.238584 29406 net.cpp:425] inception_4c/relu_3x3_reduce <- inception_4c/3x3_reduce
I0403 14:10:45.238601 29406 net.cpp:386] inception_4c/relu_3x3_reduce -> inception_4c/3x3_reduce (in-place)
I0403 14:10:45.238883 29406 net.cpp:141] Setting up inception_4c/relu_3x3_reduce
I0403 14:10:45.238909 29406 net.cpp:148] Top shape: 24 128 14 14 (602112)
I0403 14:10:45.238924 29406 net.cpp:156] Memory required for data: 1038026016
I0403 14:10:45.238940 29406 layer_factory.hpp:77] Creating layer inception_4c/3x3
I0403 14:10:45.238961 29406 net.cpp:91] Creating Layer inception_4c/3x3
I0403 14:10:45.238981 29406 net.cpp:425] inception_4c/3x3 <- inception_4c/3x3_reduce
I0403 14:10:45.239003 29406 net.cpp:399] inception_4c/3x3 -> inception_4c/3x3
I0403 14:10:45.242547 29406 net.cpp:141] Setting up inception_4c/3x3
I0403 14:10:45.242589 29406 net.cpp:148] Top shape: 24 256 14 14 (1204224)
I0403 14:10:45.242606 29406 net.cpp:156] Memory required for data: 1042842912
I0403 14:10:45.242637 29406 layer_factory.hpp:77] Creating layer inception_4c/relu_3x3
I0403 14:10:45.242660 29406 net.cpp:91] Creating Layer inception_4c/relu_3x3
I0403 14:10:45.242679 29406 net.cpp:425] inception_4c/relu_3x3 <- inception_4c/3x3
I0403 14:10:45.242697 29406 net.cpp:386] inception_4c/relu_3x3 -> inception_4c/3x3 (in-place)
I0403 14:10:45.242882 29406 net.cpp:141] Setting up inception_4c/relu_3x3
I0403 14:10:45.242908 29406 net.cpp:148] Top shape: 24 256 14 14 (1204224)
I0403 14:10:45.242924 29406 net.cpp:156] Memory required for data: 1047659808
I0403 14:10:45.242939 29406 layer_factory.hpp:77] Creating layer inception_4c/5x5_reduce
I0403 14:10:45.242961 29406 net.cpp:91] Creating Layer inception_4c/5x5_reduce
I0403 14:10:45.242981 29406 net.cpp:425] inception_4c/5x5_reduce <- inception_4b/output_inception_4b/output_0_split_2
I0403 14:10:45.243005 29406 net.cpp:399] inception_4c/5x5_reduce -> inception_4c/5x5_reduce
I0403 14:10:45.244091 29406 net.cpp:141] Setting up inception_4c/5x5_reduce
I0403 14:10:45.244119 29406 net.cpp:148] Top shape: 24 24 14 14 (112896)
I0403 14:10:45.244137 29406 net.cpp:156] Memory required for data: 1048111392
I0403 14:10:45.244155 29406 layer_factory.hpp:77] Creating layer inception_4c/relu_5x5_reduce
I0403 14:10:45.244176 29406 net.cpp:91] Creating Layer inception_4c/relu_5x5_reduce
I0403 14:10:45.244194 29406 net.cpp:425] inception_4c/relu_5x5_reduce <- inception_4c/5x5_reduce
I0403 14:10:45.244211 29406 net.cpp:386] inception_4c/relu_5x5_reduce -> inception_4c/5x5_reduce (in-place)
I0403 14:10:45.244407 29406 net.cpp:141] Setting up inception_4c/relu_5x5_reduce
I0403 14:10:45.244436 29406 net.cpp:148] Top shape: 24 24 14 14 (112896)
I0403 14:10:45.244453 29406 net.cpp:156] Memory required for data: 1048562976
I0403 14:10:45.244469 29406 layer_factory.hpp:77] Creating layer inception_4c/5x5
I0403 14:10:45.244493 29406 net.cpp:91] Creating Layer inception_4c/5x5
I0403 14:10:45.244511 29406 net.cpp:425] inception_4c/5x5 <- inception_4c/5x5_reduce
I0403 14:10:45.244531 29406 net.cpp:399] inception_4c/5x5 -> inception_4c/5x5
I0403 14:10:45.245779 29406 net.cpp:141] Setting up inception_4c/5x5
I0403 14:10:45.245810 29406 net.cpp:148] Top shape: 24 64 14 14 (301056)
I0403 14:10:45.245827 29406 net.cpp:156] Memory required for data: 1049767200
I0403 14:10:45.245846 29406 layer_factory.hpp:77] Creating layer inception_4c/relu_5x5
I0403 14:10:45.245864 29406 net.cpp:91] Creating Layer inception_4c/relu_5x5
I0403 14:10:45.245882 29406 net.cpp:425] inception_4c/relu_5x5 <- inception_4c/5x5
I0403 14:10:45.245900 29406 net.cpp:386] inception_4c/relu_5x5 -> inception_4c/5x5 (in-place)
I0403 14:10:45.246191 29406 net.cpp:141] Setting up inception_4c/relu_5x5
I0403 14:10:45.246220 29406 net.cpp:148] Top shape: 24 64 14 14 (301056)
I0403 14:10:45.246237 29406 net.cpp:156] Memory required for data: 1050971424
I0403 14:10:45.246253 29406 layer_factory.hpp:77] Creating layer inception_4c/pool
I0403 14:10:45.246271 29406 net.cpp:91] Creating Layer inception_4c/pool
I0403 14:10:45.246287 29406 net.cpp:425] inception_4c/pool <- inception_4b/output_inception_4b/output_0_split_3
I0403 14:10:45.246307 29406 net.cpp:399] inception_4c/pool -> inception_4c/pool
I0403 14:10:45.246378 29406 net.cpp:141] Setting up inception_4c/pool
I0403 14:10:45.246403 29406 net.cpp:148] Top shape: 24 512 14 14 (2408448)
I0403 14:10:45.246419 29406 net.cpp:156] Memory required for data: 1060605216
I0403 14:10:45.246434 29406 layer_factory.hpp:77] Creating layer inception_4c/pool_proj
I0403 14:10:45.246457 29406 net.cpp:91] Creating Layer inception_4c/pool_proj
I0403 14:10:45.246474 29406 net.cpp:425] inception_4c/pool_proj <- inception_4c/pool
I0403 14:10:45.246496 29406 net.cpp:399] inception_4c/pool_proj -> inception_4c/pool_proj
I0403 14:10:45.247722 29406 net.cpp:141] Setting up inception_4c/pool_proj
I0403 14:10:45.247750 29406 net.cpp:148] Top shape: 24 64 14 14 (301056)
I0403 14:10:45.247781 29406 net.cpp:156] Memory required for data: 1061809440
I0403 14:10:45.247802 29406 layer_factory.hpp:77] Creating layer inception_4c/relu_pool_proj
I0403 14:10:45.247823 29406 net.cpp:91] Creating Layer inception_4c/relu_pool_proj
I0403 14:10:45.247843 29406 net.cpp:425] inception_4c/relu_pool_proj <- inception_4c/pool_proj
I0403 14:10:45.247859 29406 net.cpp:386] inception_4c/relu_pool_proj -> inception_4c/pool_proj (in-place)
I0403 14:10:45.248045 29406 net.cpp:141] Setting up inception_4c/relu_pool_proj
I0403 14:10:45.248073 29406 net.cpp:148] Top shape: 24 64 14 14 (301056)
I0403 14:10:45.248090 29406 net.cpp:156] Memory required for data: 1063013664
I0403 14:10:45.248106 29406 layer_factory.hpp:77] Creating layer inception_4c/output
I0403 14:10:45.248123 29406 net.cpp:91] Creating Layer inception_4c/output
I0403 14:10:45.248138 29406 net.cpp:425] inception_4c/output <- inception_4c/1x1
I0403 14:10:45.248155 29406 net.cpp:425] inception_4c/output <- inception_4c/3x3
I0403 14:10:45.248172 29406 net.cpp:425] inception_4c/output <- inception_4c/5x5
I0403 14:10:45.248188 29406 net.cpp:425] inception_4c/output <- inception_4c/pool_proj
I0403 14:10:45.248206 29406 net.cpp:399] inception_4c/output -> inception_4c/output
I0403 14:10:45.248255 29406 net.cpp:141] Setting up inception_4c/output
I0403 14:10:45.248278 29406 net.cpp:148] Top shape: 24 512 14 14 (2408448)
I0403 14:10:45.248293 29406 net.cpp:156] Memory required for data: 1072647456
I0403 14:10:45.248308 29406 layer_factory.hpp:77] Creating layer inception_4c/output_inception_4c/output_0_split
I0403 14:10:45.248327 29406 net.cpp:91] Creating Layer inception_4c/output_inception_4c/output_0_split
I0403 14:10:45.248342 29406 net.cpp:425] inception_4c/output_inception_4c/output_0_split <- inception_4c/output
I0403 14:10:45.248366 29406 net.cpp:399] inception_4c/output_inception_4c/output_0_split -> inception_4c/output_inception_4c/output_0_split_0
I0403 14:10:45.248389 29406 net.cpp:399] inception_4c/output_inception_4c/output_0_split -> inception_4c/output_inception_4c/output_0_split_1
I0403 14:10:45.248409 29406 net.cpp:399] inception_4c/output_inception_4c/output_0_split -> inception_4c/output_inception_4c/output_0_split_2
I0403 14:10:45.248432 29406 net.cpp:399] inception_4c/output_inception_4c/output_0_split -> inception_4c/output_inception_4c/output_0_split_3
I0403 14:10:45.248525 29406 net.cpp:141] Setting up inception_4c/output_inception_4c/output_0_split
I0403 14:10:45.248550 29406 net.cpp:148] Top shape: 24 512 14 14 (2408448)
I0403 14:10:45.248567 29406 net.cpp:148] Top shape: 24 512 14 14 (2408448)
I0403 14:10:45.248584 29406 net.cpp:148] Top shape: 24 512 14 14 (2408448)
I0403 14:10:45.248600 29406 net.cpp:148] Top shape: 24 512 14 14 (2408448)
I0403 14:10:45.248613 29406 net.cpp:156] Memory required for data: 1111182624
I0403 14:10:45.248628 29406 layer_factory.hpp:77] Creating layer inception_4d/1x1
I0403 14:10:45.248651 29406 net.cpp:91] Creating Layer inception_4d/1x1
I0403 14:10:45.248669 29406 net.cpp:425] inception_4d/1x1 <- inception_4c/output_inception_4c/output_0_split_0
I0403 14:10:45.248692 29406 net.cpp:399] inception_4d/1x1 -> inception_4d/1x1
I0403 14:10:45.250087 29406 net.cpp:141] Setting up inception_4d/1x1
I0403 14:10:45.250116 29406 net.cpp:148] Top shape: 24 112 14 14 (526848)
I0403 14:10:45.250133 29406 net.cpp:156] Memory required for data: 1113290016
I0403 14:10:45.250150 29406 layer_factory.hpp:77] Creating layer inception_4d/relu_1x1
I0403 14:10:45.250169 29406 net.cpp:91] Creating Layer inception_4d/relu_1x1
I0403 14:10:45.250186 29406 net.cpp:425] inception_4d/relu_1x1 <- inception_4d/1x1
I0403 14:10:45.250206 29406 net.cpp:386] inception_4d/relu_1x1 -> inception_4d/1x1 (in-place)
I0403 14:10:45.250401 29406 net.cpp:141] Setting up inception_4d/relu_1x1
I0403 14:10:45.250427 29406 net.cpp:148] Top shape: 24 112 14 14 (526848)
I0403 14:10:45.250442 29406 net.cpp:156] Memory required for data: 1115397408
I0403 14:10:45.250459 29406 layer_factory.hpp:77] Creating layer inception_4d/3x3_reduce
I0403 14:10:45.250495 29406 net.cpp:91] Creating Layer inception_4d/3x3_reduce
I0403 14:10:45.250516 29406 net.cpp:425] inception_4d/3x3_reduce <- inception_4c/output_inception_4c/output_0_split_1
I0403 14:10:45.250540 29406 net.cpp:399] inception_4d/3x3_reduce -> inception_4d/3x3_reduce
I0403 14:10:45.252099 29406 net.cpp:141] Setting up inception_4d/3x3_reduce
I0403 14:10:45.252130 29406 net.cpp:148] Top shape: 24 144 14 14 (677376)
I0403 14:10:45.252146 29406 net.cpp:156] Memory required for data: 1118106912
I0403 14:10:45.252166 29406 layer_factory.hpp:77] Creating layer inception_4d/relu_3x3_reduce
I0403 14:10:45.252183 29406 net.cpp:91] Creating Layer inception_4d/relu_3x3_reduce
I0403 14:10:45.252200 29406 net.cpp:425] inception_4d/relu_3x3_reduce <- inception_4d/3x3_reduce
I0403 14:10:45.252218 29406 net.cpp:386] inception_4d/relu_3x3_reduce -> inception_4d/3x3_reduce (in-place)
I0403 14:10:45.252516 29406 net.cpp:141] Setting up inception_4d/relu_3x3_reduce
I0403 14:10:45.252547 29406 net.cpp:148] Top shape: 24 144 14 14 (677376)
I0403 14:10:45.252563 29406 net.cpp:156] Memory required for data: 1120816416
I0403 14:10:45.252578 29406 layer_factory.hpp:77] Creating layer inception_4d/3x3
I0403 14:10:45.252600 29406 net.cpp:91] Creating Layer inception_4d/3x3
I0403 14:10:45.252619 29406 net.cpp:425] inception_4d/3x3 <- inception_4d/3x3_reduce
I0403 14:10:45.252638 29406 net.cpp:399] inception_4d/3x3 -> inception_4d/3x3
I0403 14:10:45.256918 29406 net.cpp:141] Setting up inception_4d/3x3
I0403 14:10:45.256949 29406 net.cpp:148] Top shape: 24 288 14 14 (1354752)
I0403 14:10:45.256965 29406 net.cpp:156] Memory required for data: 1126235424
I0403 14:10:45.256984 29406 layer_factory.hpp:77] Creating layer inception_4d/relu_3x3
I0403 14:10:45.257004 29406 net.cpp:91] Creating Layer inception_4d/relu_3x3
I0403 14:10:45.257019 29406 net.cpp:425] inception_4d/relu_3x3 <- inception_4d/3x3
I0403 14:10:45.257040 29406 net.cpp:386] inception_4d/relu_3x3 -> inception_4d/3x3 (in-place)
I0403 14:10:45.257228 29406 net.cpp:141] Setting up inception_4d/relu_3x3
I0403 14:10:45.257254 29406 net.cpp:148] Top shape: 24 288 14 14 (1354752)
I0403 14:10:45.257269 29406 net.cpp:156] Memory required for data: 1131654432
I0403 14:10:45.257285 29406 layer_factory.hpp:77] Creating layer inception_4d/5x5_reduce
I0403 14:10:45.257308 29406 net.cpp:91] Creating Layer inception_4d/5x5_reduce
I0403 14:10:45.257326 29406 net.cpp:425] inception_4d/5x5_reduce <- inception_4c/output_inception_4c/output_0_split_2
I0403 14:10:45.257351 29406 net.cpp:399] inception_4d/5x5_reduce -> inception_4d/5x5_reduce
I0403 14:10:45.258518 29406 net.cpp:141] Setting up inception_4d/5x5_reduce
I0403 14:10:45.258548 29406 net.cpp:148] Top shape: 24 32 14 14 (150528)
I0403 14:10:45.258563 29406 net.cpp:156] Memory required for data: 1132256544
I0403 14:10:45.258584 29406 layer_factory.hpp:77] Creating layer inception_4d/relu_5x5_reduce
I0403 14:10:45.258605 29406 net.cpp:91] Creating Layer inception_4d/relu_5x5_reduce
I0403 14:10:45.258622 29406 net.cpp:425] inception_4d/relu_5x5_reduce <- inception_4d/5x5_reduce
I0403 14:10:45.258641 29406 net.cpp:386] inception_4d/relu_5x5_reduce -> inception_4d/5x5_reduce (in-place)
I0403 14:10:45.258837 29406 net.cpp:141] Setting up inception_4d/relu_5x5_reduce
I0403 14:10:45.258863 29406 net.cpp:148] Top shape: 24 32 14 14 (150528)
I0403 14:10:45.258878 29406 net.cpp:156] Memory required for data: 1132858656
I0403 14:10:45.258893 29406 layer_factory.hpp:77] Creating layer inception_4d/5x5
I0403 14:10:45.258918 29406 net.cpp:91] Creating Layer inception_4d/5x5
I0403 14:10:45.258935 29406 net.cpp:425] inception_4d/5x5 <- inception_4d/5x5_reduce
I0403 14:10:45.258957 29406 net.cpp:399] inception_4d/5x5 -> inception_4d/5x5
I0403 14:10:45.260447 29406 net.cpp:141] Setting up inception_4d/5x5
I0403 14:10:45.260475 29406 net.cpp:148] Top shape: 24 64 14 14 (301056)
I0403 14:10:45.260493 29406 net.cpp:156] Memory required for data: 1134062880
I0403 14:10:45.260512 29406 layer_factory.hpp:77] Creating layer inception_4d/relu_5x5
I0403 14:10:45.260557 29406 net.cpp:91] Creating Layer inception_4d/relu_5x5
I0403 14:10:45.260576 29406 net.cpp:425] inception_4d/relu_5x5 <- inception_4d/5x5
I0403 14:10:45.260594 29406 net.cpp:386] inception_4d/relu_5x5 -> inception_4d/5x5 (in-place)
I0403 14:10:45.260897 29406 net.cpp:141] Setting up inception_4d/relu_5x5
I0403 14:10:45.260926 29406 net.cpp:148] Top shape: 24 64 14 14 (301056)
I0403 14:10:45.260941 29406 net.cpp:156] Memory required for data: 1135267104
I0403 14:10:45.260957 29406 layer_factory.hpp:77] Creating layer inception_4d/pool
I0403 14:10:45.260977 29406 net.cpp:91] Creating Layer inception_4d/pool
I0403 14:10:45.260993 29406 net.cpp:425] inception_4d/pool <- inception_4c/output_inception_4c/output_0_split_3
I0403 14:10:45.261011 29406 net.cpp:399] inception_4d/pool -> inception_4d/pool
I0403 14:10:45.261080 29406 net.cpp:141] Setting up inception_4d/pool
I0403 14:10:45.261103 29406 net.cpp:148] Top shape: 24 512 14 14 (2408448)
I0403 14:10:45.261118 29406 net.cpp:156] Memory required for data: 1144900896
I0403 14:10:45.261134 29406 layer_factory.hpp:77] Creating layer inception_4d/pool_proj
I0403 14:10:45.261157 29406 net.cpp:91] Creating Layer inception_4d/pool_proj
I0403 14:10:45.261173 29406 net.cpp:425] inception_4d/pool_proj <- inception_4d/pool
I0403 14:10:45.261194 29406 net.cpp:399] inception_4d/pool_proj -> inception_4d/pool_proj
I0403 14:10:45.262966 29406 net.cpp:141] Setting up inception_4d/pool_proj
I0403 14:10:45.262997 29406 net.cpp:148] Top shape: 24 64 14 14 (301056)
I0403 14:10:45.263013 29406 net.cpp:156] Memory required for data: 1146105120
I0403 14:10:45.263032 29406 layer_factory.hpp:77] Creating layer inception_4d/relu_pool_proj
I0403 14:10:45.263052 29406 net.cpp:91] Creating Layer inception_4d/relu_pool_proj
I0403 14:10:45.263069 29406 net.cpp:425] inception_4d/relu_pool_proj <- inception_4d/pool_proj
I0403 14:10:45.263088 29406 net.cpp:386] inception_4d/relu_pool_proj -> inception_4d/pool_proj (in-place)
I0403 14:10:45.263278 29406 net.cpp:141] Setting up inception_4d/relu_pool_proj
I0403 14:10:45.263303 29406 net.cpp:148] Top shape: 24 64 14 14 (301056)
I0403 14:10:45.263319 29406 net.cpp:156] Memory required for data: 1147309344
I0403 14:10:45.263334 29406 layer_factory.hpp:77] Creating layer inception_4d/output
I0403 14:10:45.263360 29406 net.cpp:91] Creating Layer inception_4d/output
I0403 14:10:45.263378 29406 net.cpp:425] inception_4d/output <- inception_4d/1x1
I0403 14:10:45.263396 29406 net.cpp:425] inception_4d/output <- inception_4d/3x3
I0403 14:10:45.263411 29406 net.cpp:425] inception_4d/output <- inception_4d/5x5
I0403 14:10:45.263428 29406 net.cpp:425] inception_4d/output <- inception_4d/pool_proj
I0403 14:10:45.263447 29406 net.cpp:399] inception_4d/output -> inception_4d/output
I0403 14:10:45.263495 29406 net.cpp:141] Setting up inception_4d/output
I0403 14:10:45.263522 29406 net.cpp:148] Top shape: 24 528 14 14 (2483712)
I0403 14:10:45.263537 29406 net.cpp:156] Memory required for data: 1157244192
I0403 14:10:45.263552 29406 layer_factory.hpp:77] Creating layer inception_4d/output_inception_4d/output_0_split
I0403 14:10:45.263571 29406 net.cpp:91] Creating Layer inception_4d/output_inception_4d/output_0_split
I0403 14:10:45.263587 29406 net.cpp:425] inception_4d/output_inception_4d/output_0_split <- inception_4d/output
I0403 14:10:45.263609 29406 net.cpp:399] inception_4d/output_inception_4d/output_0_split -> inception_4d/output_inception_4d/output_0_split_0
I0403 14:10:45.263630 29406 net.cpp:399] inception_4d/output_inception_4d/output_0_split -> inception_4d/output_inception_4d/output_0_split_1
I0403 14:10:45.263653 29406 net.cpp:399] inception_4d/output_inception_4d/output_0_split -> inception_4d/output_inception_4d/output_0_split_2
I0403 14:10:45.263674 29406 net.cpp:399] inception_4d/output_inception_4d/output_0_split -> inception_4d/output_inception_4d/output_0_split_3
I0403 14:10:45.263694 29406 net.cpp:399] inception_4d/output_inception_4d/output_0_split -> inception_4d/output_inception_4d/output_0_split_4
I0403 14:10:45.263798 29406 net.cpp:141] Setting up inception_4d/output_inception_4d/output_0_split
I0403 14:10:45.263835 29406 net.cpp:148] Top shape: 24 528 14 14 (2483712)
I0403 14:10:45.263859 29406 net.cpp:148] Top shape: 24 528 14 14 (2483712)
I0403 14:10:45.263875 29406 net.cpp:148] Top shape: 24 528 14 14 (2483712)
I0403 14:10:45.263890 29406 net.cpp:148] Top shape: 24 528 14 14 (2483712)
I0403 14:10:45.263906 29406 net.cpp:148] Top shape: 24 528 14 14 (2483712)
I0403 14:10:45.263919 29406 net.cpp:156] Memory required for data: 1206918432
I0403 14:10:45.263936 29406 layer_factory.hpp:77] Creating layer loss2/ave_pool
I0403 14:10:45.263953 29406 net.cpp:91] Creating Layer loss2/ave_pool
I0403 14:10:45.263968 29406 net.cpp:425] loss2/ave_pool <- inception_4d/output_inception_4d/output_0_split_0
I0403 14:10:45.263989 29406 net.cpp:399] loss2/ave_pool -> loss2/ave_pool
I0403 14:10:45.264309 29406 net.cpp:141] Setting up loss2/ave_pool
I0403 14:10:45.264338 29406 net.cpp:148] Top shape: 24 528 4 4 (202752)
I0403 14:10:45.264364 29406 net.cpp:156] Memory required for data: 1207729440
I0403 14:10:45.264384 29406 layer_factory.hpp:77] Creating layer loss2/conv
I0403 14:10:45.264406 29406 net.cpp:91] Creating Layer loss2/conv
I0403 14:10:45.264425 29406 net.cpp:425] loss2/conv <- loss2/ave_pool
I0403 14:10:45.264446 29406 net.cpp:399] loss2/conv -> loss2/conv
I0403 14:10:45.266363 29406 net.cpp:141] Setting up loss2/conv
I0403 14:10:45.266392 29406 net.cpp:148] Top shape: 24 128 4 4 (49152)
I0403 14:10:45.266412 29406 net.cpp:156] Memory required for data: 1207926048
I0403 14:10:45.266430 29406 layer_factory.hpp:77] Creating layer loss2/relu_conv
I0403 14:10:45.266450 29406 net.cpp:91] Creating Layer loss2/relu_conv
I0403 14:10:45.266468 29406 net.cpp:425] loss2/relu_conv <- loss2/conv
I0403 14:10:45.266485 29406 net.cpp:386] loss2/relu_conv -> loss2/conv (in-place)
I0403 14:10:45.266777 29406 net.cpp:141] Setting up loss2/relu_conv
I0403 14:10:45.266804 29406 net.cpp:148] Top shape: 24 128 4 4 (49152)
I0403 14:10:45.266822 29406 net.cpp:156] Memory required for data: 1208122656
I0403 14:10:45.266839 29406 layer_factory.hpp:77] Creating layer loss2/fc
I0403 14:10:45.266858 29406 net.cpp:91] Creating Layer loss2/fc
I0403 14:10:45.266876 29406 net.cpp:425] loss2/fc <- loss2/conv
I0403 14:10:45.266901 29406 net.cpp:399] loss2/fc -> loss2/fc
I0403 14:10:45.284593 29406 net.cpp:141] Setting up loss2/fc
I0403 14:10:45.284642 29406 net.cpp:148] Top shape: 24 1024 (24576)
I0403 14:10:45.284658 29406 net.cpp:156] Memory required for data: 1208220960
I0403 14:10:45.284678 29406 layer_factory.hpp:77] Creating layer loss2/relu_fc
I0403 14:10:45.284699 29406 net.cpp:91] Creating Layer loss2/relu_fc
I0403 14:10:45.284718 29406 net.cpp:425] loss2/relu_fc <- loss2/fc
I0403 14:10:45.284737 29406 net.cpp:386] loss2/relu_fc -> loss2/fc (in-place)
I0403 14:10:45.285073 29406 net.cpp:141] Setting up loss2/relu_fc
I0403 14:10:45.285099 29406 net.cpp:148] Top shape: 24 1024 (24576)
I0403 14:10:45.285115 29406 net.cpp:156] Memory required for data: 1208319264
I0403 14:10:45.285131 29406 layer_factory.hpp:77] Creating layer loss2/drop_fc
I0403 14:10:45.285152 29406 net.cpp:91] Creating Layer loss2/drop_fc
I0403 14:10:45.285168 29406 net.cpp:425] loss2/drop_fc <- loss2/fc
I0403 14:10:45.285187 29406 net.cpp:386] loss2/drop_fc -> loss2/fc (in-place)
I0403 14:10:45.285238 29406 net.cpp:141] Setting up loss2/drop_fc
I0403 14:10:45.285262 29406 net.cpp:148] Top shape: 24 1024 (24576)
I0403 14:10:45.285279 29406 net.cpp:156] Memory required for data: 1208417568
I0403 14:10:45.285295 29406 layer_factory.hpp:77] Creating layer loss2/classifier_plantvillage
I0403 14:10:45.285313 29406 net.cpp:91] Creating Layer loss2/classifier_plantvillage
I0403 14:10:45.285331 29406 net.cpp:425] loss2/classifier_plantvillage <- loss2/fc
I0403 14:10:45.285354 29406 net.cpp:399] loss2/classifier_plantvillage -> loss2/classifier_plantvillage
I0403 14:10:45.285770 29406 net.cpp:141] Setting up loss2/classifier_plantvillage
I0403 14:10:45.285799 29406 net.cpp:148] Top shape: 24 38 (912)
I0403 14:10:45.285815 29406 net.cpp:156] Memory required for data: 1208421216
I0403 14:10:45.285857 29406 layer_factory.hpp:77] Creating layer loss2/classifier_plantvillage_loss2/classifier_plantvillage_0_split
I0403 14:10:45.285877 29406 net.cpp:91] Creating Layer loss2/classifier_plantvillage_loss2/classifier_plantvillage_0_split
I0403 14:10:45.285893 29406 net.cpp:425] loss2/classifier_plantvillage_loss2/classifier_plantvillage_0_split <- loss2/classifier_plantvillage
I0403 14:10:45.285915 29406 net.cpp:399] loss2/classifier_plantvillage_loss2/classifier_plantvillage_0_split -> loss2/classifier_plantvillage_loss2/classifier_plantvillage_0_split_0
I0403 14:10:45.285935 29406 net.cpp:399] loss2/classifier_plantvillage_loss2/classifier_plantvillage_0_split -> loss2/classifier_plantvillage_loss2/classifier_plantvillage_0_split_1
I0403 14:10:45.285960 29406 net.cpp:399] loss2/classifier_plantvillage_loss2/classifier_plantvillage_0_split -> loss2/classifier_plantvillage_loss2/classifier_plantvillage_0_split_2
I0403 14:10:45.286041 29406 net.cpp:141] Setting up loss2/classifier_plantvillage_loss2/classifier_plantvillage_0_split
I0403 14:10:45.286064 29406 net.cpp:148] Top shape: 24 38 (912)
I0403 14:10:45.286082 29406 net.cpp:148] Top shape: 24 38 (912)
I0403 14:10:45.286098 29406 net.cpp:148] Top shape: 24 38 (912)
I0403 14:10:45.286110 29406 net.cpp:156] Memory required for data: 1208432160
I0403 14:10:45.286126 29406 layer_factory.hpp:77] Creating layer inception_4e/1x1
I0403 14:10:45.286149 29406 net.cpp:91] Creating Layer inception_4e/1x1
I0403 14:10:45.286166 29406 net.cpp:425] inception_4e/1x1 <- inception_4d/output_inception_4d/output_0_split_1
I0403 14:10:45.286187 29406 net.cpp:399] inception_4e/1x1 -> inception_4e/1x1
I0403 14:10:45.288054 29406 net.cpp:141] Setting up inception_4e/1x1
I0403 14:10:45.288084 29406 net.cpp:148] Top shape: 24 256 14 14 (1204224)
I0403 14:10:45.288100 29406 net.cpp:156] Memory required for data: 1213249056
I0403 14:10:45.288120 29406 layer_factory.hpp:77] Creating layer inception_4e/relu_1x1
I0403 14:10:45.288139 29406 net.cpp:91] Creating Layer inception_4e/relu_1x1
I0403 14:10:45.288157 29406 net.cpp:425] inception_4e/relu_1x1 <- inception_4e/1x1
I0403 14:10:45.288177 29406 net.cpp:386] inception_4e/relu_1x1 -> inception_4e/1x1 (in-place)
I0403 14:10:45.288483 29406 net.cpp:141] Setting up inception_4e/relu_1x1
I0403 14:10:45.288511 29406 net.cpp:148] Top shape: 24 256 14 14 (1204224)
I0403 14:10:45.288525 29406 net.cpp:156] Memory required for data: 1218065952
I0403 14:10:45.288540 29406 layer_factory.hpp:77] Creating layer inception_4e/3x3_reduce
I0403 14:10:45.288565 29406 net.cpp:91] Creating Layer inception_4e/3x3_reduce
I0403 14:10:45.288583 29406 net.cpp:425] inception_4e/3x3_reduce <- inception_4d/output_inception_4d/output_0_split_2
I0403 14:10:45.288604 29406 net.cpp:399] inception_4e/3x3_reduce -> inception_4e/3x3_reduce
I0403 14:10:45.290738 29406 net.cpp:141] Setting up inception_4e/3x3_reduce
I0403 14:10:45.290768 29406 net.cpp:148] Top shape: 24 160 14 14 (752640)
I0403 14:10:45.290784 29406 net.cpp:156] Memory required for data: 1221076512
I0403 14:10:45.290804 29406 layer_factory.hpp:77] Creating layer inception_4e/relu_3x3_reduce
I0403 14:10:45.290824 29406 net.cpp:91] Creating Layer inception_4e/relu_3x3_reduce
I0403 14:10:45.290843 29406 net.cpp:425] inception_4e/relu_3x3_reduce <- inception_4e/3x3_reduce
I0403 14:10:45.290860 29406 net.cpp:386] inception_4e/relu_3x3_reduce -> inception_4e/3x3_reduce (in-place)
I0403 14:10:45.291049 29406 net.cpp:141] Setting up inception_4e/relu_3x3_reduce
I0403 14:10:45.291077 29406 net.cpp:148] Top shape: 24 160 14 14 (752640)
I0403 14:10:45.291093 29406 net.cpp:156] Memory required for data: 1224087072
I0403 14:10:45.291110 29406 layer_factory.hpp:77] Creating layer inception_4e/3x3
I0403 14:10:45.291132 29406 net.cpp:91] Creating Layer inception_4e/3x3
I0403 14:10:45.291151 29406 net.cpp:425] inception_4e/3x3 <- inception_4e/3x3_reduce
I0403 14:10:45.291169 29406 net.cpp:399] inception_4e/3x3 -> inception_4e/3x3
I0403 14:10:45.296207 29406 net.cpp:141] Setting up inception_4e/3x3
I0403 14:10:45.296252 29406 net.cpp:148] Top shape: 24 320 14 14 (1505280)
I0403 14:10:45.296270 29406 net.cpp:156] Memory required for data: 1230108192
I0403 14:10:45.296289 29406 layer_factory.hpp:77] Creating layer inception_4e/relu_3x3
I0403 14:10:45.296308 29406 net.cpp:91] Creating Layer inception_4e/relu_3x3
I0403 14:10:45.296324 29406 net.cpp:425] inception_4e/relu_3x3 <- inception_4e/3x3
I0403 14:10:45.296345 29406 net.cpp:386] inception_4e/relu_3x3 -> inception_4e/3x3 (in-place)
I0403 14:10:45.296658 29406 net.cpp:141] Setting up inception_4e/relu_3x3
I0403 14:10:45.296684 29406 net.cpp:148] Top shape: 24 320 14 14 (1505280)
I0403 14:10:45.296700 29406 net.cpp:156] Memory required for data: 1236129312
I0403 14:10:45.296715 29406 layer_factory.hpp:77] Creating layer inception_4e/5x5_reduce
I0403 14:10:45.296739 29406 net.cpp:91] Creating Layer inception_4e/5x5_reduce
I0403 14:10:45.296757 29406 net.cpp:425] inception_4e/5x5_reduce <- inception_4d/output_inception_4d/output_0_split_3
I0403 14:10:45.296779 29406 net.cpp:399] inception_4e/5x5_reduce -> inception_4e/5x5_reduce
I0403 14:10:45.297873 29406 net.cpp:141] Setting up inception_4e/5x5_reduce
I0403 14:10:45.297902 29406 net.cpp:148] Top shape: 24 32 14 14 (150528)
I0403 14:10:45.297919 29406 net.cpp:156] Memory required for data: 1236731424
I0403 14:10:45.297937 29406 layer_factory.hpp:77] Creating layer inception_4e/relu_5x5_reduce
I0403 14:10:45.297958 29406 net.cpp:91] Creating Layer inception_4e/relu_5x5_reduce
I0403 14:10:45.297976 29406 net.cpp:425] inception_4e/relu_5x5_reduce <- inception_4e/5x5_reduce
I0403 14:10:45.297993 29406 net.cpp:386] inception_4e/relu_5x5_reduce -> inception_4e/5x5_reduce (in-place)
I0403 14:10:45.298303 29406 net.cpp:141] Setting up inception_4e/relu_5x5_reduce
I0403 14:10:45.298331 29406 net.cpp:148] Top shape: 24 32 14 14 (150528)
I0403 14:10:45.298349 29406 net.cpp:156] Memory required for data: 1237333536
I0403 14:10:45.298367 29406 layer_factory.hpp:77] Creating layer inception_4e/5x5
I0403 14:10:45.298408 29406 net.cpp:91] Creating Layer inception_4e/5x5
I0403 14:10:45.298427 29406 net.cpp:425] inception_4e/5x5 <- inception_4e/5x5_reduce
I0403 14:10:45.298446 29406 net.cpp:399] inception_4e/5x5 -> inception_4e/5x5
I0403 14:10:45.300339 29406 net.cpp:141] Setting up inception_4e/5x5
I0403 14:10:45.300371 29406 net.cpp:148] Top shape: 24 128 14 14 (602112)
I0403 14:10:45.300387 29406 net.cpp:156] Memory required for data: 1239741984
I0403 14:10:45.300407 29406 layer_factory.hpp:77] Creating layer inception_4e/relu_5x5
I0403 14:10:45.300428 29406 net.cpp:91] Creating Layer inception_4e/relu_5x5
I0403 14:10:45.300447 29406 net.cpp:425] inception_4e/relu_5x5 <- inception_4e/5x5
I0403 14:10:45.300465 29406 net.cpp:386] inception_4e/relu_5x5 -> inception_4e/5x5 (in-place)
I0403 14:10:45.300667 29406 net.cpp:141] Setting up inception_4e/relu_5x5
I0403 14:10:45.300693 29406 net.cpp:148] Top shape: 24 128 14 14 (602112)
I0403 14:10:45.300709 29406 net.cpp:156] Memory required for data: 1242150432
I0403 14:10:45.300724 29406 layer_factory.hpp:77] Creating layer inception_4e/pool
I0403 14:10:45.300743 29406 net.cpp:91] Creating Layer inception_4e/pool
I0403 14:10:45.300760 29406 net.cpp:425] inception_4e/pool <- inception_4d/output_inception_4d/output_0_split_4
I0403 14:10:45.300777 29406 net.cpp:399] inception_4e/pool -> inception_4e/pool
I0403 14:10:45.300849 29406 net.cpp:141] Setting up inception_4e/pool
I0403 14:10:45.300873 29406 net.cpp:148] Top shape: 24 528 14 14 (2483712)
I0403 14:10:45.300889 29406 net.cpp:156] Memory required for data: 1252085280
I0403 14:10:45.300902 29406 layer_factory.hpp:77] Creating layer inception_4e/pool_proj
I0403 14:10:45.300925 29406 net.cpp:91] Creating Layer inception_4e/pool_proj
I0403 14:10:45.300942 29406 net.cpp:425] inception_4e/pool_proj <- inception_4e/pool
I0403 14:10:45.300963 29406 net.cpp:399] inception_4e/pool_proj -> inception_4e/pool_proj
I0403 14:10:45.302485 29406 net.cpp:141] Setting up inception_4e/pool_proj
I0403 14:10:45.302516 29406 net.cpp:148] Top shape: 24 128 14 14 (602112)
I0403 14:10:45.302548 29406 net.cpp:156] Memory required for data: 1254493728
I0403 14:10:45.302568 29406 layer_factory.hpp:77] Creating layer inception_4e/relu_pool_proj
I0403 14:10:45.302588 29406 net.cpp:91] Creating Layer inception_4e/relu_pool_proj
I0403 14:10:45.302605 29406 net.cpp:425] inception_4e/relu_pool_proj <- inception_4e/pool_proj
I0403 14:10:45.302626 29406 net.cpp:386] inception_4e/relu_pool_proj -> inception_4e/pool_proj (in-place)
I0403 14:10:45.302922 29406 net.cpp:141] Setting up inception_4e/relu_pool_proj
I0403 14:10:45.302950 29406 net.cpp:148] Top shape: 24 128 14 14 (602112)
I0403 14:10:45.302966 29406 net.cpp:156] Memory required for data: 1256902176
I0403 14:10:45.302981 29406 layer_factory.hpp:77] Creating layer inception_4e/output
I0403 14:10:45.302999 29406 net.cpp:91] Creating Layer inception_4e/output
I0403 14:10:45.303014 29406 net.cpp:425] inception_4e/output <- inception_4e/1x1
I0403 14:10:45.303031 29406 net.cpp:425] inception_4e/output <- inception_4e/3x3
I0403 14:10:45.303047 29406 net.cpp:425] inception_4e/output <- inception_4e/5x5
I0403 14:10:45.303064 29406 net.cpp:425] inception_4e/output <- inception_4e/pool_proj
I0403 14:10:45.303083 29406 net.cpp:399] inception_4e/output -> inception_4e/output
I0403 14:10:45.303136 29406 net.cpp:141] Setting up inception_4e/output
I0403 14:10:45.303163 29406 net.cpp:148] Top shape: 24 832 14 14 (3913728)
I0403 14:10:45.303179 29406 net.cpp:156] Memory required for data: 1272557088
I0403 14:10:45.303192 29406 layer_factory.hpp:77] Creating layer pool4/3x3_s2
I0403 14:10:45.303210 29406 net.cpp:91] Creating Layer pool4/3x3_s2
I0403 14:10:45.303225 29406 net.cpp:425] pool4/3x3_s2 <- inception_4e/output
I0403 14:10:45.303246 29406 net.cpp:399] pool4/3x3_s2 -> pool4/3x3_s2
I0403 14:10:45.303316 29406 net.cpp:141] Setting up pool4/3x3_s2
I0403 14:10:45.303340 29406 net.cpp:148] Top shape: 24 832 7 7 (978432)
I0403 14:10:45.303359 29406 net.cpp:156] Memory required for data: 1276470816
I0403 14:10:45.303375 29406 layer_factory.hpp:77] Creating layer pool4/3x3_s2_pool4/3x3_s2_0_split
I0403 14:10:45.303395 29406 net.cpp:91] Creating Layer pool4/3x3_s2_pool4/3x3_s2_0_split
I0403 14:10:45.303412 29406 net.cpp:425] pool4/3x3_s2_pool4/3x3_s2_0_split <- pool4/3x3_s2
I0403 14:10:45.303429 29406 net.cpp:399] pool4/3x3_s2_pool4/3x3_s2_0_split -> pool4/3x3_s2_pool4/3x3_s2_0_split_0
I0403 14:10:45.303449 29406 net.cpp:399] pool4/3x3_s2_pool4/3x3_s2_0_split -> pool4/3x3_s2_pool4/3x3_s2_0_split_1
I0403 14:10:45.303472 29406 net.cpp:399] pool4/3x3_s2_pool4/3x3_s2_0_split -> pool4/3x3_s2_pool4/3x3_s2_0_split_2
I0403 14:10:45.303493 29406 net.cpp:399] pool4/3x3_s2_pool4/3x3_s2_0_split -> pool4/3x3_s2_pool4/3x3_s2_0_split_3
I0403 14:10:45.303586 29406 net.cpp:141] Setting up pool4/3x3_s2_pool4/3x3_s2_0_split
I0403 14:10:45.303609 29406 net.cpp:148] Top shape: 24 832 7 7 (978432)
I0403 14:10:45.303625 29406 net.cpp:148] Top shape: 24 832 7 7 (978432)
I0403 14:10:45.303642 29406 net.cpp:148] Top shape: 24 832 7 7 (978432)
I0403 14:10:45.303658 29406 net.cpp:148] Top shape: 24 832 7 7 (978432)
I0403 14:10:45.303671 29406 net.cpp:156] Memory required for data: 1292125728
I0403 14:10:45.303686 29406 layer_factory.hpp:77] Creating layer inception_5a/1x1
I0403 14:10:45.303709 29406 net.cpp:91] Creating Layer inception_5a/1x1
I0403 14:10:45.303727 29406 net.cpp:425] inception_5a/1x1 <- pool4/3x3_s2_pool4/3x3_s2_0_split_0
I0403 14:10:45.303750 29406 net.cpp:399] inception_5a/1x1 -> inception_5a/1x1
I0403 14:10:45.306663 29406 net.cpp:141] Setting up inception_5a/1x1
I0403 14:10:45.306694 29406 net.cpp:148] Top shape: 24 256 7 7 (301056)
I0403 14:10:45.306713 29406 net.cpp:156] Memory required for data: 1293329952
I0403 14:10:45.306733 29406 layer_factory.hpp:77] Creating layer inception_5a/relu_1x1
I0403 14:10:45.306754 29406 net.cpp:91] Creating Layer inception_5a/relu_1x1
I0403 14:10:45.306771 29406 net.cpp:425] inception_5a/relu_1x1 <- inception_5a/1x1
I0403 14:10:45.306789 29406 net.cpp:386] inception_5a/relu_1x1 -> inception_5a/1x1 (in-place)
I0403 14:10:45.307108 29406 net.cpp:141] Setting up inception_5a/relu_1x1
I0403 14:10:45.307137 29406 net.cpp:148] Top shape: 24 256 7 7 (301056)
I0403 14:10:45.307152 29406 net.cpp:156] Memory required for data: 1294534176
I0403 14:10:45.307168 29406 layer_factory.hpp:77] Creating layer inception_5a/3x3_reduce
I0403 14:10:45.307189 29406 net.cpp:91] Creating Layer inception_5a/3x3_reduce
I0403 14:10:45.307207 29406 net.cpp:425] inception_5a/3x3_reduce <- pool4/3x3_s2_pool4/3x3_s2_0_split_1
I0403 14:10:45.307229 29406 net.cpp:399] inception_5a/3x3_reduce -> inception_5a/3x3_reduce
I0403 14:10:45.309707 29406 net.cpp:141] Setting up inception_5a/3x3_reduce
I0403 14:10:45.309739 29406 net.cpp:148] Top shape: 24 160 7 7 (188160)
I0403 14:10:45.309757 29406 net.cpp:156] Memory required for data: 1295286816
I0403 14:10:45.309777 29406 layer_factory.hpp:77] Creating layer inception_5a/relu_3x3_reduce
I0403 14:10:45.309795 29406 net.cpp:91] Creating Layer inception_5a/relu_3x3_reduce
I0403 14:10:45.309810 29406 net.cpp:425] inception_5a/relu_3x3_reduce <- inception_5a/3x3_reduce
I0403 14:10:45.309830 29406 net.cpp:386] inception_5a/relu_3x3_reduce -> inception_5a/3x3_reduce (in-place)
I0403 14:10:45.310020 29406 net.cpp:141] Setting up inception_5a/relu_3x3_reduce
I0403 14:10:45.310046 29406 net.cpp:148] Top shape: 24 160 7 7 (188160)
I0403 14:10:45.310061 29406 net.cpp:156] Memory required for data: 1296039456
I0403 14:10:45.310077 29406 layer_factory.hpp:77] Creating layer inception_5a/3x3
I0403 14:10:45.310099 29406 net.cpp:91] Creating Layer inception_5a/3x3
I0403 14:10:45.310118 29406 net.cpp:425] inception_5a/3x3 <- inception_5a/3x3_reduce
I0403 14:10:45.310142 29406 net.cpp:399] inception_5a/3x3 -> inception_5a/3x3
I0403 14:10:45.315202 29406 net.cpp:141] Setting up inception_5a/3x3
I0403 14:10:45.315233 29406 net.cpp:148] Top shape: 24 320 7 7 (376320)
I0403 14:10:45.315249 29406 net.cpp:156] Memory required for data: 1297544736
I0403 14:10:45.315268 29406 layer_factory.hpp:77] Creating layer inception_5a/relu_3x3
I0403 14:10:45.315289 29406 net.cpp:91] Creating Layer inception_5a/relu_3x3
I0403 14:10:45.315306 29406 net.cpp:425] inception_5a/relu_3x3 <- inception_5a/3x3
I0403 14:10:45.315325 29406 net.cpp:386] inception_5a/relu_3x3 -> inception_5a/3x3 (in-place)
I0403 14:10:45.315644 29406 net.cpp:141] Setting up inception_5a/relu_3x3
I0403 14:10:45.315670 29406 net.cpp:148] Top shape: 24 320 7 7 (376320)
I0403 14:10:45.315686 29406 net.cpp:156] Memory required for data: 1299050016
I0403 14:10:45.315702 29406 layer_factory.hpp:77] Creating layer inception_5a/5x5_reduce
I0403 14:10:45.315726 29406 net.cpp:91] Creating Layer inception_5a/5x5_reduce
I0403 14:10:45.315743 29406 net.cpp:425] inception_5a/5x5_reduce <- pool4/3x3_s2_pool4/3x3_s2_0_split_2
I0403 14:10:45.315768 29406 net.cpp:399] inception_5a/5x5_reduce -> inception_5a/5x5_reduce
I0403 14:10:45.316973 29406 net.cpp:141] Setting up inception_5a/5x5_reduce
I0403 14:10:45.317004 29406 net.cpp:148] Top shape: 24 32 7 7 (37632)
I0403 14:10:45.317021 29406 net.cpp:156] Memory required for data: 1299200544
I0403 14:10:45.317039 29406 layer_factory.hpp:77] Creating layer inception_5a/relu_5x5_reduce
I0403 14:10:45.317057 29406 net.cpp:91] Creating Layer inception_5a/relu_5x5_reduce
I0403 14:10:45.317075 29406 net.cpp:425] inception_5a/relu_5x5_reduce <- inception_5a/5x5_reduce
I0403 14:10:45.317092 29406 net.cpp:386] inception_5a/relu_5x5_reduce -> inception_5a/5x5_reduce (in-place)
I0403 14:10:45.317419 29406 net.cpp:141] Setting up inception_5a/relu_5x5_reduce
I0403 14:10:45.317447 29406 net.cpp:148] Top shape: 24 32 7 7 (37632)
I0403 14:10:45.317464 29406 net.cpp:156] Memory required for data: 1299351072
I0403 14:10:45.317479 29406 layer_factory.hpp:77] Creating layer inception_5a/5x5
I0403 14:10:45.317500 29406 net.cpp:91] Creating Layer inception_5a/5x5
I0403 14:10:45.317518 29406 net.cpp:425] inception_5a/5x5 <- inception_5a/5x5_reduce
I0403 14:10:45.317540 29406 net.cpp:399] inception_5a/5x5 -> inception_5a/5x5
I0403 14:10:45.319293 29406 net.cpp:141] Setting up inception_5a/5x5
I0403 14:10:45.319334 29406 net.cpp:148] Top shape: 24 128 7 7 (150528)
I0403 14:10:45.319355 29406 net.cpp:156] Memory required for data: 1299953184
I0403 14:10:45.319375 29406 layer_factory.hpp:77] Creating layer inception_5a/relu_5x5
I0403 14:10:45.319394 29406 net.cpp:91] Creating Layer inception_5a/relu_5x5
I0403 14:10:45.319412 29406 net.cpp:425] inception_5a/relu_5x5 <- inception_5a/5x5
I0403 14:10:45.319430 29406 net.cpp:386] inception_5a/relu_5x5 -> inception_5a/5x5 (in-place)
I0403 14:10:45.319625 29406 net.cpp:141] Setting up inception_5a/relu_5x5
I0403 14:10:45.319653 29406 net.cpp:148] Top shape: 24 128 7 7 (150528)
I0403 14:10:45.319669 29406 net.cpp:156] Memory required for data: 1300555296
I0403 14:10:45.319684 29406 layer_factory.hpp:77] Creating layer inception_5a/pool
I0403 14:10:45.319701 29406 net.cpp:91] Creating Layer inception_5a/pool
I0403 14:10:45.319717 29406 net.cpp:425] inception_5a/pool <- pool4/3x3_s2_pool4/3x3_s2_0_split_3
I0403 14:10:45.319736 29406 net.cpp:399] inception_5a/pool -> inception_5a/pool
I0403 14:10:45.319808 29406 net.cpp:141] Setting up inception_5a/pool
I0403 14:10:45.319833 29406 net.cpp:148] Top shape: 24 832 7 7 (978432)
I0403 14:10:45.319849 29406 net.cpp:156] Memory required for data: 1304469024
I0403 14:10:45.319862 29406 layer_factory.hpp:77] Creating layer inception_5a/pool_proj
I0403 14:10:45.319887 29406 net.cpp:91] Creating Layer inception_5a/pool_proj
I0403 14:10:45.319905 29406 net.cpp:425] inception_5a/pool_proj <- inception_5a/pool
I0403 14:10:45.319926 29406 net.cpp:399] inception_5a/pool_proj -> inception_5a/pool_proj
I0403 14:10:45.322228 29406 net.cpp:141] Setting up inception_5a/pool_proj
I0403 14:10:45.322258 29406 net.cpp:148] Top shape: 24 128 7 7 (150528)
I0403 14:10:45.322274 29406 net.cpp:156] Memory required for data: 1305071136
I0403 14:10:45.322293 29406 layer_factory.hpp:77] Creating layer inception_5a/relu_pool_proj
I0403 14:10:45.322314 29406 net.cpp:91] Creating Layer inception_5a/relu_pool_proj
I0403 14:10:45.322330 29406 net.cpp:425] inception_5a/relu_pool_proj <- inception_5a/pool_proj
I0403 14:10:45.322351 29406 net.cpp:386] inception_5a/relu_pool_proj -> inception_5a/pool_proj (in-place)
I0403 14:10:45.322652 29406 net.cpp:141] Setting up inception_5a/relu_pool_proj
I0403 14:10:45.322679 29406 net.cpp:148] Top shape: 24 128 7 7 (150528)
I0403 14:10:45.322695 29406 net.cpp:156] Memory required for data: 1305673248
I0403 14:10:45.322708 29406 layer_factory.hpp:77] Creating layer inception_5a/output
I0403 14:10:45.322739 29406 net.cpp:91] Creating Layer inception_5a/output
I0403 14:10:45.322756 29406 net.cpp:425] inception_5a/output <- inception_5a/1x1
I0403 14:10:45.322772 29406 net.cpp:425] inception_5a/output <- inception_5a/3x3
I0403 14:10:45.322788 29406 net.cpp:425] inception_5a/output <- inception_5a/5x5
I0403 14:10:45.322805 29406 net.cpp:425] inception_5a/output <- inception_5a/pool_proj
I0403 14:10:45.322825 29406 net.cpp:399] inception_5a/output -> inception_5a/output
I0403 14:10:45.322877 29406 net.cpp:141] Setting up inception_5a/output
I0403 14:10:45.322903 29406 net.cpp:148] Top shape: 24 832 7 7 (978432)
I0403 14:10:45.322919 29406 net.cpp:156] Memory required for data: 1309586976
I0403 14:10:45.322935 29406 layer_factory.hpp:77] Creating layer inception_5a/output_inception_5a/output_0_split
I0403 14:10:45.322952 29406 net.cpp:91] Creating Layer inception_5a/output_inception_5a/output_0_split
I0403 14:10:45.322968 29406 net.cpp:425] inception_5a/output_inception_5a/output_0_split <- inception_5a/output
I0403 14:10:45.322989 29406 net.cpp:399] inception_5a/output_inception_5a/output_0_split -> inception_5a/output_inception_5a/output_0_split_0
I0403 14:10:45.323011 29406 net.cpp:399] inception_5a/output_inception_5a/output_0_split -> inception_5a/output_inception_5a/output_0_split_1
I0403 14:10:45.323045 29406 net.cpp:399] inception_5a/output_inception_5a/output_0_split -> inception_5a/output_inception_5a/output_0_split_2
I0403 14:10:45.323065 29406 net.cpp:399] inception_5a/output_inception_5a/output_0_split -> inception_5a/output_inception_5a/output_0_split_3
I0403 14:10:45.323178 29406 net.cpp:141] Setting up inception_5a/output_inception_5a/output_0_split
I0403 14:10:45.323201 29406 net.cpp:148] Top shape: 24 832 7 7 (978432)
I0403 14:10:45.323220 29406 net.cpp:148] Top shape: 24 832 7 7 (978432)
I0403 14:10:45.323236 29406 net.cpp:148] Top shape: 24 832 7 7 (978432)
I0403 14:10:45.323253 29406 net.cpp:148] Top shape: 24 832 7 7 (978432)
I0403 14:10:45.323269 29406 net.cpp:156] Memory required for data: 1325241888
I0403 14:10:45.323284 29406 layer_factory.hpp:77] Creating layer inception_5b/1x1
I0403 14:10:45.323304 29406 net.cpp:91] Creating Layer inception_5b/1x1
I0403 14:10:45.323320 29406 net.cpp:425] inception_5b/1x1 <- inception_5a/output_inception_5a/output_0_split_0
I0403 14:10:45.323341 29406 net.cpp:399] inception_5b/1x1 -> inception_5b/1x1
I0403 14:10:45.327153 29406 net.cpp:141] Setting up inception_5b/1x1
I0403 14:10:45.327183 29406 net.cpp:148] Top shape: 24 384 7 7 (451584)
I0403 14:10:45.327199 29406 net.cpp:156] Memory required for data: 1327048224
I0403 14:10:45.327219 29406 layer_factory.hpp:77] Creating layer inception_5b/relu_1x1
I0403 14:10:45.327237 29406 net.cpp:91] Creating Layer inception_5b/relu_1x1
I0403 14:10:45.327255 29406 net.cpp:425] inception_5b/relu_1x1 <- inception_5b/1x1
I0403 14:10:45.327273 29406 net.cpp:386] inception_5b/relu_1x1 -> inception_5b/1x1 (in-place)
I0403 14:10:45.327589 29406 net.cpp:141] Setting up inception_5b/relu_1x1
I0403 14:10:45.327615 29406 net.cpp:148] Top shape: 24 384 7 7 (451584)
I0403 14:10:45.327630 29406 net.cpp:156] Memory required for data: 1328854560
I0403 14:10:45.327646 29406 layer_factory.hpp:77] Creating layer inception_5b/3x3_reduce
I0403 14:10:45.327668 29406 net.cpp:91] Creating Layer inception_5b/3x3_reduce
I0403 14:10:45.327685 29406 net.cpp:425] inception_5b/3x3_reduce <- inception_5a/output_inception_5a/output_0_split_1
I0403 14:10:45.327708 29406 net.cpp:399] inception_5b/3x3_reduce -> inception_5b/3x3_reduce
I0403 14:10:45.330430 29406 net.cpp:141] Setting up inception_5b/3x3_reduce
I0403 14:10:45.330459 29406 net.cpp:148] Top shape: 24 192 7 7 (225792)
I0403 14:10:45.330476 29406 net.cpp:156] Memory required for data: 1329757728
I0403 14:10:45.330494 29406 layer_factory.hpp:77] Creating layer inception_5b/relu_3x3_reduce
I0403 14:10:45.330516 29406 net.cpp:91] Creating Layer inception_5b/relu_3x3_reduce
I0403 14:10:45.330533 29406 net.cpp:425] inception_5b/relu_3x3_reduce <- inception_5b/3x3_reduce
I0403 14:10:45.330564 29406 net.cpp:386] inception_5b/relu_3x3_reduce -> inception_5b/3x3_reduce (in-place)
I0403 14:10:45.330765 29406 net.cpp:141] Setting up inception_5b/relu_3x3_reduce
I0403 14:10:45.330790 29406 net.cpp:148] Top shape: 24 192 7 7 (225792)
I0403 14:10:45.330804 29406 net.cpp:156] Memory required for data: 1330660896
I0403 14:10:45.330819 29406 layer_factory.hpp:77] Creating layer inception_5b/3x3
I0403 14:10:45.330853 29406 net.cpp:91] Creating Layer inception_5b/3x3
I0403 14:10:45.330871 29406 net.cpp:425] inception_5b/3x3 <- inception_5b/3x3_reduce
I0403 14:10:45.330893 29406 net.cpp:399] inception_5b/3x3 -> inception_5b/3x3
I0403 14:10:45.337677 29406 net.cpp:141] Setting up inception_5b/3x3
I0403 14:10:45.337707 29406 net.cpp:148] Top shape: 24 384 7 7 (451584)
I0403 14:10:45.337723 29406 net.cpp:156] Memory required for data: 1332467232
I0403 14:10:45.337741 29406 layer_factory.hpp:77] Creating layer inception_5b/relu_3x3
I0403 14:10:45.337761 29406 net.cpp:91] Creating Layer inception_5b/relu_3x3
I0403 14:10:45.337779 29406 net.cpp:425] inception_5b/relu_3x3 <- inception_5b/3x3
I0403 14:10:45.337796 29406 net.cpp:386] inception_5b/relu_3x3 -> inception_5b/3x3 (in-place)
I0403 14:10:45.338096 29406 net.cpp:141] Setting up inception_5b/relu_3x3
I0403 14:10:45.338124 29406 net.cpp:148] Top shape: 24 384 7 7 (451584)
I0403 14:10:45.338138 29406 net.cpp:156] Memory required for data: 1334273568
I0403 14:10:45.338153 29406 layer_factory.hpp:77] Creating layer inception_5b/5x5_reduce
I0403 14:10:45.338193 29406 net.cpp:91] Creating Layer inception_5b/5x5_reduce
I0403 14:10:45.338212 29406 net.cpp:425] inception_5b/5x5_reduce <- inception_5a/output_inception_5a/output_0_split_2
I0403 14:10:45.338234 29406 net.cpp:399] inception_5b/5x5_reduce -> inception_5b/5x5_reduce
I0403 14:10:45.339531 29406 net.cpp:141] Setting up inception_5b/5x5_reduce
I0403 14:10:45.339560 29406 net.cpp:148] Top shape: 24 48 7 7 (56448)
I0403 14:10:45.339576 29406 net.cpp:156] Memory required for data: 1334499360
I0403 14:10:45.339594 29406 layer_factory.hpp:77] Creating layer inception_5b/relu_5x5_reduce
I0403 14:10:45.339612 29406 net.cpp:91] Creating Layer inception_5b/relu_5x5_reduce
I0403 14:10:45.339627 29406 net.cpp:425] inception_5b/relu_5x5_reduce <- inception_5b/5x5_reduce
I0403 14:10:45.339646 29406 net.cpp:386] inception_5b/relu_5x5_reduce -> inception_5b/5x5_reduce (in-place)
I0403 14:10:45.340031 29406 net.cpp:141] Setting up inception_5b/relu_5x5_reduce
I0403 14:10:45.340057 29406 net.cpp:148] Top shape: 24 48 7 7 (56448)
I0403 14:10:45.340073 29406 net.cpp:156] Memory required for data: 1334725152
I0403 14:10:45.340088 29406 layer_factory.hpp:77] Creating layer inception_5b/5x5
I0403 14:10:45.340108 29406 net.cpp:91] Creating Layer inception_5b/5x5
I0403 14:10:45.340126 29406 net.cpp:425] inception_5b/5x5 <- inception_5b/5x5_reduce
I0403 14:10:45.340144 29406 net.cpp:399] inception_5b/5x5 -> inception_5b/5x5
I0403 14:10:45.342255 29406 net.cpp:141] Setting up inception_5b/5x5
I0403 14:10:45.342283 29406 net.cpp:148] Top shape: 24 128 7 7 (150528)
I0403 14:10:45.342298 29406 net.cpp:156] Memory required for data: 1335327264
I0403 14:10:45.342317 29406 layer_factory.hpp:77] Creating layer inception_5b/relu_5x5
I0403 14:10:45.342337 29406 net.cpp:91] Creating Layer inception_5b/relu_5x5
I0403 14:10:45.342358 29406 net.cpp:425] inception_5b/relu_5x5 <- inception_5b/5x5
I0403 14:10:45.342377 29406 net.cpp:386] inception_5b/relu_5x5 -> inception_5b/5x5 (in-place)
I0403 14:10:45.342576 29406 net.cpp:141] Setting up inception_5b/relu_5x5
I0403 14:10:45.342602 29406 net.cpp:148] Top shape: 24 128 7 7 (150528)
I0403 14:10:45.342618 29406 net.cpp:156] Memory required for data: 1335929376
I0403 14:10:45.342633 29406 layer_factory.hpp:77] Creating layer inception_5b/pool
I0403 14:10:45.342650 29406 net.cpp:91] Creating Layer inception_5b/pool
I0403 14:10:45.342666 29406 net.cpp:425] inception_5b/pool <- inception_5a/output_inception_5a/output_0_split_3
I0403 14:10:45.342686 29406 net.cpp:399] inception_5b/pool -> inception_5b/pool
I0403 14:10:45.342761 29406 net.cpp:141] Setting up inception_5b/pool
I0403 14:10:45.342783 29406 net.cpp:148] Top shape: 24 832 7 7 (978432)
I0403 14:10:45.342798 29406 net.cpp:156] Memory required for data: 1339843104
I0403 14:10:45.342813 29406 layer_factory.hpp:77] Creating layer inception_5b/pool_proj
I0403 14:10:45.342836 29406 net.cpp:91] Creating Layer inception_5b/pool_proj
I0403 14:10:45.342854 29406 net.cpp:425] inception_5b/pool_proj <- inception_5b/pool
I0403 14:10:45.342876 29406 net.cpp:399] inception_5b/pool_proj -> inception_5b/pool_proj
I0403 14:10:45.345214 29406 net.cpp:141] Setting up inception_5b/pool_proj
I0403 14:10:45.345243 29406 net.cpp:148] Top shape: 24 128 7 7 (150528)
I0403 14:10:45.345259 29406 net.cpp:156] Memory required for data: 1340445216
I0403 14:10:45.345278 29406 layer_factory.hpp:77] Creating layer inception_5b/relu_pool_proj
I0403 14:10:45.345299 29406 net.cpp:91] Creating Layer inception_5b/relu_pool_proj
I0403 14:10:45.345316 29406 net.cpp:425] inception_5b/relu_pool_proj <- inception_5b/pool_proj
I0403 14:10:45.345335 29406 net.cpp:386] inception_5b/relu_pool_proj -> inception_5b/pool_proj (in-place)
I0403 14:10:45.345639 29406 net.cpp:141] Setting up inception_5b/relu_pool_proj
I0403 14:10:45.345666 29406 net.cpp:148] Top shape: 24 128 7 7 (150528)
I0403 14:10:45.345681 29406 net.cpp:156] Memory required for data: 1341047328
I0403 14:10:45.345696 29406 layer_factory.hpp:77] Creating layer inception_5b/output
I0403 14:10:45.345715 29406 net.cpp:91] Creating Layer inception_5b/output
I0403 14:10:45.345744 29406 net.cpp:425] inception_5b/output <- inception_5b/1x1
I0403 14:10:45.345762 29406 net.cpp:425] inception_5b/output <- inception_5b/3x3
I0403 14:10:45.345778 29406 net.cpp:425] inception_5b/output <- inception_5b/5x5
I0403 14:10:45.345795 29406 net.cpp:425] inception_5b/output <- inception_5b/pool_proj
I0403 14:10:45.345814 29406 net.cpp:399] inception_5b/output -> inception_5b/output
I0403 14:10:45.345870 29406 net.cpp:141] Setting up inception_5b/output
I0403 14:10:45.345893 29406 net.cpp:148] Top shape: 24 1024 7 7 (1204224)
I0403 14:10:45.345907 29406 net.cpp:156] Memory required for data: 1345864224
I0403 14:10:45.345922 29406 layer_factory.hpp:77] Creating layer pool5/7x7_s1
I0403 14:10:45.345939 29406 net.cpp:91] Creating Layer pool5/7x7_s1
I0403 14:10:45.345955 29406 net.cpp:425] pool5/7x7_s1 <- inception_5b/output
I0403 14:10:45.345976 29406 net.cpp:399] pool5/7x7_s1 -> pool5/7x7_s1
I0403 14:10:45.346199 29406 net.cpp:141] Setting up pool5/7x7_s1
I0403 14:10:45.346225 29406 net.cpp:148] Top shape: 24 1024 1 1 (24576)
I0403 14:10:45.346240 29406 net.cpp:156] Memory required for data: 1345962528
I0403 14:10:45.346253 29406 layer_factory.hpp:77] Creating layer pool5/drop_7x7_s1
I0403 14:10:45.346274 29406 net.cpp:91] Creating Layer pool5/drop_7x7_s1
I0403 14:10:45.346292 29406 net.cpp:425] pool5/drop_7x7_s1 <- pool5/7x7_s1
I0403 14:10:45.346308 29406 net.cpp:386] pool5/drop_7x7_s1 -> pool5/7x7_s1 (in-place)
I0403 14:10:45.346364 29406 net.cpp:141] Setting up pool5/drop_7x7_s1
I0403 14:10:45.346387 29406 net.cpp:148] Top shape: 24 1024 1 1 (24576)
I0403 14:10:45.346402 29406 net.cpp:156] Memory required for data: 1346060832
I0403 14:10:45.346416 29406 layer_factory.hpp:77] Creating layer loss3/classifier_plantvillage
I0403 14:10:45.346436 29406 net.cpp:91] Creating Layer loss3/classifier_plantvillage
I0403 14:10:45.346451 29406 net.cpp:425] loss3/classifier_plantvillage <- pool5/7x7_s1
I0403 14:10:45.346472 29406 net.cpp:399] loss3/classifier_plantvillage -> loss3/classifier_plantvillage
I0403 14:10:45.346904 29406 net.cpp:141] Setting up loss3/classifier_plantvillage
I0403 14:10:45.346927 29406 net.cpp:148] Top shape: 24 38 (912)
I0403 14:10:45.346942 29406 net.cpp:156] Memory required for data: 1346064480
I0403 14:10:45.346961 29406 layer_factory.hpp:77] Creating layer loss3/classifier_plantvillage_loss3/classifier_plantvillage_0_split
I0403 14:10:45.346982 29406 net.cpp:91] Creating Layer loss3/classifier_plantvillage_loss3/classifier_plantvillage_0_split
I0403 14:10:45.347000 29406 net.cpp:425] loss3/classifier_plantvillage_loss3/classifier_plantvillage_0_split <- loss3/classifier_plantvillage
I0403 14:10:45.347019 29406 net.cpp:399] loss3/classifier_plantvillage_loss3/classifier_plantvillage_0_split -> loss3/classifier_plantvillage_loss3/classifier_plantvillage_0_split_0
I0403 14:10:45.347040 29406 net.cpp:399] loss3/classifier_plantvillage_loss3/classifier_plantvillage_0_split -> loss3/classifier_plantvillage_loss3/classifier_plantvillage_0_split_1
I0403 14:10:45.347060 29406 net.cpp:399] loss3/classifier_plantvillage_loss3/classifier_plantvillage_0_split -> loss3/classifier_plantvillage_loss3/classifier_plantvillage_0_split_2
I0403 14:10:45.347080 29406 net.cpp:399] loss3/classifier_plantvillage_loss3/classifier_plantvillage_0_split -> loss3/classifier_plantvillage_loss3/classifier_plantvillage_0_split_3
I0403 14:10:45.347183 29406 net.cpp:141] Setting up loss3/classifier_plantvillage_loss3/classifier_plantvillage_0_split
I0403 14:10:45.347208 29406 net.cpp:148] Top shape: 24 38 (912)
I0403 14:10:45.347223 29406 net.cpp:148] Top shape: 24 38 (912)
I0403 14:10:45.347239 29406 net.cpp:148] Top shape: 24 38 (912)
I0403 14:10:45.347254 29406 net.cpp:148] Top shape: 24 38 (912)
I0403 14:10:45.347267 29406 net.cpp:156] Memory required for data: 1346079072
I0403 14:10:45.347281 29406 layer_factory.hpp:77] Creating layer loss1/loss
I0403 14:10:45.347302 29406 net.cpp:91] Creating Layer loss1/loss
I0403 14:10:45.347319 29406 net.cpp:425] loss1/loss <- loss1/classifier_plantvillage_loss1/classifier_plantvillage_0_split_0
I0403 14:10:45.347354 29406 net.cpp:425] loss1/loss <- label_data_1_split_0
…
