…
I0403 15:30:24.542583 31976 net.cpp:313] The NetState phase (1) differed from the phase (0) specified by a rule in layer data
I0403 15:30:24.543787 31976 net.cpp:49] Initializing net from parameters: 
state {
  phase: TEST
}
layer {
  name: "data"
  type: "Data"
  top: "data"
  top: "label"
  include {
    phase: TEST
  }
  transform_param {
    mirror: false
    crop_size: 224
    mean_file: "/home/mohanty/data/final_dataset/lmdb/color-20-80/mean.binaryproto"
  }
  data_param {
    source: "/home/mohanty/data/final_dataset/lmdb/color-20-80/test_db"
    batch_size: 24
    backend: LMDB
  }
}
layer {
  name: "conv1/7x7_s2"
  type: "Convolution"
  bottom: "data"
  top: "conv1/7x7_s2"
  param {
    lr_mult: 1
    decay_mult: 1
  }
  param {
    lr_mult: 2
    decay_mult: 0
  }
  convolution_param {
    num_output: 64
    pad: 3
    kernel_size: 7
    stride: 2
    weight_filler {
      type: "xavier"
      std: 0.1
    }
    bias_filler {
      type: "constant"
      value: 0.2
    }
  }
}
layer {
  name: "conv1/relu_7x7"
  type: "ReLU"
  bottom: "conv1/7x7_s2"
  top: "conv1/7x7_s2"
}
layer {
  name: "pool1/3x3_s2"
  type: "Pooling"
  bottom: "conv1/7x7_s2"
  top: "pool1/3x3_s2"
  pooling_param {
    pool: MAX
    kernel_size: 3
    stride: 2
  }
}
layer {
  name: "pool1/norm1"
  type: "LRN"
  bottom: "pool1/3x3_s2"
  top: "pool1/norm1"
  lrn_param {
    local_size: 5
    alpha: 0.0001
    beta: 0.75
  }
}
layer {
  name: "conv2/3x3_reduce"
  type: "Convolution"
  bottom: "pool1/norm1"
  top: "conv2/3x3_reduce"
  param {
    lr_mult: 1
    decay_mult: 1
  }
  param {
    lr_mult: 2
    decay_mult: 0
  }
  convolution_param {
    num_output: 64
    kernel_size: 1
    weight_filler {
      type: "xavier"
      std: 0.1
    }
    bias_filler {
      type: "constant"
      value: 0.2
    }
  }
}
layer {
  name: "conv2/relu_3x3_reduce"
  type: "ReLU"
  bottom: "conv2/3x3_reduce"
  top: "conv2/3x3_reduce"
}
layer {
  name: "conv2/3x3"
  type: "Convolution"
  bottom: "conv2/3x3_reduce"
  top: "conv2/3x3"
  param {
    lr_mult: 1
    decay_mult: 1
  }
  param {
    lr_mult: 2
    decay_mult: 0
  }
  convolution_param {
    num_output: 192
    pad: 1
    kernel_size: 3
    weight_filler {
      type: "xavier"
      std: 0.03
    }
    bias_filler {
      type: "constant"
      value: 0.2
    }
  }
}
layer {
  name: "conv2/relu_3x3"
  type: "ReLU"
  bottom: "conv2/3x3"
  top: "conv2/3x3"
}
layer {
  name: "conv2/norm2"
  type: "LRN"
  bottom: "conv2/3x3"
  top: "conv2/norm2"
  lrn_param {
    local_size: 5
    alpha: 0.0001
    beta: 0.75
  }
}
layer {
  name: "pool2/3x3_s2"
  type: "Pooling"
  bottom: "conv2/norm2"
  top: "pool2/3x3_s2"
  pooling_param {
    pool: MAX
    kernel_size: 3
    stride: 2
  }
}
layer {
  name: "inception_3a/1x1"
  type: "Convolution"
  bottom: "pool2/3x3_s2"
  top: "inception_3a/1x1"
  param {
    lr_mult: 1
    decay_mult: 1
  }
  param {
    lr_mult: 2
    decay_mult: 0
  }
  convolution_param {
    num_output: 64
    kernel_size: 1
    weight_filler {
      type: "xavier"
      std: 0.03
    }
    bias_filler {
      type: "constant"
      value: 0.2
    }
  }
}
layer {
  name: "inception_3a/relu_1x1"
  type: "ReLU"
  bottom: "inception_3a/1x1"
  top: "inception_3a/1x1"
}
layer {
  name: "inception_3a/3x3_reduce"
  type: "Convolution"
  bottom: "pool2/3x3_s2"
  top: "inception_3a/3x3_reduce"
  param {
    lr_mult: 1
    decay_mult: 1
  }
  param {
    lr_mult: 2
    decay_mult: 0
  }
  convolution_param {
    num_output: 96
    kernel_size: 1
    weight_filler {
      type: "xavier"
      std: 0.09
    }
    bias_filler {
      type: "constant"
      value: 0.2
    }
  }
}
layer {
  name: "inception_3a/relu_3x3_reduce"
  type: "ReLU"
  bottom: "inception_3a/3x3_reduce"
  top: "inception_3a/3x3_reduce"
}
layer {
  name: "inception_3a/3x3"
  type: "Convolution"
  bottom: "inception_3a/3x3_reduce"
  top: "inception_3a/3x3"
  param {
    lr_mult: 1
    decay_mult: 1
  }
  param {
    lr_mult: 2
    decay_mult: 0
  }
  convolution_param {
    num_output: 128
    pad: 1
    kernel_size: 3
    weight_filler {
      type: "xavier"
      std: 0.03
    }
    bias_filler {
      type: "constant"
      value: 0.2
    }
  }
}
layer {
  name: "inception_3a/relu_3x3"
  type: "ReLU"
  bottom: "inception_3a/3x3"
  top: "inception_3a/3x3"
}
layer {
  name: "inception_3a/5x5_reduce"
  type: "Convolution"
  bottom: "pool2/3x3_s2"
  top: "inception_3a/5x5_reduce"
  param {
    lr_mult: 1
    decay_mult: 1
  }
  param {
    lr_mult: 2
    decay_mult: 0
  }
  convolution_param {
    num_output: 16
    kernel_size: 1
    weight_filler {
      type: "xavier"
      std: 0.2
    }
    bias_filler {
      type: "constant"
      value: 0.2
    }
  }
}
layer {
  name: "inception_3a/relu_5x5_reduce"
  type: "ReLU"
  bottom: "inception_3a/5x5_reduce"
  top: "inception_3a/5x5_reduce"
}
layer {
  name: "inception_3a/5x5"
  type: "Convolution"
  bottom: "inception_3a/5x5_reduce"
  top: "inception_3a/5x5"
  param {
    lr_mult: 1
    decay_mult: 1
  }
  param {
    lr_mult: 2
    decay_mult: 0
  }
  convolution_param {
    num_output: 32
    pad: 2
    kernel_size: 5
    weight_filler {
      type: "xavier"
      std: 0.03
    }
    bias_filler {
      type: "constant"
      value: 0.2
    }
  }
}
layer {
  name: "inception_3a/relu_5x5"
  type: "ReLU"
  bottom: "inception_3a/5x5"
  top: "inception_3a/5x5"
}
layer {
  name: "inception_3a/pool"
  type: "Pooling"
  bottom: "pool2/3x3_s2"
  top: "inception_3a/pool"
  pooling_param {
    pool: MAX
    kernel_size: 3
    stride: 1
    pad: 1
  }
}
layer {
  name: "inception_3a/pool_proj"
  type: "Convolution"
  bottom: "inception_3a/pool"
  top: "inception_3a/pool_proj"
  param {
    lr_mult: 1
    decay_mult: 1
  }
  param {
    lr_mult: 2
    decay_mult: 0
  }
  convolution_param {
    num_output: 32
    kernel_size: 1
    weight_filler {
      type: "xavier"
      std: 0.1
    }
    bias_filler {
      type: "constant"
      value: 0.2
    }
  }
}
layer {
  name: "inception_3a/relu_pool_proj"
  type: "ReLU"
  bottom: "inception_3a/pool_proj"
  top: "inception_3a/pool_proj"
}
layer {
  name: "inception_3a/output"
  type: "Concat"
  bottom: "inception_3a/1x1"
  bottom: "inception_3a/3x3"
  bottom: "inception_3a/5x5"
  bottom: "inception_3a/pool_proj"
  top: "inception_3a/output"
}
layer {
  name: "inception_3b/1x1"
  type: "Convolution"
  bottom: "inception_3a/output"
  top: "inception_3b/1x1"
  param {
    lr_mult: 1
    decay_mult: 1
  }
  param {
    lr_mult: 2
    decay_mult: 0
  }
  convolution_param {
    num_output: 128
    kernel_size: 1
    weight_filler {
      type: "xavier"
      std: 0.03
    }
    bias_filler {
      type: "constant"
      value: 0.2
    }
  }
}
layer {
  name: "inception_3b/relu_1x1"
  type: "ReLU"
  bottom: "inception_3b/1x1"
  top: "inception_3b/1x1"
}
layer {
  name: "inception_3b/3x3_reduce"
  type: "Convolution"
  bottom: "inception_3a/output"
  top: "inception_3b/3x3_reduce"
  param {
    lr_mult: 1
    decay_mult: 1
  }
  param {
    lr_mult: 2
    decay_mult: 0
  }
  convolution_param {
    num_output: 128
    kernel_size: 1
    weight_filler {
      type: "xavier"
      std: 0.09
    }
    bias_filler {
      type: "constant"
      value: 0.2
    }
  }
}
layer {
  name: "inception_3b/relu_3x3_reduce"
  type: "ReLU"
  bottom: "inception_3b/3x3_reduce"
  top: "inception_3b/3x3_reduce"
}
layer {
  name: "inception_3b/3x3"
  type: "Convolution"
  bottom: "inception_3b/3x3_reduce"
  top: "inception_3b/3x3"
  param {
    lr_mult: 1
    decay_mult: 1
  }
  param {
    lr_mult: 2
    decay_mult: 0
  }
  convolution_param {
    num_output: 192
    pad: 1
    kernel_size: 3
    weight_filler {
      type: "xavier"
      std: 0.03
    }
    bias_filler {
      type: "constant"
      value: 0.2
    }
  }
}
layer {
  name: "inception_3b/relu_3x3"
  type: "ReLU"
  bottom: "inception_3b/3x3"
  top: "inception_3b/3x3"
}
layer {
  name: "inception_3b/5x5_reduce"
  type: "Convolution"
  bottom: "inception_3a/output"
  top: "inception_3b/5x5_reduce"
  param {
    lr_mult: 1
    decay_mult: 1
  }
  param {
    lr_mult: 2
    decay_mult: 0
  }
  convolution_param {
    num_output: 32
    kernel_size: 1
    weight_filler {
      type: "xavier"
      std: 0.2
    }
    bias_filler {
      type: "constant"
      value: 0.2
    }
  }
}
layer {
  name: "inception_3b/relu_5x5_reduce"
  type: "ReLU"
  bottom: "inception_3b/5x5_reduce"
  top: "inception_3b/5x5_reduce"
}
layer {
  name: "inception_3b/5x5"
  type: "Convolution"
  bottom: "inception_3b/5x5_reduce"
  top: "inception_3b/5x5"
  param {
    lr_mult: 1
    decay_mult: 1
  }
  param {
    lr_mult: 2
    decay_mult: 0
  }
  convolution_param {
    num_output: 96
    pad: 2
    kernel_size: 5
    weight_filler {
      type: "xavier"
      std: 0.03
    }
    bias_filler {
      type: "constant"
      value: 0.2
    }
  }
}
layer {
  name: "inception_3b/relu_5x5"
  type: "ReLU"
  bottom: "inception_3b/5x5"
  top: "inception_3b/5x5"
}
layer {
  name: "inception_3b/pool"
  type: "Pooling"
  bottom: "inception_3a/output"
  top: "inception_3b/pool"
  pooling_param {
    pool: MAX
    kernel_size: 3
    stride: 1
    pad: 1
  }
}
layer {
  name: "inception_3b/pool_proj"
  type: "Convolution"
  bottom: "inception_3b/pool"
  top: "inception_3b/pool_proj"
  param {
    lr_mult: 1
    decay_mult: 1
  }
  param {
    lr_mult: 2
    decay_mult: 0
  }
  convolution_param {
    num_output: 64
    kernel_size: 1
    weight_filler {
      type: "xavier"
      std: 0.1
    }
    bias_filler {
      type: "constant"
      value: 0.2
    }
  }
}
layer {
  name: "inception_3b/relu_pool_proj"
  type: "ReLU"
  bottom: "inception_3b/pool_proj"
  top: "inception_3b/pool_proj"
}
layer {
  name: "inception_3b/output"
  type: "Concat"
  bottom: "inception_3b/1x1"
  bottom: "inception_3b/3x3"
  bottom: "inception_3b/5x5"
  bottom: "inception_3b/pool_proj"
  top: "inception_3b/output"
}
layer {
  name: "pool3/3x3_s2"
  type: "Pooling"
  bottom: "inception_3b/output"
  top: "pool3/3x3_s2"
  pooling_param {
    pool: MAX
    kernel_size: 3
    stride: 2
  }
}
layer {
  name: "inception_4a/1x1"
  type: "Convolution"
  bottom: "pool3/3x3_s2"
  top: "inception_4a/1x1"
  param {
    lr_mult: 1
    decay_mult: 1
  }
  param {
    lr_mult: 2
    decay_mult: 0
  }
  convolution_param {
    num_output: 192
    kernel_size: 1
    weight_filler {
      type: "xavier"
      std: 0.03
    }
    bias_filler {
      type: "constant"
      value: 0.2
    }
  }
}
layer {
  name: "inception_4a/relu_1x1"
  type: "ReLU"
  bottom: "inception_4a/1x1"
  top: "inception_4a/1x1"
}
layer {
  name: "inception_4a/3x3_reduce"
  type: "Convolution"
  bottom: "pool3/3x3_s2"
  top: "inception_4a/3x3_reduce"
  param {
    lr_mult: 1
    decay_mult: 1
  }
  param {
    lr_mult: 2
    decay_mult: 0
  }
  convolution_param {
    num_output: 96
    kernel_size: 1
    weight_filler {
      type: "xavier"
      std: 0.09
    }
    bias_filler {
      type: "constant"
      value: 0.2
    }
  }
}
layer {
  name: "inception_4a/relu_3x3_reduce"
  type: "ReLU"
  bottom: "inception_4a/3x3_reduce"
  top: "inception_4a/3x3_reduce"
}
layer {
  name: "inception_4a/3x3"
  type: "Convolution"
  bottom: "inception_4a/3x3_reduce"
  top: "inception_4a/3x3"
  param {
    lr_mult: 1
    decay_mult: 1
  }
  param {
    lr_mult: 2
    decay_mult: 0
  }
  convolution_param {
    num_output: 208
    pad: 1
    kernel_size: 3
    weight_filler {
      type: "xavier"
      std: 0.03
    }
    bias_filler {
      type: "constant"
      value: 0.2
    }
  }
}
layer {
  name: "inception_4a/relu_3x3"
  type: "ReLU"
  bottom: "inception_4a/3x3"
  top: "inception_4a/3x3"
}
layer {
  name: "inception_4a/5x5_reduce"
  type: "Convolution"
  bottom: "pool3/3x3_s2"
  top: "inception_4a/5x5_reduce"
  param {
    lr_mult: 1
    decay_mult: 1
  }
  param {
    lr_mult: 2
    decay_mult: 0
  }
  convolution_param {
    num_output: 16
    kernel_size: 1
    weight_filler {
      type: "xavier"
      std: 0.2
    }
    bias_filler {
      type: "constant"
      value: 0.2
    }
  }
}
layer {
  name: "inception_4a/relu_5x5_reduce"
  type: "ReLU"
  bottom: "inception_4a/5x5_reduce"
  top: "inception_4a/5x5_reduce"
}
layer {
  name: "inception_4a/5x5"
  type: "Convolution"
  bottom: "inception_4a/5x5_reduce"
  top: "inception_4a/5x5"
  param {
    lr_mult: 1
    decay_mult: 1
  }
  param {
    lr_mult: 2
    decay_mult: 0
  }
  convolution_param {
    num_output: 48
    pad: 2
    kernel_size: 5
    weight_filler {
      type: "xavier"
      std: 0.03
    }
    bias_filler {
      type: "constant"
      value: 0.2
    }
  }
}
layer {
  name: "inception_4a/relu_5x5"
  type: "ReLU"
  bottom: "inception_4a/5x5"
  top: "inception_4a/5x5"
}
layer {
  name: "inception_4a/pool"
  type: "Pooling"
  bottom: "pool3/3x3_s2"
  top: "inception_4a/pool"
  pooling_param {
    pool: MAX
    kernel_size: 3
    stride: 1
    pad: 1
  }
}
layer {
  name: "inception_4a/pool_proj"
  type: "Convolution"
  bottom: "inception_4a/pool"
  top: "inception_4a/pool_proj"
  param {
    lr_mult: 1
    decay_mult: 1
  }
  param {
    lr_mult: 2
    decay_mult: 0
  }
  convolution_param {
    num_output: 64
    kernel_size: 1
    weight_filler {
      type: "xavier"
      std: 0.1
    }
    bias_filler {
      type: "constant"
      value: 0.2
    }
  }
}
layer {
  name: "inception_4a/relu_pool_proj"
  type: "ReLU"
  bottom: "inception_4a/pool_proj"
  top: "inception_4a/pool_proj"
}
layer {
  name: "inception_4a/output"
  type: "Concat"
  bottom: "inception_4a/1x1"
  bottom: "inception_4a/3x3"
  bottom: "inception_4a/5x5"
  bottom: "inception_4a/pool_proj"
  top: "inception_4a/output"
}
layer {
  name: "loss1/ave_pool"
  type: "Pooling"
  bottom: "inception_4a/output"
  top: "loss1/ave_pool"
  pooling_param {
    pool: AVE
    kernel_size: 5
    stride: 3
  }
}
layer {
  name: "loss1/conv"
  type: "Convolution"
  bottom: "loss1/ave_pool"
  top: "loss1/conv"
  param {
    lr_mult: 1
    decay_mult: 1
  }
  param {
    lr_mult: 2
    decay_mult: 0
  }
  convolution_param {
    num_output: 128
    kernel_size: 1
    weight_filler {
      type: "xavier"
      std: 0.08
    }
    bias_filler {
      type: "constant"
      value: 0.2
    }
  }
}
layer {
  name: "loss1/relu_conv"
  type: "ReLU"
  bottom: "loss1/conv"
  top: "loss1/conv"
}
layer {
  name: "loss1/fc"
  type: "InnerProduct"
  bottom: "loss1/conv"
  top: "loss1/fc"
  param {
    lr_mult: 1
    decay_mult: 1
  }
  param {
    lr_mult: 2
    decay_mult: 0
  }
  inner_product_param {
    num_output: 1024
    weight_filler {
      type: "xavier"
      std: 0.02
    }
    bias_filler {
      type: "constant"
      value: 0.2
    }
  }
}
layer {
  name: "loss1/relu_fc"
  type: "ReLU"
  bottom: "loss1/fc"
  top: "loss1/fc"
}
layer {
  name: "loss1/drop_fc"
  type: "Dropout"
  bottom: "loss1/fc"
  top: "loss1/fc"
  dropout_param {
    dropout_ratio: 0.7
  }
}
layer {
  name: "loss1/classifier_plantvillage"
  type: "InnerProduct"
  bottom: "loss1/fc"
  top: "loss1/classifier_plantvillage"
  param {
    lr_mult: 1
    decay_mult: 1
  }
  param {
    lr_mult: 2
    decay_mult: 0
  }
  inner_product_param {
    num_output: 38
    weight_filler {
      type: "xavier"
      std: 0.0009765625
    }
    bias_filler {
      type: "constant"
      value: 0
    }
  }
}
layer {
  name: "inception_4b/1x1"
  type: "Convolution"
  bottom: "inception_4a/output"
  top: "inception_4b/1x1"
  param {
    lr_mult: 1
    decay_mult: 1
  }
  param {
    lr_mult: 2
    decay_mult: 0
  }
  convolution_param {
    num_output: 160
    kernel_size: 1
    weight_filler {
      type: "xavier"
      std: 0.03
    }
    bias_filler {
      type: "constant"
      value: 0.2
    }
  }
}
layer {
  name: "inception_4b/relu_1x1"
  type: "ReLU"
  bottom: "inception_4b/1x1"
  top: "inception_4b/1x1"
}
layer {
  name: "inception_4b/3x3_reduce"
  type: "Convolution"
  bottom: "inception_4a/output"
  top: "inception_4b/3x3_reduce"
  param {
    lr_mult: 1
    decay_mult: 1
  }
  param {
    lr_mult: 2
    decay_mult: 0
  }
  convolution_param {
    num_output: 112
    kernel_size: 1
    weight_filler {
      type: "xavier"
      std: 0.09
    }
    bias_filler {
      type: "constant"
      value: 0.2
    }
  }
}
layer {
  name: "inception_4b/relu_3x3_reduce"
  type: "ReLU"
  bottom: "inception_4b/3x3_reduce"
  top: "inception_4b/3x3_reduce"
}
layer {
  name: "inception_4b/3x3"
  type: "Convolution"
  bottom: "inception_4b/3x3_reduce"
  top: "inception_4b/3x3"
  param {
    lr_mult: 1
    decay_mult: 1
  }
  param {
    lr_mult: 2
    decay_mult: 0
  }
  convolution_param {
    num_output: 224
    pad: 1
    kernel_size: 3
    weight_filler {
      type: "xavier"
      std: 0.03
    }
    bias_filler {
      type: "constant"
      value: 0.2
    }
  }
}
layer {
  name: "inception_4b/relu_3x3"
  type: "ReLU"
  bottom: "inception_4b/3x3"
  top: "inception_4b/3x3"
}
layer {
  name: "inception_4b/5x5_reduce"
  type: "Convolution"
  bottom: "inception_4a/output"
  top: "inception_4b/5x5_reduce"
  param {
    lr_mult: 1
    decay_mult: 1
  }
  param {
    lr_mult: 2
    decay_mult: 0
  }
  convolution_param {
    num_output: 24
    kernel_size: 1
    weight_filler {
      type: "xavier"
      std: 0.2
    }
    bias_filler {
      type: "constant"
      value: 0.2
    }
  }
}
layer {
  name: "inception_4b/relu_5x5_reduce"
  type: "ReLU"
  bottom: "inception_4b/5x5_reduce"
  top: "inception_4b/5x5_reduce"
}
layer {
  name: "inception_4b/5x5"
  type: "Convolution"
  bottom: "inception_4b/5x5_reduce"
  top: "inception_4b/5x5"
  param {
    lr_mult: 1
    decay_mult: 1
  }
  param {
    lr_mult: 2
    decay_mult: 0
  }
  convolution_param {
    num_output: 64
    pad: 2
    kernel_size: 5
    weight_filler {
      type: "xavier"
      std: 0.03
    }
    bias_filler {
      type: "constant"
      value: 0.2
    }
  }
}
layer {
  name: "inception_4b/relu_5x5"
  type: "ReLU"
  bottom: "inception_4b/5x5"
  top: "inception_4b/5x5"
}
layer {
  name: "inception_4b/pool"
  type: "Pooling"
  bottom: "inception_4a/output"
  top: "inception_4b/pool"
  pooling_param {
    pool: MAX
    kernel_size: 3
    stride: 1
    pad: 1
  }
}
layer {
  name: "inception_4b/pool_proj"
  type: "Convolution"
  bottom: "inception_4b/pool"
  top: "inception_4b/pool_proj"
  param {
    lr_mult: 1
    decay_mult: 1
  }
  param {
    lr_mult: 2
    decay_mult: 0
  }
  convolution_param {
    num_output: 64
    kernel_size: 1
    weight_filler {
      type: "xavier"
      std: 0.1
    }
    bias_filler {
      type: "constant"
      value: 0.2
    }
  }
}
layer {
  name: "inception_4b/relu_pool_proj"
  type: "ReLU"
  bottom: "inception_4b/pool_proj"
  top: "inception_4b/pool_proj"
}
layer {
  name: "inception_4b/output"
  type: "Concat"
  bottom: "inception_4b/1x1"
  bottom: "inception_4b/3x3"
  bottom: "inception_4b/5x5"
  bottom: "inception_4b/pool_proj"
  top: "inception_4b/output"
}
layer {
  name: "inception_4c/1x1"
  type: "Convolution"
  bottom: "inception_4b/output"
  top: "inception_4c/1x1"
  param {
    lr_mult: 1
    decay_mult: 1
  }
  param {
    lr_mult: 2
    decay_mult: 0
  }
  convolution_param {
    num_output: 128
    kernel_size: 1
    weight_filler {
      type: "xavier"
      std: 0.03
    }
    bias_filler {
      type: "constant"
      value: 0.2
    }
  }
}
layer {
  name: "inception_4c/relu_1x1"
  type: "ReLU"
  bottom: "inception_4c/1x1"
  top: "inception_4c/1x1"
}
layer {
  name: "inception_4c/3x3_reduce"
  type: "Convolution"
  bottom: "inception_4b/output"
  top: "inception_4c/3x3_reduce"
  param {
    lr_mult: 1
    decay_mult: 1
  }
  param {
    lr_mult: 2
    decay_mult: 0
  }
  convolution_param {
    num_output: 128
    kernel_size: 1
    weight_filler {
      type: "xavier"
      std: 0.09
    }
    bias_filler {
      type: "constant"
      value: 0.2
    }
  }
}
layer {
  name: "inception_4c/relu_3x3_reduce"
  type: "ReLU"
  bottom: "inception_4c/3x3_reduce"
  top: "inception_4c/3x3_reduce"
}
layer {
  name: "inception_4c/3x3"
  type: "Convolution"
  bottom: "inception_4c/3x3_reduce"
  top: "inception_4c/3x3"
  param {
    lr_mult: 1
    decay_mult: 1
  }
  param {
    lr_mult: 2
    decay_mult: 0
  }
  convolution_param {
    num_output: 256
    pad: 1
    kernel_size: 3
    weight_filler {
      type: "xavier"
      std: 0.03
    }
    bias_filler {
      type: "constant"
      value: 0.2
    }
  }
}
layer {
  name: "inception_4c/relu_3x3"
  type: "ReLU"
  bottom: "inception_4c/3x3"
  top: "inception_4c/3x3"
}
layer {
  name: "inception_4c/5x5_reduce"
  type: "Convolution"
  bottom: "inception_4b/output"
  top: "inception_4c/5x5_reduce"
  param {
    lr_mult: 1
    decay_mult: 1
  }
  param {
    lr_mult: 2
    decay_mult: 0
  }
  convolution_param {
    num_output: 24
    kernel_size: 1
    weight_filler {
      type: "xavier"
      std: 0.2
    }
    bias_filler {
      type: "constant"
      value: 0.2
    }
  }
}
layer {
  name: "inception_4c/relu_5x5_reduce"
  type: "ReLU"
  bottom: "inception_4c/5x5_reduce"
  top: "inception_4c/5x5_reduce"
}
layer {
  name: "inception_4c/5x5"
  type: "Convolution"
  bottom: "inception_4c/5x5_reduce"
  top: "inception_4c/5x5"
  param {
    lr_mult: 1
    decay_mult: 1
  }
  param {
    lr_mult: 2
    decay_mult: 0
  }
  convolution_param {
    num_output: 64
    pad: 2
    kernel_size: 5
    weight_filler {
      type: "xavier"
      std: 0.03
    }
    bias_filler {
      type: "constant"
      value: 0.2
    }
  }
}
layer {
  name: "inception_4c/relu_5x5"
  type: "ReLU"
  bottom: "inception_4c/5x5"
  top: "inception_4c/5x5"
}
layer {
  name: "inception_4c/pool"
  type: "Pooling"
  bottom: "inception_4b/output"
  top: "inception_4c/pool"
  pooling_param {
    pool: MAX
    kernel_size: 3
    stride: 1
    pad: 1
  }
}
layer {
  name: "inception_4c/pool_proj"
  type: "Convolution"
  bottom: "inception_4c/pool"
  top: "inception_4c/pool_proj"
  param {
    lr_mult: 1
    decay_mult: 1
  }
  param {
    lr_mult: 2
    decay_mult: 0
  }
  convolution_param {
    num_output: 64
    kernel_size: 1
    weight_filler {
      type: "xavier"
      std: 0.1
    }
    bias_filler {
      type: "constant"
      value: 0.2
    }
  }
}
layer {
  name: "inception_4c/relu_pool_proj"
  type: "ReLU"
  bottom: "inception_4c/pool_proj"
  top: "inception_4c/pool_proj"
}
layer {
  name: "inception_4c/output"
  type: "Concat"
  bottom: "inception_4c/1x1"
  bottom: "inception_4c/3x3"
  bottom: "inception_4c/5x5"
  bottom: "inception_4c/pool_proj"
  top: "inception_4c/output"
}
layer {
  name: "inception_4d/1x1"
  type: "Convolution"
  bottom: "inception_4c/output"
  top: "inception_4d/1x1"
  param {
    lr_mult: 1
    decay_mult: 1
  }
  param {
    lr_mult: 2
    decay_mult: 0
  }
  convolution_param {
    num_output: 112
    kernel_size: 1
    weight_filler {
      type: "xavier"
      std: 0.03
    }
    bias_filler {
      type: "constant"
      value: 0.2
    }
  }
}
layer {
  name: "inception_4d/relu_1x1"
  type: "ReLU"
  bottom: "inception_4d/1x1"
  top: "inception_4d/1x1"
}
layer {
  name: "inception_4d/3x3_reduce"
  type: "Convolution"
  bottom: "inception_4c/output"
  top: "inception_4d/3x3_reduce"
  param {
    lr_mult: 1
    decay_mult: 1
  }
  param {
    lr_mult: 2
    decay_mult: 0
  }
  convolution_param {
    num_output: 144
    kernel_size: 1
    weight_filler {
      type: "xavier"
      std: 0.09
    }
    bias_filler {
      type: "constant"
      value: 0.2
    }
  }
}
layer {
  name: "inception_4d/relu_3x3_reduce"
  type: "ReLU"
  bottom: "inception_4d/3x3_reduce"
  top: "inception_4d/3x3_reduce"
}
layer {
  name: "inception_4d/3x3"
  type: "Convolution"
  bottom: "inception_4d/3x3_reduce"
  top: "inception_4d/3x3"
  param {
    lr_mult: 1
    decay_mult: 1
  }
  param {
    lr_mult: 2
    decay_mult: 0
  }
  convolution_param {
    num_output: 288
    pad: 1
    kernel_size: 3
    weight_filler {
      type: "xavier"
      std: 0.03
    }
    bias_filler {
      type: "constant"
      value: 0.2
    }
  }
}
layer {
  name: "inception_4d/relu_3x3"
  type: "ReLU"
  bottom: "inception_4d/3x3"
  top: "inception_4d/3x3"
}
layer {
  name: "inception_4d/5x5_reduce"
  type: "Convolution"
  bottom: "inception_4c/output"
  top: "inception_4d/5x5_reduce"
  param {
    lr_mult: 1
    decay_mult: 1
  }
  param {
    lr_mult: 2
    decay_mult: 0
  }
  convolution_param {
    num_output: 32
    kernel_size: 1
    weight_filler {
      type: "xavier"
      std: 0.2
    }
    bias_filler {
      type: "constant"
      value: 0.2
    }
  }
}
layer {
  name: "inception_4d/relu_5x5_reduce"
  type: "ReLU"
  bottom: "inception_4d/5x5_reduce"
  top: "inception_4d/5x5_reduce"
}
layer {
  name: "inception_4d/5x5"
  type: "Convolution"
  bottom: "inception_4d/5x5_reduce"
  top: "inception_4d/5x5"
  param {
    lr_mult: 1
    decay_mult: 1
  }
  param {
    lr_mult: 2
    decay_mult: 0
  }
  convolution_param {
    num_output: 64
    pad: 2
    kernel_size: 5
    weight_filler {
      type: "xavier"
      std: 0.03
    }
    bias_filler {
      type: "constant"
      value: 0.2
    }
  }
}
layer {
  name: "inception_4d/relu_5x5"
  type: "ReLU"
  bottom: "inception_4d/5x5"
  top: "inception_4d/5x5"
}
layer {
  name: "inception_4d/pool"
  type: "Pooling"
  bottom: "inception_4c/output"
  top: "inception_4d/pool"
  pooling_param {
    pool: MAX
    kernel_size: 3
    stride: 1
    pad: 1
  }
}
layer {
  name: "inception_4d/pool_proj"
  type: "Convolution"
  bottom: "inception_4d/pool"
  top: "inception_4d/pool_proj"
  param {
    lr_mult: 1
    decay_mult: 1
  }
  param {
    lr_mult: 2
    decay_mult: 0
  }
  convolution_param {
    num_output: 64
    kernel_size: 1
    weight_filler {
      type: "xavier"
      std: 0.1
    }
    bias_filler {
      type: "constant"
      value: 0.2
    }
  }
}
layer {
  name: "inception_4d/relu_pool_proj"
  type: "ReLU"
  bottom: "inception_4d/pool_proj"
  top: "inception_4d/pool_proj"
}
layer {
  name: "inception_4d/output"
  type: "Concat"
  bottom: "inception_4d/1x1"
  bottom: "inception_4d/3x3"
  bottom: "inception_4d/5x5"
  bottom: "inception_4d/pool_proj"
  top: "inception_4d/output"
}
layer {
  name: "loss2/ave_pool"
  type: "Pooling"
  bottom: "inception_4d/output"
  top: "loss2/ave_pool"
  pooling_param {
    pool: AVE
    kernel_size: 5
    stride: 3
  }
}
layer {
  name: "loss2/conv"
  type: "Convolution"
  bottom: "loss2/ave_pool"
  top: "loss2/conv"
  param {
    lr_mult: 1
    decay_mult: 1
  }
  param {
    lr_mult: 2
    decay_mult: 0
  }
  convolution_param {
    num_output: 128
    kernel_size: 1
    weight_filler {
      type: "xavier"
      std: 0.08
    }
    bias_filler {
      type: "constant"
      value: 0.2
    }
  }
}
layer {
  name: "loss2/relu_conv"
  type: "ReLU"
  bottom: "loss2/conv"
  top: "loss2/conv"
}
layer {
  name: "loss2/fc"
  type: "InnerProduct"
  bottom: "loss2/conv"
  top: "loss2/fc"
  param {
    lr_mult: 1
    decay_mult: 1
  }
  param {
    lr_mult: 2
    decay_mult: 0
  }
  inner_product_param {
    num_output: 1024
    weight_filler {
      type: "xavier"
      std: 0.02
    }
    bias_filler {
      type: "constant"
      value: 0.2
    }
  }
}
layer {
  name: "loss2/relu_fc"
  type: "ReLU"
  bottom: "loss2/fc"
  top: "loss2/fc"
}
layer {
  name: "loss2/drop_fc"
  type: "Dropout"
  bottom: "loss2/fc"
  top: "loss2/fc"
  dropout_param {
    dropout_ratio: 0.7
  }
}
layer {
  name: "loss2/classifier_plantvillage"
  type: "InnerProduct"
  bottom: "loss2/fc"
  top: "loss2/classifier_plantvillage"
  param {
    lr_mult: 1
    decay_mult: 1
  }
  param {
    lr_mult: 2
    decay_mult: 0
  }
  inner_product_param {
    num_output: 38
    weight_filler {
      type: "xavier"
      std: 0.0009765625
    }
    bias_filler {
      type: "constant"
      value: 0
    }
  }
}
layer {
  name: "inception_4e/1x1"
  type: "Convolution"
  bottom: "inception_4d/output"
  top: "inception_4e/1x1"
  param {
    lr_mult: 1
    decay_mult: 1
  }
  param {
    lr_mult: 2
    decay_mult: 0
  }
  convolution_param {
    num_output: 256
    kernel_size: 1
    weight_filler {
      type: "xavier"
      std: 0.03
    }
    bias_filler {
      type: "constant"
      value: 0.2
    }
  }
}
layer {
  name: "inception_4e/relu_1x1"
  type: "ReLU"
  bottom: "inception_4e/1x1"
  top: "inception_4e/1x1"
}
layer {
  name: "inception_4e/3x3_reduce"
  type: "Convolution"
  bottom: "inception_4d/output"
  top: "inception_4e/3x3_reduce"
  param {
    lr_mult: 1
    decay_mult: 1
  }
  param {
    lr_mult: 2
    decay_mult: 0
  }
  convolution_param {
    num_output: 160
    kernel_size: 1
    weight_filler {
      type: "xavier"
      std: 0.09
    }
    bias_filler {
      type: "constant"
      value: 0.2
    }
  }
}
layer {
  name: "inception_4e/relu_3x3_reduce"
  type: "ReLU"
  bottom: "inception_4e/3x3_reduce"
  top: "inception_4e/3x3_reduce"
}
layer {
  name: "inception_4e/3x3"
  type: "Convolution"
  bottom: "inception_4e/3x3_reduce"
  top: "inception_4e/3x3"
  param {
    lr_mult: 1
    decay_mult: 1
  }
  param {
    lr_mult: 2
    decay_mult: 0
  }
  convolution_param {
    num_output: 320
    pad: 1
    kernel_size: 3
    weight_filler {
      type: "xavier"
      std: 0.03
    }
    bias_filler {
      type: "constant"
      value: 0.2
    }
  }
}
layer {
  name: "inception_4e/relu_3x3"
  type: "ReLU"
  bottom: "inception_4e/3x3"
  top: "inception_4e/3x3"
}
layer {
  name: "inception_4e/5x5_reduce"
  type: "Convolution"
  bottom: "inception_4d/output"
  top: "inception_4e/5x5_reduce"
  param {
    lr_mult: 1
    decay_mult: 1
  }
  param {
    lr_mult: 2
    decay_mult: 0
  }
  convolution_param {
    num_output: 32
    kernel_size: 1
    weight_filler {
      type: "xavier"
      std: 0.2
    }
    bias_filler {
      type: "constant"
      value: 0.2
    }
  }
}
layer {
  name: "inception_4e/relu_5x5_reduce"
  type: "ReLU"
  bottom: "inception_4e/5x5_reduce"
  top: "inception_4e/5x5_reduce"
}
layer {
  name: "inception_4e/5x5"
  type: "Convolution"
  bottom: "inception_4e/5x5_reduce"
  top: "inception_4e/5x5"
  p
I0403 15:30:24.545089 31976 layer_factory.hpp:77] Creating layer data
I0403 15:30:24.545713 31976 net.cpp:91] Creating Layer data
I0403 15:30:24.545745 31976 net.cpp:399] data -> data
I0403 15:30:24.545800 31976 net.cpp:399] data -> label
I0403 15:30:24.545843 31976 data_transformer.cpp:25] Loading mean file from: /home/mohanty/data/final_dataset/lmdb/color-20-80/mean.binaryproto
I0403 15:30:24.549247 31978 db_lmdb.cpp:38] Opened lmdb /home/mohanty/data/final_dataset/lmdb/color-20-80/test_db
I0403 15:30:24.559541 31976 data_layer.cpp:41] output data size: 24,3,224,224
I0403 15:30:24.586122 31976 net.cpp:141] Setting up data
I0403 15:30:24.586194 31976 net.cpp:148] Top shape: 24 3 224 224 (3612672)
I0403 15:30:24.586218 31976 net.cpp:148] Top shape: 24 (24)
I0403 15:30:24.586235 31976 net.cpp:156] Memory required for data: 14450784
I0403 15:30:24.586261 31976 layer_factory.hpp:77] Creating layer label_data_1_split
I0403 15:30:24.586289 31976 net.cpp:91] Creating Layer label_data_1_split
I0403 15:30:24.586308 31976 net.cpp:425] label_data_1_split <- label
I0403 15:30:24.586340 31976 net.cpp:399] label_data_1_split -> label_data_1_split_0
I0403 15:30:24.586374 31976 net.cpp:399] label_data_1_split -> label_data_1_split_1
I0403 15:30:24.586396 31976 net.cpp:399] label_data_1_split -> label_data_1_split_2
I0403 15:30:24.586417 31976 net.cpp:399] label_data_1_split -> label_data_1_split_3
I0403 15:30:24.586438 31976 net.cpp:399] label_data_1_split -> label_data_1_split_4
I0403 15:30:24.586459 31976 net.cpp:399] label_data_1_split -> label_data_1_split_5
I0403 15:30:24.586479 31976 net.cpp:399] label_data_1_split -> label_data_1_split_6
I0403 15:30:24.586499 31976 net.cpp:399] label_data_1_split -> label_data_1_split_7
I0403 15:30:24.586519 31976 net.cpp:399] label_data_1_split -> label_data_1_split_8
I0403 15:30:24.586540 31976 net.cpp:399] label_data_1_split -> label_data_1_split_9
I0403 15:30:24.586655 31976 net.cpp:141] Setting up label_data_1_split
I0403 15:30:24.586680 31976 net.cpp:148] Top shape: 24 (24)
I0403 15:30:24.586699 31976 net.cpp:148] Top shape: 24 (24)
I0403 15:30:24.586714 31976 net.cpp:148] Top shape: 24 (24)
I0403 15:30:24.586731 31976 net.cpp:148] Top shape: 24 (24)
I0403 15:30:24.586746 31976 net.cpp:148] Top shape: 24 (24)
I0403 15:30:24.586763 31976 net.cpp:148] Top shape: 24 (24)
I0403 15:30:24.586779 31976 net.cpp:148] Top shape: 24 (24)
I0403 15:30:24.586796 31976 net.cpp:148] Top shape: 24 (24)
I0403 15:30:24.586812 31976 net.cpp:148] Top shape: 24 (24)
I0403 15:30:24.586827 31976 net.cpp:148] Top shape: 24 (24)
I0403 15:30:24.586874 31976 net.cpp:156] Memory required for data: 14451744
I0403 15:30:24.586891 31976 layer_factory.hpp:77] Creating layer conv1/7x7_s2
I0403 15:30:24.586923 31976 net.cpp:91] Creating Layer conv1/7x7_s2
I0403 15:30:24.586943 31976 net.cpp:425] conv1/7x7_s2 <- data
I0403 15:30:24.586963 31976 net.cpp:399] conv1/7x7_s2 -> conv1/7x7_s2
I0403 15:30:24.731243 31976 net.cpp:141] Setting up conv1/7x7_s2
I0403 15:30:24.731324 31976 net.cpp:148] Top shape: 24 64 112 112 (19267584)
I0403 15:30:24.731344 31976 net.cpp:156] Memory required for data: 91522080
I0403 15:30:24.731379 31976 layer_factory.hpp:77] Creating layer conv1/relu_7x7
I0403 15:30:24.731406 31976 net.cpp:91] Creating Layer conv1/relu_7x7
I0403 15:30:24.731426 31976 net.cpp:425] conv1/relu_7x7 <- conv1/7x7_s2
I0403 15:30:24.731446 31976 net.cpp:386] conv1/relu_7x7 -> conv1/7x7_s2 (in-place)
I0403 15:30:24.731712 31976 net.cpp:141] Setting up conv1/relu_7x7
I0403 15:30:24.731744 31976 net.cpp:148] Top shape: 24 64 112 112 (19267584)
I0403 15:30:24.731760 31976 net.cpp:156] Memory required for data: 168592416
I0403 15:30:24.731777 31976 layer_factory.hpp:77] Creating layer pool1/3x3_s2
I0403 15:30:24.731803 31976 net.cpp:91] Creating Layer pool1/3x3_s2
I0403 15:30:24.731822 31976 net.cpp:425] pool1/3x3_s2 <- conv1/7x7_s2
I0403 15:30:24.731842 31976 net.cpp:399] pool1/3x3_s2 -> pool1/3x3_s2
I0403 15:30:24.731923 31976 net.cpp:141] Setting up pool1/3x3_s2
I0403 15:30:24.731950 31976 net.cpp:148] Top shape: 24 64 56 56 (4816896)
I0403 15:30:24.731966 31976 net.cpp:156] Memory required for data: 187860000
I0403 15:30:24.731981 31976 layer_factory.hpp:77] Creating layer pool1/norm1
I0403 15:30:24.732009 31976 net.cpp:91] Creating Layer pool1/norm1
I0403 15:30:24.732028 31976 net.cpp:425] pool1/norm1 <- pool1/3x3_s2
I0403 15:30:24.732051 31976 net.cpp:399] pool1/norm1 -> pool1/norm1
I0403 15:30:24.732391 31976 net.cpp:141] Setting up pool1/norm1
I0403 15:30:24.732422 31976 net.cpp:148] Top shape: 24 64 56 56 (4816896)
I0403 15:30:24.732440 31976 net.cpp:156] Memory required for data: 207127584
I0403 15:30:24.732456 31976 layer_factory.hpp:77] Creating layer conv2/3x3_reduce
I0403 15:30:24.732484 31976 net.cpp:91] Creating Layer conv2/3x3_reduce
I0403 15:30:24.732501 31976 net.cpp:425] conv2/3x3_reduce <- pool1/norm1
I0403 15:30:24.732522 31976 net.cpp:399] conv2/3x3_reduce -> conv2/3x3_reduce
I0403 15:30:24.733917 31976 net.cpp:141] Setting up conv2/3x3_reduce
I0403 15:30:24.733948 31976 net.cpp:148] Top shape: 24 64 56 56 (4816896)
I0403 15:30:24.733965 31976 net.cpp:156] Memory required for data: 226395168
I0403 15:30:24.733990 31976 layer_factory.hpp:77] Creating layer conv2/relu_3x3_reduce
I0403 15:30:24.734037 31976 net.cpp:91] Creating Layer conv2/relu_3x3_reduce
I0403 15:30:24.734060 31976 net.cpp:425] conv2/relu_3x3_reduce <- conv2/3x3_reduce
I0403 15:30:24.734078 31976 net.cpp:386] conv2/relu_3x3_reduce -> conv2/3x3_reduce (in-place)
I0403 15:30:24.734364 31976 net.cpp:141] Setting up conv2/relu_3x3_reduce
I0403 15:30:24.734391 31976 net.cpp:148] Top shape: 24 64 56 56 (4816896)
I0403 15:30:24.734407 31976 net.cpp:156] Memory required for data: 245662752
I0403 15:30:24.734422 31976 layer_factory.hpp:77] Creating layer conv2/3x3
I0403 15:30:24.734447 31976 net.cpp:91] Creating Layer conv2/3x3
I0403 15:30:24.734467 31976 net.cpp:425] conv2/3x3 <- conv2/3x3_reduce
I0403 15:30:24.734489 31976 net.cpp:399] conv2/3x3 -> conv2/3x3
I0403 15:30:24.736922 31976 net.cpp:141] Setting up conv2/3x3
I0403 15:30:24.736953 31976 net.cpp:148] Top shape: 24 192 56 56 (14450688)
I0403 15:30:24.736971 31976 net.cpp:156] Memory required for data: 303465504
I0403 15:30:24.736997 31976 layer_factory.hpp:77] Creating layer conv2/relu_3x3
I0403 15:30:24.737017 31976 net.cpp:91] Creating Layer conv2/relu_3x3
I0403 15:30:24.737035 31976 net.cpp:425] conv2/relu_3x3 <- conv2/3x3
I0403 15:30:24.737053 31976 net.cpp:386] conv2/relu_3x3 -> conv2/3x3 (in-place)
I0403 15:30:24.737241 31976 net.cpp:141] Setting up conv2/relu_3x3
I0403 15:30:24.737270 31976 net.cpp:148] Top shape: 24 192 56 56 (14450688)
I0403 15:30:24.737324 31976 net.cpp:156] Memory required for data: 361268256
I0403 15:30:24.737344 31976 layer_factory.hpp:77] Creating layer conv2/norm2
I0403 15:30:24.737363 31976 net.cpp:91] Creating Layer conv2/norm2
I0403 15:30:24.737380 31976 net.cpp:425] conv2/norm2 <- conv2/3x3
I0403 15:30:24.737403 31976 net.cpp:399] conv2/norm2 -> conv2/norm2
I0403 15:30:24.737725 31976 net.cpp:141] Setting up conv2/norm2
I0403 15:30:24.737754 31976 net.cpp:148] Top shape: 24 192 56 56 (14450688)
I0403 15:30:24.737771 31976 net.cpp:156] Memory required for data: 419071008
I0403 15:30:24.737788 31976 layer_factory.hpp:77] Creating layer pool2/3x3_s2
I0403 15:30:24.737807 31976 net.cpp:91] Creating Layer pool2/3x3_s2
I0403 15:30:24.737828 31976 net.cpp:425] pool2/3x3_s2 <- conv2/norm2
I0403 15:30:24.737848 31976 net.cpp:399] pool2/3x3_s2 -> pool2/3x3_s2
I0403 15:30:24.737905 31976 net.cpp:141] Setting up pool2/3x3_s2
I0403 15:30:24.737931 31976 net.cpp:148] Top shape: 24 192 28 28 (3612672)
I0403 15:30:24.737946 31976 net.cpp:156] Memory required for data: 433521696
I0403 15:30:24.737963 31976 layer_factory.hpp:77] Creating layer pool2/3x3_s2_pool2/3x3_s2_0_split
I0403 15:30:24.737982 31976 net.cpp:91] Creating Layer pool2/3x3_s2_pool2/3x3_s2_0_split
I0403 15:30:24.737999 31976 net.cpp:425] pool2/3x3_s2_pool2/3x3_s2_0_split <- pool2/3x3_s2
I0403 15:30:24.738020 31976 net.cpp:399] pool2/3x3_s2_pool2/3x3_s2_0_split -> pool2/3x3_s2_pool2/3x3_s2_0_split_0
I0403 15:30:24.738044 31976 net.cpp:399] pool2/3x3_s2_pool2/3x3_s2_0_split -> pool2/3x3_s2_pool2/3x3_s2_0_split_1
I0403 15:30:24.738065 31976 net.cpp:399] pool2/3x3_s2_pool2/3x3_s2_0_split -> pool2/3x3_s2_pool2/3x3_s2_0_split_2
I0403 15:30:24.738086 31976 net.cpp:399] pool2/3x3_s2_pool2/3x3_s2_0_split -> pool2/3x3_s2_pool2/3x3_s2_0_split_3
I0403 15:30:24.738160 31976 net.cpp:141] Setting up pool2/3x3_s2_pool2/3x3_s2_0_split
I0403 15:30:24.738185 31976 net.cpp:148] Top shape: 24 192 28 28 (3612672)
I0403 15:30:24.738204 31976 net.cpp:148] Top shape: 24 192 28 28 (3612672)
I0403 15:30:24.738220 31976 net.cpp:148] Top shape: 24 192 28 28 (3612672)
I0403 15:30:24.738237 31976 net.cpp:148] Top shape: 24 192 28 28 (3612672)
I0403 15:30:24.738253 31976 net.cpp:156] Memory required for data: 491324448
I0403 15:30:24.738268 31976 layer_factory.hpp:77] Creating layer inception_3a/1x1
I0403 15:30:24.738293 31976 net.cpp:91] Creating Layer inception_3a/1x1
I0403 15:30:24.738313 31976 net.cpp:425] inception_3a/1x1 <- pool2/3x3_s2_pool2/3x3_s2_0_split_0
I0403 15:30:24.738338 31976 net.cpp:399] inception_3a/1x1 -> inception_3a/1x1
I0403 15:30:24.739936 31976 net.cpp:141] Setting up inception_3a/1x1
I0403 15:30:24.739967 31976 net.cpp:148] Top shape: 24 64 28 28 (1204224)
I0403 15:30:24.739984 31976 net.cpp:156] Memory required for data: 496141344
I0403 15:30:24.740003 31976 layer_factory.hpp:77] Creating layer inception_3a/relu_1x1
I0403 15:30:24.740026 31976 net.cpp:91] Creating Layer inception_3a/relu_1x1
I0403 15:30:24.740044 31976 net.cpp:425] inception_3a/relu_1x1 <- inception_3a/1x1
I0403 15:30:24.740063 31976 net.cpp:386] inception_3a/relu_1x1 -> inception_3a/1x1 (in-place)
I0403 15:30:24.740237 31976 net.cpp:141] Setting up inception_3a/relu_1x1
I0403 15:30:24.740265 31976 net.cpp:148] Top shape: 24 64 28 28 (1204224)
I0403 15:30:24.740283 31976 net.cpp:156] Memory required for data: 500958240
I0403 15:30:24.740299 31976 layer_factory.hpp:77] Creating layer inception_3a/3x3_reduce
I0403 15:30:24.740326 31976 net.cpp:91] Creating Layer inception_3a/3x3_reduce
I0403 15:30:24.740346 31976 net.cpp:425] inception_3a/3x3_reduce <- pool2/3x3_s2_pool2/3x3_s2_0_split_1
I0403 15:30:24.740366 31976 net.cpp:399] inception_3a/3x3_reduce -> inception_3a/3x3_reduce
I0403 15:30:24.742076 31976 net.cpp:141] Setting up inception_3a/3x3_reduce
I0403 15:30:24.742105 31976 net.cpp:148] Top shape: 24 96 28 28 (1806336)
I0403 15:30:24.742122 31976 net.cpp:156] Memory required for data: 508183584
I0403 15:30:24.742146 31976 layer_factory.hpp:77] Creating layer inception_3a/relu_3x3_reduce
I0403 15:30:24.742182 31976 net.cpp:91] Creating Layer inception_3a/relu_3x3_reduce
I0403 15:30:24.742202 31976 net.cpp:425] inception_3a/relu_3x3_reduce <- inception_3a/3x3_reduce
I0403 15:30:24.742219 31976 net.cpp:386] inception_3a/relu_3x3_reduce -> inception_3a/3x3_reduce (in-place)
I0403 15:30:24.742408 31976 net.cpp:141] Setting up inception_3a/relu_3x3_reduce
I0403 15:30:24.742434 31976 net.cpp:148] Top shape: 24 96 28 28 (1806336)
I0403 15:30:24.742447 31976 net.cpp:156] Memory required for data: 515408928
I0403 15:30:24.742462 31976 layer_factory.hpp:77] Creating layer inception_3a/3x3
I0403 15:30:24.742486 31976 net.cpp:91] Creating Layer inception_3a/3x3
I0403 15:30:24.742504 31976 net.cpp:425] inception_3a/3x3 <- inception_3a/3x3_reduce
I0403 15:30:24.742525 31976 net.cpp:399] inception_3a/3x3 -> inception_3a/3x3
I0403 15:30:24.744158 31976 net.cpp:141] Setting up inception_3a/3x3
I0403 15:30:24.744186 31976 net.cpp:148] Top shape: 24 128 28 28 (2408448)
I0403 15:30:24.744202 31976 net.cpp:156] Memory required for data: 525042720
I0403 15:30:24.744222 31976 layer_factory.hpp:77] Creating layer inception_3a/relu_3x3
I0403 15:30:24.744243 31976 net.cpp:91] Creating Layer inception_3a/relu_3x3
I0403 15:30:24.744261 31976 net.cpp:425] inception_3a/relu_3x3 <- inception_3a/3x3
I0403 15:30:24.744279 31976 net.cpp:386] inception_3a/relu_3x3 -> inception_3a/3x3 (in-place)
I0403 15:30:24.744578 31976 net.cpp:141] Setting up inception_3a/relu_3x3
I0403 15:30:24.744606 31976 net.cpp:148] Top shape: 24 128 28 28 (2408448)
I0403 15:30:24.744622 31976 net.cpp:156] Memory required for data: 534676512
I0403 15:30:24.744638 31976 layer_factory.hpp:77] Creating layer inception_3a/5x5_reduce
I0403 15:30:24.744663 31976 net.cpp:91] Creating Layer inception_3a/5x5_reduce
I0403 15:30:24.744683 31976 net.cpp:425] inception_3a/5x5_reduce <- pool2/3x3_s2_pool2/3x3_s2_0_split_2
I0403 15:30:24.744702 31976 net.cpp:399] inception_3a/5x5_reduce -> inception_3a/5x5_reduce
I0403 15:30:24.745671 31976 net.cpp:141] Setting up inception_3a/5x5_reduce
I0403 15:30:24.745712 31976 net.cpp:148] Top shape: 24 16 28 28 (301056)
I0403 15:30:24.745728 31976 net.cpp:156] Memory required for data: 535880736
I0403 15:30:24.745748 31976 layer_factory.hpp:77] Creating layer inception_3a/relu_5x5_reduce
I0403 15:30:24.745766 31976 net.cpp:91] Creating Layer inception_3a/relu_5x5_reduce
I0403 15:30:24.745784 31976 net.cpp:425] inception_3a/relu_5x5_reduce <- inception_3a/5x5_reduce
I0403 15:30:24.745805 31976 net.cpp:386] inception_3a/relu_5x5_reduce -> inception_3a/5x5_reduce (in-place)
I0403 15:30:24.746093 31976 net.cpp:141] Setting up inception_3a/relu_5x5_reduce
I0403 15:30:24.746122 31976 net.cpp:148] Top shape: 24 16 28 28 (301056)
I0403 15:30:24.746139 31976 net.cpp:156] Memory required for data: 537084960
I0403 15:30:24.746155 31976 layer_factory.hpp:77] Creating layer inception_3a/5x5
I0403 15:30:24.746177 31976 net.cpp:91] Creating Layer inception_3a/5x5
I0403 15:30:24.746196 31976 net.cpp:425] inception_3a/5x5 <- inception_3a/5x5_reduce
I0403 15:30:24.746214 31976 net.cpp:399] inception_3a/5x5 -> inception_3a/5x5
I0403 15:30:24.747239 31976 net.cpp:141] Setting up inception_3a/5x5
I0403 15:30:24.747267 31976 net.cpp:148] Top shape: 24 32 28 28 (602112)
I0403 15:30:24.747283 31976 net.cpp:156] Memory required for data: 539493408
I0403 15:30:24.747303 31976 layer_factory.hpp:77] Creating layer inception_3a/relu_5x5
I0403 15:30:24.747328 31976 net.cpp:91] Creating Layer inception_3a/relu_5x5
I0403 15:30:24.747345 31976 net.cpp:425] inception_3a/relu_5x5 <- inception_3a/5x5
I0403 15:30:24.747364 31976 net.cpp:386] inception_3a/relu_5x5 -> inception_3a/5x5 (in-place)
I0403 15:30:24.747535 31976 net.cpp:141] Setting up inception_3a/relu_5x5
I0403 15:30:24.747563 31976 net.cpp:148] Top shape: 24 32 28 28 (602112)
I0403 15:30:24.747581 31976 net.cpp:156] Memory required for data: 541901856
I0403 15:30:24.747596 31976 layer_factory.hpp:77] Creating layer inception_3a/pool
I0403 15:30:24.747614 31976 net.cpp:91] Creating Layer inception_3a/pool
I0403 15:30:24.747630 31976 net.cpp:425] inception_3a/pool <- pool2/3x3_s2_pool2/3x3_s2_0_split_3
I0403 15:30:24.747664 31976 net.cpp:399] inception_3a/pool -> inception_3a/pool
I0403 15:30:24.747723 31976 net.cpp:141] Setting up inception_3a/pool
I0403 15:30:24.747746 31976 net.cpp:148] Top shape: 24 192 28 28 (3612672)
I0403 15:30:24.747761 31976 net.cpp:156] Memory required for data: 556352544
I0403 15:30:24.747776 31976 layer_factory.hpp:77] Creating layer inception_3a/pool_proj
I0403 15:30:24.747799 31976 net.cpp:91] Creating Layer inception_3a/pool_proj
I0403 15:30:24.747817 31976 net.cpp:425] inception_3a/pool_proj <- inception_3a/pool
I0403 15:30:24.747839 31976 net.cpp:399] inception_3a/pool_proj -> inception_3a/pool_proj
I0403 15:30:24.748786 31976 net.cpp:141] Setting up inception_3a/pool_proj
I0403 15:30:24.748816 31976 net.cpp:148] Top shape: 24 32 28 28 (602112)
I0403 15:30:24.748831 31976 net.cpp:156] Memory required for data: 558760992
I0403 15:30:24.748857 31976 layer_factory.hpp:77] Creating layer inception_3a/relu_pool_proj
I0403 15:30:24.748878 31976 net.cpp:91] Creating Layer inception_3a/relu_pool_proj
I0403 15:30:24.748894 31976 net.cpp:425] inception_3a/relu_pool_proj <- inception_3a/pool_proj
I0403 15:30:24.748914 31976 net.cpp:386] inception_3a/relu_pool_proj -> inception_3a/pool_proj (in-place)
I0403 15:30:24.749182 31976 net.cpp:141] Setting up inception_3a/relu_pool_proj
I0403 15:30:24.749209 31976 net.cpp:148] Top shape: 24 32 28 28 (602112)
I0403 15:30:24.749224 31976 net.cpp:156] Memory required for data: 561169440
I0403 15:30:24.749240 31976 layer_factory.hpp:77] Creating layer inception_3a/output
I0403 15:30:24.749261 31976 net.cpp:91] Creating Layer inception_3a/output
I0403 15:30:24.749279 31976 net.cpp:425] inception_3a/output <- inception_3a/1x1
I0403 15:30:24.749296 31976 net.cpp:425] inception_3a/output <- inception_3a/3x3
I0403 15:30:24.749312 31976 net.cpp:425] inception_3a/output <- inception_3a/5x5
I0403 15:30:24.749333 31976 net.cpp:425] inception_3a/output <- inception_3a/pool_proj
I0403 15:30:24.749351 31976 net.cpp:399] inception_3a/output -> inception_3a/output
I0403 15:30:24.749399 31976 net.cpp:141] Setting up inception_3a/output
I0403 15:30:24.749423 31976 net.cpp:148] Top shape: 24 256 28 28 (4816896)
I0403 15:30:24.749438 31976 net.cpp:156] Memory required for data: 580437024
I0403 15:30:24.749452 31976 layer_factory.hpp:77] Creating layer inception_3a/output_inception_3a/output_0_split
I0403 15:30:24.749470 31976 net.cpp:91] Creating Layer inception_3a/output_inception_3a/output_0_split
I0403 15:30:24.749486 31976 net.cpp:425] inception_3a/output_inception_3a/output_0_split <- inception_3a/output
I0403 15:30:24.749506 31976 net.cpp:399] inception_3a/output_inception_3a/output_0_split -> inception_3a/output_inception_3a/output_0_split_0
I0403 15:30:24.749528 31976 net.cpp:399] inception_3a/output_inception_3a/output_0_split -> inception_3a/output_inception_3a/output_0_split_1
I0403 15:30:24.749554 31976 net.cpp:399] inception_3a/output_inception_3a/output_0_split -> inception_3a/output_inception_3a/output_0_split_2
I0403 15:30:24.749578 31976 net.cpp:399] inception_3a/output_inception_3a/output_0_split -> inception_3a/output_inception_3a/output_0_split_3
I0403 15:30:24.749650 31976 net.cpp:141] Setting up inception_3a/output_inception_3a/output_0_split
I0403 15:30:24.749675 31976 net.cpp:148] Top shape: 24 256 28 28 (4816896)
I0403 15:30:24.749691 31976 net.cpp:148] Top shape: 24 256 28 28 (4816896)
I0403 15:30:24.749708 31976 net.cpp:148] Top shape: 24 256 28 28 (4816896)
I0403 15:30:24.749725 31976 net.cpp:148] Top shape: 24 256 28 28 (4816896)
I0403 15:30:24.749739 31976 net.cpp:156] Memory required for data: 657507360
I0403 15:30:24.749754 31976 layer_factory.hpp:77] Creating layer inception_3b/1x1
I0403 15:30:24.749778 31976 net.cpp:91] Creating Layer inception_3b/1x1
I0403 15:30:24.749795 31976 net.cpp:425] inception_3b/1x1 <- inception_3a/output_inception_3a/output_0_split_0
I0403 15:30:24.749816 31976 net.cpp:399] inception_3b/1x1 -> inception_3b/1x1
I0403 15:30:24.750968 31976 net.cpp:141] Setting up inception_3b/1x1
I0403 15:30:24.751008 31976 net.cpp:148] Top shape: 24 128 28 28 (2408448)
I0403 15:30:24.751024 31976 net.cpp:156] Memory required for data: 667141152
I0403 15:30:24.751044 31976 layer_factory.hpp:77] Creating layer inception_3b/relu_1x1
I0403 15:30:24.751065 31976 net.cpp:91] Creating Layer inception_3b/relu_1x1
I0403 15:30:24.751083 31976 net.cpp:425] inception_3b/relu_1x1 <- inception_3b/1x1
I0403 15:30:24.751102 31976 net.cpp:386] inception_3b/relu_1x1 -> inception_3b/1x1 (in-place)
I0403 15:30:24.751281 31976 net.cpp:141] Setting up inception_3b/relu_1x1
I0403 15:30:24.751305 31976 net.cpp:148] Top shape: 24 128 28 28 (2408448)
I0403 15:30:24.751327 31976 net.cpp:156] Memory required for data: 676774944
I0403 15:30:24.751343 31976 layer_factory.hpp:77] Creating layer inception_3b/3x3_reduce
I0403 15:30:24.751368 31976 net.cpp:91] Creating Layer inception_3b/3x3_reduce
I0403 15:30:24.751385 31976 net.cpp:425] inception_3b/3x3_reduce <- inception_3a/output_inception_3a/output_0_split_1
I0403 15:30:24.751404 31976 net.cpp:399] inception_3b/3x3_reduce -> inception_3b/3x3_reduce
I0403 15:30:24.752514 31976 net.cpp:141] Setting up inception_3b/3x3_reduce
I0403 15:30:24.752542 31976 net.cpp:148] Top shape: 24 128 28 28 (2408448)
I0403 15:30:24.752558 31976 net.cpp:156] Memory required for data: 686408736
I0403 15:30:24.752579 31976 layer_factory.hpp:77] Creating layer inception_3b/relu_3x3_reduce
I0403 15:30:24.752600 31976 net.cpp:91] Creating Layer inception_3b/relu_3x3_reduce
I0403 15:30:24.752619 31976 net.cpp:425] inception_3b/relu_3x3_reduce <- inception_3b/3x3_reduce
I0403 15:30:24.752635 31976 net.cpp:386] inception_3b/relu_3x3_reduce -> inception_3b/3x3_reduce (in-place)
I0403 15:30:24.752802 31976 net.cpp:141] Setting up inception_3b/relu_3x3_reduce
I0403 15:30:24.752830 31976 net.cpp:148] Top shape: 24 128 28 28 (2408448)
I0403 15:30:24.752847 31976 net.cpp:156] Memory required for data: 696042528
I0403 15:30:24.752863 31976 layer_factory.hpp:77] Creating layer inception_3b/3x3
I0403 15:30:24.752888 31976 net.cpp:91] Creating Layer inception_3b/3x3
I0403 15:30:24.752907 31976 net.cpp:425] inception_3b/3x3 <- inception_3b/3x3_reduce
I0403 15:30:24.752928 31976 net.cpp:399] inception_3b/3x3 -> inception_3b/3x3
I0403 15:30:24.755880 31976 net.cpp:141] Setting up inception_3b/3x3
I0403 15:30:24.755910 31976 net.cpp:148] Top shape: 24 192 28 28 (3612672)
I0403 15:30:24.755928 31976 net.cpp:156] Memory required for data: 710493216
I0403 15:30:24.755947 31976 layer_factory.hpp:77] Creating layer inception_3b/relu_3x3
I0403 15:30:24.755967 31976 net.cpp:91] Creating Layer inception_3b/relu_3x3
I0403 15:30:24.755985 31976 net.cpp:425] inception_3b/relu_3x3 <- inception_3b/3x3
I0403 15:30:24.756002 31976 net.cpp:386] inception_3b/relu_3x3 -> inception_3b/3x3 (in-place)
I0403 15:30:24.756273 31976 net.cpp:141] Setting up inception_3b/relu_3x3
I0403 15:30:24.756300 31976 net.cpp:148] Top shape: 24 192 28 28 (3612672)
I0403 15:30:24.756320 31976 net.cpp:156] Memory required for data: 724943904
I0403 15:30:24.756337 31976 layer_factory.hpp:77] Creating layer inception_3b/5x5_reduce
I0403 15:30:24.756363 31976 net.cpp:91] Creating Layer inception_3b/5x5_reduce
I0403 15:30:24.756382 31976 net.cpp:425] inception_3b/5x5_reduce <- inception_3a/output_inception_3a/output_0_split_2
I0403 15:30:24.756402 31976 net.cpp:399] inception_3b/5x5_reduce -> inception_3b/5x5_reduce
I0403 15:30:24.757388 31976 net.cpp:141] Setting up inception_3b/5x5_reduce
I0403 15:30:24.757417 31976 net.cpp:148] Top shape: 24 32 28 28 (602112)
I0403 15:30:24.757434 31976 net.cpp:156] Memory required for data: 727352352
I0403 15:30:24.757452 31976 layer_factory.hpp:77] Creating layer inception_3b/relu_5x5_reduce
I0403 15:30:24.757473 31976 net.cpp:91] Creating Layer inception_3b/relu_5x5_reduce
I0403 15:30:24.757491 31976 net.cpp:425] inception_3b/relu_5x5_reduce <- inception_3b/5x5_reduce
I0403 15:30:24.757509 31976 net.cpp:386] inception_3b/relu_5x5_reduce -> inception_3b/5x5_reduce (in-place)
I0403 15:30:24.757684 31976 net.cpp:141] Setting up inception_3b/relu_5x5_reduce
I0403 15:30:24.757725 31976 net.cpp:148] Top shape: 24 32 28 28 (602112)
I0403 15:30:24.757740 31976 net.cpp:156] Memory required for data: 729760800
I0403 15:30:24.757756 31976 layer_factory.hpp:77] Creating layer inception_3b/5x5
I0403 15:30:24.757779 31976 net.cpp:91] Creating Layer inception_3b/5x5
I0403 15:30:24.757797 31976 net.cpp:425] inception_3b/5x5 <- inception_3b/5x5_reduce
I0403 15:30:24.757817 31976 net.cpp:399] inception_3b/5x5 -> inception_3b/5x5
I0403 15:30:24.759769 31976 net.cpp:141] Setting up inception_3b/5x5
I0403 15:30:24.759799 31976 net.cpp:148] Top shape: 24 96 28 28 (1806336)
I0403 15:30:24.759814 31976 net.cpp:156] Memory required for data: 736986144
I0403 15:30:24.759834 31976 layer_factory.hpp:77] Creating layer inception_3b/relu_5x5
I0403 15:30:24.759852 31976 net.cpp:91] Creating Layer inception_3b/relu_5x5
I0403 15:30:24.759870 31976 net.cpp:425] inception_3b/relu_5x5 <- inception_3b/5x5
I0403 15:30:24.759889 31976 net.cpp:386] inception_3b/relu_5x5 -> inception_3b/5x5 (in-place)
I0403 15:30:24.760079 31976 net.cpp:141] Setting up inception_3b/relu_5x5
I0403 15:30:24.760104 31976 net.cpp:148] Top shape: 24 96 28 28 (1806336)
I0403 15:30:24.760120 31976 net.cpp:156] Memory required for data: 744211488
I0403 15:30:24.760136 31976 layer_factory.hpp:77] Creating layer inception_3b/pool
I0403 15:30:24.760155 31976 net.cpp:91] Creating Layer inception_3b/pool
I0403 15:30:24.760171 31976 net.cpp:425] inception_3b/pool <- inception_3a/output_inception_3a/output_0_split_3
I0403 15:30:24.760190 31976 net.cpp:399] inception_3b/pool -> inception_3b/pool
I0403 15:30:24.760246 31976 net.cpp:141] Setting up inception_3b/pool
I0403 15:30:24.760268 31976 net.cpp:148] Top shape: 24 256 28 28 (4816896)
I0403 15:30:24.760283 31976 net.cpp:156] Memory required for data: 763479072
I0403 15:30:24.760298 31976 layer_factory.hpp:77] Creating layer inception_3b/pool_proj
I0403 15:30:24.760325 31976 net.cpp:91] Creating Layer inception_3b/pool_proj
I0403 15:30:24.760346 31976 net.cpp:425] inception_3b/pool_proj <- inception_3b/pool
I0403 15:30:24.760366 31976 net.cpp:399] inception_3b/pool_proj -> inception_3b/pool_proj
I0403 15:30:24.761411 31976 net.cpp:141] Setting up inception_3b/pool_proj
I0403 15:30:24.761441 31976 net.cpp:148] Top shape: 24 64 28 28 (1204224)
I0403 15:30:24.761457 31976 net.cpp:156] Memory required for data: 768295968
I0403 15:30:24.761477 31976 layer_factory.hpp:77] Creating layer inception_3b/relu_pool_proj
I0403 15:30:24.761497 31976 net.cpp:91] Creating Layer inception_3b/relu_pool_proj
I0403 15:30:24.761513 31976 net.cpp:425] inception_3b/relu_pool_proj <- inception_3b/pool_proj
I0403 15:30:24.761536 31976 net.cpp:386] inception_3b/relu_pool_proj -> inception_3b/pool_proj (in-place)
I0403 15:30:24.761955 31976 net.cpp:141] Setting up inception_3b/relu_pool_proj
I0403 15:30:24.761984 31976 net.cpp:148] Top shape: 24 64 28 28 (1204224)
I0403 15:30:24.762001 31976 net.cpp:156] Memory required for data: 773112864
I0403 15:30:24.762017 31976 layer_factory.hpp:77] Creating layer inception_3b/output
I0403 15:30:24.762035 31976 net.cpp:91] Creating Layer inception_3b/output
I0403 15:30:24.762051 31976 net.cpp:425] inception_3b/output <- inception_3b/1x1
I0403 15:30:24.762068 31976 net.cpp:425] inception_3b/output <- inception_3b/3x3
I0403 15:30:24.762085 31976 net.cpp:425] inception_3b/output <- inception_3b/5x5
I0403 15:30:24.762102 31976 net.cpp:425] inception_3b/output <- inception_3b/pool_proj
I0403 15:30:24.762120 31976 net.cpp:399] inception_3b/output -> inception_3b/output
I0403 15:30:24.762164 31976 net.cpp:141] Setting up inception_3b/output
I0403 15:30:24.762188 31976 net.cpp:148] Top shape: 24 480 28 28 (9031680)
I0403 15:30:24.762203 31976 net.cpp:156] Memory required for data: 809239584
I0403 15:30:24.762218 31976 layer_factory.hpp:77] Creating layer pool3/3x3_s2
I0403 15:30:24.762239 31976 net.cpp:91] Creating Layer pool3/3x3_s2
I0403 15:30:24.762255 31976 net.cpp:425] pool3/3x3_s2 <- inception_3b/output
I0403 15:30:24.762274 31976 net.cpp:399] pool3/3x3_s2 -> pool3/3x3_s2
I0403 15:30:24.762351 31976 net.cpp:141] Setting up pool3/3x3_s2
I0403 15:30:24.762377 31976 net.cpp:148] Top shape: 24 480 14 14 (2257920)
I0403 15:30:24.762392 31976 net.cpp:156] Memory required for data: 818271264
I0403 15:30:24.762408 31976 layer_factory.hpp:77] Creating layer pool3/3x3_s2_pool3/3x3_s2_0_split
I0403 15:30:24.762426 31976 net.cpp:91] Creating Layer pool3/3x3_s2_pool3/3x3_s2_0_split
I0403 15:30:24.762441 31976 net.cpp:425] pool3/3x3_s2_pool3/3x3_s2_0_split <- pool3/3x3_s2
I0403 15:30:24.762461 31976 net.cpp:399] pool3/3x3_s2_pool3/3x3_s2_0_split -> pool3/3x3_s2_pool3/3x3_s2_0_split_0
I0403 15:30:24.762481 31976 net.cpp:399] pool3/3x3_s2_pool3/3x3_s2_0_split -> pool3/3x3_s2_pool3/3x3_s2_0_split_1
I0403 15:30:24.762502 31976 net.cpp:399] pool3/3x3_s2_pool3/3x3_s2_0_split -> pool3/3x3_s2_pool3/3x3_s2_0_split_2
I0403 15:30:24.762523 31976 net.cpp:399] pool3/3x3_s2_pool3/3x3_s2_0_split -> pool3/3x3_s2_pool3/3x3_s2_0_split_3
I0403 15:30:24.762598 31976 net.cpp:141] Setting up pool3/3x3_s2_pool3/3x3_s2_0_split
I0403 15:30:24.762624 31976 net.cpp:148] Top shape: 24 480 14 14 (2257920)
I0403 15:30:24.762640 31976 net.cpp:148] Top shape: 24 480 14 14 (2257920)
I0403 15:30:24.762656 31976 net.cpp:148] Top shape: 24 480 14 14 (2257920)
I0403 15:30:24.762672 31976 net.cpp:148] Top shape: 24 480 14 14 (2257920)
I0403 15:30:24.762687 31976 net.cpp:156] Memory required for data: 854397984
I0403 15:30:24.762703 31976 layer_factory.hpp:77] Creating layer inception_4a/1x1
I0403 15:30:24.762725 31976 net.cpp:91] Creating Layer inception_4a/1x1
I0403 15:30:24.762743 31976 net.cpp:425] inception_4a/1x1 <- pool3/3x3_s2_pool3/3x3_s2_0_split_0
I0403 15:30:24.762769 31976 net.cpp:399] inception_4a/1x1 -> inception_4a/1x1
I0403 15:30:24.764324 31976 net.cpp:141] Setting up inception_4a/1x1
I0403 15:30:24.764353 31976 net.cpp:148] Top shape: 24 192 14 14 (903168)
I0403 15:30:24.764370 31976 net.cpp:156] Memory required for data: 858010656
I0403 15:30:24.764390 31976 layer_factory.hpp:77] Creating layer inception_4a/relu_1x1
I0403 15:30:24.764408 31976 net.cpp:91] Creating Layer inception_4a/relu_1x1
I0403 15:30:24.764425 31976 net.cpp:425] inception_4a/relu_1x1 <- inception_4a/1x1
I0403 15:30:24.764444 31976 net.cpp:386] inception_4a/relu_1x1 -> inception_4a/1x1 (in-place)
I0403 15:30:24.764619 31976 net.cpp:141] Setting up inception_4a/relu_1x1
I0403 15:30:24.764645 31976 net.cpp:148] Top shape: 24 192 14 14 (903168)
I0403 15:30:24.764660 31976 net.cpp:156] Memory required for data: 861623328
I0403 15:30:24.764675 31976 layer_factory.hpp:77] Creating layer inception_4a/3x3_reduce
I0403 15:30:24.764698 31976 net.cpp:91] Creating Layer inception_4a/3x3_reduce
I0403 15:30:24.764716 31976 net.cpp:425] inception_4a/3x3_reduce <- pool3/3x3_s2_pool3/3x3_s2_0_split_1
I0403 15:30:24.764739 31976 net.cpp:399] inception_4a/3x3_reduce -> inception_4a/3x3_reduce
I0403 15:30:24.765995 31976 net.cpp:141] Setting up inception_4a/3x3_reduce
I0403 15:30:24.766024 31976 net.cpp:148] Top shape: 24 96 14 14 (451584)
I0403 15:30:24.766041 31976 net.cpp:156] Memory required for data: 863429664
I0403 15:30:24.766067 31976 layer_factory.hpp:77] Creating layer inception_4a/relu_3x3_reduce
I0403 15:30:24.766088 31976 net.cpp:91] Creating Layer inception_4a/relu_3x3_reduce
I0403 15:30:24.766104 31976 net.cpp:425] inception_4a/relu_3x3_reduce <- inception_4a/3x3_reduce
I0403 15:30:24.766124 31976 net.cpp:386] inception_4a/relu_3x3_reduce -> inception_4a/3x3_reduce (in-place)
I0403 15:30:24.766297 31976 net.cpp:141] Setting up inception_4a/relu_3x3_reduce
I0403 15:30:24.766327 31976 net.cpp:148] Top shape: 24 96 14 14 (451584)
I0403 15:30:24.766345 31976 net.cpp:156] Memory required for data: 865236000
I0403 15:30:24.766360 31976 layer_factory.hpp:77] Creating layer inception_4a/3x3
I0403 15:30:24.766383 31976 net.cpp:91] Creating Layer inception_4a/3x3
I0403 15:30:24.766402 31976 net.cpp:425] inception_4a/3x3 <- inception_4a/3x3_reduce
I0403 15:30:24.766424 31976 net.cpp:399] inception_4a/3x3 -> inception_4a/3x3
I0403 15:30:24.769073 31976 net.cpp:141] Setting up inception_4a/3x3
I0403 15:30:24.769103 31976 net.cpp:148] Top shape: 24 208 14 14 (978432)
I0403 15:30:24.769119 31976 net.cpp:156] Memory required for data: 869149728
I0403 15:30:24.769139 31976 layer_factory.hpp:77] Creating layer inception_4a/relu_3x3
I0403 15:30:24.769160 31976 net.cpp:91] Creating Layer inception_4a/relu_3x3
I0403 15:30:24.769179 31976 net.cpp:425] inception_4a/relu_3x3 <- inception_4a/3x3
I0403 15:30:24.769198 31976 net.cpp:386] inception_4a/relu_3x3 -> inception_4a/3x3 (in-place)
I0403 15:30:24.769481 31976 net.cpp:141] Setting up inception_4a/relu_3x3
I0403 15:30:24.769508 31976 net.cpp:148] Top shape: 24 208 14 14 (978432)
I0403 15:30:24.769525 31976 net.cpp:156] Memory required for data: 873063456
I0403 15:30:24.769539 31976 layer_factory.hpp:77] Creating layer inception_4a/5x5_reduce
I0403 15:30:24.769563 31976 net.cpp:91] Creating Layer inception_4a/5x5_reduce
I0403 15:30:24.769584 31976 net.cpp:425] inception_4a/5x5_reduce <- pool3/3x3_s2_pool3/3x3_s2_0_split_2
I0403 15:30:24.769605 31976 net.cpp:399] inception_4a/5x5_reduce -> inception_4a/5x5_reduce
I0403 15:30:24.770633 31976 net.cpp:141] Setting up inception_4a/5x5_reduce
I0403 15:30:24.770663 31976 net.cpp:148] Top shape: 24 16 14 14 (75264)
I0403 15:30:24.770678 31976 net.cpp:156] Memory required for data: 873364512
I0403 15:30:24.770699 31976 layer_factory.hpp:77] Creating layer inception_4a/relu_5x5_reduce
I0403 15:30:24.770720 31976 net.cpp:91] Creating Layer inception_4a/relu_5x5_reduce
I0403 15:30:24.770738 31976 net.cpp:425] inception_4a/relu_5x5_reduce <- inception_4a/5x5_reduce
I0403 15:30:24.770756 31976 net.cpp:386] inception_4a/relu_5x5_reduce -> inception_4a/5x5_reduce (in-place)
I0403 15:30:24.770947 31976 net.cpp:141] Setting up inception_4a/relu_5x5_reduce
I0403 15:30:24.770977 31976 net.cpp:148] Top shape: 24 16 14 14 (75264)
I0403 15:30:24.770993 31976 net.cpp:156] Memory required for data: 873665568
I0403 15:30:24.771008 31976 layer_factory.hpp:77] Creating layer inception_4a/5x5
I0403 15:30:24.771031 31976 net.cpp:91] Creating Layer inception_4a/5x5
I0403 15:30:24.771050 31976 net.cpp:425] inception_4a/5x5 <- inception_4a/5x5_reduce
I0403 15:30:24.771070 31976 net.cpp:399] inception_4a/5x5 -> inception_4a/5x5
I0403 15:30:24.772155 31976 net.cpp:141] Setting up inception_4a/5x5
I0403 15:30:24.772184 31976 net.cpp:148] Top shape: 24 48 14 14 (225792)
I0403 15:30:24.772202 31976 net.cpp:156] Memory required for data: 874568736
I0403 15:30:24.772222 31976 layer_factory.hpp:77] Creating layer inception_4a/relu_5x5
I0403 15:30:24.772241 31976 net.cpp:91] Creating Layer inception_4a/relu_5x5
I0403 15:30:24.772258 31976 net.cpp:425] inception_4a/relu_5x5 <- inception_4a/5x5
I0403 15:30:24.772277 31976 net.cpp:386] inception_4a/relu_5x5 -> inception_4a/5x5 (in-place)
I0403 15:30:24.772462 31976 net.cpp:141] Setting up inception_4a/relu_5x5
I0403 15:30:24.772487 31976 net.cpp:148] Top shape: 24 48 14 14 (225792)
I0403 15:30:24.772503 31976 net.cpp:156] Memory required for data: 875471904
I0403 15:30:24.772518 31976 layer_factory.hpp:77] Creating layer inception_4a/pool
I0403 15:30:24.772536 31976 net.cpp:91] Creating Layer inception_4a/pool
I0403 15:30:24.772552 31976 net.cpp:425] inception_4a/pool <- pool3/3x3_s2_pool3/3x3_s2_0_split_3
I0403 15:30:24.772572 31976 net.cpp:399] inception_4a/pool -> inception_4a/pool
I0403 15:30:24.772634 31976 net.cpp:141] Setting up inception_4a/pool
I0403 15:30:24.772658 31976 net.cpp:148] Top shape: 24 480 14 14 (2257920)
I0403 15:30:24.772675 31976 net.cpp:156] Memory required for data: 884503584
I0403 15:30:24.772691 31976 layer_factory.hpp:77] Creating layer inception_4a/pool_proj
I0403 15:30:24.772714 31976 net.cpp:91] Creating Layer inception_4a/pool_proj
I0403 15:30:24.772732 31976 net.cpp:425] inception_4a/pool_proj <- inception_4a/pool
I0403 15:30:24.772750 31976 net.cpp:399] inception_4a/pool_proj -> inception_4a/pool_proj
I0403 15:30:24.773908 31976 net.cpp:141] Setting up inception_4a/pool_proj
I0403 15:30:24.773939 31976 net.cpp:148] Top shape: 24 64 14 14 (301056)
I0403 15:30:24.773970 31976 net.cpp:156] Memory required for data: 885707808
I0403 15:30:24.773991 31976 layer_factory.hpp:77] Creating layer inception_4a/relu_pool_proj
I0403 15:30:24.774010 31976 net.cpp:91] Creating Layer inception_4a/relu_pool_proj
I0403 15:30:24.774026 31976 net.cpp:425] inception_4a/relu_pool_proj <- inception_4a/pool_proj
I0403 15:30:24.774047 31976 net.cpp:386] inception_4a/relu_pool_proj -> inception_4a/pool_proj (in-place)
I0403 15:30:24.774345 31976 net.cpp:141] Setting up inception_4a/relu_pool_proj
I0403 15:30:24.774374 31976 net.cpp:148] Top shape: 24 64 14 14 (301056)
I0403 15:30:24.774390 31976 net.cpp:156] Memory required for data: 886912032
I0403 15:30:24.774407 31976 layer_factory.hpp:77] Creating layer inception_4a/output
I0403 15:30:24.774425 31976 net.cpp:91] Creating Layer inception_4a/output
I0403 15:30:24.774441 31976 net.cpp:425] inception_4a/output <- inception_4a/1x1
I0403 15:30:24.774459 31976 net.cpp:425] inception_4a/output <- inception_4a/3x3
I0403 15:30:24.774476 31976 net.cpp:425] inception_4a/output <- inception_4a/5x5
I0403 15:30:24.774504 31976 net.cpp:425] inception_4a/output <- inception_4a/pool_proj
I0403 15:30:24.774526 31976 net.cpp:399] inception_4a/output -> inception_4a/output
I0403 15:30:24.774574 31976 net.cpp:141] Setting up inception_4a/output
I0403 15:30:24.774597 31976 net.cpp:148] Top shape: 24 512 14 14 (2408448)
I0403 15:30:24.774613 31976 net.cpp:156] Memory required for data: 896545824
I0403 15:30:24.774629 31976 layer_factory.hpp:77] Creating layer inception_4a/output_inception_4a/output_0_split
I0403 15:30:24.774649 31976 net.cpp:91] Creating Layer inception_4a/output_inception_4a/output_0_split
I0403 15:30:24.774667 31976 net.cpp:425] inception_4a/output_inception_4a/output_0_split <- inception_4a/output
I0403 15:30:24.774685 31976 net.cpp:399] inception_4a/output_inception_4a/output_0_split -> inception_4a/output_inception_4a/output_0_split_0
I0403 15:30:24.774710 31976 net.cpp:399] inception_4a/output_inception_4a/output_0_split -> inception_4a/output_inception_4a/output_0_split_1
I0403 15:30:24.774734 31976 net.cpp:399] inception_4a/output_inception_4a/output_0_split -> inception_4a/output_inception_4a/output_0_split_2
I0403 15:30:24.774755 31976 net.cpp:399] inception_4a/output_inception_4a/output_0_split -> inception_4a/output_inception_4a/output_0_split_3
I0403 15:30:24.774776 31976 net.cpp:399] inception_4a/output_inception_4a/output_0_split -> inception_4a/output_inception_4a/output_0_split_4
I0403 15:30:24.774869 31976 net.cpp:141] Setting up inception_4a/output_inception_4a/output_0_split
I0403 15:30:24.774893 31976 net.cpp:148] Top shape: 24 512 14 14 (2408448)
I0403 15:30:24.774911 31976 net.cpp:148] Top shape: 24 512 14 14 (2408448)
I0403 15:30:24.774927 31976 net.cpp:148] Top shape: 24 512 14 14 (2408448)
I0403 15:30:24.774945 31976 net.cpp:148] Top shape: 24 512 14 14 (2408448)
I0403 15:30:24.774960 31976 net.cpp:148] Top shape: 24 512 14 14 (2408448)
I0403 15:30:24.774976 31976 net.cpp:156] Memory required for data: 944714784
I0403 15:30:24.774991 31976 layer_factory.hpp:77] Creating layer loss1/ave_pool
I0403 15:30:24.775012 31976 net.cpp:91] Creating Layer loss1/ave_pool
I0403 15:30:24.775030 31976 net.cpp:425] loss1/ave_pool <- inception_4a/output_inception_4a/output_0_split_0
I0403 15:30:24.775050 31976 net.cpp:399] loss1/ave_pool -> loss1/ave_pool
I0403 15:30:24.775259 31976 net.cpp:141] Setting up loss1/ave_pool
I0403 15:30:24.775291 31976 net.cpp:148] Top shape: 24 512 4 4 (196608)
I0403 15:30:24.775308 31976 net.cpp:156] Memory required for data: 945501216
I0403 15:30:24.775329 31976 layer_factory.hpp:77] Creating layer loss1/conv
I0403 15:30:24.775354 31976 net.cpp:91] Creating Layer loss1/conv
I0403 15:30:24.775375 31976 net.cpp:425] loss1/conv <- loss1/ave_pool
I0403 15:30:24.775398 31976 net.cpp:399] loss1/conv -> loss1/conv
I0403 15:30:24.776828 31976 net.cpp:141] Setting up loss1/conv
I0403 15:30:24.776857 31976 net.cpp:148] Top shape: 24 128 4 4 (49152)
I0403 15:30:24.776873 31976 net.cpp:156] Memory required for data: 945697824
I0403 15:30:24.776907 31976 layer_factory.hpp:77] Creating layer loss1/relu_conv
I0403 15:30:24.776932 31976 net.cpp:91] Creating Layer loss1/relu_conv
I0403 15:30:24.776950 31976 net.cpp:425] loss1/relu_conv <- loss1/conv
I0403 15:30:24.776968 31976 net.cpp:386] loss1/relu_conv -> loss1/conv (in-place)
I0403 15:30:24.777256 31976 net.cpp:141] Setting up loss1/relu_conv
I0403 15:30:24.777284 31976 net.cpp:148] Top shape: 24 128 4 4 (49152)
I0403 15:30:24.777300 31976 net.cpp:156] Memory required for data: 945894432
I0403 15:30:24.777321 31976 layer_factory.hpp:77] Creating layer loss1/fc
I0403 15:30:24.777350 31976 net.cpp:91] Creating Layer loss1/fc
I0403 15:30:24.777370 31976 net.cpp:425] loss1/fc <- loss1/conv
I0403 15:30:24.777390 31976 net.cpp:399] loss1/fc -> loss1/fc
I0403 15:30:24.795733 31976 net.cpp:141] Setting up loss1/fc
I0403 15:30:24.795786 31976 net.cpp:148] Top shape: 24 1024 (24576)
I0403 15:30:24.795804 31976 net.cpp:156] Memory required for data: 945992736
I0403 15:30:24.795825 31976 layer_factory.hpp:77] Creating layer loss1/relu_fc
I0403 15:30:24.795846 31976 net.cpp:91] Creating Layer loss1/relu_fc
I0403 15:30:24.795864 31976 net.cpp:425] loss1/relu_fc <- loss1/fc
I0403 15:30:24.795887 31976 net.cpp:386] loss1/relu_fc -> loss1/fc (in-place)
I0403 15:30:24.796102 31976 net.cpp:141] Setting up loss1/relu_fc
I0403 15:30:24.796128 31976 net.cpp:148] Top shape: 24 1024 (24576)
I0403 15:30:24.796144 31976 net.cpp:156] Memory required for data: 946091040
I0403 15:30:24.796159 31976 layer_factory.hpp:77] Creating layer loss1/drop_fc
I0403 15:30:24.796187 31976 net.cpp:91] Creating Layer loss1/drop_fc
I0403 15:30:24.796206 31976 net.cpp:425] loss1/drop_fc <- loss1/fc
I0403 15:30:24.796229 31976 net.cpp:386] loss1/drop_fc -> loss1/fc (in-place)
I0403 15:30:24.796283 31976 net.cpp:141] Setting up loss1/drop_fc
I0403 15:30:24.796311 31976 net.cpp:148] Top shape: 24 1024 (24576)
I0403 15:30:24.796334 31976 net.cpp:156] Memory required for data: 946189344
I0403 15:30:24.796351 31976 layer_factory.hpp:77] Creating layer loss1/classifier_plantvillage
I0403 15:30:24.796371 31976 net.cpp:91] Creating Layer loss1/classifier_plantvillage
I0403 15:30:24.796387 31976 net.cpp:425] loss1/classifier_plantvillage <- loss1/fc
I0403 15:30:24.796409 31976 net.cpp:399] loss1/classifier_plantvillage -> loss1/classifier_plantvillage
I0403 15:30:24.797356 31976 net.cpp:141] Setting up loss1/classifier_plantvillage
I0403 15:30:24.797385 31976 net.cpp:148] Top shape: 24 38 (912)
I0403 15:30:24.797411 31976 net.cpp:156] Memory required for data: 946192992
I0403 15:30:24.797430 31976 layer_factory.hpp:77] Creating layer loss1/classifier_plantvillage_loss1/classifier_plantvillage_0_split
I0403 15:30:24.797448 31976 net.cpp:91] Creating Layer loss1/classifier_plantvillage_loss1/classifier_plantvillage_0_split
I0403 15:30:24.797464 31976 net.cpp:425] loss1/classifier_plantvillage_loss1/classifier_plantvillage_0_split <- loss1/classifier_plantvillage
I0403 15:30:24.797485 31976 net.cpp:399] loss1/classifier_plantvillage_loss1/classifier_plantvillage_0_split -> loss1/classifier_plantvillage_loss1/classifier_plantvillage_0_split_0
I0403 15:30:24.797508 31976 net.cpp:399] loss1/classifier_plantvillage_loss1/classifier_plantvillage_0_split -> loss1/classifier_plantvillage_loss1/classifier_plantvillage_0_split_1
I0403 15:30:24.797528 31976 net.cpp:399] loss1/classifier_plantvillage_loss1/classifier_plantvillage_0_split -> loss1/classifier_plantvillage_loss1/classifier_plantvillage_0_split_2
I0403 15:30:24.797598 31976 net.cpp:141] Setting up loss1/classifier_plantvillage_loss1/classifier_plantvillage_0_split
I0403 15:30:24.797621 31976 net.cpp:148] Top shape: 24 38 (912)
I0403 15:30:24.797638 31976 net.cpp:148] Top shape: 24 38 (912)
I0403 15:30:24.797655 31976 net.cpp:148] Top shape: 24 38 (912)
I0403 15:30:24.797669 31976 net.cpp:156] Memory required for data: 946203936
I0403 15:30:24.797693 31976 layer_factory.hpp:77] Creating layer inception_4b/1x1
I0403 15:30:24.797716 31976 net.cpp:91] Creating Layer inception_4b/1x1
I0403 15:30:24.797757 31976 net.cpp:425] inception_4b/1x1 <- inception_4a/output_inception_4a/output_0_split_1
I0403 15:30:24.797778 31976 net.cpp:399] inception_4b/1x1 -> inception_4b/1x1
I0403 15:30:24.799494 31976 net.cpp:141] Setting up inception_4b/1x1
I0403 15:30:24.799523 31976 net.cpp:148] Top shape: 24 160 14 14 (752640)
I0403 15:30:24.799540 31976 net.cpp:156] Memory required for data: 949214496
I0403 15:30:24.799559 31976 layer_factory.hpp:77] Creating layer inception_4b/relu_1x1
I0403 15:30:24.799582 31976 net.cpp:91] Creating Layer inception_4b/relu_1x1
I0403 15:30:24.799599 31976 net.cpp:425] inception_4b/relu_1x1 <- inception_4b/1x1
I0403 15:30:24.799618 31976 net.cpp:386] inception_4b/relu_1x1 -> inception_4b/1x1 (in-place)
I0403 15:30:24.799801 31976 net.cpp:141] Setting up inception_4b/relu_1x1
I0403 15:30:24.799829 31976 net.cpp:148] Top shape: 24 160 14 14 (752640)
I0403 15:30:24.799846 31976 net.cpp:156] Memory required for data: 952225056
I0403 15:30:24.799862 31976 layer_factory.hpp:77] Creating layer inception_4b/3x3_reduce
I0403 15:30:24.799885 31976 net.cpp:91] Creating Layer inception_4b/3x3_reduce
I0403 15:30:24.799902 31976 net.cpp:425] inception_4b/3x3_reduce <- inception_4a/output_inception_4a/output_0_split_2
I0403 15:30:24.799922 31976 net.cpp:399] inception_4b/3x3_reduce -> inception_4b/3x3_reduce
I0403 15:30:24.801343 31976 net.cpp:141] Setting up inception_4b/3x3_reduce
I0403 15:30:24.801375 31976 net.cpp:148] Top shape: 24 112 14 14 (526848)
I0403 15:30:24.801393 31976 net.cpp:156] Memory required for data: 954332448
I0403 15:30:24.801412 31976 layer_factory.hpp:77] Creating layer inception_4b/relu_3x3_reduce
I0403 15:30:24.801431 31976 net.cpp:91] Creating Layer inception_4b/relu_3x3_reduce
I0403 15:30:24.801447 31976 net.cpp:425] inception_4b/relu_3x3_reduce <- inception_4b/3x3_reduce
I0403 15:30:24.801465 31976 net.cpp:386] inception_4b/relu_3x3_reduce -> inception_4b/3x3_reduce (in-place)
I0403 15:30:24.801753 31976 net.cpp:141] Setting up inception_4b/relu_3x3_reduce
I0403 15:30:24.801781 31976 net.cpp:148] Top shape: 24 112 14 14 (526848)
I0403 15:30:24.801798 31976 net.cpp:156] Memory required for data: 956439840
I0403 15:30:24.801815 31976 layer_factory.hpp:77] Creating layer inception_4b/3x3
I0403 15:30:24.801837 31976 net.cpp:91] Creating Layer inception_4b/3x3
I0403 15:30:24.801856 31976 net.cpp:425] inception_4b/3x3 <- inception_4b/3x3_reduce
I0403 15:30:24.801875 31976 net.cpp:399] inception_4b/3x3 -> inception_4b/3x3
I0403 15:30:24.805011 31976 net.cpp:141] Setting up inception_4b/3x3
I0403 15:30:24.805040 31976 net.cpp:148] Top shape: 24 224 14 14 (1053696)
I0403 15:30:24.805058 31976 net.cpp:156] Memory required for data: 960654624
I0403 15:30:24.805076 31976 layer_factory.hpp:77] Creating layer inception_4b/relu_3x3
I0403 15:30:24.805095 31976 net.cpp:91] Creating Layer inception_4b/relu_3x3
I0403 15:30:24.805114 31976 net.cpp:425] inception_4b/relu_3x3 <- inception_4b/3x3
I0403 15:30:24.805133 31976 net.cpp:386] inception_4b/relu_3x3 -> inception_4b/3x3 (in-place)
I0403 15:30:24.805326 31976 net.cpp:141] Setting up inception_4b/relu_3x3
I0403 15:30:24.805352 31976 net.cpp:148] Top shape: 24 224 14 14 (1053696)
I0403 15:30:24.805368 31976 net.cpp:156] Memory required for data: 964869408
I0403 15:30:24.805383 31976 layer_factory.hpp:77] Creating layer inception_4b/5x5_reduce
I0403 15:30:24.805408 31976 net.cpp:91] Creating Layer inception_4b/5x5_reduce
I0403 15:30:24.805425 31976 net.cpp:425] inception_4b/5x5_reduce <- inception_4a/output_inception_4a/output_0_split_3
I0403 15:30:24.805449 31976 net.cpp:399] inception_4b/5x5_reduce -> inception_4b/5x5_reduce
I0403 15:30:24.806565 31976 net.cpp:141] Setting up inception_4b/5x5_reduce
I0403 15:30:24.806594 31976 net.cpp:148] Top shape: 24 24 14 14 (112896)
I0403 15:30:24.806610 31976 net.cpp:156] Memory required for data: 965320992
I0403 15:30:24.806629 31976 layer_factory.hpp:77] Creating layer inception_4b/relu_5x5_reduce
I0403 15:30:24.806651 31976 net.cpp:91] Creating Layer inception_4b/relu_5x5_reduce
I0403 15:30:24.806684 31976 net.cpp:425] inception_4b/relu_5x5_reduce <- inception_4b/5x5_reduce
I0403 15:30:24.806704 31976 net.cpp:386] inception_4b/relu_5x5_reduce -> inception_4b/5x5_reduce (in-place)
I0403 15:30:24.806890 31976 net.cpp:141] Setting up inception_4b/relu_5x5_reduce
I0403 15:30:24.806918 31976 net.cpp:148] Top shape: 24 24 14 14 (112896)
I0403 15:30:24.806933 31976 net.cpp:156] Memory required for data: 965772576
I0403 15:30:24.806949 31976 layer_factory.hpp:77] Creating layer inception_4b/5x5
I0403 15:30:24.806973 31976 net.cpp:91] Creating Layer inception_4b/5x5
I0403 15:30:24.806990 31976 net.cpp:425] inception_4b/5x5 <- inception_4b/5x5_reduce
I0403 15:30:24.807009 31976 net.cpp:399] inception_4b/5x5 -> inception_4b/5x5
I0403 15:30:24.808265 31976 net.cpp:141] Setting up inception_4b/5x5
I0403 15:30:24.808295 31976 net.cpp:148] Top shape: 24 64 14 14 (301056)
I0403 15:30:24.808310 31976 net.cpp:156] Memory required for data: 966976800
I0403 15:30:24.808334 31976 layer_factory.hpp:77] Creating layer inception_4b/relu_5x5
I0403 15:30:24.808360 31976 net.cpp:91] Creating Layer inception_4b/relu_5x5
I0403 15:30:24.808378 31976 net.cpp:425] inception_4b/relu_5x5 <- inception_4b/5x5
I0403 15:30:24.808398 31976 net.cpp:386] inception_4b/relu_5x5 -> inception_4b/5x5 (in-place)
I0403 15:30:24.808701 31976 net.cpp:141] Setting up inception_4b/relu_5x5
I0403 15:30:24.808728 31976 net.cpp:148] Top shape: 24 64 14 14 (301056)
I0403 15:30:24.808743 31976 net.cpp:156] Memory required for data: 968181024
I0403 15:30:24.808759 31976 layer_factory.hpp:77] Creating layer inception_4b/pool
I0403 15:30:24.808792 31976 net.cpp:91] Creating Layer inception_4b/pool
I0403 15:30:24.808817 31976 net.cpp:425] inception_4b/pool <- inception_4a/output_inception_4a/output_0_split_4
I0403 15:30:24.808837 31976 net.cpp:399] inception_4b/pool -> inception_4b/pool
I0403 15:30:24.808905 31976 net.cpp:141] Setting up inception_4b/pool
I0403 15:30:24.808930 31976 net.cpp:148] Top shape: 24 512 14 14 (2408448)
I0403 15:30:24.808945 31976 net.cpp:156] Memory required for data: 977814816
I0403 15:30:24.808960 31976 layer_factory.hpp:77] Creating layer inception_4b/pool_proj
I0403 15:30:24.808984 31976 net.cpp:91] Creating Layer inception_4b/pool_proj
I0403 15:30:24.809002 31976 net.cpp:425] inception_4b/pool_proj <- inception_4b/pool
I0403 15:30:24.809025 31976 net.cpp:399] inception_4b/pool_proj -> inception_4b/pool_proj
I0403 15:30:24.810267 31976 net.cpp:141] Setting up inception_4b/pool_proj
I0403 15:30:24.810295 31976 net.cpp:148] Top shape: 24 64 14 14 (301056)
I0403 15:30:24.810312 31976 net.cpp:156] Memory required for data: 979019040
I0403 15:30:24.810338 31976 layer_factory.hpp:77] Creating layer inception_4b/relu_pool_proj
I0403 15:30:24.810359 31976 net.cpp:91] Creating Layer inception_4b/relu_pool_proj
I0403 15:30:24.810379 31976 net.cpp:425] inception_4b/relu_pool_proj <- inception_4b/pool_proj
I0403 15:30:24.810396 31976 net.cpp:386] inception_4b/relu_pool_proj -> inception_4b/pool_proj (in-place)
I0403 15:30:24.810585 31976 net.cpp:141] Setting up inception_4b/relu_pool_proj
I0403 15:30:24.810611 31976 net.cpp:148] Top shape: 24 64 14 14 (301056)
I0403 15:30:24.810626 31976 net.cpp:156] Memory required for data: 980223264
I0403 15:30:24.810642 31976 layer_factory.hpp:77] Creating layer inception_4b/output
I0403 15:30:24.810660 31976 net.cpp:91] Creating Layer inception_4b/output
I0403 15:30:24.810677 31976 net.cpp:425] inception_4b/output <- inception_4b/1x1
I0403 15:30:24.810693 31976 net.cpp:425] inception_4b/output <- inception_4b/3x3
I0403 15:30:24.810710 31976 net.cpp:425] inception_4b/output <- inception_4b/5x5
I0403 15:30:24.810727 31976 net.cpp:425] inception_4b/output <- inception_4b/pool_proj
I0403 15:30:24.810745 31976 net.cpp:399] inception_4b/output -> inception_4b/output
I0403 15:30:24.810794 31976 net.cpp:141] Setting up inception_4b/output
I0403 15:30:24.810817 31976 net.cpp:148] Top shape: 24 512 14 14 (2408448)
I0403 15:30:24.810833 31976 net.cpp:156] Memory required for data: 989857056
I0403 15:30:24.810863 31976 layer_factory.hpp:77] Creating layer inception_4b/output_inception_4b/output_0_split
I0403 15:30:24.810885 31976 net.cpp:91] Creating Layer inception_4b/output_inception_4b/output_0_split
I0403 15:30:24.810902 31976 net.cpp:425] inception_4b/output_inception_4b/output_0_split <- inception_4b/output
I0403 15:30:24.810920 31976 net.cpp:399] inception_4b/output_inception_4b/output_0_split -> inception_4b/output_inception_4b/output_0_split_0
I0403 15:30:24.810941 31976 net.cpp:399] inception_4b/output_inception_4b/output_0_split -> inception_4b/output_inception_4b/output_0_split_1
I0403 15:30:24.810961 31976 net.cpp:399] inception_4b/output_inception_4b/output_0_split -> inception_4b/output_inception_4b/output_0_split_2
I0403 15:30:24.810984 31976 net.cpp:399] inception_4b/output_inception_4b/output_0_split -> inception_4b/output_inception_4b/output_0_split_3
I0403 15:30:24.811072 31976 net.cpp:141] Setting up inception_4b/output_inception_4b/output_0_split
I0403 15:30:24.811096 31976 net.cpp:148] Top shape: 24 512 14 14 (2408448)
I0403 15:30:24.811113 31976 net.cpp:148] Top shape: 24 512 14 14 (2408448)
I0403 15:30:24.811128 31976 net.cpp:148] Top shape: 24 512 14 14 (2408448)
I0403 15:30:24.811144 31976 net.cpp:148] Top shape: 24 512 14 14 (2408448)
I0403 15:30:24.811158 31976 net.cpp:156] Memory required for data: 1028392224
I0403 15:30:24.811173 31976 layer_factory.hpp:77] Creating layer inception_4c/1x1
I0403 15:30:24.811197 31976 net.cpp:91] Creating Layer inception_4c/1x1
I0403 15:30:24.811214 31976 net.cpp:425] inception_4c/1x1 <- inception_4b/output_inception_4b/output_0_split_0
I0403 15:30:24.811235 31976 net.cpp:399] inception_4c/1x1 -> inception_4c/1x1
I0403 15:30:24.812754 31976 net.cpp:141] Setting up inception_4c/1x1
I0403 15:30:24.812783 31976 net.cpp:148] Top shape: 24 128 14 14 (602112)
I0403 15:30:24.812799 31976 net.cpp:156] Memory required for data: 1030800672
I0403 15:30:24.812819 31976 layer_factory.hpp:77] Creating layer inception_4c/relu_1x1
I0403 15:30:24.812839 31976 net.cpp:91] Creating Layer inception_4c/relu_1x1
I0403 15:30:24.812856 31976 net.cpp:425] inception_4c/relu_1x1 <- inception_4c/1x1
I0403 15:30:24.812878 31976 net.cpp:386] inception_4c/relu_1x1 -> inception_4c/1x1 (in-place)
I0403 15:30:24.813066 31976 net.cpp:141] Setting up inception_4c/relu_1x1
I0403 15:30:24.813091 31976 net.cpp:148] Top shape: 24 128 14 14 (602112)
I0403 15:30:24.813105 31976 net.cpp:156] Memory required for data: 1033209120
I0403 15:30:24.813122 31976 layer_factory.hpp:77] Creating layer inception_4c/3x3_reduce
I0403 15:30:24.813144 31976 net.cpp:91] Creating Layer inception_4c/3x3_reduce
I0403 15:30:24.813163 31976 net.cpp:425] inception_4c/3x3_reduce <- inception_4b/output_inception_4b/output_0_split_1
I0403 15:30:24.813186 31976 net.cpp:399] inception_4c/3x3_reduce -> inception_4c/3x3_reduce
I0403 15:30:24.815199 31976 net.cpp:141] Setting up inception_4c/3x3_reduce
I0403 15:30:24.815229 31976 net.cpp:148] Top shape: 24 128 14 14 (602112)
I0403 15:30:24.815245 31976 net.cpp:156] Memory required for data: 1035617568
I0403 15:30:24.815265 31976 layer_factory.hpp:77] Creating layer inception_4c/relu_3x3_reduce
I0403 15:30:24.815286 31976 net.cpp:91] Creating Layer inception_4c/relu_3x3_reduce
I0403 15:30:24.815306 31976 net.cpp:425] inception_4c/relu_3x3_reduce <- inception_4c/3x3_reduce
I0403 15:30:24.815330 31976 net.cpp:386] inception_4c/relu_3x3_reduce -> inception_4c/3x3_reduce (in-place)
I0403 15:30:24.815644 31976 net.cpp:141] Setting up inception_4c/relu_3x3_reduce
I0403 15:30:24.815671 31976 net.cpp:148] Top shape: 24 128 14 14 (602112)
I0403 15:30:24.815687 31976 net.cpp:156] Memory required for data: 1038026016
I0403 15:30:24.815704 31976 layer_factory.hpp:77] Creating layer inception_4c/3x3
I0403 15:30:24.815728 31976 net.cpp:91] Creating Layer inception_4c/3x3
I0403 15:30:24.815754 31976 net.cpp:425] inception_4c/3x3 <- inception_4c/3x3_reduce
I0403 15:30:24.815778 31976 net.cpp:399] inception_4c/3x3 -> inception_4c/3x3
I0403 15:30:24.819527 31976 net.cpp:141] Setting up inception_4c/3x3
I0403 15:30:24.819569 31976 net.cpp:148] Top shape: 24 256 14 14 (1204224)
I0403 15:30:24.819586 31976 net.cpp:156] Memory required for data: 1042842912
I0403 15:30:24.819619 31976 layer_factory.hpp:77] Creating layer inception_4c/relu_3x3
I0403 15:30:24.819641 31976 net.cpp:91] Creating Layer inception_4c/relu_3x3
I0403 15:30:24.819659 31976 net.cpp:425] inception_4c/relu_3x3 <- inception_4c/3x3
I0403 15:30:24.819676 31976 net.cpp:386] inception_4c/relu_3x3 -> inception_4c/3x3 (in-place)
I0403 15:30:24.819859 31976 net.cpp:141] Setting up inception_4c/relu_3x3
I0403 15:30:24.819883 31976 net.cpp:148] Top shape: 24 256 14 14 (1204224)
I0403 15:30:24.819901 31976 net.cpp:156] Memory required for data: 1047659808
I0403 15:30:24.819916 31976 layer_factory.hpp:77] Creating layer inception_4c/5x5_reduce
I0403 15:30:24.819936 31976 net.cpp:91] Creating Layer inception_4c/5x5_reduce
I0403 15:30:24.819952 31976 net.cpp:425] inception_4c/5x5_reduce <- inception_4b/output_inception_4b/output_0_split_2
I0403 15:30:24.819975 31976 net.cpp:399] inception_4c/5x5_reduce -> inception_4c/5x5_reduce
I0403 15:30:24.821081 31976 net.cpp:141] Setting up inception_4c/5x5_reduce
I0403 15:30:24.821110 31976 net.cpp:148] Top shape: 24 24 14 14 (112896)
I0403 15:30:24.821125 31976 net.cpp:156] Memory required for data: 1048111392
I0403 15:30:24.821143 31976 layer_factory.hpp:77] Creating layer inception_4c/relu_5x5_reduce
I0403 15:30:24.821164 31976 net.cpp:91] Creating Layer inception_4c/relu_5x5_reduce
I0403 15:30:24.821182 31976 net.cpp:425] inception_4c/relu_5x5_reduce <- inception_4c/5x5_reduce
I0403 15:30:24.821200 31976 net.cpp:386] inception_4c/relu_5x5_reduce -> inception_4c/5x5_reduce (in-place)
I0403 15:30:24.821391 31976 net.cpp:141] Setting up inception_4c/relu_5x5_reduce
I0403 15:30:24.821418 31976 net.cpp:148] Top shape: 24 24 14 14 (112896)
I0403 15:30:24.821434 31976 net.cpp:156] Memory required for data: 1048562976
I0403 15:30:24.821449 31976 layer_factory.hpp:77] Creating layer inception_4c/5x5
I0403 15:30:24.821470 31976 net.cpp:91] Creating Layer inception_4c/5x5
I0403 15:30:24.821488 31976 net.cpp:425] inception_4c/5x5 <- inception_4c/5x5_reduce
I0403 15:30:24.821507 31976 net.cpp:399] inception_4c/5x5 -> inception_4c/5x5
I0403 15:30:24.822743 31976 net.cpp:141] Setting up inception_4c/5x5
I0403 15:30:24.822773 31976 net.cpp:148] Top shape: 24 64 14 14 (301056)
I0403 15:30:24.822789 31976 net.cpp:156] Memory required for data: 1049767200
I0403 15:30:24.822808 31976 layer_factory.hpp:77] Creating layer inception_4c/relu_5x5
I0403 15:30:24.822826 31976 net.cpp:91] Creating Layer inception_4c/relu_5x5
I0403 15:30:24.822844 31976 net.cpp:425] inception_4c/relu_5x5 <- inception_4c/5x5
I0403 15:30:24.822862 31976 net.cpp:386] inception_4c/relu_5x5 -> inception_4c/5x5 (in-place)
I0403 15:30:24.823148 31976 net.cpp:141] Setting up inception_4c/relu_5x5
I0403 15:30:24.823175 31976 net.cpp:148] Top shape: 24 64 14 14 (301056)
I0403 15:30:24.823190 31976 net.cpp:156] Memory required for data: 1050971424
I0403 15:30:24.823206 31976 layer_factory.hpp:77] Creating layer inception_4c/pool
I0403 15:30:24.823225 31976 net.cpp:91] Creating Layer inception_4c/pool
I0403 15:30:24.823240 31976 net.cpp:425] inception_4c/pool <- inception_4b/output_inception_4b/output_0_split_3
I0403 15:30:24.823261 31976 net.cpp:399] inception_4c/pool -> inception_4c/pool
I0403 15:30:24.823330 31976 net.cpp:141] Setting up inception_4c/pool
I0403 15:30:24.823354 31976 net.cpp:148] Top shape: 24 512 14 14 (2408448)
I0403 15:30:24.823369 31976 net.cpp:156] Memory required for data: 1060605216
I0403 15:30:24.823385 31976 layer_factory.hpp:77] Creating layer inception_4c/pool_proj
I0403 15:30:24.823408 31976 net.cpp:91] Creating Layer inception_4c/pool_proj
I0403 15:30:24.823426 31976 net.cpp:425] inception_4c/pool_proj <- inception_4c/pool
I0403 15:30:24.823443 31976 net.cpp:399] inception_4c/pool_proj -> inception_4c/pool_proj
I0403 15:30:24.824669 31976 net.cpp:141] Setting up inception_4c/pool_proj
I0403 15:30:24.824698 31976 net.cpp:148] Top shape: 24 64 14 14 (301056)
I0403 15:30:24.824728 31976 net.cpp:156] Memory required for data: 1061809440
I0403 15:30:24.824748 31976 layer_factory.hpp:77] Creating layer inception_4c/relu_pool_proj
I0403 15:30:24.824769 31976 net.cpp:91] Creating Layer inception_4c/relu_pool_proj
I0403 15:30:24.824785 31976 net.cpp:425] inception_4c/relu_pool_proj <- inception_4c/pool_proj
I0403 15:30:24.824802 31976 net.cpp:386] inception_4c/relu_pool_proj -> inception_4c/pool_proj (in-place)
I0403 15:30:24.824982 31976 net.cpp:141] Setting up inception_4c/relu_pool_proj
I0403 15:30:24.825011 31976 net.cpp:148] Top shape: 24 64 14 14 (301056)
I0403 15:30:24.825026 31976 net.cpp:156] Memory required for data: 1063013664
I0403 15:30:24.825040 31976 layer_factory.hpp:77] Creating layer inception_4c/output
I0403 15:30:24.825057 31976 net.cpp:91] Creating Layer inception_4c/output
I0403 15:30:24.825073 31976 net.cpp:425] inception_4c/output <- inception_4c/1x1
I0403 15:30:24.825089 31976 net.cpp:425] inception_4c/output <- inception_4c/3x3
I0403 15:30:24.825105 31976 net.cpp:425] inception_4c/output <- inception_4c/5x5
I0403 15:30:24.825120 31976 net.cpp:425] inception_4c/output <- inception_4c/pool_proj
I0403 15:30:24.825137 31976 net.cpp:399] inception_4c/output -> inception_4c/output
I0403 15:30:24.825186 31976 net.cpp:141] Setting up inception_4c/output
I0403 15:30:24.825208 31976 net.cpp:148] Top shape: 24 512 14 14 (2408448)
I0403 15:30:24.825222 31976 net.cpp:156] Memory required for data: 1072647456
I0403 15:30:24.825237 31976 layer_factory.hpp:77] Creating layer inception_4c/output_inception_4c/output_0_split
I0403 15:30:24.825256 31976 net.cpp:91] Creating Layer inception_4c/output_inception_4c/output_0_split
I0403 15:30:24.825273 31976 net.cpp:425] inception_4c/output_inception_4c/output_0_split <- inception_4c/output
I0403 15:30:24.825289 31976 net.cpp:399] inception_4c/output_inception_4c/output_0_split -> inception_4c/output_inception_4c/output_0_split_0
I0403 15:30:24.825309 31976 net.cpp:399] inception_4c/output_inception_4c/output_0_split -> inception_4c/output_inception_4c/output_0_split_1
I0403 15:30:24.825335 31976 net.cpp:399] inception_4c/output_inception_4c/output_0_split -> inception_4c/output_inception_4c/output_0_split_2
I0403 15:30:24.825357 31976 net.cpp:399] inception_4c/output_inception_4c/output_0_split -> inception_4c/output_inception_4c/output_0_split_3
I0403 15:30:24.825444 31976 net.cpp:141] Setting up inception_4c/output_inception_4c/output_0_split
I0403 15:30:24.825467 31976 net.cpp:148] Top shape: 24 512 14 14 (2408448)
I0403 15:30:24.825484 31976 net.cpp:148] Top shape: 24 512 14 14 (2408448)
I0403 15:30:24.825500 31976 net.cpp:148] Top shape: 24 512 14 14 (2408448)
I0403 15:30:24.825515 31976 net.cpp:148] Top shape: 24 512 14 14 (2408448)
I0403 15:30:24.825528 31976 net.cpp:156] Memory required for data: 1111182624
I0403 15:30:24.825543 31976 layer_factory.hpp:77] Creating layer inception_4d/1x1
I0403 15:30:24.825565 31976 net.cpp:91] Creating Layer inception_4d/1x1
I0403 15:30:24.825582 31976 net.cpp:425] inception_4d/1x1 <- inception_4c/output_inception_4c/output_0_split_0
I0403 15:30:24.825603 31976 net.cpp:399] inception_4d/1x1 -> inception_4d/1x1
I0403 15:30:24.827010 31976 net.cpp:141] Setting up inception_4d/1x1
I0403 15:30:24.827038 31976 net.cpp:148] Top shape: 24 112 14 14 (526848)
I0403 15:30:24.827054 31976 net.cpp:156] Memory required for data: 1113290016
I0403 15:30:24.827071 31976 layer_factory.hpp:77] Creating layer inception_4d/relu_1x1
I0403 15:30:24.827090 31976 net.cpp:91] Creating Layer inception_4d/relu_1x1
I0403 15:30:24.827106 31976 net.cpp:425] inception_4d/relu_1x1 <- inception_4d/1x1
I0403 15:30:24.827137 31976 net.cpp:386] inception_4d/relu_1x1 -> inception_4d/1x1 (in-place)
I0403 15:30:24.827332 31976 net.cpp:141] Setting up inception_4d/relu_1x1
I0403 15:30:24.827358 31976 net.cpp:148] Top shape: 24 112 14 14 (526848)
I0403 15:30:24.827373 31976 net.cpp:156] Memory required for data: 1115397408
I0403 15:30:24.827389 31976 layer_factory.hpp:77] Creating layer inception_4d/3x3_reduce
I0403 15:30:24.827426 31976 net.cpp:91] Creating Layer inception_4d/3x3_reduce
I0403 15:30:24.827445 31976 net.cpp:425] inception_4d/3x3_reduce <- inception_4c/output_inception_4c/output_0_split_1
I0403 15:30:24.827467 31976 net.cpp:399] inception_4d/3x3_reduce -> inception_4d/3x3_reduce
I0403 15:30:24.829027 31976 net.cpp:141] Setting up inception_4d/3x3_reduce
I0403 15:30:24.829058 31976 net.cpp:148] Top shape: 24 144 14 14 (677376)
I0403 15:30:24.829076 31976 net.cpp:156] Memory required for data: 1118106912
I0403 15:30:24.829094 31976 layer_factory.hpp:77] Creating layer inception_4d/relu_3x3_reduce
I0403 15:30:24.829113 31976 net.cpp:91] Creating Layer inception_4d/relu_3x3_reduce
I0403 15:30:24.829131 31976 net.cpp:425] inception_4d/relu_3x3_reduce <- inception_4d/3x3_reduce
I0403 15:30:24.829151 31976 net.cpp:386] inception_4d/relu_3x3_reduce -> inception_4d/3x3_reduce (in-place)
I0403 15:30:24.829455 31976 net.cpp:141] Setting up inception_4d/relu_3x3_reduce
I0403 15:30:24.829484 31976 net.cpp:148] Top shape: 24 144 14 14 (677376)
I0403 15:30:24.829501 31976 net.cpp:156] Memory required for data: 1120816416
I0403 15:30:24.829517 31976 layer_factory.hpp:77] Creating layer inception_4d/3x3
I0403 15:30:24.829540 31976 net.cpp:91] Creating Layer inception_4d/3x3
I0403 15:30:24.829558 31976 net.cpp:425] inception_4d/3x3 <- inception_4d/3x3_reduce
I0403 15:30:24.829578 31976 net.cpp:399] inception_4d/3x3 -> inception_4d/3x3
I0403 15:30:24.833840 31976 net.cpp:141] Setting up inception_4d/3x3
I0403 15:30:24.833868 31976 net.cpp:148] Top shape: 24 288 14 14 (1354752)
I0403 15:30:24.833884 31976 net.cpp:156] Memory required for data: 1126235424
I0403 15:30:24.833901 31976 layer_factory.hpp:77] Creating layer inception_4d/relu_3x3
I0403 15:30:24.833921 31976 net.cpp:91] Creating Layer inception_4d/relu_3x3
I0403 15:30:24.833938 31976 net.cpp:425] inception_4d/relu_3x3 <- inception_4d/3x3
I0403 15:30:24.833956 31976 net.cpp:386] inception_4d/relu_3x3 -> inception_4d/3x3 (in-place)
I0403 15:30:24.834132 31976 net.cpp:141] Setting up inception_4d/relu_3x3
I0403 15:30:24.834156 31976 net.cpp:148] Top shape: 24 288 14 14 (1354752)
I0403 15:30:24.834170 31976 net.cpp:156] Memory required for data: 1131654432
I0403 15:30:24.834185 31976 layer_factory.hpp:77] Creating layer inception_4d/5x5_reduce
I0403 15:30:24.834208 31976 net.cpp:91] Creating Layer inception_4d/5x5_reduce
I0403 15:30:24.834225 31976 net.cpp:425] inception_4d/5x5_reduce <- inception_4c/output_inception_4c/output_0_split_2
I0403 15:30:24.834257 31976 net.cpp:399] inception_4d/5x5_reduce -> inception_4d/5x5_reduce
I0403 15:30:24.835469 31976 net.cpp:141] Setting up inception_4d/5x5_reduce
I0403 15:30:24.835497 31976 net.cpp:148] Top shape: 24 32 14 14 (150528)
I0403 15:30:24.835512 31976 net.cpp:156] Memory required for data: 1132256544
I0403 15:30:24.835530 31976 layer_factory.hpp:77] Creating layer inception_4d/relu_5x5_reduce
I0403 15:30:24.835551 31976 net.cpp:91] Creating Layer inception_4d/relu_5x5_reduce
I0403 15:30:24.835567 31976 net.cpp:425] inception_4d/relu_5x5_reduce <- inception_4d/5x5_reduce
I0403 15:30:24.835585 31976 net.cpp:386] inception_4d/relu_5x5_reduce -> inception_4d/5x5_reduce (in-place)
I0403 15:30:24.835783 31976 net.cpp:141] Setting up inception_4d/relu_5x5_reduce
I0403 15:30:24.835806 31976 net.cpp:148] Top shape: 24 32 14 14 (150528)
I0403 15:30:24.835821 31976 net.cpp:156] Memory required for data: 1132858656
I0403 15:30:24.835835 31976 layer_factory.hpp:77] Creating layer inception_4d/5x5
I0403 15:30:24.835856 31976 net.cpp:91] Creating Layer inception_4d/5x5
I0403 15:30:24.835875 31976 net.cpp:425] inception_4d/5x5 <- inception_4d/5x5_reduce
I0403 15:30:24.835893 31976 net.cpp:399] inception_4d/5x5 -> inception_4d/5x5
I0403 15:30:24.837327 31976 net.cpp:141] Setting up inception_4d/5x5
I0403 15:30:24.837362 31976 net.cpp:148] Top shape: 24 64 14 14 (301056)
I0403 15:30:24.837378 31976 net.cpp:156] Memory required for data: 1134062880
I0403 15:30:24.837407 31976 layer_factory.hpp:77] Creating layer inception_4d/relu_5x5
I0403 15:30:24.837440 31976 net.cpp:91] Creating Layer inception_4d/relu_5x5
I0403 15:30:24.837456 31976 net.cpp:425] inception_4d/relu_5x5 <- inception_4d/5x5
I0403 15:30:24.837472 31976 net.cpp:386] inception_4d/relu_5x5 -> inception_4d/5x5 (in-place)
I0403 15:30:24.837765 31976 net.cpp:141] Setting up inception_4d/relu_5x5
I0403 15:30:24.837793 31976 net.cpp:148] Top shape: 24 64 14 14 (301056)
I0403 15:30:24.837808 31976 net.cpp:156] Memory required for data: 1135267104
I0403 15:30:24.837823 31976 layer_factory.hpp:77] Creating layer inception_4d/pool
I0403 15:30:24.837841 31976 net.cpp:91] Creating Layer inception_4d/pool
I0403 15:30:24.837857 31976 net.cpp:425] inception_4d/pool <- inception_4c/output_inception_4c/output_0_split_3
I0403 15:30:24.837874 31976 net.cpp:399] inception_4d/pool -> inception_4d/pool
I0403 15:30:24.837941 31976 net.cpp:141] Setting up inception_4d/pool
I0403 15:30:24.837965 31976 net.cpp:148] Top shape: 24 512 14 14 (2408448)
I0403 15:30:24.837980 31976 net.cpp:156] Memory required for data: 1144900896
I0403 15:30:24.837995 31976 layer_factory.hpp:77] Creating layer inception_4d/pool_proj
I0403 15:30:24.838016 31976 net.cpp:91] Creating Layer inception_4d/pool_proj
I0403 15:30:24.838033 31976 net.cpp:425] inception_4d/pool_proj <- inception_4d/pool
I0403 15:30:24.838054 31976 net.cpp:399] inception_4d/pool_proj -> inception_4d/pool_proj
I0403 15:30:24.839818 31976 net.cpp:141] Setting up inception_4d/pool_proj
I0403 15:30:24.839845 31976 net.cpp:148] Top shape: 24 64 14 14 (301056)
I0403 15:30:24.839861 31976 net.cpp:156] Memory required for data: 1146105120
I0403 15:30:24.839879 31976 layer_factory.hpp:77] Creating layer inception_4d/relu_pool_proj
I0403 15:30:24.839900 31976 net.cpp:91] Creating Layer inception_4d/relu_pool_proj
I0403 15:30:24.839917 31976 net.cpp:425] inception_4d/relu_pool_proj <- inception_4d/pool_proj
I0403 15:30:24.839934 31976 net.cpp:386] inception_4d/relu_pool_proj -> inception_4d/pool_proj (in-place)
I0403 15:30:24.840113 31976 net.cpp:141] Setting up inception_4d/relu_pool_proj
I0403 15:30:24.840137 31976 net.cpp:148] Top shape: 24 64 14 14 (301056)
I0403 15:30:24.840152 31976 net.cpp:156] Memory required for data: 1147309344
I0403 15:30:24.840167 31976 layer_factory.hpp:77] Creating layer inception_4d/output
I0403 15:30:24.840188 31976 net.cpp:91] Creating Layer inception_4d/output
I0403 15:30:24.840204 31976 net.cpp:425] inception_4d/output <- inception_4d/1x1
I0403 15:30:24.840220 31976 net.cpp:425] inception_4d/output <- inception_4d/3x3
I0403 15:30:24.840248 31976 net.cpp:425] inception_4d/output <- inception_4d/5x5
I0403 15:30:24.840266 31976 net.cpp:425] inception_4d/output <- inception_4d/pool_proj
I0403 15:30:24.840288 31976 net.cpp:399] inception_4d/output -> inception_4d/output
I0403 15:30:24.840343 31976 net.cpp:141] Setting up inception_4d/output
I0403 15:30:24.840368 31976 net.cpp:148] Top shape: 24 528 14 14 (2483712)
I0403 15:30:24.840383 31976 net.cpp:156] Memory required for data: 1157244192
I0403 15:30:24.840399 31976 layer_factory.hpp:77] Creating layer inception_4d/output_inception_4d/output_0_split
I0403 15:30:24.840416 31976 net.cpp:91] Creating Layer inception_4d/output_inception_4d/output_0_split
I0403 15:30:24.840432 31976 net.cpp:425] inception_4d/output_inception_4d/output_0_split <- inception_4d/output
I0403 15:30:24.840452 31976 net.cpp:399] inception_4d/output_inception_4d/output_0_split -> inception_4d/output_inception_4d/output_0_split_0
I0403 15:30:24.840473 31976 net.cpp:399] inception_4d/output_inception_4d/output_0_split -> inception_4d/output_inception_4d/output_0_split_1
I0403 15:30:24.840495 31976 net.cpp:399] inception_4d/output_inception_4d/output_0_split -> inception_4d/output_inception_4d/output_0_split_2
I0403 15:30:24.840517 31976 net.cpp:399] inception_4d/output_inception_4d/output_0_split -> inception_4d/output_inception_4d/output_0_split_3
I0403 15:30:24.840543 31976 net.cpp:399] inception_4d/output_inception_4d/output_0_split -> inception_4d/output_inception_4d/output_0_split_4
I0403 15:30:24.840656 31976 net.cpp:141] Setting up inception_4d/output_inception_4d/output_0_split
I0403 15:30:24.840692 31976 net.cpp:148] Top shape: 24 528 14 14 (2483712)
I0403 15:30:24.840708 31976 net.cpp:148] Top shape: 24 528 14 14 (2483712)
I0403 15:30:24.840724 31976 net.cpp:148] Top shape: 24 528 14 14 (2483712)
I0403 15:30:24.840739 31976 net.cpp:148] Top shape: 24 528 14 14 (2483712)
I0403 15:30:24.840754 31976 net.cpp:148] Top shape: 24 528 14 14 (2483712)
I0403 15:30:24.840769 31976 net.cpp:156] Memory required for data: 1206918432
I0403 15:30:24.840783 31976 layer_factory.hpp:77] Creating layer loss2/ave_pool
I0403 15:30:24.840801 31976 net.cpp:91] Creating Layer loss2/ave_pool
I0403 15:30:24.840816 31976 net.cpp:425] loss2/ave_pool <- inception_4d/output_inception_4d/output_0_split_0
I0403 15:30:24.840837 31976 net.cpp:399] loss2/ave_pool -> loss2/ave_pool
I0403 15:30:24.841143 31976 net.cpp:141] Setting up loss2/ave_pool
I0403 15:30:24.841168 31976 net.cpp:148] Top shape: 24 528 4 4 (202752)
I0403 15:30:24.841183 31976 net.cpp:156] Memory required for data: 1207729440
I0403 15:30:24.841197 31976 layer_factory.hpp:77] Creating layer loss2/conv
I0403 15:30:24.841219 31976 net.cpp:91] Creating Layer loss2/conv
I0403 15:30:24.841236 31976 net.cpp:425] loss2/conv <- loss2/ave_pool
I0403 15:30:24.841258 31976 net.cpp:399] loss2/conv -> loss2/conv
I0403 15:30:24.843168 31976 net.cpp:141] Setting up loss2/conv
I0403 15:30:24.843195 31976 net.cpp:148] Top shape: 24 128 4 4 (49152)
I0403 15:30:24.843210 31976 net.cpp:156] Memory required for data: 1207926048
I0403 15:30:24.843231 31976 layer_factory.hpp:77] Creating layer loss2/relu_conv
I0403 15:30:24.843250 31976 net.cpp:91] Creating Layer loss2/relu_conv
I0403 15:30:24.843266 31976 net.cpp:425] loss2/relu_conv <- loss2/conv
I0403 15:30:24.843283 31976 net.cpp:386] loss2/relu_conv -> loss2/conv (in-place)
I0403 15:30:24.843578 31976 net.cpp:141] Setting up loss2/relu_conv
I0403 15:30:24.843619 31976 net.cpp:148] Top shape: 24 128 4 4 (49152)
I0403 15:30:24.843636 31976 net.cpp:156] Memory required for data: 1208122656
I0403 15:30:24.843652 31976 layer_factory.hpp:77] Creating layer loss2/fc
I0403 15:30:24.843672 31976 net.cpp:91] Creating Layer loss2/fc
I0403 15:30:24.843690 31976 net.cpp:425] loss2/fc <- loss2/conv
I0403 15:30:24.843713 31976 net.cpp:399] loss2/fc -> loss2/fc
I0403 15:30:24.861119 31976 net.cpp:141] Setting up loss2/fc
I0403 15:30:24.861151 31976 net.cpp:148] Top shape: 24 1024 (24576)
I0403 15:30:24.861166 31976 net.cpp:156] Memory required for data: 1208220960
I0403 15:30:24.861186 31976 layer_factory.hpp:77] Creating layer loss2/relu_fc
I0403 15:30:24.861205 31976 net.cpp:91] Creating Layer loss2/relu_fc
I0403 15:30:24.861222 31976 net.cpp:425] loss2/relu_fc <- loss2/fc
I0403 15:30:24.861239 31976 net.cpp:386] loss2/relu_fc -> loss2/fc (in-place)
I0403 15:30:24.861533 31976 net.cpp:141] Setting up loss2/relu_fc
I0403 15:30:24.861572 31976 net.cpp:148] Top shape: 24 1024 (24576)
I0403 15:30:24.861588 31976 net.cpp:156] Memory required for data: 1208319264
I0403 15:30:24.861603 31976 layer_factory.hpp:77] Creating layer loss2/drop_fc
I0403 15:30:24.861623 31976 net.cpp:91] Creating Layer loss2/drop_fc
I0403 15:30:24.861640 31976 net.cpp:425] loss2/drop_fc <- loss2/fc
I0403 15:30:24.861657 31976 net.cpp:386] loss2/drop_fc -> loss2/fc (in-place)
I0403 15:30:24.861708 31976 net.cpp:141] Setting up loss2/drop_fc
I0403 15:30:24.861732 31976 net.cpp:148] Top shape: 24 1024 (24576)
I0403 15:30:24.861745 31976 net.cpp:156] Memory required for data: 1208417568
I0403 15:30:24.861760 31976 layer_factory.hpp:77] Creating layer loss2/classifier_plantvillage
I0403 15:30:24.861778 31976 net.cpp:91] Creating Layer loss2/classifier_plantvillage
I0403 15:30:24.861794 31976 net.cpp:425] loss2/classifier_plantvillage <- loss2/fc
I0403 15:30:24.861816 31976 net.cpp:399] loss2/classifier_plantvillage -> loss2/classifier_plantvillage
I0403 15:30:24.862218 31976 net.cpp:141] Setting up loss2/classifier_plantvillage
I0403 15:30:24.862242 31976 net.cpp:148] Top shape: 24 38 (912)
I0403 15:30:24.862257 31976 net.cpp:156] Memory required for data: 1208421216
I0403 15:30:24.862290 31976 layer_factory.hpp:77] Creating layer loss2/classifier_plantvillage_loss2/classifier_plantvillage_0_split
I0403 15:30:24.862311 31976 net.cpp:91] Creating Layer loss2/classifier_plantvillage_loss2/classifier_plantvillage_0_split
I0403 15:30:24.862334 31976 net.cpp:425] loss2/classifier_plantvillage_loss2/classifier_plantvillage_0_split <- loss2/classifier_plantvillage
I0403 15:30:24.862354 31976 net.cpp:399] loss2/classifier_plantvillage_loss2/classifier_plantvillage_0_split -> loss2/classifier_plantvillage_loss2/classifier_plantvillage_0_split_0
I0403 15:30:24.862375 31976 net.cpp:399] loss2/classifier_plantvillage_loss2/classifier_plantvillage_0_split -> loss2/classifier_plantvillage_loss2/classifier_plantvillage_0_split_1
I0403 15:30:24.862393 31976 net.cpp:399] loss2/classifier_plantvillage_loss2/classifier_plantvillage_0_split -> loss2/classifier_plantvillage_loss2/classifier_plantvillage_0_split_2
I0403 15:30:24.862468 31976 net.cpp:141] Setting up loss2/classifier_plantvillage_loss2/classifier_plantvillage_0_split
I0403 15:30:24.862490 31976 net.cpp:148] Top shape: 24 38 (912)
I0403 15:30:24.862506 31976 net.cpp:148] Top shape: 24 38 (912)
I0403 15:30:24.862521 31976 net.cpp:148] Top shape: 24 38 (912)
I0403 15:30:24.862534 31976 net.cpp:156] Memory required for data: 1208432160
I0403 15:30:24.862550 31976 layer_factory.hpp:77] Creating layer inception_4e/1x1
I0403 15:30:24.862571 31976 net.cpp:91] Creating Layer inception_4e/1x1
I0403 15:30:24.862588 31976 net.cpp:425] inception_4e/1x1 <- inception_4d/output_inception_4d/output_0_split_1
I0403 15:30:24.862607 31976 net.cpp:399] inception_4e/1x1 -> inception_4e/1x1
I0403 15:30:24.864382 31976 net.cpp:141] Setting up inception_4e/1x1
I0403 15:30:24.864410 31976 net.cpp:148] Top shape: 24 256 14 14 (1204224)
I0403 15:30:24.864426 31976 net.cpp:156] Memory required for data: 1213249056
I0403 15:30:24.864444 31976 layer_factory.hpp:77] Creating layer inception_4e/relu_1x1
I0403 15:30:24.864462 31976 net.cpp:91] Creating Layer inception_4e/relu_1x1
I0403 15:30:24.864478 31976 net.cpp:425] inception_4e/relu_1x1 <- inception_4e/1x1
I0403 15:30:24.864496 31976 net.cpp:386] inception_4e/relu_1x1 -> inception_4e/1x1 (in-place)
I0403 15:30:24.864787 31976 net.cpp:141] Setting up inception_4e/relu_1x1
I0403 15:30:24.864815 31976 net.cpp:148] Top shape: 24 256 14 14 (1204224)
I0403 15:30:24.864830 31976 net.cpp:156] Memory required for data: 1218065952
I0403 15:30:24.864845 31976 layer_factory.hpp:77] Creating layer inception_4e/3x3_reduce
I0403 15:30:24.864867 31976 net.cpp:91] Creating Layer inception_4e/3x3_reduce
I0403 15:30:24.864884 31976 net.cpp:425] inception_4e/3x3_reduce <- inception_4d/output_inception_4d/output_0_split_2
I0403 15:30:24.864902 31976 net.cpp:399] inception_4e/3x3_reduce -> inception_4e/3x3_reduce
I0403 15:30:24.867034 31976 net.cpp:141] Setting up inception_4e/3x3_reduce
I0403 15:30:24.867063 31976 net.cpp:148] Top shape: 24 160 14 14 (752640)
I0403 15:30:24.867079 31976 net.cpp:156] Memory required for data: 1221076512
I0403 15:30:24.867096 31976 layer_factory.hpp:77] Creating layer inception_4e/relu_3x3_reduce
I0403 15:30:24.867117 31976 net.cpp:91] Creating Layer inception_4e/relu_3x3_reduce
I0403 15:30:24.867135 31976 net.cpp:425] inception_4e/relu_3x3_reduce <- inception_4e/3x3_reduce
I0403 15:30:24.867153 31976 net.cpp:386] inception_4e/relu_3x3_reduce -> inception_4e/3x3_reduce (in-place)
I0403 15:30:24.867343 31976 net.cpp:141] Setting up inception_4e/relu_3x3_reduce
I0403 15:30:24.867369 31976 net.cpp:148] Top shape: 24 160 14 14 (752640)
I0403 15:30:24.867383 31976 net.cpp:156] Memory required for data: 1224087072
I0403 15:30:24.867399 31976 layer_factory.hpp:77] Creating layer inception_4e/3x3
I0403 15:30:24.867420 31976 net.cpp:91] Creating Layer inception_4e/3x3
I0403 15:30:24.867439 31976 net.cpp:425] inception_4e/3x3 <- inception_4e/3x3_reduce
I0403 15:30:24.867460 31976 net.cpp:399] inception_4e/3x3 -> inception_4e/3x3
I0403 15:30:24.872509 31976 net.cpp:141] Setting up inception_4e/3x3
I0403 15:30:24.872551 31976 net.cpp:148] Top shape: 24 320 14 14 (1505280)
I0403 15:30:24.872570 31976 net.cpp:156] Memory required for data: 1230108192
I0403 15:30:24.872588 31976 layer_factory.hpp:77] Creating layer inception_4e/relu_3x3
I0403 15:30:24.872607 31976 net.cpp:91] Creating Layer inception_4e/relu_3x3
I0403 15:30:24.872624 31976 net.cpp:425] inception_4e/relu_3x3 <- inception_4e/3x3
I0403 15:30:24.872643 31976 net.cpp:386] inception_4e/relu_3x3 -> inception_4e/3x3 (in-place)
I0403 15:30:24.872944 31976 net.cpp:141] Setting up inception_4e/relu_3x3
I0403 15:30:24.872970 31976 net.cpp:148] Top shape: 24 320 14 14 (1505280)
I0403 15:30:24.872985 31976 net.cpp:156] Memory required for data: 1236129312
I0403 15:30:24.873000 31976 layer_factory.hpp:77] Creating layer inception_4e/5x5_reduce
I0403 15:30:24.873024 31976 net.cpp:91] Creating Layer inception_4e/5x5_reduce
I0403 15:30:24.873042 31976 net.cpp:425] inception_4e/5x5_reduce <- inception_4d/output_inception_4d/output_0_split_3
I0403 15:30:24.873064 31976 net.cpp:399] inception_4e/5x5_reduce -> inception_4e/5x5_reduce
I0403 15:30:24.874133 31976 net.cpp:141] Setting up inception_4e/5x5_reduce
I0403 15:30:24.874163 31976 net.cpp:148] Top shape: 24 32 14 14 (150528)
I0403 15:30:24.874179 31976 net.cpp:156] Memory required for data: 1236731424
I0403 15:30:24.874198 31976 layer_factory.hpp:77] Creating layer inception_4e/relu_5x5_reduce
I0403 15:30:24.874217 31976 net.cpp:91] Creating Layer inception_4e/relu_5x5_reduce
I0403 15:30:24.874233 31976 net.cpp:425] inception_4e/relu_5x5_reduce <- inception_4e/5x5_reduce
I0403 15:30:24.874250 31976 net.cpp:386] inception_4e/relu_5x5_reduce -> inception_4e/5x5_reduce (in-place)
I0403 15:30:24.874557 31976 net.cpp:141] Setting up inception_4e/relu_5x5_reduce
I0403 15:30:24.874586 31976 net.cpp:148] Top shape: 24 32 14 14 (150528)
I0403 15:30:24.874601 31976 net.cpp:156] Memory required for data: 1237333536
I0403 15:30:24.874616 31976 layer_factory.hpp:77] Creating layer inception_4e/5x5
I0403 15:30:24.874655 31976 net.cpp:91] Creating Layer inception_4e/5x5
I0403 15:30:24.874675 31976 net.cpp:425] inception_4e/5x5 <- inception_4e/5x5_reduce
I0403 15:30:24.874694 31976 net.cpp:399] inception_4e/5x5 -> inception_4e/5x5
I0403 15:30:24.876538 31976 net.cpp:141] Setting up inception_4e/5x5
I0403 15:30:24.876579 31976 net.cpp:148] Top shape: 24 128 14 14 (602112)
I0403 15:30:24.876595 31976 net.cpp:156] Memory required for data: 1239741984
I0403 15:30:24.876616 31976 layer_factory.hpp:77] Creating layer inception_4e/relu_5x5
I0403 15:30:24.876637 31976 net.cpp:91] Creating Layer inception_4e/relu_5x5
I0403 15:30:24.876655 31976 net.cpp:425] inception_4e/relu_5x5 <- inception_4e/5x5
I0403 15:30:24.876673 31976 net.cpp:386] inception_4e/relu_5x5 -> inception_4e/5x5 (in-place)
I0403 15:30:24.876888 31976 net.cpp:141] Setting up inception_4e/relu_5x5
I0403 15:30:24.876914 31976 net.cpp:148] Top shape: 24 128 14 14 (602112)
I0403 15:30:24.876929 31976 net.cpp:156] Memory required for data: 1242150432
I0403 15:30:24.876943 31976 layer_factory.hpp:77] Creating layer inception_4e/pool
I0403 15:30:24.876962 31976 net.cpp:91] Creating Layer inception_4e/pool
I0403 15:30:24.876978 31976 net.cpp:425] inception_4e/pool <- inception_4d/output_inception_4d/output_0_split_4
I0403 15:30:24.876998 31976 net.cpp:399] inception_4e/pool -> inception_4e/pool
I0403 15:30:24.877066 31976 net.cpp:141] Setting up inception_4e/pool
I0403 15:30:24.877090 31976 net.cpp:148] Top shape: 24 528 14 14 (2483712)
I0403 15:30:24.877104 31976 net.cpp:156] Memory required for data: 1252085280
I0403 15:30:24.877120 31976 layer_factory.hpp:77] Creating layer inception_4e/pool_proj
I0403 15:30:24.877141 31976 net.cpp:91] Creating Layer inception_4e/pool_proj
I0403 15:30:24.877158 31976 net.cpp:425] inception_4e/pool_proj <- inception_4e/pool
I0403 15:30:24.877180 31976 net.cpp:399] inception_4e/pool_proj -> inception_4e/pool_proj
I0403 15:30:24.878700 31976 net.cpp:141] Setting up inception_4e/pool_proj
I0403 15:30:24.878727 31976 net.cpp:148] Top shape: 24 128 14 14 (602112)
I0403 15:30:24.878757 31976 net.cpp:156] Memory required for data: 1254493728
I0403 15:30:24.878777 31976 layer_factory.hpp:77] Creating layer inception_4e/relu_pool_proj
I0403 15:30:24.878798 31976 net.cpp:91] Creating Layer inception_4e/relu_pool_proj
I0403 15:30:24.878814 31976 net.cpp:425] inception_4e/relu_pool_proj <- inception_4e/pool_proj
I0403 15:30:24.878832 31976 net.cpp:386] inception_4e/relu_pool_proj -> inception_4e/pool_proj (in-place)
I0403 15:30:24.879132 31976 net.cpp:141] Setting up inception_4e/relu_pool_proj
I0403 15:30:24.879158 31976 net.cpp:148] Top shape: 24 128 14 14 (602112)
I0403 15:30:24.879173 31976 net.cpp:156] Memory required for data: 1256902176
I0403 15:30:24.879189 31976 layer_factory.hpp:77] Creating layer inception_4e/output
I0403 15:30:24.879205 31976 net.cpp:91] Creating Layer inception_4e/output
I0403 15:30:24.879225 31976 net.cpp:425] inception_4e/output <- inception_4e/1x1
I0403 15:30:24.879241 31976 net.cpp:425] inception_4e/output <- inception_4e/3x3
I0403 15:30:24.879257 31976 net.cpp:425] inception_4e/output <- inception_4e/5x5
I0403 15:30:24.879273 31976 net.cpp:425] inception_4e/output <- inception_4e/pool_proj
I0403 15:30:24.879290 31976 net.cpp:399] inception_4e/output -> inception_4e/output
I0403 15:30:24.879343 31976 net.cpp:141] Setting up inception_4e/output
I0403 15:30:24.879369 31976 net.cpp:148] Top shape: 24 832 14 14 (3913728)
I0403 15:30:24.879384 31976 net.cpp:156] Memory required for data: 1272557088
I0403 15:30:24.879400 31976 layer_factory.hpp:77] Creating layer pool4/3x3_s2
I0403 15:30:24.879416 31976 net.cpp:91] Creating Layer pool4/3x3_s2
I0403 15:30:24.879432 31976 net.cpp:425] pool4/3x3_s2 <- inception_4e/output
I0403 15:30:24.879453 31976 net.cpp:399] pool4/3x3_s2 -> pool4/3x3_s2
I0403 15:30:24.879524 31976 net.cpp:141] Setting up pool4/3x3_s2
I0403 15:30:24.879550 31976 net.cpp:148] Top shape: 24 832 7 7 (978432)
I0403 15:30:24.879566 31976 net.cpp:156] Memory required for data: 1276470816
I0403 15:30:24.879581 31976 layer_factory.hpp:77] Creating layer pool4/3x3_s2_pool4/3x3_s2_0_split
I0403 15:30:24.879598 31976 net.cpp:91] Creating Layer pool4/3x3_s2_pool4/3x3_s2_0_split
I0403 15:30:24.879614 31976 net.cpp:425] pool4/3x3_s2_pool4/3x3_s2_0_split <- pool4/3x3_s2
I0403 15:30:24.879631 31976 net.cpp:399] pool4/3x3_s2_pool4/3x3_s2_0_split -> pool4/3x3_s2_pool4/3x3_s2_0_split_0
I0403 15:30:24.879652 31976 net.cpp:399] pool4/3x3_s2_pool4/3x3_s2_0_split -> pool4/3x3_s2_pool4/3x3_s2_0_split_1
I0403 15:30:24.879673 31976 net.cpp:399] pool4/3x3_s2_pool4/3x3_s2_0_split -> pool4/3x3_s2_pool4/3x3_s2_0_split_2
I0403 15:30:24.879694 31976 net.cpp:399] pool4/3x3_s2_pool4/3x3_s2_0_split -> pool4/3x3_s2_pool4/3x3_s2_0_split_3
I0403 15:30:24.879786 31976 net.cpp:141] Setting up pool4/3x3_s2_pool4/3x3_s2_0_split
I0403 15:30:24.879808 31976 net.cpp:148] Top shape: 24 832 7 7 (978432)
I0403 15:30:24.879824 31976 net.cpp:148] Top shape: 24 832 7 7 (978432)
I0403 15:30:24.879840 31976 net.cpp:148] Top shape: 24 832 7 7 (978432)
I0403 15:30:24.879855 31976 net.cpp:148] Top shape: 24 832 7 7 (978432)
I0403 15:30:24.879870 31976 net.cpp:156] Memory required for data: 1292125728
I0403 15:30:24.879884 31976 layer_factory.hpp:77] Creating layer inception_5a/1x1
I0403 15:30:24.879906 31976 net.cpp:91] Creating Layer inception_5a/1x1
I0403 15:30:24.879925 31976 net.cpp:425] inception_5a/1x1 <- pool4/3x3_s2_pool4/3x3_s2_0_split_0
I0403 15:30:24.879945 31976 net.cpp:399] inception_5a/1x1 -> inception_5a/1x1
I0403 15:30:24.882849 31976 net.cpp:141] Setting up inception_5a/1x1
I0403 15:30:24.882877 31976 net.cpp:148] Top shape: 24 256 7 7 (301056)
I0403 15:30:24.882894 31976 net.cpp:156] Memory required for data: 1293329952
I0403 15:30:24.882911 31976 layer_factory.hpp:77] Creating layer inception_5a/relu_1x1
I0403 15:30:24.882932 31976 net.cpp:91] Creating Layer inception_5a/relu_1x1
I0403 15:30:24.882951 31976 net.cpp:425] inception_5a/relu_1x1 <- inception_5a/1x1
I0403 15:30:24.882967 31976 net.cpp:386] inception_5a/relu_1x1 -> inception_5a/1x1 (in-place)
I0403 15:30:24.883282 31976 net.cpp:141] Setting up inception_5a/relu_1x1
I0403 15:30:24.883308 31976 net.cpp:148] Top shape: 24 256 7 7 (301056)
I0403 15:30:24.883327 31976 net.cpp:156] Memory required for data: 1294534176
I0403 15:30:24.883343 31976 layer_factory.hpp:77] Creating layer inception_5a/3x3_reduce
I0403 15:30:24.883366 31976 net.cpp:91] Creating Layer inception_5a/3x3_reduce
I0403 15:30:24.883385 31976 net.cpp:425] inception_5a/3x3_reduce <- pool4/3x3_s2_pool4/3x3_s2_0_split_1
I0403 15:30:24.883405 31976 net.cpp:399] inception_5a/3x3_reduce -> inception_5a/3x3_reduce
I0403 15:30:24.885887 31976 net.cpp:141] Setting up inception_5a/3x3_reduce
I0403 15:30:24.885916 31976 net.cpp:148] Top shape: 24 160 7 7 (188160)
I0403 15:30:24.885931 31976 net.cpp:156] Memory required for data: 1295286816
I0403 15:30:24.885951 31976 layer_factory.hpp:77] Creating layer inception_5a/relu_3x3_reduce
I0403 15:30:24.885972 31976 net.cpp:91] Creating Layer inception_5a/relu_3x3_reduce
I0403 15:30:24.885989 31976 net.cpp:425] inception_5a/relu_3x3_reduce <- inception_5a/3x3_reduce
I0403 15:30:24.886006 31976 net.cpp:386] inception_5a/relu_3x3_reduce -> inception_5a/3x3_reduce (in-place)
I0403 15:30:24.886195 31976 net.cpp:141] Setting up inception_5a/relu_3x3_reduce
I0403 15:30:24.886220 31976 net.cpp:148] Top shape: 24 160 7 7 (188160)
I0403 15:30:24.886234 31976 net.cpp:156] Memory required for data: 1296039456
I0403 15:30:24.886250 31976 layer_factory.hpp:77] Creating layer inception_5a/3x3
I0403 15:30:24.886271 31976 net.cpp:91] Creating Layer inception_5a/3x3
I0403 15:30:24.886288 31976 net.cpp:425] inception_5a/3x3 <- inception_5a/3x3_reduce
I0403 15:30:24.886310 31976 net.cpp:399] inception_5a/3x3 -> inception_5a/3x3
I0403 15:30:24.891427 31976 net.cpp:141] Setting up inception_5a/3x3
I0403 15:30:24.891455 31976 net.cpp:148] Top shape: 24 320 7 7 (376320)
I0403 15:30:24.891470 31976 net.cpp:156] Memory required for data: 1297544736
I0403 15:30:24.891489 31976 layer_factory.hpp:77] Creating layer inception_5a/relu_3x3
I0403 15:30:24.891510 31976 net.cpp:91] Creating Layer inception_5a/relu_3x3
I0403 15:30:24.891527 31976 net.cpp:425] inception_5a/relu_3x3 <- inception_5a/3x3
I0403 15:30:24.891546 31976 net.cpp:386] inception_5a/relu_3x3 -> inception_5a/3x3 (in-place)
I0403 15:30:24.891841 31976 net.cpp:141] Setting up inception_5a/relu_3x3
I0403 15:30:24.891866 31976 net.cpp:148] Top shape: 24 320 7 7 (376320)
I0403 15:30:24.891883 31976 net.cpp:156] Memory required for data: 1299050016
I0403 15:30:24.891899 31976 layer_factory.hpp:77] Creating layer inception_5a/5x5_reduce
I0403 15:30:24.891921 31976 net.cpp:91] Creating Layer inception_5a/5x5_reduce
I0403 15:30:24.891939 31976 net.cpp:425] inception_5a/5x5_reduce <- pool4/3x3_s2_pool4/3x3_s2_0_split_2
I0403 15:30:24.891962 31976 net.cpp:399] inception_5a/5x5_reduce -> inception_5a/5x5_reduce
I0403 15:30:24.893141 31976 net.cpp:141] Setting up inception_5a/5x5_reduce
I0403 15:30:24.893168 31976 net.cpp:148] Top shape: 24 32 7 7 (37632)
I0403 15:30:24.893183 31976 net.cpp:156] Memory required for data: 1299200544
I0403 15:30:24.893203 31976 layer_factory.hpp:77] Creating layer inception_5a/relu_5x5_reduce
I0403 15:30:24.893224 31976 net.cpp:91] Creating Layer inception_5a/relu_5x5_reduce
I0403 15:30:24.893241 31976 net.cpp:425] inception_5a/relu_5x5_reduce <- inception_5a/5x5_reduce
I0403 15:30:24.893259 31976 net.cpp:386] inception_5a/relu_5x5_reduce -> inception_5a/5x5_reduce (in-place)
I0403 15:30:24.893582 31976 net.cpp:141] Setting up inception_5a/relu_5x5_reduce
I0403 15:30:24.893615 31976 net.cpp:148] Top shape: 24 32 7 7 (37632)
I0403 15:30:24.893632 31976 net.cpp:156] Memory required for data: 1299351072
I0403 15:30:24.893648 31976 layer_factory.hpp:77] Creating layer inception_5a/5x5
I0403 15:30:24.893672 31976 net.cpp:91] Creating Layer inception_5a/5x5
I0403 15:30:24.893690 31976 net.cpp:425] inception_5a/5x5 <- inception_5a/5x5_reduce
I0403 15:30:24.893710 31976 net.cpp:399] inception_5a/5x5 -> inception_5a/5x5
I0403 15:30:24.895469 31976 net.cpp:141] Setting up inception_5a/5x5
I0403 15:30:24.895510 31976 net.cpp:148] Top shape: 24 128 7 7 (150528)
I0403 15:30:24.895527 31976 net.cpp:156] Memory required for data: 1299953184
I0403 15:30:24.895546 31976 layer_factory.hpp:77] Creating layer inception_5a/relu_5x5
I0403 15:30:24.895567 31976 net.cpp:91] Creating Layer inception_5a/relu_5x5
I0403 15:30:24.895584 31976 net.cpp:425] inception_5a/relu_5x5 <- inception_5a/5x5
I0403 15:30:24.895601 31976 net.cpp:386] inception_5a/relu_5x5 -> inception_5a/5x5 (in-place)
I0403 15:30:24.895793 31976 net.cpp:141] Setting up inception_5a/relu_5x5
I0403 15:30:24.895820 31976 net.cpp:148] Top shape: 24 128 7 7 (150528)
I0403 15:30:24.895835 31976 net.cpp:156] Memory required for data: 1300555296
I0403 15:30:24.895851 31976 layer_factory.hpp:77] Creating layer inception_5a/pool
I0403 15:30:24.895869 31976 net.cpp:91] Creating Layer inception_5a/pool
I0403 15:30:24.895885 31976 net.cpp:425] inception_5a/pool <- pool4/3x3_s2_pool4/3x3_s2_0_split_3
I0403 15:30:24.895905 31976 net.cpp:399] inception_5a/pool -> inception_5a/pool
I0403 15:30:24.895977 31976 net.cpp:141] Setting up inception_5a/pool
I0403 15:30:24.896000 31976 net.cpp:148] Top shape: 24 832 7 7 (978432)
I0403 15:30:24.896015 31976 net.cpp:156] Memory required for data: 1304469024
I0403 15:30:24.896029 31976 layer_factory.hpp:77] Creating layer inception_5a/pool_proj
I0403 15:30:24.896052 31976 net.cpp:91] Creating Layer inception_5a/pool_proj
I0403 15:30:24.896070 31976 net.cpp:425] inception_5a/pool_proj <- inception_5a/pool
I0403 15:30:24.896090 31976 net.cpp:399] inception_5a/pool_proj -> inception_5a/pool_proj
I0403 15:30:24.898406 31976 net.cpp:141] Setting up inception_5a/pool_proj
I0403 15:30:24.898437 31976 net.cpp:148] Top shape: 24 128 7 7 (150528)
I0403 15:30:24.898452 31976 net.cpp:156] Memory required for data: 1305071136
I0403 15:30:24.898471 31976 layer_factory.hpp:77] Creating layer inception_5a/relu_pool_proj
I0403 15:30:24.898493 31976 net.cpp:91] Creating Layer inception_5a/relu_pool_proj
I0403 15:30:24.898509 31976 net.cpp:425] inception_5a/relu_pool_proj <- inception_5a/pool_proj
I0403 15:30:24.898526 31976 net.cpp:386] inception_5a/relu_pool_proj -> inception_5a/pool_proj (in-place)
I0403 15:30:24.898825 31976 net.cpp:141] Setting up inception_5a/relu_pool_proj
I0403 15:30:24.898851 31976 net.cpp:148] Top shape: 24 128 7 7 (150528)
I0403 15:30:24.898866 31976 net.cpp:156] Memory required for data: 1305673248
I0403 15:30:24.898881 31976 layer_factory.hpp:77] Creating layer inception_5a/output
I0403 15:30:24.898900 31976 net.cpp:91] Creating Layer inception_5a/output
I0403 15:30:24.898916 31976 net.cpp:425] inception_5a/output <- inception_5a/1x1
I0403 15:30:24.898931 31976 net.cpp:425] inception_5a/output <- inception_5a/3x3
I0403 15:30:24.898948 31976 net.cpp:425] inception_5a/output <- inception_5a/5x5
I0403 15:30:24.898965 31976 net.cpp:425] inception_5a/output <- inception_5a/pool_proj
I0403 15:30:24.898985 31976 net.cpp:399] inception_5a/output -> inception_5a/output
I0403 15:30:24.899039 31976 net.cpp:141] Setting up inception_5a/output
I0403 15:30:24.899062 31976 net.cpp:148] Top shape: 24 832 7 7 (978432)
I0403 15:30:24.899077 31976 net.cpp:156] Memory required for data: 1309586976
I0403 15:30:24.899091 31976 layer_factory.hpp:77] Creating layer inception_5a/output_inception_5a/output_0_split
I0403 15:30:24.899109 31976 net.cpp:91] Creating Layer inception_5a/output_inception_5a/output_0_split
I0403 15:30:24.899126 31976 net.cpp:425] inception_5a/output_inception_5a/output_0_split <- inception_5a/output
I0403 15:30:24.899145 31976 net.cpp:399] inception_5a/output_inception_5a/output_0_split -> inception_5a/output_inception_5a/output_0_split_0
I0403 15:30:24.899166 31976 net.cpp:399] inception_5a/output_inception_5a/output_0_split -> inception_5a/output_inception_5a/output_0_split_1
I0403 15:30:24.899186 31976 net.cpp:399] inception_5a/output_inception_5a/output_0_split -> inception_5a/output_inception_5a/output_0_split_2
I0403 15:30:24.899206 31976 net.cpp:399] inception_5a/output_inception_5a/output_0_split -> inception_5a/output_inception_5a/output_0_split_3
I0403 15:30:24.899325 31976 net.cpp:141] Setting up inception_5a/output_inception_5a/output_0_split
I0403 15:30:24.899349 31976 net.cpp:148] Top shape: 24 832 7 7 (978432)
I0403 15:30:24.899366 31976 net.cpp:148] Top shape: 24 832 7 7 (978432)
I0403 15:30:24.899382 31976 net.cpp:148] Top shape: 24 832 7 7 (978432)
I0403 15:30:24.899399 31976 net.cpp:148] Top shape: 24 832 7 7 (978432)
I0403 15:30:24.899412 31976 net.cpp:156] Memory required for data: 1325241888
I0403 15:30:24.899426 31976 layer_factory.hpp:77] Creating layer inception_5b/1x1
I0403 15:30:24.899451 31976 net.cpp:91] Creating Layer inception_5b/1x1
I0403 15:30:24.899471 31976 net.cpp:425] inception_5b/1x1 <- inception_5a/output_inception_5a/output_0_split_0
I0403 15:30:24.899489 31976 net.cpp:399] inception_5b/1x1 -> inception_5b/1x1
I0403 15:30:24.903282 31976 net.cpp:141] Setting up inception_5b/1x1
I0403 15:30:24.903323 31976 net.cpp:148] Top shape: 24 384 7 7 (451584)
I0403 15:30:24.903352 31976 net.cpp:156] Memory required for data: 1327048224
I0403 15:30:24.903372 31976 layer_factory.hpp:77] Creating layer inception_5b/relu_1x1
I0403 15:30:24.903394 31976 net.cpp:91] Creating Layer inception_5b/relu_1x1
I0403 15:30:24.903414 31976 net.cpp:425] inception_5b/relu_1x1 <- inception_5b/1x1
I0403 15:30:24.903431 31976 net.cpp:386] inception_5b/relu_1x1 -> inception_5b/1x1 (in-place)
I0403 15:30:24.903753 31976 net.cpp:141] Setting up inception_5b/relu_1x1
I0403 15:30:24.903779 31976 net.cpp:148] Top shape: 24 384 7 7 (451584)
I0403 15:30:24.903795 31976 net.cpp:156] Memory required for data: 1328854560
I0403 15:30:24.903810 31976 layer_factory.hpp:77] Creating layer inception_5b/3x3_reduce
I0403 15:30:24.903832 31976 net.cpp:91] Creating Layer inception_5b/3x3_reduce
I0403 15:30:24.903851 31976 net.cpp:425] inception_5b/3x3_reduce <- inception_5a/output_inception_5a/output_0_split_1
I0403 15:30:24.903877 31976 net.cpp:399] inception_5b/3x3_reduce -> inception_5b/3x3_reduce
I0403 15:30:24.906560 31976 net.cpp:141] Setting up inception_5b/3x3_reduce
I0403 15:30:24.906590 31976 net.cpp:148] Top shape: 24 192 7 7 (225792)
I0403 15:30:24.906606 31976 net.cpp:156] Memory required for data: 1329757728
I0403 15:30:24.906625 31976 layer_factory.hpp:77] Creating layer inception_5b/relu_3x3_reduce
I0403 15:30:24.906646 31976 net.cpp:91] Creating Layer inception_5b/relu_3x3_reduce
I0403 15:30:24.906664 31976 net.cpp:425] inception_5b/relu_3x3_reduce <- inception_5b/3x3_reduce
I0403 15:30:24.906682 31976 net.cpp:386] inception_5b/relu_3x3_reduce -> inception_5b/3x3_reduce (in-place)
I0403 15:30:24.906873 31976 net.cpp:141] Setting up inception_5b/relu_3x3_reduce
I0403 15:30:24.906898 31976 net.cpp:148] Top shape: 24 192 7 7 (225792)
I0403 15:30:24.906915 31976 net.cpp:156] Memory required for data: 1330660896
I0403 15:30:24.906930 31976 layer_factory.hpp:77] Creating layer inception_5b/3x3
I0403 15:30:24.906950 31976 net.cpp:91] Creating Layer inception_5b/3x3
I0403 15:30:24.906968 31976 net.cpp:425] inception_5b/3x3 <- inception_5b/3x3_reduce
I0403 15:30:24.906991 31976 net.cpp:399] inception_5b/3x3 -> inception_5b/3x3
I0403 15:30:24.913640 31976 net.cpp:141] Setting up inception_5b/3x3
I0403 15:30:24.913668 31976 net.cpp:148] Top shape: 24 384 7 7 (451584)
I0403 15:30:24.913684 31976 net.cpp:156] Memory required for data: 1332467232
I0403 15:30:24.913702 31976 layer_factory.hpp:77] Creating layer inception_5b/relu_3x3
I0403 15:30:24.913722 31976 net.cpp:91] Creating Layer inception_5b/relu_3x3
I0403 15:30:24.913738 31976 net.cpp:425] inception_5b/relu_3x3 <- inception_5b/3x3
I0403 15:30:24.913755 31976 net.cpp:386] inception_5b/relu_3x3 -> inception_5b/3x3 (in-place)
I0403 15:30:24.914052 31976 net.cpp:141] Setting up inception_5b/relu_3x3
I0403 15:30:24.914077 31976 net.cpp:148] Top shape: 24 384 7 7 (451584)
I0403 15:30:24.914091 31976 net.cpp:156] Memory required for data: 1334273568
I0403 15:30:24.914106 31976 layer_factory.hpp:77] Creating layer inception_5b/5x5_reduce
I0403 15:30:24.914145 31976 net.cpp:91] Creating Layer inception_5b/5x5_reduce
I0403 15:30:24.914163 31976 net.cpp:425] inception_5b/5x5_reduce <- inception_5a/output_inception_5a/output_0_split_2
I0403 15:30:24.914186 31976 net.cpp:399] inception_5b/5x5_reduce -> inception_5b/5x5_reduce
I0403 15:30:24.915477 31976 net.cpp:141] Setting up inception_5b/5x5_reduce
I0403 15:30:24.915503 31976 net.cpp:148] Top shape: 24 48 7 7 (56448)
I0403 15:30:24.915518 31976 net.cpp:156] Memory required for data: 1334499360
I0403 15:30:24.915536 31976 layer_factory.hpp:77] Creating layer inception_5b/relu_5x5_reduce
I0403 15:30:24.915556 31976 net.cpp:91] Creating Layer inception_5b/relu_5x5_reduce
I0403 15:30:24.915575 31976 net.cpp:425] inception_5b/relu_5x5_reduce <- inception_5b/5x5_reduce
I0403 15:30:24.915592 31976 net.cpp:386] inception_5b/relu_5x5_reduce -> inception_5b/5x5_reduce (in-place)
I0403 15:30:24.915959 31976 net.cpp:141] Setting up inception_5b/relu_5x5_reduce
I0403 15:30:24.915984 31976 net.cpp:148] Top shape: 24 48 7 7 (56448)
I0403 15:30:24.915999 31976 net.cpp:156] Memory required for data: 1334725152
I0403 15:30:24.916014 31976 layer_factory.hpp:77] Creating layer inception_5b/5x5
I0403 15:30:24.916033 31976 net.cpp:91] Creating Layer inception_5b/5x5
I0403 15:30:24.916050 31976 net.cpp:425] inception_5b/5x5 <- inception_5b/5x5_reduce
I0403 15:30:24.916069 31976 net.cpp:399] inception_5b/5x5 -> inception_5b/5x5
I0403 15:30:24.918139 31976 net.cpp:141] Setting up inception_5b/5x5
I0403 15:30:24.918166 31976 net.cpp:148] Top shape: 24 128 7 7 (150528)
I0403 15:30:24.918182 31976 net.cpp:156] Memory required for data: 1335327264
I0403 15:30:24.918200 31976 layer_factory.hpp:77] Creating layer inception_5b/relu_5x5
I0403 15:30:24.918221 31976 net.cpp:91] Creating Layer inception_5b/relu_5x5
I0403 15:30:24.918238 31976 net.cpp:425] inception_5b/relu_5x5 <- inception_5b/5x5
I0403 15:30:24.918256 31976 net.cpp:386] inception_5b/relu_5x5 -> inception_5b/5x5 (in-place)
I0403 15:30:24.918455 31976 net.cpp:141] Setting up inception_5b/relu_5x5
I0403 15:30:24.918483 31976 net.cpp:148] Top shape: 24 128 7 7 (150528)
I0403 15:30:24.918498 31976 net.cpp:156] Memory required for data: 1335929376
I0403 15:30:24.918512 31976 layer_factory.hpp:77] Creating layer inception_5b/pool
I0403 15:30:24.918530 31976 net.cpp:91] Creating Layer inception_5b/pool
I0403 15:30:24.918560 31976 net.cpp:425] inception_5b/pool <- inception_5a/output_inception_5a/output_0_split_3
I0403 15:30:24.918582 31976 net.cpp:399] inception_5b/pool -> inception_5b/pool
I0403 15:30:24.918658 31976 net.cpp:141] Setting up inception_5b/pool
I0403 15:30:24.918683 31976 net.cpp:148] Top shape: 24 832 7 7 (978432)
I0403 15:30:24.918697 31976 net.cpp:156] Memory required for data: 1339843104
I0403 15:30:24.918712 31976 layer_factory.hpp:77] Creating layer inception_5b/pool_proj
I0403 15:30:24.918737 31976 net.cpp:91] Creating Layer inception_5b/pool_proj
I0403 15:30:24.918756 31976 net.cpp:425] inception_5b/pool_proj <- inception_5b/pool
I0403 15:30:24.918774 31976 net.cpp:399] inception_5b/pool_proj -> inception_5b/pool_proj
I0403 15:30:24.921111 31976 net.cpp:141] Setting up inception_5b/pool_proj
I0403 15:30:24.921139 31976 net.cpp:148] Top shape: 24 128 7 7 (150528)
I0403 15:30:24.921155 31976 net.cpp:156] Memory required for data: 1340445216
I0403 15:30:24.921174 31976 layer_factory.hpp:77] Creating layer inception_5b/relu_pool_proj
I0403 15:30:24.921195 31976 net.cpp:91] Creating Layer inception_5b/relu_pool_proj
I0403 15:30:24.921211 31976 net.cpp:425] inception_5b/relu_pool_proj <- inception_5b/pool_proj
I0403 15:30:24.921228 31976 net.cpp:386] inception_5b/relu_pool_proj -> inception_5b/pool_proj (in-place)
I0403 15:30:24.921528 31976 net.cpp:141] Setting up inception_5b/relu_pool_proj
I0403 15:30:24.921555 31976 net.cpp:148] Top shape: 24 128 7 7 (150528)
I0403 15:30:24.921571 31976 net.cpp:156] Memory required for data: 1341047328
I0403 15:30:24.921584 31976 layer_factory.hpp:77] Creating layer inception_5b/output
I0403 15:30:24.921604 31976 net.cpp:91] Creating Layer inception_5b/output
I0403 15:30:24.921634 31976 net.cpp:425] inception_5b/output <- inception_5b/1x1
I0403 15:30:24.921653 31976 net.cpp:425] inception_5b/output <- inception_5b/3x3
I0403 15:30:24.921669 31976 net.cpp:425] inception_5b/output <- inception_5b/5x5
I0403 15:30:24.921685 31976 net.cpp:425] inception_5b/output <- inception_5b/pool_proj
I0403 15:30:24.921702 31976 net.cpp:399] inception_5b/output -> inception_5b/output
I0403 15:30:24.921754 31976 net.cpp:141] Setting up inception_5b/output
I0403 15:30:24.921777 31976 net.cpp:148] Top shape: 24 1024 7 7 (1204224)
I0403 15:30:24.921792 31976 net.cpp:156] Memory required for data: 1345864224
I0403 15:30:24.921805 31976 layer_factory.hpp:77] Creating layer pool5/7x7_s1
I0403 15:30:24.921823 31976 net.cpp:91] Creating Layer pool5/7x7_s1
I0403 15:30:24.921839 31976 net.cpp:425] pool5/7x7_s1 <- inception_5b/output
I0403 15:30:24.921859 31976 net.cpp:399] pool5/7x7_s1 -> pool5/7x7_s1
I0403 15:30:24.922070 31976 net.cpp:141] Setting up pool5/7x7_s1
I0403 15:30:24.922094 31976 net.cpp:148] Top shape: 24 1024 1 1 (24576)
I0403 15:30:24.922108 31976 net.cpp:156] Memory required for data: 1345962528
I0403 15:30:24.922123 31976 layer_factory.hpp:77] Creating layer pool5/drop_7x7_s1
I0403 15:30:24.922143 31976 net.cpp:91] Creating Layer pool5/drop_7x7_s1
I0403 15:30:24.922160 31976 net.cpp:425] pool5/drop_7x7_s1 <- pool5/7x7_s1
I0403 15:30:24.922178 31976 net.cpp:386] pool5/drop_7x7_s1 -> pool5/7x7_s1 (in-place)
I0403 15:30:24.922227 31976 net.cpp:141] Setting up pool5/drop_7x7_s1
I0403 15:30:24.922250 31976 net.cpp:148] Top shape: 24 1024 1 1 (24576)
I0403 15:30:24.922265 31976 net.cpp:156] Memory required for data: 1346060832
I0403 15:30:24.922278 31976 layer_factory.hpp:77] Creating layer loss3/classifier_plantvillage
I0403 15:30:24.922299 31976 net.cpp:91] Creating Layer loss3/classifier_plantvillage
I0403 15:30:24.922319 31976 net.cpp:425] loss3/classifier_plantvillage <- pool5/7x7_s1
I0403 15:30:24.922339 31976 net.cpp:399] loss3/classifier_plantvillage -> loss3/classifier_plantvillage
I0403 15:30:24.922755 31976 net.cpp:141] Setting up loss3/classifier_plantvillage
I0403 15:30:24.922780 31976 net.cpp:148] Top shape: 24 38 (912)
I0403 15:30:24.922793 31976 net.cpp:156] Memory required for data: 1346064480
I0403 15:30:24.922811 31976 layer_factory.hpp:77] Creating layer loss3/classifier_plantvillage_loss3/classifier_plantvillage_0_split
I0403 15:30:24.922828 31976 net.cpp:91] Creating Layer loss3/classifier_plantvillage_loss3/classifier_plantvillage_0_split
I0403 15:30:24.922844 31976 net.cpp:425] loss3/classifier_plantvillage_loss3/classifier_plantvillage_0_split <- loss3/classifier_plantvillage
I0403 15:30:24.922864 31976 net.cpp:399] loss3/classifier_plantvillage_loss3/classifier_plantvillage_0_split -> loss3/classifier_plantvillage_loss3/classifier_plantvillage_0_split_0
I0403 15:30:24.922884 31976 net.cpp:399] loss3/classifier_plantvillage_loss3/classifier_plantvillage_0_split -> loss3/classifier_plantvillage_loss3/classifier_plantvillage_0_split_1
I0403 15:30:24.922904 31976 net.cpp:399] loss3/classifier_plantvillage_loss3/classifier_plantvillage_0_split -> loss3/classifier_plantvillage_loss3/classifier_plantvillage_0_split_2
I0403 15:30:24.922924 31976 net.cpp:399] loss3/classifier_plantvillage_loss3/classifier_plantvillage_0_split -> loss3/classifier_plantvillage_loss3/classifier_plantvillage_0_split_3
I0403 15:30:24.923023 31976 net.cpp:141] Setting up loss3/classifier_plantvillage_loss3/classifier_plantvillage_0_split
I0403 15:30:24.923048 31976 net.cpp:148] Top shape: 24 38 (912)
I0403 15:30:24.923064 31976 net.cpp:148] Top shape: 24 38 (912)
I0403 15:30:24.923080 31976 net.cpp:148] Top shape: 24 38 (912)
I0403 15:30:24.923095 31976 net.cpp:148] Top shape: 24 38 (912)
I0403 15:30:24.923108 31976 net.cpp:156] Memory required for data: 1346079072
I0403 15:30:24.923123 31976 layer_factory.hpp:77] Creating layer loss1/loss
I0403 15:30:24.923144 31976 net.cpp:91] Creating Layer loss1/loss
I0403 15:30:24.923161 31976 net.cpp:425] loss1/loss <- loss1/classifier_plantvillage_loss1/classifier_plantvillage_0_split_0
I0403 15:30:24.923192 31976 net.cpp:425] loss1/loss <- label_data_1_split_0
…
