…
I0403 14:38:12.496642 30049 net.cpp:313] The NetState phase (1) differed from the phase (0) specified by a rule in layer data
I0403 14:38:12.497934 30049 net.cpp:49] Initializing net from parameters: 
state {
  phase: TEST
}
layer {
  name: "data"
  type: "Data"
  top: "data"
  top: "label"
  include {
    phase: TEST
  }
  transform_param {
    mirror: false
    crop_size: 224
    mean_file: "/home/mohanty/data/final_dataset/lmdb/color-20-80/mean.binaryproto"
  }
  data_param {
    source: "/home/mohanty/data/final_dataset/lmdb/color-20-80/test_db"
    batch_size: 24
    backend: LMDB
  }
}
layer {
  name: "conv1/7x7_s2"
  type: "Convolution"
  bottom: "data"
  top: "conv1/7x7_s2"
  param {
    lr_mult: 1
    decay_mult: 1
  }
  param {
    lr_mult: 2
    decay_mult: 0
  }
  convolution_param {
    num_output: 64
    pad: 3
    kernel_size: 7
    stride: 2
    weight_filler {
      type: "xavier"
      std: 0.1
    }
    bias_filler {
      type: "constant"
      value: 0.2
    }
  }
}
layer {
  name: "conv1/relu_7x7"
  type: "ReLU"
  bottom: "conv1/7x7_s2"
  top: "conv1/7x7_s2"
}
layer {
  name: "pool1/3x3_s2"
  type: "Pooling"
  bottom: "conv1/7x7_s2"
  top: "pool1/3x3_s2"
  pooling_param {
    pool: MAX
    kernel_size: 3
    stride: 2
  }
}
layer {
  name: "pool1/norm1"
  type: "LRN"
  bottom: "pool1/3x3_s2"
  top: "pool1/norm1"
  lrn_param {
    local_size: 5
    alpha: 0.0001
    beta: 0.75
  }
}
layer {
  name: "conv2/3x3_reduce"
  type: "Convolution"
  bottom: "pool1/norm1"
  top: "conv2/3x3_reduce"
  param {
    lr_mult: 1
    decay_mult: 1
  }
  param {
    lr_mult: 2
    decay_mult: 0
  }
  convolution_param {
    num_output: 64
    kernel_size: 1
    weight_filler {
      type: "xavier"
      std: 0.1
    }
    bias_filler {
      type: "constant"
      value: 0.2
    }
  }
}
layer {
  name: "conv2/relu_3x3_reduce"
  type: "ReLU"
  bottom: "conv2/3x3_reduce"
  top: "conv2/3x3_reduce"
}
layer {
  name: "conv2/3x3"
  type: "Convolution"
  bottom: "conv2/3x3_reduce"
  top: "conv2/3x3"
  param {
    lr_mult: 1
    decay_mult: 1
  }
  param {
    lr_mult: 2
    decay_mult: 0
  }
  convolution_param {
    num_output: 192
    pad: 1
    kernel_size: 3
    weight_filler {
      type: "xavier"
      std: 0.03
    }
    bias_filler {
      type: "constant"
      value: 0.2
    }
  }
}
layer {
  name: "conv2/relu_3x3"
  type: "ReLU"
  bottom: "conv2/3x3"
  top: "conv2/3x3"
}
layer {
  name: "conv2/norm2"
  type: "LRN"
  bottom: "conv2/3x3"
  top: "conv2/norm2"
  lrn_param {
    local_size: 5
    alpha: 0.0001
    beta: 0.75
  }
}
layer {
  name: "pool2/3x3_s2"
  type: "Pooling"
  bottom: "conv2/norm2"
  top: "pool2/3x3_s2"
  pooling_param {
    pool: MAX
    kernel_size: 3
    stride: 2
  }
}
layer {
  name: "inception_3a/1x1"
  type: "Convolution"
  bottom: "pool2/3x3_s2"
  top: "inception_3a/1x1"
  param {
    lr_mult: 1
    decay_mult: 1
  }
  param {
    lr_mult: 2
    decay_mult: 0
  }
  convolution_param {
    num_output: 64
    kernel_size: 1
    weight_filler {
      type: "xavier"
      std: 0.03
    }
    bias_filler {
      type: "constant"
      value: 0.2
    }
  }
}
layer {
  name: "inception_3a/relu_1x1"
  type: "ReLU"
  bottom: "inception_3a/1x1"
  top: "inception_3a/1x1"
}
layer {
  name: "inception_3a/3x3_reduce"
  type: "Convolution"
  bottom: "pool2/3x3_s2"
  top: "inception_3a/3x3_reduce"
  param {
    lr_mult: 1
    decay_mult: 1
  }
  param {
    lr_mult: 2
    decay_mult: 0
  }
  convolution_param {
    num_output: 96
    kernel_size: 1
    weight_filler {
      type: "xavier"
      std: 0.09
    }
    bias_filler {
      type: "constant"
      value: 0.2
    }
  }
}
layer {
  name: "inception_3a/relu_3x3_reduce"
  type: "ReLU"
  bottom: "inception_3a/3x3_reduce"
  top: "inception_3a/3x3_reduce"
}
layer {
  name: "inception_3a/3x3"
  type: "Convolution"
  bottom: "inception_3a/3x3_reduce"
  top: "inception_3a/3x3"
  param {
    lr_mult: 1
    decay_mult: 1
  }
  param {
    lr_mult: 2
    decay_mult: 0
  }
  convolution_param {
    num_output: 128
    pad: 1
    kernel_size: 3
    weight_filler {
      type: "xavier"
      std: 0.03
    }
    bias_filler {
      type: "constant"
      value: 0.2
    }
  }
}
layer {
  name: "inception_3a/relu_3x3"
  type: "ReLU"
  bottom: "inception_3a/3x3"
  top: "inception_3a/3x3"
}
layer {
  name: "inception_3a/5x5_reduce"
  type: "Convolution"
  bottom: "pool2/3x3_s2"
  top: "inception_3a/5x5_reduce"
  param {
    lr_mult: 1
    decay_mult: 1
  }
  param {
    lr_mult: 2
    decay_mult: 0
  }
  convolution_param {
    num_output: 16
    kernel_size: 1
    weight_filler {
      type: "xavier"
      std: 0.2
    }
    bias_filler {
      type: "constant"
      value: 0.2
    }
  }
}
layer {
  name: "inception_3a/relu_5x5_reduce"
  type: "ReLU"
  bottom: "inception_3a/5x5_reduce"
  top: "inception_3a/5x5_reduce"
}
layer {
  name: "inception_3a/5x5"
  type: "Convolution"
  bottom: "inception_3a/5x5_reduce"
  top: "inception_3a/5x5"
  param {
    lr_mult: 1
    decay_mult: 1
  }
  param {
    lr_mult: 2
    decay_mult: 0
  }
  convolution_param {
    num_output: 32
    pad: 2
    kernel_size: 5
    weight_filler {
      type: "xavier"
      std: 0.03
    }
    bias_filler {
      type: "constant"
      value: 0.2
    }
  }
}
layer {
  name: "inception_3a/relu_5x5"
  type: "ReLU"
  bottom: "inception_3a/5x5"
  top: "inception_3a/5x5"
}
layer {
  name: "inception_3a/pool"
  type: "Pooling"
  bottom: "pool2/3x3_s2"
  top: "inception_3a/pool"
  pooling_param {
    pool: MAX
    kernel_size: 3
    stride: 1
    pad: 1
  }
}
layer {
  name: "inception_3a/pool_proj"
  type: "Convolution"
  bottom: "inception_3a/pool"
  top: "inception_3a/pool_proj"
  param {
    lr_mult: 1
    decay_mult: 1
  }
  param {
    lr_mult: 2
    decay_mult: 0
  }
  convolution_param {
    num_output: 32
    kernel_size: 1
    weight_filler {
      type: "xavier"
      std: 0.1
    }
    bias_filler {
      type: "constant"
      value: 0.2
    }
  }
}
layer {
  name: "inception_3a/relu_pool_proj"
  type: "ReLU"
  bottom: "inception_3a/pool_proj"
  top: "inception_3a/pool_proj"
}
layer {
  name: "inception_3a/output"
  type: "Concat"
  bottom: "inception_3a/1x1"
  bottom: "inception_3a/3x3"
  bottom: "inception_3a/5x5"
  bottom: "inception_3a/pool_proj"
  top: "inception_3a/output"
}
layer {
  name: "inception_3b/1x1"
  type: "Convolution"
  bottom: "inception_3a/output"
  top: "inception_3b/1x1"
  param {
    lr_mult: 1
    decay_mult: 1
  }
  param {
    lr_mult: 2
    decay_mult: 0
  }
  convolution_param {
    num_output: 128
    kernel_size: 1
    weight_filler {
      type: "xavier"
      std: 0.03
    }
    bias_filler {
      type: "constant"
      value: 0.2
    }
  }
}
layer {
  name: "inception_3b/relu_1x1"
  type: "ReLU"
  bottom: "inception_3b/1x1"
  top: "inception_3b/1x1"
}
layer {
  name: "inception_3b/3x3_reduce"
  type: "Convolution"
  bottom: "inception_3a/output"
  top: "inception_3b/3x3_reduce"
  param {
    lr_mult: 1
    decay_mult: 1
  }
  param {
    lr_mult: 2
    decay_mult: 0
  }
  convolution_param {
    num_output: 128
    kernel_size: 1
    weight_filler {
      type: "xavier"
      std: 0.09
    }
    bias_filler {
      type: "constant"
      value: 0.2
    }
  }
}
layer {
  name: "inception_3b/relu_3x3_reduce"
  type: "ReLU"
  bottom: "inception_3b/3x3_reduce"
  top: "inception_3b/3x3_reduce"
}
layer {
  name: "inception_3b/3x3"
  type: "Convolution"
  bottom: "inception_3b/3x3_reduce"
  top: "inception_3b/3x3"
  param {
    lr_mult: 1
    decay_mult: 1
  }
  param {
    lr_mult: 2
    decay_mult: 0
  }
  convolution_param {
    num_output: 192
    pad: 1
    kernel_size: 3
    weight_filler {
      type: "xavier"
      std: 0.03
    }
    bias_filler {
      type: "constant"
      value: 0.2
    }
  }
}
layer {
  name: "inception_3b/relu_3x3"
  type: "ReLU"
  bottom: "inception_3b/3x3"
  top: "inception_3b/3x3"
}
layer {
  name: "inception_3b/5x5_reduce"
  type: "Convolution"
  bottom: "inception_3a/output"
  top: "inception_3b/5x5_reduce"
  param {
    lr_mult: 1
    decay_mult: 1
  }
  param {
    lr_mult: 2
    decay_mult: 0
  }
  convolution_param {
    num_output: 32
    kernel_size: 1
    weight_filler {
      type: "xavier"
      std: 0.2
    }
    bias_filler {
      type: "constant"
      value: 0.2
    }
  }
}
layer {
  name: "inception_3b/relu_5x5_reduce"
  type: "ReLU"
  bottom: "inception_3b/5x5_reduce"
  top: "inception_3b/5x5_reduce"
}
layer {
  name: "inception_3b/5x5"
  type: "Convolution"
  bottom: "inception_3b/5x5_reduce"
  top: "inception_3b/5x5"
  param {
    lr_mult: 1
    decay_mult: 1
  }
  param {
    lr_mult: 2
    decay_mult: 0
  }
  convolution_param {
    num_output: 96
    pad: 2
    kernel_size: 5
    weight_filler {
      type: "xavier"
      std: 0.03
    }
    bias_filler {
      type: "constant"
      value: 0.2
    }
  }
}
layer {
  name: "inception_3b/relu_5x5"
  type: "ReLU"
  bottom: "inception_3b/5x5"
  top: "inception_3b/5x5"
}
layer {
  name: "inception_3b/pool"
  type: "Pooling"
  bottom: "inception_3a/output"
  top: "inception_3b/pool"
  pooling_param {
    pool: MAX
    kernel_size: 3
    stride: 1
    pad: 1
  }
}
layer {
  name: "inception_3b/pool_proj"
  type: "Convolution"
  bottom: "inception_3b/pool"
  top: "inception_3b/pool_proj"
  param {
    lr_mult: 1
    decay_mult: 1
  }
  param {
    lr_mult: 2
    decay_mult: 0
  }
  convolution_param {
    num_output: 64
    kernel_size: 1
    weight_filler {
      type: "xavier"
      std: 0.1
    }
    bias_filler {
      type: "constant"
      value: 0.2
    }
  }
}
layer {
  name: "inception_3b/relu_pool_proj"
  type: "ReLU"
  bottom: "inception_3b/pool_proj"
  top: "inception_3b/pool_proj"
}
layer {
  name: "inception_3b/output"
  type: "Concat"
  bottom: "inception_3b/1x1"
  bottom: "inception_3b/3x3"
  bottom: "inception_3b/5x5"
  bottom: "inception_3b/pool_proj"
  top: "inception_3b/output"
}
layer {
  name: "pool3/3x3_s2"
  type: "Pooling"
  bottom: "inception_3b/output"
  top: "pool3/3x3_s2"
  pooling_param {
    pool: MAX
    kernel_size: 3
    stride: 2
  }
}
layer {
  name: "inception_4a/1x1"
  type: "Convolution"
  bottom: "pool3/3x3_s2"
  top: "inception_4a/1x1"
  param {
    lr_mult: 1
    decay_mult: 1
  }
  param {
    lr_mult: 2
    decay_mult: 0
  }
  convolution_param {
    num_output: 192
    kernel_size: 1
    weight_filler {
      type: "xavier"
      std: 0.03
    }
    bias_filler {
      type: "constant"
      value: 0.2
    }
  }
}
layer {
  name: "inception_4a/relu_1x1"
  type: "ReLU"
  bottom: "inception_4a/1x1"
  top: "inception_4a/1x1"
}
layer {
  name: "inception_4a/3x3_reduce"
  type: "Convolution"
  bottom: "pool3/3x3_s2"
  top: "inception_4a/3x3_reduce"
  param {
    lr_mult: 1
    decay_mult: 1
  }
  param {
    lr_mult: 2
    decay_mult: 0
  }
  convolution_param {
    num_output: 96
    kernel_size: 1
    weight_filler {
      type: "xavier"
      std: 0.09
    }
    bias_filler {
      type: "constant"
      value: 0.2
    }
  }
}
layer {
  name: "inception_4a/relu_3x3_reduce"
  type: "ReLU"
  bottom: "inception_4a/3x3_reduce"
  top: "inception_4a/3x3_reduce"
}
layer {
  name: "inception_4a/3x3"
  type: "Convolution"
  bottom: "inception_4a/3x3_reduce"
  top: "inception_4a/3x3"
  param {
    lr_mult: 1
    decay_mult: 1
  }
  param {
    lr_mult: 2
    decay_mult: 0
  }
  convolution_param {
    num_output: 208
    pad: 1
    kernel_size: 3
    weight_filler {
      type: "xavier"
      std: 0.03
    }
    bias_filler {
      type: "constant"
      value: 0.2
    }
  }
}
layer {
  name: "inception_4a/relu_3x3"
  type: "ReLU"
  bottom: "inception_4a/3x3"
  top: "inception_4a/3x3"
}
layer {
  name: "inception_4a/5x5_reduce"
  type: "Convolution"
  bottom: "pool3/3x3_s2"
  top: "inception_4a/5x5_reduce"
  param {
    lr_mult: 1
    decay_mult: 1
  }
  param {
    lr_mult: 2
    decay_mult: 0
  }
  convolution_param {
    num_output: 16
    kernel_size: 1
    weight_filler {
      type: "xavier"
      std: 0.2
    }
    bias_filler {
      type: "constant"
      value: 0.2
    }
  }
}
layer {
  name: "inception_4a/relu_5x5_reduce"
  type: "ReLU"
  bottom: "inception_4a/5x5_reduce"
  top: "inception_4a/5x5_reduce"
}
layer {
  name: "inception_4a/5x5"
  type: "Convolution"
  bottom: "inception_4a/5x5_reduce"
  top: "inception_4a/5x5"
  param {
    lr_mult: 1
    decay_mult: 1
  }
  param {
    lr_mult: 2
    decay_mult: 0
  }
  convolution_param {
    num_output: 48
    pad: 2
    kernel_size: 5
    weight_filler {
      type: "xavier"
      std: 0.03
    }
    bias_filler {
      type: "constant"
      value: 0.2
    }
  }
}
layer {
  name: "inception_4a/relu_5x5"
  type: "ReLU"
  bottom: "inception_4a/5x5"
  top: "inception_4a/5x5"
}
layer {
  name: "inception_4a/pool"
  type: "Pooling"
  bottom: "pool3/3x3_s2"
  top: "inception_4a/pool"
  pooling_param {
    pool: MAX
    kernel_size: 3
    stride: 1
    pad: 1
  }
}
layer {
  name: "inception_4a/pool_proj"
  type: "Convolution"
  bottom: "inception_4a/pool"
  top: "inception_4a/pool_proj"
  param {
    lr_mult: 1
    decay_mult: 1
  }
  param {
    lr_mult: 2
    decay_mult: 0
  }
  convolution_param {
    num_output: 64
    kernel_size: 1
    weight_filler {
      type: "xavier"
      std: 0.1
    }
    bias_filler {
      type: "constant"
      value: 0.2
    }
  }
}
layer {
  name: "inception_4a/relu_pool_proj"
  type: "ReLU"
  bottom: "inception_4a/pool_proj"
  top: "inception_4a/pool_proj"
}
layer {
  name: "inception_4a/output"
  type: "Concat"
  bottom: "inception_4a/1x1"
  bottom: "inception_4a/3x3"
  bottom: "inception_4a/5x5"
  bottom: "inception_4a/pool_proj"
  top: "inception_4a/output"
}
layer {
  name: "loss1/ave_pool"
  type: "Pooling"
  bottom: "inception_4a/output"
  top: "loss1/ave_pool"
  pooling_param {
    pool: AVE
    kernel_size: 5
    stride: 3
  }
}
layer {
  name: "loss1/conv"
  type: "Convolution"
  bottom: "loss1/ave_pool"
  top: "loss1/conv"
  param {
    lr_mult: 1
    decay_mult: 1
  }
  param {
    lr_mult: 2
    decay_mult: 0
  }
  convolution_param {
    num_output: 128
    kernel_size: 1
    weight_filler {
      type: "xavier"
      std: 0.08
    }
    bias_filler {
      type: "constant"
      value: 0.2
    }
  }
}
layer {
  name: "loss1/relu_conv"
  type: "ReLU"
  bottom: "loss1/conv"
  top: "loss1/conv"
}
layer {
  name: "loss1/fc"
  type: "InnerProduct"
  bottom: "loss1/conv"
  top: "loss1/fc"
  param {
    lr_mult: 1
    decay_mult: 1
  }
  param {
    lr_mult: 2
    decay_mult: 0
  }
  inner_product_param {
    num_output: 1024
    weight_filler {
      type: "xavier"
      std: 0.02
    }
    bias_filler {
      type: "constant"
      value: 0.2
    }
  }
}
layer {
  name: "loss1/relu_fc"
  type: "ReLU"
  bottom: "loss1/fc"
  top: "loss1/fc"
}
layer {
  name: "loss1/drop_fc"
  type: "Dropout"
  bottom: "loss1/fc"
  top: "loss1/fc"
  dropout_param {
    dropout_ratio: 0.7
  }
}
layer {
  name: "loss1/classifier_plantvillage"
  type: "InnerProduct"
  bottom: "loss1/fc"
  top: "loss1/classifier_plantvillage"
  param {
    lr_mult: 1
    decay_mult: 1
  }
  param {
    lr_mult: 2
    decay_mult: 0
  }
  inner_product_param {
    num_output: 38
    weight_filler {
      type: "xavier"
      std: 0.0009765625
    }
    bias_filler {
      type: "constant"
      value: 0
    }
  }
}
layer {
  name: "inception_4b/1x1"
  type: "Convolution"
  bottom: "inception_4a/output"
  top: "inception_4b/1x1"
  param {
    lr_mult: 1
    decay_mult: 1
  }
  param {
    lr_mult: 2
    decay_mult: 0
  }
  convolution_param {
    num_output: 160
    kernel_size: 1
    weight_filler {
      type: "xavier"
      std: 0.03
    }
    bias_filler {
      type: "constant"
      value: 0.2
    }
  }
}
layer {
  name: "inception_4b/relu_1x1"
  type: "ReLU"
  bottom: "inception_4b/1x1"
  top: "inception_4b/1x1"
}
layer {
  name: "inception_4b/3x3_reduce"
  type: "Convolution"
  bottom: "inception_4a/output"
  top: "inception_4b/3x3_reduce"
  param {
    lr_mult: 1
    decay_mult: 1
  }
  param {
    lr_mult: 2
    decay_mult: 0
  }
  convolution_param {
    num_output: 112
    kernel_size: 1
    weight_filler {
      type: "xavier"
      std: 0.09
    }
    bias_filler {
      type: "constant"
      value: 0.2
    }
  }
}
layer {
  name: "inception_4b/relu_3x3_reduce"
  type: "ReLU"
  bottom: "inception_4b/3x3_reduce"
  top: "inception_4b/3x3_reduce"
}
layer {
  name: "inception_4b/3x3"
  type: "Convolution"
  bottom: "inception_4b/3x3_reduce"
  top: "inception_4b/3x3"
  param {
    lr_mult: 1
    decay_mult: 1
  }
  param {
    lr_mult: 2
    decay_mult: 0
  }
  convolution_param {
    num_output: 224
    pad: 1
    kernel_size: 3
    weight_filler {
      type: "xavier"
      std: 0.03
    }
    bias_filler {
      type: "constant"
      value: 0.2
    }
  }
}
layer {
  name: "inception_4b/relu_3x3"
  type: "ReLU"
  bottom: "inception_4b/3x3"
  top: "inception_4b/3x3"
}
layer {
  name: "inception_4b/5x5_reduce"
  type: "Convolution"
  bottom: "inception_4a/output"
  top: "inception_4b/5x5_reduce"
  param {
    lr_mult: 1
    decay_mult: 1
  }
  param {
    lr_mult: 2
    decay_mult: 0
  }
  convolution_param {
    num_output: 24
    kernel_size: 1
    weight_filler {
      type: "xavier"
      std: 0.2
    }
    bias_filler {
      type: "constant"
      value: 0.2
    }
  }
}
layer {
  name: "inception_4b/relu_5x5_reduce"
  type: "ReLU"
  bottom: "inception_4b/5x5_reduce"
  top: "inception_4b/5x5_reduce"
}
layer {
  name: "inception_4b/5x5"
  type: "Convolution"
  bottom: "inception_4b/5x5_reduce"
  top: "inception_4b/5x5"
  param {
    lr_mult: 1
    decay_mult: 1
  }
  param {
    lr_mult: 2
    decay_mult: 0
  }
  convolution_param {
    num_output: 64
    pad: 2
    kernel_size: 5
    weight_filler {
      type: "xavier"
      std: 0.03
    }
    bias_filler {
      type: "constant"
      value: 0.2
    }
  }
}
layer {
  name: "inception_4b/relu_5x5"
  type: "ReLU"
  bottom: "inception_4b/5x5"
  top: "inception_4b/5x5"
}
layer {
  name: "inception_4b/pool"
  type: "Pooling"
  bottom: "inception_4a/output"
  top: "inception_4b/pool"
  pooling_param {
    pool: MAX
    kernel_size: 3
    stride: 1
    pad: 1
  }
}
layer {
  name: "inception_4b/pool_proj"
  type: "Convolution"
  bottom: "inception_4b/pool"
  top: "inception_4b/pool_proj"
  param {
    lr_mult: 1
    decay_mult: 1
  }
  param {
    lr_mult: 2
    decay_mult: 0
  }
  convolution_param {
    num_output: 64
    kernel_size: 1
    weight_filler {
      type: "xavier"
      std: 0.1
    }
    bias_filler {
      type: "constant"
      value: 0.2
    }
  }
}
layer {
  name: "inception_4b/relu_pool_proj"
  type: "ReLU"
  bottom: "inception_4b/pool_proj"
  top: "inception_4b/pool_proj"
}
layer {
  name: "inception_4b/output"
  type: "Concat"
  bottom: "inception_4b/1x1"
  bottom: "inception_4b/3x3"
  bottom: "inception_4b/5x5"
  bottom: "inception_4b/pool_proj"
  top: "inception_4b/output"
}
layer {
  name: "inception_4c/1x1"
  type: "Convolution"
  bottom: "inception_4b/output"
  top: "inception_4c/1x1"
  param {
    lr_mult: 1
    decay_mult: 1
  }
  param {
    lr_mult: 2
    decay_mult: 0
  }
  convolution_param {
    num_output: 128
    kernel_size: 1
    weight_filler {
      type: "xavier"
      std: 0.03
    }
    bias_filler {
      type: "constant"
      value: 0.2
    }
  }
}
layer {
  name: "inception_4c/relu_1x1"
  type: "ReLU"
  bottom: "inception_4c/1x1"
  top: "inception_4c/1x1"
}
layer {
  name: "inception_4c/3x3_reduce"
  type: "Convolution"
  bottom: "inception_4b/output"
  top: "inception_4c/3x3_reduce"
  param {
    lr_mult: 1
    decay_mult: 1
  }
  param {
    lr_mult: 2
    decay_mult: 0
  }
  convolution_param {
    num_output: 128
    kernel_size: 1
    weight_filler {
      type: "xavier"
      std: 0.09
    }
    bias_filler {
      type: "constant"
      value: 0.2
    }
  }
}
layer {
  name: "inception_4c/relu_3x3_reduce"
  type: "ReLU"
  bottom: "inception_4c/3x3_reduce"
  top: "inception_4c/3x3_reduce"
}
layer {
  name: "inception_4c/3x3"
  type: "Convolution"
  bottom: "inception_4c/3x3_reduce"
  top: "inception_4c/3x3"
  param {
    lr_mult: 1
    decay_mult: 1
  }
  param {
    lr_mult: 2
    decay_mult: 0
  }
  convolution_param {
    num_output: 256
    pad: 1
    kernel_size: 3
    weight_filler {
      type: "xavier"
      std: 0.03
    }
    bias_filler {
      type: "constant"
      value: 0.2
    }
  }
}
layer {
  name: "inception_4c/relu_3x3"
  type: "ReLU"
  bottom: "inception_4c/3x3"
  top: "inception_4c/3x3"
}
layer {
  name: "inception_4c/5x5_reduce"
  type: "Convolution"
  bottom: "inception_4b/output"
  top: "inception_4c/5x5_reduce"
  param {
    lr_mult: 1
    decay_mult: 1
  }
  param {
    lr_mult: 2
    decay_mult: 0
  }
  convolution_param {
    num_output: 24
    kernel_size: 1
    weight_filler {
      type: "xavier"
      std: 0.2
    }
    bias_filler {
      type: "constant"
      value: 0.2
    }
  }
}
layer {
  name: "inception_4c/relu_5x5_reduce"
  type: "ReLU"
  bottom: "inception_4c/5x5_reduce"
  top: "inception_4c/5x5_reduce"
}
layer {
  name: "inception_4c/5x5"
  type: "Convolution"
  bottom: "inception_4c/5x5_reduce"
  top: "inception_4c/5x5"
  param {
    lr_mult: 1
    decay_mult: 1
  }
  param {
    lr_mult: 2
    decay_mult: 0
  }
  convolution_param {
    num_output: 64
    pad: 2
    kernel_size: 5
    weight_filler {
      type: "xavier"
      std: 0.03
    }
    bias_filler {
      type: "constant"
      value: 0.2
    }
  }
}
layer {
  name: "inception_4c/relu_5x5"
  type: "ReLU"
  bottom: "inception_4c/5x5"
  top: "inception_4c/5x5"
}
layer {
  name: "inception_4c/pool"
  type: "Pooling"
  bottom: "inception_4b/output"
  top: "inception_4c/pool"
  pooling_param {
    pool: MAX
    kernel_size: 3
    stride: 1
    pad: 1
  }
}
layer {
  name: "inception_4c/pool_proj"
  type: "Convolution"
  bottom: "inception_4c/pool"
  top: "inception_4c/pool_proj"
  param {
    lr_mult: 1
    decay_mult: 1
  }
  param {
    lr_mult: 2
    decay_mult: 0
  }
  convolution_param {
    num_output: 64
    kernel_size: 1
    weight_filler {
      type: "xavier"
      std: 0.1
    }
    bias_filler {
      type: "constant"
      value: 0.2
    }
  }
}
layer {
  name: "inception_4c/relu_pool_proj"
  type: "ReLU"
  bottom: "inception_4c/pool_proj"
  top: "inception_4c/pool_proj"
}
layer {
  name: "inception_4c/output"
  type: "Concat"
  bottom: "inception_4c/1x1"
  bottom: "inception_4c/3x3"
  bottom: "inception_4c/5x5"
  bottom: "inception_4c/pool_proj"
  top: "inception_4c/output"
}
layer {
  name: "inception_4d/1x1"
  type: "Convolution"
  bottom: "inception_4c/output"
  top: "inception_4d/1x1"
  param {
    lr_mult: 1
    decay_mult: 1
  }
  param {
    lr_mult: 2
    decay_mult: 0
  }
  convolution_param {
    num_output: 112
    kernel_size: 1
    weight_filler {
      type: "xavier"
      std: 0.03
    }
    bias_filler {
      type: "constant"
      value: 0.2
    }
  }
}
layer {
  name: "inception_4d/relu_1x1"
  type: "ReLU"
  bottom: "inception_4d/1x1"
  top: "inception_4d/1x1"
}
layer {
  name: "inception_4d/3x3_reduce"
  type: "Convolution"
  bottom: "inception_4c/output"
  top: "inception_4d/3x3_reduce"
  param {
    lr_mult: 1
    decay_mult: 1
  }
  param {
    lr_mult: 2
    decay_mult: 0
  }
  convolution_param {
    num_output: 144
    kernel_size: 1
    weight_filler {
      type: "xavier"
      std: 0.09
    }
    bias_filler {
      type: "constant"
      value: 0.2
    }
  }
}
layer {
  name: "inception_4d/relu_3x3_reduce"
  type: "ReLU"
  bottom: "inception_4d/3x3_reduce"
  top: "inception_4d/3x3_reduce"
}
layer {
  name: "inception_4d/3x3"
  type: "Convolution"
  bottom: "inception_4d/3x3_reduce"
  top: "inception_4d/3x3"
  param {
    lr_mult: 1
    decay_mult: 1
  }
  param {
    lr_mult: 2
    decay_mult: 0
  }
  convolution_param {
    num_output: 288
    pad: 1
    kernel_size: 3
    weight_filler {
      type: "xavier"
      std: 0.03
    }
    bias_filler {
      type: "constant"
      value: 0.2
    }
  }
}
layer {
  name: "inception_4d/relu_3x3"
  type: "ReLU"
  bottom: "inception_4d/3x3"
  top: "inception_4d/3x3"
}
layer {
  name: "inception_4d/5x5_reduce"
  type: "Convolution"
  bottom: "inception_4c/output"
  top: "inception_4d/5x5_reduce"
  param {
    lr_mult: 1
    decay_mult: 1
  }
  param {
    lr_mult: 2
    decay_mult: 0
  }
  convolution_param {
    num_output: 32
    kernel_size: 1
    weight_filler {
      type: "xavier"
      std: 0.2
    }
    bias_filler {
      type: "constant"
      value: 0.2
    }
  }
}
layer {
  name: "inception_4d/relu_5x5_reduce"
  type: "ReLU"
  bottom: "inception_4d/5x5_reduce"
  top: "inception_4d/5x5_reduce"
}
layer {
  name: "inception_4d/5x5"
  type: "Convolution"
  bottom: "inception_4d/5x5_reduce"
  top: "inception_4d/5x5"
  param {
    lr_mult: 1
    decay_mult: 1
  }
  param {
    lr_mult: 2
    decay_mult: 0
  }
  convolution_param {
    num_output: 64
    pad: 2
    kernel_size: 5
    weight_filler {
      type: "xavier"
      std: 0.03
    }
    bias_filler {
      type: "constant"
      value: 0.2
    }
  }
}
layer {
  name: "inception_4d/relu_5x5"
  type: "ReLU"
  bottom: "inception_4d/5x5"
  top: "inception_4d/5x5"
}
layer {
  name: "inception_4d/pool"
  type: "Pooling"
  bottom: "inception_4c/output"
  top: "inception_4d/pool"
  pooling_param {
    pool: MAX
    kernel_size: 3
    stride: 1
    pad: 1
  }
}
layer {
  name: "inception_4d/pool_proj"
  type: "Convolution"
  bottom: "inception_4d/pool"
  top: "inception_4d/pool_proj"
  param {
    lr_mult: 1
    decay_mult: 1
  }
  param {
    lr_mult: 2
    decay_mult: 0
  }
  convolution_param {
    num_output: 64
    kernel_size: 1
    weight_filler {
      type: "xavier"
      std: 0.1
    }
    bias_filler {
      type: "constant"
      value: 0.2
    }
  }
}
layer {
  name: "inception_4d/relu_pool_proj"
  type: "ReLU"
  bottom: "inception_4d/pool_proj"
  top: "inception_4d/pool_proj"
}
layer {
  name: "inception_4d/output"
  type: "Concat"
  bottom: "inception_4d/1x1"
  bottom: "inception_4d/3x3"
  bottom: "inception_4d/5x5"
  bottom: "inception_4d/pool_proj"
  top: "inception_4d/output"
}
layer {
  name: "loss2/ave_pool"
  type: "Pooling"
  bottom: "inception_4d/output"
  top: "loss2/ave_pool"
  pooling_param {
    pool: AVE
    kernel_size: 5
    stride: 3
  }
}
layer {
  name: "loss2/conv"
  type: "Convolution"
  bottom: "loss2/ave_pool"
  top: "loss2/conv"
  param {
    lr_mult: 1
    decay_mult: 1
  }
  param {
    lr_mult: 2
    decay_mult: 0
  }
  convolution_param {
    num_output: 128
    kernel_size: 1
    weight_filler {
      type: "xavier"
      std: 0.08
    }
    bias_filler {
      type: "constant"
      value: 0.2
    }
  }
}
layer {
  name: "loss2/relu_conv"
  type: "ReLU"
  bottom: "loss2/conv"
  top: "loss2/conv"
}
layer {
  name: "loss2/fc"
  type: "InnerProduct"
  bottom: "loss2/conv"
  top: "loss2/fc"
  param {
    lr_mult: 1
    decay_mult: 1
  }
  param {
    lr_mult: 2
    decay_mult: 0
  }
  inner_product_param {
    num_output: 1024
    weight_filler {
      type: "xavier"
      std: 0.02
    }
    bias_filler {
      type: "constant"
      value: 0.2
    }
  }
}
layer {
  name: "loss2/relu_fc"
  type: "ReLU"
  bottom: "loss2/fc"
  top: "loss2/fc"
}
layer {
  name: "loss2/drop_fc"
  type: "Dropout"
  bottom: "loss2/fc"
  top: "loss2/fc"
  dropout_param {
    dropout_ratio: 0.7
  }
}
layer {
  name: "loss2/classifier_plantvillage"
  type: "InnerProduct"
  bottom: "loss2/fc"
  top: "loss2/classifier_plantvillage"
  param {
    lr_mult: 1
    decay_mult: 1
  }
  param {
    lr_mult: 2
    decay_mult: 0
  }
  inner_product_param {
    num_output: 38
    weight_filler {
      type: "xavier"
      std: 0.0009765625
    }
    bias_filler {
      type: "constant"
      value: 0
    }
  }
}
layer {
  name: "inception_4e/1x1"
  type: "Convolution"
  bottom: "inception_4d/output"
  top: "inception_4e/1x1"
  param {
    lr_mult: 1
    decay_mult: 1
  }
  param {
    lr_mult: 2
    decay_mult: 0
  }
  convolution_param {
    num_output: 256
    kernel_size: 1
    weight_filler {
      type: "xavier"
      std: 0.03
    }
    bias_filler {
      type: "constant"
      value: 0.2
    }
  }
}
layer {
  name: "inception_4e/relu_1x1"
  type: "ReLU"
  bottom: "inception_4e/1x1"
  top: "inception_4e/1x1"
}
layer {
  name: "inception_4e/3x3_reduce"
  type: "Convolution"
  bottom: "inception_4d/output"
  top: "inception_4e/3x3_reduce"
  param {
    lr_mult: 1
    decay_mult: 1
  }
  param {
    lr_mult: 2
    decay_mult: 0
  }
  convolution_param {
    num_output: 160
    kernel_size: 1
    weight_filler {
      type: "xavier"
      std: 0.09
    }
    bias_filler {
      type: "constant"
      value: 0.2
    }
  }
}
layer {
  name: "inception_4e/relu_3x3_reduce"
  type: "ReLU"
  bottom: "inception_4e/3x3_reduce"
  top: "inception_4e/3x3_reduce"
}
layer {
  name: "inception_4e/3x3"
  type: "Convolution"
  bottom: "inception_4e/3x3_reduce"
  top: "inception_4e/3x3"
  param {
    lr_mult: 1
    decay_mult: 1
  }
  param {
    lr_mult: 2
    decay_mult: 0
  }
  convolution_param {
    num_output: 320
    pad: 1
    kernel_size: 3
    weight_filler {
      type: "xavier"
      std: 0.03
    }
    bias_filler {
      type: "constant"
      value: 0.2
    }
  }
}
layer {
  name: "inception_4e/relu_3x3"
  type: "ReLU"
  bottom: "inception_4e/3x3"
  top: "inception_4e/3x3"
}
layer {
  name: "inception_4e/5x5_reduce"
  type: "Convolution"
  bottom: "inception_4d/output"
  top: "inception_4e/5x5_reduce"
  param {
    lr_mult: 1
    decay_mult: 1
  }
  param {
    lr_mult: 2
    decay_mult: 0
  }
  convolution_param {
    num_output: 32
    kernel_size: 1
    weight_filler {
      type: "xavier"
      std: 0.2
    }
    bias_filler {
      type: "constant"
      value: 0.2
    }
  }
}
layer {
  name: "inception_4e/relu_5x5_reduce"
  type: "ReLU"
  bottom: "inception_4e/5x5_reduce"
  top: "inception_4e/5x5_reduce"
}
layer {
  name: "inception_4e/5x5"
  type: "Convolution"
  bottom: "inception_4e/5x5_reduce"
  top: "inception_4e/5x5"
  p
I0403 14:38:12.499253 30049 layer_factory.hpp:77] Creating layer data
I0403 14:38:12.499893 30049 net.cpp:91] Creating Layer data
I0403 14:38:12.499927 30049 net.cpp:399] data -> data
I0403 14:38:12.499982 30049 net.cpp:399] data -> label
I0403 14:38:12.500022 30049 data_transformer.cpp:25] Loading mean file from: /home/mohanty/data/final_dataset/lmdb/color-20-80/mean.binaryproto
I0403 14:38:12.502532 30053 db_lmdb.cpp:38] Opened lmdb /home/mohanty/data/final_dataset/lmdb/color-20-80/test_db
I0403 14:38:12.513437 30049 data_layer.cpp:41] output data size: 24,3,224,224
I0403 14:38:12.540632 30049 net.cpp:141] Setting up data
I0403 14:38:12.540706 30049 net.cpp:148] Top shape: 24 3 224 224 (3612672)
I0403 14:38:12.540731 30049 net.cpp:148] Top shape: 24 (24)
I0403 14:38:12.540747 30049 net.cpp:156] Memory required for data: 14450784
I0403 14:38:12.540777 30049 layer_factory.hpp:77] Creating layer label_data_1_split
I0403 14:38:12.540807 30049 net.cpp:91] Creating Layer label_data_1_split
I0403 14:38:12.540827 30049 net.cpp:425] label_data_1_split <- label
I0403 14:38:12.540861 30049 net.cpp:399] label_data_1_split -> label_data_1_split_0
I0403 14:38:12.540894 30049 net.cpp:399] label_data_1_split -> label_data_1_split_1
I0403 14:38:12.540925 30049 net.cpp:399] label_data_1_split -> label_data_1_split_2
I0403 14:38:12.540947 30049 net.cpp:399] label_data_1_split -> label_data_1_split_3
I0403 14:38:12.540967 30049 net.cpp:399] label_data_1_split -> label_data_1_split_4
I0403 14:38:12.540988 30049 net.cpp:399] label_data_1_split -> label_data_1_split_5
I0403 14:38:12.541009 30049 net.cpp:399] label_data_1_split -> label_data_1_split_6
I0403 14:38:12.541031 30049 net.cpp:399] label_data_1_split -> label_data_1_split_7
I0403 14:38:12.541052 30049 net.cpp:399] label_data_1_split -> label_data_1_split_8
I0403 14:38:12.541074 30049 net.cpp:399] label_data_1_split -> label_data_1_split_9
I0403 14:38:12.541193 30049 net.cpp:141] Setting up label_data_1_split
I0403 14:38:12.541218 30049 net.cpp:148] Top shape: 24 (24)
I0403 14:38:12.541237 30049 net.cpp:148] Top shape: 24 (24)
I0403 14:38:12.541254 30049 net.cpp:148] Top shape: 24 (24)
I0403 14:38:12.541272 30049 net.cpp:148] Top shape: 24 (24)
I0403 14:38:12.541290 30049 net.cpp:148] Top shape: 24 (24)
I0403 14:38:12.541306 30049 net.cpp:148] Top shape: 24 (24)
I0403 14:38:12.541323 30049 net.cpp:148] Top shape: 24 (24)
I0403 14:38:12.541340 30049 net.cpp:148] Top shape: 24 (24)
I0403 14:38:12.541363 30049 net.cpp:148] Top shape: 24 (24)
I0403 14:38:12.541383 30049 net.cpp:148] Top shape: 24 (24)
I0403 14:38:12.541425 30049 net.cpp:156] Memory required for data: 14451744
I0403 14:38:12.541443 30049 layer_factory.hpp:77] Creating layer conv1/7x7_s2
I0403 14:38:12.541477 30049 net.cpp:91] Creating Layer conv1/7x7_s2
I0403 14:38:12.541496 30049 net.cpp:425] conv1/7x7_s2 <- data
I0403 14:38:12.541517 30049 net.cpp:399] conv1/7x7_s2 -> conv1/7x7_s2
I0403 14:38:12.682950 30049 net.cpp:141] Setting up conv1/7x7_s2
I0403 14:38:12.683027 30049 net.cpp:148] Top shape: 24 64 112 112 (19267584)
I0403 14:38:12.683046 30049 net.cpp:156] Memory required for data: 91522080
I0403 14:38:12.683079 30049 layer_factory.hpp:77] Creating layer conv1/relu_7x7
I0403 14:38:12.683109 30049 net.cpp:91] Creating Layer conv1/relu_7x7
I0403 14:38:12.683130 30049 net.cpp:425] conv1/relu_7x7 <- conv1/7x7_s2
I0403 14:38:12.683151 30049 net.cpp:386] conv1/relu_7x7 -> conv1/7x7_s2 (in-place)
I0403 14:38:12.683420 30049 net.cpp:141] Setting up conv1/relu_7x7
I0403 14:38:12.683450 30049 net.cpp:148] Top shape: 24 64 112 112 (19267584)
I0403 14:38:12.683467 30049 net.cpp:156] Memory required for data: 168592416
I0403 14:38:12.683483 30049 layer_factory.hpp:77] Creating layer pool1/3x3_s2
I0403 14:38:12.683511 30049 net.cpp:91] Creating Layer pool1/3x3_s2
I0403 14:38:12.683529 30049 net.cpp:425] pool1/3x3_s2 <- conv1/7x7_s2
I0403 14:38:12.683549 30049 net.cpp:399] pool1/3x3_s2 -> pool1/3x3_s2
I0403 14:38:12.683625 30049 net.cpp:141] Setting up pool1/3x3_s2
I0403 14:38:12.683650 30049 net.cpp:148] Top shape: 24 64 56 56 (4816896)
I0403 14:38:12.683666 30049 net.cpp:156] Memory required for data: 187860000
I0403 14:38:12.683683 30049 layer_factory.hpp:77] Creating layer pool1/norm1
I0403 14:38:12.683709 30049 net.cpp:91] Creating Layer pool1/norm1
I0403 14:38:12.683727 30049 net.cpp:425] pool1/norm1 <- pool1/3x3_s2
I0403 14:38:12.683770 30049 net.cpp:399] pool1/norm1 -> pool1/norm1
I0403 14:38:12.684069 30049 net.cpp:141] Setting up pool1/norm1
I0403 14:38:12.684098 30049 net.cpp:148] Top shape: 24 64 56 56 (4816896)
I0403 14:38:12.684114 30049 net.cpp:156] Memory required for data: 207127584
I0403 14:38:12.684130 30049 layer_factory.hpp:77] Creating layer conv2/3x3_reduce
I0403 14:38:12.684156 30049 net.cpp:91] Creating Layer conv2/3x3_reduce
I0403 14:38:12.684175 30049 net.cpp:425] conv2/3x3_reduce <- pool1/norm1
I0403 14:38:12.684195 30049 net.cpp:399] conv2/3x3_reduce -> conv2/3x3_reduce
I0403 14:38:12.685621 30049 net.cpp:141] Setting up conv2/3x3_reduce
I0403 14:38:12.685652 30049 net.cpp:148] Top shape: 24 64 56 56 (4816896)
I0403 14:38:12.685669 30049 net.cpp:156] Memory required for data: 226395168
I0403 14:38:12.685694 30049 layer_factory.hpp:77] Creating layer conv2/relu_3x3_reduce
I0403 14:38:12.685715 30049 net.cpp:91] Creating Layer conv2/relu_3x3_reduce
I0403 14:38:12.685731 30049 net.cpp:425] conv2/relu_3x3_reduce <- conv2/3x3_reduce
I0403 14:38:12.685750 30049 net.cpp:386] conv2/relu_3x3_reduce -> conv2/3x3_reduce (in-place)
I0403 14:38:12.686028 30049 net.cpp:141] Setting up conv2/relu_3x3_reduce
I0403 14:38:12.686056 30049 net.cpp:148] Top shape: 24 64 56 56 (4816896)
I0403 14:38:12.686074 30049 net.cpp:156] Memory required for data: 245662752
I0403 14:38:12.686089 30049 layer_factory.hpp:77] Creating layer conv2/3x3
I0403 14:38:12.686115 30049 net.cpp:91] Creating Layer conv2/3x3
I0403 14:38:12.686134 30049 net.cpp:425] conv2/3x3 <- conv2/3x3_reduce
I0403 14:38:12.686156 30049 net.cpp:399] conv2/3x3 -> conv2/3x3
I0403 14:38:12.688524 30049 net.cpp:141] Setting up conv2/3x3
I0403 14:38:12.688566 30049 net.cpp:148] Top shape: 24 192 56 56 (14450688)
I0403 14:38:12.688582 30049 net.cpp:156] Memory required for data: 303465504
I0403 14:38:12.688608 30049 layer_factory.hpp:77] Creating layer conv2/relu_3x3
I0403 14:38:12.688628 30049 net.cpp:91] Creating Layer conv2/relu_3x3
I0403 14:38:12.688645 30049 net.cpp:425] conv2/relu_3x3 <- conv2/3x3
I0403 14:38:12.688664 30049 net.cpp:386] conv2/relu_3x3 -> conv2/3x3 (in-place)
I0403 14:38:12.688849 30049 net.cpp:141] Setting up conv2/relu_3x3
I0403 14:38:12.688879 30049 net.cpp:148] Top shape: 24 192 56 56 (14450688)
I0403 14:38:12.688925 30049 net.cpp:156] Memory required for data: 361268256
I0403 14:38:12.688942 30049 layer_factory.hpp:77] Creating layer conv2/norm2
I0403 14:38:12.688966 30049 net.cpp:91] Creating Layer conv2/norm2
I0403 14:38:12.688984 30049 net.cpp:425] conv2/norm2 <- conv2/3x3
I0403 14:38:12.689003 30049 net.cpp:399] conv2/norm2 -> conv2/norm2
I0403 14:38:12.689311 30049 net.cpp:141] Setting up conv2/norm2
I0403 14:38:12.689343 30049 net.cpp:148] Top shape: 24 192 56 56 (14450688)
I0403 14:38:12.689360 30049 net.cpp:156] Memory required for data: 419071008
I0403 14:38:12.689376 30049 layer_factory.hpp:77] Creating layer pool2/3x3_s2
I0403 14:38:12.689399 30049 net.cpp:91] Creating Layer pool2/3x3_s2
I0403 14:38:12.689415 30049 net.cpp:425] pool2/3x3_s2 <- conv2/norm2
I0403 14:38:12.689435 30049 net.cpp:399] pool2/3x3_s2 -> pool2/3x3_s2
I0403 14:38:12.689489 30049 net.cpp:141] Setting up pool2/3x3_s2
I0403 14:38:12.689515 30049 net.cpp:148] Top shape: 24 192 28 28 (3612672)
I0403 14:38:12.689532 30049 net.cpp:156] Memory required for data: 433521696
I0403 14:38:12.689548 30049 layer_factory.hpp:77] Creating layer pool2/3x3_s2_pool2/3x3_s2_0_split
I0403 14:38:12.689568 30049 net.cpp:91] Creating Layer pool2/3x3_s2_pool2/3x3_s2_0_split
I0403 14:38:12.689584 30049 net.cpp:425] pool2/3x3_s2_pool2/3x3_s2_0_split <- pool2/3x3_s2
I0403 14:38:12.689604 30049 net.cpp:399] pool2/3x3_s2_pool2/3x3_s2_0_split -> pool2/3x3_s2_pool2/3x3_s2_0_split_0
I0403 14:38:12.689627 30049 net.cpp:399] pool2/3x3_s2_pool2/3x3_s2_0_split -> pool2/3x3_s2_pool2/3x3_s2_0_split_1
I0403 14:38:12.689647 30049 net.cpp:399] pool2/3x3_s2_pool2/3x3_s2_0_split -> pool2/3x3_s2_pool2/3x3_s2_0_split_2
I0403 14:38:12.689668 30049 net.cpp:399] pool2/3x3_s2_pool2/3x3_s2_0_split -> pool2/3x3_s2_pool2/3x3_s2_0_split_3
I0403 14:38:12.689743 30049 net.cpp:141] Setting up pool2/3x3_s2_pool2/3x3_s2_0_split
I0403 14:38:12.689769 30049 net.cpp:148] Top shape: 24 192 28 28 (3612672)
I0403 14:38:12.689788 30049 net.cpp:148] Top shape: 24 192 28 28 (3612672)
I0403 14:38:12.689805 30049 net.cpp:148] Top shape: 24 192 28 28 (3612672)
I0403 14:38:12.689822 30049 net.cpp:148] Top shape: 24 192 28 28 (3612672)
I0403 14:38:12.689836 30049 net.cpp:156] Memory required for data: 491324448
I0403 14:38:12.689852 30049 layer_factory.hpp:77] Creating layer inception_3a/1x1
I0403 14:38:12.689877 30049 net.cpp:91] Creating Layer inception_3a/1x1
I0403 14:38:12.689894 30049 net.cpp:425] inception_3a/1x1 <- pool2/3x3_s2_pool2/3x3_s2_0_split_0
I0403 14:38:12.689921 30049 net.cpp:399] inception_3a/1x1 -> inception_3a/1x1
I0403 14:38:12.691468 30049 net.cpp:141] Setting up inception_3a/1x1
I0403 14:38:12.691504 30049 net.cpp:148] Top shape: 24 64 28 28 (1204224)
I0403 14:38:12.691521 30049 net.cpp:156] Memory required for data: 496141344
I0403 14:38:12.691542 30049 layer_factory.hpp:77] Creating layer inception_3a/relu_1x1
I0403 14:38:12.691563 30049 net.cpp:91] Creating Layer inception_3a/relu_1x1
I0403 14:38:12.691579 30049 net.cpp:425] inception_3a/relu_1x1 <- inception_3a/1x1
I0403 14:38:12.691598 30049 net.cpp:386] inception_3a/relu_1x1 -> inception_3a/1x1 (in-place)
I0403 14:38:12.691776 30049 net.cpp:141] Setting up inception_3a/relu_1x1
I0403 14:38:12.691805 30049 net.cpp:148] Top shape: 24 64 28 28 (1204224)
I0403 14:38:12.691823 30049 net.cpp:156] Memory required for data: 500958240
I0403 14:38:12.691839 30049 layer_factory.hpp:77] Creating layer inception_3a/3x3_reduce
I0403 14:38:12.691864 30049 net.cpp:91] Creating Layer inception_3a/3x3_reduce
I0403 14:38:12.691881 30049 net.cpp:425] inception_3a/3x3_reduce <- pool2/3x3_s2_pool2/3x3_s2_0_split_1
I0403 14:38:12.691902 30049 net.cpp:399] inception_3a/3x3_reduce -> inception_3a/3x3_reduce
I0403 14:38:12.693621 30049 net.cpp:141] Setting up inception_3a/3x3_reduce
I0403 14:38:12.693651 30049 net.cpp:148] Top shape: 24 96 28 28 (1806336)
I0403 14:38:12.693667 30049 net.cpp:156] Memory required for data: 508183584
I0403 14:38:12.693693 30049 layer_factory.hpp:77] Creating layer inception_3a/relu_3x3_reduce
I0403 14:38:12.693729 30049 net.cpp:91] Creating Layer inception_3a/relu_3x3_reduce
I0403 14:38:12.693748 30049 net.cpp:425] inception_3a/relu_3x3_reduce <- inception_3a/3x3_reduce
I0403 14:38:12.693769 30049 net.cpp:386] inception_3a/relu_3x3_reduce -> inception_3a/3x3_reduce (in-place)
I0403 14:38:12.693950 30049 net.cpp:141] Setting up inception_3a/relu_3x3_reduce
I0403 14:38:12.693975 30049 net.cpp:148] Top shape: 24 96 28 28 (1806336)
I0403 14:38:12.693991 30049 net.cpp:156] Memory required for data: 515408928
I0403 14:38:12.694006 30049 layer_factory.hpp:77] Creating layer inception_3a/3x3
I0403 14:38:12.694030 30049 net.cpp:91] Creating Layer inception_3a/3x3
I0403 14:38:12.694047 30049 net.cpp:425] inception_3a/3x3 <- inception_3a/3x3_reduce
I0403 14:38:12.694069 30049 net.cpp:399] inception_3a/3x3 -> inception_3a/3x3
I0403 14:38:12.695744 30049 net.cpp:141] Setting up inception_3a/3x3
I0403 14:38:12.695772 30049 net.cpp:148] Top shape: 24 128 28 28 (2408448)
I0403 14:38:12.695790 30049 net.cpp:156] Memory required for data: 525042720
I0403 14:38:12.695807 30049 layer_factory.hpp:77] Creating layer inception_3a/relu_3x3
I0403 14:38:12.695828 30049 net.cpp:91] Creating Layer inception_3a/relu_3x3
I0403 14:38:12.695847 30049 net.cpp:425] inception_3a/relu_3x3 <- inception_3a/3x3
I0403 14:38:12.695866 30049 net.cpp:386] inception_3a/relu_3x3 -> inception_3a/3x3 (in-place)
I0403 14:38:12.696138 30049 net.cpp:141] Setting up inception_3a/relu_3x3
I0403 14:38:12.696166 30049 net.cpp:148] Top shape: 24 128 28 28 (2408448)
I0403 14:38:12.696182 30049 net.cpp:156] Memory required for data: 534676512
I0403 14:38:12.696197 30049 layer_factory.hpp:77] Creating layer inception_3a/5x5_reduce
I0403 14:38:12.696221 30049 net.cpp:91] Creating Layer inception_3a/5x5_reduce
I0403 14:38:12.696240 30049 net.cpp:425] inception_3a/5x5_reduce <- pool2/3x3_s2_pool2/3x3_s2_0_split_2
I0403 14:38:12.696260 30049 net.cpp:399] inception_3a/5x5_reduce -> inception_3a/5x5_reduce
I0403 14:38:12.697250 30049 net.cpp:141] Setting up inception_3a/5x5_reduce
I0403 14:38:12.697304 30049 net.cpp:148] Top shape: 24 16 28 28 (301056)
I0403 14:38:12.697329 30049 net.cpp:156] Memory required for data: 535880736
I0403 14:38:12.697348 30049 layer_factory.hpp:77] Creating layer inception_3a/relu_5x5_reduce
I0403 14:38:12.697368 30049 net.cpp:91] Creating Layer inception_3a/relu_5x5_reduce
I0403 14:38:12.697384 30049 net.cpp:425] inception_3a/relu_5x5_reduce <- inception_3a/5x5_reduce
I0403 14:38:12.697405 30049 net.cpp:386] inception_3a/relu_5x5_reduce -> inception_3a/5x5_reduce (in-place)
I0403 14:38:12.697707 30049 net.cpp:141] Setting up inception_3a/relu_5x5_reduce
I0403 14:38:12.697737 30049 net.cpp:148] Top shape: 24 16 28 28 (301056)
I0403 14:38:12.697754 30049 net.cpp:156] Memory required for data: 537084960
I0403 14:38:12.697770 30049 layer_factory.hpp:77] Creating layer inception_3a/5x5
I0403 14:38:12.697793 30049 net.cpp:91] Creating Layer inception_3a/5x5
I0403 14:38:12.697811 30049 net.cpp:425] inception_3a/5x5 <- inception_3a/5x5_reduce
I0403 14:38:12.697834 30049 net.cpp:399] inception_3a/5x5 -> inception_3a/5x5
I0403 14:38:12.698881 30049 net.cpp:141] Setting up inception_3a/5x5
I0403 14:38:12.698909 30049 net.cpp:148] Top shape: 24 32 28 28 (602112)
I0403 14:38:12.698925 30049 net.cpp:156] Memory required for data: 539493408
I0403 14:38:12.698945 30049 layer_factory.hpp:77] Creating layer inception_3a/relu_5x5
I0403 14:38:12.698966 30049 net.cpp:91] Creating Layer inception_3a/relu_5x5
I0403 14:38:12.698982 30049 net.cpp:425] inception_3a/relu_5x5 <- inception_3a/5x5
I0403 14:38:12.699003 30049 net.cpp:386] inception_3a/relu_5x5 -> inception_3a/5x5 (in-place)
I0403 14:38:12.699175 30049 net.cpp:141] Setting up inception_3a/relu_5x5
I0403 14:38:12.699203 30049 net.cpp:148] Top shape: 24 32 28 28 (602112)
I0403 14:38:12.699219 30049 net.cpp:156] Memory required for data: 541901856
I0403 14:38:12.699236 30049 layer_factory.hpp:77] Creating layer inception_3a/pool
I0403 14:38:12.699255 30049 net.cpp:91] Creating Layer inception_3a/pool
I0403 14:38:12.699271 30049 net.cpp:425] inception_3a/pool <- pool2/3x3_s2_pool2/3x3_s2_0_split_3
I0403 14:38:12.699306 30049 net.cpp:399] inception_3a/pool -> inception_3a/pool
I0403 14:38:12.699379 30049 net.cpp:141] Setting up inception_3a/pool
I0403 14:38:12.699404 30049 net.cpp:148] Top shape: 24 192 28 28 (3612672)
I0403 14:38:12.699419 30049 net.cpp:156] Memory required for data: 556352544
I0403 14:38:12.699435 30049 layer_factory.hpp:77] Creating layer inception_3a/pool_proj
I0403 14:38:12.699460 30049 net.cpp:91] Creating Layer inception_3a/pool_proj
I0403 14:38:12.699478 30049 net.cpp:425] inception_3a/pool_proj <- inception_3a/pool
I0403 14:38:12.699497 30049 net.cpp:399] inception_3a/pool_proj -> inception_3a/pool_proj
I0403 14:38:12.700495 30049 net.cpp:141] Setting up inception_3a/pool_proj
I0403 14:38:12.700532 30049 net.cpp:148] Top shape: 24 32 28 28 (602112)
I0403 14:38:12.700565 30049 net.cpp:156] Memory required for data: 558760992
I0403 14:38:12.700592 30049 layer_factory.hpp:77] Creating layer inception_3a/relu_pool_proj
I0403 14:38:12.700614 30049 net.cpp:91] Creating Layer inception_3a/relu_pool_proj
I0403 14:38:12.700644 30049 net.cpp:425] inception_3a/relu_pool_proj <- inception_3a/pool_proj
I0403 14:38:12.700665 30049 net.cpp:386] inception_3a/relu_pool_proj -> inception_3a/pool_proj (in-place)
I0403 14:38:12.700942 30049 net.cpp:141] Setting up inception_3a/relu_pool_proj
I0403 14:38:12.700969 30049 net.cpp:148] Top shape: 24 32 28 28 (602112)
I0403 14:38:12.700985 30049 net.cpp:156] Memory required for data: 561169440
I0403 14:38:12.701001 30049 layer_factory.hpp:77] Creating layer inception_3a/output
I0403 14:38:12.701022 30049 net.cpp:91] Creating Layer inception_3a/output
I0403 14:38:12.701038 30049 net.cpp:425] inception_3a/output <- inception_3a/1x1
I0403 14:38:12.701056 30049 net.cpp:425] inception_3a/output <- inception_3a/3x3
I0403 14:38:12.701073 30049 net.cpp:425] inception_3a/output <- inception_3a/5x5
I0403 14:38:12.701091 30049 net.cpp:425] inception_3a/output <- inception_3a/pool_proj
I0403 14:38:12.701108 30049 net.cpp:399] inception_3a/output -> inception_3a/output
I0403 14:38:12.701156 30049 net.cpp:141] Setting up inception_3a/output
I0403 14:38:12.701179 30049 net.cpp:148] Top shape: 24 256 28 28 (4816896)
I0403 14:38:12.701195 30049 net.cpp:156] Memory required for data: 580437024
I0403 14:38:12.701210 30049 layer_factory.hpp:77] Creating layer inception_3a/output_inception_3a/output_0_split
I0403 14:38:12.701227 30049 net.cpp:91] Creating Layer inception_3a/output_inception_3a/output_0_split
I0403 14:38:12.701243 30049 net.cpp:425] inception_3a/output_inception_3a/output_0_split <- inception_3a/output
I0403 14:38:12.701264 30049 net.cpp:399] inception_3a/output_inception_3a/output_0_split -> inception_3a/output_inception_3a/output_0_split_0
I0403 14:38:12.701285 30049 net.cpp:399] inception_3a/output_inception_3a/output_0_split -> inception_3a/output_inception_3a/output_0_split_1
I0403 14:38:12.701310 30049 net.cpp:399] inception_3a/output_inception_3a/output_0_split -> inception_3a/output_inception_3a/output_0_split_2
I0403 14:38:12.701339 30049 net.cpp:399] inception_3a/output_inception_3a/output_0_split -> inception_3a/output_inception_3a/output_0_split_3
I0403 14:38:12.701412 30049 net.cpp:141] Setting up inception_3a/output_inception_3a/output_0_split
I0403 14:38:12.701436 30049 net.cpp:148] Top shape: 24 256 28 28 (4816896)
I0403 14:38:12.701457 30049 net.cpp:148] Top shape: 24 256 28 28 (4816896)
I0403 14:38:12.701473 30049 net.cpp:148] Top shape: 24 256 28 28 (4816896)
I0403 14:38:12.701489 30049 net.cpp:148] Top shape: 24 256 28 28 (4816896)
I0403 14:38:12.701504 30049 net.cpp:156] Memory required for data: 657507360
I0403 14:38:12.701519 30049 layer_factory.hpp:77] Creating layer inception_3b/1x1
I0403 14:38:12.701540 30049 net.cpp:91] Creating Layer inception_3b/1x1
I0403 14:38:12.701558 30049 net.cpp:425] inception_3b/1x1 <- inception_3a/output_inception_3a/output_0_split_0
I0403 14:38:12.701581 30049 net.cpp:399] inception_3b/1x1 -> inception_3b/1x1
I0403 14:38:12.702747 30049 net.cpp:141] Setting up inception_3b/1x1
I0403 14:38:12.702787 30049 net.cpp:148] Top shape: 24 128 28 28 (2408448)
I0403 14:38:12.702805 30049 net.cpp:156] Memory required for data: 667141152
I0403 14:38:12.702823 30049 layer_factory.hpp:77] Creating layer inception_3b/relu_1x1
I0403 14:38:12.702844 30049 net.cpp:91] Creating Layer inception_3b/relu_1x1
I0403 14:38:12.702862 30049 net.cpp:425] inception_3b/relu_1x1 <- inception_3b/1x1
I0403 14:38:12.702882 30049 net.cpp:386] inception_3b/relu_1x1 -> inception_3b/1x1 (in-place)
I0403 14:38:12.703054 30049 net.cpp:141] Setting up inception_3b/relu_1x1
I0403 14:38:12.703079 30049 net.cpp:148] Top shape: 24 128 28 28 (2408448)
I0403 14:38:12.703095 30049 net.cpp:156] Memory required for data: 676774944
I0403 14:38:12.703110 30049 layer_factory.hpp:77] Creating layer inception_3b/3x3_reduce
I0403 14:38:12.703136 30049 net.cpp:91] Creating Layer inception_3b/3x3_reduce
I0403 14:38:12.703153 30049 net.cpp:425] inception_3b/3x3_reduce <- inception_3a/output_inception_3a/output_0_split_1
I0403 14:38:12.703174 30049 net.cpp:399] inception_3b/3x3_reduce -> inception_3b/3x3_reduce
I0403 14:38:12.704344 30049 net.cpp:141] Setting up inception_3b/3x3_reduce
I0403 14:38:12.704372 30049 net.cpp:148] Top shape: 24 128 28 28 (2408448)
I0403 14:38:12.704390 30049 net.cpp:156] Memory required for data: 686408736
I0403 14:38:12.704409 30049 layer_factory.hpp:77] Creating layer inception_3b/relu_3x3_reduce
I0403 14:38:12.704430 30049 net.cpp:91] Creating Layer inception_3b/relu_3x3_reduce
I0403 14:38:12.704447 30049 net.cpp:425] inception_3b/relu_3x3_reduce <- inception_3b/3x3_reduce
I0403 14:38:12.704465 30049 net.cpp:386] inception_3b/relu_3x3_reduce -> inception_3b/3x3_reduce (in-place)
I0403 14:38:12.704638 30049 net.cpp:141] Setting up inception_3b/relu_3x3_reduce
I0403 14:38:12.704666 30049 net.cpp:148] Top shape: 24 128 28 28 (2408448)
I0403 14:38:12.704684 30049 net.cpp:156] Memory required for data: 696042528
I0403 14:38:12.704699 30049 layer_factory.hpp:77] Creating layer inception_3b/3x3
I0403 14:38:12.704723 30049 net.cpp:91] Creating Layer inception_3b/3x3
I0403 14:38:12.704742 30049 net.cpp:425] inception_3b/3x3 <- inception_3b/3x3_reduce
I0403 14:38:12.704766 30049 net.cpp:399] inception_3b/3x3 -> inception_3b/3x3
I0403 14:38:12.707746 30049 net.cpp:141] Setting up inception_3b/3x3
I0403 14:38:12.707777 30049 net.cpp:148] Top shape: 24 192 28 28 (3612672)
I0403 14:38:12.707793 30049 net.cpp:156] Memory required for data: 710493216
I0403 14:38:12.707813 30049 layer_factory.hpp:77] Creating layer inception_3b/relu_3x3
I0403 14:38:12.707834 30049 net.cpp:91] Creating Layer inception_3b/relu_3x3
I0403 14:38:12.707854 30049 net.cpp:425] inception_3b/relu_3x3 <- inception_3b/3x3
I0403 14:38:12.707873 30049 net.cpp:386] inception_3b/relu_3x3 -> inception_3b/3x3 (in-place)
I0403 14:38:12.708154 30049 net.cpp:141] Setting up inception_3b/relu_3x3
I0403 14:38:12.708183 30049 net.cpp:148] Top shape: 24 192 28 28 (3612672)
I0403 14:38:12.708199 30049 net.cpp:156] Memory required for data: 724943904
I0403 14:38:12.708215 30049 layer_factory.hpp:77] Creating layer inception_3b/5x5_reduce
I0403 14:38:12.708243 30049 net.cpp:91] Creating Layer inception_3b/5x5_reduce
I0403 14:38:12.708263 30049 net.cpp:425] inception_3b/5x5_reduce <- inception_3a/output_inception_3a/output_0_split_2
I0403 14:38:12.708286 30049 net.cpp:399] inception_3b/5x5_reduce -> inception_3b/5x5_reduce
I0403 14:38:12.709290 30049 net.cpp:141] Setting up inception_3b/5x5_reduce
I0403 14:38:12.709323 30049 net.cpp:148] Top shape: 24 32 28 28 (602112)
I0403 14:38:12.709343 30049 net.cpp:156] Memory required for data: 727352352
I0403 14:38:12.709364 30049 layer_factory.hpp:77] Creating layer inception_3b/relu_5x5_reduce
I0403 14:38:12.709386 30049 net.cpp:91] Creating Layer inception_3b/relu_5x5_reduce
I0403 14:38:12.709405 30049 net.cpp:425] inception_3b/relu_5x5_reduce <- inception_3b/5x5_reduce
I0403 14:38:12.709425 30049 net.cpp:386] inception_3b/relu_5x5_reduce -> inception_3b/5x5_reduce (in-place)
I0403 14:38:12.709605 30049 net.cpp:141] Setting up inception_3b/relu_5x5_reduce
I0403 14:38:12.709651 30049 net.cpp:148] Top shape: 24 32 28 28 (602112)
I0403 14:38:12.709668 30049 net.cpp:156] Memory required for data: 729760800
I0403 14:38:12.709686 30049 layer_factory.hpp:77] Creating layer inception_3b/5x5
I0403 14:38:12.709712 30049 net.cpp:91] Creating Layer inception_3b/5x5
I0403 14:38:12.709731 30049 net.cpp:425] inception_3b/5x5 <- inception_3b/5x5_reduce
I0403 14:38:12.709754 30049 net.cpp:399] inception_3b/5x5 -> inception_3b/5x5
I0403 14:38:12.711766 30049 net.cpp:141] Setting up inception_3b/5x5
I0403 14:38:12.711798 30049 net.cpp:148] Top shape: 24 96 28 28 (1806336)
I0403 14:38:12.711815 30049 net.cpp:156] Memory required for data: 736986144
I0403 14:38:12.711835 30049 layer_factory.hpp:77] Creating layer inception_3b/relu_5x5
I0403 14:38:12.711856 30049 net.cpp:91] Creating Layer inception_3b/relu_5x5
I0403 14:38:12.711874 30049 net.cpp:425] inception_3b/relu_5x5 <- inception_3b/5x5
I0403 14:38:12.711892 30049 net.cpp:386] inception_3b/relu_5x5 -> inception_3b/5x5 (in-place)
I0403 14:38:12.712090 30049 net.cpp:141] Setting up inception_3b/relu_5x5
I0403 14:38:12.712117 30049 net.cpp:148] Top shape: 24 96 28 28 (1806336)
I0403 14:38:12.712133 30049 net.cpp:156] Memory required for data: 744211488
I0403 14:38:12.712149 30049 layer_factory.hpp:77] Creating layer inception_3b/pool
I0403 14:38:12.712168 30049 net.cpp:91] Creating Layer inception_3b/pool
I0403 14:38:12.712187 30049 net.cpp:425] inception_3b/pool <- inception_3a/output_inception_3a/output_0_split_3
I0403 14:38:12.712206 30049 net.cpp:399] inception_3b/pool -> inception_3b/pool
I0403 14:38:12.712265 30049 net.cpp:141] Setting up inception_3b/pool
I0403 14:38:12.712290 30049 net.cpp:148] Top shape: 24 256 28 28 (4816896)
I0403 14:38:12.712306 30049 net.cpp:156] Memory required for data: 763479072
I0403 14:38:12.712326 30049 layer_factory.hpp:77] Creating layer inception_3b/pool_proj
I0403 14:38:12.712350 30049 net.cpp:91] Creating Layer inception_3b/pool_proj
I0403 14:38:12.712370 30049 net.cpp:425] inception_3b/pool_proj <- inception_3b/pool
I0403 14:38:12.712393 30049 net.cpp:399] inception_3b/pool_proj -> inception_3b/pool_proj
I0403 14:38:12.713520 30049 net.cpp:141] Setting up inception_3b/pool_proj
I0403 14:38:12.713549 30049 net.cpp:148] Top shape: 24 64 28 28 (1204224)
I0403 14:38:12.713567 30049 net.cpp:156] Memory required for data: 768295968
I0403 14:38:12.713587 30049 layer_factory.hpp:77] Creating layer inception_3b/relu_pool_proj
I0403 14:38:12.713606 30049 net.cpp:91] Creating Layer inception_3b/relu_pool_proj
I0403 14:38:12.713631 30049 net.cpp:425] inception_3b/relu_pool_proj <- inception_3b/pool_proj
I0403 14:38:12.713652 30049 net.cpp:386] inception_3b/relu_pool_proj -> inception_3b/pool_proj (in-place)
I0403 14:38:12.714056 30049 net.cpp:141] Setting up inception_3b/relu_pool_proj
I0403 14:38:12.714087 30049 net.cpp:148] Top shape: 24 64 28 28 (1204224)
I0403 14:38:12.714104 30049 net.cpp:156] Memory required for data: 773112864
I0403 14:38:12.714121 30049 layer_factory.hpp:77] Creating layer inception_3b/output
I0403 14:38:12.714139 30049 net.cpp:91] Creating Layer inception_3b/output
I0403 14:38:12.714155 30049 net.cpp:425] inception_3b/output <- inception_3b/1x1
I0403 14:38:12.714174 30049 net.cpp:425] inception_3b/output <- inception_3b/3x3
I0403 14:38:12.714190 30049 net.cpp:425] inception_3b/output <- inception_3b/5x5
I0403 14:38:12.714208 30049 net.cpp:425] inception_3b/output <- inception_3b/pool_proj
I0403 14:38:12.714228 30049 net.cpp:399] inception_3b/output -> inception_3b/output
I0403 14:38:12.714273 30049 net.cpp:141] Setting up inception_3b/output
I0403 14:38:12.714298 30049 net.cpp:148] Top shape: 24 480 28 28 (9031680)
I0403 14:38:12.714318 30049 net.cpp:156] Memory required for data: 809239584
I0403 14:38:12.714335 30049 layer_factory.hpp:77] Creating layer pool3/3x3_s2
I0403 14:38:12.714357 30049 net.cpp:91] Creating Layer pool3/3x3_s2
I0403 14:38:12.714377 30049 net.cpp:425] pool3/3x3_s2 <- inception_3b/output
I0403 14:38:12.714397 30049 net.cpp:399] pool3/3x3_s2 -> pool3/3x3_s2
I0403 14:38:12.714474 30049 net.cpp:141] Setting up pool3/3x3_s2
I0403 14:38:12.714500 30049 net.cpp:148] Top shape: 24 480 14 14 (2257920)
I0403 14:38:12.714517 30049 net.cpp:156] Memory required for data: 818271264
I0403 14:38:12.714534 30049 layer_factory.hpp:77] Creating layer pool3/3x3_s2_pool3/3x3_s2_0_split
I0403 14:38:12.714550 30049 net.cpp:91] Creating Layer pool3/3x3_s2_pool3/3x3_s2_0_split
I0403 14:38:12.714566 30049 net.cpp:425] pool3/3x3_s2_pool3/3x3_s2_0_split <- pool3/3x3_s2
I0403 14:38:12.714591 30049 net.cpp:399] pool3/3x3_s2_pool3/3x3_s2_0_split -> pool3/3x3_s2_pool3/3x3_s2_0_split_0
I0403 14:38:12.714612 30049 net.cpp:399] pool3/3x3_s2_pool3/3x3_s2_0_split -> pool3/3x3_s2_pool3/3x3_s2_0_split_1
I0403 14:38:12.714633 30049 net.cpp:399] pool3/3x3_s2_pool3/3x3_s2_0_split -> pool3/3x3_s2_pool3/3x3_s2_0_split_2
I0403 14:38:12.714654 30049 net.cpp:399] pool3/3x3_s2_pool3/3x3_s2_0_split -> pool3/3x3_s2_pool3/3x3_s2_0_split_3
I0403 14:38:12.714735 30049 net.cpp:141] Setting up pool3/3x3_s2_pool3/3x3_s2_0_split
I0403 14:38:12.714771 30049 net.cpp:148] Top shape: 24 480 14 14 (2257920)
I0403 14:38:12.714792 30049 net.cpp:148] Top shape: 24 480 14 14 (2257920)
I0403 14:38:12.714808 30049 net.cpp:148] Top shape: 24 480 14 14 (2257920)
I0403 14:38:12.714825 30049 net.cpp:148] Top shape: 24 480 14 14 (2257920)
I0403 14:38:12.714840 30049 net.cpp:156] Memory required for data: 854397984
I0403 14:38:12.714856 30049 layer_factory.hpp:77] Creating layer inception_4a/1x1
I0403 14:38:12.714880 30049 net.cpp:91] Creating Layer inception_4a/1x1
I0403 14:38:12.714900 30049 net.cpp:425] inception_4a/1x1 <- pool3/3x3_s2_pool3/3x3_s2_0_split_0
I0403 14:38:12.714925 30049 net.cpp:399] inception_4a/1x1 -> inception_4a/1x1
I0403 14:38:12.716588 30049 net.cpp:141] Setting up inception_4a/1x1
I0403 14:38:12.716619 30049 net.cpp:148] Top shape: 24 192 14 14 (903168)
I0403 14:38:12.716636 30049 net.cpp:156] Memory required for data: 858010656
I0403 14:38:12.716656 30049 layer_factory.hpp:77] Creating layer inception_4a/relu_1x1
I0403 14:38:12.716676 30049 net.cpp:91] Creating Layer inception_4a/relu_1x1
I0403 14:38:12.716694 30049 net.cpp:425] inception_4a/relu_1x1 <- inception_4a/1x1
I0403 14:38:12.716717 30049 net.cpp:386] inception_4a/relu_1x1 -> inception_4a/1x1 (in-place)
I0403 14:38:12.716902 30049 net.cpp:141] Setting up inception_4a/relu_1x1
I0403 14:38:12.716930 30049 net.cpp:148] Top shape: 24 192 14 14 (903168)
I0403 14:38:12.716946 30049 net.cpp:156] Memory required for data: 861623328
I0403 14:38:12.716963 30049 layer_factory.hpp:77] Creating layer inception_4a/3x3_reduce
I0403 14:38:12.716986 30049 net.cpp:91] Creating Layer inception_4a/3x3_reduce
I0403 14:38:12.717005 30049 net.cpp:425] inception_4a/3x3_reduce <- pool3/3x3_s2_pool3/3x3_s2_0_split_1
I0403 14:38:12.717030 30049 net.cpp:399] inception_4a/3x3_reduce -> inception_4a/3x3_reduce
I0403 14:38:12.718381 30049 net.cpp:141] Setting up inception_4a/3x3_reduce
I0403 14:38:12.718411 30049 net.cpp:148] Top shape: 24 96 14 14 (451584)
I0403 14:38:12.718428 30049 net.cpp:156] Memory required for data: 863429664
I0403 14:38:12.718456 30049 layer_factory.hpp:77] Creating layer inception_4a/relu_3x3_reduce
I0403 14:38:12.718479 30049 net.cpp:91] Creating Layer inception_4a/relu_3x3_reduce
I0403 14:38:12.718497 30049 net.cpp:425] inception_4a/relu_3x3_reduce <- inception_4a/3x3_reduce
I0403 14:38:12.718519 30049 net.cpp:386] inception_4a/relu_3x3_reduce -> inception_4a/3x3_reduce (in-place)
I0403 14:38:12.718705 30049 net.cpp:141] Setting up inception_4a/relu_3x3_reduce
I0403 14:38:12.718734 30049 net.cpp:148] Top shape: 24 96 14 14 (451584)
I0403 14:38:12.718750 30049 net.cpp:156] Memory required for data: 865236000
I0403 14:38:12.718767 30049 layer_factory.hpp:77] Creating layer inception_4a/3x3
I0403 14:38:12.718791 30049 net.cpp:91] Creating Layer inception_4a/3x3
I0403 14:38:12.718811 30049 net.cpp:425] inception_4a/3x3 <- inception_4a/3x3_reduce
I0403 14:38:12.718834 30049 net.cpp:399] inception_4a/3x3 -> inception_4a/3x3
I0403 14:38:12.721647 30049 net.cpp:141] Setting up inception_4a/3x3
I0403 14:38:12.721678 30049 net.cpp:148] Top shape: 24 208 14 14 (978432)
I0403 14:38:12.721694 30049 net.cpp:156] Memory required for data: 869149728
I0403 14:38:12.721714 30049 layer_factory.hpp:77] Creating layer inception_4a/relu_3x3
I0403 14:38:12.721736 30049 net.cpp:91] Creating Layer inception_4a/relu_3x3
I0403 14:38:12.721755 30049 net.cpp:425] inception_4a/relu_3x3 <- inception_4a/3x3
I0403 14:38:12.721776 30049 net.cpp:386] inception_4a/relu_3x3 -> inception_4a/3x3 (in-place)
I0403 14:38:12.722060 30049 net.cpp:141] Setting up inception_4a/relu_3x3
I0403 14:38:12.722095 30049 net.cpp:148] Top shape: 24 208 14 14 (978432)
I0403 14:38:12.722115 30049 net.cpp:156] Memory required for data: 873063456
I0403 14:38:12.722131 30049 layer_factory.hpp:77] Creating layer inception_4a/5x5_reduce
I0403 14:38:12.722154 30049 net.cpp:91] Creating Layer inception_4a/5x5_reduce
I0403 14:38:12.722172 30049 net.cpp:425] inception_4a/5x5_reduce <- pool3/3x3_s2_pool3/3x3_s2_0_split_2
I0403 14:38:12.722196 30049 net.cpp:399] inception_4a/5x5_reduce -> inception_4a/5x5_reduce
I0403 14:38:12.723281 30049 net.cpp:141] Setting up inception_4a/5x5_reduce
I0403 14:38:12.723310 30049 net.cpp:148] Top shape: 24 16 14 14 (75264)
I0403 14:38:12.723332 30049 net.cpp:156] Memory required for data: 873364512
I0403 14:38:12.723352 30049 layer_factory.hpp:77] Creating layer inception_4a/relu_5x5_reduce
I0403 14:38:12.723374 30049 net.cpp:91] Creating Layer inception_4a/relu_5x5_reduce
I0403 14:38:12.723392 30049 net.cpp:425] inception_4a/relu_5x5_reduce <- inception_4a/5x5_reduce
I0403 14:38:12.723410 30049 net.cpp:386] inception_4a/relu_5x5_reduce -> inception_4a/5x5_reduce (in-place)
I0403 14:38:12.723598 30049 net.cpp:141] Setting up inception_4a/relu_5x5_reduce
I0403 14:38:12.723628 30049 net.cpp:148] Top shape: 24 16 14 14 (75264)
I0403 14:38:12.723644 30049 net.cpp:156] Memory required for data: 873665568
I0403 14:38:12.723661 30049 layer_factory.hpp:77] Creating layer inception_4a/5x5
I0403 14:38:12.723685 30049 net.cpp:91] Creating Layer inception_4a/5x5
I0403 14:38:12.723701 30049 net.cpp:425] inception_4a/5x5 <- inception_4a/5x5_reduce
I0403 14:38:12.723724 30049 net.cpp:399] inception_4a/5x5 -> inception_4a/5x5
I0403 14:38:12.724882 30049 net.cpp:141] Setting up inception_4a/5x5
I0403 14:38:12.724915 30049 net.cpp:148] Top shape: 24 48 14 14 (225792)
I0403 14:38:12.724933 30049 net.cpp:156] Memory required for data: 874568736
I0403 14:38:12.724954 30049 layer_factory.hpp:77] Creating layer inception_4a/relu_5x5
I0403 14:38:12.724973 30049 net.cpp:91] Creating Layer inception_4a/relu_5x5
I0403 14:38:12.724992 30049 net.cpp:425] inception_4a/relu_5x5 <- inception_4a/5x5
I0403 14:38:12.725013 30049 net.cpp:386] inception_4a/relu_5x5 -> inception_4a/5x5 (in-place)
I0403 14:38:12.725203 30049 net.cpp:141] Setting up inception_4a/relu_5x5
I0403 14:38:12.725230 30049 net.cpp:148] Top shape: 24 48 14 14 (225792)
I0403 14:38:12.725247 30049 net.cpp:156] Memory required for data: 875471904
I0403 14:38:12.725263 30049 layer_factory.hpp:77] Creating layer inception_4a/pool
I0403 14:38:12.725283 30049 net.cpp:91] Creating Layer inception_4a/pool
I0403 14:38:12.725301 30049 net.cpp:425] inception_4a/pool <- pool3/3x3_s2_pool3/3x3_s2_0_split_3
I0403 14:38:12.725337 30049 net.cpp:399] inception_4a/pool -> inception_4a/pool
I0403 14:38:12.725414 30049 net.cpp:141] Setting up inception_4a/pool
I0403 14:38:12.725440 30049 net.cpp:148] Top shape: 24 480 14 14 (2257920)
I0403 14:38:12.725455 30049 net.cpp:156] Memory required for data: 884503584
I0403 14:38:12.725472 30049 layer_factory.hpp:77] Creating layer inception_4a/pool_proj
I0403 14:38:12.725498 30049 net.cpp:91] Creating Layer inception_4a/pool_proj
I0403 14:38:12.725517 30049 net.cpp:425] inception_4a/pool_proj <- inception_4a/pool
I0403 14:38:12.725538 30049 net.cpp:399] inception_4a/pool_proj -> inception_4a/pool_proj
I0403 14:38:12.726786 30049 net.cpp:141] Setting up inception_4a/pool_proj
I0403 14:38:12.726819 30049 net.cpp:148] Top shape: 24 64 14 14 (301056)
I0403 14:38:12.726851 30049 net.cpp:156] Memory required for data: 885707808
I0403 14:38:12.726873 30049 layer_factory.hpp:77] Creating layer inception_4a/relu_pool_proj
I0403 14:38:12.726892 30049 net.cpp:91] Creating Layer inception_4a/relu_pool_proj
I0403 14:38:12.726910 30049 net.cpp:425] inception_4a/relu_pool_proj <- inception_4a/pool_proj
I0403 14:38:12.726932 30049 net.cpp:386] inception_4a/relu_pool_proj -> inception_4a/pool_proj (in-place)
I0403 14:38:12.727237 30049 net.cpp:141] Setting up inception_4a/relu_pool_proj
I0403 14:38:12.727267 30049 net.cpp:148] Top shape: 24 64 14 14 (301056)
I0403 14:38:12.727283 30049 net.cpp:156] Memory required for data: 886912032
I0403 14:38:12.727300 30049 layer_factory.hpp:77] Creating layer inception_4a/output
I0403 14:38:12.727324 30049 net.cpp:91] Creating Layer inception_4a/output
I0403 14:38:12.727344 30049 net.cpp:425] inception_4a/output <- inception_4a/1x1
I0403 14:38:12.727363 30049 net.cpp:425] inception_4a/output <- inception_4a/3x3
I0403 14:38:12.727380 30049 net.cpp:425] inception_4a/output <- inception_4a/5x5
I0403 14:38:12.727398 30049 net.cpp:425] inception_4a/output <- inception_4a/pool_proj
I0403 14:38:12.727419 30049 net.cpp:399] inception_4a/output -> inception_4a/output
I0403 14:38:12.727468 30049 net.cpp:141] Setting up inception_4a/output
I0403 14:38:12.727495 30049 net.cpp:148] Top shape: 24 512 14 14 (2408448)
I0403 14:38:12.727511 30049 net.cpp:156] Memory required for data: 896545824
I0403 14:38:12.727529 30049 layer_factory.hpp:77] Creating layer inception_4a/output_inception_4a/output_0_split
I0403 14:38:12.727548 30049 net.cpp:91] Creating Layer inception_4a/output_inception_4a/output_0_split
I0403 14:38:12.727566 30049 net.cpp:425] inception_4a/output_inception_4a/output_0_split <- inception_4a/output
I0403 14:38:12.727588 30049 net.cpp:399] inception_4a/output_inception_4a/output_0_split -> inception_4a/output_inception_4a/output_0_split_0
I0403 14:38:12.727612 30049 net.cpp:399] inception_4a/output_inception_4a/output_0_split -> inception_4a/output_inception_4a/output_0_split_1
I0403 14:38:12.727632 30049 net.cpp:399] inception_4a/output_inception_4a/output_0_split -> inception_4a/output_inception_4a/output_0_split_2
I0403 14:38:12.727655 30049 net.cpp:399] inception_4a/output_inception_4a/output_0_split -> inception_4a/output_inception_4a/output_0_split_3
I0403 14:38:12.727676 30049 net.cpp:399] inception_4a/output_inception_4a/output_0_split -> inception_4a/output_inception_4a/output_0_split_4
I0403 14:38:12.727774 30049 net.cpp:141] Setting up inception_4a/output_inception_4a/output_0_split
I0403 14:38:12.727800 30049 net.cpp:148] Top shape: 24 512 14 14 (2408448)
I0403 14:38:12.727818 30049 net.cpp:148] Top shape: 24 512 14 14 (2408448)
I0403 14:38:12.727836 30049 net.cpp:148] Top shape: 24 512 14 14 (2408448)
I0403 14:38:12.727854 30049 net.cpp:148] Top shape: 24 512 14 14 (2408448)
I0403 14:38:12.727870 30049 net.cpp:148] Top shape: 24 512 14 14 (2408448)
I0403 14:38:12.727887 30049 net.cpp:156] Memory required for data: 944714784
I0403 14:38:12.727905 30049 layer_factory.hpp:77] Creating layer loss1/ave_pool
I0403 14:38:12.727926 30049 net.cpp:91] Creating Layer loss1/ave_pool
I0403 14:38:12.727943 30049 net.cpp:425] loss1/ave_pool <- inception_4a/output_inception_4a/output_0_split_0
I0403 14:38:12.727963 30049 net.cpp:399] loss1/ave_pool -> loss1/ave_pool
I0403 14:38:12.728191 30049 net.cpp:141] Setting up loss1/ave_pool
I0403 14:38:12.728220 30049 net.cpp:148] Top shape: 24 512 4 4 (196608)
I0403 14:38:12.728237 30049 net.cpp:156] Memory required for data: 945501216
I0403 14:38:12.728253 30049 layer_factory.hpp:77] Creating layer loss1/conv
I0403 14:38:12.728278 30049 net.cpp:91] Creating Layer loss1/conv
I0403 14:38:12.728298 30049 net.cpp:425] loss1/conv <- loss1/ave_pool
I0403 14:38:12.728327 30049 net.cpp:399] loss1/conv -> loss1/conv
I0403 14:38:12.729835 30049 net.cpp:141] Setting up loss1/conv
I0403 14:38:12.729866 30049 net.cpp:148] Top shape: 24 128 4 4 (49152)
I0403 14:38:12.729883 30049 net.cpp:156] Memory required for data: 945697824
I0403 14:38:12.729918 30049 layer_factory.hpp:77] Creating layer loss1/relu_conv
I0403 14:38:12.729946 30049 net.cpp:91] Creating Layer loss1/relu_conv
I0403 14:38:12.729964 30049 net.cpp:425] loss1/relu_conv <- loss1/conv
I0403 14:38:12.729984 30049 net.cpp:386] loss1/relu_conv -> loss1/conv (in-place)
I0403 14:38:12.730293 30049 net.cpp:141] Setting up loss1/relu_conv
I0403 14:38:12.730326 30049 net.cpp:148] Top shape: 24 128 4 4 (49152)
I0403 14:38:12.730345 30049 net.cpp:156] Memory required for data: 945894432
I0403 14:38:12.730361 30049 layer_factory.hpp:77] Creating layer loss1/fc
I0403 14:38:12.730391 30049 net.cpp:91] Creating Layer loss1/fc
I0403 14:38:12.730411 30049 net.cpp:425] loss1/fc <- loss1/conv
I0403 14:38:12.730434 30049 net.cpp:399] loss1/fc -> loss1/fc
I0403 14:38:12.748548 30049 net.cpp:141] Setting up loss1/fc
I0403 14:38:12.748596 30049 net.cpp:148] Top shape: 24 1024 (24576)
I0403 14:38:12.748612 30049 net.cpp:156] Memory required for data: 945992736
I0403 14:38:12.748632 30049 layer_factory.hpp:77] Creating layer loss1/relu_fc
I0403 14:38:12.748652 30049 net.cpp:91] Creating Layer loss1/relu_fc
I0403 14:38:12.748669 30049 net.cpp:425] loss1/relu_fc <- loss1/fc
I0403 14:38:12.748692 30049 net.cpp:386] loss1/relu_fc -> loss1/fc (in-place)
I0403 14:38:12.748895 30049 net.cpp:141] Setting up loss1/relu_fc
I0403 14:38:12.748931 30049 net.cpp:148] Top shape: 24 1024 (24576)
I0403 14:38:12.748947 30049 net.cpp:156] Memory required for data: 946091040
I0403 14:38:12.748963 30049 layer_factory.hpp:77] Creating layer loss1/drop_fc
I0403 14:38:12.748996 30049 net.cpp:91] Creating Layer loss1/drop_fc
I0403 14:38:12.749014 30049 net.cpp:425] loss1/drop_fc <- loss1/fc
I0403 14:38:12.749034 30049 net.cpp:386] loss1/drop_fc -> loss1/fc (in-place)
I0403 14:38:12.749086 30049 net.cpp:141] Setting up loss1/drop_fc
I0403 14:38:12.749114 30049 net.cpp:148] Top shape: 24 1024 (24576)
I0403 14:38:12.749130 30049 net.cpp:156] Memory required for data: 946189344
I0403 14:38:12.749146 30049 layer_factory.hpp:77] Creating layer loss1/classifier_plantvillage
I0403 14:38:12.749166 30049 net.cpp:91] Creating Layer loss1/classifier_plantvillage
I0403 14:38:12.749183 30049 net.cpp:425] loss1/classifier_plantvillage <- loss1/fc
I0403 14:38:12.749207 30049 net.cpp:399] loss1/classifier_plantvillage -> loss1/classifier_plantvillage
I0403 14:38:12.750118 30049 net.cpp:141] Setting up loss1/classifier_plantvillage
I0403 14:38:12.750146 30049 net.cpp:148] Top shape: 24 38 (912)
I0403 14:38:12.750162 30049 net.cpp:156] Memory required for data: 946192992
I0403 14:38:12.750181 30049 layer_factory.hpp:77] Creating layer loss1/classifier_plantvillage_loss1/classifier_plantvillage_0_split
I0403 14:38:12.750200 30049 net.cpp:91] Creating Layer loss1/classifier_plantvillage_loss1/classifier_plantvillage_0_split
I0403 14:38:12.750216 30049 net.cpp:425] loss1/classifier_plantvillage_loss1/classifier_plantvillage_0_split <- loss1/classifier_plantvillage
I0403 14:38:12.750236 30049 net.cpp:399] loss1/classifier_plantvillage_loss1/classifier_plantvillage_0_split -> loss1/classifier_plantvillage_loss1/classifier_plantvillage_0_split_0
I0403 14:38:12.750258 30049 net.cpp:399] loss1/classifier_plantvillage_loss1/classifier_plantvillage_0_split -> loss1/classifier_plantvillage_loss1/classifier_plantvillage_0_split_1
I0403 14:38:12.750278 30049 net.cpp:399] loss1/classifier_plantvillage_loss1/classifier_plantvillage_0_split -> loss1/classifier_plantvillage_loss1/classifier_plantvillage_0_split_2
I0403 14:38:12.750349 30049 net.cpp:141] Setting up loss1/classifier_plantvillage_loss1/classifier_plantvillage_0_split
I0403 14:38:12.750373 30049 net.cpp:148] Top shape: 24 38 (912)
I0403 14:38:12.750391 30049 net.cpp:148] Top shape: 24 38 (912)
I0403 14:38:12.750406 30049 net.cpp:148] Top shape: 24 38 (912)
I0403 14:38:12.750421 30049 net.cpp:156] Memory required for data: 946203936
I0403 14:38:12.750435 30049 layer_factory.hpp:77] Creating layer inception_4b/1x1
I0403 14:38:12.750458 30049 net.cpp:91] Creating Layer inception_4b/1x1
I0403 14:38:12.750499 30049 net.cpp:425] inception_4b/1x1 <- inception_4a/output_inception_4a/output_0_split_1
I0403 14:38:12.750521 30049 net.cpp:399] inception_4b/1x1 -> inception_4b/1x1
I0403 14:38:12.752172 30049 net.cpp:141] Setting up inception_4b/1x1
I0403 14:38:12.752202 30049 net.cpp:148] Top shape: 24 160 14 14 (752640)
I0403 14:38:12.752218 30049 net.cpp:156] Memory required for data: 949214496
I0403 14:38:12.752236 30049 layer_factory.hpp:77] Creating layer inception_4b/relu_1x1
I0403 14:38:12.752257 30049 net.cpp:91] Creating Layer inception_4b/relu_1x1
I0403 14:38:12.752274 30049 net.cpp:425] inception_4b/relu_1x1 <- inception_4b/1x1
I0403 14:38:12.752291 30049 net.cpp:386] inception_4b/relu_1x1 -> inception_4b/1x1 (in-place)
I0403 14:38:12.752488 30049 net.cpp:141] Setting up inception_4b/relu_1x1
I0403 14:38:12.752517 30049 net.cpp:148] Top shape: 24 160 14 14 (752640)
I0403 14:38:12.752534 30049 net.cpp:156] Memory required for data: 952225056
I0403 14:38:12.752550 30049 layer_factory.hpp:77] Creating layer inception_4b/3x3_reduce
I0403 14:38:12.752573 30049 net.cpp:91] Creating Layer inception_4b/3x3_reduce
I0403 14:38:12.752591 30049 net.cpp:425] inception_4b/3x3_reduce <- inception_4a/output_inception_4a/output_0_split_2
I0403 14:38:12.752611 30049 net.cpp:399] inception_4b/3x3_reduce -> inception_4b/3x3_reduce
I0403 14:38:12.753943 30049 net.cpp:141] Setting up inception_4b/3x3_reduce
I0403 14:38:12.753974 30049 net.cpp:148] Top shape: 24 112 14 14 (526848)
I0403 14:38:12.754004 30049 net.cpp:156] Memory required for data: 954332448
I0403 14:38:12.754024 30049 layer_factory.hpp:77] Creating layer inception_4b/relu_3x3_reduce
I0403 14:38:12.754045 30049 net.cpp:91] Creating Layer inception_4b/relu_3x3_reduce
I0403 14:38:12.754061 30049 net.cpp:425] inception_4b/relu_3x3_reduce <- inception_4b/3x3_reduce
I0403 14:38:12.754079 30049 net.cpp:386] inception_4b/relu_3x3_reduce -> inception_4b/3x3_reduce (in-place)
I0403 14:38:12.754384 30049 net.cpp:141] Setting up inception_4b/relu_3x3_reduce
I0403 14:38:12.754412 30049 net.cpp:148] Top shape: 24 112 14 14 (526848)
I0403 14:38:12.754429 30049 net.cpp:156] Memory required for data: 956439840
I0403 14:38:12.754446 30049 layer_factory.hpp:77] Creating layer inception_4b/3x3
I0403 14:38:12.754468 30049 net.cpp:91] Creating Layer inception_4b/3x3
I0403 14:38:12.754485 30049 net.cpp:425] inception_4b/3x3 <- inception_4b/3x3_reduce
I0403 14:38:12.754505 30049 net.cpp:399] inception_4b/3x3 -> inception_4b/3x3
I0403 14:38:12.757444 30049 net.cpp:141] Setting up inception_4b/3x3
I0403 14:38:12.757475 30049 net.cpp:148] Top shape: 24 224 14 14 (1053696)
I0403 14:38:12.757493 30049 net.cpp:156] Memory required for data: 960654624
I0403 14:38:12.757511 30049 layer_factory.hpp:77] Creating layer inception_4b/relu_3x3
I0403 14:38:12.757530 30049 net.cpp:91] Creating Layer inception_4b/relu_3x3
I0403 14:38:12.757547 30049 net.cpp:425] inception_4b/relu_3x3 <- inception_4b/3x3
I0403 14:38:12.757567 30049 net.cpp:386] inception_4b/relu_3x3 -> inception_4b/3x3 (in-place)
I0403 14:38:12.757761 30049 net.cpp:141] Setting up inception_4b/relu_3x3
I0403 14:38:12.757786 30049 net.cpp:148] Top shape: 24 224 14 14 (1053696)
I0403 14:38:12.757802 30049 net.cpp:156] Memory required for data: 964869408
I0403 14:38:12.757817 30049 layer_factory.hpp:77] Creating layer inception_4b/5x5_reduce
I0403 14:38:12.757840 30049 net.cpp:91] Creating Layer inception_4b/5x5_reduce
I0403 14:38:12.757858 30049 net.cpp:425] inception_4b/5x5_reduce <- inception_4a/output_inception_4a/output_0_split_3
I0403 14:38:12.757880 30049 net.cpp:399] inception_4b/5x5_reduce -> inception_4b/5x5_reduce
I0403 14:38:12.758955 30049 net.cpp:141] Setting up inception_4b/5x5_reduce
I0403 14:38:12.758985 30049 net.cpp:148] Top shape: 24 24 14 14 (112896)
I0403 14:38:12.759001 30049 net.cpp:156] Memory required for data: 965320992
I0403 14:38:12.759018 30049 layer_factory.hpp:77] Creating layer inception_4b/relu_5x5_reduce
I0403 14:38:12.759037 30049 net.cpp:91] Creating Layer inception_4b/relu_5x5_reduce
I0403 14:38:12.759069 30049 net.cpp:425] inception_4b/relu_5x5_reduce <- inception_4b/5x5_reduce
I0403 14:38:12.759089 30049 net.cpp:386] inception_4b/relu_5x5_reduce -> inception_4b/5x5_reduce (in-place)
I0403 14:38:12.759286 30049 net.cpp:141] Setting up inception_4b/relu_5x5_reduce
I0403 14:38:12.759323 30049 net.cpp:148] Top shape: 24 24 14 14 (112896)
I0403 14:38:12.759356 30049 net.cpp:156] Memory required for data: 965772576
I0403 14:38:12.759372 30049 layer_factory.hpp:77] Creating layer inception_4b/5x5
I0403 14:38:12.759397 30049 net.cpp:91] Creating Layer inception_4b/5x5
I0403 14:38:12.759414 30049 net.cpp:425] inception_4b/5x5 <- inception_4b/5x5_reduce
I0403 14:38:12.759436 30049 net.cpp:399] inception_4b/5x5 -> inception_4b/5x5
I0403 14:38:12.760682 30049 net.cpp:141] Setting up inception_4b/5x5
I0403 14:38:12.760711 30049 net.cpp:148] Top shape: 24 64 14 14 (301056)
I0403 14:38:12.760727 30049 net.cpp:156] Memory required for data: 966976800
I0403 14:38:12.760746 30049 layer_factory.hpp:77] Creating layer inception_4b/relu_5x5
I0403 14:38:12.760767 30049 net.cpp:91] Creating Layer inception_4b/relu_5x5
I0403 14:38:12.760785 30049 net.cpp:425] inception_4b/relu_5x5 <- inception_4b/5x5
I0403 14:38:12.760803 30049 net.cpp:386] inception_4b/relu_5x5 -> inception_4b/5x5 (in-place)
I0403 14:38:12.761107 30049 net.cpp:141] Setting up inception_4b/relu_5x5
I0403 14:38:12.761137 30049 net.cpp:148] Top shape: 24 64 14 14 (301056)
I0403 14:38:12.761152 30049 net.cpp:156] Memory required for data: 968181024
I0403 14:38:12.761168 30049 layer_factory.hpp:77] Creating layer inception_4b/pool
I0403 14:38:12.761193 30049 net.cpp:91] Creating Layer inception_4b/pool
I0403 14:38:12.761212 30049 net.cpp:425] inception_4b/pool <- inception_4a/output_inception_4a/output_0_split_4
I0403 14:38:12.761234 30049 net.cpp:399] inception_4b/pool -> inception_4b/pool
I0403 14:38:12.761301 30049 net.cpp:141] Setting up inception_4b/pool
I0403 14:38:12.761340 30049 net.cpp:148] Top shape: 24 512 14 14 (2408448)
I0403 14:38:12.761359 30049 net.cpp:156] Memory required for data: 977814816
I0403 14:38:12.761375 30049 layer_factory.hpp:77] Creating layer inception_4b/pool_proj
I0403 14:38:12.761399 30049 net.cpp:91] Creating Layer inception_4b/pool_proj
I0403 14:38:12.761417 30049 net.cpp:425] inception_4b/pool_proj <- inception_4b/pool
I0403 14:38:12.761441 30049 net.cpp:399] inception_4b/pool_proj -> inception_4b/pool_proj
I0403 14:38:12.762676 30049 net.cpp:141] Setting up inception_4b/pool_proj
I0403 14:38:12.762704 30049 net.cpp:148] Top shape: 24 64 14 14 (301056)
I0403 14:38:12.762720 30049 net.cpp:156] Memory required for data: 979019040
I0403 14:38:12.762739 30049 layer_factory.hpp:77] Creating layer inception_4b/relu_pool_proj
I0403 14:38:12.762761 30049 net.cpp:91] Creating Layer inception_4b/relu_pool_proj
I0403 14:38:12.762780 30049 net.cpp:425] inception_4b/relu_pool_proj <- inception_4b/pool_proj
I0403 14:38:12.762811 30049 net.cpp:386] inception_4b/relu_pool_proj -> inception_4b/pool_proj (in-place)
I0403 14:38:12.763000 30049 net.cpp:141] Setting up inception_4b/relu_pool_proj
I0403 14:38:12.763027 30049 net.cpp:148] Top shape: 24 64 14 14 (301056)
I0403 14:38:12.763044 30049 net.cpp:156] Memory required for data: 980223264
I0403 14:38:12.763061 30049 layer_factory.hpp:77] Creating layer inception_4b/output
I0403 14:38:12.763079 30049 net.cpp:91] Creating Layer inception_4b/output
I0403 14:38:12.763097 30049 net.cpp:425] inception_4b/output <- inception_4b/1x1
I0403 14:38:12.763114 30049 net.cpp:425] inception_4b/output <- inception_4b/3x3
I0403 14:38:12.763144 30049 net.cpp:425] inception_4b/output <- inception_4b/5x5
I0403 14:38:12.763160 30049 net.cpp:425] inception_4b/output <- inception_4b/pool_proj
I0403 14:38:12.763180 30049 net.cpp:399] inception_4b/output -> inception_4b/output
I0403 14:38:12.763226 30049 net.cpp:141] Setting up inception_4b/output
I0403 14:38:12.763253 30049 net.cpp:148] Top shape: 24 512 14 14 (2408448)
I0403 14:38:12.763269 30049 net.cpp:156] Memory required for data: 989857056
I0403 14:38:12.763301 30049 layer_factory.hpp:77] Creating layer inception_4b/output_inception_4b/output_0_split
I0403 14:38:12.763331 30049 net.cpp:91] Creating Layer inception_4b/output_inception_4b/output_0_split
I0403 14:38:12.763351 30049 net.cpp:425] inception_4b/output_inception_4b/output_0_split <- inception_4b/output
I0403 14:38:12.763370 30049 net.cpp:399] inception_4b/output_inception_4b/output_0_split -> inception_4b/output_inception_4b/output_0_split_0
I0403 14:38:12.763391 30049 net.cpp:399] inception_4b/output_inception_4b/output_0_split -> inception_4b/output_inception_4b/output_0_split_1
I0403 14:38:12.763416 30049 net.cpp:399] inception_4b/output_inception_4b/output_0_split -> inception_4b/output_inception_4b/output_0_split_2
I0403 14:38:12.763438 30049 net.cpp:399] inception_4b/output_inception_4b/output_0_split -> inception_4b/output_inception_4b/output_0_split_3
I0403 14:38:12.763522 30049 net.cpp:141] Setting up inception_4b/output_inception_4b/output_0_split
I0403 14:38:12.763546 30049 net.cpp:148] Top shape: 24 512 14 14 (2408448)
I0403 14:38:12.763563 30049 net.cpp:148] Top shape: 24 512 14 14 (2408448)
I0403 14:38:12.763579 30049 net.cpp:148] Top shape: 24 512 14 14 (2408448)
I0403 14:38:12.763597 30049 net.cpp:148] Top shape: 24 512 14 14 (2408448)
I0403 14:38:12.763612 30049 net.cpp:156] Memory required for data: 1028392224
I0403 14:38:12.763628 30049 layer_factory.hpp:77] Creating layer inception_4c/1x1
I0403 14:38:12.763649 30049 net.cpp:91] Creating Layer inception_4c/1x1
I0403 14:38:12.763667 30049 net.cpp:425] inception_4c/1x1 <- inception_4b/output_inception_4b/output_0_split_0
I0403 14:38:12.763689 30049 net.cpp:399] inception_4c/1x1 -> inception_4c/1x1
I0403 14:38:12.765161 30049 net.cpp:141] Setting up inception_4c/1x1
I0403 14:38:12.765190 30049 net.cpp:148] Top shape: 24 128 14 14 (602112)
I0403 14:38:12.765208 30049 net.cpp:156] Memory required for data: 1030800672
I0403 14:38:12.765226 30049 layer_factory.hpp:77] Creating layer inception_4c/relu_1x1
I0403 14:38:12.765246 30049 net.cpp:91] Creating Layer inception_4c/relu_1x1
I0403 14:38:12.765264 30049 net.cpp:425] inception_4c/relu_1x1 <- inception_4c/1x1
I0403 14:38:12.765283 30049 net.cpp:386] inception_4c/relu_1x1 -> inception_4c/1x1 (in-place)
I0403 14:38:12.765475 30049 net.cpp:141] Setting up inception_4c/relu_1x1
I0403 14:38:12.765501 30049 net.cpp:148] Top shape: 24 128 14 14 (602112)
I0403 14:38:12.765516 30049 net.cpp:156] Memory required for data: 1033209120
I0403 14:38:12.765532 30049 layer_factory.hpp:77] Creating layer inception_4c/3x3_reduce
I0403 14:38:12.765555 30049 net.cpp:91] Creating Layer inception_4c/3x3_reduce
I0403 14:38:12.765573 30049 net.cpp:425] inception_4c/3x3_reduce <- inception_4b/output_inception_4b/output_0_split_1
I0403 14:38:12.765596 30049 net.cpp:399] inception_4c/3x3_reduce -> inception_4c/3x3_reduce
I0403 14:38:12.767581 30049 net.cpp:141] Setting up inception_4c/3x3_reduce
I0403 14:38:12.767611 30049 net.cpp:148] Top shape: 24 128 14 14 (602112)
I0403 14:38:12.767627 30049 net.cpp:156] Memory required for data: 1035617568
I0403 14:38:12.767645 30049 layer_factory.hpp:77] Creating layer inception_4c/relu_3x3_reduce
I0403 14:38:12.767666 30049 net.cpp:91] Creating Layer inception_4c/relu_3x3_reduce
I0403 14:38:12.767684 30049 net.cpp:425] inception_4c/relu_3x3_reduce <- inception_4c/3x3_reduce
I0403 14:38:12.767702 30049 net.cpp:386] inception_4c/relu_3x3_reduce -> inception_4c/3x3_reduce (in-place)
I0403 14:38:12.768000 30049 net.cpp:141] Setting up inception_4c/relu_3x3_reduce
I0403 14:38:12.768029 30049 net.cpp:148] Top shape: 24 128 14 14 (602112)
I0403 14:38:12.768046 30049 net.cpp:156] Memory required for data: 1038026016
I0403 14:38:12.768064 30049 layer_factory.hpp:77] Creating layer inception_4c/3x3
I0403 14:38:12.768087 30049 net.cpp:91] Creating Layer inception_4c/3x3
I0403 14:38:12.768106 30049 net.cpp:425] inception_4c/3x3 <- inception_4c/3x3_reduce
I0403 14:38:12.768131 30049 net.cpp:399] inception_4c/3x3 -> inception_4c/3x3
I0403 14:38:12.771842 30049 net.cpp:141] Setting up inception_4c/3x3
I0403 14:38:12.771886 30049 net.cpp:148] Top shape: 24 256 14 14 (1204224)
I0403 14:38:12.771903 30049 net.cpp:156] Memory required for data: 1042842912
I0403 14:38:12.771939 30049 layer_factory.hpp:77] Creating layer inception_4c/relu_3x3
I0403 14:38:12.771961 30049 net.cpp:91] Creating Layer inception_4c/relu_3x3
I0403 14:38:12.771981 30049 net.cpp:425] inception_4c/relu_3x3 <- inception_4c/3x3
I0403 14:38:12.771999 30049 net.cpp:386] inception_4c/relu_3x3 -> inception_4c/3x3 (in-place)
I0403 14:38:12.772187 30049 net.cpp:141] Setting up inception_4c/relu_3x3
I0403 14:38:12.772217 30049 net.cpp:148] Top shape: 24 256 14 14 (1204224)
I0403 14:38:12.772234 30049 net.cpp:156] Memory required for data: 1047659808
I0403 14:38:12.772249 30049 layer_factory.hpp:77] Creating layer inception_4c/5x5_reduce
I0403 14:38:12.772275 30049 net.cpp:91] Creating Layer inception_4c/5x5_reduce
I0403 14:38:12.772295 30049 net.cpp:425] inception_4c/5x5_reduce <- inception_4b/output_inception_4b/output_0_split_2
I0403 14:38:12.772321 30049 net.cpp:399] inception_4c/5x5_reduce -> inception_4c/5x5_reduce
I0403 14:38:12.773458 30049 net.cpp:141] Setting up inception_4c/5x5_reduce
I0403 14:38:12.773488 30049 net.cpp:148] Top shape: 24 24 14 14 (112896)
I0403 14:38:12.773509 30049 net.cpp:156] Memory required for data: 1048111392
I0403 14:38:12.773529 30049 layer_factory.hpp:77] Creating layer inception_4c/relu_5x5_reduce
I0403 14:38:12.773548 30049 net.cpp:91] Creating Layer inception_4c/relu_5x5_reduce
I0403 14:38:12.773566 30049 net.cpp:425] inception_4c/relu_5x5_reduce <- inception_4c/5x5_reduce
I0403 14:38:12.773584 30049 net.cpp:386] inception_4c/relu_5x5_reduce -> inception_4c/5x5_reduce (in-place)
I0403 14:38:12.773783 30049 net.cpp:141] Setting up inception_4c/relu_5x5_reduce
I0403 14:38:12.773813 30049 net.cpp:148] Top shape: 24 24 14 14 (112896)
I0403 14:38:12.773829 30049 net.cpp:156] Memory required for data: 1048562976
I0403 14:38:12.773846 30049 layer_factory.hpp:77] Creating layer inception_4c/5x5
I0403 14:38:12.773869 30049 net.cpp:91] Creating Layer inception_4c/5x5
I0403 14:38:12.773890 30049 net.cpp:425] inception_4c/5x5 <- inception_4c/5x5_reduce
I0403 14:38:12.773910 30049 net.cpp:399] inception_4c/5x5 -> inception_4c/5x5
I0403 14:38:12.775197 30049 net.cpp:141] Setting up inception_4c/5x5
I0403 14:38:12.775226 30049 net.cpp:148] Top shape: 24 64 14 14 (301056)
I0403 14:38:12.775243 30049 net.cpp:156] Memory required for data: 1049767200
I0403 14:38:12.775262 30049 layer_factory.hpp:77] Creating layer inception_4c/relu_5x5
I0403 14:38:12.775281 30049 net.cpp:91] Creating Layer inception_4c/relu_5x5
I0403 14:38:12.775300 30049 net.cpp:425] inception_4c/relu_5x5 <- inception_4c/5x5
I0403 14:38:12.775327 30049 net.cpp:386] inception_4c/relu_5x5 -> inception_4c/5x5 (in-place)
I0403 14:38:12.775627 30049 net.cpp:141] Setting up inception_4c/relu_5x5
I0403 14:38:12.775655 30049 net.cpp:148] Top shape: 24 64 14 14 (301056)
I0403 14:38:12.775671 30049 net.cpp:156] Memory required for data: 1050971424
I0403 14:38:12.775688 30049 layer_factory.hpp:77] Creating layer inception_4c/pool
I0403 14:38:12.775708 30049 net.cpp:91] Creating Layer inception_4c/pool
I0403 14:38:12.775725 30049 net.cpp:425] inception_4c/pool <- inception_4b/output_inception_4b/output_0_split_3
I0403 14:38:12.775746 30049 net.cpp:399] inception_4c/pool -> inception_4c/pool
I0403 14:38:12.775815 30049 net.cpp:141] Setting up inception_4c/pool
I0403 14:38:12.775841 30049 net.cpp:148] Top shape: 24 512 14 14 (2408448)
I0403 14:38:12.775857 30049 net.cpp:156] Memory required for data: 1060605216
I0403 14:38:12.775874 30049 layer_factory.hpp:77] Creating layer inception_4c/pool_proj
I0403 14:38:12.775899 30049 net.cpp:91] Creating Layer inception_4c/pool_proj
I0403 14:38:12.775918 30049 net.cpp:425] inception_4c/pool_proj <- inception_4c/pool
I0403 14:38:12.775938 30049 net.cpp:399] inception_4c/pool_proj -> inception_4c/pool_proj
I0403 14:38:12.777209 30049 net.cpp:141] Setting up inception_4c/pool_proj
I0403 14:38:12.777237 30049 net.cpp:148] Top shape: 24 64 14 14 (301056)
I0403 14:38:12.777269 30049 net.cpp:156] Memory required for data: 1061809440
I0403 14:38:12.777292 30049 layer_factory.hpp:77] Creating layer inception_4c/relu_pool_proj
I0403 14:38:12.777335 30049 net.cpp:91] Creating Layer inception_4c/relu_pool_proj
I0403 14:38:12.777356 30049 net.cpp:425] inception_4c/relu_pool_proj <- inception_4c/pool_proj
I0403 14:38:12.777374 30049 net.cpp:386] inception_4c/relu_pool_proj -> inception_4c/pool_proj (in-place)
I0403 14:38:12.777576 30049 net.cpp:141] Setting up inception_4c/relu_pool_proj
I0403 14:38:12.777603 30049 net.cpp:148] Top shape: 24 64 14 14 (301056)
I0403 14:38:12.777619 30049 net.cpp:156] Memory required for data: 1063013664
I0403 14:38:12.777636 30049 layer_factory.hpp:77] Creating layer inception_4c/output
I0403 14:38:12.777662 30049 net.cpp:91] Creating Layer inception_4c/output
I0403 14:38:12.777679 30049 net.cpp:425] inception_4c/output <- inception_4c/1x1
I0403 14:38:12.777707 30049 net.cpp:425] inception_4c/output <- inception_4c/3x3
I0403 14:38:12.777725 30049 net.cpp:425] inception_4c/output <- inception_4c/5x5
I0403 14:38:12.777742 30049 net.cpp:425] inception_4c/output <- inception_4c/pool_proj
I0403 14:38:12.777763 30049 net.cpp:399] inception_4c/output -> inception_4c/output
I0403 14:38:12.777812 30049 net.cpp:141] Setting up inception_4c/output
I0403 14:38:12.777837 30049 net.cpp:148] Top shape: 24 512 14 14 (2408448)
I0403 14:38:12.777855 30049 net.cpp:156] Memory required for data: 1072647456
I0403 14:38:12.777873 30049 layer_factory.hpp:77] Creating layer inception_4c/output_inception_4c/output_0_split
I0403 14:38:12.777890 30049 net.cpp:91] Creating Layer inception_4c/output_inception_4c/output_0_split
I0403 14:38:12.777907 30049 net.cpp:425] inception_4c/output_inception_4c/output_0_split <- inception_4c/output
I0403 14:38:12.777926 30049 net.cpp:399] inception_4c/output_inception_4c/output_0_split -> inception_4c/output_inception_4c/output_0_split_0
I0403 14:38:12.777959 30049 net.cpp:399] inception_4c/output_inception_4c/output_0_split -> inception_4c/output_inception_4c/output_0_split_1
I0403 14:38:12.777986 30049 net.cpp:399] inception_4c/output_inception_4c/output_0_split -> inception_4c/output_inception_4c/output_0_split_2
I0403 14:38:12.778022 30049 net.cpp:399] inception_4c/output_inception_4c/output_0_split -> inception_4c/output_inception_4c/output_0_split_3
I0403 14:38:12.778115 30049 net.cpp:141] Setting up inception_4c/output_inception_4c/output_0_split
I0403 14:38:12.778141 30049 net.cpp:148] Top shape: 24 512 14 14 (2408448)
I0403 14:38:12.778158 30049 net.cpp:148] Top shape: 24 512 14 14 (2408448)
I0403 14:38:12.778179 30049 net.cpp:148] Top shape: 24 512 14 14 (2408448)
I0403 14:38:12.778198 30049 net.cpp:148] Top shape: 24 512 14 14 (2408448)
I0403 14:38:12.778213 30049 net.cpp:156] Memory required for data: 1111182624
I0403 14:38:12.778228 30049 layer_factory.hpp:77] Creating layer inception_4d/1x1
I0403 14:38:12.778252 30049 net.cpp:91] Creating Layer inception_4d/1x1
I0403 14:38:12.778270 30049 net.cpp:425] inception_4d/1x1 <- inception_4c/output_inception_4c/output_0_split_0
I0403 14:38:12.778292 30049 net.cpp:399] inception_4d/1x1 -> inception_4d/1x1
I0403 14:38:12.779734 30049 net.cpp:141] Setting up inception_4d/1x1
I0403 14:38:12.779764 30049 net.cpp:148] Top shape: 24 112 14 14 (526848)
I0403 14:38:12.779781 30049 net.cpp:156] Memory required for data: 1113290016
I0403 14:38:12.779800 30049 layer_factory.hpp:77] Creating layer inception_4d/relu_1x1
I0403 14:38:12.779822 30049 net.cpp:91] Creating Layer inception_4d/relu_1x1
I0403 14:38:12.779839 30049 net.cpp:425] inception_4d/relu_1x1 <- inception_4d/1x1
I0403 14:38:12.779857 30049 net.cpp:386] inception_4d/relu_1x1 -> inception_4d/1x1 (in-place)
I0403 14:38:12.780048 30049 net.cpp:141] Setting up inception_4d/relu_1x1
I0403 14:38:12.780076 30049 net.cpp:148] Top shape: 24 112 14 14 (526848)
I0403 14:38:12.780094 30049 net.cpp:156] Memory required for data: 1115397408
I0403 14:38:12.780112 30049 layer_factory.hpp:77] Creating layer inception_4d/3x3_reduce
I0403 14:38:12.780148 30049 net.cpp:91] Creating Layer inception_4d/3x3_reduce
I0403 14:38:12.780169 30049 net.cpp:425] inception_4d/3x3_reduce <- inception_4c/output_inception_4c/output_0_split_1
I0403 14:38:12.780191 30049 net.cpp:399] inception_4d/3x3_reduce -> inception_4d/3x3_reduce
I0403 14:38:12.781759 30049 net.cpp:141] Setting up inception_4d/3x3_reduce
I0403 14:38:12.781791 30049 net.cpp:148] Top shape: 24 144 14 14 (677376)
I0403 14:38:12.781818 30049 net.cpp:156] Memory required for data: 1118106912
I0403 14:38:12.781841 30049 layer_factory.hpp:77] Creating layer inception_4d/relu_3x3_reduce
I0403 14:38:12.781859 30049 net.cpp:91] Creating Layer inception_4d/relu_3x3_reduce
I0403 14:38:12.781877 30049 net.cpp:425] inception_4d/relu_3x3_reduce <- inception_4d/3x3_reduce
I0403 14:38:12.781898 30049 net.cpp:386] inception_4d/relu_3x3_reduce -> inception_4d/3x3_reduce (in-place)
I0403 14:38:12.782196 30049 net.cpp:141] Setting up inception_4d/relu_3x3_reduce
I0403 14:38:12.782224 30049 net.cpp:148] Top shape: 24 144 14 14 (677376)
I0403 14:38:12.782241 30049 net.cpp:156] Memory required for data: 1120816416
I0403 14:38:12.782261 30049 layer_factory.hpp:77] Creating layer inception_4d/3x3
I0403 14:38:12.782286 30049 net.cpp:91] Creating Layer inception_4d/3x3
I0403 14:38:12.782305 30049 net.cpp:425] inception_4d/3x3 <- inception_4d/3x3_reduce
I0403 14:38:12.782336 30049 net.cpp:399] inception_4d/3x3 -> inception_4d/3x3
I0403 14:38:12.786758 30049 net.cpp:141] Setting up inception_4d/3x3
I0403 14:38:12.786789 30049 net.cpp:148] Top shape: 24 288 14 14 (1354752)
I0403 14:38:12.786806 30049 net.cpp:156] Memory required for data: 1126235424
I0403 14:38:12.786826 30049 layer_factory.hpp:77] Creating layer inception_4d/relu_3x3
I0403 14:38:12.786847 30049 net.cpp:91] Creating Layer inception_4d/relu_3x3
I0403 14:38:12.786867 30049 net.cpp:425] inception_4d/relu_3x3 <- inception_4d/3x3
I0403 14:38:12.786887 30049 net.cpp:386] inception_4d/relu_3x3 -> inception_4d/3x3 (in-place)
I0403 14:38:12.787081 30049 net.cpp:141] Setting up inception_4d/relu_3x3
I0403 14:38:12.787108 30049 net.cpp:148] Top shape: 24 288 14 14 (1354752)
I0403 14:38:12.787124 30049 net.cpp:156] Memory required for data: 1131654432
I0403 14:38:12.787140 30049 layer_factory.hpp:77] Creating layer inception_4d/5x5_reduce
I0403 14:38:12.787166 30049 net.cpp:91] Creating Layer inception_4d/5x5_reduce
I0403 14:38:12.787185 30049 net.cpp:425] inception_4d/5x5_reduce <- inception_4c/output_inception_4c/output_0_split_2
I0403 14:38:12.787207 30049 net.cpp:399] inception_4d/5x5_reduce -> inception_4d/5x5_reduce
I0403 14:38:12.788414 30049 net.cpp:141] Setting up inception_4d/5x5_reduce
I0403 14:38:12.788444 30049 net.cpp:148] Top shape: 24 32 14 14 (150528)
I0403 14:38:12.788460 30049 net.cpp:156] Memory required for data: 1132256544
I0403 14:38:12.788480 30049 layer_factory.hpp:77] Creating layer inception_4d/relu_5x5_reduce
I0403 14:38:12.788507 30049 net.cpp:91] Creating Layer inception_4d/relu_5x5_reduce
I0403 14:38:12.788527 30049 net.cpp:425] inception_4d/relu_5x5_reduce <- inception_4d/5x5_reduce
I0403 14:38:12.788545 30049 net.cpp:386] inception_4d/relu_5x5_reduce -> inception_4d/5x5_reduce (in-place)
I0403 14:38:12.788740 30049 net.cpp:141] Setting up inception_4d/relu_5x5_reduce
I0403 14:38:12.788769 30049 net.cpp:148] Top shape: 24 32 14 14 (150528)
I0403 14:38:12.788786 30049 net.cpp:156] Memory required for data: 1132858656
I0403 14:38:12.788802 30049 layer_factory.hpp:77] Creating layer inception_4d/5x5
I0403 14:38:12.788825 30049 net.cpp:91] Creating Layer inception_4d/5x5
I0403 14:38:12.788844 30049 net.cpp:425] inception_4d/5x5 <- inception_4d/5x5_reduce
I0403 14:38:12.788866 30049 net.cpp:399] inception_4d/5x5 -> inception_4d/5x5
I0403 14:38:12.790424 30049 net.cpp:141] Setting up inception_4d/5x5
I0403 14:38:12.790457 30049 net.cpp:148] Top shape: 24 64 14 14 (301056)
I0403 14:38:12.790474 30049 net.cpp:156] Memory required for data: 1134062880
I0403 14:38:12.790496 30049 layer_factory.hpp:77] Creating layer inception_4d/relu_5x5
I0403 14:38:12.790534 30049 net.cpp:91] Creating Layer inception_4d/relu_5x5
I0403 14:38:12.790552 30049 net.cpp:425] inception_4d/relu_5x5 <- inception_4d/5x5
I0403 14:38:12.790572 30049 net.cpp:386] inception_4d/relu_5x5 -> inception_4d/5x5 (in-place)
I0403 14:38:12.790889 30049 net.cpp:141] Setting up inception_4d/relu_5x5
I0403 14:38:12.790920 30049 net.cpp:148] Top shape: 24 64 14 14 (301056)
I0403 14:38:12.790936 30049 net.cpp:156] Memory required for data: 1135267104
I0403 14:38:12.790953 30049 layer_factory.hpp:77] Creating layer inception_4d/pool
I0403 14:38:12.790973 30049 net.cpp:91] Creating Layer inception_4d/pool
I0403 14:38:12.790990 30049 net.cpp:425] inception_4d/pool <- inception_4c/output_inception_4c/output_0_split_3
I0403 14:38:12.791009 30049 net.cpp:399] inception_4d/pool -> inception_4d/pool
I0403 14:38:12.791079 30049 net.cpp:141] Setting up inception_4d/pool
I0403 14:38:12.791105 30049 net.cpp:148] Top shape: 24 512 14 14 (2408448)
I0403 14:38:12.791121 30049 net.cpp:156] Memory required for data: 1144900896
I0403 14:38:12.791136 30049 layer_factory.hpp:77] Creating layer inception_4d/pool_proj
I0403 14:38:12.791159 30049 net.cpp:91] Creating Layer inception_4d/pool_proj
I0403 14:38:12.791178 30049 net.cpp:425] inception_4d/pool_proj <- inception_4d/pool
I0403 14:38:12.791200 30049 net.cpp:399] inception_4d/pool_proj -> inception_4d/pool_proj
I0403 14:38:12.793016 30049 net.cpp:141] Setting up inception_4d/pool_proj
I0403 14:38:12.793047 30049 net.cpp:148] Top shape: 24 64 14 14 (301056)
I0403 14:38:12.793063 30049 net.cpp:156] Memory required for data: 1146105120
I0403 14:38:12.793086 30049 layer_factory.hpp:77] Creating layer inception_4d/relu_pool_proj
I0403 14:38:12.793108 30049 net.cpp:91] Creating Layer inception_4d/relu_pool_proj
I0403 14:38:12.793128 30049 net.cpp:425] inception_4d/relu_pool_proj <- inception_4d/pool_proj
I0403 14:38:12.793148 30049 net.cpp:386] inception_4d/relu_pool_proj -> inception_4d/pool_proj (in-place)
I0403 14:38:12.793352 30049 net.cpp:141] Setting up inception_4d/relu_pool_proj
I0403 14:38:12.793380 30049 net.cpp:148] Top shape: 24 64 14 14 (301056)
I0403 14:38:12.793397 30049 net.cpp:156] Memory required for data: 1147309344
I0403 14:38:12.793413 30049 layer_factory.hpp:77] Creating layer inception_4d/output
I0403 14:38:12.793434 30049 net.cpp:91] Creating Layer inception_4d/output
I0403 14:38:12.793452 30049 net.cpp:425] inception_4d/output <- inception_4d/1x1
I0403 14:38:12.793472 30049 net.cpp:425] inception_4d/output <- inception_4d/3x3
I0403 14:38:12.793488 30049 net.cpp:425] inception_4d/output <- inception_4d/5x5
I0403 14:38:12.793505 30049 net.cpp:425] inception_4d/output <- inception_4d/pool_proj
I0403 14:38:12.793534 30049 net.cpp:399] inception_4d/output -> inception_4d/output
I0403 14:38:12.793586 30049 net.cpp:141] Setting up inception_4d/output
I0403 14:38:12.793612 30049 net.cpp:148] Top shape: 24 528 14 14 (2483712)
I0403 14:38:12.793627 30049 net.cpp:156] Memory required for data: 1157244192
I0403 14:38:12.793643 30049 layer_factory.hpp:77] Creating layer inception_4d/output_inception_4d/output_0_split
I0403 14:38:12.793663 30049 net.cpp:91] Creating Layer inception_4d/output_inception_4d/output_0_split
I0403 14:38:12.793681 30049 net.cpp:425] inception_4d/output_inception_4d/output_0_split <- inception_4d/output
I0403 14:38:12.793702 30049 net.cpp:399] inception_4d/output_inception_4d/output_0_split -> inception_4d/output_inception_4d/output_0_split_0
I0403 14:38:12.793725 30049 net.cpp:399] inception_4d/output_inception_4d/output_0_split -> inception_4d/output_inception_4d/output_0_split_1
I0403 14:38:12.793747 30049 net.cpp:399] inception_4d/output_inception_4d/output_0_split -> inception_4d/output_inception_4d/output_0_split_2
I0403 14:38:12.793774 30049 net.cpp:399] inception_4d/output_inception_4d/output_0_split -> inception_4d/output_inception_4d/output_0_split_3
I0403 14:38:12.793797 30049 net.cpp:399] inception_4d/output_inception_4d/output_0_split -> inception_4d/output_inception_4d/output_0_split_4
I0403 14:38:12.793915 30049 net.cpp:141] Setting up inception_4d/output_inception_4d/output_0_split
I0403 14:38:12.793952 30049 net.cpp:148] Top shape: 24 528 14 14 (2483712)
I0403 14:38:12.793970 30049 net.cpp:148] Top shape: 24 528 14 14 (2483712)
I0403 14:38:12.793988 30049 net.cpp:148] Top shape: 24 528 14 14 (2483712)
I0403 14:38:12.794005 30049 net.cpp:148] Top shape: 24 528 14 14 (2483712)
I0403 14:38:12.794021 30049 net.cpp:148] Top shape: 24 528 14 14 (2483712)
I0403 14:38:12.794036 30049 net.cpp:156] Memory required for data: 1206918432
I0403 14:38:12.794052 30049 layer_factory.hpp:77] Creating layer loss2/ave_pool
I0403 14:38:12.794071 30049 net.cpp:91] Creating Layer loss2/ave_pool
I0403 14:38:12.794090 30049 net.cpp:425] loss2/ave_pool <- inception_4d/output_inception_4d/output_0_split_0
I0403 14:38:12.794114 30049 net.cpp:399] loss2/ave_pool -> loss2/ave_pool
I0403 14:38:12.794462 30049 net.cpp:141] Setting up loss2/ave_pool
I0403 14:38:12.794492 30049 net.cpp:148] Top shape: 24 528 4 4 (202752)
I0403 14:38:12.794508 30049 net.cpp:156] Memory required for data: 1207729440
I0403 14:38:12.794525 30049 layer_factory.hpp:77] Creating layer loss2/conv
I0403 14:38:12.794550 30049 net.cpp:91] Creating Layer loss2/conv
I0403 14:38:12.794570 30049 net.cpp:425] loss2/conv <- loss2/ave_pool
I0403 14:38:12.794594 30049 net.cpp:399] loss2/conv -> loss2/conv
I0403 14:38:12.796623 30049 net.cpp:141] Setting up loss2/conv
I0403 14:38:12.796658 30049 net.cpp:148] Top shape: 24 128 4 4 (49152)
I0403 14:38:12.796677 30049 net.cpp:156] Memory required for data: 1207926048
I0403 14:38:12.796699 30049 layer_factory.hpp:77] Creating layer loss2/relu_conv
I0403 14:38:12.796718 30049 net.cpp:91] Creating Layer loss2/relu_conv
I0403 14:38:12.796736 30049 net.cpp:425] loss2/relu_conv <- loss2/conv
I0403 14:38:12.796758 30049 net.cpp:386] loss2/relu_conv -> loss2/conv (in-place)
I0403 14:38:12.797065 30049 net.cpp:141] Setting up loss2/relu_conv
I0403 14:38:12.797096 30049 net.cpp:148] Top shape: 24 128 4 4 (49152)
I0403 14:38:12.797114 30049 net.cpp:156] Memory required for data: 1208122656
I0403 14:38:12.797132 30049 layer_factory.hpp:77] Creating layer loss2/fc
I0403 14:38:12.797152 30049 net.cpp:91] Creating Layer loss2/fc
I0403 14:38:12.797170 30049 net.cpp:425] loss2/fc <- loss2/conv
I0403 14:38:12.797195 30049 net.cpp:399] loss2/fc -> loss2/fc
I0403 14:38:12.815907 30049 net.cpp:141] Setting up loss2/fc
I0403 14:38:12.815961 30049 net.cpp:148] Top shape: 24 1024 (24576)
I0403 14:38:12.815978 30049 net.cpp:156] Memory required for data: 1208220960
I0403 14:38:12.815999 30049 layer_factory.hpp:77] Creating layer loss2/relu_fc
I0403 14:38:12.816021 30049 net.cpp:91] Creating Layer loss2/relu_fc
I0403 14:38:12.816040 30049 net.cpp:425] loss2/relu_fc <- loss2/fc
I0403 14:38:12.816061 30049 net.cpp:386] loss2/relu_fc -> loss2/fc (in-place)
I0403 14:38:12.816407 30049 net.cpp:141] Setting up loss2/relu_fc
I0403 14:38:12.816436 30049 net.cpp:148] Top shape: 24 1024 (24576)
I0403 14:38:12.816452 30049 net.cpp:156] Memory required for data: 1208319264
I0403 14:38:12.816468 30049 layer_factory.hpp:77] Creating layer loss2/drop_fc
I0403 14:38:12.816488 30049 net.cpp:91] Creating Layer loss2/drop_fc
I0403 14:38:12.816506 30049 net.cpp:425] loss2/drop_fc <- loss2/fc
I0403 14:38:12.816525 30049 net.cpp:386] loss2/drop_fc -> loss2/fc (in-place)
I0403 14:38:12.816579 30049 net.cpp:141] Setting up loss2/drop_fc
I0403 14:38:12.816602 30049 net.cpp:148] Top shape: 24 1024 (24576)
I0403 14:38:12.816618 30049 net.cpp:156] Memory required for data: 1208417568
I0403 14:38:12.816635 30049 layer_factory.hpp:77] Creating layer loss2/classifier_plantvillage
I0403 14:38:12.816655 30049 net.cpp:91] Creating Layer loss2/classifier_plantvillage
I0403 14:38:12.816671 30049 net.cpp:425] loss2/classifier_plantvillage <- loss2/fc
I0403 14:38:12.816695 30049 net.cpp:399] loss2/classifier_plantvillage -> loss2/classifier_plantvillage
I0403 14:38:12.817113 30049 net.cpp:141] Setting up loss2/classifier_plantvillage
I0403 14:38:12.817139 30049 net.cpp:148] Top shape: 24 38 (912)
I0403 14:38:12.817154 30049 net.cpp:156] Memory required for data: 1208421216
I0403 14:38:12.817193 30049 layer_factory.hpp:77] Creating layer loss2/classifier_plantvillage_loss2/classifier_plantvillage_0_split
I0403 14:38:12.817214 30049 net.cpp:91] Creating Layer loss2/classifier_plantvillage_loss2/classifier_plantvillage_0_split
I0403 14:38:12.817231 30049 net.cpp:425] loss2/classifier_plantvillage_loss2/classifier_plantvillage_0_split <- loss2/classifier_plantvillage
I0403 14:38:12.817253 30049 net.cpp:399] loss2/classifier_plantvillage_loss2/classifier_plantvillage_0_split -> loss2/classifier_plantvillage_loss2/classifier_plantvillage_0_split_0
I0403 14:38:12.817276 30049 net.cpp:399] loss2/classifier_plantvillage_loss2/classifier_plantvillage_0_split -> loss2/classifier_plantvillage_loss2/classifier_plantvillage_0_split_1
I0403 14:38:12.817308 30049 net.cpp:399] loss2/classifier_plantvillage_loss2/classifier_plantvillage_0_split -> loss2/classifier_plantvillage_loss2/classifier_plantvillage_0_split_2
I0403 14:38:12.817391 30049 net.cpp:141] Setting up loss2/classifier_plantvillage_loss2/classifier_plantvillage_0_split
I0403 14:38:12.817416 30049 net.cpp:148] Top shape: 24 38 (912)
I0403 14:38:12.817433 30049 net.cpp:148] Top shape: 24 38 (912)
I0403 14:38:12.817452 30049 net.cpp:148] Top shape: 24 38 (912)
I0403 14:38:12.817466 30049 net.cpp:156] Memory required for data: 1208432160
I0403 14:38:12.817482 30049 layer_factory.hpp:77] Creating layer inception_4e/1x1
I0403 14:38:12.817507 30049 net.cpp:91] Creating Layer inception_4e/1x1
I0403 14:38:12.817533 30049 net.cpp:425] inception_4e/1x1 <- inception_4d/output_inception_4d/output_0_split_1
I0403 14:38:12.817553 30049 net.cpp:399] inception_4e/1x1 -> inception_4e/1x1
I0403 14:38:12.819438 30049 net.cpp:141] Setting up inception_4e/1x1
I0403 14:38:12.819469 30049 net.cpp:148] Top shape: 24 256 14 14 (1204224)
I0403 14:38:12.819486 30049 net.cpp:156] Memory required for data: 1213249056
I0403 14:38:12.819505 30049 layer_factory.hpp:77] Creating layer inception_4e/relu_1x1
I0403 14:38:12.819525 30049 net.cpp:91] Creating Layer inception_4e/relu_1x1
I0403 14:38:12.819541 30049 net.cpp:425] inception_4e/relu_1x1 <- inception_4e/1x1
I0403 14:38:12.819562 30049 net.cpp:386] inception_4e/relu_1x1 -> inception_4e/1x1 (in-place)
I0403 14:38:12.819865 30049 net.cpp:141] Setting up inception_4e/relu_1x1
I0403 14:38:12.819895 30049 net.cpp:148] Top shape: 24 256 14 14 (1204224)
I0403 14:38:12.819911 30049 net.cpp:156] Memory required for data: 1218065952
I0403 14:38:12.819927 30049 layer_factory.hpp:77] Creating layer inception_4e/3x3_reduce
I0403 14:38:12.819950 30049 net.cpp:91] Creating Layer inception_4e/3x3_reduce
I0403 14:38:12.819969 30049 net.cpp:425] inception_4e/3x3_reduce <- inception_4d/output_inception_4d/output_0_split_2
I0403 14:38:12.819993 30049 net.cpp:399] inception_4e/3x3_reduce -> inception_4e/3x3_reduce
I0403 14:38:12.822159 30049 net.cpp:141] Setting up inception_4e/3x3_reduce
I0403 14:38:12.822188 30049 net.cpp:148] Top shape: 24 160 14 14 (752640)
I0403 14:38:12.822204 30049 net.cpp:156] Memory required for data: 1221076512
I0403 14:38:12.822224 30049 layer_factory.hpp:77] Creating layer inception_4e/relu_3x3_reduce
I0403 14:38:12.822245 30049 net.cpp:91] Creating Layer inception_4e/relu_3x3_reduce
I0403 14:38:12.822263 30049 net.cpp:425] inception_4e/relu_3x3_reduce <- inception_4e/3x3_reduce
I0403 14:38:12.822283 30049 net.cpp:386] inception_4e/relu_3x3_reduce -> inception_4e/3x3_reduce (in-place)
I0403 14:38:12.822480 30049 net.cpp:141] Setting up inception_4e/relu_3x3_reduce
I0403 14:38:12.822506 30049 net.cpp:148] Top shape: 24 160 14 14 (752640)
I0403 14:38:12.822522 30049 net.cpp:156] Memory required for data: 1224087072
I0403 14:38:12.822537 30049 layer_factory.hpp:77] Creating layer inception_4e/3x3
I0403 14:38:12.822561 30049 net.cpp:91] Creating Layer inception_4e/3x3
I0403 14:38:12.822579 30049 net.cpp:425] inception_4e/3x3 <- inception_4e/3x3_reduce
I0403 14:38:12.822604 30049 net.cpp:399] inception_4e/3x3 -> inception_4e/3x3
I0403 14:38:12.827644 30049 net.cpp:141] Setting up inception_4e/3x3
I0403 14:38:12.827687 30049 net.cpp:148] Top shape: 24 320 14 14 (1505280)
I0403 14:38:12.827704 30049 net.cpp:156] Memory required for data: 1230108192
I0403 14:38:12.827724 30049 layer_factory.hpp:77] Creating layer inception_4e/relu_3x3
I0403 14:38:12.827744 30049 net.cpp:91] Creating Layer inception_4e/relu_3x3
I0403 14:38:12.827761 30049 net.cpp:425] inception_4e/relu_3x3 <- inception_4e/3x3
I0403 14:38:12.827782 30049 net.cpp:386] inception_4e/relu_3x3 -> inception_4e/3x3 (in-place)
I0403 14:38:12.828084 30049 net.cpp:141] Setting up inception_4e/relu_3x3
I0403 14:38:12.828112 30049 net.cpp:148] Top shape: 24 320 14 14 (1505280)
I0403 14:38:12.828129 30049 net.cpp:156] Memory required for data: 1236129312
I0403 14:38:12.828145 30049 layer_factory.hpp:77] Creating layer inception_4e/5x5_reduce
I0403 14:38:12.828169 30049 net.cpp:91] Creating Layer inception_4e/5x5_reduce
I0403 14:38:12.828187 30049 net.cpp:425] inception_4e/5x5_reduce <- inception_4d/output_inception_4d/output_0_split_3
I0403 14:38:12.828213 30049 net.cpp:399] inception_4e/5x5_reduce -> inception_4e/5x5_reduce
I0403 14:38:12.829298 30049 net.cpp:141] Setting up inception_4e/5x5_reduce
I0403 14:38:12.829336 30049 net.cpp:148] Top shape: 24 32 14 14 (150528)
I0403 14:38:12.829355 30049 net.cpp:156] Memory required for data: 1236731424
I0403 14:38:12.829373 30049 layer_factory.hpp:77] Creating layer inception_4e/relu_5x5_reduce
I0403 14:38:12.829392 30049 net.cpp:91] Creating Layer inception_4e/relu_5x5_reduce
I0403 14:38:12.829411 30049 net.cpp:425] inception_4e/relu_5x5_reduce <- inception_4e/5x5_reduce
I0403 14:38:12.829429 30049 net.cpp:386] inception_4e/relu_5x5_reduce -> inception_4e/5x5_reduce (in-place)
I0403 14:38:12.829730 30049 net.cpp:141] Setting up inception_4e/relu_5x5_reduce
I0403 14:38:12.829761 30049 net.cpp:148] Top shape: 24 32 14 14 (150528)
I0403 14:38:12.829789 30049 net.cpp:156] Memory required for data: 1237333536
I0403 14:38:12.829816 30049 layer_factory.hpp:77] Creating layer inception_4e/5x5
I0403 14:38:12.829857 30049 net.cpp:91] Creating Layer inception_4e/5x5
I0403 14:38:12.829879 30049 net.cpp:425] inception_4e/5x5 <- inception_4e/5x5_reduce
I0403 14:38:12.829900 30049 net.cpp:399] inception_4e/5x5 -> inception_4e/5x5
I0403 14:38:12.831768 30049 net.cpp:141] Setting up inception_4e/5x5
I0403 14:38:12.831796 30049 net.cpp:148] Top shape: 24 128 14 14 (602112)
I0403 14:38:12.831811 30049 net.cpp:156] Memory required for data: 1239741984
I0403 14:38:12.831831 30049 layer_factory.hpp:77] Creating layer inception_4e/relu_5x5
I0403 14:38:12.831853 30049 net.cpp:91] Creating Layer inception_4e/relu_5x5
I0403 14:38:12.831871 30049 net.cpp:425] inception_4e/relu_5x5 <- inception_4e/5x5
I0403 14:38:12.831889 30049 net.cpp:386] inception_4e/relu_5x5 -> inception_4e/5x5 (in-place)
I0403 14:38:12.832088 30049 net.cpp:141] Setting up inception_4e/relu_5x5
I0403 14:38:12.832116 30049 net.cpp:148] Top shape: 24 128 14 14 (602112)
I0403 14:38:12.832134 30049 net.cpp:156] Memory required for data: 1242150432
I0403 14:38:12.832149 30049 layer_factory.hpp:77] Creating layer inception_4e/pool
I0403 14:38:12.832167 30049 net.cpp:91] Creating Layer inception_4e/pool
I0403 14:38:12.832185 30049 net.cpp:425] inception_4e/pool <- inception_4d/output_inception_4d/output_0_split_4
I0403 14:38:12.832207 30049 net.cpp:399] inception_4e/pool -> inception_4e/pool
I0403 14:38:12.832291 30049 net.cpp:141] Setting up inception_4e/pool
I0403 14:38:12.832321 30049 net.cpp:148] Top shape: 24 528 14 14 (2483712)
I0403 14:38:12.832340 30049 net.cpp:156] Memory required for data: 1252085280
I0403 14:38:12.832355 30049 layer_factory.hpp:77] Creating layer inception_4e/pool_proj
I0403 14:38:12.832382 30049 net.cpp:91] Creating Layer inception_4e/pool_proj
I0403 14:38:12.832401 30049 net.cpp:425] inception_4e/pool_proj <- inception_4e/pool
I0403 14:38:12.832424 30049 net.cpp:399] inception_4e/pool_proj -> inception_4e/pool_proj
I0403 14:38:12.834017 30049 net.cpp:141] Setting up inception_4e/pool_proj
I0403 14:38:12.834048 30049 net.cpp:148] Top shape: 24 128 14 14 (602112)
I0403 14:38:12.834079 30049 net.cpp:156] Memory required for data: 1254493728
I0403 14:38:12.834100 30049 layer_factory.hpp:77] Creating layer inception_4e/relu_pool_proj
I0403 14:38:12.834121 30049 net.cpp:91] Creating Layer inception_4e/relu_pool_proj
I0403 14:38:12.834139 30049 net.cpp:425] inception_4e/relu_pool_proj <- inception_4e/pool_proj
I0403 14:38:12.834158 30049 net.cpp:386] inception_4e/relu_pool_proj -> inception_4e/pool_proj (in-place)
I0403 14:38:12.834470 30049 net.cpp:141] Setting up inception_4e/relu_pool_proj
I0403 14:38:12.834501 30049 net.cpp:148] Top shape: 24 128 14 14 (602112)
I0403 14:38:12.834517 30049 net.cpp:156] Memory required for data: 1256902176
I0403 14:38:12.834533 30049 layer_factory.hpp:77] Creating layer inception_4e/output
I0403 14:38:12.834555 30049 net.cpp:91] Creating Layer inception_4e/output
I0403 14:38:12.834573 30049 net.cpp:425] inception_4e/output <- inception_4e/1x1
I0403 14:38:12.834591 30049 net.cpp:425] inception_4e/output <- inception_4e/3x3
I0403 14:38:12.834609 30049 net.cpp:425] inception_4e/output <- inception_4e/5x5
I0403 14:38:12.834627 30049 net.cpp:425] inception_4e/output <- inception_4e/pool_proj
I0403 14:38:12.834646 30049 net.cpp:399] inception_4e/output -> inception_4e/output
I0403 14:38:12.834700 30049 net.cpp:141] Setting up inception_4e/output
I0403 14:38:12.834725 30049 net.cpp:148] Top shape: 24 832 14 14 (3913728)
I0403 14:38:12.834741 30049 net.cpp:156] Memory required for data: 1272557088
I0403 14:38:12.834758 30049 layer_factory.hpp:77] Creating layer pool4/3x3_s2
I0403 14:38:12.834777 30049 net.cpp:91] Creating Layer pool4/3x3_s2
I0403 14:38:12.834795 30049 net.cpp:425] pool4/3x3_s2 <- inception_4e/output
I0403 14:38:12.834818 30049 net.cpp:399] pool4/3x3_s2 -> pool4/3x3_s2
I0403 14:38:12.834888 30049 net.cpp:141] Setting up pool4/3x3_s2
I0403 14:38:12.834916 30049 net.cpp:148] Top shape: 24 832 7 7 (978432)
I0403 14:38:12.834933 30049 net.cpp:156] Memory required for data: 1276470816
I0403 14:38:12.834949 30049 layer_factory.hpp:77] Creating layer pool4/3x3_s2_pool4/3x3_s2_0_split
I0403 14:38:12.834969 30049 net.cpp:91] Creating Layer pool4/3x3_s2_pool4/3x3_s2_0_split
I0403 14:38:12.834985 30049 net.cpp:425] pool4/3x3_s2_pool4/3x3_s2_0_split <- pool4/3x3_s2
I0403 14:38:12.835003 30049 net.cpp:399] pool4/3x3_s2_pool4/3x3_s2_0_split -> pool4/3x3_s2_pool4/3x3_s2_0_split_0
I0403 14:38:12.835024 30049 net.cpp:399] pool4/3x3_s2_pool4/3x3_s2_0_split -> pool4/3x3_s2_pool4/3x3_s2_0_split_1
I0403 14:38:12.835047 30049 net.cpp:399] pool4/3x3_s2_pool4/3x3_s2_0_split -> pool4/3x3_s2_pool4/3x3_s2_0_split_2
I0403 14:38:12.835070 30049 net.cpp:399] pool4/3x3_s2_pool4/3x3_s2_0_split -> pool4/3x3_s2_pool4/3x3_s2_0_split_3
I0403 14:38:12.835167 30049 net.cpp:141] Setting up pool4/3x3_s2_pool4/3x3_s2_0_split
I0403 14:38:12.835192 30049 net.cpp:148] Top shape: 24 832 7 7 (978432)
I0403 14:38:12.835211 30049 net.cpp:148] Top shape: 24 832 7 7 (978432)
I0403 14:38:12.835227 30049 net.cpp:148] Top shape: 24 832 7 7 (978432)
I0403 14:38:12.835242 30049 net.cpp:148] Top shape: 24 832 7 7 (978432)
I0403 14:38:12.835270 30049 net.cpp:156] Memory required for data: 1292125728
I0403 14:38:12.835289 30049 layer_factory.hpp:77] Creating layer inception_5a/1x1
I0403 14:38:12.835317 30049 net.cpp:91] Creating Layer inception_5a/1x1
I0403 14:38:12.835340 30049 net.cpp:425] inception_5a/1x1 <- pool4/3x3_s2_pool4/3x3_s2_0_split_0
I0403 14:38:12.835363 30049 net.cpp:399] inception_5a/1x1 -> inception_5a/1x1
I0403 14:38:12.838351 30049 net.cpp:141] Setting up inception_5a/1x1
I0403 14:38:12.838381 30049 net.cpp:148] Top shape: 24 256 7 7 (301056)
I0403 14:38:12.838398 30049 net.cpp:156] Memory required for data: 1293329952
I0403 14:38:12.838418 30049 layer_factory.hpp:77] Creating layer inception_5a/relu_1x1
I0403 14:38:12.838443 30049 net.cpp:91] Creating Layer inception_5a/relu_1x1
I0403 14:38:12.838462 30049 net.cpp:425] inception_5a/relu_1x1 <- inception_5a/1x1
I0403 14:38:12.838481 30049 net.cpp:386] inception_5a/relu_1x1 -> inception_5a/1x1 (in-place)
I0403 14:38:12.838810 30049 net.cpp:141] Setting up inception_5a/relu_1x1
I0403 14:38:12.838837 30049 net.cpp:148] Top shape: 24 256 7 7 (301056)
I0403 14:38:12.838855 30049 net.cpp:156] Memory required for data: 1294534176
I0403 14:38:12.838871 30049 layer_factory.hpp:77] Creating layer inception_5a/3x3_reduce
I0403 14:38:12.838896 30049 net.cpp:91] Creating Layer inception_5a/3x3_reduce
I0403 14:38:12.838914 30049 net.cpp:425] inception_5a/3x3_reduce <- pool4/3x3_s2_pool4/3x3_s2_0_split_1
I0403 14:38:12.838934 30049 net.cpp:399] inception_5a/3x3_reduce -> inception_5a/3x3_reduce
I0403 14:38:12.841421 30049 net.cpp:141] Setting up inception_5a/3x3_reduce
I0403 14:38:12.841452 30049 net.cpp:148] Top shape: 24 160 7 7 (188160)
I0403 14:38:12.841470 30049 net.cpp:156] Memory required for data: 1295286816
I0403 14:38:12.841490 30049 layer_factory.hpp:77] Creating layer inception_5a/relu_3x3_reduce
I0403 14:38:12.841512 30049 net.cpp:91] Creating Layer inception_5a/relu_3x3_reduce
I0403 14:38:12.841536 30049 net.cpp:425] inception_5a/relu_3x3_reduce <- inception_5a/3x3_reduce
I0403 14:38:12.841555 30049 net.cpp:386] inception_5a/relu_3x3_reduce -> inception_5a/3x3_reduce (in-place)
I0403 14:38:12.841758 30049 net.cpp:141] Setting up inception_5a/relu_3x3_reduce
I0403 14:38:12.841784 30049 net.cpp:148] Top shape: 24 160 7 7 (188160)
I0403 14:38:12.841799 30049 net.cpp:156] Memory required for data: 1296039456
I0403 14:38:12.841817 30049 layer_factory.hpp:77] Creating layer inception_5a/3x3
I0403 14:38:12.841843 30049 net.cpp:91] Creating Layer inception_5a/3x3
I0403 14:38:12.841861 30049 net.cpp:425] inception_5a/3x3 <- inception_5a/3x3_reduce
I0403 14:38:12.841882 30049 net.cpp:399] inception_5a/3x3 -> inception_5a/3x3
I0403 14:38:12.846989 30049 net.cpp:141] Setting up inception_5a/3x3
I0403 14:38:12.847020 30049 net.cpp:148] Top shape: 24 320 7 7 (376320)
I0403 14:38:12.847038 30049 net.cpp:156] Memory required for data: 1297544736
I0403 14:38:12.847056 30049 layer_factory.hpp:77] Creating layer inception_5a/relu_3x3
I0403 14:38:12.847077 30049 net.cpp:91] Creating Layer inception_5a/relu_3x3
I0403 14:38:12.847096 30049 net.cpp:425] inception_5a/relu_3x3 <- inception_5a/3x3
I0403 14:38:12.847115 30049 net.cpp:386] inception_5a/relu_3x3 -> inception_5a/3x3 (in-place)
I0403 14:38:12.847448 30049 net.cpp:141] Setting up inception_5a/relu_3x3
I0403 14:38:12.847476 30049 net.cpp:148] Top shape: 24 320 7 7 (376320)
I0403 14:38:12.847494 30049 net.cpp:156] Memory required for data: 1299050016
I0403 14:38:12.847512 30049 layer_factory.hpp:77] Creating layer inception_5a/5x5_reduce
I0403 14:38:12.847532 30049 net.cpp:91] Creating Layer inception_5a/5x5_reduce
I0403 14:38:12.847550 30049 net.cpp:425] inception_5a/5x5_reduce <- pool4/3x3_s2_pool4/3x3_s2_0_split_2
I0403 14:38:12.847573 30049 net.cpp:399] inception_5a/5x5_reduce -> inception_5a/5x5_reduce
I0403 14:38:12.848755 30049 net.cpp:141] Setting up inception_5a/5x5_reduce
I0403 14:38:12.848786 30049 net.cpp:148] Top shape: 24 32 7 7 (37632)
I0403 14:38:12.848804 30049 net.cpp:156] Memory required for data: 1299200544
I0403 14:38:12.848824 30049 layer_factory.hpp:77] Creating layer inception_5a/relu_5x5_reduce
I0403 14:38:12.848844 30049 net.cpp:91] Creating Layer inception_5a/relu_5x5_reduce
I0403 14:38:12.848861 30049 net.cpp:425] inception_5a/relu_5x5_reduce <- inception_5a/5x5_reduce
I0403 14:38:12.848882 30049 net.cpp:386] inception_5a/relu_5x5_reduce -> inception_5a/5x5_reduce (in-place)
I0403 14:38:12.849189 30049 net.cpp:141] Setting up inception_5a/relu_5x5_reduce
I0403 14:38:12.849220 30049 net.cpp:148] Top shape: 24 32 7 7 (37632)
I0403 14:38:12.849236 30049 net.cpp:156] Memory required for data: 1299351072
I0403 14:38:12.849251 30049 layer_factory.hpp:77] Creating layer inception_5a/5x5
I0403 14:38:12.849275 30049 net.cpp:91] Creating Layer inception_5a/5x5
I0403 14:38:12.849294 30049 net.cpp:425] inception_5a/5x5 <- inception_5a/5x5_reduce
I0403 14:38:12.849319 30049 net.cpp:399] inception_5a/5x5 -> inception_5a/5x5
I0403 14:38:12.851057 30049 net.cpp:141] Setting up inception_5a/5x5
I0403 14:38:12.851099 30049 net.cpp:148] Top shape: 24 128 7 7 (150528)
I0403 14:38:12.851116 30049 net.cpp:156] Memory required for data: 1299953184
I0403 14:38:12.851136 30049 layer_factory.hpp:77] Creating layer inception_5a/relu_5x5
I0403 14:38:12.851157 30049 net.cpp:91] Creating Layer inception_5a/relu_5x5
I0403 14:38:12.851176 30049 net.cpp:425] inception_5a/relu_5x5 <- inception_5a/5x5
I0403 14:38:12.851194 30049 net.cpp:386] inception_5a/relu_5x5 -> inception_5a/5x5 (in-place)
I0403 14:38:12.851395 30049 net.cpp:141] Setting up inception_5a/relu_5x5
I0403 14:38:12.851428 30049 net.cpp:148] Top shape: 24 128 7 7 (150528)
I0403 14:38:12.851444 30049 net.cpp:156] Memory required for data: 1300555296
I0403 14:38:12.851460 30049 layer_factory.hpp:77] Creating layer inception_5a/pool
I0403 14:38:12.851478 30049 net.cpp:91] Creating Layer inception_5a/pool
I0403 14:38:12.851495 30049 net.cpp:425] inception_5a/pool <- pool4/3x3_s2_pool4/3x3_s2_0_split_3
I0403 14:38:12.851517 30049 net.cpp:399] inception_5a/pool -> inception_5a/pool
I0403 14:38:12.851589 30049 net.cpp:141] Setting up inception_5a/pool
I0403 14:38:12.851614 30049 net.cpp:148] Top shape: 24 832 7 7 (978432)
I0403 14:38:12.851629 30049 net.cpp:156] Memory required for data: 1304469024
I0403 14:38:12.851644 30049 layer_factory.hpp:77] Creating layer inception_5a/pool_proj
I0403 14:38:12.851668 30049 net.cpp:91] Creating Layer inception_5a/pool_proj
I0403 14:38:12.851686 30049 net.cpp:425] inception_5a/pool_proj <- inception_5a/pool
I0403 14:38:12.851708 30049 net.cpp:399] inception_5a/pool_proj -> inception_5a/pool_proj
I0403 14:38:12.854020 30049 net.cpp:141] Setting up inception_5a/pool_proj
I0403 14:38:12.854051 30049 net.cpp:148] Top shape: 24 128 7 7 (150528)
I0403 14:38:12.854068 30049 net.cpp:156] Memory required for data: 1305071136
I0403 14:38:12.854087 30049 layer_factory.hpp:77] Creating layer inception_5a/relu_pool_proj
I0403 14:38:12.854110 30049 net.cpp:91] Creating Layer inception_5a/relu_pool_proj
I0403 14:38:12.854127 30049 net.cpp:425] inception_5a/relu_pool_proj <- inception_5a/pool_proj
I0403 14:38:12.854146 30049 net.cpp:386] inception_5a/relu_pool_proj -> inception_5a/pool_proj (in-place)
I0403 14:38:12.854450 30049 net.cpp:141] Setting up inception_5a/relu_pool_proj
I0403 14:38:12.854478 30049 net.cpp:148] Top shape: 24 128 7 7 (150528)
I0403 14:38:12.854495 30049 net.cpp:156] Memory required for data: 1305673248
I0403 14:38:12.854511 30049 layer_factory.hpp:77] Creating layer inception_5a/output
I0403 14:38:12.854528 30049 net.cpp:91] Creating Layer inception_5a/output
I0403 14:38:12.854545 30049 net.cpp:425] inception_5a/output <- inception_5a/1x1
I0403 14:38:12.854565 30049 net.cpp:425] inception_5a/output <- inception_5a/3x3
I0403 14:38:12.854583 30049 net.cpp:425] inception_5a/output <- inception_5a/5x5
I0403 14:38:12.854600 30049 net.cpp:425] inception_5a/output <- inception_5a/pool_proj
I0403 14:38:12.854619 30049 net.cpp:399] inception_5a/output -> inception_5a/output
I0403 14:38:12.854673 30049 net.cpp:141] Setting up inception_5a/output
I0403 14:38:12.854698 30049 net.cpp:148] Top shape: 24 832 7 7 (978432)
I0403 14:38:12.854713 30049 net.cpp:156] Memory required for data: 1309586976
I0403 14:38:12.854728 30049 layer_factory.hpp:77] Creating layer inception_5a/output_inception_5a/output_0_split
I0403 14:38:12.854746 30049 net.cpp:91] Creating Layer inception_5a/output_inception_5a/output_0_split
I0403 14:38:12.854763 30049 net.cpp:425] inception_5a/output_inception_5a/output_0_split <- inception_5a/output
I0403 14:38:12.854784 30049 net.cpp:399] inception_5a/output_inception_5a/output_0_split -> inception_5a/output_inception_5a/output_0_split_0
I0403 14:38:12.854805 30049 net.cpp:399] inception_5a/output_inception_5a/output_0_split -> inception_5a/output_inception_5a/output_0_split_1
I0403 14:38:12.854826 30049 net.cpp:399] inception_5a/output_inception_5a/output_0_split -> inception_5a/output_inception_5a/output_0_split_2
I0403 14:38:12.854848 30049 net.cpp:399] inception_5a/output_inception_5a/output_0_split -> inception_5a/output_inception_5a/output_0_split_3
I0403 14:38:12.854964 30049 net.cpp:141] Setting up inception_5a/output_inception_5a/output_0_split
I0403 14:38:12.854995 30049 net.cpp:148] Top shape: 24 832 7 7 (978432)
I0403 14:38:12.855015 30049 net.cpp:148] Top shape: 24 832 7 7 (978432)
I0403 14:38:12.855032 30049 net.cpp:148] Top shape: 24 832 7 7 (978432)
I0403 14:38:12.855049 30049 net.cpp:148] Top shape: 24 832 7 7 (978432)
I0403 14:38:12.855063 30049 net.cpp:156] Memory required for data: 1325241888
I0403 14:38:12.855078 30049 layer_factory.hpp:77] Creating layer inception_5b/1x1
I0403 14:38:12.855101 30049 net.cpp:91] Creating Layer inception_5b/1x1
I0403 14:38:12.855120 30049 net.cpp:425] inception_5b/1x1 <- inception_5a/output_inception_5a/output_0_split_0
I0403 14:38:12.855141 30049 net.cpp:399] inception_5b/1x1 -> inception_5b/1x1
I0403 14:38:12.859046 30049 net.cpp:141] Setting up inception_5b/1x1
I0403 14:38:12.859078 30049 net.cpp:148] Top shape: 24 384 7 7 (451584)
I0403 14:38:12.859096 30049 net.cpp:156] Memory required for data: 1327048224
I0403 14:38:12.859115 30049 layer_factory.hpp:77] Creating layer inception_5b/relu_1x1
I0403 14:38:12.859138 30049 net.cpp:91] Creating Layer inception_5b/relu_1x1
I0403 14:38:12.859155 30049 net.cpp:425] inception_5b/relu_1x1 <- inception_5b/1x1
I0403 14:38:12.859175 30049 net.cpp:386] inception_5b/relu_1x1 -> inception_5b/1x1 (in-place)
I0403 14:38:12.859498 30049 net.cpp:141] Setting up inception_5b/relu_1x1
I0403 14:38:12.859526 30049 net.cpp:148] Top shape: 24 384 7 7 (451584)
I0403 14:38:12.859544 30049 net.cpp:156] Memory required for data: 1328854560
I0403 14:38:12.859560 30049 layer_factory.hpp:77] Creating layer inception_5b/3x3_reduce
I0403 14:38:12.859583 30049 net.cpp:91] Creating Layer inception_5b/3x3_reduce
I0403 14:38:12.859603 30049 net.cpp:425] inception_5b/3x3_reduce <- inception_5a/output_inception_5a/output_0_split_1
I0403 14:38:12.859628 30049 net.cpp:399] inception_5b/3x3_reduce -> inception_5b/3x3_reduce
I0403 14:38:12.862388 30049 net.cpp:141] Setting up inception_5b/3x3_reduce
I0403 14:38:12.862421 30049 net.cpp:148] Top shape: 24 192 7 7 (225792)
I0403 14:38:12.862437 30049 net.cpp:156] Memory required for data: 1329757728
I0403 14:38:12.862457 30049 layer_factory.hpp:77] Creating layer inception_5b/relu_3x3_reduce
I0403 14:38:12.862479 30049 net.cpp:91] Creating Layer inception_5b/relu_3x3_reduce
I0403 14:38:12.862498 30049 net.cpp:425] inception_5b/relu_3x3_reduce <- inception_5b/3x3_reduce
I0403 14:38:12.862517 30049 net.cpp:386] inception_5b/relu_3x3_reduce -> inception_5b/3x3_reduce (in-place)
I0403 14:38:12.862716 30049 net.cpp:141] Setting up inception_5b/relu_3x3_reduce
I0403 14:38:12.862746 30049 net.cpp:148] Top shape: 24 192 7 7 (225792)
I0403 14:38:12.862762 30049 net.cpp:156] Memory required for data: 1330660896
I0403 14:38:12.862779 30049 layer_factory.hpp:77] Creating layer inception_5b/3x3
I0403 14:38:12.862802 30049 net.cpp:91] Creating Layer inception_5b/3x3
I0403 14:38:12.862821 30049 net.cpp:425] inception_5b/3x3 <- inception_5b/3x3_reduce
I0403 14:38:12.862843 30049 net.cpp:399] inception_5b/3x3 -> inception_5b/3x3
I0403 14:38:12.869803 30049 net.cpp:141] Setting up inception_5b/3x3
I0403 14:38:12.869835 30049 net.cpp:148] Top shape: 24 384 7 7 (451584)
I0403 14:38:12.869851 30049 net.cpp:156] Memory required for data: 1332467232
I0403 14:38:12.869871 30049 layer_factory.hpp:77] Creating layer inception_5b/relu_3x3
I0403 14:38:12.869894 30049 net.cpp:91] Creating Layer inception_5b/relu_3x3
I0403 14:38:12.869912 30049 net.cpp:425] inception_5b/relu_3x3 <- inception_5b/3x3
I0403 14:38:12.869931 30049 net.cpp:386] inception_5b/relu_3x3 -> inception_5b/3x3 (in-place)
I0403 14:38:12.870241 30049 net.cpp:141] Setting up inception_5b/relu_3x3
I0403 14:38:12.870277 30049 net.cpp:148] Top shape: 24 384 7 7 (451584)
I0403 14:38:12.870297 30049 net.cpp:156] Memory required for data: 1334273568
I0403 14:38:12.870319 30049 layer_factory.hpp:77] Creating layer inception_5b/5x5_reduce
I0403 14:38:12.870363 30049 net.cpp:91] Creating Layer inception_5b/5x5_reduce
I0403 14:38:12.870384 30049 net.cpp:425] inception_5b/5x5_reduce <- inception_5a/output_inception_5a/output_0_split_2
I0403 14:38:12.870410 30049 net.cpp:399] inception_5b/5x5_reduce -> inception_5b/5x5_reduce
I0403 14:38:12.871738 30049 net.cpp:141] Setting up inception_5b/5x5_reduce
I0403 14:38:12.871770 30049 net.cpp:148] Top shape: 24 48 7 7 (56448)
I0403 14:38:12.871786 30049 net.cpp:156] Memory required for data: 1334499360
I0403 14:38:12.871808 30049 layer_factory.hpp:77] Creating layer inception_5b/relu_5x5_reduce
I0403 14:38:12.871829 30049 net.cpp:91] Creating Layer inception_5b/relu_5x5_reduce
I0403 14:38:12.871847 30049 net.cpp:425] inception_5b/relu_5x5_reduce <- inception_5b/5x5_reduce
I0403 14:38:12.871866 30049 net.cpp:386] inception_5b/relu_5x5_reduce -> inception_5b/5x5_reduce (in-place)
I0403 14:38:12.872256 30049 net.cpp:141] Setting up inception_5b/relu_5x5_reduce
I0403 14:38:12.872284 30049 net.cpp:148] Top shape: 24 48 7 7 (56448)
I0403 14:38:12.872300 30049 net.cpp:156] Memory required for data: 1334725152
I0403 14:38:12.872320 30049 layer_factory.hpp:77] Creating layer inception_5b/5x5
I0403 14:38:12.872344 30049 net.cpp:91] Creating Layer inception_5b/5x5
I0403 14:38:12.872362 30049 net.cpp:425] inception_5b/5x5 <- inception_5b/5x5_reduce
I0403 14:38:12.872383 30049 net.cpp:399] inception_5b/5x5 -> inception_5b/5x5
I0403 14:38:12.874609 30049 net.cpp:141] Setting up inception_5b/5x5
I0403 14:38:12.874639 30049 net.cpp:148] Top shape: 24 128 7 7 (150528)
I0403 14:38:12.874655 30049 net.cpp:156] Memory required for data: 1335327264
I0403 14:38:12.874675 30049 layer_factory.hpp:77] Creating layer inception_5b/relu_5x5
I0403 14:38:12.874706 30049 net.cpp:91] Creating Layer inception_5b/relu_5x5
I0403 14:38:12.874725 30049 net.cpp:425] inception_5b/relu_5x5 <- inception_5b/5x5
I0403 14:38:12.874744 30049 net.cpp:386] inception_5b/relu_5x5 -> inception_5b/5x5 (in-place)
I0403 14:38:12.874943 30049 net.cpp:141] Setting up inception_5b/relu_5x5
I0403 14:38:12.874969 30049 net.cpp:148] Top shape: 24 128 7 7 (150528)
I0403 14:38:12.874984 30049 net.cpp:156] Memory required for data: 1335929376
I0403 14:38:12.875008 30049 layer_factory.hpp:77] Creating layer inception_5b/pool
I0403 14:38:12.875027 30049 net.cpp:91] Creating Layer inception_5b/pool
I0403 14:38:12.875044 30049 net.cpp:425] inception_5b/pool <- inception_5a/output_inception_5a/output_0_split_3
I0403 14:38:12.875068 30049 net.cpp:399] inception_5b/pool -> inception_5b/pool
I0403 14:38:12.875144 30049 net.cpp:141] Setting up inception_5b/pool
I0403 14:38:12.875169 30049 net.cpp:148] Top shape: 24 832 7 7 (978432)
I0403 14:38:12.875183 30049 net.cpp:156] Memory required for data: 1339843104
I0403 14:38:12.875200 30049 layer_factory.hpp:77] Creating layer inception_5b/pool_proj
I0403 14:38:12.875224 30049 net.cpp:91] Creating Layer inception_5b/pool_proj
I0403 14:38:12.875242 30049 net.cpp:425] inception_5b/pool_proj <- inception_5b/pool
I0403 14:38:12.875262 30049 net.cpp:399] inception_5b/pool_proj -> inception_5b/pool_proj
I0403 14:38:12.877614 30049 net.cpp:141] Setting up inception_5b/pool_proj
I0403 14:38:12.877656 30049 net.cpp:148] Top shape: 24 128 7 7 (150528)
I0403 14:38:12.877673 30049 net.cpp:156] Memory required for data: 1340445216
I0403 14:38:12.877692 30049 layer_factory.hpp:77] Creating layer inception_5b/relu_pool_proj
I0403 14:38:12.877713 30049 net.cpp:91] Creating Layer inception_5b/relu_pool_proj
I0403 14:38:12.877732 30049 net.cpp:425] inception_5b/relu_pool_proj <- inception_5b/pool_proj
I0403 14:38:12.877751 30049 net.cpp:386] inception_5b/relu_pool_proj -> inception_5b/pool_proj (in-place)
I0403 14:38:12.878057 30049 net.cpp:141] Setting up inception_5b/relu_pool_proj
I0403 14:38:12.878084 30049 net.cpp:148] Top shape: 24 128 7 7 (150528)
I0403 14:38:12.878100 30049 net.cpp:156] Memory required for data: 1341047328
I0403 14:38:12.878116 30049 layer_factory.hpp:77] Creating layer inception_5b/output
I0403 14:38:12.878136 30049 net.cpp:91] Creating Layer inception_5b/output
I0403 14:38:12.878170 30049 net.cpp:425] inception_5b/output <- inception_5b/1x1
I0403 14:38:12.878188 30049 net.cpp:425] inception_5b/output <- inception_5b/3x3
I0403 14:38:12.878206 30049 net.cpp:425] inception_5b/output <- inception_5b/5x5
I0403 14:38:12.878221 30049 net.cpp:425] inception_5b/output <- inception_5b/pool_proj
I0403 14:38:12.878239 30049 net.cpp:399] inception_5b/output -> inception_5b/output
I0403 14:38:12.878295 30049 net.cpp:141] Setting up inception_5b/output
I0403 14:38:12.878324 30049 net.cpp:148] Top shape: 24 1024 7 7 (1204224)
I0403 14:38:12.878342 30049 net.cpp:156] Memory required for data: 1345864224
I0403 14:38:12.878357 30049 layer_factory.hpp:77] Creating layer pool5/7x7_s1
I0403 14:38:12.878376 30049 net.cpp:91] Creating Layer pool5/7x7_s1
I0403 14:38:12.878392 30049 net.cpp:425] pool5/7x7_s1 <- inception_5b/output
I0403 14:38:12.878414 30049 net.cpp:399] pool5/7x7_s1 -> pool5/7x7_s1
I0403 14:38:12.878638 30049 net.cpp:141] Setting up pool5/7x7_s1
I0403 14:38:12.878667 30049 net.cpp:148] Top shape: 24 1024 1 1 (24576)
I0403 14:38:12.878684 30049 net.cpp:156] Memory required for data: 1345962528
I0403 14:38:12.878700 30049 layer_factory.hpp:77] Creating layer pool5/drop_7x7_s1
I0403 14:38:12.878718 30049 net.cpp:91] Creating Layer pool5/drop_7x7_s1
I0403 14:38:12.878736 30049 net.cpp:425] pool5/drop_7x7_s1 <- pool5/7x7_s1
I0403 14:38:12.878754 30049 net.cpp:386] pool5/drop_7x7_s1 -> pool5/7x7_s1 (in-place)
I0403 14:38:12.878808 30049 net.cpp:141] Setting up pool5/drop_7x7_s1
I0403 14:38:12.878832 30049 net.cpp:148] Top shape: 24 1024 1 1 (24576)
I0403 14:38:12.878849 30049 net.cpp:156] Memory required for data: 1346060832
I0403 14:38:12.878864 30049 layer_factory.hpp:77] Creating layer loss3/classifier_plantvillage
I0403 14:38:12.878885 30049 net.cpp:91] Creating Layer loss3/classifier_plantvillage
I0403 14:38:12.878902 30049 net.cpp:425] loss3/classifier_plantvillage <- pool5/7x7_s1
I0403 14:38:12.878923 30049 net.cpp:399] loss3/classifier_plantvillage -> loss3/classifier_plantvillage
I0403 14:38:12.879362 30049 net.cpp:141] Setting up loss3/classifier_plantvillage
I0403 14:38:12.879389 30049 net.cpp:148] Top shape: 24 38 (912)
I0403 14:38:12.879405 30049 net.cpp:156] Memory required for data: 1346064480
I0403 14:38:12.879422 30049 layer_factory.hpp:77] Creating layer loss3/classifier_plantvillage_loss3/classifier_plantvillage_0_split
I0403 14:38:12.879442 30049 net.cpp:91] Creating Layer loss3/classifier_plantvillage_loss3/classifier_plantvillage_0_split
I0403 14:38:12.879458 30049 net.cpp:425] loss3/classifier_plantvillage_loss3/classifier_plantvillage_0_split <- loss3/classifier_plantvillage
I0403 14:38:12.879490 30049 net.cpp:399] loss3/classifier_plantvillage_loss3/classifier_plantvillage_0_split -> loss3/classifier_plantvillage_loss3/classifier_plantvillage_0_split_0
I0403 14:38:12.879513 30049 net.cpp:399] loss3/classifier_plantvillage_loss3/classifier_plantvillage_0_split -> loss3/classifier_plantvillage_loss3/classifier_plantvillage_0_split_1
I0403 14:38:12.879534 30049 net.cpp:399] loss3/classifier_plantvillage_loss3/classifier_plantvillage_0_split -> loss3/classifier_plantvillage_loss3/classifier_plantvillage_0_split_2
I0403 14:38:12.879554 30049 net.cpp:399] loss3/classifier_plantvillage_loss3/classifier_plantvillage_0_split -> loss3/classifier_plantvillage_loss3/classifier_plantvillage_0_split_3
I0403 14:38:12.879659 30049 net.cpp:141] Setting up loss3/classifier_plantvillage_loss3/classifier_plantvillage_0_split
I0403 14:38:12.879686 30049 net.cpp:148] Top shape: 24 38 (912)
I0403 14:38:12.879703 30049 net.cpp:148] Top shape: 24 38 (912)
I0403 14:38:12.879720 30049 net.cpp:148] Top shape: 24 38 (912)
I0403 14:38:12.879736 30049 net.cpp:148] Top shape: 24 38 (912)
I0403 14:38:12.879751 30049 net.cpp:156] Memory required for data: 1346079072
I0403 14:38:12.879767 30049 layer_factory.hpp:77] Creating layer loss1/loss
I0403 14:38:12.879791 30049 net.cpp:91] Creating Layer loss1/loss
I0403 14:38:12.879807 30049 net.cpp:425] loss1/loss <- loss1/classifier_plantvillage_loss1/classifier_plantvillage_0_split_0
I0403 14:38:12.879839 30049 net.cpp:425] loss1/loss <- label_data_1_split_0
…
