…
I0403 15:24:55.924638 31735 net.cpp:313] The NetState phase (1) differed from the phase (0) specified by a rule in layer data
I0403 15:24:55.925716 31735 net.cpp:49] Initializing net from parameters: 
state {
  phase: TEST
}
layer {
  name: "data"
  type: "Data"
  top: "data"
  top: "label"
  include {
    phase: TEST
  }
  transform_param {
    mirror: false
    crop_size: 224
    mean_file: "/home/mohanty/data/final_dataset/lmdb/color-20-80/mean.binaryproto"
  }
  data_param {
    source: "/home/mohanty/data/final_dataset/lmdb/color-20-80/test_db"
    batch_size: 24
    backend: LMDB
  }
}
layer {
  name: "conv1/7x7_s2"
  type: "Convolution"
  bottom: "data"
  top: "conv1/7x7_s2"
  param {
    lr_mult: 1
    decay_mult: 1
  }
  param {
    lr_mult: 2
    decay_mult: 0
  }
  convolution_param {
    num_output: 64
    pad: 3
    kernel_size: 7
    stride: 2
    weight_filler {
      type: "xavier"
      std: 0.1
    }
    bias_filler {
      type: "constant"
      value: 0.2
    }
  }
}
layer {
  name: "conv1/relu_7x7"
  type: "ReLU"
  bottom: "conv1/7x7_s2"
  top: "conv1/7x7_s2"
}
layer {
  name: "pool1/3x3_s2"
  type: "Pooling"
  bottom: "conv1/7x7_s2"
  top: "pool1/3x3_s2"
  pooling_param {
    pool: MAX
    kernel_size: 3
    stride: 2
  }
}
layer {
  name: "pool1/norm1"
  type: "LRN"
  bottom: "pool1/3x3_s2"
  top: "pool1/norm1"
  lrn_param {
    local_size: 5
    alpha: 0.0001
    beta: 0.75
  }
}
layer {
  name: "conv2/3x3_reduce"
  type: "Convolution"
  bottom: "pool1/norm1"
  top: "conv2/3x3_reduce"
  param {
    lr_mult: 1
    decay_mult: 1
  }
  param {
    lr_mult: 2
    decay_mult: 0
  }
  convolution_param {
    num_output: 64
    kernel_size: 1
    weight_filler {
      type: "xavier"
      std: 0.1
    }
    bias_filler {
      type: "constant"
      value: 0.2
    }
  }
}
layer {
  name: "conv2/relu_3x3_reduce"
  type: "ReLU"
  bottom: "conv2/3x3_reduce"
  top: "conv2/3x3_reduce"
}
layer {
  name: "conv2/3x3"
  type: "Convolution"
  bottom: "conv2/3x3_reduce"
  top: "conv2/3x3"
  param {
    lr_mult: 1
    decay_mult: 1
  }
  param {
    lr_mult: 2
    decay_mult: 0
  }
  convolution_param {
    num_output: 192
    pad: 1
    kernel_size: 3
    weight_filler {
      type: "xavier"
      std: 0.03
    }
    bias_filler {
      type: "constant"
      value: 0.2
    }
  }
}
layer {
  name: "conv2/relu_3x3"
  type: "ReLU"
  bottom: "conv2/3x3"
  top: "conv2/3x3"
}
layer {
  name: "conv2/norm2"
  type: "LRN"
  bottom: "conv2/3x3"
  top: "conv2/norm2"
  lrn_param {
    local_size: 5
    alpha: 0.0001
    beta: 0.75
  }
}
layer {
  name: "pool2/3x3_s2"
  type: "Pooling"
  bottom: "conv2/norm2"
  top: "pool2/3x3_s2"
  pooling_param {
    pool: MAX
    kernel_size: 3
    stride: 2
  }
}
layer {
  name: "inception_3a/1x1"
  type: "Convolution"
  bottom: "pool2/3x3_s2"
  top: "inception_3a/1x1"
  param {
    lr_mult: 1
    decay_mult: 1
  }
  param {
    lr_mult: 2
    decay_mult: 0
  }
  convolution_param {
    num_output: 64
    kernel_size: 1
    weight_filler {
      type: "xavier"
      std: 0.03
    }
    bias_filler {
      type: "constant"
      value: 0.2
    }
  }
}
layer {
  name: "inception_3a/relu_1x1"
  type: "ReLU"
  bottom: "inception_3a/1x1"
  top: "inception_3a/1x1"
}
layer {
  name: "inception_3a/3x3_reduce"
  type: "Convolution"
  bottom: "pool2/3x3_s2"
  top: "inception_3a/3x3_reduce"
  param {
    lr_mult: 1
    decay_mult: 1
  }
  param {
    lr_mult: 2
    decay_mult: 0
  }
  convolution_param {
    num_output: 96
    kernel_size: 1
    weight_filler {
      type: "xavier"
      std: 0.09
    }
    bias_filler {
      type: "constant"
      value: 0.2
    }
  }
}
layer {
  name: "inception_3a/relu_3x3_reduce"
  type: "ReLU"
  bottom: "inception_3a/3x3_reduce"
  top: "inception_3a/3x3_reduce"
}
layer {
  name: "inception_3a/3x3"
  type: "Convolution"
  bottom: "inception_3a/3x3_reduce"
  top: "inception_3a/3x3"
  param {
    lr_mult: 1
    decay_mult: 1
  }
  param {
    lr_mult: 2
    decay_mult: 0
  }
  convolution_param {
    num_output: 128
    pad: 1
    kernel_size: 3
    weight_filler {
      type: "xavier"
      std: 0.03
    }
    bias_filler {
      type: "constant"
      value: 0.2
    }
  }
}
layer {
  name: "inception_3a/relu_3x3"
  type: "ReLU"
  bottom: "inception_3a/3x3"
  top: "inception_3a/3x3"
}
layer {
  name: "inception_3a/5x5_reduce"
  type: "Convolution"
  bottom: "pool2/3x3_s2"
  top: "inception_3a/5x5_reduce"
  param {
    lr_mult: 1
    decay_mult: 1
  }
  param {
    lr_mult: 2
    decay_mult: 0
  }
  convolution_param {
    num_output: 16
    kernel_size: 1
    weight_filler {
      type: "xavier"
      std: 0.2
    }
    bias_filler {
      type: "constant"
      value: 0.2
    }
  }
}
layer {
  name: "inception_3a/relu_5x5_reduce"
  type: "ReLU"
  bottom: "inception_3a/5x5_reduce"
  top: "inception_3a/5x5_reduce"
}
layer {
  name: "inception_3a/5x5"
  type: "Convolution"
  bottom: "inception_3a/5x5_reduce"
  top: "inception_3a/5x5"
  param {
    lr_mult: 1
    decay_mult: 1
  }
  param {
    lr_mult: 2
    decay_mult: 0
  }
  convolution_param {
    num_output: 32
    pad: 2
    kernel_size: 5
    weight_filler {
      type: "xavier"
      std: 0.03
    }
    bias_filler {
      type: "constant"
      value: 0.2
    }
  }
}
layer {
  name: "inception_3a/relu_5x5"
  type: "ReLU"
  bottom: "inception_3a/5x5"
  top: "inception_3a/5x5"
}
layer {
  name: "inception_3a/pool"
  type: "Pooling"
  bottom: "pool2/3x3_s2"
  top: "inception_3a/pool"
  pooling_param {
    pool: MAX
    kernel_size: 3
    stride: 1
    pad: 1
  }
}
layer {
  name: "inception_3a/pool_proj"
  type: "Convolution"
  bottom: "inception_3a/pool"
  top: "inception_3a/pool_proj"
  param {
    lr_mult: 1
    decay_mult: 1
  }
  param {
    lr_mult: 2
    decay_mult: 0
  }
  convolution_param {
    num_output: 32
    kernel_size: 1
    weight_filler {
      type: "xavier"
      std: 0.1
    }
    bias_filler {
      type: "constant"
      value: 0.2
    }
  }
}
layer {
  name: "inception_3a/relu_pool_proj"
  type: "ReLU"
  bottom: "inception_3a/pool_proj"
  top: "inception_3a/pool_proj"
}
layer {
  name: "inception_3a/output"
  type: "Concat"
  bottom: "inception_3a/1x1"
  bottom: "inception_3a/3x3"
  bottom: "inception_3a/5x5"
  bottom: "inception_3a/pool_proj"
  top: "inception_3a/output"
}
layer {
  name: "inception_3b/1x1"
  type: "Convolution"
  bottom: "inception_3a/output"
  top: "inception_3b/1x1"
  param {
    lr_mult: 1
    decay_mult: 1
  }
  param {
    lr_mult: 2
    decay_mult: 0
  }
  convolution_param {
    num_output: 128
    kernel_size: 1
    weight_filler {
      type: "xavier"
      std: 0.03
    }
    bias_filler {
      type: "constant"
      value: 0.2
    }
  }
}
layer {
  name: "inception_3b/relu_1x1"
  type: "ReLU"
  bottom: "inception_3b/1x1"
  top: "inception_3b/1x1"
}
layer {
  name: "inception_3b/3x3_reduce"
  type: "Convolution"
  bottom: "inception_3a/output"
  top: "inception_3b/3x3_reduce"
  param {
    lr_mult: 1
    decay_mult: 1
  }
  param {
    lr_mult: 2
    decay_mult: 0
  }
  convolution_param {
    num_output: 128
    kernel_size: 1
    weight_filler {
      type: "xavier"
      std: 0.09
    }
    bias_filler {
      type: "constant"
      value: 0.2
    }
  }
}
layer {
  name: "inception_3b/relu_3x3_reduce"
  type: "ReLU"
  bottom: "inception_3b/3x3_reduce"
  top: "inception_3b/3x3_reduce"
}
layer {
  name: "inception_3b/3x3"
  type: "Convolution"
  bottom: "inception_3b/3x3_reduce"
  top: "inception_3b/3x3"
  param {
    lr_mult: 1
    decay_mult: 1
  }
  param {
    lr_mult: 2
    decay_mult: 0
  }
  convolution_param {
    num_output: 192
    pad: 1
    kernel_size: 3
    weight_filler {
      type: "xavier"
      std: 0.03
    }
    bias_filler {
      type: "constant"
      value: 0.2
    }
  }
}
layer {
  name: "inception_3b/relu_3x3"
  type: "ReLU"
  bottom: "inception_3b/3x3"
  top: "inception_3b/3x3"
}
layer {
  name: "inception_3b/5x5_reduce"
  type: "Convolution"
  bottom: "inception_3a/output"
  top: "inception_3b/5x5_reduce"
  param {
    lr_mult: 1
    decay_mult: 1
  }
  param {
    lr_mult: 2
    decay_mult: 0
  }
  convolution_param {
    num_output: 32
    kernel_size: 1
    weight_filler {
      type: "xavier"
      std: 0.2
    }
    bias_filler {
      type: "constant"
      value: 0.2
    }
  }
}
layer {
  name: "inception_3b/relu_5x5_reduce"
  type: "ReLU"
  bottom: "inception_3b/5x5_reduce"
  top: "inception_3b/5x5_reduce"
}
layer {
  name: "inception_3b/5x5"
  type: "Convolution"
  bottom: "inception_3b/5x5_reduce"
  top: "inception_3b/5x5"
  param {
    lr_mult: 1
    decay_mult: 1
  }
  param {
    lr_mult: 2
    decay_mult: 0
  }
  convolution_param {
    num_output: 96
    pad: 2
    kernel_size: 5
    weight_filler {
      type: "xavier"
      std: 0.03
    }
    bias_filler {
      type: "constant"
      value: 0.2
    }
  }
}
layer {
  name: "inception_3b/relu_5x5"
  type: "ReLU"
  bottom: "inception_3b/5x5"
  top: "inception_3b/5x5"
}
layer {
  name: "inception_3b/pool"
  type: "Pooling"
  bottom: "inception_3a/output"
  top: "inception_3b/pool"
  pooling_param {
    pool: MAX
    kernel_size: 3
    stride: 1
    pad: 1
  }
}
layer {
  name: "inception_3b/pool_proj"
  type: "Convolution"
  bottom: "inception_3b/pool"
  top: "inception_3b/pool_proj"
  param {
    lr_mult: 1
    decay_mult: 1
  }
  param {
    lr_mult: 2
    decay_mult: 0
  }
  convolution_param {
    num_output: 64
    kernel_size: 1
    weight_filler {
      type: "xavier"
      std: 0.1
    }
    bias_filler {
      type: "constant"
      value: 0.2
    }
  }
}
layer {
  name: "inception_3b/relu_pool_proj"
  type: "ReLU"
  bottom: "inception_3b/pool_proj"
  top: "inception_3b/pool_proj"
}
layer {
  name: "inception_3b/output"
  type: "Concat"
  bottom: "inception_3b/1x1"
  bottom: "inception_3b/3x3"
  bottom: "inception_3b/5x5"
  bottom: "inception_3b/pool_proj"
  top: "inception_3b/output"
}
layer {
  name: "pool3/3x3_s2"
  type: "Pooling"
  bottom: "inception_3b/output"
  top: "pool3/3x3_s2"
  pooling_param {
    pool: MAX
    kernel_size: 3
    stride: 2
  }
}
layer {
  name: "inception_4a/1x1"
  type: "Convolution"
  bottom: "pool3/3x3_s2"
  top: "inception_4a/1x1"
  param {
    lr_mult: 1
    decay_mult: 1
  }
  param {
    lr_mult: 2
    decay_mult: 0
  }
  convolution_param {
    num_output: 192
    kernel_size: 1
    weight_filler {
      type: "xavier"
      std: 0.03
    }
    bias_filler {
      type: "constant"
      value: 0.2
    }
  }
}
layer {
  name: "inception_4a/relu_1x1"
  type: "ReLU"
  bottom: "inception_4a/1x1"
  top: "inception_4a/1x1"
}
layer {
  name: "inception_4a/3x3_reduce"
  type: "Convolution"
  bottom: "pool3/3x3_s2"
  top: "inception_4a/3x3_reduce"
  param {
    lr_mult: 1
    decay_mult: 1
  }
  param {
    lr_mult: 2
    decay_mult: 0
  }
  convolution_param {
    num_output: 96
    kernel_size: 1
    weight_filler {
      type: "xavier"
      std: 0.09
    }
    bias_filler {
      type: "constant"
      value: 0.2
    }
  }
}
layer {
  name: "inception_4a/relu_3x3_reduce"
  type: "ReLU"
  bottom: "inception_4a/3x3_reduce"
  top: "inception_4a/3x3_reduce"
}
layer {
  name: "inception_4a/3x3"
  type: "Convolution"
  bottom: "inception_4a/3x3_reduce"
  top: "inception_4a/3x3"
  param {
    lr_mult: 1
    decay_mult: 1
  }
  param {
    lr_mult: 2
    decay_mult: 0
  }
  convolution_param {
    num_output: 208
    pad: 1
    kernel_size: 3
    weight_filler {
      type: "xavier"
      std: 0.03
    }
    bias_filler {
      type: "constant"
      value: 0.2
    }
  }
}
layer {
  name: "inception_4a/relu_3x3"
  type: "ReLU"
  bottom: "inception_4a/3x3"
  top: "inception_4a/3x3"
}
layer {
  name: "inception_4a/5x5_reduce"
  type: "Convolution"
  bottom: "pool3/3x3_s2"
  top: "inception_4a/5x5_reduce"
  param {
    lr_mult: 1
    decay_mult: 1
  }
  param {
    lr_mult: 2
    decay_mult: 0
  }
  convolution_param {
    num_output: 16
    kernel_size: 1
    weight_filler {
      type: "xavier"
      std: 0.2
    }
    bias_filler {
      type: "constant"
      value: 0.2
    }
  }
}
layer {
  name: "inception_4a/relu_5x5_reduce"
  type: "ReLU"
  bottom: "inception_4a/5x5_reduce"
  top: "inception_4a/5x5_reduce"
}
layer {
  name: "inception_4a/5x5"
  type: "Convolution"
  bottom: "inception_4a/5x5_reduce"
  top: "inception_4a/5x5"
  param {
    lr_mult: 1
    decay_mult: 1
  }
  param {
    lr_mult: 2
    decay_mult: 0
  }
  convolution_param {
    num_output: 48
    pad: 2
    kernel_size: 5
    weight_filler {
      type: "xavier"
      std: 0.03
    }
    bias_filler {
      type: "constant"
      value: 0.2
    }
  }
}
layer {
  name: "inception_4a/relu_5x5"
  type: "ReLU"
  bottom: "inception_4a/5x5"
  top: "inception_4a/5x5"
}
layer {
  name: "inception_4a/pool"
  type: "Pooling"
  bottom: "pool3/3x3_s2"
  top: "inception_4a/pool"
  pooling_param {
    pool: MAX
    kernel_size: 3
    stride: 1
    pad: 1
  }
}
layer {
  name: "inception_4a/pool_proj"
  type: "Convolution"
  bottom: "inception_4a/pool"
  top: "inception_4a/pool_proj"
  param {
    lr_mult: 1
    decay_mult: 1
  }
  param {
    lr_mult: 2
    decay_mult: 0
  }
  convolution_param {
    num_output: 64
    kernel_size: 1
    weight_filler {
      type: "xavier"
      std: 0.1
    }
    bias_filler {
      type: "constant"
      value: 0.2
    }
  }
}
layer {
  name: "inception_4a/relu_pool_proj"
  type: "ReLU"
  bottom: "inception_4a/pool_proj"
  top: "inception_4a/pool_proj"
}
layer {
  name: "inception_4a/output"
  type: "Concat"
  bottom: "inception_4a/1x1"
  bottom: "inception_4a/3x3"
  bottom: "inception_4a/5x5"
  bottom: "inception_4a/pool_proj"
  top: "inception_4a/output"
}
layer {
  name: "loss1/ave_pool"
  type: "Pooling"
  bottom: "inception_4a/output"
  top: "loss1/ave_pool"
  pooling_param {
    pool: AVE
    kernel_size: 5
    stride: 3
  }
}
layer {
  name: "loss1/conv"
  type: "Convolution"
  bottom: "loss1/ave_pool"
  top: "loss1/conv"
  param {
    lr_mult: 1
    decay_mult: 1
  }
  param {
    lr_mult: 2
    decay_mult: 0
  }
  convolution_param {
    num_output: 128
    kernel_size: 1
    weight_filler {
      type: "xavier"
      std: 0.08
    }
    bias_filler {
      type: "constant"
      value: 0.2
    }
  }
}
layer {
  name: "loss1/relu_conv"
  type: "ReLU"
  bottom: "loss1/conv"
  top: "loss1/conv"
}
layer {
  name: "loss1/fc"
  type: "InnerProduct"
  bottom: "loss1/conv"
  top: "loss1/fc"
  param {
    lr_mult: 1
    decay_mult: 1
  }
  param {
    lr_mult: 2
    decay_mult: 0
  }
  inner_product_param {
    num_output: 1024
    weight_filler {
      type: "xavier"
      std: 0.02
    }
    bias_filler {
      type: "constant"
      value: 0.2
    }
  }
}
layer {
  name: "loss1/relu_fc"
  type: "ReLU"
  bottom: "loss1/fc"
  top: "loss1/fc"
}
layer {
  name: "loss1/drop_fc"
  type: "Dropout"
  bottom: "loss1/fc"
  top: "loss1/fc"
  dropout_param {
    dropout_ratio: 0.7
  }
}
layer {
  name: "loss1/classifier_plantvillage"
  type: "InnerProduct"
  bottom: "loss1/fc"
  top: "loss1/classifier_plantvillage"
  param {
    lr_mult: 1
    decay_mult: 1
  }
  param {
    lr_mult: 2
    decay_mult: 0
  }
  inner_product_param {
    num_output: 38
    weight_filler {
      type: "xavier"
      std: 0.0009765625
    }
    bias_filler {
      type: "constant"
      value: 0
    }
  }
}
layer {
  name: "inception_4b/1x1"
  type: "Convolution"
  bottom: "inception_4a/output"
  top: "inception_4b/1x1"
  param {
    lr_mult: 1
    decay_mult: 1
  }
  param {
    lr_mult: 2
    decay_mult: 0
  }
  convolution_param {
    num_output: 160
    kernel_size: 1
    weight_filler {
      type: "xavier"
      std: 0.03
    }
    bias_filler {
      type: "constant"
      value: 0.2
    }
  }
}
layer {
  name: "inception_4b/relu_1x1"
  type: "ReLU"
  bottom: "inception_4b/1x1"
  top: "inception_4b/1x1"
}
layer {
  name: "inception_4b/3x3_reduce"
  type: "Convolution"
  bottom: "inception_4a/output"
  top: "inception_4b/3x3_reduce"
  param {
    lr_mult: 1
    decay_mult: 1
  }
  param {
    lr_mult: 2
    decay_mult: 0
  }
  convolution_param {
    num_output: 112
    kernel_size: 1
    weight_filler {
      type: "xavier"
      std: 0.09
    }
    bias_filler {
      type: "constant"
      value: 0.2
    }
  }
}
layer {
  name: "inception_4b/relu_3x3_reduce"
  type: "ReLU"
  bottom: "inception_4b/3x3_reduce"
  top: "inception_4b/3x3_reduce"
}
layer {
  name: "inception_4b/3x3"
  type: "Convolution"
  bottom: "inception_4b/3x3_reduce"
  top: "inception_4b/3x3"
  param {
    lr_mult: 1
    decay_mult: 1
  }
  param {
    lr_mult: 2
    decay_mult: 0
  }
  convolution_param {
    num_output: 224
    pad: 1
    kernel_size: 3
    weight_filler {
      type: "xavier"
      std: 0.03
    }
    bias_filler {
      type: "constant"
      value: 0.2
    }
  }
}
layer {
  name: "inception_4b/relu_3x3"
  type: "ReLU"
  bottom: "inception_4b/3x3"
  top: "inception_4b/3x3"
}
layer {
  name: "inception_4b/5x5_reduce"
  type: "Convolution"
  bottom: "inception_4a/output"
  top: "inception_4b/5x5_reduce"
  param {
    lr_mult: 1
    decay_mult: 1
  }
  param {
    lr_mult: 2
    decay_mult: 0
  }
  convolution_param {
    num_output: 24
    kernel_size: 1
    weight_filler {
      type: "xavier"
      std: 0.2
    }
    bias_filler {
      type: "constant"
      value: 0.2
    }
  }
}
layer {
  name: "inception_4b/relu_5x5_reduce"
  type: "ReLU"
  bottom: "inception_4b/5x5_reduce"
  top: "inception_4b/5x5_reduce"
}
layer {
  name: "inception_4b/5x5"
  type: "Convolution"
  bottom: "inception_4b/5x5_reduce"
  top: "inception_4b/5x5"
  param {
    lr_mult: 1
    decay_mult: 1
  }
  param {
    lr_mult: 2
    decay_mult: 0
  }
  convolution_param {
    num_output: 64
    pad: 2
    kernel_size: 5
    weight_filler {
      type: "xavier"
      std: 0.03
    }
    bias_filler {
      type: "constant"
      value: 0.2
    }
  }
}
layer {
  name: "inception_4b/relu_5x5"
  type: "ReLU"
  bottom: "inception_4b/5x5"
  top: "inception_4b/5x5"
}
layer {
  name: "inception_4b/pool"
  type: "Pooling"
  bottom: "inception_4a/output"
  top: "inception_4b/pool"
  pooling_param {
    pool: MAX
    kernel_size: 3
    stride: 1
    pad: 1
  }
}
layer {
  name: "inception_4b/pool_proj"
  type: "Convolution"
  bottom: "inception_4b/pool"
  top: "inception_4b/pool_proj"
  param {
    lr_mult: 1
    decay_mult: 1
  }
  param {
    lr_mult: 2
    decay_mult: 0
  }
  convolution_param {
    num_output: 64
    kernel_size: 1
    weight_filler {
      type: "xavier"
      std: 0.1
    }
    bias_filler {
      type: "constant"
      value: 0.2
    }
  }
}
layer {
  name: "inception_4b/relu_pool_proj"
  type: "ReLU"
  bottom: "inception_4b/pool_proj"
  top: "inception_4b/pool_proj"
}
layer {
  name: "inception_4b/output"
  type: "Concat"
  bottom: "inception_4b/1x1"
  bottom: "inception_4b/3x3"
  bottom: "inception_4b/5x5"
  bottom: "inception_4b/pool_proj"
  top: "inception_4b/output"
}
layer {
  name: "inception_4c/1x1"
  type: "Convolution"
  bottom: "inception_4b/output"
  top: "inception_4c/1x1"
  param {
    lr_mult: 1
    decay_mult: 1
  }
  param {
    lr_mult: 2
    decay_mult: 0
  }
  convolution_param {
    num_output: 128
    kernel_size: 1
    weight_filler {
      type: "xavier"
      std: 0.03
    }
    bias_filler {
      type: "constant"
      value: 0.2
    }
  }
}
layer {
  name: "inception_4c/relu_1x1"
  type: "ReLU"
  bottom: "inception_4c/1x1"
  top: "inception_4c/1x1"
}
layer {
  name: "inception_4c/3x3_reduce"
  type: "Convolution"
  bottom: "inception_4b/output"
  top: "inception_4c/3x3_reduce"
  param {
    lr_mult: 1
    decay_mult: 1
  }
  param {
    lr_mult: 2
    decay_mult: 0
  }
  convolution_param {
    num_output: 128
    kernel_size: 1
    weight_filler {
      type: "xavier"
      std: 0.09
    }
    bias_filler {
      type: "constant"
      value: 0.2
    }
  }
}
layer {
  name: "inception_4c/relu_3x3_reduce"
  type: "ReLU"
  bottom: "inception_4c/3x3_reduce"
  top: "inception_4c/3x3_reduce"
}
layer {
  name: "inception_4c/3x3"
  type: "Convolution"
  bottom: "inception_4c/3x3_reduce"
  top: "inception_4c/3x3"
  param {
    lr_mult: 1
    decay_mult: 1
  }
  param {
    lr_mult: 2
    decay_mult: 0
  }
  convolution_param {
    num_output: 256
    pad: 1
    kernel_size: 3
    weight_filler {
      type: "xavier"
      std: 0.03
    }
    bias_filler {
      type: "constant"
      value: 0.2
    }
  }
}
layer {
  name: "inception_4c/relu_3x3"
  type: "ReLU"
  bottom: "inception_4c/3x3"
  top: "inception_4c/3x3"
}
layer {
  name: "inception_4c/5x5_reduce"
  type: "Convolution"
  bottom: "inception_4b/output"
  top: "inception_4c/5x5_reduce"
  param {
    lr_mult: 1
    decay_mult: 1
  }
  param {
    lr_mult: 2
    decay_mult: 0
  }
  convolution_param {
    num_output: 24
    kernel_size: 1
    weight_filler {
      type: "xavier"
      std: 0.2
    }
    bias_filler {
      type: "constant"
      value: 0.2
    }
  }
}
layer {
  name: "inception_4c/relu_5x5_reduce"
  type: "ReLU"
  bottom: "inception_4c/5x5_reduce"
  top: "inception_4c/5x5_reduce"
}
layer {
  name: "inception_4c/5x5"
  type: "Convolution"
  bottom: "inception_4c/5x5_reduce"
  top: "inception_4c/5x5"
  param {
    lr_mult: 1
    decay_mult: 1
  }
  param {
    lr_mult: 2
    decay_mult: 0
  }
  convolution_param {
    num_output: 64
    pad: 2
    kernel_size: 5
    weight_filler {
      type: "xavier"
      std: 0.03
    }
    bias_filler {
      type: "constant"
      value: 0.2
    }
  }
}
layer {
  name: "inception_4c/relu_5x5"
  type: "ReLU"
  bottom: "inception_4c/5x5"
  top: "inception_4c/5x5"
}
layer {
  name: "inception_4c/pool"
  type: "Pooling"
  bottom: "inception_4b/output"
  top: "inception_4c/pool"
  pooling_param {
    pool: MAX
    kernel_size: 3
    stride: 1
    pad: 1
  }
}
layer {
  name: "inception_4c/pool_proj"
  type: "Convolution"
  bottom: "inception_4c/pool"
  top: "inception_4c/pool_proj"
  param {
    lr_mult: 1
    decay_mult: 1
  }
  param {
    lr_mult: 2
    decay_mult: 0
  }
  convolution_param {
    num_output: 64
    kernel_size: 1
    weight_filler {
      type: "xavier"
      std: 0.1
    }
    bias_filler {
      type: "constant"
      value: 0.2
    }
  }
}
layer {
  name: "inception_4c/relu_pool_proj"
  type: "ReLU"
  bottom: "inception_4c/pool_proj"
  top: "inception_4c/pool_proj"
}
layer {
  name: "inception_4c/output"
  type: "Concat"
  bottom: "inception_4c/1x1"
  bottom: "inception_4c/3x3"
  bottom: "inception_4c/5x5"
  bottom: "inception_4c/pool_proj"
  top: "inception_4c/output"
}
layer {
  name: "inception_4d/1x1"
  type: "Convolution"
  bottom: "inception_4c/output"
  top: "inception_4d/1x1"
  param {
    lr_mult: 1
    decay_mult: 1
  }
  param {
    lr_mult: 2
    decay_mult: 0
  }
  convolution_param {
    num_output: 112
    kernel_size: 1
    weight_filler {
      type: "xavier"
      std: 0.03
    }
    bias_filler {
      type: "constant"
      value: 0.2
    }
  }
}
layer {
  name: "inception_4d/relu_1x1"
  type: "ReLU"
  bottom: "inception_4d/1x1"
  top: "inception_4d/1x1"
}
layer {
  name: "inception_4d/3x3_reduce"
  type: "Convolution"
  bottom: "inception_4c/output"
  top: "inception_4d/3x3_reduce"
  param {
    lr_mult: 1
    decay_mult: 1
  }
  param {
    lr_mult: 2
    decay_mult: 0
  }
  convolution_param {
    num_output: 144
    kernel_size: 1
    weight_filler {
      type: "xavier"
      std: 0.09
    }
    bias_filler {
      type: "constant"
      value: 0.2
    }
  }
}
layer {
  name: "inception_4d/relu_3x3_reduce"
  type: "ReLU"
  bottom: "inception_4d/3x3_reduce"
  top: "inception_4d/3x3_reduce"
}
layer {
  name: "inception_4d/3x3"
  type: "Convolution"
  bottom: "inception_4d/3x3_reduce"
  top: "inception_4d/3x3"
  param {
    lr_mult: 1
    decay_mult: 1
  }
  param {
    lr_mult: 2
    decay_mult: 0
  }
  convolution_param {
    num_output: 288
    pad: 1
    kernel_size: 3
    weight_filler {
      type: "xavier"
      std: 0.03
    }
    bias_filler {
      type: "constant"
      value: 0.2
    }
  }
}
layer {
  name: "inception_4d/relu_3x3"
  type: "ReLU"
  bottom: "inception_4d/3x3"
  top: "inception_4d/3x3"
}
layer {
  name: "inception_4d/5x5_reduce"
  type: "Convolution"
  bottom: "inception_4c/output"
  top: "inception_4d/5x5_reduce"
  param {
    lr_mult: 1
    decay_mult: 1
  }
  param {
    lr_mult: 2
    decay_mult: 0
  }
  convolution_param {
    num_output: 32
    kernel_size: 1
    weight_filler {
      type: "xavier"
      std: 0.2
    }
    bias_filler {
      type: "constant"
      value: 0.2
    }
  }
}
layer {
  name: "inception_4d/relu_5x5_reduce"
  type: "ReLU"
  bottom: "inception_4d/5x5_reduce"
  top: "inception_4d/5x5_reduce"
}
layer {
  name: "inception_4d/5x5"
  type: "Convolution"
  bottom: "inception_4d/5x5_reduce"
  top: "inception_4d/5x5"
  param {
    lr_mult: 1
    decay_mult: 1
  }
  param {
    lr_mult: 2
    decay_mult: 0
  }
  convolution_param {
    num_output: 64
    pad: 2
    kernel_size: 5
    weight_filler {
      type: "xavier"
      std: 0.03
    }
    bias_filler {
      type: "constant"
      value: 0.2
    }
  }
}
layer {
  name: "inception_4d/relu_5x5"
  type: "ReLU"
  bottom: "inception_4d/5x5"
  top: "inception_4d/5x5"
}
layer {
  name: "inception_4d/pool"
  type: "Pooling"
  bottom: "inception_4c/output"
  top: "inception_4d/pool"
  pooling_param {
    pool: MAX
    kernel_size: 3
    stride: 1
    pad: 1
  }
}
layer {
  name: "inception_4d/pool_proj"
  type: "Convolution"
  bottom: "inception_4d/pool"
  top: "inception_4d/pool_proj"
  param {
    lr_mult: 1
    decay_mult: 1
  }
  param {
    lr_mult: 2
    decay_mult: 0
  }
  convolution_param {
    num_output: 64
    kernel_size: 1
    weight_filler {
      type: "xavier"
      std: 0.1
    }
    bias_filler {
      type: "constant"
      value: 0.2
    }
  }
}
layer {
  name: "inception_4d/relu_pool_proj"
  type: "ReLU"
  bottom: "inception_4d/pool_proj"
  top: "inception_4d/pool_proj"
}
layer {
  name: "inception_4d/output"
  type: "Concat"
  bottom: "inception_4d/1x1"
  bottom: "inception_4d/3x3"
  bottom: "inception_4d/5x5"
  bottom: "inception_4d/pool_proj"
  top: "inception_4d/output"
}
layer {
  name: "loss2/ave_pool"
  type: "Pooling"
  bottom: "inception_4d/output"
  top: "loss2/ave_pool"
  pooling_param {
    pool: AVE
    kernel_size: 5
    stride: 3
  }
}
layer {
  name: "loss2/conv"
  type: "Convolution"
  bottom: "loss2/ave_pool"
  top: "loss2/conv"
  param {
    lr_mult: 1
    decay_mult: 1
  }
  param {
    lr_mult: 2
    decay_mult: 0
  }
  convolution_param {
    num_output: 128
    kernel_size: 1
    weight_filler {
      type: "xavier"
      std: 0.08
    }
    bias_filler {
      type: "constant"
      value: 0.2
    }
  }
}
layer {
  name: "loss2/relu_conv"
  type: "ReLU"
  bottom: "loss2/conv"
  top: "loss2/conv"
}
layer {
  name: "loss2/fc"
  type: "InnerProduct"
  bottom: "loss2/conv"
  top: "loss2/fc"
  param {
    lr_mult: 1
    decay_mult: 1
  }
  param {
    lr_mult: 2
    decay_mult: 0
  }
  inner_product_param {
    num_output: 1024
    weight_filler {
      type: "xavier"
      std: 0.02
    }
    bias_filler {
      type: "constant"
      value: 0.2
    }
  }
}
layer {
  name: "loss2/relu_fc"
  type: "ReLU"
  bottom: "loss2/fc"
  top: "loss2/fc"
}
layer {
  name: "loss2/drop_fc"
  type: "Dropout"
  bottom: "loss2/fc"
  top: "loss2/fc"
  dropout_param {
    dropout_ratio: 0.7
  }
}
layer {
  name: "loss2/classifier_plantvillage"
  type: "InnerProduct"
  bottom: "loss2/fc"
  top: "loss2/classifier_plantvillage"
  param {
    lr_mult: 1
    decay_mult: 1
  }
  param {
    lr_mult: 2
    decay_mult: 0
  }
  inner_product_param {
    num_output: 38
    weight_filler {
      type: "xavier"
      std: 0.0009765625
    }
    bias_filler {
      type: "constant"
      value: 0
    }
  }
}
layer {
  name: "inception_4e/1x1"
  type: "Convolution"
  bottom: "inception_4d/output"
  top: "inception_4e/1x1"
  param {
    lr_mult: 1
    decay_mult: 1
  }
  param {
    lr_mult: 2
    decay_mult: 0
  }
  convolution_param {
    num_output: 256
    kernel_size: 1
    weight_filler {
      type: "xavier"
      std: 0.03
    }
    bias_filler {
      type: "constant"
      value: 0.2
    }
  }
}
layer {
  name: "inception_4e/relu_1x1"
  type: "ReLU"
  bottom: "inception_4e/1x1"
  top: "inception_4e/1x1"
}
layer {
  name: "inception_4e/3x3_reduce"
  type: "Convolution"
  bottom: "inception_4d/output"
  top: "inception_4e/3x3_reduce"
  param {
    lr_mult: 1
    decay_mult: 1
  }
  param {
    lr_mult: 2
    decay_mult: 0
  }
  convolution_param {
    num_output: 160
    kernel_size: 1
    weight_filler {
      type: "xavier"
      std: 0.09
    }
    bias_filler {
      type: "constant"
      value: 0.2
    }
  }
}
layer {
  name: "inception_4e/relu_3x3_reduce"
  type: "ReLU"
  bottom: "inception_4e/3x3_reduce"
  top: "inception_4e/3x3_reduce"
}
layer {
  name: "inception_4e/3x3"
  type: "Convolution"
  bottom: "inception_4e/3x3_reduce"
  top: "inception_4e/3x3"
  param {
    lr_mult: 1
    decay_mult: 1
  }
  param {
    lr_mult: 2
    decay_mult: 0
  }
  convolution_param {
    num_output: 320
    pad: 1
    kernel_size: 3
    weight_filler {
      type: "xavier"
      std: 0.03
    }
    bias_filler {
      type: "constant"
      value: 0.2
    }
  }
}
layer {
  name: "inception_4e/relu_3x3"
  type: "ReLU"
  bottom: "inception_4e/3x3"
  top: "inception_4e/3x3"
}
layer {
  name: "inception_4e/5x5_reduce"
  type: "Convolution"
  bottom: "inception_4d/output"
  top: "inception_4e/5x5_reduce"
  param {
    lr_mult: 1
    decay_mult: 1
  }
  param {
    lr_mult: 2
    decay_mult: 0
  }
  convolution_param {
    num_output: 32
    kernel_size: 1
    weight_filler {
      type: "xavier"
      std: 0.2
    }
    bias_filler {
      type: "constant"
      value: 0.2
    }
  }
}
layer {
  name: "inception_4e/relu_5x5_reduce"
  type: "ReLU"
  bottom: "inception_4e/5x5_reduce"
  top: "inception_4e/5x5_reduce"
}
layer {
  name: "inception_4e/5x5"
  type: "Convolution"
  bottom: "inception_4e/5x5_reduce"
  top: "inception_4e/5x5"
  p
I0403 15:24:55.926957 31735 layer_factory.hpp:77] Creating layer data
I0403 15:24:55.927574 31735 net.cpp:91] Creating Layer data
I0403 15:24:55.927605 31735 net.cpp:399] data -> data
I0403 15:24:55.927676 31735 net.cpp:399] data -> label
I0403 15:24:55.927714 31735 data_transformer.cpp:25] Loading mean file from: /home/mohanty/data/final_dataset/lmdb/color-20-80/mean.binaryproto
I0403 15:24:55.933002 31737 db_lmdb.cpp:38] Opened lmdb /home/mohanty/data/final_dataset/lmdb/color-20-80/test_db
I0403 15:24:55.962573 31735 data_layer.cpp:41] output data size: 24,3,224,224
I0403 15:24:55.991147 31735 net.cpp:141] Setting up data
I0403 15:24:55.991204 31735 net.cpp:148] Top shape: 24 3 224 224 (3612672)
I0403 15:24:55.991230 31735 net.cpp:148] Top shape: 24 (24)
I0403 15:24:55.991246 31735 net.cpp:156] Memory required for data: 14450784
I0403 15:24:55.991277 31735 layer_factory.hpp:77] Creating layer label_data_1_split
I0403 15:24:55.991305 31735 net.cpp:91] Creating Layer label_data_1_split
I0403 15:24:55.991325 31735 net.cpp:425] label_data_1_split <- label
I0403 15:24:55.991364 31735 net.cpp:399] label_data_1_split -> label_data_1_split_0
I0403 15:24:55.991396 31735 net.cpp:399] label_data_1_split -> label_data_1_split_1
I0403 15:24:55.991420 31735 net.cpp:399] label_data_1_split -> label_data_1_split_2
I0403 15:24:55.991442 31735 net.cpp:399] label_data_1_split -> label_data_1_split_3
I0403 15:24:55.991463 31735 net.cpp:399] label_data_1_split -> label_data_1_split_4
I0403 15:24:55.991485 31735 net.cpp:399] label_data_1_split -> label_data_1_split_5
I0403 15:24:55.991506 31735 net.cpp:399] label_data_1_split -> label_data_1_split_6
I0403 15:24:55.991528 31735 net.cpp:399] label_data_1_split -> label_data_1_split_7
I0403 15:24:55.991549 31735 net.cpp:399] label_data_1_split -> label_data_1_split_8
I0403 15:24:55.991571 31735 net.cpp:399] label_data_1_split -> label_data_1_split_9
I0403 15:24:55.991694 31735 net.cpp:141] Setting up label_data_1_split
I0403 15:24:55.991720 31735 net.cpp:148] Top shape: 24 (24)
I0403 15:24:55.991739 31735 net.cpp:148] Top shape: 24 (24)
I0403 15:24:55.991756 31735 net.cpp:148] Top shape: 24 (24)
I0403 15:24:55.991773 31735 net.cpp:148] Top shape: 24 (24)
I0403 15:24:55.991789 31735 net.cpp:148] Top shape: 24 (24)
I0403 15:24:55.991806 31735 net.cpp:148] Top shape: 24 (24)
I0403 15:24:55.991823 31735 net.cpp:148] Top shape: 24 (24)
I0403 15:24:55.991839 31735 net.cpp:148] Top shape: 24 (24)
I0403 15:24:55.991855 31735 net.cpp:148] Top shape: 24 (24)
I0403 15:24:55.991873 31735 net.cpp:148] Top shape: 24 (24)
I0403 15:24:55.991919 31735 net.cpp:156] Memory required for data: 14451744
I0403 15:24:55.991937 31735 layer_factory.hpp:77] Creating layer conv1/7x7_s2
I0403 15:24:55.991972 31735 net.cpp:91] Creating Layer conv1/7x7_s2
I0403 15:24:55.991992 31735 net.cpp:425] conv1/7x7_s2 <- data
I0403 15:24:55.992014 31735 net.cpp:399] conv1/7x7_s2 -> conv1/7x7_s2
I0403 15:24:56.136415 31735 net.cpp:141] Setting up conv1/7x7_s2
I0403 15:24:56.136493 31735 net.cpp:148] Top shape: 24 64 112 112 (19267584)
I0403 15:24:56.136512 31735 net.cpp:156] Memory required for data: 91522080
I0403 15:24:56.136544 31735 layer_factory.hpp:77] Creating layer conv1/relu_7x7
I0403 15:24:56.136575 31735 net.cpp:91] Creating Layer conv1/relu_7x7
I0403 15:24:56.136595 31735 net.cpp:425] conv1/relu_7x7 <- conv1/7x7_s2
I0403 15:24:56.136615 31735 net.cpp:386] conv1/relu_7x7 -> conv1/7x7_s2 (in-place)
I0403 15:24:56.136875 31735 net.cpp:141] Setting up conv1/relu_7x7
I0403 15:24:56.136904 31735 net.cpp:148] Top shape: 24 64 112 112 (19267584)
I0403 15:24:56.136920 31735 net.cpp:156] Memory required for data: 168592416
I0403 15:24:56.136936 31735 layer_factory.hpp:77] Creating layer pool1/3x3_s2
I0403 15:24:56.136963 31735 net.cpp:91] Creating Layer pool1/3x3_s2
I0403 15:24:56.136983 31735 net.cpp:425] pool1/3x3_s2 <- conv1/7x7_s2
I0403 15:24:56.137004 31735 net.cpp:399] pool1/3x3_s2 -> pool1/3x3_s2
I0403 15:24:56.137080 31735 net.cpp:141] Setting up pool1/3x3_s2
I0403 15:24:56.137106 31735 net.cpp:148] Top shape: 24 64 56 56 (4816896)
I0403 15:24:56.137122 31735 net.cpp:156] Memory required for data: 187860000
I0403 15:24:56.137138 31735 layer_factory.hpp:77] Creating layer pool1/norm1
I0403 15:24:56.137164 31735 net.cpp:91] Creating Layer pool1/norm1
I0403 15:24:56.137183 31735 net.cpp:425] pool1/norm1 <- pool1/3x3_s2
I0403 15:24:56.137202 31735 net.cpp:399] pool1/norm1 -> pool1/norm1
I0403 15:24:56.137542 31735 net.cpp:141] Setting up pool1/norm1
I0403 15:24:56.137578 31735 net.cpp:148] Top shape: 24 64 56 56 (4816896)
I0403 15:24:56.137593 31735 net.cpp:156] Memory required for data: 207127584
I0403 15:24:56.137609 31735 layer_factory.hpp:77] Creating layer conv2/3x3_reduce
I0403 15:24:56.137635 31735 net.cpp:91] Creating Layer conv2/3x3_reduce
I0403 15:24:56.137652 31735 net.cpp:425] conv2/3x3_reduce <- pool1/norm1
I0403 15:24:56.137671 31735 net.cpp:399] conv2/3x3_reduce -> conv2/3x3_reduce
I0403 15:24:56.138994 31735 net.cpp:141] Setting up conv2/3x3_reduce
I0403 15:24:56.139025 31735 net.cpp:148] Top shape: 24 64 56 56 (4816896)
I0403 15:24:56.139041 31735 net.cpp:156] Memory required for data: 226395168
I0403 15:24:56.139065 31735 layer_factory.hpp:77] Creating layer conv2/relu_3x3_reduce
I0403 15:24:56.139086 31735 net.cpp:91] Creating Layer conv2/relu_3x3_reduce
I0403 15:24:56.139104 31735 net.cpp:425] conv2/relu_3x3_reduce <- conv2/3x3_reduce
I0403 15:24:56.139122 31735 net.cpp:386] conv2/relu_3x3_reduce -> conv2/3x3_reduce (in-place)
I0403 15:24:56.139408 31735 net.cpp:141] Setting up conv2/relu_3x3_reduce
I0403 15:24:56.139436 31735 net.cpp:148] Top shape: 24 64 56 56 (4816896)
I0403 15:24:56.139453 31735 net.cpp:156] Memory required for data: 245662752
I0403 15:24:56.139469 31735 layer_factory.hpp:77] Creating layer conv2/3x3
I0403 15:24:56.139492 31735 net.cpp:91] Creating Layer conv2/3x3
I0403 15:24:56.139511 31735 net.cpp:425] conv2/3x3 <- conv2/3x3_reduce
I0403 15:24:56.139531 31735 net.cpp:399] conv2/3x3 -> conv2/3x3
I0403 15:24:56.141870 31735 net.cpp:141] Setting up conv2/3x3
I0403 15:24:56.141902 31735 net.cpp:148] Top shape: 24 192 56 56 (14450688)
I0403 15:24:56.141921 31735 net.cpp:156] Memory required for data: 303465504
I0403 15:24:56.141943 31735 layer_factory.hpp:77] Creating layer conv2/relu_3x3
I0403 15:24:56.141964 31735 net.cpp:91] Creating Layer conv2/relu_3x3
I0403 15:24:56.141983 31735 net.cpp:425] conv2/relu_3x3 <- conv2/3x3
I0403 15:24:56.142001 31735 net.cpp:386] conv2/relu_3x3 -> conv2/3x3 (in-place)
I0403 15:24:56.142176 31735 net.cpp:141] Setting up conv2/relu_3x3
I0403 15:24:56.142204 31735 net.cpp:148] Top shape: 24 192 56 56 (14450688)
I0403 15:24:56.142254 31735 net.cpp:156] Memory required for data: 361268256
I0403 15:24:56.142272 31735 layer_factory.hpp:77] Creating layer conv2/norm2
I0403 15:24:56.142292 31735 net.cpp:91] Creating Layer conv2/norm2
I0403 15:24:56.142310 31735 net.cpp:425] conv2/norm2 <- conv2/3x3
I0403 15:24:56.142330 31735 net.cpp:399] conv2/norm2 -> conv2/norm2
I0403 15:24:56.142642 31735 net.cpp:141] Setting up conv2/norm2
I0403 15:24:56.142671 31735 net.cpp:148] Top shape: 24 192 56 56 (14450688)
I0403 15:24:56.142688 31735 net.cpp:156] Memory required for data: 419071008
I0403 15:24:56.142704 31735 layer_factory.hpp:77] Creating layer pool2/3x3_s2
I0403 15:24:56.142724 31735 net.cpp:91] Creating Layer pool2/3x3_s2
I0403 15:24:56.142742 31735 net.cpp:425] pool2/3x3_s2 <- conv2/norm2
I0403 15:24:56.142798 31735 net.cpp:399] pool2/3x3_s2 -> pool2/3x3_s2
I0403 15:24:56.142864 31735 net.cpp:141] Setting up pool2/3x3_s2
I0403 15:24:56.142889 31735 net.cpp:148] Top shape: 24 192 28 28 (3612672)
I0403 15:24:56.142906 31735 net.cpp:156] Memory required for data: 433521696
I0403 15:24:56.142922 31735 layer_factory.hpp:77] Creating layer pool2/3x3_s2_pool2/3x3_s2_0_split
I0403 15:24:56.142946 31735 net.cpp:91] Creating Layer pool2/3x3_s2_pool2/3x3_s2_0_split
I0403 15:24:56.142962 31735 net.cpp:425] pool2/3x3_s2_pool2/3x3_s2_0_split <- pool2/3x3_s2
I0403 15:24:56.142983 31735 net.cpp:399] pool2/3x3_s2_pool2/3x3_s2_0_split -> pool2/3x3_s2_pool2/3x3_s2_0_split_0
I0403 15:24:56.143007 31735 net.cpp:399] pool2/3x3_s2_pool2/3x3_s2_0_split -> pool2/3x3_s2_pool2/3x3_s2_0_split_1
I0403 15:24:56.143029 31735 net.cpp:399] pool2/3x3_s2_pool2/3x3_s2_0_split -> pool2/3x3_s2_pool2/3x3_s2_0_split_2
I0403 15:24:56.143049 31735 net.cpp:399] pool2/3x3_s2_pool2/3x3_s2_0_split -> pool2/3x3_s2_pool2/3x3_s2_0_split_3
I0403 15:24:56.143123 31735 net.cpp:141] Setting up pool2/3x3_s2_pool2/3x3_s2_0_split
I0403 15:24:56.143149 31735 net.cpp:148] Top shape: 24 192 28 28 (3612672)
I0403 15:24:56.143167 31735 net.cpp:148] Top shape: 24 192 28 28 (3612672)
I0403 15:24:56.143185 31735 net.cpp:148] Top shape: 24 192 28 28 (3612672)
I0403 15:24:56.143203 31735 net.cpp:148] Top shape: 24 192 28 28 (3612672)
I0403 15:24:56.143218 31735 net.cpp:156] Memory required for data: 491324448
I0403 15:24:56.143234 31735 layer_factory.hpp:77] Creating layer inception_3a/1x1
I0403 15:24:56.143262 31735 net.cpp:91] Creating Layer inception_3a/1x1
I0403 15:24:56.143282 31735 net.cpp:425] inception_3a/1x1 <- pool2/3x3_s2_pool2/3x3_s2_0_split_0
I0403 15:24:56.143302 31735 net.cpp:399] inception_3a/1x1 -> inception_3a/1x1
I0403 15:24:56.144917 31735 net.cpp:141] Setting up inception_3a/1x1
I0403 15:24:56.144949 31735 net.cpp:148] Top shape: 24 64 28 28 (1204224)
I0403 15:24:56.144966 31735 net.cpp:156] Memory required for data: 496141344
I0403 15:24:56.144989 31735 layer_factory.hpp:77] Creating layer inception_3a/relu_1x1
I0403 15:24:56.145011 31735 net.cpp:91] Creating Layer inception_3a/relu_1x1
I0403 15:24:56.145030 31735 net.cpp:425] inception_3a/relu_1x1 <- inception_3a/1x1
I0403 15:24:56.145048 31735 net.cpp:386] inception_3a/relu_1x1 -> inception_3a/1x1 (in-place)
I0403 15:24:56.145236 31735 net.cpp:141] Setting up inception_3a/relu_1x1
I0403 15:24:56.145262 31735 net.cpp:148] Top shape: 24 64 28 28 (1204224)
I0403 15:24:56.145279 31735 net.cpp:156] Memory required for data: 500958240
I0403 15:24:56.145295 31735 layer_factory.hpp:77] Creating layer inception_3a/3x3_reduce
I0403 15:24:56.145323 31735 net.cpp:91] Creating Layer inception_3a/3x3_reduce
I0403 15:24:56.145341 31735 net.cpp:425] inception_3a/3x3_reduce <- pool2/3x3_s2_pool2/3x3_s2_0_split_1
I0403 15:24:56.145369 31735 net.cpp:399] inception_3a/3x3_reduce -> inception_3a/3x3_reduce
I0403 15:24:56.147147 31735 net.cpp:141] Setting up inception_3a/3x3_reduce
I0403 15:24:56.147181 31735 net.cpp:148] Top shape: 24 96 28 28 (1806336)
I0403 15:24:56.147197 31735 net.cpp:156] Memory required for data: 508183584
I0403 15:24:56.147220 31735 layer_factory.hpp:77] Creating layer inception_3a/relu_3x3_reduce
I0403 15:24:56.147263 31735 net.cpp:91] Creating Layer inception_3a/relu_3x3_reduce
I0403 15:24:56.147282 31735 net.cpp:425] inception_3a/relu_3x3_reduce <- inception_3a/3x3_reduce
I0403 15:24:56.147305 31735 net.cpp:386] inception_3a/relu_3x3_reduce -> inception_3a/3x3_reduce (in-place)
I0403 15:24:56.147502 31735 net.cpp:141] Setting up inception_3a/relu_3x3_reduce
I0403 15:24:56.147531 31735 net.cpp:148] Top shape: 24 96 28 28 (1806336)
I0403 15:24:56.147547 31735 net.cpp:156] Memory required for data: 515408928
I0403 15:24:56.147562 31735 layer_factory.hpp:77] Creating layer inception_3a/3x3
I0403 15:24:56.147588 31735 net.cpp:91] Creating Layer inception_3a/3x3
I0403 15:24:56.147608 31735 net.cpp:425] inception_3a/3x3 <- inception_3a/3x3_reduce
I0403 15:24:56.147632 31735 net.cpp:399] inception_3a/3x3 -> inception_3a/3x3
I0403 15:24:56.149382 31735 net.cpp:141] Setting up inception_3a/3x3
I0403 15:24:56.149413 31735 net.cpp:148] Top shape: 24 128 28 28 (2408448)
I0403 15:24:56.149435 31735 net.cpp:156] Memory required for data: 525042720
I0403 15:24:56.149456 31735 layer_factory.hpp:77] Creating layer inception_3a/relu_3x3
I0403 15:24:56.149476 31735 net.cpp:91] Creating Layer inception_3a/relu_3x3
I0403 15:24:56.149492 31735 net.cpp:425] inception_3a/relu_3x3 <- inception_3a/3x3
I0403 15:24:56.149513 31735 net.cpp:386] inception_3a/relu_3x3 -> inception_3a/3x3 (in-place)
I0403 15:24:56.149804 31735 net.cpp:141] Setting up inception_3a/relu_3x3
I0403 15:24:56.149832 31735 net.cpp:148] Top shape: 24 128 28 28 (2408448)
I0403 15:24:56.149853 31735 net.cpp:156] Memory required for data: 534676512
I0403 15:24:56.149869 31735 layer_factory.hpp:77] Creating layer inception_3a/5x5_reduce
I0403 15:24:56.149891 31735 net.cpp:91] Creating Layer inception_3a/5x5_reduce
I0403 15:24:56.149912 31735 net.cpp:425] inception_3a/5x5_reduce <- pool2/3x3_s2_pool2/3x3_s2_0_split_2
I0403 15:24:56.149935 31735 net.cpp:399] inception_3a/5x5_reduce -> inception_3a/5x5_reduce
I0403 15:24:56.150946 31735 net.cpp:141] Setting up inception_3a/5x5_reduce
I0403 15:24:56.150979 31735 net.cpp:148] Top shape: 24 16 28 28 (301056)
I0403 15:24:56.150998 31735 net.cpp:156] Memory required for data: 535880736
I0403 15:24:56.151018 31735 layer_factory.hpp:77] Creating layer inception_3a/relu_5x5_reduce
I0403 15:24:56.151037 31735 net.cpp:91] Creating Layer inception_3a/relu_5x5_reduce
I0403 15:24:56.151054 31735 net.cpp:425] inception_3a/relu_5x5_reduce <- inception_3a/5x5_reduce
I0403 15:24:56.151074 31735 net.cpp:386] inception_3a/relu_5x5_reduce -> inception_3a/5x5_reduce (in-place)
I0403 15:24:56.151387 31735 net.cpp:141] Setting up inception_3a/relu_5x5_reduce
I0403 15:24:56.151415 31735 net.cpp:148] Top shape: 24 16 28 28 (301056)
I0403 15:24:56.151432 31735 net.cpp:156] Memory required for data: 537084960
I0403 15:24:56.151449 31735 layer_factory.hpp:77] Creating layer inception_3a/5x5
I0403 15:24:56.151474 31735 net.cpp:91] Creating Layer inception_3a/5x5
I0403 15:24:56.151494 31735 net.cpp:425] inception_3a/5x5 <- inception_3a/5x5_reduce
I0403 15:24:56.151517 31735 net.cpp:399] inception_3a/5x5 -> inception_3a/5x5
I0403 15:24:56.152580 31735 net.cpp:141] Setting up inception_3a/5x5
I0403 15:24:56.152611 31735 net.cpp:148] Top shape: 24 32 28 28 (602112)
I0403 15:24:56.152627 31735 net.cpp:156] Memory required for data: 539493408
I0403 15:24:56.152648 31735 layer_factory.hpp:77] Creating layer inception_3a/relu_5x5
I0403 15:24:56.152670 31735 net.cpp:91] Creating Layer inception_3a/relu_5x5
I0403 15:24:56.152688 31735 net.cpp:425] inception_3a/relu_5x5 <- inception_3a/5x5
I0403 15:24:56.152709 31735 net.cpp:386] inception_3a/relu_5x5 -> inception_3a/5x5 (in-place)
I0403 15:24:56.152894 31735 net.cpp:141] Setting up inception_3a/relu_5x5
I0403 15:24:56.152922 31735 net.cpp:148] Top shape: 24 32 28 28 (602112)
I0403 15:24:56.152940 31735 net.cpp:156] Memory required for data: 541901856
I0403 15:24:56.152957 31735 layer_factory.hpp:77] Creating layer inception_3a/pool
I0403 15:24:56.152976 31735 net.cpp:91] Creating Layer inception_3a/pool
I0403 15:24:56.152993 31735 net.cpp:425] inception_3a/pool <- pool2/3x3_s2_pool2/3x3_s2_0_split_3
I0403 15:24:56.153033 31735 net.cpp:399] inception_3a/pool -> inception_3a/pool
I0403 15:24:56.153095 31735 net.cpp:141] Setting up inception_3a/pool
I0403 15:24:56.153121 31735 net.cpp:148] Top shape: 24 192 28 28 (3612672)
I0403 15:24:56.153137 31735 net.cpp:156] Memory required for data: 556352544
I0403 15:24:56.153152 31735 layer_factory.hpp:77] Creating layer inception_3a/pool_proj
I0403 15:24:56.153177 31735 net.cpp:91] Creating Layer inception_3a/pool_proj
I0403 15:24:56.153195 31735 net.cpp:425] inception_3a/pool_proj <- inception_3a/pool
I0403 15:24:56.153219 31735 net.cpp:399] inception_3a/pool_proj -> inception_3a/pool_proj
I0403 15:24:56.154258 31735 net.cpp:141] Setting up inception_3a/pool_proj
I0403 15:24:56.154289 31735 net.cpp:148] Top shape: 24 32 28 28 (602112)
I0403 15:24:56.154306 31735 net.cpp:156] Memory required for data: 558760992
I0403 15:24:56.154333 31735 layer_factory.hpp:77] Creating layer inception_3a/relu_pool_proj
I0403 15:24:56.154361 31735 net.cpp:91] Creating Layer inception_3a/relu_pool_proj
I0403 15:24:56.154379 31735 net.cpp:425] inception_3a/relu_pool_proj <- inception_3a/pool_proj
I0403 15:24:56.154398 31735 net.cpp:386] inception_3a/relu_pool_proj -> inception_3a/pool_proj (in-place)
I0403 15:24:56.154687 31735 net.cpp:141] Setting up inception_3a/relu_pool_proj
I0403 15:24:56.154716 31735 net.cpp:148] Top shape: 24 32 28 28 (602112)
I0403 15:24:56.154736 31735 net.cpp:156] Memory required for data: 561169440
I0403 15:24:56.154752 31735 layer_factory.hpp:77] Creating layer inception_3a/output
I0403 15:24:56.154772 31735 net.cpp:91] Creating Layer inception_3a/output
I0403 15:24:56.154788 31735 net.cpp:425] inception_3a/output <- inception_3a/1x1
I0403 15:24:56.154808 31735 net.cpp:425] inception_3a/output <- inception_3a/3x3
I0403 15:24:56.154825 31735 net.cpp:425] inception_3a/output <- inception_3a/5x5
I0403 15:24:56.154842 31735 net.cpp:425] inception_3a/output <- inception_3a/pool_proj
I0403 15:24:56.154860 31735 net.cpp:399] inception_3a/output -> inception_3a/output
I0403 15:24:56.154911 31735 net.cpp:141] Setting up inception_3a/output
I0403 15:24:56.154937 31735 net.cpp:148] Top shape: 24 256 28 28 (4816896)
I0403 15:24:56.154955 31735 net.cpp:156] Memory required for data: 580437024
I0403 15:24:56.154971 31735 layer_factory.hpp:77] Creating layer inception_3a/output_inception_3a/output_0_split
I0403 15:24:56.154990 31735 net.cpp:91] Creating Layer inception_3a/output_inception_3a/output_0_split
I0403 15:24:56.155006 31735 net.cpp:425] inception_3a/output_inception_3a/output_0_split <- inception_3a/output
I0403 15:24:56.155028 31735 net.cpp:399] inception_3a/output_inception_3a/output_0_split -> inception_3a/output_inception_3a/output_0_split_0
I0403 15:24:56.155052 31735 net.cpp:399] inception_3a/output_inception_3a/output_0_split -> inception_3a/output_inception_3a/output_0_split_1
I0403 15:24:56.155078 31735 net.cpp:399] inception_3a/output_inception_3a/output_0_split -> inception_3a/output_inception_3a/output_0_split_2
I0403 15:24:56.155102 31735 net.cpp:399] inception_3a/output_inception_3a/output_0_split -> inception_3a/output_inception_3a/output_0_split_3
I0403 15:24:56.155181 31735 net.cpp:141] Setting up inception_3a/output_inception_3a/output_0_split
I0403 15:24:56.155206 31735 net.cpp:148] Top shape: 24 256 28 28 (4816896)
I0403 15:24:56.155225 31735 net.cpp:148] Top shape: 24 256 28 28 (4816896)
I0403 15:24:56.155242 31735 net.cpp:148] Top shape: 24 256 28 28 (4816896)
I0403 15:24:56.155258 31735 net.cpp:148] Top shape: 24 256 28 28 (4816896)
I0403 15:24:56.155277 31735 net.cpp:156] Memory required for data: 657507360
I0403 15:24:56.155292 31735 layer_factory.hpp:77] Creating layer inception_3b/1x1
I0403 15:24:56.155318 31735 net.cpp:91] Creating Layer inception_3b/1x1
I0403 15:24:56.155338 31735 net.cpp:425] inception_3b/1x1 <- inception_3a/output_inception_3a/output_0_split_0
I0403 15:24:56.155366 31735 net.cpp:399] inception_3b/1x1 -> inception_3b/1x1
I0403 15:24:56.156569 31735 net.cpp:141] Setting up inception_3b/1x1
I0403 15:24:56.156611 31735 net.cpp:148] Top shape: 24 128 28 28 (2408448)
I0403 15:24:56.156630 31735 net.cpp:156] Memory required for data: 667141152
I0403 15:24:56.156649 31735 layer_factory.hpp:77] Creating layer inception_3b/relu_1x1
I0403 15:24:56.156672 31735 net.cpp:91] Creating Layer inception_3b/relu_1x1
I0403 15:24:56.156692 31735 net.cpp:425] inception_3b/relu_1x1 <- inception_3b/1x1
I0403 15:24:56.156710 31735 net.cpp:386] inception_3b/relu_1x1 -> inception_3b/1x1 (in-place)
I0403 15:24:56.156895 31735 net.cpp:141] Setting up inception_3b/relu_1x1
I0403 15:24:56.156925 31735 net.cpp:148] Top shape: 24 128 28 28 (2408448)
I0403 15:24:56.156941 31735 net.cpp:156] Memory required for data: 676774944
I0403 15:24:56.156958 31735 layer_factory.hpp:77] Creating layer inception_3b/3x3_reduce
I0403 15:24:56.156980 31735 net.cpp:91] Creating Layer inception_3b/3x3_reduce
I0403 15:24:56.156998 31735 net.cpp:425] inception_3b/3x3_reduce <- inception_3a/output_inception_3a/output_0_split_1
I0403 15:24:56.157021 31735 net.cpp:399] inception_3b/3x3_reduce -> inception_3b/3x3_reduce
I0403 15:24:56.158215 31735 net.cpp:141] Setting up inception_3b/3x3_reduce
I0403 15:24:56.158244 31735 net.cpp:148] Top shape: 24 128 28 28 (2408448)
I0403 15:24:56.158262 31735 net.cpp:156] Memory required for data: 686408736
I0403 15:24:56.158285 31735 layer_factory.hpp:77] Creating layer inception_3b/relu_3x3_reduce
I0403 15:24:56.158308 31735 net.cpp:91] Creating Layer inception_3b/relu_3x3_reduce
I0403 15:24:56.158325 31735 net.cpp:425] inception_3b/relu_3x3_reduce <- inception_3b/3x3_reduce
I0403 15:24:56.158344 31735 net.cpp:386] inception_3b/relu_3x3_reduce -> inception_3b/3x3_reduce (in-place)
I0403 15:24:56.158532 31735 net.cpp:141] Setting up inception_3b/relu_3x3_reduce
I0403 15:24:56.158560 31735 net.cpp:148] Top shape: 24 128 28 28 (2408448)
I0403 15:24:56.158576 31735 net.cpp:156] Memory required for data: 696042528
I0403 15:24:56.158592 31735 layer_factory.hpp:77] Creating layer inception_3b/3x3
I0403 15:24:56.158620 31735 net.cpp:91] Creating Layer inception_3b/3x3
I0403 15:24:56.158639 31735 net.cpp:425] inception_3b/3x3 <- inception_3b/3x3_reduce
I0403 15:24:56.158661 31735 net.cpp:399] inception_3b/3x3 -> inception_3b/3x3
I0403 15:24:56.161713 31735 net.cpp:141] Setting up inception_3b/3x3
I0403 15:24:56.161743 31735 net.cpp:148] Top shape: 24 192 28 28 (3612672)
I0403 15:24:56.161764 31735 net.cpp:156] Memory required for data: 710493216
I0403 15:24:56.161783 31735 layer_factory.hpp:77] Creating layer inception_3b/relu_3x3
I0403 15:24:56.161804 31735 net.cpp:91] Creating Layer inception_3b/relu_3x3
I0403 15:24:56.161823 31735 net.cpp:425] inception_3b/relu_3x3 <- inception_3b/3x3
I0403 15:24:56.161841 31735 net.cpp:386] inception_3b/relu_3x3 -> inception_3b/3x3 (in-place)
I0403 15:24:56.162127 31735 net.cpp:141] Setting up inception_3b/relu_3x3
I0403 15:24:56.162155 31735 net.cpp:148] Top shape: 24 192 28 28 (3612672)
I0403 15:24:56.162174 31735 net.cpp:156] Memory required for data: 724943904
I0403 15:24:56.162191 31735 layer_factory.hpp:77] Creating layer inception_3b/5x5_reduce
I0403 15:24:56.162212 31735 net.cpp:91] Creating Layer inception_3b/5x5_reduce
I0403 15:24:56.162231 31735 net.cpp:425] inception_3b/5x5_reduce <- inception_3a/output_inception_3a/output_0_split_2
I0403 15:24:56.162255 31735 net.cpp:399] inception_3b/5x5_reduce -> inception_3b/5x5_reduce
I0403 15:24:56.163272 31735 net.cpp:141] Setting up inception_3b/5x5_reduce
I0403 15:24:56.163302 31735 net.cpp:148] Top shape: 24 32 28 28 (602112)
I0403 15:24:56.163319 31735 net.cpp:156] Memory required for data: 727352352
I0403 15:24:56.163338 31735 layer_factory.hpp:77] Creating layer inception_3b/relu_5x5_reduce
I0403 15:24:56.163367 31735 net.cpp:91] Creating Layer inception_3b/relu_5x5_reduce
I0403 15:24:56.163385 31735 net.cpp:425] inception_3b/relu_5x5_reduce <- inception_3b/5x5_reduce
I0403 15:24:56.163403 31735 net.cpp:386] inception_3b/relu_5x5_reduce -> inception_3b/5x5_reduce (in-place)
I0403 15:24:56.163585 31735 net.cpp:141] Setting up inception_3b/relu_5x5_reduce
I0403 15:24:56.163630 31735 net.cpp:148] Top shape: 24 32 28 28 (602112)
I0403 15:24:56.163647 31735 net.cpp:156] Memory required for data: 729760800
I0403 15:24:56.163663 31735 layer_factory.hpp:77] Creating layer inception_3b/5x5
I0403 15:24:56.163686 31735 net.cpp:91] Creating Layer inception_3b/5x5
I0403 15:24:56.163707 31735 net.cpp:425] inception_3b/5x5 <- inception_3b/5x5_reduce
I0403 15:24:56.163727 31735 net.cpp:399] inception_3b/5x5 -> inception_3b/5x5
I0403 15:24:56.165776 31735 net.cpp:141] Setting up inception_3b/5x5
I0403 15:24:56.165807 31735 net.cpp:148] Top shape: 24 96 28 28 (1806336)
I0403 15:24:56.165822 31735 net.cpp:156] Memory required for data: 736986144
I0403 15:24:56.165843 31735 layer_factory.hpp:77] Creating layer inception_3b/relu_5x5
I0403 15:24:56.165864 31735 net.cpp:91] Creating Layer inception_3b/relu_5x5
I0403 15:24:56.165884 31735 net.cpp:425] inception_3b/relu_5x5 <- inception_3b/5x5
I0403 15:24:56.165901 31735 net.cpp:386] inception_3b/relu_5x5 -> inception_3b/5x5 (in-place)
I0403 15:24:56.166095 31735 net.cpp:141] Setting up inception_3b/relu_5x5
I0403 15:24:56.166121 31735 net.cpp:148] Top shape: 24 96 28 28 (1806336)
I0403 15:24:56.166137 31735 net.cpp:156] Memory required for data: 744211488
I0403 15:24:56.166154 31735 layer_factory.hpp:77] Creating layer inception_3b/pool
I0403 15:24:56.166173 31735 net.cpp:91] Creating Layer inception_3b/pool
I0403 15:24:56.166190 31735 net.cpp:425] inception_3b/pool <- inception_3a/output_inception_3a/output_0_split_3
I0403 15:24:56.166209 31735 net.cpp:399] inception_3b/pool -> inception_3b/pool
I0403 15:24:56.166267 31735 net.cpp:141] Setting up inception_3b/pool
I0403 15:24:56.166292 31735 net.cpp:148] Top shape: 24 256 28 28 (4816896)
I0403 15:24:56.166308 31735 net.cpp:156] Memory required for data: 763479072
I0403 15:24:56.166323 31735 layer_factory.hpp:77] Creating layer inception_3b/pool_proj
I0403 15:24:56.166350 31735 net.cpp:91] Creating Layer inception_3b/pool_proj
I0403 15:24:56.166370 31735 net.cpp:425] inception_3b/pool_proj <- inception_3b/pool
I0403 15:24:56.166394 31735 net.cpp:399] inception_3b/pool_proj -> inception_3b/pool_proj
I0403 15:24:56.167484 31735 net.cpp:141] Setting up inception_3b/pool_proj
I0403 15:24:56.167517 31735 net.cpp:148] Top shape: 24 64 28 28 (1204224)
I0403 15:24:56.167541 31735 net.cpp:156] Memory required for data: 768295968
I0403 15:24:56.167573 31735 layer_factory.hpp:77] Creating layer inception_3b/relu_pool_proj
I0403 15:24:56.167594 31735 net.cpp:91] Creating Layer inception_3b/relu_pool_proj
I0403 15:24:56.167610 31735 net.cpp:425] inception_3b/relu_pool_proj <- inception_3b/pool_proj
I0403 15:24:56.167631 31735 net.cpp:386] inception_3b/relu_pool_proj -> inception_3b/pool_proj (in-place)
I0403 15:24:56.168025 31735 net.cpp:141] Setting up inception_3b/relu_pool_proj
I0403 15:24:56.168054 31735 net.cpp:148] Top shape: 24 64 28 28 (1204224)
I0403 15:24:56.168071 31735 net.cpp:156] Memory required for data: 773112864
I0403 15:24:56.168088 31735 layer_factory.hpp:77] Creating layer inception_3b/output
I0403 15:24:56.168107 31735 net.cpp:91] Creating Layer inception_3b/output
I0403 15:24:56.168124 31735 net.cpp:425] inception_3b/output <- inception_3b/1x1
I0403 15:24:56.168143 31735 net.cpp:425] inception_3b/output <- inception_3b/3x3
I0403 15:24:56.168159 31735 net.cpp:425] inception_3b/output <- inception_3b/5x5
I0403 15:24:56.168177 31735 net.cpp:425] inception_3b/output <- inception_3b/pool_proj
I0403 15:24:56.168195 31735 net.cpp:399] inception_3b/output -> inception_3b/output
I0403 15:24:56.168241 31735 net.cpp:141] Setting up inception_3b/output
I0403 15:24:56.168267 31735 net.cpp:148] Top shape: 24 480 28 28 (9031680)
I0403 15:24:56.168282 31735 net.cpp:156] Memory required for data: 809239584
I0403 15:24:56.168298 31735 layer_factory.hpp:77] Creating layer pool3/3x3_s2
I0403 15:24:56.168318 31735 net.cpp:91] Creating Layer pool3/3x3_s2
I0403 15:24:56.168335 31735 net.cpp:425] pool3/3x3_s2 <- inception_3b/output
I0403 15:24:56.168360 31735 net.cpp:399] pool3/3x3_s2 -> pool3/3x3_s2
I0403 15:24:56.168437 31735 net.cpp:141] Setting up pool3/3x3_s2
I0403 15:24:56.168462 31735 net.cpp:148] Top shape: 24 480 14 14 (2257920)
I0403 15:24:56.168478 31735 net.cpp:156] Memory required for data: 818271264
I0403 15:24:56.168494 31735 layer_factory.hpp:77] Creating layer pool3/3x3_s2_pool3/3x3_s2_0_split
I0403 15:24:56.168514 31735 net.cpp:91] Creating Layer pool3/3x3_s2_pool3/3x3_s2_0_split
I0403 15:24:56.168529 31735 net.cpp:425] pool3/3x3_s2_pool3/3x3_s2_0_split <- pool3/3x3_s2
I0403 15:24:56.168548 31735 net.cpp:399] pool3/3x3_s2_pool3/3x3_s2_0_split -> pool3/3x3_s2_pool3/3x3_s2_0_split_0
I0403 15:24:56.168570 31735 net.cpp:399] pool3/3x3_s2_pool3/3x3_s2_0_split -> pool3/3x3_s2_pool3/3x3_s2_0_split_1
I0403 15:24:56.168591 31735 net.cpp:399] pool3/3x3_s2_pool3/3x3_s2_0_split -> pool3/3x3_s2_pool3/3x3_s2_0_split_2
I0403 15:24:56.168612 31735 net.cpp:399] pool3/3x3_s2_pool3/3x3_s2_0_split -> pool3/3x3_s2_pool3/3x3_s2_0_split_3
I0403 15:24:56.168690 31735 net.cpp:141] Setting up pool3/3x3_s2_pool3/3x3_s2_0_split
I0403 15:24:56.168717 31735 net.cpp:148] Top shape: 24 480 14 14 (2257920)
I0403 15:24:56.168735 31735 net.cpp:148] Top shape: 24 480 14 14 (2257920)
I0403 15:24:56.168751 31735 net.cpp:148] Top shape: 24 480 14 14 (2257920)
I0403 15:24:56.168768 31735 net.cpp:148] Top shape: 24 480 14 14 (2257920)
I0403 15:24:56.168783 31735 net.cpp:156] Memory required for data: 854397984
I0403 15:24:56.168798 31735 layer_factory.hpp:77] Creating layer inception_4a/1x1
I0403 15:24:56.168823 31735 net.cpp:91] Creating Layer inception_4a/1x1
I0403 15:24:56.168843 31735 net.cpp:425] inception_4a/1x1 <- pool3/3x3_s2_pool3/3x3_s2_0_split_0
I0403 15:24:56.168861 31735 net.cpp:399] inception_4a/1x1 -> inception_4a/1x1
I0403 15:24:56.170507 31735 net.cpp:141] Setting up inception_4a/1x1
I0403 15:24:56.170536 31735 net.cpp:148] Top shape: 24 192 14 14 (903168)
I0403 15:24:56.170553 31735 net.cpp:156] Memory required for data: 858010656
I0403 15:24:56.170573 31735 layer_factory.hpp:77] Creating layer inception_4a/relu_1x1
I0403 15:24:56.170593 31735 net.cpp:91] Creating Layer inception_4a/relu_1x1
I0403 15:24:56.170611 31735 net.cpp:425] inception_4a/relu_1x1 <- inception_4a/1x1
I0403 15:24:56.170632 31735 net.cpp:386] inception_4a/relu_1x1 -> inception_4a/1x1 (in-place)
I0403 15:24:56.170814 31735 net.cpp:141] Setting up inception_4a/relu_1x1
I0403 15:24:56.170841 31735 net.cpp:148] Top shape: 24 192 14 14 (903168)
I0403 15:24:56.170856 31735 net.cpp:156] Memory required for data: 861623328
I0403 15:24:56.170873 31735 layer_factory.hpp:77] Creating layer inception_4a/3x3_reduce
I0403 15:24:56.170899 31735 net.cpp:91] Creating Layer inception_4a/3x3_reduce
I0403 15:24:56.170918 31735 net.cpp:425] inception_4a/3x3_reduce <- pool3/3x3_s2_pool3/3x3_s2_0_split_1
I0403 15:24:56.170940 31735 net.cpp:399] inception_4a/3x3_reduce -> inception_4a/3x3_reduce
I0403 15:24:56.172241 31735 net.cpp:141] Setting up inception_4a/3x3_reduce
I0403 15:24:56.172283 31735 net.cpp:148] Top shape: 24 96 14 14 (451584)
I0403 15:24:56.172300 31735 net.cpp:156] Memory required for data: 863429664
I0403 15:24:56.172327 31735 layer_factory.hpp:77] Creating layer inception_4a/relu_3x3_reduce
I0403 15:24:56.172353 31735 net.cpp:91] Creating Layer inception_4a/relu_3x3_reduce
I0403 15:24:56.172374 31735 net.cpp:425] inception_4a/relu_3x3_reduce <- inception_4a/3x3_reduce
I0403 15:24:56.172394 31735 net.cpp:386] inception_4a/relu_3x3_reduce -> inception_4a/3x3_reduce (in-place)
I0403 15:24:56.172590 31735 net.cpp:141] Setting up inception_4a/relu_3x3_reduce
I0403 15:24:56.172616 31735 net.cpp:148] Top shape: 24 96 14 14 (451584)
I0403 15:24:56.172631 31735 net.cpp:156] Memory required for data: 865236000
I0403 15:24:56.172646 31735 layer_factory.hpp:77] Creating layer inception_4a/3x3
I0403 15:24:56.172669 31735 net.cpp:91] Creating Layer inception_4a/3x3
I0403 15:24:56.172688 31735 net.cpp:425] inception_4a/3x3 <- inception_4a/3x3_reduce
I0403 15:24:56.172710 31735 net.cpp:399] inception_4a/3x3 -> inception_4a/3x3
I0403 15:24:56.175441 31735 net.cpp:141] Setting up inception_4a/3x3
I0403 15:24:56.175470 31735 net.cpp:148] Top shape: 24 208 14 14 (978432)
I0403 15:24:56.175488 31735 net.cpp:156] Memory required for data: 869149728
I0403 15:24:56.175508 31735 layer_factory.hpp:77] Creating layer inception_4a/relu_3x3
I0403 15:24:56.175529 31735 net.cpp:91] Creating Layer inception_4a/relu_3x3
I0403 15:24:56.175549 31735 net.cpp:425] inception_4a/relu_3x3 <- inception_4a/3x3
I0403 15:24:56.175567 31735 net.cpp:386] inception_4a/relu_3x3 -> inception_4a/3x3 (in-place)
I0403 15:24:56.175854 31735 net.cpp:141] Setting up inception_4a/relu_3x3
I0403 15:24:56.175881 31735 net.cpp:148] Top shape: 24 208 14 14 (978432)
I0403 15:24:56.175897 31735 net.cpp:156] Memory required for data: 873063456
I0403 15:24:56.175914 31735 layer_factory.hpp:77] Creating layer inception_4a/5x5_reduce
I0403 15:24:56.175937 31735 net.cpp:91] Creating Layer inception_4a/5x5_reduce
I0403 15:24:56.175957 31735 net.cpp:425] inception_4a/5x5_reduce <- pool3/3x3_s2_pool3/3x3_s2_0_split_2
I0403 15:24:56.175979 31735 net.cpp:399] inception_4a/5x5_reduce -> inception_4a/5x5_reduce
I0403 15:24:56.177021 31735 net.cpp:141] Setting up inception_4a/5x5_reduce
I0403 15:24:56.177049 31735 net.cpp:148] Top shape: 24 16 14 14 (75264)
I0403 15:24:56.177067 31735 net.cpp:156] Memory required for data: 873364512
I0403 15:24:56.177084 31735 layer_factory.hpp:77] Creating layer inception_4a/relu_5x5_reduce
I0403 15:24:56.177104 31735 net.cpp:91] Creating Layer inception_4a/relu_5x5_reduce
I0403 15:24:56.177124 31735 net.cpp:425] inception_4a/relu_5x5_reduce <- inception_4a/5x5_reduce
I0403 15:24:56.177141 31735 net.cpp:386] inception_4a/relu_5x5_reduce -> inception_4a/5x5_reduce (in-place)
I0403 15:24:56.177335 31735 net.cpp:141] Setting up inception_4a/relu_5x5_reduce
I0403 15:24:56.177367 31735 net.cpp:148] Top shape: 24 16 14 14 (75264)
I0403 15:24:56.177386 31735 net.cpp:156] Memory required for data: 873665568
I0403 15:24:56.177402 31735 layer_factory.hpp:77] Creating layer inception_4a/5x5
I0403 15:24:56.177425 31735 net.cpp:91] Creating Layer inception_4a/5x5
I0403 15:24:56.177444 31735 net.cpp:425] inception_4a/5x5 <- inception_4a/5x5_reduce
I0403 15:24:56.177464 31735 net.cpp:399] inception_4a/5x5 -> inception_4a/5x5
I0403 15:24:56.178551 31735 net.cpp:141] Setting up inception_4a/5x5
I0403 15:24:56.178585 31735 net.cpp:148] Top shape: 24 48 14 14 (225792)
I0403 15:24:56.178602 31735 net.cpp:156] Memory required for data: 874568736
I0403 15:24:56.178620 31735 layer_factory.hpp:77] Creating layer inception_4a/relu_5x5
I0403 15:24:56.178638 31735 net.cpp:91] Creating Layer inception_4a/relu_5x5
I0403 15:24:56.178655 31735 net.cpp:425] inception_4a/relu_5x5 <- inception_4a/5x5
I0403 15:24:56.178673 31735 net.cpp:386] inception_4a/relu_5x5 -> inception_4a/5x5 (in-place)
I0403 15:24:56.178853 31735 net.cpp:141] Setting up inception_4a/relu_5x5
I0403 15:24:56.178879 31735 net.cpp:148] Top shape: 24 48 14 14 (225792)
I0403 15:24:56.178894 31735 net.cpp:156] Memory required for data: 875471904
I0403 15:24:56.178910 31735 layer_factory.hpp:77] Creating layer inception_4a/pool
I0403 15:24:56.178928 31735 net.cpp:91] Creating Layer inception_4a/pool
I0403 15:24:56.178943 31735 net.cpp:425] inception_4a/pool <- pool3/3x3_s2_pool3/3x3_s2_0_split_3
I0403 15:24:56.178964 31735 net.cpp:399] inception_4a/pool -> inception_4a/pool
I0403 15:24:56.179024 31735 net.cpp:141] Setting up inception_4a/pool
I0403 15:24:56.179050 31735 net.cpp:148] Top shape: 24 480 14 14 (2257920)
I0403 15:24:56.179066 31735 net.cpp:156] Memory required for data: 884503584
I0403 15:24:56.179081 31735 layer_factory.hpp:77] Creating layer inception_4a/pool_proj
I0403 15:24:56.179105 31735 net.cpp:91] Creating Layer inception_4a/pool_proj
I0403 15:24:56.179122 31735 net.cpp:425] inception_4a/pool_proj <- inception_4a/pool
I0403 15:24:56.179141 31735 net.cpp:399] inception_4a/pool_proj -> inception_4a/pool_proj
I0403 15:24:56.180300 31735 net.cpp:141] Setting up inception_4a/pool_proj
I0403 15:24:56.180330 31735 net.cpp:148] Top shape: 24 64 14 14 (301056)
I0403 15:24:56.180366 31735 net.cpp:156] Memory required for data: 885707808
I0403 15:24:56.180387 31735 layer_factory.hpp:77] Creating layer inception_4a/relu_pool_proj
I0403 15:24:56.180405 31735 net.cpp:91] Creating Layer inception_4a/relu_pool_proj
I0403 15:24:56.180423 31735 net.cpp:425] inception_4a/relu_pool_proj <- inception_4a/pool_proj
I0403 15:24:56.180445 31735 net.cpp:386] inception_4a/relu_pool_proj -> inception_4a/pool_proj (in-place)
I0403 15:24:56.180726 31735 net.cpp:141] Setting up inception_4a/relu_pool_proj
I0403 15:24:56.180752 31735 net.cpp:148] Top shape: 24 64 14 14 (301056)
I0403 15:24:56.180768 31735 net.cpp:156] Memory required for data: 886912032
I0403 15:24:56.180783 31735 layer_factory.hpp:77] Creating layer inception_4a/output
I0403 15:24:56.180801 31735 net.cpp:91] Creating Layer inception_4a/output
I0403 15:24:56.180817 31735 net.cpp:425] inception_4a/output <- inception_4a/1x1
I0403 15:24:56.180835 31735 net.cpp:425] inception_4a/output <- inception_4a/3x3
I0403 15:24:56.180851 31735 net.cpp:425] inception_4a/output <- inception_4a/5x5
I0403 15:24:56.180867 31735 net.cpp:425] inception_4a/output <- inception_4a/pool_proj
I0403 15:24:56.180886 31735 net.cpp:399] inception_4a/output -> inception_4a/output
I0403 15:24:56.180932 31735 net.cpp:141] Setting up inception_4a/output
I0403 15:24:56.180958 31735 net.cpp:148] Top shape: 24 512 14 14 (2408448)
I0403 15:24:56.180974 31735 net.cpp:156] Memory required for data: 896545824
I0403 15:24:56.180990 31735 layer_factory.hpp:77] Creating layer inception_4a/output_inception_4a/output_0_split
I0403 15:24:56.181010 31735 net.cpp:91] Creating Layer inception_4a/output_inception_4a/output_0_split
I0403 15:24:56.181025 31735 net.cpp:425] inception_4a/output_inception_4a/output_0_split <- inception_4a/output
I0403 15:24:56.181042 31735 net.cpp:399] inception_4a/output_inception_4a/output_0_split -> inception_4a/output_inception_4a/output_0_split_0
I0403 15:24:56.181064 31735 net.cpp:399] inception_4a/output_inception_4a/output_0_split -> inception_4a/output_inception_4a/output_0_split_1
I0403 15:24:56.181088 31735 net.cpp:399] inception_4a/output_inception_4a/output_0_split -> inception_4a/output_inception_4a/output_0_split_2
I0403 15:24:56.181112 31735 net.cpp:399] inception_4a/output_inception_4a/output_0_split -> inception_4a/output_inception_4a/output_0_split_3
I0403 15:24:56.181133 31735 net.cpp:399] inception_4a/output_inception_4a/output_0_split -> inception_4a/output_inception_4a/output_0_split_4
I0403 15:24:56.181224 31735 net.cpp:141] Setting up inception_4a/output_inception_4a/output_0_split
I0403 15:24:56.181248 31735 net.cpp:148] Top shape: 24 512 14 14 (2408448)
I0403 15:24:56.181278 31735 net.cpp:148] Top shape: 24 512 14 14 (2408448)
I0403 15:24:56.181298 31735 net.cpp:148] Top shape: 24 512 14 14 (2408448)
I0403 15:24:56.181314 31735 net.cpp:148] Top shape: 24 512 14 14 (2408448)
I0403 15:24:56.181330 31735 net.cpp:148] Top shape: 24 512 14 14 (2408448)
I0403 15:24:56.181345 31735 net.cpp:156] Memory required for data: 944714784
I0403 15:24:56.181366 31735 layer_factory.hpp:77] Creating layer loss1/ave_pool
I0403 15:24:56.181388 31735 net.cpp:91] Creating Layer loss1/ave_pool
I0403 15:24:56.181407 31735 net.cpp:425] loss1/ave_pool <- inception_4a/output_inception_4a/output_0_split_0
I0403 15:24:56.181427 31735 net.cpp:399] loss1/ave_pool -> loss1/ave_pool
I0403 15:24:56.181651 31735 net.cpp:141] Setting up loss1/ave_pool
I0403 15:24:56.181679 31735 net.cpp:148] Top shape: 24 512 4 4 (196608)
I0403 15:24:56.181694 31735 net.cpp:156] Memory required for data: 945501216
I0403 15:24:56.181710 31735 layer_factory.hpp:77] Creating layer loss1/conv
I0403 15:24:56.181733 31735 net.cpp:91] Creating Layer loss1/conv
I0403 15:24:56.181753 31735 net.cpp:425] loss1/conv <- loss1/ave_pool
I0403 15:24:56.181773 31735 net.cpp:399] loss1/conv -> loss1/conv
I0403 15:24:56.183173 31735 net.cpp:141] Setting up loss1/conv
I0403 15:24:56.183202 31735 net.cpp:148] Top shape: 24 128 4 4 (49152)
I0403 15:24:56.183218 31735 net.cpp:156] Memory required for data: 945697824
I0403 15:24:56.183251 31735 layer_factory.hpp:77] Creating layer loss1/relu_conv
I0403 15:24:56.183274 31735 net.cpp:91] Creating Layer loss1/relu_conv
I0403 15:24:56.183292 31735 net.cpp:425] loss1/relu_conv <- loss1/conv
I0403 15:24:56.183310 31735 net.cpp:386] loss1/relu_conv -> loss1/conv (in-place)
I0403 15:24:56.183593 31735 net.cpp:141] Setting up loss1/relu_conv
I0403 15:24:56.183620 31735 net.cpp:148] Top shape: 24 128 4 4 (49152)
I0403 15:24:56.183636 31735 net.cpp:156] Memory required for data: 945894432
I0403 15:24:56.183652 31735 layer_factory.hpp:77] Creating layer loss1/fc
I0403 15:24:56.183679 31735 net.cpp:91] Creating Layer loss1/fc
I0403 15:24:56.183698 31735 net.cpp:425] loss1/fc <- loss1/conv
I0403 15:24:56.183717 31735 net.cpp:399] loss1/fc -> loss1/fc
I0403 15:24:56.201207 31735 net.cpp:141] Setting up loss1/fc
I0403 15:24:56.201241 31735 net.cpp:148] Top shape: 24 1024 (24576)
I0403 15:24:56.201256 31735 net.cpp:156] Memory required for data: 945992736
I0403 15:24:56.201275 31735 layer_factory.hpp:77] Creating layer loss1/relu_fc
I0403 15:24:56.201294 31735 net.cpp:91] Creating Layer loss1/relu_fc
I0403 15:24:56.201311 31735 net.cpp:425] loss1/relu_fc <- loss1/fc
I0403 15:24:56.201331 31735 net.cpp:386] loss1/relu_fc -> loss1/fc (in-place)
I0403 15:24:56.201519 31735 net.cpp:141] Setting up loss1/relu_fc
I0403 15:24:56.201544 31735 net.cpp:148] Top shape: 24 1024 (24576)
I0403 15:24:56.201560 31735 net.cpp:156] Memory required for data: 946091040
I0403 15:24:56.201575 31735 layer_factory.hpp:77] Creating layer loss1/drop_fc
I0403 15:24:56.201603 31735 net.cpp:91] Creating Layer loss1/drop_fc
I0403 15:24:56.201622 31735 net.cpp:425] loss1/drop_fc <- loss1/fc
I0403 15:24:56.201642 31735 net.cpp:386] loss1/drop_fc -> loss1/fc (in-place)
I0403 15:24:56.201690 31735 net.cpp:141] Setting up loss1/drop_fc
I0403 15:24:56.201717 31735 net.cpp:148] Top shape: 24 1024 (24576)
I0403 15:24:56.201733 31735 net.cpp:156] Memory required for data: 946189344
I0403 15:24:56.201748 31735 layer_factory.hpp:77] Creating layer loss1/classifier_plantvillage
I0403 15:24:56.201766 31735 net.cpp:91] Creating Layer loss1/classifier_plantvillage
I0403 15:24:56.201783 31735 net.cpp:425] loss1/classifier_plantvillage <- loss1/fc
I0403 15:24:56.201803 31735 net.cpp:399] loss1/classifier_plantvillage -> loss1/classifier_plantvillage
I0403 15:24:56.202710 31735 net.cpp:141] Setting up loss1/classifier_plantvillage
I0403 15:24:56.202739 31735 net.cpp:148] Top shape: 24 38 (912)
I0403 15:24:56.202755 31735 net.cpp:156] Memory required for data: 946192992
I0403 15:24:56.202774 31735 layer_factory.hpp:77] Creating layer loss1/classifier_plantvillage_loss1/classifier_plantvillage_0_split
I0403 15:24:56.202791 31735 net.cpp:91] Creating Layer loss1/classifier_plantvillage_loss1/classifier_plantvillage_0_split
I0403 15:24:56.202812 31735 net.cpp:425] loss1/classifier_plantvillage_loss1/classifier_plantvillage_0_split <- loss1/classifier_plantvillage
I0403 15:24:56.202831 31735 net.cpp:399] loss1/classifier_plantvillage_loss1/classifier_plantvillage_0_split -> loss1/classifier_plantvillage_loss1/classifier_plantvillage_0_split_0
I0403 15:24:56.202850 31735 net.cpp:399] loss1/classifier_plantvillage_loss1/classifier_plantvillage_0_split -> loss1/classifier_plantvillage_loss1/classifier_plantvillage_0_split_1
I0403 15:24:56.202870 31735 net.cpp:399] loss1/classifier_plantvillage_loss1/classifier_plantvillage_0_split -> loss1/classifier_plantvillage_loss1/classifier_plantvillage_0_split_2
I0403 15:24:56.202935 31735 net.cpp:141] Setting up loss1/classifier_plantvillage_loss1/classifier_plantvillage_0_split
I0403 15:24:56.202960 31735 net.cpp:148] Top shape: 24 38 (912)
I0403 15:24:56.202978 31735 net.cpp:148] Top shape: 24 38 (912)
I0403 15:24:56.202994 31735 net.cpp:148] Top shape: 24 38 (912)
I0403 15:24:56.203008 31735 net.cpp:156] Memory required for data: 946203936
I0403 15:24:56.203023 31735 layer_factory.hpp:77] Creating layer inception_4b/1x1
I0403 15:24:56.203042 31735 net.cpp:91] Creating Layer inception_4b/1x1
I0403 15:24:56.203076 31735 net.cpp:425] inception_4b/1x1 <- inception_4a/output_inception_4a/output_0_split_1
I0403 15:24:56.203099 31735 net.cpp:399] inception_4b/1x1 -> inception_4b/1x1
I0403 15:24:56.204722 31735 net.cpp:141] Setting up inception_4b/1x1
I0403 15:24:56.204751 31735 net.cpp:148] Top shape: 24 160 14 14 (752640)
I0403 15:24:56.204766 31735 net.cpp:156] Memory required for data: 949214496
I0403 15:24:56.204785 31735 layer_factory.hpp:77] Creating layer inception_4b/relu_1x1
I0403 15:24:56.204807 31735 net.cpp:91] Creating Layer inception_4b/relu_1x1
I0403 15:24:56.204825 31735 net.cpp:425] inception_4b/relu_1x1 <- inception_4b/1x1
I0403 15:24:56.204843 31735 net.cpp:386] inception_4b/relu_1x1 -> inception_4b/1x1 (in-place)
I0403 15:24:56.205018 31735 net.cpp:141] Setting up inception_4b/relu_1x1
I0403 15:24:56.205045 31735 net.cpp:148] Top shape: 24 160 14 14 (752640)
I0403 15:24:56.205061 31735 net.cpp:156] Memory required for data: 952225056
I0403 15:24:56.205076 31735 layer_factory.hpp:77] Creating layer inception_4b/3x3_reduce
I0403 15:24:56.205098 31735 net.cpp:91] Creating Layer inception_4b/3x3_reduce
I0403 15:24:56.205116 31735 net.cpp:425] inception_4b/3x3_reduce <- inception_4a/output_inception_4a/output_0_split_2
I0403 15:24:56.205135 31735 net.cpp:399] inception_4b/3x3_reduce -> inception_4b/3x3_reduce
I0403 15:24:56.206442 31735 net.cpp:141] Setting up inception_4b/3x3_reduce
I0403 15:24:56.206471 31735 net.cpp:148] Top shape: 24 112 14 14 (526848)
I0403 15:24:56.206486 31735 net.cpp:156] Memory required for data: 954332448
I0403 15:24:56.206506 31735 layer_factory.hpp:77] Creating layer inception_4b/relu_3x3_reduce
I0403 15:24:56.206526 31735 net.cpp:91] Creating Layer inception_4b/relu_3x3_reduce
I0403 15:24:56.206544 31735 net.cpp:425] inception_4b/relu_3x3_reduce <- inception_4b/3x3_reduce
I0403 15:24:56.206562 31735 net.cpp:386] inception_4b/relu_3x3_reduce -> inception_4b/3x3_reduce (in-place)
I0403 15:24:56.206838 31735 net.cpp:141] Setting up inception_4b/relu_3x3_reduce
I0403 15:24:56.206864 31735 net.cpp:148] Top shape: 24 112 14 14 (526848)
I0403 15:24:56.206881 31735 net.cpp:156] Memory required for data: 956439840
I0403 15:24:56.206897 31735 layer_factory.hpp:77] Creating layer inception_4b/3x3
I0403 15:24:56.206920 31735 net.cpp:91] Creating Layer inception_4b/3x3
I0403 15:24:56.206938 31735 net.cpp:425] inception_4b/3x3 <- inception_4b/3x3_reduce
I0403 15:24:56.206957 31735 net.cpp:399] inception_4b/3x3 -> inception_4b/3x3
I0403 15:24:56.209873 31735 net.cpp:141] Setting up inception_4b/3x3
I0403 15:24:56.209902 31735 net.cpp:148] Top shape: 24 224 14 14 (1053696)
I0403 15:24:56.209919 31735 net.cpp:156] Memory required for data: 960654624
I0403 15:24:56.209939 31735 layer_factory.hpp:77] Creating layer inception_4b/relu_3x3
I0403 15:24:56.209955 31735 net.cpp:91] Creating Layer inception_4b/relu_3x3
I0403 15:24:56.210006 31735 net.cpp:425] inception_4b/relu_3x3 <- inception_4b/3x3
I0403 15:24:56.210026 31735 net.cpp:386] inception_4b/relu_3x3 -> inception_4b/3x3 (in-place)
I0403 15:24:56.210206 31735 net.cpp:141] Setting up inception_4b/relu_3x3
I0403 15:24:56.210232 31735 net.cpp:148] Top shape: 24 224 14 14 (1053696)
I0403 15:24:56.210247 31735 net.cpp:156] Memory required for data: 964869408
I0403 15:24:56.210274 31735 layer_factory.hpp:77] Creating layer inception_4b/5x5_reduce
I0403 15:24:56.210296 31735 net.cpp:91] Creating Layer inception_4b/5x5_reduce
I0403 15:24:56.210314 31735 net.cpp:425] inception_4b/5x5_reduce <- inception_4a/output_inception_4a/output_0_split_3
I0403 15:24:56.210337 31735 net.cpp:399] inception_4b/5x5_reduce -> inception_4b/5x5_reduce
I0403 15:24:56.211385 31735 net.cpp:141] Setting up inception_4b/5x5_reduce
I0403 15:24:56.211413 31735 net.cpp:148] Top shape: 24 24 14 14 (112896)
I0403 15:24:56.211429 31735 net.cpp:156] Memory required for data: 965320992
I0403 15:24:56.211447 31735 layer_factory.hpp:77] Creating layer inception_4b/relu_5x5_reduce
I0403 15:24:56.211469 31735 net.cpp:91] Creating Layer inception_4b/relu_5x5_reduce
I0403 15:24:56.211500 31735 net.cpp:425] inception_4b/relu_5x5_reduce <- inception_4b/5x5_reduce
I0403 15:24:56.211519 31735 net.cpp:386] inception_4b/relu_5x5_reduce -> inception_4b/5x5_reduce (in-place)
I0403 15:24:56.211696 31735 net.cpp:141] Setting up inception_4b/relu_5x5_reduce
I0403 15:24:56.211724 31735 net.cpp:148] Top shape: 24 24 14 14 (112896)
I0403 15:24:56.211738 31735 net.cpp:156] Memory required for data: 965772576
I0403 15:24:56.211753 31735 layer_factory.hpp:77] Creating layer inception_4b/5x5
I0403 15:24:56.211776 31735 net.cpp:91] Creating Layer inception_4b/5x5
I0403 15:24:56.211794 31735 net.cpp:425] inception_4b/5x5 <- inception_4b/5x5_reduce
I0403 15:24:56.211815 31735 net.cpp:399] inception_4b/5x5 -> inception_4b/5x5
I0403 15:24:56.212991 31735 net.cpp:141] Setting up inception_4b/5x5
I0403 15:24:56.213019 31735 net.cpp:148] Top shape: 24 64 14 14 (301056)
I0403 15:24:56.213035 31735 net.cpp:156] Memory required for data: 966976800
I0403 15:24:56.213054 31735 layer_factory.hpp:77] Creating layer inception_4b/relu_5x5
I0403 15:24:56.213074 31735 net.cpp:91] Creating Layer inception_4b/relu_5x5
I0403 15:24:56.213093 31735 net.cpp:425] inception_4b/relu_5x5 <- inception_4b/5x5
I0403 15:24:56.213109 31735 net.cpp:386] inception_4b/relu_5x5 -> inception_4b/5x5 (in-place)
I0403 15:24:56.213415 31735 net.cpp:141] Setting up inception_4b/relu_5x5
I0403 15:24:56.213443 31735 net.cpp:148] Top shape: 24 64 14 14 (301056)
I0403 15:24:56.213459 31735 net.cpp:156] Memory required for data: 968181024
I0403 15:24:56.213474 31735 layer_factory.hpp:77] Creating layer inception_4b/pool
I0403 15:24:56.213495 31735 net.cpp:91] Creating Layer inception_4b/pool
I0403 15:24:56.213512 31735 net.cpp:425] inception_4b/pool <- inception_4a/output_inception_4a/output_0_split_4
I0403 15:24:56.213531 31735 net.cpp:399] inception_4b/pool -> inception_4b/pool
I0403 15:24:56.213609 31735 net.cpp:141] Setting up inception_4b/pool
I0403 15:24:56.213634 31735 net.cpp:148] Top shape: 24 512 14 14 (2408448)
I0403 15:24:56.213649 31735 net.cpp:156] Memory required for data: 977814816
I0403 15:24:56.213663 31735 layer_factory.hpp:77] Creating layer inception_4b/pool_proj
I0403 15:24:56.213685 31735 net.cpp:91] Creating Layer inception_4b/pool_proj
I0403 15:24:56.213703 31735 net.cpp:425] inception_4b/pool_proj <- inception_4b/pool
I0403 15:24:56.213723 31735 net.cpp:399] inception_4b/pool_proj -> inception_4b/pool_proj
I0403 15:24:56.214905 31735 net.cpp:141] Setting up inception_4b/pool_proj
I0403 15:24:56.214933 31735 net.cpp:148] Top shape: 24 64 14 14 (301056)
I0403 15:24:56.214949 31735 net.cpp:156] Memory required for data: 979019040
I0403 15:24:56.214968 31735 layer_factory.hpp:77] Creating layer inception_4b/relu_pool_proj
I0403 15:24:56.214992 31735 net.cpp:91] Creating Layer inception_4b/relu_pool_proj
I0403 15:24:56.215008 31735 net.cpp:425] inception_4b/relu_pool_proj <- inception_4b/pool_proj
I0403 15:24:56.215025 31735 net.cpp:386] inception_4b/relu_pool_proj -> inception_4b/pool_proj (in-place)
I0403 15:24:56.215201 31735 net.cpp:141] Setting up inception_4b/relu_pool_proj
I0403 15:24:56.215229 31735 net.cpp:148] Top shape: 24 64 14 14 (301056)
I0403 15:24:56.215245 31735 net.cpp:156] Memory required for data: 980223264
I0403 15:24:56.215260 31735 layer_factory.hpp:77] Creating layer inception_4b/output
I0403 15:24:56.215277 31735 net.cpp:91] Creating Layer inception_4b/output
I0403 15:24:56.215293 31735 net.cpp:425] inception_4b/output <- inception_4b/1x1
I0403 15:24:56.215311 31735 net.cpp:425] inception_4b/output <- inception_4b/3x3
I0403 15:24:56.215327 31735 net.cpp:425] inception_4b/output <- inception_4b/5x5
I0403 15:24:56.215343 31735 net.cpp:425] inception_4b/output <- inception_4b/pool_proj
I0403 15:24:56.215368 31735 net.cpp:399] inception_4b/output -> inception_4b/output
I0403 15:24:56.215415 31735 net.cpp:141] Setting up inception_4b/output
I0403 15:24:56.215437 31735 net.cpp:148] Top shape: 24 512 14 14 (2408448)
I0403 15:24:56.215452 31735 net.cpp:156] Memory required for data: 989857056
I0403 15:24:56.215482 31735 layer_factory.hpp:77] Creating layer inception_4b/output_inception_4b/output_0_split
I0403 15:24:56.215502 31735 net.cpp:91] Creating Layer inception_4b/output_inception_4b/output_0_split
I0403 15:24:56.215519 31735 net.cpp:425] inception_4b/output_inception_4b/output_0_split <- inception_4b/output
I0403 15:24:56.215538 31735 net.cpp:399] inception_4b/output_inception_4b/output_0_split -> inception_4b/output_inception_4b/output_0_split_0
I0403 15:24:56.215558 31735 net.cpp:399] inception_4b/output_inception_4b/output_0_split -> inception_4b/output_inception_4b/output_0_split_1
I0403 15:24:56.215581 31735 net.cpp:399] inception_4b/output_inception_4b/output_0_split -> inception_4b/output_inception_4b/output_0_split_2
I0403 15:24:56.215603 31735 net.cpp:399] inception_4b/output_inception_4b/output_0_split -> inception_4b/output_inception_4b/output_0_split_3
I0403 15:24:56.215682 31735 net.cpp:141] Setting up inception_4b/output_inception_4b/output_0_split
I0403 15:24:56.215705 31735 net.cpp:148] Top shape: 24 512 14 14 (2408448)
I0403 15:24:56.215723 31735 net.cpp:148] Top shape: 24 512 14 14 (2408448)
I0403 15:24:56.215739 31735 net.cpp:148] Top shape: 24 512 14 14 (2408448)
I0403 15:24:56.215754 31735 net.cpp:148] Top shape: 24 512 14 14 (2408448)
I0403 15:24:56.215767 31735 net.cpp:156] Memory required for data: 1028392224
I0403 15:24:56.215782 31735 layer_factory.hpp:77] Creating layer inception_4c/1x1
I0403 15:24:56.215806 31735 net.cpp:91] Creating Layer inception_4c/1x1
I0403 15:24:56.215823 31735 net.cpp:425] inception_4c/1x1 <- inception_4b/output_inception_4b/output_0_split_0
I0403 15:24:56.215844 31735 net.cpp:399] inception_4c/1x1 -> inception_4c/1x1
I0403 15:24:56.217227 31735 net.cpp:141] Setting up inception_4c/1x1
I0403 15:24:56.217257 31735 net.cpp:148] Top shape: 24 128 14 14 (602112)
I0403 15:24:56.217274 31735 net.cpp:156] Memory required for data: 1030800672
I0403 15:24:56.217294 31735 layer_factory.hpp:77] Creating layer inception_4c/relu_1x1
I0403 15:24:56.217313 31735 net.cpp:91] Creating Layer inception_4c/relu_1x1
I0403 15:24:56.217329 31735 net.cpp:425] inception_4c/relu_1x1 <- inception_4c/1x1
I0403 15:24:56.217352 31735 net.cpp:386] inception_4c/relu_1x1 -> inception_4c/1x1 (in-place)
I0403 15:24:56.217528 31735 net.cpp:141] Setting up inception_4c/relu_1x1
I0403 15:24:56.217555 31735 net.cpp:148] Top shape: 24 128 14 14 (602112)
I0403 15:24:56.217571 31735 net.cpp:156] Memory required for data: 1033209120
I0403 15:24:56.217586 31735 layer_factory.hpp:77] Creating layer inception_4c/3x3_reduce
I0403 15:24:56.217608 31735 net.cpp:91] Creating Layer inception_4c/3x3_reduce
I0403 15:24:56.217627 31735 net.cpp:425] inception_4c/3x3_reduce <- inception_4b/output_inception_4b/output_0_split_1
I0403 15:24:56.217648 31735 net.cpp:399] inception_4c/3x3_reduce -> inception_4c/3x3_reduce
I0403 15:24:56.219614 31735 net.cpp:141] Setting up inception_4c/3x3_reduce
I0403 15:24:56.219642 31735 net.cpp:148] Top shape: 24 128 14 14 (602112)
I0403 15:24:56.219658 31735 net.cpp:156] Memory required for data: 1035617568
I0403 15:24:56.219676 31735 layer_factory.hpp:77] Creating layer inception_4c/relu_3x3_reduce
I0403 15:24:56.219698 31735 net.cpp:91] Creating Layer inception_4c/relu_3x3_reduce
I0403 15:24:56.219717 31735 net.cpp:425] inception_4c/relu_3x3_reduce <- inception_4c/3x3_reduce
I0403 15:24:56.219735 31735 net.cpp:386] inception_4c/relu_3x3_reduce -> inception_4c/3x3_reduce (in-place)
I0403 15:24:56.220021 31735 net.cpp:141] Setting up inception_4c/relu_3x3_reduce
I0403 15:24:56.220060 31735 net.cpp:148] Top shape: 24 128 14 14 (602112)
I0403 15:24:56.220077 31735 net.cpp:156] Memory required for data: 1038026016
I0403 15:24:56.220093 31735 layer_factory.hpp:77] Creating layer inception_4c/3x3
I0403 15:24:56.220118 31735 net.cpp:91] Creating Layer inception_4c/3x3
I0403 15:24:56.220136 31735 net.cpp:425] inception_4c/3x3 <- inception_4c/3x3_reduce
I0403 15:24:56.220160 31735 net.cpp:399] inception_4c/3x3 -> inception_4c/3x3
I0403 15:24:56.223902 31735 net.cpp:141] Setting up inception_4c/3x3
I0403 15:24:56.223945 31735 net.cpp:148] Top shape: 24 256 14 14 (1204224)
I0403 15:24:56.223963 31735 net.cpp:156] Memory required for data: 1042842912
I0403 15:24:56.223996 31735 layer_factory.hpp:77] Creating layer inception_4c/relu_3x3
I0403 15:24:56.224021 31735 net.cpp:91] Creating Layer inception_4c/relu_3x3
I0403 15:24:56.224040 31735 net.cpp:425] inception_4c/relu_3x3 <- inception_4c/3x3
I0403 15:24:56.224061 31735 net.cpp:386] inception_4c/relu_3x3 -> inception_4c/3x3 (in-place)
I0403 15:24:56.224249 31735 net.cpp:141] Setting up inception_4c/relu_3x3
I0403 15:24:56.224277 31735 net.cpp:148] Top shape: 24 256 14 14 (1204224)
I0403 15:24:56.224292 31735 net.cpp:156] Memory required for data: 1047659808
I0403 15:24:56.224308 31735 layer_factory.hpp:77] Creating layer inception_4c/5x5_reduce
I0403 15:24:56.224335 31735 net.cpp:91] Creating Layer inception_4c/5x5_reduce
I0403 15:24:56.224364 31735 net.cpp:425] inception_4c/5x5_reduce <- inception_4b/output_inception_4b/output_0_split_2
I0403 15:24:56.224388 31735 net.cpp:399] inception_4c/5x5_reduce -> inception_4c/5x5_reduce
I0403 15:24:56.225512 31735 net.cpp:141] Setting up inception_4c/5x5_reduce
I0403 15:24:56.225540 31735 net.cpp:148] Top shape: 24 24 14 14 (112896)
I0403 15:24:56.225558 31735 net.cpp:156] Memory required for data: 1048111392
I0403 15:24:56.225579 31735 layer_factory.hpp:77] Creating layer inception_4c/relu_5x5_reduce
I0403 15:24:56.225605 31735 net.cpp:91] Creating Layer inception_4c/relu_5x5_reduce
I0403 15:24:56.225625 31735 net.cpp:425] inception_4c/relu_5x5_reduce <- inception_4c/5x5_reduce
I0403 15:24:56.225642 31735 net.cpp:386] inception_4c/relu_5x5_reduce -> inception_4c/5x5_reduce (in-place)
I0403 15:24:56.225831 31735 net.cpp:141] Setting up inception_4c/relu_5x5_reduce
I0403 15:24:56.225858 31735 net.cpp:148] Top shape: 24 24 14 14 (112896)
I0403 15:24:56.225877 31735 net.cpp:156] Memory required for data: 1048562976
I0403 15:24:56.225893 31735 layer_factory.hpp:77] Creating layer inception_4c/5x5
I0403 15:24:56.225915 31735 net.cpp:91] Creating Layer inception_4c/5x5
I0403 15:24:56.225934 31735 net.cpp:425] inception_4c/5x5 <- inception_4c/5x5_reduce
I0403 15:24:56.225956 31735 net.cpp:399] inception_4c/5x5 -> inception_4c/5x5
I0403 15:24:56.227237 31735 net.cpp:141] Setting up inception_4c/5x5
I0403 15:24:56.227269 31735 net.cpp:148] Top shape: 24 64 14 14 (301056)
I0403 15:24:56.227286 31735 net.cpp:156] Memory required for data: 1049767200
I0403 15:24:56.227306 31735 layer_factory.hpp:77] Creating layer inception_4c/relu_5x5
I0403 15:24:56.227324 31735 net.cpp:91] Creating Layer inception_4c/relu_5x5
I0403 15:24:56.227341 31735 net.cpp:425] inception_4c/relu_5x5 <- inception_4c/5x5
I0403 15:24:56.227367 31735 net.cpp:386] inception_4c/relu_5x5 -> inception_4c/5x5 (in-place)
I0403 15:24:56.227664 31735 net.cpp:141] Setting up inception_4c/relu_5x5
I0403 15:24:56.227694 31735 net.cpp:148] Top shape: 24 64 14 14 (301056)
I0403 15:24:56.227710 31735 net.cpp:156] Memory required for data: 1050971424
I0403 15:24:56.227726 31735 layer_factory.hpp:77] Creating layer inception_4c/pool
I0403 15:24:56.227746 31735 net.cpp:91] Creating Layer inception_4c/pool
I0403 15:24:56.227762 31735 net.cpp:425] inception_4c/pool <- inception_4b/output_inception_4b/output_0_split_3
I0403 15:24:56.227785 31735 net.cpp:399] inception_4c/pool -> inception_4c/pool
I0403 15:24:56.227854 31735 net.cpp:141] Setting up inception_4c/pool
I0403 15:24:56.227879 31735 net.cpp:148] Top shape: 24 512 14 14 (2408448)
I0403 15:24:56.227895 31735 net.cpp:156] Memory required for data: 1060605216
I0403 15:24:56.227910 31735 layer_factory.hpp:77] Creating layer inception_4c/pool_proj
I0403 15:24:56.227933 31735 net.cpp:91] Creating Layer inception_4c/pool_proj
I0403 15:24:56.227952 31735 net.cpp:425] inception_4c/pool_proj <- inception_4c/pool
I0403 15:24:56.227973 31735 net.cpp:399] inception_4c/pool_proj -> inception_4c/pool_proj
I0403 15:24:56.229231 31735 net.cpp:141] Setting up inception_4c/pool_proj
I0403 15:24:56.229262 31735 net.cpp:148] Top shape: 24 64 14 14 (301056)
I0403 15:24:56.229293 31735 net.cpp:156] Memory required for data: 1061809440
I0403 15:24:56.229316 31735 layer_factory.hpp:77] Creating layer inception_4c/relu_pool_proj
I0403 15:24:56.229339 31735 net.cpp:91] Creating Layer inception_4c/relu_pool_proj
I0403 15:24:56.229363 31735 net.cpp:425] inception_4c/relu_pool_proj <- inception_4c/pool_proj
I0403 15:24:56.229383 31735 net.cpp:386] inception_4c/relu_pool_proj -> inception_4c/pool_proj (in-place)
I0403 15:24:56.229575 31735 net.cpp:141] Setting up inception_4c/relu_pool_proj
I0403 15:24:56.229604 31735 net.cpp:148] Top shape: 24 64 14 14 (301056)
I0403 15:24:56.229620 31735 net.cpp:156] Memory required for data: 1063013664
I0403 15:24:56.229636 31735 layer_factory.hpp:77] Creating layer inception_4c/output
I0403 15:24:56.229655 31735 net.cpp:91] Creating Layer inception_4c/output
I0403 15:24:56.229672 31735 net.cpp:425] inception_4c/output <- inception_4c/1x1
I0403 15:24:56.229691 31735 net.cpp:425] inception_4c/output <- inception_4c/3x3
I0403 15:24:56.229707 31735 net.cpp:425] inception_4c/output <- inception_4c/5x5
I0403 15:24:56.229724 31735 net.cpp:425] inception_4c/output <- inception_4c/pool_proj
I0403 15:24:56.229745 31735 net.cpp:399] inception_4c/output -> inception_4c/output
I0403 15:24:56.229795 31735 net.cpp:141] Setting up inception_4c/output
I0403 15:24:56.229820 31735 net.cpp:148] Top shape: 24 512 14 14 (2408448)
I0403 15:24:56.229835 31735 net.cpp:156] Memory required for data: 1072647456
I0403 15:24:56.229851 31735 layer_factory.hpp:77] Creating layer inception_4c/output_inception_4c/output_0_split
I0403 15:24:56.229871 31735 net.cpp:91] Creating Layer inception_4c/output_inception_4c/output_0_split
I0403 15:24:56.229889 31735 net.cpp:425] inception_4c/output_inception_4c/output_0_split <- inception_4c/output
I0403 15:24:56.229908 31735 net.cpp:399] inception_4c/output_inception_4c/output_0_split -> inception_4c/output_inception_4c/output_0_split_0
I0403 15:24:56.229930 31735 net.cpp:399] inception_4c/output_inception_4c/output_0_split -> inception_4c/output_inception_4c/output_0_split_1
I0403 15:24:56.229953 31735 net.cpp:399] inception_4c/output_inception_4c/output_0_split -> inception_4c/output_inception_4c/output_0_split_2
I0403 15:24:56.229977 31735 net.cpp:399] inception_4c/output_inception_4c/output_0_split -> inception_4c/output_inception_4c/output_0_split_3
I0403 15:24:56.230067 31735 net.cpp:141] Setting up inception_4c/output_inception_4c/output_0_split
I0403 15:24:56.230092 31735 net.cpp:148] Top shape: 24 512 14 14 (2408448)
I0403 15:24:56.230109 31735 net.cpp:148] Top shape: 24 512 14 14 (2408448)
I0403 15:24:56.230125 31735 net.cpp:148] Top shape: 24 512 14 14 (2408448)
I0403 15:24:56.230142 31735 net.cpp:148] Top shape: 24 512 14 14 (2408448)
I0403 15:24:56.230159 31735 net.cpp:156] Memory required for data: 1111182624
I0403 15:24:56.230175 31735 layer_factory.hpp:77] Creating layer inception_4d/1x1
I0403 15:24:56.230197 31735 net.cpp:91] Creating Layer inception_4d/1x1
I0403 15:24:56.230217 31735 net.cpp:425] inception_4d/1x1 <- inception_4c/output_inception_4c/output_0_split_0
I0403 15:24:56.230239 31735 net.cpp:399] inception_4d/1x1 -> inception_4d/1x1
I0403 15:24:56.231827 31735 net.cpp:141] Setting up inception_4d/1x1
I0403 15:24:56.231856 31735 net.cpp:148] Top shape: 24 112 14 14 (526848)
I0403 15:24:56.231873 31735 net.cpp:156] Memory required for data: 1113290016
I0403 15:24:56.231894 31735 layer_factory.hpp:77] Creating layer inception_4d/relu_1x1
I0403 15:24:56.231914 31735 net.cpp:91] Creating Layer inception_4d/relu_1x1
I0403 15:24:56.231932 31735 net.cpp:425] inception_4d/relu_1x1 <- inception_4d/1x1
I0403 15:24:56.231952 31735 net.cpp:386] inception_4d/relu_1x1 -> inception_4d/1x1 (in-place)
I0403 15:24:56.232143 31735 net.cpp:141] Setting up inception_4d/relu_1x1
I0403 15:24:56.232170 31735 net.cpp:148] Top shape: 24 112 14 14 (526848)
I0403 15:24:56.232187 31735 net.cpp:156] Memory required for data: 1115397408
I0403 15:24:56.232203 31735 layer_factory.hpp:77] Creating layer inception_4d/3x3_reduce
I0403 15:24:56.232241 31735 net.cpp:91] Creating Layer inception_4d/3x3_reduce
I0403 15:24:56.232264 31735 net.cpp:425] inception_4d/3x3_reduce <- inception_4c/output_inception_4c/output_0_split_1
I0403 15:24:56.232285 31735 net.cpp:399] inception_4d/3x3_reduce -> inception_4d/3x3_reduce
I0403 15:24:56.233850 31735 net.cpp:141] Setting up inception_4d/3x3_reduce
I0403 15:24:56.233880 31735 net.cpp:148] Top shape: 24 144 14 14 (677376)
I0403 15:24:56.233896 31735 net.cpp:156] Memory required for data: 1118106912
I0403 15:24:56.233916 31735 layer_factory.hpp:77] Creating layer inception_4d/relu_3x3_reduce
I0403 15:24:56.233935 31735 net.cpp:91] Creating Layer inception_4d/relu_3x3_reduce
I0403 15:24:56.233952 31735 net.cpp:425] inception_4d/relu_3x3_reduce <- inception_4d/3x3_reduce
I0403 15:24:56.233973 31735 net.cpp:386] inception_4d/relu_3x3_reduce -> inception_4d/3x3_reduce (in-place)
I0403 15:24:56.234274 31735 net.cpp:141] Setting up inception_4d/relu_3x3_reduce
I0403 15:24:56.234303 31735 net.cpp:148] Top shape: 24 144 14 14 (677376)
I0403 15:24:56.234319 31735 net.cpp:156] Memory required for data: 1120816416
I0403 15:24:56.234336 31735 layer_factory.hpp:77] Creating layer inception_4d/3x3
I0403 15:24:56.234371 31735 net.cpp:91] Creating Layer inception_4d/3x3
I0403 15:24:56.234393 31735 net.cpp:425] inception_4d/3x3 <- inception_4d/3x3_reduce
I0403 15:24:56.234416 31735 net.cpp:399] inception_4d/3x3 -> inception_4d/3x3
I0403 15:24:56.238777 31735 net.cpp:141] Setting up inception_4d/3x3
I0403 15:24:56.238806 31735 net.cpp:148] Top shape: 24 288 14 14 (1354752)
I0403 15:24:56.238823 31735 net.cpp:156] Memory required for data: 1126235424
I0403 15:24:56.238842 31735 layer_factory.hpp:77] Creating layer inception_4d/relu_3x3
I0403 15:24:56.238863 31735 net.cpp:91] Creating Layer inception_4d/relu_3x3
I0403 15:24:56.238880 31735 net.cpp:425] inception_4d/relu_3x3 <- inception_4d/3x3
I0403 15:24:56.238899 31735 net.cpp:386] inception_4d/relu_3x3 -> inception_4d/3x3 (in-place)
I0403 15:24:56.239084 31735 net.cpp:141] Setting up inception_4d/relu_3x3
I0403 15:24:56.239112 31735 net.cpp:148] Top shape: 24 288 14 14 (1354752)
I0403 15:24:56.239128 31735 net.cpp:156] Memory required for data: 1131654432
I0403 15:24:56.239143 31735 layer_factory.hpp:77] Creating layer inception_4d/5x5_reduce
I0403 15:24:56.239163 31735 net.cpp:91] Creating Layer inception_4d/5x5_reduce
I0403 15:24:56.239181 31735 net.cpp:425] inception_4d/5x5_reduce <- inception_4c/output_inception_4c/output_0_split_2
I0403 15:24:56.239205 31735 net.cpp:399] inception_4d/5x5_reduce -> inception_4d/5x5_reduce
I0403 15:24:56.240380 31735 net.cpp:141] Setting up inception_4d/5x5_reduce
I0403 15:24:56.240408 31735 net.cpp:148] Top shape: 24 32 14 14 (150528)
I0403 15:24:56.240425 31735 net.cpp:156] Memory required for data: 1132256544
I0403 15:24:56.240444 31735 layer_factory.hpp:77] Creating layer inception_4d/relu_5x5_reduce
I0403 15:24:56.240465 31735 net.cpp:91] Creating Layer inception_4d/relu_5x5_reduce
I0403 15:24:56.240484 31735 net.cpp:425] inception_4d/relu_5x5_reduce <- inception_4d/5x5_reduce
I0403 15:24:56.240504 31735 net.cpp:386] inception_4d/relu_5x5_reduce -> inception_4d/5x5_reduce (in-place)
I0403 15:24:56.240707 31735 net.cpp:141] Setting up inception_4d/relu_5x5_reduce
I0403 15:24:56.240733 31735 net.cpp:148] Top shape: 24 32 14 14 (150528)
I0403 15:24:56.240748 31735 net.cpp:156] Memory required for data: 1132858656
I0403 15:24:56.240763 31735 layer_factory.hpp:77] Creating layer inception_4d/5x5
I0403 15:24:56.240787 31735 net.cpp:91] Creating Layer inception_4d/5x5
I0403 15:24:56.240806 31735 net.cpp:425] inception_4d/5x5 <- inception_4d/5x5_reduce
I0403 15:24:56.240826 31735 net.cpp:399] inception_4d/5x5 -> inception_4d/5x5
I0403 15:24:56.242317 31735 net.cpp:141] Setting up inception_4d/5x5
I0403 15:24:56.242350 31735 net.cpp:148] Top shape: 24 64 14 14 (301056)
I0403 15:24:56.242370 31735 net.cpp:156] Memory required for data: 1134062880
I0403 15:24:56.242390 31735 layer_factory.hpp:77] Creating layer inception_4d/relu_5x5
I0403 15:24:56.242427 31735 net.cpp:91] Creating Layer inception_4d/relu_5x5
I0403 15:24:56.242447 31735 net.cpp:425] inception_4d/relu_5x5 <- inception_4d/5x5
I0403 15:24:56.242466 31735 net.cpp:386] inception_4d/relu_5x5 -> inception_4d/5x5 (in-place)
I0403 15:24:56.242785 31735 net.cpp:141] Setting up inception_4d/relu_5x5
I0403 15:24:56.242813 31735 net.cpp:148] Top shape: 24 64 14 14 (301056)
I0403 15:24:56.242828 31735 net.cpp:156] Memory required for data: 1135267104
I0403 15:24:56.242844 31735 layer_factory.hpp:77] Creating layer inception_4d/pool
I0403 15:24:56.242866 31735 net.cpp:91] Creating Layer inception_4d/pool
I0403 15:24:56.242883 31735 net.cpp:425] inception_4d/pool <- inception_4c/output_inception_4c/output_0_split_3
I0403 15:24:56.242904 31735 net.cpp:399] inception_4d/pool -> inception_4d/pool
I0403 15:24:56.242974 31735 net.cpp:141] Setting up inception_4d/pool
I0403 15:24:56.242997 31735 net.cpp:148] Top shape: 24 512 14 14 (2408448)
I0403 15:24:56.243012 31735 net.cpp:156] Memory required for data: 1144900896
I0403 15:24:56.243027 31735 layer_factory.hpp:77] Creating layer inception_4d/pool_proj
I0403 15:24:56.243051 31735 net.cpp:91] Creating Layer inception_4d/pool_proj
I0403 15:24:56.243068 31735 net.cpp:425] inception_4d/pool_proj <- inception_4d/pool
I0403 15:24:56.243090 31735 net.cpp:399] inception_4d/pool_proj -> inception_4d/pool_proj
I0403 15:24:56.244870 31735 net.cpp:141] Setting up inception_4d/pool_proj
I0403 15:24:56.244900 31735 net.cpp:148] Top shape: 24 64 14 14 (301056)
I0403 15:24:56.244918 31735 net.cpp:156] Memory required for data: 1146105120
I0403 15:24:56.244938 31735 layer_factory.hpp:77] Creating layer inception_4d/relu_pool_proj
I0403 15:24:56.244959 31735 net.cpp:91] Creating Layer inception_4d/relu_pool_proj
I0403 15:24:56.244978 31735 net.cpp:425] inception_4d/relu_pool_proj <- inception_4d/pool_proj
I0403 15:24:56.245000 31735 net.cpp:386] inception_4d/relu_pool_proj -> inception_4d/pool_proj (in-place)
I0403 15:24:56.245187 31735 net.cpp:141] Setting up inception_4d/relu_pool_proj
I0403 15:24:56.245215 31735 net.cpp:148] Top shape: 24 64 14 14 (301056)
I0403 15:24:56.245231 31735 net.cpp:156] Memory required for data: 1147309344
I0403 15:24:56.245247 31735 layer_factory.hpp:77] Creating layer inception_4d/output
I0403 15:24:56.245278 31735 net.cpp:91] Creating Layer inception_4d/output
I0403 15:24:56.245296 31735 net.cpp:425] inception_4d/output <- inception_4d/1x1
I0403 15:24:56.245318 31735 net.cpp:425] inception_4d/output <- inception_4d/3x3
I0403 15:24:56.245337 31735 net.cpp:425] inception_4d/output <- inception_4d/5x5
I0403 15:24:56.245362 31735 net.cpp:425] inception_4d/output <- inception_4d/pool_proj
I0403 15:24:56.245381 31735 net.cpp:399] inception_4d/output -> inception_4d/output
I0403 15:24:56.245434 31735 net.cpp:141] Setting up inception_4d/output
I0403 15:24:56.245460 31735 net.cpp:148] Top shape: 24 528 14 14 (2483712)
I0403 15:24:56.245474 31735 net.cpp:156] Memory required for data: 1157244192
I0403 15:24:56.245491 31735 layer_factory.hpp:77] Creating layer inception_4d/output_inception_4d/output_0_split
I0403 15:24:56.245509 31735 net.cpp:91] Creating Layer inception_4d/output_inception_4d/output_0_split
I0403 15:24:56.245528 31735 net.cpp:425] inception_4d/output_inception_4d/output_0_split <- inception_4d/output
I0403 15:24:56.245560 31735 net.cpp:399] inception_4d/output_inception_4d/output_0_split -> inception_4d/output_inception_4d/output_0_split_0
I0403 15:24:56.245582 31735 net.cpp:399] inception_4d/output_inception_4d/output_0_split -> inception_4d/output_inception_4d/output_0_split_1
I0403 15:24:56.245604 31735 net.cpp:399] inception_4d/output_inception_4d/output_0_split -> inception_4d/output_inception_4d/output_0_split_2
I0403 15:24:56.245626 31735 net.cpp:399] inception_4d/output_inception_4d/output_0_split -> inception_4d/output_inception_4d/output_0_split_3
I0403 15:24:56.245646 31735 net.cpp:399] inception_4d/output_inception_4d/output_0_split -> inception_4d/output_inception_4d/output_0_split_4
I0403 15:24:56.245751 31735 net.cpp:141] Setting up inception_4d/output_inception_4d/output_0_split
I0403 15:24:56.245790 31735 net.cpp:148] Top shape: 24 528 14 14 (2483712)
I0403 15:24:56.245807 31735 net.cpp:148] Top shape: 24 528 14 14 (2483712)
I0403 15:24:56.245825 31735 net.cpp:148] Top shape: 24 528 14 14 (2483712)
I0403 15:24:56.245841 31735 net.cpp:148] Top shape: 24 528 14 14 (2483712)
I0403 15:24:56.245857 31735 net.cpp:148] Top shape: 24 528 14 14 (2483712)
I0403 15:24:56.245872 31735 net.cpp:156] Memory required for data: 1206918432
I0403 15:24:56.245887 31735 layer_factory.hpp:77] Creating layer loss2/ave_pool
I0403 15:24:56.245904 31735 net.cpp:91] Creating Layer loss2/ave_pool
I0403 15:24:56.245923 31735 net.cpp:425] loss2/ave_pool <- inception_4d/output_inception_4d/output_0_split_0
I0403 15:24:56.245945 31735 net.cpp:399] loss2/ave_pool -> loss2/ave_pool
I0403 15:24:56.246263 31735 net.cpp:141] Setting up loss2/ave_pool
I0403 15:24:56.246289 31735 net.cpp:148] Top shape: 24 528 4 4 (202752)
I0403 15:24:56.246306 31735 net.cpp:156] Memory required for data: 1207729440
I0403 15:24:56.246322 31735 layer_factory.hpp:77] Creating layer loss2/conv
I0403 15:24:56.246345 31735 net.cpp:91] Creating Layer loss2/conv
I0403 15:24:56.246369 31735 net.cpp:425] loss2/conv <- loss2/ave_pool
I0403 15:24:56.246392 31735 net.cpp:399] loss2/conv -> loss2/conv
I0403 15:24:56.248289 31735 net.cpp:141] Setting up loss2/conv
I0403 15:24:56.248322 31735 net.cpp:148] Top shape: 24 128 4 4 (49152)
I0403 15:24:56.248339 31735 net.cpp:156] Memory required for data: 1207926048
I0403 15:24:56.248364 31735 layer_factory.hpp:77] Creating layer loss2/relu_conv
I0403 15:24:56.248384 31735 net.cpp:91] Creating Layer loss2/relu_conv
I0403 15:24:56.248402 31735 net.cpp:425] loss2/relu_conv <- loss2/conv
I0403 15:24:56.248421 31735 net.cpp:386] loss2/relu_conv -> loss2/conv (in-place)
I0403 15:24:56.248706 31735 net.cpp:141] Setting up loss2/relu_conv
I0403 15:24:56.248735 31735 net.cpp:148] Top shape: 24 128 4 4 (49152)
I0403 15:24:56.248752 31735 net.cpp:156] Memory required for data: 1208122656
I0403 15:24:56.248769 31735 layer_factory.hpp:77] Creating layer loss2/fc
I0403 15:24:56.248790 31735 net.cpp:91] Creating Layer loss2/fc
I0403 15:24:56.248806 31735 net.cpp:425] loss2/fc <- loss2/conv
I0403 15:24:56.248828 31735 net.cpp:399] loss2/fc -> loss2/fc
I0403 15:24:56.266666 31735 net.cpp:141] Setting up loss2/fc
I0403 15:24:56.266701 31735 net.cpp:148] Top shape: 24 1024 (24576)
I0403 15:24:56.266717 31735 net.cpp:156] Memory required for data: 1208220960
I0403 15:24:56.266737 31735 layer_factory.hpp:77] Creating layer loss2/relu_fc
I0403 15:24:56.266760 31735 net.cpp:91] Creating Layer loss2/relu_fc
I0403 15:24:56.266780 31735 net.cpp:425] loss2/relu_fc <- loss2/fc
I0403 15:24:56.266798 31735 net.cpp:386] loss2/relu_fc -> loss2/fc (in-place)
I0403 15:24:56.267132 31735 net.cpp:141] Setting up loss2/relu_fc
I0403 15:24:56.267158 31735 net.cpp:148] Top shape: 24 1024 (24576)
I0403 15:24:56.267174 31735 net.cpp:156] Memory required for data: 1208319264
I0403 15:24:56.267189 31735 layer_factory.hpp:77] Creating layer loss2/drop_fc
I0403 15:24:56.267210 31735 net.cpp:91] Creating Layer loss2/drop_fc
I0403 15:24:56.267226 31735 net.cpp:425] loss2/drop_fc <- loss2/fc
I0403 15:24:56.267244 31735 net.cpp:386] loss2/drop_fc -> loss2/fc (in-place)
I0403 15:24:56.267307 31735 net.cpp:141] Setting up loss2/drop_fc
I0403 15:24:56.267333 31735 net.cpp:148] Top shape: 24 1024 (24576)
I0403 15:24:56.267352 31735 net.cpp:156] Memory required for data: 1208417568
I0403 15:24:56.267370 31735 layer_factory.hpp:77] Creating layer loss2/classifier_plantvillage
I0403 15:24:56.267390 31735 net.cpp:91] Creating Layer loss2/classifier_plantvillage
I0403 15:24:56.267406 31735 net.cpp:425] loss2/classifier_plantvillage <- loss2/fc
I0403 15:24:56.267427 31735 net.cpp:399] loss2/classifier_plantvillage -> loss2/classifier_plantvillage
I0403 15:24:56.267846 31735 net.cpp:141] Setting up loss2/classifier_plantvillage
I0403 15:24:56.267871 31735 net.cpp:148] Top shape: 24 38 (912)
I0403 15:24:56.267886 31735 net.cpp:156] Memory required for data: 1208421216
I0403 15:24:56.267930 31735 layer_factory.hpp:77] Creating layer loss2/classifier_plantvillage_loss2/classifier_plantvillage_0_split
I0403 15:24:56.267949 31735 net.cpp:91] Creating Layer loss2/classifier_plantvillage_loss2/classifier_plantvillage_0_split
I0403 15:24:56.267966 31735 net.cpp:425] loss2/classifier_plantvillage_loss2/classifier_plantvillage_0_split <- loss2/classifier_plantvillage
I0403 15:24:56.267984 31735 net.cpp:399] loss2/classifier_plantvillage_loss2/classifier_plantvillage_0_split -> loss2/classifier_plantvillage_loss2/classifier_plantvillage_0_split_0
I0403 15:24:56.268007 31735 net.cpp:399] loss2/classifier_plantvillage_loss2/classifier_plantvillage_0_split -> loss2/classifier_plantvillage_loss2/classifier_plantvillage_0_split_1
I0403 15:24:56.268030 31735 net.cpp:399] loss2/classifier_plantvillage_loss2/classifier_plantvillage_0_split -> loss2/classifier_plantvillage_loss2/classifier_plantvillage_0_split_2
I0403 15:24:56.268106 31735 net.cpp:141] Setting up loss2/classifier_plantvillage_loss2/classifier_plantvillage_0_split
I0403 15:24:56.268133 31735 net.cpp:148] Top shape: 24 38 (912)
I0403 15:24:56.268151 31735 net.cpp:148] Top shape: 24 38 (912)
I0403 15:24:56.268167 31735 net.cpp:148] Top shape: 24 38 (912)
I0403 15:24:56.268182 31735 net.cpp:156] Memory required for data: 1208432160
I0403 15:24:56.268196 31735 layer_factory.hpp:77] Creating layer inception_4e/1x1
I0403 15:24:56.268218 31735 net.cpp:91] Creating Layer inception_4e/1x1
I0403 15:24:56.268234 31735 net.cpp:425] inception_4e/1x1 <- inception_4d/output_inception_4d/output_0_split_1
I0403 15:24:56.268255 31735 net.cpp:399] inception_4e/1x1 -> inception_4e/1x1
I0403 15:24:56.270097 31735 net.cpp:141] Setting up inception_4e/1x1
I0403 15:24:56.270128 31735 net.cpp:148] Top shape: 24 256 14 14 (1204224)
I0403 15:24:56.270145 31735 net.cpp:156] Memory required for data: 1213249056
I0403 15:24:56.270164 31735 layer_factory.hpp:77] Creating layer inception_4e/relu_1x1
I0403 15:24:56.270182 31735 net.cpp:91] Creating Layer inception_4e/relu_1x1
I0403 15:24:56.270198 31735 net.cpp:425] inception_4e/relu_1x1 <- inception_4e/1x1
I0403 15:24:56.270218 31735 net.cpp:386] inception_4e/relu_1x1 -> inception_4e/1x1 (in-place)
I0403 15:24:56.270511 31735 net.cpp:141] Setting up inception_4e/relu_1x1
I0403 15:24:56.270539 31735 net.cpp:148] Top shape: 24 256 14 14 (1204224)
I0403 15:24:56.270556 31735 net.cpp:156] Memory required for data: 1218065952
I0403 15:24:56.270575 31735 layer_factory.hpp:77] Creating layer inception_4e/3x3_reduce
I0403 15:24:56.270596 31735 net.cpp:91] Creating Layer inception_4e/3x3_reduce
I0403 15:24:56.270615 31735 net.cpp:425] inception_4e/3x3_reduce <- inception_4d/output_inception_4d/output_0_split_2
I0403 15:24:56.270635 31735 net.cpp:399] inception_4e/3x3_reduce -> inception_4e/3x3_reduce
I0403 15:24:56.272806 31735 net.cpp:141] Setting up inception_4e/3x3_reduce
I0403 15:24:56.272840 31735 net.cpp:148] Top shape: 24 160 14 14 (752640)
I0403 15:24:56.272856 31735 net.cpp:156] Memory required for data: 1221076512
I0403 15:24:56.272876 31735 layer_factory.hpp:77] Creating layer inception_4e/relu_3x3_reduce
I0403 15:24:56.272894 31735 net.cpp:91] Creating Layer inception_4e/relu_3x3_reduce
I0403 15:24:56.272910 31735 net.cpp:425] inception_4e/relu_3x3_reduce <- inception_4e/3x3_reduce
I0403 15:24:56.272929 31735 net.cpp:386] inception_4e/relu_3x3_reduce -> inception_4e/3x3_reduce (in-place)
I0403 15:24:56.273115 31735 net.cpp:141] Setting up inception_4e/relu_3x3_reduce
I0403 15:24:56.273144 31735 net.cpp:148] Top shape: 24 160 14 14 (752640)
I0403 15:24:56.273164 31735 net.cpp:156] Memory required for data: 1224087072
I0403 15:24:56.273178 31735 layer_factory.hpp:77] Creating layer inception_4e/3x3
I0403 15:24:56.273201 31735 net.cpp:91] Creating Layer inception_4e/3x3
I0403 15:24:56.273219 31735 net.cpp:425] inception_4e/3x3 <- inception_4e/3x3_reduce
I0403 15:24:56.273238 31735 net.cpp:399] inception_4e/3x3 -> inception_4e/3x3
I0403 15:24:56.278337 31735 net.cpp:141] Setting up inception_4e/3x3
I0403 15:24:56.278386 31735 net.cpp:148] Top shape: 24 320 14 14 (1505280)
I0403 15:24:56.278405 31735 net.cpp:156] Memory required for data: 1230108192
I0403 15:24:56.278424 31735 layer_factory.hpp:77] Creating layer inception_4e/relu_3x3
I0403 15:24:56.278444 31735 net.cpp:91] Creating Layer inception_4e/relu_3x3
I0403 15:24:56.278461 31735 net.cpp:425] inception_4e/relu_3x3 <- inception_4e/3x3
I0403 15:24:56.278481 31735 net.cpp:386] inception_4e/relu_3x3 -> inception_4e/3x3 (in-place)
I0403 15:24:56.278784 31735 net.cpp:141] Setting up inception_4e/relu_3x3
I0403 15:24:56.278811 31735 net.cpp:148] Top shape: 24 320 14 14 (1505280)
I0403 15:24:56.278827 31735 net.cpp:156] Memory required for data: 1236129312
I0403 15:24:56.278843 31735 layer_factory.hpp:77] Creating layer inception_4e/5x5_reduce
I0403 15:24:56.278868 31735 net.cpp:91] Creating Layer inception_4e/5x5_reduce
I0403 15:24:56.278887 31735 net.cpp:425] inception_4e/5x5_reduce <- inception_4d/output_inception_4d/output_0_split_3
I0403 15:24:56.278909 31735 net.cpp:399] inception_4e/5x5_reduce -> inception_4e/5x5_reduce
I0403 15:24:56.279983 31735 net.cpp:141] Setting up inception_4e/5x5_reduce
I0403 15:24:56.280012 31735 net.cpp:148] Top shape: 24 32 14 14 (150528)
I0403 15:24:56.280028 31735 net.cpp:156] Memory required for data: 1236731424
I0403 15:24:56.280047 31735 layer_factory.hpp:77] Creating layer inception_4e/relu_5x5_reduce
I0403 15:24:56.280067 31735 net.cpp:91] Creating Layer inception_4e/relu_5x5_reduce
I0403 15:24:56.280086 31735 net.cpp:425] inception_4e/relu_5x5_reduce <- inception_4e/5x5_reduce
I0403 15:24:56.280103 31735 net.cpp:386] inception_4e/relu_5x5_reduce -> inception_4e/5x5_reduce (in-place)
I0403 15:24:56.280408 31735 net.cpp:141] Setting up inception_4e/relu_5x5_reduce
I0403 15:24:56.280436 31735 net.cpp:148] Top shape: 24 32 14 14 (150528)
I0403 15:24:56.280452 31735 net.cpp:156] Memory required for data: 1237333536
I0403 15:24:56.280468 31735 layer_factory.hpp:77] Creating layer inception_4e/5x5
I0403 15:24:56.280513 31735 net.cpp:91] Creating Layer inception_4e/5x5
I0403 15:24:56.280532 31735 net.cpp:425] inception_4e/5x5 <- inception_4e/5x5_reduce
I0403 15:24:56.280552 31735 net.cpp:399] inception_4e/5x5 -> inception_4e/5x5
I0403 15:24:56.282438 31735 net.cpp:141] Setting up inception_4e/5x5
I0403 15:24:56.282467 31735 net.cpp:148] Top shape: 24 128 14 14 (602112)
I0403 15:24:56.282485 31735 net.cpp:156] Memory required for data: 1239741984
I0403 15:24:56.282505 31735 layer_factory.hpp:77] Creating layer inception_4e/relu_5x5
I0403 15:24:56.282526 31735 net.cpp:91] Creating Layer inception_4e/relu_5x5
I0403 15:24:56.282557 31735 net.cpp:425] inception_4e/relu_5x5 <- inception_4e/5x5
I0403 15:24:56.282575 31735 net.cpp:386] inception_4e/relu_5x5 -> inception_4e/5x5 (in-place)
I0403 15:24:56.282771 31735 net.cpp:141] Setting up inception_4e/relu_5x5
I0403 15:24:56.282800 31735 net.cpp:148] Top shape: 24 128 14 14 (602112)
I0403 15:24:56.282816 31735 net.cpp:156] Memory required for data: 1242150432
I0403 15:24:56.282831 31735 layer_factory.hpp:77] Creating layer inception_4e/pool
I0403 15:24:56.282851 31735 net.cpp:91] Creating Layer inception_4e/pool
I0403 15:24:56.282867 31735 net.cpp:425] inception_4e/pool <- inception_4d/output_inception_4d/output_0_split_4
I0403 15:24:56.282886 31735 net.cpp:399] inception_4e/pool -> inception_4e/pool
I0403 15:24:56.282959 31735 net.cpp:141] Setting up inception_4e/pool
I0403 15:24:56.282984 31735 net.cpp:148] Top shape: 24 528 14 14 (2483712)
I0403 15:24:56.283000 31735 net.cpp:156] Memory required for data: 1252085280
I0403 15:24:56.283015 31735 layer_factory.hpp:77] Creating layer inception_4e/pool_proj
I0403 15:24:56.283037 31735 net.cpp:91] Creating Layer inception_4e/pool_proj
I0403 15:24:56.283056 31735 net.cpp:425] inception_4e/pool_proj <- inception_4e/pool
I0403 15:24:56.283078 31735 net.cpp:399] inception_4e/pool_proj -> inception_4e/pool_proj
I0403 15:24:56.284595 31735 net.cpp:141] Setting up inception_4e/pool_proj
I0403 15:24:56.284624 31735 net.cpp:148] Top shape: 24 128 14 14 (602112)
I0403 15:24:56.284656 31735 net.cpp:156] Memory required for data: 1254493728
I0403 15:24:56.284677 31735 layer_factory.hpp:77] Creating layer inception_4e/relu_pool_proj
I0403 15:24:56.284696 31735 net.cpp:91] Creating Layer inception_4e/relu_pool_proj
I0403 15:24:56.284716 31735 net.cpp:425] inception_4e/relu_pool_proj <- inception_4e/pool_proj
I0403 15:24:56.284734 31735 net.cpp:386] inception_4e/relu_pool_proj -> inception_4e/pool_proj (in-place)
I0403 15:24:56.285032 31735 net.cpp:141] Setting up inception_4e/relu_pool_proj
I0403 15:24:56.285059 31735 net.cpp:148] Top shape: 24 128 14 14 (602112)
I0403 15:24:56.285075 31735 net.cpp:156] Memory required for data: 1256902176
I0403 15:24:56.285090 31735 layer_factory.hpp:77] Creating layer inception_4e/output
I0403 15:24:56.285109 31735 net.cpp:91] Creating Layer inception_4e/output
I0403 15:24:56.285126 31735 net.cpp:425] inception_4e/output <- inception_4e/1x1
I0403 15:24:56.285143 31735 net.cpp:425] inception_4e/output <- inception_4e/3x3
I0403 15:24:56.285161 31735 net.cpp:425] inception_4e/output <- inception_4e/5x5
I0403 15:24:56.285176 31735 net.cpp:425] inception_4e/output <- inception_4e/pool_proj
I0403 15:24:56.285197 31735 net.cpp:399] inception_4e/output -> inception_4e/output
I0403 15:24:56.285250 31735 net.cpp:141] Setting up inception_4e/output
I0403 15:24:56.285290 31735 net.cpp:148] Top shape: 24 832 14 14 (3913728)
I0403 15:24:56.285305 31735 net.cpp:156] Memory required for data: 1272557088
I0403 15:24:56.285320 31735 layer_factory.hpp:77] Creating layer pool4/3x3_s2
I0403 15:24:56.285338 31735 net.cpp:91] Creating Layer pool4/3x3_s2
I0403 15:24:56.285361 31735 net.cpp:425] pool4/3x3_s2 <- inception_4e/output
I0403 15:24:56.285383 31735 net.cpp:399] pool4/3x3_s2 -> pool4/3x3_s2
I0403 15:24:56.285454 31735 net.cpp:141] Setting up pool4/3x3_s2
I0403 15:24:56.285480 31735 net.cpp:148] Top shape: 24 832 7 7 (978432)
I0403 15:24:56.285495 31735 net.cpp:156] Memory required for data: 1276470816
I0403 15:24:56.285511 31735 layer_factory.hpp:77] Creating layer pool4/3x3_s2_pool4/3x3_s2_0_split
I0403 15:24:56.285531 31735 net.cpp:91] Creating Layer pool4/3x3_s2_pool4/3x3_s2_0_split
I0403 15:24:56.285562 31735 net.cpp:425] pool4/3x3_s2_pool4/3x3_s2_0_split <- pool4/3x3_s2
I0403 15:24:56.285580 31735 net.cpp:399] pool4/3x3_s2_pool4/3x3_s2_0_split -> pool4/3x3_s2_pool4/3x3_s2_0_split_0
I0403 15:24:56.285604 31735 net.cpp:399] pool4/3x3_s2_pool4/3x3_s2_0_split -> pool4/3x3_s2_pool4/3x3_s2_0_split_1
I0403 15:24:56.285625 31735 net.cpp:399] pool4/3x3_s2_pool4/3x3_s2_0_split -> pool4/3x3_s2_pool4/3x3_s2_0_split_2
I0403 15:24:56.285645 31735 net.cpp:399] pool4/3x3_s2_pool4/3x3_s2_0_split -> pool4/3x3_s2_pool4/3x3_s2_0_split_3
I0403 15:24:56.285735 31735 net.cpp:141] Setting up pool4/3x3_s2_pool4/3x3_s2_0_split
I0403 15:24:56.285760 31735 net.cpp:148] Top shape: 24 832 7 7 (978432)
I0403 15:24:56.285778 31735 net.cpp:148] Top shape: 24 832 7 7 (978432)
I0403 15:24:56.285794 31735 net.cpp:148] Top shape: 24 832 7 7 (978432)
I0403 15:24:56.285810 31735 net.cpp:148] Top shape: 24 832 7 7 (978432)
I0403 15:24:56.285825 31735 net.cpp:156] Memory required for data: 1292125728
I0403 15:24:56.285840 31735 layer_factory.hpp:77] Creating layer inception_5a/1x1
I0403 15:24:56.285862 31735 net.cpp:91] Creating Layer inception_5a/1x1
I0403 15:24:56.285882 31735 net.cpp:425] inception_5a/1x1 <- pool4/3x3_s2_pool4/3x3_s2_0_split_0
I0403 15:24:56.285904 31735 net.cpp:399] inception_5a/1x1 -> inception_5a/1x1
I0403 15:24:56.288805 31735 net.cpp:141] Setting up inception_5a/1x1
I0403 15:24:56.288836 31735 net.cpp:148] Top shape: 24 256 7 7 (301056)
I0403 15:24:56.288853 31735 net.cpp:156] Memory required for data: 1293329952
I0403 15:24:56.288873 31735 layer_factory.hpp:77] Creating layer inception_5a/relu_1x1
I0403 15:24:56.288895 31735 net.cpp:91] Creating Layer inception_5a/relu_1x1
I0403 15:24:56.288913 31735 net.cpp:425] inception_5a/relu_1x1 <- inception_5a/1x1
I0403 15:24:56.288933 31735 net.cpp:386] inception_5a/relu_1x1 -> inception_5a/1x1 (in-place)
I0403 15:24:56.289247 31735 net.cpp:141] Setting up inception_5a/relu_1x1
I0403 15:24:56.289273 31735 net.cpp:148] Top shape: 24 256 7 7 (301056)
I0403 15:24:56.289289 31735 net.cpp:156] Memory required for data: 1294534176
I0403 15:24:56.289305 31735 layer_factory.hpp:77] Creating layer inception_5a/3x3_reduce
I0403 15:24:56.289330 31735 net.cpp:91] Creating Layer inception_5a/3x3_reduce
I0403 15:24:56.289352 31735 net.cpp:425] inception_5a/3x3_reduce <- pool4/3x3_s2_pool4/3x3_s2_0_split_1
I0403 15:24:56.289381 31735 net.cpp:399] inception_5a/3x3_reduce -> inception_5a/3x3_reduce
I0403 15:24:56.291838 31735 net.cpp:141] Setting up inception_5a/3x3_reduce
I0403 15:24:56.291867 31735 net.cpp:148] Top shape: 24 160 7 7 (188160)
I0403 15:24:56.291883 31735 net.cpp:156] Memory required for data: 1295286816
I0403 15:24:56.291903 31735 layer_factory.hpp:77] Creating layer inception_5a/relu_3x3_reduce
I0403 15:24:56.291920 31735 net.cpp:91] Creating Layer inception_5a/relu_3x3_reduce
I0403 15:24:56.291936 31735 net.cpp:425] inception_5a/relu_3x3_reduce <- inception_5a/3x3_reduce
I0403 15:24:56.291955 31735 net.cpp:386] inception_5a/relu_3x3_reduce -> inception_5a/3x3_reduce (in-place)
I0403 15:24:56.292140 31735 net.cpp:141] Setting up inception_5a/relu_3x3_reduce
I0403 15:24:56.292165 31735 net.cpp:148] Top shape: 24 160 7 7 (188160)
I0403 15:24:56.292179 31735 net.cpp:156] Memory required for data: 1296039456
I0403 15:24:56.292196 31735 layer_factory.hpp:77] Creating layer inception_5a/3x3
I0403 15:24:56.292217 31735 net.cpp:91] Creating Layer inception_5a/3x3
I0403 15:24:56.292235 31735 net.cpp:425] inception_5a/3x3 <- inception_5a/3x3_reduce
I0403 15:24:56.292258 31735 net.cpp:399] inception_5a/3x3 -> inception_5a/3x3
I0403 15:24:56.297209 31735 net.cpp:141] Setting up inception_5a/3x3
I0403 15:24:56.297240 31735 net.cpp:148] Top shape: 24 320 7 7 (376320)
I0403 15:24:56.297256 31735 net.cpp:156] Memory required for data: 1297544736
I0403 15:24:56.297276 31735 layer_factory.hpp:77] Creating layer inception_5a/relu_3x3
I0403 15:24:56.297294 31735 net.cpp:91] Creating Layer inception_5a/relu_3x3
I0403 15:24:56.297313 31735 net.cpp:425] inception_5a/relu_3x3 <- inception_5a/3x3
I0403 15:24:56.297333 31735 net.cpp:386] inception_5a/relu_3x3 -> inception_5a/3x3 (in-place)
I0403 15:24:56.297629 31735 net.cpp:141] Setting up inception_5a/relu_3x3
I0403 15:24:56.297655 31735 net.cpp:148] Top shape: 24 320 7 7 (376320)
I0403 15:24:56.297672 31735 net.cpp:156] Memory required for data: 1299050016
I0403 15:24:56.297686 31735 layer_factory.hpp:77] Creating layer inception_5a/5x5_reduce
I0403 15:24:56.297709 31735 net.cpp:91] Creating Layer inception_5a/5x5_reduce
I0403 15:24:56.297730 31735 net.cpp:425] inception_5a/5x5_reduce <- pool4/3x3_s2_pool4/3x3_s2_0_split_2
I0403 15:24:56.297751 31735 net.cpp:399] inception_5a/5x5_reduce -> inception_5a/5x5_reduce
I0403 15:24:56.298892 31735 net.cpp:141] Setting up inception_5a/5x5_reduce
I0403 15:24:56.298921 31735 net.cpp:148] Top shape: 24 32 7 7 (37632)
I0403 15:24:56.298938 31735 net.cpp:156] Memory required for data: 1299200544
I0403 15:24:56.298957 31735 layer_factory.hpp:77] Creating layer inception_5a/relu_5x5_reduce
I0403 15:24:56.298976 31735 net.cpp:91] Creating Layer inception_5a/relu_5x5_reduce
I0403 15:24:56.298993 31735 net.cpp:425] inception_5a/relu_5x5_reduce <- inception_5a/5x5_reduce
I0403 15:24:56.299010 31735 net.cpp:386] inception_5a/relu_5x5_reduce -> inception_5a/5x5_reduce (in-place)
I0403 15:24:56.299307 31735 net.cpp:141] Setting up inception_5a/relu_5x5_reduce
I0403 15:24:56.299336 31735 net.cpp:148] Top shape: 24 32 7 7 (37632)
I0403 15:24:56.299357 31735 net.cpp:156] Memory required for data: 1299351072
I0403 15:24:56.299373 31735 layer_factory.hpp:77] Creating layer inception_5a/5x5
I0403 15:24:56.299397 31735 net.cpp:91] Creating Layer inception_5a/5x5
I0403 15:24:56.299415 31735 net.cpp:425] inception_5a/5x5 <- inception_5a/5x5_reduce
I0403 15:24:56.299433 31735 net.cpp:399] inception_5a/5x5 -> inception_5a/5x5
I0403 15:24:56.301139 31735 net.cpp:141] Setting up inception_5a/5x5
I0403 15:24:56.301178 31735 net.cpp:148] Top shape: 24 128 7 7 (150528)
I0403 15:24:56.301197 31735 net.cpp:156] Memory required for data: 1299953184
I0403 15:24:56.301215 31735 layer_factory.hpp:77] Creating layer inception_5a/relu_5x5
I0403 15:24:56.301235 31735 net.cpp:91] Creating Layer inception_5a/relu_5x5
I0403 15:24:56.301254 31735 net.cpp:425] inception_5a/relu_5x5 <- inception_5a/5x5
I0403 15:24:56.301271 31735 net.cpp:386] inception_5a/relu_5x5 -> inception_5a/5x5 (in-place)
I0403 15:24:56.301463 31735 net.cpp:141] Setting up inception_5a/relu_5x5
I0403 15:24:56.301491 31735 net.cpp:148] Top shape: 24 128 7 7 (150528)
I0403 15:24:56.301506 31735 net.cpp:156] Memory required for data: 1300555296
I0403 15:24:56.301522 31735 layer_factory.hpp:77] Creating layer inception_5a/pool
I0403 15:24:56.301540 31735 net.cpp:91] Creating Layer inception_5a/pool
I0403 15:24:56.301556 31735 net.cpp:425] inception_5a/pool <- pool4/3x3_s2_pool4/3x3_s2_0_split_3
I0403 15:24:56.301579 31735 net.cpp:399] inception_5a/pool -> inception_5a/pool
I0403 15:24:56.301650 31735 net.cpp:141] Setting up inception_5a/pool
I0403 15:24:56.301673 31735 net.cpp:148] Top shape: 24 832 7 7 (978432)
I0403 15:24:56.301689 31735 net.cpp:156] Memory required for data: 1304469024
I0403 15:24:56.301704 31735 layer_factory.hpp:77] Creating layer inception_5a/pool_proj
I0403 15:24:56.301725 31735 net.cpp:91] Creating Layer inception_5a/pool_proj
I0403 15:24:56.301745 31735 net.cpp:425] inception_5a/pool_proj <- inception_5a/pool
I0403 15:24:56.301764 31735 net.cpp:399] inception_5a/pool_proj -> inception_5a/pool_proj
I0403 15:24:56.304002 31735 net.cpp:141] Setting up inception_5a/pool_proj
I0403 15:24:56.304030 31735 net.cpp:148] Top shape: 24 128 7 7 (150528)
I0403 15:24:56.304047 31735 net.cpp:156] Memory required for data: 1305071136
I0403 15:24:56.304066 31735 layer_factory.hpp:77] Creating layer inception_5a/relu_pool_proj
I0403 15:24:56.304086 31735 net.cpp:91] Creating Layer inception_5a/relu_pool_proj
I0403 15:24:56.304105 31735 net.cpp:425] inception_5a/relu_pool_proj <- inception_5a/pool_proj
I0403 15:24:56.304122 31735 net.cpp:386] inception_5a/relu_pool_proj -> inception_5a/pool_proj (in-place)
I0403 15:24:56.304437 31735 net.cpp:141] Setting up inception_5a/relu_pool_proj
I0403 15:24:56.304466 31735 net.cpp:148] Top shape: 24 128 7 7 (150528)
I0403 15:24:56.304481 31735 net.cpp:156] Memory required for data: 1305673248
I0403 15:24:56.304497 31735 layer_factory.hpp:77] Creating layer inception_5a/output
I0403 15:24:56.304517 31735 net.cpp:91] Creating Layer inception_5a/output
I0403 15:24:56.304535 31735 net.cpp:425] inception_5a/output <- inception_5a/1x1
I0403 15:24:56.304566 31735 net.cpp:425] inception_5a/output <- inception_5a/3x3
I0403 15:24:56.304582 31735 net.cpp:425] inception_5a/output <- inception_5a/5x5
I0403 15:24:56.304599 31735 net.cpp:425] inception_5a/output <- inception_5a/pool_proj
I0403 15:24:56.304615 31735 net.cpp:399] inception_5a/output -> inception_5a/output
I0403 15:24:56.304666 31735 net.cpp:141] Setting up inception_5a/output
I0403 15:24:56.304692 31735 net.cpp:148] Top shape: 24 832 7 7 (978432)
I0403 15:24:56.304708 31735 net.cpp:156] Memory required for data: 1309586976
I0403 15:24:56.304723 31735 layer_factory.hpp:77] Creating layer inception_5a/output_inception_5a/output_0_split
I0403 15:24:56.304740 31735 net.cpp:91] Creating Layer inception_5a/output_inception_5a/output_0_split
I0403 15:24:56.304756 31735 net.cpp:425] inception_5a/output_inception_5a/output_0_split <- inception_5a/output
I0403 15:24:56.304776 31735 net.cpp:399] inception_5a/output_inception_5a/output_0_split -> inception_5a/output_inception_5a/output_0_split_0
I0403 15:24:56.304798 31735 net.cpp:399] inception_5a/output_inception_5a/output_0_split -> inception_5a/output_inception_5a/output_0_split_1
I0403 15:24:56.304821 31735 net.cpp:399] inception_5a/output_inception_5a/output_0_split -> inception_5a/output_inception_5a/output_0_split_2
I0403 15:24:56.304841 31735 net.cpp:399] inception_5a/output_inception_5a/output_0_split -> inception_5a/output_inception_5a/output_0_split_3
I0403 15:24:56.304950 31735 net.cpp:141] Setting up inception_5a/output_inception_5a/output_0_split
I0403 15:24:56.304977 31735 net.cpp:148] Top shape: 24 832 7 7 (978432)
I0403 15:24:56.304996 31735 net.cpp:148] Top shape: 24 832 7 7 (978432)
I0403 15:24:56.305011 31735 net.cpp:148] Top shape: 24 832 7 7 (978432)
I0403 15:24:56.305027 31735 net.cpp:148] Top shape: 24 832 7 7 (978432)
I0403 15:24:56.305042 31735 net.cpp:156] Memory required for data: 1325241888
I0403 15:24:56.305058 31735 layer_factory.hpp:77] Creating layer inception_5b/1x1
I0403 15:24:56.305079 31735 net.cpp:91] Creating Layer inception_5b/1x1
I0403 15:24:56.305097 31735 net.cpp:425] inception_5b/1x1 <- inception_5a/output_inception_5a/output_0_split_0
I0403 15:24:56.305116 31735 net.cpp:399] inception_5b/1x1 -> inception_5b/1x1
I0403 15:24:56.308827 31735 net.cpp:141] Setting up inception_5b/1x1
I0403 15:24:56.308857 31735 net.cpp:148] Top shape: 24 384 7 7 (451584)
I0403 15:24:56.308873 31735 net.cpp:156] Memory required for data: 1327048224
I0403 15:24:56.308892 31735 layer_factory.hpp:77] Creating layer inception_5b/relu_1x1
I0403 15:24:56.308909 31735 net.cpp:91] Creating Layer inception_5b/relu_1x1
I0403 15:24:56.308926 31735 net.cpp:425] inception_5b/relu_1x1 <- inception_5b/1x1
I0403 15:24:56.308946 31735 net.cpp:386] inception_5b/relu_1x1 -> inception_5b/1x1 (in-place)
I0403 15:24:56.309252 31735 net.cpp:141] Setting up inception_5b/relu_1x1
I0403 15:24:56.309291 31735 net.cpp:148] Top shape: 24 384 7 7 (451584)
I0403 15:24:56.309308 31735 net.cpp:156] Memory required for data: 1328854560
I0403 15:24:56.309322 31735 layer_factory.hpp:77] Creating layer inception_5b/3x3_reduce
I0403 15:24:56.309350 31735 net.cpp:91] Creating Layer inception_5b/3x3_reduce
I0403 15:24:56.309371 31735 net.cpp:425] inception_5b/3x3_reduce <- inception_5a/output_inception_5a/output_0_split_1
I0403 15:24:56.309396 31735 net.cpp:399] inception_5b/3x3_reduce -> inception_5b/3x3_reduce
I0403 15:24:56.312077 31735 net.cpp:141] Setting up inception_5b/3x3_reduce
I0403 15:24:56.312108 31735 net.cpp:148] Top shape: 24 192 7 7 (225792)
I0403 15:24:56.312124 31735 net.cpp:156] Memory required for data: 1329757728
I0403 15:24:56.312144 31735 layer_factory.hpp:77] Creating layer inception_5b/relu_3x3_reduce
I0403 15:24:56.312165 31735 net.cpp:91] Creating Layer inception_5b/relu_3x3_reduce
I0403 15:24:56.312182 31735 net.cpp:425] inception_5b/relu_3x3_reduce <- inception_5b/3x3_reduce
I0403 15:24:56.312201 31735 net.cpp:386] inception_5b/relu_3x3_reduce -> inception_5b/3x3_reduce (in-place)
I0403 15:24:56.312397 31735 net.cpp:141] Setting up inception_5b/relu_3x3_reduce
I0403 15:24:56.312423 31735 net.cpp:148] Top shape: 24 192 7 7 (225792)
I0403 15:24:56.312439 31735 net.cpp:156] Memory required for data: 1330660896
I0403 15:24:56.312455 31735 layer_factory.hpp:77] Creating layer inception_5b/3x3
I0403 15:24:56.312479 31735 net.cpp:91] Creating Layer inception_5b/3x3
I0403 15:24:56.312497 31735 net.cpp:425] inception_5b/3x3 <- inception_5b/3x3_reduce
I0403 15:24:56.312518 31735 net.cpp:399] inception_5b/3x3 -> inception_5b/3x3
I0403 15:24:56.319349 31735 net.cpp:141] Setting up inception_5b/3x3
I0403 15:24:56.319378 31735 net.cpp:148] Top shape: 24 384 7 7 (451584)
I0403 15:24:56.319394 31735 net.cpp:156] Memory required for data: 1332467232
I0403 15:24:56.319413 31735 layer_factory.hpp:77] Creating layer inception_5b/relu_3x3
I0403 15:24:56.319435 31735 net.cpp:91] Creating Layer inception_5b/relu_3x3
I0403 15:24:56.319453 31735 net.cpp:425] inception_5b/relu_3x3 <- inception_5b/3x3
I0403 15:24:56.319473 31735 net.cpp:386] inception_5b/relu_3x3 -> inception_5b/3x3 (in-place)
I0403 15:24:56.319779 31735 net.cpp:141] Setting up inception_5b/relu_3x3
I0403 15:24:56.319808 31735 net.cpp:148] Top shape: 24 384 7 7 (451584)
I0403 15:24:56.319823 31735 net.cpp:156] Memory required for data: 1334273568
I0403 15:24:56.319839 31735 layer_factory.hpp:77] Creating layer inception_5b/5x5_reduce
I0403 15:24:56.319878 31735 net.cpp:91] Creating Layer inception_5b/5x5_reduce
I0403 15:24:56.319900 31735 net.cpp:425] inception_5b/5x5_reduce <- inception_5a/output_inception_5a/output_0_split_2
I0403 15:24:56.319923 31735 net.cpp:399] inception_5b/5x5_reduce -> inception_5b/5x5_reduce
I0403 15:24:56.321241 31735 net.cpp:141] Setting up inception_5b/5x5_reduce
I0403 15:24:56.321269 31735 net.cpp:148] Top shape: 24 48 7 7 (56448)
I0403 15:24:56.321286 31735 net.cpp:156] Memory required for data: 1334499360
I0403 15:24:56.321305 31735 layer_factory.hpp:77] Creating layer inception_5b/relu_5x5_reduce
I0403 15:24:56.321326 31735 net.cpp:91] Creating Layer inception_5b/relu_5x5_reduce
I0403 15:24:56.321344 31735 net.cpp:425] inception_5b/relu_5x5_reduce <- inception_5b/5x5_reduce
I0403 15:24:56.321368 31735 net.cpp:386] inception_5b/relu_5x5_reduce -> inception_5b/5x5_reduce (in-place)
I0403 15:24:56.321744 31735 net.cpp:141] Setting up inception_5b/relu_5x5_reduce
I0403 15:24:56.321773 31735 net.cpp:148] Top shape: 24 48 7 7 (56448)
I0403 15:24:56.321789 31735 net.cpp:156] Memory required for data: 1334725152
I0403 15:24:56.321804 31735 layer_factory.hpp:77] Creating layer inception_5b/5x5
I0403 15:24:56.321837 31735 net.cpp:91] Creating Layer inception_5b/5x5
I0403 15:24:56.321857 31735 net.cpp:425] inception_5b/5x5 <- inception_5b/5x5_reduce
I0403 15:24:56.321878 31735 net.cpp:399] inception_5b/5x5 -> inception_5b/5x5
I0403 15:24:56.324002 31735 net.cpp:141] Setting up inception_5b/5x5
I0403 15:24:56.324029 31735 net.cpp:148] Top shape: 24 128 7 7 (150528)
I0403 15:24:56.324046 31735 net.cpp:156] Memory required for data: 1335327264
I0403 15:24:56.324066 31735 layer_factory.hpp:77] Creating layer inception_5b/relu_5x5
I0403 15:24:56.324087 31735 net.cpp:91] Creating Layer inception_5b/relu_5x5
I0403 15:24:56.324106 31735 net.cpp:425] inception_5b/relu_5x5 <- inception_5b/5x5
I0403 15:24:56.324126 31735 net.cpp:386] inception_5b/relu_5x5 -> inception_5b/5x5 (in-place)
I0403 15:24:56.324321 31735 net.cpp:141] Setting up inception_5b/relu_5x5
I0403 15:24:56.324358 31735 net.cpp:148] Top shape: 24 128 7 7 (150528)
I0403 15:24:56.324378 31735 net.cpp:156] Memory required for data: 1335929376
I0403 15:24:56.324395 31735 layer_factory.hpp:77] Creating layer inception_5b/pool
I0403 15:24:56.324414 31735 net.cpp:91] Creating Layer inception_5b/pool
I0403 15:24:56.324430 31735 net.cpp:425] inception_5b/pool <- inception_5a/output_inception_5a/output_0_split_3
I0403 15:24:56.324451 31735 net.cpp:399] inception_5b/pool -> inception_5b/pool
I0403 15:24:56.324527 31735 net.cpp:141] Setting up inception_5b/pool
I0403 15:24:56.324553 31735 net.cpp:148] Top shape: 24 832 7 7 (978432)
I0403 15:24:56.324570 31735 net.cpp:156] Memory required for data: 1339843104
I0403 15:24:56.324585 31735 layer_factory.hpp:77] Creating layer inception_5b/pool_proj
I0403 15:24:56.324607 31735 net.cpp:91] Creating Layer inception_5b/pool_proj
I0403 15:24:56.324626 31735 net.cpp:425] inception_5b/pool_proj <- inception_5b/pool
I0403 15:24:56.324650 31735 net.cpp:399] inception_5b/pool_proj -> inception_5b/pool_proj
I0403 15:24:56.327064 31735 net.cpp:141] Setting up inception_5b/pool_proj
I0403 15:24:56.327095 31735 net.cpp:148] Top shape: 24 128 7 7 (150528)
I0403 15:24:56.327112 31735 net.cpp:156] Memory required for data: 1340445216
I0403 15:24:56.327132 31735 layer_factory.hpp:77] Creating layer inception_5b/relu_pool_proj
I0403 15:24:56.327154 31735 net.cpp:91] Creating Layer inception_5b/relu_pool_proj
I0403 15:24:56.327174 31735 net.cpp:425] inception_5b/relu_pool_proj <- inception_5b/pool_proj
I0403 15:24:56.327193 31735 net.cpp:386] inception_5b/relu_pool_proj -> inception_5b/pool_proj (in-place)
I0403 15:24:56.327530 31735 net.cpp:141] Setting up inception_5b/relu_pool_proj
I0403 15:24:56.327572 31735 net.cpp:148] Top shape: 24 128 7 7 (150528)
I0403 15:24:56.327589 31735 net.cpp:156] Memory required for data: 1341047328
I0403 15:24:56.327605 31735 layer_factory.hpp:77] Creating layer inception_5b/output
I0403 15:24:56.327623 31735 net.cpp:91] Creating Layer inception_5b/output
I0403 15:24:56.327656 31735 net.cpp:425] inception_5b/output <- inception_5b/1x1
I0403 15:24:56.327678 31735 net.cpp:425] inception_5b/output <- inception_5b/3x3
I0403 15:24:56.327697 31735 net.cpp:425] inception_5b/output <- inception_5b/5x5
I0403 15:24:56.327714 31735 net.cpp:425] inception_5b/output <- inception_5b/pool_proj
I0403 15:24:56.327733 31735 net.cpp:399] inception_5b/output -> inception_5b/output
I0403 15:24:56.327790 31735 net.cpp:141] Setting up inception_5b/output
I0403 15:24:56.327816 31735 net.cpp:148] Top shape: 24 1024 7 7 (1204224)
I0403 15:24:56.327832 31735 net.cpp:156] Memory required for data: 1345864224
I0403 15:24:56.327848 31735 layer_factory.hpp:77] Creating layer pool5/7x7_s1
I0403 15:24:56.327867 31735 net.cpp:91] Creating Layer pool5/7x7_s1
I0403 15:24:56.327883 31735 net.cpp:425] pool5/7x7_s1 <- inception_5b/output
I0403 15:24:56.327904 31735 net.cpp:399] pool5/7x7_s1 -> pool5/7x7_s1
I0403 15:24:56.328130 31735 net.cpp:141] Setting up pool5/7x7_s1
I0403 15:24:56.328157 31735 net.cpp:148] Top shape: 24 1024 1 1 (24576)
I0403 15:24:56.328172 31735 net.cpp:156] Memory required for data: 1345962528
I0403 15:24:56.328188 31735 layer_factory.hpp:77] Creating layer pool5/drop_7x7_s1
I0403 15:24:56.328209 31735 net.cpp:91] Creating Layer pool5/drop_7x7_s1
I0403 15:24:56.328228 31735 net.cpp:425] pool5/drop_7x7_s1 <- pool5/7x7_s1
I0403 15:24:56.328248 31735 net.cpp:386] pool5/drop_7x7_s1 -> pool5/7x7_s1 (in-place)
I0403 15:24:56.328302 31735 net.cpp:141] Setting up pool5/drop_7x7_s1
I0403 15:24:56.328328 31735 net.cpp:148] Top shape: 24 1024 1 1 (24576)
I0403 15:24:56.328343 31735 net.cpp:156] Memory required for data: 1346060832
I0403 15:24:56.328362 31735 layer_factory.hpp:77] Creating layer loss3/classifier_plantvillage
I0403 15:24:56.328387 31735 net.cpp:91] Creating Layer loss3/classifier_plantvillage
I0403 15:24:56.328403 31735 net.cpp:425] loss3/classifier_plantvillage <- pool5/7x7_s1
I0403 15:24:56.328425 31735 net.cpp:399] loss3/classifier_plantvillage -> loss3/classifier_plantvillage
I0403 15:24:56.328871 31735 net.cpp:141] Setting up loss3/classifier_plantvillage
I0403 15:24:56.328898 31735 net.cpp:148] Top shape: 24 38 (912)
I0403 15:24:56.328913 31735 net.cpp:156] Memory required for data: 1346064480
I0403 15:24:56.328932 31735 layer_factory.hpp:77] Creating layer loss3/classifier_plantvillage_loss3/classifier_plantvillage_0_split
I0403 15:24:56.328950 31735 net.cpp:91] Creating Layer loss3/classifier_plantvillage_loss3/classifier_plantvillage_0_split
I0403 15:24:56.328968 31735 net.cpp:425] loss3/classifier_plantvillage_loss3/classifier_plantvillage_0_split <- loss3/classifier_plantvillage
I0403 15:24:56.328989 31735 net.cpp:399] loss3/classifier_plantvillage_loss3/classifier_plantvillage_0_split -> loss3/classifier_plantvillage_loss3/classifier_plantvillage_0_split_0
I0403 15:24:56.329012 31735 net.cpp:399] loss3/classifier_plantvillage_loss3/classifier_plantvillage_0_split -> loss3/classifier_plantvillage_loss3/classifier_plantvillage_0_split_1
I0403 15:24:56.329033 31735 net.cpp:399] loss3/classifier_plantvillage_loss3/classifier_plantvillage_0_split -> loss3/classifier_plantvillage_loss3/classifier_plantvillage_0_split_2
I0403 15:24:56.329053 31735 net.cpp:399] loss3/classifier_plantvillage_loss3/classifier_plantvillage_0_split -> loss3/classifier_plantvillage_loss3/classifier_plantvillage_0_split_3
I0403 15:24:56.329159 31735 net.cpp:141] Setting up loss3/classifier_plantvillage_loss3/classifier_plantvillage_0_split
I0403 15:24:56.329185 31735 net.cpp:148] Top shape: 24 38 (912)
I0403 15:24:56.329202 31735 net.cpp:148] Top shape: 24 38 (912)
I0403 15:24:56.329218 31735 net.cpp:148] Top shape: 24 38 (912)
I0403 15:24:56.329236 31735 net.cpp:148] Top shape: 24 38 (912)
I0403 15:24:56.329251 31735 net.cpp:156] Memory required for data: 1346079072
I0403 15:24:56.329265 31735 layer_factory.hpp:77] Creating layer loss1/loss
I0403 15:24:56.329288 31735 net.cpp:91] Creating Layer loss1/loss
I0403 15:24:56.329308 31735 net.cpp:425] loss1/loss <- loss1/classifier_plantvillage_loss1/classifier_plantvillage_0_split_0
I0403 15:24:56.329339 31735 net.cpp:425] loss1/loss <- label_data_1_split_0
…
