…
I0403 15:27:40.627897 31918 net.cpp:313] The NetState phase (1) differed from the phase (0) specified by a rule in layer data
I0403 15:27:40.629066 31918 net.cpp:49] Initializing net from parameters: 
state {
  phase: TEST
}
layer {
  name: "data"
  type: "Data"
  top: "data"
  top: "label"
  include {
    phase: TEST
  }
  transform_param {
    mirror: false
    crop_size: 224
    mean_file: "/home/mohanty/data/final_dataset/lmdb/color-20-80/mean.binaryproto"
  }
  data_param {
    source: "/home/mohanty/data/final_dataset/lmdb/color-20-80/test_db"
    batch_size: 24
    backend: LMDB
  }
}
layer {
  name: "conv1/7x7_s2"
  type: "Convolution"
  bottom: "data"
  top: "conv1/7x7_s2"
  param {
    lr_mult: 1
    decay_mult: 1
  }
  param {
    lr_mult: 2
    decay_mult: 0
  }
  convolution_param {
    num_output: 64
    pad: 3
    kernel_size: 7
    stride: 2
    weight_filler {
      type: "xavier"
      std: 0.1
    }
    bias_filler {
      type: "constant"
      value: 0.2
    }
  }
}
layer {
  name: "conv1/relu_7x7"
  type: "ReLU"
  bottom: "conv1/7x7_s2"
  top: "conv1/7x7_s2"
}
layer {
  name: "pool1/3x3_s2"
  type: "Pooling"
  bottom: "conv1/7x7_s2"
  top: "pool1/3x3_s2"
  pooling_param {
    pool: MAX
    kernel_size: 3
    stride: 2
  }
}
layer {
  name: "pool1/norm1"
  type: "LRN"
  bottom: "pool1/3x3_s2"
  top: "pool1/norm1"
  lrn_param {
    local_size: 5
    alpha: 0.0001
    beta: 0.75
  }
}
layer {
  name: "conv2/3x3_reduce"
  type: "Convolution"
  bottom: "pool1/norm1"
  top: "conv2/3x3_reduce"
  param {
    lr_mult: 1
    decay_mult: 1
  }
  param {
    lr_mult: 2
    decay_mult: 0
  }
  convolution_param {
    num_output: 64
    kernel_size: 1
    weight_filler {
      type: "xavier"
      std: 0.1
    }
    bias_filler {
      type: "constant"
      value: 0.2
    }
  }
}
layer {
  name: "conv2/relu_3x3_reduce"
  type: "ReLU"
  bottom: "conv2/3x3_reduce"
  top: "conv2/3x3_reduce"
}
layer {
  name: "conv2/3x3"
  type: "Convolution"
  bottom: "conv2/3x3_reduce"
  top: "conv2/3x3"
  param {
    lr_mult: 1
    decay_mult: 1
  }
  param {
    lr_mult: 2
    decay_mult: 0
  }
  convolution_param {
    num_output: 192
    pad: 1
    kernel_size: 3
    weight_filler {
      type: "xavier"
      std: 0.03
    }
    bias_filler {
      type: "constant"
      value: 0.2
    }
  }
}
layer {
  name: "conv2/relu_3x3"
  type: "ReLU"
  bottom: "conv2/3x3"
  top: "conv2/3x3"
}
layer {
  name: "conv2/norm2"
  type: "LRN"
  bottom: "conv2/3x3"
  top: "conv2/norm2"
  lrn_param {
    local_size: 5
    alpha: 0.0001
    beta: 0.75
  }
}
layer {
  name: "pool2/3x3_s2"
  type: "Pooling"
  bottom: "conv2/norm2"
  top: "pool2/3x3_s2"
  pooling_param {
    pool: MAX
    kernel_size: 3
    stride: 2
  }
}
layer {
  name: "inception_3a/1x1"
  type: "Convolution"
  bottom: "pool2/3x3_s2"
  top: "inception_3a/1x1"
  param {
    lr_mult: 1
    decay_mult: 1
  }
  param {
    lr_mult: 2
    decay_mult: 0
  }
  convolution_param {
    num_output: 64
    kernel_size: 1
    weight_filler {
      type: "xavier"
      std: 0.03
    }
    bias_filler {
      type: "constant"
      value: 0.2
    }
  }
}
layer {
  name: "inception_3a/relu_1x1"
  type: "ReLU"
  bottom: "inception_3a/1x1"
  top: "inception_3a/1x1"
}
layer {
  name: "inception_3a/3x3_reduce"
  type: "Convolution"
  bottom: "pool2/3x3_s2"
  top: "inception_3a/3x3_reduce"
  param {
    lr_mult: 1
    decay_mult: 1
  }
  param {
    lr_mult: 2
    decay_mult: 0
  }
  convolution_param {
    num_output: 96
    kernel_size: 1
    weight_filler {
      type: "xavier"
      std: 0.09
    }
    bias_filler {
      type: "constant"
      value: 0.2
    }
  }
}
layer {
  name: "inception_3a/relu_3x3_reduce"
  type: "ReLU"
  bottom: "inception_3a/3x3_reduce"
  top: "inception_3a/3x3_reduce"
}
layer {
  name: "inception_3a/3x3"
  type: "Convolution"
  bottom: "inception_3a/3x3_reduce"
  top: "inception_3a/3x3"
  param {
    lr_mult: 1
    decay_mult: 1
  }
  param {
    lr_mult: 2
    decay_mult: 0
  }
  convolution_param {
    num_output: 128
    pad: 1
    kernel_size: 3
    weight_filler {
      type: "xavier"
      std: 0.03
    }
    bias_filler {
      type: "constant"
      value: 0.2
    }
  }
}
layer {
  name: "inception_3a/relu_3x3"
  type: "ReLU"
  bottom: "inception_3a/3x3"
  top: "inception_3a/3x3"
}
layer {
  name: "inception_3a/5x5_reduce"
  type: "Convolution"
  bottom: "pool2/3x3_s2"
  top: "inception_3a/5x5_reduce"
  param {
    lr_mult: 1
    decay_mult: 1
  }
  param {
    lr_mult: 2
    decay_mult: 0
  }
  convolution_param {
    num_output: 16
    kernel_size: 1
    weight_filler {
      type: "xavier"
      std: 0.2
    }
    bias_filler {
      type: "constant"
      value: 0.2
    }
  }
}
layer {
  name: "inception_3a/relu_5x5_reduce"
  type: "ReLU"
  bottom: "inception_3a/5x5_reduce"
  top: "inception_3a/5x5_reduce"
}
layer {
  name: "inception_3a/5x5"
  type: "Convolution"
  bottom: "inception_3a/5x5_reduce"
  top: "inception_3a/5x5"
  param {
    lr_mult: 1
    decay_mult: 1
  }
  param {
    lr_mult: 2
    decay_mult: 0
  }
  convolution_param {
    num_output: 32
    pad: 2
    kernel_size: 5
    weight_filler {
      type: "xavier"
      std: 0.03
    }
    bias_filler {
      type: "constant"
      value: 0.2
    }
  }
}
layer {
  name: "inception_3a/relu_5x5"
  type: "ReLU"
  bottom: "inception_3a/5x5"
  top: "inception_3a/5x5"
}
layer {
  name: "inception_3a/pool"
  type: "Pooling"
  bottom: "pool2/3x3_s2"
  top: "inception_3a/pool"
  pooling_param {
    pool: MAX
    kernel_size: 3
    stride: 1
    pad: 1
  }
}
layer {
  name: "inception_3a/pool_proj"
  type: "Convolution"
  bottom: "inception_3a/pool"
  top: "inception_3a/pool_proj"
  param {
    lr_mult: 1
    decay_mult: 1
  }
  param {
    lr_mult: 2
    decay_mult: 0
  }
  convolution_param {
    num_output: 32
    kernel_size: 1
    weight_filler {
      type: "xavier"
      std: 0.1
    }
    bias_filler {
      type: "constant"
      value: 0.2
    }
  }
}
layer {
  name: "inception_3a/relu_pool_proj"
  type: "ReLU"
  bottom: "inception_3a/pool_proj"
  top: "inception_3a/pool_proj"
}
layer {
  name: "inception_3a/output"
  type: "Concat"
  bottom: "inception_3a/1x1"
  bottom: "inception_3a/3x3"
  bottom: "inception_3a/5x5"
  bottom: "inception_3a/pool_proj"
  top: "inception_3a/output"
}
layer {
  name: "inception_3b/1x1"
  type: "Convolution"
  bottom: "inception_3a/output"
  top: "inception_3b/1x1"
  param {
    lr_mult: 1
    decay_mult: 1
  }
  param {
    lr_mult: 2
    decay_mult: 0
  }
  convolution_param {
    num_output: 128
    kernel_size: 1
    weight_filler {
      type: "xavier"
      std: 0.03
    }
    bias_filler {
      type: "constant"
      value: 0.2
    }
  }
}
layer {
  name: "inception_3b/relu_1x1"
  type: "ReLU"
  bottom: "inception_3b/1x1"
  top: "inception_3b/1x1"
}
layer {
  name: "inception_3b/3x3_reduce"
  type: "Convolution"
  bottom: "inception_3a/output"
  top: "inception_3b/3x3_reduce"
  param {
    lr_mult: 1
    decay_mult: 1
  }
  param {
    lr_mult: 2
    decay_mult: 0
  }
  convolution_param {
    num_output: 128
    kernel_size: 1
    weight_filler {
      type: "xavier"
      std: 0.09
    }
    bias_filler {
      type: "constant"
      value: 0.2
    }
  }
}
layer {
  name: "inception_3b/relu_3x3_reduce"
  type: "ReLU"
  bottom: "inception_3b/3x3_reduce"
  top: "inception_3b/3x3_reduce"
}
layer {
  name: "inception_3b/3x3"
  type: "Convolution"
  bottom: "inception_3b/3x3_reduce"
  top: "inception_3b/3x3"
  param {
    lr_mult: 1
    decay_mult: 1
  }
  param {
    lr_mult: 2
    decay_mult: 0
  }
  convolution_param {
    num_output: 192
    pad: 1
    kernel_size: 3
    weight_filler {
      type: "xavier"
      std: 0.03
    }
    bias_filler {
      type: "constant"
      value: 0.2
    }
  }
}
layer {
  name: "inception_3b/relu_3x3"
  type: "ReLU"
  bottom: "inception_3b/3x3"
  top: "inception_3b/3x3"
}
layer {
  name: "inception_3b/5x5_reduce"
  type: "Convolution"
  bottom: "inception_3a/output"
  top: "inception_3b/5x5_reduce"
  param {
    lr_mult: 1
    decay_mult: 1
  }
  param {
    lr_mult: 2
    decay_mult: 0
  }
  convolution_param {
    num_output: 32
    kernel_size: 1
    weight_filler {
      type: "xavier"
      std: 0.2
    }
    bias_filler {
      type: "constant"
      value: 0.2
    }
  }
}
layer {
  name: "inception_3b/relu_5x5_reduce"
  type: "ReLU"
  bottom: "inception_3b/5x5_reduce"
  top: "inception_3b/5x5_reduce"
}
layer {
  name: "inception_3b/5x5"
  type: "Convolution"
  bottom: "inception_3b/5x5_reduce"
  top: "inception_3b/5x5"
  param {
    lr_mult: 1
    decay_mult: 1
  }
  param {
    lr_mult: 2
    decay_mult: 0
  }
  convolution_param {
    num_output: 96
    pad: 2
    kernel_size: 5
    weight_filler {
      type: "xavier"
      std: 0.03
    }
    bias_filler {
      type: "constant"
      value: 0.2
    }
  }
}
layer {
  name: "inception_3b/relu_5x5"
  type: "ReLU"
  bottom: "inception_3b/5x5"
  top: "inception_3b/5x5"
}
layer {
  name: "inception_3b/pool"
  type: "Pooling"
  bottom: "inception_3a/output"
  top: "inception_3b/pool"
  pooling_param {
    pool: MAX
    kernel_size: 3
    stride: 1
    pad: 1
  }
}
layer {
  name: "inception_3b/pool_proj"
  type: "Convolution"
  bottom: "inception_3b/pool"
  top: "inception_3b/pool_proj"
  param {
    lr_mult: 1
    decay_mult: 1
  }
  param {
    lr_mult: 2
    decay_mult: 0
  }
  convolution_param {
    num_output: 64
    kernel_size: 1
    weight_filler {
      type: "xavier"
      std: 0.1
    }
    bias_filler {
      type: "constant"
      value: 0.2
    }
  }
}
layer {
  name: "inception_3b/relu_pool_proj"
  type: "ReLU"
  bottom: "inception_3b/pool_proj"
  top: "inception_3b/pool_proj"
}
layer {
  name: "inception_3b/output"
  type: "Concat"
  bottom: "inception_3b/1x1"
  bottom: "inception_3b/3x3"
  bottom: "inception_3b/5x5"
  bottom: "inception_3b/pool_proj"
  top: "inception_3b/output"
}
layer {
  name: "pool3/3x3_s2"
  type: "Pooling"
  bottom: "inception_3b/output"
  top: "pool3/3x3_s2"
  pooling_param {
    pool: MAX
    kernel_size: 3
    stride: 2
  }
}
layer {
  name: "inception_4a/1x1"
  type: "Convolution"
  bottom: "pool3/3x3_s2"
  top: "inception_4a/1x1"
  param {
    lr_mult: 1
    decay_mult: 1
  }
  param {
    lr_mult: 2
    decay_mult: 0
  }
  convolution_param {
    num_output: 192
    kernel_size: 1
    weight_filler {
      type: "xavier"
      std: 0.03
    }
    bias_filler {
      type: "constant"
      value: 0.2
    }
  }
}
layer {
  name: "inception_4a/relu_1x1"
  type: "ReLU"
  bottom: "inception_4a/1x1"
  top: "inception_4a/1x1"
}
layer {
  name: "inception_4a/3x3_reduce"
  type: "Convolution"
  bottom: "pool3/3x3_s2"
  top: "inception_4a/3x3_reduce"
  param {
    lr_mult: 1
    decay_mult: 1
  }
  param {
    lr_mult: 2
    decay_mult: 0
  }
  convolution_param {
    num_output: 96
    kernel_size: 1
    weight_filler {
      type: "xavier"
      std: 0.09
    }
    bias_filler {
      type: "constant"
      value: 0.2
    }
  }
}
layer {
  name: "inception_4a/relu_3x3_reduce"
  type: "ReLU"
  bottom: "inception_4a/3x3_reduce"
  top: "inception_4a/3x3_reduce"
}
layer {
  name: "inception_4a/3x3"
  type: "Convolution"
  bottom: "inception_4a/3x3_reduce"
  top: "inception_4a/3x3"
  param {
    lr_mult: 1
    decay_mult: 1
  }
  param {
    lr_mult: 2
    decay_mult: 0
  }
  convolution_param {
    num_output: 208
    pad: 1
    kernel_size: 3
    weight_filler {
      type: "xavier"
      std: 0.03
    }
    bias_filler {
      type: "constant"
      value: 0.2
    }
  }
}
layer {
  name: "inception_4a/relu_3x3"
  type: "ReLU"
  bottom: "inception_4a/3x3"
  top: "inception_4a/3x3"
}
layer {
  name: "inception_4a/5x5_reduce"
  type: "Convolution"
  bottom: "pool3/3x3_s2"
  top: "inception_4a/5x5_reduce"
  param {
    lr_mult: 1
    decay_mult: 1
  }
  param {
    lr_mult: 2
    decay_mult: 0
  }
  convolution_param {
    num_output: 16
    kernel_size: 1
    weight_filler {
      type: "xavier"
      std: 0.2
    }
    bias_filler {
      type: "constant"
      value: 0.2
    }
  }
}
layer {
  name: "inception_4a/relu_5x5_reduce"
  type: "ReLU"
  bottom: "inception_4a/5x5_reduce"
  top: "inception_4a/5x5_reduce"
}
layer {
  name: "inception_4a/5x5"
  type: "Convolution"
  bottom: "inception_4a/5x5_reduce"
  top: "inception_4a/5x5"
  param {
    lr_mult: 1
    decay_mult: 1
  }
  param {
    lr_mult: 2
    decay_mult: 0
  }
  convolution_param {
    num_output: 48
    pad: 2
    kernel_size: 5
    weight_filler {
      type: "xavier"
      std: 0.03
    }
    bias_filler {
      type: "constant"
      value: 0.2
    }
  }
}
layer {
  name: "inception_4a/relu_5x5"
  type: "ReLU"
  bottom: "inception_4a/5x5"
  top: "inception_4a/5x5"
}
layer {
  name: "inception_4a/pool"
  type: "Pooling"
  bottom: "pool3/3x3_s2"
  top: "inception_4a/pool"
  pooling_param {
    pool: MAX
    kernel_size: 3
    stride: 1
    pad: 1
  }
}
layer {
  name: "inception_4a/pool_proj"
  type: "Convolution"
  bottom: "inception_4a/pool"
  top: "inception_4a/pool_proj"
  param {
    lr_mult: 1
    decay_mult: 1
  }
  param {
    lr_mult: 2
    decay_mult: 0
  }
  convolution_param {
    num_output: 64
    kernel_size: 1
    weight_filler {
      type: "xavier"
      std: 0.1
    }
    bias_filler {
      type: "constant"
      value: 0.2
    }
  }
}
layer {
  name: "inception_4a/relu_pool_proj"
  type: "ReLU"
  bottom: "inception_4a/pool_proj"
  top: "inception_4a/pool_proj"
}
layer {
  name: "inception_4a/output"
  type: "Concat"
  bottom: "inception_4a/1x1"
  bottom: "inception_4a/3x3"
  bottom: "inception_4a/5x5"
  bottom: "inception_4a/pool_proj"
  top: "inception_4a/output"
}
layer {
  name: "loss1/ave_pool"
  type: "Pooling"
  bottom: "inception_4a/output"
  top: "loss1/ave_pool"
  pooling_param {
    pool: AVE
    kernel_size: 5
    stride: 3
  }
}
layer {
  name: "loss1/conv"
  type: "Convolution"
  bottom: "loss1/ave_pool"
  top: "loss1/conv"
  param {
    lr_mult: 1
    decay_mult: 1
  }
  param {
    lr_mult: 2
    decay_mult: 0
  }
  convolution_param {
    num_output: 128
    kernel_size: 1
    weight_filler {
      type: "xavier"
      std: 0.08
    }
    bias_filler {
      type: "constant"
      value: 0.2
    }
  }
}
layer {
  name: "loss1/relu_conv"
  type: "ReLU"
  bottom: "loss1/conv"
  top: "loss1/conv"
}
layer {
  name: "loss1/fc"
  type: "InnerProduct"
  bottom: "loss1/conv"
  top: "loss1/fc"
  param {
    lr_mult: 1
    decay_mult: 1
  }
  param {
    lr_mult: 2
    decay_mult: 0
  }
  inner_product_param {
    num_output: 1024
    weight_filler {
      type: "xavier"
      std: 0.02
    }
    bias_filler {
      type: "constant"
      value: 0.2
    }
  }
}
layer {
  name: "loss1/relu_fc"
  type: "ReLU"
  bottom: "loss1/fc"
  top: "loss1/fc"
}
layer {
  name: "loss1/drop_fc"
  type: "Dropout"
  bottom: "loss1/fc"
  top: "loss1/fc"
  dropout_param {
    dropout_ratio: 0.7
  }
}
layer {
  name: "loss1/classifier_plantvillage"
  type: "InnerProduct"
  bottom: "loss1/fc"
  top: "loss1/classifier_plantvillage"
  param {
    lr_mult: 1
    decay_mult: 1
  }
  param {
    lr_mult: 2
    decay_mult: 0
  }
  inner_product_param {
    num_output: 38
    weight_filler {
      type: "xavier"
      std: 0.0009765625
    }
    bias_filler {
      type: "constant"
      value: 0
    }
  }
}
layer {
  name: "inception_4b/1x1"
  type: "Convolution"
  bottom: "inception_4a/output"
  top: "inception_4b/1x1"
  param {
    lr_mult: 1
    decay_mult: 1
  }
  param {
    lr_mult: 2
    decay_mult: 0
  }
  convolution_param {
    num_output: 160
    kernel_size: 1
    weight_filler {
      type: "xavier"
      std: 0.03
    }
    bias_filler {
      type: "constant"
      value: 0.2
    }
  }
}
layer {
  name: "inception_4b/relu_1x1"
  type: "ReLU"
  bottom: "inception_4b/1x1"
  top: "inception_4b/1x1"
}
layer {
  name: "inception_4b/3x3_reduce"
  type: "Convolution"
  bottom: "inception_4a/output"
  top: "inception_4b/3x3_reduce"
  param {
    lr_mult: 1
    decay_mult: 1
  }
  param {
    lr_mult: 2
    decay_mult: 0
  }
  convolution_param {
    num_output: 112
    kernel_size: 1
    weight_filler {
      type: "xavier"
      std: 0.09
    }
    bias_filler {
      type: "constant"
      value: 0.2
    }
  }
}
layer {
  name: "inception_4b/relu_3x3_reduce"
  type: "ReLU"
  bottom: "inception_4b/3x3_reduce"
  top: "inception_4b/3x3_reduce"
}
layer {
  name: "inception_4b/3x3"
  type: "Convolution"
  bottom: "inception_4b/3x3_reduce"
  top: "inception_4b/3x3"
  param {
    lr_mult: 1
    decay_mult: 1
  }
  param {
    lr_mult: 2
    decay_mult: 0
  }
  convolution_param {
    num_output: 224
    pad: 1
    kernel_size: 3
    weight_filler {
      type: "xavier"
      std: 0.03
    }
    bias_filler {
      type: "constant"
      value: 0.2
    }
  }
}
layer {
  name: "inception_4b/relu_3x3"
  type: "ReLU"
  bottom: "inception_4b/3x3"
  top: "inception_4b/3x3"
}
layer {
  name: "inception_4b/5x5_reduce"
  type: "Convolution"
  bottom: "inception_4a/output"
  top: "inception_4b/5x5_reduce"
  param {
    lr_mult: 1
    decay_mult: 1
  }
  param {
    lr_mult: 2
    decay_mult: 0
  }
  convolution_param {
    num_output: 24
    kernel_size: 1
    weight_filler {
      type: "xavier"
      std: 0.2
    }
    bias_filler {
      type: "constant"
      value: 0.2
    }
  }
}
layer {
  name: "inception_4b/relu_5x5_reduce"
  type: "ReLU"
  bottom: "inception_4b/5x5_reduce"
  top: "inception_4b/5x5_reduce"
}
layer {
  name: "inception_4b/5x5"
  type: "Convolution"
  bottom: "inception_4b/5x5_reduce"
  top: "inception_4b/5x5"
  param {
    lr_mult: 1
    decay_mult: 1
  }
  param {
    lr_mult: 2
    decay_mult: 0
  }
  convolution_param {
    num_output: 64
    pad: 2
    kernel_size: 5
    weight_filler {
      type: "xavier"
      std: 0.03
    }
    bias_filler {
      type: "constant"
      value: 0.2
    }
  }
}
layer {
  name: "inception_4b/relu_5x5"
  type: "ReLU"
  bottom: "inception_4b/5x5"
  top: "inception_4b/5x5"
}
layer {
  name: "inception_4b/pool"
  type: "Pooling"
  bottom: "inception_4a/output"
  top: "inception_4b/pool"
  pooling_param {
    pool: MAX
    kernel_size: 3
    stride: 1
    pad: 1
  }
}
layer {
  name: "inception_4b/pool_proj"
  type: "Convolution"
  bottom: "inception_4b/pool"
  top: "inception_4b/pool_proj"
  param {
    lr_mult: 1
    decay_mult: 1
  }
  param {
    lr_mult: 2
    decay_mult: 0
  }
  convolution_param {
    num_output: 64
    kernel_size: 1
    weight_filler {
      type: "xavier"
      std: 0.1
    }
    bias_filler {
      type: "constant"
      value: 0.2
    }
  }
}
layer {
  name: "inception_4b/relu_pool_proj"
  type: "ReLU"
  bottom: "inception_4b/pool_proj"
  top: "inception_4b/pool_proj"
}
layer {
  name: "inception_4b/output"
  type: "Concat"
  bottom: "inception_4b/1x1"
  bottom: "inception_4b/3x3"
  bottom: "inception_4b/5x5"
  bottom: "inception_4b/pool_proj"
  top: "inception_4b/output"
}
layer {
  name: "inception_4c/1x1"
  type: "Convolution"
  bottom: "inception_4b/output"
  top: "inception_4c/1x1"
  param {
    lr_mult: 1
    decay_mult: 1
  }
  param {
    lr_mult: 2
    decay_mult: 0
  }
  convolution_param {
    num_output: 128
    kernel_size: 1
    weight_filler {
      type: "xavier"
      std: 0.03
    }
    bias_filler {
      type: "constant"
      value: 0.2
    }
  }
}
layer {
  name: "inception_4c/relu_1x1"
  type: "ReLU"
  bottom: "inception_4c/1x1"
  top: "inception_4c/1x1"
}
layer {
  name: "inception_4c/3x3_reduce"
  type: "Convolution"
  bottom: "inception_4b/output"
  top: "inception_4c/3x3_reduce"
  param {
    lr_mult: 1
    decay_mult: 1
  }
  param {
    lr_mult: 2
    decay_mult: 0
  }
  convolution_param {
    num_output: 128
    kernel_size: 1
    weight_filler {
      type: "xavier"
      std: 0.09
    }
    bias_filler {
      type: "constant"
      value: 0.2
    }
  }
}
layer {
  name: "inception_4c/relu_3x3_reduce"
  type: "ReLU"
  bottom: "inception_4c/3x3_reduce"
  top: "inception_4c/3x3_reduce"
}
layer {
  name: "inception_4c/3x3"
  type: "Convolution"
  bottom: "inception_4c/3x3_reduce"
  top: "inception_4c/3x3"
  param {
    lr_mult: 1
    decay_mult: 1
  }
  param {
    lr_mult: 2
    decay_mult: 0
  }
  convolution_param {
    num_output: 256
    pad: 1
    kernel_size: 3
    weight_filler {
      type: "xavier"
      std: 0.03
    }
    bias_filler {
      type: "constant"
      value: 0.2
    }
  }
}
layer {
  name: "inception_4c/relu_3x3"
  type: "ReLU"
  bottom: "inception_4c/3x3"
  top: "inception_4c/3x3"
}
layer {
  name: "inception_4c/5x5_reduce"
  type: "Convolution"
  bottom: "inception_4b/output"
  top: "inception_4c/5x5_reduce"
  param {
    lr_mult: 1
    decay_mult: 1
  }
  param {
    lr_mult: 2
    decay_mult: 0
  }
  convolution_param {
    num_output: 24
    kernel_size: 1
    weight_filler {
      type: "xavier"
      std: 0.2
    }
    bias_filler {
      type: "constant"
      value: 0.2
    }
  }
}
layer {
  name: "inception_4c/relu_5x5_reduce"
  type: "ReLU"
  bottom: "inception_4c/5x5_reduce"
  top: "inception_4c/5x5_reduce"
}
layer {
  name: "inception_4c/5x5"
  type: "Convolution"
  bottom: "inception_4c/5x5_reduce"
  top: "inception_4c/5x5"
  param {
    lr_mult: 1
    decay_mult: 1
  }
  param {
    lr_mult: 2
    decay_mult: 0
  }
  convolution_param {
    num_output: 64
    pad: 2
    kernel_size: 5
    weight_filler {
      type: "xavier"
      std: 0.03
    }
    bias_filler {
      type: "constant"
      value: 0.2
    }
  }
}
layer {
  name: "inception_4c/relu_5x5"
  type: "ReLU"
  bottom: "inception_4c/5x5"
  top: "inception_4c/5x5"
}
layer {
  name: "inception_4c/pool"
  type: "Pooling"
  bottom: "inception_4b/output"
  top: "inception_4c/pool"
  pooling_param {
    pool: MAX
    kernel_size: 3
    stride: 1
    pad: 1
  }
}
layer {
  name: "inception_4c/pool_proj"
  type: "Convolution"
  bottom: "inception_4c/pool"
  top: "inception_4c/pool_proj"
  param {
    lr_mult: 1
    decay_mult: 1
  }
  param {
    lr_mult: 2
    decay_mult: 0
  }
  convolution_param {
    num_output: 64
    kernel_size: 1
    weight_filler {
      type: "xavier"
      std: 0.1
    }
    bias_filler {
      type: "constant"
      value: 0.2
    }
  }
}
layer {
  name: "inception_4c/relu_pool_proj"
  type: "ReLU"
  bottom: "inception_4c/pool_proj"
  top: "inception_4c/pool_proj"
}
layer {
  name: "inception_4c/output"
  type: "Concat"
  bottom: "inception_4c/1x1"
  bottom: "inception_4c/3x3"
  bottom: "inception_4c/5x5"
  bottom: "inception_4c/pool_proj"
  top: "inception_4c/output"
}
layer {
  name: "inception_4d/1x1"
  type: "Convolution"
  bottom: "inception_4c/output"
  top: "inception_4d/1x1"
  param {
    lr_mult: 1
    decay_mult: 1
  }
  param {
    lr_mult: 2
    decay_mult: 0
  }
  convolution_param {
    num_output: 112
    kernel_size: 1
    weight_filler {
      type: "xavier"
      std: 0.03
    }
    bias_filler {
      type: "constant"
      value: 0.2
    }
  }
}
layer {
  name: "inception_4d/relu_1x1"
  type: "ReLU"
  bottom: "inception_4d/1x1"
  top: "inception_4d/1x1"
}
layer {
  name: "inception_4d/3x3_reduce"
  type: "Convolution"
  bottom: "inception_4c/output"
  top: "inception_4d/3x3_reduce"
  param {
    lr_mult: 1
    decay_mult: 1
  }
  param {
    lr_mult: 2
    decay_mult: 0
  }
  convolution_param {
    num_output: 144
    kernel_size: 1
    weight_filler {
      type: "xavier"
      std: 0.09
    }
    bias_filler {
      type: "constant"
      value: 0.2
    }
  }
}
layer {
  name: "inception_4d/relu_3x3_reduce"
  type: "ReLU"
  bottom: "inception_4d/3x3_reduce"
  top: "inception_4d/3x3_reduce"
}
layer {
  name: "inception_4d/3x3"
  type: "Convolution"
  bottom: "inception_4d/3x3_reduce"
  top: "inception_4d/3x3"
  param {
    lr_mult: 1
    decay_mult: 1
  }
  param {
    lr_mult: 2
    decay_mult: 0
  }
  convolution_param {
    num_output: 288
    pad: 1
    kernel_size: 3
    weight_filler {
      type: "xavier"
      std: 0.03
    }
    bias_filler {
      type: "constant"
      value: 0.2
    }
  }
}
layer {
  name: "inception_4d/relu_3x3"
  type: "ReLU"
  bottom: "inception_4d/3x3"
  top: "inception_4d/3x3"
}
layer {
  name: "inception_4d/5x5_reduce"
  type: "Convolution"
  bottom: "inception_4c/output"
  top: "inception_4d/5x5_reduce"
  param {
    lr_mult: 1
    decay_mult: 1
  }
  param {
    lr_mult: 2
    decay_mult: 0
  }
  convolution_param {
    num_output: 32
    kernel_size: 1
    weight_filler {
      type: "xavier"
      std: 0.2
    }
    bias_filler {
      type: "constant"
      value: 0.2
    }
  }
}
layer {
  name: "inception_4d/relu_5x5_reduce"
  type: "ReLU"
  bottom: "inception_4d/5x5_reduce"
  top: "inception_4d/5x5_reduce"
}
layer {
  name: "inception_4d/5x5"
  type: "Convolution"
  bottom: "inception_4d/5x5_reduce"
  top: "inception_4d/5x5"
  param {
    lr_mult: 1
    decay_mult: 1
  }
  param {
    lr_mult: 2
    decay_mult: 0
  }
  convolution_param {
    num_output: 64
    pad: 2
    kernel_size: 5
    weight_filler {
      type: "xavier"
      std: 0.03
    }
    bias_filler {
      type: "constant"
      value: 0.2
    }
  }
}
layer {
  name: "inception_4d/relu_5x5"
  type: "ReLU"
  bottom: "inception_4d/5x5"
  top: "inception_4d/5x5"
}
layer {
  name: "inception_4d/pool"
  type: "Pooling"
  bottom: "inception_4c/output"
  top: "inception_4d/pool"
  pooling_param {
    pool: MAX
    kernel_size: 3
    stride: 1
    pad: 1
  }
}
layer {
  name: "inception_4d/pool_proj"
  type: "Convolution"
  bottom: "inception_4d/pool"
  top: "inception_4d/pool_proj"
  param {
    lr_mult: 1
    decay_mult: 1
  }
  param {
    lr_mult: 2
    decay_mult: 0
  }
  convolution_param {
    num_output: 64
    kernel_size: 1
    weight_filler {
      type: "xavier"
      std: 0.1
    }
    bias_filler {
      type: "constant"
      value: 0.2
    }
  }
}
layer {
  name: "inception_4d/relu_pool_proj"
  type: "ReLU"
  bottom: "inception_4d/pool_proj"
  top: "inception_4d/pool_proj"
}
layer {
  name: "inception_4d/output"
  type: "Concat"
  bottom: "inception_4d/1x1"
  bottom: "inception_4d/3x3"
  bottom: "inception_4d/5x5"
  bottom: "inception_4d/pool_proj"
  top: "inception_4d/output"
}
layer {
  name: "loss2/ave_pool"
  type: "Pooling"
  bottom: "inception_4d/output"
  top: "loss2/ave_pool"
  pooling_param {
    pool: AVE
    kernel_size: 5
    stride: 3
  }
}
layer {
  name: "loss2/conv"
  type: "Convolution"
  bottom: "loss2/ave_pool"
  top: "loss2/conv"
  param {
    lr_mult: 1
    decay_mult: 1
  }
  param {
    lr_mult: 2
    decay_mult: 0
  }
  convolution_param {
    num_output: 128
    kernel_size: 1
    weight_filler {
      type: "xavier"
      std: 0.08
    }
    bias_filler {
      type: "constant"
      value: 0.2
    }
  }
}
layer {
  name: "loss2/relu_conv"
  type: "ReLU"
  bottom: "loss2/conv"
  top: "loss2/conv"
}
layer {
  name: "loss2/fc"
  type: "InnerProduct"
  bottom: "loss2/conv"
  top: "loss2/fc"
  param {
    lr_mult: 1
    decay_mult: 1
  }
  param {
    lr_mult: 2
    decay_mult: 0
  }
  inner_product_param {
    num_output: 1024
    weight_filler {
      type: "xavier"
      std: 0.02
    }
    bias_filler {
      type: "constant"
      value: 0.2
    }
  }
}
layer {
  name: "loss2/relu_fc"
  type: "ReLU"
  bottom: "loss2/fc"
  top: "loss2/fc"
}
layer {
  name: "loss2/drop_fc"
  type: "Dropout"
  bottom: "loss2/fc"
  top: "loss2/fc"
  dropout_param {
    dropout_ratio: 0.7
  }
}
layer {
  name: "loss2/classifier_plantvillage"
  type: "InnerProduct"
  bottom: "loss2/fc"
  top: "loss2/classifier_plantvillage"
  param {
    lr_mult: 1
    decay_mult: 1
  }
  param {
    lr_mult: 2
    decay_mult: 0
  }
  inner_product_param {
    num_output: 38
    weight_filler {
      type: "xavier"
      std: 0.0009765625
    }
    bias_filler {
      type: "constant"
      value: 0
    }
  }
}
layer {
  name: "inception_4e/1x1"
  type: "Convolution"
  bottom: "inception_4d/output"
  top: "inception_4e/1x1"
  param {
    lr_mult: 1
    decay_mult: 1
  }
  param {
    lr_mult: 2
    decay_mult: 0
  }
  convolution_param {
    num_output: 256
    kernel_size: 1
    weight_filler {
      type: "xavier"
      std: 0.03
    }
    bias_filler {
      type: "constant"
      value: 0.2
    }
  }
}
layer {
  name: "inception_4e/relu_1x1"
  type: "ReLU"
  bottom: "inception_4e/1x1"
  top: "inception_4e/1x1"
}
layer {
  name: "inception_4e/3x3_reduce"
  type: "Convolution"
  bottom: "inception_4d/output"
  top: "inception_4e/3x3_reduce"
  param {
    lr_mult: 1
    decay_mult: 1
  }
  param {
    lr_mult: 2
    decay_mult: 0
  }
  convolution_param {
    num_output: 160
    kernel_size: 1
    weight_filler {
      type: "xavier"
      std: 0.09
    }
    bias_filler {
      type: "constant"
      value: 0.2
    }
  }
}
layer {
  name: "inception_4e/relu_3x3_reduce"
  type: "ReLU"
  bottom: "inception_4e/3x3_reduce"
  top: "inception_4e/3x3_reduce"
}
layer {
  name: "inception_4e/3x3"
  type: "Convolution"
  bottom: "inception_4e/3x3_reduce"
  top: "inception_4e/3x3"
  param {
    lr_mult: 1
    decay_mult: 1
  }
  param {
    lr_mult: 2
    decay_mult: 0
  }
  convolution_param {
    num_output: 320
    pad: 1
    kernel_size: 3
    weight_filler {
      type: "xavier"
      std: 0.03
    }
    bias_filler {
      type: "constant"
      value: 0.2
    }
  }
}
layer {
  name: "inception_4e/relu_3x3"
  type: "ReLU"
  bottom: "inception_4e/3x3"
  top: "inception_4e/3x3"
}
layer {
  name: "inception_4e/5x5_reduce"
  type: "Convolution"
  bottom: "inception_4d/output"
  top: "inception_4e/5x5_reduce"
  param {
    lr_mult: 1
    decay_mult: 1
  }
  param {
    lr_mult: 2
    decay_mult: 0
  }
  convolution_param {
    num_output: 32
    kernel_size: 1
    weight_filler {
      type: "xavier"
      std: 0.2
    }
    bias_filler {
      type: "constant"
      value: 0.2
    }
  }
}
layer {
  name: "inception_4e/relu_5x5_reduce"
  type: "ReLU"
  bottom: "inception_4e/5x5_reduce"
  top: "inception_4e/5x5_reduce"
}
layer {
  name: "inception_4e/5x5"
  type: "Convolution"
  bottom: "inception_4e/5x5_reduce"
  top: "inception_4e/5x5"
  p
I0403 15:27:40.630427 31918 layer_factory.hpp:77] Creating layer data
I0403 15:27:40.631050 31918 net.cpp:91] Creating Layer data
I0403 15:27:40.631085 31918 net.cpp:399] data -> data
I0403 15:27:40.631139 31918 net.cpp:399] data -> label
I0403 15:27:40.631177 31918 data_transformer.cpp:25] Loading mean file from: /home/mohanty/data/final_dataset/lmdb/color-20-80/mean.binaryproto
I0403 15:27:40.634210 31920 db_lmdb.cpp:38] Opened lmdb /home/mohanty/data/final_dataset/lmdb/color-20-80/test_db
I0403 15:27:40.644520 31918 data_layer.cpp:41] output data size: 24,3,224,224
I0403 15:27:40.670712 31918 net.cpp:141] Setting up data
I0403 15:27:40.670794 31918 net.cpp:148] Top shape: 24 3 224 224 (3612672)
I0403 15:27:40.670816 31918 net.cpp:148] Top shape: 24 (24)
I0403 15:27:40.670832 31918 net.cpp:156] Memory required for data: 14450784
I0403 15:27:40.670860 31918 layer_factory.hpp:77] Creating layer label_data_1_split
I0403 15:27:40.670886 31918 net.cpp:91] Creating Layer label_data_1_split
I0403 15:27:40.670904 31918 net.cpp:425] label_data_1_split <- label
I0403 15:27:40.670935 31918 net.cpp:399] label_data_1_split -> label_data_1_split_0
I0403 15:27:40.670964 31918 net.cpp:399] label_data_1_split -> label_data_1_split_1
I0403 15:27:40.670985 31918 net.cpp:399] label_data_1_split -> label_data_1_split_2
I0403 15:27:40.671008 31918 net.cpp:399] label_data_1_split -> label_data_1_split_3
I0403 15:27:40.671028 31918 net.cpp:399] label_data_1_split -> label_data_1_split_4
I0403 15:27:40.671049 31918 net.cpp:399] label_data_1_split -> label_data_1_split_5
I0403 15:27:40.671068 31918 net.cpp:399] label_data_1_split -> label_data_1_split_6
I0403 15:27:40.671089 31918 net.cpp:399] label_data_1_split -> label_data_1_split_7
I0403 15:27:40.671110 31918 net.cpp:399] label_data_1_split -> label_data_1_split_8
I0403 15:27:40.671131 31918 net.cpp:399] label_data_1_split -> label_data_1_split_9
I0403 15:27:40.671244 31918 net.cpp:141] Setting up label_data_1_split
I0403 15:27:40.671268 31918 net.cpp:148] Top shape: 24 (24)
I0403 15:27:40.671285 31918 net.cpp:148] Top shape: 24 (24)
I0403 15:27:40.671303 31918 net.cpp:148] Top shape: 24 (24)
I0403 15:27:40.671319 31918 net.cpp:148] Top shape: 24 (24)
I0403 15:27:40.671334 31918 net.cpp:148] Top shape: 24 (24)
I0403 15:27:40.671355 31918 net.cpp:148] Top shape: 24 (24)
I0403 15:27:40.671372 31918 net.cpp:148] Top shape: 24 (24)
I0403 15:27:40.671388 31918 net.cpp:148] Top shape: 24 (24)
I0403 15:27:40.671404 31918 net.cpp:148] Top shape: 24 (24)
I0403 15:27:40.671422 31918 net.cpp:148] Top shape: 24 (24)
I0403 15:27:40.671468 31918 net.cpp:156] Memory required for data: 14451744
I0403 15:27:40.671484 31918 layer_factory.hpp:77] Creating layer conv1/7x7_s2
I0403 15:27:40.671515 31918 net.cpp:91] Creating Layer conv1/7x7_s2
I0403 15:27:40.671535 31918 net.cpp:425] conv1/7x7_s2 <- data
I0403 15:27:40.671556 31918 net.cpp:399] conv1/7x7_s2 -> conv1/7x7_s2
I0403 15:27:40.815906 31918 net.cpp:141] Setting up conv1/7x7_s2
I0403 15:27:40.815984 31918 net.cpp:148] Top shape: 24 64 112 112 (19267584)
I0403 15:27:40.816002 31918 net.cpp:156] Memory required for data: 91522080
I0403 15:27:40.816035 31918 layer_factory.hpp:77] Creating layer conv1/relu_7x7
I0403 15:27:40.816063 31918 net.cpp:91] Creating Layer conv1/relu_7x7
I0403 15:27:40.816083 31918 net.cpp:425] conv1/relu_7x7 <- conv1/7x7_s2
I0403 15:27:40.816103 31918 net.cpp:386] conv1/relu_7x7 -> conv1/7x7_s2 (in-place)
I0403 15:27:40.816392 31918 net.cpp:141] Setting up conv1/relu_7x7
I0403 15:27:40.816421 31918 net.cpp:148] Top shape: 24 64 112 112 (19267584)
I0403 15:27:40.816438 31918 net.cpp:156] Memory required for data: 168592416
I0403 15:27:40.816455 31918 layer_factory.hpp:77] Creating layer pool1/3x3_s2
I0403 15:27:40.816483 31918 net.cpp:91] Creating Layer pool1/3x3_s2
I0403 15:27:40.816501 31918 net.cpp:425] pool1/3x3_s2 <- conv1/7x7_s2
I0403 15:27:40.816522 31918 net.cpp:399] pool1/3x3_s2 -> pool1/3x3_s2
I0403 15:27:40.816612 31918 net.cpp:141] Setting up pool1/3x3_s2
I0403 15:27:40.816637 31918 net.cpp:148] Top shape: 24 64 56 56 (4816896)
I0403 15:27:40.816653 31918 net.cpp:156] Memory required for data: 187860000
I0403 15:27:40.816668 31918 layer_factory.hpp:77] Creating layer pool1/norm1
I0403 15:27:40.816694 31918 net.cpp:91] Creating Layer pool1/norm1
I0403 15:27:40.816712 31918 net.cpp:425] pool1/norm1 <- pool1/3x3_s2
I0403 15:27:40.816732 31918 net.cpp:399] pool1/norm1 -> pool1/norm1
I0403 15:27:40.817020 31918 net.cpp:141] Setting up pool1/norm1
I0403 15:27:40.817049 31918 net.cpp:148] Top shape: 24 64 56 56 (4816896)
I0403 15:27:40.817065 31918 net.cpp:156] Memory required for data: 207127584
I0403 15:27:40.817081 31918 layer_factory.hpp:77] Creating layer conv2/3x3_reduce
I0403 15:27:40.817108 31918 net.cpp:91] Creating Layer conv2/3x3_reduce
I0403 15:27:40.817126 31918 net.cpp:425] conv2/3x3_reduce <- pool1/norm1
I0403 15:27:40.817147 31918 net.cpp:399] conv2/3x3_reduce -> conv2/3x3_reduce
I0403 15:27:40.818527 31918 net.cpp:141] Setting up conv2/3x3_reduce
I0403 15:27:40.818558 31918 net.cpp:148] Top shape: 24 64 56 56 (4816896)
I0403 15:27:40.818577 31918 net.cpp:156] Memory required for data: 226395168
I0403 15:27:40.818599 31918 layer_factory.hpp:77] Creating layer conv2/relu_3x3_reduce
I0403 15:27:40.818619 31918 net.cpp:91] Creating Layer conv2/relu_3x3_reduce
I0403 15:27:40.818637 31918 net.cpp:425] conv2/relu_3x3_reduce <- conv2/3x3_reduce
I0403 15:27:40.818655 31918 net.cpp:386] conv2/relu_3x3_reduce -> conv2/3x3_reduce (in-place)
I0403 15:27:40.818909 31918 net.cpp:141] Setting up conv2/relu_3x3_reduce
I0403 15:27:40.818936 31918 net.cpp:148] Top shape: 24 64 56 56 (4816896)
I0403 15:27:40.818953 31918 net.cpp:156] Memory required for data: 245662752
I0403 15:27:40.818969 31918 layer_factory.hpp:77] Creating layer conv2/3x3
I0403 15:27:40.818991 31918 net.cpp:91] Creating Layer conv2/3x3
I0403 15:27:40.819011 31918 net.cpp:425] conv2/3x3 <- conv2/3x3_reduce
I0403 15:27:40.819031 31918 net.cpp:399] conv2/3x3 -> conv2/3x3
I0403 15:27:40.821308 31918 net.cpp:141] Setting up conv2/3x3
I0403 15:27:40.821346 31918 net.cpp:148] Top shape: 24 192 56 56 (14450688)
I0403 15:27:40.821365 31918 net.cpp:156] Memory required for data: 303465504
I0403 15:27:40.821388 31918 layer_factory.hpp:77] Creating layer conv2/relu_3x3
I0403 15:27:40.821408 31918 net.cpp:91] Creating Layer conv2/relu_3x3
I0403 15:27:40.821425 31918 net.cpp:425] conv2/relu_3x3 <- conv2/3x3
I0403 15:27:40.821446 31918 net.cpp:386] conv2/relu_3x3 -> conv2/3x3 (in-place)
I0403 15:27:40.821627 31918 net.cpp:141] Setting up conv2/relu_3x3
I0403 15:27:40.821655 31918 net.cpp:148] Top shape: 24 192 56 56 (14450688)
I0403 15:27:40.821702 31918 net.cpp:156] Memory required for data: 361268256
I0403 15:27:40.821720 31918 layer_factory.hpp:77] Creating layer conv2/norm2
I0403 15:27:40.821743 31918 net.cpp:91] Creating Layer conv2/norm2
I0403 15:27:40.821761 31918 net.cpp:425] conv2/norm2 <- conv2/3x3
I0403 15:27:40.821780 31918 net.cpp:399] conv2/norm2 -> conv2/norm2
I0403 15:27:40.822088 31918 net.cpp:141] Setting up conv2/norm2
I0403 15:27:40.822116 31918 net.cpp:148] Top shape: 24 192 56 56 (14450688)
I0403 15:27:40.822134 31918 net.cpp:156] Memory required for data: 419071008
I0403 15:27:40.822149 31918 layer_factory.hpp:77] Creating layer pool2/3x3_s2
I0403 15:27:40.822173 31918 net.cpp:91] Creating Layer pool2/3x3_s2
I0403 15:27:40.822192 31918 net.cpp:425] pool2/3x3_s2 <- conv2/norm2
I0403 15:27:40.822211 31918 net.cpp:399] pool2/3x3_s2 -> pool2/3x3_s2
I0403 15:27:40.822265 31918 net.cpp:141] Setting up pool2/3x3_s2
I0403 15:27:40.822289 31918 net.cpp:148] Top shape: 24 192 28 28 (3612672)
I0403 15:27:40.822306 31918 net.cpp:156] Memory required for data: 433521696
I0403 15:27:40.822327 31918 layer_factory.hpp:77] Creating layer pool2/3x3_s2_pool2/3x3_s2_0_split
I0403 15:27:40.822347 31918 net.cpp:91] Creating Layer pool2/3x3_s2_pool2/3x3_s2_0_split
I0403 15:27:40.822365 31918 net.cpp:425] pool2/3x3_s2_pool2/3x3_s2_0_split <- pool2/3x3_s2
I0403 15:27:40.822384 31918 net.cpp:399] pool2/3x3_s2_pool2/3x3_s2_0_split -> pool2/3x3_s2_pool2/3x3_s2_0_split_0
I0403 15:27:40.822407 31918 net.cpp:399] pool2/3x3_s2_pool2/3x3_s2_0_split -> pool2/3x3_s2_pool2/3x3_s2_0_split_1
I0403 15:27:40.822427 31918 net.cpp:399] pool2/3x3_s2_pool2/3x3_s2_0_split -> pool2/3x3_s2_pool2/3x3_s2_0_split_2
I0403 15:27:40.822448 31918 net.cpp:399] pool2/3x3_s2_pool2/3x3_s2_0_split -> pool2/3x3_s2_pool2/3x3_s2_0_split_3
I0403 15:27:40.822520 31918 net.cpp:141] Setting up pool2/3x3_s2_pool2/3x3_s2_0_split
I0403 15:27:40.822548 31918 net.cpp:148] Top shape: 24 192 28 28 (3612672)
I0403 15:27:40.822567 31918 net.cpp:148] Top shape: 24 192 28 28 (3612672)
I0403 15:27:40.822584 31918 net.cpp:148] Top shape: 24 192 28 28 (3612672)
I0403 15:27:40.822602 31918 net.cpp:148] Top shape: 24 192 28 28 (3612672)
I0403 15:27:40.822618 31918 net.cpp:156] Memory required for data: 491324448
I0403 15:27:40.822633 31918 layer_factory.hpp:77] Creating layer inception_3a/1x1
I0403 15:27:40.822656 31918 net.cpp:91] Creating Layer inception_3a/1x1
I0403 15:27:40.822675 31918 net.cpp:425] inception_3a/1x1 <- pool2/3x3_s2_pool2/3x3_s2_0_split_0
I0403 15:27:40.822697 31918 net.cpp:399] inception_3a/1x1 -> inception_3a/1x1
I0403 15:27:40.824246 31918 net.cpp:141] Setting up inception_3a/1x1
I0403 15:27:40.824280 31918 net.cpp:148] Top shape: 24 64 28 28 (1204224)
I0403 15:27:40.824306 31918 net.cpp:156] Memory required for data: 496141344
I0403 15:27:40.824340 31918 layer_factory.hpp:77] Creating layer inception_3a/relu_1x1
I0403 15:27:40.824362 31918 net.cpp:91] Creating Layer inception_3a/relu_1x1
I0403 15:27:40.824379 31918 net.cpp:425] inception_3a/relu_1x1 <- inception_3a/1x1
I0403 15:27:40.824399 31918 net.cpp:386] inception_3a/relu_1x1 -> inception_3a/1x1 (in-place)
I0403 15:27:40.824580 31918 net.cpp:141] Setting up inception_3a/relu_1x1
I0403 15:27:40.824609 31918 net.cpp:148] Top shape: 24 64 28 28 (1204224)
I0403 15:27:40.824626 31918 net.cpp:156] Memory required for data: 500958240
I0403 15:27:40.824642 31918 layer_factory.hpp:77] Creating layer inception_3a/3x3_reduce
I0403 15:27:40.824666 31918 net.cpp:91] Creating Layer inception_3a/3x3_reduce
I0403 15:27:40.824687 31918 net.cpp:425] inception_3a/3x3_reduce <- pool2/3x3_s2_pool2/3x3_s2_0_split_1
I0403 15:27:40.824708 31918 net.cpp:399] inception_3a/3x3_reduce -> inception_3a/3x3_reduce
I0403 15:27:40.826448 31918 net.cpp:141] Setting up inception_3a/3x3_reduce
I0403 15:27:40.826479 31918 net.cpp:148] Top shape: 24 96 28 28 (1806336)
I0403 15:27:40.826496 31918 net.cpp:156] Memory required for data: 508183584
I0403 15:27:40.826522 31918 layer_factory.hpp:77] Creating layer inception_3a/relu_3x3_reduce
I0403 15:27:40.826560 31918 net.cpp:91] Creating Layer inception_3a/relu_3x3_reduce
I0403 15:27:40.826578 31918 net.cpp:425] inception_3a/relu_3x3_reduce <- inception_3a/3x3_reduce
I0403 15:27:40.826601 31918 net.cpp:386] inception_3a/relu_3x3_reduce -> inception_3a/3x3_reduce (in-place)
I0403 15:27:40.826783 31918 net.cpp:141] Setting up inception_3a/relu_3x3_reduce
I0403 15:27:40.826810 31918 net.cpp:148] Top shape: 24 96 28 28 (1806336)
I0403 15:27:40.826825 31918 net.cpp:156] Memory required for data: 515408928
I0403 15:27:40.826841 31918 layer_factory.hpp:77] Creating layer inception_3a/3x3
I0403 15:27:40.826864 31918 net.cpp:91] Creating Layer inception_3a/3x3
I0403 15:27:40.826884 31918 net.cpp:425] inception_3a/3x3 <- inception_3a/3x3_reduce
I0403 15:27:40.826905 31918 net.cpp:399] inception_3a/3x3 -> inception_3a/3x3
I0403 15:27:40.828686 31918 net.cpp:141] Setting up inception_3a/3x3
I0403 15:27:40.828721 31918 net.cpp:148] Top shape: 24 128 28 28 (2408448)
I0403 15:27:40.828742 31918 net.cpp:156] Memory required for data: 525042720
I0403 15:27:40.828763 31918 layer_factory.hpp:77] Creating layer inception_3a/relu_3x3
I0403 15:27:40.828783 31918 net.cpp:91] Creating Layer inception_3a/relu_3x3
I0403 15:27:40.828799 31918 net.cpp:425] inception_3a/relu_3x3 <- inception_3a/3x3
I0403 15:27:40.828819 31918 net.cpp:386] inception_3a/relu_3x3 -> inception_3a/3x3 (in-place)
I0403 15:27:40.829149 31918 net.cpp:141] Setting up inception_3a/relu_3x3
I0403 15:27:40.829180 31918 net.cpp:148] Top shape: 24 128 28 28 (2408448)
I0403 15:27:40.829196 31918 net.cpp:156] Memory required for data: 534676512
I0403 15:27:40.829222 31918 layer_factory.hpp:77] Creating layer inception_3a/5x5_reduce
I0403 15:27:40.829246 31918 net.cpp:91] Creating Layer inception_3a/5x5_reduce
I0403 15:27:40.829267 31918 net.cpp:425] inception_3a/5x5_reduce <- pool2/3x3_s2_pool2/3x3_s2_0_split_2
I0403 15:27:40.829288 31918 net.cpp:399] inception_3a/5x5_reduce -> inception_3a/5x5_reduce
I0403 15:27:40.830451 31918 net.cpp:141] Setting up inception_3a/5x5_reduce
I0403 15:27:40.830482 31918 net.cpp:148] Top shape: 24 16 28 28 (301056)
I0403 15:27:40.830499 31918 net.cpp:156] Memory required for data: 535880736
I0403 15:27:40.830520 31918 layer_factory.hpp:77] Creating layer inception_3a/relu_5x5_reduce
I0403 15:27:40.830538 31918 net.cpp:91] Creating Layer inception_3a/relu_5x5_reduce
I0403 15:27:40.830556 31918 net.cpp:425] inception_3a/relu_5x5_reduce <- inception_3a/5x5_reduce
I0403 15:27:40.830577 31918 net.cpp:386] inception_3a/relu_5x5_reduce -> inception_3a/5x5_reduce (in-place)
I0403 15:27:40.830891 31918 net.cpp:141] Setting up inception_3a/relu_5x5_reduce
I0403 15:27:40.830919 31918 net.cpp:148] Top shape: 24 16 28 28 (301056)
I0403 15:27:40.830935 31918 net.cpp:156] Memory required for data: 537084960
I0403 15:27:40.830951 31918 layer_factory.hpp:77] Creating layer inception_3a/5x5
I0403 15:27:40.830976 31918 net.cpp:91] Creating Layer inception_3a/5x5
I0403 15:27:40.830993 31918 net.cpp:425] inception_3a/5x5 <- inception_3a/5x5_reduce
I0403 15:27:40.831015 31918 net.cpp:399] inception_3a/5x5 -> inception_3a/5x5
I0403 15:27:40.832034 31918 net.cpp:141] Setting up inception_3a/5x5
I0403 15:27:40.832067 31918 net.cpp:148] Top shape: 24 32 28 28 (602112)
I0403 15:27:40.832084 31918 net.cpp:156] Memory required for data: 539493408
I0403 15:27:40.832105 31918 layer_factory.hpp:77] Creating layer inception_3a/relu_5x5
I0403 15:27:40.832123 31918 net.cpp:91] Creating Layer inception_3a/relu_5x5
I0403 15:27:40.832140 31918 net.cpp:425] inception_3a/relu_5x5 <- inception_3a/5x5
I0403 15:27:40.832159 31918 net.cpp:386] inception_3a/relu_5x5 -> inception_3a/5x5 (in-place)
I0403 15:27:40.832358 31918 net.cpp:141] Setting up inception_3a/relu_5x5
I0403 15:27:40.832386 31918 net.cpp:148] Top shape: 24 32 28 28 (602112)
I0403 15:27:40.832403 31918 net.cpp:156] Memory required for data: 541901856
I0403 15:27:40.832419 31918 layer_factory.hpp:77] Creating layer inception_3a/pool
I0403 15:27:40.832440 31918 net.cpp:91] Creating Layer inception_3a/pool
I0403 15:27:40.832458 31918 net.cpp:425] inception_3a/pool <- pool2/3x3_s2_pool2/3x3_s2_0_split_3
I0403 15:27:40.832495 31918 net.cpp:399] inception_3a/pool -> inception_3a/pool
I0403 15:27:40.832557 31918 net.cpp:141] Setting up inception_3a/pool
I0403 15:27:40.832586 31918 net.cpp:148] Top shape: 24 192 28 28 (3612672)
I0403 15:27:40.832602 31918 net.cpp:156] Memory required for data: 556352544
I0403 15:27:40.832619 31918 layer_factory.hpp:77] Creating layer inception_3a/pool_proj
I0403 15:27:40.832643 31918 net.cpp:91] Creating Layer inception_3a/pool_proj
I0403 15:27:40.832674 31918 net.cpp:425] inception_3a/pool_proj <- inception_3a/pool
I0403 15:27:40.832693 31918 net.cpp:399] inception_3a/pool_proj -> inception_3a/pool_proj
I0403 15:27:40.833670 31918 net.cpp:141] Setting up inception_3a/pool_proj
I0403 15:27:40.833700 31918 net.cpp:148] Top shape: 24 32 28 28 (602112)
I0403 15:27:40.833716 31918 net.cpp:156] Memory required for data: 558760992
I0403 15:27:40.833742 31918 layer_factory.hpp:77] Creating layer inception_3a/relu_pool_proj
I0403 15:27:40.833762 31918 net.cpp:91] Creating Layer inception_3a/relu_pool_proj
I0403 15:27:40.833780 31918 net.cpp:425] inception_3a/relu_pool_proj <- inception_3a/pool_proj
I0403 15:27:40.833801 31918 net.cpp:386] inception_3a/relu_pool_proj -> inception_3a/pool_proj (in-place)
I0403 15:27:40.834076 31918 net.cpp:141] Setting up inception_3a/relu_pool_proj
I0403 15:27:40.834106 31918 net.cpp:148] Top shape: 24 32 28 28 (602112)
I0403 15:27:40.834122 31918 net.cpp:156] Memory required for data: 561169440
I0403 15:27:40.834137 31918 layer_factory.hpp:77] Creating layer inception_3a/output
I0403 15:27:40.834156 31918 net.cpp:91] Creating Layer inception_3a/output
I0403 15:27:40.834172 31918 net.cpp:425] inception_3a/output <- inception_3a/1x1
I0403 15:27:40.834190 31918 net.cpp:425] inception_3a/output <- inception_3a/3x3
I0403 15:27:40.834208 31918 net.cpp:425] inception_3a/output <- inception_3a/5x5
I0403 15:27:40.834224 31918 net.cpp:425] inception_3a/output <- inception_3a/pool_proj
I0403 15:27:40.834241 31918 net.cpp:399] inception_3a/output -> inception_3a/output
I0403 15:27:40.834291 31918 net.cpp:141] Setting up inception_3a/output
I0403 15:27:40.834326 31918 net.cpp:148] Top shape: 24 256 28 28 (4816896)
I0403 15:27:40.834344 31918 net.cpp:156] Memory required for data: 580437024
I0403 15:27:40.834362 31918 layer_factory.hpp:77] Creating layer inception_3a/output_inception_3a/output_0_split
I0403 15:27:40.834383 31918 net.cpp:91] Creating Layer inception_3a/output_inception_3a/output_0_split
I0403 15:27:40.834400 31918 net.cpp:425] inception_3a/output_inception_3a/output_0_split <- inception_3a/output
I0403 15:27:40.834419 31918 net.cpp:399] inception_3a/output_inception_3a/output_0_split -> inception_3a/output_inception_3a/output_0_split_0
I0403 15:27:40.834439 31918 net.cpp:399] inception_3a/output_inception_3a/output_0_split -> inception_3a/output_inception_3a/output_0_split_1
I0403 15:27:40.834465 31918 net.cpp:399] inception_3a/output_inception_3a/output_0_split -> inception_3a/output_inception_3a/output_0_split_2
I0403 15:27:40.834488 31918 net.cpp:399] inception_3a/output_inception_3a/output_0_split -> inception_3a/output_inception_3a/output_0_split_3
I0403 15:27:40.834565 31918 net.cpp:141] Setting up inception_3a/output_inception_3a/output_0_split
I0403 15:27:40.834589 31918 net.cpp:148] Top shape: 24 256 28 28 (4816896)
I0403 15:27:40.834606 31918 net.cpp:148] Top shape: 24 256 28 28 (4816896)
I0403 15:27:40.834624 31918 net.cpp:148] Top shape: 24 256 28 28 (4816896)
I0403 15:27:40.834640 31918 net.cpp:148] Top shape: 24 256 28 28 (4816896)
I0403 15:27:40.834653 31918 net.cpp:156] Memory required for data: 657507360
I0403 15:27:40.834669 31918 layer_factory.hpp:77] Creating layer inception_3b/1x1
I0403 15:27:40.834694 31918 net.cpp:91] Creating Layer inception_3b/1x1
I0403 15:27:40.834712 31918 net.cpp:425] inception_3b/1x1 <- inception_3a/output_inception_3a/output_0_split_0
I0403 15:27:40.834733 31918 net.cpp:399] inception_3b/1x1 -> inception_3b/1x1
I0403 15:27:40.835914 31918 net.cpp:141] Setting up inception_3b/1x1
I0403 15:27:40.835957 31918 net.cpp:148] Top shape: 24 128 28 28 (2408448)
I0403 15:27:40.835973 31918 net.cpp:156] Memory required for data: 667141152
I0403 15:27:40.835994 31918 layer_factory.hpp:77] Creating layer inception_3b/relu_1x1
I0403 15:27:40.836015 31918 net.cpp:91] Creating Layer inception_3b/relu_1x1
I0403 15:27:40.836035 31918 net.cpp:425] inception_3b/relu_1x1 <- inception_3b/1x1
I0403 15:27:40.836052 31918 net.cpp:386] inception_3b/relu_1x1 -> inception_3b/1x1 (in-place)
I0403 15:27:40.836236 31918 net.cpp:141] Setting up inception_3b/relu_1x1
I0403 15:27:40.836261 31918 net.cpp:148] Top shape: 24 128 28 28 (2408448)
I0403 15:27:40.836277 31918 net.cpp:156] Memory required for data: 676774944
I0403 15:27:40.836292 31918 layer_factory.hpp:77] Creating layer inception_3b/3x3_reduce
I0403 15:27:40.836318 31918 net.cpp:91] Creating Layer inception_3b/3x3_reduce
I0403 15:27:40.836338 31918 net.cpp:425] inception_3b/3x3_reduce <- inception_3a/output_inception_3a/output_0_split_1
I0403 15:27:40.836361 31918 net.cpp:399] inception_3b/3x3_reduce -> inception_3b/3x3_reduce
I0403 15:27:40.837508 31918 net.cpp:141] Setting up inception_3b/3x3_reduce
I0403 15:27:40.837538 31918 net.cpp:148] Top shape: 24 128 28 28 (2408448)
I0403 15:27:40.837554 31918 net.cpp:156] Memory required for data: 686408736
I0403 15:27:40.837575 31918 layer_factory.hpp:77] Creating layer inception_3b/relu_3x3_reduce
I0403 15:27:40.837599 31918 net.cpp:91] Creating Layer inception_3b/relu_3x3_reduce
I0403 15:27:40.837617 31918 net.cpp:425] inception_3b/relu_3x3_reduce <- inception_3b/3x3_reduce
I0403 15:27:40.837636 31918 net.cpp:386] inception_3b/relu_3x3_reduce -> inception_3b/3x3_reduce (in-place)
I0403 15:27:40.837810 31918 net.cpp:141] Setting up inception_3b/relu_3x3_reduce
I0403 15:27:40.837837 31918 net.cpp:148] Top shape: 24 128 28 28 (2408448)
I0403 15:27:40.837853 31918 net.cpp:156] Memory required for data: 696042528
I0403 15:27:40.837869 31918 layer_factory.hpp:77] Creating layer inception_3b/3x3
I0403 15:27:40.837895 31918 net.cpp:91] Creating Layer inception_3b/3x3
I0403 15:27:40.837914 31918 net.cpp:425] inception_3b/3x3 <- inception_3b/3x3_reduce
I0403 15:27:40.837937 31918 net.cpp:399] inception_3b/3x3 -> inception_3b/3x3
I0403 15:27:40.840951 31918 net.cpp:141] Setting up inception_3b/3x3
I0403 15:27:40.840983 31918 net.cpp:148] Top shape: 24 192 28 28 (3612672)
I0403 15:27:40.841001 31918 net.cpp:156] Memory required for data: 710493216
I0403 15:27:40.841022 31918 layer_factory.hpp:77] Creating layer inception_3b/relu_3x3
I0403 15:27:40.841042 31918 net.cpp:91] Creating Layer inception_3b/relu_3x3
I0403 15:27:40.841058 31918 net.cpp:425] inception_3b/relu_3x3 <- inception_3b/3x3
I0403 15:27:40.841079 31918 net.cpp:386] inception_3b/relu_3x3 -> inception_3b/3x3 (in-place)
I0403 15:27:40.841382 31918 net.cpp:141] Setting up inception_3b/relu_3x3
I0403 15:27:40.841411 31918 net.cpp:148] Top shape: 24 192 28 28 (3612672)
I0403 15:27:40.841428 31918 net.cpp:156] Memory required for data: 724943904
I0403 15:27:40.841444 31918 layer_factory.hpp:77] Creating layer inception_3b/5x5_reduce
I0403 15:27:40.841469 31918 net.cpp:91] Creating Layer inception_3b/5x5_reduce
I0403 15:27:40.841487 31918 net.cpp:425] inception_3b/5x5_reduce <- inception_3a/output_inception_3a/output_0_split_2
I0403 15:27:40.841512 31918 net.cpp:399] inception_3b/5x5_reduce -> inception_3b/5x5_reduce
I0403 15:27:40.842531 31918 net.cpp:141] Setting up inception_3b/5x5_reduce
I0403 15:27:40.842572 31918 net.cpp:148] Top shape: 24 32 28 28 (602112)
I0403 15:27:40.842589 31918 net.cpp:156] Memory required for data: 727352352
I0403 15:27:40.842609 31918 layer_factory.hpp:77] Creating layer inception_3b/relu_5x5_reduce
I0403 15:27:40.842628 31918 net.cpp:91] Creating Layer inception_3b/relu_5x5_reduce
I0403 15:27:40.842645 31918 net.cpp:425] inception_3b/relu_5x5_reduce <- inception_3b/5x5_reduce
I0403 15:27:40.842664 31918 net.cpp:386] inception_3b/relu_5x5_reduce -> inception_3b/5x5_reduce (in-place)
I0403 15:27:40.842846 31918 net.cpp:141] Setting up inception_3b/relu_5x5_reduce
I0403 15:27:40.842885 31918 net.cpp:148] Top shape: 24 32 28 28 (602112)
I0403 15:27:40.842901 31918 net.cpp:156] Memory required for data: 729760800
I0403 15:27:40.842917 31918 layer_factory.hpp:77] Creating layer inception_3b/5x5
I0403 15:27:40.842941 31918 net.cpp:91] Creating Layer inception_3b/5x5
I0403 15:27:40.842962 31918 net.cpp:425] inception_3b/5x5 <- inception_3b/5x5_reduce
I0403 15:27:40.842983 31918 net.cpp:399] inception_3b/5x5 -> inception_3b/5x5
I0403 15:27:40.844992 31918 net.cpp:141] Setting up inception_3b/5x5
I0403 15:27:40.845021 31918 net.cpp:148] Top shape: 24 96 28 28 (1806336)
I0403 15:27:40.845037 31918 net.cpp:156] Memory required for data: 736986144
I0403 15:27:40.845055 31918 layer_factory.hpp:77] Creating layer inception_3b/relu_5x5
I0403 15:27:40.845077 31918 net.cpp:91] Creating Layer inception_3b/relu_5x5
I0403 15:27:40.845094 31918 net.cpp:425] inception_3b/relu_5x5 <- inception_3b/5x5
I0403 15:27:40.845113 31918 net.cpp:386] inception_3b/relu_5x5 -> inception_3b/5x5 (in-place)
I0403 15:27:40.845304 31918 net.cpp:141] Setting up inception_3b/relu_5x5
I0403 15:27:40.845331 31918 net.cpp:148] Top shape: 24 96 28 28 (1806336)
I0403 15:27:40.845347 31918 net.cpp:156] Memory required for data: 744211488
I0403 15:27:40.845363 31918 layer_factory.hpp:77] Creating layer inception_3b/pool
I0403 15:27:40.845381 31918 net.cpp:91] Creating Layer inception_3b/pool
I0403 15:27:40.845398 31918 net.cpp:425] inception_3b/pool <- inception_3a/output_inception_3a/output_0_split_3
I0403 15:27:40.845417 31918 net.cpp:399] inception_3b/pool -> inception_3b/pool
I0403 15:27:40.845469 31918 net.cpp:141] Setting up inception_3b/pool
I0403 15:27:40.845494 31918 net.cpp:148] Top shape: 24 256 28 28 (4816896)
I0403 15:27:40.845509 31918 net.cpp:156] Memory required for data: 763479072
I0403 15:27:40.845523 31918 layer_factory.hpp:77] Creating layer inception_3b/pool_proj
I0403 15:27:40.845554 31918 net.cpp:91] Creating Layer inception_3b/pool_proj
I0403 15:27:40.845572 31918 net.cpp:425] inception_3b/pool_proj <- inception_3b/pool
I0403 15:27:40.845592 31918 net.cpp:399] inception_3b/pool_proj -> inception_3b/pool_proj
I0403 15:27:40.846599 31918 net.cpp:141] Setting up inception_3b/pool_proj
I0403 15:27:40.846626 31918 net.cpp:148] Top shape: 24 64 28 28 (1204224)
I0403 15:27:40.846642 31918 net.cpp:156] Memory required for data: 768295968
I0403 15:27:40.846660 31918 layer_factory.hpp:77] Creating layer inception_3b/relu_pool_proj
I0403 15:27:40.846680 31918 net.cpp:91] Creating Layer inception_3b/relu_pool_proj
I0403 15:27:40.846698 31918 net.cpp:425] inception_3b/relu_pool_proj <- inception_3b/pool_proj
I0403 15:27:40.846715 31918 net.cpp:386] inception_3b/relu_pool_proj -> inception_3b/pool_proj (in-place)
I0403 15:27:40.847092 31918 net.cpp:141] Setting up inception_3b/relu_pool_proj
I0403 15:27:40.847118 31918 net.cpp:148] Top shape: 24 64 28 28 (1204224)
I0403 15:27:40.847134 31918 net.cpp:156] Memory required for data: 773112864
I0403 15:27:40.847149 31918 layer_factory.hpp:77] Creating layer inception_3b/output
I0403 15:27:40.847167 31918 net.cpp:91] Creating Layer inception_3b/output
I0403 15:27:40.847183 31918 net.cpp:425] inception_3b/output <- inception_3b/1x1
I0403 15:27:40.847199 31918 net.cpp:425] inception_3b/output <- inception_3b/3x3
I0403 15:27:40.847216 31918 net.cpp:425] inception_3b/output <- inception_3b/5x5
I0403 15:27:40.847232 31918 net.cpp:425] inception_3b/output <- inception_3b/pool_proj
I0403 15:27:40.847252 31918 net.cpp:399] inception_3b/output -> inception_3b/output
I0403 15:27:40.847293 31918 net.cpp:141] Setting up inception_3b/output
I0403 15:27:40.847322 31918 net.cpp:148] Top shape: 24 480 28 28 (9031680)
I0403 15:27:40.847340 31918 net.cpp:156] Memory required for data: 809239584
I0403 15:27:40.847355 31918 layer_factory.hpp:77] Creating layer pool3/3x3_s2
I0403 15:27:40.847373 31918 net.cpp:91] Creating Layer pool3/3x3_s2
I0403 15:27:40.847388 31918 net.cpp:425] pool3/3x3_s2 <- inception_3b/output
I0403 15:27:40.847407 31918 net.cpp:399] pool3/3x3_s2 -> pool3/3x3_s2
I0403 15:27:40.847477 31918 net.cpp:141] Setting up pool3/3x3_s2
I0403 15:27:40.847501 31918 net.cpp:148] Top shape: 24 480 14 14 (2257920)
I0403 15:27:40.847517 31918 net.cpp:156] Memory required for data: 818271264
I0403 15:27:40.847532 31918 layer_factory.hpp:77] Creating layer pool3/3x3_s2_pool3/3x3_s2_0_split
I0403 15:27:40.847548 31918 net.cpp:91] Creating Layer pool3/3x3_s2_pool3/3x3_s2_0_split
I0403 15:27:40.847563 31918 net.cpp:425] pool3/3x3_s2_pool3/3x3_s2_0_split <- pool3/3x3_s2
I0403 15:27:40.847582 31918 net.cpp:399] pool3/3x3_s2_pool3/3x3_s2_0_split -> pool3/3x3_s2_pool3/3x3_s2_0_split_0
I0403 15:27:40.847602 31918 net.cpp:399] pool3/3x3_s2_pool3/3x3_s2_0_split -> pool3/3x3_s2_pool3/3x3_s2_0_split_1
I0403 15:27:40.847621 31918 net.cpp:399] pool3/3x3_s2_pool3/3x3_s2_0_split -> pool3/3x3_s2_pool3/3x3_s2_0_split_2
I0403 15:27:40.847642 31918 net.cpp:399] pool3/3x3_s2_pool3/3x3_s2_0_split -> pool3/3x3_s2_pool3/3x3_s2_0_split_3
I0403 15:27:40.847718 31918 net.cpp:141] Setting up pool3/3x3_s2_pool3/3x3_s2_0_split
I0403 15:27:40.847741 31918 net.cpp:148] Top shape: 24 480 14 14 (2257920)
I0403 15:27:40.847757 31918 net.cpp:148] Top shape: 24 480 14 14 (2257920)
I0403 15:27:40.847772 31918 net.cpp:148] Top shape: 24 480 14 14 (2257920)
I0403 15:27:40.847787 31918 net.cpp:148] Top shape: 24 480 14 14 (2257920)
I0403 15:27:40.847801 31918 net.cpp:156] Memory required for data: 854397984
I0403 15:27:40.847816 31918 layer_factory.hpp:77] Creating layer inception_4a/1x1
I0403 15:27:40.847838 31918 net.cpp:91] Creating Layer inception_4a/1x1
I0403 15:27:40.847856 31918 net.cpp:425] inception_4a/1x1 <- pool3/3x3_s2_pool3/3x3_s2_0_split_0
I0403 15:27:40.847877 31918 net.cpp:399] inception_4a/1x1 -> inception_4a/1x1
I0403 15:27:40.849413 31918 net.cpp:141] Setting up inception_4a/1x1
I0403 15:27:40.849442 31918 net.cpp:148] Top shape: 24 192 14 14 (903168)
I0403 15:27:40.849457 31918 net.cpp:156] Memory required for data: 858010656
I0403 15:27:40.849475 31918 layer_factory.hpp:77] Creating layer inception_4a/relu_1x1
I0403 15:27:40.849495 31918 net.cpp:91] Creating Layer inception_4a/relu_1x1
I0403 15:27:40.849514 31918 net.cpp:425] inception_4a/relu_1x1 <- inception_4a/1x1
I0403 15:27:40.849529 31918 net.cpp:386] inception_4a/relu_1x1 -> inception_4a/1x1 (in-place)
I0403 15:27:40.849699 31918 net.cpp:141] Setting up inception_4a/relu_1x1
I0403 15:27:40.849723 31918 net.cpp:148] Top shape: 24 192 14 14 (903168)
I0403 15:27:40.849738 31918 net.cpp:156] Memory required for data: 861623328
I0403 15:27:40.849753 31918 layer_factory.hpp:77] Creating layer inception_4a/3x3_reduce
I0403 15:27:40.849778 31918 net.cpp:91] Creating Layer inception_4a/3x3_reduce
I0403 15:27:40.849797 31918 net.cpp:425] inception_4a/3x3_reduce <- pool3/3x3_s2_pool3/3x3_s2_0_split_1
I0403 15:27:40.849815 31918 net.cpp:399] inception_4a/3x3_reduce -> inception_4a/3x3_reduce
I0403 15:27:40.851035 31918 net.cpp:141] Setting up inception_4a/3x3_reduce
I0403 15:27:40.851063 31918 net.cpp:148] Top shape: 24 96 14 14 (451584)
I0403 15:27:40.851078 31918 net.cpp:156] Memory required for data: 863429664
I0403 15:27:40.851104 31918 layer_factory.hpp:77] Creating layer inception_4a/relu_3x3_reduce
I0403 15:27:40.851122 31918 net.cpp:91] Creating Layer inception_4a/relu_3x3_reduce
I0403 15:27:40.851138 31918 net.cpp:425] inception_4a/relu_3x3_reduce <- inception_4a/3x3_reduce
I0403 15:27:40.851158 31918 net.cpp:386] inception_4a/relu_3x3_reduce -> inception_4a/3x3_reduce (in-place)
I0403 15:27:40.851330 31918 net.cpp:141] Setting up inception_4a/relu_3x3_reduce
I0403 15:27:40.851356 31918 net.cpp:148] Top shape: 24 96 14 14 (451584)
I0403 15:27:40.851371 31918 net.cpp:156] Memory required for data: 865236000
I0403 15:27:40.851385 31918 layer_factory.hpp:77] Creating layer inception_4a/3x3
I0403 15:27:40.851408 31918 net.cpp:91] Creating Layer inception_4a/3x3
I0403 15:27:40.851426 31918 net.cpp:425] inception_4a/3x3 <- inception_4a/3x3_reduce
I0403 15:27:40.851444 31918 net.cpp:399] inception_4a/3x3 -> inception_4a/3x3
I0403 15:27:40.854043 31918 net.cpp:141] Setting up inception_4a/3x3
I0403 15:27:40.854074 31918 net.cpp:148] Top shape: 24 208 14 14 (978432)
I0403 15:27:40.854091 31918 net.cpp:156] Memory required for data: 869149728
I0403 15:27:40.854125 31918 layer_factory.hpp:77] Creating layer inception_4a/relu_3x3
I0403 15:27:40.854143 31918 net.cpp:91] Creating Layer inception_4a/relu_3x3
I0403 15:27:40.854159 31918 net.cpp:425] inception_4a/relu_3x3 <- inception_4a/3x3
I0403 15:27:40.854176 31918 net.cpp:386] inception_4a/relu_3x3 -> inception_4a/3x3 (in-place)
I0403 15:27:40.854465 31918 net.cpp:141] Setting up inception_4a/relu_3x3
I0403 15:27:40.854493 31918 net.cpp:148] Top shape: 24 208 14 14 (978432)
I0403 15:27:40.854509 31918 net.cpp:156] Memory required for data: 873063456
I0403 15:27:40.854524 31918 layer_factory.hpp:77] Creating layer inception_4a/5x5_reduce
I0403 15:27:40.854544 31918 net.cpp:91] Creating Layer inception_4a/5x5_reduce
I0403 15:27:40.854562 31918 net.cpp:425] inception_4a/5x5_reduce <- pool3/3x3_s2_pool3/3x3_s2_0_split_2
I0403 15:27:40.854584 31918 net.cpp:399] inception_4a/5x5_reduce -> inception_4a/5x5_reduce
I0403 15:27:40.855566 31918 net.cpp:141] Setting up inception_4a/5x5_reduce
I0403 15:27:40.855593 31918 net.cpp:148] Top shape: 24 16 14 14 (75264)
I0403 15:27:40.855612 31918 net.cpp:156] Memory required for data: 873364512
I0403 15:27:40.855629 31918 layer_factory.hpp:77] Creating layer inception_4a/relu_5x5_reduce
I0403 15:27:40.855648 31918 net.cpp:91] Creating Layer inception_4a/relu_5x5_reduce
I0403 15:27:40.855664 31918 net.cpp:425] inception_4a/relu_5x5_reduce <- inception_4a/5x5_reduce
I0403 15:27:40.855682 31918 net.cpp:386] inception_4a/relu_5x5_reduce -> inception_4a/5x5_reduce (in-place)
I0403 15:27:40.855857 31918 net.cpp:141] Setting up inception_4a/relu_5x5_reduce
I0403 15:27:40.855882 31918 net.cpp:148] Top shape: 24 16 14 14 (75264)
I0403 15:27:40.855898 31918 net.cpp:156] Memory required for data: 873665568
I0403 15:27:40.855912 31918 layer_factory.hpp:77] Creating layer inception_4a/5x5
I0403 15:27:40.855934 31918 net.cpp:91] Creating Layer inception_4a/5x5
I0403 15:27:40.855952 31918 net.cpp:425] inception_4a/5x5 <- inception_4a/5x5_reduce
I0403 15:27:40.855974 31918 net.cpp:399] inception_4a/5x5 -> inception_4a/5x5
I0403 15:27:40.857019 31918 net.cpp:141] Setting up inception_4a/5x5
I0403 15:27:40.857048 31918 net.cpp:148] Top shape: 24 48 14 14 (225792)
I0403 15:27:40.857062 31918 net.cpp:156] Memory required for data: 874568736
I0403 15:27:40.857080 31918 layer_factory.hpp:77] Creating layer inception_4a/relu_5x5
I0403 15:27:40.857097 31918 net.cpp:91] Creating Layer inception_4a/relu_5x5
I0403 15:27:40.857112 31918 net.cpp:425] inception_4a/relu_5x5 <- inception_4a/5x5
I0403 15:27:40.857131 31918 net.cpp:386] inception_4a/relu_5x5 -> inception_4a/5x5 (in-place)
I0403 15:27:40.857301 31918 net.cpp:141] Setting up inception_4a/relu_5x5
I0403 15:27:40.857329 31918 net.cpp:148] Top shape: 24 48 14 14 (225792)
I0403 15:27:40.857345 31918 net.cpp:156] Memory required for data: 875471904
I0403 15:27:40.857359 31918 layer_factory.hpp:77] Creating layer inception_4a/pool
I0403 15:27:40.857383 31918 net.cpp:91] Creating Layer inception_4a/pool
I0403 15:27:40.857398 31918 net.cpp:425] inception_4a/pool <- pool3/3x3_s2_pool3/3x3_s2_0_split_3
I0403 15:27:40.857416 31918 net.cpp:399] inception_4a/pool -> inception_4a/pool
I0403 15:27:40.857475 31918 net.cpp:141] Setting up inception_4a/pool
I0403 15:27:40.857497 31918 net.cpp:148] Top shape: 24 480 14 14 (2257920)
I0403 15:27:40.857511 31918 net.cpp:156] Memory required for data: 884503584
I0403 15:27:40.857525 31918 layer_factory.hpp:77] Creating layer inception_4a/pool_proj
I0403 15:27:40.857547 31918 net.cpp:91] Creating Layer inception_4a/pool_proj
I0403 15:27:40.857563 31918 net.cpp:425] inception_4a/pool_proj <- inception_4a/pool
I0403 15:27:40.857583 31918 net.cpp:399] inception_4a/pool_proj -> inception_4a/pool_proj
I0403 15:27:40.858712 31918 net.cpp:141] Setting up inception_4a/pool_proj
I0403 15:27:40.858739 31918 net.cpp:148] Top shape: 24 64 14 14 (301056)
I0403 15:27:40.858769 31918 net.cpp:156] Memory required for data: 885707808
I0403 15:27:40.858788 31918 layer_factory.hpp:77] Creating layer inception_4a/relu_pool_proj
I0403 15:27:40.858809 31918 net.cpp:91] Creating Layer inception_4a/relu_pool_proj
I0403 15:27:40.858825 31918 net.cpp:425] inception_4a/relu_pool_proj <- inception_4a/pool_proj
I0403 15:27:40.858842 31918 net.cpp:386] inception_4a/relu_pool_proj -> inception_4a/pool_proj (in-place)
I0403 15:27:40.859113 31918 net.cpp:141] Setting up inception_4a/relu_pool_proj
I0403 15:27:40.859139 31918 net.cpp:148] Top shape: 24 64 14 14 (301056)
I0403 15:27:40.859153 31918 net.cpp:156] Memory required for data: 886912032
I0403 15:27:40.859169 31918 layer_factory.hpp:77] Creating layer inception_4a/output
I0403 15:27:40.859185 31918 net.cpp:91] Creating Layer inception_4a/output
I0403 15:27:40.859201 31918 net.cpp:425] inception_4a/output <- inception_4a/1x1
I0403 15:27:40.859217 31918 net.cpp:425] inception_4a/output <- inception_4a/3x3
I0403 15:27:40.859233 31918 net.cpp:425] inception_4a/output <- inception_4a/5x5
I0403 15:27:40.859249 31918 net.cpp:425] inception_4a/output <- inception_4a/pool_proj
I0403 15:27:40.859268 31918 net.cpp:399] inception_4a/output -> inception_4a/output
I0403 15:27:40.859313 31918 net.cpp:141] Setting up inception_4a/output
I0403 15:27:40.859339 31918 net.cpp:148] Top shape: 24 512 14 14 (2408448)
I0403 15:27:40.859354 31918 net.cpp:156] Memory required for data: 896545824
I0403 15:27:40.859369 31918 layer_factory.hpp:77] Creating layer inception_4a/output_inception_4a/output_0_split
I0403 15:27:40.859386 31918 net.cpp:91] Creating Layer inception_4a/output_inception_4a/output_0_split
I0403 15:27:40.859401 31918 net.cpp:425] inception_4a/output_inception_4a/output_0_split <- inception_4a/output
I0403 15:27:40.859421 31918 net.cpp:399] inception_4a/output_inception_4a/output_0_split -> inception_4a/output_inception_4a/output_0_split_0
I0403 15:27:40.859441 31918 net.cpp:399] inception_4a/output_inception_4a/output_0_split -> inception_4a/output_inception_4a/output_0_split_1
I0403 15:27:40.859462 31918 net.cpp:399] inception_4a/output_inception_4a/output_0_split -> inception_4a/output_inception_4a/output_0_split_2
I0403 15:27:40.859482 31918 net.cpp:399] inception_4a/output_inception_4a/output_0_split -> inception_4a/output_inception_4a/output_0_split_3
I0403 15:27:40.859501 31918 net.cpp:399] inception_4a/output_inception_4a/output_0_split -> inception_4a/output_inception_4a/output_0_split_4
I0403 15:27:40.859589 31918 net.cpp:141] Setting up inception_4a/output_inception_4a/output_0_split
I0403 15:27:40.859614 31918 net.cpp:148] Top shape: 24 512 14 14 (2408448)
I0403 15:27:40.859632 31918 net.cpp:148] Top shape: 24 512 14 14 (2408448)
I0403 15:27:40.859647 31918 net.cpp:148] Top shape: 24 512 14 14 (2408448)
I0403 15:27:40.859663 31918 net.cpp:148] Top shape: 24 512 14 14 (2408448)
I0403 15:27:40.859678 31918 net.cpp:148] Top shape: 24 512 14 14 (2408448)
I0403 15:27:40.859691 31918 net.cpp:156] Memory required for data: 944714784
I0403 15:27:40.859706 31918 layer_factory.hpp:77] Creating layer loss1/ave_pool
I0403 15:27:40.859724 31918 net.cpp:91] Creating Layer loss1/ave_pool
I0403 15:27:40.859738 31918 net.cpp:425] loss1/ave_pool <- inception_4a/output_inception_4a/output_0_split_0
I0403 15:27:40.859758 31918 net.cpp:399] loss1/ave_pool -> loss1/ave_pool
I0403 15:27:40.859957 31918 net.cpp:141] Setting up loss1/ave_pool
I0403 15:27:40.859982 31918 net.cpp:148] Top shape: 24 512 4 4 (196608)
I0403 15:27:40.859997 31918 net.cpp:156] Memory required for data: 945501216
I0403 15:27:40.860011 31918 layer_factory.hpp:77] Creating layer loss1/conv
I0403 15:27:40.860033 31918 net.cpp:91] Creating Layer loss1/conv
I0403 15:27:40.860050 31918 net.cpp:425] loss1/conv <- loss1/ave_pool
I0403 15:27:40.860074 31918 net.cpp:399] loss1/conv -> loss1/conv
I0403 15:27:40.861433 31918 net.cpp:141] Setting up loss1/conv
I0403 15:27:40.861464 31918 net.cpp:148] Top shape: 24 128 4 4 (49152)
I0403 15:27:40.861479 31918 net.cpp:156] Memory required for data: 945697824
I0403 15:27:40.861511 31918 layer_factory.hpp:77] Creating layer loss1/relu_conv
I0403 15:27:40.861531 31918 net.cpp:91] Creating Layer loss1/relu_conv
I0403 15:27:40.861546 31918 net.cpp:425] loss1/relu_conv <- loss1/conv
I0403 15:27:40.861563 31918 net.cpp:386] loss1/relu_conv -> loss1/conv (in-place)
I0403 15:27:40.861835 31918 net.cpp:141] Setting up loss1/relu_conv
I0403 15:27:40.861862 31918 net.cpp:148] Top shape: 24 128 4 4 (49152)
I0403 15:27:40.861877 31918 net.cpp:156] Memory required for data: 945894432
I0403 15:27:40.861892 31918 layer_factory.hpp:77] Creating layer loss1/fc
I0403 15:27:40.861915 31918 net.cpp:91] Creating Layer loss1/fc
I0403 15:27:40.861932 31918 net.cpp:425] loss1/fc <- loss1/conv
I0403 15:27:40.861951 31918 net.cpp:399] loss1/fc -> loss1/fc
I0403 15:27:40.879798 31918 net.cpp:141] Setting up loss1/fc
I0403 15:27:40.879835 31918 net.cpp:148] Top shape: 24 1024 (24576)
I0403 15:27:40.879853 31918 net.cpp:156] Memory required for data: 945992736
I0403 15:27:40.879873 31918 layer_factory.hpp:77] Creating layer loss1/relu_fc
I0403 15:27:40.879894 31918 net.cpp:91] Creating Layer loss1/relu_fc
I0403 15:27:40.879914 31918 net.cpp:425] loss1/relu_fc <- loss1/fc
I0403 15:27:40.879931 31918 net.cpp:386] loss1/relu_fc -> loss1/fc (in-place)
I0403 15:27:40.880132 31918 net.cpp:141] Setting up loss1/relu_fc
I0403 15:27:40.880157 31918 net.cpp:148] Top shape: 24 1024 (24576)
I0403 15:27:40.880173 31918 net.cpp:156] Memory required for data: 946091040
I0403 15:27:40.880188 31918 layer_factory.hpp:77] Creating layer loss1/drop_fc
I0403 15:27:40.880218 31918 net.cpp:91] Creating Layer loss1/drop_fc
I0403 15:27:40.880236 31918 net.cpp:425] loss1/drop_fc <- loss1/fc
I0403 15:27:40.880255 31918 net.cpp:386] loss1/drop_fc -> loss1/fc (in-place)
I0403 15:27:40.880312 31918 net.cpp:141] Setting up loss1/drop_fc
I0403 15:27:40.880341 31918 net.cpp:148] Top shape: 24 1024 (24576)
I0403 15:27:40.880357 31918 net.cpp:156] Memory required for data: 946189344
I0403 15:27:40.880373 31918 layer_factory.hpp:77] Creating layer loss1/classifier_plantvillage
I0403 15:27:40.880393 31918 net.cpp:91] Creating Layer loss1/classifier_plantvillage
I0403 15:27:40.880409 31918 net.cpp:425] loss1/classifier_plantvillage <- loss1/fc
I0403 15:27:40.880431 31918 net.cpp:399] loss1/classifier_plantvillage -> loss1/classifier_plantvillage
I0403 15:27:40.881388 31918 net.cpp:141] Setting up loss1/classifier_plantvillage
I0403 15:27:40.881420 31918 net.cpp:148] Top shape: 24 38 (912)
I0403 15:27:40.881438 31918 net.cpp:156] Memory required for data: 946192992
I0403 15:27:40.881458 31918 layer_factory.hpp:77] Creating layer loss1/classifier_plantvillage_loss1/classifier_plantvillage_0_split
I0403 15:27:40.881477 31918 net.cpp:91] Creating Layer loss1/classifier_plantvillage_loss1/classifier_plantvillage_0_split
I0403 15:27:40.881494 31918 net.cpp:425] loss1/classifier_plantvillage_loss1/classifier_plantvillage_0_split <- loss1/classifier_plantvillage
I0403 15:27:40.881512 31918 net.cpp:399] loss1/classifier_plantvillage_loss1/classifier_plantvillage_0_split -> loss1/classifier_plantvillage_loss1/classifier_plantvillage_0_split_0
I0403 15:27:40.881536 31918 net.cpp:399] loss1/classifier_plantvillage_loss1/classifier_plantvillage_0_split -> loss1/classifier_plantvillage_loss1/classifier_plantvillage_0_split_1
I0403 15:27:40.881556 31918 net.cpp:399] loss1/classifier_plantvillage_loss1/classifier_plantvillage_0_split -> loss1/classifier_plantvillage_loss1/classifier_plantvillage_0_split_2
I0403 15:27:40.881629 31918 net.cpp:141] Setting up loss1/classifier_plantvillage_loss1/classifier_plantvillage_0_split
I0403 15:27:40.881654 31918 net.cpp:148] Top shape: 24 38 (912)
I0403 15:27:40.881670 31918 net.cpp:148] Top shape: 24 38 (912)
I0403 15:27:40.881686 31918 net.cpp:148] Top shape: 24 38 (912)
I0403 15:27:40.881701 31918 net.cpp:156] Memory required for data: 946203936
I0403 15:27:40.881716 31918 layer_factory.hpp:77] Creating layer inception_4b/1x1
I0403 15:27:40.881738 31918 net.cpp:91] Creating Layer inception_4b/1x1
I0403 15:27:40.881772 31918 net.cpp:425] inception_4b/1x1 <- inception_4a/output_inception_4a/output_0_split_1
I0403 15:27:40.881798 31918 net.cpp:399] inception_4b/1x1 -> inception_4b/1x1
I0403 15:27:40.883539 31918 net.cpp:141] Setting up inception_4b/1x1
I0403 15:27:40.883572 31918 net.cpp:148] Top shape: 24 160 14 14 (752640)
I0403 15:27:40.883589 31918 net.cpp:156] Memory required for data: 949214496
I0403 15:27:40.883610 31918 layer_factory.hpp:77] Creating layer inception_4b/relu_1x1
I0403 15:27:40.883630 31918 net.cpp:91] Creating Layer inception_4b/relu_1x1
I0403 15:27:40.883646 31918 net.cpp:425] inception_4b/relu_1x1 <- inception_4b/1x1
I0403 15:27:40.883666 31918 net.cpp:386] inception_4b/relu_1x1 -> inception_4b/1x1 (in-place)
I0403 15:27:40.883857 31918 net.cpp:141] Setting up inception_4b/relu_1x1
I0403 15:27:40.883883 31918 net.cpp:148] Top shape: 24 160 14 14 (752640)
I0403 15:27:40.883898 31918 net.cpp:156] Memory required for data: 952225056
I0403 15:27:40.883914 31918 layer_factory.hpp:77] Creating layer inception_4b/3x3_reduce
I0403 15:27:40.883939 31918 net.cpp:91] Creating Layer inception_4b/3x3_reduce
I0403 15:27:40.883956 31918 net.cpp:425] inception_4b/3x3_reduce <- inception_4a/output_inception_4a/output_0_split_2
I0403 15:27:40.883980 31918 net.cpp:399] inception_4b/3x3_reduce -> inception_4b/3x3_reduce
I0403 15:27:40.885433 31918 net.cpp:141] Setting up inception_4b/3x3_reduce
I0403 15:27:40.885465 31918 net.cpp:148] Top shape: 24 112 14 14 (526848)
I0403 15:27:40.885483 31918 net.cpp:156] Memory required for data: 954332448
I0403 15:27:40.885504 31918 layer_factory.hpp:77] Creating layer inception_4b/relu_3x3_reduce
I0403 15:27:40.885522 31918 net.cpp:91] Creating Layer inception_4b/relu_3x3_reduce
I0403 15:27:40.885540 31918 net.cpp:425] inception_4b/relu_3x3_reduce <- inception_4b/3x3_reduce
I0403 15:27:40.885560 31918 net.cpp:386] inception_4b/relu_3x3_reduce -> inception_4b/3x3_reduce (in-place)
I0403 15:27:40.885862 31918 net.cpp:141] Setting up inception_4b/relu_3x3_reduce
I0403 15:27:40.885892 31918 net.cpp:148] Top shape: 24 112 14 14 (526848)
I0403 15:27:40.885910 31918 net.cpp:156] Memory required for data: 956439840
I0403 15:27:40.885926 31918 layer_factory.hpp:77] Creating layer inception_4b/3x3
I0403 15:27:40.885949 31918 net.cpp:91] Creating Layer inception_4b/3x3
I0403 15:27:40.885967 31918 net.cpp:425] inception_4b/3x3 <- inception_4b/3x3_reduce
I0403 15:27:40.885992 31918 net.cpp:399] inception_4b/3x3 -> inception_4b/3x3
I0403 15:27:40.889153 31918 net.cpp:141] Setting up inception_4b/3x3
I0403 15:27:40.889183 31918 net.cpp:148] Top shape: 24 224 14 14 (1053696)
I0403 15:27:40.889199 31918 net.cpp:156] Memory required for data: 960654624
I0403 15:27:40.889219 31918 layer_factory.hpp:77] Creating layer inception_4b/relu_3x3
I0403 15:27:40.889240 31918 net.cpp:91] Creating Layer inception_4b/relu_3x3
I0403 15:27:40.889257 31918 net.cpp:425] inception_4b/relu_3x3 <- inception_4b/3x3
I0403 15:27:40.889276 31918 net.cpp:386] inception_4b/relu_3x3 -> inception_4b/3x3 (in-place)
I0403 15:27:40.889475 31918 net.cpp:141] Setting up inception_4b/relu_3x3
I0403 15:27:40.889504 31918 net.cpp:148] Top shape: 24 224 14 14 (1053696)
I0403 15:27:40.889520 31918 net.cpp:156] Memory required for data: 964869408
I0403 15:27:40.889538 31918 layer_factory.hpp:77] Creating layer inception_4b/5x5_reduce
I0403 15:27:40.889560 31918 net.cpp:91] Creating Layer inception_4b/5x5_reduce
I0403 15:27:40.889580 31918 net.cpp:425] inception_4b/5x5_reduce <- inception_4a/output_inception_4a/output_0_split_3
I0403 15:27:40.889600 31918 net.cpp:399] inception_4b/5x5_reduce -> inception_4b/5x5_reduce
I0403 15:27:40.890753 31918 net.cpp:141] Setting up inception_4b/5x5_reduce
I0403 15:27:40.890784 31918 net.cpp:148] Top shape: 24 24 14 14 (112896)
I0403 15:27:40.890800 31918 net.cpp:156] Memory required for data: 965320992
I0403 15:27:40.890820 31918 layer_factory.hpp:77] Creating layer inception_4b/relu_5x5_reduce
I0403 15:27:40.890839 31918 net.cpp:91] Creating Layer inception_4b/relu_5x5_reduce
I0403 15:27:40.890873 31918 net.cpp:425] inception_4b/relu_5x5_reduce <- inception_4b/5x5_reduce
I0403 15:27:40.890895 31918 net.cpp:386] inception_4b/relu_5x5_reduce -> inception_4b/5x5_reduce (in-place)
I0403 15:27:40.891088 31918 net.cpp:141] Setting up inception_4b/relu_5x5_reduce
I0403 15:27:40.891114 31918 net.cpp:148] Top shape: 24 24 14 14 (112896)
I0403 15:27:40.891129 31918 net.cpp:156] Memory required for data: 965772576
I0403 15:27:40.891145 31918 layer_factory.hpp:77] Creating layer inception_4b/5x5
I0403 15:27:40.891170 31918 net.cpp:91] Creating Layer inception_4b/5x5
I0403 15:27:40.891187 31918 net.cpp:425] inception_4b/5x5 <- inception_4b/5x5_reduce
I0403 15:27:40.891209 31918 net.cpp:399] inception_4b/5x5 -> inception_4b/5x5
I0403 15:27:40.892515 31918 net.cpp:141] Setting up inception_4b/5x5
I0403 15:27:40.892547 31918 net.cpp:148] Top shape: 24 64 14 14 (301056)
I0403 15:27:40.892565 31918 net.cpp:156] Memory required for data: 966976800
I0403 15:27:40.892585 31918 layer_factory.hpp:77] Creating layer inception_4b/relu_5x5
I0403 15:27:40.892603 31918 net.cpp:91] Creating Layer inception_4b/relu_5x5
I0403 15:27:40.892619 31918 net.cpp:425] inception_4b/relu_5x5 <- inception_4b/5x5
I0403 15:27:40.892637 31918 net.cpp:386] inception_4b/relu_5x5 -> inception_4b/5x5 (in-place)
I0403 15:27:40.892937 31918 net.cpp:141] Setting up inception_4b/relu_5x5
I0403 15:27:40.892971 31918 net.cpp:148] Top shape: 24 64 14 14 (301056)
I0403 15:27:40.892988 31918 net.cpp:156] Memory required for data: 968181024
I0403 15:27:40.893004 31918 layer_factory.hpp:77] Creating layer inception_4b/pool
I0403 15:27:40.893024 31918 net.cpp:91] Creating Layer inception_4b/pool
I0403 15:27:40.893040 31918 net.cpp:425] inception_4b/pool <- inception_4a/output_inception_4a/output_0_split_4
I0403 15:27:40.893059 31918 net.cpp:399] inception_4b/pool -> inception_4b/pool
I0403 15:27:40.893131 31918 net.cpp:141] Setting up inception_4b/pool
I0403 15:27:40.893157 31918 net.cpp:148] Top shape: 24 512 14 14 (2408448)
I0403 15:27:40.893172 31918 net.cpp:156] Memory required for data: 977814816
I0403 15:27:40.893188 31918 layer_factory.hpp:77] Creating layer inception_4b/pool_proj
I0403 15:27:40.893210 31918 net.cpp:91] Creating Layer inception_4b/pool_proj
I0403 15:27:40.893229 31918 net.cpp:425] inception_4b/pool_proj <- inception_4b/pool
I0403 15:27:40.893250 31918 net.cpp:399] inception_4b/pool_proj -> inception_4b/pool_proj
I0403 15:27:40.894539 31918 net.cpp:141] Setting up inception_4b/pool_proj
I0403 15:27:40.894572 31918 net.cpp:148] Top shape: 24 64 14 14 (301056)
I0403 15:27:40.894588 31918 net.cpp:156] Memory required for data: 979019040
I0403 15:27:40.894608 31918 layer_factory.hpp:77] Creating layer inception_4b/relu_pool_proj
I0403 15:27:40.894628 31918 net.cpp:91] Creating Layer inception_4b/relu_pool_proj
I0403 15:27:40.894644 31918 net.cpp:425] inception_4b/relu_pool_proj <- inception_4b/pool_proj
I0403 15:27:40.894666 31918 net.cpp:386] inception_4b/relu_pool_proj -> inception_4b/pool_proj (in-place)
I0403 15:27:40.894861 31918 net.cpp:141] Setting up inception_4b/relu_pool_proj
I0403 15:27:40.894888 31918 net.cpp:148] Top shape: 24 64 14 14 (301056)
I0403 15:27:40.894903 31918 net.cpp:156] Memory required for data: 980223264
I0403 15:27:40.894919 31918 layer_factory.hpp:77] Creating layer inception_4b/output
I0403 15:27:40.894937 31918 net.cpp:91] Creating Layer inception_4b/output
I0403 15:27:40.894954 31918 net.cpp:425] inception_4b/output <- inception_4b/1x1
I0403 15:27:40.894973 31918 net.cpp:425] inception_4b/output <- inception_4b/3x3
I0403 15:27:40.894989 31918 net.cpp:425] inception_4b/output <- inception_4b/5x5
I0403 15:27:40.895005 31918 net.cpp:425] inception_4b/output <- inception_4b/pool_proj
I0403 15:27:40.895026 31918 net.cpp:399] inception_4b/output -> inception_4b/output
I0403 15:27:40.895074 31918 net.cpp:141] Setting up inception_4b/output
I0403 15:27:40.895102 31918 net.cpp:148] Top shape: 24 512 14 14 (2408448)
I0403 15:27:40.895117 31918 net.cpp:156] Memory required for data: 989857056
I0403 15:27:40.895148 31918 layer_factory.hpp:77] Creating layer inception_4b/output_inception_4b/output_0_split
I0403 15:27:40.895167 31918 net.cpp:91] Creating Layer inception_4b/output_inception_4b/output_0_split
I0403 15:27:40.895184 31918 net.cpp:425] inception_4b/output_inception_4b/output_0_split <- inception_4b/output
I0403 15:27:40.895205 31918 net.cpp:399] inception_4b/output_inception_4b/output_0_split -> inception_4b/output_inception_4b/output_0_split_0
I0403 15:27:40.895227 31918 net.cpp:399] inception_4b/output_inception_4b/output_0_split -> inception_4b/output_inception_4b/output_0_split_1
I0403 15:27:40.895249 31918 net.cpp:399] inception_4b/output_inception_4b/output_0_split -> inception_4b/output_inception_4b/output_0_split_2
I0403 15:27:40.895269 31918 net.cpp:399] inception_4b/output_inception_4b/output_0_split -> inception_4b/output_inception_4b/output_0_split_3
I0403 15:27:40.895362 31918 net.cpp:141] Setting up inception_4b/output_inception_4b/output_0_split
I0403 15:27:40.895387 31918 net.cpp:148] Top shape: 24 512 14 14 (2408448)
I0403 15:27:40.895408 31918 net.cpp:148] Top shape: 24 512 14 14 (2408448)
I0403 15:27:40.895426 31918 net.cpp:148] Top shape: 24 512 14 14 (2408448)
I0403 15:27:40.895442 31918 net.cpp:148] Top shape: 24 512 14 14 (2408448)
I0403 15:27:40.895457 31918 net.cpp:156] Memory required for data: 1028392224
I0403 15:27:40.895473 31918 layer_factory.hpp:77] Creating layer inception_4c/1x1
I0403 15:27:40.895493 31918 net.cpp:91] Creating Layer inception_4c/1x1
I0403 15:27:40.895510 31918 net.cpp:425] inception_4c/1x1 <- inception_4b/output_inception_4b/output_0_split_0
I0403 15:27:40.895532 31918 net.cpp:399] inception_4c/1x1 -> inception_4c/1x1
I0403 15:27:40.897056 31918 net.cpp:141] Setting up inception_4c/1x1
I0403 15:27:40.897085 31918 net.cpp:148] Top shape: 24 128 14 14 (602112)
I0403 15:27:40.897102 31918 net.cpp:156] Memory required for data: 1030800672
I0403 15:27:40.897122 31918 layer_factory.hpp:77] Creating layer inception_4c/relu_1x1
I0403 15:27:40.897145 31918 net.cpp:91] Creating Layer inception_4c/relu_1x1
I0403 15:27:40.897162 31918 net.cpp:425] inception_4c/relu_1x1 <- inception_4c/1x1
I0403 15:27:40.897181 31918 net.cpp:386] inception_4c/relu_1x1 -> inception_4c/1x1 (in-place)
I0403 15:27:40.897377 31918 net.cpp:141] Setting up inception_4c/relu_1x1
I0403 15:27:40.897403 31918 net.cpp:148] Top shape: 24 128 14 14 (602112)
I0403 15:27:40.897418 31918 net.cpp:156] Memory required for data: 1033209120
I0403 15:27:40.897434 31918 layer_factory.hpp:77] Creating layer inception_4c/3x3_reduce
I0403 15:27:40.897459 31918 net.cpp:91] Creating Layer inception_4c/3x3_reduce
I0403 15:27:40.897477 31918 net.cpp:425] inception_4c/3x3_reduce <- inception_4b/output_inception_4b/output_0_split_1
I0403 15:27:40.897497 31918 net.cpp:399] inception_4c/3x3_reduce -> inception_4c/3x3_reduce
I0403 15:27:40.899554 31918 net.cpp:141] Setting up inception_4c/3x3_reduce
I0403 15:27:40.899583 31918 net.cpp:148] Top shape: 24 128 14 14 (602112)
I0403 15:27:40.899600 31918 net.cpp:156] Memory required for data: 1035617568
I0403 15:27:40.899621 31918 layer_factory.hpp:77] Creating layer inception_4c/relu_3x3_reduce
I0403 15:27:40.899642 31918 net.cpp:91] Creating Layer inception_4c/relu_3x3_reduce
I0403 15:27:40.899660 31918 net.cpp:425] inception_4c/relu_3x3_reduce <- inception_4c/3x3_reduce
I0403 15:27:40.899679 31918 net.cpp:386] inception_4c/relu_3x3_reduce -> inception_4c/3x3_reduce (in-place)
I0403 15:27:40.899988 31918 net.cpp:141] Setting up inception_4c/relu_3x3_reduce
I0403 15:27:40.900017 31918 net.cpp:148] Top shape: 24 128 14 14 (602112)
I0403 15:27:40.900032 31918 net.cpp:156] Memory required for data: 1038026016
I0403 15:27:40.900048 31918 layer_factory.hpp:77] Creating layer inception_4c/3x3
I0403 15:27:40.900074 31918 net.cpp:91] Creating Layer inception_4c/3x3
I0403 15:27:40.900094 31918 net.cpp:425] inception_4c/3x3 <- inception_4c/3x3_reduce
I0403 15:27:40.900113 31918 net.cpp:399] inception_4c/3x3 -> inception_4c/3x3
I0403 15:27:40.903960 31918 net.cpp:141] Setting up inception_4c/3x3
I0403 15:27:40.904006 31918 net.cpp:148] Top shape: 24 256 14 14 (1204224)
I0403 15:27:40.904023 31918 net.cpp:156] Memory required for data: 1042842912
I0403 15:27:40.904058 31918 layer_factory.hpp:77] Creating layer inception_4c/relu_3x3
I0403 15:27:40.904079 31918 net.cpp:91] Creating Layer inception_4c/relu_3x3
I0403 15:27:40.904098 31918 net.cpp:425] inception_4c/relu_3x3 <- inception_4c/3x3
I0403 15:27:40.904115 31918 net.cpp:386] inception_4c/relu_3x3 -> inception_4c/3x3 (in-place)
I0403 15:27:40.904312 31918 net.cpp:141] Setting up inception_4c/relu_3x3
I0403 15:27:40.904351 31918 net.cpp:148] Top shape: 24 256 14 14 (1204224)
I0403 15:27:40.904368 31918 net.cpp:156] Memory required for data: 1047659808
I0403 15:27:40.904386 31918 layer_factory.hpp:77] Creating layer inception_4c/5x5_reduce
I0403 15:27:40.904410 31918 net.cpp:91] Creating Layer inception_4c/5x5_reduce
I0403 15:27:40.904429 31918 net.cpp:425] inception_4c/5x5_reduce <- inception_4b/output_inception_4b/output_0_split_2
I0403 15:27:40.904449 31918 net.cpp:399] inception_4c/5x5_reduce -> inception_4c/5x5_reduce
I0403 15:27:40.905612 31918 net.cpp:141] Setting up inception_4c/5x5_reduce
I0403 15:27:40.905643 31918 net.cpp:148] Top shape: 24 24 14 14 (112896)
I0403 15:27:40.905660 31918 net.cpp:156] Memory required for data: 1048111392
I0403 15:27:40.905680 31918 layer_factory.hpp:77] Creating layer inception_4c/relu_5x5_reduce
I0403 15:27:40.905700 31918 net.cpp:91] Creating Layer inception_4c/relu_5x5_reduce
I0403 15:27:40.905717 31918 net.cpp:425] inception_4c/relu_5x5_reduce <- inception_4c/5x5_reduce
I0403 15:27:40.905738 31918 net.cpp:386] inception_4c/relu_5x5_reduce -> inception_4c/5x5_reduce (in-place)
I0403 15:27:40.905936 31918 net.cpp:141] Setting up inception_4c/relu_5x5_reduce
I0403 15:27:40.905961 31918 net.cpp:148] Top shape: 24 24 14 14 (112896)
I0403 15:27:40.905977 31918 net.cpp:156] Memory required for data: 1048562976
I0403 15:27:40.905992 31918 layer_factory.hpp:77] Creating layer inception_4c/5x5
I0403 15:27:40.906015 31918 net.cpp:91] Creating Layer inception_4c/5x5
I0403 15:27:40.906035 31918 net.cpp:425] inception_4c/5x5 <- inception_4c/5x5_reduce
I0403 15:27:40.906057 31918 net.cpp:399] inception_4c/5x5 -> inception_4c/5x5
I0403 15:27:40.907397 31918 net.cpp:141] Setting up inception_4c/5x5
I0403 15:27:40.907425 31918 net.cpp:148] Top shape: 24 64 14 14 (301056)
I0403 15:27:40.907441 31918 net.cpp:156] Memory required for data: 1049767200
I0403 15:27:40.907460 31918 layer_factory.hpp:77] Creating layer inception_4c/relu_5x5
I0403 15:27:40.907482 31918 net.cpp:91] Creating Layer inception_4c/relu_5x5
I0403 15:27:40.907500 31918 net.cpp:425] inception_4c/relu_5x5 <- inception_4c/5x5
I0403 15:27:40.907519 31918 net.cpp:386] inception_4c/relu_5x5 -> inception_4c/5x5 (in-place)
I0403 15:27:40.907826 31918 net.cpp:141] Setting up inception_4c/relu_5x5
I0403 15:27:40.907855 31918 net.cpp:148] Top shape: 24 64 14 14 (301056)
I0403 15:27:40.907871 31918 net.cpp:156] Memory required for data: 1050971424
I0403 15:27:40.907886 31918 layer_factory.hpp:77] Creating layer inception_4c/pool
I0403 15:27:40.907905 31918 net.cpp:91] Creating Layer inception_4c/pool
I0403 15:27:40.907923 31918 net.cpp:425] inception_4c/pool <- inception_4b/output_inception_4b/output_0_split_3
I0403 15:27:40.907945 31918 net.cpp:399] inception_4c/pool -> inception_4c/pool
I0403 15:27:40.908016 31918 net.cpp:141] Setting up inception_4c/pool
I0403 15:27:40.908041 31918 net.cpp:148] Top shape: 24 512 14 14 (2408448)
I0403 15:27:40.908057 31918 net.cpp:156] Memory required for data: 1060605216
I0403 15:27:40.908073 31918 layer_factory.hpp:77] Creating layer inception_4c/pool_proj
I0403 15:27:40.908097 31918 net.cpp:91] Creating Layer inception_4c/pool_proj
I0403 15:27:40.908114 31918 net.cpp:425] inception_4c/pool_proj <- inception_4c/pool
I0403 15:27:40.908136 31918 net.cpp:399] inception_4c/pool_proj -> inception_4c/pool_proj
I0403 15:27:40.909433 31918 net.cpp:141] Setting up inception_4c/pool_proj
I0403 15:27:40.909468 31918 net.cpp:148] Top shape: 24 64 14 14 (301056)
I0403 15:27:40.909499 31918 net.cpp:156] Memory required for data: 1061809440
I0403 15:27:40.909520 31918 layer_factory.hpp:77] Creating layer inception_4c/relu_pool_proj
I0403 15:27:40.909539 31918 net.cpp:91] Creating Layer inception_4c/relu_pool_proj
I0403 15:27:40.909556 31918 net.cpp:425] inception_4c/relu_pool_proj <- inception_4c/pool_proj
I0403 15:27:40.909577 31918 net.cpp:386] inception_4c/relu_pool_proj -> inception_4c/pool_proj (in-place)
I0403 15:27:40.909773 31918 net.cpp:141] Setting up inception_4c/relu_pool_proj
I0403 15:27:40.909801 31918 net.cpp:148] Top shape: 24 64 14 14 (301056)
I0403 15:27:40.909816 31918 net.cpp:156] Memory required for data: 1063013664
I0403 15:27:40.909832 31918 layer_factory.hpp:77] Creating layer inception_4c/output
I0403 15:27:40.909850 31918 net.cpp:91] Creating Layer inception_4c/output
I0403 15:27:40.909867 31918 net.cpp:425] inception_4c/output <- inception_4c/1x1
I0403 15:27:40.909883 31918 net.cpp:425] inception_4c/output <- inception_4c/3x3
I0403 15:27:40.909901 31918 net.cpp:425] inception_4c/output <- inception_4c/5x5
I0403 15:27:40.909919 31918 net.cpp:425] inception_4c/output <- inception_4c/pool_proj
I0403 15:27:40.909940 31918 net.cpp:399] inception_4c/output -> inception_4c/output
I0403 15:27:40.909988 31918 net.cpp:141] Setting up inception_4c/output
I0403 15:27:40.910015 31918 net.cpp:148] Top shape: 24 512 14 14 (2408448)
I0403 15:27:40.910032 31918 net.cpp:156] Memory required for data: 1072647456
I0403 15:27:40.910048 31918 layer_factory.hpp:77] Creating layer inception_4c/output_inception_4c/output_0_split
I0403 15:27:40.910066 31918 net.cpp:91] Creating Layer inception_4c/output_inception_4c/output_0_split
I0403 15:27:40.910084 31918 net.cpp:425] inception_4c/output_inception_4c/output_0_split <- inception_4c/output
I0403 15:27:40.910104 31918 net.cpp:399] inception_4c/output_inception_4c/output_0_split -> inception_4c/output_inception_4c/output_0_split_0
I0403 15:27:40.910126 31918 net.cpp:399] inception_4c/output_inception_4c/output_0_split -> inception_4c/output_inception_4c/output_0_split_1
I0403 15:27:40.910147 31918 net.cpp:399] inception_4c/output_inception_4c/output_0_split -> inception_4c/output_inception_4c/output_0_split_2
I0403 15:27:40.910168 31918 net.cpp:399] inception_4c/output_inception_4c/output_0_split -> inception_4c/output_inception_4c/output_0_split_3
I0403 15:27:40.910257 31918 net.cpp:141] Setting up inception_4c/output_inception_4c/output_0_split
I0403 15:27:40.910281 31918 net.cpp:148] Top shape: 24 512 14 14 (2408448)
I0403 15:27:40.910301 31918 net.cpp:148] Top shape: 24 512 14 14 (2408448)
I0403 15:27:40.910323 31918 net.cpp:148] Top shape: 24 512 14 14 (2408448)
I0403 15:27:40.910341 31918 net.cpp:148] Top shape: 24 512 14 14 (2408448)
I0403 15:27:40.910356 31918 net.cpp:156] Memory required for data: 1111182624
I0403 15:27:40.910372 31918 layer_factory.hpp:77] Creating layer inception_4d/1x1
I0403 15:27:40.910395 31918 net.cpp:91] Creating Layer inception_4d/1x1
I0403 15:27:40.910414 31918 net.cpp:425] inception_4d/1x1 <- inception_4c/output_inception_4c/output_0_split_0
I0403 15:27:40.910436 31918 net.cpp:399] inception_4d/1x1 -> inception_4d/1x1
I0403 15:27:40.911908 31918 net.cpp:141] Setting up inception_4d/1x1
I0403 15:27:40.911938 31918 net.cpp:148] Top shape: 24 112 14 14 (526848)
I0403 15:27:40.911955 31918 net.cpp:156] Memory required for data: 1113290016
I0403 15:27:40.911974 31918 layer_factory.hpp:77] Creating layer inception_4d/relu_1x1
I0403 15:27:40.911995 31918 net.cpp:91] Creating Layer inception_4d/relu_1x1
I0403 15:27:40.912014 31918 net.cpp:425] inception_4d/relu_1x1 <- inception_4d/1x1
I0403 15:27:40.912034 31918 net.cpp:386] inception_4d/relu_1x1 -> inception_4d/1x1 (in-place)
I0403 15:27:40.912228 31918 net.cpp:141] Setting up inception_4d/relu_1x1
I0403 15:27:40.912257 31918 net.cpp:148] Top shape: 24 112 14 14 (526848)
I0403 15:27:40.912273 31918 net.cpp:156] Memory required for data: 1115397408
I0403 15:27:40.912289 31918 layer_factory.hpp:77] Creating layer inception_4d/3x3_reduce
I0403 15:27:40.912330 31918 net.cpp:91] Creating Layer inception_4d/3x3_reduce
I0403 15:27:40.912353 31918 net.cpp:425] inception_4d/3x3_reduce <- inception_4c/output_inception_4c/output_0_split_1
I0403 15:27:40.912372 31918 net.cpp:399] inception_4d/3x3_reduce -> inception_4d/3x3_reduce
I0403 15:27:40.913980 31918 net.cpp:141] Setting up inception_4d/3x3_reduce
I0403 15:27:40.914010 31918 net.cpp:148] Top shape: 24 144 14 14 (677376)
I0403 15:27:40.914026 31918 net.cpp:156] Memory required for data: 1118106912
I0403 15:27:40.914046 31918 layer_factory.hpp:77] Creating layer inception_4d/relu_3x3_reduce
I0403 15:27:40.914067 31918 net.cpp:91] Creating Layer inception_4d/relu_3x3_reduce
I0403 15:27:40.914084 31918 net.cpp:425] inception_4d/relu_3x3_reduce <- inception_4d/3x3_reduce
I0403 15:27:40.914103 31918 net.cpp:386] inception_4d/relu_3x3_reduce -> inception_4d/3x3_reduce (in-place)
I0403 15:27:40.914434 31918 net.cpp:141] Setting up inception_4d/relu_3x3_reduce
I0403 15:27:40.914463 31918 net.cpp:148] Top shape: 24 144 14 14 (677376)
I0403 15:27:40.914479 31918 net.cpp:156] Memory required for data: 1120816416
I0403 15:27:40.914494 31918 layer_factory.hpp:77] Creating layer inception_4d/3x3
I0403 15:27:40.914518 31918 net.cpp:91] Creating Layer inception_4d/3x3
I0403 15:27:40.914537 31918 net.cpp:425] inception_4d/3x3 <- inception_4d/3x3_reduce
I0403 15:27:40.914561 31918 net.cpp:399] inception_4d/3x3 -> inception_4d/3x3
I0403 15:27:40.919041 31918 net.cpp:141] Setting up inception_4d/3x3
I0403 15:27:40.919071 31918 net.cpp:148] Top shape: 24 288 14 14 (1354752)
I0403 15:27:40.919088 31918 net.cpp:156] Memory required for data: 1126235424
I0403 15:27:40.919107 31918 layer_factory.hpp:77] Creating layer inception_4d/relu_3x3
I0403 15:27:40.919128 31918 net.cpp:91] Creating Layer inception_4d/relu_3x3
I0403 15:27:40.919145 31918 net.cpp:425] inception_4d/relu_3x3 <- inception_4d/3x3
I0403 15:27:40.919163 31918 net.cpp:386] inception_4d/relu_3x3 -> inception_4d/3x3 (in-place)
I0403 15:27:40.919358 31918 net.cpp:141] Setting up inception_4d/relu_3x3
I0403 15:27:40.919384 31918 net.cpp:148] Top shape: 24 288 14 14 (1354752)
I0403 15:27:40.919400 31918 net.cpp:156] Memory required for data: 1131654432
I0403 15:27:40.919416 31918 layer_factory.hpp:77] Creating layer inception_4d/5x5_reduce
I0403 15:27:40.919440 31918 net.cpp:91] Creating Layer inception_4d/5x5_reduce
I0403 15:27:40.919458 31918 net.cpp:425] inception_4d/5x5_reduce <- inception_4c/output_inception_4c/output_0_split_2
I0403 15:27:40.919481 31918 net.cpp:399] inception_4d/5x5_reduce -> inception_4d/5x5_reduce
I0403 15:27:40.920689 31918 net.cpp:141] Setting up inception_4d/5x5_reduce
I0403 15:27:40.920718 31918 net.cpp:148] Top shape: 24 32 14 14 (150528)
I0403 15:27:40.920734 31918 net.cpp:156] Memory required for data: 1132256544
I0403 15:27:40.920753 31918 layer_factory.hpp:77] Creating layer inception_4d/relu_5x5_reduce
I0403 15:27:40.920774 31918 net.cpp:91] Creating Layer inception_4d/relu_5x5_reduce
I0403 15:27:40.920791 31918 net.cpp:425] inception_4d/relu_5x5_reduce <- inception_4d/5x5_reduce
I0403 15:27:40.920809 31918 net.cpp:386] inception_4d/relu_5x5_reduce -> inception_4d/5x5_reduce (in-place)
I0403 15:27:40.921023 31918 net.cpp:141] Setting up inception_4d/relu_5x5_reduce
I0403 15:27:40.921052 31918 net.cpp:148] Top shape: 24 32 14 14 (150528)
I0403 15:27:40.921068 31918 net.cpp:156] Memory required for data: 1132858656
I0403 15:27:40.921085 31918 layer_factory.hpp:77] Creating layer inception_4d/5x5
I0403 15:27:40.921109 31918 net.cpp:91] Creating Layer inception_4d/5x5
I0403 15:27:40.921128 31918 net.cpp:425] inception_4d/5x5 <- inception_4d/5x5_reduce
I0403 15:27:40.921149 31918 net.cpp:399] inception_4d/5x5 -> inception_4d/5x5
I0403 15:27:40.922696 31918 net.cpp:141] Setting up inception_4d/5x5
I0403 15:27:40.922727 31918 net.cpp:148] Top shape: 24 64 14 14 (301056)
I0403 15:27:40.922744 31918 net.cpp:156] Memory required for data: 1134062880
I0403 15:27:40.922765 31918 layer_factory.hpp:77] Creating layer inception_4d/relu_5x5
I0403 15:27:40.922798 31918 net.cpp:91] Creating Layer inception_4d/relu_5x5
I0403 15:27:40.922816 31918 net.cpp:425] inception_4d/relu_5x5 <- inception_4d/5x5
I0403 15:27:40.922837 31918 net.cpp:386] inception_4d/relu_5x5 -> inception_4d/5x5 (in-place)
I0403 15:27:40.923146 31918 net.cpp:141] Setting up inception_4d/relu_5x5
I0403 15:27:40.923174 31918 net.cpp:148] Top shape: 24 64 14 14 (301056)
I0403 15:27:40.923192 31918 net.cpp:156] Memory required for data: 1135267104
I0403 15:27:40.923207 31918 layer_factory.hpp:77] Creating layer inception_4d/pool
I0403 15:27:40.923225 31918 net.cpp:91] Creating Layer inception_4d/pool
I0403 15:27:40.923241 31918 net.cpp:425] inception_4d/pool <- inception_4c/output_inception_4c/output_0_split_3
I0403 15:27:40.923264 31918 net.cpp:399] inception_4d/pool -> inception_4d/pool
I0403 15:27:40.923336 31918 net.cpp:141] Setting up inception_4d/pool
I0403 15:27:40.923363 31918 net.cpp:148] Top shape: 24 512 14 14 (2408448)
I0403 15:27:40.923380 31918 net.cpp:156] Memory required for data: 1144900896
I0403 15:27:40.923408 31918 layer_factory.hpp:77] Creating layer inception_4d/pool_proj
I0403 15:27:40.923430 31918 net.cpp:91] Creating Layer inception_4d/pool_proj
I0403 15:27:40.923449 31918 net.cpp:425] inception_4d/pool_proj <- inception_4d/pool
I0403 15:27:40.923466 31918 net.cpp:399] inception_4d/pool_proj -> inception_4d/pool_proj
I0403 15:27:40.925235 31918 net.cpp:141] Setting up inception_4d/pool_proj
I0403 15:27:40.925264 31918 net.cpp:148] Top shape: 24 64 14 14 (301056)
I0403 15:27:40.925281 31918 net.cpp:156] Memory required for data: 1146105120
I0403 15:27:40.925298 31918 layer_factory.hpp:77] Creating layer inception_4d/relu_pool_proj
I0403 15:27:40.925334 31918 net.cpp:91] Creating Layer inception_4d/relu_pool_proj
I0403 15:27:40.925357 31918 net.cpp:425] inception_4d/relu_pool_proj <- inception_4d/pool_proj
I0403 15:27:40.925375 31918 net.cpp:386] inception_4d/relu_pool_proj -> inception_4d/pool_proj (in-place)
I0403 15:27:40.925568 31918 net.cpp:141] Setting up inception_4d/relu_pool_proj
I0403 15:27:40.925595 31918 net.cpp:148] Top shape: 24 64 14 14 (301056)
I0403 15:27:40.925609 31918 net.cpp:156] Memory required for data: 1147309344
I0403 15:27:40.925637 31918 layer_factory.hpp:77] Creating layer inception_4d/output
I0403 15:27:40.925654 31918 net.cpp:91] Creating Layer inception_4d/output
I0403 15:27:40.925670 31918 net.cpp:425] inception_4d/output <- inception_4d/1x1
I0403 15:27:40.925688 31918 net.cpp:425] inception_4d/output <- inception_4d/3x3
I0403 15:27:40.925704 31918 net.cpp:425] inception_4d/output <- inception_4d/5x5
I0403 15:27:40.925719 31918 net.cpp:425] inception_4d/output <- inception_4d/pool_proj
I0403 15:27:40.925739 31918 net.cpp:399] inception_4d/output -> inception_4d/output
I0403 15:27:40.925786 31918 net.cpp:141] Setting up inception_4d/output
I0403 15:27:40.925809 31918 net.cpp:148] Top shape: 24 528 14 14 (2483712)
I0403 15:27:40.925827 31918 net.cpp:156] Memory required for data: 1157244192
I0403 15:27:40.925843 31918 layer_factory.hpp:77] Creating layer inception_4d/output_inception_4d/output_0_split
I0403 15:27:40.925861 31918 net.cpp:91] Creating Layer inception_4d/output_inception_4d/output_0_split
I0403 15:27:40.925876 31918 net.cpp:425] inception_4d/output_inception_4d/output_0_split <- inception_4d/output
I0403 15:27:40.925894 31918 net.cpp:399] inception_4d/output_inception_4d/output_0_split -> inception_4d/output_inception_4d/output_0_split_0
I0403 15:27:40.925915 31918 net.cpp:399] inception_4d/output_inception_4d/output_0_split -> inception_4d/output_inception_4d/output_0_split_1
I0403 15:27:40.925937 31918 net.cpp:399] inception_4d/output_inception_4d/output_0_split -> inception_4d/output_inception_4d/output_0_split_2
I0403 15:27:40.925959 31918 net.cpp:399] inception_4d/output_inception_4d/output_0_split -> inception_4d/output_inception_4d/output_0_split_3
I0403 15:27:40.925979 31918 net.cpp:399] inception_4d/output_inception_4d/output_0_split -> inception_4d/output_inception_4d/output_0_split_4
I0403 15:27:40.926082 31918 net.cpp:141] Setting up inception_4d/output_inception_4d/output_0_split
I0403 15:27:40.926138 31918 net.cpp:148] Top shape: 24 528 14 14 (2483712)
I0403 15:27:40.926156 31918 net.cpp:148] Top shape: 24 528 14 14 (2483712)
I0403 15:27:40.926172 31918 net.cpp:148] Top shape: 24 528 14 14 (2483712)
I0403 15:27:40.926187 31918 net.cpp:148] Top shape: 24 528 14 14 (2483712)
I0403 15:27:40.926203 31918 net.cpp:148] Top shape: 24 528 14 14 (2483712)
I0403 15:27:40.926218 31918 net.cpp:156] Memory required for data: 1206918432
I0403 15:27:40.926234 31918 layer_factory.hpp:77] Creating layer loss2/ave_pool
I0403 15:27:40.926254 31918 net.cpp:91] Creating Layer loss2/ave_pool
I0403 15:27:40.926271 31918 net.cpp:425] loss2/ave_pool <- inception_4d/output_inception_4d/output_0_split_0
I0403 15:27:40.926290 31918 net.cpp:399] loss2/ave_pool -> loss2/ave_pool
I0403 15:27:40.926625 31918 net.cpp:141] Setting up loss2/ave_pool
I0403 15:27:40.926651 31918 net.cpp:148] Top shape: 24 528 4 4 (202752)
I0403 15:27:40.926667 31918 net.cpp:156] Memory required for data: 1207729440
I0403 15:27:40.926682 31918 layer_factory.hpp:77] Creating layer loss2/conv
I0403 15:27:40.926707 31918 net.cpp:91] Creating Layer loss2/conv
I0403 15:27:40.926724 31918 net.cpp:425] loss2/conv <- loss2/ave_pool
I0403 15:27:40.926743 31918 net.cpp:399] loss2/conv -> loss2/conv
I0403 15:27:40.928634 31918 net.cpp:141] Setting up loss2/conv
I0403 15:27:40.928663 31918 net.cpp:148] Top shape: 24 128 4 4 (49152)
I0403 15:27:40.928678 31918 net.cpp:156] Memory required for data: 1207926048
I0403 15:27:40.928697 31918 layer_factory.hpp:77] Creating layer loss2/relu_conv
I0403 15:27:40.928715 31918 net.cpp:91] Creating Layer loss2/relu_conv
I0403 15:27:40.928732 31918 net.cpp:425] loss2/relu_conv <- loss2/conv
I0403 15:27:40.928752 31918 net.cpp:386] loss2/relu_conv -> loss2/conv (in-place)
I0403 15:27:40.929038 31918 net.cpp:141] Setting up loss2/relu_conv
I0403 15:27:40.929064 31918 net.cpp:148] Top shape: 24 128 4 4 (49152)
I0403 15:27:40.929080 31918 net.cpp:156] Memory required for data: 1208122656
I0403 15:27:40.929095 31918 layer_factory.hpp:77] Creating layer loss2/fc
I0403 15:27:40.929114 31918 net.cpp:91] Creating Layer loss2/fc
I0403 15:27:40.929131 31918 net.cpp:425] loss2/fc <- loss2/conv
I0403 15:27:40.929152 31918 net.cpp:399] loss2/fc -> loss2/fc
I0403 15:27:40.947041 31918 net.cpp:141] Setting up loss2/fc
I0403 15:27:40.947075 31918 net.cpp:148] Top shape: 24 1024 (24576)
I0403 15:27:40.947091 31918 net.cpp:156] Memory required for data: 1208220960
I0403 15:27:40.947110 31918 layer_factory.hpp:77] Creating layer loss2/relu_fc
I0403 15:27:40.947127 31918 net.cpp:91] Creating Layer loss2/relu_fc
I0403 15:27:40.947144 31918 net.cpp:425] loss2/relu_fc <- loss2/fc
I0403 15:27:40.947161 31918 net.cpp:386] loss2/relu_fc -> loss2/fc (in-place)
I0403 15:27:40.947482 31918 net.cpp:141] Setting up loss2/relu_fc
I0403 15:27:40.947512 31918 net.cpp:148] Top shape: 24 1024 (24576)
I0403 15:27:40.947528 31918 net.cpp:156] Memory required for data: 1208319264
I0403 15:27:40.947545 31918 layer_factory.hpp:77] Creating layer loss2/drop_fc
I0403 15:27:40.947562 31918 net.cpp:91] Creating Layer loss2/drop_fc
I0403 15:27:40.947578 31918 net.cpp:425] loss2/drop_fc <- loss2/fc
I0403 15:27:40.947597 31918 net.cpp:386] loss2/drop_fc -> loss2/fc (in-place)
I0403 15:27:40.947662 31918 net.cpp:141] Setting up loss2/drop_fc
I0403 15:27:40.947685 31918 net.cpp:148] Top shape: 24 1024 (24576)
I0403 15:27:40.947700 31918 net.cpp:156] Memory required for data: 1208417568
I0403 15:27:40.947716 31918 layer_factory.hpp:77] Creating layer loss2/classifier_plantvillage
I0403 15:27:40.947736 31918 net.cpp:91] Creating Layer loss2/classifier_plantvillage
I0403 15:27:40.947753 31918 net.cpp:425] loss2/classifier_plantvillage <- loss2/fc
I0403 15:27:40.947772 31918 net.cpp:399] loss2/classifier_plantvillage -> loss2/classifier_plantvillage
I0403 15:27:40.948173 31918 net.cpp:141] Setting up loss2/classifier_plantvillage
I0403 15:27:40.948199 31918 net.cpp:148] Top shape: 24 38 (912)
I0403 15:27:40.948213 31918 net.cpp:156] Memory required for data: 1208421216
I0403 15:27:40.948248 31918 layer_factory.hpp:77] Creating layer loss2/classifier_plantvillage_loss2/classifier_plantvillage_0_split
I0403 15:27:40.948267 31918 net.cpp:91] Creating Layer loss2/classifier_plantvillage_loss2/classifier_plantvillage_0_split
I0403 15:27:40.948283 31918 net.cpp:425] loss2/classifier_plantvillage_loss2/classifier_plantvillage_0_split <- loss2/classifier_plantvillage
I0403 15:27:40.948304 31918 net.cpp:399] loss2/classifier_plantvillage_loss2/classifier_plantvillage_0_split -> loss2/classifier_plantvillage_loss2/classifier_plantvillage_0_split_0
I0403 15:27:40.948330 31918 net.cpp:399] loss2/classifier_plantvillage_loss2/classifier_plantvillage_0_split -> loss2/classifier_plantvillage_loss2/classifier_plantvillage_0_split_1
I0403 15:27:40.948353 31918 net.cpp:399] loss2/classifier_plantvillage_loss2/classifier_plantvillage_0_split -> loss2/classifier_plantvillage_loss2/classifier_plantvillage_0_split_2
I0403 15:27:40.948429 31918 net.cpp:141] Setting up loss2/classifier_plantvillage_loss2/classifier_plantvillage_0_split
I0403 15:27:40.948452 31918 net.cpp:148] Top shape: 24 38 (912)
I0403 15:27:40.948468 31918 net.cpp:148] Top shape: 24 38 (912)
I0403 15:27:40.948484 31918 net.cpp:148] Top shape: 24 38 (912)
I0403 15:27:40.948498 31918 net.cpp:156] Memory required for data: 1208432160
I0403 15:27:40.948513 31918 layer_factory.hpp:77] Creating layer inception_4e/1x1
I0403 15:27:40.948535 31918 net.cpp:91] Creating Layer inception_4e/1x1
I0403 15:27:40.948554 31918 net.cpp:425] inception_4e/1x1 <- inception_4d/output_inception_4d/output_0_split_1
I0403 15:27:40.948573 31918 net.cpp:399] inception_4e/1x1 -> inception_4e/1x1
I0403 15:27:40.950484 31918 net.cpp:141] Setting up inception_4e/1x1
I0403 15:27:40.950525 31918 net.cpp:148] Top shape: 24 256 14 14 (1204224)
I0403 15:27:40.950541 31918 net.cpp:156] Memory required for data: 1213249056
I0403 15:27:40.950565 31918 layer_factory.hpp:77] Creating layer inception_4e/relu_1x1
I0403 15:27:40.950585 31918 net.cpp:91] Creating Layer inception_4e/relu_1x1
I0403 15:27:40.950603 31918 net.cpp:425] inception_4e/relu_1x1 <- inception_4e/1x1
I0403 15:27:40.950620 31918 net.cpp:386] inception_4e/relu_1x1 -> inception_4e/1x1 (in-place)
I0403 15:27:40.950971 31918 net.cpp:141] Setting up inception_4e/relu_1x1
I0403 15:27:40.951014 31918 net.cpp:148] Top shape: 24 256 14 14 (1204224)
I0403 15:27:40.951033 31918 net.cpp:156] Memory required for data: 1218065952
I0403 15:27:40.951048 31918 layer_factory.hpp:77] Creating layer inception_4e/3x3_reduce
I0403 15:27:40.951072 31918 net.cpp:91] Creating Layer inception_4e/3x3_reduce
I0403 15:27:40.951107 31918 net.cpp:425] inception_4e/3x3_reduce <- inception_4d/output_inception_4d/output_0_split_2
I0403 15:27:40.951128 31918 net.cpp:399] inception_4e/3x3_reduce -> inception_4e/3x3_reduce
I0403 15:27:40.953506 31918 net.cpp:141] Setting up inception_4e/3x3_reduce
I0403 15:27:40.953539 31918 net.cpp:148] Top shape: 24 160 14 14 (752640)
I0403 15:27:40.953557 31918 net.cpp:156] Memory required for data: 1221076512
I0403 15:27:40.953579 31918 layer_factory.hpp:77] Creating layer inception_4e/relu_3x3_reduce
I0403 15:27:40.953601 31918 net.cpp:91] Creating Layer inception_4e/relu_3x3_reduce
I0403 15:27:40.953622 31918 net.cpp:425] inception_4e/relu_3x3_reduce <- inception_4e/3x3_reduce
I0403 15:27:40.953649 31918 net.cpp:386] inception_4e/relu_3x3_reduce -> inception_4e/3x3_reduce (in-place)
I0403 15:27:40.953876 31918 net.cpp:141] Setting up inception_4e/relu_3x3_reduce
I0403 15:27:40.953905 31918 net.cpp:148] Top shape: 24 160 14 14 (752640)
I0403 15:27:40.953924 31918 net.cpp:156] Memory required for data: 1224087072
I0403 15:27:40.953944 31918 layer_factory.hpp:77] Creating layer inception_4e/3x3
I0403 15:27:40.953971 31918 net.cpp:91] Creating Layer inception_4e/3x3
I0403 15:27:40.953994 31918 net.cpp:425] inception_4e/3x3 <- inception_4e/3x3_reduce
I0403 15:27:40.954016 31918 net.cpp:399] inception_4e/3x3 -> inception_4e/3x3
I0403 15:27:40.959218 31918 net.cpp:141] Setting up inception_4e/3x3
I0403 15:27:40.959259 31918 net.cpp:148] Top shape: 24 320 14 14 (1505280)
I0403 15:27:40.959276 31918 net.cpp:156] Memory required for data: 1230108192
I0403 15:27:40.959295 31918 layer_factory.hpp:77] Creating layer inception_4e/relu_3x3
I0403 15:27:40.959319 31918 net.cpp:91] Creating Layer inception_4e/relu_3x3
I0403 15:27:40.959339 31918 net.cpp:425] inception_4e/relu_3x3 <- inception_4e/3x3
I0403 15:27:40.959357 31918 net.cpp:386] inception_4e/relu_3x3 -> inception_4e/3x3 (in-place)
I0403 15:27:40.959667 31918 net.cpp:141] Setting up inception_4e/relu_3x3
I0403 15:27:40.959695 31918 net.cpp:148] Top shape: 24 320 14 14 (1505280)
I0403 15:27:40.959710 31918 net.cpp:156] Memory required for data: 1236129312
I0403 15:27:40.959727 31918 layer_factory.hpp:77] Creating layer inception_4e/5x5_reduce
I0403 15:27:40.959750 31918 net.cpp:91] Creating Layer inception_4e/5x5_reduce
I0403 15:27:40.959769 31918 net.cpp:425] inception_4e/5x5_reduce <- inception_4d/output_inception_4d/output_0_split_3
I0403 15:27:40.959792 31918 net.cpp:399] inception_4e/5x5_reduce -> inception_4e/5x5_reduce
I0403 15:27:40.960898 31918 net.cpp:141] Setting up inception_4e/5x5_reduce
I0403 15:27:40.960928 31918 net.cpp:148] Top shape: 24 32 14 14 (150528)
I0403 15:27:40.960945 31918 net.cpp:156] Memory required for data: 1236731424
I0403 15:27:40.960964 31918 layer_factory.hpp:77] Creating layer inception_4e/relu_5x5_reduce
I0403 15:27:40.960983 31918 net.cpp:91] Creating Layer inception_4e/relu_5x5_reduce
I0403 15:27:40.961000 31918 net.cpp:425] inception_4e/relu_5x5_reduce <- inception_4e/5x5_reduce
I0403 15:27:40.961021 31918 net.cpp:386] inception_4e/relu_5x5_reduce -> inception_4e/5x5_reduce (in-place)
I0403 15:27:40.961356 31918 net.cpp:141] Setting up inception_4e/relu_5x5_reduce
I0403 15:27:40.961386 31918 net.cpp:148] Top shape: 24 32 14 14 (150528)
I0403 15:27:40.961403 31918 net.cpp:156] Memory required for data: 1237333536
I0403 15:27:40.961419 31918 layer_factory.hpp:77] Creating layer inception_4e/5x5
I0403 15:27:40.961459 31918 net.cpp:91] Creating Layer inception_4e/5x5
I0403 15:27:40.961480 31918 net.cpp:425] inception_4e/5x5 <- inception_4e/5x5_reduce
I0403 15:27:40.961501 31918 net.cpp:399] inception_4e/5x5 -> inception_4e/5x5
I0403 15:27:40.963445 31918 net.cpp:141] Setting up inception_4e/5x5
I0403 15:27:40.963477 31918 net.cpp:148] Top shape: 24 128 14 14 (602112)
I0403 15:27:40.963495 31918 net.cpp:156] Memory required for data: 1239741984
I0403 15:27:40.963515 31918 layer_factory.hpp:77] Creating layer inception_4e/relu_5x5
I0403 15:27:40.963536 31918 net.cpp:91] Creating Layer inception_4e/relu_5x5
I0403 15:27:40.963553 31918 net.cpp:425] inception_4e/relu_5x5 <- inception_4e/5x5
I0403 15:27:40.963574 31918 net.cpp:386] inception_4e/relu_5x5 -> inception_4e/5x5 (in-place)
I0403 15:27:40.963790 31918 net.cpp:141] Setting up inception_4e/relu_5x5
I0403 15:27:40.963816 31918 net.cpp:148] Top shape: 24 128 14 14 (602112)
I0403 15:27:40.963832 31918 net.cpp:156] Memory required for data: 1242150432
I0403 15:27:40.963848 31918 layer_factory.hpp:77] Creating layer inception_4e/pool
I0403 15:27:40.963866 31918 net.cpp:91] Creating Layer inception_4e/pool
I0403 15:27:40.963883 31918 net.cpp:425] inception_4e/pool <- inception_4d/output_inception_4d/output_0_split_4
I0403 15:27:40.963903 31918 net.cpp:399] inception_4e/pool -> inception_4e/pool
I0403 15:27:40.963978 31918 net.cpp:141] Setting up inception_4e/pool
I0403 15:27:40.964001 31918 net.cpp:148] Top shape: 24 528 14 14 (2483712)
I0403 15:27:40.964016 31918 net.cpp:156] Memory required for data: 1252085280
I0403 15:27:40.964032 31918 layer_factory.hpp:77] Creating layer inception_4e/pool_proj
I0403 15:27:40.964057 31918 net.cpp:91] Creating Layer inception_4e/pool_proj
I0403 15:27:40.964074 31918 net.cpp:425] inception_4e/pool_proj <- inception_4e/pool
I0403 15:27:40.964094 31918 net.cpp:399] inception_4e/pool_proj -> inception_4e/pool_proj
I0403 15:27:40.965654 31918 net.cpp:141] Setting up inception_4e/pool_proj
I0403 15:27:40.965684 31918 net.cpp:148] Top shape: 24 128 14 14 (602112)
I0403 15:27:40.965715 31918 net.cpp:156] Memory required for data: 1254493728
I0403 15:27:40.965735 31918 layer_factory.hpp:77] Creating layer inception_4e/relu_pool_proj
I0403 15:27:40.965757 31918 net.cpp:91] Creating Layer inception_4e/relu_pool_proj
I0403 15:27:40.965775 31918 net.cpp:425] inception_4e/relu_pool_proj <- inception_4e/pool_proj
I0403 15:27:40.965793 31918 net.cpp:386] inception_4e/relu_pool_proj -> inception_4e/pool_proj (in-place)
I0403 15:27:40.966097 31918 net.cpp:141] Setting up inception_4e/relu_pool_proj
I0403 15:27:40.966125 31918 net.cpp:148] Top shape: 24 128 14 14 (602112)
I0403 15:27:40.966140 31918 net.cpp:156] Memory required for data: 1256902176
I0403 15:27:40.966156 31918 layer_factory.hpp:77] Creating layer inception_4e/output
I0403 15:27:40.966176 31918 net.cpp:91] Creating Layer inception_4e/output
I0403 15:27:40.966193 31918 net.cpp:425] inception_4e/output <- inception_4e/1x1
I0403 15:27:40.966210 31918 net.cpp:425] inception_4e/output <- inception_4e/3x3
I0403 15:27:40.966228 31918 net.cpp:425] inception_4e/output <- inception_4e/5x5
I0403 15:27:40.966244 31918 net.cpp:425] inception_4e/output <- inception_4e/pool_proj
I0403 15:27:40.966262 31918 net.cpp:399] inception_4e/output -> inception_4e/output
I0403 15:27:40.966320 31918 net.cpp:141] Setting up inception_4e/output
I0403 15:27:40.966359 31918 net.cpp:148] Top shape: 24 832 14 14 (3913728)
I0403 15:27:40.966375 31918 net.cpp:156] Memory required for data: 1272557088
I0403 15:27:40.966390 31918 layer_factory.hpp:77] Creating layer pool4/3x3_s2
I0403 15:27:40.966409 31918 net.cpp:91] Creating Layer pool4/3x3_s2
I0403 15:27:40.966426 31918 net.cpp:425] pool4/3x3_s2 <- inception_4e/output
I0403 15:27:40.966449 31918 net.cpp:399] pool4/3x3_s2 -> pool4/3x3_s2
I0403 15:27:40.966521 31918 net.cpp:141] Setting up pool4/3x3_s2
I0403 15:27:40.966545 31918 net.cpp:148] Top shape: 24 832 7 7 (978432)
I0403 15:27:40.966560 31918 net.cpp:156] Memory required for data: 1276470816
I0403 15:27:40.966577 31918 layer_factory.hpp:77] Creating layer pool4/3x3_s2_pool4/3x3_s2_0_split
I0403 15:27:40.966600 31918 net.cpp:91] Creating Layer pool4/3x3_s2_pool4/3x3_s2_0_split
I0403 15:27:40.966619 31918 net.cpp:425] pool4/3x3_s2_pool4/3x3_s2_0_split <- pool4/3x3_s2
I0403 15:27:40.966640 31918 net.cpp:399] pool4/3x3_s2_pool4/3x3_s2_0_split -> pool4/3x3_s2_pool4/3x3_s2_0_split_0
I0403 15:27:40.966662 31918 net.cpp:399] pool4/3x3_s2_pool4/3x3_s2_0_split -> pool4/3x3_s2_pool4/3x3_s2_0_split_1
I0403 15:27:40.966683 31918 net.cpp:399] pool4/3x3_s2_pool4/3x3_s2_0_split -> pool4/3x3_s2_pool4/3x3_s2_0_split_2
I0403 15:27:40.966704 31918 net.cpp:399] pool4/3x3_s2_pool4/3x3_s2_0_split -> pool4/3x3_s2_pool4/3x3_s2_0_split_3
I0403 15:27:40.966799 31918 net.cpp:141] Setting up pool4/3x3_s2_pool4/3x3_s2_0_split
I0403 15:27:40.966826 31918 net.cpp:148] Top shape: 24 832 7 7 (978432)
I0403 15:27:40.966845 31918 net.cpp:148] Top shape: 24 832 7 7 (978432)
I0403 15:27:40.966862 31918 net.cpp:148] Top shape: 24 832 7 7 (978432)
I0403 15:27:40.966879 31918 net.cpp:148] Top shape: 24 832 7 7 (978432)
I0403 15:27:40.966893 31918 net.cpp:156] Memory required for data: 1292125728
I0403 15:27:40.966909 31918 layer_factory.hpp:77] Creating layer inception_5a/1x1
I0403 15:27:40.966933 31918 net.cpp:91] Creating Layer inception_5a/1x1
I0403 15:27:40.966951 31918 net.cpp:425] inception_5a/1x1 <- pool4/3x3_s2_pool4/3x3_s2_0_split_0
I0403 15:27:40.966972 31918 net.cpp:399] inception_5a/1x1 -> inception_5a/1x1
I0403 15:27:40.970021 31918 net.cpp:141] Setting up inception_5a/1x1
I0403 15:27:40.970053 31918 net.cpp:148] Top shape: 24 256 7 7 (301056)
I0403 15:27:40.970072 31918 net.cpp:156] Memory required for data: 1293329952
I0403 15:27:40.970091 31918 layer_factory.hpp:77] Creating layer inception_5a/relu_1x1
I0403 15:27:40.970111 31918 net.cpp:91] Creating Layer inception_5a/relu_1x1
I0403 15:27:40.970129 31918 net.cpp:425] inception_5a/relu_1x1 <- inception_5a/1x1
I0403 15:27:40.970150 31918 net.cpp:386] inception_5a/relu_1x1 -> inception_5a/1x1 (in-place)
I0403 15:27:40.970485 31918 net.cpp:141] Setting up inception_5a/relu_1x1
I0403 15:27:40.970515 31918 net.cpp:148] Top shape: 24 256 7 7 (301056)
I0403 15:27:40.970532 31918 net.cpp:156] Memory required for data: 1294534176
I0403 15:27:40.970549 31918 layer_factory.hpp:77] Creating layer inception_5a/3x3_reduce
I0403 15:27:40.970573 31918 net.cpp:91] Creating Layer inception_5a/3x3_reduce
I0403 15:27:40.970592 31918 net.cpp:425] inception_5a/3x3_reduce <- pool4/3x3_s2_pool4/3x3_s2_0_split_1
I0403 15:27:40.970613 31918 net.cpp:399] inception_5a/3x3_reduce -> inception_5a/3x3_reduce
I0403 15:27:40.973232 31918 net.cpp:141] Setting up inception_5a/3x3_reduce
I0403 15:27:40.973263 31918 net.cpp:148] Top shape: 24 160 7 7 (188160)
I0403 15:27:40.973279 31918 net.cpp:156] Memory required for data: 1295286816
I0403 15:27:40.973299 31918 layer_factory.hpp:77] Creating layer inception_5a/relu_3x3_reduce
I0403 15:27:40.973325 31918 net.cpp:91] Creating Layer inception_5a/relu_3x3_reduce
I0403 15:27:40.973348 31918 net.cpp:425] inception_5a/relu_3x3_reduce <- inception_5a/3x3_reduce
I0403 15:27:40.973367 31918 net.cpp:386] inception_5a/relu_3x3_reduce -> inception_5a/3x3_reduce (in-place)
I0403 15:27:40.973568 31918 net.cpp:141] Setting up inception_5a/relu_3x3_reduce
I0403 15:27:40.973598 31918 net.cpp:148] Top shape: 24 160 7 7 (188160)
I0403 15:27:40.973618 31918 net.cpp:156] Memory required for data: 1296039456
I0403 15:27:40.973635 31918 layer_factory.hpp:77] Creating layer inception_5a/3x3
I0403 15:27:40.973660 31918 net.cpp:91] Creating Layer inception_5a/3x3
I0403 15:27:40.973680 31918 net.cpp:425] inception_5a/3x3 <- inception_5a/3x3_reduce
I0403 15:27:40.973700 31918 net.cpp:399] inception_5a/3x3 -> inception_5a/3x3
I0403 15:27:40.979056 31918 net.cpp:141] Setting up inception_5a/3x3
I0403 15:27:40.979090 31918 net.cpp:148] Top shape: 24 320 7 7 (376320)
I0403 15:27:40.979109 31918 net.cpp:156] Memory required for data: 1297544736
I0403 15:27:40.979141 31918 layer_factory.hpp:77] Creating layer inception_5a/relu_3x3
I0403 15:27:40.979161 31918 net.cpp:91] Creating Layer inception_5a/relu_3x3
I0403 15:27:40.979177 31918 net.cpp:425] inception_5a/relu_3x3 <- inception_5a/3x3
I0403 15:27:40.979209 31918 net.cpp:386] inception_5a/relu_3x3 -> inception_5a/3x3 (in-place)
I0403 15:27:40.979528 31918 net.cpp:141] Setting up inception_5a/relu_3x3
I0403 15:27:40.979567 31918 net.cpp:148] Top shape: 24 320 7 7 (376320)
I0403 15:27:40.979584 31918 net.cpp:156] Memory required for data: 1299050016
I0403 15:27:40.979604 31918 layer_factory.hpp:77] Creating layer inception_5a/5x5_reduce
I0403 15:27:40.979629 31918 net.cpp:91] Creating Layer inception_5a/5x5_reduce
I0403 15:27:40.979648 31918 net.cpp:425] inception_5a/5x5_reduce <- pool4/3x3_s2_pool4/3x3_s2_0_split_2
I0403 15:27:40.979670 31918 net.cpp:399] inception_5a/5x5_reduce -> inception_5a/5x5_reduce
I0403 15:27:40.980921 31918 net.cpp:141] Setting up inception_5a/5x5_reduce
I0403 15:27:40.980957 31918 net.cpp:148] Top shape: 24 32 7 7 (37632)
I0403 15:27:40.980974 31918 net.cpp:156] Memory required for data: 1299200544
I0403 15:27:40.980996 31918 layer_factory.hpp:77] Creating layer inception_5a/relu_5x5_reduce
I0403 15:27:40.981016 31918 net.cpp:91] Creating Layer inception_5a/relu_5x5_reduce
I0403 15:27:40.981035 31918 net.cpp:425] inception_5a/relu_5x5_reduce <- inception_5a/5x5_reduce
I0403 15:27:40.981071 31918 net.cpp:386] inception_5a/relu_5x5_reduce -> inception_5a/5x5_reduce (in-place)
I0403 15:27:40.981422 31918 net.cpp:141] Setting up inception_5a/relu_5x5_reduce
I0403 15:27:40.981451 31918 net.cpp:148] Top shape: 24 32 7 7 (37632)
I0403 15:27:40.981467 31918 net.cpp:156] Memory required for data: 1299351072
I0403 15:27:40.981484 31918 layer_factory.hpp:77] Creating layer inception_5a/5x5
I0403 15:27:40.981508 31918 net.cpp:91] Creating Layer inception_5a/5x5
I0403 15:27:40.981528 31918 net.cpp:425] inception_5a/5x5 <- inception_5a/5x5_reduce
I0403 15:27:40.981555 31918 net.cpp:399] inception_5a/5x5 -> inception_5a/5x5
I0403 15:27:40.983476 31918 net.cpp:141] Setting up inception_5a/5x5
I0403 15:27:40.983520 31918 net.cpp:148] Top shape: 24 128 7 7 (150528)
I0403 15:27:40.983539 31918 net.cpp:156] Memory required for data: 1299953184
I0403 15:27:40.983558 31918 layer_factory.hpp:77] Creating layer inception_5a/relu_5x5
I0403 15:27:40.983577 31918 net.cpp:91] Creating Layer inception_5a/relu_5x5
I0403 15:27:40.983595 31918 net.cpp:425] inception_5a/relu_5x5 <- inception_5a/5x5
I0403 15:27:40.983616 31918 net.cpp:386] inception_5a/relu_5x5 -> inception_5a/5x5 (in-place)
I0403 15:27:40.983821 31918 net.cpp:141] Setting up inception_5a/relu_5x5
I0403 15:27:40.983850 31918 net.cpp:148] Top shape: 24 128 7 7 (150528)
I0403 15:27:40.983866 31918 net.cpp:156] Memory required for data: 1300555296
I0403 15:27:40.983882 31918 layer_factory.hpp:77] Creating layer inception_5a/pool
I0403 15:27:40.983901 31918 net.cpp:91] Creating Layer inception_5a/pool
I0403 15:27:40.983917 31918 net.cpp:425] inception_5a/pool <- pool4/3x3_s2_pool4/3x3_s2_0_split_3
I0403 15:27:40.983939 31918 net.cpp:399] inception_5a/pool -> inception_5a/pool
I0403 15:27:40.984022 31918 net.cpp:141] Setting up inception_5a/pool
I0403 15:27:40.984058 31918 net.cpp:148] Top shape: 24 832 7 7 (978432)
I0403 15:27:40.984081 31918 net.cpp:156] Memory required for data: 1304469024
I0403 15:27:40.984099 31918 layer_factory.hpp:77] Creating layer inception_5a/pool_proj
I0403 15:27:40.984125 31918 net.cpp:91] Creating Layer inception_5a/pool_proj
I0403 15:27:40.984144 31918 net.cpp:425] inception_5a/pool_proj <- inception_5a/pool
I0403 15:27:40.984163 31918 net.cpp:399] inception_5a/pool_proj -> inception_5a/pool_proj
I0403 15:27:40.986618 31918 net.cpp:141] Setting up inception_5a/pool_proj
I0403 15:27:40.986660 31918 net.cpp:148] Top shape: 24 128 7 7 (150528)
I0403 15:27:40.986677 31918 net.cpp:156] Memory required for data: 1305071136
I0403 15:27:40.986698 31918 layer_factory.hpp:77] Creating layer inception_5a/relu_pool_proj
I0403 15:27:40.986718 31918 net.cpp:91] Creating Layer inception_5a/relu_pool_proj
I0403 15:27:40.986737 31918 net.cpp:425] inception_5a/relu_pool_proj <- inception_5a/pool_proj
I0403 15:27:40.986763 31918 net.cpp:386] inception_5a/relu_pool_proj -> inception_5a/pool_proj (in-place)
I0403 15:27:40.987082 31918 net.cpp:141] Setting up inception_5a/relu_pool_proj
I0403 15:27:40.987112 31918 net.cpp:148] Top shape: 24 128 7 7 (150528)
I0403 15:27:40.987129 31918 net.cpp:156] Memory required for data: 1305673248
I0403 15:27:40.987145 31918 layer_factory.hpp:77] Creating layer inception_5a/output
I0403 15:27:40.987164 31918 net.cpp:91] Creating Layer inception_5a/output
I0403 15:27:40.987184 31918 net.cpp:425] inception_5a/output <- inception_5a/1x1
I0403 15:27:40.987205 31918 net.cpp:425] inception_5a/output <- inception_5a/3x3
I0403 15:27:40.987223 31918 net.cpp:425] inception_5a/output <- inception_5a/5x5
I0403 15:27:40.987249 31918 net.cpp:425] inception_5a/output <- inception_5a/pool_proj
I0403 15:27:40.987270 31918 net.cpp:399] inception_5a/output -> inception_5a/output
I0403 15:27:40.987331 31918 net.cpp:141] Setting up inception_5a/output
I0403 15:27:40.987361 31918 net.cpp:148] Top shape: 24 832 7 7 (978432)
I0403 15:27:40.987380 31918 net.cpp:156] Memory required for data: 1309586976
I0403 15:27:40.987396 31918 layer_factory.hpp:77] Creating layer inception_5a/output_inception_5a/output_0_split
I0403 15:27:40.987413 31918 net.cpp:91] Creating Layer inception_5a/output_inception_5a/output_0_split
I0403 15:27:40.987429 31918 net.cpp:425] inception_5a/output_inception_5a/output_0_split <- inception_5a/output
I0403 15:27:40.987452 31918 net.cpp:399] inception_5a/output_inception_5a/output_0_split -> inception_5a/output_inception_5a/output_0_split_0
I0403 15:27:40.987483 31918 net.cpp:399] inception_5a/output_inception_5a/output_0_split -> inception_5a/output_inception_5a/output_0_split_1
I0403 15:27:40.987506 31918 net.cpp:399] inception_5a/output_inception_5a/output_0_split -> inception_5a/output_inception_5a/output_0_split_2
I0403 15:27:40.987529 31918 net.cpp:399] inception_5a/output_inception_5a/output_0_split -> inception_5a/output_inception_5a/output_0_split_3
I0403 15:27:40.987658 31918 net.cpp:141] Setting up inception_5a/output_inception_5a/output_0_split
I0403 15:27:40.987684 31918 net.cpp:148] Top shape: 24 832 7 7 (978432)
I0403 15:27:40.987701 31918 net.cpp:148] Top shape: 24 832 7 7 (978432)
I0403 15:27:40.987717 31918 net.cpp:148] Top shape: 24 832 7 7 (978432)
I0403 15:27:40.987735 31918 net.cpp:148] Top shape: 24 832 7 7 (978432)
I0403 15:27:40.987749 31918 net.cpp:156] Memory required for data: 1325241888
I0403 15:27:40.987764 31918 layer_factory.hpp:77] Creating layer inception_5b/1x1
I0403 15:27:40.987788 31918 net.cpp:91] Creating Layer inception_5b/1x1
I0403 15:27:40.987807 31918 net.cpp:425] inception_5b/1x1 <- inception_5a/output_inception_5a/output_0_split_0
I0403 15:27:40.987829 31918 net.cpp:399] inception_5b/1x1 -> inception_5b/1x1
I0403 15:27:40.991852 31918 net.cpp:141] Setting up inception_5b/1x1
I0403 15:27:40.991883 31918 net.cpp:148] Top shape: 24 384 7 7 (451584)
I0403 15:27:40.991901 31918 net.cpp:156] Memory required for data: 1327048224
I0403 15:27:40.991921 31918 layer_factory.hpp:77] Creating layer inception_5b/relu_1x1
I0403 15:27:40.991945 31918 net.cpp:91] Creating Layer inception_5b/relu_1x1
I0403 15:27:40.991971 31918 net.cpp:425] inception_5b/relu_1x1 <- inception_5b/1x1
I0403 15:27:40.991999 31918 net.cpp:386] inception_5b/relu_1x1 -> inception_5b/1x1 (in-place)
I0403 15:27:40.992331 31918 net.cpp:141] Setting up inception_5b/relu_1x1
I0403 15:27:40.992358 31918 net.cpp:148] Top shape: 24 384 7 7 (451584)
I0403 15:27:40.992374 31918 net.cpp:156] Memory required for data: 1328854560
I0403 15:27:40.992390 31918 layer_factory.hpp:77] Creating layer inception_5b/3x3_reduce
I0403 15:27:40.992414 31918 net.cpp:91] Creating Layer inception_5b/3x3_reduce
I0403 15:27:40.992435 31918 net.cpp:425] inception_5b/3x3_reduce <- inception_5a/output_inception_5a/output_0_split_1
I0403 15:27:40.992460 31918 net.cpp:399] inception_5b/3x3_reduce -> inception_5b/3x3_reduce
I0403 15:27:40.995317 31918 net.cpp:141] Setting up inception_5b/3x3_reduce
I0403 15:27:40.995350 31918 net.cpp:148] Top shape: 24 192 7 7 (225792)
I0403 15:27:40.995376 31918 net.cpp:156] Memory required for data: 1329757728
I0403 15:27:40.995399 31918 layer_factory.hpp:77] Creating layer inception_5b/relu_3x3_reduce
I0403 15:27:40.995422 31918 net.cpp:91] Creating Layer inception_5b/relu_3x3_reduce
I0403 15:27:40.995440 31918 net.cpp:425] inception_5b/relu_3x3_reduce <- inception_5b/3x3_reduce
I0403 15:27:40.995460 31918 net.cpp:386] inception_5b/relu_3x3_reduce -> inception_5b/3x3_reduce (in-place)
I0403 15:27:40.995666 31918 net.cpp:141] Setting up inception_5b/relu_3x3_reduce
I0403 15:27:40.995694 31918 net.cpp:148] Top shape: 24 192 7 7 (225792)
I0403 15:27:40.995718 31918 net.cpp:156] Memory required for data: 1330660896
I0403 15:27:40.995735 31918 layer_factory.hpp:77] Creating layer inception_5b/3x3
I0403 15:27:40.995760 31918 net.cpp:91] Creating Layer inception_5b/3x3
I0403 15:27:40.995779 31918 net.cpp:425] inception_5b/3x3 <- inception_5b/3x3_reduce
I0403 15:27:40.995802 31918 net.cpp:399] inception_5b/3x3 -> inception_5b/3x3
I0403 15:27:41.002998 31918 net.cpp:141] Setting up inception_5b/3x3
I0403 15:27:41.003032 31918 net.cpp:148] Top shape: 24 384 7 7 (451584)
I0403 15:27:41.003067 31918 net.cpp:156] Memory required for data: 1332467232
I0403 15:27:41.003090 31918 layer_factory.hpp:77] Creating layer inception_5b/relu_3x3
I0403 15:27:41.003111 31918 net.cpp:91] Creating Layer inception_5b/relu_3x3
I0403 15:27:41.003129 31918 net.cpp:425] inception_5b/relu_3x3 <- inception_5b/3x3
I0403 15:27:41.003147 31918 net.cpp:386] inception_5b/relu_3x3 -> inception_5b/3x3 (in-place)
I0403 15:27:41.003479 31918 net.cpp:141] Setting up inception_5b/relu_3x3
I0403 15:27:41.003509 31918 net.cpp:148] Top shape: 24 384 7 7 (451584)
I0403 15:27:41.003526 31918 net.cpp:156] Memory required for data: 1334273568
I0403 15:27:41.003548 31918 layer_factory.hpp:77] Creating layer inception_5b/5x5_reduce
I0403 15:27:41.003594 31918 net.cpp:91] Creating Layer inception_5b/5x5_reduce
I0403 15:27:41.003614 31918 net.cpp:425] inception_5b/5x5_reduce <- inception_5a/output_inception_5a/output_0_split_2
I0403 15:27:41.003638 31918 net.cpp:399] inception_5b/5x5_reduce -> inception_5b/5x5_reduce
I0403 15:27:41.005014 31918 net.cpp:141] Setting up inception_5b/5x5_reduce
I0403 15:27:41.005044 31918 net.cpp:148] Top shape: 24 48 7 7 (56448)
I0403 15:27:41.005061 31918 net.cpp:156] Memory required for data: 1334499360
I0403 15:27:41.005081 31918 layer_factory.hpp:77] Creating layer inception_5b/relu_5x5_reduce
I0403 15:27:41.005103 31918 net.cpp:91] Creating Layer inception_5b/relu_5x5_reduce
I0403 15:27:41.005122 31918 net.cpp:425] inception_5b/relu_5x5_reduce <- inception_5b/5x5_reduce
I0403 15:27:41.005141 31918 net.cpp:386] inception_5b/relu_5x5_reduce -> inception_5b/5x5_reduce (in-place)
I0403 15:27:41.005553 31918 net.cpp:141] Setting up inception_5b/relu_5x5_reduce
I0403 15:27:41.005595 31918 net.cpp:148] Top shape: 24 48 7 7 (56448)
I0403 15:27:41.005614 31918 net.cpp:156] Memory required for data: 1334725152
I0403 15:27:41.005630 31918 layer_factory.hpp:77] Creating layer inception_5b/5x5
I0403 15:27:41.005652 31918 net.cpp:91] Creating Layer inception_5b/5x5
I0403 15:27:41.005671 31918 net.cpp:425] inception_5b/5x5 <- inception_5b/5x5_reduce
I0403 15:27:41.005692 31918 net.cpp:399] inception_5b/5x5 -> inception_5b/5x5
I0403 15:27:41.007928 31918 net.cpp:141] Setting up inception_5b/5x5
I0403 15:27:41.007962 31918 net.cpp:148] Top shape: 24 128 7 7 (150528)
I0403 15:27:41.007987 31918 net.cpp:156] Memory required for data: 1335327264
I0403 15:27:41.008008 31918 layer_factory.hpp:77] Creating layer inception_5b/relu_5x5
I0403 15:27:41.008028 31918 net.cpp:91] Creating Layer inception_5b/relu_5x5
I0403 15:27:41.008046 31918 net.cpp:425] inception_5b/relu_5x5 <- inception_5b/5x5
I0403 15:27:41.008072 31918 net.cpp:386] inception_5b/relu_5x5 -> inception_5b/5x5 (in-place)
I0403 15:27:41.008285 31918 net.cpp:141] Setting up inception_5b/relu_5x5
I0403 15:27:41.008338 31918 net.cpp:148] Top shape: 24 128 7 7 (150528)
I0403 15:27:41.008358 31918 net.cpp:156] Memory required for data: 1335929376
I0403 15:27:41.008373 31918 layer_factory.hpp:77] Creating layer inception_5b/pool
I0403 15:27:41.008394 31918 net.cpp:91] Creating Layer inception_5b/pool
I0403 15:27:41.008414 31918 net.cpp:425] inception_5b/pool <- inception_5a/output_inception_5a/output_0_split_3
I0403 15:27:41.008447 31918 net.cpp:399] inception_5b/pool -> inception_5b/pool
I0403 15:27:41.008539 31918 net.cpp:141] Setting up inception_5b/pool
I0403 15:27:41.008570 31918 net.cpp:148] Top shape: 24 832 7 7 (978432)
I0403 15:27:41.008590 31918 net.cpp:156] Memory required for data: 1339843104
I0403 15:27:41.008606 31918 layer_factory.hpp:77] Creating layer inception_5b/pool_proj
I0403 15:27:41.008630 31918 net.cpp:91] Creating Layer inception_5b/pool_proj
I0403 15:27:41.008651 31918 net.cpp:425] inception_5b/pool_proj <- inception_5b/pool
I0403 15:27:41.008677 31918 net.cpp:399] inception_5b/pool_proj -> inception_5b/pool_proj
I0403 15:27:41.011148 31918 net.cpp:141] Setting up inception_5b/pool_proj
I0403 15:27:41.011179 31918 net.cpp:148] Top shape: 24 128 7 7 (150528)
I0403 15:27:41.011196 31918 net.cpp:156] Memory required for data: 1340445216
I0403 15:27:41.011217 31918 layer_factory.hpp:77] Creating layer inception_5b/relu_pool_proj
I0403 15:27:41.011245 31918 net.cpp:91] Creating Layer inception_5b/relu_pool_proj
I0403 15:27:41.011268 31918 net.cpp:425] inception_5b/relu_pool_proj <- inception_5b/pool_proj
I0403 15:27:41.011287 31918 net.cpp:386] inception_5b/relu_pool_proj -> inception_5b/pool_proj (in-place)
I0403 15:27:41.011612 31918 net.cpp:141] Setting up inception_5b/relu_pool_proj
I0403 15:27:41.011641 31918 net.cpp:148] Top shape: 24 128 7 7 (150528)
I0403 15:27:41.011657 31918 net.cpp:156] Memory required for data: 1341047328
I0403 15:27:41.011673 31918 layer_factory.hpp:77] Creating layer inception_5b/output
I0403 15:27:41.011694 31918 net.cpp:91] Creating Layer inception_5b/output
I0403 15:27:41.011739 31918 net.cpp:425] inception_5b/output <- inception_5b/1x1
I0403 15:27:41.011759 31918 net.cpp:425] inception_5b/output <- inception_5b/3x3
I0403 15:27:41.011776 31918 net.cpp:425] inception_5b/output <- inception_5b/5x5
I0403 15:27:41.011795 31918 net.cpp:425] inception_5b/output <- inception_5b/pool_proj
I0403 15:27:41.011819 31918 net.cpp:399] inception_5b/output -> inception_5b/output
I0403 15:27:41.011879 31918 net.cpp:141] Setting up inception_5b/output
I0403 15:27:41.011905 31918 net.cpp:148] Top shape: 24 1024 7 7 (1204224)
I0403 15:27:41.011920 31918 net.cpp:156] Memory required for data: 1345864224
I0403 15:27:41.011937 31918 layer_factory.hpp:77] Creating layer pool5/7x7_s1
I0403 15:27:41.011958 31918 net.cpp:91] Creating Layer pool5/7x7_s1
I0403 15:27:41.011977 31918 net.cpp:425] pool5/7x7_s1 <- inception_5b/output
I0403 15:27:41.011998 31918 net.cpp:399] pool5/7x7_s1 -> pool5/7x7_s1
I0403 15:27:41.012228 31918 net.cpp:141] Setting up pool5/7x7_s1
I0403 15:27:41.012259 31918 net.cpp:148] Top shape: 24 1024 1 1 (24576)
I0403 15:27:41.012279 31918 net.cpp:156] Memory required for data: 1345962528
I0403 15:27:41.012297 31918 layer_factory.hpp:77] Creating layer pool5/drop_7x7_s1
I0403 15:27:41.012336 31918 net.cpp:91] Creating Layer pool5/drop_7x7_s1
I0403 15:27:41.012364 31918 net.cpp:425] pool5/drop_7x7_s1 <- pool5/7x7_s1
I0403 15:27:41.012385 31918 net.cpp:386] pool5/drop_7x7_s1 -> pool5/7x7_s1 (in-place)
I0403 15:27:41.012439 31918 net.cpp:141] Setting up pool5/drop_7x7_s1
I0403 15:27:41.012465 31918 net.cpp:148] Top shape: 24 1024 1 1 (24576)
I0403 15:27:41.012481 31918 net.cpp:156] Memory required for data: 1346060832
I0403 15:27:41.012506 31918 layer_factory.hpp:77] Creating layer loss3/classifier_plantvillage
I0403 15:27:41.012531 31918 net.cpp:91] Creating Layer loss3/classifier_plantvillage
I0403 15:27:41.012552 31918 net.cpp:425] loss3/classifier_plantvillage <- pool5/7x7_s1
I0403 15:27:41.012574 31918 net.cpp:399] loss3/classifier_plantvillage -> loss3/classifier_plantvillage
I0403 15:27:41.013031 31918 net.cpp:141] Setting up loss3/classifier_plantvillage
I0403 15:27:41.013059 31918 net.cpp:148] Top shape: 24 38 (912)
I0403 15:27:41.013080 31918 net.cpp:156] Memory required for data: 1346064480
I0403 15:27:41.013110 31918 layer_factory.hpp:77] Creating layer loss3/classifier_plantvillage_loss3/classifier_plantvillage_0_split
I0403 15:27:41.013130 31918 net.cpp:91] Creating Layer loss3/classifier_plantvillage_loss3/classifier_plantvillage_0_split
I0403 15:27:41.013152 31918 net.cpp:425] loss3/classifier_plantvillage_loss3/classifier_plantvillage_0_split <- loss3/classifier_plantvillage
I0403 15:27:41.013171 31918 net.cpp:399] loss3/classifier_plantvillage_loss3/classifier_plantvillage_0_split -> loss3/classifier_plantvillage_loss3/classifier_plantvillage_0_split_0
I0403 15:27:41.013195 31918 net.cpp:399] loss3/classifier_plantvillage_loss3/classifier_plantvillage_0_split -> loss3/classifier_plantvillage_loss3/classifier_plantvillage_0_split_1
I0403 15:27:41.013218 31918 net.cpp:399] loss3/classifier_plantvillage_loss3/classifier_plantvillage_0_split -> loss3/classifier_plantvillage_loss3/classifier_plantvillage_0_split_2
I0403 15:27:41.013243 31918 net.cpp:399] loss3/classifier_plantvillage_loss3/classifier_plantvillage_0_split -> loss3/classifier_plantvillage_loss3/classifier_plantvillage_0_split_3
I0403 15:27:41.013370 31918 net.cpp:141] Setting up loss3/classifier_plantvillage_loss3/classifier_plantvillage_0_split
I0403 15:27:41.013396 31918 net.cpp:148] Top shape: 24 38 (912)
I0403 15:27:41.013413 31918 net.cpp:148] Top shape: 24 38 (912)
I0403 15:27:41.013432 31918 net.cpp:148] Top shape: 24 38 (912)
I0403 15:27:41.013448 31918 net.cpp:148] Top shape: 24 38 (912)
I0403 15:27:41.013463 31918 net.cpp:156] Memory required for data: 1346079072
I0403 15:27:41.013479 31918 layer_factory.hpp:77] Creating layer loss1/loss
I0403 15:27:41.013502 31918 net.cpp:91] Creating Layer loss1/loss
I0403 15:27:41.013525 31918 net.cpp:425] loss1/loss <- loss1/classifier_plantvillage_loss1/classifier_plantvillage_0_split_0
I0403 15:27:41.013563 31918 net.cpp:425] loss1/loss <- label_data_1_split_0
…
