…
I0403 14:24:26.395918 29672 net.cpp:313] The NetState phase (1) differed from the phase (0) specified by a rule in layer data
I0403 14:24:26.397112 29672 net.cpp:49] Initializing net from parameters: 
state {
  phase: TEST
}
layer {
  name: "data"
  type: "Data"
  top: "data"
  top: "label"
  include {
    phase: TEST
  }
  transform_param {
    mirror: false
    crop_size: 224
    mean_file: "/home/mohanty/data/final_dataset/lmdb/color-20-80/mean.binaryproto"
  }
  data_param {
    source: "/home/mohanty/data/final_dataset/lmdb/color-20-80/test_db"
    batch_size: 24
    backend: LMDB
  }
}
layer {
  name: "conv1/7x7_s2"
  type: "Convolution"
  bottom: "data"
  top: "conv1/7x7_s2"
  param {
    lr_mult: 1
    decay_mult: 1
  }
  param {
    lr_mult: 2
    decay_mult: 0
  }
  convolution_param {
    num_output: 64
    pad: 3
    kernel_size: 7
    stride: 2
    weight_filler {
      type: "xavier"
      std: 0.1
    }
    bias_filler {
      type: "constant"
      value: 0.2
    }
  }
}
layer {
  name: "conv1/relu_7x7"
  type: "ReLU"
  bottom: "conv1/7x7_s2"
  top: "conv1/7x7_s2"
}
layer {
  name: "pool1/3x3_s2"
  type: "Pooling"
  bottom: "conv1/7x7_s2"
  top: "pool1/3x3_s2"
  pooling_param {
    pool: MAX
    kernel_size: 3
    stride: 2
  }
}
layer {
  name: "pool1/norm1"
  type: "LRN"
  bottom: "pool1/3x3_s2"
  top: "pool1/norm1"
  lrn_param {
    local_size: 5
    alpha: 0.0001
    beta: 0.75
  }
}
layer {
  name: "conv2/3x3_reduce"
  type: "Convolution"
  bottom: "pool1/norm1"
  top: "conv2/3x3_reduce"
  param {
    lr_mult: 1
    decay_mult: 1
  }
  param {
    lr_mult: 2
    decay_mult: 0
  }
  convolution_param {
    num_output: 64
    kernel_size: 1
    weight_filler {
      type: "xavier"
      std: 0.1
    }
    bias_filler {
      type: "constant"
      value: 0.2
    }
  }
}
layer {
  name: "conv2/relu_3x3_reduce"
  type: "ReLU"
  bottom: "conv2/3x3_reduce"
  top: "conv2/3x3_reduce"
}
layer {
  name: "conv2/3x3"
  type: "Convolution"
  bottom: "conv2/3x3_reduce"
  top: "conv2/3x3"
  param {
    lr_mult: 1
    decay_mult: 1
  }
  param {
    lr_mult: 2
    decay_mult: 0
  }
  convolution_param {
    num_output: 192
    pad: 1
    kernel_size: 3
    weight_filler {
      type: "xavier"
      std: 0.03
    }
    bias_filler {
      type: "constant"
      value: 0.2
    }
  }
}
layer {
  name: "conv2/relu_3x3"
  type: "ReLU"
  bottom: "conv2/3x3"
  top: "conv2/3x3"
}
layer {
  name: "conv2/norm2"
  type: "LRN"
  bottom: "conv2/3x3"
  top: "conv2/norm2"
  lrn_param {
    local_size: 5
    alpha: 0.0001
    beta: 0.75
  }
}
layer {
  name: "pool2/3x3_s2"
  type: "Pooling"
  bottom: "conv2/norm2"
  top: "pool2/3x3_s2"
  pooling_param {
    pool: MAX
    kernel_size: 3
    stride: 2
  }
}
layer {
  name: "inception_3a/1x1"
  type: "Convolution"
  bottom: "pool2/3x3_s2"
  top: "inception_3a/1x1"
  param {
    lr_mult: 1
    decay_mult: 1
  }
  param {
    lr_mult: 2
    decay_mult: 0
  }
  convolution_param {
    num_output: 64
    kernel_size: 1
    weight_filler {
      type: "xavier"
      std: 0.03
    }
    bias_filler {
      type: "constant"
      value: 0.2
    }
  }
}
layer {
  name: "inception_3a/relu_1x1"
  type: "ReLU"
  bottom: "inception_3a/1x1"
  top: "inception_3a/1x1"
}
layer {
  name: "inception_3a/3x3_reduce"
  type: "Convolution"
  bottom: "pool2/3x3_s2"
  top: "inception_3a/3x3_reduce"
  param {
    lr_mult: 1
    decay_mult: 1
  }
  param {
    lr_mult: 2
    decay_mult: 0
  }
  convolution_param {
    num_output: 96
    kernel_size: 1
    weight_filler {
      type: "xavier"
      std: 0.09
    }
    bias_filler {
      type: "constant"
      value: 0.2
    }
  }
}
layer {
  name: "inception_3a/relu_3x3_reduce"
  type: "ReLU"
  bottom: "inception_3a/3x3_reduce"
  top: "inception_3a/3x3_reduce"
}
layer {
  name: "inception_3a/3x3"
  type: "Convolution"
  bottom: "inception_3a/3x3_reduce"
  top: "inception_3a/3x3"
  param {
    lr_mult: 1
    decay_mult: 1
  }
  param {
    lr_mult: 2
    decay_mult: 0
  }
  convolution_param {
    num_output: 128
    pad: 1
    kernel_size: 3
    weight_filler {
      type: "xavier"
      std: 0.03
    }
    bias_filler {
      type: "constant"
      value: 0.2
    }
  }
}
layer {
  name: "inception_3a/relu_3x3"
  type: "ReLU"
  bottom: "inception_3a/3x3"
  top: "inception_3a/3x3"
}
layer {
  name: "inception_3a/5x5_reduce"
  type: "Convolution"
  bottom: "pool2/3x3_s2"
  top: "inception_3a/5x5_reduce"
  param {
    lr_mult: 1
    decay_mult: 1
  }
  param {
    lr_mult: 2
    decay_mult: 0
  }
  convolution_param {
    num_output: 16
    kernel_size: 1
    weight_filler {
      type: "xavier"
      std: 0.2
    }
    bias_filler {
      type: "constant"
      value: 0.2
    }
  }
}
layer {
  name: "inception_3a/relu_5x5_reduce"
  type: "ReLU"
  bottom: "inception_3a/5x5_reduce"
  top: "inception_3a/5x5_reduce"
}
layer {
  name: "inception_3a/5x5"
  type: "Convolution"
  bottom: "inception_3a/5x5_reduce"
  top: "inception_3a/5x5"
  param {
    lr_mult: 1
    decay_mult: 1
  }
  param {
    lr_mult: 2
    decay_mult: 0
  }
  convolution_param {
    num_output: 32
    pad: 2
    kernel_size: 5
    weight_filler {
      type: "xavier"
      std: 0.03
    }
    bias_filler {
      type: "constant"
      value: 0.2
    }
  }
}
layer {
  name: "inception_3a/relu_5x5"
  type: "ReLU"
  bottom: "inception_3a/5x5"
  top: "inception_3a/5x5"
}
layer {
  name: "inception_3a/pool"
  type: "Pooling"
  bottom: "pool2/3x3_s2"
  top: "inception_3a/pool"
  pooling_param {
    pool: MAX
    kernel_size: 3
    stride: 1
    pad: 1
  }
}
layer {
  name: "inception_3a/pool_proj"
  type: "Convolution"
  bottom: "inception_3a/pool"
  top: "inception_3a/pool_proj"
  param {
    lr_mult: 1
    decay_mult: 1
  }
  param {
    lr_mult: 2
    decay_mult: 0
  }
  convolution_param {
    num_output: 32
    kernel_size: 1
    weight_filler {
      type: "xavier"
      std: 0.1
    }
    bias_filler {
      type: "constant"
      value: 0.2
    }
  }
}
layer {
  name: "inception_3a/relu_pool_proj"
  type: "ReLU"
  bottom: "inception_3a/pool_proj"
  top: "inception_3a/pool_proj"
}
layer {
  name: "inception_3a/output"
  type: "Concat"
  bottom: "inception_3a/1x1"
  bottom: "inception_3a/3x3"
  bottom: "inception_3a/5x5"
  bottom: "inception_3a/pool_proj"
  top: "inception_3a/output"
}
layer {
  name: "inception_3b/1x1"
  type: "Convolution"
  bottom: "inception_3a/output"
  top: "inception_3b/1x1"
  param {
    lr_mult: 1
    decay_mult: 1
  }
  param {
    lr_mult: 2
    decay_mult: 0
  }
  convolution_param {
    num_output: 128
    kernel_size: 1
    weight_filler {
      type: "xavier"
      std: 0.03
    }
    bias_filler {
      type: "constant"
      value: 0.2
    }
  }
}
layer {
  name: "inception_3b/relu_1x1"
  type: "ReLU"
  bottom: "inception_3b/1x1"
  top: "inception_3b/1x1"
}
layer {
  name: "inception_3b/3x3_reduce"
  type: "Convolution"
  bottom: "inception_3a/output"
  top: "inception_3b/3x3_reduce"
  param {
    lr_mult: 1
    decay_mult: 1
  }
  param {
    lr_mult: 2
    decay_mult: 0
  }
  convolution_param {
    num_output: 128
    kernel_size: 1
    weight_filler {
      type: "xavier"
      std: 0.09
    }
    bias_filler {
      type: "constant"
      value: 0.2
    }
  }
}
layer {
  name: "inception_3b/relu_3x3_reduce"
  type: "ReLU"
  bottom: "inception_3b/3x3_reduce"
  top: "inception_3b/3x3_reduce"
}
layer {
  name: "inception_3b/3x3"
  type: "Convolution"
  bottom: "inception_3b/3x3_reduce"
  top: "inception_3b/3x3"
  param {
    lr_mult: 1
    decay_mult: 1
  }
  param {
    lr_mult: 2
    decay_mult: 0
  }
  convolution_param {
    num_output: 192
    pad: 1
    kernel_size: 3
    weight_filler {
      type: "xavier"
      std: 0.03
    }
    bias_filler {
      type: "constant"
      value: 0.2
    }
  }
}
layer {
  name: "inception_3b/relu_3x3"
  type: "ReLU"
  bottom: "inception_3b/3x3"
  top: "inception_3b/3x3"
}
layer {
  name: "inception_3b/5x5_reduce"
  type: "Convolution"
  bottom: "inception_3a/output"
  top: "inception_3b/5x5_reduce"
  param {
    lr_mult: 1
    decay_mult: 1
  }
  param {
    lr_mult: 2
    decay_mult: 0
  }
  convolution_param {
    num_output: 32
    kernel_size: 1
    weight_filler {
      type: "xavier"
      std: 0.2
    }
    bias_filler {
      type: "constant"
      value: 0.2
    }
  }
}
layer {
  name: "inception_3b/relu_5x5_reduce"
  type: "ReLU"
  bottom: "inception_3b/5x5_reduce"
  top: "inception_3b/5x5_reduce"
}
layer {
  name: "inception_3b/5x5"
  type: "Convolution"
  bottom: "inception_3b/5x5_reduce"
  top: "inception_3b/5x5"
  param {
    lr_mult: 1
    decay_mult: 1
  }
  param {
    lr_mult: 2
    decay_mult: 0
  }
  convolution_param {
    num_output: 96
    pad: 2
    kernel_size: 5
    weight_filler {
      type: "xavier"
      std: 0.03
    }
    bias_filler {
      type: "constant"
      value: 0.2
    }
  }
}
layer {
  name: "inception_3b/relu_5x5"
  type: "ReLU"
  bottom: "inception_3b/5x5"
  top: "inception_3b/5x5"
}
layer {
  name: "inception_3b/pool"
  type: "Pooling"
  bottom: "inception_3a/output"
  top: "inception_3b/pool"
  pooling_param {
    pool: MAX
    kernel_size: 3
    stride: 1
    pad: 1
  }
}
layer {
  name: "inception_3b/pool_proj"
  type: "Convolution"
  bottom: "inception_3b/pool"
  top: "inception_3b/pool_proj"
  param {
    lr_mult: 1
    decay_mult: 1
  }
  param {
    lr_mult: 2
    decay_mult: 0
  }
  convolution_param {
    num_output: 64
    kernel_size: 1
    weight_filler {
      type: "xavier"
      std: 0.1
    }
    bias_filler {
      type: "constant"
      value: 0.2
    }
  }
}
layer {
  name: "inception_3b/relu_pool_proj"
  type: "ReLU"
  bottom: "inception_3b/pool_proj"
  top: "inception_3b/pool_proj"
}
layer {
  name: "inception_3b/output"
  type: "Concat"
  bottom: "inception_3b/1x1"
  bottom: "inception_3b/3x3"
  bottom: "inception_3b/5x5"
  bottom: "inception_3b/pool_proj"
  top: "inception_3b/output"
}
layer {
  name: "pool3/3x3_s2"
  type: "Pooling"
  bottom: "inception_3b/output"
  top: "pool3/3x3_s2"
  pooling_param {
    pool: MAX
    kernel_size: 3
    stride: 2
  }
}
layer {
  name: "inception_4a/1x1"
  type: "Convolution"
  bottom: "pool3/3x3_s2"
  top: "inception_4a/1x1"
  param {
    lr_mult: 1
    decay_mult: 1
  }
  param {
    lr_mult: 2
    decay_mult: 0
  }
  convolution_param {
    num_output: 192
    kernel_size: 1
    weight_filler {
      type: "xavier"
      std: 0.03
    }
    bias_filler {
      type: "constant"
      value: 0.2
    }
  }
}
layer {
  name: "inception_4a/relu_1x1"
  type: "ReLU"
  bottom: "inception_4a/1x1"
  top: "inception_4a/1x1"
}
layer {
  name: "inception_4a/3x3_reduce"
  type: "Convolution"
  bottom: "pool3/3x3_s2"
  top: "inception_4a/3x3_reduce"
  param {
    lr_mult: 1
    decay_mult: 1
  }
  param {
    lr_mult: 2
    decay_mult: 0
  }
  convolution_param {
    num_output: 96
    kernel_size: 1
    weight_filler {
      type: "xavier"
      std: 0.09
    }
    bias_filler {
      type: "constant"
      value: 0.2
    }
  }
}
layer {
  name: "inception_4a/relu_3x3_reduce"
  type: "ReLU"
  bottom: "inception_4a/3x3_reduce"
  top: "inception_4a/3x3_reduce"
}
layer {
  name: "inception_4a/3x3"
  type: "Convolution"
  bottom: "inception_4a/3x3_reduce"
  top: "inception_4a/3x3"
  param {
    lr_mult: 1
    decay_mult: 1
  }
  param {
    lr_mult: 2
    decay_mult: 0
  }
  convolution_param {
    num_output: 208
    pad: 1
    kernel_size: 3
    weight_filler {
      type: "xavier"
      std: 0.03
    }
    bias_filler {
      type: "constant"
      value: 0.2
    }
  }
}
layer {
  name: "inception_4a/relu_3x3"
  type: "ReLU"
  bottom: "inception_4a/3x3"
  top: "inception_4a/3x3"
}
layer {
  name: "inception_4a/5x5_reduce"
  type: "Convolution"
  bottom: "pool3/3x3_s2"
  top: "inception_4a/5x5_reduce"
  param {
    lr_mult: 1
    decay_mult: 1
  }
  param {
    lr_mult: 2
    decay_mult: 0
  }
  convolution_param {
    num_output: 16
    kernel_size: 1
    weight_filler {
      type: "xavier"
      std: 0.2
    }
    bias_filler {
      type: "constant"
      value: 0.2
    }
  }
}
layer {
  name: "inception_4a/relu_5x5_reduce"
  type: "ReLU"
  bottom: "inception_4a/5x5_reduce"
  top: "inception_4a/5x5_reduce"
}
layer {
  name: "inception_4a/5x5"
  type: "Convolution"
  bottom: "inception_4a/5x5_reduce"
  top: "inception_4a/5x5"
  param {
    lr_mult: 1
    decay_mult: 1
  }
  param {
    lr_mult: 2
    decay_mult: 0
  }
  convolution_param {
    num_output: 48
    pad: 2
    kernel_size: 5
    weight_filler {
      type: "xavier"
      std: 0.03
    }
    bias_filler {
      type: "constant"
      value: 0.2
    }
  }
}
layer {
  name: "inception_4a/relu_5x5"
  type: "ReLU"
  bottom: "inception_4a/5x5"
  top: "inception_4a/5x5"
}
layer {
  name: "inception_4a/pool"
  type: "Pooling"
  bottom: "pool3/3x3_s2"
  top: "inception_4a/pool"
  pooling_param {
    pool: MAX
    kernel_size: 3
    stride: 1
    pad: 1
  }
}
layer {
  name: "inception_4a/pool_proj"
  type: "Convolution"
  bottom: "inception_4a/pool"
  top: "inception_4a/pool_proj"
  param {
    lr_mult: 1
    decay_mult: 1
  }
  param {
    lr_mult: 2
    decay_mult: 0
  }
  convolution_param {
    num_output: 64
    kernel_size: 1
    weight_filler {
      type: "xavier"
      std: 0.1
    }
    bias_filler {
      type: "constant"
      value: 0.2
    }
  }
}
layer {
  name: "inception_4a/relu_pool_proj"
  type: "ReLU"
  bottom: "inception_4a/pool_proj"
  top: "inception_4a/pool_proj"
}
layer {
  name: "inception_4a/output"
  type: "Concat"
  bottom: "inception_4a/1x1"
  bottom: "inception_4a/3x3"
  bottom: "inception_4a/5x5"
  bottom: "inception_4a/pool_proj"
  top: "inception_4a/output"
}
layer {
  name: "loss1/ave_pool"
  type: "Pooling"
  bottom: "inception_4a/output"
  top: "loss1/ave_pool"
  pooling_param {
    pool: AVE
    kernel_size: 5
    stride: 3
  }
}
layer {
  name: "loss1/conv"
  type: "Convolution"
  bottom: "loss1/ave_pool"
  top: "loss1/conv"
  param {
    lr_mult: 1
    decay_mult: 1
  }
  param {
    lr_mult: 2
    decay_mult: 0
  }
  convolution_param {
    num_output: 128
    kernel_size: 1
    weight_filler {
      type: "xavier"
      std: 0.08
    }
    bias_filler {
      type: "constant"
      value: 0.2
    }
  }
}
layer {
  name: "loss1/relu_conv"
  type: "ReLU"
  bottom: "loss1/conv"
  top: "loss1/conv"
}
layer {
  name: "loss1/fc"
  type: "InnerProduct"
  bottom: "loss1/conv"
  top: "loss1/fc"
  param {
    lr_mult: 1
    decay_mult: 1
  }
  param {
    lr_mult: 2
    decay_mult: 0
  }
  inner_product_param {
    num_output: 1024
    weight_filler {
      type: "xavier"
      std: 0.02
    }
    bias_filler {
      type: "constant"
      value: 0.2
    }
  }
}
layer {
  name: "loss1/relu_fc"
  type: "ReLU"
  bottom: "loss1/fc"
  top: "loss1/fc"
}
layer {
  name: "loss1/drop_fc"
  type: "Dropout"
  bottom: "loss1/fc"
  top: "loss1/fc"
  dropout_param {
    dropout_ratio: 0.7
  }
}
layer {
  name: "loss1/classifier_plantvillage"
  type: "InnerProduct"
  bottom: "loss1/fc"
  top: "loss1/classifier_plantvillage"
  param {
    lr_mult: 1
    decay_mult: 1
  }
  param {
    lr_mult: 2
    decay_mult: 0
  }
  inner_product_param {
    num_output: 38
    weight_filler {
      type: "xavier"
      std: 0.0009765625
    }
    bias_filler {
      type: "constant"
      value: 0
    }
  }
}
layer {
  name: "inception_4b/1x1"
  type: "Convolution"
  bottom: "inception_4a/output"
  top: "inception_4b/1x1"
  param {
    lr_mult: 1
    decay_mult: 1
  }
  param {
    lr_mult: 2
    decay_mult: 0
  }
  convolution_param {
    num_output: 160
    kernel_size: 1
    weight_filler {
      type: "xavier"
      std: 0.03
    }
    bias_filler {
      type: "constant"
      value: 0.2
    }
  }
}
layer {
  name: "inception_4b/relu_1x1"
  type: "ReLU"
  bottom: "inception_4b/1x1"
  top: "inception_4b/1x1"
}
layer {
  name: "inception_4b/3x3_reduce"
  type: "Convolution"
  bottom: "inception_4a/output"
  top: "inception_4b/3x3_reduce"
  param {
    lr_mult: 1
    decay_mult: 1
  }
  param {
    lr_mult: 2
    decay_mult: 0
  }
  convolution_param {
    num_output: 112
    kernel_size: 1
    weight_filler {
      type: "xavier"
      std: 0.09
    }
    bias_filler {
      type: "constant"
      value: 0.2
    }
  }
}
layer {
  name: "inception_4b/relu_3x3_reduce"
  type: "ReLU"
  bottom: "inception_4b/3x3_reduce"
  top: "inception_4b/3x3_reduce"
}
layer {
  name: "inception_4b/3x3"
  type: "Convolution"
  bottom: "inception_4b/3x3_reduce"
  top: "inception_4b/3x3"
  param {
    lr_mult: 1
    decay_mult: 1
  }
  param {
    lr_mult: 2
    decay_mult: 0
  }
  convolution_param {
    num_output: 224
    pad: 1
    kernel_size: 3
    weight_filler {
      type: "xavier"
      std: 0.03
    }
    bias_filler {
      type: "constant"
      value: 0.2
    }
  }
}
layer {
  name: "inception_4b/relu_3x3"
  type: "ReLU"
  bottom: "inception_4b/3x3"
  top: "inception_4b/3x3"
}
layer {
  name: "inception_4b/5x5_reduce"
  type: "Convolution"
  bottom: "inception_4a/output"
  top: "inception_4b/5x5_reduce"
  param {
    lr_mult: 1
    decay_mult: 1
  }
  param {
    lr_mult: 2
    decay_mult: 0
  }
  convolution_param {
    num_output: 24
    kernel_size: 1
    weight_filler {
      type: "xavier"
      std: 0.2
    }
    bias_filler {
      type: "constant"
      value: 0.2
    }
  }
}
layer {
  name: "inception_4b/relu_5x5_reduce"
  type: "ReLU"
  bottom: "inception_4b/5x5_reduce"
  top: "inception_4b/5x5_reduce"
}
layer {
  name: "inception_4b/5x5"
  type: "Convolution"
  bottom: "inception_4b/5x5_reduce"
  top: "inception_4b/5x5"
  param {
    lr_mult: 1
    decay_mult: 1
  }
  param {
    lr_mult: 2
    decay_mult: 0
  }
  convolution_param {
    num_output: 64
    pad: 2
    kernel_size: 5
    weight_filler {
      type: "xavier"
      std: 0.03
    }
    bias_filler {
      type: "constant"
      value: 0.2
    }
  }
}
layer {
  name: "inception_4b/relu_5x5"
  type: "ReLU"
  bottom: "inception_4b/5x5"
  top: "inception_4b/5x5"
}
layer {
  name: "inception_4b/pool"
  type: "Pooling"
  bottom: "inception_4a/output"
  top: "inception_4b/pool"
  pooling_param {
    pool: MAX
    kernel_size: 3
    stride: 1
    pad: 1
  }
}
layer {
  name: "inception_4b/pool_proj"
  type: "Convolution"
  bottom: "inception_4b/pool"
  top: "inception_4b/pool_proj"
  param {
    lr_mult: 1
    decay_mult: 1
  }
  param {
    lr_mult: 2
    decay_mult: 0
  }
  convolution_param {
    num_output: 64
    kernel_size: 1
    weight_filler {
      type: "xavier"
      std: 0.1
    }
    bias_filler {
      type: "constant"
      value: 0.2
    }
  }
}
layer {
  name: "inception_4b/relu_pool_proj"
  type: "ReLU"
  bottom: "inception_4b/pool_proj"
  top: "inception_4b/pool_proj"
}
layer {
  name: "inception_4b/output"
  type: "Concat"
  bottom: "inception_4b/1x1"
  bottom: "inception_4b/3x3"
  bottom: "inception_4b/5x5"
  bottom: "inception_4b/pool_proj"
  top: "inception_4b/output"
}
layer {
  name: "inception_4c/1x1"
  type: "Convolution"
  bottom: "inception_4b/output"
  top: "inception_4c/1x1"
  param {
    lr_mult: 1
    decay_mult: 1
  }
  param {
    lr_mult: 2
    decay_mult: 0
  }
  convolution_param {
    num_output: 128
    kernel_size: 1
    weight_filler {
      type: "xavier"
      std: 0.03
    }
    bias_filler {
      type: "constant"
      value: 0.2
    }
  }
}
layer {
  name: "inception_4c/relu_1x1"
  type: "ReLU"
  bottom: "inception_4c/1x1"
  top: "inception_4c/1x1"
}
layer {
  name: "inception_4c/3x3_reduce"
  type: "Convolution"
  bottom: "inception_4b/output"
  top: "inception_4c/3x3_reduce"
  param {
    lr_mult: 1
    decay_mult: 1
  }
  param {
    lr_mult: 2
    decay_mult: 0
  }
  convolution_param {
    num_output: 128
    kernel_size: 1
    weight_filler {
      type: "xavier"
      std: 0.09
    }
    bias_filler {
      type: "constant"
      value: 0.2
    }
  }
}
layer {
  name: "inception_4c/relu_3x3_reduce"
  type: "ReLU"
  bottom: "inception_4c/3x3_reduce"
  top: "inception_4c/3x3_reduce"
}
layer {
  name: "inception_4c/3x3"
  type: "Convolution"
  bottom: "inception_4c/3x3_reduce"
  top: "inception_4c/3x3"
  param {
    lr_mult: 1
    decay_mult: 1
  }
  param {
    lr_mult: 2
    decay_mult: 0
  }
  convolution_param {
    num_output: 256
    pad: 1
    kernel_size: 3
    weight_filler {
      type: "xavier"
      std: 0.03
    }
    bias_filler {
      type: "constant"
      value: 0.2
    }
  }
}
layer {
  name: "inception_4c/relu_3x3"
  type: "ReLU"
  bottom: "inception_4c/3x3"
  top: "inception_4c/3x3"
}
layer {
  name: "inception_4c/5x5_reduce"
  type: "Convolution"
  bottom: "inception_4b/output"
  top: "inception_4c/5x5_reduce"
  param {
    lr_mult: 1
    decay_mult: 1
  }
  param {
    lr_mult: 2
    decay_mult: 0
  }
  convolution_param {
    num_output: 24
    kernel_size: 1
    weight_filler {
      type: "xavier"
      std: 0.2
    }
    bias_filler {
      type: "constant"
      value: 0.2
    }
  }
}
layer {
  name: "inception_4c/relu_5x5_reduce"
  type: "ReLU"
  bottom: "inception_4c/5x5_reduce"
  top: "inception_4c/5x5_reduce"
}
layer {
  name: "inception_4c/5x5"
  type: "Convolution"
  bottom: "inception_4c/5x5_reduce"
  top: "inception_4c/5x5"
  param {
    lr_mult: 1
    decay_mult: 1
  }
  param {
    lr_mult: 2
    decay_mult: 0
  }
  convolution_param {
    num_output: 64
    pad: 2
    kernel_size: 5
    weight_filler {
      type: "xavier"
      std: 0.03
    }
    bias_filler {
      type: "constant"
      value: 0.2
    }
  }
}
layer {
  name: "inception_4c/relu_5x5"
  type: "ReLU"
  bottom: "inception_4c/5x5"
  top: "inception_4c/5x5"
}
layer {
  name: "inception_4c/pool"
  type: "Pooling"
  bottom: "inception_4b/output"
  top: "inception_4c/pool"
  pooling_param {
    pool: MAX
    kernel_size: 3
    stride: 1
    pad: 1
  }
}
layer {
  name: "inception_4c/pool_proj"
  type: "Convolution"
  bottom: "inception_4c/pool"
  top: "inception_4c/pool_proj"
  param {
    lr_mult: 1
    decay_mult: 1
  }
  param {
    lr_mult: 2
    decay_mult: 0
  }
  convolution_param {
    num_output: 64
    kernel_size: 1
    weight_filler {
      type: "xavier"
      std: 0.1
    }
    bias_filler {
      type: "constant"
      value: 0.2
    }
  }
}
layer {
  name: "inception_4c/relu_pool_proj"
  type: "ReLU"
  bottom: "inception_4c/pool_proj"
  top: "inception_4c/pool_proj"
}
layer {
  name: "inception_4c/output"
  type: "Concat"
  bottom: "inception_4c/1x1"
  bottom: "inception_4c/3x3"
  bottom: "inception_4c/5x5"
  bottom: "inception_4c/pool_proj"
  top: "inception_4c/output"
}
layer {
  name: "inception_4d/1x1"
  type: "Convolution"
  bottom: "inception_4c/output"
  top: "inception_4d/1x1"
  param {
    lr_mult: 1
    decay_mult: 1
  }
  param {
    lr_mult: 2
    decay_mult: 0
  }
  convolution_param {
    num_output: 112
    kernel_size: 1
    weight_filler {
      type: "xavier"
      std: 0.03
    }
    bias_filler {
      type: "constant"
      value: 0.2
    }
  }
}
layer {
  name: "inception_4d/relu_1x1"
  type: "ReLU"
  bottom: "inception_4d/1x1"
  top: "inception_4d/1x1"
}
layer {
  name: "inception_4d/3x3_reduce"
  type: "Convolution"
  bottom: "inception_4c/output"
  top: "inception_4d/3x3_reduce"
  param {
    lr_mult: 1
    decay_mult: 1
  }
  param {
    lr_mult: 2
    decay_mult: 0
  }
  convolution_param {
    num_output: 144
    kernel_size: 1
    weight_filler {
      type: "xavier"
      std: 0.09
    }
    bias_filler {
      type: "constant"
      value: 0.2
    }
  }
}
layer {
  name: "inception_4d/relu_3x3_reduce"
  type: "ReLU"
  bottom: "inception_4d/3x3_reduce"
  top: "inception_4d/3x3_reduce"
}
layer {
  name: "inception_4d/3x3"
  type: "Convolution"
  bottom: "inception_4d/3x3_reduce"
  top: "inception_4d/3x3"
  param {
    lr_mult: 1
    decay_mult: 1
  }
  param {
    lr_mult: 2
    decay_mult: 0
  }
  convolution_param {
    num_output: 288
    pad: 1
    kernel_size: 3
    weight_filler {
      type: "xavier"
      std: 0.03
    }
    bias_filler {
      type: "constant"
      value: 0.2
    }
  }
}
layer {
  name: "inception_4d/relu_3x3"
  type: "ReLU"
  bottom: "inception_4d/3x3"
  top: "inception_4d/3x3"
}
layer {
  name: "inception_4d/5x5_reduce"
  type: "Convolution"
  bottom: "inception_4c/output"
  top: "inception_4d/5x5_reduce"
  param {
    lr_mult: 1
    decay_mult: 1
  }
  param {
    lr_mult: 2
    decay_mult: 0
  }
  convolution_param {
    num_output: 32
    kernel_size: 1
    weight_filler {
      type: "xavier"
      std: 0.2
    }
    bias_filler {
      type: "constant"
      value: 0.2
    }
  }
}
layer {
  name: "inception_4d/relu_5x5_reduce"
  type: "ReLU"
  bottom: "inception_4d/5x5_reduce"
  top: "inception_4d/5x5_reduce"
}
layer {
  name: "inception_4d/5x5"
  type: "Convolution"
  bottom: "inception_4d/5x5_reduce"
  top: "inception_4d/5x5"
  param {
    lr_mult: 1
    decay_mult: 1
  }
  param {
    lr_mult: 2
    decay_mult: 0
  }
  convolution_param {
    num_output: 64
    pad: 2
    kernel_size: 5
    weight_filler {
      type: "xavier"
      std: 0.03
    }
    bias_filler {
      type: "constant"
      value: 0.2
    }
  }
}
layer {
  name: "inception_4d/relu_5x5"
  type: "ReLU"
  bottom: "inception_4d/5x5"
  top: "inception_4d/5x5"
}
layer {
  name: "inception_4d/pool"
  type: "Pooling"
  bottom: "inception_4c/output"
  top: "inception_4d/pool"
  pooling_param {
    pool: MAX
    kernel_size: 3
    stride: 1
    pad: 1
  }
}
layer {
  name: "inception_4d/pool_proj"
  type: "Convolution"
  bottom: "inception_4d/pool"
  top: "inception_4d/pool_proj"
  param {
    lr_mult: 1
    decay_mult: 1
  }
  param {
    lr_mult: 2
    decay_mult: 0
  }
  convolution_param {
    num_output: 64
    kernel_size: 1
    weight_filler {
      type: "xavier"
      std: 0.1
    }
    bias_filler {
      type: "constant"
      value: 0.2
    }
  }
}
layer {
  name: "inception_4d/relu_pool_proj"
  type: "ReLU"
  bottom: "inception_4d/pool_proj"
  top: "inception_4d/pool_proj"
}
layer {
  name: "inception_4d/output"
  type: "Concat"
  bottom: "inception_4d/1x1"
  bottom: "inception_4d/3x3"
  bottom: "inception_4d/5x5"
  bottom: "inception_4d/pool_proj"
  top: "inception_4d/output"
}
layer {
  name: "loss2/ave_pool"
  type: "Pooling"
  bottom: "inception_4d/output"
  top: "loss2/ave_pool"
  pooling_param {
    pool: AVE
    kernel_size: 5
    stride: 3
  }
}
layer {
  name: "loss2/conv"
  type: "Convolution"
  bottom: "loss2/ave_pool"
  top: "loss2/conv"
  param {
    lr_mult: 1
    decay_mult: 1
  }
  param {
    lr_mult: 2
    decay_mult: 0
  }
  convolution_param {
    num_output: 128
    kernel_size: 1
    weight_filler {
      type: "xavier"
      std: 0.08
    }
    bias_filler {
      type: "constant"
      value: 0.2
    }
  }
}
layer {
  name: "loss2/relu_conv"
  type: "ReLU"
  bottom: "loss2/conv"
  top: "loss2/conv"
}
layer {
  name: "loss2/fc"
  type: "InnerProduct"
  bottom: "loss2/conv"
  top: "loss2/fc"
  param {
    lr_mult: 1
    decay_mult: 1
  }
  param {
    lr_mult: 2
    decay_mult: 0
  }
  inner_product_param {
    num_output: 1024
    weight_filler {
      type: "xavier"
      std: 0.02
    }
    bias_filler {
      type: "constant"
      value: 0.2
    }
  }
}
layer {
  name: "loss2/relu_fc"
  type: "ReLU"
  bottom: "loss2/fc"
  top: "loss2/fc"
}
layer {
  name: "loss2/drop_fc"
  type: "Dropout"
  bottom: "loss2/fc"
  top: "loss2/fc"
  dropout_param {
    dropout_ratio: 0.7
  }
}
layer {
  name: "loss2/classifier_plantvillage"
  type: "InnerProduct"
  bottom: "loss2/fc"
  top: "loss2/classifier_plantvillage"
  param {
    lr_mult: 1
    decay_mult: 1
  }
  param {
    lr_mult: 2
    decay_mult: 0
  }
  inner_product_param {
    num_output: 38
    weight_filler {
      type: "xavier"
      std: 0.0009765625
    }
    bias_filler {
      type: "constant"
      value: 0
    }
  }
}
layer {
  name: "inception_4e/1x1"
  type: "Convolution"
  bottom: "inception_4d/output"
  top: "inception_4e/1x1"
  param {
    lr_mult: 1
    decay_mult: 1
  }
  param {
    lr_mult: 2
    decay_mult: 0
  }
  convolution_param {
    num_output: 256
    kernel_size: 1
    weight_filler {
      type: "xavier"
      std: 0.03
    }
    bias_filler {
      type: "constant"
      value: 0.2
    }
  }
}
layer {
  name: "inception_4e/relu_1x1"
  type: "ReLU"
  bottom: "inception_4e/1x1"
  top: "inception_4e/1x1"
}
layer {
  name: "inception_4e/3x3_reduce"
  type: "Convolution"
  bottom: "inception_4d/output"
  top: "inception_4e/3x3_reduce"
  param {
    lr_mult: 1
    decay_mult: 1
  }
  param {
    lr_mult: 2
    decay_mult: 0
  }
  convolution_param {
    num_output: 160
    kernel_size: 1
    weight_filler {
      type: "xavier"
      std: 0.09
    }
    bias_filler {
      type: "constant"
      value: 0.2
    }
  }
}
layer {
  name: "inception_4e/relu_3x3_reduce"
  type: "ReLU"
  bottom: "inception_4e/3x3_reduce"
  top: "inception_4e/3x3_reduce"
}
layer {
  name: "inception_4e/3x3"
  type: "Convolution"
  bottom: "inception_4e/3x3_reduce"
  top: "inception_4e/3x3"
  param {
    lr_mult: 1
    decay_mult: 1
  }
  param {
    lr_mult: 2
    decay_mult: 0
  }
  convolution_param {
    num_output: 320
    pad: 1
    kernel_size: 3
    weight_filler {
      type: "xavier"
      std: 0.03
    }
    bias_filler {
      type: "constant"
      value: 0.2
    }
  }
}
layer {
  name: "inception_4e/relu_3x3"
  type: "ReLU"
  bottom: "inception_4e/3x3"
  top: "inception_4e/3x3"
}
layer {
  name: "inception_4e/5x5_reduce"
  type: "Convolution"
  bottom: "inception_4d/output"
  top: "inception_4e/5x5_reduce"
  param {
    lr_mult: 1
    decay_mult: 1
  }
  param {
    lr_mult: 2
    decay_mult: 0
  }
  convolution_param {
    num_output: 32
    kernel_size: 1
    weight_filler {
      type: "xavier"
      std: 0.2
    }
    bias_filler {
      type: "constant"
      value: 0.2
    }
  }
}
layer {
  name: "inception_4e/relu_5x5_reduce"
  type: "ReLU"
  bottom: "inception_4e/5x5_reduce"
  top: "inception_4e/5x5_reduce"
}
layer {
  name: "inception_4e/5x5"
  type: "Convolution"
  bottom: "inception_4e/5x5_reduce"
  top: "inception_4e/5x5"
  p
I0403 14:24:26.398383 29672 layer_factory.hpp:77] Creating layer data
I0403 14:24:26.399000 29672 net.cpp:91] Creating Layer data
I0403 14:24:26.399032 29672 net.cpp:399] data -> data
I0403 14:24:26.399085 29672 net.cpp:399] data -> label
I0403 14:24:26.399123 29672 data_transformer.cpp:25] Loading mean file from: /home/mohanty/data/final_dataset/lmdb/color-20-80/mean.binaryproto
I0403 14:24:26.401696 29677 db_lmdb.cpp:38] Opened lmdb /home/mohanty/data/final_dataset/lmdb/color-20-80/test_db
I0403 14:24:26.412506 29672 data_layer.cpp:41] output data size: 24,3,224,224
I0403 14:24:26.439739 29672 net.cpp:141] Setting up data
I0403 14:24:26.439828 29672 net.cpp:148] Top shape: 24 3 224 224 (3612672)
I0403 14:24:26.439853 29672 net.cpp:148] Top shape: 24 (24)
I0403 14:24:26.439870 29672 net.cpp:156] Memory required for data: 14450784
I0403 14:24:26.439898 29672 layer_factory.hpp:77] Creating layer label_data_1_split
I0403 14:24:26.439927 29672 net.cpp:91] Creating Layer label_data_1_split
I0403 14:24:26.439946 29672 net.cpp:425] label_data_1_split <- label
I0403 14:24:26.439978 29672 net.cpp:399] label_data_1_split -> label_data_1_split_0
I0403 14:24:26.440008 29672 net.cpp:399] label_data_1_split -> label_data_1_split_1
I0403 14:24:26.440032 29672 net.cpp:399] label_data_1_split -> label_data_1_split_2
I0403 14:24:26.440055 29672 net.cpp:399] label_data_1_split -> label_data_1_split_3
I0403 14:24:26.440076 29672 net.cpp:399] label_data_1_split -> label_data_1_split_4
I0403 14:24:26.440098 29672 net.cpp:399] label_data_1_split -> label_data_1_split_5
I0403 14:24:26.440119 29672 net.cpp:399] label_data_1_split -> label_data_1_split_6
I0403 14:24:26.440142 29672 net.cpp:399] label_data_1_split -> label_data_1_split_7
I0403 14:24:26.440165 29672 net.cpp:399] label_data_1_split -> label_data_1_split_8
I0403 14:24:26.440186 29672 net.cpp:399] label_data_1_split -> label_data_1_split_9
I0403 14:24:26.440306 29672 net.cpp:141] Setting up label_data_1_split
I0403 14:24:26.440336 29672 net.cpp:148] Top shape: 24 (24)
I0403 14:24:26.440356 29672 net.cpp:148] Top shape: 24 (24)
I0403 14:24:26.440373 29672 net.cpp:148] Top shape: 24 (24)
I0403 14:24:26.440392 29672 net.cpp:148] Top shape: 24 (24)
I0403 14:24:26.440408 29672 net.cpp:148] Top shape: 24 (24)
I0403 14:24:26.440425 29672 net.cpp:148] Top shape: 24 (24)
I0403 14:24:26.440443 29672 net.cpp:148] Top shape: 24 (24)
I0403 14:24:26.440459 29672 net.cpp:148] Top shape: 24 (24)
I0403 14:24:26.440475 29672 net.cpp:148] Top shape: 24 (24)
I0403 14:24:26.440493 29672 net.cpp:148] Top shape: 24 (24)
I0403 14:24:26.440541 29672 net.cpp:156] Memory required for data: 14451744
I0403 14:24:26.440559 29672 layer_factory.hpp:77] Creating layer conv1/7x7_s2
I0403 14:24:26.440593 29672 net.cpp:91] Creating Layer conv1/7x7_s2
I0403 14:24:26.440613 29672 net.cpp:425] conv1/7x7_s2 <- data
I0403 14:24:26.440635 29672 net.cpp:399] conv1/7x7_s2 -> conv1/7x7_s2
I0403 14:24:26.585742 29672 net.cpp:141] Setting up conv1/7x7_s2
I0403 14:24:26.585820 29672 net.cpp:148] Top shape: 24 64 112 112 (19267584)
I0403 14:24:26.585839 29672 net.cpp:156] Memory required for data: 91522080
I0403 14:24:26.585871 29672 layer_factory.hpp:77] Creating layer conv1/relu_7x7
I0403 14:24:26.585901 29672 net.cpp:91] Creating Layer conv1/relu_7x7
I0403 14:24:26.585921 29672 net.cpp:425] conv1/relu_7x7 <- conv1/7x7_s2
I0403 14:24:26.585942 29672 net.cpp:386] conv1/relu_7x7 -> conv1/7x7_s2 (in-place)
I0403 14:24:26.586212 29672 net.cpp:141] Setting up conv1/relu_7x7
I0403 14:24:26.586242 29672 net.cpp:148] Top shape: 24 64 112 112 (19267584)
I0403 14:24:26.586261 29672 net.cpp:156] Memory required for data: 168592416
I0403 14:24:26.586278 29672 layer_factory.hpp:77] Creating layer pool1/3x3_s2
I0403 14:24:26.586305 29672 net.cpp:91] Creating Layer pool1/3x3_s2
I0403 14:24:26.586330 29672 net.cpp:425] pool1/3x3_s2 <- conv1/7x7_s2
I0403 14:24:26.586351 29672 net.cpp:399] pool1/3x3_s2 -> pool1/3x3_s2
I0403 14:24:26.586431 29672 net.cpp:141] Setting up pool1/3x3_s2
I0403 14:24:26.586457 29672 net.cpp:148] Top shape: 24 64 56 56 (4816896)
I0403 14:24:26.586474 29672 net.cpp:156] Memory required for data: 187860000
I0403 14:24:26.586491 29672 layer_factory.hpp:77] Creating layer pool1/norm1
I0403 14:24:26.586516 29672 net.cpp:91] Creating Layer pool1/norm1
I0403 14:24:26.586536 29672 net.cpp:425] pool1/norm1 <- pool1/3x3_s2
I0403 14:24:26.586555 29672 net.cpp:399] pool1/norm1 -> pool1/norm1
I0403 14:24:26.586855 29672 net.cpp:141] Setting up pool1/norm1
I0403 14:24:26.586885 29672 net.cpp:148] Top shape: 24 64 56 56 (4816896)
I0403 14:24:26.586904 29672 net.cpp:156] Memory required for data: 207127584
I0403 14:24:26.586920 29672 layer_factory.hpp:77] Creating layer conv2/3x3_reduce
I0403 14:24:26.586947 29672 net.cpp:91] Creating Layer conv2/3x3_reduce
I0403 14:24:26.586966 29672 net.cpp:425] conv2/3x3_reduce <- pool1/norm1
I0403 14:24:26.586987 29672 net.cpp:399] conv2/3x3_reduce -> conv2/3x3_reduce
I0403 14:24:26.588408 29672 net.cpp:141] Setting up conv2/3x3_reduce
I0403 14:24:26.588440 29672 net.cpp:148] Top shape: 24 64 56 56 (4816896)
I0403 14:24:26.588459 29672 net.cpp:156] Memory required for data: 226395168
I0403 14:24:26.588481 29672 layer_factory.hpp:77] Creating layer conv2/relu_3x3_reduce
I0403 14:24:26.588503 29672 net.cpp:91] Creating Layer conv2/relu_3x3_reduce
I0403 14:24:26.588521 29672 net.cpp:425] conv2/relu_3x3_reduce <- conv2/3x3_reduce
I0403 14:24:26.588541 29672 net.cpp:386] conv2/relu_3x3_reduce -> conv2/3x3_reduce (in-place)
I0403 14:24:26.588804 29672 net.cpp:141] Setting up conv2/relu_3x3_reduce
I0403 14:24:26.588831 29672 net.cpp:148] Top shape: 24 64 56 56 (4816896)
I0403 14:24:26.588847 29672 net.cpp:156] Memory required for data: 245662752
I0403 14:24:26.588863 29672 layer_factory.hpp:77] Creating layer conv2/3x3
I0403 14:24:26.588887 29672 net.cpp:91] Creating Layer conv2/3x3
I0403 14:24:26.588907 29672 net.cpp:425] conv2/3x3 <- conv2/3x3_reduce
I0403 14:24:26.588928 29672 net.cpp:399] conv2/3x3 -> conv2/3x3
I0403 14:24:26.591281 29672 net.cpp:141] Setting up conv2/3x3
I0403 14:24:26.591346 29672 net.cpp:148] Top shape: 24 192 56 56 (14450688)
I0403 14:24:26.591370 29672 net.cpp:156] Memory required for data: 303465504
I0403 14:24:26.591393 29672 layer_factory.hpp:77] Creating layer conv2/relu_3x3
I0403 14:24:26.591415 29672 net.cpp:91] Creating Layer conv2/relu_3x3
I0403 14:24:26.591434 29672 net.cpp:425] conv2/relu_3x3 <- conv2/3x3
I0403 14:24:26.591454 29672 net.cpp:386] conv2/relu_3x3 -> conv2/3x3 (in-place)
I0403 14:24:26.591629 29672 net.cpp:141] Setting up conv2/relu_3x3
I0403 14:24:26.591656 29672 net.cpp:148] Top shape: 24 192 56 56 (14450688)
I0403 14:24:26.591706 29672 net.cpp:156] Memory required for data: 361268256
I0403 14:24:26.591723 29672 layer_factory.hpp:77] Creating layer conv2/norm2
I0403 14:24:26.591744 29672 net.cpp:91] Creating Layer conv2/norm2
I0403 14:24:26.591763 29672 net.cpp:425] conv2/norm2 <- conv2/3x3
I0403 14:24:26.591784 29672 net.cpp:399] conv2/norm2 -> conv2/norm2
I0403 14:24:26.592084 29672 net.cpp:141] Setting up conv2/norm2
I0403 14:24:26.592113 29672 net.cpp:148] Top shape: 24 192 56 56 (14450688)
I0403 14:24:26.592130 29672 net.cpp:156] Memory required for data: 419071008
I0403 14:24:26.592146 29672 layer_factory.hpp:77] Creating layer pool2/3x3_s2
I0403 14:24:26.592167 29672 net.cpp:91] Creating Layer pool2/3x3_s2
I0403 14:24:26.592185 29672 net.cpp:425] pool2/3x3_s2 <- conv2/norm2
I0403 14:24:26.592205 29672 net.cpp:399] pool2/3x3_s2 -> pool2/3x3_s2
I0403 14:24:26.592255 29672 net.cpp:141] Setting up pool2/3x3_s2
I0403 14:24:26.592280 29672 net.cpp:148] Top shape: 24 192 28 28 (3612672)
I0403 14:24:26.592296 29672 net.cpp:156] Memory required for data: 433521696
I0403 14:24:26.592314 29672 layer_factory.hpp:77] Creating layer pool2/3x3_s2_pool2/3x3_s2_0_split
I0403 14:24:26.592339 29672 net.cpp:91] Creating Layer pool2/3x3_s2_pool2/3x3_s2_0_split
I0403 14:24:26.592356 29672 net.cpp:425] pool2/3x3_s2_pool2/3x3_s2_0_split <- pool2/3x3_s2
I0403 14:24:26.592375 29672 net.cpp:399] pool2/3x3_s2_pool2/3x3_s2_0_split -> pool2/3x3_s2_pool2/3x3_s2_0_split_0
I0403 14:24:26.592396 29672 net.cpp:399] pool2/3x3_s2_pool2/3x3_s2_0_split -> pool2/3x3_s2_pool2/3x3_s2_0_split_1
I0403 14:24:26.592418 29672 net.cpp:399] pool2/3x3_s2_pool2/3x3_s2_0_split -> pool2/3x3_s2_pool2/3x3_s2_0_split_2
I0403 14:24:26.592440 29672 net.cpp:399] pool2/3x3_s2_pool2/3x3_s2_0_split -> pool2/3x3_s2_pool2/3x3_s2_0_split_3
I0403 14:24:26.592509 29672 net.cpp:141] Setting up pool2/3x3_s2_pool2/3x3_s2_0_split
I0403 14:24:26.592535 29672 net.cpp:148] Top shape: 24 192 28 28 (3612672)
I0403 14:24:26.592552 29672 net.cpp:148] Top shape: 24 192 28 28 (3612672)
I0403 14:24:26.592568 29672 net.cpp:148] Top shape: 24 192 28 28 (3612672)
I0403 14:24:26.592586 29672 net.cpp:148] Top shape: 24 192 28 28 (3612672)
I0403 14:24:26.592602 29672 net.cpp:156] Memory required for data: 491324448
I0403 14:24:26.592617 29672 layer_factory.hpp:77] Creating layer inception_3a/1x1
I0403 14:24:26.592639 29672 net.cpp:91] Creating Layer inception_3a/1x1
I0403 14:24:26.592658 29672 net.cpp:425] inception_3a/1x1 <- pool2/3x3_s2_pool2/3x3_s2_0_split_0
I0403 14:24:26.592677 29672 net.cpp:399] inception_3a/1x1 -> inception_3a/1x1
I0403 14:24:26.594317 29672 net.cpp:141] Setting up inception_3a/1x1
I0403 14:24:26.594350 29672 net.cpp:148] Top shape: 24 64 28 28 (1204224)
I0403 14:24:26.594367 29672 net.cpp:156] Memory required for data: 496141344
I0403 14:24:26.594389 29672 layer_factory.hpp:77] Creating layer inception_3a/relu_1x1
I0403 14:24:26.594409 29672 net.cpp:91] Creating Layer inception_3a/relu_1x1
I0403 14:24:26.594427 29672 net.cpp:425] inception_3a/relu_1x1 <- inception_3a/1x1
I0403 14:24:26.594445 29672 net.cpp:386] inception_3a/relu_1x1 -> inception_3a/1x1 (in-place)
I0403 14:24:26.594614 29672 net.cpp:141] Setting up inception_3a/relu_1x1
I0403 14:24:26.594641 29672 net.cpp:148] Top shape: 24 64 28 28 (1204224)
I0403 14:24:26.594660 29672 net.cpp:156] Memory required for data: 500958240
I0403 14:24:26.594676 29672 layer_factory.hpp:77] Creating layer inception_3a/3x3_reduce
I0403 14:24:26.594701 29672 net.cpp:91] Creating Layer inception_3a/3x3_reduce
I0403 14:24:26.594720 29672 net.cpp:425] inception_3a/3x3_reduce <- pool2/3x3_s2_pool2/3x3_s2_0_split_1
I0403 14:24:26.594741 29672 net.cpp:399] inception_3a/3x3_reduce -> inception_3a/3x3_reduce
I0403 14:24:26.596506 29672 net.cpp:141] Setting up inception_3a/3x3_reduce
I0403 14:24:26.596537 29672 net.cpp:148] Top shape: 24 96 28 28 (1806336)
I0403 14:24:26.596555 29672 net.cpp:156] Memory required for data: 508183584
I0403 14:24:26.596581 29672 layer_factory.hpp:77] Creating layer inception_3a/relu_3x3_reduce
I0403 14:24:26.596619 29672 net.cpp:91] Creating Layer inception_3a/relu_3x3_reduce
I0403 14:24:26.596638 29672 net.cpp:425] inception_3a/relu_3x3_reduce <- inception_3a/3x3_reduce
I0403 14:24:26.596658 29672 net.cpp:386] inception_3a/relu_3x3_reduce -> inception_3a/3x3_reduce (in-place)
I0403 14:24:26.596853 29672 net.cpp:141] Setting up inception_3a/relu_3x3_reduce
I0403 14:24:26.596881 29672 net.cpp:148] Top shape: 24 96 28 28 (1806336)
I0403 14:24:26.596899 29672 net.cpp:156] Memory required for data: 515408928
I0403 14:24:26.596915 29672 layer_factory.hpp:77] Creating layer inception_3a/3x3
I0403 14:24:26.596940 29672 net.cpp:91] Creating Layer inception_3a/3x3
I0403 14:24:26.596961 29672 net.cpp:425] inception_3a/3x3 <- inception_3a/3x3_reduce
I0403 14:24:26.596982 29672 net.cpp:399] inception_3a/3x3 -> inception_3a/3x3
I0403 14:24:26.598714 29672 net.cpp:141] Setting up inception_3a/3x3
I0403 14:24:26.598744 29672 net.cpp:148] Top shape: 24 128 28 28 (2408448)
I0403 14:24:26.598763 29672 net.cpp:156] Memory required for data: 525042720
I0403 14:24:26.598785 29672 layer_factory.hpp:77] Creating layer inception_3a/relu_3x3
I0403 14:24:26.598809 29672 net.cpp:91] Creating Layer inception_3a/relu_3x3
I0403 14:24:26.598826 29672 net.cpp:425] inception_3a/relu_3x3 <- inception_3a/3x3
I0403 14:24:26.598846 29672 net.cpp:386] inception_3a/relu_3x3 -> inception_3a/3x3 (in-place)
I0403 14:24:26.599133 29672 net.cpp:141] Setting up inception_3a/relu_3x3
I0403 14:24:26.599161 29672 net.cpp:148] Top shape: 24 128 28 28 (2408448)
I0403 14:24:26.599179 29672 net.cpp:156] Memory required for data: 534676512
I0403 14:24:26.599195 29672 layer_factory.hpp:77] Creating layer inception_3a/5x5_reduce
I0403 14:24:26.599220 29672 net.cpp:91] Creating Layer inception_3a/5x5_reduce
I0403 14:24:26.599241 29672 net.cpp:425] inception_3a/5x5_reduce <- pool2/3x3_s2_pool2/3x3_s2_0_split_2
I0403 14:24:26.599262 29672 net.cpp:399] inception_3a/5x5_reduce -> inception_3a/5x5_reduce
I0403 14:24:26.600273 29672 net.cpp:141] Setting up inception_3a/5x5_reduce
I0403 14:24:26.600304 29672 net.cpp:148] Top shape: 24 16 28 28 (301056)
I0403 14:24:26.600327 29672 net.cpp:156] Memory required for data: 535880736
I0403 14:24:26.600348 29672 layer_factory.hpp:77] Creating layer inception_3a/relu_5x5_reduce
I0403 14:24:26.600373 29672 net.cpp:91] Creating Layer inception_3a/relu_5x5_reduce
I0403 14:24:26.600392 29672 net.cpp:425] inception_3a/relu_5x5_reduce <- inception_3a/5x5_reduce
I0403 14:24:26.600411 29672 net.cpp:386] inception_3a/relu_5x5_reduce -> inception_3a/5x5_reduce (in-place)
I0403 14:24:26.600721 29672 net.cpp:141] Setting up inception_3a/relu_5x5_reduce
I0403 14:24:26.600751 29672 net.cpp:148] Top shape: 24 16 28 28 (301056)
I0403 14:24:26.600769 29672 net.cpp:156] Memory required for data: 537084960
I0403 14:24:26.600787 29672 layer_factory.hpp:77] Creating layer inception_3a/5x5
I0403 14:24:26.600811 29672 net.cpp:91] Creating Layer inception_3a/5x5
I0403 14:24:26.600831 29672 net.cpp:425] inception_3a/5x5 <- inception_3a/5x5_reduce
I0403 14:24:26.600850 29672 net.cpp:399] inception_3a/5x5 -> inception_3a/5x5
I0403 14:24:26.601907 29672 net.cpp:141] Setting up inception_3a/5x5
I0403 14:24:26.601938 29672 net.cpp:148] Top shape: 24 32 28 28 (602112)
I0403 14:24:26.601954 29672 net.cpp:156] Memory required for data: 539493408
I0403 14:24:26.601974 29672 layer_factory.hpp:77] Creating layer inception_3a/relu_5x5
I0403 14:24:26.601999 29672 net.cpp:91] Creating Layer inception_3a/relu_5x5
I0403 14:24:26.602018 29672 net.cpp:425] inception_3a/relu_5x5 <- inception_3a/5x5
I0403 14:24:26.602037 29672 net.cpp:386] inception_3a/relu_5x5 -> inception_3a/5x5 (in-place)
I0403 14:24:26.602221 29672 net.cpp:141] Setting up inception_3a/relu_5x5
I0403 14:24:26.602251 29672 net.cpp:148] Top shape: 24 32 28 28 (602112)
I0403 14:24:26.602267 29672 net.cpp:156] Memory required for data: 541901856
I0403 14:24:26.602283 29672 layer_factory.hpp:77] Creating layer inception_3a/pool
I0403 14:24:26.602303 29672 net.cpp:91] Creating Layer inception_3a/pool
I0403 14:24:26.602325 29672 net.cpp:425] inception_3a/pool <- pool2/3x3_s2_pool2/3x3_s2_0_split_3
I0403 14:24:26.602361 29672 net.cpp:399] inception_3a/pool -> inception_3a/pool
I0403 14:24:26.602427 29672 net.cpp:141] Setting up inception_3a/pool
I0403 14:24:26.602452 29672 net.cpp:148] Top shape: 24 192 28 28 (3612672)
I0403 14:24:26.602468 29672 net.cpp:156] Memory required for data: 556352544
I0403 14:24:26.602485 29672 layer_factory.hpp:77] Creating layer inception_3a/pool_proj
I0403 14:24:26.602509 29672 net.cpp:91] Creating Layer inception_3a/pool_proj
I0403 14:24:26.602530 29672 net.cpp:425] inception_3a/pool_proj <- inception_3a/pool
I0403 14:24:26.602551 29672 net.cpp:399] inception_3a/pool_proj -> inception_3a/pool_proj
I0403 14:24:26.603570 29672 net.cpp:141] Setting up inception_3a/pool_proj
I0403 14:24:26.603601 29672 net.cpp:148] Top shape: 24 32 28 28 (602112)
I0403 14:24:26.603618 29672 net.cpp:156] Memory required for data: 558760992
I0403 14:24:26.603642 29672 layer_factory.hpp:77] Creating layer inception_3a/relu_pool_proj
I0403 14:24:26.603667 29672 net.cpp:91] Creating Layer inception_3a/relu_pool_proj
I0403 14:24:26.603684 29672 net.cpp:425] inception_3a/relu_pool_proj <- inception_3a/pool_proj
I0403 14:24:26.603703 29672 net.cpp:386] inception_3a/relu_pool_proj -> inception_3a/pool_proj (in-place)
I0403 14:24:26.603993 29672 net.cpp:141] Setting up inception_3a/relu_pool_proj
I0403 14:24:26.604022 29672 net.cpp:148] Top shape: 24 32 28 28 (602112)
I0403 14:24:26.604038 29672 net.cpp:156] Memory required for data: 561169440
I0403 14:24:26.604056 29672 layer_factory.hpp:77] Creating layer inception_3a/output
I0403 14:24:26.604079 29672 net.cpp:91] Creating Layer inception_3a/output
I0403 14:24:26.604095 29672 net.cpp:425] inception_3a/output <- inception_3a/1x1
I0403 14:24:26.604113 29672 net.cpp:425] inception_3a/output <- inception_3a/3x3
I0403 14:24:26.604130 29672 net.cpp:425] inception_3a/output <- inception_3a/5x5
I0403 14:24:26.604148 29672 net.cpp:425] inception_3a/output <- inception_3a/pool_proj
I0403 14:24:26.604167 29672 net.cpp:399] inception_3a/output -> inception_3a/output
I0403 14:24:26.604218 29672 net.cpp:141] Setting up inception_3a/output
I0403 14:24:26.604243 29672 net.cpp:148] Top shape: 24 256 28 28 (4816896)
I0403 14:24:26.604261 29672 net.cpp:156] Memory required for data: 580437024
I0403 14:24:26.604279 29672 layer_factory.hpp:77] Creating layer inception_3a/output_inception_3a/output_0_split
I0403 14:24:26.604296 29672 net.cpp:91] Creating Layer inception_3a/output_inception_3a/output_0_split
I0403 14:24:26.604317 29672 net.cpp:425] inception_3a/output_inception_3a/output_0_split <- inception_3a/output
I0403 14:24:26.604341 29672 net.cpp:399] inception_3a/output_inception_3a/output_0_split -> inception_3a/output_inception_3a/output_0_split_0
I0403 14:24:26.604367 29672 net.cpp:399] inception_3a/output_inception_3a/output_0_split -> inception_3a/output_inception_3a/output_0_split_1
I0403 14:24:26.604393 29672 net.cpp:399] inception_3a/output_inception_3a/output_0_split -> inception_3a/output_inception_3a/output_0_split_2
I0403 14:24:26.604418 29672 net.cpp:399] inception_3a/output_inception_3a/output_0_split -> inception_3a/output_inception_3a/output_0_split_3
I0403 14:24:26.604496 29672 net.cpp:141] Setting up inception_3a/output_inception_3a/output_0_split
I0403 14:24:26.604521 29672 net.cpp:148] Top shape: 24 256 28 28 (4816896)
I0403 14:24:26.604540 29672 net.cpp:148] Top shape: 24 256 28 28 (4816896)
I0403 14:24:26.604557 29672 net.cpp:148] Top shape: 24 256 28 28 (4816896)
I0403 14:24:26.604574 29672 net.cpp:148] Top shape: 24 256 28 28 (4816896)
I0403 14:24:26.604589 29672 net.cpp:156] Memory required for data: 657507360
I0403 14:24:26.604606 29672 layer_factory.hpp:77] Creating layer inception_3b/1x1
I0403 14:24:26.604630 29672 net.cpp:91] Creating Layer inception_3b/1x1
I0403 14:24:26.604650 29672 net.cpp:425] inception_3b/1x1 <- inception_3a/output_inception_3a/output_0_split_0
I0403 14:24:26.604672 29672 net.cpp:399] inception_3b/1x1 -> inception_3b/1x1
I0403 14:24:26.605866 29672 net.cpp:141] Setting up inception_3b/1x1
I0403 14:24:26.605909 29672 net.cpp:148] Top shape: 24 128 28 28 (2408448)
I0403 14:24:26.605927 29672 net.cpp:156] Memory required for data: 667141152
I0403 14:24:26.605947 29672 layer_factory.hpp:77] Creating layer inception_3b/relu_1x1
I0403 14:24:26.605969 29672 net.cpp:91] Creating Layer inception_3b/relu_1x1
I0403 14:24:26.605988 29672 net.cpp:425] inception_3b/relu_1x1 <- inception_3b/1x1
I0403 14:24:26.606009 29672 net.cpp:386] inception_3b/relu_1x1 -> inception_3b/1x1 (in-place)
I0403 14:24:26.606194 29672 net.cpp:141] Setting up inception_3b/relu_1x1
I0403 14:24:26.606220 29672 net.cpp:148] Top shape: 24 128 28 28 (2408448)
I0403 14:24:26.606237 29672 net.cpp:156] Memory required for data: 676774944
I0403 14:24:26.606254 29672 layer_factory.hpp:77] Creating layer inception_3b/3x3_reduce
I0403 14:24:26.606281 29672 net.cpp:91] Creating Layer inception_3b/3x3_reduce
I0403 14:24:26.606300 29672 net.cpp:425] inception_3b/3x3_reduce <- inception_3a/output_inception_3a/output_0_split_1
I0403 14:24:26.606325 29672 net.cpp:399] inception_3b/3x3_reduce -> inception_3b/3x3_reduce
I0403 14:24:26.607517 29672 net.cpp:141] Setting up inception_3b/3x3_reduce
I0403 14:24:26.607548 29672 net.cpp:148] Top shape: 24 128 28 28 (2408448)
I0403 14:24:26.607565 29672 net.cpp:156] Memory required for data: 686408736
I0403 14:24:26.607586 29672 layer_factory.hpp:77] Creating layer inception_3b/relu_3x3_reduce
I0403 14:24:26.607606 29672 net.cpp:91] Creating Layer inception_3b/relu_3x3_reduce
I0403 14:24:26.607626 29672 net.cpp:425] inception_3b/relu_3x3_reduce <- inception_3b/3x3_reduce
I0403 14:24:26.607650 29672 net.cpp:386] inception_3b/relu_3x3_reduce -> inception_3b/3x3_reduce (in-place)
I0403 14:24:26.607834 29672 net.cpp:141] Setting up inception_3b/relu_3x3_reduce
I0403 14:24:26.607862 29672 net.cpp:148] Top shape: 24 128 28 28 (2408448)
I0403 14:24:26.607879 29672 net.cpp:156] Memory required for data: 696042528
I0403 14:24:26.607895 29672 layer_factory.hpp:77] Creating layer inception_3b/3x3
I0403 14:24:26.607923 29672 net.cpp:91] Creating Layer inception_3b/3x3
I0403 14:24:26.607944 29672 net.cpp:425] inception_3b/3x3 <- inception_3b/3x3_reduce
I0403 14:24:26.607965 29672 net.cpp:399] inception_3b/3x3 -> inception_3b/3x3
I0403 14:24:26.611037 29672 net.cpp:141] Setting up inception_3b/3x3
I0403 14:24:26.611068 29672 net.cpp:148] Top shape: 24 192 28 28 (3612672)
I0403 14:24:26.611085 29672 net.cpp:156] Memory required for data: 710493216
I0403 14:24:26.611105 29672 layer_factory.hpp:77] Creating layer inception_3b/relu_3x3
I0403 14:24:26.611127 29672 net.cpp:91] Creating Layer inception_3b/relu_3x3
I0403 14:24:26.611145 29672 net.cpp:425] inception_3b/relu_3x3 <- inception_3b/3x3
I0403 14:24:26.611166 29672 net.cpp:386] inception_3b/relu_3x3 -> inception_3b/3x3 (in-place)
I0403 14:24:26.611464 29672 net.cpp:141] Setting up inception_3b/relu_3x3
I0403 14:24:26.611491 29672 net.cpp:148] Top shape: 24 192 28 28 (3612672)
I0403 14:24:26.611510 29672 net.cpp:156] Memory required for data: 724943904
I0403 14:24:26.611526 29672 layer_factory.hpp:77] Creating layer inception_3b/5x5_reduce
I0403 14:24:26.611552 29672 net.cpp:91] Creating Layer inception_3b/5x5_reduce
I0403 14:24:26.611572 29672 net.cpp:425] inception_3b/5x5_reduce <- inception_3a/output_inception_3a/output_0_split_2
I0403 14:24:26.611594 29672 net.cpp:399] inception_3b/5x5_reduce -> inception_3b/5x5_reduce
I0403 14:24:26.612637 29672 net.cpp:141] Setting up inception_3b/5x5_reduce
I0403 14:24:26.612666 29672 net.cpp:148] Top shape: 24 32 28 28 (602112)
I0403 14:24:26.612684 29672 net.cpp:156] Memory required for data: 727352352
I0403 14:24:26.612704 29672 layer_factory.hpp:77] Creating layer inception_3b/relu_5x5_reduce
I0403 14:24:26.612727 29672 net.cpp:91] Creating Layer inception_3b/relu_5x5_reduce
I0403 14:24:26.612746 29672 net.cpp:425] inception_3b/relu_5x5_reduce <- inception_3b/5x5_reduce
I0403 14:24:26.612766 29672 net.cpp:386] inception_3b/relu_5x5_reduce -> inception_3b/5x5_reduce (in-place)
I0403 14:24:26.612952 29672 net.cpp:141] Setting up inception_3b/relu_5x5_reduce
I0403 14:24:26.612995 29672 net.cpp:148] Top shape: 24 32 28 28 (602112)
I0403 14:24:26.613013 29672 net.cpp:156] Memory required for data: 729760800
I0403 14:24:26.613030 29672 layer_factory.hpp:77] Creating layer inception_3b/5x5
I0403 14:24:26.613054 29672 net.cpp:91] Creating Layer inception_3b/5x5
I0403 14:24:26.613073 29672 net.cpp:425] inception_3b/5x5 <- inception_3b/5x5_reduce
I0403 14:24:26.613095 29672 net.cpp:399] inception_3b/5x5 -> inception_3b/5x5
I0403 14:24:26.615164 29672 net.cpp:141] Setting up inception_3b/5x5
I0403 14:24:26.615196 29672 net.cpp:148] Top shape: 24 96 28 28 (1806336)
I0403 14:24:26.615213 29672 net.cpp:156] Memory required for data: 736986144
I0403 14:24:26.615233 29672 layer_factory.hpp:77] Creating layer inception_3b/relu_5x5
I0403 14:24:26.615253 29672 net.cpp:91] Creating Layer inception_3b/relu_5x5
I0403 14:24:26.615272 29672 net.cpp:425] inception_3b/relu_5x5 <- inception_3b/5x5
I0403 14:24:26.615293 29672 net.cpp:386] inception_3b/relu_5x5 -> inception_3b/5x5 (in-place)
I0403 14:24:26.615501 29672 net.cpp:141] Setting up inception_3b/relu_5x5
I0403 14:24:26.615530 29672 net.cpp:148] Top shape: 24 96 28 28 (1806336)
I0403 14:24:26.615545 29672 net.cpp:156] Memory required for data: 744211488
I0403 14:24:26.615562 29672 layer_factory.hpp:77] Creating layer inception_3b/pool
I0403 14:24:26.615582 29672 net.cpp:91] Creating Layer inception_3b/pool
I0403 14:24:26.615600 29672 net.cpp:425] inception_3b/pool <- inception_3a/output_inception_3a/output_0_split_3
I0403 14:24:26.615620 29672 net.cpp:399] inception_3b/pool -> inception_3b/pool
I0403 14:24:26.615681 29672 net.cpp:141] Setting up inception_3b/pool
I0403 14:24:26.615708 29672 net.cpp:148] Top shape: 24 256 28 28 (4816896)
I0403 14:24:26.615725 29672 net.cpp:156] Memory required for data: 763479072
I0403 14:24:26.615742 29672 layer_factory.hpp:77] Creating layer inception_3b/pool_proj
I0403 14:24:26.615767 29672 net.cpp:91] Creating Layer inception_3b/pool_proj
I0403 14:24:26.615785 29672 net.cpp:425] inception_3b/pool_proj <- inception_3b/pool
I0403 14:24:26.615808 29672 net.cpp:399] inception_3b/pool_proj -> inception_3b/pool_proj
I0403 14:24:26.616920 29672 net.cpp:141] Setting up inception_3b/pool_proj
I0403 14:24:26.616953 29672 net.cpp:148] Top shape: 24 64 28 28 (1204224)
I0403 14:24:26.616972 29672 net.cpp:156] Memory required for data: 768295968
I0403 14:24:26.616993 29672 layer_factory.hpp:77] Creating layer inception_3b/relu_pool_proj
I0403 14:24:26.617012 29672 net.cpp:91] Creating Layer inception_3b/relu_pool_proj
I0403 14:24:26.617030 29672 net.cpp:425] inception_3b/relu_pool_proj <- inception_3b/pool_proj
I0403 14:24:26.617051 29672 net.cpp:386] inception_3b/relu_pool_proj -> inception_3b/pool_proj (in-place)
I0403 14:24:26.617473 29672 net.cpp:141] Setting up inception_3b/relu_pool_proj
I0403 14:24:26.617504 29672 net.cpp:148] Top shape: 24 64 28 28 (1204224)
I0403 14:24:26.617522 29672 net.cpp:156] Memory required for data: 773112864
I0403 14:24:26.617540 29672 layer_factory.hpp:77] Creating layer inception_3b/output
I0403 14:24:26.617560 29672 net.cpp:91] Creating Layer inception_3b/output
I0403 14:24:26.617578 29672 net.cpp:425] inception_3b/output <- inception_3b/1x1
I0403 14:24:26.617595 29672 net.cpp:425] inception_3b/output <- inception_3b/3x3
I0403 14:24:26.617614 29672 net.cpp:425] inception_3b/output <- inception_3b/5x5
I0403 14:24:26.617631 29672 net.cpp:425] inception_3b/output <- inception_3b/pool_proj
I0403 14:24:26.617650 29672 net.cpp:399] inception_3b/output -> inception_3b/output
I0403 14:24:26.617699 29672 net.cpp:141] Setting up inception_3b/output
I0403 14:24:26.617724 29672 net.cpp:148] Top shape: 24 480 28 28 (9031680)
I0403 14:24:26.617741 29672 net.cpp:156] Memory required for data: 809239584
I0403 14:24:26.617758 29672 layer_factory.hpp:77] Creating layer pool3/3x3_s2
I0403 14:24:26.617779 29672 net.cpp:91] Creating Layer pool3/3x3_s2
I0403 14:24:26.617797 29672 net.cpp:425] pool3/3x3_s2 <- inception_3b/output
I0403 14:24:26.617818 29672 net.cpp:399] pool3/3x3_s2 -> pool3/3x3_s2
I0403 14:24:26.617897 29672 net.cpp:141] Setting up pool3/3x3_s2
I0403 14:24:26.617923 29672 net.cpp:148] Top shape: 24 480 14 14 (2257920)
I0403 14:24:26.617939 29672 net.cpp:156] Memory required for data: 818271264
I0403 14:24:26.617956 29672 layer_factory.hpp:77] Creating layer pool3/3x3_s2_pool3/3x3_s2_0_split
I0403 14:24:26.617974 29672 net.cpp:91] Creating Layer pool3/3x3_s2_pool3/3x3_s2_0_split
I0403 14:24:26.617992 29672 net.cpp:425] pool3/3x3_s2_pool3/3x3_s2_0_split <- pool3/3x3_s2
I0403 14:24:26.618013 29672 net.cpp:399] pool3/3x3_s2_pool3/3x3_s2_0_split -> pool3/3x3_s2_pool3/3x3_s2_0_split_0
I0403 14:24:26.618036 29672 net.cpp:399] pool3/3x3_s2_pool3/3x3_s2_0_split -> pool3/3x3_s2_pool3/3x3_s2_0_split_1
I0403 14:24:26.618057 29672 net.cpp:399] pool3/3x3_s2_pool3/3x3_s2_0_split -> pool3/3x3_s2_pool3/3x3_s2_0_split_2
I0403 14:24:26.618078 29672 net.cpp:399] pool3/3x3_s2_pool3/3x3_s2_0_split -> pool3/3x3_s2_pool3/3x3_s2_0_split_3
I0403 14:24:26.618160 29672 net.cpp:141] Setting up pool3/3x3_s2_pool3/3x3_s2_0_split
I0403 14:24:26.618187 29672 net.cpp:148] Top shape: 24 480 14 14 (2257920)
I0403 14:24:26.618206 29672 net.cpp:148] Top shape: 24 480 14 14 (2257920)
I0403 14:24:26.618223 29672 net.cpp:148] Top shape: 24 480 14 14 (2257920)
I0403 14:24:26.618240 29672 net.cpp:148] Top shape: 24 480 14 14 (2257920)
I0403 14:24:26.618257 29672 net.cpp:156] Memory required for data: 854397984
I0403 14:24:26.618273 29672 layer_factory.hpp:77] Creating layer inception_4a/1x1
I0403 14:24:26.618296 29672 net.cpp:91] Creating Layer inception_4a/1x1
I0403 14:24:26.618319 29672 net.cpp:425] inception_4a/1x1 <- pool3/3x3_s2_pool3/3x3_s2_0_split_0
I0403 14:24:26.618340 29672 net.cpp:399] inception_4a/1x1 -> inception_4a/1x1
I0403 14:24:26.619966 29672 net.cpp:141] Setting up inception_4a/1x1
I0403 14:24:26.619997 29672 net.cpp:148] Top shape: 24 192 14 14 (903168)
I0403 14:24:26.620012 29672 net.cpp:156] Memory required for data: 858010656
I0403 14:24:26.620033 29672 layer_factory.hpp:77] Creating layer inception_4a/relu_1x1
I0403 14:24:26.620051 29672 net.cpp:91] Creating Layer inception_4a/relu_1x1
I0403 14:24:26.620069 29672 net.cpp:425] inception_4a/relu_1x1 <- inception_4a/1x1
I0403 14:24:26.620090 29672 net.cpp:386] inception_4a/relu_1x1 -> inception_4a/1x1 (in-place)
I0403 14:24:26.620271 29672 net.cpp:141] Setting up inception_4a/relu_1x1
I0403 14:24:26.620297 29672 net.cpp:148] Top shape: 24 192 14 14 (903168)
I0403 14:24:26.620313 29672 net.cpp:156] Memory required for data: 861623328
I0403 14:24:26.620335 29672 layer_factory.hpp:77] Creating layer inception_4a/3x3_reduce
I0403 14:24:26.620360 29672 net.cpp:91] Creating Layer inception_4a/3x3_reduce
I0403 14:24:26.620379 29672 net.cpp:425] inception_4a/3x3_reduce <- pool3/3x3_s2_pool3/3x3_s2_0_split_1
I0403 14:24:26.620401 29672 net.cpp:399] inception_4a/3x3_reduce -> inception_4a/3x3_reduce
I0403 14:24:26.621713 29672 net.cpp:141] Setting up inception_4a/3x3_reduce
I0403 14:24:26.621745 29672 net.cpp:148] Top shape: 24 96 14 14 (451584)
I0403 14:24:26.621763 29672 net.cpp:156] Memory required for data: 863429664
I0403 14:24:26.621791 29672 layer_factory.hpp:77] Creating layer inception_4a/relu_3x3_reduce
I0403 14:24:26.621814 29672 net.cpp:91] Creating Layer inception_4a/relu_3x3_reduce
I0403 14:24:26.621830 29672 net.cpp:425] inception_4a/relu_3x3_reduce <- inception_4a/3x3_reduce
I0403 14:24:26.621850 29672 net.cpp:386] inception_4a/relu_3x3_reduce -> inception_4a/3x3_reduce (in-place)
I0403 14:24:26.622030 29672 net.cpp:141] Setting up inception_4a/relu_3x3_reduce
I0403 14:24:26.622057 29672 net.cpp:148] Top shape: 24 96 14 14 (451584)
I0403 14:24:26.622073 29672 net.cpp:156] Memory required for data: 865236000
I0403 14:24:26.622089 29672 layer_factory.hpp:77] Creating layer inception_4a/3x3
I0403 14:24:26.622113 29672 net.cpp:91] Creating Layer inception_4a/3x3
I0403 14:24:26.622133 29672 net.cpp:425] inception_4a/3x3 <- inception_4a/3x3_reduce
I0403 14:24:26.622156 29672 net.cpp:399] inception_4a/3x3 -> inception_4a/3x3
I0403 14:24:26.624917 29672 net.cpp:141] Setting up inception_4a/3x3
I0403 14:24:26.624946 29672 net.cpp:148] Top shape: 24 208 14 14 (978432)
I0403 14:24:26.624963 29672 net.cpp:156] Memory required for data: 869149728
I0403 14:24:26.624984 29672 layer_factory.hpp:77] Creating layer inception_4a/relu_3x3
I0403 14:24:26.625005 29672 net.cpp:91] Creating Layer inception_4a/relu_3x3
I0403 14:24:26.625023 29672 net.cpp:425] inception_4a/relu_3x3 <- inception_4a/3x3
I0403 14:24:26.625042 29672 net.cpp:386] inception_4a/relu_3x3 -> inception_4a/3x3 (in-place)
I0403 14:24:26.625339 29672 net.cpp:141] Setting up inception_4a/relu_3x3
I0403 14:24:26.625367 29672 net.cpp:148] Top shape: 24 208 14 14 (978432)
I0403 14:24:26.625383 29672 net.cpp:156] Memory required for data: 873063456
I0403 14:24:26.625401 29672 layer_factory.hpp:77] Creating layer inception_4a/5x5_reduce
I0403 14:24:26.625423 29672 net.cpp:91] Creating Layer inception_4a/5x5_reduce
I0403 14:24:26.625442 29672 net.cpp:425] inception_4a/5x5_reduce <- pool3/3x3_s2_pool3/3x3_s2_0_split_2
I0403 14:24:26.625465 29672 net.cpp:399] inception_4a/5x5_reduce -> inception_4a/5x5_reduce
I0403 14:24:26.626523 29672 net.cpp:141] Setting up inception_4a/5x5_reduce
I0403 14:24:26.626554 29672 net.cpp:148] Top shape: 24 16 14 14 (75264)
I0403 14:24:26.626571 29672 net.cpp:156] Memory required for data: 873364512
I0403 14:24:26.626590 29672 layer_factory.hpp:77] Creating layer inception_4a/relu_5x5_reduce
I0403 14:24:26.626612 29672 net.cpp:91] Creating Layer inception_4a/relu_5x5_reduce
I0403 14:24:26.626631 29672 net.cpp:425] inception_4a/relu_5x5_reduce <- inception_4a/5x5_reduce
I0403 14:24:26.626652 29672 net.cpp:386] inception_4a/relu_5x5_reduce -> inception_4a/5x5_reduce (in-place)
I0403 14:24:26.626832 29672 net.cpp:141] Setting up inception_4a/relu_5x5_reduce
I0403 14:24:26.626863 29672 net.cpp:148] Top shape: 24 16 14 14 (75264)
I0403 14:24:26.626879 29672 net.cpp:156] Memory required for data: 873665568
I0403 14:24:26.626895 29672 layer_factory.hpp:77] Creating layer inception_4a/5x5
I0403 14:24:26.626917 29672 net.cpp:91] Creating Layer inception_4a/5x5
I0403 14:24:26.626936 29672 net.cpp:425] inception_4a/5x5 <- inception_4a/5x5_reduce
I0403 14:24:26.626956 29672 net.cpp:399] inception_4a/5x5 -> inception_4a/5x5
I0403 14:24:26.628078 29672 net.cpp:141] Setting up inception_4a/5x5
I0403 14:24:26.628109 29672 net.cpp:148] Top shape: 24 48 14 14 (225792)
I0403 14:24:26.628129 29672 net.cpp:156] Memory required for data: 874568736
I0403 14:24:26.628147 29672 layer_factory.hpp:77] Creating layer inception_4a/relu_5x5
I0403 14:24:26.628168 29672 net.cpp:91] Creating Layer inception_4a/relu_5x5
I0403 14:24:26.628185 29672 net.cpp:425] inception_4a/relu_5x5 <- inception_4a/5x5
I0403 14:24:26.628206 29672 net.cpp:386] inception_4a/relu_5x5 -> inception_4a/5x5 (in-place)
I0403 14:24:26.628401 29672 net.cpp:141] Setting up inception_4a/relu_5x5
I0403 14:24:26.628429 29672 net.cpp:148] Top shape: 24 48 14 14 (225792)
I0403 14:24:26.628448 29672 net.cpp:156] Memory required for data: 875471904
I0403 14:24:26.628463 29672 layer_factory.hpp:77] Creating layer inception_4a/pool
I0403 14:24:26.628482 29672 net.cpp:91] Creating Layer inception_4a/pool
I0403 14:24:26.628499 29672 net.cpp:425] inception_4a/pool <- pool3/3x3_s2_pool3/3x3_s2_0_split_3
I0403 14:24:26.628520 29672 net.cpp:399] inception_4a/pool -> inception_4a/pool
I0403 14:24:26.628585 29672 net.cpp:141] Setting up inception_4a/pool
I0403 14:24:26.628610 29672 net.cpp:148] Top shape: 24 480 14 14 (2257920)
I0403 14:24:26.628626 29672 net.cpp:156] Memory required for data: 884503584
I0403 14:24:26.628641 29672 layer_factory.hpp:77] Creating layer inception_4a/pool_proj
I0403 14:24:26.628665 29672 net.cpp:91] Creating Layer inception_4a/pool_proj
I0403 14:24:26.628685 29672 net.cpp:425] inception_4a/pool_proj <- inception_4a/pool
I0403 14:24:26.628706 29672 net.cpp:399] inception_4a/pool_proj -> inception_4a/pool_proj
I0403 14:24:26.629904 29672 net.cpp:141] Setting up inception_4a/pool_proj
I0403 14:24:26.629935 29672 net.cpp:148] Top shape: 24 64 14 14 (301056)
I0403 14:24:26.629969 29672 net.cpp:156] Memory required for data: 885707808
I0403 14:24:26.629992 29672 layer_factory.hpp:77] Creating layer inception_4a/relu_pool_proj
I0403 14:24:26.630012 29672 net.cpp:91] Creating Layer inception_4a/relu_pool_proj
I0403 14:24:26.630028 29672 net.cpp:425] inception_4a/relu_pool_proj <- inception_4a/pool_proj
I0403 14:24:26.630051 29672 net.cpp:386] inception_4a/relu_pool_proj -> inception_4a/pool_proj (in-place)
I0403 14:24:26.630342 29672 net.cpp:141] Setting up inception_4a/relu_pool_proj
I0403 14:24:26.630372 29672 net.cpp:148] Top shape: 24 64 14 14 (301056)
I0403 14:24:26.630389 29672 net.cpp:156] Memory required for data: 886912032
I0403 14:24:26.630405 29672 layer_factory.hpp:77] Creating layer inception_4a/output
I0403 14:24:26.630424 29672 net.cpp:91] Creating Layer inception_4a/output
I0403 14:24:26.630440 29672 net.cpp:425] inception_4a/output <- inception_4a/1x1
I0403 14:24:26.630458 29672 net.cpp:425] inception_4a/output <- inception_4a/3x3
I0403 14:24:26.630475 29672 net.cpp:425] inception_4a/output <- inception_4a/5x5
I0403 14:24:26.630493 29672 net.cpp:425] inception_4a/output <- inception_4a/pool_proj
I0403 14:24:26.630516 29672 net.cpp:399] inception_4a/output -> inception_4a/output
I0403 14:24:26.630563 29672 net.cpp:141] Setting up inception_4a/output
I0403 14:24:26.630587 29672 net.cpp:148] Top shape: 24 512 14 14 (2408448)
I0403 14:24:26.630602 29672 net.cpp:156] Memory required for data: 896545824
I0403 14:24:26.630620 29672 layer_factory.hpp:77] Creating layer inception_4a/output_inception_4a/output_0_split
I0403 14:24:26.630641 29672 net.cpp:91] Creating Layer inception_4a/output_inception_4a/output_0_split
I0403 14:24:26.630657 29672 net.cpp:425] inception_4a/output_inception_4a/output_0_split <- inception_4a/output
I0403 14:24:26.630676 29672 net.cpp:399] inception_4a/output_inception_4a/output_0_split -> inception_4a/output_inception_4a/output_0_split_0
I0403 14:24:26.630700 29672 net.cpp:399] inception_4a/output_inception_4a/output_0_split -> inception_4a/output_inception_4a/output_0_split_1
I0403 14:24:26.630723 29672 net.cpp:399] inception_4a/output_inception_4a/output_0_split -> inception_4a/output_inception_4a/output_0_split_2
I0403 14:24:26.630746 29672 net.cpp:399] inception_4a/output_inception_4a/output_0_split -> inception_4a/output_inception_4a/output_0_split_3
I0403 14:24:26.630769 29672 net.cpp:399] inception_4a/output_inception_4a/output_0_split -> inception_4a/output_inception_4a/output_0_split_4
I0403 14:24:26.630863 29672 net.cpp:141] Setting up inception_4a/output_inception_4a/output_0_split
I0403 14:24:26.630888 29672 net.cpp:148] Top shape: 24 512 14 14 (2408448)
I0403 14:24:26.630906 29672 net.cpp:148] Top shape: 24 512 14 14 (2408448)
I0403 14:24:26.630923 29672 net.cpp:148] Top shape: 24 512 14 14 (2408448)
I0403 14:24:26.630939 29672 net.cpp:148] Top shape: 24 512 14 14 (2408448)
I0403 14:24:26.630957 29672 net.cpp:148] Top shape: 24 512 14 14 (2408448)
I0403 14:24:26.630972 29672 net.cpp:156] Memory required for data: 944714784
I0403 14:24:26.630987 29672 layer_factory.hpp:77] Creating layer loss1/ave_pool
I0403 14:24:26.631008 29672 net.cpp:91] Creating Layer loss1/ave_pool
I0403 14:24:26.631026 29672 net.cpp:425] loss1/ave_pool <- inception_4a/output_inception_4a/output_0_split_0
I0403 14:24:26.631045 29672 net.cpp:399] loss1/ave_pool -> loss1/ave_pool
I0403 14:24:26.631260 29672 net.cpp:141] Setting up loss1/ave_pool
I0403 14:24:26.631290 29672 net.cpp:148] Top shape: 24 512 4 4 (196608)
I0403 14:24:26.631306 29672 net.cpp:156] Memory required for data: 945501216
I0403 14:24:26.631342 29672 layer_factory.hpp:77] Creating layer loss1/conv
I0403 14:24:26.631382 29672 net.cpp:91] Creating Layer loss1/conv
I0403 14:24:26.631402 29672 net.cpp:425] loss1/conv <- loss1/ave_pool
I0403 14:24:26.631423 29672 net.cpp:399] loss1/conv -> loss1/conv
I0403 14:24:26.632918 29672 net.cpp:141] Setting up loss1/conv
I0403 14:24:26.632949 29672 net.cpp:148] Top shape: 24 128 4 4 (49152)
I0403 14:24:26.632967 29672 net.cpp:156] Memory required for data: 945697824
I0403 14:24:26.633003 29672 layer_factory.hpp:77] Creating layer loss1/relu_conv
I0403 14:24:26.633028 29672 net.cpp:91] Creating Layer loss1/relu_conv
I0403 14:24:26.633046 29672 net.cpp:425] loss1/relu_conv <- loss1/conv
I0403 14:24:26.633065 29672 net.cpp:386] loss1/relu_conv -> loss1/conv (in-place)
I0403 14:24:26.633366 29672 net.cpp:141] Setting up loss1/relu_conv
I0403 14:24:26.633395 29672 net.cpp:148] Top shape: 24 128 4 4 (49152)
I0403 14:24:26.633412 29672 net.cpp:156] Memory required for data: 945894432
I0403 14:24:26.633429 29672 layer_factory.hpp:77] Creating layer loss1/fc
I0403 14:24:26.633455 29672 net.cpp:91] Creating Layer loss1/fc
I0403 14:24:26.633476 29672 net.cpp:425] loss1/fc <- loss1/conv
I0403 14:24:26.633496 29672 net.cpp:399] loss1/fc -> loss1/fc
I0403 14:24:26.652227 29672 net.cpp:141] Setting up loss1/fc
I0403 14:24:26.652283 29672 net.cpp:148] Top shape: 24 1024 (24576)
I0403 14:24:26.652300 29672 net.cpp:156] Memory required for data: 945992736
I0403 14:24:26.652325 29672 layer_factory.hpp:77] Creating layer loss1/relu_fc
I0403 14:24:26.652348 29672 net.cpp:91] Creating Layer loss1/relu_fc
I0403 14:24:26.652366 29672 net.cpp:425] loss1/relu_fc <- loss1/fc
I0403 14:24:26.652389 29672 net.cpp:386] loss1/relu_fc -> loss1/fc (in-place)
I0403 14:24:26.652609 29672 net.cpp:141] Setting up loss1/relu_fc
I0403 14:24:26.652637 29672 net.cpp:148] Top shape: 24 1024 (24576)
I0403 14:24:26.652652 29672 net.cpp:156] Memory required for data: 946091040
I0403 14:24:26.652668 29672 layer_factory.hpp:77] Creating layer loss1/drop_fc
I0403 14:24:26.652698 29672 net.cpp:91] Creating Layer loss1/drop_fc
I0403 14:24:26.652717 29672 net.cpp:425] loss1/drop_fc <- loss1/fc
I0403 14:24:26.652740 29672 net.cpp:386] loss1/drop_fc -> loss1/fc (in-place)
I0403 14:24:26.652792 29672 net.cpp:141] Setting up loss1/drop_fc
I0403 14:24:26.652823 29672 net.cpp:148] Top shape: 24 1024 (24576)
I0403 14:24:26.652840 29672 net.cpp:156] Memory required for data: 946189344
I0403 14:24:26.652856 29672 layer_factory.hpp:77] Creating layer loss1/classifier_plantvillage
I0403 14:24:26.652878 29672 net.cpp:91] Creating Layer loss1/classifier_plantvillage
I0403 14:24:26.652894 29672 net.cpp:425] loss1/classifier_plantvillage <- loss1/fc
I0403 14:24:26.652917 29672 net.cpp:399] loss1/classifier_plantvillage -> loss1/classifier_plantvillage
I0403 14:24:26.653870 29672 net.cpp:141] Setting up loss1/classifier_plantvillage
I0403 14:24:26.653900 29672 net.cpp:148] Top shape: 24 38 (912)
I0403 14:24:26.653918 29672 net.cpp:156] Memory required for data: 946192992
I0403 14:24:26.653937 29672 layer_factory.hpp:77] Creating layer loss1/classifier_plantvillage_loss1/classifier_plantvillage_0_split
I0403 14:24:26.653957 29672 net.cpp:91] Creating Layer loss1/classifier_plantvillage_loss1/classifier_plantvillage_0_split
I0403 14:24:26.653975 29672 net.cpp:425] loss1/classifier_plantvillage_loss1/classifier_plantvillage_0_split <- loss1/classifier_plantvillage
I0403 14:24:26.653995 29672 net.cpp:399] loss1/classifier_plantvillage_loss1/classifier_plantvillage_0_split -> loss1/classifier_plantvillage_loss1/classifier_plantvillage_0_split_0
I0403 14:24:26.654021 29672 net.cpp:399] loss1/classifier_plantvillage_loss1/classifier_plantvillage_0_split -> loss1/classifier_plantvillage_loss1/classifier_plantvillage_0_split_1
I0403 14:24:26.654042 29672 net.cpp:399] loss1/classifier_plantvillage_loss1/classifier_plantvillage_0_split -> loss1/classifier_plantvillage_loss1/classifier_plantvillage_0_split_2
I0403 14:24:26.654112 29672 net.cpp:141] Setting up loss1/classifier_plantvillage_loss1/classifier_plantvillage_0_split
I0403 14:24:26.654137 29672 net.cpp:148] Top shape: 24 38 (912)
I0403 14:24:26.654155 29672 net.cpp:148] Top shape: 24 38 (912)
I0403 14:24:26.654171 29672 net.cpp:148] Top shape: 24 38 (912)
I0403 14:24:26.654186 29672 net.cpp:156] Memory required for data: 946203936
I0403 14:24:26.654202 29672 layer_factory.hpp:77] Creating layer inception_4b/1x1
I0403 14:24:26.654228 29672 net.cpp:91] Creating Layer inception_4b/1x1
I0403 14:24:26.654271 29672 net.cpp:425] inception_4b/1x1 <- inception_4a/output_inception_4a/output_0_split_1
I0403 14:24:26.654292 29672 net.cpp:399] inception_4b/1x1 -> inception_4b/1x1
I0403 14:24:26.656044 29672 net.cpp:141] Setting up inception_4b/1x1
I0403 14:24:26.656075 29672 net.cpp:148] Top shape: 24 160 14 14 (752640)
I0403 14:24:26.656092 29672 net.cpp:156] Memory required for data: 949214496
I0403 14:24:26.656112 29672 layer_factory.hpp:77] Creating layer inception_4b/relu_1x1
I0403 14:24:26.656132 29672 net.cpp:91] Creating Layer inception_4b/relu_1x1
I0403 14:24:26.656150 29672 net.cpp:425] inception_4b/relu_1x1 <- inception_4b/1x1
I0403 14:24:26.656169 29672 net.cpp:386] inception_4b/relu_1x1 -> inception_4b/1x1 (in-place)
I0403 14:24:26.656358 29672 net.cpp:141] Setting up inception_4b/relu_1x1
I0403 14:24:26.656388 29672 net.cpp:148] Top shape: 24 160 14 14 (752640)
I0403 14:24:26.656404 29672 net.cpp:156] Memory required for data: 952225056
I0403 14:24:26.656421 29672 layer_factory.hpp:77] Creating layer inception_4b/3x3_reduce
I0403 14:24:26.656446 29672 net.cpp:91] Creating Layer inception_4b/3x3_reduce
I0403 14:24:26.656466 29672 net.cpp:425] inception_4b/3x3_reduce <- inception_4a/output_inception_4a/output_0_split_2
I0403 14:24:26.656486 29672 net.cpp:399] inception_4b/3x3_reduce -> inception_4b/3x3_reduce
I0403 14:24:26.657879 29672 net.cpp:141] Setting up inception_4b/3x3_reduce
I0403 14:24:26.657912 29672 net.cpp:148] Top shape: 24 112 14 14 (526848)
I0403 14:24:26.657932 29672 net.cpp:156] Memory required for data: 954332448
I0403 14:24:26.657951 29672 layer_factory.hpp:77] Creating layer inception_4b/relu_3x3_reduce
I0403 14:24:26.657970 29672 net.cpp:91] Creating Layer inception_4b/relu_3x3_reduce
I0403 14:24:26.657987 29672 net.cpp:425] inception_4b/relu_3x3_reduce <- inception_4b/3x3_reduce
I0403 14:24:26.658005 29672 net.cpp:386] inception_4b/relu_3x3_reduce -> inception_4b/3x3_reduce (in-place)
I0403 14:24:26.658294 29672 net.cpp:141] Setting up inception_4b/relu_3x3_reduce
I0403 14:24:26.658329 29672 net.cpp:148] Top shape: 24 112 14 14 (526848)
I0403 14:24:26.658349 29672 net.cpp:156] Memory required for data: 956439840
I0403 14:24:26.658365 29672 layer_factory.hpp:77] Creating layer inception_4b/3x3
I0403 14:24:26.658388 29672 net.cpp:91] Creating Layer inception_4b/3x3
I0403 14:24:26.658407 29672 net.cpp:425] inception_4b/3x3 <- inception_4b/3x3_reduce
I0403 14:24:26.658427 29672 net.cpp:399] inception_4b/3x3 -> inception_4b/3x3
I0403 14:24:26.661483 29672 net.cpp:141] Setting up inception_4b/3x3
I0403 14:24:26.661514 29672 net.cpp:148] Top shape: 24 224 14 14 (1053696)
I0403 14:24:26.661531 29672 net.cpp:156] Memory required for data: 960654624
I0403 14:24:26.661552 29672 layer_factory.hpp:77] Creating layer inception_4b/relu_3x3
I0403 14:24:26.661572 29672 net.cpp:91] Creating Layer inception_4b/relu_3x3
I0403 14:24:26.661591 29672 net.cpp:425] inception_4b/relu_3x3 <- inception_4b/3x3
I0403 14:24:26.661610 29672 net.cpp:386] inception_4b/relu_3x3 -> inception_4b/3x3 (in-place)
I0403 14:24:26.661799 29672 net.cpp:141] Setting up inception_4b/relu_3x3
I0403 14:24:26.661826 29672 net.cpp:148] Top shape: 24 224 14 14 (1053696)
I0403 14:24:26.661842 29672 net.cpp:156] Memory required for data: 964869408
I0403 14:24:26.661859 29672 layer_factory.hpp:77] Creating layer inception_4b/5x5_reduce
I0403 14:24:26.661881 29672 net.cpp:91] Creating Layer inception_4b/5x5_reduce
I0403 14:24:26.661900 29672 net.cpp:425] inception_4b/5x5_reduce <- inception_4a/output_inception_4a/output_0_split_3
I0403 14:24:26.661924 29672 net.cpp:399] inception_4b/5x5_reduce -> inception_4b/5x5_reduce
I0403 14:24:26.663039 29672 net.cpp:141] Setting up inception_4b/5x5_reduce
I0403 14:24:26.663069 29672 net.cpp:148] Top shape: 24 24 14 14 (112896)
I0403 14:24:26.663084 29672 net.cpp:156] Memory required for data: 965320992
I0403 14:24:26.663105 29672 layer_factory.hpp:77] Creating layer inception_4b/relu_5x5_reduce
I0403 14:24:26.663125 29672 net.cpp:91] Creating Layer inception_4b/relu_5x5_reduce
I0403 14:24:26.663158 29672 net.cpp:425] inception_4b/relu_5x5_reduce <- inception_4b/5x5_reduce
I0403 14:24:26.663178 29672 net.cpp:386] inception_4b/relu_5x5_reduce -> inception_4b/5x5_reduce (in-place)
I0403 14:24:26.663372 29672 net.cpp:141] Setting up inception_4b/relu_5x5_reduce
I0403 14:24:26.663401 29672 net.cpp:148] Top shape: 24 24 14 14 (112896)
I0403 14:24:26.663417 29672 net.cpp:156] Memory required for data: 965772576
I0403 14:24:26.663434 29672 layer_factory.hpp:77] Creating layer inception_4b/5x5
I0403 14:24:26.663457 29672 net.cpp:91] Creating Layer inception_4b/5x5
I0403 14:24:26.663475 29672 net.cpp:425] inception_4b/5x5 <- inception_4b/5x5_reduce
I0403 14:24:26.663496 29672 net.cpp:399] inception_4b/5x5 -> inception_4b/5x5
I0403 14:24:26.664759 29672 net.cpp:141] Setting up inception_4b/5x5
I0403 14:24:26.664788 29672 net.cpp:148] Top shape: 24 64 14 14 (301056)
I0403 14:24:26.664806 29672 net.cpp:156] Memory required for data: 966976800
I0403 14:24:26.664826 29672 layer_factory.hpp:77] Creating layer inception_4b/relu_5x5
I0403 14:24:26.664849 29672 net.cpp:91] Creating Layer inception_4b/relu_5x5
I0403 14:24:26.664867 29672 net.cpp:425] inception_4b/relu_5x5 <- inception_4b/5x5
I0403 14:24:26.664886 29672 net.cpp:386] inception_4b/relu_5x5 -> inception_4b/5x5 (in-place)
I0403 14:24:26.665184 29672 net.cpp:141] Setting up inception_4b/relu_5x5
I0403 14:24:26.665211 29672 net.cpp:148] Top shape: 24 64 14 14 (301056)
I0403 14:24:26.665228 29672 net.cpp:156] Memory required for data: 968181024
I0403 14:24:26.665246 29672 layer_factory.hpp:77] Creating layer inception_4b/pool
I0403 14:24:26.665267 29672 net.cpp:91] Creating Layer inception_4b/pool
I0403 14:24:26.665285 29672 net.cpp:425] inception_4b/pool <- inception_4a/output_inception_4a/output_0_split_4
I0403 14:24:26.665305 29672 net.cpp:399] inception_4b/pool -> inception_4b/pool
I0403 14:24:26.665380 29672 net.cpp:141] Setting up inception_4b/pool
I0403 14:24:26.665405 29672 net.cpp:148] Top shape: 24 512 14 14 (2408448)
I0403 14:24:26.665422 29672 net.cpp:156] Memory required for data: 977814816
I0403 14:24:26.665438 29672 layer_factory.hpp:77] Creating layer inception_4b/pool_proj
I0403 14:24:26.665462 29672 net.cpp:91] Creating Layer inception_4b/pool_proj
I0403 14:24:26.665482 29672 net.cpp:425] inception_4b/pool_proj <- inception_4b/pool
I0403 14:24:26.665503 29672 net.cpp:399] inception_4b/pool_proj -> inception_4b/pool_proj
I0403 14:24:26.666787 29672 net.cpp:141] Setting up inception_4b/pool_proj
I0403 14:24:26.666826 29672 net.cpp:148] Top shape: 24 64 14 14 (301056)
I0403 14:24:26.666843 29672 net.cpp:156] Memory required for data: 979019040
I0403 14:24:26.666863 29672 layer_factory.hpp:77] Creating layer inception_4b/relu_pool_proj
I0403 14:24:26.666885 29672 net.cpp:91] Creating Layer inception_4b/relu_pool_proj
I0403 14:24:26.666903 29672 net.cpp:425] inception_4b/relu_pool_proj <- inception_4b/pool_proj
I0403 14:24:26.666923 29672 net.cpp:386] inception_4b/relu_pool_proj -> inception_4b/pool_proj (in-place)
I0403 14:24:26.667106 29672 net.cpp:141] Setting up inception_4b/relu_pool_proj
I0403 14:24:26.667135 29672 net.cpp:148] Top shape: 24 64 14 14 (301056)
I0403 14:24:26.667152 29672 net.cpp:156] Memory required for data: 980223264
I0403 14:24:26.667170 29672 layer_factory.hpp:77] Creating layer inception_4b/output
I0403 14:24:26.667188 29672 net.cpp:91] Creating Layer inception_4b/output
I0403 14:24:26.667204 29672 net.cpp:425] inception_4b/output <- inception_4b/1x1
I0403 14:24:26.667222 29672 net.cpp:425] inception_4b/output <- inception_4b/3x3
I0403 14:24:26.667239 29672 net.cpp:425] inception_4b/output <- inception_4b/5x5
I0403 14:24:26.667256 29672 net.cpp:425] inception_4b/output <- inception_4b/pool_proj
I0403 14:24:26.667275 29672 net.cpp:399] inception_4b/output -> inception_4b/output
I0403 14:24:26.667330 29672 net.cpp:141] Setting up inception_4b/output
I0403 14:24:26.667354 29672 net.cpp:148] Top shape: 24 512 14 14 (2408448)
I0403 14:24:26.667371 29672 net.cpp:156] Memory required for data: 989857056
I0403 14:24:26.667402 29672 layer_factory.hpp:77] Creating layer inception_4b/output_inception_4b/output_0_split
I0403 14:24:26.667424 29672 net.cpp:91] Creating Layer inception_4b/output_inception_4b/output_0_split
I0403 14:24:26.667443 29672 net.cpp:425] inception_4b/output_inception_4b/output_0_split <- inception_4b/output
I0403 14:24:26.667461 29672 net.cpp:399] inception_4b/output_inception_4b/output_0_split -> inception_4b/output_inception_4b/output_0_split_0
I0403 14:24:26.667482 29672 net.cpp:399] inception_4b/output_inception_4b/output_0_split -> inception_4b/output_inception_4b/output_0_split_1
I0403 14:24:26.667505 29672 net.cpp:399] inception_4b/output_inception_4b/output_0_split -> inception_4b/output_inception_4b/output_0_split_2
I0403 14:24:26.667528 29672 net.cpp:399] inception_4b/output_inception_4b/output_0_split -> inception_4b/output_inception_4b/output_0_split_3
I0403 14:24:26.667619 29672 net.cpp:141] Setting up inception_4b/output_inception_4b/output_0_split
I0403 14:24:26.667644 29672 net.cpp:148] Top shape: 24 512 14 14 (2408448)
I0403 14:24:26.667661 29672 net.cpp:148] Top shape: 24 512 14 14 (2408448)
I0403 14:24:26.667678 29672 net.cpp:148] Top shape: 24 512 14 14 (2408448)
I0403 14:24:26.667696 29672 net.cpp:148] Top shape: 24 512 14 14 (2408448)
I0403 14:24:26.667711 29672 net.cpp:156] Memory required for data: 1028392224
I0403 14:24:26.667726 29672 layer_factory.hpp:77] Creating layer inception_4c/1x1
I0403 14:24:26.667750 29672 net.cpp:91] Creating Layer inception_4c/1x1
I0403 14:24:26.667769 29672 net.cpp:425] inception_4c/1x1 <- inception_4b/output_inception_4b/output_0_split_0
I0403 14:24:26.667791 29672 net.cpp:399] inception_4c/1x1 -> inception_4c/1x1
I0403 14:24:26.669270 29672 net.cpp:141] Setting up inception_4c/1x1
I0403 14:24:26.669303 29672 net.cpp:148] Top shape: 24 128 14 14 (602112)
I0403 14:24:26.669323 29672 net.cpp:156] Memory required for data: 1030800672
I0403 14:24:26.669344 29672 layer_factory.hpp:77] Creating layer inception_4c/relu_1x1
I0403 14:24:26.669364 29672 net.cpp:91] Creating Layer inception_4c/relu_1x1
I0403 14:24:26.669381 29672 net.cpp:425] inception_4c/relu_1x1 <- inception_4c/1x1
I0403 14:24:26.669402 29672 net.cpp:386] inception_4c/relu_1x1 -> inception_4c/1x1 (in-place)
I0403 14:24:26.669591 29672 net.cpp:141] Setting up inception_4c/relu_1x1
I0403 14:24:26.669618 29672 net.cpp:148] Top shape: 24 128 14 14 (602112)
I0403 14:24:26.669634 29672 net.cpp:156] Memory required for data: 1033209120
I0403 14:24:26.669651 29672 layer_factory.hpp:77] Creating layer inception_4c/3x3_reduce
I0403 14:24:26.669674 29672 net.cpp:91] Creating Layer inception_4c/3x3_reduce
I0403 14:24:26.669694 29672 net.cpp:425] inception_4c/3x3_reduce <- inception_4b/output_inception_4b/output_0_split_1
I0403 14:24:26.669716 29672 net.cpp:399] inception_4c/3x3_reduce -> inception_4c/3x3_reduce
I0403 14:24:26.671715 29672 net.cpp:141] Setting up inception_4c/3x3_reduce
I0403 14:24:26.671746 29672 net.cpp:148] Top shape: 24 128 14 14 (602112)
I0403 14:24:26.671762 29672 net.cpp:156] Memory required for data: 1035617568
I0403 14:24:26.671782 29672 layer_factory.hpp:77] Creating layer inception_4c/relu_3x3_reduce
I0403 14:24:26.671804 29672 net.cpp:91] Creating Layer inception_4c/relu_3x3_reduce
I0403 14:24:26.671823 29672 net.cpp:425] inception_4c/relu_3x3_reduce <- inception_4c/3x3_reduce
I0403 14:24:26.671843 29672 net.cpp:386] inception_4c/relu_3x3_reduce -> inception_4c/3x3_reduce (in-place)
I0403 14:24:26.672142 29672 net.cpp:141] Setting up inception_4c/relu_3x3_reduce
I0403 14:24:26.672169 29672 net.cpp:148] Top shape: 24 128 14 14 (602112)
I0403 14:24:26.672185 29672 net.cpp:156] Memory required for data: 1038026016
I0403 14:24:26.672201 29672 layer_factory.hpp:77] Creating layer inception_4c/3x3
I0403 14:24:26.672225 29672 net.cpp:91] Creating Layer inception_4c/3x3
I0403 14:24:26.672245 29672 net.cpp:425] inception_4c/3x3 <- inception_4c/3x3_reduce
I0403 14:24:26.672267 29672 net.cpp:399] inception_4c/3x3 -> inception_4c/3x3
I0403 14:24:26.675987 29672 net.cpp:141] Setting up inception_4c/3x3
I0403 14:24:26.676031 29672 net.cpp:148] Top shape: 24 256 14 14 (1204224)
I0403 14:24:26.676049 29672 net.cpp:156] Memory required for data: 1042842912
I0403 14:24:26.676084 29672 layer_factory.hpp:77] Creating layer inception_4c/relu_3x3
I0403 14:24:26.676108 29672 net.cpp:91] Creating Layer inception_4c/relu_3x3
I0403 14:24:26.676127 29672 net.cpp:425] inception_4c/relu_3x3 <- inception_4c/3x3
I0403 14:24:26.676146 29672 net.cpp:386] inception_4c/relu_3x3 -> inception_4c/3x3 (in-place)
I0403 14:24:26.676340 29672 net.cpp:141] Setting up inception_4c/relu_3x3
I0403 14:24:26.676367 29672 net.cpp:148] Top shape: 24 256 14 14 (1204224)
I0403 14:24:26.676383 29672 net.cpp:156] Memory required for data: 1047659808
I0403 14:24:26.676399 29672 layer_factory.hpp:77] Creating layer inception_4c/5x5_reduce
I0403 14:24:26.676424 29672 net.cpp:91] Creating Layer inception_4c/5x5_reduce
I0403 14:24:26.676442 29672 net.cpp:425] inception_4c/5x5_reduce <- inception_4b/output_inception_4b/output_0_split_2
I0403 14:24:26.676466 29672 net.cpp:399] inception_4c/5x5_reduce -> inception_4c/5x5_reduce
I0403 14:24:26.677594 29672 net.cpp:141] Setting up inception_4c/5x5_reduce
I0403 14:24:26.677624 29672 net.cpp:148] Top shape: 24 24 14 14 (112896)
I0403 14:24:26.677641 29672 net.cpp:156] Memory required for data: 1048111392
I0403 14:24:26.677664 29672 layer_factory.hpp:77] Creating layer inception_4c/relu_5x5_reduce
I0403 14:24:26.677685 29672 net.cpp:91] Creating Layer inception_4c/relu_5x5_reduce
I0403 14:24:26.677705 29672 net.cpp:425] inception_4c/relu_5x5_reduce <- inception_4c/5x5_reduce
I0403 14:24:26.677723 29672 net.cpp:386] inception_4c/relu_5x5_reduce -> inception_4c/5x5_reduce (in-place)
I0403 14:24:26.677914 29672 net.cpp:141] Setting up inception_4c/relu_5x5_reduce
I0403 14:24:26.677943 29672 net.cpp:148] Top shape: 24 24 14 14 (112896)
I0403 14:24:26.677959 29672 net.cpp:156] Memory required for data: 1048562976
I0403 14:24:26.677976 29672 layer_factory.hpp:77] Creating layer inception_4c/5x5
I0403 14:24:26.677999 29672 net.cpp:91] Creating Layer inception_4c/5x5
I0403 14:24:26.678020 29672 net.cpp:425] inception_4c/5x5 <- inception_4c/5x5_reduce
I0403 14:24:26.678040 29672 net.cpp:399] inception_4c/5x5 -> inception_4c/5x5
I0403 14:24:26.679322 29672 net.cpp:141] Setting up inception_4c/5x5
I0403 14:24:26.679352 29672 net.cpp:148] Top shape: 24 64 14 14 (301056)
I0403 14:24:26.679371 29672 net.cpp:156] Memory required for data: 1049767200
I0403 14:24:26.679390 29672 layer_factory.hpp:77] Creating layer inception_4c/relu_5x5
I0403 14:24:26.679409 29672 net.cpp:91] Creating Layer inception_4c/relu_5x5
I0403 14:24:26.679427 29672 net.cpp:425] inception_4c/relu_5x5 <- inception_4c/5x5
I0403 14:24:26.679445 29672 net.cpp:386] inception_4c/relu_5x5 -> inception_4c/5x5 (in-place)
I0403 14:24:26.679744 29672 net.cpp:141] Setting up inception_4c/relu_5x5
I0403 14:24:26.679775 29672 net.cpp:148] Top shape: 24 64 14 14 (301056)
I0403 14:24:26.679792 29672 net.cpp:156] Memory required for data: 1050971424
I0403 14:24:26.679810 29672 layer_factory.hpp:77] Creating layer inception_4c/pool
I0403 14:24:26.679828 29672 net.cpp:91] Creating Layer inception_4c/pool
I0403 14:24:26.679847 29672 net.cpp:425] inception_4c/pool <- inception_4b/output_inception_4b/output_0_split_3
I0403 14:24:26.679868 29672 net.cpp:399] inception_4c/pool -> inception_4c/pool
I0403 14:24:26.679939 29672 net.cpp:141] Setting up inception_4c/pool
I0403 14:24:26.679965 29672 net.cpp:148] Top shape: 24 512 14 14 (2408448)
I0403 14:24:26.679982 29672 net.cpp:156] Memory required for data: 1060605216
I0403 14:24:26.679997 29672 layer_factory.hpp:77] Creating layer inception_4c/pool_proj
I0403 14:24:26.680021 29672 net.cpp:91] Creating Layer inception_4c/pool_proj
I0403 14:24:26.680042 29672 net.cpp:425] inception_4c/pool_proj <- inception_4c/pool
I0403 14:24:26.680063 29672 net.cpp:399] inception_4c/pool_proj -> inception_4c/pool_proj
I0403 14:24:26.681329 29672 net.cpp:141] Setting up inception_4c/pool_proj
I0403 14:24:26.681359 29672 net.cpp:148] Top shape: 24 64 14 14 (301056)
I0403 14:24:26.681390 29672 net.cpp:156] Memory required for data: 1061809440
I0403 14:24:26.681411 29672 layer_factory.hpp:77] Creating layer inception_4c/relu_pool_proj
I0403 14:24:26.681432 29672 net.cpp:91] Creating Layer inception_4c/relu_pool_proj
I0403 14:24:26.681452 29672 net.cpp:425] inception_4c/relu_pool_proj <- inception_4c/pool_proj
I0403 14:24:26.681470 29672 net.cpp:386] inception_4c/relu_pool_proj -> inception_4c/pool_proj (in-place)
I0403 14:24:26.681658 29672 net.cpp:141] Setting up inception_4c/relu_pool_proj
I0403 14:24:26.681686 29672 net.cpp:148] Top shape: 24 64 14 14 (301056)
I0403 14:24:26.681704 29672 net.cpp:156] Memory required for data: 1063013664
I0403 14:24:26.681720 29672 layer_factory.hpp:77] Creating layer inception_4c/output
I0403 14:24:26.681740 29672 net.cpp:91] Creating Layer inception_4c/output
I0403 14:24:26.681756 29672 net.cpp:425] inception_4c/output <- inception_4c/1x1
I0403 14:24:26.681774 29672 net.cpp:425] inception_4c/output <- inception_4c/3x3
I0403 14:24:26.681790 29672 net.cpp:425] inception_4c/output <- inception_4c/5x5
I0403 14:24:26.681807 29672 net.cpp:425] inception_4c/output <- inception_4c/pool_proj
I0403 14:24:26.681825 29672 net.cpp:399] inception_4c/output -> inception_4c/output
I0403 14:24:26.681876 29672 net.cpp:141] Setting up inception_4c/output
I0403 14:24:26.681901 29672 net.cpp:148] Top shape: 24 512 14 14 (2408448)
I0403 14:24:26.681917 29672 net.cpp:156] Memory required for data: 1072647456
I0403 14:24:26.681933 29672 layer_factory.hpp:77] Creating layer inception_4c/output_inception_4c/output_0_split
I0403 14:24:26.681953 29672 net.cpp:91] Creating Layer inception_4c/output_inception_4c/output_0_split
I0403 14:24:26.681970 29672 net.cpp:425] inception_4c/output_inception_4c/output_0_split <- inception_4c/output
I0403 14:24:26.681993 29672 net.cpp:399] inception_4c/output_inception_4c/output_0_split -> inception_4c/output_inception_4c/output_0_split_0
I0403 14:24:26.682015 29672 net.cpp:399] inception_4c/output_inception_4c/output_0_split -> inception_4c/output_inception_4c/output_0_split_1
I0403 14:24:26.682037 29672 net.cpp:399] inception_4c/output_inception_4c/output_0_split -> inception_4c/output_inception_4c/output_0_split_2
I0403 14:24:26.682060 29672 net.cpp:399] inception_4c/output_inception_4c/output_0_split -> inception_4c/output_inception_4c/output_0_split_3
I0403 14:24:26.682149 29672 net.cpp:141] Setting up inception_4c/output_inception_4c/output_0_split
I0403 14:24:26.682174 29672 net.cpp:148] Top shape: 24 512 14 14 (2408448)
I0403 14:24:26.682191 29672 net.cpp:148] Top shape: 24 512 14 14 (2408448)
I0403 14:24:26.682209 29672 net.cpp:148] Top shape: 24 512 14 14 (2408448)
I0403 14:24:26.682224 29672 net.cpp:148] Top shape: 24 512 14 14 (2408448)
I0403 14:24:26.682240 29672 net.cpp:156] Memory required for data: 1111182624
I0403 14:24:26.682255 29672 layer_factory.hpp:77] Creating layer inception_4d/1x1
I0403 14:24:26.682278 29672 net.cpp:91] Creating Layer inception_4d/1x1
I0403 14:24:26.682297 29672 net.cpp:425] inception_4d/1x1 <- inception_4c/output_inception_4c/output_0_split_0
I0403 14:24:26.682323 29672 net.cpp:399] inception_4d/1x1 -> inception_4d/1x1
I0403 14:24:26.683795 29672 net.cpp:141] Setting up inception_4d/1x1
I0403 14:24:26.683825 29672 net.cpp:148] Top shape: 24 112 14 14 (526848)
I0403 14:24:26.683843 29672 net.cpp:156] Memory required for data: 1113290016
I0403 14:24:26.683863 29672 layer_factory.hpp:77] Creating layer inception_4d/relu_1x1
I0403 14:24:26.683884 29672 net.cpp:91] Creating Layer inception_4d/relu_1x1
I0403 14:24:26.683903 29672 net.cpp:425] inception_4d/relu_1x1 <- inception_4d/1x1
I0403 14:24:26.683924 29672 net.cpp:386] inception_4d/relu_1x1 -> inception_4d/1x1 (in-place)
I0403 14:24:26.684120 29672 net.cpp:141] Setting up inception_4d/relu_1x1
I0403 14:24:26.684149 29672 net.cpp:148] Top shape: 24 112 14 14 (526848)
I0403 14:24:26.684165 29672 net.cpp:156] Memory required for data: 1115397408
I0403 14:24:26.684181 29672 layer_factory.hpp:77] Creating layer inception_4d/3x3_reduce
I0403 14:24:26.684221 29672 net.cpp:91] Creating Layer inception_4d/3x3_reduce
I0403 14:24:26.684240 29672 net.cpp:425] inception_4d/3x3_reduce <- inception_4c/output_inception_4c/output_0_split_1
I0403 14:24:26.684263 29672 net.cpp:399] inception_4d/3x3_reduce -> inception_4d/3x3_reduce
I0403 14:24:26.685890 29672 net.cpp:141] Setting up inception_4d/3x3_reduce
I0403 14:24:26.685923 29672 net.cpp:148] Top shape: 24 144 14 14 (677376)
I0403 14:24:26.685941 29672 net.cpp:156] Memory required for data: 1118106912
I0403 14:24:26.685962 29672 layer_factory.hpp:77] Creating layer inception_4d/relu_3x3_reduce
I0403 14:24:26.685982 29672 net.cpp:91] Creating Layer inception_4d/relu_3x3_reduce
I0403 14:24:26.686002 29672 net.cpp:425] inception_4d/relu_3x3_reduce <- inception_4d/3x3_reduce
I0403 14:24:26.686022 29672 net.cpp:386] inception_4d/relu_3x3_reduce -> inception_4d/3x3_reduce (in-place)
I0403 14:24:26.686333 29672 net.cpp:141] Setting up inception_4d/relu_3x3_reduce
I0403 14:24:26.686365 29672 net.cpp:148] Top shape: 24 144 14 14 (677376)
I0403 14:24:26.686383 29672 net.cpp:156] Memory required for data: 1120816416
I0403 14:24:26.686399 29672 layer_factory.hpp:77] Creating layer inception_4d/3x3
I0403 14:24:26.686424 29672 net.cpp:91] Creating Layer inception_4d/3x3
I0403 14:24:26.686444 29672 net.cpp:425] inception_4d/3x3 <- inception_4d/3x3_reduce
I0403 14:24:26.686465 29672 net.cpp:399] inception_4d/3x3 -> inception_4d/3x3
I0403 14:24:26.690970 29672 net.cpp:141] Setting up inception_4d/3x3
I0403 14:24:26.691002 29672 net.cpp:148] Top shape: 24 288 14 14 (1354752)
I0403 14:24:26.691020 29672 net.cpp:156] Memory required for data: 1126235424
I0403 14:24:26.691040 29672 layer_factory.hpp:77] Creating layer inception_4d/relu_3x3
I0403 14:24:26.691063 29672 net.cpp:91] Creating Layer inception_4d/relu_3x3
I0403 14:24:26.691082 29672 net.cpp:425] inception_4d/relu_3x3 <- inception_4d/3x3
I0403 14:24:26.691102 29672 net.cpp:386] inception_4d/relu_3x3 -> inception_4d/3x3 (in-place)
I0403 14:24:26.691295 29672 net.cpp:141] Setting up inception_4d/relu_3x3
I0403 14:24:26.691328 29672 net.cpp:148] Top shape: 24 288 14 14 (1354752)
I0403 14:24:26.691345 29672 net.cpp:156] Memory required for data: 1131654432
I0403 14:24:26.691364 29672 layer_factory.hpp:77] Creating layer inception_4d/5x5_reduce
I0403 14:24:26.691387 29672 net.cpp:91] Creating Layer inception_4d/5x5_reduce
I0403 14:24:26.691407 29672 net.cpp:425] inception_4d/5x5_reduce <- inception_4c/output_inception_4c/output_0_split_2
I0403 14:24:26.691429 29672 net.cpp:399] inception_4d/5x5_reduce -> inception_4d/5x5_reduce
I0403 14:24:26.692648 29672 net.cpp:141] Setting up inception_4d/5x5_reduce
I0403 14:24:26.692679 29672 net.cpp:148] Top shape: 24 32 14 14 (150528)
I0403 14:24:26.692698 29672 net.cpp:156] Memory required for data: 1132256544
I0403 14:24:26.692718 29672 layer_factory.hpp:77] Creating layer inception_4d/relu_5x5_reduce
I0403 14:24:26.692737 29672 net.cpp:91] Creating Layer inception_4d/relu_5x5_reduce
I0403 14:24:26.692755 29672 net.cpp:425] inception_4d/relu_5x5_reduce <- inception_4d/5x5_reduce
I0403 14:24:26.692777 29672 net.cpp:386] inception_4d/relu_5x5_reduce -> inception_4d/5x5_reduce (in-place)
I0403 14:24:26.692981 29672 net.cpp:141] Setting up inception_4d/relu_5x5_reduce
I0403 14:24:26.693008 29672 net.cpp:148] Top shape: 24 32 14 14 (150528)
I0403 14:24:26.693024 29672 net.cpp:156] Memory required for data: 1132858656
I0403 14:24:26.693042 29672 layer_factory.hpp:77] Creating layer inception_4d/5x5
I0403 14:24:26.693065 29672 net.cpp:91] Creating Layer inception_4d/5x5
I0403 14:24:26.693084 29672 net.cpp:425] inception_4d/5x5 <- inception_4d/5x5_reduce
I0403 14:24:26.693107 29672 net.cpp:399] inception_4d/5x5 -> inception_4d/5x5
I0403 14:24:26.694702 29672 net.cpp:141] Setting up inception_4d/5x5
I0403 14:24:26.694736 29672 net.cpp:148] Top shape: 24 64 14 14 (301056)
I0403 14:24:26.694753 29672 net.cpp:156] Memory required for data: 1134062880
I0403 14:24:26.694775 29672 layer_factory.hpp:77] Creating layer inception_4d/relu_5x5
I0403 14:24:26.694813 29672 net.cpp:91] Creating Layer inception_4d/relu_5x5
I0403 14:24:26.694833 29672 net.cpp:425] inception_4d/relu_5x5 <- inception_4d/5x5
I0403 14:24:26.694854 29672 net.cpp:386] inception_4d/relu_5x5 -> inception_4d/5x5 (in-place)
I0403 14:24:26.695183 29672 net.cpp:141] Setting up inception_4d/relu_5x5
I0403 14:24:26.695212 29672 net.cpp:148] Top shape: 24 64 14 14 (301056)
I0403 14:24:26.695228 29672 net.cpp:156] Memory required for data: 1135267104
I0403 14:24:26.695253 29672 layer_factory.hpp:77] Creating layer inception_4d/pool
I0403 14:24:26.695276 29672 net.cpp:91] Creating Layer inception_4d/pool
I0403 14:24:26.695294 29672 net.cpp:425] inception_4d/pool <- inception_4c/output_inception_4c/output_0_split_3
I0403 14:24:26.695312 29672 net.cpp:399] inception_4d/pool -> inception_4d/pool
I0403 14:24:26.695389 29672 net.cpp:141] Setting up inception_4d/pool
I0403 14:24:26.695415 29672 net.cpp:148] Top shape: 24 512 14 14 (2408448)
I0403 14:24:26.695430 29672 net.cpp:156] Memory required for data: 1144900896
I0403 14:24:26.695446 29672 layer_factory.hpp:77] Creating layer inception_4d/pool_proj
I0403 14:24:26.695469 29672 net.cpp:91] Creating Layer inception_4d/pool_proj
I0403 14:24:26.695489 29672 net.cpp:425] inception_4d/pool_proj <- inception_4d/pool
I0403 14:24:26.695510 29672 net.cpp:399] inception_4d/pool_proj -> inception_4d/pool_proj
I0403 14:24:26.697367 29672 net.cpp:141] Setting up inception_4d/pool_proj
I0403 14:24:26.697401 29672 net.cpp:148] Top shape: 24 64 14 14 (301056)
I0403 14:24:26.697417 29672 net.cpp:156] Memory required for data: 1146105120
I0403 14:24:26.697438 29672 layer_factory.hpp:77] Creating layer inception_4d/relu_pool_proj
I0403 14:24:26.697461 29672 net.cpp:91] Creating Layer inception_4d/relu_pool_proj
I0403 14:24:26.697480 29672 net.cpp:425] inception_4d/relu_pool_proj <- inception_4d/pool_proj
I0403 14:24:26.697499 29672 net.cpp:386] inception_4d/relu_pool_proj -> inception_4d/pool_proj (in-place)
I0403 14:24:26.697690 29672 net.cpp:141] Setting up inception_4d/relu_pool_proj
I0403 14:24:26.697716 29672 net.cpp:148] Top shape: 24 64 14 14 (301056)
I0403 14:24:26.697733 29672 net.cpp:156] Memory required for data: 1147309344
I0403 14:24:26.697751 29672 layer_factory.hpp:77] Creating layer inception_4d/output
I0403 14:24:26.697772 29672 net.cpp:91] Creating Layer inception_4d/output
I0403 14:24:26.697789 29672 net.cpp:425] inception_4d/output <- inception_4d/1x1
I0403 14:24:26.697808 29672 net.cpp:425] inception_4d/output <- inception_4d/3x3
I0403 14:24:26.697825 29672 net.cpp:425] inception_4d/output <- inception_4d/5x5
I0403 14:24:26.697844 29672 net.cpp:425] inception_4d/output <- inception_4d/pool_proj
I0403 14:24:26.697862 29672 net.cpp:399] inception_4d/output -> inception_4d/output
I0403 14:24:26.697914 29672 net.cpp:141] Setting up inception_4d/output
I0403 14:24:26.697938 29672 net.cpp:148] Top shape: 24 528 14 14 (2483712)
I0403 14:24:26.697955 29672 net.cpp:156] Memory required for data: 1157244192
I0403 14:24:26.697970 29672 layer_factory.hpp:77] Creating layer inception_4d/output_inception_4d/output_0_split
I0403 14:24:26.697990 29672 net.cpp:91] Creating Layer inception_4d/output_inception_4d/output_0_split
I0403 14:24:26.698007 29672 net.cpp:425] inception_4d/output_inception_4d/output_0_split <- inception_4d/output
I0403 14:24:26.698029 29672 net.cpp:399] inception_4d/output_inception_4d/output_0_split -> inception_4d/output_inception_4d/output_0_split_0
I0403 14:24:26.698052 29672 net.cpp:399] inception_4d/output_inception_4d/output_0_split -> inception_4d/output_inception_4d/output_0_split_1
I0403 14:24:26.698076 29672 net.cpp:399] inception_4d/output_inception_4d/output_0_split -> inception_4d/output_inception_4d/output_0_split_2
I0403 14:24:26.698097 29672 net.cpp:399] inception_4d/output_inception_4d/output_0_split -> inception_4d/output_inception_4d/output_0_split_3
I0403 14:24:26.698124 29672 net.cpp:399] inception_4d/output_inception_4d/output_0_split -> inception_4d/output_inception_4d/output_0_split_4
I0403 14:24:26.698230 29672 net.cpp:141] Setting up inception_4d/output_inception_4d/output_0_split
I0403 14:24:26.698268 29672 net.cpp:148] Top shape: 24 528 14 14 (2483712)
I0403 14:24:26.698288 29672 net.cpp:148] Top shape: 24 528 14 14 (2483712)
I0403 14:24:26.698305 29672 net.cpp:148] Top shape: 24 528 14 14 (2483712)
I0403 14:24:26.698328 29672 net.cpp:148] Top shape: 24 528 14 14 (2483712)
I0403 14:24:26.698346 29672 net.cpp:148] Top shape: 24 528 14 14 (2483712)
I0403 14:24:26.698361 29672 net.cpp:156] Memory required for data: 1206918432
I0403 14:24:26.698379 29672 layer_factory.hpp:77] Creating layer loss2/ave_pool
I0403 14:24:26.698396 29672 net.cpp:91] Creating Layer loss2/ave_pool
I0403 14:24:26.698412 29672 net.cpp:425] loss2/ave_pool <- inception_4d/output_inception_4d/output_0_split_0
I0403 14:24:26.698436 29672 net.cpp:399] loss2/ave_pool -> loss2/ave_pool
I0403 14:24:26.698777 29672 net.cpp:141] Setting up loss2/ave_pool
I0403 14:24:26.698817 29672 net.cpp:148] Top shape: 24 528 4 4 (202752)
I0403 14:24:26.698834 29672 net.cpp:156] Memory required for data: 1207729440
I0403 14:24:26.698851 29672 layer_factory.hpp:77] Creating layer loss2/conv
I0403 14:24:26.698876 29672 net.cpp:91] Creating Layer loss2/conv
I0403 14:24:26.698895 29672 net.cpp:425] loss2/conv <- loss2/ave_pool
I0403 14:24:26.698917 29672 net.cpp:399] loss2/conv -> loss2/conv
I0403 14:24:26.700911 29672 net.cpp:141] Setting up loss2/conv
I0403 14:24:26.700942 29672 net.cpp:148] Top shape: 24 128 4 4 (49152)
I0403 14:24:26.700958 29672 net.cpp:156] Memory required for data: 1207926048
I0403 14:24:26.700978 29672 layer_factory.hpp:77] Creating layer loss2/relu_conv
I0403 14:24:26.701000 29672 net.cpp:91] Creating Layer loss2/relu_conv
I0403 14:24:26.701020 29672 net.cpp:425] loss2/relu_conv <- loss2/conv
I0403 14:24:26.701040 29672 net.cpp:386] loss2/relu_conv -> loss2/conv (in-place)
I0403 14:24:26.701342 29672 net.cpp:141] Setting up loss2/relu_conv
I0403 14:24:26.701370 29672 net.cpp:148] Top shape: 24 128 4 4 (49152)
I0403 14:24:26.701387 29672 net.cpp:156] Memory required for data: 1208122656
I0403 14:24:26.701403 29672 layer_factory.hpp:77] Creating layer loss2/fc
I0403 14:24:26.701426 29672 net.cpp:91] Creating Layer loss2/fc
I0403 14:24:26.701444 29672 net.cpp:425] loss2/fc <- loss2/conv
I0403 14:24:26.701467 29672 net.cpp:399] loss2/fc -> loss2/fc
I0403 14:24:26.719501 29672 net.cpp:141] Setting up loss2/fc
I0403 14:24:26.719554 29672 net.cpp:148] Top shape: 24 1024 (24576)
I0403 14:24:26.719571 29672 net.cpp:156] Memory required for data: 1208220960
I0403 14:24:26.719593 29672 layer_factory.hpp:77] Creating layer loss2/relu_fc
I0403 14:24:26.719612 29672 net.cpp:91] Creating Layer loss2/relu_fc
I0403 14:24:26.719631 29672 net.cpp:425] loss2/relu_fc <- loss2/fc
I0403 14:24:26.719653 29672 net.cpp:386] loss2/relu_fc -> loss2/fc (in-place)
I0403 14:24:26.720005 29672 net.cpp:141] Setting up loss2/relu_fc
I0403 14:24:26.720033 29672 net.cpp:148] Top shape: 24 1024 (24576)
I0403 14:24:26.720048 29672 net.cpp:156] Memory required for data: 1208319264
I0403 14:24:26.720064 29672 layer_factory.hpp:77] Creating layer loss2/drop_fc
I0403 14:24:26.720083 29672 net.cpp:91] Creating Layer loss2/drop_fc
I0403 14:24:26.720100 29672 net.cpp:425] loss2/drop_fc <- loss2/fc
I0403 14:24:26.720124 29672 net.cpp:386] loss2/drop_fc -> loss2/fc (in-place)
I0403 14:24:26.720180 29672 net.cpp:141] Setting up loss2/drop_fc
I0403 14:24:26.720206 29672 net.cpp:148] Top shape: 24 1024 (24576)
I0403 14:24:26.720221 29672 net.cpp:156] Memory required for data: 1208417568
I0403 14:24:26.720237 29672 layer_factory.hpp:77] Creating layer loss2/classifier_plantvillage
I0403 14:24:26.720257 29672 net.cpp:91] Creating Layer loss2/classifier_plantvillage
I0403 14:24:26.720274 29672 net.cpp:425] loss2/classifier_plantvillage <- loss2/fc
I0403 14:24:26.720299 29672 net.cpp:399] loss2/classifier_plantvillage -> loss2/classifier_plantvillage
I0403 14:24:26.720731 29672 net.cpp:141] Setting up loss2/classifier_plantvillage
I0403 14:24:26.720757 29672 net.cpp:148] Top shape: 24 38 (912)
I0403 14:24:26.720773 29672 net.cpp:156] Memory required for data: 1208421216
I0403 14:24:26.720819 29672 layer_factory.hpp:77] Creating layer loss2/classifier_plantvillage_loss2/classifier_plantvillage_0_split
I0403 14:24:26.720842 29672 net.cpp:91] Creating Layer loss2/classifier_plantvillage_loss2/classifier_plantvillage_0_split
I0403 14:24:26.720862 29672 net.cpp:425] loss2/classifier_plantvillage_loss2/classifier_plantvillage_0_split <- loss2/classifier_plantvillage
I0403 14:24:26.720885 29672 net.cpp:399] loss2/classifier_plantvillage_loss2/classifier_plantvillage_0_split -> loss2/classifier_plantvillage_loss2/classifier_plantvillage_0_split_0
I0403 14:24:26.720907 29672 net.cpp:399] loss2/classifier_plantvillage_loss2/classifier_plantvillage_0_split -> loss2/classifier_plantvillage_loss2/classifier_plantvillage_0_split_1
I0403 14:24:26.720930 29672 net.cpp:399] loss2/classifier_plantvillage_loss2/classifier_plantvillage_0_split -> loss2/classifier_plantvillage_loss2/classifier_plantvillage_0_split_2
I0403 14:24:26.721010 29672 net.cpp:141] Setting up loss2/classifier_plantvillage_loss2/classifier_plantvillage_0_split
I0403 14:24:26.721035 29672 net.cpp:148] Top shape: 24 38 (912)
I0403 14:24:26.721053 29672 net.cpp:148] Top shape: 24 38 (912)
I0403 14:24:26.721071 29672 net.cpp:148] Top shape: 24 38 (912)
I0403 14:24:26.721086 29672 net.cpp:156] Memory required for data: 1208432160
I0403 14:24:26.721101 29672 layer_factory.hpp:77] Creating layer inception_4e/1x1
I0403 14:24:26.721125 29672 net.cpp:91] Creating Layer inception_4e/1x1
I0403 14:24:26.721145 29672 net.cpp:425] inception_4e/1x1 <- inception_4d/output_inception_4d/output_0_split_1
I0403 14:24:26.721166 29672 net.cpp:399] inception_4e/1x1 -> inception_4e/1x1
I0403 14:24:26.723104 29672 net.cpp:141] Setting up inception_4e/1x1
I0403 14:24:26.723136 29672 net.cpp:148] Top shape: 24 256 14 14 (1204224)
I0403 14:24:26.723155 29672 net.cpp:156] Memory required for data: 1213249056
I0403 14:24:26.723176 29672 layer_factory.hpp:77] Creating layer inception_4e/relu_1x1
I0403 14:24:26.723194 29672 net.cpp:91] Creating Layer inception_4e/relu_1x1
I0403 14:24:26.723212 29672 net.cpp:425] inception_4e/relu_1x1 <- inception_4e/1x1
I0403 14:24:26.723229 29672 net.cpp:386] inception_4e/relu_1x1 -> inception_4e/1x1 (in-place)
I0403 14:24:26.723541 29672 net.cpp:141] Setting up inception_4e/relu_1x1
I0403 14:24:26.723570 29672 net.cpp:148] Top shape: 24 256 14 14 (1204224)
I0403 14:24:26.723588 29672 net.cpp:156] Memory required for data: 1218065952
I0403 14:24:26.723605 29672 layer_factory.hpp:77] Creating layer inception_4e/3x3_reduce
I0403 14:24:26.723628 29672 net.cpp:91] Creating Layer inception_4e/3x3_reduce
I0403 14:24:26.723659 29672 net.cpp:425] inception_4e/3x3_reduce <- inception_4d/output_inception_4d/output_0_split_2
I0403 14:24:26.723680 29672 net.cpp:399] inception_4e/3x3_reduce -> inception_4e/3x3_reduce
I0403 14:24:26.725862 29672 net.cpp:141] Setting up inception_4e/3x3_reduce
I0403 14:24:26.725891 29672 net.cpp:148] Top shape: 24 160 14 14 (752640)
I0403 14:24:26.725908 29672 net.cpp:156] Memory required for data: 1221076512
I0403 14:24:26.725929 29672 layer_factory.hpp:77] Creating layer inception_4e/relu_3x3_reduce
I0403 14:24:26.725950 29672 net.cpp:91] Creating Layer inception_4e/relu_3x3_reduce
I0403 14:24:26.725967 29672 net.cpp:425] inception_4e/relu_3x3_reduce <- inception_4e/3x3_reduce
I0403 14:24:26.725985 29672 net.cpp:386] inception_4e/relu_3x3_reduce -> inception_4e/3x3_reduce (in-place)
I0403 14:24:26.726171 29672 net.cpp:141] Setting up inception_4e/relu_3x3_reduce
I0403 14:24:26.726197 29672 net.cpp:148] Top shape: 24 160 14 14 (752640)
I0403 14:24:26.726214 29672 net.cpp:156] Memory required for data: 1224087072
I0403 14:24:26.726230 29672 layer_factory.hpp:77] Creating layer inception_4e/3x3
I0403 14:24:26.726253 29672 net.cpp:91] Creating Layer inception_4e/3x3
I0403 14:24:26.726272 29672 net.cpp:425] inception_4e/3x3 <- inception_4e/3x3_reduce
I0403 14:24:26.726295 29672 net.cpp:399] inception_4e/3x3 -> inception_4e/3x3
I0403 14:24:26.731421 29672 net.cpp:141] Setting up inception_4e/3x3
I0403 14:24:26.731463 29672 net.cpp:148] Top shape: 24 320 14 14 (1505280)
I0403 14:24:26.731482 29672 net.cpp:156] Memory required for data: 1230108192
I0403 14:24:26.731500 29672 layer_factory.hpp:77] Creating layer inception_4e/relu_3x3
I0403 14:24:26.731519 29672 net.cpp:91] Creating Layer inception_4e/relu_3x3
I0403 14:24:26.731536 29672 net.cpp:425] inception_4e/relu_3x3 <- inception_4e/3x3
I0403 14:24:26.731557 29672 net.cpp:386] inception_4e/relu_3x3 -> inception_4e/3x3 (in-place)
I0403 14:24:26.731863 29672 net.cpp:141] Setting up inception_4e/relu_3x3
I0403 14:24:26.731889 29672 net.cpp:148] Top shape: 24 320 14 14 (1505280)
I0403 14:24:26.731905 29672 net.cpp:156] Memory required for data: 1236129312
I0403 14:24:26.731920 29672 layer_factory.hpp:77] Creating layer inception_4e/5x5_reduce
I0403 14:24:26.731945 29672 net.cpp:91] Creating Layer inception_4e/5x5_reduce
I0403 14:24:26.731963 29672 net.cpp:425] inception_4e/5x5_reduce <- inception_4d/output_inception_4d/output_0_split_3
I0403 14:24:26.731987 29672 net.cpp:399] inception_4e/5x5_reduce -> inception_4e/5x5_reduce
I0403 14:24:26.733098 29672 net.cpp:141] Setting up inception_4e/5x5_reduce
I0403 14:24:26.733129 29672 net.cpp:148] Top shape: 24 32 14 14 (150528)
I0403 14:24:26.733144 29672 net.cpp:156] Memory required for data: 1236731424
I0403 14:24:26.733165 29672 layer_factory.hpp:77] Creating layer inception_4e/relu_5x5_reduce
I0403 14:24:26.733182 29672 net.cpp:91] Creating Layer inception_4e/relu_5x5_reduce
I0403 14:24:26.733198 29672 net.cpp:425] inception_4e/relu_5x5_reduce <- inception_4e/5x5_reduce
I0403 14:24:26.733217 29672 net.cpp:386] inception_4e/relu_5x5_reduce -> inception_4e/5x5_reduce (in-place)
I0403 14:24:26.733520 29672 net.cpp:141] Setting up inception_4e/relu_5x5_reduce
I0403 14:24:26.733548 29672 net.cpp:148] Top shape: 24 32 14 14 (150528)
I0403 14:24:26.733564 29672 net.cpp:156] Memory required for data: 1237333536
I0403 14:24:26.733580 29672 layer_factory.hpp:77] Creating layer inception_4e/5x5
I0403 14:24:26.733620 29672 net.cpp:91] Creating Layer inception_4e/5x5
I0403 14:24:26.733641 29672 net.cpp:425] inception_4e/5x5 <- inception_4e/5x5_reduce
I0403 14:24:26.733664 29672 net.cpp:399] inception_4e/5x5 -> inception_4e/5x5
I0403 14:24:26.735565 29672 net.cpp:141] Setting up inception_4e/5x5
I0403 14:24:26.735594 29672 net.cpp:148] Top shape: 24 128 14 14 (602112)
I0403 14:24:26.735611 29672 net.cpp:156] Memory required for data: 1239741984
I0403 14:24:26.735631 29672 layer_factory.hpp:77] Creating layer inception_4e/relu_5x5
I0403 14:24:26.735654 29672 net.cpp:91] Creating Layer inception_4e/relu_5x5
I0403 14:24:26.735672 29672 net.cpp:425] inception_4e/relu_5x5 <- inception_4e/5x5
I0403 14:24:26.735692 29672 net.cpp:386] inception_4e/relu_5x5 -> inception_4e/5x5 (in-place)
I0403 14:24:26.735906 29672 net.cpp:141] Setting up inception_4e/relu_5x5
I0403 14:24:26.735934 29672 net.cpp:148] Top shape: 24 128 14 14 (602112)
I0403 14:24:26.735949 29672 net.cpp:156] Memory required for data: 1242150432
I0403 14:24:26.735965 29672 layer_factory.hpp:77] Creating layer inception_4e/pool
I0403 14:24:26.735986 29672 net.cpp:91] Creating Layer inception_4e/pool
I0403 14:24:26.736006 29672 net.cpp:425] inception_4e/pool <- inception_4d/output_inception_4d/output_0_split_4
I0403 14:24:26.736027 29672 net.cpp:399] inception_4e/pool -> inception_4e/pool
I0403 14:24:26.736112 29672 net.cpp:141] Setting up inception_4e/pool
I0403 14:24:26.736137 29672 net.cpp:148] Top shape: 24 528 14 14 (2483712)
I0403 14:24:26.736152 29672 net.cpp:156] Memory required for data: 1252085280
I0403 14:24:26.736168 29672 layer_factory.hpp:77] Creating layer inception_4e/pool_proj
I0403 14:24:26.736191 29672 net.cpp:91] Creating Layer inception_4e/pool_proj
I0403 14:24:26.736209 29672 net.cpp:425] inception_4e/pool_proj <- inception_4e/pool
I0403 14:24:26.736232 29672 net.cpp:399] inception_4e/pool_proj -> inception_4e/pool_proj
I0403 14:24:26.737779 29672 net.cpp:141] Setting up inception_4e/pool_proj
I0403 14:24:26.737808 29672 net.cpp:148] Top shape: 24 128 14 14 (602112)
I0403 14:24:26.737839 29672 net.cpp:156] Memory required for data: 1254493728
I0403 14:24:26.737860 29672 layer_factory.hpp:77] Creating layer inception_4e/relu_pool_proj
I0403 14:24:26.737881 29672 net.cpp:91] Creating Layer inception_4e/relu_pool_proj
I0403 14:24:26.737900 29672 net.cpp:425] inception_4e/relu_pool_proj <- inception_4e/pool_proj
I0403 14:24:26.737917 29672 net.cpp:386] inception_4e/relu_pool_proj -> inception_4e/pool_proj (in-place)
I0403 14:24:26.738209 29672 net.cpp:141] Setting up inception_4e/relu_pool_proj
I0403 14:24:26.738237 29672 net.cpp:148] Top shape: 24 128 14 14 (602112)
I0403 14:24:26.738253 29672 net.cpp:156] Memory required for data: 1256902176
I0403 14:24:26.738270 29672 layer_factory.hpp:77] Creating layer inception_4e/output
I0403 14:24:26.738287 29672 net.cpp:91] Creating Layer inception_4e/output
I0403 14:24:26.738304 29672 net.cpp:425] inception_4e/output <- inception_4e/1x1
I0403 14:24:26.738327 29672 net.cpp:425] inception_4e/output <- inception_4e/3x3
I0403 14:24:26.738349 29672 net.cpp:425] inception_4e/output <- inception_4e/5x5
I0403 14:24:26.738366 29672 net.cpp:425] inception_4e/output <- inception_4e/pool_proj
I0403 14:24:26.738384 29672 net.cpp:399] inception_4e/output -> inception_4e/output
I0403 14:24:26.738435 29672 net.cpp:141] Setting up inception_4e/output
I0403 14:24:26.738462 29672 net.cpp:148] Top shape: 24 832 14 14 (3913728)
I0403 14:24:26.738479 29672 net.cpp:156] Memory required for data: 1272557088
I0403 14:24:26.738497 29672 layer_factory.hpp:77] Creating layer pool4/3x3_s2
I0403 14:24:26.738518 29672 net.cpp:91] Creating Layer pool4/3x3_s2
I0403 14:24:26.738535 29672 net.cpp:425] pool4/3x3_s2 <- inception_4e/output
I0403 14:24:26.738559 29672 net.cpp:399] pool4/3x3_s2 -> pool4/3x3_s2
I0403 14:24:26.738627 29672 net.cpp:141] Setting up pool4/3x3_s2
I0403 14:24:26.738652 29672 net.cpp:148] Top shape: 24 832 7 7 (978432)
I0403 14:24:26.738668 29672 net.cpp:156] Memory required for data: 1276470816
I0403 14:24:26.738684 29672 layer_factory.hpp:77] Creating layer pool4/3x3_s2_pool4/3x3_s2_0_split
I0403 14:24:26.738704 29672 net.cpp:91] Creating Layer pool4/3x3_s2_pool4/3x3_s2_0_split
I0403 14:24:26.738721 29672 net.cpp:425] pool4/3x3_s2_pool4/3x3_s2_0_split <- pool4/3x3_s2
I0403 14:24:26.738739 29672 net.cpp:399] pool4/3x3_s2_pool4/3x3_s2_0_split -> pool4/3x3_s2_pool4/3x3_s2_0_split_0
I0403 14:24:26.738761 29672 net.cpp:399] pool4/3x3_s2_pool4/3x3_s2_0_split -> pool4/3x3_s2_pool4/3x3_s2_0_split_1
I0403 14:24:26.738785 29672 net.cpp:399] pool4/3x3_s2_pool4/3x3_s2_0_split -> pool4/3x3_s2_pool4/3x3_s2_0_split_2
I0403 14:24:26.738808 29672 net.cpp:399] pool4/3x3_s2_pool4/3x3_s2_0_split -> pool4/3x3_s2_pool4/3x3_s2_0_split_3
I0403 14:24:26.738903 29672 net.cpp:141] Setting up pool4/3x3_s2_pool4/3x3_s2_0_split
I0403 14:24:26.738927 29672 net.cpp:148] Top shape: 24 832 7 7 (978432)
I0403 14:24:26.738956 29672 net.cpp:148] Top shape: 24 832 7 7 (978432)
I0403 14:24:26.738976 29672 net.cpp:148] Top shape: 24 832 7 7 (978432)
I0403 14:24:26.738992 29672 net.cpp:148] Top shape: 24 832 7 7 (978432)
I0403 14:24:26.739007 29672 net.cpp:156] Memory required for data: 1292125728
I0403 14:24:26.739022 29672 layer_factory.hpp:77] Creating layer inception_5a/1x1
I0403 14:24:26.739047 29672 net.cpp:91] Creating Layer inception_5a/1x1
I0403 14:24:26.739065 29672 net.cpp:425] inception_5a/1x1 <- pool4/3x3_s2_pool4/3x3_s2_0_split_0
I0403 14:24:26.739087 29672 net.cpp:399] inception_5a/1x1 -> inception_5a/1x1
I0403 14:24:26.742084 29672 net.cpp:141] Setting up inception_5a/1x1
I0403 14:24:26.742116 29672 net.cpp:148] Top shape: 24 256 7 7 (301056)
I0403 14:24:26.742133 29672 net.cpp:156] Memory required for data: 1293329952
I0403 14:24:26.742156 29672 layer_factory.hpp:77] Creating layer inception_5a/relu_1x1
I0403 14:24:26.742178 29672 net.cpp:91] Creating Layer inception_5a/relu_1x1
I0403 14:24:26.742197 29672 net.cpp:425] inception_5a/relu_1x1 <- inception_5a/1x1
I0403 14:24:26.742218 29672 net.cpp:386] inception_5a/relu_1x1 -> inception_5a/1x1 (in-place)
I0403 14:24:26.742559 29672 net.cpp:141] Setting up inception_5a/relu_1x1
I0403 14:24:26.742588 29672 net.cpp:148] Top shape: 24 256 7 7 (301056)
I0403 14:24:26.742604 29672 net.cpp:156] Memory required for data: 1294534176
I0403 14:24:26.742621 29672 layer_factory.hpp:77] Creating layer inception_5a/3x3_reduce
I0403 14:24:26.742645 29672 net.cpp:91] Creating Layer inception_5a/3x3_reduce
I0403 14:24:26.742667 29672 net.cpp:425] inception_5a/3x3_reduce <- pool4/3x3_s2_pool4/3x3_s2_0_split_1
I0403 14:24:26.742691 29672 net.cpp:399] inception_5a/3x3_reduce -> inception_5a/3x3_reduce
I0403 14:24:26.745332 29672 net.cpp:141] Setting up inception_5a/3x3_reduce
I0403 14:24:26.745367 29672 net.cpp:148] Top shape: 24 160 7 7 (188160)
I0403 14:24:26.745384 29672 net.cpp:156] Memory required for data: 1295286816
I0403 14:24:26.745405 29672 layer_factory.hpp:77] Creating layer inception_5a/relu_3x3_reduce
I0403 14:24:26.745426 29672 net.cpp:91] Creating Layer inception_5a/relu_3x3_reduce
I0403 14:24:26.745445 29672 net.cpp:425] inception_5a/relu_3x3_reduce <- inception_5a/3x3_reduce
I0403 14:24:26.745468 29672 net.cpp:386] inception_5a/relu_3x3_reduce -> inception_5a/3x3_reduce (in-place)
I0403 14:24:26.745669 29672 net.cpp:141] Setting up inception_5a/relu_3x3_reduce
I0403 14:24:26.745698 29672 net.cpp:148] Top shape: 24 160 7 7 (188160)
I0403 14:24:26.745714 29672 net.cpp:156] Memory required for data: 1296039456
I0403 14:24:26.745733 29672 layer_factory.hpp:77] Creating layer inception_5a/3x3
I0403 14:24:26.745756 29672 net.cpp:91] Creating Layer inception_5a/3x3
I0403 14:24:26.745777 29672 net.cpp:425] inception_5a/3x3 <- inception_5a/3x3_reduce
I0403 14:24:26.745801 29672 net.cpp:399] inception_5a/3x3 -> inception_5a/3x3
I0403 14:24:26.751194 29672 net.cpp:141] Setting up inception_5a/3x3
I0403 14:24:26.751227 29672 net.cpp:148] Top shape: 24 320 7 7 (376320)
I0403 14:24:26.751246 29672 net.cpp:156] Memory required for data: 1297544736
I0403 14:24:26.751269 29672 layer_factory.hpp:77] Creating layer inception_5a/relu_3x3
I0403 14:24:26.751291 29672 net.cpp:91] Creating Layer inception_5a/relu_3x3
I0403 14:24:26.751309 29672 net.cpp:425] inception_5a/relu_3x3 <- inception_5a/3x3
I0403 14:24:26.751333 29672 net.cpp:386] inception_5a/relu_3x3 -> inception_5a/3x3 (in-place)
I0403 14:24:26.751649 29672 net.cpp:141] Setting up inception_5a/relu_3x3
I0403 14:24:26.751678 29672 net.cpp:148] Top shape: 24 320 7 7 (376320)
I0403 14:24:26.751695 29672 net.cpp:156] Memory required for data: 1299050016
I0403 14:24:26.751713 29672 layer_factory.hpp:77] Creating layer inception_5a/5x5_reduce
I0403 14:24:26.751737 29672 net.cpp:91] Creating Layer inception_5a/5x5_reduce
I0403 14:24:26.751757 29672 net.cpp:425] inception_5a/5x5_reduce <- pool4/3x3_s2_pool4/3x3_s2_0_split_2
I0403 14:24:26.751782 29672 net.cpp:399] inception_5a/5x5_reduce -> inception_5a/5x5_reduce
I0403 14:24:26.753043 29672 net.cpp:141] Setting up inception_5a/5x5_reduce
I0403 14:24:26.753074 29672 net.cpp:148] Top shape: 24 32 7 7 (37632)
I0403 14:24:26.753093 29672 net.cpp:156] Memory required for data: 1299200544
I0403 14:24:26.753113 29672 layer_factory.hpp:77] Creating layer inception_5a/relu_5x5_reduce
I0403 14:24:26.753135 29672 net.cpp:91] Creating Layer inception_5a/relu_5x5_reduce
I0403 14:24:26.753154 29672 net.cpp:425] inception_5a/relu_5x5_reduce <- inception_5a/5x5_reduce
I0403 14:24:26.753173 29672 net.cpp:386] inception_5a/relu_5x5_reduce -> inception_5a/5x5_reduce (in-place)
I0403 14:24:26.753504 29672 net.cpp:141] Setting up inception_5a/relu_5x5_reduce
I0403 14:24:26.753533 29672 net.cpp:148] Top shape: 24 32 7 7 (37632)
I0403 14:24:26.753551 29672 net.cpp:156] Memory required for data: 1299351072
I0403 14:24:26.753568 29672 layer_factory.hpp:77] Creating layer inception_5a/5x5
I0403 14:24:26.753597 29672 net.cpp:91] Creating Layer inception_5a/5x5
I0403 14:24:26.753618 29672 net.cpp:425] inception_5a/5x5 <- inception_5a/5x5_reduce
I0403 14:24:26.753638 29672 net.cpp:399] inception_5a/5x5 -> inception_5a/5x5
I0403 14:24:26.755482 29672 net.cpp:141] Setting up inception_5a/5x5
I0403 14:24:26.755525 29672 net.cpp:148] Top shape: 24 128 7 7 (150528)
I0403 14:24:26.755545 29672 net.cpp:156] Memory required for data: 1299953184
I0403 14:24:26.755568 29672 layer_factory.hpp:77] Creating layer inception_5a/relu_5x5
I0403 14:24:26.755591 29672 net.cpp:91] Creating Layer inception_5a/relu_5x5
I0403 14:24:26.755610 29672 net.cpp:425] inception_5a/relu_5x5 <- inception_5a/5x5
I0403 14:24:26.755630 29672 net.cpp:386] inception_5a/relu_5x5 -> inception_5a/5x5 (in-place)
I0403 14:24:26.755834 29672 net.cpp:141] Setting up inception_5a/relu_5x5
I0403 14:24:26.755875 29672 net.cpp:148] Top shape: 24 128 7 7 (150528)
I0403 14:24:26.755892 29672 net.cpp:156] Memory required for data: 1300555296
I0403 14:24:26.755908 29672 layer_factory.hpp:77] Creating layer inception_5a/pool
I0403 14:24:26.755928 29672 net.cpp:91] Creating Layer inception_5a/pool
I0403 14:24:26.755944 29672 net.cpp:425] inception_5a/pool <- pool4/3x3_s2_pool4/3x3_s2_0_split_3
I0403 14:24:26.755965 29672 net.cpp:399] inception_5a/pool -> inception_5a/pool
I0403 14:24:26.756042 29672 net.cpp:141] Setting up inception_5a/pool
I0403 14:24:26.756067 29672 net.cpp:148] Top shape: 24 832 7 7 (978432)
I0403 14:24:26.756083 29672 net.cpp:156] Memory required for data: 1304469024
I0403 14:24:26.756099 29672 layer_factory.hpp:77] Creating layer inception_5a/pool_proj
I0403 14:24:26.756124 29672 net.cpp:91] Creating Layer inception_5a/pool_proj
I0403 14:24:26.756144 29672 net.cpp:425] inception_5a/pool_proj <- inception_5a/pool
I0403 14:24:26.756165 29672 net.cpp:399] inception_5a/pool_proj -> inception_5a/pool_proj
I0403 14:24:26.758574 29672 net.cpp:141] Setting up inception_5a/pool_proj
I0403 14:24:26.758605 29672 net.cpp:148] Top shape: 24 128 7 7 (150528)
I0403 14:24:26.758623 29672 net.cpp:156] Memory required for data: 1305071136
I0403 14:24:26.758644 29672 layer_factory.hpp:77] Creating layer inception_5a/relu_pool_proj
I0403 14:24:26.758666 29672 net.cpp:91] Creating Layer inception_5a/relu_pool_proj
I0403 14:24:26.758684 29672 net.cpp:425] inception_5a/relu_pool_proj <- inception_5a/pool_proj
I0403 14:24:26.758703 29672 net.cpp:386] inception_5a/relu_pool_proj -> inception_5a/pool_proj (in-place)
I0403 14:24:26.759040 29672 net.cpp:141] Setting up inception_5a/relu_pool_proj
I0403 14:24:26.759068 29672 net.cpp:148] Top shape: 24 128 7 7 (150528)
I0403 14:24:26.759085 29672 net.cpp:156] Memory required for data: 1305673248
I0403 14:24:26.759102 29672 layer_factory.hpp:77] Creating layer inception_5a/output
I0403 14:24:26.759121 29672 net.cpp:91] Creating Layer inception_5a/output
I0403 14:24:26.759140 29672 net.cpp:425] inception_5a/output <- inception_5a/1x1
I0403 14:24:26.759171 29672 net.cpp:425] inception_5a/output <- inception_5a/3x3
I0403 14:24:26.759189 29672 net.cpp:425] inception_5a/output <- inception_5a/5x5
I0403 14:24:26.759219 29672 net.cpp:425] inception_5a/output <- inception_5a/pool_proj
I0403 14:24:26.759239 29672 net.cpp:399] inception_5a/output -> inception_5a/output
I0403 14:24:26.759295 29672 net.cpp:141] Setting up inception_5a/output
I0403 14:24:26.759325 29672 net.cpp:148] Top shape: 24 832 7 7 (978432)
I0403 14:24:26.759342 29672 net.cpp:156] Memory required for data: 1309586976
I0403 14:24:26.759358 29672 layer_factory.hpp:77] Creating layer inception_5a/output_inception_5a/output_0_split
I0403 14:24:26.759377 29672 net.cpp:91] Creating Layer inception_5a/output_inception_5a/output_0_split
I0403 14:24:26.759393 29672 net.cpp:425] inception_5a/output_inception_5a/output_0_split <- inception_5a/output
I0403 14:24:26.759414 29672 net.cpp:399] inception_5a/output_inception_5a/output_0_split -> inception_5a/output_inception_5a/output_0_split_0
I0403 14:24:26.759436 29672 net.cpp:399] inception_5a/output_inception_5a/output_0_split -> inception_5a/output_inception_5a/output_0_split_1
I0403 14:24:26.759459 29672 net.cpp:399] inception_5a/output_inception_5a/output_0_split -> inception_5a/output_inception_5a/output_0_split_2
I0403 14:24:26.759480 29672 net.cpp:399] inception_5a/output_inception_5a/output_0_split -> inception_5a/output_inception_5a/output_0_split_3
I0403 14:24:26.759605 29672 net.cpp:141] Setting up inception_5a/output_inception_5a/output_0_split
I0403 14:24:26.759630 29672 net.cpp:148] Top shape: 24 832 7 7 (978432)
I0403 14:24:26.759649 29672 net.cpp:148] Top shape: 24 832 7 7 (978432)
I0403 14:24:26.759666 29672 net.cpp:148] Top shape: 24 832 7 7 (978432)
I0403 14:24:26.759682 29672 net.cpp:148] Top shape: 24 832 7 7 (978432)
I0403 14:24:26.759696 29672 net.cpp:156] Memory required for data: 1325241888
I0403 14:24:26.759711 29672 layer_factory.hpp:77] Creating layer inception_5b/1x1
I0403 14:24:26.759737 29672 net.cpp:91] Creating Layer inception_5b/1x1
I0403 14:24:26.759755 29672 net.cpp:425] inception_5b/1x1 <- inception_5a/output_inception_5a/output_0_split_0
I0403 14:24:26.759774 29672 net.cpp:399] inception_5b/1x1 -> inception_5b/1x1
I0403 14:24:26.763633 29672 net.cpp:141] Setting up inception_5b/1x1
I0403 14:24:26.763664 29672 net.cpp:148] Top shape: 24 384 7 7 (451584)
I0403 14:24:26.763680 29672 net.cpp:156] Memory required for data: 1327048224
I0403 14:24:26.763700 29672 layer_factory.hpp:77] Creating layer inception_5b/relu_1x1
I0403 14:24:26.763718 29672 net.cpp:91] Creating Layer inception_5b/relu_1x1
I0403 14:24:26.763739 29672 net.cpp:425] inception_5b/relu_1x1 <- inception_5b/1x1
I0403 14:24:26.763757 29672 net.cpp:386] inception_5b/relu_1x1 -> inception_5b/1x1 (in-place)
I0403 14:24:26.764063 29672 net.cpp:141] Setting up inception_5b/relu_1x1
I0403 14:24:26.764102 29672 net.cpp:148] Top shape: 24 384 7 7 (451584)
I0403 14:24:26.764122 29672 net.cpp:156] Memory required for data: 1328854560
I0403 14:24:26.764137 29672 layer_factory.hpp:77] Creating layer inception_5b/3x3_reduce
I0403 14:24:26.764161 29672 net.cpp:91] Creating Layer inception_5b/3x3_reduce
I0403 14:24:26.764181 29672 net.cpp:425] inception_5b/3x3_reduce <- inception_5a/output_inception_5a/output_0_split_1
I0403 14:24:26.764205 29672 net.cpp:399] inception_5b/3x3_reduce -> inception_5b/3x3_reduce
I0403 14:24:26.766975 29672 net.cpp:141] Setting up inception_5b/3x3_reduce
I0403 14:24:26.767007 29672 net.cpp:148] Top shape: 24 192 7 7 (225792)
I0403 14:24:26.767025 29672 net.cpp:156] Memory required for data: 1329757728
I0403 14:24:26.767046 29672 layer_factory.hpp:77] Creating layer inception_5b/relu_3x3_reduce
I0403 14:24:26.767066 29672 net.cpp:91] Creating Layer inception_5b/relu_3x3_reduce
I0403 14:24:26.767082 29672 net.cpp:425] inception_5b/relu_3x3_reduce <- inception_5b/3x3_reduce
I0403 14:24:26.767104 29672 net.cpp:386] inception_5b/relu_3x3_reduce -> inception_5b/3x3_reduce (in-place)
I0403 14:24:26.767302 29672 net.cpp:141] Setting up inception_5b/relu_3x3_reduce
I0403 14:24:26.767334 29672 net.cpp:148] Top shape: 24 192 7 7 (225792)
I0403 14:24:26.767351 29672 net.cpp:156] Memory required for data: 1330660896
I0403 14:24:26.767369 29672 layer_factory.hpp:77] Creating layer inception_5b/3x3
I0403 14:24:26.767392 29672 net.cpp:91] Creating Layer inception_5b/3x3
I0403 14:24:26.767411 29672 net.cpp:425] inception_5b/3x3 <- inception_5b/3x3_reduce
I0403 14:24:26.767433 29672 net.cpp:399] inception_5b/3x3 -> inception_5b/3x3
I0403 14:24:26.774421 29672 net.cpp:141] Setting up inception_5b/3x3
I0403 14:24:26.774466 29672 net.cpp:148] Top shape: 24 384 7 7 (451584)
I0403 14:24:26.774484 29672 net.cpp:156] Memory required for data: 1332467232
I0403 14:24:26.774504 29672 layer_factory.hpp:77] Creating layer inception_5b/relu_3x3
I0403 14:24:26.774528 29672 net.cpp:91] Creating Layer inception_5b/relu_3x3
I0403 14:24:26.774546 29672 net.cpp:425] inception_5b/relu_3x3 <- inception_5b/3x3
I0403 14:24:26.774565 29672 net.cpp:386] inception_5b/relu_3x3 -> inception_5b/3x3 (in-place)
I0403 14:24:26.774899 29672 net.cpp:141] Setting up inception_5b/relu_3x3
I0403 14:24:26.774927 29672 net.cpp:148] Top shape: 24 384 7 7 (451584)
I0403 14:24:26.774943 29672 net.cpp:156] Memory required for data: 1334273568
I0403 14:24:26.774971 29672 layer_factory.hpp:77] Creating layer inception_5b/5x5_reduce
I0403 14:24:26.775015 29672 net.cpp:91] Creating Layer inception_5b/5x5_reduce
I0403 14:24:26.775037 29672 net.cpp:425] inception_5b/5x5_reduce <- inception_5a/output_inception_5a/output_0_split_2
I0403 14:24:26.775063 29672 net.cpp:399] inception_5b/5x5_reduce -> inception_5b/5x5_reduce
I0403 14:24:26.776415 29672 net.cpp:141] Setting up inception_5b/5x5_reduce
I0403 14:24:26.776445 29672 net.cpp:148] Top shape: 24 48 7 7 (56448)
I0403 14:24:26.776463 29672 net.cpp:156] Memory required for data: 1334499360
I0403 14:24:26.776481 29672 layer_factory.hpp:77] Creating layer inception_5b/relu_5x5_reduce
I0403 14:24:26.776504 29672 net.cpp:91] Creating Layer inception_5b/relu_5x5_reduce
I0403 14:24:26.776523 29672 net.cpp:425] inception_5b/relu_5x5_reduce <- inception_5b/5x5_reduce
I0403 14:24:26.776545 29672 net.cpp:386] inception_5b/relu_5x5_reduce -> inception_5b/5x5_reduce (in-place)
I0403 14:24:26.776933 29672 net.cpp:141] Setting up inception_5b/relu_5x5_reduce
I0403 14:24:26.776960 29672 net.cpp:148] Top shape: 24 48 7 7 (56448)
I0403 14:24:26.776976 29672 net.cpp:156] Memory required for data: 1334725152
I0403 14:24:26.776993 29672 layer_factory.hpp:77] Creating layer inception_5b/5x5
I0403 14:24:26.777015 29672 net.cpp:91] Creating Layer inception_5b/5x5
I0403 14:24:26.777034 29672 net.cpp:425] inception_5b/5x5 <- inception_5b/5x5_reduce
I0403 14:24:26.777055 29672 net.cpp:399] inception_5b/5x5 -> inception_5b/5x5
I0403 14:24:26.779196 29672 net.cpp:141] Setting up inception_5b/5x5
I0403 14:24:26.779227 29672 net.cpp:148] Top shape: 24 128 7 7 (150528)
I0403 14:24:26.779242 29672 net.cpp:156] Memory required for data: 1335327264
I0403 14:24:26.779263 29672 layer_factory.hpp:77] Creating layer inception_5b/relu_5x5
I0403 14:24:26.779284 29672 net.cpp:91] Creating Layer inception_5b/relu_5x5
I0403 14:24:26.779302 29672 net.cpp:425] inception_5b/relu_5x5 <- inception_5b/5x5
I0403 14:24:26.779328 29672 net.cpp:386] inception_5b/relu_5x5 -> inception_5b/5x5 (in-place)
I0403 14:24:26.779531 29672 net.cpp:141] Setting up inception_5b/relu_5x5
I0403 14:24:26.779559 29672 net.cpp:148] Top shape: 24 128 7 7 (150528)
I0403 14:24:26.779577 29672 net.cpp:156] Memory required for data: 1335929376
I0403 14:24:26.779592 29672 layer_factory.hpp:77] Creating layer inception_5b/pool
I0403 14:24:26.779613 29672 net.cpp:91] Creating Layer inception_5b/pool
I0403 14:24:26.779630 29672 net.cpp:425] inception_5b/pool <- inception_5a/output_inception_5a/output_0_split_3
I0403 14:24:26.779651 29672 net.cpp:399] inception_5b/pool -> inception_5b/pool
I0403 14:24:26.779728 29672 net.cpp:141] Setting up inception_5b/pool
I0403 14:24:26.779754 29672 net.cpp:148] Top shape: 24 832 7 7 (978432)
I0403 14:24:26.779770 29672 net.cpp:156] Memory required for data: 1339843104
I0403 14:24:26.779785 29672 layer_factory.hpp:77] Creating layer inception_5b/pool_proj
I0403 14:24:26.779808 29672 net.cpp:91] Creating Layer inception_5b/pool_proj
I0403 14:24:26.779827 29672 net.cpp:425] inception_5b/pool_proj <- inception_5b/pool
I0403 14:24:26.779850 29672 net.cpp:399] inception_5b/pool_proj -> inception_5b/pool_proj
I0403 14:24:26.782235 29672 net.cpp:141] Setting up inception_5b/pool_proj
I0403 14:24:26.782268 29672 net.cpp:148] Top shape: 24 128 7 7 (150528)
I0403 14:24:26.782284 29672 net.cpp:156] Memory required for data: 1340445216
I0403 14:24:26.782305 29672 layer_factory.hpp:77] Creating layer inception_5b/relu_pool_proj
I0403 14:24:26.782331 29672 net.cpp:91] Creating Layer inception_5b/relu_pool_proj
I0403 14:24:26.782352 29672 net.cpp:425] inception_5b/relu_pool_proj <- inception_5b/pool_proj
I0403 14:24:26.782371 29672 net.cpp:386] inception_5b/relu_pool_proj -> inception_5b/pool_proj (in-place)
I0403 14:24:26.782680 29672 net.cpp:141] Setting up inception_5b/relu_pool_proj
I0403 14:24:26.782708 29672 net.cpp:148] Top shape: 24 128 7 7 (150528)
I0403 14:24:26.782726 29672 net.cpp:156] Memory required for data: 1341047328
I0403 14:24:26.782742 29672 layer_factory.hpp:77] Creating layer inception_5b/output
I0403 14:24:26.782763 29672 net.cpp:91] Creating Layer inception_5b/output
I0403 14:24:26.782795 29672 net.cpp:425] inception_5b/output <- inception_5b/1x1
I0403 14:24:26.782815 29672 net.cpp:425] inception_5b/output <- inception_5b/3x3
I0403 14:24:26.782835 29672 net.cpp:425] inception_5b/output <- inception_5b/5x5
I0403 14:24:26.782851 29672 net.cpp:425] inception_5b/output <- inception_5b/pool_proj
I0403 14:24:26.782871 29672 net.cpp:399] inception_5b/output -> inception_5b/output
I0403 14:24:26.782924 29672 net.cpp:141] Setting up inception_5b/output
I0403 14:24:26.782953 29672 net.cpp:148] Top shape: 24 1024 7 7 (1204224)
I0403 14:24:26.782970 29672 net.cpp:156] Memory required for data: 1345864224
I0403 14:24:26.782986 29672 layer_factory.hpp:77] Creating layer pool5/7x7_s1
I0403 14:24:26.783005 29672 net.cpp:91] Creating Layer pool5/7x7_s1
I0403 14:24:26.783022 29672 net.cpp:425] pool5/7x7_s1 <- inception_5b/output
I0403 14:24:26.783044 29672 net.cpp:399] pool5/7x7_s1 -> pool5/7x7_s1
I0403 14:24:26.783270 29672 net.cpp:141] Setting up pool5/7x7_s1
I0403 14:24:26.783298 29672 net.cpp:148] Top shape: 24 1024 1 1 (24576)
I0403 14:24:26.783313 29672 net.cpp:156] Memory required for data: 1345962528
I0403 14:24:26.783334 29672 layer_factory.hpp:77] Creating layer pool5/drop_7x7_s1
I0403 14:24:26.783355 29672 net.cpp:91] Creating Layer pool5/drop_7x7_s1
I0403 14:24:26.783373 29672 net.cpp:425] pool5/drop_7x7_s1 <- pool5/7x7_s1
I0403 14:24:26.783392 29672 net.cpp:386] pool5/drop_7x7_s1 -> pool5/7x7_s1 (in-place)
I0403 14:24:26.783448 29672 net.cpp:141] Setting up pool5/drop_7x7_s1
I0403 14:24:26.783473 29672 net.cpp:148] Top shape: 24 1024 1 1 (24576)
I0403 14:24:26.783488 29672 net.cpp:156] Memory required for data: 1346060832
I0403 14:24:26.783504 29672 layer_factory.hpp:77] Creating layer loss3/classifier_plantvillage
I0403 14:24:26.783524 29672 net.cpp:91] Creating Layer loss3/classifier_plantvillage
I0403 14:24:26.783547 29672 net.cpp:425] loss3/classifier_plantvillage <- pool5/7x7_s1
I0403 14:24:26.783567 29672 net.cpp:399] loss3/classifier_plantvillage -> loss3/classifier_plantvillage
I0403 14:24:26.784010 29672 net.cpp:141] Setting up loss3/classifier_plantvillage
I0403 14:24:26.784039 29672 net.cpp:148] Top shape: 24 38 (912)
I0403 14:24:26.784054 29672 net.cpp:156] Memory required for data: 1346064480
I0403 14:24:26.784073 29672 layer_factory.hpp:77] Creating layer loss3/classifier_plantvillage_loss3/classifier_plantvillage_0_split
I0403 14:24:26.784093 29672 net.cpp:91] Creating Layer loss3/classifier_plantvillage_loss3/classifier_plantvillage_0_split
I0403 14:24:26.784111 29672 net.cpp:425] loss3/classifier_plantvillage_loss3/classifier_plantvillage_0_split <- loss3/classifier_plantvillage
I0403 14:24:26.784132 29672 net.cpp:399] loss3/classifier_plantvillage_loss3/classifier_plantvillage_0_split -> loss3/classifier_plantvillage_loss3/classifier_plantvillage_0_split_0
I0403 14:24:26.784155 29672 net.cpp:399] loss3/classifier_plantvillage_loss3/classifier_plantvillage_0_split -> loss3/classifier_plantvillage_loss3/classifier_plantvillage_0_split_1
I0403 14:24:26.784178 29672 net.cpp:399] loss3/classifier_plantvillage_loss3/classifier_plantvillage_0_split -> loss3/classifier_plantvillage_loss3/classifier_plantvillage_0_split_2
I0403 14:24:26.784200 29672 net.cpp:399] loss3/classifier_plantvillage_loss3/classifier_plantvillage_0_split -> loss3/classifier_plantvillage_loss3/classifier_plantvillage_0_split_3
I0403 14:24:26.784308 29672 net.cpp:141] Setting up loss3/classifier_plantvillage_loss3/classifier_plantvillage_0_split
I0403 14:24:26.784344 29672 net.cpp:148] Top shape: 24 38 (912)
I0403 14:24:26.784364 29672 net.cpp:148] Top shape: 24 38 (912)
I0403 14:24:26.784381 29672 net.cpp:148] Top shape: 24 38 (912)
I0403 14:24:26.784399 29672 net.cpp:148] Top shape: 24 38 (912)
I0403 14:24:26.784414 29672 net.cpp:156] Memory required for data: 1346079072
I0403 14:24:26.784428 29672 layer_factory.hpp:77] Creating layer loss1/loss
I0403 14:24:26.784457 29672 net.cpp:91] Creating Layer loss1/loss
I0403 14:24:26.784478 29672 net.cpp:425] loss1/loss <- loss1/classifier_plantvillage_loss1/classifier_plantvillage_0_split_0
I0403 14:24:26.784512 29672 net.cpp:425] loss1/loss <- label_data_1_split_0
…
