…
I0403 14:35:27.983551 29998 net.cpp:313] The NetState phase (1) differed from the phase (0) specified by a rule in layer data
I0403 14:35:27.984768 29998 net.cpp:49] Initializing net from parameters: 
state {
  phase: TEST
}
layer {
  name: "data"
  type: "Data"
  top: "data"
  top: "label"
  include {
    phase: TEST
  }
  transform_param {
    mirror: false
    crop_size: 224
    mean_file: "/home/mohanty/data/final_dataset/lmdb/color-20-80/mean.binaryproto"
  }
  data_param {
    source: "/home/mohanty/data/final_dataset/lmdb/color-20-80/test_db"
    batch_size: 24
    backend: LMDB
  }
}
layer {
  name: "conv1/7x7_s2"
  type: "Convolution"
  bottom: "data"
  top: "conv1/7x7_s2"
  param {
    lr_mult: 1
    decay_mult: 1
  }
  param {
    lr_mult: 2
    decay_mult: 0
  }
  convolution_param {
    num_output: 64
    pad: 3
    kernel_size: 7
    stride: 2
    weight_filler {
      type: "xavier"
      std: 0.1
    }
    bias_filler {
      type: "constant"
      value: 0.2
    }
  }
}
layer {
  name: "conv1/relu_7x7"
  type: "ReLU"
  bottom: "conv1/7x7_s2"
  top: "conv1/7x7_s2"
}
layer {
  name: "pool1/3x3_s2"
  type: "Pooling"
  bottom: "conv1/7x7_s2"
  top: "pool1/3x3_s2"
  pooling_param {
    pool: MAX
    kernel_size: 3
    stride: 2
  }
}
layer {
  name: "pool1/norm1"
  type: "LRN"
  bottom: "pool1/3x3_s2"
  top: "pool1/norm1"
  lrn_param {
    local_size: 5
    alpha: 0.0001
    beta: 0.75
  }
}
layer {
  name: "conv2/3x3_reduce"
  type: "Convolution"
  bottom: "pool1/norm1"
  top: "conv2/3x3_reduce"
  param {
    lr_mult: 1
    decay_mult: 1
  }
  param {
    lr_mult: 2
    decay_mult: 0
  }
  convolution_param {
    num_output: 64
    kernel_size: 1
    weight_filler {
      type: "xavier"
      std: 0.1
    }
    bias_filler {
      type: "constant"
      value: 0.2
    }
  }
}
layer {
  name: "conv2/relu_3x3_reduce"
  type: "ReLU"
  bottom: "conv2/3x3_reduce"
  top: "conv2/3x3_reduce"
}
layer {
  name: "conv2/3x3"
  type: "Convolution"
  bottom: "conv2/3x3_reduce"
  top: "conv2/3x3"
  param {
    lr_mult: 1
    decay_mult: 1
  }
  param {
    lr_mult: 2
    decay_mult: 0
  }
  convolution_param {
    num_output: 192
    pad: 1
    kernel_size: 3
    weight_filler {
      type: "xavier"
      std: 0.03
    }
    bias_filler {
      type: "constant"
      value: 0.2
    }
  }
}
layer {
  name: "conv2/relu_3x3"
  type: "ReLU"
  bottom: "conv2/3x3"
  top: "conv2/3x3"
}
layer {
  name: "conv2/norm2"
  type: "LRN"
  bottom: "conv2/3x3"
  top: "conv2/norm2"
  lrn_param {
    local_size: 5
    alpha: 0.0001
    beta: 0.75
  }
}
layer {
  name: "pool2/3x3_s2"
  type: "Pooling"
  bottom: "conv2/norm2"
  top: "pool2/3x3_s2"
  pooling_param {
    pool: MAX
    kernel_size: 3
    stride: 2
  }
}
layer {
  name: "inception_3a/1x1"
  type: "Convolution"
  bottom: "pool2/3x3_s2"
  top: "inception_3a/1x1"
  param {
    lr_mult: 1
    decay_mult: 1
  }
  param {
    lr_mult: 2
    decay_mult: 0
  }
  convolution_param {
    num_output: 64
    kernel_size: 1
    weight_filler {
      type: "xavier"
      std: 0.03
    }
    bias_filler {
      type: "constant"
      value: 0.2
    }
  }
}
layer {
  name: "inception_3a/relu_1x1"
  type: "ReLU"
  bottom: "inception_3a/1x1"
  top: "inception_3a/1x1"
}
layer {
  name: "inception_3a/3x3_reduce"
  type: "Convolution"
  bottom: "pool2/3x3_s2"
  top: "inception_3a/3x3_reduce"
  param {
    lr_mult: 1
    decay_mult: 1
  }
  param {
    lr_mult: 2
    decay_mult: 0
  }
  convolution_param {
    num_output: 96
    kernel_size: 1
    weight_filler {
      type: "xavier"
      std: 0.09
    }
    bias_filler {
      type: "constant"
      value: 0.2
    }
  }
}
layer {
  name: "inception_3a/relu_3x3_reduce"
  type: "ReLU"
  bottom: "inception_3a/3x3_reduce"
  top: "inception_3a/3x3_reduce"
}
layer {
  name: "inception_3a/3x3"
  type: "Convolution"
  bottom: "inception_3a/3x3_reduce"
  top: "inception_3a/3x3"
  param {
    lr_mult: 1
    decay_mult: 1
  }
  param {
    lr_mult: 2
    decay_mult: 0
  }
  convolution_param {
    num_output: 128
    pad: 1
    kernel_size: 3
    weight_filler {
      type: "xavier"
      std: 0.03
    }
    bias_filler {
      type: "constant"
      value: 0.2
    }
  }
}
layer {
  name: "inception_3a/relu_3x3"
  type: "ReLU"
  bottom: "inception_3a/3x3"
  top: "inception_3a/3x3"
}
layer {
  name: "inception_3a/5x5_reduce"
  type: "Convolution"
  bottom: "pool2/3x3_s2"
  top: "inception_3a/5x5_reduce"
  param {
    lr_mult: 1
    decay_mult: 1
  }
  param {
    lr_mult: 2
    decay_mult: 0
  }
  convolution_param {
    num_output: 16
    kernel_size: 1
    weight_filler {
      type: "xavier"
      std: 0.2
    }
    bias_filler {
      type: "constant"
      value: 0.2
    }
  }
}
layer {
  name: "inception_3a/relu_5x5_reduce"
  type: "ReLU"
  bottom: "inception_3a/5x5_reduce"
  top: "inception_3a/5x5_reduce"
}
layer {
  name: "inception_3a/5x5"
  type: "Convolution"
  bottom: "inception_3a/5x5_reduce"
  top: "inception_3a/5x5"
  param {
    lr_mult: 1
    decay_mult: 1
  }
  param {
    lr_mult: 2
    decay_mult: 0
  }
  convolution_param {
    num_output: 32
    pad: 2
    kernel_size: 5
    weight_filler {
      type: "xavier"
      std: 0.03
    }
    bias_filler {
      type: "constant"
      value: 0.2
    }
  }
}
layer {
  name: "inception_3a/relu_5x5"
  type: "ReLU"
  bottom: "inception_3a/5x5"
  top: "inception_3a/5x5"
}
layer {
  name: "inception_3a/pool"
  type: "Pooling"
  bottom: "pool2/3x3_s2"
  top: "inception_3a/pool"
  pooling_param {
    pool: MAX
    kernel_size: 3
    stride: 1
    pad: 1
  }
}
layer {
  name: "inception_3a/pool_proj"
  type: "Convolution"
  bottom: "inception_3a/pool"
  top: "inception_3a/pool_proj"
  param {
    lr_mult: 1
    decay_mult: 1
  }
  param {
    lr_mult: 2
    decay_mult: 0
  }
  convolution_param {
    num_output: 32
    kernel_size: 1
    weight_filler {
      type: "xavier"
      std: 0.1
    }
    bias_filler {
      type: "constant"
      value: 0.2
    }
  }
}
layer {
  name: "inception_3a/relu_pool_proj"
  type: "ReLU"
  bottom: "inception_3a/pool_proj"
  top: "inception_3a/pool_proj"
}
layer {
  name: "inception_3a/output"
  type: "Concat"
  bottom: "inception_3a/1x1"
  bottom: "inception_3a/3x3"
  bottom: "inception_3a/5x5"
  bottom: "inception_3a/pool_proj"
  top: "inception_3a/output"
}
layer {
  name: "inception_3b/1x1"
  type: "Convolution"
  bottom: "inception_3a/output"
  top: "inception_3b/1x1"
  param {
    lr_mult: 1
    decay_mult: 1
  }
  param {
    lr_mult: 2
    decay_mult: 0
  }
  convolution_param {
    num_output: 128
    kernel_size: 1
    weight_filler {
      type: "xavier"
      std: 0.03
    }
    bias_filler {
      type: "constant"
      value: 0.2
    }
  }
}
layer {
  name: "inception_3b/relu_1x1"
  type: "ReLU"
  bottom: "inception_3b/1x1"
  top: "inception_3b/1x1"
}
layer {
  name: "inception_3b/3x3_reduce"
  type: "Convolution"
  bottom: "inception_3a/output"
  top: "inception_3b/3x3_reduce"
  param {
    lr_mult: 1
    decay_mult: 1
  }
  param {
    lr_mult: 2
    decay_mult: 0
  }
  convolution_param {
    num_output: 128
    kernel_size: 1
    weight_filler {
      type: "xavier"
      std: 0.09
    }
    bias_filler {
      type: "constant"
      value: 0.2
    }
  }
}
layer {
  name: "inception_3b/relu_3x3_reduce"
  type: "ReLU"
  bottom: "inception_3b/3x3_reduce"
  top: "inception_3b/3x3_reduce"
}
layer {
  name: "inception_3b/3x3"
  type: "Convolution"
  bottom: "inception_3b/3x3_reduce"
  top: "inception_3b/3x3"
  param {
    lr_mult: 1
    decay_mult: 1
  }
  param {
    lr_mult: 2
    decay_mult: 0
  }
  convolution_param {
    num_output: 192
    pad: 1
    kernel_size: 3
    weight_filler {
      type: "xavier"
      std: 0.03
    }
    bias_filler {
      type: "constant"
      value: 0.2
    }
  }
}
layer {
  name: "inception_3b/relu_3x3"
  type: "ReLU"
  bottom: "inception_3b/3x3"
  top: "inception_3b/3x3"
}
layer {
  name: "inception_3b/5x5_reduce"
  type: "Convolution"
  bottom: "inception_3a/output"
  top: "inception_3b/5x5_reduce"
  param {
    lr_mult: 1
    decay_mult: 1
  }
  param {
    lr_mult: 2
    decay_mult: 0
  }
  convolution_param {
    num_output: 32
    kernel_size: 1
    weight_filler {
      type: "xavier"
      std: 0.2
    }
    bias_filler {
      type: "constant"
      value: 0.2
    }
  }
}
layer {
  name: "inception_3b/relu_5x5_reduce"
  type: "ReLU"
  bottom: "inception_3b/5x5_reduce"
  top: "inception_3b/5x5_reduce"
}
layer {
  name: "inception_3b/5x5"
  type: "Convolution"
  bottom: "inception_3b/5x5_reduce"
  top: "inception_3b/5x5"
  param {
    lr_mult: 1
    decay_mult: 1
  }
  param {
    lr_mult: 2
    decay_mult: 0
  }
  convolution_param {
    num_output: 96
    pad: 2
    kernel_size: 5
    weight_filler {
      type: "xavier"
      std: 0.03
    }
    bias_filler {
      type: "constant"
      value: 0.2
    }
  }
}
layer {
  name: "inception_3b/relu_5x5"
  type: "ReLU"
  bottom: "inception_3b/5x5"
  top: "inception_3b/5x5"
}
layer {
  name: "inception_3b/pool"
  type: "Pooling"
  bottom: "inception_3a/output"
  top: "inception_3b/pool"
  pooling_param {
    pool: MAX
    kernel_size: 3
    stride: 1
    pad: 1
  }
}
layer {
  name: "inception_3b/pool_proj"
  type: "Convolution"
  bottom: "inception_3b/pool"
  top: "inception_3b/pool_proj"
  param {
    lr_mult: 1
    decay_mult: 1
  }
  param {
    lr_mult: 2
    decay_mult: 0
  }
  convolution_param {
    num_output: 64
    kernel_size: 1
    weight_filler {
      type: "xavier"
      std: 0.1
    }
    bias_filler {
      type: "constant"
      value: 0.2
    }
  }
}
layer {
  name: "inception_3b/relu_pool_proj"
  type: "ReLU"
  bottom: "inception_3b/pool_proj"
  top: "inception_3b/pool_proj"
}
layer {
  name: "inception_3b/output"
  type: "Concat"
  bottom: "inception_3b/1x1"
  bottom: "inception_3b/3x3"
  bottom: "inception_3b/5x5"
  bottom: "inception_3b/pool_proj"
  top: "inception_3b/output"
}
layer {
  name: "pool3/3x3_s2"
  type: "Pooling"
  bottom: "inception_3b/output"
  top: "pool3/3x3_s2"
  pooling_param {
    pool: MAX
    kernel_size: 3
    stride: 2
  }
}
layer {
  name: "inception_4a/1x1"
  type: "Convolution"
  bottom: "pool3/3x3_s2"
  top: "inception_4a/1x1"
  param {
    lr_mult: 1
    decay_mult: 1
  }
  param {
    lr_mult: 2
    decay_mult: 0
  }
  convolution_param {
    num_output: 192
    kernel_size: 1
    weight_filler {
      type: "xavier"
      std: 0.03
    }
    bias_filler {
      type: "constant"
      value: 0.2
    }
  }
}
layer {
  name: "inception_4a/relu_1x1"
  type: "ReLU"
  bottom: "inception_4a/1x1"
  top: "inception_4a/1x1"
}
layer {
  name: "inception_4a/3x3_reduce"
  type: "Convolution"
  bottom: "pool3/3x3_s2"
  top: "inception_4a/3x3_reduce"
  param {
    lr_mult: 1
    decay_mult: 1
  }
  param {
    lr_mult: 2
    decay_mult: 0
  }
  convolution_param {
    num_output: 96
    kernel_size: 1
    weight_filler {
      type: "xavier"
      std: 0.09
    }
    bias_filler {
      type: "constant"
      value: 0.2
    }
  }
}
layer {
  name: "inception_4a/relu_3x3_reduce"
  type: "ReLU"
  bottom: "inception_4a/3x3_reduce"
  top: "inception_4a/3x3_reduce"
}
layer {
  name: "inception_4a/3x3"
  type: "Convolution"
  bottom: "inception_4a/3x3_reduce"
  top: "inception_4a/3x3"
  param {
    lr_mult: 1
    decay_mult: 1
  }
  param {
    lr_mult: 2
    decay_mult: 0
  }
  convolution_param {
    num_output: 208
    pad: 1
    kernel_size: 3
    weight_filler {
      type: "xavier"
      std: 0.03
    }
    bias_filler {
      type: "constant"
      value: 0.2
    }
  }
}
layer {
  name: "inception_4a/relu_3x3"
  type: "ReLU"
  bottom: "inception_4a/3x3"
  top: "inception_4a/3x3"
}
layer {
  name: "inception_4a/5x5_reduce"
  type: "Convolution"
  bottom: "pool3/3x3_s2"
  top: "inception_4a/5x5_reduce"
  param {
    lr_mult: 1
    decay_mult: 1
  }
  param {
    lr_mult: 2
    decay_mult: 0
  }
  convolution_param {
    num_output: 16
    kernel_size: 1
    weight_filler {
      type: "xavier"
      std: 0.2
    }
    bias_filler {
      type: "constant"
      value: 0.2
    }
  }
}
layer {
  name: "inception_4a/relu_5x5_reduce"
  type: "ReLU"
  bottom: "inception_4a/5x5_reduce"
  top: "inception_4a/5x5_reduce"
}
layer {
  name: "inception_4a/5x5"
  type: "Convolution"
  bottom: "inception_4a/5x5_reduce"
  top: "inception_4a/5x5"
  param {
    lr_mult: 1
    decay_mult: 1
  }
  param {
    lr_mult: 2
    decay_mult: 0
  }
  convolution_param {
    num_output: 48
    pad: 2
    kernel_size: 5
    weight_filler {
      type: "xavier"
      std: 0.03
    }
    bias_filler {
      type: "constant"
      value: 0.2
    }
  }
}
layer {
  name: "inception_4a/relu_5x5"
  type: "ReLU"
  bottom: "inception_4a/5x5"
  top: "inception_4a/5x5"
}
layer {
  name: "inception_4a/pool"
  type: "Pooling"
  bottom: "pool3/3x3_s2"
  top: "inception_4a/pool"
  pooling_param {
    pool: MAX
    kernel_size: 3
    stride: 1
    pad: 1
  }
}
layer {
  name: "inception_4a/pool_proj"
  type: "Convolution"
  bottom: "inception_4a/pool"
  top: "inception_4a/pool_proj"
  param {
    lr_mult: 1
    decay_mult: 1
  }
  param {
    lr_mult: 2
    decay_mult: 0
  }
  convolution_param {
    num_output: 64
    kernel_size: 1
    weight_filler {
      type: "xavier"
      std: 0.1
    }
    bias_filler {
      type: "constant"
      value: 0.2
    }
  }
}
layer {
  name: "inception_4a/relu_pool_proj"
  type: "ReLU"
  bottom: "inception_4a/pool_proj"
  top: "inception_4a/pool_proj"
}
layer {
  name: "inception_4a/output"
  type: "Concat"
  bottom: "inception_4a/1x1"
  bottom: "inception_4a/3x3"
  bottom: "inception_4a/5x5"
  bottom: "inception_4a/pool_proj"
  top: "inception_4a/output"
}
layer {
  name: "loss1/ave_pool"
  type: "Pooling"
  bottom: "inception_4a/output"
  top: "loss1/ave_pool"
  pooling_param {
    pool: AVE
    kernel_size: 5
    stride: 3
  }
}
layer {
  name: "loss1/conv"
  type: "Convolution"
  bottom: "loss1/ave_pool"
  top: "loss1/conv"
  param {
    lr_mult: 1
    decay_mult: 1
  }
  param {
    lr_mult: 2
    decay_mult: 0
  }
  convolution_param {
    num_output: 128
    kernel_size: 1
    weight_filler {
      type: "xavier"
      std: 0.08
    }
    bias_filler {
      type: "constant"
      value: 0.2
    }
  }
}
layer {
  name: "loss1/relu_conv"
  type: "ReLU"
  bottom: "loss1/conv"
  top: "loss1/conv"
}
layer {
  name: "loss1/fc"
  type: "InnerProduct"
  bottom: "loss1/conv"
  top: "loss1/fc"
  param {
    lr_mult: 1
    decay_mult: 1
  }
  param {
    lr_mult: 2
    decay_mult: 0
  }
  inner_product_param {
    num_output: 1024
    weight_filler {
      type: "xavier"
      std: 0.02
    }
    bias_filler {
      type: "constant"
      value: 0.2
    }
  }
}
layer {
  name: "loss1/relu_fc"
  type: "ReLU"
  bottom: "loss1/fc"
  top: "loss1/fc"
}
layer {
  name: "loss1/drop_fc"
  type: "Dropout"
  bottom: "loss1/fc"
  top: "loss1/fc"
  dropout_param {
    dropout_ratio: 0.7
  }
}
layer {
  name: "loss1/classifier_plantvillage"
  type: "InnerProduct"
  bottom: "loss1/fc"
  top: "loss1/classifier_plantvillage"
  param {
    lr_mult: 1
    decay_mult: 1
  }
  param {
    lr_mult: 2
    decay_mult: 0
  }
  inner_product_param {
    num_output: 38
    weight_filler {
      type: "xavier"
      std: 0.0009765625
    }
    bias_filler {
      type: "constant"
      value: 0
    }
  }
}
layer {
  name: "inception_4b/1x1"
  type: "Convolution"
  bottom: "inception_4a/output"
  top: "inception_4b/1x1"
  param {
    lr_mult: 1
    decay_mult: 1
  }
  param {
    lr_mult: 2
    decay_mult: 0
  }
  convolution_param {
    num_output: 160
    kernel_size: 1
    weight_filler {
      type: "xavier"
      std: 0.03
    }
    bias_filler {
      type: "constant"
      value: 0.2
    }
  }
}
layer {
  name: "inception_4b/relu_1x1"
  type: "ReLU"
  bottom: "inception_4b/1x1"
  top: "inception_4b/1x1"
}
layer {
  name: "inception_4b/3x3_reduce"
  type: "Convolution"
  bottom: "inception_4a/output"
  top: "inception_4b/3x3_reduce"
  param {
    lr_mult: 1
    decay_mult: 1
  }
  param {
    lr_mult: 2
    decay_mult: 0
  }
  convolution_param {
    num_output: 112
    kernel_size: 1
    weight_filler {
      type: "xavier"
      std: 0.09
    }
    bias_filler {
      type: "constant"
      value: 0.2
    }
  }
}
layer {
  name: "inception_4b/relu_3x3_reduce"
  type: "ReLU"
  bottom: "inception_4b/3x3_reduce"
  top: "inception_4b/3x3_reduce"
}
layer {
  name: "inception_4b/3x3"
  type: "Convolution"
  bottom: "inception_4b/3x3_reduce"
  top: "inception_4b/3x3"
  param {
    lr_mult: 1
    decay_mult: 1
  }
  param {
    lr_mult: 2
    decay_mult: 0
  }
  convolution_param {
    num_output: 224
    pad: 1
    kernel_size: 3
    weight_filler {
      type: "xavier"
      std: 0.03
    }
    bias_filler {
      type: "constant"
      value: 0.2
    }
  }
}
layer {
  name: "inception_4b/relu_3x3"
  type: "ReLU"
  bottom: "inception_4b/3x3"
  top: "inception_4b/3x3"
}
layer {
  name: "inception_4b/5x5_reduce"
  type: "Convolution"
  bottom: "inception_4a/output"
  top: "inception_4b/5x5_reduce"
  param {
    lr_mult: 1
    decay_mult: 1
  }
  param {
    lr_mult: 2
    decay_mult: 0
  }
  convolution_param {
    num_output: 24
    kernel_size: 1
    weight_filler {
      type: "xavier"
      std: 0.2
    }
    bias_filler {
      type: "constant"
      value: 0.2
    }
  }
}
layer {
  name: "inception_4b/relu_5x5_reduce"
  type: "ReLU"
  bottom: "inception_4b/5x5_reduce"
  top: "inception_4b/5x5_reduce"
}
layer {
  name: "inception_4b/5x5"
  type: "Convolution"
  bottom: "inception_4b/5x5_reduce"
  top: "inception_4b/5x5"
  param {
    lr_mult: 1
    decay_mult: 1
  }
  param {
    lr_mult: 2
    decay_mult: 0
  }
  convolution_param {
    num_output: 64
    pad: 2
    kernel_size: 5
    weight_filler {
      type: "xavier"
      std: 0.03
    }
    bias_filler {
      type: "constant"
      value: 0.2
    }
  }
}
layer {
  name: "inception_4b/relu_5x5"
  type: "ReLU"
  bottom: "inception_4b/5x5"
  top: "inception_4b/5x5"
}
layer {
  name: "inception_4b/pool"
  type: "Pooling"
  bottom: "inception_4a/output"
  top: "inception_4b/pool"
  pooling_param {
    pool: MAX
    kernel_size: 3
    stride: 1
    pad: 1
  }
}
layer {
  name: "inception_4b/pool_proj"
  type: "Convolution"
  bottom: "inception_4b/pool"
  top: "inception_4b/pool_proj"
  param {
    lr_mult: 1
    decay_mult: 1
  }
  param {
    lr_mult: 2
    decay_mult: 0
  }
  convolution_param {
    num_output: 64
    kernel_size: 1
    weight_filler {
      type: "xavier"
      std: 0.1
    }
    bias_filler {
      type: "constant"
      value: 0.2
    }
  }
}
layer {
  name: "inception_4b/relu_pool_proj"
  type: "ReLU"
  bottom: "inception_4b/pool_proj"
  top: "inception_4b/pool_proj"
}
layer {
  name: "inception_4b/output"
  type: "Concat"
  bottom: "inception_4b/1x1"
  bottom: "inception_4b/3x3"
  bottom: "inception_4b/5x5"
  bottom: "inception_4b/pool_proj"
  top: "inception_4b/output"
}
layer {
  name: "inception_4c/1x1"
  type: "Convolution"
  bottom: "inception_4b/output"
  top: "inception_4c/1x1"
  param {
    lr_mult: 1
    decay_mult: 1
  }
  param {
    lr_mult: 2
    decay_mult: 0
  }
  convolution_param {
    num_output: 128
    kernel_size: 1
    weight_filler {
      type: "xavier"
      std: 0.03
    }
    bias_filler {
      type: "constant"
      value: 0.2
    }
  }
}
layer {
  name: "inception_4c/relu_1x1"
  type: "ReLU"
  bottom: "inception_4c/1x1"
  top: "inception_4c/1x1"
}
layer {
  name: "inception_4c/3x3_reduce"
  type: "Convolution"
  bottom: "inception_4b/output"
  top: "inception_4c/3x3_reduce"
  param {
    lr_mult: 1
    decay_mult: 1
  }
  param {
    lr_mult: 2
    decay_mult: 0
  }
  convolution_param {
    num_output: 128
    kernel_size: 1
    weight_filler {
      type: "xavier"
      std: 0.09
    }
    bias_filler {
      type: "constant"
      value: 0.2
    }
  }
}
layer {
  name: "inception_4c/relu_3x3_reduce"
  type: "ReLU"
  bottom: "inception_4c/3x3_reduce"
  top: "inception_4c/3x3_reduce"
}
layer {
  name: "inception_4c/3x3"
  type: "Convolution"
  bottom: "inception_4c/3x3_reduce"
  top: "inception_4c/3x3"
  param {
    lr_mult: 1
    decay_mult: 1
  }
  param {
    lr_mult: 2
    decay_mult: 0
  }
  convolution_param {
    num_output: 256
    pad: 1
    kernel_size: 3
    weight_filler {
      type: "xavier"
      std: 0.03
    }
    bias_filler {
      type: "constant"
      value: 0.2
    }
  }
}
layer {
  name: "inception_4c/relu_3x3"
  type: "ReLU"
  bottom: "inception_4c/3x3"
  top: "inception_4c/3x3"
}
layer {
  name: "inception_4c/5x5_reduce"
  type: "Convolution"
  bottom: "inception_4b/output"
  top: "inception_4c/5x5_reduce"
  param {
    lr_mult: 1
    decay_mult: 1
  }
  param {
    lr_mult: 2
    decay_mult: 0
  }
  convolution_param {
    num_output: 24
    kernel_size: 1
    weight_filler {
      type: "xavier"
      std: 0.2
    }
    bias_filler {
      type: "constant"
      value: 0.2
    }
  }
}
layer {
  name: "inception_4c/relu_5x5_reduce"
  type: "ReLU"
  bottom: "inception_4c/5x5_reduce"
  top: "inception_4c/5x5_reduce"
}
layer {
  name: "inception_4c/5x5"
  type: "Convolution"
  bottom: "inception_4c/5x5_reduce"
  top: "inception_4c/5x5"
  param {
    lr_mult: 1
    decay_mult: 1
  }
  param {
    lr_mult: 2
    decay_mult: 0
  }
  convolution_param {
    num_output: 64
    pad: 2
    kernel_size: 5
    weight_filler {
      type: "xavier"
      std: 0.03
    }
    bias_filler {
      type: "constant"
      value: 0.2
    }
  }
}
layer {
  name: "inception_4c/relu_5x5"
  type: "ReLU"
  bottom: "inception_4c/5x5"
  top: "inception_4c/5x5"
}
layer {
  name: "inception_4c/pool"
  type: "Pooling"
  bottom: "inception_4b/output"
  top: "inception_4c/pool"
  pooling_param {
    pool: MAX
    kernel_size: 3
    stride: 1
    pad: 1
  }
}
layer {
  name: "inception_4c/pool_proj"
  type: "Convolution"
  bottom: "inception_4c/pool"
  top: "inception_4c/pool_proj"
  param {
    lr_mult: 1
    decay_mult: 1
  }
  param {
    lr_mult: 2
    decay_mult: 0
  }
  convolution_param {
    num_output: 64
    kernel_size: 1
    weight_filler {
      type: "xavier"
      std: 0.1
    }
    bias_filler {
      type: "constant"
      value: 0.2
    }
  }
}
layer {
  name: "inception_4c/relu_pool_proj"
  type: "ReLU"
  bottom: "inception_4c/pool_proj"
  top: "inception_4c/pool_proj"
}
layer {
  name: "inception_4c/output"
  type: "Concat"
  bottom: "inception_4c/1x1"
  bottom: "inception_4c/3x3"
  bottom: "inception_4c/5x5"
  bottom: "inception_4c/pool_proj"
  top: "inception_4c/output"
}
layer {
  name: "inception_4d/1x1"
  type: "Convolution"
  bottom: "inception_4c/output"
  top: "inception_4d/1x1"
  param {
    lr_mult: 1
    decay_mult: 1
  }
  param {
    lr_mult: 2
    decay_mult: 0
  }
  convolution_param {
    num_output: 112
    kernel_size: 1
    weight_filler {
      type: "xavier"
      std: 0.03
    }
    bias_filler {
      type: "constant"
      value: 0.2
    }
  }
}
layer {
  name: "inception_4d/relu_1x1"
  type: "ReLU"
  bottom: "inception_4d/1x1"
  top: "inception_4d/1x1"
}
layer {
  name: "inception_4d/3x3_reduce"
  type: "Convolution"
  bottom: "inception_4c/output"
  top: "inception_4d/3x3_reduce"
  param {
    lr_mult: 1
    decay_mult: 1
  }
  param {
    lr_mult: 2
    decay_mult: 0
  }
  convolution_param {
    num_output: 144
    kernel_size: 1
    weight_filler {
      type: "xavier"
      std: 0.09
    }
    bias_filler {
      type: "constant"
      value: 0.2
    }
  }
}
layer {
  name: "inception_4d/relu_3x3_reduce"
  type: "ReLU"
  bottom: "inception_4d/3x3_reduce"
  top: "inception_4d/3x3_reduce"
}
layer {
  name: "inception_4d/3x3"
  type: "Convolution"
  bottom: "inception_4d/3x3_reduce"
  top: "inception_4d/3x3"
  param {
    lr_mult: 1
    decay_mult: 1
  }
  param {
    lr_mult: 2
    decay_mult: 0
  }
  convolution_param {
    num_output: 288
    pad: 1
    kernel_size: 3
    weight_filler {
      type: "xavier"
      std: 0.03
    }
    bias_filler {
      type: "constant"
      value: 0.2
    }
  }
}
layer {
  name: "inception_4d/relu_3x3"
  type: "ReLU"
  bottom: "inception_4d/3x3"
  top: "inception_4d/3x3"
}
layer {
  name: "inception_4d/5x5_reduce"
  type: "Convolution"
  bottom: "inception_4c/output"
  top: "inception_4d/5x5_reduce"
  param {
    lr_mult: 1
    decay_mult: 1
  }
  param {
    lr_mult: 2
    decay_mult: 0
  }
  convolution_param {
    num_output: 32
    kernel_size: 1
    weight_filler {
      type: "xavier"
      std: 0.2
    }
    bias_filler {
      type: "constant"
      value: 0.2
    }
  }
}
layer {
  name: "inception_4d/relu_5x5_reduce"
  type: "ReLU"
  bottom: "inception_4d/5x5_reduce"
  top: "inception_4d/5x5_reduce"
}
layer {
  name: "inception_4d/5x5"
  type: "Convolution"
  bottom: "inception_4d/5x5_reduce"
  top: "inception_4d/5x5"
  param {
    lr_mult: 1
    decay_mult: 1
  }
  param {
    lr_mult: 2
    decay_mult: 0
  }
  convolution_param {
    num_output: 64
    pad: 2
    kernel_size: 5
    weight_filler {
      type: "xavier"
      std: 0.03
    }
    bias_filler {
      type: "constant"
      value: 0.2
    }
  }
}
layer {
  name: "inception_4d/relu_5x5"
  type: "ReLU"
  bottom: "inception_4d/5x5"
  top: "inception_4d/5x5"
}
layer {
  name: "inception_4d/pool"
  type: "Pooling"
  bottom: "inception_4c/output"
  top: "inception_4d/pool"
  pooling_param {
    pool: MAX
    kernel_size: 3
    stride: 1
    pad: 1
  }
}
layer {
  name: "inception_4d/pool_proj"
  type: "Convolution"
  bottom: "inception_4d/pool"
  top: "inception_4d/pool_proj"
  param {
    lr_mult: 1
    decay_mult: 1
  }
  param {
    lr_mult: 2
    decay_mult: 0
  }
  convolution_param {
    num_output: 64
    kernel_size: 1
    weight_filler {
      type: "xavier"
      std: 0.1
    }
    bias_filler {
      type: "constant"
      value: 0.2
    }
  }
}
layer {
  name: "inception_4d/relu_pool_proj"
  type: "ReLU"
  bottom: "inception_4d/pool_proj"
  top: "inception_4d/pool_proj"
}
layer {
  name: "inception_4d/output"
  type: "Concat"
  bottom: "inception_4d/1x1"
  bottom: "inception_4d/3x3"
  bottom: "inception_4d/5x5"
  bottom: "inception_4d/pool_proj"
  top: "inception_4d/output"
}
layer {
  name: "loss2/ave_pool"
  type: "Pooling"
  bottom: "inception_4d/output"
  top: "loss2/ave_pool"
  pooling_param {
    pool: AVE
    kernel_size: 5
    stride: 3
  }
}
layer {
  name: "loss2/conv"
  type: "Convolution"
  bottom: "loss2/ave_pool"
  top: "loss2/conv"
  param {
    lr_mult: 1
    decay_mult: 1
  }
  param {
    lr_mult: 2
    decay_mult: 0
  }
  convolution_param {
    num_output: 128
    kernel_size: 1
    weight_filler {
      type: "xavier"
      std: 0.08
    }
    bias_filler {
      type: "constant"
      value: 0.2
    }
  }
}
layer {
  name: "loss2/relu_conv"
  type: "ReLU"
  bottom: "loss2/conv"
  top: "loss2/conv"
}
layer {
  name: "loss2/fc"
  type: "InnerProduct"
  bottom: "loss2/conv"
  top: "loss2/fc"
  param {
    lr_mult: 1
    decay_mult: 1
  }
  param {
    lr_mult: 2
    decay_mult: 0
  }
  inner_product_param {
    num_output: 1024
    weight_filler {
      type: "xavier"
      std: 0.02
    }
    bias_filler {
      type: "constant"
      value: 0.2
    }
  }
}
layer {
  name: "loss2/relu_fc"
  type: "ReLU"
  bottom: "loss2/fc"
  top: "loss2/fc"
}
layer {
  name: "loss2/drop_fc"
  type: "Dropout"
  bottom: "loss2/fc"
  top: "loss2/fc"
  dropout_param {
    dropout_ratio: 0.7
  }
}
layer {
  name: "loss2/classifier_plantvillage"
  type: "InnerProduct"
  bottom: "loss2/fc"
  top: "loss2/classifier_plantvillage"
  param {
    lr_mult: 1
    decay_mult: 1
  }
  param {
    lr_mult: 2
    decay_mult: 0
  }
  inner_product_param {
    num_output: 38
    weight_filler {
      type: "xavier"
      std: 0.0009765625
    }
    bias_filler {
      type: "constant"
      value: 0
    }
  }
}
layer {
  name: "inception_4e/1x1"
  type: "Convolution"
  bottom: "inception_4d/output"
  top: "inception_4e/1x1"
  param {
    lr_mult: 1
    decay_mult: 1
  }
  param {
    lr_mult: 2
    decay_mult: 0
  }
  convolution_param {
    num_output: 256
    kernel_size: 1
    weight_filler {
      type: "xavier"
      std: 0.03
    }
    bias_filler {
      type: "constant"
      value: 0.2
    }
  }
}
layer {
  name: "inception_4e/relu_1x1"
  type: "ReLU"
  bottom: "inception_4e/1x1"
  top: "inception_4e/1x1"
}
layer {
  name: "inception_4e/3x3_reduce"
  type: "Convolution"
  bottom: "inception_4d/output"
  top: "inception_4e/3x3_reduce"
  param {
    lr_mult: 1
    decay_mult: 1
  }
  param {
    lr_mult: 2
    decay_mult: 0
  }
  convolution_param {
    num_output: 160
    kernel_size: 1
    weight_filler {
      type: "xavier"
      std: 0.09
    }
    bias_filler {
      type: "constant"
      value: 0.2
    }
  }
}
layer {
  name: "inception_4e/relu_3x3_reduce"
  type: "ReLU"
  bottom: "inception_4e/3x3_reduce"
  top: "inception_4e/3x3_reduce"
}
layer {
  name: "inception_4e/3x3"
  type: "Convolution"
  bottom: "inception_4e/3x3_reduce"
  top: "inception_4e/3x3"
  param {
    lr_mult: 1
    decay_mult: 1
  }
  param {
    lr_mult: 2
    decay_mult: 0
  }
  convolution_param {
    num_output: 320
    pad: 1
    kernel_size: 3
    weight_filler {
      type: "xavier"
      std: 0.03
    }
    bias_filler {
      type: "constant"
      value: 0.2
    }
  }
}
layer {
  name: "inception_4e/relu_3x3"
  type: "ReLU"
  bottom: "inception_4e/3x3"
  top: "inception_4e/3x3"
}
layer {
  name: "inception_4e/5x5_reduce"
  type: "Convolution"
  bottom: "inception_4d/output"
  top: "inception_4e/5x5_reduce"
  param {
    lr_mult: 1
    decay_mult: 1
  }
  param {
    lr_mult: 2
    decay_mult: 0
  }
  convolution_param {
    num_output: 32
    kernel_size: 1
    weight_filler {
      type: "xavier"
      std: 0.2
    }
    bias_filler {
      type: "constant"
      value: 0.2
    }
  }
}
layer {
  name: "inception_4e/relu_5x5_reduce"
  type: "ReLU"
  bottom: "inception_4e/5x5_reduce"
  top: "inception_4e/5x5_reduce"
}
layer {
  name: "inception_4e/5x5"
  type: "Convolution"
  bottom: "inception_4e/5x5_reduce"
  top: "inception_4e/5x5"
  p
I0403 14:35:27.986068 29998 layer_factory.hpp:77] Creating layer data
I0403 14:35:27.986691 29998 net.cpp:91] Creating Layer data
I0403 14:35:27.986728 29998 net.cpp:399] data -> data
I0403 14:35:27.986783 29998 net.cpp:399] data -> label
I0403 14:35:27.986821 29998 data_transformer.cpp:25] Loading mean file from: /home/mohanty/data/final_dataset/lmdb/color-20-80/mean.binaryproto
I0403 14:35:27.989115 30001 db_lmdb.cpp:38] Opened lmdb /home/mohanty/data/final_dataset/lmdb/color-20-80/test_db
I0403 14:35:28.000421 29998 data_layer.cpp:41] output data size: 24,3,224,224
I0403 14:35:28.027928 29998 net.cpp:141] Setting up data
I0403 14:35:28.028022 29998 net.cpp:148] Top shape: 24 3 224 224 (3612672)
I0403 14:35:28.028046 29998 net.cpp:148] Top shape: 24 (24)
I0403 14:35:28.028061 29998 net.cpp:156] Memory required for data: 14450784
I0403 14:35:28.028092 29998 layer_factory.hpp:77] Creating layer label_data_1_split
I0403 14:35:28.028120 29998 net.cpp:91] Creating Layer label_data_1_split
I0403 14:35:28.028139 29998 net.cpp:425] label_data_1_split <- label
I0403 14:35:28.028173 29998 net.cpp:399] label_data_1_split -> label_data_1_split_0
I0403 14:35:28.028203 29998 net.cpp:399] label_data_1_split -> label_data_1_split_1
I0403 14:35:28.028225 29998 net.cpp:399] label_data_1_split -> label_data_1_split_2
I0403 14:35:28.028246 29998 net.cpp:399] label_data_1_split -> label_data_1_split_3
I0403 14:35:28.028267 29998 net.cpp:399] label_data_1_split -> label_data_1_split_4
I0403 14:35:28.028288 29998 net.cpp:399] label_data_1_split -> label_data_1_split_5
I0403 14:35:28.028308 29998 net.cpp:399] label_data_1_split -> label_data_1_split_6
I0403 14:35:28.028331 29998 net.cpp:399] label_data_1_split -> label_data_1_split_7
I0403 14:35:28.028357 29998 net.cpp:399] label_data_1_split -> label_data_1_split_8
I0403 14:35:28.028380 29998 net.cpp:399] label_data_1_split -> label_data_1_split_9
I0403 14:35:28.028501 29998 net.cpp:141] Setting up label_data_1_split
I0403 14:35:28.028528 29998 net.cpp:148] Top shape: 24 (24)
I0403 14:35:28.028547 29998 net.cpp:148] Top shape: 24 (24)
I0403 14:35:28.028564 29998 net.cpp:148] Top shape: 24 (24)
I0403 14:35:28.028581 29998 net.cpp:148] Top shape: 24 (24)
I0403 14:35:28.028599 29998 net.cpp:148] Top shape: 24 (24)
I0403 14:35:28.028614 29998 net.cpp:148] Top shape: 24 (24)
I0403 14:35:28.028630 29998 net.cpp:148] Top shape: 24 (24)
I0403 14:35:28.028647 29998 net.cpp:148] Top shape: 24 (24)
I0403 14:35:28.028663 29998 net.cpp:148] Top shape: 24 (24)
I0403 14:35:28.028681 29998 net.cpp:148] Top shape: 24 (24)
I0403 14:35:28.028728 29998 net.cpp:156] Memory required for data: 14451744
I0403 14:35:28.028745 29998 layer_factory.hpp:77] Creating layer conv1/7x7_s2
I0403 14:35:28.028779 29998 net.cpp:91] Creating Layer conv1/7x7_s2
I0403 14:35:28.028798 29998 net.cpp:425] conv1/7x7_s2 <- data
I0403 14:35:28.028820 29998 net.cpp:399] conv1/7x7_s2 -> conv1/7x7_s2
I0403 14:35:28.175027 29998 net.cpp:141] Setting up conv1/7x7_s2
I0403 14:35:28.175101 29998 net.cpp:148] Top shape: 24 64 112 112 (19267584)
I0403 14:35:28.175120 29998 net.cpp:156] Memory required for data: 91522080
I0403 14:35:28.175151 29998 layer_factory.hpp:77] Creating layer conv1/relu_7x7
I0403 14:35:28.175181 29998 net.cpp:91] Creating Layer conv1/relu_7x7
I0403 14:35:28.175199 29998 net.cpp:425] conv1/relu_7x7 <- conv1/7x7_s2
I0403 14:35:28.175221 29998 net.cpp:386] conv1/relu_7x7 -> conv1/7x7_s2 (in-place)
I0403 14:35:28.175482 29998 net.cpp:141] Setting up conv1/relu_7x7
I0403 14:35:28.175511 29998 net.cpp:148] Top shape: 24 64 112 112 (19267584)
I0403 14:35:28.175528 29998 net.cpp:156] Memory required for data: 168592416
I0403 14:35:28.175544 29998 layer_factory.hpp:77] Creating layer pool1/3x3_s2
I0403 14:35:28.175570 29998 net.cpp:91] Creating Layer pool1/3x3_s2
I0403 14:35:28.175587 29998 net.cpp:425] pool1/3x3_s2 <- conv1/7x7_s2
I0403 14:35:28.175608 29998 net.cpp:399] pool1/3x3_s2 -> pool1/3x3_s2
I0403 14:35:28.175684 29998 net.cpp:141] Setting up pool1/3x3_s2
I0403 14:35:28.175709 29998 net.cpp:148] Top shape: 24 64 56 56 (4816896)
I0403 14:35:28.175725 29998 net.cpp:156] Memory required for data: 187860000
I0403 14:35:28.175741 29998 layer_factory.hpp:77] Creating layer pool1/norm1
I0403 14:35:28.175766 29998 net.cpp:91] Creating Layer pool1/norm1
I0403 14:35:28.175786 29998 net.cpp:425] pool1/norm1 <- pool1/3x3_s2
I0403 14:35:28.175804 29998 net.cpp:399] pool1/norm1 -> pool1/norm1
I0403 14:35:28.176121 29998 net.cpp:141] Setting up pool1/norm1
I0403 14:35:28.176151 29998 net.cpp:148] Top shape: 24 64 56 56 (4816896)
I0403 14:35:28.176167 29998 net.cpp:156] Memory required for data: 207127584
I0403 14:35:28.176184 29998 layer_factory.hpp:77] Creating layer conv2/3x3_reduce
I0403 14:35:28.176209 29998 net.cpp:91] Creating Layer conv2/3x3_reduce
I0403 14:35:28.176228 29998 net.cpp:425] conv2/3x3_reduce <- pool1/norm1
I0403 14:35:28.176246 29998 net.cpp:399] conv2/3x3_reduce -> conv2/3x3_reduce
I0403 14:35:28.177662 29998 net.cpp:141] Setting up conv2/3x3_reduce
I0403 14:35:28.177693 29998 net.cpp:148] Top shape: 24 64 56 56 (4816896)
I0403 14:35:28.177711 29998 net.cpp:156] Memory required for data: 226395168
I0403 14:35:28.177734 29998 layer_factory.hpp:77] Creating layer conv2/relu_3x3_reduce
I0403 14:35:28.177754 29998 net.cpp:91] Creating Layer conv2/relu_3x3_reduce
I0403 14:35:28.177772 29998 net.cpp:425] conv2/relu_3x3_reduce <- conv2/3x3_reduce
I0403 14:35:28.177788 29998 net.cpp:386] conv2/relu_3x3_reduce -> conv2/3x3_reduce (in-place)
I0403 14:35:28.178043 29998 net.cpp:141] Setting up conv2/relu_3x3_reduce
I0403 14:35:28.178071 29998 net.cpp:148] Top shape: 24 64 56 56 (4816896)
I0403 14:35:28.178088 29998 net.cpp:156] Memory required for data: 245662752
I0403 14:35:28.178104 29998 layer_factory.hpp:77] Creating layer conv2/3x3
I0403 14:35:28.178128 29998 net.cpp:91] Creating Layer conv2/3x3
I0403 14:35:28.178146 29998 net.cpp:425] conv2/3x3 <- conv2/3x3_reduce
I0403 14:35:28.178165 29998 net.cpp:399] conv2/3x3 -> conv2/3x3
I0403 14:35:28.180408 29998 net.cpp:141] Setting up conv2/3x3
I0403 14:35:28.180440 29998 net.cpp:148] Top shape: 24 192 56 56 (14450688)
I0403 14:35:28.180464 29998 net.cpp:156] Memory required for data: 303465504
I0403 14:35:28.180487 29998 layer_factory.hpp:77] Creating layer conv2/relu_3x3
I0403 14:35:28.180506 29998 net.cpp:91] Creating Layer conv2/relu_3x3
I0403 14:35:28.180524 29998 net.cpp:425] conv2/relu_3x3 <- conv2/3x3
I0403 14:35:28.180543 29998 net.cpp:386] conv2/relu_3x3 -> conv2/3x3 (in-place)
I0403 14:35:28.180709 29998 net.cpp:141] Setting up conv2/relu_3x3
I0403 14:35:28.180735 29998 net.cpp:148] Top shape: 24 192 56 56 (14450688)
I0403 14:35:28.180783 29998 net.cpp:156] Memory required for data: 361268256
I0403 14:35:28.180800 29998 layer_factory.hpp:77] Creating layer conv2/norm2
I0403 14:35:28.180819 29998 net.cpp:91] Creating Layer conv2/norm2
I0403 14:35:28.180836 29998 net.cpp:425] conv2/norm2 <- conv2/3x3
I0403 14:35:28.180856 29998 net.cpp:399] conv2/norm2 -> conv2/norm2
I0403 14:35:28.181157 29998 net.cpp:141] Setting up conv2/norm2
I0403 14:35:28.181188 29998 net.cpp:148] Top shape: 24 192 56 56 (14450688)
I0403 14:35:28.181206 29998 net.cpp:156] Memory required for data: 419071008
I0403 14:35:28.181223 29998 layer_factory.hpp:77] Creating layer pool2/3x3_s2
I0403 14:35:28.181241 29998 net.cpp:91] Creating Layer pool2/3x3_s2
I0403 14:35:28.181259 29998 net.cpp:425] pool2/3x3_s2 <- conv2/norm2
I0403 14:35:28.181280 29998 net.cpp:399] pool2/3x3_s2 -> pool2/3x3_s2
I0403 14:35:28.181335 29998 net.cpp:141] Setting up pool2/3x3_s2
I0403 14:35:28.181365 29998 net.cpp:148] Top shape: 24 192 28 28 (3612672)
I0403 14:35:28.181381 29998 net.cpp:156] Memory required for data: 433521696
I0403 14:35:28.181396 29998 layer_factory.hpp:77] Creating layer pool2/3x3_s2_pool2/3x3_s2_0_split
I0403 14:35:28.181417 29998 net.cpp:91] Creating Layer pool2/3x3_s2_pool2/3x3_s2_0_split
I0403 14:35:28.181434 29998 net.cpp:425] pool2/3x3_s2_pool2/3x3_s2_0_split <- pool2/3x3_s2
I0403 14:35:28.181453 29998 net.cpp:399] pool2/3x3_s2_pool2/3x3_s2_0_split -> pool2/3x3_s2_pool2/3x3_s2_0_split_0
I0403 14:35:28.181474 29998 net.cpp:399] pool2/3x3_s2_pool2/3x3_s2_0_split -> pool2/3x3_s2_pool2/3x3_s2_0_split_1
I0403 14:35:28.181507 29998 net.cpp:399] pool2/3x3_s2_pool2/3x3_s2_0_split -> pool2/3x3_s2_pool2/3x3_s2_0_split_2
I0403 14:35:28.181529 29998 net.cpp:399] pool2/3x3_s2_pool2/3x3_s2_0_split -> pool2/3x3_s2_pool2/3x3_s2_0_split_3
I0403 14:35:28.181601 29998 net.cpp:141] Setting up pool2/3x3_s2_pool2/3x3_s2_0_split
I0403 14:35:28.181625 29998 net.cpp:148] Top shape: 24 192 28 28 (3612672)
I0403 14:35:28.181643 29998 net.cpp:148] Top shape: 24 192 28 28 (3612672)
I0403 14:35:28.181659 29998 net.cpp:148] Top shape: 24 192 28 28 (3612672)
I0403 14:35:28.181676 29998 net.cpp:148] Top shape: 24 192 28 28 (3612672)
I0403 14:35:28.181691 29998 net.cpp:156] Memory required for data: 491324448
I0403 14:35:28.181707 29998 layer_factory.hpp:77] Creating layer inception_3a/1x1
I0403 14:35:28.181731 29998 net.cpp:91] Creating Layer inception_3a/1x1
I0403 14:35:28.181751 29998 net.cpp:425] inception_3a/1x1 <- pool2/3x3_s2_pool2/3x3_s2_0_split_0
I0403 14:35:28.181777 29998 net.cpp:399] inception_3a/1x1 -> inception_3a/1x1
I0403 14:35:28.183328 29998 net.cpp:141] Setting up inception_3a/1x1
I0403 14:35:28.183373 29998 net.cpp:148] Top shape: 24 64 28 28 (1204224)
I0403 14:35:28.183393 29998 net.cpp:156] Memory required for data: 496141344
I0403 14:35:28.183413 29998 layer_factory.hpp:77] Creating layer inception_3a/relu_1x1
I0403 14:35:28.183432 29998 net.cpp:91] Creating Layer inception_3a/relu_1x1
I0403 14:35:28.183449 29998 net.cpp:425] inception_3a/relu_1x1 <- inception_3a/1x1
I0403 14:35:28.183470 29998 net.cpp:386] inception_3a/relu_1x1 -> inception_3a/1x1 (in-place)
I0403 14:35:28.183646 29998 net.cpp:141] Setting up inception_3a/relu_1x1
I0403 14:35:28.183672 29998 net.cpp:148] Top shape: 24 64 28 28 (1204224)
I0403 14:35:28.183688 29998 net.cpp:156] Memory required for data: 500958240
I0403 14:35:28.183704 29998 layer_factory.hpp:77] Creating layer inception_3a/3x3_reduce
I0403 14:35:28.183727 29998 net.cpp:91] Creating Layer inception_3a/3x3_reduce
I0403 14:35:28.183745 29998 net.cpp:425] inception_3a/3x3_reduce <- pool2/3x3_s2_pool2/3x3_s2_0_split_1
I0403 14:35:28.183768 29998 net.cpp:399] inception_3a/3x3_reduce -> inception_3a/3x3_reduce
I0403 14:35:28.185502 29998 net.cpp:141] Setting up inception_3a/3x3_reduce
I0403 14:35:28.185534 29998 net.cpp:148] Top shape: 24 96 28 28 (1806336)
I0403 14:35:28.185552 29998 net.cpp:156] Memory required for data: 508183584
I0403 14:35:28.185576 29998 layer_factory.hpp:77] Creating layer inception_3a/relu_3x3_reduce
I0403 14:35:28.185614 29998 net.cpp:91] Creating Layer inception_3a/relu_3x3_reduce
I0403 14:35:28.185634 29998 net.cpp:425] inception_3a/relu_3x3_reduce <- inception_3a/3x3_reduce
I0403 14:35:28.185653 29998 net.cpp:386] inception_3a/relu_3x3_reduce -> inception_3a/3x3_reduce (in-place)
I0403 14:35:28.185835 29998 net.cpp:141] Setting up inception_3a/relu_3x3_reduce
I0403 14:35:28.185864 29998 net.cpp:148] Top shape: 24 96 28 28 (1806336)
I0403 14:35:28.185880 29998 net.cpp:156] Memory required for data: 515408928
I0403 14:35:28.185897 29998 layer_factory.hpp:77] Creating layer inception_3a/3x3
I0403 14:35:28.185920 29998 net.cpp:91] Creating Layer inception_3a/3x3
I0403 14:35:28.185938 29998 net.cpp:425] inception_3a/3x3 <- inception_3a/3x3_reduce
I0403 14:35:28.185957 29998 net.cpp:399] inception_3a/3x3 -> inception_3a/3x3
I0403 14:35:28.187628 29998 net.cpp:141] Setting up inception_3a/3x3
I0403 14:35:28.187659 29998 net.cpp:148] Top shape: 24 128 28 28 (2408448)
I0403 14:35:28.187676 29998 net.cpp:156] Memory required for data: 525042720
I0403 14:35:28.187695 29998 layer_factory.hpp:77] Creating layer inception_3a/relu_3x3
I0403 14:35:28.187716 29998 net.cpp:91] Creating Layer inception_3a/relu_3x3
I0403 14:35:28.187733 29998 net.cpp:425] inception_3a/relu_3x3 <- inception_3a/3x3
I0403 14:35:28.187753 29998 net.cpp:386] inception_3a/relu_3x3 -> inception_3a/3x3 (in-place)
I0403 14:35:28.188030 29998 net.cpp:141] Setting up inception_3a/relu_3x3
I0403 14:35:28.188058 29998 net.cpp:148] Top shape: 24 128 28 28 (2408448)
I0403 14:35:28.188074 29998 net.cpp:156] Memory required for data: 534676512
I0403 14:35:28.188089 29998 layer_factory.hpp:77] Creating layer inception_3a/5x5_reduce
I0403 14:35:28.188113 29998 net.cpp:91] Creating Layer inception_3a/5x5_reduce
I0403 14:35:28.188133 29998 net.cpp:425] inception_3a/5x5_reduce <- pool2/3x3_s2_pool2/3x3_s2_0_split_2
I0403 14:35:28.188155 29998 net.cpp:399] inception_3a/5x5_reduce -> inception_3a/5x5_reduce
I0403 14:35:28.189127 29998 net.cpp:141] Setting up inception_3a/5x5_reduce
I0403 14:35:28.189157 29998 net.cpp:148] Top shape: 24 16 28 28 (301056)
I0403 14:35:28.189178 29998 net.cpp:156] Memory required for data: 535880736
I0403 14:35:28.189198 29998 layer_factory.hpp:77] Creating layer inception_3a/relu_5x5_reduce
I0403 14:35:28.189219 29998 net.cpp:91] Creating Layer inception_3a/relu_5x5_reduce
I0403 14:35:28.189239 29998 net.cpp:425] inception_3a/relu_5x5_reduce <- inception_3a/5x5_reduce
I0403 14:35:28.189257 29998 net.cpp:386] inception_3a/relu_5x5_reduce -> inception_3a/5x5_reduce (in-place)
I0403 14:35:28.189556 29998 net.cpp:141] Setting up inception_3a/relu_5x5_reduce
I0403 14:35:28.189584 29998 net.cpp:148] Top shape: 24 16 28 28 (301056)
I0403 14:35:28.189599 29998 net.cpp:156] Memory required for data: 537084960
I0403 14:35:28.189615 29998 layer_factory.hpp:77] Creating layer inception_3a/5x5
I0403 14:35:28.189640 29998 net.cpp:91] Creating Layer inception_3a/5x5
I0403 14:35:28.189658 29998 net.cpp:425] inception_3a/5x5 <- inception_3a/5x5_reduce
I0403 14:35:28.189680 29998 net.cpp:399] inception_3a/5x5 -> inception_3a/5x5
I0403 14:35:28.190701 29998 net.cpp:141] Setting up inception_3a/5x5
I0403 14:35:28.190731 29998 net.cpp:148] Top shape: 24 32 28 28 (602112)
I0403 14:35:28.190747 29998 net.cpp:156] Memory required for data: 539493408
I0403 14:35:28.190768 29998 layer_factory.hpp:77] Creating layer inception_3a/relu_5x5
I0403 14:35:28.190788 29998 net.cpp:91] Creating Layer inception_3a/relu_5x5
I0403 14:35:28.190804 29998 net.cpp:425] inception_3a/relu_5x5 <- inception_3a/5x5
I0403 14:35:28.190825 29998 net.cpp:386] inception_3a/relu_5x5 -> inception_3a/5x5 (in-place)
I0403 14:35:28.191000 29998 net.cpp:141] Setting up inception_3a/relu_5x5
I0403 14:35:28.191027 29998 net.cpp:148] Top shape: 24 32 28 28 (602112)
I0403 14:35:28.191042 29998 net.cpp:156] Memory required for data: 541901856
I0403 14:35:28.191058 29998 layer_factory.hpp:77] Creating layer inception_3a/pool
I0403 14:35:28.191079 29998 net.cpp:91] Creating Layer inception_3a/pool
I0403 14:35:28.191098 29998 net.cpp:425] inception_3a/pool <- pool2/3x3_s2_pool2/3x3_s2_0_split_3
I0403 14:35:28.191133 29998 net.cpp:399] inception_3a/pool -> inception_3a/pool
I0403 14:35:28.191195 29998 net.cpp:141] Setting up inception_3a/pool
I0403 14:35:28.191218 29998 net.cpp:148] Top shape: 24 192 28 28 (3612672)
I0403 14:35:28.191234 29998 net.cpp:156] Memory required for data: 556352544
I0403 14:35:28.191248 29998 layer_factory.hpp:77] Creating layer inception_3a/pool_proj
I0403 14:35:28.191272 29998 net.cpp:91] Creating Layer inception_3a/pool_proj
I0403 14:35:28.191293 29998 net.cpp:425] inception_3a/pool_proj <- inception_3a/pool
I0403 14:35:28.191315 29998 net.cpp:399] inception_3a/pool_proj -> inception_3a/pool_proj
I0403 14:35:28.192282 29998 net.cpp:141] Setting up inception_3a/pool_proj
I0403 14:35:28.192314 29998 net.cpp:148] Top shape: 24 32 28 28 (602112)
I0403 14:35:28.192332 29998 net.cpp:156] Memory required for data: 558760992
I0403 14:35:28.192360 29998 layer_factory.hpp:77] Creating layer inception_3a/relu_pool_proj
I0403 14:35:28.192384 29998 net.cpp:91] Creating Layer inception_3a/relu_pool_proj
I0403 14:35:28.192402 29998 net.cpp:425] inception_3a/relu_pool_proj <- inception_3a/pool_proj
I0403 14:35:28.192421 29998 net.cpp:386] inception_3a/relu_pool_proj -> inception_3a/pool_proj (in-place)
I0403 14:35:28.192698 29998 net.cpp:141] Setting up inception_3a/relu_pool_proj
I0403 14:35:28.192725 29998 net.cpp:148] Top shape: 24 32 28 28 (602112)
I0403 14:35:28.192742 29998 net.cpp:156] Memory required for data: 561169440
I0403 14:35:28.192759 29998 layer_factory.hpp:77] Creating layer inception_3a/output
I0403 14:35:28.192777 29998 net.cpp:91] Creating Layer inception_3a/output
I0403 14:35:28.192793 29998 net.cpp:425] inception_3a/output <- inception_3a/1x1
I0403 14:35:28.192811 29998 net.cpp:425] inception_3a/output <- inception_3a/3x3
I0403 14:35:28.192827 29998 net.cpp:425] inception_3a/output <- inception_3a/5x5
I0403 14:35:28.192844 29998 net.cpp:425] inception_3a/output <- inception_3a/pool_proj
I0403 14:35:28.192864 29998 net.cpp:399] inception_3a/output -> inception_3a/output
I0403 14:35:28.192912 29998 net.cpp:141] Setting up inception_3a/output
I0403 14:35:28.192941 29998 net.cpp:148] Top shape: 24 256 28 28 (4816896)
I0403 14:35:28.192958 29998 net.cpp:156] Memory required for data: 580437024
I0403 14:35:28.192975 29998 layer_factory.hpp:77] Creating layer inception_3a/output_inception_3a/output_0_split
I0403 14:35:28.192992 29998 net.cpp:91] Creating Layer inception_3a/output_inception_3a/output_0_split
I0403 14:35:28.193008 29998 net.cpp:425] inception_3a/output_inception_3a/output_0_split <- inception_3a/output
I0403 14:35:28.193025 29998 net.cpp:399] inception_3a/output_inception_3a/output_0_split -> inception_3a/output_inception_3a/output_0_split_0
I0403 14:35:28.193045 29998 net.cpp:399] inception_3a/output_inception_3a/output_0_split -> inception_3a/output_inception_3a/output_0_split_1
I0403 14:35:28.193070 29998 net.cpp:399] inception_3a/output_inception_3a/output_0_split -> inception_3a/output_inception_3a/output_0_split_2
I0403 14:35:28.193094 29998 net.cpp:399] inception_3a/output_inception_3a/output_0_split -> inception_3a/output_inception_3a/output_0_split_3
I0403 14:35:28.193171 29998 net.cpp:141] Setting up inception_3a/output_inception_3a/output_0_split
I0403 14:35:28.193197 29998 net.cpp:148] Top shape: 24 256 28 28 (4816896)
I0403 14:35:28.193215 29998 net.cpp:148] Top shape: 24 256 28 28 (4816896)
I0403 14:35:28.193243 29998 net.cpp:148] Top shape: 24 256 28 28 (4816896)
I0403 14:35:28.193262 29998 net.cpp:148] Top shape: 24 256 28 28 (4816896)
I0403 14:35:28.193277 29998 net.cpp:156] Memory required for data: 657507360
I0403 14:35:28.193295 29998 layer_factory.hpp:77] Creating layer inception_3b/1x1
I0403 14:35:28.193321 29998 net.cpp:91] Creating Layer inception_3b/1x1
I0403 14:35:28.193341 29998 net.cpp:425] inception_3b/1x1 <- inception_3a/output_inception_3a/output_0_split_0
I0403 14:35:28.193375 29998 net.cpp:399] inception_3b/1x1 -> inception_3b/1x1
I0403 14:35:28.194555 29998 net.cpp:141] Setting up inception_3b/1x1
I0403 14:35:28.194600 29998 net.cpp:148] Top shape: 24 128 28 28 (2408448)
I0403 14:35:28.194619 29998 net.cpp:156] Memory required for data: 667141152
I0403 14:35:28.194639 29998 layer_factory.hpp:77] Creating layer inception_3b/relu_1x1
I0403 14:35:28.194658 29998 net.cpp:91] Creating Layer inception_3b/relu_1x1
I0403 14:35:28.194675 29998 net.cpp:425] inception_3b/relu_1x1 <- inception_3b/1x1
I0403 14:35:28.194699 29998 net.cpp:386] inception_3b/relu_1x1 -> inception_3b/1x1 (in-place)
I0403 14:35:28.194874 29998 net.cpp:141] Setting up inception_3b/relu_1x1
I0403 14:35:28.194900 29998 net.cpp:148] Top shape: 24 128 28 28 (2408448)
I0403 14:35:28.194916 29998 net.cpp:156] Memory required for data: 676774944
I0403 14:35:28.194931 29998 layer_factory.hpp:77] Creating layer inception_3b/3x3_reduce
I0403 14:35:28.194962 29998 net.cpp:91] Creating Layer inception_3b/3x3_reduce
I0403 14:35:28.194983 29998 net.cpp:425] inception_3b/3x3_reduce <- inception_3a/output_inception_3a/output_0_split_1
I0403 14:35:28.195008 29998 net.cpp:399] inception_3b/3x3_reduce -> inception_3b/3x3_reduce
I0403 14:35:28.196149 29998 net.cpp:141] Setting up inception_3b/3x3_reduce
I0403 14:35:28.196182 29998 net.cpp:148] Top shape: 24 128 28 28 (2408448)
I0403 14:35:28.196200 29998 net.cpp:156] Memory required for data: 686408736
I0403 14:35:28.196220 29998 layer_factory.hpp:77] Creating layer inception_3b/relu_3x3_reduce
I0403 14:35:28.196239 29998 net.cpp:91] Creating Layer inception_3b/relu_3x3_reduce
I0403 14:35:28.196256 29998 net.cpp:425] inception_3b/relu_3x3_reduce <- inception_3b/3x3_reduce
I0403 14:35:28.196275 29998 net.cpp:386] inception_3b/relu_3x3_reduce -> inception_3b/3x3_reduce (in-place)
I0403 14:35:28.196468 29998 net.cpp:141] Setting up inception_3b/relu_3x3_reduce
I0403 14:35:28.196494 29998 net.cpp:148] Top shape: 24 128 28 28 (2408448)
I0403 14:35:28.196511 29998 net.cpp:156] Memory required for data: 696042528
I0403 14:35:28.196526 29998 layer_factory.hpp:77] Creating layer inception_3b/3x3
I0403 14:35:28.196550 29998 net.cpp:91] Creating Layer inception_3b/3x3
I0403 14:35:28.196570 29998 net.cpp:425] inception_3b/3x3 <- inception_3b/3x3_reduce
I0403 14:35:28.196593 29998 net.cpp:399] inception_3b/3x3 -> inception_3b/3x3
I0403 14:35:28.199544 29998 net.cpp:141] Setting up inception_3b/3x3
I0403 14:35:28.199581 29998 net.cpp:148] Top shape: 24 192 28 28 (3612672)
I0403 14:35:28.199597 29998 net.cpp:156] Memory required for data: 710493216
I0403 14:35:28.199617 29998 layer_factory.hpp:77] Creating layer inception_3b/relu_3x3
I0403 14:35:28.199636 29998 net.cpp:91] Creating Layer inception_3b/relu_3x3
I0403 14:35:28.199656 29998 net.cpp:425] inception_3b/relu_3x3 <- inception_3b/3x3
I0403 14:35:28.199676 29998 net.cpp:386] inception_3b/relu_3x3 -> inception_3b/3x3 (in-place)
I0403 14:35:28.199957 29998 net.cpp:141] Setting up inception_3b/relu_3x3
I0403 14:35:28.199986 29998 net.cpp:148] Top shape: 24 192 28 28 (3612672)
I0403 14:35:28.200002 29998 net.cpp:156] Memory required for data: 724943904
I0403 14:35:28.200018 29998 layer_factory.hpp:77] Creating layer inception_3b/5x5_reduce
I0403 14:35:28.200042 29998 net.cpp:91] Creating Layer inception_3b/5x5_reduce
I0403 14:35:28.200059 29998 net.cpp:425] inception_3b/5x5_reduce <- inception_3a/output_inception_3a/output_0_split_2
I0403 14:35:28.200086 29998 net.cpp:399] inception_3b/5x5_reduce -> inception_3b/5x5_reduce
I0403 14:35:28.201092 29998 net.cpp:141] Setting up inception_3b/5x5_reduce
I0403 14:35:28.201122 29998 net.cpp:148] Top shape: 24 32 28 28 (602112)
I0403 14:35:28.201138 29998 net.cpp:156] Memory required for data: 727352352
I0403 14:35:28.201156 29998 layer_factory.hpp:77] Creating layer inception_3b/relu_5x5_reduce
I0403 14:35:28.201175 29998 net.cpp:91] Creating Layer inception_3b/relu_5x5_reduce
I0403 14:35:28.201192 29998 net.cpp:425] inception_3b/relu_5x5_reduce <- inception_3b/5x5_reduce
I0403 14:35:28.201215 29998 net.cpp:386] inception_3b/relu_5x5_reduce -> inception_3b/5x5_reduce (in-place)
I0403 14:35:28.201417 29998 net.cpp:141] Setting up inception_3b/relu_5x5_reduce
I0403 14:35:28.201464 29998 net.cpp:148] Top shape: 24 32 28 28 (602112)
I0403 14:35:28.201481 29998 net.cpp:156] Memory required for data: 729760800
I0403 14:35:28.201498 29998 layer_factory.hpp:77] Creating layer inception_3b/5x5
I0403 14:35:28.201522 29998 net.cpp:91] Creating Layer inception_3b/5x5
I0403 14:35:28.201542 29998 net.cpp:425] inception_3b/5x5 <- inception_3b/5x5_reduce
I0403 14:35:28.201565 29998 net.cpp:399] inception_3b/5x5 -> inception_3b/5x5
I0403 14:35:28.203641 29998 net.cpp:141] Setting up inception_3b/5x5
I0403 14:35:28.203675 29998 net.cpp:148] Top shape: 24 96 28 28 (1806336)
I0403 14:35:28.203697 29998 net.cpp:156] Memory required for data: 736986144
I0403 14:35:28.203718 29998 layer_factory.hpp:77] Creating layer inception_3b/relu_5x5
I0403 14:35:28.203737 29998 net.cpp:91] Creating Layer inception_3b/relu_5x5
I0403 14:35:28.203754 29998 net.cpp:425] inception_3b/relu_5x5 <- inception_3b/5x5
I0403 14:35:28.203773 29998 net.cpp:386] inception_3b/relu_5x5 -> inception_3b/5x5 (in-place)
I0403 14:35:28.203977 29998 net.cpp:141] Setting up inception_3b/relu_5x5
I0403 14:35:28.204005 29998 net.cpp:148] Top shape: 24 96 28 28 (1806336)
I0403 14:35:28.204021 29998 net.cpp:156] Memory required for data: 744211488
I0403 14:35:28.204037 29998 layer_factory.hpp:77] Creating layer inception_3b/pool
I0403 14:35:28.204057 29998 net.cpp:91] Creating Layer inception_3b/pool
I0403 14:35:28.204074 29998 net.cpp:425] inception_3b/pool <- inception_3a/output_inception_3a/output_0_split_3
I0403 14:35:28.204094 29998 net.cpp:399] inception_3b/pool -> inception_3b/pool
I0403 14:35:28.204152 29998 net.cpp:141] Setting up inception_3b/pool
I0403 14:35:28.204180 29998 net.cpp:148] Top shape: 24 256 28 28 (4816896)
I0403 14:35:28.204197 29998 net.cpp:156] Memory required for data: 763479072
I0403 14:35:28.204215 29998 layer_factory.hpp:77] Creating layer inception_3b/pool_proj
I0403 14:35:28.204238 29998 net.cpp:91] Creating Layer inception_3b/pool_proj
I0403 14:35:28.204258 29998 net.cpp:425] inception_3b/pool_proj <- inception_3b/pool
I0403 14:35:28.204277 29998 net.cpp:399] inception_3b/pool_proj -> inception_3b/pool_proj
I0403 14:35:28.205381 29998 net.cpp:141] Setting up inception_3b/pool_proj
I0403 14:35:28.205411 29998 net.cpp:148] Top shape: 24 64 28 28 (1204224)
I0403 14:35:28.205428 29998 net.cpp:156] Memory required for data: 768295968
I0403 14:35:28.205451 29998 layer_factory.hpp:77] Creating layer inception_3b/relu_pool_proj
I0403 14:35:28.205472 29998 net.cpp:91] Creating Layer inception_3b/relu_pool_proj
I0403 14:35:28.205490 29998 net.cpp:425] inception_3b/relu_pool_proj <- inception_3b/pool_proj
I0403 14:35:28.205509 29998 net.cpp:386] inception_3b/relu_pool_proj -> inception_3b/pool_proj (in-place)
I0403 14:35:28.205915 29998 net.cpp:141] Setting up inception_3b/relu_pool_proj
I0403 14:35:28.205945 29998 net.cpp:148] Top shape: 24 64 28 28 (1204224)
I0403 14:35:28.205961 29998 net.cpp:156] Memory required for data: 773112864
I0403 14:35:28.205978 29998 layer_factory.hpp:77] Creating layer inception_3b/output
I0403 14:35:28.205997 29998 net.cpp:91] Creating Layer inception_3b/output
I0403 14:35:28.206015 29998 net.cpp:425] inception_3b/output <- inception_3b/1x1
I0403 14:35:28.206033 29998 net.cpp:425] inception_3b/output <- inception_3b/3x3
I0403 14:35:28.206050 29998 net.cpp:425] inception_3b/output <- inception_3b/5x5
I0403 14:35:28.206068 29998 net.cpp:425] inception_3b/output <- inception_3b/pool_proj
I0403 14:35:28.206092 29998 net.cpp:399] inception_3b/output -> inception_3b/output
I0403 14:35:28.206142 29998 net.cpp:141] Setting up inception_3b/output
I0403 14:35:28.206168 29998 net.cpp:148] Top shape: 24 480 28 28 (9031680)
I0403 14:35:28.206192 29998 net.cpp:156] Memory required for data: 809239584
I0403 14:35:28.206208 29998 layer_factory.hpp:77] Creating layer pool3/3x3_s2
I0403 14:35:28.206228 29998 net.cpp:91] Creating Layer pool3/3x3_s2
I0403 14:35:28.206244 29998 net.cpp:425] pool3/3x3_s2 <- inception_3b/output
I0403 14:35:28.206266 29998 net.cpp:399] pool3/3x3_s2 -> pool3/3x3_s2
I0403 14:35:28.206342 29998 net.cpp:141] Setting up pool3/3x3_s2
I0403 14:35:28.206373 29998 net.cpp:148] Top shape: 24 480 14 14 (2257920)
I0403 14:35:28.206390 29998 net.cpp:156] Memory required for data: 818271264
I0403 14:35:28.206406 29998 layer_factory.hpp:77] Creating layer pool3/3x3_s2_pool3/3x3_s2_0_split
I0403 14:35:28.206428 29998 net.cpp:91] Creating Layer pool3/3x3_s2_pool3/3x3_s2_0_split
I0403 14:35:28.206446 29998 net.cpp:425] pool3/3x3_s2_pool3/3x3_s2_0_split <- pool3/3x3_s2
I0403 14:35:28.206466 29998 net.cpp:399] pool3/3x3_s2_pool3/3x3_s2_0_split -> pool3/3x3_s2_pool3/3x3_s2_0_split_0
I0403 14:35:28.206496 29998 net.cpp:399] pool3/3x3_s2_pool3/3x3_s2_0_split -> pool3/3x3_s2_pool3/3x3_s2_0_split_1
I0403 14:35:28.206518 29998 net.cpp:399] pool3/3x3_s2_pool3/3x3_s2_0_split -> pool3/3x3_s2_pool3/3x3_s2_0_split_2
I0403 14:35:28.206540 29998 net.cpp:399] pool3/3x3_s2_pool3/3x3_s2_0_split -> pool3/3x3_s2_pool3/3x3_s2_0_split_3
I0403 14:35:28.206621 29998 net.cpp:141] Setting up pool3/3x3_s2_pool3/3x3_s2_0_split
I0403 14:35:28.206647 29998 net.cpp:148] Top shape: 24 480 14 14 (2257920)
I0403 14:35:28.206665 29998 net.cpp:148] Top shape: 24 480 14 14 (2257920)
I0403 14:35:28.206683 29998 net.cpp:148] Top shape: 24 480 14 14 (2257920)
I0403 14:35:28.206701 29998 net.cpp:148] Top shape: 24 480 14 14 (2257920)
I0403 14:35:28.206715 29998 net.cpp:156] Memory required for data: 854397984
I0403 14:35:28.206732 29998 layer_factory.hpp:77] Creating layer inception_4a/1x1
I0403 14:35:28.206756 29998 net.cpp:91] Creating Layer inception_4a/1x1
I0403 14:35:28.206775 29998 net.cpp:425] inception_4a/1x1 <- pool3/3x3_s2_pool3/3x3_s2_0_split_0
I0403 14:35:28.206799 29998 net.cpp:399] inception_4a/1x1 -> inception_4a/1x1
I0403 14:35:28.208453 29998 net.cpp:141] Setting up inception_4a/1x1
I0403 14:35:28.208483 29998 net.cpp:148] Top shape: 24 192 14 14 (903168)
I0403 14:35:28.208501 29998 net.cpp:156] Memory required for data: 858010656
I0403 14:35:28.208521 29998 layer_factory.hpp:77] Creating layer inception_4a/relu_1x1
I0403 14:35:28.208544 29998 net.cpp:91] Creating Layer inception_4a/relu_1x1
I0403 14:35:28.208561 29998 net.cpp:425] inception_4a/relu_1x1 <- inception_4a/1x1
I0403 14:35:28.208580 29998 net.cpp:386] inception_4a/relu_1x1 -> inception_4a/1x1 (in-place)
I0403 14:35:28.208767 29998 net.cpp:141] Setting up inception_4a/relu_1x1
I0403 14:35:28.208797 29998 net.cpp:148] Top shape: 24 192 14 14 (903168)
I0403 14:35:28.208814 29998 net.cpp:156] Memory required for data: 861623328
I0403 14:35:28.208830 29998 layer_factory.hpp:77] Creating layer inception_4a/3x3_reduce
I0403 14:35:28.208855 29998 net.cpp:91] Creating Layer inception_4a/3x3_reduce
I0403 14:35:28.208874 29998 net.cpp:425] inception_4a/3x3_reduce <- pool3/3x3_s2_pool3/3x3_s2_0_split_1
I0403 14:35:28.208895 29998 net.cpp:399] inception_4a/3x3_reduce -> inception_4a/3x3_reduce
I0403 14:35:28.210242 29998 net.cpp:141] Setting up inception_4a/3x3_reduce
I0403 14:35:28.210273 29998 net.cpp:148] Top shape: 24 96 14 14 (451584)
I0403 14:35:28.210289 29998 net.cpp:156] Memory required for data: 863429664
I0403 14:35:28.210319 29998 layer_factory.hpp:77] Creating layer inception_4a/relu_3x3_reduce
I0403 14:35:28.210342 29998 net.cpp:91] Creating Layer inception_4a/relu_3x3_reduce
I0403 14:35:28.210367 29998 net.cpp:425] inception_4a/relu_3x3_reduce <- inception_4a/3x3_reduce
I0403 14:35:28.210387 29998 net.cpp:386] inception_4a/relu_3x3_reduce -> inception_4a/3x3_reduce (in-place)
I0403 14:35:28.210583 29998 net.cpp:141] Setting up inception_4a/relu_3x3_reduce
I0403 14:35:28.210613 29998 net.cpp:148] Top shape: 24 96 14 14 (451584)
I0403 14:35:28.210629 29998 net.cpp:156] Memory required for data: 865236000
I0403 14:35:28.210646 29998 layer_factory.hpp:77] Creating layer inception_4a/3x3
I0403 14:35:28.210670 29998 net.cpp:91] Creating Layer inception_4a/3x3
I0403 14:35:28.210688 29998 net.cpp:425] inception_4a/3x3 <- inception_4a/3x3_reduce
I0403 14:35:28.210710 29998 net.cpp:399] inception_4a/3x3 -> inception_4a/3x3
I0403 14:35:28.213536 29998 net.cpp:141] Setting up inception_4a/3x3
I0403 14:35:28.213569 29998 net.cpp:148] Top shape: 24 208 14 14 (978432)
I0403 14:35:28.213589 29998 net.cpp:156] Memory required for data: 869149728
I0403 14:35:28.213610 29998 layer_factory.hpp:77] Creating layer inception_4a/relu_3x3
I0403 14:35:28.213630 29998 net.cpp:91] Creating Layer inception_4a/relu_3x3
I0403 14:35:28.213647 29998 net.cpp:425] inception_4a/relu_3x3 <- inception_4a/3x3
I0403 14:35:28.213666 29998 net.cpp:386] inception_4a/relu_3x3 -> inception_4a/3x3 (in-place)
I0403 14:35:28.213960 29998 net.cpp:141] Setting up inception_4a/relu_3x3
I0403 14:35:28.213992 29998 net.cpp:148] Top shape: 24 208 14 14 (978432)
I0403 14:35:28.214010 29998 net.cpp:156] Memory required for data: 873063456
I0403 14:35:28.214025 29998 layer_factory.hpp:77] Creating layer inception_4a/5x5_reduce
I0403 14:35:28.214049 29998 net.cpp:91] Creating Layer inception_4a/5x5_reduce
I0403 14:35:28.214069 29998 net.cpp:425] inception_4a/5x5_reduce <- pool3/3x3_s2_pool3/3x3_s2_0_split_2
I0403 14:35:28.214092 29998 net.cpp:399] inception_4a/5x5_reduce -> inception_4a/5x5_reduce
I0403 14:35:28.215168 29998 net.cpp:141] Setting up inception_4a/5x5_reduce
I0403 14:35:28.215198 29998 net.cpp:148] Top shape: 24 16 14 14 (75264)
I0403 14:35:28.215215 29998 net.cpp:156] Memory required for data: 873364512
I0403 14:35:28.215236 29998 layer_factory.hpp:77] Creating layer inception_4a/relu_5x5_reduce
I0403 14:35:28.215255 29998 net.cpp:91] Creating Layer inception_4a/relu_5x5_reduce
I0403 14:35:28.215272 29998 net.cpp:425] inception_4a/relu_5x5_reduce <- inception_4a/5x5_reduce
I0403 14:35:28.215294 29998 net.cpp:386] inception_4a/relu_5x5_reduce -> inception_4a/5x5_reduce (in-place)
I0403 14:35:28.215487 29998 net.cpp:141] Setting up inception_4a/relu_5x5_reduce
I0403 14:35:28.215515 29998 net.cpp:148] Top shape: 24 16 14 14 (75264)
I0403 14:35:28.215533 29998 net.cpp:156] Memory required for data: 873665568
I0403 14:35:28.215549 29998 layer_factory.hpp:77] Creating layer inception_4a/5x5
I0403 14:35:28.215572 29998 net.cpp:91] Creating Layer inception_4a/5x5
I0403 14:35:28.215590 29998 net.cpp:425] inception_4a/5x5 <- inception_4a/5x5_reduce
I0403 14:35:28.215613 29998 net.cpp:399] inception_4a/5x5 -> inception_4a/5x5
I0403 14:35:28.216760 29998 net.cpp:141] Setting up inception_4a/5x5
I0403 14:35:28.216790 29998 net.cpp:148] Top shape: 24 48 14 14 (225792)
I0403 14:35:28.216807 29998 net.cpp:156] Memory required for data: 874568736
I0403 14:35:28.216827 29998 layer_factory.hpp:77] Creating layer inception_4a/relu_5x5
I0403 14:35:28.216850 29998 net.cpp:91] Creating Layer inception_4a/relu_5x5
I0403 14:35:28.216867 29998 net.cpp:425] inception_4a/relu_5x5 <- inception_4a/5x5
I0403 14:35:28.216887 29998 net.cpp:386] inception_4a/relu_5x5 -> inception_4a/5x5 (in-place)
I0403 14:35:28.217075 29998 net.cpp:141] Setting up inception_4a/relu_5x5
I0403 14:35:28.217104 29998 net.cpp:148] Top shape: 24 48 14 14 (225792)
I0403 14:35:28.217121 29998 net.cpp:156] Memory required for data: 875471904
I0403 14:35:28.217138 29998 layer_factory.hpp:77] Creating layer inception_4a/pool
I0403 14:35:28.217157 29998 net.cpp:91] Creating Layer inception_4a/pool
I0403 14:35:28.217175 29998 net.cpp:425] inception_4a/pool <- pool3/3x3_s2_pool3/3x3_s2_0_split_3
I0403 14:35:28.217193 29998 net.cpp:399] inception_4a/pool -> inception_4a/pool
I0403 14:35:28.217260 29998 net.cpp:141] Setting up inception_4a/pool
I0403 14:35:28.217285 29998 net.cpp:148] Top shape: 24 480 14 14 (2257920)
I0403 14:35:28.217303 29998 net.cpp:156] Memory required for data: 884503584
I0403 14:35:28.217319 29998 layer_factory.hpp:77] Creating layer inception_4a/pool_proj
I0403 14:35:28.217341 29998 net.cpp:91] Creating Layer inception_4a/pool_proj
I0403 14:35:28.217365 29998 net.cpp:425] inception_4a/pool_proj <- inception_4a/pool
I0403 14:35:28.217389 29998 net.cpp:399] inception_4a/pool_proj -> inception_4a/pool_proj
I0403 14:35:28.218621 29998 net.cpp:141] Setting up inception_4a/pool_proj
I0403 14:35:28.218652 29998 net.cpp:148] Top shape: 24 64 14 14 (301056)
I0403 14:35:28.218693 29998 net.cpp:156] Memory required for data: 885707808
I0403 14:35:28.218714 29998 layer_factory.hpp:77] Creating layer inception_4a/relu_pool_proj
I0403 14:35:28.218740 29998 net.cpp:91] Creating Layer inception_4a/relu_pool_proj
I0403 14:35:28.218760 29998 net.cpp:425] inception_4a/relu_pool_proj <- inception_4a/pool_proj
I0403 14:35:28.218780 29998 net.cpp:386] inception_4a/relu_pool_proj -> inception_4a/pool_proj (in-place)
I0403 14:35:28.219082 29998 net.cpp:141] Setting up inception_4a/relu_pool_proj
I0403 14:35:28.219111 29998 net.cpp:148] Top shape: 24 64 14 14 (301056)
I0403 14:35:28.219128 29998 net.cpp:156] Memory required for data: 886912032
I0403 14:35:28.219146 29998 layer_factory.hpp:77] Creating layer inception_4a/output
I0403 14:35:28.219166 29998 net.cpp:91] Creating Layer inception_4a/output
I0403 14:35:28.219183 29998 net.cpp:425] inception_4a/output <- inception_4a/1x1
I0403 14:35:28.219202 29998 net.cpp:425] inception_4a/output <- inception_4a/3x3
I0403 14:35:28.219218 29998 net.cpp:425] inception_4a/output <- inception_4a/5x5
I0403 14:35:28.219236 29998 net.cpp:425] inception_4a/output <- inception_4a/pool_proj
I0403 14:35:28.219254 29998 net.cpp:399] inception_4a/output -> inception_4a/output
I0403 14:35:28.219303 29998 net.cpp:141] Setting up inception_4a/output
I0403 14:35:28.219337 29998 net.cpp:148] Top shape: 24 512 14 14 (2408448)
I0403 14:35:28.219360 29998 net.cpp:156] Memory required for data: 896545824
I0403 14:35:28.219377 29998 layer_factory.hpp:77] Creating layer inception_4a/output_inception_4a/output_0_split
I0403 14:35:28.219396 29998 net.cpp:91] Creating Layer inception_4a/output_inception_4a/output_0_split
I0403 14:35:28.219414 29998 net.cpp:425] inception_4a/output_inception_4a/output_0_split <- inception_4a/output
I0403 14:35:28.219435 29998 net.cpp:399] inception_4a/output_inception_4a/output_0_split -> inception_4a/output_inception_4a/output_0_split_0
I0403 14:35:28.219460 29998 net.cpp:399] inception_4a/output_inception_4a/output_0_split -> inception_4a/output_inception_4a/output_0_split_1
I0403 14:35:28.219481 29998 net.cpp:399] inception_4a/output_inception_4a/output_0_split -> inception_4a/output_inception_4a/output_0_split_2
I0403 14:35:28.219502 29998 net.cpp:399] inception_4a/output_inception_4a/output_0_split -> inception_4a/output_inception_4a/output_0_split_3
I0403 14:35:28.219523 29998 net.cpp:399] inception_4a/output_inception_4a/output_0_split -> inception_4a/output_inception_4a/output_0_split_4
I0403 14:35:28.219625 29998 net.cpp:141] Setting up inception_4a/output_inception_4a/output_0_split
I0403 14:35:28.219650 29998 net.cpp:148] Top shape: 24 512 14 14 (2408448)
I0403 14:35:28.219669 29998 net.cpp:148] Top shape: 24 512 14 14 (2408448)
I0403 14:35:28.219686 29998 net.cpp:148] Top shape: 24 512 14 14 (2408448)
I0403 14:35:28.219703 29998 net.cpp:148] Top shape: 24 512 14 14 (2408448)
I0403 14:35:28.219719 29998 net.cpp:148] Top shape: 24 512 14 14 (2408448)
I0403 14:35:28.219734 29998 net.cpp:156] Memory required for data: 944714784
I0403 14:35:28.219751 29998 layer_factory.hpp:77] Creating layer loss1/ave_pool
I0403 14:35:28.219770 29998 net.cpp:91] Creating Layer loss1/ave_pool
I0403 14:35:28.219786 29998 net.cpp:425] loss1/ave_pool <- inception_4a/output_inception_4a/output_0_split_0
I0403 14:35:28.219808 29998 net.cpp:399] loss1/ave_pool -> loss1/ave_pool
I0403 14:35:28.220029 29998 net.cpp:141] Setting up loss1/ave_pool
I0403 14:35:28.220057 29998 net.cpp:148] Top shape: 24 512 4 4 (196608)
I0403 14:35:28.220074 29998 net.cpp:156] Memory required for data: 945501216
I0403 14:35:28.220091 29998 layer_factory.hpp:77] Creating layer loss1/conv
I0403 14:35:28.220115 29998 net.cpp:91] Creating Layer loss1/conv
I0403 14:35:28.220135 29998 net.cpp:425] loss1/conv <- loss1/ave_pool
I0403 14:35:28.220155 29998 net.cpp:399] loss1/conv -> loss1/conv
I0403 14:35:28.221660 29998 net.cpp:141] Setting up loss1/conv
I0403 14:35:28.221693 29998 net.cpp:148] Top shape: 24 128 4 4 (49152)
I0403 14:35:28.221710 29998 net.cpp:156] Memory required for data: 945697824
I0403 14:35:28.221746 29998 layer_factory.hpp:77] Creating layer loss1/relu_conv
I0403 14:35:28.221767 29998 net.cpp:91] Creating Layer loss1/relu_conv
I0403 14:35:28.221786 29998 net.cpp:425] loss1/relu_conv <- loss1/conv
I0403 14:35:28.221807 29998 net.cpp:386] loss1/relu_conv -> loss1/conv (in-place)
I0403 14:35:28.222111 29998 net.cpp:141] Setting up loss1/relu_conv
I0403 14:35:28.222141 29998 net.cpp:148] Top shape: 24 128 4 4 (49152)
I0403 14:35:28.222157 29998 net.cpp:156] Memory required for data: 945894432
I0403 14:35:28.222172 29998 layer_factory.hpp:77] Creating layer loss1/fc
I0403 14:35:28.222206 29998 net.cpp:91] Creating Layer loss1/fc
I0403 14:35:28.222226 29998 net.cpp:425] loss1/fc <- loss1/conv
I0403 14:35:28.222249 29998 net.cpp:399] loss1/fc -> loss1/fc
I0403 14:35:28.240521 29998 net.cpp:141] Setting up loss1/fc
I0403 14:35:28.240561 29998 net.cpp:148] Top shape: 24 1024 (24576)
I0403 14:35:28.240578 29998 net.cpp:156] Memory required for data: 945992736
I0403 14:35:28.240600 29998 layer_factory.hpp:77] Creating layer loss1/relu_fc
I0403 14:35:28.240620 29998 net.cpp:91] Creating Layer loss1/relu_fc
I0403 14:35:28.240650 29998 net.cpp:425] loss1/relu_fc <- loss1/fc
I0403 14:35:28.240669 29998 net.cpp:386] loss1/relu_fc -> loss1/fc (in-place)
I0403 14:35:28.240861 29998 net.cpp:141] Setting up loss1/relu_fc
I0403 14:35:28.240890 29998 net.cpp:148] Top shape: 24 1024 (24576)
I0403 14:35:28.240905 29998 net.cpp:156] Memory required for data: 946091040
I0403 14:35:28.240919 29998 layer_factory.hpp:77] Creating layer loss1/drop_fc
I0403 14:35:28.240960 29998 net.cpp:91] Creating Layer loss1/drop_fc
I0403 14:35:28.240981 29998 net.cpp:425] loss1/drop_fc <- loss1/fc
I0403 14:35:28.240999 29998 net.cpp:386] loss1/drop_fc -> loss1/fc (in-place)
I0403 14:35:28.241053 29998 net.cpp:141] Setting up loss1/drop_fc
I0403 14:35:28.241078 29998 net.cpp:148] Top shape: 24 1024 (24576)
I0403 14:35:28.241093 29998 net.cpp:156] Memory required for data: 946189344
I0403 14:35:28.241111 29998 layer_factory.hpp:77] Creating layer loss1/classifier_plantvillage
I0403 14:35:28.241133 29998 net.cpp:91] Creating Layer loss1/classifier_plantvillage
I0403 14:35:28.241150 29998 net.cpp:425] loss1/classifier_plantvillage <- loss1/fc
I0403 14:35:28.241173 29998 net.cpp:399] loss1/classifier_plantvillage -> loss1/classifier_plantvillage
I0403 14:35:28.242084 29998 net.cpp:141] Setting up loss1/classifier_plantvillage
I0403 14:35:28.242115 29998 net.cpp:148] Top shape: 24 38 (912)
I0403 14:35:28.242131 29998 net.cpp:156] Memory required for data: 946192992
I0403 14:35:28.242151 29998 layer_factory.hpp:77] Creating layer loss1/classifier_plantvillage_loss1/classifier_plantvillage_0_split
I0403 14:35:28.242171 29998 net.cpp:91] Creating Layer loss1/classifier_plantvillage_loss1/classifier_plantvillage_0_split
I0403 14:35:28.242185 29998 net.cpp:425] loss1/classifier_plantvillage_loss1/classifier_plantvillage_0_split <- loss1/classifier_plantvillage
I0403 14:35:28.242203 29998 net.cpp:399] loss1/classifier_plantvillage_loss1/classifier_plantvillage_0_split -> loss1/classifier_plantvillage_loss1/classifier_plantvillage_0_split_0
I0403 14:35:28.242223 29998 net.cpp:399] loss1/classifier_plantvillage_loss1/classifier_plantvillage_0_split -> loss1/classifier_plantvillage_loss1/classifier_plantvillage_0_split_1
I0403 14:35:28.242247 29998 net.cpp:399] loss1/classifier_plantvillage_loss1/classifier_plantvillage_0_split -> loss1/classifier_plantvillage_loss1/classifier_plantvillage_0_split_2
I0403 14:35:28.242313 29998 net.cpp:141] Setting up loss1/classifier_plantvillage_loss1/classifier_plantvillage_0_split
I0403 14:35:28.242336 29998 net.cpp:148] Top shape: 24 38 (912)
I0403 14:35:28.242357 29998 net.cpp:148] Top shape: 24 38 (912)
I0403 14:35:28.242374 29998 net.cpp:148] Top shape: 24 38 (912)
I0403 14:35:28.242389 29998 net.cpp:156] Memory required for data: 946203936
I0403 14:35:28.242404 29998 layer_factory.hpp:77] Creating layer inception_4b/1x1
I0403 14:35:28.242425 29998 net.cpp:91] Creating Layer inception_4b/1x1
I0403 14:35:28.242465 29998 net.cpp:425] inception_4b/1x1 <- inception_4a/output_inception_4a/output_0_split_1
I0403 14:35:28.242489 29998 net.cpp:399] inception_4b/1x1 -> inception_4b/1x1
I0403 14:35:28.244171 29998 net.cpp:141] Setting up inception_4b/1x1
I0403 14:35:28.244202 29998 net.cpp:148] Top shape: 24 160 14 14 (752640)
I0403 14:35:28.244220 29998 net.cpp:156] Memory required for data: 949214496
I0403 14:35:28.244237 29998 layer_factory.hpp:77] Creating layer inception_4b/relu_1x1
I0403 14:35:28.244256 29998 net.cpp:91] Creating Layer inception_4b/relu_1x1
I0403 14:35:28.244271 29998 net.cpp:425] inception_4b/relu_1x1 <- inception_4b/1x1
I0403 14:35:28.244293 29998 net.cpp:386] inception_4b/relu_1x1 -> inception_4b/1x1 (in-place)
I0403 14:35:28.244488 29998 net.cpp:141] Setting up inception_4b/relu_1x1
I0403 14:35:28.244513 29998 net.cpp:148] Top shape: 24 160 14 14 (752640)
I0403 14:35:28.244526 29998 net.cpp:156] Memory required for data: 952225056
I0403 14:35:28.244541 29998 layer_factory.hpp:77] Creating layer inception_4b/3x3_reduce
I0403 14:35:28.244563 29998 net.cpp:91] Creating Layer inception_4b/3x3_reduce
I0403 14:35:28.244580 29998 net.cpp:425] inception_4b/3x3_reduce <- inception_4a/output_inception_4a/output_0_split_2
I0403 14:35:28.244604 29998 net.cpp:399] inception_4b/3x3_reduce -> inception_4b/3x3_reduce
I0403 14:35:28.245934 29998 net.cpp:141] Setting up inception_4b/3x3_reduce
I0403 14:35:28.245962 29998 net.cpp:148] Top shape: 24 112 14 14 (526848)
I0403 14:35:28.245980 29998 net.cpp:156] Memory required for data: 954332448
I0403 14:35:28.245998 29998 layer_factory.hpp:77] Creating layer inception_4b/relu_3x3_reduce
I0403 14:35:28.246018 29998 net.cpp:91] Creating Layer inception_4b/relu_3x3_reduce
I0403 14:35:28.246037 29998 net.cpp:425] inception_4b/relu_3x3_reduce <- inception_4b/3x3_reduce
I0403 14:35:28.246055 29998 net.cpp:386] inception_4b/relu_3x3_reduce -> inception_4b/3x3_reduce (in-place)
I0403 14:35:28.246351 29998 net.cpp:141] Setting up inception_4b/relu_3x3_reduce
I0403 14:35:28.246376 29998 net.cpp:148] Top shape: 24 112 14 14 (526848)
I0403 14:35:28.246392 29998 net.cpp:156] Memory required for data: 956439840
I0403 14:35:28.246407 29998 layer_factory.hpp:77] Creating layer inception_4b/3x3
I0403 14:35:28.246429 29998 net.cpp:91] Creating Layer inception_4b/3x3
I0403 14:35:28.246448 29998 net.cpp:425] inception_4b/3x3 <- inception_4b/3x3_reduce
I0403 14:35:28.246467 29998 net.cpp:399] inception_4b/3x3 -> inception_4b/3x3
I0403 14:35:28.249387 29998 net.cpp:141] Setting up inception_4b/3x3
I0403 14:35:28.249418 29998 net.cpp:148] Top shape: 24 224 14 14 (1053696)
I0403 14:35:28.249438 29998 net.cpp:156] Memory required for data: 960654624
I0403 14:35:28.249457 29998 layer_factory.hpp:77] Creating layer inception_4b/relu_3x3
I0403 14:35:28.249475 29998 net.cpp:91] Creating Layer inception_4b/relu_3x3
I0403 14:35:28.249493 29998 net.cpp:425] inception_4b/relu_3x3 <- inception_4b/3x3
I0403 14:35:28.249511 29998 net.cpp:386] inception_4b/relu_3x3 -> inception_4b/3x3 (in-place)
I0403 14:35:28.249697 29998 net.cpp:141] Setting up inception_4b/relu_3x3
I0403 14:35:28.249724 29998 net.cpp:148] Top shape: 24 224 14 14 (1053696)
I0403 14:35:28.249740 29998 net.cpp:156] Memory required for data: 964869408
I0403 14:35:28.249757 29998 layer_factory.hpp:77] Creating layer inception_4b/5x5_reduce
I0403 14:35:28.249778 29998 net.cpp:91] Creating Layer inception_4b/5x5_reduce
I0403 14:35:28.249796 29998 net.cpp:425] inception_4b/5x5_reduce <- inception_4a/output_inception_4a/output_0_split_3
I0403 14:35:28.249815 29998 net.cpp:399] inception_4b/5x5_reduce -> inception_4b/5x5_reduce
I0403 14:35:28.250912 29998 net.cpp:141] Setting up inception_4b/5x5_reduce
I0403 14:35:28.250941 29998 net.cpp:148] Top shape: 24 24 14 14 (112896)
I0403 14:35:28.250970 29998 net.cpp:156] Memory required for data: 965320992
I0403 14:35:28.250993 29998 layer_factory.hpp:77] Creating layer inception_4b/relu_5x5_reduce
I0403 14:35:28.251013 29998 net.cpp:91] Creating Layer inception_4b/relu_5x5_reduce
I0403 14:35:28.251049 29998 net.cpp:425] inception_4b/relu_5x5_reduce <- inception_4b/5x5_reduce
I0403 14:35:28.251070 29998 net.cpp:386] inception_4b/relu_5x5_reduce -> inception_4b/5x5_reduce (in-place)
I0403 14:35:28.251272 29998 net.cpp:141] Setting up inception_4b/relu_5x5_reduce
I0403 14:35:28.251299 29998 net.cpp:148] Top shape: 24 24 14 14 (112896)
I0403 14:35:28.251313 29998 net.cpp:156] Memory required for data: 965772576
I0403 14:35:28.251328 29998 layer_factory.hpp:77] Creating layer inception_4b/5x5
I0403 14:35:28.251355 29998 net.cpp:91] Creating Layer inception_4b/5x5
I0403 14:35:28.251375 29998 net.cpp:425] inception_4b/5x5 <- inception_4b/5x5_reduce
I0403 14:35:28.251397 29998 net.cpp:399] inception_4b/5x5 -> inception_4b/5x5
I0403 14:35:28.252624 29998 net.cpp:141] Setting up inception_4b/5x5
I0403 14:35:28.252652 29998 net.cpp:148] Top shape: 24 64 14 14 (301056)
I0403 14:35:28.252668 29998 net.cpp:156] Memory required for data: 966976800
I0403 14:35:28.252701 29998 layer_factory.hpp:77] Creating layer inception_4b/relu_5x5
I0403 14:35:28.252719 29998 net.cpp:91] Creating Layer inception_4b/relu_5x5
I0403 14:35:28.252737 29998 net.cpp:425] inception_4b/relu_5x5 <- inception_4b/5x5
I0403 14:35:28.252758 29998 net.cpp:386] inception_4b/relu_5x5 -> inception_4b/5x5 (in-place)
I0403 14:35:28.253064 29998 net.cpp:141] Setting up inception_4b/relu_5x5
I0403 14:35:28.253093 29998 net.cpp:148] Top shape: 24 64 14 14 (301056)
I0403 14:35:28.253108 29998 net.cpp:156] Memory required for data: 968181024
I0403 14:35:28.253124 29998 layer_factory.hpp:77] Creating layer inception_4b/pool
I0403 14:35:28.253144 29998 net.cpp:91] Creating Layer inception_4b/pool
I0403 14:35:28.253161 29998 net.cpp:425] inception_4b/pool <- inception_4a/output_inception_4a/output_0_split_4
I0403 14:35:28.253182 29998 net.cpp:399] inception_4b/pool -> inception_4b/pool
I0403 14:35:28.253249 29998 net.cpp:141] Setting up inception_4b/pool
I0403 14:35:28.253274 29998 net.cpp:148] Top shape: 24 512 14 14 (2408448)
I0403 14:35:28.253290 29998 net.cpp:156] Memory required for data: 977814816
I0403 14:35:28.253304 29998 layer_factory.hpp:77] Creating layer inception_4b/pool_proj
I0403 14:35:28.253329 29998 net.cpp:91] Creating Layer inception_4b/pool_proj
I0403 14:35:28.253356 29998 net.cpp:425] inception_4b/pool_proj <- inception_4b/pool
I0403 14:35:28.253379 29998 net.cpp:399] inception_4b/pool_proj -> inception_4b/pool_proj
I0403 14:35:28.254603 29998 net.cpp:141] Setting up inception_4b/pool_proj
I0403 14:35:28.254632 29998 net.cpp:148] Top shape: 24 64 14 14 (301056)
I0403 14:35:28.254649 29998 net.cpp:156] Memory required for data: 979019040
I0403 14:35:28.254669 29998 layer_factory.hpp:77] Creating layer inception_4b/relu_pool_proj
I0403 14:35:28.254688 29998 net.cpp:91] Creating Layer inception_4b/relu_pool_proj
I0403 14:35:28.254705 29998 net.cpp:425] inception_4b/relu_pool_proj <- inception_4b/pool_proj
I0403 14:35:28.254741 29998 net.cpp:386] inception_4b/relu_pool_proj -> inception_4b/pool_proj (in-place)
I0403 14:35:28.254922 29998 net.cpp:141] Setting up inception_4b/relu_pool_proj
I0403 14:35:28.254948 29998 net.cpp:148] Top shape: 24 64 14 14 (301056)
I0403 14:35:28.254964 29998 net.cpp:156] Memory required for data: 980223264
I0403 14:35:28.254979 29998 layer_factory.hpp:77] Creating layer inception_4b/output
I0403 14:35:28.255000 29998 net.cpp:91] Creating Layer inception_4b/output
I0403 14:35:28.255017 29998 net.cpp:425] inception_4b/output <- inception_4b/1x1
I0403 14:35:28.255034 29998 net.cpp:425] inception_4b/output <- inception_4b/3x3
I0403 14:35:28.255051 29998 net.cpp:425] inception_4b/output <- inception_4b/5x5
I0403 14:35:28.255067 29998 net.cpp:425] inception_4b/output <- inception_4b/pool_proj
I0403 14:35:28.255084 29998 net.cpp:399] inception_4b/output -> inception_4b/output
I0403 14:35:28.255133 29998 net.cpp:141] Setting up inception_4b/output
I0403 14:35:28.255157 29998 net.cpp:148] Top shape: 24 512 14 14 (2408448)
I0403 14:35:28.255172 29998 net.cpp:156] Memory required for data: 989857056
I0403 14:35:28.255201 29998 layer_factory.hpp:77] Creating layer inception_4b/output_inception_4b/output_0_split
I0403 14:35:28.255221 29998 net.cpp:91] Creating Layer inception_4b/output_inception_4b/output_0_split
I0403 14:35:28.255239 29998 net.cpp:425] inception_4b/output_inception_4b/output_0_split <- inception_4b/output
I0403 14:35:28.255259 29998 net.cpp:399] inception_4b/output_inception_4b/output_0_split -> inception_4b/output_inception_4b/output_0_split_0
I0403 14:35:28.255278 29998 net.cpp:399] inception_4b/output_inception_4b/output_0_split -> inception_4b/output_inception_4b/output_0_split_1
I0403 14:35:28.255300 29998 net.cpp:399] inception_4b/output_inception_4b/output_0_split -> inception_4b/output_inception_4b/output_0_split_2
I0403 14:35:28.255321 29998 net.cpp:399] inception_4b/output_inception_4b/output_0_split -> inception_4b/output_inception_4b/output_0_split_3
I0403 14:35:28.255408 29998 net.cpp:141] Setting up inception_4b/output_inception_4b/output_0_split
I0403 14:35:28.255435 29998 net.cpp:148] Top shape: 24 512 14 14 (2408448)
I0403 14:35:28.255452 29998 net.cpp:148] Top shape: 24 512 14 14 (2408448)
I0403 14:35:28.255468 29998 net.cpp:148] Top shape: 24 512 14 14 (2408448)
I0403 14:35:28.255483 29998 net.cpp:148] Top shape: 24 512 14 14 (2408448)
I0403 14:35:28.255497 29998 net.cpp:156] Memory required for data: 1028392224
I0403 14:35:28.255513 29998 layer_factory.hpp:77] Creating layer inception_4c/1x1
I0403 14:35:28.255537 29998 net.cpp:91] Creating Layer inception_4c/1x1
I0403 14:35:28.255554 29998 net.cpp:425] inception_4c/1x1 <- inception_4b/output_inception_4b/output_0_split_0
I0403 14:35:28.255573 29998 net.cpp:399] inception_4c/1x1 -> inception_4c/1x1
I0403 14:35:28.257038 29998 net.cpp:141] Setting up inception_4c/1x1
I0403 14:35:28.257066 29998 net.cpp:148] Top shape: 24 128 14 14 (602112)
I0403 14:35:28.257083 29998 net.cpp:156] Memory required for data: 1030800672
I0403 14:35:28.257102 29998 layer_factory.hpp:77] Creating layer inception_4c/relu_1x1
I0403 14:35:28.257122 29998 net.cpp:91] Creating Layer inception_4c/relu_1x1
I0403 14:35:28.257140 29998 net.cpp:425] inception_4c/relu_1x1 <- inception_4c/1x1
I0403 14:35:28.257159 29998 net.cpp:386] inception_4c/relu_1x1 -> inception_4c/1x1 (in-place)
I0403 14:35:28.257344 29998 net.cpp:141] Setting up inception_4c/relu_1x1
I0403 14:35:28.257375 29998 net.cpp:148] Top shape: 24 128 14 14 (602112)
I0403 14:35:28.257392 29998 net.cpp:156] Memory required for data: 1033209120
I0403 14:35:28.257407 29998 layer_factory.hpp:77] Creating layer inception_4c/3x3_reduce
I0403 14:35:28.257431 29998 net.cpp:91] Creating Layer inception_4c/3x3_reduce
I0403 14:35:28.257449 29998 net.cpp:425] inception_4c/3x3_reduce <- inception_4b/output_inception_4b/output_0_split_1
I0403 14:35:28.257469 29998 net.cpp:399] inception_4c/3x3_reduce -> inception_4c/3x3_reduce
I0403 14:35:28.259441 29998 net.cpp:141] Setting up inception_4c/3x3_reduce
I0403 14:35:28.259474 29998 net.cpp:148] Top shape: 24 128 14 14 (602112)
I0403 14:35:28.259491 29998 net.cpp:156] Memory required for data: 1035617568
I0403 14:35:28.259511 29998 layer_factory.hpp:77] Creating layer inception_4c/relu_3x3_reduce
I0403 14:35:28.259529 29998 net.cpp:91] Creating Layer inception_4c/relu_3x3_reduce
I0403 14:35:28.259560 29998 net.cpp:425] inception_4c/relu_3x3_reduce <- inception_4c/3x3_reduce
I0403 14:35:28.259582 29998 net.cpp:386] inception_4c/relu_3x3_reduce -> inception_4c/3x3_reduce (in-place)
I0403 14:35:28.259873 29998 net.cpp:141] Setting up inception_4c/relu_3x3_reduce
I0403 14:35:28.259904 29998 net.cpp:148] Top shape: 24 128 14 14 (602112)
I0403 14:35:28.259922 29998 net.cpp:156] Memory required for data: 1038026016
I0403 14:35:28.259939 29998 layer_factory.hpp:77] Creating layer inception_4c/3x3
I0403 14:35:28.259963 29998 net.cpp:91] Creating Layer inception_4c/3x3
I0403 14:35:28.259981 29998 net.cpp:425] inception_4c/3x3 <- inception_4c/3x3_reduce
I0403 14:35:28.260001 29998 net.cpp:399] inception_4c/3x3 -> inception_4c/3x3
I0403 14:35:28.263732 29998 net.cpp:141] Setting up inception_4c/3x3
I0403 14:35:28.263775 29998 net.cpp:148] Top shape: 24 256 14 14 (1204224)
I0403 14:35:28.263793 29998 net.cpp:156] Memory required for data: 1042842912
I0403 14:35:28.263828 29998 layer_factory.hpp:77] Creating layer inception_4c/relu_3x3
I0403 14:35:28.263851 29998 net.cpp:91] Creating Layer inception_4c/relu_3x3
I0403 14:35:28.263869 29998 net.cpp:425] inception_4c/relu_3x3 <- inception_4c/3x3
I0403 14:35:28.263890 29998 net.cpp:386] inception_4c/relu_3x3 -> inception_4c/3x3 (in-place)
I0403 14:35:28.264077 29998 net.cpp:141] Setting up inception_4c/relu_3x3
I0403 14:35:28.264104 29998 net.cpp:148] Top shape: 24 256 14 14 (1204224)
I0403 14:35:28.264119 29998 net.cpp:156] Memory required for data: 1047659808
I0403 14:35:28.264134 29998 layer_factory.hpp:77] Creating layer inception_4c/5x5_reduce
I0403 14:35:28.264159 29998 net.cpp:91] Creating Layer inception_4c/5x5_reduce
I0403 14:35:28.264178 29998 net.cpp:425] inception_4c/5x5_reduce <- inception_4b/output_inception_4b/output_0_split_2
I0403 14:35:28.264200 29998 net.cpp:399] inception_4c/5x5_reduce -> inception_4c/5x5_reduce
I0403 14:35:28.265354 29998 net.cpp:141] Setting up inception_4c/5x5_reduce
I0403 14:35:28.265383 29998 net.cpp:148] Top shape: 24 24 14 14 (112896)
I0403 14:35:28.265399 29998 net.cpp:156] Memory required for data: 1048111392
I0403 14:35:28.265419 29998 layer_factory.hpp:77] Creating layer inception_4c/relu_5x5_reduce
I0403 14:35:28.265437 29998 net.cpp:91] Creating Layer inception_4c/relu_5x5_reduce
I0403 14:35:28.265453 29998 net.cpp:425] inception_4c/relu_5x5_reduce <- inception_4c/5x5_reduce
I0403 14:35:28.265475 29998 net.cpp:386] inception_4c/relu_5x5_reduce -> inception_4c/5x5_reduce (in-place)
I0403 14:35:28.265660 29998 net.cpp:141] Setting up inception_4c/relu_5x5_reduce
I0403 14:35:28.265686 29998 net.cpp:148] Top shape: 24 24 14 14 (112896)
I0403 14:35:28.265702 29998 net.cpp:156] Memory required for data: 1048562976
I0403 14:35:28.265717 29998 layer_factory.hpp:77] Creating layer inception_4c/5x5
I0403 14:35:28.265740 29998 net.cpp:91] Creating Layer inception_4c/5x5
I0403 14:35:28.265758 29998 net.cpp:425] inception_4c/5x5 <- inception_4c/5x5_reduce
I0403 14:35:28.265779 29998 net.cpp:399] inception_4c/5x5 -> inception_4c/5x5
I0403 14:35:28.267058 29998 net.cpp:141] Setting up inception_4c/5x5
I0403 14:35:28.267087 29998 net.cpp:148] Top shape: 24 64 14 14 (301056)
I0403 14:35:28.267103 29998 net.cpp:156] Memory required for data: 1049767200
I0403 14:35:28.267122 29998 layer_factory.hpp:77] Creating layer inception_4c/relu_5x5
I0403 14:35:28.267143 29998 net.cpp:91] Creating Layer inception_4c/relu_5x5
I0403 14:35:28.267159 29998 net.cpp:425] inception_4c/relu_5x5 <- inception_4c/5x5
I0403 14:35:28.267176 29998 net.cpp:386] inception_4c/relu_5x5 -> inception_4c/5x5 (in-place)
I0403 14:35:28.267470 29998 net.cpp:141] Setting up inception_4c/relu_5x5
I0403 14:35:28.267498 29998 net.cpp:148] Top shape: 24 64 14 14 (301056)
I0403 14:35:28.267513 29998 net.cpp:156] Memory required for data: 1050971424
I0403 14:35:28.267529 29998 layer_factory.hpp:77] Creating layer inception_4c/pool
I0403 14:35:28.267549 29998 net.cpp:91] Creating Layer inception_4c/pool
I0403 14:35:28.267566 29998 net.cpp:425] inception_4c/pool <- inception_4b/output_inception_4b/output_0_split_3
I0403 14:35:28.267585 29998 net.cpp:399] inception_4c/pool -> inception_4c/pool
I0403 14:35:28.267652 29998 net.cpp:141] Setting up inception_4c/pool
I0403 14:35:28.267678 29998 net.cpp:148] Top shape: 24 512 14 14 (2408448)
I0403 14:35:28.267693 29998 net.cpp:156] Memory required for data: 1060605216
I0403 14:35:28.267707 29998 layer_factory.hpp:77] Creating layer inception_4c/pool_proj
I0403 14:35:28.267729 29998 net.cpp:91] Creating Layer inception_4c/pool_proj
I0403 14:35:28.267747 29998 net.cpp:425] inception_4c/pool_proj <- inception_4c/pool
I0403 14:35:28.267770 29998 net.cpp:399] inception_4c/pool_proj -> inception_4c/pool_proj
I0403 14:35:28.269023 29998 net.cpp:141] Setting up inception_4c/pool_proj
I0403 14:35:28.269052 29998 net.cpp:148] Top shape: 24 64 14 14 (301056)
I0403 14:35:28.269083 29998 net.cpp:156] Memory required for data: 1061809440
I0403 14:35:28.269104 29998 layer_factory.hpp:77] Creating layer inception_4c/relu_pool_proj
I0403 14:35:28.269121 29998 net.cpp:91] Creating Layer inception_4c/relu_pool_proj
I0403 14:35:28.269139 29998 net.cpp:425] inception_4c/relu_pool_proj <- inception_4c/pool_proj
I0403 14:35:28.269157 29998 net.cpp:386] inception_4c/relu_pool_proj -> inception_4c/pool_proj (in-place)
I0403 14:35:28.269342 29998 net.cpp:141] Setting up inception_4c/relu_pool_proj
I0403 14:35:28.269381 29998 net.cpp:148] Top shape: 24 64 14 14 (301056)
I0403 14:35:28.269397 29998 net.cpp:156] Memory required for data: 1063013664
I0403 14:35:28.269413 29998 layer_factory.hpp:77] Creating layer inception_4c/output
I0403 14:35:28.269433 29998 net.cpp:91] Creating Layer inception_4c/output
I0403 14:35:28.269451 29998 net.cpp:425] inception_4c/output <- inception_4c/1x1
I0403 14:35:28.269469 29998 net.cpp:425] inception_4c/output <- inception_4c/3x3
I0403 14:35:28.269485 29998 net.cpp:425] inception_4c/output <- inception_4c/5x5
I0403 14:35:28.269502 29998 net.cpp:425] inception_4c/output <- inception_4c/pool_proj
I0403 14:35:28.269520 29998 net.cpp:399] inception_4c/output -> inception_4c/output
I0403 14:35:28.269567 29998 net.cpp:141] Setting up inception_4c/output
I0403 14:35:28.269593 29998 net.cpp:148] Top shape: 24 512 14 14 (2408448)
I0403 14:35:28.269608 29998 net.cpp:156] Memory required for data: 1072647456
I0403 14:35:28.269623 29998 layer_factory.hpp:77] Creating layer inception_4c/output_inception_4c/output_0_split
I0403 14:35:28.269654 29998 net.cpp:91] Creating Layer inception_4c/output_inception_4c/output_0_split
I0403 14:35:28.269670 29998 net.cpp:425] inception_4c/output_inception_4c/output_0_split <- inception_4c/output
I0403 14:35:28.269688 29998 net.cpp:399] inception_4c/output_inception_4c/output_0_split -> inception_4c/output_inception_4c/output_0_split_0
I0403 14:35:28.269728 29998 net.cpp:399] inception_4c/output_inception_4c/output_0_split -> inception_4c/output_inception_4c/output_0_split_1
I0403 14:35:28.269755 29998 net.cpp:399] inception_4c/output_inception_4c/output_0_split -> inception_4c/output_inception_4c/output_0_split_2
I0403 14:35:28.269784 29998 net.cpp:399] inception_4c/output_inception_4c/output_0_split -> inception_4c/output_inception_4c/output_0_split_3
I0403 14:35:28.269867 29998 net.cpp:141] Setting up inception_4c/output_inception_4c/output_0_split
I0403 14:35:28.269896 29998 net.cpp:148] Top shape: 24 512 14 14 (2408448)
I0403 14:35:28.269914 29998 net.cpp:148] Top shape: 24 512 14 14 (2408448)
I0403 14:35:28.269930 29998 net.cpp:148] Top shape: 24 512 14 14 (2408448)
I0403 14:35:28.269947 29998 net.cpp:148] Top shape: 24 512 14 14 (2408448)
I0403 14:35:28.269960 29998 net.cpp:156] Memory required for data: 1111182624
I0403 14:35:28.269975 29998 layer_factory.hpp:77] Creating layer inception_4d/1x1
I0403 14:35:28.270009 29998 net.cpp:91] Creating Layer inception_4d/1x1
I0403 14:35:28.270027 29998 net.cpp:425] inception_4d/1x1 <- inception_4c/output_inception_4c/output_0_split_0
I0403 14:35:28.270045 29998 net.cpp:399] inception_4d/1x1 -> inception_4d/1x1
I0403 14:35:28.271437 29998 net.cpp:141] Setting up inception_4d/1x1
I0403 14:35:28.271468 29998 net.cpp:148] Top shape: 24 112 14 14 (526848)
I0403 14:35:28.271486 29998 net.cpp:156] Memory required for data: 1113290016
I0403 14:35:28.271505 29998 layer_factory.hpp:77] Creating layer inception_4d/relu_1x1
I0403 14:35:28.271523 29998 net.cpp:91] Creating Layer inception_4d/relu_1x1
I0403 14:35:28.271539 29998 net.cpp:425] inception_4d/relu_1x1 <- inception_4d/1x1
I0403 14:35:28.271558 29998 net.cpp:386] inception_4d/relu_1x1 -> inception_4d/1x1 (in-place)
I0403 14:35:28.271741 29998 net.cpp:141] Setting up inception_4d/relu_1x1
I0403 14:35:28.271770 29998 net.cpp:148] Top shape: 24 112 14 14 (526848)
I0403 14:35:28.271785 29998 net.cpp:156] Memory required for data: 1115397408
I0403 14:35:28.271802 29998 layer_factory.hpp:77] Creating layer inception_4d/3x3_reduce
I0403 14:35:28.271838 29998 net.cpp:91] Creating Layer inception_4d/3x3_reduce
I0403 14:35:28.271858 29998 net.cpp:425] inception_4d/3x3_reduce <- inception_4c/output_inception_4c/output_0_split_1
I0403 14:35:28.271880 29998 net.cpp:399] inception_4d/3x3_reduce -> inception_4d/3x3_reduce
I0403 14:35:28.273418 29998 net.cpp:141] Setting up inception_4d/3x3_reduce
I0403 14:35:28.273447 29998 net.cpp:148] Top shape: 24 144 14 14 (677376)
I0403 14:35:28.273463 29998 net.cpp:156] Memory required for data: 1118106912
I0403 14:35:28.273483 29998 layer_factory.hpp:77] Creating layer inception_4d/relu_3x3_reduce
I0403 14:35:28.273504 29998 net.cpp:91] Creating Layer inception_4d/relu_3x3_reduce
I0403 14:35:28.273532 29998 net.cpp:425] inception_4d/relu_3x3_reduce <- inception_4d/3x3_reduce
I0403 14:35:28.273550 29998 net.cpp:386] inception_4d/relu_3x3_reduce -> inception_4d/3x3_reduce (in-place)
I0403 14:35:28.273855 29998 net.cpp:141] Setting up inception_4d/relu_3x3_reduce
I0403 14:35:28.273883 29998 net.cpp:148] Top shape: 24 144 14 14 (677376)
I0403 14:35:28.273913 29998 net.cpp:156] Memory required for data: 1120816416
I0403 14:35:28.273928 29998 layer_factory.hpp:77] Creating layer inception_4d/3x3
I0403 14:35:28.273950 29998 net.cpp:91] Creating Layer inception_4d/3x3
I0403 14:35:28.273968 29998 net.cpp:425] inception_4d/3x3 <- inception_4d/3x3_reduce
I0403 14:35:28.273988 29998 net.cpp:399] inception_4d/3x3 -> inception_4d/3x3
I0403 14:35:28.278259 29998 net.cpp:141] Setting up inception_4d/3x3
I0403 14:35:28.278290 29998 net.cpp:148] Top shape: 24 288 14 14 (1354752)
I0403 14:35:28.278307 29998 net.cpp:156] Memory required for data: 1126235424
I0403 14:35:28.278326 29998 layer_factory.hpp:77] Creating layer inception_4d/relu_3x3
I0403 14:35:28.278344 29998 net.cpp:91] Creating Layer inception_4d/relu_3x3
I0403 14:35:28.278365 29998 net.cpp:425] inception_4d/relu_3x3 <- inception_4d/3x3
I0403 14:35:28.278386 29998 net.cpp:386] inception_4d/relu_3x3 -> inception_4d/3x3 (in-place)
I0403 14:35:28.278578 29998 net.cpp:141] Setting up inception_4d/relu_3x3
I0403 14:35:28.278604 29998 net.cpp:148] Top shape: 24 288 14 14 (1354752)
I0403 14:35:28.278619 29998 net.cpp:156] Memory required for data: 1131654432
I0403 14:35:28.278633 29998 layer_factory.hpp:77] Creating layer inception_4d/5x5_reduce
I0403 14:35:28.278656 29998 net.cpp:91] Creating Layer inception_4d/5x5_reduce
I0403 14:35:28.278674 29998 net.cpp:425] inception_4d/5x5_reduce <- inception_4c/output_inception_4c/output_0_split_2
I0403 14:35:28.278697 29998 net.cpp:399] inception_4d/5x5_reduce -> inception_4d/5x5_reduce
I0403 14:35:28.279835 29998 net.cpp:141] Setting up inception_4d/5x5_reduce
I0403 14:35:28.279866 29998 net.cpp:148] Top shape: 24 32 14 14 (150528)
I0403 14:35:28.279882 29998 net.cpp:156] Memory required for data: 1132256544
I0403 14:35:28.279901 29998 layer_factory.hpp:77] Creating layer inception_4d/relu_5x5_reduce
I0403 14:35:28.279918 29998 net.cpp:91] Creating Layer inception_4d/relu_5x5_reduce
I0403 14:35:28.279935 29998 net.cpp:425] inception_4d/relu_5x5_reduce <- inception_4d/5x5_reduce
I0403 14:35:28.279953 29998 net.cpp:386] inception_4d/relu_5x5_reduce -> inception_4d/5x5_reduce (in-place)
I0403 14:35:28.280153 29998 net.cpp:141] Setting up inception_4d/relu_5x5_reduce
I0403 14:35:28.280179 29998 net.cpp:148] Top shape: 24 32 14 14 (150528)
I0403 14:35:28.280194 29998 net.cpp:156] Memory required for data: 1132858656
I0403 14:35:28.280210 29998 layer_factory.hpp:77] Creating layer inception_4d/5x5
I0403 14:35:28.280232 29998 net.cpp:91] Creating Layer inception_4d/5x5
I0403 14:35:28.280249 29998 net.cpp:425] inception_4d/5x5 <- inception_4d/5x5_reduce
I0403 14:35:28.280272 29998 net.cpp:399] inception_4d/5x5 -> inception_4d/5x5
I0403 14:35:28.281739 29998 net.cpp:141] Setting up inception_4d/5x5
I0403 14:35:28.281769 29998 net.cpp:148] Top shape: 24 64 14 14 (301056)
I0403 14:35:28.281785 29998 net.cpp:156] Memory required for data: 1134062880
I0403 14:35:28.281806 29998 layer_factory.hpp:77] Creating layer inception_4d/relu_5x5
I0403 14:35:28.281847 29998 net.cpp:91] Creating Layer inception_4d/relu_5x5
I0403 14:35:28.281865 29998 net.cpp:425] inception_4d/relu_5x5 <- inception_4d/5x5
I0403 14:35:28.281884 29998 net.cpp:386] inception_4d/relu_5x5 -> inception_4d/5x5 (in-place)
I0403 14:35:28.282193 29998 net.cpp:141] Setting up inception_4d/relu_5x5
I0403 14:35:28.282220 29998 net.cpp:148] Top shape: 24 64 14 14 (301056)
I0403 14:35:28.282235 29998 net.cpp:156] Memory required for data: 1135267104
I0403 14:35:28.282251 29998 layer_factory.hpp:77] Creating layer inception_4d/pool
I0403 14:35:28.282270 29998 net.cpp:91] Creating Layer inception_4d/pool
I0403 14:35:28.282286 29998 net.cpp:425] inception_4d/pool <- inception_4c/output_inception_4c/output_0_split_3
I0403 14:35:28.282307 29998 net.cpp:399] inception_4d/pool -> inception_4d/pool
I0403 14:35:28.282383 29998 net.cpp:141] Setting up inception_4d/pool
I0403 14:35:28.282407 29998 net.cpp:148] Top shape: 24 512 14 14 (2408448)
I0403 14:35:28.282423 29998 net.cpp:156] Memory required for data: 1144900896
I0403 14:35:28.282438 29998 layer_factory.hpp:77] Creating layer inception_4d/pool_proj
I0403 14:35:28.282460 29998 net.cpp:91] Creating Layer inception_4d/pool_proj
I0403 14:35:28.282477 29998 net.cpp:425] inception_4d/pool_proj <- inception_4d/pool
I0403 14:35:28.282498 29998 net.cpp:399] inception_4d/pool_proj -> inception_4d/pool_proj
I0403 14:35:28.284308 29998 net.cpp:141] Setting up inception_4d/pool_proj
I0403 14:35:28.284340 29998 net.cpp:148] Top shape: 24 64 14 14 (301056)
I0403 14:35:28.284363 29998 net.cpp:156] Memory required for data: 1146105120
I0403 14:35:28.284381 29998 layer_factory.hpp:77] Creating layer inception_4d/relu_pool_proj
I0403 14:35:28.284400 29998 net.cpp:91] Creating Layer inception_4d/relu_pool_proj
I0403 14:35:28.284417 29998 net.cpp:425] inception_4d/relu_pool_proj <- inception_4d/pool_proj
I0403 14:35:28.284438 29998 net.cpp:386] inception_4d/relu_pool_proj -> inception_4d/pool_proj (in-place)
I0403 14:35:28.284621 29998 net.cpp:141] Setting up inception_4d/relu_pool_proj
I0403 14:35:28.284646 29998 net.cpp:148] Top shape: 24 64 14 14 (301056)
I0403 14:35:28.284660 29998 net.cpp:156] Memory required for data: 1147309344
I0403 14:35:28.284675 29998 layer_factory.hpp:77] Creating layer inception_4d/output
I0403 14:35:28.284693 29998 net.cpp:91] Creating Layer inception_4d/output
I0403 14:35:28.284708 29998 net.cpp:425] inception_4d/output <- inception_4d/1x1
I0403 14:35:28.284724 29998 net.cpp:425] inception_4d/output <- inception_4d/3x3
I0403 14:35:28.284740 29998 net.cpp:425] inception_4d/output <- inception_4d/5x5
I0403 14:35:28.284756 29998 net.cpp:425] inception_4d/output <- inception_4d/pool_proj
I0403 14:35:28.284775 29998 net.cpp:399] inception_4d/output -> inception_4d/output
I0403 14:35:28.284822 29998 net.cpp:141] Setting up inception_4d/output
I0403 14:35:28.284848 29998 net.cpp:148] Top shape: 24 528 14 14 (2483712)
I0403 14:35:28.284865 29998 net.cpp:156] Memory required for data: 1157244192
I0403 14:35:28.284880 29998 layer_factory.hpp:77] Creating layer inception_4d/output_inception_4d/output_0_split
I0403 14:35:28.284899 29998 net.cpp:91] Creating Layer inception_4d/output_inception_4d/output_0_split
I0403 14:35:28.284914 29998 net.cpp:425] inception_4d/output_inception_4d/output_0_split <- inception_4d/output
I0403 14:35:28.284934 29998 net.cpp:399] inception_4d/output_inception_4d/output_0_split -> inception_4d/output_inception_4d/output_0_split_0
I0403 14:35:28.284955 29998 net.cpp:399] inception_4d/output_inception_4d/output_0_split -> inception_4d/output_inception_4d/output_0_split_1
I0403 14:35:28.284979 29998 net.cpp:399] inception_4d/output_inception_4d/output_0_split -> inception_4d/output_inception_4d/output_0_split_2
I0403 14:35:28.285001 29998 net.cpp:399] inception_4d/output_inception_4d/output_0_split -> inception_4d/output_inception_4d/output_0_split_3
I0403 14:35:28.285020 29998 net.cpp:399] inception_4d/output_inception_4d/output_0_split -> inception_4d/output_inception_4d/output_0_split_4
I0403 14:35:28.285122 29998 net.cpp:141] Setting up inception_4d/output_inception_4d/output_0_split
I0403 14:35:28.285171 29998 net.cpp:148] Top shape: 24 528 14 14 (2483712)
I0403 14:35:28.285192 29998 net.cpp:148] Top shape: 24 528 14 14 (2483712)
I0403 14:35:28.285209 29998 net.cpp:148] Top shape: 24 528 14 14 (2483712)
I0403 14:35:28.285226 29998 net.cpp:148] Top shape: 24 528 14 14 (2483712)
I0403 14:35:28.285243 29998 net.cpp:148] Top shape: 24 528 14 14 (2483712)
I0403 14:35:28.285257 29998 net.cpp:156] Memory required for data: 1206918432
I0403 14:35:28.285272 29998 layer_factory.hpp:77] Creating layer loss2/ave_pool
I0403 14:35:28.285293 29998 net.cpp:91] Creating Layer loss2/ave_pool
I0403 14:35:28.285310 29998 net.cpp:425] loss2/ave_pool <- inception_4d/output_inception_4d/output_0_split_0
I0403 14:35:28.285331 29998 net.cpp:399] loss2/ave_pool -> loss2/ave_pool
I0403 14:35:28.285679 29998 net.cpp:141] Setting up loss2/ave_pool
I0403 14:35:28.285708 29998 net.cpp:148] Top shape: 24 528 4 4 (202752)
I0403 14:35:28.285724 29998 net.cpp:156] Memory required for data: 1207729440
I0403 14:35:28.285739 29998 layer_factory.hpp:77] Creating layer loss2/conv
I0403 14:35:28.285763 29998 net.cpp:91] Creating Layer loss2/conv
I0403 14:35:28.285779 29998 net.cpp:425] loss2/conv <- loss2/ave_pool
I0403 14:35:28.285800 29998 net.cpp:399] loss2/conv -> loss2/conv
I0403 14:35:28.287725 29998 net.cpp:141] Setting up loss2/conv
I0403 14:35:28.287755 29998 net.cpp:148] Top shape: 24 128 4 4 (49152)
I0403 14:35:28.287772 29998 net.cpp:156] Memory required for data: 1207926048
I0403 14:35:28.287792 29998 layer_factory.hpp:77] Creating layer loss2/relu_conv
I0403 14:35:28.287809 29998 net.cpp:91] Creating Layer loss2/relu_conv
I0403 14:35:28.287827 29998 net.cpp:425] loss2/relu_conv <- loss2/conv
I0403 14:35:28.287847 29998 net.cpp:386] loss2/relu_conv -> loss2/conv (in-place)
I0403 14:35:28.288141 29998 net.cpp:141] Setting up loss2/relu_conv
I0403 14:35:28.288169 29998 net.cpp:148] Top shape: 24 128 4 4 (49152)
I0403 14:35:28.288185 29998 net.cpp:156] Memory required for data: 1208122656
I0403 14:35:28.288202 29998 layer_factory.hpp:77] Creating layer loss2/fc
I0403 14:35:28.288223 29998 net.cpp:91] Creating Layer loss2/fc
I0403 14:35:28.288239 29998 net.cpp:425] loss2/fc <- loss2/conv
I0403 14:35:28.288260 29998 net.cpp:399] loss2/fc -> loss2/fc
I0403 14:35:28.306408 29998 net.cpp:141] Setting up loss2/fc
I0403 14:35:28.306462 29998 net.cpp:148] Top shape: 24 1024 (24576)
I0403 14:35:28.306478 29998 net.cpp:156] Memory required for data: 1208220960
I0403 14:35:28.306499 29998 layer_factory.hpp:77] Creating layer loss2/relu_fc
I0403 14:35:28.306519 29998 net.cpp:91] Creating Layer loss2/relu_fc
I0403 14:35:28.306537 29998 net.cpp:425] loss2/relu_fc <- loss2/fc
I0403 14:35:28.306555 29998 net.cpp:386] loss2/relu_fc -> loss2/fc (in-place)
I0403 14:35:28.306900 29998 net.cpp:141] Setting up loss2/relu_fc
I0403 14:35:28.306926 29998 net.cpp:148] Top shape: 24 1024 (24576)
I0403 14:35:28.306941 29998 net.cpp:156] Memory required for data: 1208319264
I0403 14:35:28.306956 29998 layer_factory.hpp:77] Creating layer loss2/drop_fc
I0403 14:35:28.306974 29998 net.cpp:91] Creating Layer loss2/drop_fc
I0403 14:35:28.306989 29998 net.cpp:425] loss2/drop_fc <- loss2/fc
I0403 14:35:28.307009 29998 net.cpp:386] loss2/drop_fc -> loss2/fc (in-place)
I0403 14:35:28.307059 29998 net.cpp:141] Setting up loss2/drop_fc
I0403 14:35:28.307082 29998 net.cpp:148] Top shape: 24 1024 (24576)
I0403 14:35:28.307097 29998 net.cpp:156] Memory required for data: 1208417568
I0403 14:35:28.307111 29998 layer_factory.hpp:77] Creating layer loss2/classifier_plantvillage
I0403 14:35:28.307132 29998 net.cpp:91] Creating Layer loss2/classifier_plantvillage
I0403 14:35:28.307149 29998 net.cpp:425] loss2/classifier_plantvillage <- loss2/fc
I0403 14:35:28.307173 29998 net.cpp:399] loss2/classifier_plantvillage -> loss2/classifier_plantvillage
I0403 14:35:28.307581 29998 net.cpp:141] Setting up loss2/classifier_plantvillage
I0403 14:35:28.307606 29998 net.cpp:148] Top shape: 24 38 (912)
I0403 14:35:28.307621 29998 net.cpp:156] Memory required for data: 1208421216
I0403 14:35:28.307665 29998 layer_factory.hpp:77] Creating layer loss2/classifier_plantvillage_loss2/classifier_plantvillage_0_split
I0403 14:35:28.307684 29998 net.cpp:91] Creating Layer loss2/classifier_plantvillage_loss2/classifier_plantvillage_0_split
I0403 14:35:28.307703 29998 net.cpp:425] loss2/classifier_plantvillage_loss2/classifier_plantvillage_0_split <- loss2/classifier_plantvillage
I0403 14:35:28.307724 29998 net.cpp:399] loss2/classifier_plantvillage_loss2/classifier_plantvillage_0_split -> loss2/classifier_plantvillage_loss2/classifier_plantvillage_0_split_0
I0403 14:35:28.307746 29998 net.cpp:399] loss2/classifier_plantvillage_loss2/classifier_plantvillage_0_split -> loss2/classifier_plantvillage_loss2/classifier_plantvillage_0_split_1
I0403 14:35:28.307768 29998 net.cpp:399] loss2/classifier_plantvillage_loss2/classifier_plantvillage_0_split -> loss2/classifier_plantvillage_loss2/classifier_plantvillage_0_split_2
I0403 14:35:28.307847 29998 net.cpp:141] Setting up loss2/classifier_plantvillage_loss2/classifier_plantvillage_0_split
I0403 14:35:28.307870 29998 net.cpp:148] Top shape: 24 38 (912)
I0403 14:35:28.307886 29998 net.cpp:148] Top shape: 24 38 (912)
I0403 14:35:28.307904 29998 net.cpp:148] Top shape: 24 38 (912)
I0403 14:35:28.307917 29998 net.cpp:156] Memory required for data: 1208432160
I0403 14:35:28.307931 29998 layer_factory.hpp:77] Creating layer inception_4e/1x1
I0403 14:35:28.307955 29998 net.cpp:91] Creating Layer inception_4e/1x1
I0403 14:35:28.307972 29998 net.cpp:425] inception_4e/1x1 <- inception_4d/output_inception_4d/output_0_split_1
I0403 14:35:28.307993 29998 net.cpp:399] inception_4e/1x1 -> inception_4e/1x1
I0403 14:35:28.309803 29998 net.cpp:141] Setting up inception_4e/1x1
I0403 14:35:28.309830 29998 net.cpp:148] Top shape: 24 256 14 14 (1204224)
I0403 14:35:28.309846 29998 net.cpp:156] Memory required for data: 1213249056
I0403 14:35:28.309864 29998 layer_factory.hpp:77] Creating layer inception_4e/relu_1x1
I0403 14:35:28.309885 29998 net.cpp:91] Creating Layer inception_4e/relu_1x1
I0403 14:35:28.309900 29998 net.cpp:425] inception_4e/relu_1x1 <- inception_4e/1x1
I0403 14:35:28.309918 29998 net.cpp:386] inception_4e/relu_1x1 -> inception_4e/1x1 (in-place)
I0403 14:35:28.310206 29998 net.cpp:141] Setting up inception_4e/relu_1x1
I0403 14:35:28.310233 29998 net.cpp:148] Top shape: 24 256 14 14 (1204224)
I0403 14:35:28.310248 29998 net.cpp:156] Memory required for data: 1218065952
I0403 14:35:28.310263 29998 layer_factory.hpp:77] Creating layer inception_4e/3x3_reduce
I0403 14:35:28.310286 29998 net.cpp:91] Creating Layer inception_4e/3x3_reduce
I0403 14:35:28.310304 29998 net.cpp:425] inception_4e/3x3_reduce <- inception_4d/output_inception_4d/output_0_split_2
I0403 14:35:28.310325 29998 net.cpp:399] inception_4e/3x3_reduce -> inception_4e/3x3_reduce
I0403 14:35:28.312403 29998 net.cpp:141] Setting up inception_4e/3x3_reduce
I0403 14:35:28.312433 29998 net.cpp:148] Top shape: 24 160 14 14 (752640)
I0403 14:35:28.312449 29998 net.cpp:156] Memory required for data: 1221076512
I0403 14:35:28.312469 29998 layer_factory.hpp:77] Creating layer inception_4e/relu_3x3_reduce
I0403 14:35:28.312485 29998 net.cpp:91] Creating Layer inception_4e/relu_3x3_reduce
I0403 14:35:28.312501 29998 net.cpp:425] inception_4e/relu_3x3_reduce <- inception_4e/3x3_reduce
I0403 14:35:28.312520 29998 net.cpp:386] inception_4e/relu_3x3_reduce -> inception_4e/3x3_reduce (in-place)
I0403 14:35:28.312705 29998 net.cpp:141] Setting up inception_4e/relu_3x3_reduce
I0403 14:35:28.312729 29998 net.cpp:148] Top shape: 24 160 14 14 (752640)
I0403 14:35:28.312744 29998 net.cpp:156] Memory required for data: 1224087072
I0403 14:35:28.312760 29998 layer_factory.hpp:77] Creating layer inception_4e/3x3
I0403 14:35:28.312783 29998 net.cpp:91] Creating Layer inception_4e/3x3
I0403 14:35:28.312799 29998 net.cpp:425] inception_4e/3x3 <- inception_4e/3x3_reduce
I0403 14:35:28.312821 29998 net.cpp:399] inception_4e/3x3 -> inception_4e/3x3
I0403 14:35:28.317826 29998 net.cpp:141] Setting up inception_4e/3x3
I0403 14:35:28.317867 29998 net.cpp:148] Top shape: 24 320 14 14 (1505280)
I0403 14:35:28.317884 29998 net.cpp:156] Memory required for data: 1230108192
I0403 14:35:28.317903 29998 layer_factory.hpp:77] Creating layer inception_4e/relu_3x3
I0403 14:35:28.317924 29998 net.cpp:91] Creating Layer inception_4e/relu_3x3
I0403 14:35:28.317942 29998 net.cpp:425] inception_4e/relu_3x3 <- inception_4e/3x3
I0403 14:35:28.317960 29998 net.cpp:386] inception_4e/relu_3x3 -> inception_4e/3x3 (in-place)
I0403 14:35:28.318274 29998 net.cpp:141] Setting up inception_4e/relu_3x3
I0403 14:35:28.318303 29998 net.cpp:148] Top shape: 24 320 14 14 (1505280)
I0403 14:35:28.318320 29998 net.cpp:156] Memory required for data: 1236129312
I0403 14:35:28.318336 29998 layer_factory.hpp:77] Creating layer inception_4e/5x5_reduce
I0403 14:35:28.318364 29998 net.cpp:91] Creating Layer inception_4e/5x5_reduce
I0403 14:35:28.318385 29998 net.cpp:425] inception_4e/5x5_reduce <- inception_4d/output_inception_4d/output_0_split_3
I0403 14:35:28.318405 29998 net.cpp:399] inception_4e/5x5_reduce -> inception_4e/5x5_reduce
I0403 14:35:28.319483 29998 net.cpp:141] Setting up inception_4e/5x5_reduce
I0403 14:35:28.319511 29998 net.cpp:148] Top shape: 24 32 14 14 (150528)
I0403 14:35:28.319527 29998 net.cpp:156] Memory required for data: 1236731424
I0403 14:35:28.319546 29998 layer_factory.hpp:77] Creating layer inception_4e/relu_5x5_reduce
I0403 14:35:28.319568 29998 net.cpp:91] Creating Layer inception_4e/relu_5x5_reduce
I0403 14:35:28.319586 29998 net.cpp:425] inception_4e/relu_5x5_reduce <- inception_4e/5x5_reduce
I0403 14:35:28.319605 29998 net.cpp:386] inception_4e/relu_5x5_reduce -> inception_4e/5x5_reduce (in-place)
I0403 14:35:28.319921 29998 net.cpp:141] Setting up inception_4e/relu_5x5_reduce
I0403 14:35:28.319949 29998 net.cpp:148] Top shape: 24 32 14 14 (150528)
I0403 14:35:28.319965 29998 net.cpp:156] Memory required for data: 1237333536
I0403 14:35:28.319982 29998 layer_factory.hpp:77] Creating layer inception_4e/5x5
I0403 14:35:28.320024 29998 net.cpp:91] Creating Layer inception_4e/5x5
I0403 14:35:28.320044 29998 net.cpp:425] inception_4e/5x5 <- inception_4e/5x5_reduce
I0403 14:35:28.320065 29998 net.cpp:399] inception_4e/5x5 -> inception_4e/5x5
I0403 14:35:28.321982 29998 net.cpp:141] Setting up inception_4e/5x5
I0403 14:35:28.322013 29998 net.cpp:148] Top shape: 24 128 14 14 (602112)
I0403 14:35:28.322031 29998 net.cpp:156] Memory required for data: 1239741984
I0403 14:35:28.322051 29998 layer_factory.hpp:77] Creating layer inception_4e/relu_5x5
I0403 14:35:28.322068 29998 net.cpp:91] Creating Layer inception_4e/relu_5x5
I0403 14:35:28.322085 29998 net.cpp:425] inception_4e/relu_5x5 <- inception_4e/5x5
I0403 14:35:28.322105 29998 net.cpp:386] inception_4e/relu_5x5 -> inception_4e/5x5 (in-place)
I0403 14:35:28.322305 29998 net.cpp:141] Setting up inception_4e/relu_5x5
I0403 14:35:28.322331 29998 net.cpp:148] Top shape: 24 128 14 14 (602112)
I0403 14:35:28.322350 29998 net.cpp:156] Memory required for data: 1242150432
I0403 14:35:28.322366 29998 layer_factory.hpp:77] Creating layer inception_4e/pool
I0403 14:35:28.322386 29998 net.cpp:91] Creating Layer inception_4e/pool
I0403 14:35:28.322402 29998 net.cpp:425] inception_4e/pool <- inception_4d/output_inception_4d/output_0_split_4
I0403 14:35:28.322424 29998 net.cpp:399] inception_4e/pool -> inception_4e/pool
I0403 14:35:28.322497 29998 net.cpp:141] Setting up inception_4e/pool
I0403 14:35:28.322521 29998 net.cpp:148] Top shape: 24 528 14 14 (2483712)
I0403 14:35:28.322537 29998 net.cpp:156] Memory required for data: 1252085280
I0403 14:35:28.322552 29998 layer_factory.hpp:77] Creating layer inception_4e/pool_proj
I0403 14:35:28.322576 29998 net.cpp:91] Creating Layer inception_4e/pool_proj
I0403 14:35:28.322594 29998 net.cpp:425] inception_4e/pool_proj <- inception_4e/pool
I0403 14:35:28.322613 29998 net.cpp:399] inception_4e/pool_proj -> inception_4e/pool_proj
I0403 14:35:28.324131 29998 net.cpp:141] Setting up inception_4e/pool_proj
I0403 14:35:28.324162 29998 net.cpp:148] Top shape: 24 128 14 14 (602112)
I0403 14:35:28.324193 29998 net.cpp:156] Memory required for data: 1254493728
I0403 14:35:28.324213 29998 layer_factory.hpp:77] Creating layer inception_4e/relu_pool_proj
I0403 14:35:28.324231 29998 net.cpp:91] Creating Layer inception_4e/relu_pool_proj
I0403 14:35:28.324249 29998 net.cpp:425] inception_4e/relu_pool_proj <- inception_4e/pool_proj
I0403 14:35:28.324270 29998 net.cpp:386] inception_4e/relu_pool_proj -> inception_4e/pool_proj (in-place)
I0403 14:35:28.324566 29998 net.cpp:141] Setting up inception_4e/relu_pool_proj
I0403 14:35:28.324596 29998 net.cpp:148] Top shape: 24 128 14 14 (602112)
I0403 14:35:28.324612 29998 net.cpp:156] Memory required for data: 1256902176
I0403 14:35:28.324627 29998 layer_factory.hpp:77] Creating layer inception_4e/output
I0403 14:35:28.324645 29998 net.cpp:91] Creating Layer inception_4e/output
I0403 14:35:28.324662 29998 net.cpp:425] inception_4e/output <- inception_4e/1x1
I0403 14:35:28.324678 29998 net.cpp:425] inception_4e/output <- inception_4e/3x3
I0403 14:35:28.324695 29998 net.cpp:425] inception_4e/output <- inception_4e/5x5
I0403 14:35:28.324712 29998 net.cpp:425] inception_4e/output <- inception_4e/pool_proj
I0403 14:35:28.324731 29998 net.cpp:399] inception_4e/output -> inception_4e/output
I0403 14:35:28.324784 29998 net.cpp:141] Setting up inception_4e/output
I0403 14:35:28.324807 29998 net.cpp:148] Top shape: 24 832 14 14 (3913728)
I0403 14:35:28.324822 29998 net.cpp:156] Memory required for data: 1272557088
I0403 14:35:28.324838 29998 layer_factory.hpp:77] Creating layer pool4/3x3_s2
I0403 14:35:28.324859 29998 net.cpp:91] Creating Layer pool4/3x3_s2
I0403 14:35:28.324877 29998 net.cpp:425] pool4/3x3_s2 <- inception_4e/output
I0403 14:35:28.324895 29998 net.cpp:399] pool4/3x3_s2 -> pool4/3x3_s2
I0403 14:35:28.324965 29998 net.cpp:141] Setting up pool4/3x3_s2
I0403 14:35:28.324990 29998 net.cpp:148] Top shape: 24 832 7 7 (978432)
I0403 14:35:28.325006 29998 net.cpp:156] Memory required for data: 1276470816
I0403 14:35:28.325021 29998 layer_factory.hpp:77] Creating layer pool4/3x3_s2_pool4/3x3_s2_0_split
I0403 14:35:28.325039 29998 net.cpp:91] Creating Layer pool4/3x3_s2_pool4/3x3_s2_0_split
I0403 14:35:28.325054 29998 net.cpp:425] pool4/3x3_s2_pool4/3x3_s2_0_split <- pool4/3x3_s2
I0403 14:35:28.325074 29998 net.cpp:399] pool4/3x3_s2_pool4/3x3_s2_0_split -> pool4/3x3_s2_pool4/3x3_s2_0_split_0
I0403 14:35:28.325096 29998 net.cpp:399] pool4/3x3_s2_pool4/3x3_s2_0_split -> pool4/3x3_s2_pool4/3x3_s2_0_split_1
I0403 14:35:28.325117 29998 net.cpp:399] pool4/3x3_s2_pool4/3x3_s2_0_split -> pool4/3x3_s2_pool4/3x3_s2_0_split_2
I0403 14:35:28.325139 29998 net.cpp:399] pool4/3x3_s2_pool4/3x3_s2_0_split -> pool4/3x3_s2_pool4/3x3_s2_0_split_3
I0403 14:35:28.325232 29998 net.cpp:141] Setting up pool4/3x3_s2_pool4/3x3_s2_0_split
I0403 14:35:28.325258 29998 net.cpp:148] Top shape: 24 832 7 7 (978432)
I0403 14:35:28.325274 29998 net.cpp:148] Top shape: 24 832 7 7 (978432)
I0403 14:35:28.325291 29998 net.cpp:148] Top shape: 24 832 7 7 (978432)
I0403 14:35:28.325306 29998 net.cpp:148] Top shape: 24 832 7 7 (978432)
I0403 14:35:28.325321 29998 net.cpp:156] Memory required for data: 1292125728
I0403 14:35:28.325336 29998 layer_factory.hpp:77] Creating layer inception_5a/1x1
I0403 14:35:28.325363 29998 net.cpp:91] Creating Layer inception_5a/1x1
I0403 14:35:28.325384 29998 net.cpp:425] inception_5a/1x1 <- pool4/3x3_s2_pool4/3x3_s2_0_split_0
I0403 14:35:28.325405 29998 net.cpp:399] inception_5a/1x1 -> inception_5a/1x1
I0403 14:35:28.328258 29998 net.cpp:141] Setting up inception_5a/1x1
I0403 14:35:28.328289 29998 net.cpp:148] Top shape: 24 256 7 7 (301056)
I0403 14:35:28.328305 29998 net.cpp:156] Memory required for data: 1293329952
I0403 14:35:28.328325 29998 layer_factory.hpp:77] Creating layer inception_5a/relu_1x1
I0403 14:35:28.328343 29998 net.cpp:91] Creating Layer inception_5a/relu_1x1
I0403 14:35:28.328366 29998 net.cpp:425] inception_5a/relu_1x1 <- inception_5a/1x1
I0403 14:35:28.328385 29998 net.cpp:386] inception_5a/relu_1x1 -> inception_5a/1x1 (in-place)
I0403 14:35:28.328701 29998 net.cpp:141] Setting up inception_5a/relu_1x1
I0403 14:35:28.328728 29998 net.cpp:148] Top shape: 24 256 7 7 (301056)
I0403 14:35:28.328743 29998 net.cpp:156] Memory required for data: 1294534176
I0403 14:35:28.328760 29998 layer_factory.hpp:77] Creating layer inception_5a/3x3_reduce
I0403 14:35:28.328783 29998 net.cpp:91] Creating Layer inception_5a/3x3_reduce
I0403 14:35:28.328802 29998 net.cpp:425] inception_5a/3x3_reduce <- pool4/3x3_s2_pool4/3x3_s2_0_split_1
I0403 14:35:28.328824 29998 net.cpp:399] inception_5a/3x3_reduce -> inception_5a/3x3_reduce
I0403 14:35:28.331284 29998 net.cpp:141] Setting up inception_5a/3x3_reduce
I0403 14:35:28.331315 29998 net.cpp:148] Top shape: 24 160 7 7 (188160)
I0403 14:35:28.331331 29998 net.cpp:156] Memory required for data: 1295286816
I0403 14:35:28.331362 29998 layer_factory.hpp:77] Creating layer inception_5a/relu_3x3_reduce
I0403 14:35:28.331384 29998 net.cpp:91] Creating Layer inception_5a/relu_3x3_reduce
I0403 14:35:28.331404 29998 net.cpp:425] inception_5a/relu_3x3_reduce <- inception_5a/3x3_reduce
I0403 14:35:28.331423 29998 net.cpp:386] inception_5a/relu_3x3_reduce -> inception_5a/3x3_reduce (in-place)
I0403 14:35:28.331615 29998 net.cpp:141] Setting up inception_5a/relu_3x3_reduce
I0403 14:35:28.331640 29998 net.cpp:148] Top shape: 24 160 7 7 (188160)
I0403 14:35:28.331655 29998 net.cpp:156] Memory required for data: 1296039456
I0403 14:35:28.331671 29998 layer_factory.hpp:77] Creating layer inception_5a/3x3
I0403 14:35:28.331696 29998 net.cpp:91] Creating Layer inception_5a/3x3
I0403 14:35:28.331713 29998 net.cpp:425] inception_5a/3x3 <- inception_5a/3x3_reduce
I0403 14:35:28.331735 29998 net.cpp:399] inception_5a/3x3 -> inception_5a/3x3
I0403 14:35:28.336803 29998 net.cpp:141] Setting up inception_5a/3x3
I0403 14:35:28.336838 29998 net.cpp:148] Top shape: 24 320 7 7 (376320)
I0403 14:35:28.336854 29998 net.cpp:156] Memory required for data: 1297544736
I0403 14:35:28.336874 29998 layer_factory.hpp:77] Creating layer inception_5a/relu_3x3
I0403 14:35:28.336894 29998 net.cpp:91] Creating Layer inception_5a/relu_3x3
I0403 14:35:28.336910 29998 net.cpp:425] inception_5a/relu_3x3 <- inception_5a/3x3
I0403 14:35:28.336930 29998 net.cpp:386] inception_5a/relu_3x3 -> inception_5a/3x3 (in-place)
I0403 14:35:28.337232 29998 net.cpp:141] Setting up inception_5a/relu_3x3
I0403 14:35:28.337261 29998 net.cpp:148] Top shape: 24 320 7 7 (376320)
I0403 14:35:28.337277 29998 net.cpp:156] Memory required for data: 1299050016
I0403 14:35:28.337296 29998 layer_factory.hpp:77] Creating layer inception_5a/5x5_reduce
I0403 14:35:28.337319 29998 net.cpp:91] Creating Layer inception_5a/5x5_reduce
I0403 14:35:28.337337 29998 net.cpp:425] inception_5a/5x5_reduce <- pool4/3x3_s2_pool4/3x3_s2_0_split_2
I0403 14:35:28.337368 29998 net.cpp:399] inception_5a/5x5_reduce -> inception_5a/5x5_reduce
I0403 14:35:28.338552 29998 net.cpp:141] Setting up inception_5a/5x5_reduce
I0403 14:35:28.338582 29998 net.cpp:148] Top shape: 24 32 7 7 (37632)
I0403 14:35:28.338598 29998 net.cpp:156] Memory required for data: 1299200544
I0403 14:35:28.338618 29998 layer_factory.hpp:77] Creating layer inception_5a/relu_5x5_reduce
I0403 14:35:28.338636 29998 net.cpp:91] Creating Layer inception_5a/relu_5x5_reduce
I0403 14:35:28.338654 29998 net.cpp:425] inception_5a/relu_5x5_reduce <- inception_5a/5x5_reduce
I0403 14:35:28.338675 29998 net.cpp:386] inception_5a/relu_5x5_reduce -> inception_5a/5x5_reduce (in-place)
I0403 14:35:28.338980 29998 net.cpp:141] Setting up inception_5a/relu_5x5_reduce
I0403 14:35:28.339007 29998 net.cpp:148] Top shape: 24 32 7 7 (37632)
I0403 14:35:28.339023 29998 net.cpp:156] Memory required for data: 1299351072
I0403 14:35:28.339040 29998 layer_factory.hpp:77] Creating layer inception_5a/5x5
I0403 14:35:28.339061 29998 net.cpp:91] Creating Layer inception_5a/5x5
I0403 14:35:28.339081 29998 net.cpp:425] inception_5a/5x5 <- inception_5a/5x5_reduce
I0403 14:35:28.339102 29998 net.cpp:399] inception_5a/5x5 -> inception_5a/5x5
I0403 14:35:28.340862 29998 net.cpp:141] Setting up inception_5a/5x5
I0403 14:35:28.340909 29998 net.cpp:148] Top shape: 24 128 7 7 (150528)
I0403 14:35:28.340926 29998 net.cpp:156] Memory required for data: 1299953184
I0403 14:35:28.340947 29998 layer_factory.hpp:77] Creating layer inception_5a/relu_5x5
I0403 14:35:28.340967 29998 net.cpp:91] Creating Layer inception_5a/relu_5x5
I0403 14:35:28.340984 29998 net.cpp:425] inception_5a/relu_5x5 <- inception_5a/5x5
I0403 14:35:28.341006 29998 net.cpp:386] inception_5a/relu_5x5 -> inception_5a/5x5 (in-place)
I0403 14:35:28.341212 29998 net.cpp:141] Setting up inception_5a/relu_5x5
I0403 14:35:28.341238 29998 net.cpp:148] Top shape: 24 128 7 7 (150528)
I0403 14:35:28.341253 29998 net.cpp:156] Memory required for data: 1300555296
I0403 14:35:28.341269 29998 layer_factory.hpp:77] Creating layer inception_5a/pool
I0403 14:35:28.341287 29998 net.cpp:91] Creating Layer inception_5a/pool
I0403 14:35:28.341305 29998 net.cpp:425] inception_5a/pool <- pool4/3x3_s2_pool4/3x3_s2_0_split_3
I0403 14:35:28.341325 29998 net.cpp:399] inception_5a/pool -> inception_5a/pool
I0403 14:35:28.341404 29998 net.cpp:141] Setting up inception_5a/pool
I0403 14:35:28.341431 29998 net.cpp:148] Top shape: 24 832 7 7 (978432)
I0403 14:35:28.341446 29998 net.cpp:156] Memory required for data: 1304469024
I0403 14:35:28.341461 29998 layer_factory.hpp:77] Creating layer inception_5a/pool_proj
I0403 14:35:28.341483 29998 net.cpp:91] Creating Layer inception_5a/pool_proj
I0403 14:35:28.341502 29998 net.cpp:425] inception_5a/pool_proj <- inception_5a/pool
I0403 14:35:28.341524 29998 net.cpp:399] inception_5a/pool_proj -> inception_5a/pool_proj
I0403 14:35:28.343827 29998 net.cpp:141] Setting up inception_5a/pool_proj
I0403 14:35:28.343860 29998 net.cpp:148] Top shape: 24 128 7 7 (150528)
I0403 14:35:28.343876 29998 net.cpp:156] Memory required for data: 1305071136
I0403 14:35:28.343896 29998 layer_factory.hpp:77] Creating layer inception_5a/relu_pool_proj
I0403 14:35:28.343914 29998 net.cpp:91] Creating Layer inception_5a/relu_pool_proj
I0403 14:35:28.343932 29998 net.cpp:425] inception_5a/relu_pool_proj <- inception_5a/pool_proj
I0403 14:35:28.343950 29998 net.cpp:386] inception_5a/relu_pool_proj -> inception_5a/pool_proj (in-place)
I0403 14:35:28.344249 29998 net.cpp:141] Setting up inception_5a/relu_pool_proj
I0403 14:35:28.344279 29998 net.cpp:148] Top shape: 24 128 7 7 (150528)
I0403 14:35:28.344295 29998 net.cpp:156] Memory required for data: 1305673248
I0403 14:35:28.344311 29998 layer_factory.hpp:77] Creating layer inception_5a/output
I0403 14:35:28.344331 29998 net.cpp:91] Creating Layer inception_5a/output
I0403 14:35:28.344352 29998 net.cpp:425] inception_5a/output <- inception_5a/1x1
I0403 14:35:28.344369 29998 net.cpp:425] inception_5a/output <- inception_5a/3x3
I0403 14:35:28.344386 29998 net.cpp:425] inception_5a/output <- inception_5a/5x5
I0403 14:35:28.344403 29998 net.cpp:425] inception_5a/output <- inception_5a/pool_proj
I0403 14:35:28.344420 29998 net.cpp:399] inception_5a/output -> inception_5a/output
I0403 14:35:28.344477 29998 net.cpp:141] Setting up inception_5a/output
I0403 14:35:28.344502 29998 net.cpp:148] Top shape: 24 832 7 7 (978432)
I0403 14:35:28.344518 29998 net.cpp:156] Memory required for data: 1309586976
I0403 14:35:28.344534 29998 layer_factory.hpp:77] Creating layer inception_5a/output_inception_5a/output_0_split
I0403 14:35:28.344557 29998 net.cpp:91] Creating Layer inception_5a/output_inception_5a/output_0_split
I0403 14:35:28.344574 29998 net.cpp:425] inception_5a/output_inception_5a/output_0_split <- inception_5a/output
I0403 14:35:28.344593 29998 net.cpp:399] inception_5a/output_inception_5a/output_0_split -> inception_5a/output_inception_5a/output_0_split_0
I0403 14:35:28.344612 29998 net.cpp:399] inception_5a/output_inception_5a/output_0_split -> inception_5a/output_inception_5a/output_0_split_1
I0403 14:35:28.344635 29998 net.cpp:399] inception_5a/output_inception_5a/output_0_split -> inception_5a/output_inception_5a/output_0_split_2
I0403 14:35:28.344656 29998 net.cpp:399] inception_5a/output_inception_5a/output_0_split -> inception_5a/output_inception_5a/output_0_split_3
I0403 14:35:28.344772 29998 net.cpp:141] Setting up inception_5a/output_inception_5a/output_0_split
I0403 14:35:28.344797 29998 net.cpp:148] Top shape: 24 832 7 7 (978432)
I0403 14:35:28.344815 29998 net.cpp:148] Top shape: 24 832 7 7 (978432)
I0403 14:35:28.344830 29998 net.cpp:148] Top shape: 24 832 7 7 (978432)
I0403 14:35:28.344846 29998 net.cpp:148] Top shape: 24 832 7 7 (978432)
I0403 14:35:28.344861 29998 net.cpp:156] Memory required for data: 1325241888
I0403 14:35:28.344876 29998 layer_factory.hpp:77] Creating layer inception_5b/1x1
I0403 14:35:28.344897 29998 net.cpp:91] Creating Layer inception_5b/1x1
I0403 14:35:28.344918 29998 net.cpp:425] inception_5b/1x1 <- inception_5a/output_inception_5a/output_0_split_0
I0403 14:35:28.344938 29998 net.cpp:399] inception_5b/1x1 -> inception_5b/1x1
I0403 14:35:28.348881 29998 net.cpp:141] Setting up inception_5b/1x1
I0403 14:35:28.348913 29998 net.cpp:148] Top shape: 24 384 7 7 (451584)
I0403 14:35:28.348930 29998 net.cpp:156] Memory required for data: 1327048224
I0403 14:35:28.348949 29998 layer_factory.hpp:77] Creating layer inception_5b/relu_1x1
I0403 14:35:28.348970 29998 net.cpp:91] Creating Layer inception_5b/relu_1x1
I0403 14:35:28.348989 29998 net.cpp:425] inception_5b/relu_1x1 <- inception_5b/1x1
I0403 14:35:28.349007 29998 net.cpp:386] inception_5b/relu_1x1 -> inception_5b/1x1 (in-place)
I0403 14:35:28.349325 29998 net.cpp:141] Setting up inception_5b/relu_1x1
I0403 14:35:28.349359 29998 net.cpp:148] Top shape: 24 384 7 7 (451584)
I0403 14:35:28.349376 29998 net.cpp:156] Memory required for data: 1328854560
I0403 14:35:28.349392 29998 layer_factory.hpp:77] Creating layer inception_5b/3x3_reduce
I0403 14:35:28.349419 29998 net.cpp:91] Creating Layer inception_5b/3x3_reduce
I0403 14:35:28.349439 29998 net.cpp:425] inception_5b/3x3_reduce <- inception_5a/output_inception_5a/output_0_split_1
I0403 14:35:28.349460 29998 net.cpp:399] inception_5b/3x3_reduce -> inception_5b/3x3_reduce
I0403 14:35:28.352252 29998 net.cpp:141] Setting up inception_5b/3x3_reduce
I0403 14:35:28.352284 29998 net.cpp:148] Top shape: 24 192 7 7 (225792)
I0403 14:35:28.352303 29998 net.cpp:156] Memory required for data: 1329757728
I0403 14:35:28.352324 29998 layer_factory.hpp:77] Creating layer inception_5b/relu_3x3_reduce
I0403 14:35:28.352342 29998 net.cpp:91] Creating Layer inception_5b/relu_3x3_reduce
I0403 14:35:28.352366 29998 net.cpp:425] inception_5b/relu_3x3_reduce <- inception_5b/3x3_reduce
I0403 14:35:28.352386 29998 net.cpp:386] inception_5b/relu_3x3_reduce -> inception_5b/3x3_reduce (in-place)
I0403 14:35:28.352584 29998 net.cpp:141] Setting up inception_5b/relu_3x3_reduce
I0403 14:35:28.352610 29998 net.cpp:148] Top shape: 24 192 7 7 (225792)
I0403 14:35:28.352627 29998 net.cpp:156] Memory required for data: 1330660896
I0403 14:35:28.352643 29998 layer_factory.hpp:77] Creating layer inception_5b/3x3
I0403 14:35:28.352666 29998 net.cpp:91] Creating Layer inception_5b/3x3
I0403 14:35:28.352686 29998 net.cpp:425] inception_5b/3x3 <- inception_5b/3x3_reduce
I0403 14:35:28.352710 29998 net.cpp:399] inception_5b/3x3 -> inception_5b/3x3
I0403 14:35:28.359678 29998 net.cpp:141] Setting up inception_5b/3x3
I0403 14:35:28.359714 29998 net.cpp:148] Top shape: 24 384 7 7 (451584)
I0403 14:35:28.359730 29998 net.cpp:156] Memory required for data: 1332467232
I0403 14:35:28.359750 29998 layer_factory.hpp:77] Creating layer inception_5b/relu_3x3
I0403 14:35:28.359769 29998 net.cpp:91] Creating Layer inception_5b/relu_3x3
I0403 14:35:28.359788 29998 net.cpp:425] inception_5b/relu_3x3 <- inception_5b/3x3
I0403 14:35:28.359807 29998 net.cpp:386] inception_5b/relu_3x3 -> inception_5b/3x3 (in-place)
I0403 14:35:28.360116 29998 net.cpp:141] Setting up inception_5b/relu_3x3
I0403 14:35:28.360147 29998 net.cpp:148] Top shape: 24 384 7 7 (451584)
I0403 14:35:28.360163 29998 net.cpp:156] Memory required for data: 1334273568
I0403 14:35:28.360178 29998 layer_factory.hpp:77] Creating layer inception_5b/5x5_reduce
I0403 14:35:28.360222 29998 net.cpp:91] Creating Layer inception_5b/5x5_reduce
I0403 14:35:28.360242 29998 net.cpp:425] inception_5b/5x5_reduce <- inception_5a/output_inception_5a/output_0_split_2
I0403 14:35:28.360265 29998 net.cpp:399] inception_5b/5x5_reduce -> inception_5b/5x5_reduce
I0403 14:35:28.361601 29998 net.cpp:141] Setting up inception_5b/5x5_reduce
I0403 14:35:28.361634 29998 net.cpp:148] Top shape: 24 48 7 7 (56448)
I0403 14:35:28.361650 29998 net.cpp:156] Memory required for data: 1334499360
I0403 14:35:28.361670 29998 layer_factory.hpp:77] Creating layer inception_5b/relu_5x5_reduce
I0403 14:35:28.361688 29998 net.cpp:91] Creating Layer inception_5b/relu_5x5_reduce
I0403 14:35:28.361706 29998 net.cpp:425] inception_5b/relu_5x5_reduce <- inception_5b/5x5_reduce
I0403 14:35:28.361726 29998 net.cpp:386] inception_5b/relu_5x5_reduce -> inception_5b/5x5_reduce (in-place)
I0403 14:35:28.362118 29998 net.cpp:141] Setting up inception_5b/relu_5x5_reduce
I0403 14:35:28.362145 29998 net.cpp:148] Top shape: 24 48 7 7 (56448)
I0403 14:35:28.362161 29998 net.cpp:156] Memory required for data: 1334725152
I0403 14:35:28.362176 29998 layer_factory.hpp:77] Creating layer inception_5b/5x5
I0403 14:35:28.362198 29998 net.cpp:91] Creating Layer inception_5b/5x5
I0403 14:35:28.362216 29998 net.cpp:425] inception_5b/5x5 <- inception_5b/5x5_reduce
I0403 14:35:28.362236 29998 net.cpp:399] inception_5b/5x5 -> inception_5b/5x5
I0403 14:35:28.364421 29998 net.cpp:141] Setting up inception_5b/5x5
I0403 14:35:28.364459 29998 net.cpp:148] Top shape: 24 128 7 7 (150528)
I0403 14:35:28.364475 29998 net.cpp:156] Memory required for data: 1335327264
I0403 14:35:28.364501 29998 layer_factory.hpp:77] Creating layer inception_5b/relu_5x5
I0403 14:35:28.364519 29998 net.cpp:91] Creating Layer inception_5b/relu_5x5
I0403 14:35:28.364537 29998 net.cpp:425] inception_5b/relu_5x5 <- inception_5b/5x5
I0403 14:35:28.364557 29998 net.cpp:386] inception_5b/relu_5x5 -> inception_5b/5x5 (in-place)
I0403 14:35:28.364760 29998 net.cpp:141] Setting up inception_5b/relu_5x5
I0403 14:35:28.364786 29998 net.cpp:148] Top shape: 24 128 7 7 (150528)
I0403 14:35:28.364802 29998 net.cpp:156] Memory required for data: 1335929376
I0403 14:35:28.364819 29998 layer_factory.hpp:77] Creating layer inception_5b/pool
I0403 14:35:28.364840 29998 net.cpp:91] Creating Layer inception_5b/pool
I0403 14:35:28.364857 29998 net.cpp:425] inception_5b/pool <- inception_5a/output_inception_5a/output_0_split_3
I0403 14:35:28.364876 29998 net.cpp:399] inception_5b/pool -> inception_5b/pool
I0403 14:35:28.364953 29998 net.cpp:141] Setting up inception_5b/pool
I0403 14:35:28.364977 29998 net.cpp:148] Top shape: 24 832 7 7 (978432)
I0403 14:35:28.364994 29998 net.cpp:156] Memory required for data: 1339843104
I0403 14:35:28.365008 29998 layer_factory.hpp:77] Creating layer inception_5b/pool_proj
I0403 14:35:28.365031 29998 net.cpp:91] Creating Layer inception_5b/pool_proj
I0403 14:35:28.365048 29998 net.cpp:425] inception_5b/pool_proj <- inception_5b/pool
I0403 14:35:28.365070 29998 net.cpp:399] inception_5b/pool_proj -> inception_5b/pool_proj
I0403 14:35:28.367431 29998 net.cpp:141] Setting up inception_5b/pool_proj
I0403 14:35:28.367463 29998 net.cpp:148] Top shape: 24 128 7 7 (150528)
I0403 14:35:28.367480 29998 net.cpp:156] Memory required for data: 1340445216
I0403 14:35:28.367499 29998 layer_factory.hpp:77] Creating layer inception_5b/relu_pool_proj
I0403 14:35:28.367518 29998 net.cpp:91] Creating Layer inception_5b/relu_pool_proj
I0403 14:35:28.367537 29998 net.cpp:425] inception_5b/relu_pool_proj <- inception_5b/pool_proj
I0403 14:35:28.367558 29998 net.cpp:386] inception_5b/relu_pool_proj -> inception_5b/pool_proj (in-place)
I0403 14:35:28.367856 29998 net.cpp:141] Setting up inception_5b/relu_pool_proj
I0403 14:35:28.367885 29998 net.cpp:148] Top shape: 24 128 7 7 (150528)
I0403 14:35:28.367902 29998 net.cpp:156] Memory required for data: 1341047328
I0403 14:35:28.367918 29998 layer_factory.hpp:77] Creating layer inception_5b/output
I0403 14:35:28.367935 29998 net.cpp:91] Creating Layer inception_5b/output
I0403 14:35:28.367967 29998 net.cpp:425] inception_5b/output <- inception_5b/1x1
I0403 14:35:28.367986 29998 net.cpp:425] inception_5b/output <- inception_5b/3x3
I0403 14:35:28.368002 29998 net.cpp:425] inception_5b/output <- inception_5b/5x5
I0403 14:35:28.368021 29998 net.cpp:425] inception_5b/output <- inception_5b/pool_proj
I0403 14:35:28.368042 29998 net.cpp:399] inception_5b/output -> inception_5b/output
I0403 14:35:28.368098 29998 net.cpp:141] Setting up inception_5b/output
I0403 14:35:28.368124 29998 net.cpp:148] Top shape: 24 1024 7 7 (1204224)
I0403 14:35:28.368139 29998 net.cpp:156] Memory required for data: 1345864224
I0403 14:35:28.368154 29998 layer_factory.hpp:77] Creating layer pool5/7x7_s1
I0403 14:35:28.368175 29998 net.cpp:91] Creating Layer pool5/7x7_s1
I0403 14:35:28.368193 29998 net.cpp:425] pool5/7x7_s1 <- inception_5b/output
I0403 14:35:28.368216 29998 net.cpp:399] pool5/7x7_s1 -> pool5/7x7_s1
I0403 14:35:28.368439 29998 net.cpp:141] Setting up pool5/7x7_s1
I0403 14:35:28.368466 29998 net.cpp:148] Top shape: 24 1024 1 1 (24576)
I0403 14:35:28.368482 29998 net.cpp:156] Memory required for data: 1345962528
I0403 14:35:28.368499 29998 layer_factory.hpp:77] Creating layer pool5/drop_7x7_s1
I0403 14:35:28.368517 29998 net.cpp:91] Creating Layer pool5/drop_7x7_s1
I0403 14:35:28.368533 29998 net.cpp:425] pool5/drop_7x7_s1 <- pool5/7x7_s1
I0403 14:35:28.368553 29998 net.cpp:386] pool5/drop_7x7_s1 -> pool5/7x7_s1 (in-place)
I0403 14:35:28.368614 29998 net.cpp:141] Setting up pool5/drop_7x7_s1
I0403 14:35:28.368638 29998 net.cpp:148] Top shape: 24 1024 1 1 (24576)
I0403 14:35:28.368654 29998 net.cpp:156] Memory required for data: 1346060832
I0403 14:35:28.368669 29998 layer_factory.hpp:77] Creating layer loss3/classifier_plantvillage
I0403 14:35:28.368691 29998 net.cpp:91] Creating Layer loss3/classifier_plantvillage
I0403 14:35:28.368710 29998 net.cpp:425] loss3/classifier_plantvillage <- pool5/7x7_s1
I0403 14:35:28.368731 29998 net.cpp:399] loss3/classifier_plantvillage -> loss3/classifier_plantvillage
I0403 14:35:28.369163 29998 net.cpp:141] Setting up loss3/classifier_plantvillage
I0403 14:35:28.369187 29998 net.cpp:148] Top shape: 24 38 (912)
I0403 14:35:28.369204 29998 net.cpp:156] Memory required for data: 1346064480
I0403 14:35:28.369222 29998 layer_factory.hpp:77] Creating layer loss3/classifier_plantvillage_loss3/classifier_plantvillage_0_split
I0403 14:35:28.369245 29998 net.cpp:91] Creating Layer loss3/classifier_plantvillage_loss3/classifier_plantvillage_0_split
I0403 14:35:28.369263 29998 net.cpp:425] loss3/classifier_plantvillage_loss3/classifier_plantvillage_0_split <- loss3/classifier_plantvillage
I0403 14:35:28.369282 29998 net.cpp:399] loss3/classifier_plantvillage_loss3/classifier_plantvillage_0_split -> loss3/classifier_plantvillage_loss3/classifier_plantvillage_0_split_0
I0403 14:35:28.369302 29998 net.cpp:399] loss3/classifier_plantvillage_loss3/classifier_plantvillage_0_split -> loss3/classifier_plantvillage_loss3/classifier_plantvillage_0_split_1
I0403 14:35:28.369323 29998 net.cpp:399] loss3/classifier_plantvillage_loss3/classifier_plantvillage_0_split -> loss3/classifier_plantvillage_loss3/classifier_plantvillage_0_split_2
I0403 14:35:28.369351 29998 net.cpp:399] loss3/classifier_plantvillage_loss3/classifier_plantvillage_0_split -> loss3/classifier_plantvillage_loss3/classifier_plantvillage_0_split_3
I0403 14:35:28.369458 29998 net.cpp:141] Setting up loss3/classifier_plantvillage_loss3/classifier_plantvillage_0_split
I0403 14:35:28.369483 29998 net.cpp:148] Top shape: 24 38 (912)
I0403 14:35:28.369499 29998 net.cpp:148] Top shape: 24 38 (912)
I0403 14:35:28.369516 29998 net.cpp:148] Top shape: 24 38 (912)
I0403 14:35:28.369532 29998 net.cpp:148] Top shape: 24 38 (912)
I0403 14:35:28.369546 29998 net.cpp:156] Memory required for data: 1346079072
I0403 14:35:28.369561 29998 layer_factory.hpp:77] Creating layer loss1/loss
I0403 14:35:28.369583 29998 net.cpp:91] Creating Layer loss1/loss
I0403 14:35:28.369602 29998 net.cpp:425] loss1/loss <- loss1/classifier_plantvillage_loss1/classifier_plantvillage_0_split_0
I0403 14:35:28.369635 29998 net.cpp:425] loss1/loss <- label_data_1_split_0
…
