…
I0403 15:19:25.625653 31461 net.cpp:313] The NetState phase (1) differed from the phase (0) specified by a rule in layer data
I0403 15:19:25.626772 31461 net.cpp:49] Initializing net from parameters: 
state {
  phase: TEST
}
layer {
  name: "data"
  type: "Data"
  top: "data"
  top: "label"
  include {
    phase: TEST
  }
  transform_param {
    mirror: false
    crop_size: 224
    mean_file: "/home/mohanty/data/final_dataset/lmdb/color-20-80/mean.binaryproto"
  }
  data_param {
    source: "/home/mohanty/data/final_dataset/lmdb/color-20-80/test_db"
    batch_size: 24
    backend: LMDB
  }
}
layer {
  name: "conv1/7x7_s2"
  type: "Convolution"
  bottom: "data"
  top: "conv1/7x7_s2"
  param {
    lr_mult: 1
    decay_mult: 1
  }
  param {
    lr_mult: 2
    decay_mult: 0
  }
  convolution_param {
    num_output: 64
    pad: 3
    kernel_size: 7
    stride: 2
    weight_filler {
      type: "xavier"
      std: 0.1
    }
    bias_filler {
      type: "constant"
      value: 0.2
    }
  }
}
layer {
  name: "conv1/relu_7x7"
  type: "ReLU"
  bottom: "conv1/7x7_s2"
  top: "conv1/7x7_s2"
}
layer {
  name: "pool1/3x3_s2"
  type: "Pooling"
  bottom: "conv1/7x7_s2"
  top: "pool1/3x3_s2"
  pooling_param {
    pool: MAX
    kernel_size: 3
    stride: 2
  }
}
layer {
  name: "pool1/norm1"
  type: "LRN"
  bottom: "pool1/3x3_s2"
  top: "pool1/norm1"
  lrn_param {
    local_size: 5
    alpha: 0.0001
    beta: 0.75
  }
}
layer {
  name: "conv2/3x3_reduce"
  type: "Convolution"
  bottom: "pool1/norm1"
  top: "conv2/3x3_reduce"
  param {
    lr_mult: 1
    decay_mult: 1
  }
  param {
    lr_mult: 2
    decay_mult: 0
  }
  convolution_param {
    num_output: 64
    kernel_size: 1
    weight_filler {
      type: "xavier"
      std: 0.1
    }
    bias_filler {
      type: "constant"
      value: 0.2
    }
  }
}
layer {
  name: "conv2/relu_3x3_reduce"
  type: "ReLU"
  bottom: "conv2/3x3_reduce"
  top: "conv2/3x3_reduce"
}
layer {
  name: "conv2/3x3"
  type: "Convolution"
  bottom: "conv2/3x3_reduce"
  top: "conv2/3x3"
  param {
    lr_mult: 1
    decay_mult: 1
  }
  param {
    lr_mult: 2
    decay_mult: 0
  }
  convolution_param {
    num_output: 192
    pad: 1
    kernel_size: 3
    weight_filler {
      type: "xavier"
      std: 0.03
    }
    bias_filler {
      type: "constant"
      value: 0.2
    }
  }
}
layer {
  name: "conv2/relu_3x3"
  type: "ReLU"
  bottom: "conv2/3x3"
  top: "conv2/3x3"
}
layer {
  name: "conv2/norm2"
  type: "LRN"
  bottom: "conv2/3x3"
  top: "conv2/norm2"
  lrn_param {
    local_size: 5
    alpha: 0.0001
    beta: 0.75
  }
}
layer {
  name: "pool2/3x3_s2"
  type: "Pooling"
  bottom: "conv2/norm2"
  top: "pool2/3x3_s2"
  pooling_param {
    pool: MAX
    kernel_size: 3
    stride: 2
  }
}
layer {
  name: "inception_3a/1x1"
  type: "Convolution"
  bottom: "pool2/3x3_s2"
  top: "inception_3a/1x1"
  param {
    lr_mult: 1
    decay_mult: 1
  }
  param {
    lr_mult: 2
    decay_mult: 0
  }
  convolution_param {
    num_output: 64
    kernel_size: 1
    weight_filler {
      type: "xavier"
      std: 0.03
    }
    bias_filler {
      type: "constant"
      value: 0.2
    }
  }
}
layer {
  name: "inception_3a/relu_1x1"
  type: "ReLU"
  bottom: "inception_3a/1x1"
  top: "inception_3a/1x1"
}
layer {
  name: "inception_3a/3x3_reduce"
  type: "Convolution"
  bottom: "pool2/3x3_s2"
  top: "inception_3a/3x3_reduce"
  param {
    lr_mult: 1
    decay_mult: 1
  }
  param {
    lr_mult: 2
    decay_mult: 0
  }
  convolution_param {
    num_output: 96
    kernel_size: 1
    weight_filler {
      type: "xavier"
      std: 0.09
    }
    bias_filler {
      type: "constant"
      value: 0.2
    }
  }
}
layer {
  name: "inception_3a/relu_3x3_reduce"
  type: "ReLU"
  bottom: "inception_3a/3x3_reduce"
  top: "inception_3a/3x3_reduce"
}
layer {
  name: "inception_3a/3x3"
  type: "Convolution"
  bottom: "inception_3a/3x3_reduce"
  top: "inception_3a/3x3"
  param {
    lr_mult: 1
    decay_mult: 1
  }
  param {
    lr_mult: 2
    decay_mult: 0
  }
  convolution_param {
    num_output: 128
    pad: 1
    kernel_size: 3
    weight_filler {
      type: "xavier"
      std: 0.03
    }
    bias_filler {
      type: "constant"
      value: 0.2
    }
  }
}
layer {
  name: "inception_3a/relu_3x3"
  type: "ReLU"
  bottom: "inception_3a/3x3"
  top: "inception_3a/3x3"
}
layer {
  name: "inception_3a/5x5_reduce"
  type: "Convolution"
  bottom: "pool2/3x3_s2"
  top: "inception_3a/5x5_reduce"
  param {
    lr_mult: 1
    decay_mult: 1
  }
  param {
    lr_mult: 2
    decay_mult: 0
  }
  convolution_param {
    num_output: 16
    kernel_size: 1
    weight_filler {
      type: "xavier"
      std: 0.2
    }
    bias_filler {
      type: "constant"
      value: 0.2
    }
  }
}
layer {
  name: "inception_3a/relu_5x5_reduce"
  type: "ReLU"
  bottom: "inception_3a/5x5_reduce"
  top: "inception_3a/5x5_reduce"
}
layer {
  name: "inception_3a/5x5"
  type: "Convolution"
  bottom: "inception_3a/5x5_reduce"
  top: "inception_3a/5x5"
  param {
    lr_mult: 1
    decay_mult: 1
  }
  param {
    lr_mult: 2
    decay_mult: 0
  }
  convolution_param {
    num_output: 32
    pad: 2
    kernel_size: 5
    weight_filler {
      type: "xavier"
      std: 0.03
    }
    bias_filler {
      type: "constant"
      value: 0.2
    }
  }
}
layer {
  name: "inception_3a/relu_5x5"
  type: "ReLU"
  bottom: "inception_3a/5x5"
  top: "inception_3a/5x5"
}
layer {
  name: "inception_3a/pool"
  type: "Pooling"
  bottom: "pool2/3x3_s2"
  top: "inception_3a/pool"
  pooling_param {
    pool: MAX
    kernel_size: 3
    stride: 1
    pad: 1
  }
}
layer {
  name: "inception_3a/pool_proj"
  type: "Convolution"
  bottom: "inception_3a/pool"
  top: "inception_3a/pool_proj"
  param {
    lr_mult: 1
    decay_mult: 1
  }
  param {
    lr_mult: 2
    decay_mult: 0
  }
  convolution_param {
    num_output: 32
    kernel_size: 1
    weight_filler {
      type: "xavier"
      std: 0.1
    }
    bias_filler {
      type: "constant"
      value: 0.2
    }
  }
}
layer {
  name: "inception_3a/relu_pool_proj"
  type: "ReLU"
  bottom: "inception_3a/pool_proj"
  top: "inception_3a/pool_proj"
}
layer {
  name: "inception_3a/output"
  type: "Concat"
  bottom: "inception_3a/1x1"
  bottom: "inception_3a/3x3"
  bottom: "inception_3a/5x5"
  bottom: "inception_3a/pool_proj"
  top: "inception_3a/output"
}
layer {
  name: "inception_3b/1x1"
  type: "Convolution"
  bottom: "inception_3a/output"
  top: "inception_3b/1x1"
  param {
    lr_mult: 1
    decay_mult: 1
  }
  param {
    lr_mult: 2
    decay_mult: 0
  }
  convolution_param {
    num_output: 128
    kernel_size: 1
    weight_filler {
      type: "xavier"
      std: 0.03
    }
    bias_filler {
      type: "constant"
      value: 0.2
    }
  }
}
layer {
  name: "inception_3b/relu_1x1"
  type: "ReLU"
  bottom: "inception_3b/1x1"
  top: "inception_3b/1x1"
}
layer {
  name: "inception_3b/3x3_reduce"
  type: "Convolution"
  bottom: "inception_3a/output"
  top: "inception_3b/3x3_reduce"
  param {
    lr_mult: 1
    decay_mult: 1
  }
  param {
    lr_mult: 2
    decay_mult: 0
  }
  convolution_param {
    num_output: 128
    kernel_size: 1
    weight_filler {
      type: "xavier"
      std: 0.09
    }
    bias_filler {
      type: "constant"
      value: 0.2
    }
  }
}
layer {
  name: "inception_3b/relu_3x3_reduce"
  type: "ReLU"
  bottom: "inception_3b/3x3_reduce"
  top: "inception_3b/3x3_reduce"
}
layer {
  name: "inception_3b/3x3"
  type: "Convolution"
  bottom: "inception_3b/3x3_reduce"
  top: "inception_3b/3x3"
  param {
    lr_mult: 1
    decay_mult: 1
  }
  param {
    lr_mult: 2
    decay_mult: 0
  }
  convolution_param {
    num_output: 192
    pad: 1
    kernel_size: 3
    weight_filler {
      type: "xavier"
      std: 0.03
    }
    bias_filler {
      type: "constant"
      value: 0.2
    }
  }
}
layer {
  name: "inception_3b/relu_3x3"
  type: "ReLU"
  bottom: "inception_3b/3x3"
  top: "inception_3b/3x3"
}
layer {
  name: "inception_3b/5x5_reduce"
  type: "Convolution"
  bottom: "inception_3a/output"
  top: "inception_3b/5x5_reduce"
  param {
    lr_mult: 1
    decay_mult: 1
  }
  param {
    lr_mult: 2
    decay_mult: 0
  }
  convolution_param {
    num_output: 32
    kernel_size: 1
    weight_filler {
      type: "xavier"
      std: 0.2
    }
    bias_filler {
      type: "constant"
      value: 0.2
    }
  }
}
layer {
  name: "inception_3b/relu_5x5_reduce"
  type: "ReLU"
  bottom: "inception_3b/5x5_reduce"
  top: "inception_3b/5x5_reduce"
}
layer {
  name: "inception_3b/5x5"
  type: "Convolution"
  bottom: "inception_3b/5x5_reduce"
  top: "inception_3b/5x5"
  param {
    lr_mult: 1
    decay_mult: 1
  }
  param {
    lr_mult: 2
    decay_mult: 0
  }
  convolution_param {
    num_output: 96
    pad: 2
    kernel_size: 5
    weight_filler {
      type: "xavier"
      std: 0.03
    }
    bias_filler {
      type: "constant"
      value: 0.2
    }
  }
}
layer {
  name: "inception_3b/relu_5x5"
  type: "ReLU"
  bottom: "inception_3b/5x5"
  top: "inception_3b/5x5"
}
layer {
  name: "inception_3b/pool"
  type: "Pooling"
  bottom: "inception_3a/output"
  top: "inception_3b/pool"
  pooling_param {
    pool: MAX
    kernel_size: 3
    stride: 1
    pad: 1
  }
}
layer {
  name: "inception_3b/pool_proj"
  type: "Convolution"
  bottom: "inception_3b/pool"
  top: "inception_3b/pool_proj"
  param {
    lr_mult: 1
    decay_mult: 1
  }
  param {
    lr_mult: 2
    decay_mult: 0
  }
  convolution_param {
    num_output: 64
    kernel_size: 1
    weight_filler {
      type: "xavier"
      std: 0.1
    }
    bias_filler {
      type: "constant"
      value: 0.2
    }
  }
}
layer {
  name: "inception_3b/relu_pool_proj"
  type: "ReLU"
  bottom: "inception_3b/pool_proj"
  top: "inception_3b/pool_proj"
}
layer {
  name: "inception_3b/output"
  type: "Concat"
  bottom: "inception_3b/1x1"
  bottom: "inception_3b/3x3"
  bottom: "inception_3b/5x5"
  bottom: "inception_3b/pool_proj"
  top: "inception_3b/output"
}
layer {
  name: "pool3/3x3_s2"
  type: "Pooling"
  bottom: "inception_3b/output"
  top: "pool3/3x3_s2"
  pooling_param {
    pool: MAX
    kernel_size: 3
    stride: 2
  }
}
layer {
  name: "inception_4a/1x1"
  type: "Convolution"
  bottom: "pool3/3x3_s2"
  top: "inception_4a/1x1"
  param {
    lr_mult: 1
    decay_mult: 1
  }
  param {
    lr_mult: 2
    decay_mult: 0
  }
  convolution_param {
    num_output: 192
    kernel_size: 1
    weight_filler {
      type: "xavier"
      std: 0.03
    }
    bias_filler {
      type: "constant"
      value: 0.2
    }
  }
}
layer {
  name: "inception_4a/relu_1x1"
  type: "ReLU"
  bottom: "inception_4a/1x1"
  top: "inception_4a/1x1"
}
layer {
  name: "inception_4a/3x3_reduce"
  type: "Convolution"
  bottom: "pool3/3x3_s2"
  top: "inception_4a/3x3_reduce"
  param {
    lr_mult: 1
    decay_mult: 1
  }
  param {
    lr_mult: 2
    decay_mult: 0
  }
  convolution_param {
    num_output: 96
    kernel_size: 1
    weight_filler {
      type: "xavier"
      std: 0.09
    }
    bias_filler {
      type: "constant"
      value: 0.2
    }
  }
}
layer {
  name: "inception_4a/relu_3x3_reduce"
  type: "ReLU"
  bottom: "inception_4a/3x3_reduce"
  top: "inception_4a/3x3_reduce"
}
layer {
  name: "inception_4a/3x3"
  type: "Convolution"
  bottom: "inception_4a/3x3_reduce"
  top: "inception_4a/3x3"
  param {
    lr_mult: 1
    decay_mult: 1
  }
  param {
    lr_mult: 2
    decay_mult: 0
  }
  convolution_param {
    num_output: 208
    pad: 1
    kernel_size: 3
    weight_filler {
      type: "xavier"
      std: 0.03
    }
    bias_filler {
      type: "constant"
      value: 0.2
    }
  }
}
layer {
  name: "inception_4a/relu_3x3"
  type: "ReLU"
  bottom: "inception_4a/3x3"
  top: "inception_4a/3x3"
}
layer {
  name: "inception_4a/5x5_reduce"
  type: "Convolution"
  bottom: "pool3/3x3_s2"
  top: "inception_4a/5x5_reduce"
  param {
    lr_mult: 1
    decay_mult: 1
  }
  param {
    lr_mult: 2
    decay_mult: 0
  }
  convolution_param {
    num_output: 16
    kernel_size: 1
    weight_filler {
      type: "xavier"
      std: 0.2
    }
    bias_filler {
      type: "constant"
      value: 0.2
    }
  }
}
layer {
  name: "inception_4a/relu_5x5_reduce"
  type: "ReLU"
  bottom: "inception_4a/5x5_reduce"
  top: "inception_4a/5x5_reduce"
}
layer {
  name: "inception_4a/5x5"
  type: "Convolution"
  bottom: "inception_4a/5x5_reduce"
  top: "inception_4a/5x5"
  param {
    lr_mult: 1
    decay_mult: 1
  }
  param {
    lr_mult: 2
    decay_mult: 0
  }
  convolution_param {
    num_output: 48
    pad: 2
    kernel_size: 5
    weight_filler {
      type: "xavier"
      std: 0.03
    }
    bias_filler {
      type: "constant"
      value: 0.2
    }
  }
}
layer {
  name: "inception_4a/relu_5x5"
  type: "ReLU"
  bottom: "inception_4a/5x5"
  top: "inception_4a/5x5"
}
layer {
  name: "inception_4a/pool"
  type: "Pooling"
  bottom: "pool3/3x3_s2"
  top: "inception_4a/pool"
  pooling_param {
    pool: MAX
    kernel_size: 3
    stride: 1
    pad: 1
  }
}
layer {
  name: "inception_4a/pool_proj"
  type: "Convolution"
  bottom: "inception_4a/pool"
  top: "inception_4a/pool_proj"
  param {
    lr_mult: 1
    decay_mult: 1
  }
  param {
    lr_mult: 2
    decay_mult: 0
  }
  convolution_param {
    num_output: 64
    kernel_size: 1
    weight_filler {
      type: "xavier"
      std: 0.1
    }
    bias_filler {
      type: "constant"
      value: 0.2
    }
  }
}
layer {
  name: "inception_4a/relu_pool_proj"
  type: "ReLU"
  bottom: "inception_4a/pool_proj"
  top: "inception_4a/pool_proj"
}
layer {
  name: "inception_4a/output"
  type: "Concat"
  bottom: "inception_4a/1x1"
  bottom: "inception_4a/3x3"
  bottom: "inception_4a/5x5"
  bottom: "inception_4a/pool_proj"
  top: "inception_4a/output"
}
layer {
  name: "loss1/ave_pool"
  type: "Pooling"
  bottom: "inception_4a/output"
  top: "loss1/ave_pool"
  pooling_param {
    pool: AVE
    kernel_size: 5
    stride: 3
  }
}
layer {
  name: "loss1/conv"
  type: "Convolution"
  bottom: "loss1/ave_pool"
  top: "loss1/conv"
  param {
    lr_mult: 1
    decay_mult: 1
  }
  param {
    lr_mult: 2
    decay_mult: 0
  }
  convolution_param {
    num_output: 128
    kernel_size: 1
    weight_filler {
      type: "xavier"
      std: 0.08
    }
    bias_filler {
      type: "constant"
      value: 0.2
    }
  }
}
layer {
  name: "loss1/relu_conv"
  type: "ReLU"
  bottom: "loss1/conv"
  top: "loss1/conv"
}
layer {
  name: "loss1/fc"
  type: "InnerProduct"
  bottom: "loss1/conv"
  top: "loss1/fc"
  param {
    lr_mult: 1
    decay_mult: 1
  }
  param {
    lr_mult: 2
    decay_mult: 0
  }
  inner_product_param {
    num_output: 1024
    weight_filler {
      type: "xavier"
      std: 0.02
    }
    bias_filler {
      type: "constant"
      value: 0.2
    }
  }
}
layer {
  name: "loss1/relu_fc"
  type: "ReLU"
  bottom: "loss1/fc"
  top: "loss1/fc"
}
layer {
  name: "loss1/drop_fc"
  type: "Dropout"
  bottom: "loss1/fc"
  top: "loss1/fc"
  dropout_param {
    dropout_ratio: 0.7
  }
}
layer {
  name: "loss1/classifier_plantvillage"
  type: "InnerProduct"
  bottom: "loss1/fc"
  top: "loss1/classifier_plantvillage"
  param {
    lr_mult: 1
    decay_mult: 1
  }
  param {
    lr_mult: 2
    decay_mult: 0
  }
  inner_product_param {
    num_output: 38
    weight_filler {
      type: "xavier"
      std: 0.0009765625
    }
    bias_filler {
      type: "constant"
      value: 0
    }
  }
}
layer {
  name: "inception_4b/1x1"
  type: "Convolution"
  bottom: "inception_4a/output"
  top: "inception_4b/1x1"
  param {
    lr_mult: 1
    decay_mult: 1
  }
  param {
    lr_mult: 2
    decay_mult: 0
  }
  convolution_param {
    num_output: 160
    kernel_size: 1
    weight_filler {
      type: "xavier"
      std: 0.03
    }
    bias_filler {
      type: "constant"
      value: 0.2
    }
  }
}
layer {
  name: "inception_4b/relu_1x1"
  type: "ReLU"
  bottom: "inception_4b/1x1"
  top: "inception_4b/1x1"
}
layer {
  name: "inception_4b/3x3_reduce"
  type: "Convolution"
  bottom: "inception_4a/output"
  top: "inception_4b/3x3_reduce"
  param {
    lr_mult: 1
    decay_mult: 1
  }
  param {
    lr_mult: 2
    decay_mult: 0
  }
  convolution_param {
    num_output: 112
    kernel_size: 1
    weight_filler {
      type: "xavier"
      std: 0.09
    }
    bias_filler {
      type: "constant"
      value: 0.2
    }
  }
}
layer {
  name: "inception_4b/relu_3x3_reduce"
  type: "ReLU"
  bottom: "inception_4b/3x3_reduce"
  top: "inception_4b/3x3_reduce"
}
layer {
  name: "inception_4b/3x3"
  type: "Convolution"
  bottom: "inception_4b/3x3_reduce"
  top: "inception_4b/3x3"
  param {
    lr_mult: 1
    decay_mult: 1
  }
  param {
    lr_mult: 2
    decay_mult: 0
  }
  convolution_param {
    num_output: 224
    pad: 1
    kernel_size: 3
    weight_filler {
      type: "xavier"
      std: 0.03
    }
    bias_filler {
      type: "constant"
      value: 0.2
    }
  }
}
layer {
  name: "inception_4b/relu_3x3"
  type: "ReLU"
  bottom: "inception_4b/3x3"
  top: "inception_4b/3x3"
}
layer {
  name: "inception_4b/5x5_reduce"
  type: "Convolution"
  bottom: "inception_4a/output"
  top: "inception_4b/5x5_reduce"
  param {
    lr_mult: 1
    decay_mult: 1
  }
  param {
    lr_mult: 2
    decay_mult: 0
  }
  convolution_param {
    num_output: 24
    kernel_size: 1
    weight_filler {
      type: "xavier"
      std: 0.2
    }
    bias_filler {
      type: "constant"
      value: 0.2
    }
  }
}
layer {
  name: "inception_4b/relu_5x5_reduce"
  type: "ReLU"
  bottom: "inception_4b/5x5_reduce"
  top: "inception_4b/5x5_reduce"
}
layer {
  name: "inception_4b/5x5"
  type: "Convolution"
  bottom: "inception_4b/5x5_reduce"
  top: "inception_4b/5x5"
  param {
    lr_mult: 1
    decay_mult: 1
  }
  param {
    lr_mult: 2
    decay_mult: 0
  }
  convolution_param {
    num_output: 64
    pad: 2
    kernel_size: 5
    weight_filler {
      type: "xavier"
      std: 0.03
    }
    bias_filler {
      type: "constant"
      value: 0.2
    }
  }
}
layer {
  name: "inception_4b/relu_5x5"
  type: "ReLU"
  bottom: "inception_4b/5x5"
  top: "inception_4b/5x5"
}
layer {
  name: "inception_4b/pool"
  type: "Pooling"
  bottom: "inception_4a/output"
  top: "inception_4b/pool"
  pooling_param {
    pool: MAX
    kernel_size: 3
    stride: 1
    pad: 1
  }
}
layer {
  name: "inception_4b/pool_proj"
  type: "Convolution"
  bottom: "inception_4b/pool"
  top: "inception_4b/pool_proj"
  param {
    lr_mult: 1
    decay_mult: 1
  }
  param {
    lr_mult: 2
    decay_mult: 0
  }
  convolution_param {
    num_output: 64
    kernel_size: 1
    weight_filler {
      type: "xavier"
      std: 0.1
    }
    bias_filler {
      type: "constant"
      value: 0.2
    }
  }
}
layer {
  name: "inception_4b/relu_pool_proj"
  type: "ReLU"
  bottom: "inception_4b/pool_proj"
  top: "inception_4b/pool_proj"
}
layer {
  name: "inception_4b/output"
  type: "Concat"
  bottom: "inception_4b/1x1"
  bottom: "inception_4b/3x3"
  bottom: "inception_4b/5x5"
  bottom: "inception_4b/pool_proj"
  top: "inception_4b/output"
}
layer {
  name: "inception_4c/1x1"
  type: "Convolution"
  bottom: "inception_4b/output"
  top: "inception_4c/1x1"
  param {
    lr_mult: 1
    decay_mult: 1
  }
  param {
    lr_mult: 2
    decay_mult: 0
  }
  convolution_param {
    num_output: 128
    kernel_size: 1
    weight_filler {
      type: "xavier"
      std: 0.03
    }
    bias_filler {
      type: "constant"
      value: 0.2
    }
  }
}
layer {
  name: "inception_4c/relu_1x1"
  type: "ReLU"
  bottom: "inception_4c/1x1"
  top: "inception_4c/1x1"
}
layer {
  name: "inception_4c/3x3_reduce"
  type: "Convolution"
  bottom: "inception_4b/output"
  top: "inception_4c/3x3_reduce"
  param {
    lr_mult: 1
    decay_mult: 1
  }
  param {
    lr_mult: 2
    decay_mult: 0
  }
  convolution_param {
    num_output: 128
    kernel_size: 1
    weight_filler {
      type: "xavier"
      std: 0.09
    }
    bias_filler {
      type: "constant"
      value: 0.2
    }
  }
}
layer {
  name: "inception_4c/relu_3x3_reduce"
  type: "ReLU"
  bottom: "inception_4c/3x3_reduce"
  top: "inception_4c/3x3_reduce"
}
layer {
  name: "inception_4c/3x3"
  type: "Convolution"
  bottom: "inception_4c/3x3_reduce"
  top: "inception_4c/3x3"
  param {
    lr_mult: 1
    decay_mult: 1
  }
  param {
    lr_mult: 2
    decay_mult: 0
  }
  convolution_param {
    num_output: 256
    pad: 1
    kernel_size: 3
    weight_filler {
      type: "xavier"
      std: 0.03
    }
    bias_filler {
      type: "constant"
      value: 0.2
    }
  }
}
layer {
  name: "inception_4c/relu_3x3"
  type: "ReLU"
  bottom: "inception_4c/3x3"
  top: "inception_4c/3x3"
}
layer {
  name: "inception_4c/5x5_reduce"
  type: "Convolution"
  bottom: "inception_4b/output"
  top: "inception_4c/5x5_reduce"
  param {
    lr_mult: 1
    decay_mult: 1
  }
  param {
    lr_mult: 2
    decay_mult: 0
  }
  convolution_param {
    num_output: 24
    kernel_size: 1
    weight_filler {
      type: "xavier"
      std: 0.2
    }
    bias_filler {
      type: "constant"
      value: 0.2
    }
  }
}
layer {
  name: "inception_4c/relu_5x5_reduce"
  type: "ReLU"
  bottom: "inception_4c/5x5_reduce"
  top: "inception_4c/5x5_reduce"
}
layer {
  name: "inception_4c/5x5"
  type: "Convolution"
  bottom: "inception_4c/5x5_reduce"
  top: "inception_4c/5x5"
  param {
    lr_mult: 1
    decay_mult: 1
  }
  param {
    lr_mult: 2
    decay_mult: 0
  }
  convolution_param {
    num_output: 64
    pad: 2
    kernel_size: 5
    weight_filler {
      type: "xavier"
      std: 0.03
    }
    bias_filler {
      type: "constant"
      value: 0.2
    }
  }
}
layer {
  name: "inception_4c/relu_5x5"
  type: "ReLU"
  bottom: "inception_4c/5x5"
  top: "inception_4c/5x5"
}
layer {
  name: "inception_4c/pool"
  type: "Pooling"
  bottom: "inception_4b/output"
  top: "inception_4c/pool"
  pooling_param {
    pool: MAX
    kernel_size: 3
    stride: 1
    pad: 1
  }
}
layer {
  name: "inception_4c/pool_proj"
  type: "Convolution"
  bottom: "inception_4c/pool"
  top: "inception_4c/pool_proj"
  param {
    lr_mult: 1
    decay_mult: 1
  }
  param {
    lr_mult: 2
    decay_mult: 0
  }
  convolution_param {
    num_output: 64
    kernel_size: 1
    weight_filler {
      type: "xavier"
      std: 0.1
    }
    bias_filler {
      type: "constant"
      value: 0.2
    }
  }
}
layer {
  name: "inception_4c/relu_pool_proj"
  type: "ReLU"
  bottom: "inception_4c/pool_proj"
  top: "inception_4c/pool_proj"
}
layer {
  name: "inception_4c/output"
  type: "Concat"
  bottom: "inception_4c/1x1"
  bottom: "inception_4c/3x3"
  bottom: "inception_4c/5x5"
  bottom: "inception_4c/pool_proj"
  top: "inception_4c/output"
}
layer {
  name: "inception_4d/1x1"
  type: "Convolution"
  bottom: "inception_4c/output"
  top: "inception_4d/1x1"
  param {
    lr_mult: 1
    decay_mult: 1
  }
  param {
    lr_mult: 2
    decay_mult: 0
  }
  convolution_param {
    num_output: 112
    kernel_size: 1
    weight_filler {
      type: "xavier"
      std: 0.03
    }
    bias_filler {
      type: "constant"
      value: 0.2
    }
  }
}
layer {
  name: "inception_4d/relu_1x1"
  type: "ReLU"
  bottom: "inception_4d/1x1"
  top: "inception_4d/1x1"
}
layer {
  name: "inception_4d/3x3_reduce"
  type: "Convolution"
  bottom: "inception_4c/output"
  top: "inception_4d/3x3_reduce"
  param {
    lr_mult: 1
    decay_mult: 1
  }
  param {
    lr_mult: 2
    decay_mult: 0
  }
  convolution_param {
    num_output: 144
    kernel_size: 1
    weight_filler {
      type: "xavier"
      std: 0.09
    }
    bias_filler {
      type: "constant"
      value: 0.2
    }
  }
}
layer {
  name: "inception_4d/relu_3x3_reduce"
  type: "ReLU"
  bottom: "inception_4d/3x3_reduce"
  top: "inception_4d/3x3_reduce"
}
layer {
  name: "inception_4d/3x3"
  type: "Convolution"
  bottom: "inception_4d/3x3_reduce"
  top: "inception_4d/3x3"
  param {
    lr_mult: 1
    decay_mult: 1
  }
  param {
    lr_mult: 2
    decay_mult: 0
  }
  convolution_param {
    num_output: 288
    pad: 1
    kernel_size: 3
    weight_filler {
      type: "xavier"
      std: 0.03
    }
    bias_filler {
      type: "constant"
      value: 0.2
    }
  }
}
layer {
  name: "inception_4d/relu_3x3"
  type: "ReLU"
  bottom: "inception_4d/3x3"
  top: "inception_4d/3x3"
}
layer {
  name: "inception_4d/5x5_reduce"
  type: "Convolution"
  bottom: "inception_4c/output"
  top: "inception_4d/5x5_reduce"
  param {
    lr_mult: 1
    decay_mult: 1
  }
  param {
    lr_mult: 2
    decay_mult: 0
  }
  convolution_param {
    num_output: 32
    kernel_size: 1
    weight_filler {
      type: "xavier"
      std: 0.2
    }
    bias_filler {
      type: "constant"
      value: 0.2
    }
  }
}
layer {
  name: "inception_4d/relu_5x5_reduce"
  type: "ReLU"
  bottom: "inception_4d/5x5_reduce"
  top: "inception_4d/5x5_reduce"
}
layer {
  name: "inception_4d/5x5"
  type: "Convolution"
  bottom: "inception_4d/5x5_reduce"
  top: "inception_4d/5x5"
  param {
    lr_mult: 1
    decay_mult: 1
  }
  param {
    lr_mult: 2
    decay_mult: 0
  }
  convolution_param {
    num_output: 64
    pad: 2
    kernel_size: 5
    weight_filler {
      type: "xavier"
      std: 0.03
    }
    bias_filler {
      type: "constant"
      value: 0.2
    }
  }
}
layer {
  name: "inception_4d/relu_5x5"
  type: "ReLU"
  bottom: "inception_4d/5x5"
  top: "inception_4d/5x5"
}
layer {
  name: "inception_4d/pool"
  type: "Pooling"
  bottom: "inception_4c/output"
  top: "inception_4d/pool"
  pooling_param {
    pool: MAX
    kernel_size: 3
    stride: 1
    pad: 1
  }
}
layer {
  name: "inception_4d/pool_proj"
  type: "Convolution"
  bottom: "inception_4d/pool"
  top: "inception_4d/pool_proj"
  param {
    lr_mult: 1
    decay_mult: 1
  }
  param {
    lr_mult: 2
    decay_mult: 0
  }
  convolution_param {
    num_output: 64
    kernel_size: 1
    weight_filler {
      type: "xavier"
      std: 0.1
    }
    bias_filler {
      type: "constant"
      value: 0.2
    }
  }
}
layer {
  name: "inception_4d/relu_pool_proj"
  type: "ReLU"
  bottom: "inception_4d/pool_proj"
  top: "inception_4d/pool_proj"
}
layer {
  name: "inception_4d/output"
  type: "Concat"
  bottom: "inception_4d/1x1"
  bottom: "inception_4d/3x3"
  bottom: "inception_4d/5x5"
  bottom: "inception_4d/pool_proj"
  top: "inception_4d/output"
}
layer {
  name: "loss2/ave_pool"
  type: "Pooling"
  bottom: "inception_4d/output"
  top: "loss2/ave_pool"
  pooling_param {
    pool: AVE
    kernel_size: 5
    stride: 3
  }
}
layer {
  name: "loss2/conv"
  type: "Convolution"
  bottom: "loss2/ave_pool"
  top: "loss2/conv"
  param {
    lr_mult: 1
    decay_mult: 1
  }
  param {
    lr_mult: 2
    decay_mult: 0
  }
  convolution_param {
    num_output: 128
    kernel_size: 1
    weight_filler {
      type: "xavier"
      std: 0.08
    }
    bias_filler {
      type: "constant"
      value: 0.2
    }
  }
}
layer {
  name: "loss2/relu_conv"
  type: "ReLU"
  bottom: "loss2/conv"
  top: "loss2/conv"
}
layer {
  name: "loss2/fc"
  type: "InnerProduct"
  bottom: "loss2/conv"
  top: "loss2/fc"
  param {
    lr_mult: 1
    decay_mult: 1
  }
  param {
    lr_mult: 2
    decay_mult: 0
  }
  inner_product_param {
    num_output: 1024
    weight_filler {
      type: "xavier"
      std: 0.02
    }
    bias_filler {
      type: "constant"
      value: 0.2
    }
  }
}
layer {
  name: "loss2/relu_fc"
  type: "ReLU"
  bottom: "loss2/fc"
  top: "loss2/fc"
}
layer {
  name: "loss2/drop_fc"
  type: "Dropout"
  bottom: "loss2/fc"
  top: "loss2/fc"
  dropout_param {
    dropout_ratio: 0.7
  }
}
layer {
  name: "loss2/classifier_plantvillage"
  type: "InnerProduct"
  bottom: "loss2/fc"
  top: "loss2/classifier_plantvillage"
  param {
    lr_mult: 1
    decay_mult: 1
  }
  param {
    lr_mult: 2
    decay_mult: 0
  }
  inner_product_param {
    num_output: 38
    weight_filler {
      type: "xavier"
      std: 0.0009765625
    }
    bias_filler {
      type: "constant"
      value: 0
    }
  }
}
layer {
  name: "inception_4e/1x1"
  type: "Convolution"
  bottom: "inception_4d/output"
  top: "inception_4e/1x1"
  param {
    lr_mult: 1
    decay_mult: 1
  }
  param {
    lr_mult: 2
    decay_mult: 0
  }
  convolution_param {
    num_output: 256
    kernel_size: 1
    weight_filler {
      type: "xavier"
      std: 0.03
    }
    bias_filler {
      type: "constant"
      value: 0.2
    }
  }
}
layer {
  name: "inception_4e/relu_1x1"
  type: "ReLU"
  bottom: "inception_4e/1x1"
  top: "inception_4e/1x1"
}
layer {
  name: "inception_4e/3x3_reduce"
  type: "Convolution"
  bottom: "inception_4d/output"
  top: "inception_4e/3x3_reduce"
  param {
    lr_mult: 1
    decay_mult: 1
  }
  param {
    lr_mult: 2
    decay_mult: 0
  }
  convolution_param {
    num_output: 160
    kernel_size: 1
    weight_filler {
      type: "xavier"
      std: 0.09
    }
    bias_filler {
      type: "constant"
      value: 0.2
    }
  }
}
layer {
  name: "inception_4e/relu_3x3_reduce"
  type: "ReLU"
  bottom: "inception_4e/3x3_reduce"
  top: "inception_4e/3x3_reduce"
}
layer {
  name: "inception_4e/3x3"
  type: "Convolution"
  bottom: "inception_4e/3x3_reduce"
  top: "inception_4e/3x3"
  param {
    lr_mult: 1
    decay_mult: 1
  }
  param {
    lr_mult: 2
    decay_mult: 0
  }
  convolution_param {
    num_output: 320
    pad: 1
    kernel_size: 3
    weight_filler {
      type: "xavier"
      std: 0.03
    }
    bias_filler {
      type: "constant"
      value: 0.2
    }
  }
}
layer {
  name: "inception_4e/relu_3x3"
  type: "ReLU"
  bottom: "inception_4e/3x3"
  top: "inception_4e/3x3"
}
layer {
  name: "inception_4e/5x5_reduce"
  type: "Convolution"
  bottom: "inception_4d/output"
  top: "inception_4e/5x5_reduce"
  param {
    lr_mult: 1
    decay_mult: 1
  }
  param {
    lr_mult: 2
    decay_mult: 0
  }
  convolution_param {
    num_output: 32
    kernel_size: 1
    weight_filler {
      type: "xavier"
      std: 0.2
    }
    bias_filler {
      type: "constant"
      value: 0.2
    }
  }
}
layer {
  name: "inception_4e/relu_5x5_reduce"
  type: "ReLU"
  bottom: "inception_4e/5x5_reduce"
  top: "inception_4e/5x5_reduce"
}
layer {
  name: "inception_4e/5x5"
  type: "Convolution"
  bottom: "inception_4e/5x5_reduce"
  top: "inception_4e/5x5"
  p
I0403 15:19:25.628052 31461 layer_factory.hpp:77] Creating layer data
I0403 15:19:25.628669 31461 net.cpp:91] Creating Layer data
I0403 15:19:25.628713 31461 net.cpp:399] data -> data
I0403 15:19:25.628785 31461 net.cpp:399] data -> label
I0403 15:19:25.628826 31461 data_transformer.cpp:25] Loading mean file from: /home/mohanty/data/final_dataset/lmdb/color-20-80/mean.binaryproto
I0403 15:19:25.631729 31473 db_lmdb.cpp:38] Opened lmdb /home/mohanty/data/final_dataset/lmdb/color-20-80/test_db
I0403 15:19:25.642024 31461 data_layer.cpp:41] output data size: 24,3,224,224
I0403 15:19:25.668820 31461 net.cpp:141] Setting up data
I0403 15:19:25.668892 31461 net.cpp:148] Top shape: 24 3 224 224 (3612672)
I0403 15:19:25.668916 31461 net.cpp:148] Top shape: 24 (24)
I0403 15:19:25.668944 31461 net.cpp:156] Memory required for data: 14450784
I0403 15:19:25.668979 31461 layer_factory.hpp:77] Creating layer label_data_1_split
I0403 15:19:25.669008 31461 net.cpp:91] Creating Layer label_data_1_split
I0403 15:19:25.669023 31461 net.cpp:425] label_data_1_split <- label
I0403 15:19:25.669055 31461 net.cpp:399] label_data_1_split -> label_data_1_split_0
I0403 15:19:25.669083 31461 net.cpp:399] label_data_1_split -> label_data_1_split_1
I0403 15:19:25.669105 31461 net.cpp:399] label_data_1_split -> label_data_1_split_2
I0403 15:19:25.669126 31461 net.cpp:399] label_data_1_split -> label_data_1_split_3
I0403 15:19:25.669145 31461 net.cpp:399] label_data_1_split -> label_data_1_split_4
I0403 15:19:25.669164 31461 net.cpp:399] label_data_1_split -> label_data_1_split_5
I0403 15:19:25.669183 31461 net.cpp:399] label_data_1_split -> label_data_1_split_6
I0403 15:19:25.669203 31461 net.cpp:399] label_data_1_split -> label_data_1_split_7
I0403 15:19:25.669224 31461 net.cpp:399] label_data_1_split -> label_data_1_split_8
I0403 15:19:25.669245 31461 net.cpp:399] label_data_1_split -> label_data_1_split_9
I0403 15:19:25.669364 31461 net.cpp:141] Setting up label_data_1_split
I0403 15:19:25.669389 31461 net.cpp:148] Top shape: 24 (24)
I0403 15:19:25.669406 31461 net.cpp:148] Top shape: 24 (24)
I0403 15:19:25.669422 31461 net.cpp:148] Top shape: 24 (24)
I0403 15:19:25.669437 31461 net.cpp:148] Top shape: 24 (24)
I0403 15:19:25.669452 31461 net.cpp:148] Top shape: 24 (24)
I0403 15:19:25.669468 31461 net.cpp:148] Top shape: 24 (24)
I0403 15:19:25.669483 31461 net.cpp:148] Top shape: 24 (24)
I0403 15:19:25.669497 31461 net.cpp:148] Top shape: 24 (24)
I0403 15:19:25.669512 31461 net.cpp:148] Top shape: 24 (24)
I0403 15:19:25.669528 31461 net.cpp:148] Top shape: 24 (24)
I0403 15:19:25.669574 31461 net.cpp:156] Memory required for data: 14451744
I0403 15:19:25.669589 31461 layer_factory.hpp:77] Creating layer conv1/7x7_s2
I0403 15:19:25.669620 31461 net.cpp:91] Creating Layer conv1/7x7_s2
I0403 15:19:25.669639 31461 net.cpp:425] conv1/7x7_s2 <- data
I0403 15:19:25.669658 31461 net.cpp:399] conv1/7x7_s2 -> conv1/7x7_s2
I0403 15:19:25.812114 31461 net.cpp:141] Setting up conv1/7x7_s2
I0403 15:19:25.812166 31461 net.cpp:148] Top shape: 24 64 112 112 (19267584)
I0403 15:19:25.812186 31461 net.cpp:156] Memory required for data: 91522080
I0403 15:19:25.812216 31461 layer_factory.hpp:77] Creating layer conv1/relu_7x7
I0403 15:19:25.812244 31461 net.cpp:91] Creating Layer conv1/relu_7x7
I0403 15:19:25.812263 31461 net.cpp:425] conv1/relu_7x7 <- conv1/7x7_s2
I0403 15:19:25.812283 31461 net.cpp:386] conv1/relu_7x7 -> conv1/7x7_s2 (in-place)
I0403 15:19:25.812554 31461 net.cpp:141] Setting up conv1/relu_7x7
I0403 15:19:25.812583 31461 net.cpp:148] Top shape: 24 64 112 112 (19267584)
I0403 15:19:25.812600 31461 net.cpp:156] Memory required for data: 168592416
I0403 15:19:25.812616 31461 layer_factory.hpp:77] Creating layer pool1/3x3_s2
I0403 15:19:25.812641 31461 net.cpp:91] Creating Layer pool1/3x3_s2
I0403 15:19:25.812660 31461 net.cpp:425] pool1/3x3_s2 <- conv1/7x7_s2
I0403 15:19:25.812680 31461 net.cpp:399] pool1/3x3_s2 -> pool1/3x3_s2
I0403 15:19:25.812754 31461 net.cpp:141] Setting up pool1/3x3_s2
I0403 15:19:25.812779 31461 net.cpp:148] Top shape: 24 64 56 56 (4816896)
I0403 15:19:25.812795 31461 net.cpp:156] Memory required for data: 187860000
I0403 15:19:25.812811 31461 layer_factory.hpp:77] Creating layer pool1/norm1
I0403 15:19:25.812837 31461 net.cpp:91] Creating Layer pool1/norm1
I0403 15:19:25.812856 31461 net.cpp:425] pool1/norm1 <- pool1/3x3_s2
I0403 15:19:25.812875 31461 net.cpp:399] pool1/norm1 -> pool1/norm1
I0403 15:19:25.813174 31461 net.cpp:141] Setting up pool1/norm1
I0403 15:19:25.813201 31461 net.cpp:148] Top shape: 24 64 56 56 (4816896)
I0403 15:19:25.813217 31461 net.cpp:156] Memory required for data: 207127584
I0403 15:19:25.813233 31461 layer_factory.hpp:77] Creating layer conv2/3x3_reduce
I0403 15:19:25.813285 31461 net.cpp:91] Creating Layer conv2/3x3_reduce
I0403 15:19:25.813308 31461 net.cpp:425] conv2/3x3_reduce <- pool1/norm1
I0403 15:19:25.813333 31461 net.cpp:399] conv2/3x3_reduce -> conv2/3x3_reduce
I0403 15:19:25.814702 31461 net.cpp:141] Setting up conv2/3x3_reduce
I0403 15:19:25.814731 31461 net.cpp:148] Top shape: 24 64 56 56 (4816896)
I0403 15:19:25.814749 31461 net.cpp:156] Memory required for data: 226395168
I0403 15:19:25.814769 31461 layer_factory.hpp:77] Creating layer conv2/relu_3x3_reduce
I0403 15:19:25.814788 31461 net.cpp:91] Creating Layer conv2/relu_3x3_reduce
I0403 15:19:25.814805 31461 net.cpp:425] conv2/relu_3x3_reduce <- conv2/3x3_reduce
I0403 15:19:25.814822 31461 net.cpp:386] conv2/relu_3x3_reduce -> conv2/3x3_reduce (in-place)
I0403 15:19:25.815138 31461 net.cpp:141] Setting up conv2/relu_3x3_reduce
I0403 15:19:25.815166 31461 net.cpp:148] Top shape: 24 64 56 56 (4816896)
I0403 15:19:25.815182 31461 net.cpp:156] Memory required for data: 245662752
I0403 15:19:25.815198 31461 layer_factory.hpp:77] Creating layer conv2/3x3
I0403 15:19:25.815220 31461 net.cpp:91] Creating Layer conv2/3x3
I0403 15:19:25.815239 31461 net.cpp:425] conv2/3x3 <- conv2/3x3_reduce
I0403 15:19:25.815258 31461 net.cpp:399] conv2/3x3 -> conv2/3x3
I0403 15:19:25.817534 31461 net.cpp:141] Setting up conv2/3x3
I0403 15:19:25.817565 31461 net.cpp:148] Top shape: 24 192 56 56 (14450688)
I0403 15:19:25.817581 31461 net.cpp:156] Memory required for data: 303465504
I0403 15:19:25.817603 31461 layer_factory.hpp:77] Creating layer conv2/relu_3x3
I0403 15:19:25.817625 31461 net.cpp:91] Creating Layer conv2/relu_3x3
I0403 15:19:25.817654 31461 net.cpp:425] conv2/relu_3x3 <- conv2/3x3
I0403 15:19:25.817672 31461 net.cpp:386] conv2/relu_3x3 -> conv2/3x3 (in-place)
I0403 15:19:25.817857 31461 net.cpp:141] Setting up conv2/relu_3x3
I0403 15:19:25.817884 31461 net.cpp:148] Top shape: 24 192 56 56 (14450688)
I0403 15:19:25.817937 31461 net.cpp:156] Memory required for data: 361268256
I0403 15:19:25.817953 31461 layer_factory.hpp:77] Creating layer conv2/norm2
I0403 15:19:25.817975 31461 net.cpp:91] Creating Layer conv2/norm2
I0403 15:19:25.817991 31461 net.cpp:425] conv2/norm2 <- conv2/3x3
I0403 15:19:25.818008 31461 net.cpp:399] conv2/norm2 -> conv2/norm2
I0403 15:19:25.818310 31461 net.cpp:141] Setting up conv2/norm2
I0403 15:19:25.818341 31461 net.cpp:148] Top shape: 24 192 56 56 (14450688)
I0403 15:19:25.818357 31461 net.cpp:156] Memory required for data: 419071008
I0403 15:19:25.818372 31461 layer_factory.hpp:77] Creating layer pool2/3x3_s2
I0403 15:19:25.818392 31461 net.cpp:91] Creating Layer pool2/3x3_s2
I0403 15:19:25.818410 31461 net.cpp:425] pool2/3x3_s2 <- conv2/norm2
I0403 15:19:25.818429 31461 net.cpp:399] pool2/3x3_s2 -> pool2/3x3_s2
I0403 15:19:25.818482 31461 net.cpp:141] Setting up pool2/3x3_s2
I0403 15:19:25.818506 31461 net.cpp:148] Top shape: 24 192 28 28 (3612672)
I0403 15:19:25.818521 31461 net.cpp:156] Memory required for data: 433521696
I0403 15:19:25.818536 31461 layer_factory.hpp:77] Creating layer pool2/3x3_s2_pool2/3x3_s2_0_split
I0403 15:19:25.818554 31461 net.cpp:91] Creating Layer pool2/3x3_s2_pool2/3x3_s2_0_split
I0403 15:19:25.818572 31461 net.cpp:425] pool2/3x3_s2_pool2/3x3_s2_0_split <- pool2/3x3_s2
I0403 15:19:25.818591 31461 net.cpp:399] pool2/3x3_s2_pool2/3x3_s2_0_split -> pool2/3x3_s2_pool2/3x3_s2_0_split_0
I0403 15:19:25.818611 31461 net.cpp:399] pool2/3x3_s2_pool2/3x3_s2_0_split -> pool2/3x3_s2_pool2/3x3_s2_0_split_1
I0403 15:19:25.818632 31461 net.cpp:399] pool2/3x3_s2_pool2/3x3_s2_0_split -> pool2/3x3_s2_pool2/3x3_s2_0_split_2
I0403 15:19:25.818651 31461 net.cpp:399] pool2/3x3_s2_pool2/3x3_s2_0_split -> pool2/3x3_s2_pool2/3x3_s2_0_split_3
I0403 15:19:25.818719 31461 net.cpp:141] Setting up pool2/3x3_s2_pool2/3x3_s2_0_split
I0403 15:19:25.818745 31461 net.cpp:148] Top shape: 24 192 28 28 (3612672)
I0403 15:19:25.818763 31461 net.cpp:148] Top shape: 24 192 28 28 (3612672)
I0403 15:19:25.818779 31461 net.cpp:148] Top shape: 24 192 28 28 (3612672)
I0403 15:19:25.818795 31461 net.cpp:148] Top shape: 24 192 28 28 (3612672)
I0403 15:19:25.818810 31461 net.cpp:156] Memory required for data: 491324448
I0403 15:19:25.818825 31461 layer_factory.hpp:77] Creating layer inception_3a/1x1
I0403 15:19:25.818850 31461 net.cpp:91] Creating Layer inception_3a/1x1
I0403 15:19:25.818867 31461 net.cpp:425] inception_3a/1x1 <- pool2/3x3_s2_pool2/3x3_s2_0_split_0
I0403 15:19:25.818886 31461 net.cpp:399] inception_3a/1x1 -> inception_3a/1x1
I0403 15:19:25.820408 31461 net.cpp:141] Setting up inception_3a/1x1
I0403 15:19:25.820438 31461 net.cpp:148] Top shape: 24 64 28 28 (1204224)
I0403 15:19:25.820454 31461 net.cpp:156] Memory required for data: 496141344
I0403 15:19:25.820473 31461 layer_factory.hpp:77] Creating layer inception_3a/relu_1x1
I0403 15:19:25.820494 31461 net.cpp:91] Creating Layer inception_3a/relu_1x1
I0403 15:19:25.820510 31461 net.cpp:425] inception_3a/relu_1x1 <- inception_3a/1x1
I0403 15:19:25.820528 31461 net.cpp:386] inception_3a/relu_1x1 -> inception_3a/1x1 (in-place)
I0403 15:19:25.820701 31461 net.cpp:141] Setting up inception_3a/relu_1x1
I0403 15:19:25.820729 31461 net.cpp:148] Top shape: 24 64 28 28 (1204224)
I0403 15:19:25.820744 31461 net.cpp:156] Memory required for data: 500958240
I0403 15:19:25.820758 31461 layer_factory.hpp:77] Creating layer inception_3a/3x3_reduce
I0403 15:19:25.820781 31461 net.cpp:91] Creating Layer inception_3a/3x3_reduce
I0403 15:19:25.820799 31461 net.cpp:425] inception_3a/3x3_reduce <- pool2/3x3_s2_pool2/3x3_s2_0_split_1
I0403 15:19:25.820818 31461 net.cpp:399] inception_3a/3x3_reduce -> inception_3a/3x3_reduce
I0403 15:19:25.822525 31461 net.cpp:141] Setting up inception_3a/3x3_reduce
I0403 15:19:25.822579 31461 net.cpp:148] Top shape: 24 96 28 28 (1806336)
I0403 15:19:25.822597 31461 net.cpp:156] Memory required for data: 508183584
I0403 15:19:25.822618 31461 layer_factory.hpp:77] Creating layer inception_3a/relu_3x3_reduce
I0403 15:19:25.822656 31461 net.cpp:91] Creating Layer inception_3a/relu_3x3_reduce
I0403 15:19:25.822686 31461 net.cpp:425] inception_3a/relu_3x3_reduce <- inception_3a/3x3_reduce
I0403 15:19:25.822706 31461 net.cpp:386] inception_3a/relu_3x3_reduce -> inception_3a/3x3_reduce (in-place)
I0403 15:19:25.822922 31461 net.cpp:141] Setting up inception_3a/relu_3x3_reduce
I0403 15:19:25.822948 31461 net.cpp:148] Top shape: 24 96 28 28 (1806336)
I0403 15:19:25.822963 31461 net.cpp:156] Memory required for data: 515408928
I0403 15:19:25.822986 31461 layer_factory.hpp:77] Creating layer inception_3a/3x3
I0403 15:19:25.823015 31461 net.cpp:91] Creating Layer inception_3a/3x3
I0403 15:19:25.823050 31461 net.cpp:425] inception_3a/3x3 <- inception_3a/3x3_reduce
I0403 15:19:25.823091 31461 net.cpp:399] inception_3a/3x3 -> inception_3a/3x3
I0403 15:19:25.824755 31461 net.cpp:141] Setting up inception_3a/3x3
I0403 15:19:25.824789 31461 net.cpp:148] Top shape: 24 128 28 28 (2408448)
I0403 15:19:25.824805 31461 net.cpp:156] Memory required for data: 525042720
I0403 15:19:25.824823 31461 layer_factory.hpp:77] Creating layer inception_3a/relu_3x3
I0403 15:19:25.824842 31461 net.cpp:91] Creating Layer inception_3a/relu_3x3
I0403 15:19:25.824859 31461 net.cpp:425] inception_3a/relu_3x3 <- inception_3a/3x3
I0403 15:19:25.824877 31461 net.cpp:386] inception_3a/relu_3x3 -> inception_3a/3x3 (in-place)
I0403 15:19:25.825150 31461 net.cpp:141] Setting up inception_3a/relu_3x3
I0403 15:19:25.825179 31461 net.cpp:148] Top shape: 24 128 28 28 (2408448)
I0403 15:19:25.825196 31461 net.cpp:156] Memory required for data: 534676512
I0403 15:19:25.825212 31461 layer_factory.hpp:77] Creating layer inception_3a/5x5_reduce
I0403 15:19:25.825234 31461 net.cpp:91] Creating Layer inception_3a/5x5_reduce
I0403 15:19:25.825253 31461 net.cpp:425] inception_3a/5x5_reduce <- pool2/3x3_s2_pool2/3x3_s2_0_split_2
I0403 15:19:25.825271 31461 net.cpp:399] inception_3a/5x5_reduce -> inception_3a/5x5_reduce
I0403 15:19:25.826259 31461 net.cpp:141] Setting up inception_3a/5x5_reduce
I0403 15:19:25.826290 31461 net.cpp:148] Top shape: 24 16 28 28 (301056)
I0403 15:19:25.826308 31461 net.cpp:156] Memory required for data: 535880736
I0403 15:19:25.826330 31461 layer_factory.hpp:77] Creating layer inception_3a/relu_5x5_reduce
I0403 15:19:25.826351 31461 net.cpp:91] Creating Layer inception_3a/relu_5x5_reduce
I0403 15:19:25.826367 31461 net.cpp:425] inception_3a/relu_5x5_reduce <- inception_3a/5x5_reduce
I0403 15:19:25.826387 31461 net.cpp:386] inception_3a/relu_5x5_reduce -> inception_3a/5x5_reduce (in-place)
I0403 15:19:25.826696 31461 net.cpp:141] Setting up inception_3a/relu_5x5_reduce
I0403 15:19:25.826724 31461 net.cpp:148] Top shape: 24 16 28 28 (301056)
I0403 15:19:25.826740 31461 net.cpp:156] Memory required for data: 537084960
I0403 15:19:25.826756 31461 layer_factory.hpp:77] Creating layer inception_3a/5x5
I0403 15:19:25.826777 31461 net.cpp:91] Creating Layer inception_3a/5x5
I0403 15:19:25.826797 31461 net.cpp:425] inception_3a/5x5 <- inception_3a/5x5_reduce
I0403 15:19:25.826817 31461 net.cpp:399] inception_3a/5x5 -> inception_3a/5x5
I0403 15:19:25.827852 31461 net.cpp:141] Setting up inception_3a/5x5
I0403 15:19:25.827883 31461 net.cpp:148] Top shape: 24 32 28 28 (602112)
I0403 15:19:25.827901 31461 net.cpp:156] Memory required for data: 539493408
I0403 15:19:25.827934 31461 layer_factory.hpp:77] Creating layer inception_3a/relu_5x5
I0403 15:19:25.827952 31461 net.cpp:91] Creating Layer inception_3a/relu_5x5
I0403 15:19:25.827970 31461 net.cpp:425] inception_3a/relu_5x5 <- inception_3a/5x5
I0403 15:19:25.827986 31461 net.cpp:386] inception_3a/relu_5x5 -> inception_3a/5x5 (in-place)
I0403 15:19:25.828158 31461 net.cpp:141] Setting up inception_3a/relu_5x5
I0403 15:19:25.828186 31461 net.cpp:148] Top shape: 24 32 28 28 (602112)
I0403 15:19:25.828202 31461 net.cpp:156] Memory required for data: 541901856
I0403 15:19:25.828218 31461 layer_factory.hpp:77] Creating layer inception_3a/pool
I0403 15:19:25.828236 31461 net.cpp:91] Creating Layer inception_3a/pool
I0403 15:19:25.828253 31461 net.cpp:425] inception_3a/pool <- pool2/3x3_s2_pool2/3x3_s2_0_split_3
I0403 15:19:25.828286 31461 net.cpp:399] inception_3a/pool -> inception_3a/pool
I0403 15:19:25.828349 31461 net.cpp:141] Setting up inception_3a/pool
I0403 15:19:25.828377 31461 net.cpp:148] Top shape: 24 192 28 28 (3612672)
I0403 15:19:25.828392 31461 net.cpp:156] Memory required for data: 556352544
I0403 15:19:25.828408 31461 layer_factory.hpp:77] Creating layer inception_3a/pool_proj
I0403 15:19:25.828428 31461 net.cpp:91] Creating Layer inception_3a/pool_proj
I0403 15:19:25.828444 31461 net.cpp:425] inception_3a/pool_proj <- inception_3a/pool
I0403 15:19:25.828466 31461 net.cpp:399] inception_3a/pool_proj -> inception_3a/pool_proj
I0403 15:19:25.829437 31461 net.cpp:141] Setting up inception_3a/pool_proj
I0403 15:19:25.829465 31461 net.cpp:148] Top shape: 24 32 28 28 (602112)
I0403 15:19:25.829481 31461 net.cpp:156] Memory required for data: 558760992
I0403 15:19:25.829506 31461 layer_factory.hpp:77] Creating layer inception_3a/relu_pool_proj
I0403 15:19:25.829526 31461 net.cpp:91] Creating Layer inception_3a/relu_pool_proj
I0403 15:19:25.829543 31461 net.cpp:425] inception_3a/relu_pool_proj <- inception_3a/pool_proj
I0403 15:19:25.829562 31461 net.cpp:386] inception_3a/relu_pool_proj -> inception_3a/pool_proj (in-place)
I0403 15:19:25.829843 31461 net.cpp:141] Setting up inception_3a/relu_pool_proj
I0403 15:19:25.829872 31461 net.cpp:148] Top shape: 24 32 28 28 (602112)
I0403 15:19:25.829887 31461 net.cpp:156] Memory required for data: 561169440
I0403 15:19:25.829903 31461 layer_factory.hpp:77] Creating layer inception_3a/output
I0403 15:19:25.829922 31461 net.cpp:91] Creating Layer inception_3a/output
I0403 15:19:25.829937 31461 net.cpp:425] inception_3a/output <- inception_3a/1x1
I0403 15:19:25.829953 31461 net.cpp:425] inception_3a/output <- inception_3a/3x3
I0403 15:19:25.829970 31461 net.cpp:425] inception_3a/output <- inception_3a/5x5
I0403 15:19:25.829987 31461 net.cpp:425] inception_3a/output <- inception_3a/pool_proj
I0403 15:19:25.830003 31461 net.cpp:399] inception_3a/output -> inception_3a/output
I0403 15:19:25.830051 31461 net.cpp:141] Setting up inception_3a/output
I0403 15:19:25.830075 31461 net.cpp:148] Top shape: 24 256 28 28 (4816896)
I0403 15:19:25.830090 31461 net.cpp:156] Memory required for data: 580437024
I0403 15:19:25.830104 31461 layer_factory.hpp:77] Creating layer inception_3a/output_inception_3a/output_0_split
I0403 15:19:25.830126 31461 net.cpp:91] Creating Layer inception_3a/output_inception_3a/output_0_split
I0403 15:19:25.830142 31461 net.cpp:425] inception_3a/output_inception_3a/output_0_split <- inception_3a/output
I0403 15:19:25.830159 31461 net.cpp:399] inception_3a/output_inception_3a/output_0_split -> inception_3a/output_inception_3a/output_0_split_0
I0403 15:19:25.830179 31461 net.cpp:399] inception_3a/output_inception_3a/output_0_split -> inception_3a/output_inception_3a/output_0_split_1
I0403 15:19:25.830204 31461 net.cpp:399] inception_3a/output_inception_3a/output_0_split -> inception_3a/output_inception_3a/output_0_split_2
I0403 15:19:25.830225 31461 net.cpp:399] inception_3a/output_inception_3a/output_0_split -> inception_3a/output_inception_3a/output_0_split_3
I0403 15:19:25.830301 31461 net.cpp:141] Setting up inception_3a/output_inception_3a/output_0_split
I0403 15:19:25.830328 31461 net.cpp:148] Top shape: 24 256 28 28 (4816896)
I0403 15:19:25.830348 31461 net.cpp:148] Top shape: 24 256 28 28 (4816896)
I0403 15:19:25.830364 31461 net.cpp:148] Top shape: 24 256 28 28 (4816896)
I0403 15:19:25.830379 31461 net.cpp:148] Top shape: 24 256 28 28 (4816896)
I0403 15:19:25.830392 31461 net.cpp:156] Memory required for data: 657507360
I0403 15:19:25.830407 31461 layer_factory.hpp:77] Creating layer inception_3b/1x1
I0403 15:19:25.830431 31461 net.cpp:91] Creating Layer inception_3b/1x1
I0403 15:19:25.830451 31461 net.cpp:425] inception_3b/1x1 <- inception_3a/output_inception_3a/output_0_split_0
I0403 15:19:25.830469 31461 net.cpp:399] inception_3b/1x1 -> inception_3b/1x1
I0403 15:19:25.831604 31461 net.cpp:141] Setting up inception_3b/1x1
I0403 15:19:25.831643 31461 net.cpp:148] Top shape: 24 128 28 28 (2408448)
I0403 15:19:25.831660 31461 net.cpp:156] Memory required for data: 667141152
I0403 15:19:25.831679 31461 layer_factory.hpp:77] Creating layer inception_3b/relu_1x1
I0403 15:19:25.831701 31461 net.cpp:91] Creating Layer inception_3b/relu_1x1
I0403 15:19:25.831717 31461 net.cpp:425] inception_3b/relu_1x1 <- inception_3b/1x1
I0403 15:19:25.831735 31461 net.cpp:386] inception_3b/relu_1x1 -> inception_3b/1x1 (in-place)
I0403 15:19:25.831912 31461 net.cpp:141] Setting up inception_3b/relu_1x1
I0403 15:19:25.831941 31461 net.cpp:148] Top shape: 24 128 28 28 (2408448)
I0403 15:19:25.831957 31461 net.cpp:156] Memory required for data: 676774944
I0403 15:19:25.831972 31461 layer_factory.hpp:77] Creating layer inception_3b/3x3_reduce
I0403 15:19:25.831995 31461 net.cpp:91] Creating Layer inception_3b/3x3_reduce
I0403 15:19:25.832015 31461 net.cpp:425] inception_3b/3x3_reduce <- inception_3a/output_inception_3a/output_0_split_1
I0403 15:19:25.832034 31461 net.cpp:399] inception_3b/3x3_reduce -> inception_3b/3x3_reduce
I0403 15:19:25.833196 31461 net.cpp:141] Setting up inception_3b/3x3_reduce
I0403 15:19:25.833225 31461 net.cpp:148] Top shape: 24 128 28 28 (2408448)
I0403 15:19:25.833241 31461 net.cpp:156] Memory required for data: 686408736
I0403 15:19:25.833261 31461 layer_factory.hpp:77] Creating layer inception_3b/relu_3x3_reduce
I0403 15:19:25.833281 31461 net.cpp:91] Creating Layer inception_3b/relu_3x3_reduce
I0403 15:19:25.833298 31461 net.cpp:425] inception_3b/relu_3x3_reduce <- inception_3b/3x3_reduce
I0403 15:19:25.833320 31461 net.cpp:386] inception_3b/relu_3x3_reduce -> inception_3b/3x3_reduce (in-place)
I0403 15:19:25.833498 31461 net.cpp:141] Setting up inception_3b/relu_3x3_reduce
I0403 15:19:25.833528 31461 net.cpp:148] Top shape: 24 128 28 28 (2408448)
I0403 15:19:25.833544 31461 net.cpp:156] Memory required for data: 696042528
I0403 15:19:25.833559 31461 layer_factory.hpp:77] Creating layer inception_3b/3x3
I0403 15:19:25.833585 31461 net.cpp:91] Creating Layer inception_3b/3x3
I0403 15:19:25.833605 31461 net.cpp:425] inception_3b/3x3 <- inception_3b/3x3_reduce
I0403 15:19:25.833626 31461 net.cpp:399] inception_3b/3x3 -> inception_3b/3x3
I0403 15:19:25.836545 31461 net.cpp:141] Setting up inception_3b/3x3
I0403 15:19:25.836578 31461 net.cpp:148] Top shape: 24 192 28 28 (3612672)
I0403 15:19:25.836596 31461 net.cpp:156] Memory required for data: 710493216
I0403 15:19:25.836614 31461 layer_factory.hpp:77] Creating layer inception_3b/relu_3x3
I0403 15:19:25.836633 31461 net.cpp:91] Creating Layer inception_3b/relu_3x3
I0403 15:19:25.836649 31461 net.cpp:425] inception_3b/relu_3x3 <- inception_3b/3x3
I0403 15:19:25.836666 31461 net.cpp:386] inception_3b/relu_3x3 -> inception_3b/3x3 (in-place)
I0403 15:19:25.836941 31461 net.cpp:141] Setting up inception_3b/relu_3x3
I0403 15:19:25.836971 31461 net.cpp:148] Top shape: 24 192 28 28 (3612672)
I0403 15:19:25.836988 31461 net.cpp:156] Memory required for data: 724943904
I0403 15:19:25.837004 31461 layer_factory.hpp:77] Creating layer inception_3b/5x5_reduce
I0403 15:19:25.837028 31461 net.cpp:91] Creating Layer inception_3b/5x5_reduce
I0403 15:19:25.837046 31461 net.cpp:425] inception_3b/5x5_reduce <- inception_3a/output_inception_3a/output_0_split_2
I0403 15:19:25.837065 31461 net.cpp:399] inception_3b/5x5_reduce -> inception_3b/5x5_reduce
I0403 15:19:25.838058 31461 net.cpp:141] Setting up inception_3b/5x5_reduce
I0403 15:19:25.838089 31461 net.cpp:148] Top shape: 24 32 28 28 (602112)
I0403 15:19:25.838105 31461 net.cpp:156] Memory required for data: 727352352
I0403 15:19:25.838124 31461 layer_factory.hpp:77] Creating layer inception_3b/relu_5x5_reduce
I0403 15:19:25.838143 31461 net.cpp:91] Creating Layer inception_3b/relu_5x5_reduce
I0403 15:19:25.838160 31461 net.cpp:425] inception_3b/relu_5x5_reduce <- inception_3b/5x5_reduce
I0403 15:19:25.838177 31461 net.cpp:386] inception_3b/relu_5x5_reduce -> inception_3b/5x5_reduce (in-place)
I0403 15:19:25.838361 31461 net.cpp:141] Setting up inception_3b/relu_5x5_reduce
I0403 15:19:25.838402 31461 net.cpp:148] Top shape: 24 32 28 28 (602112)
I0403 15:19:25.838418 31461 net.cpp:156] Memory required for data: 729760800
I0403 15:19:25.838433 31461 layer_factory.hpp:77] Creating layer inception_3b/5x5
I0403 15:19:25.838455 31461 net.cpp:91] Creating Layer inception_3b/5x5
I0403 15:19:25.838474 31461 net.cpp:425] inception_3b/5x5 <- inception_3b/5x5_reduce
I0403 15:19:25.838495 31461 net.cpp:399] inception_3b/5x5 -> inception_3b/5x5
I0403 15:19:25.840479 31461 net.cpp:141] Setting up inception_3b/5x5
I0403 15:19:25.840509 31461 net.cpp:148] Top shape: 24 96 28 28 (1806336)
I0403 15:19:25.840526 31461 net.cpp:156] Memory required for data: 736986144
I0403 15:19:25.840544 31461 layer_factory.hpp:77] Creating layer inception_3b/relu_5x5
I0403 15:19:25.840564 31461 net.cpp:91] Creating Layer inception_3b/relu_5x5
I0403 15:19:25.840584 31461 net.cpp:425] inception_3b/relu_5x5 <- inception_3b/5x5
I0403 15:19:25.840600 31461 net.cpp:386] inception_3b/relu_5x5 -> inception_3b/5x5 (in-place)
I0403 15:19:25.840796 31461 net.cpp:141] Setting up inception_3b/relu_5x5
I0403 15:19:25.840822 31461 net.cpp:148] Top shape: 24 96 28 28 (1806336)
I0403 15:19:25.840837 31461 net.cpp:156] Memory required for data: 744211488
I0403 15:19:25.840852 31461 layer_factory.hpp:77] Creating layer inception_3b/pool
I0403 15:19:25.840870 31461 net.cpp:91] Creating Layer inception_3b/pool
I0403 15:19:25.840888 31461 net.cpp:425] inception_3b/pool <- inception_3a/output_inception_3a/output_0_split_3
I0403 15:19:25.840905 31461 net.cpp:399] inception_3b/pool -> inception_3b/pool
I0403 15:19:25.840961 31461 net.cpp:141] Setting up inception_3b/pool
I0403 15:19:25.840986 31461 net.cpp:148] Top shape: 24 256 28 28 (4816896)
I0403 15:19:25.841001 31461 net.cpp:156] Memory required for data: 763479072
I0403 15:19:25.841017 31461 layer_factory.hpp:77] Creating layer inception_3b/pool_proj
I0403 15:19:25.841039 31461 net.cpp:91] Creating Layer inception_3b/pool_proj
I0403 15:19:25.841058 31461 net.cpp:425] inception_3b/pool_proj <- inception_3b/pool
I0403 15:19:25.841078 31461 net.cpp:399] inception_3b/pool_proj -> inception_3b/pool_proj
I0403 15:19:25.842152 31461 net.cpp:141] Setting up inception_3b/pool_proj
I0403 15:19:25.842181 31461 net.cpp:148] Top shape: 24 64 28 28 (1204224)
I0403 15:19:25.842197 31461 net.cpp:156] Memory required for data: 768295968
I0403 15:19:25.842216 31461 layer_factory.hpp:77] Creating layer inception_3b/relu_pool_proj
I0403 15:19:25.842234 31461 net.cpp:91] Creating Layer inception_3b/relu_pool_proj
I0403 15:19:25.842252 31461 net.cpp:425] inception_3b/relu_pool_proj <- inception_3b/pool_proj
I0403 15:19:25.842273 31461 net.cpp:386] inception_3b/relu_pool_proj -> inception_3b/pool_proj (in-place)
I0403 15:19:25.842694 31461 net.cpp:141] Setting up inception_3b/relu_pool_proj
I0403 15:19:25.842721 31461 net.cpp:148] Top shape: 24 64 28 28 (1204224)
I0403 15:19:25.842736 31461 net.cpp:156] Memory required for data: 773112864
I0403 15:19:25.842751 31461 layer_factory.hpp:77] Creating layer inception_3b/output
I0403 15:19:25.842768 31461 net.cpp:91] Creating Layer inception_3b/output
I0403 15:19:25.842784 31461 net.cpp:425] inception_3b/output <- inception_3b/1x1
I0403 15:19:25.842800 31461 net.cpp:425] inception_3b/output <- inception_3b/3x3
I0403 15:19:25.842816 31461 net.cpp:425] inception_3b/output <- inception_3b/5x5
I0403 15:19:25.842831 31461 net.cpp:425] inception_3b/output <- inception_3b/pool_proj
I0403 15:19:25.842850 31461 net.cpp:399] inception_3b/output -> inception_3b/output
I0403 15:19:25.842895 31461 net.cpp:141] Setting up inception_3b/output
I0403 15:19:25.842917 31461 net.cpp:148] Top shape: 24 480 28 28 (9031680)
I0403 15:19:25.842936 31461 net.cpp:156] Memory required for data: 809239584
I0403 15:19:25.842952 31461 layer_factory.hpp:77] Creating layer pool3/3x3_s2
I0403 15:19:25.842968 31461 net.cpp:91] Creating Layer pool3/3x3_s2
I0403 15:19:25.842983 31461 net.cpp:425] pool3/3x3_s2 <- inception_3b/output
I0403 15:19:25.843000 31461 net.cpp:399] pool3/3x3_s2 -> pool3/3x3_s2
I0403 15:19:25.843071 31461 net.cpp:141] Setting up pool3/3x3_s2
I0403 15:19:25.843094 31461 net.cpp:148] Top shape: 24 480 14 14 (2257920)
I0403 15:19:25.843109 31461 net.cpp:156] Memory required for data: 818271264
I0403 15:19:25.843124 31461 layer_factory.hpp:77] Creating layer pool3/3x3_s2_pool3/3x3_s2_0_split
I0403 15:19:25.843139 31461 net.cpp:91] Creating Layer pool3/3x3_s2_pool3/3x3_s2_0_split
I0403 15:19:25.843154 31461 net.cpp:425] pool3/3x3_s2_pool3/3x3_s2_0_split <- pool3/3x3_s2
I0403 15:19:25.843173 31461 net.cpp:399] pool3/3x3_s2_pool3/3x3_s2_0_split -> pool3/3x3_s2_pool3/3x3_s2_0_split_0
I0403 15:19:25.843194 31461 net.cpp:399] pool3/3x3_s2_pool3/3x3_s2_0_split -> pool3/3x3_s2_pool3/3x3_s2_0_split_1
I0403 15:19:25.843214 31461 net.cpp:399] pool3/3x3_s2_pool3/3x3_s2_0_split -> pool3/3x3_s2_pool3/3x3_s2_0_split_2
I0403 15:19:25.843235 31461 net.cpp:399] pool3/3x3_s2_pool3/3x3_s2_0_split -> pool3/3x3_s2_pool3/3x3_s2_0_split_3
I0403 15:19:25.843323 31461 net.cpp:141] Setting up pool3/3x3_s2_pool3/3x3_s2_0_split
I0403 15:19:25.843349 31461 net.cpp:148] Top shape: 24 480 14 14 (2257920)
I0403 15:19:25.843366 31461 net.cpp:148] Top shape: 24 480 14 14 (2257920)
I0403 15:19:25.843382 31461 net.cpp:148] Top shape: 24 480 14 14 (2257920)
I0403 15:19:25.843397 31461 net.cpp:148] Top shape: 24 480 14 14 (2257920)
I0403 15:19:25.843410 31461 net.cpp:156] Memory required for data: 854397984
I0403 15:19:25.843425 31461 layer_factory.hpp:77] Creating layer inception_4a/1x1
I0403 15:19:25.843446 31461 net.cpp:91] Creating Layer inception_4a/1x1
I0403 15:19:25.843463 31461 net.cpp:425] inception_4a/1x1 <- pool3/3x3_s2_pool3/3x3_s2_0_split_0
I0403 15:19:25.843484 31461 net.cpp:399] inception_4a/1x1 -> inception_4a/1x1
I0403 15:19:25.845062 31461 net.cpp:141] Setting up inception_4a/1x1
I0403 15:19:25.845089 31461 net.cpp:148] Top shape: 24 192 14 14 (903168)
I0403 15:19:25.845104 31461 net.cpp:156] Memory required for data: 858010656
I0403 15:19:25.845124 31461 layer_factory.hpp:77] Creating layer inception_4a/relu_1x1
I0403 15:19:25.845144 31461 net.cpp:91] Creating Layer inception_4a/relu_1x1
I0403 15:19:25.845160 31461 net.cpp:425] inception_4a/relu_1x1 <- inception_4a/1x1
I0403 15:19:25.845176 31461 net.cpp:386] inception_4a/relu_1x1 -> inception_4a/1x1 (in-place)
I0403 15:19:25.845351 31461 net.cpp:141] Setting up inception_4a/relu_1x1
I0403 15:19:25.845377 31461 net.cpp:148] Top shape: 24 192 14 14 (903168)
I0403 15:19:25.845392 31461 net.cpp:156] Memory required for data: 861623328
I0403 15:19:25.845407 31461 layer_factory.hpp:77] Creating layer inception_4a/3x3_reduce
I0403 15:19:25.845428 31461 net.cpp:91] Creating Layer inception_4a/3x3_reduce
I0403 15:19:25.845446 31461 net.cpp:425] inception_4a/3x3_reduce <- pool3/3x3_s2_pool3/3x3_s2_0_split_1
I0403 15:19:25.845468 31461 net.cpp:399] inception_4a/3x3_reduce -> inception_4a/3x3_reduce
I0403 15:19:25.846709 31461 net.cpp:141] Setting up inception_4a/3x3_reduce
I0403 15:19:25.846736 31461 net.cpp:148] Top shape: 24 96 14 14 (451584)
I0403 15:19:25.846752 31461 net.cpp:156] Memory required for data: 863429664
I0403 15:19:25.846777 31461 layer_factory.hpp:77] Creating layer inception_4a/relu_3x3_reduce
I0403 15:19:25.846796 31461 net.cpp:91] Creating Layer inception_4a/relu_3x3_reduce
I0403 15:19:25.846813 31461 net.cpp:425] inception_4a/relu_3x3_reduce <- inception_4a/3x3_reduce
I0403 15:19:25.846832 31461 net.cpp:386] inception_4a/relu_3x3_reduce -> inception_4a/3x3_reduce (in-place)
I0403 15:19:25.847004 31461 net.cpp:141] Setting up inception_4a/relu_3x3_reduce
I0403 15:19:25.847029 31461 net.cpp:148] Top shape: 24 96 14 14 (451584)
I0403 15:19:25.847044 31461 net.cpp:156] Memory required for data: 865236000
I0403 15:19:25.847059 31461 layer_factory.hpp:77] Creating layer inception_4a/3x3
I0403 15:19:25.847080 31461 net.cpp:91] Creating Layer inception_4a/3x3
I0403 15:19:25.847098 31461 net.cpp:425] inception_4a/3x3 <- inception_4a/3x3_reduce
I0403 15:19:25.847120 31461 net.cpp:399] inception_4a/3x3 -> inception_4a/3x3
I0403 15:19:25.849723 31461 net.cpp:141] Setting up inception_4a/3x3
I0403 15:19:25.849753 31461 net.cpp:148] Top shape: 24 208 14 14 (978432)
I0403 15:19:25.849769 31461 net.cpp:156] Memory required for data: 869149728
I0403 15:19:25.849786 31461 layer_factory.hpp:77] Creating layer inception_4a/relu_3x3
I0403 15:19:25.849807 31461 net.cpp:91] Creating Layer inception_4a/relu_3x3
I0403 15:19:25.849825 31461 net.cpp:425] inception_4a/relu_3x3 <- inception_4a/3x3
I0403 15:19:25.849843 31461 net.cpp:386] inception_4a/relu_3x3 -> inception_4a/3x3 (in-place)
I0403 15:19:25.850116 31461 net.cpp:141] Setting up inception_4a/relu_3x3
I0403 15:19:25.850141 31461 net.cpp:148] Top shape: 24 208 14 14 (978432)
I0403 15:19:25.850155 31461 net.cpp:156] Memory required for data: 873063456
I0403 15:19:25.850170 31461 layer_factory.hpp:77] Creating layer inception_4a/5x5_reduce
I0403 15:19:25.850193 31461 net.cpp:91] Creating Layer inception_4a/5x5_reduce
I0403 15:19:25.850210 31461 net.cpp:425] inception_4a/5x5_reduce <- pool3/3x3_s2_pool3/3x3_s2_0_split_2
I0403 15:19:25.850230 31461 net.cpp:399] inception_4a/5x5_reduce -> inception_4a/5x5_reduce
I0403 15:19:25.851229 31461 net.cpp:141] Setting up inception_4a/5x5_reduce
I0403 15:19:25.851258 31461 net.cpp:148] Top shape: 24 16 14 14 (75264)
I0403 15:19:25.851276 31461 net.cpp:156] Memory required for data: 873364512
I0403 15:19:25.851294 31461 layer_factory.hpp:77] Creating layer inception_4a/relu_5x5_reduce
I0403 15:19:25.851312 31461 net.cpp:91] Creating Layer inception_4a/relu_5x5_reduce
I0403 15:19:25.851333 31461 net.cpp:425] inception_4a/relu_5x5_reduce <- inception_4a/5x5_reduce
I0403 15:19:25.851351 31461 net.cpp:386] inception_4a/relu_5x5_reduce -> inception_4a/5x5_reduce (in-place)
I0403 15:19:25.851528 31461 net.cpp:141] Setting up inception_4a/relu_5x5_reduce
I0403 15:19:25.851554 31461 net.cpp:148] Top shape: 24 16 14 14 (75264)
I0403 15:19:25.851572 31461 net.cpp:156] Memory required for data: 873665568
I0403 15:19:25.851588 31461 layer_factory.hpp:77] Creating layer inception_4a/5x5
I0403 15:19:25.851609 31461 net.cpp:91] Creating Layer inception_4a/5x5
I0403 15:19:25.851627 31461 net.cpp:425] inception_4a/5x5 <- inception_4a/5x5_reduce
I0403 15:19:25.851646 31461 net.cpp:399] inception_4a/5x5 -> inception_4a/5x5
I0403 15:19:25.852704 31461 net.cpp:141] Setting up inception_4a/5x5
I0403 15:19:25.852731 31461 net.cpp:148] Top shape: 24 48 14 14 (225792)
I0403 15:19:25.852746 31461 net.cpp:156] Memory required for data: 874568736
I0403 15:19:25.852764 31461 layer_factory.hpp:77] Creating layer inception_4a/relu_5x5
I0403 15:19:25.852782 31461 net.cpp:91] Creating Layer inception_4a/relu_5x5
I0403 15:19:25.852798 31461 net.cpp:425] inception_4a/relu_5x5 <- inception_4a/5x5
I0403 15:19:25.852818 31461 net.cpp:386] inception_4a/relu_5x5 -> inception_4a/5x5 (in-place)
I0403 15:19:25.852998 31461 net.cpp:141] Setting up inception_4a/relu_5x5
I0403 15:19:25.853023 31461 net.cpp:148] Top shape: 24 48 14 14 (225792)
I0403 15:19:25.853036 31461 net.cpp:156] Memory required for data: 875471904
I0403 15:19:25.853050 31461 layer_factory.hpp:77] Creating layer inception_4a/pool
I0403 15:19:25.853070 31461 net.cpp:91] Creating Layer inception_4a/pool
I0403 15:19:25.853086 31461 net.cpp:425] inception_4a/pool <- pool3/3x3_s2_pool3/3x3_s2_0_split_3
I0403 15:19:25.853104 31461 net.cpp:399] inception_4a/pool -> inception_4a/pool
I0403 15:19:25.853163 31461 net.cpp:141] Setting up inception_4a/pool
I0403 15:19:25.853188 31461 net.cpp:148] Top shape: 24 480 14 14 (2257920)
I0403 15:19:25.853201 31461 net.cpp:156] Memory required for data: 884503584
I0403 15:19:25.853216 31461 layer_factory.hpp:77] Creating layer inception_4a/pool_proj
I0403 15:19:25.853237 31461 net.cpp:91] Creating Layer inception_4a/pool_proj
I0403 15:19:25.853255 31461 net.cpp:425] inception_4a/pool_proj <- inception_4a/pool
I0403 15:19:25.853276 31461 net.cpp:399] inception_4a/pool_proj -> inception_4a/pool_proj
I0403 15:19:25.854421 31461 net.cpp:141] Setting up inception_4a/pool_proj
I0403 15:19:25.854451 31461 net.cpp:148] Top shape: 24 64 14 14 (301056)
I0403 15:19:25.854481 31461 net.cpp:156] Memory required for data: 885707808
I0403 15:19:25.854501 31461 layer_factory.hpp:77] Creating layer inception_4a/relu_pool_proj
I0403 15:19:25.854518 31461 net.cpp:91] Creating Layer inception_4a/relu_pool_proj
I0403 15:19:25.854535 31461 net.cpp:425] inception_4a/relu_pool_proj <- inception_4a/pool_proj
I0403 15:19:25.854555 31461 net.cpp:386] inception_4a/relu_pool_proj -> inception_4a/pool_proj (in-place)
I0403 15:19:25.854837 31461 net.cpp:141] Setting up inception_4a/relu_pool_proj
I0403 15:19:25.854862 31461 net.cpp:148] Top shape: 24 64 14 14 (301056)
I0403 15:19:25.854877 31461 net.cpp:156] Memory required for data: 886912032
I0403 15:19:25.854892 31461 layer_factory.hpp:77] Creating layer inception_4a/output
I0403 15:19:25.854912 31461 net.cpp:91] Creating Layer inception_4a/output
I0403 15:19:25.854928 31461 net.cpp:425] inception_4a/output <- inception_4a/1x1
I0403 15:19:25.854944 31461 net.cpp:425] inception_4a/output <- inception_4a/3x3
I0403 15:19:25.854960 31461 net.cpp:425] inception_4a/output <- inception_4a/5x5
I0403 15:19:25.854975 31461 net.cpp:425] inception_4a/output <- inception_4a/pool_proj
I0403 15:19:25.854993 31461 net.cpp:399] inception_4a/output -> inception_4a/output
I0403 15:19:25.855037 31461 net.cpp:141] Setting up inception_4a/output
I0403 15:19:25.855063 31461 net.cpp:148] Top shape: 24 512 14 14 (2408448)
I0403 15:19:25.855079 31461 net.cpp:156] Memory required for data: 896545824
I0403 15:19:25.855093 31461 layer_factory.hpp:77] Creating layer inception_4a/output_inception_4a/output_0_split
I0403 15:19:25.855111 31461 net.cpp:91] Creating Layer inception_4a/output_inception_4a/output_0_split
I0403 15:19:25.855126 31461 net.cpp:425] inception_4a/output_inception_4a/output_0_split <- inception_4a/output
I0403 15:19:25.855144 31461 net.cpp:399] inception_4a/output_inception_4a/output_0_split -> inception_4a/output_inception_4a/output_0_split_0
I0403 15:19:25.855165 31461 net.cpp:399] inception_4a/output_inception_4a/output_0_split -> inception_4a/output_inception_4a/output_0_split_1
I0403 15:19:25.855187 31461 net.cpp:399] inception_4a/output_inception_4a/output_0_split -> inception_4a/output_inception_4a/output_0_split_2
I0403 15:19:25.855207 31461 net.cpp:399] inception_4a/output_inception_4a/output_0_split -> inception_4a/output_inception_4a/output_0_split_3
I0403 15:19:25.855226 31461 net.cpp:399] inception_4a/output_inception_4a/output_0_split -> inception_4a/output_inception_4a/output_0_split_4
I0403 15:19:25.855319 31461 net.cpp:141] Setting up inception_4a/output_inception_4a/output_0_split
I0403 15:19:25.855342 31461 net.cpp:148] Top shape: 24 512 14 14 (2408448)
I0403 15:19:25.855362 31461 net.cpp:148] Top shape: 24 512 14 14 (2408448)
I0403 15:19:25.855379 31461 net.cpp:148] Top shape: 24 512 14 14 (2408448)
I0403 15:19:25.855396 31461 net.cpp:148] Top shape: 24 512 14 14 (2408448)
I0403 15:19:25.855412 31461 net.cpp:148] Top shape: 24 512 14 14 (2408448)
I0403 15:19:25.855424 31461 net.cpp:156] Memory required for data: 944714784
I0403 15:19:25.855437 31461 layer_factory.hpp:77] Creating layer loss1/ave_pool
I0403 15:19:25.855454 31461 net.cpp:91] Creating Layer loss1/ave_pool
I0403 15:19:25.855470 31461 net.cpp:425] loss1/ave_pool <- inception_4a/output_inception_4a/output_0_split_0
I0403 15:19:25.855489 31461 net.cpp:399] loss1/ave_pool -> loss1/ave_pool
I0403 15:19:25.855690 31461 net.cpp:141] Setting up loss1/ave_pool
I0403 15:19:25.855716 31461 net.cpp:148] Top shape: 24 512 4 4 (196608)
I0403 15:19:25.855731 31461 net.cpp:156] Memory required for data: 945501216
I0403 15:19:25.855746 31461 layer_factory.hpp:77] Creating layer loss1/conv
I0403 15:19:25.855767 31461 net.cpp:91] Creating Layer loss1/conv
I0403 15:19:25.855785 31461 net.cpp:425] loss1/conv <- loss1/ave_pool
I0403 15:19:25.855808 31461 net.cpp:399] loss1/conv -> loss1/conv
I0403 15:19:25.857197 31461 net.cpp:141] Setting up loss1/conv
I0403 15:19:25.857225 31461 net.cpp:148] Top shape: 24 128 4 4 (49152)
I0403 15:19:25.857242 31461 net.cpp:156] Memory required for data: 945697824
I0403 15:19:25.857275 31461 layer_factory.hpp:77] Creating layer loss1/relu_conv
I0403 15:19:25.857297 31461 net.cpp:91] Creating Layer loss1/relu_conv
I0403 15:19:25.857319 31461 net.cpp:425] loss1/relu_conv <- loss1/conv
I0403 15:19:25.857339 31461 net.cpp:386] loss1/relu_conv -> loss1/conv (in-place)
I0403 15:19:25.857626 31461 net.cpp:141] Setting up loss1/relu_conv
I0403 15:19:25.857655 31461 net.cpp:148] Top shape: 24 128 4 4 (49152)
I0403 15:19:25.857671 31461 net.cpp:156] Memory required for data: 945894432
I0403 15:19:25.857686 31461 layer_factory.hpp:77] Creating layer loss1/fc
I0403 15:19:25.857712 31461 net.cpp:91] Creating Layer loss1/fc
I0403 15:19:25.857730 31461 net.cpp:425] loss1/fc <- loss1/conv
I0403 15:19:25.857750 31461 net.cpp:399] loss1/fc -> loss1/fc
I0403 15:19:25.875605 31461 net.cpp:141] Setting up loss1/fc
I0403 15:19:25.875654 31461 net.cpp:148] Top shape: 24 1024 (24576)
I0403 15:19:25.875671 31461 net.cpp:156] Memory required for data: 945992736
I0403 15:19:25.875692 31461 layer_factory.hpp:77] Creating layer loss1/relu_fc
I0403 15:19:25.875712 31461 net.cpp:91] Creating Layer loss1/relu_fc
I0403 15:19:25.875728 31461 net.cpp:425] loss1/relu_fc <- loss1/fc
I0403 15:19:25.875749 31461 net.cpp:386] loss1/relu_fc -> loss1/fc (in-place)
I0403 15:19:25.875962 31461 net.cpp:141] Setting up loss1/relu_fc
I0403 15:19:25.875988 31461 net.cpp:148] Top shape: 24 1024 (24576)
I0403 15:19:25.876004 31461 net.cpp:156] Memory required for data: 946091040
I0403 15:19:25.876019 31461 layer_factory.hpp:77] Creating layer loss1/drop_fc
I0403 15:19:25.876049 31461 net.cpp:91] Creating Layer loss1/drop_fc
I0403 15:19:25.876066 31461 net.cpp:425] loss1/drop_fc <- loss1/fc
I0403 15:19:25.876085 31461 net.cpp:386] loss1/drop_fc -> loss1/fc (in-place)
I0403 15:19:25.876135 31461 net.cpp:141] Setting up loss1/drop_fc
I0403 15:19:25.876163 31461 net.cpp:148] Top shape: 24 1024 (24576)
I0403 15:19:25.876180 31461 net.cpp:156] Memory required for data: 946189344
I0403 15:19:25.876195 31461 layer_factory.hpp:77] Creating layer loss1/classifier_plantvillage
I0403 15:19:25.876224 31461 net.cpp:91] Creating Layer loss1/classifier_plantvillage
I0403 15:19:25.876240 31461 net.cpp:425] loss1/classifier_plantvillage <- loss1/fc
I0403 15:19:25.876260 31461 net.cpp:399] loss1/classifier_plantvillage -> loss1/classifier_plantvillage
I0403 15:19:25.877187 31461 net.cpp:141] Setting up loss1/classifier_plantvillage
I0403 15:19:25.877216 31461 net.cpp:148] Top shape: 24 38 (912)
I0403 15:19:25.877233 31461 net.cpp:156] Memory required for data: 946192992
I0403 15:19:25.877251 31461 layer_factory.hpp:77] Creating layer loss1/classifier_plantvillage_loss1/classifier_plantvillage_0_split
I0403 15:19:25.877272 31461 net.cpp:91] Creating Layer loss1/classifier_plantvillage_loss1/classifier_plantvillage_0_split
I0403 15:19:25.877290 31461 net.cpp:425] loss1/classifier_plantvillage_loss1/classifier_plantvillage_0_split <- loss1/classifier_plantvillage
I0403 15:19:25.877308 31461 net.cpp:399] loss1/classifier_plantvillage_loss1/classifier_plantvillage_0_split -> loss1/classifier_plantvillage_loss1/classifier_plantvillage_0_split_0
I0403 15:19:25.877333 31461 net.cpp:399] loss1/classifier_plantvillage_loss1/classifier_plantvillage_0_split -> loss1/classifier_plantvillage_loss1/classifier_plantvillage_0_split_1
I0403 15:19:25.877357 31461 net.cpp:399] loss1/classifier_plantvillage_loss1/classifier_plantvillage_0_split -> loss1/classifier_plantvillage_loss1/classifier_plantvillage_0_split_2
I0403 15:19:25.877426 31461 net.cpp:141] Setting up loss1/classifier_plantvillage_loss1/classifier_plantvillage_0_split
I0403 15:19:25.877449 31461 net.cpp:148] Top shape: 24 38 (912)
I0403 15:19:25.877466 31461 net.cpp:148] Top shape: 24 38 (912)
I0403 15:19:25.877481 31461 net.cpp:148] Top shape: 24 38 (912)
I0403 15:19:25.877496 31461 net.cpp:156] Memory required for data: 946203936
I0403 15:19:25.877511 31461 layer_factory.hpp:77] Creating layer inception_4b/1x1
I0403 15:19:25.877532 31461 net.cpp:91] Creating Layer inception_4b/1x1
I0403 15:19:25.877573 31461 net.cpp:425] inception_4b/1x1 <- inception_4a/output_inception_4a/output_0_split_1
I0403 15:19:25.877598 31461 net.cpp:399] inception_4b/1x1 -> inception_4b/1x1
I0403 15:19:25.879273 31461 net.cpp:141] Setting up inception_4b/1x1
I0403 15:19:25.879302 31461 net.cpp:148] Top shape: 24 160 14 14 (752640)
I0403 15:19:25.879322 31461 net.cpp:156] Memory required for data: 949214496
I0403 15:19:25.879343 31461 layer_factory.hpp:77] Creating layer inception_4b/relu_1x1
I0403 15:19:25.879364 31461 net.cpp:91] Creating Layer inception_4b/relu_1x1
I0403 15:19:25.879381 31461 net.cpp:425] inception_4b/relu_1x1 <- inception_4b/1x1
I0403 15:19:25.879398 31461 net.cpp:386] inception_4b/relu_1x1 -> inception_4b/1x1 (in-place)
I0403 15:19:25.879582 31461 net.cpp:141] Setting up inception_4b/relu_1x1
I0403 15:19:25.879611 31461 net.cpp:148] Top shape: 24 160 14 14 (752640)
I0403 15:19:25.879626 31461 net.cpp:156] Memory required for data: 952225056
I0403 15:19:25.879642 31461 layer_factory.hpp:77] Creating layer inception_4b/3x3_reduce
I0403 15:19:25.879664 31461 net.cpp:91] Creating Layer inception_4b/3x3_reduce
I0403 15:19:25.879683 31461 net.cpp:425] inception_4b/3x3_reduce <- inception_4a/output_inception_4a/output_0_split_2
I0403 15:19:25.879703 31461 net.cpp:399] inception_4b/3x3_reduce -> inception_4b/3x3_reduce
I0403 15:19:25.881065 31461 net.cpp:141] Setting up inception_4b/3x3_reduce
I0403 15:19:25.881098 31461 net.cpp:148] Top shape: 24 112 14 14 (526848)
I0403 15:19:25.881114 31461 net.cpp:156] Memory required for data: 954332448
I0403 15:19:25.881134 31461 layer_factory.hpp:77] Creating layer inception_4b/relu_3x3_reduce
I0403 15:19:25.881151 31461 net.cpp:91] Creating Layer inception_4b/relu_3x3_reduce
I0403 15:19:25.881166 31461 net.cpp:425] inception_4b/relu_3x3_reduce <- inception_4b/3x3_reduce
I0403 15:19:25.881186 31461 net.cpp:386] inception_4b/relu_3x3_reduce -> inception_4b/3x3_reduce (in-place)
I0403 15:19:25.881472 31461 net.cpp:141] Setting up inception_4b/relu_3x3_reduce
I0403 15:19:25.881501 31461 net.cpp:148] Top shape: 24 112 14 14 (526848)
I0403 15:19:25.881518 31461 net.cpp:156] Memory required for data: 956439840
I0403 15:19:25.881534 31461 layer_factory.hpp:77] Creating layer inception_4b/3x3
I0403 15:19:25.881556 31461 net.cpp:91] Creating Layer inception_4b/3x3
I0403 15:19:25.881575 31461 net.cpp:425] inception_4b/3x3 <- inception_4b/3x3_reduce
I0403 15:19:25.881595 31461 net.cpp:399] inception_4b/3x3 -> inception_4b/3x3
I0403 15:19:25.884587 31461 net.cpp:141] Setting up inception_4b/3x3
I0403 15:19:25.884616 31461 net.cpp:148] Top shape: 24 224 14 14 (1053696)
I0403 15:19:25.884631 31461 net.cpp:156] Memory required for data: 960654624
I0403 15:19:25.884649 31461 layer_factory.hpp:77] Creating layer inception_4b/relu_3x3
I0403 15:19:25.884671 31461 net.cpp:91] Creating Layer inception_4b/relu_3x3
I0403 15:19:25.884688 31461 net.cpp:425] inception_4b/relu_3x3 <- inception_4b/3x3
I0403 15:19:25.884707 31461 net.cpp:386] inception_4b/relu_3x3 -> inception_4b/3x3 (in-place)
I0403 15:19:25.884891 31461 net.cpp:141] Setting up inception_4b/relu_3x3
I0403 15:19:25.884917 31461 net.cpp:148] Top shape: 24 224 14 14 (1053696)
I0403 15:19:25.884932 31461 net.cpp:156] Memory required for data: 964869408
I0403 15:19:25.884946 31461 layer_factory.hpp:77] Creating layer inception_4b/5x5_reduce
I0403 15:19:25.884971 31461 net.cpp:91] Creating Layer inception_4b/5x5_reduce
I0403 15:19:25.884989 31461 net.cpp:425] inception_4b/5x5_reduce <- inception_4a/output_inception_4a/output_0_split_3
I0403 15:19:25.885010 31461 net.cpp:399] inception_4b/5x5_reduce -> inception_4b/5x5_reduce
I0403 15:19:25.886097 31461 net.cpp:141] Setting up inception_4b/5x5_reduce
I0403 15:19:25.886126 31461 net.cpp:148] Top shape: 24 24 14 14 (112896)
I0403 15:19:25.886142 31461 net.cpp:156] Memory required for data: 965320992
I0403 15:19:25.886160 31461 layer_factory.hpp:77] Creating layer inception_4b/relu_5x5_reduce
I0403 15:19:25.886181 31461 net.cpp:91] Creating Layer inception_4b/relu_5x5_reduce
I0403 15:19:25.886212 31461 net.cpp:425] inception_4b/relu_5x5_reduce <- inception_4b/5x5_reduce
I0403 15:19:25.886231 31461 net.cpp:386] inception_4b/relu_5x5_reduce -> inception_4b/5x5_reduce (in-place)
I0403 15:19:25.886425 31461 net.cpp:141] Setting up inception_4b/relu_5x5_reduce
I0403 15:19:25.886451 31461 net.cpp:148] Top shape: 24 24 14 14 (112896)
I0403 15:19:25.886466 31461 net.cpp:156] Memory required for data: 965772576
I0403 15:19:25.886481 31461 layer_factory.hpp:77] Creating layer inception_4b/5x5
I0403 15:19:25.886503 31461 net.cpp:91] Creating Layer inception_4b/5x5
I0403 15:19:25.886523 31461 net.cpp:425] inception_4b/5x5 <- inception_4b/5x5_reduce
I0403 15:19:25.886543 31461 net.cpp:399] inception_4b/5x5 -> inception_4b/5x5
I0403 15:19:25.887787 31461 net.cpp:141] Setting up inception_4b/5x5
I0403 15:19:25.887815 31461 net.cpp:148] Top shape: 24 64 14 14 (301056)
I0403 15:19:25.887831 31461 net.cpp:156] Memory required for data: 966976800
I0403 15:19:25.887850 31461 layer_factory.hpp:77] Creating layer inception_4b/relu_5x5
I0403 15:19:25.887871 31461 net.cpp:91] Creating Layer inception_4b/relu_5x5
I0403 15:19:25.887888 31461 net.cpp:425] inception_4b/relu_5x5 <- inception_4b/5x5
I0403 15:19:25.887907 31461 net.cpp:386] inception_4b/relu_5x5 -> inception_4b/5x5 (in-place)
I0403 15:19:25.888196 31461 net.cpp:141] Setting up inception_4b/relu_5x5
I0403 15:19:25.888223 31461 net.cpp:148] Top shape: 24 64 14 14 (301056)
I0403 15:19:25.888238 31461 net.cpp:156] Memory required for data: 968181024
I0403 15:19:25.888253 31461 layer_factory.hpp:77] Creating layer inception_4b/pool
I0403 15:19:25.888275 31461 net.cpp:91] Creating Layer inception_4b/pool
I0403 15:19:25.888293 31461 net.cpp:425] inception_4b/pool <- inception_4a/output_inception_4a/output_0_split_4
I0403 15:19:25.888312 31461 net.cpp:399] inception_4b/pool -> inception_4b/pool
I0403 15:19:25.888384 31461 net.cpp:141] Setting up inception_4b/pool
I0403 15:19:25.888408 31461 net.cpp:148] Top shape: 24 512 14 14 (2408448)
I0403 15:19:25.888424 31461 net.cpp:156] Memory required for data: 977814816
I0403 15:19:25.888439 31461 layer_factory.hpp:77] Creating layer inception_4b/pool_proj
I0403 15:19:25.888461 31461 net.cpp:91] Creating Layer inception_4b/pool_proj
I0403 15:19:25.888480 31461 net.cpp:425] inception_4b/pool_proj <- inception_4b/pool
I0403 15:19:25.888501 31461 net.cpp:399] inception_4b/pool_proj -> inception_4b/pool_proj
I0403 15:19:25.889724 31461 net.cpp:141] Setting up inception_4b/pool_proj
I0403 15:19:25.889756 31461 net.cpp:148] Top shape: 24 64 14 14 (301056)
I0403 15:19:25.889772 31461 net.cpp:156] Memory required for data: 979019040
I0403 15:19:25.889791 31461 layer_factory.hpp:77] Creating layer inception_4b/relu_pool_proj
I0403 15:19:25.889808 31461 net.cpp:91] Creating Layer inception_4b/relu_pool_proj
I0403 15:19:25.889825 31461 net.cpp:425] inception_4b/relu_pool_proj <- inception_4b/pool_proj
I0403 15:19:25.889843 31461 net.cpp:386] inception_4b/relu_pool_proj -> inception_4b/pool_proj (in-place)
I0403 15:19:25.890033 31461 net.cpp:141] Setting up inception_4b/relu_pool_proj
I0403 15:19:25.890058 31461 net.cpp:148] Top shape: 24 64 14 14 (301056)
I0403 15:19:25.890074 31461 net.cpp:156] Memory required for data: 980223264
I0403 15:19:25.890089 31461 layer_factory.hpp:77] Creating layer inception_4b/output
I0403 15:19:25.890105 31461 net.cpp:91] Creating Layer inception_4b/output
I0403 15:19:25.890120 31461 net.cpp:425] inception_4b/output <- inception_4b/1x1
I0403 15:19:25.890137 31461 net.cpp:425] inception_4b/output <- inception_4b/3x3
I0403 15:19:25.890153 31461 net.cpp:425] inception_4b/output <- inception_4b/5x5
I0403 15:19:25.890171 31461 net.cpp:425] inception_4b/output <- inception_4b/pool_proj
I0403 15:19:25.890189 31461 net.cpp:399] inception_4b/output -> inception_4b/output
I0403 15:19:25.890235 31461 net.cpp:141] Setting up inception_4b/output
I0403 15:19:25.890260 31461 net.cpp:148] Top shape: 24 512 14 14 (2408448)
I0403 15:19:25.890275 31461 net.cpp:156] Memory required for data: 989857056
I0403 15:19:25.890303 31461 layer_factory.hpp:77] Creating layer inception_4b/output_inception_4b/output_0_split
I0403 15:19:25.890328 31461 net.cpp:91] Creating Layer inception_4b/output_inception_4b/output_0_split
I0403 15:19:25.890347 31461 net.cpp:425] inception_4b/output_inception_4b/output_0_split <- inception_4b/output
I0403 15:19:25.890364 31461 net.cpp:399] inception_4b/output_inception_4b/output_0_split -> inception_4b/output_inception_4b/output_0_split_0
I0403 15:19:25.890388 31461 net.cpp:399] inception_4b/output_inception_4b/output_0_split -> inception_4b/output_inception_4b/output_0_split_1
I0403 15:19:25.890408 31461 net.cpp:399] inception_4b/output_inception_4b/output_0_split -> inception_4b/output_inception_4b/output_0_split_2
I0403 15:19:25.890429 31461 net.cpp:399] inception_4b/output_inception_4b/output_0_split -> inception_4b/output_inception_4b/output_0_split_3
I0403 15:19:25.890511 31461 net.cpp:141] Setting up inception_4b/output_inception_4b/output_0_split
I0403 15:19:25.890535 31461 net.cpp:148] Top shape: 24 512 14 14 (2408448)
I0403 15:19:25.890552 31461 net.cpp:148] Top shape: 24 512 14 14 (2408448)
I0403 15:19:25.890568 31461 net.cpp:148] Top shape: 24 512 14 14 (2408448)
I0403 15:19:25.890583 31461 net.cpp:148] Top shape: 24 512 14 14 (2408448)
I0403 15:19:25.890597 31461 net.cpp:156] Memory required for data: 1028392224
I0403 15:19:25.890611 31461 layer_factory.hpp:77] Creating layer inception_4c/1x1
I0403 15:19:25.890635 31461 net.cpp:91] Creating Layer inception_4c/1x1
I0403 15:19:25.890652 31461 net.cpp:425] inception_4c/1x1 <- inception_4b/output_inception_4b/output_0_split_0
I0403 15:19:25.890674 31461 net.cpp:399] inception_4c/1x1 -> inception_4c/1x1
I0403 15:19:25.892154 31461 net.cpp:141] Setting up inception_4c/1x1
I0403 15:19:25.892184 31461 net.cpp:148] Top shape: 24 128 14 14 (602112)
I0403 15:19:25.892199 31461 net.cpp:156] Memory required for data: 1030800672
I0403 15:19:25.892215 31461 layer_factory.hpp:77] Creating layer inception_4c/relu_1x1
I0403 15:19:25.892235 31461 net.cpp:91] Creating Layer inception_4c/relu_1x1
I0403 15:19:25.892282 31461 net.cpp:425] inception_4c/relu_1x1 <- inception_4c/1x1
I0403 15:19:25.892300 31461 net.cpp:386] inception_4c/relu_1x1 -> inception_4c/1x1 (in-place)
I0403 15:19:25.892491 31461 net.cpp:141] Setting up inception_4c/relu_1x1
I0403 15:19:25.892518 31461 net.cpp:148] Top shape: 24 128 14 14 (602112)
I0403 15:19:25.892545 31461 net.cpp:156] Memory required for data: 1033209120
I0403 15:19:25.892560 31461 layer_factory.hpp:77] Creating layer inception_4c/3x3_reduce
I0403 15:19:25.892585 31461 net.cpp:91] Creating Layer inception_4c/3x3_reduce
I0403 15:19:25.892602 31461 net.cpp:425] inception_4c/3x3_reduce <- inception_4b/output_inception_4b/output_0_split_1
I0403 15:19:25.892626 31461 net.cpp:399] inception_4c/3x3_reduce -> inception_4c/3x3_reduce
I0403 15:19:25.894593 31461 net.cpp:141] Setting up inception_4c/3x3_reduce
I0403 15:19:25.894623 31461 net.cpp:148] Top shape: 24 128 14 14 (602112)
I0403 15:19:25.894639 31461 net.cpp:156] Memory required for data: 1035617568
I0403 15:19:25.894659 31461 layer_factory.hpp:77] Creating layer inception_4c/relu_3x3_reduce
I0403 15:19:25.894685 31461 net.cpp:91] Creating Layer inception_4c/relu_3x3_reduce
I0403 15:19:25.894701 31461 net.cpp:425] inception_4c/relu_3x3_reduce <- inception_4c/3x3_reduce
I0403 15:19:25.894721 31461 net.cpp:386] inception_4c/relu_3x3_reduce -> inception_4c/3x3_reduce (in-place)
I0403 15:19:25.895027 31461 net.cpp:141] Setting up inception_4c/relu_3x3_reduce
I0403 15:19:25.895061 31461 net.cpp:148] Top shape: 24 128 14 14 (602112)
I0403 15:19:25.895086 31461 net.cpp:156] Memory required for data: 1038026016
I0403 15:19:25.895108 31461 layer_factory.hpp:77] Creating layer inception_4c/3x3
I0403 15:19:25.895138 31461 net.cpp:91] Creating Layer inception_4c/3x3
I0403 15:19:25.895164 31461 net.cpp:425] inception_4c/3x3 <- inception_4c/3x3_reduce
I0403 15:19:25.895187 31461 net.cpp:399] inception_4c/3x3 -> inception_4c/3x3
I0403 15:19:25.898890 31461 net.cpp:141] Setting up inception_4c/3x3
I0403 15:19:25.898947 31461 net.cpp:148] Top shape: 24 256 14 14 (1204224)
I0403 15:19:25.898965 31461 net.cpp:156] Memory required for data: 1042842912
I0403 15:19:25.898998 31461 layer_factory.hpp:77] Creating layer inception_4c/relu_3x3
I0403 15:19:25.899020 31461 net.cpp:91] Creating Layer inception_4c/relu_3x3
I0403 15:19:25.899037 31461 net.cpp:425] inception_4c/relu_3x3 <- inception_4c/3x3
I0403 15:19:25.899055 31461 net.cpp:386] inception_4c/relu_3x3 -> inception_4c/3x3 (in-place)
I0403 15:19:25.899240 31461 net.cpp:141] Setting up inception_4c/relu_3x3
I0403 15:19:25.899267 31461 net.cpp:148] Top shape: 24 256 14 14 (1204224)
I0403 15:19:25.899284 31461 net.cpp:156] Memory required for data: 1047659808
I0403 15:19:25.899299 31461 layer_factory.hpp:77] Creating layer inception_4c/5x5_reduce
I0403 15:19:25.899327 31461 net.cpp:91] Creating Layer inception_4c/5x5_reduce
I0403 15:19:25.899346 31461 net.cpp:425] inception_4c/5x5_reduce <- inception_4b/output_inception_4b/output_0_split_2
I0403 15:19:25.899365 31461 net.cpp:399] inception_4c/5x5_reduce -> inception_4c/5x5_reduce
I0403 15:19:25.900496 31461 net.cpp:141] Setting up inception_4c/5x5_reduce
I0403 15:19:25.900526 31461 net.cpp:148] Top shape: 24 24 14 14 (112896)
I0403 15:19:25.900542 31461 net.cpp:156] Memory required for data: 1048111392
I0403 15:19:25.900559 31461 layer_factory.hpp:77] Creating layer inception_4c/relu_5x5_reduce
I0403 15:19:25.900583 31461 net.cpp:91] Creating Layer inception_4c/relu_5x5_reduce
I0403 15:19:25.900600 31461 net.cpp:425] inception_4c/relu_5x5_reduce <- inception_4c/5x5_reduce
I0403 15:19:25.900619 31461 net.cpp:386] inception_4c/relu_5x5_reduce -> inception_4c/5x5_reduce (in-place)
I0403 15:19:25.900809 31461 net.cpp:141] Setting up inception_4c/relu_5x5_reduce
I0403 15:19:25.900833 31461 net.cpp:148] Top shape: 24 24 14 14 (112896)
I0403 15:19:25.900849 31461 net.cpp:156] Memory required for data: 1048562976
I0403 15:19:25.900864 31461 layer_factory.hpp:77] Creating layer inception_4c/5x5
I0403 15:19:25.900887 31461 net.cpp:91] Creating Layer inception_4c/5x5
I0403 15:19:25.900904 31461 net.cpp:425] inception_4c/5x5 <- inception_4c/5x5_reduce
I0403 15:19:25.900925 31461 net.cpp:399] inception_4c/5x5 -> inception_4c/5x5
I0403 15:19:25.902185 31461 net.cpp:141] Setting up inception_4c/5x5
I0403 15:19:25.902217 31461 net.cpp:148] Top shape: 24 64 14 14 (301056)
I0403 15:19:25.902235 31461 net.cpp:156] Memory required for data: 1049767200
I0403 15:19:25.902253 31461 layer_factory.hpp:77] Creating layer inception_4c/relu_5x5
I0403 15:19:25.902272 31461 net.cpp:91] Creating Layer inception_4c/relu_5x5
I0403 15:19:25.902289 31461 net.cpp:425] inception_4c/relu_5x5 <- inception_4c/5x5
I0403 15:19:25.902309 31461 net.cpp:386] inception_4c/relu_5x5 -> inception_4c/5x5 (in-place)
I0403 15:19:25.902607 31461 net.cpp:141] Setting up inception_4c/relu_5x5
I0403 15:19:25.902634 31461 net.cpp:148] Top shape: 24 64 14 14 (301056)
I0403 15:19:25.902662 31461 net.cpp:156] Memory required for data: 1050971424
I0403 15:19:25.902678 31461 layer_factory.hpp:77] Creating layer inception_4c/pool
I0403 15:19:25.902696 31461 net.cpp:91] Creating Layer inception_4c/pool
I0403 15:19:25.902714 31461 net.cpp:425] inception_4c/pool <- inception_4b/output_inception_4b/output_0_split_3
I0403 15:19:25.902735 31461 net.cpp:399] inception_4c/pool -> inception_4c/pool
I0403 15:19:25.902802 31461 net.cpp:141] Setting up inception_4c/pool
I0403 15:19:25.902830 31461 net.cpp:148] Top shape: 24 512 14 14 (2408448)
I0403 15:19:25.902848 31461 net.cpp:156] Memory required for data: 1060605216
I0403 15:19:25.902863 31461 layer_factory.hpp:77] Creating layer inception_4c/pool_proj
I0403 15:19:25.902885 31461 net.cpp:91] Creating Layer inception_4c/pool_proj
I0403 15:19:25.902904 31461 net.cpp:425] inception_4c/pool_proj <- inception_4c/pool
I0403 15:19:25.902935 31461 net.cpp:399] inception_4c/pool_proj -> inception_4c/pool_proj
I0403 15:19:25.904207 31461 net.cpp:141] Setting up inception_4c/pool_proj
I0403 15:19:25.904238 31461 net.cpp:148] Top shape: 24 64 14 14 (301056)
I0403 15:19:25.904268 31461 net.cpp:156] Memory required for data: 1061809440
I0403 15:19:25.904289 31461 layer_factory.hpp:77] Creating layer inception_4c/relu_pool_proj
I0403 15:19:25.904306 31461 net.cpp:91] Creating Layer inception_4c/relu_pool_proj
I0403 15:19:25.904335 31461 net.cpp:425] inception_4c/relu_pool_proj <- inception_4c/pool_proj
I0403 15:19:25.904356 31461 net.cpp:386] inception_4c/relu_pool_proj -> inception_4c/pool_proj (in-place)
I0403 15:19:25.904536 31461 net.cpp:141] Setting up inception_4c/relu_pool_proj
I0403 15:19:25.904563 31461 net.cpp:148] Top shape: 24 64 14 14 (301056)
I0403 15:19:25.904579 31461 net.cpp:156] Memory required for data: 1063013664
I0403 15:19:25.904595 31461 layer_factory.hpp:77] Creating layer inception_4c/output
I0403 15:19:25.904613 31461 net.cpp:91] Creating Layer inception_4c/output
I0403 15:19:25.904628 31461 net.cpp:425] inception_4c/output <- inception_4c/1x1
I0403 15:19:25.904644 31461 net.cpp:425] inception_4c/output <- inception_4c/3x3
I0403 15:19:25.904660 31461 net.cpp:425] inception_4c/output <- inception_4c/5x5
I0403 15:19:25.904675 31461 net.cpp:425] inception_4c/output <- inception_4c/pool_proj
I0403 15:19:25.904695 31461 net.cpp:399] inception_4c/output -> inception_4c/output
I0403 15:19:25.904741 31461 net.cpp:141] Setting up inception_4c/output
I0403 15:19:25.904763 31461 net.cpp:148] Top shape: 24 512 14 14 (2408448)
I0403 15:19:25.904778 31461 net.cpp:156] Memory required for data: 1072647456
I0403 15:19:25.904791 31461 layer_factory.hpp:77] Creating layer inception_4c/output_inception_4c/output_0_split
I0403 15:19:25.904811 31461 net.cpp:91] Creating Layer inception_4c/output_inception_4c/output_0_split
I0403 15:19:25.904827 31461 net.cpp:425] inception_4c/output_inception_4c/output_0_split <- inception_4c/output
I0403 15:19:25.904845 31461 net.cpp:399] inception_4c/output_inception_4c/output_0_split -> inception_4c/output_inception_4c/output_0_split_0
I0403 15:19:25.904865 31461 net.cpp:399] inception_4c/output_inception_4c/output_0_split -> inception_4c/output_inception_4c/output_0_split_1
I0403 15:19:25.904887 31461 net.cpp:399] inception_4c/output_inception_4c/output_0_split -> inception_4c/output_inception_4c/output_0_split_2
I0403 15:19:25.904907 31461 net.cpp:399] inception_4c/output_inception_4c/output_0_split -> inception_4c/output_inception_4c/output_0_split_3
I0403 15:19:25.904989 31461 net.cpp:141] Setting up inception_4c/output_inception_4c/output_0_split
I0403 15:19:25.905014 31461 net.cpp:148] Top shape: 24 512 14 14 (2408448)
I0403 15:19:25.905030 31461 net.cpp:148] Top shape: 24 512 14 14 (2408448)
I0403 15:19:25.905045 31461 net.cpp:148] Top shape: 24 512 14 14 (2408448)
I0403 15:19:25.905061 31461 net.cpp:148] Top shape: 24 512 14 14 (2408448)
I0403 15:19:25.905074 31461 net.cpp:156] Memory required for data: 1111182624
I0403 15:19:25.905088 31461 layer_factory.hpp:77] Creating layer inception_4d/1x1
I0403 15:19:25.905112 31461 net.cpp:91] Creating Layer inception_4d/1x1
I0403 15:19:25.905129 31461 net.cpp:425] inception_4d/1x1 <- inception_4c/output_inception_4c/output_0_split_0
I0403 15:19:25.905151 31461 net.cpp:399] inception_4d/1x1 -> inception_4d/1x1
I0403 15:19:25.906517 31461 net.cpp:141] Setting up inception_4d/1x1
I0403 15:19:25.906544 31461 net.cpp:148] Top shape: 24 112 14 14 (526848)
I0403 15:19:25.906559 31461 net.cpp:156] Memory required for data: 1113290016
I0403 15:19:25.906579 31461 layer_factory.hpp:77] Creating layer inception_4d/relu_1x1
I0403 15:19:25.906599 31461 net.cpp:91] Creating Layer inception_4d/relu_1x1
I0403 15:19:25.906616 31461 net.cpp:425] inception_4d/relu_1x1 <- inception_4d/1x1
I0403 15:19:25.906635 31461 net.cpp:386] inception_4d/relu_1x1 -> inception_4d/1x1 (in-place)
I0403 15:19:25.906816 31461 net.cpp:141] Setting up inception_4d/relu_1x1
I0403 15:19:25.906839 31461 net.cpp:148] Top shape: 24 112 14 14 (526848)
I0403 15:19:25.906853 31461 net.cpp:156] Memory required for data: 1115397408
I0403 15:19:25.906868 31461 layer_factory.hpp:77] Creating layer inception_4d/3x3_reduce
I0403 15:19:25.906906 31461 net.cpp:91] Creating Layer inception_4d/3x3_reduce
I0403 15:19:25.906925 31461 net.cpp:425] inception_4d/3x3_reduce <- inception_4c/output_inception_4c/output_0_split_1
I0403 15:19:25.906944 31461 net.cpp:399] inception_4d/3x3_reduce -> inception_4d/3x3_reduce
I0403 15:19:25.908459 31461 net.cpp:141] Setting up inception_4d/3x3_reduce
I0403 15:19:25.908486 31461 net.cpp:148] Top shape: 24 144 14 14 (677376)
I0403 15:19:25.908501 31461 net.cpp:156] Memory required for data: 1118106912
I0403 15:19:25.908520 31461 layer_factory.hpp:77] Creating layer inception_4d/relu_3x3_reduce
I0403 15:19:25.908538 31461 net.cpp:91] Creating Layer inception_4d/relu_3x3_reduce
I0403 15:19:25.908555 31461 net.cpp:425] inception_4d/relu_3x3_reduce <- inception_4d/3x3_reduce
I0403 15:19:25.908576 31461 net.cpp:386] inception_4d/relu_3x3_reduce -> inception_4d/3x3_reduce (in-place)
I0403 15:19:25.908860 31461 net.cpp:141] Setting up inception_4d/relu_3x3_reduce
I0403 15:19:25.908887 31461 net.cpp:148] Top shape: 24 144 14 14 (677376)
I0403 15:19:25.908901 31461 net.cpp:156] Memory required for data: 1120816416
I0403 15:19:25.908917 31461 layer_factory.hpp:77] Creating layer inception_4d/3x3
I0403 15:19:25.908939 31461 net.cpp:91] Creating Layer inception_4d/3x3
I0403 15:19:25.908957 31461 net.cpp:425] inception_4d/3x3 <- inception_4d/3x3_reduce
I0403 15:19:25.908977 31461 net.cpp:399] inception_4d/3x3 -> inception_4d/3x3
I0403 15:19:25.913161 31461 net.cpp:141] Setting up inception_4d/3x3
I0403 15:19:25.913189 31461 net.cpp:148] Top shape: 24 288 14 14 (1354752)
I0403 15:19:25.913205 31461 net.cpp:156] Memory required for data: 1126235424
I0403 15:19:25.913224 31461 layer_factory.hpp:77] Creating layer inception_4d/relu_3x3
I0403 15:19:25.913244 31461 net.cpp:91] Creating Layer inception_4d/relu_3x3
I0403 15:19:25.913262 31461 net.cpp:425] inception_4d/relu_3x3 <- inception_4d/3x3
I0403 15:19:25.913280 31461 net.cpp:386] inception_4d/relu_3x3 -> inception_4d/3x3 (in-place)
I0403 15:19:25.913466 31461 net.cpp:141] Setting up inception_4d/relu_3x3
I0403 15:19:25.913494 31461 net.cpp:148] Top shape: 24 288 14 14 (1354752)
I0403 15:19:25.913511 31461 net.cpp:156] Memory required for data: 1131654432
I0403 15:19:25.913525 31461 layer_factory.hpp:77] Creating layer inception_4d/5x5_reduce
I0403 15:19:25.913547 31461 net.cpp:91] Creating Layer inception_4d/5x5_reduce
I0403 15:19:25.913565 31461 net.cpp:425] inception_4d/5x5_reduce <- inception_4c/output_inception_4c/output_0_split_2
I0403 15:19:25.913584 31461 net.cpp:399] inception_4d/5x5_reduce -> inception_4d/5x5_reduce
I0403 15:19:25.914724 31461 net.cpp:141] Setting up inception_4d/5x5_reduce
I0403 15:19:25.914754 31461 net.cpp:148] Top shape: 24 32 14 14 (150528)
I0403 15:19:25.914770 31461 net.cpp:156] Memory required for data: 1132256544
I0403 15:19:25.914789 31461 layer_factory.hpp:77] Creating layer inception_4d/relu_5x5_reduce
I0403 15:19:25.914809 31461 net.cpp:91] Creating Layer inception_4d/relu_5x5_reduce
I0403 15:19:25.914825 31461 net.cpp:425] inception_4d/relu_5x5_reduce <- inception_4d/5x5_reduce
I0403 15:19:25.914844 31461 net.cpp:386] inception_4d/relu_5x5_reduce -> inception_4d/5x5_reduce (in-place)
I0403 15:19:25.915029 31461 net.cpp:141] Setting up inception_4d/relu_5x5_reduce
I0403 15:19:25.915055 31461 net.cpp:148] Top shape: 24 32 14 14 (150528)
I0403 15:19:25.915071 31461 net.cpp:156] Memory required for data: 1132858656
I0403 15:19:25.915086 31461 layer_factory.hpp:77] Creating layer inception_4d/5x5
I0403 15:19:25.915108 31461 net.cpp:91] Creating Layer inception_4d/5x5
I0403 15:19:25.915127 31461 net.cpp:425] inception_4d/5x5 <- inception_4d/5x5_reduce
I0403 15:19:25.915144 31461 net.cpp:399] inception_4d/5x5 -> inception_4d/5x5
I0403 15:19:25.916594 31461 net.cpp:141] Setting up inception_4d/5x5
I0403 15:19:25.916623 31461 net.cpp:148] Top shape: 24 64 14 14 (301056)
I0403 15:19:25.916640 31461 net.cpp:156] Memory required for data: 1134062880
I0403 15:19:25.916659 31461 layer_factory.hpp:77] Creating layer inception_4d/relu_5x5
I0403 15:19:25.916692 31461 net.cpp:91] Creating Layer inception_4d/relu_5x5
I0403 15:19:25.916708 31461 net.cpp:425] inception_4d/relu_5x5 <- inception_4d/5x5
I0403 15:19:25.916728 31461 net.cpp:386] inception_4d/relu_5x5 -> inception_4d/5x5 (in-place)
I0403 15:19:25.917027 31461 net.cpp:141] Setting up inception_4d/relu_5x5
I0403 15:19:25.917055 31461 net.cpp:148] Top shape: 24 64 14 14 (301056)
I0403 15:19:25.917071 31461 net.cpp:156] Memory required for data: 1135267104
I0403 15:19:25.917086 31461 layer_factory.hpp:77] Creating layer inception_4d/pool
I0403 15:19:25.917104 31461 net.cpp:91] Creating Layer inception_4d/pool
I0403 15:19:25.917120 31461 net.cpp:425] inception_4d/pool <- inception_4c/output_inception_4c/output_0_split_3
I0403 15:19:25.917141 31461 net.cpp:399] inception_4d/pool -> inception_4d/pool
I0403 15:19:25.917207 31461 net.cpp:141] Setting up inception_4d/pool
I0403 15:19:25.917232 31461 net.cpp:148] Top shape: 24 512 14 14 (2408448)
I0403 15:19:25.917245 31461 net.cpp:156] Memory required for data: 1144900896
I0403 15:19:25.917259 31461 layer_factory.hpp:77] Creating layer inception_4d/pool_proj
I0403 15:19:25.917280 31461 net.cpp:91] Creating Layer inception_4d/pool_proj
I0403 15:19:25.917299 31461 net.cpp:425] inception_4d/pool_proj <- inception_4d/pool
I0403 15:19:25.917322 31461 net.cpp:399] inception_4d/pool_proj -> inception_4d/pool_proj
I0403 15:19:25.919061 31461 net.cpp:141] Setting up inception_4d/pool_proj
I0403 15:19:25.919090 31461 net.cpp:148] Top shape: 24 64 14 14 (301056)
I0403 15:19:25.919106 31461 net.cpp:156] Memory required for data: 1146105120
I0403 15:19:25.919123 31461 layer_factory.hpp:77] Creating layer inception_4d/relu_pool_proj
I0403 15:19:25.919143 31461 net.cpp:91] Creating Layer inception_4d/relu_pool_proj
I0403 15:19:25.919160 31461 net.cpp:425] inception_4d/relu_pool_proj <- inception_4d/pool_proj
I0403 15:19:25.919178 31461 net.cpp:386] inception_4d/relu_pool_proj -> inception_4d/pool_proj (in-place)
I0403 15:19:25.919366 31461 net.cpp:141] Setting up inception_4d/relu_pool_proj
I0403 15:19:25.919394 31461 net.cpp:148] Top shape: 24 64 14 14 (301056)
I0403 15:19:25.919409 31461 net.cpp:156] Memory required for data: 1147309344
I0403 15:19:25.919425 31461 layer_factory.hpp:77] Creating layer inception_4d/output
I0403 15:19:25.919441 31461 net.cpp:91] Creating Layer inception_4d/output
I0403 15:19:25.919456 31461 net.cpp:425] inception_4d/output <- inception_4d/1x1
I0403 15:19:25.919473 31461 net.cpp:425] inception_4d/output <- inception_4d/3x3
I0403 15:19:25.919488 31461 net.cpp:425] inception_4d/output <- inception_4d/5x5
I0403 15:19:25.919504 31461 net.cpp:425] inception_4d/output <- inception_4d/pool_proj
I0403 15:19:25.919522 31461 net.cpp:399] inception_4d/output -> inception_4d/output
I0403 15:19:25.919569 31461 net.cpp:141] Setting up inception_4d/output
I0403 15:19:25.919592 31461 net.cpp:148] Top shape: 24 528 14 14 (2483712)
I0403 15:19:25.919607 31461 net.cpp:156] Memory required for data: 1157244192
I0403 15:19:25.919622 31461 layer_factory.hpp:77] Creating layer inception_4d/output_inception_4d/output_0_split
I0403 15:19:25.919642 31461 net.cpp:91] Creating Layer inception_4d/output_inception_4d/output_0_split
I0403 15:19:25.919657 31461 net.cpp:425] inception_4d/output_inception_4d/output_0_split <- inception_4d/output
I0403 15:19:25.919677 31461 net.cpp:399] inception_4d/output_inception_4d/output_0_split -> inception_4d/output_inception_4d/output_0_split_0
I0403 15:19:25.919697 31461 net.cpp:399] inception_4d/output_inception_4d/output_0_split -> inception_4d/output_inception_4d/output_0_split_1
I0403 15:19:25.919716 31461 net.cpp:399] inception_4d/output_inception_4d/output_0_split -> inception_4d/output_inception_4d/output_0_split_2
I0403 15:19:25.919739 31461 net.cpp:399] inception_4d/output_inception_4d/output_0_split -> inception_4d/output_inception_4d/output_0_split_3
I0403 15:19:25.919760 31461 net.cpp:399] inception_4d/output_inception_4d/output_0_split -> inception_4d/output_inception_4d/output_0_split_4
I0403 15:19:25.919862 31461 net.cpp:141] Setting up inception_4d/output_inception_4d/output_0_split
I0403 15:19:25.919898 31461 net.cpp:148] Top shape: 24 528 14 14 (2483712)
I0403 15:19:25.919914 31461 net.cpp:148] Top shape: 24 528 14 14 (2483712)
I0403 15:19:25.919930 31461 net.cpp:148] Top shape: 24 528 14 14 (2483712)
I0403 15:19:25.919946 31461 net.cpp:148] Top shape: 24 528 14 14 (2483712)
I0403 15:19:25.919961 31461 net.cpp:148] Top shape: 24 528 14 14 (2483712)
I0403 15:19:25.919975 31461 net.cpp:156] Memory required for data: 1206918432
I0403 15:19:25.919991 31461 layer_factory.hpp:77] Creating layer loss2/ave_pool
I0403 15:19:25.920009 31461 net.cpp:91] Creating Layer loss2/ave_pool
I0403 15:19:25.920027 31461 net.cpp:425] loss2/ave_pool <- inception_4d/output_inception_4d/output_0_split_0
I0403 15:19:25.920047 31461 net.cpp:399] loss2/ave_pool -> loss2/ave_pool
I0403 15:19:25.920362 31461 net.cpp:141] Setting up loss2/ave_pool
I0403 15:19:25.920389 31461 net.cpp:148] Top shape: 24 528 4 4 (202752)
I0403 15:19:25.920404 31461 net.cpp:156] Memory required for data: 1207729440
I0403 15:19:25.920418 31461 layer_factory.hpp:77] Creating layer loss2/conv
I0403 15:19:25.920439 31461 net.cpp:91] Creating Layer loss2/conv
I0403 15:19:25.920459 31461 net.cpp:425] loss2/conv <- loss2/ave_pool
I0403 15:19:25.920478 31461 net.cpp:399] loss2/conv -> loss2/conv
I0403 15:19:25.922333 31461 net.cpp:141] Setting up loss2/conv
I0403 15:19:25.922364 31461 net.cpp:148] Top shape: 24 128 4 4 (49152)
I0403 15:19:25.922380 31461 net.cpp:156] Memory required for data: 1207926048
I0403 15:19:25.922399 31461 layer_factory.hpp:77] Creating layer loss2/relu_conv
I0403 15:19:25.922416 31461 net.cpp:91] Creating Layer loss2/relu_conv
I0403 15:19:25.922432 31461 net.cpp:425] loss2/relu_conv <- loss2/conv
I0403 15:19:25.922451 31461 net.cpp:386] loss2/relu_conv -> loss2/conv (in-place)
I0403 15:19:25.922731 31461 net.cpp:141] Setting up loss2/relu_conv
I0403 15:19:25.922760 31461 net.cpp:148] Top shape: 24 128 4 4 (49152)
I0403 15:19:25.922775 31461 net.cpp:156] Memory required for data: 1208122656
I0403 15:19:25.922792 31461 layer_factory.hpp:77] Creating layer loss2/fc
I0403 15:19:25.922811 31461 net.cpp:91] Creating Layer loss2/fc
I0403 15:19:25.922827 31461 net.cpp:425] loss2/fc <- loss2/conv
I0403 15:19:25.922852 31461 net.cpp:399] loss2/fc -> loss2/fc
I0403 15:19:25.940222 31461 net.cpp:141] Setting up loss2/fc
I0403 15:19:25.940256 31461 net.cpp:148] Top shape: 24 1024 (24576)
I0403 15:19:25.940273 31461 net.cpp:156] Memory required for data: 1208220960
I0403 15:19:25.940291 31461 layer_factory.hpp:77] Creating layer loss2/relu_fc
I0403 15:19:25.940310 31461 net.cpp:91] Creating Layer loss2/relu_fc
I0403 15:19:25.940330 31461 net.cpp:425] loss2/relu_fc <- loss2/fc
I0403 15:19:25.940347 31461 net.cpp:386] loss2/relu_fc -> loss2/fc (in-place)
I0403 15:19:25.940652 31461 net.cpp:141] Setting up loss2/relu_fc
I0403 15:19:25.940680 31461 net.cpp:148] Top shape: 24 1024 (24576)
I0403 15:19:25.940695 31461 net.cpp:156] Memory required for data: 1208319264
I0403 15:19:25.940709 31461 layer_factory.hpp:77] Creating layer loss2/drop_fc
I0403 15:19:25.940731 31461 net.cpp:91] Creating Layer loss2/drop_fc
I0403 15:19:25.940748 31461 net.cpp:425] loss2/drop_fc <- loss2/fc
I0403 15:19:25.940767 31461 net.cpp:386] loss2/drop_fc -> loss2/fc (in-place)
I0403 15:19:25.940819 31461 net.cpp:141] Setting up loss2/drop_fc
I0403 15:19:25.940843 31461 net.cpp:148] Top shape: 24 1024 (24576)
I0403 15:19:25.940857 31461 net.cpp:156] Memory required for data: 1208417568
I0403 15:19:25.940872 31461 layer_factory.hpp:77] Creating layer loss2/classifier_plantvillage
I0403 15:19:25.940892 31461 net.cpp:91] Creating Layer loss2/classifier_plantvillage
I0403 15:19:25.940909 31461 net.cpp:425] loss2/classifier_plantvillage <- loss2/fc
I0403 15:19:25.940942 31461 net.cpp:399] loss2/classifier_plantvillage -> loss2/classifier_plantvillage
I0403 15:19:25.941341 31461 net.cpp:141] Setting up loss2/classifier_plantvillage
I0403 15:19:25.941367 31461 net.cpp:148] Top shape: 24 38 (912)
I0403 15:19:25.941382 31461 net.cpp:156] Memory required for data: 1208421216
I0403 15:19:25.941417 31461 layer_factory.hpp:77] Creating layer loss2/classifier_plantvillage_loss2/classifier_plantvillage_0_split
I0403 15:19:25.941437 31461 net.cpp:91] Creating Layer loss2/classifier_plantvillage_loss2/classifier_plantvillage_0_split
I0403 15:19:25.941453 31461 net.cpp:425] loss2/classifier_plantvillage_loss2/classifier_plantvillage_0_split <- loss2/classifier_plantvillage
I0403 15:19:25.941473 31461 net.cpp:399] loss2/classifier_plantvillage_loss2/classifier_plantvillage_0_split -> loss2/classifier_plantvillage_loss2/classifier_plantvillage_0_split_0
I0403 15:19:25.941494 31461 net.cpp:399] loss2/classifier_plantvillage_loss2/classifier_plantvillage_0_split -> loss2/classifier_plantvillage_loss2/classifier_plantvillage_0_split_1
I0403 15:19:25.941515 31461 net.cpp:399] loss2/classifier_plantvillage_loss2/classifier_plantvillage_0_split -> loss2/classifier_plantvillage_loss2/classifier_plantvillage_0_split_2
I0403 15:19:25.941591 31461 net.cpp:141] Setting up loss2/classifier_plantvillage_loss2/classifier_plantvillage_0_split
I0403 15:19:25.941620 31461 net.cpp:148] Top shape: 24 38 (912)
I0403 15:19:25.941637 31461 net.cpp:148] Top shape: 24 38 (912)
I0403 15:19:25.941653 31461 net.cpp:148] Top shape: 24 38 (912)
I0403 15:19:25.941666 31461 net.cpp:156] Memory required for data: 1208432160
I0403 15:19:25.941681 31461 layer_factory.hpp:77] Creating layer inception_4e/1x1
I0403 15:19:25.941704 31461 net.cpp:91] Creating Layer inception_4e/1x1
I0403 15:19:25.941721 31461 net.cpp:425] inception_4e/1x1 <- inception_4d/output_inception_4d/output_0_split_1
I0403 15:19:25.941740 31461 net.cpp:399] inception_4e/1x1 -> inception_4e/1x1
I0403 15:19:25.943526 31461 net.cpp:141] Setting up inception_4e/1x1
I0403 15:19:25.943555 31461 net.cpp:148] Top shape: 24 256 14 14 (1204224)
I0403 15:19:25.943573 31461 net.cpp:156] Memory required for data: 1213249056
I0403 15:19:25.943591 31461 layer_factory.hpp:77] Creating layer inception_4e/relu_1x1
I0403 15:19:25.943610 31461 net.cpp:91] Creating Layer inception_4e/relu_1x1
I0403 15:19:25.943626 31461 net.cpp:425] inception_4e/relu_1x1 <- inception_4e/1x1
I0403 15:19:25.943646 31461 net.cpp:386] inception_4e/relu_1x1 -> inception_4e/1x1 (in-place)
I0403 15:19:25.943941 31461 net.cpp:141] Setting up inception_4e/relu_1x1
I0403 15:19:25.943969 31461 net.cpp:148] Top shape: 24 256 14 14 (1204224)
I0403 15:19:25.943986 31461 net.cpp:156] Memory required for data: 1218065952
I0403 15:19:25.944002 31461 layer_factory.hpp:77] Creating layer inception_4e/3x3_reduce
I0403 15:19:25.944025 31461 net.cpp:91] Creating Layer inception_4e/3x3_reduce
I0403 15:19:25.944042 31461 net.cpp:425] inception_4e/3x3_reduce <- inception_4d/output_inception_4d/output_0_split_2
I0403 15:19:25.944061 31461 net.cpp:399] inception_4e/3x3_reduce -> inception_4e/3x3_reduce
I0403 15:19:25.946176 31461 net.cpp:141] Setting up inception_4e/3x3_reduce
I0403 15:19:25.946207 31461 net.cpp:148] Top shape: 24 160 14 14 (752640)
I0403 15:19:25.946223 31461 net.cpp:156] Memory required for data: 1221076512
I0403 15:19:25.946243 31461 layer_factory.hpp:77] Creating layer inception_4e/relu_3x3_reduce
I0403 15:19:25.946259 31461 net.cpp:91] Creating Layer inception_4e/relu_3x3_reduce
I0403 15:19:25.946275 31461 net.cpp:425] inception_4e/relu_3x3_reduce <- inception_4e/3x3_reduce
I0403 15:19:25.946292 31461 net.cpp:386] inception_4e/relu_3x3_reduce -> inception_4e/3x3_reduce (in-place)
I0403 15:19:25.946481 31461 net.cpp:141] Setting up inception_4e/relu_3x3_reduce
I0403 15:19:25.946506 31461 net.cpp:148] Top shape: 24 160 14 14 (752640)
I0403 15:19:25.946521 31461 net.cpp:156] Memory required for data: 1224087072
I0403 15:19:25.946537 31461 layer_factory.hpp:77] Creating layer inception_4e/3x3
I0403 15:19:25.946558 31461 net.cpp:91] Creating Layer inception_4e/3x3
I0403 15:19:25.946578 31461 net.cpp:425] inception_4e/3x3 <- inception_4e/3x3_reduce
I0403 15:19:25.946600 31461 net.cpp:399] inception_4e/3x3 -> inception_4e/3x3
I0403 15:19:25.951957 31461 net.cpp:141] Setting up inception_4e/3x3
I0403 15:19:25.952002 31461 net.cpp:148] Top shape: 24 320 14 14 (1505280)
I0403 15:19:25.952018 31461 net.cpp:156] Memory required for data: 1230108192
I0403 15:19:25.952038 31461 layer_factory.hpp:77] Creating layer inception_4e/relu_3x3
I0403 15:19:25.952060 31461 net.cpp:91] Creating Layer inception_4e/relu_3x3
I0403 15:19:25.952080 31461 net.cpp:425] inception_4e/relu_3x3 <- inception_4e/3x3
I0403 15:19:25.952098 31461 net.cpp:386] inception_4e/relu_3x3 -> inception_4e/3x3 (in-place)
I0403 15:19:25.952412 31461 net.cpp:141] Setting up inception_4e/relu_3x3
I0403 15:19:25.952452 31461 net.cpp:148] Top shape: 24 320 14 14 (1505280)
I0403 15:19:25.952468 31461 net.cpp:156] Memory required for data: 1236129312
I0403 15:19:25.952486 31461 layer_factory.hpp:77] Creating layer inception_4e/5x5_reduce
I0403 15:19:25.952514 31461 net.cpp:91] Creating Layer inception_4e/5x5_reduce
I0403 15:19:25.952538 31461 net.cpp:425] inception_4e/5x5_reduce <- inception_4d/output_inception_4d/output_0_split_3
I0403 15:19:25.952560 31461 net.cpp:399] inception_4e/5x5_reduce -> inception_4e/5x5_reduce
I0403 15:19:25.953708 31461 net.cpp:141] Setting up inception_4e/5x5_reduce
I0403 15:19:25.953740 31461 net.cpp:148] Top shape: 24 32 14 14 (150528)
I0403 15:19:25.953758 31461 net.cpp:156] Memory required for data: 1236731424
I0403 15:19:25.953778 31461 layer_factory.hpp:77] Creating layer inception_4e/relu_5x5_reduce
I0403 15:19:25.953797 31461 net.cpp:91] Creating Layer inception_4e/relu_5x5_reduce
I0403 15:19:25.953814 31461 net.cpp:425] inception_4e/relu_5x5_reduce <- inception_4e/5x5_reduce
I0403 15:19:25.953835 31461 net.cpp:386] inception_4e/relu_5x5_reduce -> inception_4e/5x5_reduce (in-place)
I0403 15:19:25.954144 31461 net.cpp:141] Setting up inception_4e/relu_5x5_reduce
I0403 15:19:25.954174 31461 net.cpp:148] Top shape: 24 32 14 14 (150528)
I0403 15:19:25.954191 31461 net.cpp:156] Memory required for data: 1237333536
I0403 15:19:25.954208 31461 layer_factory.hpp:77] Creating layer inception_4e/5x5
I0403 15:19:25.954249 31461 net.cpp:91] Creating Layer inception_4e/5x5
I0403 15:19:25.954269 31461 net.cpp:425] inception_4e/5x5 <- inception_4e/5x5_reduce
I0403 15:19:25.954289 31461 net.cpp:399] inception_4e/5x5 -> inception_4e/5x5
I0403 15:19:25.956248 31461 net.cpp:141] Setting up inception_4e/5x5
I0403 15:19:25.956279 31461 net.cpp:148] Top shape: 24 128 14 14 (602112)
I0403 15:19:25.956295 31461 net.cpp:156] Memory required for data: 1239741984
I0403 15:19:25.956318 31461 layer_factory.hpp:77] Creating layer inception_4e/relu_5x5
I0403 15:19:25.956341 31461 net.cpp:91] Creating Layer inception_4e/relu_5x5
I0403 15:19:25.956360 31461 net.cpp:425] inception_4e/relu_5x5 <- inception_4e/5x5
I0403 15:19:25.956380 31461 net.cpp:386] inception_4e/relu_5x5 -> inception_4e/5x5 (in-place)
I0403 15:19:25.956583 31461 net.cpp:141] Setting up inception_4e/relu_5x5
I0403 15:19:25.956612 31461 net.cpp:148] Top shape: 24 128 14 14 (602112)
I0403 15:19:25.956627 31461 net.cpp:156] Memory required for data: 1242150432
I0403 15:19:25.956656 31461 layer_factory.hpp:77] Creating layer inception_4e/pool
I0403 15:19:25.956676 31461 net.cpp:91] Creating Layer inception_4e/pool
I0403 15:19:25.956694 31461 net.cpp:425] inception_4e/pool <- inception_4d/output_inception_4d/output_0_split_4
I0403 15:19:25.956717 31461 net.cpp:399] inception_4e/pool -> inception_4e/pool
I0403 15:19:25.956790 31461 net.cpp:141] Setting up inception_4e/pool
I0403 15:19:25.956817 31461 net.cpp:148] Top shape: 24 528 14 14 (2483712)
I0403 15:19:25.956833 31461 net.cpp:156] Memory required for data: 1252085280
I0403 15:19:25.956850 31461 layer_factory.hpp:77] Creating layer inception_4e/pool_proj
I0403 15:19:25.956876 31461 net.cpp:91] Creating Layer inception_4e/pool_proj
I0403 15:19:25.956895 31461 net.cpp:425] inception_4e/pool_proj <- inception_4e/pool
I0403 15:19:25.956915 31461 net.cpp:399] inception_4e/pool_proj -> inception_4e/pool_proj
I0403 15:19:25.958508 31461 net.cpp:141] Setting up inception_4e/pool_proj
I0403 15:19:25.958537 31461 net.cpp:148] Top shape: 24 128 14 14 (602112)
I0403 15:19:25.958569 31461 net.cpp:156] Memory required for data: 1254493728
I0403 15:19:25.958590 31461 layer_factory.hpp:77] Creating layer inception_4e/relu_pool_proj
I0403 15:19:25.958612 31461 net.cpp:91] Creating Layer inception_4e/relu_pool_proj
I0403 15:19:25.958631 31461 net.cpp:425] inception_4e/relu_pool_proj <- inception_4e/pool_proj
I0403 15:19:25.958648 31461 net.cpp:386] inception_4e/relu_pool_proj -> inception_4e/pool_proj (in-place)
I0403 15:19:25.958956 31461 net.cpp:141] Setting up inception_4e/relu_pool_proj
I0403 15:19:25.958986 31461 net.cpp:148] Top shape: 24 128 14 14 (602112)
I0403 15:19:25.959002 31461 net.cpp:156] Memory required for data: 1256902176
I0403 15:19:25.959017 31461 layer_factory.hpp:77] Creating layer inception_4e/output
I0403 15:19:25.959038 31461 net.cpp:91] Creating Layer inception_4e/output
I0403 15:19:25.959055 31461 net.cpp:425] inception_4e/output <- inception_4e/1x1
I0403 15:19:25.959074 31461 net.cpp:425] inception_4e/output <- inception_4e/3x3
I0403 15:19:25.959090 31461 net.cpp:425] inception_4e/output <- inception_4e/5x5
I0403 15:19:25.959106 31461 net.cpp:425] inception_4e/output <- inception_4e/pool_proj
I0403 15:19:25.959125 31461 net.cpp:399] inception_4e/output -> inception_4e/output
I0403 15:19:25.959177 31461 net.cpp:141] Setting up inception_4e/output
I0403 15:19:25.959203 31461 net.cpp:148] Top shape: 24 832 14 14 (3913728)
I0403 15:19:25.959218 31461 net.cpp:156] Memory required for data: 1272557088
I0403 15:19:25.959233 31461 layer_factory.hpp:77] Creating layer pool4/3x3_s2
I0403 15:19:25.959251 31461 net.cpp:91] Creating Layer pool4/3x3_s2
I0403 15:19:25.959267 31461 net.cpp:425] pool4/3x3_s2 <- inception_4e/output
I0403 15:19:25.959290 31461 net.cpp:399] pool4/3x3_s2 -> pool4/3x3_s2
I0403 15:19:25.959364 31461 net.cpp:141] Setting up pool4/3x3_s2
I0403 15:19:25.959389 31461 net.cpp:148] Top shape: 24 832 7 7 (978432)
I0403 15:19:25.959405 31461 net.cpp:156] Memory required for data: 1276470816
I0403 15:19:25.959420 31461 layer_factory.hpp:77] Creating layer pool4/3x3_s2_pool4/3x3_s2_0_split
I0403 15:19:25.959442 31461 net.cpp:91] Creating Layer pool4/3x3_s2_pool4/3x3_s2_0_split
I0403 15:19:25.959460 31461 net.cpp:425] pool4/3x3_s2_pool4/3x3_s2_0_split <- pool4/3x3_s2
I0403 15:19:25.959481 31461 net.cpp:399] pool4/3x3_s2_pool4/3x3_s2_0_split -> pool4/3x3_s2_pool4/3x3_s2_0_split_0
I0403 15:19:25.959502 31461 net.cpp:399] pool4/3x3_s2_pool4/3x3_s2_0_split -> pool4/3x3_s2_pool4/3x3_s2_0_split_1
I0403 15:19:25.959523 31461 net.cpp:399] pool4/3x3_s2_pool4/3x3_s2_0_split -> pool4/3x3_s2_pool4/3x3_s2_0_split_2
I0403 15:19:25.959543 31461 net.cpp:399] pool4/3x3_s2_pool4/3x3_s2_0_split -> pool4/3x3_s2_pool4/3x3_s2_0_split_3
I0403 15:19:25.959636 31461 net.cpp:141] Setting up pool4/3x3_s2_pool4/3x3_s2_0_split
I0403 15:19:25.959661 31461 net.cpp:148] Top shape: 24 832 7 7 (978432)
I0403 15:19:25.959681 31461 net.cpp:148] Top shape: 24 832 7 7 (978432)
I0403 15:19:25.959697 31461 net.cpp:148] Top shape: 24 832 7 7 (978432)
I0403 15:19:25.959712 31461 net.cpp:148] Top shape: 24 832 7 7 (978432)
I0403 15:19:25.959728 31461 net.cpp:156] Memory required for data: 1292125728
I0403 15:19:25.959743 31461 layer_factory.hpp:77] Creating layer inception_5a/1x1
I0403 15:19:25.959765 31461 net.cpp:91] Creating Layer inception_5a/1x1
I0403 15:19:25.959784 31461 net.cpp:425] inception_5a/1x1 <- pool4/3x3_s2_pool4/3x3_s2_0_split_0
I0403 15:19:25.959806 31461 net.cpp:399] inception_5a/1x1 -> inception_5a/1x1
I0403 15:19:25.962817 31461 net.cpp:141] Setting up inception_5a/1x1
I0403 15:19:25.962851 31461 net.cpp:148] Top shape: 24 256 7 7 (301056)
I0403 15:19:25.962867 31461 net.cpp:156] Memory required for data: 1293329952
I0403 15:19:25.962887 31461 layer_factory.hpp:77] Creating layer inception_5a/relu_1x1
I0403 15:19:25.962905 31461 net.cpp:91] Creating Layer inception_5a/relu_1x1
I0403 15:19:25.962920 31461 net.cpp:425] inception_5a/relu_1x1 <- inception_5a/1x1
I0403 15:19:25.962939 31461 net.cpp:386] inception_5a/relu_1x1 -> inception_5a/1x1 (in-place)
I0403 15:19:25.963258 31461 net.cpp:141] Setting up inception_5a/relu_1x1
I0403 15:19:25.963287 31461 net.cpp:148] Top shape: 24 256 7 7 (301056)
I0403 15:19:25.963304 31461 net.cpp:156] Memory required for data: 1294534176
I0403 15:19:25.963325 31461 layer_factory.hpp:77] Creating layer inception_5a/3x3_reduce
I0403 15:19:25.963348 31461 net.cpp:91] Creating Layer inception_5a/3x3_reduce
I0403 15:19:25.963367 31461 net.cpp:425] inception_5a/3x3_reduce <- pool4/3x3_s2_pool4/3x3_s2_0_split_1
I0403 15:19:25.963387 31461 net.cpp:399] inception_5a/3x3_reduce -> inception_5a/3x3_reduce
I0403 15:19:25.965909 31461 net.cpp:141] Setting up inception_5a/3x3_reduce
I0403 15:19:25.965939 31461 net.cpp:148] Top shape: 24 160 7 7 (188160)
I0403 15:19:25.965955 31461 net.cpp:156] Memory required for data: 1295286816
I0403 15:19:25.965973 31461 layer_factory.hpp:77] Creating layer inception_5a/relu_3x3_reduce
I0403 15:19:25.965994 31461 net.cpp:91] Creating Layer inception_5a/relu_3x3_reduce
I0403 15:19:25.966012 31461 net.cpp:425] inception_5a/relu_3x3_reduce <- inception_5a/3x3_reduce
I0403 15:19:25.966029 31461 net.cpp:386] inception_5a/relu_3x3_reduce -> inception_5a/3x3_reduce (in-place)
I0403 15:19:25.966222 31461 net.cpp:141] Setting up inception_5a/relu_3x3_reduce
I0403 15:19:25.966250 31461 net.cpp:148] Top shape: 24 160 7 7 (188160)
I0403 15:19:25.966267 31461 net.cpp:156] Memory required for data: 1296039456
I0403 15:19:25.966282 31461 layer_factory.hpp:77] Creating layer inception_5a/3x3
I0403 15:19:25.966303 31461 net.cpp:91] Creating Layer inception_5a/3x3
I0403 15:19:25.966325 31461 net.cpp:425] inception_5a/3x3 <- inception_5a/3x3_reduce
I0403 15:19:25.966351 31461 net.cpp:399] inception_5a/3x3 -> inception_5a/3x3
I0403 15:19:25.971436 31461 net.cpp:141] Setting up inception_5a/3x3
I0403 15:19:25.971467 31461 net.cpp:148] Top shape: 24 320 7 7 (376320)
I0403 15:19:25.971483 31461 net.cpp:156] Memory required for data: 1297544736
I0403 15:19:25.971503 31461 layer_factory.hpp:77] Creating layer inception_5a/relu_3x3
I0403 15:19:25.971524 31461 net.cpp:91] Creating Layer inception_5a/relu_3x3
I0403 15:19:25.971540 31461 net.cpp:425] inception_5a/relu_3x3 <- inception_5a/3x3
I0403 15:19:25.971557 31461 net.cpp:386] inception_5a/relu_3x3 -> inception_5a/3x3 (in-place)
I0403 15:19:25.971858 31461 net.cpp:141] Setting up inception_5a/relu_3x3
I0403 15:19:25.971886 31461 net.cpp:148] Top shape: 24 320 7 7 (376320)
I0403 15:19:25.971901 31461 net.cpp:156] Memory required for data: 1299050016
I0403 15:19:25.971916 31461 layer_factory.hpp:77] Creating layer inception_5a/5x5_reduce
I0403 15:19:25.971943 31461 net.cpp:91] Creating Layer inception_5a/5x5_reduce
I0403 15:19:25.971962 31461 net.cpp:425] inception_5a/5x5_reduce <- pool4/3x3_s2_pool4/3x3_s2_0_split_2
I0403 15:19:25.971982 31461 net.cpp:399] inception_5a/5x5_reduce -> inception_5a/5x5_reduce
I0403 15:19:25.973175 31461 net.cpp:141] Setting up inception_5a/5x5_reduce
I0403 15:19:25.973206 31461 net.cpp:148] Top shape: 24 32 7 7 (37632)
I0403 15:19:25.973223 31461 net.cpp:156] Memory required for data: 1299200544
I0403 15:19:25.973242 31461 layer_factory.hpp:77] Creating layer inception_5a/relu_5x5_reduce
I0403 15:19:25.973258 31461 net.cpp:91] Creating Layer inception_5a/relu_5x5_reduce
I0403 15:19:25.973275 31461 net.cpp:425] inception_5a/relu_5x5_reduce <- inception_5a/5x5_reduce
I0403 15:19:25.973292 31461 net.cpp:386] inception_5a/relu_5x5_reduce -> inception_5a/5x5_reduce (in-place)
I0403 15:19:25.973603 31461 net.cpp:141] Setting up inception_5a/relu_5x5_reduce
I0403 15:19:25.973633 31461 net.cpp:148] Top shape: 24 32 7 7 (37632)
I0403 15:19:25.973647 31461 net.cpp:156] Memory required for data: 1299351072
I0403 15:19:25.973662 31461 layer_factory.hpp:77] Creating layer inception_5a/5x5
I0403 15:19:25.973685 31461 net.cpp:91] Creating Layer inception_5a/5x5
I0403 15:19:25.973703 31461 net.cpp:425] inception_5a/5x5 <- inception_5a/5x5_reduce
I0403 15:19:25.973726 31461 net.cpp:399] inception_5a/5x5 -> inception_5a/5x5
I0403 15:19:25.975474 31461 net.cpp:141] Setting up inception_5a/5x5
I0403 15:19:25.975515 31461 net.cpp:148] Top shape: 24 128 7 7 (150528)
I0403 15:19:25.975533 31461 net.cpp:156] Memory required for data: 1299953184
I0403 15:19:25.975550 31461 layer_factory.hpp:77] Creating layer inception_5a/relu_5x5
I0403 15:19:25.975571 31461 net.cpp:91] Creating Layer inception_5a/relu_5x5
I0403 15:19:25.975590 31461 net.cpp:425] inception_5a/relu_5x5 <- inception_5a/5x5
I0403 15:19:25.975608 31461 net.cpp:386] inception_5a/relu_5x5 -> inception_5a/5x5 (in-place)
I0403 15:19:25.975805 31461 net.cpp:141] Setting up inception_5a/relu_5x5
I0403 15:19:25.975831 31461 net.cpp:148] Top shape: 24 128 7 7 (150528)
I0403 15:19:25.975847 31461 net.cpp:156] Memory required for data: 1300555296
I0403 15:19:25.975862 31461 layer_factory.hpp:77] Creating layer inception_5a/pool
I0403 15:19:25.975879 31461 net.cpp:91] Creating Layer inception_5a/pool
I0403 15:19:25.975896 31461 net.cpp:425] inception_5a/pool <- pool4/3x3_s2_pool4/3x3_s2_0_split_3
I0403 15:19:25.975917 31461 net.cpp:399] inception_5a/pool -> inception_5a/pool
I0403 15:19:25.975988 31461 net.cpp:141] Setting up inception_5a/pool
I0403 15:19:25.976013 31461 net.cpp:148] Top shape: 24 832 7 7 (978432)
I0403 15:19:25.976027 31461 net.cpp:156] Memory required for data: 1304469024
I0403 15:19:25.976042 31461 layer_factory.hpp:77] Creating layer inception_5a/pool_proj
I0403 15:19:25.976068 31461 net.cpp:91] Creating Layer inception_5a/pool_proj
I0403 15:19:25.976086 31461 net.cpp:425] inception_5a/pool_proj <- inception_5a/pool
I0403 15:19:25.976106 31461 net.cpp:399] inception_5a/pool_proj -> inception_5a/pool_proj
I0403 15:19:25.978435 31461 net.cpp:141] Setting up inception_5a/pool_proj
I0403 15:19:25.978466 31461 net.cpp:148] Top shape: 24 128 7 7 (150528)
I0403 15:19:25.978483 31461 net.cpp:156] Memory required for data: 1305071136
I0403 15:19:25.978502 31461 layer_factory.hpp:77] Creating layer inception_5a/relu_pool_proj
I0403 15:19:25.978523 31461 net.cpp:91] Creating Layer inception_5a/relu_pool_proj
I0403 15:19:25.978539 31461 net.cpp:425] inception_5a/relu_pool_proj <- inception_5a/pool_proj
I0403 15:19:25.978556 31461 net.cpp:386] inception_5a/relu_pool_proj -> inception_5a/pool_proj (in-place)
I0403 15:19:25.978863 31461 net.cpp:141] Setting up inception_5a/relu_pool_proj
I0403 15:19:25.978890 31461 net.cpp:148] Top shape: 24 128 7 7 (150528)
I0403 15:19:25.978906 31461 net.cpp:156] Memory required for data: 1305673248
I0403 15:19:25.978921 31461 layer_factory.hpp:77] Creating layer inception_5a/output
I0403 15:19:25.978941 31461 net.cpp:91] Creating Layer inception_5a/output
I0403 15:19:25.978958 31461 net.cpp:425] inception_5a/output <- inception_5a/1x1
I0403 15:19:25.978976 31461 net.cpp:425] inception_5a/output <- inception_5a/3x3
I0403 15:19:25.978993 31461 net.cpp:425] inception_5a/output <- inception_5a/5x5
I0403 15:19:25.979010 31461 net.cpp:425] inception_5a/output <- inception_5a/pool_proj
I0403 15:19:25.979027 31461 net.cpp:399] inception_5a/output -> inception_5a/output
I0403 15:19:25.979079 31461 net.cpp:141] Setting up inception_5a/output
I0403 15:19:25.979104 31461 net.cpp:148] Top shape: 24 832 7 7 (978432)
I0403 15:19:25.979118 31461 net.cpp:156] Memory required for data: 1309586976
I0403 15:19:25.979133 31461 layer_factory.hpp:77] Creating layer inception_5a/output_inception_5a/output_0_split
I0403 15:19:25.979151 31461 net.cpp:91] Creating Layer inception_5a/output_inception_5a/output_0_split
I0403 15:19:25.979167 31461 net.cpp:425] inception_5a/output_inception_5a/output_0_split <- inception_5a/output
I0403 15:19:25.979187 31461 net.cpp:399] inception_5a/output_inception_5a/output_0_split -> inception_5a/output_inception_5a/output_0_split_0
I0403 15:19:25.979208 31461 net.cpp:399] inception_5a/output_inception_5a/output_0_split -> inception_5a/output_inception_5a/output_0_split_1
I0403 15:19:25.979228 31461 net.cpp:399] inception_5a/output_inception_5a/output_0_split -> inception_5a/output_inception_5a/output_0_split_2
I0403 15:19:25.979250 31461 net.cpp:399] inception_5a/output_inception_5a/output_0_split -> inception_5a/output_inception_5a/output_0_split_3
I0403 15:19:25.979367 31461 net.cpp:141] Setting up inception_5a/output_inception_5a/output_0_split
I0403 15:19:25.979395 31461 net.cpp:148] Top shape: 24 832 7 7 (978432)
I0403 15:19:25.979413 31461 net.cpp:148] Top shape: 24 832 7 7 (978432)
I0403 15:19:25.979429 31461 net.cpp:148] Top shape: 24 832 7 7 (978432)
I0403 15:19:25.979444 31461 net.cpp:148] Top shape: 24 832 7 7 (978432)
I0403 15:19:25.979459 31461 net.cpp:156] Memory required for data: 1325241888
I0403 15:19:25.979473 31461 layer_factory.hpp:77] Creating layer inception_5b/1x1
I0403 15:19:25.979496 31461 net.cpp:91] Creating Layer inception_5b/1x1
I0403 15:19:25.979516 31461 net.cpp:425] inception_5b/1x1 <- inception_5a/output_inception_5a/output_0_split_0
I0403 15:19:25.979535 31461 net.cpp:399] inception_5b/1x1 -> inception_5b/1x1
I0403 15:19:25.983333 31461 net.cpp:141] Setting up inception_5b/1x1
I0403 15:19:25.983364 31461 net.cpp:148] Top shape: 24 384 7 7 (451584)
I0403 15:19:25.983381 31461 net.cpp:156] Memory required for data: 1327048224
I0403 15:19:25.983400 31461 layer_factory.hpp:77] Creating layer inception_5b/relu_1x1
I0403 15:19:25.983422 31461 net.cpp:91] Creating Layer inception_5b/relu_1x1
I0403 15:19:25.983439 31461 net.cpp:425] inception_5b/relu_1x1 <- inception_5b/1x1
I0403 15:19:25.983456 31461 net.cpp:386] inception_5b/relu_1x1 -> inception_5b/1x1 (in-place)
I0403 15:19:25.983769 31461 net.cpp:141] Setting up inception_5b/relu_1x1
I0403 15:19:25.983798 31461 net.cpp:148] Top shape: 24 384 7 7 (451584)
I0403 15:19:25.983813 31461 net.cpp:156] Memory required for data: 1328854560
I0403 15:19:25.983827 31461 layer_factory.hpp:77] Creating layer inception_5b/3x3_reduce
I0403 15:19:25.983850 31461 net.cpp:91] Creating Layer inception_5b/3x3_reduce
I0403 15:19:25.983870 31461 net.cpp:425] inception_5b/3x3_reduce <- inception_5a/output_inception_5a/output_0_split_1
I0403 15:19:25.983892 31461 net.cpp:399] inception_5b/3x3_reduce -> inception_5b/3x3_reduce
I0403 15:19:25.986587 31461 net.cpp:141] Setting up inception_5b/3x3_reduce
I0403 15:19:25.986618 31461 net.cpp:148] Top shape: 24 192 7 7 (225792)
I0403 15:19:25.986634 31461 net.cpp:156] Memory required for data: 1329757728
I0403 15:19:25.986654 31461 layer_factory.hpp:77] Creating layer inception_5b/relu_3x3_reduce
I0403 15:19:25.986675 31461 net.cpp:91] Creating Layer inception_5b/relu_3x3_reduce
I0403 15:19:25.986692 31461 net.cpp:425] inception_5b/relu_3x3_reduce <- inception_5b/3x3_reduce
I0403 15:19:25.986711 31461 net.cpp:386] inception_5b/relu_3x3_reduce -> inception_5b/3x3_reduce (in-place)
I0403 15:19:25.986907 31461 net.cpp:141] Setting up inception_5b/relu_3x3_reduce
I0403 15:19:25.986935 31461 net.cpp:148] Top shape: 24 192 7 7 (225792)
I0403 15:19:25.986953 31461 net.cpp:156] Memory required for data: 1330660896
I0403 15:19:25.986968 31461 layer_factory.hpp:77] Creating layer inception_5b/3x3
I0403 15:19:25.986991 31461 net.cpp:91] Creating Layer inception_5b/3x3
I0403 15:19:25.987010 31461 net.cpp:425] inception_5b/3x3 <- inception_5b/3x3_reduce
I0403 15:19:25.987030 31461 net.cpp:399] inception_5b/3x3 -> inception_5b/3x3
I0403 15:19:25.993921 31461 net.cpp:141] Setting up inception_5b/3x3
I0403 15:19:25.993952 31461 net.cpp:148] Top shape: 24 384 7 7 (451584)
I0403 15:19:25.993968 31461 net.cpp:156] Memory required for data: 1332467232
I0403 15:19:25.993999 31461 layer_factory.hpp:77] Creating layer inception_5b/relu_3x3
I0403 15:19:25.994019 31461 net.cpp:91] Creating Layer inception_5b/relu_3x3
I0403 15:19:25.994036 31461 net.cpp:425] inception_5b/relu_3x3 <- inception_5b/3x3
I0403 15:19:25.994053 31461 net.cpp:386] inception_5b/relu_3x3 -> inception_5b/3x3 (in-place)
I0403 15:19:25.994365 31461 net.cpp:141] Setting up inception_5b/relu_3x3
I0403 15:19:25.994392 31461 net.cpp:148] Top shape: 24 384 7 7 (451584)
I0403 15:19:25.994407 31461 net.cpp:156] Memory required for data: 1334273568
I0403 15:19:25.994422 31461 layer_factory.hpp:77] Creating layer inception_5b/5x5_reduce
I0403 15:19:25.994462 31461 net.cpp:91] Creating Layer inception_5b/5x5_reduce
I0403 15:19:25.994482 31461 net.cpp:425] inception_5b/5x5_reduce <- inception_5a/output_inception_5a/output_0_split_2
I0403 15:19:25.994503 31461 net.cpp:399] inception_5b/5x5_reduce -> inception_5b/5x5_reduce
I0403 15:19:25.995779 31461 net.cpp:141] Setting up inception_5b/5x5_reduce
I0403 15:19:25.995806 31461 net.cpp:148] Top shape: 24 48 7 7 (56448)
I0403 15:19:25.995822 31461 net.cpp:156] Memory required for data: 1334499360
I0403 15:19:25.995841 31461 layer_factory.hpp:77] Creating layer inception_5b/relu_5x5_reduce
I0403 15:19:25.995862 31461 net.cpp:91] Creating Layer inception_5b/relu_5x5_reduce
I0403 15:19:25.995880 31461 net.cpp:425] inception_5b/relu_5x5_reduce <- inception_5b/5x5_reduce
I0403 15:19:25.995898 31461 net.cpp:386] inception_5b/relu_5x5_reduce -> inception_5b/5x5_reduce (in-place)
I0403 15:19:25.996282 31461 net.cpp:141] Setting up inception_5b/relu_5x5_reduce
I0403 15:19:25.996309 31461 net.cpp:148] Top shape: 24 48 7 7 (56448)
I0403 15:19:25.996328 31461 net.cpp:156] Memory required for data: 1334725152
I0403 15:19:25.996345 31461 layer_factory.hpp:77] Creating layer inception_5b/5x5
I0403 15:19:25.996364 31461 net.cpp:91] Creating Layer inception_5b/5x5
I0403 15:19:25.996382 31461 net.cpp:425] inception_5b/5x5 <- inception_5b/5x5_reduce
I0403 15:19:25.996402 31461 net.cpp:399] inception_5b/5x5 -> inception_5b/5x5
I0403 15:19:25.998430 31461 net.cpp:141] Setting up inception_5b/5x5
I0403 15:19:25.998459 31461 net.cpp:148] Top shape: 24 128 7 7 (150528)
I0403 15:19:25.998476 31461 net.cpp:156] Memory required for data: 1335327264
I0403 15:19:25.998494 31461 layer_factory.hpp:77] Creating layer inception_5b/relu_5x5
I0403 15:19:25.998513 31461 net.cpp:91] Creating Layer inception_5b/relu_5x5
I0403 15:19:25.998531 31461 net.cpp:425] inception_5b/relu_5x5 <- inception_5b/5x5
I0403 15:19:25.998548 31461 net.cpp:386] inception_5b/relu_5x5 -> inception_5b/5x5 (in-place)
I0403 15:19:25.998738 31461 net.cpp:141] Setting up inception_5b/relu_5x5
I0403 15:19:25.998764 31461 net.cpp:148] Top shape: 24 128 7 7 (150528)
I0403 15:19:25.998780 31461 net.cpp:156] Memory required for data: 1335929376
I0403 15:19:25.998795 31461 layer_factory.hpp:77] Creating layer inception_5b/pool
I0403 15:19:25.998812 31461 net.cpp:91] Creating Layer inception_5b/pool
I0403 15:19:25.998828 31461 net.cpp:425] inception_5b/pool <- inception_5a/output_inception_5a/output_0_split_3
I0403 15:19:25.998848 31461 net.cpp:399] inception_5b/pool -> inception_5b/pool
I0403 15:19:25.998917 31461 net.cpp:141] Setting up inception_5b/pool
I0403 15:19:25.998946 31461 net.cpp:148] Top shape: 24 832 7 7 (978432)
I0403 15:19:25.998961 31461 net.cpp:156] Memory required for data: 1339843104
I0403 15:19:25.998976 31461 layer_factory.hpp:77] Creating layer inception_5b/pool_proj
I0403 15:19:25.998999 31461 net.cpp:91] Creating Layer inception_5b/pool_proj
I0403 15:19:25.999017 31461 net.cpp:425] inception_5b/pool_proj <- inception_5b/pool
I0403 15:19:25.999035 31461 net.cpp:399] inception_5b/pool_proj -> inception_5b/pool_proj
I0403 15:19:26.001335 31461 net.cpp:141] Setting up inception_5b/pool_proj
I0403 15:19:26.001366 31461 net.cpp:148] Top shape: 24 128 7 7 (150528)
I0403 15:19:26.001382 31461 net.cpp:156] Memory required for data: 1340445216
I0403 15:19:26.001401 31461 layer_factory.hpp:77] Creating layer inception_5b/relu_pool_proj
I0403 15:19:26.001421 31461 net.cpp:91] Creating Layer inception_5b/relu_pool_proj
I0403 15:19:26.001438 31461 net.cpp:425] inception_5b/relu_pool_proj <- inception_5b/pool_proj
I0403 15:19:26.001456 31461 net.cpp:386] inception_5b/relu_pool_proj -> inception_5b/pool_proj (in-place)
I0403 15:19:26.001751 31461 net.cpp:141] Setting up inception_5b/relu_pool_proj
I0403 15:19:26.001778 31461 net.cpp:148] Top shape: 24 128 7 7 (150528)
I0403 15:19:26.001793 31461 net.cpp:156] Memory required for data: 1341047328
I0403 15:19:26.001808 31461 layer_factory.hpp:77] Creating layer inception_5b/output
I0403 15:19:26.001827 31461 net.cpp:91] Creating Layer inception_5b/output
I0403 15:19:26.001857 31461 net.cpp:425] inception_5b/output <- inception_5b/1x1
I0403 15:19:26.001883 31461 net.cpp:425] inception_5b/output <- inception_5b/3x3
I0403 15:19:26.001899 31461 net.cpp:425] inception_5b/output <- inception_5b/5x5
I0403 15:19:26.001915 31461 net.cpp:425] inception_5b/output <- inception_5b/pool_proj
I0403 15:19:26.001931 31461 net.cpp:399] inception_5b/output -> inception_5b/output
I0403 15:19:26.001983 31461 net.cpp:141] Setting up inception_5b/output
I0403 15:19:26.002007 31461 net.cpp:148] Top shape: 24 1024 7 7 (1204224)
I0403 15:19:26.002022 31461 net.cpp:156] Memory required for data: 1345864224
I0403 15:19:26.002037 31461 layer_factory.hpp:77] Creating layer pool5/7x7_s1
I0403 15:19:26.002053 31461 net.cpp:91] Creating Layer pool5/7x7_s1
I0403 15:19:26.002069 31461 net.cpp:425] pool5/7x7_s1 <- inception_5b/output
I0403 15:19:26.002089 31461 net.cpp:399] pool5/7x7_s1 -> pool5/7x7_s1
I0403 15:19:26.002306 31461 net.cpp:141] Setting up pool5/7x7_s1
I0403 15:19:26.002336 31461 net.cpp:148] Top shape: 24 1024 1 1 (24576)
I0403 15:19:26.002352 31461 net.cpp:156] Memory required for data: 1345962528
I0403 15:19:26.002367 31461 layer_factory.hpp:77] Creating layer pool5/drop_7x7_s1
I0403 15:19:26.002388 31461 net.cpp:91] Creating Layer pool5/drop_7x7_s1
I0403 15:19:26.002405 31461 net.cpp:425] pool5/drop_7x7_s1 <- pool5/7x7_s1
I0403 15:19:26.002424 31461 net.cpp:386] pool5/drop_7x7_s1 -> pool5/7x7_s1 (in-place)
I0403 15:19:26.002473 31461 net.cpp:141] Setting up pool5/drop_7x7_s1
I0403 15:19:26.002497 31461 net.cpp:148] Top shape: 24 1024 1 1 (24576)
I0403 15:19:26.002511 31461 net.cpp:156] Memory required for data: 1346060832
I0403 15:19:26.002527 31461 layer_factory.hpp:77] Creating layer loss3/classifier_plantvillage
I0403 15:19:26.002548 31461 net.cpp:91] Creating Layer loss3/classifier_plantvillage
I0403 15:19:26.002564 31461 net.cpp:425] loss3/classifier_plantvillage <- pool5/7x7_s1
I0403 15:19:26.002594 31461 net.cpp:399] loss3/classifier_plantvillage -> loss3/classifier_plantvillage
I0403 15:19:26.003008 31461 net.cpp:141] Setting up loss3/classifier_plantvillage
I0403 15:19:26.003033 31461 net.cpp:148] Top shape: 24 38 (912)
I0403 15:19:26.003048 31461 net.cpp:156] Memory required for data: 1346064480
I0403 15:19:26.003065 31461 layer_factory.hpp:77] Creating layer loss3/classifier_plantvillage_loss3/classifier_plantvillage_0_split
I0403 15:19:26.003083 31461 net.cpp:91] Creating Layer loss3/classifier_plantvillage_loss3/classifier_plantvillage_0_split
I0403 15:19:26.003098 31461 net.cpp:425] loss3/classifier_plantvillage_loss3/classifier_plantvillage_0_split <- loss3/classifier_plantvillage
I0403 15:19:26.003118 31461 net.cpp:399] loss3/classifier_plantvillage_loss3/classifier_plantvillage_0_split -> loss3/classifier_plantvillage_loss3/classifier_plantvillage_0_split_0
I0403 15:19:26.003139 31461 net.cpp:399] loss3/classifier_plantvillage_loss3/classifier_plantvillage_0_split -> loss3/classifier_plantvillage_loss3/classifier_plantvillage_0_split_1
I0403 15:19:26.003160 31461 net.cpp:399] loss3/classifier_plantvillage_loss3/classifier_plantvillage_0_split -> loss3/classifier_plantvillage_loss3/classifier_plantvillage_0_split_2
I0403 15:19:26.003180 31461 net.cpp:399] loss3/classifier_plantvillage_loss3/classifier_plantvillage_0_split -> loss3/classifier_plantvillage_loss3/classifier_plantvillage_0_split_3
I0403 15:19:26.003278 31461 net.cpp:141] Setting up loss3/classifier_plantvillage_loss3/classifier_plantvillage_0_split
I0403 15:19:26.003303 31461 net.cpp:148] Top shape: 24 38 (912)
I0403 15:19:26.003326 31461 net.cpp:148] Top shape: 24 38 (912)
I0403 15:19:26.003352 31461 net.cpp:148] Top shape: 24 38 (912)
I0403 15:19:26.003368 31461 net.cpp:148] Top shape: 24 38 (912)
I0403 15:19:26.003382 31461 net.cpp:156] Memory required for data: 1346079072
I0403 15:19:26.003396 31461 layer_factory.hpp:77] Creating layer loss1/loss
I0403 15:19:26.003418 31461 net.cpp:91] Creating Layer loss1/loss
I0403 15:19:26.003435 31461 net.cpp:425] loss1/loss <- loss1/classifier_plantvillage_loss1/classifier_plantvillage_0_split_0
I0403 15:19:26.003468 31461 net.cpp:425] loss1/loss <- label_data_1_split_0
…
