…
I0403 14:18:58.020133 29556 net.cpp:313] The NetState phase (1) differed from the phase (0) specified by a rule in layer data
I0403 14:18:58.021318 29556 net.cpp:49] Initializing net from parameters: 
state {
  phase: TEST
}
layer {
  name: "data"
  type: "Data"
  top: "data"
  top: "label"
  include {
    phase: TEST
  }
  transform_param {
    mirror: false
    crop_size: 224
    mean_file: "/home/mohanty/data/final_dataset/lmdb/color-20-80/mean.binaryproto"
  }
  data_param {
    source: "/home/mohanty/data/final_dataset/lmdb/color-20-80/test_db"
    batch_size: 24
    backend: LMDB
  }
}
layer {
  name: "conv1/7x7_s2"
  type: "Convolution"
  bottom: "data"
  top: "conv1/7x7_s2"
  param {
    lr_mult: 1
    decay_mult: 1
  }
  param {
    lr_mult: 2
    decay_mult: 0
  }
  convolution_param {
    num_output: 64
    pad: 3
    kernel_size: 7
    stride: 2
    weight_filler {
      type: "xavier"
      std: 0.1
    }
    bias_filler {
      type: "constant"
      value: 0.2
    }
  }
}
layer {
  name: "conv1/relu_7x7"
  type: "ReLU"
  bottom: "conv1/7x7_s2"
  top: "conv1/7x7_s2"
}
layer {
  name: "pool1/3x3_s2"
  type: "Pooling"
  bottom: "conv1/7x7_s2"
  top: "pool1/3x3_s2"
  pooling_param {
    pool: MAX
    kernel_size: 3
    stride: 2
  }
}
layer {
  name: "pool1/norm1"
  type: "LRN"
  bottom: "pool1/3x3_s2"
  top: "pool1/norm1"
  lrn_param {
    local_size: 5
    alpha: 0.0001
    beta: 0.75
  }
}
layer {
  name: "conv2/3x3_reduce"
  type: "Convolution"
  bottom: "pool1/norm1"
  top: "conv2/3x3_reduce"
  param {
    lr_mult: 1
    decay_mult: 1
  }
  param {
    lr_mult: 2
    decay_mult: 0
  }
  convolution_param {
    num_output: 64
    kernel_size: 1
    weight_filler {
      type: "xavier"
      std: 0.1
    }
    bias_filler {
      type: "constant"
      value: 0.2
    }
  }
}
layer {
  name: "conv2/relu_3x3_reduce"
  type: "ReLU"
  bottom: "conv2/3x3_reduce"
  top: "conv2/3x3_reduce"
}
layer {
  name: "conv2/3x3"
  type: "Convolution"
  bottom: "conv2/3x3_reduce"
  top: "conv2/3x3"
  param {
    lr_mult: 1
    decay_mult: 1
  }
  param {
    lr_mult: 2
    decay_mult: 0
  }
  convolution_param {
    num_output: 192
    pad: 1
    kernel_size: 3
    weight_filler {
      type: "xavier"
      std: 0.03
    }
    bias_filler {
      type: "constant"
      value: 0.2
    }
  }
}
layer {
  name: "conv2/relu_3x3"
  type: "ReLU"
  bottom: "conv2/3x3"
  top: "conv2/3x3"
}
layer {
  name: "conv2/norm2"
  type: "LRN"
  bottom: "conv2/3x3"
  top: "conv2/norm2"
  lrn_param {
    local_size: 5
    alpha: 0.0001
    beta: 0.75
  }
}
layer {
  name: "pool2/3x3_s2"
  type: "Pooling"
  bottom: "conv2/norm2"
  top: "pool2/3x3_s2"
  pooling_param {
    pool: MAX
    kernel_size: 3
    stride: 2
  }
}
layer {
  name: "inception_3a/1x1"
  type: "Convolution"
  bottom: "pool2/3x3_s2"
  top: "inception_3a/1x1"
  param {
    lr_mult: 1
    decay_mult: 1
  }
  param {
    lr_mult: 2
    decay_mult: 0
  }
  convolution_param {
    num_output: 64
    kernel_size: 1
    weight_filler {
      type: "xavier"
      std: 0.03
    }
    bias_filler {
      type: "constant"
      value: 0.2
    }
  }
}
layer {
  name: "inception_3a/relu_1x1"
  type: "ReLU"
  bottom: "inception_3a/1x1"
  top: "inception_3a/1x1"
}
layer {
  name: "inception_3a/3x3_reduce"
  type: "Convolution"
  bottom: "pool2/3x3_s2"
  top: "inception_3a/3x3_reduce"
  param {
    lr_mult: 1
    decay_mult: 1
  }
  param {
    lr_mult: 2
    decay_mult: 0
  }
  convolution_param {
    num_output: 96
    kernel_size: 1
    weight_filler {
      type: "xavier"
      std: 0.09
    }
    bias_filler {
      type: "constant"
      value: 0.2
    }
  }
}
layer {
  name: "inception_3a/relu_3x3_reduce"
  type: "ReLU"
  bottom: "inception_3a/3x3_reduce"
  top: "inception_3a/3x3_reduce"
}
layer {
  name: "inception_3a/3x3"
  type: "Convolution"
  bottom: "inception_3a/3x3_reduce"
  top: "inception_3a/3x3"
  param {
    lr_mult: 1
    decay_mult: 1
  }
  param {
    lr_mult: 2
    decay_mult: 0
  }
  convolution_param {
    num_output: 128
    pad: 1
    kernel_size: 3
    weight_filler {
      type: "xavier"
      std: 0.03
    }
    bias_filler {
      type: "constant"
      value: 0.2
    }
  }
}
layer {
  name: "inception_3a/relu_3x3"
  type: "ReLU"
  bottom: "inception_3a/3x3"
  top: "inception_3a/3x3"
}
layer {
  name: "inception_3a/5x5_reduce"
  type: "Convolution"
  bottom: "pool2/3x3_s2"
  top: "inception_3a/5x5_reduce"
  param {
    lr_mult: 1
    decay_mult: 1
  }
  param {
    lr_mult: 2
    decay_mult: 0
  }
  convolution_param {
    num_output: 16
    kernel_size: 1
    weight_filler {
      type: "xavier"
      std: 0.2
    }
    bias_filler {
      type: "constant"
      value: 0.2
    }
  }
}
layer {
  name: "inception_3a/relu_5x5_reduce"
  type: "ReLU"
  bottom: "inception_3a/5x5_reduce"
  top: "inception_3a/5x5_reduce"
}
layer {
  name: "inception_3a/5x5"
  type: "Convolution"
  bottom: "inception_3a/5x5_reduce"
  top: "inception_3a/5x5"
  param {
    lr_mult: 1
    decay_mult: 1
  }
  param {
    lr_mult: 2
    decay_mult: 0
  }
  convolution_param {
    num_output: 32
    pad: 2
    kernel_size: 5
    weight_filler {
      type: "xavier"
      std: 0.03
    }
    bias_filler {
      type: "constant"
      value: 0.2
    }
  }
}
layer {
  name: "inception_3a/relu_5x5"
  type: "ReLU"
  bottom: "inception_3a/5x5"
  top: "inception_3a/5x5"
}
layer {
  name: "inception_3a/pool"
  type: "Pooling"
  bottom: "pool2/3x3_s2"
  top: "inception_3a/pool"
  pooling_param {
    pool: MAX
    kernel_size: 3
    stride: 1
    pad: 1
  }
}
layer {
  name: "inception_3a/pool_proj"
  type: "Convolution"
  bottom: "inception_3a/pool"
  top: "inception_3a/pool_proj"
  param {
    lr_mult: 1
    decay_mult: 1
  }
  param {
    lr_mult: 2
    decay_mult: 0
  }
  convolution_param {
    num_output: 32
    kernel_size: 1
    weight_filler {
      type: "xavier"
      std: 0.1
    }
    bias_filler {
      type: "constant"
      value: 0.2
    }
  }
}
layer {
  name: "inception_3a/relu_pool_proj"
  type: "ReLU"
  bottom: "inception_3a/pool_proj"
  top: "inception_3a/pool_proj"
}
layer {
  name: "inception_3a/output"
  type: "Concat"
  bottom: "inception_3a/1x1"
  bottom: "inception_3a/3x3"
  bottom: "inception_3a/5x5"
  bottom: "inception_3a/pool_proj"
  top: "inception_3a/output"
}
layer {
  name: "inception_3b/1x1"
  type: "Convolution"
  bottom: "inception_3a/output"
  top: "inception_3b/1x1"
  param {
    lr_mult: 1
    decay_mult: 1
  }
  param {
    lr_mult: 2
    decay_mult: 0
  }
  convolution_param {
    num_output: 128
    kernel_size: 1
    weight_filler {
      type: "xavier"
      std: 0.03
    }
    bias_filler {
      type: "constant"
      value: 0.2
    }
  }
}
layer {
  name: "inception_3b/relu_1x1"
  type: "ReLU"
  bottom: "inception_3b/1x1"
  top: "inception_3b/1x1"
}
layer {
  name: "inception_3b/3x3_reduce"
  type: "Convolution"
  bottom: "inception_3a/output"
  top: "inception_3b/3x3_reduce"
  param {
    lr_mult: 1
    decay_mult: 1
  }
  param {
    lr_mult: 2
    decay_mult: 0
  }
  convolution_param {
    num_output: 128
    kernel_size: 1
    weight_filler {
      type: "xavier"
      std: 0.09
    }
    bias_filler {
      type: "constant"
      value: 0.2
    }
  }
}
layer {
  name: "inception_3b/relu_3x3_reduce"
  type: "ReLU"
  bottom: "inception_3b/3x3_reduce"
  top: "inception_3b/3x3_reduce"
}
layer {
  name: "inception_3b/3x3"
  type: "Convolution"
  bottom: "inception_3b/3x3_reduce"
  top: "inception_3b/3x3"
  param {
    lr_mult: 1
    decay_mult: 1
  }
  param {
    lr_mult: 2
    decay_mult: 0
  }
  convolution_param {
    num_output: 192
    pad: 1
    kernel_size: 3
    weight_filler {
      type: "xavier"
      std: 0.03
    }
    bias_filler {
      type: "constant"
      value: 0.2
    }
  }
}
layer {
  name: "inception_3b/relu_3x3"
  type: "ReLU"
  bottom: "inception_3b/3x3"
  top: "inception_3b/3x3"
}
layer {
  name: "inception_3b/5x5_reduce"
  type: "Convolution"
  bottom: "inception_3a/output"
  top: "inception_3b/5x5_reduce"
  param {
    lr_mult: 1
    decay_mult: 1
  }
  param {
    lr_mult: 2
    decay_mult: 0
  }
  convolution_param {
    num_output: 32
    kernel_size: 1
    weight_filler {
      type: "xavier"
      std: 0.2
    }
    bias_filler {
      type: "constant"
      value: 0.2
    }
  }
}
layer {
  name: "inception_3b/relu_5x5_reduce"
  type: "ReLU"
  bottom: "inception_3b/5x5_reduce"
  top: "inception_3b/5x5_reduce"
}
layer {
  name: "inception_3b/5x5"
  type: "Convolution"
  bottom: "inception_3b/5x5_reduce"
  top: "inception_3b/5x5"
  param {
    lr_mult: 1
    decay_mult: 1
  }
  param {
    lr_mult: 2
    decay_mult: 0
  }
  convolution_param {
    num_output: 96
    pad: 2
    kernel_size: 5
    weight_filler {
      type: "xavier"
      std: 0.03
    }
    bias_filler {
      type: "constant"
      value: 0.2
    }
  }
}
layer {
  name: "inception_3b/relu_5x5"
  type: "ReLU"
  bottom: "inception_3b/5x5"
  top: "inception_3b/5x5"
}
layer {
  name: "inception_3b/pool"
  type: "Pooling"
  bottom: "inception_3a/output"
  top: "inception_3b/pool"
  pooling_param {
    pool: MAX
    kernel_size: 3
    stride: 1
    pad: 1
  }
}
layer {
  name: "inception_3b/pool_proj"
  type: "Convolution"
  bottom: "inception_3b/pool"
  top: "inception_3b/pool_proj"
  param {
    lr_mult: 1
    decay_mult: 1
  }
  param {
    lr_mult: 2
    decay_mult: 0
  }
  convolution_param {
    num_output: 64
    kernel_size: 1
    weight_filler {
      type: "xavier"
      std: 0.1
    }
    bias_filler {
      type: "constant"
      value: 0.2
    }
  }
}
layer {
  name: "inception_3b/relu_pool_proj"
  type: "ReLU"
  bottom: "inception_3b/pool_proj"
  top: "inception_3b/pool_proj"
}
layer {
  name: "inception_3b/output"
  type: "Concat"
  bottom: "inception_3b/1x1"
  bottom: "inception_3b/3x3"
  bottom: "inception_3b/5x5"
  bottom: "inception_3b/pool_proj"
  top: "inception_3b/output"
}
layer {
  name: "pool3/3x3_s2"
  type: "Pooling"
  bottom: "inception_3b/output"
  top: "pool3/3x3_s2"
  pooling_param {
    pool: MAX
    kernel_size: 3
    stride: 2
  }
}
layer {
  name: "inception_4a/1x1"
  type: "Convolution"
  bottom: "pool3/3x3_s2"
  top: "inception_4a/1x1"
  param {
    lr_mult: 1
    decay_mult: 1
  }
  param {
    lr_mult: 2
    decay_mult: 0
  }
  convolution_param {
    num_output: 192
    kernel_size: 1
    weight_filler {
      type: "xavier"
      std: 0.03
    }
    bias_filler {
      type: "constant"
      value: 0.2
    }
  }
}
layer {
  name: "inception_4a/relu_1x1"
  type: "ReLU"
  bottom: "inception_4a/1x1"
  top: "inception_4a/1x1"
}
layer {
  name: "inception_4a/3x3_reduce"
  type: "Convolution"
  bottom: "pool3/3x3_s2"
  top: "inception_4a/3x3_reduce"
  param {
    lr_mult: 1
    decay_mult: 1
  }
  param {
    lr_mult: 2
    decay_mult: 0
  }
  convolution_param {
    num_output: 96
    kernel_size: 1
    weight_filler {
      type: "xavier"
      std: 0.09
    }
    bias_filler {
      type: "constant"
      value: 0.2
    }
  }
}
layer {
  name: "inception_4a/relu_3x3_reduce"
  type: "ReLU"
  bottom: "inception_4a/3x3_reduce"
  top: "inception_4a/3x3_reduce"
}
layer {
  name: "inception_4a/3x3"
  type: "Convolution"
  bottom: "inception_4a/3x3_reduce"
  top: "inception_4a/3x3"
  param {
    lr_mult: 1
    decay_mult: 1
  }
  param {
    lr_mult: 2
    decay_mult: 0
  }
  convolution_param {
    num_output: 208
    pad: 1
    kernel_size: 3
    weight_filler {
      type: "xavier"
      std: 0.03
    }
    bias_filler {
      type: "constant"
      value: 0.2
    }
  }
}
layer {
  name: "inception_4a/relu_3x3"
  type: "ReLU"
  bottom: "inception_4a/3x3"
  top: "inception_4a/3x3"
}
layer {
  name: "inception_4a/5x5_reduce"
  type: "Convolution"
  bottom: "pool3/3x3_s2"
  top: "inception_4a/5x5_reduce"
  param {
    lr_mult: 1
    decay_mult: 1
  }
  param {
    lr_mult: 2
    decay_mult: 0
  }
  convolution_param {
    num_output: 16
    kernel_size: 1
    weight_filler {
      type: "xavier"
      std: 0.2
    }
    bias_filler {
      type: "constant"
      value: 0.2
    }
  }
}
layer {
  name: "inception_4a/relu_5x5_reduce"
  type: "ReLU"
  bottom: "inception_4a/5x5_reduce"
  top: "inception_4a/5x5_reduce"
}
layer {
  name: "inception_4a/5x5"
  type: "Convolution"
  bottom: "inception_4a/5x5_reduce"
  top: "inception_4a/5x5"
  param {
    lr_mult: 1
    decay_mult: 1
  }
  param {
    lr_mult: 2
    decay_mult: 0
  }
  convolution_param {
    num_output: 48
    pad: 2
    kernel_size: 5
    weight_filler {
      type: "xavier"
      std: 0.03
    }
    bias_filler {
      type: "constant"
      value: 0.2
    }
  }
}
layer {
  name: "inception_4a/relu_5x5"
  type: "ReLU"
  bottom: "inception_4a/5x5"
  top: "inception_4a/5x5"
}
layer {
  name: "inception_4a/pool"
  type: "Pooling"
  bottom: "pool3/3x3_s2"
  top: "inception_4a/pool"
  pooling_param {
    pool: MAX
    kernel_size: 3
    stride: 1
    pad: 1
  }
}
layer {
  name: "inception_4a/pool_proj"
  type: "Convolution"
  bottom: "inception_4a/pool"
  top: "inception_4a/pool_proj"
  param {
    lr_mult: 1
    decay_mult: 1
  }
  param {
    lr_mult: 2
    decay_mult: 0
  }
  convolution_param {
    num_output: 64
    kernel_size: 1
    weight_filler {
      type: "xavier"
      std: 0.1
    }
    bias_filler {
      type: "constant"
      value: 0.2
    }
  }
}
layer {
  name: "inception_4a/relu_pool_proj"
  type: "ReLU"
  bottom: "inception_4a/pool_proj"
  top: "inception_4a/pool_proj"
}
layer {
  name: "inception_4a/output"
  type: "Concat"
  bottom: "inception_4a/1x1"
  bottom: "inception_4a/3x3"
  bottom: "inception_4a/5x5"
  bottom: "inception_4a/pool_proj"
  top: "inception_4a/output"
}
layer {
  name: "loss1/ave_pool"
  type: "Pooling"
  bottom: "inception_4a/output"
  top: "loss1/ave_pool"
  pooling_param {
    pool: AVE
    kernel_size: 5
    stride: 3
  }
}
layer {
  name: "loss1/conv"
  type: "Convolution"
  bottom: "loss1/ave_pool"
  top: "loss1/conv"
  param {
    lr_mult: 1
    decay_mult: 1
  }
  param {
    lr_mult: 2
    decay_mult: 0
  }
  convolution_param {
    num_output: 128
    kernel_size: 1
    weight_filler {
      type: "xavier"
      std: 0.08
    }
    bias_filler {
      type: "constant"
      value: 0.2
    }
  }
}
layer {
  name: "loss1/relu_conv"
  type: "ReLU"
  bottom: "loss1/conv"
  top: "loss1/conv"
}
layer {
  name: "loss1/fc"
  type: "InnerProduct"
  bottom: "loss1/conv"
  top: "loss1/fc"
  param {
    lr_mult: 1
    decay_mult: 1
  }
  param {
    lr_mult: 2
    decay_mult: 0
  }
  inner_product_param {
    num_output: 1024
    weight_filler {
      type: "xavier"
      std: 0.02
    }
    bias_filler {
      type: "constant"
      value: 0.2
    }
  }
}
layer {
  name: "loss1/relu_fc"
  type: "ReLU"
  bottom: "loss1/fc"
  top: "loss1/fc"
}
layer {
  name: "loss1/drop_fc"
  type: "Dropout"
  bottom: "loss1/fc"
  top: "loss1/fc"
  dropout_param {
    dropout_ratio: 0.7
  }
}
layer {
  name: "loss1/classifier_plantvillage"
  type: "InnerProduct"
  bottom: "loss1/fc"
  top: "loss1/classifier_plantvillage"
  param {
    lr_mult: 1
    decay_mult: 1
  }
  param {
    lr_mult: 2
    decay_mult: 0
  }
  inner_product_param {
    num_output: 38
    weight_filler {
      type: "xavier"
      std: 0.0009765625
    }
    bias_filler {
      type: "constant"
      value: 0
    }
  }
}
layer {
  name: "inception_4b/1x1"
  type: "Convolution"
  bottom: "inception_4a/output"
  top: "inception_4b/1x1"
  param {
    lr_mult: 1
    decay_mult: 1
  }
  param {
    lr_mult: 2
    decay_mult: 0
  }
  convolution_param {
    num_output: 160
    kernel_size: 1
    weight_filler {
      type: "xavier"
      std: 0.03
    }
    bias_filler {
      type: "constant"
      value: 0.2
    }
  }
}
layer {
  name: "inception_4b/relu_1x1"
  type: "ReLU"
  bottom: "inception_4b/1x1"
  top: "inception_4b/1x1"
}
layer {
  name: "inception_4b/3x3_reduce"
  type: "Convolution"
  bottom: "inception_4a/output"
  top: "inception_4b/3x3_reduce"
  param {
    lr_mult: 1
    decay_mult: 1
  }
  param {
    lr_mult: 2
    decay_mult: 0
  }
  convolution_param {
    num_output: 112
    kernel_size: 1
    weight_filler {
      type: "xavier"
      std: 0.09
    }
    bias_filler {
      type: "constant"
      value: 0.2
    }
  }
}
layer {
  name: "inception_4b/relu_3x3_reduce"
  type: "ReLU"
  bottom: "inception_4b/3x3_reduce"
  top: "inception_4b/3x3_reduce"
}
layer {
  name: "inception_4b/3x3"
  type: "Convolution"
  bottom: "inception_4b/3x3_reduce"
  top: "inception_4b/3x3"
  param {
    lr_mult: 1
    decay_mult: 1
  }
  param {
    lr_mult: 2
    decay_mult: 0
  }
  convolution_param {
    num_output: 224
    pad: 1
    kernel_size: 3
    weight_filler {
      type: "xavier"
      std: 0.03
    }
    bias_filler {
      type: "constant"
      value: 0.2
    }
  }
}
layer {
  name: "inception_4b/relu_3x3"
  type: "ReLU"
  bottom: "inception_4b/3x3"
  top: "inception_4b/3x3"
}
layer {
  name: "inception_4b/5x5_reduce"
  type: "Convolution"
  bottom: "inception_4a/output"
  top: "inception_4b/5x5_reduce"
  param {
    lr_mult: 1
    decay_mult: 1
  }
  param {
    lr_mult: 2
    decay_mult: 0
  }
  convolution_param {
    num_output: 24
    kernel_size: 1
    weight_filler {
      type: "xavier"
      std: 0.2
    }
    bias_filler {
      type: "constant"
      value: 0.2
    }
  }
}
layer {
  name: "inception_4b/relu_5x5_reduce"
  type: "ReLU"
  bottom: "inception_4b/5x5_reduce"
  top: "inception_4b/5x5_reduce"
}
layer {
  name: "inception_4b/5x5"
  type: "Convolution"
  bottom: "inception_4b/5x5_reduce"
  top: "inception_4b/5x5"
  param {
    lr_mult: 1
    decay_mult: 1
  }
  param {
    lr_mult: 2
    decay_mult: 0
  }
  convolution_param {
    num_output: 64
    pad: 2
    kernel_size: 5
    weight_filler {
      type: "xavier"
      std: 0.03
    }
    bias_filler {
      type: "constant"
      value: 0.2
    }
  }
}
layer {
  name: "inception_4b/relu_5x5"
  type: "ReLU"
  bottom: "inception_4b/5x5"
  top: "inception_4b/5x5"
}
layer {
  name: "inception_4b/pool"
  type: "Pooling"
  bottom: "inception_4a/output"
  top: "inception_4b/pool"
  pooling_param {
    pool: MAX
    kernel_size: 3
    stride: 1
    pad: 1
  }
}
layer {
  name: "inception_4b/pool_proj"
  type: "Convolution"
  bottom: "inception_4b/pool"
  top: "inception_4b/pool_proj"
  param {
    lr_mult: 1
    decay_mult: 1
  }
  param {
    lr_mult: 2
    decay_mult: 0
  }
  convolution_param {
    num_output: 64
    kernel_size: 1
    weight_filler {
      type: "xavier"
      std: 0.1
    }
    bias_filler {
      type: "constant"
      value: 0.2
    }
  }
}
layer {
  name: "inception_4b/relu_pool_proj"
  type: "ReLU"
  bottom: "inception_4b/pool_proj"
  top: "inception_4b/pool_proj"
}
layer {
  name: "inception_4b/output"
  type: "Concat"
  bottom: "inception_4b/1x1"
  bottom: "inception_4b/3x3"
  bottom: "inception_4b/5x5"
  bottom: "inception_4b/pool_proj"
  top: "inception_4b/output"
}
layer {
  name: "inception_4c/1x1"
  type: "Convolution"
  bottom: "inception_4b/output"
  top: "inception_4c/1x1"
  param {
    lr_mult: 1
    decay_mult: 1
  }
  param {
    lr_mult: 2
    decay_mult: 0
  }
  convolution_param {
    num_output: 128
    kernel_size: 1
    weight_filler {
      type: "xavier"
      std: 0.03
    }
    bias_filler {
      type: "constant"
      value: 0.2
    }
  }
}
layer {
  name: "inception_4c/relu_1x1"
  type: "ReLU"
  bottom: "inception_4c/1x1"
  top: "inception_4c/1x1"
}
layer {
  name: "inception_4c/3x3_reduce"
  type: "Convolution"
  bottom: "inception_4b/output"
  top: "inception_4c/3x3_reduce"
  param {
    lr_mult: 1
    decay_mult: 1
  }
  param {
    lr_mult: 2
    decay_mult: 0
  }
  convolution_param {
    num_output: 128
    kernel_size: 1
    weight_filler {
      type: "xavier"
      std: 0.09
    }
    bias_filler {
      type: "constant"
      value: 0.2
    }
  }
}
layer {
  name: "inception_4c/relu_3x3_reduce"
  type: "ReLU"
  bottom: "inception_4c/3x3_reduce"
  top: "inception_4c/3x3_reduce"
}
layer {
  name: "inception_4c/3x3"
  type: "Convolution"
  bottom: "inception_4c/3x3_reduce"
  top: "inception_4c/3x3"
  param {
    lr_mult: 1
    decay_mult: 1
  }
  param {
    lr_mult: 2
    decay_mult: 0
  }
  convolution_param {
    num_output: 256
    pad: 1
    kernel_size: 3
    weight_filler {
      type: "xavier"
      std: 0.03
    }
    bias_filler {
      type: "constant"
      value: 0.2
    }
  }
}
layer {
  name: "inception_4c/relu_3x3"
  type: "ReLU"
  bottom: "inception_4c/3x3"
  top: "inception_4c/3x3"
}
layer {
  name: "inception_4c/5x5_reduce"
  type: "Convolution"
  bottom: "inception_4b/output"
  top: "inception_4c/5x5_reduce"
  param {
    lr_mult: 1
    decay_mult: 1
  }
  param {
    lr_mult: 2
    decay_mult: 0
  }
  convolution_param {
    num_output: 24
    kernel_size: 1
    weight_filler {
      type: "xavier"
      std: 0.2
    }
    bias_filler {
      type: "constant"
      value: 0.2
    }
  }
}
layer {
  name: "inception_4c/relu_5x5_reduce"
  type: "ReLU"
  bottom: "inception_4c/5x5_reduce"
  top: "inception_4c/5x5_reduce"
}
layer {
  name: "inception_4c/5x5"
  type: "Convolution"
  bottom: "inception_4c/5x5_reduce"
  top: "inception_4c/5x5"
  param {
    lr_mult: 1
    decay_mult: 1
  }
  param {
    lr_mult: 2
    decay_mult: 0
  }
  convolution_param {
    num_output: 64
    pad: 2
    kernel_size: 5
    weight_filler {
      type: "xavier"
      std: 0.03
    }
    bias_filler {
      type: "constant"
      value: 0.2
    }
  }
}
layer {
  name: "inception_4c/relu_5x5"
  type: "ReLU"
  bottom: "inception_4c/5x5"
  top: "inception_4c/5x5"
}
layer {
  name: "inception_4c/pool"
  type: "Pooling"
  bottom: "inception_4b/output"
  top: "inception_4c/pool"
  pooling_param {
    pool: MAX
    kernel_size: 3
    stride: 1
    pad: 1
  }
}
layer {
  name: "inception_4c/pool_proj"
  type: "Convolution"
  bottom: "inception_4c/pool"
  top: "inception_4c/pool_proj"
  param {
    lr_mult: 1
    decay_mult: 1
  }
  param {
    lr_mult: 2
    decay_mult: 0
  }
  convolution_param {
    num_output: 64
    kernel_size: 1
    weight_filler {
      type: "xavier"
      std: 0.1
    }
    bias_filler {
      type: "constant"
      value: 0.2
    }
  }
}
layer {
  name: "inception_4c/relu_pool_proj"
  type: "ReLU"
  bottom: "inception_4c/pool_proj"
  top: "inception_4c/pool_proj"
}
layer {
  name: "inception_4c/output"
  type: "Concat"
  bottom: "inception_4c/1x1"
  bottom: "inception_4c/3x3"
  bottom: "inception_4c/5x5"
  bottom: "inception_4c/pool_proj"
  top: "inception_4c/output"
}
layer {
  name: "inception_4d/1x1"
  type: "Convolution"
  bottom: "inception_4c/output"
  top: "inception_4d/1x1"
  param {
    lr_mult: 1
    decay_mult: 1
  }
  param {
    lr_mult: 2
    decay_mult: 0
  }
  convolution_param {
    num_output: 112
    kernel_size: 1
    weight_filler {
      type: "xavier"
      std: 0.03
    }
    bias_filler {
      type: "constant"
      value: 0.2
    }
  }
}
layer {
  name: "inception_4d/relu_1x1"
  type: "ReLU"
  bottom: "inception_4d/1x1"
  top: "inception_4d/1x1"
}
layer {
  name: "inception_4d/3x3_reduce"
  type: "Convolution"
  bottom: "inception_4c/output"
  top: "inception_4d/3x3_reduce"
  param {
    lr_mult: 1
    decay_mult: 1
  }
  param {
    lr_mult: 2
    decay_mult: 0
  }
  convolution_param {
    num_output: 144
    kernel_size: 1
    weight_filler {
      type: "xavier"
      std: 0.09
    }
    bias_filler {
      type: "constant"
      value: 0.2
    }
  }
}
layer {
  name: "inception_4d/relu_3x3_reduce"
  type: "ReLU"
  bottom: "inception_4d/3x3_reduce"
  top: "inception_4d/3x3_reduce"
}
layer {
  name: "inception_4d/3x3"
  type: "Convolution"
  bottom: "inception_4d/3x3_reduce"
  top: "inception_4d/3x3"
  param {
    lr_mult: 1
    decay_mult: 1
  }
  param {
    lr_mult: 2
    decay_mult: 0
  }
  convolution_param {
    num_output: 288
    pad: 1
    kernel_size: 3
    weight_filler {
      type: "xavier"
      std: 0.03
    }
    bias_filler {
      type: "constant"
      value: 0.2
    }
  }
}
layer {
  name: "inception_4d/relu_3x3"
  type: "ReLU"
  bottom: "inception_4d/3x3"
  top: "inception_4d/3x3"
}
layer {
  name: "inception_4d/5x5_reduce"
  type: "Convolution"
  bottom: "inception_4c/output"
  top: "inception_4d/5x5_reduce"
  param {
    lr_mult: 1
    decay_mult: 1
  }
  param {
    lr_mult: 2
    decay_mult: 0
  }
  convolution_param {
    num_output: 32
    kernel_size: 1
    weight_filler {
      type: "xavier"
      std: 0.2
    }
    bias_filler {
      type: "constant"
      value: 0.2
    }
  }
}
layer {
  name: "inception_4d/relu_5x5_reduce"
  type: "ReLU"
  bottom: "inception_4d/5x5_reduce"
  top: "inception_4d/5x5_reduce"
}
layer {
  name: "inception_4d/5x5"
  type: "Convolution"
  bottom: "inception_4d/5x5_reduce"
  top: "inception_4d/5x5"
  param {
    lr_mult: 1
    decay_mult: 1
  }
  param {
    lr_mult: 2
    decay_mult: 0
  }
  convolution_param {
    num_output: 64
    pad: 2
    kernel_size: 5
    weight_filler {
      type: "xavier"
      std: 0.03
    }
    bias_filler {
      type: "constant"
      value: 0.2
    }
  }
}
layer {
  name: "inception_4d/relu_5x5"
  type: "ReLU"
  bottom: "inception_4d/5x5"
  top: "inception_4d/5x5"
}
layer {
  name: "inception_4d/pool"
  type: "Pooling"
  bottom: "inception_4c/output"
  top: "inception_4d/pool"
  pooling_param {
    pool: MAX
    kernel_size: 3
    stride: 1
    pad: 1
  }
}
layer {
  name: "inception_4d/pool_proj"
  type: "Convolution"
  bottom: "inception_4d/pool"
  top: "inception_4d/pool_proj"
  param {
    lr_mult: 1
    decay_mult: 1
  }
  param {
    lr_mult: 2
    decay_mult: 0
  }
  convolution_param {
    num_output: 64
    kernel_size: 1
    weight_filler {
      type: "xavier"
      std: 0.1
    }
    bias_filler {
      type: "constant"
      value: 0.2
    }
  }
}
layer {
  name: "inception_4d/relu_pool_proj"
  type: "ReLU"
  bottom: "inception_4d/pool_proj"
  top: "inception_4d/pool_proj"
}
layer {
  name: "inception_4d/output"
  type: "Concat"
  bottom: "inception_4d/1x1"
  bottom: "inception_4d/3x3"
  bottom: "inception_4d/5x5"
  bottom: "inception_4d/pool_proj"
  top: "inception_4d/output"
}
layer {
  name: "loss2/ave_pool"
  type: "Pooling"
  bottom: "inception_4d/output"
  top: "loss2/ave_pool"
  pooling_param {
    pool: AVE
    kernel_size: 5
    stride: 3
  }
}
layer {
  name: "loss2/conv"
  type: "Convolution"
  bottom: "loss2/ave_pool"
  top: "loss2/conv"
  param {
    lr_mult: 1
    decay_mult: 1
  }
  param {
    lr_mult: 2
    decay_mult: 0
  }
  convolution_param {
    num_output: 128
    kernel_size: 1
    weight_filler {
      type: "xavier"
      std: 0.08
    }
    bias_filler {
      type: "constant"
      value: 0.2
    }
  }
}
layer {
  name: "loss2/relu_conv"
  type: "ReLU"
  bottom: "loss2/conv"
  top: "loss2/conv"
}
layer {
  name: "loss2/fc"
  type: "InnerProduct"
  bottom: "loss2/conv"
  top: "loss2/fc"
  param {
    lr_mult: 1
    decay_mult: 1
  }
  param {
    lr_mult: 2
    decay_mult: 0
  }
  inner_product_param {
    num_output: 1024
    weight_filler {
      type: "xavier"
      std: 0.02
    }
    bias_filler {
      type: "constant"
      value: 0.2
    }
  }
}
layer {
  name: "loss2/relu_fc"
  type: "ReLU"
  bottom: "loss2/fc"
  top: "loss2/fc"
}
layer {
  name: "loss2/drop_fc"
  type: "Dropout"
  bottom: "loss2/fc"
  top: "loss2/fc"
  dropout_param {
    dropout_ratio: 0.7
  }
}
layer {
  name: "loss2/classifier_plantvillage"
  type: "InnerProduct"
  bottom: "loss2/fc"
  top: "loss2/classifier_plantvillage"
  param {
    lr_mult: 1
    decay_mult: 1
  }
  param {
    lr_mult: 2
    decay_mult: 0
  }
  inner_product_param {
    num_output: 38
    weight_filler {
      type: "xavier"
      std: 0.0009765625
    }
    bias_filler {
      type: "constant"
      value: 0
    }
  }
}
layer {
  name: "inception_4e/1x1"
  type: "Convolution"
  bottom: "inception_4d/output"
  top: "inception_4e/1x1"
  param {
    lr_mult: 1
    decay_mult: 1
  }
  param {
    lr_mult: 2
    decay_mult: 0
  }
  convolution_param {
    num_output: 256
    kernel_size: 1
    weight_filler {
      type: "xavier"
      std: 0.03
    }
    bias_filler {
      type: "constant"
      value: 0.2
    }
  }
}
layer {
  name: "inception_4e/relu_1x1"
  type: "ReLU"
  bottom: "inception_4e/1x1"
  top: "inception_4e/1x1"
}
layer {
  name: "inception_4e/3x3_reduce"
  type: "Convolution"
  bottom: "inception_4d/output"
  top: "inception_4e/3x3_reduce"
  param {
    lr_mult: 1
    decay_mult: 1
  }
  param {
    lr_mult: 2
    decay_mult: 0
  }
  convolution_param {
    num_output: 160
    kernel_size: 1
    weight_filler {
      type: "xavier"
      std: 0.09
    }
    bias_filler {
      type: "constant"
      value: 0.2
    }
  }
}
layer {
  name: "inception_4e/relu_3x3_reduce"
  type: "ReLU"
  bottom: "inception_4e/3x3_reduce"
  top: "inception_4e/3x3_reduce"
}
layer {
  name: "inception_4e/3x3"
  type: "Convolution"
  bottom: "inception_4e/3x3_reduce"
  top: "inception_4e/3x3"
  param {
    lr_mult: 1
    decay_mult: 1
  }
  param {
    lr_mult: 2
    decay_mult: 0
  }
  convolution_param {
    num_output: 320
    pad: 1
    kernel_size: 3
    weight_filler {
      type: "xavier"
      std: 0.03
    }
    bias_filler {
      type: "constant"
      value: 0.2
    }
  }
}
layer {
  name: "inception_4e/relu_3x3"
  type: "ReLU"
  bottom: "inception_4e/3x3"
  top: "inception_4e/3x3"
}
layer {
  name: "inception_4e/5x5_reduce"
  type: "Convolution"
  bottom: "inception_4d/output"
  top: "inception_4e/5x5_reduce"
  param {
    lr_mult: 1
    decay_mult: 1
  }
  param {
    lr_mult: 2
    decay_mult: 0
  }
  convolution_param {
    num_output: 32
    kernel_size: 1
    weight_filler {
      type: "xavier"
      std: 0.2
    }
    bias_filler {
      type: "constant"
      value: 0.2
    }
  }
}
layer {
  name: "inception_4e/relu_5x5_reduce"
  type: "ReLU"
  bottom: "inception_4e/5x5_reduce"
  top: "inception_4e/5x5_reduce"
}
layer {
  name: "inception_4e/5x5"
  type: "Convolution"
  bottom: "inception_4e/5x5_reduce"
  top: "inception_4e/5x5"
  p
I0403 14:18:58.022598 29556 layer_factory.hpp:77] Creating layer data
I0403 14:18:58.023224 29556 net.cpp:91] Creating Layer data
I0403 14:18:58.023258 29556 net.cpp:399] data -> data
I0403 14:18:58.023311 29556 net.cpp:399] data -> label
I0403 14:18:58.023362 29556 data_transformer.cpp:25] Loading mean file from: /home/mohanty/data/final_dataset/lmdb/color-20-80/mean.binaryproto
I0403 14:18:58.026681 29559 db_lmdb.cpp:38] Opened lmdb /home/mohanty/data/final_dataset/lmdb/color-20-80/test_db
I0403 14:18:58.037020 29556 data_layer.cpp:41] output data size: 24,3,224,224
I0403 14:18:58.065003 29556 net.cpp:141] Setting up data
I0403 14:18:58.065091 29556 net.cpp:148] Top shape: 24 3 224 224 (3612672)
I0403 14:18:58.065115 29556 net.cpp:148] Top shape: 24 (24)
I0403 14:18:58.065131 29556 net.cpp:156] Memory required for data: 14450784
I0403 14:18:58.065160 29556 layer_factory.hpp:77] Creating layer label_data_1_split
I0403 14:18:58.065188 29556 net.cpp:91] Creating Layer label_data_1_split
I0403 14:18:58.065207 29556 net.cpp:425] label_data_1_split <- label
I0403 14:18:58.065242 29556 net.cpp:399] label_data_1_split -> label_data_1_split_0
I0403 14:18:58.065274 29556 net.cpp:399] label_data_1_split -> label_data_1_split_1
I0403 14:18:58.065296 29556 net.cpp:399] label_data_1_split -> label_data_1_split_2
I0403 14:18:58.065320 29556 net.cpp:399] label_data_1_split -> label_data_1_split_3
I0403 14:18:58.065340 29556 net.cpp:399] label_data_1_split -> label_data_1_split_4
I0403 14:18:58.065366 29556 net.cpp:399] label_data_1_split -> label_data_1_split_5
I0403 14:18:58.065388 29556 net.cpp:399] label_data_1_split -> label_data_1_split_6
I0403 14:18:58.065410 29556 net.cpp:399] label_data_1_split -> label_data_1_split_7
I0403 14:18:58.065431 29556 net.cpp:399] label_data_1_split -> label_data_1_split_8
I0403 14:18:58.065454 29556 net.cpp:399] label_data_1_split -> label_data_1_split_9
I0403 14:18:58.065575 29556 net.cpp:141] Setting up label_data_1_split
I0403 14:18:58.065600 29556 net.cpp:148] Top shape: 24 (24)
I0403 14:18:58.065629 29556 net.cpp:148] Top shape: 24 (24)
I0403 14:18:58.065645 29556 net.cpp:148] Top shape: 24 (24)
I0403 14:18:58.065662 29556 net.cpp:148] Top shape: 24 (24)
I0403 14:18:58.065678 29556 net.cpp:148] Top shape: 24 (24)
I0403 14:18:58.065696 29556 net.cpp:148] Top shape: 24 (24)
I0403 14:18:58.065711 29556 net.cpp:148] Top shape: 24 (24)
I0403 14:18:58.065728 29556 net.cpp:148] Top shape: 24 (24)
I0403 14:18:58.065744 29556 net.cpp:148] Top shape: 24 (24)
I0403 14:18:58.065762 29556 net.cpp:148] Top shape: 24 (24)
I0403 14:18:58.065809 29556 net.cpp:156] Memory required for data: 14451744
I0403 14:18:58.065825 29556 layer_factory.hpp:77] Creating layer conv1/7x7_s2
I0403 14:18:58.065858 29556 net.cpp:91] Creating Layer conv1/7x7_s2
I0403 14:18:58.065882 29556 net.cpp:425] conv1/7x7_s2 <- data
I0403 14:18:58.065903 29556 net.cpp:399] conv1/7x7_s2 -> conv1/7x7_s2
I0403 14:18:58.212780 29556 net.cpp:141] Setting up conv1/7x7_s2
I0403 14:18:58.212846 29556 net.cpp:148] Top shape: 24 64 112 112 (19267584)
I0403 14:18:58.212867 29556 net.cpp:156] Memory required for data: 91522080
I0403 14:18:58.212899 29556 layer_factory.hpp:77] Creating layer conv1/relu_7x7
I0403 14:18:58.212929 29556 net.cpp:91] Creating Layer conv1/relu_7x7
I0403 14:18:58.212949 29556 net.cpp:425] conv1/relu_7x7 <- conv1/7x7_s2
I0403 14:18:58.212972 29556 net.cpp:386] conv1/relu_7x7 -> conv1/7x7_s2 (in-place)
I0403 14:18:58.213264 29556 net.cpp:141] Setting up conv1/relu_7x7
I0403 14:18:58.213294 29556 net.cpp:148] Top shape: 24 64 112 112 (19267584)
I0403 14:18:58.213310 29556 net.cpp:156] Memory required for data: 168592416
I0403 14:18:58.213326 29556 layer_factory.hpp:77] Creating layer pool1/3x3_s2
I0403 14:18:58.213356 29556 net.cpp:91] Creating Layer pool1/3x3_s2
I0403 14:18:58.213377 29556 net.cpp:425] pool1/3x3_s2 <- conv1/7x7_s2
I0403 14:18:58.213400 29556 net.cpp:399] pool1/3x3_s2 -> pool1/3x3_s2
I0403 14:18:58.213484 29556 net.cpp:141] Setting up pool1/3x3_s2
I0403 14:18:58.213512 29556 net.cpp:148] Top shape: 24 64 56 56 (4816896)
I0403 14:18:58.213528 29556 net.cpp:156] Memory required for data: 187860000
I0403 14:18:58.213544 29556 layer_factory.hpp:77] Creating layer pool1/norm1
I0403 14:18:58.213572 29556 net.cpp:91] Creating Layer pool1/norm1
I0403 14:18:58.213590 29556 net.cpp:425] pool1/norm1 <- pool1/3x3_s2
I0403 14:18:58.213613 29556 net.cpp:399] pool1/norm1 -> pool1/norm1
I0403 14:18:58.213940 29556 net.cpp:141] Setting up pool1/norm1
I0403 14:18:58.213970 29556 net.cpp:148] Top shape: 24 64 56 56 (4816896)
I0403 14:18:58.213987 29556 net.cpp:156] Memory required for data: 207127584
I0403 14:18:58.214002 29556 layer_factory.hpp:77] Creating layer conv2/3x3_reduce
I0403 14:18:58.214030 29556 net.cpp:91] Creating Layer conv2/3x3_reduce
I0403 14:18:58.214051 29556 net.cpp:425] conv2/3x3_reduce <- pool1/norm1
I0403 14:18:58.214076 29556 net.cpp:399] conv2/3x3_reduce -> conv2/3x3_reduce
I0403 14:18:58.215549 29556 net.cpp:141] Setting up conv2/3x3_reduce
I0403 14:18:58.215580 29556 net.cpp:148] Top shape: 24 64 56 56 (4816896)
I0403 14:18:58.215597 29556 net.cpp:156] Memory required for data: 226395168
I0403 14:18:58.215625 29556 layer_factory.hpp:77] Creating layer conv2/relu_3x3_reduce
I0403 14:18:58.215646 29556 net.cpp:91] Creating Layer conv2/relu_3x3_reduce
I0403 14:18:58.215662 29556 net.cpp:425] conv2/relu_3x3_reduce <- conv2/3x3_reduce
I0403 14:18:58.215682 29556 net.cpp:386] conv2/relu_3x3_reduce -> conv2/3x3_reduce (in-place)
I0403 14:18:58.215965 29556 net.cpp:141] Setting up conv2/relu_3x3_reduce
I0403 14:18:58.215994 29556 net.cpp:148] Top shape: 24 64 56 56 (4816896)
I0403 14:18:58.216012 29556 net.cpp:156] Memory required for data: 245662752
I0403 14:18:58.216027 29556 layer_factory.hpp:77] Creating layer conv2/3x3
I0403 14:18:58.216055 29556 net.cpp:91] Creating Layer conv2/3x3
I0403 14:18:58.216076 29556 net.cpp:425] conv2/3x3 <- conv2/3x3_reduce
I0403 14:18:58.216096 29556 net.cpp:399] conv2/3x3 -> conv2/3x3
I0403 14:18:58.218524 29556 net.cpp:141] Setting up conv2/3x3
I0403 14:18:58.218559 29556 net.cpp:148] Top shape: 24 192 56 56 (14450688)
I0403 14:18:58.218578 29556 net.cpp:156] Memory required for data: 303465504
I0403 14:18:58.218600 29556 layer_factory.hpp:77] Creating layer conv2/relu_3x3
I0403 14:18:58.218621 29556 net.cpp:91] Creating Layer conv2/relu_3x3
I0403 14:18:58.218639 29556 net.cpp:425] conv2/relu_3x3 <- conv2/3x3
I0403 14:18:58.218658 29556 net.cpp:386] conv2/relu_3x3 -> conv2/3x3 (in-place)
I0403 14:18:58.218847 29556 net.cpp:141] Setting up conv2/relu_3x3
I0403 14:18:58.218875 29556 net.cpp:148] Top shape: 24 192 56 56 (14450688)
I0403 14:18:58.218924 29556 net.cpp:156] Memory required for data: 361268256
I0403 14:18:58.218942 29556 layer_factory.hpp:77] Creating layer conv2/norm2
I0403 14:18:58.218966 29556 net.cpp:91] Creating Layer conv2/norm2
I0403 14:18:58.218984 29556 net.cpp:425] conv2/norm2 <- conv2/3x3
I0403 14:18:58.219003 29556 net.cpp:399] conv2/norm2 -> conv2/norm2
I0403 14:18:58.219319 29556 net.cpp:141] Setting up conv2/norm2
I0403 14:18:58.219352 29556 net.cpp:148] Top shape: 24 192 56 56 (14450688)
I0403 14:18:58.219370 29556 net.cpp:156] Memory required for data: 419071008
I0403 14:18:58.219386 29556 layer_factory.hpp:77] Creating layer pool2/3x3_s2
I0403 14:18:58.219408 29556 net.cpp:91] Creating Layer pool2/3x3_s2
I0403 14:18:58.219427 29556 net.cpp:425] pool2/3x3_s2 <- conv2/norm2
I0403 14:18:58.219447 29556 net.cpp:399] pool2/3x3_s2 -> pool2/3x3_s2
I0403 14:18:58.219503 29556 net.cpp:141] Setting up pool2/3x3_s2
I0403 14:18:58.219527 29556 net.cpp:148] Top shape: 24 192 28 28 (3612672)
I0403 14:18:58.219544 29556 net.cpp:156] Memory required for data: 433521696
I0403 14:18:58.219560 29556 layer_factory.hpp:77] Creating layer pool2/3x3_s2_pool2/3x3_s2_0_split
I0403 14:18:58.219579 29556 net.cpp:91] Creating Layer pool2/3x3_s2_pool2/3x3_s2_0_split
I0403 14:18:58.219596 29556 net.cpp:425] pool2/3x3_s2_pool2/3x3_s2_0_split <- pool2/3x3_s2
I0403 14:18:58.219617 29556 net.cpp:399] pool2/3x3_s2_pool2/3x3_s2_0_split -> pool2/3x3_s2_pool2/3x3_s2_0_split_0
I0403 14:18:58.219640 29556 net.cpp:399] pool2/3x3_s2_pool2/3x3_s2_0_split -> pool2/3x3_s2_pool2/3x3_s2_0_split_1
I0403 14:18:58.219660 29556 net.cpp:399] pool2/3x3_s2_pool2/3x3_s2_0_split -> pool2/3x3_s2_pool2/3x3_s2_0_split_2
I0403 14:18:58.219681 29556 net.cpp:399] pool2/3x3_s2_pool2/3x3_s2_0_split -> pool2/3x3_s2_pool2/3x3_s2_0_split_3
I0403 14:18:58.219755 29556 net.cpp:141] Setting up pool2/3x3_s2_pool2/3x3_s2_0_split
I0403 14:18:58.219784 29556 net.cpp:148] Top shape: 24 192 28 28 (3612672)
I0403 14:18:58.219802 29556 net.cpp:148] Top shape: 24 192 28 28 (3612672)
I0403 14:18:58.219820 29556 net.cpp:148] Top shape: 24 192 28 28 (3612672)
I0403 14:18:58.219836 29556 net.cpp:148] Top shape: 24 192 28 28 (3612672)
I0403 14:18:58.219852 29556 net.cpp:156] Memory required for data: 491324448
I0403 14:18:58.219868 29556 layer_factory.hpp:77] Creating layer inception_3a/1x1
I0403 14:18:58.219894 29556 net.cpp:91] Creating Layer inception_3a/1x1
I0403 14:18:58.219913 29556 net.cpp:425] inception_3a/1x1 <- pool2/3x3_s2_pool2/3x3_s2_0_split_0
I0403 14:18:58.219934 29556 net.cpp:399] inception_3a/1x1 -> inception_3a/1x1
I0403 14:18:58.221563 29556 net.cpp:141] Setting up inception_3a/1x1
I0403 14:18:58.221596 29556 net.cpp:148] Top shape: 24 64 28 28 (1204224)
I0403 14:18:58.221612 29556 net.cpp:156] Memory required for data: 496141344
I0403 14:18:58.221632 29556 layer_factory.hpp:77] Creating layer inception_3a/relu_1x1
I0403 14:18:58.221654 29556 net.cpp:91] Creating Layer inception_3a/relu_1x1
I0403 14:18:58.221673 29556 net.cpp:425] inception_3a/relu_1x1 <- inception_3a/1x1
I0403 14:18:58.221694 29556 net.cpp:386] inception_3a/relu_1x1 -> inception_3a/1x1 (in-place)
I0403 14:18:58.221875 29556 net.cpp:141] Setting up inception_3a/relu_1x1
I0403 14:18:58.221904 29556 net.cpp:148] Top shape: 24 64 28 28 (1204224)
I0403 14:18:58.221922 29556 net.cpp:156] Memory required for data: 500958240
I0403 14:18:58.221938 29556 layer_factory.hpp:77] Creating layer inception_3a/3x3_reduce
I0403 14:18:58.221963 29556 net.cpp:91] Creating Layer inception_3a/3x3_reduce
I0403 14:18:58.221984 29556 net.cpp:425] inception_3a/3x3_reduce <- pool2/3x3_s2_pool2/3x3_s2_0_split_1
I0403 14:18:58.222004 29556 net.cpp:399] inception_3a/3x3_reduce -> inception_3a/3x3_reduce
I0403 14:18:58.223768 29556 net.cpp:141] Setting up inception_3a/3x3_reduce
I0403 14:18:58.223800 29556 net.cpp:148] Top shape: 24 96 28 28 (1806336)
I0403 14:18:58.223819 29556 net.cpp:156] Memory required for data: 508183584
I0403 14:18:58.223845 29556 layer_factory.hpp:77] Creating layer inception_3a/relu_3x3_reduce
I0403 14:18:58.223883 29556 net.cpp:91] Creating Layer inception_3a/relu_3x3_reduce
I0403 14:18:58.223902 29556 net.cpp:425] inception_3a/relu_3x3_reduce <- inception_3a/3x3_reduce
I0403 14:18:58.223923 29556 net.cpp:386] inception_3a/relu_3x3_reduce -> inception_3a/3x3_reduce (in-place)
I0403 14:18:58.224117 29556 net.cpp:141] Setting up inception_3a/relu_3x3_reduce
I0403 14:18:58.224144 29556 net.cpp:148] Top shape: 24 96 28 28 (1806336)
I0403 14:18:58.224160 29556 net.cpp:156] Memory required for data: 515408928
I0403 14:18:58.224176 29556 layer_factory.hpp:77] Creating layer inception_3a/3x3
I0403 14:18:58.224200 29556 net.cpp:91] Creating Layer inception_3a/3x3
I0403 14:18:58.224220 29556 net.cpp:425] inception_3a/3x3 <- inception_3a/3x3_reduce
I0403 14:18:58.224243 29556 net.cpp:399] inception_3a/3x3 -> inception_3a/3x3
I0403 14:18:58.225997 29556 net.cpp:141] Setting up inception_3a/3x3
I0403 14:18:58.226030 29556 net.cpp:148] Top shape: 24 128 28 28 (2408448)
I0403 14:18:58.226049 29556 net.cpp:156] Memory required for data: 525042720
I0403 14:18:58.226069 29556 layer_factory.hpp:77] Creating layer inception_3a/relu_3x3
I0403 14:18:58.226089 29556 net.cpp:91] Creating Layer inception_3a/relu_3x3
I0403 14:18:58.226105 29556 net.cpp:425] inception_3a/relu_3x3 <- inception_3a/3x3
I0403 14:18:58.226127 29556 net.cpp:386] inception_3a/relu_3x3 -> inception_3a/3x3 (in-place)
I0403 14:18:58.226423 29556 net.cpp:141] Setting up inception_3a/relu_3x3
I0403 14:18:58.226454 29556 net.cpp:148] Top shape: 24 128 28 28 (2408448)
I0403 14:18:58.226472 29556 net.cpp:156] Memory required for data: 534676512
I0403 14:18:58.226490 29556 layer_factory.hpp:77] Creating layer inception_3a/5x5_reduce
I0403 14:18:58.226512 29556 net.cpp:91] Creating Layer inception_3a/5x5_reduce
I0403 14:18:58.226531 29556 net.cpp:425] inception_3a/5x5_reduce <- pool2/3x3_s2_pool2/3x3_s2_0_split_2
I0403 14:18:58.226552 29556 net.cpp:399] inception_3a/5x5_reduce -> inception_3a/5x5_reduce
I0403 14:18:58.227560 29556 net.cpp:141] Setting up inception_3a/5x5_reduce
I0403 14:18:58.227592 29556 net.cpp:148] Top shape: 24 16 28 28 (301056)
I0403 14:18:58.227610 29556 net.cpp:156] Memory required for data: 535880736
I0403 14:18:58.227630 29556 layer_factory.hpp:77] Creating layer inception_3a/relu_5x5_reduce
I0403 14:18:58.227650 29556 net.cpp:91] Creating Layer inception_3a/relu_5x5_reduce
I0403 14:18:58.227668 29556 net.cpp:425] inception_3a/relu_5x5_reduce <- inception_3a/5x5_reduce
I0403 14:18:58.227689 29556 net.cpp:386] inception_3a/relu_5x5_reduce -> inception_3a/5x5_reduce (in-place)
I0403 14:18:58.227999 29556 net.cpp:141] Setting up inception_3a/relu_5x5_reduce
I0403 14:18:58.228029 29556 net.cpp:148] Top shape: 24 16 28 28 (301056)
I0403 14:18:58.228045 29556 net.cpp:156] Memory required for data: 537084960
I0403 14:18:58.228061 29556 layer_factory.hpp:77] Creating layer inception_3a/5x5
I0403 14:18:58.228085 29556 net.cpp:91] Creating Layer inception_3a/5x5
I0403 14:18:58.228104 29556 net.cpp:425] inception_3a/5x5 <- inception_3a/5x5_reduce
I0403 14:18:58.228127 29556 net.cpp:399] inception_3a/5x5 -> inception_3a/5x5
I0403 14:18:58.229194 29556 net.cpp:141] Setting up inception_3a/5x5
I0403 14:18:58.229225 29556 net.cpp:148] Top shape: 24 32 28 28 (602112)
I0403 14:18:58.229243 29556 net.cpp:156] Memory required for data: 539493408
I0403 14:18:58.229262 29556 layer_factory.hpp:77] Creating layer inception_3a/relu_5x5
I0403 14:18:58.229285 29556 net.cpp:91] Creating Layer inception_3a/relu_5x5
I0403 14:18:58.229302 29556 net.cpp:425] inception_3a/relu_5x5 <- inception_3a/5x5
I0403 14:18:58.229321 29556 net.cpp:386] inception_3a/relu_5x5 -> inception_3a/5x5 (in-place)
I0403 14:18:58.229511 29556 net.cpp:141] Setting up inception_3a/relu_5x5
I0403 14:18:58.229538 29556 net.cpp:148] Top shape: 24 32 28 28 (602112)
I0403 14:18:58.229554 29556 net.cpp:156] Memory required for data: 541901856
I0403 14:18:58.229570 29556 layer_factory.hpp:77] Creating layer inception_3a/pool
I0403 14:18:58.229590 29556 net.cpp:91] Creating Layer inception_3a/pool
I0403 14:18:58.229607 29556 net.cpp:425] inception_3a/pool <- pool2/3x3_s2_pool2/3x3_s2_0_split_3
I0403 14:18:58.229645 29556 net.cpp:399] inception_3a/pool -> inception_3a/pool
I0403 14:18:58.229707 29556 net.cpp:141] Setting up inception_3a/pool
I0403 14:18:58.229733 29556 net.cpp:148] Top shape: 24 192 28 28 (3612672)
I0403 14:18:58.229750 29556 net.cpp:156] Memory required for data: 556352544
I0403 14:18:58.229765 29556 layer_factory.hpp:77] Creating layer inception_3a/pool_proj
I0403 14:18:58.229794 29556 net.cpp:91] Creating Layer inception_3a/pool_proj
I0403 14:18:58.229814 29556 net.cpp:425] inception_3a/pool_proj <- inception_3a/pool
I0403 14:18:58.229835 29556 net.cpp:399] inception_3a/pool_proj -> inception_3a/pool_proj
I0403 14:18:58.230887 29556 net.cpp:141] Setting up inception_3a/pool_proj
I0403 14:18:58.230918 29556 net.cpp:148] Top shape: 24 32 28 28 (602112)
I0403 14:18:58.230936 29556 net.cpp:156] Memory required for data: 558760992
I0403 14:18:58.230960 29556 layer_factory.hpp:77] Creating layer inception_3a/relu_pool_proj
I0403 14:18:58.230981 29556 net.cpp:91] Creating Layer inception_3a/relu_pool_proj
I0403 14:18:58.230999 29556 net.cpp:425] inception_3a/relu_pool_proj <- inception_3a/pool_proj
I0403 14:18:58.231021 29556 net.cpp:386] inception_3a/relu_pool_proj -> inception_3a/pool_proj (in-place)
I0403 14:18:58.231312 29556 net.cpp:141] Setting up inception_3a/relu_pool_proj
I0403 14:18:58.231344 29556 net.cpp:148] Top shape: 24 32 28 28 (602112)
I0403 14:18:58.231367 29556 net.cpp:156] Memory required for data: 561169440
I0403 14:18:58.231384 29556 layer_factory.hpp:77] Creating layer inception_3a/output
I0403 14:18:58.231405 29556 net.cpp:91] Creating Layer inception_3a/output
I0403 14:18:58.231421 29556 net.cpp:425] inception_3a/output <- inception_3a/1x1
I0403 14:18:58.231441 29556 net.cpp:425] inception_3a/output <- inception_3a/3x3
I0403 14:18:58.231457 29556 net.cpp:425] inception_3a/output <- inception_3a/5x5
I0403 14:18:58.231475 29556 net.cpp:425] inception_3a/output <- inception_3a/pool_proj
I0403 14:18:58.231493 29556 net.cpp:399] inception_3a/output -> inception_3a/output
I0403 14:18:58.231544 29556 net.cpp:141] Setting up inception_3a/output
I0403 14:18:58.231570 29556 net.cpp:148] Top shape: 24 256 28 28 (4816896)
I0403 14:18:58.231586 29556 net.cpp:156] Memory required for data: 580437024
I0403 14:18:58.231603 29556 layer_factory.hpp:77] Creating layer inception_3a/output_inception_3a/output_0_split
I0403 14:18:58.231621 29556 net.cpp:91] Creating Layer inception_3a/output_inception_3a/output_0_split
I0403 14:18:58.231638 29556 net.cpp:425] inception_3a/output_inception_3a/output_0_split <- inception_3a/output
I0403 14:18:58.231660 29556 net.cpp:399] inception_3a/output_inception_3a/output_0_split -> inception_3a/output_inception_3a/output_0_split_0
I0403 14:18:58.231683 29556 net.cpp:399] inception_3a/output_inception_3a/output_0_split -> inception_3a/output_inception_3a/output_0_split_1
I0403 14:18:58.231710 29556 net.cpp:399] inception_3a/output_inception_3a/output_0_split -> inception_3a/output_inception_3a/output_0_split_2
I0403 14:18:58.231741 29556 net.cpp:399] inception_3a/output_inception_3a/output_0_split -> inception_3a/output_inception_3a/output_0_split_3
I0403 14:18:58.231820 29556 net.cpp:141] Setting up inception_3a/output_inception_3a/output_0_split
I0403 14:18:58.231847 29556 net.cpp:148] Top shape: 24 256 28 28 (4816896)
I0403 14:18:58.231868 29556 net.cpp:148] Top shape: 24 256 28 28 (4816896)
I0403 14:18:58.231886 29556 net.cpp:148] Top shape: 24 256 28 28 (4816896)
I0403 14:18:58.231904 29556 net.cpp:148] Top shape: 24 256 28 28 (4816896)
I0403 14:18:58.231920 29556 net.cpp:156] Memory required for data: 657507360
I0403 14:18:58.231935 29556 layer_factory.hpp:77] Creating layer inception_3b/1x1
I0403 14:18:58.231957 29556 net.cpp:91] Creating Layer inception_3b/1x1
I0403 14:18:58.231976 29556 net.cpp:425] inception_3b/1x1 <- inception_3a/output_inception_3a/output_0_split_0
I0403 14:18:58.231998 29556 net.cpp:399] inception_3b/1x1 -> inception_3b/1x1
I0403 14:18:58.233201 29556 net.cpp:141] Setting up inception_3b/1x1
I0403 14:18:58.233244 29556 net.cpp:148] Top shape: 24 128 28 28 (2408448)
I0403 14:18:58.233263 29556 net.cpp:156] Memory required for data: 667141152
I0403 14:18:58.233284 29556 layer_factory.hpp:77] Creating layer inception_3b/relu_1x1
I0403 14:18:58.233309 29556 net.cpp:91] Creating Layer inception_3b/relu_1x1
I0403 14:18:58.233326 29556 net.cpp:425] inception_3b/relu_1x1 <- inception_3b/1x1
I0403 14:18:58.233355 29556 net.cpp:386] inception_3b/relu_1x1 -> inception_3b/1x1 (in-place)
I0403 14:18:58.233549 29556 net.cpp:141] Setting up inception_3b/relu_1x1
I0403 14:18:58.233580 29556 net.cpp:148] Top shape: 24 128 28 28 (2408448)
I0403 14:18:58.233597 29556 net.cpp:156] Memory required for data: 676774944
I0403 14:18:58.233614 29556 layer_factory.hpp:77] Creating layer inception_3b/3x3_reduce
I0403 14:18:58.233640 29556 net.cpp:91] Creating Layer inception_3b/3x3_reduce
I0403 14:18:58.233660 29556 net.cpp:425] inception_3b/3x3_reduce <- inception_3a/output_inception_3a/output_0_split_1
I0403 14:18:58.233681 29556 net.cpp:399] inception_3b/3x3_reduce -> inception_3b/3x3_reduce
I0403 14:18:58.234875 29556 net.cpp:141] Setting up inception_3b/3x3_reduce
I0403 14:18:58.234905 29556 net.cpp:148] Top shape: 24 128 28 28 (2408448)
I0403 14:18:58.234922 29556 net.cpp:156] Memory required for data: 686408736
I0403 14:18:58.234942 29556 layer_factory.hpp:77] Creating layer inception_3b/relu_3x3_reduce
I0403 14:18:58.234966 29556 net.cpp:91] Creating Layer inception_3b/relu_3x3_reduce
I0403 14:18:58.234984 29556 net.cpp:425] inception_3b/relu_3x3_reduce <- inception_3b/3x3_reduce
I0403 14:18:58.235004 29556 net.cpp:386] inception_3b/relu_3x3_reduce -> inception_3b/3x3_reduce (in-place)
I0403 14:18:58.235188 29556 net.cpp:141] Setting up inception_3b/relu_3x3_reduce
I0403 14:18:58.235218 29556 net.cpp:148] Top shape: 24 128 28 28 (2408448)
I0403 14:18:58.235234 29556 net.cpp:156] Memory required for data: 696042528
I0403 14:18:58.235250 29556 layer_factory.hpp:77] Creating layer inception_3b/3x3
I0403 14:18:58.235277 29556 net.cpp:91] Creating Layer inception_3b/3x3
I0403 14:18:58.235298 29556 net.cpp:425] inception_3b/3x3 <- inception_3b/3x3_reduce
I0403 14:18:58.235321 29556 net.cpp:399] inception_3b/3x3 -> inception_3b/3x3
I0403 14:18:58.238381 29556 net.cpp:141] Setting up inception_3b/3x3
I0403 14:18:58.238415 29556 net.cpp:148] Top shape: 24 192 28 28 (3612672)
I0403 14:18:58.238432 29556 net.cpp:156] Memory required for data: 710493216
I0403 14:18:58.238462 29556 layer_factory.hpp:77] Creating layer inception_3b/relu_3x3
I0403 14:18:58.238482 29556 net.cpp:91] Creating Layer inception_3b/relu_3x3
I0403 14:18:58.238500 29556 net.cpp:425] inception_3b/relu_3x3 <- inception_3b/3x3
I0403 14:18:58.238520 29556 net.cpp:386] inception_3b/relu_3x3 -> inception_3b/3x3 (in-place)
I0403 14:18:58.238811 29556 net.cpp:141] Setting up inception_3b/relu_3x3
I0403 14:18:58.238843 29556 net.cpp:148] Top shape: 24 192 28 28 (3612672)
I0403 14:18:58.238862 29556 net.cpp:156] Memory required for data: 724943904
I0403 14:18:58.238878 29556 layer_factory.hpp:77] Creating layer inception_3b/5x5_reduce
I0403 14:18:58.238903 29556 net.cpp:91] Creating Layer inception_3b/5x5_reduce
I0403 14:18:58.238922 29556 net.cpp:425] inception_3b/5x5_reduce <- inception_3a/output_inception_3a/output_0_split_2
I0403 14:18:58.238942 29556 net.cpp:399] inception_3b/5x5_reduce -> inception_3b/5x5_reduce
I0403 14:18:58.239982 29556 net.cpp:141] Setting up inception_3b/5x5_reduce
I0403 14:18:58.240013 29556 net.cpp:148] Top shape: 24 32 28 28 (602112)
I0403 14:18:58.240031 29556 net.cpp:156] Memory required for data: 727352352
I0403 14:18:58.240049 29556 layer_factory.hpp:77] Creating layer inception_3b/relu_5x5_reduce
I0403 14:18:58.240072 29556 net.cpp:91] Creating Layer inception_3b/relu_5x5_reduce
I0403 14:18:58.240090 29556 net.cpp:425] inception_3b/relu_5x5_reduce <- inception_3b/5x5_reduce
I0403 14:18:58.240109 29556 net.cpp:386] inception_3b/relu_5x5_reduce -> inception_3b/5x5_reduce (in-place)
I0403 14:18:58.240293 29556 net.cpp:141] Setting up inception_3b/relu_5x5_reduce
I0403 14:18:58.240334 29556 net.cpp:148] Top shape: 24 32 28 28 (602112)
I0403 14:18:58.240358 29556 net.cpp:156] Memory required for data: 729760800
I0403 14:18:58.240375 29556 layer_factory.hpp:77] Creating layer inception_3b/5x5
I0403 14:18:58.240398 29556 net.cpp:91] Creating Layer inception_3b/5x5
I0403 14:18:58.240419 29556 net.cpp:425] inception_3b/5x5 <- inception_3b/5x5_reduce
I0403 14:18:58.240443 29556 net.cpp:399] inception_3b/5x5 -> inception_3b/5x5
I0403 14:18:58.242511 29556 net.cpp:141] Setting up inception_3b/5x5
I0403 14:18:58.242543 29556 net.cpp:148] Top shape: 24 96 28 28 (1806336)
I0403 14:18:58.242560 29556 net.cpp:156] Memory required for data: 736986144
I0403 14:18:58.242580 29556 layer_factory.hpp:77] Creating layer inception_3b/relu_5x5
I0403 14:18:58.242602 29556 net.cpp:91] Creating Layer inception_3b/relu_5x5
I0403 14:18:58.242621 29556 net.cpp:425] inception_3b/relu_5x5 <- inception_3b/5x5
I0403 14:18:58.242640 29556 net.cpp:386] inception_3b/relu_5x5 -> inception_3b/5x5 (in-place)
I0403 14:18:58.242842 29556 net.cpp:141] Setting up inception_3b/relu_5x5
I0403 14:18:58.242871 29556 net.cpp:148] Top shape: 24 96 28 28 (1806336)
I0403 14:18:58.242887 29556 net.cpp:156] Memory required for data: 744211488
I0403 14:18:58.242902 29556 layer_factory.hpp:77] Creating layer inception_3b/pool
I0403 14:18:58.242923 29556 net.cpp:91] Creating Layer inception_3b/pool
I0403 14:18:58.242940 29556 net.cpp:425] inception_3b/pool <- inception_3a/output_inception_3a/output_0_split_3
I0403 14:18:58.242960 29556 net.cpp:399] inception_3b/pool -> inception_3b/pool
I0403 14:18:58.243019 29556 net.cpp:141] Setting up inception_3b/pool
I0403 14:18:58.243046 29556 net.cpp:148] Top shape: 24 256 28 28 (4816896)
I0403 14:18:58.243062 29556 net.cpp:156] Memory required for data: 763479072
I0403 14:18:58.243077 29556 layer_factory.hpp:77] Creating layer inception_3b/pool_proj
I0403 14:18:58.243100 29556 net.cpp:91] Creating Layer inception_3b/pool_proj
I0403 14:18:58.243120 29556 net.cpp:425] inception_3b/pool_proj <- inception_3b/pool
I0403 14:18:58.243144 29556 net.cpp:399] inception_3b/pool_proj -> inception_3b/pool_proj
I0403 14:18:58.244271 29556 net.cpp:141] Setting up inception_3b/pool_proj
I0403 14:18:58.244302 29556 net.cpp:148] Top shape: 24 64 28 28 (1204224)
I0403 14:18:58.244318 29556 net.cpp:156] Memory required for data: 768295968
I0403 14:18:58.244339 29556 layer_factory.hpp:77] Creating layer inception_3b/relu_pool_proj
I0403 14:18:58.244364 29556 net.cpp:91] Creating Layer inception_3b/relu_pool_proj
I0403 14:18:58.244384 29556 net.cpp:425] inception_3b/relu_pool_proj <- inception_3b/pool_proj
I0403 14:18:58.244405 29556 net.cpp:386] inception_3b/relu_pool_proj -> inception_3b/pool_proj (in-place)
I0403 14:18:58.244819 29556 net.cpp:141] Setting up inception_3b/relu_pool_proj
I0403 14:18:58.244853 29556 net.cpp:148] Top shape: 24 64 28 28 (1204224)
I0403 14:18:58.244873 29556 net.cpp:156] Memory required for data: 773112864
I0403 14:18:58.244889 29556 layer_factory.hpp:77] Creating layer inception_3b/output
I0403 14:18:58.244907 29556 net.cpp:91] Creating Layer inception_3b/output
I0403 14:18:58.244925 29556 net.cpp:425] inception_3b/output <- inception_3b/1x1
I0403 14:18:58.244942 29556 net.cpp:425] inception_3b/output <- inception_3b/3x3
I0403 14:18:58.244961 29556 net.cpp:425] inception_3b/output <- inception_3b/5x5
I0403 14:18:58.244978 29556 net.cpp:425] inception_3b/output <- inception_3b/pool_proj
I0403 14:18:58.244999 29556 net.cpp:399] inception_3b/output -> inception_3b/output
I0403 14:18:58.245046 29556 net.cpp:141] Setting up inception_3b/output
I0403 14:18:58.245071 29556 net.cpp:148] Top shape: 24 480 28 28 (9031680)
I0403 14:18:58.245087 29556 net.cpp:156] Memory required for data: 809239584
I0403 14:18:58.245105 29556 layer_factory.hpp:77] Creating layer pool3/3x3_s2
I0403 14:18:58.245126 29556 net.cpp:91] Creating Layer pool3/3x3_s2
I0403 14:18:58.245142 29556 net.cpp:425] pool3/3x3_s2 <- inception_3b/output
I0403 14:18:58.245160 29556 net.cpp:399] pool3/3x3_s2 -> pool3/3x3_s2
I0403 14:18:58.245239 29556 net.cpp:141] Setting up pool3/3x3_s2
I0403 14:18:58.245267 29556 net.cpp:148] Top shape: 24 480 14 14 (2257920)
I0403 14:18:58.245283 29556 net.cpp:156] Memory required for data: 818271264
I0403 14:18:58.245301 29556 layer_factory.hpp:77] Creating layer pool3/3x3_s2_pool3/3x3_s2_0_split
I0403 14:18:58.245318 29556 net.cpp:91] Creating Layer pool3/3x3_s2_pool3/3x3_s2_0_split
I0403 14:18:58.245335 29556 net.cpp:425] pool3/3x3_s2_pool3/3x3_s2_0_split <- pool3/3x3_s2
I0403 14:18:58.245362 29556 net.cpp:399] pool3/3x3_s2_pool3/3x3_s2_0_split -> pool3/3x3_s2_pool3/3x3_s2_0_split_0
I0403 14:18:58.245384 29556 net.cpp:399] pool3/3x3_s2_pool3/3x3_s2_0_split -> pool3/3x3_s2_pool3/3x3_s2_0_split_1
I0403 14:18:58.245406 29556 net.cpp:399] pool3/3x3_s2_pool3/3x3_s2_0_split -> pool3/3x3_s2_pool3/3x3_s2_0_split_2
I0403 14:18:58.245429 29556 net.cpp:399] pool3/3x3_s2_pool3/3x3_s2_0_split -> pool3/3x3_s2_pool3/3x3_s2_0_split_3
I0403 14:18:58.245512 29556 net.cpp:141] Setting up pool3/3x3_s2_pool3/3x3_s2_0_split
I0403 14:18:58.245537 29556 net.cpp:148] Top shape: 24 480 14 14 (2257920)
I0403 14:18:58.245553 29556 net.cpp:148] Top shape: 24 480 14 14 (2257920)
I0403 14:18:58.245570 29556 net.cpp:148] Top shape: 24 480 14 14 (2257920)
I0403 14:18:58.245587 29556 net.cpp:148] Top shape: 24 480 14 14 (2257920)
I0403 14:18:58.245602 29556 net.cpp:156] Memory required for data: 854397984
I0403 14:18:58.245618 29556 layer_factory.hpp:77] Creating layer inception_4a/1x1
I0403 14:18:58.245643 29556 net.cpp:91] Creating Layer inception_4a/1x1
I0403 14:18:58.245662 29556 net.cpp:425] inception_4a/1x1 <- pool3/3x3_s2_pool3/3x3_s2_0_split_0
I0403 14:18:58.245685 29556 net.cpp:399] inception_4a/1x1 -> inception_4a/1x1
I0403 14:18:58.247342 29556 net.cpp:141] Setting up inception_4a/1x1
I0403 14:18:58.247377 29556 net.cpp:148] Top shape: 24 192 14 14 (903168)
I0403 14:18:58.247395 29556 net.cpp:156] Memory required for data: 858010656
I0403 14:18:58.247414 29556 layer_factory.hpp:77] Creating layer inception_4a/relu_1x1
I0403 14:18:58.247434 29556 net.cpp:91] Creating Layer inception_4a/relu_1x1
I0403 14:18:58.247452 29556 net.cpp:425] inception_4a/relu_1x1 <- inception_4a/1x1
I0403 14:18:58.247473 29556 net.cpp:386] inception_4a/relu_1x1 -> inception_4a/1x1 (in-place)
I0403 14:18:58.247660 29556 net.cpp:141] Setting up inception_4a/relu_1x1
I0403 14:18:58.247689 29556 net.cpp:148] Top shape: 24 192 14 14 (903168)
I0403 14:18:58.247705 29556 net.cpp:156] Memory required for data: 861623328
I0403 14:18:58.247721 29556 layer_factory.hpp:77] Creating layer inception_4a/3x3_reduce
I0403 14:18:58.247745 29556 net.cpp:91] Creating Layer inception_4a/3x3_reduce
I0403 14:18:58.247764 29556 net.cpp:425] inception_4a/3x3_reduce <- pool3/3x3_s2_pool3/3x3_s2_0_split_1
I0403 14:18:58.247787 29556 net.cpp:399] inception_4a/3x3_reduce -> inception_4a/3x3_reduce
I0403 14:18:58.249141 29556 net.cpp:141] Setting up inception_4a/3x3_reduce
I0403 14:18:58.249171 29556 net.cpp:148] Top shape: 24 96 14 14 (451584)
I0403 14:18:58.249189 29556 net.cpp:156] Memory required for data: 863429664
I0403 14:18:58.249217 29556 layer_factory.hpp:77] Creating layer inception_4a/relu_3x3_reduce
I0403 14:18:58.249238 29556 net.cpp:91] Creating Layer inception_4a/relu_3x3_reduce
I0403 14:18:58.249258 29556 net.cpp:425] inception_4a/relu_3x3_reduce <- inception_4a/3x3_reduce
I0403 14:18:58.249279 29556 net.cpp:386] inception_4a/relu_3x3_reduce -> inception_4a/3x3_reduce (in-place)
I0403 14:18:58.249474 29556 net.cpp:141] Setting up inception_4a/relu_3x3_reduce
I0403 14:18:58.249501 29556 net.cpp:148] Top shape: 24 96 14 14 (451584)
I0403 14:18:58.249517 29556 net.cpp:156] Memory required for data: 865236000
I0403 14:18:58.249533 29556 layer_factory.hpp:77] Creating layer inception_4a/3x3
I0403 14:18:58.249558 29556 net.cpp:91] Creating Layer inception_4a/3x3
I0403 14:18:58.249577 29556 net.cpp:425] inception_4a/3x3 <- inception_4a/3x3_reduce
I0403 14:18:58.249601 29556 net.cpp:399] inception_4a/3x3 -> inception_4a/3x3
I0403 14:18:58.252418 29556 net.cpp:141] Setting up inception_4a/3x3
I0403 14:18:58.252450 29556 net.cpp:148] Top shape: 24 208 14 14 (978432)
I0403 14:18:58.252467 29556 net.cpp:156] Memory required for data: 869149728
I0403 14:18:58.252487 29556 layer_factory.hpp:77] Creating layer inception_4a/relu_3x3
I0403 14:18:58.252509 29556 net.cpp:91] Creating Layer inception_4a/relu_3x3
I0403 14:18:58.252528 29556 net.cpp:425] inception_4a/relu_3x3 <- inception_4a/3x3
I0403 14:18:58.252549 29556 net.cpp:386] inception_4a/relu_3x3 -> inception_4a/3x3 (in-place)
I0403 14:18:58.252840 29556 net.cpp:141] Setting up inception_4a/relu_3x3
I0403 14:18:58.252868 29556 net.cpp:148] Top shape: 24 208 14 14 (978432)
I0403 14:18:58.252885 29556 net.cpp:156] Memory required for data: 873063456
I0403 14:18:58.252902 29556 layer_factory.hpp:77] Creating layer inception_4a/5x5_reduce
I0403 14:18:58.252925 29556 net.cpp:91] Creating Layer inception_4a/5x5_reduce
I0403 14:18:58.252945 29556 net.cpp:425] inception_4a/5x5_reduce <- pool3/3x3_s2_pool3/3x3_s2_0_split_2
I0403 14:18:58.252971 29556 net.cpp:399] inception_4a/5x5_reduce -> inception_4a/5x5_reduce
I0403 14:18:58.254058 29556 net.cpp:141] Setting up inception_4a/5x5_reduce
I0403 14:18:58.254089 29556 net.cpp:148] Top shape: 24 16 14 14 (75264)
I0403 14:18:58.254107 29556 net.cpp:156] Memory required for data: 873364512
I0403 14:18:58.254127 29556 layer_factory.hpp:77] Creating layer inception_4a/relu_5x5_reduce
I0403 14:18:58.254149 29556 net.cpp:91] Creating Layer inception_4a/relu_5x5_reduce
I0403 14:18:58.254168 29556 net.cpp:425] inception_4a/relu_5x5_reduce <- inception_4a/5x5_reduce
I0403 14:18:58.254189 29556 net.cpp:386] inception_4a/relu_5x5_reduce -> inception_4a/5x5_reduce (in-place)
I0403 14:18:58.254381 29556 net.cpp:141] Setting up inception_4a/relu_5x5_reduce
I0403 14:18:58.254410 29556 net.cpp:148] Top shape: 24 16 14 14 (75264)
I0403 14:18:58.254426 29556 net.cpp:156] Memory required for data: 873665568
I0403 14:18:58.254441 29556 layer_factory.hpp:77] Creating layer inception_4a/5x5
I0403 14:18:58.254467 29556 net.cpp:91] Creating Layer inception_4a/5x5
I0403 14:18:58.254485 29556 net.cpp:425] inception_4a/5x5 <- inception_4a/5x5_reduce
I0403 14:18:58.254509 29556 net.cpp:399] inception_4a/5x5 -> inception_4a/5x5
I0403 14:18:58.255650 29556 net.cpp:141] Setting up inception_4a/5x5
I0403 14:18:58.255681 29556 net.cpp:148] Top shape: 24 48 14 14 (225792)
I0403 14:18:58.255699 29556 net.cpp:156] Memory required for data: 874568736
I0403 14:18:58.255719 29556 layer_factory.hpp:77] Creating layer inception_4a/relu_5x5
I0403 14:18:58.255739 29556 net.cpp:91] Creating Layer inception_4a/relu_5x5
I0403 14:18:58.255756 29556 net.cpp:425] inception_4a/relu_5x5 <- inception_4a/5x5
I0403 14:18:58.255779 29556 net.cpp:386] inception_4a/relu_5x5 -> inception_4a/5x5 (in-place)
I0403 14:18:58.255967 29556 net.cpp:141] Setting up inception_4a/relu_5x5
I0403 14:18:58.256005 29556 net.cpp:148] Top shape: 24 48 14 14 (225792)
I0403 14:18:58.256021 29556 net.cpp:156] Memory required for data: 875471904
I0403 14:18:58.256036 29556 layer_factory.hpp:77] Creating layer inception_4a/pool
I0403 14:18:58.256057 29556 net.cpp:91] Creating Layer inception_4a/pool
I0403 14:18:58.256074 29556 net.cpp:425] inception_4a/pool <- pool3/3x3_s2_pool3/3x3_s2_0_split_3
I0403 14:18:58.256096 29556 net.cpp:399] inception_4a/pool -> inception_4a/pool
I0403 14:18:58.256162 29556 net.cpp:141] Setting up inception_4a/pool
I0403 14:18:58.256189 29556 net.cpp:148] Top shape: 24 480 14 14 (2257920)
I0403 14:18:58.256206 29556 net.cpp:156] Memory required for data: 884503584
I0403 14:18:58.256222 29556 layer_factory.hpp:77] Creating layer inception_4a/pool_proj
I0403 14:18:58.256245 29556 net.cpp:91] Creating Layer inception_4a/pool_proj
I0403 14:18:58.256266 29556 net.cpp:425] inception_4a/pool_proj <- inception_4a/pool
I0403 14:18:58.256299 29556 net.cpp:399] inception_4a/pool_proj -> inception_4a/pool_proj
I0403 14:18:58.257529 29556 net.cpp:141] Setting up inception_4a/pool_proj
I0403 14:18:58.257560 29556 net.cpp:148] Top shape: 24 64 14 14 (301056)
I0403 14:18:58.257596 29556 net.cpp:156] Memory required for data: 885707808
I0403 14:18:58.257616 29556 layer_factory.hpp:77] Creating layer inception_4a/relu_pool_proj
I0403 14:18:58.257640 29556 net.cpp:91] Creating Layer inception_4a/relu_pool_proj
I0403 14:18:58.257660 29556 net.cpp:425] inception_4a/relu_pool_proj <- inception_4a/pool_proj
I0403 14:18:58.257680 29556 net.cpp:386] inception_4a/relu_pool_proj -> inception_4a/pool_proj (in-place)
I0403 14:18:58.257977 29556 net.cpp:141] Setting up inception_4a/relu_pool_proj
I0403 14:18:58.258007 29556 net.cpp:148] Top shape: 24 64 14 14 (301056)
I0403 14:18:58.258023 29556 net.cpp:156] Memory required for data: 886912032
I0403 14:18:58.258039 29556 layer_factory.hpp:77] Creating layer inception_4a/output
I0403 14:18:58.258059 29556 net.cpp:91] Creating Layer inception_4a/output
I0403 14:18:58.258076 29556 net.cpp:425] inception_4a/output <- inception_4a/1x1
I0403 14:18:58.258095 29556 net.cpp:425] inception_4a/output <- inception_4a/3x3
I0403 14:18:58.258113 29556 net.cpp:425] inception_4a/output <- inception_4a/5x5
I0403 14:18:58.258131 29556 net.cpp:425] inception_4a/output <- inception_4a/pool_proj
I0403 14:18:58.258152 29556 net.cpp:399] inception_4a/output -> inception_4a/output
I0403 14:18:58.258199 29556 net.cpp:141] Setting up inception_4a/output
I0403 14:18:58.258227 29556 net.cpp:148] Top shape: 24 512 14 14 (2408448)
I0403 14:18:58.258245 29556 net.cpp:156] Memory required for data: 896545824
I0403 14:18:58.258265 29556 layer_factory.hpp:77] Creating layer inception_4a/output_inception_4a/output_0_split
I0403 14:18:58.258283 29556 net.cpp:91] Creating Layer inception_4a/output_inception_4a/output_0_split
I0403 14:18:58.258301 29556 net.cpp:425] inception_4a/output_inception_4a/output_0_split <- inception_4a/output
I0403 14:18:58.258322 29556 net.cpp:399] inception_4a/output_inception_4a/output_0_split -> inception_4a/output_inception_4a/output_0_split_0
I0403 14:18:58.258349 29556 net.cpp:399] inception_4a/output_inception_4a/output_0_split -> inception_4a/output_inception_4a/output_0_split_1
I0403 14:18:58.258375 29556 net.cpp:399] inception_4a/output_inception_4a/output_0_split -> inception_4a/output_inception_4a/output_0_split_2
I0403 14:18:58.258399 29556 net.cpp:399] inception_4a/output_inception_4a/output_0_split -> inception_4a/output_inception_4a/output_0_split_3
I0403 14:18:58.258420 29556 net.cpp:399] inception_4a/output_inception_4a/output_0_split -> inception_4a/output_inception_4a/output_0_split_4
I0403 14:18:58.258517 29556 net.cpp:141] Setting up inception_4a/output_inception_4a/output_0_split
I0403 14:18:58.258543 29556 net.cpp:148] Top shape: 24 512 14 14 (2408448)
I0403 14:18:58.258561 29556 net.cpp:148] Top shape: 24 512 14 14 (2408448)
I0403 14:18:58.258579 29556 net.cpp:148] Top shape: 24 512 14 14 (2408448)
I0403 14:18:58.258596 29556 net.cpp:148] Top shape: 24 512 14 14 (2408448)
I0403 14:18:58.258613 29556 net.cpp:148] Top shape: 24 512 14 14 (2408448)
I0403 14:18:58.258628 29556 net.cpp:156] Memory required for data: 944714784
I0403 14:18:58.258643 29556 layer_factory.hpp:77] Creating layer loss1/ave_pool
I0403 14:18:58.258666 29556 net.cpp:91] Creating Layer loss1/ave_pool
I0403 14:18:58.258685 29556 net.cpp:425] loss1/ave_pool <- inception_4a/output_inception_4a/output_0_split_0
I0403 14:18:58.258705 29556 net.cpp:399] loss1/ave_pool -> loss1/ave_pool
I0403 14:18:58.258929 29556 net.cpp:141] Setting up loss1/ave_pool
I0403 14:18:58.258957 29556 net.cpp:148] Top shape: 24 512 4 4 (196608)
I0403 14:18:58.258975 29556 net.cpp:156] Memory required for data: 945501216
I0403 14:18:58.258991 29556 layer_factory.hpp:77] Creating layer loss1/conv
I0403 14:18:58.259016 29556 net.cpp:91] Creating Layer loss1/conv
I0403 14:18:58.259035 29556 net.cpp:425] loss1/conv <- loss1/ave_pool
I0403 14:18:58.259058 29556 net.cpp:399] loss1/conv -> loss1/conv
I0403 14:18:58.260550 29556 net.cpp:141] Setting up loss1/conv
I0403 14:18:58.260581 29556 net.cpp:148] Top shape: 24 128 4 4 (49152)
I0403 14:18:58.260598 29556 net.cpp:156] Memory required for data: 945697824
I0403 14:18:58.260633 29556 layer_factory.hpp:77] Creating layer loss1/relu_conv
I0403 14:18:58.260658 29556 net.cpp:91] Creating Layer loss1/relu_conv
I0403 14:18:58.260676 29556 net.cpp:425] loss1/relu_conv <- loss1/conv
I0403 14:18:58.260695 29556 net.cpp:386] loss1/relu_conv -> loss1/conv (in-place)
I0403 14:18:58.260995 29556 net.cpp:141] Setting up loss1/relu_conv
I0403 14:18:58.261023 29556 net.cpp:148] Top shape: 24 128 4 4 (49152)
I0403 14:18:58.261040 29556 net.cpp:156] Memory required for data: 945894432
I0403 14:18:58.261057 29556 layer_factory.hpp:77] Creating layer loss1/fc
I0403 14:18:58.261085 29556 net.cpp:91] Creating Layer loss1/fc
I0403 14:18:58.261104 29556 net.cpp:425] loss1/fc <- loss1/conv
I0403 14:18:58.261127 29556 net.cpp:399] loss1/fc -> loss1/fc
I0403 14:18:58.279731 29556 net.cpp:141] Setting up loss1/fc
I0403 14:18:58.279768 29556 net.cpp:148] Top shape: 24 1024 (24576)
I0403 14:18:58.279785 29556 net.cpp:156] Memory required for data: 945992736
I0403 14:18:58.279806 29556 layer_factory.hpp:77] Creating layer loss1/relu_fc
I0403 14:18:58.279829 29556 net.cpp:91] Creating Layer loss1/relu_fc
I0403 14:18:58.279845 29556 net.cpp:425] loss1/relu_fc <- loss1/fc
I0403 14:18:58.279867 29556 net.cpp:386] loss1/relu_fc -> loss1/fc (in-place)
I0403 14:18:58.280083 29556 net.cpp:141] Setting up loss1/relu_fc
I0403 14:18:58.280109 29556 net.cpp:148] Top shape: 24 1024 (24576)
I0403 14:18:58.280125 29556 net.cpp:156] Memory required for data: 946091040
I0403 14:18:58.280141 29556 layer_factory.hpp:77] Creating layer loss1/drop_fc
I0403 14:18:58.280170 29556 net.cpp:91] Creating Layer loss1/drop_fc
I0403 14:18:58.280187 29556 net.cpp:425] loss1/drop_fc <- loss1/fc
I0403 14:18:58.280206 29556 net.cpp:386] loss1/drop_fc -> loss1/fc (in-place)
I0403 14:18:58.280258 29556 net.cpp:141] Setting up loss1/drop_fc
I0403 14:18:58.280282 29556 net.cpp:148] Top shape: 24 1024 (24576)
I0403 14:18:58.280297 29556 net.cpp:156] Memory required for data: 946189344
I0403 14:18:58.280313 29556 layer_factory.hpp:77] Creating layer loss1/classifier_plantvillage
I0403 14:18:58.280333 29556 net.cpp:91] Creating Layer loss1/classifier_plantvillage
I0403 14:18:58.280354 29556 net.cpp:425] loss1/classifier_plantvillage <- loss1/fc
I0403 14:18:58.280377 29556 net.cpp:399] loss1/classifier_plantvillage -> loss1/classifier_plantvillage
I0403 14:18:58.281301 29556 net.cpp:141] Setting up loss1/classifier_plantvillage
I0403 14:18:58.281329 29556 net.cpp:148] Top shape: 24 38 (912)
I0403 14:18:58.281345 29556 net.cpp:156] Memory required for data: 946192992
I0403 14:18:58.281368 29556 layer_factory.hpp:77] Creating layer loss1/classifier_plantvillage_loss1/classifier_plantvillage_0_split
I0403 14:18:58.281390 29556 net.cpp:91] Creating Layer loss1/classifier_plantvillage_loss1/classifier_plantvillage_0_split
I0403 14:18:58.281409 29556 net.cpp:425] loss1/classifier_plantvillage_loss1/classifier_plantvillage_0_split <- loss1/classifier_plantvillage
I0403 14:18:58.281427 29556 net.cpp:399] loss1/classifier_plantvillage_loss1/classifier_plantvillage_0_split -> loss1/classifier_plantvillage_loss1/classifier_plantvillage_0_split_0
I0403 14:18:58.281461 29556 net.cpp:399] loss1/classifier_plantvillage_loss1/classifier_plantvillage_0_split -> loss1/classifier_plantvillage_loss1/classifier_plantvillage_0_split_1
I0403 14:18:58.281486 29556 net.cpp:399] loss1/classifier_plantvillage_loss1/classifier_plantvillage_0_split -> loss1/classifier_plantvillage_loss1/classifier_plantvillage_0_split_2
I0403 14:18:58.281556 29556 net.cpp:141] Setting up loss1/classifier_plantvillage_loss1/classifier_plantvillage_0_split
I0403 14:18:58.281582 29556 net.cpp:148] Top shape: 24 38 (912)
I0403 14:18:58.281599 29556 net.cpp:148] Top shape: 24 38 (912)
I0403 14:18:58.281615 29556 net.cpp:148] Top shape: 24 38 (912)
I0403 14:18:58.281630 29556 net.cpp:156] Memory required for data: 946203936
I0403 14:18:58.281646 29556 layer_factory.hpp:77] Creating layer inception_4b/1x1
I0403 14:18:58.281671 29556 net.cpp:91] Creating Layer inception_4b/1x1
I0403 14:18:58.281713 29556 net.cpp:425] inception_4b/1x1 <- inception_4a/output_inception_4a/output_0_split_1
I0403 14:18:58.281735 29556 net.cpp:399] inception_4b/1x1 -> inception_4b/1x1
I0403 14:18:58.283440 29556 net.cpp:141] Setting up inception_4b/1x1
I0403 14:18:58.283471 29556 net.cpp:148] Top shape: 24 160 14 14 (752640)
I0403 14:18:58.283488 29556 net.cpp:156] Memory required for data: 949214496
I0403 14:18:58.283507 29556 layer_factory.hpp:77] Creating layer inception_4b/relu_1x1
I0403 14:18:58.283529 29556 net.cpp:91] Creating Layer inception_4b/relu_1x1
I0403 14:18:58.283547 29556 net.cpp:425] inception_4b/relu_1x1 <- inception_4b/1x1
I0403 14:18:58.283565 29556 net.cpp:386] inception_4b/relu_1x1 -> inception_4b/1x1 (in-place)
I0403 14:18:58.283759 29556 net.cpp:141] Setting up inception_4b/relu_1x1
I0403 14:18:58.283785 29556 net.cpp:148] Top shape: 24 160 14 14 (752640)
I0403 14:18:58.283802 29556 net.cpp:156] Memory required for data: 952225056
I0403 14:18:58.283817 29556 layer_factory.hpp:77] Creating layer inception_4b/3x3_reduce
I0403 14:18:58.283841 29556 net.cpp:91] Creating Layer inception_4b/3x3_reduce
I0403 14:18:58.283860 29556 net.cpp:425] inception_4b/3x3_reduce <- inception_4a/output_inception_4a/output_0_split_2
I0403 14:18:58.283882 29556 net.cpp:399] inception_4b/3x3_reduce -> inception_4b/3x3_reduce
I0403 14:18:58.285284 29556 net.cpp:141] Setting up inception_4b/3x3_reduce
I0403 14:18:58.285317 29556 net.cpp:148] Top shape: 24 112 14 14 (526848)
I0403 14:18:58.285334 29556 net.cpp:156] Memory required for data: 954332448
I0403 14:18:58.285359 29556 layer_factory.hpp:77] Creating layer inception_4b/relu_3x3_reduce
I0403 14:18:58.285379 29556 net.cpp:91] Creating Layer inception_4b/relu_3x3_reduce
I0403 14:18:58.285398 29556 net.cpp:425] inception_4b/relu_3x3_reduce <- inception_4b/3x3_reduce
I0403 14:18:58.285418 29556 net.cpp:386] inception_4b/relu_3x3_reduce -> inception_4b/3x3_reduce (in-place)
I0403 14:18:58.285718 29556 net.cpp:141] Setting up inception_4b/relu_3x3_reduce
I0403 14:18:58.285748 29556 net.cpp:148] Top shape: 24 112 14 14 (526848)
I0403 14:18:58.285764 29556 net.cpp:156] Memory required for data: 956439840
I0403 14:18:58.285779 29556 layer_factory.hpp:77] Creating layer inception_4b/3x3
I0403 14:18:58.285802 29556 net.cpp:91] Creating Layer inception_4b/3x3
I0403 14:18:58.285821 29556 net.cpp:425] inception_4b/3x3 <- inception_4b/3x3_reduce
I0403 14:18:58.285840 29556 net.cpp:399] inception_4b/3x3 -> inception_4b/3x3
I0403 14:18:58.288916 29556 net.cpp:141] Setting up inception_4b/3x3
I0403 14:18:58.288947 29556 net.cpp:148] Top shape: 24 224 14 14 (1053696)
I0403 14:18:58.288964 29556 net.cpp:156] Memory required for data: 960654624
I0403 14:18:58.288982 29556 layer_factory.hpp:77] Creating layer inception_4b/relu_3x3
I0403 14:18:58.289005 29556 net.cpp:91] Creating Layer inception_4b/relu_3x3
I0403 14:18:58.289022 29556 net.cpp:425] inception_4b/relu_3x3 <- inception_4b/3x3
I0403 14:18:58.289041 29556 net.cpp:386] inception_4b/relu_3x3 -> inception_4b/3x3 (in-place)
I0403 14:18:58.289227 29556 net.cpp:141] Setting up inception_4b/relu_3x3
I0403 14:18:58.289255 29556 net.cpp:148] Top shape: 24 224 14 14 (1053696)
I0403 14:18:58.289270 29556 net.cpp:156] Memory required for data: 964869408
I0403 14:18:58.289285 29556 layer_factory.hpp:77] Creating layer inception_4b/5x5_reduce
I0403 14:18:58.289309 29556 net.cpp:91] Creating Layer inception_4b/5x5_reduce
I0403 14:18:58.289327 29556 net.cpp:425] inception_4b/5x5_reduce <- inception_4a/output_inception_4a/output_0_split_3
I0403 14:18:58.289355 29556 net.cpp:399] inception_4b/5x5_reduce -> inception_4b/5x5_reduce
I0403 14:18:58.290470 29556 net.cpp:141] Setting up inception_4b/5x5_reduce
I0403 14:18:58.290505 29556 net.cpp:148] Top shape: 24 24 14 14 (112896)
I0403 14:18:58.290524 29556 net.cpp:156] Memory required for data: 965320992
I0403 14:18:58.290544 29556 layer_factory.hpp:77] Creating layer inception_4b/relu_5x5_reduce
I0403 14:18:58.290562 29556 net.cpp:91] Creating Layer inception_4b/relu_5x5_reduce
I0403 14:18:58.290594 29556 net.cpp:425] inception_4b/relu_5x5_reduce <- inception_4b/5x5_reduce
I0403 14:18:58.290614 29556 net.cpp:386] inception_4b/relu_5x5_reduce -> inception_4b/5x5_reduce (in-place)
I0403 14:18:58.290807 29556 net.cpp:141] Setting up inception_4b/relu_5x5_reduce
I0403 14:18:58.290833 29556 net.cpp:148] Top shape: 24 24 14 14 (112896)
I0403 14:18:58.290849 29556 net.cpp:156] Memory required for data: 965772576
I0403 14:18:58.290865 29556 layer_factory.hpp:77] Creating layer inception_4b/5x5
I0403 14:18:58.290889 29556 net.cpp:91] Creating Layer inception_4b/5x5
I0403 14:18:58.290907 29556 net.cpp:425] inception_4b/5x5 <- inception_4b/5x5_reduce
I0403 14:18:58.290930 29556 net.cpp:399] inception_4b/5x5 -> inception_4b/5x5
I0403 14:18:58.292191 29556 net.cpp:141] Setting up inception_4b/5x5
I0403 14:18:58.292220 29556 net.cpp:148] Top shape: 24 64 14 14 (301056)
I0403 14:18:58.292237 29556 net.cpp:156] Memory required for data: 966976800
I0403 14:18:58.292256 29556 layer_factory.hpp:77] Creating layer inception_4b/relu_5x5
I0403 14:18:58.292278 29556 net.cpp:91] Creating Layer inception_4b/relu_5x5
I0403 14:18:58.292295 29556 net.cpp:425] inception_4b/relu_5x5 <- inception_4b/5x5
I0403 14:18:58.292315 29556 net.cpp:386] inception_4b/relu_5x5 -> inception_4b/5x5 (in-place)
I0403 14:18:58.292623 29556 net.cpp:141] Setting up inception_4b/relu_5x5
I0403 14:18:58.292650 29556 net.cpp:148] Top shape: 24 64 14 14 (301056)
I0403 14:18:58.292666 29556 net.cpp:156] Memory required for data: 968181024
I0403 14:18:58.292680 29556 layer_factory.hpp:77] Creating layer inception_4b/pool
I0403 14:18:58.292702 29556 net.cpp:91] Creating Layer inception_4b/pool
I0403 14:18:58.292721 29556 net.cpp:425] inception_4b/pool <- inception_4a/output_inception_4a/output_0_split_4
I0403 14:18:58.292740 29556 net.cpp:399] inception_4b/pool -> inception_4b/pool
I0403 14:18:58.292805 29556 net.cpp:141] Setting up inception_4b/pool
I0403 14:18:58.292829 29556 net.cpp:148] Top shape: 24 512 14 14 (2408448)
I0403 14:18:58.292857 29556 net.cpp:156] Memory required for data: 977814816
I0403 14:18:58.292873 29556 layer_factory.hpp:77] Creating layer inception_4b/pool_proj
I0403 14:18:58.292896 29556 net.cpp:91] Creating Layer inception_4b/pool_proj
I0403 14:18:58.292915 29556 net.cpp:425] inception_4b/pool_proj <- inception_4b/pool
I0403 14:18:58.292937 29556 net.cpp:399] inception_4b/pool_proj -> inception_4b/pool_proj
I0403 14:18:58.294214 29556 net.cpp:141] Setting up inception_4b/pool_proj
I0403 14:18:58.294244 29556 net.cpp:148] Top shape: 24 64 14 14 (301056)
I0403 14:18:58.294272 29556 net.cpp:156] Memory required for data: 979019040
I0403 14:18:58.294291 29556 layer_factory.hpp:77] Creating layer inception_4b/relu_pool_proj
I0403 14:18:58.294314 29556 net.cpp:91] Creating Layer inception_4b/relu_pool_proj
I0403 14:18:58.294332 29556 net.cpp:425] inception_4b/relu_pool_proj <- inception_4b/pool_proj
I0403 14:18:58.294360 29556 net.cpp:386] inception_4b/relu_pool_proj -> inception_4b/pool_proj (in-place)
I0403 14:18:58.294548 29556 net.cpp:141] Setting up inception_4b/relu_pool_proj
I0403 14:18:58.294574 29556 net.cpp:148] Top shape: 24 64 14 14 (301056)
I0403 14:18:58.294589 29556 net.cpp:156] Memory required for data: 980223264
I0403 14:18:58.294603 29556 layer_factory.hpp:77] Creating layer inception_4b/output
I0403 14:18:58.294621 29556 net.cpp:91] Creating Layer inception_4b/output
I0403 14:18:58.294637 29556 net.cpp:425] inception_4b/output <- inception_4b/1x1
I0403 14:18:58.294654 29556 net.cpp:425] inception_4b/output <- inception_4b/3x3
I0403 14:18:58.294672 29556 net.cpp:425] inception_4b/output <- inception_4b/5x5
I0403 14:18:58.294687 29556 net.cpp:425] inception_4b/output <- inception_4b/pool_proj
I0403 14:18:58.294708 29556 net.cpp:399] inception_4b/output -> inception_4b/output
I0403 14:18:58.294755 29556 net.cpp:141] Setting up inception_4b/output
I0403 14:18:58.294782 29556 net.cpp:148] Top shape: 24 512 14 14 (2408448)
I0403 14:18:58.294800 29556 net.cpp:156] Memory required for data: 989857056
I0403 14:18:58.294828 29556 layer_factory.hpp:77] Creating layer inception_4b/output_inception_4b/output_0_split
I0403 14:18:58.294847 29556 net.cpp:91] Creating Layer inception_4b/output_inception_4b/output_0_split
I0403 14:18:58.294863 29556 net.cpp:425] inception_4b/output_inception_4b/output_0_split <- inception_4b/output
I0403 14:18:58.294881 29556 net.cpp:399] inception_4b/output_inception_4b/output_0_split -> inception_4b/output_inception_4b/output_0_split_0
I0403 14:18:58.294901 29556 net.cpp:399] inception_4b/output_inception_4b/output_0_split -> inception_4b/output_inception_4b/output_0_split_1
I0403 14:18:58.294925 29556 net.cpp:399] inception_4b/output_inception_4b/output_0_split -> inception_4b/output_inception_4b/output_0_split_2
I0403 14:18:58.294948 29556 net.cpp:399] inception_4b/output_inception_4b/output_0_split -> inception_4b/output_inception_4b/output_0_split_3
I0403 14:18:58.295033 29556 net.cpp:141] Setting up inception_4b/output_inception_4b/output_0_split
I0403 14:18:58.295058 29556 net.cpp:148] Top shape: 24 512 14 14 (2408448)
I0403 14:18:58.295074 29556 net.cpp:148] Top shape: 24 512 14 14 (2408448)
I0403 14:18:58.295090 29556 net.cpp:148] Top shape: 24 512 14 14 (2408448)
I0403 14:18:58.295106 29556 net.cpp:148] Top shape: 24 512 14 14 (2408448)
I0403 14:18:58.295120 29556 net.cpp:156] Memory required for data: 1028392224
I0403 14:18:58.295136 29556 layer_factory.hpp:77] Creating layer inception_4c/1x1
I0403 14:18:58.295158 29556 net.cpp:91] Creating Layer inception_4c/1x1
I0403 14:18:58.295176 29556 net.cpp:425] inception_4c/1x1 <- inception_4b/output_inception_4b/output_0_split_0
I0403 14:18:58.295198 29556 net.cpp:399] inception_4c/1x1 -> inception_4c/1x1
I0403 14:18:58.296672 29556 net.cpp:141] Setting up inception_4c/1x1
I0403 14:18:58.296701 29556 net.cpp:148] Top shape: 24 128 14 14 (602112)
I0403 14:18:58.296720 29556 net.cpp:156] Memory required for data: 1030800672
I0403 14:18:58.296738 29556 layer_factory.hpp:77] Creating layer inception_4c/relu_1x1
I0403 14:18:58.296756 29556 net.cpp:91] Creating Layer inception_4c/relu_1x1
I0403 14:18:58.296772 29556 net.cpp:425] inception_4c/relu_1x1 <- inception_4c/1x1
I0403 14:18:58.296792 29556 net.cpp:386] inception_4c/relu_1x1 -> inception_4c/1x1 (in-place)
I0403 14:18:58.296977 29556 net.cpp:141] Setting up inception_4c/relu_1x1
I0403 14:18:58.297003 29556 net.cpp:148] Top shape: 24 128 14 14 (602112)
I0403 14:18:58.297019 29556 net.cpp:156] Memory required for data: 1033209120
I0403 14:18:58.297034 29556 layer_factory.hpp:77] Creating layer inception_4c/3x3_reduce
I0403 14:18:58.297057 29556 net.cpp:91] Creating Layer inception_4c/3x3_reduce
I0403 14:18:58.297076 29556 net.cpp:425] inception_4c/3x3_reduce <- inception_4b/output_inception_4b/output_0_split_1
I0403 14:18:58.297098 29556 net.cpp:399] inception_4c/3x3_reduce -> inception_4c/3x3_reduce
I0403 14:18:58.299144 29556 net.cpp:141] Setting up inception_4c/3x3_reduce
I0403 14:18:58.299173 29556 net.cpp:148] Top shape: 24 128 14 14 (602112)
I0403 14:18:58.299190 29556 net.cpp:156] Memory required for data: 1035617568
I0403 14:18:58.299209 29556 layer_factory.hpp:77] Creating layer inception_4c/relu_3x3_reduce
I0403 14:18:58.299231 29556 net.cpp:91] Creating Layer inception_4c/relu_3x3_reduce
I0403 14:18:58.299248 29556 net.cpp:425] inception_4c/relu_3x3_reduce <- inception_4c/3x3_reduce
I0403 14:18:58.299268 29556 net.cpp:386] inception_4c/relu_3x3_reduce -> inception_4c/3x3_reduce (in-place)
I0403 14:18:58.299576 29556 net.cpp:141] Setting up inception_4c/relu_3x3_reduce
I0403 14:18:58.299605 29556 net.cpp:148] Top shape: 24 128 14 14 (602112)
I0403 14:18:58.299621 29556 net.cpp:156] Memory required for data: 1038026016
I0403 14:18:58.299638 29556 layer_factory.hpp:77] Creating layer inception_4c/3x3
I0403 14:18:58.299661 29556 net.cpp:91] Creating Layer inception_4c/3x3
I0403 14:18:58.299680 29556 net.cpp:425] inception_4c/3x3 <- inception_4c/3x3_reduce
I0403 14:18:58.299715 29556 net.cpp:399] inception_4c/3x3 -> inception_4c/3x3
I0403 14:18:58.303442 29556 net.cpp:141] Setting up inception_4c/3x3
I0403 14:18:58.303488 29556 net.cpp:148] Top shape: 24 256 14 14 (1204224)
I0403 14:18:58.303506 29556 net.cpp:156] Memory required for data: 1042842912
I0403 14:18:58.303544 29556 layer_factory.hpp:77] Creating layer inception_4c/relu_3x3
I0403 14:18:58.303567 29556 net.cpp:91] Creating Layer inception_4c/relu_3x3
I0403 14:18:58.303586 29556 net.cpp:425] inception_4c/relu_3x3 <- inception_4c/3x3
I0403 14:18:58.303604 29556 net.cpp:386] inception_4c/relu_3x3 -> inception_4c/3x3 (in-place)
I0403 14:18:58.303805 29556 net.cpp:141] Setting up inception_4c/relu_3x3
I0403 14:18:58.303834 29556 net.cpp:148] Top shape: 24 256 14 14 (1204224)
I0403 14:18:58.303851 29556 net.cpp:156] Memory required for data: 1047659808
I0403 14:18:58.303866 29556 layer_factory.hpp:77] Creating layer inception_4c/5x5_reduce
I0403 14:18:58.303891 29556 net.cpp:91] Creating Layer inception_4c/5x5_reduce
I0403 14:18:58.303911 29556 net.cpp:425] inception_4c/5x5_reduce <- inception_4b/output_inception_4b/output_0_split_2
I0403 14:18:58.303932 29556 net.cpp:399] inception_4c/5x5_reduce -> inception_4c/5x5_reduce
I0403 14:18:58.305058 29556 net.cpp:141] Setting up inception_4c/5x5_reduce
I0403 14:18:58.305091 29556 net.cpp:148] Top shape: 24 24 14 14 (112896)
I0403 14:18:58.305109 29556 net.cpp:156] Memory required for data: 1048111392
I0403 14:18:58.305130 29556 layer_factory.hpp:77] Creating layer inception_4c/relu_5x5_reduce
I0403 14:18:58.305150 29556 net.cpp:91] Creating Layer inception_4c/relu_5x5_reduce
I0403 14:18:58.305166 29556 net.cpp:425] inception_4c/relu_5x5_reduce <- inception_4c/5x5_reduce
I0403 14:18:58.305184 29556 net.cpp:386] inception_4c/relu_5x5_reduce -> inception_4c/5x5_reduce (in-place)
I0403 14:18:58.305382 29556 net.cpp:141] Setting up inception_4c/relu_5x5_reduce
I0403 14:18:58.305413 29556 net.cpp:148] Top shape: 24 24 14 14 (112896)
I0403 14:18:58.305428 29556 net.cpp:156] Memory required for data: 1048562976
I0403 14:18:58.305444 29556 layer_factory.hpp:77] Creating layer inception_4c/5x5
I0403 14:18:58.305469 29556 net.cpp:91] Creating Layer inception_4c/5x5
I0403 14:18:58.305486 29556 net.cpp:425] inception_4c/5x5 <- inception_4c/5x5_reduce
I0403 14:18:58.305510 29556 net.cpp:399] inception_4c/5x5 -> inception_4c/5x5
I0403 14:18:58.306795 29556 net.cpp:141] Setting up inception_4c/5x5
I0403 14:18:58.306825 29556 net.cpp:148] Top shape: 24 64 14 14 (301056)
I0403 14:18:58.306841 29556 net.cpp:156] Memory required for data: 1049767200
I0403 14:18:58.306860 29556 layer_factory.hpp:77] Creating layer inception_4c/relu_5x5
I0403 14:18:58.306879 29556 net.cpp:91] Creating Layer inception_4c/relu_5x5
I0403 14:18:58.306897 29556 net.cpp:425] inception_4c/relu_5x5 <- inception_4c/5x5
I0403 14:18:58.306917 29556 net.cpp:386] inception_4c/relu_5x5 -> inception_4c/5x5 (in-place)
I0403 14:18:58.307222 29556 net.cpp:141] Setting up inception_4c/relu_5x5
I0403 14:18:58.307250 29556 net.cpp:148] Top shape: 24 64 14 14 (301056)
I0403 14:18:58.307266 29556 net.cpp:156] Memory required for data: 1050971424
I0403 14:18:58.307282 29556 layer_factory.hpp:77] Creating layer inception_4c/pool
I0403 14:18:58.307301 29556 net.cpp:91] Creating Layer inception_4c/pool
I0403 14:18:58.307319 29556 net.cpp:425] inception_4c/pool <- inception_4b/output_inception_4b/output_0_split_3
I0403 14:18:58.307340 29556 net.cpp:399] inception_4c/pool -> inception_4c/pool
I0403 14:18:58.307427 29556 net.cpp:141] Setting up inception_4c/pool
I0403 14:18:58.307454 29556 net.cpp:148] Top shape: 24 512 14 14 (2408448)
I0403 14:18:58.307471 29556 net.cpp:156] Memory required for data: 1060605216
I0403 14:18:58.307485 29556 layer_factory.hpp:77] Creating layer inception_4c/pool_proj
I0403 14:18:58.307512 29556 net.cpp:91] Creating Layer inception_4c/pool_proj
I0403 14:18:58.307531 29556 net.cpp:425] inception_4c/pool_proj <- inception_4c/pool
I0403 14:18:58.307553 29556 net.cpp:399] inception_4c/pool_proj -> inception_4c/pool_proj
I0403 14:18:58.308833 29556 net.cpp:141] Setting up inception_4c/pool_proj
I0403 14:18:58.308863 29556 net.cpp:148] Top shape: 24 64 14 14 (301056)
I0403 14:18:58.308895 29556 net.cpp:156] Memory required for data: 1061809440
I0403 14:18:58.308917 29556 layer_factory.hpp:77] Creating layer inception_4c/relu_pool_proj
I0403 14:18:58.308938 29556 net.cpp:91] Creating Layer inception_4c/relu_pool_proj
I0403 14:18:58.308955 29556 net.cpp:425] inception_4c/relu_pool_proj <- inception_4c/pool_proj
I0403 14:18:58.308974 29556 net.cpp:386] inception_4c/relu_pool_proj -> inception_4c/pool_proj (in-place)
I0403 14:18:58.309166 29556 net.cpp:141] Setting up inception_4c/relu_pool_proj
I0403 14:18:58.309192 29556 net.cpp:148] Top shape: 24 64 14 14 (301056)
I0403 14:18:58.309208 29556 net.cpp:156] Memory required for data: 1063013664
I0403 14:18:58.309223 29556 layer_factory.hpp:77] Creating layer inception_4c/output
I0403 14:18:58.309242 29556 net.cpp:91] Creating Layer inception_4c/output
I0403 14:18:58.309258 29556 net.cpp:425] inception_4c/output <- inception_4c/1x1
I0403 14:18:58.309276 29556 net.cpp:425] inception_4c/output <- inception_4c/3x3
I0403 14:18:58.309293 29556 net.cpp:425] inception_4c/output <- inception_4c/5x5
I0403 14:18:58.309309 29556 net.cpp:425] inception_4c/output <- inception_4c/pool_proj
I0403 14:18:58.309329 29556 net.cpp:399] inception_4c/output -> inception_4c/output
I0403 14:18:58.309382 29556 net.cpp:141] Setting up inception_4c/output
I0403 14:18:58.309411 29556 net.cpp:148] Top shape: 24 512 14 14 (2408448)
I0403 14:18:58.309428 29556 net.cpp:156] Memory required for data: 1072647456
I0403 14:18:58.309444 29556 layer_factory.hpp:77] Creating layer inception_4c/output_inception_4c/output_0_split
I0403 14:18:58.309463 29556 net.cpp:91] Creating Layer inception_4c/output_inception_4c/output_0_split
I0403 14:18:58.309479 29556 net.cpp:425] inception_4c/output_inception_4c/output_0_split <- inception_4c/output
I0403 14:18:58.309499 29556 net.cpp:399] inception_4c/output_inception_4c/output_0_split -> inception_4c/output_inception_4c/output_0_split_0
I0403 14:18:58.309520 29556 net.cpp:399] inception_4c/output_inception_4c/output_0_split -> inception_4c/output_inception_4c/output_0_split_1
I0403 14:18:58.309545 29556 net.cpp:399] inception_4c/output_inception_4c/output_0_split -> inception_4c/output_inception_4c/output_0_split_2
I0403 14:18:58.309569 29556 net.cpp:399] inception_4c/output_inception_4c/output_0_split -> inception_4c/output_inception_4c/output_0_split_3
I0403 14:18:58.309660 29556 net.cpp:141] Setting up inception_4c/output_inception_4c/output_0_split
I0403 14:18:58.309685 29556 net.cpp:148] Top shape: 24 512 14 14 (2408448)
I0403 14:18:58.309703 29556 net.cpp:148] Top shape: 24 512 14 14 (2408448)
I0403 14:18:58.309720 29556 net.cpp:148] Top shape: 24 512 14 14 (2408448)
I0403 14:18:58.309736 29556 net.cpp:148] Top shape: 24 512 14 14 (2408448)
I0403 14:18:58.309751 29556 net.cpp:156] Memory required for data: 1111182624
I0403 14:18:58.309767 29556 layer_factory.hpp:77] Creating layer inception_4d/1x1
I0403 14:18:58.309790 29556 net.cpp:91] Creating Layer inception_4d/1x1
I0403 14:18:58.309809 29556 net.cpp:425] inception_4d/1x1 <- inception_4c/output_inception_4c/output_0_split_0
I0403 14:18:58.309831 29556 net.cpp:399] inception_4d/1x1 -> inception_4d/1x1
I0403 14:18:58.311255 29556 net.cpp:141] Setting up inception_4d/1x1
I0403 14:18:58.311285 29556 net.cpp:148] Top shape: 24 112 14 14 (526848)
I0403 14:18:58.311302 29556 net.cpp:156] Memory required for data: 1113290016
I0403 14:18:58.311321 29556 layer_factory.hpp:77] Creating layer inception_4d/relu_1x1
I0403 14:18:58.311342 29556 net.cpp:91] Creating Layer inception_4d/relu_1x1
I0403 14:18:58.311364 29556 net.cpp:425] inception_4d/relu_1x1 <- inception_4d/1x1
I0403 14:18:58.311383 29556 net.cpp:386] inception_4d/relu_1x1 -> inception_4d/1x1 (in-place)
I0403 14:18:58.311569 29556 net.cpp:141] Setting up inception_4d/relu_1x1
I0403 14:18:58.311597 29556 net.cpp:148] Top shape: 24 112 14 14 (526848)
I0403 14:18:58.311614 29556 net.cpp:156] Memory required for data: 1115397408
I0403 14:18:58.311631 29556 layer_factory.hpp:77] Creating layer inception_4d/3x3_reduce
I0403 14:18:58.311666 29556 net.cpp:91] Creating Layer inception_4d/3x3_reduce
I0403 14:18:58.311686 29556 net.cpp:425] inception_4d/3x3_reduce <- inception_4c/output_inception_4c/output_0_split_1
I0403 14:18:58.311707 29556 net.cpp:399] inception_4d/3x3_reduce -> inception_4d/3x3_reduce
I0403 14:18:58.313289 29556 net.cpp:141] Setting up inception_4d/3x3_reduce
I0403 14:18:58.313318 29556 net.cpp:148] Top shape: 24 144 14 14 (677376)
I0403 14:18:58.313334 29556 net.cpp:156] Memory required for data: 1118106912
I0403 14:18:58.313357 29556 layer_factory.hpp:77] Creating layer inception_4d/relu_3x3_reduce
I0403 14:18:58.313379 29556 net.cpp:91] Creating Layer inception_4d/relu_3x3_reduce
I0403 14:18:58.313395 29556 net.cpp:425] inception_4d/relu_3x3_reduce <- inception_4d/3x3_reduce
I0403 14:18:58.313428 29556 net.cpp:386] inception_4d/relu_3x3_reduce -> inception_4d/3x3_reduce (in-place)
I0403 14:18:58.313741 29556 net.cpp:141] Setting up inception_4d/relu_3x3_reduce
I0403 14:18:58.313768 29556 net.cpp:148] Top shape: 24 144 14 14 (677376)
I0403 14:18:58.313784 29556 net.cpp:156] Memory required for data: 1120816416
I0403 14:18:58.313801 29556 layer_factory.hpp:77] Creating layer inception_4d/3x3
I0403 14:18:58.313823 29556 net.cpp:91] Creating Layer inception_4d/3x3
I0403 14:18:58.313854 29556 net.cpp:425] inception_4d/3x3 <- inception_4d/3x3_reduce
I0403 14:18:58.313877 29556 net.cpp:399] inception_4d/3x3 -> inception_4d/3x3
I0403 14:18:58.318307 29556 net.cpp:141] Setting up inception_4d/3x3
I0403 14:18:58.318337 29556 net.cpp:148] Top shape: 24 288 14 14 (1354752)
I0403 14:18:58.318359 29556 net.cpp:156] Memory required for data: 1126235424
I0403 14:18:58.318380 29556 layer_factory.hpp:77] Creating layer inception_4d/relu_3x3
I0403 14:18:58.318403 29556 net.cpp:91] Creating Layer inception_4d/relu_3x3
I0403 14:18:58.318420 29556 net.cpp:425] inception_4d/relu_3x3 <- inception_4d/3x3
I0403 14:18:58.318439 29556 net.cpp:386] inception_4d/relu_3x3 -> inception_4d/3x3 (in-place)
I0403 14:18:58.318631 29556 net.cpp:141] Setting up inception_4d/relu_3x3
I0403 14:18:58.318660 29556 net.cpp:148] Top shape: 24 288 14 14 (1354752)
I0403 14:18:58.318687 29556 net.cpp:156] Memory required for data: 1131654432
I0403 14:18:58.318704 29556 layer_factory.hpp:77] Creating layer inception_4d/5x5_reduce
I0403 14:18:58.318727 29556 net.cpp:91] Creating Layer inception_4d/5x5_reduce
I0403 14:18:58.318747 29556 net.cpp:425] inception_4d/5x5_reduce <- inception_4c/output_inception_4c/output_0_split_2
I0403 14:18:58.318768 29556 net.cpp:399] inception_4d/5x5_reduce -> inception_4d/5x5_reduce
I0403 14:18:58.319962 29556 net.cpp:141] Setting up inception_4d/5x5_reduce
I0403 14:18:58.319991 29556 net.cpp:148] Top shape: 24 32 14 14 (150528)
I0403 14:18:58.320008 29556 net.cpp:156] Memory required for data: 1132256544
I0403 14:18:58.320026 29556 layer_factory.hpp:77] Creating layer inception_4d/relu_5x5_reduce
I0403 14:18:58.320049 29556 net.cpp:91] Creating Layer inception_4d/relu_5x5_reduce
I0403 14:18:58.320066 29556 net.cpp:425] inception_4d/relu_5x5_reduce <- inception_4d/5x5_reduce
I0403 14:18:58.320085 29556 net.cpp:386] inception_4d/relu_5x5_reduce -> inception_4d/5x5_reduce (in-place)
I0403 14:18:58.320276 29556 net.cpp:141] Setting up inception_4d/relu_5x5_reduce
I0403 14:18:58.320305 29556 net.cpp:148] Top shape: 24 32 14 14 (150528)
I0403 14:18:58.320322 29556 net.cpp:156] Memory required for data: 1132858656
I0403 14:18:58.320338 29556 layer_factory.hpp:77] Creating layer inception_4d/5x5
I0403 14:18:58.320366 29556 net.cpp:91] Creating Layer inception_4d/5x5
I0403 14:18:58.320387 29556 net.cpp:425] inception_4d/5x5 <- inception_4d/5x5_reduce
I0403 14:18:58.320407 29556 net.cpp:399] inception_4d/5x5 -> inception_4d/5x5
I0403 14:18:58.321952 29556 net.cpp:141] Setting up inception_4d/5x5
I0403 14:18:58.321985 29556 net.cpp:148] Top shape: 24 64 14 14 (301056)
I0403 14:18:58.322002 29556 net.cpp:156] Memory required for data: 1134062880
I0403 14:18:58.322022 29556 layer_factory.hpp:77] Creating layer inception_4d/relu_5x5
I0403 14:18:58.322059 29556 net.cpp:91] Creating Layer inception_4d/relu_5x5
I0403 14:18:58.322077 29556 net.cpp:425] inception_4d/relu_5x5 <- inception_4d/5x5
I0403 14:18:58.322095 29556 net.cpp:386] inception_4d/relu_5x5 -> inception_4d/5x5 (in-place)
I0403 14:18:58.322429 29556 net.cpp:141] Setting up inception_4d/relu_5x5
I0403 14:18:58.322460 29556 net.cpp:148] Top shape: 24 64 14 14 (301056)
I0403 14:18:58.322477 29556 net.cpp:156] Memory required for data: 1135267104
I0403 14:18:58.322494 29556 layer_factory.hpp:77] Creating layer inception_4d/pool
I0403 14:18:58.322515 29556 net.cpp:91] Creating Layer inception_4d/pool
I0403 14:18:58.322532 29556 net.cpp:425] inception_4d/pool <- inception_4c/output_inception_4c/output_0_split_3
I0403 14:18:58.322554 29556 net.cpp:399] inception_4d/pool -> inception_4d/pool
I0403 14:18:58.322626 29556 net.cpp:141] Setting up inception_4d/pool
I0403 14:18:58.322664 29556 net.cpp:148] Top shape: 24 512 14 14 (2408448)
I0403 14:18:58.322679 29556 net.cpp:156] Memory required for data: 1144900896
I0403 14:18:58.322695 29556 layer_factory.hpp:77] Creating layer inception_4d/pool_proj
I0403 14:18:58.322718 29556 net.cpp:91] Creating Layer inception_4d/pool_proj
I0403 14:18:58.322739 29556 net.cpp:425] inception_4d/pool_proj <- inception_4d/pool
I0403 14:18:58.322760 29556 net.cpp:399] inception_4d/pool_proj -> inception_4d/pool_proj
I0403 14:18:58.324584 29556 net.cpp:141] Setting up inception_4d/pool_proj
I0403 14:18:58.324615 29556 net.cpp:148] Top shape: 24 64 14 14 (301056)
I0403 14:18:58.324631 29556 net.cpp:156] Memory required for data: 1146105120
I0403 14:18:58.324652 29556 layer_factory.hpp:77] Creating layer inception_4d/relu_pool_proj
I0403 14:18:58.324673 29556 net.cpp:91] Creating Layer inception_4d/relu_pool_proj
I0403 14:18:58.324692 29556 net.cpp:425] inception_4d/relu_pool_proj <- inception_4d/pool_proj
I0403 14:18:58.324710 29556 net.cpp:386] inception_4d/relu_pool_proj -> inception_4d/pool_proj (in-place)
I0403 14:18:58.324908 29556 net.cpp:141] Setting up inception_4d/relu_pool_proj
I0403 14:18:58.324937 29556 net.cpp:148] Top shape: 24 64 14 14 (301056)
I0403 14:18:58.324955 29556 net.cpp:156] Memory required for data: 1147309344
I0403 14:18:58.324971 29556 layer_factory.hpp:77] Creating layer inception_4d/output
I0403 14:18:58.324990 29556 net.cpp:91] Creating Layer inception_4d/output
I0403 14:18:58.325007 29556 net.cpp:425] inception_4d/output <- inception_4d/1x1
I0403 14:18:58.325024 29556 net.cpp:425] inception_4d/output <- inception_4d/3x3
I0403 14:18:58.325042 29556 net.cpp:425] inception_4d/output <- inception_4d/5x5
I0403 14:18:58.325059 29556 net.cpp:425] inception_4d/output <- inception_4d/pool_proj
I0403 14:18:58.325078 29556 net.cpp:399] inception_4d/output -> inception_4d/output
I0403 14:18:58.325127 29556 net.cpp:141] Setting up inception_4d/output
I0403 14:18:58.325153 29556 net.cpp:148] Top shape: 24 528 14 14 (2483712)
I0403 14:18:58.325168 29556 net.cpp:156] Memory required for data: 1157244192
I0403 14:18:58.325184 29556 layer_factory.hpp:77] Creating layer inception_4d/output_inception_4d/output_0_split
I0403 14:18:58.325206 29556 net.cpp:91] Creating Layer inception_4d/output_inception_4d/output_0_split
I0403 14:18:58.325222 29556 net.cpp:425] inception_4d/output_inception_4d/output_0_split <- inception_4d/output
I0403 14:18:58.325240 29556 net.cpp:399] inception_4d/output_inception_4d/output_0_split -> inception_4d/output_inception_4d/output_0_split_0
I0403 14:18:58.325263 29556 net.cpp:399] inception_4d/output_inception_4d/output_0_split -> inception_4d/output_inception_4d/output_0_split_1
I0403 14:18:58.325284 29556 net.cpp:399] inception_4d/output_inception_4d/output_0_split -> inception_4d/output_inception_4d/output_0_split_2
I0403 14:18:58.325312 29556 net.cpp:399] inception_4d/output_inception_4d/output_0_split -> inception_4d/output_inception_4d/output_0_split_3
I0403 14:18:58.325335 29556 net.cpp:399] inception_4d/output_inception_4d/output_0_split -> inception_4d/output_inception_4d/output_0_split_4
I0403 14:18:58.325446 29556 net.cpp:141] Setting up inception_4d/output_inception_4d/output_0_split
I0403 14:18:58.325484 29556 net.cpp:148] Top shape: 24 528 14 14 (2483712)
I0403 14:18:58.325502 29556 net.cpp:148] Top shape: 24 528 14 14 (2483712)
I0403 14:18:58.325520 29556 net.cpp:148] Top shape: 24 528 14 14 (2483712)
I0403 14:18:58.325536 29556 net.cpp:148] Top shape: 24 528 14 14 (2483712)
I0403 14:18:58.325553 29556 net.cpp:148] Top shape: 24 528 14 14 (2483712)
I0403 14:18:58.325567 29556 net.cpp:156] Memory required for data: 1206918432
I0403 14:18:58.325582 29556 layer_factory.hpp:77] Creating layer loss2/ave_pool
I0403 14:18:58.325601 29556 net.cpp:91] Creating Layer loss2/ave_pool
I0403 14:18:58.325619 29556 net.cpp:425] loss2/ave_pool <- inception_4d/output_inception_4d/output_0_split_0
I0403 14:18:58.325640 29556 net.cpp:399] loss2/ave_pool -> loss2/ave_pool
I0403 14:18:58.325965 29556 net.cpp:141] Setting up loss2/ave_pool
I0403 14:18:58.325994 29556 net.cpp:148] Top shape: 24 528 4 4 (202752)
I0403 14:18:58.326009 29556 net.cpp:156] Memory required for data: 1207729440
I0403 14:18:58.326025 29556 layer_factory.hpp:77] Creating layer loss2/conv
I0403 14:18:58.326047 29556 net.cpp:91] Creating Layer loss2/conv
I0403 14:18:58.326066 29556 net.cpp:425] loss2/conv <- loss2/ave_pool
I0403 14:18:58.326089 29556 net.cpp:399] loss2/conv -> loss2/conv
I0403 14:18:58.328055 29556 net.cpp:141] Setting up loss2/conv
I0403 14:18:58.328088 29556 net.cpp:148] Top shape: 24 128 4 4 (49152)
I0403 14:18:58.328105 29556 net.cpp:156] Memory required for data: 1207926048
I0403 14:18:58.328125 29556 layer_factory.hpp:77] Creating layer loss2/relu_conv
I0403 14:18:58.328145 29556 net.cpp:91] Creating Layer loss2/relu_conv
I0403 14:18:58.328161 29556 net.cpp:425] loss2/relu_conv <- loss2/conv
I0403 14:18:58.328184 29556 net.cpp:386] loss2/relu_conv -> loss2/conv (in-place)
I0403 14:18:58.328483 29556 net.cpp:141] Setting up loss2/relu_conv
I0403 14:18:58.328513 29556 net.cpp:148] Top shape: 24 128 4 4 (49152)
I0403 14:18:58.328531 29556 net.cpp:156] Memory required for data: 1208122656
I0403 14:18:58.328548 29556 layer_factory.hpp:77] Creating layer loss2/fc
I0403 14:18:58.328568 29556 net.cpp:91] Creating Layer loss2/fc
I0403 14:18:58.328586 29556 net.cpp:425] loss2/fc <- loss2/conv
I0403 14:18:58.328610 29556 net.cpp:399] loss2/fc -> loss2/fc
I0403 14:18:58.346985 29556 net.cpp:141] Setting up loss2/fc
I0403 14:18:58.347026 29556 net.cpp:148] Top shape: 24 1024 (24576)
I0403 14:18:58.347043 29556 net.cpp:156] Memory required for data: 1208220960
I0403 14:18:58.347061 29556 layer_factory.hpp:77] Creating layer loss2/relu_fc
I0403 14:18:58.347084 29556 net.cpp:91] Creating Layer loss2/relu_fc
I0403 14:18:58.347102 29556 net.cpp:425] loss2/relu_fc <- loss2/fc
I0403 14:18:58.347121 29556 net.cpp:386] loss2/relu_fc -> loss2/fc (in-place)
I0403 14:18:58.347461 29556 net.cpp:141] Setting up loss2/relu_fc
I0403 14:18:58.347489 29556 net.cpp:148] Top shape: 24 1024 (24576)
I0403 14:18:58.347506 29556 net.cpp:156] Memory required for data: 1208319264
I0403 14:18:58.347520 29556 layer_factory.hpp:77] Creating layer loss2/drop_fc
I0403 14:18:58.347543 29556 net.cpp:91] Creating Layer loss2/drop_fc
I0403 14:18:58.347563 29556 net.cpp:425] loss2/drop_fc <- loss2/fc
I0403 14:18:58.347581 29556 net.cpp:386] loss2/drop_fc -> loss2/fc (in-place)
I0403 14:18:58.347637 29556 net.cpp:141] Setting up loss2/drop_fc
I0403 14:18:58.347673 29556 net.cpp:148] Top shape: 24 1024 (24576)
I0403 14:18:58.347689 29556 net.cpp:156] Memory required for data: 1208417568
I0403 14:18:58.347704 29556 layer_factory.hpp:77] Creating layer loss2/classifier_plantvillage
I0403 14:18:58.347724 29556 net.cpp:91] Creating Layer loss2/classifier_plantvillage
I0403 14:18:58.347740 29556 net.cpp:425] loss2/classifier_plantvillage <- loss2/fc
I0403 14:18:58.347764 29556 net.cpp:399] loss2/classifier_plantvillage -> loss2/classifier_plantvillage
I0403 14:18:58.348189 29556 net.cpp:141] Setting up loss2/classifier_plantvillage
I0403 14:18:58.348217 29556 net.cpp:148] Top shape: 24 38 (912)
I0403 14:18:58.348232 29556 net.cpp:156] Memory required for data: 1208421216
I0403 14:18:58.348276 29556 layer_factory.hpp:77] Creating layer loss2/classifier_plantvillage_loss2/classifier_plantvillage_0_split
I0403 14:18:58.348299 29556 net.cpp:91] Creating Layer loss2/classifier_plantvillage_loss2/classifier_plantvillage_0_split
I0403 14:18:58.348316 29556 net.cpp:425] loss2/classifier_plantvillage_loss2/classifier_plantvillage_0_split <- loss2/classifier_plantvillage
I0403 14:18:58.348338 29556 net.cpp:399] loss2/classifier_plantvillage_loss2/classifier_plantvillage_0_split -> loss2/classifier_plantvillage_loss2/classifier_plantvillage_0_split_0
I0403 14:18:58.348367 29556 net.cpp:399] loss2/classifier_plantvillage_loss2/classifier_plantvillage_0_split -> loss2/classifier_plantvillage_loss2/classifier_plantvillage_0_split_1
I0403 14:18:58.348392 29556 net.cpp:399] loss2/classifier_plantvillage_loss2/classifier_plantvillage_0_split -> loss2/classifier_plantvillage_loss2/classifier_plantvillage_0_split_2
I0403 14:18:58.348471 29556 net.cpp:141] Setting up loss2/classifier_plantvillage_loss2/classifier_plantvillage_0_split
I0403 14:18:58.348500 29556 net.cpp:148] Top shape: 24 38 (912)
I0403 14:18:58.348517 29556 net.cpp:148] Top shape: 24 38 (912)
I0403 14:18:58.348534 29556 net.cpp:148] Top shape: 24 38 (912)
I0403 14:18:58.348549 29556 net.cpp:156] Memory required for data: 1208432160
I0403 14:18:58.348563 29556 layer_factory.hpp:77] Creating layer inception_4e/1x1
I0403 14:18:58.348584 29556 net.cpp:91] Creating Layer inception_4e/1x1
I0403 14:18:58.348603 29556 net.cpp:425] inception_4e/1x1 <- inception_4d/output_inception_4d/output_0_split_1
I0403 14:18:58.348624 29556 net.cpp:399] inception_4e/1x1 -> inception_4e/1x1
I0403 14:18:58.350527 29556 net.cpp:141] Setting up inception_4e/1x1
I0403 14:18:58.350558 29556 net.cpp:148] Top shape: 24 256 14 14 (1204224)
I0403 14:18:58.350574 29556 net.cpp:156] Memory required for data: 1213249056
I0403 14:18:58.350594 29556 layer_factory.hpp:77] Creating layer inception_4e/relu_1x1
I0403 14:18:58.350612 29556 net.cpp:91] Creating Layer inception_4e/relu_1x1
I0403 14:18:58.350630 29556 net.cpp:425] inception_4e/relu_1x1 <- inception_4e/1x1
I0403 14:18:58.350649 29556 net.cpp:386] inception_4e/relu_1x1 -> inception_4e/1x1 (in-place)
I0403 14:18:58.350958 29556 net.cpp:141] Setting up inception_4e/relu_1x1
I0403 14:18:58.350986 29556 net.cpp:148] Top shape: 24 256 14 14 (1204224)
I0403 14:18:58.351001 29556 net.cpp:156] Memory required for data: 1218065952
I0403 14:18:58.351016 29556 layer_factory.hpp:77] Creating layer inception_4e/3x3_reduce
I0403 14:18:58.351039 29556 net.cpp:91] Creating Layer inception_4e/3x3_reduce
I0403 14:18:58.351058 29556 net.cpp:425] inception_4e/3x3_reduce <- inception_4d/output_inception_4d/output_0_split_2
I0403 14:18:58.351080 29556 net.cpp:399] inception_4e/3x3_reduce -> inception_4e/3x3_reduce
I0403 14:18:58.353314 29556 net.cpp:141] Setting up inception_4e/3x3_reduce
I0403 14:18:58.353350 29556 net.cpp:148] Top shape: 24 160 14 14 (752640)
I0403 14:18:58.353370 29556 net.cpp:156] Memory required for data: 1221076512
I0403 14:18:58.353390 29556 layer_factory.hpp:77] Creating layer inception_4e/relu_3x3_reduce
I0403 14:18:58.353410 29556 net.cpp:91] Creating Layer inception_4e/relu_3x3_reduce
I0403 14:18:58.353426 29556 net.cpp:425] inception_4e/relu_3x3_reduce <- inception_4e/3x3_reduce
I0403 14:18:58.353446 29556 net.cpp:386] inception_4e/relu_3x3_reduce -> inception_4e/3x3_reduce (in-place)
I0403 14:18:58.353641 29556 net.cpp:141] Setting up inception_4e/relu_3x3_reduce
I0403 14:18:58.353669 29556 net.cpp:148] Top shape: 24 160 14 14 (752640)
I0403 14:18:58.353685 29556 net.cpp:156] Memory required for data: 1224087072
I0403 14:18:58.353701 29556 layer_factory.hpp:77] Creating layer inception_4e/3x3
I0403 14:18:58.353725 29556 net.cpp:91] Creating Layer inception_4e/3x3
I0403 14:18:58.353745 29556 net.cpp:425] inception_4e/3x3 <- inception_4e/3x3_reduce
I0403 14:18:58.353770 29556 net.cpp:399] inception_4e/3x3 -> inception_4e/3x3
I0403 14:18:58.359005 29556 net.cpp:141] Setting up inception_4e/3x3
I0403 14:18:58.359050 29556 net.cpp:148] Top shape: 24 320 14 14 (1505280)
I0403 14:18:58.359066 29556 net.cpp:156] Memory required for data: 1230108192
I0403 14:18:58.359086 29556 layer_factory.hpp:77] Creating layer inception_4e/relu_3x3
I0403 14:18:58.359105 29556 net.cpp:91] Creating Layer inception_4e/relu_3x3
I0403 14:18:58.359123 29556 net.cpp:425] inception_4e/relu_3x3 <- inception_4e/3x3
I0403 14:18:58.359144 29556 net.cpp:386] inception_4e/relu_3x3 -> inception_4e/3x3 (in-place)
I0403 14:18:58.359465 29556 net.cpp:141] Setting up inception_4e/relu_3x3
I0403 14:18:58.359493 29556 net.cpp:148] Top shape: 24 320 14 14 (1505280)
I0403 14:18:58.359509 29556 net.cpp:156] Memory required for data: 1236129312
I0403 14:18:58.359524 29556 layer_factory.hpp:77] Creating layer inception_4e/5x5_reduce
I0403 14:18:58.359550 29556 net.cpp:91] Creating Layer inception_4e/5x5_reduce
I0403 14:18:58.359570 29556 net.cpp:425] inception_4e/5x5_reduce <- inception_4d/output_inception_4d/output_0_split_3
I0403 14:18:58.359592 29556 net.cpp:399] inception_4e/5x5_reduce -> inception_4e/5x5_reduce
I0403 14:18:58.360712 29556 net.cpp:141] Setting up inception_4e/5x5_reduce
I0403 14:18:58.360743 29556 net.cpp:148] Top shape: 24 32 14 14 (150528)
I0403 14:18:58.360759 29556 net.cpp:156] Memory required for data: 1236731424
I0403 14:18:58.360779 29556 layer_factory.hpp:77] Creating layer inception_4e/relu_5x5_reduce
I0403 14:18:58.360798 29556 net.cpp:91] Creating Layer inception_4e/relu_5x5_reduce
I0403 14:18:58.360816 29556 net.cpp:425] inception_4e/relu_5x5_reduce <- inception_4e/5x5_reduce
I0403 14:18:58.360833 29556 net.cpp:386] inception_4e/relu_5x5_reduce -> inception_4e/5x5_reduce (in-place)
I0403 14:18:58.361158 29556 net.cpp:141] Setting up inception_4e/relu_5x5_reduce
I0403 14:18:58.361188 29556 net.cpp:148] Top shape: 24 32 14 14 (150528)
I0403 14:18:58.361205 29556 net.cpp:156] Memory required for data: 1237333536
I0403 14:18:58.361233 29556 layer_factory.hpp:77] Creating layer inception_4e/5x5
I0403 14:18:58.361274 29556 net.cpp:91] Creating Layer inception_4e/5x5
I0403 14:18:58.361294 29556 net.cpp:425] inception_4e/5x5 <- inception_4e/5x5_reduce
I0403 14:18:58.361315 29556 net.cpp:399] inception_4e/5x5 -> inception_4e/5x5
I0403 14:18:58.363253 29556 net.cpp:141] Setting up inception_4e/5x5
I0403 14:18:58.363283 29556 net.cpp:148] Top shape: 24 128 14 14 (602112)
I0403 14:18:58.363299 29556 net.cpp:156] Memory required for data: 1239741984
I0403 14:18:58.363318 29556 layer_factory.hpp:77] Creating layer inception_4e/relu_5x5
I0403 14:18:58.363342 29556 net.cpp:91] Creating Layer inception_4e/relu_5x5
I0403 14:18:58.363363 29556 net.cpp:425] inception_4e/relu_5x5 <- inception_4e/5x5
I0403 14:18:58.363382 29556 net.cpp:386] inception_4e/relu_5x5 -> inception_4e/5x5 (in-place)
I0403 14:18:58.363590 29556 net.cpp:141] Setting up inception_4e/relu_5x5
I0403 14:18:58.363620 29556 net.cpp:148] Top shape: 24 128 14 14 (602112)
I0403 14:18:58.363636 29556 net.cpp:156] Memory required for data: 1242150432
I0403 14:18:58.363651 29556 layer_factory.hpp:77] Creating layer inception_4e/pool
I0403 14:18:58.363670 29556 net.cpp:91] Creating Layer inception_4e/pool
I0403 14:18:58.363687 29556 net.cpp:425] inception_4e/pool <- inception_4d/output_inception_4d/output_0_split_4
I0403 14:18:58.363708 29556 net.cpp:399] inception_4e/pool -> inception_4e/pool
I0403 14:18:58.363780 29556 net.cpp:141] Setting up inception_4e/pool
I0403 14:18:58.363806 29556 net.cpp:148] Top shape: 24 528 14 14 (2483712)
I0403 14:18:58.363821 29556 net.cpp:156] Memory required for data: 1252085280
I0403 14:18:58.363836 29556 layer_factory.hpp:77] Creating layer inception_4e/pool_proj
I0403 14:18:58.363858 29556 net.cpp:91] Creating Layer inception_4e/pool_proj
I0403 14:18:58.363878 29556 net.cpp:425] inception_4e/pool_proj <- inception_4e/pool
I0403 14:18:58.363900 29556 net.cpp:399] inception_4e/pool_proj -> inception_4e/pool_proj
I0403 14:18:58.365468 29556 net.cpp:141] Setting up inception_4e/pool_proj
I0403 14:18:58.365496 29556 net.cpp:148] Top shape: 24 128 14 14 (602112)
I0403 14:18:58.365527 29556 net.cpp:156] Memory required for data: 1254493728
I0403 14:18:58.365548 29556 layer_factory.hpp:77] Creating layer inception_4e/relu_pool_proj
I0403 14:18:58.365571 29556 net.cpp:91] Creating Layer inception_4e/relu_pool_proj
I0403 14:18:58.365588 29556 net.cpp:425] inception_4e/relu_pool_proj <- inception_4e/pool_proj
I0403 14:18:58.365607 29556 net.cpp:386] inception_4e/relu_pool_proj -> inception_4e/pool_proj (in-place)
I0403 14:18:58.365911 29556 net.cpp:141] Setting up inception_4e/relu_pool_proj
I0403 14:18:58.365938 29556 net.cpp:148] Top shape: 24 128 14 14 (602112)
I0403 14:18:58.365963 29556 net.cpp:156] Memory required for data: 1256902176
I0403 14:18:58.365978 29556 layer_factory.hpp:77] Creating layer inception_4e/output
I0403 14:18:58.365999 29556 net.cpp:91] Creating Layer inception_4e/output
I0403 14:18:58.366016 29556 net.cpp:425] inception_4e/output <- inception_4e/1x1
I0403 14:18:58.366034 29556 net.cpp:425] inception_4e/output <- inception_4e/3x3
I0403 14:18:58.366051 29556 net.cpp:425] inception_4e/output <- inception_4e/5x5
I0403 14:18:58.366067 29556 net.cpp:425] inception_4e/output <- inception_4e/pool_proj
I0403 14:18:58.366086 29556 net.cpp:399] inception_4e/output -> inception_4e/output
I0403 14:18:58.366139 29556 net.cpp:141] Setting up inception_4e/output
I0403 14:18:58.366164 29556 net.cpp:148] Top shape: 24 832 14 14 (3913728)
I0403 14:18:58.366179 29556 net.cpp:156] Memory required for data: 1272557088
I0403 14:18:58.366195 29556 layer_factory.hpp:77] Creating layer pool4/3x3_s2
I0403 14:18:58.366214 29556 net.cpp:91] Creating Layer pool4/3x3_s2
I0403 14:18:58.366230 29556 net.cpp:425] pool4/3x3_s2 <- inception_4e/output
I0403 14:18:58.366251 29556 net.cpp:399] pool4/3x3_s2 -> pool4/3x3_s2
I0403 14:18:58.366329 29556 net.cpp:141] Setting up pool4/3x3_s2
I0403 14:18:58.366374 29556 net.cpp:148] Top shape: 24 832 7 7 (978432)
I0403 14:18:58.366392 29556 net.cpp:156] Memory required for data: 1276470816
I0403 14:18:58.366408 29556 layer_factory.hpp:77] Creating layer pool4/3x3_s2_pool4/3x3_s2_0_split
I0403 14:18:58.366427 29556 net.cpp:91] Creating Layer pool4/3x3_s2_pool4/3x3_s2_0_split
I0403 14:18:58.366443 29556 net.cpp:425] pool4/3x3_s2_pool4/3x3_s2_0_split <- pool4/3x3_s2
I0403 14:18:58.366462 29556 net.cpp:399] pool4/3x3_s2_pool4/3x3_s2_0_split -> pool4/3x3_s2_pool4/3x3_s2_0_split_0
I0403 14:18:58.366487 29556 net.cpp:399] pool4/3x3_s2_pool4/3x3_s2_0_split -> pool4/3x3_s2_pool4/3x3_s2_0_split_1
I0403 14:18:58.366509 29556 net.cpp:399] pool4/3x3_s2_pool4/3x3_s2_0_split -> pool4/3x3_s2_pool4/3x3_s2_0_split_2
I0403 14:18:58.366533 29556 net.cpp:399] pool4/3x3_s2_pool4/3x3_s2_0_split -> pool4/3x3_s2_pool4/3x3_s2_0_split_3
I0403 14:18:58.366631 29556 net.cpp:141] Setting up pool4/3x3_s2_pool4/3x3_s2_0_split
I0403 14:18:58.366667 29556 net.cpp:148] Top shape: 24 832 7 7 (978432)
I0403 14:18:58.366683 29556 net.cpp:148] Top shape: 24 832 7 7 (978432)
I0403 14:18:58.366699 29556 net.cpp:148] Top shape: 24 832 7 7 (978432)
I0403 14:18:58.366716 29556 net.cpp:148] Top shape: 24 832 7 7 (978432)
I0403 14:18:58.366730 29556 net.cpp:156] Memory required for data: 1292125728
I0403 14:18:58.366745 29556 layer_factory.hpp:77] Creating layer inception_5a/1x1
I0403 14:18:58.366768 29556 net.cpp:91] Creating Layer inception_5a/1x1
I0403 14:18:58.366788 29556 net.cpp:425] inception_5a/1x1 <- pool4/3x3_s2_pool4/3x3_s2_0_split_0
I0403 14:18:58.366808 29556 net.cpp:399] inception_5a/1x1 -> inception_5a/1x1
I0403 14:18:58.369839 29556 net.cpp:141] Setting up inception_5a/1x1
I0403 14:18:58.369870 29556 net.cpp:148] Top shape: 24 256 7 7 (301056)
I0403 14:18:58.369887 29556 net.cpp:156] Memory required for data: 1293329952
I0403 14:18:58.369907 29556 layer_factory.hpp:77] Creating layer inception_5a/relu_1x1
I0403 14:18:58.369930 29556 net.cpp:91] Creating Layer inception_5a/relu_1x1
I0403 14:18:58.369948 29556 net.cpp:425] inception_5a/relu_1x1 <- inception_5a/1x1
I0403 14:18:58.369966 29556 net.cpp:386] inception_5a/relu_1x1 -> inception_5a/1x1 (in-place)
I0403 14:18:58.370313 29556 net.cpp:141] Setting up inception_5a/relu_1x1
I0403 14:18:58.370342 29556 net.cpp:148] Top shape: 24 256 7 7 (301056)
I0403 14:18:58.370363 29556 net.cpp:156] Memory required for data: 1294534176
I0403 14:18:58.370380 29556 layer_factory.hpp:77] Creating layer inception_5a/3x3_reduce
I0403 14:18:58.370407 29556 net.cpp:91] Creating Layer inception_5a/3x3_reduce
I0403 14:18:58.370427 29556 net.cpp:425] inception_5a/3x3_reduce <- pool4/3x3_s2_pool4/3x3_s2_0_split_1
I0403 14:18:58.370448 29556 net.cpp:399] inception_5a/3x3_reduce -> inception_5a/3x3_reduce
I0403 14:18:58.373092 29556 net.cpp:141] Setting up inception_5a/3x3_reduce
I0403 14:18:58.373123 29556 net.cpp:148] Top shape: 24 160 7 7 (188160)
I0403 14:18:58.373141 29556 net.cpp:156] Memory required for data: 1295286816
I0403 14:18:58.373159 29556 layer_factory.hpp:77] Creating layer inception_5a/relu_3x3_reduce
I0403 14:18:58.373180 29556 net.cpp:91] Creating Layer inception_5a/relu_3x3_reduce
I0403 14:18:58.373198 29556 net.cpp:425] inception_5a/relu_3x3_reduce <- inception_5a/3x3_reduce
I0403 14:18:58.373217 29556 net.cpp:386] inception_5a/relu_3x3_reduce -> inception_5a/3x3_reduce (in-place)
I0403 14:18:58.373436 29556 net.cpp:141] Setting up inception_5a/relu_3x3_reduce
I0403 14:18:58.373472 29556 net.cpp:148] Top shape: 24 160 7 7 (188160)
I0403 14:18:58.373488 29556 net.cpp:156] Memory required for data: 1296039456
I0403 14:18:58.373504 29556 layer_factory.hpp:77] Creating layer inception_5a/3x3
I0403 14:18:58.373531 29556 net.cpp:91] Creating Layer inception_5a/3x3
I0403 14:18:58.373551 29556 net.cpp:425] inception_5a/3x3 <- inception_5a/3x3_reduce
I0403 14:18:58.373571 29556 net.cpp:399] inception_5a/3x3 -> inception_5a/3x3
I0403 14:18:58.379025 29556 net.cpp:141] Setting up inception_5a/3x3
I0403 14:18:58.379057 29556 net.cpp:148] Top shape: 24 320 7 7 (376320)
I0403 14:18:58.379076 29556 net.cpp:156] Memory required for data: 1297544736
I0403 14:18:58.379096 29556 layer_factory.hpp:77] Creating layer inception_5a/relu_3x3
I0403 14:18:58.379114 29556 net.cpp:91] Creating Layer inception_5a/relu_3x3
I0403 14:18:58.379132 29556 net.cpp:425] inception_5a/relu_3x3 <- inception_5a/3x3
I0403 14:18:58.379149 29556 net.cpp:386] inception_5a/relu_3x3 -> inception_5a/3x3 (in-place)
I0403 14:18:58.379480 29556 net.cpp:141] Setting up inception_5a/relu_3x3
I0403 14:18:58.379511 29556 net.cpp:148] Top shape: 24 320 7 7 (376320)
I0403 14:18:58.379528 29556 net.cpp:156] Memory required for data: 1299050016
I0403 14:18:58.379544 29556 layer_factory.hpp:77] Creating layer inception_5a/5x5_reduce
I0403 14:18:58.379566 29556 net.cpp:91] Creating Layer inception_5a/5x5_reduce
I0403 14:18:58.379596 29556 net.cpp:425] inception_5a/5x5_reduce <- pool4/3x3_s2_pool4/3x3_s2_0_split_2
I0403 14:18:58.379619 29556 net.cpp:399] inception_5a/5x5_reduce -> inception_5a/5x5_reduce
I0403 14:18:58.380877 29556 net.cpp:141] Setting up inception_5a/5x5_reduce
I0403 14:18:58.380909 29556 net.cpp:148] Top shape: 24 32 7 7 (37632)
I0403 14:18:58.380926 29556 net.cpp:156] Memory required for data: 1299200544
I0403 14:18:58.380946 29556 layer_factory.hpp:77] Creating layer inception_5a/relu_5x5_reduce
I0403 14:18:58.380965 29556 net.cpp:91] Creating Layer inception_5a/relu_5x5_reduce
I0403 14:18:58.380981 29556 net.cpp:425] inception_5a/relu_5x5_reduce <- inception_5a/5x5_reduce
I0403 14:18:58.381001 29556 net.cpp:386] inception_5a/relu_5x5_reduce -> inception_5a/5x5_reduce (in-place)
I0403 14:18:58.381312 29556 net.cpp:141] Setting up inception_5a/relu_5x5_reduce
I0403 14:18:58.381342 29556 net.cpp:148] Top shape: 24 32 7 7 (37632)
I0403 14:18:58.381364 29556 net.cpp:156] Memory required for data: 1299351072
I0403 14:18:58.381379 29556 layer_factory.hpp:77] Creating layer inception_5a/5x5
I0403 14:18:58.381402 29556 net.cpp:91] Creating Layer inception_5a/5x5
I0403 14:18:58.381422 29556 net.cpp:425] inception_5a/5x5 <- inception_5a/5x5_reduce
I0403 14:18:58.381441 29556 net.cpp:399] inception_5a/5x5 -> inception_5a/5x5
I0403 14:18:58.383236 29556 net.cpp:141] Setting up inception_5a/5x5
I0403 14:18:58.383282 29556 net.cpp:148] Top shape: 24 128 7 7 (150528)
I0403 14:18:58.383299 29556 net.cpp:156] Memory required for data: 1299953184
I0403 14:18:58.383319 29556 layer_factory.hpp:77] Creating layer inception_5a/relu_5x5
I0403 14:18:58.383337 29556 net.cpp:91] Creating Layer inception_5a/relu_5x5
I0403 14:18:58.383365 29556 net.cpp:425] inception_5a/relu_5x5 <- inception_5a/5x5
I0403 14:18:58.383386 29556 net.cpp:386] inception_5a/relu_5x5 -> inception_5a/5x5 (in-place)
I0403 14:18:58.383594 29556 net.cpp:141] Setting up inception_5a/relu_5x5
I0403 14:18:58.383622 29556 net.cpp:148] Top shape: 24 128 7 7 (150528)
I0403 14:18:58.383640 29556 net.cpp:156] Memory required for data: 1300555296
I0403 14:18:58.383656 29556 layer_factory.hpp:77] Creating layer inception_5a/pool
I0403 14:18:58.383673 29556 net.cpp:91] Creating Layer inception_5a/pool
I0403 14:18:58.383689 29556 net.cpp:425] inception_5a/pool <- pool4/3x3_s2_pool4/3x3_s2_0_split_3
I0403 14:18:58.383710 29556 net.cpp:399] inception_5a/pool -> inception_5a/pool
I0403 14:18:58.383785 29556 net.cpp:141] Setting up inception_5a/pool
I0403 14:18:58.383811 29556 net.cpp:148] Top shape: 24 832 7 7 (978432)
I0403 14:18:58.383828 29556 net.cpp:156] Memory required for data: 1304469024
I0403 14:18:58.383844 29556 layer_factory.hpp:77] Creating layer inception_5a/pool_proj
I0403 14:18:58.383865 29556 net.cpp:91] Creating Layer inception_5a/pool_proj
I0403 14:18:58.383882 29556 net.cpp:425] inception_5a/pool_proj <- inception_5a/pool
I0403 14:18:58.383904 29556 net.cpp:399] inception_5a/pool_proj -> inception_5a/pool_proj
I0403 14:18:58.386273 29556 net.cpp:141] Setting up inception_5a/pool_proj
I0403 14:18:58.386303 29556 net.cpp:148] Top shape: 24 128 7 7 (150528)
I0403 14:18:58.386319 29556 net.cpp:156] Memory required for data: 1305071136
I0403 14:18:58.386338 29556 layer_factory.hpp:77] Creating layer inception_5a/relu_pool_proj
I0403 14:18:58.386364 29556 net.cpp:91] Creating Layer inception_5a/relu_pool_proj
I0403 14:18:58.386382 29556 net.cpp:425] inception_5a/relu_pool_proj <- inception_5a/pool_proj
I0403 14:18:58.386400 29556 net.cpp:386] inception_5a/relu_pool_proj -> inception_5a/pool_proj (in-place)
I0403 14:18:58.386705 29556 net.cpp:141] Setting up inception_5a/relu_pool_proj
I0403 14:18:58.386734 29556 net.cpp:148] Top shape: 24 128 7 7 (150528)
I0403 14:18:58.386749 29556 net.cpp:156] Memory required for data: 1305673248
I0403 14:18:58.386765 29556 layer_factory.hpp:77] Creating layer inception_5a/output
I0403 14:18:58.386786 29556 net.cpp:91] Creating Layer inception_5a/output
I0403 14:18:58.386802 29556 net.cpp:425] inception_5a/output <- inception_5a/1x1
I0403 14:18:58.386819 29556 net.cpp:425] inception_5a/output <- inception_5a/3x3
I0403 14:18:58.386837 29556 net.cpp:425] inception_5a/output <- inception_5a/5x5
I0403 14:18:58.386853 29556 net.cpp:425] inception_5a/output <- inception_5a/pool_proj
I0403 14:18:58.386872 29556 net.cpp:399] inception_5a/output -> inception_5a/output
I0403 14:18:58.386929 29556 net.cpp:141] Setting up inception_5a/output
I0403 14:18:58.386953 29556 net.cpp:148] Top shape: 24 832 7 7 (978432)
I0403 14:18:58.386968 29556 net.cpp:156] Memory required for data: 1309586976
I0403 14:18:58.386983 29556 layer_factory.hpp:77] Creating layer inception_5a/output_inception_5a/output_0_split
I0403 14:18:58.387001 29556 net.cpp:91] Creating Layer inception_5a/output_inception_5a/output_0_split
I0403 14:18:58.387018 29556 net.cpp:425] inception_5a/output_inception_5a/output_0_split <- inception_5a/output
I0403 14:18:58.387038 29556 net.cpp:399] inception_5a/output_inception_5a/output_0_split -> inception_5a/output_inception_5a/output_0_split_0
I0403 14:18:58.387060 29556 net.cpp:399] inception_5a/output_inception_5a/output_0_split -> inception_5a/output_inception_5a/output_0_split_1
I0403 14:18:58.387082 29556 net.cpp:399] inception_5a/output_inception_5a/output_0_split -> inception_5a/output_inception_5a/output_0_split_2
I0403 14:18:58.387104 29556 net.cpp:399] inception_5a/output_inception_5a/output_0_split -> inception_5a/output_inception_5a/output_0_split_3
I0403 14:18:58.387223 29556 net.cpp:141] Setting up inception_5a/output_inception_5a/output_0_split
I0403 14:18:58.387249 29556 net.cpp:148] Top shape: 24 832 7 7 (978432)
I0403 14:18:58.387269 29556 net.cpp:148] Top shape: 24 832 7 7 (978432)
I0403 14:18:58.387285 29556 net.cpp:148] Top shape: 24 832 7 7 (978432)
I0403 14:18:58.387300 29556 net.cpp:148] Top shape: 24 832 7 7 (978432)
I0403 14:18:58.387315 29556 net.cpp:156] Memory required for data: 1325241888
I0403 14:18:58.387329 29556 layer_factory.hpp:77] Creating layer inception_5b/1x1
I0403 14:18:58.387358 29556 net.cpp:91] Creating Layer inception_5b/1x1
I0403 14:18:58.387378 29556 net.cpp:425] inception_5b/1x1 <- inception_5a/output_inception_5a/output_0_split_0
I0403 14:18:58.387398 29556 net.cpp:399] inception_5b/1x1 -> inception_5b/1x1
I0403 14:18:58.391353 29556 net.cpp:141] Setting up inception_5b/1x1
I0403 14:18:58.391386 29556 net.cpp:148] Top shape: 24 384 7 7 (451584)
I0403 14:18:58.391402 29556 net.cpp:156] Memory required for data: 1327048224
I0403 14:18:58.391422 29556 layer_factory.hpp:77] Creating layer inception_5b/relu_1x1
I0403 14:18:58.391444 29556 net.cpp:91] Creating Layer inception_5b/relu_1x1
I0403 14:18:58.391463 29556 net.cpp:425] inception_5b/relu_1x1 <- inception_5b/1x1
I0403 14:18:58.391481 29556 net.cpp:386] inception_5b/relu_1x1 -> inception_5b/1x1 (in-place)
I0403 14:18:58.391813 29556 net.cpp:141] Setting up inception_5b/relu_1x1
I0403 14:18:58.391854 29556 net.cpp:148] Top shape: 24 384 7 7 (451584)
I0403 14:18:58.391878 29556 net.cpp:156] Memory required for data: 1328854560
I0403 14:18:58.391907 29556 layer_factory.hpp:77] Creating layer inception_5b/3x3_reduce
I0403 14:18:58.391930 29556 net.cpp:91] Creating Layer inception_5b/3x3_reduce
I0403 14:18:58.391952 29556 net.cpp:425] inception_5b/3x3_reduce <- inception_5a/output_inception_5a/output_0_split_1
I0403 14:18:58.391976 29556 net.cpp:399] inception_5b/3x3_reduce -> inception_5b/3x3_reduce
I0403 14:18:58.394801 29556 net.cpp:141] Setting up inception_5b/3x3_reduce
I0403 14:18:58.394832 29556 net.cpp:148] Top shape: 24 192 7 7 (225792)
I0403 14:18:58.394850 29556 net.cpp:156] Memory required for data: 1329757728
I0403 14:18:58.394870 29556 layer_factory.hpp:77] Creating layer inception_5b/relu_3x3_reduce
I0403 14:18:58.394891 29556 net.cpp:91] Creating Layer inception_5b/relu_3x3_reduce
I0403 14:18:58.394915 29556 net.cpp:425] inception_5b/relu_3x3_reduce <- inception_5b/3x3_reduce
I0403 14:18:58.394934 29556 net.cpp:386] inception_5b/relu_3x3_reduce -> inception_5b/3x3_reduce (in-place)
I0403 14:18:58.395133 29556 net.cpp:141] Setting up inception_5b/relu_3x3_reduce
I0403 14:18:58.395161 29556 net.cpp:148] Top shape: 24 192 7 7 (225792)
I0403 14:18:58.395179 29556 net.cpp:156] Memory required for data: 1330660896
I0403 14:18:58.395195 29556 layer_factory.hpp:77] Creating layer inception_5b/3x3
I0403 14:18:58.395217 29556 net.cpp:91] Creating Layer inception_5b/3x3
I0403 14:18:58.395236 29556 net.cpp:425] inception_5b/3x3 <- inception_5b/3x3_reduce
I0403 14:18:58.395256 29556 net.cpp:399] inception_5b/3x3 -> inception_5b/3x3
I0403 14:18:58.402273 29556 net.cpp:141] Setting up inception_5b/3x3
I0403 14:18:58.402304 29556 net.cpp:148] Top shape: 24 384 7 7 (451584)
I0403 14:18:58.402321 29556 net.cpp:156] Memory required for data: 1332467232
I0403 14:18:58.402341 29556 layer_factory.hpp:77] Creating layer inception_5b/relu_3x3
I0403 14:18:58.402369 29556 net.cpp:91] Creating Layer inception_5b/relu_3x3
I0403 14:18:58.402387 29556 net.cpp:425] inception_5b/relu_3x3 <- inception_5b/3x3
I0403 14:18:58.402406 29556 net.cpp:386] inception_5b/relu_3x3 -> inception_5b/3x3 (in-place)
I0403 14:18:58.402725 29556 net.cpp:141] Setting up inception_5b/relu_3x3
I0403 14:18:58.402753 29556 net.cpp:148] Top shape: 24 384 7 7 (451584)
I0403 14:18:58.402770 29556 net.cpp:156] Memory required for data: 1334273568
I0403 14:18:58.402786 29556 layer_factory.hpp:77] Creating layer inception_5b/5x5_reduce
I0403 14:18:58.402835 29556 net.cpp:91] Creating Layer inception_5b/5x5_reduce
I0403 14:18:58.402855 29556 net.cpp:425] inception_5b/5x5_reduce <- inception_5a/output_inception_5a/output_0_split_2
I0403 14:18:58.402879 29556 net.cpp:399] inception_5b/5x5_reduce -> inception_5b/5x5_reduce
I0403 14:18:58.404214 29556 net.cpp:141] Setting up inception_5b/5x5_reduce
I0403 14:18:58.404244 29556 net.cpp:148] Top shape: 24 48 7 7 (56448)
I0403 14:18:58.404263 29556 net.cpp:156] Memory required for data: 1334499360
I0403 14:18:58.404283 29556 layer_factory.hpp:77] Creating layer inception_5b/relu_5x5_reduce
I0403 14:18:58.404304 29556 net.cpp:91] Creating Layer inception_5b/relu_5x5_reduce
I0403 14:18:58.404321 29556 net.cpp:425] inception_5b/relu_5x5_reduce <- inception_5b/5x5_reduce
I0403 14:18:58.404340 29556 net.cpp:386] inception_5b/relu_5x5_reduce -> inception_5b/5x5_reduce (in-place)
I0403 14:18:58.404734 29556 net.cpp:141] Setting up inception_5b/relu_5x5_reduce
I0403 14:18:58.404762 29556 net.cpp:148] Top shape: 24 48 7 7 (56448)
I0403 14:18:58.404779 29556 net.cpp:156] Memory required for data: 1334725152
I0403 14:18:58.404795 29556 layer_factory.hpp:77] Creating layer inception_5b/5x5
I0403 14:18:58.404817 29556 net.cpp:91] Creating Layer inception_5b/5x5
I0403 14:18:58.404836 29556 net.cpp:425] inception_5b/5x5 <- inception_5b/5x5_reduce
I0403 14:18:58.404855 29556 net.cpp:399] inception_5b/5x5 -> inception_5b/5x5
I0403 14:18:58.407045 29556 net.cpp:141] Setting up inception_5b/5x5
I0403 14:18:58.407075 29556 net.cpp:148] Top shape: 24 128 7 7 (150528)
I0403 14:18:58.407093 29556 net.cpp:156] Memory required for data: 1335327264
I0403 14:18:58.407112 29556 layer_factory.hpp:77] Creating layer inception_5b/relu_5x5
I0403 14:18:58.407135 29556 net.cpp:91] Creating Layer inception_5b/relu_5x5
I0403 14:18:58.407152 29556 net.cpp:425] inception_5b/relu_5x5 <- inception_5b/5x5
I0403 14:18:58.407171 29556 net.cpp:386] inception_5b/relu_5x5 -> inception_5b/5x5 (in-place)
I0403 14:18:58.407383 29556 net.cpp:141] Setting up inception_5b/relu_5x5
I0403 14:18:58.407410 29556 net.cpp:148] Top shape: 24 128 7 7 (150528)
I0403 14:18:58.407428 29556 net.cpp:156] Memory required for data: 1335929376
I0403 14:18:58.407444 29556 layer_factory.hpp:77] Creating layer inception_5b/pool
I0403 14:18:58.407464 29556 net.cpp:91] Creating Layer inception_5b/pool
I0403 14:18:58.407481 29556 net.cpp:425] inception_5b/pool <- inception_5a/output_inception_5a/output_0_split_3
I0403 14:18:58.407503 29556 net.cpp:399] inception_5b/pool -> inception_5b/pool
I0403 14:18:58.407582 29556 net.cpp:141] Setting up inception_5b/pool
I0403 14:18:58.407608 29556 net.cpp:148] Top shape: 24 832 7 7 (978432)
I0403 14:18:58.407625 29556 net.cpp:156] Memory required for data: 1339843104
I0403 14:18:58.407641 29556 layer_factory.hpp:77] Creating layer inception_5b/pool_proj
I0403 14:18:58.407667 29556 net.cpp:91] Creating Layer inception_5b/pool_proj
I0403 14:18:58.407685 29556 net.cpp:425] inception_5b/pool_proj <- inception_5b/pool
I0403 14:18:58.407704 29556 net.cpp:399] inception_5b/pool_proj -> inception_5b/pool_proj
I0403 14:18:58.410091 29556 net.cpp:141] Setting up inception_5b/pool_proj
I0403 14:18:58.410122 29556 net.cpp:148] Top shape: 24 128 7 7 (150528)
I0403 14:18:58.410140 29556 net.cpp:156] Memory required for data: 1340445216
I0403 14:18:58.410161 29556 layer_factory.hpp:77] Creating layer inception_5b/relu_pool_proj
I0403 14:18:58.410181 29556 net.cpp:91] Creating Layer inception_5b/relu_pool_proj
I0403 14:18:58.410200 29556 net.cpp:425] inception_5b/relu_pool_proj <- inception_5b/pool_proj
I0403 14:18:58.410218 29556 net.cpp:386] inception_5b/relu_pool_proj -> inception_5b/pool_proj (in-place)
I0403 14:18:58.410533 29556 net.cpp:141] Setting up inception_5b/relu_pool_proj
I0403 14:18:58.410562 29556 net.cpp:148] Top shape: 24 128 7 7 (150528)
I0403 14:18:58.410578 29556 net.cpp:156] Memory required for data: 1341047328
I0403 14:18:58.410593 29556 layer_factory.hpp:77] Creating layer inception_5b/output
I0403 14:18:58.410614 29556 net.cpp:91] Creating Layer inception_5b/output
I0403 14:18:58.410646 29556 net.cpp:425] inception_5b/output <- inception_5b/1x1
I0403 14:18:58.410666 29556 net.cpp:425] inception_5b/output <- inception_5b/3x3
I0403 14:18:58.410683 29556 net.cpp:425] inception_5b/output <- inception_5b/5x5
I0403 14:18:58.410701 29556 net.cpp:425] inception_5b/output <- inception_5b/pool_proj
I0403 14:18:58.410719 29556 net.cpp:399] inception_5b/output -> inception_5b/output
I0403 14:18:58.410778 29556 net.cpp:141] Setting up inception_5b/output
I0403 14:18:58.410804 29556 net.cpp:148] Top shape: 24 1024 7 7 (1204224)
I0403 14:18:58.410820 29556 net.cpp:156] Memory required for data: 1345864224
I0403 14:18:58.410836 29556 layer_factory.hpp:77] Creating layer pool5/7x7_s1
I0403 14:18:58.410856 29556 net.cpp:91] Creating Layer pool5/7x7_s1
I0403 14:18:58.410871 29556 net.cpp:425] pool5/7x7_s1 <- inception_5b/output
I0403 14:18:58.410895 29556 net.cpp:399] pool5/7x7_s1 -> pool5/7x7_s1
I0403 14:18:58.411121 29556 net.cpp:141] Setting up pool5/7x7_s1
I0403 14:18:58.411151 29556 net.cpp:148] Top shape: 24 1024 1 1 (24576)
I0403 14:18:58.411169 29556 net.cpp:156] Memory required for data: 1345962528
I0403 14:18:58.411183 29556 layer_factory.hpp:77] Creating layer pool5/drop_7x7_s1
I0403 14:18:58.411202 29556 net.cpp:91] Creating Layer pool5/drop_7x7_s1
I0403 14:18:58.411219 29556 net.cpp:425] pool5/drop_7x7_s1 <- pool5/7x7_s1
I0403 14:18:58.411237 29556 net.cpp:386] pool5/drop_7x7_s1 -> pool5/7x7_s1 (in-place)
I0403 14:18:58.411290 29556 net.cpp:141] Setting up pool5/drop_7x7_s1
I0403 14:18:58.411314 29556 net.cpp:148] Top shape: 24 1024 1 1 (24576)
I0403 14:18:58.411330 29556 net.cpp:156] Memory required for data: 1346060832
I0403 14:18:58.411351 29556 layer_factory.hpp:77] Creating layer loss3/classifier_plantvillage
I0403 14:18:58.411386 29556 net.cpp:91] Creating Layer loss3/classifier_plantvillage
I0403 14:18:58.411406 29556 net.cpp:425] loss3/classifier_plantvillage <- pool5/7x7_s1
I0403 14:18:58.411427 29556 net.cpp:399] loss3/classifier_plantvillage -> loss3/classifier_plantvillage
I0403 14:18:58.411865 29556 net.cpp:141] Setting up loss3/classifier_plantvillage
I0403 14:18:58.411891 29556 net.cpp:148] Top shape: 24 38 (912)
I0403 14:18:58.411908 29556 net.cpp:156] Memory required for data: 1346064480
I0403 14:18:58.411926 29556 layer_factory.hpp:77] Creating layer loss3/classifier_plantvillage_loss3/classifier_plantvillage_0_split
I0403 14:18:58.411947 29556 net.cpp:91] Creating Layer loss3/classifier_plantvillage_loss3/classifier_plantvillage_0_split
I0403 14:18:58.411963 29556 net.cpp:425] loss3/classifier_plantvillage_loss3/classifier_plantvillage_0_split <- loss3/classifier_plantvillage
I0403 14:18:58.411985 29556 net.cpp:399] loss3/classifier_plantvillage_loss3/classifier_plantvillage_0_split -> loss3/classifier_plantvillage_loss3/classifier_plantvillage_0_split_0
I0403 14:18:58.412008 29556 net.cpp:399] loss3/classifier_plantvillage_loss3/classifier_plantvillage_0_split -> loss3/classifier_plantvillage_loss3/classifier_plantvillage_0_split_1
I0403 14:18:58.412029 29556 net.cpp:399] loss3/classifier_plantvillage_loss3/classifier_plantvillage_0_split -> loss3/classifier_plantvillage_loss3/classifier_plantvillage_0_split_2
I0403 14:18:58.412051 29556 net.cpp:399] loss3/classifier_plantvillage_loss3/classifier_plantvillage_0_split -> loss3/classifier_plantvillage_loss3/classifier_plantvillage_0_split_3
I0403 14:18:58.412159 29556 net.cpp:141] Setting up loss3/classifier_plantvillage_loss3/classifier_plantvillage_0_split
I0403 14:18:58.412188 29556 net.cpp:148] Top shape: 24 38 (912)
I0403 14:18:58.412205 29556 net.cpp:148] Top shape: 24 38 (912)
I0403 14:18:58.412222 29556 net.cpp:148] Top shape: 24 38 (912)
I0403 14:18:58.412238 29556 net.cpp:148] Top shape: 24 38 (912)
I0403 14:18:58.412252 29556 net.cpp:156] Memory required for data: 1346079072
I0403 14:18:58.412269 29556 layer_factory.hpp:77] Creating layer loss1/loss
I0403 14:18:58.412292 29556 net.cpp:91] Creating Layer loss1/loss
I0403 14:18:58.412310 29556 net.cpp:425] loss1/loss <- loss1/classifier_plantvillage_loss1/classifier_plantvillage_0_split_0
I0403 14:18:58.412343 29556 net.cpp:425] loss1/loss <- label_data_1_split_0
…
