…
I0403 14:13:29.226974 29452 net.cpp:313] The NetState phase (1) differed from the phase (0) specified by a rule in layer data
I0403 14:13:29.228262 29452 net.cpp:49] Initializing net from parameters: 
state {
  phase: TEST
}
layer {
  name: "data"
  type: "Data"
  top: "data"
  top: "label"
  include {
    phase: TEST
  }
  transform_param {
    mirror: false
    crop_size: 224
    mean_file: "/home/mohanty/data/final_dataset/lmdb/color-20-80/mean.binaryproto"
  }
  data_param {
    source: "/home/mohanty/data/final_dataset/lmdb/color-20-80/test_db"
    batch_size: 24
    backend: LMDB
  }
}
layer {
  name: "conv1/7x7_s2"
  type: "Convolution"
  bottom: "data"
  top: "conv1/7x7_s2"
  param {
    lr_mult: 1
    decay_mult: 1
  }
  param {
    lr_mult: 2
    decay_mult: 0
  }
  convolution_param {
    num_output: 64
    pad: 3
    kernel_size: 7
    stride: 2
    weight_filler {
      type: "xavier"
      std: 0.1
    }
    bias_filler {
      type: "constant"
      value: 0.2
    }
  }
}
layer {
  name: "conv1/relu_7x7"
  type: "ReLU"
  bottom: "conv1/7x7_s2"
  top: "conv1/7x7_s2"
}
layer {
  name: "pool1/3x3_s2"
  type: "Pooling"
  bottom: "conv1/7x7_s2"
  top: "pool1/3x3_s2"
  pooling_param {
    pool: MAX
    kernel_size: 3
    stride: 2
  }
}
layer {
  name: "pool1/norm1"
  type: "LRN"
  bottom: "pool1/3x3_s2"
  top: "pool1/norm1"
  lrn_param {
    local_size: 5
    alpha: 0.0001
    beta: 0.75
  }
}
layer {
  name: "conv2/3x3_reduce"
  type: "Convolution"
  bottom: "pool1/norm1"
  top: "conv2/3x3_reduce"
  param {
    lr_mult: 1
    decay_mult: 1
  }
  param {
    lr_mult: 2
    decay_mult: 0
  }
  convolution_param {
    num_output: 64
    kernel_size: 1
    weight_filler {
      type: "xavier"
      std: 0.1
    }
    bias_filler {
      type: "constant"
      value: 0.2
    }
  }
}
layer {
  name: "conv2/relu_3x3_reduce"
  type: "ReLU"
  bottom: "conv2/3x3_reduce"
  top: "conv2/3x3_reduce"
}
layer {
  name: "conv2/3x3"
  type: "Convolution"
  bottom: "conv2/3x3_reduce"
  top: "conv2/3x3"
  param {
    lr_mult: 1
    decay_mult: 1
  }
  param {
    lr_mult: 2
    decay_mult: 0
  }
  convolution_param {
    num_output: 192
    pad: 1
    kernel_size: 3
    weight_filler {
      type: "xavier"
      std: 0.03
    }
    bias_filler {
      type: "constant"
      value: 0.2
    }
  }
}
layer {
  name: "conv2/relu_3x3"
  type: "ReLU"
  bottom: "conv2/3x3"
  top: "conv2/3x3"
}
layer {
  name: "conv2/norm2"
  type: "LRN"
  bottom: "conv2/3x3"
  top: "conv2/norm2"
  lrn_param {
    local_size: 5
    alpha: 0.0001
    beta: 0.75
  }
}
layer {
  name: "pool2/3x3_s2"
  type: "Pooling"
  bottom: "conv2/norm2"
  top: "pool2/3x3_s2"
  pooling_param {
    pool: MAX
    kernel_size: 3
    stride: 2
  }
}
layer {
  name: "inception_3a/1x1"
  type: "Convolution"
  bottom: "pool2/3x3_s2"
  top: "inception_3a/1x1"
  param {
    lr_mult: 1
    decay_mult: 1
  }
  param {
    lr_mult: 2
    decay_mult: 0
  }
  convolution_param {
    num_output: 64
    kernel_size: 1
    weight_filler {
      type: "xavier"
      std: 0.03
    }
    bias_filler {
      type: "constant"
      value: 0.2
    }
  }
}
layer {
  name: "inception_3a/relu_1x1"
  type: "ReLU"
  bottom: "inception_3a/1x1"
  top: "inception_3a/1x1"
}
layer {
  name: "inception_3a/3x3_reduce"
  type: "Convolution"
  bottom: "pool2/3x3_s2"
  top: "inception_3a/3x3_reduce"
  param {
    lr_mult: 1
    decay_mult: 1
  }
  param {
    lr_mult: 2
    decay_mult: 0
  }
  convolution_param {
    num_output: 96
    kernel_size: 1
    weight_filler {
      type: "xavier"
      std: 0.09
    }
    bias_filler {
      type: "constant"
      value: 0.2
    }
  }
}
layer {
  name: "inception_3a/relu_3x3_reduce"
  type: "ReLU"
  bottom: "inception_3a/3x3_reduce"
  top: "inception_3a/3x3_reduce"
}
layer {
  name: "inception_3a/3x3"
  type: "Convolution"
  bottom: "inception_3a/3x3_reduce"
  top: "inception_3a/3x3"
  param {
    lr_mult: 1
    decay_mult: 1
  }
  param {
    lr_mult: 2
    decay_mult: 0
  }
  convolution_param {
    num_output: 128
    pad: 1
    kernel_size: 3
    weight_filler {
      type: "xavier"
      std: 0.03
    }
    bias_filler {
      type: "constant"
      value: 0.2
    }
  }
}
layer {
  name: "inception_3a/relu_3x3"
  type: "ReLU"
  bottom: "inception_3a/3x3"
  top: "inception_3a/3x3"
}
layer {
  name: "inception_3a/5x5_reduce"
  type: "Convolution"
  bottom: "pool2/3x3_s2"
  top: "inception_3a/5x5_reduce"
  param {
    lr_mult: 1
    decay_mult: 1
  }
  param {
    lr_mult: 2
    decay_mult: 0
  }
  convolution_param {
    num_output: 16
    kernel_size: 1
    weight_filler {
      type: "xavier"
      std: 0.2
    }
    bias_filler {
      type: "constant"
      value: 0.2
    }
  }
}
layer {
  name: "inception_3a/relu_5x5_reduce"
  type: "ReLU"
  bottom: "inception_3a/5x5_reduce"
  top: "inception_3a/5x5_reduce"
}
layer {
  name: "inception_3a/5x5"
  type: "Convolution"
  bottom: "inception_3a/5x5_reduce"
  top: "inception_3a/5x5"
  param {
    lr_mult: 1
    decay_mult: 1
  }
  param {
    lr_mult: 2
    decay_mult: 0
  }
  convolution_param {
    num_output: 32
    pad: 2
    kernel_size: 5
    weight_filler {
      type: "xavier"
      std: 0.03
    }
    bias_filler {
      type: "constant"
      value: 0.2
    }
  }
}
layer {
  name: "inception_3a/relu_5x5"
  type: "ReLU"
  bottom: "inception_3a/5x5"
  top: "inception_3a/5x5"
}
layer {
  name: "inception_3a/pool"
  type: "Pooling"
  bottom: "pool2/3x3_s2"
  top: "inception_3a/pool"
  pooling_param {
    pool: MAX
    kernel_size: 3
    stride: 1
    pad: 1
  }
}
layer {
  name: "inception_3a/pool_proj"
  type: "Convolution"
  bottom: "inception_3a/pool"
  top: "inception_3a/pool_proj"
  param {
    lr_mult: 1
    decay_mult: 1
  }
  param {
    lr_mult: 2
    decay_mult: 0
  }
  convolution_param {
    num_output: 32
    kernel_size: 1
    weight_filler {
      type: "xavier"
      std: 0.1
    }
    bias_filler {
      type: "constant"
      value: 0.2
    }
  }
}
layer {
  name: "inception_3a/relu_pool_proj"
  type: "ReLU"
  bottom: "inception_3a/pool_proj"
  top: "inception_3a/pool_proj"
}
layer {
  name: "inception_3a/output"
  type: "Concat"
  bottom: "inception_3a/1x1"
  bottom: "inception_3a/3x3"
  bottom: "inception_3a/5x5"
  bottom: "inception_3a/pool_proj"
  top: "inception_3a/output"
}
layer {
  name: "inception_3b/1x1"
  type: "Convolution"
  bottom: "inception_3a/output"
  top: "inception_3b/1x1"
  param {
    lr_mult: 1
    decay_mult: 1
  }
  param {
    lr_mult: 2
    decay_mult: 0
  }
  convolution_param {
    num_output: 128
    kernel_size: 1
    weight_filler {
      type: "xavier"
      std: 0.03
    }
    bias_filler {
      type: "constant"
      value: 0.2
    }
  }
}
layer {
  name: "inception_3b/relu_1x1"
  type: "ReLU"
  bottom: "inception_3b/1x1"
  top: "inception_3b/1x1"
}
layer {
  name: "inception_3b/3x3_reduce"
  type: "Convolution"
  bottom: "inception_3a/output"
  top: "inception_3b/3x3_reduce"
  param {
    lr_mult: 1
    decay_mult: 1
  }
  param {
    lr_mult: 2
    decay_mult: 0
  }
  convolution_param {
    num_output: 128
    kernel_size: 1
    weight_filler {
      type: "xavier"
      std: 0.09
    }
    bias_filler {
      type: "constant"
      value: 0.2
    }
  }
}
layer {
  name: "inception_3b/relu_3x3_reduce"
  type: "ReLU"
  bottom: "inception_3b/3x3_reduce"
  top: "inception_3b/3x3_reduce"
}
layer {
  name: "inception_3b/3x3"
  type: "Convolution"
  bottom: "inception_3b/3x3_reduce"
  top: "inception_3b/3x3"
  param {
    lr_mult: 1
    decay_mult: 1
  }
  param {
    lr_mult: 2
    decay_mult: 0
  }
  convolution_param {
    num_output: 192
    pad: 1
    kernel_size: 3
    weight_filler {
      type: "xavier"
      std: 0.03
    }
    bias_filler {
      type: "constant"
      value: 0.2
    }
  }
}
layer {
  name: "inception_3b/relu_3x3"
  type: "ReLU"
  bottom: "inception_3b/3x3"
  top: "inception_3b/3x3"
}
layer {
  name: "inception_3b/5x5_reduce"
  type: "Convolution"
  bottom: "inception_3a/output"
  top: "inception_3b/5x5_reduce"
  param {
    lr_mult: 1
    decay_mult: 1
  }
  param {
    lr_mult: 2
    decay_mult: 0
  }
  convolution_param {
    num_output: 32
    kernel_size: 1
    weight_filler {
      type: "xavier"
      std: 0.2
    }
    bias_filler {
      type: "constant"
      value: 0.2
    }
  }
}
layer {
  name: "inception_3b/relu_5x5_reduce"
  type: "ReLU"
  bottom: "inception_3b/5x5_reduce"
  top: "inception_3b/5x5_reduce"
}
layer {
  name: "inception_3b/5x5"
  type: "Convolution"
  bottom: "inception_3b/5x5_reduce"
  top: "inception_3b/5x5"
  param {
    lr_mult: 1
    decay_mult: 1
  }
  param {
    lr_mult: 2
    decay_mult: 0
  }
  convolution_param {
    num_output: 96
    pad: 2
    kernel_size: 5
    weight_filler {
      type: "xavier"
      std: 0.03
    }
    bias_filler {
      type: "constant"
      value: 0.2
    }
  }
}
layer {
  name: "inception_3b/relu_5x5"
  type: "ReLU"
  bottom: "inception_3b/5x5"
  top: "inception_3b/5x5"
}
layer {
  name: "inception_3b/pool"
  type: "Pooling"
  bottom: "inception_3a/output"
  top: "inception_3b/pool"
  pooling_param {
    pool: MAX
    kernel_size: 3
    stride: 1
    pad: 1
  }
}
layer {
  name: "inception_3b/pool_proj"
  type: "Convolution"
  bottom: "inception_3b/pool"
  top: "inception_3b/pool_proj"
  param {
    lr_mult: 1
    decay_mult: 1
  }
  param {
    lr_mult: 2
    decay_mult: 0
  }
  convolution_param {
    num_output: 64
    kernel_size: 1
    weight_filler {
      type: "xavier"
      std: 0.1
    }
    bias_filler {
      type: "constant"
      value: 0.2
    }
  }
}
layer {
  name: "inception_3b/relu_pool_proj"
  type: "ReLU"
  bottom: "inception_3b/pool_proj"
  top: "inception_3b/pool_proj"
}
layer {
  name: "inception_3b/output"
  type: "Concat"
  bottom: "inception_3b/1x1"
  bottom: "inception_3b/3x3"
  bottom: "inception_3b/5x5"
  bottom: "inception_3b/pool_proj"
  top: "inception_3b/output"
}
layer {
  name: "pool3/3x3_s2"
  type: "Pooling"
  bottom: "inception_3b/output"
  top: "pool3/3x3_s2"
  pooling_param {
    pool: MAX
    kernel_size: 3
    stride: 2
  }
}
layer {
  name: "inception_4a/1x1"
  type: "Convolution"
  bottom: "pool3/3x3_s2"
  top: "inception_4a/1x1"
  param {
    lr_mult: 1
    decay_mult: 1
  }
  param {
    lr_mult: 2
    decay_mult: 0
  }
  convolution_param {
    num_output: 192
    kernel_size: 1
    weight_filler {
      type: "xavier"
      std: 0.03
    }
    bias_filler {
      type: "constant"
      value: 0.2
    }
  }
}
layer {
  name: "inception_4a/relu_1x1"
  type: "ReLU"
  bottom: "inception_4a/1x1"
  top: "inception_4a/1x1"
}
layer {
  name: "inception_4a/3x3_reduce"
  type: "Convolution"
  bottom: "pool3/3x3_s2"
  top: "inception_4a/3x3_reduce"
  param {
    lr_mult: 1
    decay_mult: 1
  }
  param {
    lr_mult: 2
    decay_mult: 0
  }
  convolution_param {
    num_output: 96
    kernel_size: 1
    weight_filler {
      type: "xavier"
      std: 0.09
    }
    bias_filler {
      type: "constant"
      value: 0.2
    }
  }
}
layer {
  name: "inception_4a/relu_3x3_reduce"
  type: "ReLU"
  bottom: "inception_4a/3x3_reduce"
  top: "inception_4a/3x3_reduce"
}
layer {
  name: "inception_4a/3x3"
  type: "Convolution"
  bottom: "inception_4a/3x3_reduce"
  top: "inception_4a/3x3"
  param {
    lr_mult: 1
    decay_mult: 1
  }
  param {
    lr_mult: 2
    decay_mult: 0
  }
  convolution_param {
    num_output: 208
    pad: 1
    kernel_size: 3
    weight_filler {
      type: "xavier"
      std: 0.03
    }
    bias_filler {
      type: "constant"
      value: 0.2
    }
  }
}
layer {
  name: "inception_4a/relu_3x3"
  type: "ReLU"
  bottom: "inception_4a/3x3"
  top: "inception_4a/3x3"
}
layer {
  name: "inception_4a/5x5_reduce"
  type: "Convolution"
  bottom: "pool3/3x3_s2"
  top: "inception_4a/5x5_reduce"
  param {
    lr_mult: 1
    decay_mult: 1
  }
  param {
    lr_mult: 2
    decay_mult: 0
  }
  convolution_param {
    num_output: 16
    kernel_size: 1
    weight_filler {
      type: "xavier"
      std: 0.2
    }
    bias_filler {
      type: "constant"
      value: 0.2
    }
  }
}
layer {
  name: "inception_4a/relu_5x5_reduce"
  type: "ReLU"
  bottom: "inception_4a/5x5_reduce"
  top: "inception_4a/5x5_reduce"
}
layer {
  name: "inception_4a/5x5"
  type: "Convolution"
  bottom: "inception_4a/5x5_reduce"
  top: "inception_4a/5x5"
  param {
    lr_mult: 1
    decay_mult: 1
  }
  param {
    lr_mult: 2
    decay_mult: 0
  }
  convolution_param {
    num_output: 48
    pad: 2
    kernel_size: 5
    weight_filler {
      type: "xavier"
      std: 0.03
    }
    bias_filler {
      type: "constant"
      value: 0.2
    }
  }
}
layer {
  name: "inception_4a/relu_5x5"
  type: "ReLU"
  bottom: "inception_4a/5x5"
  top: "inception_4a/5x5"
}
layer {
  name: "inception_4a/pool"
  type: "Pooling"
  bottom: "pool3/3x3_s2"
  top: "inception_4a/pool"
  pooling_param {
    pool: MAX
    kernel_size: 3
    stride: 1
    pad: 1
  }
}
layer {
  name: "inception_4a/pool_proj"
  type: "Convolution"
  bottom: "inception_4a/pool"
  top: "inception_4a/pool_proj"
  param {
    lr_mult: 1
    decay_mult: 1
  }
  param {
    lr_mult: 2
    decay_mult: 0
  }
  convolution_param {
    num_output: 64
    kernel_size: 1
    weight_filler {
      type: "xavier"
      std: 0.1
    }
    bias_filler {
      type: "constant"
      value: 0.2
    }
  }
}
layer {
  name: "inception_4a/relu_pool_proj"
  type: "ReLU"
  bottom: "inception_4a/pool_proj"
  top: "inception_4a/pool_proj"
}
layer {
  name: "inception_4a/output"
  type: "Concat"
  bottom: "inception_4a/1x1"
  bottom: "inception_4a/3x3"
  bottom: "inception_4a/5x5"
  bottom: "inception_4a/pool_proj"
  top: "inception_4a/output"
}
layer {
  name: "loss1/ave_pool"
  type: "Pooling"
  bottom: "inception_4a/output"
  top: "loss1/ave_pool"
  pooling_param {
    pool: AVE
    kernel_size: 5
    stride: 3
  }
}
layer {
  name: "loss1/conv"
  type: "Convolution"
  bottom: "loss1/ave_pool"
  top: "loss1/conv"
  param {
    lr_mult: 1
    decay_mult: 1
  }
  param {
    lr_mult: 2
    decay_mult: 0
  }
  convolution_param {
    num_output: 128
    kernel_size: 1
    weight_filler {
      type: "xavier"
      std: 0.08
    }
    bias_filler {
      type: "constant"
      value: 0.2
    }
  }
}
layer {
  name: "loss1/relu_conv"
  type: "ReLU"
  bottom: "loss1/conv"
  top: "loss1/conv"
}
layer {
  name: "loss1/fc"
  type: "InnerProduct"
  bottom: "loss1/conv"
  top: "loss1/fc"
  param {
    lr_mult: 1
    decay_mult: 1
  }
  param {
    lr_mult: 2
    decay_mult: 0
  }
  inner_product_param {
    num_output: 1024
    weight_filler {
      type: "xavier"
      std: 0.02
    }
    bias_filler {
      type: "constant"
      value: 0.2
    }
  }
}
layer {
  name: "loss1/relu_fc"
  type: "ReLU"
  bottom: "loss1/fc"
  top: "loss1/fc"
}
layer {
  name: "loss1/drop_fc"
  type: "Dropout"
  bottom: "loss1/fc"
  top: "loss1/fc"
  dropout_param {
    dropout_ratio: 0.7
  }
}
layer {
  name: "loss1/classifier_plantvillage"
  type: "InnerProduct"
  bottom: "loss1/fc"
  top: "loss1/classifier_plantvillage"
  param {
    lr_mult: 1
    decay_mult: 1
  }
  param {
    lr_mult: 2
    decay_mult: 0
  }
  inner_product_param {
    num_output: 38
    weight_filler {
      type: "xavier"
      std: 0.0009765625
    }
    bias_filler {
      type: "constant"
      value: 0
    }
  }
}
layer {
  name: "inception_4b/1x1"
  type: "Convolution"
  bottom: "inception_4a/output"
  top: "inception_4b/1x1"
  param {
    lr_mult: 1
    decay_mult: 1
  }
  param {
    lr_mult: 2
    decay_mult: 0
  }
  convolution_param {
    num_output: 160
    kernel_size: 1
    weight_filler {
      type: "xavier"
      std: 0.03
    }
    bias_filler {
      type: "constant"
      value: 0.2
    }
  }
}
layer {
  name: "inception_4b/relu_1x1"
  type: "ReLU"
  bottom: "inception_4b/1x1"
  top: "inception_4b/1x1"
}
layer {
  name: "inception_4b/3x3_reduce"
  type: "Convolution"
  bottom: "inception_4a/output"
  top: "inception_4b/3x3_reduce"
  param {
    lr_mult: 1
    decay_mult: 1
  }
  param {
    lr_mult: 2
    decay_mult: 0
  }
  convolution_param {
    num_output: 112
    kernel_size: 1
    weight_filler {
      type: "xavier"
      std: 0.09
    }
    bias_filler {
      type: "constant"
      value: 0.2
    }
  }
}
layer {
  name: "inception_4b/relu_3x3_reduce"
  type: "ReLU"
  bottom: "inception_4b/3x3_reduce"
  top: "inception_4b/3x3_reduce"
}
layer {
  name: "inception_4b/3x3"
  type: "Convolution"
  bottom: "inception_4b/3x3_reduce"
  top: "inception_4b/3x3"
  param {
    lr_mult: 1
    decay_mult: 1
  }
  param {
    lr_mult: 2
    decay_mult: 0
  }
  convolution_param {
    num_output: 224
    pad: 1
    kernel_size: 3
    weight_filler {
      type: "xavier"
      std: 0.03
    }
    bias_filler {
      type: "constant"
      value: 0.2
    }
  }
}
layer {
  name: "inception_4b/relu_3x3"
  type: "ReLU"
  bottom: "inception_4b/3x3"
  top: "inception_4b/3x3"
}
layer {
  name: "inception_4b/5x5_reduce"
  type: "Convolution"
  bottom: "inception_4a/output"
  top: "inception_4b/5x5_reduce"
  param {
    lr_mult: 1
    decay_mult: 1
  }
  param {
    lr_mult: 2
    decay_mult: 0
  }
  convolution_param {
    num_output: 24
    kernel_size: 1
    weight_filler {
      type: "xavier"
      std: 0.2
    }
    bias_filler {
      type: "constant"
      value: 0.2
    }
  }
}
layer {
  name: "inception_4b/relu_5x5_reduce"
  type: "ReLU"
  bottom: "inception_4b/5x5_reduce"
  top: "inception_4b/5x5_reduce"
}
layer {
  name: "inception_4b/5x5"
  type: "Convolution"
  bottom: "inception_4b/5x5_reduce"
  top: "inception_4b/5x5"
  param {
    lr_mult: 1
    decay_mult: 1
  }
  param {
    lr_mult: 2
    decay_mult: 0
  }
  convolution_param {
    num_output: 64
    pad: 2
    kernel_size: 5
    weight_filler {
      type: "xavier"
      std: 0.03
    }
    bias_filler {
      type: "constant"
      value: 0.2
    }
  }
}
layer {
  name: "inception_4b/relu_5x5"
  type: "ReLU"
  bottom: "inception_4b/5x5"
  top: "inception_4b/5x5"
}
layer {
  name: "inception_4b/pool"
  type: "Pooling"
  bottom: "inception_4a/output"
  top: "inception_4b/pool"
  pooling_param {
    pool: MAX
    kernel_size: 3
    stride: 1
    pad: 1
  }
}
layer {
  name: "inception_4b/pool_proj"
  type: "Convolution"
  bottom: "inception_4b/pool"
  top: "inception_4b/pool_proj"
  param {
    lr_mult: 1
    decay_mult: 1
  }
  param {
    lr_mult: 2
    decay_mult: 0
  }
  convolution_param {
    num_output: 64
    kernel_size: 1
    weight_filler {
      type: "xavier"
      std: 0.1
    }
    bias_filler {
      type: "constant"
      value: 0.2
    }
  }
}
layer {
  name: "inception_4b/relu_pool_proj"
  type: "ReLU"
  bottom: "inception_4b/pool_proj"
  top: "inception_4b/pool_proj"
}
layer {
  name: "inception_4b/output"
  type: "Concat"
  bottom: "inception_4b/1x1"
  bottom: "inception_4b/3x3"
  bottom: "inception_4b/5x5"
  bottom: "inception_4b/pool_proj"
  top: "inception_4b/output"
}
layer {
  name: "inception_4c/1x1"
  type: "Convolution"
  bottom: "inception_4b/output"
  top: "inception_4c/1x1"
  param {
    lr_mult: 1
    decay_mult: 1
  }
  param {
    lr_mult: 2
    decay_mult: 0
  }
  convolution_param {
    num_output: 128
    kernel_size: 1
    weight_filler {
      type: "xavier"
      std: 0.03
    }
    bias_filler {
      type: "constant"
      value: 0.2
    }
  }
}
layer {
  name: "inception_4c/relu_1x1"
  type: "ReLU"
  bottom: "inception_4c/1x1"
  top: "inception_4c/1x1"
}
layer {
  name: "inception_4c/3x3_reduce"
  type: "Convolution"
  bottom: "inception_4b/output"
  top: "inception_4c/3x3_reduce"
  param {
    lr_mult: 1
    decay_mult: 1
  }
  param {
    lr_mult: 2
    decay_mult: 0
  }
  convolution_param {
    num_output: 128
    kernel_size: 1
    weight_filler {
      type: "xavier"
      std: 0.09
    }
    bias_filler {
      type: "constant"
      value: 0.2
    }
  }
}
layer {
  name: "inception_4c/relu_3x3_reduce"
  type: "ReLU"
  bottom: "inception_4c/3x3_reduce"
  top: "inception_4c/3x3_reduce"
}
layer {
  name: "inception_4c/3x3"
  type: "Convolution"
  bottom: "inception_4c/3x3_reduce"
  top: "inception_4c/3x3"
  param {
    lr_mult: 1
    decay_mult: 1
  }
  param {
    lr_mult: 2
    decay_mult: 0
  }
  convolution_param {
    num_output: 256
    pad: 1
    kernel_size: 3
    weight_filler {
      type: "xavier"
      std: 0.03
    }
    bias_filler {
      type: "constant"
      value: 0.2
    }
  }
}
layer {
  name: "inception_4c/relu_3x3"
  type: "ReLU"
  bottom: "inception_4c/3x3"
  top: "inception_4c/3x3"
}
layer {
  name: "inception_4c/5x5_reduce"
  type: "Convolution"
  bottom: "inception_4b/output"
  top: "inception_4c/5x5_reduce"
  param {
    lr_mult: 1
    decay_mult: 1
  }
  param {
    lr_mult: 2
    decay_mult: 0
  }
  convolution_param {
    num_output: 24
    kernel_size: 1
    weight_filler {
      type: "xavier"
      std: 0.2
    }
    bias_filler {
      type: "constant"
      value: 0.2
    }
  }
}
layer {
  name: "inception_4c/relu_5x5_reduce"
  type: "ReLU"
  bottom: "inception_4c/5x5_reduce"
  top: "inception_4c/5x5_reduce"
}
layer {
  name: "inception_4c/5x5"
  type: "Convolution"
  bottom: "inception_4c/5x5_reduce"
  top: "inception_4c/5x5"
  param {
    lr_mult: 1
    decay_mult: 1
  }
  param {
    lr_mult: 2
    decay_mult: 0
  }
  convolution_param {
    num_output: 64
    pad: 2
    kernel_size: 5
    weight_filler {
      type: "xavier"
      std: 0.03
    }
    bias_filler {
      type: "constant"
      value: 0.2
    }
  }
}
layer {
  name: "inception_4c/relu_5x5"
  type: "ReLU"
  bottom: "inception_4c/5x5"
  top: "inception_4c/5x5"
}
layer {
  name: "inception_4c/pool"
  type: "Pooling"
  bottom: "inception_4b/output"
  top: "inception_4c/pool"
  pooling_param {
    pool: MAX
    kernel_size: 3
    stride: 1
    pad: 1
  }
}
layer {
  name: "inception_4c/pool_proj"
  type: "Convolution"
  bottom: "inception_4c/pool"
  top: "inception_4c/pool_proj"
  param {
    lr_mult: 1
    decay_mult: 1
  }
  param {
    lr_mult: 2
    decay_mult: 0
  }
  convolution_param {
    num_output: 64
    kernel_size: 1
    weight_filler {
      type: "xavier"
      std: 0.1
    }
    bias_filler {
      type: "constant"
      value: 0.2
    }
  }
}
layer {
  name: "inception_4c/relu_pool_proj"
  type: "ReLU"
  bottom: "inception_4c/pool_proj"
  top: "inception_4c/pool_proj"
}
layer {
  name: "inception_4c/output"
  type: "Concat"
  bottom: "inception_4c/1x1"
  bottom: "inception_4c/3x3"
  bottom: "inception_4c/5x5"
  bottom: "inception_4c/pool_proj"
  top: "inception_4c/output"
}
layer {
  name: "inception_4d/1x1"
  type: "Convolution"
  bottom: "inception_4c/output"
  top: "inception_4d/1x1"
  param {
    lr_mult: 1
    decay_mult: 1
  }
  param {
    lr_mult: 2
    decay_mult: 0
  }
  convolution_param {
    num_output: 112
    kernel_size: 1
    weight_filler {
      type: "xavier"
      std: 0.03
    }
    bias_filler {
      type: "constant"
      value: 0.2
    }
  }
}
layer {
  name: "inception_4d/relu_1x1"
  type: "ReLU"
  bottom: "inception_4d/1x1"
  top: "inception_4d/1x1"
}
layer {
  name: "inception_4d/3x3_reduce"
  type: "Convolution"
  bottom: "inception_4c/output"
  top: "inception_4d/3x3_reduce"
  param {
    lr_mult: 1
    decay_mult: 1
  }
  param {
    lr_mult: 2
    decay_mult: 0
  }
  convolution_param {
    num_output: 144
    kernel_size: 1
    weight_filler {
      type: "xavier"
      std: 0.09
    }
    bias_filler {
      type: "constant"
      value: 0.2
    }
  }
}
layer {
  name: "inception_4d/relu_3x3_reduce"
  type: "ReLU"
  bottom: "inception_4d/3x3_reduce"
  top: "inception_4d/3x3_reduce"
}
layer {
  name: "inception_4d/3x3"
  type: "Convolution"
  bottom: "inception_4d/3x3_reduce"
  top: "inception_4d/3x3"
  param {
    lr_mult: 1
    decay_mult: 1
  }
  param {
    lr_mult: 2
    decay_mult: 0
  }
  convolution_param {
    num_output: 288
    pad: 1
    kernel_size: 3
    weight_filler {
      type: "xavier"
      std: 0.03
    }
    bias_filler {
      type: "constant"
      value: 0.2
    }
  }
}
layer {
  name: "inception_4d/relu_3x3"
  type: "ReLU"
  bottom: "inception_4d/3x3"
  top: "inception_4d/3x3"
}
layer {
  name: "inception_4d/5x5_reduce"
  type: "Convolution"
  bottom: "inception_4c/output"
  top: "inception_4d/5x5_reduce"
  param {
    lr_mult: 1
    decay_mult: 1
  }
  param {
    lr_mult: 2
    decay_mult: 0
  }
  convolution_param {
    num_output: 32
    kernel_size: 1
    weight_filler {
      type: "xavier"
      std: 0.2
    }
    bias_filler {
      type: "constant"
      value: 0.2
    }
  }
}
layer {
  name: "inception_4d/relu_5x5_reduce"
  type: "ReLU"
  bottom: "inception_4d/5x5_reduce"
  top: "inception_4d/5x5_reduce"
}
layer {
  name: "inception_4d/5x5"
  type: "Convolution"
  bottom: "inception_4d/5x5_reduce"
  top: "inception_4d/5x5"
  param {
    lr_mult: 1
    decay_mult: 1
  }
  param {
    lr_mult: 2
    decay_mult: 0
  }
  convolution_param {
    num_output: 64
    pad: 2
    kernel_size: 5
    weight_filler {
      type: "xavier"
      std: 0.03
    }
    bias_filler {
      type: "constant"
      value: 0.2
    }
  }
}
layer {
  name: "inception_4d/relu_5x5"
  type: "ReLU"
  bottom: "inception_4d/5x5"
  top: "inception_4d/5x5"
}
layer {
  name: "inception_4d/pool"
  type: "Pooling"
  bottom: "inception_4c/output"
  top: "inception_4d/pool"
  pooling_param {
    pool: MAX
    kernel_size: 3
    stride: 1
    pad: 1
  }
}
layer {
  name: "inception_4d/pool_proj"
  type: "Convolution"
  bottom: "inception_4d/pool"
  top: "inception_4d/pool_proj"
  param {
    lr_mult: 1
    decay_mult: 1
  }
  param {
    lr_mult: 2
    decay_mult: 0
  }
  convolution_param {
    num_output: 64
    kernel_size: 1
    weight_filler {
      type: "xavier"
      std: 0.1
    }
    bias_filler {
      type: "constant"
      value: 0.2
    }
  }
}
layer {
  name: "inception_4d/relu_pool_proj"
  type: "ReLU"
  bottom: "inception_4d/pool_proj"
  top: "inception_4d/pool_proj"
}
layer {
  name: "inception_4d/output"
  type: "Concat"
  bottom: "inception_4d/1x1"
  bottom: "inception_4d/3x3"
  bottom: "inception_4d/5x5"
  bottom: "inception_4d/pool_proj"
  top: "inception_4d/output"
}
layer {
  name: "loss2/ave_pool"
  type: "Pooling"
  bottom: "inception_4d/output"
  top: "loss2/ave_pool"
  pooling_param {
    pool: AVE
    kernel_size: 5
    stride: 3
  }
}
layer {
  name: "loss2/conv"
  type: "Convolution"
  bottom: "loss2/ave_pool"
  top: "loss2/conv"
  param {
    lr_mult: 1
    decay_mult: 1
  }
  param {
    lr_mult: 2
    decay_mult: 0
  }
  convolution_param {
    num_output: 128
    kernel_size: 1
    weight_filler {
      type: "xavier"
      std: 0.08
    }
    bias_filler {
      type: "constant"
      value: 0.2
    }
  }
}
layer {
  name: "loss2/relu_conv"
  type: "ReLU"
  bottom: "loss2/conv"
  top: "loss2/conv"
}
layer {
  name: "loss2/fc"
  type: "InnerProduct"
  bottom: "loss2/conv"
  top: "loss2/fc"
  param {
    lr_mult: 1
    decay_mult: 1
  }
  param {
    lr_mult: 2
    decay_mult: 0
  }
  inner_product_param {
    num_output: 1024
    weight_filler {
      type: "xavier"
      std: 0.02
    }
    bias_filler {
      type: "constant"
      value: 0.2
    }
  }
}
layer {
  name: "loss2/relu_fc"
  type: "ReLU"
  bottom: "loss2/fc"
  top: "loss2/fc"
}
layer {
  name: "loss2/drop_fc"
  type: "Dropout"
  bottom: "loss2/fc"
  top: "loss2/fc"
  dropout_param {
    dropout_ratio: 0.7
  }
}
layer {
  name: "loss2/classifier_plantvillage"
  type: "InnerProduct"
  bottom: "loss2/fc"
  top: "loss2/classifier_plantvillage"
  param {
    lr_mult: 1
    decay_mult: 1
  }
  param {
    lr_mult: 2
    decay_mult: 0
  }
  inner_product_param {
    num_output: 38
    weight_filler {
      type: "xavier"
      std: 0.0009765625
    }
    bias_filler {
      type: "constant"
      value: 0
    }
  }
}
layer {
  name: "inception_4e/1x1"
  type: "Convolution"
  bottom: "inception_4d/output"
  top: "inception_4e/1x1"
  param {
    lr_mult: 1
    decay_mult: 1
  }
  param {
    lr_mult: 2
    decay_mult: 0
  }
  convolution_param {
    num_output: 256
    kernel_size: 1
    weight_filler {
      type: "xavier"
      std: 0.03
    }
    bias_filler {
      type: "constant"
      value: 0.2
    }
  }
}
layer {
  name: "inception_4e/relu_1x1"
  type: "ReLU"
  bottom: "inception_4e/1x1"
  top: "inception_4e/1x1"
}
layer {
  name: "inception_4e/3x3_reduce"
  type: "Convolution"
  bottom: "inception_4d/output"
  top: "inception_4e/3x3_reduce"
  param {
    lr_mult: 1
    decay_mult: 1
  }
  param {
    lr_mult: 2
    decay_mult: 0
  }
  convolution_param {
    num_output: 160
    kernel_size: 1
    weight_filler {
      type: "xavier"
      std: 0.09
    }
    bias_filler {
      type: "constant"
      value: 0.2
    }
  }
}
layer {
  name: "inception_4e/relu_3x3_reduce"
  type: "ReLU"
  bottom: "inception_4e/3x3_reduce"
  top: "inception_4e/3x3_reduce"
}
layer {
  name: "inception_4e/3x3"
  type: "Convolution"
  bottom: "inception_4e/3x3_reduce"
  top: "inception_4e/3x3"
  param {
    lr_mult: 1
    decay_mult: 1
  }
  param {
    lr_mult: 2
    decay_mult: 0
  }
  convolution_param {
    num_output: 320
    pad: 1
    kernel_size: 3
    weight_filler {
      type: "xavier"
      std: 0.03
    }
    bias_filler {
      type: "constant"
      value: 0.2
    }
  }
}
layer {
  name: "inception_4e/relu_3x3"
  type: "ReLU"
  bottom: "inception_4e/3x3"
  top: "inception_4e/3x3"
}
layer {
  name: "inception_4e/5x5_reduce"
  type: "Convolution"
  bottom: "inception_4d/output"
  top: "inception_4e/5x5_reduce"
  param {
    lr_mult: 1
    decay_mult: 1
  }
  param {
    lr_mult: 2
    decay_mult: 0
  }
  convolution_param {
    num_output: 32
    kernel_size: 1
    weight_filler {
      type: "xavier"
      std: 0.2
    }
    bias_filler {
      type: "constant"
      value: 0.2
    }
  }
}
layer {
  name: "inception_4e/relu_5x5_reduce"
  type: "ReLU"
  bottom: "inception_4e/5x5_reduce"
  top: "inception_4e/5x5_reduce"
}
layer {
  name: "inception_4e/5x5"
  type: "Convolution"
  bottom: "inception_4e/5x5_reduce"
  top: "inception_4e/5x5"
  p
I0403 14:13:29.229578 29452 layer_factory.hpp:77] Creating layer data
I0403 14:13:29.230237 29452 net.cpp:91] Creating Layer data
I0403 14:13:29.230273 29452 net.cpp:399] data -> data
I0403 14:13:29.230330 29452 net.cpp:399] data -> label
I0403 14:13:29.230370 29452 data_transformer.cpp:25] Loading mean file from: /home/mohanty/data/final_dataset/lmdb/color-20-80/mean.binaryproto
I0403 14:13:29.232959 29455 db_lmdb.cpp:38] Opened lmdb /home/mohanty/data/final_dataset/lmdb/color-20-80/test_db
I0403 14:13:29.243944 29452 data_layer.cpp:41] output data size: 24,3,224,224
I0403 14:13:29.271703 29452 net.cpp:141] Setting up data
I0403 14:13:29.271811 29452 net.cpp:148] Top shape: 24 3 224 224 (3612672)
I0403 14:13:29.271836 29452 net.cpp:148] Top shape: 24 (24)
I0403 14:13:29.271853 29452 net.cpp:156] Memory required for data: 14450784
I0403 14:13:29.271883 29452 layer_factory.hpp:77] Creating layer label_data_1_split
I0403 14:13:29.271913 29452 net.cpp:91] Creating Layer label_data_1_split
I0403 14:13:29.271931 29452 net.cpp:425] label_data_1_split <- label
I0403 14:13:29.271963 29452 net.cpp:399] label_data_1_split -> label_data_1_split_0
I0403 14:13:29.271992 29452 net.cpp:399] label_data_1_split -> label_data_1_split_1
I0403 14:13:29.272014 29452 net.cpp:399] label_data_1_split -> label_data_1_split_2
I0403 14:13:29.272038 29452 net.cpp:399] label_data_1_split -> label_data_1_split_3
I0403 14:13:29.272059 29452 net.cpp:399] label_data_1_split -> label_data_1_split_4
I0403 14:13:29.272079 29452 net.cpp:399] label_data_1_split -> label_data_1_split_5
I0403 14:13:29.272100 29452 net.cpp:399] label_data_1_split -> label_data_1_split_6
I0403 14:13:29.272121 29452 net.cpp:399] label_data_1_split -> label_data_1_split_7
I0403 14:13:29.272155 29452 net.cpp:399] label_data_1_split -> label_data_1_split_8
I0403 14:13:29.272176 29452 net.cpp:399] label_data_1_split -> label_data_1_split_9
I0403 14:13:29.272294 29452 net.cpp:141] Setting up label_data_1_split
I0403 14:13:29.272322 29452 net.cpp:148] Top shape: 24 (24)
I0403 14:13:29.272341 29452 net.cpp:148] Top shape: 24 (24)
I0403 14:13:29.272358 29452 net.cpp:148] Top shape: 24 (24)
I0403 14:13:29.272374 29452 net.cpp:148] Top shape: 24 (24)
I0403 14:13:29.272390 29452 net.cpp:148] Top shape: 24 (24)
I0403 14:13:29.272406 29452 net.cpp:148] Top shape: 24 (24)
I0403 14:13:29.272421 29452 net.cpp:148] Top shape: 24 (24)
I0403 14:13:29.272438 29452 net.cpp:148] Top shape: 24 (24)
I0403 14:13:29.272454 29452 net.cpp:148] Top shape: 24 (24)
I0403 14:13:29.272470 29452 net.cpp:148] Top shape: 24 (24)
I0403 14:13:29.272516 29452 net.cpp:156] Memory required for data: 14451744
I0403 14:13:29.272533 29452 layer_factory.hpp:77] Creating layer conv1/7x7_s2
I0403 14:13:29.272565 29452 net.cpp:91] Creating Layer conv1/7x7_s2
I0403 14:13:29.272585 29452 net.cpp:425] conv1/7x7_s2 <- data
I0403 14:13:29.272605 29452 net.cpp:399] conv1/7x7_s2 -> conv1/7x7_s2
I0403 14:13:29.414651 29452 net.cpp:141] Setting up conv1/7x7_s2
I0403 14:13:29.414765 29452 net.cpp:148] Top shape: 24 64 112 112 (19267584)
I0403 14:13:29.414788 29452 net.cpp:156] Memory required for data: 91522080
I0403 14:13:29.414819 29452 layer_factory.hpp:77] Creating layer conv1/relu_7x7
I0403 14:13:29.414849 29452 net.cpp:91] Creating Layer conv1/relu_7x7
I0403 14:13:29.414868 29452 net.cpp:425] conv1/relu_7x7 <- conv1/7x7_s2
I0403 14:13:29.414888 29452 net.cpp:386] conv1/relu_7x7 -> conv1/7x7_s2 (in-place)
I0403 14:13:29.415154 29452 net.cpp:141] Setting up conv1/relu_7x7
I0403 14:13:29.415181 29452 net.cpp:148] Top shape: 24 64 112 112 (19267584)
I0403 14:13:29.415197 29452 net.cpp:156] Memory required for data: 168592416
I0403 14:13:29.415215 29452 layer_factory.hpp:77] Creating layer pool1/3x3_s2
I0403 14:13:29.415241 29452 net.cpp:91] Creating Layer pool1/3x3_s2
I0403 14:13:29.415261 29452 net.cpp:425] pool1/3x3_s2 <- conv1/7x7_s2
I0403 14:13:29.415279 29452 net.cpp:399] pool1/3x3_s2 -> pool1/3x3_s2
I0403 14:13:29.415359 29452 net.cpp:141] Setting up pool1/3x3_s2
I0403 14:13:29.415385 29452 net.cpp:148] Top shape: 24 64 56 56 (4816896)
I0403 14:13:29.415401 29452 net.cpp:156] Memory required for data: 187860000
I0403 14:13:29.415418 29452 layer_factory.hpp:77] Creating layer pool1/norm1
I0403 14:13:29.415444 29452 net.cpp:91] Creating Layer pool1/norm1
I0403 14:13:29.415463 29452 net.cpp:425] pool1/norm1 <- pool1/3x3_s2
I0403 14:13:29.415482 29452 net.cpp:399] pool1/norm1 -> pool1/norm1
I0403 14:13:29.415776 29452 net.cpp:141] Setting up pool1/norm1
I0403 14:13:29.415804 29452 net.cpp:148] Top shape: 24 64 56 56 (4816896)
I0403 14:13:29.415820 29452 net.cpp:156] Memory required for data: 207127584
I0403 14:13:29.415838 29452 layer_factory.hpp:77] Creating layer conv2/3x3_reduce
I0403 14:13:29.415863 29452 net.cpp:91] Creating Layer conv2/3x3_reduce
I0403 14:13:29.415880 29452 net.cpp:425] conv2/3x3_reduce <- pool1/norm1
I0403 14:13:29.415899 29452 net.cpp:399] conv2/3x3_reduce -> conv2/3x3_reduce
I0403 14:13:29.417306 29452 net.cpp:141] Setting up conv2/3x3_reduce
I0403 14:13:29.417340 29452 net.cpp:148] Top shape: 24 64 56 56 (4816896)
I0403 14:13:29.417357 29452 net.cpp:156] Memory required for data: 226395168
I0403 14:13:29.417378 29452 layer_factory.hpp:77] Creating layer conv2/relu_3x3_reduce
I0403 14:13:29.417398 29452 net.cpp:91] Creating Layer conv2/relu_3x3_reduce
I0403 14:13:29.417414 29452 net.cpp:425] conv2/relu_3x3_reduce <- conv2/3x3_reduce
I0403 14:13:29.417433 29452 net.cpp:386] conv2/relu_3x3_reduce -> conv2/3x3_reduce (in-place)
I0403 14:13:29.417695 29452 net.cpp:141] Setting up conv2/relu_3x3_reduce
I0403 14:13:29.417723 29452 net.cpp:148] Top shape: 24 64 56 56 (4816896)
I0403 14:13:29.417740 29452 net.cpp:156] Memory required for data: 245662752
I0403 14:13:29.417757 29452 layer_factory.hpp:77] Creating layer conv2/3x3
I0403 14:13:29.417783 29452 net.cpp:91] Creating Layer conv2/3x3
I0403 14:13:29.417800 29452 net.cpp:425] conv2/3x3 <- conv2/3x3_reduce
I0403 14:13:29.417824 29452 net.cpp:399] conv2/3x3 -> conv2/3x3
I0403 14:13:29.420209 29452 net.cpp:141] Setting up conv2/3x3
I0403 14:13:29.420270 29452 net.cpp:148] Top shape: 24 192 56 56 (14450688)
I0403 14:13:29.420290 29452 net.cpp:156] Memory required for data: 303465504
I0403 14:13:29.420313 29452 layer_factory.hpp:77] Creating layer conv2/relu_3x3
I0403 14:13:29.420338 29452 net.cpp:91] Creating Layer conv2/relu_3x3
I0403 14:13:29.420356 29452 net.cpp:425] conv2/relu_3x3 <- conv2/3x3
I0403 14:13:29.420382 29452 net.cpp:386] conv2/relu_3x3 -> conv2/3x3 (in-place)
I0403 14:13:29.420563 29452 net.cpp:141] Setting up conv2/relu_3x3
I0403 14:13:29.420590 29452 net.cpp:148] Top shape: 24 192 56 56 (14450688)
I0403 14:13:29.420639 29452 net.cpp:156] Memory required for data: 361268256
I0403 14:13:29.420655 29452 layer_factory.hpp:77] Creating layer conv2/norm2
I0403 14:13:29.420676 29452 net.cpp:91] Creating Layer conv2/norm2
I0403 14:13:29.420694 29452 net.cpp:425] conv2/norm2 <- conv2/3x3
I0403 14:13:29.420714 29452 net.cpp:399] conv2/norm2 -> conv2/norm2
I0403 14:13:29.423876 29452 net.cpp:141] Setting up conv2/norm2
I0403 14:13:29.423907 29452 net.cpp:148] Top shape: 24 192 56 56 (14450688)
I0403 14:13:29.423924 29452 net.cpp:156] Memory required for data: 419071008
I0403 14:13:29.423941 29452 layer_factory.hpp:77] Creating layer pool2/3x3_s2
I0403 14:13:29.423960 29452 net.cpp:91] Creating Layer pool2/3x3_s2
I0403 14:13:29.423979 29452 net.cpp:425] pool2/3x3_s2 <- conv2/norm2
I0403 14:13:29.423997 29452 net.cpp:399] pool2/3x3_s2 -> pool2/3x3_s2
I0403 14:13:29.424052 29452 net.cpp:141] Setting up pool2/3x3_s2
I0403 14:13:29.424077 29452 net.cpp:148] Top shape: 24 192 28 28 (3612672)
I0403 14:13:29.424093 29452 net.cpp:156] Memory required for data: 433521696
I0403 14:13:29.424108 29452 layer_factory.hpp:77] Creating layer pool2/3x3_s2_pool2/3x3_s2_0_split
I0403 14:13:29.424126 29452 net.cpp:91] Creating Layer pool2/3x3_s2_pool2/3x3_s2_0_split
I0403 14:13:29.424142 29452 net.cpp:425] pool2/3x3_s2_pool2/3x3_s2_0_split <- pool2/3x3_s2
I0403 14:13:29.424162 29452 net.cpp:399] pool2/3x3_s2_pool2/3x3_s2_0_split -> pool2/3x3_s2_pool2/3x3_s2_0_split_0
I0403 14:13:29.424185 29452 net.cpp:399] pool2/3x3_s2_pool2/3x3_s2_0_split -> pool2/3x3_s2_pool2/3x3_s2_0_split_1
I0403 14:13:29.424206 29452 net.cpp:399] pool2/3x3_s2_pool2/3x3_s2_0_split -> pool2/3x3_s2_pool2/3x3_s2_0_split_2
I0403 14:13:29.424227 29452 net.cpp:399] pool2/3x3_s2_pool2/3x3_s2_0_split -> pool2/3x3_s2_pool2/3x3_s2_0_split_3
I0403 14:13:29.424302 29452 net.cpp:141] Setting up pool2/3x3_s2_pool2/3x3_s2_0_split
I0403 14:13:29.424341 29452 net.cpp:148] Top shape: 24 192 28 28 (3612672)
I0403 14:13:29.424361 29452 net.cpp:148] Top shape: 24 192 28 28 (3612672)
I0403 14:13:29.424378 29452 net.cpp:148] Top shape: 24 192 28 28 (3612672)
I0403 14:13:29.424394 29452 net.cpp:148] Top shape: 24 192 28 28 (3612672)
I0403 14:13:29.424409 29452 net.cpp:156] Memory required for data: 491324448
I0403 14:13:29.424424 29452 layer_factory.hpp:77] Creating layer inception_3a/1x1
I0403 14:13:29.424448 29452 net.cpp:91] Creating Layer inception_3a/1x1
I0403 14:13:29.424466 29452 net.cpp:425] inception_3a/1x1 <- pool2/3x3_s2_pool2/3x3_s2_0_split_0
I0403 14:13:29.424489 29452 net.cpp:399] inception_3a/1x1 -> inception_3a/1x1
I0403 14:13:29.426045 29452 net.cpp:141] Setting up inception_3a/1x1
I0403 14:13:29.426079 29452 net.cpp:148] Top shape: 24 64 28 28 (1204224)
I0403 14:13:29.426095 29452 net.cpp:156] Memory required for data: 496141344
I0403 14:13:29.426115 29452 layer_factory.hpp:77] Creating layer inception_3a/relu_1x1
I0403 14:13:29.426134 29452 net.cpp:91] Creating Layer inception_3a/relu_1x1
I0403 14:13:29.426151 29452 net.cpp:425] inception_3a/relu_1x1 <- inception_3a/1x1
I0403 14:13:29.426172 29452 net.cpp:386] inception_3a/relu_1x1 -> inception_3a/1x1 (in-place)
I0403 14:13:29.426357 29452 net.cpp:141] Setting up inception_3a/relu_1x1
I0403 14:13:29.426383 29452 net.cpp:148] Top shape: 24 64 28 28 (1204224)
I0403 14:13:29.426399 29452 net.cpp:156] Memory required for data: 500958240
I0403 14:13:29.426415 29452 layer_factory.hpp:77] Creating layer inception_3a/3x3_reduce
I0403 14:13:29.426439 29452 net.cpp:91] Creating Layer inception_3a/3x3_reduce
I0403 14:13:29.426456 29452 net.cpp:425] inception_3a/3x3_reduce <- pool2/3x3_s2_pool2/3x3_s2_0_split_1
I0403 14:13:29.426479 29452 net.cpp:399] inception_3a/3x3_reduce -> inception_3a/3x3_reduce
I0403 14:13:29.428201 29452 net.cpp:141] Setting up inception_3a/3x3_reduce
I0403 14:13:29.428234 29452 net.cpp:148] Top shape: 24 96 28 28 (1806336)
I0403 14:13:29.428251 29452 net.cpp:156] Memory required for data: 508183584
I0403 14:13:29.428273 29452 layer_factory.hpp:77] Creating layer inception_3a/relu_3x3_reduce
I0403 14:13:29.428309 29452 net.cpp:91] Creating Layer inception_3a/relu_3x3_reduce
I0403 14:13:29.428333 29452 net.cpp:425] inception_3a/relu_3x3_reduce <- inception_3a/3x3_reduce
I0403 14:13:29.428357 29452 net.cpp:386] inception_3a/relu_3x3_reduce -> inception_3a/3x3_reduce (in-place)
I0403 14:13:29.428544 29452 net.cpp:141] Setting up inception_3a/relu_3x3_reduce
I0403 14:13:29.428570 29452 net.cpp:148] Top shape: 24 96 28 28 (1806336)
I0403 14:13:29.428587 29452 net.cpp:156] Memory required for data: 515408928
I0403 14:13:29.428603 29452 layer_factory.hpp:77] Creating layer inception_3a/3x3
I0403 14:13:29.428624 29452 net.cpp:91] Creating Layer inception_3a/3x3
I0403 14:13:29.428642 29452 net.cpp:425] inception_3a/3x3 <- inception_3a/3x3_reduce
I0403 14:13:29.428663 29452 net.cpp:399] inception_3a/3x3 -> inception_3a/3x3
I0403 14:13:29.430358 29452 net.cpp:141] Setting up inception_3a/3x3
I0403 14:13:29.430390 29452 net.cpp:148] Top shape: 24 128 28 28 (2408448)
I0403 14:13:29.430408 29452 net.cpp:156] Memory required for data: 525042720
I0403 14:13:29.430426 29452 layer_factory.hpp:77] Creating layer inception_3a/relu_3x3
I0403 14:13:29.430445 29452 net.cpp:91] Creating Layer inception_3a/relu_3x3
I0403 14:13:29.430464 29452 net.cpp:425] inception_3a/relu_3x3 <- inception_3a/3x3
I0403 14:13:29.430485 29452 net.cpp:386] inception_3a/relu_3x3 -> inception_3a/3x3 (in-place)
I0403 14:13:29.430766 29452 net.cpp:141] Setting up inception_3a/relu_3x3
I0403 14:13:29.430796 29452 net.cpp:148] Top shape: 24 128 28 28 (2408448)
I0403 14:13:29.430814 29452 net.cpp:156] Memory required for data: 534676512
I0403 14:13:29.430830 29452 layer_factory.hpp:77] Creating layer inception_3a/5x5_reduce
I0403 14:13:29.430853 29452 net.cpp:91] Creating Layer inception_3a/5x5_reduce
I0403 14:13:29.430873 29452 net.cpp:425] inception_3a/5x5_reduce <- pool2/3x3_s2_pool2/3x3_s2_0_split_2
I0403 14:13:29.430894 29452 net.cpp:399] inception_3a/5x5_reduce -> inception_3a/5x5_reduce
I0403 14:13:29.431924 29452 net.cpp:141] Setting up inception_3a/5x5_reduce
I0403 14:13:29.431954 29452 net.cpp:148] Top shape: 24 16 28 28 (301056)
I0403 14:13:29.431970 29452 net.cpp:156] Memory required for data: 535880736
I0403 14:13:29.431989 29452 layer_factory.hpp:77] Creating layer inception_3a/relu_5x5_reduce
I0403 14:13:29.432009 29452 net.cpp:91] Creating Layer inception_3a/relu_5x5_reduce
I0403 14:13:29.432034 29452 net.cpp:425] inception_3a/relu_5x5_reduce <- inception_3a/5x5_reduce
I0403 14:13:29.432052 29452 net.cpp:386] inception_3a/relu_5x5_reduce -> inception_3a/5x5_reduce (in-place)
I0403 14:13:29.432368 29452 net.cpp:141] Setting up inception_3a/relu_5x5_reduce
I0403 14:13:29.432395 29452 net.cpp:148] Top shape: 24 16 28 28 (301056)
I0403 14:13:29.432411 29452 net.cpp:156] Memory required for data: 537084960
I0403 14:13:29.432426 29452 layer_factory.hpp:77] Creating layer inception_3a/5x5
I0403 14:13:29.432449 29452 net.cpp:91] Creating Layer inception_3a/5x5
I0403 14:13:29.432468 29452 net.cpp:425] inception_3a/5x5 <- inception_3a/5x5_reduce
I0403 14:13:29.432492 29452 net.cpp:399] inception_3a/5x5 -> inception_3a/5x5
I0403 14:13:29.433543 29452 net.cpp:141] Setting up inception_3a/5x5
I0403 14:13:29.433578 29452 net.cpp:148] Top shape: 24 32 28 28 (602112)
I0403 14:13:29.433594 29452 net.cpp:156] Memory required for data: 539493408
I0403 14:13:29.433614 29452 layer_factory.hpp:77] Creating layer inception_3a/relu_5x5
I0403 14:13:29.433634 29452 net.cpp:91] Creating Layer inception_3a/relu_5x5
I0403 14:13:29.433650 29452 net.cpp:425] inception_3a/relu_5x5 <- inception_3a/5x5
I0403 14:13:29.433671 29452 net.cpp:386] inception_3a/relu_5x5 -> inception_3a/5x5 (in-place)
I0403 14:13:29.433850 29452 net.cpp:141] Setting up inception_3a/relu_5x5
I0403 14:13:29.433876 29452 net.cpp:148] Top shape: 24 32 28 28 (602112)
I0403 14:13:29.433890 29452 net.cpp:156] Memory required for data: 541901856
I0403 14:13:29.433907 29452 layer_factory.hpp:77] Creating layer inception_3a/pool
I0403 14:13:29.433925 29452 net.cpp:91] Creating Layer inception_3a/pool
I0403 14:13:29.433943 29452 net.cpp:425] inception_3a/pool <- pool2/3x3_s2_pool2/3x3_s2_0_split_3
I0403 14:13:29.433979 29452 net.cpp:399] inception_3a/pool -> inception_3a/pool
I0403 14:13:29.434041 29452 net.cpp:141] Setting up inception_3a/pool
I0403 14:13:29.434065 29452 net.cpp:148] Top shape: 24 192 28 28 (3612672)
I0403 14:13:29.434082 29452 net.cpp:156] Memory required for data: 556352544
I0403 14:13:29.434097 29452 layer_factory.hpp:77] Creating layer inception_3a/pool_proj
I0403 14:13:29.434123 29452 net.cpp:91] Creating Layer inception_3a/pool_proj
I0403 14:13:29.434140 29452 net.cpp:425] inception_3a/pool_proj <- inception_3a/pool
I0403 14:13:29.434161 29452 net.cpp:399] inception_3a/pool_proj -> inception_3a/pool_proj
I0403 14:13:29.435154 29452 net.cpp:141] Setting up inception_3a/pool_proj
I0403 14:13:29.435184 29452 net.cpp:148] Top shape: 24 32 28 28 (602112)
I0403 14:13:29.435200 29452 net.cpp:156] Memory required for data: 558760992
I0403 14:13:29.435225 29452 layer_factory.hpp:77] Creating layer inception_3a/relu_pool_proj
I0403 14:13:29.435251 29452 net.cpp:91] Creating Layer inception_3a/relu_pool_proj
I0403 14:13:29.435271 29452 net.cpp:425] inception_3a/relu_pool_proj <- inception_3a/pool_proj
I0403 14:13:29.435289 29452 net.cpp:386] inception_3a/relu_pool_proj -> inception_3a/pool_proj (in-place)
I0403 14:13:29.435571 29452 net.cpp:141] Setting up inception_3a/relu_pool_proj
I0403 14:13:29.435600 29452 net.cpp:148] Top shape: 24 32 28 28 (602112)
I0403 14:13:29.435617 29452 net.cpp:156] Memory required for data: 561169440
I0403 14:13:29.435634 29452 layer_factory.hpp:77] Creating layer inception_3a/output
I0403 14:13:29.435652 29452 net.cpp:91] Creating Layer inception_3a/output
I0403 14:13:29.435669 29452 net.cpp:425] inception_3a/output <- inception_3a/1x1
I0403 14:13:29.435688 29452 net.cpp:425] inception_3a/output <- inception_3a/3x3
I0403 14:13:29.435704 29452 net.cpp:425] inception_3a/output <- inception_3a/5x5
I0403 14:13:29.435720 29452 net.cpp:425] inception_3a/output <- inception_3a/pool_proj
I0403 14:13:29.435740 29452 net.cpp:399] inception_3a/output -> inception_3a/output
I0403 14:13:29.435788 29452 net.cpp:141] Setting up inception_3a/output
I0403 14:13:29.435813 29452 net.cpp:148] Top shape: 24 256 28 28 (4816896)
I0403 14:13:29.435828 29452 net.cpp:156] Memory required for data: 580437024
I0403 14:13:29.435844 29452 layer_factory.hpp:77] Creating layer inception_3a/output_inception_3a/output_0_split
I0403 14:13:29.435865 29452 net.cpp:91] Creating Layer inception_3a/output_inception_3a/output_0_split
I0403 14:13:29.435883 29452 net.cpp:425] inception_3a/output_inception_3a/output_0_split <- inception_3a/output
I0403 14:13:29.435901 29452 net.cpp:399] inception_3a/output_inception_3a/output_0_split -> inception_3a/output_inception_3a/output_0_split_0
I0403 14:13:29.435922 29452 net.cpp:399] inception_3a/output_inception_3a/output_0_split -> inception_3a/output_inception_3a/output_0_split_1
I0403 14:13:29.435947 29452 net.cpp:399] inception_3a/output_inception_3a/output_0_split -> inception_3a/output_inception_3a/output_0_split_2
I0403 14:13:29.435971 29452 net.cpp:399] inception_3a/output_inception_3a/output_0_split -> inception_3a/output_inception_3a/output_0_split_3
I0403 14:13:29.436046 29452 net.cpp:141] Setting up inception_3a/output_inception_3a/output_0_split
I0403 14:13:29.436074 29452 net.cpp:148] Top shape: 24 256 28 28 (4816896)
I0403 14:13:29.436091 29452 net.cpp:148] Top shape: 24 256 28 28 (4816896)
I0403 14:13:29.436108 29452 net.cpp:148] Top shape: 24 256 28 28 (4816896)
I0403 14:13:29.436125 29452 net.cpp:148] Top shape: 24 256 28 28 (4816896)
I0403 14:13:29.436141 29452 net.cpp:156] Memory required for data: 657507360
I0403 14:13:29.436156 29452 layer_factory.hpp:77] Creating layer inception_3b/1x1
I0403 14:13:29.436179 29452 net.cpp:91] Creating Layer inception_3b/1x1
I0403 14:13:29.436197 29452 net.cpp:425] inception_3b/1x1 <- inception_3a/output_inception_3a/output_0_split_0
I0403 14:13:29.436218 29452 net.cpp:399] inception_3b/1x1 -> inception_3b/1x1
I0403 14:13:29.437389 29452 net.cpp:141] Setting up inception_3b/1x1
I0403 14:13:29.437433 29452 net.cpp:148] Top shape: 24 128 28 28 (2408448)
I0403 14:13:29.437450 29452 net.cpp:156] Memory required for data: 667141152
I0403 14:13:29.437471 29452 layer_factory.hpp:77] Creating layer inception_3b/relu_1x1
I0403 14:13:29.437490 29452 net.cpp:91] Creating Layer inception_3b/relu_1x1
I0403 14:13:29.437507 29452 net.cpp:425] inception_3b/relu_1x1 <- inception_3b/1x1
I0403 14:13:29.437525 29452 net.cpp:386] inception_3b/relu_1x1 -> inception_3b/1x1 (in-place)
I0403 14:13:29.437717 29452 net.cpp:141] Setting up inception_3b/relu_1x1
I0403 14:13:29.437746 29452 net.cpp:148] Top shape: 24 128 28 28 (2408448)
I0403 14:13:29.437762 29452 net.cpp:156] Memory required for data: 676774944
I0403 14:13:29.437777 29452 layer_factory.hpp:77] Creating layer inception_3b/3x3_reduce
I0403 14:13:29.437801 29452 net.cpp:91] Creating Layer inception_3b/3x3_reduce
I0403 14:13:29.437819 29452 net.cpp:425] inception_3b/3x3_reduce <- inception_3a/output_inception_3a/output_0_split_1
I0403 14:13:29.437841 29452 net.cpp:399] inception_3b/3x3_reduce -> inception_3b/3x3_reduce
I0403 14:13:29.439010 29452 net.cpp:141] Setting up inception_3b/3x3_reduce
I0403 14:13:29.439039 29452 net.cpp:148] Top shape: 24 128 28 28 (2408448)
I0403 14:13:29.439056 29452 net.cpp:156] Memory required for data: 686408736
I0403 14:13:29.439075 29452 layer_factory.hpp:77] Creating layer inception_3b/relu_3x3_reduce
I0403 14:13:29.439098 29452 net.cpp:91] Creating Layer inception_3b/relu_3x3_reduce
I0403 14:13:29.439116 29452 net.cpp:425] inception_3b/relu_3x3_reduce <- inception_3b/3x3_reduce
I0403 14:13:29.439134 29452 net.cpp:386] inception_3b/relu_3x3_reduce -> inception_3b/3x3_reduce (in-place)
I0403 14:13:29.439312 29452 net.cpp:141] Setting up inception_3b/relu_3x3_reduce
I0403 14:13:29.439343 29452 net.cpp:148] Top shape: 24 128 28 28 (2408448)
I0403 14:13:29.439358 29452 net.cpp:156] Memory required for data: 696042528
I0403 14:13:29.439374 29452 layer_factory.hpp:77] Creating layer inception_3b/3x3
I0403 14:13:29.439399 29452 net.cpp:91] Creating Layer inception_3b/3x3
I0403 14:13:29.439419 29452 net.cpp:425] inception_3b/3x3 <- inception_3b/3x3_reduce
I0403 14:13:29.439440 29452 net.cpp:399] inception_3b/3x3 -> inception_3b/3x3
I0403 14:13:29.442404 29452 net.cpp:141] Setting up inception_3b/3x3
I0403 14:13:29.442436 29452 net.cpp:148] Top shape: 24 192 28 28 (3612672)
I0403 14:13:29.442454 29452 net.cpp:156] Memory required for data: 710493216
I0403 14:13:29.442473 29452 layer_factory.hpp:77] Creating layer inception_3b/relu_3x3
I0403 14:13:29.442493 29452 net.cpp:91] Creating Layer inception_3b/relu_3x3
I0403 14:13:29.442510 29452 net.cpp:425] inception_3b/relu_3x3 <- inception_3b/3x3
I0403 14:13:29.442531 29452 net.cpp:386] inception_3b/relu_3x3 -> inception_3b/3x3 (in-place)
I0403 14:13:29.442817 29452 net.cpp:141] Setting up inception_3b/relu_3x3
I0403 14:13:29.442847 29452 net.cpp:148] Top shape: 24 192 28 28 (3612672)
I0403 14:13:29.442863 29452 net.cpp:156] Memory required for data: 724943904
I0403 14:13:29.442881 29452 layer_factory.hpp:77] Creating layer inception_3b/5x5_reduce
I0403 14:13:29.442905 29452 net.cpp:91] Creating Layer inception_3b/5x5_reduce
I0403 14:13:29.442924 29452 net.cpp:425] inception_3b/5x5_reduce <- inception_3a/output_inception_3a/output_0_split_2
I0403 14:13:29.442944 29452 net.cpp:399] inception_3b/5x5_reduce -> inception_3b/5x5_reduce
I0403 14:13:29.443970 29452 net.cpp:141] Setting up inception_3b/5x5_reduce
I0403 14:13:29.444001 29452 net.cpp:148] Top shape: 24 32 28 28 (602112)
I0403 14:13:29.444020 29452 net.cpp:156] Memory required for data: 727352352
I0403 14:13:29.444039 29452 layer_factory.hpp:77] Creating layer inception_3b/relu_5x5_reduce
I0403 14:13:29.444059 29452 net.cpp:91] Creating Layer inception_3b/relu_5x5_reduce
I0403 14:13:29.444077 29452 net.cpp:425] inception_3b/relu_5x5_reduce <- inception_3b/5x5_reduce
I0403 14:13:29.444099 29452 net.cpp:386] inception_3b/relu_5x5_reduce -> inception_3b/5x5_reduce (in-place)
I0403 14:13:29.444283 29452 net.cpp:141] Setting up inception_3b/relu_5x5_reduce
I0403 14:13:29.444326 29452 net.cpp:148] Top shape: 24 32 28 28 (602112)
I0403 14:13:29.444344 29452 net.cpp:156] Memory required for data: 729760800
I0403 14:13:29.444360 29452 layer_factory.hpp:77] Creating layer inception_3b/5x5
I0403 14:13:29.444382 29452 net.cpp:91] Creating Layer inception_3b/5x5
I0403 14:13:29.444401 29452 net.cpp:425] inception_3b/5x5 <- inception_3b/5x5_reduce
I0403 14:13:29.444424 29452 net.cpp:399] inception_3b/5x5 -> inception_3b/5x5
I0403 14:13:29.446444 29452 net.cpp:141] Setting up inception_3b/5x5
I0403 14:13:29.446475 29452 net.cpp:148] Top shape: 24 96 28 28 (1806336)
I0403 14:13:29.446491 29452 net.cpp:156] Memory required for data: 736986144
I0403 14:13:29.446511 29452 layer_factory.hpp:77] Creating layer inception_3b/relu_5x5
I0403 14:13:29.446532 29452 net.cpp:91] Creating Layer inception_3b/relu_5x5
I0403 14:13:29.446552 29452 net.cpp:425] inception_3b/relu_5x5 <- inception_3b/5x5
I0403 14:13:29.446570 29452 net.cpp:386] inception_3b/relu_5x5 -> inception_3b/5x5 (in-place)
I0403 14:13:29.446771 29452 net.cpp:141] Setting up inception_3b/relu_5x5
I0403 14:13:29.446797 29452 net.cpp:148] Top shape: 24 96 28 28 (1806336)
I0403 14:13:29.446812 29452 net.cpp:156] Memory required for data: 744211488
I0403 14:13:29.446830 29452 layer_factory.hpp:77] Creating layer inception_3b/pool
I0403 14:13:29.446848 29452 net.cpp:91] Creating Layer inception_3b/pool
I0403 14:13:29.446864 29452 net.cpp:425] inception_3b/pool <- inception_3a/output_inception_3a/output_0_split_3
I0403 14:13:29.446883 29452 net.cpp:399] inception_3b/pool -> inception_3b/pool
I0403 14:13:29.446941 29452 net.cpp:141] Setting up inception_3b/pool
I0403 14:13:29.446966 29452 net.cpp:148] Top shape: 24 256 28 28 (4816896)
I0403 14:13:29.446981 29452 net.cpp:156] Memory required for data: 763479072
I0403 14:13:29.446997 29452 layer_factory.hpp:77] Creating layer inception_3b/pool_proj
I0403 14:13:29.447021 29452 net.cpp:91] Creating Layer inception_3b/pool_proj
I0403 14:13:29.447039 29452 net.cpp:425] inception_3b/pool_proj <- inception_3b/pool
I0403 14:13:29.447058 29452 net.cpp:399] inception_3b/pool_proj -> inception_3b/pool_proj
I0403 14:13:29.448153 29452 net.cpp:141] Setting up inception_3b/pool_proj
I0403 14:13:29.448182 29452 net.cpp:148] Top shape: 24 64 28 28 (1204224)
I0403 14:13:29.448199 29452 net.cpp:156] Memory required for data: 768295968
I0403 14:13:29.448218 29452 layer_factory.hpp:77] Creating layer inception_3b/relu_pool_proj
I0403 14:13:29.448240 29452 net.cpp:91] Creating Layer inception_3b/relu_pool_proj
I0403 14:13:29.448261 29452 net.cpp:425] inception_3b/relu_pool_proj <- inception_3b/pool_proj
I0403 14:13:29.448279 29452 net.cpp:386] inception_3b/relu_pool_proj -> inception_3b/pool_proj (in-place)
I0403 14:13:29.448698 29452 net.cpp:141] Setting up inception_3b/relu_pool_proj
I0403 14:13:29.448726 29452 net.cpp:148] Top shape: 24 64 28 28 (1204224)
I0403 14:13:29.448746 29452 net.cpp:156] Memory required for data: 773112864
I0403 14:13:29.448761 29452 layer_factory.hpp:77] Creating layer inception_3b/output
I0403 14:13:29.448781 29452 net.cpp:91] Creating Layer inception_3b/output
I0403 14:13:29.448797 29452 net.cpp:425] inception_3b/output <- inception_3b/1x1
I0403 14:13:29.448815 29452 net.cpp:425] inception_3b/output <- inception_3b/3x3
I0403 14:13:29.448832 29452 net.cpp:425] inception_3b/output <- inception_3b/5x5
I0403 14:13:29.448849 29452 net.cpp:425] inception_3b/output <- inception_3b/pool_proj
I0403 14:13:29.448869 29452 net.cpp:399] inception_3b/output -> inception_3b/output
I0403 14:13:29.448915 29452 net.cpp:141] Setting up inception_3b/output
I0403 14:13:29.448941 29452 net.cpp:148] Top shape: 24 480 28 28 (9031680)
I0403 14:13:29.448957 29452 net.cpp:156] Memory required for data: 809239584
I0403 14:13:29.448973 29452 layer_factory.hpp:77] Creating layer pool3/3x3_s2
I0403 14:13:29.448992 29452 net.cpp:91] Creating Layer pool3/3x3_s2
I0403 14:13:29.449007 29452 net.cpp:425] pool3/3x3_s2 <- inception_3b/output
I0403 14:13:29.449028 29452 net.cpp:399] pool3/3x3_s2 -> pool3/3x3_s2
I0403 14:13:29.449110 29452 net.cpp:141] Setting up pool3/3x3_s2
I0403 14:13:29.449136 29452 net.cpp:148] Top shape: 24 480 14 14 (2257920)
I0403 14:13:29.449151 29452 net.cpp:156] Memory required for data: 818271264
I0403 14:13:29.449167 29452 layer_factory.hpp:77] Creating layer pool3/3x3_s2_pool3/3x3_s2_0_split
I0403 14:13:29.449187 29452 net.cpp:91] Creating Layer pool3/3x3_s2_pool3/3x3_s2_0_split
I0403 14:13:29.449203 29452 net.cpp:425] pool3/3x3_s2_pool3/3x3_s2_0_split <- pool3/3x3_s2
I0403 14:13:29.449220 29452 net.cpp:399] pool3/3x3_s2_pool3/3x3_s2_0_split -> pool3/3x3_s2_pool3/3x3_s2_0_split_0
I0403 14:13:29.449241 29452 net.cpp:399] pool3/3x3_s2_pool3/3x3_s2_0_split -> pool3/3x3_s2_pool3/3x3_s2_0_split_1
I0403 14:13:29.449265 29452 net.cpp:399] pool3/3x3_s2_pool3/3x3_s2_0_split -> pool3/3x3_s2_pool3/3x3_s2_0_split_2
I0403 14:13:29.449290 29452 net.cpp:399] pool3/3x3_s2_pool3/3x3_s2_0_split -> pool3/3x3_s2_pool3/3x3_s2_0_split_3
I0403 14:13:29.449374 29452 net.cpp:141] Setting up pool3/3x3_s2_pool3/3x3_s2_0_split
I0403 14:13:29.449398 29452 net.cpp:148] Top shape: 24 480 14 14 (2257920)
I0403 14:13:29.449415 29452 net.cpp:148] Top shape: 24 480 14 14 (2257920)
I0403 14:13:29.449432 29452 net.cpp:148] Top shape: 24 480 14 14 (2257920)
I0403 14:13:29.449450 29452 net.cpp:148] Top shape: 24 480 14 14 (2257920)
I0403 14:13:29.449463 29452 net.cpp:156] Memory required for data: 854397984
I0403 14:13:29.449478 29452 layer_factory.hpp:77] Creating layer inception_4a/1x1
I0403 14:13:29.449501 29452 net.cpp:91] Creating Layer inception_4a/1x1
I0403 14:13:29.449519 29452 net.cpp:425] inception_4a/1x1 <- pool3/3x3_s2_pool3/3x3_s2_0_split_0
I0403 14:13:29.449542 29452 net.cpp:399] inception_4a/1x1 -> inception_4a/1x1
I0403 14:13:29.451151 29452 net.cpp:141] Setting up inception_4a/1x1
I0403 14:13:29.451180 29452 net.cpp:148] Top shape: 24 192 14 14 (903168)
I0403 14:13:29.451196 29452 net.cpp:156] Memory required for data: 858010656
I0403 14:13:29.451215 29452 layer_factory.hpp:77] Creating layer inception_4a/relu_1x1
I0403 14:13:29.451236 29452 net.cpp:91] Creating Layer inception_4a/relu_1x1
I0403 14:13:29.451252 29452 net.cpp:425] inception_4a/relu_1x1 <- inception_4a/1x1
I0403 14:13:29.451270 29452 net.cpp:386] inception_4a/relu_1x1 -> inception_4a/1x1 (in-place)
I0403 14:13:29.451452 29452 net.cpp:141] Setting up inception_4a/relu_1x1
I0403 14:13:29.451480 29452 net.cpp:148] Top shape: 24 192 14 14 (903168)
I0403 14:13:29.451498 29452 net.cpp:156] Memory required for data: 861623328
I0403 14:13:29.451514 29452 layer_factory.hpp:77] Creating layer inception_4a/3x3_reduce
I0403 14:13:29.451535 29452 net.cpp:91] Creating Layer inception_4a/3x3_reduce
I0403 14:13:29.451552 29452 net.cpp:425] inception_4a/3x3_reduce <- pool3/3x3_s2_pool3/3x3_s2_0_split_1
I0403 14:13:29.451572 29452 net.cpp:399] inception_4a/3x3_reduce -> inception_4a/3x3_reduce
I0403 14:13:29.452872 29452 net.cpp:141] Setting up inception_4a/3x3_reduce
I0403 14:13:29.452901 29452 net.cpp:148] Top shape: 24 96 14 14 (451584)
I0403 14:13:29.452918 29452 net.cpp:156] Memory required for data: 863429664
I0403 14:13:29.452945 29452 layer_factory.hpp:77] Creating layer inception_4a/relu_3x3_reduce
I0403 14:13:29.452966 29452 net.cpp:91] Creating Layer inception_4a/relu_3x3_reduce
I0403 14:13:29.452983 29452 net.cpp:425] inception_4a/relu_3x3_reduce <- inception_4a/3x3_reduce
I0403 14:13:29.453016 29452 net.cpp:386] inception_4a/relu_3x3_reduce -> inception_4a/3x3_reduce (in-place)
I0403 14:13:29.453191 29452 net.cpp:141] Setting up inception_4a/relu_3x3_reduce
I0403 14:13:29.453218 29452 net.cpp:148] Top shape: 24 96 14 14 (451584)
I0403 14:13:29.453235 29452 net.cpp:156] Memory required for data: 865236000
I0403 14:13:29.453251 29452 layer_factory.hpp:77] Creating layer inception_4a/3x3
I0403 14:13:29.453271 29452 net.cpp:91] Creating Layer inception_4a/3x3
I0403 14:13:29.453289 29452 net.cpp:425] inception_4a/3x3 <- inception_4a/3x3_reduce
I0403 14:13:29.453312 29452 net.cpp:399] inception_4a/3x3 -> inception_4a/3x3
I0403 14:13:29.456050 29452 net.cpp:141] Setting up inception_4a/3x3
I0403 14:13:29.456081 29452 net.cpp:148] Top shape: 24 208 14 14 (978432)
I0403 14:13:29.456097 29452 net.cpp:156] Memory required for data: 869149728
I0403 14:13:29.456117 29452 layer_factory.hpp:77] Creating layer inception_4a/relu_3x3
I0403 14:13:29.456138 29452 net.cpp:91] Creating Layer inception_4a/relu_3x3
I0403 14:13:29.456157 29452 net.cpp:425] inception_4a/relu_3x3 <- inception_4a/3x3
I0403 14:13:29.456176 29452 net.cpp:386] inception_4a/relu_3x3 -> inception_4a/3x3 (in-place)
I0403 14:13:29.456471 29452 net.cpp:141] Setting up inception_4a/relu_3x3
I0403 14:13:29.456498 29452 net.cpp:148] Top shape: 24 208 14 14 (978432)
I0403 14:13:29.456514 29452 net.cpp:156] Memory required for data: 873063456
I0403 14:13:29.456532 29452 layer_factory.hpp:77] Creating layer inception_4a/5x5_reduce
I0403 14:13:29.456557 29452 net.cpp:91] Creating Layer inception_4a/5x5_reduce
I0403 14:13:29.456575 29452 net.cpp:425] inception_4a/5x5_reduce <- pool3/3x3_s2_pool3/3x3_s2_0_split_2
I0403 14:13:29.456595 29452 net.cpp:399] inception_4a/5x5_reduce -> inception_4a/5x5_reduce
I0403 14:13:29.457648 29452 net.cpp:141] Setting up inception_4a/5x5_reduce
I0403 14:13:29.457680 29452 net.cpp:148] Top shape: 24 16 14 14 (75264)
I0403 14:13:29.457696 29452 net.cpp:156] Memory required for data: 873364512
I0403 14:13:29.457716 29452 layer_factory.hpp:77] Creating layer inception_4a/relu_5x5_reduce
I0403 14:13:29.457736 29452 net.cpp:91] Creating Layer inception_4a/relu_5x5_reduce
I0403 14:13:29.457753 29452 net.cpp:425] inception_4a/relu_5x5_reduce <- inception_4a/5x5_reduce
I0403 14:13:29.457773 29452 net.cpp:386] inception_4a/relu_5x5_reduce -> inception_4a/5x5_reduce (in-place)
I0403 14:13:29.457959 29452 net.cpp:141] Setting up inception_4a/relu_5x5_reduce
I0403 14:13:29.457985 29452 net.cpp:148] Top shape: 24 16 14 14 (75264)
I0403 14:13:29.458001 29452 net.cpp:156] Memory required for data: 873665568
I0403 14:13:29.458016 29452 layer_factory.hpp:77] Creating layer inception_4a/5x5
I0403 14:13:29.458040 29452 net.cpp:91] Creating Layer inception_4a/5x5
I0403 14:13:29.458060 29452 net.cpp:425] inception_4a/5x5 <- inception_4a/5x5_reduce
I0403 14:13:29.458093 29452 net.cpp:399] inception_4a/5x5 -> inception_4a/5x5
I0403 14:13:29.459177 29452 net.cpp:141] Setting up inception_4a/5x5
I0403 14:13:29.459205 29452 net.cpp:148] Top shape: 24 48 14 14 (225792)
I0403 14:13:29.459221 29452 net.cpp:156] Memory required for data: 874568736
I0403 14:13:29.459241 29452 layer_factory.hpp:77] Creating layer inception_4a/relu_5x5
I0403 14:13:29.459262 29452 net.cpp:91] Creating Layer inception_4a/relu_5x5
I0403 14:13:29.459280 29452 net.cpp:425] inception_4a/relu_5x5 <- inception_4a/5x5
I0403 14:13:29.459297 29452 net.cpp:386] inception_4a/relu_5x5 -> inception_4a/5x5 (in-place)
I0403 14:13:29.459480 29452 net.cpp:141] Setting up inception_4a/relu_5x5
I0403 14:13:29.459506 29452 net.cpp:148] Top shape: 24 48 14 14 (225792)
I0403 14:13:29.459519 29452 net.cpp:156] Memory required for data: 875471904
I0403 14:13:29.459547 29452 layer_factory.hpp:77] Creating layer inception_4a/pool
I0403 14:13:29.459570 29452 net.cpp:91] Creating Layer inception_4a/pool
I0403 14:13:29.459589 29452 net.cpp:425] inception_4a/pool <- pool3/3x3_s2_pool3/3x3_s2_0_split_3
I0403 14:13:29.459609 29452 net.cpp:399] inception_4a/pool -> inception_4a/pool
I0403 14:13:29.459671 29452 net.cpp:141] Setting up inception_4a/pool
I0403 14:13:29.459697 29452 net.cpp:148] Top shape: 24 480 14 14 (2257920)
I0403 14:13:29.459712 29452 net.cpp:156] Memory required for data: 884503584
I0403 14:13:29.459728 29452 layer_factory.hpp:77] Creating layer inception_4a/pool_proj
I0403 14:13:29.459750 29452 net.cpp:91] Creating Layer inception_4a/pool_proj
I0403 14:13:29.459769 29452 net.cpp:425] inception_4a/pool_proj <- inception_4a/pool
I0403 14:13:29.459791 29452 net.cpp:399] inception_4a/pool_proj -> inception_4a/pool_proj
I0403 14:13:29.460975 29452 net.cpp:141] Setting up inception_4a/pool_proj
I0403 14:13:29.461004 29452 net.cpp:148] Top shape: 24 64 14 14 (301056)
I0403 14:13:29.461035 29452 net.cpp:156] Memory required for data: 885707808
I0403 14:13:29.461055 29452 layer_factory.hpp:77] Creating layer inception_4a/relu_pool_proj
I0403 14:13:29.461077 29452 net.cpp:91] Creating Layer inception_4a/relu_pool_proj
I0403 14:13:29.461097 29452 net.cpp:425] inception_4a/relu_pool_proj <- inception_4a/pool_proj
I0403 14:13:29.461113 29452 net.cpp:386] inception_4a/relu_pool_proj -> inception_4a/pool_proj (in-place)
I0403 14:13:29.461422 29452 net.cpp:141] Setting up inception_4a/relu_pool_proj
I0403 14:13:29.461450 29452 net.cpp:148] Top shape: 24 64 14 14 (301056)
I0403 14:13:29.461467 29452 net.cpp:156] Memory required for data: 886912032
I0403 14:13:29.461483 29452 layer_factory.hpp:77] Creating layer inception_4a/output
I0403 14:13:29.461503 29452 net.cpp:91] Creating Layer inception_4a/output
I0403 14:13:29.461521 29452 net.cpp:425] inception_4a/output <- inception_4a/1x1
I0403 14:13:29.461540 29452 net.cpp:425] inception_4a/output <- inception_4a/3x3
I0403 14:13:29.461557 29452 net.cpp:425] inception_4a/output <- inception_4a/5x5
I0403 14:13:29.461575 29452 net.cpp:425] inception_4a/output <- inception_4a/pool_proj
I0403 14:13:29.461592 29452 net.cpp:399] inception_4a/output -> inception_4a/output
I0403 14:13:29.461637 29452 net.cpp:141] Setting up inception_4a/output
I0403 14:13:29.461664 29452 net.cpp:148] Top shape: 24 512 14 14 (2408448)
I0403 14:13:29.461679 29452 net.cpp:156] Memory required for data: 896545824
I0403 14:13:29.461695 29452 layer_factory.hpp:77] Creating layer inception_4a/output_inception_4a/output_0_split
I0403 14:13:29.461714 29452 net.cpp:91] Creating Layer inception_4a/output_inception_4a/output_0_split
I0403 14:13:29.461730 29452 net.cpp:425] inception_4a/output_inception_4a/output_0_split <- inception_4a/output
I0403 14:13:29.461751 29452 net.cpp:399] inception_4a/output_inception_4a/output_0_split -> inception_4a/output_inception_4a/output_0_split_0
I0403 14:13:29.461773 29452 net.cpp:399] inception_4a/output_inception_4a/output_0_split -> inception_4a/output_inception_4a/output_0_split_1
I0403 14:13:29.461796 29452 net.cpp:399] inception_4a/output_inception_4a/output_0_split -> inception_4a/output_inception_4a/output_0_split_2
I0403 14:13:29.461817 29452 net.cpp:399] inception_4a/output_inception_4a/output_0_split -> inception_4a/output_inception_4a/output_0_split_3
I0403 14:13:29.461836 29452 net.cpp:399] inception_4a/output_inception_4a/output_0_split -> inception_4a/output_inception_4a/output_0_split_4
I0403 14:13:29.461930 29452 net.cpp:141] Setting up inception_4a/output_inception_4a/output_0_split
I0403 14:13:29.461954 29452 net.cpp:148] Top shape: 24 512 14 14 (2408448)
I0403 14:13:29.461974 29452 net.cpp:148] Top shape: 24 512 14 14 (2408448)
I0403 14:13:29.461992 29452 net.cpp:148] Top shape: 24 512 14 14 (2408448)
I0403 14:13:29.462010 29452 net.cpp:148] Top shape: 24 512 14 14 (2408448)
I0403 14:13:29.462026 29452 net.cpp:148] Top shape: 24 512 14 14 (2408448)
I0403 14:13:29.462041 29452 net.cpp:156] Memory required for data: 944714784
I0403 14:13:29.462056 29452 layer_factory.hpp:77] Creating layer loss1/ave_pool
I0403 14:13:29.462074 29452 net.cpp:91] Creating Layer loss1/ave_pool
I0403 14:13:29.462091 29452 net.cpp:425] loss1/ave_pool <- inception_4a/output_inception_4a/output_0_split_0
I0403 14:13:29.462113 29452 net.cpp:399] loss1/ave_pool -> loss1/ave_pool
I0403 14:13:29.462344 29452 net.cpp:141] Setting up loss1/ave_pool
I0403 14:13:29.462371 29452 net.cpp:148] Top shape: 24 512 4 4 (196608)
I0403 14:13:29.462388 29452 net.cpp:156] Memory required for data: 945501216
I0403 14:13:29.462404 29452 layer_factory.hpp:77] Creating layer loss1/conv
I0403 14:13:29.462427 29452 net.cpp:91] Creating Layer loss1/conv
I0403 14:13:29.462446 29452 net.cpp:425] loss1/conv <- loss1/ave_pool
I0403 14:13:29.462468 29452 net.cpp:399] loss1/conv -> loss1/conv
I0403 14:13:29.463948 29452 net.cpp:141] Setting up loss1/conv
I0403 14:13:29.463980 29452 net.cpp:148] Top shape: 24 128 4 4 (49152)
I0403 14:13:29.463999 29452 net.cpp:156] Memory required for data: 945697824
I0403 14:13:29.464035 29452 layer_factory.hpp:77] Creating layer loss1/relu_conv
I0403 14:13:29.464056 29452 net.cpp:91] Creating Layer loss1/relu_conv
I0403 14:13:29.464073 29452 net.cpp:425] loss1/relu_conv <- loss1/conv
I0403 14:13:29.464094 29452 net.cpp:386] loss1/relu_conv -> loss1/conv (in-place)
I0403 14:13:29.464390 29452 net.cpp:141] Setting up loss1/relu_conv
I0403 14:13:29.464421 29452 net.cpp:148] Top shape: 24 128 4 4 (49152)
I0403 14:13:29.464437 29452 net.cpp:156] Memory required for data: 945894432
I0403 14:13:29.464453 29452 layer_factory.hpp:77] Creating layer loss1/fc
I0403 14:13:29.464478 29452 net.cpp:91] Creating Layer loss1/fc
I0403 14:13:29.464495 29452 net.cpp:425] loss1/fc <- loss1/conv
I0403 14:13:29.464519 29452 net.cpp:399] loss1/fc -> loss1/fc
I0403 14:13:29.482749 29452 net.cpp:141] Setting up loss1/fc
I0403 14:13:29.482805 29452 net.cpp:148] Top shape: 24 1024 (24576)
I0403 14:13:29.482821 29452 net.cpp:156] Memory required for data: 945992736
I0403 14:13:29.482843 29452 layer_factory.hpp:77] Creating layer loss1/relu_fc
I0403 14:13:29.482866 29452 net.cpp:91] Creating Layer loss1/relu_fc
I0403 14:13:29.482897 29452 net.cpp:425] loss1/relu_fc <- loss1/fc
I0403 14:13:29.482916 29452 net.cpp:386] loss1/relu_fc -> loss1/fc (in-place)
I0403 14:13:29.483135 29452 net.cpp:141] Setting up loss1/relu_fc
I0403 14:13:29.483162 29452 net.cpp:148] Top shape: 24 1024 (24576)
I0403 14:13:29.483178 29452 net.cpp:156] Memory required for data: 946091040
I0403 14:13:29.483196 29452 layer_factory.hpp:77] Creating layer loss1/drop_fc
I0403 14:13:29.483223 29452 net.cpp:91] Creating Layer loss1/drop_fc
I0403 14:13:29.483242 29452 net.cpp:425] loss1/drop_fc <- loss1/fc
I0403 14:13:29.483259 29452 net.cpp:386] loss1/drop_fc -> loss1/fc (in-place)
I0403 14:13:29.483325 29452 net.cpp:141] Setting up loss1/drop_fc
I0403 14:13:29.483350 29452 net.cpp:148] Top shape: 24 1024 (24576)
I0403 14:13:29.483366 29452 net.cpp:156] Memory required for data: 946189344
I0403 14:13:29.483381 29452 layer_factory.hpp:77] Creating layer loss1/classifier_plantvillage
I0403 14:13:29.483400 29452 net.cpp:91] Creating Layer loss1/classifier_plantvillage
I0403 14:13:29.483417 29452 net.cpp:425] loss1/classifier_plantvillage <- loss1/fc
I0403 14:13:29.483438 29452 net.cpp:399] loss1/classifier_plantvillage -> loss1/classifier_plantvillage
I0403 14:13:29.484374 29452 net.cpp:141] Setting up loss1/classifier_plantvillage
I0403 14:13:29.484402 29452 net.cpp:148] Top shape: 24 38 (912)
I0403 14:13:29.484418 29452 net.cpp:156] Memory required for data: 946192992
I0403 14:13:29.484450 29452 layer_factory.hpp:77] Creating layer loss1/classifier_plantvillage_loss1/classifier_plantvillage_0_split
I0403 14:13:29.484472 29452 net.cpp:91] Creating Layer loss1/classifier_plantvillage_loss1/classifier_plantvillage_0_split
I0403 14:13:29.484491 29452 net.cpp:425] loss1/classifier_plantvillage_loss1/classifier_plantvillage_0_split <- loss1/classifier_plantvillage
I0403 14:13:29.484510 29452 net.cpp:399] loss1/classifier_plantvillage_loss1/classifier_plantvillage_0_split -> loss1/classifier_plantvillage_loss1/classifier_plantvillage_0_split_0
I0403 14:13:29.484532 29452 net.cpp:399] loss1/classifier_plantvillage_loss1/classifier_plantvillage_0_split -> loss1/classifier_plantvillage_loss1/classifier_plantvillage_0_split_1
I0403 14:13:29.484555 29452 net.cpp:399] loss1/classifier_plantvillage_loss1/classifier_plantvillage_0_split -> loss1/classifier_plantvillage_loss1/classifier_plantvillage_0_split_2
I0403 14:13:29.484624 29452 net.cpp:141] Setting up loss1/classifier_plantvillage_loss1/classifier_plantvillage_0_split
I0403 14:13:29.484648 29452 net.cpp:148] Top shape: 24 38 (912)
I0403 14:13:29.484666 29452 net.cpp:148] Top shape: 24 38 (912)
I0403 14:13:29.484683 29452 net.cpp:148] Top shape: 24 38 (912)
I0403 14:13:29.484696 29452 net.cpp:156] Memory required for data: 946203936
I0403 14:13:29.484711 29452 layer_factory.hpp:77] Creating layer inception_4b/1x1
I0403 14:13:29.484736 29452 net.cpp:91] Creating Layer inception_4b/1x1
I0403 14:13:29.484788 29452 net.cpp:425] inception_4b/1x1 <- inception_4a/output_inception_4a/output_0_split_1
I0403 14:13:29.484820 29452 net.cpp:399] inception_4b/1x1 -> inception_4b/1x1
I0403 14:13:29.486479 29452 net.cpp:141] Setting up inception_4b/1x1
I0403 14:13:29.486510 29452 net.cpp:148] Top shape: 24 160 14 14 (752640)
I0403 14:13:29.486526 29452 net.cpp:156] Memory required for data: 949214496
I0403 14:13:29.486546 29452 layer_factory.hpp:77] Creating layer inception_4b/relu_1x1
I0403 14:13:29.486565 29452 net.cpp:91] Creating Layer inception_4b/relu_1x1
I0403 14:13:29.486594 29452 net.cpp:425] inception_4b/relu_1x1 <- inception_4b/1x1
I0403 14:13:29.486614 29452 net.cpp:386] inception_4b/relu_1x1 -> inception_4b/1x1 (in-place)
I0403 14:13:29.486791 29452 net.cpp:141] Setting up inception_4b/relu_1x1
I0403 14:13:29.486816 29452 net.cpp:148] Top shape: 24 160 14 14 (752640)
I0403 14:13:29.486831 29452 net.cpp:156] Memory required for data: 952225056
I0403 14:13:29.486847 29452 layer_factory.hpp:77] Creating layer inception_4b/3x3_reduce
I0403 14:13:29.486868 29452 net.cpp:91] Creating Layer inception_4b/3x3_reduce
I0403 14:13:29.486886 29452 net.cpp:425] inception_4b/3x3_reduce <- inception_4a/output_inception_4a/output_0_split_2
I0403 14:13:29.486907 29452 net.cpp:399] inception_4b/3x3_reduce -> inception_4b/3x3_reduce
I0403 14:13:29.488245 29452 net.cpp:141] Setting up inception_4b/3x3_reduce
I0403 14:13:29.488275 29452 net.cpp:148] Top shape: 24 112 14 14 (526848)
I0403 14:13:29.488291 29452 net.cpp:156] Memory required for data: 954332448
I0403 14:13:29.488309 29452 layer_factory.hpp:77] Creating layer inception_4b/relu_3x3_reduce
I0403 14:13:29.488335 29452 net.cpp:91] Creating Layer inception_4b/relu_3x3_reduce
I0403 14:13:29.488353 29452 net.cpp:425] inception_4b/relu_3x3_reduce <- inception_4b/3x3_reduce
I0403 14:13:29.488373 29452 net.cpp:386] inception_4b/relu_3x3_reduce -> inception_4b/3x3_reduce (in-place)
I0403 14:13:29.488656 29452 net.cpp:141] Setting up inception_4b/relu_3x3_reduce
I0403 14:13:29.488682 29452 net.cpp:148] Top shape: 24 112 14 14 (526848)
I0403 14:13:29.488698 29452 net.cpp:156] Memory required for data: 956439840
I0403 14:13:29.488714 29452 layer_factory.hpp:77] Creating layer inception_4b/3x3
I0403 14:13:29.488739 29452 net.cpp:91] Creating Layer inception_4b/3x3
I0403 14:13:29.488756 29452 net.cpp:425] inception_4b/3x3 <- inception_4b/3x3_reduce
I0403 14:13:29.488778 29452 net.cpp:399] inception_4b/3x3 -> inception_4b/3x3
I0403 14:13:29.491750 29452 net.cpp:141] Setting up inception_4b/3x3
I0403 14:13:29.491780 29452 net.cpp:148] Top shape: 24 224 14 14 (1053696)
I0403 14:13:29.491796 29452 net.cpp:156] Memory required for data: 960654624
I0403 14:13:29.491814 29452 layer_factory.hpp:77] Creating layer inception_4b/relu_3x3
I0403 14:13:29.491835 29452 net.cpp:91] Creating Layer inception_4b/relu_3x3
I0403 14:13:29.491852 29452 net.cpp:425] inception_4b/relu_3x3 <- inception_4b/3x3
I0403 14:13:29.491871 29452 net.cpp:386] inception_4b/relu_3x3 -> inception_4b/3x3 (in-place)
I0403 14:13:29.492060 29452 net.cpp:141] Setting up inception_4b/relu_3x3
I0403 14:13:29.492086 29452 net.cpp:148] Top shape: 24 224 14 14 (1053696)
I0403 14:13:29.492101 29452 net.cpp:156] Memory required for data: 964869408
I0403 14:13:29.492116 29452 layer_factory.hpp:77] Creating layer inception_4b/5x5_reduce
I0403 14:13:29.492139 29452 net.cpp:91] Creating Layer inception_4b/5x5_reduce
I0403 14:13:29.492157 29452 net.cpp:425] inception_4b/5x5_reduce <- inception_4a/output_inception_4a/output_0_split_3
I0403 14:13:29.492177 29452 net.cpp:399] inception_4b/5x5_reduce -> inception_4b/5x5_reduce
I0403 14:13:29.493259 29452 net.cpp:141] Setting up inception_4b/5x5_reduce
I0403 14:13:29.493289 29452 net.cpp:148] Top shape: 24 24 14 14 (112896)
I0403 14:13:29.493304 29452 net.cpp:156] Memory required for data: 965320992
I0403 14:13:29.493335 29452 layer_factory.hpp:77] Creating layer inception_4b/relu_5x5_reduce
I0403 14:13:29.493355 29452 net.cpp:91] Creating Layer inception_4b/relu_5x5_reduce
I0403 14:13:29.493387 29452 net.cpp:425] inception_4b/relu_5x5_reduce <- inception_4b/5x5_reduce
I0403 14:13:29.493409 29452 net.cpp:386] inception_4b/relu_5x5_reduce -> inception_4b/5x5_reduce (in-place)
I0403 14:13:29.493597 29452 net.cpp:141] Setting up inception_4b/relu_5x5_reduce
I0403 14:13:29.493623 29452 net.cpp:148] Top shape: 24 24 14 14 (112896)
I0403 14:13:29.493638 29452 net.cpp:156] Memory required for data: 965772576
I0403 14:13:29.493654 29452 layer_factory.hpp:77] Creating layer inception_4b/5x5
I0403 14:13:29.493676 29452 net.cpp:91] Creating Layer inception_4b/5x5
I0403 14:13:29.493695 29452 net.cpp:425] inception_4b/5x5 <- inception_4b/5x5_reduce
I0403 14:13:29.493716 29452 net.cpp:399] inception_4b/5x5 -> inception_4b/5x5
I0403 14:13:29.494946 29452 net.cpp:141] Setting up inception_4b/5x5
I0403 14:13:29.494977 29452 net.cpp:148] Top shape: 24 64 14 14 (301056)
I0403 14:13:29.494994 29452 net.cpp:156] Memory required for data: 966976800
I0403 14:13:29.495013 29452 layer_factory.hpp:77] Creating layer inception_4b/relu_5x5
I0403 14:13:29.495031 29452 net.cpp:91] Creating Layer inception_4b/relu_5x5
I0403 14:13:29.495049 29452 net.cpp:425] inception_4b/relu_5x5 <- inception_4b/5x5
I0403 14:13:29.495069 29452 net.cpp:386] inception_4b/relu_5x5 -> inception_4b/5x5 (in-place)
I0403 14:13:29.495370 29452 net.cpp:141] Setting up inception_4b/relu_5x5
I0403 14:13:29.495400 29452 net.cpp:148] Top shape: 24 64 14 14 (301056)
I0403 14:13:29.495417 29452 net.cpp:156] Memory required for data: 968181024
I0403 14:13:29.495432 29452 layer_factory.hpp:77] Creating layer inception_4b/pool
I0403 14:13:29.495451 29452 net.cpp:91] Creating Layer inception_4b/pool
I0403 14:13:29.495467 29452 net.cpp:425] inception_4b/pool <- inception_4a/output_inception_4a/output_0_split_4
I0403 14:13:29.495488 29452 net.cpp:399] inception_4b/pool -> inception_4b/pool
I0403 14:13:29.495551 29452 net.cpp:141] Setting up inception_4b/pool
I0403 14:13:29.495575 29452 net.cpp:148] Top shape: 24 512 14 14 (2408448)
I0403 14:13:29.495590 29452 net.cpp:156] Memory required for data: 977814816
I0403 14:13:29.495606 29452 layer_factory.hpp:77] Creating layer inception_4b/pool_proj
I0403 14:13:29.495628 29452 net.cpp:91] Creating Layer inception_4b/pool_proj
I0403 14:13:29.495645 29452 net.cpp:425] inception_4b/pool_proj <- inception_4b/pool
I0403 14:13:29.495666 29452 net.cpp:399] inception_4b/pool_proj -> inception_4b/pool_proj
I0403 14:13:29.496852 29452 net.cpp:141] Setting up inception_4b/pool_proj
I0403 14:13:29.496882 29452 net.cpp:148] Top shape: 24 64 14 14 (301056)
I0403 14:13:29.496898 29452 net.cpp:156] Memory required for data: 979019040
I0403 14:13:29.496917 29452 layer_factory.hpp:77] Creating layer inception_4b/relu_pool_proj
I0403 14:13:29.496937 29452 net.cpp:91] Creating Layer inception_4b/relu_pool_proj
I0403 14:13:29.496953 29452 net.cpp:425] inception_4b/relu_pool_proj <- inception_4b/pool_proj
I0403 14:13:29.496973 29452 net.cpp:386] inception_4b/relu_pool_proj -> inception_4b/pool_proj (in-place)
I0403 14:13:29.497165 29452 net.cpp:141] Setting up inception_4b/relu_pool_proj
I0403 14:13:29.497190 29452 net.cpp:148] Top shape: 24 64 14 14 (301056)
I0403 14:13:29.497205 29452 net.cpp:156] Memory required for data: 980223264
I0403 14:13:29.497220 29452 layer_factory.hpp:77] Creating layer inception_4b/output
I0403 14:13:29.497237 29452 net.cpp:91] Creating Layer inception_4b/output
I0403 14:13:29.497252 29452 net.cpp:425] inception_4b/output <- inception_4b/1x1
I0403 14:13:29.497269 29452 net.cpp:425] inception_4b/output <- inception_4b/3x3
I0403 14:13:29.497285 29452 net.cpp:425] inception_4b/output <- inception_4b/5x5
I0403 14:13:29.497301 29452 net.cpp:425] inception_4b/output <- inception_4b/pool_proj
I0403 14:13:29.497326 29452 net.cpp:399] inception_4b/output -> inception_4b/output
I0403 14:13:29.497376 29452 net.cpp:141] Setting up inception_4b/output
I0403 14:13:29.497400 29452 net.cpp:148] Top shape: 24 512 14 14 (2408448)
I0403 14:13:29.497416 29452 net.cpp:156] Memory required for data: 989857056
I0403 14:13:29.497443 29452 layer_factory.hpp:77] Creating layer inception_4b/output_inception_4b/output_0_split
I0403 14:13:29.497462 29452 net.cpp:91] Creating Layer inception_4b/output_inception_4b/output_0_split
I0403 14:13:29.497478 29452 net.cpp:425] inception_4b/output_inception_4b/output_0_split <- inception_4b/output
I0403 14:13:29.497498 29452 net.cpp:399] inception_4b/output_inception_4b/output_0_split -> inception_4b/output_inception_4b/output_0_split_0
I0403 14:13:29.497519 29452 net.cpp:399] inception_4b/output_inception_4b/output_0_split -> inception_4b/output_inception_4b/output_0_split_1
I0403 14:13:29.497540 29452 net.cpp:399] inception_4b/output_inception_4b/output_0_split -> inception_4b/output_inception_4b/output_0_split_2
I0403 14:13:29.497560 29452 net.cpp:399] inception_4b/output_inception_4b/output_0_split -> inception_4b/output_inception_4b/output_0_split_3
I0403 14:13:29.497642 29452 net.cpp:141] Setting up inception_4b/output_inception_4b/output_0_split
I0403 14:13:29.497665 29452 net.cpp:148] Top shape: 24 512 14 14 (2408448)
I0403 14:13:29.497681 29452 net.cpp:148] Top shape: 24 512 14 14 (2408448)
I0403 14:13:29.497696 29452 net.cpp:148] Top shape: 24 512 14 14 (2408448)
I0403 14:13:29.497714 29452 net.cpp:148] Top shape: 24 512 14 14 (2408448)
I0403 14:13:29.497727 29452 net.cpp:156] Memory required for data: 1028392224
I0403 14:13:29.497742 29452 layer_factory.hpp:77] Creating layer inception_4c/1x1
I0403 14:13:29.497764 29452 net.cpp:91] Creating Layer inception_4c/1x1
I0403 14:13:29.497782 29452 net.cpp:425] inception_4c/1x1 <- inception_4b/output_inception_4b/output_0_split_0
I0403 14:13:29.497802 29452 net.cpp:399] inception_4c/1x1 -> inception_4c/1x1
I0403 14:13:29.499233 29452 net.cpp:141] Setting up inception_4c/1x1
I0403 14:13:29.499261 29452 net.cpp:148] Top shape: 24 128 14 14 (602112)
I0403 14:13:29.499277 29452 net.cpp:156] Memory required for data: 1030800672
I0403 14:13:29.499297 29452 layer_factory.hpp:77] Creating layer inception_4c/relu_1x1
I0403 14:13:29.499323 29452 net.cpp:91] Creating Layer inception_4c/relu_1x1
I0403 14:13:29.499342 29452 net.cpp:425] inception_4c/relu_1x1 <- inception_4c/1x1
I0403 14:13:29.499359 29452 net.cpp:386] inception_4c/relu_1x1 -> inception_4c/1x1 (in-place)
I0403 14:13:29.499536 29452 net.cpp:141] Setting up inception_4c/relu_1x1
I0403 14:13:29.499562 29452 net.cpp:148] Top shape: 24 128 14 14 (602112)
I0403 14:13:29.499578 29452 net.cpp:156] Memory required for data: 1033209120
I0403 14:13:29.499593 29452 layer_factory.hpp:77] Creating layer inception_4c/3x3_reduce
I0403 14:13:29.499619 29452 net.cpp:91] Creating Layer inception_4c/3x3_reduce
I0403 14:13:29.499639 29452 net.cpp:425] inception_4c/3x3_reduce <- inception_4b/output_inception_4b/output_0_split_1
I0403 14:13:29.499657 29452 net.cpp:399] inception_4c/3x3_reduce -> inception_4c/3x3_reduce
I0403 14:13:29.501602 29452 net.cpp:141] Setting up inception_4c/3x3_reduce
I0403 14:13:29.501636 29452 net.cpp:148] Top shape: 24 128 14 14 (602112)
I0403 14:13:29.501653 29452 net.cpp:156] Memory required for data: 1035617568
I0403 14:13:29.501673 29452 layer_factory.hpp:77] Creating layer inception_4c/relu_3x3_reduce
I0403 14:13:29.501691 29452 net.cpp:91] Creating Layer inception_4c/relu_3x3_reduce
I0403 14:13:29.501708 29452 net.cpp:425] inception_4c/relu_3x3_reduce <- inception_4c/3x3_reduce
I0403 14:13:29.501726 29452 net.cpp:386] inception_4c/relu_3x3_reduce -> inception_4c/3x3_reduce (in-place)
I0403 14:13:29.502014 29452 net.cpp:141] Setting up inception_4c/relu_3x3_reduce
I0403 14:13:29.502043 29452 net.cpp:148] Top shape: 24 128 14 14 (602112)
I0403 14:13:29.502060 29452 net.cpp:156] Memory required for data: 1038026016
I0403 14:13:29.502076 29452 layer_factory.hpp:77] Creating layer inception_4c/3x3
I0403 14:13:29.502100 29452 net.cpp:91] Creating Layer inception_4c/3x3
I0403 14:13:29.502120 29452 net.cpp:425] inception_4c/3x3 <- inception_4c/3x3_reduce
I0403 14:13:29.502138 29452 net.cpp:399] inception_4c/3x3 -> inception_4c/3x3
I0403 14:13:29.505797 29452 net.cpp:141] Setting up inception_4c/3x3
I0403 14:13:29.505853 29452 net.cpp:148] Top shape: 24 256 14 14 (1204224)
I0403 14:13:29.505873 29452 net.cpp:156] Memory required for data: 1042842912
I0403 14:13:29.505919 29452 layer_factory.hpp:77] Creating layer inception_4c/relu_3x3
I0403 14:13:29.505942 29452 net.cpp:91] Creating Layer inception_4c/relu_3x3
I0403 14:13:29.505959 29452 net.cpp:425] inception_4c/relu_3x3 <- inception_4c/3x3
I0403 14:13:29.505978 29452 net.cpp:386] inception_4c/relu_3x3 -> inception_4c/3x3 (in-place)
I0403 14:13:29.506165 29452 net.cpp:141] Setting up inception_4c/relu_3x3
I0403 14:13:29.506196 29452 net.cpp:148] Top shape: 24 256 14 14 (1204224)
I0403 14:13:29.506211 29452 net.cpp:156] Memory required for data: 1047659808
I0403 14:13:29.506227 29452 layer_factory.hpp:77] Creating layer inception_4c/5x5_reduce
I0403 14:13:29.506250 29452 net.cpp:91] Creating Layer inception_4c/5x5_reduce
I0403 14:13:29.506268 29452 net.cpp:425] inception_4c/5x5_reduce <- inception_4b/output_inception_4b/output_0_split_2
I0403 14:13:29.506291 29452 net.cpp:399] inception_4c/5x5_reduce -> inception_4c/5x5_reduce
I0403 14:13:29.507417 29452 net.cpp:141] Setting up inception_4c/5x5_reduce
I0403 14:13:29.507447 29452 net.cpp:148] Top shape: 24 24 14 14 (112896)
I0403 14:13:29.507462 29452 net.cpp:156] Memory required for data: 1048111392
I0403 14:13:29.507480 29452 layer_factory.hpp:77] Creating layer inception_4c/relu_5x5_reduce
I0403 14:13:29.507499 29452 net.cpp:91] Creating Layer inception_4c/relu_5x5_reduce
I0403 14:13:29.507516 29452 net.cpp:425] inception_4c/relu_5x5_reduce <- inception_4c/5x5_reduce
I0403 14:13:29.507535 29452 net.cpp:386] inception_4c/relu_5x5_reduce -> inception_4c/5x5_reduce (in-place)
I0403 14:13:29.507719 29452 net.cpp:141] Setting up inception_4c/relu_5x5_reduce
I0403 14:13:29.507745 29452 net.cpp:148] Top shape: 24 24 14 14 (112896)
I0403 14:13:29.507760 29452 net.cpp:156] Memory required for data: 1048562976
I0403 14:13:29.507776 29452 layer_factory.hpp:77] Creating layer inception_4c/5x5
I0403 14:13:29.507799 29452 net.cpp:91] Creating Layer inception_4c/5x5
I0403 14:13:29.507815 29452 net.cpp:425] inception_4c/5x5 <- inception_4c/5x5_reduce
I0403 14:13:29.507838 29452 net.cpp:399] inception_4c/5x5 -> inception_4c/5x5
I0403 14:13:29.509083 29452 net.cpp:141] Setting up inception_4c/5x5
I0403 14:13:29.509109 29452 net.cpp:148] Top shape: 24 64 14 14 (301056)
I0403 14:13:29.509125 29452 net.cpp:156] Memory required for data: 1049767200
I0403 14:13:29.509145 29452 layer_factory.hpp:77] Creating layer inception_4c/relu_5x5
I0403 14:13:29.509166 29452 net.cpp:91] Creating Layer inception_4c/relu_5x5
I0403 14:13:29.509182 29452 net.cpp:425] inception_4c/relu_5x5 <- inception_4c/5x5
I0403 14:13:29.509201 29452 net.cpp:386] inception_4c/relu_5x5 -> inception_4c/5x5 (in-place)
I0403 14:13:29.509495 29452 net.cpp:141] Setting up inception_4c/relu_5x5
I0403 14:13:29.509521 29452 net.cpp:148] Top shape: 24 64 14 14 (301056)
I0403 14:13:29.509536 29452 net.cpp:156] Memory required for data: 1050971424
I0403 14:13:29.509553 29452 layer_factory.hpp:77] Creating layer inception_4c/pool
I0403 14:13:29.509570 29452 net.cpp:91] Creating Layer inception_4c/pool
I0403 14:13:29.509585 29452 net.cpp:425] inception_4c/pool <- inception_4b/output_inception_4b/output_0_split_3
I0403 14:13:29.509605 29452 net.cpp:399] inception_4c/pool -> inception_4c/pool
I0403 14:13:29.509670 29452 net.cpp:141] Setting up inception_4c/pool
I0403 14:13:29.509693 29452 net.cpp:148] Top shape: 24 512 14 14 (2408448)
I0403 14:13:29.509707 29452 net.cpp:156] Memory required for data: 1060605216
I0403 14:13:29.509722 29452 layer_factory.hpp:77] Creating layer inception_4c/pool_proj
I0403 14:13:29.509745 29452 net.cpp:91] Creating Layer inception_4c/pool_proj
I0403 14:13:29.509763 29452 net.cpp:425] inception_4c/pool_proj <- inception_4c/pool
I0403 14:13:29.509783 29452 net.cpp:399] inception_4c/pool_proj -> inception_4c/pool_proj
I0403 14:13:29.511029 29452 net.cpp:141] Setting up inception_4c/pool_proj
I0403 14:13:29.511057 29452 net.cpp:148] Top shape: 24 64 14 14 (301056)
I0403 14:13:29.511086 29452 net.cpp:156] Memory required for data: 1061809440
I0403 14:13:29.511106 29452 layer_factory.hpp:77] Creating layer inception_4c/relu_pool_proj
I0403 14:13:29.511123 29452 net.cpp:91] Creating Layer inception_4c/relu_pool_proj
I0403 14:13:29.511140 29452 net.cpp:425] inception_4c/relu_pool_proj <- inception_4c/pool_proj
I0403 14:13:29.511159 29452 net.cpp:386] inception_4c/relu_pool_proj -> inception_4c/pool_proj (in-place)
I0403 14:13:29.511346 29452 net.cpp:141] Setting up inception_4c/relu_pool_proj
I0403 14:13:29.511373 29452 net.cpp:148] Top shape: 24 64 14 14 (301056)
I0403 14:13:29.511387 29452 net.cpp:156] Memory required for data: 1063013664
I0403 14:13:29.511401 29452 layer_factory.hpp:77] Creating layer inception_4c/output
I0403 14:13:29.511420 29452 net.cpp:91] Creating Layer inception_4c/output
I0403 14:13:29.511435 29452 net.cpp:425] inception_4c/output <- inception_4c/1x1
I0403 14:13:29.511451 29452 net.cpp:425] inception_4c/output <- inception_4c/3x3
I0403 14:13:29.511467 29452 net.cpp:425] inception_4c/output <- inception_4c/5x5
I0403 14:13:29.511483 29452 net.cpp:425] inception_4c/output <- inception_4c/pool_proj
I0403 14:13:29.511502 29452 net.cpp:399] inception_4c/output -> inception_4c/output
I0403 14:13:29.511548 29452 net.cpp:141] Setting up inception_4c/output
I0403 14:13:29.511575 29452 net.cpp:148] Top shape: 24 512 14 14 (2408448)
I0403 14:13:29.511590 29452 net.cpp:156] Memory required for data: 1072647456
I0403 14:13:29.511605 29452 layer_factory.hpp:77] Creating layer inception_4c/output_inception_4c/output_0_split
I0403 14:13:29.511622 29452 net.cpp:91] Creating Layer inception_4c/output_inception_4c/output_0_split
I0403 14:13:29.511637 29452 net.cpp:425] inception_4c/output_inception_4c/output_0_split <- inception_4c/output
I0403 14:13:29.511653 29452 net.cpp:399] inception_4c/output_inception_4c/output_0_split -> inception_4c/output_inception_4c/output_0_split_0
I0403 14:13:29.511675 29452 net.cpp:399] inception_4c/output_inception_4c/output_0_split -> inception_4c/output_inception_4c/output_0_split_1
I0403 14:13:29.511696 29452 net.cpp:399] inception_4c/output_inception_4c/output_0_split -> inception_4c/output_inception_4c/output_0_split_2
I0403 14:13:29.511716 29452 net.cpp:399] inception_4c/output_inception_4c/output_0_split -> inception_4c/output_inception_4c/output_0_split_3
I0403 14:13:29.511804 29452 net.cpp:141] Setting up inception_4c/output_inception_4c/output_0_split
I0403 14:13:29.511827 29452 net.cpp:148] Top shape: 24 512 14 14 (2408448)
I0403 14:13:29.511843 29452 net.cpp:148] Top shape: 24 512 14 14 (2408448)
I0403 14:13:29.511859 29452 net.cpp:148] Top shape: 24 512 14 14 (2408448)
I0403 14:13:29.511874 29452 net.cpp:148] Top shape: 24 512 14 14 (2408448)
I0403 14:13:29.511899 29452 net.cpp:156] Memory required for data: 1111182624
I0403 14:13:29.511914 29452 layer_factory.hpp:77] Creating layer inception_4d/1x1
I0403 14:13:29.511940 29452 net.cpp:91] Creating Layer inception_4d/1x1
I0403 14:13:29.511960 29452 net.cpp:425] inception_4d/1x1 <- inception_4c/output_inception_4c/output_0_split_0
I0403 14:13:29.511981 29452 net.cpp:399] inception_4d/1x1 -> inception_4d/1x1
I0403 14:13:29.513425 29452 net.cpp:141] Setting up inception_4d/1x1
I0403 14:13:29.513455 29452 net.cpp:148] Top shape: 24 112 14 14 (526848)
I0403 14:13:29.513471 29452 net.cpp:156] Memory required for data: 1113290016
I0403 14:13:29.513489 29452 layer_factory.hpp:77] Creating layer inception_4d/relu_1x1
I0403 14:13:29.513511 29452 net.cpp:91] Creating Layer inception_4d/relu_1x1
I0403 14:13:29.513542 29452 net.cpp:425] inception_4d/relu_1x1 <- inception_4d/1x1
I0403 14:13:29.513562 29452 net.cpp:386] inception_4d/relu_1x1 -> inception_4d/1x1 (in-place)
I0403 14:13:29.513754 29452 net.cpp:141] Setting up inception_4d/relu_1x1
I0403 14:13:29.513782 29452 net.cpp:148] Top shape: 24 112 14 14 (526848)
I0403 14:13:29.513797 29452 net.cpp:156] Memory required for data: 1115397408
I0403 14:13:29.513813 29452 layer_factory.hpp:77] Creating layer inception_4d/3x3_reduce
I0403 14:13:29.513851 29452 net.cpp:91] Creating Layer inception_4d/3x3_reduce
I0403 14:13:29.513883 29452 net.cpp:425] inception_4d/3x3_reduce <- inception_4c/output_inception_4c/output_0_split_1
I0403 14:13:29.513906 29452 net.cpp:399] inception_4d/3x3_reduce -> inception_4d/3x3_reduce
I0403 14:13:29.515447 29452 net.cpp:141] Setting up inception_4d/3x3_reduce
I0403 14:13:29.515475 29452 net.cpp:148] Top shape: 24 144 14 14 (677376)
I0403 14:13:29.515492 29452 net.cpp:156] Memory required for data: 1118106912
I0403 14:13:29.515512 29452 layer_factory.hpp:77] Creating layer inception_4d/relu_3x3_reduce
I0403 14:13:29.515534 29452 net.cpp:91] Creating Layer inception_4d/relu_3x3_reduce
I0403 14:13:29.515552 29452 net.cpp:425] inception_4d/relu_3x3_reduce <- inception_4d/3x3_reduce
I0403 14:13:29.515571 29452 net.cpp:386] inception_4d/relu_3x3_reduce -> inception_4d/3x3_reduce (in-place)
I0403 14:13:29.515878 29452 net.cpp:141] Setting up inception_4d/relu_3x3_reduce
I0403 14:13:29.515905 29452 net.cpp:148] Top shape: 24 144 14 14 (677376)
I0403 14:13:29.515920 29452 net.cpp:156] Memory required for data: 1120816416
I0403 14:13:29.515935 29452 layer_factory.hpp:77] Creating layer inception_4d/3x3
I0403 14:13:29.515961 29452 net.cpp:91] Creating Layer inception_4d/3x3
I0403 14:13:29.515980 29452 net.cpp:425] inception_4d/3x3 <- inception_4d/3x3_reduce
I0403 14:13:29.516001 29452 net.cpp:399] inception_4d/3x3 -> inception_4d/3x3
I0403 14:13:29.520364 29452 net.cpp:141] Setting up inception_4d/3x3
I0403 14:13:29.520397 29452 net.cpp:148] Top shape: 24 288 14 14 (1354752)
I0403 14:13:29.520416 29452 net.cpp:156] Memory required for data: 1126235424
I0403 14:13:29.520436 29452 layer_factory.hpp:77] Creating layer inception_4d/relu_3x3
I0403 14:13:29.520455 29452 net.cpp:91] Creating Layer inception_4d/relu_3x3
I0403 14:13:29.520473 29452 net.cpp:425] inception_4d/relu_3x3 <- inception_4d/3x3
I0403 14:13:29.520491 29452 net.cpp:386] inception_4d/relu_3x3 -> inception_4d/3x3 (in-place)
I0403 14:13:29.520696 29452 net.cpp:141] Setting up inception_4d/relu_3x3
I0403 14:13:29.520725 29452 net.cpp:148] Top shape: 24 288 14 14 (1354752)
I0403 14:13:29.520740 29452 net.cpp:156] Memory required for data: 1131654432
I0403 14:13:29.520756 29452 layer_factory.hpp:77] Creating layer inception_4d/5x5_reduce
I0403 14:13:29.520778 29452 net.cpp:91] Creating Layer inception_4d/5x5_reduce
I0403 14:13:29.520797 29452 net.cpp:425] inception_4d/5x5_reduce <- inception_4c/output_inception_4c/output_0_split_2
I0403 14:13:29.520819 29452 net.cpp:399] inception_4d/5x5_reduce -> inception_4d/5x5_reduce
I0403 14:13:29.521984 29452 net.cpp:141] Setting up inception_4d/5x5_reduce
I0403 14:13:29.522012 29452 net.cpp:148] Top shape: 24 32 14 14 (150528)
I0403 14:13:29.522028 29452 net.cpp:156] Memory required for data: 1132256544
I0403 14:13:29.522048 29452 layer_factory.hpp:77] Creating layer inception_4d/relu_5x5_reduce
I0403 14:13:29.522068 29452 net.cpp:91] Creating Layer inception_4d/relu_5x5_reduce
I0403 14:13:29.522085 29452 net.cpp:425] inception_4d/relu_5x5_reduce <- inception_4d/5x5_reduce
I0403 14:13:29.522104 29452 net.cpp:386] inception_4d/relu_5x5_reduce -> inception_4d/5x5_reduce (in-place)
I0403 14:13:29.522294 29452 net.cpp:141] Setting up inception_4d/relu_5x5_reduce
I0403 14:13:29.522325 29452 net.cpp:148] Top shape: 24 32 14 14 (150528)
I0403 14:13:29.522342 29452 net.cpp:156] Memory required for data: 1132858656
I0403 14:13:29.522358 29452 layer_factory.hpp:77] Creating layer inception_4d/5x5
I0403 14:13:29.522380 29452 net.cpp:91] Creating Layer inception_4d/5x5
I0403 14:13:29.522398 29452 net.cpp:425] inception_4d/5x5 <- inception_4d/5x5_reduce
I0403 14:13:29.522420 29452 net.cpp:399] inception_4d/5x5 -> inception_4d/5x5
I0403 14:13:29.523929 29452 net.cpp:141] Setting up inception_4d/5x5
I0403 14:13:29.523958 29452 net.cpp:148] Top shape: 24 64 14 14 (301056)
I0403 14:13:29.523974 29452 net.cpp:156] Memory required for data: 1134062880
I0403 14:13:29.523994 29452 layer_factory.hpp:77] Creating layer inception_4d/relu_5x5
I0403 14:13:29.524027 29452 net.cpp:91] Creating Layer inception_4d/relu_5x5
I0403 14:13:29.524044 29452 net.cpp:425] inception_4d/relu_5x5 <- inception_4d/5x5
I0403 14:13:29.524065 29452 net.cpp:386] inception_4d/relu_5x5 -> inception_4d/5x5 (in-place)
I0403 14:13:29.524380 29452 net.cpp:141] Setting up inception_4d/relu_5x5
I0403 14:13:29.524407 29452 net.cpp:148] Top shape: 24 64 14 14 (301056)
I0403 14:13:29.524423 29452 net.cpp:156] Memory required for data: 1135267104
I0403 14:13:29.524440 29452 layer_factory.hpp:77] Creating layer inception_4d/pool
I0403 14:13:29.524457 29452 net.cpp:91] Creating Layer inception_4d/pool
I0403 14:13:29.524474 29452 net.cpp:425] inception_4d/pool <- inception_4c/output_inception_4c/output_0_split_3
I0403 14:13:29.524495 29452 net.cpp:399] inception_4d/pool -> inception_4d/pool
I0403 14:13:29.524565 29452 net.cpp:141] Setting up inception_4d/pool
I0403 14:13:29.524590 29452 net.cpp:148] Top shape: 24 512 14 14 (2408448)
I0403 14:13:29.524605 29452 net.cpp:156] Memory required for data: 1144900896
I0403 14:13:29.524621 29452 layer_factory.hpp:77] Creating layer inception_4d/pool_proj
I0403 14:13:29.524644 29452 net.cpp:91] Creating Layer inception_4d/pool_proj
I0403 14:13:29.524662 29452 net.cpp:425] inception_4d/pool_proj <- inception_4d/pool
I0403 14:13:29.524683 29452 net.cpp:399] inception_4d/pool_proj -> inception_4d/pool_proj
I0403 14:13:29.526499 29452 net.cpp:141] Setting up inception_4d/pool_proj
I0403 14:13:29.526530 29452 net.cpp:148] Top shape: 24 64 14 14 (301056)
I0403 14:13:29.526548 29452 net.cpp:156] Memory required for data: 1146105120
I0403 14:13:29.526567 29452 layer_factory.hpp:77] Creating layer inception_4d/relu_pool_proj
I0403 14:13:29.526587 29452 net.cpp:91] Creating Layer inception_4d/relu_pool_proj
I0403 14:13:29.526603 29452 net.cpp:425] inception_4d/relu_pool_proj <- inception_4d/pool_proj
I0403 14:13:29.526620 29452 net.cpp:386] inception_4d/relu_pool_proj -> inception_4d/pool_proj (in-place)
I0403 14:13:29.526809 29452 net.cpp:141] Setting up inception_4d/relu_pool_proj
I0403 14:13:29.526836 29452 net.cpp:148] Top shape: 24 64 14 14 (301056)
I0403 14:13:29.526852 29452 net.cpp:156] Memory required for data: 1147309344
I0403 14:13:29.526868 29452 layer_factory.hpp:77] Creating layer inception_4d/output
I0403 14:13:29.526887 29452 net.cpp:91] Creating Layer inception_4d/output
I0403 14:13:29.526903 29452 net.cpp:425] inception_4d/output <- inception_4d/1x1
I0403 14:13:29.526921 29452 net.cpp:425] inception_4d/output <- inception_4d/3x3
I0403 14:13:29.526937 29452 net.cpp:425] inception_4d/output <- inception_4d/5x5
I0403 14:13:29.526952 29452 net.cpp:425] inception_4d/output <- inception_4d/pool_proj
I0403 14:13:29.526973 29452 net.cpp:399] inception_4d/output -> inception_4d/output
I0403 14:13:29.527020 29452 net.cpp:141] Setting up inception_4d/output
I0403 14:13:29.527045 29452 net.cpp:148] Top shape: 24 528 14 14 (2483712)
I0403 14:13:29.527061 29452 net.cpp:156] Memory required for data: 1157244192
I0403 14:13:29.527076 29452 layer_factory.hpp:77] Creating layer inception_4d/output_inception_4d/output_0_split
I0403 14:13:29.527099 29452 net.cpp:91] Creating Layer inception_4d/output_inception_4d/output_0_split
I0403 14:13:29.527117 29452 net.cpp:425] inception_4d/output_inception_4d/output_0_split <- inception_4d/output
I0403 14:13:29.527134 29452 net.cpp:399] inception_4d/output_inception_4d/output_0_split -> inception_4d/output_inception_4d/output_0_split_0
I0403 14:13:29.527160 29452 net.cpp:399] inception_4d/output_inception_4d/output_0_split -> inception_4d/output_inception_4d/output_0_split_1
I0403 14:13:29.527184 29452 net.cpp:399] inception_4d/output_inception_4d/output_0_split -> inception_4d/output_inception_4d/output_0_split_2
I0403 14:13:29.527205 29452 net.cpp:399] inception_4d/output_inception_4d/output_0_split -> inception_4d/output_inception_4d/output_0_split_3
I0403 14:13:29.527225 29452 net.cpp:399] inception_4d/output_inception_4d/output_0_split -> inception_4d/output_inception_4d/output_0_split_4
I0403 14:13:29.527333 29452 net.cpp:141] Setting up inception_4d/output_inception_4d/output_0_split
I0403 14:13:29.527370 29452 net.cpp:148] Top shape: 24 528 14 14 (2483712)
I0403 14:13:29.527389 29452 net.cpp:148] Top shape: 24 528 14 14 (2483712)
I0403 14:13:29.527405 29452 net.cpp:148] Top shape: 24 528 14 14 (2483712)
I0403 14:13:29.527421 29452 net.cpp:148] Top shape: 24 528 14 14 (2483712)
I0403 14:13:29.527437 29452 net.cpp:148] Top shape: 24 528 14 14 (2483712)
I0403 14:13:29.527451 29452 net.cpp:156] Memory required for data: 1206918432
I0403 14:13:29.527467 29452 layer_factory.hpp:77] Creating layer loss2/ave_pool
I0403 14:13:29.527488 29452 net.cpp:91] Creating Layer loss2/ave_pool
I0403 14:13:29.527506 29452 net.cpp:425] loss2/ave_pool <- inception_4d/output_inception_4d/output_0_split_0
I0403 14:13:29.527526 29452 net.cpp:399] loss2/ave_pool -> loss2/ave_pool
I0403 14:13:29.527842 29452 net.cpp:141] Setting up loss2/ave_pool
I0403 14:13:29.527871 29452 net.cpp:148] Top shape: 24 528 4 4 (202752)
I0403 14:13:29.527887 29452 net.cpp:156] Memory required for data: 1207729440
I0403 14:13:29.527902 29452 layer_factory.hpp:77] Creating layer loss2/conv
I0403 14:13:29.527925 29452 net.cpp:91] Creating Layer loss2/conv
I0403 14:13:29.527945 29452 net.cpp:425] loss2/conv <- loss2/ave_pool
I0403 14:13:29.527964 29452 net.cpp:399] loss2/conv -> loss2/conv
I0403 14:13:29.529914 29452 net.cpp:141] Setting up loss2/conv
I0403 14:13:29.529943 29452 net.cpp:148] Top shape: 24 128 4 4 (49152)
I0403 14:13:29.529960 29452 net.cpp:156] Memory required for data: 1207926048
I0403 14:13:29.529980 29452 layer_factory.hpp:77] Creating layer loss2/relu_conv
I0403 14:13:29.529999 29452 net.cpp:91] Creating Layer loss2/relu_conv
I0403 14:13:29.530020 29452 net.cpp:425] loss2/relu_conv <- loss2/conv
I0403 14:13:29.530038 29452 net.cpp:386] loss2/relu_conv -> loss2/conv (in-place)
I0403 14:13:29.530345 29452 net.cpp:141] Setting up loss2/relu_conv
I0403 14:13:29.530371 29452 net.cpp:148] Top shape: 24 128 4 4 (49152)
I0403 14:13:29.530386 29452 net.cpp:156] Memory required for data: 1208122656
I0403 14:13:29.530402 29452 layer_factory.hpp:77] Creating layer loss2/fc
I0403 14:13:29.530421 29452 net.cpp:91] Creating Layer loss2/fc
I0403 14:13:29.530444 29452 net.cpp:425] loss2/fc <- loss2/conv
I0403 14:13:29.530463 29452 net.cpp:399] loss2/fc -> loss2/fc
I0403 14:13:29.548157 29452 net.cpp:141] Setting up loss2/fc
I0403 14:13:29.548207 29452 net.cpp:148] Top shape: 24 1024 (24576)
I0403 14:13:29.548223 29452 net.cpp:156] Memory required for data: 1208220960
I0403 14:13:29.548243 29452 layer_factory.hpp:77] Creating layer loss2/relu_fc
I0403 14:13:29.548265 29452 net.cpp:91] Creating Layer loss2/relu_fc
I0403 14:13:29.548285 29452 net.cpp:425] loss2/relu_fc <- loss2/fc
I0403 14:13:29.548305 29452 net.cpp:386] loss2/relu_fc -> loss2/fc (in-place)
I0403 14:13:29.548648 29452 net.cpp:141] Setting up loss2/relu_fc
I0403 14:13:29.548677 29452 net.cpp:148] Top shape: 24 1024 (24576)
I0403 14:13:29.548694 29452 net.cpp:156] Memory required for data: 1208319264
I0403 14:13:29.548712 29452 layer_factory.hpp:77] Creating layer loss2/drop_fc
I0403 14:13:29.548730 29452 net.cpp:91] Creating Layer loss2/drop_fc
I0403 14:13:29.548748 29452 net.cpp:425] loss2/drop_fc <- loss2/fc
I0403 14:13:29.548768 29452 net.cpp:386] loss2/drop_fc -> loss2/fc (in-place)
I0403 14:13:29.548820 29452 net.cpp:141] Setting up loss2/drop_fc
I0403 14:13:29.548845 29452 net.cpp:148] Top shape: 24 1024 (24576)
I0403 14:13:29.548858 29452 net.cpp:156] Memory required for data: 1208417568
I0403 14:13:29.548873 29452 layer_factory.hpp:77] Creating layer loss2/classifier_plantvillage
I0403 14:13:29.548897 29452 net.cpp:91] Creating Layer loss2/classifier_plantvillage
I0403 14:13:29.548913 29452 net.cpp:425] loss2/classifier_plantvillage <- loss2/fc
I0403 14:13:29.548933 29452 net.cpp:399] loss2/classifier_plantvillage -> loss2/classifier_plantvillage
I0403 14:13:29.549350 29452 net.cpp:141] Setting up loss2/classifier_plantvillage
I0403 14:13:29.549377 29452 net.cpp:148] Top shape: 24 38 (912)
I0403 14:13:29.549393 29452 net.cpp:156] Memory required for data: 1208421216
I0403 14:13:29.549434 29452 layer_factory.hpp:77] Creating layer loss2/classifier_plantvillage_loss2/classifier_plantvillage_0_split
I0403 14:13:29.549454 29452 net.cpp:91] Creating Layer loss2/classifier_plantvillage_loss2/classifier_plantvillage_0_split
I0403 14:13:29.549474 29452 net.cpp:425] loss2/classifier_plantvillage_loss2/classifier_plantvillage_0_split <- loss2/classifier_plantvillage
I0403 14:13:29.549491 29452 net.cpp:399] loss2/classifier_plantvillage_loss2/classifier_plantvillage_0_split -> loss2/classifier_plantvillage_loss2/classifier_plantvillage_0_split_0
I0403 14:13:29.549512 29452 net.cpp:399] loss2/classifier_plantvillage_loss2/classifier_plantvillage_0_split -> loss2/classifier_plantvillage_loss2/classifier_plantvillage_0_split_1
I0403 14:13:29.549533 29452 net.cpp:399] loss2/classifier_plantvillage_loss2/classifier_plantvillage_0_split -> loss2/classifier_plantvillage_loss2/classifier_plantvillage_0_split_2
I0403 14:13:29.549612 29452 net.cpp:141] Setting up loss2/classifier_plantvillage_loss2/classifier_plantvillage_0_split
I0403 14:13:29.549639 29452 net.cpp:148] Top shape: 24 38 (912)
I0403 14:13:29.549656 29452 net.cpp:148] Top shape: 24 38 (912)
I0403 14:13:29.549671 29452 net.cpp:148] Top shape: 24 38 (912)
I0403 14:13:29.549685 29452 net.cpp:156] Memory required for data: 1208432160
I0403 14:13:29.549700 29452 layer_factory.hpp:77] Creating layer inception_4e/1x1
I0403 14:13:29.549722 29452 net.cpp:91] Creating Layer inception_4e/1x1
I0403 14:13:29.549741 29452 net.cpp:425] inception_4e/1x1 <- inception_4d/output_inception_4d/output_0_split_1
I0403 14:13:29.549767 29452 net.cpp:399] inception_4e/1x1 -> inception_4e/1x1
I0403 14:13:29.551641 29452 net.cpp:141] Setting up inception_4e/1x1
I0403 14:13:29.551671 29452 net.cpp:148] Top shape: 24 256 14 14 (1204224)
I0403 14:13:29.551687 29452 net.cpp:156] Memory required for data: 1213249056
I0403 14:13:29.551705 29452 layer_factory.hpp:77] Creating layer inception_4e/relu_1x1
I0403 14:13:29.551724 29452 net.cpp:91] Creating Layer inception_4e/relu_1x1
I0403 14:13:29.551741 29452 net.cpp:425] inception_4e/relu_1x1 <- inception_4e/1x1
I0403 14:13:29.551764 29452 net.cpp:386] inception_4e/relu_1x1 -> inception_4e/1x1 (in-place)
I0403 14:13:29.552072 29452 net.cpp:141] Setting up inception_4e/relu_1x1
I0403 14:13:29.552098 29452 net.cpp:148] Top shape: 24 256 14 14 (1204224)
I0403 14:13:29.552114 29452 net.cpp:156] Memory required for data: 1218065952
I0403 14:13:29.552129 29452 layer_factory.hpp:77] Creating layer inception_4e/3x3_reduce
I0403 14:13:29.552151 29452 net.cpp:91] Creating Layer inception_4e/3x3_reduce
I0403 14:13:29.552170 29452 net.cpp:425] inception_4e/3x3_reduce <- inception_4d/output_inception_4d/output_0_split_2
I0403 14:13:29.552191 29452 net.cpp:399] inception_4e/3x3_reduce -> inception_4e/3x3_reduce
I0403 14:13:29.554365 29452 net.cpp:141] Setting up inception_4e/3x3_reduce
I0403 14:13:29.554399 29452 net.cpp:148] Top shape: 24 160 14 14 (752640)
I0403 14:13:29.554416 29452 net.cpp:156] Memory required for data: 1221076512
I0403 14:13:29.554435 29452 layer_factory.hpp:77] Creating layer inception_4e/relu_3x3_reduce
I0403 14:13:29.554455 29452 net.cpp:91] Creating Layer inception_4e/relu_3x3_reduce
I0403 14:13:29.554471 29452 net.cpp:425] inception_4e/relu_3x3_reduce <- inception_4e/3x3_reduce
I0403 14:13:29.554492 29452 net.cpp:386] inception_4e/relu_3x3_reduce -> inception_4e/3x3_reduce (in-place)
I0403 14:13:29.554682 29452 net.cpp:141] Setting up inception_4e/relu_3x3_reduce
I0403 14:13:29.554708 29452 net.cpp:148] Top shape: 24 160 14 14 (752640)
I0403 14:13:29.554724 29452 net.cpp:156] Memory required for data: 1224087072
I0403 14:13:29.554739 29452 layer_factory.hpp:77] Creating layer inception_4e/3x3
I0403 14:13:29.554764 29452 net.cpp:91] Creating Layer inception_4e/3x3
I0403 14:13:29.554783 29452 net.cpp:425] inception_4e/3x3 <- inception_4e/3x3_reduce
I0403 14:13:29.554805 29452 net.cpp:399] inception_4e/3x3 -> inception_4e/3x3
I0403 14:13:29.559833 29452 net.cpp:141] Setting up inception_4e/3x3
I0403 14:13:29.559875 29452 net.cpp:148] Top shape: 24 320 14 14 (1505280)
I0403 14:13:29.559891 29452 net.cpp:156] Memory required for data: 1230108192
I0403 14:13:29.559911 29452 layer_factory.hpp:77] Creating layer inception_4e/relu_3x3
I0403 14:13:29.559931 29452 net.cpp:91] Creating Layer inception_4e/relu_3x3
I0403 14:13:29.559949 29452 net.cpp:425] inception_4e/relu_3x3 <- inception_4e/3x3
I0403 14:13:29.559967 29452 net.cpp:386] inception_4e/relu_3x3 -> inception_4e/3x3 (in-place)
I0403 14:13:29.560273 29452 net.cpp:141] Setting up inception_4e/relu_3x3
I0403 14:13:29.560300 29452 net.cpp:148] Top shape: 24 320 14 14 (1505280)
I0403 14:13:29.560322 29452 net.cpp:156] Memory required for data: 1236129312
I0403 14:13:29.560339 29452 layer_factory.hpp:77] Creating layer inception_4e/5x5_reduce
I0403 14:13:29.560367 29452 net.cpp:91] Creating Layer inception_4e/5x5_reduce
I0403 14:13:29.560386 29452 net.cpp:425] inception_4e/5x5_reduce <- inception_4d/output_inception_4d/output_0_split_3
I0403 14:13:29.560406 29452 net.cpp:399] inception_4e/5x5_reduce -> inception_4e/5x5_reduce
I0403 14:13:29.561501 29452 net.cpp:141] Setting up inception_4e/5x5_reduce
I0403 14:13:29.561529 29452 net.cpp:148] Top shape: 24 32 14 14 (150528)
I0403 14:13:29.561545 29452 net.cpp:156] Memory required for data: 1236731424
I0403 14:13:29.561565 29452 layer_factory.hpp:77] Creating layer inception_4e/relu_5x5_reduce
I0403 14:13:29.561583 29452 net.cpp:91] Creating Layer inception_4e/relu_5x5_reduce
I0403 14:13:29.561600 29452 net.cpp:425] inception_4e/relu_5x5_reduce <- inception_4e/5x5_reduce
I0403 14:13:29.561620 29452 net.cpp:386] inception_4e/relu_5x5_reduce -> inception_4e/5x5_reduce (in-place)
I0403 14:13:29.561919 29452 net.cpp:141] Setting up inception_4e/relu_5x5_reduce
I0403 14:13:29.561946 29452 net.cpp:148] Top shape: 24 32 14 14 (150528)
I0403 14:13:29.561962 29452 net.cpp:156] Memory required for data: 1237333536
I0403 14:13:29.561977 29452 layer_factory.hpp:77] Creating layer inception_4e/5x5
I0403 14:13:29.562016 29452 net.cpp:91] Creating Layer inception_4e/5x5
I0403 14:13:29.562036 29452 net.cpp:425] inception_4e/5x5 <- inception_4e/5x5_reduce
I0403 14:13:29.562057 29452 net.cpp:399] inception_4e/5x5 -> inception_4e/5x5
I0403 14:13:29.563932 29452 net.cpp:141] Setting up inception_4e/5x5
I0403 14:13:29.563964 29452 net.cpp:148] Top shape: 24 128 14 14 (602112)
I0403 14:13:29.563980 29452 net.cpp:156] Memory required for data: 1239741984
I0403 14:13:29.564002 29452 layer_factory.hpp:77] Creating layer inception_4e/relu_5x5
I0403 14:13:29.564019 29452 net.cpp:91] Creating Layer inception_4e/relu_5x5
I0403 14:13:29.564036 29452 net.cpp:425] inception_4e/relu_5x5 <- inception_4e/5x5
I0403 14:13:29.564054 29452 net.cpp:386] inception_4e/relu_5x5 -> inception_4e/5x5 (in-place)
I0403 14:13:29.564255 29452 net.cpp:141] Setting up inception_4e/relu_5x5
I0403 14:13:29.564282 29452 net.cpp:148] Top shape: 24 128 14 14 (602112)
I0403 14:13:29.564297 29452 net.cpp:156] Memory required for data: 1242150432
I0403 14:13:29.564313 29452 layer_factory.hpp:77] Creating layer inception_4e/pool
I0403 14:13:29.564338 29452 net.cpp:91] Creating Layer inception_4e/pool
I0403 14:13:29.564355 29452 net.cpp:425] inception_4e/pool <- inception_4d/output_inception_4d/output_0_split_4
I0403 14:13:29.564378 29452 net.cpp:399] inception_4e/pool -> inception_4e/pool
I0403 14:13:29.564450 29452 net.cpp:141] Setting up inception_4e/pool
I0403 14:13:29.564477 29452 net.cpp:148] Top shape: 24 528 14 14 (2483712)
I0403 14:13:29.564494 29452 net.cpp:156] Memory required for data: 1252085280
I0403 14:13:29.564510 29452 layer_factory.hpp:77] Creating layer inception_4e/pool_proj
I0403 14:13:29.564532 29452 net.cpp:91] Creating Layer inception_4e/pool_proj
I0403 14:13:29.564550 29452 net.cpp:425] inception_4e/pool_proj <- inception_4e/pool
I0403 14:13:29.564570 29452 net.cpp:399] inception_4e/pool_proj -> inception_4e/pool_proj
I0403 14:13:29.566092 29452 net.cpp:141] Setting up inception_4e/pool_proj
I0403 14:13:29.566123 29452 net.cpp:148] Top shape: 24 128 14 14 (602112)
I0403 14:13:29.566153 29452 net.cpp:156] Memory required for data: 1254493728
I0403 14:13:29.566174 29452 layer_factory.hpp:77] Creating layer inception_4e/relu_pool_proj
I0403 14:13:29.566192 29452 net.cpp:91] Creating Layer inception_4e/relu_pool_proj
I0403 14:13:29.566210 29452 net.cpp:425] inception_4e/relu_pool_proj <- inception_4e/pool_proj
I0403 14:13:29.566226 29452 net.cpp:386] inception_4e/relu_pool_proj -> inception_4e/pool_proj (in-place)
I0403 14:13:29.566536 29452 net.cpp:141] Setting up inception_4e/relu_pool_proj
I0403 14:13:29.566565 29452 net.cpp:148] Top shape: 24 128 14 14 (602112)
I0403 14:13:29.566582 29452 net.cpp:156] Memory required for data: 1256902176
I0403 14:13:29.566598 29452 layer_factory.hpp:77] Creating layer inception_4e/output
I0403 14:13:29.566617 29452 net.cpp:91] Creating Layer inception_4e/output
I0403 14:13:29.566632 29452 net.cpp:425] inception_4e/output <- inception_4e/1x1
I0403 14:13:29.566649 29452 net.cpp:425] inception_4e/output <- inception_4e/3x3
I0403 14:13:29.566666 29452 net.cpp:425] inception_4e/output <- inception_4e/5x5
I0403 14:13:29.566684 29452 net.cpp:425] inception_4e/output <- inception_4e/pool_proj
I0403 14:13:29.566702 29452 net.cpp:399] inception_4e/output -> inception_4e/output
I0403 14:13:29.566754 29452 net.cpp:141] Setting up inception_4e/output
I0403 14:13:29.566778 29452 net.cpp:148] Top shape: 24 832 14 14 (3913728)
I0403 14:13:29.566793 29452 net.cpp:156] Memory required for data: 1272557088
I0403 14:13:29.566810 29452 layer_factory.hpp:77] Creating layer pool4/3x3_s2
I0403 14:13:29.566831 29452 net.cpp:91] Creating Layer pool4/3x3_s2
I0403 14:13:29.566849 29452 net.cpp:425] pool4/3x3_s2 <- inception_4e/output
I0403 14:13:29.566869 29452 net.cpp:399] pool4/3x3_s2 -> pool4/3x3_s2
I0403 14:13:29.566937 29452 net.cpp:141] Setting up pool4/3x3_s2
I0403 14:13:29.566962 29452 net.cpp:148] Top shape: 24 832 7 7 (978432)
I0403 14:13:29.566977 29452 net.cpp:156] Memory required for data: 1276470816
I0403 14:13:29.566992 29452 layer_factory.hpp:77] Creating layer pool4/3x3_s2_pool4/3x3_s2_0_split
I0403 14:13:29.567009 29452 net.cpp:91] Creating Layer pool4/3x3_s2_pool4/3x3_s2_0_split
I0403 14:13:29.567025 29452 net.cpp:425] pool4/3x3_s2_pool4/3x3_s2_0_split <- pool4/3x3_s2
I0403 14:13:29.567046 29452 net.cpp:399] pool4/3x3_s2_pool4/3x3_s2_0_split -> pool4/3x3_s2_pool4/3x3_s2_0_split_0
I0403 14:13:29.567068 29452 net.cpp:399] pool4/3x3_s2_pool4/3x3_s2_0_split -> pool4/3x3_s2_pool4/3x3_s2_0_split_1
I0403 14:13:29.567087 29452 net.cpp:399] pool4/3x3_s2_pool4/3x3_s2_0_split -> pool4/3x3_s2_pool4/3x3_s2_0_split_2
I0403 14:13:29.567109 29452 net.cpp:399] pool4/3x3_s2_pool4/3x3_s2_0_split -> pool4/3x3_s2_pool4/3x3_s2_0_split_3
I0403 14:13:29.567201 29452 net.cpp:141] Setting up pool4/3x3_s2_pool4/3x3_s2_0_split
I0403 14:13:29.567227 29452 net.cpp:148] Top shape: 24 832 7 7 (978432)
I0403 14:13:29.567245 29452 net.cpp:148] Top shape: 24 832 7 7 (978432)
I0403 14:13:29.567262 29452 net.cpp:148] Top shape: 24 832 7 7 (978432)
I0403 14:13:29.567277 29452 net.cpp:148] Top shape: 24 832 7 7 (978432)
I0403 14:13:29.567292 29452 net.cpp:156] Memory required for data: 1292125728
I0403 14:13:29.567306 29452 layer_factory.hpp:77] Creating layer inception_5a/1x1
I0403 14:13:29.567353 29452 net.cpp:91] Creating Layer inception_5a/1x1
I0403 14:13:29.567373 29452 net.cpp:425] inception_5a/1x1 <- pool4/3x3_s2_pool4/3x3_s2_0_split_0
I0403 14:13:29.567402 29452 net.cpp:399] inception_5a/1x1 -> inception_5a/1x1
I0403 14:13:29.570381 29452 net.cpp:141] Setting up inception_5a/1x1
I0403 14:13:29.570415 29452 net.cpp:148] Top shape: 24 256 7 7 (301056)
I0403 14:13:29.570432 29452 net.cpp:156] Memory required for data: 1293329952
I0403 14:13:29.570452 29452 layer_factory.hpp:77] Creating layer inception_5a/relu_1x1
I0403 14:13:29.570472 29452 net.cpp:91] Creating Layer inception_5a/relu_1x1
I0403 14:13:29.570487 29452 net.cpp:425] inception_5a/relu_1x1 <- inception_5a/1x1
I0403 14:13:29.570508 29452 net.cpp:386] inception_5a/relu_1x1 -> inception_5a/1x1 (in-place)
I0403 14:13:29.570832 29452 net.cpp:141] Setting up inception_5a/relu_1x1
I0403 14:13:29.570860 29452 net.cpp:148] Top shape: 24 256 7 7 (301056)
I0403 14:13:29.570878 29452 net.cpp:156] Memory required for data: 1294534176
I0403 14:13:29.570896 29452 layer_factory.hpp:77] Creating layer inception_5a/3x3_reduce
I0403 14:13:29.570919 29452 net.cpp:91] Creating Layer inception_5a/3x3_reduce
I0403 14:13:29.570937 29452 net.cpp:425] inception_5a/3x3_reduce <- pool4/3x3_s2_pool4/3x3_s2_0_split_1
I0403 14:13:29.570958 29452 net.cpp:399] inception_5a/3x3_reduce -> inception_5a/3x3_reduce
I0403 14:13:29.573514 29452 net.cpp:141] Setting up inception_5a/3x3_reduce
I0403 14:13:29.573545 29452 net.cpp:148] Top shape: 24 160 7 7 (188160)
I0403 14:13:29.573562 29452 net.cpp:156] Memory required for data: 1295286816
I0403 14:13:29.573583 29452 layer_factory.hpp:77] Creating layer inception_5a/relu_3x3_reduce
I0403 14:13:29.573604 29452 net.cpp:91] Creating Layer inception_5a/relu_3x3_reduce
I0403 14:13:29.573621 29452 net.cpp:425] inception_5a/relu_3x3_reduce <- inception_5a/3x3_reduce
I0403 14:13:29.573639 29452 net.cpp:386] inception_5a/relu_3x3_reduce -> inception_5a/3x3_reduce (in-place)
I0403 14:13:29.573839 29452 net.cpp:141] Setting up inception_5a/relu_3x3_reduce
I0403 14:13:29.573868 29452 net.cpp:148] Top shape: 24 160 7 7 (188160)
I0403 14:13:29.573884 29452 net.cpp:156] Memory required for data: 1296039456
I0403 14:13:29.573901 29452 layer_factory.hpp:77] Creating layer inception_5a/3x3
I0403 14:13:29.573925 29452 net.cpp:91] Creating Layer inception_5a/3x3
I0403 14:13:29.573942 29452 net.cpp:425] inception_5a/3x3 <- inception_5a/3x3_reduce
I0403 14:13:29.573962 29452 net.cpp:399] inception_5a/3x3 -> inception_5a/3x3
I0403 14:13:29.579150 29452 net.cpp:141] Setting up inception_5a/3x3
I0403 14:13:29.579183 29452 net.cpp:148] Top shape: 24 320 7 7 (376320)
I0403 14:13:29.579200 29452 net.cpp:156] Memory required for data: 1297544736
I0403 14:13:29.579221 29452 layer_factory.hpp:77] Creating layer inception_5a/relu_3x3
I0403 14:13:29.579239 29452 net.cpp:91] Creating Layer inception_5a/relu_3x3
I0403 14:13:29.579257 29452 net.cpp:425] inception_5a/relu_3x3 <- inception_5a/3x3
I0403 14:13:29.579278 29452 net.cpp:386] inception_5a/relu_3x3 -> inception_5a/3x3 (in-place)
I0403 14:13:29.579591 29452 net.cpp:141] Setting up inception_5a/relu_3x3
I0403 14:13:29.579622 29452 net.cpp:148] Top shape: 24 320 7 7 (376320)
I0403 14:13:29.579638 29452 net.cpp:156] Memory required for data: 1299050016
I0403 14:13:29.579654 29452 layer_factory.hpp:77] Creating layer inception_5a/5x5_reduce
I0403 14:13:29.579679 29452 net.cpp:91] Creating Layer inception_5a/5x5_reduce
I0403 14:13:29.579699 29452 net.cpp:425] inception_5a/5x5_reduce <- pool4/3x3_s2_pool4/3x3_s2_0_split_2
I0403 14:13:29.579722 29452 net.cpp:399] inception_5a/5x5_reduce -> inception_5a/5x5_reduce
I0403 14:13:29.580945 29452 net.cpp:141] Setting up inception_5a/5x5_reduce
I0403 14:13:29.580976 29452 net.cpp:148] Top shape: 24 32 7 7 (37632)
I0403 14:13:29.580994 29452 net.cpp:156] Memory required for data: 1299200544
I0403 14:13:29.581014 29452 layer_factory.hpp:77] Creating layer inception_5a/relu_5x5_reduce
I0403 14:13:29.581033 29452 net.cpp:91] Creating Layer inception_5a/relu_5x5_reduce
I0403 14:13:29.581053 29452 net.cpp:425] inception_5a/relu_5x5_reduce <- inception_5a/5x5_reduce
I0403 14:13:29.581073 29452 net.cpp:386] inception_5a/relu_5x5_reduce -> inception_5a/5x5_reduce (in-place)
I0403 14:13:29.581396 29452 net.cpp:141] Setting up inception_5a/relu_5x5_reduce
I0403 14:13:29.581424 29452 net.cpp:148] Top shape: 24 32 7 7 (37632)
I0403 14:13:29.581440 29452 net.cpp:156] Memory required for data: 1299351072
I0403 14:13:29.581456 29452 layer_factory.hpp:77] Creating layer inception_5a/5x5
I0403 14:13:29.581480 29452 net.cpp:91] Creating Layer inception_5a/5x5
I0403 14:13:29.581499 29452 net.cpp:425] inception_5a/5x5 <- inception_5a/5x5_reduce
I0403 14:13:29.581522 29452 net.cpp:399] inception_5a/5x5 -> inception_5a/5x5
I0403 14:13:29.583329 29452 net.cpp:141] Setting up inception_5a/5x5
I0403 14:13:29.583374 29452 net.cpp:148] Top shape: 24 128 7 7 (150528)
I0403 14:13:29.583392 29452 net.cpp:156] Memory required for data: 1299953184
I0403 14:13:29.583411 29452 layer_factory.hpp:77] Creating layer inception_5a/relu_5x5
I0403 14:13:29.583431 29452 net.cpp:91] Creating Layer inception_5a/relu_5x5
I0403 14:13:29.583448 29452 net.cpp:425] inception_5a/relu_5x5 <- inception_5a/5x5
I0403 14:13:29.583469 29452 net.cpp:386] inception_5a/relu_5x5 -> inception_5a/5x5 (in-place)
I0403 14:13:29.583673 29452 net.cpp:141] Setting up inception_5a/relu_5x5
I0403 14:13:29.583699 29452 net.cpp:148] Top shape: 24 128 7 7 (150528)
I0403 14:13:29.583715 29452 net.cpp:156] Memory required for data: 1300555296
I0403 14:13:29.583730 29452 layer_factory.hpp:77] Creating layer inception_5a/pool
I0403 14:13:29.583750 29452 net.cpp:91] Creating Layer inception_5a/pool
I0403 14:13:29.583766 29452 net.cpp:425] inception_5a/pool <- pool4/3x3_s2_pool4/3x3_s2_0_split_3
I0403 14:13:29.583788 29452 net.cpp:399] inception_5a/pool -> inception_5a/pool
I0403 14:13:29.583863 29452 net.cpp:141] Setting up inception_5a/pool
I0403 14:13:29.583887 29452 net.cpp:148] Top shape: 24 832 7 7 (978432)
I0403 14:13:29.583902 29452 net.cpp:156] Memory required for data: 1304469024
I0403 14:13:29.583919 29452 layer_factory.hpp:77] Creating layer inception_5a/pool_proj
I0403 14:13:29.583941 29452 net.cpp:91] Creating Layer inception_5a/pool_proj
I0403 14:13:29.583959 29452 net.cpp:425] inception_5a/pool_proj <- inception_5a/pool
I0403 14:13:29.583982 29452 net.cpp:399] inception_5a/pool_proj -> inception_5a/pool_proj
I0403 14:13:29.586364 29452 net.cpp:141] Setting up inception_5a/pool_proj
I0403 14:13:29.586395 29452 net.cpp:148] Top shape: 24 128 7 7 (150528)
I0403 14:13:29.586411 29452 net.cpp:156] Memory required for data: 1305071136
I0403 14:13:29.586431 29452 layer_factory.hpp:77] Creating layer inception_5a/relu_pool_proj
I0403 14:13:29.586452 29452 net.cpp:91] Creating Layer inception_5a/relu_pool_proj
I0403 14:13:29.586470 29452 net.cpp:425] inception_5a/relu_pool_proj <- inception_5a/pool_proj
I0403 14:13:29.586489 29452 net.cpp:386] inception_5a/relu_pool_proj -> inception_5a/pool_proj (in-place)
I0403 14:13:29.586791 29452 net.cpp:141] Setting up inception_5a/relu_pool_proj
I0403 14:13:29.586818 29452 net.cpp:148] Top shape: 24 128 7 7 (150528)
I0403 14:13:29.586833 29452 net.cpp:156] Memory required for data: 1305673248
I0403 14:13:29.586849 29452 layer_factory.hpp:77] Creating layer inception_5a/output
I0403 14:13:29.586869 29452 net.cpp:91] Creating Layer inception_5a/output
I0403 14:13:29.586886 29452 net.cpp:425] inception_5a/output <- inception_5a/1x1
I0403 14:13:29.586905 29452 net.cpp:425] inception_5a/output <- inception_5a/3x3
I0403 14:13:29.586921 29452 net.cpp:425] inception_5a/output <- inception_5a/5x5
I0403 14:13:29.586937 29452 net.cpp:425] inception_5a/output <- inception_5a/pool_proj
I0403 14:13:29.586956 29452 net.cpp:399] inception_5a/output -> inception_5a/output
I0403 14:13:29.587008 29452 net.cpp:141] Setting up inception_5a/output
I0403 14:13:29.587034 29452 net.cpp:148] Top shape: 24 832 7 7 (978432)
I0403 14:13:29.587049 29452 net.cpp:156] Memory required for data: 1309586976
I0403 14:13:29.587064 29452 layer_factory.hpp:77] Creating layer inception_5a/output_inception_5a/output_0_split
I0403 14:13:29.587080 29452 net.cpp:91] Creating Layer inception_5a/output_inception_5a/output_0_split
I0403 14:13:29.587097 29452 net.cpp:425] inception_5a/output_inception_5a/output_0_split <- inception_5a/output
I0403 14:13:29.587118 29452 net.cpp:399] inception_5a/output_inception_5a/output_0_split -> inception_5a/output_inception_5a/output_0_split_0
I0403 14:13:29.587141 29452 net.cpp:399] inception_5a/output_inception_5a/output_0_split -> inception_5a/output_inception_5a/output_0_split_1
I0403 14:13:29.587162 29452 net.cpp:399] inception_5a/output_inception_5a/output_0_split -> inception_5a/output_inception_5a/output_0_split_2
I0403 14:13:29.587182 29452 net.cpp:399] inception_5a/output_inception_5a/output_0_split -> inception_5a/output_inception_5a/output_0_split_3
I0403 14:13:29.587298 29452 net.cpp:141] Setting up inception_5a/output_inception_5a/output_0_split
I0403 14:13:29.587330 29452 net.cpp:148] Top shape: 24 832 7 7 (978432)
I0403 14:13:29.587348 29452 net.cpp:148] Top shape: 24 832 7 7 (978432)
I0403 14:13:29.587365 29452 net.cpp:148] Top shape: 24 832 7 7 (978432)
I0403 14:13:29.587383 29452 net.cpp:148] Top shape: 24 832 7 7 (978432)
I0403 14:13:29.587398 29452 net.cpp:156] Memory required for data: 1325241888
I0403 14:13:29.587412 29452 layer_factory.hpp:77] Creating layer inception_5b/1x1
I0403 14:13:29.587436 29452 net.cpp:91] Creating Layer inception_5b/1x1
I0403 14:13:29.587455 29452 net.cpp:425] inception_5b/1x1 <- inception_5a/output_inception_5a/output_0_split_0
I0403 14:13:29.587477 29452 net.cpp:399] inception_5b/1x1 -> inception_5b/1x1
I0403 14:13:29.591251 29452 net.cpp:141] Setting up inception_5b/1x1
I0403 14:13:29.591281 29452 net.cpp:148] Top shape: 24 384 7 7 (451584)
I0403 14:13:29.591297 29452 net.cpp:156] Memory required for data: 1327048224
I0403 14:13:29.591322 29452 layer_factory.hpp:77] Creating layer inception_5b/relu_1x1
I0403 14:13:29.591346 29452 net.cpp:91] Creating Layer inception_5b/relu_1x1
I0403 14:13:29.591364 29452 net.cpp:425] inception_5b/relu_1x1 <- inception_5b/1x1
I0403 14:13:29.591382 29452 net.cpp:386] inception_5b/relu_1x1 -> inception_5b/1x1 (in-place)
I0403 14:13:29.591689 29452 net.cpp:141] Setting up inception_5b/relu_1x1
I0403 14:13:29.591716 29452 net.cpp:148] Top shape: 24 384 7 7 (451584)
I0403 14:13:29.591732 29452 net.cpp:156] Memory required for data: 1328854560
I0403 14:13:29.591747 29452 layer_factory.hpp:77] Creating layer inception_5b/3x3_reduce
I0403 14:13:29.591770 29452 net.cpp:91] Creating Layer inception_5b/3x3_reduce
I0403 14:13:29.591789 29452 net.cpp:425] inception_5b/3x3_reduce <- inception_5a/output_inception_5a/output_0_split_1
I0403 14:13:29.591810 29452 net.cpp:399] inception_5b/3x3_reduce -> inception_5b/3x3_reduce
I0403 14:13:29.594507 29452 net.cpp:141] Setting up inception_5b/3x3_reduce
I0403 14:13:29.594537 29452 net.cpp:148] Top shape: 24 192 7 7 (225792)
I0403 14:13:29.594553 29452 net.cpp:156] Memory required for data: 1329757728
I0403 14:13:29.594573 29452 layer_factory.hpp:77] Creating layer inception_5b/relu_3x3_reduce
I0403 14:13:29.594593 29452 net.cpp:91] Creating Layer inception_5b/relu_3x3_reduce
I0403 14:13:29.594610 29452 net.cpp:425] inception_5b/relu_3x3_reduce <- inception_5b/3x3_reduce
I0403 14:13:29.594629 29452 net.cpp:386] inception_5b/relu_3x3_reduce -> inception_5b/3x3_reduce (in-place)
I0403 14:13:29.594825 29452 net.cpp:141] Setting up inception_5b/relu_3x3_reduce
I0403 14:13:29.594851 29452 net.cpp:148] Top shape: 24 192 7 7 (225792)
I0403 14:13:29.594866 29452 net.cpp:156] Memory required for data: 1330660896
I0403 14:13:29.594882 29452 layer_factory.hpp:77] Creating layer inception_5b/3x3
I0403 14:13:29.594903 29452 net.cpp:91] Creating Layer inception_5b/3x3
I0403 14:13:29.594923 29452 net.cpp:425] inception_5b/3x3 <- inception_5b/3x3_reduce
I0403 14:13:29.594946 29452 net.cpp:399] inception_5b/3x3 -> inception_5b/3x3
I0403 14:13:29.601686 29452 net.cpp:141] Setting up inception_5b/3x3
I0403 14:13:29.601716 29452 net.cpp:148] Top shape: 24 384 7 7 (451584)
I0403 14:13:29.601732 29452 net.cpp:156] Memory required for data: 1332467232
I0403 14:13:29.601750 29452 layer_factory.hpp:77] Creating layer inception_5b/relu_3x3
I0403 14:13:29.601773 29452 net.cpp:91] Creating Layer inception_5b/relu_3x3
I0403 14:13:29.601790 29452 net.cpp:425] inception_5b/relu_3x3 <- inception_5b/3x3
I0403 14:13:29.601809 29452 net.cpp:386] inception_5b/relu_3x3 -> inception_5b/3x3 (in-place)
I0403 14:13:29.602113 29452 net.cpp:141] Setting up inception_5b/relu_3x3
I0403 14:13:29.602140 29452 net.cpp:148] Top shape: 24 384 7 7 (451584)
I0403 14:13:29.602155 29452 net.cpp:156] Memory required for data: 1334273568
I0403 14:13:29.602170 29452 layer_factory.hpp:77] Creating layer inception_5b/5x5_reduce
I0403 14:13:29.602213 29452 net.cpp:91] Creating Layer inception_5b/5x5_reduce
I0403 14:13:29.602233 29452 net.cpp:425] inception_5b/5x5_reduce <- inception_5a/output_inception_5a/output_0_split_2
I0403 14:13:29.602254 29452 net.cpp:399] inception_5b/5x5_reduce -> inception_5b/5x5_reduce
I0403 14:13:29.603556 29452 net.cpp:141] Setting up inception_5b/5x5_reduce
I0403 14:13:29.603588 29452 net.cpp:148] Top shape: 24 48 7 7 (56448)
I0403 14:13:29.603605 29452 net.cpp:156] Memory required for data: 1334499360
I0403 14:13:29.603624 29452 layer_factory.hpp:77] Creating layer inception_5b/relu_5x5_reduce
I0403 14:13:29.603642 29452 net.cpp:91] Creating Layer inception_5b/relu_5x5_reduce
I0403 14:13:29.603659 29452 net.cpp:425] inception_5b/relu_5x5_reduce <- inception_5b/5x5_reduce
I0403 14:13:29.603678 29452 net.cpp:386] inception_5b/relu_5x5_reduce -> inception_5b/5x5_reduce (in-place)
I0403 14:13:29.604053 29452 net.cpp:141] Setting up inception_5b/relu_5x5_reduce
I0403 14:13:29.604079 29452 net.cpp:148] Top shape: 24 48 7 7 (56448)
I0403 14:13:29.604095 29452 net.cpp:156] Memory required for data: 1334725152
I0403 14:13:29.604110 29452 layer_factory.hpp:77] Creating layer inception_5b/5x5
I0403 14:13:29.604131 29452 net.cpp:91] Creating Layer inception_5b/5x5
I0403 14:13:29.604149 29452 net.cpp:425] inception_5b/5x5 <- inception_5b/5x5_reduce
I0403 14:13:29.604169 29452 net.cpp:399] inception_5b/5x5 -> inception_5b/5x5
I0403 14:13:29.606264 29452 net.cpp:141] Setting up inception_5b/5x5
I0403 14:13:29.606295 29452 net.cpp:148] Top shape: 24 128 7 7 (150528)
I0403 14:13:29.606312 29452 net.cpp:156] Memory required for data: 1335327264
I0403 14:13:29.606338 29452 layer_factory.hpp:77] Creating layer inception_5b/relu_5x5
I0403 14:13:29.606356 29452 net.cpp:91] Creating Layer inception_5b/relu_5x5
I0403 14:13:29.606374 29452 net.cpp:425] inception_5b/relu_5x5 <- inception_5b/5x5
I0403 14:13:29.606395 29452 net.cpp:386] inception_5b/relu_5x5 -> inception_5b/5x5 (in-place)
I0403 14:13:29.606595 29452 net.cpp:141] Setting up inception_5b/relu_5x5
I0403 14:13:29.606619 29452 net.cpp:148] Top shape: 24 128 7 7 (150528)
I0403 14:13:29.606634 29452 net.cpp:156] Memory required for data: 1335929376
I0403 14:13:29.606649 29452 layer_factory.hpp:77] Creating layer inception_5b/pool
I0403 14:13:29.606667 29452 net.cpp:91] Creating Layer inception_5b/pool
I0403 14:13:29.606683 29452 net.cpp:425] inception_5b/pool <- inception_5a/output_inception_5a/output_0_split_3
I0403 14:13:29.606705 29452 net.cpp:399] inception_5b/pool -> inception_5b/pool
I0403 14:13:29.606781 29452 net.cpp:141] Setting up inception_5b/pool
I0403 14:13:29.606806 29452 net.cpp:148] Top shape: 24 832 7 7 (978432)
I0403 14:13:29.606820 29452 net.cpp:156] Memory required for data: 1339843104
I0403 14:13:29.606835 29452 layer_factory.hpp:77] Creating layer inception_5b/pool_proj
I0403 14:13:29.606859 29452 net.cpp:91] Creating Layer inception_5b/pool_proj
I0403 14:13:29.606878 29452 net.cpp:425] inception_5b/pool_proj <- inception_5b/pool
I0403 14:13:29.606897 29452 net.cpp:399] inception_5b/pool_proj -> inception_5b/pool_proj
I0403 14:13:29.609226 29452 net.cpp:141] Setting up inception_5b/pool_proj
I0403 14:13:29.609258 29452 net.cpp:148] Top shape: 24 128 7 7 (150528)
I0403 14:13:29.609275 29452 net.cpp:156] Memory required for data: 1340445216
I0403 14:13:29.609294 29452 layer_factory.hpp:77] Creating layer inception_5b/relu_pool_proj
I0403 14:13:29.609313 29452 net.cpp:91] Creating Layer inception_5b/relu_pool_proj
I0403 14:13:29.609336 29452 net.cpp:425] inception_5b/relu_pool_proj <- inception_5b/pool_proj
I0403 14:13:29.609354 29452 net.cpp:386] inception_5b/relu_pool_proj -> inception_5b/pool_proj (in-place)
I0403 14:13:29.609660 29452 net.cpp:141] Setting up inception_5b/relu_pool_proj
I0403 14:13:29.609690 29452 net.cpp:148] Top shape: 24 128 7 7 (150528)
I0403 14:13:29.609707 29452 net.cpp:156] Memory required for data: 1341047328
I0403 14:13:29.609722 29452 layer_factory.hpp:77] Creating layer inception_5b/output
I0403 14:13:29.609740 29452 net.cpp:91] Creating Layer inception_5b/output
I0403 14:13:29.609772 29452 net.cpp:425] inception_5b/output <- inception_5b/1x1
I0403 14:13:29.609791 29452 net.cpp:425] inception_5b/output <- inception_5b/3x3
I0403 14:13:29.609809 29452 net.cpp:425] inception_5b/output <- inception_5b/5x5
I0403 14:13:29.609827 29452 net.cpp:425] inception_5b/output <- inception_5b/pool_proj
I0403 14:13:29.609846 29452 net.cpp:399] inception_5b/output -> inception_5b/output
I0403 14:13:29.609900 29452 net.cpp:141] Setting up inception_5b/output
I0403 14:13:29.609925 29452 net.cpp:148] Top shape: 24 1024 7 7 (1204224)
I0403 14:13:29.609941 29452 net.cpp:156] Memory required for data: 1345864224
I0403 14:13:29.609956 29452 layer_factory.hpp:77] Creating layer pool5/7x7_s1
I0403 14:13:29.609977 29452 net.cpp:91] Creating Layer pool5/7x7_s1
I0403 14:13:29.609993 29452 net.cpp:425] pool5/7x7_s1 <- inception_5b/output
I0403 14:13:29.610013 29452 net.cpp:399] pool5/7x7_s1 -> pool5/7x7_s1
I0403 14:13:29.610235 29452 net.cpp:141] Setting up pool5/7x7_s1
I0403 14:13:29.610262 29452 net.cpp:148] Top shape: 24 1024 1 1 (24576)
I0403 14:13:29.610277 29452 net.cpp:156] Memory required for data: 1345962528
I0403 14:13:29.610293 29452 layer_factory.hpp:77] Creating layer pool5/drop_7x7_s1
I0403 14:13:29.610311 29452 net.cpp:91] Creating Layer pool5/drop_7x7_s1
I0403 14:13:29.610334 29452 net.cpp:425] pool5/drop_7x7_s1 <- pool5/7x7_s1
I0403 14:13:29.610355 29452 net.cpp:386] pool5/drop_7x7_s1 -> pool5/7x7_s1 (in-place)
I0403 14:13:29.610406 29452 net.cpp:141] Setting up pool5/drop_7x7_s1
I0403 14:13:29.610431 29452 net.cpp:148] Top shape: 24 1024 1 1 (24576)
I0403 14:13:29.610446 29452 net.cpp:156] Memory required for data: 1346060832
I0403 14:13:29.610462 29452 layer_factory.hpp:77] Creating layer loss3/classifier_plantvillage
I0403 14:13:29.610484 29452 net.cpp:91] Creating Layer loss3/classifier_plantvillage
I0403 14:13:29.610502 29452 net.cpp:425] loss3/classifier_plantvillage <- pool5/7x7_s1
I0403 14:13:29.610523 29452 net.cpp:399] loss3/classifier_plantvillage -> loss3/classifier_plantvillage
I0403 14:13:29.610956 29452 net.cpp:141] Setting up loss3/classifier_plantvillage
I0403 14:13:29.610982 29452 net.cpp:148] Top shape: 24 38 (912)
I0403 14:13:29.610998 29452 net.cpp:156] Memory required for data: 1346064480
I0403 14:13:29.611017 29452 layer_factory.hpp:77] Creating layer loss3/classifier_plantvillage_loss3/classifier_plantvillage_0_split
I0403 14:13:29.611037 29452 net.cpp:91] Creating Layer loss3/classifier_plantvillage_loss3/classifier_plantvillage_0_split
I0403 14:13:29.611053 29452 net.cpp:425] loss3/classifier_plantvillage_loss3/classifier_plantvillage_0_split <- loss3/classifier_plantvillage
I0403 14:13:29.611073 29452 net.cpp:399] loss3/classifier_plantvillage_loss3/classifier_plantvillage_0_split -> loss3/classifier_plantvillage_loss3/classifier_plantvillage_0_split_0
I0403 14:13:29.611095 29452 net.cpp:399] loss3/classifier_plantvillage_loss3/classifier_plantvillage_0_split -> loss3/classifier_plantvillage_loss3/classifier_plantvillage_0_split_1
I0403 14:13:29.611116 29452 net.cpp:399] loss3/classifier_plantvillage_loss3/classifier_plantvillage_0_split -> loss3/classifier_plantvillage_loss3/classifier_plantvillage_0_split_2
I0403 14:13:29.611140 29452 net.cpp:399] loss3/classifier_plantvillage_loss3/classifier_plantvillage_0_split -> loss3/classifier_plantvillage_loss3/classifier_plantvillage_0_split_3
I0403 14:13:29.611244 29452 net.cpp:141] Setting up loss3/classifier_plantvillage_loss3/classifier_plantvillage_0_split
I0403 14:13:29.611270 29452 net.cpp:148] Top shape: 24 38 (912)
I0403 14:13:29.611287 29452 net.cpp:148] Top shape: 24 38 (912)
I0403 14:13:29.611304 29452 net.cpp:148] Top shape: 24 38 (912)
I0403 14:13:29.611325 29452 net.cpp:148] Top shape: 24 38 (912)
I0403 14:13:29.611340 29452 net.cpp:156] Memory required for data: 1346079072
I0403 14:13:29.611356 29452 layer_factory.hpp:77] Creating layer loss1/loss
I0403 14:13:29.611377 29452 net.cpp:91] Creating Layer loss1/loss
I0403 14:13:29.611394 29452 net.cpp:425] loss1/loss <- loss1/classifier_plantvillage_loss1/classifier_plantvillage_0_split_0
I0403 14:13:29.611425 29452 net.cpp:425] loss1/loss <- label_data_1_split_0
…
