…
I0403 15:22:11.310757 31613 net.cpp:313] The NetState phase (1) differed from the phase (0) specified by a rule in layer data
I0403 15:22:11.311935 31613 net.cpp:49] Initializing net from parameters: 
state {
  phase: TEST
}
layer {
  name: "data"
  type: "Data"
  top: "data"
  top: "label"
  include {
    phase: TEST
  }
  transform_param {
    mirror: false
    crop_size: 224
    mean_file: "/home/mohanty/data/final_dataset/lmdb/color-20-80/mean.binaryproto"
  }
  data_param {
    source: "/home/mohanty/data/final_dataset/lmdb/color-20-80/test_db"
    batch_size: 24
    backend: LMDB
  }
}
layer {
  name: "conv1/7x7_s2"
  type: "Convolution"
  bottom: "data"
  top: "conv1/7x7_s2"
  param {
    lr_mult: 1
    decay_mult: 1
  }
  param {
    lr_mult: 2
    decay_mult: 0
  }
  convolution_param {
    num_output: 64
    pad: 3
    kernel_size: 7
    stride: 2
    weight_filler {
      type: "xavier"
      std: 0.1
    }
    bias_filler {
      type: "constant"
      value: 0.2
    }
  }
}
layer {
  name: "conv1/relu_7x7"
  type: "ReLU"
  bottom: "conv1/7x7_s2"
  top: "conv1/7x7_s2"
}
layer {
  name: "pool1/3x3_s2"
  type: "Pooling"
  bottom: "conv1/7x7_s2"
  top: "pool1/3x3_s2"
  pooling_param {
    pool: MAX
    kernel_size: 3
    stride: 2
  }
}
layer {
  name: "pool1/norm1"
  type: "LRN"
  bottom: "pool1/3x3_s2"
  top: "pool1/norm1"
  lrn_param {
    local_size: 5
    alpha: 0.0001
    beta: 0.75
  }
}
layer {
  name: "conv2/3x3_reduce"
  type: "Convolution"
  bottom: "pool1/norm1"
  top: "conv2/3x3_reduce"
  param {
    lr_mult: 1
    decay_mult: 1
  }
  param {
    lr_mult: 2
    decay_mult: 0
  }
  convolution_param {
    num_output: 64
    kernel_size: 1
    weight_filler {
      type: "xavier"
      std: 0.1
    }
    bias_filler {
      type: "constant"
      value: 0.2
    }
  }
}
layer {
  name: "conv2/relu_3x3_reduce"
  type: "ReLU"
  bottom: "conv2/3x3_reduce"
  top: "conv2/3x3_reduce"
}
layer {
  name: "conv2/3x3"
  type: "Convolution"
  bottom: "conv2/3x3_reduce"
  top: "conv2/3x3"
  param {
    lr_mult: 1
    decay_mult: 1
  }
  param {
    lr_mult: 2
    decay_mult: 0
  }
  convolution_param {
    num_output: 192
    pad: 1
    kernel_size: 3
    weight_filler {
      type: "xavier"
      std: 0.03
    }
    bias_filler {
      type: "constant"
      value: 0.2
    }
  }
}
layer {
  name: "conv2/relu_3x3"
  type: "ReLU"
  bottom: "conv2/3x3"
  top: "conv2/3x3"
}
layer {
  name: "conv2/norm2"
  type: "LRN"
  bottom: "conv2/3x3"
  top: "conv2/norm2"
  lrn_param {
    local_size: 5
    alpha: 0.0001
    beta: 0.75
  }
}
layer {
  name: "pool2/3x3_s2"
  type: "Pooling"
  bottom: "conv2/norm2"
  top: "pool2/3x3_s2"
  pooling_param {
    pool: MAX
    kernel_size: 3
    stride: 2
  }
}
layer {
  name: "inception_3a/1x1"
  type: "Convolution"
  bottom: "pool2/3x3_s2"
  top: "inception_3a/1x1"
  param {
    lr_mult: 1
    decay_mult: 1
  }
  param {
    lr_mult: 2
    decay_mult: 0
  }
  convolution_param {
    num_output: 64
    kernel_size: 1
    weight_filler {
      type: "xavier"
      std: 0.03
    }
    bias_filler {
      type: "constant"
      value: 0.2
    }
  }
}
layer {
  name: "inception_3a/relu_1x1"
  type: "ReLU"
  bottom: "inception_3a/1x1"
  top: "inception_3a/1x1"
}
layer {
  name: "inception_3a/3x3_reduce"
  type: "Convolution"
  bottom: "pool2/3x3_s2"
  top: "inception_3a/3x3_reduce"
  param {
    lr_mult: 1
    decay_mult: 1
  }
  param {
    lr_mult: 2
    decay_mult: 0
  }
  convolution_param {
    num_output: 96
    kernel_size: 1
    weight_filler {
      type: "xavier"
      std: 0.09
    }
    bias_filler {
      type: "constant"
      value: 0.2
    }
  }
}
layer {
  name: "inception_3a/relu_3x3_reduce"
  type: "ReLU"
  bottom: "inception_3a/3x3_reduce"
  top: "inception_3a/3x3_reduce"
}
layer {
  name: "inception_3a/3x3"
  type: "Convolution"
  bottom: "inception_3a/3x3_reduce"
  top: "inception_3a/3x3"
  param {
    lr_mult: 1
    decay_mult: 1
  }
  param {
    lr_mult: 2
    decay_mult: 0
  }
  convolution_param {
    num_output: 128
    pad: 1
    kernel_size: 3
    weight_filler {
      type: "xavier"
      std: 0.03
    }
    bias_filler {
      type: "constant"
      value: 0.2
    }
  }
}
layer {
  name: "inception_3a/relu_3x3"
  type: "ReLU"
  bottom: "inception_3a/3x3"
  top: "inception_3a/3x3"
}
layer {
  name: "inception_3a/5x5_reduce"
  type: "Convolution"
  bottom: "pool2/3x3_s2"
  top: "inception_3a/5x5_reduce"
  param {
    lr_mult: 1
    decay_mult: 1
  }
  param {
    lr_mult: 2
    decay_mult: 0
  }
  convolution_param {
    num_output: 16
    kernel_size: 1
    weight_filler {
      type: "xavier"
      std: 0.2
    }
    bias_filler {
      type: "constant"
      value: 0.2
    }
  }
}
layer {
  name: "inception_3a/relu_5x5_reduce"
  type: "ReLU"
  bottom: "inception_3a/5x5_reduce"
  top: "inception_3a/5x5_reduce"
}
layer {
  name: "inception_3a/5x5"
  type: "Convolution"
  bottom: "inception_3a/5x5_reduce"
  top: "inception_3a/5x5"
  param {
    lr_mult: 1
    decay_mult: 1
  }
  param {
    lr_mult: 2
    decay_mult: 0
  }
  convolution_param {
    num_output: 32
    pad: 2
    kernel_size: 5
    weight_filler {
      type: "xavier"
      std: 0.03
    }
    bias_filler {
      type: "constant"
      value: 0.2
    }
  }
}
layer {
  name: "inception_3a/relu_5x5"
  type: "ReLU"
  bottom: "inception_3a/5x5"
  top: "inception_3a/5x5"
}
layer {
  name: "inception_3a/pool"
  type: "Pooling"
  bottom: "pool2/3x3_s2"
  top: "inception_3a/pool"
  pooling_param {
    pool: MAX
    kernel_size: 3
    stride: 1
    pad: 1
  }
}
layer {
  name: "inception_3a/pool_proj"
  type: "Convolution"
  bottom: "inception_3a/pool"
  top: "inception_3a/pool_proj"
  param {
    lr_mult: 1
    decay_mult: 1
  }
  param {
    lr_mult: 2
    decay_mult: 0
  }
  convolution_param {
    num_output: 32
    kernel_size: 1
    weight_filler {
      type: "xavier"
      std: 0.1
    }
    bias_filler {
      type: "constant"
      value: 0.2
    }
  }
}
layer {
  name: "inception_3a/relu_pool_proj"
  type: "ReLU"
  bottom: "inception_3a/pool_proj"
  top: "inception_3a/pool_proj"
}
layer {
  name: "inception_3a/output"
  type: "Concat"
  bottom: "inception_3a/1x1"
  bottom: "inception_3a/3x3"
  bottom: "inception_3a/5x5"
  bottom: "inception_3a/pool_proj"
  top: "inception_3a/output"
}
layer {
  name: "inception_3b/1x1"
  type: "Convolution"
  bottom: "inception_3a/output"
  top: "inception_3b/1x1"
  param {
    lr_mult: 1
    decay_mult: 1
  }
  param {
    lr_mult: 2
    decay_mult: 0
  }
  convolution_param {
    num_output: 128
    kernel_size: 1
    weight_filler {
      type: "xavier"
      std: 0.03
    }
    bias_filler {
      type: "constant"
      value: 0.2
    }
  }
}
layer {
  name: "inception_3b/relu_1x1"
  type: "ReLU"
  bottom: "inception_3b/1x1"
  top: "inception_3b/1x1"
}
layer {
  name: "inception_3b/3x3_reduce"
  type: "Convolution"
  bottom: "inception_3a/output"
  top: "inception_3b/3x3_reduce"
  param {
    lr_mult: 1
    decay_mult: 1
  }
  param {
    lr_mult: 2
    decay_mult: 0
  }
  convolution_param {
    num_output: 128
    kernel_size: 1
    weight_filler {
      type: "xavier"
      std: 0.09
    }
    bias_filler {
      type: "constant"
      value: 0.2
    }
  }
}
layer {
  name: "inception_3b/relu_3x3_reduce"
  type: "ReLU"
  bottom: "inception_3b/3x3_reduce"
  top: "inception_3b/3x3_reduce"
}
layer {
  name: "inception_3b/3x3"
  type: "Convolution"
  bottom: "inception_3b/3x3_reduce"
  top: "inception_3b/3x3"
  param {
    lr_mult: 1
    decay_mult: 1
  }
  param {
    lr_mult: 2
    decay_mult: 0
  }
  convolution_param {
    num_output: 192
    pad: 1
    kernel_size: 3
    weight_filler {
      type: "xavier"
      std: 0.03
    }
    bias_filler {
      type: "constant"
      value: 0.2
    }
  }
}
layer {
  name: "inception_3b/relu_3x3"
  type: "ReLU"
  bottom: "inception_3b/3x3"
  top: "inception_3b/3x3"
}
layer {
  name: "inception_3b/5x5_reduce"
  type: "Convolution"
  bottom: "inception_3a/output"
  top: "inception_3b/5x5_reduce"
  param {
    lr_mult: 1
    decay_mult: 1
  }
  param {
    lr_mult: 2
    decay_mult: 0
  }
  convolution_param {
    num_output: 32
    kernel_size: 1
    weight_filler {
      type: "xavier"
      std: 0.2
    }
    bias_filler {
      type: "constant"
      value: 0.2
    }
  }
}
layer {
  name: "inception_3b/relu_5x5_reduce"
  type: "ReLU"
  bottom: "inception_3b/5x5_reduce"
  top: "inception_3b/5x5_reduce"
}
layer {
  name: "inception_3b/5x5"
  type: "Convolution"
  bottom: "inception_3b/5x5_reduce"
  top: "inception_3b/5x5"
  param {
    lr_mult: 1
    decay_mult: 1
  }
  param {
    lr_mult: 2
    decay_mult: 0
  }
  convolution_param {
    num_output: 96
    pad: 2
    kernel_size: 5
    weight_filler {
      type: "xavier"
      std: 0.03
    }
    bias_filler {
      type: "constant"
      value: 0.2
    }
  }
}
layer {
  name: "inception_3b/relu_5x5"
  type: "ReLU"
  bottom: "inception_3b/5x5"
  top: "inception_3b/5x5"
}
layer {
  name: "inception_3b/pool"
  type: "Pooling"
  bottom: "inception_3a/output"
  top: "inception_3b/pool"
  pooling_param {
    pool: MAX
    kernel_size: 3
    stride: 1
    pad: 1
  }
}
layer {
  name: "inception_3b/pool_proj"
  type: "Convolution"
  bottom: "inception_3b/pool"
  top: "inception_3b/pool_proj"
  param {
    lr_mult: 1
    decay_mult: 1
  }
  param {
    lr_mult: 2
    decay_mult: 0
  }
  convolution_param {
    num_output: 64
    kernel_size: 1
    weight_filler {
      type: "xavier"
      std: 0.1
    }
    bias_filler {
      type: "constant"
      value: 0.2
    }
  }
}
layer {
  name: "inception_3b/relu_pool_proj"
  type: "ReLU"
  bottom: "inception_3b/pool_proj"
  top: "inception_3b/pool_proj"
}
layer {
  name: "inception_3b/output"
  type: "Concat"
  bottom: "inception_3b/1x1"
  bottom: "inception_3b/3x3"
  bottom: "inception_3b/5x5"
  bottom: "inception_3b/pool_proj"
  top: "inception_3b/output"
}
layer {
  name: "pool3/3x3_s2"
  type: "Pooling"
  bottom: "inception_3b/output"
  top: "pool3/3x3_s2"
  pooling_param {
    pool: MAX
    kernel_size: 3
    stride: 2
  }
}
layer {
  name: "inception_4a/1x1"
  type: "Convolution"
  bottom: "pool3/3x3_s2"
  top: "inception_4a/1x1"
  param {
    lr_mult: 1
    decay_mult: 1
  }
  param {
    lr_mult: 2
    decay_mult: 0
  }
  convolution_param {
    num_output: 192
    kernel_size: 1
    weight_filler {
      type: "xavier"
      std: 0.03
    }
    bias_filler {
      type: "constant"
      value: 0.2
    }
  }
}
layer {
  name: "inception_4a/relu_1x1"
  type: "ReLU"
  bottom: "inception_4a/1x1"
  top: "inception_4a/1x1"
}
layer {
  name: "inception_4a/3x3_reduce"
  type: "Convolution"
  bottom: "pool3/3x3_s2"
  top: "inception_4a/3x3_reduce"
  param {
    lr_mult: 1
    decay_mult: 1
  }
  param {
    lr_mult: 2
    decay_mult: 0
  }
  convolution_param {
    num_output: 96
    kernel_size: 1
    weight_filler {
      type: "xavier"
      std: 0.09
    }
    bias_filler {
      type: "constant"
      value: 0.2
    }
  }
}
layer {
  name: "inception_4a/relu_3x3_reduce"
  type: "ReLU"
  bottom: "inception_4a/3x3_reduce"
  top: "inception_4a/3x3_reduce"
}
layer {
  name: "inception_4a/3x3"
  type: "Convolution"
  bottom: "inception_4a/3x3_reduce"
  top: "inception_4a/3x3"
  param {
    lr_mult: 1
    decay_mult: 1
  }
  param {
    lr_mult: 2
    decay_mult: 0
  }
  convolution_param {
    num_output: 208
    pad: 1
    kernel_size: 3
    weight_filler {
      type: "xavier"
      std: 0.03
    }
    bias_filler {
      type: "constant"
      value: 0.2
    }
  }
}
layer {
  name: "inception_4a/relu_3x3"
  type: "ReLU"
  bottom: "inception_4a/3x3"
  top: "inception_4a/3x3"
}
layer {
  name: "inception_4a/5x5_reduce"
  type: "Convolution"
  bottom: "pool3/3x3_s2"
  top: "inception_4a/5x5_reduce"
  param {
    lr_mult: 1
    decay_mult: 1
  }
  param {
    lr_mult: 2
    decay_mult: 0
  }
  convolution_param {
    num_output: 16
    kernel_size: 1
    weight_filler {
      type: "xavier"
      std: 0.2
    }
    bias_filler {
      type: "constant"
      value: 0.2
    }
  }
}
layer {
  name: "inception_4a/relu_5x5_reduce"
  type: "ReLU"
  bottom: "inception_4a/5x5_reduce"
  top: "inception_4a/5x5_reduce"
}
layer {
  name: "inception_4a/5x5"
  type: "Convolution"
  bottom: "inception_4a/5x5_reduce"
  top: "inception_4a/5x5"
  param {
    lr_mult: 1
    decay_mult: 1
  }
  param {
    lr_mult: 2
    decay_mult: 0
  }
  convolution_param {
    num_output: 48
    pad: 2
    kernel_size: 5
    weight_filler {
      type: "xavier"
      std: 0.03
    }
    bias_filler {
      type: "constant"
      value: 0.2
    }
  }
}
layer {
  name: "inception_4a/relu_5x5"
  type: "ReLU"
  bottom: "inception_4a/5x5"
  top: "inception_4a/5x5"
}
layer {
  name: "inception_4a/pool"
  type: "Pooling"
  bottom: "pool3/3x3_s2"
  top: "inception_4a/pool"
  pooling_param {
    pool: MAX
    kernel_size: 3
    stride: 1
    pad: 1
  }
}
layer {
  name: "inception_4a/pool_proj"
  type: "Convolution"
  bottom: "inception_4a/pool"
  top: "inception_4a/pool_proj"
  param {
    lr_mult: 1
    decay_mult: 1
  }
  param {
    lr_mult: 2
    decay_mult: 0
  }
  convolution_param {
    num_output: 64
    kernel_size: 1
    weight_filler {
      type: "xavier"
      std: 0.1
    }
    bias_filler {
      type: "constant"
      value: 0.2
    }
  }
}
layer {
  name: "inception_4a/relu_pool_proj"
  type: "ReLU"
  bottom: "inception_4a/pool_proj"
  top: "inception_4a/pool_proj"
}
layer {
  name: "inception_4a/output"
  type: "Concat"
  bottom: "inception_4a/1x1"
  bottom: "inception_4a/3x3"
  bottom: "inception_4a/5x5"
  bottom: "inception_4a/pool_proj"
  top: "inception_4a/output"
}
layer {
  name: "loss1/ave_pool"
  type: "Pooling"
  bottom: "inception_4a/output"
  top: "loss1/ave_pool"
  pooling_param {
    pool: AVE
    kernel_size: 5
    stride: 3
  }
}
layer {
  name: "loss1/conv"
  type: "Convolution"
  bottom: "loss1/ave_pool"
  top: "loss1/conv"
  param {
    lr_mult: 1
    decay_mult: 1
  }
  param {
    lr_mult: 2
    decay_mult: 0
  }
  convolution_param {
    num_output: 128
    kernel_size: 1
    weight_filler {
      type: "xavier"
      std: 0.08
    }
    bias_filler {
      type: "constant"
      value: 0.2
    }
  }
}
layer {
  name: "loss1/relu_conv"
  type: "ReLU"
  bottom: "loss1/conv"
  top: "loss1/conv"
}
layer {
  name: "loss1/fc"
  type: "InnerProduct"
  bottom: "loss1/conv"
  top: "loss1/fc"
  param {
    lr_mult: 1
    decay_mult: 1
  }
  param {
    lr_mult: 2
    decay_mult: 0
  }
  inner_product_param {
    num_output: 1024
    weight_filler {
      type: "xavier"
      std: 0.02
    }
    bias_filler {
      type: "constant"
      value: 0.2
    }
  }
}
layer {
  name: "loss1/relu_fc"
  type: "ReLU"
  bottom: "loss1/fc"
  top: "loss1/fc"
}
layer {
  name: "loss1/drop_fc"
  type: "Dropout"
  bottom: "loss1/fc"
  top: "loss1/fc"
  dropout_param {
    dropout_ratio: 0.7
  }
}
layer {
  name: "loss1/classifier_plantvillage"
  type: "InnerProduct"
  bottom: "loss1/fc"
  top: "loss1/classifier_plantvillage"
  param {
    lr_mult: 1
    decay_mult: 1
  }
  param {
    lr_mult: 2
    decay_mult: 0
  }
  inner_product_param {
    num_output: 38
    weight_filler {
      type: "xavier"
      std: 0.0009765625
    }
    bias_filler {
      type: "constant"
      value: 0
    }
  }
}
layer {
  name: "inception_4b/1x1"
  type: "Convolution"
  bottom: "inception_4a/output"
  top: "inception_4b/1x1"
  param {
    lr_mult: 1
    decay_mult: 1
  }
  param {
    lr_mult: 2
    decay_mult: 0
  }
  convolution_param {
    num_output: 160
    kernel_size: 1
    weight_filler {
      type: "xavier"
      std: 0.03
    }
    bias_filler {
      type: "constant"
      value: 0.2
    }
  }
}
layer {
  name: "inception_4b/relu_1x1"
  type: "ReLU"
  bottom: "inception_4b/1x1"
  top: "inception_4b/1x1"
}
layer {
  name: "inception_4b/3x3_reduce"
  type: "Convolution"
  bottom: "inception_4a/output"
  top: "inception_4b/3x3_reduce"
  param {
    lr_mult: 1
    decay_mult: 1
  }
  param {
    lr_mult: 2
    decay_mult: 0
  }
  convolution_param {
    num_output: 112
    kernel_size: 1
    weight_filler {
      type: "xavier"
      std: 0.09
    }
    bias_filler {
      type: "constant"
      value: 0.2
    }
  }
}
layer {
  name: "inception_4b/relu_3x3_reduce"
  type: "ReLU"
  bottom: "inception_4b/3x3_reduce"
  top: "inception_4b/3x3_reduce"
}
layer {
  name: "inception_4b/3x3"
  type: "Convolution"
  bottom: "inception_4b/3x3_reduce"
  top: "inception_4b/3x3"
  param {
    lr_mult: 1
    decay_mult: 1
  }
  param {
    lr_mult: 2
    decay_mult: 0
  }
  convolution_param {
    num_output: 224
    pad: 1
    kernel_size: 3
    weight_filler {
      type: "xavier"
      std: 0.03
    }
    bias_filler {
      type: "constant"
      value: 0.2
    }
  }
}
layer {
  name: "inception_4b/relu_3x3"
  type: "ReLU"
  bottom: "inception_4b/3x3"
  top: "inception_4b/3x3"
}
layer {
  name: "inception_4b/5x5_reduce"
  type: "Convolution"
  bottom: "inception_4a/output"
  top: "inception_4b/5x5_reduce"
  param {
    lr_mult: 1
    decay_mult: 1
  }
  param {
    lr_mult: 2
    decay_mult: 0
  }
  convolution_param {
    num_output: 24
    kernel_size: 1
    weight_filler {
      type: "xavier"
      std: 0.2
    }
    bias_filler {
      type: "constant"
      value: 0.2
    }
  }
}
layer {
  name: "inception_4b/relu_5x5_reduce"
  type: "ReLU"
  bottom: "inception_4b/5x5_reduce"
  top: "inception_4b/5x5_reduce"
}
layer {
  name: "inception_4b/5x5"
  type: "Convolution"
  bottom: "inception_4b/5x5_reduce"
  top: "inception_4b/5x5"
  param {
    lr_mult: 1
    decay_mult: 1
  }
  param {
    lr_mult: 2
    decay_mult: 0
  }
  convolution_param {
    num_output: 64
    pad: 2
    kernel_size: 5
    weight_filler {
      type: "xavier"
      std: 0.03
    }
    bias_filler {
      type: "constant"
      value: 0.2
    }
  }
}
layer {
  name: "inception_4b/relu_5x5"
  type: "ReLU"
  bottom: "inception_4b/5x5"
  top: "inception_4b/5x5"
}
layer {
  name: "inception_4b/pool"
  type: "Pooling"
  bottom: "inception_4a/output"
  top: "inception_4b/pool"
  pooling_param {
    pool: MAX
    kernel_size: 3
    stride: 1
    pad: 1
  }
}
layer {
  name: "inception_4b/pool_proj"
  type: "Convolution"
  bottom: "inception_4b/pool"
  top: "inception_4b/pool_proj"
  param {
    lr_mult: 1
    decay_mult: 1
  }
  param {
    lr_mult: 2
    decay_mult: 0
  }
  convolution_param {
    num_output: 64
    kernel_size: 1
    weight_filler {
      type: "xavier"
      std: 0.1
    }
    bias_filler {
      type: "constant"
      value: 0.2
    }
  }
}
layer {
  name: "inception_4b/relu_pool_proj"
  type: "ReLU"
  bottom: "inception_4b/pool_proj"
  top: "inception_4b/pool_proj"
}
layer {
  name: "inception_4b/output"
  type: "Concat"
  bottom: "inception_4b/1x1"
  bottom: "inception_4b/3x3"
  bottom: "inception_4b/5x5"
  bottom: "inception_4b/pool_proj"
  top: "inception_4b/output"
}
layer {
  name: "inception_4c/1x1"
  type: "Convolution"
  bottom: "inception_4b/output"
  top: "inception_4c/1x1"
  param {
    lr_mult: 1
    decay_mult: 1
  }
  param {
    lr_mult: 2
    decay_mult: 0
  }
  convolution_param {
    num_output: 128
    kernel_size: 1
    weight_filler {
      type: "xavier"
      std: 0.03
    }
    bias_filler {
      type: "constant"
      value: 0.2
    }
  }
}
layer {
  name: "inception_4c/relu_1x1"
  type: "ReLU"
  bottom: "inception_4c/1x1"
  top: "inception_4c/1x1"
}
layer {
  name: "inception_4c/3x3_reduce"
  type: "Convolution"
  bottom: "inception_4b/output"
  top: "inception_4c/3x3_reduce"
  param {
    lr_mult: 1
    decay_mult: 1
  }
  param {
    lr_mult: 2
    decay_mult: 0
  }
  convolution_param {
    num_output: 128
    kernel_size: 1
    weight_filler {
      type: "xavier"
      std: 0.09
    }
    bias_filler {
      type: "constant"
      value: 0.2
    }
  }
}
layer {
  name: "inception_4c/relu_3x3_reduce"
  type: "ReLU"
  bottom: "inception_4c/3x3_reduce"
  top: "inception_4c/3x3_reduce"
}
layer {
  name: "inception_4c/3x3"
  type: "Convolution"
  bottom: "inception_4c/3x3_reduce"
  top: "inception_4c/3x3"
  param {
    lr_mult: 1
    decay_mult: 1
  }
  param {
    lr_mult: 2
    decay_mult: 0
  }
  convolution_param {
    num_output: 256
    pad: 1
    kernel_size: 3
    weight_filler {
      type: "xavier"
      std: 0.03
    }
    bias_filler {
      type: "constant"
      value: 0.2
    }
  }
}
layer {
  name: "inception_4c/relu_3x3"
  type: "ReLU"
  bottom: "inception_4c/3x3"
  top: "inception_4c/3x3"
}
layer {
  name: "inception_4c/5x5_reduce"
  type: "Convolution"
  bottom: "inception_4b/output"
  top: "inception_4c/5x5_reduce"
  param {
    lr_mult: 1
    decay_mult: 1
  }
  param {
    lr_mult: 2
    decay_mult: 0
  }
  convolution_param {
    num_output: 24
    kernel_size: 1
    weight_filler {
      type: "xavier"
      std: 0.2
    }
    bias_filler {
      type: "constant"
      value: 0.2
    }
  }
}
layer {
  name: "inception_4c/relu_5x5_reduce"
  type: "ReLU"
  bottom: "inception_4c/5x5_reduce"
  top: "inception_4c/5x5_reduce"
}
layer {
  name: "inception_4c/5x5"
  type: "Convolution"
  bottom: "inception_4c/5x5_reduce"
  top: "inception_4c/5x5"
  param {
    lr_mult: 1
    decay_mult: 1
  }
  param {
    lr_mult: 2
    decay_mult: 0
  }
  convolution_param {
    num_output: 64
    pad: 2
    kernel_size: 5
    weight_filler {
      type: "xavier"
      std: 0.03
    }
    bias_filler {
      type: "constant"
      value: 0.2
    }
  }
}
layer {
  name: "inception_4c/relu_5x5"
  type: "ReLU"
  bottom: "inception_4c/5x5"
  top: "inception_4c/5x5"
}
layer {
  name: "inception_4c/pool"
  type: "Pooling"
  bottom: "inception_4b/output"
  top: "inception_4c/pool"
  pooling_param {
    pool: MAX
    kernel_size: 3
    stride: 1
    pad: 1
  }
}
layer {
  name: "inception_4c/pool_proj"
  type: "Convolution"
  bottom: "inception_4c/pool"
  top: "inception_4c/pool_proj"
  param {
    lr_mult: 1
    decay_mult: 1
  }
  param {
    lr_mult: 2
    decay_mult: 0
  }
  convolution_param {
    num_output: 64
    kernel_size: 1
    weight_filler {
      type: "xavier"
      std: 0.1
    }
    bias_filler {
      type: "constant"
      value: 0.2
    }
  }
}
layer {
  name: "inception_4c/relu_pool_proj"
  type: "ReLU"
  bottom: "inception_4c/pool_proj"
  top: "inception_4c/pool_proj"
}
layer {
  name: "inception_4c/output"
  type: "Concat"
  bottom: "inception_4c/1x1"
  bottom: "inception_4c/3x3"
  bottom: "inception_4c/5x5"
  bottom: "inception_4c/pool_proj"
  top: "inception_4c/output"
}
layer {
  name: "inception_4d/1x1"
  type: "Convolution"
  bottom: "inception_4c/output"
  top: "inception_4d/1x1"
  param {
    lr_mult: 1
    decay_mult: 1
  }
  param {
    lr_mult: 2
    decay_mult: 0
  }
  convolution_param {
    num_output: 112
    kernel_size: 1
    weight_filler {
      type: "xavier"
      std: 0.03
    }
    bias_filler {
      type: "constant"
      value: 0.2
    }
  }
}
layer {
  name: "inception_4d/relu_1x1"
  type: "ReLU"
  bottom: "inception_4d/1x1"
  top: "inception_4d/1x1"
}
layer {
  name: "inception_4d/3x3_reduce"
  type: "Convolution"
  bottom: "inception_4c/output"
  top: "inception_4d/3x3_reduce"
  param {
    lr_mult: 1
    decay_mult: 1
  }
  param {
    lr_mult: 2
    decay_mult: 0
  }
  convolution_param {
    num_output: 144
    kernel_size: 1
    weight_filler {
      type: "xavier"
      std: 0.09
    }
    bias_filler {
      type: "constant"
      value: 0.2
    }
  }
}
layer {
  name: "inception_4d/relu_3x3_reduce"
  type: "ReLU"
  bottom: "inception_4d/3x3_reduce"
  top: "inception_4d/3x3_reduce"
}
layer {
  name: "inception_4d/3x3"
  type: "Convolution"
  bottom: "inception_4d/3x3_reduce"
  top: "inception_4d/3x3"
  param {
    lr_mult: 1
    decay_mult: 1
  }
  param {
    lr_mult: 2
    decay_mult: 0
  }
  convolution_param {
    num_output: 288
    pad: 1
    kernel_size: 3
    weight_filler {
      type: "xavier"
      std: 0.03
    }
    bias_filler {
      type: "constant"
      value: 0.2
    }
  }
}
layer {
  name: "inception_4d/relu_3x3"
  type: "ReLU"
  bottom: "inception_4d/3x3"
  top: "inception_4d/3x3"
}
layer {
  name: "inception_4d/5x5_reduce"
  type: "Convolution"
  bottom: "inception_4c/output"
  top: "inception_4d/5x5_reduce"
  param {
    lr_mult: 1
    decay_mult: 1
  }
  param {
    lr_mult: 2
    decay_mult: 0
  }
  convolution_param {
    num_output: 32
    kernel_size: 1
    weight_filler {
      type: "xavier"
      std: 0.2
    }
    bias_filler {
      type: "constant"
      value: 0.2
    }
  }
}
layer {
  name: "inception_4d/relu_5x5_reduce"
  type: "ReLU"
  bottom: "inception_4d/5x5_reduce"
  top: "inception_4d/5x5_reduce"
}
layer {
  name: "inception_4d/5x5"
  type: "Convolution"
  bottom: "inception_4d/5x5_reduce"
  top: "inception_4d/5x5"
  param {
    lr_mult: 1
    decay_mult: 1
  }
  param {
    lr_mult: 2
    decay_mult: 0
  }
  convolution_param {
    num_output: 64
    pad: 2
    kernel_size: 5
    weight_filler {
      type: "xavier"
      std: 0.03
    }
    bias_filler {
      type: "constant"
      value: 0.2
    }
  }
}
layer {
  name: "inception_4d/relu_5x5"
  type: "ReLU"
  bottom: "inception_4d/5x5"
  top: "inception_4d/5x5"
}
layer {
  name: "inception_4d/pool"
  type: "Pooling"
  bottom: "inception_4c/output"
  top: "inception_4d/pool"
  pooling_param {
    pool: MAX
    kernel_size: 3
    stride: 1
    pad: 1
  }
}
layer {
  name: "inception_4d/pool_proj"
  type: "Convolution"
  bottom: "inception_4d/pool"
  top: "inception_4d/pool_proj"
  param {
    lr_mult: 1
    decay_mult: 1
  }
  param {
    lr_mult: 2
    decay_mult: 0
  }
  convolution_param {
    num_output: 64
    kernel_size: 1
    weight_filler {
      type: "xavier"
      std: 0.1
    }
    bias_filler {
      type: "constant"
      value: 0.2
    }
  }
}
layer {
  name: "inception_4d/relu_pool_proj"
  type: "ReLU"
  bottom: "inception_4d/pool_proj"
  top: "inception_4d/pool_proj"
}
layer {
  name: "inception_4d/output"
  type: "Concat"
  bottom: "inception_4d/1x1"
  bottom: "inception_4d/3x3"
  bottom: "inception_4d/5x5"
  bottom: "inception_4d/pool_proj"
  top: "inception_4d/output"
}
layer {
  name: "loss2/ave_pool"
  type: "Pooling"
  bottom: "inception_4d/output"
  top: "loss2/ave_pool"
  pooling_param {
    pool: AVE
    kernel_size: 5
    stride: 3
  }
}
layer {
  name: "loss2/conv"
  type: "Convolution"
  bottom: "loss2/ave_pool"
  top: "loss2/conv"
  param {
    lr_mult: 1
    decay_mult: 1
  }
  param {
    lr_mult: 2
    decay_mult: 0
  }
  convolution_param {
    num_output: 128
    kernel_size: 1
    weight_filler {
      type: "xavier"
      std: 0.08
    }
    bias_filler {
      type: "constant"
      value: 0.2
    }
  }
}
layer {
  name: "loss2/relu_conv"
  type: "ReLU"
  bottom: "loss2/conv"
  top: "loss2/conv"
}
layer {
  name: "loss2/fc"
  type: "InnerProduct"
  bottom: "loss2/conv"
  top: "loss2/fc"
  param {
    lr_mult: 1
    decay_mult: 1
  }
  param {
    lr_mult: 2
    decay_mult: 0
  }
  inner_product_param {
    num_output: 1024
    weight_filler {
      type: "xavier"
      std: 0.02
    }
    bias_filler {
      type: "constant"
      value: 0.2
    }
  }
}
layer {
  name: "loss2/relu_fc"
  type: "ReLU"
  bottom: "loss2/fc"
  top: "loss2/fc"
}
layer {
  name: "loss2/drop_fc"
  type: "Dropout"
  bottom: "loss2/fc"
  top: "loss2/fc"
  dropout_param {
    dropout_ratio: 0.7
  }
}
layer {
  name: "loss2/classifier_plantvillage"
  type: "InnerProduct"
  bottom: "loss2/fc"
  top: "loss2/classifier_plantvillage"
  param {
    lr_mult: 1
    decay_mult: 1
  }
  param {
    lr_mult: 2
    decay_mult: 0
  }
  inner_product_param {
    num_output: 38
    weight_filler {
      type: "xavier"
      std: 0.0009765625
    }
    bias_filler {
      type: "constant"
      value: 0
    }
  }
}
layer {
  name: "inception_4e/1x1"
  type: "Convolution"
  bottom: "inception_4d/output"
  top: "inception_4e/1x1"
  param {
    lr_mult: 1
    decay_mult: 1
  }
  param {
    lr_mult: 2
    decay_mult: 0
  }
  convolution_param {
    num_output: 256
    kernel_size: 1
    weight_filler {
      type: "xavier"
      std: 0.03
    }
    bias_filler {
      type: "constant"
      value: 0.2
    }
  }
}
layer {
  name: "inception_4e/relu_1x1"
  type: "ReLU"
  bottom: "inception_4e/1x1"
  top: "inception_4e/1x1"
}
layer {
  name: "inception_4e/3x3_reduce"
  type: "Convolution"
  bottom: "inception_4d/output"
  top: "inception_4e/3x3_reduce"
  param {
    lr_mult: 1
    decay_mult: 1
  }
  param {
    lr_mult: 2
    decay_mult: 0
  }
  convolution_param {
    num_output: 160
    kernel_size: 1
    weight_filler {
      type: "xavier"
      std: 0.09
    }
    bias_filler {
      type: "constant"
      value: 0.2
    }
  }
}
layer {
  name: "inception_4e/relu_3x3_reduce"
  type: "ReLU"
  bottom: "inception_4e/3x3_reduce"
  top: "inception_4e/3x3_reduce"
}
layer {
  name: "inception_4e/3x3"
  type: "Convolution"
  bottom: "inception_4e/3x3_reduce"
  top: "inception_4e/3x3"
  param {
    lr_mult: 1
    decay_mult: 1
  }
  param {
    lr_mult: 2
    decay_mult: 0
  }
  convolution_param {
    num_output: 320
    pad: 1
    kernel_size: 3
    weight_filler {
      type: "xavier"
      std: 0.03
    }
    bias_filler {
      type: "constant"
      value: 0.2
    }
  }
}
layer {
  name: "inception_4e/relu_3x3"
  type: "ReLU"
  bottom: "inception_4e/3x3"
  top: "inception_4e/3x3"
}
layer {
  name: "inception_4e/5x5_reduce"
  type: "Convolution"
  bottom: "inception_4d/output"
  top: "inception_4e/5x5_reduce"
  param {
    lr_mult: 1
    decay_mult: 1
  }
  param {
    lr_mult: 2
    decay_mult: 0
  }
  convolution_param {
    num_output: 32
    kernel_size: 1
    weight_filler {
      type: "xavier"
      std: 0.2
    }
    bias_filler {
      type: "constant"
      value: 0.2
    }
  }
}
layer {
  name: "inception_4e/relu_5x5_reduce"
  type: "ReLU"
  bottom: "inception_4e/5x5_reduce"
  top: "inception_4e/5x5_reduce"
}
layer {
  name: "inception_4e/5x5"
  type: "Convolution"
  bottom: "inception_4e/5x5_reduce"
  top: "inception_4e/5x5"
  p
I0403 15:22:11.313251 31613 layer_factory.hpp:77] Creating layer data
I0403 15:22:11.313869 31613 net.cpp:91] Creating Layer data
I0403 15:22:11.313901 31613 net.cpp:399] data -> data
I0403 15:22:11.313954 31613 net.cpp:399] data -> label
I0403 15:22:11.313992 31613 data_transformer.cpp:25] Loading mean file from: /home/mohanty/data/final_dataset/lmdb/color-20-80/mean.binaryproto
I0403 15:22:11.316468 31617 db_lmdb.cpp:38] Opened lmdb /home/mohanty/data/final_dataset/lmdb/color-20-80/test_db
I0403 15:22:11.327428 31613 data_layer.cpp:41] output data size: 24,3,224,224
I0403 15:22:11.354961 31613 net.cpp:141] Setting up data
I0403 15:22:11.355049 31613 net.cpp:148] Top shape: 24 3 224 224 (3612672)
I0403 15:22:11.355072 31613 net.cpp:148] Top shape: 24 (24)
I0403 15:22:11.355088 31613 net.cpp:156] Memory required for data: 14450784
I0403 15:22:11.355116 31613 layer_factory.hpp:77] Creating layer label_data_1_split
I0403 15:22:11.355144 31613 net.cpp:91] Creating Layer label_data_1_split
I0403 15:22:11.355162 31613 net.cpp:425] label_data_1_split <- label
I0403 15:22:11.355195 31613 net.cpp:399] label_data_1_split -> label_data_1_split_0
I0403 15:22:11.355224 31613 net.cpp:399] label_data_1_split -> label_data_1_split_1
I0403 15:22:11.355247 31613 net.cpp:399] label_data_1_split -> label_data_1_split_2
I0403 15:22:11.355269 31613 net.cpp:399] label_data_1_split -> label_data_1_split_3
I0403 15:22:11.355289 31613 net.cpp:399] label_data_1_split -> label_data_1_split_4
I0403 15:22:11.355309 31613 net.cpp:399] label_data_1_split -> label_data_1_split_5
I0403 15:22:11.355330 31613 net.cpp:399] label_data_1_split -> label_data_1_split_6
I0403 15:22:11.355356 31613 net.cpp:399] label_data_1_split -> label_data_1_split_7
I0403 15:22:11.355378 31613 net.cpp:399] label_data_1_split -> label_data_1_split_8
I0403 15:22:11.355401 31613 net.cpp:399] label_data_1_split -> label_data_1_split_9
I0403 15:22:11.355531 31613 net.cpp:141] Setting up label_data_1_split
I0403 15:22:11.355556 31613 net.cpp:148] Top shape: 24 (24)
I0403 15:22:11.355574 31613 net.cpp:148] Top shape: 24 (24)
I0403 15:22:11.355592 31613 net.cpp:148] Top shape: 24 (24)
I0403 15:22:11.355609 31613 net.cpp:148] Top shape: 24 (24)
I0403 15:22:11.355626 31613 net.cpp:148] Top shape: 24 (24)
I0403 15:22:11.355643 31613 net.cpp:148] Top shape: 24 (24)
I0403 15:22:11.355660 31613 net.cpp:148] Top shape: 24 (24)
I0403 15:22:11.355677 31613 net.cpp:148] Top shape: 24 (24)
I0403 15:22:11.355693 31613 net.cpp:148] Top shape: 24 (24)
I0403 15:22:11.355711 31613 net.cpp:148] Top shape: 24 (24)
I0403 15:22:11.355759 31613 net.cpp:156] Memory required for data: 14451744
I0403 15:22:11.355777 31613 layer_factory.hpp:77] Creating layer conv1/7x7_s2
I0403 15:22:11.355820 31613 net.cpp:91] Creating Layer conv1/7x7_s2
I0403 15:22:11.355839 31613 net.cpp:425] conv1/7x7_s2 <- data
I0403 15:22:11.355860 31613 net.cpp:399] conv1/7x7_s2 -> conv1/7x7_s2
I0403 15:22:11.496381 31613 net.cpp:141] Setting up conv1/7x7_s2
I0403 15:22:11.496459 31613 net.cpp:148] Top shape: 24 64 112 112 (19267584)
I0403 15:22:11.496477 31613 net.cpp:156] Memory required for data: 91522080
I0403 15:22:11.496511 31613 layer_factory.hpp:77] Creating layer conv1/relu_7x7
I0403 15:22:11.496539 31613 net.cpp:91] Creating Layer conv1/relu_7x7
I0403 15:22:11.496559 31613 net.cpp:425] conv1/relu_7x7 <- conv1/7x7_s2
I0403 15:22:11.496580 31613 net.cpp:386] conv1/relu_7x7 -> conv1/7x7_s2 (in-place)
I0403 15:22:11.496847 31613 net.cpp:141] Setting up conv1/relu_7x7
I0403 15:22:11.496876 31613 net.cpp:148] Top shape: 24 64 112 112 (19267584)
I0403 15:22:11.496893 31613 net.cpp:156] Memory required for data: 168592416
I0403 15:22:11.496911 31613 layer_factory.hpp:77] Creating layer pool1/3x3_s2
I0403 15:22:11.496937 31613 net.cpp:91] Creating Layer pool1/3x3_s2
I0403 15:22:11.496955 31613 net.cpp:425] pool1/3x3_s2 <- conv1/7x7_s2
I0403 15:22:11.496975 31613 net.cpp:399] pool1/3x3_s2 -> pool1/3x3_s2
I0403 15:22:11.497054 31613 net.cpp:141] Setting up pool1/3x3_s2
I0403 15:22:11.497081 31613 net.cpp:148] Top shape: 24 64 56 56 (4816896)
I0403 15:22:11.497097 31613 net.cpp:156] Memory required for data: 187860000
I0403 15:22:11.497112 31613 layer_factory.hpp:77] Creating layer pool1/norm1
I0403 15:22:11.497138 31613 net.cpp:91] Creating Layer pool1/norm1
I0403 15:22:11.497158 31613 net.cpp:425] pool1/norm1 <- pool1/3x3_s2
I0403 15:22:11.497176 31613 net.cpp:399] pool1/norm1 -> pool1/norm1
I0403 15:22:11.497530 31613 net.cpp:141] Setting up pool1/norm1
I0403 15:22:11.497570 31613 net.cpp:148] Top shape: 24 64 56 56 (4816896)
I0403 15:22:11.497587 31613 net.cpp:156] Memory required for data: 207127584
I0403 15:22:11.497604 31613 layer_factory.hpp:77] Creating layer conv2/3x3_reduce
I0403 15:22:11.497630 31613 net.cpp:91] Creating Layer conv2/3x3_reduce
I0403 15:22:11.497649 31613 net.cpp:425] conv2/3x3_reduce <- pool1/norm1
I0403 15:22:11.497669 31613 net.cpp:399] conv2/3x3_reduce -> conv2/3x3_reduce
I0403 15:22:11.499033 31613 net.cpp:141] Setting up conv2/3x3_reduce
I0403 15:22:11.499065 31613 net.cpp:148] Top shape: 24 64 56 56 (4816896)
I0403 15:22:11.499083 31613 net.cpp:156] Memory required for data: 226395168
I0403 15:22:11.499106 31613 layer_factory.hpp:77] Creating layer conv2/relu_3x3_reduce
I0403 15:22:11.499125 31613 net.cpp:91] Creating Layer conv2/relu_3x3_reduce
I0403 15:22:11.499142 31613 net.cpp:425] conv2/relu_3x3_reduce <- conv2/3x3_reduce
I0403 15:22:11.499161 31613 net.cpp:386] conv2/relu_3x3_reduce -> conv2/3x3_reduce (in-place)
I0403 15:22:11.499454 31613 net.cpp:141] Setting up conv2/relu_3x3_reduce
I0403 15:22:11.499483 31613 net.cpp:148] Top shape: 24 64 56 56 (4816896)
I0403 15:22:11.499500 31613 net.cpp:156] Memory required for data: 245662752
I0403 15:22:11.499517 31613 layer_factory.hpp:77] Creating layer conv2/3x3
I0403 15:22:11.499541 31613 net.cpp:91] Creating Layer conv2/3x3
I0403 15:22:11.499559 31613 net.cpp:425] conv2/3x3 <- conv2/3x3_reduce
I0403 15:22:11.499582 31613 net.cpp:399] conv2/3x3 -> conv2/3x3
I0403 15:22:11.501981 31613 net.cpp:141] Setting up conv2/3x3
I0403 15:22:11.502014 31613 net.cpp:148] Top shape: 24 192 56 56 (14450688)
I0403 15:22:11.502032 31613 net.cpp:156] Memory required for data: 303465504
I0403 15:22:11.502056 31613 layer_factory.hpp:77] Creating layer conv2/relu_3x3
I0403 15:22:11.502076 31613 net.cpp:91] Creating Layer conv2/relu_3x3
I0403 15:22:11.502096 31613 net.cpp:425] conv2/relu_3x3 <- conv2/3x3
I0403 15:22:11.502120 31613 net.cpp:386] conv2/relu_3x3 -> conv2/3x3 (in-place)
I0403 15:22:11.502305 31613 net.cpp:141] Setting up conv2/relu_3x3
I0403 15:22:11.502336 31613 net.cpp:148] Top shape: 24 192 56 56 (14450688)
I0403 15:22:11.502388 31613 net.cpp:156] Memory required for data: 361268256
I0403 15:22:11.502408 31613 layer_factory.hpp:77] Creating layer conv2/norm2
I0403 15:22:11.502426 31613 net.cpp:91] Creating Layer conv2/norm2
I0403 15:22:11.502444 31613 net.cpp:425] conv2/norm2 <- conv2/3x3
I0403 15:22:11.502466 31613 net.cpp:399] conv2/norm2 -> conv2/norm2
I0403 15:22:11.502792 31613 net.cpp:141] Setting up conv2/norm2
I0403 15:22:11.502821 31613 net.cpp:148] Top shape: 24 192 56 56 (14450688)
I0403 15:22:11.502840 31613 net.cpp:156] Memory required for data: 419071008
I0403 15:22:11.502895 31613 layer_factory.hpp:77] Creating layer pool2/3x3_s2
I0403 15:22:11.502918 31613 net.cpp:91] Creating Layer pool2/3x3_s2
I0403 15:22:11.502934 31613 net.cpp:425] pool2/3x3_s2 <- conv2/norm2
I0403 15:22:11.502955 31613 net.cpp:399] pool2/3x3_s2 -> pool2/3x3_s2
I0403 15:22:11.503015 31613 net.cpp:141] Setting up pool2/3x3_s2
I0403 15:22:11.503041 31613 net.cpp:148] Top shape: 24 192 28 28 (3612672)
I0403 15:22:11.503057 31613 net.cpp:156] Memory required for data: 433521696
I0403 15:22:11.503073 31613 layer_factory.hpp:77] Creating layer pool2/3x3_s2_pool2/3x3_s2_0_split
I0403 15:22:11.503095 31613 net.cpp:91] Creating Layer pool2/3x3_s2_pool2/3x3_s2_0_split
I0403 15:22:11.503113 31613 net.cpp:425] pool2/3x3_s2_pool2/3x3_s2_0_split <- pool2/3x3_s2
I0403 15:22:11.503132 31613 net.cpp:399] pool2/3x3_s2_pool2/3x3_s2_0_split -> pool2/3x3_s2_pool2/3x3_s2_0_split_0
I0403 15:22:11.503154 31613 net.cpp:399] pool2/3x3_s2_pool2/3x3_s2_0_split -> pool2/3x3_s2_pool2/3x3_s2_0_split_1
I0403 15:22:11.503177 31613 net.cpp:399] pool2/3x3_s2_pool2/3x3_s2_0_split -> pool2/3x3_s2_pool2/3x3_s2_0_split_2
I0403 15:22:11.503199 31613 net.cpp:399] pool2/3x3_s2_pool2/3x3_s2_0_split -> pool2/3x3_s2_pool2/3x3_s2_0_split_3
I0403 15:22:11.503273 31613 net.cpp:141] Setting up pool2/3x3_s2_pool2/3x3_s2_0_split
I0403 15:22:11.503298 31613 net.cpp:148] Top shape: 24 192 28 28 (3612672)
I0403 15:22:11.503314 31613 net.cpp:148] Top shape: 24 192 28 28 (3612672)
I0403 15:22:11.503331 31613 net.cpp:148] Top shape: 24 192 28 28 (3612672)
I0403 15:22:11.503351 31613 net.cpp:148] Top shape: 24 192 28 28 (3612672)
I0403 15:22:11.503370 31613 net.cpp:156] Memory required for data: 491324448
I0403 15:22:11.503386 31613 layer_factory.hpp:77] Creating layer inception_3a/1x1
I0403 15:22:11.503412 31613 net.cpp:91] Creating Layer inception_3a/1x1
I0403 15:22:11.503432 31613 net.cpp:425] inception_3a/1x1 <- pool2/3x3_s2_pool2/3x3_s2_0_split_0
I0403 15:22:11.503453 31613 net.cpp:399] inception_3a/1x1 -> inception_3a/1x1
I0403 15:22:11.505070 31613 net.cpp:141] Setting up inception_3a/1x1
I0403 15:22:11.505101 31613 net.cpp:148] Top shape: 24 64 28 28 (1204224)
I0403 15:22:11.505118 31613 net.cpp:156] Memory required for data: 496141344
I0403 15:22:11.505138 31613 layer_factory.hpp:77] Creating layer inception_3a/relu_1x1
I0403 15:22:11.505157 31613 net.cpp:91] Creating Layer inception_3a/relu_1x1
I0403 15:22:11.505209 31613 net.cpp:425] inception_3a/relu_1x1 <- inception_3a/1x1
I0403 15:22:11.505228 31613 net.cpp:386] inception_3a/relu_1x1 -> inception_3a/1x1 (in-place)
I0403 15:22:11.505415 31613 net.cpp:141] Setting up inception_3a/relu_1x1
I0403 15:22:11.505444 31613 net.cpp:148] Top shape: 24 64 28 28 (1204224)
I0403 15:22:11.505472 31613 net.cpp:156] Memory required for data: 500958240
I0403 15:22:11.505487 31613 layer_factory.hpp:77] Creating layer inception_3a/3x3_reduce
I0403 15:22:11.505511 31613 net.cpp:91] Creating Layer inception_3a/3x3_reduce
I0403 15:22:11.505530 31613 net.cpp:425] inception_3a/3x3_reduce <- pool2/3x3_s2_pool2/3x3_s2_0_split_1
I0403 15:22:11.505551 31613 net.cpp:399] inception_3a/3x3_reduce -> inception_3a/3x3_reduce
I0403 15:22:11.507272 31613 net.cpp:141] Setting up inception_3a/3x3_reduce
I0403 15:22:11.507305 31613 net.cpp:148] Top shape: 24 96 28 28 (1806336)
I0403 15:22:11.507323 31613 net.cpp:156] Memory required for data: 508183584
I0403 15:22:11.507344 31613 layer_factory.hpp:77] Creating layer inception_3a/relu_3x3_reduce
I0403 15:22:11.507390 31613 net.cpp:91] Creating Layer inception_3a/relu_3x3_reduce
I0403 15:22:11.507410 31613 net.cpp:425] inception_3a/relu_3x3_reduce <- inception_3a/3x3_reduce
I0403 15:22:11.507428 31613 net.cpp:386] inception_3a/relu_3x3_reduce -> inception_3a/3x3_reduce (in-place)
I0403 15:22:11.507623 31613 net.cpp:141] Setting up inception_3a/relu_3x3_reduce
I0403 15:22:11.507650 31613 net.cpp:148] Top shape: 24 96 28 28 (1806336)
I0403 15:22:11.507665 31613 net.cpp:156] Memory required for data: 515408928
I0403 15:22:11.507680 31613 layer_factory.hpp:77] Creating layer inception_3a/3x3
I0403 15:22:11.507704 31613 net.cpp:91] Creating Layer inception_3a/3x3
I0403 15:22:11.507722 31613 net.cpp:425] inception_3a/3x3 <- inception_3a/3x3_reduce
I0403 15:22:11.507745 31613 net.cpp:399] inception_3a/3x3 -> inception_3a/3x3
I0403 15:22:11.509459 31613 net.cpp:141] Setting up inception_3a/3x3
I0403 15:22:11.509490 31613 net.cpp:148] Top shape: 24 128 28 28 (2408448)
I0403 15:22:11.509507 31613 net.cpp:156] Memory required for data: 525042720
I0403 15:22:11.509528 31613 layer_factory.hpp:77] Creating layer inception_3a/relu_3x3
I0403 15:22:11.509563 31613 net.cpp:91] Creating Layer inception_3a/relu_3x3
I0403 15:22:11.509580 31613 net.cpp:425] inception_3a/relu_3x3 <- inception_3a/3x3
I0403 15:22:11.509599 31613 net.cpp:386] inception_3a/relu_3x3 -> inception_3a/3x3 (in-place)
I0403 15:22:11.509878 31613 net.cpp:141] Setting up inception_3a/relu_3x3
I0403 15:22:11.509907 31613 net.cpp:148] Top shape: 24 128 28 28 (2408448)
I0403 15:22:11.509922 31613 net.cpp:156] Memory required for data: 534676512
I0403 15:22:11.509938 31613 layer_factory.hpp:77] Creating layer inception_3a/5x5_reduce
I0403 15:22:11.509961 31613 net.cpp:91] Creating Layer inception_3a/5x5_reduce
I0403 15:22:11.509980 31613 net.cpp:425] inception_3a/5x5_reduce <- pool2/3x3_s2_pool2/3x3_s2_0_split_2
I0403 15:22:11.510002 31613 net.cpp:399] inception_3a/5x5_reduce -> inception_3a/5x5_reduce
I0403 15:22:11.510984 31613 net.cpp:141] Setting up inception_3a/5x5_reduce
I0403 15:22:11.511013 31613 net.cpp:148] Top shape: 24 16 28 28 (301056)
I0403 15:22:11.511029 31613 net.cpp:156] Memory required for data: 535880736
I0403 15:22:11.511049 31613 layer_factory.hpp:77] Creating layer inception_3a/relu_5x5_reduce
I0403 15:22:11.511070 31613 net.cpp:91] Creating Layer inception_3a/relu_5x5_reduce
I0403 15:22:11.511090 31613 net.cpp:425] inception_3a/relu_5x5_reduce <- inception_3a/5x5_reduce
I0403 15:22:11.511108 31613 net.cpp:386] inception_3a/relu_5x5_reduce -> inception_3a/5x5_reduce (in-place)
I0403 15:22:11.511428 31613 net.cpp:141] Setting up inception_3a/relu_5x5_reduce
I0403 15:22:11.511459 31613 net.cpp:148] Top shape: 24 16 28 28 (301056)
I0403 15:22:11.511477 31613 net.cpp:156] Memory required for data: 537084960
I0403 15:22:11.511494 31613 layer_factory.hpp:77] Creating layer inception_3a/5x5
I0403 15:22:11.511518 31613 net.cpp:91] Creating Layer inception_3a/5x5
I0403 15:22:11.511538 31613 net.cpp:425] inception_3a/5x5 <- inception_3a/5x5_reduce
I0403 15:22:11.511559 31613 net.cpp:399] inception_3a/5x5 -> inception_3a/5x5
I0403 15:22:11.512629 31613 net.cpp:141] Setting up inception_3a/5x5
I0403 15:22:11.512658 31613 net.cpp:148] Top shape: 24 32 28 28 (602112)
I0403 15:22:11.512676 31613 net.cpp:156] Memory required for data: 539493408
I0403 15:22:11.512696 31613 layer_factory.hpp:77] Creating layer inception_3a/relu_5x5
I0403 15:22:11.512718 31613 net.cpp:91] Creating Layer inception_3a/relu_5x5
I0403 15:22:11.512737 31613 net.cpp:425] inception_3a/relu_5x5 <- inception_3a/5x5
I0403 15:22:11.512758 31613 net.cpp:386] inception_3a/relu_5x5 -> inception_3a/5x5 (in-place)
I0403 15:22:11.512939 31613 net.cpp:141] Setting up inception_3a/relu_5x5
I0403 15:22:11.512967 31613 net.cpp:148] Top shape: 24 32 28 28 (602112)
I0403 15:22:11.512982 31613 net.cpp:156] Memory required for data: 541901856
I0403 15:22:11.512998 31613 layer_factory.hpp:77] Creating layer inception_3a/pool
I0403 15:22:11.513021 31613 net.cpp:91] Creating Layer inception_3a/pool
I0403 15:22:11.513039 31613 net.cpp:425] inception_3a/pool <- pool2/3x3_s2_pool2/3x3_s2_0_split_3
I0403 15:22:11.513075 31613 net.cpp:399] inception_3a/pool -> inception_3a/pool
I0403 15:22:11.513140 31613 net.cpp:141] Setting up inception_3a/pool
I0403 15:22:11.513166 31613 net.cpp:148] Top shape: 24 192 28 28 (3612672)
I0403 15:22:11.513183 31613 net.cpp:156] Memory required for data: 556352544
I0403 15:22:11.513200 31613 layer_factory.hpp:77] Creating layer inception_3a/pool_proj
I0403 15:22:11.513224 31613 net.cpp:91] Creating Layer inception_3a/pool_proj
I0403 15:22:11.513244 31613 net.cpp:425] inception_3a/pool_proj <- inception_3a/pool
I0403 15:22:11.513268 31613 net.cpp:399] inception_3a/pool_proj -> inception_3a/pool_proj
I0403 15:22:11.514283 31613 net.cpp:141] Setting up inception_3a/pool_proj
I0403 15:22:11.514317 31613 net.cpp:148] Top shape: 24 32 28 28 (602112)
I0403 15:22:11.514334 31613 net.cpp:156] Memory required for data: 558760992
I0403 15:22:11.514369 31613 layer_factory.hpp:77] Creating layer inception_3a/relu_pool_proj
I0403 15:22:11.514394 31613 net.cpp:91] Creating Layer inception_3a/relu_pool_proj
I0403 15:22:11.514415 31613 net.cpp:425] inception_3a/relu_pool_proj <- inception_3a/pool_proj
I0403 15:22:11.514432 31613 net.cpp:386] inception_3a/relu_pool_proj -> inception_3a/pool_proj (in-place)
I0403 15:22:11.514721 31613 net.cpp:141] Setting up inception_3a/relu_pool_proj
I0403 15:22:11.514750 31613 net.cpp:148] Top shape: 24 32 28 28 (602112)
I0403 15:22:11.514767 31613 net.cpp:156] Memory required for data: 561169440
I0403 15:22:11.514783 31613 layer_factory.hpp:77] Creating layer inception_3a/output
I0403 15:22:11.514803 31613 net.cpp:91] Creating Layer inception_3a/output
I0403 15:22:11.514824 31613 net.cpp:425] inception_3a/output <- inception_3a/1x1
I0403 15:22:11.514844 31613 net.cpp:425] inception_3a/output <- inception_3a/3x3
I0403 15:22:11.514861 31613 net.cpp:425] inception_3a/output <- inception_3a/5x5
I0403 15:22:11.514878 31613 net.cpp:425] inception_3a/output <- inception_3a/pool_proj
I0403 15:22:11.514897 31613 net.cpp:399] inception_3a/output -> inception_3a/output
I0403 15:22:11.514946 31613 net.cpp:141] Setting up inception_3a/output
I0403 15:22:11.514974 31613 net.cpp:148] Top shape: 24 256 28 28 (4816896)
I0403 15:22:11.514992 31613 net.cpp:156] Memory required for data: 580437024
I0403 15:22:11.515008 31613 layer_factory.hpp:77] Creating layer inception_3a/output_inception_3a/output_0_split
I0403 15:22:11.515027 31613 net.cpp:91] Creating Layer inception_3a/output_inception_3a/output_0_split
I0403 15:22:11.515043 31613 net.cpp:425] inception_3a/output_inception_3a/output_0_split <- inception_3a/output
I0403 15:22:11.515064 31613 net.cpp:399] inception_3a/output_inception_3a/output_0_split -> inception_3a/output_inception_3a/output_0_split_0
I0403 15:22:11.515086 31613 net.cpp:399] inception_3a/output_inception_3a/output_0_split -> inception_3a/output_inception_3a/output_0_split_1
I0403 15:22:11.515112 31613 net.cpp:399] inception_3a/output_inception_3a/output_0_split -> inception_3a/output_inception_3a/output_0_split_2
I0403 15:22:11.515135 31613 net.cpp:399] inception_3a/output_inception_3a/output_0_split -> inception_3a/output_inception_3a/output_0_split_3
I0403 15:22:11.515215 31613 net.cpp:141] Setting up inception_3a/output_inception_3a/output_0_split
I0403 15:22:11.515239 31613 net.cpp:148] Top shape: 24 256 28 28 (4816896)
I0403 15:22:11.515259 31613 net.cpp:148] Top shape: 24 256 28 28 (4816896)
I0403 15:22:11.515276 31613 net.cpp:148] Top shape: 24 256 28 28 (4816896)
I0403 15:22:11.515293 31613 net.cpp:148] Top shape: 24 256 28 28 (4816896)
I0403 15:22:11.515308 31613 net.cpp:156] Memory required for data: 657507360
I0403 15:22:11.515324 31613 layer_factory.hpp:77] Creating layer inception_3b/1x1
I0403 15:22:11.515353 31613 net.cpp:91] Creating Layer inception_3b/1x1
I0403 15:22:11.515375 31613 net.cpp:425] inception_3b/1x1 <- inception_3a/output_inception_3a/output_0_split_0
I0403 15:22:11.515398 31613 net.cpp:399] inception_3b/1x1 -> inception_3b/1x1
I0403 15:22:11.516595 31613 net.cpp:141] Setting up inception_3b/1x1
I0403 15:22:11.516639 31613 net.cpp:148] Top shape: 24 128 28 28 (2408448)
I0403 15:22:11.516657 31613 net.cpp:156] Memory required for data: 667141152
I0403 15:22:11.516680 31613 layer_factory.hpp:77] Creating layer inception_3b/relu_1x1
I0403 15:22:11.516698 31613 net.cpp:91] Creating Layer inception_3b/relu_1x1
I0403 15:22:11.516716 31613 net.cpp:425] inception_3b/relu_1x1 <- inception_3b/1x1
I0403 15:22:11.516736 31613 net.cpp:386] inception_3b/relu_1x1 -> inception_3b/1x1 (in-place)
I0403 15:22:11.516921 31613 net.cpp:141] Setting up inception_3b/relu_1x1
I0403 15:22:11.516948 31613 net.cpp:148] Top shape: 24 128 28 28 (2408448)
I0403 15:22:11.516965 31613 net.cpp:156] Memory required for data: 676774944
I0403 15:22:11.516983 31613 layer_factory.hpp:77] Creating layer inception_3b/3x3_reduce
I0403 15:22:11.517007 31613 net.cpp:91] Creating Layer inception_3b/3x3_reduce
I0403 15:22:11.517026 31613 net.cpp:425] inception_3b/3x3_reduce <- inception_3a/output_inception_3a/output_0_split_1
I0403 15:22:11.517050 31613 net.cpp:399] inception_3b/3x3_reduce -> inception_3b/3x3_reduce
I0403 15:22:11.518244 31613 net.cpp:141] Setting up inception_3b/3x3_reduce
I0403 15:22:11.518276 31613 net.cpp:148] Top shape: 24 128 28 28 (2408448)
I0403 15:22:11.518296 31613 net.cpp:156] Memory required for data: 686408736
I0403 15:22:11.518317 31613 layer_factory.hpp:77] Creating layer inception_3b/relu_3x3_reduce
I0403 15:22:11.518337 31613 net.cpp:91] Creating Layer inception_3b/relu_3x3_reduce
I0403 15:22:11.518360 31613 net.cpp:425] inception_3b/relu_3x3_reduce <- inception_3b/3x3_reduce
I0403 15:22:11.518381 31613 net.cpp:386] inception_3b/relu_3x3_reduce -> inception_3b/3x3_reduce (in-place)
I0403 15:22:11.518566 31613 net.cpp:141] Setting up inception_3b/relu_3x3_reduce
I0403 15:22:11.518594 31613 net.cpp:148] Top shape: 24 128 28 28 (2408448)
I0403 15:22:11.518610 31613 net.cpp:156] Memory required for data: 696042528
I0403 15:22:11.518626 31613 layer_factory.hpp:77] Creating layer inception_3b/3x3
I0403 15:22:11.518654 31613 net.cpp:91] Creating Layer inception_3b/3x3
I0403 15:22:11.518672 31613 net.cpp:425] inception_3b/3x3 <- inception_3b/3x3_reduce
I0403 15:22:11.518693 31613 net.cpp:399] inception_3b/3x3 -> inception_3b/3x3
I0403 15:22:11.521773 31613 net.cpp:141] Setting up inception_3b/3x3
I0403 15:22:11.521805 31613 net.cpp:148] Top shape: 24 192 28 28 (3612672)
I0403 15:22:11.521821 31613 net.cpp:156] Memory required for data: 710493216
I0403 15:22:11.521841 31613 layer_factory.hpp:77] Creating layer inception_3b/relu_3x3
I0403 15:22:11.521863 31613 net.cpp:91] Creating Layer inception_3b/relu_3x3
I0403 15:22:11.521883 31613 net.cpp:425] inception_3b/relu_3x3 <- inception_3b/3x3
I0403 15:22:11.521901 31613 net.cpp:386] inception_3b/relu_3x3 -> inception_3b/3x3 (in-place)
I0403 15:22:11.522189 31613 net.cpp:141] Setting up inception_3b/relu_3x3
I0403 15:22:11.522218 31613 net.cpp:148] Top shape: 24 192 28 28 (3612672)
I0403 15:22:11.522235 31613 net.cpp:156] Memory required for data: 724943904
I0403 15:22:11.522251 31613 layer_factory.hpp:77] Creating layer inception_3b/5x5_reduce
I0403 15:22:11.522284 31613 net.cpp:91] Creating Layer inception_3b/5x5_reduce
I0403 15:22:11.522303 31613 net.cpp:425] inception_3b/5x5_reduce <- inception_3a/output_inception_3a/output_0_split_2
I0403 15:22:11.522328 31613 net.cpp:399] inception_3b/5x5_reduce -> inception_3b/5x5_reduce
I0403 15:22:11.523391 31613 net.cpp:141] Setting up inception_3b/5x5_reduce
I0403 15:22:11.523422 31613 net.cpp:148] Top shape: 24 32 28 28 (602112)
I0403 15:22:11.523438 31613 net.cpp:156] Memory required for data: 727352352
I0403 15:22:11.523459 31613 layer_factory.hpp:77] Creating layer inception_3b/relu_5x5_reduce
I0403 15:22:11.523481 31613 net.cpp:91] Creating Layer inception_3b/relu_5x5_reduce
I0403 15:22:11.523500 31613 net.cpp:425] inception_3b/relu_5x5_reduce <- inception_3b/5x5_reduce
I0403 15:22:11.523519 31613 net.cpp:386] inception_3b/relu_5x5_reduce -> inception_3b/5x5_reduce (in-place)
I0403 15:22:11.523705 31613 net.cpp:141] Setting up inception_3b/relu_5x5_reduce
I0403 15:22:11.523746 31613 net.cpp:148] Top shape: 24 32 28 28 (602112)
I0403 15:22:11.523762 31613 net.cpp:156] Memory required for data: 729760800
I0403 15:22:11.523778 31613 layer_factory.hpp:77] Creating layer inception_3b/5x5
I0403 15:22:11.523803 31613 net.cpp:91] Creating Layer inception_3b/5x5
I0403 15:22:11.523823 31613 net.cpp:425] inception_3b/5x5 <- inception_3b/5x5_reduce
I0403 15:22:11.523844 31613 net.cpp:399] inception_3b/5x5 -> inception_3b/5x5
I0403 15:22:11.525920 31613 net.cpp:141] Setting up inception_3b/5x5
I0403 15:22:11.525952 31613 net.cpp:148] Top shape: 24 96 28 28 (1806336)
I0403 15:22:11.525970 31613 net.cpp:156] Memory required for data: 736986144
I0403 15:22:11.525990 31613 layer_factory.hpp:77] Creating layer inception_3b/relu_5x5
I0403 15:22:11.526010 31613 net.cpp:91] Creating Layer inception_3b/relu_5x5
I0403 15:22:11.526027 31613 net.cpp:425] inception_3b/relu_5x5 <- inception_3b/5x5
I0403 15:22:11.526046 31613 net.cpp:386] inception_3b/relu_5x5 -> inception_3b/5x5 (in-place)
I0403 15:22:11.526242 31613 net.cpp:141] Setting up inception_3b/relu_5x5
I0403 15:22:11.526268 31613 net.cpp:148] Top shape: 24 96 28 28 (1806336)
I0403 15:22:11.526283 31613 net.cpp:156] Memory required for data: 744211488
I0403 15:22:11.526300 31613 layer_factory.hpp:77] Creating layer inception_3b/pool
I0403 15:22:11.526319 31613 net.cpp:91] Creating Layer inception_3b/pool
I0403 15:22:11.526335 31613 net.cpp:425] inception_3b/pool <- inception_3a/output_inception_3a/output_0_split_3
I0403 15:22:11.526358 31613 net.cpp:399] inception_3b/pool -> inception_3b/pool
I0403 15:22:11.526420 31613 net.cpp:141] Setting up inception_3b/pool
I0403 15:22:11.526445 31613 net.cpp:148] Top shape: 24 256 28 28 (4816896)
I0403 15:22:11.526460 31613 net.cpp:156] Memory required for data: 763479072
I0403 15:22:11.526476 31613 layer_factory.hpp:77] Creating layer inception_3b/pool_proj
I0403 15:22:11.526499 31613 net.cpp:91] Creating Layer inception_3b/pool_proj
I0403 15:22:11.526517 31613 net.cpp:425] inception_3b/pool_proj <- inception_3b/pool
I0403 15:22:11.526540 31613 net.cpp:399] inception_3b/pool_proj -> inception_3b/pool_proj
I0403 15:22:11.527622 31613 net.cpp:141] Setting up inception_3b/pool_proj
I0403 15:22:11.527652 31613 net.cpp:148] Top shape: 24 64 28 28 (1204224)
I0403 15:22:11.527668 31613 net.cpp:156] Memory required for data: 768295968
I0403 15:22:11.527688 31613 layer_factory.hpp:77] Creating layer inception_3b/relu_pool_proj
I0403 15:22:11.527710 31613 net.cpp:91] Creating Layer inception_3b/relu_pool_proj
I0403 15:22:11.527729 31613 net.cpp:425] inception_3b/relu_pool_proj <- inception_3b/pool_proj
I0403 15:22:11.527746 31613 net.cpp:386] inception_3b/relu_pool_proj -> inception_3b/pool_proj (in-place)
I0403 15:22:11.528137 31613 net.cpp:141] Setting up inception_3b/relu_pool_proj
I0403 15:22:11.528165 31613 net.cpp:148] Top shape: 24 64 28 28 (1204224)
I0403 15:22:11.528182 31613 net.cpp:156] Memory required for data: 773112864
I0403 15:22:11.528198 31613 layer_factory.hpp:77] Creating layer inception_3b/output
I0403 15:22:11.528219 31613 net.cpp:91] Creating Layer inception_3b/output
I0403 15:22:11.528237 31613 net.cpp:425] inception_3b/output <- inception_3b/1x1
I0403 15:22:11.528270 31613 net.cpp:425] inception_3b/output <- inception_3b/3x3
I0403 15:22:11.528287 31613 net.cpp:425] inception_3b/output <- inception_3b/5x5
I0403 15:22:11.528306 31613 net.cpp:425] inception_3b/output <- inception_3b/pool_proj
I0403 15:22:11.528323 31613 net.cpp:399] inception_3b/output -> inception_3b/output
I0403 15:22:11.528375 31613 net.cpp:141] Setting up inception_3b/output
I0403 15:22:11.528401 31613 net.cpp:148] Top shape: 24 480 28 28 (9031680)
I0403 15:22:11.528417 31613 net.cpp:156] Memory required for data: 809239584
I0403 15:22:11.528432 31613 layer_factory.hpp:77] Creating layer pool3/3x3_s2
I0403 15:22:11.528452 31613 net.cpp:91] Creating Layer pool3/3x3_s2
I0403 15:22:11.528470 31613 net.cpp:425] pool3/3x3_s2 <- inception_3b/output
I0403 15:22:11.528491 31613 net.cpp:399] pool3/3x3_s2 -> pool3/3x3_s2
I0403 15:22:11.528578 31613 net.cpp:141] Setting up pool3/3x3_s2
I0403 15:22:11.528605 31613 net.cpp:148] Top shape: 24 480 14 14 (2257920)
I0403 15:22:11.528622 31613 net.cpp:156] Memory required for data: 818271264
I0403 15:22:11.528637 31613 layer_factory.hpp:77] Creating layer pool3/3x3_s2_pool3/3x3_s2_0_split
I0403 15:22:11.528656 31613 net.cpp:91] Creating Layer pool3/3x3_s2_pool3/3x3_s2_0_split
I0403 15:22:11.528672 31613 net.cpp:425] pool3/3x3_s2_pool3/3x3_s2_0_split <- pool3/3x3_s2
I0403 15:22:11.528690 31613 net.cpp:399] pool3/3x3_s2_pool3/3x3_s2_0_split -> pool3/3x3_s2_pool3/3x3_s2_0_split_0
I0403 15:22:11.528712 31613 net.cpp:399] pool3/3x3_s2_pool3/3x3_s2_0_split -> pool3/3x3_s2_pool3/3x3_s2_0_split_1
I0403 15:22:11.528735 31613 net.cpp:399] pool3/3x3_s2_pool3/3x3_s2_0_split -> pool3/3x3_s2_pool3/3x3_s2_0_split_2
I0403 15:22:11.528755 31613 net.cpp:399] pool3/3x3_s2_pool3/3x3_s2_0_split -> pool3/3x3_s2_pool3/3x3_s2_0_split_3
I0403 15:22:11.528836 31613 net.cpp:141] Setting up pool3/3x3_s2_pool3/3x3_s2_0_split
I0403 15:22:11.528861 31613 net.cpp:148] Top shape: 24 480 14 14 (2257920)
I0403 15:22:11.528877 31613 net.cpp:148] Top shape: 24 480 14 14 (2257920)
I0403 15:22:11.528893 31613 net.cpp:148] Top shape: 24 480 14 14 (2257920)
I0403 15:22:11.528909 31613 net.cpp:148] Top shape: 24 480 14 14 (2257920)
I0403 15:22:11.528924 31613 net.cpp:156] Memory required for data: 854397984
I0403 15:22:11.528940 31613 layer_factory.hpp:77] Creating layer inception_4a/1x1
I0403 15:22:11.528964 31613 net.cpp:91] Creating Layer inception_4a/1x1
I0403 15:22:11.528982 31613 net.cpp:425] inception_4a/1x1 <- pool3/3x3_s2_pool3/3x3_s2_0_split_0
I0403 15:22:11.529001 31613 net.cpp:399] inception_4a/1x1 -> inception_4a/1x1
I0403 15:22:11.530611 31613 net.cpp:141] Setting up inception_4a/1x1
I0403 15:22:11.530642 31613 net.cpp:148] Top shape: 24 192 14 14 (903168)
I0403 15:22:11.530659 31613 net.cpp:156] Memory required for data: 858010656
I0403 15:22:11.530680 31613 layer_factory.hpp:77] Creating layer inception_4a/relu_1x1
I0403 15:22:11.530699 31613 net.cpp:91] Creating Layer inception_4a/relu_1x1
I0403 15:22:11.530716 31613 net.cpp:425] inception_4a/relu_1x1 <- inception_4a/1x1
I0403 15:22:11.530737 31613 net.cpp:386] inception_4a/relu_1x1 -> inception_4a/1x1 (in-place)
I0403 15:22:11.530920 31613 net.cpp:141] Setting up inception_4a/relu_1x1
I0403 15:22:11.530946 31613 net.cpp:148] Top shape: 24 192 14 14 (903168)
I0403 15:22:11.530962 31613 net.cpp:156] Memory required for data: 861623328
I0403 15:22:11.530978 31613 layer_factory.hpp:77] Creating layer inception_4a/3x3_reduce
I0403 15:22:11.531002 31613 net.cpp:91] Creating Layer inception_4a/3x3_reduce
I0403 15:22:11.531020 31613 net.cpp:425] inception_4a/3x3_reduce <- pool3/3x3_s2_pool3/3x3_s2_0_split_1
I0403 15:22:11.531044 31613 net.cpp:399] inception_4a/3x3_reduce -> inception_4a/3x3_reduce
I0403 15:22:11.532348 31613 net.cpp:141] Setting up inception_4a/3x3_reduce
I0403 15:22:11.532380 31613 net.cpp:148] Top shape: 24 96 14 14 (451584)
I0403 15:22:11.532398 31613 net.cpp:156] Memory required for data: 863429664
I0403 15:22:11.532423 31613 layer_factory.hpp:77] Creating layer inception_4a/relu_3x3_reduce
I0403 15:22:11.532445 31613 net.cpp:91] Creating Layer inception_4a/relu_3x3_reduce
I0403 15:22:11.532462 31613 net.cpp:425] inception_4a/relu_3x3_reduce <- inception_4a/3x3_reduce
I0403 15:22:11.532481 31613 net.cpp:386] inception_4a/relu_3x3_reduce -> inception_4a/3x3_reduce (in-place)
I0403 15:22:11.532665 31613 net.cpp:141] Setting up inception_4a/relu_3x3_reduce
I0403 15:22:11.532692 31613 net.cpp:148] Top shape: 24 96 14 14 (451584)
I0403 15:22:11.532708 31613 net.cpp:156] Memory required for data: 865236000
I0403 15:22:11.532724 31613 layer_factory.hpp:77] Creating layer inception_4a/3x3
I0403 15:22:11.532747 31613 net.cpp:91] Creating Layer inception_4a/3x3
I0403 15:22:11.532778 31613 net.cpp:425] inception_4a/3x3 <- inception_4a/3x3_reduce
I0403 15:22:11.532801 31613 net.cpp:399] inception_4a/3x3 -> inception_4a/3x3
I0403 15:22:11.535640 31613 net.cpp:141] Setting up inception_4a/3x3
I0403 15:22:11.535670 31613 net.cpp:148] Top shape: 24 208 14 14 (978432)
I0403 15:22:11.535687 31613 net.cpp:156] Memory required for data: 869149728
I0403 15:22:11.535708 31613 layer_factory.hpp:77] Creating layer inception_4a/relu_3x3
I0403 15:22:11.535728 31613 net.cpp:91] Creating Layer inception_4a/relu_3x3
I0403 15:22:11.535744 31613 net.cpp:425] inception_4a/relu_3x3 <- inception_4a/3x3
I0403 15:22:11.535765 31613 net.cpp:386] inception_4a/relu_3x3 -> inception_4a/3x3 (in-place)
I0403 15:22:11.536052 31613 net.cpp:141] Setting up inception_4a/relu_3x3
I0403 15:22:11.536080 31613 net.cpp:148] Top shape: 24 208 14 14 (978432)
I0403 15:22:11.536097 31613 net.cpp:156] Memory required for data: 873063456
I0403 15:22:11.536113 31613 layer_factory.hpp:77] Creating layer inception_4a/5x5_reduce
I0403 15:22:11.536137 31613 net.cpp:91] Creating Layer inception_4a/5x5_reduce
I0403 15:22:11.536157 31613 net.cpp:425] inception_4a/5x5_reduce <- pool3/3x3_s2_pool3/3x3_s2_0_split_2
I0403 15:22:11.536180 31613 net.cpp:399] inception_4a/5x5_reduce -> inception_4a/5x5_reduce
I0403 15:22:11.537246 31613 net.cpp:141] Setting up inception_4a/5x5_reduce
I0403 15:22:11.537276 31613 net.cpp:148] Top shape: 24 16 14 14 (75264)
I0403 15:22:11.537291 31613 net.cpp:156] Memory required for data: 873364512
I0403 15:22:11.537309 31613 layer_factory.hpp:77] Creating layer inception_4a/relu_5x5_reduce
I0403 15:22:11.537331 31613 net.cpp:91] Creating Layer inception_4a/relu_5x5_reduce
I0403 15:22:11.537353 31613 net.cpp:425] inception_4a/relu_5x5_reduce <- inception_4a/5x5_reduce
I0403 15:22:11.537374 31613 net.cpp:386] inception_4a/relu_5x5_reduce -> inception_4a/5x5_reduce (in-place)
I0403 15:22:11.537559 31613 net.cpp:141] Setting up inception_4a/relu_5x5_reduce
I0403 15:22:11.537586 31613 net.cpp:148] Top shape: 24 16 14 14 (75264)
I0403 15:22:11.537601 31613 net.cpp:156] Memory required for data: 873665568
I0403 15:22:11.537616 31613 layer_factory.hpp:77] Creating layer inception_4a/5x5
I0403 15:22:11.537641 31613 net.cpp:91] Creating Layer inception_4a/5x5
I0403 15:22:11.537659 31613 net.cpp:425] inception_4a/5x5 <- inception_4a/5x5_reduce
I0403 15:22:11.537683 31613 net.cpp:399] inception_4a/5x5 -> inception_4a/5x5
I0403 15:22:11.538815 31613 net.cpp:141] Setting up inception_4a/5x5
I0403 15:22:11.538842 31613 net.cpp:148] Top shape: 24 48 14 14 (225792)
I0403 15:22:11.538858 31613 net.cpp:156] Memory required for data: 874568736
I0403 15:22:11.538877 31613 layer_factory.hpp:77] Creating layer inception_4a/relu_5x5
I0403 15:22:11.538899 31613 net.cpp:91] Creating Layer inception_4a/relu_5x5
I0403 15:22:11.538918 31613 net.cpp:425] inception_4a/relu_5x5 <- inception_4a/5x5
I0403 15:22:11.538935 31613 net.cpp:386] inception_4a/relu_5x5 -> inception_4a/5x5 (in-place)
I0403 15:22:11.539119 31613 net.cpp:141] Setting up inception_4a/relu_5x5
I0403 15:22:11.539146 31613 net.cpp:148] Top shape: 24 48 14 14 (225792)
I0403 15:22:11.539162 31613 net.cpp:156] Memory required for data: 875471904
I0403 15:22:11.539177 31613 layer_factory.hpp:77] Creating layer inception_4a/pool
I0403 15:22:11.539196 31613 net.cpp:91] Creating Layer inception_4a/pool
I0403 15:22:11.539213 31613 net.cpp:425] inception_4a/pool <- pool3/3x3_s2_pool3/3x3_s2_0_split_3
I0403 15:22:11.539233 31613 net.cpp:399] inception_4a/pool -> inception_4a/pool
I0403 15:22:11.539294 31613 net.cpp:141] Setting up inception_4a/pool
I0403 15:22:11.539319 31613 net.cpp:148] Top shape: 24 480 14 14 (2257920)
I0403 15:22:11.539333 31613 net.cpp:156] Memory required for data: 884503584
I0403 15:22:11.539352 31613 layer_factory.hpp:77] Creating layer inception_4a/pool_proj
I0403 15:22:11.539377 31613 net.cpp:91] Creating Layer inception_4a/pool_proj
I0403 15:22:11.539397 31613 net.cpp:425] inception_4a/pool_proj <- inception_4a/pool
I0403 15:22:11.539417 31613 net.cpp:399] inception_4a/pool_proj -> inception_4a/pool_proj
I0403 15:22:11.540576 31613 net.cpp:141] Setting up inception_4a/pool_proj
I0403 15:22:11.540609 31613 net.cpp:148] Top shape: 24 64 14 14 (301056)
I0403 15:22:11.540640 31613 net.cpp:156] Memory required for data: 885707808
I0403 15:22:11.540663 31613 layer_factory.hpp:77] Creating layer inception_4a/relu_pool_proj
I0403 15:22:11.540679 31613 net.cpp:91] Creating Layer inception_4a/relu_pool_proj
I0403 15:22:11.540696 31613 net.cpp:425] inception_4a/relu_pool_proj <- inception_4a/pool_proj
I0403 15:22:11.540714 31613 net.cpp:386] inception_4a/relu_pool_proj -> inception_4a/pool_proj (in-place)
I0403 15:22:11.540993 31613 net.cpp:141] Setting up inception_4a/relu_pool_proj
I0403 15:22:11.541023 31613 net.cpp:148] Top shape: 24 64 14 14 (301056)
I0403 15:22:11.541039 31613 net.cpp:156] Memory required for data: 886912032
I0403 15:22:11.541056 31613 layer_factory.hpp:77] Creating layer inception_4a/output
I0403 15:22:11.541074 31613 net.cpp:91] Creating Layer inception_4a/output
I0403 15:22:11.541090 31613 net.cpp:425] inception_4a/output <- inception_4a/1x1
I0403 15:22:11.541106 31613 net.cpp:425] inception_4a/output <- inception_4a/3x3
I0403 15:22:11.541122 31613 net.cpp:425] inception_4a/output <- inception_4a/5x5
I0403 15:22:11.541139 31613 net.cpp:425] inception_4a/output <- inception_4a/pool_proj
I0403 15:22:11.541157 31613 net.cpp:399] inception_4a/output -> inception_4a/output
I0403 15:22:11.541203 31613 net.cpp:141] Setting up inception_4a/output
I0403 15:22:11.541226 31613 net.cpp:148] Top shape: 24 512 14 14 (2408448)
I0403 15:22:11.541241 31613 net.cpp:156] Memory required for data: 896545824
I0403 15:22:11.541256 31613 layer_factory.hpp:77] Creating layer inception_4a/output_inception_4a/output_0_split
I0403 15:22:11.541277 31613 net.cpp:91] Creating Layer inception_4a/output_inception_4a/output_0_split
I0403 15:22:11.541295 31613 net.cpp:425] inception_4a/output_inception_4a/output_0_split <- inception_4a/output
I0403 15:22:11.541312 31613 net.cpp:399] inception_4a/output_inception_4a/output_0_split -> inception_4a/output_inception_4a/output_0_split_0
I0403 15:22:11.541332 31613 net.cpp:399] inception_4a/output_inception_4a/output_0_split -> inception_4a/output_inception_4a/output_0_split_1
I0403 15:22:11.541357 31613 net.cpp:399] inception_4a/output_inception_4a/output_0_split -> inception_4a/output_inception_4a/output_0_split_2
I0403 15:22:11.541380 31613 net.cpp:399] inception_4a/output_inception_4a/output_0_split -> inception_4a/output_inception_4a/output_0_split_3
I0403 15:22:11.541404 31613 net.cpp:399] inception_4a/output_inception_4a/output_0_split -> inception_4a/output_inception_4a/output_0_split_4
I0403 15:22:11.541502 31613 net.cpp:141] Setting up inception_4a/output_inception_4a/output_0_split
I0403 15:22:11.541527 31613 net.cpp:148] Top shape: 24 512 14 14 (2408448)
I0403 15:22:11.541543 31613 net.cpp:148] Top shape: 24 512 14 14 (2408448)
I0403 15:22:11.541559 31613 net.cpp:148] Top shape: 24 512 14 14 (2408448)
I0403 15:22:11.541576 31613 net.cpp:148] Top shape: 24 512 14 14 (2408448)
I0403 15:22:11.541592 31613 net.cpp:148] Top shape: 24 512 14 14 (2408448)
I0403 15:22:11.541607 31613 net.cpp:156] Memory required for data: 944714784
I0403 15:22:11.541623 31613 layer_factory.hpp:77] Creating layer loss1/ave_pool
I0403 15:22:11.541640 31613 net.cpp:91] Creating Layer loss1/ave_pool
I0403 15:22:11.541659 31613 net.cpp:425] loss1/ave_pool <- inception_4a/output_inception_4a/output_0_split_0
I0403 15:22:11.541677 31613 net.cpp:399] loss1/ave_pool -> loss1/ave_pool
I0403 15:22:11.541882 31613 net.cpp:141] Setting up loss1/ave_pool
I0403 15:22:11.541910 31613 net.cpp:148] Top shape: 24 512 4 4 (196608)
I0403 15:22:11.541928 31613 net.cpp:156] Memory required for data: 945501216
I0403 15:22:11.541944 31613 layer_factory.hpp:77] Creating layer loss1/conv
I0403 15:22:11.541966 31613 net.cpp:91] Creating Layer loss1/conv
I0403 15:22:11.541985 31613 net.cpp:425] loss1/conv <- loss1/ave_pool
I0403 15:22:11.542002 31613 net.cpp:399] loss1/conv -> loss1/conv
I0403 15:22:11.543412 31613 net.cpp:141] Setting up loss1/conv
I0403 15:22:11.543440 31613 net.cpp:148] Top shape: 24 128 4 4 (49152)
I0403 15:22:11.543457 31613 net.cpp:156] Memory required for data: 945697824
I0403 15:22:11.543490 31613 layer_factory.hpp:77] Creating layer loss1/relu_conv
I0403 15:22:11.543510 31613 net.cpp:91] Creating Layer loss1/relu_conv
I0403 15:22:11.543527 31613 net.cpp:425] loss1/relu_conv <- loss1/conv
I0403 15:22:11.543546 31613 net.cpp:386] loss1/relu_conv -> loss1/conv (in-place)
I0403 15:22:11.543824 31613 net.cpp:141] Setting up loss1/relu_conv
I0403 15:22:11.543851 31613 net.cpp:148] Top shape: 24 128 4 4 (49152)
I0403 15:22:11.543866 31613 net.cpp:156] Memory required for data: 945894432
I0403 15:22:11.543882 31613 layer_factory.hpp:77] Creating layer loss1/fc
I0403 15:22:11.543906 31613 net.cpp:91] Creating Layer loss1/fc
I0403 15:22:11.543923 31613 net.cpp:425] loss1/fc <- loss1/conv
I0403 15:22:11.543946 31613 net.cpp:399] loss1/fc -> loss1/fc
I0403 15:22:11.561672 31613 net.cpp:141] Setting up loss1/fc
I0403 15:22:11.561705 31613 net.cpp:148] Top shape: 24 1024 (24576)
I0403 15:22:11.561722 31613 net.cpp:156] Memory required for data: 945992736
I0403 15:22:11.561741 31613 layer_factory.hpp:77] Creating layer loss1/relu_fc
I0403 15:22:11.561764 31613 net.cpp:91] Creating Layer loss1/relu_fc
I0403 15:22:11.561781 31613 net.cpp:425] loss1/relu_fc <- loss1/fc
I0403 15:22:11.561800 31613 net.cpp:386] loss1/relu_fc -> loss1/fc (in-place)
I0403 15:22:11.561990 31613 net.cpp:141] Setting up loss1/relu_fc
I0403 15:22:11.562016 31613 net.cpp:148] Top shape: 24 1024 (24576)
I0403 15:22:11.562031 31613 net.cpp:156] Memory required for data: 946091040
I0403 15:22:11.562047 31613 layer_factory.hpp:77] Creating layer loss1/drop_fc
I0403 15:22:11.562073 31613 net.cpp:91] Creating Layer loss1/drop_fc
I0403 15:22:11.562091 31613 net.cpp:425] loss1/drop_fc <- loss1/fc
I0403 15:22:11.562111 31613 net.cpp:386] loss1/drop_fc -> loss1/fc (in-place)
I0403 15:22:11.562161 31613 net.cpp:141] Setting up loss1/drop_fc
I0403 15:22:11.562186 31613 net.cpp:148] Top shape: 24 1024 (24576)
I0403 15:22:11.562201 31613 net.cpp:156] Memory required for data: 946189344
I0403 15:22:11.562216 31613 layer_factory.hpp:77] Creating layer loss1/classifier_plantvillage
I0403 15:22:11.562239 31613 net.cpp:91] Creating Layer loss1/classifier_plantvillage
I0403 15:22:11.562257 31613 net.cpp:425] loss1/classifier_plantvillage <- loss1/fc
I0403 15:22:11.562276 31613 net.cpp:399] loss1/classifier_plantvillage -> loss1/classifier_plantvillage
I0403 15:22:11.563170 31613 net.cpp:141] Setting up loss1/classifier_plantvillage
I0403 15:22:11.563201 31613 net.cpp:148] Top shape: 24 38 (912)
I0403 15:22:11.563218 31613 net.cpp:156] Memory required for data: 946192992
I0403 15:22:11.563237 31613 layer_factory.hpp:77] Creating layer loss1/classifier_plantvillage_loss1/classifier_plantvillage_0_split
I0403 15:22:11.563256 31613 net.cpp:91] Creating Layer loss1/classifier_plantvillage_loss1/classifier_plantvillage_0_split
I0403 15:22:11.563284 31613 net.cpp:425] loss1/classifier_plantvillage_loss1/classifier_plantvillage_0_split <- loss1/classifier_plantvillage
I0403 15:22:11.563304 31613 net.cpp:399] loss1/classifier_plantvillage_loss1/classifier_plantvillage_0_split -> loss1/classifier_plantvillage_loss1/classifier_plantvillage_0_split_0
I0403 15:22:11.563328 31613 net.cpp:399] loss1/classifier_plantvillage_loss1/classifier_plantvillage_0_split -> loss1/classifier_plantvillage_loss1/classifier_plantvillage_0_split_1
I0403 15:22:11.563357 31613 net.cpp:399] loss1/classifier_plantvillage_loss1/classifier_plantvillage_0_split -> loss1/classifier_plantvillage_loss1/classifier_plantvillage_0_split_2
I0403 15:22:11.563429 31613 net.cpp:141] Setting up loss1/classifier_plantvillage_loss1/classifier_plantvillage_0_split
I0403 15:22:11.563453 31613 net.cpp:148] Top shape: 24 38 (912)
I0403 15:22:11.563472 31613 net.cpp:148] Top shape: 24 38 (912)
I0403 15:22:11.563487 31613 net.cpp:148] Top shape: 24 38 (912)
I0403 15:22:11.563501 31613 net.cpp:156] Memory required for data: 946203936
I0403 15:22:11.563515 31613 layer_factory.hpp:77] Creating layer inception_4b/1x1
I0403 15:22:11.563539 31613 net.cpp:91] Creating Layer inception_4b/1x1
I0403 15:22:11.563578 31613 net.cpp:425] inception_4b/1x1 <- inception_4a/output_inception_4a/output_0_split_1
I0403 15:22:11.563601 31613 net.cpp:399] inception_4b/1x1 -> inception_4b/1x1
I0403 15:22:11.565237 31613 net.cpp:141] Setting up inception_4b/1x1
I0403 15:22:11.565268 31613 net.cpp:148] Top shape: 24 160 14 14 (752640)
I0403 15:22:11.565284 31613 net.cpp:156] Memory required for data: 949214496
I0403 15:22:11.565302 31613 layer_factory.hpp:77] Creating layer inception_4b/relu_1x1
I0403 15:22:11.565323 31613 net.cpp:91] Creating Layer inception_4b/relu_1x1
I0403 15:22:11.565340 31613 net.cpp:425] inception_4b/relu_1x1 <- inception_4b/1x1
I0403 15:22:11.565363 31613 net.cpp:386] inception_4b/relu_1x1 -> inception_4b/1x1 (in-place)
I0403 15:22:11.565546 31613 net.cpp:141] Setting up inception_4b/relu_1x1
I0403 15:22:11.565574 31613 net.cpp:148] Top shape: 24 160 14 14 (752640)
I0403 15:22:11.565590 31613 net.cpp:156] Memory required for data: 952225056
I0403 15:22:11.565606 31613 layer_factory.hpp:77] Creating layer inception_4b/3x3_reduce
I0403 15:22:11.565629 31613 net.cpp:91] Creating Layer inception_4b/3x3_reduce
I0403 15:22:11.565649 31613 net.cpp:425] inception_4b/3x3_reduce <- inception_4a/output_inception_4a/output_0_split_2
I0403 15:22:11.565670 31613 net.cpp:399] inception_4b/3x3_reduce -> inception_4b/3x3_reduce
I0403 15:22:11.567023 31613 net.cpp:141] Setting up inception_4b/3x3_reduce
I0403 15:22:11.567051 31613 net.cpp:148] Top shape: 24 112 14 14 (526848)
I0403 15:22:11.567067 31613 net.cpp:156] Memory required for data: 954332448
I0403 15:22:11.567087 31613 layer_factory.hpp:77] Creating layer inception_4b/relu_3x3_reduce
I0403 15:22:11.567108 31613 net.cpp:91] Creating Layer inception_4b/relu_3x3_reduce
I0403 15:22:11.567126 31613 net.cpp:425] inception_4b/relu_3x3_reduce <- inception_4b/3x3_reduce
I0403 15:22:11.567144 31613 net.cpp:386] inception_4b/relu_3x3_reduce -> inception_4b/3x3_reduce (in-place)
I0403 15:22:11.567436 31613 net.cpp:141] Setting up inception_4b/relu_3x3_reduce
I0403 15:22:11.567463 31613 net.cpp:148] Top shape: 24 112 14 14 (526848)
I0403 15:22:11.567481 31613 net.cpp:156] Memory required for data: 956439840
I0403 15:22:11.567497 31613 layer_factory.hpp:77] Creating layer inception_4b/3x3
I0403 15:22:11.567518 31613 net.cpp:91] Creating Layer inception_4b/3x3
I0403 15:22:11.567536 31613 net.cpp:425] inception_4b/3x3 <- inception_4b/3x3_reduce
I0403 15:22:11.567558 31613 net.cpp:399] inception_4b/3x3 -> inception_4b/3x3
I0403 15:22:11.570607 31613 net.cpp:141] Setting up inception_4b/3x3
I0403 15:22:11.570639 31613 net.cpp:148] Top shape: 24 224 14 14 (1053696)
I0403 15:22:11.570657 31613 net.cpp:156] Memory required for data: 960654624
I0403 15:22:11.570677 31613 layer_factory.hpp:77] Creating layer inception_4b/relu_3x3
I0403 15:22:11.570696 31613 net.cpp:91] Creating Layer inception_4b/relu_3x3
I0403 15:22:11.570714 31613 net.cpp:425] inception_4b/relu_3x3 <- inception_4b/3x3
I0403 15:22:11.570735 31613 net.cpp:386] inception_4b/relu_3x3 -> inception_4b/3x3 (in-place)
I0403 15:22:11.570940 31613 net.cpp:141] Setting up inception_4b/relu_3x3
I0403 15:22:11.570968 31613 net.cpp:148] Top shape: 24 224 14 14 (1053696)
I0403 15:22:11.570984 31613 net.cpp:156] Memory required for data: 964869408
I0403 15:22:11.570999 31613 layer_factory.hpp:77] Creating layer inception_4b/5x5_reduce
I0403 15:22:11.571023 31613 net.cpp:91] Creating Layer inception_4b/5x5_reduce
I0403 15:22:11.571043 31613 net.cpp:425] inception_4b/5x5_reduce <- inception_4a/output_inception_4a/output_0_split_3
I0403 15:22:11.571068 31613 net.cpp:399] inception_4b/5x5_reduce -> inception_4b/5x5_reduce
I0403 15:22:11.572235 31613 net.cpp:141] Setting up inception_4b/5x5_reduce
I0403 15:22:11.572266 31613 net.cpp:148] Top shape: 24 24 14 14 (112896)
I0403 15:22:11.572283 31613 net.cpp:156] Memory required for data: 965320992
I0403 15:22:11.572304 31613 layer_factory.hpp:77] Creating layer inception_4b/relu_5x5_reduce
I0403 15:22:11.572326 31613 net.cpp:91] Creating Layer inception_4b/relu_5x5_reduce
I0403 15:22:11.572365 31613 net.cpp:425] inception_4b/relu_5x5_reduce <- inception_4b/5x5_reduce
I0403 15:22:11.572386 31613 net.cpp:386] inception_4b/relu_5x5_reduce -> inception_4b/5x5_reduce (in-place)
I0403 15:22:11.572579 31613 net.cpp:141] Setting up inception_4b/relu_5x5_reduce
I0403 15:22:11.572608 31613 net.cpp:148] Top shape: 24 24 14 14 (112896)
I0403 15:22:11.572625 31613 net.cpp:156] Memory required for data: 965772576
I0403 15:22:11.572643 31613 layer_factory.hpp:77] Creating layer inception_4b/5x5
I0403 15:22:11.572664 31613 net.cpp:91] Creating Layer inception_4b/5x5
I0403 15:22:11.572684 31613 net.cpp:425] inception_4b/5x5 <- inception_4b/5x5_reduce
I0403 15:22:11.572705 31613 net.cpp:399] inception_4b/5x5 -> inception_4b/5x5
I0403 15:22:11.574014 31613 net.cpp:141] Setting up inception_4b/5x5
I0403 15:22:11.574045 31613 net.cpp:148] Top shape: 24 64 14 14 (301056)
I0403 15:22:11.574064 31613 net.cpp:156] Memory required for data: 966976800
I0403 15:22:11.574084 31613 layer_factory.hpp:77] Creating layer inception_4b/relu_5x5
I0403 15:22:11.574110 31613 net.cpp:91] Creating Layer inception_4b/relu_5x5
I0403 15:22:11.574128 31613 net.cpp:425] inception_4b/relu_5x5 <- inception_4b/5x5
I0403 15:22:11.574147 31613 net.cpp:386] inception_4b/relu_5x5 -> inception_4b/5x5 (in-place)
I0403 15:22:11.574460 31613 net.cpp:141] Setting up inception_4b/relu_5x5
I0403 15:22:11.574489 31613 net.cpp:148] Top shape: 24 64 14 14 (301056)
I0403 15:22:11.574506 31613 net.cpp:156] Memory required for data: 968181024
I0403 15:22:11.574523 31613 layer_factory.hpp:77] Creating layer inception_4b/pool
I0403 15:22:11.574543 31613 net.cpp:91] Creating Layer inception_4b/pool
I0403 15:22:11.574560 31613 net.cpp:425] inception_4b/pool <- inception_4a/output_inception_4a/output_0_split_4
I0403 15:22:11.574582 31613 net.cpp:399] inception_4b/pool -> inception_4b/pool
I0403 15:22:11.574651 31613 net.cpp:141] Setting up inception_4b/pool
I0403 15:22:11.574679 31613 net.cpp:148] Top shape: 24 512 14 14 (2408448)
I0403 15:22:11.574695 31613 net.cpp:156] Memory required for data: 977814816
I0403 15:22:11.574712 31613 layer_factory.hpp:77] Creating layer inception_4b/pool_proj
I0403 15:22:11.574736 31613 net.cpp:91] Creating Layer inception_4b/pool_proj
I0403 15:22:11.574756 31613 net.cpp:425] inception_4b/pool_proj <- inception_4b/pool
I0403 15:22:11.574777 31613 net.cpp:399] inception_4b/pool_proj -> inception_4b/pool_proj
I0403 15:22:11.576053 31613 net.cpp:141] Setting up inception_4b/pool_proj
I0403 15:22:11.576083 31613 net.cpp:148] Top shape: 24 64 14 14 (301056)
I0403 15:22:11.576102 31613 net.cpp:156] Memory required for data: 979019040
I0403 15:22:11.576122 31613 layer_factory.hpp:77] Creating layer inception_4b/relu_pool_proj
I0403 15:22:11.576145 31613 net.cpp:91] Creating Layer inception_4b/relu_pool_proj
I0403 15:22:11.576164 31613 net.cpp:425] inception_4b/relu_pool_proj <- inception_4b/pool_proj
I0403 15:22:11.576182 31613 net.cpp:386] inception_4b/relu_pool_proj -> inception_4b/pool_proj (in-place)
I0403 15:22:11.576385 31613 net.cpp:141] Setting up inception_4b/relu_pool_proj
I0403 15:22:11.576411 31613 net.cpp:148] Top shape: 24 64 14 14 (301056)
I0403 15:22:11.576428 31613 net.cpp:156] Memory required for data: 980223264
I0403 15:22:11.576445 31613 layer_factory.hpp:77] Creating layer inception_4b/output
I0403 15:22:11.576467 31613 net.cpp:91] Creating Layer inception_4b/output
I0403 15:22:11.576484 31613 net.cpp:425] inception_4b/output <- inception_4b/1x1
I0403 15:22:11.576503 31613 net.cpp:425] inception_4b/output <- inception_4b/3x3
I0403 15:22:11.576520 31613 net.cpp:425] inception_4b/output <- inception_4b/5x5
I0403 15:22:11.576539 31613 net.cpp:425] inception_4b/output <- inception_4b/pool_proj
I0403 15:22:11.576556 31613 net.cpp:399] inception_4b/output -> inception_4b/output
I0403 15:22:11.576608 31613 net.cpp:141] Setting up inception_4b/output
I0403 15:22:11.576633 31613 net.cpp:148] Top shape: 24 512 14 14 (2408448)
I0403 15:22:11.576650 31613 net.cpp:156] Memory required for data: 989857056
I0403 15:22:11.576681 31613 layer_factory.hpp:77] Creating layer inception_4b/output_inception_4b/output_0_split
I0403 15:22:11.576702 31613 net.cpp:91] Creating Layer inception_4b/output_inception_4b/output_0_split
I0403 15:22:11.576719 31613 net.cpp:425] inception_4b/output_inception_4b/output_0_split <- inception_4b/output
I0403 15:22:11.576741 31613 net.cpp:399] inception_4b/output_inception_4b/output_0_split -> inception_4b/output_inception_4b/output_0_split_0
I0403 15:22:11.576764 31613 net.cpp:399] inception_4b/output_inception_4b/output_0_split -> inception_4b/output_inception_4b/output_0_split_1
I0403 15:22:11.576787 31613 net.cpp:399] inception_4b/output_inception_4b/output_0_split -> inception_4b/output_inception_4b/output_0_split_2
I0403 15:22:11.576809 31613 net.cpp:399] inception_4b/output_inception_4b/output_0_split -> inception_4b/output_inception_4b/output_0_split_3
I0403 15:22:11.576899 31613 net.cpp:141] Setting up inception_4b/output_inception_4b/output_0_split
I0403 15:22:11.576930 31613 net.cpp:148] Top shape: 24 512 14 14 (2408448)
I0403 15:22:11.576949 31613 net.cpp:148] Top shape: 24 512 14 14 (2408448)
I0403 15:22:11.576967 31613 net.cpp:148] Top shape: 24 512 14 14 (2408448)
I0403 15:22:11.576983 31613 net.cpp:148] Top shape: 24 512 14 14 (2408448)
I0403 15:22:11.576998 31613 net.cpp:156] Memory required for data: 1028392224
I0403 15:22:11.577014 31613 layer_factory.hpp:77] Creating layer inception_4c/1x1
I0403 15:22:11.577039 31613 net.cpp:91] Creating Layer inception_4c/1x1
I0403 15:22:11.577057 31613 net.cpp:425] inception_4c/1x1 <- inception_4b/output_inception_4b/output_0_split_0
I0403 15:22:11.577080 31613 net.cpp:399] inception_4c/1x1 -> inception_4c/1x1
I0403 15:22:11.578609 31613 net.cpp:141] Setting up inception_4c/1x1
I0403 15:22:11.578640 31613 net.cpp:148] Top shape: 24 128 14 14 (602112)
I0403 15:22:11.578663 31613 net.cpp:156] Memory required for data: 1030800672
I0403 15:22:11.578685 31613 layer_factory.hpp:77] Creating layer inception_4c/relu_1x1
I0403 15:22:11.578707 31613 net.cpp:91] Creating Layer inception_4c/relu_1x1
I0403 15:22:11.578727 31613 net.cpp:425] inception_4c/relu_1x1 <- inception_4c/1x1
I0403 15:22:11.578745 31613 net.cpp:386] inception_4c/relu_1x1 -> inception_4c/1x1 (in-place)
I0403 15:22:11.578938 31613 net.cpp:141] Setting up inception_4c/relu_1x1
I0403 15:22:11.578966 31613 net.cpp:148] Top shape: 24 128 14 14 (602112)
I0403 15:22:11.578984 31613 net.cpp:156] Memory required for data: 1033209120
I0403 15:22:11.578999 31613 layer_factory.hpp:77] Creating layer inception_4c/3x3_reduce
I0403 15:22:11.579025 31613 net.cpp:91] Creating Layer inception_4c/3x3_reduce
I0403 15:22:11.579043 31613 net.cpp:425] inception_4c/3x3_reduce <- inception_4b/output_inception_4b/output_0_split_1
I0403 15:22:11.579067 31613 net.cpp:399] inception_4c/3x3_reduce -> inception_4c/3x3_reduce
I0403 15:22:11.581117 31613 net.cpp:141] Setting up inception_4c/3x3_reduce
I0403 15:22:11.581149 31613 net.cpp:148] Top shape: 24 128 14 14 (602112)
I0403 15:22:11.581166 31613 net.cpp:156] Memory required for data: 1035617568
I0403 15:22:11.581185 31613 layer_factory.hpp:77] Creating layer inception_4c/relu_3x3_reduce
I0403 15:22:11.581205 31613 net.cpp:91] Creating Layer inception_4c/relu_3x3_reduce
I0403 15:22:11.581223 31613 net.cpp:425] inception_4c/relu_3x3_reduce <- inception_4c/3x3_reduce
I0403 15:22:11.581245 31613 net.cpp:386] inception_4c/relu_3x3_reduce -> inception_4c/3x3_reduce (in-place)
I0403 15:22:11.581557 31613 net.cpp:141] Setting up inception_4c/relu_3x3_reduce
I0403 15:22:11.581586 31613 net.cpp:148] Top shape: 24 128 14 14 (602112)
I0403 15:22:11.581604 31613 net.cpp:156] Memory required for data: 1038026016
I0403 15:22:11.581619 31613 layer_factory.hpp:77] Creating layer inception_4c/3x3
I0403 15:22:11.581645 31613 net.cpp:91] Creating Layer inception_4c/3x3
I0403 15:22:11.581665 31613 net.cpp:425] inception_4c/3x3 <- inception_4c/3x3_reduce
I0403 15:22:11.581689 31613 net.cpp:399] inception_4c/3x3 -> inception_4c/3x3
I0403 15:22:11.585515 31613 net.cpp:141] Setting up inception_4c/3x3
I0403 15:22:11.585559 31613 net.cpp:148] Top shape: 24 256 14 14 (1204224)
I0403 15:22:11.585578 31613 net.cpp:156] Memory required for data: 1042842912
I0403 15:22:11.585614 31613 layer_factory.hpp:77] Creating layer inception_4c/relu_3x3
I0403 15:22:11.585639 31613 net.cpp:91] Creating Layer inception_4c/relu_3x3
I0403 15:22:11.585659 31613 net.cpp:425] inception_4c/relu_3x3 <- inception_4c/3x3
I0403 15:22:11.585677 31613 net.cpp:386] inception_4c/relu_3x3 -> inception_4c/3x3 (in-place)
I0403 15:22:11.585875 31613 net.cpp:141] Setting up inception_4c/relu_3x3
I0403 15:22:11.585903 31613 net.cpp:148] Top shape: 24 256 14 14 (1204224)
I0403 15:22:11.585919 31613 net.cpp:156] Memory required for data: 1047659808
I0403 15:22:11.585935 31613 layer_factory.hpp:77] Creating layer inception_4c/5x5_reduce
I0403 15:22:11.585960 31613 net.cpp:91] Creating Layer inception_4c/5x5_reduce
I0403 15:22:11.585981 31613 net.cpp:425] inception_4c/5x5_reduce <- inception_4b/output_inception_4b/output_0_split_2
I0403 15:22:11.586005 31613 net.cpp:399] inception_4c/5x5_reduce -> inception_4c/5x5_reduce
I0403 15:22:11.587167 31613 net.cpp:141] Setting up inception_4c/5x5_reduce
I0403 15:22:11.587196 31613 net.cpp:148] Top shape: 24 24 14 14 (112896)
I0403 15:22:11.587213 31613 net.cpp:156] Memory required for data: 1048111392
I0403 15:22:11.587234 31613 layer_factory.hpp:77] Creating layer inception_4c/relu_5x5_reduce
I0403 15:22:11.587255 31613 net.cpp:91] Creating Layer inception_4c/relu_5x5_reduce
I0403 15:22:11.587275 31613 net.cpp:425] inception_4c/relu_5x5_reduce <- inception_4c/5x5_reduce
I0403 15:22:11.587296 31613 net.cpp:386] inception_4c/relu_5x5_reduce -> inception_4c/5x5_reduce (in-place)
I0403 15:22:11.587494 31613 net.cpp:141] Setting up inception_4c/relu_5x5_reduce
I0403 15:22:11.587522 31613 net.cpp:148] Top shape: 24 24 14 14 (112896)
I0403 15:22:11.587540 31613 net.cpp:156] Memory required for data: 1048562976
I0403 15:22:11.587558 31613 layer_factory.hpp:77] Creating layer inception_4c/5x5
I0403 15:22:11.587579 31613 net.cpp:91] Creating Layer inception_4c/5x5
I0403 15:22:11.587597 31613 net.cpp:425] inception_4c/5x5 <- inception_4c/5x5_reduce
I0403 15:22:11.587621 31613 net.cpp:399] inception_4c/5x5 -> inception_4c/5x5
I0403 15:22:11.588929 31613 net.cpp:141] Setting up inception_4c/5x5
I0403 15:22:11.588958 31613 net.cpp:148] Top shape: 24 64 14 14 (301056)
I0403 15:22:11.588975 31613 net.cpp:156] Memory required for data: 1049767200
I0403 15:22:11.588994 31613 layer_factory.hpp:77] Creating layer inception_4c/relu_5x5
I0403 15:22:11.589016 31613 net.cpp:91] Creating Layer inception_4c/relu_5x5
I0403 15:22:11.589035 31613 net.cpp:425] inception_4c/relu_5x5 <- inception_4c/5x5
I0403 15:22:11.589054 31613 net.cpp:386] inception_4c/relu_5x5 -> inception_4c/5x5 (in-place)
I0403 15:22:11.589355 31613 net.cpp:141] Setting up inception_4c/relu_5x5
I0403 15:22:11.589383 31613 net.cpp:148] Top shape: 24 64 14 14 (301056)
I0403 15:22:11.589400 31613 net.cpp:156] Memory required for data: 1050971424
I0403 15:22:11.589414 31613 layer_factory.hpp:77] Creating layer inception_4c/pool
I0403 15:22:11.589437 31613 net.cpp:91] Creating Layer inception_4c/pool
I0403 15:22:11.589457 31613 net.cpp:425] inception_4c/pool <- inception_4b/output_inception_4b/output_0_split_3
I0403 15:22:11.589475 31613 net.cpp:399] inception_4c/pool -> inception_4c/pool
I0403 15:22:11.589545 31613 net.cpp:141] Setting up inception_4c/pool
I0403 15:22:11.589573 31613 net.cpp:148] Top shape: 24 512 14 14 (2408448)
I0403 15:22:11.589588 31613 net.cpp:156] Memory required for data: 1060605216
I0403 15:22:11.589604 31613 layer_factory.hpp:77] Creating layer inception_4c/pool_proj
I0403 15:22:11.589628 31613 net.cpp:91] Creating Layer inception_4c/pool_proj
I0403 15:22:11.589648 31613 net.cpp:425] inception_4c/pool_proj <- inception_4c/pool
I0403 15:22:11.589668 31613 net.cpp:399] inception_4c/pool_proj -> inception_4c/pool_proj
I0403 15:22:11.590931 31613 net.cpp:141] Setting up inception_4c/pool_proj
I0403 15:22:11.590961 31613 net.cpp:148] Top shape: 24 64 14 14 (301056)
I0403 15:22:11.590993 31613 net.cpp:156] Memory required for data: 1061809440
I0403 15:22:11.591014 31613 layer_factory.hpp:77] Creating layer inception_4c/relu_pool_proj
I0403 15:22:11.591037 31613 net.cpp:91] Creating Layer inception_4c/relu_pool_proj
I0403 15:22:11.591056 31613 net.cpp:425] inception_4c/relu_pool_proj <- inception_4c/pool_proj
I0403 15:22:11.591074 31613 net.cpp:386] inception_4c/relu_pool_proj -> inception_4c/pool_proj (in-place)
I0403 15:22:11.591262 31613 net.cpp:141] Setting up inception_4c/relu_pool_proj
I0403 15:22:11.591289 31613 net.cpp:148] Top shape: 24 64 14 14 (301056)
I0403 15:22:11.591305 31613 net.cpp:156] Memory required for data: 1063013664
I0403 15:22:11.591320 31613 layer_factory.hpp:77] Creating layer inception_4c/output
I0403 15:22:11.591341 31613 net.cpp:91] Creating Layer inception_4c/output
I0403 15:22:11.591364 31613 net.cpp:425] inception_4c/output <- inception_4c/1x1
I0403 15:22:11.591382 31613 net.cpp:425] inception_4c/output <- inception_4c/3x3
I0403 15:22:11.591399 31613 net.cpp:425] inception_4c/output <- inception_4c/5x5
I0403 15:22:11.591416 31613 net.cpp:425] inception_4c/output <- inception_4c/pool_proj
I0403 15:22:11.591434 31613 net.cpp:399] inception_4c/output -> inception_4c/output
I0403 15:22:11.591486 31613 net.cpp:141] Setting up inception_4c/output
I0403 15:22:11.591511 31613 net.cpp:148] Top shape: 24 512 14 14 (2408448)
I0403 15:22:11.591526 31613 net.cpp:156] Memory required for data: 1072647456
I0403 15:22:11.591542 31613 layer_factory.hpp:77] Creating layer inception_4c/output_inception_4c/output_0_split
I0403 15:22:11.591559 31613 net.cpp:91] Creating Layer inception_4c/output_inception_4c/output_0_split
I0403 15:22:11.591578 31613 net.cpp:425] inception_4c/output_inception_4c/output_0_split <- inception_4c/output
I0403 15:22:11.591598 31613 net.cpp:399] inception_4c/output_inception_4c/output_0_split -> inception_4c/output_inception_4c/output_0_split_0
I0403 15:22:11.591620 31613 net.cpp:399] inception_4c/output_inception_4c/output_0_split -> inception_4c/output_inception_4c/output_0_split_1
I0403 15:22:11.591641 31613 net.cpp:399] inception_4c/output_inception_4c/output_0_split -> inception_4c/output_inception_4c/output_0_split_2
I0403 15:22:11.591661 31613 net.cpp:399] inception_4c/output_inception_4c/output_0_split -> inception_4c/output_inception_4c/output_0_split_3
I0403 15:22:11.591752 31613 net.cpp:141] Setting up inception_4c/output_inception_4c/output_0_split
I0403 15:22:11.591778 31613 net.cpp:148] Top shape: 24 512 14 14 (2408448)
I0403 15:22:11.591797 31613 net.cpp:148] Top shape: 24 512 14 14 (2408448)
I0403 15:22:11.591814 31613 net.cpp:148] Top shape: 24 512 14 14 (2408448)
I0403 15:22:11.591831 31613 net.cpp:148] Top shape: 24 512 14 14 (2408448)
I0403 15:22:11.591846 31613 net.cpp:156] Memory required for data: 1111182624
I0403 15:22:11.591861 31613 layer_factory.hpp:77] Creating layer inception_4d/1x1
I0403 15:22:11.591884 31613 net.cpp:91] Creating Layer inception_4d/1x1
I0403 15:22:11.591903 31613 net.cpp:425] inception_4d/1x1 <- inception_4c/output_inception_4c/output_0_split_0
I0403 15:22:11.591922 31613 net.cpp:399] inception_4d/1x1 -> inception_4d/1x1
I0403 15:22:11.593358 31613 net.cpp:141] Setting up inception_4d/1x1
I0403 15:22:11.593390 31613 net.cpp:148] Top shape: 24 112 14 14 (526848)
I0403 15:22:11.593408 31613 net.cpp:156] Memory required for data: 1113290016
I0403 15:22:11.593427 31613 layer_factory.hpp:77] Creating layer inception_4d/relu_1x1
I0403 15:22:11.593446 31613 net.cpp:91] Creating Layer inception_4d/relu_1x1
I0403 15:22:11.593463 31613 net.cpp:425] inception_4d/relu_1x1 <- inception_4d/1x1
I0403 15:22:11.593483 31613 net.cpp:386] inception_4d/relu_1x1 -> inception_4d/1x1 (in-place)
I0403 15:22:11.593677 31613 net.cpp:141] Setting up inception_4d/relu_1x1
I0403 15:22:11.593703 31613 net.cpp:148] Top shape: 24 112 14 14 (526848)
I0403 15:22:11.593719 31613 net.cpp:156] Memory required for data: 1115397408
I0403 15:22:11.593735 31613 layer_factory.hpp:77] Creating layer inception_4d/3x3_reduce
I0403 15:22:11.593775 31613 net.cpp:91] Creating Layer inception_4d/3x3_reduce
I0403 15:22:11.593793 31613 net.cpp:425] inception_4d/3x3_reduce <- inception_4c/output_inception_4c/output_0_split_1
I0403 15:22:11.593816 31613 net.cpp:399] inception_4d/3x3_reduce -> inception_4d/3x3_reduce
I0403 15:22:11.595394 31613 net.cpp:141] Setting up inception_4d/3x3_reduce
I0403 15:22:11.595425 31613 net.cpp:148] Top shape: 24 144 14 14 (677376)
I0403 15:22:11.595444 31613 net.cpp:156] Memory required for data: 1118106912
I0403 15:22:11.595465 31613 layer_factory.hpp:77] Creating layer inception_4d/relu_3x3_reduce
I0403 15:22:11.595484 31613 net.cpp:91] Creating Layer inception_4d/relu_3x3_reduce
I0403 15:22:11.595500 31613 net.cpp:425] inception_4d/relu_3x3_reduce <- inception_4d/3x3_reduce
I0403 15:22:11.595518 31613 net.cpp:386] inception_4d/relu_3x3_reduce -> inception_4d/3x3_reduce (in-place)
I0403 15:22:11.595821 31613 net.cpp:141] Setting up inception_4d/relu_3x3_reduce
I0403 15:22:11.595851 31613 net.cpp:148] Top shape: 24 144 14 14 (677376)
I0403 15:22:11.595870 31613 net.cpp:156] Memory required for data: 1120816416
I0403 15:22:11.595887 31613 layer_factory.hpp:77] Creating layer inception_4d/3x3
I0403 15:22:11.595911 31613 net.cpp:91] Creating Layer inception_4d/3x3
I0403 15:22:11.595929 31613 net.cpp:425] inception_4d/3x3 <- inception_4d/3x3_reduce
I0403 15:22:11.595949 31613 net.cpp:399] inception_4d/3x3 -> inception_4d/3x3
I0403 15:22:11.600327 31613 net.cpp:141] Setting up inception_4d/3x3
I0403 15:22:11.600363 31613 net.cpp:148] Top shape: 24 288 14 14 (1354752)
I0403 15:22:11.600380 31613 net.cpp:156] Memory required for data: 1126235424
I0403 15:22:11.600399 31613 layer_factory.hpp:77] Creating layer inception_4d/relu_3x3
I0403 15:22:11.600419 31613 net.cpp:91] Creating Layer inception_4d/relu_3x3
I0403 15:22:11.600435 31613 net.cpp:425] inception_4d/relu_3x3 <- inception_4d/3x3
I0403 15:22:11.600456 31613 net.cpp:386] inception_4d/relu_3x3 -> inception_4d/3x3 (in-place)
I0403 15:22:11.600646 31613 net.cpp:141] Setting up inception_4d/relu_3x3
I0403 15:22:11.600673 31613 net.cpp:148] Top shape: 24 288 14 14 (1354752)
I0403 15:22:11.600688 31613 net.cpp:156] Memory required for data: 1131654432
I0403 15:22:11.600704 31613 layer_factory.hpp:77] Creating layer inception_4d/5x5_reduce
I0403 15:22:11.600728 31613 net.cpp:91] Creating Layer inception_4d/5x5_reduce
I0403 15:22:11.600747 31613 net.cpp:425] inception_4d/5x5_reduce <- inception_4c/output_inception_4c/output_0_split_2
I0403 15:22:11.600769 31613 net.cpp:399] inception_4d/5x5_reduce -> inception_4d/5x5_reduce
I0403 15:22:11.601958 31613 net.cpp:141] Setting up inception_4d/5x5_reduce
I0403 15:22:11.601989 31613 net.cpp:148] Top shape: 24 32 14 14 (150528)
I0403 15:22:11.602007 31613 net.cpp:156] Memory required for data: 1132256544
I0403 15:22:11.602026 31613 layer_factory.hpp:77] Creating layer inception_4d/relu_5x5_reduce
I0403 15:22:11.602047 31613 net.cpp:91] Creating Layer inception_4d/relu_5x5_reduce
I0403 15:22:11.602066 31613 net.cpp:425] inception_4d/relu_5x5_reduce <- inception_4d/5x5_reduce
I0403 15:22:11.602087 31613 net.cpp:386] inception_4d/relu_5x5_reduce -> inception_4d/5x5_reduce (in-place)
I0403 15:22:11.602280 31613 net.cpp:141] Setting up inception_4d/relu_5x5_reduce
I0403 15:22:11.602308 31613 net.cpp:148] Top shape: 24 32 14 14 (150528)
I0403 15:22:11.602324 31613 net.cpp:156] Memory required for data: 1132858656
I0403 15:22:11.602339 31613 layer_factory.hpp:77] Creating layer inception_4d/5x5
I0403 15:22:11.602380 31613 net.cpp:91] Creating Layer inception_4d/5x5
I0403 15:22:11.602399 31613 net.cpp:425] inception_4d/5x5 <- inception_4d/5x5_reduce
I0403 15:22:11.602421 31613 net.cpp:399] inception_4d/5x5 -> inception_4d/5x5
I0403 15:22:11.603943 31613 net.cpp:141] Setting up inception_4d/5x5
I0403 15:22:11.603973 31613 net.cpp:148] Top shape: 24 64 14 14 (301056)
I0403 15:22:11.603991 31613 net.cpp:156] Memory required for data: 1134062880
I0403 15:22:11.604010 31613 layer_factory.hpp:77] Creating layer inception_4d/relu_5x5
I0403 15:22:11.604048 31613 net.cpp:91] Creating Layer inception_4d/relu_5x5
I0403 15:22:11.604068 31613 net.cpp:425] inception_4d/relu_5x5 <- inception_4d/5x5
I0403 15:22:11.604086 31613 net.cpp:386] inception_4d/relu_5x5 -> inception_4d/5x5 (in-place)
I0403 15:22:11.604406 31613 net.cpp:141] Setting up inception_4d/relu_5x5
I0403 15:22:11.604434 31613 net.cpp:148] Top shape: 24 64 14 14 (301056)
I0403 15:22:11.604450 31613 net.cpp:156] Memory required for data: 1135267104
I0403 15:22:11.604466 31613 layer_factory.hpp:77] Creating layer inception_4d/pool
I0403 15:22:11.604488 31613 net.cpp:91] Creating Layer inception_4d/pool
I0403 15:22:11.604507 31613 net.cpp:425] inception_4d/pool <- inception_4c/output_inception_4c/output_0_split_3
I0403 15:22:11.604527 31613 net.cpp:399] inception_4d/pool -> inception_4d/pool
I0403 15:22:11.604598 31613 net.cpp:141] Setting up inception_4d/pool
I0403 15:22:11.604622 31613 net.cpp:148] Top shape: 24 512 14 14 (2408448)
I0403 15:22:11.604638 31613 net.cpp:156] Memory required for data: 1144900896
I0403 15:22:11.604655 31613 layer_factory.hpp:77] Creating layer inception_4d/pool_proj
I0403 15:22:11.604677 31613 net.cpp:91] Creating Layer inception_4d/pool_proj
I0403 15:22:11.604697 31613 net.cpp:425] inception_4d/pool_proj <- inception_4d/pool
I0403 15:22:11.604720 31613 net.cpp:399] inception_4d/pool_proj -> inception_4d/pool_proj
I0403 15:22:11.606531 31613 net.cpp:141] Setting up inception_4d/pool_proj
I0403 15:22:11.606561 31613 net.cpp:148] Top shape: 24 64 14 14 (301056)
I0403 15:22:11.606578 31613 net.cpp:156] Memory required for data: 1146105120
I0403 15:22:11.606597 31613 layer_factory.hpp:77] Creating layer inception_4d/relu_pool_proj
I0403 15:22:11.606616 31613 net.cpp:91] Creating Layer inception_4d/relu_pool_proj
I0403 15:22:11.606636 31613 net.cpp:425] inception_4d/relu_pool_proj <- inception_4d/pool_proj
I0403 15:22:11.606664 31613 net.cpp:386] inception_4d/relu_pool_proj -> inception_4d/pool_proj (in-place)
I0403 15:22:11.606856 31613 net.cpp:141] Setting up inception_4d/relu_pool_proj
I0403 15:22:11.606884 31613 net.cpp:148] Top shape: 24 64 14 14 (301056)
I0403 15:22:11.606899 31613 net.cpp:156] Memory required for data: 1147309344
I0403 15:22:11.606914 31613 layer_factory.hpp:77] Creating layer inception_4d/output
I0403 15:22:11.606935 31613 net.cpp:91] Creating Layer inception_4d/output
I0403 15:22:11.606951 31613 net.cpp:425] inception_4d/output <- inception_4d/1x1
I0403 15:22:11.606971 31613 net.cpp:425] inception_4d/output <- inception_4d/3x3
I0403 15:22:11.606987 31613 net.cpp:425] inception_4d/output <- inception_4d/5x5
I0403 15:22:11.607004 31613 net.cpp:425] inception_4d/output <- inception_4d/pool_proj
I0403 15:22:11.607022 31613 net.cpp:399] inception_4d/output -> inception_4d/output
I0403 15:22:11.607071 31613 net.cpp:141] Setting up inception_4d/output
I0403 15:22:11.607100 31613 net.cpp:148] Top shape: 24 528 14 14 (2483712)
I0403 15:22:11.607116 31613 net.cpp:156] Memory required for data: 1157244192
I0403 15:22:11.607132 31613 layer_factory.hpp:77] Creating layer inception_4d/output_inception_4d/output_0_split
I0403 15:22:11.607151 31613 net.cpp:91] Creating Layer inception_4d/output_inception_4d/output_0_split
I0403 15:22:11.607167 31613 net.cpp:425] inception_4d/output_inception_4d/output_0_split <- inception_4d/output
I0403 15:22:11.607187 31613 net.cpp:399] inception_4d/output_inception_4d/output_0_split -> inception_4d/output_inception_4d/output_0_split_0
I0403 15:22:11.607210 31613 net.cpp:399] inception_4d/output_inception_4d/output_0_split -> inception_4d/output_inception_4d/output_0_split_1
I0403 15:22:11.607233 31613 net.cpp:399] inception_4d/output_inception_4d/output_0_split -> inception_4d/output_inception_4d/output_0_split_2
I0403 15:22:11.607254 31613 net.cpp:399] inception_4d/output_inception_4d/output_0_split -> inception_4d/output_inception_4d/output_0_split_3
I0403 15:22:11.607275 31613 net.cpp:399] inception_4d/output_inception_4d/output_0_split -> inception_4d/output_inception_4d/output_0_split_4
I0403 15:22:11.607388 31613 net.cpp:141] Setting up inception_4d/output_inception_4d/output_0_split
I0403 15:22:11.607426 31613 net.cpp:148] Top shape: 24 528 14 14 (2483712)
I0403 15:22:11.607446 31613 net.cpp:148] Top shape: 24 528 14 14 (2483712)
I0403 15:22:11.607465 31613 net.cpp:148] Top shape: 24 528 14 14 (2483712)
I0403 15:22:11.607483 31613 net.cpp:148] Top shape: 24 528 14 14 (2483712)
I0403 15:22:11.607501 31613 net.cpp:148] Top shape: 24 528 14 14 (2483712)
I0403 15:22:11.607514 31613 net.cpp:156] Memory required for data: 1206918432
I0403 15:22:11.607530 31613 layer_factory.hpp:77] Creating layer loss2/ave_pool
I0403 15:22:11.607548 31613 net.cpp:91] Creating Layer loss2/ave_pool
I0403 15:22:11.607566 31613 net.cpp:425] loss2/ave_pool <- inception_4d/output_inception_4d/output_0_split_0
I0403 15:22:11.607589 31613 net.cpp:399] loss2/ave_pool -> loss2/ave_pool
I0403 15:22:11.607918 31613 net.cpp:141] Setting up loss2/ave_pool
I0403 15:22:11.607945 31613 net.cpp:148] Top shape: 24 528 4 4 (202752)
I0403 15:22:11.607962 31613 net.cpp:156] Memory required for data: 1207729440
I0403 15:22:11.607978 31613 layer_factory.hpp:77] Creating layer loss2/conv
I0403 15:22:11.608002 31613 net.cpp:91] Creating Layer loss2/conv
I0403 15:22:11.608022 31613 net.cpp:425] loss2/conv <- loss2/ave_pool
I0403 15:22:11.608044 31613 net.cpp:399] loss2/conv -> loss2/conv
I0403 15:22:11.610080 31613 net.cpp:141] Setting up loss2/conv
I0403 15:22:11.610110 31613 net.cpp:148] Top shape: 24 128 4 4 (49152)
I0403 15:22:11.610127 31613 net.cpp:156] Memory required for data: 1207926048
I0403 15:22:11.610148 31613 layer_factory.hpp:77] Creating layer loss2/relu_conv
I0403 15:22:11.610172 31613 net.cpp:91] Creating Layer loss2/relu_conv
I0403 15:22:11.610190 31613 net.cpp:425] loss2/relu_conv <- loss2/conv
I0403 15:22:11.610209 31613 net.cpp:386] loss2/relu_conv -> loss2/conv (in-place)
I0403 15:22:11.610519 31613 net.cpp:141] Setting up loss2/relu_conv
I0403 15:22:11.610548 31613 net.cpp:148] Top shape: 24 128 4 4 (49152)
I0403 15:22:11.610565 31613 net.cpp:156] Memory required for data: 1208122656
I0403 15:22:11.610581 31613 layer_factory.hpp:77] Creating layer loss2/fc
I0403 15:22:11.610605 31613 net.cpp:91] Creating Layer loss2/fc
I0403 15:22:11.610623 31613 net.cpp:425] loss2/fc <- loss2/conv
I0403 15:22:11.610644 31613 net.cpp:399] loss2/fc -> loss2/fc
I0403 15:22:11.629135 31613 net.cpp:141] Setting up loss2/fc
I0403 15:22:11.629179 31613 net.cpp:148] Top shape: 24 1024 (24576)
I0403 15:22:11.629196 31613 net.cpp:156] Memory required for data: 1208220960
I0403 15:22:11.629215 31613 layer_factory.hpp:77] Creating layer loss2/relu_fc
I0403 15:22:11.629235 31613 net.cpp:91] Creating Layer loss2/relu_fc
I0403 15:22:11.629252 31613 net.cpp:425] loss2/relu_fc <- loss2/fc
I0403 15:22:11.629274 31613 net.cpp:386] loss2/relu_fc -> loss2/fc (in-place)
I0403 15:22:11.629595 31613 net.cpp:141] Setting up loss2/relu_fc
I0403 15:22:11.629623 31613 net.cpp:148] Top shape: 24 1024 (24576)
I0403 15:22:11.629639 31613 net.cpp:156] Memory required for data: 1208319264
I0403 15:22:11.629654 31613 layer_factory.hpp:77] Creating layer loss2/drop_fc
I0403 15:22:11.629674 31613 net.cpp:91] Creating Layer loss2/drop_fc
I0403 15:22:11.629690 31613 net.cpp:425] loss2/drop_fc <- loss2/fc
I0403 15:22:11.629710 31613 net.cpp:386] loss2/drop_fc -> loss2/fc (in-place)
I0403 15:22:11.629760 31613 net.cpp:141] Setting up loss2/drop_fc
I0403 15:22:11.629787 31613 net.cpp:148] Top shape: 24 1024 (24576)
I0403 15:22:11.629804 31613 net.cpp:156] Memory required for data: 1208417568
I0403 15:22:11.629820 31613 layer_factory.hpp:77] Creating layer loss2/classifier_plantvillage
I0403 15:22:11.629839 31613 net.cpp:91] Creating Layer loss2/classifier_plantvillage
I0403 15:22:11.629856 31613 net.cpp:425] loss2/classifier_plantvillage <- loss2/fc
I0403 15:22:11.629876 31613 net.cpp:399] loss2/classifier_plantvillage -> loss2/classifier_plantvillage
I0403 15:22:11.630282 31613 net.cpp:141] Setting up loss2/classifier_plantvillage
I0403 15:22:11.630311 31613 net.cpp:148] Top shape: 24 38 (912)
I0403 15:22:11.630326 31613 net.cpp:156] Memory required for data: 1208421216
I0403 15:22:11.630384 31613 layer_factory.hpp:77] Creating layer loss2/classifier_plantvillage_loss2/classifier_plantvillage_0_split
I0403 15:22:11.630405 31613 net.cpp:91] Creating Layer loss2/classifier_plantvillage_loss2/classifier_plantvillage_0_split
I0403 15:22:11.630421 31613 net.cpp:425] loss2/classifier_plantvillage_loss2/classifier_plantvillage_0_split <- loss2/classifier_plantvillage
I0403 15:22:11.630439 31613 net.cpp:399] loss2/classifier_plantvillage_loss2/classifier_plantvillage_0_split -> loss2/classifier_plantvillage_loss2/classifier_plantvillage_0_split_0
I0403 15:22:11.630460 31613 net.cpp:399] loss2/classifier_plantvillage_loss2/classifier_plantvillage_0_split -> loss2/classifier_plantvillage_loss2/classifier_plantvillage_0_split_1
I0403 15:22:11.630481 31613 net.cpp:399] loss2/classifier_plantvillage_loss2/classifier_plantvillage_0_split -> loss2/classifier_plantvillage_loss2/classifier_plantvillage_0_split_2
I0403 15:22:11.630560 31613 net.cpp:141] Setting up loss2/classifier_plantvillage_loss2/classifier_plantvillage_0_split
I0403 15:22:11.630585 31613 net.cpp:148] Top shape: 24 38 (912)
I0403 15:22:11.630602 31613 net.cpp:148] Top shape: 24 38 (912)
I0403 15:22:11.630619 31613 net.cpp:148] Top shape: 24 38 (912)
I0403 15:22:11.630633 31613 net.cpp:156] Memory required for data: 1208432160
I0403 15:22:11.630656 31613 layer_factory.hpp:77] Creating layer inception_4e/1x1
I0403 15:22:11.630677 31613 net.cpp:91] Creating Layer inception_4e/1x1
I0403 15:22:11.630697 31613 net.cpp:425] inception_4e/1x1 <- inception_4d/output_inception_4d/output_0_split_1
I0403 15:22:11.630718 31613 net.cpp:399] inception_4e/1x1 -> inception_4e/1x1
I0403 15:22:11.632565 31613 net.cpp:141] Setting up inception_4e/1x1
I0403 15:22:11.632593 31613 net.cpp:148] Top shape: 24 256 14 14 (1204224)
I0403 15:22:11.632609 31613 net.cpp:156] Memory required for data: 1213249056
I0403 15:22:11.632628 31613 layer_factory.hpp:77] Creating layer inception_4e/relu_1x1
I0403 15:22:11.632649 31613 net.cpp:91] Creating Layer inception_4e/relu_1x1
I0403 15:22:11.632668 31613 net.cpp:425] inception_4e/relu_1x1 <- inception_4e/1x1
I0403 15:22:11.632684 31613 net.cpp:386] inception_4e/relu_1x1 -> inception_4e/1x1 (in-place)
I0403 15:22:11.632980 31613 net.cpp:141] Setting up inception_4e/relu_1x1
I0403 15:22:11.633008 31613 net.cpp:148] Top shape: 24 256 14 14 (1204224)
I0403 15:22:11.633023 31613 net.cpp:156] Memory required for data: 1218065952
I0403 15:22:11.633039 31613 layer_factory.hpp:77] Creating layer inception_4e/3x3_reduce
I0403 15:22:11.633064 31613 net.cpp:91] Creating Layer inception_4e/3x3_reduce
I0403 15:22:11.633082 31613 net.cpp:425] inception_4e/3x3_reduce <- inception_4d/output_inception_4d/output_0_split_2
I0403 15:22:11.633102 31613 net.cpp:399] inception_4e/3x3_reduce -> inception_4e/3x3_reduce
I0403 15:22:11.635233 31613 net.cpp:141] Setting up inception_4e/3x3_reduce
I0403 15:22:11.635263 31613 net.cpp:148] Top shape: 24 160 14 14 (752640)
I0403 15:22:11.635279 31613 net.cpp:156] Memory required for data: 1221076512
I0403 15:22:11.635299 31613 layer_factory.hpp:77] Creating layer inception_4e/relu_3x3_reduce
I0403 15:22:11.635320 31613 net.cpp:91] Creating Layer inception_4e/relu_3x3_reduce
I0403 15:22:11.635337 31613 net.cpp:425] inception_4e/relu_3x3_reduce <- inception_4e/3x3_reduce
I0403 15:22:11.635360 31613 net.cpp:386] inception_4e/relu_3x3_reduce -> inception_4e/3x3_reduce (in-place)
I0403 15:22:11.635551 31613 net.cpp:141] Setting up inception_4e/relu_3x3_reduce
I0403 15:22:11.635577 31613 net.cpp:148] Top shape: 24 160 14 14 (752640)
I0403 15:22:11.635593 31613 net.cpp:156] Memory required for data: 1224087072
I0403 15:22:11.635608 31613 layer_factory.hpp:77] Creating layer inception_4e/3x3
I0403 15:22:11.635633 31613 net.cpp:91] Creating Layer inception_4e/3x3
I0403 15:22:11.635661 31613 net.cpp:425] inception_4e/3x3 <- inception_4e/3x3_reduce
I0403 15:22:11.635680 31613 net.cpp:399] inception_4e/3x3 -> inception_4e/3x3
I0403 15:22:11.640681 31613 net.cpp:141] Setting up inception_4e/3x3
I0403 15:22:11.640722 31613 net.cpp:148] Top shape: 24 320 14 14 (1505280)
I0403 15:22:11.640739 31613 net.cpp:156] Memory required for data: 1230108192
I0403 15:22:11.640763 31613 layer_factory.hpp:77] Creating layer inception_4e/relu_3x3
I0403 15:22:11.640782 31613 net.cpp:91] Creating Layer inception_4e/relu_3x3
I0403 15:22:11.640799 31613 net.cpp:425] inception_4e/relu_3x3 <- inception_4e/3x3
I0403 15:22:11.640816 31613 net.cpp:386] inception_4e/relu_3x3 -> inception_4e/3x3 (in-place)
I0403 15:22:11.641120 31613 net.cpp:141] Setting up inception_4e/relu_3x3
I0403 15:22:11.641150 31613 net.cpp:148] Top shape: 24 320 14 14 (1505280)
I0403 15:22:11.641167 31613 net.cpp:156] Memory required for data: 1236129312
I0403 15:22:11.641183 31613 layer_factory.hpp:77] Creating layer inception_4e/5x5_reduce
I0403 15:22:11.641208 31613 net.cpp:91] Creating Layer inception_4e/5x5_reduce
I0403 15:22:11.641227 31613 net.cpp:425] inception_4e/5x5_reduce <- inception_4d/output_inception_4d/output_0_split_3
I0403 15:22:11.641247 31613 net.cpp:399] inception_4e/5x5_reduce -> inception_4e/5x5_reduce
I0403 15:22:11.642330 31613 net.cpp:141] Setting up inception_4e/5x5_reduce
I0403 15:22:11.642364 31613 net.cpp:148] Top shape: 24 32 14 14 (150528)
I0403 15:22:11.642380 31613 net.cpp:156] Memory required for data: 1236731424
I0403 15:22:11.642397 31613 layer_factory.hpp:77] Creating layer inception_4e/relu_5x5_reduce
I0403 15:22:11.642418 31613 net.cpp:91] Creating Layer inception_4e/relu_5x5_reduce
I0403 15:22:11.642437 31613 net.cpp:425] inception_4e/relu_5x5_reduce <- inception_4e/5x5_reduce
I0403 15:22:11.642455 31613 net.cpp:386] inception_4e/relu_5x5_reduce -> inception_4e/5x5_reduce (in-place)
I0403 15:22:11.642760 31613 net.cpp:141] Setting up inception_4e/relu_5x5_reduce
I0403 15:22:11.642787 31613 net.cpp:148] Top shape: 24 32 14 14 (150528)
I0403 15:22:11.642802 31613 net.cpp:156] Memory required for data: 1237333536
I0403 15:22:11.642817 31613 layer_factory.hpp:77] Creating layer inception_4e/5x5
I0403 15:22:11.642855 31613 net.cpp:91] Creating Layer inception_4e/5x5
I0403 15:22:11.642875 31613 net.cpp:425] inception_4e/5x5 <- inception_4e/5x5_reduce
I0403 15:22:11.642897 31613 net.cpp:399] inception_4e/5x5 -> inception_4e/5x5
I0403 15:22:11.644765 31613 net.cpp:141] Setting up inception_4e/5x5
I0403 15:22:11.644795 31613 net.cpp:148] Top shape: 24 128 14 14 (602112)
I0403 15:22:11.644811 31613 net.cpp:156] Memory required for data: 1239741984
I0403 15:22:11.644830 31613 layer_factory.hpp:77] Creating layer inception_4e/relu_5x5
I0403 15:22:11.644850 31613 net.cpp:91] Creating Layer inception_4e/relu_5x5
I0403 15:22:11.644867 31613 net.cpp:425] inception_4e/relu_5x5 <- inception_4e/5x5
I0403 15:22:11.644887 31613 net.cpp:386] inception_4e/relu_5x5 -> inception_4e/5x5 (in-place)
I0403 15:22:11.645087 31613 net.cpp:141] Setting up inception_4e/relu_5x5
I0403 15:22:11.645114 31613 net.cpp:148] Top shape: 24 128 14 14 (602112)
I0403 15:22:11.645129 31613 net.cpp:156] Memory required for data: 1242150432
I0403 15:22:11.645144 31613 layer_factory.hpp:77] Creating layer inception_4e/pool
I0403 15:22:11.645165 31613 net.cpp:91] Creating Layer inception_4e/pool
I0403 15:22:11.645184 31613 net.cpp:425] inception_4e/pool <- inception_4d/output_inception_4d/output_0_split_4
I0403 15:22:11.645201 31613 net.cpp:399] inception_4e/pool -> inception_4e/pool
I0403 15:22:11.645274 31613 net.cpp:141] Setting up inception_4e/pool
I0403 15:22:11.645298 31613 net.cpp:148] Top shape: 24 528 14 14 (2483712)
I0403 15:22:11.645313 31613 net.cpp:156] Memory required for data: 1252085280
I0403 15:22:11.645329 31613 layer_factory.hpp:77] Creating layer inception_4e/pool_proj
I0403 15:22:11.645355 31613 net.cpp:91] Creating Layer inception_4e/pool_proj
I0403 15:22:11.645375 31613 net.cpp:425] inception_4e/pool_proj <- inception_4e/pool
I0403 15:22:11.645396 31613 net.cpp:399] inception_4e/pool_proj -> inception_4e/pool_proj
I0403 15:22:11.646908 31613 net.cpp:141] Setting up inception_4e/pool_proj
I0403 15:22:11.646936 31613 net.cpp:148] Top shape: 24 128 14 14 (602112)
I0403 15:22:11.646966 31613 net.cpp:156] Memory required for data: 1254493728
I0403 15:22:11.646988 31613 layer_factory.hpp:77] Creating layer inception_4e/relu_pool_proj
I0403 15:22:11.647006 31613 net.cpp:91] Creating Layer inception_4e/relu_pool_proj
I0403 15:22:11.647022 31613 net.cpp:425] inception_4e/relu_pool_proj <- inception_4e/pool_proj
I0403 15:22:11.647042 31613 net.cpp:386] inception_4e/relu_pool_proj -> inception_4e/pool_proj (in-place)
I0403 15:22:11.647338 31613 net.cpp:141] Setting up inception_4e/relu_pool_proj
I0403 15:22:11.647369 31613 net.cpp:148] Top shape: 24 128 14 14 (602112)
I0403 15:22:11.647387 31613 net.cpp:156] Memory required for data: 1256902176
I0403 15:22:11.647402 31613 layer_factory.hpp:77] Creating layer inception_4e/output
I0403 15:22:11.647419 31613 net.cpp:91] Creating Layer inception_4e/output
I0403 15:22:11.647435 31613 net.cpp:425] inception_4e/output <- inception_4e/1x1
I0403 15:22:11.647452 31613 net.cpp:425] inception_4e/output <- inception_4e/3x3
I0403 15:22:11.647469 31613 net.cpp:425] inception_4e/output <- inception_4e/5x5
I0403 15:22:11.647486 31613 net.cpp:425] inception_4e/output <- inception_4e/pool_proj
I0403 15:22:11.647506 31613 net.cpp:399] inception_4e/output -> inception_4e/output
I0403 15:22:11.647555 31613 net.cpp:141] Setting up inception_4e/output
I0403 15:22:11.647583 31613 net.cpp:148] Top shape: 24 832 14 14 (3913728)
I0403 15:22:11.647599 31613 net.cpp:156] Memory required for data: 1272557088
I0403 15:22:11.647614 31613 layer_factory.hpp:77] Creating layer pool4/3x3_s2
I0403 15:22:11.647632 31613 net.cpp:91] Creating Layer pool4/3x3_s2
I0403 15:22:11.647650 31613 net.cpp:425] pool4/3x3_s2 <- inception_4e/output
I0403 15:22:11.647667 31613 net.cpp:399] pool4/3x3_s2 -> pool4/3x3_s2
I0403 15:22:11.647737 31613 net.cpp:141] Setting up pool4/3x3_s2
I0403 15:22:11.647761 31613 net.cpp:148] Top shape: 24 832 7 7 (978432)
I0403 15:22:11.647775 31613 net.cpp:156] Memory required for data: 1276470816
I0403 15:22:11.647791 31613 layer_factory.hpp:77] Creating layer pool4/3x3_s2_pool4/3x3_s2_0_split
I0403 15:22:11.647809 31613 net.cpp:91] Creating Layer pool4/3x3_s2_pool4/3x3_s2_0_split
I0403 15:22:11.647825 31613 net.cpp:425] pool4/3x3_s2_pool4/3x3_s2_0_split <- pool4/3x3_s2
I0403 15:22:11.647845 31613 net.cpp:399] pool4/3x3_s2_pool4/3x3_s2_0_split -> pool4/3x3_s2_pool4/3x3_s2_0_split_0
I0403 15:22:11.647866 31613 net.cpp:399] pool4/3x3_s2_pool4/3x3_s2_0_split -> pool4/3x3_s2_pool4/3x3_s2_0_split_1
I0403 15:22:11.647886 31613 net.cpp:399] pool4/3x3_s2_pool4/3x3_s2_0_split -> pool4/3x3_s2_pool4/3x3_s2_0_split_2
I0403 15:22:11.647909 31613 net.cpp:399] pool4/3x3_s2_pool4/3x3_s2_0_split -> pool4/3x3_s2_pool4/3x3_s2_0_split_3
I0403 15:22:11.648002 31613 net.cpp:141] Setting up pool4/3x3_s2_pool4/3x3_s2_0_split
I0403 15:22:11.648026 31613 net.cpp:148] Top shape: 24 832 7 7 (978432)
I0403 15:22:11.648043 31613 net.cpp:148] Top shape: 24 832 7 7 (978432)
I0403 15:22:11.648058 31613 net.cpp:148] Top shape: 24 832 7 7 (978432)
I0403 15:22:11.648074 31613 net.cpp:148] Top shape: 24 832 7 7 (978432)
I0403 15:22:11.648088 31613 net.cpp:156] Memory required for data: 1292125728
I0403 15:22:11.648103 31613 layer_factory.hpp:77] Creating layer inception_5a/1x1
I0403 15:22:11.648126 31613 net.cpp:91] Creating Layer inception_5a/1x1
I0403 15:22:11.648144 31613 net.cpp:425] inception_5a/1x1 <- pool4/3x3_s2_pool4/3x3_s2_0_split_0
I0403 15:22:11.648165 31613 net.cpp:399] inception_5a/1x1 -> inception_5a/1x1
I0403 15:22:11.651036 31613 net.cpp:141] Setting up inception_5a/1x1
I0403 15:22:11.651067 31613 net.cpp:148] Top shape: 24 256 7 7 (301056)
I0403 15:22:11.651082 31613 net.cpp:156] Memory required for data: 1293329952
I0403 15:22:11.651103 31613 layer_factory.hpp:77] Creating layer inception_5a/relu_1x1
I0403 15:22:11.651124 31613 net.cpp:91] Creating Layer inception_5a/relu_1x1
I0403 15:22:11.651141 31613 net.cpp:425] inception_5a/relu_1x1 <- inception_5a/1x1
I0403 15:22:11.651160 31613 net.cpp:386] inception_5a/relu_1x1 -> inception_5a/1x1 (in-place)
I0403 15:22:11.651478 31613 net.cpp:141] Setting up inception_5a/relu_1x1
I0403 15:22:11.651504 31613 net.cpp:148] Top shape: 24 256 7 7 (301056)
I0403 15:22:11.651520 31613 net.cpp:156] Memory required for data: 1294534176
I0403 15:22:11.651537 31613 layer_factory.hpp:77] Creating layer inception_5a/3x3_reduce
I0403 15:22:11.651562 31613 net.cpp:91] Creating Layer inception_5a/3x3_reduce
I0403 15:22:11.651582 31613 net.cpp:425] inception_5a/3x3_reduce <- pool4/3x3_s2_pool4/3x3_s2_0_split_1
I0403 15:22:11.651603 31613 net.cpp:399] inception_5a/3x3_reduce -> inception_5a/3x3_reduce
I0403 15:22:11.654167 31613 net.cpp:141] Setting up inception_5a/3x3_reduce
I0403 15:22:11.654199 31613 net.cpp:148] Top shape: 24 160 7 7 (188160)
I0403 15:22:11.654217 31613 net.cpp:156] Memory required for data: 1295286816
I0403 15:22:11.654237 31613 layer_factory.hpp:77] Creating layer inception_5a/relu_3x3_reduce
I0403 15:22:11.654256 31613 net.cpp:91] Creating Layer inception_5a/relu_3x3_reduce
I0403 15:22:11.654273 31613 net.cpp:425] inception_5a/relu_3x3_reduce <- inception_5a/3x3_reduce
I0403 15:22:11.654292 31613 net.cpp:386] inception_5a/relu_3x3_reduce -> inception_5a/3x3_reduce (in-place)
I0403 15:22:11.654495 31613 net.cpp:141] Setting up inception_5a/relu_3x3_reduce
I0403 15:22:11.654521 31613 net.cpp:148] Top shape: 24 160 7 7 (188160)
I0403 15:22:11.654537 31613 net.cpp:156] Memory required for data: 1296039456
I0403 15:22:11.654552 31613 layer_factory.hpp:77] Creating layer inception_5a/3x3
I0403 15:22:11.654578 31613 net.cpp:91] Creating Layer inception_5a/3x3
I0403 15:22:11.654597 31613 net.cpp:425] inception_5a/3x3 <- inception_5a/3x3_reduce
I0403 15:22:11.654618 31613 net.cpp:399] inception_5a/3x3 -> inception_5a/3x3
I0403 15:22:11.659643 31613 net.cpp:141] Setting up inception_5a/3x3
I0403 15:22:11.659672 31613 net.cpp:148] Top shape: 24 320 7 7 (376320)
I0403 15:22:11.659689 31613 net.cpp:156] Memory required for data: 1297544736
I0403 15:22:11.659708 31613 layer_factory.hpp:77] Creating layer inception_5a/relu_3x3
I0403 15:22:11.659726 31613 net.cpp:91] Creating Layer inception_5a/relu_3x3
I0403 15:22:11.659744 31613 net.cpp:425] inception_5a/relu_3x3 <- inception_5a/3x3
I0403 15:22:11.659765 31613 net.cpp:386] inception_5a/relu_3x3 -> inception_5a/3x3 (in-place)
I0403 15:22:11.660066 31613 net.cpp:141] Setting up inception_5a/relu_3x3
I0403 15:22:11.660094 31613 net.cpp:148] Top shape: 24 320 7 7 (376320)
I0403 15:22:11.660109 31613 net.cpp:156] Memory required for data: 1299050016
I0403 15:22:11.660125 31613 layer_factory.hpp:77] Creating layer inception_5a/5x5_reduce
I0403 15:22:11.660147 31613 net.cpp:91] Creating Layer inception_5a/5x5_reduce
I0403 15:22:11.660166 31613 net.cpp:425] inception_5a/5x5_reduce <- pool4/3x3_s2_pool4/3x3_s2_0_split_2
I0403 15:22:11.660189 31613 net.cpp:399] inception_5a/5x5_reduce -> inception_5a/5x5_reduce
I0403 15:22:11.661393 31613 net.cpp:141] Setting up inception_5a/5x5_reduce
I0403 15:22:11.661427 31613 net.cpp:148] Top shape: 24 32 7 7 (37632)
I0403 15:22:11.661444 31613 net.cpp:156] Memory required for data: 1299200544
I0403 15:22:11.661464 31613 layer_factory.hpp:77] Creating layer inception_5a/relu_5x5_reduce
I0403 15:22:11.661484 31613 net.cpp:91] Creating Layer inception_5a/relu_5x5_reduce
I0403 15:22:11.661501 31613 net.cpp:425] inception_5a/relu_5x5_reduce <- inception_5a/5x5_reduce
I0403 15:22:11.661520 31613 net.cpp:386] inception_5a/relu_5x5_reduce -> inception_5a/5x5_reduce (in-place)
I0403 15:22:11.661831 31613 net.cpp:141] Setting up inception_5a/relu_5x5_reduce
I0403 15:22:11.661859 31613 net.cpp:148] Top shape: 24 32 7 7 (37632)
I0403 15:22:11.661875 31613 net.cpp:156] Memory required for data: 1299351072
I0403 15:22:11.661891 31613 layer_factory.hpp:77] Creating layer inception_5a/5x5
I0403 15:22:11.661916 31613 net.cpp:91] Creating Layer inception_5a/5x5
I0403 15:22:11.661936 31613 net.cpp:425] inception_5a/5x5 <- inception_5a/5x5_reduce
I0403 15:22:11.661957 31613 net.cpp:399] inception_5a/5x5 -> inception_5a/5x5
I0403 15:22:11.663750 31613 net.cpp:141] Setting up inception_5a/5x5
I0403 15:22:11.663791 31613 net.cpp:148] Top shape: 24 128 7 7 (150528)
I0403 15:22:11.663808 31613 net.cpp:156] Memory required for data: 1299953184
I0403 15:22:11.663827 31613 layer_factory.hpp:77] Creating layer inception_5a/relu_5x5
I0403 15:22:11.663846 31613 net.cpp:91] Creating Layer inception_5a/relu_5x5
I0403 15:22:11.663863 31613 net.cpp:425] inception_5a/relu_5x5 <- inception_5a/5x5
I0403 15:22:11.663885 31613 net.cpp:386] inception_5a/relu_5x5 -> inception_5a/5x5 (in-place)
I0403 15:22:11.664084 31613 net.cpp:141] Setting up inception_5a/relu_5x5
I0403 15:22:11.664111 31613 net.cpp:148] Top shape: 24 128 7 7 (150528)
I0403 15:22:11.664126 31613 net.cpp:156] Memory required for data: 1300555296
I0403 15:22:11.664141 31613 layer_factory.hpp:77] Creating layer inception_5a/pool
I0403 15:22:11.664162 31613 net.cpp:91] Creating Layer inception_5a/pool
I0403 15:22:11.664181 31613 net.cpp:425] inception_5a/pool <- pool4/3x3_s2_pool4/3x3_s2_0_split_3
I0403 15:22:11.664201 31613 net.cpp:399] inception_5a/pool -> inception_5a/pool
I0403 15:22:11.664274 31613 net.cpp:141] Setting up inception_5a/pool
I0403 15:22:11.664300 31613 net.cpp:148] Top shape: 24 832 7 7 (978432)
I0403 15:22:11.664315 31613 net.cpp:156] Memory required for data: 1304469024
I0403 15:22:11.664330 31613 layer_factory.hpp:77] Creating layer inception_5a/pool_proj
I0403 15:22:11.664364 31613 net.cpp:91] Creating Layer inception_5a/pool_proj
I0403 15:22:11.664387 31613 net.cpp:425] inception_5a/pool_proj <- inception_5a/pool
I0403 15:22:11.664410 31613 net.cpp:399] inception_5a/pool_proj -> inception_5a/pool_proj
I0403 15:22:11.666833 31613 net.cpp:141] Setting up inception_5a/pool_proj
I0403 15:22:11.666865 31613 net.cpp:148] Top shape: 24 128 7 7 (150528)
I0403 15:22:11.666882 31613 net.cpp:156] Memory required for data: 1305071136
I0403 15:22:11.666903 31613 layer_factory.hpp:77] Creating layer inception_5a/relu_pool_proj
I0403 15:22:11.666921 31613 net.cpp:91] Creating Layer inception_5a/relu_pool_proj
I0403 15:22:11.666939 31613 net.cpp:425] inception_5a/relu_pool_proj <- inception_5a/pool_proj
I0403 15:22:11.666961 31613 net.cpp:386] inception_5a/relu_pool_proj -> inception_5a/pool_proj (in-place)
I0403 15:22:11.667274 31613 net.cpp:141] Setting up inception_5a/relu_pool_proj
I0403 15:22:11.667304 31613 net.cpp:148] Top shape: 24 128 7 7 (150528)
I0403 15:22:11.667320 31613 net.cpp:156] Memory required for data: 1305673248
I0403 15:22:11.667336 31613 layer_factory.hpp:77] Creating layer inception_5a/output
I0403 15:22:11.667371 31613 net.cpp:91] Creating Layer inception_5a/output
I0403 15:22:11.667390 31613 net.cpp:425] inception_5a/output <- inception_5a/1x1
I0403 15:22:11.667409 31613 net.cpp:425] inception_5a/output <- inception_5a/3x3
I0403 15:22:11.667428 31613 net.cpp:425] inception_5a/output <- inception_5a/5x5
I0403 15:22:11.667444 31613 net.cpp:425] inception_5a/output <- inception_5a/pool_proj
I0403 15:22:11.667465 31613 net.cpp:399] inception_5a/output -> inception_5a/output
I0403 15:22:11.667521 31613 net.cpp:141] Setting up inception_5a/output
I0403 15:22:11.667546 31613 net.cpp:148] Top shape: 24 832 7 7 (978432)
I0403 15:22:11.667562 31613 net.cpp:156] Memory required for data: 1309586976
I0403 15:22:11.667579 31613 layer_factory.hpp:77] Creating layer inception_5a/output_inception_5a/output_0_split
I0403 15:22:11.667601 31613 net.cpp:91] Creating Layer inception_5a/output_inception_5a/output_0_split
I0403 15:22:11.667620 31613 net.cpp:425] inception_5a/output_inception_5a/output_0_split <- inception_5a/output
I0403 15:22:11.667639 31613 net.cpp:399] inception_5a/output_inception_5a/output_0_split -> inception_5a/output_inception_5a/output_0_split_0
I0403 15:22:11.667675 31613 net.cpp:399] inception_5a/output_inception_5a/output_0_split -> inception_5a/output_inception_5a/output_0_split_1
I0403 15:22:11.667697 31613 net.cpp:399] inception_5a/output_inception_5a/output_0_split -> inception_5a/output_inception_5a/output_0_split_2
I0403 15:22:11.667721 31613 net.cpp:399] inception_5a/output_inception_5a/output_0_split -> inception_5a/output_inception_5a/output_0_split_3
I0403 15:22:11.667840 31613 net.cpp:141] Setting up inception_5a/output_inception_5a/output_0_split
I0403 15:22:11.667866 31613 net.cpp:148] Top shape: 24 832 7 7 (978432)
I0403 15:22:11.667884 31613 net.cpp:148] Top shape: 24 832 7 7 (978432)
I0403 15:22:11.667901 31613 net.cpp:148] Top shape: 24 832 7 7 (978432)
I0403 15:22:11.667918 31613 net.cpp:148] Top shape: 24 832 7 7 (978432)
I0403 15:22:11.667933 31613 net.cpp:156] Memory required for data: 1325241888
I0403 15:22:11.667949 31613 layer_factory.hpp:77] Creating layer inception_5b/1x1
I0403 15:22:11.667973 31613 net.cpp:91] Creating Layer inception_5b/1x1
I0403 15:22:11.667992 31613 net.cpp:425] inception_5b/1x1 <- inception_5a/output_inception_5a/output_0_split_0
I0403 15:22:11.668015 31613 net.cpp:399] inception_5b/1x1 -> inception_5b/1x1
I0403 15:22:11.672026 31613 net.cpp:141] Setting up inception_5b/1x1
I0403 15:22:11.672061 31613 net.cpp:148] Top shape: 24 384 7 7 (451584)
I0403 15:22:11.672078 31613 net.cpp:156] Memory required for data: 1327048224
I0403 15:22:11.672099 31613 layer_factory.hpp:77] Creating layer inception_5b/relu_1x1
I0403 15:22:11.672121 31613 net.cpp:91] Creating Layer inception_5b/relu_1x1
I0403 15:22:11.672138 31613 net.cpp:425] inception_5b/relu_1x1 <- inception_5b/1x1
I0403 15:22:11.672160 31613 net.cpp:386] inception_5b/relu_1x1 -> inception_5b/1x1 (in-place)
I0403 15:22:11.672497 31613 net.cpp:141] Setting up inception_5b/relu_1x1
I0403 15:22:11.672528 31613 net.cpp:148] Top shape: 24 384 7 7 (451584)
I0403 15:22:11.672544 31613 net.cpp:156] Memory required for data: 1328854560
I0403 15:22:11.672561 31613 layer_factory.hpp:77] Creating layer inception_5b/3x3_reduce
I0403 15:22:11.672585 31613 net.cpp:91] Creating Layer inception_5b/3x3_reduce
I0403 15:22:11.672605 31613 net.cpp:425] inception_5b/3x3_reduce <- inception_5a/output_inception_5a/output_0_split_1
I0403 15:22:11.672629 31613 net.cpp:399] inception_5b/3x3_reduce -> inception_5b/3x3_reduce
I0403 15:22:11.675480 31613 net.cpp:141] Setting up inception_5b/3x3_reduce
I0403 15:22:11.675514 31613 net.cpp:148] Top shape: 24 192 7 7 (225792)
I0403 15:22:11.675532 31613 net.cpp:156] Memory required for data: 1329757728
I0403 15:22:11.675551 31613 layer_factory.hpp:77] Creating layer inception_5b/relu_3x3_reduce
I0403 15:22:11.675573 31613 net.cpp:91] Creating Layer inception_5b/relu_3x3_reduce
I0403 15:22:11.675590 31613 net.cpp:425] inception_5b/relu_3x3_reduce <- inception_5b/3x3_reduce
I0403 15:22:11.675612 31613 net.cpp:386] inception_5b/relu_3x3_reduce -> inception_5b/3x3_reduce (in-place)
I0403 15:22:11.675819 31613 net.cpp:141] Setting up inception_5b/relu_3x3_reduce
I0403 15:22:11.675846 31613 net.cpp:148] Top shape: 24 192 7 7 (225792)
I0403 15:22:11.675863 31613 net.cpp:156] Memory required for data: 1330660896
I0403 15:22:11.675878 31613 layer_factory.hpp:77] Creating layer inception_5b/3x3
I0403 15:22:11.675901 31613 net.cpp:91] Creating Layer inception_5b/3x3
I0403 15:22:11.675920 31613 net.cpp:425] inception_5b/3x3 <- inception_5b/3x3_reduce
I0403 15:22:11.675945 31613 net.cpp:399] inception_5b/3x3 -> inception_5b/3x3
I0403 15:22:11.683099 31613 net.cpp:141] Setting up inception_5b/3x3
I0403 15:22:11.683131 31613 net.cpp:148] Top shape: 24 384 7 7 (451584)
I0403 15:22:11.683148 31613 net.cpp:156] Memory required for data: 1332467232
I0403 15:22:11.683168 31613 layer_factory.hpp:77] Creating layer inception_5b/relu_3x3
I0403 15:22:11.683188 31613 net.cpp:91] Creating Layer inception_5b/relu_3x3
I0403 15:22:11.683208 31613 net.cpp:425] inception_5b/relu_3x3 <- inception_5b/3x3
I0403 15:22:11.683231 31613 net.cpp:386] inception_5b/relu_3x3 -> inception_5b/3x3 (in-place)
I0403 15:22:11.683557 31613 net.cpp:141] Setting up inception_5b/relu_3x3
I0403 15:22:11.683588 31613 net.cpp:148] Top shape: 24 384 7 7 (451584)
I0403 15:22:11.683604 31613 net.cpp:156] Memory required for data: 1334273568
I0403 15:22:11.683620 31613 layer_factory.hpp:77] Creating layer inception_5b/5x5_reduce
I0403 15:22:11.683666 31613 net.cpp:91] Creating Layer inception_5b/5x5_reduce
I0403 15:22:11.683687 31613 net.cpp:425] inception_5b/5x5_reduce <- inception_5a/output_inception_5a/output_0_split_2
I0403 15:22:11.683712 31613 net.cpp:399] inception_5b/5x5_reduce -> inception_5b/5x5_reduce
I0403 15:22:11.685086 31613 net.cpp:141] Setting up inception_5b/5x5_reduce
I0403 15:22:11.685117 31613 net.cpp:148] Top shape: 24 48 7 7 (56448)
I0403 15:22:11.685132 31613 net.cpp:156] Memory required for data: 1334499360
I0403 15:22:11.685153 31613 layer_factory.hpp:77] Creating layer inception_5b/relu_5x5_reduce
I0403 15:22:11.685171 31613 net.cpp:91] Creating Layer inception_5b/relu_5x5_reduce
I0403 15:22:11.685189 31613 net.cpp:425] inception_5b/relu_5x5_reduce <- inception_5b/5x5_reduce
I0403 15:22:11.685210 31613 net.cpp:386] inception_5b/relu_5x5_reduce -> inception_5b/5x5_reduce (in-place)
I0403 15:22:11.685603 31613 net.cpp:141] Setting up inception_5b/relu_5x5_reduce
I0403 15:22:11.685632 31613 net.cpp:148] Top shape: 24 48 7 7 (56448)
I0403 15:22:11.685647 31613 net.cpp:156] Memory required for data: 1334725152
I0403 15:22:11.685664 31613 layer_factory.hpp:77] Creating layer inception_5b/5x5
I0403 15:22:11.685686 31613 net.cpp:91] Creating Layer inception_5b/5x5
I0403 15:22:11.685703 31613 net.cpp:425] inception_5b/5x5 <- inception_5b/5x5_reduce
I0403 15:22:11.685724 31613 net.cpp:399] inception_5b/5x5 -> inception_5b/5x5
I0403 15:22:11.687896 31613 net.cpp:141] Setting up inception_5b/5x5
I0403 15:22:11.687929 31613 net.cpp:148] Top shape: 24 128 7 7 (150528)
I0403 15:22:11.687945 31613 net.cpp:156] Memory required for data: 1335327264
I0403 15:22:11.687964 31613 layer_factory.hpp:77] Creating layer inception_5b/relu_5x5
I0403 15:22:11.687986 31613 net.cpp:91] Creating Layer inception_5b/relu_5x5
I0403 15:22:11.688005 31613 net.cpp:425] inception_5b/relu_5x5 <- inception_5b/5x5
I0403 15:22:11.688024 31613 net.cpp:386] inception_5b/relu_5x5 -> inception_5b/5x5 (in-place)
I0403 15:22:11.688226 31613 net.cpp:141] Setting up inception_5b/relu_5x5
I0403 15:22:11.688253 31613 net.cpp:148] Top shape: 24 128 7 7 (150528)
I0403 15:22:11.688269 31613 net.cpp:156] Memory required for data: 1335929376
I0403 15:22:11.688284 31613 layer_factory.hpp:77] Creating layer inception_5b/pool
I0403 15:22:11.688307 31613 net.cpp:91] Creating Layer inception_5b/pool
I0403 15:22:11.688325 31613 net.cpp:425] inception_5b/pool <- inception_5a/output_inception_5a/output_0_split_3
I0403 15:22:11.688349 31613 net.cpp:399] inception_5b/pool -> inception_5b/pool
I0403 15:22:11.688428 31613 net.cpp:141] Setting up inception_5b/pool
I0403 15:22:11.688454 31613 net.cpp:148] Top shape: 24 832 7 7 (978432)
I0403 15:22:11.688470 31613 net.cpp:156] Memory required for data: 1339843104
I0403 15:22:11.688487 31613 layer_factory.hpp:77] Creating layer inception_5b/pool_proj
I0403 15:22:11.688509 31613 net.cpp:91] Creating Layer inception_5b/pool_proj
I0403 15:22:11.688529 31613 net.cpp:425] inception_5b/pool_proj <- inception_5b/pool
I0403 15:22:11.688551 31613 net.cpp:399] inception_5b/pool_proj -> inception_5b/pool_proj
I0403 15:22:11.690963 31613 net.cpp:141] Setting up inception_5b/pool_proj
I0403 15:22:11.690994 31613 net.cpp:148] Top shape: 24 128 7 7 (150528)
I0403 15:22:11.691011 31613 net.cpp:156] Memory required for data: 1340445216
I0403 15:22:11.691031 31613 layer_factory.hpp:77] Creating layer inception_5b/relu_pool_proj
I0403 15:22:11.691051 31613 net.cpp:91] Creating Layer inception_5b/relu_pool_proj
I0403 15:22:11.691068 31613 net.cpp:425] inception_5b/relu_pool_proj <- inception_5b/pool_proj
I0403 15:22:11.691089 31613 net.cpp:386] inception_5b/relu_pool_proj -> inception_5b/pool_proj (in-place)
I0403 15:22:11.691404 31613 net.cpp:141] Setting up inception_5b/relu_pool_proj
I0403 15:22:11.691432 31613 net.cpp:148] Top shape: 24 128 7 7 (150528)
I0403 15:22:11.691449 31613 net.cpp:156] Memory required for data: 1341047328
I0403 15:22:11.691464 31613 layer_factory.hpp:77] Creating layer inception_5b/output
I0403 15:22:11.691483 31613 net.cpp:91] Creating Layer inception_5b/output
I0403 15:22:11.691516 31613 net.cpp:425] inception_5b/output <- inception_5b/1x1
I0403 15:22:11.691536 31613 net.cpp:425] inception_5b/output <- inception_5b/3x3
I0403 15:22:11.691555 31613 net.cpp:425] inception_5b/output <- inception_5b/5x5
I0403 15:22:11.691572 31613 net.cpp:425] inception_5b/output <- inception_5b/pool_proj
I0403 15:22:11.691593 31613 net.cpp:399] inception_5b/output -> inception_5b/output
I0403 15:22:11.691649 31613 net.cpp:141] Setting up inception_5b/output
I0403 15:22:11.691678 31613 net.cpp:148] Top shape: 24 1024 7 7 (1204224)
I0403 15:22:11.691694 31613 net.cpp:156] Memory required for data: 1345864224
I0403 15:22:11.691710 31613 layer_factory.hpp:77] Creating layer pool5/7x7_s1
I0403 15:22:11.691728 31613 net.cpp:91] Creating Layer pool5/7x7_s1
I0403 15:22:11.691745 31613 net.cpp:425] pool5/7x7_s1 <- inception_5b/output
I0403 15:22:11.691763 31613 net.cpp:399] pool5/7x7_s1 -> pool5/7x7_s1
I0403 15:22:11.691990 31613 net.cpp:141] Setting up pool5/7x7_s1
I0403 15:22:11.692018 31613 net.cpp:148] Top shape: 24 1024 1 1 (24576)
I0403 15:22:11.692034 31613 net.cpp:156] Memory required for data: 1345962528
I0403 15:22:11.692050 31613 layer_factory.hpp:77] Creating layer pool5/drop_7x7_s1
I0403 15:22:11.692070 31613 net.cpp:91] Creating Layer pool5/drop_7x7_s1
I0403 15:22:11.692088 31613 net.cpp:425] pool5/drop_7x7_s1 <- pool5/7x7_s1
I0403 15:22:11.692111 31613 net.cpp:386] pool5/drop_7x7_s1 -> pool5/7x7_s1 (in-place)
I0403 15:22:11.692162 31613 net.cpp:141] Setting up pool5/drop_7x7_s1
I0403 15:22:11.692190 31613 net.cpp:148] Top shape: 24 1024 1 1 (24576)
I0403 15:22:11.692206 31613 net.cpp:156] Memory required for data: 1346060832
I0403 15:22:11.692222 31613 layer_factory.hpp:77] Creating layer loss3/classifier_plantvillage
I0403 15:22:11.692242 31613 net.cpp:91] Creating Layer loss3/classifier_plantvillage
I0403 15:22:11.692260 31613 net.cpp:425] loss3/classifier_plantvillage <- pool5/7x7_s1
I0403 15:22:11.692282 31613 net.cpp:399] loss3/classifier_plantvillage -> loss3/classifier_plantvillage
I0403 15:22:11.692734 31613 net.cpp:141] Setting up loss3/classifier_plantvillage
I0403 15:22:11.692761 31613 net.cpp:148] Top shape: 24 38 (912)
I0403 15:22:11.692776 31613 net.cpp:156] Memory required for data: 1346064480
I0403 15:22:11.692796 31613 layer_factory.hpp:77] Creating layer loss3/classifier_plantvillage_loss3/classifier_plantvillage_0_split
I0403 15:22:11.692819 31613 net.cpp:91] Creating Layer loss3/classifier_plantvillage_loss3/classifier_plantvillage_0_split
I0403 15:22:11.692837 31613 net.cpp:425] loss3/classifier_plantvillage_loss3/classifier_plantvillage_0_split <- loss3/classifier_plantvillage
I0403 15:22:11.692857 31613 net.cpp:399] loss3/classifier_plantvillage_loss3/classifier_plantvillage_0_split -> loss3/classifier_plantvillage_loss3/classifier_plantvillage_0_split_0
I0403 15:22:11.692880 31613 net.cpp:399] loss3/classifier_plantvillage_loss3/classifier_plantvillage_0_split -> loss3/classifier_plantvillage_loss3/classifier_plantvillage_0_split_1
I0403 15:22:11.692903 31613 net.cpp:399] loss3/classifier_plantvillage_loss3/classifier_plantvillage_0_split -> loss3/classifier_plantvillage_loss3/classifier_plantvillage_0_split_2
I0403 15:22:11.692924 31613 net.cpp:399] loss3/classifier_plantvillage_loss3/classifier_plantvillage_0_split -> loss3/classifier_plantvillage_loss3/classifier_plantvillage_0_split_3
I0403 15:22:11.693028 31613 net.cpp:141] Setting up loss3/classifier_plantvillage_loss3/classifier_plantvillage_0_split
I0403 15:22:11.693053 31613 net.cpp:148] Top shape: 24 38 (912)
I0403 15:22:11.693070 31613 net.cpp:148] Top shape: 24 38 (912)
I0403 15:22:11.693086 31613 net.cpp:148] Top shape: 24 38 (912)
I0403 15:22:11.693104 31613 net.cpp:148] Top shape: 24 38 (912)
I0403 15:22:11.693119 31613 net.cpp:156] Memory required for data: 1346079072
I0403 15:22:11.693135 31613 layer_factory.hpp:77] Creating layer loss1/loss
I0403 15:22:11.693156 31613 net.cpp:91] Creating Layer loss1/loss
I0403 15:22:11.693174 31613 net.cpp:425] loss1/loss <- loss1/classifier_plantvillage_loss1/classifier_plantvillage_0_split_0
I0403 15:22:11.693208 31613 net.cpp:425] loss1/loss <- label_data_1_split_0
…
