…
I0403 14:43:42.912530 30220 net.cpp:313] The NetState phase (1) differed from the phase (0) specified by a rule in layer data
I0403 14:43:42.913688 30220 net.cpp:49] Initializing net from parameters: 
state {
  phase: TEST
}
layer {
  name: "data"
  type: "Data"
  top: "data"
  top: "label"
  include {
    phase: TEST
  }
  transform_param {
    mirror: false
    crop_size: 224
    mean_file: "/home/mohanty/data/final_dataset/lmdb/color-20-80/mean.binaryproto"
  }
  data_param {
    source: "/home/mohanty/data/final_dataset/lmdb/color-20-80/test_db"
    batch_size: 24
    backend: LMDB
  }
}
layer {
  name: "conv1/7x7_s2"
  type: "Convolution"
  bottom: "data"
  top: "conv1/7x7_s2"
  param {
    lr_mult: 1
    decay_mult: 1
  }
  param {
    lr_mult: 2
    decay_mult: 0
  }
  convolution_param {
    num_output: 64
    pad: 3
    kernel_size: 7
    stride: 2
    weight_filler {
      type: "xavier"
      std: 0.1
    }
    bias_filler {
      type: "constant"
      value: 0.2
    }
  }
}
layer {
  name: "conv1/relu_7x7"
  type: "ReLU"
  bottom: "conv1/7x7_s2"
  top: "conv1/7x7_s2"
}
layer {
  name: "pool1/3x3_s2"
  type: "Pooling"
  bottom: "conv1/7x7_s2"
  top: "pool1/3x3_s2"
  pooling_param {
    pool: MAX
    kernel_size: 3
    stride: 2
  }
}
layer {
  name: "pool1/norm1"
  type: "LRN"
  bottom: "pool1/3x3_s2"
  top: "pool1/norm1"
  lrn_param {
    local_size: 5
    alpha: 0.0001
    beta: 0.75
  }
}
layer {
  name: "conv2/3x3_reduce"
  type: "Convolution"
  bottom: "pool1/norm1"
  top: "conv2/3x3_reduce"
  param {
    lr_mult: 1
    decay_mult: 1
  }
  param {
    lr_mult: 2
    decay_mult: 0
  }
  convolution_param {
    num_output: 64
    kernel_size: 1
    weight_filler {
      type: "xavier"
      std: 0.1
    }
    bias_filler {
      type: "constant"
      value: 0.2
    }
  }
}
layer {
  name: "conv2/relu_3x3_reduce"
  type: "ReLU"
  bottom: "conv2/3x3_reduce"
  top: "conv2/3x3_reduce"
}
layer {
  name: "conv2/3x3"
  type: "Convolution"
  bottom: "conv2/3x3_reduce"
  top: "conv2/3x3"
  param {
    lr_mult: 1
    decay_mult: 1
  }
  param {
    lr_mult: 2
    decay_mult: 0
  }
  convolution_param {
    num_output: 192
    pad: 1
    kernel_size: 3
    weight_filler {
      type: "xavier"
      std: 0.03
    }
    bias_filler {
      type: "constant"
      value: 0.2
    }
  }
}
layer {
  name: "conv2/relu_3x3"
  type: "ReLU"
  bottom: "conv2/3x3"
  top: "conv2/3x3"
}
layer {
  name: "conv2/norm2"
  type: "LRN"
  bottom: "conv2/3x3"
  top: "conv2/norm2"
  lrn_param {
    local_size: 5
    alpha: 0.0001
    beta: 0.75
  }
}
layer {
  name: "pool2/3x3_s2"
  type: "Pooling"
  bottom: "conv2/norm2"
  top: "pool2/3x3_s2"
  pooling_param {
    pool: MAX
    kernel_size: 3
    stride: 2
  }
}
layer {
  name: "inception_3a/1x1"
  type: "Convolution"
  bottom: "pool2/3x3_s2"
  top: "inception_3a/1x1"
  param {
    lr_mult: 1
    decay_mult: 1
  }
  param {
    lr_mult: 2
    decay_mult: 0
  }
  convolution_param {
    num_output: 64
    kernel_size: 1
    weight_filler {
      type: "xavier"
      std: 0.03
    }
    bias_filler {
      type: "constant"
      value: 0.2
    }
  }
}
layer {
  name: "inception_3a/relu_1x1"
  type: "ReLU"
  bottom: "inception_3a/1x1"
  top: "inception_3a/1x1"
}
layer {
  name: "inception_3a/3x3_reduce"
  type: "Convolution"
  bottom: "pool2/3x3_s2"
  top: "inception_3a/3x3_reduce"
  param {
    lr_mult: 1
    decay_mult: 1
  }
  param {
    lr_mult: 2
    decay_mult: 0
  }
  convolution_param {
    num_output: 96
    kernel_size: 1
    weight_filler {
      type: "xavier"
      std: 0.09
    }
    bias_filler {
      type: "constant"
      value: 0.2
    }
  }
}
layer {
  name: "inception_3a/relu_3x3_reduce"
  type: "ReLU"
  bottom: "inception_3a/3x3_reduce"
  top: "inception_3a/3x3_reduce"
}
layer {
  name: "inception_3a/3x3"
  type: "Convolution"
  bottom: "inception_3a/3x3_reduce"
  top: "inception_3a/3x3"
  param {
    lr_mult: 1
    decay_mult: 1
  }
  param {
    lr_mult: 2
    decay_mult: 0
  }
  convolution_param {
    num_output: 128
    pad: 1
    kernel_size: 3
    weight_filler {
      type: "xavier"
      std: 0.03
    }
    bias_filler {
      type: "constant"
      value: 0.2
    }
  }
}
layer {
  name: "inception_3a/relu_3x3"
  type: "ReLU"
  bottom: "inception_3a/3x3"
  top: "inception_3a/3x3"
}
layer {
  name: "inception_3a/5x5_reduce"
  type: "Convolution"
  bottom: "pool2/3x3_s2"
  top: "inception_3a/5x5_reduce"
  param {
    lr_mult: 1
    decay_mult: 1
  }
  param {
    lr_mult: 2
    decay_mult: 0
  }
  convolution_param {
    num_output: 16
    kernel_size: 1
    weight_filler {
      type: "xavier"
      std: 0.2
    }
    bias_filler {
      type: "constant"
      value: 0.2
    }
  }
}
layer {
  name: "inception_3a/relu_5x5_reduce"
  type: "ReLU"
  bottom: "inception_3a/5x5_reduce"
  top: "inception_3a/5x5_reduce"
}
layer {
  name: "inception_3a/5x5"
  type: "Convolution"
  bottom: "inception_3a/5x5_reduce"
  top: "inception_3a/5x5"
  param {
    lr_mult: 1
    decay_mult: 1
  }
  param {
    lr_mult: 2
    decay_mult: 0
  }
  convolution_param {
    num_output: 32
    pad: 2
    kernel_size: 5
    weight_filler {
      type: "xavier"
      std: 0.03
    }
    bias_filler {
      type: "constant"
      value: 0.2
    }
  }
}
layer {
  name: "inception_3a/relu_5x5"
  type: "ReLU"
  bottom: "inception_3a/5x5"
  top: "inception_3a/5x5"
}
layer {
  name: "inception_3a/pool"
  type: "Pooling"
  bottom: "pool2/3x3_s2"
  top: "inception_3a/pool"
  pooling_param {
    pool: MAX
    kernel_size: 3
    stride: 1
    pad: 1
  }
}
layer {
  name: "inception_3a/pool_proj"
  type: "Convolution"
  bottom: "inception_3a/pool"
  top: "inception_3a/pool_proj"
  param {
    lr_mult: 1
    decay_mult: 1
  }
  param {
    lr_mult: 2
    decay_mult: 0
  }
  convolution_param {
    num_output: 32
    kernel_size: 1
    weight_filler {
      type: "xavier"
      std: 0.1
    }
    bias_filler {
      type: "constant"
      value: 0.2
    }
  }
}
layer {
  name: "inception_3a/relu_pool_proj"
  type: "ReLU"
  bottom: "inception_3a/pool_proj"
  top: "inception_3a/pool_proj"
}
layer {
  name: "inception_3a/output"
  type: "Concat"
  bottom: "inception_3a/1x1"
  bottom: "inception_3a/3x3"
  bottom: "inception_3a/5x5"
  bottom: "inception_3a/pool_proj"
  top: "inception_3a/output"
}
layer {
  name: "inception_3b/1x1"
  type: "Convolution"
  bottom: "inception_3a/output"
  top: "inception_3b/1x1"
  param {
    lr_mult: 1
    decay_mult: 1
  }
  param {
    lr_mult: 2
    decay_mult: 0
  }
  convolution_param {
    num_output: 128
    kernel_size: 1
    weight_filler {
      type: "xavier"
      std: 0.03
    }
    bias_filler {
      type: "constant"
      value: 0.2
    }
  }
}
layer {
  name: "inception_3b/relu_1x1"
  type: "ReLU"
  bottom: "inception_3b/1x1"
  top: "inception_3b/1x1"
}
layer {
  name: "inception_3b/3x3_reduce"
  type: "Convolution"
  bottom: "inception_3a/output"
  top: "inception_3b/3x3_reduce"
  param {
    lr_mult: 1
    decay_mult: 1
  }
  param {
    lr_mult: 2
    decay_mult: 0
  }
  convolution_param {
    num_output: 128
    kernel_size: 1
    weight_filler {
      type: "xavier"
      std: 0.09
    }
    bias_filler {
      type: "constant"
      value: 0.2
    }
  }
}
layer {
  name: "inception_3b/relu_3x3_reduce"
  type: "ReLU"
  bottom: "inception_3b/3x3_reduce"
  top: "inception_3b/3x3_reduce"
}
layer {
  name: "inception_3b/3x3"
  type: "Convolution"
  bottom: "inception_3b/3x3_reduce"
  top: "inception_3b/3x3"
  param {
    lr_mult: 1
    decay_mult: 1
  }
  param {
    lr_mult: 2
    decay_mult: 0
  }
  convolution_param {
    num_output: 192
    pad: 1
    kernel_size: 3
    weight_filler {
      type: "xavier"
      std: 0.03
    }
    bias_filler {
      type: "constant"
      value: 0.2
    }
  }
}
layer {
  name: "inception_3b/relu_3x3"
  type: "ReLU"
  bottom: "inception_3b/3x3"
  top: "inception_3b/3x3"
}
layer {
  name: "inception_3b/5x5_reduce"
  type: "Convolution"
  bottom: "inception_3a/output"
  top: "inception_3b/5x5_reduce"
  param {
    lr_mult: 1
    decay_mult: 1
  }
  param {
    lr_mult: 2
    decay_mult: 0
  }
  convolution_param {
    num_output: 32
    kernel_size: 1
    weight_filler {
      type: "xavier"
      std: 0.2
    }
    bias_filler {
      type: "constant"
      value: 0.2
    }
  }
}
layer {
  name: "inception_3b/relu_5x5_reduce"
  type: "ReLU"
  bottom: "inception_3b/5x5_reduce"
  top: "inception_3b/5x5_reduce"
}
layer {
  name: "inception_3b/5x5"
  type: "Convolution"
  bottom: "inception_3b/5x5_reduce"
  top: "inception_3b/5x5"
  param {
    lr_mult: 1
    decay_mult: 1
  }
  param {
    lr_mult: 2
    decay_mult: 0
  }
  convolution_param {
    num_output: 96
    pad: 2
    kernel_size: 5
    weight_filler {
      type: "xavier"
      std: 0.03
    }
    bias_filler {
      type: "constant"
      value: 0.2
    }
  }
}
layer {
  name: "inception_3b/relu_5x5"
  type: "ReLU"
  bottom: "inception_3b/5x5"
  top: "inception_3b/5x5"
}
layer {
  name: "inception_3b/pool"
  type: "Pooling"
  bottom: "inception_3a/output"
  top: "inception_3b/pool"
  pooling_param {
    pool: MAX
    kernel_size: 3
    stride: 1
    pad: 1
  }
}
layer {
  name: "inception_3b/pool_proj"
  type: "Convolution"
  bottom: "inception_3b/pool"
  top: "inception_3b/pool_proj"
  param {
    lr_mult: 1
    decay_mult: 1
  }
  param {
    lr_mult: 2
    decay_mult: 0
  }
  convolution_param {
    num_output: 64
    kernel_size: 1
    weight_filler {
      type: "xavier"
      std: 0.1
    }
    bias_filler {
      type: "constant"
      value: 0.2
    }
  }
}
layer {
  name: "inception_3b/relu_pool_proj"
  type: "ReLU"
  bottom: "inception_3b/pool_proj"
  top: "inception_3b/pool_proj"
}
layer {
  name: "inception_3b/output"
  type: "Concat"
  bottom: "inception_3b/1x1"
  bottom: "inception_3b/3x3"
  bottom: "inception_3b/5x5"
  bottom: "inception_3b/pool_proj"
  top: "inception_3b/output"
}
layer {
  name: "pool3/3x3_s2"
  type: "Pooling"
  bottom: "inception_3b/output"
  top: "pool3/3x3_s2"
  pooling_param {
    pool: MAX
    kernel_size: 3
    stride: 2
  }
}
layer {
  name: "inception_4a/1x1"
  type: "Convolution"
  bottom: "pool3/3x3_s2"
  top: "inception_4a/1x1"
  param {
    lr_mult: 1
    decay_mult: 1
  }
  param {
    lr_mult: 2
    decay_mult: 0
  }
  convolution_param {
    num_output: 192
    kernel_size: 1
    weight_filler {
      type: "xavier"
      std: 0.03
    }
    bias_filler {
      type: "constant"
      value: 0.2
    }
  }
}
layer {
  name: "inception_4a/relu_1x1"
  type: "ReLU"
  bottom: "inception_4a/1x1"
  top: "inception_4a/1x1"
}
layer {
  name: "inception_4a/3x3_reduce"
  type: "Convolution"
  bottom: "pool3/3x3_s2"
  top: "inception_4a/3x3_reduce"
  param {
    lr_mult: 1
    decay_mult: 1
  }
  param {
    lr_mult: 2
    decay_mult: 0
  }
  convolution_param {
    num_output: 96
    kernel_size: 1
    weight_filler {
      type: "xavier"
      std: 0.09
    }
    bias_filler {
      type: "constant"
      value: 0.2
    }
  }
}
layer {
  name: "inception_4a/relu_3x3_reduce"
  type: "ReLU"
  bottom: "inception_4a/3x3_reduce"
  top: "inception_4a/3x3_reduce"
}
layer {
  name: "inception_4a/3x3"
  type: "Convolution"
  bottom: "inception_4a/3x3_reduce"
  top: "inception_4a/3x3"
  param {
    lr_mult: 1
    decay_mult: 1
  }
  param {
    lr_mult: 2
    decay_mult: 0
  }
  convolution_param {
    num_output: 208
    pad: 1
    kernel_size: 3
    weight_filler {
      type: "xavier"
      std: 0.03
    }
    bias_filler {
      type: "constant"
      value: 0.2
    }
  }
}
layer {
  name: "inception_4a/relu_3x3"
  type: "ReLU"
  bottom: "inception_4a/3x3"
  top: "inception_4a/3x3"
}
layer {
  name: "inception_4a/5x5_reduce"
  type: "Convolution"
  bottom: "pool3/3x3_s2"
  top: "inception_4a/5x5_reduce"
  param {
    lr_mult: 1
    decay_mult: 1
  }
  param {
    lr_mult: 2
    decay_mult: 0
  }
  convolution_param {
    num_output: 16
    kernel_size: 1
    weight_filler {
      type: "xavier"
      std: 0.2
    }
    bias_filler {
      type: "constant"
      value: 0.2
    }
  }
}
layer {
  name: "inception_4a/relu_5x5_reduce"
  type: "ReLU"
  bottom: "inception_4a/5x5_reduce"
  top: "inception_4a/5x5_reduce"
}
layer {
  name: "inception_4a/5x5"
  type: "Convolution"
  bottom: "inception_4a/5x5_reduce"
  top: "inception_4a/5x5"
  param {
    lr_mult: 1
    decay_mult: 1
  }
  param {
    lr_mult: 2
    decay_mult: 0
  }
  convolution_param {
    num_output: 48
    pad: 2
    kernel_size: 5
    weight_filler {
      type: "xavier"
      std: 0.03
    }
    bias_filler {
      type: "constant"
      value: 0.2
    }
  }
}
layer {
  name: "inception_4a/relu_5x5"
  type: "ReLU"
  bottom: "inception_4a/5x5"
  top: "inception_4a/5x5"
}
layer {
  name: "inception_4a/pool"
  type: "Pooling"
  bottom: "pool3/3x3_s2"
  top: "inception_4a/pool"
  pooling_param {
    pool: MAX
    kernel_size: 3
    stride: 1
    pad: 1
  }
}
layer {
  name: "inception_4a/pool_proj"
  type: "Convolution"
  bottom: "inception_4a/pool"
  top: "inception_4a/pool_proj"
  param {
    lr_mult: 1
    decay_mult: 1
  }
  param {
    lr_mult: 2
    decay_mult: 0
  }
  convolution_param {
    num_output: 64
    kernel_size: 1
    weight_filler {
      type: "xavier"
      std: 0.1
    }
    bias_filler {
      type: "constant"
      value: 0.2
    }
  }
}
layer {
  name: "inception_4a/relu_pool_proj"
  type: "ReLU"
  bottom: "inception_4a/pool_proj"
  top: "inception_4a/pool_proj"
}
layer {
  name: "inception_4a/output"
  type: "Concat"
  bottom: "inception_4a/1x1"
  bottom: "inception_4a/3x3"
  bottom: "inception_4a/5x5"
  bottom: "inception_4a/pool_proj"
  top: "inception_4a/output"
}
layer {
  name: "loss1/ave_pool"
  type: "Pooling"
  bottom: "inception_4a/output"
  top: "loss1/ave_pool"
  pooling_param {
    pool: AVE
    kernel_size: 5
    stride: 3
  }
}
layer {
  name: "loss1/conv"
  type: "Convolution"
  bottom: "loss1/ave_pool"
  top: "loss1/conv"
  param {
    lr_mult: 1
    decay_mult: 1
  }
  param {
    lr_mult: 2
    decay_mult: 0
  }
  convolution_param {
    num_output: 128
    kernel_size: 1
    weight_filler {
      type: "xavier"
      std: 0.08
    }
    bias_filler {
      type: "constant"
      value: 0.2
    }
  }
}
layer {
  name: "loss1/relu_conv"
  type: "ReLU"
  bottom: "loss1/conv"
  top: "loss1/conv"
}
layer {
  name: "loss1/fc"
  type: "InnerProduct"
  bottom: "loss1/conv"
  top: "loss1/fc"
  param {
    lr_mult: 1
    decay_mult: 1
  }
  param {
    lr_mult: 2
    decay_mult: 0
  }
  inner_product_param {
    num_output: 1024
    weight_filler {
      type: "xavier"
      std: 0.02
    }
    bias_filler {
      type: "constant"
      value: 0.2
    }
  }
}
layer {
  name: "loss1/relu_fc"
  type: "ReLU"
  bottom: "loss1/fc"
  top: "loss1/fc"
}
layer {
  name: "loss1/drop_fc"
  type: "Dropout"
  bottom: "loss1/fc"
  top: "loss1/fc"
  dropout_param {
    dropout_ratio: 0.7
  }
}
layer {
  name: "loss1/classifier_plantvillage"
  type: "InnerProduct"
  bottom: "loss1/fc"
  top: "loss1/classifier_plantvillage"
  param {
    lr_mult: 1
    decay_mult: 1
  }
  param {
    lr_mult: 2
    decay_mult: 0
  }
  inner_product_param {
    num_output: 38
    weight_filler {
      type: "xavier"
      std: 0.0009765625
    }
    bias_filler {
      type: "constant"
      value: 0
    }
  }
}
layer {
  name: "inception_4b/1x1"
  type: "Convolution"
  bottom: "inception_4a/output"
  top: "inception_4b/1x1"
  param {
    lr_mult: 1
    decay_mult: 1
  }
  param {
    lr_mult: 2
    decay_mult: 0
  }
  convolution_param {
    num_output: 160
    kernel_size: 1
    weight_filler {
      type: "xavier"
      std: 0.03
    }
    bias_filler {
      type: "constant"
      value: 0.2
    }
  }
}
layer {
  name: "inception_4b/relu_1x1"
  type: "ReLU"
  bottom: "inception_4b/1x1"
  top: "inception_4b/1x1"
}
layer {
  name: "inception_4b/3x3_reduce"
  type: "Convolution"
  bottom: "inception_4a/output"
  top: "inception_4b/3x3_reduce"
  param {
    lr_mult: 1
    decay_mult: 1
  }
  param {
    lr_mult: 2
    decay_mult: 0
  }
  convolution_param {
    num_output: 112
    kernel_size: 1
    weight_filler {
      type: "xavier"
      std: 0.09
    }
    bias_filler {
      type: "constant"
      value: 0.2
    }
  }
}
layer {
  name: "inception_4b/relu_3x3_reduce"
  type: "ReLU"
  bottom: "inception_4b/3x3_reduce"
  top: "inception_4b/3x3_reduce"
}
layer {
  name: "inception_4b/3x3"
  type: "Convolution"
  bottom: "inception_4b/3x3_reduce"
  top: "inception_4b/3x3"
  param {
    lr_mult: 1
    decay_mult: 1
  }
  param {
    lr_mult: 2
    decay_mult: 0
  }
  convolution_param {
    num_output: 224
    pad: 1
    kernel_size: 3
    weight_filler {
      type: "xavier"
      std: 0.03
    }
    bias_filler {
      type: "constant"
      value: 0.2
    }
  }
}
layer {
  name: "inception_4b/relu_3x3"
  type: "ReLU"
  bottom: "inception_4b/3x3"
  top: "inception_4b/3x3"
}
layer {
  name: "inception_4b/5x5_reduce"
  type: "Convolution"
  bottom: "inception_4a/output"
  top: "inception_4b/5x5_reduce"
  param {
    lr_mult: 1
    decay_mult: 1
  }
  param {
    lr_mult: 2
    decay_mult: 0
  }
  convolution_param {
    num_output: 24
    kernel_size: 1
    weight_filler {
      type: "xavier"
      std: 0.2
    }
    bias_filler {
      type: "constant"
      value: 0.2
    }
  }
}
layer {
  name: "inception_4b/relu_5x5_reduce"
  type: "ReLU"
  bottom: "inception_4b/5x5_reduce"
  top: "inception_4b/5x5_reduce"
}
layer {
  name: "inception_4b/5x5"
  type: "Convolution"
  bottom: "inception_4b/5x5_reduce"
  top: "inception_4b/5x5"
  param {
    lr_mult: 1
    decay_mult: 1
  }
  param {
    lr_mult: 2
    decay_mult: 0
  }
  convolution_param {
    num_output: 64
    pad: 2
    kernel_size: 5
    weight_filler {
      type: "xavier"
      std: 0.03
    }
    bias_filler {
      type: "constant"
      value: 0.2
    }
  }
}
layer {
  name: "inception_4b/relu_5x5"
  type: "ReLU"
  bottom: "inception_4b/5x5"
  top: "inception_4b/5x5"
}
layer {
  name: "inception_4b/pool"
  type: "Pooling"
  bottom: "inception_4a/output"
  top: "inception_4b/pool"
  pooling_param {
    pool: MAX
    kernel_size: 3
    stride: 1
    pad: 1
  }
}
layer {
  name: "inception_4b/pool_proj"
  type: "Convolution"
  bottom: "inception_4b/pool"
  top: "inception_4b/pool_proj"
  param {
    lr_mult: 1
    decay_mult: 1
  }
  param {
    lr_mult: 2
    decay_mult: 0
  }
  convolution_param {
    num_output: 64
    kernel_size: 1
    weight_filler {
      type: "xavier"
      std: 0.1
    }
    bias_filler {
      type: "constant"
      value: 0.2
    }
  }
}
layer {
  name: "inception_4b/relu_pool_proj"
  type: "ReLU"
  bottom: "inception_4b/pool_proj"
  top: "inception_4b/pool_proj"
}
layer {
  name: "inception_4b/output"
  type: "Concat"
  bottom: "inception_4b/1x1"
  bottom: "inception_4b/3x3"
  bottom: "inception_4b/5x5"
  bottom: "inception_4b/pool_proj"
  top: "inception_4b/output"
}
layer {
  name: "inception_4c/1x1"
  type: "Convolution"
  bottom: "inception_4b/output"
  top: "inception_4c/1x1"
  param {
    lr_mult: 1
    decay_mult: 1
  }
  param {
    lr_mult: 2
    decay_mult: 0
  }
  convolution_param {
    num_output: 128
    kernel_size: 1
    weight_filler {
      type: "xavier"
      std: 0.03
    }
    bias_filler {
      type: "constant"
      value: 0.2
    }
  }
}
layer {
  name: "inception_4c/relu_1x1"
  type: "ReLU"
  bottom: "inception_4c/1x1"
  top: "inception_4c/1x1"
}
layer {
  name: "inception_4c/3x3_reduce"
  type: "Convolution"
  bottom: "inception_4b/output"
  top: "inception_4c/3x3_reduce"
  param {
    lr_mult: 1
    decay_mult: 1
  }
  param {
    lr_mult: 2
    decay_mult: 0
  }
  convolution_param {
    num_output: 128
    kernel_size: 1
    weight_filler {
      type: "xavier"
      std: 0.09
    }
    bias_filler {
      type: "constant"
      value: 0.2
    }
  }
}
layer {
  name: "inception_4c/relu_3x3_reduce"
  type: "ReLU"
  bottom: "inception_4c/3x3_reduce"
  top: "inception_4c/3x3_reduce"
}
layer {
  name: "inception_4c/3x3"
  type: "Convolution"
  bottom: "inception_4c/3x3_reduce"
  top: "inception_4c/3x3"
  param {
    lr_mult: 1
    decay_mult: 1
  }
  param {
    lr_mult: 2
    decay_mult: 0
  }
  convolution_param {
    num_output: 256
    pad: 1
    kernel_size: 3
    weight_filler {
      type: "xavier"
      std: 0.03
    }
    bias_filler {
      type: "constant"
      value: 0.2
    }
  }
}
layer {
  name: "inception_4c/relu_3x3"
  type: "ReLU"
  bottom: "inception_4c/3x3"
  top: "inception_4c/3x3"
}
layer {
  name: "inception_4c/5x5_reduce"
  type: "Convolution"
  bottom: "inception_4b/output"
  top: "inception_4c/5x5_reduce"
  param {
    lr_mult: 1
    decay_mult: 1
  }
  param {
    lr_mult: 2
    decay_mult: 0
  }
  convolution_param {
    num_output: 24
    kernel_size: 1
    weight_filler {
      type: "xavier"
      std: 0.2
    }
    bias_filler {
      type: "constant"
      value: 0.2
    }
  }
}
layer {
  name: "inception_4c/relu_5x5_reduce"
  type: "ReLU"
  bottom: "inception_4c/5x5_reduce"
  top: "inception_4c/5x5_reduce"
}
layer {
  name: "inception_4c/5x5"
  type: "Convolution"
  bottom: "inception_4c/5x5_reduce"
  top: "inception_4c/5x5"
  param {
    lr_mult: 1
    decay_mult: 1
  }
  param {
    lr_mult: 2
    decay_mult: 0
  }
  convolution_param {
    num_output: 64
    pad: 2
    kernel_size: 5
    weight_filler {
      type: "xavier"
      std: 0.03
    }
    bias_filler {
      type: "constant"
      value: 0.2
    }
  }
}
layer {
  name: "inception_4c/relu_5x5"
  type: "ReLU"
  bottom: "inception_4c/5x5"
  top: "inception_4c/5x5"
}
layer {
  name: "inception_4c/pool"
  type: "Pooling"
  bottom: "inception_4b/output"
  top: "inception_4c/pool"
  pooling_param {
    pool: MAX
    kernel_size: 3
    stride: 1
    pad: 1
  }
}
layer {
  name: "inception_4c/pool_proj"
  type: "Convolution"
  bottom: "inception_4c/pool"
  top: "inception_4c/pool_proj"
  param {
    lr_mult: 1
    decay_mult: 1
  }
  param {
    lr_mult: 2
    decay_mult: 0
  }
  convolution_param {
    num_output: 64
    kernel_size: 1
    weight_filler {
      type: "xavier"
      std: 0.1
    }
    bias_filler {
      type: "constant"
      value: 0.2
    }
  }
}
layer {
  name: "inception_4c/relu_pool_proj"
  type: "ReLU"
  bottom: "inception_4c/pool_proj"
  top: "inception_4c/pool_proj"
}
layer {
  name: "inception_4c/output"
  type: "Concat"
  bottom: "inception_4c/1x1"
  bottom: "inception_4c/3x3"
  bottom: "inception_4c/5x5"
  bottom: "inception_4c/pool_proj"
  top: "inception_4c/output"
}
layer {
  name: "inception_4d/1x1"
  type: "Convolution"
  bottom: "inception_4c/output"
  top: "inception_4d/1x1"
  param {
    lr_mult: 1
    decay_mult: 1
  }
  param {
    lr_mult: 2
    decay_mult: 0
  }
  convolution_param {
    num_output: 112
    kernel_size: 1
    weight_filler {
      type: "xavier"
      std: 0.03
    }
    bias_filler {
      type: "constant"
      value: 0.2
    }
  }
}
layer {
  name: "inception_4d/relu_1x1"
  type: "ReLU"
  bottom: "inception_4d/1x1"
  top: "inception_4d/1x1"
}
layer {
  name: "inception_4d/3x3_reduce"
  type: "Convolution"
  bottom: "inception_4c/output"
  top: "inception_4d/3x3_reduce"
  param {
    lr_mult: 1
    decay_mult: 1
  }
  param {
    lr_mult: 2
    decay_mult: 0
  }
  convolution_param {
    num_output: 144
    kernel_size: 1
    weight_filler {
      type: "xavier"
      std: 0.09
    }
    bias_filler {
      type: "constant"
      value: 0.2
    }
  }
}
layer {
  name: "inception_4d/relu_3x3_reduce"
  type: "ReLU"
  bottom: "inception_4d/3x3_reduce"
  top: "inception_4d/3x3_reduce"
}
layer {
  name: "inception_4d/3x3"
  type: "Convolution"
  bottom: "inception_4d/3x3_reduce"
  top: "inception_4d/3x3"
  param {
    lr_mult: 1
    decay_mult: 1
  }
  param {
    lr_mult: 2
    decay_mult: 0
  }
  convolution_param {
    num_output: 288
    pad: 1
    kernel_size: 3
    weight_filler {
      type: "xavier"
      std: 0.03
    }
    bias_filler {
      type: "constant"
      value: 0.2
    }
  }
}
layer {
  name: "inception_4d/relu_3x3"
  type: "ReLU"
  bottom: "inception_4d/3x3"
  top: "inception_4d/3x3"
}
layer {
  name: "inception_4d/5x5_reduce"
  type: "Convolution"
  bottom: "inception_4c/output"
  top: "inception_4d/5x5_reduce"
  param {
    lr_mult: 1
    decay_mult: 1
  }
  param {
    lr_mult: 2
    decay_mult: 0
  }
  convolution_param {
    num_output: 32
    kernel_size: 1
    weight_filler {
      type: "xavier"
      std: 0.2
    }
    bias_filler {
      type: "constant"
      value: 0.2
    }
  }
}
layer {
  name: "inception_4d/relu_5x5_reduce"
  type: "ReLU"
  bottom: "inception_4d/5x5_reduce"
  top: "inception_4d/5x5_reduce"
}
layer {
  name: "inception_4d/5x5"
  type: "Convolution"
  bottom: "inception_4d/5x5_reduce"
  top: "inception_4d/5x5"
  param {
    lr_mult: 1
    decay_mult: 1
  }
  param {
    lr_mult: 2
    decay_mult: 0
  }
  convolution_param {
    num_output: 64
    pad: 2
    kernel_size: 5
    weight_filler {
      type: "xavier"
      std: 0.03
    }
    bias_filler {
      type: "constant"
      value: 0.2
    }
  }
}
layer {
  name: "inception_4d/relu_5x5"
  type: "ReLU"
  bottom: "inception_4d/5x5"
  top: "inception_4d/5x5"
}
layer {
  name: "inception_4d/pool"
  type: "Pooling"
  bottom: "inception_4c/output"
  top: "inception_4d/pool"
  pooling_param {
    pool: MAX
    kernel_size: 3
    stride: 1
    pad: 1
  }
}
layer {
  name: "inception_4d/pool_proj"
  type: "Convolution"
  bottom: "inception_4d/pool"
  top: "inception_4d/pool_proj"
  param {
    lr_mult: 1
    decay_mult: 1
  }
  param {
    lr_mult: 2
    decay_mult: 0
  }
  convolution_param {
    num_output: 64
    kernel_size: 1
    weight_filler {
      type: "xavier"
      std: 0.1
    }
    bias_filler {
      type: "constant"
      value: 0.2
    }
  }
}
layer {
  name: "inception_4d/relu_pool_proj"
  type: "ReLU"
  bottom: "inception_4d/pool_proj"
  top: "inception_4d/pool_proj"
}
layer {
  name: "inception_4d/output"
  type: "Concat"
  bottom: "inception_4d/1x1"
  bottom: "inception_4d/3x3"
  bottom: "inception_4d/5x5"
  bottom: "inception_4d/pool_proj"
  top: "inception_4d/output"
}
layer {
  name: "loss2/ave_pool"
  type: "Pooling"
  bottom: "inception_4d/output"
  top: "loss2/ave_pool"
  pooling_param {
    pool: AVE
    kernel_size: 5
    stride: 3
  }
}
layer {
  name: "loss2/conv"
  type: "Convolution"
  bottom: "loss2/ave_pool"
  top: "loss2/conv"
  param {
    lr_mult: 1
    decay_mult: 1
  }
  param {
    lr_mult: 2
    decay_mult: 0
  }
  convolution_param {
    num_output: 128
    kernel_size: 1
    weight_filler {
      type: "xavier"
      std: 0.08
    }
    bias_filler {
      type: "constant"
      value: 0.2
    }
  }
}
layer {
  name: "loss2/relu_conv"
  type: "ReLU"
  bottom: "loss2/conv"
  top: "loss2/conv"
}
layer {
  name: "loss2/fc"
  type: "InnerProduct"
  bottom: "loss2/conv"
  top: "loss2/fc"
  param {
    lr_mult: 1
    decay_mult: 1
  }
  param {
    lr_mult: 2
    decay_mult: 0
  }
  inner_product_param {
    num_output: 1024
    weight_filler {
      type: "xavier"
      std: 0.02
    }
    bias_filler {
      type: "constant"
      value: 0.2
    }
  }
}
layer {
  name: "loss2/relu_fc"
  type: "ReLU"
  bottom: "loss2/fc"
  top: "loss2/fc"
}
layer {
  name: "loss2/drop_fc"
  type: "Dropout"
  bottom: "loss2/fc"
  top: "loss2/fc"
  dropout_param {
    dropout_ratio: 0.7
  }
}
layer {
  name: "loss2/classifier_plantvillage"
  type: "InnerProduct"
  bottom: "loss2/fc"
  top: "loss2/classifier_plantvillage"
  param {
    lr_mult: 1
    decay_mult: 1
  }
  param {
    lr_mult: 2
    decay_mult: 0
  }
  inner_product_param {
    num_output: 38
    weight_filler {
      type: "xavier"
      std: 0.0009765625
    }
    bias_filler {
      type: "constant"
      value: 0
    }
  }
}
layer {
  name: "inception_4e/1x1"
  type: "Convolution"
  bottom: "inception_4d/output"
  top: "inception_4e/1x1"
  param {
    lr_mult: 1
    decay_mult: 1
  }
  param {
    lr_mult: 2
    decay_mult: 0
  }
  convolution_param {
    num_output: 256
    kernel_size: 1
    weight_filler {
      type: "xavier"
      std: 0.03
    }
    bias_filler {
      type: "constant"
      value: 0.2
    }
  }
}
layer {
  name: "inception_4e/relu_1x1"
  type: "ReLU"
  bottom: "inception_4e/1x1"
  top: "inception_4e/1x1"
}
layer {
  name: "inception_4e/3x3_reduce"
  type: "Convolution"
  bottom: "inception_4d/output"
  top: "inception_4e/3x3_reduce"
  param {
    lr_mult: 1
    decay_mult: 1
  }
  param {
    lr_mult: 2
    decay_mult: 0
  }
  convolution_param {
    num_output: 160
    kernel_size: 1
    weight_filler {
      type: "xavier"
      std: 0.09
    }
    bias_filler {
      type: "constant"
      value: 0.2
    }
  }
}
layer {
  name: "inception_4e/relu_3x3_reduce"
  type: "ReLU"
  bottom: "inception_4e/3x3_reduce"
  top: "inception_4e/3x3_reduce"
}
layer {
  name: "inception_4e/3x3"
  type: "Convolution"
  bottom: "inception_4e/3x3_reduce"
  top: "inception_4e/3x3"
  param {
    lr_mult: 1
    decay_mult: 1
  }
  param {
    lr_mult: 2
    decay_mult: 0
  }
  convolution_param {
    num_output: 320
    pad: 1
    kernel_size: 3
    weight_filler {
      type: "xavier"
      std: 0.03
    }
    bias_filler {
      type: "constant"
      value: 0.2
    }
  }
}
layer {
  name: "inception_4e/relu_3x3"
  type: "ReLU"
  bottom: "inception_4e/3x3"
  top: "inception_4e/3x3"
}
layer {
  name: "inception_4e/5x5_reduce"
  type: "Convolution"
  bottom: "inception_4d/output"
  top: "inception_4e/5x5_reduce"
  param {
    lr_mult: 1
    decay_mult: 1
  }
  param {
    lr_mult: 2
    decay_mult: 0
  }
  convolution_param {
    num_output: 32
    kernel_size: 1
    weight_filler {
      type: "xavier"
      std: 0.2
    }
    bias_filler {
      type: "constant"
      value: 0.2
    }
  }
}
layer {
  name: "inception_4e/relu_5x5_reduce"
  type: "ReLU"
  bottom: "inception_4e/5x5_reduce"
  top: "inception_4e/5x5_reduce"
}
layer {
  name: "inception_4e/5x5"
  type: "Convolution"
  bottom: "inception_4e/5x5_reduce"
  top: "inception_4e/5x5"
  p
I0403 14:43:42.914983 30220 layer_factory.hpp:77] Creating layer data
I0403 14:43:42.915596 30220 net.cpp:91] Creating Layer data
I0403 14:43:42.915629 30220 net.cpp:399] data -> data
I0403 14:43:42.915680 30220 net.cpp:399] data -> label
I0403 14:43:42.915719 30220 data_transformer.cpp:25] Loading mean file from: /home/mohanty/data/final_dataset/lmdb/color-20-80/mean.binaryproto
I0403 14:43:42.917935 30225 db_lmdb.cpp:38] Opened lmdb /home/mohanty/data/final_dataset/lmdb/color-20-80/test_db
I0403 14:43:42.929317 30220 data_layer.cpp:41] output data size: 24,3,224,224
I0403 14:43:42.956573 30220 net.cpp:141] Setting up data
I0403 14:43:42.956634 30220 net.cpp:148] Top shape: 24 3 224 224 (3612672)
I0403 14:43:42.956657 30220 net.cpp:148] Top shape: 24 (24)
I0403 14:43:42.956673 30220 net.cpp:156] Memory required for data: 14450784
I0403 14:43:42.956704 30220 layer_factory.hpp:77] Creating layer label_data_1_split
I0403 14:43:42.956733 30220 net.cpp:91] Creating Layer label_data_1_split
I0403 14:43:42.956751 30220 net.cpp:425] label_data_1_split <- label
I0403 14:43:42.956784 30220 net.cpp:399] label_data_1_split -> label_data_1_split_0
I0403 14:43:42.956812 30220 net.cpp:399] label_data_1_split -> label_data_1_split_1
I0403 14:43:42.956835 30220 net.cpp:399] label_data_1_split -> label_data_1_split_2
I0403 14:43:42.956856 30220 net.cpp:399] label_data_1_split -> label_data_1_split_3
I0403 14:43:42.956878 30220 net.cpp:399] label_data_1_split -> label_data_1_split_4
I0403 14:43:42.956899 30220 net.cpp:399] label_data_1_split -> label_data_1_split_5
I0403 14:43:42.956919 30220 net.cpp:399] label_data_1_split -> label_data_1_split_6
I0403 14:43:42.956940 30220 net.cpp:399] label_data_1_split -> label_data_1_split_7
I0403 14:43:42.956961 30220 net.cpp:399] label_data_1_split -> label_data_1_split_8
I0403 14:43:42.956982 30220 net.cpp:399] label_data_1_split -> label_data_1_split_9
I0403 14:43:42.957100 30220 net.cpp:141] Setting up label_data_1_split
I0403 14:43:42.957125 30220 net.cpp:148] Top shape: 24 (24)
I0403 14:43:42.957144 30220 net.cpp:148] Top shape: 24 (24)
I0403 14:43:42.957159 30220 net.cpp:148] Top shape: 24 (24)
I0403 14:43:42.957176 30220 net.cpp:148] Top shape: 24 (24)
I0403 14:43:42.957192 30220 net.cpp:148] Top shape: 24 (24)
I0403 14:43:42.957211 30220 net.cpp:148] Top shape: 24 (24)
I0403 14:43:42.957228 30220 net.cpp:148] Top shape: 24 (24)
I0403 14:43:42.957245 30220 net.cpp:148] Top shape: 24 (24)
I0403 14:43:42.957262 30220 net.cpp:148] Top shape: 24 (24)
I0403 14:43:42.957279 30220 net.cpp:148] Top shape: 24 (24)
I0403 14:43:42.957351 30220 net.cpp:156] Memory required for data: 14451744
I0403 14:43:42.957370 30220 layer_factory.hpp:77] Creating layer conv1/7x7_s2
I0403 14:43:42.957403 30220 net.cpp:91] Creating Layer conv1/7x7_s2
I0403 14:43:42.957424 30220 net.cpp:425] conv1/7x7_s2 <- data
I0403 14:43:42.957445 30220 net.cpp:399] conv1/7x7_s2 -> conv1/7x7_s2
I0403 14:43:43.097733 30220 net.cpp:141] Setting up conv1/7x7_s2
I0403 14:43:43.097806 30220 net.cpp:148] Top shape: 24 64 112 112 (19267584)
I0403 14:43:43.097823 30220 net.cpp:156] Memory required for data: 91522080
I0403 14:43:43.097856 30220 layer_factory.hpp:77] Creating layer conv1/relu_7x7
I0403 14:43:43.097885 30220 net.cpp:91] Creating Layer conv1/relu_7x7
I0403 14:43:43.097904 30220 net.cpp:425] conv1/relu_7x7 <- conv1/7x7_s2
I0403 14:43:43.097935 30220 net.cpp:386] conv1/relu_7x7 -> conv1/7x7_s2 (in-place)
I0403 14:43:43.098196 30220 net.cpp:141] Setting up conv1/relu_7x7
I0403 14:43:43.098224 30220 net.cpp:148] Top shape: 24 64 112 112 (19267584)
I0403 14:43:43.098242 30220 net.cpp:156] Memory required for data: 168592416
I0403 14:43:43.098258 30220 layer_factory.hpp:77] Creating layer pool1/3x3_s2
I0403 14:43:43.098284 30220 net.cpp:91] Creating Layer pool1/3x3_s2
I0403 14:43:43.098304 30220 net.cpp:425] pool1/3x3_s2 <- conv1/7x7_s2
I0403 14:43:43.098331 30220 net.cpp:399] pool1/3x3_s2 -> pool1/3x3_s2
I0403 14:43:43.098408 30220 net.cpp:141] Setting up pool1/3x3_s2
I0403 14:43:43.098433 30220 net.cpp:148] Top shape: 24 64 56 56 (4816896)
I0403 14:43:43.098450 30220 net.cpp:156] Memory required for data: 187860000
I0403 14:43:43.098466 30220 layer_factory.hpp:77] Creating layer pool1/norm1
I0403 14:43:43.098492 30220 net.cpp:91] Creating Layer pool1/norm1
I0403 14:43:43.098511 30220 net.cpp:425] pool1/norm1 <- pool1/3x3_s2
I0403 14:43:43.098532 30220 net.cpp:399] pool1/norm1 -> pool1/norm1
I0403 14:43:43.098819 30220 net.cpp:141] Setting up pool1/norm1
I0403 14:43:43.098847 30220 net.cpp:148] Top shape: 24 64 56 56 (4816896)
I0403 14:43:43.098863 30220 net.cpp:156] Memory required for data: 207127584
I0403 14:43:43.098880 30220 layer_factory.hpp:77] Creating layer conv2/3x3_reduce
I0403 14:43:43.098906 30220 net.cpp:91] Creating Layer conv2/3x3_reduce
I0403 14:43:43.098924 30220 net.cpp:425] conv2/3x3_reduce <- pool1/norm1
I0403 14:43:43.098944 30220 net.cpp:399] conv2/3x3_reduce -> conv2/3x3_reduce
I0403 14:43:43.100363 30220 net.cpp:141] Setting up conv2/3x3_reduce
I0403 14:43:43.100395 30220 net.cpp:148] Top shape: 24 64 56 56 (4816896)
I0403 14:43:43.100412 30220 net.cpp:156] Memory required for data: 226395168
I0403 14:43:43.100436 30220 layer_factory.hpp:77] Creating layer conv2/relu_3x3_reduce
I0403 14:43:43.100457 30220 net.cpp:91] Creating Layer conv2/relu_3x3_reduce
I0403 14:43:43.100474 30220 net.cpp:425] conv2/relu_3x3_reduce <- conv2/3x3_reduce
I0403 14:43:43.100493 30220 net.cpp:386] conv2/relu_3x3_reduce -> conv2/3x3_reduce (in-place)
I0403 14:43:43.100752 30220 net.cpp:141] Setting up conv2/relu_3x3_reduce
I0403 14:43:43.100781 30220 net.cpp:148] Top shape: 24 64 56 56 (4816896)
I0403 14:43:43.100798 30220 net.cpp:156] Memory required for data: 245662752
I0403 14:43:43.100816 30220 layer_factory.hpp:77] Creating layer conv2/3x3
I0403 14:43:43.100841 30220 net.cpp:91] Creating Layer conv2/3x3
I0403 14:43:43.100865 30220 net.cpp:425] conv2/3x3 <- conv2/3x3_reduce
I0403 14:43:43.100885 30220 net.cpp:399] conv2/3x3 -> conv2/3x3
I0403 14:43:43.103291 30220 net.cpp:141] Setting up conv2/3x3
I0403 14:43:43.103327 30220 net.cpp:148] Top shape: 24 192 56 56 (14450688)
I0403 14:43:43.103348 30220 net.cpp:156] Memory required for data: 303465504
I0403 14:43:43.103373 30220 layer_factory.hpp:77] Creating layer conv2/relu_3x3
I0403 14:43:43.103394 30220 net.cpp:91] Creating Layer conv2/relu_3x3
I0403 14:43:43.103411 30220 net.cpp:425] conv2/relu_3x3 <- conv2/3x3
I0403 14:43:43.103440 30220 net.cpp:386] conv2/relu_3x3 -> conv2/3x3 (in-place)
I0403 14:43:43.103617 30220 net.cpp:141] Setting up conv2/relu_3x3
I0403 14:43:43.103643 30220 net.cpp:148] Top shape: 24 192 56 56 (14450688)
I0403 14:43:43.103693 30220 net.cpp:156] Memory required for data: 361268256
I0403 14:43:43.103709 30220 layer_factory.hpp:77] Creating layer conv2/norm2
I0403 14:43:43.103729 30220 net.cpp:91] Creating Layer conv2/norm2
I0403 14:43:43.103757 30220 net.cpp:425] conv2/norm2 <- conv2/3x3
I0403 14:43:43.103777 30220 net.cpp:399] conv2/norm2 -> conv2/norm2
I0403 14:43:43.104084 30220 net.cpp:141] Setting up conv2/norm2
I0403 14:43:43.104113 30220 net.cpp:148] Top shape: 24 192 56 56 (14450688)
I0403 14:43:43.104131 30220 net.cpp:156] Memory required for data: 419071008
I0403 14:43:43.104147 30220 layer_factory.hpp:77] Creating layer pool2/3x3_s2
I0403 14:43:43.104168 30220 net.cpp:91] Creating Layer pool2/3x3_s2
I0403 14:43:43.104187 30220 net.cpp:425] pool2/3x3_s2 <- conv2/norm2
I0403 14:43:43.104207 30220 net.cpp:399] pool2/3x3_s2 -> pool2/3x3_s2
I0403 14:43:43.104259 30220 net.cpp:141] Setting up pool2/3x3_s2
I0403 14:43:43.104284 30220 net.cpp:148] Top shape: 24 192 28 28 (3612672)
I0403 14:43:43.104300 30220 net.cpp:156] Memory required for data: 433521696
I0403 14:43:43.104328 30220 layer_factory.hpp:77] Creating layer pool2/3x3_s2_pool2/3x3_s2_0_split
I0403 14:43:43.104352 30220 net.cpp:91] Creating Layer pool2/3x3_s2_pool2/3x3_s2_0_split
I0403 14:43:43.104370 30220 net.cpp:425] pool2/3x3_s2_pool2/3x3_s2_0_split <- pool2/3x3_s2
I0403 14:43:43.104392 30220 net.cpp:399] pool2/3x3_s2_pool2/3x3_s2_0_split -> pool2/3x3_s2_pool2/3x3_s2_0_split_0
I0403 14:43:43.104413 30220 net.cpp:399] pool2/3x3_s2_pool2/3x3_s2_0_split -> pool2/3x3_s2_pool2/3x3_s2_0_split_1
I0403 14:43:43.104435 30220 net.cpp:399] pool2/3x3_s2_pool2/3x3_s2_0_split -> pool2/3x3_s2_pool2/3x3_s2_0_split_2
I0403 14:43:43.104457 30220 net.cpp:399] pool2/3x3_s2_pool2/3x3_s2_0_split -> pool2/3x3_s2_pool2/3x3_s2_0_split_3
I0403 14:43:43.104526 30220 net.cpp:141] Setting up pool2/3x3_s2_pool2/3x3_s2_0_split
I0403 14:43:43.104552 30220 net.cpp:148] Top shape: 24 192 28 28 (3612672)
I0403 14:43:43.104569 30220 net.cpp:148] Top shape: 24 192 28 28 (3612672)
I0403 14:43:43.104588 30220 net.cpp:148] Top shape: 24 192 28 28 (3612672)
I0403 14:43:43.104604 30220 net.cpp:148] Top shape: 24 192 28 28 (3612672)
I0403 14:43:43.104619 30220 net.cpp:156] Memory required for data: 491324448
I0403 14:43:43.104635 30220 layer_factory.hpp:77] Creating layer inception_3a/1x1
I0403 14:43:43.104657 30220 net.cpp:91] Creating Layer inception_3a/1x1
I0403 14:43:43.104676 30220 net.cpp:425] inception_3a/1x1 <- pool2/3x3_s2_pool2/3x3_s2_0_split_0
I0403 14:43:43.104698 30220 net.cpp:399] inception_3a/1x1 -> inception_3a/1x1
I0403 14:43:43.106200 30220 net.cpp:141] Setting up inception_3a/1x1
I0403 14:43:43.106233 30220 net.cpp:148] Top shape: 24 64 28 28 (1204224)
I0403 14:43:43.106251 30220 net.cpp:156] Memory required for data: 496141344
I0403 14:43:43.106273 30220 layer_factory.hpp:77] Creating layer inception_3a/relu_1x1
I0403 14:43:43.106302 30220 net.cpp:91] Creating Layer inception_3a/relu_1x1
I0403 14:43:43.106333 30220 net.cpp:425] inception_3a/relu_1x1 <- inception_3a/1x1
I0403 14:43:43.106354 30220 net.cpp:386] inception_3a/relu_1x1 -> inception_3a/1x1 (in-place)
I0403 14:43:43.106523 30220 net.cpp:141] Setting up inception_3a/relu_1x1
I0403 14:43:43.106550 30220 net.cpp:148] Top shape: 24 64 28 28 (1204224)
I0403 14:43:43.106567 30220 net.cpp:156] Memory required for data: 500958240
I0403 14:43:43.106585 30220 layer_factory.hpp:77] Creating layer inception_3a/3x3_reduce
I0403 14:43:43.106608 30220 net.cpp:91] Creating Layer inception_3a/3x3_reduce
I0403 14:43:43.106634 30220 net.cpp:425] inception_3a/3x3_reduce <- pool2/3x3_s2_pool2/3x3_s2_0_split_1
I0403 14:43:43.106654 30220 net.cpp:399] inception_3a/3x3_reduce -> inception_3a/3x3_reduce
I0403 14:43:43.108355 30220 net.cpp:141] Setting up inception_3a/3x3_reduce
I0403 14:43:43.108387 30220 net.cpp:148] Top shape: 24 96 28 28 (1806336)
I0403 14:43:43.108404 30220 net.cpp:156] Memory required for data: 508183584
I0403 14:43:43.108428 30220 layer_factory.hpp:77] Creating layer inception_3a/relu_3x3_reduce
I0403 14:43:43.108466 30220 net.cpp:91] Creating Layer inception_3a/relu_3x3_reduce
I0403 14:43:43.108486 30220 net.cpp:425] inception_3a/relu_3x3_reduce <- inception_3a/3x3_reduce
I0403 14:43:43.108506 30220 net.cpp:386] inception_3a/relu_3x3_reduce -> inception_3a/3x3_reduce (in-place)
I0403 14:43:43.108686 30220 net.cpp:141] Setting up inception_3a/relu_3x3_reduce
I0403 14:43:43.108714 30220 net.cpp:148] Top shape: 24 96 28 28 (1806336)
I0403 14:43:43.108731 30220 net.cpp:156] Memory required for data: 515408928
I0403 14:43:43.108747 30220 layer_factory.hpp:77] Creating layer inception_3a/3x3
I0403 14:43:43.108769 30220 net.cpp:91] Creating Layer inception_3a/3x3
I0403 14:43:43.108788 30220 net.cpp:425] inception_3a/3x3 <- inception_3a/3x3_reduce
I0403 14:43:43.108808 30220 net.cpp:399] inception_3a/3x3 -> inception_3a/3x3
I0403 14:43:43.110545 30220 net.cpp:141] Setting up inception_3a/3x3
I0403 14:43:43.110577 30220 net.cpp:148] Top shape: 24 128 28 28 (2408448)
I0403 14:43:43.110605 30220 net.cpp:156] Memory required for data: 525042720
I0403 14:43:43.110625 30220 layer_factory.hpp:77] Creating layer inception_3a/relu_3x3
I0403 14:43:43.110646 30220 net.cpp:91] Creating Layer inception_3a/relu_3x3
I0403 14:43:43.110663 30220 net.cpp:425] inception_3a/relu_3x3 <- inception_3a/3x3
I0403 14:43:43.110684 30220 net.cpp:386] inception_3a/relu_3x3 -> inception_3a/3x3 (in-place)
I0403 14:43:43.110982 30220 net.cpp:141] Setting up inception_3a/relu_3x3
I0403 14:43:43.111011 30220 net.cpp:148] Top shape: 24 128 28 28 (2408448)
I0403 14:43:43.111028 30220 net.cpp:156] Memory required for data: 534676512
I0403 14:43:43.111045 30220 layer_factory.hpp:77] Creating layer inception_3a/5x5_reduce
I0403 14:43:43.111071 30220 net.cpp:91] Creating Layer inception_3a/5x5_reduce
I0403 14:43:43.111091 30220 net.cpp:425] inception_3a/5x5_reduce <- pool2/3x3_s2_pool2/3x3_s2_0_split_2
I0403 14:43:43.111114 30220 net.cpp:399] inception_3a/5x5_reduce -> inception_3a/5x5_reduce
I0403 14:43:43.112117 30220 net.cpp:141] Setting up inception_3a/5x5_reduce
I0403 14:43:43.112146 30220 net.cpp:148] Top shape: 24 16 28 28 (301056)
I0403 14:43:43.112167 30220 net.cpp:156] Memory required for data: 535880736
I0403 14:43:43.112195 30220 layer_factory.hpp:77] Creating layer inception_3a/relu_5x5_reduce
I0403 14:43:43.112216 30220 net.cpp:91] Creating Layer inception_3a/relu_5x5_reduce
I0403 14:43:43.112236 30220 net.cpp:425] inception_3a/relu_5x5_reduce <- inception_3a/5x5_reduce
I0403 14:43:43.112254 30220 net.cpp:386] inception_3a/relu_5x5_reduce -> inception_3a/5x5_reduce (in-place)
I0403 14:43:43.112577 30220 net.cpp:141] Setting up inception_3a/relu_5x5_reduce
I0403 14:43:43.112607 30220 net.cpp:148] Top shape: 24 16 28 28 (301056)
I0403 14:43:43.112623 30220 net.cpp:156] Memory required for data: 537084960
I0403 14:43:43.112639 30220 layer_factory.hpp:77] Creating layer inception_3a/5x5
I0403 14:43:43.112664 30220 net.cpp:91] Creating Layer inception_3a/5x5
I0403 14:43:43.112684 30220 net.cpp:425] inception_3a/5x5 <- inception_3a/5x5_reduce
I0403 14:43:43.112707 30220 net.cpp:399] inception_3a/5x5 -> inception_3a/5x5
I0403 14:43:43.113787 30220 net.cpp:141] Setting up inception_3a/5x5
I0403 14:43:43.113818 30220 net.cpp:148] Top shape: 24 32 28 28 (602112)
I0403 14:43:43.113836 30220 net.cpp:156] Memory required for data: 539493408
I0403 14:43:43.113857 30220 layer_factory.hpp:77] Creating layer inception_3a/relu_5x5
I0403 14:43:43.113876 30220 net.cpp:91] Creating Layer inception_3a/relu_5x5
I0403 14:43:43.113893 30220 net.cpp:425] inception_3a/relu_5x5 <- inception_3a/5x5
I0403 14:43:43.113915 30220 net.cpp:386] inception_3a/relu_5x5 -> inception_3a/5x5 (in-place)
I0403 14:43:43.114099 30220 net.cpp:141] Setting up inception_3a/relu_5x5
I0403 14:43:43.114126 30220 net.cpp:148] Top shape: 24 32 28 28 (602112)
I0403 14:43:43.114142 30220 net.cpp:156] Memory required for data: 541901856
I0403 14:43:43.114159 30220 layer_factory.hpp:77] Creating layer inception_3a/pool
I0403 14:43:43.114182 30220 net.cpp:91] Creating Layer inception_3a/pool
I0403 14:43:43.114199 30220 net.cpp:425] inception_3a/pool <- pool2/3x3_s2_pool2/3x3_s2_0_split_3
I0403 14:43:43.114234 30220 net.cpp:399] inception_3a/pool -> inception_3a/pool
I0403 14:43:43.114298 30220 net.cpp:141] Setting up inception_3a/pool
I0403 14:43:43.114328 30220 net.cpp:148] Top shape: 24 192 28 28 (3612672)
I0403 14:43:43.114346 30220 net.cpp:156] Memory required for data: 556352544
I0403 14:43:43.114363 30220 layer_factory.hpp:77] Creating layer inception_3a/pool_proj
I0403 14:43:43.114387 30220 net.cpp:91] Creating Layer inception_3a/pool_proj
I0403 14:43:43.114406 30220 net.cpp:425] inception_3a/pool_proj <- inception_3a/pool
I0403 14:43:43.114429 30220 net.cpp:399] inception_3a/pool_proj -> inception_3a/pool_proj
I0403 14:43:43.115433 30220 net.cpp:141] Setting up inception_3a/pool_proj
I0403 14:43:43.115466 30220 net.cpp:148] Top shape: 24 32 28 28 (602112)
I0403 14:43:43.115485 30220 net.cpp:156] Memory required for data: 558760992
I0403 14:43:43.115509 30220 layer_factory.hpp:77] Creating layer inception_3a/relu_pool_proj
I0403 14:43:43.115532 30220 net.cpp:91] Creating Layer inception_3a/relu_pool_proj
I0403 14:43:43.115550 30220 net.cpp:425] inception_3a/relu_pool_proj <- inception_3a/pool_proj
I0403 14:43:43.115569 30220 net.cpp:386] inception_3a/relu_pool_proj -> inception_3a/pool_proj (in-place)
I0403 14:43:43.115859 30220 net.cpp:141] Setting up inception_3a/relu_pool_proj
I0403 14:43:43.115888 30220 net.cpp:148] Top shape: 24 32 28 28 (602112)
I0403 14:43:43.115906 30220 net.cpp:156] Memory required for data: 561169440
I0403 14:43:43.115923 30220 layer_factory.hpp:77] Creating layer inception_3a/output
I0403 14:43:43.115943 30220 net.cpp:91] Creating Layer inception_3a/output
I0403 14:43:43.115960 30220 net.cpp:425] inception_3a/output <- inception_3a/1x1
I0403 14:43:43.115978 30220 net.cpp:425] inception_3a/output <- inception_3a/3x3
I0403 14:43:43.115996 30220 net.cpp:425] inception_3a/output <- inception_3a/5x5
I0403 14:43:43.116014 30220 net.cpp:425] inception_3a/output <- inception_3a/pool_proj
I0403 14:43:43.116034 30220 net.cpp:399] inception_3a/output -> inception_3a/output
I0403 14:43:43.116083 30220 net.cpp:141] Setting up inception_3a/output
I0403 14:43:43.116113 30220 net.cpp:148] Top shape: 24 256 28 28 (4816896)
I0403 14:43:43.116130 30220 net.cpp:156] Memory required for data: 580437024
I0403 14:43:43.116147 30220 layer_factory.hpp:77] Creating layer inception_3a/output_inception_3a/output_0_split
I0403 14:43:43.116166 30220 net.cpp:91] Creating Layer inception_3a/output_inception_3a/output_0_split
I0403 14:43:43.116183 30220 net.cpp:425] inception_3a/output_inception_3a/output_0_split <- inception_3a/output
I0403 14:43:43.116201 30220 net.cpp:399] inception_3a/output_inception_3a/output_0_split -> inception_3a/output_inception_3a/output_0_split_0
I0403 14:43:43.116222 30220 net.cpp:399] inception_3a/output_inception_3a/output_0_split -> inception_3a/output_inception_3a/output_0_split_1
I0403 14:43:43.116250 30220 net.cpp:399] inception_3a/output_inception_3a/output_0_split -> inception_3a/output_inception_3a/output_0_split_2
I0403 14:43:43.116272 30220 net.cpp:399] inception_3a/output_inception_3a/output_0_split -> inception_3a/output_inception_3a/output_0_split_3
I0403 14:43:43.116355 30220 net.cpp:141] Setting up inception_3a/output_inception_3a/output_0_split
I0403 14:43:43.116384 30220 net.cpp:148] Top shape: 24 256 28 28 (4816896)
I0403 14:43:43.116405 30220 net.cpp:148] Top shape: 24 256 28 28 (4816896)
I0403 14:43:43.116422 30220 net.cpp:148] Top shape: 24 256 28 28 (4816896)
I0403 14:43:43.116441 30220 net.cpp:148] Top shape: 24 256 28 28 (4816896)
I0403 14:43:43.116456 30220 net.cpp:156] Memory required for data: 657507360
I0403 14:43:43.116471 30220 layer_factory.hpp:77] Creating layer inception_3b/1x1
I0403 14:43:43.116495 30220 net.cpp:91] Creating Layer inception_3b/1x1
I0403 14:43:43.116514 30220 net.cpp:425] inception_3b/1x1 <- inception_3a/output_inception_3a/output_0_split_0
I0403 14:43:43.116536 30220 net.cpp:399] inception_3b/1x1 -> inception_3b/1x1
I0403 14:43:43.117723 30220 net.cpp:141] Setting up inception_3b/1x1
I0403 14:43:43.117769 30220 net.cpp:148] Top shape: 24 128 28 28 (2408448)
I0403 14:43:43.117787 30220 net.cpp:156] Memory required for data: 667141152
I0403 14:43:43.117807 30220 layer_factory.hpp:77] Creating layer inception_3b/relu_1x1
I0403 14:43:43.117827 30220 net.cpp:91] Creating Layer inception_3b/relu_1x1
I0403 14:43:43.117844 30220 net.cpp:425] inception_3b/relu_1x1 <- inception_3b/1x1
I0403 14:43:43.117866 30220 net.cpp:386] inception_3b/relu_1x1 -> inception_3b/1x1 (in-place)
I0403 14:43:43.118049 30220 net.cpp:141] Setting up inception_3b/relu_1x1
I0403 14:43:43.118077 30220 net.cpp:148] Top shape: 24 128 28 28 (2408448)
I0403 14:43:43.118098 30220 net.cpp:156] Memory required for data: 676774944
I0403 14:43:43.118113 30220 layer_factory.hpp:77] Creating layer inception_3b/3x3_reduce
I0403 14:43:43.118137 30220 net.cpp:91] Creating Layer inception_3b/3x3_reduce
I0403 14:43:43.118157 30220 net.cpp:425] inception_3b/3x3_reduce <- inception_3a/output_inception_3a/output_0_split_1
I0403 14:43:43.118180 30220 net.cpp:399] inception_3b/3x3_reduce -> inception_3b/3x3_reduce
I0403 14:43:43.119390 30220 net.cpp:141] Setting up inception_3b/3x3_reduce
I0403 14:43:43.119422 30220 net.cpp:148] Top shape: 24 128 28 28 (2408448)
I0403 14:43:43.119439 30220 net.cpp:156] Memory required for data: 686408736
I0403 14:43:43.119460 30220 layer_factory.hpp:77] Creating layer inception_3b/relu_3x3_reduce
I0403 14:43:43.119479 30220 net.cpp:91] Creating Layer inception_3b/relu_3x3_reduce
I0403 14:43:43.119498 30220 net.cpp:425] inception_3b/relu_3x3_reduce <- inception_3b/3x3_reduce
I0403 14:43:43.119515 30220 net.cpp:386] inception_3b/relu_3x3_reduce -> inception_3b/3x3_reduce (in-place)
I0403 14:43:43.119695 30220 net.cpp:141] Setting up inception_3b/relu_3x3_reduce
I0403 14:43:43.119721 30220 net.cpp:148] Top shape: 24 128 28 28 (2408448)
I0403 14:43:43.119737 30220 net.cpp:156] Memory required for data: 696042528
I0403 14:43:43.119753 30220 layer_factory.hpp:77] Creating layer inception_3b/3x3
I0403 14:43:43.119781 30220 net.cpp:91] Creating Layer inception_3b/3x3
I0403 14:43:43.119799 30220 net.cpp:425] inception_3b/3x3 <- inception_3b/3x3_reduce
I0403 14:43:43.119824 30220 net.cpp:399] inception_3b/3x3 -> inception_3b/3x3
I0403 14:43:43.122761 30220 net.cpp:141] Setting up inception_3b/3x3
I0403 14:43:43.122792 30220 net.cpp:148] Top shape: 24 192 28 28 (3612672)
I0403 14:43:43.122807 30220 net.cpp:156] Memory required for data: 710493216
I0403 14:43:43.122828 30220 layer_factory.hpp:77] Creating layer inception_3b/relu_3x3
I0403 14:43:43.122845 30220 net.cpp:91] Creating Layer inception_3b/relu_3x3
I0403 14:43:43.122861 30220 net.cpp:425] inception_3b/relu_3x3 <- inception_3b/3x3
I0403 14:43:43.122881 30220 net.cpp:386] inception_3b/relu_3x3 -> inception_3b/3x3 (in-place)
I0403 14:43:43.123157 30220 net.cpp:141] Setting up inception_3b/relu_3x3
I0403 14:43:43.123183 30220 net.cpp:148] Top shape: 24 192 28 28 (3612672)
I0403 14:43:43.123201 30220 net.cpp:156] Memory required for data: 724943904
I0403 14:43:43.123216 30220 layer_factory.hpp:77] Creating layer inception_3b/5x5_reduce
I0403 14:43:43.123239 30220 net.cpp:91] Creating Layer inception_3b/5x5_reduce
I0403 14:43:43.123257 30220 net.cpp:425] inception_3b/5x5_reduce <- inception_3a/output_inception_3a/output_0_split_2
I0403 14:43:43.123281 30220 net.cpp:399] inception_3b/5x5_reduce -> inception_3b/5x5_reduce
I0403 14:43:43.124269 30220 net.cpp:141] Setting up inception_3b/5x5_reduce
I0403 14:43:43.124297 30220 net.cpp:148] Top shape: 24 32 28 28 (602112)
I0403 14:43:43.124313 30220 net.cpp:156] Memory required for data: 727352352
I0403 14:43:43.124346 30220 layer_factory.hpp:77] Creating layer inception_3b/relu_5x5_reduce
I0403 14:43:43.124367 30220 net.cpp:91] Creating Layer inception_3b/relu_5x5_reduce
I0403 14:43:43.124384 30220 net.cpp:425] inception_3b/relu_5x5_reduce <- inception_3b/5x5_reduce
I0403 14:43:43.124404 30220 net.cpp:386] inception_3b/relu_5x5_reduce -> inception_3b/5x5_reduce (in-place)
I0403 14:43:43.124580 30220 net.cpp:141] Setting up inception_3b/relu_5x5_reduce
I0403 14:43:43.124619 30220 net.cpp:148] Top shape: 24 32 28 28 (602112)
I0403 14:43:43.124634 30220 net.cpp:156] Memory required for data: 729760800
I0403 14:43:43.124651 30220 layer_factory.hpp:77] Creating layer inception_3b/5x5
I0403 14:43:43.124675 30220 net.cpp:91] Creating Layer inception_3b/5x5
I0403 14:43:43.124692 30220 net.cpp:425] inception_3b/5x5 <- inception_3b/5x5_reduce
I0403 14:43:43.124713 30220 net.cpp:399] inception_3b/5x5 -> inception_3b/5x5
I0403 14:43:43.126673 30220 net.cpp:141] Setting up inception_3b/5x5
I0403 14:43:43.126706 30220 net.cpp:148] Top shape: 24 96 28 28 (1806336)
I0403 14:43:43.126724 30220 net.cpp:156] Memory required for data: 736986144
I0403 14:43:43.126744 30220 layer_factory.hpp:77] Creating layer inception_3b/relu_5x5
I0403 14:43:43.126761 30220 net.cpp:91] Creating Layer inception_3b/relu_5x5
I0403 14:43:43.126778 30220 net.cpp:425] inception_3b/relu_5x5 <- inception_3b/5x5
I0403 14:43:43.126796 30220 net.cpp:386] inception_3b/relu_5x5 -> inception_3b/5x5 (in-place)
I0403 14:43:43.126991 30220 net.cpp:141] Setting up inception_3b/relu_5x5
I0403 14:43:43.127017 30220 net.cpp:148] Top shape: 24 96 28 28 (1806336)
I0403 14:43:43.127032 30220 net.cpp:156] Memory required for data: 744211488
I0403 14:43:43.127048 30220 layer_factory.hpp:77] Creating layer inception_3b/pool
I0403 14:43:43.127065 30220 net.cpp:91] Creating Layer inception_3b/pool
I0403 14:43:43.127082 30220 net.cpp:425] inception_3b/pool <- inception_3a/output_inception_3a/output_0_split_3
I0403 14:43:43.127100 30220 net.cpp:399] inception_3b/pool -> inception_3b/pool
I0403 14:43:43.127156 30220 net.cpp:141] Setting up inception_3b/pool
I0403 14:43:43.127182 30220 net.cpp:148] Top shape: 24 256 28 28 (4816896)
I0403 14:43:43.127198 30220 net.cpp:156] Memory required for data: 763479072
I0403 14:43:43.127213 30220 layer_factory.hpp:77] Creating layer inception_3b/pool_proj
I0403 14:43:43.127238 30220 net.cpp:91] Creating Layer inception_3b/pool_proj
I0403 14:43:43.127255 30220 net.cpp:425] inception_3b/pool_proj <- inception_3b/pool
I0403 14:43:43.127275 30220 net.cpp:399] inception_3b/pool_proj -> inception_3b/pool_proj
I0403 14:43:43.128312 30220 net.cpp:141] Setting up inception_3b/pool_proj
I0403 14:43:43.128345 30220 net.cpp:148] Top shape: 24 64 28 28 (1204224)
I0403 14:43:43.128361 30220 net.cpp:156] Memory required for data: 768295968
I0403 14:43:43.128381 30220 layer_factory.hpp:77] Creating layer inception_3b/relu_pool_proj
I0403 14:43:43.128402 30220 net.cpp:91] Creating Layer inception_3b/relu_pool_proj
I0403 14:43:43.128420 30220 net.cpp:425] inception_3b/relu_pool_proj <- inception_3b/pool_proj
I0403 14:43:43.128438 30220 net.cpp:386] inception_3b/relu_pool_proj -> inception_3b/pool_proj (in-place)
I0403 14:43:43.128831 30220 net.cpp:141] Setting up inception_3b/relu_pool_proj
I0403 14:43:43.128859 30220 net.cpp:148] Top shape: 24 64 28 28 (1204224)
I0403 14:43:43.128875 30220 net.cpp:156] Memory required for data: 773112864
I0403 14:43:43.128891 30220 layer_factory.hpp:77] Creating layer inception_3b/output
I0403 14:43:43.128911 30220 net.cpp:91] Creating Layer inception_3b/output
I0403 14:43:43.128926 30220 net.cpp:425] inception_3b/output <- inception_3b/1x1
I0403 14:43:43.128942 30220 net.cpp:425] inception_3b/output <- inception_3b/3x3
I0403 14:43:43.128958 30220 net.cpp:425] inception_3b/output <- inception_3b/5x5
I0403 14:43:43.128974 30220 net.cpp:425] inception_3b/output <- inception_3b/pool_proj
I0403 14:43:43.128994 30220 net.cpp:399] inception_3b/output -> inception_3b/output
I0403 14:43:43.129041 30220 net.cpp:141] Setting up inception_3b/output
I0403 14:43:43.129066 30220 net.cpp:148] Top shape: 24 480 28 28 (9031680)
I0403 14:43:43.129081 30220 net.cpp:156] Memory required for data: 809239584
I0403 14:43:43.129097 30220 layer_factory.hpp:77] Creating layer pool3/3x3_s2
I0403 14:43:43.129115 30220 net.cpp:91] Creating Layer pool3/3x3_s2
I0403 14:43:43.129132 30220 net.cpp:425] pool3/3x3_s2 <- inception_3b/output
I0403 14:43:43.129151 30220 net.cpp:399] pool3/3x3_s2 -> pool3/3x3_s2
I0403 14:43:43.129223 30220 net.cpp:141] Setting up pool3/3x3_s2
I0403 14:43:43.129248 30220 net.cpp:148] Top shape: 24 480 14 14 (2257920)
I0403 14:43:43.129263 30220 net.cpp:156] Memory required for data: 818271264
I0403 14:43:43.129279 30220 layer_factory.hpp:77] Creating layer pool3/3x3_s2_pool3/3x3_s2_0_split
I0403 14:43:43.129299 30220 net.cpp:91] Creating Layer pool3/3x3_s2_pool3/3x3_s2_0_split
I0403 14:43:43.129319 30220 net.cpp:425] pool3/3x3_s2_pool3/3x3_s2_0_split <- pool3/3x3_s2
I0403 14:43:43.129338 30220 net.cpp:399] pool3/3x3_s2_pool3/3x3_s2_0_split -> pool3/3x3_s2_pool3/3x3_s2_0_split_0
I0403 14:43:43.129361 30220 net.cpp:399] pool3/3x3_s2_pool3/3x3_s2_0_split -> pool3/3x3_s2_pool3/3x3_s2_0_split_1
I0403 14:43:43.129384 30220 net.cpp:399] pool3/3x3_s2_pool3/3x3_s2_0_split -> pool3/3x3_s2_pool3/3x3_s2_0_split_2
I0403 14:43:43.129403 30220 net.cpp:399] pool3/3x3_s2_pool3/3x3_s2_0_split -> pool3/3x3_s2_pool3/3x3_s2_0_split_3
I0403 14:43:43.129478 30220 net.cpp:141] Setting up pool3/3x3_s2_pool3/3x3_s2_0_split
I0403 14:43:43.129503 30220 net.cpp:148] Top shape: 24 480 14 14 (2257920)
I0403 14:43:43.129519 30220 net.cpp:148] Top shape: 24 480 14 14 (2257920)
I0403 14:43:43.129535 30220 net.cpp:148] Top shape: 24 480 14 14 (2257920)
I0403 14:43:43.129551 30220 net.cpp:148] Top shape: 24 480 14 14 (2257920)
I0403 14:43:43.129566 30220 net.cpp:156] Memory required for data: 854397984
I0403 14:43:43.129582 30220 layer_factory.hpp:77] Creating layer inception_4a/1x1
I0403 14:43:43.129607 30220 net.cpp:91] Creating Layer inception_4a/1x1
I0403 14:43:43.129626 30220 net.cpp:425] inception_4a/1x1 <- pool3/3x3_s2_pool3/3x3_s2_0_split_0
I0403 14:43:43.129648 30220 net.cpp:399] inception_4a/1x1 -> inception_4a/1x1
I0403 14:43:43.131242 30220 net.cpp:141] Setting up inception_4a/1x1
I0403 14:43:43.131273 30220 net.cpp:148] Top shape: 24 192 14 14 (903168)
I0403 14:43:43.131289 30220 net.cpp:156] Memory required for data: 858010656
I0403 14:43:43.131309 30220 layer_factory.hpp:77] Creating layer inception_4a/relu_1x1
I0403 14:43:43.131335 30220 net.cpp:91] Creating Layer inception_4a/relu_1x1
I0403 14:43:43.131353 30220 net.cpp:425] inception_4a/relu_1x1 <- inception_4a/1x1
I0403 14:43:43.131372 30220 net.cpp:386] inception_4a/relu_1x1 -> inception_4a/1x1 (in-place)
I0403 14:43:43.131553 30220 net.cpp:141] Setting up inception_4a/relu_1x1
I0403 14:43:43.131584 30220 net.cpp:148] Top shape: 24 192 14 14 (903168)
I0403 14:43:43.131600 30220 net.cpp:156] Memory required for data: 861623328
I0403 14:43:43.131618 30220 layer_factory.hpp:77] Creating layer inception_4a/3x3_reduce
I0403 14:43:43.131640 30220 net.cpp:91] Creating Layer inception_4a/3x3_reduce
I0403 14:43:43.131659 30220 net.cpp:425] inception_4a/3x3_reduce <- pool3/3x3_s2_pool3/3x3_s2_0_split_1
I0403 14:43:43.131680 30220 net.cpp:399] inception_4a/3x3_reduce -> inception_4a/3x3_reduce
I0403 14:43:43.132980 30220 net.cpp:141] Setting up inception_4a/3x3_reduce
I0403 14:43:43.133009 30220 net.cpp:148] Top shape: 24 96 14 14 (451584)
I0403 14:43:43.133026 30220 net.cpp:156] Memory required for data: 863429664
I0403 14:43:43.133054 30220 layer_factory.hpp:77] Creating layer inception_4a/relu_3x3_reduce
I0403 14:43:43.133074 30220 net.cpp:91] Creating Layer inception_4a/relu_3x3_reduce
I0403 14:43:43.133092 30220 net.cpp:425] inception_4a/relu_3x3_reduce <- inception_4a/3x3_reduce
I0403 14:43:43.133111 30220 net.cpp:386] inception_4a/relu_3x3_reduce -> inception_4a/3x3_reduce (in-place)
I0403 14:43:43.133288 30220 net.cpp:141] Setting up inception_4a/relu_3x3_reduce
I0403 14:43:43.133327 30220 net.cpp:148] Top shape: 24 96 14 14 (451584)
I0403 14:43:43.133347 30220 net.cpp:156] Memory required for data: 865236000
I0403 14:43:43.133363 30220 layer_factory.hpp:77] Creating layer inception_4a/3x3
I0403 14:43:43.133386 30220 net.cpp:91] Creating Layer inception_4a/3x3
I0403 14:43:43.133405 30220 net.cpp:425] inception_4a/3x3 <- inception_4a/3x3_reduce
I0403 14:43:43.133425 30220 net.cpp:399] inception_4a/3x3 -> inception_4a/3x3
I0403 14:43:43.136152 30220 net.cpp:141] Setting up inception_4a/3x3
I0403 14:43:43.136184 30220 net.cpp:148] Top shape: 24 208 14 14 (978432)
I0403 14:43:43.136201 30220 net.cpp:156] Memory required for data: 869149728
I0403 14:43:43.136222 30220 layer_factory.hpp:77] Creating layer inception_4a/relu_3x3
I0403 14:43:43.136241 30220 net.cpp:91] Creating Layer inception_4a/relu_3x3
I0403 14:43:43.136260 30220 net.cpp:425] inception_4a/relu_3x3 <- inception_4a/3x3
I0403 14:43:43.136281 30220 net.cpp:386] inception_4a/relu_3x3 -> inception_4a/3x3 (in-place)
I0403 14:43:43.136569 30220 net.cpp:141] Setting up inception_4a/relu_3x3
I0403 14:43:43.136600 30220 net.cpp:148] Top shape: 24 208 14 14 (978432)
I0403 14:43:43.136616 30220 net.cpp:156] Memory required for data: 873063456
I0403 14:43:43.136633 30220 layer_factory.hpp:77] Creating layer inception_4a/5x5_reduce
I0403 14:43:43.136657 30220 net.cpp:91] Creating Layer inception_4a/5x5_reduce
I0403 14:43:43.136677 30220 net.cpp:425] inception_4a/5x5_reduce <- pool3/3x3_s2_pool3/3x3_s2_0_split_2
I0403 14:43:43.136696 30220 net.cpp:399] inception_4a/5x5_reduce -> inception_4a/5x5_reduce
I0403 14:43:43.137735 30220 net.cpp:141] Setting up inception_4a/5x5_reduce
I0403 14:43:43.137766 30220 net.cpp:148] Top shape: 24 16 14 14 (75264)
I0403 14:43:43.137783 30220 net.cpp:156] Memory required for data: 873364512
I0403 14:43:43.137801 30220 layer_factory.hpp:77] Creating layer inception_4a/relu_5x5_reduce
I0403 14:43:43.137820 30220 net.cpp:91] Creating Layer inception_4a/relu_5x5_reduce
I0403 14:43:43.137838 30220 net.cpp:425] inception_4a/relu_5x5_reduce <- inception_4a/5x5_reduce
I0403 14:43:43.137861 30220 net.cpp:386] inception_4a/relu_5x5_reduce -> inception_4a/5x5_reduce (in-place)
I0403 14:43:43.138043 30220 net.cpp:141] Setting up inception_4a/relu_5x5_reduce
I0403 14:43:43.138070 30220 net.cpp:148] Top shape: 24 16 14 14 (75264)
I0403 14:43:43.138087 30220 net.cpp:156] Memory required for data: 873665568
I0403 14:43:43.138103 30220 layer_factory.hpp:77] Creating layer inception_4a/5x5
I0403 14:43:43.138129 30220 net.cpp:91] Creating Layer inception_4a/5x5
I0403 14:43:43.138149 30220 net.cpp:425] inception_4a/5x5 <- inception_4a/5x5_reduce
I0403 14:43:43.138170 30220 net.cpp:399] inception_4a/5x5 -> inception_4a/5x5
I0403 14:43:43.139286 30220 net.cpp:141] Setting up inception_4a/5x5
I0403 14:43:43.139319 30220 net.cpp:148] Top shape: 24 48 14 14 (225792)
I0403 14:43:43.139336 30220 net.cpp:156] Memory required for data: 874568736
I0403 14:43:43.139356 30220 layer_factory.hpp:77] Creating layer inception_4a/relu_5x5
I0403 14:43:43.139377 30220 net.cpp:91] Creating Layer inception_4a/relu_5x5
I0403 14:43:43.139400 30220 net.cpp:425] inception_4a/relu_5x5 <- inception_4a/5x5
I0403 14:43:43.139422 30220 net.cpp:386] inception_4a/relu_5x5 -> inception_4a/5x5 (in-place)
I0403 14:43:43.139602 30220 net.cpp:141] Setting up inception_4a/relu_5x5
I0403 14:43:43.139631 30220 net.cpp:148] Top shape: 24 48 14 14 (225792)
I0403 14:43:43.139648 30220 net.cpp:156] Memory required for data: 875471904
I0403 14:43:43.139665 30220 layer_factory.hpp:77] Creating layer inception_4a/pool
I0403 14:43:43.139685 30220 net.cpp:91] Creating Layer inception_4a/pool
I0403 14:43:43.139701 30220 net.cpp:425] inception_4a/pool <- pool3/3x3_s2_pool3/3x3_s2_0_split_3
I0403 14:43:43.139720 30220 net.cpp:399] inception_4a/pool -> inception_4a/pool
I0403 14:43:43.139783 30220 net.cpp:141] Setting up inception_4a/pool
I0403 14:43:43.139812 30220 net.cpp:148] Top shape: 24 480 14 14 (2257920)
I0403 14:43:43.139828 30220 net.cpp:156] Memory required for data: 884503584
I0403 14:43:43.139844 30220 layer_factory.hpp:77] Creating layer inception_4a/pool_proj
I0403 14:43:43.139868 30220 net.cpp:91] Creating Layer inception_4a/pool_proj
I0403 14:43:43.139888 30220 net.cpp:425] inception_4a/pool_proj <- inception_4a/pool
I0403 14:43:43.139910 30220 net.cpp:399] inception_4a/pool_proj -> inception_4a/pool_proj
I0403 14:43:43.141118 30220 net.cpp:141] Setting up inception_4a/pool_proj
I0403 14:43:43.141146 30220 net.cpp:148] Top shape: 24 64 14 14 (301056)
I0403 14:43:43.141178 30220 net.cpp:156] Memory required for data: 885707808
I0403 14:43:43.141198 30220 layer_factory.hpp:77] Creating layer inception_4a/relu_pool_proj
I0403 14:43:43.141219 30220 net.cpp:91] Creating Layer inception_4a/relu_pool_proj
I0403 14:43:43.141237 30220 net.cpp:425] inception_4a/relu_pool_proj <- inception_4a/pool_proj
I0403 14:43:43.141255 30220 net.cpp:386] inception_4a/relu_pool_proj -> inception_4a/pool_proj (in-place)
I0403 14:43:43.141538 30220 net.cpp:141] Setting up inception_4a/relu_pool_proj
I0403 14:43:43.141566 30220 net.cpp:148] Top shape: 24 64 14 14 (301056)
I0403 14:43:43.141582 30220 net.cpp:156] Memory required for data: 886912032
I0403 14:43:43.141598 30220 layer_factory.hpp:77] Creating layer inception_4a/output
I0403 14:43:43.141620 30220 net.cpp:91] Creating Layer inception_4a/output
I0403 14:43:43.141639 30220 net.cpp:425] inception_4a/output <- inception_4a/1x1
I0403 14:43:43.141656 30220 net.cpp:425] inception_4a/output <- inception_4a/3x3
I0403 14:43:43.141674 30220 net.cpp:425] inception_4a/output <- inception_4a/5x5
I0403 14:43:43.141690 30220 net.cpp:425] inception_4a/output <- inception_4a/pool_proj
I0403 14:43:43.141707 30220 net.cpp:399] inception_4a/output -> inception_4a/output
I0403 14:43:43.141753 30220 net.cpp:141] Setting up inception_4a/output
I0403 14:43:43.141777 30220 net.cpp:148] Top shape: 24 512 14 14 (2408448)
I0403 14:43:43.141793 30220 net.cpp:156] Memory required for data: 896545824
I0403 14:43:43.141808 30220 layer_factory.hpp:77] Creating layer inception_4a/output_inception_4a/output_0_split
I0403 14:43:43.141826 30220 net.cpp:91] Creating Layer inception_4a/output_inception_4a/output_0_split
I0403 14:43:43.141841 30220 net.cpp:425] inception_4a/output_inception_4a/output_0_split <- inception_4a/output
I0403 14:43:43.141862 30220 net.cpp:399] inception_4a/output_inception_4a/output_0_split -> inception_4a/output_inception_4a/output_0_split_0
I0403 14:43:43.141883 30220 net.cpp:399] inception_4a/output_inception_4a/output_0_split -> inception_4a/output_inception_4a/output_0_split_1
I0403 14:43:43.141906 30220 net.cpp:399] inception_4a/output_inception_4a/output_0_split -> inception_4a/output_inception_4a/output_0_split_2
I0403 14:43:43.141927 30220 net.cpp:399] inception_4a/output_inception_4a/output_0_split -> inception_4a/output_inception_4a/output_0_split_3
I0403 14:43:43.141947 30220 net.cpp:399] inception_4a/output_inception_4a/output_0_split -> inception_4a/output_inception_4a/output_0_split_4
I0403 14:43:43.142041 30220 net.cpp:141] Setting up inception_4a/output_inception_4a/output_0_split
I0403 14:43:43.142066 30220 net.cpp:148] Top shape: 24 512 14 14 (2408448)
I0403 14:43:43.142082 30220 net.cpp:148] Top shape: 24 512 14 14 (2408448)
I0403 14:43:43.142098 30220 net.cpp:148] Top shape: 24 512 14 14 (2408448)
I0403 14:43:43.142115 30220 net.cpp:148] Top shape: 24 512 14 14 (2408448)
I0403 14:43:43.142132 30220 net.cpp:148] Top shape: 24 512 14 14 (2408448)
I0403 14:43:43.142158 30220 net.cpp:156] Memory required for data: 944714784
I0403 14:43:43.142174 30220 layer_factory.hpp:77] Creating layer loss1/ave_pool
I0403 14:43:43.142194 30220 net.cpp:91] Creating Layer loss1/ave_pool
I0403 14:43:43.142212 30220 net.cpp:425] loss1/ave_pool <- inception_4a/output_inception_4a/output_0_split_0
I0403 14:43:43.142233 30220 net.cpp:399] loss1/ave_pool -> loss1/ave_pool
I0403 14:43:43.142454 30220 net.cpp:141] Setting up loss1/ave_pool
I0403 14:43:43.142494 30220 net.cpp:148] Top shape: 24 512 4 4 (196608)
I0403 14:43:43.142510 30220 net.cpp:156] Memory required for data: 945501216
I0403 14:43:43.142526 30220 layer_factory.hpp:77] Creating layer loss1/conv
I0403 14:43:43.142549 30220 net.cpp:91] Creating Layer loss1/conv
I0403 14:43:43.142566 30220 net.cpp:425] loss1/conv <- loss1/ave_pool
I0403 14:43:43.142588 30220 net.cpp:399] loss1/conv -> loss1/conv
I0403 14:43:43.144016 30220 net.cpp:141] Setting up loss1/conv
I0403 14:43:43.144047 30220 net.cpp:148] Top shape: 24 128 4 4 (49152)
I0403 14:43:43.144065 30220 net.cpp:156] Memory required for data: 945697824
I0403 14:43:43.144111 30220 layer_factory.hpp:77] Creating layer loss1/relu_conv
I0403 14:43:43.144132 30220 net.cpp:91] Creating Layer loss1/relu_conv
I0403 14:43:43.144150 30220 net.cpp:425] loss1/relu_conv <- loss1/conv
I0403 14:43:43.144170 30220 net.cpp:386] loss1/relu_conv -> loss1/conv (in-place)
I0403 14:43:43.144459 30220 net.cpp:141] Setting up loss1/relu_conv
I0403 14:43:43.144490 30220 net.cpp:148] Top shape: 24 128 4 4 (49152)
I0403 14:43:43.144506 30220 net.cpp:156] Memory required for data: 945894432
I0403 14:43:43.144523 30220 layer_factory.hpp:77] Creating layer loss1/fc
I0403 14:43:43.144547 30220 net.cpp:91] Creating Layer loss1/fc
I0403 14:43:43.144567 30220 net.cpp:425] loss1/fc <- loss1/conv
I0403 14:43:43.144587 30220 net.cpp:399] loss1/fc -> loss1/fc
I0403 14:43:43.162395 30220 net.cpp:141] Setting up loss1/fc
I0403 14:43:43.162447 30220 net.cpp:148] Top shape: 24 1024 (24576)
I0403 14:43:43.162463 30220 net.cpp:156] Memory required for data: 945992736
I0403 14:43:43.162484 30220 layer_factory.hpp:77] Creating layer loss1/relu_fc
I0403 14:43:43.162504 30220 net.cpp:91] Creating Layer loss1/relu_fc
I0403 14:43:43.162526 30220 net.cpp:425] loss1/relu_fc <- loss1/fc
I0403 14:43:43.162544 30220 net.cpp:386] loss1/relu_fc -> loss1/fc (in-place)
I0403 14:43:43.162751 30220 net.cpp:141] Setting up loss1/relu_fc
I0403 14:43:43.162778 30220 net.cpp:148] Top shape: 24 1024 (24576)
I0403 14:43:43.162793 30220 net.cpp:156] Memory required for data: 946091040
I0403 14:43:43.162809 30220 layer_factory.hpp:77] Creating layer loss1/drop_fc
I0403 14:43:43.162837 30220 net.cpp:91] Creating Layer loss1/drop_fc
I0403 14:43:43.162855 30220 net.cpp:425] loss1/drop_fc <- loss1/fc
I0403 14:43:43.162873 30220 net.cpp:386] loss1/drop_fc -> loss1/fc (in-place)
I0403 14:43:43.162925 30220 net.cpp:141] Setting up loss1/drop_fc
I0403 14:43:43.162948 30220 net.cpp:148] Top shape: 24 1024 (24576)
I0403 14:43:43.162963 30220 net.cpp:156] Memory required for data: 946189344
I0403 14:43:43.162978 30220 layer_factory.hpp:77] Creating layer loss1/classifier_plantvillage
I0403 14:43:43.163002 30220 net.cpp:91] Creating Layer loss1/classifier_plantvillage
I0403 14:43:43.163018 30220 net.cpp:425] loss1/classifier_plantvillage <- loss1/fc
I0403 14:43:43.163038 30220 net.cpp:399] loss1/classifier_plantvillage -> loss1/classifier_plantvillage
I0403 14:43:43.163978 30220 net.cpp:141] Setting up loss1/classifier_plantvillage
I0403 14:43:43.164016 30220 net.cpp:148] Top shape: 24 38 (912)
I0403 14:43:43.164032 30220 net.cpp:156] Memory required for data: 946192992
I0403 14:43:43.164050 30220 layer_factory.hpp:77] Creating layer loss1/classifier_plantvillage_loss1/classifier_plantvillage_0_split
I0403 14:43:43.164069 30220 net.cpp:91] Creating Layer loss1/classifier_plantvillage_loss1/classifier_plantvillage_0_split
I0403 14:43:43.164086 30220 net.cpp:425] loss1/classifier_plantvillage_loss1/classifier_plantvillage_0_split <- loss1/classifier_plantvillage
I0403 14:43:43.164105 30220 net.cpp:399] loss1/classifier_plantvillage_loss1/classifier_plantvillage_0_split -> loss1/classifier_plantvillage_loss1/classifier_plantvillage_0_split_0
I0403 14:43:43.164126 30220 net.cpp:399] loss1/classifier_plantvillage_loss1/classifier_plantvillage_0_split -> loss1/classifier_plantvillage_loss1/classifier_plantvillage_0_split_1
I0403 14:43:43.164149 30220 net.cpp:399] loss1/classifier_plantvillage_loss1/classifier_plantvillage_0_split -> loss1/classifier_plantvillage_loss1/classifier_plantvillage_0_split_2
I0403 14:43:43.164216 30220 net.cpp:141] Setting up loss1/classifier_plantvillage_loss1/classifier_plantvillage_0_split
I0403 14:43:43.164240 30220 net.cpp:148] Top shape: 24 38 (912)
I0403 14:43:43.164258 30220 net.cpp:148] Top shape: 24 38 (912)
I0403 14:43:43.164273 30220 net.cpp:148] Top shape: 24 38 (912)
I0403 14:43:43.164288 30220 net.cpp:156] Memory required for data: 946203936
I0403 14:43:43.164302 30220 layer_factory.hpp:77] Creating layer inception_4b/1x1
I0403 14:43:43.164329 30220 net.cpp:91] Creating Layer inception_4b/1x1
I0403 14:43:43.164374 30220 net.cpp:425] inception_4b/1x1 <- inception_4a/output_inception_4a/output_0_split_1
I0403 14:43:43.164398 30220 net.cpp:399] inception_4b/1x1 -> inception_4b/1x1
I0403 14:43:43.166074 30220 net.cpp:141] Setting up inception_4b/1x1
I0403 14:43:43.166103 30220 net.cpp:148] Top shape: 24 160 14 14 (752640)
I0403 14:43:43.166120 30220 net.cpp:156] Memory required for data: 949214496
I0403 14:43:43.166139 30220 layer_factory.hpp:77] Creating layer inception_4b/relu_1x1
I0403 14:43:43.166157 30220 net.cpp:91] Creating Layer inception_4b/relu_1x1
I0403 14:43:43.166173 30220 net.cpp:425] inception_4b/relu_1x1 <- inception_4b/1x1
I0403 14:43:43.166193 30220 net.cpp:386] inception_4b/relu_1x1 -> inception_4b/1x1 (in-place)
I0403 14:43:43.166379 30220 net.cpp:141] Setting up inception_4b/relu_1x1
I0403 14:43:43.166405 30220 net.cpp:148] Top shape: 24 160 14 14 (752640)
I0403 14:43:43.166422 30220 net.cpp:156] Memory required for data: 952225056
I0403 14:43:43.166438 30220 layer_factory.hpp:77] Creating layer inception_4b/3x3_reduce
I0403 14:43:43.166461 30220 net.cpp:91] Creating Layer inception_4b/3x3_reduce
I0403 14:43:43.166479 30220 net.cpp:425] inception_4b/3x3_reduce <- inception_4a/output_inception_4a/output_0_split_2
I0403 14:43:43.166503 30220 net.cpp:399] inception_4b/3x3_reduce -> inception_4b/3x3_reduce
I0403 14:43:43.167851 30220 net.cpp:141] Setting up inception_4b/3x3_reduce
I0403 14:43:43.167879 30220 net.cpp:148] Top shape: 24 112 14 14 (526848)
I0403 14:43:43.167894 30220 net.cpp:156] Memory required for data: 954332448
I0403 14:43:43.167913 30220 layer_factory.hpp:77] Creating layer inception_4b/relu_3x3_reduce
I0403 14:43:43.167933 30220 net.cpp:91] Creating Layer inception_4b/relu_3x3_reduce
I0403 14:43:43.167951 30220 net.cpp:425] inception_4b/relu_3x3_reduce <- inception_4b/3x3_reduce
I0403 14:43:43.167970 30220 net.cpp:386] inception_4b/relu_3x3_reduce -> inception_4b/3x3_reduce (in-place)
I0403 14:43:43.168265 30220 net.cpp:141] Setting up inception_4b/relu_3x3_reduce
I0403 14:43:43.168292 30220 net.cpp:148] Top shape: 24 112 14 14 (526848)
I0403 14:43:43.168309 30220 net.cpp:156] Memory required for data: 956439840
I0403 14:43:43.168329 30220 layer_factory.hpp:77] Creating layer inception_4b/3x3
I0403 14:43:43.168352 30220 net.cpp:91] Creating Layer inception_4b/3x3
I0403 14:43:43.168372 30220 net.cpp:425] inception_4b/3x3 <- inception_4b/3x3_reduce
I0403 14:43:43.168395 30220 net.cpp:399] inception_4b/3x3 -> inception_4b/3x3
I0403 14:43:43.171356 30220 net.cpp:141] Setting up inception_4b/3x3
I0403 14:43:43.171386 30220 net.cpp:148] Top shape: 24 224 14 14 (1053696)
I0403 14:43:43.171403 30220 net.cpp:156] Memory required for data: 960654624
I0403 14:43:43.171423 30220 layer_factory.hpp:77] Creating layer inception_4b/relu_3x3
I0403 14:43:43.171445 30220 net.cpp:91] Creating Layer inception_4b/relu_3x3
I0403 14:43:43.171463 30220 net.cpp:425] inception_4b/relu_3x3 <- inception_4b/3x3
I0403 14:43:43.171479 30220 net.cpp:386] inception_4b/relu_3x3 -> inception_4b/3x3 (in-place)
I0403 14:43:43.171670 30220 net.cpp:141] Setting up inception_4b/relu_3x3
I0403 14:43:43.171699 30220 net.cpp:148] Top shape: 24 224 14 14 (1053696)
I0403 14:43:43.171715 30220 net.cpp:156] Memory required for data: 964869408
I0403 14:43:43.171731 30220 layer_factory.hpp:77] Creating layer inception_4b/5x5_reduce
I0403 14:43:43.171754 30220 net.cpp:91] Creating Layer inception_4b/5x5_reduce
I0403 14:43:43.171773 30220 net.cpp:425] inception_4b/5x5_reduce <- inception_4a/output_inception_4a/output_0_split_3
I0403 14:43:43.171793 30220 net.cpp:399] inception_4b/5x5_reduce -> inception_4b/5x5_reduce
I0403 14:43:43.172863 30220 net.cpp:141] Setting up inception_4b/5x5_reduce
I0403 14:43:43.172889 30220 net.cpp:148] Top shape: 24 24 14 14 (112896)
I0403 14:43:43.172905 30220 net.cpp:156] Memory required for data: 965320992
I0403 14:43:43.172924 30220 layer_factory.hpp:77] Creating layer inception_4b/relu_5x5_reduce
I0403 14:43:43.172943 30220 net.cpp:91] Creating Layer inception_4b/relu_5x5_reduce
I0403 14:43:43.172976 30220 net.cpp:425] inception_4b/relu_5x5_reduce <- inception_4b/5x5_reduce
I0403 14:43:43.172996 30220 net.cpp:386] inception_4b/relu_5x5_reduce -> inception_4b/5x5_reduce (in-place)
I0403 14:43:43.173174 30220 net.cpp:141] Setting up inception_4b/relu_5x5_reduce
I0403 14:43:43.173199 30220 net.cpp:148] Top shape: 24 24 14 14 (112896)
I0403 14:43:43.173226 30220 net.cpp:156] Memory required for data: 965772576
I0403 14:43:43.173243 30220 layer_factory.hpp:77] Creating layer inception_4b/5x5
I0403 14:43:43.173266 30220 net.cpp:91] Creating Layer inception_4b/5x5
I0403 14:43:43.173285 30220 net.cpp:425] inception_4b/5x5 <- inception_4b/5x5_reduce
I0403 14:43:43.173306 30220 net.cpp:399] inception_4b/5x5 -> inception_4b/5x5
I0403 14:43:43.174523 30220 net.cpp:141] Setting up inception_4b/5x5
I0403 14:43:43.174553 30220 net.cpp:148] Top shape: 24 64 14 14 (301056)
I0403 14:43:43.174571 30220 net.cpp:156] Memory required for data: 966976800
I0403 14:43:43.174590 30220 layer_factory.hpp:77] Creating layer inception_4b/relu_5x5
I0403 14:43:43.174608 30220 net.cpp:91] Creating Layer inception_4b/relu_5x5
I0403 14:43:43.174625 30220 net.cpp:425] inception_4b/relu_5x5 <- inception_4b/5x5
I0403 14:43:43.174645 30220 net.cpp:386] inception_4b/relu_5x5 -> inception_4b/5x5 (in-place)
I0403 14:43:43.174935 30220 net.cpp:141] Setting up inception_4b/relu_5x5
I0403 14:43:43.174963 30220 net.cpp:148] Top shape: 24 64 14 14 (301056)
I0403 14:43:43.174979 30220 net.cpp:156] Memory required for data: 968181024
I0403 14:43:43.174995 30220 layer_factory.hpp:77] Creating layer inception_4b/pool
I0403 14:43:43.175014 30220 net.cpp:91] Creating Layer inception_4b/pool
I0403 14:43:43.175031 30220 net.cpp:425] inception_4b/pool <- inception_4a/output_inception_4a/output_0_split_4
I0403 14:43:43.175053 30220 net.cpp:399] inception_4b/pool -> inception_4b/pool
I0403 14:43:43.175118 30220 net.cpp:141] Setting up inception_4b/pool
I0403 14:43:43.175143 30220 net.cpp:148] Top shape: 24 512 14 14 (2408448)
I0403 14:43:43.175158 30220 net.cpp:156] Memory required for data: 977814816
I0403 14:43:43.175173 30220 layer_factory.hpp:77] Creating layer inception_4b/pool_proj
I0403 14:43:43.175210 30220 net.cpp:91] Creating Layer inception_4b/pool_proj
I0403 14:43:43.175228 30220 net.cpp:425] inception_4b/pool_proj <- inception_4b/pool
I0403 14:43:43.175247 30220 net.cpp:399] inception_4b/pool_proj -> inception_4b/pool_proj
I0403 14:43:43.176411 30220 net.cpp:141] Setting up inception_4b/pool_proj
I0403 14:43:43.176452 30220 net.cpp:148] Top shape: 24 64 14 14 (301056)
I0403 14:43:43.176470 30220 net.cpp:156] Memory required for data: 979019040
I0403 14:43:43.176491 30220 layer_factory.hpp:77] Creating layer inception_4b/relu_pool_proj
I0403 14:43:43.176511 30220 net.cpp:91] Creating Layer inception_4b/relu_pool_proj
I0403 14:43:43.176527 30220 net.cpp:425] inception_4b/relu_pool_proj <- inception_4b/pool_proj
I0403 14:43:43.176549 30220 net.cpp:386] inception_4b/relu_pool_proj -> inception_4b/pool_proj (in-place)
I0403 14:43:43.176731 30220 net.cpp:141] Setting up inception_4b/relu_pool_proj
I0403 14:43:43.176758 30220 net.cpp:148] Top shape: 24 64 14 14 (301056)
I0403 14:43:43.176774 30220 net.cpp:156] Memory required for data: 980223264
I0403 14:43:43.176789 30220 layer_factory.hpp:77] Creating layer inception_4b/output
I0403 14:43:43.176810 30220 net.cpp:91] Creating Layer inception_4b/output
I0403 14:43:43.176826 30220 net.cpp:425] inception_4b/output <- inception_4b/1x1
I0403 14:43:43.176844 30220 net.cpp:425] inception_4b/output <- inception_4b/3x3
I0403 14:43:43.176862 30220 net.cpp:425] inception_4b/output <- inception_4b/5x5
I0403 14:43:43.176877 30220 net.cpp:425] inception_4b/output <- inception_4b/pool_proj
I0403 14:43:43.176894 30220 net.cpp:399] inception_4b/output -> inception_4b/output
I0403 14:43:43.176944 30220 net.cpp:141] Setting up inception_4b/output
I0403 14:43:43.176967 30220 net.cpp:148] Top shape: 24 512 14 14 (2408448)
I0403 14:43:43.176983 30220 net.cpp:156] Memory required for data: 989857056
I0403 14:43:43.177014 30220 layer_factory.hpp:77] Creating layer inception_4b/output_inception_4b/output_0_split
I0403 14:43:43.177034 30220 net.cpp:91] Creating Layer inception_4b/output_inception_4b/output_0_split
I0403 14:43:43.177050 30220 net.cpp:425] inception_4b/output_inception_4b/output_0_split <- inception_4b/output
I0403 14:43:43.177070 30220 net.cpp:399] inception_4b/output_inception_4b/output_0_split -> inception_4b/output_inception_4b/output_0_split_0
I0403 14:43:43.177091 30220 net.cpp:399] inception_4b/output_inception_4b/output_0_split -> inception_4b/output_inception_4b/output_0_split_1
I0403 14:43:43.177112 30220 net.cpp:399] inception_4b/output_inception_4b/output_0_split -> inception_4b/output_inception_4b/output_0_split_2
I0403 14:43:43.177134 30220 net.cpp:399] inception_4b/output_inception_4b/output_0_split -> inception_4b/output_inception_4b/output_0_split_3
I0403 14:43:43.177217 30220 net.cpp:141] Setting up inception_4b/output_inception_4b/output_0_split
I0403 14:43:43.177242 30220 net.cpp:148] Top shape: 24 512 14 14 (2408448)
I0403 14:43:43.177260 30220 net.cpp:148] Top shape: 24 512 14 14 (2408448)
I0403 14:43:43.177276 30220 net.cpp:148] Top shape: 24 512 14 14 (2408448)
I0403 14:43:43.177292 30220 net.cpp:148] Top shape: 24 512 14 14 (2408448)
I0403 14:43:43.177307 30220 net.cpp:156] Memory required for data: 1028392224
I0403 14:43:43.177327 30220 layer_factory.hpp:77] Creating layer inception_4c/1x1
I0403 14:43:43.177351 30220 net.cpp:91] Creating Layer inception_4c/1x1
I0403 14:43:43.177371 30220 net.cpp:425] inception_4c/1x1 <- inception_4b/output_inception_4b/output_0_split_0
I0403 14:43:43.177391 30220 net.cpp:399] inception_4c/1x1 -> inception_4c/1x1
I0403 14:43:43.178850 30220 net.cpp:141] Setting up inception_4c/1x1
I0403 14:43:43.178880 30220 net.cpp:148] Top shape: 24 128 14 14 (602112)
I0403 14:43:43.178896 30220 net.cpp:156] Memory required for data: 1030800672
I0403 14:43:43.178916 30220 layer_factory.hpp:77] Creating layer inception_4c/relu_1x1
I0403 14:43:43.178938 30220 net.cpp:91] Creating Layer inception_4c/relu_1x1
I0403 14:43:43.178956 30220 net.cpp:425] inception_4c/relu_1x1 <- inception_4c/1x1
I0403 14:43:43.178975 30220 net.cpp:386] inception_4c/relu_1x1 -> inception_4c/1x1 (in-place)
I0403 14:43:43.179162 30220 net.cpp:141] Setting up inception_4c/relu_1x1
I0403 14:43:43.179191 30220 net.cpp:148] Top shape: 24 128 14 14 (602112)
I0403 14:43:43.179208 30220 net.cpp:156] Memory required for data: 1033209120
I0403 14:43:43.179224 30220 layer_factory.hpp:77] Creating layer inception_4c/3x3_reduce
I0403 14:43:43.179249 30220 net.cpp:91] Creating Layer inception_4c/3x3_reduce
I0403 14:43:43.179267 30220 net.cpp:425] inception_4c/3x3_reduce <- inception_4b/output_inception_4b/output_0_split_1
I0403 14:43:43.179287 30220 net.cpp:399] inception_4c/3x3_reduce -> inception_4c/3x3_reduce
I0403 14:43:43.181282 30220 net.cpp:141] Setting up inception_4c/3x3_reduce
I0403 14:43:43.181318 30220 net.cpp:148] Top shape: 24 128 14 14 (602112)
I0403 14:43:43.181339 30220 net.cpp:156] Memory required for data: 1035617568
I0403 14:43:43.181357 30220 layer_factory.hpp:77] Creating layer inception_4c/relu_3x3_reduce
I0403 14:43:43.181378 30220 net.cpp:91] Creating Layer inception_4c/relu_3x3_reduce
I0403 14:43:43.181396 30220 net.cpp:425] inception_4c/relu_3x3_reduce <- inception_4c/3x3_reduce
I0403 14:43:43.181416 30220 net.cpp:386] inception_4c/relu_3x3_reduce -> inception_4c/3x3_reduce (in-place)
I0403 14:43:43.181721 30220 net.cpp:141] Setting up inception_4c/relu_3x3_reduce
I0403 14:43:43.181751 30220 net.cpp:148] Top shape: 24 128 14 14 (602112)
I0403 14:43:43.181768 30220 net.cpp:156] Memory required for data: 1038026016
I0403 14:43:43.181785 30220 layer_factory.hpp:77] Creating layer inception_4c/3x3
I0403 14:43:43.181809 30220 net.cpp:91] Creating Layer inception_4c/3x3
I0403 14:43:43.181828 30220 net.cpp:425] inception_4c/3x3 <- inception_4c/3x3_reduce
I0403 14:43:43.181861 30220 net.cpp:399] inception_4c/3x3 -> inception_4c/3x3
I0403 14:43:43.185559 30220 net.cpp:141] Setting up inception_4c/3x3
I0403 14:43:43.185606 30220 net.cpp:148] Top shape: 24 256 14 14 (1204224)
I0403 14:43:43.185622 30220 net.cpp:156] Memory required for data: 1042842912
I0403 14:43:43.185657 30220 layer_factory.hpp:77] Creating layer inception_4c/relu_3x3
I0403 14:43:43.185678 30220 net.cpp:91] Creating Layer inception_4c/relu_3x3
I0403 14:43:43.185696 30220 net.cpp:425] inception_4c/relu_3x3 <- inception_4c/3x3
I0403 14:43:43.185717 30220 net.cpp:386] inception_4c/relu_3x3 -> inception_4c/3x3 (in-place)
I0403 14:43:43.185907 30220 net.cpp:141] Setting up inception_4c/relu_3x3
I0403 14:43:43.185935 30220 net.cpp:148] Top shape: 24 256 14 14 (1204224)
I0403 14:43:43.185950 30220 net.cpp:156] Memory required for data: 1047659808
I0403 14:43:43.185966 30220 layer_factory.hpp:77] Creating layer inception_4c/5x5_reduce
I0403 14:43:43.185992 30220 net.cpp:91] Creating Layer inception_4c/5x5_reduce
I0403 14:43:43.186012 30220 net.cpp:425] inception_4c/5x5_reduce <- inception_4b/output_inception_4b/output_0_split_2
I0403 14:43:43.186033 30220 net.cpp:399] inception_4c/5x5_reduce -> inception_4c/5x5_reduce
I0403 14:43:43.187203 30220 net.cpp:141] Setting up inception_4c/5x5_reduce
I0403 14:43:43.187237 30220 net.cpp:148] Top shape: 24 24 14 14 (112896)
I0403 14:43:43.187275 30220 net.cpp:156] Memory required for data: 1048111392
I0403 14:43:43.187296 30220 layer_factory.hpp:77] Creating layer inception_4c/relu_5x5_reduce
I0403 14:43:43.187320 30220 net.cpp:91] Creating Layer inception_4c/relu_5x5_reduce
I0403 14:43:43.187338 30220 net.cpp:425] inception_4c/relu_5x5_reduce <- inception_4c/5x5_reduce
I0403 14:43:43.187361 30220 net.cpp:386] inception_4c/relu_5x5_reduce -> inception_4c/5x5_reduce (in-place)
I0403 14:43:43.187551 30220 net.cpp:141] Setting up inception_4c/relu_5x5_reduce
I0403 14:43:43.187578 30220 net.cpp:148] Top shape: 24 24 14 14 (112896)
I0403 14:43:43.187593 30220 net.cpp:156] Memory required for data: 1048562976
I0403 14:43:43.187608 30220 layer_factory.hpp:77] Creating layer inception_4c/5x5
I0403 14:43:43.187633 30220 net.cpp:91] Creating Layer inception_4c/5x5
I0403 14:43:43.187651 30220 net.cpp:425] inception_4c/5x5 <- inception_4c/5x5_reduce
I0403 14:43:43.187674 30220 net.cpp:399] inception_4c/5x5 -> inception_4c/5x5
I0403 14:43:43.188956 30220 net.cpp:141] Setting up inception_4c/5x5
I0403 14:43:43.188987 30220 net.cpp:148] Top shape: 24 64 14 14 (301056)
I0403 14:43:43.189004 30220 net.cpp:156] Memory required for data: 1049767200
I0403 14:43:43.189026 30220 layer_factory.hpp:77] Creating layer inception_4c/relu_5x5
I0403 14:43:43.189049 30220 net.cpp:91] Creating Layer inception_4c/relu_5x5
I0403 14:43:43.189066 30220 net.cpp:425] inception_4c/relu_5x5 <- inception_4c/5x5
I0403 14:43:43.189085 30220 net.cpp:386] inception_4c/relu_5x5 -> inception_4c/5x5 (in-place)
I0403 14:43:43.189398 30220 net.cpp:141] Setting up inception_4c/relu_5x5
I0403 14:43:43.189424 30220 net.cpp:148] Top shape: 24 64 14 14 (301056)
I0403 14:43:43.189440 30220 net.cpp:156] Memory required for data: 1050971424
I0403 14:43:43.189456 30220 layer_factory.hpp:77] Creating layer inception_4c/pool
I0403 14:43:43.189477 30220 net.cpp:91] Creating Layer inception_4c/pool
I0403 14:43:43.189496 30220 net.cpp:425] inception_4c/pool <- inception_4b/output_inception_4b/output_0_split_3
I0403 14:43:43.189514 30220 net.cpp:399] inception_4c/pool -> inception_4c/pool
I0403 14:43:43.189581 30220 net.cpp:141] Setting up inception_4c/pool
I0403 14:43:43.189606 30220 net.cpp:148] Top shape: 24 512 14 14 (2408448)
I0403 14:43:43.189621 30220 net.cpp:156] Memory required for data: 1060605216
I0403 14:43:43.189636 30220 layer_factory.hpp:77] Creating layer inception_4c/pool_proj
I0403 14:43:43.189659 30220 net.cpp:91] Creating Layer inception_4c/pool_proj
I0403 14:43:43.189677 30220 net.cpp:425] inception_4c/pool_proj <- inception_4c/pool
I0403 14:43:43.189700 30220 net.cpp:399] inception_4c/pool_proj -> inception_4c/pool_proj
I0403 14:43:43.190932 30220 net.cpp:141] Setting up inception_4c/pool_proj
I0403 14:43:43.190963 30220 net.cpp:148] Top shape: 24 64 14 14 (301056)
I0403 14:43:43.190994 30220 net.cpp:156] Memory required for data: 1061809440
I0403 14:43:43.191015 30220 layer_factory.hpp:77] Creating layer inception_4c/relu_pool_proj
I0403 14:43:43.191035 30220 net.cpp:91] Creating Layer inception_4c/relu_pool_proj
I0403 14:43:43.191064 30220 net.cpp:425] inception_4c/relu_pool_proj <- inception_4c/pool_proj
I0403 14:43:43.191083 30220 net.cpp:386] inception_4c/relu_pool_proj -> inception_4c/pool_proj (in-place)
I0403 14:43:43.191267 30220 net.cpp:141] Setting up inception_4c/relu_pool_proj
I0403 14:43:43.191292 30220 net.cpp:148] Top shape: 24 64 14 14 (301056)
I0403 14:43:43.191306 30220 net.cpp:156] Memory required for data: 1063013664
I0403 14:43:43.191328 30220 layer_factory.hpp:77] Creating layer inception_4c/output
I0403 14:43:43.191349 30220 net.cpp:91] Creating Layer inception_4c/output
I0403 14:43:43.191365 30220 net.cpp:425] inception_4c/output <- inception_4c/1x1
I0403 14:43:43.191383 30220 net.cpp:425] inception_4c/output <- inception_4c/3x3
I0403 14:43:43.191401 30220 net.cpp:425] inception_4c/output <- inception_4c/5x5
I0403 14:43:43.191417 30220 net.cpp:425] inception_4c/output <- inception_4c/pool_proj
I0403 14:43:43.191434 30220 net.cpp:399] inception_4c/output -> inception_4c/output
I0403 14:43:43.191480 30220 net.cpp:141] Setting up inception_4c/output
I0403 14:43:43.191509 30220 net.cpp:148] Top shape: 24 512 14 14 (2408448)
I0403 14:43:43.191524 30220 net.cpp:156] Memory required for data: 1072647456
I0403 14:43:43.191541 30220 layer_factory.hpp:77] Creating layer inception_4c/output_inception_4c/output_0_split
I0403 14:43:43.191560 30220 net.cpp:91] Creating Layer inception_4c/output_inception_4c/output_0_split
I0403 14:43:43.191577 30220 net.cpp:425] inception_4c/output_inception_4c/output_0_split <- inception_4c/output
I0403 14:43:43.191597 30220 net.cpp:399] inception_4c/output_inception_4c/output_0_split -> inception_4c/output_inception_4c/output_0_split_0
I0403 14:43:43.191619 30220 net.cpp:399] inception_4c/output_inception_4c/output_0_split -> inception_4c/output_inception_4c/output_0_split_1
I0403 14:43:43.191640 30220 net.cpp:399] inception_4c/output_inception_4c/output_0_split -> inception_4c/output_inception_4c/output_0_split_2
I0403 14:43:43.191663 30220 net.cpp:399] inception_4c/output_inception_4c/output_0_split -> inception_4c/output_inception_4c/output_0_split_3
I0403 14:43:43.191745 30220 net.cpp:141] Setting up inception_4c/output_inception_4c/output_0_split
I0403 14:43:43.191773 30220 net.cpp:148] Top shape: 24 512 14 14 (2408448)
I0403 14:43:43.191792 30220 net.cpp:148] Top shape: 24 512 14 14 (2408448)
I0403 14:43:43.191807 30220 net.cpp:148] Top shape: 24 512 14 14 (2408448)
I0403 14:43:43.191824 30220 net.cpp:148] Top shape: 24 512 14 14 (2408448)
I0403 14:43:43.191838 30220 net.cpp:156] Memory required for data: 1111182624
I0403 14:43:43.191854 30220 layer_factory.hpp:77] Creating layer inception_4d/1x1
I0403 14:43:43.191876 30220 net.cpp:91] Creating Layer inception_4d/1x1
I0403 14:43:43.191895 30220 net.cpp:425] inception_4d/1x1 <- inception_4c/output_inception_4c/output_0_split_0
I0403 14:43:43.191913 30220 net.cpp:399] inception_4d/1x1 -> inception_4d/1x1
I0403 14:43:43.193330 30220 net.cpp:141] Setting up inception_4d/1x1
I0403 14:43:43.193361 30220 net.cpp:148] Top shape: 24 112 14 14 (526848)
I0403 14:43:43.193379 30220 net.cpp:156] Memory required for data: 1113290016
I0403 14:43:43.193398 30220 layer_factory.hpp:77] Creating layer inception_4d/relu_1x1
I0403 14:43:43.193418 30220 net.cpp:91] Creating Layer inception_4d/relu_1x1
I0403 14:43:43.193438 30220 net.cpp:425] inception_4d/relu_1x1 <- inception_4d/1x1
I0403 14:43:43.193455 30220 net.cpp:386] inception_4d/relu_1x1 -> inception_4d/1x1 (in-place)
I0403 14:43:43.193645 30220 net.cpp:141] Setting up inception_4d/relu_1x1
I0403 14:43:43.193672 30220 net.cpp:148] Top shape: 24 112 14 14 (526848)
I0403 14:43:43.193689 30220 net.cpp:156] Memory required for data: 1115397408
I0403 14:43:43.193706 30220 layer_factory.hpp:77] Creating layer inception_4d/3x3_reduce
I0403 14:43:43.193744 30220 net.cpp:91] Creating Layer inception_4d/3x3_reduce
I0403 14:43:43.193766 30220 net.cpp:425] inception_4d/3x3_reduce <- inception_4c/output_inception_4c/output_0_split_1
I0403 14:43:43.193789 30220 net.cpp:399] inception_4d/3x3_reduce -> inception_4d/3x3_reduce
I0403 14:43:43.195376 30220 net.cpp:141] Setting up inception_4d/3x3_reduce
I0403 14:43:43.195405 30220 net.cpp:148] Top shape: 24 144 14 14 (677376)
I0403 14:43:43.195422 30220 net.cpp:156] Memory required for data: 1118106912
I0403 14:43:43.195442 30220 layer_factory.hpp:77] Creating layer inception_4d/relu_3x3_reduce
I0403 14:43:43.195463 30220 net.cpp:91] Creating Layer inception_4d/relu_3x3_reduce
I0403 14:43:43.195482 30220 net.cpp:425] inception_4d/relu_3x3_reduce <- inception_4d/3x3_reduce
I0403 14:43:43.195500 30220 net.cpp:386] inception_4d/relu_3x3_reduce -> inception_4d/3x3_reduce (in-place)
I0403 14:43:43.195796 30220 net.cpp:141] Setting up inception_4d/relu_3x3_reduce
I0403 14:43:43.195824 30220 net.cpp:148] Top shape: 24 144 14 14 (677376)
I0403 14:43:43.195840 30220 net.cpp:156] Memory required for data: 1120816416
I0403 14:43:43.195857 30220 layer_factory.hpp:77] Creating layer inception_4d/3x3
I0403 14:43:43.195879 30220 net.cpp:91] Creating Layer inception_4d/3x3
I0403 14:43:43.195899 30220 net.cpp:425] inception_4d/3x3 <- inception_4d/3x3_reduce
I0403 14:43:43.195922 30220 net.cpp:399] inception_4d/3x3 -> inception_4d/3x3
I0403 14:43:43.200273 30220 net.cpp:141] Setting up inception_4d/3x3
I0403 14:43:43.200305 30220 net.cpp:148] Top shape: 24 288 14 14 (1354752)
I0403 14:43:43.200327 30220 net.cpp:156] Memory required for data: 1126235424
I0403 14:43:43.200347 30220 layer_factory.hpp:77] Creating layer inception_4d/relu_3x3
I0403 14:43:43.200366 30220 net.cpp:91] Creating Layer inception_4d/relu_3x3
I0403 14:43:43.200384 30220 net.cpp:425] inception_4d/relu_3x3 <- inception_4d/3x3
I0403 14:43:43.200404 30220 net.cpp:386] inception_4d/relu_3x3 -> inception_4d/3x3 (in-place)
I0403 14:43:43.200588 30220 net.cpp:141] Setting up inception_4d/relu_3x3
I0403 14:43:43.200615 30220 net.cpp:148] Top shape: 24 288 14 14 (1354752)
I0403 14:43:43.200630 30220 net.cpp:156] Memory required for data: 1131654432
I0403 14:43:43.200650 30220 layer_factory.hpp:77] Creating layer inception_4d/5x5_reduce
I0403 14:43:43.200672 30220 net.cpp:91] Creating Layer inception_4d/5x5_reduce
I0403 14:43:43.200691 30220 net.cpp:425] inception_4d/5x5_reduce <- inception_4c/output_inception_4c/output_0_split_2
I0403 14:43:43.200713 30220 net.cpp:399] inception_4d/5x5_reduce -> inception_4d/5x5_reduce
I0403 14:43:43.201894 30220 net.cpp:141] Setting up inception_4d/5x5_reduce
I0403 14:43:43.201925 30220 net.cpp:148] Top shape: 24 32 14 14 (150528)
I0403 14:43:43.201942 30220 net.cpp:156] Memory required for data: 1132256544
I0403 14:43:43.201961 30220 layer_factory.hpp:77] Creating layer inception_4d/relu_5x5_reduce
I0403 14:43:43.201979 30220 net.cpp:91] Creating Layer inception_4d/relu_5x5_reduce
I0403 14:43:43.201995 30220 net.cpp:425] inception_4d/relu_5x5_reduce <- inception_4d/5x5_reduce
I0403 14:43:43.202013 30220 net.cpp:386] inception_4d/relu_5x5_reduce -> inception_4d/5x5_reduce (in-place)
I0403 14:43:43.202196 30220 net.cpp:141] Setting up inception_4d/relu_5x5_reduce
I0403 14:43:43.202222 30220 net.cpp:148] Top shape: 24 32 14 14 (150528)
I0403 14:43:43.202237 30220 net.cpp:156] Memory required for data: 1132858656
I0403 14:43:43.202252 30220 layer_factory.hpp:77] Creating layer inception_4d/5x5
I0403 14:43:43.202275 30220 net.cpp:91] Creating Layer inception_4d/5x5
I0403 14:43:43.202292 30220 net.cpp:425] inception_4d/5x5 <- inception_4d/5x5_reduce
I0403 14:43:43.202317 30220 net.cpp:399] inception_4d/5x5 -> inception_4d/5x5
I0403 14:43:43.203794 30220 net.cpp:141] Setting up inception_4d/5x5
I0403 14:43:43.203822 30220 net.cpp:148] Top shape: 24 64 14 14 (301056)
I0403 14:43:43.203837 30220 net.cpp:156] Memory required for data: 1134062880
I0403 14:43:43.203857 30220 layer_factory.hpp:77] Creating layer inception_4d/relu_5x5
I0403 14:43:43.203893 30220 net.cpp:91] Creating Layer inception_4d/relu_5x5
I0403 14:43:43.203913 30220 net.cpp:425] inception_4d/relu_5x5 <- inception_4d/5x5
I0403 14:43:43.203930 30220 net.cpp:386] inception_4d/relu_5x5 -> inception_4d/5x5 (in-place)
I0403 14:43:43.204226 30220 net.cpp:141] Setting up inception_4d/relu_5x5
I0403 14:43:43.204252 30220 net.cpp:148] Top shape: 24 64 14 14 (301056)
I0403 14:43:43.204269 30220 net.cpp:156] Memory required for data: 1135267104
I0403 14:43:43.204285 30220 layer_factory.hpp:77] Creating layer inception_4d/pool
I0403 14:43:43.204303 30220 net.cpp:91] Creating Layer inception_4d/pool
I0403 14:43:43.204327 30220 net.cpp:425] inception_4d/pool <- inception_4c/output_inception_4c/output_0_split_3
I0403 14:43:43.204352 30220 net.cpp:399] inception_4d/pool -> inception_4d/pool
I0403 14:43:43.204418 30220 net.cpp:141] Setting up inception_4d/pool
I0403 14:43:43.204443 30220 net.cpp:148] Top shape: 24 512 14 14 (2408448)
I0403 14:43:43.204458 30220 net.cpp:156] Memory required for data: 1144900896
I0403 14:43:43.204473 30220 layer_factory.hpp:77] Creating layer inception_4d/pool_proj
I0403 14:43:43.204496 30220 net.cpp:91] Creating Layer inception_4d/pool_proj
I0403 14:43:43.204515 30220 net.cpp:425] inception_4d/pool_proj <- inception_4d/pool
I0403 14:43:43.204535 30220 net.cpp:399] inception_4d/pool_proj -> inception_4d/pool_proj
I0403 14:43:43.206271 30220 net.cpp:141] Setting up inception_4d/pool_proj
I0403 14:43:43.206313 30220 net.cpp:148] Top shape: 24 64 14 14 (301056)
I0403 14:43:43.206348 30220 net.cpp:156] Memory required for data: 1146105120
I0403 14:43:43.206369 30220 layer_factory.hpp:77] Creating layer inception_4d/relu_pool_proj
I0403 14:43:43.206390 30220 net.cpp:91] Creating Layer inception_4d/relu_pool_proj
I0403 14:43:43.206409 30220 net.cpp:425] inception_4d/relu_pool_proj <- inception_4d/pool_proj
I0403 14:43:43.206430 30220 net.cpp:386] inception_4d/relu_pool_proj -> inception_4d/pool_proj (in-place)
I0403 14:43:43.206617 30220 net.cpp:141] Setting up inception_4d/relu_pool_proj
I0403 14:43:43.206643 30220 net.cpp:148] Top shape: 24 64 14 14 (301056)
I0403 14:43:43.206658 30220 net.cpp:156] Memory required for data: 1147309344
I0403 14:43:43.206686 30220 layer_factory.hpp:77] Creating layer inception_4d/output
I0403 14:43:43.206703 30220 net.cpp:91] Creating Layer inception_4d/output
I0403 14:43:43.206718 30220 net.cpp:425] inception_4d/output <- inception_4d/1x1
I0403 14:43:43.206734 30220 net.cpp:425] inception_4d/output <- inception_4d/3x3
I0403 14:43:43.206758 30220 net.cpp:425] inception_4d/output <- inception_4d/5x5
I0403 14:43:43.206773 30220 net.cpp:425] inception_4d/output <- inception_4d/pool_proj
I0403 14:43:43.206794 30220 net.cpp:399] inception_4d/output -> inception_4d/output
I0403 14:43:43.206840 30220 net.cpp:141] Setting up inception_4d/output
I0403 14:43:43.206866 30220 net.cpp:148] Top shape: 24 528 14 14 (2483712)
I0403 14:43:43.206883 30220 net.cpp:156] Memory required for data: 1157244192
I0403 14:43:43.206898 30220 layer_factory.hpp:77] Creating layer inception_4d/output_inception_4d/output_0_split
I0403 14:43:43.206918 30220 net.cpp:91] Creating Layer inception_4d/output_inception_4d/output_0_split
I0403 14:43:43.206933 30220 net.cpp:425] inception_4d/output_inception_4d/output_0_split <- inception_4d/output
I0403 14:43:43.206949 30220 net.cpp:399] inception_4d/output_inception_4d/output_0_split -> inception_4d/output_inception_4d/output_0_split_0
I0403 14:43:43.206971 30220 net.cpp:399] inception_4d/output_inception_4d/output_0_split -> inception_4d/output_inception_4d/output_0_split_1
I0403 14:43:43.206995 30220 net.cpp:399] inception_4d/output_inception_4d/output_0_split -> inception_4d/output_inception_4d/output_0_split_2
I0403 14:43:43.207016 30220 net.cpp:399] inception_4d/output_inception_4d/output_0_split -> inception_4d/output_inception_4d/output_0_split_3
I0403 14:43:43.207036 30220 net.cpp:399] inception_4d/output_inception_4d/output_0_split -> inception_4d/output_inception_4d/output_0_split_4
I0403 14:43:43.207134 30220 net.cpp:141] Setting up inception_4d/output_inception_4d/output_0_split
I0403 14:43:43.207168 30220 net.cpp:148] Top shape: 24 528 14 14 (2483712)
I0403 14:43:43.207190 30220 net.cpp:148] Top shape: 24 528 14 14 (2483712)
I0403 14:43:43.207208 30220 net.cpp:148] Top shape: 24 528 14 14 (2483712)
I0403 14:43:43.207226 30220 net.cpp:148] Top shape: 24 528 14 14 (2483712)
I0403 14:43:43.207240 30220 net.cpp:148] Top shape: 24 528 14 14 (2483712)
I0403 14:43:43.207254 30220 net.cpp:156] Memory required for data: 1206918432
I0403 14:43:43.207268 30220 layer_factory.hpp:77] Creating layer loss2/ave_pool
I0403 14:43:43.207288 30220 net.cpp:91] Creating Layer loss2/ave_pool
I0403 14:43:43.207304 30220 net.cpp:425] loss2/ave_pool <- inception_4d/output_inception_4d/output_0_split_0
I0403 14:43:43.207327 30220 net.cpp:399] loss2/ave_pool -> loss2/ave_pool
I0403 14:43:43.207633 30220 net.cpp:141] Setting up loss2/ave_pool
I0403 14:43:43.207662 30220 net.cpp:148] Top shape: 24 528 4 4 (202752)
I0403 14:43:43.207679 30220 net.cpp:156] Memory required for data: 1207729440
I0403 14:43:43.207693 30220 layer_factory.hpp:77] Creating layer loss2/conv
I0403 14:43:43.207715 30220 net.cpp:91] Creating Layer loss2/conv
I0403 14:43:43.207734 30220 net.cpp:425] loss2/conv <- loss2/ave_pool
I0403 14:43:43.207753 30220 net.cpp:399] loss2/conv -> loss2/conv
I0403 14:43:43.209631 30220 net.cpp:141] Setting up loss2/conv
I0403 14:43:43.209661 30220 net.cpp:148] Top shape: 24 128 4 4 (49152)
I0403 14:43:43.209676 30220 net.cpp:156] Memory required for data: 1207926048
I0403 14:43:43.209695 30220 layer_factory.hpp:77] Creating layer loss2/relu_conv
I0403 14:43:43.209713 30220 net.cpp:91] Creating Layer loss2/relu_conv
I0403 14:43:43.209729 30220 net.cpp:425] loss2/relu_conv <- loss2/conv
I0403 14:43:43.209750 30220 net.cpp:386] loss2/relu_conv -> loss2/conv (in-place)
I0403 14:43:43.210031 30220 net.cpp:141] Setting up loss2/relu_conv
I0403 14:43:43.210057 30220 net.cpp:148] Top shape: 24 128 4 4 (49152)
I0403 14:43:43.210072 30220 net.cpp:156] Memory required for data: 1208122656
I0403 14:43:43.210088 30220 layer_factory.hpp:77] Creating layer loss2/fc
I0403 14:43:43.210108 30220 net.cpp:91] Creating Layer loss2/fc
I0403 14:43:43.210124 30220 net.cpp:425] loss2/fc <- loss2/conv
I0403 14:43:43.210145 30220 net.cpp:399] loss2/fc -> loss2/fc
I0403 14:43:43.227862 30220 net.cpp:141] Setting up loss2/fc
I0403 14:43:43.227905 30220 net.cpp:148] Top shape: 24 1024 (24576)
I0403 14:43:43.227924 30220 net.cpp:156] Memory required for data: 1208220960
I0403 14:43:43.227946 30220 layer_factory.hpp:77] Creating layer loss2/relu_fc
I0403 14:43:43.227965 30220 net.cpp:91] Creating Layer loss2/relu_fc
I0403 14:43:43.227985 30220 net.cpp:425] loss2/relu_fc <- loss2/fc
I0403 14:43:43.228004 30220 net.cpp:386] loss2/relu_fc -> loss2/fc (in-place)
I0403 14:43:43.228317 30220 net.cpp:141] Setting up loss2/relu_fc
I0403 14:43:43.228345 30220 net.cpp:148] Top shape: 24 1024 (24576)
I0403 14:43:43.228361 30220 net.cpp:156] Memory required for data: 1208319264
I0403 14:43:43.228377 30220 layer_factory.hpp:77] Creating layer loss2/drop_fc
I0403 14:43:43.228396 30220 net.cpp:91] Creating Layer loss2/drop_fc
I0403 14:43:43.228413 30220 net.cpp:425] loss2/drop_fc <- loss2/fc
I0403 14:43:43.228432 30220 net.cpp:386] loss2/drop_fc -> loss2/fc (in-place)
I0403 14:43:43.228483 30220 net.cpp:141] Setting up loss2/drop_fc
I0403 14:43:43.228507 30220 net.cpp:148] Top shape: 24 1024 (24576)
I0403 14:43:43.228523 30220 net.cpp:156] Memory required for data: 1208417568
I0403 14:43:43.228538 30220 layer_factory.hpp:77] Creating layer loss2/classifier_plantvillage
I0403 14:43:43.228560 30220 net.cpp:91] Creating Layer loss2/classifier_plantvillage
I0403 14:43:43.228579 30220 net.cpp:425] loss2/classifier_plantvillage <- loss2/fc
I0403 14:43:43.228602 30220 net.cpp:399] loss2/classifier_plantvillage -> loss2/classifier_plantvillage
I0403 14:43:43.229009 30220 net.cpp:141] Setting up loss2/classifier_plantvillage
I0403 14:43:43.229035 30220 net.cpp:148] Top shape: 24 38 (912)
I0403 14:43:43.229051 30220 net.cpp:156] Memory required for data: 1208421216
I0403 14:43:43.229091 30220 layer_factory.hpp:77] Creating layer loss2/classifier_plantvillage_loss2/classifier_plantvillage_0_split
I0403 14:43:43.229112 30220 net.cpp:91] Creating Layer loss2/classifier_plantvillage_loss2/classifier_plantvillage_0_split
I0403 14:43:43.229130 30220 net.cpp:425] loss2/classifier_plantvillage_loss2/classifier_plantvillage_0_split <- loss2/classifier_plantvillage
I0403 14:43:43.229151 30220 net.cpp:399] loss2/classifier_plantvillage_loss2/classifier_plantvillage_0_split -> loss2/classifier_plantvillage_loss2/classifier_plantvillage_0_split_0
I0403 14:43:43.229172 30220 net.cpp:399] loss2/classifier_plantvillage_loss2/classifier_plantvillage_0_split -> loss2/classifier_plantvillage_loss2/classifier_plantvillage_0_split_1
I0403 14:43:43.229195 30220 net.cpp:399] loss2/classifier_plantvillage_loss2/classifier_plantvillage_0_split -> loss2/classifier_plantvillage_loss2/classifier_plantvillage_0_split_2
I0403 14:43:43.229275 30220 net.cpp:141] Setting up loss2/classifier_plantvillage_loss2/classifier_plantvillage_0_split
I0403 14:43:43.229300 30220 net.cpp:148] Top shape: 24 38 (912)
I0403 14:43:43.229323 30220 net.cpp:148] Top shape: 24 38 (912)
I0403 14:43:43.229357 30220 net.cpp:148] Top shape: 24 38 (912)
I0403 14:43:43.229374 30220 net.cpp:156] Memory required for data: 1208432160
I0403 14:43:43.229400 30220 layer_factory.hpp:77] Creating layer inception_4e/1x1
I0403 14:43:43.229424 30220 net.cpp:91] Creating Layer inception_4e/1x1
I0403 14:43:43.229445 30220 net.cpp:425] inception_4e/1x1 <- inception_4d/output_inception_4d/output_0_split_1
I0403 14:43:43.229466 30220 net.cpp:399] inception_4e/1x1 -> inception_4e/1x1
I0403 14:43:43.231369 30220 net.cpp:141] Setting up inception_4e/1x1
I0403 14:43:43.231400 30220 net.cpp:148] Top shape: 24 256 14 14 (1204224)
I0403 14:43:43.231416 30220 net.cpp:156] Memory required for data: 1213249056
I0403 14:43:43.231436 30220 layer_factory.hpp:77] Creating layer inception_4e/relu_1x1
I0403 14:43:43.231456 30220 net.cpp:91] Creating Layer inception_4e/relu_1x1
I0403 14:43:43.231475 30220 net.cpp:425] inception_4e/relu_1x1 <- inception_4e/1x1
I0403 14:43:43.231494 30220 net.cpp:386] inception_4e/relu_1x1 -> inception_4e/1x1 (in-place)
I0403 14:43:43.231811 30220 net.cpp:141] Setting up inception_4e/relu_1x1
I0403 14:43:43.231838 30220 net.cpp:148] Top shape: 24 256 14 14 (1204224)
I0403 14:43:43.231854 30220 net.cpp:156] Memory required for data: 1218065952
I0403 14:43:43.231870 30220 layer_factory.hpp:77] Creating layer inception_4e/3x3_reduce
I0403 14:43:43.231894 30220 net.cpp:91] Creating Layer inception_4e/3x3_reduce
I0403 14:43:43.231914 30220 net.cpp:425] inception_4e/3x3_reduce <- inception_4d/output_inception_4d/output_0_split_2
I0403 14:43:43.231936 30220 net.cpp:399] inception_4e/3x3_reduce -> inception_4e/3x3_reduce
I0403 14:43:43.234153 30220 net.cpp:141] Setting up inception_4e/3x3_reduce
I0403 14:43:43.234184 30220 net.cpp:148] Top shape: 24 160 14 14 (752640)
I0403 14:43:43.234201 30220 net.cpp:156] Memory required for data: 1221076512
I0403 14:43:43.234221 30220 layer_factory.hpp:77] Creating layer inception_4e/relu_3x3_reduce
I0403 14:43:43.234241 30220 net.cpp:91] Creating Layer inception_4e/relu_3x3_reduce
I0403 14:43:43.234259 30220 net.cpp:425] inception_4e/relu_3x3_reduce <- inception_4e/3x3_reduce
I0403 14:43:43.234279 30220 net.cpp:386] inception_4e/relu_3x3_reduce -> inception_4e/3x3_reduce (in-place)
I0403 14:43:43.234496 30220 net.cpp:141] Setting up inception_4e/relu_3x3_reduce
I0403 14:43:43.234524 30220 net.cpp:148] Top shape: 24 160 14 14 (752640)
I0403 14:43:43.234540 30220 net.cpp:156] Memory required for data: 1224087072
I0403 14:43:43.234556 30220 layer_factory.hpp:77] Creating layer inception_4e/3x3
I0403 14:43:43.234588 30220 net.cpp:91] Creating Layer inception_4e/3x3
I0403 14:43:43.234607 30220 net.cpp:425] inception_4e/3x3 <- inception_4e/3x3_reduce
I0403 14:43:43.234629 30220 net.cpp:399] inception_4e/3x3 -> inception_4e/3x3
I0403 14:43:43.239805 30220 net.cpp:141] Setting up inception_4e/3x3
I0403 14:43:43.239850 30220 net.cpp:148] Top shape: 24 320 14 14 (1505280)
I0403 14:43:43.239867 30220 net.cpp:156] Memory required for data: 1230108192
I0403 14:43:43.239888 30220 layer_factory.hpp:77] Creating layer inception_4e/relu_3x3
I0403 14:43:43.239910 30220 net.cpp:91] Creating Layer inception_4e/relu_3x3
I0403 14:43:43.239929 30220 net.cpp:425] inception_4e/relu_3x3 <- inception_4e/3x3
I0403 14:43:43.239948 30220 net.cpp:386] inception_4e/relu_3x3 -> inception_4e/3x3 (in-place)
I0403 14:43:43.240273 30220 net.cpp:141] Setting up inception_4e/relu_3x3
I0403 14:43:43.240304 30220 net.cpp:148] Top shape: 24 320 14 14 (1505280)
I0403 14:43:43.240325 30220 net.cpp:156] Memory required for data: 1236129312
I0403 14:43:43.240342 30220 layer_factory.hpp:77] Creating layer inception_4e/5x5_reduce
I0403 14:43:43.240368 30220 net.cpp:91] Creating Layer inception_4e/5x5_reduce
I0403 14:43:43.240387 30220 net.cpp:425] inception_4e/5x5_reduce <- inception_4d/output_inception_4d/output_0_split_3
I0403 14:43:43.240407 30220 net.cpp:399] inception_4e/5x5_reduce -> inception_4e/5x5_reduce
I0403 14:43:43.241518 30220 net.cpp:141] Setting up inception_4e/5x5_reduce
I0403 14:43:43.241547 30220 net.cpp:148] Top shape: 24 32 14 14 (150528)
I0403 14:43:43.241564 30220 net.cpp:156] Memory required for data: 1236731424
I0403 14:43:43.241587 30220 layer_factory.hpp:77] Creating layer inception_4e/relu_5x5_reduce
I0403 14:43:43.241611 30220 net.cpp:91] Creating Layer inception_4e/relu_5x5_reduce
I0403 14:43:43.241631 30220 net.cpp:425] inception_4e/relu_5x5_reduce <- inception_4e/5x5_reduce
I0403 14:43:43.241650 30220 net.cpp:386] inception_4e/relu_5x5_reduce -> inception_4e/5x5_reduce (in-place)
I0403 14:43:43.241966 30220 net.cpp:141] Setting up inception_4e/relu_5x5_reduce
I0403 14:43:43.241993 30220 net.cpp:148] Top shape: 24 32 14 14 (150528)
I0403 14:43:43.242009 30220 net.cpp:156] Memory required for data: 1237333536
I0403 14:43:43.242027 30220 layer_factory.hpp:77] Creating layer inception_4e/5x5
I0403 14:43:43.242069 30220 net.cpp:91] Creating Layer inception_4e/5x5
I0403 14:43:43.242089 30220 net.cpp:425] inception_4e/5x5 <- inception_4e/5x5_reduce
I0403 14:43:43.242110 30220 net.cpp:399] inception_4e/5x5 -> inception_4e/5x5
I0403 14:43:43.244017 30220 net.cpp:141] Setting up inception_4e/5x5
I0403 14:43:43.244050 30220 net.cpp:148] Top shape: 24 128 14 14 (602112)
I0403 14:43:43.244068 30220 net.cpp:156] Memory required for data: 1239741984
I0403 14:43:43.244089 30220 layer_factory.hpp:77] Creating layer inception_4e/relu_5x5
I0403 14:43:43.244109 30220 net.cpp:91] Creating Layer inception_4e/relu_5x5
I0403 14:43:43.244127 30220 net.cpp:425] inception_4e/relu_5x5 <- inception_4e/5x5
I0403 14:43:43.244148 30220 net.cpp:386] inception_4e/relu_5x5 -> inception_4e/5x5 (in-place)
I0403 14:43:43.244364 30220 net.cpp:141] Setting up inception_4e/relu_5x5
I0403 14:43:43.244392 30220 net.cpp:148] Top shape: 24 128 14 14 (602112)
I0403 14:43:43.244408 30220 net.cpp:156] Memory required for data: 1242150432
I0403 14:43:43.244423 30220 layer_factory.hpp:77] Creating layer inception_4e/pool
I0403 14:43:43.244443 30220 net.cpp:91] Creating Layer inception_4e/pool
I0403 14:43:43.244460 30220 net.cpp:425] inception_4e/pool <- inception_4d/output_inception_4d/output_0_split_4
I0403 14:43:43.244482 30220 net.cpp:399] inception_4e/pool -> inception_4e/pool
I0403 14:43:43.244559 30220 net.cpp:141] Setting up inception_4e/pool
I0403 14:43:43.244583 30220 net.cpp:148] Top shape: 24 528 14 14 (2483712)
I0403 14:43:43.244598 30220 net.cpp:156] Memory required for data: 1252085280
I0403 14:43:43.244614 30220 layer_factory.hpp:77] Creating layer inception_4e/pool_proj
I0403 14:43:43.244640 30220 net.cpp:91] Creating Layer inception_4e/pool_proj
I0403 14:43:43.244663 30220 net.cpp:425] inception_4e/pool_proj <- inception_4e/pool
I0403 14:43:43.244683 30220 net.cpp:399] inception_4e/pool_proj -> inception_4e/pool_proj
I0403 14:43:43.246243 30220 net.cpp:141] Setting up inception_4e/pool_proj
I0403 14:43:43.246278 30220 net.cpp:148] Top shape: 24 128 14 14 (602112)
I0403 14:43:43.246309 30220 net.cpp:156] Memory required for data: 1254493728
I0403 14:43:43.246337 30220 layer_factory.hpp:77] Creating layer inception_4e/relu_pool_proj
I0403 14:43:43.246357 30220 net.cpp:91] Creating Layer inception_4e/relu_pool_proj
I0403 14:43:43.246384 30220 net.cpp:425] inception_4e/relu_pool_proj <- inception_4e/pool_proj
I0403 14:43:43.246405 30220 net.cpp:386] inception_4e/relu_pool_proj -> inception_4e/pool_proj (in-place)
I0403 14:43:43.246713 30220 net.cpp:141] Setting up inception_4e/relu_pool_proj
I0403 14:43:43.246743 30220 net.cpp:148] Top shape: 24 128 14 14 (602112)
I0403 14:43:43.246762 30220 net.cpp:156] Memory required for data: 1256902176
I0403 14:43:43.246778 30220 layer_factory.hpp:77] Creating layer inception_4e/output
I0403 14:43:43.246798 30220 net.cpp:91] Creating Layer inception_4e/output
I0403 14:43:43.246815 30220 net.cpp:425] inception_4e/output <- inception_4e/1x1
I0403 14:43:43.246834 30220 net.cpp:425] inception_4e/output <- inception_4e/3x3
I0403 14:43:43.246850 30220 net.cpp:425] inception_4e/output <- inception_4e/5x5
I0403 14:43:43.246868 30220 net.cpp:425] inception_4e/output <- inception_4e/pool_proj
I0403 14:43:43.246889 30220 net.cpp:399] inception_4e/output -> inception_4e/output
I0403 14:43:43.246942 30220 net.cpp:141] Setting up inception_4e/output
I0403 14:43:43.246968 30220 net.cpp:148] Top shape: 24 832 14 14 (3913728)
I0403 14:43:43.246984 30220 net.cpp:156] Memory required for data: 1272557088
I0403 14:43:43.246999 30220 layer_factory.hpp:77] Creating layer pool4/3x3_s2
I0403 14:43:43.247021 30220 net.cpp:91] Creating Layer pool4/3x3_s2
I0403 14:43:43.247040 30220 net.cpp:425] pool4/3x3_s2 <- inception_4e/output
I0403 14:43:43.247059 30220 net.cpp:399] pool4/3x3_s2 -> pool4/3x3_s2
I0403 14:43:43.247131 30220 net.cpp:141] Setting up pool4/3x3_s2
I0403 14:43:43.247156 30220 net.cpp:148] Top shape: 24 832 7 7 (978432)
I0403 14:43:43.247172 30220 net.cpp:156] Memory required for data: 1276470816
I0403 14:43:43.247189 30220 layer_factory.hpp:77] Creating layer pool4/3x3_s2_pool4/3x3_s2_0_split
I0403 14:43:43.247206 30220 net.cpp:91] Creating Layer pool4/3x3_s2_pool4/3x3_s2_0_split
I0403 14:43:43.247222 30220 net.cpp:425] pool4/3x3_s2_pool4/3x3_s2_0_split <- pool4/3x3_s2
I0403 14:43:43.247243 30220 net.cpp:399] pool4/3x3_s2_pool4/3x3_s2_0_split -> pool4/3x3_s2_pool4/3x3_s2_0_split_0
I0403 14:43:43.247264 30220 net.cpp:399] pool4/3x3_s2_pool4/3x3_s2_0_split -> pool4/3x3_s2_pool4/3x3_s2_0_split_1
I0403 14:43:43.247287 30220 net.cpp:399] pool4/3x3_s2_pool4/3x3_s2_0_split -> pool4/3x3_s2_pool4/3x3_s2_0_split_2
I0403 14:43:43.247308 30220 net.cpp:399] pool4/3x3_s2_pool4/3x3_s2_0_split -> pool4/3x3_s2_pool4/3x3_s2_0_split_3
I0403 14:43:43.247406 30220 net.cpp:141] Setting up pool4/3x3_s2_pool4/3x3_s2_0_split
I0403 14:43:43.247433 30220 net.cpp:148] Top shape: 24 832 7 7 (978432)
I0403 14:43:43.247450 30220 net.cpp:148] Top shape: 24 832 7 7 (978432)
I0403 14:43:43.247467 30220 net.cpp:148] Top shape: 24 832 7 7 (978432)
I0403 14:43:43.247483 30220 net.cpp:148] Top shape: 24 832 7 7 (978432)
I0403 14:43:43.247506 30220 net.cpp:156] Memory required for data: 1292125728
I0403 14:43:43.247524 30220 layer_factory.hpp:77] Creating layer inception_5a/1x1
I0403 14:43:43.247548 30220 net.cpp:91] Creating Layer inception_5a/1x1
I0403 14:43:43.247568 30220 net.cpp:425] inception_5a/1x1 <- pool4/3x3_s2_pool4/3x3_s2_0_split_0
I0403 14:43:43.247591 30220 net.cpp:399] inception_5a/1x1 -> inception_5a/1x1
I0403 14:43:43.250504 30220 net.cpp:141] Setting up inception_5a/1x1
I0403 14:43:43.250533 30220 net.cpp:148] Top shape: 24 256 7 7 (301056)
I0403 14:43:43.250550 30220 net.cpp:156] Memory required for data: 1293329952
I0403 14:43:43.250571 30220 layer_factory.hpp:77] Creating layer inception_5a/relu_1x1
I0403 14:43:43.250589 30220 net.cpp:91] Creating Layer inception_5a/relu_1x1
I0403 14:43:43.250607 30220 net.cpp:425] inception_5a/relu_1x1 <- inception_5a/1x1
I0403 14:43:43.250632 30220 net.cpp:386] inception_5a/relu_1x1 -> inception_5a/1x1 (in-place)
I0403 14:43:43.250948 30220 net.cpp:141] Setting up inception_5a/relu_1x1
I0403 14:43:43.250977 30220 net.cpp:148] Top shape: 24 256 7 7 (301056)
I0403 14:43:43.250993 30220 net.cpp:156] Memory required for data: 1294534176
I0403 14:43:43.251009 30220 layer_factory.hpp:77] Creating layer inception_5a/3x3_reduce
I0403 14:43:43.251034 30220 net.cpp:91] Creating Layer inception_5a/3x3_reduce
I0403 14:43:43.251054 30220 net.cpp:425] inception_5a/3x3_reduce <- pool4/3x3_s2_pool4/3x3_s2_0_split_1
I0403 14:43:43.251075 30220 net.cpp:399] inception_5a/3x3_reduce -> inception_5a/3x3_reduce
I0403 14:43:43.253561 30220 net.cpp:141] Setting up inception_5a/3x3_reduce
I0403 14:43:43.253597 30220 net.cpp:148] Top shape: 24 160 7 7 (188160)
I0403 14:43:43.253613 30220 net.cpp:156] Memory required for data: 1295286816
I0403 14:43:43.253633 30220 layer_factory.hpp:77] Creating layer inception_5a/relu_3x3_reduce
I0403 14:43:43.253654 30220 net.cpp:91] Creating Layer inception_5a/relu_3x3_reduce
I0403 14:43:43.253672 30220 net.cpp:425] inception_5a/relu_3x3_reduce <- inception_5a/3x3_reduce
I0403 14:43:43.253691 30220 net.cpp:386] inception_5a/relu_3x3_reduce -> inception_5a/3x3_reduce (in-place)
I0403 14:43:43.253881 30220 net.cpp:141] Setting up inception_5a/relu_3x3_reduce
I0403 14:43:43.253907 30220 net.cpp:148] Top shape: 24 160 7 7 (188160)
I0403 14:43:43.253922 30220 net.cpp:156] Memory required for data: 1296039456
I0403 14:43:43.253937 30220 layer_factory.hpp:77] Creating layer inception_5a/3x3
I0403 14:43:43.253962 30220 net.cpp:91] Creating Layer inception_5a/3x3
I0403 14:43:43.253979 30220 net.cpp:425] inception_5a/3x3 <- inception_5a/3x3_reduce
I0403 14:43:43.254004 30220 net.cpp:399] inception_5a/3x3 -> inception_5a/3x3
I0403 14:43:43.259063 30220 net.cpp:141] Setting up inception_5a/3x3
I0403 14:43:43.259095 30220 net.cpp:148] Top shape: 24 320 7 7 (376320)
I0403 14:43:43.259114 30220 net.cpp:156] Memory required for data: 1297544736
I0403 14:43:43.259132 30220 layer_factory.hpp:77] Creating layer inception_5a/relu_3x3
I0403 14:43:43.259151 30220 net.cpp:91] Creating Layer inception_5a/relu_3x3
I0403 14:43:43.259168 30220 net.cpp:425] inception_5a/relu_3x3 <- inception_5a/3x3
I0403 14:43:43.259189 30220 net.cpp:386] inception_5a/relu_3x3 -> inception_5a/3x3 (in-place)
I0403 14:43:43.259491 30220 net.cpp:141] Setting up inception_5a/relu_3x3
I0403 14:43:43.259521 30220 net.cpp:148] Top shape: 24 320 7 7 (376320)
I0403 14:43:43.259538 30220 net.cpp:156] Memory required for data: 1299050016
I0403 14:43:43.259554 30220 layer_factory.hpp:77] Creating layer inception_5a/5x5_reduce
I0403 14:43:43.259580 30220 net.cpp:91] Creating Layer inception_5a/5x5_reduce
I0403 14:43:43.259600 30220 net.cpp:425] inception_5a/5x5_reduce <- pool4/3x3_s2_pool4/3x3_s2_0_split_2
I0403 14:43:43.259625 30220 net.cpp:399] inception_5a/5x5_reduce -> inception_5a/5x5_reduce
I0403 14:43:43.260812 30220 net.cpp:141] Setting up inception_5a/5x5_reduce
I0403 14:43:43.260840 30220 net.cpp:148] Top shape: 24 32 7 7 (37632)
I0403 14:43:43.260857 30220 net.cpp:156] Memory required for data: 1299200544
I0403 14:43:43.260877 30220 layer_factory.hpp:77] Creating layer inception_5a/relu_5x5_reduce
I0403 14:43:43.260895 30220 net.cpp:91] Creating Layer inception_5a/relu_5x5_reduce
I0403 14:43:43.260912 30220 net.cpp:425] inception_5a/relu_5x5_reduce <- inception_5a/5x5_reduce
I0403 14:43:43.260932 30220 net.cpp:386] inception_5a/relu_5x5_reduce -> inception_5a/5x5_reduce (in-place)
I0403 14:43:43.261240 30220 net.cpp:141] Setting up inception_5a/relu_5x5_reduce
I0403 14:43:43.261265 30220 net.cpp:148] Top shape: 24 32 7 7 (37632)
I0403 14:43:43.261282 30220 net.cpp:156] Memory required for data: 1299351072
I0403 14:43:43.261304 30220 layer_factory.hpp:77] Creating layer inception_5a/5x5
I0403 14:43:43.261333 30220 net.cpp:91] Creating Layer inception_5a/5x5
I0403 14:43:43.261353 30220 net.cpp:425] inception_5a/5x5 <- inception_5a/5x5_reduce
I0403 14:43:43.261375 30220 net.cpp:399] inception_5a/5x5 -> inception_5a/5x5
I0403 14:43:43.263098 30220 net.cpp:141] Setting up inception_5a/5x5
I0403 14:43:43.263141 30220 net.cpp:148] Top shape: 24 128 7 7 (150528)
I0403 14:43:43.263159 30220 net.cpp:156] Memory required for data: 1299953184
I0403 14:43:43.263180 30220 layer_factory.hpp:77] Creating layer inception_5a/relu_5x5
I0403 14:43:43.263198 30220 net.cpp:91] Creating Layer inception_5a/relu_5x5
I0403 14:43:43.263216 30220 net.cpp:425] inception_5a/relu_5x5 <- inception_5a/5x5
I0403 14:43:43.263236 30220 net.cpp:386] inception_5a/relu_5x5 -> inception_5a/5x5 (in-place)
I0403 14:43:43.263432 30220 net.cpp:141] Setting up inception_5a/relu_5x5
I0403 14:43:43.263458 30220 net.cpp:148] Top shape: 24 128 7 7 (150528)
I0403 14:43:43.263475 30220 net.cpp:156] Memory required for data: 1300555296
I0403 14:43:43.263491 30220 layer_factory.hpp:77] Creating layer inception_5a/pool
I0403 14:43:43.263510 30220 net.cpp:91] Creating Layer inception_5a/pool
I0403 14:43:43.263527 30220 net.cpp:425] inception_5a/pool <- pool4/3x3_s2_pool4/3x3_s2_0_split_3
I0403 14:43:43.263561 30220 net.cpp:399] inception_5a/pool -> inception_5a/pool
I0403 14:43:43.263638 30220 net.cpp:141] Setting up inception_5a/pool
I0403 14:43:43.263664 30220 net.cpp:148] Top shape: 24 832 7 7 (978432)
I0403 14:43:43.263679 30220 net.cpp:156] Memory required for data: 1304469024
I0403 14:43:43.263695 30220 layer_factory.hpp:77] Creating layer inception_5a/pool_proj
I0403 14:43:43.263720 30220 net.cpp:91] Creating Layer inception_5a/pool_proj
I0403 14:43:43.263739 30220 net.cpp:425] inception_5a/pool_proj <- inception_5a/pool
I0403 14:43:43.263761 30220 net.cpp:399] inception_5a/pool_proj -> inception_5a/pool_proj
I0403 14:43:43.266063 30220 net.cpp:141] Setting up inception_5a/pool_proj
I0403 14:43:43.266096 30220 net.cpp:148] Top shape: 24 128 7 7 (150528)
I0403 14:43:43.266120 30220 net.cpp:156] Memory required for data: 1305071136
I0403 14:43:43.266142 30220 layer_factory.hpp:77] Creating layer inception_5a/relu_pool_proj
I0403 14:43:43.266160 30220 net.cpp:91] Creating Layer inception_5a/relu_pool_proj
I0403 14:43:43.266177 30220 net.cpp:425] inception_5a/relu_pool_proj <- inception_5a/pool_proj
I0403 14:43:43.266194 30220 net.cpp:386] inception_5a/relu_pool_proj -> inception_5a/pool_proj (in-place)
I0403 14:43:43.266511 30220 net.cpp:141] Setting up inception_5a/relu_pool_proj
I0403 14:43:43.266541 30220 net.cpp:148] Top shape: 24 128 7 7 (150528)
I0403 14:43:43.266559 30220 net.cpp:156] Memory required for data: 1305673248
I0403 14:43:43.266576 30220 layer_factory.hpp:77] Creating layer inception_5a/output
I0403 14:43:43.266602 30220 net.cpp:91] Creating Layer inception_5a/output
I0403 14:43:43.266619 30220 net.cpp:425] inception_5a/output <- inception_5a/1x1
I0403 14:43:43.266636 30220 net.cpp:425] inception_5a/output <- inception_5a/3x3
I0403 14:43:43.266652 30220 net.cpp:425] inception_5a/output <- inception_5a/5x5
I0403 14:43:43.266669 30220 net.cpp:425] inception_5a/output <- inception_5a/pool_proj
I0403 14:43:43.266686 30220 net.cpp:399] inception_5a/output -> inception_5a/output
I0403 14:43:43.266739 30220 net.cpp:141] Setting up inception_5a/output
I0403 14:43:43.266764 30220 net.cpp:148] Top shape: 24 832 7 7 (978432)
I0403 14:43:43.266779 30220 net.cpp:156] Memory required for data: 1309586976
I0403 14:43:43.266795 30220 layer_factory.hpp:77] Creating layer inception_5a/output_inception_5a/output_0_split
I0403 14:43:43.266815 30220 net.cpp:91] Creating Layer inception_5a/output_inception_5a/output_0_split
I0403 14:43:43.266832 30220 net.cpp:425] inception_5a/output_inception_5a/output_0_split <- inception_5a/output
I0403 14:43:43.266850 30220 net.cpp:399] inception_5a/output_inception_5a/output_0_split -> inception_5a/output_inception_5a/output_0_split_0
I0403 14:43:43.266870 30220 net.cpp:399] inception_5a/output_inception_5a/output_0_split -> inception_5a/output_inception_5a/output_0_split_1
I0403 14:43:43.266891 30220 net.cpp:399] inception_5a/output_inception_5a/output_0_split -> inception_5a/output_inception_5a/output_0_split_2
I0403 14:43:43.266913 30220 net.cpp:399] inception_5a/output_inception_5a/output_0_split -> inception_5a/output_inception_5a/output_0_split_3
I0403 14:43:43.267026 30220 net.cpp:141] Setting up inception_5a/output_inception_5a/output_0_split
I0403 14:43:43.267051 30220 net.cpp:148] Top shape: 24 832 7 7 (978432)
I0403 14:43:43.267067 30220 net.cpp:148] Top shape: 24 832 7 7 (978432)
I0403 14:43:43.267083 30220 net.cpp:148] Top shape: 24 832 7 7 (978432)
I0403 14:43:43.267098 30220 net.cpp:148] Top shape: 24 832 7 7 (978432)
I0403 14:43:43.267113 30220 net.cpp:156] Memory required for data: 1325241888
I0403 14:43:43.267129 30220 layer_factory.hpp:77] Creating layer inception_5b/1x1
I0403 14:43:43.267153 30220 net.cpp:91] Creating Layer inception_5b/1x1
I0403 14:43:43.267173 30220 net.cpp:425] inception_5b/1x1 <- inception_5a/output_inception_5a/output_0_split_0
I0403 14:43:43.267195 30220 net.cpp:399] inception_5b/1x1 -> inception_5b/1x1
I0403 14:43:43.270994 30220 net.cpp:141] Setting up inception_5b/1x1
I0403 14:43:43.271026 30220 net.cpp:148] Top shape: 24 384 7 7 (451584)
I0403 14:43:43.271044 30220 net.cpp:156] Memory required for data: 1327048224
I0403 14:43:43.271062 30220 layer_factory.hpp:77] Creating layer inception_5b/relu_1x1
I0403 14:43:43.271083 30220 net.cpp:91] Creating Layer inception_5b/relu_1x1
I0403 14:43:43.271100 30220 net.cpp:425] inception_5b/relu_1x1 <- inception_5b/1x1
I0403 14:43:43.271118 30220 net.cpp:386] inception_5b/relu_1x1 -> inception_5b/1x1 (in-place)
I0403 14:43:43.271428 30220 net.cpp:141] Setting up inception_5b/relu_1x1
I0403 14:43:43.271456 30220 net.cpp:148] Top shape: 24 384 7 7 (451584)
I0403 14:43:43.271471 30220 net.cpp:156] Memory required for data: 1328854560
I0403 14:43:43.271487 30220 layer_factory.hpp:77] Creating layer inception_5b/3x3_reduce
I0403 14:43:43.271513 30220 net.cpp:91] Creating Layer inception_5b/3x3_reduce
I0403 14:43:43.271533 30220 net.cpp:425] inception_5b/3x3_reduce <- inception_5a/output_inception_5a/output_0_split_1
I0403 14:43:43.271551 30220 net.cpp:399] inception_5b/3x3_reduce -> inception_5b/3x3_reduce
I0403 14:43:43.274224 30220 net.cpp:141] Setting up inception_5b/3x3_reduce
I0403 14:43:43.274257 30220 net.cpp:148] Top shape: 24 192 7 7 (225792)
I0403 14:43:43.274276 30220 net.cpp:156] Memory required for data: 1329757728
I0403 14:43:43.274296 30220 layer_factory.hpp:77] Creating layer inception_5b/relu_3x3_reduce
I0403 14:43:43.274313 30220 net.cpp:91] Creating Layer inception_5b/relu_3x3_reduce
I0403 14:43:43.274344 30220 net.cpp:425] inception_5b/relu_3x3_reduce <- inception_5b/3x3_reduce
I0403 14:43:43.274363 30220 net.cpp:386] inception_5b/relu_3x3_reduce -> inception_5b/3x3_reduce (in-place)
I0403 14:43:43.274560 30220 net.cpp:141] Setting up inception_5b/relu_3x3_reduce
I0403 14:43:43.274586 30220 net.cpp:148] Top shape: 24 192 7 7 (225792)
I0403 14:43:43.274603 30220 net.cpp:156] Memory required for data: 1330660896
I0403 14:43:43.274619 30220 layer_factory.hpp:77] Creating layer inception_5b/3x3
I0403 14:43:43.274643 30220 net.cpp:91] Creating Layer inception_5b/3x3
I0403 14:43:43.274662 30220 net.cpp:425] inception_5b/3x3 <- inception_5b/3x3_reduce
I0403 14:43:43.274685 30220 net.cpp:399] inception_5b/3x3 -> inception_5b/3x3
I0403 14:43:43.281710 30220 net.cpp:141] Setting up inception_5b/3x3
I0403 14:43:43.281743 30220 net.cpp:148] Top shape: 24 384 7 7 (451584)
I0403 14:43:43.281761 30220 net.cpp:156] Memory required for data: 1332467232
I0403 14:43:43.281780 30220 layer_factory.hpp:77] Creating layer inception_5b/relu_3x3
I0403 14:43:43.281800 30220 net.cpp:91] Creating Layer inception_5b/relu_3x3
I0403 14:43:43.281817 30220 net.cpp:425] inception_5b/relu_3x3 <- inception_5b/3x3
I0403 14:43:43.281836 30220 net.cpp:386] inception_5b/relu_3x3 -> inception_5b/3x3 (in-place)
I0403 14:43:43.282145 30220 net.cpp:141] Setting up inception_5b/relu_3x3
I0403 14:43:43.282176 30220 net.cpp:148] Top shape: 24 384 7 7 (451584)
I0403 14:43:43.282194 30220 net.cpp:156] Memory required for data: 1334273568
I0403 14:43:43.282210 30220 layer_factory.hpp:77] Creating layer inception_5b/5x5_reduce
I0403 14:43:43.282253 30220 net.cpp:91] Creating Layer inception_5b/5x5_reduce
I0403 14:43:43.282274 30220 net.cpp:425] inception_5b/5x5_reduce <- inception_5a/output_inception_5a/output_0_split_2
I0403 14:43:43.282294 30220 net.cpp:399] inception_5b/5x5_reduce -> inception_5b/5x5_reduce
I0403 14:43:43.283623 30220 net.cpp:141] Setting up inception_5b/5x5_reduce
I0403 14:43:43.283655 30220 net.cpp:148] Top shape: 24 48 7 7 (56448)
I0403 14:43:43.283674 30220 net.cpp:156] Memory required for data: 1334499360
I0403 14:43:43.283694 30220 layer_factory.hpp:77] Creating layer inception_5b/relu_5x5_reduce
I0403 14:43:43.283712 30220 net.cpp:91] Creating Layer inception_5b/relu_5x5_reduce
I0403 14:43:43.283730 30220 net.cpp:425] inception_5b/relu_5x5_reduce <- inception_5b/5x5_reduce
I0403 14:43:43.283751 30220 net.cpp:386] inception_5b/relu_5x5_reduce -> inception_5b/5x5_reduce (in-place)
I0403 14:43:43.284139 30220 net.cpp:141] Setting up inception_5b/relu_5x5_reduce
I0403 14:43:43.284167 30220 net.cpp:148] Top shape: 24 48 7 7 (56448)
I0403 14:43:43.284183 30220 net.cpp:156] Memory required for data: 1334725152
I0403 14:43:43.284200 30220 layer_factory.hpp:77] Creating layer inception_5b/5x5
I0403 14:43:43.284221 30220 net.cpp:91] Creating Layer inception_5b/5x5
I0403 14:43:43.284240 30220 net.cpp:425] inception_5b/5x5 <- inception_5b/5x5_reduce
I0403 14:43:43.284258 30220 net.cpp:399] inception_5b/5x5 -> inception_5b/5x5
I0403 14:43:43.286425 30220 net.cpp:141] Setting up inception_5b/5x5
I0403 14:43:43.286455 30220 net.cpp:148] Top shape: 24 128 7 7 (150528)
I0403 14:43:43.286473 30220 net.cpp:156] Memory required for data: 1335327264
I0403 14:43:43.286494 30220 layer_factory.hpp:77] Creating layer inception_5b/relu_5x5
I0403 14:43:43.286512 30220 net.cpp:91] Creating Layer inception_5b/relu_5x5
I0403 14:43:43.286530 30220 net.cpp:425] inception_5b/relu_5x5 <- inception_5b/5x5
I0403 14:43:43.286551 30220 net.cpp:386] inception_5b/relu_5x5 -> inception_5b/5x5 (in-place)
I0403 14:43:43.286756 30220 net.cpp:141] Setting up inception_5b/relu_5x5
I0403 14:43:43.286782 30220 net.cpp:148] Top shape: 24 128 7 7 (150528)
I0403 14:43:43.286798 30220 net.cpp:156] Memory required for data: 1335929376
I0403 14:43:43.286813 30220 layer_factory.hpp:77] Creating layer inception_5b/pool
I0403 14:43:43.286834 30220 net.cpp:91] Creating Layer inception_5b/pool
I0403 14:43:43.286854 30220 net.cpp:425] inception_5b/pool <- inception_5a/output_inception_5a/output_0_split_3
I0403 14:43:43.286875 30220 net.cpp:399] inception_5b/pool -> inception_5b/pool
I0403 14:43:43.286952 30220 net.cpp:141] Setting up inception_5b/pool
I0403 14:43:43.286978 30220 net.cpp:148] Top shape: 24 832 7 7 (978432)
I0403 14:43:43.286994 30220 net.cpp:156] Memory required for data: 1339843104
I0403 14:43:43.287010 30220 layer_factory.hpp:77] Creating layer inception_5b/pool_proj
I0403 14:43:43.287034 30220 net.cpp:91] Creating Layer inception_5b/pool_proj
I0403 14:43:43.287052 30220 net.cpp:425] inception_5b/pool_proj <- inception_5b/pool
I0403 14:43:43.287077 30220 net.cpp:399] inception_5b/pool_proj -> inception_5b/pool_proj
I0403 14:43:43.289474 30220 net.cpp:141] Setting up inception_5b/pool_proj
I0403 14:43:43.289507 30220 net.cpp:148] Top shape: 24 128 7 7 (150528)
I0403 14:43:43.289526 30220 net.cpp:156] Memory required for data: 1340445216
I0403 14:43:43.289546 30220 layer_factory.hpp:77] Creating layer inception_5b/relu_pool_proj
I0403 14:43:43.289566 30220 net.cpp:91] Creating Layer inception_5b/relu_pool_proj
I0403 14:43:43.289583 30220 net.cpp:425] inception_5b/relu_pool_proj <- inception_5b/pool_proj
I0403 14:43:43.289605 30220 net.cpp:386] inception_5b/relu_pool_proj -> inception_5b/pool_proj (in-place)
I0403 14:43:43.289916 30220 net.cpp:141] Setting up inception_5b/relu_pool_proj
I0403 14:43:43.289947 30220 net.cpp:148] Top shape: 24 128 7 7 (150528)
I0403 14:43:43.289964 30220 net.cpp:156] Memory required for data: 1341047328
I0403 14:43:43.289980 30220 layer_factory.hpp:77] Creating layer inception_5b/output
I0403 14:43:43.289999 30220 net.cpp:91] Creating Layer inception_5b/output
I0403 14:43:43.290032 30220 net.cpp:425] inception_5b/output <- inception_5b/1x1
I0403 14:43:43.290052 30220 net.cpp:425] inception_5b/output <- inception_5b/3x3
I0403 14:43:43.290071 30220 net.cpp:425] inception_5b/output <- inception_5b/5x5
I0403 14:43:43.290087 30220 net.cpp:425] inception_5b/output <- inception_5b/pool_proj
I0403 14:43:43.290108 30220 net.cpp:399] inception_5b/output -> inception_5b/output
I0403 14:43:43.290163 30220 net.cpp:141] Setting up inception_5b/output
I0403 14:43:43.290189 30220 net.cpp:148] Top shape: 24 1024 7 7 (1204224)
I0403 14:43:43.290205 30220 net.cpp:156] Memory required for data: 1345864224
I0403 14:43:43.290221 30220 layer_factory.hpp:77] Creating layer pool5/7x7_s1
I0403 14:43:43.290244 30220 net.cpp:91] Creating Layer pool5/7x7_s1
I0403 14:43:43.290263 30220 net.cpp:425] pool5/7x7_s1 <- inception_5b/output
I0403 14:43:43.290283 30220 net.cpp:399] pool5/7x7_s1 -> pool5/7x7_s1
I0403 14:43:43.290515 30220 net.cpp:141] Setting up pool5/7x7_s1
I0403 14:43:43.290542 30220 net.cpp:148] Top shape: 24 1024 1 1 (24576)
I0403 14:43:43.290558 30220 net.cpp:156] Memory required for data: 1345962528
I0403 14:43:43.290576 30220 layer_factory.hpp:77] Creating layer pool5/drop_7x7_s1
I0403 14:43:43.290596 30220 net.cpp:91] Creating Layer pool5/drop_7x7_s1
I0403 14:43:43.290613 30220 net.cpp:425] pool5/drop_7x7_s1 <- pool5/7x7_s1
I0403 14:43:43.290634 30220 net.cpp:386] pool5/drop_7x7_s1 -> pool5/7x7_s1 (in-place)
I0403 14:43:43.290688 30220 net.cpp:141] Setting up pool5/drop_7x7_s1
I0403 14:43:43.290712 30220 net.cpp:148] Top shape: 24 1024 1 1 (24576)
I0403 14:43:43.290729 30220 net.cpp:156] Memory required for data: 1346060832
I0403 14:43:43.290745 30220 layer_factory.hpp:77] Creating layer loss3/classifier_plantvillage
I0403 14:43:43.290767 30220 net.cpp:91] Creating Layer loss3/classifier_plantvillage
I0403 14:43:43.290786 30220 net.cpp:425] loss3/classifier_plantvillage <- pool5/7x7_s1
I0403 14:43:43.290809 30220 net.cpp:399] loss3/classifier_plantvillage -> loss3/classifier_plantvillage
I0403 14:43:43.291251 30220 net.cpp:141] Setting up loss3/classifier_plantvillage
I0403 14:43:43.291278 30220 net.cpp:148] Top shape: 24 38 (912)
I0403 14:43:43.291295 30220 net.cpp:156] Memory required for data: 1346064480
I0403 14:43:43.291317 30220 layer_factory.hpp:77] Creating layer loss3/classifier_plantvillage_loss3/classifier_plantvillage_0_split
I0403 14:43:43.291342 30220 net.cpp:91] Creating Layer loss3/classifier_plantvillage_loss3/classifier_plantvillage_0_split
I0403 14:43:43.291360 30220 net.cpp:425] loss3/classifier_plantvillage_loss3/classifier_plantvillage_0_split <- loss3/classifier_plantvillage
I0403 14:43:43.291379 30220 net.cpp:399] loss3/classifier_plantvillage_loss3/classifier_plantvillage_0_split -> loss3/classifier_plantvillage_loss3/classifier_plantvillage_0_split_0
I0403 14:43:43.291401 30220 net.cpp:399] loss3/classifier_plantvillage_loss3/classifier_plantvillage_0_split -> loss3/classifier_plantvillage_loss3/classifier_plantvillage_0_split_1
I0403 14:43:43.291422 30220 net.cpp:399] loss3/classifier_plantvillage_loss3/classifier_plantvillage_0_split -> loss3/classifier_plantvillage_loss3/classifier_plantvillage_0_split_2
I0403 14:43:43.291447 30220 net.cpp:399] loss3/classifier_plantvillage_loss3/classifier_plantvillage_0_split -> loss3/classifier_plantvillage_loss3/classifier_plantvillage_0_split_3
I0403 14:43:43.291554 30220 net.cpp:141] Setting up loss3/classifier_plantvillage_loss3/classifier_plantvillage_0_split
I0403 14:43:43.291581 30220 net.cpp:148] Top shape: 24 38 (912)
I0403 14:43:43.291600 30220 net.cpp:148] Top shape: 24 38 (912)
I0403 14:43:43.291617 30220 net.cpp:148] Top shape: 24 38 (912)
I0403 14:43:43.291635 30220 net.cpp:148] Top shape: 24 38 (912)
I0403 14:43:43.291649 30220 net.cpp:156] Memory required for data: 1346079072
I0403 14:43:43.291666 30220 layer_factory.hpp:77] Creating layer loss1/loss
I0403 14:43:43.291688 30220 net.cpp:91] Creating Layer loss1/loss
I0403 14:43:43.291707 30220 net.cpp:425] loss1/loss <- loss1/classifier_plantvillage_loss1/classifier_plantvillage_0_split_0
I0403 14:43:43.291740 30220 net.cpp:425] loss1/loss <- label_data_1_split_0
…
