…
I0403 15:16:41.771111 31396 net.cpp:313] The NetState phase (1) differed from the phase (0) specified by a rule in layer data
I0403 15:16:41.772297 31396 net.cpp:49] Initializing net from parameters: 
state {
  phase: TEST
}
layer {
  name: "data"
  type: "Data"
  top: "data"
  top: "label"
  include {
    phase: TEST
  }
  transform_param {
    mirror: false
    crop_size: 224
    mean_file: "/home/mohanty/data/final_dataset/lmdb/color-20-80/mean.binaryproto"
  }
  data_param {
    source: "/home/mohanty/data/final_dataset/lmdb/color-20-80/test_db"
    batch_size: 24
    backend: LMDB
  }
}
layer {
  name: "conv1/7x7_s2"
  type: "Convolution"
  bottom: "data"
  top: "conv1/7x7_s2"
  param {
    lr_mult: 1
    decay_mult: 1
  }
  param {
    lr_mult: 2
    decay_mult: 0
  }
  convolution_param {
    num_output: 64
    pad: 3
    kernel_size: 7
    stride: 2
    weight_filler {
      type: "xavier"
      std: 0.1
    }
    bias_filler {
      type: "constant"
      value: 0.2
    }
  }
}
layer {
  name: "conv1/relu_7x7"
  type: "ReLU"
  bottom: "conv1/7x7_s2"
  top: "conv1/7x7_s2"
}
layer {
  name: "pool1/3x3_s2"
  type: "Pooling"
  bottom: "conv1/7x7_s2"
  top: "pool1/3x3_s2"
  pooling_param {
    pool: MAX
    kernel_size: 3
    stride: 2
  }
}
layer {
  name: "pool1/norm1"
  type: "LRN"
  bottom: "pool1/3x3_s2"
  top: "pool1/norm1"
  lrn_param {
    local_size: 5
    alpha: 0.0001
    beta: 0.75
  }
}
layer {
  name: "conv2/3x3_reduce"
  type: "Convolution"
  bottom: "pool1/norm1"
  top: "conv2/3x3_reduce"
  param {
    lr_mult: 1
    decay_mult: 1
  }
  param {
    lr_mult: 2
    decay_mult: 0
  }
  convolution_param {
    num_output: 64
    kernel_size: 1
    weight_filler {
      type: "xavier"
      std: 0.1
    }
    bias_filler {
      type: "constant"
      value: 0.2
    }
  }
}
layer {
  name: "conv2/relu_3x3_reduce"
  type: "ReLU"
  bottom: "conv2/3x3_reduce"
  top: "conv2/3x3_reduce"
}
layer {
  name: "conv2/3x3"
  type: "Convolution"
  bottom: "conv2/3x3_reduce"
  top: "conv2/3x3"
  param {
    lr_mult: 1
    decay_mult: 1
  }
  param {
    lr_mult: 2
    decay_mult: 0
  }
  convolution_param {
    num_output: 192
    pad: 1
    kernel_size: 3
    weight_filler {
      type: "xavier"
      std: 0.03
    }
    bias_filler {
      type: "constant"
      value: 0.2
    }
  }
}
layer {
  name: "conv2/relu_3x3"
  type: "ReLU"
  bottom: "conv2/3x3"
  top: "conv2/3x3"
}
layer {
  name: "conv2/norm2"
  type: "LRN"
  bottom: "conv2/3x3"
  top: "conv2/norm2"
  lrn_param {
    local_size: 5
    alpha: 0.0001
    beta: 0.75
  }
}
layer {
  name: "pool2/3x3_s2"
  type: "Pooling"
  bottom: "conv2/norm2"
  top: "pool2/3x3_s2"
  pooling_param {
    pool: MAX
    kernel_size: 3
    stride: 2
  }
}
layer {
  name: "inception_3a/1x1"
  type: "Convolution"
  bottom: "pool2/3x3_s2"
  top: "inception_3a/1x1"
  param {
    lr_mult: 1
    decay_mult: 1
  }
  param {
    lr_mult: 2
    decay_mult: 0
  }
  convolution_param {
    num_output: 64
    kernel_size: 1
    weight_filler {
      type: "xavier"
      std: 0.03
    }
    bias_filler {
      type: "constant"
      value: 0.2
    }
  }
}
layer {
  name: "inception_3a/relu_1x1"
  type: "ReLU"
  bottom: "inception_3a/1x1"
  top: "inception_3a/1x1"
}
layer {
  name: "inception_3a/3x3_reduce"
  type: "Convolution"
  bottom: "pool2/3x3_s2"
  top: "inception_3a/3x3_reduce"
  param {
    lr_mult: 1
    decay_mult: 1
  }
  param {
    lr_mult: 2
    decay_mult: 0
  }
  convolution_param {
    num_output: 96
    kernel_size: 1
    weight_filler {
      type: "xavier"
      std: 0.09
    }
    bias_filler {
      type: "constant"
      value: 0.2
    }
  }
}
layer {
  name: "inception_3a/relu_3x3_reduce"
  type: "ReLU"
  bottom: "inception_3a/3x3_reduce"
  top: "inception_3a/3x3_reduce"
}
layer {
  name: "inception_3a/3x3"
  type: "Convolution"
  bottom: "inception_3a/3x3_reduce"
  top: "inception_3a/3x3"
  param {
    lr_mult: 1
    decay_mult: 1
  }
  param {
    lr_mult: 2
    decay_mult: 0
  }
  convolution_param {
    num_output: 128
    pad: 1
    kernel_size: 3
    weight_filler {
      type: "xavier"
      std: 0.03
    }
    bias_filler {
      type: "constant"
      value: 0.2
    }
  }
}
layer {
  name: "inception_3a/relu_3x3"
  type: "ReLU"
  bottom: "inception_3a/3x3"
  top: "inception_3a/3x3"
}
layer {
  name: "inception_3a/5x5_reduce"
  type: "Convolution"
  bottom: "pool2/3x3_s2"
  top: "inception_3a/5x5_reduce"
  param {
    lr_mult: 1
    decay_mult: 1
  }
  param {
    lr_mult: 2
    decay_mult: 0
  }
  convolution_param {
    num_output: 16
    kernel_size: 1
    weight_filler {
      type: "xavier"
      std: 0.2
    }
    bias_filler {
      type: "constant"
      value: 0.2
    }
  }
}
layer {
  name: "inception_3a/relu_5x5_reduce"
  type: "ReLU"
  bottom: "inception_3a/5x5_reduce"
  top: "inception_3a/5x5_reduce"
}
layer {
  name: "inception_3a/5x5"
  type: "Convolution"
  bottom: "inception_3a/5x5_reduce"
  top: "inception_3a/5x5"
  param {
    lr_mult: 1
    decay_mult: 1
  }
  param {
    lr_mult: 2
    decay_mult: 0
  }
  convolution_param {
    num_output: 32
    pad: 2
    kernel_size: 5
    weight_filler {
      type: "xavier"
      std: 0.03
    }
    bias_filler {
      type: "constant"
      value: 0.2
    }
  }
}
layer {
  name: "inception_3a/relu_5x5"
  type: "ReLU"
  bottom: "inception_3a/5x5"
  top: "inception_3a/5x5"
}
layer {
  name: "inception_3a/pool"
  type: "Pooling"
  bottom: "pool2/3x3_s2"
  top: "inception_3a/pool"
  pooling_param {
    pool: MAX
    kernel_size: 3
    stride: 1
    pad: 1
  }
}
layer {
  name: "inception_3a/pool_proj"
  type: "Convolution"
  bottom: "inception_3a/pool"
  top: "inception_3a/pool_proj"
  param {
    lr_mult: 1
    decay_mult: 1
  }
  param {
    lr_mult: 2
    decay_mult: 0
  }
  convolution_param {
    num_output: 32
    kernel_size: 1
    weight_filler {
      type: "xavier"
      std: 0.1
    }
    bias_filler {
      type: "constant"
      value: 0.2
    }
  }
}
layer {
  name: "inception_3a/relu_pool_proj"
  type: "ReLU"
  bottom: "inception_3a/pool_proj"
  top: "inception_3a/pool_proj"
}
layer {
  name: "inception_3a/output"
  type: "Concat"
  bottom: "inception_3a/1x1"
  bottom: "inception_3a/3x3"
  bottom: "inception_3a/5x5"
  bottom: "inception_3a/pool_proj"
  top: "inception_3a/output"
}
layer {
  name: "inception_3b/1x1"
  type: "Convolution"
  bottom: "inception_3a/output"
  top: "inception_3b/1x1"
  param {
    lr_mult: 1
    decay_mult: 1
  }
  param {
    lr_mult: 2
    decay_mult: 0
  }
  convolution_param {
    num_output: 128
    kernel_size: 1
    weight_filler {
      type: "xavier"
      std: 0.03
    }
    bias_filler {
      type: "constant"
      value: 0.2
    }
  }
}
layer {
  name: "inception_3b/relu_1x1"
  type: "ReLU"
  bottom: "inception_3b/1x1"
  top: "inception_3b/1x1"
}
layer {
  name: "inception_3b/3x3_reduce"
  type: "Convolution"
  bottom: "inception_3a/output"
  top: "inception_3b/3x3_reduce"
  param {
    lr_mult: 1
    decay_mult: 1
  }
  param {
    lr_mult: 2
    decay_mult: 0
  }
  convolution_param {
    num_output: 128
    kernel_size: 1
    weight_filler {
      type: "xavier"
      std: 0.09
    }
    bias_filler {
      type: "constant"
      value: 0.2
    }
  }
}
layer {
  name: "inception_3b/relu_3x3_reduce"
  type: "ReLU"
  bottom: "inception_3b/3x3_reduce"
  top: "inception_3b/3x3_reduce"
}
layer {
  name: "inception_3b/3x3"
  type: "Convolution"
  bottom: "inception_3b/3x3_reduce"
  top: "inception_3b/3x3"
  param {
    lr_mult: 1
    decay_mult: 1
  }
  param {
    lr_mult: 2
    decay_mult: 0
  }
  convolution_param {
    num_output: 192
    pad: 1
    kernel_size: 3
    weight_filler {
      type: "xavier"
      std: 0.03
    }
    bias_filler {
      type: "constant"
      value: 0.2
    }
  }
}
layer {
  name: "inception_3b/relu_3x3"
  type: "ReLU"
  bottom: "inception_3b/3x3"
  top: "inception_3b/3x3"
}
layer {
  name: "inception_3b/5x5_reduce"
  type: "Convolution"
  bottom: "inception_3a/output"
  top: "inception_3b/5x5_reduce"
  param {
    lr_mult: 1
    decay_mult: 1
  }
  param {
    lr_mult: 2
    decay_mult: 0
  }
  convolution_param {
    num_output: 32
    kernel_size: 1
    weight_filler {
      type: "xavier"
      std: 0.2
    }
    bias_filler {
      type: "constant"
      value: 0.2
    }
  }
}
layer {
  name: "inception_3b/relu_5x5_reduce"
  type: "ReLU"
  bottom: "inception_3b/5x5_reduce"
  top: "inception_3b/5x5_reduce"
}
layer {
  name: "inception_3b/5x5"
  type: "Convolution"
  bottom: "inception_3b/5x5_reduce"
  top: "inception_3b/5x5"
  param {
    lr_mult: 1
    decay_mult: 1
  }
  param {
    lr_mult: 2
    decay_mult: 0
  }
  convolution_param {
    num_output: 96
    pad: 2
    kernel_size: 5
    weight_filler {
      type: "xavier"
      std: 0.03
    }
    bias_filler {
      type: "constant"
      value: 0.2
    }
  }
}
layer {
  name: "inception_3b/relu_5x5"
  type: "ReLU"
  bottom: "inception_3b/5x5"
  top: "inception_3b/5x5"
}
layer {
  name: "inception_3b/pool"
  type: "Pooling"
  bottom: "inception_3a/output"
  top: "inception_3b/pool"
  pooling_param {
    pool: MAX
    kernel_size: 3
    stride: 1
    pad: 1
  }
}
layer {
  name: "inception_3b/pool_proj"
  type: "Convolution"
  bottom: "inception_3b/pool"
  top: "inception_3b/pool_proj"
  param {
    lr_mult: 1
    decay_mult: 1
  }
  param {
    lr_mult: 2
    decay_mult: 0
  }
  convolution_param {
    num_output: 64
    kernel_size: 1
    weight_filler {
      type: "xavier"
      std: 0.1
    }
    bias_filler {
      type: "constant"
      value: 0.2
    }
  }
}
layer {
  name: "inception_3b/relu_pool_proj"
  type: "ReLU"
  bottom: "inception_3b/pool_proj"
  top: "inception_3b/pool_proj"
}
layer {
  name: "inception_3b/output"
  type: "Concat"
  bottom: "inception_3b/1x1"
  bottom: "inception_3b/3x3"
  bottom: "inception_3b/5x5"
  bottom: "inception_3b/pool_proj"
  top: "inception_3b/output"
}
layer {
  name: "pool3/3x3_s2"
  type: "Pooling"
  bottom: "inception_3b/output"
  top: "pool3/3x3_s2"
  pooling_param {
    pool: MAX
    kernel_size: 3
    stride: 2
  }
}
layer {
  name: "inception_4a/1x1"
  type: "Convolution"
  bottom: "pool3/3x3_s2"
  top: "inception_4a/1x1"
  param {
    lr_mult: 1
    decay_mult: 1
  }
  param {
    lr_mult: 2
    decay_mult: 0
  }
  convolution_param {
    num_output: 192
    kernel_size: 1
    weight_filler {
      type: "xavier"
      std: 0.03
    }
    bias_filler {
      type: "constant"
      value: 0.2
    }
  }
}
layer {
  name: "inception_4a/relu_1x1"
  type: "ReLU"
  bottom: "inception_4a/1x1"
  top: "inception_4a/1x1"
}
layer {
  name: "inception_4a/3x3_reduce"
  type: "Convolution"
  bottom: "pool3/3x3_s2"
  top: "inception_4a/3x3_reduce"
  param {
    lr_mult: 1
    decay_mult: 1
  }
  param {
    lr_mult: 2
    decay_mult: 0
  }
  convolution_param {
    num_output: 96
    kernel_size: 1
    weight_filler {
      type: "xavier"
      std: 0.09
    }
    bias_filler {
      type: "constant"
      value: 0.2
    }
  }
}
layer {
  name: "inception_4a/relu_3x3_reduce"
  type: "ReLU"
  bottom: "inception_4a/3x3_reduce"
  top: "inception_4a/3x3_reduce"
}
layer {
  name: "inception_4a/3x3"
  type: "Convolution"
  bottom: "inception_4a/3x3_reduce"
  top: "inception_4a/3x3"
  param {
    lr_mult: 1
    decay_mult: 1
  }
  param {
    lr_mult: 2
    decay_mult: 0
  }
  convolution_param {
    num_output: 208
    pad: 1
    kernel_size: 3
    weight_filler {
      type: "xavier"
      std: 0.03
    }
    bias_filler {
      type: "constant"
      value: 0.2
    }
  }
}
layer {
  name: "inception_4a/relu_3x3"
  type: "ReLU"
  bottom: "inception_4a/3x3"
  top: "inception_4a/3x3"
}
layer {
  name: "inception_4a/5x5_reduce"
  type: "Convolution"
  bottom: "pool3/3x3_s2"
  top: "inception_4a/5x5_reduce"
  param {
    lr_mult: 1
    decay_mult: 1
  }
  param {
    lr_mult: 2
    decay_mult: 0
  }
  convolution_param {
    num_output: 16
    kernel_size: 1
    weight_filler {
      type: "xavier"
      std: 0.2
    }
    bias_filler {
      type: "constant"
      value: 0.2
    }
  }
}
layer {
  name: "inception_4a/relu_5x5_reduce"
  type: "ReLU"
  bottom: "inception_4a/5x5_reduce"
  top: "inception_4a/5x5_reduce"
}
layer {
  name: "inception_4a/5x5"
  type: "Convolution"
  bottom: "inception_4a/5x5_reduce"
  top: "inception_4a/5x5"
  param {
    lr_mult: 1
    decay_mult: 1
  }
  param {
    lr_mult: 2
    decay_mult: 0
  }
  convolution_param {
    num_output: 48
    pad: 2
    kernel_size: 5
    weight_filler {
      type: "xavier"
      std: 0.03
    }
    bias_filler {
      type: "constant"
      value: 0.2
    }
  }
}
layer {
  name: "inception_4a/relu_5x5"
  type: "ReLU"
  bottom: "inception_4a/5x5"
  top: "inception_4a/5x5"
}
layer {
  name: "inception_4a/pool"
  type: "Pooling"
  bottom: "pool3/3x3_s2"
  top: "inception_4a/pool"
  pooling_param {
    pool: MAX
    kernel_size: 3
    stride: 1
    pad: 1
  }
}
layer {
  name: "inception_4a/pool_proj"
  type: "Convolution"
  bottom: "inception_4a/pool"
  top: "inception_4a/pool_proj"
  param {
    lr_mult: 1
    decay_mult: 1
  }
  param {
    lr_mult: 2
    decay_mult: 0
  }
  convolution_param {
    num_output: 64
    kernel_size: 1
    weight_filler {
      type: "xavier"
      std: 0.1
    }
    bias_filler {
      type: "constant"
      value: 0.2
    }
  }
}
layer {
  name: "inception_4a/relu_pool_proj"
  type: "ReLU"
  bottom: "inception_4a/pool_proj"
  top: "inception_4a/pool_proj"
}
layer {
  name: "inception_4a/output"
  type: "Concat"
  bottom: "inception_4a/1x1"
  bottom: "inception_4a/3x3"
  bottom: "inception_4a/5x5"
  bottom: "inception_4a/pool_proj"
  top: "inception_4a/output"
}
layer {
  name: "loss1/ave_pool"
  type: "Pooling"
  bottom: "inception_4a/output"
  top: "loss1/ave_pool"
  pooling_param {
    pool: AVE
    kernel_size: 5
    stride: 3
  }
}
layer {
  name: "loss1/conv"
  type: "Convolution"
  bottom: "loss1/ave_pool"
  top: "loss1/conv"
  param {
    lr_mult: 1
    decay_mult: 1
  }
  param {
    lr_mult: 2
    decay_mult: 0
  }
  convolution_param {
    num_output: 128
    kernel_size: 1
    weight_filler {
      type: "xavier"
      std: 0.08
    }
    bias_filler {
      type: "constant"
      value: 0.2
    }
  }
}
layer {
  name: "loss1/relu_conv"
  type: "ReLU"
  bottom: "loss1/conv"
  top: "loss1/conv"
}
layer {
  name: "loss1/fc"
  type: "InnerProduct"
  bottom: "loss1/conv"
  top: "loss1/fc"
  param {
    lr_mult: 1
    decay_mult: 1
  }
  param {
    lr_mult: 2
    decay_mult: 0
  }
  inner_product_param {
    num_output: 1024
    weight_filler {
      type: "xavier"
      std: 0.02
    }
    bias_filler {
      type: "constant"
      value: 0.2
    }
  }
}
layer {
  name: "loss1/relu_fc"
  type: "ReLU"
  bottom: "loss1/fc"
  top: "loss1/fc"
}
layer {
  name: "loss1/drop_fc"
  type: "Dropout"
  bottom: "loss1/fc"
  top: "loss1/fc"
  dropout_param {
    dropout_ratio: 0.7
  }
}
layer {
  name: "loss1/classifier_plantvillage"
  type: "InnerProduct"
  bottom: "loss1/fc"
  top: "loss1/classifier_plantvillage"
  param {
    lr_mult: 1
    decay_mult: 1
  }
  param {
    lr_mult: 2
    decay_mult: 0
  }
  inner_product_param {
    num_output: 38
    weight_filler {
      type: "xavier"
      std: 0.0009765625
    }
    bias_filler {
      type: "constant"
      value: 0
    }
  }
}
layer {
  name: "inception_4b/1x1"
  type: "Convolution"
  bottom: "inception_4a/output"
  top: "inception_4b/1x1"
  param {
    lr_mult: 1
    decay_mult: 1
  }
  param {
    lr_mult: 2
    decay_mult: 0
  }
  convolution_param {
    num_output: 160
    kernel_size: 1
    weight_filler {
      type: "xavier"
      std: 0.03
    }
    bias_filler {
      type: "constant"
      value: 0.2
    }
  }
}
layer {
  name: "inception_4b/relu_1x1"
  type: "ReLU"
  bottom: "inception_4b/1x1"
  top: "inception_4b/1x1"
}
layer {
  name: "inception_4b/3x3_reduce"
  type: "Convolution"
  bottom: "inception_4a/output"
  top: "inception_4b/3x3_reduce"
  param {
    lr_mult: 1
    decay_mult: 1
  }
  param {
    lr_mult: 2
    decay_mult: 0
  }
  convolution_param {
    num_output: 112
    kernel_size: 1
    weight_filler {
      type: "xavier"
      std: 0.09
    }
    bias_filler {
      type: "constant"
      value: 0.2
    }
  }
}
layer {
  name: "inception_4b/relu_3x3_reduce"
  type: "ReLU"
  bottom: "inception_4b/3x3_reduce"
  top: "inception_4b/3x3_reduce"
}
layer {
  name: "inception_4b/3x3"
  type: "Convolution"
  bottom: "inception_4b/3x3_reduce"
  top: "inception_4b/3x3"
  param {
    lr_mult: 1
    decay_mult: 1
  }
  param {
    lr_mult: 2
    decay_mult: 0
  }
  convolution_param {
    num_output: 224
    pad: 1
    kernel_size: 3
    weight_filler {
      type: "xavier"
      std: 0.03
    }
    bias_filler {
      type: "constant"
      value: 0.2
    }
  }
}
layer {
  name: "inception_4b/relu_3x3"
  type: "ReLU"
  bottom: "inception_4b/3x3"
  top: "inception_4b/3x3"
}
layer {
  name: "inception_4b/5x5_reduce"
  type: "Convolution"
  bottom: "inception_4a/output"
  top: "inception_4b/5x5_reduce"
  param {
    lr_mult: 1
    decay_mult: 1
  }
  param {
    lr_mult: 2
    decay_mult: 0
  }
  convolution_param {
    num_output: 24
    kernel_size: 1
    weight_filler {
      type: "xavier"
      std: 0.2
    }
    bias_filler {
      type: "constant"
      value: 0.2
    }
  }
}
layer {
  name: "inception_4b/relu_5x5_reduce"
  type: "ReLU"
  bottom: "inception_4b/5x5_reduce"
  top: "inception_4b/5x5_reduce"
}
layer {
  name: "inception_4b/5x5"
  type: "Convolution"
  bottom: "inception_4b/5x5_reduce"
  top: "inception_4b/5x5"
  param {
    lr_mult: 1
    decay_mult: 1
  }
  param {
    lr_mult: 2
    decay_mult: 0
  }
  convolution_param {
    num_output: 64
    pad: 2
    kernel_size: 5
    weight_filler {
      type: "xavier"
      std: 0.03
    }
    bias_filler {
      type: "constant"
      value: 0.2
    }
  }
}
layer {
  name: "inception_4b/relu_5x5"
  type: "ReLU"
  bottom: "inception_4b/5x5"
  top: "inception_4b/5x5"
}
layer {
  name: "inception_4b/pool"
  type: "Pooling"
  bottom: "inception_4a/output"
  top: "inception_4b/pool"
  pooling_param {
    pool: MAX
    kernel_size: 3
    stride: 1
    pad: 1
  }
}
layer {
  name: "inception_4b/pool_proj"
  type: "Convolution"
  bottom: "inception_4b/pool"
  top: "inception_4b/pool_proj"
  param {
    lr_mult: 1
    decay_mult: 1
  }
  param {
    lr_mult: 2
    decay_mult: 0
  }
  convolution_param {
    num_output: 64
    kernel_size: 1
    weight_filler {
      type: "xavier"
      std: 0.1
    }
    bias_filler {
      type: "constant"
      value: 0.2
    }
  }
}
layer {
  name: "inception_4b/relu_pool_proj"
  type: "ReLU"
  bottom: "inception_4b/pool_proj"
  top: "inception_4b/pool_proj"
}
layer {
  name: "inception_4b/output"
  type: "Concat"
  bottom: "inception_4b/1x1"
  bottom: "inception_4b/3x3"
  bottom: "inception_4b/5x5"
  bottom: "inception_4b/pool_proj"
  top: "inception_4b/output"
}
layer {
  name: "inception_4c/1x1"
  type: "Convolution"
  bottom: "inception_4b/output"
  top: "inception_4c/1x1"
  param {
    lr_mult: 1
    decay_mult: 1
  }
  param {
    lr_mult: 2
    decay_mult: 0
  }
  convolution_param {
    num_output: 128
    kernel_size: 1
    weight_filler {
      type: "xavier"
      std: 0.03
    }
    bias_filler {
      type: "constant"
      value: 0.2
    }
  }
}
layer {
  name: "inception_4c/relu_1x1"
  type: "ReLU"
  bottom: "inception_4c/1x1"
  top: "inception_4c/1x1"
}
layer {
  name: "inception_4c/3x3_reduce"
  type: "Convolution"
  bottom: "inception_4b/output"
  top: "inception_4c/3x3_reduce"
  param {
    lr_mult: 1
    decay_mult: 1
  }
  param {
    lr_mult: 2
    decay_mult: 0
  }
  convolution_param {
    num_output: 128
    kernel_size: 1
    weight_filler {
      type: "xavier"
      std: 0.09
    }
    bias_filler {
      type: "constant"
      value: 0.2
    }
  }
}
layer {
  name: "inception_4c/relu_3x3_reduce"
  type: "ReLU"
  bottom: "inception_4c/3x3_reduce"
  top: "inception_4c/3x3_reduce"
}
layer {
  name: "inception_4c/3x3"
  type: "Convolution"
  bottom: "inception_4c/3x3_reduce"
  top: "inception_4c/3x3"
  param {
    lr_mult: 1
    decay_mult: 1
  }
  param {
    lr_mult: 2
    decay_mult: 0
  }
  convolution_param {
    num_output: 256
    pad: 1
    kernel_size: 3
    weight_filler {
      type: "xavier"
      std: 0.03
    }
    bias_filler {
      type: "constant"
      value: 0.2
    }
  }
}
layer {
  name: "inception_4c/relu_3x3"
  type: "ReLU"
  bottom: "inception_4c/3x3"
  top: "inception_4c/3x3"
}
layer {
  name: "inception_4c/5x5_reduce"
  type: "Convolution"
  bottom: "inception_4b/output"
  top: "inception_4c/5x5_reduce"
  param {
    lr_mult: 1
    decay_mult: 1
  }
  param {
    lr_mult: 2
    decay_mult: 0
  }
  convolution_param {
    num_output: 24
    kernel_size: 1
    weight_filler {
      type: "xavier"
      std: 0.2
    }
    bias_filler {
      type: "constant"
      value: 0.2
    }
  }
}
layer {
  name: "inception_4c/relu_5x5_reduce"
  type: "ReLU"
  bottom: "inception_4c/5x5_reduce"
  top: "inception_4c/5x5_reduce"
}
layer {
  name: "inception_4c/5x5"
  type: "Convolution"
  bottom: "inception_4c/5x5_reduce"
  top: "inception_4c/5x5"
  param {
    lr_mult: 1
    decay_mult: 1
  }
  param {
    lr_mult: 2
    decay_mult: 0
  }
  convolution_param {
    num_output: 64
    pad: 2
    kernel_size: 5
    weight_filler {
      type: "xavier"
      std: 0.03
    }
    bias_filler {
      type: "constant"
      value: 0.2
    }
  }
}
layer {
  name: "inception_4c/relu_5x5"
  type: "ReLU"
  bottom: "inception_4c/5x5"
  top: "inception_4c/5x5"
}
layer {
  name: "inception_4c/pool"
  type: "Pooling"
  bottom: "inception_4b/output"
  top: "inception_4c/pool"
  pooling_param {
    pool: MAX
    kernel_size: 3
    stride: 1
    pad: 1
  }
}
layer {
  name: "inception_4c/pool_proj"
  type: "Convolution"
  bottom: "inception_4c/pool"
  top: "inception_4c/pool_proj"
  param {
    lr_mult: 1
    decay_mult: 1
  }
  param {
    lr_mult: 2
    decay_mult: 0
  }
  convolution_param {
    num_output: 64
    kernel_size: 1
    weight_filler {
      type: "xavier"
      std: 0.1
    }
    bias_filler {
      type: "constant"
      value: 0.2
    }
  }
}
layer {
  name: "inception_4c/relu_pool_proj"
  type: "ReLU"
  bottom: "inception_4c/pool_proj"
  top: "inception_4c/pool_proj"
}
layer {
  name: "inception_4c/output"
  type: "Concat"
  bottom: "inception_4c/1x1"
  bottom: "inception_4c/3x3"
  bottom: "inception_4c/5x5"
  bottom: "inception_4c/pool_proj"
  top: "inception_4c/output"
}
layer {
  name: "inception_4d/1x1"
  type: "Convolution"
  bottom: "inception_4c/output"
  top: "inception_4d/1x1"
  param {
    lr_mult: 1
    decay_mult: 1
  }
  param {
    lr_mult: 2
    decay_mult: 0
  }
  convolution_param {
    num_output: 112
    kernel_size: 1
    weight_filler {
      type: "xavier"
      std: 0.03
    }
    bias_filler {
      type: "constant"
      value: 0.2
    }
  }
}
layer {
  name: "inception_4d/relu_1x1"
  type: "ReLU"
  bottom: "inception_4d/1x1"
  top: "inception_4d/1x1"
}
layer {
  name: "inception_4d/3x3_reduce"
  type: "Convolution"
  bottom: "inception_4c/output"
  top: "inception_4d/3x3_reduce"
  param {
    lr_mult: 1
    decay_mult: 1
  }
  param {
    lr_mult: 2
    decay_mult: 0
  }
  convolution_param {
    num_output: 144
    kernel_size: 1
    weight_filler {
      type: "xavier"
      std: 0.09
    }
    bias_filler {
      type: "constant"
      value: 0.2
    }
  }
}
layer {
  name: "inception_4d/relu_3x3_reduce"
  type: "ReLU"
  bottom: "inception_4d/3x3_reduce"
  top: "inception_4d/3x3_reduce"
}
layer {
  name: "inception_4d/3x3"
  type: "Convolution"
  bottom: "inception_4d/3x3_reduce"
  top: "inception_4d/3x3"
  param {
    lr_mult: 1
    decay_mult: 1
  }
  param {
    lr_mult: 2
    decay_mult: 0
  }
  convolution_param {
    num_output: 288
    pad: 1
    kernel_size: 3
    weight_filler {
      type: "xavier"
      std: 0.03
    }
    bias_filler {
      type: "constant"
      value: 0.2
    }
  }
}
layer {
  name: "inception_4d/relu_3x3"
  type: "ReLU"
  bottom: "inception_4d/3x3"
  top: "inception_4d/3x3"
}
layer {
  name: "inception_4d/5x5_reduce"
  type: "Convolution"
  bottom: "inception_4c/output"
  top: "inception_4d/5x5_reduce"
  param {
    lr_mult: 1
    decay_mult: 1
  }
  param {
    lr_mult: 2
    decay_mult: 0
  }
  convolution_param {
    num_output: 32
    kernel_size: 1
    weight_filler {
      type: "xavier"
      std: 0.2
    }
    bias_filler {
      type: "constant"
      value: 0.2
    }
  }
}
layer {
  name: "inception_4d/relu_5x5_reduce"
  type: "ReLU"
  bottom: "inception_4d/5x5_reduce"
  top: "inception_4d/5x5_reduce"
}
layer {
  name: "inception_4d/5x5"
  type: "Convolution"
  bottom: "inception_4d/5x5_reduce"
  top: "inception_4d/5x5"
  param {
    lr_mult: 1
    decay_mult: 1
  }
  param {
    lr_mult: 2
    decay_mult: 0
  }
  convolution_param {
    num_output: 64
    pad: 2
    kernel_size: 5
    weight_filler {
      type: "xavier"
      std: 0.03
    }
    bias_filler {
      type: "constant"
      value: 0.2
    }
  }
}
layer {
  name: "inception_4d/relu_5x5"
  type: "ReLU"
  bottom: "inception_4d/5x5"
  top: "inception_4d/5x5"
}
layer {
  name: "inception_4d/pool"
  type: "Pooling"
  bottom: "inception_4c/output"
  top: "inception_4d/pool"
  pooling_param {
    pool: MAX
    kernel_size: 3
    stride: 1
    pad: 1
  }
}
layer {
  name: "inception_4d/pool_proj"
  type: "Convolution"
  bottom: "inception_4d/pool"
  top: "inception_4d/pool_proj"
  param {
    lr_mult: 1
    decay_mult: 1
  }
  param {
    lr_mult: 2
    decay_mult: 0
  }
  convolution_param {
    num_output: 64
    kernel_size: 1
    weight_filler {
      type: "xavier"
      std: 0.1
    }
    bias_filler {
      type: "constant"
      value: 0.2
    }
  }
}
layer {
  name: "inception_4d/relu_pool_proj"
  type: "ReLU"
  bottom: "inception_4d/pool_proj"
  top: "inception_4d/pool_proj"
}
layer {
  name: "inception_4d/output"
  type: "Concat"
  bottom: "inception_4d/1x1"
  bottom: "inception_4d/3x3"
  bottom: "inception_4d/5x5"
  bottom: "inception_4d/pool_proj"
  top: "inception_4d/output"
}
layer {
  name: "loss2/ave_pool"
  type: "Pooling"
  bottom: "inception_4d/output"
  top: "loss2/ave_pool"
  pooling_param {
    pool: AVE
    kernel_size: 5
    stride: 3
  }
}
layer {
  name: "loss2/conv"
  type: "Convolution"
  bottom: "loss2/ave_pool"
  top: "loss2/conv"
  param {
    lr_mult: 1
    decay_mult: 1
  }
  param {
    lr_mult: 2
    decay_mult: 0
  }
  convolution_param {
    num_output: 128
    kernel_size: 1
    weight_filler {
      type: "xavier"
      std: 0.08
    }
    bias_filler {
      type: "constant"
      value: 0.2
    }
  }
}
layer {
  name: "loss2/relu_conv"
  type: "ReLU"
  bottom: "loss2/conv"
  top: "loss2/conv"
}
layer {
  name: "loss2/fc"
  type: "InnerProduct"
  bottom: "loss2/conv"
  top: "loss2/fc"
  param {
    lr_mult: 1
    decay_mult: 1
  }
  param {
    lr_mult: 2
    decay_mult: 0
  }
  inner_product_param {
    num_output: 1024
    weight_filler {
      type: "xavier"
      std: 0.02
    }
    bias_filler {
      type: "constant"
      value: 0.2
    }
  }
}
layer {
  name: "loss2/relu_fc"
  type: "ReLU"
  bottom: "loss2/fc"
  top: "loss2/fc"
}
layer {
  name: "loss2/drop_fc"
  type: "Dropout"
  bottom: "loss2/fc"
  top: "loss2/fc"
  dropout_param {
    dropout_ratio: 0.7
  }
}
layer {
  name: "loss2/classifier_plantvillage"
  type: "InnerProduct"
  bottom: "loss2/fc"
  top: "loss2/classifier_plantvillage"
  param {
    lr_mult: 1
    decay_mult: 1
  }
  param {
    lr_mult: 2
    decay_mult: 0
  }
  inner_product_param {
    num_output: 38
    weight_filler {
      type: "xavier"
      std: 0.0009765625
    }
    bias_filler {
      type: "constant"
      value: 0
    }
  }
}
layer {
  name: "inception_4e/1x1"
  type: "Convolution"
  bottom: "inception_4d/output"
  top: "inception_4e/1x1"
  param {
    lr_mult: 1
    decay_mult: 1
  }
  param {
    lr_mult: 2
    decay_mult: 0
  }
  convolution_param {
    num_output: 256
    kernel_size: 1
    weight_filler {
      type: "xavier"
      std: 0.03
    }
    bias_filler {
      type: "constant"
      value: 0.2
    }
  }
}
layer {
  name: "inception_4e/relu_1x1"
  type: "ReLU"
  bottom: "inception_4e/1x1"
  top: "inception_4e/1x1"
}
layer {
  name: "inception_4e/3x3_reduce"
  type: "Convolution"
  bottom: "inception_4d/output"
  top: "inception_4e/3x3_reduce"
  param {
    lr_mult: 1
    decay_mult: 1
  }
  param {
    lr_mult: 2
    decay_mult: 0
  }
  convolution_param {
    num_output: 160
    kernel_size: 1
    weight_filler {
      type: "xavier"
      std: 0.09
    }
    bias_filler {
      type: "constant"
      value: 0.2
    }
  }
}
layer {
  name: "inception_4e/relu_3x3_reduce"
  type: "ReLU"
  bottom: "inception_4e/3x3_reduce"
  top: "inception_4e/3x3_reduce"
}
layer {
  name: "inception_4e/3x3"
  type: "Convolution"
  bottom: "inception_4e/3x3_reduce"
  top: "inception_4e/3x3"
  param {
    lr_mult: 1
    decay_mult: 1
  }
  param {
    lr_mult: 2
    decay_mult: 0
  }
  convolution_param {
    num_output: 320
    pad: 1
    kernel_size: 3
    weight_filler {
      type: "xavier"
      std: 0.03
    }
    bias_filler {
      type: "constant"
      value: 0.2
    }
  }
}
layer {
  name: "inception_4e/relu_3x3"
  type: "ReLU"
  bottom: "inception_4e/3x3"
  top: "inception_4e/3x3"
}
layer {
  name: "inception_4e/5x5_reduce"
  type: "Convolution"
  bottom: "inception_4d/output"
  top: "inception_4e/5x5_reduce"
  param {
    lr_mult: 1
    decay_mult: 1
  }
  param {
    lr_mult: 2
    decay_mult: 0
  }
  convolution_param {
    num_output: 32
    kernel_size: 1
    weight_filler {
      type: "xavier"
      std: 0.2
    }
    bias_filler {
      type: "constant"
      value: 0.2
    }
  }
}
layer {
  name: "inception_4e/relu_5x5_reduce"
  type: "ReLU"
  bottom: "inception_4e/5x5_reduce"
  top: "inception_4e/5x5_reduce"
}
layer {
  name: "inception_4e/5x5"
  type: "Convolution"
  bottom: "inception_4e/5x5_reduce"
  top: "inception_4e/5x5"
  p
I0403 15:16:41.773522 31396 layer_factory.hpp:77] Creating layer data
I0403 15:16:41.774102 31396 net.cpp:91] Creating Layer data
I0403 15:16:41.774132 31396 net.cpp:399] data -> data
I0403 15:16:41.774183 31396 net.cpp:399] data -> label
I0403 15:16:41.774220 31396 data_transformer.cpp:25] Loading mean file from: /home/mohanty/data/final_dataset/lmdb/color-20-80/mean.binaryproto
I0403 15:16:41.777595 31398 db_lmdb.cpp:38] Opened lmdb /home/mohanty/data/final_dataset/lmdb/color-20-80/test_db
I0403 15:16:41.787286 31396 data_layer.cpp:41] output data size: 24,3,224,224
I0403 15:16:41.813968 31396 net.cpp:141] Setting up data
I0403 15:16:41.814051 31396 net.cpp:148] Top shape: 24 3 224 224 (3612672)
I0403 15:16:41.814074 31396 net.cpp:148] Top shape: 24 (24)
I0403 15:16:41.814091 31396 net.cpp:156] Memory required for data: 14450784
I0403 15:16:41.814119 31396 layer_factory.hpp:77] Creating layer label_data_1_split
I0403 15:16:41.814146 31396 net.cpp:91] Creating Layer label_data_1_split
I0403 15:16:41.814163 31396 net.cpp:425] label_data_1_split <- label
I0403 15:16:41.814196 31396 net.cpp:399] label_data_1_split -> label_data_1_split_0
I0403 15:16:41.814224 31396 net.cpp:399] label_data_1_split -> label_data_1_split_1
I0403 15:16:41.814247 31396 net.cpp:399] label_data_1_split -> label_data_1_split_2
I0403 15:16:41.814268 31396 net.cpp:399] label_data_1_split -> label_data_1_split_3
I0403 15:16:41.814287 31396 net.cpp:399] label_data_1_split -> label_data_1_split_4
I0403 15:16:41.814307 31396 net.cpp:399] label_data_1_split -> label_data_1_split_5
I0403 15:16:41.814340 31396 net.cpp:399] label_data_1_split -> label_data_1_split_6
I0403 15:16:41.814364 31396 net.cpp:399] label_data_1_split -> label_data_1_split_7
I0403 15:16:41.814385 31396 net.cpp:399] label_data_1_split -> label_data_1_split_8
I0403 15:16:41.814406 31396 net.cpp:399] label_data_1_split -> label_data_1_split_9
I0403 15:16:41.814523 31396 net.cpp:141] Setting up label_data_1_split
I0403 15:16:41.814548 31396 net.cpp:148] Top shape: 24 (24)
I0403 15:16:41.814564 31396 net.cpp:148] Top shape: 24 (24)
I0403 15:16:41.814581 31396 net.cpp:148] Top shape: 24 (24)
I0403 15:16:41.814599 31396 net.cpp:148] Top shape: 24 (24)
I0403 15:16:41.814615 31396 net.cpp:148] Top shape: 24 (24)
I0403 15:16:41.814630 31396 net.cpp:148] Top shape: 24 (24)
I0403 15:16:41.814646 31396 net.cpp:148] Top shape: 24 (24)
I0403 15:16:41.814661 31396 net.cpp:148] Top shape: 24 (24)
I0403 15:16:41.814677 31396 net.cpp:148] Top shape: 24 (24)
I0403 15:16:41.814694 31396 net.cpp:148] Top shape: 24 (24)
I0403 15:16:41.814741 31396 net.cpp:156] Memory required for data: 14451744
I0403 15:16:41.814757 31396 layer_factory.hpp:77] Creating layer conv1/7x7_s2
I0403 15:16:41.814790 31396 net.cpp:91] Creating Layer conv1/7x7_s2
I0403 15:16:41.814808 31396 net.cpp:425] conv1/7x7_s2 <- data
I0403 15:16:41.814829 31396 net.cpp:399] conv1/7x7_s2 -> conv1/7x7_s2
I0403 15:16:41.957602 31396 net.cpp:141] Setting up conv1/7x7_s2
I0403 15:16:41.957679 31396 net.cpp:148] Top shape: 24 64 112 112 (19267584)
I0403 15:16:41.957696 31396 net.cpp:156] Memory required for data: 91522080
I0403 15:16:41.957729 31396 layer_factory.hpp:77] Creating layer conv1/relu_7x7
I0403 15:16:41.957757 31396 net.cpp:91] Creating Layer conv1/relu_7x7
I0403 15:16:41.957777 31396 net.cpp:425] conv1/relu_7x7 <- conv1/7x7_s2
I0403 15:16:41.957798 31396 net.cpp:386] conv1/relu_7x7 -> conv1/7x7_s2 (in-place)
I0403 15:16:41.958065 31396 net.cpp:141] Setting up conv1/relu_7x7
I0403 15:16:41.958092 31396 net.cpp:148] Top shape: 24 64 112 112 (19267584)
I0403 15:16:41.958108 31396 net.cpp:156] Memory required for data: 168592416
I0403 15:16:41.958124 31396 layer_factory.hpp:77] Creating layer pool1/3x3_s2
I0403 15:16:41.958150 31396 net.cpp:91] Creating Layer pool1/3x3_s2
I0403 15:16:41.958168 31396 net.cpp:425] pool1/3x3_s2 <- conv1/7x7_s2
I0403 15:16:41.958187 31396 net.cpp:399] pool1/3x3_s2 -> pool1/3x3_s2
I0403 15:16:41.958264 31396 net.cpp:141] Setting up pool1/3x3_s2
I0403 15:16:41.958290 31396 net.cpp:148] Top shape: 24 64 56 56 (4816896)
I0403 15:16:41.958304 31396 net.cpp:156] Memory required for data: 187860000
I0403 15:16:41.958324 31396 layer_factory.hpp:77] Creating layer pool1/norm1
I0403 15:16:41.958350 31396 net.cpp:91] Creating Layer pool1/norm1
I0403 15:16:41.958369 31396 net.cpp:425] pool1/norm1 <- pool1/3x3_s2
I0403 15:16:41.958386 31396 net.cpp:399] pool1/norm1 -> pool1/norm1
I0403 15:16:41.958698 31396 net.cpp:141] Setting up pool1/norm1
I0403 15:16:41.958727 31396 net.cpp:148] Top shape: 24 64 56 56 (4816896)
I0403 15:16:41.958745 31396 net.cpp:156] Memory required for data: 207127584
I0403 15:16:41.958760 31396 layer_factory.hpp:77] Creating layer conv2/3x3_reduce
I0403 15:16:41.958786 31396 net.cpp:91] Creating Layer conv2/3x3_reduce
I0403 15:16:41.958817 31396 net.cpp:425] conv2/3x3_reduce <- pool1/norm1
I0403 15:16:41.958835 31396 net.cpp:399] conv2/3x3_reduce -> conv2/3x3_reduce
I0403 15:16:41.960213 31396 net.cpp:141] Setting up conv2/3x3_reduce
I0403 15:16:41.960243 31396 net.cpp:148] Top shape: 24 64 56 56 (4816896)
I0403 15:16:41.960259 31396 net.cpp:156] Memory required for data: 226395168
I0403 15:16:41.960281 31396 layer_factory.hpp:77] Creating layer conv2/relu_3x3_reduce
I0403 15:16:41.960301 31396 net.cpp:91] Creating Layer conv2/relu_3x3_reduce
I0403 15:16:41.960324 31396 net.cpp:425] conv2/relu_3x3_reduce <- conv2/3x3_reduce
I0403 15:16:41.960341 31396 net.cpp:386] conv2/relu_3x3_reduce -> conv2/3x3_reduce (in-place)
I0403 15:16:41.960602 31396 net.cpp:141] Setting up conv2/relu_3x3_reduce
I0403 15:16:41.960630 31396 net.cpp:148] Top shape: 24 64 56 56 (4816896)
I0403 15:16:41.960645 31396 net.cpp:156] Memory required for data: 245662752
I0403 15:16:41.960661 31396 layer_factory.hpp:77] Creating layer conv2/3x3
I0403 15:16:41.960683 31396 net.cpp:91] Creating Layer conv2/3x3
I0403 15:16:41.960700 31396 net.cpp:425] conv2/3x3 <- conv2/3x3_reduce
I0403 15:16:41.960718 31396 net.cpp:399] conv2/3x3 -> conv2/3x3
I0403 15:16:41.963011 31396 net.cpp:141] Setting up conv2/3x3
I0403 15:16:41.963042 31396 net.cpp:148] Top shape: 24 192 56 56 (14450688)
I0403 15:16:41.963059 31396 net.cpp:156] Memory required for data: 303465504
I0403 15:16:41.963080 31396 layer_factory.hpp:77] Creating layer conv2/relu_3x3
I0403 15:16:41.963100 31396 net.cpp:91] Creating Layer conv2/relu_3x3
I0403 15:16:41.963117 31396 net.cpp:425] conv2/relu_3x3 <- conv2/3x3
I0403 15:16:41.963136 31396 net.cpp:386] conv2/relu_3x3 -> conv2/3x3 (in-place)
I0403 15:16:41.963302 31396 net.cpp:141] Setting up conv2/relu_3x3
I0403 15:16:41.963332 31396 net.cpp:148] Top shape: 24 192 56 56 (14450688)
I0403 15:16:41.963379 31396 net.cpp:156] Memory required for data: 361268256
I0403 15:16:41.963397 31396 layer_factory.hpp:77] Creating layer conv2/norm2
I0403 15:16:41.963416 31396 net.cpp:91] Creating Layer conv2/norm2
I0403 15:16:41.963433 31396 net.cpp:425] conv2/norm2 <- conv2/3x3
I0403 15:16:41.963450 31396 net.cpp:399] conv2/norm2 -> conv2/norm2
I0403 15:16:41.963744 31396 net.cpp:141] Setting up conv2/norm2
I0403 15:16:41.963771 31396 net.cpp:148] Top shape: 24 192 56 56 (14450688)
I0403 15:16:41.963788 31396 net.cpp:156] Memory required for data: 419071008
I0403 15:16:41.963804 31396 layer_factory.hpp:77] Creating layer pool2/3x3_s2
I0403 15:16:41.963822 31396 net.cpp:91] Creating Layer pool2/3x3_s2
I0403 15:16:41.963838 31396 net.cpp:425] pool2/3x3_s2 <- conv2/norm2
I0403 15:16:41.963856 31396 net.cpp:399] pool2/3x3_s2 -> pool2/3x3_s2
I0403 15:16:41.963907 31396 net.cpp:141] Setting up pool2/3x3_s2
I0403 15:16:41.963930 31396 net.cpp:148] Top shape: 24 192 28 28 (3612672)
I0403 15:16:41.963945 31396 net.cpp:156] Memory required for data: 433521696
I0403 15:16:41.963961 31396 layer_factory.hpp:77] Creating layer pool2/3x3_s2_pool2/3x3_s2_0_split
I0403 15:16:41.963980 31396 net.cpp:91] Creating Layer pool2/3x3_s2_pool2/3x3_s2_0_split
I0403 15:16:41.963995 31396 net.cpp:425] pool2/3x3_s2_pool2/3x3_s2_0_split <- pool2/3x3_s2
I0403 15:16:41.964013 31396 net.cpp:399] pool2/3x3_s2_pool2/3x3_s2_0_split -> pool2/3x3_s2_pool2/3x3_s2_0_split_0
I0403 15:16:41.964032 31396 net.cpp:399] pool2/3x3_s2_pool2/3x3_s2_0_split -> pool2/3x3_s2_pool2/3x3_s2_0_split_1
I0403 15:16:41.964053 31396 net.cpp:399] pool2/3x3_s2_pool2/3x3_s2_0_split -> pool2/3x3_s2_pool2/3x3_s2_0_split_2
I0403 15:16:41.964074 31396 net.cpp:399] pool2/3x3_s2_pool2/3x3_s2_0_split -> pool2/3x3_s2_pool2/3x3_s2_0_split_3
I0403 15:16:41.964139 31396 net.cpp:141] Setting up pool2/3x3_s2_pool2/3x3_s2_0_split
I0403 15:16:41.964161 31396 net.cpp:148] Top shape: 24 192 28 28 (3612672)
I0403 15:16:41.964179 31396 net.cpp:148] Top shape: 24 192 28 28 (3612672)
I0403 15:16:41.964195 31396 net.cpp:148] Top shape: 24 192 28 28 (3612672)
I0403 15:16:41.964210 31396 net.cpp:148] Top shape: 24 192 28 28 (3612672)
I0403 15:16:41.964226 31396 net.cpp:156] Memory required for data: 491324448
I0403 15:16:41.964253 31396 layer_factory.hpp:77] Creating layer inception_3a/1x1
I0403 15:16:41.964277 31396 net.cpp:91] Creating Layer inception_3a/1x1
I0403 15:16:41.964295 31396 net.cpp:425] inception_3a/1x1 <- pool2/3x3_s2_pool2/3x3_s2_0_split_0
I0403 15:16:41.964325 31396 net.cpp:399] inception_3a/1x1 -> inception_3a/1x1
I0403 15:16:41.965924 31396 net.cpp:141] Setting up inception_3a/1x1
I0403 15:16:41.965956 31396 net.cpp:148] Top shape: 24 64 28 28 (1204224)
I0403 15:16:41.965975 31396 net.cpp:156] Memory required for data: 496141344
I0403 15:16:41.965994 31396 layer_factory.hpp:77] Creating layer inception_3a/relu_1x1
I0403 15:16:41.966014 31396 net.cpp:91] Creating Layer inception_3a/relu_1x1
I0403 15:16:41.966030 31396 net.cpp:425] inception_3a/relu_1x1 <- inception_3a/1x1
I0403 15:16:41.966048 31396 net.cpp:386] inception_3a/relu_1x1 -> inception_3a/1x1 (in-place)
I0403 15:16:41.966228 31396 net.cpp:141] Setting up inception_3a/relu_1x1
I0403 15:16:41.966253 31396 net.cpp:148] Top shape: 24 64 28 28 (1204224)
I0403 15:16:41.966269 31396 net.cpp:156] Memory required for data: 500958240
I0403 15:16:41.966284 31396 layer_factory.hpp:77] Creating layer inception_3a/3x3_reduce
I0403 15:16:41.966310 31396 net.cpp:91] Creating Layer inception_3a/3x3_reduce
I0403 15:16:41.966332 31396 net.cpp:425] inception_3a/3x3_reduce <- pool2/3x3_s2_pool2/3x3_s2_0_split_1
I0403 15:16:41.966361 31396 net.cpp:399] inception_3a/3x3_reduce -> inception_3a/3x3_reduce
I0403 15:16:41.968140 31396 net.cpp:141] Setting up inception_3a/3x3_reduce
I0403 15:16:41.968173 31396 net.cpp:148] Top shape: 24 96 28 28 (1806336)
I0403 15:16:41.968189 31396 net.cpp:156] Memory required for data: 508183584
I0403 15:16:41.968212 31396 layer_factory.hpp:77] Creating layer inception_3a/relu_3x3_reduce
I0403 15:16:41.968250 31396 net.cpp:91] Creating Layer inception_3a/relu_3x3_reduce
I0403 15:16:41.968267 31396 net.cpp:425] inception_3a/relu_3x3_reduce <- inception_3a/3x3_reduce
I0403 15:16:41.968289 31396 net.cpp:386] inception_3a/relu_3x3_reduce -> inception_3a/3x3_reduce (in-place)
I0403 15:16:41.968482 31396 net.cpp:141] Setting up inception_3a/relu_3x3_reduce
I0403 15:16:41.968509 31396 net.cpp:148] Top shape: 24 96 28 28 (1806336)
I0403 15:16:41.968524 31396 net.cpp:156] Memory required for data: 515408928
I0403 15:16:41.968539 31396 layer_factory.hpp:77] Creating layer inception_3a/3x3
I0403 15:16:41.968564 31396 net.cpp:91] Creating Layer inception_3a/3x3
I0403 15:16:41.968585 31396 net.cpp:425] inception_3a/3x3 <- inception_3a/3x3_reduce
I0403 15:16:41.968605 31396 net.cpp:399] inception_3a/3x3 -> inception_3a/3x3
I0403 15:16:41.970324 31396 net.cpp:141] Setting up inception_3a/3x3
I0403 15:16:41.970355 31396 net.cpp:148] Top shape: 24 128 28 28 (2408448)
I0403 15:16:41.970371 31396 net.cpp:156] Memory required for data: 525042720
I0403 15:16:41.970389 31396 layer_factory.hpp:77] Creating layer inception_3a/relu_3x3
I0403 15:16:41.970408 31396 net.cpp:91] Creating Layer inception_3a/relu_3x3
I0403 15:16:41.970425 31396 net.cpp:425] inception_3a/relu_3x3 <- inception_3a/3x3
I0403 15:16:41.970445 31396 net.cpp:386] inception_3a/relu_3x3 -> inception_3a/3x3 (in-place)
I0403 15:16:41.970731 31396 net.cpp:141] Setting up inception_3a/relu_3x3
I0403 15:16:41.970757 31396 net.cpp:148] Top shape: 24 128 28 28 (2408448)
I0403 15:16:41.970773 31396 net.cpp:156] Memory required for data: 534676512
I0403 15:16:41.970788 31396 layer_factory.hpp:77] Creating layer inception_3a/5x5_reduce
I0403 15:16:41.970811 31396 net.cpp:91] Creating Layer inception_3a/5x5_reduce
I0403 15:16:41.970830 31396 net.cpp:425] inception_3a/5x5_reduce <- pool2/3x3_s2_pool2/3x3_s2_0_split_2
I0403 15:16:41.970852 31396 net.cpp:399] inception_3a/5x5_reduce -> inception_3a/5x5_reduce
I0403 15:16:41.971845 31396 net.cpp:141] Setting up inception_3a/5x5_reduce
I0403 15:16:41.971875 31396 net.cpp:148] Top shape: 24 16 28 28 (301056)
I0403 15:16:41.971891 31396 net.cpp:156] Memory required for data: 535880736
I0403 15:16:41.971910 31396 layer_factory.hpp:77] Creating layer inception_3a/relu_5x5_reduce
I0403 15:16:41.971930 31396 net.cpp:91] Creating Layer inception_3a/relu_5x5_reduce
I0403 15:16:41.971947 31396 net.cpp:425] inception_3a/relu_5x5_reduce <- inception_3a/5x5_reduce
I0403 15:16:41.971968 31396 net.cpp:386] inception_3a/relu_5x5_reduce -> inception_3a/5x5_reduce (in-place)
I0403 15:16:41.972275 31396 net.cpp:141] Setting up inception_3a/relu_5x5_reduce
I0403 15:16:41.972303 31396 net.cpp:148] Top shape: 24 16 28 28 (301056)
I0403 15:16:41.972324 31396 net.cpp:156] Memory required for data: 537084960
I0403 15:16:41.972340 31396 layer_factory.hpp:77] Creating layer inception_3a/5x5
I0403 15:16:41.972364 31396 net.cpp:91] Creating Layer inception_3a/5x5
I0403 15:16:41.972383 31396 net.cpp:425] inception_3a/5x5 <- inception_3a/5x5_reduce
I0403 15:16:41.972405 31396 net.cpp:399] inception_3a/5x5 -> inception_3a/5x5
I0403 15:16:41.973459 31396 net.cpp:141] Setting up inception_3a/5x5
I0403 15:16:41.973502 31396 net.cpp:148] Top shape: 24 32 28 28 (602112)
I0403 15:16:41.973520 31396 net.cpp:156] Memory required for data: 539493408
I0403 15:16:41.973538 31396 layer_factory.hpp:77] Creating layer inception_3a/relu_5x5
I0403 15:16:41.973559 31396 net.cpp:91] Creating Layer inception_3a/relu_5x5
I0403 15:16:41.973577 31396 net.cpp:425] inception_3a/relu_5x5 <- inception_3a/5x5
I0403 15:16:41.973594 31396 net.cpp:386] inception_3a/relu_5x5 -> inception_3a/5x5 (in-place)
I0403 15:16:41.973773 31396 net.cpp:141] Setting up inception_3a/relu_5x5
I0403 15:16:41.973798 31396 net.cpp:148] Top shape: 24 32 28 28 (602112)
I0403 15:16:41.973812 31396 net.cpp:156] Memory required for data: 541901856
I0403 15:16:41.973827 31396 layer_factory.hpp:77] Creating layer inception_3a/pool
I0403 15:16:41.973845 31396 net.cpp:91] Creating Layer inception_3a/pool
I0403 15:16:41.973863 31396 net.cpp:425] inception_3a/pool <- pool2/3x3_s2_pool2/3x3_s2_0_split_3
I0403 15:16:41.973899 31396 net.cpp:399] inception_3a/pool -> inception_3a/pool
I0403 15:16:41.973958 31396 net.cpp:141] Setting up inception_3a/pool
I0403 15:16:41.973984 31396 net.cpp:148] Top shape: 24 192 28 28 (3612672)
I0403 15:16:41.974000 31396 net.cpp:156] Memory required for data: 556352544
I0403 15:16:41.974016 31396 layer_factory.hpp:77] Creating layer inception_3a/pool_proj
I0403 15:16:41.974038 31396 net.cpp:91] Creating Layer inception_3a/pool_proj
I0403 15:16:41.974057 31396 net.cpp:425] inception_3a/pool_proj <- inception_3a/pool
I0403 15:16:41.974076 31396 net.cpp:399] inception_3a/pool_proj -> inception_3a/pool_proj
I0403 15:16:41.975052 31396 net.cpp:141] Setting up inception_3a/pool_proj
I0403 15:16:41.975081 31396 net.cpp:148] Top shape: 24 32 28 28 (602112)
I0403 15:16:41.975097 31396 net.cpp:156] Memory required for data: 558760992
I0403 15:16:41.975122 31396 layer_factory.hpp:77] Creating layer inception_3a/relu_pool_proj
I0403 15:16:41.975144 31396 net.cpp:91] Creating Layer inception_3a/relu_pool_proj
I0403 15:16:41.975159 31396 net.cpp:425] inception_3a/relu_pool_proj <- inception_3a/pool_proj
I0403 15:16:41.975178 31396 net.cpp:386] inception_3a/relu_pool_proj -> inception_3a/pool_proj (in-place)
I0403 15:16:41.975460 31396 net.cpp:141] Setting up inception_3a/relu_pool_proj
I0403 15:16:41.975489 31396 net.cpp:148] Top shape: 24 32 28 28 (602112)
I0403 15:16:41.975505 31396 net.cpp:156] Memory required for data: 561169440
I0403 15:16:41.975533 31396 layer_factory.hpp:77] Creating layer inception_3a/output
I0403 15:16:41.975554 31396 net.cpp:91] Creating Layer inception_3a/output
I0403 15:16:41.975570 31396 net.cpp:425] inception_3a/output <- inception_3a/1x1
I0403 15:16:41.975587 31396 net.cpp:425] inception_3a/output <- inception_3a/3x3
I0403 15:16:41.975605 31396 net.cpp:425] inception_3a/output <- inception_3a/5x5
I0403 15:16:41.975621 31396 net.cpp:425] inception_3a/output <- inception_3a/pool_proj
I0403 15:16:41.975638 31396 net.cpp:399] inception_3a/output -> inception_3a/output
I0403 15:16:41.975688 31396 net.cpp:141] Setting up inception_3a/output
I0403 15:16:41.975713 31396 net.cpp:148] Top shape: 24 256 28 28 (4816896)
I0403 15:16:41.975728 31396 net.cpp:156] Memory required for data: 580437024
I0403 15:16:41.975741 31396 layer_factory.hpp:77] Creating layer inception_3a/output_inception_3a/output_0_split
I0403 15:16:41.975762 31396 net.cpp:91] Creating Layer inception_3a/output_inception_3a/output_0_split
I0403 15:16:41.975780 31396 net.cpp:425] inception_3a/output_inception_3a/output_0_split <- inception_3a/output
I0403 15:16:41.975797 31396 net.cpp:399] inception_3a/output_inception_3a/output_0_split -> inception_3a/output_inception_3a/output_0_split_0
I0403 15:16:41.975817 31396 net.cpp:399] inception_3a/output_inception_3a/output_0_split -> inception_3a/output_inception_3a/output_0_split_1
I0403 15:16:41.975842 31396 net.cpp:399] inception_3a/output_inception_3a/output_0_split -> inception_3a/output_inception_3a/output_0_split_2
I0403 15:16:41.975865 31396 net.cpp:399] inception_3a/output_inception_3a/output_0_split -> inception_3a/output_inception_3a/output_0_split_3
I0403 15:16:41.975944 31396 net.cpp:141] Setting up inception_3a/output_inception_3a/output_0_split
I0403 15:16:41.975968 31396 net.cpp:148] Top shape: 24 256 28 28 (4816896)
I0403 15:16:41.975986 31396 net.cpp:148] Top shape: 24 256 28 28 (4816896)
I0403 15:16:41.976002 31396 net.cpp:148] Top shape: 24 256 28 28 (4816896)
I0403 15:16:41.976018 31396 net.cpp:148] Top shape: 24 256 28 28 (4816896)
I0403 15:16:41.976032 31396 net.cpp:156] Memory required for data: 657507360
I0403 15:16:41.976047 31396 layer_factory.hpp:77] Creating layer inception_3b/1x1
I0403 15:16:41.976071 31396 net.cpp:91] Creating Layer inception_3b/1x1
I0403 15:16:41.976091 31396 net.cpp:425] inception_3b/1x1 <- inception_3a/output_inception_3a/output_0_split_0
I0403 15:16:41.976111 31396 net.cpp:399] inception_3b/1x1 -> inception_3b/1x1
I0403 15:16:41.977275 31396 net.cpp:141] Setting up inception_3b/1x1
I0403 15:16:41.977322 31396 net.cpp:148] Top shape: 24 128 28 28 (2408448)
I0403 15:16:41.977340 31396 net.cpp:156] Memory required for data: 667141152
I0403 15:16:41.977360 31396 layer_factory.hpp:77] Creating layer inception_3b/relu_1x1
I0403 15:16:41.977383 31396 net.cpp:91] Creating Layer inception_3b/relu_1x1
I0403 15:16:41.977401 31396 net.cpp:425] inception_3b/relu_1x1 <- inception_3b/1x1
I0403 15:16:41.977421 31396 net.cpp:386] inception_3b/relu_1x1 -> inception_3b/1x1 (in-place)
I0403 15:16:41.977602 31396 net.cpp:141] Setting up inception_3b/relu_1x1
I0403 15:16:41.977627 31396 net.cpp:148] Top shape: 24 128 28 28 (2408448)
I0403 15:16:41.977643 31396 net.cpp:156] Memory required for data: 676774944
I0403 15:16:41.977658 31396 layer_factory.hpp:77] Creating layer inception_3b/3x3_reduce
I0403 15:16:41.977681 31396 net.cpp:91] Creating Layer inception_3b/3x3_reduce
I0403 15:16:41.977700 31396 net.cpp:425] inception_3b/3x3_reduce <- inception_3a/output_inception_3a/output_0_split_1
I0403 15:16:41.977722 31396 net.cpp:399] inception_3b/3x3_reduce -> inception_3b/3x3_reduce
I0403 15:16:41.978879 31396 net.cpp:141] Setting up inception_3b/3x3_reduce
I0403 15:16:41.978909 31396 net.cpp:148] Top shape: 24 128 28 28 (2408448)
I0403 15:16:41.978929 31396 net.cpp:156] Memory required for data: 686408736
I0403 15:16:41.978948 31396 layer_factory.hpp:77] Creating layer inception_3b/relu_3x3_reduce
I0403 15:16:41.978967 31396 net.cpp:91] Creating Layer inception_3b/relu_3x3_reduce
I0403 15:16:41.978984 31396 net.cpp:425] inception_3b/relu_3x3_reduce <- inception_3b/3x3_reduce
I0403 15:16:41.979001 31396 net.cpp:386] inception_3b/relu_3x3_reduce -> inception_3b/3x3_reduce (in-place)
I0403 15:16:41.979182 31396 net.cpp:141] Setting up inception_3b/relu_3x3_reduce
I0403 15:16:41.979209 31396 net.cpp:148] Top shape: 24 128 28 28 (2408448)
I0403 15:16:41.979226 31396 net.cpp:156] Memory required for data: 696042528
I0403 15:16:41.979243 31396 layer_factory.hpp:77] Creating layer inception_3b/3x3
I0403 15:16:41.979267 31396 net.cpp:91] Creating Layer inception_3b/3x3
I0403 15:16:41.979286 31396 net.cpp:425] inception_3b/3x3 <- inception_3b/3x3_reduce
I0403 15:16:41.979307 31396 net.cpp:399] inception_3b/3x3 -> inception_3b/3x3
I0403 15:16:41.982276 31396 net.cpp:141] Setting up inception_3b/3x3
I0403 15:16:41.982308 31396 net.cpp:148] Top shape: 24 192 28 28 (3612672)
I0403 15:16:41.982329 31396 net.cpp:156] Memory required for data: 710493216
I0403 15:16:41.982350 31396 layer_factory.hpp:77] Creating layer inception_3b/relu_3x3
I0403 15:16:41.982370 31396 net.cpp:91] Creating Layer inception_3b/relu_3x3
I0403 15:16:41.982388 31396 net.cpp:425] inception_3b/relu_3x3 <- inception_3b/3x3
I0403 15:16:41.982409 31396 net.cpp:386] inception_3b/relu_3x3 -> inception_3b/3x3 (in-place)
I0403 15:16:41.982691 31396 net.cpp:141] Setting up inception_3b/relu_3x3
I0403 15:16:41.982720 31396 net.cpp:148] Top shape: 24 192 28 28 (3612672)
I0403 15:16:41.982736 31396 net.cpp:156] Memory required for data: 724943904
I0403 15:16:41.982753 31396 layer_factory.hpp:77] Creating layer inception_3b/5x5_reduce
I0403 15:16:41.982775 31396 net.cpp:91] Creating Layer inception_3b/5x5_reduce
I0403 15:16:41.982795 31396 net.cpp:425] inception_3b/5x5_reduce <- inception_3a/output_inception_3a/output_0_split_2
I0403 15:16:41.982817 31396 net.cpp:399] inception_3b/5x5_reduce -> inception_3b/5x5_reduce
I0403 15:16:41.983830 31396 net.cpp:141] Setting up inception_3b/5x5_reduce
I0403 15:16:41.983861 31396 net.cpp:148] Top shape: 24 32 28 28 (602112)
I0403 15:16:41.983880 31396 net.cpp:156] Memory required for data: 727352352
I0403 15:16:41.983899 31396 layer_factory.hpp:77] Creating layer inception_3b/relu_5x5_reduce
I0403 15:16:41.983918 31396 net.cpp:91] Creating Layer inception_3b/relu_5x5_reduce
I0403 15:16:41.983934 31396 net.cpp:425] inception_3b/relu_5x5_reduce <- inception_3b/5x5_reduce
I0403 15:16:41.983954 31396 net.cpp:386] inception_3b/relu_5x5_reduce -> inception_3b/5x5_reduce (in-place)
I0403 15:16:41.984139 31396 net.cpp:141] Setting up inception_3b/relu_5x5_reduce
I0403 15:16:41.984177 31396 net.cpp:148] Top shape: 24 32 28 28 (602112)
I0403 15:16:41.984194 31396 net.cpp:156] Memory required for data: 729760800
I0403 15:16:41.984210 31396 layer_factory.hpp:77] Creating layer inception_3b/5x5
I0403 15:16:41.984235 31396 net.cpp:91] Creating Layer inception_3b/5x5
I0403 15:16:41.984252 31396 net.cpp:425] inception_3b/5x5 <- inception_3b/5x5_reduce
I0403 15:16:41.984274 31396 net.cpp:399] inception_3b/5x5 -> inception_3b/5x5
I0403 15:16:41.986299 31396 net.cpp:141] Setting up inception_3b/5x5
I0403 15:16:41.986335 31396 net.cpp:148] Top shape: 24 96 28 28 (1806336)
I0403 15:16:41.986352 31396 net.cpp:156] Memory required for data: 736986144
I0403 15:16:41.986382 31396 layer_factory.hpp:77] Creating layer inception_3b/relu_5x5
I0403 15:16:41.986404 31396 net.cpp:91] Creating Layer inception_3b/relu_5x5
I0403 15:16:41.986423 31396 net.cpp:425] inception_3b/relu_5x5 <- inception_3b/5x5
I0403 15:16:41.986443 31396 net.cpp:386] inception_3b/relu_5x5 -> inception_3b/5x5 (in-place)
I0403 15:16:41.986660 31396 net.cpp:141] Setting up inception_3b/relu_5x5
I0403 15:16:41.986685 31396 net.cpp:148] Top shape: 24 96 28 28 (1806336)
I0403 15:16:41.986701 31396 net.cpp:156] Memory required for data: 744211488
I0403 15:16:41.986716 31396 layer_factory.hpp:77] Creating layer inception_3b/pool
I0403 15:16:41.986735 31396 net.cpp:91] Creating Layer inception_3b/pool
I0403 15:16:41.986752 31396 net.cpp:425] inception_3b/pool <- inception_3a/output_inception_3a/output_0_split_3
I0403 15:16:41.986769 31396 net.cpp:399] inception_3b/pool -> inception_3b/pool
I0403 15:16:41.986825 31396 net.cpp:141] Setting up inception_3b/pool
I0403 15:16:41.986850 31396 net.cpp:148] Top shape: 24 256 28 28 (4816896)
I0403 15:16:41.986865 31396 net.cpp:156] Memory required for data: 763479072
I0403 15:16:41.986881 31396 layer_factory.hpp:77] Creating layer inception_3b/pool_proj
I0403 15:16:41.986904 31396 net.cpp:91] Creating Layer inception_3b/pool_proj
I0403 15:16:41.986923 31396 net.cpp:425] inception_3b/pool_proj <- inception_3b/pool
I0403 15:16:41.986945 31396 net.cpp:399] inception_3b/pool_proj -> inception_3b/pool_proj
I0403 15:16:41.988035 31396 net.cpp:141] Setting up inception_3b/pool_proj
I0403 15:16:41.988065 31396 net.cpp:148] Top shape: 24 64 28 28 (1204224)
I0403 15:16:41.988081 31396 net.cpp:156] Memory required for data: 768295968
I0403 15:16:41.988101 31396 layer_factory.hpp:77] Creating layer inception_3b/relu_pool_proj
I0403 15:16:41.988122 31396 net.cpp:91] Creating Layer inception_3b/relu_pool_proj
I0403 15:16:41.988140 31396 net.cpp:425] inception_3b/relu_pool_proj <- inception_3b/pool_proj
I0403 15:16:41.988159 31396 net.cpp:386] inception_3b/relu_pool_proj -> inception_3b/pool_proj (in-place)
I0403 15:16:41.988610 31396 net.cpp:141] Setting up inception_3b/relu_pool_proj
I0403 15:16:41.988636 31396 net.cpp:148] Top shape: 24 64 28 28 (1204224)
I0403 15:16:41.988651 31396 net.cpp:156] Memory required for data: 773112864
I0403 15:16:41.988667 31396 layer_factory.hpp:77] Creating layer inception_3b/output
I0403 15:16:41.988685 31396 net.cpp:91] Creating Layer inception_3b/output
I0403 15:16:41.988701 31396 net.cpp:425] inception_3b/output <- inception_3b/1x1
I0403 15:16:41.988719 31396 net.cpp:425] inception_3b/output <- inception_3b/3x3
I0403 15:16:41.988735 31396 net.cpp:425] inception_3b/output <- inception_3b/5x5
I0403 15:16:41.988752 31396 net.cpp:425] inception_3b/output <- inception_3b/pool_proj
I0403 15:16:41.988772 31396 net.cpp:399] inception_3b/output -> inception_3b/output
I0403 15:16:41.988819 31396 net.cpp:141] Setting up inception_3b/output
I0403 15:16:41.988845 31396 net.cpp:148] Top shape: 24 480 28 28 (9031680)
I0403 15:16:41.988862 31396 net.cpp:156] Memory required for data: 809239584
I0403 15:16:41.988876 31396 layer_factory.hpp:77] Creating layer pool3/3x3_s2
I0403 15:16:41.988894 31396 net.cpp:91] Creating Layer pool3/3x3_s2
I0403 15:16:41.988911 31396 net.cpp:425] pool3/3x3_s2 <- inception_3b/output
I0403 15:16:41.988930 31396 net.cpp:399] pool3/3x3_s2 -> pool3/3x3_s2
I0403 15:16:41.989006 31396 net.cpp:141] Setting up pool3/3x3_s2
I0403 15:16:41.989032 31396 net.cpp:148] Top shape: 24 480 14 14 (2257920)
I0403 15:16:41.989047 31396 net.cpp:156] Memory required for data: 818271264
I0403 15:16:41.989061 31396 layer_factory.hpp:77] Creating layer pool3/3x3_s2_pool3/3x3_s2_0_split
I0403 15:16:41.989081 31396 net.cpp:91] Creating Layer pool3/3x3_s2_pool3/3x3_s2_0_split
I0403 15:16:41.989099 31396 net.cpp:425] pool3/3x3_s2_pool3/3x3_s2_0_split <- pool3/3x3_s2
I0403 15:16:41.989117 31396 net.cpp:399] pool3/3x3_s2_pool3/3x3_s2_0_split -> pool3/3x3_s2_pool3/3x3_s2_0_split_0
I0403 15:16:41.989136 31396 net.cpp:399] pool3/3x3_s2_pool3/3x3_s2_0_split -> pool3/3x3_s2_pool3/3x3_s2_0_split_1
I0403 15:16:41.989156 31396 net.cpp:399] pool3/3x3_s2_pool3/3x3_s2_0_split -> pool3/3x3_s2_pool3/3x3_s2_0_split_2
I0403 15:16:41.989179 31396 net.cpp:399] pool3/3x3_s2_pool3/3x3_s2_0_split -> pool3/3x3_s2_pool3/3x3_s2_0_split_3
I0403 15:16:41.989258 31396 net.cpp:141] Setting up pool3/3x3_s2_pool3/3x3_s2_0_split
I0403 15:16:41.989281 31396 net.cpp:148] Top shape: 24 480 14 14 (2257920)
I0403 15:16:41.989298 31396 net.cpp:148] Top shape: 24 480 14 14 (2257920)
I0403 15:16:41.989317 31396 net.cpp:148] Top shape: 24 480 14 14 (2257920)
I0403 15:16:41.989334 31396 net.cpp:148] Top shape: 24 480 14 14 (2257920)
I0403 15:16:41.989348 31396 net.cpp:156] Memory required for data: 854397984
I0403 15:16:41.989363 31396 layer_factory.hpp:77] Creating layer inception_4a/1x1
I0403 15:16:41.989387 31396 net.cpp:91] Creating Layer inception_4a/1x1
I0403 15:16:41.989408 31396 net.cpp:425] inception_4a/1x1 <- pool3/3x3_s2_pool3/3x3_s2_0_split_0
I0403 15:16:41.989428 31396 net.cpp:399] inception_4a/1x1 -> inception_4a/1x1
I0403 15:16:41.991044 31396 net.cpp:141] Setting up inception_4a/1x1
I0403 15:16:41.991072 31396 net.cpp:148] Top shape: 24 192 14 14 (903168)
I0403 15:16:41.991088 31396 net.cpp:156] Memory required for data: 858010656
I0403 15:16:41.991107 31396 layer_factory.hpp:77] Creating layer inception_4a/relu_1x1
I0403 15:16:41.991130 31396 net.cpp:91] Creating Layer inception_4a/relu_1x1
I0403 15:16:41.991148 31396 net.cpp:425] inception_4a/relu_1x1 <- inception_4a/1x1
I0403 15:16:41.991166 31396 net.cpp:386] inception_4a/relu_1x1 -> inception_4a/1x1 (in-place)
I0403 15:16:41.991354 31396 net.cpp:141] Setting up inception_4a/relu_1x1
I0403 15:16:41.991381 31396 net.cpp:148] Top shape: 24 192 14 14 (903168)
I0403 15:16:41.991396 31396 net.cpp:156] Memory required for data: 861623328
I0403 15:16:41.991412 31396 layer_factory.hpp:77] Creating layer inception_4a/3x3_reduce
I0403 15:16:41.991439 31396 net.cpp:91] Creating Layer inception_4a/3x3_reduce
I0403 15:16:41.991458 31396 net.cpp:425] inception_4a/3x3_reduce <- pool3/3x3_s2_pool3/3x3_s2_0_split_1
I0403 15:16:41.991479 31396 net.cpp:399] inception_4a/3x3_reduce -> inception_4a/3x3_reduce
I0403 15:16:41.992792 31396 net.cpp:141] Setting up inception_4a/3x3_reduce
I0403 15:16:41.992821 31396 net.cpp:148] Top shape: 24 96 14 14 (451584)
I0403 15:16:41.992837 31396 net.cpp:156] Memory required for data: 863429664
I0403 15:16:41.992863 31396 layer_factory.hpp:77] Creating layer inception_4a/relu_3x3_reduce
I0403 15:16:41.992884 31396 net.cpp:91] Creating Layer inception_4a/relu_3x3_reduce
I0403 15:16:41.992900 31396 net.cpp:425] inception_4a/relu_3x3_reduce <- inception_4a/3x3_reduce
I0403 15:16:41.992923 31396 net.cpp:386] inception_4a/relu_3x3_reduce -> inception_4a/3x3_reduce (in-place)
I0403 15:16:41.993108 31396 net.cpp:141] Setting up inception_4a/relu_3x3_reduce
I0403 15:16:41.993134 31396 net.cpp:148] Top shape: 24 96 14 14 (451584)
I0403 15:16:41.993150 31396 net.cpp:156] Memory required for data: 865236000
I0403 15:16:41.993165 31396 layer_factory.hpp:77] Creating layer inception_4a/3x3
I0403 15:16:41.993191 31396 net.cpp:91] Creating Layer inception_4a/3x3
I0403 15:16:41.993209 31396 net.cpp:425] inception_4a/3x3 <- inception_4a/3x3_reduce
I0403 15:16:41.993228 31396 net.cpp:399] inception_4a/3x3 -> inception_4a/3x3
I0403 15:16:41.995985 31396 net.cpp:141] Setting up inception_4a/3x3
I0403 15:16:41.996016 31396 net.cpp:148] Top shape: 24 208 14 14 (978432)
I0403 15:16:41.996034 31396 net.cpp:156] Memory required for data: 869149728
I0403 15:16:41.996053 31396 layer_factory.hpp:77] Creating layer inception_4a/relu_3x3
I0403 15:16:41.996073 31396 net.cpp:91] Creating Layer inception_4a/relu_3x3
I0403 15:16:41.996089 31396 net.cpp:425] inception_4a/relu_3x3 <- inception_4a/3x3
I0403 15:16:41.996107 31396 net.cpp:386] inception_4a/relu_3x3 -> inception_4a/3x3 (in-place)
I0403 15:16:41.996402 31396 net.cpp:141] Setting up inception_4a/relu_3x3
I0403 15:16:41.996433 31396 net.cpp:148] Top shape: 24 208 14 14 (978432)
I0403 15:16:41.996449 31396 net.cpp:156] Memory required for data: 873063456
I0403 15:16:41.996466 31396 layer_factory.hpp:77] Creating layer inception_4a/5x5_reduce
I0403 15:16:41.996487 31396 net.cpp:91] Creating Layer inception_4a/5x5_reduce
I0403 15:16:41.996505 31396 net.cpp:425] inception_4a/5x5_reduce <- pool3/3x3_s2_pool3/3x3_s2_0_split_2
I0403 15:16:41.996526 31396 net.cpp:399] inception_4a/5x5_reduce -> inception_4a/5x5_reduce
I0403 15:16:41.997586 31396 net.cpp:141] Setting up inception_4a/5x5_reduce
I0403 15:16:41.997617 31396 net.cpp:148] Top shape: 24 16 14 14 (75264)
I0403 15:16:41.997634 31396 net.cpp:156] Memory required for data: 873364512
I0403 15:16:41.997654 31396 layer_factory.hpp:77] Creating layer inception_4a/relu_5x5_reduce
I0403 15:16:41.997673 31396 net.cpp:91] Creating Layer inception_4a/relu_5x5_reduce
I0403 15:16:41.997691 31396 net.cpp:425] inception_4a/relu_5x5_reduce <- inception_4a/5x5_reduce
I0403 15:16:41.997709 31396 net.cpp:386] inception_4a/relu_5x5_reduce -> inception_4a/5x5_reduce (in-place)
I0403 15:16:41.997896 31396 net.cpp:141] Setting up inception_4a/relu_5x5_reduce
I0403 15:16:41.997922 31396 net.cpp:148] Top shape: 24 16 14 14 (75264)
I0403 15:16:41.997938 31396 net.cpp:156] Memory required for data: 873665568
I0403 15:16:41.997954 31396 layer_factory.hpp:77] Creating layer inception_4a/5x5
I0403 15:16:41.997978 31396 net.cpp:91] Creating Layer inception_4a/5x5
I0403 15:16:41.997997 31396 net.cpp:425] inception_4a/5x5 <- inception_4a/5x5_reduce
I0403 15:16:41.998018 31396 net.cpp:399] inception_4a/5x5 -> inception_4a/5x5
I0403 15:16:41.999143 31396 net.cpp:141] Setting up inception_4a/5x5
I0403 15:16:41.999172 31396 net.cpp:148] Top shape: 24 48 14 14 (225792)
I0403 15:16:41.999189 31396 net.cpp:156] Memory required for data: 874568736
I0403 15:16:41.999209 31396 layer_factory.hpp:77] Creating layer inception_4a/relu_5x5
I0403 15:16:41.999228 31396 net.cpp:91] Creating Layer inception_4a/relu_5x5
I0403 15:16:41.999244 31396 net.cpp:425] inception_4a/relu_5x5 <- inception_4a/5x5
I0403 15:16:41.999264 31396 net.cpp:386] inception_4a/relu_5x5 -> inception_4a/5x5 (in-place)
I0403 15:16:41.999457 31396 net.cpp:141] Setting up inception_4a/relu_5x5
I0403 15:16:41.999483 31396 net.cpp:148] Top shape: 24 48 14 14 (225792)
I0403 15:16:41.999500 31396 net.cpp:156] Memory required for data: 875471904
I0403 15:16:41.999516 31396 layer_factory.hpp:77] Creating layer inception_4a/pool
I0403 15:16:41.999537 31396 net.cpp:91] Creating Layer inception_4a/pool
I0403 15:16:41.999554 31396 net.cpp:425] inception_4a/pool <- pool3/3x3_s2_pool3/3x3_s2_0_split_3
I0403 15:16:41.999574 31396 net.cpp:399] inception_4a/pool -> inception_4a/pool
I0403 15:16:41.999637 31396 net.cpp:141] Setting up inception_4a/pool
I0403 15:16:41.999662 31396 net.cpp:148] Top shape: 24 480 14 14 (2257920)
I0403 15:16:41.999678 31396 net.cpp:156] Memory required for data: 884503584
I0403 15:16:41.999693 31396 layer_factory.hpp:77] Creating layer inception_4a/pool_proj
I0403 15:16:41.999716 31396 net.cpp:91] Creating Layer inception_4a/pool_proj
I0403 15:16:41.999734 31396 net.cpp:425] inception_4a/pool_proj <- inception_4a/pool
I0403 15:16:41.999757 31396 net.cpp:399] inception_4a/pool_proj -> inception_4a/pool_proj
I0403 15:16:42.001011 31396 net.cpp:141] Setting up inception_4a/pool_proj
I0403 15:16:42.001042 31396 net.cpp:148] Top shape: 24 64 14 14 (301056)
I0403 15:16:42.001075 31396 net.cpp:156] Memory required for data: 885707808
I0403 15:16:42.001094 31396 layer_factory.hpp:77] Creating layer inception_4a/relu_pool_proj
I0403 15:16:42.001116 31396 net.cpp:91] Creating Layer inception_4a/relu_pool_proj
I0403 15:16:42.001135 31396 net.cpp:425] inception_4a/relu_pool_proj <- inception_4a/pool_proj
I0403 15:16:42.001153 31396 net.cpp:386] inception_4a/relu_pool_proj -> inception_4a/pool_proj (in-place)
I0403 15:16:42.001449 31396 net.cpp:141] Setting up inception_4a/relu_pool_proj
I0403 15:16:42.001477 31396 net.cpp:148] Top shape: 24 64 14 14 (301056)
I0403 15:16:42.001493 31396 net.cpp:156] Memory required for data: 886912032
I0403 15:16:42.001509 31396 layer_factory.hpp:77] Creating layer inception_4a/output
I0403 15:16:42.001528 31396 net.cpp:91] Creating Layer inception_4a/output
I0403 15:16:42.001545 31396 net.cpp:425] inception_4a/output <- inception_4a/1x1
I0403 15:16:42.001562 31396 net.cpp:425] inception_4a/output <- inception_4a/3x3
I0403 15:16:42.001581 31396 net.cpp:425] inception_4a/output <- inception_4a/5x5
I0403 15:16:42.001598 31396 net.cpp:425] inception_4a/output <- inception_4a/pool_proj
I0403 15:16:42.001619 31396 net.cpp:399] inception_4a/output -> inception_4a/output
I0403 15:16:42.001668 31396 net.cpp:141] Setting up inception_4a/output
I0403 15:16:42.001693 31396 net.cpp:148] Top shape: 24 512 14 14 (2408448)
I0403 15:16:42.001708 31396 net.cpp:156] Memory required for data: 896545824
I0403 15:16:42.001724 31396 layer_factory.hpp:77] Creating layer inception_4a/output_inception_4a/output_0_split
I0403 15:16:42.001741 31396 net.cpp:91] Creating Layer inception_4a/output_inception_4a/output_0_split
I0403 15:16:42.001757 31396 net.cpp:425] inception_4a/output_inception_4a/output_0_split <- inception_4a/output
I0403 15:16:42.001778 31396 net.cpp:399] inception_4a/output_inception_4a/output_0_split -> inception_4a/output_inception_4a/output_0_split_0
I0403 15:16:42.001801 31396 net.cpp:399] inception_4a/output_inception_4a/output_0_split -> inception_4a/output_inception_4a/output_0_split_1
I0403 15:16:42.001822 31396 net.cpp:399] inception_4a/output_inception_4a/output_0_split -> inception_4a/output_inception_4a/output_0_split_2
I0403 15:16:42.001844 31396 net.cpp:399] inception_4a/output_inception_4a/output_0_split -> inception_4a/output_inception_4a/output_0_split_3
I0403 15:16:42.001865 31396 net.cpp:399] inception_4a/output_inception_4a/output_0_split -> inception_4a/output_inception_4a/output_0_split_4
I0403 15:16:42.001961 31396 net.cpp:141] Setting up inception_4a/output_inception_4a/output_0_split
I0403 15:16:42.001987 31396 net.cpp:148] Top shape: 24 512 14 14 (2408448)
I0403 15:16:42.002007 31396 net.cpp:148] Top shape: 24 512 14 14 (2408448)
I0403 15:16:42.002023 31396 net.cpp:148] Top shape: 24 512 14 14 (2408448)
I0403 15:16:42.002040 31396 net.cpp:148] Top shape: 24 512 14 14 (2408448)
I0403 15:16:42.002056 31396 net.cpp:148] Top shape: 24 512 14 14 (2408448)
I0403 15:16:42.002071 31396 net.cpp:156] Memory required for data: 944714784
I0403 15:16:42.002087 31396 layer_factory.hpp:77] Creating layer loss1/ave_pool
I0403 15:16:42.002105 31396 net.cpp:91] Creating Layer loss1/ave_pool
I0403 15:16:42.002122 31396 net.cpp:425] loss1/ave_pool <- inception_4a/output_inception_4a/output_0_split_0
I0403 15:16:42.002143 31396 net.cpp:399] loss1/ave_pool -> loss1/ave_pool
I0403 15:16:42.002365 31396 net.cpp:141] Setting up loss1/ave_pool
I0403 15:16:42.002393 31396 net.cpp:148] Top shape: 24 512 4 4 (196608)
I0403 15:16:42.002409 31396 net.cpp:156] Memory required for data: 945501216
I0403 15:16:42.002425 31396 layer_factory.hpp:77] Creating layer loss1/conv
I0403 15:16:42.002449 31396 net.cpp:91] Creating Layer loss1/conv
I0403 15:16:42.002466 31396 net.cpp:425] loss1/conv <- loss1/ave_pool
I0403 15:16:42.002487 31396 net.cpp:399] loss1/conv -> loss1/conv
I0403 15:16:42.003957 31396 net.cpp:141] Setting up loss1/conv
I0403 15:16:42.003988 31396 net.cpp:148] Top shape: 24 128 4 4 (49152)
I0403 15:16:42.004006 31396 net.cpp:156] Memory required for data: 945697824
I0403 15:16:42.004040 31396 layer_factory.hpp:77] Creating layer loss1/relu_conv
I0403 15:16:42.004061 31396 net.cpp:91] Creating Layer loss1/relu_conv
I0403 15:16:42.004077 31396 net.cpp:425] loss1/relu_conv <- loss1/conv
I0403 15:16:42.004096 31396 net.cpp:386] loss1/relu_conv -> loss1/conv (in-place)
I0403 15:16:42.004400 31396 net.cpp:141] Setting up loss1/relu_conv
I0403 15:16:42.004429 31396 net.cpp:148] Top shape: 24 128 4 4 (49152)
I0403 15:16:42.004447 31396 net.cpp:156] Memory required for data: 945894432
I0403 15:16:42.004463 31396 layer_factory.hpp:77] Creating layer loss1/fc
I0403 15:16:42.004488 31396 net.cpp:91] Creating Layer loss1/fc
I0403 15:16:42.004506 31396 net.cpp:425] loss1/fc <- loss1/conv
I0403 15:16:42.004528 31396 net.cpp:399] loss1/fc -> loss1/fc
I0403 15:16:42.022768 31396 net.cpp:141] Setting up loss1/fc
I0403 15:16:42.022804 31396 net.cpp:148] Top shape: 24 1024 (24576)
I0403 15:16:42.022821 31396 net.cpp:156] Memory required for data: 945992736
I0403 15:16:42.022842 31396 layer_factory.hpp:77] Creating layer loss1/relu_fc
I0403 15:16:42.022866 31396 net.cpp:91] Creating Layer loss1/relu_fc
I0403 15:16:42.022883 31396 net.cpp:425] loss1/relu_fc <- loss1/fc
I0403 15:16:42.022902 31396 net.cpp:386] loss1/relu_fc -> loss1/fc (in-place)
I0403 15:16:42.023116 31396 net.cpp:141] Setting up loss1/relu_fc
I0403 15:16:42.023144 31396 net.cpp:148] Top shape: 24 1024 (24576)
I0403 15:16:42.023159 31396 net.cpp:156] Memory required for data: 946091040
I0403 15:16:42.023175 31396 layer_factory.hpp:77] Creating layer loss1/drop_fc
I0403 15:16:42.023205 31396 net.cpp:91] Creating Layer loss1/drop_fc
I0403 15:16:42.023221 31396 net.cpp:425] loss1/drop_fc <- loss1/fc
I0403 15:16:42.023239 31396 net.cpp:386] loss1/drop_fc -> loss1/fc (in-place)
I0403 15:16:42.023293 31396 net.cpp:141] Setting up loss1/drop_fc
I0403 15:16:42.023321 31396 net.cpp:148] Top shape: 24 1024 (24576)
I0403 15:16:42.023337 31396 net.cpp:156] Memory required for data: 946189344
I0403 15:16:42.023353 31396 layer_factory.hpp:77] Creating layer loss1/classifier_plantvillage
I0403 15:16:42.023372 31396 net.cpp:91] Creating Layer loss1/classifier_plantvillage
I0403 15:16:42.023392 31396 net.cpp:425] loss1/classifier_plantvillage <- loss1/fc
I0403 15:16:42.023411 31396 net.cpp:399] loss1/classifier_plantvillage -> loss1/classifier_plantvillage
I0403 15:16:42.024379 31396 net.cpp:141] Setting up loss1/classifier_plantvillage
I0403 15:16:42.024410 31396 net.cpp:148] Top shape: 24 38 (912)
I0403 15:16:42.024426 31396 net.cpp:156] Memory required for data: 946192992
I0403 15:16:42.024446 31396 layer_factory.hpp:77] Creating layer loss1/classifier_plantvillage_loss1/classifier_plantvillage_0_split
I0403 15:16:42.024464 31396 net.cpp:91] Creating Layer loss1/classifier_plantvillage_loss1/classifier_plantvillage_0_split
I0403 15:16:42.024480 31396 net.cpp:425] loss1/classifier_plantvillage_loss1/classifier_plantvillage_0_split <- loss1/classifier_plantvillage
I0403 15:16:42.024498 31396 net.cpp:399] loss1/classifier_plantvillage_loss1/classifier_plantvillage_0_split -> loss1/classifier_plantvillage_loss1/classifier_plantvillage_0_split_0
I0403 15:16:42.024518 31396 net.cpp:399] loss1/classifier_plantvillage_loss1/classifier_plantvillage_0_split -> loss1/classifier_plantvillage_loss1/classifier_plantvillage_0_split_1
I0403 15:16:42.024540 31396 net.cpp:399] loss1/classifier_plantvillage_loss1/classifier_plantvillage_0_split -> loss1/classifier_plantvillage_loss1/classifier_plantvillage_0_split_2
I0403 15:16:42.024608 31396 net.cpp:141] Setting up loss1/classifier_plantvillage_loss1/classifier_plantvillage_0_split
I0403 15:16:42.024632 31396 net.cpp:148] Top shape: 24 38 (912)
I0403 15:16:42.024648 31396 net.cpp:148] Top shape: 24 38 (912)
I0403 15:16:42.024665 31396 net.cpp:148] Top shape: 24 38 (912)
I0403 15:16:42.024679 31396 net.cpp:156] Memory required for data: 946203936
I0403 15:16:42.024694 31396 layer_factory.hpp:77] Creating layer inception_4b/1x1
I0403 15:16:42.024715 31396 net.cpp:91] Creating Layer inception_4b/1x1
I0403 15:16:42.024755 31396 net.cpp:425] inception_4b/1x1 <- inception_4a/output_inception_4a/output_0_split_1
I0403 15:16:42.024778 31396 net.cpp:399] inception_4b/1x1 -> inception_4b/1x1
I0403 15:16:42.026465 31396 net.cpp:141] Setting up inception_4b/1x1
I0403 15:16:42.026496 31396 net.cpp:148] Top shape: 24 160 14 14 (752640)
I0403 15:16:42.026512 31396 net.cpp:156] Memory required for data: 949214496
I0403 15:16:42.026532 31396 layer_factory.hpp:77] Creating layer inception_4b/relu_1x1
I0403 15:16:42.026551 31396 net.cpp:91] Creating Layer inception_4b/relu_1x1
I0403 15:16:42.026571 31396 net.cpp:425] inception_4b/relu_1x1 <- inception_4b/1x1
I0403 15:16:42.026587 31396 net.cpp:386] inception_4b/relu_1x1 -> inception_4b/1x1 (in-place)
I0403 15:16:42.026775 31396 net.cpp:141] Setting up inception_4b/relu_1x1
I0403 15:16:42.026801 31396 net.cpp:148] Top shape: 24 160 14 14 (752640)
I0403 15:16:42.026816 31396 net.cpp:156] Memory required for data: 952225056
I0403 15:16:42.026832 31396 layer_factory.hpp:77] Creating layer inception_4b/3x3_reduce
I0403 15:16:42.026855 31396 net.cpp:91] Creating Layer inception_4b/3x3_reduce
I0403 15:16:42.026873 31396 net.cpp:425] inception_4b/3x3_reduce <- inception_4a/output_inception_4a/output_0_split_2
I0403 15:16:42.026895 31396 net.cpp:399] inception_4b/3x3_reduce -> inception_4b/3x3_reduce
I0403 15:16:42.028260 31396 net.cpp:141] Setting up inception_4b/3x3_reduce
I0403 15:16:42.028288 31396 net.cpp:148] Top shape: 24 112 14 14 (526848)
I0403 15:16:42.028323 31396 net.cpp:156] Memory required for data: 954332448
I0403 15:16:42.028344 31396 layer_factory.hpp:77] Creating layer inception_4b/relu_3x3_reduce
I0403 15:16:42.028365 31396 net.cpp:91] Creating Layer inception_4b/relu_3x3_reduce
I0403 15:16:42.028383 31396 net.cpp:425] inception_4b/relu_3x3_reduce <- inception_4b/3x3_reduce
I0403 15:16:42.028403 31396 net.cpp:386] inception_4b/relu_3x3_reduce -> inception_4b/3x3_reduce (in-place)
I0403 15:16:42.028709 31396 net.cpp:141] Setting up inception_4b/relu_3x3_reduce
I0403 15:16:42.028736 31396 net.cpp:148] Top shape: 24 112 14 14 (526848)
I0403 15:16:42.028751 31396 net.cpp:156] Memory required for data: 956439840
I0403 15:16:42.028766 31396 layer_factory.hpp:77] Creating layer inception_4b/3x3
I0403 15:16:42.028789 31396 net.cpp:91] Creating Layer inception_4b/3x3
I0403 15:16:42.028807 31396 net.cpp:425] inception_4b/3x3 <- inception_4b/3x3_reduce
I0403 15:16:42.028831 31396 net.cpp:399] inception_4b/3x3 -> inception_4b/3x3
I0403 15:16:42.031811 31396 net.cpp:141] Setting up inception_4b/3x3
I0403 15:16:42.031839 31396 net.cpp:148] Top shape: 24 224 14 14 (1053696)
I0403 15:16:42.031857 31396 net.cpp:156] Memory required for data: 960654624
I0403 15:16:42.031874 31396 layer_factory.hpp:77] Creating layer inception_4b/relu_3x3
I0403 15:16:42.031895 31396 net.cpp:91] Creating Layer inception_4b/relu_3x3
I0403 15:16:42.031913 31396 net.cpp:425] inception_4b/relu_3x3 <- inception_4b/3x3
I0403 15:16:42.031931 31396 net.cpp:386] inception_4b/relu_3x3 -> inception_4b/3x3 (in-place)
I0403 15:16:42.032117 31396 net.cpp:141] Setting up inception_4b/relu_3x3
I0403 15:16:42.032145 31396 net.cpp:148] Top shape: 24 224 14 14 (1053696)
I0403 15:16:42.032161 31396 net.cpp:156] Memory required for data: 964869408
I0403 15:16:42.032176 31396 layer_factory.hpp:77] Creating layer inception_4b/5x5_reduce
I0403 15:16:42.032198 31396 net.cpp:91] Creating Layer inception_4b/5x5_reduce
I0403 15:16:42.032217 31396 net.cpp:425] inception_4b/5x5_reduce <- inception_4a/output_inception_4a/output_0_split_3
I0403 15:16:42.032237 31396 net.cpp:399] inception_4b/5x5_reduce -> inception_4b/5x5_reduce
I0403 15:16:42.033359 31396 net.cpp:141] Setting up inception_4b/5x5_reduce
I0403 15:16:42.033390 31396 net.cpp:148] Top shape: 24 24 14 14 (112896)
I0403 15:16:42.033407 31396 net.cpp:156] Memory required for data: 965320992
I0403 15:16:42.033427 31396 layer_factory.hpp:77] Creating layer inception_4b/relu_5x5_reduce
I0403 15:16:42.033445 31396 net.cpp:91] Creating Layer inception_4b/relu_5x5_reduce
I0403 15:16:42.033478 31396 net.cpp:425] inception_4b/relu_5x5_reduce <- inception_4b/5x5_reduce
I0403 15:16:42.033500 31396 net.cpp:386] inception_4b/relu_5x5_reduce -> inception_4b/5x5_reduce (in-place)
I0403 15:16:42.033702 31396 net.cpp:141] Setting up inception_4b/relu_5x5_reduce
I0403 15:16:42.033728 31396 net.cpp:148] Top shape: 24 24 14 14 (112896)
I0403 15:16:42.033743 31396 net.cpp:156] Memory required for data: 965772576
I0403 15:16:42.033757 31396 layer_factory.hpp:77] Creating layer inception_4b/5x5
I0403 15:16:42.033779 31396 net.cpp:91] Creating Layer inception_4b/5x5
I0403 15:16:42.033798 31396 net.cpp:425] inception_4b/5x5 <- inception_4b/5x5_reduce
I0403 15:16:42.033820 31396 net.cpp:399] inception_4b/5x5 -> inception_4b/5x5
I0403 15:16:42.035055 31396 net.cpp:141] Setting up inception_4b/5x5
I0403 15:16:42.035085 31396 net.cpp:148] Top shape: 24 64 14 14 (301056)
I0403 15:16:42.035102 31396 net.cpp:156] Memory required for data: 966976800
I0403 15:16:42.035121 31396 layer_factory.hpp:77] Creating layer inception_4b/relu_5x5
I0403 15:16:42.035140 31396 net.cpp:91] Creating Layer inception_4b/relu_5x5
I0403 15:16:42.035156 31396 net.cpp:425] inception_4b/relu_5x5 <- inception_4b/5x5
I0403 15:16:42.035172 31396 net.cpp:386] inception_4b/relu_5x5 -> inception_4b/5x5 (in-place)
I0403 15:16:42.035468 31396 net.cpp:141] Setting up inception_4b/relu_5x5
I0403 15:16:42.035496 31396 net.cpp:148] Top shape: 24 64 14 14 (301056)
I0403 15:16:42.035513 31396 net.cpp:156] Memory required for data: 968181024
I0403 15:16:42.035528 31396 layer_factory.hpp:77] Creating layer inception_4b/pool
I0403 15:16:42.035547 31396 net.cpp:91] Creating Layer inception_4b/pool
I0403 15:16:42.035563 31396 net.cpp:425] inception_4b/pool <- inception_4a/output_inception_4a/output_0_split_4
I0403 15:16:42.035583 31396 net.cpp:399] inception_4b/pool -> inception_4b/pool
I0403 15:16:42.035648 31396 net.cpp:141] Setting up inception_4b/pool
I0403 15:16:42.035672 31396 net.cpp:148] Top shape: 24 512 14 14 (2408448)
I0403 15:16:42.035687 31396 net.cpp:156] Memory required for data: 977814816
I0403 15:16:42.035702 31396 layer_factory.hpp:77] Creating layer inception_4b/pool_proj
I0403 15:16:42.035725 31396 net.cpp:91] Creating Layer inception_4b/pool_proj
I0403 15:16:42.035743 31396 net.cpp:425] inception_4b/pool_proj <- inception_4b/pool
I0403 15:16:42.035765 31396 net.cpp:399] inception_4b/pool_proj -> inception_4b/pool_proj
I0403 15:16:42.036985 31396 net.cpp:141] Setting up inception_4b/pool_proj
I0403 15:16:42.037015 31396 net.cpp:148] Top shape: 24 64 14 14 (301056)
I0403 15:16:42.037030 31396 net.cpp:156] Memory required for data: 979019040
I0403 15:16:42.037048 31396 layer_factory.hpp:77] Creating layer inception_4b/relu_pool_proj
I0403 15:16:42.037067 31396 net.cpp:91] Creating Layer inception_4b/relu_pool_proj
I0403 15:16:42.037083 31396 net.cpp:425] inception_4b/relu_pool_proj <- inception_4b/pool_proj
I0403 15:16:42.037104 31396 net.cpp:386] inception_4b/relu_pool_proj -> inception_4b/pool_proj (in-place)
I0403 15:16:42.037291 31396 net.cpp:141] Setting up inception_4b/relu_pool_proj
I0403 15:16:42.037319 31396 net.cpp:148] Top shape: 24 64 14 14 (301056)
I0403 15:16:42.037336 31396 net.cpp:156] Memory required for data: 980223264
I0403 15:16:42.037351 31396 layer_factory.hpp:77] Creating layer inception_4b/output
I0403 15:16:42.037369 31396 net.cpp:91] Creating Layer inception_4b/output
I0403 15:16:42.037385 31396 net.cpp:425] inception_4b/output <- inception_4b/1x1
I0403 15:16:42.037402 31396 net.cpp:425] inception_4b/output <- inception_4b/3x3
I0403 15:16:42.037417 31396 net.cpp:425] inception_4b/output <- inception_4b/5x5
I0403 15:16:42.037433 31396 net.cpp:425] inception_4b/output <- inception_4b/pool_proj
I0403 15:16:42.037452 31396 net.cpp:399] inception_4b/output -> inception_4b/output
I0403 15:16:42.037497 31396 net.cpp:141] Setting up inception_4b/output
I0403 15:16:42.037524 31396 net.cpp:148] Top shape: 24 512 14 14 (2408448)
I0403 15:16:42.037541 31396 net.cpp:156] Memory required for data: 989857056
I0403 15:16:42.037571 31396 layer_factory.hpp:77] Creating layer inception_4b/output_inception_4b/output_0_split
I0403 15:16:42.037590 31396 net.cpp:91] Creating Layer inception_4b/output_inception_4b/output_0_split
I0403 15:16:42.037606 31396 net.cpp:425] inception_4b/output_inception_4b/output_0_split <- inception_4b/output
I0403 15:16:42.037626 31396 net.cpp:399] inception_4b/output_inception_4b/output_0_split -> inception_4b/output_inception_4b/output_0_split_0
I0403 15:16:42.037649 31396 net.cpp:399] inception_4b/output_inception_4b/output_0_split -> inception_4b/output_inception_4b/output_0_split_1
I0403 15:16:42.037669 31396 net.cpp:399] inception_4b/output_inception_4b/output_0_split -> inception_4b/output_inception_4b/output_0_split_2
I0403 15:16:42.037691 31396 net.cpp:399] inception_4b/output_inception_4b/output_0_split -> inception_4b/output_inception_4b/output_0_split_3
I0403 15:16:42.037772 31396 net.cpp:141] Setting up inception_4b/output_inception_4b/output_0_split
I0403 15:16:42.037799 31396 net.cpp:148] Top shape: 24 512 14 14 (2408448)
I0403 15:16:42.037817 31396 net.cpp:148] Top shape: 24 512 14 14 (2408448)
I0403 15:16:42.037832 31396 net.cpp:148] Top shape: 24 512 14 14 (2408448)
I0403 15:16:42.037848 31396 net.cpp:148] Top shape: 24 512 14 14 (2408448)
I0403 15:16:42.037863 31396 net.cpp:156] Memory required for data: 1028392224
I0403 15:16:42.037878 31396 layer_factory.hpp:77] Creating layer inception_4c/1x1
I0403 15:16:42.037897 31396 net.cpp:91] Creating Layer inception_4c/1x1
I0403 15:16:42.037914 31396 net.cpp:425] inception_4c/1x1 <- inception_4b/output_inception_4b/output_0_split_0
I0403 15:16:42.037935 31396 net.cpp:399] inception_4c/1x1 -> inception_4c/1x1
I0403 15:16:42.039386 31396 net.cpp:141] Setting up inception_4c/1x1
I0403 15:16:42.039414 31396 net.cpp:148] Top shape: 24 128 14 14 (602112)
I0403 15:16:42.039429 31396 net.cpp:156] Memory required for data: 1030800672
I0403 15:16:42.039449 31396 layer_factory.hpp:77] Creating layer inception_4c/relu_1x1
I0403 15:16:42.039469 31396 net.cpp:91] Creating Layer inception_4c/relu_1x1
I0403 15:16:42.039486 31396 net.cpp:425] inception_4c/relu_1x1 <- inception_4c/1x1
I0403 15:16:42.039504 31396 net.cpp:386] inception_4c/relu_1x1 -> inception_4c/1x1 (in-place)
I0403 15:16:42.039690 31396 net.cpp:141] Setting up inception_4c/relu_1x1
I0403 15:16:42.039716 31396 net.cpp:148] Top shape: 24 128 14 14 (602112)
I0403 15:16:42.039731 31396 net.cpp:156] Memory required for data: 1033209120
I0403 15:16:42.039746 31396 layer_factory.hpp:77] Creating layer inception_4c/3x3_reduce
I0403 15:16:42.039769 31396 net.cpp:91] Creating Layer inception_4c/3x3_reduce
I0403 15:16:42.039788 31396 net.cpp:425] inception_4c/3x3_reduce <- inception_4b/output_inception_4b/output_0_split_1
I0403 15:16:42.039806 31396 net.cpp:399] inception_4c/3x3_reduce -> inception_4c/3x3_reduce
I0403 15:16:42.041755 31396 net.cpp:141] Setting up inception_4c/3x3_reduce
I0403 15:16:42.041786 31396 net.cpp:148] Top shape: 24 128 14 14 (602112)
I0403 15:16:42.041803 31396 net.cpp:156] Memory required for data: 1035617568
I0403 15:16:42.041822 31396 layer_factory.hpp:77] Creating layer inception_4c/relu_3x3_reduce
I0403 15:16:42.041841 31396 net.cpp:91] Creating Layer inception_4c/relu_3x3_reduce
I0403 15:16:42.041857 31396 net.cpp:425] inception_4c/relu_3x3_reduce <- inception_4c/3x3_reduce
I0403 15:16:42.041877 31396 net.cpp:386] inception_4c/relu_3x3_reduce -> inception_4c/3x3_reduce (in-place)
I0403 15:16:42.042171 31396 net.cpp:141] Setting up inception_4c/relu_3x3_reduce
I0403 15:16:42.042201 31396 net.cpp:148] Top shape: 24 128 14 14 (602112)
I0403 15:16:42.042217 31396 net.cpp:156] Memory required for data: 1038026016
I0403 15:16:42.042233 31396 layer_factory.hpp:77] Creating layer inception_4c/3x3
I0403 15:16:42.042256 31396 net.cpp:91] Creating Layer inception_4c/3x3
I0403 15:16:42.042274 31396 net.cpp:425] inception_4c/3x3 <- inception_4c/3x3_reduce
I0403 15:16:42.042294 31396 net.cpp:399] inception_4c/3x3 -> inception_4c/3x3
I0403 15:16:42.045912 31396 net.cpp:141] Setting up inception_4c/3x3
I0403 15:16:42.045956 31396 net.cpp:148] Top shape: 24 256 14 14 (1204224)
I0403 15:16:42.045974 31396 net.cpp:156] Memory required for data: 1042842912
I0403 15:16:42.046013 31396 layer_factory.hpp:77] Creating layer inception_4c/relu_3x3
I0403 15:16:42.046036 31396 net.cpp:91] Creating Layer inception_4c/relu_3x3
I0403 15:16:42.046052 31396 net.cpp:425] inception_4c/relu_3x3 <- inception_4c/3x3
I0403 15:16:42.046072 31396 net.cpp:386] inception_4c/relu_3x3 -> inception_4c/3x3 (in-place)
I0403 15:16:42.046260 31396 net.cpp:141] Setting up inception_4c/relu_3x3
I0403 15:16:42.046291 31396 net.cpp:148] Top shape: 24 256 14 14 (1204224)
I0403 15:16:42.046308 31396 net.cpp:156] Memory required for data: 1047659808
I0403 15:16:42.046327 31396 layer_factory.hpp:77] Creating layer inception_4c/5x5_reduce
I0403 15:16:42.046352 31396 net.cpp:91] Creating Layer inception_4c/5x5_reduce
I0403 15:16:42.046371 31396 net.cpp:425] inception_4c/5x5_reduce <- inception_4b/output_inception_4b/output_0_split_2
I0403 15:16:42.046391 31396 net.cpp:399] inception_4c/5x5_reduce -> inception_4c/5x5_reduce
I0403 15:16:42.047489 31396 net.cpp:141] Setting up inception_4c/5x5_reduce
I0403 15:16:42.047523 31396 net.cpp:148] Top shape: 24 24 14 14 (112896)
I0403 15:16:42.047539 31396 net.cpp:156] Memory required for data: 1048111392
I0403 15:16:42.047559 31396 layer_factory.hpp:77] Creating layer inception_4c/relu_5x5_reduce
I0403 15:16:42.047580 31396 net.cpp:91] Creating Layer inception_4c/relu_5x5_reduce
I0403 15:16:42.047596 31396 net.cpp:425] inception_4c/relu_5x5_reduce <- inception_4c/5x5_reduce
I0403 15:16:42.047616 31396 net.cpp:386] inception_4c/relu_5x5_reduce -> inception_4c/5x5_reduce (in-place)
I0403 15:16:42.047803 31396 net.cpp:141] Setting up inception_4c/relu_5x5_reduce
I0403 15:16:42.047837 31396 net.cpp:148] Top shape: 24 24 14 14 (112896)
I0403 15:16:42.047852 31396 net.cpp:156] Memory required for data: 1048562976
I0403 15:16:42.047866 31396 layer_factory.hpp:77] Creating layer inception_4c/5x5
I0403 15:16:42.047888 31396 net.cpp:91] Creating Layer inception_4c/5x5
I0403 15:16:42.047907 31396 net.cpp:425] inception_4c/5x5 <- inception_4c/5x5_reduce
I0403 15:16:42.047930 31396 net.cpp:399] inception_4c/5x5 -> inception_4c/5x5
I0403 15:16:42.049192 31396 net.cpp:141] Setting up inception_4c/5x5
I0403 15:16:42.049221 31396 net.cpp:148] Top shape: 24 64 14 14 (301056)
I0403 15:16:42.049237 31396 net.cpp:156] Memory required for data: 1049767200
I0403 15:16:42.049254 31396 layer_factory.hpp:77] Creating layer inception_4c/relu_5x5
I0403 15:16:42.049276 31396 net.cpp:91] Creating Layer inception_4c/relu_5x5
I0403 15:16:42.049295 31396 net.cpp:425] inception_4c/relu_5x5 <- inception_4c/5x5
I0403 15:16:42.049314 31396 net.cpp:386] inception_4c/relu_5x5 -> inception_4c/5x5 (in-place)
I0403 15:16:42.049610 31396 net.cpp:141] Setting up inception_4c/relu_5x5
I0403 15:16:42.049638 31396 net.cpp:148] Top shape: 24 64 14 14 (301056)
I0403 15:16:42.049654 31396 net.cpp:156] Memory required for data: 1050971424
I0403 15:16:42.049669 31396 layer_factory.hpp:77] Creating layer inception_4c/pool
I0403 15:16:42.049686 31396 net.cpp:91] Creating Layer inception_4c/pool
I0403 15:16:42.049706 31396 net.cpp:425] inception_4c/pool <- inception_4b/output_inception_4b/output_0_split_3
I0403 15:16:42.049726 31396 net.cpp:399] inception_4c/pool -> inception_4c/pool
I0403 15:16:42.049794 31396 net.cpp:141] Setting up inception_4c/pool
I0403 15:16:42.049818 31396 net.cpp:148] Top shape: 24 512 14 14 (2408448)
I0403 15:16:42.049834 31396 net.cpp:156] Memory required for data: 1060605216
I0403 15:16:42.049849 31396 layer_factory.hpp:77] Creating layer inception_4c/pool_proj
I0403 15:16:42.049870 31396 net.cpp:91] Creating Layer inception_4c/pool_proj
I0403 15:16:42.049888 31396 net.cpp:425] inception_4c/pool_proj <- inception_4c/pool
I0403 15:16:42.049909 31396 net.cpp:399] inception_4c/pool_proj -> inception_4c/pool_proj
I0403 15:16:42.051147 31396 net.cpp:141] Setting up inception_4c/pool_proj
I0403 15:16:42.051179 31396 net.cpp:148] Top shape: 24 64 14 14 (301056)
I0403 15:16:42.051209 31396 net.cpp:156] Memory required for data: 1061809440
I0403 15:16:42.051229 31396 layer_factory.hpp:77] Creating layer inception_4c/relu_pool_proj
I0403 15:16:42.051249 31396 net.cpp:91] Creating Layer inception_4c/relu_pool_proj
I0403 15:16:42.051265 31396 net.cpp:425] inception_4c/relu_pool_proj <- inception_4c/pool_proj
I0403 15:16:42.051285 31396 net.cpp:386] inception_4c/relu_pool_proj -> inception_4c/pool_proj (in-place)
I0403 15:16:42.051481 31396 net.cpp:141] Setting up inception_4c/relu_pool_proj
I0403 15:16:42.051507 31396 net.cpp:148] Top shape: 24 64 14 14 (301056)
I0403 15:16:42.051522 31396 net.cpp:156] Memory required for data: 1063013664
I0403 15:16:42.051537 31396 layer_factory.hpp:77] Creating layer inception_4c/output
I0403 15:16:42.051555 31396 net.cpp:91] Creating Layer inception_4c/output
I0403 15:16:42.051573 31396 net.cpp:425] inception_4c/output <- inception_4c/1x1
I0403 15:16:42.051592 31396 net.cpp:425] inception_4c/output <- inception_4c/3x3
I0403 15:16:42.051609 31396 net.cpp:425] inception_4c/output <- inception_4c/5x5
I0403 15:16:42.051625 31396 net.cpp:425] inception_4c/output <- inception_4c/pool_proj
I0403 15:16:42.051645 31396 net.cpp:399] inception_4c/output -> inception_4c/output
I0403 15:16:42.051693 31396 net.cpp:141] Setting up inception_4c/output
I0403 15:16:42.051720 31396 net.cpp:148] Top shape: 24 512 14 14 (2408448)
I0403 15:16:42.051735 31396 net.cpp:156] Memory required for data: 1072647456
I0403 15:16:42.051749 31396 layer_factory.hpp:77] Creating layer inception_4c/output_inception_4c/output_0_split
I0403 15:16:42.051767 31396 net.cpp:91] Creating Layer inception_4c/output_inception_4c/output_0_split
I0403 15:16:42.051782 31396 net.cpp:425] inception_4c/output_inception_4c/output_0_split <- inception_4c/output
I0403 15:16:42.051802 31396 net.cpp:399] inception_4c/output_inception_4c/output_0_split -> inception_4c/output_inception_4c/output_0_split_0
I0403 15:16:42.051825 31396 net.cpp:399] inception_4c/output_inception_4c/output_0_split -> inception_4c/output_inception_4c/output_0_split_1
I0403 15:16:42.051846 31396 net.cpp:399] inception_4c/output_inception_4c/output_0_split -> inception_4c/output_inception_4c/output_0_split_2
I0403 15:16:42.051865 31396 net.cpp:399] inception_4c/output_inception_4c/output_0_split -> inception_4c/output_inception_4c/output_0_split_3
I0403 15:16:42.051950 31396 net.cpp:141] Setting up inception_4c/output_inception_4c/output_0_split
I0403 15:16:42.051975 31396 net.cpp:148] Top shape: 24 512 14 14 (2408448)
I0403 15:16:42.051995 31396 net.cpp:148] Top shape: 24 512 14 14 (2408448)
I0403 15:16:42.052011 31396 net.cpp:148] Top shape: 24 512 14 14 (2408448)
I0403 15:16:42.052026 31396 net.cpp:148] Top shape: 24 512 14 14 (2408448)
I0403 15:16:42.052040 31396 net.cpp:156] Memory required for data: 1111182624
I0403 15:16:42.052054 31396 layer_factory.hpp:77] Creating layer inception_4d/1x1
I0403 15:16:42.052075 31396 net.cpp:91] Creating Layer inception_4d/1x1
I0403 15:16:42.052093 31396 net.cpp:425] inception_4d/1x1 <- inception_4c/output_inception_4c/output_0_split_0
I0403 15:16:42.052115 31396 net.cpp:399] inception_4d/1x1 -> inception_4d/1x1
I0403 15:16:42.053545 31396 net.cpp:141] Setting up inception_4d/1x1
I0403 15:16:42.053575 31396 net.cpp:148] Top shape: 24 112 14 14 (526848)
I0403 15:16:42.053592 31396 net.cpp:156] Memory required for data: 1113290016
I0403 15:16:42.053611 31396 layer_factory.hpp:77] Creating layer inception_4d/relu_1x1
I0403 15:16:42.053632 31396 net.cpp:91] Creating Layer inception_4d/relu_1x1
I0403 15:16:42.053649 31396 net.cpp:425] inception_4d/relu_1x1 <- inception_4d/1x1
I0403 15:16:42.053668 31396 net.cpp:386] inception_4d/relu_1x1 -> inception_4d/1x1 (in-place)
I0403 15:16:42.053855 31396 net.cpp:141] Setting up inception_4d/relu_1x1
I0403 15:16:42.053881 31396 net.cpp:148] Top shape: 24 112 14 14 (526848)
I0403 15:16:42.053897 31396 net.cpp:156] Memory required for data: 1115397408
I0403 15:16:42.053912 31396 layer_factory.hpp:77] Creating layer inception_4d/3x3_reduce
I0403 15:16:42.053951 31396 net.cpp:91] Creating Layer inception_4d/3x3_reduce
I0403 15:16:42.053972 31396 net.cpp:425] inception_4d/3x3_reduce <- inception_4c/output_inception_4c/output_0_split_1
I0403 15:16:42.053990 31396 net.cpp:399] inception_4d/3x3_reduce -> inception_4d/3x3_reduce
I0403 15:16:42.055562 31396 net.cpp:141] Setting up inception_4d/3x3_reduce
I0403 15:16:42.055593 31396 net.cpp:148] Top shape: 24 144 14 14 (677376)
I0403 15:16:42.055608 31396 net.cpp:156] Memory required for data: 1118106912
I0403 15:16:42.055627 31396 layer_factory.hpp:77] Creating layer inception_4d/relu_3x3_reduce
I0403 15:16:42.055649 31396 net.cpp:91] Creating Layer inception_4d/relu_3x3_reduce
I0403 15:16:42.055667 31396 net.cpp:425] inception_4d/relu_3x3_reduce <- inception_4d/3x3_reduce
I0403 15:16:42.055685 31396 net.cpp:386] inception_4d/relu_3x3_reduce -> inception_4d/3x3_reduce (in-place)
I0403 15:16:42.055976 31396 net.cpp:141] Setting up inception_4d/relu_3x3_reduce
I0403 15:16:42.056004 31396 net.cpp:148] Top shape: 24 144 14 14 (677376)
I0403 15:16:42.056018 31396 net.cpp:156] Memory required for data: 1120816416
I0403 15:16:42.056035 31396 layer_factory.hpp:77] Creating layer inception_4d/3x3
I0403 15:16:42.056057 31396 net.cpp:91] Creating Layer inception_4d/3x3
I0403 15:16:42.056076 31396 net.cpp:425] inception_4d/3x3 <- inception_4d/3x3_reduce
I0403 15:16:42.056097 31396 net.cpp:399] inception_4d/3x3 -> inception_4d/3x3
I0403 15:16:42.060365 31396 net.cpp:141] Setting up inception_4d/3x3
I0403 15:16:42.060395 31396 net.cpp:148] Top shape: 24 288 14 14 (1354752)
I0403 15:16:42.060411 31396 net.cpp:156] Memory required for data: 1126235424
I0403 15:16:42.060431 31396 layer_factory.hpp:77] Creating layer inception_4d/relu_3x3
I0403 15:16:42.060451 31396 net.cpp:91] Creating Layer inception_4d/relu_3x3
I0403 15:16:42.060469 31396 net.cpp:425] inception_4d/relu_3x3 <- inception_4d/3x3
I0403 15:16:42.060487 31396 net.cpp:386] inception_4d/relu_3x3 -> inception_4d/3x3 (in-place)
I0403 15:16:42.060677 31396 net.cpp:141] Setting up inception_4d/relu_3x3
I0403 15:16:42.060701 31396 net.cpp:148] Top shape: 24 288 14 14 (1354752)
I0403 15:16:42.060716 31396 net.cpp:156] Memory required for data: 1131654432
I0403 15:16:42.060732 31396 layer_factory.hpp:77] Creating layer inception_4d/5x5_reduce
I0403 15:16:42.060755 31396 net.cpp:91] Creating Layer inception_4d/5x5_reduce
I0403 15:16:42.060772 31396 net.cpp:425] inception_4d/5x5_reduce <- inception_4c/output_inception_4c/output_0_split_2
I0403 15:16:42.060793 31396 net.cpp:399] inception_4d/5x5_reduce -> inception_4d/5x5_reduce
I0403 15:16:42.061957 31396 net.cpp:141] Setting up inception_4d/5x5_reduce
I0403 15:16:42.061986 31396 net.cpp:148] Top shape: 24 32 14 14 (150528)
I0403 15:16:42.062006 31396 net.cpp:156] Memory required for data: 1132256544
I0403 15:16:42.062026 31396 layer_factory.hpp:77] Creating layer inception_4d/relu_5x5_reduce
I0403 15:16:42.062044 31396 net.cpp:91] Creating Layer inception_4d/relu_5x5_reduce
I0403 15:16:42.062062 31396 net.cpp:425] inception_4d/relu_5x5_reduce <- inception_4d/5x5_reduce
I0403 15:16:42.062078 31396 net.cpp:386] inception_4d/relu_5x5_reduce -> inception_4d/5x5_reduce (in-place)
I0403 15:16:42.062273 31396 net.cpp:141] Setting up inception_4d/relu_5x5_reduce
I0403 15:16:42.062300 31396 net.cpp:148] Top shape: 24 32 14 14 (150528)
I0403 15:16:42.062320 31396 net.cpp:156] Memory required for data: 1132858656
I0403 15:16:42.062335 31396 layer_factory.hpp:77] Creating layer inception_4d/5x5
I0403 15:16:42.062358 31396 net.cpp:91] Creating Layer inception_4d/5x5
I0403 15:16:42.062376 31396 net.cpp:425] inception_4d/5x5 <- inception_4d/5x5_reduce
I0403 15:16:42.062397 31396 net.cpp:399] inception_4d/5x5 -> inception_4d/5x5
I0403 15:16:42.063879 31396 net.cpp:141] Setting up inception_4d/5x5
I0403 15:16:42.063906 31396 net.cpp:148] Top shape: 24 64 14 14 (301056)
I0403 15:16:42.063922 31396 net.cpp:156] Memory required for data: 1134062880
I0403 15:16:42.063941 31396 layer_factory.hpp:77] Creating layer inception_4d/relu_5x5
I0403 15:16:42.063976 31396 net.cpp:91] Creating Layer inception_4d/relu_5x5
I0403 15:16:42.063992 31396 net.cpp:425] inception_4d/relu_5x5 <- inception_4d/5x5
I0403 15:16:42.064013 31396 net.cpp:386] inception_4d/relu_5x5 -> inception_4d/5x5 (in-place)
I0403 15:16:42.064327 31396 net.cpp:141] Setting up inception_4d/relu_5x5
I0403 15:16:42.064354 31396 net.cpp:148] Top shape: 24 64 14 14 (301056)
I0403 15:16:42.064370 31396 net.cpp:156] Memory required for data: 1135267104
I0403 15:16:42.064385 31396 layer_factory.hpp:77] Creating layer inception_4d/pool
I0403 15:16:42.064404 31396 net.cpp:91] Creating Layer inception_4d/pool
I0403 15:16:42.064421 31396 net.cpp:425] inception_4d/pool <- inception_4c/output_inception_4c/output_0_split_3
I0403 15:16:42.064442 31396 net.cpp:399] inception_4d/pool -> inception_4d/pool
I0403 15:16:42.064508 31396 net.cpp:141] Setting up inception_4d/pool
I0403 15:16:42.064535 31396 net.cpp:148] Top shape: 24 512 14 14 (2408448)
I0403 15:16:42.064550 31396 net.cpp:156] Memory required for data: 1144900896
I0403 15:16:42.064565 31396 layer_factory.hpp:77] Creating layer inception_4d/pool_proj
I0403 15:16:42.064589 31396 net.cpp:91] Creating Layer inception_4d/pool_proj
I0403 15:16:42.064606 31396 net.cpp:425] inception_4d/pool_proj <- inception_4d/pool
I0403 15:16:42.064625 31396 net.cpp:399] inception_4d/pool_proj -> inception_4d/pool_proj
I0403 15:16:42.066464 31396 net.cpp:141] Setting up inception_4d/pool_proj
I0403 15:16:42.066495 31396 net.cpp:148] Top shape: 24 64 14 14 (301056)
I0403 15:16:42.066512 31396 net.cpp:156] Memory required for data: 1146105120
I0403 15:16:42.066532 31396 layer_factory.hpp:77] Creating layer inception_4d/relu_pool_proj
I0403 15:16:42.066555 31396 net.cpp:91] Creating Layer inception_4d/relu_pool_proj
I0403 15:16:42.066573 31396 net.cpp:425] inception_4d/relu_pool_proj <- inception_4d/pool_proj
I0403 15:16:42.066606 31396 net.cpp:386] inception_4d/relu_pool_proj -> inception_4d/pool_proj (in-place)
I0403 15:16:42.066797 31396 net.cpp:141] Setting up inception_4d/relu_pool_proj
I0403 15:16:42.066824 31396 net.cpp:148] Top shape: 24 64 14 14 (301056)
I0403 15:16:42.066840 31396 net.cpp:156] Memory required for data: 1147309344
I0403 15:16:42.066856 31396 layer_factory.hpp:77] Creating layer inception_4d/output
I0403 15:16:42.066874 31396 net.cpp:91] Creating Layer inception_4d/output
I0403 15:16:42.066890 31396 net.cpp:425] inception_4d/output <- inception_4d/1x1
I0403 15:16:42.066906 31396 net.cpp:425] inception_4d/output <- inception_4d/3x3
I0403 15:16:42.066923 31396 net.cpp:425] inception_4d/output <- inception_4d/5x5
I0403 15:16:42.066939 31396 net.cpp:425] inception_4d/output <- inception_4d/pool_proj
I0403 15:16:42.066961 31396 net.cpp:399] inception_4d/output -> inception_4d/output
I0403 15:16:42.067011 31396 net.cpp:141] Setting up inception_4d/output
I0403 15:16:42.067046 31396 net.cpp:148] Top shape: 24 528 14 14 (2483712)
I0403 15:16:42.067065 31396 net.cpp:156] Memory required for data: 1157244192
I0403 15:16:42.067081 31396 layer_factory.hpp:77] Creating layer inception_4d/output_inception_4d/output_0_split
I0403 15:16:42.067100 31396 net.cpp:91] Creating Layer inception_4d/output_inception_4d/output_0_split
I0403 15:16:42.067116 31396 net.cpp:425] inception_4d/output_inception_4d/output_0_split <- inception_4d/output
I0403 15:16:42.067133 31396 net.cpp:399] inception_4d/output_inception_4d/output_0_split -> inception_4d/output_inception_4d/output_0_split_0
I0403 15:16:42.067154 31396 net.cpp:399] inception_4d/output_inception_4d/output_0_split -> inception_4d/output_inception_4d/output_0_split_1
I0403 15:16:42.067178 31396 net.cpp:399] inception_4d/output_inception_4d/output_0_split -> inception_4d/output_inception_4d/output_0_split_2
I0403 15:16:42.067200 31396 net.cpp:399] inception_4d/output_inception_4d/output_0_split -> inception_4d/output_inception_4d/output_0_split_3
I0403 15:16:42.067222 31396 net.cpp:399] inception_4d/output_inception_4d/output_0_split -> inception_4d/output_inception_4d/output_0_split_4
I0403 15:16:42.067343 31396 net.cpp:141] Setting up inception_4d/output_inception_4d/output_0_split
I0403 15:16:42.067381 31396 net.cpp:148] Top shape: 24 528 14 14 (2483712)
I0403 15:16:42.067399 31396 net.cpp:148] Top shape: 24 528 14 14 (2483712)
I0403 15:16:42.067415 31396 net.cpp:148] Top shape: 24 528 14 14 (2483712)
I0403 15:16:42.067430 31396 net.cpp:148] Top shape: 24 528 14 14 (2483712)
I0403 15:16:42.067446 31396 net.cpp:148] Top shape: 24 528 14 14 (2483712)
I0403 15:16:42.067461 31396 net.cpp:156] Memory required for data: 1206918432
I0403 15:16:42.067477 31396 layer_factory.hpp:77] Creating layer loss2/ave_pool
I0403 15:16:42.067498 31396 net.cpp:91] Creating Layer loss2/ave_pool
I0403 15:16:42.067517 31396 net.cpp:425] loss2/ave_pool <- inception_4d/output_inception_4d/output_0_split_0
I0403 15:16:42.067534 31396 net.cpp:399] loss2/ave_pool -> loss2/ave_pool
I0403 15:16:42.067867 31396 net.cpp:141] Setting up loss2/ave_pool
I0403 15:16:42.067893 31396 net.cpp:148] Top shape: 24 528 4 4 (202752)
I0403 15:16:42.067910 31396 net.cpp:156] Memory required for data: 1207729440
I0403 15:16:42.067926 31396 layer_factory.hpp:77] Creating layer loss2/conv
I0403 15:16:42.067952 31396 net.cpp:91] Creating Layer loss2/conv
I0403 15:16:42.067970 31396 net.cpp:425] loss2/conv <- loss2/ave_pool
I0403 15:16:42.067991 31396 net.cpp:399] loss2/conv -> loss2/conv
I0403 15:16:42.069949 31396 net.cpp:141] Setting up loss2/conv
I0403 15:16:42.069979 31396 net.cpp:148] Top shape: 24 128 4 4 (49152)
I0403 15:16:42.069995 31396 net.cpp:156] Memory required for data: 1207926048
I0403 15:16:42.070015 31396 layer_factory.hpp:77] Creating layer loss2/relu_conv
I0403 15:16:42.070034 31396 net.cpp:91] Creating Layer loss2/relu_conv
I0403 15:16:42.070052 31396 net.cpp:425] loss2/relu_conv <- loss2/conv
I0403 15:16:42.070072 31396 net.cpp:386] loss2/relu_conv -> loss2/conv (in-place)
I0403 15:16:42.070376 31396 net.cpp:141] Setting up loss2/relu_conv
I0403 15:16:42.070405 31396 net.cpp:148] Top shape: 24 128 4 4 (49152)
I0403 15:16:42.070420 31396 net.cpp:156] Memory required for data: 1208122656
I0403 15:16:42.070436 31396 layer_factory.hpp:77] Creating layer loss2/fc
I0403 15:16:42.070456 31396 net.cpp:91] Creating Layer loss2/fc
I0403 15:16:42.070472 31396 net.cpp:425] loss2/fc <- loss2/conv
I0403 15:16:42.070493 31396 net.cpp:399] loss2/fc -> loss2/fc
I0403 15:16:42.088718 31396 net.cpp:141] Setting up loss2/fc
I0403 15:16:42.088774 31396 net.cpp:148] Top shape: 24 1024 (24576)
I0403 15:16:42.088790 31396 net.cpp:156] Memory required for data: 1208220960
I0403 15:16:42.088812 31396 layer_factory.hpp:77] Creating layer loss2/relu_fc
I0403 15:16:42.088834 31396 net.cpp:91] Creating Layer loss2/relu_fc
I0403 15:16:42.088852 31396 net.cpp:425] loss2/relu_fc <- loss2/fc
I0403 15:16:42.088871 31396 net.cpp:386] loss2/relu_fc -> loss2/fc (in-place)
I0403 15:16:42.089224 31396 net.cpp:141] Setting up loss2/relu_fc
I0403 15:16:42.089254 31396 net.cpp:148] Top shape: 24 1024 (24576)
I0403 15:16:42.089272 31396 net.cpp:156] Memory required for data: 1208319264
I0403 15:16:42.089288 31396 layer_factory.hpp:77] Creating layer loss2/drop_fc
I0403 15:16:42.089308 31396 net.cpp:91] Creating Layer loss2/drop_fc
I0403 15:16:42.089329 31396 net.cpp:425] loss2/drop_fc <- loss2/fc
I0403 15:16:42.089349 31396 net.cpp:386] loss2/drop_fc -> loss2/fc (in-place)
I0403 15:16:42.089401 31396 net.cpp:141] Setting up loss2/drop_fc
I0403 15:16:42.089426 31396 net.cpp:148] Top shape: 24 1024 (24576)
I0403 15:16:42.089442 31396 net.cpp:156] Memory required for data: 1208417568
I0403 15:16:42.089457 31396 layer_factory.hpp:77] Creating layer loss2/classifier_plantvillage
I0403 15:16:42.089480 31396 net.cpp:91] Creating Layer loss2/classifier_plantvillage
I0403 15:16:42.089498 31396 net.cpp:425] loss2/classifier_plantvillage <- loss2/fc
I0403 15:16:42.089517 31396 net.cpp:399] loss2/classifier_plantvillage -> loss2/classifier_plantvillage
I0403 15:16:42.089942 31396 net.cpp:141] Setting up loss2/classifier_plantvillage
I0403 15:16:42.089968 31396 net.cpp:148] Top shape: 24 38 (912)
I0403 15:16:42.089984 31396 net.cpp:156] Memory required for data: 1208421216
I0403 15:16:42.090031 31396 layer_factory.hpp:77] Creating layer loss2/classifier_plantvillage_loss2/classifier_plantvillage_0_split
I0403 15:16:42.090051 31396 net.cpp:91] Creating Layer loss2/classifier_plantvillage_loss2/classifier_plantvillage_0_split
I0403 15:16:42.090068 31396 net.cpp:425] loss2/classifier_plantvillage_loss2/classifier_plantvillage_0_split <- loss2/classifier_plantvillage
I0403 15:16:42.090088 31396 net.cpp:399] loss2/classifier_plantvillage_loss2/classifier_plantvillage_0_split -> loss2/classifier_plantvillage_loss2/classifier_plantvillage_0_split_0
I0403 15:16:42.090111 31396 net.cpp:399] loss2/classifier_plantvillage_loss2/classifier_plantvillage_0_split -> loss2/classifier_plantvillage_loss2/classifier_plantvillage_0_split_1
I0403 15:16:42.090132 31396 net.cpp:399] loss2/classifier_plantvillage_loss2/classifier_plantvillage_0_split -> loss2/classifier_plantvillage_loss2/classifier_plantvillage_0_split_2
I0403 15:16:42.090214 31396 net.cpp:141] Setting up loss2/classifier_plantvillage_loss2/classifier_plantvillage_0_split
I0403 15:16:42.090240 31396 net.cpp:148] Top shape: 24 38 (912)
I0403 15:16:42.090256 31396 net.cpp:148] Top shape: 24 38 (912)
I0403 15:16:42.090271 31396 net.cpp:148] Top shape: 24 38 (912)
I0403 15:16:42.090287 31396 net.cpp:156] Memory required for data: 1208432160
I0403 15:16:42.090306 31396 layer_factory.hpp:77] Creating layer inception_4e/1x1
I0403 15:16:42.090335 31396 net.cpp:91] Creating Layer inception_4e/1x1
I0403 15:16:42.090356 31396 net.cpp:425] inception_4e/1x1 <- inception_4d/output_inception_4d/output_0_split_1
I0403 15:16:42.090376 31396 net.cpp:399] inception_4e/1x1 -> inception_4e/1x1
I0403 15:16:42.092304 31396 net.cpp:141] Setting up inception_4e/1x1
I0403 15:16:42.092337 31396 net.cpp:148] Top shape: 24 256 14 14 (1204224)
I0403 15:16:42.092355 31396 net.cpp:156] Memory required for data: 1213249056
I0403 15:16:42.092373 31396 layer_factory.hpp:77] Creating layer inception_4e/relu_1x1
I0403 15:16:42.092394 31396 net.cpp:91] Creating Layer inception_4e/relu_1x1
I0403 15:16:42.092412 31396 net.cpp:425] inception_4e/relu_1x1 <- inception_4e/1x1
I0403 15:16:42.092430 31396 net.cpp:386] inception_4e/relu_1x1 -> inception_4e/1x1 (in-place)
I0403 15:16:42.092741 31396 net.cpp:141] Setting up inception_4e/relu_1x1
I0403 15:16:42.092768 31396 net.cpp:148] Top shape: 24 256 14 14 (1204224)
I0403 15:16:42.092784 31396 net.cpp:156] Memory required for data: 1218065952
I0403 15:16:42.092800 31396 layer_factory.hpp:77] Creating layer inception_4e/3x3_reduce
I0403 15:16:42.092823 31396 net.cpp:91] Creating Layer inception_4e/3x3_reduce
I0403 15:16:42.092841 31396 net.cpp:425] inception_4e/3x3_reduce <- inception_4d/output_inception_4d/output_0_split_2
I0403 15:16:42.092864 31396 net.cpp:399] inception_4e/3x3_reduce -> inception_4e/3x3_reduce
I0403 15:16:42.095098 31396 net.cpp:141] Setting up inception_4e/3x3_reduce
I0403 15:16:42.095129 31396 net.cpp:148] Top shape: 24 160 14 14 (752640)
I0403 15:16:42.095145 31396 net.cpp:156] Memory required for data: 1221076512
I0403 15:16:42.095165 31396 layer_factory.hpp:77] Creating layer inception_4e/relu_3x3_reduce
I0403 15:16:42.095185 31396 net.cpp:91] Creating Layer inception_4e/relu_3x3_reduce
I0403 15:16:42.095201 31396 net.cpp:425] inception_4e/relu_3x3_reduce <- inception_4e/3x3_reduce
I0403 15:16:42.095221 31396 net.cpp:386] inception_4e/relu_3x3_reduce -> inception_4e/3x3_reduce (in-place)
I0403 15:16:42.095420 31396 net.cpp:141] Setting up inception_4e/relu_3x3_reduce
I0403 15:16:42.095448 31396 net.cpp:148] Top shape: 24 160 14 14 (752640)
I0403 15:16:42.095463 31396 net.cpp:156] Memory required for data: 1224087072
I0403 15:16:42.095479 31396 layer_factory.hpp:77] Creating layer inception_4e/3x3
I0403 15:16:42.095502 31396 net.cpp:91] Creating Layer inception_4e/3x3
I0403 15:16:42.095520 31396 net.cpp:425] inception_4e/3x3 <- inception_4e/3x3_reduce
I0403 15:16:42.095543 31396 net.cpp:399] inception_4e/3x3 -> inception_4e/3x3
I0403 15:16:42.100750 31396 net.cpp:141] Setting up inception_4e/3x3
I0403 15:16:42.100795 31396 net.cpp:148] Top shape: 24 320 14 14 (1505280)
I0403 15:16:42.100812 31396 net.cpp:156] Memory required for data: 1230108192
I0403 15:16:42.100844 31396 layer_factory.hpp:77] Creating layer inception_4e/relu_3x3
I0403 15:16:42.100865 31396 net.cpp:91] Creating Layer inception_4e/relu_3x3
I0403 15:16:42.100895 31396 net.cpp:425] inception_4e/relu_3x3 <- inception_4e/3x3
I0403 15:16:42.100914 31396 net.cpp:386] inception_4e/relu_3x3 -> inception_4e/3x3 (in-place)
I0403 15:16:42.101223 31396 net.cpp:141] Setting up inception_4e/relu_3x3
I0403 15:16:42.101251 31396 net.cpp:148] Top shape: 24 320 14 14 (1505280)
I0403 15:16:42.101268 31396 net.cpp:156] Memory required for data: 1236129312
I0403 15:16:42.101285 31396 layer_factory.hpp:77] Creating layer inception_4e/5x5_reduce
I0403 15:16:42.101308 31396 net.cpp:91] Creating Layer inception_4e/5x5_reduce
I0403 15:16:42.101331 31396 net.cpp:425] inception_4e/5x5_reduce <- inception_4d/output_inception_4d/output_0_split_3
I0403 15:16:42.101356 31396 net.cpp:399] inception_4e/5x5_reduce -> inception_4e/5x5_reduce
I0403 15:16:42.102468 31396 net.cpp:141] Setting up inception_4e/5x5_reduce
I0403 15:16:42.102499 31396 net.cpp:148] Top shape: 24 32 14 14 (150528)
I0403 15:16:42.102515 31396 net.cpp:156] Memory required for data: 1236731424
I0403 15:16:42.102535 31396 layer_factory.hpp:77] Creating layer inception_4e/relu_5x5_reduce
I0403 15:16:42.102555 31396 net.cpp:91] Creating Layer inception_4e/relu_5x5_reduce
I0403 15:16:42.102571 31396 net.cpp:425] inception_4e/relu_5x5_reduce <- inception_4e/5x5_reduce
I0403 15:16:42.102591 31396 net.cpp:386] inception_4e/relu_5x5_reduce -> inception_4e/5x5_reduce (in-place)
I0403 15:16:42.102898 31396 net.cpp:141] Setting up inception_4e/relu_5x5_reduce
I0403 15:16:42.102926 31396 net.cpp:148] Top shape: 24 32 14 14 (150528)
I0403 15:16:42.102942 31396 net.cpp:156] Memory required for data: 1237333536
I0403 15:16:42.102958 31396 layer_factory.hpp:77] Creating layer inception_4e/5x5
I0403 15:16:42.103003 31396 net.cpp:91] Creating Layer inception_4e/5x5
I0403 15:16:42.103021 31396 net.cpp:425] inception_4e/5x5 <- inception_4e/5x5_reduce
I0403 15:16:42.103040 31396 net.cpp:399] inception_4e/5x5 -> inception_4e/5x5
I0403 15:16:42.104909 31396 net.cpp:141] Setting up inception_4e/5x5
I0403 15:16:42.104940 31396 net.cpp:148] Top shape: 24 128 14 14 (602112)
I0403 15:16:42.104959 31396 net.cpp:156] Memory required for data: 1239741984
I0403 15:16:42.104977 31396 layer_factory.hpp:77] Creating layer inception_4e/relu_5x5
I0403 15:16:42.104996 31396 net.cpp:91] Creating Layer inception_4e/relu_5x5
I0403 15:16:42.105015 31396 net.cpp:425] inception_4e/relu_5x5 <- inception_4e/5x5
I0403 15:16:42.105033 31396 net.cpp:386] inception_4e/relu_5x5 -> inception_4e/5x5 (in-place)
I0403 15:16:42.105233 31396 net.cpp:141] Setting up inception_4e/relu_5x5
I0403 15:16:42.105260 31396 net.cpp:148] Top shape: 24 128 14 14 (602112)
I0403 15:16:42.105275 31396 net.cpp:156] Memory required for data: 1242150432
I0403 15:16:42.105290 31396 layer_factory.hpp:77] Creating layer inception_4e/pool
I0403 15:16:42.105309 31396 net.cpp:91] Creating Layer inception_4e/pool
I0403 15:16:42.105330 31396 net.cpp:425] inception_4e/pool <- inception_4d/output_inception_4d/output_0_split_4
I0403 15:16:42.105352 31396 net.cpp:399] inception_4e/pool -> inception_4e/pool
I0403 15:16:42.105424 31396 net.cpp:141] Setting up inception_4e/pool
I0403 15:16:42.105449 31396 net.cpp:148] Top shape: 24 528 14 14 (2483712)
I0403 15:16:42.105464 31396 net.cpp:156] Memory required for data: 1252085280
I0403 15:16:42.105479 31396 layer_factory.hpp:77] Creating layer inception_4e/pool_proj
I0403 15:16:42.105504 31396 net.cpp:91] Creating Layer inception_4e/pool_proj
I0403 15:16:42.105522 31396 net.cpp:425] inception_4e/pool_proj <- inception_4e/pool
I0403 15:16:42.105541 31396 net.cpp:399] inception_4e/pool_proj -> inception_4e/pool_proj
I0403 15:16:42.107053 31396 net.cpp:141] Setting up inception_4e/pool_proj
I0403 15:16:42.107081 31396 net.cpp:148] Top shape: 24 128 14 14 (602112)
I0403 15:16:42.107111 31396 net.cpp:156] Memory required for data: 1254493728
I0403 15:16:42.107132 31396 layer_factory.hpp:77] Creating layer inception_4e/relu_pool_proj
I0403 15:16:42.107154 31396 net.cpp:91] Creating Layer inception_4e/relu_pool_proj
I0403 15:16:42.107172 31396 net.cpp:425] inception_4e/relu_pool_proj <- inception_4e/pool_proj
I0403 15:16:42.107188 31396 net.cpp:386] inception_4e/relu_pool_proj -> inception_4e/pool_proj (in-place)
I0403 15:16:42.107511 31396 net.cpp:141] Setting up inception_4e/relu_pool_proj
I0403 15:16:42.107552 31396 net.cpp:148] Top shape: 24 128 14 14 (602112)
I0403 15:16:42.107568 31396 net.cpp:156] Memory required for data: 1256902176
I0403 15:16:42.107584 31396 layer_factory.hpp:77] Creating layer inception_4e/output
I0403 15:16:42.107604 31396 net.cpp:91] Creating Layer inception_4e/output
I0403 15:16:42.107621 31396 net.cpp:425] inception_4e/output <- inception_4e/1x1
I0403 15:16:42.107638 31396 net.cpp:425] inception_4e/output <- inception_4e/3x3
I0403 15:16:42.107656 31396 net.cpp:425] inception_4e/output <- inception_4e/5x5
I0403 15:16:42.107672 31396 net.cpp:425] inception_4e/output <- inception_4e/pool_proj
I0403 15:16:42.107689 31396 net.cpp:399] inception_4e/output -> inception_4e/output
I0403 15:16:42.107743 31396 net.cpp:141] Setting up inception_4e/output
I0403 15:16:42.107769 31396 net.cpp:148] Top shape: 24 832 14 14 (3913728)
I0403 15:16:42.107784 31396 net.cpp:156] Memory required for data: 1272557088
I0403 15:16:42.107797 31396 layer_factory.hpp:77] Creating layer pool4/3x3_s2
I0403 15:16:42.107815 31396 net.cpp:91] Creating Layer pool4/3x3_s2
I0403 15:16:42.107831 31396 net.cpp:425] pool4/3x3_s2 <- inception_4e/output
I0403 15:16:42.107852 31396 net.cpp:399] pool4/3x3_s2 -> pool4/3x3_s2
I0403 15:16:42.107923 31396 net.cpp:141] Setting up pool4/3x3_s2
I0403 15:16:42.107947 31396 net.cpp:148] Top shape: 24 832 7 7 (978432)
I0403 15:16:42.107962 31396 net.cpp:156] Memory required for data: 1276470816
I0403 15:16:42.107977 31396 layer_factory.hpp:77] Creating layer pool4/3x3_s2_pool4/3x3_s2_0_split
I0403 15:16:42.107995 31396 net.cpp:91] Creating Layer pool4/3x3_s2_pool4/3x3_s2_0_split
I0403 15:16:42.108009 31396 net.cpp:425] pool4/3x3_s2_pool4/3x3_s2_0_split <- pool4/3x3_s2
I0403 15:16:42.108028 31396 net.cpp:399] pool4/3x3_s2_pool4/3x3_s2_0_split -> pool4/3x3_s2_pool4/3x3_s2_0_split_0
I0403 15:16:42.108049 31396 net.cpp:399] pool4/3x3_s2_pool4/3x3_s2_0_split -> pool4/3x3_s2_pool4/3x3_s2_0_split_1
I0403 15:16:42.108068 31396 net.cpp:399] pool4/3x3_s2_pool4/3x3_s2_0_split -> pool4/3x3_s2_pool4/3x3_s2_0_split_2
I0403 15:16:42.108090 31396 net.cpp:399] pool4/3x3_s2_pool4/3x3_s2_0_split -> pool4/3x3_s2_pool4/3x3_s2_0_split_3
I0403 15:16:42.108180 31396 net.cpp:141] Setting up pool4/3x3_s2_pool4/3x3_s2_0_split
I0403 15:16:42.108206 31396 net.cpp:148] Top shape: 24 832 7 7 (978432)
I0403 15:16:42.108224 31396 net.cpp:148] Top shape: 24 832 7 7 (978432)
I0403 15:16:42.108240 31396 net.cpp:148] Top shape: 24 832 7 7 (978432)
I0403 15:16:42.108255 31396 net.cpp:148] Top shape: 24 832 7 7 (978432)
I0403 15:16:42.108269 31396 net.cpp:156] Memory required for data: 1292125728
I0403 15:16:42.108285 31396 layer_factory.hpp:77] Creating layer inception_5a/1x1
I0403 15:16:42.108306 31396 net.cpp:91] Creating Layer inception_5a/1x1
I0403 15:16:42.108328 31396 net.cpp:425] inception_5a/1x1 <- pool4/3x3_s2_pool4/3x3_s2_0_split_0
I0403 15:16:42.108348 31396 net.cpp:399] inception_5a/1x1 -> inception_5a/1x1
I0403 15:16:42.111254 31396 net.cpp:141] Setting up inception_5a/1x1
I0403 15:16:42.111285 31396 net.cpp:148] Top shape: 24 256 7 7 (301056)
I0403 15:16:42.111301 31396 net.cpp:156] Memory required for data: 1293329952
I0403 15:16:42.111323 31396 layer_factory.hpp:77] Creating layer inception_5a/relu_1x1
I0403 15:16:42.111342 31396 net.cpp:91] Creating Layer inception_5a/relu_1x1
I0403 15:16:42.111358 31396 net.cpp:425] inception_5a/relu_1x1 <- inception_5a/1x1
I0403 15:16:42.111377 31396 net.cpp:386] inception_5a/relu_1x1 -> inception_5a/1x1 (in-place)
I0403 15:16:42.111691 31396 net.cpp:141] Setting up inception_5a/relu_1x1
I0403 15:16:42.111719 31396 net.cpp:148] Top shape: 24 256 7 7 (301056)
I0403 15:16:42.111734 31396 net.cpp:156] Memory required for data: 1294534176
I0403 15:16:42.111750 31396 layer_factory.hpp:77] Creating layer inception_5a/3x3_reduce
I0403 15:16:42.111771 31396 net.cpp:91] Creating Layer inception_5a/3x3_reduce
I0403 15:16:42.111789 31396 net.cpp:425] inception_5a/3x3_reduce <- pool4/3x3_s2_pool4/3x3_s2_0_split_1
I0403 15:16:42.111810 31396 net.cpp:399] inception_5a/3x3_reduce -> inception_5a/3x3_reduce
I0403 15:16:42.114219 31396 net.cpp:141] Setting up inception_5a/3x3_reduce
I0403 15:16:42.114264 31396 net.cpp:148] Top shape: 24 160 7 7 (188160)
I0403 15:16:42.114280 31396 net.cpp:156] Memory required for data: 1295286816
I0403 15:16:42.114300 31396 layer_factory.hpp:77] Creating layer inception_5a/relu_3x3_reduce
I0403 15:16:42.114332 31396 net.cpp:91] Creating Layer inception_5a/relu_3x3_reduce
I0403 15:16:42.114353 31396 net.cpp:425] inception_5a/relu_3x3_reduce <- inception_5a/3x3_reduce
I0403 15:16:42.114372 31396 net.cpp:386] inception_5a/relu_3x3_reduce -> inception_5a/3x3_reduce (in-place)
I0403 15:16:42.114575 31396 net.cpp:141] Setting up inception_5a/relu_3x3_reduce
I0403 15:16:42.114603 31396 net.cpp:148] Top shape: 24 160 7 7 (188160)
I0403 15:16:42.114617 31396 net.cpp:156] Memory required for data: 1296039456
I0403 15:16:42.114634 31396 layer_factory.hpp:77] Creating layer inception_5a/3x3
I0403 15:16:42.114655 31396 net.cpp:91] Creating Layer inception_5a/3x3
I0403 15:16:42.114675 31396 net.cpp:425] inception_5a/3x3 <- inception_5a/3x3_reduce
I0403 15:16:42.114693 31396 net.cpp:399] inception_5a/3x3 -> inception_5a/3x3
I0403 15:16:42.119634 31396 net.cpp:141] Setting up inception_5a/3x3
I0403 15:16:42.119665 31396 net.cpp:148] Top shape: 24 320 7 7 (376320)
I0403 15:16:42.119683 31396 net.cpp:156] Memory required for data: 1297544736
I0403 15:16:42.119701 31396 layer_factory.hpp:77] Creating layer inception_5a/relu_3x3
I0403 15:16:42.119719 31396 net.cpp:91] Creating Layer inception_5a/relu_3x3
I0403 15:16:42.119735 31396 net.cpp:425] inception_5a/relu_3x3 <- inception_5a/3x3
I0403 15:16:42.119755 31396 net.cpp:386] inception_5a/relu_3x3 -> inception_5a/3x3 (in-place)
I0403 15:16:42.120044 31396 net.cpp:141] Setting up inception_5a/relu_3x3
I0403 15:16:42.120072 31396 net.cpp:148] Top shape: 24 320 7 7 (376320)
I0403 15:16:42.120087 31396 net.cpp:156] Memory required for data: 1299050016
I0403 15:16:42.120102 31396 layer_factory.hpp:77] Creating layer inception_5a/5x5_reduce
I0403 15:16:42.120126 31396 net.cpp:91] Creating Layer inception_5a/5x5_reduce
I0403 15:16:42.120144 31396 net.cpp:425] inception_5a/5x5_reduce <- pool4/3x3_s2_pool4/3x3_s2_0_split_2
I0403 15:16:42.120163 31396 net.cpp:399] inception_5a/5x5_reduce -> inception_5a/5x5_reduce
I0403 15:16:42.121330 31396 net.cpp:141] Setting up inception_5a/5x5_reduce
I0403 15:16:42.121361 31396 net.cpp:148] Top shape: 24 32 7 7 (37632)
I0403 15:16:42.121379 31396 net.cpp:156] Memory required for data: 1299200544
I0403 15:16:42.121410 31396 layer_factory.hpp:77] Creating layer inception_5a/relu_5x5_reduce
I0403 15:16:42.121434 31396 net.cpp:91] Creating Layer inception_5a/relu_5x5_reduce
I0403 15:16:42.121449 31396 net.cpp:425] inception_5a/relu_5x5_reduce <- inception_5a/5x5_reduce
I0403 15:16:42.121469 31396 net.cpp:386] inception_5a/relu_5x5_reduce -> inception_5a/5x5_reduce (in-place)
I0403 15:16:42.121770 31396 net.cpp:141] Setting up inception_5a/relu_5x5_reduce
I0403 15:16:42.121796 31396 net.cpp:148] Top shape: 24 32 7 7 (37632)
I0403 15:16:42.121811 31396 net.cpp:156] Memory required for data: 1299351072
I0403 15:16:42.121825 31396 layer_factory.hpp:77] Creating layer inception_5a/5x5
I0403 15:16:42.121847 31396 net.cpp:91] Creating Layer inception_5a/5x5
I0403 15:16:42.121865 31396 net.cpp:425] inception_5a/5x5 <- inception_5a/5x5_reduce
I0403 15:16:42.121887 31396 net.cpp:399] inception_5a/5x5 -> inception_5a/5x5
I0403 15:16:42.123569 31396 net.cpp:141] Setting up inception_5a/5x5
I0403 15:16:42.123611 31396 net.cpp:148] Top shape: 24 128 7 7 (150528)
I0403 15:16:42.123628 31396 net.cpp:156] Memory required for data: 1299953184
I0403 15:16:42.123646 31396 layer_factory.hpp:77] Creating layer inception_5a/relu_5x5
I0403 15:16:42.123663 31396 net.cpp:91] Creating Layer inception_5a/relu_5x5
I0403 15:16:42.123679 31396 net.cpp:425] inception_5a/relu_5x5 <- inception_5a/5x5
I0403 15:16:42.123698 31396 net.cpp:386] inception_5a/relu_5x5 -> inception_5a/5x5 (in-place)
I0403 15:16:42.123888 31396 net.cpp:141] Setting up inception_5a/relu_5x5
I0403 15:16:42.123911 31396 net.cpp:148] Top shape: 24 128 7 7 (150528)
I0403 15:16:42.123926 31396 net.cpp:156] Memory required for data: 1300555296
I0403 15:16:42.123940 31396 layer_factory.hpp:77] Creating layer inception_5a/pool
I0403 15:16:42.123958 31396 net.cpp:91] Creating Layer inception_5a/pool
I0403 15:16:42.123975 31396 net.cpp:425] inception_5a/pool <- pool4/3x3_s2_pool4/3x3_s2_0_split_3
I0403 15:16:42.123996 31396 net.cpp:399] inception_5a/pool -> inception_5a/pool
I0403 15:16:42.124063 31396 net.cpp:141] Setting up inception_5a/pool
I0403 15:16:42.124086 31396 net.cpp:148] Top shape: 24 832 7 7 (978432)
I0403 15:16:42.124100 31396 net.cpp:156] Memory required for data: 1304469024
I0403 15:16:42.124115 31396 layer_factory.hpp:77] Creating layer inception_5a/pool_proj
I0403 15:16:42.124152 31396 net.cpp:91] Creating Layer inception_5a/pool_proj
I0403 15:16:42.124171 31396 net.cpp:425] inception_5a/pool_proj <- inception_5a/pool
I0403 15:16:42.124191 31396 net.cpp:399] inception_5a/pool_proj -> inception_5a/pool_proj
I0403 15:16:42.126464 31396 net.cpp:141] Setting up inception_5a/pool_proj
I0403 15:16:42.126497 31396 net.cpp:148] Top shape: 24 128 7 7 (150528)
I0403 15:16:42.126515 31396 net.cpp:156] Memory required for data: 1305071136
I0403 15:16:42.126534 31396 layer_factory.hpp:77] Creating layer inception_5a/relu_pool_proj
I0403 15:16:42.126554 31396 net.cpp:91] Creating Layer inception_5a/relu_pool_proj
I0403 15:16:42.126571 31396 net.cpp:425] inception_5a/relu_pool_proj <- inception_5a/pool_proj
I0403 15:16:42.126590 31396 net.cpp:386] inception_5a/relu_pool_proj -> inception_5a/pool_proj (in-place)
I0403 15:16:42.126885 31396 net.cpp:141] Setting up inception_5a/relu_pool_proj
I0403 15:16:42.126914 31396 net.cpp:148] Top shape: 24 128 7 7 (150528)
I0403 15:16:42.126929 31396 net.cpp:156] Memory required for data: 1305673248
I0403 15:16:42.126945 31396 layer_factory.hpp:77] Creating layer inception_5a/output
I0403 15:16:42.126961 31396 net.cpp:91] Creating Layer inception_5a/output
I0403 15:16:42.126977 31396 net.cpp:425] inception_5a/output <- inception_5a/1x1
I0403 15:16:42.126994 31396 net.cpp:425] inception_5a/output <- inception_5a/3x3
I0403 15:16:42.127010 31396 net.cpp:425] inception_5a/output <- inception_5a/5x5
I0403 15:16:42.127027 31396 net.cpp:425] inception_5a/output <- inception_5a/pool_proj
I0403 15:16:42.127044 31396 net.cpp:399] inception_5a/output -> inception_5a/output
I0403 15:16:42.127094 31396 net.cpp:141] Setting up inception_5a/output
I0403 15:16:42.127117 31396 net.cpp:148] Top shape: 24 832 7 7 (978432)
I0403 15:16:42.127131 31396 net.cpp:156] Memory required for data: 1309586976
I0403 15:16:42.127146 31396 layer_factory.hpp:77] Creating layer inception_5a/output_inception_5a/output_0_split
I0403 15:16:42.127162 31396 net.cpp:91] Creating Layer inception_5a/output_inception_5a/output_0_split
I0403 15:16:42.127182 31396 net.cpp:425] inception_5a/output_inception_5a/output_0_split <- inception_5a/output
I0403 15:16:42.127199 31396 net.cpp:399] inception_5a/output_inception_5a/output_0_split -> inception_5a/output_inception_5a/output_0_split_0
I0403 15:16:42.127218 31396 net.cpp:399] inception_5a/output_inception_5a/output_0_split -> inception_5a/output_inception_5a/output_0_split_1
I0403 15:16:42.127238 31396 net.cpp:399] inception_5a/output_inception_5a/output_0_split -> inception_5a/output_inception_5a/output_0_split_2
I0403 15:16:42.127259 31396 net.cpp:399] inception_5a/output_inception_5a/output_0_split -> inception_5a/output_inception_5a/output_0_split_3
I0403 15:16:42.127374 31396 net.cpp:141] Setting up inception_5a/output_inception_5a/output_0_split
I0403 15:16:42.127398 31396 net.cpp:148] Top shape: 24 832 7 7 (978432)
I0403 15:16:42.127414 31396 net.cpp:148] Top shape: 24 832 7 7 (978432)
I0403 15:16:42.127429 31396 net.cpp:148] Top shape: 24 832 7 7 (978432)
I0403 15:16:42.127444 31396 net.cpp:148] Top shape: 24 832 7 7 (978432)
I0403 15:16:42.127459 31396 net.cpp:156] Memory required for data: 1325241888
I0403 15:16:42.127473 31396 layer_factory.hpp:77] Creating layer inception_5b/1x1
I0403 15:16:42.127496 31396 net.cpp:91] Creating Layer inception_5b/1x1
I0403 15:16:42.127512 31396 net.cpp:425] inception_5b/1x1 <- inception_5a/output_inception_5a/output_0_split_0
I0403 15:16:42.127533 31396 net.cpp:399] inception_5b/1x1 -> inception_5b/1x1
I0403 15:16:42.131273 31396 net.cpp:141] Setting up inception_5b/1x1
I0403 15:16:42.131304 31396 net.cpp:148] Top shape: 24 384 7 7 (451584)
I0403 15:16:42.131324 31396 net.cpp:156] Memory required for data: 1327048224
I0403 15:16:42.131342 31396 layer_factory.hpp:77] Creating layer inception_5b/relu_1x1
I0403 15:16:42.131364 31396 net.cpp:91] Creating Layer inception_5b/relu_1x1
I0403 15:16:42.131381 31396 net.cpp:425] inception_5b/relu_1x1 <- inception_5b/1x1
I0403 15:16:42.131399 31396 net.cpp:386] inception_5b/relu_1x1 -> inception_5b/1x1 (in-place)
I0403 15:16:42.131698 31396 net.cpp:141] Setting up inception_5b/relu_1x1
I0403 15:16:42.131726 31396 net.cpp:148] Top shape: 24 384 7 7 (451584)
I0403 15:16:42.131741 31396 net.cpp:156] Memory required for data: 1328854560
I0403 15:16:42.131754 31396 layer_factory.hpp:77] Creating layer inception_5b/3x3_reduce
I0403 15:16:42.131781 31396 net.cpp:91] Creating Layer inception_5b/3x3_reduce
I0403 15:16:42.131800 31396 net.cpp:425] inception_5b/3x3_reduce <- inception_5a/output_inception_5a/output_0_split_1
I0403 15:16:42.131824 31396 net.cpp:399] inception_5b/3x3_reduce -> inception_5b/3x3_reduce
I0403 15:16:42.134481 31396 net.cpp:141] Setting up inception_5b/3x3_reduce
I0403 15:16:42.134511 31396 net.cpp:148] Top shape: 24 192 7 7 (225792)
I0403 15:16:42.134531 31396 net.cpp:156] Memory required for data: 1329757728
I0403 15:16:42.134549 31396 layer_factory.hpp:77] Creating layer inception_5b/relu_3x3_reduce
I0403 15:16:42.134568 31396 net.cpp:91] Creating Layer inception_5b/relu_3x3_reduce
I0403 15:16:42.134585 31396 net.cpp:425] inception_5b/relu_3x3_reduce <- inception_5b/3x3_reduce
I0403 15:16:42.134603 31396 net.cpp:386] inception_5b/relu_3x3_reduce -> inception_5b/3x3_reduce (in-place)
I0403 15:16:42.134794 31396 net.cpp:141] Setting up inception_5b/relu_3x3_reduce
I0403 15:16:42.134822 31396 net.cpp:148] Top shape: 24 192 7 7 (225792)
I0403 15:16:42.134838 31396 net.cpp:156] Memory required for data: 1330660896
I0403 15:16:42.134853 31396 layer_factory.hpp:77] Creating layer inception_5b/3x3
I0403 15:16:42.134876 31396 net.cpp:91] Creating Layer inception_5b/3x3
I0403 15:16:42.134894 31396 net.cpp:425] inception_5b/3x3 <- inception_5b/3x3_reduce
I0403 15:16:42.134913 31396 net.cpp:399] inception_5b/3x3 -> inception_5b/3x3
I0403 15:16:42.141484 31396 net.cpp:141] Setting up inception_5b/3x3
I0403 15:16:42.141515 31396 net.cpp:148] Top shape: 24 384 7 7 (451584)
I0403 15:16:42.141531 31396 net.cpp:156] Memory required for data: 1332467232
I0403 15:16:42.141551 31396 layer_factory.hpp:77] Creating layer inception_5b/relu_3x3
I0403 15:16:42.141569 31396 net.cpp:91] Creating Layer inception_5b/relu_3x3
I0403 15:16:42.141587 31396 net.cpp:425] inception_5b/relu_3x3 <- inception_5b/3x3
I0403 15:16:42.141603 31396 net.cpp:386] inception_5b/relu_3x3 -> inception_5b/3x3 (in-place)
I0403 15:16:42.141908 31396 net.cpp:141] Setting up inception_5b/relu_3x3
I0403 15:16:42.141937 31396 net.cpp:148] Top shape: 24 384 7 7 (451584)
I0403 15:16:42.141952 31396 net.cpp:156] Memory required for data: 1334273568
I0403 15:16:42.141968 31396 layer_factory.hpp:77] Creating layer inception_5b/5x5_reduce
I0403 15:16:42.142005 31396 net.cpp:91] Creating Layer inception_5b/5x5_reduce
I0403 15:16:42.142025 31396 net.cpp:425] inception_5b/5x5_reduce <- inception_5a/output_inception_5a/output_0_split_2
I0403 15:16:42.142045 31396 net.cpp:399] inception_5b/5x5_reduce -> inception_5b/5x5_reduce
I0403 15:16:42.143301 31396 net.cpp:141] Setting up inception_5b/5x5_reduce
I0403 15:16:42.143332 31396 net.cpp:148] Top shape: 24 48 7 7 (56448)
I0403 15:16:42.143349 31396 net.cpp:156] Memory required for data: 1334499360
I0403 15:16:42.143368 31396 layer_factory.hpp:77] Creating layer inception_5b/relu_5x5_reduce
I0403 15:16:42.143388 31396 net.cpp:91] Creating Layer inception_5b/relu_5x5_reduce
I0403 15:16:42.143405 31396 net.cpp:425] inception_5b/relu_5x5_reduce <- inception_5b/5x5_reduce
I0403 15:16:42.143424 31396 net.cpp:386] inception_5b/relu_5x5_reduce -> inception_5b/5x5_reduce (in-place)
I0403 15:16:42.143795 31396 net.cpp:141] Setting up inception_5b/relu_5x5_reduce
I0403 15:16:42.143822 31396 net.cpp:148] Top shape: 24 48 7 7 (56448)
I0403 15:16:42.143837 31396 net.cpp:156] Memory required for data: 1334725152
I0403 15:16:42.143853 31396 layer_factory.hpp:77] Creating layer inception_5b/5x5
I0403 15:16:42.143873 31396 net.cpp:91] Creating Layer inception_5b/5x5
I0403 15:16:42.143890 31396 net.cpp:425] inception_5b/5x5 <- inception_5b/5x5_reduce
I0403 15:16:42.143908 31396 net.cpp:399] inception_5b/5x5 -> inception_5b/5x5
I0403 15:16:42.145921 31396 net.cpp:141] Setting up inception_5b/5x5
I0403 15:16:42.145951 31396 net.cpp:148] Top shape: 24 128 7 7 (150528)
I0403 15:16:42.145968 31396 net.cpp:156] Memory required for data: 1335327264
I0403 15:16:42.145987 31396 layer_factory.hpp:77] Creating layer inception_5b/relu_5x5
I0403 15:16:42.146005 31396 net.cpp:91] Creating Layer inception_5b/relu_5x5
I0403 15:16:42.146021 31396 net.cpp:425] inception_5b/relu_5x5 <- inception_5b/5x5
I0403 15:16:42.146041 31396 net.cpp:386] inception_5b/relu_5x5 -> inception_5b/5x5 (in-place)
I0403 15:16:42.146235 31396 net.cpp:141] Setting up inception_5b/relu_5x5
I0403 15:16:42.146260 31396 net.cpp:148] Top shape: 24 128 7 7 (150528)
I0403 15:16:42.146275 31396 net.cpp:156] Memory required for data: 1335929376
I0403 15:16:42.146288 31396 layer_factory.hpp:77] Creating layer inception_5b/pool
I0403 15:16:42.146306 31396 net.cpp:91] Creating Layer inception_5b/pool
I0403 15:16:42.146330 31396 net.cpp:425] inception_5b/pool <- inception_5a/output_inception_5a/output_0_split_3
I0403 15:16:42.146350 31396 net.cpp:399] inception_5b/pool -> inception_5b/pool
I0403 15:16:42.146421 31396 net.cpp:141] Setting up inception_5b/pool
I0403 15:16:42.146446 31396 net.cpp:148] Top shape: 24 832 7 7 (978432)
I0403 15:16:42.146461 31396 net.cpp:156] Memory required for data: 1339843104
I0403 15:16:42.146476 31396 layer_factory.hpp:77] Creating layer inception_5b/pool_proj
I0403 15:16:42.146497 31396 net.cpp:91] Creating Layer inception_5b/pool_proj
I0403 15:16:42.146515 31396 net.cpp:425] inception_5b/pool_proj <- inception_5b/pool
I0403 15:16:42.146535 31396 net.cpp:399] inception_5b/pool_proj -> inception_5b/pool_proj
I0403 15:16:42.148857 31396 net.cpp:141] Setting up inception_5b/pool_proj
I0403 15:16:42.148887 31396 net.cpp:148] Top shape: 24 128 7 7 (150528)
I0403 15:16:42.148903 31396 net.cpp:156] Memory required for data: 1340445216
I0403 15:16:42.148927 31396 layer_factory.hpp:77] Creating layer inception_5b/relu_pool_proj
I0403 15:16:42.148947 31396 net.cpp:91] Creating Layer inception_5b/relu_pool_proj
I0403 15:16:42.148964 31396 net.cpp:425] inception_5b/relu_pool_proj <- inception_5b/pool_proj
I0403 15:16:42.148982 31396 net.cpp:386] inception_5b/relu_pool_proj -> inception_5b/pool_proj (in-place)
I0403 15:16:42.149276 31396 net.cpp:141] Setting up inception_5b/relu_pool_proj
I0403 15:16:42.149304 31396 net.cpp:148] Top shape: 24 128 7 7 (150528)
I0403 15:16:42.149324 31396 net.cpp:156] Memory required for data: 1341047328
I0403 15:16:42.149341 31396 layer_factory.hpp:77] Creating layer inception_5b/output
I0403 15:16:42.149360 31396 net.cpp:91] Creating Layer inception_5b/output
I0403 15:16:42.149391 31396 net.cpp:425] inception_5b/output <- inception_5b/1x1
I0403 15:16:42.149408 31396 net.cpp:425] inception_5b/output <- inception_5b/3x3
I0403 15:16:42.149425 31396 net.cpp:425] inception_5b/output <- inception_5b/5x5
I0403 15:16:42.149441 31396 net.cpp:425] inception_5b/output <- inception_5b/pool_proj
I0403 15:16:42.149457 31396 net.cpp:399] inception_5b/output -> inception_5b/output
I0403 15:16:42.149510 31396 net.cpp:141] Setting up inception_5b/output
I0403 15:16:42.149533 31396 net.cpp:148] Top shape: 24 1024 7 7 (1204224)
I0403 15:16:42.149549 31396 net.cpp:156] Memory required for data: 1345864224
I0403 15:16:42.149562 31396 layer_factory.hpp:77] Creating layer pool5/7x7_s1
I0403 15:16:42.149582 31396 net.cpp:91] Creating Layer pool5/7x7_s1
I0403 15:16:42.149598 31396 net.cpp:425] pool5/7x7_s1 <- inception_5b/output
I0403 15:16:42.149617 31396 net.cpp:399] pool5/7x7_s1 -> pool5/7x7_s1
I0403 15:16:42.149830 31396 net.cpp:141] Setting up pool5/7x7_s1
I0403 15:16:42.149858 31396 net.cpp:148] Top shape: 24 1024 1 1 (24576)
I0403 15:16:42.149875 31396 net.cpp:156] Memory required for data: 1345962528
I0403 15:16:42.149889 31396 layer_factory.hpp:77] Creating layer pool5/drop_7x7_s1
I0403 15:16:42.149907 31396 net.cpp:91] Creating Layer pool5/drop_7x7_s1
I0403 15:16:42.149924 31396 net.cpp:425] pool5/drop_7x7_s1 <- pool5/7x7_s1
I0403 15:16:42.149945 31396 net.cpp:386] pool5/drop_7x7_s1 -> pool5/7x7_s1 (in-place)
I0403 15:16:42.149993 31396 net.cpp:141] Setting up pool5/drop_7x7_s1
I0403 15:16:42.150017 31396 net.cpp:148] Top shape: 24 1024 1 1 (24576)
I0403 15:16:42.150040 31396 net.cpp:156] Memory required for data: 1346060832
I0403 15:16:42.150055 31396 layer_factory.hpp:77] Creating layer loss3/classifier_plantvillage
I0403 15:16:42.150077 31396 net.cpp:91] Creating Layer loss3/classifier_plantvillage
I0403 15:16:42.150095 31396 net.cpp:425] loss3/classifier_plantvillage <- pool5/7x7_s1
I0403 15:16:42.150115 31396 net.cpp:399] loss3/classifier_plantvillage -> loss3/classifier_plantvillage
I0403 15:16:42.150537 31396 net.cpp:141] Setting up loss3/classifier_plantvillage
I0403 15:16:42.150563 31396 net.cpp:148] Top shape: 24 38 (912)
I0403 15:16:42.150578 31396 net.cpp:156] Memory required for data: 1346064480
I0403 15:16:42.150595 31396 layer_factory.hpp:77] Creating layer loss3/classifier_plantvillage_loss3/classifier_plantvillage_0_split
I0403 15:16:42.150617 31396 net.cpp:91] Creating Layer loss3/classifier_plantvillage_loss3/classifier_plantvillage_0_split
I0403 15:16:42.150635 31396 net.cpp:425] loss3/classifier_plantvillage_loss3/classifier_plantvillage_0_split <- loss3/classifier_plantvillage
I0403 15:16:42.150652 31396 net.cpp:399] loss3/classifier_plantvillage_loss3/classifier_plantvillage_0_split -> loss3/classifier_plantvillage_loss3/classifier_plantvillage_0_split_0
I0403 15:16:42.150671 31396 net.cpp:399] loss3/classifier_plantvillage_loss3/classifier_plantvillage_0_split -> loss3/classifier_plantvillage_loss3/classifier_plantvillage_0_split_1
I0403 15:16:42.150691 31396 net.cpp:399] loss3/classifier_plantvillage_loss3/classifier_plantvillage_0_split -> loss3/classifier_plantvillage_loss3/classifier_plantvillage_0_split_2
I0403 15:16:42.150712 31396 net.cpp:399] loss3/classifier_plantvillage_loss3/classifier_plantvillage_0_split -> loss3/classifier_plantvillage_loss3/classifier_plantvillage_0_split_3
I0403 15:16:42.150810 31396 net.cpp:141] Setting up loss3/classifier_plantvillage_loss3/classifier_plantvillage_0_split
I0403 15:16:42.150833 31396 net.cpp:148] Top shape: 24 38 (912)
I0403 15:16:42.150849 31396 net.cpp:148] Top shape: 24 38 (912)
I0403 15:16:42.150864 31396 net.cpp:148] Top shape: 24 38 (912)
I0403 15:16:42.150878 31396 net.cpp:148] Top shape: 24 38 (912)
I0403 15:16:42.150892 31396 net.cpp:156] Memory required for data: 1346079072
I0403 15:16:42.150907 31396 layer_factory.hpp:77] Creating layer loss1/loss
I0403 15:16:42.150928 31396 net.cpp:91] Creating Layer loss1/loss
I0403 15:16:42.150945 31396 net.cpp:425] loss1/loss <- loss1/classifier_plantvillage_loss1/classifier_plantvillage_0_split_0
I0403 15:16:42.150976 31396 net.cpp:425] loss1/loss <- label_data_1_split_0
…
