…
I0403 14:51:56.142338 30507 net.cpp:313] The NetState phase (1) differed from the phase (0) specified by a rule in layer data
I0403 14:51:56.143550 30507 net.cpp:49] Initializing net from parameters: 
state {
  phase: TEST
}
layer {
  name: "data"
  type: "Data"
  top: "data"
  top: "label"
  include {
    phase: TEST
  }
  transform_param {
    mirror: false
    crop_size: 224
    mean_file: "/home/mohanty/data/final_dataset/lmdb/color-20-80/mean.binaryproto"
  }
  data_param {
    source: "/home/mohanty/data/final_dataset/lmdb/color-20-80/test_db"
    batch_size: 24
    backend: LMDB
  }
}
layer {
  name: "conv1/7x7_s2"
  type: "Convolution"
  bottom: "data"
  top: "conv1/7x7_s2"
  param {
    lr_mult: 1
    decay_mult: 1
  }
  param {
    lr_mult: 2
    decay_mult: 0
  }
  convolution_param {
    num_output: 64
    pad: 3
    kernel_size: 7
    stride: 2
    weight_filler {
      type: "xavier"
      std: 0.1
    }
    bias_filler {
      type: "constant"
      value: 0.2
    }
  }
}
layer {
  name: "conv1/relu_7x7"
  type: "ReLU"
  bottom: "conv1/7x7_s2"
  top: "conv1/7x7_s2"
}
layer {
  name: "pool1/3x3_s2"
  type: "Pooling"
  bottom: "conv1/7x7_s2"
  top: "pool1/3x3_s2"
  pooling_param {
    pool: MAX
    kernel_size: 3
    stride: 2
  }
}
layer {
  name: "pool1/norm1"
  type: "LRN"
  bottom: "pool1/3x3_s2"
  top: "pool1/norm1"
  lrn_param {
    local_size: 5
    alpha: 0.0001
    beta: 0.75
  }
}
layer {
  name: "conv2/3x3_reduce"
  type: "Convolution"
  bottom: "pool1/norm1"
  top: "conv2/3x3_reduce"
  param {
    lr_mult: 1
    decay_mult: 1
  }
  param {
    lr_mult: 2
    decay_mult: 0
  }
  convolution_param {
    num_output: 64
    kernel_size: 1
    weight_filler {
      type: "xavier"
      std: 0.1
    }
    bias_filler {
      type: "constant"
      value: 0.2
    }
  }
}
layer {
  name: "conv2/relu_3x3_reduce"
  type: "ReLU"
  bottom: "conv2/3x3_reduce"
  top: "conv2/3x3_reduce"
}
layer {
  name: "conv2/3x3"
  type: "Convolution"
  bottom: "conv2/3x3_reduce"
  top: "conv2/3x3"
  param {
    lr_mult: 1
    decay_mult: 1
  }
  param {
    lr_mult: 2
    decay_mult: 0
  }
  convolution_param {
    num_output: 192
    pad: 1
    kernel_size: 3
    weight_filler {
      type: "xavier"
      std: 0.03
    }
    bias_filler {
      type: "constant"
      value: 0.2
    }
  }
}
layer {
  name: "conv2/relu_3x3"
  type: "ReLU"
  bottom: "conv2/3x3"
  top: "conv2/3x3"
}
layer {
  name: "conv2/norm2"
  type: "LRN"
  bottom: "conv2/3x3"
  top: "conv2/norm2"
  lrn_param {
    local_size: 5
    alpha: 0.0001
    beta: 0.75
  }
}
layer {
  name: "pool2/3x3_s2"
  type: "Pooling"
  bottom: "conv2/norm2"
  top: "pool2/3x3_s2"
  pooling_param {
    pool: MAX
    kernel_size: 3
    stride: 2
  }
}
layer {
  name: "inception_3a/1x1"
  type: "Convolution"
  bottom: "pool2/3x3_s2"
  top: "inception_3a/1x1"
  param {
    lr_mult: 1
    decay_mult: 1
  }
  param {
    lr_mult: 2
    decay_mult: 0
  }
  convolution_param {
    num_output: 64
    kernel_size: 1
    weight_filler {
      type: "xavier"
      std: 0.03
    }
    bias_filler {
      type: "constant"
      value: 0.2
    }
  }
}
layer {
  name: "inception_3a/relu_1x1"
  type: "ReLU"
  bottom: "inception_3a/1x1"
  top: "inception_3a/1x1"
}
layer {
  name: "inception_3a/3x3_reduce"
  type: "Convolution"
  bottom: "pool2/3x3_s2"
  top: "inception_3a/3x3_reduce"
  param {
    lr_mult: 1
    decay_mult: 1
  }
  param {
    lr_mult: 2
    decay_mult: 0
  }
  convolution_param {
    num_output: 96
    kernel_size: 1
    weight_filler {
      type: "xavier"
      std: 0.09
    }
    bias_filler {
      type: "constant"
      value: 0.2
    }
  }
}
layer {
  name: "inception_3a/relu_3x3_reduce"
  type: "ReLU"
  bottom: "inception_3a/3x3_reduce"
  top: "inception_3a/3x3_reduce"
}
layer {
  name: "inception_3a/3x3"
  type: "Convolution"
  bottom: "inception_3a/3x3_reduce"
  top: "inception_3a/3x3"
  param {
    lr_mult: 1
    decay_mult: 1
  }
  param {
    lr_mult: 2
    decay_mult: 0
  }
  convolution_param {
    num_output: 128
    pad: 1
    kernel_size: 3
    weight_filler {
      type: "xavier"
      std: 0.03
    }
    bias_filler {
      type: "constant"
      value: 0.2
    }
  }
}
layer {
  name: "inception_3a/relu_3x3"
  type: "ReLU"
  bottom: "inception_3a/3x3"
  top: "inception_3a/3x3"
}
layer {
  name: "inception_3a/5x5_reduce"
  type: "Convolution"
  bottom: "pool2/3x3_s2"
  top: "inception_3a/5x5_reduce"
  param {
    lr_mult: 1
    decay_mult: 1
  }
  param {
    lr_mult: 2
    decay_mult: 0
  }
  convolution_param {
    num_output: 16
    kernel_size: 1
    weight_filler {
      type: "xavier"
      std: 0.2
    }
    bias_filler {
      type: "constant"
      value: 0.2
    }
  }
}
layer {
  name: "inception_3a/relu_5x5_reduce"
  type: "ReLU"
  bottom: "inception_3a/5x5_reduce"
  top: "inception_3a/5x5_reduce"
}
layer {
  name: "inception_3a/5x5"
  type: "Convolution"
  bottom: "inception_3a/5x5_reduce"
  top: "inception_3a/5x5"
  param {
    lr_mult: 1
    decay_mult: 1
  }
  param {
    lr_mult: 2
    decay_mult: 0
  }
  convolution_param {
    num_output: 32
    pad: 2
    kernel_size: 5
    weight_filler {
      type: "xavier"
      std: 0.03
    }
    bias_filler {
      type: "constant"
      value: 0.2
    }
  }
}
layer {
  name: "inception_3a/relu_5x5"
  type: "ReLU"
  bottom: "inception_3a/5x5"
  top: "inception_3a/5x5"
}
layer {
  name: "inception_3a/pool"
  type: "Pooling"
  bottom: "pool2/3x3_s2"
  top: "inception_3a/pool"
  pooling_param {
    pool: MAX
    kernel_size: 3
    stride: 1
    pad: 1
  }
}
layer {
  name: "inception_3a/pool_proj"
  type: "Convolution"
  bottom: "inception_3a/pool"
  top: "inception_3a/pool_proj"
  param {
    lr_mult: 1
    decay_mult: 1
  }
  param {
    lr_mult: 2
    decay_mult: 0
  }
  convolution_param {
    num_output: 32
    kernel_size: 1
    weight_filler {
      type: "xavier"
      std: 0.1
    }
    bias_filler {
      type: "constant"
      value: 0.2
    }
  }
}
layer {
  name: "inception_3a/relu_pool_proj"
  type: "ReLU"
  bottom: "inception_3a/pool_proj"
  top: "inception_3a/pool_proj"
}
layer {
  name: "inception_3a/output"
  type: "Concat"
  bottom: "inception_3a/1x1"
  bottom: "inception_3a/3x3"
  bottom: "inception_3a/5x5"
  bottom: "inception_3a/pool_proj"
  top: "inception_3a/output"
}
layer {
  name: "inception_3b/1x1"
  type: "Convolution"
  bottom: "inception_3a/output"
  top: "inception_3b/1x1"
  param {
    lr_mult: 1
    decay_mult: 1
  }
  param {
    lr_mult: 2
    decay_mult: 0
  }
  convolution_param {
    num_output: 128
    kernel_size: 1
    weight_filler {
      type: "xavier"
      std: 0.03
    }
    bias_filler {
      type: "constant"
      value: 0.2
    }
  }
}
layer {
  name: "inception_3b/relu_1x1"
  type: "ReLU"
  bottom: "inception_3b/1x1"
  top: "inception_3b/1x1"
}
layer {
  name: "inception_3b/3x3_reduce"
  type: "Convolution"
  bottom: "inception_3a/output"
  top: "inception_3b/3x3_reduce"
  param {
    lr_mult: 1
    decay_mult: 1
  }
  param {
    lr_mult: 2
    decay_mult: 0
  }
  convolution_param {
    num_output: 128
    kernel_size: 1
    weight_filler {
      type: "xavier"
      std: 0.09
    }
    bias_filler {
      type: "constant"
      value: 0.2
    }
  }
}
layer {
  name: "inception_3b/relu_3x3_reduce"
  type: "ReLU"
  bottom: "inception_3b/3x3_reduce"
  top: "inception_3b/3x3_reduce"
}
layer {
  name: "inception_3b/3x3"
  type: "Convolution"
  bottom: "inception_3b/3x3_reduce"
  top: "inception_3b/3x3"
  param {
    lr_mult: 1
    decay_mult: 1
  }
  param {
    lr_mult: 2
    decay_mult: 0
  }
  convolution_param {
    num_output: 192
    pad: 1
    kernel_size: 3
    weight_filler {
      type: "xavier"
      std: 0.03
    }
    bias_filler {
      type: "constant"
      value: 0.2
    }
  }
}
layer {
  name: "inception_3b/relu_3x3"
  type: "ReLU"
  bottom: "inception_3b/3x3"
  top: "inception_3b/3x3"
}
layer {
  name: "inception_3b/5x5_reduce"
  type: "Convolution"
  bottom: "inception_3a/output"
  top: "inception_3b/5x5_reduce"
  param {
    lr_mult: 1
    decay_mult: 1
  }
  param {
    lr_mult: 2
    decay_mult: 0
  }
  convolution_param {
    num_output: 32
    kernel_size: 1
    weight_filler {
      type: "xavier"
      std: 0.2
    }
    bias_filler {
      type: "constant"
      value: 0.2
    }
  }
}
layer {
  name: "inception_3b/relu_5x5_reduce"
  type: "ReLU"
  bottom: "inception_3b/5x5_reduce"
  top: "inception_3b/5x5_reduce"
}
layer {
  name: "inception_3b/5x5"
  type: "Convolution"
  bottom: "inception_3b/5x5_reduce"
  top: "inception_3b/5x5"
  param {
    lr_mult: 1
    decay_mult: 1
  }
  param {
    lr_mult: 2
    decay_mult: 0
  }
  convolution_param {
    num_output: 96
    pad: 2
    kernel_size: 5
    weight_filler {
      type: "xavier"
      std: 0.03
    }
    bias_filler {
      type: "constant"
      value: 0.2
    }
  }
}
layer {
  name: "inception_3b/relu_5x5"
  type: "ReLU"
  bottom: "inception_3b/5x5"
  top: "inception_3b/5x5"
}
layer {
  name: "inception_3b/pool"
  type: "Pooling"
  bottom: "inception_3a/output"
  top: "inception_3b/pool"
  pooling_param {
    pool: MAX
    kernel_size: 3
    stride: 1
    pad: 1
  }
}
layer {
  name: "inception_3b/pool_proj"
  type: "Convolution"
  bottom: "inception_3b/pool"
  top: "inception_3b/pool_proj"
  param {
    lr_mult: 1
    decay_mult: 1
  }
  param {
    lr_mult: 2
    decay_mult: 0
  }
  convolution_param {
    num_output: 64
    kernel_size: 1
    weight_filler {
      type: "xavier"
      std: 0.1
    }
    bias_filler {
      type: "constant"
      value: 0.2
    }
  }
}
layer {
  name: "inception_3b/relu_pool_proj"
  type: "ReLU"
  bottom: "inception_3b/pool_proj"
  top: "inception_3b/pool_proj"
}
layer {
  name: "inception_3b/output"
  type: "Concat"
  bottom: "inception_3b/1x1"
  bottom: "inception_3b/3x3"
  bottom: "inception_3b/5x5"
  bottom: "inception_3b/pool_proj"
  top: "inception_3b/output"
}
layer {
  name: "pool3/3x3_s2"
  type: "Pooling"
  bottom: "inception_3b/output"
  top: "pool3/3x3_s2"
  pooling_param {
    pool: MAX
    kernel_size: 3
    stride: 2
  }
}
layer {
  name: "inception_4a/1x1"
  type: "Convolution"
  bottom: "pool3/3x3_s2"
  top: "inception_4a/1x1"
  param {
    lr_mult: 1
    decay_mult: 1
  }
  param {
    lr_mult: 2
    decay_mult: 0
  }
  convolution_param {
    num_output: 192
    kernel_size: 1
    weight_filler {
      type: "xavier"
      std: 0.03
    }
    bias_filler {
      type: "constant"
      value: 0.2
    }
  }
}
layer {
  name: "inception_4a/relu_1x1"
  type: "ReLU"
  bottom: "inception_4a/1x1"
  top: "inception_4a/1x1"
}
layer {
  name: "inception_4a/3x3_reduce"
  type: "Convolution"
  bottom: "pool3/3x3_s2"
  top: "inception_4a/3x3_reduce"
  param {
    lr_mult: 1
    decay_mult: 1
  }
  param {
    lr_mult: 2
    decay_mult: 0
  }
  convolution_param {
    num_output: 96
    kernel_size: 1
    weight_filler {
      type: "xavier"
      std: 0.09
    }
    bias_filler {
      type: "constant"
      value: 0.2
    }
  }
}
layer {
  name: "inception_4a/relu_3x3_reduce"
  type: "ReLU"
  bottom: "inception_4a/3x3_reduce"
  top: "inception_4a/3x3_reduce"
}
layer {
  name: "inception_4a/3x3"
  type: "Convolution"
  bottom: "inception_4a/3x3_reduce"
  top: "inception_4a/3x3"
  param {
    lr_mult: 1
    decay_mult: 1
  }
  param {
    lr_mult: 2
    decay_mult: 0
  }
  convolution_param {
    num_output: 208
    pad: 1
    kernel_size: 3
    weight_filler {
      type: "xavier"
      std: 0.03
    }
    bias_filler {
      type: "constant"
      value: 0.2
    }
  }
}
layer {
  name: "inception_4a/relu_3x3"
  type: "ReLU"
  bottom: "inception_4a/3x3"
  top: "inception_4a/3x3"
}
layer {
  name: "inception_4a/5x5_reduce"
  type: "Convolution"
  bottom: "pool3/3x3_s2"
  top: "inception_4a/5x5_reduce"
  param {
    lr_mult: 1
    decay_mult: 1
  }
  param {
    lr_mult: 2
    decay_mult: 0
  }
  convolution_param {
    num_output: 16
    kernel_size: 1
    weight_filler {
      type: "xavier"
      std: 0.2
    }
    bias_filler {
      type: "constant"
      value: 0.2
    }
  }
}
layer {
  name: "inception_4a/relu_5x5_reduce"
  type: "ReLU"
  bottom: "inception_4a/5x5_reduce"
  top: "inception_4a/5x5_reduce"
}
layer {
  name: "inception_4a/5x5"
  type: "Convolution"
  bottom: "inception_4a/5x5_reduce"
  top: "inception_4a/5x5"
  param {
    lr_mult: 1
    decay_mult: 1
  }
  param {
    lr_mult: 2
    decay_mult: 0
  }
  convolution_param {
    num_output: 48
    pad: 2
    kernel_size: 5
    weight_filler {
      type: "xavier"
      std: 0.03
    }
    bias_filler {
      type: "constant"
      value: 0.2
    }
  }
}
layer {
  name: "inception_4a/relu_5x5"
  type: "ReLU"
  bottom: "inception_4a/5x5"
  top: "inception_4a/5x5"
}
layer {
  name: "inception_4a/pool"
  type: "Pooling"
  bottom: "pool3/3x3_s2"
  top: "inception_4a/pool"
  pooling_param {
    pool: MAX
    kernel_size: 3
    stride: 1
    pad: 1
  }
}
layer {
  name: "inception_4a/pool_proj"
  type: "Convolution"
  bottom: "inception_4a/pool"
  top: "inception_4a/pool_proj"
  param {
    lr_mult: 1
    decay_mult: 1
  }
  param {
    lr_mult: 2
    decay_mult: 0
  }
  convolution_param {
    num_output: 64
    kernel_size: 1
    weight_filler {
      type: "xavier"
      std: 0.1
    }
    bias_filler {
      type: "constant"
      value: 0.2
    }
  }
}
layer {
  name: "inception_4a/relu_pool_proj"
  type: "ReLU"
  bottom: "inception_4a/pool_proj"
  top: "inception_4a/pool_proj"
}
layer {
  name: "inception_4a/output"
  type: "Concat"
  bottom: "inception_4a/1x1"
  bottom: "inception_4a/3x3"
  bottom: "inception_4a/5x5"
  bottom: "inception_4a/pool_proj"
  top: "inception_4a/output"
}
layer {
  name: "loss1/ave_pool"
  type: "Pooling"
  bottom: "inception_4a/output"
  top: "loss1/ave_pool"
  pooling_param {
    pool: AVE
    kernel_size: 5
    stride: 3
  }
}
layer {
  name: "loss1/conv"
  type: "Convolution"
  bottom: "loss1/ave_pool"
  top: "loss1/conv"
  param {
    lr_mult: 1
    decay_mult: 1
  }
  param {
    lr_mult: 2
    decay_mult: 0
  }
  convolution_param {
    num_output: 128
    kernel_size: 1
    weight_filler {
      type: "xavier"
      std: 0.08
    }
    bias_filler {
      type: "constant"
      value: 0.2
    }
  }
}
layer {
  name: "loss1/relu_conv"
  type: "ReLU"
  bottom: "loss1/conv"
  top: "loss1/conv"
}
layer {
  name: "loss1/fc"
  type: "InnerProduct"
  bottom: "loss1/conv"
  top: "loss1/fc"
  param {
    lr_mult: 1
    decay_mult: 1
  }
  param {
    lr_mult: 2
    decay_mult: 0
  }
  inner_product_param {
    num_output: 1024
    weight_filler {
      type: "xavier"
      std: 0.02
    }
    bias_filler {
      type: "constant"
      value: 0.2
    }
  }
}
layer {
  name: "loss1/relu_fc"
  type: "ReLU"
  bottom: "loss1/fc"
  top: "loss1/fc"
}
layer {
  name: "loss1/drop_fc"
  type: "Dropout"
  bottom: "loss1/fc"
  top: "loss1/fc"
  dropout_param {
    dropout_ratio: 0.7
  }
}
layer {
  name: "loss1/classifier_plantvillage"
  type: "InnerProduct"
  bottom: "loss1/fc"
  top: "loss1/classifier_plantvillage"
  param {
    lr_mult: 1
    decay_mult: 1
  }
  param {
    lr_mult: 2
    decay_mult: 0
  }
  inner_product_param {
    num_output: 38
    weight_filler {
      type: "xavier"
      std: 0.0009765625
    }
    bias_filler {
      type: "constant"
      value: 0
    }
  }
}
layer {
  name: "inception_4b/1x1"
  type: "Convolution"
  bottom: "inception_4a/output"
  top: "inception_4b/1x1"
  param {
    lr_mult: 1
    decay_mult: 1
  }
  param {
    lr_mult: 2
    decay_mult: 0
  }
  convolution_param {
    num_output: 160
    kernel_size: 1
    weight_filler {
      type: "xavier"
      std: 0.03
    }
    bias_filler {
      type: "constant"
      value: 0.2
    }
  }
}
layer {
  name: "inception_4b/relu_1x1"
  type: "ReLU"
  bottom: "inception_4b/1x1"
  top: "inception_4b/1x1"
}
layer {
  name: "inception_4b/3x3_reduce"
  type: "Convolution"
  bottom: "inception_4a/output"
  top: "inception_4b/3x3_reduce"
  param {
    lr_mult: 1
    decay_mult: 1
  }
  param {
    lr_mult: 2
    decay_mult: 0
  }
  convolution_param {
    num_output: 112
    kernel_size: 1
    weight_filler {
      type: "xavier"
      std: 0.09
    }
    bias_filler {
      type: "constant"
      value: 0.2
    }
  }
}
layer {
  name: "inception_4b/relu_3x3_reduce"
  type: "ReLU"
  bottom: "inception_4b/3x3_reduce"
  top: "inception_4b/3x3_reduce"
}
layer {
  name: "inception_4b/3x3"
  type: "Convolution"
  bottom: "inception_4b/3x3_reduce"
  top: "inception_4b/3x3"
  param {
    lr_mult: 1
    decay_mult: 1
  }
  param {
    lr_mult: 2
    decay_mult: 0
  }
  convolution_param {
    num_output: 224
    pad: 1
    kernel_size: 3
    weight_filler {
      type: "xavier"
      std: 0.03
    }
    bias_filler {
      type: "constant"
      value: 0.2
    }
  }
}
layer {
  name: "inception_4b/relu_3x3"
  type: "ReLU"
  bottom: "inception_4b/3x3"
  top: "inception_4b/3x3"
}
layer {
  name: "inception_4b/5x5_reduce"
  type: "Convolution"
  bottom: "inception_4a/output"
  top: "inception_4b/5x5_reduce"
  param {
    lr_mult: 1
    decay_mult: 1
  }
  param {
    lr_mult: 2
    decay_mult: 0
  }
  convolution_param {
    num_output: 24
    kernel_size: 1
    weight_filler {
      type: "xavier"
      std: 0.2
    }
    bias_filler {
      type: "constant"
      value: 0.2
    }
  }
}
layer {
  name: "inception_4b/relu_5x5_reduce"
  type: "ReLU"
  bottom: "inception_4b/5x5_reduce"
  top: "inception_4b/5x5_reduce"
}
layer {
  name: "inception_4b/5x5"
  type: "Convolution"
  bottom: "inception_4b/5x5_reduce"
  top: "inception_4b/5x5"
  param {
    lr_mult: 1
    decay_mult: 1
  }
  param {
    lr_mult: 2
    decay_mult: 0
  }
  convolution_param {
    num_output: 64
    pad: 2
    kernel_size: 5
    weight_filler {
      type: "xavier"
      std: 0.03
    }
    bias_filler {
      type: "constant"
      value: 0.2
    }
  }
}
layer {
  name: "inception_4b/relu_5x5"
  type: "ReLU"
  bottom: "inception_4b/5x5"
  top: "inception_4b/5x5"
}
layer {
  name: "inception_4b/pool"
  type: "Pooling"
  bottom: "inception_4a/output"
  top: "inception_4b/pool"
  pooling_param {
    pool: MAX
    kernel_size: 3
    stride: 1
    pad: 1
  }
}
layer {
  name: "inception_4b/pool_proj"
  type: "Convolution"
  bottom: "inception_4b/pool"
  top: "inception_4b/pool_proj"
  param {
    lr_mult: 1
    decay_mult: 1
  }
  param {
    lr_mult: 2
    decay_mult: 0
  }
  convolution_param {
    num_output: 64
    kernel_size: 1
    weight_filler {
      type: "xavier"
      std: 0.1
    }
    bias_filler {
      type: "constant"
      value: 0.2
    }
  }
}
layer {
  name: "inception_4b/relu_pool_proj"
  type: "ReLU"
  bottom: "inception_4b/pool_proj"
  top: "inception_4b/pool_proj"
}
layer {
  name: "inception_4b/output"
  type: "Concat"
  bottom: "inception_4b/1x1"
  bottom: "inception_4b/3x3"
  bottom: "inception_4b/5x5"
  bottom: "inception_4b/pool_proj"
  top: "inception_4b/output"
}
layer {
  name: "inception_4c/1x1"
  type: "Convolution"
  bottom: "inception_4b/output"
  top: "inception_4c/1x1"
  param {
    lr_mult: 1
    decay_mult: 1
  }
  param {
    lr_mult: 2
    decay_mult: 0
  }
  convolution_param {
    num_output: 128
    kernel_size: 1
    weight_filler {
      type: "xavier"
      std: 0.03
    }
    bias_filler {
      type: "constant"
      value: 0.2
    }
  }
}
layer {
  name: "inception_4c/relu_1x1"
  type: "ReLU"
  bottom: "inception_4c/1x1"
  top: "inception_4c/1x1"
}
layer {
  name: "inception_4c/3x3_reduce"
  type: "Convolution"
  bottom: "inception_4b/output"
  top: "inception_4c/3x3_reduce"
  param {
    lr_mult: 1
    decay_mult: 1
  }
  param {
    lr_mult: 2
    decay_mult: 0
  }
  convolution_param {
    num_output: 128
    kernel_size: 1
    weight_filler {
      type: "xavier"
      std: 0.09
    }
    bias_filler {
      type: "constant"
      value: 0.2
    }
  }
}
layer {
  name: "inception_4c/relu_3x3_reduce"
  type: "ReLU"
  bottom: "inception_4c/3x3_reduce"
  top: "inception_4c/3x3_reduce"
}
layer {
  name: "inception_4c/3x3"
  type: "Convolution"
  bottom: "inception_4c/3x3_reduce"
  top: "inception_4c/3x3"
  param {
    lr_mult: 1
    decay_mult: 1
  }
  param {
    lr_mult: 2
    decay_mult: 0
  }
  convolution_param {
    num_output: 256
    pad: 1
    kernel_size: 3
    weight_filler {
      type: "xavier"
      std: 0.03
    }
    bias_filler {
      type: "constant"
      value: 0.2
    }
  }
}
layer {
  name: "inception_4c/relu_3x3"
  type: "ReLU"
  bottom: "inception_4c/3x3"
  top: "inception_4c/3x3"
}
layer {
  name: "inception_4c/5x5_reduce"
  type: "Convolution"
  bottom: "inception_4b/output"
  top: "inception_4c/5x5_reduce"
  param {
    lr_mult: 1
    decay_mult: 1
  }
  param {
    lr_mult: 2
    decay_mult: 0
  }
  convolution_param {
    num_output: 24
    kernel_size: 1
    weight_filler {
      type: "xavier"
      std: 0.2
    }
    bias_filler {
      type: "constant"
      value: 0.2
    }
  }
}
layer {
  name: "inception_4c/relu_5x5_reduce"
  type: "ReLU"
  bottom: "inception_4c/5x5_reduce"
  top: "inception_4c/5x5_reduce"
}
layer {
  name: "inception_4c/5x5"
  type: "Convolution"
  bottom: "inception_4c/5x5_reduce"
  top: "inception_4c/5x5"
  param {
    lr_mult: 1
    decay_mult: 1
  }
  param {
    lr_mult: 2
    decay_mult: 0
  }
  convolution_param {
    num_output: 64
    pad: 2
    kernel_size: 5
    weight_filler {
      type: "xavier"
      std: 0.03
    }
    bias_filler {
      type: "constant"
      value: 0.2
    }
  }
}
layer {
  name: "inception_4c/relu_5x5"
  type: "ReLU"
  bottom: "inception_4c/5x5"
  top: "inception_4c/5x5"
}
layer {
  name: "inception_4c/pool"
  type: "Pooling"
  bottom: "inception_4b/output"
  top: "inception_4c/pool"
  pooling_param {
    pool: MAX
    kernel_size: 3
    stride: 1
    pad: 1
  }
}
layer {
  name: "inception_4c/pool_proj"
  type: "Convolution"
  bottom: "inception_4c/pool"
  top: "inception_4c/pool_proj"
  param {
    lr_mult: 1
    decay_mult: 1
  }
  param {
    lr_mult: 2
    decay_mult: 0
  }
  convolution_param {
    num_output: 64
    kernel_size: 1
    weight_filler {
      type: "xavier"
      std: 0.1
    }
    bias_filler {
      type: "constant"
      value: 0.2
    }
  }
}
layer {
  name: "inception_4c/relu_pool_proj"
  type: "ReLU"
  bottom: "inception_4c/pool_proj"
  top: "inception_4c/pool_proj"
}
layer {
  name: "inception_4c/output"
  type: "Concat"
  bottom: "inception_4c/1x1"
  bottom: "inception_4c/3x3"
  bottom: "inception_4c/5x5"
  bottom: "inception_4c/pool_proj"
  top: "inception_4c/output"
}
layer {
  name: "inception_4d/1x1"
  type: "Convolution"
  bottom: "inception_4c/output"
  top: "inception_4d/1x1"
  param {
    lr_mult: 1
    decay_mult: 1
  }
  param {
    lr_mult: 2
    decay_mult: 0
  }
  convolution_param {
    num_output: 112
    kernel_size: 1
    weight_filler {
      type: "xavier"
      std: 0.03
    }
    bias_filler {
      type: "constant"
      value: 0.2
    }
  }
}
layer {
  name: "inception_4d/relu_1x1"
  type: "ReLU"
  bottom: "inception_4d/1x1"
  top: "inception_4d/1x1"
}
layer {
  name: "inception_4d/3x3_reduce"
  type: "Convolution"
  bottom: "inception_4c/output"
  top: "inception_4d/3x3_reduce"
  param {
    lr_mult: 1
    decay_mult: 1
  }
  param {
    lr_mult: 2
    decay_mult: 0
  }
  convolution_param {
    num_output: 144
    kernel_size: 1
    weight_filler {
      type: "xavier"
      std: 0.09
    }
    bias_filler {
      type: "constant"
      value: 0.2
    }
  }
}
layer {
  name: "inception_4d/relu_3x3_reduce"
  type: "ReLU"
  bottom: "inception_4d/3x3_reduce"
  top: "inception_4d/3x3_reduce"
}
layer {
  name: "inception_4d/3x3"
  type: "Convolution"
  bottom: "inception_4d/3x3_reduce"
  top: "inception_4d/3x3"
  param {
    lr_mult: 1
    decay_mult: 1
  }
  param {
    lr_mult: 2
    decay_mult: 0
  }
  convolution_param {
    num_output: 288
    pad: 1
    kernel_size: 3
    weight_filler {
      type: "xavier"
      std: 0.03
    }
    bias_filler {
      type: "constant"
      value: 0.2
    }
  }
}
layer {
  name: "inception_4d/relu_3x3"
  type: "ReLU"
  bottom: "inception_4d/3x3"
  top: "inception_4d/3x3"
}
layer {
  name: "inception_4d/5x5_reduce"
  type: "Convolution"
  bottom: "inception_4c/output"
  top: "inception_4d/5x5_reduce"
  param {
    lr_mult: 1
    decay_mult: 1
  }
  param {
    lr_mult: 2
    decay_mult: 0
  }
  convolution_param {
    num_output: 32
    kernel_size: 1
    weight_filler {
      type: "xavier"
      std: 0.2
    }
    bias_filler {
      type: "constant"
      value: 0.2
    }
  }
}
layer {
  name: "inception_4d/relu_5x5_reduce"
  type: "ReLU"
  bottom: "inception_4d/5x5_reduce"
  top: "inception_4d/5x5_reduce"
}
layer {
  name: "inception_4d/5x5"
  type: "Convolution"
  bottom: "inception_4d/5x5_reduce"
  top: "inception_4d/5x5"
  param {
    lr_mult: 1
    decay_mult: 1
  }
  param {
    lr_mult: 2
    decay_mult: 0
  }
  convolution_param {
    num_output: 64
    pad: 2
    kernel_size: 5
    weight_filler {
      type: "xavier"
      std: 0.03
    }
    bias_filler {
      type: "constant"
      value: 0.2
    }
  }
}
layer {
  name: "inception_4d/relu_5x5"
  type: "ReLU"
  bottom: "inception_4d/5x5"
  top: "inception_4d/5x5"
}
layer {
  name: "inception_4d/pool"
  type: "Pooling"
  bottom: "inception_4c/output"
  top: "inception_4d/pool"
  pooling_param {
    pool: MAX
    kernel_size: 3
    stride: 1
    pad: 1
  }
}
layer {
  name: "inception_4d/pool_proj"
  type: "Convolution"
  bottom: "inception_4d/pool"
  top: "inception_4d/pool_proj"
  param {
    lr_mult: 1
    decay_mult: 1
  }
  param {
    lr_mult: 2
    decay_mult: 0
  }
  convolution_param {
    num_output: 64
    kernel_size: 1
    weight_filler {
      type: "xavier"
      std: 0.1
    }
    bias_filler {
      type: "constant"
      value: 0.2
    }
  }
}
layer {
  name: "inception_4d/relu_pool_proj"
  type: "ReLU"
  bottom: "inception_4d/pool_proj"
  top: "inception_4d/pool_proj"
}
layer {
  name: "inception_4d/output"
  type: "Concat"
  bottom: "inception_4d/1x1"
  bottom: "inception_4d/3x3"
  bottom: "inception_4d/5x5"
  bottom: "inception_4d/pool_proj"
  top: "inception_4d/output"
}
layer {
  name: "loss2/ave_pool"
  type: "Pooling"
  bottom: "inception_4d/output"
  top: "loss2/ave_pool"
  pooling_param {
    pool: AVE
    kernel_size: 5
    stride: 3
  }
}
layer {
  name: "loss2/conv"
  type: "Convolution"
  bottom: "loss2/ave_pool"
  top: "loss2/conv"
  param {
    lr_mult: 1
    decay_mult: 1
  }
  param {
    lr_mult: 2
    decay_mult: 0
  }
  convolution_param {
    num_output: 128
    kernel_size: 1
    weight_filler {
      type: "xavier"
      std: 0.08
    }
    bias_filler {
      type: "constant"
      value: 0.2
    }
  }
}
layer {
  name: "loss2/relu_conv"
  type: "ReLU"
  bottom: "loss2/conv"
  top: "loss2/conv"
}
layer {
  name: "loss2/fc"
  type: "InnerProduct"
  bottom: "loss2/conv"
  top: "loss2/fc"
  param {
    lr_mult: 1
    decay_mult: 1
  }
  param {
    lr_mult: 2
    decay_mult: 0
  }
  inner_product_param {
    num_output: 1024
    weight_filler {
      type: "xavier"
      std: 0.02
    }
    bias_filler {
      type: "constant"
      value: 0.2
    }
  }
}
layer {
  name: "loss2/relu_fc"
  type: "ReLU"
  bottom: "loss2/fc"
  top: "loss2/fc"
}
layer {
  name: "loss2/drop_fc"
  type: "Dropout"
  bottom: "loss2/fc"
  top: "loss2/fc"
  dropout_param {
    dropout_ratio: 0.7
  }
}
layer {
  name: "loss2/classifier_plantvillage"
  type: "InnerProduct"
  bottom: "loss2/fc"
  top: "loss2/classifier_plantvillage"
  param {
    lr_mult: 1
    decay_mult: 1
  }
  param {
    lr_mult: 2
    decay_mult: 0
  }
  inner_product_param {
    num_output: 38
    weight_filler {
      type: "xavier"
      std: 0.0009765625
    }
    bias_filler {
      type: "constant"
      value: 0
    }
  }
}
layer {
  name: "inception_4e/1x1"
  type: "Convolution"
  bottom: "inception_4d/output"
  top: "inception_4e/1x1"
  param {
    lr_mult: 1
    decay_mult: 1
  }
  param {
    lr_mult: 2
    decay_mult: 0
  }
  convolution_param {
    num_output: 256
    kernel_size: 1
    weight_filler {
      type: "xavier"
      std: 0.03
    }
    bias_filler {
      type: "constant"
      value: 0.2
    }
  }
}
layer {
  name: "inception_4e/relu_1x1"
  type: "ReLU"
  bottom: "inception_4e/1x1"
  top: "inception_4e/1x1"
}
layer {
  name: "inception_4e/3x3_reduce"
  type: "Convolution"
  bottom: "inception_4d/output"
  top: "inception_4e/3x3_reduce"
  param {
    lr_mult: 1
    decay_mult: 1
  }
  param {
    lr_mult: 2
    decay_mult: 0
  }
  convolution_param {
    num_output: 160
    kernel_size: 1
    weight_filler {
      type: "xavier"
      std: 0.09
    }
    bias_filler {
      type: "constant"
      value: 0.2
    }
  }
}
layer {
  name: "inception_4e/relu_3x3_reduce"
  type: "ReLU"
  bottom: "inception_4e/3x3_reduce"
  top: "inception_4e/3x3_reduce"
}
layer {
  name: "inception_4e/3x3"
  type: "Convolution"
  bottom: "inception_4e/3x3_reduce"
  top: "inception_4e/3x3"
  param {
    lr_mult: 1
    decay_mult: 1
  }
  param {
    lr_mult: 2
    decay_mult: 0
  }
  convolution_param {
    num_output: 320
    pad: 1
    kernel_size: 3
    weight_filler {
      type: "xavier"
      std: 0.03
    }
    bias_filler {
      type: "constant"
      value: 0.2
    }
  }
}
layer {
  name: "inception_4e/relu_3x3"
  type: "ReLU"
  bottom: "inception_4e/3x3"
  top: "inception_4e/3x3"
}
layer {
  name: "inception_4e/5x5_reduce"
  type: "Convolution"
  bottom: "inception_4d/output"
  top: "inception_4e/5x5_reduce"
  param {
    lr_mult: 1
    decay_mult: 1
  }
  param {
    lr_mult: 2
    decay_mult: 0
  }
  convolution_param {
    num_output: 32
    kernel_size: 1
    weight_filler {
      type: "xavier"
      std: 0.2
    }
    bias_filler {
      type: "constant"
      value: 0.2
    }
  }
}
layer {
  name: "inception_4e/relu_5x5_reduce"
  type: "ReLU"
  bottom: "inception_4e/5x5_reduce"
  top: "inception_4e/5x5_reduce"
}
layer {
  name: "inception_4e/5x5"
  type: "Convolution"
  bottom: "inception_4e/5x5_reduce"
  top: "inception_4e/5x5"
  p
I0403 14:51:56.144881 30507 layer_factory.hpp:77] Creating layer data
I0403 14:51:56.145514 30507 net.cpp:91] Creating Layer data
I0403 14:51:56.145546 30507 net.cpp:399] data -> data
I0403 14:51:56.145602 30507 net.cpp:399] data -> label
I0403 14:51:56.145642 30507 data_transformer.cpp:25] Loading mean file from: /home/mohanty/data/final_dataset/lmdb/color-20-80/mean.binaryproto
I0403 14:51:56.149291 30512 db_lmdb.cpp:38] Opened lmdb /home/mohanty/data/final_dataset/lmdb/color-20-80/test_db
I0403 14:51:56.159364 30507 data_layer.cpp:41] output data size: 24,3,224,224
I0403 14:51:56.314347 30507 net.cpp:141] Setting up data
I0403 14:51:56.314440 30507 net.cpp:148] Top shape: 24 3 224 224 (3612672)
I0403 14:51:56.314481 30507 net.cpp:148] Top shape: 24 (24)
I0403 14:51:56.314509 30507 net.cpp:156] Memory required for data: 14450784
I0403 14:51:56.314551 30507 layer_factory.hpp:77] Creating layer label_data_1_split
I0403 14:51:56.314581 30507 net.cpp:91] Creating Layer label_data_1_split
I0403 14:51:56.314611 30507 net.cpp:425] label_data_1_split <- label
I0403 14:51:56.314654 30507 net.cpp:399] label_data_1_split -> label_data_1_split_0
I0403 14:51:56.314704 30507 net.cpp:399] label_data_1_split -> label_data_1_split_1
I0403 14:51:56.314728 30507 net.cpp:399] label_data_1_split -> label_data_1_split_2
I0403 14:51:56.314754 30507 net.cpp:399] label_data_1_split -> label_data_1_split_3
I0403 14:51:56.314785 30507 net.cpp:399] label_data_1_split -> label_data_1_split_4
I0403 14:51:56.314833 30507 net.cpp:399] label_data_1_split -> label_data_1_split_5
I0403 14:51:56.314872 30507 net.cpp:399] label_data_1_split -> label_data_1_split_6
I0403 14:51:56.314894 30507 net.cpp:399] label_data_1_split -> label_data_1_split_7
I0403 14:51:56.314918 30507 net.cpp:399] label_data_1_split -> label_data_1_split_8
I0403 14:51:56.314941 30507 net.cpp:399] label_data_1_split -> label_data_1_split_9
I0403 14:51:56.315078 30507 net.cpp:141] Setting up label_data_1_split
I0403 14:51:56.315104 30507 net.cpp:148] Top shape: 24 (24)
I0403 14:51:56.315124 30507 net.cpp:148] Top shape: 24 (24)
I0403 14:51:56.315142 30507 net.cpp:148] Top shape: 24 (24)
I0403 14:51:56.315161 30507 net.cpp:148] Top shape: 24 (24)
I0403 14:51:56.315179 30507 net.cpp:148] Top shape: 24 (24)
I0403 14:51:56.315198 30507 net.cpp:148] Top shape: 24 (24)
I0403 14:51:56.315217 30507 net.cpp:148] Top shape: 24 (24)
I0403 14:51:56.315234 30507 net.cpp:148] Top shape: 24 (24)
I0403 14:51:56.315253 30507 net.cpp:148] Top shape: 24 (24)
I0403 14:51:56.315271 30507 net.cpp:148] Top shape: 24 (24)
I0403 14:51:56.315327 30507 net.cpp:156] Memory required for data: 14451744
I0403 14:51:56.315346 30507 layer_factory.hpp:77] Creating layer conv1/7x7_s2
I0403 14:51:56.315381 30507 net.cpp:91] Creating Layer conv1/7x7_s2
I0403 14:51:56.315400 30507 net.cpp:425] conv1/7x7_s2 <- data
I0403 14:51:56.315423 30507 net.cpp:399] conv1/7x7_s2 -> conv1/7x7_s2
I0403 14:51:58.496001 30507 net.cpp:141] Setting up conv1/7x7_s2
I0403 14:51:58.496083 30507 net.cpp:148] Top shape: 24 64 112 112 (19267584)
I0403 14:51:58.496105 30507 net.cpp:156] Memory required for data: 91522080
I0403 14:51:58.496140 30507 layer_factory.hpp:77] Creating layer conv1/relu_7x7
I0403 14:51:58.496172 30507 net.cpp:91] Creating Layer conv1/relu_7x7
I0403 14:51:58.496193 30507 net.cpp:425] conv1/relu_7x7 <- conv1/7x7_s2
I0403 14:51:58.496217 30507 net.cpp:386] conv1/relu_7x7 -> conv1/7x7_s2 (in-place)
I0403 14:51:58.496987 30507 net.cpp:141] Setting up conv1/relu_7x7
I0403 14:51:58.497025 30507 net.cpp:148] Top shape: 24 64 112 112 (19267584)
I0403 14:51:58.497045 30507 net.cpp:156] Memory required for data: 168592416
I0403 14:51:58.497062 30507 layer_factory.hpp:77] Creating layer pool1/3x3_s2
I0403 14:51:58.497092 30507 net.cpp:91] Creating Layer pool1/3x3_s2
I0403 14:51:58.497115 30507 net.cpp:425] pool1/3x3_s2 <- conv1/7x7_s2
I0403 14:51:58.497138 30507 net.cpp:399] pool1/3x3_s2 -> pool1/3x3_s2
I0403 14:51:58.497222 30507 net.cpp:141] Setting up pool1/3x3_s2
I0403 14:51:58.497251 30507 net.cpp:148] Top shape: 24 64 56 56 (4816896)
I0403 14:51:58.497268 30507 net.cpp:156] Memory required for data: 187860000
I0403 14:51:58.497288 30507 layer_factory.hpp:77] Creating layer pool1/norm1
I0403 14:51:58.497320 30507 net.cpp:91] Creating Layer pool1/norm1
I0403 14:51:58.497342 30507 net.cpp:425] pool1/norm1 <- pool1/3x3_s2
I0403 14:51:58.497364 30507 net.cpp:399] pool1/norm1 -> pool1/norm1
I0403 14:51:58.502735 30507 net.cpp:141] Setting up pool1/norm1
I0403 14:51:58.502821 30507 net.cpp:148] Top shape: 24 64 56 56 (4816896)
I0403 14:51:58.502840 30507 net.cpp:156] Memory required for data: 207127584
I0403 14:51:58.502861 30507 layer_factory.hpp:77] Creating layer conv2/3x3_reduce
I0403 14:51:58.502893 30507 net.cpp:91] Creating Layer conv2/3x3_reduce
I0403 14:51:58.502915 30507 net.cpp:425] conv2/3x3_reduce <- pool1/norm1
I0403 14:51:58.502941 30507 net.cpp:399] conv2/3x3_reduce -> conv2/3x3_reduce
I0403 14:51:58.509810 30507 net.cpp:141] Setting up conv2/3x3_reduce
I0403 14:51:58.509897 30507 net.cpp:148] Top shape: 24 64 56 56 (4816896)
I0403 14:51:58.509918 30507 net.cpp:156] Memory required for data: 226395168
I0403 14:51:58.509950 30507 layer_factory.hpp:77] Creating layer conv2/relu_3x3_reduce
I0403 14:51:58.509977 30507 net.cpp:91] Creating Layer conv2/relu_3x3_reduce
I0403 14:51:58.509997 30507 net.cpp:425] conv2/relu_3x3_reduce <- conv2/3x3_reduce
I0403 14:51:58.510021 30507 net.cpp:386] conv2/relu_3x3_reduce -> conv2/3x3_reduce (in-place)
I0403 14:51:58.510435 30507 net.cpp:141] Setting up conv2/relu_3x3_reduce
I0403 14:51:58.510468 30507 net.cpp:148] Top shape: 24 64 56 56 (4816896)
I0403 14:51:58.510486 30507 net.cpp:156] Memory required for data: 245662752
I0403 14:51:58.510504 30507 layer_factory.hpp:77] Creating layer conv2/3x3
I0403 14:51:58.510535 30507 net.cpp:91] Creating Layer conv2/3x3
I0403 14:51:58.510556 30507 net.cpp:425] conv2/3x3 <- conv2/3x3_reduce
I0403 14:51:58.510579 30507 net.cpp:399] conv2/3x3 -> conv2/3x3
I0403 14:51:58.523388 30507 net.cpp:141] Setting up conv2/3x3
I0403 14:51:58.523471 30507 net.cpp:148] Top shape: 24 192 56 56 (14450688)
I0403 14:51:58.523493 30507 net.cpp:156] Memory required for data: 303465504
I0403 14:51:58.523521 30507 layer_factory.hpp:77] Creating layer conv2/relu_3x3
I0403 14:51:58.523546 30507 net.cpp:91] Creating Layer conv2/relu_3x3
I0403 14:51:58.523566 30507 net.cpp:425] conv2/relu_3x3 <- conv2/3x3
I0403 14:51:58.523586 30507 net.cpp:386] conv2/relu_3x3 -> conv2/3x3 (in-place)
I0403 14:51:58.523771 30507 net.cpp:141] Setting up conv2/relu_3x3
I0403 14:51:58.523797 30507 net.cpp:148] Top shape: 24 192 56 56 (14450688)
I0403 14:51:58.523846 30507 net.cpp:156] Memory required for data: 361268256
I0403 14:51:58.523864 30507 layer_factory.hpp:77] Creating layer conv2/norm2
I0403 14:51:58.523888 30507 net.cpp:91] Creating Layer conv2/norm2
I0403 14:51:58.523906 30507 net.cpp:425] conv2/norm2 <- conv2/3x3
I0403 14:51:58.523926 30507 net.cpp:399] conv2/norm2 -> conv2/norm2
I0403 14:51:58.524281 30507 net.cpp:141] Setting up conv2/norm2
I0403 14:51:58.524309 30507 net.cpp:148] Top shape: 24 192 56 56 (14450688)
I0403 14:51:58.524344 30507 net.cpp:156] Memory required for data: 419071008
I0403 14:51:58.524363 30507 layer_factory.hpp:77] Creating layer pool2/3x3_s2
I0403 14:51:58.524384 30507 net.cpp:91] Creating Layer pool2/3x3_s2
I0403 14:51:58.524402 30507 net.cpp:425] pool2/3x3_s2 <- conv2/norm2
I0403 14:51:58.524422 30507 net.cpp:399] pool2/3x3_s2 -> pool2/3x3_s2
I0403 14:51:58.524479 30507 net.cpp:141] Setting up pool2/3x3_s2
I0403 14:51:58.524503 30507 net.cpp:148] Top shape: 24 192 28 28 (3612672)
I0403 14:51:58.524519 30507 net.cpp:156] Memory required for data: 433521696
I0403 14:51:58.524534 30507 layer_factory.hpp:77] Creating layer pool2/3x3_s2_pool2/3x3_s2_0_split
I0403 14:51:58.524554 30507 net.cpp:91] Creating Layer pool2/3x3_s2_pool2/3x3_s2_0_split
I0403 14:51:58.524571 30507 net.cpp:425] pool2/3x3_s2_pool2/3x3_s2_0_split <- pool2/3x3_s2
I0403 14:51:58.524592 30507 net.cpp:399] pool2/3x3_s2_pool2/3x3_s2_0_split -> pool2/3x3_s2_pool2/3x3_s2_0_split_0
I0403 14:51:58.524613 30507 net.cpp:399] pool2/3x3_s2_pool2/3x3_s2_0_split -> pool2/3x3_s2_pool2/3x3_s2_0_split_1
I0403 14:51:58.524634 30507 net.cpp:399] pool2/3x3_s2_pool2/3x3_s2_0_split -> pool2/3x3_s2_pool2/3x3_s2_0_split_2
I0403 14:51:58.524654 30507 net.cpp:399] pool2/3x3_s2_pool2/3x3_s2_0_split -> pool2/3x3_s2_pool2/3x3_s2_0_split_3
I0403 14:51:58.524725 30507 net.cpp:141] Setting up pool2/3x3_s2_pool2/3x3_s2_0_split
I0403 14:51:58.524751 30507 net.cpp:148] Top shape: 24 192 28 28 (3612672)
I0403 14:51:58.524770 30507 net.cpp:148] Top shape: 24 192 28 28 (3612672)
I0403 14:51:58.524787 30507 net.cpp:148] Top shape: 24 192 28 28 (3612672)
I0403 14:51:58.524803 30507 net.cpp:148] Top shape: 24 192 28 28 (3612672)
I0403 14:51:58.524818 30507 net.cpp:156] Memory required for data: 491324448
I0403 14:51:58.524832 30507 layer_factory.hpp:77] Creating layer inception_3a/1x1
I0403 14:51:58.524859 30507 net.cpp:91] Creating Layer inception_3a/1x1
I0403 14:51:58.524878 30507 net.cpp:425] inception_3a/1x1 <- pool2/3x3_s2_pool2/3x3_s2_0_split_0
I0403 14:51:58.524899 30507 net.cpp:399] inception_3a/1x1 -> inception_3a/1x1
I0403 14:51:58.530992 30507 net.cpp:141] Setting up inception_3a/1x1
I0403 14:51:58.531069 30507 net.cpp:148] Top shape: 24 64 28 28 (1204224)
I0403 14:51:58.531088 30507 net.cpp:156] Memory required for data: 496141344
I0403 14:51:58.531113 30507 layer_factory.hpp:77] Creating layer inception_3a/relu_1x1
I0403 14:51:58.531139 30507 net.cpp:91] Creating Layer inception_3a/relu_1x1
I0403 14:51:58.531158 30507 net.cpp:425] inception_3a/relu_1x1 <- inception_3a/1x1
I0403 14:51:58.531179 30507 net.cpp:386] inception_3a/relu_1x1 -> inception_3a/1x1 (in-place)
I0403 14:51:58.531384 30507 net.cpp:141] Setting up inception_3a/relu_1x1
I0403 14:51:58.531412 30507 net.cpp:148] Top shape: 24 64 28 28 (1204224)
I0403 14:51:58.531429 30507 net.cpp:156] Memory required for data: 500958240
I0403 14:51:58.531445 30507 layer_factory.hpp:77] Creating layer inception_3a/3x3_reduce
I0403 14:51:58.531473 30507 net.cpp:91] Creating Layer inception_3a/3x3_reduce
I0403 14:51:58.531494 30507 net.cpp:425] inception_3a/3x3_reduce <- pool2/3x3_s2_pool2/3x3_s2_0_split_1
I0403 14:51:58.531517 30507 net.cpp:399] inception_3a/3x3_reduce -> inception_3a/3x3_reduce
I0403 14:51:58.538239 30507 net.cpp:141] Setting up inception_3a/3x3_reduce
I0403 14:51:58.538321 30507 net.cpp:148] Top shape: 24 96 28 28 (1806336)
I0403 14:51:58.538341 30507 net.cpp:156] Memory required for data: 508183584
I0403 14:51:58.538367 30507 layer_factory.hpp:77] Creating layer inception_3a/relu_3x3_reduce
I0403 14:51:58.538429 30507 net.cpp:91] Creating Layer inception_3a/relu_3x3_reduce
I0403 14:51:58.538450 30507 net.cpp:425] inception_3a/relu_3x3_reduce <- inception_3a/3x3_reduce
I0403 14:51:58.538473 30507 net.cpp:386] inception_3a/relu_3x3_reduce -> inception_3a/3x3_reduce (in-place)
I0403 14:51:58.538660 30507 net.cpp:141] Setting up inception_3a/relu_3x3_reduce
I0403 14:51:58.538686 30507 net.cpp:148] Top shape: 24 96 28 28 (1806336)
I0403 14:51:58.538702 30507 net.cpp:156] Memory required for data: 515408928
I0403 14:51:58.538717 30507 layer_factory.hpp:77] Creating layer inception_3a/3x3
I0403 14:51:58.538744 30507 net.cpp:91] Creating Layer inception_3a/3x3
I0403 14:51:58.538763 30507 net.cpp:425] inception_3a/3x3 <- inception_3a/3x3_reduce
I0403 14:51:58.538785 30507 net.cpp:399] inception_3a/3x3 -> inception_3a/3x3
I0403 14:51:58.544652 30507 net.cpp:141] Setting up inception_3a/3x3
I0403 14:51:58.544734 30507 net.cpp:148] Top shape: 24 128 28 28 (2408448)
I0403 14:51:58.544754 30507 net.cpp:156] Memory required for data: 525042720
I0403 14:51:58.544777 30507 layer_factory.hpp:77] Creating layer inception_3a/relu_3x3
I0403 14:51:58.544801 30507 net.cpp:91] Creating Layer inception_3a/relu_3x3
I0403 14:51:58.544821 30507 net.cpp:425] inception_3a/relu_3x3 <- inception_3a/3x3
I0403 14:51:58.544845 30507 net.cpp:386] inception_3a/relu_3x3 -> inception_3a/3x3 (in-place)
I0403 14:51:58.545132 30507 net.cpp:141] Setting up inception_3a/relu_3x3
I0403 14:51:58.545163 30507 net.cpp:148] Top shape: 24 128 28 28 (2408448)
I0403 14:51:58.545181 30507 net.cpp:156] Memory required for data: 534676512
I0403 14:51:58.545197 30507 layer_factory.hpp:77] Creating layer inception_3a/5x5_reduce
I0403 14:51:58.545224 30507 net.cpp:91] Creating Layer inception_3a/5x5_reduce
I0403 14:51:58.545243 30507 net.cpp:425] inception_3a/5x5_reduce <- pool2/3x3_s2_pool2/3x3_s2_0_split_2
I0403 14:51:58.545264 30507 net.cpp:399] inception_3a/5x5_reduce -> inception_3a/5x5_reduce
I0403 14:51:58.551611 30507 net.cpp:141] Setting up inception_3a/5x5_reduce
I0403 14:51:58.551690 30507 net.cpp:148] Top shape: 24 16 28 28 (301056)
I0403 14:51:58.551709 30507 net.cpp:156] Memory required for data: 535880736
I0403 14:51:58.551734 30507 layer_factory.hpp:77] Creating layer inception_3a/relu_5x5_reduce
I0403 14:51:58.551759 30507 net.cpp:91] Creating Layer inception_3a/relu_5x5_reduce
I0403 14:51:58.551779 30507 net.cpp:425] inception_3a/relu_5x5_reduce <- inception_3a/5x5_reduce
I0403 14:51:58.551803 30507 net.cpp:386] inception_3a/relu_5x5_reduce -> inception_3a/5x5_reduce (in-place)
I0403 14:51:58.552182 30507 net.cpp:141] Setting up inception_3a/relu_5x5_reduce
I0403 14:51:58.552211 30507 net.cpp:148] Top shape: 24 16 28 28 (301056)
I0403 14:51:58.552227 30507 net.cpp:156] Memory required for data: 537084960
I0403 14:51:58.552243 30507 layer_factory.hpp:77] Creating layer inception_3a/5x5
I0403 14:51:58.552273 30507 net.cpp:91] Creating Layer inception_3a/5x5
I0403 14:51:58.552291 30507 net.cpp:425] inception_3a/5x5 <- inception_3a/5x5_reduce
I0403 14:51:58.552314 30507 net.cpp:399] inception_3a/5x5 -> inception_3a/5x5
I0403 14:51:58.558550 30507 net.cpp:141] Setting up inception_3a/5x5
I0403 14:51:58.558631 30507 net.cpp:148] Top shape: 24 32 28 28 (602112)
I0403 14:51:58.558651 30507 net.cpp:156] Memory required for data: 539493408
I0403 14:51:58.558675 30507 layer_factory.hpp:77] Creating layer inception_3a/relu_5x5
I0403 14:51:58.558699 30507 net.cpp:91] Creating Layer inception_3a/relu_5x5
I0403 14:51:58.558719 30507 net.cpp:425] inception_3a/relu_5x5 <- inception_3a/5x5
I0403 14:51:58.558743 30507 net.cpp:386] inception_3a/relu_5x5 -> inception_3a/5x5 (in-place)
I0403 14:51:58.558923 30507 net.cpp:141] Setting up inception_3a/relu_5x5
I0403 14:51:58.558950 30507 net.cpp:148] Top shape: 24 32 28 28 (602112)
I0403 14:51:58.558965 30507 net.cpp:156] Memory required for data: 541901856
I0403 14:51:58.558981 30507 layer_factory.hpp:77] Creating layer inception_3a/pool
I0403 14:51:58.559001 30507 net.cpp:91] Creating Layer inception_3a/pool
I0403 14:51:58.559020 30507 net.cpp:425] inception_3a/pool <- pool2/3x3_s2_pool2/3x3_s2_0_split_3
I0403 14:51:58.559074 30507 net.cpp:399] inception_3a/pool -> inception_3a/pool
I0403 14:51:58.559139 30507 net.cpp:141] Setting up inception_3a/pool
I0403 14:51:58.559164 30507 net.cpp:148] Top shape: 24 192 28 28 (3612672)
I0403 14:51:58.559180 30507 net.cpp:156] Memory required for data: 556352544
I0403 14:51:58.559195 30507 layer_factory.hpp:77] Creating layer inception_3a/pool_proj
I0403 14:51:58.559226 30507 net.cpp:91] Creating Layer inception_3a/pool_proj
I0403 14:51:58.559247 30507 net.cpp:425] inception_3a/pool_proj <- inception_3a/pool
I0403 14:51:58.559265 30507 net.cpp:399] inception_3a/pool_proj -> inception_3a/pool_proj
I0403 14:51:58.565742 30507 net.cpp:141] Setting up inception_3a/pool_proj
I0403 14:51:58.565820 30507 net.cpp:148] Top shape: 24 32 28 28 (602112)
I0403 14:51:58.565839 30507 net.cpp:156] Memory required for data: 558760992
I0403 14:51:58.565874 30507 layer_factory.hpp:77] Creating layer inception_3a/relu_pool_proj
I0403 14:51:58.565901 30507 net.cpp:91] Creating Layer inception_3a/relu_pool_proj
I0403 14:51:58.565922 30507 net.cpp:425] inception_3a/relu_pool_proj <- inception_3a/pool_proj
I0403 14:51:58.565943 30507 net.cpp:386] inception_3a/relu_pool_proj -> inception_3a/pool_proj (in-place)
I0403 14:51:58.571710 30507 net.cpp:141] Setting up inception_3a/relu_pool_proj
I0403 14:51:58.571789 30507 net.cpp:148] Top shape: 24 32 28 28 (602112)
I0403 14:51:58.571808 30507 net.cpp:156] Memory required for data: 561169440
I0403 14:51:58.571828 30507 layer_factory.hpp:77] Creating layer inception_3a/output
I0403 14:51:58.571852 30507 net.cpp:91] Creating Layer inception_3a/output
I0403 14:51:58.571871 30507 net.cpp:425] inception_3a/output <- inception_3a/1x1
I0403 14:51:58.571890 30507 net.cpp:425] inception_3a/output <- inception_3a/3x3
I0403 14:51:58.571907 30507 net.cpp:425] inception_3a/output <- inception_3a/5x5
I0403 14:51:58.571924 30507 net.cpp:425] inception_3a/output <- inception_3a/pool_proj
I0403 14:51:58.571945 30507 net.cpp:399] inception_3a/output -> inception_3a/output
I0403 14:51:58.572012 30507 net.cpp:141] Setting up inception_3a/output
I0403 14:51:58.572036 30507 net.cpp:148] Top shape: 24 256 28 28 (4816896)
I0403 14:51:58.572052 30507 net.cpp:156] Memory required for data: 580437024
I0403 14:51:58.572067 30507 layer_factory.hpp:77] Creating layer inception_3a/output_inception_3a/output_0_split
I0403 14:51:58.572089 30507 net.cpp:91] Creating Layer inception_3a/output_inception_3a/output_0_split
I0403 14:51:58.572106 30507 net.cpp:425] inception_3a/output_inception_3a/output_0_split <- inception_3a/output
I0403 14:51:58.572124 30507 net.cpp:399] inception_3a/output_inception_3a/output_0_split -> inception_3a/output_inception_3a/output_0_split_0
I0403 14:51:58.572144 30507 net.cpp:399] inception_3a/output_inception_3a/output_0_split -> inception_3a/output_inception_3a/output_0_split_1
I0403 14:51:58.572170 30507 net.cpp:399] inception_3a/output_inception_3a/output_0_split -> inception_3a/output_inception_3a/output_0_split_2
I0403 14:51:58.572191 30507 net.cpp:399] inception_3a/output_inception_3a/output_0_split -> inception_3a/output_inception_3a/output_0_split_3
I0403 14:51:58.572269 30507 net.cpp:141] Setting up inception_3a/output_inception_3a/output_0_split
I0403 14:51:58.572295 30507 net.cpp:148] Top shape: 24 256 28 28 (4816896)
I0403 14:51:58.572319 30507 net.cpp:148] Top shape: 24 256 28 28 (4816896)
I0403 14:51:58.572337 30507 net.cpp:148] Top shape: 24 256 28 28 (4816896)
I0403 14:51:58.572353 30507 net.cpp:148] Top shape: 24 256 28 28 (4816896)
I0403 14:51:58.572367 30507 net.cpp:156] Memory required for data: 657507360
I0403 14:51:58.572382 30507 layer_factory.hpp:77] Creating layer inception_3b/1x1
I0403 14:51:58.572409 30507 net.cpp:91] Creating Layer inception_3b/1x1
I0403 14:51:58.572428 30507 net.cpp:425] inception_3b/1x1 <- inception_3a/output_inception_3a/output_0_split_0
I0403 14:51:58.572448 30507 net.cpp:399] inception_3b/1x1 -> inception_3b/1x1
I0403 14:51:58.579095 30507 net.cpp:141] Setting up inception_3b/1x1
I0403 14:51:58.579202 30507 net.cpp:148] Top shape: 24 128 28 28 (2408448)
I0403 14:51:58.579221 30507 net.cpp:156] Memory required for data: 667141152
I0403 14:51:58.579246 30507 layer_factory.hpp:77] Creating layer inception_3b/relu_1x1
I0403 14:51:58.579273 30507 net.cpp:91] Creating Layer inception_3b/relu_1x1
I0403 14:51:58.579291 30507 net.cpp:425] inception_3b/relu_1x1 <- inception_3b/1x1
I0403 14:51:58.579313 30507 net.cpp:386] inception_3b/relu_1x1 -> inception_3b/1x1 (in-place)
I0403 14:51:58.579530 30507 net.cpp:141] Setting up inception_3b/relu_1x1
I0403 14:51:58.579558 30507 net.cpp:148] Top shape: 24 128 28 28 (2408448)
I0403 14:51:58.579577 30507 net.cpp:156] Memory required for data: 676774944
I0403 14:51:58.579594 30507 layer_factory.hpp:77] Creating layer inception_3b/3x3_reduce
I0403 14:51:58.579622 30507 net.cpp:91] Creating Layer inception_3b/3x3_reduce
I0403 14:51:58.579640 30507 net.cpp:425] inception_3b/3x3_reduce <- inception_3a/output_inception_3a/output_0_split_1
I0403 14:51:58.579661 30507 net.cpp:399] inception_3b/3x3_reduce -> inception_3b/3x3_reduce
I0403 14:51:58.586300 30507 net.cpp:141] Setting up inception_3b/3x3_reduce
I0403 14:51:58.586382 30507 net.cpp:148] Top shape: 24 128 28 28 (2408448)
I0403 14:51:58.586400 30507 net.cpp:156] Memory required for data: 686408736
I0403 14:51:58.586424 30507 layer_factory.hpp:77] Creating layer inception_3b/relu_3x3_reduce
I0403 14:51:58.586450 30507 net.cpp:91] Creating Layer inception_3b/relu_3x3_reduce
I0403 14:51:58.586472 30507 net.cpp:425] inception_3b/relu_3x3_reduce <- inception_3b/3x3_reduce
I0403 14:51:58.586491 30507 net.cpp:386] inception_3b/relu_3x3_reduce -> inception_3b/3x3_reduce (in-place)
I0403 14:51:58.586678 30507 net.cpp:141] Setting up inception_3b/relu_3x3_reduce
I0403 14:51:58.586706 30507 net.cpp:148] Top shape: 24 128 28 28 (2408448)
I0403 14:51:58.586722 30507 net.cpp:156] Memory required for data: 696042528
I0403 14:51:58.586738 30507 layer_factory.hpp:77] Creating layer inception_3b/3x3
I0403 14:51:58.586776 30507 net.cpp:91] Creating Layer inception_3b/3x3
I0403 14:51:58.586796 30507 net.cpp:425] inception_3b/3x3 <- inception_3b/3x3_reduce
I0403 14:51:58.586817 30507 net.cpp:399] inception_3b/3x3 -> inception_3b/3x3
I0403 14:51:58.599993 30507 net.cpp:141] Setting up inception_3b/3x3
I0403 14:51:58.600069 30507 net.cpp:148] Top shape: 24 192 28 28 (3612672)
I0403 14:51:58.600086 30507 net.cpp:156] Memory required for data: 710493216
I0403 14:51:58.600111 30507 layer_factory.hpp:77] Creating layer inception_3b/relu_3x3
I0403 14:51:58.600133 30507 net.cpp:91] Creating Layer inception_3b/relu_3x3
I0403 14:51:58.600153 30507 net.cpp:425] inception_3b/relu_3x3 <- inception_3b/3x3
I0403 14:51:58.600177 30507 net.cpp:386] inception_3b/relu_3x3 -> inception_3b/3x3 (in-place)
I0403 14:51:58.600525 30507 net.cpp:141] Setting up inception_3b/relu_3x3
I0403 14:51:58.600556 30507 net.cpp:148] Top shape: 24 192 28 28 (3612672)
I0403 14:51:58.600574 30507 net.cpp:156] Memory required for data: 724943904
I0403 14:51:58.600602 30507 layer_factory.hpp:77] Creating layer inception_3b/5x5_reduce
I0403 14:51:58.600631 30507 net.cpp:91] Creating Layer inception_3b/5x5_reduce
I0403 14:51:58.600651 30507 net.cpp:425] inception_3b/5x5_reduce <- inception_3a/output_inception_3a/output_0_split_2
I0403 14:51:58.600672 30507 net.cpp:399] inception_3b/5x5_reduce -> inception_3b/5x5_reduce
I0403 14:51:58.605537 30507 net.cpp:141] Setting up inception_3b/5x5_reduce
I0403 14:51:58.605618 30507 net.cpp:148] Top shape: 24 32 28 28 (602112)
I0403 14:51:58.605635 30507 net.cpp:156] Memory required for data: 727352352
I0403 14:51:58.605660 30507 layer_factory.hpp:77] Creating layer inception_3b/relu_5x5_reduce
I0403 14:51:58.605698 30507 net.cpp:91] Creating Layer inception_3b/relu_5x5_reduce
I0403 14:51:58.605717 30507 net.cpp:425] inception_3b/relu_5x5_reduce <- inception_3b/5x5_reduce
I0403 14:51:58.605753 30507 net.cpp:386] inception_3b/relu_5x5_reduce -> inception_3b/5x5_reduce (in-place)
I0403 14:51:58.605942 30507 net.cpp:141] Setting up inception_3b/relu_5x5_reduce
I0403 14:51:58.605998 30507 net.cpp:148] Top shape: 24 32 28 28 (602112)
I0403 14:51:58.606015 30507 net.cpp:156] Memory required for data: 729760800
I0403 14:51:58.606030 30507 layer_factory.hpp:77] Creating layer inception_3b/5x5
I0403 14:51:58.606057 30507 net.cpp:91] Creating Layer inception_3b/5x5
I0403 14:51:58.606077 30507 net.cpp:425] inception_3b/5x5 <- inception_3b/5x5_reduce
I0403 14:51:58.606098 30507 net.cpp:399] inception_3b/5x5 -> inception_3b/5x5
I0403 14:51:58.611538 30507 net.cpp:141] Setting up inception_3b/5x5
I0403 14:51:58.611611 30507 net.cpp:148] Top shape: 24 96 28 28 (1806336)
I0403 14:51:58.611629 30507 net.cpp:156] Memory required for data: 736986144
I0403 14:51:58.611650 30507 layer_factory.hpp:77] Creating layer inception_3b/relu_5x5
I0403 14:51:58.611677 30507 net.cpp:91] Creating Layer inception_3b/relu_5x5
I0403 14:51:58.611698 30507 net.cpp:425] inception_3b/relu_5x5 <- inception_3b/5x5
I0403 14:51:58.611719 30507 net.cpp:386] inception_3b/relu_5x5 -> inception_3b/5x5 (in-place)
I0403 14:51:58.611913 30507 net.cpp:141] Setting up inception_3b/relu_5x5
I0403 14:51:58.611939 30507 net.cpp:148] Top shape: 24 96 28 28 (1806336)
I0403 14:51:58.611955 30507 net.cpp:156] Memory required for data: 744211488
I0403 14:51:58.611970 30507 layer_factory.hpp:77] Creating layer inception_3b/pool
I0403 14:51:58.611990 30507 net.cpp:91] Creating Layer inception_3b/pool
I0403 14:51:58.612007 30507 net.cpp:425] inception_3b/pool <- inception_3a/output_inception_3a/output_0_split_3
I0403 14:51:58.612027 30507 net.cpp:399] inception_3b/pool -> inception_3b/pool
I0403 14:51:58.612087 30507 net.cpp:141] Setting up inception_3b/pool
I0403 14:51:58.612109 30507 net.cpp:148] Top shape: 24 256 28 28 (4816896)
I0403 14:51:58.612126 30507 net.cpp:156] Memory required for data: 763479072
I0403 14:51:58.612141 30507 layer_factory.hpp:77] Creating layer inception_3b/pool_proj
I0403 14:51:58.612169 30507 net.cpp:91] Creating Layer inception_3b/pool_proj
I0403 14:51:58.612188 30507 net.cpp:425] inception_3b/pool_proj <- inception_3b/pool
I0403 14:51:58.612208 30507 net.cpp:399] inception_3b/pool_proj -> inception_3b/pool_proj
I0403 14:51:58.613324 30507 net.cpp:141] Setting up inception_3b/pool_proj
I0403 14:51:58.613353 30507 net.cpp:148] Top shape: 24 64 28 28 (1204224)
I0403 14:51:58.613369 30507 net.cpp:156] Memory required for data: 768295968
I0403 14:51:58.613389 30507 layer_factory.hpp:77] Creating layer inception_3b/relu_pool_proj
I0403 14:51:58.613406 30507 net.cpp:91] Creating Layer inception_3b/relu_pool_proj
I0403 14:51:58.613423 30507 net.cpp:425] inception_3b/relu_pool_proj <- inception_3b/pool_proj
I0403 14:51:58.613445 30507 net.cpp:386] inception_3b/relu_pool_proj -> inception_3b/pool_proj (in-place)
I0403 14:51:58.613832 30507 net.cpp:141] Setting up inception_3b/relu_pool_proj
I0403 14:51:58.613859 30507 net.cpp:148] Top shape: 24 64 28 28 (1204224)
I0403 14:51:58.613875 30507 net.cpp:156] Memory required for data: 773112864
I0403 14:51:58.613890 30507 layer_factory.hpp:77] Creating layer inception_3b/output
I0403 14:51:58.613909 30507 net.cpp:91] Creating Layer inception_3b/output
I0403 14:51:58.613925 30507 net.cpp:425] inception_3b/output <- inception_3b/1x1
I0403 14:51:58.613943 30507 net.cpp:425] inception_3b/output <- inception_3b/3x3
I0403 14:51:58.613960 30507 net.cpp:425] inception_3b/output <- inception_3b/5x5
I0403 14:51:58.613976 30507 net.cpp:425] inception_3b/output <- inception_3b/pool_proj
I0403 14:51:58.613996 30507 net.cpp:399] inception_3b/output -> inception_3b/output
I0403 14:51:58.614040 30507 net.cpp:141] Setting up inception_3b/output
I0403 14:51:58.614078 30507 net.cpp:148] Top shape: 24 480 28 28 (9031680)
I0403 14:51:58.614099 30507 net.cpp:156] Memory required for data: 809239584
I0403 14:51:58.614115 30507 layer_factory.hpp:77] Creating layer pool3/3x3_s2
I0403 14:51:58.614133 30507 net.cpp:91] Creating Layer pool3/3x3_s2
I0403 14:51:58.614151 30507 net.cpp:425] pool3/3x3_s2 <- inception_3b/output
I0403 14:51:58.614174 30507 net.cpp:399] pool3/3x3_s2 -> pool3/3x3_s2
I0403 14:51:58.614253 30507 net.cpp:141] Setting up pool3/3x3_s2
I0403 14:51:58.614277 30507 net.cpp:148] Top shape: 24 480 14 14 (2257920)
I0403 14:51:58.614306 30507 net.cpp:156] Memory required for data: 818271264
I0403 14:51:58.614341 30507 layer_factory.hpp:77] Creating layer pool3/3x3_s2_pool3/3x3_s2_0_split
I0403 14:51:58.614365 30507 net.cpp:91] Creating Layer pool3/3x3_s2_pool3/3x3_s2_0_split
I0403 14:51:58.614395 30507 net.cpp:425] pool3/3x3_s2_pool3/3x3_s2_0_split <- pool3/3x3_s2
I0403 14:51:58.614413 30507 net.cpp:399] pool3/3x3_s2_pool3/3x3_s2_0_split -> pool3/3x3_s2_pool3/3x3_s2_0_split_0
I0403 14:51:58.614434 30507 net.cpp:399] pool3/3x3_s2_pool3/3x3_s2_0_split -> pool3/3x3_s2_pool3/3x3_s2_0_split_1
I0403 14:51:58.614454 30507 net.cpp:399] pool3/3x3_s2_pool3/3x3_s2_0_split -> pool3/3x3_s2_pool3/3x3_s2_0_split_2
I0403 14:51:58.614475 30507 net.cpp:399] pool3/3x3_s2_pool3/3x3_s2_0_split -> pool3/3x3_s2_pool3/3x3_s2_0_split_3
I0403 14:51:58.614554 30507 net.cpp:141] Setting up pool3/3x3_s2_pool3/3x3_s2_0_split
I0403 14:51:58.614579 30507 net.cpp:148] Top shape: 24 480 14 14 (2257920)
I0403 14:51:58.614609 30507 net.cpp:148] Top shape: 24 480 14 14 (2257920)
I0403 14:51:58.614624 30507 net.cpp:148] Top shape: 24 480 14 14 (2257920)
I0403 14:51:58.614641 30507 net.cpp:148] Top shape: 24 480 14 14 (2257920)
I0403 14:51:58.614655 30507 net.cpp:156] Memory required for data: 854397984
I0403 14:51:58.614670 30507 layer_factory.hpp:77] Creating layer inception_4a/1x1
I0403 14:51:58.614692 30507 net.cpp:91] Creating Layer inception_4a/1x1
I0403 14:51:58.614711 30507 net.cpp:425] inception_4a/1x1 <- pool3/3x3_s2_pool3/3x3_s2_0_split_0
I0403 14:51:58.614732 30507 net.cpp:399] inception_4a/1x1 -> inception_4a/1x1
I0403 14:51:58.616428 30507 net.cpp:141] Setting up inception_4a/1x1
I0403 14:51:58.616456 30507 net.cpp:148] Top shape: 24 192 14 14 (903168)
I0403 14:51:58.616474 30507 net.cpp:156] Memory required for data: 858010656
I0403 14:51:58.616494 30507 layer_factory.hpp:77] Creating layer inception_4a/relu_1x1
I0403 14:51:58.616515 30507 net.cpp:91] Creating Layer inception_4a/relu_1x1
I0403 14:51:58.616533 30507 net.cpp:425] inception_4a/relu_1x1 <- inception_4a/1x1
I0403 14:51:58.616550 30507 net.cpp:386] inception_4a/relu_1x1 -> inception_4a/1x1 (in-place)
I0403 14:51:58.616734 30507 net.cpp:141] Setting up inception_4a/relu_1x1
I0403 14:51:58.616761 30507 net.cpp:148] Top shape: 24 192 14 14 (903168)
I0403 14:51:58.616780 30507 net.cpp:156] Memory required for data: 861623328
I0403 14:51:58.616796 30507 layer_factory.hpp:77] Creating layer inception_4a/3x3_reduce
I0403 14:51:58.616818 30507 net.cpp:91] Creating Layer inception_4a/3x3_reduce
I0403 14:51:58.616837 30507 net.cpp:425] inception_4a/3x3_reduce <- pool3/3x3_s2_pool3/3x3_s2_0_split_1
I0403 14:51:58.616858 30507 net.cpp:399] inception_4a/3x3_reduce -> inception_4a/3x3_reduce
I0403 14:51:58.618166 30507 net.cpp:141] Setting up inception_4a/3x3_reduce
I0403 14:51:58.618194 30507 net.cpp:148] Top shape: 24 96 14 14 (451584)
I0403 14:51:58.618211 30507 net.cpp:156] Memory required for data: 863429664
I0403 14:51:58.618238 30507 layer_factory.hpp:77] Creating layer inception_4a/relu_3x3_reduce
I0403 14:51:58.618258 30507 net.cpp:91] Creating Layer inception_4a/relu_3x3_reduce
I0403 14:51:58.618274 30507 net.cpp:425] inception_4a/relu_3x3_reduce <- inception_4a/3x3_reduce
I0403 14:51:58.618294 30507 net.cpp:386] inception_4a/relu_3x3_reduce -> inception_4a/3x3_reduce (in-place)
I0403 14:51:58.618468 30507 net.cpp:141] Setting up inception_4a/relu_3x3_reduce
I0403 14:51:58.618494 30507 net.cpp:148] Top shape: 24 96 14 14 (451584)
I0403 14:51:58.618510 30507 net.cpp:156] Memory required for data: 865236000
I0403 14:51:58.618525 30507 layer_factory.hpp:77] Creating layer inception_4a/3x3
I0403 14:51:58.618548 30507 net.cpp:91] Creating Layer inception_4a/3x3
I0403 14:51:58.618566 30507 net.cpp:425] inception_4a/3x3 <- inception_4a/3x3_reduce
I0403 14:51:58.618588 30507 net.cpp:399] inception_4a/3x3 -> inception_4a/3x3
I0403 14:51:58.621278 30507 net.cpp:141] Setting up inception_4a/3x3
I0403 14:51:58.621307 30507 net.cpp:148] Top shape: 24 208 14 14 (978432)
I0403 14:51:58.621327 30507 net.cpp:156] Memory required for data: 869149728
I0403 14:51:58.621348 30507 layer_factory.hpp:77] Creating layer inception_4a/relu_3x3
I0403 14:51:58.621369 30507 net.cpp:91] Creating Layer inception_4a/relu_3x3
I0403 14:51:58.621388 30507 net.cpp:425] inception_4a/relu_3x3 <- inception_4a/3x3
I0403 14:51:58.621407 30507 net.cpp:386] inception_4a/relu_3x3 -> inception_4a/3x3 (in-place)
I0403 14:51:58.621675 30507 net.cpp:141] Setting up inception_4a/relu_3x3
I0403 14:51:58.621702 30507 net.cpp:148] Top shape: 24 208 14 14 (978432)
I0403 14:51:58.621718 30507 net.cpp:156] Memory required for data: 873063456
I0403 14:51:58.621733 30507 layer_factory.hpp:77] Creating layer inception_4a/5x5_reduce
I0403 14:51:58.621758 30507 net.cpp:91] Creating Layer inception_4a/5x5_reduce
I0403 14:51:58.621778 30507 net.cpp:425] inception_4a/5x5_reduce <- pool3/3x3_s2_pool3/3x3_s2_0_split_2
I0403 14:51:58.621796 30507 net.cpp:399] inception_4a/5x5_reduce -> inception_4a/5x5_reduce
I0403 14:51:58.622814 30507 net.cpp:141] Setting up inception_4a/5x5_reduce
I0403 14:51:58.622844 30507 net.cpp:148] Top shape: 24 16 14 14 (75264)
I0403 14:51:58.622861 30507 net.cpp:156] Memory required for data: 873364512
I0403 14:51:58.622880 30507 layer_factory.hpp:77] Creating layer inception_4a/relu_5x5_reduce
I0403 14:51:58.622900 30507 net.cpp:91] Creating Layer inception_4a/relu_5x5_reduce
I0403 14:51:58.622922 30507 net.cpp:425] inception_4a/relu_5x5_reduce <- inception_4a/5x5_reduce
I0403 14:51:58.622946 30507 net.cpp:386] inception_4a/relu_5x5_reduce -> inception_4a/5x5_reduce (in-place)
I0403 14:51:58.623121 30507 net.cpp:141] Setting up inception_4a/relu_5x5_reduce
I0403 14:51:58.623147 30507 net.cpp:148] Top shape: 24 16 14 14 (75264)
I0403 14:51:58.623162 30507 net.cpp:156] Memory required for data: 873665568
I0403 14:51:58.623178 30507 layer_factory.hpp:77] Creating layer inception_4a/5x5
I0403 14:51:58.623199 30507 net.cpp:91] Creating Layer inception_4a/5x5
I0403 14:51:58.623217 30507 net.cpp:425] inception_4a/5x5 <- inception_4a/5x5_reduce
I0403 14:51:58.623239 30507 net.cpp:399] inception_4a/5x5 -> inception_4a/5x5
I0403 14:51:58.624363 30507 net.cpp:141] Setting up inception_4a/5x5
I0403 14:51:58.624392 30507 net.cpp:148] Top shape: 24 48 14 14 (225792)
I0403 14:51:58.624408 30507 net.cpp:156] Memory required for data: 874568736
I0403 14:51:58.624428 30507 layer_factory.hpp:77] Creating layer inception_4a/relu_5x5
I0403 14:51:58.624446 30507 net.cpp:91] Creating Layer inception_4a/relu_5x5
I0403 14:51:58.624465 30507 net.cpp:425] inception_4a/relu_5x5 <- inception_4a/5x5
I0403 14:51:58.624483 30507 net.cpp:386] inception_4a/relu_5x5 -> inception_4a/5x5 (in-place)
I0403 14:51:58.624652 30507 net.cpp:141] Setting up inception_4a/relu_5x5
I0403 14:51:58.624677 30507 net.cpp:148] Top shape: 24 48 14 14 (225792)
I0403 14:51:58.624693 30507 net.cpp:156] Memory required for data: 875471904
I0403 14:51:58.624709 30507 layer_factory.hpp:77] Creating layer inception_4a/pool
I0403 14:51:58.624729 30507 net.cpp:91] Creating Layer inception_4a/pool
I0403 14:51:58.624747 30507 net.cpp:425] inception_4a/pool <- pool3/3x3_s2_pool3/3x3_s2_0_split_3
I0403 14:51:58.624765 30507 net.cpp:399] inception_4a/pool -> inception_4a/pool
I0403 14:51:58.624825 30507 net.cpp:141] Setting up inception_4a/pool
I0403 14:51:58.624850 30507 net.cpp:148] Top shape: 24 480 14 14 (2257920)
I0403 14:51:58.624866 30507 net.cpp:156] Memory required for data: 884503584
I0403 14:51:58.624881 30507 layer_factory.hpp:77] Creating layer inception_4a/pool_proj
I0403 14:51:58.624904 30507 net.cpp:91] Creating Layer inception_4a/pool_proj
I0403 14:51:58.624922 30507 net.cpp:425] inception_4a/pool_proj <- inception_4a/pool
I0403 14:51:58.624943 30507 net.cpp:399] inception_4a/pool_proj -> inception_4a/pool_proj
I0403 14:51:58.626108 30507 net.cpp:141] Setting up inception_4a/pool_proj
I0403 14:51:58.626137 30507 net.cpp:148] Top shape: 24 64 14 14 (301056)
I0403 14:51:58.626168 30507 net.cpp:156] Memory required for data: 885707808
I0403 14:51:58.626188 30507 layer_factory.hpp:77] Creating layer inception_4a/relu_pool_proj
I0403 14:51:58.626210 30507 net.cpp:91] Creating Layer inception_4a/relu_pool_proj
I0403 14:51:58.626229 30507 net.cpp:425] inception_4a/relu_pool_proj <- inception_4a/pool_proj
I0403 14:51:58.626246 30507 net.cpp:386] inception_4a/relu_pool_proj -> inception_4a/pool_proj (in-place)
I0403 14:51:58.626544 30507 net.cpp:141] Setting up inception_4a/relu_pool_proj
I0403 14:51:58.626574 30507 net.cpp:148] Top shape: 24 64 14 14 (301056)
I0403 14:51:58.626590 30507 net.cpp:156] Memory required for data: 886912032
I0403 14:51:58.626606 30507 layer_factory.hpp:77] Creating layer inception_4a/output
I0403 14:51:58.626624 30507 net.cpp:91] Creating Layer inception_4a/output
I0403 14:51:58.626641 30507 net.cpp:425] inception_4a/output <- inception_4a/1x1
I0403 14:51:58.626660 30507 net.cpp:425] inception_4a/output <- inception_4a/3x3
I0403 14:51:58.626678 30507 net.cpp:425] inception_4a/output <- inception_4a/5x5
I0403 14:51:58.626696 30507 net.cpp:425] inception_4a/output <- inception_4a/pool_proj
I0403 14:51:58.626714 30507 net.cpp:399] inception_4a/output -> inception_4a/output
I0403 14:51:58.626760 30507 net.cpp:141] Setting up inception_4a/output
I0403 14:51:58.626786 30507 net.cpp:148] Top shape: 24 512 14 14 (2408448)
I0403 14:51:58.626803 30507 net.cpp:156] Memory required for data: 896545824
I0403 14:51:58.626818 30507 layer_factory.hpp:77] Creating layer inception_4a/output_inception_4a/output_0_split
I0403 14:51:58.626837 30507 net.cpp:91] Creating Layer inception_4a/output_inception_4a/output_0_split
I0403 14:51:58.626866 30507 net.cpp:425] inception_4a/output_inception_4a/output_0_split <- inception_4a/output
I0403 14:51:58.626888 30507 net.cpp:399] inception_4a/output_inception_4a/output_0_split -> inception_4a/output_inception_4a/output_0_split_0
I0403 14:51:58.626910 30507 net.cpp:399] inception_4a/output_inception_4a/output_0_split -> inception_4a/output_inception_4a/output_0_split_1
I0403 14:51:58.626931 30507 net.cpp:399] inception_4a/output_inception_4a/output_0_split -> inception_4a/output_inception_4a/output_0_split_2
I0403 14:51:58.626952 30507 net.cpp:399] inception_4a/output_inception_4a/output_0_split -> inception_4a/output_inception_4a/output_0_split_3
I0403 14:51:58.626973 30507 net.cpp:399] inception_4a/output_inception_4a/output_0_split -> inception_4a/output_inception_4a/output_0_split_4
I0403 14:51:58.627065 30507 net.cpp:141] Setting up inception_4a/output_inception_4a/output_0_split
I0403 14:51:58.627089 30507 net.cpp:148] Top shape: 24 512 14 14 (2408448)
I0403 14:51:58.627107 30507 net.cpp:148] Top shape: 24 512 14 14 (2408448)
I0403 14:51:58.627125 30507 net.cpp:148] Top shape: 24 512 14 14 (2408448)
I0403 14:51:58.627140 30507 net.cpp:148] Top shape: 24 512 14 14 (2408448)
I0403 14:51:58.627157 30507 net.cpp:148] Top shape: 24 512 14 14 (2408448)
I0403 14:51:58.627172 30507 net.cpp:156] Memory required for data: 944714784
I0403 14:51:58.627187 30507 layer_factory.hpp:77] Creating layer loss1/ave_pool
I0403 14:51:58.627205 30507 net.cpp:91] Creating Layer loss1/ave_pool
I0403 14:51:58.627223 30507 net.cpp:425] loss1/ave_pool <- inception_4a/output_inception_4a/output_0_split_0
I0403 14:51:58.627243 30507 net.cpp:399] loss1/ave_pool -> loss1/ave_pool
I0403 14:51:58.627451 30507 net.cpp:141] Setting up loss1/ave_pool
I0403 14:51:58.627478 30507 net.cpp:148] Top shape: 24 512 4 4 (196608)
I0403 14:51:58.627496 30507 net.cpp:156] Memory required for data: 945501216
I0403 14:51:58.627511 30507 layer_factory.hpp:77] Creating layer loss1/conv
I0403 14:51:58.627540 30507 net.cpp:91] Creating Layer loss1/conv
I0403 14:51:58.627560 30507 net.cpp:425] loss1/conv <- loss1/ave_pool
I0403 14:51:58.627584 30507 net.cpp:399] loss1/conv -> loss1/conv
I0403 14:51:58.629014 30507 net.cpp:141] Setting up loss1/conv
I0403 14:51:58.629041 30507 net.cpp:148] Top shape: 24 128 4 4 (49152)
I0403 14:51:58.629058 30507 net.cpp:156] Memory required for data: 945697824
I0403 14:51:58.629091 30507 layer_factory.hpp:77] Creating layer loss1/relu_conv
I0403 14:51:58.629114 30507 net.cpp:91] Creating Layer loss1/relu_conv
I0403 14:51:58.629132 30507 net.cpp:425] loss1/relu_conv <- loss1/conv
I0403 14:51:58.629150 30507 net.cpp:386] loss1/relu_conv -> loss1/conv (in-place)
I0403 14:51:58.629429 30507 net.cpp:141] Setting up loss1/relu_conv
I0403 14:51:58.629456 30507 net.cpp:148] Top shape: 24 128 4 4 (49152)
I0403 14:51:58.629472 30507 net.cpp:156] Memory required for data: 945894432
I0403 14:51:58.629487 30507 layer_factory.hpp:77] Creating layer loss1/fc
I0403 14:51:58.629513 30507 net.cpp:91] Creating Layer loss1/fc
I0403 14:51:58.629533 30507 net.cpp:425] loss1/fc <- loss1/conv
I0403 14:51:58.629554 30507 net.cpp:399] loss1/fc -> loss1/fc
I0403 14:51:58.647202 30507 net.cpp:141] Setting up loss1/fc
I0403 14:51:58.647253 30507 net.cpp:148] Top shape: 24 1024 (24576)
I0403 14:51:58.647279 30507 net.cpp:156] Memory required for data: 945992736
I0403 14:51:58.647300 30507 layer_factory.hpp:77] Creating layer loss1/relu_fc
I0403 14:51:58.647327 30507 net.cpp:91] Creating Layer loss1/relu_fc
I0403 14:51:58.647349 30507 net.cpp:425] loss1/relu_fc <- loss1/fc
I0403 14:51:58.647372 30507 net.cpp:386] loss1/relu_fc -> loss1/fc (in-place)
I0403 14:51:58.647593 30507 net.cpp:141] Setting up loss1/relu_fc
I0403 14:51:58.647621 30507 net.cpp:148] Top shape: 24 1024 (24576)
I0403 14:51:58.647639 30507 net.cpp:156] Memory required for data: 946091040
I0403 14:51:58.647655 30507 layer_factory.hpp:77] Creating layer loss1/drop_fc
I0403 14:51:58.647686 30507 net.cpp:91] Creating Layer loss1/drop_fc
I0403 14:51:58.647706 30507 net.cpp:425] loss1/drop_fc <- loss1/fc
I0403 14:51:58.647725 30507 net.cpp:386] loss1/drop_fc -> loss1/fc (in-place)
I0403 14:51:58.647780 30507 net.cpp:141] Setting up loss1/drop_fc
I0403 14:51:58.647805 30507 net.cpp:148] Top shape: 24 1024 (24576)
I0403 14:51:58.647821 30507 net.cpp:156] Memory required for data: 946189344
I0403 14:51:58.647850 30507 layer_factory.hpp:77] Creating layer loss1/classifier_plantvillage
I0403 14:51:58.647869 30507 net.cpp:91] Creating Layer loss1/classifier_plantvillage
I0403 14:51:58.647886 30507 net.cpp:425] loss1/classifier_plantvillage <- loss1/fc
I0403 14:51:58.647907 30507 net.cpp:399] loss1/classifier_plantvillage -> loss1/classifier_plantvillage
I0403 14:51:58.648825 30507 net.cpp:141] Setting up loss1/classifier_plantvillage
I0403 14:51:58.648855 30507 net.cpp:148] Top shape: 24 38 (912)
I0403 14:51:58.648871 30507 net.cpp:156] Memory required for data: 946192992
I0403 14:51:58.648890 30507 layer_factory.hpp:77] Creating layer loss1/classifier_plantvillage_loss1/classifier_plantvillage_0_split
I0403 14:51:58.648911 30507 net.cpp:91] Creating Layer loss1/classifier_plantvillage_loss1/classifier_plantvillage_0_split
I0403 14:51:58.648929 30507 net.cpp:425] loss1/classifier_plantvillage_loss1/classifier_plantvillage_0_split <- loss1/classifier_plantvillage
I0403 14:51:58.648948 30507 net.cpp:399] loss1/classifier_plantvillage_loss1/classifier_plantvillage_0_split -> loss1/classifier_plantvillage_loss1/classifier_plantvillage_0_split_0
I0403 14:51:58.648969 30507 net.cpp:399] loss1/classifier_plantvillage_loss1/classifier_plantvillage_0_split -> loss1/classifier_plantvillage_loss1/classifier_plantvillage_0_split_1
I0403 14:51:58.648991 30507 net.cpp:399] loss1/classifier_plantvillage_loss1/classifier_plantvillage_0_split -> loss1/classifier_plantvillage_loss1/classifier_plantvillage_0_split_2
I0403 14:51:58.649061 30507 net.cpp:141] Setting up loss1/classifier_plantvillage_loss1/classifier_plantvillage_0_split
I0403 14:51:58.649085 30507 net.cpp:148] Top shape: 24 38 (912)
I0403 14:51:58.649106 30507 net.cpp:148] Top shape: 24 38 (912)
I0403 14:51:58.649126 30507 net.cpp:148] Top shape: 24 38 (912)
I0403 14:51:58.649139 30507 net.cpp:156] Memory required for data: 946203936
I0403 14:51:58.649158 30507 layer_factory.hpp:77] Creating layer inception_4b/1x1
I0403 14:51:58.649180 30507 net.cpp:91] Creating Layer inception_4b/1x1
I0403 14:51:58.649224 30507 net.cpp:425] inception_4b/1x1 <- inception_4a/output_inception_4a/output_0_split_1
I0403 14:51:58.649245 30507 net.cpp:399] inception_4b/1x1 -> inception_4b/1x1
I0403 14:51:58.651001 30507 net.cpp:141] Setting up inception_4b/1x1
I0403 14:51:58.651034 30507 net.cpp:148] Top shape: 24 160 14 14 (752640)
I0403 14:51:58.651053 30507 net.cpp:156] Memory required for data: 949214496
I0403 14:51:58.651074 30507 layer_factory.hpp:77] Creating layer inception_4b/relu_1x1
I0403 14:51:58.651094 30507 net.cpp:91] Creating Layer inception_4b/relu_1x1
I0403 14:51:58.651111 30507 net.cpp:425] inception_4b/relu_1x1 <- inception_4b/1x1
I0403 14:51:58.651134 30507 net.cpp:386] inception_4b/relu_1x1 -> inception_4b/1x1 (in-place)
I0403 14:51:58.651317 30507 net.cpp:141] Setting up inception_4b/relu_1x1
I0403 14:51:58.651345 30507 net.cpp:148] Top shape: 24 160 14 14 (752640)
I0403 14:51:58.651361 30507 net.cpp:156] Memory required for data: 952225056
I0403 14:51:58.651377 30507 layer_factory.hpp:77] Creating layer inception_4b/3x3_reduce
I0403 14:51:58.651402 30507 net.cpp:91] Creating Layer inception_4b/3x3_reduce
I0403 14:51:58.651422 30507 net.cpp:425] inception_4b/3x3_reduce <- inception_4a/output_inception_4a/output_0_split_2
I0403 14:51:58.651444 30507 net.cpp:399] inception_4b/3x3_reduce -> inception_4b/3x3_reduce
I0403 14:51:58.652832 30507 net.cpp:141] Setting up inception_4b/3x3_reduce
I0403 14:51:58.652861 30507 net.cpp:148] Top shape: 24 112 14 14 (526848)
I0403 14:51:58.652879 30507 net.cpp:156] Memory required for data: 954332448
I0403 14:51:58.652899 30507 layer_factory.hpp:77] Creating layer inception_4b/relu_3x3_reduce
I0403 14:51:58.652918 30507 net.cpp:91] Creating Layer inception_4b/relu_3x3_reduce
I0403 14:51:58.652935 30507 net.cpp:425] inception_4b/relu_3x3_reduce <- inception_4b/3x3_reduce
I0403 14:51:58.652957 30507 net.cpp:386] inception_4b/relu_3x3_reduce -> inception_4b/3x3_reduce (in-place)
I0403 14:51:58.653255 30507 net.cpp:141] Setting up inception_4b/relu_3x3_reduce
I0403 14:51:58.653283 30507 net.cpp:148] Top shape: 24 112 14 14 (526848)
I0403 14:51:58.653300 30507 net.cpp:156] Memory required for data: 956439840
I0403 14:51:58.653319 30507 layer_factory.hpp:77] Creating layer inception_4b/3x3
I0403 14:51:58.653350 30507 net.cpp:91] Creating Layer inception_4b/3x3
I0403 14:51:58.653370 30507 net.cpp:425] inception_4b/3x3 <- inception_4b/3x3_reduce
I0403 14:51:58.653393 30507 net.cpp:399] inception_4b/3x3 -> inception_4b/3x3
I0403 14:51:58.656461 30507 net.cpp:141] Setting up inception_4b/3x3
I0403 14:51:58.656491 30507 net.cpp:148] Top shape: 24 224 14 14 (1053696)
I0403 14:51:58.656508 30507 net.cpp:156] Memory required for data: 960654624
I0403 14:51:58.656528 30507 layer_factory.hpp:77] Creating layer inception_4b/relu_3x3
I0403 14:51:58.656550 30507 net.cpp:91] Creating Layer inception_4b/relu_3x3
I0403 14:51:58.656569 30507 net.cpp:425] inception_4b/relu_3x3 <- inception_4b/3x3
I0403 14:51:58.656587 30507 net.cpp:386] inception_4b/relu_3x3 -> inception_4b/3x3 (in-place)
I0403 14:51:58.656774 30507 net.cpp:141] Setting up inception_4b/relu_3x3
I0403 14:51:58.656807 30507 net.cpp:148] Top shape: 24 224 14 14 (1053696)
I0403 14:51:58.656826 30507 net.cpp:156] Memory required for data: 964869408
I0403 14:51:58.656841 30507 layer_factory.hpp:77] Creating layer inception_4b/5x5_reduce
I0403 14:51:58.656865 30507 net.cpp:91] Creating Layer inception_4b/5x5_reduce
I0403 14:51:58.656884 30507 net.cpp:425] inception_4b/5x5_reduce <- inception_4a/output_inception_4a/output_0_split_3
I0403 14:51:58.656904 30507 net.cpp:399] inception_4b/5x5_reduce -> inception_4b/5x5_reduce
I0403 14:51:58.658015 30507 net.cpp:141] Setting up inception_4b/5x5_reduce
I0403 14:51:58.658046 30507 net.cpp:148] Top shape: 24 24 14 14 (112896)
I0403 14:51:58.658064 30507 net.cpp:156] Memory required for data: 965320992
I0403 14:51:58.658084 30507 layer_factory.hpp:77] Creating layer inception_4b/relu_5x5_reduce
I0403 14:51:58.658104 30507 net.cpp:91] Creating Layer inception_4b/relu_5x5_reduce
I0403 14:51:58.658138 30507 net.cpp:425] inception_4b/relu_5x5_reduce <- inception_4b/5x5_reduce
I0403 14:51:58.658160 30507 net.cpp:386] inception_4b/relu_5x5_reduce -> inception_4b/5x5_reduce (in-place)
I0403 14:51:58.658355 30507 net.cpp:141] Setting up inception_4b/relu_5x5_reduce
I0403 14:51:58.658382 30507 net.cpp:148] Top shape: 24 24 14 14 (112896)
I0403 14:51:58.658399 30507 net.cpp:156] Memory required for data: 965772576
I0403 14:51:58.658419 30507 layer_factory.hpp:77] Creating layer inception_4b/5x5
I0403 14:51:58.658444 30507 net.cpp:91] Creating Layer inception_4b/5x5
I0403 14:51:58.658463 30507 net.cpp:425] inception_4b/5x5 <- inception_4b/5x5_reduce
I0403 14:51:58.658488 30507 net.cpp:399] inception_4b/5x5 -> inception_4b/5x5
I0403 14:51:58.659785 30507 net.cpp:141] Setting up inception_4b/5x5
I0403 14:51:58.659816 30507 net.cpp:148] Top shape: 24 64 14 14 (301056)
I0403 14:51:58.659834 30507 net.cpp:156] Memory required for data: 966976800
I0403 14:51:58.659854 30507 layer_factory.hpp:77] Creating layer inception_4b/relu_5x5
I0403 14:51:58.659874 30507 net.cpp:91] Creating Layer inception_4b/relu_5x5
I0403 14:51:58.659893 30507 net.cpp:425] inception_4b/relu_5x5 <- inception_4b/5x5
I0403 14:51:58.659914 30507 net.cpp:386] inception_4b/relu_5x5 -> inception_4b/5x5 (in-place)
I0403 14:51:58.660202 30507 net.cpp:141] Setting up inception_4b/relu_5x5
I0403 14:51:58.660235 30507 net.cpp:148] Top shape: 24 64 14 14 (301056)
I0403 14:51:58.660254 30507 net.cpp:156] Memory required for data: 968181024
I0403 14:51:58.660270 30507 layer_factory.hpp:77] Creating layer inception_4b/pool
I0403 14:51:58.660290 30507 net.cpp:91] Creating Layer inception_4b/pool
I0403 14:51:58.660310 30507 net.cpp:425] inception_4b/pool <- inception_4a/output_inception_4a/output_0_split_4
I0403 14:51:58.660336 30507 net.cpp:399] inception_4b/pool -> inception_4b/pool
I0403 14:51:58.660403 30507 net.cpp:141] Setting up inception_4b/pool
I0403 14:51:58.660430 30507 net.cpp:148] Top shape: 24 512 14 14 (2408448)
I0403 14:51:58.660445 30507 net.cpp:156] Memory required for data: 977814816
I0403 14:51:58.660462 30507 layer_factory.hpp:77] Creating layer inception_4b/pool_proj
I0403 14:51:58.660486 30507 net.cpp:91] Creating Layer inception_4b/pool_proj
I0403 14:51:58.660506 30507 net.cpp:425] inception_4b/pool_proj <- inception_4b/pool
I0403 14:51:58.660527 30507 net.cpp:399] inception_4b/pool_proj -> inception_4b/pool_proj
I0403 14:51:58.661762 30507 net.cpp:141] Setting up inception_4b/pool_proj
I0403 14:51:58.661794 30507 net.cpp:148] Top shape: 24 64 14 14 (301056)
I0403 14:51:58.661813 30507 net.cpp:156] Memory required for data: 979019040
I0403 14:51:58.661834 30507 layer_factory.hpp:77] Creating layer inception_4b/relu_pool_proj
I0403 14:51:58.661854 30507 net.cpp:91] Creating Layer inception_4b/relu_pool_proj
I0403 14:51:58.661871 30507 net.cpp:425] inception_4b/relu_pool_proj <- inception_4b/pool_proj
I0403 14:51:58.661892 30507 net.cpp:386] inception_4b/relu_pool_proj -> inception_4b/pool_proj (in-place)
I0403 14:51:58.662082 30507 net.cpp:141] Setting up inception_4b/relu_pool_proj
I0403 14:51:58.662111 30507 net.cpp:148] Top shape: 24 64 14 14 (301056)
I0403 14:51:58.662127 30507 net.cpp:156] Memory required for data: 980223264
I0403 14:51:58.662145 30507 layer_factory.hpp:77] Creating layer inception_4b/output
I0403 14:51:58.662165 30507 net.cpp:91] Creating Layer inception_4b/output
I0403 14:51:58.662183 30507 net.cpp:425] inception_4b/output <- inception_4b/1x1
I0403 14:51:58.662200 30507 net.cpp:425] inception_4b/output <- inception_4b/3x3
I0403 14:51:58.662219 30507 net.cpp:425] inception_4b/output <- inception_4b/5x5
I0403 14:51:58.662236 30507 net.cpp:425] inception_4b/output <- inception_4b/pool_proj
I0403 14:51:58.662262 30507 net.cpp:399] inception_4b/output -> inception_4b/output
I0403 14:51:58.662310 30507 net.cpp:141] Setting up inception_4b/output
I0403 14:51:58.662343 30507 net.cpp:148] Top shape: 24 512 14 14 (2408448)
I0403 14:51:58.662363 30507 net.cpp:156] Memory required for data: 989857056
I0403 14:51:58.662396 30507 layer_factory.hpp:77] Creating layer inception_4b/output_inception_4b/output_0_split
I0403 14:51:58.662417 30507 net.cpp:91] Creating Layer inception_4b/output_inception_4b/output_0_split
I0403 14:51:58.662436 30507 net.cpp:425] inception_4b/output_inception_4b/output_0_split <- inception_4b/output
I0403 14:51:58.662458 30507 net.cpp:399] inception_4b/output_inception_4b/output_0_split -> inception_4b/output_inception_4b/output_0_split_0
I0403 14:51:58.662489 30507 net.cpp:399] inception_4b/output_inception_4b/output_0_split -> inception_4b/output_inception_4b/output_0_split_1
I0403 14:51:58.662513 30507 net.cpp:399] inception_4b/output_inception_4b/output_0_split -> inception_4b/output_inception_4b/output_0_split_2
I0403 14:51:58.662535 30507 net.cpp:399] inception_4b/output_inception_4b/output_0_split -> inception_4b/output_inception_4b/output_0_split_3
I0403 14:51:58.662624 30507 net.cpp:141] Setting up inception_4b/output_inception_4b/output_0_split
I0403 14:51:58.662650 30507 net.cpp:148] Top shape: 24 512 14 14 (2408448)
I0403 14:51:58.662668 30507 net.cpp:148] Top shape: 24 512 14 14 (2408448)
I0403 14:51:58.662686 30507 net.cpp:148] Top shape: 24 512 14 14 (2408448)
I0403 14:51:58.662703 30507 net.cpp:148] Top shape: 24 512 14 14 (2408448)
I0403 14:51:58.662719 30507 net.cpp:156] Memory required for data: 1028392224
I0403 14:51:58.662735 30507 layer_factory.hpp:77] Creating layer inception_4c/1x1
I0403 14:51:58.662760 30507 net.cpp:91] Creating Layer inception_4c/1x1
I0403 14:51:58.662780 30507 net.cpp:425] inception_4c/1x1 <- inception_4b/output_inception_4b/output_0_split_0
I0403 14:51:58.662801 30507 net.cpp:399] inception_4c/1x1 -> inception_4c/1x1
I0403 14:51:58.664274 30507 net.cpp:141] Setting up inception_4c/1x1
I0403 14:51:58.664304 30507 net.cpp:148] Top shape: 24 128 14 14 (602112)
I0403 14:51:58.664333 30507 net.cpp:156] Memory required for data: 1030800672
I0403 14:51:58.664356 30507 layer_factory.hpp:77] Creating layer inception_4c/relu_1x1
I0403 14:51:58.664381 30507 net.cpp:91] Creating Layer inception_4c/relu_1x1
I0403 14:51:58.664400 30507 net.cpp:425] inception_4c/relu_1x1 <- inception_4c/1x1
I0403 14:51:58.664418 30507 net.cpp:386] inception_4c/relu_1x1 -> inception_4c/1x1 (in-place)
I0403 14:51:58.664604 30507 net.cpp:141] Setting up inception_4c/relu_1x1
I0403 14:51:58.664631 30507 net.cpp:148] Top shape: 24 128 14 14 (602112)
I0403 14:51:58.664652 30507 net.cpp:156] Memory required for data: 1033209120
I0403 14:51:58.664669 30507 layer_factory.hpp:77] Creating layer inception_4c/3x3_reduce
I0403 14:51:58.664690 30507 net.cpp:91] Creating Layer inception_4c/3x3_reduce
I0403 14:51:58.664708 30507 net.cpp:425] inception_4c/3x3_reduce <- inception_4b/output_inception_4b/output_0_split_1
I0403 14:51:58.664734 30507 net.cpp:399] inception_4c/3x3_reduce -> inception_4c/3x3_reduce
I0403 14:51:58.666759 30507 net.cpp:141] Setting up inception_4c/3x3_reduce
I0403 14:51:58.666793 30507 net.cpp:148] Top shape: 24 128 14 14 (602112)
I0403 14:51:58.666813 30507 net.cpp:156] Memory required for data: 1035617568
I0403 14:51:58.666836 30507 layer_factory.hpp:77] Creating layer inception_4c/relu_3x3_reduce
I0403 14:51:58.666857 30507 net.cpp:91] Creating Layer inception_4c/relu_3x3_reduce
I0403 14:51:58.666877 30507 net.cpp:425] inception_4c/relu_3x3_reduce <- inception_4c/3x3_reduce
I0403 14:51:58.666898 30507 net.cpp:386] inception_4c/relu_3x3_reduce -> inception_4c/3x3_reduce (in-place)
I0403 14:51:58.667193 30507 net.cpp:141] Setting up inception_4c/relu_3x3_reduce
I0403 14:51:58.667224 30507 net.cpp:148] Top shape: 24 128 14 14 (602112)
I0403 14:51:58.667242 30507 net.cpp:156] Memory required for data: 1038026016
I0403 14:51:58.667258 30507 layer_factory.hpp:77] Creating layer inception_4c/3x3
I0403 14:51:58.667282 30507 net.cpp:91] Creating Layer inception_4c/3x3
I0403 14:51:58.667302 30507 net.cpp:425] inception_4c/3x3 <- inception_4c/3x3_reduce
I0403 14:51:58.667327 30507 net.cpp:399] inception_4c/3x3 -> inception_4c/3x3
I0403 14:51:58.671172 30507 net.cpp:141] Setting up inception_4c/3x3
I0403 14:51:58.671217 30507 net.cpp:148] Top shape: 24 256 14 14 (1204224)
I0403 14:51:58.671236 30507 net.cpp:156] Memory required for data: 1042842912
I0403 14:51:58.671272 30507 layer_factory.hpp:77] Creating layer inception_4c/relu_3x3
I0403 14:51:58.671293 30507 net.cpp:91] Creating Layer inception_4c/relu_3x3
I0403 14:51:58.671309 30507 net.cpp:425] inception_4c/relu_3x3 <- inception_4c/3x3
I0403 14:51:58.671335 30507 net.cpp:386] inception_4c/relu_3x3 -> inception_4c/3x3 (in-place)
I0403 14:51:58.671517 30507 net.cpp:141] Setting up inception_4c/relu_3x3
I0403 14:51:58.671545 30507 net.cpp:148] Top shape: 24 256 14 14 (1204224)
I0403 14:51:58.671561 30507 net.cpp:156] Memory required for data: 1047659808
I0403 14:51:58.671578 30507 layer_factory.hpp:77] Creating layer inception_4c/5x5_reduce
I0403 14:51:58.671602 30507 net.cpp:91] Creating Layer inception_4c/5x5_reduce
I0403 14:51:58.671620 30507 net.cpp:425] inception_4c/5x5_reduce <- inception_4b/output_inception_4b/output_0_split_2
I0403 14:51:58.671643 30507 net.cpp:399] inception_4c/5x5_reduce -> inception_4c/5x5_reduce
I0403 14:51:58.672734 30507 net.cpp:141] Setting up inception_4c/5x5_reduce
I0403 14:51:58.672765 30507 net.cpp:148] Top shape: 24 24 14 14 (112896)
I0403 14:51:58.672782 30507 net.cpp:156] Memory required for data: 1048111392
I0403 14:51:58.672802 30507 layer_factory.hpp:77] Creating layer inception_4c/relu_5x5_reduce
I0403 14:51:58.672821 30507 net.cpp:91] Creating Layer inception_4c/relu_5x5_reduce
I0403 14:51:58.672838 30507 net.cpp:425] inception_4c/relu_5x5_reduce <- inception_4c/5x5_reduce
I0403 14:51:58.672857 30507 net.cpp:386] inception_4c/relu_5x5_reduce -> inception_4c/5x5_reduce (in-place)
I0403 14:51:58.673045 30507 net.cpp:141] Setting up inception_4c/relu_5x5_reduce
I0403 14:51:58.673072 30507 net.cpp:148] Top shape: 24 24 14 14 (112896)
I0403 14:51:58.673087 30507 net.cpp:156] Memory required for data: 1048562976
I0403 14:51:58.673104 30507 layer_factory.hpp:77] Creating layer inception_4c/5x5
I0403 14:51:58.673126 30507 net.cpp:91] Creating Layer inception_4c/5x5
I0403 14:51:58.673146 30507 net.cpp:425] inception_4c/5x5 <- inception_4c/5x5_reduce
I0403 14:51:58.673168 30507 net.cpp:399] inception_4c/5x5 -> inception_4c/5x5
I0403 14:51:58.674424 30507 net.cpp:141] Setting up inception_4c/5x5
I0403 14:51:58.674453 30507 net.cpp:148] Top shape: 24 64 14 14 (301056)
I0403 14:51:58.674469 30507 net.cpp:156] Memory required for data: 1049767200
I0403 14:51:58.674489 30507 layer_factory.hpp:77] Creating layer inception_4c/relu_5x5
I0403 14:51:58.674509 30507 net.cpp:91] Creating Layer inception_4c/relu_5x5
I0403 14:51:58.674527 30507 net.cpp:425] inception_4c/relu_5x5 <- inception_4c/5x5
I0403 14:51:58.674548 30507 net.cpp:386] inception_4c/relu_5x5 -> inception_4c/5x5 (in-place)
I0403 14:51:58.674839 30507 net.cpp:141] Setting up inception_4c/relu_5x5
I0403 14:51:58.674866 30507 net.cpp:148] Top shape: 24 64 14 14 (301056)
I0403 14:51:58.674882 30507 net.cpp:156] Memory required for data: 1050971424
I0403 14:51:58.674898 30507 layer_factory.hpp:77] Creating layer inception_4c/pool
I0403 14:51:58.674918 30507 net.cpp:91] Creating Layer inception_4c/pool
I0403 14:51:58.674937 30507 net.cpp:425] inception_4c/pool <- inception_4b/output_inception_4b/output_0_split_3
I0403 14:51:58.674958 30507 net.cpp:399] inception_4c/pool -> inception_4c/pool
I0403 14:51:58.675024 30507 net.cpp:141] Setting up inception_4c/pool
I0403 14:51:58.675050 30507 net.cpp:148] Top shape: 24 512 14 14 (2408448)
I0403 14:51:58.675066 30507 net.cpp:156] Memory required for data: 1060605216
I0403 14:51:58.675081 30507 layer_factory.hpp:77] Creating layer inception_4c/pool_proj
I0403 14:51:58.675107 30507 net.cpp:91] Creating Layer inception_4c/pool_proj
I0403 14:51:58.675132 30507 net.cpp:425] inception_4c/pool_proj <- inception_4c/pool
I0403 14:51:58.675154 30507 net.cpp:399] inception_4c/pool_proj -> inception_4c/pool_proj
I0403 14:51:58.676401 30507 net.cpp:141] Setting up inception_4c/pool_proj
I0403 14:51:58.676434 30507 net.cpp:148] Top shape: 24 64 14 14 (301056)
I0403 14:51:58.676466 30507 net.cpp:156] Memory required for data: 1061809440
I0403 14:51:58.676487 30507 layer_factory.hpp:77] Creating layer inception_4c/relu_pool_proj
I0403 14:51:58.676508 30507 net.cpp:91] Creating Layer inception_4c/relu_pool_proj
I0403 14:51:58.676527 30507 net.cpp:425] inception_4c/relu_pool_proj <- inception_4c/pool_proj
I0403 14:51:58.676563 30507 net.cpp:386] inception_4c/relu_pool_proj -> inception_4c/pool_proj (in-place)
I0403 14:51:58.676745 30507 net.cpp:141] Setting up inception_4c/relu_pool_proj
I0403 14:51:58.676772 30507 net.cpp:148] Top shape: 24 64 14 14 (301056)
I0403 14:51:58.676787 30507 net.cpp:156] Memory required for data: 1063013664
I0403 14:51:58.676803 30507 layer_factory.hpp:77] Creating layer inception_4c/output
I0403 14:51:58.676821 30507 net.cpp:91] Creating Layer inception_4c/output
I0403 14:51:58.676838 30507 net.cpp:425] inception_4c/output <- inception_4c/1x1
I0403 14:51:58.676856 30507 net.cpp:425] inception_4c/output <- inception_4c/3x3
I0403 14:51:58.676872 30507 net.cpp:425] inception_4c/output <- inception_4c/5x5
I0403 14:51:58.676890 30507 net.cpp:425] inception_4c/output <- inception_4c/pool_proj
I0403 14:51:58.676911 30507 net.cpp:399] inception_4c/output -> inception_4c/output
I0403 14:51:58.676960 30507 net.cpp:141] Setting up inception_4c/output
I0403 14:51:58.676990 30507 net.cpp:148] Top shape: 24 512 14 14 (2408448)
I0403 14:51:58.677006 30507 net.cpp:156] Memory required for data: 1072647456
I0403 14:51:58.677021 30507 layer_factory.hpp:77] Creating layer inception_4c/output_inception_4c/output_0_split
I0403 14:51:58.677039 30507 net.cpp:91] Creating Layer inception_4c/output_inception_4c/output_0_split
I0403 14:51:58.677055 30507 net.cpp:425] inception_4c/output_inception_4c/output_0_split <- inception_4c/output
I0403 14:51:58.677074 30507 net.cpp:399] inception_4c/output_inception_4c/output_0_split -> inception_4c/output_inception_4c/output_0_split_0
I0403 14:51:58.677098 30507 net.cpp:399] inception_4c/output_inception_4c/output_0_split -> inception_4c/output_inception_4c/output_0_split_1
I0403 14:51:58.677121 30507 net.cpp:399] inception_4c/output_inception_4c/output_0_split -> inception_4c/output_inception_4c/output_0_split_2
I0403 14:51:58.677142 30507 net.cpp:399] inception_4c/output_inception_4c/output_0_split -> inception_4c/output_inception_4c/output_0_split_3
I0403 14:51:58.677232 30507 net.cpp:141] Setting up inception_4c/output_inception_4c/output_0_split
I0403 14:51:58.677256 30507 net.cpp:148] Top shape: 24 512 14 14 (2408448)
I0403 14:51:58.677274 30507 net.cpp:148] Top shape: 24 512 14 14 (2408448)
I0403 14:51:58.677290 30507 net.cpp:148] Top shape: 24 512 14 14 (2408448)
I0403 14:51:58.677307 30507 net.cpp:148] Top shape: 24 512 14 14 (2408448)
I0403 14:51:58.677327 30507 net.cpp:156] Memory required for data: 1111182624
I0403 14:51:58.677343 30507 layer_factory.hpp:77] Creating layer inception_4d/1x1
I0403 14:51:58.677366 30507 net.cpp:91] Creating Layer inception_4d/1x1
I0403 14:51:58.677386 30507 net.cpp:425] inception_4d/1x1 <- inception_4c/output_inception_4c/output_0_split_0
I0403 14:51:58.677413 30507 net.cpp:399] inception_4d/1x1 -> inception_4d/1x1
I0403 14:51:58.678800 30507 net.cpp:141] Setting up inception_4d/1x1
I0403 14:51:58.678833 30507 net.cpp:148] Top shape: 24 112 14 14 (526848)
I0403 14:51:58.678851 30507 net.cpp:156] Memory required for data: 1113290016
I0403 14:51:58.678872 30507 layer_factory.hpp:77] Creating layer inception_4d/relu_1x1
I0403 14:51:58.678894 30507 net.cpp:91] Creating Layer inception_4d/relu_1x1
I0403 14:51:58.678912 30507 net.cpp:425] inception_4d/relu_1x1 <- inception_4d/1x1
I0403 14:51:58.678930 30507 net.cpp:386] inception_4d/relu_1x1 -> inception_4d/1x1 (in-place)
I0403 14:51:58.679114 30507 net.cpp:141] Setting up inception_4d/relu_1x1
I0403 14:51:58.679142 30507 net.cpp:148] Top shape: 24 112 14 14 (526848)
I0403 14:51:58.679159 30507 net.cpp:156] Memory required for data: 1115397408
I0403 14:51:58.679175 30507 layer_factory.hpp:77] Creating layer inception_4d/3x3_reduce
I0403 14:51:58.679214 30507 net.cpp:91] Creating Layer inception_4d/3x3_reduce
I0403 14:51:58.679234 30507 net.cpp:425] inception_4d/3x3_reduce <- inception_4c/output_inception_4c/output_0_split_1
I0403 14:51:58.679255 30507 net.cpp:399] inception_4d/3x3_reduce -> inception_4d/3x3_reduce
I0403 14:51:58.680835 30507 net.cpp:141] Setting up inception_4d/3x3_reduce
I0403 14:51:58.680863 30507 net.cpp:148] Top shape: 24 144 14 14 (677376)
I0403 14:51:58.680881 30507 net.cpp:156] Memory required for data: 1118106912
I0403 14:51:58.680899 30507 layer_factory.hpp:77] Creating layer inception_4d/relu_3x3_reduce
I0403 14:51:58.680923 30507 net.cpp:91] Creating Layer inception_4d/relu_3x3_reduce
I0403 14:51:58.680944 30507 net.cpp:425] inception_4d/relu_3x3_reduce <- inception_4d/3x3_reduce
I0403 14:51:58.680963 30507 net.cpp:386] inception_4d/relu_3x3_reduce -> inception_4d/3x3_reduce (in-place)
I0403 14:51:58.681253 30507 net.cpp:141] Setting up inception_4d/relu_3x3_reduce
I0403 14:51:58.681280 30507 net.cpp:148] Top shape: 24 144 14 14 (677376)
I0403 14:51:58.681298 30507 net.cpp:156] Memory required for data: 1120816416
I0403 14:51:58.681313 30507 layer_factory.hpp:77] Creating layer inception_4d/3x3
I0403 14:51:58.681340 30507 net.cpp:91] Creating Layer inception_4d/3x3
I0403 14:51:58.681360 30507 net.cpp:425] inception_4d/3x3 <- inception_4d/3x3_reduce
I0403 14:51:58.681381 30507 net.cpp:399] inception_4d/3x3 -> inception_4d/3x3
I0403 14:51:58.685688 30507 net.cpp:141] Setting up inception_4d/3x3
I0403 14:51:58.685719 30507 net.cpp:148] Top shape: 24 288 14 14 (1354752)
I0403 14:51:58.685737 30507 net.cpp:156] Memory required for data: 1126235424
I0403 14:51:58.685757 30507 layer_factory.hpp:77] Creating layer inception_4d/relu_3x3
I0403 14:51:58.685780 30507 net.cpp:91] Creating Layer inception_4d/relu_3x3
I0403 14:51:58.685797 30507 net.cpp:425] inception_4d/relu_3x3 <- inception_4d/3x3
I0403 14:51:58.685817 30507 net.cpp:386] inception_4d/relu_3x3 -> inception_4d/3x3 (in-place)
I0403 14:51:58.686002 30507 net.cpp:141] Setting up inception_4d/relu_3x3
I0403 14:51:58.686031 30507 net.cpp:148] Top shape: 24 288 14 14 (1354752)
I0403 14:51:58.686048 30507 net.cpp:156] Memory required for data: 1131654432
I0403 14:51:58.686064 30507 layer_factory.hpp:77] Creating layer inception_4d/5x5_reduce
I0403 14:51:58.686087 30507 net.cpp:91] Creating Layer inception_4d/5x5_reduce
I0403 14:51:58.686106 30507 net.cpp:425] inception_4d/5x5_reduce <- inception_4c/output_inception_4c/output_0_split_2
I0403 14:51:58.686126 30507 net.cpp:399] inception_4d/5x5_reduce -> inception_4d/5x5_reduce
I0403 14:51:58.687289 30507 net.cpp:141] Setting up inception_4d/5x5_reduce
I0403 14:51:58.687337 30507 net.cpp:148] Top shape: 24 32 14 14 (150528)
I0403 14:51:58.687358 30507 net.cpp:156] Memory required for data: 1132256544
I0403 14:51:58.687379 30507 layer_factory.hpp:77] Creating layer inception_4d/relu_5x5_reduce
I0403 14:51:58.687402 30507 net.cpp:91] Creating Layer inception_4d/relu_5x5_reduce
I0403 14:51:58.687434 30507 net.cpp:425] inception_4d/relu_5x5_reduce <- inception_4d/5x5_reduce
I0403 14:51:58.687455 30507 net.cpp:386] inception_4d/relu_5x5_reduce -> inception_4d/5x5_reduce (in-place)
I0403 14:51:58.687655 30507 net.cpp:141] Setting up inception_4d/relu_5x5_reduce
I0403 14:51:58.687686 30507 net.cpp:148] Top shape: 24 32 14 14 (150528)
I0403 14:51:58.687702 30507 net.cpp:156] Memory required for data: 1132858656
I0403 14:51:58.687719 30507 layer_factory.hpp:77] Creating layer inception_4d/5x5
I0403 14:51:58.687755 30507 net.cpp:91] Creating Layer inception_4d/5x5
I0403 14:51:58.687775 30507 net.cpp:425] inception_4d/5x5 <- inception_4d/5x5_reduce
I0403 14:51:58.687799 30507 net.cpp:399] inception_4d/5x5 -> inception_4d/5x5
I0403 14:51:58.689332 30507 net.cpp:141] Setting up inception_4d/5x5
I0403 14:51:58.689363 30507 net.cpp:148] Top shape: 24 64 14 14 (301056)
I0403 14:51:58.689379 30507 net.cpp:156] Memory required for data: 1134062880
I0403 14:51:58.689400 30507 layer_factory.hpp:77] Creating layer inception_4d/relu_5x5
I0403 14:51:58.689436 30507 net.cpp:91] Creating Layer inception_4d/relu_5x5
I0403 14:51:58.689456 30507 net.cpp:425] inception_4d/relu_5x5 <- inception_4d/5x5
I0403 14:51:58.689478 30507 net.cpp:386] inception_4d/relu_5x5 -> inception_4d/5x5 (in-place)
I0403 14:51:58.689791 30507 net.cpp:141] Setting up inception_4d/relu_5x5
I0403 14:51:58.689820 30507 net.cpp:148] Top shape: 24 64 14 14 (301056)
I0403 14:51:58.689841 30507 net.cpp:156] Memory required for data: 1135267104
I0403 14:51:58.689862 30507 layer_factory.hpp:77] Creating layer inception_4d/pool
I0403 14:51:58.689882 30507 net.cpp:91] Creating Layer inception_4d/pool
I0403 14:51:58.689898 30507 net.cpp:425] inception_4d/pool <- inception_4c/output_inception_4c/output_0_split_3
I0403 14:51:58.689921 30507 net.cpp:399] inception_4d/pool -> inception_4d/pool
I0403 14:51:58.689992 30507 net.cpp:141] Setting up inception_4d/pool
I0403 14:51:58.690018 30507 net.cpp:148] Top shape: 24 512 14 14 (2408448)
I0403 14:51:58.690043 30507 net.cpp:156] Memory required for data: 1144900896
I0403 14:51:58.690060 30507 layer_factory.hpp:77] Creating layer inception_4d/pool_proj
I0403 14:51:58.690086 30507 net.cpp:91] Creating Layer inception_4d/pool_proj
I0403 14:51:58.690105 30507 net.cpp:425] inception_4d/pool_proj <- inception_4d/pool
I0403 14:51:58.690126 30507 net.cpp:399] inception_4d/pool_proj -> inception_4d/pool_proj
I0403 14:51:58.691941 30507 net.cpp:141] Setting up inception_4d/pool_proj
I0403 14:51:58.691975 30507 net.cpp:148] Top shape: 24 64 14 14 (301056)
I0403 14:51:58.691992 30507 net.cpp:156] Memory required for data: 1146105120
I0403 14:51:58.692013 30507 layer_factory.hpp:77] Creating layer inception_4d/relu_pool_proj
I0403 14:51:58.692035 30507 net.cpp:91] Creating Layer inception_4d/relu_pool_proj
I0403 14:51:58.692062 30507 net.cpp:425] inception_4d/relu_pool_proj <- inception_4d/pool_proj
I0403 14:51:58.692082 30507 net.cpp:386] inception_4d/relu_pool_proj -> inception_4d/pool_proj (in-place)
I0403 14:51:58.692275 30507 net.cpp:141] Setting up inception_4d/relu_pool_proj
I0403 14:51:58.692303 30507 net.cpp:148] Top shape: 24 64 14 14 (301056)
I0403 14:51:58.692324 30507 net.cpp:156] Memory required for data: 1147309344
I0403 14:51:58.692342 30507 layer_factory.hpp:77] Creating layer inception_4d/output
I0403 14:51:58.692361 30507 net.cpp:91] Creating Layer inception_4d/output
I0403 14:51:58.692378 30507 net.cpp:425] inception_4d/output <- inception_4d/1x1
I0403 14:51:58.692396 30507 net.cpp:425] inception_4d/output <- inception_4d/3x3
I0403 14:51:58.692414 30507 net.cpp:425] inception_4d/output <- inception_4d/5x5
I0403 14:51:58.692430 30507 net.cpp:425] inception_4d/output <- inception_4d/pool_proj
I0403 14:51:58.692452 30507 net.cpp:399] inception_4d/output -> inception_4d/output
I0403 14:51:58.692503 30507 net.cpp:141] Setting up inception_4d/output
I0403 14:51:58.692528 30507 net.cpp:148] Top shape: 24 528 14 14 (2483712)
I0403 14:51:58.692545 30507 net.cpp:156] Memory required for data: 1157244192
I0403 14:51:58.692561 30507 layer_factory.hpp:77] Creating layer inception_4d/output_inception_4d/output_0_split
I0403 14:51:58.692584 30507 net.cpp:91] Creating Layer inception_4d/output_inception_4d/output_0_split
I0403 14:51:58.692601 30507 net.cpp:425] inception_4d/output_inception_4d/output_0_split <- inception_4d/output
I0403 14:51:58.692621 30507 net.cpp:399] inception_4d/output_inception_4d/output_0_split -> inception_4d/output_inception_4d/output_0_split_0
I0403 14:51:58.692647 30507 net.cpp:399] inception_4d/output_inception_4d/output_0_split -> inception_4d/output_inception_4d/output_0_split_1
I0403 14:51:58.692672 30507 net.cpp:399] inception_4d/output_inception_4d/output_0_split -> inception_4d/output_inception_4d/output_0_split_2
I0403 14:51:58.692695 30507 net.cpp:399] inception_4d/output_inception_4d/output_0_split -> inception_4d/output_inception_4d/output_0_split_3
I0403 14:51:58.692718 30507 net.cpp:399] inception_4d/output_inception_4d/output_0_split -> inception_4d/output_inception_4d/output_0_split_4
I0403 14:51:58.692826 30507 net.cpp:141] Setting up inception_4d/output_inception_4d/output_0_split
I0403 14:51:58.692864 30507 net.cpp:148] Top shape: 24 528 14 14 (2483712)
I0403 14:51:58.692883 30507 net.cpp:148] Top shape: 24 528 14 14 (2483712)
I0403 14:51:58.692900 30507 net.cpp:148] Top shape: 24 528 14 14 (2483712)
I0403 14:51:58.692917 30507 net.cpp:148] Top shape: 24 528 14 14 (2483712)
I0403 14:51:58.692934 30507 net.cpp:148] Top shape: 24 528 14 14 (2483712)
I0403 14:51:58.692948 30507 net.cpp:156] Memory required for data: 1206918432
I0403 14:51:58.692965 30507 layer_factory.hpp:77] Creating layer loss2/ave_pool
I0403 14:51:58.692989 30507 net.cpp:91] Creating Layer loss2/ave_pool
I0403 14:51:58.693012 30507 net.cpp:425] loss2/ave_pool <- inception_4d/output_inception_4d/output_0_split_0
I0403 14:51:58.693033 30507 net.cpp:399] loss2/ave_pool -> loss2/ave_pool
I0403 14:51:58.693359 30507 net.cpp:141] Setting up loss2/ave_pool
I0403 14:51:58.693387 30507 net.cpp:148] Top shape: 24 528 4 4 (202752)
I0403 14:51:58.693408 30507 net.cpp:156] Memory required for data: 1207729440
I0403 14:51:58.693423 30507 layer_factory.hpp:77] Creating layer loss2/conv
I0403 14:51:58.693445 30507 net.cpp:91] Creating Layer loss2/conv
I0403 14:51:58.693464 30507 net.cpp:425] loss2/conv <- loss2/ave_pool
I0403 14:51:58.693487 30507 net.cpp:399] loss2/conv -> loss2/conv
I0403 14:51:58.695479 30507 net.cpp:141] Setting up loss2/conv
I0403 14:51:58.695513 30507 net.cpp:148] Top shape: 24 128 4 4 (49152)
I0403 14:51:58.695531 30507 net.cpp:156] Memory required for data: 1207926048
I0403 14:51:58.695552 30507 layer_factory.hpp:77] Creating layer loss2/relu_conv
I0403 14:51:58.695574 30507 net.cpp:91] Creating Layer loss2/relu_conv
I0403 14:51:58.695591 30507 net.cpp:425] loss2/relu_conv <- loss2/conv
I0403 14:51:58.695616 30507 net.cpp:386] loss2/relu_conv -> loss2/conv (in-place)
I0403 14:51:58.695912 30507 net.cpp:141] Setting up loss2/relu_conv
I0403 14:51:58.695940 30507 net.cpp:148] Top shape: 24 128 4 4 (49152)
I0403 14:51:58.695957 30507 net.cpp:156] Memory required for data: 1208122656
I0403 14:51:58.695973 30507 layer_factory.hpp:77] Creating layer loss2/fc
I0403 14:51:58.695996 30507 net.cpp:91] Creating Layer loss2/fc
I0403 14:51:58.696013 30507 net.cpp:425] loss2/fc <- loss2/conv
I0403 14:51:58.696038 30507 net.cpp:399] loss2/fc -> loss2/fc
I0403 14:51:58.714143 30507 net.cpp:141] Setting up loss2/fc
I0403 14:51:58.714198 30507 net.cpp:148] Top shape: 24 1024 (24576)
I0403 14:51:58.714215 30507 net.cpp:156] Memory required for data: 1208220960
I0403 14:51:58.714237 30507 layer_factory.hpp:77] Creating layer loss2/relu_fc
I0403 14:51:58.714262 30507 net.cpp:91] Creating Layer loss2/relu_fc
I0403 14:51:58.714282 30507 net.cpp:425] loss2/relu_fc <- loss2/fc
I0403 14:51:58.714300 30507 net.cpp:386] loss2/relu_fc -> loss2/fc (in-place)
I0403 14:51:58.714673 30507 net.cpp:141] Setting up loss2/relu_fc
I0403 14:51:58.714701 30507 net.cpp:148] Top shape: 24 1024 (24576)
I0403 14:51:58.714720 30507 net.cpp:156] Memory required for data: 1208319264
I0403 14:51:58.714737 30507 layer_factory.hpp:77] Creating layer loss2/drop_fc
I0403 14:51:58.714757 30507 net.cpp:91] Creating Layer loss2/drop_fc
I0403 14:51:58.714774 30507 net.cpp:425] loss2/drop_fc <- loss2/fc
I0403 14:51:58.714792 30507 net.cpp:386] loss2/drop_fc -> loss2/fc (in-place)
I0403 14:51:58.714848 30507 net.cpp:141] Setting up loss2/drop_fc
I0403 14:51:58.714872 30507 net.cpp:148] Top shape: 24 1024 (24576)
I0403 14:51:58.714887 30507 net.cpp:156] Memory required for data: 1208417568
I0403 14:51:58.714903 30507 layer_factory.hpp:77] Creating layer loss2/classifier_plantvillage
I0403 14:51:58.714927 30507 net.cpp:91] Creating Layer loss2/classifier_plantvillage
I0403 14:51:58.714946 30507 net.cpp:425] loss2/classifier_plantvillage <- loss2/fc
I0403 14:51:58.714967 30507 net.cpp:399] loss2/classifier_plantvillage -> loss2/classifier_plantvillage
I0403 14:51:58.715389 30507 net.cpp:141] Setting up loss2/classifier_plantvillage
I0403 14:51:58.715415 30507 net.cpp:148] Top shape: 24 38 (912)
I0403 14:51:58.715431 30507 net.cpp:156] Memory required for data: 1208421216
I0403 14:51:58.715472 30507 layer_factory.hpp:77] Creating layer loss2/classifier_plantvillage_loss2/classifier_plantvillage_0_split
I0403 14:51:58.715493 30507 net.cpp:91] Creating Layer loss2/classifier_plantvillage_loss2/classifier_plantvillage_0_split
I0403 14:51:58.715512 30507 net.cpp:425] loss2/classifier_plantvillage_loss2/classifier_plantvillage_0_split <- loss2/classifier_plantvillage
I0403 14:51:58.715533 30507 net.cpp:399] loss2/classifier_plantvillage_loss2/classifier_plantvillage_0_split -> loss2/classifier_plantvillage_loss2/classifier_plantvillage_0_split_0
I0403 14:51:58.715556 30507 net.cpp:399] loss2/classifier_plantvillage_loss2/classifier_plantvillage_0_split -> loss2/classifier_plantvillage_loss2/classifier_plantvillage_0_split_1
I0403 14:51:58.715580 30507 net.cpp:399] loss2/classifier_plantvillage_loss2/classifier_plantvillage_0_split -> loss2/classifier_plantvillage_loss2/classifier_plantvillage_0_split_2
I0403 14:51:58.715661 30507 net.cpp:141] Setting up loss2/classifier_plantvillage_loss2/classifier_plantvillage_0_split
I0403 14:51:58.715688 30507 net.cpp:148] Top shape: 24 38 (912)
I0403 14:51:58.715706 30507 net.cpp:148] Top shape: 24 38 (912)
I0403 14:51:58.715723 30507 net.cpp:148] Top shape: 24 38 (912)
I0403 14:51:58.715739 30507 net.cpp:156] Memory required for data: 1208432160
I0403 14:51:58.715754 30507 layer_factory.hpp:77] Creating layer inception_4e/1x1
I0403 14:51:58.715776 30507 net.cpp:91] Creating Layer inception_4e/1x1
I0403 14:51:58.715795 30507 net.cpp:425] inception_4e/1x1 <- inception_4d/output_inception_4d/output_0_split_1
I0403 14:51:58.715816 30507 net.cpp:399] inception_4e/1x1 -> inception_4e/1x1
I0403 14:51:58.717681 30507 net.cpp:141] Setting up inception_4e/1x1
I0403 14:51:58.717710 30507 net.cpp:148] Top shape: 24 256 14 14 (1204224)
I0403 14:51:58.717727 30507 net.cpp:156] Memory required for data: 1213249056
I0403 14:51:58.717747 30507 layer_factory.hpp:77] Creating layer inception_4e/relu_1x1
I0403 14:51:58.717767 30507 net.cpp:91] Creating Layer inception_4e/relu_1x1
I0403 14:51:58.717785 30507 net.cpp:425] inception_4e/relu_1x1 <- inception_4e/1x1
I0403 14:51:58.717806 30507 net.cpp:386] inception_4e/relu_1x1 -> inception_4e/1x1 (in-place)
I0403 14:51:58.718103 30507 net.cpp:141] Setting up inception_4e/relu_1x1
I0403 14:51:58.718132 30507 net.cpp:148] Top shape: 24 256 14 14 (1204224)
I0403 14:51:58.718147 30507 net.cpp:156] Memory required for data: 1218065952
I0403 14:51:58.718164 30507 layer_factory.hpp:77] Creating layer inception_4e/3x3_reduce
I0403 14:51:58.718191 30507 net.cpp:91] Creating Layer inception_4e/3x3_reduce
I0403 14:51:58.718210 30507 net.cpp:425] inception_4e/3x3_reduce <- inception_4d/output_inception_4d/output_0_split_2
I0403 14:51:58.718236 30507 net.cpp:399] inception_4e/3x3_reduce -> inception_4e/3x3_reduce
I0403 14:51:58.720562 30507 net.cpp:141] Setting up inception_4e/3x3_reduce
I0403 14:51:58.720599 30507 net.cpp:148] Top shape: 24 160 14 14 (752640)
I0403 14:51:58.720618 30507 net.cpp:156] Memory required for data: 1221076512
I0403 14:51:58.720640 30507 layer_factory.hpp:77] Creating layer inception_4e/relu_3x3_reduce
I0403 14:51:58.720661 30507 net.cpp:91] Creating Layer inception_4e/relu_3x3_reduce
I0403 14:51:58.720679 30507 net.cpp:425] inception_4e/relu_3x3_reduce <- inception_4e/3x3_reduce
I0403 14:51:58.720701 30507 net.cpp:386] inception_4e/relu_3x3_reduce -> inception_4e/3x3_reduce (in-place)
I0403 14:51:58.720902 30507 net.cpp:141] Setting up inception_4e/relu_3x3_reduce
I0403 14:51:58.720930 30507 net.cpp:148] Top shape: 24 160 14 14 (752640)
I0403 14:51:58.720947 30507 net.cpp:156] Memory required for data: 1224087072
I0403 14:51:58.720963 30507 layer_factory.hpp:77] Creating layer inception_4e/3x3
I0403 14:51:58.720988 30507 net.cpp:91] Creating Layer inception_4e/3x3
I0403 14:51:58.721009 30507 net.cpp:425] inception_4e/3x3 <- inception_4e/3x3_reduce
I0403 14:51:58.721034 30507 net.cpp:399] inception_4e/3x3 -> inception_4e/3x3
I0403 14:51:58.726371 30507 net.cpp:141] Setting up inception_4e/3x3
I0403 14:51:58.726416 30507 net.cpp:148] Top shape: 24 320 14 14 (1505280)
I0403 14:51:58.726435 30507 net.cpp:156] Memory required for data: 1230108192
I0403 14:51:58.726456 30507 layer_factory.hpp:77] Creating layer inception_4e/relu_3x3
I0403 14:51:58.726480 30507 net.cpp:91] Creating Layer inception_4e/relu_3x3
I0403 14:51:58.726500 30507 net.cpp:425] inception_4e/relu_3x3 <- inception_4e/3x3
I0403 14:51:58.726521 30507 net.cpp:386] inception_4e/relu_3x3 -> inception_4e/3x3 (in-place)
I0403 14:51:58.726840 30507 net.cpp:141] Setting up inception_4e/relu_3x3
I0403 14:51:58.726869 30507 net.cpp:148] Top shape: 24 320 14 14 (1505280)
I0403 14:51:58.726887 30507 net.cpp:156] Memory required for data: 1236129312
I0403 14:51:58.726904 30507 layer_factory.hpp:77] Creating layer inception_4e/5x5_reduce
I0403 14:51:58.726928 30507 net.cpp:91] Creating Layer inception_4e/5x5_reduce
I0403 14:51:58.726948 30507 net.cpp:425] inception_4e/5x5_reduce <- inception_4d/output_inception_4d/output_0_split_3
I0403 14:51:58.726972 30507 net.cpp:399] inception_4e/5x5_reduce -> inception_4e/5x5_reduce
I0403 14:51:58.728128 30507 net.cpp:141] Setting up inception_4e/5x5_reduce
I0403 14:51:58.728159 30507 net.cpp:148] Top shape: 24 32 14 14 (150528)
I0403 14:51:58.728178 30507 net.cpp:156] Memory required for data: 1236731424
I0403 14:51:58.728199 30507 layer_factory.hpp:77] Creating layer inception_4e/relu_5x5_reduce
I0403 14:51:58.728217 30507 net.cpp:91] Creating Layer inception_4e/relu_5x5_reduce
I0403 14:51:58.728236 30507 net.cpp:425] inception_4e/relu_5x5_reduce <- inception_4e/5x5_reduce
I0403 14:51:58.728258 30507 net.cpp:386] inception_4e/relu_5x5_reduce -> inception_4e/5x5_reduce (in-place)
I0403 14:51:58.728585 30507 net.cpp:141] Setting up inception_4e/relu_5x5_reduce
I0403 14:51:58.728615 30507 net.cpp:148] Top shape: 24 32 14 14 (150528)
I0403 14:51:58.728632 30507 net.cpp:156] Memory required for data: 1237333536
I0403 14:51:58.728651 30507 layer_factory.hpp:77] Creating layer inception_4e/5x5
I0403 14:51:58.728691 30507 net.cpp:91] Creating Layer inception_4e/5x5
I0403 14:51:58.728713 30507 net.cpp:425] inception_4e/5x5 <- inception_4e/5x5_reduce
I0403 14:51:58.728734 30507 net.cpp:399] inception_4e/5x5 -> inception_4e/5x5
I0403 14:51:58.730713 30507 net.cpp:141] Setting up inception_4e/5x5
I0403 14:51:58.730747 30507 net.cpp:148] Top shape: 24 128 14 14 (602112)
I0403 14:51:58.730767 30507 net.cpp:156] Memory required for data: 1239741984
I0403 14:51:58.730787 30507 layer_factory.hpp:77] Creating layer inception_4e/relu_5x5
I0403 14:51:58.730808 30507 net.cpp:91] Creating Layer inception_4e/relu_5x5
I0403 14:51:58.730826 30507 net.cpp:425] inception_4e/relu_5x5 <- inception_4e/5x5
I0403 14:51:58.730845 30507 net.cpp:386] inception_4e/relu_5x5 -> inception_4e/5x5 (in-place)
I0403 14:51:58.731060 30507 net.cpp:141] Setting up inception_4e/relu_5x5
I0403 14:51:58.731088 30507 net.cpp:148] Top shape: 24 128 14 14 (602112)
I0403 14:51:58.731106 30507 net.cpp:156] Memory required for data: 1242150432
I0403 14:51:58.731123 30507 layer_factory.hpp:77] Creating layer inception_4e/pool
I0403 14:51:58.731143 30507 net.cpp:91] Creating Layer inception_4e/pool
I0403 14:51:58.731160 30507 net.cpp:425] inception_4e/pool <- inception_4d/output_inception_4d/output_0_split_4
I0403 14:51:58.731184 30507 net.cpp:399] inception_4e/pool -> inception_4e/pool
I0403 14:51:58.731261 30507 net.cpp:141] Setting up inception_4e/pool
I0403 14:51:58.731289 30507 net.cpp:148] Top shape: 24 528 14 14 (2483712)
I0403 14:51:58.731307 30507 net.cpp:156] Memory required for data: 1252085280
I0403 14:51:58.731328 30507 layer_factory.hpp:77] Creating layer inception_4e/pool_proj
I0403 14:51:58.731351 30507 net.cpp:91] Creating Layer inception_4e/pool_proj
I0403 14:51:58.731372 30507 net.cpp:425] inception_4e/pool_proj <- inception_4e/pool
I0403 14:51:58.731392 30507 net.cpp:399] inception_4e/pool_proj -> inception_4e/pool_proj
I0403 14:51:58.733001 30507 net.cpp:141] Setting up inception_4e/pool_proj
I0403 14:51:58.733034 30507 net.cpp:148] Top shape: 24 128 14 14 (602112)
I0403 14:51:58.733067 30507 net.cpp:156] Memory required for data: 1254493728
I0403 14:51:58.733088 30507 layer_factory.hpp:77] Creating layer inception_4e/relu_pool_proj
I0403 14:51:58.733109 30507 net.cpp:91] Creating Layer inception_4e/relu_pool_proj
I0403 14:51:58.733127 30507 net.cpp:425] inception_4e/relu_pool_proj <- inception_4e/pool_proj
I0403 14:51:58.733147 30507 net.cpp:386] inception_4e/relu_pool_proj -> inception_4e/pool_proj (in-place)
I0403 14:51:58.733463 30507 net.cpp:141] Setting up inception_4e/relu_pool_proj
I0403 14:51:58.733494 30507 net.cpp:148] Top shape: 24 128 14 14 (602112)
I0403 14:51:58.733512 30507 net.cpp:156] Memory required for data: 1256902176
I0403 14:51:58.733530 30507 layer_factory.hpp:77] Creating layer inception_4e/output
I0403 14:51:58.733549 30507 net.cpp:91] Creating Layer inception_4e/output
I0403 14:51:58.733567 30507 net.cpp:425] inception_4e/output <- inception_4e/1x1
I0403 14:51:58.733587 30507 net.cpp:425] inception_4e/output <- inception_4e/3x3
I0403 14:51:58.733606 30507 net.cpp:425] inception_4e/output <- inception_4e/5x5
I0403 14:51:58.733624 30507 net.cpp:425] inception_4e/output <- inception_4e/pool_proj
I0403 14:51:58.733644 30507 net.cpp:399] inception_4e/output -> inception_4e/output
I0403 14:51:58.733700 30507 net.cpp:141] Setting up inception_4e/output
I0403 14:51:58.733726 30507 net.cpp:148] Top shape: 24 832 14 14 (3913728)
I0403 14:51:58.733742 30507 net.cpp:156] Memory required for data: 1272557088
I0403 14:51:58.733760 30507 layer_factory.hpp:77] Creating layer pool4/3x3_s2
I0403 14:51:58.733783 30507 net.cpp:91] Creating Layer pool4/3x3_s2
I0403 14:51:58.733801 30507 net.cpp:425] pool4/3x3_s2 <- inception_4e/output
I0403 14:51:58.733822 30507 net.cpp:399] pool4/3x3_s2 -> pool4/3x3_s2
I0403 14:51:58.733896 30507 net.cpp:141] Setting up pool4/3x3_s2
I0403 14:51:58.733922 30507 net.cpp:148] Top shape: 24 832 7 7 (978432)
I0403 14:51:58.733939 30507 net.cpp:156] Memory required for data: 1276470816
I0403 14:51:58.733957 30507 layer_factory.hpp:77] Creating layer pool4/3x3_s2_pool4/3x3_s2_0_split
I0403 14:51:58.733975 30507 net.cpp:91] Creating Layer pool4/3x3_s2_pool4/3x3_s2_0_split
I0403 14:51:58.733992 30507 net.cpp:425] pool4/3x3_s2_pool4/3x3_s2_0_split <- pool4/3x3_s2
I0403 14:51:58.734015 30507 net.cpp:399] pool4/3x3_s2_pool4/3x3_s2_0_split -> pool4/3x3_s2_pool4/3x3_s2_0_split_0
I0403 14:51:58.734040 30507 net.cpp:399] pool4/3x3_s2_pool4/3x3_s2_0_split -> pool4/3x3_s2_pool4/3x3_s2_0_split_1
I0403 14:51:58.734062 30507 net.cpp:399] pool4/3x3_s2_pool4/3x3_s2_0_split -> pool4/3x3_s2_pool4/3x3_s2_0_split_2
I0403 14:51:58.734086 30507 net.cpp:399] pool4/3x3_s2_pool4/3x3_s2_0_split -> pool4/3x3_s2_pool4/3x3_s2_0_split_3
I0403 14:51:58.734184 30507 net.cpp:141] Setting up pool4/3x3_s2_pool4/3x3_s2_0_split
I0403 14:51:58.734210 30507 net.cpp:148] Top shape: 24 832 7 7 (978432)
I0403 14:51:58.734228 30507 net.cpp:148] Top shape: 24 832 7 7 (978432)
I0403 14:51:58.734246 30507 net.cpp:148] Top shape: 24 832 7 7 (978432)
I0403 14:51:58.734263 30507 net.cpp:148] Top shape: 24 832 7 7 (978432)
I0403 14:51:58.734279 30507 net.cpp:156] Memory required for data: 1292125728
I0403 14:51:58.734297 30507 layer_factory.hpp:77] Creating layer inception_5a/1x1
I0403 14:51:58.734333 30507 net.cpp:91] Creating Layer inception_5a/1x1
I0403 14:51:58.734355 30507 net.cpp:425] inception_5a/1x1 <- pool4/3x3_s2_pool4/3x3_s2_0_split_0
I0403 14:51:58.734377 30507 net.cpp:399] inception_5a/1x1 -> inception_5a/1x1
I0403 14:51:58.737422 30507 net.cpp:141] Setting up inception_5a/1x1
I0403 14:51:58.737457 30507 net.cpp:148] Top shape: 24 256 7 7 (301056)
I0403 14:51:58.737476 30507 net.cpp:156] Memory required for data: 1293329952
I0403 14:51:58.737498 30507 layer_factory.hpp:77] Creating layer inception_5a/relu_1x1
I0403 14:51:58.737519 30507 net.cpp:91] Creating Layer inception_5a/relu_1x1
I0403 14:51:58.737537 30507 net.cpp:425] inception_5a/relu_1x1 <- inception_5a/1x1
I0403 14:51:58.737560 30507 net.cpp:386] inception_5a/relu_1x1 -> inception_5a/1x1 (in-place)
I0403 14:51:58.737887 30507 net.cpp:141] Setting up inception_5a/relu_1x1
I0403 14:51:58.737918 30507 net.cpp:148] Top shape: 24 256 7 7 (301056)
I0403 14:51:58.737936 30507 net.cpp:156] Memory required for data: 1294534176
I0403 14:51:58.737954 30507 layer_factory.hpp:77] Creating layer inception_5a/3x3_reduce
I0403 14:51:58.737978 30507 net.cpp:91] Creating Layer inception_5a/3x3_reduce
I0403 14:51:58.737998 30507 net.cpp:425] inception_5a/3x3_reduce <- pool4/3x3_s2_pool4/3x3_s2_0_split_1
I0403 14:51:58.738019 30507 net.cpp:399] inception_5a/3x3_reduce -> inception_5a/3x3_reduce
I0403 14:51:58.740634 30507 net.cpp:141] Setting up inception_5a/3x3_reduce
I0403 14:51:58.740667 30507 net.cpp:148] Top shape: 24 160 7 7 (188160)
I0403 14:51:58.740685 30507 net.cpp:156] Memory required for data: 1295286816
I0403 14:51:58.740705 30507 layer_factory.hpp:77] Creating layer inception_5a/relu_3x3_reduce
I0403 14:51:58.740728 30507 net.cpp:91] Creating Layer inception_5a/relu_3x3_reduce
I0403 14:51:58.740748 30507 net.cpp:425] inception_5a/relu_3x3_reduce <- inception_5a/3x3_reduce
I0403 14:51:58.740768 30507 net.cpp:386] inception_5a/relu_3x3_reduce -> inception_5a/3x3_reduce (in-place)
I0403 14:51:58.740970 30507 net.cpp:141] Setting up inception_5a/relu_3x3_reduce
I0403 14:51:58.740999 30507 net.cpp:148] Top shape: 24 160 7 7 (188160)
I0403 14:51:58.741017 30507 net.cpp:156] Memory required for data: 1296039456
I0403 14:51:58.741034 30507 layer_factory.hpp:77] Creating layer inception_5a/3x3
I0403 14:51:58.741060 30507 net.cpp:91] Creating Layer inception_5a/3x3
I0403 14:51:58.741080 30507 net.cpp:425] inception_5a/3x3 <- inception_5a/3x3_reduce
I0403 14:51:58.741101 30507 net.cpp:399] inception_5a/3x3 -> inception_5a/3x3
I0403 14:51:58.746521 30507 net.cpp:141] Setting up inception_5a/3x3
I0403 14:51:58.746559 30507 net.cpp:148] Top shape: 24 320 7 7 (376320)
I0403 14:51:58.746578 30507 net.cpp:156] Memory required for data: 1297544736
I0403 14:51:58.746601 30507 layer_factory.hpp:77] Creating layer inception_5a/relu_3x3
I0403 14:51:58.746623 30507 net.cpp:91] Creating Layer inception_5a/relu_3x3
I0403 14:51:58.746640 30507 net.cpp:425] inception_5a/relu_3x3 <- inception_5a/3x3
I0403 14:51:58.746661 30507 net.cpp:386] inception_5a/relu_3x3 -> inception_5a/3x3 (in-place)
I0403 14:51:58.747007 30507 net.cpp:141] Setting up inception_5a/relu_3x3
I0403 14:51:58.747040 30507 net.cpp:148] Top shape: 24 320 7 7 (376320)
I0403 14:51:58.747057 30507 net.cpp:156] Memory required for data: 1299050016
I0403 14:51:58.747077 30507 layer_factory.hpp:77] Creating layer inception_5a/5x5_reduce
I0403 14:51:58.747102 30507 net.cpp:91] Creating Layer inception_5a/5x5_reduce
I0403 14:51:58.747129 30507 net.cpp:425] inception_5a/5x5_reduce <- pool4/3x3_s2_pool4/3x3_s2_0_split_2
I0403 14:51:58.747156 30507 net.cpp:399] inception_5a/5x5_reduce -> inception_5a/5x5_reduce
I0403 14:51:58.748441 30507 net.cpp:141] Setting up inception_5a/5x5_reduce
I0403 14:51:58.748492 30507 net.cpp:148] Top shape: 24 32 7 7 (37632)
I0403 14:51:58.748514 30507 net.cpp:156] Memory required for data: 1299200544
I0403 14:51:58.748549 30507 layer_factory.hpp:77] Creating layer inception_5a/relu_5x5_reduce
I0403 14:51:58.748575 30507 net.cpp:91] Creating Layer inception_5a/relu_5x5_reduce
I0403 14:51:58.748600 30507 net.cpp:425] inception_5a/relu_5x5_reduce <- inception_5a/5x5_reduce
I0403 14:51:58.748627 30507 net.cpp:386] inception_5a/relu_5x5_reduce -> inception_5a/5x5_reduce (in-place)
I0403 14:51:58.748956 30507 net.cpp:141] Setting up inception_5a/relu_5x5_reduce
I0403 14:51:58.748986 30507 net.cpp:148] Top shape: 24 32 7 7 (37632)
I0403 14:51:58.749002 30507 net.cpp:156] Memory required for data: 1299351072
I0403 14:51:58.749022 30507 layer_factory.hpp:77] Creating layer inception_5a/5x5
I0403 14:51:58.749047 30507 net.cpp:91] Creating Layer inception_5a/5x5
I0403 14:51:58.749071 30507 net.cpp:425] inception_5a/5x5 <- inception_5a/5x5_reduce
I0403 14:51:58.749096 30507 net.cpp:399] inception_5a/5x5 -> inception_5a/5x5
I0403 14:51:58.750946 30507 net.cpp:141] Setting up inception_5a/5x5
I0403 14:51:58.750999 30507 net.cpp:148] Top shape: 24 128 7 7 (150528)
I0403 14:51:58.751020 30507 net.cpp:156] Memory required for data: 1299953184
I0403 14:51:58.751042 30507 layer_factory.hpp:77] Creating layer inception_5a/relu_5x5
I0403 14:51:58.751070 30507 net.cpp:91] Creating Layer inception_5a/relu_5x5
I0403 14:51:58.751094 30507 net.cpp:425] inception_5a/relu_5x5 <- inception_5a/5x5
I0403 14:51:58.751117 30507 net.cpp:386] inception_5a/relu_5x5 -> inception_5a/5x5 (in-place)
I0403 14:51:58.751333 30507 net.cpp:141] Setting up inception_5a/relu_5x5
I0403 14:51:58.751369 30507 net.cpp:148] Top shape: 24 128 7 7 (150528)
I0403 14:51:58.751390 30507 net.cpp:156] Memory required for data: 1300555296
I0403 14:51:58.751413 30507 layer_factory.hpp:77] Creating layer inception_5a/pool
I0403 14:51:58.751435 30507 net.cpp:91] Creating Layer inception_5a/pool
I0403 14:51:58.751457 30507 net.cpp:425] inception_5a/pool <- pool4/3x3_s2_pool4/3x3_s2_0_split_3
I0403 14:51:58.751485 30507 net.cpp:399] inception_5a/pool -> inception_5a/pool
I0403 14:51:58.751564 30507 net.cpp:141] Setting up inception_5a/pool
I0403 14:51:58.751593 30507 net.cpp:148] Top shape: 24 832 7 7 (978432)
I0403 14:51:58.751616 30507 net.cpp:156] Memory required for data: 1304469024
I0403 14:51:58.751633 30507 layer_factory.hpp:77] Creating layer inception_5a/pool_proj
I0403 14:51:58.751660 30507 net.cpp:91] Creating Layer inception_5a/pool_proj
I0403 14:51:58.751691 30507 net.cpp:425] inception_5a/pool_proj <- inception_5a/pool
I0403 14:51:58.751723 30507 net.cpp:399] inception_5a/pool_proj -> inception_5a/pool_proj
I0403 14:51:58.754171 30507 net.cpp:141] Setting up inception_5a/pool_proj
I0403 14:51:58.754205 30507 net.cpp:148] Top shape: 24 128 7 7 (150528)
I0403 14:51:58.754230 30507 net.cpp:156] Memory required for data: 1305071136
I0403 14:51:58.754251 30507 layer_factory.hpp:77] Creating layer inception_5a/relu_pool_proj
I0403 14:51:58.754278 30507 net.cpp:91] Creating Layer inception_5a/relu_pool_proj
I0403 14:51:58.754302 30507 net.cpp:425] inception_5a/relu_pool_proj <- inception_5a/pool_proj
I0403 14:51:58.754340 30507 net.cpp:386] inception_5a/relu_pool_proj -> inception_5a/pool_proj (in-place)
I0403 14:51:58.754673 30507 net.cpp:141] Setting up inception_5a/relu_pool_proj
I0403 14:51:58.754705 30507 net.cpp:148] Top shape: 24 128 7 7 (150528)
I0403 14:51:58.754724 30507 net.cpp:156] Memory required for data: 1305673248
I0403 14:51:58.754745 30507 layer_factory.hpp:77] Creating layer inception_5a/output
I0403 14:51:58.754772 30507 net.cpp:91] Creating Layer inception_5a/output
I0403 14:51:58.754797 30507 net.cpp:425] inception_5a/output <- inception_5a/1x1
I0403 14:51:58.754819 30507 net.cpp:425] inception_5a/output <- inception_5a/3x3
I0403 14:51:58.754838 30507 net.cpp:425] inception_5a/output <- inception_5a/5x5
I0403 14:51:58.754861 30507 net.cpp:425] inception_5a/output <- inception_5a/pool_proj
I0403 14:51:58.754880 30507 net.cpp:399] inception_5a/output -> inception_5a/output
I0403 14:51:58.754937 30507 net.cpp:141] Setting up inception_5a/output
I0403 14:51:58.754971 30507 net.cpp:148] Top shape: 24 832 7 7 (978432)
I0403 14:51:58.754987 30507 net.cpp:156] Memory required for data: 1309586976
I0403 14:51:58.755007 30507 layer_factory.hpp:77] Creating layer inception_5a/output_inception_5a/output_0_split
I0403 14:51:58.755028 30507 net.cpp:91] Creating Layer inception_5a/output_inception_5a/output_0_split
I0403 14:51:58.755046 30507 net.cpp:425] inception_5a/output_inception_5a/output_0_split <- inception_5a/output
I0403 14:51:58.755069 30507 net.cpp:399] inception_5a/output_inception_5a/output_0_split -> inception_5a/output_inception_5a/output_0_split_0
I0403 14:51:58.755094 30507 net.cpp:399] inception_5a/output_inception_5a/output_0_split -> inception_5a/output_inception_5a/output_0_split_1
I0403 14:51:58.755116 30507 net.cpp:399] inception_5a/output_inception_5a/output_0_split -> inception_5a/output_inception_5a/output_0_split_2
I0403 14:51:58.755138 30507 net.cpp:399] inception_5a/output_inception_5a/output_0_split -> inception_5a/output_inception_5a/output_0_split_3
I0403 14:51:58.755264 30507 net.cpp:141] Setting up inception_5a/output_inception_5a/output_0_split
I0403 14:51:58.755293 30507 net.cpp:148] Top shape: 24 832 7 7 (978432)
I0403 14:51:58.755312 30507 net.cpp:148] Top shape: 24 832 7 7 (978432)
I0403 14:51:58.755337 30507 net.cpp:148] Top shape: 24 832 7 7 (978432)
I0403 14:51:58.755355 30507 net.cpp:148] Top shape: 24 832 7 7 (978432)
I0403 14:51:58.755370 30507 net.cpp:156] Memory required for data: 1325241888
I0403 14:51:58.755388 30507 layer_factory.hpp:77] Creating layer inception_5b/1x1
I0403 14:51:58.755411 30507 net.cpp:91] Creating Layer inception_5b/1x1
I0403 14:51:58.755431 30507 net.cpp:425] inception_5b/1x1 <- inception_5a/output_inception_5a/output_0_split_0
I0403 14:51:58.755458 30507 net.cpp:399] inception_5b/1x1 -> inception_5b/1x1
I0403 14:51:58.759436 30507 net.cpp:141] Setting up inception_5b/1x1
I0403 14:51:58.759469 30507 net.cpp:148] Top shape: 24 384 7 7 (451584)
I0403 14:51:58.759487 30507 net.cpp:156] Memory required for data: 1327048224
I0403 14:51:58.759507 30507 layer_factory.hpp:77] Creating layer inception_5b/relu_1x1
I0403 14:51:58.759541 30507 net.cpp:91] Creating Layer inception_5b/relu_1x1
I0403 14:51:58.759560 30507 net.cpp:425] inception_5b/relu_1x1 <- inception_5b/1x1
I0403 14:51:58.759580 30507 net.cpp:386] inception_5b/relu_1x1 -> inception_5b/1x1 (in-place)
I0403 14:51:58.759904 30507 net.cpp:141] Setting up inception_5b/relu_1x1
I0403 14:51:58.759934 30507 net.cpp:148] Top shape: 24 384 7 7 (451584)
I0403 14:51:58.759951 30507 net.cpp:156] Memory required for data: 1328854560
I0403 14:51:58.759968 30507 layer_factory.hpp:77] Creating layer inception_5b/3x3_reduce
I0403 14:51:58.759992 30507 net.cpp:91] Creating Layer inception_5b/3x3_reduce
I0403 14:51:58.760012 30507 net.cpp:425] inception_5b/3x3_reduce <- inception_5a/output_inception_5a/output_0_split_1
I0403 14:51:58.760035 30507 net.cpp:399] inception_5b/3x3_reduce -> inception_5b/3x3_reduce
I0403 14:51:58.762845 30507 net.cpp:141] Setting up inception_5b/3x3_reduce
I0403 14:51:58.762876 30507 net.cpp:148] Top shape: 24 192 7 7 (225792)
I0403 14:51:58.762894 30507 net.cpp:156] Memory required for data: 1329757728
I0403 14:51:58.762915 30507 layer_factory.hpp:77] Creating layer inception_5b/relu_3x3_reduce
I0403 14:51:58.762939 30507 net.cpp:91] Creating Layer inception_5b/relu_3x3_reduce
I0403 14:51:58.762958 30507 net.cpp:425] inception_5b/relu_3x3_reduce <- inception_5b/3x3_reduce
I0403 14:51:58.762976 30507 net.cpp:386] inception_5b/relu_3x3_reduce -> inception_5b/3x3_reduce (in-place)
I0403 14:51:58.763190 30507 net.cpp:141] Setting up inception_5b/relu_3x3_reduce
I0403 14:51:58.763219 30507 net.cpp:148] Top shape: 24 192 7 7 (225792)
I0403 14:51:58.763236 30507 net.cpp:156] Memory required for data: 1330660896
I0403 14:51:58.763254 30507 layer_factory.hpp:77] Creating layer inception_5b/3x3
I0403 14:51:58.763278 30507 net.cpp:91] Creating Layer inception_5b/3x3
I0403 14:51:58.763298 30507 net.cpp:425] inception_5b/3x3 <- inception_5b/3x3_reduce
I0403 14:51:58.763326 30507 net.cpp:399] inception_5b/3x3 -> inception_5b/3x3
I0403 14:51:58.770427 30507 net.cpp:141] Setting up inception_5b/3x3
I0403 14:51:58.770458 30507 net.cpp:148] Top shape: 24 384 7 7 (451584)
I0403 14:51:58.770475 30507 net.cpp:156] Memory required for data: 1332467232
I0403 14:51:58.770496 30507 layer_factory.hpp:77] Creating layer inception_5b/relu_3x3
I0403 14:51:58.770519 30507 net.cpp:91] Creating Layer inception_5b/relu_3x3
I0403 14:51:58.770537 30507 net.cpp:425] inception_5b/relu_3x3 <- inception_5b/3x3
I0403 14:51:58.770557 30507 net.cpp:386] inception_5b/relu_3x3 -> inception_5b/3x3 (in-place)
I0403 14:51:58.770869 30507 net.cpp:141] Setting up inception_5b/relu_3x3
I0403 14:51:58.770897 30507 net.cpp:148] Top shape: 24 384 7 7 (451584)
I0403 14:51:58.770915 30507 net.cpp:156] Memory required for data: 1334273568
I0403 14:51:58.770931 30507 layer_factory.hpp:77] Creating layer inception_5b/5x5_reduce
I0403 14:51:58.770977 30507 net.cpp:91] Creating Layer inception_5b/5x5_reduce
I0403 14:51:58.770998 30507 net.cpp:425] inception_5b/5x5_reduce <- inception_5a/output_inception_5a/output_0_split_2
I0403 14:51:58.771019 30507 net.cpp:399] inception_5b/5x5_reduce -> inception_5b/5x5_reduce
I0403 14:51:58.772385 30507 net.cpp:141] Setting up inception_5b/5x5_reduce
I0403 14:51:58.772415 30507 net.cpp:148] Top shape: 24 48 7 7 (56448)
I0403 14:51:58.772435 30507 net.cpp:156] Memory required for data: 1334499360
I0403 14:51:58.772455 30507 layer_factory.hpp:77] Creating layer inception_5b/relu_5x5_reduce
I0403 14:51:58.772475 30507 net.cpp:91] Creating Layer inception_5b/relu_5x5_reduce
I0403 14:51:58.772495 30507 net.cpp:425] inception_5b/relu_5x5_reduce <- inception_5b/5x5_reduce
I0403 14:51:58.772512 30507 net.cpp:386] inception_5b/relu_5x5_reduce -> inception_5b/5x5_reduce (in-place)
I0403 14:51:58.772919 30507 net.cpp:141] Setting up inception_5b/relu_5x5_reduce
I0403 14:51:58.772949 30507 net.cpp:148] Top shape: 24 48 7 7 (56448)
I0403 14:51:58.772967 30507 net.cpp:156] Memory required for data: 1334725152
I0403 14:51:58.772984 30507 layer_factory.hpp:77] Creating layer inception_5b/5x5
I0403 14:51:58.773007 30507 net.cpp:91] Creating Layer inception_5b/5x5
I0403 14:51:58.773026 30507 net.cpp:425] inception_5b/5x5 <- inception_5b/5x5_reduce
I0403 14:51:58.773047 30507 net.cpp:399] inception_5b/5x5 -> inception_5b/5x5
I0403 14:51:58.775264 30507 net.cpp:141] Setting up inception_5b/5x5
I0403 14:51:58.775297 30507 net.cpp:148] Top shape: 24 128 7 7 (150528)
I0403 14:51:58.775318 30507 net.cpp:156] Memory required for data: 1335327264
I0403 14:51:58.775341 30507 layer_factory.hpp:77] Creating layer inception_5b/relu_5x5
I0403 14:51:58.775362 30507 net.cpp:91] Creating Layer inception_5b/relu_5x5
I0403 14:51:58.775382 30507 net.cpp:425] inception_5b/relu_5x5 <- inception_5b/5x5
I0403 14:51:58.775403 30507 net.cpp:386] inception_5b/relu_5x5 -> inception_5b/5x5 (in-place)
I0403 14:51:58.775609 30507 net.cpp:141] Setting up inception_5b/relu_5x5
I0403 14:51:58.775636 30507 net.cpp:148] Top shape: 24 128 7 7 (150528)
I0403 14:51:58.775653 30507 net.cpp:156] Memory required for data: 1335929376
I0403 14:51:58.775670 30507 layer_factory.hpp:77] Creating layer inception_5b/pool
I0403 14:51:58.775688 30507 net.cpp:91] Creating Layer inception_5b/pool
I0403 14:51:58.775707 30507 net.cpp:425] inception_5b/pool <- inception_5a/output_inception_5a/output_0_split_3
I0403 14:51:58.775729 30507 net.cpp:399] inception_5b/pool -> inception_5b/pool
I0403 14:51:58.775805 30507 net.cpp:141] Setting up inception_5b/pool
I0403 14:51:58.775831 30507 net.cpp:148] Top shape: 24 832 7 7 (978432)
I0403 14:51:58.775847 30507 net.cpp:156] Memory required for data: 1339843104
I0403 14:51:58.775864 30507 layer_factory.hpp:77] Creating layer inception_5b/pool_proj
I0403 14:51:58.775889 30507 net.cpp:91] Creating Layer inception_5b/pool_proj
I0403 14:51:58.775909 30507 net.cpp:425] inception_5b/pool_proj <- inception_5b/pool
I0403 14:51:58.775929 30507 net.cpp:399] inception_5b/pool_proj -> inception_5b/pool_proj
I0403 14:51:58.778410 30507 net.cpp:141] Setting up inception_5b/pool_proj
I0403 14:51:58.778445 30507 net.cpp:148] Top shape: 24 128 7 7 (150528)
I0403 14:51:58.778462 30507 net.cpp:156] Memory required for data: 1340445216
I0403 14:51:58.778483 30507 layer_factory.hpp:77] Creating layer inception_5b/relu_pool_proj
I0403 14:51:58.778506 30507 net.cpp:91] Creating Layer inception_5b/relu_pool_proj
I0403 14:51:58.778524 30507 net.cpp:425] inception_5b/relu_pool_proj <- inception_5b/pool_proj
I0403 14:51:58.778543 30507 net.cpp:386] inception_5b/relu_pool_proj -> inception_5b/pool_proj (in-place)
I0403 14:51:58.778854 30507 net.cpp:141] Setting up inception_5b/relu_pool_proj
I0403 14:51:58.778884 30507 net.cpp:148] Top shape: 24 128 7 7 (150528)
I0403 14:51:58.778903 30507 net.cpp:156] Memory required for data: 1341047328
I0403 14:51:58.778918 30507 layer_factory.hpp:77] Creating layer inception_5b/output
I0403 14:51:58.778939 30507 net.cpp:91] Creating Layer inception_5b/output
I0403 14:51:58.778971 30507 net.cpp:425] inception_5b/output <- inception_5b/1x1
I0403 14:51:58.778990 30507 net.cpp:425] inception_5b/output <- inception_5b/3x3
I0403 14:51:58.779007 30507 net.cpp:425] inception_5b/output <- inception_5b/5x5
I0403 14:51:58.779026 30507 net.cpp:425] inception_5b/output <- inception_5b/pool_proj
I0403 14:51:58.779044 30507 net.cpp:399] inception_5b/output -> inception_5b/output
I0403 14:51:58.779103 30507 net.cpp:141] Setting up inception_5b/output
I0403 14:51:58.779129 30507 net.cpp:148] Top shape: 24 1024 7 7 (1204224)
I0403 14:51:58.779145 30507 net.cpp:156] Memory required for data: 1345864224
I0403 14:51:58.779162 30507 layer_factory.hpp:77] Creating layer pool5/7x7_s1
I0403 14:51:58.779184 30507 net.cpp:91] Creating Layer pool5/7x7_s1
I0403 14:51:58.779203 30507 net.cpp:425] pool5/7x7_s1 <- inception_5b/output
I0403 14:51:58.779224 30507 net.cpp:399] pool5/7x7_s1 -> pool5/7x7_s1
I0403 14:51:58.779476 30507 net.cpp:141] Setting up pool5/7x7_s1
I0403 14:51:58.779507 30507 net.cpp:148] Top shape: 24 1024 1 1 (24576)
I0403 14:51:58.779526 30507 net.cpp:156] Memory required for data: 1345962528
I0403 14:51:58.779543 30507 layer_factory.hpp:77] Creating layer pool5/drop_7x7_s1
I0403 14:51:58.779564 30507 net.cpp:91] Creating Layer pool5/drop_7x7_s1
I0403 14:51:58.779583 30507 net.cpp:425] pool5/drop_7x7_s1 <- pool5/7x7_s1
I0403 14:51:58.779604 30507 net.cpp:386] pool5/drop_7x7_s1 -> pool5/7x7_s1 (in-place)
I0403 14:51:58.779672 30507 net.cpp:141] Setting up pool5/drop_7x7_s1
I0403 14:51:58.779698 30507 net.cpp:148] Top shape: 24 1024 1 1 (24576)
I0403 14:51:58.779714 30507 net.cpp:156] Memory required for data: 1346060832
I0403 14:51:58.779729 30507 layer_factory.hpp:77] Creating layer loss3/classifier_plantvillage
I0403 14:51:58.779752 30507 net.cpp:91] Creating Layer loss3/classifier_plantvillage
I0403 14:51:58.779772 30507 net.cpp:425] loss3/classifier_plantvillage <- pool5/7x7_s1
I0403 14:51:58.779793 30507 net.cpp:399] loss3/classifier_plantvillage -> loss3/classifier_plantvillage
I0403 14:51:58.780270 30507 net.cpp:141] Setting up loss3/classifier_plantvillage
I0403 14:51:58.780297 30507 net.cpp:148] Top shape: 24 38 (912)
I0403 14:51:58.780318 30507 net.cpp:156] Memory required for data: 1346064480
I0403 14:51:58.780339 30507 layer_factory.hpp:77] Creating layer loss3/classifier_plantvillage_loss3/classifier_plantvillage_0_split
I0403 14:51:58.780359 30507 net.cpp:91] Creating Layer loss3/classifier_plantvillage_loss3/classifier_plantvillage_0_split
I0403 14:51:58.780377 30507 net.cpp:425] loss3/classifier_plantvillage_loss3/classifier_plantvillage_0_split <- loss3/classifier_plantvillage
I0403 14:51:58.780400 30507 net.cpp:399] loss3/classifier_plantvillage_loss3/classifier_plantvillage_0_split -> loss3/classifier_plantvillage_loss3/classifier_plantvillage_0_split_0
I0403 14:51:58.780422 30507 net.cpp:399] loss3/classifier_plantvillage_loss3/classifier_plantvillage_0_split -> loss3/classifier_plantvillage_loss3/classifier_plantvillage_0_split_1
I0403 14:51:58.780457 30507 net.cpp:399] loss3/classifier_plantvillage_loss3/classifier_plantvillage_0_split -> loss3/classifier_plantvillage_loss3/classifier_plantvillage_0_split_2
I0403 14:51:58.780478 30507 net.cpp:399] loss3/classifier_plantvillage_loss3/classifier_plantvillage_0_split -> loss3/classifier_plantvillage_loss3/classifier_plantvillage_0_split_3
I0403 14:51:58.780589 30507 net.cpp:141] Setting up loss3/classifier_plantvillage_loss3/classifier_plantvillage_0_split
I0403 14:51:58.780618 30507 net.cpp:148] Top shape: 24 38 (912)
I0403 14:51:58.780642 30507 net.cpp:148] Top shape: 24 38 (912)
I0403 14:51:58.780664 30507 net.cpp:148] Top shape: 24 38 (912)
I0403 14:51:58.780683 30507 net.cpp:148] Top shape: 24 38 (912)
I0403 14:51:58.780699 30507 net.cpp:156] Memory required for data: 1346079072
I0403 14:51:58.780717 30507 layer_factory.hpp:77] Creating layer loss1/loss
I0403 14:51:58.780743 30507 net.cpp:91] Creating Layer loss1/loss
I0403 14:51:58.780768 30507 net.cpp:425] loss1/loss <- loss1/classifier_plantvillage_loss1/classifier_plantvillage_0_split_0
I0403 14:51:58.780808 30507 net.cpp:425] loss1/loss <- label_data_1_split_0
…
