…
I0403 14:46:27.561496 30290 net.cpp:313] The NetState phase (1) differed from the phase (0) specified by a rule in layer data
I0403 14:46:27.562645 30290 net.cpp:49] Initializing net from parameters: 
state {
  phase: TEST
}
layer {
  name: "data"
  type: "Data"
  top: "data"
  top: "label"
  include {
    phase: TEST
  }
  transform_param {
    mirror: false
    crop_size: 224
    mean_file: "/home/mohanty/data/final_dataset/lmdb/color-20-80/mean.binaryproto"
  }
  data_param {
    source: "/home/mohanty/data/final_dataset/lmdb/color-20-80/test_db"
    batch_size: 24
    backend: LMDB
  }
}
layer {
  name: "conv1/7x7_s2"
  type: "Convolution"
  bottom: "data"
  top: "conv1/7x7_s2"
  param {
    lr_mult: 1
    decay_mult: 1
  }
  param {
    lr_mult: 2
    decay_mult: 0
  }
  convolution_param {
    num_output: 64
    pad: 3
    kernel_size: 7
    stride: 2
    weight_filler {
      type: "xavier"
      std: 0.1
    }
    bias_filler {
      type: "constant"
      value: 0.2
    }
  }
}
layer {
  name: "conv1/relu_7x7"
  type: "ReLU"
  bottom: "conv1/7x7_s2"
  top: "conv1/7x7_s2"
}
layer {
  name: "pool1/3x3_s2"
  type: "Pooling"
  bottom: "conv1/7x7_s2"
  top: "pool1/3x3_s2"
  pooling_param {
    pool: MAX
    kernel_size: 3
    stride: 2
  }
}
layer {
  name: "pool1/norm1"
  type: "LRN"
  bottom: "pool1/3x3_s2"
  top: "pool1/norm1"
  lrn_param {
    local_size: 5
    alpha: 0.0001
    beta: 0.75
  }
}
layer {
  name: "conv2/3x3_reduce"
  type: "Convolution"
  bottom: "pool1/norm1"
  top: "conv2/3x3_reduce"
  param {
    lr_mult: 1
    decay_mult: 1
  }
  param {
    lr_mult: 2
    decay_mult: 0
  }
  convolution_param {
    num_output: 64
    kernel_size: 1
    weight_filler {
      type: "xavier"
      std: 0.1
    }
    bias_filler {
      type: "constant"
      value: 0.2
    }
  }
}
layer {
  name: "conv2/relu_3x3_reduce"
  type: "ReLU"
  bottom: "conv2/3x3_reduce"
  top: "conv2/3x3_reduce"
}
layer {
  name: "conv2/3x3"
  type: "Convolution"
  bottom: "conv2/3x3_reduce"
  top: "conv2/3x3"
  param {
    lr_mult: 1
    decay_mult: 1
  }
  param {
    lr_mult: 2
    decay_mult: 0
  }
  convolution_param {
    num_output: 192
    pad: 1
    kernel_size: 3
    weight_filler {
      type: "xavier"
      std: 0.03
    }
    bias_filler {
      type: "constant"
      value: 0.2
    }
  }
}
layer {
  name: "conv2/relu_3x3"
  type: "ReLU"
  bottom: "conv2/3x3"
  top: "conv2/3x3"
}
layer {
  name: "conv2/norm2"
  type: "LRN"
  bottom: "conv2/3x3"
  top: "conv2/norm2"
  lrn_param {
    local_size: 5
    alpha: 0.0001
    beta: 0.75
  }
}
layer {
  name: "pool2/3x3_s2"
  type: "Pooling"
  bottom: "conv2/norm2"
  top: "pool2/3x3_s2"
  pooling_param {
    pool: MAX
    kernel_size: 3
    stride: 2
  }
}
layer {
  name: "inception_3a/1x1"
  type: "Convolution"
  bottom: "pool2/3x3_s2"
  top: "inception_3a/1x1"
  param {
    lr_mult: 1
    decay_mult: 1
  }
  param {
    lr_mult: 2
    decay_mult: 0
  }
  convolution_param {
    num_output: 64
    kernel_size: 1
    weight_filler {
      type: "xavier"
      std: 0.03
    }
    bias_filler {
      type: "constant"
      value: 0.2
    }
  }
}
layer {
  name: "inception_3a/relu_1x1"
  type: "ReLU"
  bottom: "inception_3a/1x1"
  top: "inception_3a/1x1"
}
layer {
  name: "inception_3a/3x3_reduce"
  type: "Convolution"
  bottom: "pool2/3x3_s2"
  top: "inception_3a/3x3_reduce"
  param {
    lr_mult: 1
    decay_mult: 1
  }
  param {
    lr_mult: 2
    decay_mult: 0
  }
  convolution_param {
    num_output: 96
    kernel_size: 1
    weight_filler {
      type: "xavier"
      std: 0.09
    }
    bias_filler {
      type: "constant"
      value: 0.2
    }
  }
}
layer {
  name: "inception_3a/relu_3x3_reduce"
  type: "ReLU"
  bottom: "inception_3a/3x3_reduce"
  top: "inception_3a/3x3_reduce"
}
layer {
  name: "inception_3a/3x3"
  type: "Convolution"
  bottom: "inception_3a/3x3_reduce"
  top: "inception_3a/3x3"
  param {
    lr_mult: 1
    decay_mult: 1
  }
  param {
    lr_mult: 2
    decay_mult: 0
  }
  convolution_param {
    num_output: 128
    pad: 1
    kernel_size: 3
    weight_filler {
      type: "xavier"
      std: 0.03
    }
    bias_filler {
      type: "constant"
      value: 0.2
    }
  }
}
layer {
  name: "inception_3a/relu_3x3"
  type: "ReLU"
  bottom: "inception_3a/3x3"
  top: "inception_3a/3x3"
}
layer {
  name: "inception_3a/5x5_reduce"
  type: "Convolution"
  bottom: "pool2/3x3_s2"
  top: "inception_3a/5x5_reduce"
  param {
    lr_mult: 1
    decay_mult: 1
  }
  param {
    lr_mult: 2
    decay_mult: 0
  }
  convolution_param {
    num_output: 16
    kernel_size: 1
    weight_filler {
      type: "xavier"
      std: 0.2
    }
    bias_filler {
      type: "constant"
      value: 0.2
    }
  }
}
layer {
  name: "inception_3a/relu_5x5_reduce"
  type: "ReLU"
  bottom: "inception_3a/5x5_reduce"
  top: "inception_3a/5x5_reduce"
}
layer {
  name: "inception_3a/5x5"
  type: "Convolution"
  bottom: "inception_3a/5x5_reduce"
  top: "inception_3a/5x5"
  param {
    lr_mult: 1
    decay_mult: 1
  }
  param {
    lr_mult: 2
    decay_mult: 0
  }
  convolution_param {
    num_output: 32
    pad: 2
    kernel_size: 5
    weight_filler {
      type: "xavier"
      std: 0.03
    }
    bias_filler {
      type: "constant"
      value: 0.2
    }
  }
}
layer {
  name: "inception_3a/relu_5x5"
  type: "ReLU"
  bottom: "inception_3a/5x5"
  top: "inception_3a/5x5"
}
layer {
  name: "inception_3a/pool"
  type: "Pooling"
  bottom: "pool2/3x3_s2"
  top: "inception_3a/pool"
  pooling_param {
    pool: MAX
    kernel_size: 3
    stride: 1
    pad: 1
  }
}
layer {
  name: "inception_3a/pool_proj"
  type: "Convolution"
  bottom: "inception_3a/pool"
  top: "inception_3a/pool_proj"
  param {
    lr_mult: 1
    decay_mult: 1
  }
  param {
    lr_mult: 2
    decay_mult: 0
  }
  convolution_param {
    num_output: 32
    kernel_size: 1
    weight_filler {
      type: "xavier"
      std: 0.1
    }
    bias_filler {
      type: "constant"
      value: 0.2
    }
  }
}
layer {
  name: "inception_3a/relu_pool_proj"
  type: "ReLU"
  bottom: "inception_3a/pool_proj"
  top: "inception_3a/pool_proj"
}
layer {
  name: "inception_3a/output"
  type: "Concat"
  bottom: "inception_3a/1x1"
  bottom: "inception_3a/3x3"
  bottom: "inception_3a/5x5"
  bottom: "inception_3a/pool_proj"
  top: "inception_3a/output"
}
layer {
  name: "inception_3b/1x1"
  type: "Convolution"
  bottom: "inception_3a/output"
  top: "inception_3b/1x1"
  param {
    lr_mult: 1
    decay_mult: 1
  }
  param {
    lr_mult: 2
    decay_mult: 0
  }
  convolution_param {
    num_output: 128
    kernel_size: 1
    weight_filler {
      type: "xavier"
      std: 0.03
    }
    bias_filler {
      type: "constant"
      value: 0.2
    }
  }
}
layer {
  name: "inception_3b/relu_1x1"
  type: "ReLU"
  bottom: "inception_3b/1x1"
  top: "inception_3b/1x1"
}
layer {
  name: "inception_3b/3x3_reduce"
  type: "Convolution"
  bottom: "inception_3a/output"
  top: "inception_3b/3x3_reduce"
  param {
    lr_mult: 1
    decay_mult: 1
  }
  param {
    lr_mult: 2
    decay_mult: 0
  }
  convolution_param {
    num_output: 128
    kernel_size: 1
    weight_filler {
      type: "xavier"
      std: 0.09
    }
    bias_filler {
      type: "constant"
      value: 0.2
    }
  }
}
layer {
  name: "inception_3b/relu_3x3_reduce"
  type: "ReLU"
  bottom: "inception_3b/3x3_reduce"
  top: "inception_3b/3x3_reduce"
}
layer {
  name: "inception_3b/3x3"
  type: "Convolution"
  bottom: "inception_3b/3x3_reduce"
  top: "inception_3b/3x3"
  param {
    lr_mult: 1
    decay_mult: 1
  }
  param {
    lr_mult: 2
    decay_mult: 0
  }
  convolution_param {
    num_output: 192
    pad: 1
    kernel_size: 3
    weight_filler {
      type: "xavier"
      std: 0.03
    }
    bias_filler {
      type: "constant"
      value: 0.2
    }
  }
}
layer {
  name: "inception_3b/relu_3x3"
  type: "ReLU"
  bottom: "inception_3b/3x3"
  top: "inception_3b/3x3"
}
layer {
  name: "inception_3b/5x5_reduce"
  type: "Convolution"
  bottom: "inception_3a/output"
  top: "inception_3b/5x5_reduce"
  param {
    lr_mult: 1
    decay_mult: 1
  }
  param {
    lr_mult: 2
    decay_mult: 0
  }
  convolution_param {
    num_output: 32
    kernel_size: 1
    weight_filler {
      type: "xavier"
      std: 0.2
    }
    bias_filler {
      type: "constant"
      value: 0.2
    }
  }
}
layer {
  name: "inception_3b/relu_5x5_reduce"
  type: "ReLU"
  bottom: "inception_3b/5x5_reduce"
  top: "inception_3b/5x5_reduce"
}
layer {
  name: "inception_3b/5x5"
  type: "Convolution"
  bottom: "inception_3b/5x5_reduce"
  top: "inception_3b/5x5"
  param {
    lr_mult: 1
    decay_mult: 1
  }
  param {
    lr_mult: 2
    decay_mult: 0
  }
  convolution_param {
    num_output: 96
    pad: 2
    kernel_size: 5
    weight_filler {
      type: "xavier"
      std: 0.03
    }
    bias_filler {
      type: "constant"
      value: 0.2
    }
  }
}
layer {
  name: "inception_3b/relu_5x5"
  type: "ReLU"
  bottom: "inception_3b/5x5"
  top: "inception_3b/5x5"
}
layer {
  name: "inception_3b/pool"
  type: "Pooling"
  bottom: "inception_3a/output"
  top: "inception_3b/pool"
  pooling_param {
    pool: MAX
    kernel_size: 3
    stride: 1
    pad: 1
  }
}
layer {
  name: "inception_3b/pool_proj"
  type: "Convolution"
  bottom: "inception_3b/pool"
  top: "inception_3b/pool_proj"
  param {
    lr_mult: 1
    decay_mult: 1
  }
  param {
    lr_mult: 2
    decay_mult: 0
  }
  convolution_param {
    num_output: 64
    kernel_size: 1
    weight_filler {
      type: "xavier"
      std: 0.1
    }
    bias_filler {
      type: "constant"
      value: 0.2
    }
  }
}
layer {
  name: "inception_3b/relu_pool_proj"
  type: "ReLU"
  bottom: "inception_3b/pool_proj"
  top: "inception_3b/pool_proj"
}
layer {
  name: "inception_3b/output"
  type: "Concat"
  bottom: "inception_3b/1x1"
  bottom: "inception_3b/3x3"
  bottom: "inception_3b/5x5"
  bottom: "inception_3b/pool_proj"
  top: "inception_3b/output"
}
layer {
  name: "pool3/3x3_s2"
  type: "Pooling"
  bottom: "inception_3b/output"
  top: "pool3/3x3_s2"
  pooling_param {
    pool: MAX
    kernel_size: 3
    stride: 2
  }
}
layer {
  name: "inception_4a/1x1"
  type: "Convolution"
  bottom: "pool3/3x3_s2"
  top: "inception_4a/1x1"
  param {
    lr_mult: 1
    decay_mult: 1
  }
  param {
    lr_mult: 2
    decay_mult: 0
  }
  convolution_param {
    num_output: 192
    kernel_size: 1
    weight_filler {
      type: "xavier"
      std: 0.03
    }
    bias_filler {
      type: "constant"
      value: 0.2
    }
  }
}
layer {
  name: "inception_4a/relu_1x1"
  type: "ReLU"
  bottom: "inception_4a/1x1"
  top: "inception_4a/1x1"
}
layer {
  name: "inception_4a/3x3_reduce"
  type: "Convolution"
  bottom: "pool3/3x3_s2"
  top: "inception_4a/3x3_reduce"
  param {
    lr_mult: 1
    decay_mult: 1
  }
  param {
    lr_mult: 2
    decay_mult: 0
  }
  convolution_param {
    num_output: 96
    kernel_size: 1
    weight_filler {
      type: "xavier"
      std: 0.09
    }
    bias_filler {
      type: "constant"
      value: 0.2
    }
  }
}
layer {
  name: "inception_4a/relu_3x3_reduce"
  type: "ReLU"
  bottom: "inception_4a/3x3_reduce"
  top: "inception_4a/3x3_reduce"
}
layer {
  name: "inception_4a/3x3"
  type: "Convolution"
  bottom: "inception_4a/3x3_reduce"
  top: "inception_4a/3x3"
  param {
    lr_mult: 1
    decay_mult: 1
  }
  param {
    lr_mult: 2
    decay_mult: 0
  }
  convolution_param {
    num_output: 208
    pad: 1
    kernel_size: 3
    weight_filler {
      type: "xavier"
      std: 0.03
    }
    bias_filler {
      type: "constant"
      value: 0.2
    }
  }
}
layer {
  name: "inception_4a/relu_3x3"
  type: "ReLU"
  bottom: "inception_4a/3x3"
  top: "inception_4a/3x3"
}
layer {
  name: "inception_4a/5x5_reduce"
  type: "Convolution"
  bottom: "pool3/3x3_s2"
  top: "inception_4a/5x5_reduce"
  param {
    lr_mult: 1
    decay_mult: 1
  }
  param {
    lr_mult: 2
    decay_mult: 0
  }
  convolution_param {
    num_output: 16
    kernel_size: 1
    weight_filler {
      type: "xavier"
      std: 0.2
    }
    bias_filler {
      type: "constant"
      value: 0.2
    }
  }
}
layer {
  name: "inception_4a/relu_5x5_reduce"
  type: "ReLU"
  bottom: "inception_4a/5x5_reduce"
  top: "inception_4a/5x5_reduce"
}
layer {
  name: "inception_4a/5x5"
  type: "Convolution"
  bottom: "inception_4a/5x5_reduce"
  top: "inception_4a/5x5"
  param {
    lr_mult: 1
    decay_mult: 1
  }
  param {
    lr_mult: 2
    decay_mult: 0
  }
  convolution_param {
    num_output: 48
    pad: 2
    kernel_size: 5
    weight_filler {
      type: "xavier"
      std: 0.03
    }
    bias_filler {
      type: "constant"
      value: 0.2
    }
  }
}
layer {
  name: "inception_4a/relu_5x5"
  type: "ReLU"
  bottom: "inception_4a/5x5"
  top: "inception_4a/5x5"
}
layer {
  name: "inception_4a/pool"
  type: "Pooling"
  bottom: "pool3/3x3_s2"
  top: "inception_4a/pool"
  pooling_param {
    pool: MAX
    kernel_size: 3
    stride: 1
    pad: 1
  }
}
layer {
  name: "inception_4a/pool_proj"
  type: "Convolution"
  bottom: "inception_4a/pool"
  top: "inception_4a/pool_proj"
  param {
    lr_mult: 1
    decay_mult: 1
  }
  param {
    lr_mult: 2
    decay_mult: 0
  }
  convolution_param {
    num_output: 64
    kernel_size: 1
    weight_filler {
      type: "xavier"
      std: 0.1
    }
    bias_filler {
      type: "constant"
      value: 0.2
    }
  }
}
layer {
  name: "inception_4a/relu_pool_proj"
  type: "ReLU"
  bottom: "inception_4a/pool_proj"
  top: "inception_4a/pool_proj"
}
layer {
  name: "inception_4a/output"
  type: "Concat"
  bottom: "inception_4a/1x1"
  bottom: "inception_4a/3x3"
  bottom: "inception_4a/5x5"
  bottom: "inception_4a/pool_proj"
  top: "inception_4a/output"
}
layer {
  name: "loss1/ave_pool"
  type: "Pooling"
  bottom: "inception_4a/output"
  top: "loss1/ave_pool"
  pooling_param {
    pool: AVE
    kernel_size: 5
    stride: 3
  }
}
layer {
  name: "loss1/conv"
  type: "Convolution"
  bottom: "loss1/ave_pool"
  top: "loss1/conv"
  param {
    lr_mult: 1
    decay_mult: 1
  }
  param {
    lr_mult: 2
    decay_mult: 0
  }
  convolution_param {
    num_output: 128
    kernel_size: 1
    weight_filler {
      type: "xavier"
      std: 0.08
    }
    bias_filler {
      type: "constant"
      value: 0.2
    }
  }
}
layer {
  name: "loss1/relu_conv"
  type: "ReLU"
  bottom: "loss1/conv"
  top: "loss1/conv"
}
layer {
  name: "loss1/fc"
  type: "InnerProduct"
  bottom: "loss1/conv"
  top: "loss1/fc"
  param {
    lr_mult: 1
    decay_mult: 1
  }
  param {
    lr_mult: 2
    decay_mult: 0
  }
  inner_product_param {
    num_output: 1024
    weight_filler {
      type: "xavier"
      std: 0.02
    }
    bias_filler {
      type: "constant"
      value: 0.2
    }
  }
}
layer {
  name: "loss1/relu_fc"
  type: "ReLU"
  bottom: "loss1/fc"
  top: "loss1/fc"
}
layer {
  name: "loss1/drop_fc"
  type: "Dropout"
  bottom: "loss1/fc"
  top: "loss1/fc"
  dropout_param {
    dropout_ratio: 0.7
  }
}
layer {
  name: "loss1/classifier_plantvillage"
  type: "InnerProduct"
  bottom: "loss1/fc"
  top: "loss1/classifier_plantvillage"
  param {
    lr_mult: 1
    decay_mult: 1
  }
  param {
    lr_mult: 2
    decay_mult: 0
  }
  inner_product_param {
    num_output: 38
    weight_filler {
      type: "xavier"
      std: 0.0009765625
    }
    bias_filler {
      type: "constant"
      value: 0
    }
  }
}
layer {
  name: "inception_4b/1x1"
  type: "Convolution"
  bottom: "inception_4a/output"
  top: "inception_4b/1x1"
  param {
    lr_mult: 1
    decay_mult: 1
  }
  param {
    lr_mult: 2
    decay_mult: 0
  }
  convolution_param {
    num_output: 160
    kernel_size: 1
    weight_filler {
      type: "xavier"
      std: 0.03
    }
    bias_filler {
      type: "constant"
      value: 0.2
    }
  }
}
layer {
  name: "inception_4b/relu_1x1"
  type: "ReLU"
  bottom: "inception_4b/1x1"
  top: "inception_4b/1x1"
}
layer {
  name: "inception_4b/3x3_reduce"
  type: "Convolution"
  bottom: "inception_4a/output"
  top: "inception_4b/3x3_reduce"
  param {
    lr_mult: 1
    decay_mult: 1
  }
  param {
    lr_mult: 2
    decay_mult: 0
  }
  convolution_param {
    num_output: 112
    kernel_size: 1
    weight_filler {
      type: "xavier"
      std: 0.09
    }
    bias_filler {
      type: "constant"
      value: 0.2
    }
  }
}
layer {
  name: "inception_4b/relu_3x3_reduce"
  type: "ReLU"
  bottom: "inception_4b/3x3_reduce"
  top: "inception_4b/3x3_reduce"
}
layer {
  name: "inception_4b/3x3"
  type: "Convolution"
  bottom: "inception_4b/3x3_reduce"
  top: "inception_4b/3x3"
  param {
    lr_mult: 1
    decay_mult: 1
  }
  param {
    lr_mult: 2
    decay_mult: 0
  }
  convolution_param {
    num_output: 224
    pad: 1
    kernel_size: 3
    weight_filler {
      type: "xavier"
      std: 0.03
    }
    bias_filler {
      type: "constant"
      value: 0.2
    }
  }
}
layer {
  name: "inception_4b/relu_3x3"
  type: "ReLU"
  bottom: "inception_4b/3x3"
  top: "inception_4b/3x3"
}
layer {
  name: "inception_4b/5x5_reduce"
  type: "Convolution"
  bottom: "inception_4a/output"
  top: "inception_4b/5x5_reduce"
  param {
    lr_mult: 1
    decay_mult: 1
  }
  param {
    lr_mult: 2
    decay_mult: 0
  }
  convolution_param {
    num_output: 24
    kernel_size: 1
    weight_filler {
      type: "xavier"
      std: 0.2
    }
    bias_filler {
      type: "constant"
      value: 0.2
    }
  }
}
layer {
  name: "inception_4b/relu_5x5_reduce"
  type: "ReLU"
  bottom: "inception_4b/5x5_reduce"
  top: "inception_4b/5x5_reduce"
}
layer {
  name: "inception_4b/5x5"
  type: "Convolution"
  bottom: "inception_4b/5x5_reduce"
  top: "inception_4b/5x5"
  param {
    lr_mult: 1
    decay_mult: 1
  }
  param {
    lr_mult: 2
    decay_mult: 0
  }
  convolution_param {
    num_output: 64
    pad: 2
    kernel_size: 5
    weight_filler {
      type: "xavier"
      std: 0.03
    }
    bias_filler {
      type: "constant"
      value: 0.2
    }
  }
}
layer {
  name: "inception_4b/relu_5x5"
  type: "ReLU"
  bottom: "inception_4b/5x5"
  top: "inception_4b/5x5"
}
layer {
  name: "inception_4b/pool"
  type: "Pooling"
  bottom: "inception_4a/output"
  top: "inception_4b/pool"
  pooling_param {
    pool: MAX
    kernel_size: 3
    stride: 1
    pad: 1
  }
}
layer {
  name: "inception_4b/pool_proj"
  type: "Convolution"
  bottom: "inception_4b/pool"
  top: "inception_4b/pool_proj"
  param {
    lr_mult: 1
    decay_mult: 1
  }
  param {
    lr_mult: 2
    decay_mult: 0
  }
  convolution_param {
    num_output: 64
    kernel_size: 1
    weight_filler {
      type: "xavier"
      std: 0.1
    }
    bias_filler {
      type: "constant"
      value: 0.2
    }
  }
}
layer {
  name: "inception_4b/relu_pool_proj"
  type: "ReLU"
  bottom: "inception_4b/pool_proj"
  top: "inception_4b/pool_proj"
}
layer {
  name: "inception_4b/output"
  type: "Concat"
  bottom: "inception_4b/1x1"
  bottom: "inception_4b/3x3"
  bottom: "inception_4b/5x5"
  bottom: "inception_4b/pool_proj"
  top: "inception_4b/output"
}
layer {
  name: "inception_4c/1x1"
  type: "Convolution"
  bottom: "inception_4b/output"
  top: "inception_4c/1x1"
  param {
    lr_mult: 1
    decay_mult: 1
  }
  param {
    lr_mult: 2
    decay_mult: 0
  }
  convolution_param {
    num_output: 128
    kernel_size: 1
    weight_filler {
      type: "xavier"
      std: 0.03
    }
    bias_filler {
      type: "constant"
      value: 0.2
    }
  }
}
layer {
  name: "inception_4c/relu_1x1"
  type: "ReLU"
  bottom: "inception_4c/1x1"
  top: "inception_4c/1x1"
}
layer {
  name: "inception_4c/3x3_reduce"
  type: "Convolution"
  bottom: "inception_4b/output"
  top: "inception_4c/3x3_reduce"
  param {
    lr_mult: 1
    decay_mult: 1
  }
  param {
    lr_mult: 2
    decay_mult: 0
  }
  convolution_param {
    num_output: 128
    kernel_size: 1
    weight_filler {
      type: "xavier"
      std: 0.09
    }
    bias_filler {
      type: "constant"
      value: 0.2
    }
  }
}
layer {
  name: "inception_4c/relu_3x3_reduce"
  type: "ReLU"
  bottom: "inception_4c/3x3_reduce"
  top: "inception_4c/3x3_reduce"
}
layer {
  name: "inception_4c/3x3"
  type: "Convolution"
  bottom: "inception_4c/3x3_reduce"
  top: "inception_4c/3x3"
  param {
    lr_mult: 1
    decay_mult: 1
  }
  param {
    lr_mult: 2
    decay_mult: 0
  }
  convolution_param {
    num_output: 256
    pad: 1
    kernel_size: 3
    weight_filler {
      type: "xavier"
      std: 0.03
    }
    bias_filler {
      type: "constant"
      value: 0.2
    }
  }
}
layer {
  name: "inception_4c/relu_3x3"
  type: "ReLU"
  bottom: "inception_4c/3x3"
  top: "inception_4c/3x3"
}
layer {
  name: "inception_4c/5x5_reduce"
  type: "Convolution"
  bottom: "inception_4b/output"
  top: "inception_4c/5x5_reduce"
  param {
    lr_mult: 1
    decay_mult: 1
  }
  param {
    lr_mult: 2
    decay_mult: 0
  }
  convolution_param {
    num_output: 24
    kernel_size: 1
    weight_filler {
      type: "xavier"
      std: 0.2
    }
    bias_filler {
      type: "constant"
      value: 0.2
    }
  }
}
layer {
  name: "inception_4c/relu_5x5_reduce"
  type: "ReLU"
  bottom: "inception_4c/5x5_reduce"
  top: "inception_4c/5x5_reduce"
}
layer {
  name: "inception_4c/5x5"
  type: "Convolution"
  bottom: "inception_4c/5x5_reduce"
  top: "inception_4c/5x5"
  param {
    lr_mult: 1
    decay_mult: 1
  }
  param {
    lr_mult: 2
    decay_mult: 0
  }
  convolution_param {
    num_output: 64
    pad: 2
    kernel_size: 5
    weight_filler {
      type: "xavier"
      std: 0.03
    }
    bias_filler {
      type: "constant"
      value: 0.2
    }
  }
}
layer {
  name: "inception_4c/relu_5x5"
  type: "ReLU"
  bottom: "inception_4c/5x5"
  top: "inception_4c/5x5"
}
layer {
  name: "inception_4c/pool"
  type: "Pooling"
  bottom: "inception_4b/output"
  top: "inception_4c/pool"
  pooling_param {
    pool: MAX
    kernel_size: 3
    stride: 1
    pad: 1
  }
}
layer {
  name: "inception_4c/pool_proj"
  type: "Convolution"
  bottom: "inception_4c/pool"
  top: "inception_4c/pool_proj"
  param {
    lr_mult: 1
    decay_mult: 1
  }
  param {
    lr_mult: 2
    decay_mult: 0
  }
  convolution_param {
    num_output: 64
    kernel_size: 1
    weight_filler {
      type: "xavier"
      std: 0.1
    }
    bias_filler {
      type: "constant"
      value: 0.2
    }
  }
}
layer {
  name: "inception_4c/relu_pool_proj"
  type: "ReLU"
  bottom: "inception_4c/pool_proj"
  top: "inception_4c/pool_proj"
}
layer {
  name: "inception_4c/output"
  type: "Concat"
  bottom: "inception_4c/1x1"
  bottom: "inception_4c/3x3"
  bottom: "inception_4c/5x5"
  bottom: "inception_4c/pool_proj"
  top: "inception_4c/output"
}
layer {
  name: "inception_4d/1x1"
  type: "Convolution"
  bottom: "inception_4c/output"
  top: "inception_4d/1x1"
  param {
    lr_mult: 1
    decay_mult: 1
  }
  param {
    lr_mult: 2
    decay_mult: 0
  }
  convolution_param {
    num_output: 112
    kernel_size: 1
    weight_filler {
      type: "xavier"
      std: 0.03
    }
    bias_filler {
      type: "constant"
      value: 0.2
    }
  }
}
layer {
  name: "inception_4d/relu_1x1"
  type: "ReLU"
  bottom: "inception_4d/1x1"
  top: "inception_4d/1x1"
}
layer {
  name: "inception_4d/3x3_reduce"
  type: "Convolution"
  bottom: "inception_4c/output"
  top: "inception_4d/3x3_reduce"
  param {
    lr_mult: 1
    decay_mult: 1
  }
  param {
    lr_mult: 2
    decay_mult: 0
  }
  convolution_param {
    num_output: 144
    kernel_size: 1
    weight_filler {
      type: "xavier"
      std: 0.09
    }
    bias_filler {
      type: "constant"
      value: 0.2
    }
  }
}
layer {
  name: "inception_4d/relu_3x3_reduce"
  type: "ReLU"
  bottom: "inception_4d/3x3_reduce"
  top: "inception_4d/3x3_reduce"
}
layer {
  name: "inception_4d/3x3"
  type: "Convolution"
  bottom: "inception_4d/3x3_reduce"
  top: "inception_4d/3x3"
  param {
    lr_mult: 1
    decay_mult: 1
  }
  param {
    lr_mult: 2
    decay_mult: 0
  }
  convolution_param {
    num_output: 288
    pad: 1
    kernel_size: 3
    weight_filler {
      type: "xavier"
      std: 0.03
    }
    bias_filler {
      type: "constant"
      value: 0.2
    }
  }
}
layer {
  name: "inception_4d/relu_3x3"
  type: "ReLU"
  bottom: "inception_4d/3x3"
  top: "inception_4d/3x3"
}
layer {
  name: "inception_4d/5x5_reduce"
  type: "Convolution"
  bottom: "inception_4c/output"
  top: "inception_4d/5x5_reduce"
  param {
    lr_mult: 1
    decay_mult: 1
  }
  param {
    lr_mult: 2
    decay_mult: 0
  }
  convolution_param {
    num_output: 32
    kernel_size: 1
    weight_filler {
      type: "xavier"
      std: 0.2
    }
    bias_filler {
      type: "constant"
      value: 0.2
    }
  }
}
layer {
  name: "inception_4d/relu_5x5_reduce"
  type: "ReLU"
  bottom: "inception_4d/5x5_reduce"
  top: "inception_4d/5x5_reduce"
}
layer {
  name: "inception_4d/5x5"
  type: "Convolution"
  bottom: "inception_4d/5x5_reduce"
  top: "inception_4d/5x5"
  param {
    lr_mult: 1
    decay_mult: 1
  }
  param {
    lr_mult: 2
    decay_mult: 0
  }
  convolution_param {
    num_output: 64
    pad: 2
    kernel_size: 5
    weight_filler {
      type: "xavier"
      std: 0.03
    }
    bias_filler {
      type: "constant"
      value: 0.2
    }
  }
}
layer {
  name: "inception_4d/relu_5x5"
  type: "ReLU"
  bottom: "inception_4d/5x5"
  top: "inception_4d/5x5"
}
layer {
  name: "inception_4d/pool"
  type: "Pooling"
  bottom: "inception_4c/output"
  top: "inception_4d/pool"
  pooling_param {
    pool: MAX
    kernel_size: 3
    stride: 1
    pad: 1
  }
}
layer {
  name: "inception_4d/pool_proj"
  type: "Convolution"
  bottom: "inception_4d/pool"
  top: "inception_4d/pool_proj"
  param {
    lr_mult: 1
    decay_mult: 1
  }
  param {
    lr_mult: 2
    decay_mult: 0
  }
  convolution_param {
    num_output: 64
    kernel_size: 1
    weight_filler {
      type: "xavier"
      std: 0.1
    }
    bias_filler {
      type: "constant"
      value: 0.2
    }
  }
}
layer {
  name: "inception_4d/relu_pool_proj"
  type: "ReLU"
  bottom: "inception_4d/pool_proj"
  top: "inception_4d/pool_proj"
}
layer {
  name: "inception_4d/output"
  type: "Concat"
  bottom: "inception_4d/1x1"
  bottom: "inception_4d/3x3"
  bottom: "inception_4d/5x5"
  bottom: "inception_4d/pool_proj"
  top: "inception_4d/output"
}
layer {
  name: "loss2/ave_pool"
  type: "Pooling"
  bottom: "inception_4d/output"
  top: "loss2/ave_pool"
  pooling_param {
    pool: AVE
    kernel_size: 5
    stride: 3
  }
}
layer {
  name: "loss2/conv"
  type: "Convolution"
  bottom: "loss2/ave_pool"
  top: "loss2/conv"
  param {
    lr_mult: 1
    decay_mult: 1
  }
  param {
    lr_mult: 2
    decay_mult: 0
  }
  convolution_param {
    num_output: 128
    kernel_size: 1
    weight_filler {
      type: "xavier"
      std: 0.08
    }
    bias_filler {
      type: "constant"
      value: 0.2
    }
  }
}
layer {
  name: "loss2/relu_conv"
  type: "ReLU"
  bottom: "loss2/conv"
  top: "loss2/conv"
}
layer {
  name: "loss2/fc"
  type: "InnerProduct"
  bottom: "loss2/conv"
  top: "loss2/fc"
  param {
    lr_mult: 1
    decay_mult: 1
  }
  param {
    lr_mult: 2
    decay_mult: 0
  }
  inner_product_param {
    num_output: 1024
    weight_filler {
      type: "xavier"
      std: 0.02
    }
    bias_filler {
      type: "constant"
      value: 0.2
    }
  }
}
layer {
  name: "loss2/relu_fc"
  type: "ReLU"
  bottom: "loss2/fc"
  top: "loss2/fc"
}
layer {
  name: "loss2/drop_fc"
  type: "Dropout"
  bottom: "loss2/fc"
  top: "loss2/fc"
  dropout_param {
    dropout_ratio: 0.7
  }
}
layer {
  name: "loss2/classifier_plantvillage"
  type: "InnerProduct"
  bottom: "loss2/fc"
  top: "loss2/classifier_plantvillage"
  param {
    lr_mult: 1
    decay_mult: 1
  }
  param {
    lr_mult: 2
    decay_mult: 0
  }
  inner_product_param {
    num_output: 38
    weight_filler {
      type: "xavier"
      std: 0.0009765625
    }
    bias_filler {
      type: "constant"
      value: 0
    }
  }
}
layer {
  name: "inception_4e/1x1"
  type: "Convolution"
  bottom: "inception_4d/output"
  top: "inception_4e/1x1"
  param {
    lr_mult: 1
    decay_mult: 1
  }
  param {
    lr_mult: 2
    decay_mult: 0
  }
  convolution_param {
    num_output: 256
    kernel_size: 1
    weight_filler {
      type: "xavier"
      std: 0.03
    }
    bias_filler {
      type: "constant"
      value: 0.2
    }
  }
}
layer {
  name: "inception_4e/relu_1x1"
  type: "ReLU"
  bottom: "inception_4e/1x1"
  top: "inception_4e/1x1"
}
layer {
  name: "inception_4e/3x3_reduce"
  type: "Convolution"
  bottom: "inception_4d/output"
  top: "inception_4e/3x3_reduce"
  param {
    lr_mult: 1
    decay_mult: 1
  }
  param {
    lr_mult: 2
    decay_mult: 0
  }
  convolution_param {
    num_output: 160
    kernel_size: 1
    weight_filler {
      type: "xavier"
      std: 0.09
    }
    bias_filler {
      type: "constant"
      value: 0.2
    }
  }
}
layer {
  name: "inception_4e/relu_3x3_reduce"
  type: "ReLU"
  bottom: "inception_4e/3x3_reduce"
  top: "inception_4e/3x3_reduce"
}
layer {
  name: "inception_4e/3x3"
  type: "Convolution"
  bottom: "inception_4e/3x3_reduce"
  top: "inception_4e/3x3"
  param {
    lr_mult: 1
    decay_mult: 1
  }
  param {
    lr_mult: 2
    decay_mult: 0
  }
  convolution_param {
    num_output: 320
    pad: 1
    kernel_size: 3
    weight_filler {
      type: "xavier"
      std: 0.03
    }
    bias_filler {
      type: "constant"
      value: 0.2
    }
  }
}
layer {
  name: "inception_4e/relu_3x3"
  type: "ReLU"
  bottom: "inception_4e/3x3"
  top: "inception_4e/3x3"
}
layer {
  name: "inception_4e/5x5_reduce"
  type: "Convolution"
  bottom: "inception_4d/output"
  top: "inception_4e/5x5_reduce"
  param {
    lr_mult: 1
    decay_mult: 1
  }
  param {
    lr_mult: 2
    decay_mult: 0
  }
  convolution_param {
    num_output: 32
    kernel_size: 1
    weight_filler {
      type: "xavier"
      std: 0.2
    }
    bias_filler {
      type: "constant"
      value: 0.2
    }
  }
}
layer {
  name: "inception_4e/relu_5x5_reduce"
  type: "ReLU"
  bottom: "inception_4e/5x5_reduce"
  top: "inception_4e/5x5_reduce"
}
layer {
  name: "inception_4e/5x5"
  type: "Convolution"
  bottom: "inception_4e/5x5_reduce"
  top: "inception_4e/5x5"
  p
I0403 14:46:27.563962 30290 layer_factory.hpp:77] Creating layer data
I0403 14:46:27.564590 30290 net.cpp:91] Creating Layer data
I0403 14:46:27.564621 30290 net.cpp:399] data -> data
I0403 14:46:27.564676 30290 net.cpp:399] data -> label
I0403 14:46:27.564721 30290 data_transformer.cpp:25] Loading mean file from: /home/mohanty/data/final_dataset/lmdb/color-20-80/mean.binaryproto
I0403 14:46:27.567654 30295 db_lmdb.cpp:38] Opened lmdb /home/mohanty/data/final_dataset/lmdb/color-20-80/test_db
I0403 14:46:27.577875 30290 data_layer.cpp:41] output data size: 24,3,224,224
I0403 14:46:27.604482 30290 net.cpp:141] Setting up data
I0403 14:46:27.604573 30290 net.cpp:148] Top shape: 24 3 224 224 (3612672)
I0403 14:46:27.604598 30290 net.cpp:148] Top shape: 24 (24)
I0403 14:46:27.604614 30290 net.cpp:156] Memory required for data: 14450784
I0403 14:46:27.604643 30290 layer_factory.hpp:77] Creating layer label_data_1_split
I0403 14:46:27.604671 30290 net.cpp:91] Creating Layer label_data_1_split
I0403 14:46:27.604691 30290 net.cpp:425] label_data_1_split <- label
I0403 14:46:27.604723 30290 net.cpp:399] label_data_1_split -> label_data_1_split_0
I0403 14:46:27.604753 30290 net.cpp:399] label_data_1_split -> label_data_1_split_1
I0403 14:46:27.604774 30290 net.cpp:399] label_data_1_split -> label_data_1_split_2
I0403 14:46:27.604797 30290 net.cpp:399] label_data_1_split -> label_data_1_split_3
I0403 14:46:27.604818 30290 net.cpp:399] label_data_1_split -> label_data_1_split_4
I0403 14:46:27.604840 30290 net.cpp:399] label_data_1_split -> label_data_1_split_5
I0403 14:46:27.604861 30290 net.cpp:399] label_data_1_split -> label_data_1_split_6
I0403 14:46:27.604882 30290 net.cpp:399] label_data_1_split -> label_data_1_split_7
I0403 14:46:27.604902 30290 net.cpp:399] label_data_1_split -> label_data_1_split_8
I0403 14:46:27.604923 30290 net.cpp:399] label_data_1_split -> label_data_1_split_9
I0403 14:46:27.605042 30290 net.cpp:141] Setting up label_data_1_split
I0403 14:46:27.605067 30290 net.cpp:148] Top shape: 24 (24)
I0403 14:46:27.605084 30290 net.cpp:148] Top shape: 24 (24)
I0403 14:46:27.605101 30290 net.cpp:148] Top shape: 24 (24)
I0403 14:46:27.605118 30290 net.cpp:148] Top shape: 24 (24)
I0403 14:46:27.605134 30290 net.cpp:148] Top shape: 24 (24)
I0403 14:46:27.605150 30290 net.cpp:148] Top shape: 24 (24)
I0403 14:46:27.605167 30290 net.cpp:148] Top shape: 24 (24)
I0403 14:46:27.605183 30290 net.cpp:148] Top shape: 24 (24)
I0403 14:46:27.605198 30290 net.cpp:148] Top shape: 24 (24)
I0403 14:46:27.605216 30290 net.cpp:148] Top shape: 24 (24)
I0403 14:46:27.605263 30290 net.cpp:156] Memory required for data: 14451744
I0403 14:46:27.605280 30290 layer_factory.hpp:77] Creating layer conv1/7x7_s2
I0403 14:46:27.605314 30290 net.cpp:91] Creating Layer conv1/7x7_s2
I0403 14:46:27.605340 30290 net.cpp:425] conv1/7x7_s2 <- data
I0403 14:46:27.605360 30290 net.cpp:399] conv1/7x7_s2 -> conv1/7x7_s2
I0403 14:46:27.747812 30290 net.cpp:141] Setting up conv1/7x7_s2
I0403 14:46:27.747891 30290 net.cpp:148] Top shape: 24 64 112 112 (19267584)
I0403 14:46:27.747911 30290 net.cpp:156] Memory required for data: 91522080
I0403 14:46:27.747943 30290 layer_factory.hpp:77] Creating layer conv1/relu_7x7
I0403 14:46:27.747972 30290 net.cpp:91] Creating Layer conv1/relu_7x7
I0403 14:46:27.747989 30290 net.cpp:425] conv1/relu_7x7 <- conv1/7x7_s2
I0403 14:46:27.748010 30290 net.cpp:386] conv1/relu_7x7 -> conv1/7x7_s2 (in-place)
I0403 14:46:27.748275 30290 net.cpp:141] Setting up conv1/relu_7x7
I0403 14:46:27.748303 30290 net.cpp:148] Top shape: 24 64 112 112 (19267584)
I0403 14:46:27.748324 30290 net.cpp:156] Memory required for data: 168592416
I0403 14:46:27.748342 30290 layer_factory.hpp:77] Creating layer pool1/3x3_s2
I0403 14:46:27.748368 30290 net.cpp:91] Creating Layer pool1/3x3_s2
I0403 14:46:27.748389 30290 net.cpp:425] pool1/3x3_s2 <- conv1/7x7_s2
I0403 14:46:27.748409 30290 net.cpp:399] pool1/3x3_s2 -> pool1/3x3_s2
I0403 14:46:27.748486 30290 net.cpp:141] Setting up pool1/3x3_s2
I0403 14:46:27.748512 30290 net.cpp:148] Top shape: 24 64 56 56 (4816896)
I0403 14:46:27.748528 30290 net.cpp:156] Memory required for data: 187860000
I0403 14:46:27.748543 30290 layer_factory.hpp:77] Creating layer pool1/norm1
I0403 14:46:27.748569 30290 net.cpp:91] Creating Layer pool1/norm1
I0403 14:46:27.748589 30290 net.cpp:425] pool1/norm1 <- pool1/3x3_s2
I0403 14:46:27.748606 30290 net.cpp:399] pool1/norm1 -> pool1/norm1
I0403 14:46:27.748898 30290 net.cpp:141] Setting up pool1/norm1
I0403 14:46:27.748926 30290 net.cpp:148] Top shape: 24 64 56 56 (4816896)
I0403 14:46:27.748944 30290 net.cpp:156] Memory required for data: 207127584
I0403 14:46:27.748960 30290 layer_factory.hpp:77] Creating layer conv2/3x3_reduce
I0403 14:46:27.748986 30290 net.cpp:91] Creating Layer conv2/3x3_reduce
I0403 14:46:27.749002 30290 net.cpp:425] conv2/3x3_reduce <- pool1/norm1
I0403 14:46:27.749022 30290 net.cpp:399] conv2/3x3_reduce -> conv2/3x3_reduce
I0403 14:46:27.750421 30290 net.cpp:141] Setting up conv2/3x3_reduce
I0403 14:46:27.750450 30290 net.cpp:148] Top shape: 24 64 56 56 (4816896)
I0403 14:46:27.750468 30290 net.cpp:156] Memory required for data: 226395168
I0403 14:46:27.750490 30290 layer_factory.hpp:77] Creating layer conv2/relu_3x3_reduce
I0403 14:46:27.750510 30290 net.cpp:91] Creating Layer conv2/relu_3x3_reduce
I0403 14:46:27.750527 30290 net.cpp:425] conv2/relu_3x3_reduce <- conv2/3x3_reduce
I0403 14:46:27.750546 30290 net.cpp:386] conv2/relu_3x3_reduce -> conv2/3x3_reduce (in-place)
I0403 14:46:27.750857 30290 net.cpp:141] Setting up conv2/relu_3x3_reduce
I0403 14:46:27.750885 30290 net.cpp:148] Top shape: 24 64 56 56 (4816896)
I0403 14:46:27.750902 30290 net.cpp:156] Memory required for data: 245662752
I0403 14:46:27.750919 30290 layer_factory.hpp:77] Creating layer conv2/3x3
I0403 14:46:27.750941 30290 net.cpp:91] Creating Layer conv2/3x3
I0403 14:46:27.750959 30290 net.cpp:425] conv2/3x3 <- conv2/3x3_reduce
I0403 14:46:27.750979 30290 net.cpp:399] conv2/3x3 -> conv2/3x3
I0403 14:46:27.753275 30290 net.cpp:141] Setting up conv2/3x3
I0403 14:46:27.753307 30290 net.cpp:148] Top shape: 24 192 56 56 (14450688)
I0403 14:46:27.753330 30290 net.cpp:156] Memory required for data: 303465504
I0403 14:46:27.753353 30290 layer_factory.hpp:77] Creating layer conv2/relu_3x3
I0403 14:46:27.753373 30290 net.cpp:91] Creating Layer conv2/relu_3x3
I0403 14:46:27.753391 30290 net.cpp:425] conv2/relu_3x3 <- conv2/3x3
I0403 14:46:27.753408 30290 net.cpp:386] conv2/relu_3x3 -> conv2/3x3 (in-place)
I0403 14:46:27.753572 30290 net.cpp:141] Setting up conv2/relu_3x3
I0403 14:46:27.753598 30290 net.cpp:148] Top shape: 24 192 56 56 (14450688)
I0403 14:46:27.753646 30290 net.cpp:156] Memory required for data: 361268256
I0403 14:46:27.753664 30290 layer_factory.hpp:77] Creating layer conv2/norm2
I0403 14:46:27.753686 30290 net.cpp:91] Creating Layer conv2/norm2
I0403 14:46:27.753703 30290 net.cpp:425] conv2/norm2 <- conv2/3x3
I0403 14:46:27.753721 30290 net.cpp:399] conv2/norm2 -> conv2/norm2
I0403 14:46:27.754019 30290 net.cpp:141] Setting up conv2/norm2
I0403 14:46:27.754048 30290 net.cpp:148] Top shape: 24 192 56 56 (14450688)
I0403 14:46:27.754065 30290 net.cpp:156] Memory required for data: 419071008
I0403 14:46:27.754081 30290 layer_factory.hpp:77] Creating layer pool2/3x3_s2
I0403 14:46:27.754101 30290 net.cpp:91] Creating Layer pool2/3x3_s2
I0403 14:46:27.754117 30290 net.cpp:425] pool2/3x3_s2 <- conv2/norm2
I0403 14:46:27.754135 30290 net.cpp:399] pool2/3x3_s2 -> pool2/3x3_s2
I0403 14:46:27.754189 30290 net.cpp:141] Setting up pool2/3x3_s2
I0403 14:46:27.754212 30290 net.cpp:148] Top shape: 24 192 28 28 (3612672)
I0403 14:46:27.754256 30290 net.cpp:156] Memory required for data: 433521696
I0403 14:46:27.754272 30290 layer_factory.hpp:77] Creating layer pool2/3x3_s2_pool2/3x3_s2_0_split
I0403 14:46:27.754292 30290 net.cpp:91] Creating Layer pool2/3x3_s2_pool2/3x3_s2_0_split
I0403 14:46:27.754307 30290 net.cpp:425] pool2/3x3_s2_pool2/3x3_s2_0_split <- pool2/3x3_s2
I0403 14:46:27.754338 30290 net.cpp:399] pool2/3x3_s2_pool2/3x3_s2_0_split -> pool2/3x3_s2_pool2/3x3_s2_0_split_0
I0403 14:46:27.754362 30290 net.cpp:399] pool2/3x3_s2_pool2/3x3_s2_0_split -> pool2/3x3_s2_pool2/3x3_s2_0_split_1
I0403 14:46:27.754384 30290 net.cpp:399] pool2/3x3_s2_pool2/3x3_s2_0_split -> pool2/3x3_s2_pool2/3x3_s2_0_split_2
I0403 14:46:27.754405 30290 net.cpp:399] pool2/3x3_s2_pool2/3x3_s2_0_split -> pool2/3x3_s2_pool2/3x3_s2_0_split_3
I0403 14:46:27.754473 30290 net.cpp:141] Setting up pool2/3x3_s2_pool2/3x3_s2_0_split
I0403 14:46:27.754498 30290 net.cpp:148] Top shape: 24 192 28 28 (3612672)
I0403 14:46:27.754515 30290 net.cpp:148] Top shape: 24 192 28 28 (3612672)
I0403 14:46:27.754533 30290 net.cpp:148] Top shape: 24 192 28 28 (3612672)
I0403 14:46:27.754549 30290 net.cpp:148] Top shape: 24 192 28 28 (3612672)
I0403 14:46:27.754564 30290 net.cpp:156] Memory required for data: 491324448
I0403 14:46:27.754580 30290 layer_factory.hpp:77] Creating layer inception_3a/1x1
I0403 14:46:27.754601 30290 net.cpp:91] Creating Layer inception_3a/1x1
I0403 14:46:27.754618 30290 net.cpp:425] inception_3a/1x1 <- pool2/3x3_s2_pool2/3x3_s2_0_split_0
I0403 14:46:27.754637 30290 net.cpp:399] inception_3a/1x1 -> inception_3a/1x1
I0403 14:46:27.756237 30290 net.cpp:141] Setting up inception_3a/1x1
I0403 14:46:27.756268 30290 net.cpp:148] Top shape: 24 64 28 28 (1204224)
I0403 14:46:27.756285 30290 net.cpp:156] Memory required for data: 496141344
I0403 14:46:27.756306 30290 layer_factory.hpp:77] Creating layer inception_3a/relu_1x1
I0403 14:46:27.756335 30290 net.cpp:91] Creating Layer inception_3a/relu_1x1
I0403 14:46:27.756353 30290 net.cpp:425] inception_3a/relu_1x1 <- inception_3a/1x1
I0403 14:46:27.756372 30290 net.cpp:386] inception_3a/relu_1x1 -> inception_3a/1x1 (in-place)
I0403 14:46:27.756549 30290 net.cpp:141] Setting up inception_3a/relu_1x1
I0403 14:46:27.756579 30290 net.cpp:148] Top shape: 24 64 28 28 (1204224)
I0403 14:46:27.756595 30290 net.cpp:156] Memory required for data: 500958240
I0403 14:46:27.756611 30290 layer_factory.hpp:77] Creating layer inception_3a/3x3_reduce
I0403 14:46:27.756633 30290 net.cpp:91] Creating Layer inception_3a/3x3_reduce
I0403 14:46:27.756651 30290 net.cpp:425] inception_3a/3x3_reduce <- pool2/3x3_s2_pool2/3x3_s2_0_split_1
I0403 14:46:27.756675 30290 net.cpp:399] inception_3a/3x3_reduce -> inception_3a/3x3_reduce
I0403 14:46:27.758473 30290 net.cpp:141] Setting up inception_3a/3x3_reduce
I0403 14:46:27.758504 30290 net.cpp:148] Top shape: 24 96 28 28 (1806336)
I0403 14:46:27.758522 30290 net.cpp:156] Memory required for data: 508183584
I0403 14:46:27.758548 30290 layer_factory.hpp:77] Creating layer inception_3a/relu_3x3_reduce
I0403 14:46:27.758587 30290 net.cpp:91] Creating Layer inception_3a/relu_3x3_reduce
I0403 14:46:27.758606 30290 net.cpp:425] inception_3a/relu_3x3_reduce <- inception_3a/3x3_reduce
I0403 14:46:27.758626 30290 net.cpp:386] inception_3a/relu_3x3_reduce -> inception_3a/3x3_reduce (in-place)
I0403 14:46:27.758821 30290 net.cpp:141] Setting up inception_3a/relu_3x3_reduce
I0403 14:46:27.758846 30290 net.cpp:148] Top shape: 24 96 28 28 (1806336)
I0403 14:46:27.758863 30290 net.cpp:156] Memory required for data: 515408928
I0403 14:46:27.758879 30290 layer_factory.hpp:77] Creating layer inception_3a/3x3
I0403 14:46:27.758904 30290 net.cpp:91] Creating Layer inception_3a/3x3
I0403 14:46:27.758924 30290 net.cpp:425] inception_3a/3x3 <- inception_3a/3x3_reduce
I0403 14:46:27.758945 30290 net.cpp:399] inception_3a/3x3 -> inception_3a/3x3
I0403 14:46:27.760618 30290 net.cpp:141] Setting up inception_3a/3x3
I0403 14:46:27.760648 30290 net.cpp:148] Top shape: 24 128 28 28 (2408448)
I0403 14:46:27.760665 30290 net.cpp:156] Memory required for data: 525042720
I0403 14:46:27.760684 30290 layer_factory.hpp:77] Creating layer inception_3a/relu_3x3
I0403 14:46:27.760704 30290 net.cpp:91] Creating Layer inception_3a/relu_3x3
I0403 14:46:27.760722 30290 net.cpp:425] inception_3a/relu_3x3 <- inception_3a/3x3
I0403 14:46:27.760740 30290 net.cpp:386] inception_3a/relu_3x3 -> inception_3a/3x3 (in-place)
I0403 14:46:27.761018 30290 net.cpp:141] Setting up inception_3a/relu_3x3
I0403 14:46:27.761044 30290 net.cpp:148] Top shape: 24 128 28 28 (2408448)
I0403 14:46:27.761061 30290 net.cpp:156] Memory required for data: 534676512
I0403 14:46:27.761077 30290 layer_factory.hpp:77] Creating layer inception_3a/5x5_reduce
I0403 14:46:27.761099 30290 net.cpp:91] Creating Layer inception_3a/5x5_reduce
I0403 14:46:27.761118 30290 net.cpp:425] inception_3a/5x5_reduce <- pool2/3x3_s2_pool2/3x3_s2_0_split_2
I0403 14:46:27.761138 30290 net.cpp:399] inception_3a/5x5_reduce -> inception_3a/5x5_reduce
I0403 14:46:27.762099 30290 net.cpp:141] Setting up inception_3a/5x5_reduce
I0403 14:46:27.762126 30290 net.cpp:148] Top shape: 24 16 28 28 (301056)
I0403 14:46:27.762143 30290 net.cpp:156] Memory required for data: 535880736
I0403 14:46:27.762162 30290 layer_factory.hpp:77] Creating layer inception_3a/relu_5x5_reduce
I0403 14:46:27.762182 30290 net.cpp:91] Creating Layer inception_3a/relu_5x5_reduce
I0403 14:46:27.762200 30290 net.cpp:425] inception_3a/relu_5x5_reduce <- inception_3a/5x5_reduce
I0403 14:46:27.762217 30290 net.cpp:386] inception_3a/relu_5x5_reduce -> inception_3a/5x5_reduce (in-place)
I0403 14:46:27.762518 30290 net.cpp:141] Setting up inception_3a/relu_5x5_reduce
I0403 14:46:27.762547 30290 net.cpp:148] Top shape: 24 16 28 28 (301056)
I0403 14:46:27.762565 30290 net.cpp:156] Memory required for data: 537084960
I0403 14:46:27.762580 30290 layer_factory.hpp:77] Creating layer inception_3a/5x5
I0403 14:46:27.762603 30290 net.cpp:91] Creating Layer inception_3a/5x5
I0403 14:46:27.762622 30290 net.cpp:425] inception_3a/5x5 <- inception_3a/5x5_reduce
I0403 14:46:27.762642 30290 net.cpp:399] inception_3a/5x5 -> inception_3a/5x5
I0403 14:46:27.763669 30290 net.cpp:141] Setting up inception_3a/5x5
I0403 14:46:27.763700 30290 net.cpp:148] Top shape: 24 32 28 28 (602112)
I0403 14:46:27.763716 30290 net.cpp:156] Memory required for data: 539493408
I0403 14:46:27.763737 30290 layer_factory.hpp:77] Creating layer inception_3a/relu_5x5
I0403 14:46:27.763761 30290 net.cpp:91] Creating Layer inception_3a/relu_5x5
I0403 14:46:27.763779 30290 net.cpp:425] inception_3a/relu_5x5 <- inception_3a/5x5
I0403 14:46:27.763798 30290 net.cpp:386] inception_3a/relu_5x5 -> inception_3a/5x5 (in-place)
I0403 14:46:27.763973 30290 net.cpp:141] Setting up inception_3a/relu_5x5
I0403 14:46:27.764001 30290 net.cpp:148] Top shape: 24 32 28 28 (602112)
I0403 14:46:27.764019 30290 net.cpp:156] Memory required for data: 541901856
I0403 14:46:27.764036 30290 layer_factory.hpp:77] Creating layer inception_3a/pool
I0403 14:46:27.764055 30290 net.cpp:91] Creating Layer inception_3a/pool
I0403 14:46:27.764071 30290 net.cpp:425] inception_3a/pool <- pool2/3x3_s2_pool2/3x3_s2_0_split_3
I0403 14:46:27.764106 30290 net.cpp:399] inception_3a/pool -> inception_3a/pool
I0403 14:46:27.764168 30290 net.cpp:141] Setting up inception_3a/pool
I0403 14:46:27.764194 30290 net.cpp:148] Top shape: 24 192 28 28 (3612672)
I0403 14:46:27.764210 30290 net.cpp:156] Memory required for data: 556352544
I0403 14:46:27.764226 30290 layer_factory.hpp:77] Creating layer inception_3a/pool_proj
I0403 14:46:27.764248 30290 net.cpp:91] Creating Layer inception_3a/pool_proj
I0403 14:46:27.764266 30290 net.cpp:425] inception_3a/pool_proj <- inception_3a/pool
I0403 14:46:27.764289 30290 net.cpp:399] inception_3a/pool_proj -> inception_3a/pool_proj
I0403 14:46:27.765280 30290 net.cpp:141] Setting up inception_3a/pool_proj
I0403 14:46:27.765310 30290 net.cpp:148] Top shape: 24 32 28 28 (602112)
I0403 14:46:27.765332 30290 net.cpp:156] Memory required for data: 558760992
I0403 14:46:27.765355 30290 layer_factory.hpp:77] Creating layer inception_3a/relu_pool_proj
I0403 14:46:27.765379 30290 net.cpp:91] Creating Layer inception_3a/relu_pool_proj
I0403 14:46:27.765398 30290 net.cpp:425] inception_3a/relu_pool_proj <- inception_3a/pool_proj
I0403 14:46:27.765416 30290 net.cpp:386] inception_3a/relu_pool_proj -> inception_3a/pool_proj (in-place)
I0403 14:46:27.765702 30290 net.cpp:141] Setting up inception_3a/relu_pool_proj
I0403 14:46:27.765729 30290 net.cpp:148] Top shape: 24 32 28 28 (602112)
I0403 14:46:27.765746 30290 net.cpp:156] Memory required for data: 561169440
I0403 14:46:27.765763 30290 layer_factory.hpp:77] Creating layer inception_3a/output
I0403 14:46:27.765784 30290 net.cpp:91] Creating Layer inception_3a/output
I0403 14:46:27.765801 30290 net.cpp:425] inception_3a/output <- inception_3a/1x1
I0403 14:46:27.765820 30290 net.cpp:425] inception_3a/output <- inception_3a/3x3
I0403 14:46:27.765836 30290 net.cpp:425] inception_3a/output <- inception_3a/5x5
I0403 14:46:27.765852 30290 net.cpp:425] inception_3a/output <- inception_3a/pool_proj
I0403 14:46:27.765872 30290 net.cpp:399] inception_3a/output -> inception_3a/output
I0403 14:46:27.765923 30290 net.cpp:141] Setting up inception_3a/output
I0403 14:46:27.765947 30290 net.cpp:148] Top shape: 24 256 28 28 (4816896)
I0403 14:46:27.765962 30290 net.cpp:156] Memory required for data: 580437024
I0403 14:46:27.765979 30290 layer_factory.hpp:77] Creating layer inception_3a/output_inception_3a/output_0_split
I0403 14:46:27.765997 30290 net.cpp:91] Creating Layer inception_3a/output_inception_3a/output_0_split
I0403 14:46:27.766013 30290 net.cpp:425] inception_3a/output_inception_3a/output_0_split <- inception_3a/output
I0403 14:46:27.766034 30290 net.cpp:399] inception_3a/output_inception_3a/output_0_split -> inception_3a/output_inception_3a/output_0_split_0
I0403 14:46:27.766057 30290 net.cpp:399] inception_3a/output_inception_3a/output_0_split -> inception_3a/output_inception_3a/output_0_split_1
I0403 14:46:27.766083 30290 net.cpp:399] inception_3a/output_inception_3a/output_0_split -> inception_3a/output_inception_3a/output_0_split_2
I0403 14:46:27.766106 30290 net.cpp:399] inception_3a/output_inception_3a/output_0_split -> inception_3a/output_inception_3a/output_0_split_3
I0403 14:46:27.766181 30290 net.cpp:141] Setting up inception_3a/output_inception_3a/output_0_split
I0403 14:46:27.766206 30290 net.cpp:148] Top shape: 24 256 28 28 (4816896)
I0403 14:46:27.766224 30290 net.cpp:148] Top shape: 24 256 28 28 (4816896)
I0403 14:46:27.766242 30290 net.cpp:148] Top shape: 24 256 28 28 (4816896)
I0403 14:46:27.766259 30290 net.cpp:148] Top shape: 24 256 28 28 (4816896)
I0403 14:46:27.766281 30290 net.cpp:156] Memory required for data: 657507360
I0403 14:46:27.766300 30290 layer_factory.hpp:77] Creating layer inception_3b/1x1
I0403 14:46:27.766329 30290 net.cpp:91] Creating Layer inception_3b/1x1
I0403 14:46:27.766347 30290 net.cpp:425] inception_3b/1x1 <- inception_3a/output_inception_3a/output_0_split_0
I0403 14:46:27.766382 30290 net.cpp:399] inception_3b/1x1 -> inception_3b/1x1
I0403 14:46:27.767560 30290 net.cpp:141] Setting up inception_3b/1x1
I0403 14:46:27.767602 30290 net.cpp:148] Top shape: 24 128 28 28 (2408448)
I0403 14:46:27.767621 30290 net.cpp:156] Memory required for data: 667141152
I0403 14:46:27.767640 30290 layer_factory.hpp:77] Creating layer inception_3b/relu_1x1
I0403 14:46:27.767663 30290 net.cpp:91] Creating Layer inception_3b/relu_1x1
I0403 14:46:27.767683 30290 net.cpp:425] inception_3b/relu_1x1 <- inception_3b/1x1
I0403 14:46:27.767700 30290 net.cpp:386] inception_3b/relu_1x1 -> inception_3b/1x1 (in-place)
I0403 14:46:27.767875 30290 net.cpp:141] Setting up inception_3b/relu_1x1
I0403 14:46:27.767902 30290 net.cpp:148] Top shape: 24 128 28 28 (2408448)
I0403 14:46:27.767918 30290 net.cpp:156] Memory required for data: 676774944
I0403 14:46:27.767935 30290 layer_factory.hpp:77] Creating layer inception_3b/3x3_reduce
I0403 14:46:27.767958 30290 net.cpp:91] Creating Layer inception_3b/3x3_reduce
I0403 14:46:27.767978 30290 net.cpp:425] inception_3b/3x3_reduce <- inception_3a/output_inception_3a/output_0_split_1
I0403 14:46:27.767998 30290 net.cpp:399] inception_3b/3x3_reduce -> inception_3b/3x3_reduce
I0403 14:46:27.769153 30290 net.cpp:141] Setting up inception_3b/3x3_reduce
I0403 14:46:27.769183 30290 net.cpp:148] Top shape: 24 128 28 28 (2408448)
I0403 14:46:27.769201 30290 net.cpp:156] Memory required for data: 686408736
I0403 14:46:27.769222 30290 layer_factory.hpp:77] Creating layer inception_3b/relu_3x3_reduce
I0403 14:46:27.769240 30290 net.cpp:91] Creating Layer inception_3b/relu_3x3_reduce
I0403 14:46:27.769258 30290 net.cpp:425] inception_3b/relu_3x3_reduce <- inception_3b/3x3_reduce
I0403 14:46:27.769279 30290 net.cpp:386] inception_3b/relu_3x3_reduce -> inception_3b/3x3_reduce (in-place)
I0403 14:46:27.769460 30290 net.cpp:141] Setting up inception_3b/relu_3x3_reduce
I0403 14:46:27.769489 30290 net.cpp:148] Top shape: 24 128 28 28 (2408448)
I0403 14:46:27.769503 30290 net.cpp:156] Memory required for data: 696042528
I0403 14:46:27.769520 30290 layer_factory.hpp:77] Creating layer inception_3b/3x3
I0403 14:46:27.769547 30290 net.cpp:91] Creating Layer inception_3b/3x3
I0403 14:46:27.769567 30290 net.cpp:425] inception_3b/3x3 <- inception_3b/3x3_reduce
I0403 14:46:27.769588 30290 net.cpp:399] inception_3b/3x3 -> inception_3b/3x3
I0403 14:46:27.772560 30290 net.cpp:141] Setting up inception_3b/3x3
I0403 14:46:27.772590 30290 net.cpp:148] Top shape: 24 192 28 28 (3612672)
I0403 14:46:27.772606 30290 net.cpp:156] Memory required for data: 710493216
I0403 14:46:27.772625 30290 layer_factory.hpp:77] Creating layer inception_3b/relu_3x3
I0403 14:46:27.772647 30290 net.cpp:91] Creating Layer inception_3b/relu_3x3
I0403 14:46:27.772665 30290 net.cpp:425] inception_3b/relu_3x3 <- inception_3b/3x3
I0403 14:46:27.772685 30290 net.cpp:386] inception_3b/relu_3x3 -> inception_3b/3x3 (in-place)
I0403 14:46:27.772965 30290 net.cpp:141] Setting up inception_3b/relu_3x3
I0403 14:46:27.772994 30290 net.cpp:148] Top shape: 24 192 28 28 (3612672)
I0403 14:46:27.773010 30290 net.cpp:156] Memory required for data: 724943904
I0403 14:46:27.773027 30290 layer_factory.hpp:77] Creating layer inception_3b/5x5_reduce
I0403 14:46:27.773052 30290 net.cpp:91] Creating Layer inception_3b/5x5_reduce
I0403 14:46:27.773077 30290 net.cpp:425] inception_3b/5x5_reduce <- inception_3a/output_inception_3a/output_0_split_2
I0403 14:46:27.773097 30290 net.cpp:399] inception_3b/5x5_reduce -> inception_3b/5x5_reduce
I0403 14:46:27.774150 30290 net.cpp:141] Setting up inception_3b/5x5_reduce
I0403 14:46:27.774181 30290 net.cpp:148] Top shape: 24 32 28 28 (602112)
I0403 14:46:27.774199 30290 net.cpp:156] Memory required for data: 727352352
I0403 14:46:27.774219 30290 layer_factory.hpp:77] Creating layer inception_3b/relu_5x5_reduce
I0403 14:46:27.774241 30290 net.cpp:91] Creating Layer inception_3b/relu_5x5_reduce
I0403 14:46:27.774260 30290 net.cpp:425] inception_3b/relu_5x5_reduce <- inception_3b/5x5_reduce
I0403 14:46:27.774278 30290 net.cpp:386] inception_3b/relu_5x5_reduce -> inception_3b/5x5_reduce (in-place)
I0403 14:46:27.774459 30290 net.cpp:141] Setting up inception_3b/relu_5x5_reduce
I0403 14:46:27.774502 30290 net.cpp:148] Top shape: 24 32 28 28 (602112)
I0403 14:46:27.774518 30290 net.cpp:156] Memory required for data: 729760800
I0403 14:46:27.774535 30290 layer_factory.hpp:77] Creating layer inception_3b/5x5
I0403 14:46:27.774557 30290 net.cpp:91] Creating Layer inception_3b/5x5
I0403 14:46:27.774579 30290 net.cpp:425] inception_3b/5x5 <- inception_3b/5x5_reduce
I0403 14:46:27.774598 30290 net.cpp:399] inception_3b/5x5 -> inception_3b/5x5
I0403 14:46:27.776600 30290 net.cpp:141] Setting up inception_3b/5x5
I0403 14:46:27.776631 30290 net.cpp:148] Top shape: 24 96 28 28 (1806336)
I0403 14:46:27.776649 30290 net.cpp:156] Memory required for data: 736986144
I0403 14:46:27.776669 30290 layer_factory.hpp:77] Creating layer inception_3b/relu_5x5
I0403 14:46:27.776689 30290 net.cpp:91] Creating Layer inception_3b/relu_5x5
I0403 14:46:27.776705 30290 net.cpp:425] inception_3b/relu_5x5 <- inception_3b/5x5
I0403 14:46:27.776726 30290 net.cpp:386] inception_3b/relu_5x5 -> inception_3b/5x5 (in-place)
I0403 14:46:27.776922 30290 net.cpp:141] Setting up inception_3b/relu_5x5
I0403 14:46:27.776952 30290 net.cpp:148] Top shape: 24 96 28 28 (1806336)
I0403 14:46:27.776968 30290 net.cpp:156] Memory required for data: 744211488
I0403 14:46:27.776984 30290 layer_factory.hpp:77] Creating layer inception_3b/pool
I0403 14:46:27.777004 30290 net.cpp:91] Creating Layer inception_3b/pool
I0403 14:46:27.777022 30290 net.cpp:425] inception_3b/pool <- inception_3a/output_inception_3a/output_0_split_3
I0403 14:46:27.777042 30290 net.cpp:399] inception_3b/pool -> inception_3b/pool
I0403 14:46:27.777098 30290 net.cpp:141] Setting up inception_3b/pool
I0403 14:46:27.777123 30290 net.cpp:148] Top shape: 24 256 28 28 (4816896)
I0403 14:46:27.777145 30290 net.cpp:156] Memory required for data: 763479072
I0403 14:46:27.777160 30290 layer_factory.hpp:77] Creating layer inception_3b/pool_proj
I0403 14:46:27.777184 30290 net.cpp:91] Creating Layer inception_3b/pool_proj
I0403 14:46:27.777202 30290 net.cpp:425] inception_3b/pool_proj <- inception_3b/pool
I0403 14:46:27.777225 30290 net.cpp:399] inception_3b/pool_proj -> inception_3b/pool_proj
I0403 14:46:27.778297 30290 net.cpp:141] Setting up inception_3b/pool_proj
I0403 14:46:27.778332 30290 net.cpp:148] Top shape: 24 64 28 28 (1204224)
I0403 14:46:27.778350 30290 net.cpp:156] Memory required for data: 768295968
I0403 14:46:27.778370 30290 layer_factory.hpp:77] Creating layer inception_3b/relu_pool_proj
I0403 14:46:27.778391 30290 net.cpp:91] Creating Layer inception_3b/relu_pool_proj
I0403 14:46:27.778409 30290 net.cpp:425] inception_3b/relu_pool_proj <- inception_3b/pool_proj
I0403 14:46:27.778429 30290 net.cpp:386] inception_3b/relu_pool_proj -> inception_3b/pool_proj (in-place)
I0403 14:46:27.778831 30290 net.cpp:141] Setting up inception_3b/relu_pool_proj
I0403 14:46:27.778861 30290 net.cpp:148] Top shape: 24 64 28 28 (1204224)
I0403 14:46:27.778880 30290 net.cpp:156] Memory required for data: 773112864
I0403 14:46:27.778895 30290 layer_factory.hpp:77] Creating layer inception_3b/output
I0403 14:46:27.778914 30290 net.cpp:91] Creating Layer inception_3b/output
I0403 14:46:27.778931 30290 net.cpp:425] inception_3b/output <- inception_3b/1x1
I0403 14:46:27.778949 30290 net.cpp:425] inception_3b/output <- inception_3b/3x3
I0403 14:46:27.778967 30290 net.cpp:425] inception_3b/output <- inception_3b/5x5
I0403 14:46:27.778985 30290 net.cpp:425] inception_3b/output <- inception_3b/pool_proj
I0403 14:46:27.779003 30290 net.cpp:399] inception_3b/output -> inception_3b/output
I0403 14:46:27.779052 30290 net.cpp:141] Setting up inception_3b/output
I0403 14:46:27.779078 30290 net.cpp:148] Top shape: 24 480 28 28 (9031680)
I0403 14:46:27.779093 30290 net.cpp:156] Memory required for data: 809239584
I0403 14:46:27.779108 30290 layer_factory.hpp:77] Creating layer pool3/3x3_s2
I0403 14:46:27.779129 30290 net.cpp:91] Creating Layer pool3/3x3_s2
I0403 14:46:27.779146 30290 net.cpp:425] pool3/3x3_s2 <- inception_3b/output
I0403 14:46:27.779165 30290 net.cpp:399] pool3/3x3_s2 -> pool3/3x3_s2
I0403 14:46:27.779242 30290 net.cpp:141] Setting up pool3/3x3_s2
I0403 14:46:27.779266 30290 net.cpp:148] Top shape: 24 480 14 14 (2257920)
I0403 14:46:27.779283 30290 net.cpp:156] Memory required for data: 818271264
I0403 14:46:27.779297 30290 layer_factory.hpp:77] Creating layer pool3/3x3_s2_pool3/3x3_s2_0_split
I0403 14:46:27.779320 30290 net.cpp:91] Creating Layer pool3/3x3_s2_pool3/3x3_s2_0_split
I0403 14:46:27.779338 30290 net.cpp:425] pool3/3x3_s2_pool3/3x3_s2_0_split <- pool3/3x3_s2
I0403 14:46:27.779362 30290 net.cpp:399] pool3/3x3_s2_pool3/3x3_s2_0_split -> pool3/3x3_s2_pool3/3x3_s2_0_split_0
I0403 14:46:27.779384 30290 net.cpp:399] pool3/3x3_s2_pool3/3x3_s2_0_split -> pool3/3x3_s2_pool3/3x3_s2_0_split_1
I0403 14:46:27.779404 30290 net.cpp:399] pool3/3x3_s2_pool3/3x3_s2_0_split -> pool3/3x3_s2_pool3/3x3_s2_0_split_2
I0403 14:46:27.779424 30290 net.cpp:399] pool3/3x3_s2_pool3/3x3_s2_0_split -> pool3/3x3_s2_pool3/3x3_s2_0_split_3
I0403 14:46:27.779500 30290 net.cpp:141] Setting up pool3/3x3_s2_pool3/3x3_s2_0_split
I0403 14:46:27.779527 30290 net.cpp:148] Top shape: 24 480 14 14 (2257920)
I0403 14:46:27.779546 30290 net.cpp:148] Top shape: 24 480 14 14 (2257920)
I0403 14:46:27.779564 30290 net.cpp:148] Top shape: 24 480 14 14 (2257920)
I0403 14:46:27.779582 30290 net.cpp:148] Top shape: 24 480 14 14 (2257920)
I0403 14:46:27.779595 30290 net.cpp:156] Memory required for data: 854397984
I0403 14:46:27.779610 30290 layer_factory.hpp:77] Creating layer inception_4a/1x1
I0403 14:46:27.779634 30290 net.cpp:91] Creating Layer inception_4a/1x1
I0403 14:46:27.779652 30290 net.cpp:425] inception_4a/1x1 <- pool3/3x3_s2_pool3/3x3_s2_0_split_0
I0403 14:46:27.779672 30290 net.cpp:399] inception_4a/1x1 -> inception_4a/1x1
I0403 14:46:27.781275 30290 net.cpp:141] Setting up inception_4a/1x1
I0403 14:46:27.781303 30290 net.cpp:148] Top shape: 24 192 14 14 (903168)
I0403 14:46:27.781325 30290 net.cpp:156] Memory required for data: 858010656
I0403 14:46:27.781347 30290 layer_factory.hpp:77] Creating layer inception_4a/relu_1x1
I0403 14:46:27.781366 30290 net.cpp:91] Creating Layer inception_4a/relu_1x1
I0403 14:46:27.781383 30290 net.cpp:425] inception_4a/relu_1x1 <- inception_4a/1x1
I0403 14:46:27.781404 30290 net.cpp:386] inception_4a/relu_1x1 -> inception_4a/1x1 (in-place)
I0403 14:46:27.781584 30290 net.cpp:141] Setting up inception_4a/relu_1x1
I0403 14:46:27.781611 30290 net.cpp:148] Top shape: 24 192 14 14 (903168)
I0403 14:46:27.781628 30290 net.cpp:156] Memory required for data: 861623328
I0403 14:46:27.781644 30290 layer_factory.hpp:77] Creating layer inception_4a/3x3_reduce
I0403 14:46:27.781668 30290 net.cpp:91] Creating Layer inception_4a/3x3_reduce
I0403 14:46:27.781685 30290 net.cpp:425] inception_4a/3x3_reduce <- pool3/3x3_s2_pool3/3x3_s2_0_split_1
I0403 14:46:27.781708 30290 net.cpp:399] inception_4a/3x3_reduce -> inception_4a/3x3_reduce
I0403 14:46:27.782989 30290 net.cpp:141] Setting up inception_4a/3x3_reduce
I0403 14:46:27.783020 30290 net.cpp:148] Top shape: 24 96 14 14 (451584)
I0403 14:46:27.783038 30290 net.cpp:156] Memory required for data: 863429664
I0403 14:46:27.783063 30290 layer_factory.hpp:77] Creating layer inception_4a/relu_3x3_reduce
I0403 14:46:27.783084 30290 net.cpp:91] Creating Layer inception_4a/relu_3x3_reduce
I0403 14:46:27.783102 30290 net.cpp:425] inception_4a/relu_3x3_reduce <- inception_4a/3x3_reduce
I0403 14:46:27.783118 30290 net.cpp:386] inception_4a/relu_3x3_reduce -> inception_4a/3x3_reduce (in-place)
I0403 14:46:27.783291 30290 net.cpp:141] Setting up inception_4a/relu_3x3_reduce
I0403 14:46:27.783321 30290 net.cpp:148] Top shape: 24 96 14 14 (451584)
I0403 14:46:27.783339 30290 net.cpp:156] Memory required for data: 865236000
I0403 14:46:27.783354 30290 layer_factory.hpp:77] Creating layer inception_4a/3x3
I0403 14:46:27.783376 30290 net.cpp:91] Creating Layer inception_4a/3x3
I0403 14:46:27.783395 30290 net.cpp:425] inception_4a/3x3 <- inception_4a/3x3_reduce
I0403 14:46:27.783416 30290 net.cpp:399] inception_4a/3x3 -> inception_4a/3x3
I0403 14:46:27.786064 30290 net.cpp:141] Setting up inception_4a/3x3
I0403 14:46:27.786094 30290 net.cpp:148] Top shape: 24 208 14 14 (978432)
I0403 14:46:27.786111 30290 net.cpp:156] Memory required for data: 869149728
I0403 14:46:27.786130 30290 layer_factory.hpp:77] Creating layer inception_4a/relu_3x3
I0403 14:46:27.786152 30290 net.cpp:91] Creating Layer inception_4a/relu_3x3
I0403 14:46:27.786169 30290 net.cpp:425] inception_4a/relu_3x3 <- inception_4a/3x3
I0403 14:46:27.786186 30290 net.cpp:386] inception_4a/relu_3x3 -> inception_4a/3x3 (in-place)
I0403 14:46:27.786478 30290 net.cpp:141] Setting up inception_4a/relu_3x3
I0403 14:46:27.786504 30290 net.cpp:148] Top shape: 24 208 14 14 (978432)
I0403 14:46:27.786521 30290 net.cpp:156] Memory required for data: 873063456
I0403 14:46:27.786538 30290 layer_factory.hpp:77] Creating layer inception_4a/5x5_reduce
I0403 14:46:27.786562 30290 net.cpp:91] Creating Layer inception_4a/5x5_reduce
I0403 14:46:27.786581 30290 net.cpp:425] inception_4a/5x5_reduce <- pool3/3x3_s2_pool3/3x3_s2_0_split_2
I0403 14:46:27.786604 30290 net.cpp:399] inception_4a/5x5_reduce -> inception_4a/5x5_reduce
I0403 14:46:27.787621 30290 net.cpp:141] Setting up inception_4a/5x5_reduce
I0403 14:46:27.787650 30290 net.cpp:148] Top shape: 24 16 14 14 (75264)
I0403 14:46:27.787667 30290 net.cpp:156] Memory required for data: 873364512
I0403 14:46:27.787686 30290 layer_factory.hpp:77] Creating layer inception_4a/relu_5x5_reduce
I0403 14:46:27.787708 30290 net.cpp:91] Creating Layer inception_4a/relu_5x5_reduce
I0403 14:46:27.787726 30290 net.cpp:425] inception_4a/relu_5x5_reduce <- inception_4a/5x5_reduce
I0403 14:46:27.787744 30290 net.cpp:386] inception_4a/relu_5x5_reduce -> inception_4a/5x5_reduce (in-place)
I0403 14:46:27.787917 30290 net.cpp:141] Setting up inception_4a/relu_5x5_reduce
I0403 14:46:27.787946 30290 net.cpp:148] Top shape: 24 16 14 14 (75264)
I0403 14:46:27.787963 30290 net.cpp:156] Memory required for data: 873665568
I0403 14:46:27.787979 30290 layer_factory.hpp:77] Creating layer inception_4a/5x5
I0403 14:46:27.788000 30290 net.cpp:91] Creating Layer inception_4a/5x5
I0403 14:46:27.788018 30290 net.cpp:425] inception_4a/5x5 <- inception_4a/5x5_reduce
I0403 14:46:27.788038 30290 net.cpp:399] inception_4a/5x5 -> inception_4a/5x5
I0403 14:46:27.789114 30290 net.cpp:141] Setting up inception_4a/5x5
I0403 14:46:27.789144 30290 net.cpp:148] Top shape: 24 48 14 14 (225792)
I0403 14:46:27.789161 30290 net.cpp:156] Memory required for data: 874568736
I0403 14:46:27.789181 30290 layer_factory.hpp:77] Creating layer inception_4a/relu_5x5
I0403 14:46:27.789201 30290 net.cpp:91] Creating Layer inception_4a/relu_5x5
I0403 14:46:27.789216 30290 net.cpp:425] inception_4a/relu_5x5 <- inception_4a/5x5
I0403 14:46:27.789237 30290 net.cpp:386] inception_4a/relu_5x5 -> inception_4a/5x5 (in-place)
I0403 14:46:27.789417 30290 net.cpp:141] Setting up inception_4a/relu_5x5
I0403 14:46:27.789443 30290 net.cpp:148] Top shape: 24 48 14 14 (225792)
I0403 14:46:27.789458 30290 net.cpp:156] Memory required for data: 875471904
I0403 14:46:27.789474 30290 layer_factory.hpp:77] Creating layer inception_4a/pool
I0403 14:46:27.789490 30290 net.cpp:91] Creating Layer inception_4a/pool
I0403 14:46:27.789506 30290 net.cpp:425] inception_4a/pool <- pool3/3x3_s2_pool3/3x3_s2_0_split_3
I0403 14:46:27.789526 30290 net.cpp:399] inception_4a/pool -> inception_4a/pool
I0403 14:46:27.789587 30290 net.cpp:141] Setting up inception_4a/pool
I0403 14:46:27.789613 30290 net.cpp:148] Top shape: 24 480 14 14 (2257920)
I0403 14:46:27.789628 30290 net.cpp:156] Memory required for data: 884503584
I0403 14:46:27.789644 30290 layer_factory.hpp:77] Creating layer inception_4a/pool_proj
I0403 14:46:27.789669 30290 net.cpp:91] Creating Layer inception_4a/pool_proj
I0403 14:46:27.789686 30290 net.cpp:425] inception_4a/pool_proj <- inception_4a/pool
I0403 14:46:27.789705 30290 net.cpp:399] inception_4a/pool_proj -> inception_4a/pool_proj
I0403 14:46:27.790855 30290 net.cpp:141] Setting up inception_4a/pool_proj
I0403 14:46:27.790887 30290 net.cpp:148] Top shape: 24 64 14 14 (301056)
I0403 14:46:27.790920 30290 net.cpp:156] Memory required for data: 885707808
I0403 14:46:27.790941 30290 layer_factory.hpp:77] Creating layer inception_4a/relu_pool_proj
I0403 14:46:27.790961 30290 net.cpp:91] Creating Layer inception_4a/relu_pool_proj
I0403 14:46:27.790978 30290 net.cpp:425] inception_4a/relu_pool_proj <- inception_4a/pool_proj
I0403 14:46:27.790999 30290 net.cpp:386] inception_4a/relu_pool_proj -> inception_4a/pool_proj (in-place)
I0403 14:46:27.791277 30290 net.cpp:141] Setting up inception_4a/relu_pool_proj
I0403 14:46:27.791306 30290 net.cpp:148] Top shape: 24 64 14 14 (301056)
I0403 14:46:27.791328 30290 net.cpp:156] Memory required for data: 886912032
I0403 14:46:27.791347 30290 layer_factory.hpp:77] Creating layer inception_4a/output
I0403 14:46:27.791366 30290 net.cpp:91] Creating Layer inception_4a/output
I0403 14:46:27.791383 30290 net.cpp:425] inception_4a/output <- inception_4a/1x1
I0403 14:46:27.791400 30290 net.cpp:425] inception_4a/output <- inception_4a/3x3
I0403 14:46:27.791417 30290 net.cpp:425] inception_4a/output <- inception_4a/5x5
I0403 14:46:27.791434 30290 net.cpp:425] inception_4a/output <- inception_4a/pool_proj
I0403 14:46:27.791453 30290 net.cpp:399] inception_4a/output -> inception_4a/output
I0403 14:46:27.791498 30290 net.cpp:141] Setting up inception_4a/output
I0403 14:46:27.791523 30290 net.cpp:148] Top shape: 24 512 14 14 (2408448)
I0403 14:46:27.791538 30290 net.cpp:156] Memory required for data: 896545824
I0403 14:46:27.791553 30290 layer_factory.hpp:77] Creating layer inception_4a/output_inception_4a/output_0_split
I0403 14:46:27.791575 30290 net.cpp:91] Creating Layer inception_4a/output_inception_4a/output_0_split
I0403 14:46:27.791594 30290 net.cpp:425] inception_4a/output_inception_4a/output_0_split <- inception_4a/output
I0403 14:46:27.791611 30290 net.cpp:399] inception_4a/output_inception_4a/output_0_split -> inception_4a/output_inception_4a/output_0_split_0
I0403 14:46:27.791635 30290 net.cpp:399] inception_4a/output_inception_4a/output_0_split -> inception_4a/output_inception_4a/output_0_split_1
I0403 14:46:27.791657 30290 net.cpp:399] inception_4a/output_inception_4a/output_0_split -> inception_4a/output_inception_4a/output_0_split_2
I0403 14:46:27.791677 30290 net.cpp:399] inception_4a/output_inception_4a/output_0_split -> inception_4a/output_inception_4a/output_0_split_3
I0403 14:46:27.791697 30290 net.cpp:399] inception_4a/output_inception_4a/output_0_split -> inception_4a/output_inception_4a/output_0_split_4
I0403 14:46:27.791787 30290 net.cpp:141] Setting up inception_4a/output_inception_4a/output_0_split
I0403 14:46:27.791811 30290 net.cpp:148] Top shape: 24 512 14 14 (2408448)
I0403 14:46:27.791828 30290 net.cpp:148] Top shape: 24 512 14 14 (2408448)
I0403 14:46:27.791846 30290 net.cpp:148] Top shape: 24 512 14 14 (2408448)
I0403 14:46:27.791863 30290 net.cpp:148] Top shape: 24 512 14 14 (2408448)
I0403 14:46:27.791879 30290 net.cpp:148] Top shape: 24 512 14 14 (2408448)
I0403 14:46:27.791893 30290 net.cpp:156] Memory required for data: 944714784
I0403 14:46:27.791908 30290 layer_factory.hpp:77] Creating layer loss1/ave_pool
I0403 14:46:27.791929 30290 net.cpp:91] Creating Layer loss1/ave_pool
I0403 14:46:27.791945 30290 net.cpp:425] loss1/ave_pool <- inception_4a/output_inception_4a/output_0_split_0
I0403 14:46:27.791965 30290 net.cpp:399] loss1/ave_pool -> loss1/ave_pool
I0403 14:46:27.792167 30290 net.cpp:141] Setting up loss1/ave_pool
I0403 14:46:27.792196 30290 net.cpp:148] Top shape: 24 512 4 4 (196608)
I0403 14:46:27.792212 30290 net.cpp:156] Memory required for data: 945501216
I0403 14:46:27.792227 30290 layer_factory.hpp:77] Creating layer loss1/conv
I0403 14:46:27.792250 30290 net.cpp:91] Creating Layer loss1/conv
I0403 14:46:27.792269 30290 net.cpp:425] loss1/conv <- loss1/ave_pool
I0403 14:46:27.792289 30290 net.cpp:399] loss1/conv -> loss1/conv
I0403 14:46:27.793714 30290 net.cpp:141] Setting up loss1/conv
I0403 14:46:27.793743 30290 net.cpp:148] Top shape: 24 128 4 4 (49152)
I0403 14:46:27.793761 30290 net.cpp:156] Memory required for data: 945697824
I0403 14:46:27.793795 30290 layer_factory.hpp:77] Creating layer loss1/relu_conv
I0403 14:46:27.793818 30290 net.cpp:91] Creating Layer loss1/relu_conv
I0403 14:46:27.793838 30290 net.cpp:425] loss1/relu_conv <- loss1/conv
I0403 14:46:27.793856 30290 net.cpp:386] loss1/relu_conv -> loss1/conv (in-place)
I0403 14:46:27.794147 30290 net.cpp:141] Setting up loss1/relu_conv
I0403 14:46:27.794174 30290 net.cpp:148] Top shape: 24 128 4 4 (49152)
I0403 14:46:27.794190 30290 net.cpp:156] Memory required for data: 945894432
I0403 14:46:27.794208 30290 layer_factory.hpp:77] Creating layer loss1/fc
I0403 14:46:27.794235 30290 net.cpp:91] Creating Layer loss1/fc
I0403 14:46:27.794255 30290 net.cpp:425] loss1/fc <- loss1/conv
I0403 14:46:27.794284 30290 net.cpp:399] loss1/fc -> loss1/fc
I0403 14:46:27.812562 30290 net.cpp:141] Setting up loss1/fc
I0403 14:46:27.812618 30290 net.cpp:148] Top shape: 24 1024 (24576)
I0403 14:46:27.812633 30290 net.cpp:156] Memory required for data: 945992736
I0403 14:46:27.812655 30290 layer_factory.hpp:77] Creating layer loss1/relu_fc
I0403 14:46:27.812677 30290 net.cpp:91] Creating Layer loss1/relu_fc
I0403 14:46:27.812695 30290 net.cpp:425] loss1/relu_fc <- loss1/fc
I0403 14:46:27.812714 30290 net.cpp:386] loss1/relu_fc -> loss1/fc (in-place)
I0403 14:46:27.812924 30290 net.cpp:141] Setting up loss1/relu_fc
I0403 14:46:27.812950 30290 net.cpp:148] Top shape: 24 1024 (24576)
I0403 14:46:27.812966 30290 net.cpp:156] Memory required for data: 946091040
I0403 14:46:27.812983 30290 layer_factory.hpp:77] Creating layer loss1/drop_fc
I0403 14:46:27.813010 30290 net.cpp:91] Creating Layer loss1/drop_fc
I0403 14:46:27.813029 30290 net.cpp:425] loss1/drop_fc <- loss1/fc
I0403 14:46:27.813048 30290 net.cpp:386] loss1/drop_fc -> loss1/fc (in-place)
I0403 14:46:27.813102 30290 net.cpp:141] Setting up loss1/drop_fc
I0403 14:46:27.813128 30290 net.cpp:148] Top shape: 24 1024 (24576)
I0403 14:46:27.813145 30290 net.cpp:156] Memory required for data: 946189344
I0403 14:46:27.813161 30290 layer_factory.hpp:77] Creating layer loss1/classifier_plantvillage
I0403 14:46:27.813180 30290 net.cpp:91] Creating Layer loss1/classifier_plantvillage
I0403 14:46:27.813196 30290 net.cpp:425] loss1/classifier_plantvillage <- loss1/fc
I0403 14:46:27.813218 30290 net.cpp:399] loss1/classifier_plantvillage -> loss1/classifier_plantvillage
I0403 14:46:27.814226 30290 net.cpp:141] Setting up loss1/classifier_plantvillage
I0403 14:46:27.814256 30290 net.cpp:148] Top shape: 24 38 (912)
I0403 14:46:27.814272 30290 net.cpp:156] Memory required for data: 946192992
I0403 14:46:27.814292 30290 layer_factory.hpp:77] Creating layer loss1/classifier_plantvillage_loss1/classifier_plantvillage_0_split
I0403 14:46:27.814313 30290 net.cpp:91] Creating Layer loss1/classifier_plantvillage_loss1/classifier_plantvillage_0_split
I0403 14:46:27.814337 30290 net.cpp:425] loss1/classifier_plantvillage_loss1/classifier_plantvillage_0_split <- loss1/classifier_plantvillage
I0403 14:46:27.814357 30290 net.cpp:399] loss1/classifier_plantvillage_loss1/classifier_plantvillage_0_split -> loss1/classifier_plantvillage_loss1/classifier_plantvillage_0_split_0
I0403 14:46:27.814379 30290 net.cpp:399] loss1/classifier_plantvillage_loss1/classifier_plantvillage_0_split -> loss1/classifier_plantvillage_loss1/classifier_plantvillage_0_split_1
I0403 14:46:27.814401 30290 net.cpp:399] loss1/classifier_plantvillage_loss1/classifier_plantvillage_0_split -> loss1/classifier_plantvillage_loss1/classifier_plantvillage_0_split_2
I0403 14:46:27.814482 30290 net.cpp:141] Setting up loss1/classifier_plantvillage_loss1/classifier_plantvillage_0_split
I0403 14:46:27.814507 30290 net.cpp:148] Top shape: 24 38 (912)
I0403 14:46:27.814525 30290 net.cpp:148] Top shape: 24 38 (912)
I0403 14:46:27.814541 30290 net.cpp:148] Top shape: 24 38 (912)
I0403 14:46:27.814555 30290 net.cpp:156] Memory required for data: 946203936
I0403 14:46:27.814571 30290 layer_factory.hpp:77] Creating layer inception_4b/1x1
I0403 14:46:27.814595 30290 net.cpp:91] Creating Layer inception_4b/1x1
I0403 14:46:27.814638 30290 net.cpp:425] inception_4b/1x1 <- inception_4a/output_inception_4a/output_0_split_1
I0403 14:46:27.814661 30290 net.cpp:399] inception_4b/1x1 -> inception_4b/1x1
I0403 14:46:27.816365 30290 net.cpp:141] Setting up inception_4b/1x1
I0403 14:46:27.816395 30290 net.cpp:148] Top shape: 24 160 14 14 (752640)
I0403 14:46:27.816411 30290 net.cpp:156] Memory required for data: 949214496
I0403 14:46:27.816431 30290 layer_factory.hpp:77] Creating layer inception_4b/relu_1x1
I0403 14:46:27.816452 30290 net.cpp:91] Creating Layer inception_4b/relu_1x1
I0403 14:46:27.816471 30290 net.cpp:425] inception_4b/relu_1x1 <- inception_4b/1x1
I0403 14:46:27.816488 30290 net.cpp:386] inception_4b/relu_1x1 -> inception_4b/1x1 (in-place)
I0403 14:46:27.816665 30290 net.cpp:141] Setting up inception_4b/relu_1x1
I0403 14:46:27.816694 30290 net.cpp:148] Top shape: 24 160 14 14 (752640)
I0403 14:46:27.816710 30290 net.cpp:156] Memory required for data: 952225056
I0403 14:46:27.816726 30290 layer_factory.hpp:77] Creating layer inception_4b/3x3_reduce
I0403 14:46:27.816751 30290 net.cpp:91] Creating Layer inception_4b/3x3_reduce
I0403 14:46:27.816769 30290 net.cpp:425] inception_4b/3x3_reduce <- inception_4a/output_inception_4a/output_0_split_2
I0403 14:46:27.816789 30290 net.cpp:399] inception_4b/3x3_reduce -> inception_4b/3x3_reduce
I0403 14:46:27.818171 30290 net.cpp:141] Setting up inception_4b/3x3_reduce
I0403 14:46:27.818202 30290 net.cpp:148] Top shape: 24 112 14 14 (526848)
I0403 14:46:27.818220 30290 net.cpp:156] Memory required for data: 954332448
I0403 14:46:27.818240 30290 layer_factory.hpp:77] Creating layer inception_4b/relu_3x3_reduce
I0403 14:46:27.818260 30290 net.cpp:91] Creating Layer inception_4b/relu_3x3_reduce
I0403 14:46:27.818277 30290 net.cpp:425] inception_4b/relu_3x3_reduce <- inception_4b/3x3_reduce
I0403 14:46:27.818295 30290 net.cpp:386] inception_4b/relu_3x3_reduce -> inception_4b/3x3_reduce (in-place)
I0403 14:46:27.818583 30290 net.cpp:141] Setting up inception_4b/relu_3x3_reduce
I0403 14:46:27.818613 30290 net.cpp:148] Top shape: 24 112 14 14 (526848)
I0403 14:46:27.818629 30290 net.cpp:156] Memory required for data: 956439840
I0403 14:46:27.818645 30290 layer_factory.hpp:77] Creating layer inception_4b/3x3
I0403 14:46:27.818666 30290 net.cpp:91] Creating Layer inception_4b/3x3
I0403 14:46:27.818683 30290 net.cpp:425] inception_4b/3x3 <- inception_4b/3x3_reduce
I0403 14:46:27.818704 30290 net.cpp:399] inception_4b/3x3 -> inception_4b/3x3
I0403 14:46:27.821673 30290 net.cpp:141] Setting up inception_4b/3x3
I0403 14:46:27.821704 30290 net.cpp:148] Top shape: 24 224 14 14 (1053696)
I0403 14:46:27.821720 30290 net.cpp:156] Memory required for data: 960654624
I0403 14:46:27.821740 30290 layer_factory.hpp:77] Creating layer inception_4b/relu_3x3
I0403 14:46:27.821758 30290 net.cpp:91] Creating Layer inception_4b/relu_3x3
I0403 14:46:27.821775 30290 net.cpp:425] inception_4b/relu_3x3 <- inception_4b/3x3
I0403 14:46:27.821796 30290 net.cpp:386] inception_4b/relu_3x3 -> inception_4b/3x3 (in-place)
I0403 14:46:27.821977 30290 net.cpp:141] Setting up inception_4b/relu_3x3
I0403 14:46:27.822002 30290 net.cpp:148] Top shape: 24 224 14 14 (1053696)
I0403 14:46:27.822018 30290 net.cpp:156] Memory required for data: 964869408
I0403 14:46:27.822032 30290 layer_factory.hpp:77] Creating layer inception_4b/5x5_reduce
I0403 14:46:27.822055 30290 net.cpp:91] Creating Layer inception_4b/5x5_reduce
I0403 14:46:27.822074 30290 net.cpp:425] inception_4b/5x5_reduce <- inception_4a/output_inception_4a/output_0_split_3
I0403 14:46:27.822098 30290 net.cpp:399] inception_4b/5x5_reduce -> inception_4b/5x5_reduce
I0403 14:46:27.823164 30290 net.cpp:141] Setting up inception_4b/5x5_reduce
I0403 14:46:27.823194 30290 net.cpp:148] Top shape: 24 24 14 14 (112896)
I0403 14:46:27.823210 30290 net.cpp:156] Memory required for data: 965320992
I0403 14:46:27.823230 30290 layer_factory.hpp:77] Creating layer inception_4b/relu_5x5_reduce
I0403 14:46:27.823251 30290 net.cpp:91] Creating Layer inception_4b/relu_5x5_reduce
I0403 14:46:27.823282 30290 net.cpp:425] inception_4b/relu_5x5_reduce <- inception_4b/5x5_reduce
I0403 14:46:27.823300 30290 net.cpp:386] inception_4b/relu_5x5_reduce -> inception_4b/5x5_reduce (in-place)
I0403 14:46:27.823489 30290 net.cpp:141] Setting up inception_4b/relu_5x5_reduce
I0403 14:46:27.823518 30290 net.cpp:148] Top shape: 24 24 14 14 (112896)
I0403 14:46:27.823534 30290 net.cpp:156] Memory required for data: 965772576
I0403 14:46:27.823550 30290 layer_factory.hpp:77] Creating layer inception_4b/5x5
I0403 14:46:27.823572 30290 net.cpp:91] Creating Layer inception_4b/5x5
I0403 14:46:27.823590 30290 net.cpp:425] inception_4b/5x5 <- inception_4b/5x5_reduce
I0403 14:46:27.823609 30290 net.cpp:399] inception_4b/5x5 -> inception_4b/5x5
I0403 14:46:27.824859 30290 net.cpp:141] Setting up inception_4b/5x5
I0403 14:46:27.824888 30290 net.cpp:148] Top shape: 24 64 14 14 (301056)
I0403 14:46:27.824904 30290 net.cpp:156] Memory required for data: 966976800
I0403 14:46:27.824923 30290 layer_factory.hpp:77] Creating layer inception_4b/relu_5x5
I0403 14:46:27.824945 30290 net.cpp:91] Creating Layer inception_4b/relu_5x5
I0403 14:46:27.824964 30290 net.cpp:425] inception_4b/relu_5x5 <- inception_4b/5x5
I0403 14:46:27.824981 30290 net.cpp:386] inception_4b/relu_5x5 -> inception_4b/5x5 (in-place)
I0403 14:46:27.825265 30290 net.cpp:141] Setting up inception_4b/relu_5x5
I0403 14:46:27.825294 30290 net.cpp:148] Top shape: 24 64 14 14 (301056)
I0403 14:46:27.825309 30290 net.cpp:156] Memory required for data: 968181024
I0403 14:46:27.825331 30290 layer_factory.hpp:77] Creating layer inception_4b/pool
I0403 14:46:27.825353 30290 net.cpp:91] Creating Layer inception_4b/pool
I0403 14:46:27.825373 30290 net.cpp:425] inception_4b/pool <- inception_4a/output_inception_4a/output_0_split_4
I0403 14:46:27.825394 30290 net.cpp:399] inception_4b/pool -> inception_4b/pool
I0403 14:46:27.825460 30290 net.cpp:141] Setting up inception_4b/pool
I0403 14:46:27.825485 30290 net.cpp:148] Top shape: 24 512 14 14 (2408448)
I0403 14:46:27.825500 30290 net.cpp:156] Memory required for data: 977814816
I0403 14:46:27.825515 30290 layer_factory.hpp:77] Creating layer inception_4b/pool_proj
I0403 14:46:27.825539 30290 net.cpp:91] Creating Layer inception_4b/pool_proj
I0403 14:46:27.825556 30290 net.cpp:425] inception_4b/pool_proj <- inception_4b/pool
I0403 14:46:27.825579 30290 net.cpp:399] inception_4b/pool_proj -> inception_4b/pool_proj
I0403 14:46:27.826776 30290 net.cpp:141] Setting up inception_4b/pool_proj
I0403 14:46:27.826804 30290 net.cpp:148] Top shape: 24 64 14 14 (301056)
I0403 14:46:27.826820 30290 net.cpp:156] Memory required for data: 979019040
I0403 14:46:27.826838 30290 layer_factory.hpp:77] Creating layer inception_4b/relu_pool_proj
I0403 14:46:27.826860 30290 net.cpp:91] Creating Layer inception_4b/relu_pool_proj
I0403 14:46:27.826879 30290 net.cpp:425] inception_4b/relu_pool_proj <- inception_4b/pool_proj
I0403 14:46:27.826897 30290 net.cpp:386] inception_4b/relu_pool_proj -> inception_4b/pool_proj (in-place)
I0403 14:46:27.827075 30290 net.cpp:141] Setting up inception_4b/relu_pool_proj
I0403 14:46:27.827103 30290 net.cpp:148] Top shape: 24 64 14 14 (301056)
I0403 14:46:27.827119 30290 net.cpp:156] Memory required for data: 980223264
I0403 14:46:27.827136 30290 layer_factory.hpp:77] Creating layer inception_4b/output
I0403 14:46:27.827153 30290 net.cpp:91] Creating Layer inception_4b/output
I0403 14:46:27.827170 30290 net.cpp:425] inception_4b/output <- inception_4b/1x1
I0403 14:46:27.827188 30290 net.cpp:425] inception_4b/output <- inception_4b/3x3
I0403 14:46:27.827203 30290 net.cpp:425] inception_4b/output <- inception_4b/5x5
I0403 14:46:27.827219 30290 net.cpp:425] inception_4b/output <- inception_4b/pool_proj
I0403 14:46:27.827236 30290 net.cpp:399] inception_4b/output -> inception_4b/output
I0403 14:46:27.827283 30290 net.cpp:141] Setting up inception_4b/output
I0403 14:46:27.827308 30290 net.cpp:148] Top shape: 24 512 14 14 (2408448)
I0403 14:46:27.827342 30290 net.cpp:156] Memory required for data: 989857056
I0403 14:46:27.827373 30290 layer_factory.hpp:77] Creating layer inception_4b/output_inception_4b/output_0_split
I0403 14:46:27.827394 30290 net.cpp:91] Creating Layer inception_4b/output_inception_4b/output_0_split
I0403 14:46:27.827411 30290 net.cpp:425] inception_4b/output_inception_4b/output_0_split <- inception_4b/output
I0403 14:46:27.827430 30290 net.cpp:399] inception_4b/output_inception_4b/output_0_split -> inception_4b/output_inception_4b/output_0_split_0
I0403 14:46:27.827451 30290 net.cpp:399] inception_4b/output_inception_4b/output_0_split -> inception_4b/output_inception_4b/output_0_split_1
I0403 14:46:27.827472 30290 net.cpp:399] inception_4b/output_inception_4b/output_0_split -> inception_4b/output_inception_4b/output_0_split_2
I0403 14:46:27.827493 30290 net.cpp:399] inception_4b/output_inception_4b/output_0_split -> inception_4b/output_inception_4b/output_0_split_3
I0403 14:46:27.827577 30290 net.cpp:141] Setting up inception_4b/output_inception_4b/output_0_split
I0403 14:46:27.827601 30290 net.cpp:148] Top shape: 24 512 14 14 (2408448)
I0403 14:46:27.827620 30290 net.cpp:148] Top shape: 24 512 14 14 (2408448)
I0403 14:46:27.827636 30290 net.cpp:148] Top shape: 24 512 14 14 (2408448)
I0403 14:46:27.827651 30290 net.cpp:148] Top shape: 24 512 14 14 (2408448)
I0403 14:46:27.827666 30290 net.cpp:156] Memory required for data: 1028392224
I0403 14:46:27.827682 30290 layer_factory.hpp:77] Creating layer inception_4c/1x1
I0403 14:46:27.827703 30290 net.cpp:91] Creating Layer inception_4c/1x1
I0403 14:46:27.827720 30290 net.cpp:425] inception_4c/1x1 <- inception_4b/output_inception_4b/output_0_split_0
I0403 14:46:27.827741 30290 net.cpp:399] inception_4c/1x1 -> inception_4c/1x1
I0403 14:46:27.829164 30290 net.cpp:141] Setting up inception_4c/1x1
I0403 14:46:27.829196 30290 net.cpp:148] Top shape: 24 128 14 14 (602112)
I0403 14:46:27.829215 30290 net.cpp:156] Memory required for data: 1030800672
I0403 14:46:27.829233 30290 layer_factory.hpp:77] Creating layer inception_4c/relu_1x1
I0403 14:46:27.829252 30290 net.cpp:91] Creating Layer inception_4c/relu_1x1
I0403 14:46:27.829270 30290 net.cpp:425] inception_4c/relu_1x1 <- inception_4c/1x1
I0403 14:46:27.829290 30290 net.cpp:386] inception_4c/relu_1x1 -> inception_4c/1x1 (in-place)
I0403 14:46:27.829475 30290 net.cpp:141] Setting up inception_4c/relu_1x1
I0403 14:46:27.829501 30290 net.cpp:148] Top shape: 24 128 14 14 (602112)
I0403 14:46:27.829529 30290 net.cpp:156] Memory required for data: 1033209120
I0403 14:46:27.829545 30290 layer_factory.hpp:77] Creating layer inception_4c/3x3_reduce
I0403 14:46:27.829569 30290 net.cpp:91] Creating Layer inception_4c/3x3_reduce
I0403 14:46:27.829588 30290 net.cpp:425] inception_4c/3x3_reduce <- inception_4b/output_inception_4b/output_0_split_1
I0403 14:46:27.829610 30290 net.cpp:399] inception_4c/3x3_reduce -> inception_4c/3x3_reduce
I0403 14:46:27.831568 30290 net.cpp:141] Setting up inception_4c/3x3_reduce
I0403 14:46:27.831598 30290 net.cpp:148] Top shape: 24 128 14 14 (602112)
I0403 14:46:27.831614 30290 net.cpp:156] Memory required for data: 1035617568
I0403 14:46:27.831631 30290 layer_factory.hpp:77] Creating layer inception_4c/relu_3x3_reduce
I0403 14:46:27.831651 30290 net.cpp:91] Creating Layer inception_4c/relu_3x3_reduce
I0403 14:46:27.831670 30290 net.cpp:425] inception_4c/relu_3x3_reduce <- inception_4c/3x3_reduce
I0403 14:46:27.831687 30290 net.cpp:386] inception_4c/relu_3x3_reduce -> inception_4c/3x3_reduce (in-place)
I0403 14:46:27.831984 30290 net.cpp:141] Setting up inception_4c/relu_3x3_reduce
I0403 14:46:27.832010 30290 net.cpp:148] Top shape: 24 128 14 14 (602112)
I0403 14:46:27.832026 30290 net.cpp:156] Memory required for data: 1038026016
I0403 14:46:27.832042 30290 layer_factory.hpp:77] Creating layer inception_4c/3x3
I0403 14:46:27.832065 30290 net.cpp:91] Creating Layer inception_4c/3x3
I0403 14:46:27.832084 30290 net.cpp:425] inception_4c/3x3 <- inception_4c/3x3_reduce
I0403 14:46:27.832105 30290 net.cpp:399] inception_4c/3x3 -> inception_4c/3x3
I0403 14:46:27.835708 30290 net.cpp:141] Setting up inception_4c/3x3
I0403 14:46:27.835749 30290 net.cpp:148] Top shape: 24 256 14 14 (1204224)
I0403 14:46:27.835767 30290 net.cpp:156] Memory required for data: 1042842912
I0403 14:46:27.835811 30290 layer_factory.hpp:77] Creating layer inception_4c/relu_3x3
I0403 14:46:27.835836 30290 net.cpp:91] Creating Layer inception_4c/relu_3x3
I0403 14:46:27.835855 30290 net.cpp:425] inception_4c/relu_3x3 <- inception_4c/3x3
I0403 14:46:27.835875 30290 net.cpp:386] inception_4c/relu_3x3 -> inception_4c/3x3 (in-place)
I0403 14:46:27.836055 30290 net.cpp:141] Setting up inception_4c/relu_3x3
I0403 14:46:27.836082 30290 net.cpp:148] Top shape: 24 256 14 14 (1204224)
I0403 14:46:27.836098 30290 net.cpp:156] Memory required for data: 1047659808
I0403 14:46:27.836114 30290 layer_factory.hpp:77] Creating layer inception_4c/5x5_reduce
I0403 14:46:27.836136 30290 net.cpp:91] Creating Layer inception_4c/5x5_reduce
I0403 14:46:27.836168 30290 net.cpp:425] inception_4c/5x5_reduce <- inception_4b/output_inception_4b/output_0_split_2
I0403 14:46:27.836189 30290 net.cpp:399] inception_4c/5x5_reduce -> inception_4c/5x5_reduce
I0403 14:46:27.837239 30290 net.cpp:141] Setting up inception_4c/5x5_reduce
I0403 14:46:27.837266 30290 net.cpp:148] Top shape: 24 24 14 14 (112896)
I0403 14:46:27.837281 30290 net.cpp:156] Memory required for data: 1048111392
I0403 14:46:27.837299 30290 layer_factory.hpp:77] Creating layer inception_4c/relu_5x5_reduce
I0403 14:46:27.837323 30290 net.cpp:91] Creating Layer inception_4c/relu_5x5_reduce
I0403 14:46:27.837342 30290 net.cpp:425] inception_4c/relu_5x5_reduce <- inception_4c/5x5_reduce
I0403 14:46:27.837360 30290 net.cpp:386] inception_4c/relu_5x5_reduce -> inception_4c/5x5_reduce (in-place)
I0403 14:46:27.837539 30290 net.cpp:141] Setting up inception_4c/relu_5x5_reduce
I0403 14:46:27.837568 30290 net.cpp:148] Top shape: 24 24 14 14 (112896)
I0403 14:46:27.837584 30290 net.cpp:156] Memory required for data: 1048562976
I0403 14:46:27.837599 30290 layer_factory.hpp:77] Creating layer inception_4c/5x5
I0403 14:46:27.837633 30290 net.cpp:91] Creating Layer inception_4c/5x5
I0403 14:46:27.837652 30290 net.cpp:425] inception_4c/5x5 <- inception_4c/5x5_reduce
I0403 14:46:27.837672 30290 net.cpp:399] inception_4c/5x5 -> inception_4c/5x5
I0403 14:46:27.838891 30290 net.cpp:141] Setting up inception_4c/5x5
I0403 14:46:27.838920 30290 net.cpp:148] Top shape: 24 64 14 14 (301056)
I0403 14:46:27.838937 30290 net.cpp:156] Memory required for data: 1049767200
I0403 14:46:27.838958 30290 layer_factory.hpp:77] Creating layer inception_4c/relu_5x5
I0403 14:46:27.838976 30290 net.cpp:91] Creating Layer inception_4c/relu_5x5
I0403 14:46:27.838992 30290 net.cpp:425] inception_4c/relu_5x5 <- inception_4c/5x5
I0403 14:46:27.839009 30290 net.cpp:386] inception_4c/relu_5x5 -> inception_4c/5x5 (in-place)
I0403 14:46:27.839287 30290 net.cpp:141] Setting up inception_4c/relu_5x5
I0403 14:46:27.839318 30290 net.cpp:148] Top shape: 24 64 14 14 (301056)
I0403 14:46:27.839336 30290 net.cpp:156] Memory required for data: 1050971424
I0403 14:46:27.839352 30290 layer_factory.hpp:77] Creating layer inception_4c/pool
I0403 14:46:27.839370 30290 net.cpp:91] Creating Layer inception_4c/pool
I0403 14:46:27.839385 30290 net.cpp:425] inception_4c/pool <- inception_4b/output_inception_4b/output_0_split_3
I0403 14:46:27.839406 30290 net.cpp:399] inception_4c/pool -> inception_4c/pool
I0403 14:46:27.839484 30290 net.cpp:141] Setting up inception_4c/pool
I0403 14:46:27.839510 30290 net.cpp:148] Top shape: 24 512 14 14 (2408448)
I0403 14:46:27.839526 30290 net.cpp:156] Memory required for data: 1060605216
I0403 14:46:27.839541 30290 layer_factory.hpp:77] Creating layer inception_4c/pool_proj
I0403 14:46:27.839565 30290 net.cpp:91] Creating Layer inception_4c/pool_proj
I0403 14:46:27.839582 30290 net.cpp:425] inception_4c/pool_proj <- inception_4c/pool
I0403 14:46:27.839603 30290 net.cpp:399] inception_4c/pool_proj -> inception_4c/pool_proj
I0403 14:46:27.840801 30290 net.cpp:141] Setting up inception_4c/pool_proj
I0403 14:46:27.840831 30290 net.cpp:148] Top shape: 24 64 14 14 (301056)
I0403 14:46:27.840860 30290 net.cpp:156] Memory required for data: 1061809440
I0403 14:46:27.840879 30290 layer_factory.hpp:77] Creating layer inception_4c/relu_pool_proj
I0403 14:46:27.840899 30290 net.cpp:91] Creating Layer inception_4c/relu_pool_proj
I0403 14:46:27.840919 30290 net.cpp:425] inception_4c/relu_pool_proj <- inception_4c/pool_proj
I0403 14:46:27.840936 30290 net.cpp:386] inception_4c/relu_pool_proj -> inception_4c/pool_proj (in-place)
I0403 14:46:27.841110 30290 net.cpp:141] Setting up inception_4c/relu_pool_proj
I0403 14:46:27.841140 30290 net.cpp:148] Top shape: 24 64 14 14 (301056)
I0403 14:46:27.841156 30290 net.cpp:156] Memory required for data: 1063013664
I0403 14:46:27.841171 30290 layer_factory.hpp:77] Creating layer inception_4c/output
I0403 14:46:27.841189 30290 net.cpp:91] Creating Layer inception_4c/output
I0403 14:46:27.841205 30290 net.cpp:425] inception_4c/output <- inception_4c/1x1
I0403 14:46:27.841234 30290 net.cpp:425] inception_4c/output <- inception_4c/3x3
I0403 14:46:27.841250 30290 net.cpp:425] inception_4c/output <- inception_4c/5x5
I0403 14:46:27.841267 30290 net.cpp:425] inception_4c/output <- inception_4c/pool_proj
I0403 14:46:27.841284 30290 net.cpp:399] inception_4c/output -> inception_4c/output
I0403 14:46:27.841347 30290 net.cpp:141] Setting up inception_4c/output
I0403 14:46:27.841372 30290 net.cpp:148] Top shape: 24 512 14 14 (2408448)
I0403 14:46:27.841388 30290 net.cpp:156] Memory required for data: 1072647456
I0403 14:46:27.841403 30290 layer_factory.hpp:77] Creating layer inception_4c/output_inception_4c/output_0_split
I0403 14:46:27.841423 30290 net.cpp:91] Creating Layer inception_4c/output_inception_4c/output_0_split
I0403 14:46:27.841439 30290 net.cpp:425] inception_4c/output_inception_4c/output_0_split <- inception_4c/output
I0403 14:46:27.841457 30290 net.cpp:399] inception_4c/output_inception_4c/output_0_split -> inception_4c/output_inception_4c/output_0_split_0
I0403 14:46:27.841478 30290 net.cpp:399] inception_4c/output_inception_4c/output_0_split -> inception_4c/output_inception_4c/output_0_split_1
I0403 14:46:27.841500 30290 net.cpp:399] inception_4c/output_inception_4c/output_0_split -> inception_4c/output_inception_4c/output_0_split_2
I0403 14:46:27.841521 30290 net.cpp:399] inception_4c/output_inception_4c/output_0_split -> inception_4c/output_inception_4c/output_0_split_3
I0403 14:46:27.841620 30290 net.cpp:141] Setting up inception_4c/output_inception_4c/output_0_split
I0403 14:46:27.841645 30290 net.cpp:148] Top shape: 24 512 14 14 (2408448)
I0403 14:46:27.841661 30290 net.cpp:148] Top shape: 24 512 14 14 (2408448)
I0403 14:46:27.841677 30290 net.cpp:148] Top shape: 24 512 14 14 (2408448)
I0403 14:46:27.841693 30290 net.cpp:148] Top shape: 24 512 14 14 (2408448)
I0403 14:46:27.841707 30290 net.cpp:156] Memory required for data: 1111182624
I0403 14:46:27.841722 30290 layer_factory.hpp:77] Creating layer inception_4d/1x1
I0403 14:46:27.841743 30290 net.cpp:91] Creating Layer inception_4d/1x1
I0403 14:46:27.841761 30290 net.cpp:425] inception_4d/1x1 <- inception_4c/output_inception_4c/output_0_split_0
I0403 14:46:27.841783 30290 net.cpp:399] inception_4d/1x1 -> inception_4d/1x1
I0403 14:46:27.843140 30290 net.cpp:141] Setting up inception_4d/1x1
I0403 14:46:27.843169 30290 net.cpp:148] Top shape: 24 112 14 14 (526848)
I0403 14:46:27.843186 30290 net.cpp:156] Memory required for data: 1113290016
I0403 14:46:27.843206 30290 layer_factory.hpp:77] Creating layer inception_4d/relu_1x1
I0403 14:46:27.843225 30290 net.cpp:91] Creating Layer inception_4d/relu_1x1
I0403 14:46:27.843241 30290 net.cpp:425] inception_4d/relu_1x1 <- inception_4d/1x1
I0403 14:46:27.843273 30290 net.cpp:386] inception_4d/relu_1x1 -> inception_4d/1x1 (in-place)
I0403 14:46:27.843482 30290 net.cpp:141] Setting up inception_4d/relu_1x1
I0403 14:46:27.843508 30290 net.cpp:148] Top shape: 24 112 14 14 (526848)
I0403 14:46:27.843523 30290 net.cpp:156] Memory required for data: 1115397408
I0403 14:46:27.843538 30290 layer_factory.hpp:77] Creating layer inception_4d/3x3_reduce
I0403 14:46:27.843576 30290 net.cpp:91] Creating Layer inception_4d/3x3_reduce
I0403 14:46:27.843595 30290 net.cpp:425] inception_4d/3x3_reduce <- inception_4c/output_inception_4c/output_0_split_1
I0403 14:46:27.843621 30290 net.cpp:399] inception_4d/3x3_reduce -> inception_4d/3x3_reduce
I0403 14:46:27.845202 30290 net.cpp:141] Setting up inception_4d/3x3_reduce
I0403 14:46:27.845233 30290 net.cpp:148] Top shape: 24 144 14 14 (677376)
I0403 14:46:27.845250 30290 net.cpp:156] Memory required for data: 1118106912
I0403 14:46:27.845270 30290 layer_factory.hpp:77] Creating layer inception_4d/relu_3x3_reduce
I0403 14:46:27.845289 30290 net.cpp:91] Creating Layer inception_4d/relu_3x3_reduce
I0403 14:46:27.845306 30290 net.cpp:425] inception_4d/relu_3x3_reduce <- inception_4d/3x3_reduce
I0403 14:46:27.845331 30290 net.cpp:386] inception_4d/relu_3x3_reduce -> inception_4d/3x3_reduce (in-place)
I0403 14:46:27.845619 30290 net.cpp:141] Setting up inception_4d/relu_3x3_reduce
I0403 14:46:27.845649 30290 net.cpp:148] Top shape: 24 144 14 14 (677376)
I0403 14:46:27.845666 30290 net.cpp:156] Memory required for data: 1120816416
I0403 14:46:27.845682 30290 layer_factory.hpp:77] Creating layer inception_4d/3x3
I0403 14:46:27.845705 30290 net.cpp:91] Creating Layer inception_4d/3x3
I0403 14:46:27.845722 30290 net.cpp:425] inception_4d/3x3 <- inception_4d/3x3_reduce
I0403 14:46:27.845742 30290 net.cpp:399] inception_4d/3x3 -> inception_4d/3x3
I0403 14:46:27.850174 30290 net.cpp:141] Setting up inception_4d/3x3
I0403 14:46:27.850205 30290 net.cpp:148] Top shape: 24 288 14 14 (1354752)
I0403 14:46:27.850222 30290 net.cpp:156] Memory required for data: 1126235424
I0403 14:46:27.850241 30290 layer_factory.hpp:77] Creating layer inception_4d/relu_3x3
I0403 14:46:27.850263 30290 net.cpp:91] Creating Layer inception_4d/relu_3x3
I0403 14:46:27.850282 30290 net.cpp:425] inception_4d/relu_3x3 <- inception_4d/3x3
I0403 14:46:27.850299 30290 net.cpp:386] inception_4d/relu_3x3 -> inception_4d/3x3 (in-place)
I0403 14:46:27.850487 30290 net.cpp:141] Setting up inception_4d/relu_3x3
I0403 14:46:27.850513 30290 net.cpp:148] Top shape: 24 288 14 14 (1354752)
I0403 14:46:27.850529 30290 net.cpp:156] Memory required for data: 1131654432
I0403 14:46:27.850544 30290 layer_factory.hpp:77] Creating layer inception_4d/5x5_reduce
I0403 14:46:27.850566 30290 net.cpp:91] Creating Layer inception_4d/5x5_reduce
I0403 14:46:27.850586 30290 net.cpp:425] inception_4d/5x5_reduce <- inception_4c/output_inception_4c/output_0_split_2
I0403 14:46:27.850606 30290 net.cpp:399] inception_4d/5x5_reduce -> inception_4d/5x5_reduce
I0403 14:46:27.851781 30290 net.cpp:141] Setting up inception_4d/5x5_reduce
I0403 14:46:27.851810 30290 net.cpp:148] Top shape: 24 32 14 14 (150528)
I0403 14:46:27.851826 30290 net.cpp:156] Memory required for data: 1132256544
I0403 14:46:27.851845 30290 layer_factory.hpp:77] Creating layer inception_4d/relu_5x5_reduce
I0403 14:46:27.851866 30290 net.cpp:91] Creating Layer inception_4d/relu_5x5_reduce
I0403 14:46:27.851882 30290 net.cpp:425] inception_4d/relu_5x5_reduce <- inception_4d/5x5_reduce
I0403 14:46:27.851902 30290 net.cpp:386] inception_4d/relu_5x5_reduce -> inception_4d/5x5_reduce (in-place)
I0403 14:46:27.852083 30290 net.cpp:141] Setting up inception_4d/relu_5x5_reduce
I0403 14:46:27.852109 30290 net.cpp:148] Top shape: 24 32 14 14 (150528)
I0403 14:46:27.852124 30290 net.cpp:156] Memory required for data: 1132858656
I0403 14:46:27.852140 30290 layer_factory.hpp:77] Creating layer inception_4d/5x5
I0403 14:46:27.852162 30290 net.cpp:91] Creating Layer inception_4d/5x5
I0403 14:46:27.852182 30290 net.cpp:425] inception_4d/5x5 <- inception_4d/5x5_reduce
I0403 14:46:27.852203 30290 net.cpp:399] inception_4d/5x5 -> inception_4d/5x5
I0403 14:46:27.853718 30290 net.cpp:141] Setting up inception_4d/5x5
I0403 14:46:27.853747 30290 net.cpp:148] Top shape: 24 64 14 14 (301056)
I0403 14:46:27.853766 30290 net.cpp:156] Memory required for data: 1134062880
I0403 14:46:27.853786 30290 layer_factory.hpp:77] Creating layer inception_4d/relu_5x5
I0403 14:46:27.853821 30290 net.cpp:91] Creating Layer inception_4d/relu_5x5
I0403 14:46:27.853838 30290 net.cpp:425] inception_4d/relu_5x5 <- inception_4d/5x5
I0403 14:46:27.853858 30290 net.cpp:386] inception_4d/relu_5x5 -> inception_4d/5x5 (in-place)
I0403 14:46:27.854166 30290 net.cpp:141] Setting up inception_4d/relu_5x5
I0403 14:46:27.854195 30290 net.cpp:148] Top shape: 24 64 14 14 (301056)
I0403 14:46:27.854212 30290 net.cpp:156] Memory required for data: 1135267104
I0403 14:46:27.854228 30290 layer_factory.hpp:77] Creating layer inception_4d/pool
I0403 14:46:27.854246 30290 net.cpp:91] Creating Layer inception_4d/pool
I0403 14:46:27.854264 30290 net.cpp:425] inception_4d/pool <- inception_4c/output_inception_4c/output_0_split_3
I0403 14:46:27.854285 30290 net.cpp:399] inception_4d/pool -> inception_4d/pool
I0403 14:46:27.854364 30290 net.cpp:141] Setting up inception_4d/pool
I0403 14:46:27.854389 30290 net.cpp:148] Top shape: 24 512 14 14 (2408448)
I0403 14:46:27.854411 30290 net.cpp:156] Memory required for data: 1144900896
I0403 14:46:27.854426 30290 layer_factory.hpp:77] Creating layer inception_4d/pool_proj
I0403 14:46:27.854449 30290 net.cpp:91] Creating Layer inception_4d/pool_proj
I0403 14:46:27.854468 30290 net.cpp:425] inception_4d/pool_proj <- inception_4d/pool
I0403 14:46:27.854488 30290 net.cpp:399] inception_4d/pool_proj -> inception_4d/pool_proj
I0403 14:46:27.856318 30290 net.cpp:141] Setting up inception_4d/pool_proj
I0403 14:46:27.856349 30290 net.cpp:148] Top shape: 24 64 14 14 (301056)
I0403 14:46:27.856367 30290 net.cpp:156] Memory required for data: 1146105120
I0403 14:46:27.856386 30290 layer_factory.hpp:77] Creating layer inception_4d/relu_pool_proj
I0403 14:46:27.856407 30290 net.cpp:91] Creating Layer inception_4d/relu_pool_proj
I0403 14:46:27.856426 30290 net.cpp:425] inception_4d/relu_pool_proj <- inception_4d/pool_proj
I0403 14:46:27.856443 30290 net.cpp:386] inception_4d/relu_pool_proj -> inception_4d/pool_proj (in-place)
I0403 14:46:27.856642 30290 net.cpp:141] Setting up inception_4d/relu_pool_proj
I0403 14:46:27.856667 30290 net.cpp:148] Top shape: 24 64 14 14 (301056)
I0403 14:46:27.856684 30290 net.cpp:156] Memory required for data: 1147309344
I0403 14:46:27.856700 30290 layer_factory.hpp:77] Creating layer inception_4d/output
I0403 14:46:27.856720 30290 net.cpp:91] Creating Layer inception_4d/output
I0403 14:46:27.856737 30290 net.cpp:425] inception_4d/output <- inception_4d/1x1
I0403 14:46:27.856755 30290 net.cpp:425] inception_4d/output <- inception_4d/3x3
I0403 14:46:27.856772 30290 net.cpp:425] inception_4d/output <- inception_4d/5x5
I0403 14:46:27.856789 30290 net.cpp:425] inception_4d/output <- inception_4d/pool_proj
I0403 14:46:27.856807 30290 net.cpp:399] inception_4d/output -> inception_4d/output
I0403 14:46:27.856859 30290 net.cpp:141] Setting up inception_4d/output
I0403 14:46:27.856884 30290 net.cpp:148] Top shape: 24 528 14 14 (2483712)
I0403 14:46:27.856899 30290 net.cpp:156] Memory required for data: 1157244192
I0403 14:46:27.856916 30290 layer_factory.hpp:77] Creating layer inception_4d/output_inception_4d/output_0_split
I0403 14:46:27.856937 30290 net.cpp:91] Creating Layer inception_4d/output_inception_4d/output_0_split
I0403 14:46:27.856955 30290 net.cpp:425] inception_4d/output_inception_4d/output_0_split <- inception_4d/output
I0403 14:46:27.856976 30290 net.cpp:399] inception_4d/output_inception_4d/output_0_split -> inception_4d/output_inception_4d/output_0_split_0
I0403 14:46:27.856998 30290 net.cpp:399] inception_4d/output_inception_4d/output_0_split -> inception_4d/output_inception_4d/output_0_split_1
I0403 14:46:27.857019 30290 net.cpp:399] inception_4d/output_inception_4d/output_0_split -> inception_4d/output_inception_4d/output_0_split_2
I0403 14:46:27.857050 30290 net.cpp:399] inception_4d/output_inception_4d/output_0_split -> inception_4d/output_inception_4d/output_0_split_3
I0403 14:46:27.857079 30290 net.cpp:399] inception_4d/output_inception_4d/output_0_split -> inception_4d/output_inception_4d/output_0_split_4
I0403 14:46:27.857187 30290 net.cpp:141] Setting up inception_4d/output_inception_4d/output_0_split
I0403 14:46:27.857225 30290 net.cpp:148] Top shape: 24 528 14 14 (2483712)
I0403 14:46:27.857244 30290 net.cpp:148] Top shape: 24 528 14 14 (2483712)
I0403 14:46:27.857261 30290 net.cpp:148] Top shape: 24 528 14 14 (2483712)
I0403 14:46:27.857277 30290 net.cpp:148] Top shape: 24 528 14 14 (2483712)
I0403 14:46:27.857293 30290 net.cpp:148] Top shape: 24 528 14 14 (2483712)
I0403 14:46:27.857308 30290 net.cpp:156] Memory required for data: 1206918432
I0403 14:46:27.857331 30290 layer_factory.hpp:77] Creating layer loss2/ave_pool
I0403 14:46:27.857357 30290 net.cpp:91] Creating Layer loss2/ave_pool
I0403 14:46:27.857374 30290 net.cpp:425] loss2/ave_pool <- inception_4d/output_inception_4d/output_0_split_0
I0403 14:46:27.857395 30290 net.cpp:399] loss2/ave_pool -> loss2/ave_pool
I0403 14:46:27.857717 30290 net.cpp:141] Setting up loss2/ave_pool
I0403 14:46:27.857744 30290 net.cpp:148] Top shape: 24 528 4 4 (202752)
I0403 14:46:27.857763 30290 net.cpp:156] Memory required for data: 1207729440
I0403 14:46:27.857777 30290 layer_factory.hpp:77] Creating layer loss2/conv
I0403 14:46:27.857801 30290 net.cpp:91] Creating Layer loss2/conv
I0403 14:46:27.857818 30290 net.cpp:425] loss2/conv <- loss2/ave_pool
I0403 14:46:27.857841 30290 net.cpp:399] loss2/conv -> loss2/conv
I0403 14:46:27.859755 30290 net.cpp:141] Setting up loss2/conv
I0403 14:46:27.859784 30290 net.cpp:148] Top shape: 24 128 4 4 (49152)
I0403 14:46:27.859802 30290 net.cpp:156] Memory required for data: 1207926048
I0403 14:46:27.859820 30290 layer_factory.hpp:77] Creating layer loss2/relu_conv
I0403 14:46:27.859843 30290 net.cpp:91] Creating Layer loss2/relu_conv
I0403 14:46:27.859861 30290 net.cpp:425] loss2/relu_conv <- loss2/conv
I0403 14:46:27.859879 30290 net.cpp:386] loss2/relu_conv -> loss2/conv (in-place)
I0403 14:46:27.860183 30290 net.cpp:141] Setting up loss2/relu_conv
I0403 14:46:27.860210 30290 net.cpp:148] Top shape: 24 128 4 4 (49152)
I0403 14:46:27.860226 30290 net.cpp:156] Memory required for data: 1208122656
I0403 14:46:27.860245 30290 layer_factory.hpp:77] Creating layer loss2/fc
I0403 14:46:27.860270 30290 net.cpp:91] Creating Layer loss2/fc
I0403 14:46:27.860288 30290 net.cpp:425] loss2/fc <- loss2/conv
I0403 14:46:27.860311 30290 net.cpp:399] loss2/fc -> loss2/fc
I0403 14:46:27.878057 30290 net.cpp:141] Setting up loss2/fc
I0403 14:46:27.878100 30290 net.cpp:148] Top shape: 24 1024 (24576)
I0403 14:46:27.878116 30290 net.cpp:156] Memory required for data: 1208220960
I0403 14:46:27.878136 30290 layer_factory.hpp:77] Creating layer loss2/relu_fc
I0403 14:46:27.878157 30290 net.cpp:91] Creating Layer loss2/relu_fc
I0403 14:46:27.878175 30290 net.cpp:425] loss2/relu_fc <- loss2/fc
I0403 14:46:27.878196 30290 net.cpp:386] loss2/relu_fc -> loss2/fc (in-place)
I0403 14:46:27.878528 30290 net.cpp:141] Setting up loss2/relu_fc
I0403 14:46:27.878554 30290 net.cpp:148] Top shape: 24 1024 (24576)
I0403 14:46:27.878571 30290 net.cpp:156] Memory required for data: 1208319264
I0403 14:46:27.878587 30290 layer_factory.hpp:77] Creating layer loss2/drop_fc
I0403 14:46:27.878604 30290 net.cpp:91] Creating Layer loss2/drop_fc
I0403 14:46:27.878620 30290 net.cpp:425] loss2/drop_fc <- loss2/fc
I0403 14:46:27.878640 30290 net.cpp:386] loss2/drop_fc -> loss2/fc (in-place)
I0403 14:46:27.878692 30290 net.cpp:141] Setting up loss2/drop_fc
I0403 14:46:27.878716 30290 net.cpp:148] Top shape: 24 1024 (24576)
I0403 14:46:27.878731 30290 net.cpp:156] Memory required for data: 1208417568
I0403 14:46:27.878746 30290 layer_factory.hpp:77] Creating layer loss2/classifier_plantvillage
I0403 14:46:27.878764 30290 net.cpp:91] Creating Layer loss2/classifier_plantvillage
I0403 14:46:27.878782 30290 net.cpp:425] loss2/classifier_plantvillage <- loss2/fc
I0403 14:46:27.878803 30290 net.cpp:399] loss2/classifier_plantvillage -> loss2/classifier_plantvillage
I0403 14:46:27.879216 30290 net.cpp:141] Setting up loss2/classifier_plantvillage
I0403 14:46:27.879243 30290 net.cpp:148] Top shape: 24 38 (912)
I0403 14:46:27.879259 30290 net.cpp:156] Memory required for data: 1208421216
I0403 14:46:27.879307 30290 layer_factory.hpp:77] Creating layer loss2/classifier_plantvillage_loss2/classifier_plantvillage_0_split
I0403 14:46:27.879333 30290 net.cpp:91] Creating Layer loss2/classifier_plantvillage_loss2/classifier_plantvillage_0_split
I0403 14:46:27.879353 30290 net.cpp:425] loss2/classifier_plantvillage_loss2/classifier_plantvillage_0_split <- loss2/classifier_plantvillage
I0403 14:46:27.879374 30290 net.cpp:399] loss2/classifier_plantvillage_loss2/classifier_plantvillage_0_split -> loss2/classifier_plantvillage_loss2/classifier_plantvillage_0_split_0
I0403 14:46:27.879396 30290 net.cpp:399] loss2/classifier_plantvillage_loss2/classifier_plantvillage_0_split -> loss2/classifier_plantvillage_loss2/classifier_plantvillage_0_split_1
I0403 14:46:27.879416 30290 net.cpp:399] loss2/classifier_plantvillage_loss2/classifier_plantvillage_0_split -> loss2/classifier_plantvillage_loss2/classifier_plantvillage_0_split_2
I0403 14:46:27.879492 30290 net.cpp:141] Setting up loss2/classifier_plantvillage_loss2/classifier_plantvillage_0_split
I0403 14:46:27.879515 30290 net.cpp:148] Top shape: 24 38 (912)
I0403 14:46:27.879533 30290 net.cpp:148] Top shape: 24 38 (912)
I0403 14:46:27.879549 30290 net.cpp:148] Top shape: 24 38 (912)
I0403 14:46:27.879564 30290 net.cpp:156] Memory required for data: 1208432160
I0403 14:46:27.879578 30290 layer_factory.hpp:77] Creating layer inception_4e/1x1
I0403 14:46:27.879602 30290 net.cpp:91] Creating Layer inception_4e/1x1
I0403 14:46:27.879622 30290 net.cpp:425] inception_4e/1x1 <- inception_4d/output_inception_4d/output_0_split_1
I0403 14:46:27.879642 30290 net.cpp:399] inception_4e/1x1 -> inception_4e/1x1
I0403 14:46:27.881502 30290 net.cpp:141] Setting up inception_4e/1x1
I0403 14:46:27.881533 30290 net.cpp:148] Top shape: 24 256 14 14 (1204224)
I0403 14:46:27.881551 30290 net.cpp:156] Memory required for data: 1213249056
I0403 14:46:27.881570 30290 layer_factory.hpp:77] Creating layer inception_4e/relu_1x1
I0403 14:46:27.881600 30290 net.cpp:91] Creating Layer inception_4e/relu_1x1
I0403 14:46:27.881618 30290 net.cpp:425] inception_4e/relu_1x1 <- inception_4e/1x1
I0403 14:46:27.881636 30290 net.cpp:386] inception_4e/relu_1x1 -> inception_4e/1x1 (in-place)
I0403 14:46:27.881933 30290 net.cpp:141] Setting up inception_4e/relu_1x1
I0403 14:46:27.881963 30290 net.cpp:148] Top shape: 24 256 14 14 (1204224)
I0403 14:46:27.881978 30290 net.cpp:156] Memory required for data: 1218065952
I0403 14:46:27.881994 30290 layer_factory.hpp:77] Creating layer inception_4e/3x3_reduce
I0403 14:46:27.882016 30290 net.cpp:91] Creating Layer inception_4e/3x3_reduce
I0403 14:46:27.882035 30290 net.cpp:425] inception_4e/3x3_reduce <- inception_4d/output_inception_4d/output_0_split_2
I0403 14:46:27.882055 30290 net.cpp:399] inception_4e/3x3_reduce -> inception_4e/3x3_reduce
I0403 14:46:27.884201 30290 net.cpp:141] Setting up inception_4e/3x3_reduce
I0403 14:46:27.884229 30290 net.cpp:148] Top shape: 24 160 14 14 (752640)
I0403 14:46:27.884245 30290 net.cpp:156] Memory required for data: 1221076512
I0403 14:46:27.884264 30290 layer_factory.hpp:77] Creating layer inception_4e/relu_3x3_reduce
I0403 14:46:27.884285 30290 net.cpp:91] Creating Layer inception_4e/relu_3x3_reduce
I0403 14:46:27.884304 30290 net.cpp:425] inception_4e/relu_3x3_reduce <- inception_4e/3x3_reduce
I0403 14:46:27.884342 30290 net.cpp:386] inception_4e/relu_3x3_reduce -> inception_4e/3x3_reduce (in-place)
I0403 14:46:27.884529 30290 net.cpp:141] Setting up inception_4e/relu_3x3_reduce
I0403 14:46:27.884555 30290 net.cpp:148] Top shape: 24 160 14 14 (752640)
I0403 14:46:27.884570 30290 net.cpp:156] Memory required for data: 1224087072
I0403 14:46:27.884585 30290 layer_factory.hpp:77] Creating layer inception_4e/3x3
I0403 14:46:27.884608 30290 net.cpp:91] Creating Layer inception_4e/3x3
I0403 14:46:27.884625 30290 net.cpp:425] inception_4e/3x3 <- inception_4e/3x3_reduce
I0403 14:46:27.884651 30290 net.cpp:399] inception_4e/3x3 -> inception_4e/3x3
I0403 14:46:27.889622 30290 net.cpp:141] Setting up inception_4e/3x3
I0403 14:46:27.889665 30290 net.cpp:148] Top shape: 24 320 14 14 (1505280)
I0403 14:46:27.889683 30290 net.cpp:156] Memory required for data: 1230108192
I0403 14:46:27.889703 30290 layer_factory.hpp:77] Creating layer inception_4e/relu_3x3
I0403 14:46:27.889734 30290 net.cpp:91] Creating Layer inception_4e/relu_3x3
I0403 14:46:27.889752 30290 net.cpp:425] inception_4e/relu_3x3 <- inception_4e/3x3
I0403 14:46:27.889775 30290 net.cpp:386] inception_4e/relu_3x3 -> inception_4e/3x3 (in-place)
I0403 14:46:27.890079 30290 net.cpp:141] Setting up inception_4e/relu_3x3
I0403 14:46:27.890105 30290 net.cpp:148] Top shape: 24 320 14 14 (1505280)
I0403 14:46:27.890121 30290 net.cpp:156] Memory required for data: 1236129312
I0403 14:46:27.890136 30290 layer_factory.hpp:77] Creating layer inception_4e/5x5_reduce
I0403 14:46:27.890161 30290 net.cpp:91] Creating Layer inception_4e/5x5_reduce
I0403 14:46:27.890182 30290 net.cpp:425] inception_4e/5x5_reduce <- inception_4d/output_inception_4d/output_0_split_3
I0403 14:46:27.890205 30290 net.cpp:399] inception_4e/5x5_reduce -> inception_4e/5x5_reduce
I0403 14:46:27.891279 30290 net.cpp:141] Setting up inception_4e/5x5_reduce
I0403 14:46:27.891322 30290 net.cpp:148] Top shape: 24 32 14 14 (150528)
I0403 14:46:27.891345 30290 net.cpp:156] Memory required for data: 1236731424
I0403 14:46:27.891365 30290 layer_factory.hpp:77] Creating layer inception_4e/relu_5x5_reduce
I0403 14:46:27.891383 30290 net.cpp:91] Creating Layer inception_4e/relu_5x5_reduce
I0403 14:46:27.891401 30290 net.cpp:425] inception_4e/relu_5x5_reduce <- inception_4e/5x5_reduce
I0403 14:46:27.891418 30290 net.cpp:386] inception_4e/relu_5x5_reduce -> inception_4e/5x5_reduce (in-place)
I0403 14:46:27.891731 30290 net.cpp:141] Setting up inception_4e/relu_5x5_reduce
I0403 14:46:27.891757 30290 net.cpp:148] Top shape: 24 32 14 14 (150528)
I0403 14:46:27.891777 30290 net.cpp:156] Memory required for data: 1237333536
I0403 14:46:27.891793 30290 layer_factory.hpp:77] Creating layer inception_4e/5x5
I0403 14:46:27.891831 30290 net.cpp:91] Creating Layer inception_4e/5x5
I0403 14:46:27.891851 30290 net.cpp:425] inception_4e/5x5 <- inception_4e/5x5_reduce
I0403 14:46:27.891875 30290 net.cpp:399] inception_4e/5x5 -> inception_4e/5x5
I0403 14:46:27.893724 30290 net.cpp:141] Setting up inception_4e/5x5
I0403 14:46:27.893753 30290 net.cpp:148] Top shape: 24 128 14 14 (602112)
I0403 14:46:27.893770 30290 net.cpp:156] Memory required for data: 1239741984
I0403 14:46:27.893790 30290 layer_factory.hpp:77] Creating layer inception_4e/relu_5x5
I0403 14:46:27.893811 30290 net.cpp:91] Creating Layer inception_4e/relu_5x5
I0403 14:46:27.893831 30290 net.cpp:425] inception_4e/relu_5x5 <- inception_4e/5x5
I0403 14:46:27.893848 30290 net.cpp:386] inception_4e/relu_5x5 -> inception_4e/5x5 (in-place)
I0403 14:46:27.894045 30290 net.cpp:141] Setting up inception_4e/relu_5x5
I0403 14:46:27.894071 30290 net.cpp:148] Top shape: 24 128 14 14 (602112)
I0403 14:46:27.894086 30290 net.cpp:156] Memory required for data: 1242150432
I0403 14:46:27.894103 30290 layer_factory.hpp:77] Creating layer inception_4e/pool
I0403 14:46:27.894124 30290 net.cpp:91] Creating Layer inception_4e/pool
I0403 14:46:27.894142 30290 net.cpp:425] inception_4e/pool <- inception_4d/output_inception_4d/output_0_split_4
I0403 14:46:27.894161 30290 net.cpp:399] inception_4e/pool -> inception_4e/pool
I0403 14:46:27.894235 30290 net.cpp:141] Setting up inception_4e/pool
I0403 14:46:27.894260 30290 net.cpp:148] Top shape: 24 528 14 14 (2483712)
I0403 14:46:27.894275 30290 net.cpp:156] Memory required for data: 1252085280
I0403 14:46:27.894290 30290 layer_factory.hpp:77] Creating layer inception_4e/pool_proj
I0403 14:46:27.894325 30290 net.cpp:91] Creating Layer inception_4e/pool_proj
I0403 14:46:27.894345 30290 net.cpp:425] inception_4e/pool_proj <- inception_4e/pool
I0403 14:46:27.894368 30290 net.cpp:399] inception_4e/pool_proj -> inception_4e/pool_proj
I0403 14:46:27.895872 30290 net.cpp:141] Setting up inception_4e/pool_proj
I0403 14:46:27.895901 30290 net.cpp:148] Top shape: 24 128 14 14 (602112)
I0403 14:46:27.895931 30290 net.cpp:156] Memory required for data: 1254493728
I0403 14:46:27.895951 30290 layer_factory.hpp:77] Creating layer inception_4e/relu_pool_proj
I0403 14:46:27.895970 30290 net.cpp:91] Creating Layer inception_4e/relu_pool_proj
I0403 14:46:27.895988 30290 net.cpp:425] inception_4e/relu_pool_proj <- inception_4e/pool_proj
I0403 14:46:27.896005 30290 net.cpp:386] inception_4e/relu_pool_proj -> inception_4e/pool_proj (in-place)
I0403 14:46:27.896293 30290 net.cpp:141] Setting up inception_4e/relu_pool_proj
I0403 14:46:27.896327 30290 net.cpp:148] Top shape: 24 128 14 14 (602112)
I0403 14:46:27.896343 30290 net.cpp:156] Memory required for data: 1256902176
I0403 14:46:27.896359 30290 layer_factory.hpp:77] Creating layer inception_4e/output
I0403 14:46:27.896378 30290 net.cpp:91] Creating Layer inception_4e/output
I0403 14:46:27.896394 30290 net.cpp:425] inception_4e/output <- inception_4e/1x1
I0403 14:46:27.896411 30290 net.cpp:425] inception_4e/output <- inception_4e/3x3
I0403 14:46:27.896432 30290 net.cpp:425] inception_4e/output <- inception_4e/5x5
I0403 14:46:27.896448 30290 net.cpp:425] inception_4e/output <- inception_4e/pool_proj
I0403 14:46:27.896466 30290 net.cpp:399] inception_4e/output -> inception_4e/output
I0403 14:46:27.896514 30290 net.cpp:141] Setting up inception_4e/output
I0403 14:46:27.896540 30290 net.cpp:148] Top shape: 24 832 14 14 (3913728)
I0403 14:46:27.896558 30290 net.cpp:156] Memory required for data: 1272557088
I0403 14:46:27.896574 30290 layer_factory.hpp:77] Creating layer pool4/3x3_s2
I0403 14:46:27.896603 30290 net.cpp:91] Creating Layer pool4/3x3_s2
I0403 14:46:27.896620 30290 net.cpp:425] pool4/3x3_s2 <- inception_4e/output
I0403 14:46:27.896643 30290 net.cpp:399] pool4/3x3_s2 -> pool4/3x3_s2
I0403 14:46:27.896709 30290 net.cpp:141] Setting up pool4/3x3_s2
I0403 14:46:27.896733 30290 net.cpp:148] Top shape: 24 832 7 7 (978432)
I0403 14:46:27.896749 30290 net.cpp:156] Memory required for data: 1276470816
I0403 14:46:27.896765 30290 layer_factory.hpp:77] Creating layer pool4/3x3_s2_pool4/3x3_s2_0_split
I0403 14:46:27.896785 30290 net.cpp:91] Creating Layer pool4/3x3_s2_pool4/3x3_s2_0_split
I0403 14:46:27.896803 30290 net.cpp:425] pool4/3x3_s2_pool4/3x3_s2_0_split <- pool4/3x3_s2
I0403 14:46:27.896821 30290 net.cpp:399] pool4/3x3_s2_pool4/3x3_s2_0_split -> pool4/3x3_s2_pool4/3x3_s2_0_split_0
I0403 14:46:27.896842 30290 net.cpp:399] pool4/3x3_s2_pool4/3x3_s2_0_split -> pool4/3x3_s2_pool4/3x3_s2_0_split_1
I0403 14:46:27.896862 30290 net.cpp:399] pool4/3x3_s2_pool4/3x3_s2_0_split -> pool4/3x3_s2_pool4/3x3_s2_0_split_2
I0403 14:46:27.896885 30290 net.cpp:399] pool4/3x3_s2_pool4/3x3_s2_0_split -> pool4/3x3_s2_pool4/3x3_s2_0_split_3
I0403 14:46:27.896987 30290 net.cpp:141] Setting up pool4/3x3_s2_pool4/3x3_s2_0_split
I0403 14:46:27.897011 30290 net.cpp:148] Top shape: 24 832 7 7 (978432)
I0403 14:46:27.897027 30290 net.cpp:148] Top shape: 24 832 7 7 (978432)
I0403 14:46:27.897047 30290 net.cpp:148] Top shape: 24 832 7 7 (978432)
I0403 14:46:27.897064 30290 net.cpp:148] Top shape: 24 832 7 7 (978432)
I0403 14:46:27.897078 30290 net.cpp:156] Memory required for data: 1292125728
I0403 14:46:27.897092 30290 layer_factory.hpp:77] Creating layer inception_5a/1x1
I0403 14:46:27.897115 30290 net.cpp:91] Creating Layer inception_5a/1x1
I0403 14:46:27.897132 30290 net.cpp:425] inception_5a/1x1 <- pool4/3x3_s2_pool4/3x3_s2_0_split_0
I0403 14:46:27.897153 30290 net.cpp:399] inception_5a/1x1 -> inception_5a/1x1
I0403 14:46:27.900043 30290 net.cpp:141] Setting up inception_5a/1x1
I0403 14:46:27.900075 30290 net.cpp:148] Top shape: 24 256 7 7 (301056)
I0403 14:46:27.900094 30290 net.cpp:156] Memory required for data: 1293329952
I0403 14:46:27.900112 30290 layer_factory.hpp:77] Creating layer inception_5a/relu_1x1
I0403 14:46:27.900135 30290 net.cpp:91] Creating Layer inception_5a/relu_1x1
I0403 14:46:27.900156 30290 net.cpp:425] inception_5a/relu_1x1 <- inception_5a/1x1
I0403 14:46:27.900173 30290 net.cpp:386] inception_5a/relu_1x1 -> inception_5a/1x1 (in-place)
I0403 14:46:27.900502 30290 net.cpp:141] Setting up inception_5a/relu_1x1
I0403 14:46:27.900530 30290 net.cpp:148] Top shape: 24 256 7 7 (301056)
I0403 14:46:27.900547 30290 net.cpp:156] Memory required for data: 1294534176
I0403 14:46:27.900563 30290 layer_factory.hpp:77] Creating layer inception_5a/3x3_reduce
I0403 14:46:27.900588 30290 net.cpp:91] Creating Layer inception_5a/3x3_reduce
I0403 14:46:27.900609 30290 net.cpp:425] inception_5a/3x3_reduce <- pool4/3x3_s2_pool4/3x3_s2_0_split_1
I0403 14:46:27.900630 30290 net.cpp:399] inception_5a/3x3_reduce -> inception_5a/3x3_reduce
I0403 14:46:27.903154 30290 net.cpp:141] Setting up inception_5a/3x3_reduce
I0403 14:46:27.903187 30290 net.cpp:148] Top shape: 24 160 7 7 (188160)
I0403 14:46:27.903204 30290 net.cpp:156] Memory required for data: 1295286816
I0403 14:46:27.903224 30290 layer_factory.hpp:77] Creating layer inception_5a/relu_3x3_reduce
I0403 14:46:27.903244 30290 net.cpp:91] Creating Layer inception_5a/relu_3x3_reduce
I0403 14:46:27.903262 30290 net.cpp:425] inception_5a/relu_3x3_reduce <- inception_5a/3x3_reduce
I0403 14:46:27.903285 30290 net.cpp:386] inception_5a/relu_3x3_reduce -> inception_5a/3x3_reduce (in-place)
I0403 14:46:27.903483 30290 net.cpp:141] Setting up inception_5a/relu_3x3_reduce
I0403 14:46:27.903511 30290 net.cpp:148] Top shape: 24 160 7 7 (188160)
I0403 14:46:27.903527 30290 net.cpp:156] Memory required for data: 1296039456
I0403 14:46:27.903542 30290 layer_factory.hpp:77] Creating layer inception_5a/3x3
I0403 14:46:27.903565 30290 net.cpp:91] Creating Layer inception_5a/3x3
I0403 14:46:27.903585 30290 net.cpp:425] inception_5a/3x3 <- inception_5a/3x3_reduce
I0403 14:46:27.903609 30290 net.cpp:399] inception_5a/3x3 -> inception_5a/3x3
I0403 14:46:27.908809 30290 net.cpp:141] Setting up inception_5a/3x3
I0403 14:46:27.908841 30290 net.cpp:148] Top shape: 24 320 7 7 (376320)
I0403 14:46:27.908859 30290 net.cpp:156] Memory required for data: 1297544736
I0403 14:46:27.908879 30290 layer_factory.hpp:77] Creating layer inception_5a/relu_3x3
I0403 14:46:27.908901 30290 net.cpp:91] Creating Layer inception_5a/relu_3x3
I0403 14:46:27.908920 30290 net.cpp:425] inception_5a/relu_3x3 <- inception_5a/3x3
I0403 14:46:27.908938 30290 net.cpp:386] inception_5a/relu_3x3 -> inception_5a/3x3 (in-place)
I0403 14:46:27.909245 30290 net.cpp:141] Setting up inception_5a/relu_3x3
I0403 14:46:27.909274 30290 net.cpp:148] Top shape: 24 320 7 7 (376320)
I0403 14:46:27.909291 30290 net.cpp:156] Memory required for data: 1299050016
I0403 14:46:27.909307 30290 layer_factory.hpp:77] Creating layer inception_5a/5x5_reduce
I0403 14:46:27.909337 30290 net.cpp:91] Creating Layer inception_5a/5x5_reduce
I0403 14:46:27.909358 30290 net.cpp:425] inception_5a/5x5_reduce <- pool4/3x3_s2_pool4/3x3_s2_0_split_2
I0403 14:46:27.909379 30290 net.cpp:399] inception_5a/5x5_reduce -> inception_5a/5x5_reduce
I0403 14:46:27.910598 30290 net.cpp:141] Setting up inception_5a/5x5_reduce
I0403 14:46:27.910627 30290 net.cpp:148] Top shape: 24 32 7 7 (37632)
I0403 14:46:27.910645 30290 net.cpp:156] Memory required for data: 1299200544
I0403 14:46:27.910665 30290 layer_factory.hpp:77] Creating layer inception_5a/relu_5x5_reduce
I0403 14:46:27.910687 30290 net.cpp:91] Creating Layer inception_5a/relu_5x5_reduce
I0403 14:46:27.910706 30290 net.cpp:425] inception_5a/relu_5x5_reduce <- inception_5a/5x5_reduce
I0403 14:46:27.910724 30290 net.cpp:386] inception_5a/relu_5x5_reduce -> inception_5a/5x5_reduce (in-place)
I0403 14:46:27.911036 30290 net.cpp:141] Setting up inception_5a/relu_5x5_reduce
I0403 14:46:27.911063 30290 net.cpp:148] Top shape: 24 32 7 7 (37632)
I0403 14:46:27.911080 30290 net.cpp:156] Memory required for data: 1299351072
I0403 14:46:27.911097 30290 layer_factory.hpp:77] Creating layer inception_5a/5x5
I0403 14:46:27.911123 30290 net.cpp:91] Creating Layer inception_5a/5x5
I0403 14:46:27.911141 30290 net.cpp:425] inception_5a/5x5 <- inception_5a/5x5_reduce
I0403 14:46:27.911161 30290 net.cpp:399] inception_5a/5x5 -> inception_5a/5x5
I0403 14:46:27.912971 30290 net.cpp:141] Setting up inception_5a/5x5
I0403 14:46:27.913012 30290 net.cpp:148] Top shape: 24 128 7 7 (150528)
I0403 14:46:27.913031 30290 net.cpp:156] Memory required for data: 1299953184
I0403 14:46:27.913051 30290 layer_factory.hpp:77] Creating layer inception_5a/relu_5x5
I0403 14:46:27.913074 30290 net.cpp:91] Creating Layer inception_5a/relu_5x5
I0403 14:46:27.913092 30290 net.cpp:425] inception_5a/relu_5x5 <- inception_5a/5x5
I0403 14:46:27.913112 30290 net.cpp:386] inception_5a/relu_5x5 -> inception_5a/5x5 (in-place)
I0403 14:46:27.913311 30290 net.cpp:141] Setting up inception_5a/relu_5x5
I0403 14:46:27.913347 30290 net.cpp:148] Top shape: 24 128 7 7 (150528)
I0403 14:46:27.913364 30290 net.cpp:156] Memory required for data: 1300555296
I0403 14:46:27.913380 30290 layer_factory.hpp:77] Creating layer inception_5a/pool
I0403 14:46:27.913399 30290 net.cpp:91] Creating Layer inception_5a/pool
I0403 14:46:27.913421 30290 net.cpp:425] inception_5a/pool <- pool4/3x3_s2_pool4/3x3_s2_0_split_3
I0403 14:46:27.913442 30290 net.cpp:399] inception_5a/pool -> inception_5a/pool
I0403 14:46:27.913518 30290 net.cpp:141] Setting up inception_5a/pool
I0403 14:46:27.913543 30290 net.cpp:148] Top shape: 24 832 7 7 (978432)
I0403 14:46:27.913558 30290 net.cpp:156] Memory required for data: 1304469024
I0403 14:46:27.913580 30290 layer_factory.hpp:77] Creating layer inception_5a/pool_proj
I0403 14:46:27.913604 30290 net.cpp:91] Creating Layer inception_5a/pool_proj
I0403 14:46:27.913622 30290 net.cpp:425] inception_5a/pool_proj <- inception_5a/pool
I0403 14:46:27.913645 30290 net.cpp:399] inception_5a/pool_proj -> inception_5a/pool_proj
I0403 14:46:27.916028 30290 net.cpp:141] Setting up inception_5a/pool_proj
I0403 14:46:27.916060 30290 net.cpp:148] Top shape: 24 128 7 7 (150528)
I0403 14:46:27.916077 30290 net.cpp:156] Memory required for data: 1305071136
I0403 14:46:27.916098 30290 layer_factory.hpp:77] Creating layer inception_5a/relu_pool_proj
I0403 14:46:27.916121 30290 net.cpp:91] Creating Layer inception_5a/relu_pool_proj
I0403 14:46:27.916138 30290 net.cpp:425] inception_5a/relu_pool_proj <- inception_5a/pool_proj
I0403 14:46:27.916157 30290 net.cpp:386] inception_5a/relu_pool_proj -> inception_5a/pool_proj (in-place)
I0403 14:46:27.916468 30290 net.cpp:141] Setting up inception_5a/relu_pool_proj
I0403 14:46:27.916496 30290 net.cpp:148] Top shape: 24 128 7 7 (150528)
I0403 14:46:27.916513 30290 net.cpp:156] Memory required for data: 1305673248
I0403 14:46:27.916530 30290 layer_factory.hpp:77] Creating layer inception_5a/output
I0403 14:46:27.916548 30290 net.cpp:91] Creating Layer inception_5a/output
I0403 14:46:27.916564 30290 net.cpp:425] inception_5a/output <- inception_5a/1x1
I0403 14:46:27.916584 30290 net.cpp:425] inception_5a/output <- inception_5a/3x3
I0403 14:46:27.916600 30290 net.cpp:425] inception_5a/output <- inception_5a/5x5
I0403 14:46:27.916620 30290 net.cpp:425] inception_5a/output <- inception_5a/pool_proj
I0403 14:46:27.916640 30290 net.cpp:399] inception_5a/output -> inception_5a/output
I0403 14:46:27.916694 30290 net.cpp:141] Setting up inception_5a/output
I0403 14:46:27.916723 30290 net.cpp:148] Top shape: 24 832 7 7 (978432)
I0403 14:46:27.916739 30290 net.cpp:156] Memory required for data: 1309586976
I0403 14:46:27.916755 30290 layer_factory.hpp:77] Creating layer inception_5a/output_inception_5a/output_0_split
I0403 14:46:27.916774 30290 net.cpp:91] Creating Layer inception_5a/output_inception_5a/output_0_split
I0403 14:46:27.916790 30290 net.cpp:425] inception_5a/output_inception_5a/output_0_split <- inception_5a/output
I0403 14:46:27.916808 30290 net.cpp:399] inception_5a/output_inception_5a/output_0_split -> inception_5a/output_inception_5a/output_0_split_0
I0403 14:46:27.916833 30290 net.cpp:399] inception_5a/output_inception_5a/output_0_split -> inception_5a/output_inception_5a/output_0_split_1
I0403 14:46:27.916857 30290 net.cpp:399] inception_5a/output_inception_5a/output_0_split -> inception_5a/output_inception_5a/output_0_split_2
I0403 14:46:27.916890 30290 net.cpp:399] inception_5a/output_inception_5a/output_0_split -> inception_5a/output_inception_5a/output_0_split_3
I0403 14:46:27.917004 30290 net.cpp:141] Setting up inception_5a/output_inception_5a/output_0_split
I0403 14:46:27.917029 30290 net.cpp:148] Top shape: 24 832 7 7 (978432)
I0403 14:46:27.917047 30290 net.cpp:148] Top shape: 24 832 7 7 (978432)
I0403 14:46:27.917063 30290 net.cpp:148] Top shape: 24 832 7 7 (978432)
I0403 14:46:27.917080 30290 net.cpp:148] Top shape: 24 832 7 7 (978432)
I0403 14:46:27.917094 30290 net.cpp:156] Memory required for data: 1325241888
I0403 14:46:27.917109 30290 layer_factory.hpp:77] Creating layer inception_5b/1x1
I0403 14:46:27.917136 30290 net.cpp:91] Creating Layer inception_5b/1x1
I0403 14:46:27.917155 30290 net.cpp:425] inception_5b/1x1 <- inception_5a/output_inception_5a/output_0_split_0
I0403 14:46:27.917176 30290 net.cpp:399] inception_5b/1x1 -> inception_5b/1x1
I0403 14:46:27.920953 30290 net.cpp:141] Setting up inception_5b/1x1
I0403 14:46:27.920984 30290 net.cpp:148] Top shape: 24 384 7 7 (451584)
I0403 14:46:27.921001 30290 net.cpp:156] Memory required for data: 1327048224
I0403 14:46:27.921020 30290 layer_factory.hpp:77] Creating layer inception_5b/relu_1x1
I0403 14:46:27.921041 30290 net.cpp:91] Creating Layer inception_5b/relu_1x1
I0403 14:46:27.921058 30290 net.cpp:425] inception_5b/relu_1x1 <- inception_5b/1x1
I0403 14:46:27.921079 30290 net.cpp:386] inception_5b/relu_1x1 -> inception_5b/1x1 (in-place)
I0403 14:46:27.921391 30290 net.cpp:141] Setting up inception_5b/relu_1x1
I0403 14:46:27.921417 30290 net.cpp:148] Top shape: 24 384 7 7 (451584)
I0403 14:46:27.921434 30290 net.cpp:156] Memory required for data: 1328854560
I0403 14:46:27.921450 30290 layer_factory.hpp:77] Creating layer inception_5b/3x3_reduce
I0403 14:46:27.921473 30290 net.cpp:91] Creating Layer inception_5b/3x3_reduce
I0403 14:46:27.921491 30290 net.cpp:425] inception_5b/3x3_reduce <- inception_5a/output_inception_5a/output_0_split_1
I0403 14:46:27.921514 30290 net.cpp:399] inception_5b/3x3_reduce -> inception_5b/3x3_reduce
I0403 14:46:27.924204 30290 net.cpp:141] Setting up inception_5b/3x3_reduce
I0403 14:46:27.924235 30290 net.cpp:148] Top shape: 24 192 7 7 (225792)
I0403 14:46:27.924252 30290 net.cpp:156] Memory required for data: 1329757728
I0403 14:46:27.924273 30290 layer_factory.hpp:77] Creating layer inception_5b/relu_3x3_reduce
I0403 14:46:27.924294 30290 net.cpp:91] Creating Layer inception_5b/relu_3x3_reduce
I0403 14:46:27.924314 30290 net.cpp:425] inception_5b/relu_3x3_reduce <- inception_5b/3x3_reduce
I0403 14:46:27.924348 30290 net.cpp:386] inception_5b/relu_3x3_reduce -> inception_5b/3x3_reduce (in-place)
I0403 14:46:27.924556 30290 net.cpp:141] Setting up inception_5b/relu_3x3_reduce
I0403 14:46:27.924583 30290 net.cpp:148] Top shape: 24 192 7 7 (225792)
I0403 14:46:27.924598 30290 net.cpp:156] Memory required for data: 1330660896
I0403 14:46:27.924615 30290 layer_factory.hpp:77] Creating layer inception_5b/3x3
I0403 14:46:27.924639 30290 net.cpp:91] Creating Layer inception_5b/3x3
I0403 14:46:27.924659 30290 net.cpp:425] inception_5b/3x3 <- inception_5b/3x3_reduce
I0403 14:46:27.924680 30290 net.cpp:399] inception_5b/3x3 -> inception_5b/3x3
I0403 14:46:27.931448 30290 net.cpp:141] Setting up inception_5b/3x3
I0403 14:46:27.931478 30290 net.cpp:148] Top shape: 24 384 7 7 (451584)
I0403 14:46:27.931496 30290 net.cpp:156] Memory required for data: 1332467232
I0403 14:46:27.931515 30290 layer_factory.hpp:77] Creating layer inception_5b/relu_3x3
I0403 14:46:27.931543 30290 net.cpp:91] Creating Layer inception_5b/relu_3x3
I0403 14:46:27.931562 30290 net.cpp:425] inception_5b/relu_3x3 <- inception_5b/3x3
I0403 14:46:27.931581 30290 net.cpp:386] inception_5b/relu_3x3 -> inception_5b/3x3 (in-place)
I0403 14:46:27.931881 30290 net.cpp:141] Setting up inception_5b/relu_3x3
I0403 14:46:27.931910 30290 net.cpp:148] Top shape: 24 384 7 7 (451584)
I0403 14:46:27.931926 30290 net.cpp:156] Memory required for data: 1334273568
I0403 14:46:27.931941 30290 layer_factory.hpp:77] Creating layer inception_5b/5x5_reduce
I0403 14:46:27.931980 30290 net.cpp:91] Creating Layer inception_5b/5x5_reduce
I0403 14:46:27.931999 30290 net.cpp:425] inception_5b/5x5_reduce <- inception_5a/output_inception_5a/output_0_split_2
I0403 14:46:27.932024 30290 net.cpp:399] inception_5b/5x5_reduce -> inception_5b/5x5_reduce
I0403 14:46:27.933296 30290 net.cpp:141] Setting up inception_5b/5x5_reduce
I0403 14:46:27.933329 30290 net.cpp:148] Top shape: 24 48 7 7 (56448)
I0403 14:46:27.933347 30290 net.cpp:156] Memory required for data: 1334499360
I0403 14:46:27.933367 30290 layer_factory.hpp:77] Creating layer inception_5b/relu_5x5_reduce
I0403 14:46:27.933389 30290 net.cpp:91] Creating Layer inception_5b/relu_5x5_reduce
I0403 14:46:27.933409 30290 net.cpp:425] inception_5b/relu_5x5_reduce <- inception_5b/5x5_reduce
I0403 14:46:27.933428 30290 net.cpp:386] inception_5b/relu_5x5_reduce -> inception_5b/5x5_reduce (in-place)
I0403 14:46:27.933800 30290 net.cpp:141] Setting up inception_5b/relu_5x5_reduce
I0403 14:46:27.933827 30290 net.cpp:148] Top shape: 24 48 7 7 (56448)
I0403 14:46:27.933845 30290 net.cpp:156] Memory required for data: 1334725152
I0403 14:46:27.933861 30290 layer_factory.hpp:77] Creating layer inception_5b/5x5
I0403 14:46:27.933881 30290 net.cpp:91] Creating Layer inception_5b/5x5
I0403 14:46:27.933899 30290 net.cpp:425] inception_5b/5x5 <- inception_5b/5x5_reduce
I0403 14:46:27.933919 30290 net.cpp:399] inception_5b/5x5 -> inception_5b/5x5
I0403 14:46:27.936002 30290 net.cpp:141] Setting up inception_5b/5x5
I0403 14:46:27.936038 30290 net.cpp:148] Top shape: 24 128 7 7 (150528)
I0403 14:46:27.936054 30290 net.cpp:156] Memory required for data: 1335327264
I0403 14:46:27.936074 30290 layer_factory.hpp:77] Creating layer inception_5b/relu_5x5
I0403 14:46:27.936094 30290 net.cpp:91] Creating Layer inception_5b/relu_5x5
I0403 14:46:27.936113 30290 net.cpp:425] inception_5b/relu_5x5 <- inception_5b/5x5
I0403 14:46:27.936132 30290 net.cpp:386] inception_5b/relu_5x5 -> inception_5b/5x5 (in-place)
I0403 14:46:27.936332 30290 net.cpp:141] Setting up inception_5b/relu_5x5
I0403 14:46:27.936360 30290 net.cpp:148] Top shape: 24 128 7 7 (150528)
I0403 14:46:27.936377 30290 net.cpp:156] Memory required for data: 1335929376
I0403 14:46:27.936393 30290 layer_factory.hpp:77] Creating layer inception_5b/pool
I0403 14:46:27.936411 30290 net.cpp:91] Creating Layer inception_5b/pool
I0403 14:46:27.936429 30290 net.cpp:425] inception_5b/pool <- inception_5a/output_inception_5a/output_0_split_3
I0403 14:46:27.936449 30290 net.cpp:399] inception_5b/pool -> inception_5b/pool
I0403 14:46:27.936527 30290 net.cpp:141] Setting up inception_5b/pool
I0403 14:46:27.936552 30290 net.cpp:148] Top shape: 24 832 7 7 (978432)
I0403 14:46:27.936566 30290 net.cpp:156] Memory required for data: 1339843104
I0403 14:46:27.936583 30290 layer_factory.hpp:77] Creating layer inception_5b/pool_proj
I0403 14:46:27.936604 30290 net.cpp:91] Creating Layer inception_5b/pool_proj
I0403 14:46:27.936624 30290 net.cpp:425] inception_5b/pool_proj <- inception_5b/pool
I0403 14:46:27.936643 30290 net.cpp:399] inception_5b/pool_proj -> inception_5b/pool_proj
I0403 14:46:27.938972 30290 net.cpp:141] Setting up inception_5b/pool_proj
I0403 14:46:27.939003 30290 net.cpp:148] Top shape: 24 128 7 7 (150528)
I0403 14:46:27.939021 30290 net.cpp:156] Memory required for data: 1340445216
I0403 14:46:27.939043 30290 layer_factory.hpp:77] Creating layer inception_5b/relu_pool_proj
I0403 14:46:27.939065 30290 net.cpp:91] Creating Layer inception_5b/relu_pool_proj
I0403 14:46:27.939084 30290 net.cpp:425] inception_5b/relu_pool_proj <- inception_5b/pool_proj
I0403 14:46:27.939101 30290 net.cpp:386] inception_5b/relu_pool_proj -> inception_5b/pool_proj (in-place)
I0403 14:46:27.939414 30290 net.cpp:141] Setting up inception_5b/relu_pool_proj
I0403 14:46:27.939441 30290 net.cpp:148] Top shape: 24 128 7 7 (150528)
I0403 14:46:27.939457 30290 net.cpp:156] Memory required for data: 1341047328
I0403 14:46:27.939472 30290 layer_factory.hpp:77] Creating layer inception_5b/output
I0403 14:46:27.939491 30290 net.cpp:91] Creating Layer inception_5b/output
I0403 14:46:27.939525 30290 net.cpp:425] inception_5b/output <- inception_5b/1x1
I0403 14:46:27.939543 30290 net.cpp:425] inception_5b/output <- inception_5b/3x3
I0403 14:46:27.939563 30290 net.cpp:425] inception_5b/output <- inception_5b/5x5
I0403 14:46:27.939580 30290 net.cpp:425] inception_5b/output <- inception_5b/pool_proj
I0403 14:46:27.939597 30290 net.cpp:399] inception_5b/output -> inception_5b/output
I0403 14:46:27.939649 30290 net.cpp:141] Setting up inception_5b/output
I0403 14:46:27.939677 30290 net.cpp:148] Top shape: 24 1024 7 7 (1204224)
I0403 14:46:27.939693 30290 net.cpp:156] Memory required for data: 1345864224
I0403 14:46:27.939708 30290 layer_factory.hpp:77] Creating layer pool5/7x7_s1
I0403 14:46:27.939728 30290 net.cpp:91] Creating Layer pool5/7x7_s1
I0403 14:46:27.939744 30290 net.cpp:425] pool5/7x7_s1 <- inception_5b/output
I0403 14:46:27.939765 30290 net.cpp:399] pool5/7x7_s1 -> pool5/7x7_s1
I0403 14:46:27.940011 30290 net.cpp:141] Setting up pool5/7x7_s1
I0403 14:46:27.940038 30290 net.cpp:148] Top shape: 24 1024 1 1 (24576)
I0403 14:46:27.940054 30290 net.cpp:156] Memory required for data: 1345962528
I0403 14:46:27.940070 30290 layer_factory.hpp:77] Creating layer pool5/drop_7x7_s1
I0403 14:46:27.940091 30290 net.cpp:91] Creating Layer pool5/drop_7x7_s1
I0403 14:46:27.940109 30290 net.cpp:425] pool5/drop_7x7_s1 <- pool5/7x7_s1
I0403 14:46:27.940126 30290 net.cpp:386] pool5/drop_7x7_s1 -> pool5/7x7_s1 (in-place)
I0403 14:46:27.940181 30290 net.cpp:141] Setting up pool5/drop_7x7_s1
I0403 14:46:27.940204 30290 net.cpp:148] Top shape: 24 1024 1 1 (24576)
I0403 14:46:27.940220 30290 net.cpp:156] Memory required for data: 1346060832
I0403 14:46:27.940237 30290 layer_factory.hpp:77] Creating layer loss3/classifier_plantvillage
I0403 14:46:27.940256 30290 net.cpp:91] Creating Layer loss3/classifier_plantvillage
I0403 14:46:27.940271 30290 net.cpp:425] loss3/classifier_plantvillage <- pool5/7x7_s1
I0403 14:46:27.940294 30290 net.cpp:399] loss3/classifier_plantvillage -> loss3/classifier_plantvillage
I0403 14:46:27.940727 30290 net.cpp:141] Setting up loss3/classifier_plantvillage
I0403 14:46:27.940753 30290 net.cpp:148] Top shape: 24 38 (912)
I0403 14:46:27.940768 30290 net.cpp:156] Memory required for data: 1346064480
I0403 14:46:27.940788 30290 layer_factory.hpp:77] Creating layer loss3/classifier_plantvillage_loss3/classifier_plantvillage_0_split
I0403 14:46:27.940807 30290 net.cpp:91] Creating Layer loss3/classifier_plantvillage_loss3/classifier_plantvillage_0_split
I0403 14:46:27.940824 30290 net.cpp:425] loss3/classifier_plantvillage_loss3/classifier_plantvillage_0_split <- loss3/classifier_plantvillage
I0403 14:46:27.940845 30290 net.cpp:399] loss3/classifier_plantvillage_loss3/classifier_plantvillage_0_split -> loss3/classifier_plantvillage_loss3/classifier_plantvillage_0_split_0
I0403 14:46:27.940866 30290 net.cpp:399] loss3/classifier_plantvillage_loss3/classifier_plantvillage_0_split -> loss3/classifier_plantvillage_loss3/classifier_plantvillage_0_split_1
I0403 14:46:27.940887 30290 net.cpp:399] loss3/classifier_plantvillage_loss3/classifier_plantvillage_0_split -> loss3/classifier_plantvillage_loss3/classifier_plantvillage_0_split_2
I0403 14:46:27.940908 30290 net.cpp:399] loss3/classifier_plantvillage_loss3/classifier_plantvillage_0_split -> loss3/classifier_plantvillage_loss3/classifier_plantvillage_0_split_3
I0403 14:46:27.941011 30290 net.cpp:141] Setting up loss3/classifier_plantvillage_loss3/classifier_plantvillage_0_split
I0403 14:46:27.941035 30290 net.cpp:148] Top shape: 24 38 (912)
I0403 14:46:27.941052 30290 net.cpp:148] Top shape: 24 38 (912)
I0403 14:46:27.941068 30290 net.cpp:148] Top shape: 24 38 (912)
I0403 14:46:27.941083 30290 net.cpp:148] Top shape: 24 38 (912)
I0403 14:46:27.941098 30290 net.cpp:156] Memory required for data: 1346079072
I0403 14:46:27.941113 30290 layer_factory.hpp:77] Creating layer loss1/loss
I0403 14:46:27.941138 30290 net.cpp:91] Creating Layer loss1/loss
I0403 14:46:27.941156 30290 net.cpp:425] loss1/loss <- loss1/classifier_plantvillage_loss1/classifier_plantvillage_0_split_0
I0403 14:46:27.941189 30290 net.cpp:425] loss1/loss <- label_data_1_split_0
…
