…
I0403 14:32:43.960731 29936 net.cpp:313] The NetState phase (1) differed from the phase (0) specified by a rule in layer data
I0403 14:32:43.961885 29936 net.cpp:49] Initializing net from parameters: 
state {
  phase: TEST
}
layer {
  name: "data"
  type: "Data"
  top: "data"
  top: "label"
  include {
    phase: TEST
  }
  transform_param {
    mirror: false
    crop_size: 224
    mean_file: "/home/mohanty/data/final_dataset/lmdb/color-20-80/mean.binaryproto"
  }
  data_param {
    source: "/home/mohanty/data/final_dataset/lmdb/color-20-80/test_db"
    batch_size: 24
    backend: LMDB
  }
}
layer {
  name: "conv1/7x7_s2"
  type: "Convolution"
  bottom: "data"
  top: "conv1/7x7_s2"
  param {
    lr_mult: 1
    decay_mult: 1
  }
  param {
    lr_mult: 2
    decay_mult: 0
  }
  convolution_param {
    num_output: 64
    pad: 3
    kernel_size: 7
    stride: 2
    weight_filler {
      type: "xavier"
      std: 0.1
    }
    bias_filler {
      type: "constant"
      value: 0.2
    }
  }
}
layer {
  name: "conv1/relu_7x7"
  type: "ReLU"
  bottom: "conv1/7x7_s2"
  top: "conv1/7x7_s2"
}
layer {
  name: "pool1/3x3_s2"
  type: "Pooling"
  bottom: "conv1/7x7_s2"
  top: "pool1/3x3_s2"
  pooling_param {
    pool: MAX
    kernel_size: 3
    stride: 2
  }
}
layer {
  name: "pool1/norm1"
  type: "LRN"
  bottom: "pool1/3x3_s2"
  top: "pool1/norm1"
  lrn_param {
    local_size: 5
    alpha: 0.0001
    beta: 0.75
  }
}
layer {
  name: "conv2/3x3_reduce"
  type: "Convolution"
  bottom: "pool1/norm1"
  top: "conv2/3x3_reduce"
  param {
    lr_mult: 1
    decay_mult: 1
  }
  param {
    lr_mult: 2
    decay_mult: 0
  }
  convolution_param {
    num_output: 64
    kernel_size: 1
    weight_filler {
      type: "xavier"
      std: 0.1
    }
    bias_filler {
      type: "constant"
      value: 0.2
    }
  }
}
layer {
  name: "conv2/relu_3x3_reduce"
  type: "ReLU"
  bottom: "conv2/3x3_reduce"
  top: "conv2/3x3_reduce"
}
layer {
  name: "conv2/3x3"
  type: "Convolution"
  bottom: "conv2/3x3_reduce"
  top: "conv2/3x3"
  param {
    lr_mult: 1
    decay_mult: 1
  }
  param {
    lr_mult: 2
    decay_mult: 0
  }
  convolution_param {
    num_output: 192
    pad: 1
    kernel_size: 3
    weight_filler {
      type: "xavier"
      std: 0.03
    }
    bias_filler {
      type: "constant"
      value: 0.2
    }
  }
}
layer {
  name: "conv2/relu_3x3"
  type: "ReLU"
  bottom: "conv2/3x3"
  top: "conv2/3x3"
}
layer {
  name: "conv2/norm2"
  type: "LRN"
  bottom: "conv2/3x3"
  top: "conv2/norm2"
  lrn_param {
    local_size: 5
    alpha: 0.0001
    beta: 0.75
  }
}
layer {
  name: "pool2/3x3_s2"
  type: "Pooling"
  bottom: "conv2/norm2"
  top: "pool2/3x3_s2"
  pooling_param {
    pool: MAX
    kernel_size: 3
    stride: 2
  }
}
layer {
  name: "inception_3a/1x1"
  type: "Convolution"
  bottom: "pool2/3x3_s2"
  top: "inception_3a/1x1"
  param {
    lr_mult: 1
    decay_mult: 1
  }
  param {
    lr_mult: 2
    decay_mult: 0
  }
  convolution_param {
    num_output: 64
    kernel_size: 1
    weight_filler {
      type: "xavier"
      std: 0.03
    }
    bias_filler {
      type: "constant"
      value: 0.2
    }
  }
}
layer {
  name: "inception_3a/relu_1x1"
  type: "ReLU"
  bottom: "inception_3a/1x1"
  top: "inception_3a/1x1"
}
layer {
  name: "inception_3a/3x3_reduce"
  type: "Convolution"
  bottom: "pool2/3x3_s2"
  top: "inception_3a/3x3_reduce"
  param {
    lr_mult: 1
    decay_mult: 1
  }
  param {
    lr_mult: 2
    decay_mult: 0
  }
  convolution_param {
    num_output: 96
    kernel_size: 1
    weight_filler {
      type: "xavier"
      std: 0.09
    }
    bias_filler {
      type: "constant"
      value: 0.2
    }
  }
}
layer {
  name: "inception_3a/relu_3x3_reduce"
  type: "ReLU"
  bottom: "inception_3a/3x3_reduce"
  top: "inception_3a/3x3_reduce"
}
layer {
  name: "inception_3a/3x3"
  type: "Convolution"
  bottom: "inception_3a/3x3_reduce"
  top: "inception_3a/3x3"
  param {
    lr_mult: 1
    decay_mult: 1
  }
  param {
    lr_mult: 2
    decay_mult: 0
  }
  convolution_param {
    num_output: 128
    pad: 1
    kernel_size: 3
    weight_filler {
      type: "xavier"
      std: 0.03
    }
    bias_filler {
      type: "constant"
      value: 0.2
    }
  }
}
layer {
  name: "inception_3a/relu_3x3"
  type: "ReLU"
  bottom: "inception_3a/3x3"
  top: "inception_3a/3x3"
}
layer {
  name: "inception_3a/5x5_reduce"
  type: "Convolution"
  bottom: "pool2/3x3_s2"
  top: "inception_3a/5x5_reduce"
  param {
    lr_mult: 1
    decay_mult: 1
  }
  param {
    lr_mult: 2
    decay_mult: 0
  }
  convolution_param {
    num_output: 16
    kernel_size: 1
    weight_filler {
      type: "xavier"
      std: 0.2
    }
    bias_filler {
      type: "constant"
      value: 0.2
    }
  }
}
layer {
  name: "inception_3a/relu_5x5_reduce"
  type: "ReLU"
  bottom: "inception_3a/5x5_reduce"
  top: "inception_3a/5x5_reduce"
}
layer {
  name: "inception_3a/5x5"
  type: "Convolution"
  bottom: "inception_3a/5x5_reduce"
  top: "inception_3a/5x5"
  param {
    lr_mult: 1
    decay_mult: 1
  }
  param {
    lr_mult: 2
    decay_mult: 0
  }
  convolution_param {
    num_output: 32
    pad: 2
    kernel_size: 5
    weight_filler {
      type: "xavier"
      std: 0.03
    }
    bias_filler {
      type: "constant"
      value: 0.2
    }
  }
}
layer {
  name: "inception_3a/relu_5x5"
  type: "ReLU"
  bottom: "inception_3a/5x5"
  top: "inception_3a/5x5"
}
layer {
  name: "inception_3a/pool"
  type: "Pooling"
  bottom: "pool2/3x3_s2"
  top: "inception_3a/pool"
  pooling_param {
    pool: MAX
    kernel_size: 3
    stride: 1
    pad: 1
  }
}
layer {
  name: "inception_3a/pool_proj"
  type: "Convolution"
  bottom: "inception_3a/pool"
  top: "inception_3a/pool_proj"
  param {
    lr_mult: 1
    decay_mult: 1
  }
  param {
    lr_mult: 2
    decay_mult: 0
  }
  convolution_param {
    num_output: 32
    kernel_size: 1
    weight_filler {
      type: "xavier"
      std: 0.1
    }
    bias_filler {
      type: "constant"
      value: 0.2
    }
  }
}
layer {
  name: "inception_3a/relu_pool_proj"
  type: "ReLU"
  bottom: "inception_3a/pool_proj"
  top: "inception_3a/pool_proj"
}
layer {
  name: "inception_3a/output"
  type: "Concat"
  bottom: "inception_3a/1x1"
  bottom: "inception_3a/3x3"
  bottom: "inception_3a/5x5"
  bottom: "inception_3a/pool_proj"
  top: "inception_3a/output"
}
layer {
  name: "inception_3b/1x1"
  type: "Convolution"
  bottom: "inception_3a/output"
  top: "inception_3b/1x1"
  param {
    lr_mult: 1
    decay_mult: 1
  }
  param {
    lr_mult: 2
    decay_mult: 0
  }
  convolution_param {
    num_output: 128
    kernel_size: 1
    weight_filler {
      type: "xavier"
      std: 0.03
    }
    bias_filler {
      type: "constant"
      value: 0.2
    }
  }
}
layer {
  name: "inception_3b/relu_1x1"
  type: "ReLU"
  bottom: "inception_3b/1x1"
  top: "inception_3b/1x1"
}
layer {
  name: "inception_3b/3x3_reduce"
  type: "Convolution"
  bottom: "inception_3a/output"
  top: "inception_3b/3x3_reduce"
  param {
    lr_mult: 1
    decay_mult: 1
  }
  param {
    lr_mult: 2
    decay_mult: 0
  }
  convolution_param {
    num_output: 128
    kernel_size: 1
    weight_filler {
      type: "xavier"
      std: 0.09
    }
    bias_filler {
      type: "constant"
      value: 0.2
    }
  }
}
layer {
  name: "inception_3b/relu_3x3_reduce"
  type: "ReLU"
  bottom: "inception_3b/3x3_reduce"
  top: "inception_3b/3x3_reduce"
}
layer {
  name: "inception_3b/3x3"
  type: "Convolution"
  bottom: "inception_3b/3x3_reduce"
  top: "inception_3b/3x3"
  param {
    lr_mult: 1
    decay_mult: 1
  }
  param {
    lr_mult: 2
    decay_mult: 0
  }
  convolution_param {
    num_output: 192
    pad: 1
    kernel_size: 3
    weight_filler {
      type: "xavier"
      std: 0.03
    }
    bias_filler {
      type: "constant"
      value: 0.2
    }
  }
}
layer {
  name: "inception_3b/relu_3x3"
  type: "ReLU"
  bottom: "inception_3b/3x3"
  top: "inception_3b/3x3"
}
layer {
  name: "inception_3b/5x5_reduce"
  type: "Convolution"
  bottom: "inception_3a/output"
  top: "inception_3b/5x5_reduce"
  param {
    lr_mult: 1
    decay_mult: 1
  }
  param {
    lr_mult: 2
    decay_mult: 0
  }
  convolution_param {
    num_output: 32
    kernel_size: 1
    weight_filler {
      type: "xavier"
      std: 0.2
    }
    bias_filler {
      type: "constant"
      value: 0.2
    }
  }
}
layer {
  name: "inception_3b/relu_5x5_reduce"
  type: "ReLU"
  bottom: "inception_3b/5x5_reduce"
  top: "inception_3b/5x5_reduce"
}
layer {
  name: "inception_3b/5x5"
  type: "Convolution"
  bottom: "inception_3b/5x5_reduce"
  top: "inception_3b/5x5"
  param {
    lr_mult: 1
    decay_mult: 1
  }
  param {
    lr_mult: 2
    decay_mult: 0
  }
  convolution_param {
    num_output: 96
    pad: 2
    kernel_size: 5
    weight_filler {
      type: "xavier"
      std: 0.03
    }
    bias_filler {
      type: "constant"
      value: 0.2
    }
  }
}
layer {
  name: "inception_3b/relu_5x5"
  type: "ReLU"
  bottom: "inception_3b/5x5"
  top: "inception_3b/5x5"
}
layer {
  name: "inception_3b/pool"
  type: "Pooling"
  bottom: "inception_3a/output"
  top: "inception_3b/pool"
  pooling_param {
    pool: MAX
    kernel_size: 3
    stride: 1
    pad: 1
  }
}
layer {
  name: "inception_3b/pool_proj"
  type: "Convolution"
  bottom: "inception_3b/pool"
  top: "inception_3b/pool_proj"
  param {
    lr_mult: 1
    decay_mult: 1
  }
  param {
    lr_mult: 2
    decay_mult: 0
  }
  convolution_param {
    num_output: 64
    kernel_size: 1
    weight_filler {
      type: "xavier"
      std: 0.1
    }
    bias_filler {
      type: "constant"
      value: 0.2
    }
  }
}
layer {
  name: "inception_3b/relu_pool_proj"
  type: "ReLU"
  bottom: "inception_3b/pool_proj"
  top: "inception_3b/pool_proj"
}
layer {
  name: "inception_3b/output"
  type: "Concat"
  bottom: "inception_3b/1x1"
  bottom: "inception_3b/3x3"
  bottom: "inception_3b/5x5"
  bottom: "inception_3b/pool_proj"
  top: "inception_3b/output"
}
layer {
  name: "pool3/3x3_s2"
  type: "Pooling"
  bottom: "inception_3b/output"
  top: "pool3/3x3_s2"
  pooling_param {
    pool: MAX
    kernel_size: 3
    stride: 2
  }
}
layer {
  name: "inception_4a/1x1"
  type: "Convolution"
  bottom: "pool3/3x3_s2"
  top: "inception_4a/1x1"
  param {
    lr_mult: 1
    decay_mult: 1
  }
  param {
    lr_mult: 2
    decay_mult: 0
  }
  convolution_param {
    num_output: 192
    kernel_size: 1
    weight_filler {
      type: "xavier"
      std: 0.03
    }
    bias_filler {
      type: "constant"
      value: 0.2
    }
  }
}
layer {
  name: "inception_4a/relu_1x1"
  type: "ReLU"
  bottom: "inception_4a/1x1"
  top: "inception_4a/1x1"
}
layer {
  name: "inception_4a/3x3_reduce"
  type: "Convolution"
  bottom: "pool3/3x3_s2"
  top: "inception_4a/3x3_reduce"
  param {
    lr_mult: 1
    decay_mult: 1
  }
  param {
    lr_mult: 2
    decay_mult: 0
  }
  convolution_param {
    num_output: 96
    kernel_size: 1
    weight_filler {
      type: "xavier"
      std: 0.09
    }
    bias_filler {
      type: "constant"
      value: 0.2
    }
  }
}
layer {
  name: "inception_4a/relu_3x3_reduce"
  type: "ReLU"
  bottom: "inception_4a/3x3_reduce"
  top: "inception_4a/3x3_reduce"
}
layer {
  name: "inception_4a/3x3"
  type: "Convolution"
  bottom: "inception_4a/3x3_reduce"
  top: "inception_4a/3x3"
  param {
    lr_mult: 1
    decay_mult: 1
  }
  param {
    lr_mult: 2
    decay_mult: 0
  }
  convolution_param {
    num_output: 208
    pad: 1
    kernel_size: 3
    weight_filler {
      type: "xavier"
      std: 0.03
    }
    bias_filler {
      type: "constant"
      value: 0.2
    }
  }
}
layer {
  name: "inception_4a/relu_3x3"
  type: "ReLU"
  bottom: "inception_4a/3x3"
  top: "inception_4a/3x3"
}
layer {
  name: "inception_4a/5x5_reduce"
  type: "Convolution"
  bottom: "pool3/3x3_s2"
  top: "inception_4a/5x5_reduce"
  param {
    lr_mult: 1
    decay_mult: 1
  }
  param {
    lr_mult: 2
    decay_mult: 0
  }
  convolution_param {
    num_output: 16
    kernel_size: 1
    weight_filler {
      type: "xavier"
      std: 0.2
    }
    bias_filler {
      type: "constant"
      value: 0.2
    }
  }
}
layer {
  name: "inception_4a/relu_5x5_reduce"
  type: "ReLU"
  bottom: "inception_4a/5x5_reduce"
  top: "inception_4a/5x5_reduce"
}
layer {
  name: "inception_4a/5x5"
  type: "Convolution"
  bottom: "inception_4a/5x5_reduce"
  top: "inception_4a/5x5"
  param {
    lr_mult: 1
    decay_mult: 1
  }
  param {
    lr_mult: 2
    decay_mult: 0
  }
  convolution_param {
    num_output: 48
    pad: 2
    kernel_size: 5
    weight_filler {
      type: "xavier"
      std: 0.03
    }
    bias_filler {
      type: "constant"
      value: 0.2
    }
  }
}
layer {
  name: "inception_4a/relu_5x5"
  type: "ReLU"
  bottom: "inception_4a/5x5"
  top: "inception_4a/5x5"
}
layer {
  name: "inception_4a/pool"
  type: "Pooling"
  bottom: "pool3/3x3_s2"
  top: "inception_4a/pool"
  pooling_param {
    pool: MAX
    kernel_size: 3
    stride: 1
    pad: 1
  }
}
layer {
  name: "inception_4a/pool_proj"
  type: "Convolution"
  bottom: "inception_4a/pool"
  top: "inception_4a/pool_proj"
  param {
    lr_mult: 1
    decay_mult: 1
  }
  param {
    lr_mult: 2
    decay_mult: 0
  }
  convolution_param {
    num_output: 64
    kernel_size: 1
    weight_filler {
      type: "xavier"
      std: 0.1
    }
    bias_filler {
      type: "constant"
      value: 0.2
    }
  }
}
layer {
  name: "inception_4a/relu_pool_proj"
  type: "ReLU"
  bottom: "inception_4a/pool_proj"
  top: "inception_4a/pool_proj"
}
layer {
  name: "inception_4a/output"
  type: "Concat"
  bottom: "inception_4a/1x1"
  bottom: "inception_4a/3x3"
  bottom: "inception_4a/5x5"
  bottom: "inception_4a/pool_proj"
  top: "inception_4a/output"
}
layer {
  name: "loss1/ave_pool"
  type: "Pooling"
  bottom: "inception_4a/output"
  top: "loss1/ave_pool"
  pooling_param {
    pool: AVE
    kernel_size: 5
    stride: 3
  }
}
layer {
  name: "loss1/conv"
  type: "Convolution"
  bottom: "loss1/ave_pool"
  top: "loss1/conv"
  param {
    lr_mult: 1
    decay_mult: 1
  }
  param {
    lr_mult: 2
    decay_mult: 0
  }
  convolution_param {
    num_output: 128
    kernel_size: 1
    weight_filler {
      type: "xavier"
      std: 0.08
    }
    bias_filler {
      type: "constant"
      value: 0.2
    }
  }
}
layer {
  name: "loss1/relu_conv"
  type: "ReLU"
  bottom: "loss1/conv"
  top: "loss1/conv"
}
layer {
  name: "loss1/fc"
  type: "InnerProduct"
  bottom: "loss1/conv"
  top: "loss1/fc"
  param {
    lr_mult: 1
    decay_mult: 1
  }
  param {
    lr_mult: 2
    decay_mult: 0
  }
  inner_product_param {
    num_output: 1024
    weight_filler {
      type: "xavier"
      std: 0.02
    }
    bias_filler {
      type: "constant"
      value: 0.2
    }
  }
}
layer {
  name: "loss1/relu_fc"
  type: "ReLU"
  bottom: "loss1/fc"
  top: "loss1/fc"
}
layer {
  name: "loss1/drop_fc"
  type: "Dropout"
  bottom: "loss1/fc"
  top: "loss1/fc"
  dropout_param {
    dropout_ratio: 0.7
  }
}
layer {
  name: "loss1/classifier_plantvillage"
  type: "InnerProduct"
  bottom: "loss1/fc"
  top: "loss1/classifier_plantvillage"
  param {
    lr_mult: 1
    decay_mult: 1
  }
  param {
    lr_mult: 2
    decay_mult: 0
  }
  inner_product_param {
    num_output: 38
    weight_filler {
      type: "xavier"
      std: 0.0009765625
    }
    bias_filler {
      type: "constant"
      value: 0
    }
  }
}
layer {
  name: "inception_4b/1x1"
  type: "Convolution"
  bottom: "inception_4a/output"
  top: "inception_4b/1x1"
  param {
    lr_mult: 1
    decay_mult: 1
  }
  param {
    lr_mult: 2
    decay_mult: 0
  }
  convolution_param {
    num_output: 160
    kernel_size: 1
    weight_filler {
      type: "xavier"
      std: 0.03
    }
    bias_filler {
      type: "constant"
      value: 0.2
    }
  }
}
layer {
  name: "inception_4b/relu_1x1"
  type: "ReLU"
  bottom: "inception_4b/1x1"
  top: "inception_4b/1x1"
}
layer {
  name: "inception_4b/3x3_reduce"
  type: "Convolution"
  bottom: "inception_4a/output"
  top: "inception_4b/3x3_reduce"
  param {
    lr_mult: 1
    decay_mult: 1
  }
  param {
    lr_mult: 2
    decay_mult: 0
  }
  convolution_param {
    num_output: 112
    kernel_size: 1
    weight_filler {
      type: "xavier"
      std: 0.09
    }
    bias_filler {
      type: "constant"
      value: 0.2
    }
  }
}
layer {
  name: "inception_4b/relu_3x3_reduce"
  type: "ReLU"
  bottom: "inception_4b/3x3_reduce"
  top: "inception_4b/3x3_reduce"
}
layer {
  name: "inception_4b/3x3"
  type: "Convolution"
  bottom: "inception_4b/3x3_reduce"
  top: "inception_4b/3x3"
  param {
    lr_mult: 1
    decay_mult: 1
  }
  param {
    lr_mult: 2
    decay_mult: 0
  }
  convolution_param {
    num_output: 224
    pad: 1
    kernel_size: 3
    weight_filler {
      type: "xavier"
      std: 0.03
    }
    bias_filler {
      type: "constant"
      value: 0.2
    }
  }
}
layer {
  name: "inception_4b/relu_3x3"
  type: "ReLU"
  bottom: "inception_4b/3x3"
  top: "inception_4b/3x3"
}
layer {
  name: "inception_4b/5x5_reduce"
  type: "Convolution"
  bottom: "inception_4a/output"
  top: "inception_4b/5x5_reduce"
  param {
    lr_mult: 1
    decay_mult: 1
  }
  param {
    lr_mult: 2
    decay_mult: 0
  }
  convolution_param {
    num_output: 24
    kernel_size: 1
    weight_filler {
      type: "xavier"
      std: 0.2
    }
    bias_filler {
      type: "constant"
      value: 0.2
    }
  }
}
layer {
  name: "inception_4b/relu_5x5_reduce"
  type: "ReLU"
  bottom: "inception_4b/5x5_reduce"
  top: "inception_4b/5x5_reduce"
}
layer {
  name: "inception_4b/5x5"
  type: "Convolution"
  bottom: "inception_4b/5x5_reduce"
  top: "inception_4b/5x5"
  param {
    lr_mult: 1
    decay_mult: 1
  }
  param {
    lr_mult: 2
    decay_mult: 0
  }
  convolution_param {
    num_output: 64
    pad: 2
    kernel_size: 5
    weight_filler {
      type: "xavier"
      std: 0.03
    }
    bias_filler {
      type: "constant"
      value: 0.2
    }
  }
}
layer {
  name: "inception_4b/relu_5x5"
  type: "ReLU"
  bottom: "inception_4b/5x5"
  top: "inception_4b/5x5"
}
layer {
  name: "inception_4b/pool"
  type: "Pooling"
  bottom: "inception_4a/output"
  top: "inception_4b/pool"
  pooling_param {
    pool: MAX
    kernel_size: 3
    stride: 1
    pad: 1
  }
}
layer {
  name: "inception_4b/pool_proj"
  type: "Convolution"
  bottom: "inception_4b/pool"
  top: "inception_4b/pool_proj"
  param {
    lr_mult: 1
    decay_mult: 1
  }
  param {
    lr_mult: 2
    decay_mult: 0
  }
  convolution_param {
    num_output: 64
    kernel_size: 1
    weight_filler {
      type: "xavier"
      std: 0.1
    }
    bias_filler {
      type: "constant"
      value: 0.2
    }
  }
}
layer {
  name: "inception_4b/relu_pool_proj"
  type: "ReLU"
  bottom: "inception_4b/pool_proj"
  top: "inception_4b/pool_proj"
}
layer {
  name: "inception_4b/output"
  type: "Concat"
  bottom: "inception_4b/1x1"
  bottom: "inception_4b/3x3"
  bottom: "inception_4b/5x5"
  bottom: "inception_4b/pool_proj"
  top: "inception_4b/output"
}
layer {
  name: "inception_4c/1x1"
  type: "Convolution"
  bottom: "inception_4b/output"
  top: "inception_4c/1x1"
  param {
    lr_mult: 1
    decay_mult: 1
  }
  param {
    lr_mult: 2
    decay_mult: 0
  }
  convolution_param {
    num_output: 128
    kernel_size: 1
    weight_filler {
      type: "xavier"
      std: 0.03
    }
    bias_filler {
      type: "constant"
      value: 0.2
    }
  }
}
layer {
  name: "inception_4c/relu_1x1"
  type: "ReLU"
  bottom: "inception_4c/1x1"
  top: "inception_4c/1x1"
}
layer {
  name: "inception_4c/3x3_reduce"
  type: "Convolution"
  bottom: "inception_4b/output"
  top: "inception_4c/3x3_reduce"
  param {
    lr_mult: 1
    decay_mult: 1
  }
  param {
    lr_mult: 2
    decay_mult: 0
  }
  convolution_param {
    num_output: 128
    kernel_size: 1
    weight_filler {
      type: "xavier"
      std: 0.09
    }
    bias_filler {
      type: "constant"
      value: 0.2
    }
  }
}
layer {
  name: "inception_4c/relu_3x3_reduce"
  type: "ReLU"
  bottom: "inception_4c/3x3_reduce"
  top: "inception_4c/3x3_reduce"
}
layer {
  name: "inception_4c/3x3"
  type: "Convolution"
  bottom: "inception_4c/3x3_reduce"
  top: "inception_4c/3x3"
  param {
    lr_mult: 1
    decay_mult: 1
  }
  param {
    lr_mult: 2
    decay_mult: 0
  }
  convolution_param {
    num_output: 256
    pad: 1
    kernel_size: 3
    weight_filler {
      type: "xavier"
      std: 0.03
    }
    bias_filler {
      type: "constant"
      value: 0.2
    }
  }
}
layer {
  name: "inception_4c/relu_3x3"
  type: "ReLU"
  bottom: "inception_4c/3x3"
  top: "inception_4c/3x3"
}
layer {
  name: "inception_4c/5x5_reduce"
  type: "Convolution"
  bottom: "inception_4b/output"
  top: "inception_4c/5x5_reduce"
  param {
    lr_mult: 1
    decay_mult: 1
  }
  param {
    lr_mult: 2
    decay_mult: 0
  }
  convolution_param {
    num_output: 24
    kernel_size: 1
    weight_filler {
      type: "xavier"
      std: 0.2
    }
    bias_filler {
      type: "constant"
      value: 0.2
    }
  }
}
layer {
  name: "inception_4c/relu_5x5_reduce"
  type: "ReLU"
  bottom: "inception_4c/5x5_reduce"
  top: "inception_4c/5x5_reduce"
}
layer {
  name: "inception_4c/5x5"
  type: "Convolution"
  bottom: "inception_4c/5x5_reduce"
  top: "inception_4c/5x5"
  param {
    lr_mult: 1
    decay_mult: 1
  }
  param {
    lr_mult: 2
    decay_mult: 0
  }
  convolution_param {
    num_output: 64
    pad: 2
    kernel_size: 5
    weight_filler {
      type: "xavier"
      std: 0.03
    }
    bias_filler {
      type: "constant"
      value: 0.2
    }
  }
}
layer {
  name: "inception_4c/relu_5x5"
  type: "ReLU"
  bottom: "inception_4c/5x5"
  top: "inception_4c/5x5"
}
layer {
  name: "inception_4c/pool"
  type: "Pooling"
  bottom: "inception_4b/output"
  top: "inception_4c/pool"
  pooling_param {
    pool: MAX
    kernel_size: 3
    stride: 1
    pad: 1
  }
}
layer {
  name: "inception_4c/pool_proj"
  type: "Convolution"
  bottom: "inception_4c/pool"
  top: "inception_4c/pool_proj"
  param {
    lr_mult: 1
    decay_mult: 1
  }
  param {
    lr_mult: 2
    decay_mult: 0
  }
  convolution_param {
    num_output: 64
    kernel_size: 1
    weight_filler {
      type: "xavier"
      std: 0.1
    }
    bias_filler {
      type: "constant"
      value: 0.2
    }
  }
}
layer {
  name: "inception_4c/relu_pool_proj"
  type: "ReLU"
  bottom: "inception_4c/pool_proj"
  top: "inception_4c/pool_proj"
}
layer {
  name: "inception_4c/output"
  type: "Concat"
  bottom: "inception_4c/1x1"
  bottom: "inception_4c/3x3"
  bottom: "inception_4c/5x5"
  bottom: "inception_4c/pool_proj"
  top: "inception_4c/output"
}
layer {
  name: "inception_4d/1x1"
  type: "Convolution"
  bottom: "inception_4c/output"
  top: "inception_4d/1x1"
  param {
    lr_mult: 1
    decay_mult: 1
  }
  param {
    lr_mult: 2
    decay_mult: 0
  }
  convolution_param {
    num_output: 112
    kernel_size: 1
    weight_filler {
      type: "xavier"
      std: 0.03
    }
    bias_filler {
      type: "constant"
      value: 0.2
    }
  }
}
layer {
  name: "inception_4d/relu_1x1"
  type: "ReLU"
  bottom: "inception_4d/1x1"
  top: "inception_4d/1x1"
}
layer {
  name: "inception_4d/3x3_reduce"
  type: "Convolution"
  bottom: "inception_4c/output"
  top: "inception_4d/3x3_reduce"
  param {
    lr_mult: 1
    decay_mult: 1
  }
  param {
    lr_mult: 2
    decay_mult: 0
  }
  convolution_param {
    num_output: 144
    kernel_size: 1
    weight_filler {
      type: "xavier"
      std: 0.09
    }
    bias_filler {
      type: "constant"
      value: 0.2
    }
  }
}
layer {
  name: "inception_4d/relu_3x3_reduce"
  type: "ReLU"
  bottom: "inception_4d/3x3_reduce"
  top: "inception_4d/3x3_reduce"
}
layer {
  name: "inception_4d/3x3"
  type: "Convolution"
  bottom: "inception_4d/3x3_reduce"
  top: "inception_4d/3x3"
  param {
    lr_mult: 1
    decay_mult: 1
  }
  param {
    lr_mult: 2
    decay_mult: 0
  }
  convolution_param {
    num_output: 288
    pad: 1
    kernel_size: 3
    weight_filler {
      type: "xavier"
      std: 0.03
    }
    bias_filler {
      type: "constant"
      value: 0.2
    }
  }
}
layer {
  name: "inception_4d/relu_3x3"
  type: "ReLU"
  bottom: "inception_4d/3x3"
  top: "inception_4d/3x3"
}
layer {
  name: "inception_4d/5x5_reduce"
  type: "Convolution"
  bottom: "inception_4c/output"
  top: "inception_4d/5x5_reduce"
  param {
    lr_mult: 1
    decay_mult: 1
  }
  param {
    lr_mult: 2
    decay_mult: 0
  }
  convolution_param {
    num_output: 32
    kernel_size: 1
    weight_filler {
      type: "xavier"
      std: 0.2
    }
    bias_filler {
      type: "constant"
      value: 0.2
    }
  }
}
layer {
  name: "inception_4d/relu_5x5_reduce"
  type: "ReLU"
  bottom: "inception_4d/5x5_reduce"
  top: "inception_4d/5x5_reduce"
}
layer {
  name: "inception_4d/5x5"
  type: "Convolution"
  bottom: "inception_4d/5x5_reduce"
  top: "inception_4d/5x5"
  param {
    lr_mult: 1
    decay_mult: 1
  }
  param {
    lr_mult: 2
    decay_mult: 0
  }
  convolution_param {
    num_output: 64
    pad: 2
    kernel_size: 5
    weight_filler {
      type: "xavier"
      std: 0.03
    }
    bias_filler {
      type: "constant"
      value: 0.2
    }
  }
}
layer {
  name: "inception_4d/relu_5x5"
  type: "ReLU"
  bottom: "inception_4d/5x5"
  top: "inception_4d/5x5"
}
layer {
  name: "inception_4d/pool"
  type: "Pooling"
  bottom: "inception_4c/output"
  top: "inception_4d/pool"
  pooling_param {
    pool: MAX
    kernel_size: 3
    stride: 1
    pad: 1
  }
}
layer {
  name: "inception_4d/pool_proj"
  type: "Convolution"
  bottom: "inception_4d/pool"
  top: "inception_4d/pool_proj"
  param {
    lr_mult: 1
    decay_mult: 1
  }
  param {
    lr_mult: 2
    decay_mult: 0
  }
  convolution_param {
    num_output: 64
    kernel_size: 1
    weight_filler {
      type: "xavier"
      std: 0.1
    }
    bias_filler {
      type: "constant"
      value: 0.2
    }
  }
}
layer {
  name: "inception_4d/relu_pool_proj"
  type: "ReLU"
  bottom: "inception_4d/pool_proj"
  top: "inception_4d/pool_proj"
}
layer {
  name: "inception_4d/output"
  type: "Concat"
  bottom: "inception_4d/1x1"
  bottom: "inception_4d/3x3"
  bottom: "inception_4d/5x5"
  bottom: "inception_4d/pool_proj"
  top: "inception_4d/output"
}
layer {
  name: "loss2/ave_pool"
  type: "Pooling"
  bottom: "inception_4d/output"
  top: "loss2/ave_pool"
  pooling_param {
    pool: AVE
    kernel_size: 5
    stride: 3
  }
}
layer {
  name: "loss2/conv"
  type: "Convolution"
  bottom: "loss2/ave_pool"
  top: "loss2/conv"
  param {
    lr_mult: 1
    decay_mult: 1
  }
  param {
    lr_mult: 2
    decay_mult: 0
  }
  convolution_param {
    num_output: 128
    kernel_size: 1
    weight_filler {
      type: "xavier"
      std: 0.08
    }
    bias_filler {
      type: "constant"
      value: 0.2
    }
  }
}
layer {
  name: "loss2/relu_conv"
  type: "ReLU"
  bottom: "loss2/conv"
  top: "loss2/conv"
}
layer {
  name: "loss2/fc"
  type: "InnerProduct"
  bottom: "loss2/conv"
  top: "loss2/fc"
  param {
    lr_mult: 1
    decay_mult: 1
  }
  param {
    lr_mult: 2
    decay_mult: 0
  }
  inner_product_param {
    num_output: 1024
    weight_filler {
      type: "xavier"
      std: 0.02
    }
    bias_filler {
      type: "constant"
      value: 0.2
    }
  }
}
layer {
  name: "loss2/relu_fc"
  type: "ReLU"
  bottom: "loss2/fc"
  top: "loss2/fc"
}
layer {
  name: "loss2/drop_fc"
  type: "Dropout"
  bottom: "loss2/fc"
  top: "loss2/fc"
  dropout_param {
    dropout_ratio: 0.7
  }
}
layer {
  name: "loss2/classifier_plantvillage"
  type: "InnerProduct"
  bottom: "loss2/fc"
  top: "loss2/classifier_plantvillage"
  param {
    lr_mult: 1
    decay_mult: 1
  }
  param {
    lr_mult: 2
    decay_mult: 0
  }
  inner_product_param {
    num_output: 38
    weight_filler {
      type: "xavier"
      std: 0.0009765625
    }
    bias_filler {
      type: "constant"
      value: 0
    }
  }
}
layer {
  name: "inception_4e/1x1"
  type: "Convolution"
  bottom: "inception_4d/output"
  top: "inception_4e/1x1"
  param {
    lr_mult: 1
    decay_mult: 1
  }
  param {
    lr_mult: 2
    decay_mult: 0
  }
  convolution_param {
    num_output: 256
    kernel_size: 1
    weight_filler {
      type: "xavier"
      std: 0.03
    }
    bias_filler {
      type: "constant"
      value: 0.2
    }
  }
}
layer {
  name: "inception_4e/relu_1x1"
  type: "ReLU"
  bottom: "inception_4e/1x1"
  top: "inception_4e/1x1"
}
layer {
  name: "inception_4e/3x3_reduce"
  type: "Convolution"
  bottom: "inception_4d/output"
  top: "inception_4e/3x3_reduce"
  param {
    lr_mult: 1
    decay_mult: 1
  }
  param {
    lr_mult: 2
    decay_mult: 0
  }
  convolution_param {
    num_output: 160
    kernel_size: 1
    weight_filler {
      type: "xavier"
      std: 0.09
    }
    bias_filler {
      type: "constant"
      value: 0.2
    }
  }
}
layer {
  name: "inception_4e/relu_3x3_reduce"
  type: "ReLU"
  bottom: "inception_4e/3x3_reduce"
  top: "inception_4e/3x3_reduce"
}
layer {
  name: "inception_4e/3x3"
  type: "Convolution"
  bottom: "inception_4e/3x3_reduce"
  top: "inception_4e/3x3"
  param {
    lr_mult: 1
    decay_mult: 1
  }
  param {
    lr_mult: 2
    decay_mult: 0
  }
  convolution_param {
    num_output: 320
    pad: 1
    kernel_size: 3
    weight_filler {
      type: "xavier"
      std: 0.03
    }
    bias_filler {
      type: "constant"
      value: 0.2
    }
  }
}
layer {
  name: "inception_4e/relu_3x3"
  type: "ReLU"
  bottom: "inception_4e/3x3"
  top: "inception_4e/3x3"
}
layer {
  name: "inception_4e/5x5_reduce"
  type: "Convolution"
  bottom: "inception_4d/output"
  top: "inception_4e/5x5_reduce"
  param {
    lr_mult: 1
    decay_mult: 1
  }
  param {
    lr_mult: 2
    decay_mult: 0
  }
  convolution_param {
    num_output: 32
    kernel_size: 1
    weight_filler {
      type: "xavier"
      std: 0.2
    }
    bias_filler {
      type: "constant"
      value: 0.2
    }
  }
}
layer {
  name: "inception_4e/relu_5x5_reduce"
  type: "ReLU"
  bottom: "inception_4e/5x5_reduce"
  top: "inception_4e/5x5_reduce"
}
layer {
  name: "inception_4e/5x5"
  type: "Convolution"
  bottom: "inception_4e/5x5_reduce"
  top: "inception_4e/5x5"
  p
I0403 14:32:43.963217 29936 layer_factory.hpp:77] Creating layer data
I0403 14:32:43.963856 29936 net.cpp:91] Creating Layer data
I0403 14:32:43.963889 29936 net.cpp:399] data -> data
I0403 14:32:43.963944 29936 net.cpp:399] data -> label
I0403 14:32:43.963986 29936 data_transformer.cpp:25] Loading mean file from: /home/mohanty/data/final_dataset/lmdb/color-20-80/mean.binaryproto
I0403 14:32:43.966464 29939 db_lmdb.cpp:38] Opened lmdb /home/mohanty/data/final_dataset/lmdb/color-20-80/test_db
I0403 14:32:43.977352 29936 data_layer.cpp:41] output data size: 24,3,224,224
I0403 14:32:44.005417 29936 net.cpp:141] Setting up data
I0403 14:32:44.005508 29936 net.cpp:148] Top shape: 24 3 224 224 (3612672)
I0403 14:32:44.005533 29936 net.cpp:148] Top shape: 24 (24)
I0403 14:32:44.005550 29936 net.cpp:156] Memory required for data: 14450784
I0403 14:32:44.005579 29936 layer_factory.hpp:77] Creating layer label_data_1_split
I0403 14:32:44.005609 29936 net.cpp:91] Creating Layer label_data_1_split
I0403 14:32:44.005628 29936 net.cpp:425] label_data_1_split <- label
I0403 14:32:44.005662 29936 net.cpp:399] label_data_1_split -> label_data_1_split_0
I0403 14:32:44.005693 29936 net.cpp:399] label_data_1_split -> label_data_1_split_1
I0403 14:32:44.005717 29936 net.cpp:399] label_data_1_split -> label_data_1_split_2
I0403 14:32:44.005739 29936 net.cpp:399] label_data_1_split -> label_data_1_split_3
I0403 14:32:44.005761 29936 net.cpp:399] label_data_1_split -> label_data_1_split_4
I0403 14:32:44.005782 29936 net.cpp:399] label_data_1_split -> label_data_1_split_5
I0403 14:32:44.005802 29936 net.cpp:399] label_data_1_split -> label_data_1_split_6
I0403 14:32:44.005825 29936 net.cpp:399] label_data_1_split -> label_data_1_split_7
I0403 14:32:44.005846 29936 net.cpp:399] label_data_1_split -> label_data_1_split_8
I0403 14:32:44.005869 29936 net.cpp:399] label_data_1_split -> label_data_1_split_9
I0403 14:32:44.005993 29936 net.cpp:141] Setting up label_data_1_split
I0403 14:32:44.006018 29936 net.cpp:148] Top shape: 24 (24)
I0403 14:32:44.006037 29936 net.cpp:148] Top shape: 24 (24)
I0403 14:32:44.006054 29936 net.cpp:148] Top shape: 24 (24)
I0403 14:32:44.006072 29936 net.cpp:148] Top shape: 24 (24)
I0403 14:32:44.006089 29936 net.cpp:148] Top shape: 24 (24)
I0403 14:32:44.006106 29936 net.cpp:148] Top shape: 24 (24)
I0403 14:32:44.006124 29936 net.cpp:148] Top shape: 24 (24)
I0403 14:32:44.006139 29936 net.cpp:148] Top shape: 24 (24)
I0403 14:32:44.006156 29936 net.cpp:148] Top shape: 24 (24)
I0403 14:32:44.006175 29936 net.cpp:148] Top shape: 24 (24)
I0403 14:32:44.006222 29936 net.cpp:156] Memory required for data: 14451744
I0403 14:32:44.006239 29936 layer_factory.hpp:77] Creating layer conv1/7x7_s2
I0403 14:32:44.006273 29936 net.cpp:91] Creating Layer conv1/7x7_s2
I0403 14:32:44.006294 29936 net.cpp:425] conv1/7x7_s2 <- data
I0403 14:32:44.006315 29936 net.cpp:399] conv1/7x7_s2 -> conv1/7x7_s2
I0403 14:32:44.150439 29936 net.cpp:141] Setting up conv1/7x7_s2
I0403 14:32:44.150519 29936 net.cpp:148] Top shape: 24 64 112 112 (19267584)
I0403 14:32:44.150538 29936 net.cpp:156] Memory required for data: 91522080
I0403 14:32:44.150573 29936 layer_factory.hpp:77] Creating layer conv1/relu_7x7
I0403 14:32:44.150600 29936 net.cpp:91] Creating Layer conv1/relu_7x7
I0403 14:32:44.150621 29936 net.cpp:425] conv1/relu_7x7 <- conv1/7x7_s2
I0403 14:32:44.150641 29936 net.cpp:386] conv1/relu_7x7 -> conv1/7x7_s2 (in-place)
I0403 14:32:44.150908 29936 net.cpp:141] Setting up conv1/relu_7x7
I0403 14:32:44.150938 29936 net.cpp:148] Top shape: 24 64 112 112 (19267584)
I0403 14:32:44.150954 29936 net.cpp:156] Memory required for data: 168592416
I0403 14:32:44.150971 29936 layer_factory.hpp:77] Creating layer pool1/3x3_s2
I0403 14:32:44.150997 29936 net.cpp:91] Creating Layer pool1/3x3_s2
I0403 14:32:44.151022 29936 net.cpp:425] pool1/3x3_s2 <- conv1/7x7_s2
I0403 14:32:44.151042 29936 net.cpp:399] pool1/3x3_s2 -> pool1/3x3_s2
I0403 14:32:44.151120 29936 net.cpp:141] Setting up pool1/3x3_s2
I0403 14:32:44.151146 29936 net.cpp:148] Top shape: 24 64 56 56 (4816896)
I0403 14:32:44.151163 29936 net.cpp:156] Memory required for data: 187860000
I0403 14:32:44.151180 29936 layer_factory.hpp:77] Creating layer pool1/norm1
I0403 14:32:44.151206 29936 net.cpp:91] Creating Layer pool1/norm1
I0403 14:32:44.151224 29936 net.cpp:425] pool1/norm1 <- pool1/3x3_s2
I0403 14:32:44.151242 29936 net.cpp:399] pool1/norm1 -> pool1/norm1
I0403 14:32:44.151541 29936 net.cpp:141] Setting up pool1/norm1
I0403 14:32:44.151571 29936 net.cpp:148] Top shape: 24 64 56 56 (4816896)
I0403 14:32:44.151587 29936 net.cpp:156] Memory required for data: 207127584
I0403 14:32:44.151604 29936 layer_factory.hpp:77] Creating layer conv2/3x3_reduce
I0403 14:32:44.151630 29936 net.cpp:91] Creating Layer conv2/3x3_reduce
I0403 14:32:44.151648 29936 net.cpp:425] conv2/3x3_reduce <- pool1/norm1
I0403 14:32:44.151669 29936 net.cpp:399] conv2/3x3_reduce -> conv2/3x3_reduce
I0403 14:32:44.153048 29936 net.cpp:141] Setting up conv2/3x3_reduce
I0403 14:32:44.153080 29936 net.cpp:148] Top shape: 24 64 56 56 (4816896)
I0403 14:32:44.153098 29936 net.cpp:156] Memory required for data: 226395168
I0403 14:32:44.153121 29936 layer_factory.hpp:77] Creating layer conv2/relu_3x3_reduce
I0403 14:32:44.153141 29936 net.cpp:91] Creating Layer conv2/relu_3x3_reduce
I0403 14:32:44.153158 29936 net.cpp:425] conv2/relu_3x3_reduce <- conv2/3x3_reduce
I0403 14:32:44.153177 29936 net.cpp:386] conv2/relu_3x3_reduce -> conv2/3x3_reduce (in-place)
I0403 14:32:44.153442 29936 net.cpp:141] Setting up conv2/relu_3x3_reduce
I0403 14:32:44.153470 29936 net.cpp:148] Top shape: 24 64 56 56 (4816896)
I0403 14:32:44.153486 29936 net.cpp:156] Memory required for data: 245662752
I0403 14:32:44.153502 29936 layer_factory.hpp:77] Creating layer conv2/3x3
I0403 14:32:44.153527 29936 net.cpp:91] Creating Layer conv2/3x3
I0403 14:32:44.153544 29936 net.cpp:425] conv2/3x3 <- conv2/3x3_reduce
I0403 14:32:44.153565 29936 net.cpp:399] conv2/3x3 -> conv2/3x3
I0403 14:32:44.155916 29936 net.cpp:141] Setting up conv2/3x3
I0403 14:32:44.155951 29936 net.cpp:148] Top shape: 24 192 56 56 (14450688)
I0403 14:32:44.155968 29936 net.cpp:156] Memory required for data: 303465504
I0403 14:32:44.155990 29936 layer_factory.hpp:77] Creating layer conv2/relu_3x3
I0403 14:32:44.156011 29936 net.cpp:91] Creating Layer conv2/relu_3x3
I0403 14:32:44.156029 29936 net.cpp:425] conv2/relu_3x3 <- conv2/3x3
I0403 14:32:44.156049 29936 net.cpp:386] conv2/relu_3x3 -> conv2/3x3 (in-place)
I0403 14:32:44.156218 29936 net.cpp:141] Setting up conv2/relu_3x3
I0403 14:32:44.156244 29936 net.cpp:148] Top shape: 24 192 56 56 (14450688)
I0403 14:32:44.156293 29936 net.cpp:156] Memory required for data: 361268256
I0403 14:32:44.156311 29936 layer_factory.hpp:77] Creating layer conv2/norm2
I0403 14:32:44.156332 29936 net.cpp:91] Creating Layer conv2/norm2
I0403 14:32:44.156353 29936 net.cpp:425] conv2/norm2 <- conv2/3x3
I0403 14:32:44.156375 29936 net.cpp:399] conv2/norm2 -> conv2/norm2
I0403 14:32:44.156678 29936 net.cpp:141] Setting up conv2/norm2
I0403 14:32:44.156708 29936 net.cpp:148] Top shape: 24 192 56 56 (14450688)
I0403 14:32:44.156726 29936 net.cpp:156] Memory required for data: 419071008
I0403 14:32:44.156744 29936 layer_factory.hpp:77] Creating layer pool2/3x3_s2
I0403 14:32:44.156764 29936 net.cpp:91] Creating Layer pool2/3x3_s2
I0403 14:32:44.156781 29936 net.cpp:425] pool2/3x3_s2 <- conv2/norm2
I0403 14:32:44.156802 29936 net.cpp:399] pool2/3x3_s2 -> pool2/3x3_s2
I0403 14:32:44.156854 29936 net.cpp:141] Setting up pool2/3x3_s2
I0403 14:32:44.156880 29936 net.cpp:148] Top shape: 24 192 28 28 (3612672)
I0403 14:32:44.156896 29936 net.cpp:156] Memory required for data: 433521696
I0403 14:32:44.156914 29936 layer_factory.hpp:77] Creating layer pool2/3x3_s2_pool2/3x3_s2_0_split
I0403 14:32:44.156934 29936 net.cpp:91] Creating Layer pool2/3x3_s2_pool2/3x3_s2_0_split
I0403 14:32:44.156950 29936 net.cpp:425] pool2/3x3_s2_pool2/3x3_s2_0_split <- pool2/3x3_s2
I0403 14:32:44.156971 29936 net.cpp:399] pool2/3x3_s2_pool2/3x3_s2_0_split -> pool2/3x3_s2_pool2/3x3_s2_0_split_0
I0403 14:32:44.156993 29936 net.cpp:399] pool2/3x3_s2_pool2/3x3_s2_0_split -> pool2/3x3_s2_pool2/3x3_s2_0_split_1
I0403 14:32:44.157014 29936 net.cpp:399] pool2/3x3_s2_pool2/3x3_s2_0_split -> pool2/3x3_s2_pool2/3x3_s2_0_split_2
I0403 14:32:44.157037 29936 net.cpp:399] pool2/3x3_s2_pool2/3x3_s2_0_split -> pool2/3x3_s2_pool2/3x3_s2_0_split_3
I0403 14:32:44.157104 29936 net.cpp:141] Setting up pool2/3x3_s2_pool2/3x3_s2_0_split
I0403 14:32:44.157130 29936 net.cpp:148] Top shape: 24 192 28 28 (3612672)
I0403 14:32:44.157147 29936 net.cpp:148] Top shape: 24 192 28 28 (3612672)
I0403 14:32:44.157166 29936 net.cpp:148] Top shape: 24 192 28 28 (3612672)
I0403 14:32:44.157182 29936 net.cpp:148] Top shape: 24 192 28 28 (3612672)
I0403 14:32:44.157197 29936 net.cpp:156] Memory required for data: 491324448
I0403 14:32:44.157213 29936 layer_factory.hpp:77] Creating layer inception_3a/1x1
I0403 14:32:44.157237 29936 net.cpp:91] Creating Layer inception_3a/1x1
I0403 14:32:44.157255 29936 net.cpp:425] inception_3a/1x1 <- pool2/3x3_s2_pool2/3x3_s2_0_split_0
I0403 14:32:44.157276 29936 net.cpp:399] inception_3a/1x1 -> inception_3a/1x1
I0403 14:32:44.158901 29936 net.cpp:141] Setting up inception_3a/1x1
I0403 14:32:44.158933 29936 net.cpp:148] Top shape: 24 64 28 28 (1204224)
I0403 14:32:44.158951 29936 net.cpp:156] Memory required for data: 496141344
I0403 14:32:44.158972 29936 layer_factory.hpp:77] Creating layer inception_3a/relu_1x1
I0403 14:32:44.158994 29936 net.cpp:91] Creating Layer inception_3a/relu_1x1
I0403 14:32:44.159013 29936 net.cpp:425] inception_3a/relu_1x1 <- inception_3a/1x1
I0403 14:32:44.159034 29936 net.cpp:386] inception_3a/relu_1x1 -> inception_3a/1x1 (in-place)
I0403 14:32:44.159219 29936 net.cpp:141] Setting up inception_3a/relu_1x1
I0403 14:32:44.159248 29936 net.cpp:148] Top shape: 24 64 28 28 (1204224)
I0403 14:32:44.159267 29936 net.cpp:156] Memory required for data: 500958240
I0403 14:32:44.159284 29936 layer_factory.hpp:77] Creating layer inception_3a/3x3_reduce
I0403 14:32:44.159309 29936 net.cpp:91] Creating Layer inception_3a/3x3_reduce
I0403 14:32:44.159364 29936 net.cpp:425] inception_3a/3x3_reduce <- pool2/3x3_s2_pool2/3x3_s2_0_split_1
I0403 14:32:44.159389 29936 net.cpp:399] inception_3a/3x3_reduce -> inception_3a/3x3_reduce
I0403 14:32:44.161173 29936 net.cpp:141] Setting up inception_3a/3x3_reduce
I0403 14:32:44.161206 29936 net.cpp:148] Top shape: 24 96 28 28 (1806336)
I0403 14:32:44.161224 29936 net.cpp:156] Memory required for data: 508183584
I0403 14:32:44.161249 29936 layer_factory.hpp:77] Creating layer inception_3a/relu_3x3_reduce
I0403 14:32:44.161290 29936 net.cpp:91] Creating Layer inception_3a/relu_3x3_reduce
I0403 14:32:44.161310 29936 net.cpp:425] inception_3a/relu_3x3_reduce <- inception_3a/3x3_reduce
I0403 14:32:44.161332 29936 net.cpp:386] inception_3a/relu_3x3_reduce -> inception_3a/3x3_reduce (in-place)
I0403 14:32:44.161538 29936 net.cpp:141] Setting up inception_3a/relu_3x3_reduce
I0403 14:32:44.161566 29936 net.cpp:148] Top shape: 24 96 28 28 (1806336)
I0403 14:32:44.161583 29936 net.cpp:156] Memory required for data: 515408928
I0403 14:32:44.161602 29936 layer_factory.hpp:77] Creating layer inception_3a/3x3
I0403 14:32:44.161625 29936 net.cpp:91] Creating Layer inception_3a/3x3
I0403 14:32:44.161644 29936 net.cpp:425] inception_3a/3x3 <- inception_3a/3x3_reduce
I0403 14:32:44.161669 29936 net.cpp:399] inception_3a/3x3 -> inception_3a/3x3
I0403 14:32:44.163393 29936 net.cpp:141] Setting up inception_3a/3x3
I0403 14:32:44.163426 29936 net.cpp:148] Top shape: 24 128 28 28 (2408448)
I0403 14:32:44.163444 29936 net.cpp:156] Memory required for data: 525042720
I0403 14:32:44.163465 29936 layer_factory.hpp:77] Creating layer inception_3a/relu_3x3
I0403 14:32:44.163485 29936 net.cpp:91] Creating Layer inception_3a/relu_3x3
I0403 14:32:44.163502 29936 net.cpp:425] inception_3a/relu_3x3 <- inception_3a/3x3
I0403 14:32:44.163532 29936 net.cpp:386] inception_3a/relu_3x3 -> inception_3a/3x3 (in-place)
I0403 14:32:44.163822 29936 net.cpp:141] Setting up inception_3a/relu_3x3
I0403 14:32:44.163854 29936 net.cpp:148] Top shape: 24 128 28 28 (2408448)
I0403 14:32:44.163872 29936 net.cpp:156] Memory required for data: 534676512
I0403 14:32:44.163890 29936 layer_factory.hpp:77] Creating layer inception_3a/5x5_reduce
I0403 14:32:44.163915 29936 net.cpp:91] Creating Layer inception_3a/5x5_reduce
I0403 14:32:44.163935 29936 net.cpp:425] inception_3a/5x5_reduce <- pool2/3x3_s2_pool2/3x3_s2_0_split_2
I0403 14:32:44.163956 29936 net.cpp:399] inception_3a/5x5_reduce -> inception_3a/5x5_reduce
I0403 14:32:44.164963 29936 net.cpp:141] Setting up inception_3a/5x5_reduce
I0403 14:32:44.164996 29936 net.cpp:148] Top shape: 24 16 28 28 (301056)
I0403 14:32:44.165015 29936 net.cpp:156] Memory required for data: 535880736
I0403 14:32:44.165036 29936 layer_factory.hpp:77] Creating layer inception_3a/relu_5x5_reduce
I0403 14:32:44.165055 29936 net.cpp:91] Creating Layer inception_3a/relu_5x5_reduce
I0403 14:32:44.165074 29936 net.cpp:425] inception_3a/relu_5x5_reduce <- inception_3a/5x5_reduce
I0403 14:32:44.165096 29936 net.cpp:386] inception_3a/relu_5x5_reduce -> inception_3a/5x5_reduce (in-place)
I0403 14:32:44.165411 29936 net.cpp:141] Setting up inception_3a/relu_5x5_reduce
I0403 14:32:44.165441 29936 net.cpp:148] Top shape: 24 16 28 28 (301056)
I0403 14:32:44.165457 29936 net.cpp:156] Memory required for data: 537084960
I0403 14:32:44.165473 29936 layer_factory.hpp:77] Creating layer inception_3a/5x5
I0403 14:32:44.165498 29936 net.cpp:91] Creating Layer inception_3a/5x5
I0403 14:32:44.165518 29936 net.cpp:425] inception_3a/5x5 <- inception_3a/5x5_reduce
I0403 14:32:44.165540 29936 net.cpp:399] inception_3a/5x5 -> inception_3a/5x5
I0403 14:32:44.166607 29936 net.cpp:141] Setting up inception_3a/5x5
I0403 14:32:44.166638 29936 net.cpp:148] Top shape: 24 32 28 28 (602112)
I0403 14:32:44.166658 29936 net.cpp:156] Memory required for data: 539493408
I0403 14:32:44.166682 29936 layer_factory.hpp:77] Creating layer inception_3a/relu_5x5
I0403 14:32:44.166704 29936 net.cpp:91] Creating Layer inception_3a/relu_5x5
I0403 14:32:44.166723 29936 net.cpp:425] inception_3a/relu_5x5 <- inception_3a/5x5
I0403 14:32:44.166743 29936 net.cpp:386] inception_3a/relu_5x5 -> inception_3a/5x5 (in-place)
I0403 14:32:44.166923 29936 net.cpp:141] Setting up inception_3a/relu_5x5
I0403 14:32:44.166954 29936 net.cpp:148] Top shape: 24 32 28 28 (602112)
I0403 14:32:44.166970 29936 net.cpp:156] Memory required for data: 541901856
I0403 14:32:44.166986 29936 layer_factory.hpp:77] Creating layer inception_3a/pool
I0403 14:32:44.167007 29936 net.cpp:91] Creating Layer inception_3a/pool
I0403 14:32:44.167024 29936 net.cpp:425] inception_3a/pool <- pool2/3x3_s2_pool2/3x3_s2_0_split_3
I0403 14:32:44.167062 29936 net.cpp:399] inception_3a/pool -> inception_3a/pool
I0403 14:32:44.167127 29936 net.cpp:141] Setting up inception_3a/pool
I0403 14:32:44.167157 29936 net.cpp:148] Top shape: 24 192 28 28 (3612672)
I0403 14:32:44.167176 29936 net.cpp:156] Memory required for data: 556352544
I0403 14:32:44.167192 29936 layer_factory.hpp:77] Creating layer inception_3a/pool_proj
I0403 14:32:44.167213 29936 net.cpp:91] Creating Layer inception_3a/pool_proj
I0403 14:32:44.167232 29936 net.cpp:425] inception_3a/pool_proj <- inception_3a/pool
I0403 14:32:44.167258 29936 net.cpp:399] inception_3a/pool_proj -> inception_3a/pool_proj
I0403 14:32:44.168272 29936 net.cpp:141] Setting up inception_3a/pool_proj
I0403 14:32:44.168303 29936 net.cpp:148] Top shape: 24 32 28 28 (602112)
I0403 14:32:44.168320 29936 net.cpp:156] Memory required for data: 558760992
I0403 14:32:44.168350 29936 layer_factory.hpp:77] Creating layer inception_3a/relu_pool_proj
I0403 14:32:44.168375 29936 net.cpp:91] Creating Layer inception_3a/relu_pool_proj
I0403 14:32:44.168391 29936 net.cpp:425] inception_3a/relu_pool_proj <- inception_3a/pool_proj
I0403 14:32:44.168414 29936 net.cpp:386] inception_3a/relu_pool_proj -> inception_3a/pool_proj (in-place)
I0403 14:32:44.168704 29936 net.cpp:141] Setting up inception_3a/relu_pool_proj
I0403 14:32:44.168735 29936 net.cpp:148] Top shape: 24 32 28 28 (602112)
I0403 14:32:44.168753 29936 net.cpp:156] Memory required for data: 561169440
I0403 14:32:44.168769 29936 layer_factory.hpp:77] Creating layer inception_3a/output
I0403 14:32:44.168789 29936 net.cpp:91] Creating Layer inception_3a/output
I0403 14:32:44.168807 29936 net.cpp:425] inception_3a/output <- inception_3a/1x1
I0403 14:32:44.168824 29936 net.cpp:425] inception_3a/output <- inception_3a/3x3
I0403 14:32:44.168843 29936 net.cpp:425] inception_3a/output <- inception_3a/5x5
I0403 14:32:44.168860 29936 net.cpp:425] inception_3a/output <- inception_3a/pool_proj
I0403 14:32:44.168879 29936 net.cpp:399] inception_3a/output -> inception_3a/output
I0403 14:32:44.168931 29936 net.cpp:141] Setting up inception_3a/output
I0403 14:32:44.168957 29936 net.cpp:148] Top shape: 24 256 28 28 (4816896)
I0403 14:32:44.168973 29936 net.cpp:156] Memory required for data: 580437024
I0403 14:32:44.168989 29936 layer_factory.hpp:77] Creating layer inception_3a/output_inception_3a/output_0_split
I0403 14:32:44.169011 29936 net.cpp:91] Creating Layer inception_3a/output_inception_3a/output_0_split
I0403 14:32:44.169029 29936 net.cpp:425] inception_3a/output_inception_3a/output_0_split <- inception_3a/output
I0403 14:32:44.169049 29936 net.cpp:399] inception_3a/output_inception_3a/output_0_split -> inception_3a/output_inception_3a/output_0_split_0
I0403 14:32:44.169071 29936 net.cpp:399] inception_3a/output_inception_3a/output_0_split -> inception_3a/output_inception_3a/output_0_split_1
I0403 14:32:44.169097 29936 net.cpp:399] inception_3a/output_inception_3a/output_0_split -> inception_3a/output_inception_3a/output_0_split_2
I0403 14:32:44.169121 29936 net.cpp:399] inception_3a/output_inception_3a/output_0_split -> inception_3a/output_inception_3a/output_0_split_3
I0403 14:32:44.169201 29936 net.cpp:141] Setting up inception_3a/output_inception_3a/output_0_split
I0403 14:32:44.169239 29936 net.cpp:148] Top shape: 24 256 28 28 (4816896)
I0403 14:32:44.169258 29936 net.cpp:148] Top shape: 24 256 28 28 (4816896)
I0403 14:32:44.169275 29936 net.cpp:148] Top shape: 24 256 28 28 (4816896)
I0403 14:32:44.169292 29936 net.cpp:148] Top shape: 24 256 28 28 (4816896)
I0403 14:32:44.169308 29936 net.cpp:156] Memory required for data: 657507360
I0403 14:32:44.169324 29936 layer_factory.hpp:77] Creating layer inception_3b/1x1
I0403 14:32:44.169353 29936 net.cpp:91] Creating Layer inception_3b/1x1
I0403 14:32:44.169375 29936 net.cpp:425] inception_3b/1x1 <- inception_3a/output_inception_3a/output_0_split_0
I0403 14:32:44.169409 29936 net.cpp:399] inception_3b/1x1 -> inception_3b/1x1
I0403 14:32:44.170609 29936 net.cpp:141] Setting up inception_3b/1x1
I0403 14:32:44.170651 29936 net.cpp:148] Top shape: 24 128 28 28 (2408448)
I0403 14:32:44.170670 29936 net.cpp:156] Memory required for data: 667141152
I0403 14:32:44.170689 29936 layer_factory.hpp:77] Creating layer inception_3b/relu_1x1
I0403 14:32:44.170711 29936 net.cpp:91] Creating Layer inception_3b/relu_1x1
I0403 14:32:44.170730 29936 net.cpp:425] inception_3b/relu_1x1 <- inception_3b/1x1
I0403 14:32:44.170750 29936 net.cpp:386] inception_3b/relu_1x1 -> inception_3b/1x1 (in-place)
I0403 14:32:44.170925 29936 net.cpp:141] Setting up inception_3b/relu_1x1
I0403 14:32:44.170956 29936 net.cpp:148] Top shape: 24 128 28 28 (2408448)
I0403 14:32:44.170974 29936 net.cpp:156] Memory required for data: 676774944
I0403 14:32:44.170990 29936 layer_factory.hpp:77] Creating layer inception_3b/3x3_reduce
I0403 14:32:44.171015 29936 net.cpp:91] Creating Layer inception_3b/3x3_reduce
I0403 14:32:44.171033 29936 net.cpp:425] inception_3b/3x3_reduce <- inception_3a/output_inception_3a/output_0_split_1
I0403 14:32:44.171053 29936 net.cpp:399] inception_3b/3x3_reduce -> inception_3b/3x3_reduce
I0403 14:32:44.172205 29936 net.cpp:141] Setting up inception_3b/3x3_reduce
I0403 14:32:44.172235 29936 net.cpp:148] Top shape: 24 128 28 28 (2408448)
I0403 14:32:44.172251 29936 net.cpp:156] Memory required for data: 686408736
I0403 14:32:44.172271 29936 layer_factory.hpp:77] Creating layer inception_3b/relu_3x3_reduce
I0403 14:32:44.172292 29936 net.cpp:91] Creating Layer inception_3b/relu_3x3_reduce
I0403 14:32:44.172322 29936 net.cpp:425] inception_3b/relu_3x3_reduce <- inception_3b/3x3_reduce
I0403 14:32:44.172343 29936 net.cpp:386] inception_3b/relu_3x3_reduce -> inception_3b/3x3_reduce (in-place)
I0403 14:32:44.172529 29936 net.cpp:141] Setting up inception_3b/relu_3x3_reduce
I0403 14:32:44.172560 29936 net.cpp:148] Top shape: 24 128 28 28 (2408448)
I0403 14:32:44.172577 29936 net.cpp:156] Memory required for data: 696042528
I0403 14:32:44.172605 29936 layer_factory.hpp:77] Creating layer inception_3b/3x3
I0403 14:32:44.172631 29936 net.cpp:91] Creating Layer inception_3b/3x3
I0403 14:32:44.172652 29936 net.cpp:425] inception_3b/3x3 <- inception_3b/3x3_reduce
I0403 14:32:44.172675 29936 net.cpp:399] inception_3b/3x3 -> inception_3b/3x3
I0403 14:32:44.175648 29936 net.cpp:141] Setting up inception_3b/3x3
I0403 14:32:44.175683 29936 net.cpp:148] Top shape: 24 192 28 28 (3612672)
I0403 14:32:44.175701 29936 net.cpp:156] Memory required for data: 710493216
I0403 14:32:44.175722 29936 layer_factory.hpp:77] Creating layer inception_3b/relu_3x3
I0403 14:32:44.175741 29936 net.cpp:91] Creating Layer inception_3b/relu_3x3
I0403 14:32:44.175760 29936 net.cpp:425] inception_3b/relu_3x3 <- inception_3b/3x3
I0403 14:32:44.175779 29936 net.cpp:386] inception_3b/relu_3x3 -> inception_3b/3x3 (in-place)
I0403 14:32:44.176062 29936 net.cpp:141] Setting up inception_3b/relu_3x3
I0403 14:32:44.176093 29936 net.cpp:148] Top shape: 24 192 28 28 (3612672)
I0403 14:32:44.176110 29936 net.cpp:156] Memory required for data: 724943904
I0403 14:32:44.176127 29936 layer_factory.hpp:77] Creating layer inception_3b/5x5_reduce
I0403 14:32:44.176151 29936 net.cpp:91] Creating Layer inception_3b/5x5_reduce
I0403 14:32:44.176170 29936 net.cpp:425] inception_3b/5x5_reduce <- inception_3a/output_inception_3a/output_0_split_2
I0403 14:32:44.176192 29936 net.cpp:399] inception_3b/5x5_reduce -> inception_3b/5x5_reduce
I0403 14:32:44.177263 29936 net.cpp:141] Setting up inception_3b/5x5_reduce
I0403 14:32:44.177294 29936 net.cpp:148] Top shape: 24 32 28 28 (602112)
I0403 14:32:44.177312 29936 net.cpp:156] Memory required for data: 727352352
I0403 14:32:44.177332 29936 layer_factory.hpp:77] Creating layer inception_3b/relu_5x5_reduce
I0403 14:32:44.177356 29936 net.cpp:91] Creating Layer inception_3b/relu_5x5_reduce
I0403 14:32:44.177376 29936 net.cpp:425] inception_3b/relu_5x5_reduce <- inception_3b/5x5_reduce
I0403 14:32:44.177395 29936 net.cpp:386] inception_3b/relu_5x5_reduce -> inception_3b/5x5_reduce (in-place)
I0403 14:32:44.177573 29936 net.cpp:141] Setting up inception_3b/relu_5x5_reduce
I0403 14:32:44.177616 29936 net.cpp:148] Top shape: 24 32 28 28 (602112)
I0403 14:32:44.177634 29936 net.cpp:156] Memory required for data: 729760800
I0403 14:32:44.177650 29936 layer_factory.hpp:77] Creating layer inception_3b/5x5
I0403 14:32:44.177675 29936 net.cpp:91] Creating Layer inception_3b/5x5
I0403 14:32:44.177692 29936 net.cpp:425] inception_3b/5x5 <- inception_3b/5x5_reduce
I0403 14:32:44.177712 29936 net.cpp:399] inception_3b/5x5 -> inception_3b/5x5
I0403 14:32:44.179749 29936 net.cpp:141] Setting up inception_3b/5x5
I0403 14:32:44.179785 29936 net.cpp:148] Top shape: 24 96 28 28 (1806336)
I0403 14:32:44.179801 29936 net.cpp:156] Memory required for data: 736986144
I0403 14:32:44.179822 29936 layer_factory.hpp:77] Creating layer inception_3b/relu_5x5
I0403 14:32:44.179844 29936 net.cpp:91] Creating Layer inception_3b/relu_5x5
I0403 14:32:44.179862 29936 net.cpp:425] inception_3b/relu_5x5 <- inception_3b/5x5
I0403 14:32:44.179883 29936 net.cpp:386] inception_3b/relu_5x5 -> inception_3b/5x5 (in-place)
I0403 14:32:44.180078 29936 net.cpp:141] Setting up inception_3b/relu_5x5
I0403 14:32:44.180111 29936 net.cpp:148] Top shape: 24 96 28 28 (1806336)
I0403 14:32:44.180129 29936 net.cpp:156] Memory required for data: 744211488
I0403 14:32:44.180145 29936 layer_factory.hpp:77] Creating layer inception_3b/pool
I0403 14:32:44.180163 29936 net.cpp:91] Creating Layer inception_3b/pool
I0403 14:32:44.180181 29936 net.cpp:425] inception_3b/pool <- inception_3a/output_inception_3a/output_0_split_3
I0403 14:32:44.180202 29936 net.cpp:399] inception_3b/pool -> inception_3b/pool
I0403 14:32:44.180260 29936 net.cpp:141] Setting up inception_3b/pool
I0403 14:32:44.180286 29936 net.cpp:148] Top shape: 24 256 28 28 (4816896)
I0403 14:32:44.180315 29936 net.cpp:156] Memory required for data: 763479072
I0403 14:32:44.180330 29936 layer_factory.hpp:77] Creating layer inception_3b/pool_proj
I0403 14:32:44.180359 29936 net.cpp:91] Creating Layer inception_3b/pool_proj
I0403 14:32:44.180382 29936 net.cpp:425] inception_3b/pool_proj <- inception_3b/pool
I0403 14:32:44.180405 29936 net.cpp:399] inception_3b/pool_proj -> inception_3b/pool_proj
I0403 14:32:44.181509 29936 net.cpp:141] Setting up inception_3b/pool_proj
I0403 14:32:44.181538 29936 net.cpp:148] Top shape: 24 64 28 28 (1204224)
I0403 14:32:44.181555 29936 net.cpp:156] Memory required for data: 768295968
I0403 14:32:44.181576 29936 layer_factory.hpp:77] Creating layer inception_3b/relu_pool_proj
I0403 14:32:44.181596 29936 net.cpp:91] Creating Layer inception_3b/relu_pool_proj
I0403 14:32:44.181612 29936 net.cpp:425] inception_3b/relu_pool_proj <- inception_3b/pool_proj
I0403 14:32:44.181634 29936 net.cpp:386] inception_3b/relu_pool_proj -> inception_3b/pool_proj (in-place)
I0403 14:32:44.182040 29936 net.cpp:141] Setting up inception_3b/relu_pool_proj
I0403 14:32:44.182070 29936 net.cpp:148] Top shape: 24 64 28 28 (1204224)
I0403 14:32:44.182087 29936 net.cpp:156] Memory required for data: 773112864
I0403 14:32:44.182103 29936 layer_factory.hpp:77] Creating layer inception_3b/output
I0403 14:32:44.182122 29936 net.cpp:91] Creating Layer inception_3b/output
I0403 14:32:44.182138 29936 net.cpp:425] inception_3b/output <- inception_3b/1x1
I0403 14:32:44.182157 29936 net.cpp:425] inception_3b/output <- inception_3b/3x3
I0403 14:32:44.182174 29936 net.cpp:425] inception_3b/output <- inception_3b/5x5
I0403 14:32:44.182191 29936 net.cpp:425] inception_3b/output <- inception_3b/pool_proj
I0403 14:32:44.182210 29936 net.cpp:399] inception_3b/output -> inception_3b/output
I0403 14:32:44.182258 29936 net.cpp:141] Setting up inception_3b/output
I0403 14:32:44.182283 29936 net.cpp:148] Top shape: 24 480 28 28 (9031680)
I0403 14:32:44.182299 29936 net.cpp:156] Memory required for data: 809239584
I0403 14:32:44.182314 29936 layer_factory.hpp:77] Creating layer pool3/3x3_s2
I0403 14:32:44.182335 29936 net.cpp:91] Creating Layer pool3/3x3_s2
I0403 14:32:44.182356 29936 net.cpp:425] pool3/3x3_s2 <- inception_3b/output
I0403 14:32:44.182377 29936 net.cpp:399] pool3/3x3_s2 -> pool3/3x3_s2
I0403 14:32:44.182454 29936 net.cpp:141] Setting up pool3/3x3_s2
I0403 14:32:44.182481 29936 net.cpp:148] Top shape: 24 480 14 14 (2257920)
I0403 14:32:44.182497 29936 net.cpp:156] Memory required for data: 818271264
I0403 14:32:44.182513 29936 layer_factory.hpp:77] Creating layer pool3/3x3_s2_pool3/3x3_s2_0_split
I0403 14:32:44.182533 29936 net.cpp:91] Creating Layer pool3/3x3_s2_pool3/3x3_s2_0_split
I0403 14:32:44.182549 29936 net.cpp:425] pool3/3x3_s2_pool3/3x3_s2_0_split <- pool3/3x3_s2
I0403 14:32:44.182569 29936 net.cpp:399] pool3/3x3_s2_pool3/3x3_s2_0_split -> pool3/3x3_s2_pool3/3x3_s2_0_split_0
I0403 14:32:44.182592 29936 net.cpp:399] pool3/3x3_s2_pool3/3x3_s2_0_split -> pool3/3x3_s2_pool3/3x3_s2_0_split_1
I0403 14:32:44.182615 29936 net.cpp:399] pool3/3x3_s2_pool3/3x3_s2_0_split -> pool3/3x3_s2_pool3/3x3_s2_0_split_2
I0403 14:32:44.182636 29936 net.cpp:399] pool3/3x3_s2_pool3/3x3_s2_0_split -> pool3/3x3_s2_pool3/3x3_s2_0_split_3
I0403 14:32:44.182715 29936 net.cpp:141] Setting up pool3/3x3_s2_pool3/3x3_s2_0_split
I0403 14:32:44.182741 29936 net.cpp:148] Top shape: 24 480 14 14 (2257920)
I0403 14:32:44.182760 29936 net.cpp:148] Top shape: 24 480 14 14 (2257920)
I0403 14:32:44.182775 29936 net.cpp:148] Top shape: 24 480 14 14 (2257920)
I0403 14:32:44.182792 29936 net.cpp:148] Top shape: 24 480 14 14 (2257920)
I0403 14:32:44.182807 29936 net.cpp:156] Memory required for data: 854397984
I0403 14:32:44.182822 29936 layer_factory.hpp:77] Creating layer inception_4a/1x1
I0403 14:32:44.182847 29936 net.cpp:91] Creating Layer inception_4a/1x1
I0403 14:32:44.182865 29936 net.cpp:425] inception_4a/1x1 <- pool3/3x3_s2_pool3/3x3_s2_0_split_0
I0403 14:32:44.182888 29936 net.cpp:399] inception_4a/1x1 -> inception_4a/1x1
I0403 14:32:44.184519 29936 net.cpp:141] Setting up inception_4a/1x1
I0403 14:32:44.184552 29936 net.cpp:148] Top shape: 24 192 14 14 (903168)
I0403 14:32:44.184568 29936 net.cpp:156] Memory required for data: 858010656
I0403 14:32:44.184602 29936 layer_factory.hpp:77] Creating layer inception_4a/relu_1x1
I0403 14:32:44.184623 29936 net.cpp:91] Creating Layer inception_4a/relu_1x1
I0403 14:32:44.184641 29936 net.cpp:425] inception_4a/relu_1x1 <- inception_4a/1x1
I0403 14:32:44.184665 29936 net.cpp:386] inception_4a/relu_1x1 -> inception_4a/1x1 (in-place)
I0403 14:32:44.184844 29936 net.cpp:141] Setting up inception_4a/relu_1x1
I0403 14:32:44.184871 29936 net.cpp:148] Top shape: 24 192 14 14 (903168)
I0403 14:32:44.184887 29936 net.cpp:156] Memory required for data: 861623328
I0403 14:32:44.184902 29936 layer_factory.hpp:77] Creating layer inception_4a/3x3_reduce
I0403 14:32:44.184927 29936 net.cpp:91] Creating Layer inception_4a/3x3_reduce
I0403 14:32:44.184945 29936 net.cpp:425] inception_4a/3x3_reduce <- pool3/3x3_s2_pool3/3x3_s2_0_split_1
I0403 14:32:44.184968 29936 net.cpp:399] inception_4a/3x3_reduce -> inception_4a/3x3_reduce
I0403 14:32:44.186269 29936 net.cpp:141] Setting up inception_4a/3x3_reduce
I0403 14:32:44.186300 29936 net.cpp:148] Top shape: 24 96 14 14 (451584)
I0403 14:32:44.186316 29936 net.cpp:156] Memory required for data: 863429664
I0403 14:32:44.186343 29936 layer_factory.hpp:77] Creating layer inception_4a/relu_3x3_reduce
I0403 14:32:44.186370 29936 net.cpp:91] Creating Layer inception_4a/relu_3x3_reduce
I0403 14:32:44.186388 29936 net.cpp:425] inception_4a/relu_3x3_reduce <- inception_4a/3x3_reduce
I0403 14:32:44.186409 29936 net.cpp:386] inception_4a/relu_3x3_reduce -> inception_4a/3x3_reduce (in-place)
I0403 14:32:44.186589 29936 net.cpp:141] Setting up inception_4a/relu_3x3_reduce
I0403 14:32:44.186616 29936 net.cpp:148] Top shape: 24 96 14 14 (451584)
I0403 14:32:44.186632 29936 net.cpp:156] Memory required for data: 865236000
I0403 14:32:44.186648 29936 layer_factory.hpp:77] Creating layer inception_4a/3x3
I0403 14:32:44.186672 29936 net.cpp:91] Creating Layer inception_4a/3x3
I0403 14:32:44.186691 29936 net.cpp:425] inception_4a/3x3 <- inception_4a/3x3_reduce
I0403 14:32:44.186714 29936 net.cpp:399] inception_4a/3x3 -> inception_4a/3x3
I0403 14:32:44.189472 29936 net.cpp:141] Setting up inception_4a/3x3
I0403 14:32:44.189503 29936 net.cpp:148] Top shape: 24 208 14 14 (978432)
I0403 14:32:44.189520 29936 net.cpp:156] Memory required for data: 869149728
I0403 14:32:44.189540 29936 layer_factory.hpp:77] Creating layer inception_4a/relu_3x3
I0403 14:32:44.189563 29936 net.cpp:91] Creating Layer inception_4a/relu_3x3
I0403 14:32:44.189581 29936 net.cpp:425] inception_4a/relu_3x3 <- inception_4a/3x3
I0403 14:32:44.189601 29936 net.cpp:386] inception_4a/relu_3x3 -> inception_4a/3x3 (in-place)
I0403 14:32:44.189882 29936 net.cpp:141] Setting up inception_4a/relu_3x3
I0403 14:32:44.189911 29936 net.cpp:148] Top shape: 24 208 14 14 (978432)
I0403 14:32:44.189927 29936 net.cpp:156] Memory required for data: 873063456
I0403 14:32:44.189944 29936 layer_factory.hpp:77] Creating layer inception_4a/5x5_reduce
I0403 14:32:44.189967 29936 net.cpp:91] Creating Layer inception_4a/5x5_reduce
I0403 14:32:44.189990 29936 net.cpp:425] inception_4a/5x5_reduce <- pool3/3x3_s2_pool3/3x3_s2_0_split_2
I0403 14:32:44.190012 29936 net.cpp:399] inception_4a/5x5_reduce -> inception_4a/5x5_reduce
I0403 14:32:44.191051 29936 net.cpp:141] Setting up inception_4a/5x5_reduce
I0403 14:32:44.191082 29936 net.cpp:148] Top shape: 24 16 14 14 (75264)
I0403 14:32:44.191098 29936 net.cpp:156] Memory required for data: 873364512
I0403 14:32:44.191118 29936 layer_factory.hpp:77] Creating layer inception_4a/relu_5x5_reduce
I0403 14:32:44.191141 29936 net.cpp:91] Creating Layer inception_4a/relu_5x5_reduce
I0403 14:32:44.191159 29936 net.cpp:425] inception_4a/relu_5x5_reduce <- inception_4a/5x5_reduce
I0403 14:32:44.191177 29936 net.cpp:386] inception_4a/relu_5x5_reduce -> inception_4a/5x5_reduce (in-place)
I0403 14:32:44.191366 29936 net.cpp:141] Setting up inception_4a/relu_5x5_reduce
I0403 14:32:44.191395 29936 net.cpp:148] Top shape: 24 16 14 14 (75264)
I0403 14:32:44.191412 29936 net.cpp:156] Memory required for data: 873665568
I0403 14:32:44.191429 29936 layer_factory.hpp:77] Creating layer inception_4a/5x5
I0403 14:32:44.191452 29936 net.cpp:91] Creating Layer inception_4a/5x5
I0403 14:32:44.191473 29936 net.cpp:425] inception_4a/5x5 <- inception_4a/5x5_reduce
I0403 14:32:44.191493 29936 net.cpp:399] inception_4a/5x5 -> inception_4a/5x5
I0403 14:32:44.192627 29936 net.cpp:141] Setting up inception_4a/5x5
I0403 14:32:44.192657 29936 net.cpp:148] Top shape: 24 48 14 14 (225792)
I0403 14:32:44.192675 29936 net.cpp:156] Memory required for data: 874568736
I0403 14:32:44.192708 29936 layer_factory.hpp:77] Creating layer inception_4a/relu_5x5
I0403 14:32:44.192728 29936 net.cpp:91] Creating Layer inception_4a/relu_5x5
I0403 14:32:44.192744 29936 net.cpp:425] inception_4a/relu_5x5 <- inception_4a/5x5
I0403 14:32:44.192766 29936 net.cpp:386] inception_4a/relu_5x5 -> inception_4a/5x5 (in-place)
I0403 14:32:44.192951 29936 net.cpp:141] Setting up inception_4a/relu_5x5
I0403 14:32:44.192978 29936 net.cpp:148] Top shape: 24 48 14 14 (225792)
I0403 14:32:44.192994 29936 net.cpp:156] Memory required for data: 875471904
I0403 14:32:44.193011 29936 layer_factory.hpp:77] Creating layer inception_4a/pool
I0403 14:32:44.193032 29936 net.cpp:91] Creating Layer inception_4a/pool
I0403 14:32:44.193049 29936 net.cpp:425] inception_4a/pool <- pool3/3x3_s2_pool3/3x3_s2_0_split_3
I0403 14:32:44.193068 29936 net.cpp:399] inception_4a/pool -> inception_4a/pool
I0403 14:32:44.193133 29936 net.cpp:141] Setting up inception_4a/pool
I0403 14:32:44.193159 29936 net.cpp:148] Top shape: 24 480 14 14 (2257920)
I0403 14:32:44.193176 29936 net.cpp:156] Memory required for data: 884503584
I0403 14:32:44.193192 29936 layer_factory.hpp:77] Creating layer inception_4a/pool_proj
I0403 14:32:44.193215 29936 net.cpp:91] Creating Layer inception_4a/pool_proj
I0403 14:32:44.193233 29936 net.cpp:425] inception_4a/pool_proj <- inception_4a/pool
I0403 14:32:44.193256 29936 net.cpp:399] inception_4a/pool_proj -> inception_4a/pool_proj
I0403 14:32:44.194468 29936 net.cpp:141] Setting up inception_4a/pool_proj
I0403 14:32:44.194499 29936 net.cpp:148] Top shape: 24 64 14 14 (301056)
I0403 14:32:44.194530 29936 net.cpp:156] Memory required for data: 885707808
I0403 14:32:44.194552 29936 layer_factory.hpp:77] Creating layer inception_4a/relu_pool_proj
I0403 14:32:44.194571 29936 net.cpp:91] Creating Layer inception_4a/relu_pool_proj
I0403 14:32:44.194588 29936 net.cpp:425] inception_4a/relu_pool_proj <- inception_4a/pool_proj
I0403 14:32:44.194612 29936 net.cpp:386] inception_4a/relu_pool_proj -> inception_4a/pool_proj (in-place)
I0403 14:32:44.194905 29936 net.cpp:141] Setting up inception_4a/relu_pool_proj
I0403 14:32:44.194941 29936 net.cpp:148] Top shape: 24 64 14 14 (301056)
I0403 14:32:44.194959 29936 net.cpp:156] Memory required for data: 886912032
I0403 14:32:44.194977 29936 layer_factory.hpp:77] Creating layer inception_4a/output
I0403 14:32:44.194994 29936 net.cpp:91] Creating Layer inception_4a/output
I0403 14:32:44.195010 29936 net.cpp:425] inception_4a/output <- inception_4a/1x1
I0403 14:32:44.195029 29936 net.cpp:425] inception_4a/output <- inception_4a/3x3
I0403 14:32:44.195046 29936 net.cpp:425] inception_4a/output <- inception_4a/5x5
I0403 14:32:44.195065 29936 net.cpp:425] inception_4a/output <- inception_4a/pool_proj
I0403 14:32:44.195085 29936 net.cpp:399] inception_4a/output -> inception_4a/output
I0403 14:32:44.195133 29936 net.cpp:141] Setting up inception_4a/output
I0403 14:32:44.195160 29936 net.cpp:148] Top shape: 24 512 14 14 (2408448)
I0403 14:32:44.195178 29936 net.cpp:156] Memory required for data: 896545824
I0403 14:32:44.195194 29936 layer_factory.hpp:77] Creating layer inception_4a/output_inception_4a/output_0_split
I0403 14:32:44.195212 29936 net.cpp:91] Creating Layer inception_4a/output_inception_4a/output_0_split
I0403 14:32:44.195230 29936 net.cpp:425] inception_4a/output_inception_4a/output_0_split <- inception_4a/output
I0403 14:32:44.195250 29936 net.cpp:399] inception_4a/output_inception_4a/output_0_split -> inception_4a/output_inception_4a/output_0_split_0
I0403 14:32:44.195273 29936 net.cpp:399] inception_4a/output_inception_4a/output_0_split -> inception_4a/output_inception_4a/output_0_split_1
I0403 14:32:44.195297 29936 net.cpp:399] inception_4a/output_inception_4a/output_0_split -> inception_4a/output_inception_4a/output_0_split_2
I0403 14:32:44.195319 29936 net.cpp:399] inception_4a/output_inception_4a/output_0_split -> inception_4a/output_inception_4a/output_0_split_3
I0403 14:32:44.195339 29936 net.cpp:399] inception_4a/output_inception_4a/output_0_split -> inception_4a/output_inception_4a/output_0_split_4
I0403 14:32:44.195453 29936 net.cpp:141] Setting up inception_4a/output_inception_4a/output_0_split
I0403 14:32:44.195480 29936 net.cpp:148] Top shape: 24 512 14 14 (2408448)
I0403 14:32:44.195500 29936 net.cpp:148] Top shape: 24 512 14 14 (2408448)
I0403 14:32:44.195518 29936 net.cpp:148] Top shape: 24 512 14 14 (2408448)
I0403 14:32:44.195547 29936 net.cpp:148] Top shape: 24 512 14 14 (2408448)
I0403 14:32:44.195564 29936 net.cpp:148] Top shape: 24 512 14 14 (2408448)
I0403 14:32:44.195579 29936 net.cpp:156] Memory required for data: 944714784
I0403 14:32:44.195595 29936 layer_factory.hpp:77] Creating layer loss1/ave_pool
I0403 14:32:44.195613 29936 net.cpp:91] Creating Layer loss1/ave_pool
I0403 14:32:44.195631 29936 net.cpp:425] loss1/ave_pool <- inception_4a/output_inception_4a/output_0_split_0
I0403 14:32:44.195652 29936 net.cpp:399] loss1/ave_pool -> loss1/ave_pool
I0403 14:32:44.195883 29936 net.cpp:141] Setting up loss1/ave_pool
I0403 14:32:44.195909 29936 net.cpp:148] Top shape: 24 512 4 4 (196608)
I0403 14:32:44.195926 29936 net.cpp:156] Memory required for data: 945501216
I0403 14:32:44.195942 29936 layer_factory.hpp:77] Creating layer loss1/conv
I0403 14:32:44.195966 29936 net.cpp:91] Creating Layer loss1/conv
I0403 14:32:44.195984 29936 net.cpp:425] loss1/conv <- loss1/ave_pool
I0403 14:32:44.196007 29936 net.cpp:399] loss1/conv -> loss1/conv
I0403 14:32:44.197499 29936 net.cpp:141] Setting up loss1/conv
I0403 14:32:44.197530 29936 net.cpp:148] Top shape: 24 128 4 4 (49152)
I0403 14:32:44.197546 29936 net.cpp:156] Memory required for data: 945697824
I0403 14:32:44.197581 29936 layer_factory.hpp:77] Creating layer loss1/relu_conv
I0403 14:32:44.197604 29936 net.cpp:91] Creating Layer loss1/relu_conv
I0403 14:32:44.197623 29936 net.cpp:425] loss1/relu_conv <- loss1/conv
I0403 14:32:44.197643 29936 net.cpp:386] loss1/relu_conv -> loss1/conv (in-place)
I0403 14:32:44.197937 29936 net.cpp:141] Setting up loss1/relu_conv
I0403 14:32:44.197964 29936 net.cpp:148] Top shape: 24 128 4 4 (49152)
I0403 14:32:44.197981 29936 net.cpp:156] Memory required for data: 945894432
I0403 14:32:44.197998 29936 layer_factory.hpp:77] Creating layer loss1/fc
I0403 14:32:44.198026 29936 net.cpp:91] Creating Layer loss1/fc
I0403 14:32:44.198046 29936 net.cpp:425] loss1/fc <- loss1/conv
I0403 14:32:44.198066 29936 net.cpp:399] loss1/fc -> loss1/fc
I0403 14:32:44.216253 29936 net.cpp:141] Setting up loss1/fc
I0403 14:32:44.216303 29936 net.cpp:148] Top shape: 24 1024 (24576)
I0403 14:32:44.216321 29936 net.cpp:156] Memory required for data: 945992736
I0403 14:32:44.216342 29936 layer_factory.hpp:77] Creating layer loss1/relu_fc
I0403 14:32:44.216367 29936 net.cpp:91] Creating Layer loss1/relu_fc
I0403 14:32:44.216394 29936 net.cpp:425] loss1/relu_fc <- loss1/fc
I0403 14:32:44.216418 29936 net.cpp:386] loss1/relu_fc -> loss1/fc (in-place)
I0403 14:32:44.216626 29936 net.cpp:141] Setting up loss1/relu_fc
I0403 14:32:44.216653 29936 net.cpp:148] Top shape: 24 1024 (24576)
I0403 14:32:44.216670 29936 net.cpp:156] Memory required for data: 946091040
I0403 14:32:44.216686 29936 layer_factory.hpp:77] Creating layer loss1/drop_fc
I0403 14:32:44.216717 29936 net.cpp:91] Creating Layer loss1/drop_fc
I0403 14:32:44.216737 29936 net.cpp:425] loss1/drop_fc <- loss1/fc
I0403 14:32:44.216764 29936 net.cpp:386] loss1/drop_fc -> loss1/fc (in-place)
I0403 14:32:44.216819 29936 net.cpp:141] Setting up loss1/drop_fc
I0403 14:32:44.216846 29936 net.cpp:148] Top shape: 24 1024 (24576)
I0403 14:32:44.216863 29936 net.cpp:156] Memory required for data: 946189344
I0403 14:32:44.216881 29936 layer_factory.hpp:77] Creating layer loss1/classifier_plantvillage
I0403 14:32:44.216902 29936 net.cpp:91] Creating Layer loss1/classifier_plantvillage
I0403 14:32:44.216917 29936 net.cpp:425] loss1/classifier_plantvillage <- loss1/fc
I0403 14:32:44.216938 29936 net.cpp:399] loss1/classifier_plantvillage -> loss1/classifier_plantvillage
I0403 14:32:44.217886 29936 net.cpp:141] Setting up loss1/classifier_plantvillage
I0403 14:32:44.217916 29936 net.cpp:148] Top shape: 24 38 (912)
I0403 14:32:44.217932 29936 net.cpp:156] Memory required for data: 946192992
I0403 14:32:44.217952 29936 layer_factory.hpp:77] Creating layer loss1/classifier_plantvillage_loss1/classifier_plantvillage_0_split
I0403 14:32:44.217973 29936 net.cpp:91] Creating Layer loss1/classifier_plantvillage_loss1/classifier_plantvillage_0_split
I0403 14:32:44.217990 29936 net.cpp:425] loss1/classifier_plantvillage_loss1/classifier_plantvillage_0_split <- loss1/classifier_plantvillage
I0403 14:32:44.218009 29936 net.cpp:399] loss1/classifier_plantvillage_loss1/classifier_plantvillage_0_split -> loss1/classifier_plantvillage_loss1/classifier_plantvillage_0_split_0
I0403 14:32:44.218031 29936 net.cpp:399] loss1/classifier_plantvillage_loss1/classifier_plantvillage_0_split -> loss1/classifier_plantvillage_loss1/classifier_plantvillage_0_split_1
I0403 14:32:44.218052 29936 net.cpp:399] loss1/classifier_plantvillage_loss1/classifier_plantvillage_0_split -> loss1/classifier_plantvillage_loss1/classifier_plantvillage_0_split_2
I0403 14:32:44.218119 29936 net.cpp:141] Setting up loss1/classifier_plantvillage_loss1/classifier_plantvillage_0_split
I0403 14:32:44.218145 29936 net.cpp:148] Top shape: 24 38 (912)
I0403 14:32:44.218163 29936 net.cpp:148] Top shape: 24 38 (912)
I0403 14:32:44.218180 29936 net.cpp:148] Top shape: 24 38 (912)
I0403 14:32:44.218194 29936 net.cpp:156] Memory required for data: 946203936
I0403 14:32:44.218210 29936 layer_factory.hpp:77] Creating layer inception_4b/1x1
I0403 14:32:44.218232 29936 net.cpp:91] Creating Layer inception_4b/1x1
I0403 14:32:44.218272 29936 net.cpp:425] inception_4b/1x1 <- inception_4a/output_inception_4a/output_0_split_1
I0403 14:32:44.218297 29936 net.cpp:399] inception_4b/1x1 -> inception_4b/1x1
I0403 14:32:44.219965 29936 net.cpp:141] Setting up inception_4b/1x1
I0403 14:32:44.219995 29936 net.cpp:148] Top shape: 24 160 14 14 (752640)
I0403 14:32:44.220012 29936 net.cpp:156] Memory required for data: 949214496
I0403 14:32:44.220031 29936 layer_factory.hpp:77] Creating layer inception_4b/relu_1x1
I0403 14:32:44.220053 29936 net.cpp:91] Creating Layer inception_4b/relu_1x1
I0403 14:32:44.220072 29936 net.cpp:425] inception_4b/relu_1x1 <- inception_4b/1x1
I0403 14:32:44.220090 29936 net.cpp:386] inception_4b/relu_1x1 -> inception_4b/1x1 (in-place)
I0403 14:32:44.220271 29936 net.cpp:141] Setting up inception_4b/relu_1x1
I0403 14:32:44.220314 29936 net.cpp:148] Top shape: 24 160 14 14 (752640)
I0403 14:32:44.220330 29936 net.cpp:156] Memory required for data: 952225056
I0403 14:32:44.220350 29936 layer_factory.hpp:77] Creating layer inception_4b/3x3_reduce
I0403 14:32:44.220376 29936 net.cpp:91] Creating Layer inception_4b/3x3_reduce
I0403 14:32:44.220396 29936 net.cpp:425] inception_4b/3x3_reduce <- inception_4a/output_inception_4a/output_0_split_2
I0403 14:32:44.220417 29936 net.cpp:399] inception_4b/3x3_reduce -> inception_4b/3x3_reduce
I0403 14:32:44.221778 29936 net.cpp:141] Setting up inception_4b/3x3_reduce
I0403 14:32:44.221809 29936 net.cpp:148] Top shape: 24 112 14 14 (526848)
I0403 14:32:44.221827 29936 net.cpp:156] Memory required for data: 954332448
I0403 14:32:44.221848 29936 layer_factory.hpp:77] Creating layer inception_4b/relu_3x3_reduce
I0403 14:32:44.221868 29936 net.cpp:91] Creating Layer inception_4b/relu_3x3_reduce
I0403 14:32:44.221884 29936 net.cpp:425] inception_4b/relu_3x3_reduce <- inception_4b/3x3_reduce
I0403 14:32:44.221905 29936 net.cpp:386] inception_4b/relu_3x3_reduce -> inception_4b/3x3_reduce (in-place)
I0403 14:32:44.222187 29936 net.cpp:141] Setting up inception_4b/relu_3x3_reduce
I0403 14:32:44.222216 29936 net.cpp:148] Top shape: 24 112 14 14 (526848)
I0403 14:32:44.222232 29936 net.cpp:156] Memory required for data: 956439840
I0403 14:32:44.222249 29936 layer_factory.hpp:77] Creating layer inception_4b/3x3
I0403 14:32:44.222272 29936 net.cpp:91] Creating Layer inception_4b/3x3
I0403 14:32:44.222290 29936 net.cpp:425] inception_4b/3x3 <- inception_4b/3x3_reduce
I0403 14:32:44.222311 29936 net.cpp:399] inception_4b/3x3 -> inception_4b/3x3
I0403 14:32:44.225267 29936 net.cpp:141] Setting up inception_4b/3x3
I0403 14:32:44.225298 29936 net.cpp:148] Top shape: 24 224 14 14 (1053696)
I0403 14:32:44.225314 29936 net.cpp:156] Memory required for data: 960654624
I0403 14:32:44.225335 29936 layer_factory.hpp:77] Creating layer inception_4b/relu_3x3
I0403 14:32:44.225363 29936 net.cpp:91] Creating Layer inception_4b/relu_3x3
I0403 14:32:44.225383 29936 net.cpp:425] inception_4b/relu_3x3 <- inception_4b/3x3
I0403 14:32:44.225401 29936 net.cpp:386] inception_4b/relu_3x3 -> inception_4b/3x3 (in-place)
I0403 14:32:44.225580 29936 net.cpp:141] Setting up inception_4b/relu_3x3
I0403 14:32:44.225606 29936 net.cpp:148] Top shape: 24 224 14 14 (1053696)
I0403 14:32:44.225621 29936 net.cpp:156] Memory required for data: 964869408
I0403 14:32:44.225636 29936 layer_factory.hpp:77] Creating layer inception_4b/5x5_reduce
I0403 14:32:44.225659 29936 net.cpp:91] Creating Layer inception_4b/5x5_reduce
I0403 14:32:44.225680 29936 net.cpp:425] inception_4b/5x5_reduce <- inception_4a/output_inception_4a/output_0_split_3
I0403 14:32:44.225700 29936 net.cpp:399] inception_4b/5x5_reduce -> inception_4b/5x5_reduce
I0403 14:32:44.226819 29936 net.cpp:141] Setting up inception_4b/5x5_reduce
I0403 14:32:44.226850 29936 net.cpp:148] Top shape: 24 24 14 14 (112896)
I0403 14:32:44.226866 29936 net.cpp:156] Memory required for data: 965320992
I0403 14:32:44.226886 29936 layer_factory.hpp:77] Creating layer inception_4b/relu_5x5_reduce
I0403 14:32:44.226907 29936 net.cpp:91] Creating Layer inception_4b/relu_5x5_reduce
I0403 14:32:44.226938 29936 net.cpp:425] inception_4b/relu_5x5_reduce <- inception_4b/5x5_reduce
I0403 14:32:44.226958 29936 net.cpp:386] inception_4b/relu_5x5_reduce -> inception_4b/5x5_reduce (in-place)
I0403 14:32:44.227143 29936 net.cpp:141] Setting up inception_4b/relu_5x5_reduce
I0403 14:32:44.227169 29936 net.cpp:148] Top shape: 24 24 14 14 (112896)
I0403 14:32:44.227185 29936 net.cpp:156] Memory required for data: 965772576
I0403 14:32:44.227200 29936 layer_factory.hpp:77] Creating layer inception_4b/5x5
I0403 14:32:44.227222 29936 net.cpp:91] Creating Layer inception_4b/5x5
I0403 14:32:44.227242 29936 net.cpp:425] inception_4b/5x5 <- inception_4b/5x5_reduce
I0403 14:32:44.227265 29936 net.cpp:399] inception_4b/5x5 -> inception_4b/5x5
I0403 14:32:44.228489 29936 net.cpp:141] Setting up inception_4b/5x5
I0403 14:32:44.228518 29936 net.cpp:148] Top shape: 24 64 14 14 (301056)
I0403 14:32:44.228534 29936 net.cpp:156] Memory required for data: 966976800
I0403 14:32:44.228554 29936 layer_factory.hpp:77] Creating layer inception_4b/relu_5x5
I0403 14:32:44.228575 29936 net.cpp:91] Creating Layer inception_4b/relu_5x5
I0403 14:32:44.228593 29936 net.cpp:425] inception_4b/relu_5x5 <- inception_4b/5x5
I0403 14:32:44.228615 29936 net.cpp:386] inception_4b/relu_5x5 -> inception_4b/5x5 (in-place)
I0403 14:32:44.228900 29936 net.cpp:141] Setting up inception_4b/relu_5x5
I0403 14:32:44.228929 29936 net.cpp:148] Top shape: 24 64 14 14 (301056)
I0403 14:32:44.228945 29936 net.cpp:156] Memory required for data: 968181024
I0403 14:32:44.228961 29936 layer_factory.hpp:77] Creating layer inception_4b/pool
I0403 14:32:44.228983 29936 net.cpp:91] Creating Layer inception_4b/pool
I0403 14:32:44.229001 29936 net.cpp:425] inception_4b/pool <- inception_4a/output_inception_4a/output_0_split_4
I0403 14:32:44.229020 29936 net.cpp:399] inception_4b/pool -> inception_4b/pool
I0403 14:32:44.229087 29936 net.cpp:141] Setting up inception_4b/pool
I0403 14:32:44.229113 29936 net.cpp:148] Top shape: 24 512 14 14 (2408448)
I0403 14:32:44.229128 29936 net.cpp:156] Memory required for data: 977814816
I0403 14:32:44.229143 29936 layer_factory.hpp:77] Creating layer inception_4b/pool_proj
I0403 14:32:44.229167 29936 net.cpp:91] Creating Layer inception_4b/pool_proj
I0403 14:32:44.229185 29936 net.cpp:425] inception_4b/pool_proj <- inception_4b/pool
I0403 14:32:44.229208 29936 net.cpp:399] inception_4b/pool_proj -> inception_4b/pool_proj
I0403 14:32:44.230442 29936 net.cpp:141] Setting up inception_4b/pool_proj
I0403 14:32:44.230473 29936 net.cpp:148] Top shape: 24 64 14 14 (301056)
I0403 14:32:44.230491 29936 net.cpp:156] Memory required for data: 979019040
I0403 14:32:44.230511 29936 layer_factory.hpp:77] Creating layer inception_4b/relu_pool_proj
I0403 14:32:44.230530 29936 net.cpp:91] Creating Layer inception_4b/relu_pool_proj
I0403 14:32:44.230548 29936 net.cpp:425] inception_4b/relu_pool_proj <- inception_4b/pool_proj
I0403 14:32:44.230566 29936 net.cpp:386] inception_4b/relu_pool_proj -> inception_4b/pool_proj (in-place)
I0403 14:32:44.230746 29936 net.cpp:141] Setting up inception_4b/relu_pool_proj
I0403 14:32:44.230774 29936 net.cpp:148] Top shape: 24 64 14 14 (301056)
I0403 14:32:44.230792 29936 net.cpp:156] Memory required for data: 980223264
I0403 14:32:44.230808 29936 layer_factory.hpp:77] Creating layer inception_4b/output
I0403 14:32:44.230826 29936 net.cpp:91] Creating Layer inception_4b/output
I0403 14:32:44.230842 29936 net.cpp:425] inception_4b/output <- inception_4b/1x1
I0403 14:32:44.230860 29936 net.cpp:425] inception_4b/output <- inception_4b/3x3
I0403 14:32:44.230878 29936 net.cpp:425] inception_4b/output <- inception_4b/5x5
I0403 14:32:44.230895 29936 net.cpp:425] inception_4b/output <- inception_4b/pool_proj
I0403 14:32:44.230916 29936 net.cpp:399] inception_4b/output -> inception_4b/output
I0403 14:32:44.230962 29936 net.cpp:141] Setting up inception_4b/output
I0403 14:32:44.230986 29936 net.cpp:148] Top shape: 24 512 14 14 (2408448)
I0403 14:32:44.231003 29936 net.cpp:156] Memory required for data: 989857056
I0403 14:32:44.231030 29936 layer_factory.hpp:77] Creating layer inception_4b/output_inception_4b/output_0_split
I0403 14:32:44.231053 29936 net.cpp:91] Creating Layer inception_4b/output_inception_4b/output_0_split
I0403 14:32:44.231071 29936 net.cpp:425] inception_4b/output_inception_4b/output_0_split <- inception_4b/output
I0403 14:32:44.231091 29936 net.cpp:399] inception_4b/output_inception_4b/output_0_split -> inception_4b/output_inception_4b/output_0_split_0
I0403 14:32:44.231112 29936 net.cpp:399] inception_4b/output_inception_4b/output_0_split -> inception_4b/output_inception_4b/output_0_split_1
I0403 14:32:44.231135 29936 net.cpp:399] inception_4b/output_inception_4b/output_0_split -> inception_4b/output_inception_4b/output_0_split_2
I0403 14:32:44.231156 29936 net.cpp:399] inception_4b/output_inception_4b/output_0_split -> inception_4b/output_inception_4b/output_0_split_3
I0403 14:32:44.231240 29936 net.cpp:141] Setting up inception_4b/output_inception_4b/output_0_split
I0403 14:32:44.231264 29936 net.cpp:148] Top shape: 24 512 14 14 (2408448)
I0403 14:32:44.231281 29936 net.cpp:148] Top shape: 24 512 14 14 (2408448)
I0403 14:32:44.231297 29936 net.cpp:148] Top shape: 24 512 14 14 (2408448)
I0403 14:32:44.231312 29936 net.cpp:148] Top shape: 24 512 14 14 (2408448)
I0403 14:32:44.231328 29936 net.cpp:156] Memory required for data: 1028392224
I0403 14:32:44.231343 29936 layer_factory.hpp:77] Creating layer inception_4c/1x1
I0403 14:32:44.231371 29936 net.cpp:91] Creating Layer inception_4c/1x1
I0403 14:32:44.231390 29936 net.cpp:425] inception_4c/1x1 <- inception_4b/output_inception_4b/output_0_split_0
I0403 14:32:44.231412 29936 net.cpp:399] inception_4c/1x1 -> inception_4c/1x1
I0403 14:32:44.232832 29936 net.cpp:141] Setting up inception_4c/1x1
I0403 14:32:44.232861 29936 net.cpp:148] Top shape: 24 128 14 14 (602112)
I0403 14:32:44.232877 29936 net.cpp:156] Memory required for data: 1030800672
I0403 14:32:44.232897 29936 layer_factory.hpp:77] Creating layer inception_4c/relu_1x1
I0403 14:32:44.232918 29936 net.cpp:91] Creating Layer inception_4c/relu_1x1
I0403 14:32:44.232934 29936 net.cpp:425] inception_4c/relu_1x1 <- inception_4c/1x1
I0403 14:32:44.232955 29936 net.cpp:386] inception_4c/relu_1x1 -> inception_4c/1x1 (in-place)
I0403 14:32:44.233137 29936 net.cpp:141] Setting up inception_4c/relu_1x1
I0403 14:32:44.233165 29936 net.cpp:148] Top shape: 24 128 14 14 (602112)
I0403 14:32:44.233180 29936 net.cpp:156] Memory required for data: 1033209120
I0403 14:32:44.233196 29936 layer_factory.hpp:77] Creating layer inception_4c/3x3_reduce
I0403 14:32:44.233218 29936 net.cpp:91] Creating Layer inception_4c/3x3_reduce
I0403 14:32:44.233238 29936 net.cpp:425] inception_4c/3x3_reduce <- inception_4b/output_inception_4b/output_0_split_1
I0403 14:32:44.233261 29936 net.cpp:399] inception_4c/3x3_reduce -> inception_4c/3x3_reduce
I0403 14:32:44.235191 29936 net.cpp:141] Setting up inception_4c/3x3_reduce
I0403 14:32:44.235221 29936 net.cpp:148] Top shape: 24 128 14 14 (602112)
I0403 14:32:44.235249 29936 net.cpp:156] Memory required for data: 1035617568
I0403 14:32:44.235271 29936 layer_factory.hpp:77] Creating layer inception_4c/relu_3x3_reduce
I0403 14:32:44.235292 29936 net.cpp:91] Creating Layer inception_4c/relu_3x3_reduce
I0403 14:32:44.235324 29936 net.cpp:425] inception_4c/relu_3x3_reduce <- inception_4c/3x3_reduce
I0403 14:32:44.235344 29936 net.cpp:386] inception_4c/relu_3x3_reduce -> inception_4c/3x3_reduce (in-place)
I0403 14:32:44.235667 29936 net.cpp:141] Setting up inception_4c/relu_3x3_reduce
I0403 14:32:44.235697 29936 net.cpp:148] Top shape: 24 128 14 14 (602112)
I0403 14:32:44.235713 29936 net.cpp:156] Memory required for data: 1038026016
I0403 14:32:44.235728 29936 layer_factory.hpp:77] Creating layer inception_4c/3x3
I0403 14:32:44.235754 29936 net.cpp:91] Creating Layer inception_4c/3x3
I0403 14:32:44.235772 29936 net.cpp:425] inception_4c/3x3 <- inception_4c/3x3_reduce
I0403 14:32:44.235808 29936 net.cpp:399] inception_4c/3x3 -> inception_4c/3x3
I0403 14:32:44.239462 29936 net.cpp:141] Setting up inception_4c/3x3
I0403 14:32:44.239506 29936 net.cpp:148] Top shape: 24 256 14 14 (1204224)
I0403 14:32:44.239526 29936 net.cpp:156] Memory required for data: 1042842912
I0403 14:32:44.239559 29936 layer_factory.hpp:77] Creating layer inception_4c/relu_3x3
I0403 14:32:44.239581 29936 net.cpp:91] Creating Layer inception_4c/relu_3x3
I0403 14:32:44.239599 29936 net.cpp:425] inception_4c/relu_3x3 <- inception_4c/3x3
I0403 14:32:44.239617 29936 net.cpp:386] inception_4c/relu_3x3 -> inception_4c/3x3 (in-place)
I0403 14:32:44.239800 29936 net.cpp:141] Setting up inception_4c/relu_3x3
I0403 14:32:44.239827 29936 net.cpp:148] Top shape: 24 256 14 14 (1204224)
I0403 14:32:44.239842 29936 net.cpp:156] Memory required for data: 1047659808
I0403 14:32:44.239858 29936 layer_factory.hpp:77] Creating layer inception_4c/5x5_reduce
I0403 14:32:44.239884 29936 net.cpp:91] Creating Layer inception_4c/5x5_reduce
I0403 14:32:44.239903 29936 net.cpp:425] inception_4c/5x5_reduce <- inception_4b/output_inception_4b/output_0_split_2
I0403 14:32:44.239924 29936 net.cpp:399] inception_4c/5x5_reduce -> inception_4c/5x5_reduce
I0403 14:32:44.241003 29936 net.cpp:141] Setting up inception_4c/5x5_reduce
I0403 14:32:44.241032 29936 net.cpp:148] Top shape: 24 24 14 14 (112896)
I0403 14:32:44.241049 29936 net.cpp:156] Memory required for data: 1048111392
I0403 14:32:44.241067 29936 layer_factory.hpp:77] Creating layer inception_4c/relu_5x5_reduce
I0403 14:32:44.241089 29936 net.cpp:91] Creating Layer inception_4c/relu_5x5_reduce
I0403 14:32:44.241107 29936 net.cpp:425] inception_4c/relu_5x5_reduce <- inception_4c/5x5_reduce
I0403 14:32:44.241127 29936 net.cpp:386] inception_4c/relu_5x5_reduce -> inception_4c/5x5_reduce (in-place)
I0403 14:32:44.241313 29936 net.cpp:141] Setting up inception_4c/relu_5x5_reduce
I0403 14:32:44.241339 29936 net.cpp:148] Top shape: 24 24 14 14 (112896)
I0403 14:32:44.241360 29936 net.cpp:156] Memory required for data: 1048562976
I0403 14:32:44.241377 29936 layer_factory.hpp:77] Creating layer inception_4c/5x5
I0403 14:32:44.241400 29936 net.cpp:91] Creating Layer inception_4c/5x5
I0403 14:32:44.241420 29936 net.cpp:425] inception_4c/5x5 <- inception_4c/5x5_reduce
I0403 14:32:44.241443 29936 net.cpp:399] inception_4c/5x5 -> inception_4c/5x5
I0403 14:32:44.242676 29936 net.cpp:141] Setting up inception_4c/5x5
I0403 14:32:44.242705 29936 net.cpp:148] Top shape: 24 64 14 14 (301056)
I0403 14:32:44.242723 29936 net.cpp:156] Memory required for data: 1049767200
I0403 14:32:44.242743 29936 layer_factory.hpp:77] Creating layer inception_4c/relu_5x5
I0403 14:32:44.242763 29936 net.cpp:91] Creating Layer inception_4c/relu_5x5
I0403 14:32:44.242780 29936 net.cpp:425] inception_4c/relu_5x5 <- inception_4c/5x5
I0403 14:32:44.242802 29936 net.cpp:386] inception_4c/relu_5x5 -> inception_4c/5x5 (in-place)
I0403 14:32:44.243089 29936 net.cpp:141] Setting up inception_4c/relu_5x5
I0403 14:32:44.243119 29936 net.cpp:148] Top shape: 24 64 14 14 (301056)
I0403 14:32:44.243135 29936 net.cpp:156] Memory required for data: 1050971424
I0403 14:32:44.243151 29936 layer_factory.hpp:77] Creating layer inception_4c/pool
I0403 14:32:44.243170 29936 net.cpp:91] Creating Layer inception_4c/pool
I0403 14:32:44.243188 29936 net.cpp:425] inception_4c/pool <- inception_4b/output_inception_4b/output_0_split_3
I0403 14:32:44.243213 29936 net.cpp:399] inception_4c/pool -> inception_4c/pool
I0403 14:32:44.243280 29936 net.cpp:141] Setting up inception_4c/pool
I0403 14:32:44.243321 29936 net.cpp:148] Top shape: 24 512 14 14 (2408448)
I0403 14:32:44.243338 29936 net.cpp:156] Memory required for data: 1060605216
I0403 14:32:44.243366 29936 layer_factory.hpp:77] Creating layer inception_4c/pool_proj
I0403 14:32:44.243393 29936 net.cpp:91] Creating Layer inception_4c/pool_proj
I0403 14:32:44.243412 29936 net.cpp:425] inception_4c/pool_proj <- inception_4c/pool
I0403 14:32:44.243432 29936 net.cpp:399] inception_4c/pool_proj -> inception_4c/pool_proj
I0403 14:32:44.244671 29936 net.cpp:141] Setting up inception_4c/pool_proj
I0403 14:32:44.244699 29936 net.cpp:148] Top shape: 24 64 14 14 (301056)
I0403 14:32:44.244734 29936 net.cpp:156] Memory required for data: 1061809440
I0403 14:32:44.244755 29936 layer_factory.hpp:77] Creating layer inception_4c/relu_pool_proj
I0403 14:32:44.244773 29936 net.cpp:91] Creating Layer inception_4c/relu_pool_proj
I0403 14:32:44.244791 29936 net.cpp:425] inception_4c/relu_pool_proj <- inception_4c/pool_proj
I0403 14:32:44.244809 29936 net.cpp:386] inception_4c/relu_pool_proj -> inception_4c/pool_proj (in-place)
I0403 14:32:44.244997 29936 net.cpp:141] Setting up inception_4c/relu_pool_proj
I0403 14:32:44.245025 29936 net.cpp:148] Top shape: 24 64 14 14 (301056)
I0403 14:32:44.245043 29936 net.cpp:156] Memory required for data: 1063013664
I0403 14:32:44.245059 29936 layer_factory.hpp:77] Creating layer inception_4c/output
I0403 14:32:44.245079 29936 net.cpp:91] Creating Layer inception_4c/output
I0403 14:32:44.245095 29936 net.cpp:425] inception_4c/output <- inception_4c/1x1
I0403 14:32:44.245112 29936 net.cpp:425] inception_4c/output <- inception_4c/3x3
I0403 14:32:44.245129 29936 net.cpp:425] inception_4c/output <- inception_4c/5x5
I0403 14:32:44.245146 29936 net.cpp:425] inception_4c/output <- inception_4c/pool_proj
I0403 14:32:44.245167 29936 net.cpp:399] inception_4c/output -> inception_4c/output
I0403 14:32:44.245214 29936 net.cpp:141] Setting up inception_4c/output
I0403 14:32:44.245239 29936 net.cpp:148] Top shape: 24 512 14 14 (2408448)
I0403 14:32:44.245254 29936 net.cpp:156] Memory required for data: 1072647456
I0403 14:32:44.245270 29936 layer_factory.hpp:77] Creating layer inception_4c/output_inception_4c/output_0_split
I0403 14:32:44.245302 29936 net.cpp:91] Creating Layer inception_4c/output_inception_4c/output_0_split
I0403 14:32:44.245319 29936 net.cpp:425] inception_4c/output_inception_4c/output_0_split <- inception_4c/output
I0403 14:32:44.245338 29936 net.cpp:399] inception_4c/output_inception_4c/output_0_split -> inception_4c/output_inception_4c/output_0_split_0
I0403 14:32:44.245376 29936 net.cpp:399] inception_4c/output_inception_4c/output_0_split -> inception_4c/output_inception_4c/output_0_split_1
I0403 14:32:44.245403 29936 net.cpp:399] inception_4c/output_inception_4c/output_0_split -> inception_4c/output_inception_4c/output_0_split_2
I0403 14:32:44.245424 29936 net.cpp:399] inception_4c/output_inception_4c/output_0_split -> inception_4c/output_inception_4c/output_0_split_3
I0403 14:32:44.245513 29936 net.cpp:141] Setting up inception_4c/output_inception_4c/output_0_split
I0403 14:32:44.245538 29936 net.cpp:148] Top shape: 24 512 14 14 (2408448)
I0403 14:32:44.245556 29936 net.cpp:148] Top shape: 24 512 14 14 (2408448)
I0403 14:32:44.245573 29936 net.cpp:148] Top shape: 24 512 14 14 (2408448)
I0403 14:32:44.245601 29936 net.cpp:148] Top shape: 24 512 14 14 (2408448)
I0403 14:32:44.245616 29936 net.cpp:156] Memory required for data: 1111182624
I0403 14:32:44.245631 29936 layer_factory.hpp:77] Creating layer inception_4d/1x1
I0403 14:32:44.245654 29936 net.cpp:91] Creating Layer inception_4d/1x1
I0403 14:32:44.245672 29936 net.cpp:425] inception_4d/1x1 <- inception_4c/output_inception_4c/output_0_split_0
I0403 14:32:44.245695 29936 net.cpp:399] inception_4d/1x1 -> inception_4d/1x1
I0403 14:32:44.247068 29936 net.cpp:141] Setting up inception_4d/1x1
I0403 14:32:44.247110 29936 net.cpp:148] Top shape: 24 112 14 14 (526848)
I0403 14:32:44.247128 29936 net.cpp:156] Memory required for data: 1113290016
I0403 14:32:44.247148 29936 layer_factory.hpp:77] Creating layer inception_4d/relu_1x1
I0403 14:32:44.247169 29936 net.cpp:91] Creating Layer inception_4d/relu_1x1
I0403 14:32:44.247189 29936 net.cpp:425] inception_4d/relu_1x1 <- inception_4d/1x1
I0403 14:32:44.247208 29936 net.cpp:386] inception_4d/relu_1x1 -> inception_4d/1x1 (in-place)
I0403 14:32:44.247416 29936 net.cpp:141] Setting up inception_4d/relu_1x1
I0403 14:32:44.247442 29936 net.cpp:148] Top shape: 24 112 14 14 (526848)
I0403 14:32:44.247458 29936 net.cpp:156] Memory required for data: 1115397408
I0403 14:32:44.247474 29936 layer_factory.hpp:77] Creating layer inception_4d/3x3_reduce
I0403 14:32:44.247512 29936 net.cpp:91] Creating Layer inception_4d/3x3_reduce
I0403 14:32:44.247534 29936 net.cpp:425] inception_4d/3x3_reduce <- inception_4c/output_inception_4c/output_0_split_1
I0403 14:32:44.247555 29936 net.cpp:399] inception_4d/3x3_reduce -> inception_4d/3x3_reduce
I0403 14:32:44.249058 29936 net.cpp:141] Setting up inception_4d/3x3_reduce
I0403 14:32:44.249085 29936 net.cpp:148] Top shape: 24 144 14 14 (677376)
I0403 14:32:44.249102 29936 net.cpp:156] Memory required for data: 1118106912
I0403 14:32:44.249120 29936 layer_factory.hpp:77] Creating layer inception_4d/relu_3x3_reduce
I0403 14:32:44.249140 29936 net.cpp:91] Creating Layer inception_4d/relu_3x3_reduce
I0403 14:32:44.249157 29936 net.cpp:425] inception_4d/relu_3x3_reduce <- inception_4d/3x3_reduce
I0403 14:32:44.249178 29936 net.cpp:386] inception_4d/relu_3x3_reduce -> inception_4d/3x3_reduce (in-place)
I0403 14:32:44.249478 29936 net.cpp:141] Setting up inception_4d/relu_3x3_reduce
I0403 14:32:44.249507 29936 net.cpp:148] Top shape: 24 144 14 14 (677376)
I0403 14:32:44.249522 29936 net.cpp:156] Memory required for data: 1120816416
I0403 14:32:44.249538 29936 layer_factory.hpp:77] Creating layer inception_4d/3x3
I0403 14:32:44.249560 29936 net.cpp:91] Creating Layer inception_4d/3x3
I0403 14:32:44.249579 29936 net.cpp:425] inception_4d/3x3 <- inception_4d/3x3_reduce
I0403 14:32:44.249601 29936 net.cpp:399] inception_4d/3x3 -> inception_4d/3x3
I0403 14:32:44.253942 29936 net.cpp:141] Setting up inception_4d/3x3
I0403 14:32:44.253973 29936 net.cpp:148] Top shape: 24 288 14 14 (1354752)
I0403 14:32:44.253990 29936 net.cpp:156] Memory required for data: 1126235424
I0403 14:32:44.254009 29936 layer_factory.hpp:77] Creating layer inception_4d/relu_3x3
I0403 14:32:44.254031 29936 net.cpp:91] Creating Layer inception_4d/relu_3x3
I0403 14:32:44.254050 29936 net.cpp:425] inception_4d/relu_3x3 <- inception_4d/3x3
I0403 14:32:44.254070 29936 net.cpp:386] inception_4d/relu_3x3 -> inception_4d/3x3 (in-place)
I0403 14:32:44.254251 29936 net.cpp:141] Setting up inception_4d/relu_3x3
I0403 14:32:44.254281 29936 net.cpp:148] Top shape: 24 288 14 14 (1354752)
I0403 14:32:44.254297 29936 net.cpp:156] Memory required for data: 1131654432
I0403 14:32:44.254312 29936 layer_factory.hpp:77] Creating layer inception_4d/5x5_reduce
I0403 14:32:44.254336 29936 net.cpp:91] Creating Layer inception_4d/5x5_reduce
I0403 14:32:44.254359 29936 net.cpp:425] inception_4d/5x5_reduce <- inception_4c/output_inception_4c/output_0_split_2
I0403 14:32:44.254381 29936 net.cpp:399] inception_4d/5x5_reduce -> inception_4d/5x5_reduce
I0403 14:32:44.255527 29936 net.cpp:141] Setting up inception_4d/5x5_reduce
I0403 14:32:44.255556 29936 net.cpp:148] Top shape: 24 32 14 14 (150528)
I0403 14:32:44.255573 29936 net.cpp:156] Memory required for data: 1132256544
I0403 14:32:44.255592 29936 layer_factory.hpp:77] Creating layer inception_4d/relu_5x5_reduce
I0403 14:32:44.255615 29936 net.cpp:91] Creating Layer inception_4d/relu_5x5_reduce
I0403 14:32:44.255633 29936 net.cpp:425] inception_4d/relu_5x5_reduce <- inception_4d/5x5_reduce
I0403 14:32:44.255652 29936 net.cpp:386] inception_4d/relu_5x5_reduce -> inception_4d/5x5_reduce (in-place)
I0403 14:32:44.255841 29936 net.cpp:141] Setting up inception_4d/relu_5x5_reduce
I0403 14:32:44.255867 29936 net.cpp:148] Top shape: 24 32 14 14 (150528)
I0403 14:32:44.255882 29936 net.cpp:156] Memory required for data: 1132858656
I0403 14:32:44.255897 29936 layer_factory.hpp:77] Creating layer inception_4d/5x5
I0403 14:32:44.255921 29936 net.cpp:91] Creating Layer inception_4d/5x5
I0403 14:32:44.255940 29936 net.cpp:425] inception_4d/5x5 <- inception_4d/5x5_reduce
I0403 14:32:44.255961 29936 net.cpp:399] inception_4d/5x5 -> inception_4d/5x5
I0403 14:32:44.257463 29936 net.cpp:141] Setting up inception_4d/5x5
I0403 14:32:44.257495 29936 net.cpp:148] Top shape: 24 64 14 14 (301056)
I0403 14:32:44.257513 29936 net.cpp:156] Memory required for data: 1134062880
I0403 14:32:44.257534 29936 layer_factory.hpp:77] Creating layer inception_4d/relu_5x5
I0403 14:32:44.257581 29936 net.cpp:91] Creating Layer inception_4d/relu_5x5
I0403 14:32:44.257601 29936 net.cpp:425] inception_4d/relu_5x5 <- inception_4d/5x5
I0403 14:32:44.257622 29936 net.cpp:386] inception_4d/relu_5x5 -> inception_4d/5x5 (in-place)
I0403 14:32:44.257927 29936 net.cpp:141] Setting up inception_4d/relu_5x5
I0403 14:32:44.257957 29936 net.cpp:148] Top shape: 24 64 14 14 (301056)
I0403 14:32:44.257974 29936 net.cpp:156] Memory required for data: 1135267104
I0403 14:32:44.257992 29936 layer_factory.hpp:77] Creating layer inception_4d/pool
I0403 14:32:44.258010 29936 net.cpp:91] Creating Layer inception_4d/pool
I0403 14:32:44.258028 29936 net.cpp:425] inception_4d/pool <- inception_4c/output_inception_4c/output_0_split_3
I0403 14:32:44.258051 29936 net.cpp:399] inception_4d/pool -> inception_4d/pool
I0403 14:32:44.258121 29936 net.cpp:141] Setting up inception_4d/pool
I0403 14:32:44.258147 29936 net.cpp:148] Top shape: 24 512 14 14 (2408448)
I0403 14:32:44.258162 29936 net.cpp:156] Memory required for data: 1144900896
I0403 14:32:44.258177 29936 layer_factory.hpp:77] Creating layer inception_4d/pool_proj
I0403 14:32:44.258200 29936 net.cpp:91] Creating Layer inception_4d/pool_proj
I0403 14:32:44.258219 29936 net.cpp:425] inception_4d/pool_proj <- inception_4d/pool
I0403 14:32:44.258241 29936 net.cpp:399] inception_4d/pool_proj -> inception_4d/pool_proj
I0403 14:32:44.260036 29936 net.cpp:141] Setting up inception_4d/pool_proj
I0403 14:32:44.260067 29936 net.cpp:148] Top shape: 24 64 14 14 (301056)
I0403 14:32:44.260084 29936 net.cpp:156] Memory required for data: 1146105120
I0403 14:32:44.260105 29936 layer_factory.hpp:77] Creating layer inception_4d/relu_pool_proj
I0403 14:32:44.260128 29936 net.cpp:91] Creating Layer inception_4d/relu_pool_proj
I0403 14:32:44.260145 29936 net.cpp:425] inception_4d/relu_pool_proj <- inception_4d/pool_proj
I0403 14:32:44.260164 29936 net.cpp:386] inception_4d/relu_pool_proj -> inception_4d/pool_proj (in-place)
I0403 14:32:44.260355 29936 net.cpp:141] Setting up inception_4d/relu_pool_proj
I0403 14:32:44.260383 29936 net.cpp:148] Top shape: 24 64 14 14 (301056)
I0403 14:32:44.260401 29936 net.cpp:156] Memory required for data: 1147309344
I0403 14:32:44.260418 29936 layer_factory.hpp:77] Creating layer inception_4d/output
I0403 14:32:44.260437 29936 net.cpp:91] Creating Layer inception_4d/output
I0403 14:32:44.260452 29936 net.cpp:425] inception_4d/output <- inception_4d/1x1
I0403 14:32:44.260470 29936 net.cpp:425] inception_4d/output <- inception_4d/3x3
I0403 14:32:44.260488 29936 net.cpp:425] inception_4d/output <- inception_4d/5x5
I0403 14:32:44.260506 29936 net.cpp:425] inception_4d/output <- inception_4d/pool_proj
I0403 14:32:44.260524 29936 net.cpp:399] inception_4d/output -> inception_4d/output
I0403 14:32:44.260576 29936 net.cpp:141] Setting up inception_4d/output
I0403 14:32:44.260599 29936 net.cpp:148] Top shape: 24 528 14 14 (2483712)
I0403 14:32:44.260615 29936 net.cpp:156] Memory required for data: 1157244192
I0403 14:32:44.260630 29936 layer_factory.hpp:77] Creating layer inception_4d/output_inception_4d/output_0_split
I0403 14:32:44.260651 29936 net.cpp:91] Creating Layer inception_4d/output_inception_4d/output_0_split
I0403 14:32:44.260668 29936 net.cpp:425] inception_4d/output_inception_4d/output_0_split <- inception_4d/output
I0403 14:32:44.260687 29936 net.cpp:399] inception_4d/output_inception_4d/output_0_split -> inception_4d/output_inception_4d/output_0_split_0
I0403 14:32:44.260710 29936 net.cpp:399] inception_4d/output_inception_4d/output_0_split -> inception_4d/output_inception_4d/output_0_split_1
I0403 14:32:44.260731 29936 net.cpp:399] inception_4d/output_inception_4d/output_0_split -> inception_4d/output_inception_4d/output_0_split_2
I0403 14:32:44.260753 29936 net.cpp:399] inception_4d/output_inception_4d/output_0_split -> inception_4d/output_inception_4d/output_0_split_3
I0403 14:32:44.260776 29936 net.cpp:399] inception_4d/output_inception_4d/output_0_split -> inception_4d/output_inception_4d/output_0_split_4
I0403 14:32:44.260884 29936 net.cpp:141] Setting up inception_4d/output_inception_4d/output_0_split
I0403 14:32:44.260921 29936 net.cpp:148] Top shape: 24 528 14 14 (2483712)
I0403 14:32:44.260941 29936 net.cpp:148] Top shape: 24 528 14 14 (2483712)
I0403 14:32:44.260957 29936 net.cpp:148] Top shape: 24 528 14 14 (2483712)
I0403 14:32:44.260973 29936 net.cpp:148] Top shape: 24 528 14 14 (2483712)
I0403 14:32:44.260989 29936 net.cpp:148] Top shape: 24 528 14 14 (2483712)
I0403 14:32:44.261005 29936 net.cpp:156] Memory required for data: 1206918432
I0403 14:32:44.261021 29936 layer_factory.hpp:77] Creating layer loss2/ave_pool
I0403 14:32:44.261039 29936 net.cpp:91] Creating Layer loss2/ave_pool
I0403 14:32:44.261059 29936 net.cpp:425] loss2/ave_pool <- inception_4d/output_inception_4d/output_0_split_0
I0403 14:32:44.261080 29936 net.cpp:399] loss2/ave_pool -> loss2/ave_pool
I0403 14:32:44.261430 29936 net.cpp:141] Setting up loss2/ave_pool
I0403 14:32:44.261458 29936 net.cpp:148] Top shape: 24 528 4 4 (202752)
I0403 14:32:44.261476 29936 net.cpp:156] Memory required for data: 1207729440
I0403 14:32:44.261493 29936 layer_factory.hpp:77] Creating layer loss2/conv
I0403 14:32:44.261518 29936 net.cpp:91] Creating Layer loss2/conv
I0403 14:32:44.261550 29936 net.cpp:425] loss2/conv <- loss2/ave_pool
I0403 14:32:44.261574 29936 net.cpp:399] loss2/conv -> loss2/conv
I0403 14:32:44.263509 29936 net.cpp:141] Setting up loss2/conv
I0403 14:32:44.263543 29936 net.cpp:148] Top shape: 24 128 4 4 (49152)
I0403 14:32:44.263561 29936 net.cpp:156] Memory required for data: 1207926048
I0403 14:32:44.263581 29936 layer_factory.hpp:77] Creating layer loss2/relu_conv
I0403 14:32:44.263602 29936 net.cpp:91] Creating Layer loss2/relu_conv
I0403 14:32:44.263620 29936 net.cpp:425] loss2/relu_conv <- loss2/conv
I0403 14:32:44.263648 29936 net.cpp:386] loss2/relu_conv -> loss2/conv (in-place)
I0403 14:32:44.263936 29936 net.cpp:141] Setting up loss2/relu_conv
I0403 14:32:44.263965 29936 net.cpp:148] Top shape: 24 128 4 4 (49152)
I0403 14:32:44.263983 29936 net.cpp:156] Memory required for data: 1208122656
I0403 14:32:44.263999 29936 layer_factory.hpp:77] Creating layer loss2/fc
I0403 14:32:44.264019 29936 net.cpp:91] Creating Layer loss2/fc
I0403 14:32:44.264037 29936 net.cpp:425] loss2/fc <- loss2/conv
I0403 14:32:44.264060 29936 net.cpp:399] loss2/fc -> loss2/fc
I0403 14:32:44.281633 29936 net.cpp:141] Setting up loss2/fc
I0403 14:32:44.281682 29936 net.cpp:148] Top shape: 24 1024 (24576)
I0403 14:32:44.281699 29936 net.cpp:156] Memory required for data: 1208220960
I0403 14:32:44.281721 29936 layer_factory.hpp:77] Creating layer loss2/relu_fc
I0403 14:32:44.281744 29936 net.cpp:91] Creating Layer loss2/relu_fc
I0403 14:32:44.281761 29936 net.cpp:425] loss2/relu_fc <- loss2/fc
I0403 14:32:44.281780 29936 net.cpp:386] loss2/relu_fc -> loss2/fc (in-place)
I0403 14:32:44.282121 29936 net.cpp:141] Setting up loss2/relu_fc
I0403 14:32:44.282150 29936 net.cpp:148] Top shape: 24 1024 (24576)
I0403 14:32:44.282166 29936 net.cpp:156] Memory required for data: 1208319264
I0403 14:32:44.282181 29936 layer_factory.hpp:77] Creating layer loss2/drop_fc
I0403 14:32:44.282202 29936 net.cpp:91] Creating Layer loss2/drop_fc
I0403 14:32:44.282219 29936 net.cpp:425] loss2/drop_fc <- loss2/fc
I0403 14:32:44.282238 29936 net.cpp:386] loss2/drop_fc -> loss2/fc (in-place)
I0403 14:32:44.282290 29936 net.cpp:141] Setting up loss2/drop_fc
I0403 14:32:44.282313 29936 net.cpp:148] Top shape: 24 1024 (24576)
I0403 14:32:44.282330 29936 net.cpp:156] Memory required for data: 1208417568
I0403 14:32:44.282351 29936 layer_factory.hpp:77] Creating layer loss2/classifier_plantvillage
I0403 14:32:44.282376 29936 net.cpp:91] Creating Layer loss2/classifier_plantvillage
I0403 14:32:44.282394 29936 net.cpp:425] loss2/classifier_plantvillage <- loss2/fc
I0403 14:32:44.282415 29936 net.cpp:399] loss2/classifier_plantvillage -> loss2/classifier_plantvillage
I0403 14:32:44.282827 29936 net.cpp:141] Setting up loss2/classifier_plantvillage
I0403 14:32:44.282853 29936 net.cpp:148] Top shape: 24 38 (912)
I0403 14:32:44.282869 29936 net.cpp:156] Memory required for data: 1208421216
I0403 14:32:44.282920 29936 layer_factory.hpp:77] Creating layer loss2/classifier_plantvillage_loss2/classifier_plantvillage_0_split
I0403 14:32:44.282941 29936 net.cpp:91] Creating Layer loss2/classifier_plantvillage_loss2/classifier_plantvillage_0_split
I0403 14:32:44.282959 29936 net.cpp:425] loss2/classifier_plantvillage_loss2/classifier_plantvillage_0_split <- loss2/classifier_plantvillage
I0403 14:32:44.282981 29936 net.cpp:399] loss2/classifier_plantvillage_loss2/classifier_plantvillage_0_split -> loss2/classifier_plantvillage_loss2/classifier_plantvillage_0_split_0
I0403 14:32:44.283002 29936 net.cpp:399] loss2/classifier_plantvillage_loss2/classifier_plantvillage_0_split -> loss2/classifier_plantvillage_loss2/classifier_plantvillage_0_split_1
I0403 14:32:44.283023 29936 net.cpp:399] loss2/classifier_plantvillage_loss2/classifier_plantvillage_0_split -> loss2/classifier_plantvillage_loss2/classifier_plantvillage_0_split_2
I0403 14:32:44.283102 29936 net.cpp:141] Setting up loss2/classifier_plantvillage_loss2/classifier_plantvillage_0_split
I0403 14:32:44.283128 29936 net.cpp:148] Top shape: 24 38 (912)
I0403 14:32:44.283145 29936 net.cpp:148] Top shape: 24 38 (912)
I0403 14:32:44.283162 29936 net.cpp:148] Top shape: 24 38 (912)
I0403 14:32:44.283177 29936 net.cpp:156] Memory required for data: 1208432160
I0403 14:32:44.283192 29936 layer_factory.hpp:77] Creating layer inception_4e/1x1
I0403 14:32:44.283216 29936 net.cpp:91] Creating Layer inception_4e/1x1
I0403 14:32:44.283236 29936 net.cpp:425] inception_4e/1x1 <- inception_4d/output_inception_4d/output_0_split_1
I0403 14:32:44.283257 29936 net.cpp:399] inception_4e/1x1 -> inception_4e/1x1
I0403 14:32:44.285147 29936 net.cpp:141] Setting up inception_4e/1x1
I0403 14:32:44.285177 29936 net.cpp:148] Top shape: 24 256 14 14 (1204224)
I0403 14:32:44.285194 29936 net.cpp:156] Memory required for data: 1213249056
I0403 14:32:44.285213 29936 layer_factory.hpp:77] Creating layer inception_4e/relu_1x1
I0403 14:32:44.285233 29936 net.cpp:91] Creating Layer inception_4e/relu_1x1
I0403 14:32:44.285250 29936 net.cpp:425] inception_4e/relu_1x1 <- inception_4e/1x1
I0403 14:32:44.285270 29936 net.cpp:386] inception_4e/relu_1x1 -> inception_4e/1x1 (in-place)
I0403 14:32:44.285576 29936 net.cpp:141] Setting up inception_4e/relu_1x1
I0403 14:32:44.285606 29936 net.cpp:148] Top shape: 24 256 14 14 (1204224)
I0403 14:32:44.285624 29936 net.cpp:156] Memory required for data: 1218065952
I0403 14:32:44.285640 29936 layer_factory.hpp:77] Creating layer inception_4e/3x3_reduce
I0403 14:32:44.285662 29936 net.cpp:91] Creating Layer inception_4e/3x3_reduce
I0403 14:32:44.285682 29936 net.cpp:425] inception_4e/3x3_reduce <- inception_4d/output_inception_4d/output_0_split_2
I0403 14:32:44.285702 29936 net.cpp:399] inception_4e/3x3_reduce -> inception_4e/3x3_reduce
I0403 14:32:44.287847 29936 net.cpp:141] Setting up inception_4e/3x3_reduce
I0403 14:32:44.287878 29936 net.cpp:148] Top shape: 24 160 14 14 (752640)
I0403 14:32:44.287896 29936 net.cpp:156] Memory required for data: 1221076512
I0403 14:32:44.287916 29936 layer_factory.hpp:77] Creating layer inception_4e/relu_3x3_reduce
I0403 14:32:44.287936 29936 net.cpp:91] Creating Layer inception_4e/relu_3x3_reduce
I0403 14:32:44.287955 29936 net.cpp:425] inception_4e/relu_3x3_reduce <- inception_4e/3x3_reduce
I0403 14:32:44.287978 29936 net.cpp:386] inception_4e/relu_3x3_reduce -> inception_4e/3x3_reduce (in-place)
I0403 14:32:44.288180 29936 net.cpp:141] Setting up inception_4e/relu_3x3_reduce
I0403 14:32:44.288206 29936 net.cpp:148] Top shape: 24 160 14 14 (752640)
I0403 14:32:44.288221 29936 net.cpp:156] Memory required for data: 1224087072
I0403 14:32:44.288236 29936 layer_factory.hpp:77] Creating layer inception_4e/3x3
I0403 14:32:44.288259 29936 net.cpp:91] Creating Layer inception_4e/3x3
I0403 14:32:44.288276 29936 net.cpp:425] inception_4e/3x3 <- inception_4e/3x3_reduce
I0403 14:32:44.288300 29936 net.cpp:399] inception_4e/3x3 -> inception_4e/3x3
I0403 14:32:44.293256 29936 net.cpp:141] Setting up inception_4e/3x3
I0403 14:32:44.293298 29936 net.cpp:148] Top shape: 24 320 14 14 (1505280)
I0403 14:32:44.293315 29936 net.cpp:156] Memory required for data: 1230108192
I0403 14:32:44.293335 29936 layer_factory.hpp:77] Creating layer inception_4e/relu_3x3
I0403 14:32:44.293368 29936 net.cpp:91] Creating Layer inception_4e/relu_3x3
I0403 14:32:44.293418 29936 net.cpp:425] inception_4e/relu_3x3 <- inception_4e/3x3
I0403 14:32:44.293438 29936 net.cpp:386] inception_4e/relu_3x3 -> inception_4e/3x3 (in-place)
I0403 14:32:44.293768 29936 net.cpp:141] Setting up inception_4e/relu_3x3
I0403 14:32:44.293797 29936 net.cpp:148] Top shape: 24 320 14 14 (1505280)
I0403 14:32:44.293824 29936 net.cpp:156] Memory required for data: 1236129312
I0403 14:32:44.293838 29936 layer_factory.hpp:77] Creating layer inception_4e/5x5_reduce
I0403 14:32:44.293861 29936 net.cpp:91] Creating Layer inception_4e/5x5_reduce
I0403 14:32:44.293879 29936 net.cpp:425] inception_4e/5x5_reduce <- inception_4d/output_inception_4d/output_0_split_3
I0403 14:32:44.293902 29936 net.cpp:399] inception_4e/5x5_reduce -> inception_4e/5x5_reduce
I0403 14:32:44.294968 29936 net.cpp:141] Setting up inception_4e/5x5_reduce
I0403 14:32:44.294999 29936 net.cpp:148] Top shape: 24 32 14 14 (150528)
I0403 14:32:44.295029 29936 net.cpp:156] Memory required for data: 1236731424
I0403 14:32:44.295049 29936 layer_factory.hpp:77] Creating layer inception_4e/relu_5x5_reduce
I0403 14:32:44.295068 29936 net.cpp:91] Creating Layer inception_4e/relu_5x5_reduce
I0403 14:32:44.295084 29936 net.cpp:425] inception_4e/relu_5x5_reduce <- inception_4e/5x5_reduce
I0403 14:32:44.295104 29936 net.cpp:386] inception_4e/relu_5x5_reduce -> inception_4e/5x5_reduce (in-place)
I0403 14:32:44.295402 29936 net.cpp:141] Setting up inception_4e/relu_5x5_reduce
I0403 14:32:44.295430 29936 net.cpp:148] Top shape: 24 32 14 14 (150528)
I0403 14:32:44.295447 29936 net.cpp:156] Memory required for data: 1237333536
I0403 14:32:44.295464 29936 layer_factory.hpp:77] Creating layer inception_4e/5x5
I0403 14:32:44.295503 29936 net.cpp:91] Creating Layer inception_4e/5x5
I0403 14:32:44.295523 29936 net.cpp:425] inception_4e/5x5 <- inception_4e/5x5_reduce
I0403 14:32:44.295543 29936 net.cpp:399] inception_4e/5x5 -> inception_4e/5x5
I0403 14:32:44.297359 29936 net.cpp:141] Setting up inception_4e/5x5
I0403 14:32:44.297389 29936 net.cpp:148] Top shape: 24 128 14 14 (602112)
I0403 14:32:44.297405 29936 net.cpp:156] Memory required for data: 1239741984
I0403 14:32:44.297423 29936 layer_factory.hpp:77] Creating layer inception_4e/relu_5x5
I0403 14:32:44.297446 29936 net.cpp:91] Creating Layer inception_4e/relu_5x5
I0403 14:32:44.297463 29936 net.cpp:425] inception_4e/relu_5x5 <- inception_4e/5x5
I0403 14:32:44.297482 29936 net.cpp:386] inception_4e/relu_5x5 -> inception_4e/5x5 (in-place)
I0403 14:32:44.297675 29936 net.cpp:141] Setting up inception_4e/relu_5x5
I0403 14:32:44.297703 29936 net.cpp:148] Top shape: 24 128 14 14 (602112)
I0403 14:32:44.297720 29936 net.cpp:156] Memory required for data: 1242150432
I0403 14:32:44.297736 29936 layer_factory.hpp:77] Creating layer inception_4e/pool
I0403 14:32:44.297755 29936 net.cpp:91] Creating Layer inception_4e/pool
I0403 14:32:44.297771 29936 net.cpp:425] inception_4e/pool <- inception_4d/output_inception_4d/output_0_split_4
I0403 14:32:44.297792 29936 net.cpp:399] inception_4e/pool -> inception_4e/pool
I0403 14:32:44.297863 29936 net.cpp:141] Setting up inception_4e/pool
I0403 14:32:44.297888 29936 net.cpp:148] Top shape: 24 528 14 14 (2483712)
I0403 14:32:44.297902 29936 net.cpp:156] Memory required for data: 1252085280
I0403 14:32:44.297919 29936 layer_factory.hpp:77] Creating layer inception_4e/pool_proj
I0403 14:32:44.297940 29936 net.cpp:91] Creating Layer inception_4e/pool_proj
I0403 14:32:44.297960 29936 net.cpp:425] inception_4e/pool_proj <- inception_4e/pool
I0403 14:32:44.297979 29936 net.cpp:399] inception_4e/pool_proj -> inception_4e/pool_proj
I0403 14:32:44.299484 29936 net.cpp:141] Setting up inception_4e/pool_proj
I0403 14:32:44.299511 29936 net.cpp:148] Top shape: 24 128 14 14 (602112)
I0403 14:32:44.299542 29936 net.cpp:156] Memory required for data: 1254493728
I0403 14:32:44.299562 29936 layer_factory.hpp:77] Creating layer inception_4e/relu_pool_proj
I0403 14:32:44.299584 29936 net.cpp:91] Creating Layer inception_4e/relu_pool_proj
I0403 14:32:44.299603 29936 net.cpp:425] inception_4e/relu_pool_proj <- inception_4e/pool_proj
I0403 14:32:44.299621 29936 net.cpp:386] inception_4e/relu_pool_proj -> inception_4e/pool_proj (in-place)
I0403 14:32:44.299922 29936 net.cpp:141] Setting up inception_4e/relu_pool_proj
I0403 14:32:44.299950 29936 net.cpp:148] Top shape: 24 128 14 14 (602112)
I0403 14:32:44.299967 29936 net.cpp:156] Memory required for data: 1256902176
I0403 14:32:44.299981 29936 layer_factory.hpp:77] Creating layer inception_4e/output
I0403 14:32:44.300000 29936 net.cpp:91] Creating Layer inception_4e/output
I0403 14:32:44.300017 29936 net.cpp:425] inception_4e/output <- inception_4e/1x1
I0403 14:32:44.300039 29936 net.cpp:425] inception_4e/output <- inception_4e/3x3
I0403 14:32:44.300056 29936 net.cpp:425] inception_4e/output <- inception_4e/5x5
I0403 14:32:44.300072 29936 net.cpp:425] inception_4e/output <- inception_4e/pool_proj
I0403 14:32:44.300091 29936 net.cpp:399] inception_4e/output -> inception_4e/output
I0403 14:32:44.300143 29936 net.cpp:141] Setting up inception_4e/output
I0403 14:32:44.300168 29936 net.cpp:148] Top shape: 24 832 14 14 (3913728)
I0403 14:32:44.300195 29936 net.cpp:156] Memory required for data: 1272557088
I0403 14:32:44.300211 29936 layer_factory.hpp:77] Creating layer pool4/3x3_s2
I0403 14:32:44.300228 29936 net.cpp:91] Creating Layer pool4/3x3_s2
I0403 14:32:44.300245 29936 net.cpp:425] pool4/3x3_s2 <- inception_4e/output
I0403 14:32:44.300266 29936 net.cpp:399] pool4/3x3_s2 -> pool4/3x3_s2
I0403 14:32:44.300331 29936 net.cpp:141] Setting up pool4/3x3_s2
I0403 14:32:44.300362 29936 net.cpp:148] Top shape: 24 832 7 7 (978432)
I0403 14:32:44.300379 29936 net.cpp:156] Memory required for data: 1276470816
I0403 14:32:44.300395 29936 layer_factory.hpp:77] Creating layer pool4/3x3_s2_pool4/3x3_s2_0_split
I0403 14:32:44.300416 29936 net.cpp:91] Creating Layer pool4/3x3_s2_pool4/3x3_s2_0_split
I0403 14:32:44.300434 29936 net.cpp:425] pool4/3x3_s2_pool4/3x3_s2_0_split <- pool4/3x3_s2
I0403 14:32:44.300453 29936 net.cpp:399] pool4/3x3_s2_pool4/3x3_s2_0_split -> pool4/3x3_s2_pool4/3x3_s2_0_split_0
I0403 14:32:44.300477 29936 net.cpp:399] pool4/3x3_s2_pool4/3x3_s2_0_split -> pool4/3x3_s2_pool4/3x3_s2_0_split_1
I0403 14:32:44.300499 29936 net.cpp:399] pool4/3x3_s2_pool4/3x3_s2_0_split -> pool4/3x3_s2_pool4/3x3_s2_0_split_2
I0403 14:32:44.300519 29936 net.cpp:399] pool4/3x3_s2_pool4/3x3_s2_0_split -> pool4/3x3_s2_pool4/3x3_s2_0_split_3
I0403 14:32:44.300606 29936 net.cpp:141] Setting up pool4/3x3_s2_pool4/3x3_s2_0_split
I0403 14:32:44.300629 29936 net.cpp:148] Top shape: 24 832 7 7 (978432)
I0403 14:32:44.300645 29936 net.cpp:148] Top shape: 24 832 7 7 (978432)
I0403 14:32:44.300662 29936 net.cpp:148] Top shape: 24 832 7 7 (978432)
I0403 14:32:44.300676 29936 net.cpp:148] Top shape: 24 832 7 7 (978432)
I0403 14:32:44.300690 29936 net.cpp:156] Memory required for data: 1292125728
I0403 14:32:44.300706 29936 layer_factory.hpp:77] Creating layer inception_5a/1x1
I0403 14:32:44.300729 29936 net.cpp:91] Creating Layer inception_5a/1x1
I0403 14:32:44.300746 29936 net.cpp:425] inception_5a/1x1 <- pool4/3x3_s2_pool4/3x3_s2_0_split_0
I0403 14:32:44.300768 29936 net.cpp:399] inception_5a/1x1 -> inception_5a/1x1
I0403 14:32:44.303653 29936 net.cpp:141] Setting up inception_5a/1x1
I0403 14:32:44.303686 29936 net.cpp:148] Top shape: 24 256 7 7 (301056)
I0403 14:32:44.303717 29936 net.cpp:156] Memory required for data: 1293329952
I0403 14:32:44.303737 29936 layer_factory.hpp:77] Creating layer inception_5a/relu_1x1
I0403 14:32:44.303755 29936 net.cpp:91] Creating Layer inception_5a/relu_1x1
I0403 14:32:44.303772 29936 net.cpp:425] inception_5a/relu_1x1 <- inception_5a/1x1
I0403 14:32:44.303791 29936 net.cpp:386] inception_5a/relu_1x1 -> inception_5a/1x1 (in-place)
I0403 14:32:44.304101 29936 net.cpp:141] Setting up inception_5a/relu_1x1
I0403 14:32:44.304131 29936 net.cpp:148] Top shape: 24 256 7 7 (301056)
I0403 14:32:44.304147 29936 net.cpp:156] Memory required for data: 1294534176
I0403 14:32:44.304162 29936 layer_factory.hpp:77] Creating layer inception_5a/3x3_reduce
I0403 14:32:44.304183 29936 net.cpp:91] Creating Layer inception_5a/3x3_reduce
I0403 14:32:44.304201 29936 net.cpp:425] inception_5a/3x3_reduce <- pool4/3x3_s2_pool4/3x3_s2_0_split_1
I0403 14:32:44.304224 29936 net.cpp:399] inception_5a/3x3_reduce -> inception_5a/3x3_reduce
I0403 14:32:44.306659 29936 net.cpp:141] Setting up inception_5a/3x3_reduce
I0403 14:32:44.306689 29936 net.cpp:148] Top shape: 24 160 7 7 (188160)
I0403 14:32:44.306705 29936 net.cpp:156] Memory required for data: 1295286816
I0403 14:32:44.306725 29936 layer_factory.hpp:77] Creating layer inception_5a/relu_3x3_reduce
I0403 14:32:44.306746 29936 net.cpp:91] Creating Layer inception_5a/relu_3x3_reduce
I0403 14:32:44.306764 29936 net.cpp:425] inception_5a/relu_3x3_reduce <- inception_5a/3x3_reduce
I0403 14:32:44.306783 29936 net.cpp:386] inception_5a/relu_3x3_reduce -> inception_5a/3x3_reduce (in-place)
I0403 14:32:44.306982 29936 net.cpp:141] Setting up inception_5a/relu_3x3_reduce
I0403 14:32:44.307009 29936 net.cpp:148] Top shape: 24 160 7 7 (188160)
I0403 14:32:44.307026 29936 net.cpp:156] Memory required for data: 1296039456
I0403 14:32:44.307042 29936 layer_factory.hpp:77] Creating layer inception_5a/3x3
I0403 14:32:44.307065 29936 net.cpp:91] Creating Layer inception_5a/3x3
I0403 14:32:44.307082 29936 net.cpp:425] inception_5a/3x3 <- inception_5a/3x3_reduce
I0403 14:32:44.307106 29936 net.cpp:399] inception_5a/3x3 -> inception_5a/3x3
I0403 14:32:44.312168 29936 net.cpp:141] Setting up inception_5a/3x3
I0403 14:32:44.312199 29936 net.cpp:148] Top shape: 24 320 7 7 (376320)
I0403 14:32:44.312216 29936 net.cpp:156] Memory required for data: 1297544736
I0403 14:32:44.312235 29936 layer_factory.hpp:77] Creating layer inception_5a/relu_3x3
I0403 14:32:44.312260 29936 net.cpp:91] Creating Layer inception_5a/relu_3x3
I0403 14:32:44.312280 29936 net.cpp:425] inception_5a/relu_3x3 <- inception_5a/3x3
I0403 14:32:44.312299 29936 net.cpp:386] inception_5a/relu_3x3 -> inception_5a/3x3 (in-place)
I0403 14:32:44.312603 29936 net.cpp:141] Setting up inception_5a/relu_3x3
I0403 14:32:44.312630 29936 net.cpp:148] Top shape: 24 320 7 7 (376320)
I0403 14:32:44.312646 29936 net.cpp:156] Memory required for data: 1299050016
I0403 14:32:44.312662 29936 layer_factory.hpp:77] Creating layer inception_5a/5x5_reduce
I0403 14:32:44.312687 29936 net.cpp:91] Creating Layer inception_5a/5x5_reduce
I0403 14:32:44.312706 29936 net.cpp:425] inception_5a/5x5_reduce <- pool4/3x3_s2_pool4/3x3_s2_0_split_2
I0403 14:32:44.312726 29936 net.cpp:399] inception_5a/5x5_reduce -> inception_5a/5x5_reduce
I0403 14:32:44.313901 29936 net.cpp:141] Setting up inception_5a/5x5_reduce
I0403 14:32:44.313946 29936 net.cpp:148] Top shape: 24 32 7 7 (37632)
I0403 14:32:44.313963 29936 net.cpp:156] Memory required for data: 1299200544
I0403 14:32:44.313982 29936 layer_factory.hpp:77] Creating layer inception_5a/relu_5x5_reduce
I0403 14:32:44.314002 29936 net.cpp:91] Creating Layer inception_5a/relu_5x5_reduce
I0403 14:32:44.314020 29936 net.cpp:425] inception_5a/relu_5x5_reduce <- inception_5a/5x5_reduce
I0403 14:32:44.314038 29936 net.cpp:386] inception_5a/relu_5x5_reduce -> inception_5a/5x5_reduce (in-place)
I0403 14:32:44.314332 29936 net.cpp:141] Setting up inception_5a/relu_5x5_reduce
I0403 14:32:44.314366 29936 net.cpp:148] Top shape: 24 32 7 7 (37632)
I0403 14:32:44.314383 29936 net.cpp:156] Memory required for data: 1299351072
I0403 14:32:44.314399 29936 layer_factory.hpp:77] Creating layer inception_5a/5x5
I0403 14:32:44.314422 29936 net.cpp:91] Creating Layer inception_5a/5x5
I0403 14:32:44.314440 29936 net.cpp:425] inception_5a/5x5 <- inception_5a/5x5_reduce
I0403 14:32:44.314460 29936 net.cpp:399] inception_5a/5x5 -> inception_5a/5x5
I0403 14:32:44.316164 29936 net.cpp:141] Setting up inception_5a/5x5
I0403 14:32:44.316213 29936 net.cpp:148] Top shape: 24 128 7 7 (150528)
I0403 14:32:44.316231 29936 net.cpp:156] Memory required for data: 1299953184
I0403 14:32:44.316251 29936 layer_factory.hpp:77] Creating layer inception_5a/relu_5x5
I0403 14:32:44.316272 29936 net.cpp:91] Creating Layer inception_5a/relu_5x5
I0403 14:32:44.316290 29936 net.cpp:425] inception_5a/relu_5x5 <- inception_5a/5x5
I0403 14:32:44.316309 29936 net.cpp:386] inception_5a/relu_5x5 -> inception_5a/5x5 (in-place)
I0403 14:32:44.316503 29936 net.cpp:141] Setting up inception_5a/relu_5x5
I0403 14:32:44.316542 29936 net.cpp:148] Top shape: 24 128 7 7 (150528)
I0403 14:32:44.316561 29936 net.cpp:156] Memory required for data: 1300555296
I0403 14:32:44.316577 29936 layer_factory.hpp:77] Creating layer inception_5a/pool
I0403 14:32:44.316596 29936 net.cpp:91] Creating Layer inception_5a/pool
I0403 14:32:44.316615 29936 net.cpp:425] inception_5a/pool <- pool4/3x3_s2_pool4/3x3_s2_0_split_3
I0403 14:32:44.316637 29936 net.cpp:399] inception_5a/pool -> inception_5a/pool
I0403 14:32:44.316709 29936 net.cpp:141] Setting up inception_5a/pool
I0403 14:32:44.316733 29936 net.cpp:148] Top shape: 24 832 7 7 (978432)
I0403 14:32:44.316750 29936 net.cpp:156] Memory required for data: 1304469024
I0403 14:32:44.316766 29936 layer_factory.hpp:77] Creating layer inception_5a/pool_proj
I0403 14:32:44.316790 29936 net.cpp:91] Creating Layer inception_5a/pool_proj
I0403 14:32:44.316824 29936 net.cpp:425] inception_5a/pool_proj <- inception_5a/pool
I0403 14:32:44.316843 29936 net.cpp:399] inception_5a/pool_proj -> inception_5a/pool_proj
I0403 14:32:44.319164 29936 net.cpp:141] Setting up inception_5a/pool_proj
I0403 14:32:44.319195 29936 net.cpp:148] Top shape: 24 128 7 7 (150528)
I0403 14:32:44.319211 29936 net.cpp:156] Memory required for data: 1305071136
I0403 14:32:44.319229 29936 layer_factory.hpp:77] Creating layer inception_5a/relu_pool_proj
I0403 14:32:44.319250 29936 net.cpp:91] Creating Layer inception_5a/relu_pool_proj
I0403 14:32:44.319269 29936 net.cpp:425] inception_5a/relu_pool_proj <- inception_5a/pool_proj
I0403 14:32:44.319288 29936 net.cpp:386] inception_5a/relu_pool_proj -> inception_5a/pool_proj (in-place)
I0403 14:32:44.319593 29936 net.cpp:141] Setting up inception_5a/relu_pool_proj
I0403 14:32:44.319620 29936 net.cpp:148] Top shape: 24 128 7 7 (150528)
I0403 14:32:44.319635 29936 net.cpp:156] Memory required for data: 1305673248
I0403 14:32:44.319651 29936 layer_factory.hpp:77] Creating layer inception_5a/output
I0403 14:32:44.319674 29936 net.cpp:91] Creating Layer inception_5a/output
I0403 14:32:44.319690 29936 net.cpp:425] inception_5a/output <- inception_5a/1x1
I0403 14:32:44.319708 29936 net.cpp:425] inception_5a/output <- inception_5a/3x3
I0403 14:32:44.319726 29936 net.cpp:425] inception_5a/output <- inception_5a/5x5
I0403 14:32:44.319742 29936 net.cpp:425] inception_5a/output <- inception_5a/pool_proj
I0403 14:32:44.319761 29936 net.cpp:399] inception_5a/output -> inception_5a/output
I0403 14:32:44.319811 29936 net.cpp:141] Setting up inception_5a/output
I0403 14:32:44.319836 29936 net.cpp:148] Top shape: 24 832 7 7 (978432)
I0403 14:32:44.319851 29936 net.cpp:156] Memory required for data: 1309586976
I0403 14:32:44.319866 29936 layer_factory.hpp:77] Creating layer inception_5a/output_inception_5a/output_0_split
I0403 14:32:44.319885 29936 net.cpp:91] Creating Layer inception_5a/output_inception_5a/output_0_split
I0403 14:32:44.319901 29936 net.cpp:425] inception_5a/output_inception_5a/output_0_split <- inception_5a/output
I0403 14:32:44.319922 29936 net.cpp:399] inception_5a/output_inception_5a/output_0_split -> inception_5a/output_inception_5a/output_0_split_0
I0403 14:32:44.319943 29936 net.cpp:399] inception_5a/output_inception_5a/output_0_split -> inception_5a/output_inception_5a/output_0_split_1
I0403 14:32:44.319965 29936 net.cpp:399] inception_5a/output_inception_5a/output_0_split -> inception_5a/output_inception_5a/output_0_split_2
I0403 14:32:44.319986 29936 net.cpp:399] inception_5a/output_inception_5a/output_0_split -> inception_5a/output_inception_5a/output_0_split_3
I0403 14:32:44.320096 29936 net.cpp:141] Setting up inception_5a/output_inception_5a/output_0_split
I0403 14:32:44.320123 29936 net.cpp:148] Top shape: 24 832 7 7 (978432)
I0403 14:32:44.320140 29936 net.cpp:148] Top shape: 24 832 7 7 (978432)
I0403 14:32:44.320158 29936 net.cpp:148] Top shape: 24 832 7 7 (978432)
I0403 14:32:44.320173 29936 net.cpp:148] Top shape: 24 832 7 7 (978432)
I0403 14:32:44.320188 29936 net.cpp:156] Memory required for data: 1325241888
I0403 14:32:44.320202 29936 layer_factory.hpp:77] Creating layer inception_5b/1x1
I0403 14:32:44.320224 29936 net.cpp:91] Creating Layer inception_5b/1x1
I0403 14:32:44.320241 29936 net.cpp:425] inception_5b/1x1 <- inception_5a/output_inception_5a/output_0_split_0
I0403 14:32:44.320261 29936 net.cpp:399] inception_5b/1x1 -> inception_5b/1x1
I0403 14:32:44.324023 29936 net.cpp:141] Setting up inception_5b/1x1
I0403 14:32:44.324065 29936 net.cpp:148] Top shape: 24 384 7 7 (451584)
I0403 14:32:44.324081 29936 net.cpp:156] Memory required for data: 1327048224
I0403 14:32:44.324100 29936 layer_factory.hpp:77] Creating layer inception_5b/relu_1x1
I0403 14:32:44.324122 29936 net.cpp:91] Creating Layer inception_5b/relu_1x1
I0403 14:32:44.324141 29936 net.cpp:425] inception_5b/relu_1x1 <- inception_5b/1x1
I0403 14:32:44.324158 29936 net.cpp:386] inception_5b/relu_1x1 -> inception_5b/1x1 (in-place)
I0403 14:32:44.324462 29936 net.cpp:141] Setting up inception_5b/relu_1x1
I0403 14:32:44.324489 29936 net.cpp:148] Top shape: 24 384 7 7 (451584)
I0403 14:32:44.324506 29936 net.cpp:156] Memory required for data: 1328854560
I0403 14:32:44.324535 29936 layer_factory.hpp:77] Creating layer inception_5b/3x3_reduce
I0403 14:32:44.324558 29936 net.cpp:91] Creating Layer inception_5b/3x3_reduce
I0403 14:32:44.324578 29936 net.cpp:425] inception_5b/3x3_reduce <- inception_5a/output_inception_5a/output_0_split_1
I0403 14:32:44.324600 29936 net.cpp:399] inception_5b/3x3_reduce -> inception_5b/3x3_reduce
I0403 14:32:44.327286 29936 net.cpp:141] Setting up inception_5b/3x3_reduce
I0403 14:32:44.327317 29936 net.cpp:148] Top shape: 24 192 7 7 (225792)
I0403 14:32:44.327337 29936 net.cpp:156] Memory required for data: 1329757728
I0403 14:32:44.327359 29936 layer_factory.hpp:77] Creating layer inception_5b/relu_3x3_reduce
I0403 14:32:44.327383 29936 net.cpp:91] Creating Layer inception_5b/relu_3x3_reduce
I0403 14:32:44.327404 29936 net.cpp:425] inception_5b/relu_3x3_reduce <- inception_5b/3x3_reduce
I0403 14:32:44.327422 29936 net.cpp:386] inception_5b/relu_3x3_reduce -> inception_5b/3x3_reduce (in-place)
I0403 14:32:44.327626 29936 net.cpp:141] Setting up inception_5b/relu_3x3_reduce
I0403 14:32:44.327652 29936 net.cpp:148] Top shape: 24 192 7 7 (225792)
I0403 14:32:44.327667 29936 net.cpp:156] Memory required for data: 1330660896
I0403 14:32:44.327682 29936 layer_factory.hpp:77] Creating layer inception_5b/3x3
I0403 14:32:44.327707 29936 net.cpp:91] Creating Layer inception_5b/3x3
I0403 14:32:44.327724 29936 net.cpp:425] inception_5b/3x3 <- inception_5b/3x3_reduce
I0403 14:32:44.327744 29936 net.cpp:399] inception_5b/3x3 -> inception_5b/3x3
I0403 14:32:44.334486 29936 net.cpp:141] Setting up inception_5b/3x3
I0403 14:32:44.334517 29936 net.cpp:148] Top shape: 24 384 7 7 (451584)
I0403 14:32:44.334534 29936 net.cpp:156] Memory required for data: 1332467232
I0403 14:32:44.334553 29936 layer_factory.hpp:77] Creating layer inception_5b/relu_3x3
I0403 14:32:44.334574 29936 net.cpp:91] Creating Layer inception_5b/relu_3x3
I0403 14:32:44.334591 29936 net.cpp:425] inception_5b/relu_3x3 <- inception_5b/3x3
I0403 14:32:44.334609 29936 net.cpp:386] inception_5b/relu_3x3 -> inception_5b/3x3 (in-place)
I0403 14:32:44.334904 29936 net.cpp:141] Setting up inception_5b/relu_3x3
I0403 14:32:44.334931 29936 net.cpp:148] Top shape: 24 384 7 7 (451584)
I0403 14:32:44.334947 29936 net.cpp:156] Memory required for data: 1334273568
I0403 14:32:44.334964 29936 layer_factory.hpp:77] Creating layer inception_5b/5x5_reduce
I0403 14:32:44.335005 29936 net.cpp:91] Creating Layer inception_5b/5x5_reduce
I0403 14:32:44.335024 29936 net.cpp:425] inception_5b/5x5_reduce <- inception_5a/output_inception_5a/output_0_split_2
I0403 14:32:44.335047 29936 net.cpp:399] inception_5b/5x5_reduce -> inception_5b/5x5_reduce
I0403 14:32:44.336290 29936 net.cpp:141] Setting up inception_5b/5x5_reduce
I0403 14:32:44.336319 29936 net.cpp:148] Top shape: 24 48 7 7 (56448)
I0403 14:32:44.336335 29936 net.cpp:156] Memory required for data: 1334499360
I0403 14:32:44.336361 29936 layer_factory.hpp:77] Creating layer inception_5b/relu_5x5_reduce
I0403 14:32:44.336386 29936 net.cpp:91] Creating Layer inception_5b/relu_5x5_reduce
I0403 14:32:44.336405 29936 net.cpp:425] inception_5b/relu_5x5_reduce <- inception_5b/5x5_reduce
I0403 14:32:44.336422 29936 net.cpp:386] inception_5b/relu_5x5_reduce -> inception_5b/5x5_reduce (in-place)
I0403 14:32:44.336808 29936 net.cpp:141] Setting up inception_5b/relu_5x5_reduce
I0403 14:32:44.336848 29936 net.cpp:148] Top shape: 24 48 7 7 (56448)
I0403 14:32:44.336864 29936 net.cpp:156] Memory required for data: 1334725152
I0403 14:32:44.336880 29936 layer_factory.hpp:77] Creating layer inception_5b/5x5
I0403 14:32:44.336901 29936 net.cpp:91] Creating Layer inception_5b/5x5
I0403 14:32:44.336920 29936 net.cpp:425] inception_5b/5x5 <- inception_5b/5x5_reduce
I0403 14:32:44.336940 29936 net.cpp:399] inception_5b/5x5 -> inception_5b/5x5
I0403 14:32:44.338981 29936 net.cpp:141] Setting up inception_5b/5x5
I0403 14:32:44.339012 29936 net.cpp:148] Top shape: 24 128 7 7 (150528)
I0403 14:32:44.339030 29936 net.cpp:156] Memory required for data: 1335327264
I0403 14:32:44.339051 29936 layer_factory.hpp:77] Creating layer inception_5b/relu_5x5
I0403 14:32:44.339082 29936 net.cpp:91] Creating Layer inception_5b/relu_5x5
I0403 14:32:44.339098 29936 net.cpp:425] inception_5b/relu_5x5 <- inception_5b/5x5
I0403 14:32:44.339118 29936 net.cpp:386] inception_5b/relu_5x5 -> inception_5b/5x5 (in-place)
I0403 14:32:44.339331 29936 net.cpp:141] Setting up inception_5b/relu_5x5
I0403 14:32:44.339377 29936 net.cpp:148] Top shape: 24 128 7 7 (150528)
I0403 14:32:44.339396 29936 net.cpp:156] Memory required for data: 1335929376
I0403 14:32:44.339411 29936 layer_factory.hpp:77] Creating layer inception_5b/pool
I0403 14:32:44.339429 29936 net.cpp:91] Creating Layer inception_5b/pool
I0403 14:32:44.339447 29936 net.cpp:425] inception_5b/pool <- inception_5a/output_inception_5a/output_0_split_3
I0403 14:32:44.339468 29936 net.cpp:399] inception_5b/pool -> inception_5b/pool
I0403 14:32:44.339541 29936 net.cpp:141] Setting up inception_5b/pool
I0403 14:32:44.339570 29936 net.cpp:148] Top shape: 24 832 7 7 (978432)
I0403 14:32:44.339586 29936 net.cpp:156] Memory required for data: 1339843104
I0403 14:32:44.339601 29936 layer_factory.hpp:77] Creating layer inception_5b/pool_proj
I0403 14:32:44.339624 29936 net.cpp:91] Creating Layer inception_5b/pool_proj
I0403 14:32:44.339643 29936 net.cpp:425] inception_5b/pool_proj <- inception_5b/pool
I0403 14:32:44.339663 29936 net.cpp:399] inception_5b/pool_proj -> inception_5b/pool_proj
I0403 14:32:44.341984 29936 net.cpp:141] Setting up inception_5b/pool_proj
I0403 14:32:44.342012 29936 net.cpp:148] Top shape: 24 128 7 7 (150528)
I0403 14:32:44.342030 29936 net.cpp:156] Memory required for data: 1340445216
I0403 14:32:44.342049 29936 layer_factory.hpp:77] Creating layer inception_5b/relu_pool_proj
I0403 14:32:44.342069 29936 net.cpp:91] Creating Layer inception_5b/relu_pool_proj
I0403 14:32:44.342087 29936 net.cpp:425] inception_5b/relu_pool_proj <- inception_5b/pool_proj
I0403 14:32:44.342105 29936 net.cpp:386] inception_5b/relu_pool_proj -> inception_5b/pool_proj (in-place)
I0403 14:32:44.342419 29936 net.cpp:141] Setting up inception_5b/relu_pool_proj
I0403 14:32:44.342459 29936 net.cpp:148] Top shape: 24 128 7 7 (150528)
I0403 14:32:44.342475 29936 net.cpp:156] Memory required for data: 1341047328
I0403 14:32:44.342492 29936 layer_factory.hpp:77] Creating layer inception_5b/output
I0403 14:32:44.342515 29936 net.cpp:91] Creating Layer inception_5b/output
I0403 14:32:44.342561 29936 net.cpp:425] inception_5b/output <- inception_5b/1x1
I0403 14:32:44.342581 29936 net.cpp:425] inception_5b/output <- inception_5b/3x3
I0403 14:32:44.342599 29936 net.cpp:425] inception_5b/output <- inception_5b/5x5
I0403 14:32:44.342617 29936 net.cpp:425] inception_5b/output <- inception_5b/pool_proj
I0403 14:32:44.342636 29936 net.cpp:399] inception_5b/output -> inception_5b/output
I0403 14:32:44.342691 29936 net.cpp:141] Setting up inception_5b/output
I0403 14:32:44.342715 29936 net.cpp:148] Top shape: 24 1024 7 7 (1204224)
I0403 14:32:44.342731 29936 net.cpp:156] Memory required for data: 1345864224
I0403 14:32:44.342746 29936 layer_factory.hpp:77] Creating layer pool5/7x7_s1
I0403 14:32:44.342764 29936 net.cpp:91] Creating Layer pool5/7x7_s1
I0403 14:32:44.342782 29936 net.cpp:425] pool5/7x7_s1 <- inception_5b/output
I0403 14:32:44.342803 29936 net.cpp:399] pool5/7x7_s1 -> pool5/7x7_s1
I0403 14:32:44.343024 29936 net.cpp:141] Setting up pool5/7x7_s1
I0403 14:32:44.343050 29936 net.cpp:148] Top shape: 24 1024 1 1 (24576)
I0403 14:32:44.343066 29936 net.cpp:156] Memory required for data: 1345962528
I0403 14:32:44.343082 29936 layer_factory.hpp:77] Creating layer pool5/drop_7x7_s1
I0403 14:32:44.343104 29936 net.cpp:91] Creating Layer pool5/drop_7x7_s1
I0403 14:32:44.343122 29936 net.cpp:425] pool5/drop_7x7_s1 <- pool5/7x7_s1
I0403 14:32:44.343140 29936 net.cpp:386] pool5/drop_7x7_s1 -> pool5/7x7_s1 (in-place)
I0403 14:32:44.343194 29936 net.cpp:141] Setting up pool5/drop_7x7_s1
I0403 14:32:44.343219 29936 net.cpp:148] Top shape: 24 1024 1 1 (24576)
I0403 14:32:44.343235 29936 net.cpp:156] Memory required for data: 1346060832
I0403 14:32:44.343250 29936 layer_factory.hpp:77] Creating layer loss3/classifier_plantvillage
I0403 14:32:44.343272 29936 net.cpp:91] Creating Layer loss3/classifier_plantvillage
I0403 14:32:44.343291 29936 net.cpp:425] loss3/classifier_plantvillage <- pool5/7x7_s1
I0403 14:32:44.343309 29936 net.cpp:399] loss3/classifier_plantvillage -> loss3/classifier_plantvillage
I0403 14:32:44.343770 29936 net.cpp:141] Setting up loss3/classifier_plantvillage
I0403 14:32:44.343797 29936 net.cpp:148] Top shape: 24 38 (912)
I0403 14:32:44.343812 29936 net.cpp:156] Memory required for data: 1346064480
I0403 14:32:44.343833 29936 layer_factory.hpp:77] Creating layer loss3/classifier_plantvillage_loss3/classifier_plantvillage_0_split
I0403 14:32:44.343852 29936 net.cpp:91] Creating Layer loss3/classifier_plantvillage_loss3/classifier_plantvillage_0_split
I0403 14:32:44.343869 29936 net.cpp:425] loss3/classifier_plantvillage_loss3/classifier_plantvillage_0_split <- loss3/classifier_plantvillage
I0403 14:32:44.343890 29936 net.cpp:399] loss3/classifier_plantvillage_loss3/classifier_plantvillage_0_split -> loss3/classifier_plantvillage_loss3/classifier_plantvillage_0_split_0
I0403 14:32:44.343914 29936 net.cpp:399] loss3/classifier_plantvillage_loss3/classifier_plantvillage_0_split -> loss3/classifier_plantvillage_loss3/classifier_plantvillage_0_split_1
I0403 14:32:44.343935 29936 net.cpp:399] loss3/classifier_plantvillage_loss3/classifier_plantvillage_0_split -> loss3/classifier_plantvillage_loss3/classifier_plantvillage_0_split_2
I0403 14:32:44.343955 29936 net.cpp:399] loss3/classifier_plantvillage_loss3/classifier_plantvillage_0_split -> loss3/classifier_plantvillage_loss3/classifier_plantvillage_0_split_3
I0403 14:32:44.344058 29936 net.cpp:141] Setting up loss3/classifier_plantvillage_loss3/classifier_plantvillage_0_split
I0403 14:32:44.344084 29936 net.cpp:148] Top shape: 24 38 (912)
I0403 14:32:44.344100 29936 net.cpp:148] Top shape: 24 38 (912)
I0403 14:32:44.344116 29936 net.cpp:148] Top shape: 24 38 (912)
I0403 14:32:44.344135 29936 net.cpp:148] Top shape: 24 38 (912)
I0403 14:32:44.344148 29936 net.cpp:156] Memory required for data: 1346079072
I0403 14:32:44.344164 29936 layer_factory.hpp:77] Creating layer loss1/loss
I0403 14:32:44.344187 29936 net.cpp:91] Creating Layer loss1/loss
I0403 14:32:44.344205 29936 net.cpp:425] loss1/loss <- loss1/classifier_plantvillage_loss1/classifier_plantvillage_0_split_0
I0403 14:32:44.344238 29936 net.cpp:425] loss1/loss <- label_data_1_split_0
…
