…
I0403 14:08:00.412611 29346 net.cpp:313] The NetState phase (1) differed from the phase (0) specified by a rule in layer data
I0403 14:08:00.414897 29346 net.cpp:49] Initializing net from parameters: 
state {
  phase: TEST
}
layer {
  name: "data"
  type: "Data"
  top: "data"
  top: "label"
  include {
    phase: TEST
  }
  transform_param {
    mirror: false
    crop_size: 224
    mean_file: "/home/mohanty/data/final_dataset/lmdb/color-20-80/mean.binaryproto"
  }
  data_param {
    source: "/home/mohanty/data/final_dataset/lmdb/color-20-80/test_db"
    batch_size: 24
    backend: LMDB
  }
}
layer {
  name: "conv1/7x7_s2"
  type: "Convolution"
  bottom: "data"
  top: "conv1/7x7_s2"
  param {
    lr_mult: 1
    decay_mult: 1
  }
  param {
    lr_mult: 2
    decay_mult: 0
  }
  convolution_param {
    num_output: 64
    pad: 3
    kernel_size: 7
    stride: 2
    weight_filler {
      type: "xavier"
      std: 0.1
    }
    bias_filler {
      type: "constant"
      value: 0.2
    }
  }
}
layer {
  name: "conv1/relu_7x7"
  type: "ReLU"
  bottom: "conv1/7x7_s2"
  top: "conv1/7x7_s2"
}
layer {
  name: "pool1/3x3_s2"
  type: "Pooling"
  bottom: "conv1/7x7_s2"
  top: "pool1/3x3_s2"
  pooling_param {
    pool: MAX
    kernel_size: 3
    stride: 2
  }
}
layer {
  name: "pool1/norm1"
  type: "LRN"
  bottom: "pool1/3x3_s2"
  top: "pool1/norm1"
  lrn_param {
    local_size: 5
    alpha: 0.0001
    beta: 0.75
  }
}
layer {
  name: "conv2/3x3_reduce"
  type: "Convolution"
  bottom: "pool1/norm1"
  top: "conv2/3x3_reduce"
  param {
    lr_mult: 1
    decay_mult: 1
  }
  param {
    lr_mult: 2
    decay_mult: 0
  }
  convolution_param {
    num_output: 64
    kernel_size: 1
    weight_filler {
      type: "xavier"
      std: 0.1
    }
    bias_filler {
      type: "constant"
      value: 0.2
    }
  }
}
layer {
  name: "conv2/relu_3x3_reduce"
  type: "ReLU"
  bottom: "conv2/3x3_reduce"
  top: "conv2/3x3_reduce"
}
layer {
  name: "conv2/3x3"
  type: "Convolution"
  bottom: "conv2/3x3_reduce"
  top: "conv2/3x3"
  param {
    lr_mult: 1
    decay_mult: 1
  }
  param {
    lr_mult: 2
    decay_mult: 0
  }
  convolution_param {
    num_output: 192
    pad: 1
    kernel_size: 3
    weight_filler {
      type: "xavier"
      std: 0.03
    }
    bias_filler {
      type: "constant"
      value: 0.2
    }
  }
}
layer {
  name: "conv2/relu_3x3"
  type: "ReLU"
  bottom: "conv2/3x3"
  top: "conv2/3x3"
}
layer {
  name: "conv2/norm2"
  type: "LRN"
  bottom: "conv2/3x3"
  top: "conv2/norm2"
  lrn_param {
    local_size: 5
    alpha: 0.0001
    beta: 0.75
  }
}
layer {
  name: "pool2/3x3_s2"
  type: "Pooling"
  bottom: "conv2/norm2"
  top: "pool2/3x3_s2"
  pooling_param {
    pool: MAX
    kernel_size: 3
    stride: 2
  }
}
layer {
  name: "inception_3a/1x1"
  type: "Convolution"
  bottom: "pool2/3x3_s2"
  top: "inception_3a/1x1"
  param {
    lr_mult: 1
    decay_mult: 1
  }
  param {
    lr_mult: 2
    decay_mult: 0
  }
  convolution_param {
    num_output: 64
    kernel_size: 1
    weight_filler {
      type: "xavier"
      std: 0.03
    }
    bias_filler {
      type: "constant"
      value: 0.2
    }
  }
}
layer {
  name: "inception_3a/relu_1x1"
  type: "ReLU"
  bottom: "inception_3a/1x1"
  top: "inception_3a/1x1"
}
layer {
  name: "inception_3a/3x3_reduce"
  type: "Convolution"
  bottom: "pool2/3x3_s2"
  top: "inception_3a/3x3_reduce"
  param {
    lr_mult: 1
    decay_mult: 1
  }
  param {
    lr_mult: 2
    decay_mult: 0
  }
  convolution_param {
    num_output: 96
    kernel_size: 1
    weight_filler {
      type: "xavier"
      std: 0.09
    }
    bias_filler {
      type: "constant"
      value: 0.2
    }
  }
}
layer {
  name: "inception_3a/relu_3x3_reduce"
  type: "ReLU"
  bottom: "inception_3a/3x3_reduce"
  top: "inception_3a/3x3_reduce"
}
layer {
  name: "inception_3a/3x3"
  type: "Convolution"
  bottom: "inception_3a/3x3_reduce"
  top: "inception_3a/3x3"
  param {
    lr_mult: 1
    decay_mult: 1
  }
  param {
    lr_mult: 2
    decay_mult: 0
  }
  convolution_param {
    num_output: 128
    pad: 1
    kernel_size: 3
    weight_filler {
      type: "xavier"
      std: 0.03
    }
    bias_filler {
      type: "constant"
      value: 0.2
    }
  }
}
layer {
  name: "inception_3a/relu_3x3"
  type: "ReLU"
  bottom: "inception_3a/3x3"
  top: "inception_3a/3x3"
}
layer {
  name: "inception_3a/5x5_reduce"
  type: "Convolution"
  bottom: "pool2/3x3_s2"
  top: "inception_3a/5x5_reduce"
  param {
    lr_mult: 1
    decay_mult: 1
  }
  param {
    lr_mult: 2
    decay_mult: 0
  }
  convolution_param {
    num_output: 16
    kernel_size: 1
    weight_filler {
      type: "xavier"
      std: 0.2
    }
    bias_filler {
      type: "constant"
      value: 0.2
    }
  }
}
layer {
  name: "inception_3a/relu_5x5_reduce"
  type: "ReLU"
  bottom: "inception_3a/5x5_reduce"
  top: "inception_3a/5x5_reduce"
}
layer {
  name: "inception_3a/5x5"
  type: "Convolution"
  bottom: "inception_3a/5x5_reduce"
  top: "inception_3a/5x5"
  param {
    lr_mult: 1
    decay_mult: 1
  }
  param {
    lr_mult: 2
    decay_mult: 0
  }
  convolution_param {
    num_output: 32
    pad: 2
    kernel_size: 5
    weight_filler {
      type: "xavier"
      std: 0.03
    }
    bias_filler {
      type: "constant"
      value: 0.2
    }
  }
}
layer {
  name: "inception_3a/relu_5x5"
  type: "ReLU"
  bottom: "inception_3a/5x5"
  top: "inception_3a/5x5"
}
layer {
  name: "inception_3a/pool"
  type: "Pooling"
  bottom: "pool2/3x3_s2"
  top: "inception_3a/pool"
  pooling_param {
    pool: MAX
    kernel_size: 3
    stride: 1
    pad: 1
  }
}
layer {
  name: "inception_3a/pool_proj"
  type: "Convolution"
  bottom: "inception_3a/pool"
  top: "inception_3a/pool_proj"
  param {
    lr_mult: 1
    decay_mult: 1
  }
  param {
    lr_mult: 2
    decay_mult: 0
  }
  convolution_param {
    num_output: 32
    kernel_size: 1
    weight_filler {
      type: "xavier"
      std: 0.1
    }
    bias_filler {
      type: "constant"
      value: 0.2
    }
  }
}
layer {
  name: "inception_3a/relu_pool_proj"
  type: "ReLU"
  bottom: "inception_3a/pool_proj"
  top: "inception_3a/pool_proj"
}
layer {
  name: "inception_3a/output"
  type: "Concat"
  bottom: "inception_3a/1x1"
  bottom: "inception_3a/3x3"
  bottom: "inception_3a/5x5"
  bottom: "inception_3a/pool_proj"
  top: "inception_3a/output"
}
layer {
  name: "inception_3b/1x1"
  type: "Convolution"
  bottom: "inception_3a/output"
  top: "inception_3b/1x1"
  param {
    lr_mult: 1
    decay_mult: 1
  }
  param {
    lr_mult: 2
    decay_mult: 0
  }
  convolution_param {
    num_output: 128
    kernel_size: 1
    weight_filler {
      type: "xavier"
      std: 0.03
    }
    bias_filler {
      type: "constant"
      value: 0.2
    }
  }
}
layer {
  name: "inception_3b/relu_1x1"
  type: "ReLU"
  bottom: "inception_3b/1x1"
  top: "inception_3b/1x1"
}
layer {
  name: "inception_3b/3x3_reduce"
  type: "Convolution"
  bottom: "inception_3a/output"
  top: "inception_3b/3x3_reduce"
  param {
    lr_mult: 1
    decay_mult: 1
  }
  param {
    lr_mult: 2
    decay_mult: 0
  }
  convolution_param {
    num_output: 128
    kernel_size: 1
    weight_filler {
      type: "xavier"
      std: 0.09
    }
    bias_filler {
      type: "constant"
      value: 0.2
    }
  }
}
layer {
  name: "inception_3b/relu_3x3_reduce"
  type: "ReLU"
  bottom: "inception_3b/3x3_reduce"
  top: "inception_3b/3x3_reduce"
}
layer {
  name: "inception_3b/3x3"
  type: "Convolution"
  bottom: "inception_3b/3x3_reduce"
  top: "inception_3b/3x3"
  param {
    lr_mult: 1
    decay_mult: 1
  }
  param {
    lr_mult: 2
    decay_mult: 0
  }
  convolution_param {
    num_output: 192
    pad: 1
    kernel_size: 3
    weight_filler {
      type: "xavier"
      std: 0.03
    }
    bias_filler {
      type: "constant"
      value: 0.2
    }
  }
}
layer {
  name: "inception_3b/relu_3x3"
  type: "ReLU"
  bottom: "inception_3b/3x3"
  top: "inception_3b/3x3"
}
layer {
  name: "inception_3b/5x5_reduce"
  type: "Convolution"
  bottom: "inception_3a/output"
  top: "inception_3b/5x5_reduce"
  param {
    lr_mult: 1
    decay_mult: 1
  }
  param {
    lr_mult: 2
    decay_mult: 0
  }
  convolution_param {
    num_output: 32
    kernel_size: 1
    weight_filler {
      type: "xavier"
      std: 0.2
    }
    bias_filler {
      type: "constant"
      value: 0.2
    }
  }
}
layer {
  name: "inception_3b/relu_5x5_reduce"
  type: "ReLU"
  bottom: "inception_3b/5x5_reduce"
  top: "inception_3b/5x5_reduce"
}
layer {
  name: "inception_3b/5x5"
  type: "Convolution"
  bottom: "inception_3b/5x5_reduce"
  top: "inception_3b/5x5"
  param {
    lr_mult: 1
    decay_mult: 1
  }
  param {
    lr_mult: 2
    decay_mult: 0
  }
  convolution_param {
    num_output: 96
    pad: 2
    kernel_size: 5
    weight_filler {
      type: "xavier"
      std: 0.03
    }
    bias_filler {
      type: "constant"
      value: 0.2
    }
  }
}
layer {
  name: "inception_3b/relu_5x5"
  type: "ReLU"
  bottom: "inception_3b/5x5"
  top: "inception_3b/5x5"
}
layer {
  name: "inception_3b/pool"
  type: "Pooling"
  bottom: "inception_3a/output"
  top: "inception_3b/pool"
  pooling_param {
    pool: MAX
    kernel_size: 3
    stride: 1
    pad: 1
  }
}
layer {
  name: "inception_3b/pool_proj"
  type: "Convolution"
  bottom: "inception_3b/pool"
  top: "inception_3b/pool_proj"
  param {
    lr_mult: 1
    decay_mult: 1
  }
  param {
    lr_mult: 2
    decay_mult: 0
  }
  convolution_param {
    num_output: 64
    kernel_size: 1
    weight_filler {
      type: "xavier"
      std: 0.1
    }
    bias_filler {
      type: "constant"
      value: 0.2
    }
  }
}
layer {
  name: "inception_3b/relu_pool_proj"
  type: "ReLU"
  bottom: "inception_3b/pool_proj"
  top: "inception_3b/pool_proj"
}
layer {
  name: "inception_3b/output"
  type: "Concat"
  bottom: "inception_3b/1x1"
  bottom: "inception_3b/3x3"
  bottom: "inception_3b/5x5"
  bottom: "inception_3b/pool_proj"
  top: "inception_3b/output"
}
layer {
  name: "pool3/3x3_s2"
  type: "Pooling"
  bottom: "inception_3b/output"
  top: "pool3/3x3_s2"
  pooling_param {
    pool: MAX
    kernel_size: 3
    stride: 2
  }
}
layer {
  name: "inception_4a/1x1"
  type: "Convolution"
  bottom: "pool3/3x3_s2"
  top: "inception_4a/1x1"
  param {
    lr_mult: 1
    decay_mult: 1
  }
  param {
    lr_mult: 2
    decay_mult: 0
  }
  convolution_param {
    num_output: 192
    kernel_size: 1
    weight_filler {
      type: "xavier"
      std: 0.03
    }
    bias_filler {
      type: "constant"
      value: 0.2
    }
  }
}
layer {
  name: "inception_4a/relu_1x1"
  type: "ReLU"
  bottom: "inception_4a/1x1"
  top: "inception_4a/1x1"
}
layer {
  name: "inception_4a/3x3_reduce"
  type: "Convolution"
  bottom: "pool3/3x3_s2"
  top: "inception_4a/3x3_reduce"
  param {
    lr_mult: 1
    decay_mult: 1
  }
  param {
    lr_mult: 2
    decay_mult: 0
  }
  convolution_param {
    num_output: 96
    kernel_size: 1
    weight_filler {
      type: "xavier"
      std: 0.09
    }
    bias_filler {
      type: "constant"
      value: 0.2
    }
  }
}
layer {
  name: "inception_4a/relu_3x3_reduce"
  type: "ReLU"
  bottom: "inception_4a/3x3_reduce"
  top: "inception_4a/3x3_reduce"
}
layer {
  name: "inception_4a/3x3"
  type: "Convolution"
  bottom: "inception_4a/3x3_reduce"
  top: "inception_4a/3x3"
  param {
    lr_mult: 1
    decay_mult: 1
  }
  param {
    lr_mult: 2
    decay_mult: 0
  }
  convolution_param {
    num_output: 208
    pad: 1
    kernel_size: 3
    weight_filler {
      type: "xavier"
      std: 0.03
    }
    bias_filler {
      type: "constant"
      value: 0.2
    }
  }
}
layer {
  name: "inception_4a/relu_3x3"
  type: "ReLU"
  bottom: "inception_4a/3x3"
  top: "inception_4a/3x3"
}
layer {
  name: "inception_4a/5x5_reduce"
  type: "Convolution"
  bottom: "pool3/3x3_s2"
  top: "inception_4a/5x5_reduce"
  param {
    lr_mult: 1
    decay_mult: 1
  }
  param {
    lr_mult: 2
    decay_mult: 0
  }
  convolution_param {
    num_output: 16
    kernel_size: 1
    weight_filler {
      type: "xavier"
      std: 0.2
    }
    bias_filler {
      type: "constant"
      value: 0.2
    }
  }
}
layer {
  name: "inception_4a/relu_5x5_reduce"
  type: "ReLU"
  bottom: "inception_4a/5x5_reduce"
  top: "inception_4a/5x5_reduce"
}
layer {
  name: "inception_4a/5x5"
  type: "Convolution"
  bottom: "inception_4a/5x5_reduce"
  top: "inception_4a/5x5"
  param {
    lr_mult: 1
    decay_mult: 1
  }
  param {
    lr_mult: 2
    decay_mult: 0
  }
  convolution_param {
    num_output: 48
    pad: 2
    kernel_size: 5
    weight_filler {
      type: "xavier"
      std: 0.03
    }
    bias_filler {
      type: "constant"
      value: 0.2
    }
  }
}
layer {
  name: "inception_4a/relu_5x5"
  type: "ReLU"
  bottom: "inception_4a/5x5"
  top: "inception_4a/5x5"
}
layer {
  name: "inception_4a/pool"
  type: "Pooling"
  bottom: "pool3/3x3_s2"
  top: "inception_4a/pool"
  pooling_param {
    pool: MAX
    kernel_size: 3
    stride: 1
    pad: 1
  }
}
layer {
  name: "inception_4a/pool_proj"
  type: "Convolution"
  bottom: "inception_4a/pool"
  top: "inception_4a/pool_proj"
  param {
    lr_mult: 1
    decay_mult: 1
  }
  param {
    lr_mult: 2
    decay_mult: 0
  }
  convolution_param {
    num_output: 64
    kernel_size: 1
    weight_filler {
      type: "xavier"
      std: 0.1
    }
    bias_filler {
      type: "constant"
      value: 0.2
    }
  }
}
layer {
  name: "inception_4a/relu_pool_proj"
  type: "ReLU"
  bottom: "inception_4a/pool_proj"
  top: "inception_4a/pool_proj"
}
layer {
  name: "inception_4a/output"
  type: "Concat"
  bottom: "inception_4a/1x1"
  bottom: "inception_4a/3x3"
  bottom: "inception_4a/5x5"
  bottom: "inception_4a/pool_proj"
  top: "inception_4a/output"
}
layer {
  name: "loss1/ave_pool"
  type: "Pooling"
  bottom: "inception_4a/output"
  top: "loss1/ave_pool"
  pooling_param {
    pool: AVE
    kernel_size: 5
    stride: 3
  }
}
layer {
  name: "loss1/conv"
  type: "Convolution"
  bottom: "loss1/ave_pool"
  top: "loss1/conv"
  param {
    lr_mult: 1
    decay_mult: 1
  }
  param {
    lr_mult: 2
    decay_mult: 0
  }
  convolution_param {
    num_output: 128
    kernel_size: 1
    weight_filler {
      type: "xavier"
      std: 0.08
    }
    bias_filler {
      type: "constant"
      value: 0.2
    }
  }
}
layer {
  name: "loss1/relu_conv"
  type: "ReLU"
  bottom: "loss1/conv"
  top: "loss1/conv"
}
layer {
  name: "loss1/fc"
  type: "InnerProduct"
  bottom: "loss1/conv"
  top: "loss1/fc"
  param {
    lr_mult: 1
    decay_mult: 1
  }
  param {
    lr_mult: 2
    decay_mult: 0
  }
  inner_product_param {
    num_output: 1024
    weight_filler {
      type: "xavier"
      std: 0.02
    }
    bias_filler {
      type: "constant"
      value: 0.2
    }
  }
}
layer {
  name: "loss1/relu_fc"
  type: "ReLU"
  bottom: "loss1/fc"
  top: "loss1/fc"
}
layer {
  name: "loss1/drop_fc"
  type: "Dropout"
  bottom: "loss1/fc"
  top: "loss1/fc"
  dropout_param {
    dropout_ratio: 0.7
  }
}
layer {
  name: "loss1/classifier_plantvillage"
  type: "InnerProduct"
  bottom: "loss1/fc"
  top: "loss1/classifier_plantvillage"
  param {
    lr_mult: 1
    decay_mult: 1
  }
  param {
    lr_mult: 2
    decay_mult: 0
  }
  inner_product_param {
    num_output: 38
    weight_filler {
      type: "xavier"
      std: 0.0009765625
    }
    bias_filler {
      type: "constant"
      value: 0
    }
  }
}
layer {
  name: "inception_4b/1x1"
  type: "Convolution"
  bottom: "inception_4a/output"
  top: "inception_4b/1x1"
  param {
    lr_mult: 1
    decay_mult: 1
  }
  param {
    lr_mult: 2
    decay_mult: 0
  }
  convolution_param {
    num_output: 160
    kernel_size: 1
    weight_filler {
      type: "xavier"
      std: 0.03
    }
    bias_filler {
      type: "constant"
      value: 0.2
    }
  }
}
layer {
  name: "inception_4b/relu_1x1"
  type: "ReLU"
  bottom: "inception_4b/1x1"
  top: "inception_4b/1x1"
}
layer {
  name: "inception_4b/3x3_reduce"
  type: "Convolution"
  bottom: "inception_4a/output"
  top: "inception_4b/3x3_reduce"
  param {
    lr_mult: 1
    decay_mult: 1
  }
  param {
    lr_mult: 2
    decay_mult: 0
  }
  convolution_param {
    num_output: 112
    kernel_size: 1
    weight_filler {
      type: "xavier"
      std: 0.09
    }
    bias_filler {
      type: "constant"
      value: 0.2
    }
  }
}
layer {
  name: "inception_4b/relu_3x3_reduce"
  type: "ReLU"
  bottom: "inception_4b/3x3_reduce"
  top: "inception_4b/3x3_reduce"
}
layer {
  name: "inception_4b/3x3"
  type: "Convolution"
  bottom: "inception_4b/3x3_reduce"
  top: "inception_4b/3x3"
  param {
    lr_mult: 1
    decay_mult: 1
  }
  param {
    lr_mult: 2
    decay_mult: 0
  }
  convolution_param {
    num_output: 224
    pad: 1
    kernel_size: 3
    weight_filler {
      type: "xavier"
      std: 0.03
    }
    bias_filler {
      type: "constant"
      value: 0.2
    }
  }
}
layer {
  name: "inception_4b/relu_3x3"
  type: "ReLU"
  bottom: "inception_4b/3x3"
  top: "inception_4b/3x3"
}
layer {
  name: "inception_4b/5x5_reduce"
  type: "Convolution"
  bottom: "inception_4a/output"
  top: "inception_4b/5x5_reduce"
  param {
    lr_mult: 1
    decay_mult: 1
  }
  param {
    lr_mult: 2
    decay_mult: 0
  }
  convolution_param {
    num_output: 24
    kernel_size: 1
    weight_filler {
      type: "xavier"
      std: 0.2
    }
    bias_filler {
      type: "constant"
      value: 0.2
    }
  }
}
layer {
  name: "inception_4b/relu_5x5_reduce"
  type: "ReLU"
  bottom: "inception_4b/5x5_reduce"
  top: "inception_4b/5x5_reduce"
}
layer {
  name: "inception_4b/5x5"
  type: "Convolution"
  bottom: "inception_4b/5x5_reduce"
  top: "inception_4b/5x5"
  param {
    lr_mult: 1
    decay_mult: 1
  }
  param {
    lr_mult: 2
    decay_mult: 0
  }
  convolution_param {
    num_output: 64
    pad: 2
    kernel_size: 5
    weight_filler {
      type: "xavier"
      std: 0.03
    }
    bias_filler {
      type: "constant"
      value: 0.2
    }
  }
}
layer {
  name: "inception_4b/relu_5x5"
  type: "ReLU"
  bottom: "inception_4b/5x5"
  top: "inception_4b/5x5"
}
layer {
  name: "inception_4b/pool"
  type: "Pooling"
  bottom: "inception_4a/output"
  top: "inception_4b/pool"
  pooling_param {
    pool: MAX
    kernel_size: 3
    stride: 1
    pad: 1
  }
}
layer {
  name: "inception_4b/pool_proj"
  type: "Convolution"
  bottom: "inception_4b/pool"
  top: "inception_4b/pool_proj"
  param {
    lr_mult: 1
    decay_mult: 1
  }
  param {
    lr_mult: 2
    decay_mult: 0
  }
  convolution_param {
    num_output: 64
    kernel_size: 1
    weight_filler {
      type: "xavier"
      std: 0.1
    }
    bias_filler {
      type: "constant"
      value: 0.2
    }
  }
}
layer {
  name: "inception_4b/relu_pool_proj"
  type: "ReLU"
  bottom: "inception_4b/pool_proj"
  top: "inception_4b/pool_proj"
}
layer {
  name: "inception_4b/output"
  type: "Concat"
  bottom: "inception_4b/1x1"
  bottom: "inception_4b/3x3"
  bottom: "inception_4b/5x5"
  bottom: "inception_4b/pool_proj"
  top: "inception_4b/output"
}
layer {
  name: "inception_4c/1x1"
  type: "Convolution"
  bottom: "inception_4b/output"
  top: "inception_4c/1x1"
  param {
    lr_mult: 1
    decay_mult: 1
  }
  param {
    lr_mult: 2
    decay_mult: 0
  }
  convolution_param {
    num_output: 128
    kernel_size: 1
    weight_filler {
      type: "xavier"
      std: 0.03
    }
    bias_filler {
      type: "constant"
      value: 0.2
    }
  }
}
layer {
  name: "inception_4c/relu_1x1"
  type: "ReLU"
  bottom: "inception_4c/1x1"
  top: "inception_4c/1x1"
}
layer {
  name: "inception_4c/3x3_reduce"
  type: "Convolution"
  bottom: "inception_4b/output"
  top: "inception_4c/3x3_reduce"
  param {
    lr_mult: 1
    decay_mult: 1
  }
  param {
    lr_mult: 2
    decay_mult: 0
  }
  convolution_param {
    num_output: 128
    kernel_size: 1
    weight_filler {
      type: "xavier"
      std: 0.09
    }
    bias_filler {
      type: "constant"
      value: 0.2
    }
  }
}
layer {
  name: "inception_4c/relu_3x3_reduce"
  type: "ReLU"
  bottom: "inception_4c/3x3_reduce"
  top: "inception_4c/3x3_reduce"
}
layer {
  name: "inception_4c/3x3"
  type: "Convolution"
  bottom: "inception_4c/3x3_reduce"
  top: "inception_4c/3x3"
  param {
    lr_mult: 1
    decay_mult: 1
  }
  param {
    lr_mult: 2
    decay_mult: 0
  }
  convolution_param {
    num_output: 256
    pad: 1
    kernel_size: 3
    weight_filler {
      type: "xavier"
      std: 0.03
    }
    bias_filler {
      type: "constant"
      value: 0.2
    }
  }
}
layer {
  name: "inception_4c/relu_3x3"
  type: "ReLU"
  bottom: "inception_4c/3x3"
  top: "inception_4c/3x3"
}
layer {
  name: "inception_4c/5x5_reduce"
  type: "Convolution"
  bottom: "inception_4b/output"
  top: "inception_4c/5x5_reduce"
  param {
    lr_mult: 1
    decay_mult: 1
  }
  param {
    lr_mult: 2
    decay_mult: 0
  }
  convolution_param {
    num_output: 24
    kernel_size: 1
    weight_filler {
      type: "xavier"
      std: 0.2
    }
    bias_filler {
      type: "constant"
      value: 0.2
    }
  }
}
layer {
  name: "inception_4c/relu_5x5_reduce"
  type: "ReLU"
  bottom: "inception_4c/5x5_reduce"
  top: "inception_4c/5x5_reduce"
}
layer {
  name: "inception_4c/5x5"
  type: "Convolution"
  bottom: "inception_4c/5x5_reduce"
  top: "inception_4c/5x5"
  param {
    lr_mult: 1
    decay_mult: 1
  }
  param {
    lr_mult: 2
    decay_mult: 0
  }
  convolution_param {
    num_output: 64
    pad: 2
    kernel_size: 5
    weight_filler {
      type: "xavier"
      std: 0.03
    }
    bias_filler {
      type: "constant"
      value: 0.2
    }
  }
}
layer {
  name: "inception_4c/relu_5x5"
  type: "ReLU"
  bottom: "inception_4c/5x5"
  top: "inception_4c/5x5"
}
layer {
  name: "inception_4c/pool"
  type: "Pooling"
  bottom: "inception_4b/output"
  top: "inception_4c/pool"
  pooling_param {
    pool: MAX
    kernel_size: 3
    stride: 1
    pad: 1
  }
}
layer {
  name: "inception_4c/pool_proj"
  type: "Convolution"
  bottom: "inception_4c/pool"
  top: "inception_4c/pool_proj"
  param {
    lr_mult: 1
    decay_mult: 1
  }
  param {
    lr_mult: 2
    decay_mult: 0
  }
  convolution_param {
    num_output: 64
    kernel_size: 1
    weight_filler {
      type: "xavier"
      std: 0.1
    }
    bias_filler {
      type: "constant"
      value: 0.2
    }
  }
}
layer {
  name: "inception_4c/relu_pool_proj"
  type: "ReLU"
  bottom: "inception_4c/pool_proj"
  top: "inception_4c/pool_proj"
}
layer {
  name: "inception_4c/output"
  type: "Concat"
  bottom: "inception_4c/1x1"
  bottom: "inception_4c/3x3"
  bottom: "inception_4c/5x5"
  bottom: "inception_4c/pool_proj"
  top: "inception_4c/output"
}
layer {
  name: "inception_4d/1x1"
  type: "Convolution"
  bottom: "inception_4c/output"
  top: "inception_4d/1x1"
  param {
    lr_mult: 1
    decay_mult: 1
  }
  param {
    lr_mult: 2
    decay_mult: 0
  }
  convolution_param {
    num_output: 112
    kernel_size: 1
    weight_filler {
      type: "xavier"
      std: 0.03
    }
    bias_filler {
      type: "constant"
      value: 0.2
    }
  }
}
layer {
  name: "inception_4d/relu_1x1"
  type: "ReLU"
  bottom: "inception_4d/1x1"
  top: "inception_4d/1x1"
}
layer {
  name: "inception_4d/3x3_reduce"
  type: "Convolution"
  bottom: "inception_4c/output"
  top: "inception_4d/3x3_reduce"
  param {
    lr_mult: 1
    decay_mult: 1
  }
  param {
    lr_mult: 2
    decay_mult: 0
  }
  convolution_param {
    num_output: 144
    kernel_size: 1
    weight_filler {
      type: "xavier"
      std: 0.09
    }
    bias_filler {
      type: "constant"
      value: 0.2
    }
  }
}
layer {
  name: "inception_4d/relu_3x3_reduce"
  type: "ReLU"
  bottom: "inception_4d/3x3_reduce"
  top: "inception_4d/3x3_reduce"
}
layer {
  name: "inception_4d/3x3"
  type: "Convolution"
  bottom: "inception_4d/3x3_reduce"
  top: "inception_4d/3x3"
  param {
    lr_mult: 1
    decay_mult: 1
  }
  param {
    lr_mult: 2
    decay_mult: 0
  }
  convolution_param {
    num_output: 288
    pad: 1
    kernel_size: 3
    weight_filler {
      type: "xavier"
      std: 0.03
    }
    bias_filler {
      type: "constant"
      value: 0.2
    }
  }
}
layer {
  name: "inception_4d/relu_3x3"
  type: "ReLU"
  bottom: "inception_4d/3x3"
  top: "inception_4d/3x3"
}
layer {
  name: "inception_4d/5x5_reduce"
  type: "Convolution"
  bottom: "inception_4c/output"
  top: "inception_4d/5x5_reduce"
  param {
    lr_mult: 1
    decay_mult: 1
  }
  param {
    lr_mult: 2
    decay_mult: 0
  }
  convolution_param {
    num_output: 32
    kernel_size: 1
    weight_filler {
      type: "xavier"
      std: 0.2
    }
    bias_filler {
      type: "constant"
      value: 0.2
    }
  }
}
layer {
  name: "inception_4d/relu_5x5_reduce"
  type: "ReLU"
  bottom: "inception_4d/5x5_reduce"
  top: "inception_4d/5x5_reduce"
}
layer {
  name: "inception_4d/5x5"
  type: "Convolution"
  bottom: "inception_4d/5x5_reduce"
  top: "inception_4d/5x5"
  param {
    lr_mult: 1
    decay_mult: 1
  }
  param {
    lr_mult: 2
    decay_mult: 0
  }
  convolution_param {
    num_output: 64
    pad: 2
    kernel_size: 5
    weight_filler {
      type: "xavier"
      std: 0.03
    }
    bias_filler {
      type: "constant"
      value: 0.2
    }
  }
}
layer {
  name: "inception_4d/relu_5x5"
  type: "ReLU"
  bottom: "inception_4d/5x5"
  top: "inception_4d/5x5"
}
layer {
  name: "inception_4d/pool"
  type: "Pooling"
  bottom: "inception_4c/output"
  top: "inception_4d/pool"
  pooling_param {
    pool: MAX
    kernel_size: 3
    stride: 1
    pad: 1
  }
}
layer {
  name: "inception_4d/pool_proj"
  type: "Convolution"
  bottom: "inception_4d/pool"
  top: "inception_4d/pool_proj"
  param {
    lr_mult: 1
    decay_mult: 1
  }
  param {
    lr_mult: 2
    decay_mult: 0
  }
  convolution_param {
    num_output: 64
    kernel_size: 1
    weight_filler {
      type: "xavier"
      std: 0.1
    }
    bias_filler {
      type: "constant"
      value: 0.2
    }
  }
}
layer {
  name: "inception_4d/relu_pool_proj"
  type: "ReLU"
  bottom: "inception_4d/pool_proj"
  top: "inception_4d/pool_proj"
}
layer {
  name: "inception_4d/output"
  type: "Concat"
  bottom: "inception_4d/1x1"
  bottom: "inception_4d/3x3"
  bottom: "inception_4d/5x5"
  bottom: "inception_4d/pool_proj"
  top: "inception_4d/output"
}
layer {
  name: "loss2/ave_pool"
  type: "Pooling"
  bottom: "inception_4d/output"
  top: "loss2/ave_pool"
  pooling_param {
    pool: AVE
    kernel_size: 5
    stride: 3
  }
}
layer {
  name: "loss2/conv"
  type: "Convolution"
  bottom: "loss2/ave_pool"
  top: "loss2/conv"
  param {
    lr_mult: 1
    decay_mult: 1
  }
  param {
    lr_mult: 2
    decay_mult: 0
  }
  convolution_param {
    num_output: 128
    kernel_size: 1
    weight_filler {
      type: "xavier"
      std: 0.08
    }
    bias_filler {
      type: "constant"
      value: 0.2
    }
  }
}
layer {
  name: "loss2/relu_conv"
  type: "ReLU"
  bottom: "loss2/conv"
  top: "loss2/conv"
}
layer {
  name: "loss2/fc"
  type: "InnerProduct"
  bottom: "loss2/conv"
  top: "loss2/fc"
  param {
    lr_mult: 1
    decay_mult: 1
  }
  param {
    lr_mult: 2
    decay_mult: 0
  }
  inner_product_param {
    num_output: 1024
    weight_filler {
      type: "xavier"
      std: 0.02
    }
    bias_filler {
      type: "constant"
      value: 0.2
    }
  }
}
layer {
  name: "loss2/relu_fc"
  type: "ReLU"
  bottom: "loss2/fc"
  top: "loss2/fc"
}
layer {
  name: "loss2/drop_fc"
  type: "Dropout"
  bottom: "loss2/fc"
  top: "loss2/fc"
  dropout_param {
    dropout_ratio: 0.7
  }
}
layer {
  name: "loss2/classifier_plantvillage"
  type: "InnerProduct"
  bottom: "loss2/fc"
  top: "loss2/classifier_plantvillage"
  param {
    lr_mult: 1
    decay_mult: 1
  }
  param {
    lr_mult: 2
    decay_mult: 0
  }
  inner_product_param {
    num_output: 38
    weight_filler {
      type: "xavier"
      std: 0.0009765625
    }
    bias_filler {
      type: "constant"
      value: 0
    }
  }
}
layer {
  name: "inception_4e/1x1"
  type: "Convolution"
  bottom: "inception_4d/output"
  top: "inception_4e/1x1"
  param {
    lr_mult: 1
    decay_mult: 1
  }
  param {
    lr_mult: 2
    decay_mult: 0
  }
  convolution_param {
    num_output: 256
    kernel_size: 1
    weight_filler {
      type: "xavier"
      std: 0.03
    }
    bias_filler {
      type: "constant"
      value: 0.2
    }
  }
}
layer {
  name: "inception_4e/relu_1x1"
  type: "ReLU"
  bottom: "inception_4e/1x1"
  top: "inception_4e/1x1"
}
layer {
  name: "inception_4e/3x3_reduce"
  type: "Convolution"
  bottom: "inception_4d/output"
  top: "inception_4e/3x3_reduce"
  param {
    lr_mult: 1
    decay_mult: 1
  }
  param {
    lr_mult: 2
    decay_mult: 0
  }
  convolution_param {
    num_output: 160
    kernel_size: 1
    weight_filler {
      type: "xavier"
      std: 0.09
    }
    bias_filler {
      type: "constant"
      value: 0.2
    }
  }
}
layer {
  name: "inception_4e/relu_3x3_reduce"
  type: "ReLU"
  bottom: "inception_4e/3x3_reduce"
  top: "inception_4e/3x3_reduce"
}
layer {
  name: "inception_4e/3x3"
  type: "Convolution"
  bottom: "inception_4e/3x3_reduce"
  top: "inception_4e/3x3"
  param {
    lr_mult: 1
    decay_mult: 1
  }
  param {
    lr_mult: 2
    decay_mult: 0
  }
  convolution_param {
    num_output: 320
    pad: 1
    kernel_size: 3
    weight_filler {
      type: "xavier"
      std: 0.03
    }
    bias_filler {
      type: "constant"
      value: 0.2
    }
  }
}
layer {
  name: "inception_4e/relu_3x3"
  type: "ReLU"
  bottom: "inception_4e/3x3"
  top: "inception_4e/3x3"
}
layer {
  name: "inception_4e/5x5_reduce"
  type: "Convolution"
  bottom: "inception_4d/output"
  top: "inception_4e/5x5_reduce"
  param {
    lr_mult: 1
    decay_mult: 1
  }
  param {
    lr_mult: 2
    decay_mult: 0
  }
  convolution_param {
    num_output: 32
    kernel_size: 1
    weight_filler {
      type: "xavier"
      std: 0.2
    }
    bias_filler {
      type: "constant"
      value: 0.2
    }
  }
}
layer {
  name: "inception_4e/relu_5x5_reduce"
  type: "ReLU"
  bottom: "inception_4e/5x5_reduce"
  top: "inception_4e/5x5_reduce"
}
layer {
  name: "inception_4e/5x5"
  type: "Convolution"
  bottom: "inception_4e/5x5_reduce"
  top: "inception_4e/5x5"
  p
I0403 14:08:00.416343 29346 layer_factory.hpp:77] Creating layer data
I0403 14:08:00.417062 29346 net.cpp:91] Creating Layer data
I0403 14:08:00.417101 29346 net.cpp:399] data -> data
I0403 14:08:00.417160 29346 net.cpp:399] data -> label
I0403 14:08:00.417212 29346 data_transformer.cpp:25] Loading mean file from: /home/mohanty/data/final_dataset/lmdb/color-20-80/mean.binaryproto
I0403 14:08:00.419746 29353 db_lmdb.cpp:38] Opened lmdb /home/mohanty/data/final_dataset/lmdb/color-20-80/test_db
I0403 14:08:00.434074 29346 data_layer.cpp:41] output data size: 24,3,224,224
I0403 14:08:00.466627 29346 net.cpp:141] Setting up data
I0403 14:08:00.466734 29346 net.cpp:148] Top shape: 24 3 224 224 (3612672)
I0403 14:08:00.466763 29346 net.cpp:148] Top shape: 24 (24)
I0403 14:08:00.466783 29346 net.cpp:156] Memory required for data: 14450784
I0403 14:08:00.466816 29346 layer_factory.hpp:77] Creating layer label_data_1_split
I0403 14:08:00.466850 29346 net.cpp:91] Creating Layer label_data_1_split
I0403 14:08:00.466872 29346 net.cpp:425] label_data_1_split <- label
I0403 14:08:00.466910 29346 net.cpp:399] label_data_1_split -> label_data_1_split_0
I0403 14:08:00.466944 29346 net.cpp:399] label_data_1_split -> label_data_1_split_1
I0403 14:08:00.466969 29346 net.cpp:399] label_data_1_split -> label_data_1_split_2
I0403 14:08:00.466995 29346 net.cpp:399] label_data_1_split -> label_data_1_split_3
I0403 14:08:00.467020 29346 net.cpp:399] label_data_1_split -> label_data_1_split_4
I0403 14:08:00.467046 29346 net.cpp:399] label_data_1_split -> label_data_1_split_5
I0403 14:08:00.467067 29346 net.cpp:399] label_data_1_split -> label_data_1_split_6
I0403 14:08:00.467092 29346 net.cpp:399] label_data_1_split -> label_data_1_split_7
I0403 14:08:00.467115 29346 net.cpp:399] label_data_1_split -> label_data_1_split_8
I0403 14:08:00.467139 29346 net.cpp:399] label_data_1_split -> label_data_1_split_9
I0403 14:08:00.467278 29346 net.cpp:141] Setting up label_data_1_split
I0403 14:08:00.467308 29346 net.cpp:148] Top shape: 24 (24)
I0403 14:08:00.467329 29346 net.cpp:148] Top shape: 24 (24)
I0403 14:08:00.467352 29346 net.cpp:148] Top shape: 24 (24)
I0403 14:08:00.467373 29346 net.cpp:148] Top shape: 24 (24)
I0403 14:08:00.467393 29346 net.cpp:148] Top shape: 24 (24)
I0403 14:08:00.467412 29346 net.cpp:148] Top shape: 24 (24)
I0403 14:08:00.467432 29346 net.cpp:148] Top shape: 24 (24)
I0403 14:08:00.467453 29346 net.cpp:148] Top shape: 24 (24)
I0403 14:08:00.467471 29346 net.cpp:148] Top shape: 24 (24)
I0403 14:08:00.467491 29346 net.cpp:148] Top shape: 24 (24)
I0403 14:08:00.467545 29346 net.cpp:156] Memory required for data: 14451744
I0403 14:08:00.467563 29346 layer_factory.hpp:77] Creating layer conv1/7x7_s2
I0403 14:08:00.467602 29346 net.cpp:91] Creating Layer conv1/7x7_s2
I0403 14:08:00.467624 29346 net.cpp:425] conv1/7x7_s2 <- data
I0403 14:08:00.467648 29346 net.cpp:399] conv1/7x7_s2 -> conv1/7x7_s2
I0403 14:08:00.731616 29346 net.cpp:141] Setting up conv1/7x7_s2
I0403 14:08:00.731688 29346 net.cpp:148] Top shape: 24 64 112 112 (19267584)
I0403 14:08:00.731709 29346 net.cpp:156] Memory required for data: 91522080
I0403 14:08:00.731746 29346 layer_factory.hpp:77] Creating layer conv1/relu_7x7
I0403 14:08:00.731781 29346 net.cpp:91] Creating Layer conv1/relu_7x7
I0403 14:08:00.731804 29346 net.cpp:425] conv1/relu_7x7 <- conv1/7x7_s2
I0403 14:08:00.731829 29346 net.cpp:386] conv1/relu_7x7 -> conv1/7x7_s2 (in-place)
I0403 14:08:00.736099 29346 net.cpp:141] Setting up conv1/relu_7x7
I0403 14:08:00.736141 29346 net.cpp:148] Top shape: 24 64 112 112 (19267584)
I0403 14:08:00.736163 29346 net.cpp:156] Memory required for data: 168592416
I0403 14:08:00.736182 29346 layer_factory.hpp:77] Creating layer pool1/3x3_s2
I0403 14:08:00.736215 29346 net.cpp:91] Creating Layer pool1/3x3_s2
I0403 14:08:00.736238 29346 net.cpp:425] pool1/3x3_s2 <- conv1/7x7_s2
I0403 14:08:00.736261 29346 net.cpp:399] pool1/3x3_s2 -> pool1/3x3_s2
I0403 14:08:00.736387 29346 net.cpp:141] Setting up pool1/3x3_s2
I0403 14:08:00.736418 29346 net.cpp:148] Top shape: 24 64 56 56 (4816896)
I0403 14:08:00.736438 29346 net.cpp:156] Memory required for data: 187860000
I0403 14:08:00.736455 29346 layer_factory.hpp:77] Creating layer pool1/norm1
I0403 14:08:00.736486 29346 net.cpp:91] Creating Layer pool1/norm1
I0403 14:08:00.736508 29346 net.cpp:425] pool1/norm1 <- pool1/3x3_s2
I0403 14:08:00.736531 29346 net.cpp:399] pool1/norm1 -> pool1/norm1
I0403 14:08:00.736877 29346 net.cpp:141] Setting up pool1/norm1
I0403 14:08:00.736912 29346 net.cpp:148] Top shape: 24 64 56 56 (4816896)
I0403 14:08:00.736932 29346 net.cpp:156] Memory required for data: 207127584
I0403 14:08:00.736951 29346 layer_factory.hpp:77] Creating layer conv2/3x3_reduce
I0403 14:08:00.736982 29346 net.cpp:91] Creating Layer conv2/3x3_reduce
I0403 14:08:00.737004 29346 net.cpp:425] conv2/3x3_reduce <- pool1/norm1
I0403 14:08:00.737027 29346 net.cpp:399] conv2/3x3_reduce -> conv2/3x3_reduce
I0403 14:08:00.738677 29346 net.cpp:141] Setting up conv2/3x3_reduce
I0403 14:08:00.738709 29346 net.cpp:148] Top shape: 24 64 56 56 (4816896)
I0403 14:08:00.738729 29346 net.cpp:156] Memory required for data: 226395168
I0403 14:08:00.738756 29346 layer_factory.hpp:77] Creating layer conv2/relu_3x3_reduce
I0403 14:08:00.738780 29346 net.cpp:91] Creating Layer conv2/relu_3x3_reduce
I0403 14:08:00.738800 29346 net.cpp:425] conv2/relu_3x3_reduce <- conv2/3x3_reduce
I0403 14:08:00.738821 29346 net.cpp:386] conv2/relu_3x3_reduce -> conv2/3x3_reduce (in-place)
I0403 14:08:00.739130 29346 net.cpp:141] Setting up conv2/relu_3x3_reduce
I0403 14:08:00.739163 29346 net.cpp:148] Top shape: 24 64 56 56 (4816896)
I0403 14:08:00.739183 29346 net.cpp:156] Memory required for data: 245662752
I0403 14:08:00.739202 29346 layer_factory.hpp:77] Creating layer conv2/3x3
I0403 14:08:00.739230 29346 net.cpp:91] Creating Layer conv2/3x3
I0403 14:08:00.739251 29346 net.cpp:425] conv2/3x3 <- conv2/3x3_reduce
I0403 14:08:00.739274 29346 net.cpp:399] conv2/3x3 -> conv2/3x3
I0403 14:08:00.742046 29346 net.cpp:141] Setting up conv2/3x3
I0403 14:08:00.742082 29346 net.cpp:148] Top shape: 24 192 56 56 (14450688)
I0403 14:08:00.742102 29346 net.cpp:156] Memory required for data: 303465504
I0403 14:08:00.742130 29346 layer_factory.hpp:77] Creating layer conv2/relu_3x3
I0403 14:08:00.742156 29346 net.cpp:91] Creating Layer conv2/relu_3x3
I0403 14:08:00.742175 29346 net.cpp:425] conv2/relu_3x3 <- conv2/3x3
I0403 14:08:00.742197 29346 net.cpp:386] conv2/relu_3x3 -> conv2/3x3 (in-place)
I0403 14:08:00.742415 29346 net.cpp:141] Setting up conv2/relu_3x3
I0403 14:08:00.742449 29346 net.cpp:148] Top shape: 24 192 56 56 (14450688)
I0403 14:08:00.742496 29346 net.cpp:156] Memory required for data: 361268256
I0403 14:08:00.742516 29346 layer_factory.hpp:77] Creating layer conv2/norm2
I0403 14:08:00.742539 29346 net.cpp:91] Creating Layer conv2/norm2
I0403 14:08:00.742558 29346 net.cpp:425] conv2/norm2 <- conv2/3x3
I0403 14:08:00.742584 29346 net.cpp:399] conv2/norm2 -> conv2/norm2
I0403 14:08:00.742944 29346 net.cpp:141] Setting up conv2/norm2
I0403 14:08:00.742977 29346 net.cpp:148] Top shape: 24 192 56 56 (14450688)
I0403 14:08:00.742997 29346 net.cpp:156] Memory required for data: 419071008
I0403 14:08:00.743017 29346 layer_factory.hpp:77] Creating layer pool2/3x3_s2
I0403 14:08:00.743038 29346 net.cpp:91] Creating Layer pool2/3x3_s2
I0403 14:08:00.743057 29346 net.cpp:425] pool2/3x3_s2 <- conv2/norm2
I0403 14:08:00.743083 29346 net.cpp:399] pool2/3x3_s2 -> pool2/3x3_s2
I0403 14:08:00.743149 29346 net.cpp:141] Setting up pool2/3x3_s2
I0403 14:08:00.743180 29346 net.cpp:148] Top shape: 24 192 28 28 (3612672)
I0403 14:08:00.743197 29346 net.cpp:156] Memory required for data: 433521696
I0403 14:08:00.743216 29346 layer_factory.hpp:77] Creating layer pool2/3x3_s2_pool2/3x3_s2_0_split
I0403 14:08:00.743240 29346 net.cpp:91] Creating Layer pool2/3x3_s2_pool2/3x3_s2_0_split
I0403 14:08:00.743262 29346 net.cpp:425] pool2/3x3_s2_pool2/3x3_s2_0_split <- pool2/3x3_s2
I0403 14:08:00.743288 29346 net.cpp:399] pool2/3x3_s2_pool2/3x3_s2_0_split -> pool2/3x3_s2_pool2/3x3_s2_0_split_0
I0403 14:08:00.743311 29346 net.cpp:399] pool2/3x3_s2_pool2/3x3_s2_0_split -> pool2/3x3_s2_pool2/3x3_s2_0_split_1
I0403 14:08:00.743336 29346 net.cpp:399] pool2/3x3_s2_pool2/3x3_s2_0_split -> pool2/3x3_s2_pool2/3x3_s2_0_split_2
I0403 14:08:00.743368 29346 net.cpp:399] pool2/3x3_s2_pool2/3x3_s2_0_split -> pool2/3x3_s2_pool2/3x3_s2_0_split_3
I0403 14:08:00.743454 29346 net.cpp:141] Setting up pool2/3x3_s2_pool2/3x3_s2_0_split
I0403 14:08:00.743486 29346 net.cpp:148] Top shape: 24 192 28 28 (3612672)
I0403 14:08:00.743510 29346 net.cpp:148] Top shape: 24 192 28 28 (3612672)
I0403 14:08:00.743530 29346 net.cpp:148] Top shape: 24 192 28 28 (3612672)
I0403 14:08:00.743549 29346 net.cpp:148] Top shape: 24 192 28 28 (3612672)
I0403 14:08:00.743567 29346 net.cpp:156] Memory required for data: 491324448
I0403 14:08:00.743585 29346 layer_factory.hpp:77] Creating layer inception_3a/1x1
I0403 14:08:00.743613 29346 net.cpp:91] Creating Layer inception_3a/1x1
I0403 14:08:00.743633 29346 net.cpp:425] inception_3a/1x1 <- pool2/3x3_s2_pool2/3x3_s2_0_split_0
I0403 14:08:00.743660 29346 net.cpp:399] inception_3a/1x1 -> inception_3a/1x1
I0403 14:08:00.745623 29346 net.cpp:141] Setting up inception_3a/1x1
I0403 14:08:00.745656 29346 net.cpp:148] Top shape: 24 64 28 28 (1204224)
I0403 14:08:00.745677 29346 net.cpp:156] Memory required for data: 496141344
I0403 14:08:00.745702 29346 layer_factory.hpp:77] Creating layer inception_3a/relu_1x1
I0403 14:08:00.745728 29346 net.cpp:91] Creating Layer inception_3a/relu_1x1
I0403 14:08:00.745748 29346 net.cpp:425] inception_3a/relu_1x1 <- inception_3a/1x1
I0403 14:08:00.745769 29346 net.cpp:386] inception_3a/relu_1x1 -> inception_3a/1x1 (in-place)
I0403 14:08:00.745980 29346 net.cpp:141] Setting up inception_3a/relu_1x1
I0403 14:08:00.746012 29346 net.cpp:148] Top shape: 24 64 28 28 (1204224)
I0403 14:08:00.746031 29346 net.cpp:156] Memory required for data: 500958240
I0403 14:08:00.746050 29346 layer_factory.hpp:77] Creating layer inception_3a/3x3_reduce
I0403 14:08:00.746079 29346 net.cpp:91] Creating Layer inception_3a/3x3_reduce
I0403 14:08:00.746100 29346 net.cpp:425] inception_3a/3x3_reduce <- pool2/3x3_s2_pool2/3x3_s2_0_split_1
I0403 14:08:00.746124 29346 net.cpp:399] inception_3a/3x3_reduce -> inception_3a/3x3_reduce
I0403 14:08:00.748181 29346 net.cpp:141] Setting up inception_3a/3x3_reduce
I0403 14:08:00.748219 29346 net.cpp:148] Top shape: 24 96 28 28 (1806336)
I0403 14:08:00.748237 29346 net.cpp:156] Memory required for data: 508183584
I0403 14:08:00.748265 29346 layer_factory.hpp:77] Creating layer inception_3a/relu_3x3_reduce
I0403 14:08:00.748314 29346 net.cpp:91] Creating Layer inception_3a/relu_3x3_reduce
I0403 14:08:00.748337 29346 net.cpp:425] inception_3a/relu_3x3_reduce <- inception_3a/3x3_reduce
I0403 14:08:00.748371 29346 net.cpp:386] inception_3a/relu_3x3_reduce -> inception_3a/3x3_reduce (in-place)
I0403 14:08:00.748594 29346 net.cpp:141] Setting up inception_3a/relu_3x3_reduce
I0403 14:08:00.748626 29346 net.cpp:148] Top shape: 24 96 28 28 (1806336)
I0403 14:08:00.748646 29346 net.cpp:156] Memory required for data: 515408928
I0403 14:08:00.748663 29346 layer_factory.hpp:77] Creating layer inception_3a/3x3
I0403 14:08:00.748692 29346 net.cpp:91] Creating Layer inception_3a/3x3
I0403 14:08:00.748713 29346 net.cpp:425] inception_3a/3x3 <- inception_3a/3x3_reduce
I0403 14:08:00.748739 29346 net.cpp:399] inception_3a/3x3 -> inception_3a/3x3
I0403 14:08:00.750731 29346 net.cpp:141] Setting up inception_3a/3x3
I0403 14:08:00.750766 29346 net.cpp:148] Top shape: 24 128 28 28 (2408448)
I0403 14:08:00.750787 29346 net.cpp:156] Memory required for data: 525042720
I0403 14:08:00.750811 29346 layer_factory.hpp:77] Creating layer inception_3a/relu_3x3
I0403 14:08:00.750838 29346 net.cpp:91] Creating Layer inception_3a/relu_3x3
I0403 14:08:00.750859 29346 net.cpp:425] inception_3a/relu_3x3 <- inception_3a/3x3
I0403 14:08:00.750880 29346 net.cpp:386] inception_3a/relu_3x3 -> inception_3a/3x3 (in-place)
I0403 14:08:00.751209 29346 net.cpp:141] Setting up inception_3a/relu_3x3
I0403 14:08:00.751242 29346 net.cpp:148] Top shape: 24 128 28 28 (2408448)
I0403 14:08:00.751260 29346 net.cpp:156] Memory required for data: 534676512
I0403 14:08:00.751282 29346 layer_factory.hpp:77] Creating layer inception_3a/5x5_reduce
I0403 14:08:00.751312 29346 net.cpp:91] Creating Layer inception_3a/5x5_reduce
I0403 14:08:00.751335 29346 net.cpp:425] inception_3a/5x5_reduce <- pool2/3x3_s2_pool2/3x3_s2_0_split_2
I0403 14:08:00.751369 29346 net.cpp:399] inception_3a/5x5_reduce -> inception_3a/5x5_reduce
I0403 14:08:00.752521 29346 net.cpp:141] Setting up inception_3a/5x5_reduce
I0403 14:08:00.752560 29346 net.cpp:148] Top shape: 24 16 28 28 (301056)
I0403 14:08:00.752580 29346 net.cpp:156] Memory required for data: 535880736
I0403 14:08:00.752604 29346 layer_factory.hpp:77] Creating layer inception_3a/relu_5x5_reduce
I0403 14:08:00.752626 29346 net.cpp:91] Creating Layer inception_3a/relu_5x5_reduce
I0403 14:08:00.752645 29346 net.cpp:425] inception_3a/relu_5x5_reduce <- inception_3a/5x5_reduce
I0403 14:08:00.752667 29346 net.cpp:386] inception_3a/relu_5x5_reduce -> inception_3a/5x5_reduce (in-place)
I0403 14:08:00.753027 29346 net.cpp:141] Setting up inception_3a/relu_5x5_reduce
I0403 14:08:00.753060 29346 net.cpp:148] Top shape: 24 16 28 28 (301056)
I0403 14:08:00.753080 29346 net.cpp:156] Memory required for data: 537084960
I0403 14:08:00.753101 29346 layer_factory.hpp:77] Creating layer inception_3a/5x5
I0403 14:08:00.753129 29346 net.cpp:91] Creating Layer inception_3a/5x5
I0403 14:08:00.753151 29346 net.cpp:425] inception_3a/5x5 <- inception_3a/5x5_reduce
I0403 14:08:00.753178 29346 net.cpp:399] inception_3a/5x5 -> inception_3a/5x5
I0403 14:08:00.754434 29346 net.cpp:141] Setting up inception_3a/5x5
I0403 14:08:00.754468 29346 net.cpp:148] Top shape: 24 32 28 28 (602112)
I0403 14:08:00.754488 29346 net.cpp:156] Memory required for data: 539493408
I0403 14:08:00.754510 29346 layer_factory.hpp:77] Creating layer inception_3a/relu_5x5
I0403 14:08:00.754536 29346 net.cpp:91] Creating Layer inception_3a/relu_5x5
I0403 14:08:00.754557 29346 net.cpp:425] inception_3a/relu_5x5 <- inception_3a/5x5
I0403 14:08:00.754580 29346 net.cpp:386] inception_3a/relu_5x5 -> inception_3a/5x5 (in-place)
I0403 14:08:00.754788 29346 net.cpp:141] Setting up inception_3a/relu_5x5
I0403 14:08:00.754822 29346 net.cpp:148] Top shape: 24 32 28 28 (602112)
I0403 14:08:00.754842 29346 net.cpp:156] Memory required for data: 541901856
I0403 14:08:00.754860 29346 layer_factory.hpp:77] Creating layer inception_3a/pool
I0403 14:08:00.754884 29346 net.cpp:91] Creating Layer inception_3a/pool
I0403 14:08:00.754902 29346 net.cpp:425] inception_3a/pool <- pool2/3x3_s2_pool2/3x3_s2_0_split_3
I0403 14:08:00.754950 29346 net.cpp:399] inception_3a/pool -> inception_3a/pool
I0403 14:08:00.755022 29346 net.cpp:141] Setting up inception_3a/pool
I0403 14:08:00.755051 29346 net.cpp:148] Top shape: 24 192 28 28 (3612672)
I0403 14:08:00.755070 29346 net.cpp:156] Memory required for data: 556352544
I0403 14:08:00.755089 29346 layer_factory.hpp:77] Creating layer inception_3a/pool_proj
I0403 14:08:00.755117 29346 net.cpp:91] Creating Layer inception_3a/pool_proj
I0403 14:08:00.755139 29346 net.cpp:425] inception_3a/pool_proj <- inception_3a/pool
I0403 14:08:00.755167 29346 net.cpp:399] inception_3a/pool_proj -> inception_3a/pool_proj
I0403 14:08:00.756315 29346 net.cpp:141] Setting up inception_3a/pool_proj
I0403 14:08:00.756355 29346 net.cpp:148] Top shape: 24 32 28 28 (602112)
I0403 14:08:00.756376 29346 net.cpp:156] Memory required for data: 558760992
I0403 14:08:00.756409 29346 layer_factory.hpp:77] Creating layer inception_3a/relu_pool_proj
I0403 14:08:00.756434 29346 net.cpp:91] Creating Layer inception_3a/relu_pool_proj
I0403 14:08:00.756454 29346 net.cpp:425] inception_3a/relu_pool_proj <- inception_3a/pool_proj
I0403 14:08:00.756476 29346 net.cpp:386] inception_3a/relu_pool_proj -> inception_3a/pool_proj (in-place)
I0403 14:08:00.756798 29346 net.cpp:141] Setting up inception_3a/relu_pool_proj
I0403 14:08:00.756831 29346 net.cpp:148] Top shape: 24 32 28 28 (602112)
I0403 14:08:00.756850 29346 net.cpp:156] Memory required for data: 561169440
I0403 14:08:00.756868 29346 layer_factory.hpp:77] Creating layer inception_3a/output
I0403 14:08:00.756893 29346 net.cpp:91] Creating Layer inception_3a/output
I0403 14:08:00.756913 29346 net.cpp:425] inception_3a/output <- inception_3a/1x1
I0403 14:08:00.756934 29346 net.cpp:425] inception_3a/output <- inception_3a/3x3
I0403 14:08:00.756954 29346 net.cpp:425] inception_3a/output <- inception_3a/5x5
I0403 14:08:00.756974 29346 net.cpp:425] inception_3a/output <- inception_3a/pool_proj
I0403 14:08:00.756995 29346 net.cpp:399] inception_3a/output -> inception_3a/output
I0403 14:08:00.759795 29346 net.cpp:141] Setting up inception_3a/output
I0403 14:08:00.759837 29346 net.cpp:148] Top shape: 24 256 28 28 (4816896)
I0403 14:08:00.759858 29346 net.cpp:156] Memory required for data: 580437024
I0403 14:08:00.759878 29346 layer_factory.hpp:77] Creating layer inception_3a/output_inception_3a/output_0_split
I0403 14:08:00.759902 29346 net.cpp:91] Creating Layer inception_3a/output_inception_3a/output_0_split
I0403 14:08:00.759922 29346 net.cpp:425] inception_3a/output_inception_3a/output_0_split <- inception_3a/output
I0403 14:08:00.759946 29346 net.cpp:399] inception_3a/output_inception_3a/output_0_split -> inception_3a/output_inception_3a/output_0_split_0
I0403 14:08:00.759973 29346 net.cpp:399] inception_3a/output_inception_3a/output_0_split -> inception_3a/output_inception_3a/output_0_split_1
I0403 14:08:00.760004 29346 net.cpp:399] inception_3a/output_inception_3a/output_0_split -> inception_3a/output_inception_3a/output_0_split_2
I0403 14:08:00.760033 29346 net.cpp:399] inception_3a/output_inception_3a/output_0_split -> inception_3a/output_inception_3a/output_0_split_3
I0403 14:08:00.760124 29346 net.cpp:141] Setting up inception_3a/output_inception_3a/output_0_split
I0403 14:08:00.760154 29346 net.cpp:148] Top shape: 24 256 28 28 (4816896)
I0403 14:08:00.760174 29346 net.cpp:148] Top shape: 24 256 28 28 (4816896)
I0403 14:08:00.760193 29346 net.cpp:148] Top shape: 24 256 28 28 (4816896)
I0403 14:08:00.760212 29346 net.cpp:148] Top shape: 24 256 28 28 (4816896)
I0403 14:08:00.760231 29346 net.cpp:156] Memory required for data: 657507360
I0403 14:08:00.760248 29346 layer_factory.hpp:77] Creating layer inception_3b/1x1
I0403 14:08:00.760279 29346 net.cpp:91] Creating Layer inception_3b/1x1
I0403 14:08:00.760301 29346 net.cpp:425] inception_3b/1x1 <- inception_3a/output_inception_3a/output_0_split_0
I0403 14:08:00.760327 29346 net.cpp:399] inception_3b/1x1 -> inception_3b/1x1
I0403 14:08:00.761737 29346 net.cpp:141] Setting up inception_3b/1x1
I0403 14:08:00.761793 29346 net.cpp:148] Top shape: 24 128 28 28 (2408448)
I0403 14:08:00.761814 29346 net.cpp:156] Memory required for data: 667141152
I0403 14:08:00.761838 29346 layer_factory.hpp:77] Creating layer inception_3b/relu_1x1
I0403 14:08:00.761864 29346 net.cpp:91] Creating Layer inception_3b/relu_1x1
I0403 14:08:00.761884 29346 net.cpp:425] inception_3b/relu_1x1 <- inception_3b/1x1
I0403 14:08:00.761906 29346 net.cpp:386] inception_3b/relu_1x1 -> inception_3b/1x1 (in-place)
I0403 14:08:00.762120 29346 net.cpp:141] Setting up inception_3b/relu_1x1
I0403 14:08:00.762151 29346 net.cpp:148] Top shape: 24 128 28 28 (2408448)
I0403 14:08:00.762172 29346 net.cpp:156] Memory required for data: 676774944
I0403 14:08:00.762192 29346 layer_factory.hpp:77] Creating layer inception_3b/3x3_reduce
I0403 14:08:00.762217 29346 net.cpp:91] Creating Layer inception_3b/3x3_reduce
I0403 14:08:00.762238 29346 net.cpp:425] inception_3b/3x3_reduce <- inception_3a/output_inception_3a/output_0_split_1
I0403 14:08:00.762264 29346 net.cpp:399] inception_3b/3x3_reduce -> inception_3b/3x3_reduce
I0403 14:08:00.763640 29346 net.cpp:141] Setting up inception_3b/3x3_reduce
I0403 14:08:00.763675 29346 net.cpp:148] Top shape: 24 128 28 28 (2408448)
I0403 14:08:00.763695 29346 net.cpp:156] Memory required for data: 686408736
I0403 14:08:00.763718 29346 layer_factory.hpp:77] Creating layer inception_3b/relu_3x3_reduce
I0403 14:08:00.763743 29346 net.cpp:91] Creating Layer inception_3b/relu_3x3_reduce
I0403 14:08:00.763764 29346 net.cpp:425] inception_3b/relu_3x3_reduce <- inception_3b/3x3_reduce
I0403 14:08:00.763787 29346 net.cpp:386] inception_3b/relu_3x3_reduce -> inception_3b/3x3_reduce (in-place)
I0403 14:08:00.763990 29346 net.cpp:141] Setting up inception_3b/relu_3x3_reduce
I0403 14:08:00.764021 29346 net.cpp:148] Top shape: 24 128 28 28 (2408448)
I0403 14:08:00.764041 29346 net.cpp:156] Memory required for data: 696042528
I0403 14:08:00.764060 29346 layer_factory.hpp:77] Creating layer inception_3b/3x3
I0403 14:08:00.764093 29346 net.cpp:91] Creating Layer inception_3b/3x3
I0403 14:08:00.764116 29346 net.cpp:425] inception_3b/3x3 <- inception_3b/3x3_reduce
I0403 14:08:00.764139 29346 net.cpp:399] inception_3b/3x3 -> inception_3b/3x3
I0403 14:08:00.767691 29346 net.cpp:141] Setting up inception_3b/3x3
I0403 14:08:00.767729 29346 net.cpp:148] Top shape: 24 192 28 28 (3612672)
I0403 14:08:00.767751 29346 net.cpp:156] Memory required for data: 710493216
I0403 14:08:00.767774 29346 layer_factory.hpp:77] Creating layer inception_3b/relu_3x3
I0403 14:08:00.767802 29346 net.cpp:91] Creating Layer inception_3b/relu_3x3
I0403 14:08:00.767822 29346 net.cpp:425] inception_3b/relu_3x3 <- inception_3b/3x3
I0403 14:08:00.767843 29346 net.cpp:386] inception_3b/relu_3x3 -> inception_3b/3x3 (in-place)
I0403 14:08:00.768182 29346 net.cpp:141] Setting up inception_3b/relu_3x3
I0403 14:08:00.768214 29346 net.cpp:148] Top shape: 24 192 28 28 (3612672)
I0403 14:08:00.768234 29346 net.cpp:156] Memory required for data: 724943904
I0403 14:08:00.768254 29346 layer_factory.hpp:77] Creating layer inception_3b/5x5_reduce
I0403 14:08:00.768282 29346 net.cpp:91] Creating Layer inception_3b/5x5_reduce
I0403 14:08:00.768304 29346 net.cpp:425] inception_3b/5x5_reduce <- inception_3a/output_inception_3a/output_0_split_2
I0403 14:08:00.768332 29346 net.cpp:399] inception_3b/5x5_reduce -> inception_3b/5x5_reduce
I0403 14:08:00.769532 29346 net.cpp:141] Setting up inception_3b/5x5_reduce
I0403 14:08:00.769568 29346 net.cpp:148] Top shape: 24 32 28 28 (602112)
I0403 14:08:00.769588 29346 net.cpp:156] Memory required for data: 727352352
I0403 14:08:00.769611 29346 layer_factory.hpp:77] Creating layer inception_3b/relu_5x5_reduce
I0403 14:08:00.769636 29346 net.cpp:91] Creating Layer inception_3b/relu_5x5_reduce
I0403 14:08:00.769659 29346 net.cpp:425] inception_3b/relu_5x5_reduce <- inception_3b/5x5_reduce
I0403 14:08:00.769682 29346 net.cpp:386] inception_3b/relu_5x5_reduce -> inception_3b/5x5_reduce (in-place)
I0403 14:08:00.769896 29346 net.cpp:141] Setting up inception_3b/relu_5x5_reduce
I0403 14:08:00.769949 29346 net.cpp:148] Top shape: 24 32 28 28 (602112)
I0403 14:08:00.769971 29346 net.cpp:156] Memory required for data: 729760800
I0403 14:08:00.769990 29346 layer_factory.hpp:77] Creating layer inception_3b/5x5
I0403 14:08:00.770018 29346 net.cpp:91] Creating Layer inception_3b/5x5
I0403 14:08:00.770040 29346 net.cpp:425] inception_3b/5x5 <- inception_3b/5x5_reduce
I0403 14:08:00.770064 29346 net.cpp:399] inception_3b/5x5 -> inception_3b/5x5
I0403 14:08:00.772439 29346 net.cpp:141] Setting up inception_3b/5x5
I0403 14:08:00.772476 29346 net.cpp:148] Top shape: 24 96 28 28 (1806336)
I0403 14:08:00.772496 29346 net.cpp:156] Memory required for data: 736986144
I0403 14:08:00.772519 29346 layer_factory.hpp:77] Creating layer inception_3b/relu_5x5
I0403 14:08:00.772547 29346 net.cpp:91] Creating Layer inception_3b/relu_5x5
I0403 14:08:00.772568 29346 net.cpp:425] inception_3b/relu_5x5 <- inception_3b/5x5
I0403 14:08:00.772590 29346 net.cpp:386] inception_3b/relu_5x5 -> inception_3b/5x5 (in-place)
I0403 14:08:00.772821 29346 net.cpp:141] Setting up inception_3b/relu_5x5
I0403 14:08:00.772855 29346 net.cpp:148] Top shape: 24 96 28 28 (1806336)
I0403 14:08:00.772876 29346 net.cpp:156] Memory required for data: 744211488
I0403 14:08:00.772894 29346 layer_factory.hpp:77] Creating layer inception_3b/pool
I0403 14:08:00.772917 29346 net.cpp:91] Creating Layer inception_3b/pool
I0403 14:08:00.772938 29346 net.cpp:425] inception_3b/pool <- inception_3a/output_inception_3a/output_0_split_3
I0403 14:08:00.772959 29346 net.cpp:399] inception_3b/pool -> inception_3b/pool
I0403 14:08:00.773030 29346 net.cpp:141] Setting up inception_3b/pool
I0403 14:08:00.773061 29346 net.cpp:148] Top shape: 24 256 28 28 (4816896)
I0403 14:08:00.773078 29346 net.cpp:156] Memory required for data: 763479072
I0403 14:08:00.773097 29346 layer_factory.hpp:77] Creating layer inception_3b/pool_proj
I0403 14:08:00.773125 29346 net.cpp:91] Creating Layer inception_3b/pool_proj
I0403 14:08:00.773146 29346 net.cpp:425] inception_3b/pool_proj <- inception_3b/pool
I0403 14:08:00.773172 29346 net.cpp:399] inception_3b/pool_proj -> inception_3b/pool_proj
I0403 14:08:00.774499 29346 net.cpp:141] Setting up inception_3b/pool_proj
I0403 14:08:00.774536 29346 net.cpp:148] Top shape: 24 64 28 28 (1204224)
I0403 14:08:00.774559 29346 net.cpp:156] Memory required for data: 768295968
I0403 14:08:00.774581 29346 layer_factory.hpp:77] Creating layer inception_3b/relu_pool_proj
I0403 14:08:00.774605 29346 net.cpp:91] Creating Layer inception_3b/relu_pool_proj
I0403 14:08:00.774626 29346 net.cpp:425] inception_3b/relu_pool_proj <- inception_3b/pool_proj
I0403 14:08:00.774651 29346 net.cpp:386] inception_3b/relu_pool_proj -> inception_3b/pool_proj (in-place)
I0403 14:08:00.775113 29346 net.cpp:141] Setting up inception_3b/relu_pool_proj
I0403 14:08:00.775149 29346 net.cpp:148] Top shape: 24 64 28 28 (1204224)
I0403 14:08:00.775168 29346 net.cpp:156] Memory required for data: 773112864
I0403 14:08:00.775188 29346 layer_factory.hpp:77] Creating layer inception_3b/output
I0403 14:08:00.775210 29346 net.cpp:91] Creating Layer inception_3b/output
I0403 14:08:00.775229 29346 net.cpp:425] inception_3b/output <- inception_3b/1x1
I0403 14:08:00.775250 29346 net.cpp:425] inception_3b/output <- inception_3b/3x3
I0403 14:08:00.775270 29346 net.cpp:425] inception_3b/output <- inception_3b/5x5
I0403 14:08:00.775290 29346 net.cpp:425] inception_3b/output <- inception_3b/pool_proj
I0403 14:08:00.775311 29346 net.cpp:399] inception_3b/output -> inception_3b/output
I0403 14:08:00.775377 29346 net.cpp:141] Setting up inception_3b/output
I0403 14:08:00.775406 29346 net.cpp:148] Top shape: 24 480 28 28 (9031680)
I0403 14:08:00.775424 29346 net.cpp:156] Memory required for data: 809239584
I0403 14:08:00.775441 29346 layer_factory.hpp:77] Creating layer pool3/3x3_s2
I0403 14:08:00.775466 29346 net.cpp:91] Creating Layer pool3/3x3_s2
I0403 14:08:00.775487 29346 net.cpp:425] pool3/3x3_s2 <- inception_3b/output
I0403 14:08:00.775511 29346 net.cpp:399] pool3/3x3_s2 -> pool3/3x3_s2
I0403 14:08:00.775600 29346 net.cpp:141] Setting up pool3/3x3_s2
I0403 14:08:00.775631 29346 net.cpp:148] Top shape: 24 480 14 14 (2257920)
I0403 14:08:00.775650 29346 net.cpp:156] Memory required for data: 818271264
I0403 14:08:00.775668 29346 layer_factory.hpp:77] Creating layer pool3/3x3_s2_pool3/3x3_s2_0_split
I0403 14:08:00.775689 29346 net.cpp:91] Creating Layer pool3/3x3_s2_pool3/3x3_s2_0_split
I0403 14:08:00.775707 29346 net.cpp:425] pool3/3x3_s2_pool3/3x3_s2_0_split <- pool3/3x3_s2
I0403 14:08:00.775732 29346 net.cpp:399] pool3/3x3_s2_pool3/3x3_s2_0_split -> pool3/3x3_s2_pool3/3x3_s2_0_split_0
I0403 14:08:00.775756 29346 net.cpp:399] pool3/3x3_s2_pool3/3x3_s2_0_split -> pool3/3x3_s2_pool3/3x3_s2_0_split_1
I0403 14:08:00.775779 29346 net.cpp:399] pool3/3x3_s2_pool3/3x3_s2_0_split -> pool3/3x3_s2_pool3/3x3_s2_0_split_2
I0403 14:08:00.775804 29346 net.cpp:399] pool3/3x3_s2_pool3/3x3_s2_0_split -> pool3/3x3_s2_pool3/3x3_s2_0_split_3
I0403 14:08:00.775895 29346 net.cpp:141] Setting up pool3/3x3_s2_pool3/3x3_s2_0_split
I0403 14:08:00.775926 29346 net.cpp:148] Top shape: 24 480 14 14 (2257920)
I0403 14:08:00.775949 29346 net.cpp:148] Top shape: 24 480 14 14 (2257920)
I0403 14:08:00.775969 29346 net.cpp:148] Top shape: 24 480 14 14 (2257920)
I0403 14:08:00.775987 29346 net.cpp:148] Top shape: 24 480 14 14 (2257920)
I0403 14:08:00.776005 29346 net.cpp:156] Memory required for data: 854397984
I0403 14:08:00.776022 29346 layer_factory.hpp:77] Creating layer inception_4a/1x1
I0403 14:08:00.776051 29346 net.cpp:91] Creating Layer inception_4a/1x1
I0403 14:08:00.776075 29346 net.cpp:425] inception_4a/1x1 <- pool3/3x3_s2_pool3/3x3_s2_0_split_0
I0403 14:08:00.776099 29346 net.cpp:399] inception_4a/1x1 -> inception_4a/1x1
I0403 14:08:00.778043 29346 net.cpp:141] Setting up inception_4a/1x1
I0403 14:08:00.778079 29346 net.cpp:148] Top shape: 24 192 14 14 (903168)
I0403 14:08:00.778100 29346 net.cpp:156] Memory required for data: 858010656
I0403 14:08:00.778128 29346 layer_factory.hpp:77] Creating layer inception_4a/relu_1x1
I0403 14:08:00.778151 29346 net.cpp:91] Creating Layer inception_4a/relu_1x1
I0403 14:08:00.778172 29346 net.cpp:425] inception_4a/relu_1x1 <- inception_4a/1x1
I0403 14:08:00.778197 29346 net.cpp:386] inception_4a/relu_1x1 -> inception_4a/1x1 (in-place)
I0403 14:08:00.778419 29346 net.cpp:141] Setting up inception_4a/relu_1x1
I0403 14:08:00.778451 29346 net.cpp:148] Top shape: 24 192 14 14 (903168)
I0403 14:08:00.778470 29346 net.cpp:156] Memory required for data: 861623328
I0403 14:08:00.778488 29346 layer_factory.hpp:77] Creating layer inception_4a/3x3_reduce
I0403 14:08:00.778517 29346 net.cpp:91] Creating Layer inception_4a/3x3_reduce
I0403 14:08:00.778539 29346 net.cpp:425] inception_4a/3x3_reduce <- pool3/3x3_s2_pool3/3x3_s2_0_split_1
I0403 14:08:00.778566 29346 net.cpp:399] inception_4a/3x3_reduce -> inception_4a/3x3_reduce
I0403 14:08:00.780128 29346 net.cpp:141] Setting up inception_4a/3x3_reduce
I0403 14:08:00.780163 29346 net.cpp:148] Top shape: 24 96 14 14 (451584)
I0403 14:08:00.780181 29346 net.cpp:156] Memory required for data: 863429664
I0403 14:08:00.780215 29346 layer_factory.hpp:77] Creating layer inception_4a/relu_3x3_reduce
I0403 14:08:00.780239 29346 net.cpp:91] Creating Layer inception_4a/relu_3x3_reduce
I0403 14:08:00.780258 29346 net.cpp:425] inception_4a/relu_3x3_reduce <- inception_4a/3x3_reduce
I0403 14:08:00.780282 29346 net.cpp:386] inception_4a/relu_3x3_reduce -> inception_4a/3x3_reduce (in-place)
I0403 14:08:00.780505 29346 net.cpp:141] Setting up inception_4a/relu_3x3_reduce
I0403 14:08:00.780537 29346 net.cpp:148] Top shape: 24 96 14 14 (451584)
I0403 14:08:00.780556 29346 net.cpp:156] Memory required for data: 865236000
I0403 14:08:00.780575 29346 layer_factory.hpp:77] Creating layer inception_4a/3x3
I0403 14:08:00.780603 29346 net.cpp:91] Creating Layer inception_4a/3x3
I0403 14:08:00.780625 29346 net.cpp:425] inception_4a/3x3 <- inception_4a/3x3_reduce
I0403 14:08:00.780652 29346 net.cpp:399] inception_4a/3x3 -> inception_4a/3x3
I0403 14:08:00.783931 29346 net.cpp:141] Setting up inception_4a/3x3
I0403 14:08:00.783967 29346 net.cpp:148] Top shape: 24 208 14 14 (978432)
I0403 14:08:00.783987 29346 net.cpp:156] Memory required for data: 869149728
I0403 14:08:00.784010 29346 layer_factory.hpp:77] Creating layer inception_4a/relu_3x3
I0403 14:08:00.784035 29346 net.cpp:91] Creating Layer inception_4a/relu_3x3
I0403 14:08:00.784057 29346 net.cpp:425] inception_4a/relu_3x3 <- inception_4a/3x3
I0403 14:08:00.784080 29346 net.cpp:386] inception_4a/relu_3x3 -> inception_4a/3x3 (in-place)
I0403 14:08:00.784431 29346 net.cpp:141] Setting up inception_4a/relu_3x3
I0403 14:08:00.784464 29346 net.cpp:148] Top shape: 24 208 14 14 (978432)
I0403 14:08:00.784483 29346 net.cpp:156] Memory required for data: 873063456
I0403 14:08:00.784503 29346 layer_factory.hpp:77] Creating layer inception_4a/5x5_reduce
I0403 14:08:00.784535 29346 net.cpp:91] Creating Layer inception_4a/5x5_reduce
I0403 14:08:00.784560 29346 net.cpp:425] inception_4a/5x5_reduce <- pool3/3x3_s2_pool3/3x3_s2_0_split_2
I0403 14:08:00.784587 29346 net.cpp:399] inception_4a/5x5_reduce -> inception_4a/5x5_reduce
I0403 14:08:00.785854 29346 net.cpp:141] Setting up inception_4a/5x5_reduce
I0403 14:08:00.785888 29346 net.cpp:148] Top shape: 24 16 14 14 (75264)
I0403 14:08:00.785907 29346 net.cpp:156] Memory required for data: 873364512
I0403 14:08:00.785930 29346 layer_factory.hpp:77] Creating layer inception_4a/relu_5x5_reduce
I0403 14:08:00.785956 29346 net.cpp:91] Creating Layer inception_4a/relu_5x5_reduce
I0403 14:08:00.785979 29346 net.cpp:425] inception_4a/relu_5x5_reduce <- inception_4a/5x5_reduce
I0403 14:08:00.785998 29346 net.cpp:386] inception_4a/relu_5x5_reduce -> inception_4a/5x5_reduce (in-place)
I0403 14:08:00.786216 29346 net.cpp:141] Setting up inception_4a/relu_5x5_reduce
I0403 14:08:00.786252 29346 net.cpp:148] Top shape: 24 16 14 14 (75264)
I0403 14:08:00.786273 29346 net.cpp:156] Memory required for data: 873665568
I0403 14:08:00.786293 29346 layer_factory.hpp:77] Creating layer inception_4a/5x5
I0403 14:08:00.786320 29346 net.cpp:91] Creating Layer inception_4a/5x5
I0403 14:08:00.786341 29346 net.cpp:425] inception_4a/5x5 <- inception_4a/5x5_reduce
I0403 14:08:00.786372 29346 net.cpp:399] inception_4a/5x5 -> inception_4a/5x5
I0403 14:08:00.787695 29346 net.cpp:141] Setting up inception_4a/5x5
I0403 14:08:00.787731 29346 net.cpp:148] Top shape: 24 48 14 14 (225792)
I0403 14:08:00.787751 29346 net.cpp:156] Memory required for data: 874568736
I0403 14:08:00.787775 29346 layer_factory.hpp:77] Creating layer inception_4a/relu_5x5
I0403 14:08:00.787797 29346 net.cpp:91] Creating Layer inception_4a/relu_5x5
I0403 14:08:00.787817 29346 net.cpp:425] inception_4a/relu_5x5 <- inception_4a/5x5
I0403 14:08:00.787837 29346 net.cpp:386] inception_4a/relu_5x5 -> inception_4a/5x5 (in-place)
I0403 14:08:00.788056 29346 net.cpp:141] Setting up inception_4a/relu_5x5
I0403 14:08:00.788089 29346 net.cpp:148] Top shape: 24 48 14 14 (225792)
I0403 14:08:00.788107 29346 net.cpp:156] Memory required for data: 875471904
I0403 14:08:00.788125 29346 layer_factory.hpp:77] Creating layer inception_4a/pool
I0403 14:08:00.788148 29346 net.cpp:91] Creating Layer inception_4a/pool
I0403 14:08:00.788167 29346 net.cpp:425] inception_4a/pool <- pool3/3x3_s2_pool3/3x3_s2_0_split_3
I0403 14:08:00.788195 29346 net.cpp:399] inception_4a/pool -> inception_4a/pool
I0403 14:08:00.788270 29346 net.cpp:141] Setting up inception_4a/pool
I0403 14:08:00.788303 29346 net.cpp:148] Top shape: 24 480 14 14 (2257920)
I0403 14:08:00.788322 29346 net.cpp:156] Memory required for data: 884503584
I0403 14:08:00.788342 29346 layer_factory.hpp:77] Creating layer inception_4a/pool_proj
I0403 14:08:00.788377 29346 net.cpp:91] Creating Layer inception_4a/pool_proj
I0403 14:08:00.788399 29346 net.cpp:425] inception_4a/pool_proj <- inception_4a/pool
I0403 14:08:00.788421 29346 net.cpp:399] inception_4a/pool_proj -> inception_4a/pool_proj
I0403 14:08:00.789834 29346 net.cpp:141] Setting up inception_4a/pool_proj
I0403 14:08:00.789870 29346 net.cpp:148] Top shape: 24 64 14 14 (301056)
I0403 14:08:00.789912 29346 net.cpp:156] Memory required for data: 885707808
I0403 14:08:00.789937 29346 layer_factory.hpp:77] Creating layer inception_4a/relu_pool_proj
I0403 14:08:00.789961 29346 net.cpp:91] Creating Layer inception_4a/relu_pool_proj
I0403 14:08:00.789981 29346 net.cpp:425] inception_4a/relu_pool_proj <- inception_4a/pool_proj
I0403 14:08:00.790006 29346 net.cpp:386] inception_4a/relu_pool_proj -> inception_4a/pool_proj (in-place)
I0403 14:08:00.790354 29346 net.cpp:141] Setting up inception_4a/relu_pool_proj
I0403 14:08:00.790386 29346 net.cpp:148] Top shape: 24 64 14 14 (301056)
I0403 14:08:00.790406 29346 net.cpp:156] Memory required for data: 886912032
I0403 14:08:00.790426 29346 layer_factory.hpp:77] Creating layer inception_4a/output
I0403 14:08:00.790446 29346 net.cpp:91] Creating Layer inception_4a/output
I0403 14:08:00.790465 29346 net.cpp:425] inception_4a/output <- inception_4a/1x1
I0403 14:08:00.790485 29346 net.cpp:425] inception_4a/output <- inception_4a/3x3
I0403 14:08:00.790505 29346 net.cpp:425] inception_4a/output <- inception_4a/5x5
I0403 14:08:00.790525 29346 net.cpp:425] inception_4a/output <- inception_4a/pool_proj
I0403 14:08:00.790551 29346 net.cpp:399] inception_4a/output -> inception_4a/output
I0403 14:08:00.790606 29346 net.cpp:141] Setting up inception_4a/output
I0403 14:08:00.790637 29346 net.cpp:148] Top shape: 24 512 14 14 (2408448)
I0403 14:08:00.790657 29346 net.cpp:156] Memory required for data: 896545824
I0403 14:08:00.790676 29346 layer_factory.hpp:77] Creating layer inception_4a/output_inception_4a/output_0_split
I0403 14:08:00.790699 29346 net.cpp:91] Creating Layer inception_4a/output_inception_4a/output_0_split
I0403 14:08:00.790717 29346 net.cpp:425] inception_4a/output_inception_4a/output_0_split <- inception_4a/output
I0403 14:08:00.790738 29346 net.cpp:399] inception_4a/output_inception_4a/output_0_split -> inception_4a/output_inception_4a/output_0_split_0
I0403 14:08:00.790762 29346 net.cpp:399] inception_4a/output_inception_4a/output_0_split -> inception_4a/output_inception_4a/output_0_split_1
I0403 14:08:00.790789 29346 net.cpp:399] inception_4a/output_inception_4a/output_0_split -> inception_4a/output_inception_4a/output_0_split_2
I0403 14:08:00.790814 29346 net.cpp:399] inception_4a/output_inception_4a/output_0_split -> inception_4a/output_inception_4a/output_0_split_3
I0403 14:08:00.790838 29346 net.cpp:399] inception_4a/output_inception_4a/output_0_split -> inception_4a/output_inception_4a/output_0_split_4
I0403 14:08:00.790953 29346 net.cpp:141] Setting up inception_4a/output_inception_4a/output_0_split
I0403 14:08:00.790984 29346 net.cpp:148] Top shape: 24 512 14 14 (2408448)
I0403 14:08:00.791005 29346 net.cpp:148] Top shape: 24 512 14 14 (2408448)
I0403 14:08:00.791025 29346 net.cpp:148] Top shape: 24 512 14 14 (2408448)
I0403 14:08:00.791045 29346 net.cpp:148] Top shape: 24 512 14 14 (2408448)
I0403 14:08:00.791065 29346 net.cpp:148] Top shape: 24 512 14 14 (2408448)
I0403 14:08:00.791082 29346 net.cpp:156] Memory required for data: 944714784
I0403 14:08:00.791100 29346 layer_factory.hpp:77] Creating layer loss1/ave_pool
I0403 14:08:00.791131 29346 net.cpp:91] Creating Layer loss1/ave_pool
I0403 14:08:00.791152 29346 net.cpp:425] loss1/ave_pool <- inception_4a/output_inception_4a/output_0_split_0
I0403 14:08:00.791174 29346 net.cpp:399] loss1/ave_pool -> loss1/ave_pool
I0403 14:08:00.791460 29346 net.cpp:141] Setting up loss1/ave_pool
I0403 14:08:00.791494 29346 net.cpp:148] Top shape: 24 512 4 4 (196608)
I0403 14:08:00.791513 29346 net.cpp:156] Memory required for data: 945501216
I0403 14:08:00.791532 29346 layer_factory.hpp:77] Creating layer loss1/conv
I0403 14:08:00.791560 29346 net.cpp:91] Creating Layer loss1/conv
I0403 14:08:00.791582 29346 net.cpp:425] loss1/conv <- loss1/ave_pool
I0403 14:08:00.791611 29346 net.cpp:399] loss1/conv -> loss1/conv
I0403 14:08:00.793424 29346 net.cpp:141] Setting up loss1/conv
I0403 14:08:00.793462 29346 net.cpp:148] Top shape: 24 128 4 4 (49152)
I0403 14:08:00.793483 29346 net.cpp:156] Memory required for data: 945697824
I0403 14:08:00.793524 29346 layer_factory.hpp:77] Creating layer loss1/relu_conv
I0403 14:08:00.793555 29346 net.cpp:91] Creating Layer loss1/relu_conv
I0403 14:08:00.793576 29346 net.cpp:425] loss1/relu_conv <- loss1/conv
I0403 14:08:00.793597 29346 net.cpp:386] loss1/relu_conv -> loss1/conv (in-place)
I0403 14:08:00.793937 29346 net.cpp:141] Setting up loss1/relu_conv
I0403 14:08:00.793969 29346 net.cpp:148] Top shape: 24 128 4 4 (49152)
I0403 14:08:00.793988 29346 net.cpp:156] Memory required for data: 945894432
I0403 14:08:00.794008 29346 layer_factory.hpp:77] Creating layer loss1/fc
I0403 14:08:00.794041 29346 net.cpp:91] Creating Layer loss1/fc
I0403 14:08:00.794064 29346 net.cpp:425] loss1/fc <- loss1/conv
I0403 14:08:00.794087 29346 net.cpp:399] loss1/fc -> loss1/fc
I0403 14:08:00.815850 29346 net.cpp:141] Setting up loss1/fc
I0403 14:08:00.815901 29346 net.cpp:148] Top shape: 24 1024 (24576)
I0403 14:08:00.815920 29346 net.cpp:156] Memory required for data: 945992736
I0403 14:08:00.815944 29346 layer_factory.hpp:77] Creating layer loss1/relu_fc
I0403 14:08:00.815968 29346 net.cpp:91] Creating Layer loss1/relu_fc
I0403 14:08:00.815990 29346 net.cpp:425] loss1/relu_fc <- loss1/fc
I0403 14:08:00.816015 29346 net.cpp:386] loss1/relu_fc -> loss1/fc (in-place)
I0403 14:08:00.816277 29346 net.cpp:141] Setting up loss1/relu_fc
I0403 14:08:00.816314 29346 net.cpp:148] Top shape: 24 1024 (24576)
I0403 14:08:00.816341 29346 net.cpp:156] Memory required for data: 946091040
I0403 14:08:00.816368 29346 layer_factory.hpp:77] Creating layer loss1/drop_fc
I0403 14:08:00.816406 29346 net.cpp:91] Creating Layer loss1/drop_fc
I0403 14:08:00.816431 29346 net.cpp:425] loss1/drop_fc <- loss1/fc
I0403 14:08:00.816460 29346 net.cpp:386] loss1/drop_fc -> loss1/fc (in-place)
I0403 14:08:00.816524 29346 net.cpp:141] Setting up loss1/drop_fc
I0403 14:08:00.816561 29346 net.cpp:148] Top shape: 24 1024 (24576)
I0403 14:08:00.816581 29346 net.cpp:156] Memory required for data: 946189344
I0403 14:08:00.816601 29346 layer_factory.hpp:77] Creating layer loss1/classifier_plantvillage
I0403 14:08:00.816627 29346 net.cpp:91] Creating Layer loss1/classifier_plantvillage
I0403 14:08:00.816645 29346 net.cpp:425] loss1/classifier_plantvillage <- loss1/fc
I0403 14:08:00.816670 29346 net.cpp:399] loss1/classifier_plantvillage -> loss1/classifier_plantvillage
I0403 14:08:00.817800 29346 net.cpp:141] Setting up loss1/classifier_plantvillage
I0403 14:08:00.817836 29346 net.cpp:148] Top shape: 24 38 (912)
I0403 14:08:00.817855 29346 net.cpp:156] Memory required for data: 946192992
I0403 14:08:00.817878 29346 layer_factory.hpp:77] Creating layer loss1/classifier_plantvillage_loss1/classifier_plantvillage_0_split
I0403 14:08:00.817900 29346 net.cpp:91] Creating Layer loss1/classifier_plantvillage_loss1/classifier_plantvillage_0_split
I0403 14:08:00.817924 29346 net.cpp:425] loss1/classifier_plantvillage_loss1/classifier_plantvillage_0_split <- loss1/classifier_plantvillage
I0403 14:08:00.817947 29346 net.cpp:399] loss1/classifier_plantvillage_loss1/classifier_plantvillage_0_split -> loss1/classifier_plantvillage_loss1/classifier_plantvillage_0_split_0
I0403 14:08:00.817971 29346 net.cpp:399] loss1/classifier_plantvillage_loss1/classifier_plantvillage_0_split -> loss1/classifier_plantvillage_loss1/classifier_plantvillage_0_split_1
I0403 14:08:00.817996 29346 net.cpp:399] loss1/classifier_plantvillage_loss1/classifier_plantvillage_0_split -> loss1/classifier_plantvillage_loss1/classifier_plantvillage_0_split_2
I0403 14:08:00.818076 29346 net.cpp:141] Setting up loss1/classifier_plantvillage_loss1/classifier_plantvillage_0_split
I0403 14:08:00.818109 29346 net.cpp:148] Top shape: 24 38 (912)
I0403 14:08:00.818130 29346 net.cpp:148] Top shape: 24 38 (912)
I0403 14:08:00.818150 29346 net.cpp:148] Top shape: 24 38 (912)
I0403 14:08:00.818167 29346 net.cpp:156] Memory required for data: 946203936
I0403 14:08:00.818186 29346 layer_factory.hpp:77] Creating layer inception_4b/1x1
I0403 14:08:00.818212 29346 net.cpp:91] Creating Layer inception_4b/1x1
I0403 14:08:00.818259 29346 net.cpp:425] inception_4b/1x1 <- inception_4a/output_inception_4a/output_0_split_1
I0403 14:08:00.818284 29346 net.cpp:399] inception_4b/1x1 -> inception_4b/1x1
I0403 14:08:00.820458 29346 net.cpp:141] Setting up inception_4b/1x1
I0403 14:08:00.820494 29346 net.cpp:148] Top shape: 24 160 14 14 (752640)
I0403 14:08:00.820516 29346 net.cpp:156] Memory required for data: 949214496
I0403 14:08:00.820539 29346 layer_factory.hpp:77] Creating layer inception_4b/relu_1x1
I0403 14:08:00.820564 29346 net.cpp:91] Creating Layer inception_4b/relu_1x1
I0403 14:08:00.820585 29346 net.cpp:425] inception_4b/relu_1x1 <- inception_4b/1x1
I0403 14:08:00.820607 29346 net.cpp:386] inception_4b/relu_1x1 -> inception_4b/1x1 (in-place)
I0403 14:08:00.820828 29346 net.cpp:141] Setting up inception_4b/relu_1x1
I0403 14:08:00.820863 29346 net.cpp:148] Top shape: 24 160 14 14 (752640)
I0403 14:08:00.820883 29346 net.cpp:156] Memory required for data: 952225056
I0403 14:08:00.820902 29346 layer_factory.hpp:77] Creating layer inception_4b/3x3_reduce
I0403 14:08:00.820930 29346 net.cpp:91] Creating Layer inception_4b/3x3_reduce
I0403 14:08:00.820951 29346 net.cpp:425] inception_4b/3x3_reduce <- inception_4a/output_inception_4a/output_0_split_2
I0403 14:08:00.820976 29346 net.cpp:399] inception_4b/3x3_reduce -> inception_4b/3x3_reduce
I0403 14:08:00.822665 29346 net.cpp:141] Setting up inception_4b/3x3_reduce
I0403 14:08:00.822700 29346 net.cpp:148] Top shape: 24 112 14 14 (526848)
I0403 14:08:00.822718 29346 net.cpp:156] Memory required for data: 954332448
I0403 14:08:00.822741 29346 layer_factory.hpp:77] Creating layer inception_4b/relu_3x3_reduce
I0403 14:08:00.822765 29346 net.cpp:91] Creating Layer inception_4b/relu_3x3_reduce
I0403 14:08:00.822788 29346 net.cpp:425] inception_4b/relu_3x3_reduce <- inception_4b/3x3_reduce
I0403 14:08:00.822808 29346 net.cpp:386] inception_4b/relu_3x3_reduce -> inception_4b/3x3_reduce (in-place)
I0403 14:08:00.823150 29346 net.cpp:141] Setting up inception_4b/relu_3x3_reduce
I0403 14:08:00.823182 29346 net.cpp:148] Top shape: 24 112 14 14 (526848)
I0403 14:08:00.823201 29346 net.cpp:156] Memory required for data: 956439840
I0403 14:08:00.823220 29346 layer_factory.hpp:77] Creating layer inception_4b/3x3
I0403 14:08:00.823261 29346 net.cpp:91] Creating Layer inception_4b/3x3
I0403 14:08:00.823285 29346 net.cpp:425] inception_4b/3x3 <- inception_4b/3x3_reduce
I0403 14:08:00.823309 29346 net.cpp:399] inception_4b/3x3 -> inception_4b/3x3
I0403 14:08:00.827059 29346 net.cpp:141] Setting up inception_4b/3x3
I0403 14:08:00.827096 29346 net.cpp:148] Top shape: 24 224 14 14 (1053696)
I0403 14:08:00.827117 29346 net.cpp:156] Memory required for data: 960654624
I0403 14:08:00.827142 29346 layer_factory.hpp:77] Creating layer inception_4b/relu_3x3
I0403 14:08:00.827165 29346 net.cpp:91] Creating Layer inception_4b/relu_3x3
I0403 14:08:00.827185 29346 net.cpp:425] inception_4b/relu_3x3 <- inception_4b/3x3
I0403 14:08:00.827209 29346 net.cpp:386] inception_4b/relu_3x3 -> inception_4b/3x3 (in-place)
I0403 14:08:00.827440 29346 net.cpp:141] Setting up inception_4b/relu_3x3
I0403 14:08:00.827473 29346 net.cpp:148] Top shape: 24 224 14 14 (1053696)
I0403 14:08:00.827492 29346 net.cpp:156] Memory required for data: 964869408
I0403 14:08:00.827513 29346 layer_factory.hpp:77] Creating layer inception_4b/5x5_reduce
I0403 14:08:00.827541 29346 net.cpp:91] Creating Layer inception_4b/5x5_reduce
I0403 14:08:00.827564 29346 net.cpp:425] inception_4b/5x5_reduce <- inception_4a/output_inception_4a/output_0_split_3
I0403 14:08:00.827592 29346 net.cpp:399] inception_4b/5x5_reduce -> inception_4b/5x5_reduce
I0403 14:08:00.828948 29346 net.cpp:141] Setting up inception_4b/5x5_reduce
I0403 14:08:00.828981 29346 net.cpp:148] Top shape: 24 24 14 14 (112896)
I0403 14:08:00.829000 29346 net.cpp:156] Memory required for data: 965320992
I0403 14:08:00.829023 29346 layer_factory.hpp:77] Creating layer inception_4b/relu_5x5_reduce
I0403 14:08:00.829048 29346 net.cpp:91] Creating Layer inception_4b/relu_5x5_reduce
I0403 14:08:00.829087 29346 net.cpp:425] inception_4b/relu_5x5_reduce <- inception_4b/5x5_reduce
I0403 14:08:00.829110 29346 net.cpp:386] inception_4b/relu_5x5_reduce -> inception_4b/5x5_reduce (in-place)
I0403 14:08:00.829330 29346 net.cpp:141] Setting up inception_4b/relu_5x5_reduce
I0403 14:08:00.829368 29346 net.cpp:148] Top shape: 24 24 14 14 (112896)
I0403 14:08:00.829388 29346 net.cpp:156] Memory required for data: 965772576
I0403 14:08:00.829407 29346 layer_factory.hpp:77] Creating layer inception_4b/5x5
I0403 14:08:00.829435 29346 net.cpp:91] Creating Layer inception_4b/5x5
I0403 14:08:00.829457 29346 net.cpp:425] inception_4b/5x5 <- inception_4b/5x5_reduce
I0403 14:08:00.829483 29346 net.cpp:399] inception_4b/5x5 -> inception_4b/5x5
I0403 14:08:00.830978 29346 net.cpp:141] Setting up inception_4b/5x5
I0403 14:08:00.831013 29346 net.cpp:148] Top shape: 24 64 14 14 (301056)
I0403 14:08:00.831033 29346 net.cpp:156] Memory required for data: 966976800
I0403 14:08:00.831058 29346 layer_factory.hpp:77] Creating layer inception_4b/relu_5x5
I0403 14:08:00.831082 29346 net.cpp:91] Creating Layer inception_4b/relu_5x5
I0403 14:08:00.831104 29346 net.cpp:425] inception_4b/relu_5x5 <- inception_4b/5x5
I0403 14:08:00.831126 29346 net.cpp:386] inception_4b/relu_5x5 -> inception_4b/5x5 (in-place)
I0403 14:08:00.831481 29346 net.cpp:141] Setting up inception_4b/relu_5x5
I0403 14:08:00.831514 29346 net.cpp:148] Top shape: 24 64 14 14 (301056)
I0403 14:08:00.831534 29346 net.cpp:156] Memory required for data: 968181024
I0403 14:08:00.831553 29346 layer_factory.hpp:77] Creating layer inception_4b/pool
I0403 14:08:00.831578 29346 net.cpp:91] Creating Layer inception_4b/pool
I0403 14:08:00.831599 29346 net.cpp:425] inception_4b/pool <- inception_4a/output_inception_4a/output_0_split_4
I0403 14:08:00.831622 29346 net.cpp:399] inception_4b/pool -> inception_4b/pool
I0403 14:08:00.831704 29346 net.cpp:141] Setting up inception_4b/pool
I0403 14:08:00.831734 29346 net.cpp:148] Top shape: 24 512 14 14 (2408448)
I0403 14:08:00.831753 29346 net.cpp:156] Memory required for data: 977814816
I0403 14:08:00.831771 29346 layer_factory.hpp:77] Creating layer inception_4b/pool_proj
I0403 14:08:00.831799 29346 net.cpp:91] Creating Layer inception_4b/pool_proj
I0403 14:08:00.831821 29346 net.cpp:425] inception_4b/pool_proj <- inception_4b/pool
I0403 14:08:00.831846 29346 net.cpp:399] inception_4b/pool_proj -> inception_4b/pool_proj
I0403 14:08:00.833300 29346 net.cpp:141] Setting up inception_4b/pool_proj
I0403 14:08:00.833334 29346 net.cpp:148] Top shape: 24 64 14 14 (301056)
I0403 14:08:00.833359 29346 net.cpp:156] Memory required for data: 979019040
I0403 14:08:00.833384 29346 layer_factory.hpp:77] Creating layer inception_4b/relu_pool_proj
I0403 14:08:00.833415 29346 net.cpp:91] Creating Layer inception_4b/relu_pool_proj
I0403 14:08:00.833434 29346 net.cpp:425] inception_4b/relu_pool_proj <- inception_4b/pool_proj
I0403 14:08:00.833456 29346 net.cpp:386] inception_4b/relu_pool_proj -> inception_4b/pool_proj (in-place)
I0403 14:08:00.833678 29346 net.cpp:141] Setting up inception_4b/relu_pool_proj
I0403 14:08:00.833714 29346 net.cpp:148] Top shape: 24 64 14 14 (301056)
I0403 14:08:00.833732 29346 net.cpp:156] Memory required for data: 980223264
I0403 14:08:00.833751 29346 layer_factory.hpp:77] Creating layer inception_4b/output
I0403 14:08:00.833773 29346 net.cpp:91] Creating Layer inception_4b/output
I0403 14:08:00.833792 29346 net.cpp:425] inception_4b/output <- inception_4b/1x1
I0403 14:08:00.833812 29346 net.cpp:425] inception_4b/output <- inception_4b/3x3
I0403 14:08:00.833833 29346 net.cpp:425] inception_4b/output <- inception_4b/5x5
I0403 14:08:00.833853 29346 net.cpp:425] inception_4b/output <- inception_4b/pool_proj
I0403 14:08:00.833876 29346 net.cpp:399] inception_4b/output -> inception_4b/output
I0403 14:08:00.833932 29346 net.cpp:141] Setting up inception_4b/output
I0403 14:08:00.833962 29346 net.cpp:148] Top shape: 24 512 14 14 (2408448)
I0403 14:08:00.833981 29346 net.cpp:156] Memory required for data: 989857056
I0403 14:08:00.834017 29346 layer_factory.hpp:77] Creating layer inception_4b/output_inception_4b/output_0_split
I0403 14:08:00.834043 29346 net.cpp:91] Creating Layer inception_4b/output_inception_4b/output_0_split
I0403 14:08:00.834064 29346 net.cpp:425] inception_4b/output_inception_4b/output_0_split <- inception_4b/output
I0403 14:08:00.834086 29346 net.cpp:399] inception_4b/output_inception_4b/output_0_split -> inception_4b/output_inception_4b/output_0_split_0
I0403 14:08:00.834110 29346 net.cpp:399] inception_4b/output_inception_4b/output_0_split -> inception_4b/output_inception_4b/output_0_split_1
I0403 14:08:00.834136 29346 net.cpp:399] inception_4b/output_inception_4b/output_0_split -> inception_4b/output_inception_4b/output_0_split_2
I0403 14:08:00.834162 29346 net.cpp:399] inception_4b/output_inception_4b/output_0_split -> inception_4b/output_inception_4b/output_0_split_3
I0403 14:08:00.834261 29346 net.cpp:141] Setting up inception_4b/output_inception_4b/output_0_split
I0403 14:08:00.834291 29346 net.cpp:148] Top shape: 24 512 14 14 (2408448)
I0403 14:08:00.834312 29346 net.cpp:148] Top shape: 24 512 14 14 (2408448)
I0403 14:08:00.834331 29346 net.cpp:148] Top shape: 24 512 14 14 (2408448)
I0403 14:08:00.834363 29346 net.cpp:148] Top shape: 24 512 14 14 (2408448)
I0403 14:08:00.834384 29346 net.cpp:156] Memory required for data: 1028392224
I0403 14:08:00.834403 29346 layer_factory.hpp:77] Creating layer inception_4c/1x1
I0403 14:08:00.834431 29346 net.cpp:91] Creating Layer inception_4c/1x1
I0403 14:08:00.834456 29346 net.cpp:425] inception_4c/1x1 <- inception_4b/output_inception_4b/output_0_split_0
I0403 14:08:00.834482 29346 net.cpp:399] inception_4c/1x1 -> inception_4c/1x1
I0403 14:08:00.836220 29346 net.cpp:141] Setting up inception_4c/1x1
I0403 14:08:00.836261 29346 net.cpp:148] Top shape: 24 128 14 14 (602112)
I0403 14:08:00.836280 29346 net.cpp:156] Memory required for data: 1030800672
I0403 14:08:00.836304 29346 layer_factory.hpp:77] Creating layer inception_4c/relu_1x1
I0403 14:08:00.836326 29346 net.cpp:91] Creating Layer inception_4c/relu_1x1
I0403 14:08:00.836350 29346 net.cpp:425] inception_4c/relu_1x1 <- inception_4c/1x1
I0403 14:08:00.836377 29346 net.cpp:386] inception_4c/relu_1x1 -> inception_4c/1x1 (in-place)
I0403 14:08:00.836596 29346 net.cpp:141] Setting up inception_4c/relu_1x1
I0403 14:08:00.836627 29346 net.cpp:148] Top shape: 24 128 14 14 (602112)
I0403 14:08:00.836647 29346 net.cpp:156] Memory required for data: 1033209120
I0403 14:08:00.836666 29346 layer_factory.hpp:77] Creating layer inception_4c/3x3_reduce
I0403 14:08:00.836694 29346 net.cpp:91] Creating Layer inception_4c/3x3_reduce
I0403 14:08:00.836715 29346 net.cpp:425] inception_4c/3x3_reduce <- inception_4b/output_inception_4b/output_0_split_1
I0403 14:08:00.836741 29346 net.cpp:399] inception_4c/3x3_reduce -> inception_4c/3x3_reduce
I0403 14:08:00.839073 29346 net.cpp:141] Setting up inception_4c/3x3_reduce
I0403 14:08:00.839109 29346 net.cpp:148] Top shape: 24 128 14 14 (602112)
I0403 14:08:00.839129 29346 net.cpp:156] Memory required for data: 1035617568
I0403 14:08:00.839153 29346 layer_factory.hpp:77] Creating layer inception_4c/relu_3x3_reduce
I0403 14:08:00.839177 29346 net.cpp:91] Creating Layer inception_4c/relu_3x3_reduce
I0403 14:08:00.839200 29346 net.cpp:425] inception_4c/relu_3x3_reduce <- inception_4c/3x3_reduce
I0403 14:08:00.839221 29346 net.cpp:386] inception_4c/relu_3x3_reduce -> inception_4c/3x3_reduce (in-place)
I0403 14:08:00.839576 29346 net.cpp:141] Setting up inception_4c/relu_3x3_reduce
I0403 14:08:00.839610 29346 net.cpp:148] Top shape: 24 128 14 14 (602112)
I0403 14:08:00.839628 29346 net.cpp:156] Memory required for data: 1038026016
I0403 14:08:00.839648 29346 layer_factory.hpp:77] Creating layer inception_4c/3x3
I0403 14:08:00.839675 29346 net.cpp:91] Creating Layer inception_4c/3x3
I0403 14:08:00.839697 29346 net.cpp:425] inception_4c/3x3 <- inception_4c/3x3_reduce
I0403 14:08:00.839726 29346 net.cpp:399] inception_4c/3x3 -> inception_4c/3x3
I0403 14:08:00.844117 29346 net.cpp:141] Setting up inception_4c/3x3
I0403 14:08:00.844168 29346 net.cpp:148] Top shape: 24 256 14 14 (1204224)
I0403 14:08:00.844190 29346 net.cpp:156] Memory required for data: 1042842912
I0403 14:08:00.844230 29346 layer_factory.hpp:77] Creating layer inception_4c/relu_3x3
I0403 14:08:00.844259 29346 net.cpp:91] Creating Layer inception_4c/relu_3x3
I0403 14:08:00.844280 29346 net.cpp:425] inception_4c/relu_3x3 <- inception_4c/3x3
I0403 14:08:00.844301 29346 net.cpp:386] inception_4c/relu_3x3 -> inception_4c/3x3 (in-place)
I0403 14:08:00.844537 29346 net.cpp:141] Setting up inception_4c/relu_3x3
I0403 14:08:00.844570 29346 net.cpp:148] Top shape: 24 256 14 14 (1204224)
I0403 14:08:00.844589 29346 net.cpp:156] Memory required for data: 1047659808
I0403 14:08:00.844609 29346 layer_factory.hpp:77] Creating layer inception_4c/5x5_reduce
I0403 14:08:00.844641 29346 net.cpp:91] Creating Layer inception_4c/5x5_reduce
I0403 14:08:00.844665 29346 net.cpp:425] inception_4c/5x5_reduce <- inception_4b/output_inception_4b/output_0_split_2
I0403 14:08:00.844687 29346 net.cpp:399] inception_4c/5x5_reduce -> inception_4c/5x5_reduce
I0403 14:08:00.846019 29346 net.cpp:141] Setting up inception_4c/5x5_reduce
I0403 14:08:00.846053 29346 net.cpp:148] Top shape: 24 24 14 14 (112896)
I0403 14:08:00.846073 29346 net.cpp:156] Memory required for data: 1048111392
I0403 14:08:00.846096 29346 layer_factory.hpp:77] Creating layer inception_4c/relu_5x5_reduce
I0403 14:08:00.846122 29346 net.cpp:91] Creating Layer inception_4c/relu_5x5_reduce
I0403 14:08:00.846143 29346 net.cpp:425] inception_4c/relu_5x5_reduce <- inception_4c/5x5_reduce
I0403 14:08:00.846164 29346 net.cpp:386] inception_4c/relu_5x5_reduce -> inception_4c/5x5_reduce (in-place)
I0403 14:08:00.846400 29346 net.cpp:141] Setting up inception_4c/relu_5x5_reduce
I0403 14:08:00.846433 29346 net.cpp:148] Top shape: 24 24 14 14 (112896)
I0403 14:08:00.846453 29346 net.cpp:156] Memory required for data: 1048562976
I0403 14:08:00.846472 29346 layer_factory.hpp:77] Creating layer inception_4c/5x5
I0403 14:08:00.846500 29346 net.cpp:91] Creating Layer inception_4c/5x5
I0403 14:08:00.846521 29346 net.cpp:425] inception_4c/5x5 <- inception_4c/5x5_reduce
I0403 14:08:00.846545 29346 net.cpp:399] inception_4c/5x5 -> inception_4c/5x5
I0403 14:08:00.848058 29346 net.cpp:141] Setting up inception_4c/5x5
I0403 14:08:00.848095 29346 net.cpp:148] Top shape: 24 64 14 14 (301056)
I0403 14:08:00.848117 29346 net.cpp:156] Memory required for data: 1049767200
I0403 14:08:00.848140 29346 layer_factory.hpp:77] Creating layer inception_4c/relu_5x5
I0403 14:08:00.848162 29346 net.cpp:91] Creating Layer inception_4c/relu_5x5
I0403 14:08:00.848181 29346 net.cpp:425] inception_4c/relu_5x5 <- inception_4c/5x5
I0403 14:08:00.848206 29346 net.cpp:386] inception_4c/relu_5x5 -> inception_4c/5x5 (in-place)
I0403 14:08:00.848558 29346 net.cpp:141] Setting up inception_4c/relu_5x5
I0403 14:08:00.848594 29346 net.cpp:148] Top shape: 24 64 14 14 (301056)
I0403 14:08:00.848614 29346 net.cpp:156] Memory required for data: 1050971424
I0403 14:08:00.848634 29346 layer_factory.hpp:77] Creating layer inception_4c/pool
I0403 14:08:00.848655 29346 net.cpp:91] Creating Layer inception_4c/pool
I0403 14:08:00.848675 29346 net.cpp:425] inception_4c/pool <- inception_4b/output_inception_4b/output_0_split_3
I0403 14:08:00.848701 29346 net.cpp:399] inception_4c/pool -> inception_4c/pool
I0403 14:08:00.848781 29346 net.cpp:141] Setting up inception_4c/pool
I0403 14:08:00.848811 29346 net.cpp:148] Top shape: 24 512 14 14 (2408448)
I0403 14:08:00.848829 29346 net.cpp:156] Memory required for data: 1060605216
I0403 14:08:00.848847 29346 layer_factory.hpp:77] Creating layer inception_4c/pool_proj
I0403 14:08:00.848881 29346 net.cpp:91] Creating Layer inception_4c/pool_proj
I0403 14:08:00.848903 29346 net.cpp:425] inception_4c/pool_proj <- inception_4c/pool
I0403 14:08:00.848928 29346 net.cpp:399] inception_4c/pool_proj -> inception_4c/pool_proj
I0403 14:08:00.850419 29346 net.cpp:141] Setting up inception_4c/pool_proj
I0403 14:08:00.850453 29346 net.cpp:148] Top shape: 24 64 14 14 (301056)
I0403 14:08:00.850491 29346 net.cpp:156] Memory required for data: 1061809440
I0403 14:08:00.850514 29346 layer_factory.hpp:77] Creating layer inception_4c/relu_pool_proj
I0403 14:08:00.850540 29346 net.cpp:91] Creating Layer inception_4c/relu_pool_proj
I0403 14:08:00.850563 29346 net.cpp:425] inception_4c/relu_pool_proj <- inception_4c/pool_proj
I0403 14:08:00.850584 29346 net.cpp:386] inception_4c/relu_pool_proj -> inception_4c/pool_proj (in-place)
I0403 14:08:00.850810 29346 net.cpp:141] Setting up inception_4c/relu_pool_proj
I0403 14:08:00.850843 29346 net.cpp:148] Top shape: 24 64 14 14 (301056)
I0403 14:08:00.850863 29346 net.cpp:156] Memory required for data: 1063013664
I0403 14:08:00.850883 29346 layer_factory.hpp:77] Creating layer inception_4c/output
I0403 14:08:00.850904 29346 net.cpp:91] Creating Layer inception_4c/output
I0403 14:08:00.850925 29346 net.cpp:425] inception_4c/output <- inception_4c/1x1
I0403 14:08:00.850946 29346 net.cpp:425] inception_4c/output <- inception_4c/3x3
I0403 14:08:00.850967 29346 net.cpp:425] inception_4c/output <- inception_4c/5x5
I0403 14:08:00.850989 29346 net.cpp:425] inception_4c/output <- inception_4c/pool_proj
I0403 14:08:00.851012 29346 net.cpp:399] inception_4c/output -> inception_4c/output
I0403 14:08:00.851069 29346 net.cpp:141] Setting up inception_4c/output
I0403 14:08:00.851099 29346 net.cpp:148] Top shape: 24 512 14 14 (2408448)
I0403 14:08:00.851116 29346 net.cpp:156] Memory required for data: 1072647456
I0403 14:08:00.851135 29346 layer_factory.hpp:77] Creating layer inception_4c/output_inception_4c/output_0_split
I0403 14:08:00.851160 29346 net.cpp:91] Creating Layer inception_4c/output_inception_4c/output_0_split
I0403 14:08:00.851181 29346 net.cpp:425] inception_4c/output_inception_4c/output_0_split <- inception_4c/output
I0403 14:08:00.851202 29346 net.cpp:399] inception_4c/output_inception_4c/output_0_split -> inception_4c/output_inception_4c/output_0_split_0
I0403 14:08:00.851227 29346 net.cpp:399] inception_4c/output_inception_4c/output_0_split -> inception_4c/output_inception_4c/output_0_split_1
I0403 14:08:00.851250 29346 net.cpp:399] inception_4c/output_inception_4c/output_0_split -> inception_4c/output_inception_4c/output_0_split_2
I0403 14:08:00.851279 29346 net.cpp:399] inception_4c/output_inception_4c/output_0_split -> inception_4c/output_inception_4c/output_0_split_3
I0403 14:08:00.851390 29346 net.cpp:141] Setting up inception_4c/output_inception_4c/output_0_split
I0403 14:08:00.851420 29346 net.cpp:148] Top shape: 24 512 14 14 (2408448)
I0403 14:08:00.851441 29346 net.cpp:148] Top shape: 24 512 14 14 (2408448)
I0403 14:08:00.851460 29346 net.cpp:148] Top shape: 24 512 14 14 (2408448)
I0403 14:08:00.851480 29346 net.cpp:148] Top shape: 24 512 14 14 (2408448)
I0403 14:08:00.851496 29346 net.cpp:156] Memory required for data: 1111182624
I0403 14:08:00.851514 29346 layer_factory.hpp:77] Creating layer inception_4d/1x1
I0403 14:08:00.851542 29346 net.cpp:91] Creating Layer inception_4d/1x1
I0403 14:08:00.851563 29346 net.cpp:425] inception_4d/1x1 <- inception_4c/output_inception_4c/output_0_split_0
I0403 14:08:00.851589 29346 net.cpp:399] inception_4d/1x1 -> inception_4d/1x1
I0403 14:08:00.853274 29346 net.cpp:141] Setting up inception_4d/1x1
I0403 14:08:00.853309 29346 net.cpp:148] Top shape: 24 112 14 14 (526848)
I0403 14:08:00.853329 29346 net.cpp:156] Memory required for data: 1113290016
I0403 14:08:00.853363 29346 layer_factory.hpp:77] Creating layer inception_4d/relu_1x1
I0403 14:08:00.853394 29346 net.cpp:91] Creating Layer inception_4d/relu_1x1
I0403 14:08:00.853415 29346 net.cpp:425] inception_4d/relu_1x1 <- inception_4d/1x1
I0403 14:08:00.853437 29346 net.cpp:386] inception_4d/relu_1x1 -> inception_4d/1x1 (in-place)
I0403 14:08:00.853663 29346 net.cpp:141] Setting up inception_4d/relu_1x1
I0403 14:08:00.853695 29346 net.cpp:148] Top shape: 24 112 14 14 (526848)
I0403 14:08:00.853713 29346 net.cpp:156] Memory required for data: 1115397408
I0403 14:08:00.853732 29346 layer_factory.hpp:77] Creating layer inception_4d/3x3_reduce
I0403 14:08:00.853781 29346 net.cpp:91] Creating Layer inception_4d/3x3_reduce
I0403 14:08:00.853807 29346 net.cpp:425] inception_4d/3x3_reduce <- inception_4c/output_inception_4c/output_0_split_1
I0403 14:08:00.853831 29346 net.cpp:399] inception_4d/3x3_reduce -> inception_4d/3x3_reduce
I0403 14:08:00.855670 29346 net.cpp:141] Setting up inception_4d/3x3_reduce
I0403 14:08:00.855705 29346 net.cpp:148] Top shape: 24 144 14 14 (677376)
I0403 14:08:00.855725 29346 net.cpp:156] Memory required for data: 1118106912
I0403 14:08:00.855747 29346 layer_factory.hpp:77] Creating layer inception_4d/relu_3x3_reduce
I0403 14:08:00.855770 29346 net.cpp:91] Creating Layer inception_4d/relu_3x3_reduce
I0403 14:08:00.855790 29346 net.cpp:425] inception_4d/relu_3x3_reduce <- inception_4d/3x3_reduce
I0403 14:08:00.855814 29346 net.cpp:386] inception_4d/relu_3x3_reduce -> inception_4d/3x3_reduce (in-place)
I0403 14:08:00.856165 29346 net.cpp:141] Setting up inception_4d/relu_3x3_reduce
I0403 14:08:00.856199 29346 net.cpp:148] Top shape: 24 144 14 14 (677376)
I0403 14:08:00.856218 29346 net.cpp:156] Memory required for data: 1120816416
I0403 14:08:00.856237 29346 layer_factory.hpp:77] Creating layer inception_4d/3x3
I0403 14:08:00.856266 29346 net.cpp:91] Creating Layer inception_4d/3x3
I0403 14:08:00.856287 29346 net.cpp:425] inception_4d/3x3 <- inception_4d/3x3_reduce
I0403 14:08:00.856315 29346 net.cpp:399] inception_4d/3x3 -> inception_4d/3x3
I0403 14:08:00.861546 29346 net.cpp:141] Setting up inception_4d/3x3
I0403 14:08:00.861580 29346 net.cpp:148] Top shape: 24 288 14 14 (1354752)
I0403 14:08:00.861600 29346 net.cpp:156] Memory required for data: 1126235424
I0403 14:08:00.861624 29346 layer_factory.hpp:77] Creating layer inception_4d/relu_3x3
I0403 14:08:00.861649 29346 net.cpp:91] Creating Layer inception_4d/relu_3x3
I0403 14:08:00.861670 29346 net.cpp:425] inception_4d/relu_3x3 <- inception_4d/3x3
I0403 14:08:00.861691 29346 net.cpp:386] inception_4d/relu_3x3 -> inception_4d/3x3 (in-place)
I0403 14:08:00.861917 29346 net.cpp:141] Setting up inception_4d/relu_3x3
I0403 14:08:00.861949 29346 net.cpp:148] Top shape: 24 288 14 14 (1354752)
I0403 14:08:00.861971 29346 net.cpp:156] Memory required for data: 1131654432
I0403 14:08:00.861990 29346 layer_factory.hpp:77] Creating layer inception_4d/5x5_reduce
I0403 14:08:00.862015 29346 net.cpp:91] Creating Layer inception_4d/5x5_reduce
I0403 14:08:00.862036 29346 net.cpp:425] inception_4d/5x5_reduce <- inception_4c/output_inception_4c/output_0_split_2
I0403 14:08:00.862063 29346 net.cpp:399] inception_4d/5x5_reduce -> inception_4d/5x5_reduce
I0403 14:08:00.863471 29346 net.cpp:141] Setting up inception_4d/5x5_reduce
I0403 14:08:00.863507 29346 net.cpp:148] Top shape: 24 32 14 14 (150528)
I0403 14:08:00.863526 29346 net.cpp:156] Memory required for data: 1132256544
I0403 14:08:00.863549 29346 layer_factory.hpp:77] Creating layer inception_4d/relu_5x5_reduce
I0403 14:08:00.863574 29346 net.cpp:91] Creating Layer inception_4d/relu_5x5_reduce
I0403 14:08:00.863597 29346 net.cpp:425] inception_4d/relu_5x5_reduce <- inception_4d/5x5_reduce
I0403 14:08:00.863618 29346 net.cpp:386] inception_4d/relu_5x5_reduce -> inception_4d/5x5_reduce (in-place)
I0403 14:08:00.863849 29346 net.cpp:141] Setting up inception_4d/relu_5x5_reduce
I0403 14:08:00.863880 29346 net.cpp:148] Top shape: 24 32 14 14 (150528)
I0403 14:08:00.863899 29346 net.cpp:156] Memory required for data: 1132858656
I0403 14:08:00.863917 29346 layer_factory.hpp:77] Creating layer inception_4d/5x5
I0403 14:08:00.863946 29346 net.cpp:91] Creating Layer inception_4d/5x5
I0403 14:08:00.863968 29346 net.cpp:425] inception_4d/5x5 <- inception_4d/5x5_reduce
I0403 14:08:00.863993 29346 net.cpp:399] inception_4d/5x5 -> inception_4d/5x5
I0403 14:08:00.866057 29346 net.cpp:141] Setting up inception_4d/5x5
I0403 14:08:00.866096 29346 net.cpp:148] Top shape: 24 64 14 14 (301056)
I0403 14:08:00.866116 29346 net.cpp:156] Memory required for data: 1134062880
I0403 14:08:00.866140 29346 layer_factory.hpp:77] Creating layer inception_4d/relu_5x5
I0403 14:08:00.866188 29346 net.cpp:91] Creating Layer inception_4d/relu_5x5
I0403 14:08:00.866209 29346 net.cpp:425] inception_4d/relu_5x5 <- inception_4d/5x5
I0403 14:08:00.866231 29346 net.cpp:386] inception_4d/relu_5x5 -> inception_4d/5x5 (in-place)
I0403 14:08:00.866605 29346 net.cpp:141] Setting up inception_4d/relu_5x5
I0403 14:08:00.866639 29346 net.cpp:148] Top shape: 24 64 14 14 (301056)
I0403 14:08:00.866659 29346 net.cpp:156] Memory required for data: 1135267104
I0403 14:08:00.866679 29346 layer_factory.hpp:77] Creating layer inception_4d/pool
I0403 14:08:00.866704 29346 net.cpp:91] Creating Layer inception_4d/pool
I0403 14:08:00.866725 29346 net.cpp:425] inception_4d/pool <- inception_4c/output_inception_4c/output_0_split_3
I0403 14:08:00.866750 29346 net.cpp:399] inception_4d/pool -> inception_4d/pool
I0403 14:08:00.866832 29346 net.cpp:141] Setting up inception_4d/pool
I0403 14:08:00.866863 29346 net.cpp:148] Top shape: 24 512 14 14 (2408448)
I0403 14:08:00.866881 29346 net.cpp:156] Memory required for data: 1144900896
I0403 14:08:00.866900 29346 layer_factory.hpp:77] Creating layer inception_4d/pool_proj
I0403 14:08:00.866930 29346 net.cpp:91] Creating Layer inception_4d/pool_proj
I0403 14:08:00.866950 29346 net.cpp:425] inception_4d/pool_proj <- inception_4d/pool
I0403 14:08:00.866976 29346 net.cpp:399] inception_4d/pool_proj -> inception_4d/pool_proj
I0403 14:08:00.869135 29346 net.cpp:141] Setting up inception_4d/pool_proj
I0403 14:08:00.869173 29346 net.cpp:148] Top shape: 24 64 14 14 (301056)
I0403 14:08:00.869194 29346 net.cpp:156] Memory required for data: 1146105120
I0403 14:08:00.869217 29346 layer_factory.hpp:77] Creating layer inception_4d/relu_pool_proj
I0403 14:08:00.869242 29346 net.cpp:91] Creating Layer inception_4d/relu_pool_proj
I0403 14:08:00.869266 29346 net.cpp:425] inception_4d/relu_pool_proj <- inception_4d/pool_proj
I0403 14:08:00.869287 29346 net.cpp:386] inception_4d/relu_pool_proj -> inception_4d/pool_proj (in-place)
I0403 14:08:00.869520 29346 net.cpp:141] Setting up inception_4d/relu_pool_proj
I0403 14:08:00.869555 29346 net.cpp:148] Top shape: 24 64 14 14 (301056)
I0403 14:08:00.869575 29346 net.cpp:156] Memory required for data: 1147309344
I0403 14:08:00.869593 29346 layer_factory.hpp:77] Creating layer inception_4d/output
I0403 14:08:00.869616 29346 net.cpp:91] Creating Layer inception_4d/output
I0403 14:08:00.869635 29346 net.cpp:425] inception_4d/output <- inception_4d/1x1
I0403 14:08:00.869657 29346 net.cpp:425] inception_4d/output <- inception_4d/3x3
I0403 14:08:00.869676 29346 net.cpp:425] inception_4d/output <- inception_4d/5x5
I0403 14:08:00.869695 29346 net.cpp:425] inception_4d/output <- inception_4d/pool_proj
I0403 14:08:00.869716 29346 net.cpp:399] inception_4d/output -> inception_4d/output
I0403 14:08:00.869777 29346 net.cpp:141] Setting up inception_4d/output
I0403 14:08:00.869807 29346 net.cpp:148] Top shape: 24 528 14 14 (2483712)
I0403 14:08:00.869825 29346 net.cpp:156] Memory required for data: 1157244192
I0403 14:08:00.869844 29346 layer_factory.hpp:77] Creating layer inception_4d/output_inception_4d/output_0_split
I0403 14:08:00.869866 29346 net.cpp:91] Creating Layer inception_4d/output_inception_4d/output_0_split
I0403 14:08:00.869889 29346 net.cpp:425] inception_4d/output_inception_4d/output_0_split <- inception_4d/output
I0403 14:08:00.869911 29346 net.cpp:399] inception_4d/output_inception_4d/output_0_split -> inception_4d/output_inception_4d/output_0_split_0
I0403 14:08:00.869936 29346 net.cpp:399] inception_4d/output_inception_4d/output_0_split -> inception_4d/output_inception_4d/output_0_split_1
I0403 14:08:00.869961 29346 net.cpp:399] inception_4d/output_inception_4d/output_0_split -> inception_4d/output_inception_4d/output_0_split_2
I0403 14:08:00.869987 29346 net.cpp:399] inception_4d/output_inception_4d/output_0_split -> inception_4d/output_inception_4d/output_0_split_3
I0403 14:08:00.870012 29346 net.cpp:399] inception_4d/output_inception_4d/output_0_split -> inception_4d/output_inception_4d/output_0_split_4
I0403 14:08:00.870138 29346 net.cpp:141] Setting up inception_4d/output_inception_4d/output_0_split
I0403 14:08:00.870183 29346 net.cpp:148] Top shape: 24 528 14 14 (2483712)
I0403 14:08:00.870204 29346 net.cpp:148] Top shape: 24 528 14 14 (2483712)
I0403 14:08:00.870224 29346 net.cpp:148] Top shape: 24 528 14 14 (2483712)
I0403 14:08:00.870244 29346 net.cpp:148] Top shape: 24 528 14 14 (2483712)
I0403 14:08:00.870265 29346 net.cpp:148] Top shape: 24 528 14 14 (2483712)
I0403 14:08:00.870282 29346 net.cpp:156] Memory required for data: 1206918432
I0403 14:08:00.870301 29346 layer_factory.hpp:77] Creating layer loss2/ave_pool
I0403 14:08:00.870323 29346 net.cpp:91] Creating Layer loss2/ave_pool
I0403 14:08:00.870342 29346 net.cpp:425] loss2/ave_pool <- inception_4d/output_inception_4d/output_0_split_0
I0403 14:08:00.870375 29346 net.cpp:399] loss2/ave_pool -> loss2/ave_pool
I0403 14:08:00.870760 29346 net.cpp:141] Setting up loss2/ave_pool
I0403 14:08:00.870795 29346 net.cpp:148] Top shape: 24 528 4 4 (202752)
I0403 14:08:00.870813 29346 net.cpp:156] Memory required for data: 1207729440
I0403 14:08:00.870832 29346 layer_factory.hpp:77] Creating layer loss2/conv
I0403 14:08:00.870860 29346 net.cpp:91] Creating Layer loss2/conv
I0403 14:08:00.870882 29346 net.cpp:425] loss2/conv <- loss2/ave_pool
I0403 14:08:00.870910 29346 net.cpp:399] loss2/conv -> loss2/conv
I0403 14:08:00.873260 29346 net.cpp:141] Setting up loss2/conv
I0403 14:08:00.873296 29346 net.cpp:148] Top shape: 24 128 4 4 (49152)
I0403 14:08:00.873317 29346 net.cpp:156] Memory required for data: 1207926048
I0403 14:08:00.873340 29346 layer_factory.hpp:77] Creating layer loss2/relu_conv
I0403 14:08:00.873378 29346 net.cpp:91] Creating Layer loss2/relu_conv
I0403 14:08:00.873400 29346 net.cpp:425] loss2/relu_conv <- loss2/conv
I0403 14:08:00.873422 29346 net.cpp:386] loss2/relu_conv -> loss2/conv (in-place)
I0403 14:08:00.873771 29346 net.cpp:141] Setting up loss2/relu_conv
I0403 14:08:00.873808 29346 net.cpp:148] Top shape: 24 128 4 4 (49152)
I0403 14:08:00.873827 29346 net.cpp:156] Memory required for data: 1208122656
I0403 14:08:00.873847 29346 layer_factory.hpp:77] Creating layer loss2/fc
I0403 14:08:00.873872 29346 net.cpp:91] Creating Layer loss2/fc
I0403 14:08:00.873891 29346 net.cpp:425] loss2/fc <- loss2/conv
I0403 14:08:00.873916 29346 net.cpp:399] loss2/fc -> loss2/fc
I0403 14:08:00.895622 29346 net.cpp:141] Setting up loss2/fc
I0403 14:08:00.895684 29346 net.cpp:148] Top shape: 24 1024 (24576)
I0403 14:08:00.895704 29346 net.cpp:156] Memory required for data: 1208220960
I0403 14:08:00.895728 29346 layer_factory.hpp:77] Creating layer loss2/relu_fc
I0403 14:08:00.895756 29346 net.cpp:91] Creating Layer loss2/relu_fc
I0403 14:08:00.895781 29346 net.cpp:425] loss2/relu_fc <- loss2/fc
I0403 14:08:00.895803 29346 net.cpp:386] loss2/relu_fc -> loss2/fc (in-place)
I0403 14:08:00.896232 29346 net.cpp:141] Setting up loss2/relu_fc
I0403 14:08:00.896265 29346 net.cpp:148] Top shape: 24 1024 (24576)
I0403 14:08:00.896286 29346 net.cpp:156] Memory required for data: 1208319264
I0403 14:08:00.896304 29346 layer_factory.hpp:77] Creating layer loss2/drop_fc
I0403 14:08:00.896332 29346 net.cpp:91] Creating Layer loss2/drop_fc
I0403 14:08:00.896358 29346 net.cpp:425] loss2/drop_fc <- loss2/fc
I0403 14:08:00.896380 29346 net.cpp:386] loss2/drop_fc -> loss2/fc (in-place)
I0403 14:08:00.896443 29346 net.cpp:141] Setting up loss2/drop_fc
I0403 14:08:00.896473 29346 net.cpp:148] Top shape: 24 1024 (24576)
I0403 14:08:00.896492 29346 net.cpp:156] Memory required for data: 1208417568
I0403 14:08:00.896509 29346 layer_factory.hpp:77] Creating layer loss2/classifier_plantvillage
I0403 14:08:00.896533 29346 net.cpp:91] Creating Layer loss2/classifier_plantvillage
I0403 14:08:00.896553 29346 net.cpp:425] loss2/classifier_plantvillage <- loss2/fc
I0403 14:08:00.896576 29346 net.cpp:399] loss2/classifier_plantvillage -> loss2/classifier_plantvillage
I0403 14:08:00.897079 29346 net.cpp:141] Setting up loss2/classifier_plantvillage
I0403 14:08:00.897111 29346 net.cpp:148] Top shape: 24 38 (912)
I0403 14:08:00.897130 29346 net.cpp:156] Memory required for data: 1208421216
I0403 14:08:00.897183 29346 layer_factory.hpp:77] Creating layer loss2/classifier_plantvillage_loss2/classifier_plantvillage_0_split
I0403 14:08:00.897207 29346 net.cpp:91] Creating Layer loss2/classifier_plantvillage_loss2/classifier_plantvillage_0_split
I0403 14:08:00.897227 29346 net.cpp:425] loss2/classifier_plantvillage_loss2/classifier_plantvillage_0_split <- loss2/classifier_plantvillage
I0403 14:08:00.897248 29346 net.cpp:399] loss2/classifier_plantvillage_loss2/classifier_plantvillage_0_split -> loss2/classifier_plantvillage_loss2/classifier_plantvillage_0_split_0
I0403 14:08:00.897275 29346 net.cpp:399] loss2/classifier_plantvillage_loss2/classifier_plantvillage_0_split -> loss2/classifier_plantvillage_loss2/classifier_plantvillage_0_split_1
I0403 14:08:00.897305 29346 net.cpp:399] loss2/classifier_plantvillage_loss2/classifier_plantvillage_0_split -> loss2/classifier_plantvillage_loss2/classifier_plantvillage_0_split_2
I0403 14:08:00.897404 29346 net.cpp:141] Setting up loss2/classifier_plantvillage_loss2/classifier_plantvillage_0_split
I0403 14:08:00.897438 29346 net.cpp:148] Top shape: 24 38 (912)
I0403 14:08:00.897459 29346 net.cpp:148] Top shape: 24 38 (912)
I0403 14:08:00.897480 29346 net.cpp:148] Top shape: 24 38 (912)
I0403 14:08:00.897496 29346 net.cpp:156] Memory required for data: 1208432160
I0403 14:08:00.897514 29346 layer_factory.hpp:77] Creating layer inception_4e/1x1
I0403 14:08:00.897541 29346 net.cpp:91] Creating Layer inception_4e/1x1
I0403 14:08:00.897564 29346 net.cpp:425] inception_4e/1x1 <- inception_4d/output_inception_4d/output_0_split_1
I0403 14:08:00.897591 29346 net.cpp:399] inception_4e/1x1 -> inception_4e/1x1
I0403 14:08:00.899864 29346 net.cpp:141] Setting up inception_4e/1x1
I0403 14:08:00.899902 29346 net.cpp:148] Top shape: 24 256 14 14 (1204224)
I0403 14:08:00.899922 29346 net.cpp:156] Memory required for data: 1213249056
I0403 14:08:00.899945 29346 layer_factory.hpp:77] Creating layer inception_4e/relu_1x1
I0403 14:08:00.899968 29346 net.cpp:91] Creating Layer inception_4e/relu_1x1
I0403 14:08:00.899988 29346 net.cpp:425] inception_4e/relu_1x1 <- inception_4e/1x1
I0403 14:08:00.900012 29346 net.cpp:386] inception_4e/relu_1x1 -> inception_4e/1x1 (in-place)
I0403 14:08:00.900373 29346 net.cpp:141] Setting up inception_4e/relu_1x1
I0403 14:08:00.900408 29346 net.cpp:148] Top shape: 24 256 14 14 (1204224)
I0403 14:08:00.900429 29346 net.cpp:156] Memory required for data: 1218065952
I0403 14:08:00.900447 29346 layer_factory.hpp:77] Creating layer inception_4e/3x3_reduce
I0403 14:08:00.900475 29346 net.cpp:91] Creating Layer inception_4e/3x3_reduce
I0403 14:08:00.900496 29346 net.cpp:425] inception_4e/3x3_reduce <- inception_4d/output_inception_4d/output_0_split_2
I0403 14:08:00.900521 29346 net.cpp:399] inception_4e/3x3_reduce -> inception_4e/3x3_reduce
I0403 14:08:00.903098 29346 net.cpp:141] Setting up inception_4e/3x3_reduce
I0403 14:08:00.903137 29346 net.cpp:148] Top shape: 24 160 14 14 (752640)
I0403 14:08:00.903158 29346 net.cpp:156] Memory required for data: 1221076512
I0403 14:08:00.903182 29346 layer_factory.hpp:77] Creating layer inception_4e/relu_3x3_reduce
I0403 14:08:00.903203 29346 net.cpp:91] Creating Layer inception_4e/relu_3x3_reduce
I0403 14:08:00.903223 29346 net.cpp:425] inception_4e/relu_3x3_reduce <- inception_4e/3x3_reduce
I0403 14:08:00.903244 29346 net.cpp:386] inception_4e/relu_3x3_reduce -> inception_4e/3x3_reduce (in-place)
I0403 14:08:00.903491 29346 net.cpp:141] Setting up inception_4e/relu_3x3_reduce
I0403 14:08:00.903525 29346 net.cpp:148] Top shape: 24 160 14 14 (752640)
I0403 14:08:00.903547 29346 net.cpp:156] Memory required for data: 1224087072
I0403 14:08:00.903565 29346 layer_factory.hpp:77] Creating layer inception_4e/3x3
I0403 14:08:00.903592 29346 net.cpp:91] Creating Layer inception_4e/3x3
I0403 14:08:00.903614 29346 net.cpp:425] inception_4e/3x3 <- inception_4e/3x3_reduce
I0403 14:08:00.903637 29346 net.cpp:399] inception_4e/3x3 -> inception_4e/3x3
I0403 14:08:00.909791 29346 net.cpp:141] Setting up inception_4e/3x3
I0403 14:08:00.909845 29346 net.cpp:148] Top shape: 24 320 14 14 (1505280)
I0403 14:08:00.909867 29346 net.cpp:156] Memory required for data: 1230108192
I0403 14:08:00.909890 29346 layer_factory.hpp:77] Creating layer inception_4e/relu_3x3
I0403 14:08:00.909912 29346 net.cpp:91] Creating Layer inception_4e/relu_3x3
I0403 14:08:00.909932 29346 net.cpp:425] inception_4e/relu_3x3 <- inception_4e/3x3
I0403 14:08:00.909956 29346 net.cpp:386] inception_4e/relu_3x3 -> inception_4e/3x3 (in-place)
I0403 14:08:00.910365 29346 net.cpp:141] Setting up inception_4e/relu_3x3
I0403 14:08:00.910399 29346 net.cpp:148] Top shape: 24 320 14 14 (1505280)
I0403 14:08:00.910418 29346 net.cpp:156] Memory required for data: 1236129312
I0403 14:08:00.910437 29346 layer_factory.hpp:77] Creating layer inception_4e/5x5_reduce
I0403 14:08:00.910467 29346 net.cpp:91] Creating Layer inception_4e/5x5_reduce
I0403 14:08:00.910490 29346 net.cpp:425] inception_4e/5x5_reduce <- inception_4d/output_inception_4d/output_0_split_3
I0403 14:08:00.910517 29346 net.cpp:399] inception_4e/5x5_reduce -> inception_4e/5x5_reduce
I0403 14:08:00.911816 29346 net.cpp:141] Setting up inception_4e/5x5_reduce
I0403 14:08:00.911850 29346 net.cpp:148] Top shape: 24 32 14 14 (150528)
I0403 14:08:00.911870 29346 net.cpp:156] Memory required for data: 1236731424
I0403 14:08:00.911892 29346 layer_factory.hpp:77] Creating layer inception_4e/relu_5x5_reduce
I0403 14:08:00.911918 29346 net.cpp:91] Creating Layer inception_4e/relu_5x5_reduce
I0403 14:08:00.911939 29346 net.cpp:425] inception_4e/relu_5x5_reduce <- inception_4e/5x5_reduce
I0403 14:08:00.911960 29346 net.cpp:386] inception_4e/relu_5x5_reduce -> inception_4e/5x5_reduce (in-place)
I0403 14:08:00.912327 29346 net.cpp:141] Setting up inception_4e/relu_5x5_reduce
I0403 14:08:00.912364 29346 net.cpp:148] Top shape: 24 32 14 14 (150528)
I0403 14:08:00.912384 29346 net.cpp:156] Memory required for data: 1237333536
I0403 14:08:00.912403 29346 layer_factory.hpp:77] Creating layer inception_4e/5x5
I0403 14:08:00.912452 29346 net.cpp:91] Creating Layer inception_4e/5x5
I0403 14:08:00.912475 29346 net.cpp:425] inception_4e/5x5 <- inception_4e/5x5_reduce
I0403 14:08:00.912499 29346 net.cpp:399] inception_4e/5x5 -> inception_4e/5x5
I0403 14:08:00.914762 29346 net.cpp:141] Setting up inception_4e/5x5
I0403 14:08:00.914796 29346 net.cpp:148] Top shape: 24 128 14 14 (602112)
I0403 14:08:00.914815 29346 net.cpp:156] Memory required for data: 1239741984
I0403 14:08:00.914839 29346 layer_factory.hpp:77] Creating layer inception_4e/relu_5x5
I0403 14:08:00.914865 29346 net.cpp:91] Creating Layer inception_4e/relu_5x5
I0403 14:08:00.914885 29346 net.cpp:425] inception_4e/relu_5x5 <- inception_4e/5x5
I0403 14:08:00.914907 29346 net.cpp:386] inception_4e/relu_5x5 -> inception_4e/5x5 (in-place)
I0403 14:08:00.915149 29346 net.cpp:141] Setting up inception_4e/relu_5x5
I0403 14:08:00.915184 29346 net.cpp:148] Top shape: 24 128 14 14 (602112)
I0403 14:08:00.915205 29346 net.cpp:156] Memory required for data: 1242150432
I0403 14:08:00.915225 29346 layer_factory.hpp:77] Creating layer inception_4e/pool
I0403 14:08:00.915247 29346 net.cpp:91] Creating Layer inception_4e/pool
I0403 14:08:00.915268 29346 net.cpp:425] inception_4e/pool <- inception_4d/output_inception_4d/output_0_split_4
I0403 14:08:00.915289 29346 net.cpp:399] inception_4e/pool -> inception_4e/pool
I0403 14:08:00.915383 29346 net.cpp:141] Setting up inception_4e/pool
I0403 14:08:00.915415 29346 net.cpp:148] Top shape: 24 528 14 14 (2483712)
I0403 14:08:00.915432 29346 net.cpp:156] Memory required for data: 1252085280
I0403 14:08:00.915451 29346 layer_factory.hpp:77] Creating layer inception_4e/pool_proj
I0403 14:08:00.915478 29346 net.cpp:91] Creating Layer inception_4e/pool_proj
I0403 14:08:00.915499 29346 net.cpp:425] inception_4e/pool_proj <- inception_4e/pool
I0403 14:08:00.915525 29346 net.cpp:399] inception_4e/pool_proj -> inception_4e/pool_proj
I0403 14:08:00.917361 29346 net.cpp:141] Setting up inception_4e/pool_proj
I0403 14:08:00.917395 29346 net.cpp:148] Top shape: 24 128 14 14 (602112)
I0403 14:08:00.917433 29346 net.cpp:156] Memory required for data: 1254493728
I0403 14:08:00.917457 29346 layer_factory.hpp:77] Creating layer inception_4e/relu_pool_proj
I0403 14:08:00.917482 29346 net.cpp:91] Creating Layer inception_4e/relu_pool_proj
I0403 14:08:00.917503 29346 net.cpp:425] inception_4e/relu_pool_proj <- inception_4e/pool_proj
I0403 14:08:00.917525 29346 net.cpp:386] inception_4e/relu_pool_proj -> inception_4e/pool_proj (in-place)
I0403 14:08:00.917881 29346 net.cpp:141] Setting up inception_4e/relu_pool_proj
I0403 14:08:00.917914 29346 net.cpp:148] Top shape: 24 128 14 14 (602112)
I0403 14:08:00.917933 29346 net.cpp:156] Memory required for data: 1256902176
I0403 14:08:00.917951 29346 layer_factory.hpp:77] Creating layer inception_4e/output
I0403 14:08:00.917974 29346 net.cpp:91] Creating Layer inception_4e/output
I0403 14:08:00.917994 29346 net.cpp:425] inception_4e/output <- inception_4e/1x1
I0403 14:08:00.918015 29346 net.cpp:425] inception_4e/output <- inception_4e/3x3
I0403 14:08:00.918035 29346 net.cpp:425] inception_4e/output <- inception_4e/5x5
I0403 14:08:00.918056 29346 net.cpp:425] inception_4e/output <- inception_4e/pool_proj
I0403 14:08:00.918081 29346 net.cpp:399] inception_4e/output -> inception_4e/output
I0403 14:08:00.918145 29346 net.cpp:141] Setting up inception_4e/output
I0403 14:08:00.918175 29346 net.cpp:148] Top shape: 24 832 14 14 (3913728)
I0403 14:08:00.918193 29346 net.cpp:156] Memory required for data: 1272557088
I0403 14:08:00.918212 29346 layer_factory.hpp:77] Creating layer pool4/3x3_s2
I0403 14:08:00.918233 29346 net.cpp:91] Creating Layer pool4/3x3_s2
I0403 14:08:00.918252 29346 net.cpp:425] pool4/3x3_s2 <- inception_4e/output
I0403 14:08:00.918279 29346 net.cpp:399] pool4/3x3_s2 -> pool4/3x3_s2
I0403 14:08:00.918368 29346 net.cpp:141] Setting up pool4/3x3_s2
I0403 14:08:00.918398 29346 net.cpp:148] Top shape: 24 832 7 7 (978432)
I0403 14:08:00.918416 29346 net.cpp:156] Memory required for data: 1276470816
I0403 14:08:00.918436 29346 layer_factory.hpp:77] Creating layer pool4/3x3_s2_pool4/3x3_s2_0_split
I0403 14:08:00.918459 29346 net.cpp:91] Creating Layer pool4/3x3_s2_pool4/3x3_s2_0_split
I0403 14:08:00.918480 29346 net.cpp:425] pool4/3x3_s2_pool4/3x3_s2_0_split <- pool4/3x3_s2
I0403 14:08:00.918503 29346 net.cpp:399] pool4/3x3_s2_pool4/3x3_s2_0_split -> pool4/3x3_s2_pool4/3x3_s2_0_split_0
I0403 14:08:00.918529 29346 net.cpp:399] pool4/3x3_s2_pool4/3x3_s2_0_split -> pool4/3x3_s2_pool4/3x3_s2_0_split_1
I0403 14:08:00.918557 29346 net.cpp:399] pool4/3x3_s2_pool4/3x3_s2_0_split -> pool4/3x3_s2_pool4/3x3_s2_0_split_2
I0403 14:08:00.918583 29346 net.cpp:399] pool4/3x3_s2_pool4/3x3_s2_0_split -> pool4/3x3_s2_pool4/3x3_s2_0_split_3
I0403 14:08:00.918694 29346 net.cpp:141] Setting up pool4/3x3_s2_pool4/3x3_s2_0_split
I0403 14:08:00.918723 29346 net.cpp:148] Top shape: 24 832 7 7 (978432)
I0403 14:08:00.918743 29346 net.cpp:148] Top shape: 24 832 7 7 (978432)
I0403 14:08:00.918762 29346 net.cpp:148] Top shape: 24 832 7 7 (978432)
I0403 14:08:00.918781 29346 net.cpp:148] Top shape: 24 832 7 7 (978432)
I0403 14:08:00.918798 29346 net.cpp:156] Memory required for data: 1292125728
I0403 14:08:00.918817 29346 layer_factory.hpp:77] Creating layer inception_5a/1x1
I0403 14:08:00.918846 29346 net.cpp:91] Creating Layer inception_5a/1x1
I0403 14:08:00.918870 29346 net.cpp:425] inception_5a/1x1 <- pool4/3x3_s2_pool4/3x3_s2_0_split_0
I0403 14:08:00.918895 29346 net.cpp:399] inception_5a/1x1 -> inception_5a/1x1
I0403 14:08:00.922440 29346 net.cpp:141] Setting up inception_5a/1x1
I0403 14:08:00.922473 29346 net.cpp:148] Top shape: 24 256 7 7 (301056)
I0403 14:08:00.922492 29346 net.cpp:156] Memory required for data: 1293329952
I0403 14:08:00.922514 29346 layer_factory.hpp:77] Creating layer inception_5a/relu_1x1
I0403 14:08:00.922540 29346 net.cpp:91] Creating Layer inception_5a/relu_1x1
I0403 14:08:00.922562 29346 net.cpp:425] inception_5a/relu_1x1 <- inception_5a/1x1
I0403 14:08:00.922585 29346 net.cpp:386] inception_5a/relu_1x1 -> inception_5a/1x1 (in-place)
I0403 14:08:00.922969 29346 net.cpp:141] Setting up inception_5a/relu_1x1
I0403 14:08:00.923003 29346 net.cpp:148] Top shape: 24 256 7 7 (301056)
I0403 14:08:00.923022 29346 net.cpp:156] Memory required for data: 1294534176
I0403 14:08:00.923043 29346 layer_factory.hpp:77] Creating layer inception_5a/3x3_reduce
I0403 14:08:00.923069 29346 net.cpp:91] Creating Layer inception_5a/3x3_reduce
I0403 14:08:00.923091 29346 net.cpp:425] inception_5a/3x3_reduce <- pool4/3x3_s2_pool4/3x3_s2_0_split_1
I0403 14:08:00.923117 29346 net.cpp:399] inception_5a/3x3_reduce -> inception_5a/3x3_reduce
I0403 14:08:00.926116 29346 net.cpp:141] Setting up inception_5a/3x3_reduce
I0403 14:08:00.926153 29346 net.cpp:148] Top shape: 24 160 7 7 (188160)
I0403 14:08:00.926174 29346 net.cpp:156] Memory required for data: 1295286816
I0403 14:08:00.926198 29346 layer_factory.hpp:77] Creating layer inception_5a/relu_3x3_reduce
I0403 14:08:00.926220 29346 net.cpp:91] Creating Layer inception_5a/relu_3x3_reduce
I0403 14:08:00.926239 29346 net.cpp:425] inception_5a/relu_3x3_reduce <- inception_5a/3x3_reduce
I0403 14:08:00.926265 29346 net.cpp:386] inception_5a/relu_3x3_reduce -> inception_5a/3x3_reduce (in-place)
I0403 14:08:00.926506 29346 net.cpp:141] Setting up inception_5a/relu_3x3_reduce
I0403 14:08:00.926538 29346 net.cpp:148] Top shape: 24 160 7 7 (188160)
I0403 14:08:00.926558 29346 net.cpp:156] Memory required for data: 1296039456
I0403 14:08:00.926578 29346 layer_factory.hpp:77] Creating layer inception_5a/3x3
I0403 14:08:00.926605 29346 net.cpp:91] Creating Layer inception_5a/3x3
I0403 14:08:00.926628 29346 net.cpp:425] inception_5a/3x3 <- inception_5a/3x3_reduce
I0403 14:08:00.926656 29346 net.cpp:399] inception_5a/3x3 -> inception_5a/3x3
I0403 14:08:00.932845 29346 net.cpp:141] Setting up inception_5a/3x3
I0403 14:08:00.932883 29346 net.cpp:148] Top shape: 24 320 7 7 (376320)
I0403 14:08:00.932903 29346 net.cpp:156] Memory required for data: 1297544736
I0403 14:08:00.932925 29346 layer_factory.hpp:77] Creating layer inception_5a/relu_3x3
I0403 14:08:00.932951 29346 net.cpp:91] Creating Layer inception_5a/relu_3x3
I0403 14:08:00.932973 29346 net.cpp:425] inception_5a/relu_3x3 <- inception_5a/3x3
I0403 14:08:00.932994 29346 net.cpp:386] inception_5a/relu_3x3 -> inception_5a/3x3 (in-place)
I0403 14:08:00.933369 29346 net.cpp:141] Setting up inception_5a/relu_3x3
I0403 14:08:00.933403 29346 net.cpp:148] Top shape: 24 320 7 7 (376320)
I0403 14:08:00.933423 29346 net.cpp:156] Memory required for data: 1299050016
I0403 14:08:00.933441 29346 layer_factory.hpp:77] Creating layer inception_5a/5x5_reduce
I0403 14:08:00.933470 29346 net.cpp:91] Creating Layer inception_5a/5x5_reduce
I0403 14:08:00.933493 29346 net.cpp:425] inception_5a/5x5_reduce <- pool4/3x3_s2_pool4/3x3_s2_0_split_2
I0403 14:08:00.933521 29346 net.cpp:399] inception_5a/5x5_reduce -> inception_5a/5x5_reduce
I0403 14:08:00.934957 29346 net.cpp:141] Setting up inception_5a/5x5_reduce
I0403 14:08:00.934996 29346 net.cpp:148] Top shape: 24 32 7 7 (37632)
I0403 14:08:00.935016 29346 net.cpp:156] Memory required for data: 1299200544
I0403 14:08:00.935040 29346 layer_factory.hpp:77] Creating layer inception_5a/relu_5x5_reduce
I0403 14:08:00.935062 29346 net.cpp:91] Creating Layer inception_5a/relu_5x5_reduce
I0403 14:08:00.935082 29346 net.cpp:425] inception_5a/relu_5x5_reduce <- inception_5a/5x5_reduce
I0403 14:08:00.935104 29346 net.cpp:386] inception_5a/relu_5x5_reduce -> inception_5a/5x5_reduce (in-place)
I0403 14:08:00.935482 29346 net.cpp:141] Setting up inception_5a/relu_5x5_reduce
I0403 14:08:00.935518 29346 net.cpp:148] Top shape: 24 32 7 7 (37632)
I0403 14:08:00.935537 29346 net.cpp:156] Memory required for data: 1299351072
I0403 14:08:00.935556 29346 layer_factory.hpp:77] Creating layer inception_5a/5x5
I0403 14:08:00.935585 29346 net.cpp:91] Creating Layer inception_5a/5x5
I0403 14:08:00.935607 29346 net.cpp:425] inception_5a/5x5 <- inception_5a/5x5_reduce
I0403 14:08:00.935631 29346 net.cpp:399] inception_5a/5x5 -> inception_5a/5x5
I0403 14:08:00.937757 29346 net.cpp:141] Setting up inception_5a/5x5
I0403 14:08:00.937808 29346 net.cpp:148] Top shape: 24 128 7 7 (150528)
I0403 14:08:00.937827 29346 net.cpp:156] Memory required for data: 1299953184
I0403 14:08:00.937851 29346 layer_factory.hpp:77] Creating layer inception_5a/relu_5x5
I0403 14:08:00.937876 29346 net.cpp:91] Creating Layer inception_5a/relu_5x5
I0403 14:08:00.937897 29346 net.cpp:425] inception_5a/relu_5x5 <- inception_5a/5x5
I0403 14:08:00.937919 29346 net.cpp:386] inception_5a/relu_5x5 -> inception_5a/5x5 (in-place)
I0403 14:08:00.938154 29346 net.cpp:141] Setting up inception_5a/relu_5x5
I0403 14:08:00.938189 29346 net.cpp:148] Top shape: 24 128 7 7 (150528)
I0403 14:08:00.938208 29346 net.cpp:156] Memory required for data: 1300555296
I0403 14:08:00.938227 29346 layer_factory.hpp:77] Creating layer inception_5a/pool
I0403 14:08:00.938249 29346 net.cpp:91] Creating Layer inception_5a/pool
I0403 14:08:00.938269 29346 net.cpp:425] inception_5a/pool <- pool4/3x3_s2_pool4/3x3_s2_0_split_3
I0403 14:08:00.938297 29346 net.cpp:399] inception_5a/pool -> inception_5a/pool
I0403 14:08:00.938390 29346 net.cpp:141] Setting up inception_5a/pool
I0403 14:08:00.938421 29346 net.cpp:148] Top shape: 24 832 7 7 (978432)
I0403 14:08:00.938438 29346 net.cpp:156] Memory required for data: 1304469024
I0403 14:08:00.938457 29346 layer_factory.hpp:77] Creating layer inception_5a/pool_proj
I0403 14:08:00.938483 29346 net.cpp:91] Creating Layer inception_5a/pool_proj
I0403 14:08:00.938506 29346 net.cpp:425] inception_5a/pool_proj <- inception_5a/pool
I0403 14:08:00.938532 29346 net.cpp:399] inception_5a/pool_proj -> inception_5a/pool_proj
I0403 14:08:00.941323 29346 net.cpp:141] Setting up inception_5a/pool_proj
I0403 14:08:00.941367 29346 net.cpp:148] Top shape: 24 128 7 7 (150528)
I0403 14:08:00.941388 29346 net.cpp:156] Memory required for data: 1305071136
I0403 14:08:00.941411 29346 layer_factory.hpp:77] Creating layer inception_5a/relu_pool_proj
I0403 14:08:00.941437 29346 net.cpp:91] Creating Layer inception_5a/relu_pool_proj
I0403 14:08:00.941458 29346 net.cpp:425] inception_5a/relu_pool_proj <- inception_5a/pool_proj
I0403 14:08:00.941481 29346 net.cpp:386] inception_5a/relu_pool_proj -> inception_5a/pool_proj (in-place)
I0403 14:08:00.941839 29346 net.cpp:141] Setting up inception_5a/relu_pool_proj
I0403 14:08:00.941872 29346 net.cpp:148] Top shape: 24 128 7 7 (150528)
I0403 14:08:00.941891 29346 net.cpp:156] Memory required for data: 1305673248
I0403 14:08:00.941910 29346 layer_factory.hpp:77] Creating layer inception_5a/output
I0403 14:08:00.941936 29346 net.cpp:91] Creating Layer inception_5a/output
I0403 14:08:00.941958 29346 net.cpp:425] inception_5a/output <- inception_5a/1x1
I0403 14:08:00.941979 29346 net.cpp:425] inception_5a/output <- inception_5a/3x3
I0403 14:08:00.941999 29346 net.cpp:425] inception_5a/output <- inception_5a/5x5
I0403 14:08:00.942019 29346 net.cpp:425] inception_5a/output <- inception_5a/pool_proj
I0403 14:08:00.942039 29346 net.cpp:399] inception_5a/output -> inception_5a/output
I0403 14:08:00.942101 29346 net.cpp:141] Setting up inception_5a/output
I0403 14:08:00.942134 29346 net.cpp:148] Top shape: 24 832 7 7 (978432)
I0403 14:08:00.942154 29346 net.cpp:156] Memory required for data: 1309586976
I0403 14:08:00.942173 29346 layer_factory.hpp:77] Creating layer inception_5a/output_inception_5a/output_0_split
I0403 14:08:00.942195 29346 net.cpp:91] Creating Layer inception_5a/output_inception_5a/output_0_split
I0403 14:08:00.942214 29346 net.cpp:425] inception_5a/output_inception_5a/output_0_split <- inception_5a/output
I0403 14:08:00.942239 29346 net.cpp:399] inception_5a/output_inception_5a/output_0_split -> inception_5a/output_inception_5a/output_0_split_0
I0403 14:08:00.942266 29346 net.cpp:399] inception_5a/output_inception_5a/output_0_split -> inception_5a/output_inception_5a/output_0_split_1
I0403 14:08:00.942292 29346 net.cpp:399] inception_5a/output_inception_5a/output_0_split -> inception_5a/output_inception_5a/output_0_split_2
I0403 14:08:00.942317 29346 net.cpp:399] inception_5a/output_inception_5a/output_0_split -> inception_5a/output_inception_5a/output_0_split_3
I0403 14:08:00.942461 29346 net.cpp:141] Setting up inception_5a/output_inception_5a/output_0_split
I0403 14:08:00.942495 29346 net.cpp:148] Top shape: 24 832 7 7 (978432)
I0403 14:08:00.942517 29346 net.cpp:148] Top shape: 24 832 7 7 (978432)
I0403 14:08:00.942538 29346 net.cpp:148] Top shape: 24 832 7 7 (978432)
I0403 14:08:00.942558 29346 net.cpp:148] Top shape: 24 832 7 7 (978432)
I0403 14:08:00.942574 29346 net.cpp:156] Memory required for data: 1325241888
I0403 14:08:00.942594 29346 layer_factory.hpp:77] Creating layer inception_5b/1x1
I0403 14:08:00.942620 29346 net.cpp:91] Creating Layer inception_5b/1x1
I0403 14:08:00.942642 29346 net.cpp:425] inception_5b/1x1 <- inception_5a/output_inception_5a/output_0_split_0
I0403 14:08:00.942667 29346 net.cpp:399] inception_5b/1x1 -> inception_5b/1x1
I0403 14:08:00.947326 29346 net.cpp:141] Setting up inception_5b/1x1
I0403 14:08:00.947376 29346 net.cpp:148] Top shape: 24 384 7 7 (451584)
I0403 14:08:00.947397 29346 net.cpp:156] Memory required for data: 1327048224
I0403 14:08:00.947422 29346 layer_factory.hpp:77] Creating layer inception_5b/relu_1x1
I0403 14:08:00.947445 29346 net.cpp:91] Creating Layer inception_5b/relu_1x1
I0403 14:08:00.947465 29346 net.cpp:425] inception_5b/relu_1x1 <- inception_5b/1x1
I0403 14:08:00.947491 29346 net.cpp:386] inception_5b/relu_1x1 -> inception_5b/1x1 (in-place)
I0403 14:08:00.947868 29346 net.cpp:141] Setting up inception_5b/relu_1x1
I0403 14:08:00.947901 29346 net.cpp:148] Top shape: 24 384 7 7 (451584)
I0403 14:08:00.947921 29346 net.cpp:156] Memory required for data: 1328854560
I0403 14:08:00.947940 29346 layer_factory.hpp:77] Creating layer inception_5b/3x3_reduce
I0403 14:08:00.947968 29346 net.cpp:91] Creating Layer inception_5b/3x3_reduce
I0403 14:08:00.947991 29346 net.cpp:425] inception_5b/3x3_reduce <- inception_5a/output_inception_5a/output_0_split_1
I0403 14:08:00.948020 29346 net.cpp:399] inception_5b/3x3_reduce -> inception_5b/3x3_reduce
I0403 14:08:00.951292 29346 net.cpp:141] Setting up inception_5b/3x3_reduce
I0403 14:08:00.951333 29346 net.cpp:148] Top shape: 24 192 7 7 (225792)
I0403 14:08:00.951357 29346 net.cpp:156] Memory required for data: 1329757728
I0403 14:08:00.951382 29346 layer_factory.hpp:77] Creating layer inception_5b/relu_3x3_reduce
I0403 14:08:00.951408 29346 net.cpp:91] Creating Layer inception_5b/relu_3x3_reduce
I0403 14:08:00.951431 29346 net.cpp:425] inception_5b/relu_3x3_reduce <- inception_5b/3x3_reduce
I0403 14:08:00.951453 29346 net.cpp:386] inception_5b/relu_3x3_reduce -> inception_5b/3x3_reduce (in-place)
I0403 14:08:00.951686 29346 net.cpp:141] Setting up inception_5b/relu_3x3_reduce
I0403 14:08:00.951717 29346 net.cpp:148] Top shape: 24 192 7 7 (225792)
I0403 14:08:00.951736 29346 net.cpp:156] Memory required for data: 1330660896
I0403 14:08:00.951756 29346 layer_factory.hpp:77] Creating layer inception_5b/3x3
I0403 14:08:00.951784 29346 net.cpp:91] Creating Layer inception_5b/3x3
I0403 14:08:00.951807 29346 net.cpp:425] inception_5b/3x3 <- inception_5b/3x3_reduce
I0403 14:08:00.951829 29346 net.cpp:399] inception_5b/3x3 -> inception_5b/3x3
I0403 14:08:00.960255 29346 net.cpp:141] Setting up inception_5b/3x3
I0403 14:08:00.960331 29346 net.cpp:148] Top shape: 24 384 7 7 (451584)
I0403 14:08:00.960356 29346 net.cpp:156] Memory required for data: 1332467232
I0403 14:08:00.960383 29346 layer_factory.hpp:77] Creating layer inception_5b/relu_3x3
I0403 14:08:00.960413 29346 net.cpp:91] Creating Layer inception_5b/relu_3x3
I0403 14:08:00.960436 29346 net.cpp:425] inception_5b/relu_3x3 <- inception_5b/3x3
I0403 14:08:00.960459 29346 net.cpp:386] inception_5b/relu_3x3 -> inception_5b/3x3 (in-place)
I0403 14:08:00.960827 29346 net.cpp:141] Setting up inception_5b/relu_3x3
I0403 14:08:00.960861 29346 net.cpp:148] Top shape: 24 384 7 7 (451584)
I0403 14:08:00.960880 29346 net.cpp:156] Memory required for data: 1334273568
I0403 14:08:00.960901 29346 layer_factory.hpp:77] Creating layer inception_5b/5x5_reduce
I0403 14:08:00.960968 29346 net.cpp:91] Creating Layer inception_5b/5x5_reduce
I0403 14:08:00.960991 29346 net.cpp:425] inception_5b/5x5_reduce <- inception_5a/output_inception_5a/output_0_split_2
I0403 14:08:00.961019 29346 net.cpp:399] inception_5b/5x5_reduce -> inception_5b/5x5_reduce
I0403 14:08:00.962604 29346 net.cpp:141] Setting up inception_5b/5x5_reduce
I0403 14:08:00.962640 29346 net.cpp:148] Top shape: 24 48 7 7 (56448)
I0403 14:08:00.962658 29346 net.cpp:156] Memory required for data: 1334499360
I0403 14:08:00.962682 29346 layer_factory.hpp:77] Creating layer inception_5b/relu_5x5_reduce
I0403 14:08:00.962707 29346 net.cpp:91] Creating Layer inception_5b/relu_5x5_reduce
I0403 14:08:00.962728 29346 net.cpp:425] inception_5b/relu_5x5_reduce <- inception_5b/5x5_reduce
I0403 14:08:00.962749 29346 net.cpp:386] inception_5b/relu_5x5_reduce -> inception_5b/5x5_reduce (in-place)
I0403 14:08:00.963201 29346 net.cpp:141] Setting up inception_5b/relu_5x5_reduce
I0403 14:08:00.963234 29346 net.cpp:148] Top shape: 24 48 7 7 (56448)
I0403 14:08:00.963253 29346 net.cpp:156] Memory required for data: 1334725152
I0403 14:08:00.963271 29346 layer_factory.hpp:77] Creating layer inception_5b/5x5
I0403 14:08:00.963299 29346 net.cpp:91] Creating Layer inception_5b/5x5
I0403 14:08:00.963320 29346 net.cpp:425] inception_5b/5x5 <- inception_5b/5x5_reduce
I0403 14:08:00.963341 29346 net.cpp:399] inception_5b/5x5 -> inception_5b/5x5
I0403 14:08:00.965934 29346 net.cpp:141] Setting up inception_5b/5x5
I0403 14:08:00.965970 29346 net.cpp:148] Top shape: 24 128 7 7 (150528)
I0403 14:08:00.965991 29346 net.cpp:156] Memory required for data: 1335327264
I0403 14:08:00.966012 29346 layer_factory.hpp:77] Creating layer inception_5b/relu_5x5
I0403 14:08:00.966038 29346 net.cpp:91] Creating Layer inception_5b/relu_5x5
I0403 14:08:00.966059 29346 net.cpp:425] inception_5b/relu_5x5 <- inception_5b/5x5
I0403 14:08:00.966081 29346 net.cpp:386] inception_5b/relu_5x5 -> inception_5b/5x5 (in-place)
I0403 14:08:00.966323 29346 net.cpp:141] Setting up inception_5b/relu_5x5
I0403 14:08:00.966362 29346 net.cpp:148] Top shape: 24 128 7 7 (150528)
I0403 14:08:00.966383 29346 net.cpp:156] Memory required for data: 1335929376
I0403 14:08:00.966403 29346 layer_factory.hpp:77] Creating layer inception_5b/pool
I0403 14:08:00.966425 29346 net.cpp:91] Creating Layer inception_5b/pool
I0403 14:08:00.966445 29346 net.cpp:425] inception_5b/pool <- inception_5a/output_inception_5a/output_0_split_3
I0403 14:08:00.966472 29346 net.cpp:399] inception_5b/pool -> inception_5b/pool
I0403 14:08:00.966562 29346 net.cpp:141] Setting up inception_5b/pool
I0403 14:08:00.966591 29346 net.cpp:148] Top shape: 24 832 7 7 (978432)
I0403 14:08:00.966609 29346 net.cpp:156] Memory required for data: 1339843104
I0403 14:08:00.966627 29346 layer_factory.hpp:77] Creating layer inception_5b/pool_proj
I0403 14:08:00.966655 29346 net.cpp:91] Creating Layer inception_5b/pool_proj
I0403 14:08:00.966677 29346 net.cpp:425] inception_5b/pool_proj <- inception_5b/pool
I0403 14:08:00.966703 29346 net.cpp:399] inception_5b/pool_proj -> inception_5b/pool_proj
I0403 14:08:00.969559 29346 net.cpp:141] Setting up inception_5b/pool_proj
I0403 14:08:00.969599 29346 net.cpp:148] Top shape: 24 128 7 7 (150528)
I0403 14:08:00.969619 29346 net.cpp:156] Memory required for data: 1340445216
I0403 14:08:00.969641 29346 layer_factory.hpp:77] Creating layer inception_5b/relu_pool_proj
I0403 14:08:00.969667 29346 net.cpp:91] Creating Layer inception_5b/relu_pool_proj
I0403 14:08:00.969688 29346 net.cpp:425] inception_5b/relu_pool_proj <- inception_5b/pool_proj
I0403 14:08:00.969712 29346 net.cpp:386] inception_5b/relu_pool_proj -> inception_5b/pool_proj (in-place)
I0403 14:08:00.970072 29346 net.cpp:141] Setting up inception_5b/relu_pool_proj
I0403 14:08:00.970104 29346 net.cpp:148] Top shape: 24 128 7 7 (150528)
I0403 14:08:00.970124 29346 net.cpp:156] Memory required for data: 1341047328
I0403 14:08:00.970142 29346 layer_factory.hpp:77] Creating layer inception_5b/output
I0403 14:08:00.970165 29346 net.cpp:91] Creating Layer inception_5b/output
I0403 14:08:00.970216 29346 net.cpp:425] inception_5b/output <- inception_5b/1x1
I0403 14:08:00.970242 29346 net.cpp:425] inception_5b/output <- inception_5b/3x3
I0403 14:08:00.970263 29346 net.cpp:425] inception_5b/output <- inception_5b/5x5
I0403 14:08:00.970283 29346 net.cpp:425] inception_5b/output <- inception_5b/pool_proj
I0403 14:08:00.970305 29346 net.cpp:399] inception_5b/output -> inception_5b/output
I0403 14:08:00.970377 29346 net.cpp:141] Setting up inception_5b/output
I0403 14:08:00.970407 29346 net.cpp:148] Top shape: 24 1024 7 7 (1204224)
I0403 14:08:00.970427 29346 net.cpp:156] Memory required for data: 1345864224
I0403 14:08:00.970445 29346 layer_factory.hpp:77] Creating layer pool5/7x7_s1
I0403 14:08:00.970468 29346 net.cpp:91] Creating Layer pool5/7x7_s1
I0403 14:08:00.970489 29346 net.cpp:425] pool5/7x7_s1 <- inception_5b/output
I0403 14:08:00.970515 29346 net.cpp:399] pool5/7x7_s1 -> pool5/7x7_s1
I0403 14:08:00.970783 29346 net.cpp:141] Setting up pool5/7x7_s1
I0403 14:08:00.970816 29346 net.cpp:148] Top shape: 24 1024 1 1 (24576)
I0403 14:08:00.970834 29346 net.cpp:156] Memory required for data: 1345962528
I0403 14:08:00.970854 29346 layer_factory.hpp:77] Creating layer pool5/drop_7x7_s1
I0403 14:08:00.970878 29346 net.cpp:91] Creating Layer pool5/drop_7x7_s1
I0403 14:08:00.970901 29346 net.cpp:425] pool5/drop_7x7_s1 <- pool5/7x7_s1
I0403 14:08:00.970922 29346 net.cpp:386] pool5/drop_7x7_s1 -> pool5/7x7_s1 (in-place)
I0403 14:08:00.970986 29346 net.cpp:141] Setting up pool5/drop_7x7_s1
I0403 14:08:00.971015 29346 net.cpp:148] Top shape: 24 1024 1 1 (24576)
I0403 14:08:00.971034 29346 net.cpp:156] Memory required for data: 1346060832
I0403 14:08:00.971052 29346 layer_factory.hpp:77] Creating layer loss3/classifier_plantvillage
I0403 14:08:00.971076 29346 net.cpp:91] Creating Layer loss3/classifier_plantvillage
I0403 14:08:00.971096 29346 net.cpp:425] loss3/classifier_plantvillage <- pool5/7x7_s1
I0403 14:08:00.971123 29346 net.cpp:399] loss3/classifier_plantvillage -> loss3/classifier_plantvillage
I0403 14:08:00.971664 29346 net.cpp:141] Setting up loss3/classifier_plantvillage
I0403 14:08:00.971696 29346 net.cpp:148] Top shape: 24 38 (912)
I0403 14:08:00.971714 29346 net.cpp:156] Memory required for data: 1346064480
I0403 14:08:00.971737 29346 layer_factory.hpp:77] Creating layer loss3/classifier_plantvillage_loss3/classifier_plantvillage_0_split
I0403 14:08:00.971761 29346 net.cpp:91] Creating Layer loss3/classifier_plantvillage_loss3/classifier_plantvillage_0_split
I0403 14:08:00.971781 29346 net.cpp:425] loss3/classifier_plantvillage_loss3/classifier_plantvillage_0_split <- loss3/classifier_plantvillage
I0403 14:08:00.971804 29346 net.cpp:399] loss3/classifier_plantvillage_loss3/classifier_plantvillage_0_split -> loss3/classifier_plantvillage_loss3/classifier_plantvillage_0_split_0
I0403 14:08:00.971829 29346 net.cpp:399] loss3/classifier_plantvillage_loss3/classifier_plantvillage_0_split -> loss3/classifier_plantvillage_loss3/classifier_plantvillage_0_split_1
I0403 14:08:00.971854 29346 net.cpp:399] loss3/classifier_plantvillage_loss3/classifier_plantvillage_0_split -> loss3/classifier_plantvillage_loss3/classifier_plantvillage_0_split_2
I0403 14:08:00.971879 29346 net.cpp:399] loss3/classifier_plantvillage_loss3/classifier_plantvillage_0_split -> loss3/classifier_plantvillage_loss3/classifier_plantvillage_0_split_3
I0403 14:08:00.972003 29346 net.cpp:141] Setting up loss3/classifier_plantvillage_loss3/classifier_plantvillage_0_split
I0403 14:08:00.972033 29346 net.cpp:148] Top shape: 24 38 (912)
I0403 14:08:00.972054 29346 net.cpp:148] Top shape: 24 38 (912)
I0403 14:08:00.972074 29346 net.cpp:148] Top shape: 24 38 (912)
I0403 14:08:00.972092 29346 net.cpp:148] Top shape: 24 38 (912)
I0403 14:08:00.972110 29346 net.cpp:156] Memory required for data: 1346079072
I0403 14:08:00.972127 29346 layer_factory.hpp:77] Creating layer loss1/loss
I0403 14:08:00.972156 29346 net.cpp:91] Creating Layer loss1/loss
I0403 14:08:00.972177 29346 net.cpp:425] loss1/loss <- loss1/classifier_plantvillage_loss1/classifier_plantvillage_0_split_0
I0403 14:08:00.972214 29346 net.cpp:425] loss1/loss <- label_data_1_split_0
…
