…
I0403 14:29:54.996266 29877 net.cpp:313] The NetState phase (1) differed from the phase (0) specified by a rule in layer data
I0403 14:29:54.997505 29877 net.cpp:49] Initializing net from parameters: 
state {
  phase: TEST
}
layer {
  name: "data"
  type: "Data"
  top: "data"
  top: "label"
  include {
    phase: TEST
  }
  transform_param {
    mirror: false
    crop_size: 224
    mean_file: "/home/mohanty/data/final_dataset/lmdb/color-20-80/mean.binaryproto"
  }
  data_param {
    source: "/home/mohanty/data/final_dataset/lmdb/color-20-80/test_db"
    batch_size: 24
    backend: LMDB
  }
}
layer {
  name: "conv1/7x7_s2"
  type: "Convolution"
  bottom: "data"
  top: "conv1/7x7_s2"
  param {
    lr_mult: 1
    decay_mult: 1
  }
  param {
    lr_mult: 2
    decay_mult: 0
  }
  convolution_param {
    num_output: 64
    pad: 3
    kernel_size: 7
    stride: 2
    weight_filler {
      type: "xavier"
      std: 0.1
    }
    bias_filler {
      type: "constant"
      value: 0.2
    }
  }
}
layer {
  name: "conv1/relu_7x7"
  type: "ReLU"
  bottom: "conv1/7x7_s2"
  top: "conv1/7x7_s2"
}
layer {
  name: "pool1/3x3_s2"
  type: "Pooling"
  bottom: "conv1/7x7_s2"
  top: "pool1/3x3_s2"
  pooling_param {
    pool: MAX
    kernel_size: 3
    stride: 2
  }
}
layer {
  name: "pool1/norm1"
  type: "LRN"
  bottom: "pool1/3x3_s2"
  top: "pool1/norm1"
  lrn_param {
    local_size: 5
    alpha: 0.0001
    beta: 0.75
  }
}
layer {
  name: "conv2/3x3_reduce"
  type: "Convolution"
  bottom: "pool1/norm1"
  top: "conv2/3x3_reduce"
  param {
    lr_mult: 1
    decay_mult: 1
  }
  param {
    lr_mult: 2
    decay_mult: 0
  }
  convolution_param {
    num_output: 64
    kernel_size: 1
    weight_filler {
      type: "xavier"
      std: 0.1
    }
    bias_filler {
      type: "constant"
      value: 0.2
    }
  }
}
layer {
  name: "conv2/relu_3x3_reduce"
  type: "ReLU"
  bottom: "conv2/3x3_reduce"
  top: "conv2/3x3_reduce"
}
layer {
  name: "conv2/3x3"
  type: "Convolution"
  bottom: "conv2/3x3_reduce"
  top: "conv2/3x3"
  param {
    lr_mult: 1
    decay_mult: 1
  }
  param {
    lr_mult: 2
    decay_mult: 0
  }
  convolution_param {
    num_output: 192
    pad: 1
    kernel_size: 3
    weight_filler {
      type: "xavier"
      std: 0.03
    }
    bias_filler {
      type: "constant"
      value: 0.2
    }
  }
}
layer {
  name: "conv2/relu_3x3"
  type: "ReLU"
  bottom: "conv2/3x3"
  top: "conv2/3x3"
}
layer {
  name: "conv2/norm2"
  type: "LRN"
  bottom: "conv2/3x3"
  top: "conv2/norm2"
  lrn_param {
    local_size: 5
    alpha: 0.0001
    beta: 0.75
  }
}
layer {
  name: "pool2/3x3_s2"
  type: "Pooling"
  bottom: "conv2/norm2"
  top: "pool2/3x3_s2"
  pooling_param {
    pool: MAX
    kernel_size: 3
    stride: 2
  }
}
layer {
  name: "inception_3a/1x1"
  type: "Convolution"
  bottom: "pool2/3x3_s2"
  top: "inception_3a/1x1"
  param {
    lr_mult: 1
    decay_mult: 1
  }
  param {
    lr_mult: 2
    decay_mult: 0
  }
  convolution_param {
    num_output: 64
    kernel_size: 1
    weight_filler {
      type: "xavier"
      std: 0.03
    }
    bias_filler {
      type: "constant"
      value: 0.2
    }
  }
}
layer {
  name: "inception_3a/relu_1x1"
  type: "ReLU"
  bottom: "inception_3a/1x1"
  top: "inception_3a/1x1"
}
layer {
  name: "inception_3a/3x3_reduce"
  type: "Convolution"
  bottom: "pool2/3x3_s2"
  top: "inception_3a/3x3_reduce"
  param {
    lr_mult: 1
    decay_mult: 1
  }
  param {
    lr_mult: 2
    decay_mult: 0
  }
  convolution_param {
    num_output: 96
    kernel_size: 1
    weight_filler {
      type: "xavier"
      std: 0.09
    }
    bias_filler {
      type: "constant"
      value: 0.2
    }
  }
}
layer {
  name: "inception_3a/relu_3x3_reduce"
  type: "ReLU"
  bottom: "inception_3a/3x3_reduce"
  top: "inception_3a/3x3_reduce"
}
layer {
  name: "inception_3a/3x3"
  type: "Convolution"
  bottom: "inception_3a/3x3_reduce"
  top: "inception_3a/3x3"
  param {
    lr_mult: 1
    decay_mult: 1
  }
  param {
    lr_mult: 2
    decay_mult: 0
  }
  convolution_param {
    num_output: 128
    pad: 1
    kernel_size: 3
    weight_filler {
      type: "xavier"
      std: 0.03
    }
    bias_filler {
      type: "constant"
      value: 0.2
    }
  }
}
layer {
  name: "inception_3a/relu_3x3"
  type: "ReLU"
  bottom: "inception_3a/3x3"
  top: "inception_3a/3x3"
}
layer {
  name: "inception_3a/5x5_reduce"
  type: "Convolution"
  bottom: "pool2/3x3_s2"
  top: "inception_3a/5x5_reduce"
  param {
    lr_mult: 1
    decay_mult: 1
  }
  param {
    lr_mult: 2
    decay_mult: 0
  }
  convolution_param {
    num_output: 16
    kernel_size: 1
    weight_filler {
      type: "xavier"
      std: 0.2
    }
    bias_filler {
      type: "constant"
      value: 0.2
    }
  }
}
layer {
  name: "inception_3a/relu_5x5_reduce"
  type: "ReLU"
  bottom: "inception_3a/5x5_reduce"
  top: "inception_3a/5x5_reduce"
}
layer {
  name: "inception_3a/5x5"
  type: "Convolution"
  bottom: "inception_3a/5x5_reduce"
  top: "inception_3a/5x5"
  param {
    lr_mult: 1
    decay_mult: 1
  }
  param {
    lr_mult: 2
    decay_mult: 0
  }
  convolution_param {
    num_output: 32
    pad: 2
    kernel_size: 5
    weight_filler {
      type: "xavier"
      std: 0.03
    }
    bias_filler {
      type: "constant"
      value: 0.2
    }
  }
}
layer {
  name: "inception_3a/relu_5x5"
  type: "ReLU"
  bottom: "inception_3a/5x5"
  top: "inception_3a/5x5"
}
layer {
  name: "inception_3a/pool"
  type: "Pooling"
  bottom: "pool2/3x3_s2"
  top: "inception_3a/pool"
  pooling_param {
    pool: MAX
    kernel_size: 3
    stride: 1
    pad: 1
  }
}
layer {
  name: "inception_3a/pool_proj"
  type: "Convolution"
  bottom: "inception_3a/pool"
  top: "inception_3a/pool_proj"
  param {
    lr_mult: 1
    decay_mult: 1
  }
  param {
    lr_mult: 2
    decay_mult: 0
  }
  convolution_param {
    num_output: 32
    kernel_size: 1
    weight_filler {
      type: "xavier"
      std: 0.1
    }
    bias_filler {
      type: "constant"
      value: 0.2
    }
  }
}
layer {
  name: "inception_3a/relu_pool_proj"
  type: "ReLU"
  bottom: "inception_3a/pool_proj"
  top: "inception_3a/pool_proj"
}
layer {
  name: "inception_3a/output"
  type: "Concat"
  bottom: "inception_3a/1x1"
  bottom: "inception_3a/3x3"
  bottom: "inception_3a/5x5"
  bottom: "inception_3a/pool_proj"
  top: "inception_3a/output"
}
layer {
  name: "inception_3b/1x1"
  type: "Convolution"
  bottom: "inception_3a/output"
  top: "inception_3b/1x1"
  param {
    lr_mult: 1
    decay_mult: 1
  }
  param {
    lr_mult: 2
    decay_mult: 0
  }
  convolution_param {
    num_output: 128
    kernel_size: 1
    weight_filler {
      type: "xavier"
      std: 0.03
    }
    bias_filler {
      type: "constant"
      value: 0.2
    }
  }
}
layer {
  name: "inception_3b/relu_1x1"
  type: "ReLU"
  bottom: "inception_3b/1x1"
  top: "inception_3b/1x1"
}
layer {
  name: "inception_3b/3x3_reduce"
  type: "Convolution"
  bottom: "inception_3a/output"
  top: "inception_3b/3x3_reduce"
  param {
    lr_mult: 1
    decay_mult: 1
  }
  param {
    lr_mult: 2
    decay_mult: 0
  }
  convolution_param {
    num_output: 128
    kernel_size: 1
    weight_filler {
      type: "xavier"
      std: 0.09
    }
    bias_filler {
      type: "constant"
      value: 0.2
    }
  }
}
layer {
  name: "inception_3b/relu_3x3_reduce"
  type: "ReLU"
  bottom: "inception_3b/3x3_reduce"
  top: "inception_3b/3x3_reduce"
}
layer {
  name: "inception_3b/3x3"
  type: "Convolution"
  bottom: "inception_3b/3x3_reduce"
  top: "inception_3b/3x3"
  param {
    lr_mult: 1
    decay_mult: 1
  }
  param {
    lr_mult: 2
    decay_mult: 0
  }
  convolution_param {
    num_output: 192
    pad: 1
    kernel_size: 3
    weight_filler {
      type: "xavier"
      std: 0.03
    }
    bias_filler {
      type: "constant"
      value: 0.2
    }
  }
}
layer {
  name: "inception_3b/relu_3x3"
  type: "ReLU"
  bottom: "inception_3b/3x3"
  top: "inception_3b/3x3"
}
layer {
  name: "inception_3b/5x5_reduce"
  type: "Convolution"
  bottom: "inception_3a/output"
  top: "inception_3b/5x5_reduce"
  param {
    lr_mult: 1
    decay_mult: 1
  }
  param {
    lr_mult: 2
    decay_mult: 0
  }
  convolution_param {
    num_output: 32
    kernel_size: 1
    weight_filler {
      type: "xavier"
      std: 0.2
    }
    bias_filler {
      type: "constant"
      value: 0.2
    }
  }
}
layer {
  name: "inception_3b/relu_5x5_reduce"
  type: "ReLU"
  bottom: "inception_3b/5x5_reduce"
  top: "inception_3b/5x5_reduce"
}
layer {
  name: "inception_3b/5x5"
  type: "Convolution"
  bottom: "inception_3b/5x5_reduce"
  top: "inception_3b/5x5"
  param {
    lr_mult: 1
    decay_mult: 1
  }
  param {
    lr_mult: 2
    decay_mult: 0
  }
  convolution_param {
    num_output: 96
    pad: 2
    kernel_size: 5
    weight_filler {
      type: "xavier"
      std: 0.03
    }
    bias_filler {
      type: "constant"
      value: 0.2
    }
  }
}
layer {
  name: "inception_3b/relu_5x5"
  type: "ReLU"
  bottom: "inception_3b/5x5"
  top: "inception_3b/5x5"
}
layer {
  name: "inception_3b/pool"
  type: "Pooling"
  bottom: "inception_3a/output"
  top: "inception_3b/pool"
  pooling_param {
    pool: MAX
    kernel_size: 3
    stride: 1
    pad: 1
  }
}
layer {
  name: "inception_3b/pool_proj"
  type: "Convolution"
  bottom: "inception_3b/pool"
  top: "inception_3b/pool_proj"
  param {
    lr_mult: 1
    decay_mult: 1
  }
  param {
    lr_mult: 2
    decay_mult: 0
  }
  convolution_param {
    num_output: 64
    kernel_size: 1
    weight_filler {
      type: "xavier"
      std: 0.1
    }
    bias_filler {
      type: "constant"
      value: 0.2
    }
  }
}
layer {
  name: "inception_3b/relu_pool_proj"
  type: "ReLU"
  bottom: "inception_3b/pool_proj"
  top: "inception_3b/pool_proj"
}
layer {
  name: "inception_3b/output"
  type: "Concat"
  bottom: "inception_3b/1x1"
  bottom: "inception_3b/3x3"
  bottom: "inception_3b/5x5"
  bottom: "inception_3b/pool_proj"
  top: "inception_3b/output"
}
layer {
  name: "pool3/3x3_s2"
  type: "Pooling"
  bottom: "inception_3b/output"
  top: "pool3/3x3_s2"
  pooling_param {
    pool: MAX
    kernel_size: 3
    stride: 2
  }
}
layer {
  name: "inception_4a/1x1"
  type: "Convolution"
  bottom: "pool3/3x3_s2"
  top: "inception_4a/1x1"
  param {
    lr_mult: 1
    decay_mult: 1
  }
  param {
    lr_mult: 2
    decay_mult: 0
  }
  convolution_param {
    num_output: 192
    kernel_size: 1
    weight_filler {
      type: "xavier"
      std: 0.03
    }
    bias_filler {
      type: "constant"
      value: 0.2
    }
  }
}
layer {
  name: "inception_4a/relu_1x1"
  type: "ReLU"
  bottom: "inception_4a/1x1"
  top: "inception_4a/1x1"
}
layer {
  name: "inception_4a/3x3_reduce"
  type: "Convolution"
  bottom: "pool3/3x3_s2"
  top: "inception_4a/3x3_reduce"
  param {
    lr_mult: 1
    decay_mult: 1
  }
  param {
    lr_mult: 2
    decay_mult: 0
  }
  convolution_param {
    num_output: 96
    kernel_size: 1
    weight_filler {
      type: "xavier"
      std: 0.09
    }
    bias_filler {
      type: "constant"
      value: 0.2
    }
  }
}
layer {
  name: "inception_4a/relu_3x3_reduce"
  type: "ReLU"
  bottom: "inception_4a/3x3_reduce"
  top: "inception_4a/3x3_reduce"
}
layer {
  name: "inception_4a/3x3"
  type: "Convolution"
  bottom: "inception_4a/3x3_reduce"
  top: "inception_4a/3x3"
  param {
    lr_mult: 1
    decay_mult: 1
  }
  param {
    lr_mult: 2
    decay_mult: 0
  }
  convolution_param {
    num_output: 208
    pad: 1
    kernel_size: 3
    weight_filler {
      type: "xavier"
      std: 0.03
    }
    bias_filler {
      type: "constant"
      value: 0.2
    }
  }
}
layer {
  name: "inception_4a/relu_3x3"
  type: "ReLU"
  bottom: "inception_4a/3x3"
  top: "inception_4a/3x3"
}
layer {
  name: "inception_4a/5x5_reduce"
  type: "Convolution"
  bottom: "pool3/3x3_s2"
  top: "inception_4a/5x5_reduce"
  param {
    lr_mult: 1
    decay_mult: 1
  }
  param {
    lr_mult: 2
    decay_mult: 0
  }
  convolution_param {
    num_output: 16
    kernel_size: 1
    weight_filler {
      type: "xavier"
      std: 0.2
    }
    bias_filler {
      type: "constant"
      value: 0.2
    }
  }
}
layer {
  name: "inception_4a/relu_5x5_reduce"
  type: "ReLU"
  bottom: "inception_4a/5x5_reduce"
  top: "inception_4a/5x5_reduce"
}
layer {
  name: "inception_4a/5x5"
  type: "Convolution"
  bottom: "inception_4a/5x5_reduce"
  top: "inception_4a/5x5"
  param {
    lr_mult: 1
    decay_mult: 1
  }
  param {
    lr_mult: 2
    decay_mult: 0
  }
  convolution_param {
    num_output: 48
    pad: 2
    kernel_size: 5
    weight_filler {
      type: "xavier"
      std: 0.03
    }
    bias_filler {
      type: "constant"
      value: 0.2
    }
  }
}
layer {
  name: "inception_4a/relu_5x5"
  type: "ReLU"
  bottom: "inception_4a/5x5"
  top: "inception_4a/5x5"
}
layer {
  name: "inception_4a/pool"
  type: "Pooling"
  bottom: "pool3/3x3_s2"
  top: "inception_4a/pool"
  pooling_param {
    pool: MAX
    kernel_size: 3
    stride: 1
    pad: 1
  }
}
layer {
  name: "inception_4a/pool_proj"
  type: "Convolution"
  bottom: "inception_4a/pool"
  top: "inception_4a/pool_proj"
  param {
    lr_mult: 1
    decay_mult: 1
  }
  param {
    lr_mult: 2
    decay_mult: 0
  }
  convolution_param {
    num_output: 64
    kernel_size: 1
    weight_filler {
      type: "xavier"
      std: 0.1
    }
    bias_filler {
      type: "constant"
      value: 0.2
    }
  }
}
layer {
  name: "inception_4a/relu_pool_proj"
  type: "ReLU"
  bottom: "inception_4a/pool_proj"
  top: "inception_4a/pool_proj"
}
layer {
  name: "inception_4a/output"
  type: "Concat"
  bottom: "inception_4a/1x1"
  bottom: "inception_4a/3x3"
  bottom: "inception_4a/5x5"
  bottom: "inception_4a/pool_proj"
  top: "inception_4a/output"
}
layer {
  name: "loss1/ave_pool"
  type: "Pooling"
  bottom: "inception_4a/output"
  top: "loss1/ave_pool"
  pooling_param {
    pool: AVE
    kernel_size: 5
    stride: 3
  }
}
layer {
  name: "loss1/conv"
  type: "Convolution"
  bottom: "loss1/ave_pool"
  top: "loss1/conv"
  param {
    lr_mult: 1
    decay_mult: 1
  }
  param {
    lr_mult: 2
    decay_mult: 0
  }
  convolution_param {
    num_output: 128
    kernel_size: 1
    weight_filler {
      type: "xavier"
      std: 0.08
    }
    bias_filler {
      type: "constant"
      value: 0.2
    }
  }
}
layer {
  name: "loss1/relu_conv"
  type: "ReLU"
  bottom: "loss1/conv"
  top: "loss1/conv"
}
layer {
  name: "loss1/fc"
  type: "InnerProduct"
  bottom: "loss1/conv"
  top: "loss1/fc"
  param {
    lr_mult: 1
    decay_mult: 1
  }
  param {
    lr_mult: 2
    decay_mult: 0
  }
  inner_product_param {
    num_output: 1024
    weight_filler {
      type: "xavier"
      std: 0.02
    }
    bias_filler {
      type: "constant"
      value: 0.2
    }
  }
}
layer {
  name: "loss1/relu_fc"
  type: "ReLU"
  bottom: "loss1/fc"
  top: "loss1/fc"
}
layer {
  name: "loss1/drop_fc"
  type: "Dropout"
  bottom: "loss1/fc"
  top: "loss1/fc"
  dropout_param {
    dropout_ratio: 0.7
  }
}
layer {
  name: "loss1/classifier_plantvillage"
  type: "InnerProduct"
  bottom: "loss1/fc"
  top: "loss1/classifier_plantvillage"
  param {
    lr_mult: 1
    decay_mult: 1
  }
  param {
    lr_mult: 2
    decay_mult: 0
  }
  inner_product_param {
    num_output: 38
    weight_filler {
      type: "xavier"
      std: 0.0009765625
    }
    bias_filler {
      type: "constant"
      value: 0
    }
  }
}
layer {
  name: "inception_4b/1x1"
  type: "Convolution"
  bottom: "inception_4a/output"
  top: "inception_4b/1x1"
  param {
    lr_mult: 1
    decay_mult: 1
  }
  param {
    lr_mult: 2
    decay_mult: 0
  }
  convolution_param {
    num_output: 160
    kernel_size: 1
    weight_filler {
      type: "xavier"
      std: 0.03
    }
    bias_filler {
      type: "constant"
      value: 0.2
    }
  }
}
layer {
  name: "inception_4b/relu_1x1"
  type: "ReLU"
  bottom: "inception_4b/1x1"
  top: "inception_4b/1x1"
}
layer {
  name: "inception_4b/3x3_reduce"
  type: "Convolution"
  bottom: "inception_4a/output"
  top: "inception_4b/3x3_reduce"
  param {
    lr_mult: 1
    decay_mult: 1
  }
  param {
    lr_mult: 2
    decay_mult: 0
  }
  convolution_param {
    num_output: 112
    kernel_size: 1
    weight_filler {
      type: "xavier"
      std: 0.09
    }
    bias_filler {
      type: "constant"
      value: 0.2
    }
  }
}
layer {
  name: "inception_4b/relu_3x3_reduce"
  type: "ReLU"
  bottom: "inception_4b/3x3_reduce"
  top: "inception_4b/3x3_reduce"
}
layer {
  name: "inception_4b/3x3"
  type: "Convolution"
  bottom: "inception_4b/3x3_reduce"
  top: "inception_4b/3x3"
  param {
    lr_mult: 1
    decay_mult: 1
  }
  param {
    lr_mult: 2
    decay_mult: 0
  }
  convolution_param {
    num_output: 224
    pad: 1
    kernel_size: 3
    weight_filler {
      type: "xavier"
      std: 0.03
    }
    bias_filler {
      type: "constant"
      value: 0.2
    }
  }
}
layer {
  name: "inception_4b/relu_3x3"
  type: "ReLU"
  bottom: "inception_4b/3x3"
  top: "inception_4b/3x3"
}
layer {
  name: "inception_4b/5x5_reduce"
  type: "Convolution"
  bottom: "inception_4a/output"
  top: "inception_4b/5x5_reduce"
  param {
    lr_mult: 1
    decay_mult: 1
  }
  param {
    lr_mult: 2
    decay_mult: 0
  }
  convolution_param {
    num_output: 24
    kernel_size: 1
    weight_filler {
      type: "xavier"
      std: 0.2
    }
    bias_filler {
      type: "constant"
      value: 0.2
    }
  }
}
layer {
  name: "inception_4b/relu_5x5_reduce"
  type: "ReLU"
  bottom: "inception_4b/5x5_reduce"
  top: "inception_4b/5x5_reduce"
}
layer {
  name: "inception_4b/5x5"
  type: "Convolution"
  bottom: "inception_4b/5x5_reduce"
  top: "inception_4b/5x5"
  param {
    lr_mult: 1
    decay_mult: 1
  }
  param {
    lr_mult: 2
    decay_mult: 0
  }
  convolution_param {
    num_output: 64
    pad: 2
    kernel_size: 5
    weight_filler {
      type: "xavier"
      std: 0.03
    }
    bias_filler {
      type: "constant"
      value: 0.2
    }
  }
}
layer {
  name: "inception_4b/relu_5x5"
  type: "ReLU"
  bottom: "inception_4b/5x5"
  top: "inception_4b/5x5"
}
layer {
  name: "inception_4b/pool"
  type: "Pooling"
  bottom: "inception_4a/output"
  top: "inception_4b/pool"
  pooling_param {
    pool: MAX
    kernel_size: 3
    stride: 1
    pad: 1
  }
}
layer {
  name: "inception_4b/pool_proj"
  type: "Convolution"
  bottom: "inception_4b/pool"
  top: "inception_4b/pool_proj"
  param {
    lr_mult: 1
    decay_mult: 1
  }
  param {
    lr_mult: 2
    decay_mult: 0
  }
  convolution_param {
    num_output: 64
    kernel_size: 1
    weight_filler {
      type: "xavier"
      std: 0.1
    }
    bias_filler {
      type: "constant"
      value: 0.2
    }
  }
}
layer {
  name: "inception_4b/relu_pool_proj"
  type: "ReLU"
  bottom: "inception_4b/pool_proj"
  top: "inception_4b/pool_proj"
}
layer {
  name: "inception_4b/output"
  type: "Concat"
  bottom: "inception_4b/1x1"
  bottom: "inception_4b/3x3"
  bottom: "inception_4b/5x5"
  bottom: "inception_4b/pool_proj"
  top: "inception_4b/output"
}
layer {
  name: "inception_4c/1x1"
  type: "Convolution"
  bottom: "inception_4b/output"
  top: "inception_4c/1x1"
  param {
    lr_mult: 1
    decay_mult: 1
  }
  param {
    lr_mult: 2
    decay_mult: 0
  }
  convolution_param {
    num_output: 128
    kernel_size: 1
    weight_filler {
      type: "xavier"
      std: 0.03
    }
    bias_filler {
      type: "constant"
      value: 0.2
    }
  }
}
layer {
  name: "inception_4c/relu_1x1"
  type: "ReLU"
  bottom: "inception_4c/1x1"
  top: "inception_4c/1x1"
}
layer {
  name: "inception_4c/3x3_reduce"
  type: "Convolution"
  bottom: "inception_4b/output"
  top: "inception_4c/3x3_reduce"
  param {
    lr_mult: 1
    decay_mult: 1
  }
  param {
    lr_mult: 2
    decay_mult: 0
  }
  convolution_param {
    num_output: 128
    kernel_size: 1
    weight_filler {
      type: "xavier"
      std: 0.09
    }
    bias_filler {
      type: "constant"
      value: 0.2
    }
  }
}
layer {
  name: "inception_4c/relu_3x3_reduce"
  type: "ReLU"
  bottom: "inception_4c/3x3_reduce"
  top: "inception_4c/3x3_reduce"
}
layer {
  name: "inception_4c/3x3"
  type: "Convolution"
  bottom: "inception_4c/3x3_reduce"
  top: "inception_4c/3x3"
  param {
    lr_mult: 1
    decay_mult: 1
  }
  param {
    lr_mult: 2
    decay_mult: 0
  }
  convolution_param {
    num_output: 256
    pad: 1
    kernel_size: 3
    weight_filler {
      type: "xavier"
      std: 0.03
    }
    bias_filler {
      type: "constant"
      value: 0.2
    }
  }
}
layer {
  name: "inception_4c/relu_3x3"
  type: "ReLU"
  bottom: "inception_4c/3x3"
  top: "inception_4c/3x3"
}
layer {
  name: "inception_4c/5x5_reduce"
  type: "Convolution"
  bottom: "inception_4b/output"
  top: "inception_4c/5x5_reduce"
  param {
    lr_mult: 1
    decay_mult: 1
  }
  param {
    lr_mult: 2
    decay_mult: 0
  }
  convolution_param {
    num_output: 24
    kernel_size: 1
    weight_filler {
      type: "xavier"
      std: 0.2
    }
    bias_filler {
      type: "constant"
      value: 0.2
    }
  }
}
layer {
  name: "inception_4c/relu_5x5_reduce"
  type: "ReLU"
  bottom: "inception_4c/5x5_reduce"
  top: "inception_4c/5x5_reduce"
}
layer {
  name: "inception_4c/5x5"
  type: "Convolution"
  bottom: "inception_4c/5x5_reduce"
  top: "inception_4c/5x5"
  param {
    lr_mult: 1
    decay_mult: 1
  }
  param {
    lr_mult: 2
    decay_mult: 0
  }
  convolution_param {
    num_output: 64
    pad: 2
    kernel_size: 5
    weight_filler {
      type: "xavier"
      std: 0.03
    }
    bias_filler {
      type: "constant"
      value: 0.2
    }
  }
}
layer {
  name: "inception_4c/relu_5x5"
  type: "ReLU"
  bottom: "inception_4c/5x5"
  top: "inception_4c/5x5"
}
layer {
  name: "inception_4c/pool"
  type: "Pooling"
  bottom: "inception_4b/output"
  top: "inception_4c/pool"
  pooling_param {
    pool: MAX
    kernel_size: 3
    stride: 1
    pad: 1
  }
}
layer {
  name: "inception_4c/pool_proj"
  type: "Convolution"
  bottom: "inception_4c/pool"
  top: "inception_4c/pool_proj"
  param {
    lr_mult: 1
    decay_mult: 1
  }
  param {
    lr_mult: 2
    decay_mult: 0
  }
  convolution_param {
    num_output: 64
    kernel_size: 1
    weight_filler {
      type: "xavier"
      std: 0.1
    }
    bias_filler {
      type: "constant"
      value: 0.2
    }
  }
}
layer {
  name: "inception_4c/relu_pool_proj"
  type: "ReLU"
  bottom: "inception_4c/pool_proj"
  top: "inception_4c/pool_proj"
}
layer {
  name: "inception_4c/output"
  type: "Concat"
  bottom: "inception_4c/1x1"
  bottom: "inception_4c/3x3"
  bottom: "inception_4c/5x5"
  bottom: "inception_4c/pool_proj"
  top: "inception_4c/output"
}
layer {
  name: "inception_4d/1x1"
  type: "Convolution"
  bottom: "inception_4c/output"
  top: "inception_4d/1x1"
  param {
    lr_mult: 1
    decay_mult: 1
  }
  param {
    lr_mult: 2
    decay_mult: 0
  }
  convolution_param {
    num_output: 112
    kernel_size: 1
    weight_filler {
      type: "xavier"
      std: 0.03
    }
    bias_filler {
      type: "constant"
      value: 0.2
    }
  }
}
layer {
  name: "inception_4d/relu_1x1"
  type: "ReLU"
  bottom: "inception_4d/1x1"
  top: "inception_4d/1x1"
}
layer {
  name: "inception_4d/3x3_reduce"
  type: "Convolution"
  bottom: "inception_4c/output"
  top: "inception_4d/3x3_reduce"
  param {
    lr_mult: 1
    decay_mult: 1
  }
  param {
    lr_mult: 2
    decay_mult: 0
  }
  convolution_param {
    num_output: 144
    kernel_size: 1
    weight_filler {
      type: "xavier"
      std: 0.09
    }
    bias_filler {
      type: "constant"
      value: 0.2
    }
  }
}
layer {
  name: "inception_4d/relu_3x3_reduce"
  type: "ReLU"
  bottom: "inception_4d/3x3_reduce"
  top: "inception_4d/3x3_reduce"
}
layer {
  name: "inception_4d/3x3"
  type: "Convolution"
  bottom: "inception_4d/3x3_reduce"
  top: "inception_4d/3x3"
  param {
    lr_mult: 1
    decay_mult: 1
  }
  param {
    lr_mult: 2
    decay_mult: 0
  }
  convolution_param {
    num_output: 288
    pad: 1
    kernel_size: 3
    weight_filler {
      type: "xavier"
      std: 0.03
    }
    bias_filler {
      type: "constant"
      value: 0.2
    }
  }
}
layer {
  name: "inception_4d/relu_3x3"
  type: "ReLU"
  bottom: "inception_4d/3x3"
  top: "inception_4d/3x3"
}
layer {
  name: "inception_4d/5x5_reduce"
  type: "Convolution"
  bottom: "inception_4c/output"
  top: "inception_4d/5x5_reduce"
  param {
    lr_mult: 1
    decay_mult: 1
  }
  param {
    lr_mult: 2
    decay_mult: 0
  }
  convolution_param {
    num_output: 32
    kernel_size: 1
    weight_filler {
      type: "xavier"
      std: 0.2
    }
    bias_filler {
      type: "constant"
      value: 0.2
    }
  }
}
layer {
  name: "inception_4d/relu_5x5_reduce"
  type: "ReLU"
  bottom: "inception_4d/5x5_reduce"
  top: "inception_4d/5x5_reduce"
}
layer {
  name: "inception_4d/5x5"
  type: "Convolution"
  bottom: "inception_4d/5x5_reduce"
  top: "inception_4d/5x5"
  param {
    lr_mult: 1
    decay_mult: 1
  }
  param {
    lr_mult: 2
    decay_mult: 0
  }
  convolution_param {
    num_output: 64
    pad: 2
    kernel_size: 5
    weight_filler {
      type: "xavier"
      std: 0.03
    }
    bias_filler {
      type: "constant"
      value: 0.2
    }
  }
}
layer {
  name: "inception_4d/relu_5x5"
  type: "ReLU"
  bottom: "inception_4d/5x5"
  top: "inception_4d/5x5"
}
layer {
  name: "inception_4d/pool"
  type: "Pooling"
  bottom: "inception_4c/output"
  top: "inception_4d/pool"
  pooling_param {
    pool: MAX
    kernel_size: 3
    stride: 1
    pad: 1
  }
}
layer {
  name: "inception_4d/pool_proj"
  type: "Convolution"
  bottom: "inception_4d/pool"
  top: "inception_4d/pool_proj"
  param {
    lr_mult: 1
    decay_mult: 1
  }
  param {
    lr_mult: 2
    decay_mult: 0
  }
  convolution_param {
    num_output: 64
    kernel_size: 1
    weight_filler {
      type: "xavier"
      std: 0.1
    }
    bias_filler {
      type: "constant"
      value: 0.2
    }
  }
}
layer {
  name: "inception_4d/relu_pool_proj"
  type: "ReLU"
  bottom: "inception_4d/pool_proj"
  top: "inception_4d/pool_proj"
}
layer {
  name: "inception_4d/output"
  type: "Concat"
  bottom: "inception_4d/1x1"
  bottom: "inception_4d/3x3"
  bottom: "inception_4d/5x5"
  bottom: "inception_4d/pool_proj"
  top: "inception_4d/output"
}
layer {
  name: "loss2/ave_pool"
  type: "Pooling"
  bottom: "inception_4d/output"
  top: "loss2/ave_pool"
  pooling_param {
    pool: AVE
    kernel_size: 5
    stride: 3
  }
}
layer {
  name: "loss2/conv"
  type: "Convolution"
  bottom: "loss2/ave_pool"
  top: "loss2/conv"
  param {
    lr_mult: 1
    decay_mult: 1
  }
  param {
    lr_mult: 2
    decay_mult: 0
  }
  convolution_param {
    num_output: 128
    kernel_size: 1
    weight_filler {
      type: "xavier"
      std: 0.08
    }
    bias_filler {
      type: "constant"
      value: 0.2
    }
  }
}
layer {
  name: "loss2/relu_conv"
  type: "ReLU"
  bottom: "loss2/conv"
  top: "loss2/conv"
}
layer {
  name: "loss2/fc"
  type: "InnerProduct"
  bottom: "loss2/conv"
  top: "loss2/fc"
  param {
    lr_mult: 1
    decay_mult: 1
  }
  param {
    lr_mult: 2
    decay_mult: 0
  }
  inner_product_param {
    num_output: 1024
    weight_filler {
      type: "xavier"
      std: 0.02
    }
    bias_filler {
      type: "constant"
      value: 0.2
    }
  }
}
layer {
  name: "loss2/relu_fc"
  type: "ReLU"
  bottom: "loss2/fc"
  top: "loss2/fc"
}
layer {
  name: "loss2/drop_fc"
  type: "Dropout"
  bottom: "loss2/fc"
  top: "loss2/fc"
  dropout_param {
    dropout_ratio: 0.7
  }
}
layer {
  name: "loss2/classifier_plantvillage"
  type: "InnerProduct"
  bottom: "loss2/fc"
  top: "loss2/classifier_plantvillage"
  param {
    lr_mult: 1
    decay_mult: 1
  }
  param {
    lr_mult: 2
    decay_mult: 0
  }
  inner_product_param {
    num_output: 38
    weight_filler {
      type: "xavier"
      std: 0.0009765625
    }
    bias_filler {
      type: "constant"
      value: 0
    }
  }
}
layer {
  name: "inception_4e/1x1"
  type: "Convolution"
  bottom: "inception_4d/output"
  top: "inception_4e/1x1"
  param {
    lr_mult: 1
    decay_mult: 1
  }
  param {
    lr_mult: 2
    decay_mult: 0
  }
  convolution_param {
    num_output: 256
    kernel_size: 1
    weight_filler {
      type: "xavier"
      std: 0.03
    }
    bias_filler {
      type: "constant"
      value: 0.2
    }
  }
}
layer {
  name: "inception_4e/relu_1x1"
  type: "ReLU"
  bottom: "inception_4e/1x1"
  top: "inception_4e/1x1"
}
layer {
  name: "inception_4e/3x3_reduce"
  type: "Convolution"
  bottom: "inception_4d/output"
  top: "inception_4e/3x3_reduce"
  param {
    lr_mult: 1
    decay_mult: 1
  }
  param {
    lr_mult: 2
    decay_mult: 0
  }
  convolution_param {
    num_output: 160
    kernel_size: 1
    weight_filler {
      type: "xavier"
      std: 0.09
    }
    bias_filler {
      type: "constant"
      value: 0.2
    }
  }
}
layer {
  name: "inception_4e/relu_3x3_reduce"
  type: "ReLU"
  bottom: "inception_4e/3x3_reduce"
  top: "inception_4e/3x3_reduce"
}
layer {
  name: "inception_4e/3x3"
  type: "Convolution"
  bottom: "inception_4e/3x3_reduce"
  top: "inception_4e/3x3"
  param {
    lr_mult: 1
    decay_mult: 1
  }
  param {
    lr_mult: 2
    decay_mult: 0
  }
  convolution_param {
    num_output: 320
    pad: 1
    kernel_size: 3
    weight_filler {
      type: "xavier"
      std: 0.03
    }
    bias_filler {
      type: "constant"
      value: 0.2
    }
  }
}
layer {
  name: "inception_4e/relu_3x3"
  type: "ReLU"
  bottom: "inception_4e/3x3"
  top: "inception_4e/3x3"
}
layer {
  name: "inception_4e/5x5_reduce"
  type: "Convolution"
  bottom: "inception_4d/output"
  top: "inception_4e/5x5_reduce"
  param {
    lr_mult: 1
    decay_mult: 1
  }
  param {
    lr_mult: 2
    decay_mult: 0
  }
  convolution_param {
    num_output: 32
    kernel_size: 1
    weight_filler {
      type: "xavier"
      std: 0.2
    }
    bias_filler {
      type: "constant"
      value: 0.2
    }
  }
}
layer {
  name: "inception_4e/relu_5x5_reduce"
  type: "ReLU"
  bottom: "inception_4e/5x5_reduce"
  top: "inception_4e/5x5_reduce"
}
layer {
  name: "inception_4e/5x5"
  type: "Convolution"
  bottom: "inception_4e/5x5_reduce"
  top: "inception_4e/5x5"
  p
I0403 14:29:54.998836 29877 layer_factory.hpp:77] Creating layer data
I0403 14:29:54.999487 29877 net.cpp:91] Creating Layer data
I0403 14:29:54.999519 29877 net.cpp:399] data -> data
I0403 14:29:54.999574 29877 net.cpp:399] data -> label
I0403 14:29:54.999614 29877 data_transformer.cpp:25] Loading mean file from: /home/mohanty/data/final_dataset/lmdb/color-20-80/mean.binaryproto
I0403 14:29:55.002074 29881 db_lmdb.cpp:38] Opened lmdb /home/mohanty/data/final_dataset/lmdb/color-20-80/test_db
I0403 14:29:55.013247 29877 data_layer.cpp:41] output data size: 24,3,224,224
I0403 14:29:55.044607 29877 net.cpp:141] Setting up data
I0403 14:29:55.044695 29877 net.cpp:148] Top shape: 24 3 224 224 (3612672)
I0403 14:29:55.044720 29877 net.cpp:148] Top shape: 24 (24)
I0403 14:29:55.044737 29877 net.cpp:156] Memory required for data: 14450784
I0403 14:29:55.044764 29877 layer_factory.hpp:77] Creating layer label_data_1_split
I0403 14:29:55.044792 29877 net.cpp:91] Creating Layer label_data_1_split
I0403 14:29:55.044811 29877 net.cpp:425] label_data_1_split <- label
I0403 14:29:55.044842 29877 net.cpp:399] label_data_1_split -> label_data_1_split_0
I0403 14:29:55.044870 29877 net.cpp:399] label_data_1_split -> label_data_1_split_1
I0403 14:29:55.044893 29877 net.cpp:399] label_data_1_split -> label_data_1_split_2
I0403 14:29:55.044915 29877 net.cpp:399] label_data_1_split -> label_data_1_split_3
I0403 14:29:55.044935 29877 net.cpp:399] label_data_1_split -> label_data_1_split_4
I0403 14:29:55.044955 29877 net.cpp:399] label_data_1_split -> label_data_1_split_5
I0403 14:29:55.044975 29877 net.cpp:399] label_data_1_split -> label_data_1_split_6
I0403 14:29:55.044994 29877 net.cpp:399] label_data_1_split -> label_data_1_split_7
I0403 14:29:55.045016 29877 net.cpp:399] label_data_1_split -> label_data_1_split_8
I0403 14:29:55.045037 29877 net.cpp:399] label_data_1_split -> label_data_1_split_9
I0403 14:29:55.045153 29877 net.cpp:141] Setting up label_data_1_split
I0403 14:29:55.045177 29877 net.cpp:148] Top shape: 24 (24)
I0403 14:29:55.045195 29877 net.cpp:148] Top shape: 24 (24)
I0403 14:29:55.045212 29877 net.cpp:148] Top shape: 24 (24)
I0403 14:29:55.045229 29877 net.cpp:148] Top shape: 24 (24)
I0403 14:29:55.045245 29877 net.cpp:148] Top shape: 24 (24)
I0403 14:29:55.045263 29877 net.cpp:148] Top shape: 24 (24)
I0403 14:29:55.045279 29877 net.cpp:148] Top shape: 24 (24)
I0403 14:29:55.045295 29877 net.cpp:148] Top shape: 24 (24)
I0403 14:29:55.045310 29877 net.cpp:148] Top shape: 24 (24)
I0403 14:29:55.045343 29877 net.cpp:148] Top shape: 24 (24)
I0403 14:29:55.045409 29877 net.cpp:156] Memory required for data: 14451744
I0403 14:29:55.045428 29877 layer_factory.hpp:77] Creating layer conv1/7x7_s2
I0403 14:29:55.045496 29877 net.cpp:91] Creating Layer conv1/7x7_s2
I0403 14:29:55.045516 29877 net.cpp:425] conv1/7x7_s2 <- data
I0403 14:29:55.045543 29877 net.cpp:399] conv1/7x7_s2 -> conv1/7x7_s2
I0403 14:29:55.315631 29877 net.cpp:141] Setting up conv1/7x7_s2
I0403 14:29:55.315696 29877 net.cpp:148] Top shape: 24 64 112 112 (19267584)
I0403 14:29:55.315714 29877 net.cpp:156] Memory required for data: 91522080
I0403 14:29:55.315748 29877 layer_factory.hpp:77] Creating layer conv1/relu_7x7
I0403 14:29:55.315776 29877 net.cpp:91] Creating Layer conv1/relu_7x7
I0403 14:29:55.315796 29877 net.cpp:425] conv1/relu_7x7 <- conv1/7x7_s2
I0403 14:29:55.315816 29877 net.cpp:386] conv1/relu_7x7 -> conv1/7x7_s2 (in-place)
I0403 14:29:55.316076 29877 net.cpp:141] Setting up conv1/relu_7x7
I0403 14:29:55.316103 29877 net.cpp:148] Top shape: 24 64 112 112 (19267584)
I0403 14:29:55.316120 29877 net.cpp:156] Memory required for data: 168592416
I0403 14:29:55.316138 29877 layer_factory.hpp:77] Creating layer pool1/3x3_s2
I0403 14:29:55.316162 29877 net.cpp:91] Creating Layer pool1/3x3_s2
I0403 14:29:55.316180 29877 net.cpp:425] pool1/3x3_s2 <- conv1/7x7_s2
I0403 14:29:55.316200 29877 net.cpp:399] pool1/3x3_s2 -> pool1/3x3_s2
I0403 14:29:55.316290 29877 net.cpp:141] Setting up pool1/3x3_s2
I0403 14:29:55.316359 29877 net.cpp:148] Top shape: 24 64 56 56 (4816896)
I0403 14:29:55.316388 29877 net.cpp:156] Memory required for data: 187860000
I0403 14:29:55.316411 29877 layer_factory.hpp:77] Creating layer pool1/norm1
I0403 14:29:55.316437 29877 net.cpp:91] Creating Layer pool1/norm1
I0403 14:29:55.316455 29877 net.cpp:425] pool1/norm1 <- pool1/3x3_s2
I0403 14:29:55.316474 29877 net.cpp:399] pool1/norm1 -> pool1/norm1
I0403 14:29:55.316776 29877 net.cpp:141] Setting up pool1/norm1
I0403 14:29:55.316804 29877 net.cpp:148] Top shape: 24 64 56 56 (4816896)
I0403 14:29:55.316820 29877 net.cpp:156] Memory required for data: 207127584
I0403 14:29:55.316838 29877 layer_factory.hpp:77] Creating layer conv2/3x3_reduce
I0403 14:29:55.316864 29877 net.cpp:91] Creating Layer conv2/3x3_reduce
I0403 14:29:55.316882 29877 net.cpp:425] conv2/3x3_reduce <- pool1/norm1
I0403 14:29:55.316901 29877 net.cpp:399] conv2/3x3_reduce -> conv2/3x3_reduce
I0403 14:29:55.318225 29877 net.cpp:141] Setting up conv2/3x3_reduce
I0403 14:29:55.318258 29877 net.cpp:148] Top shape: 24 64 56 56 (4816896)
I0403 14:29:55.318274 29877 net.cpp:156] Memory required for data: 226395168
I0403 14:29:55.318295 29877 layer_factory.hpp:77] Creating layer conv2/relu_3x3_reduce
I0403 14:29:55.318322 29877 net.cpp:91] Creating Layer conv2/relu_3x3_reduce
I0403 14:29:55.318349 29877 net.cpp:425] conv2/relu_3x3_reduce <- conv2/3x3_reduce
I0403 14:29:55.318368 29877 net.cpp:386] conv2/relu_3x3_reduce -> conv2/3x3_reduce (in-place)
I0403 14:29:55.318620 29877 net.cpp:141] Setting up conv2/relu_3x3_reduce
I0403 14:29:55.318650 29877 net.cpp:148] Top shape: 24 64 56 56 (4816896)
I0403 14:29:55.318665 29877 net.cpp:156] Memory required for data: 245662752
I0403 14:29:55.318681 29877 layer_factory.hpp:77] Creating layer conv2/3x3
I0403 14:29:55.318704 29877 net.cpp:91] Creating Layer conv2/3x3
I0403 14:29:55.318722 29877 net.cpp:425] conv2/3x3 <- conv2/3x3_reduce
I0403 14:29:55.318740 29877 net.cpp:399] conv2/3x3 -> conv2/3x3
I0403 14:29:55.321045 29877 net.cpp:141] Setting up conv2/3x3
I0403 14:29:55.321079 29877 net.cpp:148] Top shape: 24 192 56 56 (14450688)
I0403 14:29:55.321110 29877 net.cpp:156] Memory required for data: 303465504
I0403 14:29:55.321159 29877 layer_factory.hpp:77] Creating layer conv2/relu_3x3
I0403 14:29:55.321190 29877 net.cpp:91] Creating Layer conv2/relu_3x3
I0403 14:29:55.321208 29877 net.cpp:425] conv2/relu_3x3 <- conv2/3x3
I0403 14:29:55.321229 29877 net.cpp:386] conv2/relu_3x3 -> conv2/3x3 (in-place)
I0403 14:29:55.321420 29877 net.cpp:141] Setting up conv2/relu_3x3
I0403 14:29:55.321447 29877 net.cpp:148] Top shape: 24 192 56 56 (14450688)
I0403 14:29:55.321494 29877 net.cpp:156] Memory required for data: 361268256
I0403 14:29:55.321512 29877 layer_factory.hpp:77] Creating layer conv2/norm2
I0403 14:29:55.321533 29877 net.cpp:91] Creating Layer conv2/norm2
I0403 14:29:55.321552 29877 net.cpp:425] conv2/norm2 <- conv2/3x3
I0403 14:29:55.321570 29877 net.cpp:399] conv2/norm2 -> conv2/norm2
I0403 14:29:55.321882 29877 net.cpp:141] Setting up conv2/norm2
I0403 14:29:55.321910 29877 net.cpp:148] Top shape: 24 192 56 56 (14450688)
I0403 14:29:55.321926 29877 net.cpp:156] Memory required for data: 419071008
I0403 14:29:55.321943 29877 layer_factory.hpp:77] Creating layer pool2/3x3_s2
I0403 14:29:55.321967 29877 net.cpp:91] Creating Layer pool2/3x3_s2
I0403 14:29:55.321986 29877 net.cpp:425] pool2/3x3_s2 <- conv2/norm2
I0403 14:29:55.322007 29877 net.cpp:399] pool2/3x3_s2 -> pool2/3x3_s2
I0403 14:29:55.322062 29877 net.cpp:141] Setting up pool2/3x3_s2
I0403 14:29:55.322088 29877 net.cpp:148] Top shape: 24 192 28 28 (3612672)
I0403 14:29:55.322103 29877 net.cpp:156] Memory required for data: 433521696
I0403 14:29:55.322119 29877 layer_factory.hpp:77] Creating layer pool2/3x3_s2_pool2/3x3_s2_0_split
I0403 14:29:55.322140 29877 net.cpp:91] Creating Layer pool2/3x3_s2_pool2/3x3_s2_0_split
I0403 14:29:55.322156 29877 net.cpp:425] pool2/3x3_s2_pool2/3x3_s2_0_split <- pool2/3x3_s2
I0403 14:29:55.322175 29877 net.cpp:399] pool2/3x3_s2_pool2/3x3_s2_0_split -> pool2/3x3_s2_pool2/3x3_s2_0_split_0
I0403 14:29:55.322196 29877 net.cpp:399] pool2/3x3_s2_pool2/3x3_s2_0_split -> pool2/3x3_s2_pool2/3x3_s2_0_split_1
I0403 14:29:55.322218 29877 net.cpp:399] pool2/3x3_s2_pool2/3x3_s2_0_split -> pool2/3x3_s2_pool2/3x3_s2_0_split_2
I0403 14:29:55.322238 29877 net.cpp:399] pool2/3x3_s2_pool2/3x3_s2_0_split -> pool2/3x3_s2_pool2/3x3_s2_0_split_3
I0403 14:29:55.322311 29877 net.cpp:141] Setting up pool2/3x3_s2_pool2/3x3_s2_0_split
I0403 14:29:55.322340 29877 net.cpp:148] Top shape: 24 192 28 28 (3612672)
I0403 14:29:55.322357 29877 net.cpp:148] Top shape: 24 192 28 28 (3612672)
I0403 14:29:55.322373 29877 net.cpp:148] Top shape: 24 192 28 28 (3612672)
I0403 14:29:55.322389 29877 net.cpp:148] Top shape: 24 192 28 28 (3612672)
I0403 14:29:55.322403 29877 net.cpp:156] Memory required for data: 491324448
I0403 14:29:55.322419 29877 layer_factory.hpp:77] Creating layer inception_3a/1x1
I0403 14:29:55.322443 29877 net.cpp:91] Creating Layer inception_3a/1x1
I0403 14:29:55.322459 29877 net.cpp:425] inception_3a/1x1 <- pool2/3x3_s2_pool2/3x3_s2_0_split_0
I0403 14:29:55.322481 29877 net.cpp:399] inception_3a/1x1 -> inception_3a/1x1
I0403 14:29:55.324035 29877 net.cpp:141] Setting up inception_3a/1x1
I0403 14:29:55.324069 29877 net.cpp:148] Top shape: 24 64 28 28 (1204224)
I0403 14:29:55.324087 29877 net.cpp:156] Memory required for data: 496141344
I0403 14:29:55.324107 29877 layer_factory.hpp:77] Creating layer inception_3a/relu_1x1
I0403 14:29:55.324127 29877 net.cpp:91] Creating Layer inception_3a/relu_1x1
I0403 14:29:55.324144 29877 net.cpp:425] inception_3a/relu_1x1 <- inception_3a/1x1
I0403 14:29:55.324165 29877 net.cpp:386] inception_3a/relu_1x1 -> inception_3a/1x1 (in-place)
I0403 14:29:55.324354 29877 net.cpp:141] Setting up inception_3a/relu_1x1
I0403 14:29:55.324383 29877 net.cpp:148] Top shape: 24 64 28 28 (1204224)
I0403 14:29:55.324398 29877 net.cpp:156] Memory required for data: 500958240
I0403 14:29:55.324426 29877 layer_factory.hpp:77] Creating layer inception_3a/3x3_reduce
I0403 14:29:55.324460 29877 net.cpp:91] Creating Layer inception_3a/3x3_reduce
I0403 14:29:55.324508 29877 net.cpp:425] inception_3a/3x3_reduce <- pool2/3x3_s2_pool2/3x3_s2_0_split_1
I0403 14:29:55.324532 29877 net.cpp:399] inception_3a/3x3_reduce -> inception_3a/3x3_reduce
I0403 14:29:55.326242 29877 net.cpp:141] Setting up inception_3a/3x3_reduce
I0403 14:29:55.326277 29877 net.cpp:148] Top shape: 24 96 28 28 (1806336)
I0403 14:29:55.326294 29877 net.cpp:156] Memory required for data: 508183584
I0403 14:29:55.326323 29877 layer_factory.hpp:77] Creating layer inception_3a/relu_3x3_reduce
I0403 14:29:55.326385 29877 net.cpp:91] Creating Layer inception_3a/relu_3x3_reduce
I0403 14:29:55.326403 29877 net.cpp:425] inception_3a/relu_3x3_reduce <- inception_3a/3x3_reduce
I0403 14:29:55.326422 29877 net.cpp:386] inception_3a/relu_3x3_reduce -> inception_3a/3x3_reduce (in-place)
I0403 14:29:55.326607 29877 net.cpp:141] Setting up inception_3a/relu_3x3_reduce
I0403 14:29:55.326642 29877 net.cpp:148] Top shape: 24 96 28 28 (1806336)
I0403 14:29:55.326659 29877 net.cpp:156] Memory required for data: 515408928
I0403 14:29:55.326674 29877 layer_factory.hpp:77] Creating layer inception_3a/3x3
I0403 14:29:55.326699 29877 net.cpp:91] Creating Layer inception_3a/3x3
I0403 14:29:55.326717 29877 net.cpp:425] inception_3a/3x3 <- inception_3a/3x3_reduce
I0403 14:29:55.326737 29877 net.cpp:399] inception_3a/3x3 -> inception_3a/3x3
I0403 14:29:55.328415 29877 net.cpp:141] Setting up inception_3a/3x3
I0403 14:29:55.328445 29877 net.cpp:148] Top shape: 24 128 28 28 (2408448)
I0403 14:29:55.328462 29877 net.cpp:156] Memory required for data: 525042720
I0403 14:29:55.328481 29877 layer_factory.hpp:77] Creating layer inception_3a/relu_3x3
I0403 14:29:55.328501 29877 net.cpp:91] Creating Layer inception_3a/relu_3x3
I0403 14:29:55.328518 29877 net.cpp:425] inception_3a/relu_3x3 <- inception_3a/3x3
I0403 14:29:55.328539 29877 net.cpp:386] inception_3a/relu_3x3 -> inception_3a/3x3 (in-place)
I0403 14:29:55.328821 29877 net.cpp:141] Setting up inception_3a/relu_3x3
I0403 14:29:55.328848 29877 net.cpp:148] Top shape: 24 128 28 28 (2408448)
I0403 14:29:55.328866 29877 net.cpp:156] Memory required for data: 534676512
I0403 14:29:55.328881 29877 layer_factory.hpp:77] Creating layer inception_3a/5x5_reduce
I0403 14:29:55.328904 29877 net.cpp:91] Creating Layer inception_3a/5x5_reduce
I0403 14:29:55.328922 29877 net.cpp:425] inception_3a/5x5_reduce <- pool2/3x3_s2_pool2/3x3_s2_0_split_2
I0403 14:29:55.328945 29877 net.cpp:399] inception_3a/5x5_reduce -> inception_3a/5x5_reduce
I0403 14:29:55.333950 29877 net.cpp:141] Setting up inception_3a/5x5_reduce
I0403 14:29:55.333979 29877 net.cpp:148] Top shape: 24 16 28 28 (301056)
I0403 14:29:55.333997 29877 net.cpp:156] Memory required for data: 535880736
I0403 14:29:55.334017 29877 layer_factory.hpp:77] Creating layer inception_3a/relu_5x5_reduce
I0403 14:29:55.334036 29877 net.cpp:91] Creating Layer inception_3a/relu_5x5_reduce
I0403 14:29:55.334053 29877 net.cpp:425] inception_3a/relu_5x5_reduce <- inception_3a/5x5_reduce
I0403 14:29:55.334074 29877 net.cpp:386] inception_3a/relu_5x5_reduce -> inception_3a/5x5_reduce (in-place)
I0403 14:29:55.334384 29877 net.cpp:141] Setting up inception_3a/relu_5x5_reduce
I0403 14:29:55.334414 29877 net.cpp:148] Top shape: 24 16 28 28 (301056)
I0403 14:29:55.334429 29877 net.cpp:156] Memory required for data: 537084960
I0403 14:29:55.334446 29877 layer_factory.hpp:77] Creating layer inception_3a/5x5
I0403 14:29:55.334470 29877 net.cpp:91] Creating Layer inception_3a/5x5
I0403 14:29:55.334488 29877 net.cpp:425] inception_3a/5x5 <- inception_3a/5x5_reduce
I0403 14:29:55.334511 29877 net.cpp:399] inception_3a/5x5 -> inception_3a/5x5
I0403 14:29:55.335551 29877 net.cpp:141] Setting up inception_3a/5x5
I0403 14:29:55.335582 29877 net.cpp:148] Top shape: 24 32 28 28 (602112)
I0403 14:29:55.335598 29877 net.cpp:156] Memory required for data: 539493408
I0403 14:29:55.335618 29877 layer_factory.hpp:77] Creating layer inception_3a/relu_5x5
I0403 14:29:55.335638 29877 net.cpp:91] Creating Layer inception_3a/relu_5x5
I0403 14:29:55.335654 29877 net.cpp:425] inception_3a/relu_5x5 <- inception_3a/5x5
I0403 14:29:55.335675 29877 net.cpp:386] inception_3a/relu_5x5 -> inception_3a/5x5 (in-place)
I0403 14:29:55.335856 29877 net.cpp:141] Setting up inception_3a/relu_5x5
I0403 14:29:55.335882 29877 net.cpp:148] Top shape: 24 32 28 28 (602112)
I0403 14:29:55.335898 29877 net.cpp:156] Memory required for data: 541901856
I0403 14:29:55.335913 29877 layer_factory.hpp:77] Creating layer inception_3a/pool
I0403 14:29:55.335935 29877 net.cpp:91] Creating Layer inception_3a/pool
I0403 14:29:55.335953 29877 net.cpp:425] inception_3a/pool <- pool2/3x3_s2_pool2/3x3_s2_0_split_3
I0403 14:29:55.335988 29877 net.cpp:399] inception_3a/pool -> inception_3a/pool
I0403 14:29:55.336048 29877 net.cpp:141] Setting up inception_3a/pool
I0403 14:29:55.336073 29877 net.cpp:148] Top shape: 24 192 28 28 (3612672)
I0403 14:29:55.336089 29877 net.cpp:156] Memory required for data: 556352544
I0403 14:29:55.336104 29877 layer_factory.hpp:77] Creating layer inception_3a/pool_proj
I0403 14:29:55.336127 29877 net.cpp:91] Creating Layer inception_3a/pool_proj
I0403 14:29:55.336145 29877 net.cpp:425] inception_3a/pool_proj <- inception_3a/pool
I0403 14:29:55.336169 29877 net.cpp:399] inception_3a/pool_proj -> inception_3a/pool_proj
I0403 14:29:55.337159 29877 net.cpp:141] Setting up inception_3a/pool_proj
I0403 14:29:55.337188 29877 net.cpp:148] Top shape: 24 32 28 28 (602112)
I0403 14:29:55.337208 29877 net.cpp:156] Memory required for data: 558760992
I0403 14:29:55.337230 29877 layer_factory.hpp:77] Creating layer inception_3a/relu_pool_proj
I0403 14:29:55.337250 29877 net.cpp:91] Creating Layer inception_3a/relu_pool_proj
I0403 14:29:55.337270 29877 net.cpp:425] inception_3a/relu_pool_proj <- inception_3a/pool_proj
I0403 14:29:55.337290 29877 net.cpp:386] inception_3a/relu_pool_proj -> inception_3a/pool_proj (in-place)
I0403 14:29:55.337579 29877 net.cpp:141] Setting up inception_3a/relu_pool_proj
I0403 14:29:55.337607 29877 net.cpp:148] Top shape: 24 32 28 28 (602112)
I0403 14:29:55.337623 29877 net.cpp:156] Memory required for data: 561169440
I0403 14:29:55.337640 29877 layer_factory.hpp:77] Creating layer inception_3a/output
I0403 14:29:55.337658 29877 net.cpp:91] Creating Layer inception_3a/output
I0403 14:29:55.337674 29877 net.cpp:425] inception_3a/output <- inception_3a/1x1
I0403 14:29:55.337692 29877 net.cpp:425] inception_3a/output <- inception_3a/3x3
I0403 14:29:55.337708 29877 net.cpp:425] inception_3a/output <- inception_3a/5x5
I0403 14:29:55.337725 29877 net.cpp:425] inception_3a/output <- inception_3a/pool_proj
I0403 14:29:55.337745 29877 net.cpp:399] inception_3a/output -> inception_3a/output
I0403 14:29:55.337793 29877 net.cpp:141] Setting up inception_3a/output
I0403 14:29:55.337821 29877 net.cpp:148] Top shape: 24 256 28 28 (4816896)
I0403 14:29:55.337838 29877 net.cpp:156] Memory required for data: 580437024
I0403 14:29:55.337855 29877 layer_factory.hpp:77] Creating layer inception_3a/output_inception_3a/output_0_split
I0403 14:29:55.337872 29877 net.cpp:91] Creating Layer inception_3a/output_inception_3a/output_0_split
I0403 14:29:55.337888 29877 net.cpp:425] inception_3a/output_inception_3a/output_0_split <- inception_3a/output
I0403 14:29:55.337906 29877 net.cpp:399] inception_3a/output_inception_3a/output_0_split -> inception_3a/output_inception_3a/output_0_split_0
I0403 14:29:55.337927 29877 net.cpp:399] inception_3a/output_inception_3a/output_0_split -> inception_3a/output_inception_3a/output_0_split_1
I0403 14:29:55.337954 29877 net.cpp:399] inception_3a/output_inception_3a/output_0_split -> inception_3a/output_inception_3a/output_0_split_2
I0403 14:29:55.337978 29877 net.cpp:399] inception_3a/output_inception_3a/output_0_split -> inception_3a/output_inception_3a/output_0_split_3
I0403 14:29:55.338054 29877 net.cpp:141] Setting up inception_3a/output_inception_3a/output_0_split
I0403 14:29:55.338080 29877 net.cpp:148] Top shape: 24 256 28 28 (4816896)
I0403 14:29:55.338099 29877 net.cpp:148] Top shape: 24 256 28 28 (4816896)
I0403 14:29:55.338116 29877 net.cpp:148] Top shape: 24 256 28 28 (4816896)
I0403 14:29:55.338132 29877 net.cpp:148] Top shape: 24 256 28 28 (4816896)
I0403 14:29:55.338146 29877 net.cpp:156] Memory required for data: 657507360
I0403 14:29:55.338163 29877 layer_factory.hpp:77] Creating layer inception_3b/1x1
I0403 14:29:55.338187 29877 net.cpp:91] Creating Layer inception_3b/1x1
I0403 14:29:55.338206 29877 net.cpp:425] inception_3b/1x1 <- inception_3a/output_inception_3a/output_0_split_0
I0403 14:29:55.338225 29877 net.cpp:399] inception_3b/1x1 -> inception_3b/1x1
I0403 14:29:55.339385 29877 net.cpp:141] Setting up inception_3b/1x1
I0403 14:29:55.339429 29877 net.cpp:148] Top shape: 24 128 28 28 (2408448)
I0403 14:29:55.339448 29877 net.cpp:156] Memory required for data: 667141152
I0403 14:29:55.339468 29877 layer_factory.hpp:77] Creating layer inception_3b/relu_1x1
I0403 14:29:55.339486 29877 net.cpp:91] Creating Layer inception_3b/relu_1x1
I0403 14:29:55.339504 29877 net.cpp:425] inception_3b/relu_1x1 <- inception_3b/1x1
I0403 14:29:55.339524 29877 net.cpp:386] inception_3b/relu_1x1 -> inception_3b/1x1 (in-place)
I0403 14:29:55.339752 29877 net.cpp:141] Setting up inception_3b/relu_1x1
I0403 14:29:55.339792 29877 net.cpp:148] Top shape: 24 128 28 28 (2408448)
I0403 14:29:55.339815 29877 net.cpp:156] Memory required for data: 676774944
I0403 14:29:55.339840 29877 layer_factory.hpp:77] Creating layer inception_3b/3x3_reduce
I0403 14:29:55.339874 29877 net.cpp:91] Creating Layer inception_3b/3x3_reduce
I0403 14:29:55.339901 29877 net.cpp:425] inception_3b/3x3_reduce <- inception_3a/output_inception_3a/output_0_split_1
I0403 14:29:55.339934 29877 net.cpp:399] inception_3b/3x3_reduce -> inception_3b/3x3_reduce
I0403 14:29:55.341687 29877 net.cpp:141] Setting up inception_3b/3x3_reduce
I0403 14:29:55.341737 29877 net.cpp:148] Top shape: 24 128 28 28 (2408448)
I0403 14:29:55.341763 29877 net.cpp:156] Memory required for data: 686408736
I0403 14:29:55.341794 29877 layer_factory.hpp:77] Creating layer inception_3b/relu_3x3_reduce
I0403 14:29:55.341822 29877 net.cpp:91] Creating Layer inception_3b/relu_3x3_reduce
I0403 14:29:55.341848 29877 net.cpp:425] inception_3b/relu_3x3_reduce <- inception_3b/3x3_reduce
I0403 14:29:55.341876 29877 net.cpp:386] inception_3b/relu_3x3_reduce -> inception_3b/3x3_reduce (in-place)
I0403 14:29:55.342150 29877 net.cpp:141] Setting up inception_3b/relu_3x3_reduce
I0403 14:29:55.342190 29877 net.cpp:148] Top shape: 24 128 28 28 (2408448)
I0403 14:29:55.342213 29877 net.cpp:156] Memory required for data: 696042528
I0403 14:29:55.342236 29877 layer_factory.hpp:77] Creating layer inception_3b/3x3
I0403 14:29:55.342275 29877 net.cpp:91] Creating Layer inception_3b/3x3
I0403 14:29:55.342303 29877 net.cpp:425] inception_3b/3x3 <- inception_3b/3x3_reduce
I0403 14:29:55.342345 29877 net.cpp:399] inception_3b/3x3 -> inception_3b/3x3
I0403 14:29:55.346004 29877 net.cpp:141] Setting up inception_3b/3x3
I0403 14:29:55.346050 29877 net.cpp:148] Top shape: 24 192 28 28 (3612672)
I0403 14:29:55.346070 29877 net.cpp:156] Memory required for data: 710493216
I0403 14:29:55.346091 29877 layer_factory.hpp:77] Creating layer inception_3b/relu_3x3
I0403 14:29:55.346109 29877 net.cpp:91] Creating Layer inception_3b/relu_3x3
I0403 14:29:55.346127 29877 net.cpp:425] inception_3b/relu_3x3 <- inception_3b/3x3
I0403 14:29:55.346148 29877 net.cpp:386] inception_3b/relu_3x3 -> inception_3b/3x3 (in-place)
I0403 14:29:55.346451 29877 net.cpp:141] Setting up inception_3b/relu_3x3
I0403 14:29:55.346479 29877 net.cpp:148] Top shape: 24 192 28 28 (3612672)
I0403 14:29:55.346496 29877 net.cpp:156] Memory required for data: 724943904
I0403 14:29:55.346513 29877 layer_factory.hpp:77] Creating layer inception_3b/5x5_reduce
I0403 14:29:55.346535 29877 net.cpp:91] Creating Layer inception_3b/5x5_reduce
I0403 14:29:55.346562 29877 net.cpp:425] inception_3b/5x5_reduce <- inception_3a/output_inception_3a/output_0_split_2
I0403 14:29:55.346586 29877 net.cpp:399] inception_3b/5x5_reduce -> inception_3b/5x5_reduce
I0403 14:29:55.347610 29877 net.cpp:141] Setting up inception_3b/5x5_reduce
I0403 14:29:55.347640 29877 net.cpp:148] Top shape: 24 32 28 28 (602112)
I0403 14:29:55.347657 29877 net.cpp:156] Memory required for data: 727352352
I0403 14:29:55.347678 29877 layer_factory.hpp:77] Creating layer inception_3b/relu_5x5_reduce
I0403 14:29:55.347698 29877 net.cpp:91] Creating Layer inception_3b/relu_5x5_reduce
I0403 14:29:55.347714 29877 net.cpp:425] inception_3b/relu_5x5_reduce <- inception_3b/5x5_reduce
I0403 14:29:55.347735 29877 net.cpp:386] inception_3b/relu_5x5_reduce -> inception_3b/5x5_reduce (in-place)
I0403 14:29:55.347929 29877 net.cpp:141] Setting up inception_3b/relu_5x5_reduce
I0403 14:29:55.347968 29877 net.cpp:148] Top shape: 24 32 28 28 (602112)
I0403 14:29:55.347985 29877 net.cpp:156] Memory required for data: 729760800
I0403 14:29:55.348001 29877 layer_factory.hpp:77] Creating layer inception_3b/5x5
I0403 14:29:55.348026 29877 net.cpp:91] Creating Layer inception_3b/5x5
I0403 14:29:55.348044 29877 net.cpp:425] inception_3b/5x5 <- inception_3b/5x5_reduce
I0403 14:29:55.348067 29877 net.cpp:399] inception_3b/5x5 -> inception_3b/5x5
I0403 14:29:55.350093 29877 net.cpp:141] Setting up inception_3b/5x5
I0403 14:29:55.350126 29877 net.cpp:148] Top shape: 24 96 28 28 (1806336)
I0403 14:29:55.350144 29877 net.cpp:156] Memory required for data: 736986144
I0403 14:29:55.350165 29877 layer_factory.hpp:77] Creating layer inception_3b/relu_5x5
I0403 14:29:55.350183 29877 net.cpp:91] Creating Layer inception_3b/relu_5x5
I0403 14:29:55.350200 29877 net.cpp:425] inception_3b/relu_5x5 <- inception_3b/5x5
I0403 14:29:55.350219 29877 net.cpp:386] inception_3b/relu_5x5 -> inception_3b/5x5 (in-place)
I0403 14:29:55.350417 29877 net.cpp:141] Setting up inception_3b/relu_5x5
I0403 14:29:55.350445 29877 net.cpp:148] Top shape: 24 96 28 28 (1806336)
I0403 14:29:55.350461 29877 net.cpp:156] Memory required for data: 744211488
I0403 14:29:55.350476 29877 layer_factory.hpp:77] Creating layer inception_3b/pool
I0403 14:29:55.350497 29877 net.cpp:91] Creating Layer inception_3b/pool
I0403 14:29:55.350513 29877 net.cpp:425] inception_3b/pool <- inception_3a/output_inception_3a/output_0_split_3
I0403 14:29:55.350533 29877 net.cpp:399] inception_3b/pool -> inception_3b/pool
I0403 14:29:55.350600 29877 net.cpp:141] Setting up inception_3b/pool
I0403 14:29:55.350628 29877 net.cpp:148] Top shape: 24 256 28 28 (4816896)
I0403 14:29:55.350664 29877 net.cpp:156] Memory required for data: 763479072
I0403 14:29:55.350708 29877 layer_factory.hpp:77] Creating layer inception_3b/pool_proj
I0403 14:29:55.350750 29877 net.cpp:91] Creating Layer inception_3b/pool_proj
I0403 14:29:55.350769 29877 net.cpp:425] inception_3b/pool_proj <- inception_3b/pool
I0403 14:29:55.350788 29877 net.cpp:399] inception_3b/pool_proj -> inception_3b/pool_proj
I0403 14:29:55.351884 29877 net.cpp:141] Setting up inception_3b/pool_proj
I0403 14:29:55.351913 29877 net.cpp:148] Top shape: 24 64 28 28 (1204224)
I0403 14:29:55.351932 29877 net.cpp:156] Memory required for data: 768295968
I0403 14:29:55.351951 29877 layer_factory.hpp:77] Creating layer inception_3b/relu_pool_proj
I0403 14:29:55.351972 29877 net.cpp:91] Creating Layer inception_3b/relu_pool_proj
I0403 14:29:55.351989 29877 net.cpp:425] inception_3b/relu_pool_proj <- inception_3b/pool_proj
I0403 14:29:55.352008 29877 net.cpp:386] inception_3b/relu_pool_proj -> inception_3b/pool_proj (in-place)
I0403 14:29:55.352417 29877 net.cpp:141] Setting up inception_3b/relu_pool_proj
I0403 14:29:55.352444 29877 net.cpp:148] Top shape: 24 64 28 28 (1204224)
I0403 14:29:55.352484 29877 net.cpp:156] Memory required for data: 773112864
I0403 14:29:55.352533 29877 layer_factory.hpp:77] Creating layer inception_3b/output
I0403 14:29:55.352582 29877 net.cpp:91] Creating Layer inception_3b/output
I0403 14:29:55.352599 29877 net.cpp:425] inception_3b/output <- inception_3b/1x1
I0403 14:29:55.352617 29877 net.cpp:425] inception_3b/output <- inception_3b/3x3
I0403 14:29:55.352634 29877 net.cpp:425] inception_3b/output <- inception_3b/5x5
I0403 14:29:55.352651 29877 net.cpp:425] inception_3b/output <- inception_3b/pool_proj
I0403 14:29:55.352671 29877 net.cpp:399] inception_3b/output -> inception_3b/output
I0403 14:29:55.352718 29877 net.cpp:141] Setting up inception_3b/output
I0403 14:29:55.352743 29877 net.cpp:148] Top shape: 24 480 28 28 (9031680)
I0403 14:29:55.352759 29877 net.cpp:156] Memory required for data: 809239584
I0403 14:29:55.352774 29877 layer_factory.hpp:77] Creating layer pool3/3x3_s2
I0403 14:29:55.352792 29877 net.cpp:91] Creating Layer pool3/3x3_s2
I0403 14:29:55.352807 29877 net.cpp:425] pool3/3x3_s2 <- inception_3b/output
I0403 14:29:55.352828 29877 net.cpp:399] pool3/3x3_s2 -> pool3/3x3_s2
I0403 14:29:55.352901 29877 net.cpp:141] Setting up pool3/3x3_s2
I0403 14:29:55.352926 29877 net.cpp:148] Top shape: 24 480 14 14 (2257920)
I0403 14:29:55.352942 29877 net.cpp:156] Memory required for data: 818271264
I0403 14:29:55.352958 29877 layer_factory.hpp:77] Creating layer pool3/3x3_s2_pool3/3x3_s2_0_split
I0403 14:29:55.352979 29877 net.cpp:91] Creating Layer pool3/3x3_s2_pool3/3x3_s2_0_split
I0403 14:29:55.352995 29877 net.cpp:425] pool3/3x3_s2_pool3/3x3_s2_0_split <- pool3/3x3_s2
I0403 14:29:55.353013 29877 net.cpp:399] pool3/3x3_s2_pool3/3x3_s2_0_split -> pool3/3x3_s2_pool3/3x3_s2_0_split_0
I0403 14:29:55.353032 29877 net.cpp:399] pool3/3x3_s2_pool3/3x3_s2_0_split -> pool3/3x3_s2_pool3/3x3_s2_0_split_1
I0403 14:29:55.353055 29877 net.cpp:399] pool3/3x3_s2_pool3/3x3_s2_0_split -> pool3/3x3_s2_pool3/3x3_s2_0_split_2
I0403 14:29:55.353077 29877 net.cpp:399] pool3/3x3_s2_pool3/3x3_s2_0_split -> pool3/3x3_s2_pool3/3x3_s2_0_split_3
I0403 14:29:55.353155 29877 net.cpp:141] Setting up pool3/3x3_s2_pool3/3x3_s2_0_split
I0403 14:29:55.353180 29877 net.cpp:148] Top shape: 24 480 14 14 (2257920)
I0403 14:29:55.353198 29877 net.cpp:148] Top shape: 24 480 14 14 (2257920)
I0403 14:29:55.353214 29877 net.cpp:148] Top shape: 24 480 14 14 (2257920)
I0403 14:29:55.353229 29877 net.cpp:148] Top shape: 24 480 14 14 (2257920)
I0403 14:29:55.353245 29877 net.cpp:156] Memory required for data: 854397984
I0403 14:29:55.353261 29877 layer_factory.hpp:77] Creating layer inception_4a/1x1
I0403 14:29:55.353284 29877 net.cpp:91] Creating Layer inception_4a/1x1
I0403 14:29:55.353302 29877 net.cpp:425] inception_4a/1x1 <- pool3/3x3_s2_pool3/3x3_s2_0_split_0
I0403 14:29:55.353328 29877 net.cpp:399] inception_4a/1x1 -> inception_4a/1x1
I0403 14:29:55.354957 29877 net.cpp:141] Setting up inception_4a/1x1
I0403 14:29:55.354986 29877 net.cpp:148] Top shape: 24 192 14 14 (903168)
I0403 14:29:55.355002 29877 net.cpp:156] Memory required for data: 858010656
I0403 14:29:55.355023 29877 layer_factory.hpp:77] Creating layer inception_4a/relu_1x1
I0403 14:29:55.355044 29877 net.cpp:91] Creating Layer inception_4a/relu_1x1
I0403 14:29:55.355062 29877 net.cpp:425] inception_4a/relu_1x1 <- inception_4a/1x1
I0403 14:29:55.355079 29877 net.cpp:386] inception_4a/relu_1x1 -> inception_4a/1x1 (in-place)
I0403 14:29:55.355276 29877 net.cpp:141] Setting up inception_4a/relu_1x1
I0403 14:29:55.355306 29877 net.cpp:148] Top shape: 24 192 14 14 (903168)
I0403 14:29:55.355329 29877 net.cpp:156] Memory required for data: 861623328
I0403 14:29:55.355347 29877 layer_factory.hpp:77] Creating layer inception_4a/3x3_reduce
I0403 14:29:55.355373 29877 net.cpp:91] Creating Layer inception_4a/3x3_reduce
I0403 14:29:55.355404 29877 net.cpp:425] inception_4a/3x3_reduce <- pool3/3x3_s2_pool3/3x3_s2_0_split_1
I0403 14:29:55.355425 29877 net.cpp:399] inception_4a/3x3_reduce -> inception_4a/3x3_reduce
I0403 14:29:55.356721 29877 net.cpp:141] Setting up inception_4a/3x3_reduce
I0403 14:29:55.356751 29877 net.cpp:148] Top shape: 24 96 14 14 (451584)
I0403 14:29:55.356768 29877 net.cpp:156] Memory required for data: 863429664
I0403 14:29:55.356794 29877 layer_factory.hpp:77] Creating layer inception_4a/relu_3x3_reduce
I0403 14:29:55.356817 29877 net.cpp:91] Creating Layer inception_4a/relu_3x3_reduce
I0403 14:29:55.356835 29877 net.cpp:425] inception_4a/relu_3x3_reduce <- inception_4a/3x3_reduce
I0403 14:29:55.356854 29877 net.cpp:386] inception_4a/relu_3x3_reduce -> inception_4a/3x3_reduce (in-place)
I0403 14:29:55.357033 29877 net.cpp:141] Setting up inception_4a/relu_3x3_reduce
I0403 14:29:55.357059 29877 net.cpp:148] Top shape: 24 96 14 14 (451584)
I0403 14:29:55.357075 29877 net.cpp:156] Memory required for data: 865236000
I0403 14:29:55.357091 29877 layer_factory.hpp:77] Creating layer inception_4a/3x3
I0403 14:29:55.357116 29877 net.cpp:91] Creating Layer inception_4a/3x3
I0403 14:29:55.357134 29877 net.cpp:425] inception_4a/3x3 <- inception_4a/3x3_reduce
I0403 14:29:55.357153 29877 net.cpp:399] inception_4a/3x3 -> inception_4a/3x3
I0403 14:29:55.359930 29877 net.cpp:141] Setting up inception_4a/3x3
I0403 14:29:55.359961 29877 net.cpp:148] Top shape: 24 208 14 14 (978432)
I0403 14:29:55.359978 29877 net.cpp:156] Memory required for data: 869149728
I0403 14:29:55.359998 29877 layer_factory.hpp:77] Creating layer inception_4a/relu_3x3
I0403 14:29:55.360016 29877 net.cpp:91] Creating Layer inception_4a/relu_3x3
I0403 14:29:55.360033 29877 net.cpp:425] inception_4a/relu_3x3 <- inception_4a/3x3
I0403 14:29:55.360052 29877 net.cpp:386] inception_4a/relu_3x3 -> inception_4a/3x3 (in-place)
I0403 14:29:55.360337 29877 net.cpp:141] Setting up inception_4a/relu_3x3
I0403 14:29:55.360366 29877 net.cpp:148] Top shape: 24 208 14 14 (978432)
I0403 14:29:55.360383 29877 net.cpp:156] Memory required for data: 873063456
I0403 14:29:55.360399 29877 layer_factory.hpp:77] Creating layer inception_4a/5x5_reduce
I0403 14:29:55.360422 29877 net.cpp:91] Creating Layer inception_4a/5x5_reduce
I0403 14:29:55.360440 29877 net.cpp:425] inception_4a/5x5_reduce <- pool3/3x3_s2_pool3/3x3_s2_0_split_2
I0403 14:29:55.360460 29877 net.cpp:399] inception_4a/5x5_reduce -> inception_4a/5x5_reduce
I0403 14:29:55.361484 29877 net.cpp:141] Setting up inception_4a/5x5_reduce
I0403 14:29:55.361513 29877 net.cpp:148] Top shape: 24 16 14 14 (75264)
I0403 14:29:55.361532 29877 net.cpp:156] Memory required for data: 873364512
I0403 14:29:55.361553 29877 layer_factory.hpp:77] Creating layer inception_4a/relu_5x5_reduce
I0403 14:29:55.361573 29877 net.cpp:91] Creating Layer inception_4a/relu_5x5_reduce
I0403 14:29:55.361591 29877 net.cpp:425] inception_4a/relu_5x5_reduce <- inception_4a/5x5_reduce
I0403 14:29:55.361614 29877 net.cpp:386] inception_4a/relu_5x5_reduce -> inception_4a/5x5_reduce (in-place)
I0403 14:29:55.361795 29877 net.cpp:141] Setting up inception_4a/relu_5x5_reduce
I0403 14:29:55.361824 29877 net.cpp:148] Top shape: 24 16 14 14 (75264)
I0403 14:29:55.361838 29877 net.cpp:156] Memory required for data: 873665568
I0403 14:29:55.361855 29877 layer_factory.hpp:77] Creating layer inception_4a/5x5
I0403 14:29:55.361878 29877 net.cpp:91] Creating Layer inception_4a/5x5
I0403 14:29:55.361898 29877 net.cpp:425] inception_4a/5x5 <- inception_4a/5x5_reduce
I0403 14:29:55.361922 29877 net.cpp:399] inception_4a/5x5 -> inception_4a/5x5
I0403 14:29:55.363039 29877 net.cpp:141] Setting up inception_4a/5x5
I0403 14:29:55.363070 29877 net.cpp:148] Top shape: 24 48 14 14 (225792)
I0403 14:29:55.363086 29877 net.cpp:156] Memory required for data: 874568736
I0403 14:29:55.363106 29877 layer_factory.hpp:77] Creating layer inception_4a/relu_5x5
I0403 14:29:55.363127 29877 net.cpp:91] Creating Layer inception_4a/relu_5x5
I0403 14:29:55.363148 29877 net.cpp:425] inception_4a/relu_5x5 <- inception_4a/5x5
I0403 14:29:55.363168 29877 net.cpp:386] inception_4a/relu_5x5 -> inception_4a/5x5 (in-place)
I0403 14:29:55.363356 29877 net.cpp:141] Setting up inception_4a/relu_5x5
I0403 14:29:55.363389 29877 net.cpp:148] Top shape: 24 48 14 14 (225792)
I0403 14:29:55.363406 29877 net.cpp:156] Memory required for data: 875471904
I0403 14:29:55.363423 29877 layer_factory.hpp:77] Creating layer inception_4a/pool
I0403 14:29:55.363442 29877 net.cpp:91] Creating Layer inception_4a/pool
I0403 14:29:55.363459 29877 net.cpp:425] inception_4a/pool <- pool3/3x3_s2_pool3/3x3_s2_0_split_3
I0403 14:29:55.363479 29877 net.cpp:399] inception_4a/pool -> inception_4a/pool
I0403 14:29:55.363554 29877 net.cpp:141] Setting up inception_4a/pool
I0403 14:29:55.363580 29877 net.cpp:148] Top shape: 24 480 14 14 (2257920)
I0403 14:29:55.363596 29877 net.cpp:156] Memory required for data: 884503584
I0403 14:29:55.363611 29877 layer_factory.hpp:77] Creating layer inception_4a/pool_proj
I0403 14:29:55.363634 29877 net.cpp:91] Creating Layer inception_4a/pool_proj
I0403 14:29:55.363652 29877 net.cpp:425] inception_4a/pool_proj <- inception_4a/pool
I0403 14:29:55.363674 29877 net.cpp:399] inception_4a/pool_proj -> inception_4a/pool_proj
I0403 14:29:55.364892 29877 net.cpp:141] Setting up inception_4a/pool_proj
I0403 14:29:55.364923 29877 net.cpp:148] Top shape: 24 64 14 14 (301056)
I0403 14:29:55.364955 29877 net.cpp:156] Memory required for data: 885707808
I0403 14:29:55.364976 29877 layer_factory.hpp:77] Creating layer inception_4a/relu_pool_proj
I0403 14:29:55.365000 29877 net.cpp:91] Creating Layer inception_4a/relu_pool_proj
I0403 14:29:55.365018 29877 net.cpp:425] inception_4a/relu_pool_proj <- inception_4a/pool_proj
I0403 14:29:55.365037 29877 net.cpp:386] inception_4a/relu_pool_proj -> inception_4a/pool_proj (in-place)
I0403 14:29:55.365335 29877 net.cpp:141] Setting up inception_4a/relu_pool_proj
I0403 14:29:55.365363 29877 net.cpp:148] Top shape: 24 64 14 14 (301056)
I0403 14:29:55.365380 29877 net.cpp:156] Memory required for data: 886912032
I0403 14:29:55.365396 29877 layer_factory.hpp:77] Creating layer inception_4a/output
I0403 14:29:55.365417 29877 net.cpp:91] Creating Layer inception_4a/output
I0403 14:29:55.365434 29877 net.cpp:425] inception_4a/output <- inception_4a/1x1
I0403 14:29:55.365475 29877 net.cpp:425] inception_4a/output <- inception_4a/3x3
I0403 14:29:55.365556 29877 net.cpp:425] inception_4a/output <- inception_4a/5x5
I0403 14:29:55.365602 29877 net.cpp:425] inception_4a/output <- inception_4a/pool_proj
I0403 14:29:55.365625 29877 net.cpp:399] inception_4a/output -> inception_4a/output
I0403 14:29:55.365674 29877 net.cpp:141] Setting up inception_4a/output
I0403 14:29:55.365700 29877 net.cpp:148] Top shape: 24 512 14 14 (2408448)
I0403 14:29:55.365716 29877 net.cpp:156] Memory required for data: 896545824
I0403 14:29:55.365754 29877 layer_factory.hpp:77] Creating layer inception_4a/output_inception_4a/output_0_split
I0403 14:29:55.365782 29877 net.cpp:91] Creating Layer inception_4a/output_inception_4a/output_0_split
I0403 14:29:55.365797 29877 net.cpp:425] inception_4a/output_inception_4a/output_0_split <- inception_4a/output
I0403 14:29:55.365818 29877 net.cpp:399] inception_4a/output_inception_4a/output_0_split -> inception_4a/output_inception_4a/output_0_split_0
I0403 14:29:55.365851 29877 net.cpp:399] inception_4a/output_inception_4a/output_0_split -> inception_4a/output_inception_4a/output_0_split_1
I0403 14:29:55.365892 29877 net.cpp:399] inception_4a/output_inception_4a/output_0_split -> inception_4a/output_inception_4a/output_0_split_2
I0403 14:29:55.365914 29877 net.cpp:399] inception_4a/output_inception_4a/output_0_split -> inception_4a/output_inception_4a/output_0_split_3
I0403 14:29:55.365936 29877 net.cpp:399] inception_4a/output_inception_4a/output_0_split -> inception_4a/output_inception_4a/output_0_split_4
I0403 14:29:55.366034 29877 net.cpp:141] Setting up inception_4a/output_inception_4a/output_0_split
I0403 14:29:55.366060 29877 net.cpp:148] Top shape: 24 512 14 14 (2408448)
I0403 14:29:55.366076 29877 net.cpp:148] Top shape: 24 512 14 14 (2408448)
I0403 14:29:55.366093 29877 net.cpp:148] Top shape: 24 512 14 14 (2408448)
I0403 14:29:55.366109 29877 net.cpp:148] Top shape: 24 512 14 14 (2408448)
I0403 14:29:55.366125 29877 net.cpp:148] Top shape: 24 512 14 14 (2408448)
I0403 14:29:55.366139 29877 net.cpp:156] Memory required for data: 944714784
I0403 14:29:55.366156 29877 layer_factory.hpp:77] Creating layer loss1/ave_pool
I0403 14:29:55.366174 29877 net.cpp:91] Creating Layer loss1/ave_pool
I0403 14:29:55.366212 29877 net.cpp:425] loss1/ave_pool <- inception_4a/output_inception_4a/output_0_split_0
I0403 14:29:55.366245 29877 net.cpp:399] loss1/ave_pool -> loss1/ave_pool
I0403 14:29:55.366461 29877 net.cpp:141] Setting up loss1/ave_pool
I0403 14:29:55.366489 29877 net.cpp:148] Top shape: 24 512 4 4 (196608)
I0403 14:29:55.366505 29877 net.cpp:156] Memory required for data: 945501216
I0403 14:29:55.366520 29877 layer_factory.hpp:77] Creating layer loss1/conv
I0403 14:29:55.366544 29877 net.cpp:91] Creating Layer loss1/conv
I0403 14:29:55.366562 29877 net.cpp:425] loss1/conv <- loss1/ave_pool
I0403 14:29:55.366587 29877 net.cpp:399] loss1/conv -> loss1/conv
I0403 14:29:58.383476 29877 net.cpp:141] Setting up loss1/conv
I0403 14:29:58.383570 29877 net.cpp:148] Top shape: 24 128 4 4 (49152)
I0403 14:29:58.383594 29877 net.cpp:156] Memory required for data: 945697824
I0403 14:29:58.383658 29877 layer_factory.hpp:77] Creating layer loss1/relu_conv
I0403 14:29:58.383689 29877 net.cpp:91] Creating Layer loss1/relu_conv
I0403 14:29:58.383713 29877 net.cpp:425] loss1/relu_conv <- loss1/conv
I0403 14:29:58.383739 29877 net.cpp:386] loss1/relu_conv -> loss1/conv (in-place)
I0403 14:29:58.384117 29877 net.cpp:141] Setting up loss1/relu_conv
I0403 14:29:58.384155 29877 net.cpp:148] Top shape: 24 128 4 4 (49152)
I0403 14:29:58.384174 29877 net.cpp:156] Memory required for data: 945894432
I0403 14:29:58.384196 29877 layer_factory.hpp:77] Creating layer loss1/fc
I0403 14:29:58.384229 29877 net.cpp:91] Creating Layer loss1/fc
I0403 14:29:58.384253 29877 net.cpp:425] loss1/fc <- loss1/conv
I0403 14:29:58.384279 29877 net.cpp:399] loss1/fc -> loss1/fc
I0403 14:29:58.412935 29877 net.cpp:141] Setting up loss1/fc
I0403 14:29:58.413028 29877 net.cpp:148] Top shape: 24 1024 (24576)
I0403 14:29:58.413049 29877 net.cpp:156] Memory required for data: 945992736
I0403 14:29:58.413076 29877 layer_factory.hpp:77] Creating layer loss1/relu_fc
I0403 14:29:58.413103 29877 net.cpp:91] Creating Layer loss1/relu_fc
I0403 14:29:58.413126 29877 net.cpp:425] loss1/relu_fc <- loss1/fc
I0403 14:29:58.413151 29877 net.cpp:386] loss1/relu_fc -> loss1/fc (in-place)
I0403 14:29:58.413460 29877 net.cpp:141] Setting up loss1/relu_fc
I0403 14:29:58.413494 29877 net.cpp:148] Top shape: 24 1024 (24576)
I0403 14:29:58.413514 29877 net.cpp:156] Memory required for data: 946091040
I0403 14:29:58.413535 29877 layer_factory.hpp:77] Creating layer loss1/drop_fc
I0403 14:29:58.413570 29877 net.cpp:91] Creating Layer loss1/drop_fc
I0403 14:29:58.413591 29877 net.cpp:425] loss1/drop_fc <- loss1/fc
I0403 14:29:58.413614 29877 net.cpp:386] loss1/drop_fc -> loss1/fc (in-place)
I0403 14:29:58.413689 29877 net.cpp:141] Setting up loss1/drop_fc
I0403 14:29:58.413719 29877 net.cpp:148] Top shape: 24 1024 (24576)
I0403 14:29:58.413738 29877 net.cpp:156] Memory required for data: 946189344
I0403 14:29:58.413758 29877 layer_factory.hpp:77] Creating layer loss1/classifier_plantvillage
I0403 14:29:58.413795 29877 net.cpp:91] Creating Layer loss1/classifier_plantvillage
I0403 14:29:58.413844 29877 net.cpp:425] loss1/classifier_plantvillage <- loss1/fc
I0403 14:29:58.413885 29877 net.cpp:399] loss1/classifier_plantvillage -> loss1/classifier_plantvillage
I0403 14:29:58.419296 29877 net.cpp:141] Setting up loss1/classifier_plantvillage
I0403 14:29:58.419414 29877 net.cpp:148] Top shape: 24 38 (912)
I0403 14:29:58.419437 29877 net.cpp:156] Memory required for data: 946192992
I0403 14:29:58.419466 29877 layer_factory.hpp:77] Creating layer loss1/classifier_plantvillage_loss1/classifier_plantvillage_0_split
I0403 14:29:58.419493 29877 net.cpp:91] Creating Layer loss1/classifier_plantvillage_loss1/classifier_plantvillage_0_split
I0403 14:29:58.419514 29877 net.cpp:425] loss1/classifier_plantvillage_loss1/classifier_plantvillage_0_split <- loss1/classifier_plantvillage
I0403 14:29:58.419541 29877 net.cpp:399] loss1/classifier_plantvillage_loss1/classifier_plantvillage_0_split -> loss1/classifier_plantvillage_loss1/classifier_plantvillage_0_split_0
I0403 14:29:58.419570 29877 net.cpp:399] loss1/classifier_plantvillage_loss1/classifier_plantvillage_0_split -> loss1/classifier_plantvillage_loss1/classifier_plantvillage_0_split_1
I0403 14:29:58.419600 29877 net.cpp:399] loss1/classifier_plantvillage_loss1/classifier_plantvillage_0_split -> loss1/classifier_plantvillage_loss1/classifier_plantvillage_0_split_2
I0403 14:29:58.419708 29877 net.cpp:141] Setting up loss1/classifier_plantvillage_loss1/classifier_plantvillage_0_split
I0403 14:29:58.419754 29877 net.cpp:148] Top shape: 24 38 (912)
I0403 14:29:58.419791 29877 net.cpp:148] Top shape: 24 38 (912)
I0403 14:29:58.419833 29877 net.cpp:148] Top shape: 24 38 (912)
I0403 14:29:58.419878 29877 net.cpp:156] Memory required for data: 946203936
I0403 14:29:58.419912 29877 layer_factory.hpp:77] Creating layer inception_4b/1x1
I0403 14:29:58.419955 29877 net.cpp:91] Creating Layer inception_4b/1x1
I0403 14:29:58.420027 29877 net.cpp:425] inception_4b/1x1 <- inception_4a/output_inception_4a/output_0_split_1
I0403 14:29:58.420058 29877 net.cpp:399] inception_4b/1x1 -> inception_4b/1x1
I0403 14:29:58.427232 29877 net.cpp:141] Setting up inception_4b/1x1
I0403 14:29:58.427335 29877 net.cpp:148] Top shape: 24 160 14 14 (752640)
I0403 14:29:58.427361 29877 net.cpp:156] Memory required for data: 949214496
I0403 14:29:58.427389 29877 layer_factory.hpp:77] Creating layer inception_4b/relu_1x1
I0403 14:29:58.427417 29877 net.cpp:91] Creating Layer inception_4b/relu_1x1
I0403 14:29:58.427440 29877 net.cpp:425] inception_4b/relu_1x1 <- inception_4b/1x1
I0403 14:29:58.427469 29877 net.cpp:386] inception_4b/relu_1x1 -> inception_4b/1x1 (in-place)
I0403 14:29:58.427700 29877 net.cpp:141] Setting up inception_4b/relu_1x1
I0403 14:29:58.427731 29877 net.cpp:148] Top shape: 24 160 14 14 (752640)
I0403 14:29:58.427748 29877 net.cpp:156] Memory required for data: 952225056
I0403 14:29:58.427767 29877 layer_factory.hpp:77] Creating layer inception_4b/3x3_reduce
I0403 14:29:58.427800 29877 net.cpp:91] Creating Layer inception_4b/3x3_reduce
I0403 14:29:58.427822 29877 net.cpp:425] inception_4b/3x3_reduce <- inception_4a/output_inception_4a/output_0_split_2
I0403 14:29:58.427852 29877 net.cpp:399] inception_4b/3x3_reduce -> inception_4b/3x3_reduce
I0403 14:29:58.434345 29877 net.cpp:141] Setting up inception_4b/3x3_reduce
I0403 14:29:58.434440 29877 net.cpp:148] Top shape: 24 112 14 14 (526848)
I0403 14:29:58.434461 29877 net.cpp:156] Memory required for data: 954332448
I0403 14:29:58.434489 29877 layer_factory.hpp:77] Creating layer inception_4b/relu_3x3_reduce
I0403 14:29:58.434522 29877 net.cpp:91] Creating Layer inception_4b/relu_3x3_reduce
I0403 14:29:58.434545 29877 net.cpp:425] inception_4b/relu_3x3_reduce <- inception_4b/3x3_reduce
I0403 14:29:58.434571 29877 net.cpp:386] inception_4b/relu_3x3_reduce -> inception_4b/3x3_reduce (in-place)
I0403 14:29:58.440558 29877 net.cpp:141] Setting up inception_4b/relu_3x3_reduce
I0403 14:29:58.440655 29877 net.cpp:148] Top shape: 24 112 14 14 (526848)
I0403 14:29:58.440676 29877 net.cpp:156] Memory required for data: 956439840
I0403 14:29:58.440698 29877 layer_factory.hpp:77] Creating layer inception_4b/3x3
I0403 14:29:58.440737 29877 net.cpp:91] Creating Layer inception_4b/3x3
I0403 14:29:58.440762 29877 net.cpp:425] inception_4b/3x3 <- inception_4b/3x3_reduce
I0403 14:29:58.440793 29877 net.cpp:399] inception_4b/3x3 -> inception_4b/3x3
I0403 14:29:58.456017 29877 net.cpp:141] Setting up inception_4b/3x3
I0403 14:29:58.456112 29877 net.cpp:148] Top shape: 24 224 14 14 (1053696)
I0403 14:29:58.456135 29877 net.cpp:156] Memory required for data: 960654624
I0403 14:29:58.456162 29877 layer_factory.hpp:77] Creating layer inception_4b/relu_3x3
I0403 14:29:58.456195 29877 net.cpp:91] Creating Layer inception_4b/relu_3x3
I0403 14:29:58.456219 29877 net.cpp:425] inception_4b/relu_3x3 <- inception_4b/3x3
I0403 14:29:58.456245 29877 net.cpp:386] inception_4b/relu_3x3 -> inception_4b/3x3 (in-place)
I0403 14:29:58.456485 29877 net.cpp:141] Setting up inception_4b/relu_3x3
I0403 14:29:58.456521 29877 net.cpp:148] Top shape: 24 224 14 14 (1053696)
I0403 14:29:58.456542 29877 net.cpp:156] Memory required for data: 964869408
I0403 14:29:58.456560 29877 layer_factory.hpp:77] Creating layer inception_4b/5x5_reduce
I0403 14:29:58.456593 29877 net.cpp:91] Creating Layer inception_4b/5x5_reduce
I0403 14:29:58.456616 29877 net.cpp:425] inception_4b/5x5_reduce <- inception_4a/output_inception_4a/output_0_split_3
I0403 14:29:58.456641 29877 net.cpp:399] inception_4b/5x5_reduce -> inception_4b/5x5_reduce
I0403 14:29:58.463285 29877 net.cpp:141] Setting up inception_4b/5x5_reduce
I0403 14:29:58.463400 29877 net.cpp:148] Top shape: 24 24 14 14 (112896)
I0403 14:29:58.463423 29877 net.cpp:156] Memory required for data: 965320992
I0403 14:29:58.463452 29877 layer_factory.hpp:77] Creating layer inception_4b/relu_5x5_reduce
I0403 14:29:58.463481 29877 net.cpp:91] Creating Layer inception_4b/relu_5x5_reduce
I0403 14:29:58.463546 29877 net.cpp:425] inception_4b/relu_5x5_reduce <- inception_4b/5x5_reduce
I0403 14:29:58.463574 29877 net.cpp:386] inception_4b/relu_5x5_reduce -> inception_4b/5x5_reduce (in-place)
I0403 14:29:58.463810 29877 net.cpp:141] Setting up inception_4b/relu_5x5_reduce
I0403 14:29:58.463843 29877 net.cpp:148] Top shape: 24 24 14 14 (112896)
I0403 14:29:58.463861 29877 net.cpp:156] Memory required for data: 965772576
I0403 14:29:58.463881 29877 layer_factory.hpp:77] Creating layer inception_4b/5x5
I0403 14:29:58.463915 29877 net.cpp:91] Creating Layer inception_4b/5x5
I0403 14:29:58.463937 29877 net.cpp:425] inception_4b/5x5 <- inception_4b/5x5_reduce
I0403 14:29:58.463963 29877 net.cpp:399] inception_4b/5x5 -> inception_4b/5x5
I0403 14:29:58.470481 29877 net.cpp:141] Setting up inception_4b/5x5
I0403 14:29:58.470580 29877 net.cpp:148] Top shape: 24 64 14 14 (301056)
I0403 14:29:58.470602 29877 net.cpp:156] Memory required for data: 966976800
I0403 14:29:58.470640 29877 layer_factory.hpp:77] Creating layer inception_4b/relu_5x5
I0403 14:29:58.470669 29877 net.cpp:91] Creating Layer inception_4b/relu_5x5
I0403 14:29:58.470691 29877 net.cpp:425] inception_4b/relu_5x5 <- inception_4b/5x5
I0403 14:29:58.470721 29877 net.cpp:386] inception_4b/relu_5x5 -> inception_4b/5x5 (in-place)
I0403 14:29:58.476215 29877 net.cpp:141] Setting up inception_4b/relu_5x5
I0403 14:29:58.476339 29877 net.cpp:148] Top shape: 24 64 14 14 (301056)
I0403 14:29:58.476366 29877 net.cpp:156] Memory required for data: 968181024
I0403 14:29:58.476389 29877 layer_factory.hpp:77] Creating layer inception_4b/pool
I0403 14:29:58.476420 29877 net.cpp:91] Creating Layer inception_4b/pool
I0403 14:29:58.476444 29877 net.cpp:425] inception_4b/pool <- inception_4a/output_inception_4a/output_0_split_4
I0403 14:29:58.476475 29877 net.cpp:399] inception_4b/pool -> inception_4b/pool
I0403 14:29:58.476590 29877 net.cpp:141] Setting up inception_4b/pool
I0403 14:29:58.476621 29877 net.cpp:148] Top shape: 24 512 14 14 (2408448)
I0403 14:29:58.476640 29877 net.cpp:156] Memory required for data: 977814816
I0403 14:29:58.476658 29877 layer_factory.hpp:77] Creating layer inception_4b/pool_proj
I0403 14:29:58.476693 29877 net.cpp:91] Creating Layer inception_4b/pool_proj
I0403 14:29:58.476716 29877 net.cpp:425] inception_4b/pool_proj <- inception_4b/pool
I0403 14:29:58.476738 29877 net.cpp:399] inception_4b/pool_proj -> inception_4b/pool_proj
I0403 14:29:58.484005 29877 net.cpp:141] Setting up inception_4b/pool_proj
I0403 14:29:58.484102 29877 net.cpp:148] Top shape: 24 64 14 14 (301056)
I0403 14:29:58.484124 29877 net.cpp:156] Memory required for data: 979019040
I0403 14:29:58.484154 29877 layer_factory.hpp:77] Creating layer inception_4b/relu_pool_proj
I0403 14:29:58.484182 29877 net.cpp:91] Creating Layer inception_4b/relu_pool_proj
I0403 14:29:58.484205 29877 net.cpp:425] inception_4b/relu_pool_proj <- inception_4b/pool_proj
I0403 14:29:58.484236 29877 net.cpp:386] inception_4b/relu_pool_proj -> inception_4b/pool_proj (in-place)
I0403 14:29:58.484488 29877 net.cpp:141] Setting up inception_4b/relu_pool_proj
I0403 14:29:58.484519 29877 net.cpp:148] Top shape: 24 64 14 14 (301056)
I0403 14:29:58.484539 29877 net.cpp:156] Memory required for data: 980223264
I0403 14:29:58.484557 29877 layer_factory.hpp:77] Creating layer inception_4b/output
I0403 14:29:58.484583 29877 net.cpp:91] Creating Layer inception_4b/output
I0403 14:29:58.484604 29877 net.cpp:425] inception_4b/output <- inception_4b/1x1
I0403 14:29:58.484637 29877 net.cpp:425] inception_4b/output <- inception_4b/3x3
I0403 14:29:58.484658 29877 net.cpp:425] inception_4b/output <- inception_4b/5x5
I0403 14:29:58.484679 29877 net.cpp:425] inception_4b/output <- inception_4b/pool_proj
I0403 14:29:58.484701 29877 net.cpp:399] inception_4b/output -> inception_4b/output
I0403 14:29:58.484762 29877 net.cpp:141] Setting up inception_4b/output
I0403 14:29:58.484796 29877 net.cpp:148] Top shape: 24 512 14 14 (2408448)
I0403 14:29:58.484815 29877 net.cpp:156] Memory required for data: 989857056
I0403 14:29:58.484872 29877 layer_factory.hpp:77] Creating layer inception_4b/output_inception_4b/output_0_split
I0403 14:29:58.484895 29877 net.cpp:91] Creating Layer inception_4b/output_inception_4b/output_0_split
I0403 14:29:58.484915 29877 net.cpp:425] inception_4b/output_inception_4b/output_0_split <- inception_4b/output
I0403 14:29:58.484941 29877 net.cpp:399] inception_4b/output_inception_4b/output_0_split -> inception_4b/output_inception_4b/output_0_split_0
I0403 14:29:58.484967 29877 net.cpp:399] inception_4b/output_inception_4b/output_0_split -> inception_4b/output_inception_4b/output_0_split_1
I0403 14:29:58.484993 29877 net.cpp:399] inception_4b/output_inception_4b/output_0_split -> inception_4b/output_inception_4b/output_0_split_2
I0403 14:29:58.485019 29877 net.cpp:399] inception_4b/output_inception_4b/output_0_split -> inception_4b/output_inception_4b/output_0_split_3
I0403 14:29:58.485121 29877 net.cpp:141] Setting up inception_4b/output_inception_4b/output_0_split
I0403 14:29:58.485154 29877 net.cpp:148] Top shape: 24 512 14 14 (2408448)
I0403 14:29:58.485177 29877 net.cpp:148] Top shape: 24 512 14 14 (2408448)
I0403 14:29:58.485196 29877 net.cpp:148] Top shape: 24 512 14 14 (2408448)
I0403 14:29:58.485215 29877 net.cpp:148] Top shape: 24 512 14 14 (2408448)
I0403 14:29:58.485234 29877 net.cpp:156] Memory required for data: 1028392224
I0403 14:29:58.485252 29877 layer_factory.hpp:77] Creating layer inception_4c/1x1
I0403 14:29:58.485286 29877 net.cpp:91] Creating Layer inception_4c/1x1
I0403 14:29:58.485349 29877 net.cpp:425] inception_4c/1x1 <- inception_4b/output_inception_4b/output_0_split_0
I0403 14:29:58.485389 29877 net.cpp:399] inception_4c/1x1 -> inception_4c/1x1
I0403 14:29:58.491832 29877 net.cpp:141] Setting up inception_4c/1x1
I0403 14:29:58.491927 29877 net.cpp:148] Top shape: 24 128 14 14 (602112)
I0403 14:29:58.491950 29877 net.cpp:156] Memory required for data: 1030800672
I0403 14:29:58.491979 29877 layer_factory.hpp:77] Creating layer inception_4c/relu_1x1
I0403 14:29:58.492012 29877 net.cpp:91] Creating Layer inception_4c/relu_1x1
I0403 14:29:58.492035 29877 net.cpp:425] inception_4c/relu_1x1 <- inception_4c/1x1
I0403 14:29:58.492060 29877 net.cpp:386] inception_4c/relu_1x1 -> inception_4c/1x1 (in-place)
I0403 14:29:58.492295 29877 net.cpp:141] Setting up inception_4c/relu_1x1
I0403 14:29:58.492336 29877 net.cpp:148] Top shape: 24 128 14 14 (602112)
I0403 14:29:58.492391 29877 net.cpp:156] Memory required for data: 1033209120
I0403 14:29:58.492413 29877 layer_factory.hpp:77] Creating layer inception_4c/3x3_reduce
I0403 14:29:58.492473 29877 net.cpp:91] Creating Layer inception_4c/3x3_reduce
I0403 14:29:58.492537 29877 net.cpp:425] inception_4c/3x3_reduce <- inception_4b/output_inception_4b/output_0_split_1
I0403 14:29:58.492561 29877 net.cpp:399] inception_4c/3x3_reduce -> inception_4c/3x3_reduce
I0403 14:29:58.499732 29877 net.cpp:141] Setting up inception_4c/3x3_reduce
I0403 14:29:58.499822 29877 net.cpp:148] Top shape: 24 128 14 14 (602112)
I0403 14:29:58.499845 29877 net.cpp:156] Memory required for data: 1035617568
I0403 14:29:58.499873 29877 layer_factory.hpp:77] Creating layer inception_4c/relu_3x3_reduce
I0403 14:29:58.499902 29877 net.cpp:91] Creating Layer inception_4c/relu_3x3_reduce
I0403 14:29:58.499924 29877 net.cpp:425] inception_4c/relu_3x3_reduce <- inception_4c/3x3_reduce
I0403 14:29:58.499951 29877 net.cpp:386] inception_4c/relu_3x3_reduce -> inception_4c/3x3_reduce (in-place)
I0403 14:29:58.505190 29877 net.cpp:141] Setting up inception_4c/relu_3x3_reduce
I0403 14:29:58.505282 29877 net.cpp:148] Top shape: 24 128 14 14 (602112)
I0403 14:29:58.505302 29877 net.cpp:156] Memory required for data: 1038026016
I0403 14:29:58.505344 29877 layer_factory.hpp:77] Creating layer inception_4c/3x3
I0403 14:29:58.505389 29877 net.cpp:91] Creating Layer inception_4c/3x3
I0403 14:29:58.505415 29877 net.cpp:425] inception_4c/3x3 <- inception_4c/3x3_reduce
I0403 14:29:58.505444 29877 net.cpp:399] inception_4c/3x3 -> inception_4c/3x3
I0403 14:29:58.516965 29877 net.cpp:141] Setting up inception_4c/3x3
I0403 14:29:58.517092 29877 net.cpp:148] Top shape: 24 256 14 14 (1204224)
I0403 14:29:58.517113 29877 net.cpp:156] Memory required for data: 1042842912
I0403 14:29:58.517164 29877 layer_factory.hpp:77] Creating layer inception_4c/relu_3x3
I0403 14:29:58.517197 29877 net.cpp:91] Creating Layer inception_4c/relu_3x3
I0403 14:29:58.517221 29877 net.cpp:425] inception_4c/relu_3x3 <- inception_4c/3x3
I0403 14:29:58.517246 29877 net.cpp:386] inception_4c/relu_3x3 -> inception_4c/3x3 (in-place)
I0403 14:29:58.517509 29877 net.cpp:141] Setting up inception_4c/relu_3x3
I0403 14:29:58.517542 29877 net.cpp:148] Top shape: 24 256 14 14 (1204224)
I0403 14:29:58.517561 29877 net.cpp:156] Memory required for data: 1047659808
I0403 14:29:58.517582 29877 layer_factory.hpp:77] Creating layer inception_4c/5x5_reduce
I0403 14:29:58.517617 29877 net.cpp:91] Creating Layer inception_4c/5x5_reduce
I0403 14:29:58.517642 29877 net.cpp:425] inception_4c/5x5_reduce <- inception_4b/output_inception_4b/output_0_split_2
I0403 14:29:58.517668 29877 net.cpp:399] inception_4c/5x5_reduce -> inception_4c/5x5_reduce
I0403 14:29:58.519060 29877 net.cpp:141] Setting up inception_4c/5x5_reduce
I0403 14:29:58.519099 29877 net.cpp:148] Top shape: 24 24 14 14 (112896)
I0403 14:29:58.519119 29877 net.cpp:156] Memory required for data: 1048111392
I0403 14:29:58.519143 29877 layer_factory.hpp:77] Creating layer inception_4c/relu_5x5_reduce
I0403 14:29:58.519166 29877 net.cpp:91] Creating Layer inception_4c/relu_5x5_reduce
I0403 14:29:58.519186 29877 net.cpp:425] inception_4c/relu_5x5_reduce <- inception_4c/5x5_reduce
I0403 14:29:58.519210 29877 net.cpp:386] inception_4c/relu_5x5_reduce -> inception_4c/5x5_reduce (in-place)
I0403 14:29:58.519440 29877 net.cpp:141] Setting up inception_4c/relu_5x5_reduce
I0403 14:29:58.519472 29877 net.cpp:148] Top shape: 24 24 14 14 (112896)
I0403 14:29:58.519491 29877 net.cpp:156] Memory required for data: 1048562976
I0403 14:29:58.519510 29877 layer_factory.hpp:77] Creating layer inception_4c/5x5
I0403 14:29:58.519538 29877 net.cpp:91] Creating Layer inception_4c/5x5
I0403 14:29:58.519561 29877 net.cpp:425] inception_4c/5x5 <- inception_4c/5x5_reduce
I0403 14:29:58.519587 29877 net.cpp:399] inception_4c/5x5 -> inception_4c/5x5
I0403 14:29:58.521127 29877 net.cpp:141] Setting up inception_4c/5x5
I0403 14:29:58.521162 29877 net.cpp:148] Top shape: 24 64 14 14 (301056)
I0403 14:29:58.521181 29877 net.cpp:156] Memory required for data: 1049767200
I0403 14:29:58.521203 29877 layer_factory.hpp:77] Creating layer inception_4c/relu_5x5
I0403 14:29:58.521230 29877 net.cpp:91] Creating Layer inception_4c/relu_5x5
I0403 14:29:58.521251 29877 net.cpp:425] inception_4c/relu_5x5 <- inception_4c/5x5
I0403 14:29:58.521273 29877 net.cpp:386] inception_4c/relu_5x5 -> inception_4c/5x5 (in-place)
I0403 14:29:58.521630 29877 net.cpp:141] Setting up inception_4c/relu_5x5
I0403 14:29:58.521661 29877 net.cpp:148] Top shape: 24 64 14 14 (301056)
I0403 14:29:58.521680 29877 net.cpp:156] Memory required for data: 1050971424
I0403 14:29:58.521699 29877 layer_factory.hpp:77] Creating layer inception_4c/pool
I0403 14:29:58.521726 29877 net.cpp:91] Creating Layer inception_4c/pool
I0403 14:29:58.521747 29877 net.cpp:425] inception_4c/pool <- inception_4b/output_inception_4b/output_0_split_3
I0403 14:29:58.521770 29877 net.cpp:399] inception_4c/pool -> inception_4c/pool
I0403 14:29:58.521853 29877 net.cpp:141] Setting up inception_4c/pool
I0403 14:29:58.521883 29877 net.cpp:148] Top shape: 24 512 14 14 (2408448)
I0403 14:29:58.521901 29877 net.cpp:156] Memory required for data: 1060605216
I0403 14:29:58.521919 29877 layer_factory.hpp:77] Creating layer inception_4c/pool_proj
I0403 14:29:58.521947 29877 net.cpp:91] Creating Layer inception_4c/pool_proj
I0403 14:29:58.521970 29877 net.cpp:425] inception_4c/pool_proj <- inception_4c/pool
I0403 14:29:58.521996 29877 net.cpp:399] inception_4c/pool_proj -> inception_4c/pool_proj
I0403 14:29:58.523535 29877 net.cpp:141] Setting up inception_4c/pool_proj
I0403 14:29:58.523571 29877 net.cpp:148] Top shape: 24 64 14 14 (301056)
I0403 14:29:58.523615 29877 net.cpp:156] Memory required for data: 1061809440
I0403 14:29:58.523640 29877 layer_factory.hpp:77] Creating layer inception_4c/relu_pool_proj
I0403 14:29:58.523663 29877 net.cpp:91] Creating Layer inception_4c/relu_pool_proj
I0403 14:29:58.523706 29877 net.cpp:425] inception_4c/relu_pool_proj <- inception_4c/pool_proj
I0403 14:29:58.523758 29877 net.cpp:386] inception_4c/relu_pool_proj -> inception_4c/pool_proj (in-place)
I0403 14:29:58.523982 29877 net.cpp:141] Setting up inception_4c/relu_pool_proj
I0403 14:29:58.524013 29877 net.cpp:148] Top shape: 24 64 14 14 (301056)
I0403 14:29:58.524031 29877 net.cpp:156] Memory required for data: 1063013664
I0403 14:29:58.524050 29877 layer_factory.hpp:77] Creating layer inception_4c/output
I0403 14:29:58.524072 29877 net.cpp:91] Creating Layer inception_4c/output
I0403 14:29:58.524096 29877 net.cpp:425] inception_4c/output <- inception_4c/1x1
I0403 14:29:58.524117 29877 net.cpp:425] inception_4c/output <- inception_4c/3x3
I0403 14:29:58.524138 29877 net.cpp:425] inception_4c/output <- inception_4c/5x5
I0403 14:29:58.524158 29877 net.cpp:425] inception_4c/output <- inception_4c/pool_proj
I0403 14:29:58.524179 29877 net.cpp:399] inception_4c/output -> inception_4c/output
I0403 14:29:58.524237 29877 net.cpp:141] Setting up inception_4c/output
I0403 14:29:58.524271 29877 net.cpp:148] Top shape: 24 512 14 14 (2408448)
I0403 14:29:58.524289 29877 net.cpp:156] Memory required for data: 1072647456
I0403 14:29:58.524308 29877 layer_factory.hpp:77] Creating layer inception_4c/output_inception_4c/output_0_split
I0403 14:29:58.524335 29877 net.cpp:91] Creating Layer inception_4c/output_inception_4c/output_0_split
I0403 14:29:58.524356 29877 net.cpp:425] inception_4c/output_inception_4c/output_0_split <- inception_4c/output
I0403 14:29:58.524381 29877 net.cpp:399] inception_4c/output_inception_4c/output_0_split -> inception_4c/output_inception_4c/output_0_split_0
I0403 14:29:58.524407 29877 net.cpp:399] inception_4c/output_inception_4c/output_0_split -> inception_4c/output_inception_4c/output_0_split_1
I0403 14:29:58.524433 29877 net.cpp:399] inception_4c/output_inception_4c/output_0_split -> inception_4c/output_inception_4c/output_0_split_2
I0403 14:29:58.524458 29877 net.cpp:399] inception_4c/output_inception_4c/output_0_split -> inception_4c/output_inception_4c/output_0_split_3
I0403 14:29:58.524572 29877 net.cpp:141] Setting up inception_4c/output_inception_4c/output_0_split
I0403 14:29:58.524608 29877 net.cpp:148] Top shape: 24 512 14 14 (2408448)
I0403 14:29:58.524631 29877 net.cpp:148] Top shape: 24 512 14 14 (2408448)
I0403 14:29:58.524652 29877 net.cpp:148] Top shape: 24 512 14 14 (2408448)
I0403 14:29:58.524670 29877 net.cpp:148] Top shape: 24 512 14 14 (2408448)
I0403 14:29:58.524688 29877 net.cpp:156] Memory required for data: 1111182624
I0403 14:29:58.524706 29877 layer_factory.hpp:77] Creating layer inception_4d/1x1
I0403 14:29:58.524734 29877 net.cpp:91] Creating Layer inception_4d/1x1
I0403 14:29:58.524756 29877 net.cpp:425] inception_4d/1x1 <- inception_4c/output_inception_4c/output_0_split_0
I0403 14:29:58.524780 29877 net.cpp:399] inception_4d/1x1 -> inception_4d/1x1
I0403 14:29:58.526496 29877 net.cpp:141] Setting up inception_4d/1x1
I0403 14:29:58.526535 29877 net.cpp:148] Top shape: 24 112 14 14 (526848)
I0403 14:29:58.526556 29877 net.cpp:156] Memory required for data: 1113290016
I0403 14:29:58.526579 29877 layer_factory.hpp:77] Creating layer inception_4d/relu_1x1
I0403 14:29:58.526602 29877 net.cpp:91] Creating Layer inception_4d/relu_1x1
I0403 14:29:58.526623 29877 net.cpp:425] inception_4d/relu_1x1 <- inception_4d/1x1
I0403 14:29:58.526643 29877 net.cpp:386] inception_4d/relu_1x1 -> inception_4d/1x1 (in-place)
I0403 14:29:58.526868 29877 net.cpp:141] Setting up inception_4d/relu_1x1
I0403 14:29:58.526921 29877 net.cpp:148] Top shape: 24 112 14 14 (526848)
I0403 14:29:58.526940 29877 net.cpp:156] Memory required for data: 1115397408
I0403 14:29:58.526959 29877 layer_factory.hpp:77] Creating layer inception_4d/3x3_reduce
I0403 14:29:58.527005 29877 net.cpp:91] Creating Layer inception_4d/3x3_reduce
I0403 14:29:58.527029 29877 net.cpp:425] inception_4d/3x3_reduce <- inception_4c/output_inception_4c/output_0_split_1
I0403 14:29:58.527053 29877 net.cpp:399] inception_4d/3x3_reduce -> inception_4d/3x3_reduce
I0403 14:29:58.528903 29877 net.cpp:141] Setting up inception_4d/3x3_reduce
I0403 14:29:58.528939 29877 net.cpp:148] Top shape: 24 144 14 14 (677376)
I0403 14:29:58.528959 29877 net.cpp:156] Memory required for data: 1118106912
I0403 14:29:58.528982 29877 layer_factory.hpp:77] Creating layer inception_4d/relu_3x3_reduce
I0403 14:29:58.529009 29877 net.cpp:91] Creating Layer inception_4d/relu_3x3_reduce
I0403 14:29:58.529032 29877 net.cpp:425] inception_4d/relu_3x3_reduce <- inception_4d/3x3_reduce
I0403 14:29:58.529054 29877 net.cpp:386] inception_4d/relu_3x3_reduce -> inception_4d/3x3_reduce (in-place)
I0403 14:29:58.529412 29877 net.cpp:141] Setting up inception_4d/relu_3x3_reduce
I0403 14:29:58.529444 29877 net.cpp:148] Top shape: 24 144 14 14 (677376)
I0403 14:29:58.529464 29877 net.cpp:156] Memory required for data: 1120816416
I0403 14:29:58.529484 29877 layer_factory.hpp:77] Creating layer inception_4d/3x3
I0403 14:29:58.529520 29877 net.cpp:91] Creating Layer inception_4d/3x3
I0403 14:29:58.529544 29877 net.cpp:425] inception_4d/3x3 <- inception_4d/3x3_reduce
I0403 14:29:58.529572 29877 net.cpp:399] inception_4d/3x3 -> inception_4d/3x3
I0403 14:29:58.534871 29877 net.cpp:141] Setting up inception_4d/3x3
I0403 14:29:58.534919 29877 net.cpp:148] Top shape: 24 288 14 14 (1354752)
I0403 14:29:58.534966 29877 net.cpp:156] Memory required for data: 1126235424
I0403 14:29:58.535023 29877 layer_factory.hpp:77] Creating layer inception_4d/relu_3x3
I0403 14:29:58.535065 29877 net.cpp:91] Creating Layer inception_4d/relu_3x3
I0403 14:29:58.535086 29877 net.cpp:425] inception_4d/relu_3x3 <- inception_4d/3x3
I0403 14:29:58.535109 29877 net.cpp:386] inception_4d/relu_3x3 -> inception_4d/3x3 (in-place)
I0403 14:29:58.535341 29877 net.cpp:141] Setting up inception_4d/relu_3x3
I0403 14:29:58.535373 29877 net.cpp:148] Top shape: 24 288 14 14 (1354752)
I0403 14:29:58.535392 29877 net.cpp:156] Memory required for data: 1131654432
I0403 14:29:58.535410 29877 layer_factory.hpp:77] Creating layer inception_4d/5x5_reduce
I0403 14:29:58.535437 29877 net.cpp:91] Creating Layer inception_4d/5x5_reduce
I0403 14:29:58.535460 29877 net.cpp:425] inception_4d/5x5_reduce <- inception_4c/output_inception_4c/output_0_split_2
I0403 14:29:58.535487 29877 net.cpp:399] inception_4d/5x5_reduce -> inception_4d/5x5_reduce
I0403 14:29:58.536896 29877 net.cpp:141] Setting up inception_4d/5x5_reduce
I0403 14:29:58.536939 29877 net.cpp:148] Top shape: 24 32 14 14 (150528)
I0403 14:29:58.536960 29877 net.cpp:156] Memory required for data: 1132256544
I0403 14:29:58.536984 29877 layer_factory.hpp:77] Creating layer inception_4d/relu_5x5_reduce
I0403 14:29:58.537006 29877 net.cpp:91] Creating Layer inception_4d/relu_5x5_reduce
I0403 14:29:58.537026 29877 net.cpp:425] inception_4d/relu_5x5_reduce <- inception_4d/5x5_reduce
I0403 14:29:58.537048 29877 net.cpp:386] inception_4d/relu_5x5_reduce -> inception_4d/5x5_reduce (in-place)
I0403 14:29:58.537293 29877 net.cpp:141] Setting up inception_4d/relu_5x5_reduce
I0403 14:29:58.537329 29877 net.cpp:148] Top shape: 24 32 14 14 (150528)
I0403 14:29:58.537349 29877 net.cpp:156] Memory required for data: 1132858656
I0403 14:29:58.537367 29877 layer_factory.hpp:77] Creating layer inception_4d/5x5
I0403 14:29:58.537401 29877 net.cpp:91] Creating Layer inception_4d/5x5
I0403 14:29:58.537425 29877 net.cpp:425] inception_4d/5x5 <- inception_4d/5x5_reduce
I0403 14:29:58.537451 29877 net.cpp:399] inception_4d/5x5 -> inception_4d/5x5
I0403 14:29:58.539260 29877 net.cpp:141] Setting up inception_4d/5x5
I0403 14:29:58.539295 29877 net.cpp:148] Top shape: 24 64 14 14 (301056)
I0403 14:29:58.539319 29877 net.cpp:156] Memory required for data: 1134062880
I0403 14:29:58.539346 29877 layer_factory.hpp:77] Creating layer inception_4d/relu_5x5
I0403 14:29:58.539397 29877 net.cpp:91] Creating Layer inception_4d/relu_5x5
I0403 14:29:58.539422 29877 net.cpp:425] inception_4d/relu_5x5 <- inception_4d/5x5
I0403 14:29:58.539444 29877 net.cpp:386] inception_4d/relu_5x5 -> inception_4d/5x5 (in-place)
I0403 14:29:58.539801 29877 net.cpp:141] Setting up inception_4d/relu_5x5
I0403 14:29:58.539836 29877 net.cpp:148] Top shape: 24 64 14 14 (301056)
I0403 14:29:58.539855 29877 net.cpp:156] Memory required for data: 1135267104
I0403 14:29:58.539875 29877 layer_factory.hpp:77] Creating layer inception_4d/pool
I0403 14:29:58.539899 29877 net.cpp:91] Creating Layer inception_4d/pool
I0403 14:29:58.539919 29877 net.cpp:425] inception_4d/pool <- inception_4c/output_inception_4c/output_0_split_3
I0403 14:29:58.539945 29877 net.cpp:399] inception_4d/pool -> inception_4d/pool
I0403 14:29:58.540030 29877 net.cpp:141] Setting up inception_4d/pool
I0403 14:29:58.540073 29877 net.cpp:148] Top shape: 24 512 14 14 (2408448)
I0403 14:29:58.540127 29877 net.cpp:156] Memory required for data: 1144900896
I0403 14:29:58.540148 29877 layer_factory.hpp:77] Creating layer inception_4d/pool_proj
I0403 14:29:58.540176 29877 net.cpp:91] Creating Layer inception_4d/pool_proj
I0403 14:29:58.540197 29877 net.cpp:425] inception_4d/pool_proj <- inception_4d/pool
I0403 14:29:58.540222 29877 net.cpp:399] inception_4d/pool_proj -> inception_4d/pool_proj
I0403 14:29:58.542368 29877 net.cpp:141] Setting up inception_4d/pool_proj
I0403 14:29:58.542407 29877 net.cpp:148] Top shape: 24 64 14 14 (301056)
I0403 14:29:58.542428 29877 net.cpp:156] Memory required for data: 1146105120
I0403 14:29:58.542453 29877 layer_factory.hpp:77] Creating layer inception_4d/relu_pool_proj
I0403 14:29:58.542475 29877 net.cpp:91] Creating Layer inception_4d/relu_pool_proj
I0403 14:29:58.542495 29877 net.cpp:425] inception_4d/relu_pool_proj <- inception_4d/pool_proj
I0403 14:29:58.542520 29877 net.cpp:386] inception_4d/relu_pool_proj -> inception_4d/pool_proj (in-place)
I0403 14:29:58.542747 29877 net.cpp:141] Setting up inception_4d/relu_pool_proj
I0403 14:29:58.542778 29877 net.cpp:148] Top shape: 24 64 14 14 (301056)
I0403 14:29:58.542796 29877 net.cpp:156] Memory required for data: 1147309344
I0403 14:29:58.542815 29877 layer_factory.hpp:77] Creating layer inception_4d/output
I0403 14:29:58.542839 29877 net.cpp:91] Creating Layer inception_4d/output
I0403 14:29:58.542857 29877 net.cpp:425] inception_4d/output <- inception_4d/1x1
I0403 14:29:58.542879 29877 net.cpp:425] inception_4d/output <- inception_4d/3x3
I0403 14:29:58.542899 29877 net.cpp:425] inception_4d/output <- inception_4d/5x5
I0403 14:29:58.542919 29877 net.cpp:425] inception_4d/output <- inception_4d/pool_proj
I0403 14:29:58.542944 29877 net.cpp:399] inception_4d/output -> inception_4d/output
I0403 14:29:58.543004 29877 net.cpp:141] Setting up inception_4d/output
I0403 14:29:58.543036 29877 net.cpp:148] Top shape: 24 528 14 14 (2483712)
I0403 14:29:58.543056 29877 net.cpp:156] Memory required for data: 1157244192
I0403 14:29:58.543074 29877 layer_factory.hpp:77] Creating layer inception_4d/output_inception_4d/output_0_split
I0403 14:29:58.543097 29877 net.cpp:91] Creating Layer inception_4d/output_inception_4d/output_0_split
I0403 14:29:58.543117 29877 net.cpp:425] inception_4d/output_inception_4d/output_0_split <- inception_4d/output
I0403 14:29:58.543138 29877 net.cpp:399] inception_4d/output_inception_4d/output_0_split -> inception_4d/output_inception_4d/output_0_split_0
I0403 14:29:58.543167 29877 net.cpp:399] inception_4d/output_inception_4d/output_0_split -> inception_4d/output_inception_4d/output_0_split_1
I0403 14:29:58.543195 29877 net.cpp:399] inception_4d/output_inception_4d/output_0_split -> inception_4d/output_inception_4d/output_0_split_2
I0403 14:29:58.543222 29877 net.cpp:399] inception_4d/output_inception_4d/output_0_split -> inception_4d/output_inception_4d/output_0_split_3
I0403 14:29:58.543246 29877 net.cpp:399] inception_4d/output_inception_4d/output_0_split -> inception_4d/output_inception_4d/output_0_split_4
I0403 14:29:58.543381 29877 net.cpp:141] Setting up inception_4d/output_inception_4d/output_0_split
I0403 14:29:58.543434 29877 net.cpp:148] Top shape: 24 528 14 14 (2483712)
I0403 14:29:58.543457 29877 net.cpp:148] Top shape: 24 528 14 14 (2483712)
I0403 14:29:58.543481 29877 net.cpp:148] Top shape: 24 528 14 14 (2483712)
I0403 14:29:58.543503 29877 net.cpp:148] Top shape: 24 528 14 14 (2483712)
I0403 14:29:58.543529 29877 net.cpp:148] Top shape: 24 528 14 14 (2483712)
I0403 14:29:58.543546 29877 net.cpp:156] Memory required for data: 1206918432
I0403 14:29:58.543565 29877 layer_factory.hpp:77] Creating layer loss2/ave_pool
I0403 14:29:58.543587 29877 net.cpp:91] Creating Layer loss2/ave_pool
I0403 14:29:58.543608 29877 net.cpp:425] loss2/ave_pool <- inception_4d/output_inception_4d/output_0_split_0
I0403 14:29:58.543632 29877 net.cpp:399] loss2/ave_pool -> loss2/ave_pool
I0403 14:29:58.544040 29877 net.cpp:141] Setting up loss2/ave_pool
I0403 14:29:58.544075 29877 net.cpp:148] Top shape: 24 528 4 4 (202752)
I0403 14:29:58.544096 29877 net.cpp:156] Memory required for data: 1207729440
I0403 14:29:58.544116 29877 layer_factory.hpp:77] Creating layer loss2/conv
I0403 14:29:58.544143 29877 net.cpp:91] Creating Layer loss2/conv
I0403 14:29:58.544165 29877 net.cpp:425] loss2/conv <- loss2/ave_pool
I0403 14:29:58.544188 29877 net.cpp:399] loss2/conv -> loss2/conv
I0403 14:29:58.546514 29877 net.cpp:141] Setting up loss2/conv
I0403 14:29:58.546552 29877 net.cpp:148] Top shape: 24 128 4 4 (49152)
I0403 14:29:58.546571 29877 net.cpp:156] Memory required for data: 1207926048
I0403 14:29:58.546596 29877 layer_factory.hpp:77] Creating layer loss2/relu_conv
I0403 14:29:58.546617 29877 net.cpp:91] Creating Layer loss2/relu_conv
I0403 14:29:58.546638 29877 net.cpp:425] loss2/relu_conv <- loss2/conv
I0403 14:29:58.546661 29877 net.cpp:386] loss2/relu_conv -> loss2/conv (in-place)
I0403 14:29:58.547004 29877 net.cpp:141] Setting up loss2/relu_conv
I0403 14:29:58.547037 29877 net.cpp:148] Top shape: 24 128 4 4 (49152)
I0403 14:29:58.547056 29877 net.cpp:156] Memory required for data: 1208122656
I0403 14:29:58.547075 29877 layer_factory.hpp:77] Creating layer loss2/fc
I0403 14:29:58.547099 29877 net.cpp:91] Creating Layer loss2/fc
I0403 14:29:58.547118 29877 net.cpp:425] loss2/fc <- loss2/conv
I0403 14:29:58.547144 29877 net.cpp:399] loss2/fc -> loss2/fc
I0403 14:29:58.569098 29877 net.cpp:141] Setting up loss2/fc
I0403 14:29:58.569182 29877 net.cpp:148] Top shape: 24 1024 (24576)
I0403 14:29:58.569202 29877 net.cpp:156] Memory required for data: 1208220960
I0403 14:29:58.569228 29877 layer_factory.hpp:77] Creating layer loss2/relu_fc
I0403 14:29:58.569255 29877 net.cpp:91] Creating Layer loss2/relu_fc
I0403 14:29:58.569278 29877 net.cpp:425] loss2/relu_fc <- loss2/fc
I0403 14:29:58.569301 29877 net.cpp:386] loss2/relu_fc -> loss2/fc (in-place)
I0403 14:29:58.569771 29877 net.cpp:141] Setting up loss2/relu_fc
I0403 14:29:58.569805 29877 net.cpp:148] Top shape: 24 1024 (24576)
I0403 14:29:58.569824 29877 net.cpp:156] Memory required for data: 1208319264
I0403 14:29:58.569844 29877 layer_factory.hpp:77] Creating layer loss2/drop_fc
I0403 14:29:58.569867 29877 net.cpp:91] Creating Layer loss2/drop_fc
I0403 14:29:58.569886 29877 net.cpp:425] loss2/drop_fc <- loss2/fc
I0403 14:29:58.569910 29877 net.cpp:386] loss2/drop_fc -> loss2/fc (in-place)
I0403 14:29:58.569978 29877 net.cpp:141] Setting up loss2/drop_fc
I0403 14:29:58.570008 29877 net.cpp:148] Top shape: 24 1024 (24576)
I0403 14:29:58.570026 29877 net.cpp:156] Memory required for data: 1208417568
I0403 14:29:58.570045 29877 layer_factory.hpp:77] Creating layer loss2/classifier_plantvillage
I0403 14:29:58.570072 29877 net.cpp:91] Creating Layer loss2/classifier_plantvillage
I0403 14:29:58.570094 29877 net.cpp:425] loss2/classifier_plantvillage <- loss2/fc
I0403 14:29:58.570117 29877 net.cpp:399] loss2/classifier_plantvillage -> loss2/classifier_plantvillage
I0403 14:29:58.570632 29877 net.cpp:141] Setting up loss2/classifier_plantvillage
I0403 14:29:58.570664 29877 net.cpp:148] Top shape: 24 38 (912)
I0403 14:29:58.570683 29877 net.cpp:156] Memory required for data: 1208421216
I0403 14:29:58.570744 29877 layer_factory.hpp:77] Creating layer loss2/classifier_plantvillage_loss2/classifier_plantvillage_0_split
I0403 14:29:58.570768 29877 net.cpp:91] Creating Layer loss2/classifier_plantvillage_loss2/classifier_plantvillage_0_split
I0403 14:29:58.570790 29877 net.cpp:425] loss2/classifier_plantvillage_loss2/classifier_plantvillage_0_split <- loss2/classifier_plantvillage
I0403 14:29:58.570814 29877 net.cpp:399] loss2/classifier_plantvillage_loss2/classifier_plantvillage_0_split -> loss2/classifier_plantvillage_loss2/classifier_plantvillage_0_split_0
I0403 14:29:58.570842 29877 net.cpp:399] loss2/classifier_plantvillage_loss2/classifier_plantvillage_0_split -> loss2/classifier_plantvillage_loss2/classifier_plantvillage_0_split_1
I0403 14:29:58.570868 29877 net.cpp:399] loss2/classifier_plantvillage_loss2/classifier_plantvillage_0_split -> loss2/classifier_plantvillage_loss2/classifier_plantvillage_0_split_2
I0403 14:29:58.570965 29877 net.cpp:141] Setting up loss2/classifier_plantvillage_loss2/classifier_plantvillage_0_split
I0403 14:29:58.570993 29877 net.cpp:148] Top shape: 24 38 (912)
I0403 14:29:58.571035 29877 net.cpp:148] Top shape: 24 38 (912)
I0403 14:29:58.571081 29877 net.cpp:148] Top shape: 24 38 (912)
I0403 14:29:58.571108 29877 net.cpp:156] Memory required for data: 1208432160
I0403 14:29:58.571126 29877 layer_factory.hpp:77] Creating layer inception_4e/1x1
I0403 14:29:58.571156 29877 net.cpp:91] Creating Layer inception_4e/1x1
I0403 14:29:58.571178 29877 net.cpp:425] inception_4e/1x1 <- inception_4d/output_inception_4d/output_0_split_1
I0403 14:29:58.571203 29877 net.cpp:399] inception_4e/1x1 -> inception_4e/1x1
I0403 14:29:58.573515 29877 net.cpp:141] Setting up inception_4e/1x1
I0403 14:29:58.573552 29877 net.cpp:148] Top shape: 24 256 14 14 (1204224)
I0403 14:29:58.573572 29877 net.cpp:156] Memory required for data: 1213249056
I0403 14:29:58.573596 29877 layer_factory.hpp:77] Creating layer inception_4e/relu_1x1
I0403 14:29:58.573622 29877 net.cpp:91] Creating Layer inception_4e/relu_1x1
I0403 14:29:58.573642 29877 net.cpp:425] inception_4e/relu_1x1 <- inception_4e/1x1
I0403 14:29:58.573665 29877 net.cpp:386] inception_4e/relu_1x1 -> inception_4e/1x1 (in-place)
I0403 14:29:58.574026 29877 net.cpp:141] Setting up inception_4e/relu_1x1
I0403 14:29:58.574059 29877 net.cpp:148] Top shape: 24 256 14 14 (1204224)
I0403 14:29:58.574079 29877 net.cpp:156] Memory required for data: 1218065952
I0403 14:29:58.574097 29877 layer_factory.hpp:77] Creating layer inception_4e/3x3_reduce
I0403 14:29:58.574126 29877 net.cpp:91] Creating Layer inception_4e/3x3_reduce
I0403 14:29:58.574147 29877 net.cpp:425] inception_4e/3x3_reduce <- inception_4d/output_inception_4d/output_0_split_2
I0403 14:29:58.574175 29877 net.cpp:399] inception_4e/3x3_reduce -> inception_4e/3x3_reduce
I0403 14:29:58.576792 29877 net.cpp:141] Setting up inception_4e/3x3_reduce
I0403 14:29:58.576829 29877 net.cpp:148] Top shape: 24 160 14 14 (752640)
I0403 14:29:58.576850 29877 net.cpp:156] Memory required for data: 1221076512
I0403 14:29:58.576874 29877 layer_factory.hpp:77] Creating layer inception_4e/relu_3x3_reduce
I0403 14:29:58.576897 29877 net.cpp:91] Creating Layer inception_4e/relu_3x3_reduce
I0403 14:29:58.576916 29877 net.cpp:425] inception_4e/relu_3x3_reduce <- inception_4e/3x3_reduce
I0403 14:29:58.576941 29877 net.cpp:386] inception_4e/relu_3x3_reduce -> inception_4e/3x3_reduce (in-place)
I0403 14:29:58.577167 29877 net.cpp:141] Setting up inception_4e/relu_3x3_reduce
I0403 14:29:58.577198 29877 net.cpp:148] Top shape: 24 160 14 14 (752640)
I0403 14:29:58.577216 29877 net.cpp:156] Memory required for data: 1224087072
I0403 14:29:58.577235 29877 layer_factory.hpp:77] Creating layer inception_4e/3x3
I0403 14:29:58.577263 29877 net.cpp:91] Creating Layer inception_4e/3x3
I0403 14:29:58.577285 29877 net.cpp:425] inception_4e/3x3 <- inception_4e/3x3_reduce
I0403 14:29:58.577311 29877 net.cpp:399] inception_4e/3x3 -> inception_4e/3x3
I0403 14:29:58.583513 29877 net.cpp:141] Setting up inception_4e/3x3
I0403 14:29:58.583570 29877 net.cpp:148] Top shape: 24 320 14 14 (1505280)
I0403 14:29:58.583592 29877 net.cpp:156] Memory required for data: 1230108192
I0403 14:29:58.583616 29877 layer_factory.hpp:77] Creating layer inception_4e/relu_3x3
I0403 14:29:58.583642 29877 net.cpp:91] Creating Layer inception_4e/relu_3x3
I0403 14:29:58.583664 29877 net.cpp:425] inception_4e/relu_3x3 <- inception_4e/3x3
I0403 14:29:58.583686 29877 net.cpp:386] inception_4e/relu_3x3 -> inception_4e/3x3 (in-place)
I0403 14:29:58.584048 29877 net.cpp:141] Setting up inception_4e/relu_3x3
I0403 14:29:58.584084 29877 net.cpp:148] Top shape: 24 320 14 14 (1505280)
I0403 14:29:58.584105 29877 net.cpp:156] Memory required for data: 1236129312
I0403 14:29:58.584123 29877 layer_factory.hpp:77] Creating layer inception_4e/5x5_reduce
I0403 14:29:58.584153 29877 net.cpp:91] Creating Layer inception_4e/5x5_reduce
I0403 14:29:58.584175 29877 net.cpp:425] inception_4e/5x5_reduce <- inception_4d/output_inception_4d/output_0_split_3
I0403 14:29:58.584200 29877 net.cpp:399] inception_4e/5x5_reduce -> inception_4e/5x5_reduce
I0403 14:29:58.585542 29877 net.cpp:141] Setting up inception_4e/5x5_reduce
I0403 14:29:58.585578 29877 net.cpp:148] Top shape: 24 32 14 14 (150528)
I0403 14:29:58.585597 29877 net.cpp:156] Memory required for data: 1236731424
I0403 14:29:58.585621 29877 layer_factory.hpp:77] Creating layer inception_4e/relu_5x5_reduce
I0403 14:29:58.585646 29877 net.cpp:91] Creating Layer inception_4e/relu_5x5_reduce
I0403 14:29:58.585669 29877 net.cpp:425] inception_4e/relu_5x5_reduce <- inception_4e/5x5_reduce
I0403 14:29:58.585690 29877 net.cpp:386] inception_4e/relu_5x5_reduce -> inception_4e/5x5_reduce (in-place)
I0403 14:29:58.586050 29877 net.cpp:141] Setting up inception_4e/relu_5x5_reduce
I0403 14:29:58.586081 29877 net.cpp:148] Top shape: 24 32 14 14 (150528)
I0403 14:29:58.586102 29877 net.cpp:156] Memory required for data: 1237333536
I0403 14:29:58.586120 29877 layer_factory.hpp:77] Creating layer inception_4e/5x5
I0403 14:29:58.586172 29877 net.cpp:91] Creating Layer inception_4e/5x5
I0403 14:29:58.586197 29877 net.cpp:425] inception_4e/5x5 <- inception_4e/5x5_reduce
I0403 14:29:58.586221 29877 net.cpp:399] inception_4e/5x5 -> inception_4e/5x5
I0403 14:29:58.588520 29877 net.cpp:141] Setting up inception_4e/5x5
I0403 14:29:58.588558 29877 net.cpp:148] Top shape: 24 128 14 14 (602112)
I0403 14:29:58.588578 29877 net.cpp:156] Memory required for data: 1239741984
I0403 14:29:58.588603 29877 layer_factory.hpp:77] Creating layer inception_4e/relu_5x5
I0403 14:29:58.588626 29877 net.cpp:91] Creating Layer inception_4e/relu_5x5
I0403 14:29:58.588646 29877 net.cpp:425] inception_4e/relu_5x5 <- inception_4e/5x5
I0403 14:29:58.588670 29877 net.cpp:386] inception_4e/relu_5x5 -> inception_4e/5x5 (in-place)
I0403 14:29:58.588909 29877 net.cpp:141] Setting up inception_4e/relu_5x5
I0403 14:29:58.588940 29877 net.cpp:148] Top shape: 24 128 14 14 (602112)
I0403 14:29:58.588959 29877 net.cpp:156] Memory required for data: 1242150432
I0403 14:29:58.588979 29877 layer_factory.hpp:77] Creating layer inception_4e/pool
I0403 14:29:58.589002 29877 net.cpp:91] Creating Layer inception_4e/pool
I0403 14:29:58.589021 29877 net.cpp:425] inception_4e/pool <- inception_4d/output_inception_4d/output_0_split_4
I0403 14:29:58.589046 29877 net.cpp:399] inception_4e/pool -> inception_4e/pool
I0403 14:29:58.589151 29877 net.cpp:141] Setting up inception_4e/pool
I0403 14:29:58.589182 29877 net.cpp:148] Top shape: 24 528 14 14 (2483712)
I0403 14:29:58.589200 29877 net.cpp:156] Memory required for data: 1252085280
I0403 14:29:58.589220 29877 layer_factory.hpp:77] Creating layer inception_4e/pool_proj
I0403 14:29:58.589247 29877 net.cpp:91] Creating Layer inception_4e/pool_proj
I0403 14:29:58.589268 29877 net.cpp:425] inception_4e/pool_proj <- inception_4e/pool
I0403 14:29:58.589293 29877 net.cpp:399] inception_4e/pool_proj -> inception_4e/pool_proj
I0403 14:29:58.591141 29877 net.cpp:141] Setting up inception_4e/pool_proj
I0403 14:29:58.591179 29877 net.cpp:148] Top shape: 24 128 14 14 (602112)
I0403 14:29:58.591219 29877 net.cpp:156] Memory required for data: 1254493728
I0403 14:29:58.591244 29877 layer_factory.hpp:77] Creating layer inception_4e/relu_pool_proj
I0403 14:29:58.591267 29877 net.cpp:91] Creating Layer inception_4e/relu_pool_proj
I0403 14:29:58.591287 29877 net.cpp:425] inception_4e/relu_pool_proj <- inception_4e/pool_proj
I0403 14:29:58.591311 29877 net.cpp:386] inception_4e/relu_pool_proj -> inception_4e/pool_proj (in-place)
I0403 14:29:58.591667 29877 net.cpp:141] Setting up inception_4e/relu_pool_proj
I0403 14:29:58.591703 29877 net.cpp:148] Top shape: 24 128 14 14 (602112)
I0403 14:29:58.591724 29877 net.cpp:156] Memory required for data: 1256902176
I0403 14:29:58.591743 29877 layer_factory.hpp:77] Creating layer inception_4e/output
I0403 14:29:58.591766 29877 net.cpp:91] Creating Layer inception_4e/output
I0403 14:29:58.591785 29877 net.cpp:425] inception_4e/output <- inception_4e/1x1
I0403 14:29:58.591807 29877 net.cpp:425] inception_4e/output <- inception_4e/3x3
I0403 14:29:58.591827 29877 net.cpp:425] inception_4e/output <- inception_4e/5x5
I0403 14:29:58.591848 29877 net.cpp:425] inception_4e/output <- inception_4e/pool_proj
I0403 14:29:58.591869 29877 net.cpp:399] inception_4e/output -> inception_4e/output
I0403 14:29:58.591933 29877 net.cpp:141] Setting up inception_4e/output
I0403 14:29:58.591963 29877 net.cpp:148] Top shape: 24 832 14 14 (3913728)
I0403 14:29:58.591981 29877 net.cpp:156] Memory required for data: 1272557088
I0403 14:29:58.592000 29877 layer_factory.hpp:77] Creating layer pool4/3x3_s2
I0403 14:29:58.592025 29877 net.cpp:91] Creating Layer pool4/3x3_s2
I0403 14:29:58.592046 29877 net.cpp:425] pool4/3x3_s2 <- inception_4e/output
I0403 14:29:58.592069 29877 net.cpp:399] pool4/3x3_s2 -> pool4/3x3_s2
I0403 14:29:58.592159 29877 net.cpp:141] Setting up pool4/3x3_s2
I0403 14:29:58.592188 29877 net.cpp:148] Top shape: 24 832 7 7 (978432)
I0403 14:29:58.592207 29877 net.cpp:156] Memory required for data: 1276470816
I0403 14:29:58.592226 29877 layer_factory.hpp:77] Creating layer pool4/3x3_s2_pool4/3x3_s2_0_split
I0403 14:29:58.592248 29877 net.cpp:91] Creating Layer pool4/3x3_s2_pool4/3x3_s2_0_split
I0403 14:29:58.592298 29877 net.cpp:425] pool4/3x3_s2_pool4/3x3_s2_0_split <- pool4/3x3_s2
I0403 14:29:58.592349 29877 net.cpp:399] pool4/3x3_s2_pool4/3x3_s2_0_split -> pool4/3x3_s2_pool4/3x3_s2_0_split_0
I0403 14:29:58.592375 29877 net.cpp:399] pool4/3x3_s2_pool4/3x3_s2_0_split -> pool4/3x3_s2_pool4/3x3_s2_0_split_1
I0403 14:29:58.592401 29877 net.cpp:399] pool4/3x3_s2_pool4/3x3_s2_0_split -> pool4/3x3_s2_pool4/3x3_s2_0_split_2
I0403 14:29:58.592427 29877 net.cpp:399] pool4/3x3_s2_pool4/3x3_s2_0_split -> pool4/3x3_s2_pool4/3x3_s2_0_split_3
I0403 14:29:58.592540 29877 net.cpp:141] Setting up pool4/3x3_s2_pool4/3x3_s2_0_split
I0403 14:29:58.592571 29877 net.cpp:148] Top shape: 24 832 7 7 (978432)
I0403 14:29:58.592592 29877 net.cpp:148] Top shape: 24 832 7 7 (978432)
I0403 14:29:58.592612 29877 net.cpp:148] Top shape: 24 832 7 7 (978432)
I0403 14:29:58.592631 29877 net.cpp:148] Top shape: 24 832 7 7 (978432)
I0403 14:29:58.592648 29877 net.cpp:156] Memory required for data: 1292125728
I0403 14:29:58.592666 29877 layer_factory.hpp:77] Creating layer inception_5a/1x1
I0403 14:29:58.592694 29877 net.cpp:91] Creating Layer inception_5a/1x1
I0403 14:29:58.592715 29877 net.cpp:425] inception_5a/1x1 <- pool4/3x3_s2_pool4/3x3_s2_0_split_0
I0403 14:29:58.592738 29877 net.cpp:399] inception_5a/1x1 -> inception_5a/1x1
I0403 14:29:58.596237 29877 net.cpp:141] Setting up inception_5a/1x1
I0403 14:29:58.596274 29877 net.cpp:148] Top shape: 24 256 7 7 (301056)
I0403 14:29:58.596294 29877 net.cpp:156] Memory required for data: 1293329952
I0403 14:29:58.596323 29877 layer_factory.hpp:77] Creating layer inception_5a/relu_1x1
I0403 14:29:58.596348 29877 net.cpp:91] Creating Layer inception_5a/relu_1x1
I0403 14:29:58.596366 29877 net.cpp:425] inception_5a/relu_1x1 <- inception_5a/1x1
I0403 14:29:58.596392 29877 net.cpp:386] inception_5a/relu_1x1 -> inception_5a/1x1 (in-place)
I0403 14:29:58.596767 29877 net.cpp:141] Setting up inception_5a/relu_1x1
I0403 14:29:58.596801 29877 net.cpp:148] Top shape: 24 256 7 7 (301056)
I0403 14:29:58.596819 29877 net.cpp:156] Memory required for data: 1294534176
I0403 14:29:58.596838 29877 layer_factory.hpp:77] Creating layer inception_5a/3x3_reduce
I0403 14:29:58.596866 29877 net.cpp:91] Creating Layer inception_5a/3x3_reduce
I0403 14:29:58.596889 29877 net.cpp:425] inception_5a/3x3_reduce <- pool4/3x3_s2_pool4/3x3_s2_0_split_1
I0403 14:29:58.596915 29877 net.cpp:399] inception_5a/3x3_reduce -> inception_5a/3x3_reduce
I0403 14:29:58.599921 29877 net.cpp:141] Setting up inception_5a/3x3_reduce
I0403 14:29:58.599958 29877 net.cpp:148] Top shape: 24 160 7 7 (188160)
I0403 14:29:58.599978 29877 net.cpp:156] Memory required for data: 1295286816
I0403 14:29:58.600002 29877 layer_factory.hpp:77] Creating layer inception_5a/relu_3x3_reduce
I0403 14:29:58.600026 29877 net.cpp:91] Creating Layer inception_5a/relu_3x3_reduce
I0403 14:29:58.600049 29877 net.cpp:425] inception_5a/relu_3x3_reduce <- inception_5a/3x3_reduce
I0403 14:29:58.600070 29877 net.cpp:386] inception_5a/relu_3x3_reduce -> inception_5a/3x3_reduce (in-place)
I0403 14:29:58.600301 29877 net.cpp:141] Setting up inception_5a/relu_3x3_reduce
I0403 14:29:58.600337 29877 net.cpp:148] Top shape: 24 160 7 7 (188160)
I0403 14:29:58.600385 29877 net.cpp:156] Memory required for data: 1296039456
I0403 14:29:58.600431 29877 layer_factory.hpp:77] Creating layer inception_5a/3x3
I0403 14:29:58.600461 29877 net.cpp:91] Creating Layer inception_5a/3x3
I0403 14:29:58.600483 29877 net.cpp:425] inception_5a/3x3 <- inception_5a/3x3_reduce
I0403 14:29:58.600509 29877 net.cpp:399] inception_5a/3x3 -> inception_5a/3x3
I0403 14:29:58.606714 29877 net.cpp:141] Setting up inception_5a/3x3
I0403 14:29:58.606756 29877 net.cpp:148] Top shape: 24 320 7 7 (376320)
I0403 14:29:58.606776 29877 net.cpp:156] Memory required for data: 1297544736
I0403 14:29:58.606809 29877 layer_factory.hpp:77] Creating layer inception_5a/relu_3x3
I0403 14:29:58.606832 29877 net.cpp:91] Creating Layer inception_5a/relu_3x3
I0403 14:29:58.606853 29877 net.cpp:425] inception_5a/relu_3x3 <- inception_5a/3x3
I0403 14:29:58.606878 29877 net.cpp:386] inception_5a/relu_3x3 -> inception_5a/3x3 (in-place)
I0403 14:29:58.607234 29877 net.cpp:141] Setting up inception_5a/relu_3x3
I0403 14:29:58.607270 29877 net.cpp:148] Top shape: 24 320 7 7 (376320)
I0403 14:29:58.607288 29877 net.cpp:156] Memory required for data: 1299050016
I0403 14:29:58.607308 29877 layer_factory.hpp:77] Creating layer inception_5a/5x5_reduce
I0403 14:29:58.607343 29877 net.cpp:91] Creating Layer inception_5a/5x5_reduce
I0403 14:29:58.607367 29877 net.cpp:425] inception_5a/5x5_reduce <- pool4/3x3_s2_pool4/3x3_s2_0_split_2
I0403 14:29:58.607393 29877 net.cpp:399] inception_5a/5x5_reduce -> inception_5a/5x5_reduce
I0403 14:29:58.608825 29877 net.cpp:141] Setting up inception_5a/5x5_reduce
I0403 14:29:58.608862 29877 net.cpp:148] Top shape: 24 32 7 7 (37632)
I0403 14:29:58.608882 29877 net.cpp:156] Memory required for data: 1299200544
I0403 14:29:58.608906 29877 layer_factory.hpp:77] Creating layer inception_5a/relu_5x5_reduce
I0403 14:29:58.608927 29877 net.cpp:91] Creating Layer inception_5a/relu_5x5_reduce
I0403 14:29:58.608948 29877 net.cpp:425] inception_5a/relu_5x5_reduce <- inception_5a/5x5_reduce
I0403 14:29:58.608973 29877 net.cpp:386] inception_5a/relu_5x5_reduce -> inception_5a/5x5_reduce (in-place)
I0403 14:29:58.609339 29877 net.cpp:141] Setting up inception_5a/relu_5x5_reduce
I0403 14:29:58.609372 29877 net.cpp:148] Top shape: 24 32 7 7 (37632)
I0403 14:29:58.609392 29877 net.cpp:156] Memory required for data: 1299351072
I0403 14:29:58.609411 29877 layer_factory.hpp:77] Creating layer inception_5a/5x5
I0403 14:29:58.609438 29877 net.cpp:91] Creating Layer inception_5a/5x5
I0403 14:29:58.609462 29877 net.cpp:425] inception_5a/5x5 <- inception_5a/5x5_reduce
I0403 14:29:58.609493 29877 net.cpp:399] inception_5a/5x5 -> inception_5a/5x5
I0403 14:29:58.611681 29877 net.cpp:141] Setting up inception_5a/5x5
I0403 14:29:58.611738 29877 net.cpp:148] Top shape: 24 128 7 7 (150528)
I0403 14:29:58.611760 29877 net.cpp:156] Memory required for data: 1299953184
I0403 14:29:58.611784 29877 layer_factory.hpp:77] Creating layer inception_5a/relu_5x5
I0403 14:29:58.611815 29877 net.cpp:91] Creating Layer inception_5a/relu_5x5
I0403 14:29:58.611836 29877 net.cpp:425] inception_5a/relu_5x5 <- inception_5a/5x5
I0403 14:29:58.611860 29877 net.cpp:386] inception_5a/relu_5x5 -> inception_5a/5x5 (in-place)
I0403 14:29:58.612119 29877 net.cpp:141] Setting up inception_5a/relu_5x5
I0403 14:29:58.612154 29877 net.cpp:148] Top shape: 24 128 7 7 (150528)
I0403 14:29:58.612185 29877 net.cpp:156] Memory required for data: 1300555296
I0403 14:29:58.612205 29877 layer_factory.hpp:77] Creating layer inception_5a/pool
I0403 14:29:58.612227 29877 net.cpp:91] Creating Layer inception_5a/pool
I0403 14:29:58.612247 29877 net.cpp:425] inception_5a/pool <- pool4/3x3_s2_pool4/3x3_s2_0_split_3
I0403 14:29:58.612272 29877 net.cpp:399] inception_5a/pool -> inception_5a/pool
I0403 14:29:58.612367 29877 net.cpp:141] Setting up inception_5a/pool
I0403 14:29:58.612398 29877 net.cpp:148] Top shape: 24 832 7 7 (978432)
I0403 14:29:58.612419 29877 net.cpp:156] Memory required for data: 1304469024
I0403 14:29:58.612444 29877 layer_factory.hpp:77] Creating layer inception_5a/pool_proj
I0403 14:29:58.612499 29877 net.cpp:91] Creating Layer inception_5a/pool_proj
I0403 14:29:58.612522 29877 net.cpp:425] inception_5a/pool_proj <- inception_5a/pool
I0403 14:29:58.612547 29877 net.cpp:399] inception_5a/pool_proj -> inception_5a/pool_proj
I0403 14:29:58.615355 29877 net.cpp:141] Setting up inception_5a/pool_proj
I0403 14:29:58.615396 29877 net.cpp:148] Top shape: 24 128 7 7 (150528)
I0403 14:29:58.615417 29877 net.cpp:156] Memory required for data: 1305071136
I0403 14:29:58.615440 29877 layer_factory.hpp:77] Creating layer inception_5a/relu_pool_proj
I0403 14:29:58.615463 29877 net.cpp:91] Creating Layer inception_5a/relu_pool_proj
I0403 14:29:58.615492 29877 net.cpp:425] inception_5a/relu_pool_proj <- inception_5a/pool_proj
I0403 14:29:58.615514 29877 net.cpp:386] inception_5a/relu_pool_proj -> inception_5a/pool_proj (in-place)
I0403 14:29:58.615876 29877 net.cpp:141] Setting up inception_5a/relu_pool_proj
I0403 14:29:58.615911 29877 net.cpp:148] Top shape: 24 128 7 7 (150528)
I0403 14:29:58.615931 29877 net.cpp:156] Memory required for data: 1305673248
I0403 14:29:58.615949 29877 layer_factory.hpp:77] Creating layer inception_5a/output
I0403 14:29:58.615972 29877 net.cpp:91] Creating Layer inception_5a/output
I0403 14:29:58.615994 29877 net.cpp:425] inception_5a/output <- inception_5a/1x1
I0403 14:29:58.616016 29877 net.cpp:425] inception_5a/output <- inception_5a/3x3
I0403 14:29:58.616036 29877 net.cpp:425] inception_5a/output <- inception_5a/5x5
I0403 14:29:58.616056 29877 net.cpp:425] inception_5a/output <- inception_5a/pool_proj
I0403 14:29:58.616078 29877 net.cpp:399] inception_5a/output -> inception_5a/output
I0403 14:29:58.616144 29877 net.cpp:141] Setting up inception_5a/output
I0403 14:29:58.616175 29877 net.cpp:148] Top shape: 24 832 7 7 (978432)
I0403 14:29:58.616194 29877 net.cpp:156] Memory required for data: 1309586976
I0403 14:29:58.616211 29877 layer_factory.hpp:77] Creating layer inception_5a/output_inception_5a/output_0_split
I0403 14:29:58.616238 29877 net.cpp:91] Creating Layer inception_5a/output_inception_5a/output_0_split
I0403 14:29:58.616258 29877 net.cpp:425] inception_5a/output_inception_5a/output_0_split <- inception_5a/output
I0403 14:29:58.616281 29877 net.cpp:399] inception_5a/output_inception_5a/output_0_split -> inception_5a/output_inception_5a/output_0_split_0
I0403 14:29:58.616319 29877 net.cpp:399] inception_5a/output_inception_5a/output_0_split -> inception_5a/output_inception_5a/output_0_split_1
I0403 14:29:58.616348 29877 net.cpp:399] inception_5a/output_inception_5a/output_0_split -> inception_5a/output_inception_5a/output_0_split_2
I0403 14:29:58.616374 29877 net.cpp:399] inception_5a/output_inception_5a/output_0_split -> inception_5a/output_inception_5a/output_0_split_3
I0403 14:29:58.616514 29877 net.cpp:141] Setting up inception_5a/output_inception_5a/output_0_split
I0403 14:29:58.616544 29877 net.cpp:148] Top shape: 24 832 7 7 (978432)
I0403 14:29:58.616564 29877 net.cpp:148] Top shape: 24 832 7 7 (978432)
I0403 14:29:58.616585 29877 net.cpp:148] Top shape: 24 832 7 7 (978432)
I0403 14:29:58.616605 29877 net.cpp:148] Top shape: 24 832 7 7 (978432)
I0403 14:29:58.616623 29877 net.cpp:156] Memory required for data: 1325241888
I0403 14:29:58.616642 29877 layer_factory.hpp:77] Creating layer inception_5b/1x1
I0403 14:29:58.616670 29877 net.cpp:91] Creating Layer inception_5b/1x1
I0403 14:29:58.616691 29877 net.cpp:425] inception_5b/1x1 <- inception_5a/output_inception_5a/output_0_split_0
I0403 14:29:58.616719 29877 net.cpp:399] inception_5b/1x1 -> inception_5b/1x1
I0403 14:29:58.621354 29877 net.cpp:141] Setting up inception_5b/1x1
I0403 14:29:58.621392 29877 net.cpp:148] Top shape: 24 384 7 7 (451584)
I0403 14:29:58.621413 29877 net.cpp:156] Memory required for data: 1327048224
I0403 14:29:58.621438 29877 layer_factory.hpp:77] Creating layer inception_5b/relu_1x1
I0403 14:29:58.621464 29877 net.cpp:91] Creating Layer inception_5b/relu_1x1
I0403 14:29:58.621486 29877 net.cpp:425] inception_5b/relu_1x1 <- inception_5b/1x1
I0403 14:29:58.621510 29877 net.cpp:386] inception_5b/relu_1x1 -> inception_5b/1x1 (in-place)
I0403 14:29:58.621881 29877 net.cpp:141] Setting up inception_5b/relu_1x1
I0403 14:29:58.621914 29877 net.cpp:148] Top shape: 24 384 7 7 (451584)
I0403 14:29:58.621933 29877 net.cpp:156] Memory required for data: 1328854560
I0403 14:29:58.621953 29877 layer_factory.hpp:77] Creating layer inception_5b/3x3_reduce
I0403 14:29:58.621984 29877 net.cpp:91] Creating Layer inception_5b/3x3_reduce
I0403 14:29:58.622006 29877 net.cpp:425] inception_5b/3x3_reduce <- inception_5a/output_inception_5a/output_0_split_1
I0403 14:29:58.622035 29877 net.cpp:399] inception_5b/3x3_reduce -> inception_5b/3x3_reduce
I0403 14:29:58.625301 29877 net.cpp:141] Setting up inception_5b/3x3_reduce
I0403 14:29:58.625345 29877 net.cpp:148] Top shape: 24 192 7 7 (225792)
I0403 14:29:58.625368 29877 net.cpp:156] Memory required for data: 1329757728
I0403 14:29:58.625391 29877 layer_factory.hpp:77] Creating layer inception_5b/relu_3x3_reduce
I0403 14:29:58.625416 29877 net.cpp:91] Creating Layer inception_5b/relu_3x3_reduce
I0403 14:29:58.625435 29877 net.cpp:425] inception_5b/relu_3x3_reduce <- inception_5b/3x3_reduce
I0403 14:29:58.625458 29877 net.cpp:386] inception_5b/relu_3x3_reduce -> inception_5b/3x3_reduce (in-place)
I0403 14:29:58.625691 29877 net.cpp:141] Setting up inception_5b/relu_3x3_reduce
I0403 14:29:58.625722 29877 net.cpp:148] Top shape: 24 192 7 7 (225792)
I0403 14:29:58.625742 29877 net.cpp:156] Memory required for data: 1330660896
I0403 14:29:58.625761 29877 layer_factory.hpp:77] Creating layer inception_5b/3x3
I0403 14:29:58.625789 29877 net.cpp:91] Creating Layer inception_5b/3x3
I0403 14:29:58.625811 29877 net.cpp:425] inception_5b/3x3 <- inception_5b/3x3_reduce
I0403 14:29:58.625838 29877 net.cpp:399] inception_5b/3x3 -> inception_5b/3x3
I0403 14:29:58.634214 29877 net.cpp:141] Setting up inception_5b/3x3
I0403 14:29:58.634255 29877 net.cpp:148] Top shape: 24 384 7 7 (451584)
I0403 14:29:58.634277 29877 net.cpp:156] Memory required for data: 1332467232
I0403 14:29:58.634302 29877 layer_factory.hpp:77] Creating layer inception_5b/relu_3x3
I0403 14:29:58.634338 29877 net.cpp:91] Creating Layer inception_5b/relu_3x3
I0403 14:29:58.634362 29877 net.cpp:425] inception_5b/relu_3x3 <- inception_5b/3x3
I0403 14:29:58.634387 29877 net.cpp:386] inception_5b/relu_3x3 -> inception_5b/3x3 (in-place)
I0403 14:29:58.634753 29877 net.cpp:141] Setting up inception_5b/relu_3x3
I0403 14:29:58.634789 29877 net.cpp:148] Top shape: 24 384 7 7 (451584)
I0403 14:29:58.634809 29877 net.cpp:156] Memory required for data: 1334273568
I0403 14:29:58.634829 29877 layer_factory.hpp:77] Creating layer inception_5b/5x5_reduce
I0403 14:29:58.634888 29877 net.cpp:91] Creating Layer inception_5b/5x5_reduce
I0403 14:29:58.634912 29877 net.cpp:425] inception_5b/5x5_reduce <- inception_5a/output_inception_5a/output_0_split_2
I0403 14:29:58.634937 29877 net.cpp:399] inception_5b/5x5_reduce -> inception_5b/5x5_reduce
I0403 14:29:58.636553 29877 net.cpp:141] Setting up inception_5b/5x5_reduce
I0403 14:29:58.636591 29877 net.cpp:148] Top shape: 24 48 7 7 (56448)
I0403 14:29:58.636613 29877 net.cpp:156] Memory required for data: 1334499360
I0403 14:29:58.636637 29877 layer_factory.hpp:77] Creating layer inception_5b/relu_5x5_reduce
I0403 14:29:58.636661 29877 net.cpp:91] Creating Layer inception_5b/relu_5x5_reduce
I0403 14:29:58.636682 29877 net.cpp:425] inception_5b/relu_5x5_reduce <- inception_5b/5x5_reduce
I0403 14:29:58.636708 29877 net.cpp:386] inception_5b/relu_5x5_reduce -> inception_5b/5x5_reduce (in-place)
I0403 14:29:58.637159 29877 net.cpp:141] Setting up inception_5b/relu_5x5_reduce
I0403 14:29:58.637193 29877 net.cpp:148] Top shape: 24 48 7 7 (56448)
I0403 14:29:58.637214 29877 net.cpp:156] Memory required for data: 1334725152
I0403 14:29:58.637233 29877 layer_factory.hpp:77] Creating layer inception_5b/5x5
I0403 14:29:58.637260 29877 net.cpp:91] Creating Layer inception_5b/5x5
I0403 14:29:58.637284 29877 net.cpp:425] inception_5b/5x5 <- inception_5b/5x5_reduce
I0403 14:29:58.637308 29877 net.cpp:399] inception_5b/5x5 -> inception_5b/5x5
I0403 14:29:58.639890 29877 net.cpp:141] Setting up inception_5b/5x5
I0403 14:29:58.639925 29877 net.cpp:148] Top shape: 24 128 7 7 (150528)
I0403 14:29:58.639945 29877 net.cpp:156] Memory required for data: 1335327264
I0403 14:29:58.639968 29877 layer_factory.hpp:77] Creating layer inception_5b/relu_5x5
I0403 14:29:58.639991 29877 net.cpp:91] Creating Layer inception_5b/relu_5x5
I0403 14:29:58.640012 29877 net.cpp:425] inception_5b/relu_5x5 <- inception_5b/5x5
I0403 14:29:58.640035 29877 net.cpp:386] inception_5b/relu_5x5 -> inception_5b/5x5 (in-place)
I0403 14:29:58.640275 29877 net.cpp:141] Setting up inception_5b/relu_5x5
I0403 14:29:58.640306 29877 net.cpp:148] Top shape: 24 128 7 7 (150528)
I0403 14:29:58.640331 29877 net.cpp:156] Memory required for data: 1335929376
I0403 14:29:58.640350 29877 layer_factory.hpp:77] Creating layer inception_5b/pool
I0403 14:29:58.640377 29877 net.cpp:91] Creating Layer inception_5b/pool
I0403 14:29:58.640398 29877 net.cpp:425] inception_5b/pool <- inception_5a/output_inception_5a/output_0_split_3
I0403 14:29:58.640421 29877 net.cpp:399] inception_5b/pool -> inception_5b/pool
I0403 14:29:58.640516 29877 net.cpp:141] Setting up inception_5b/pool
I0403 14:29:58.640545 29877 net.cpp:148] Top shape: 24 832 7 7 (978432)
I0403 14:29:58.640563 29877 net.cpp:156] Memory required for data: 1339843104
I0403 14:29:58.640580 29877 layer_factory.hpp:77] Creating layer inception_5b/pool_proj
I0403 14:29:58.640609 29877 net.cpp:91] Creating Layer inception_5b/pool_proj
I0403 14:29:58.640630 29877 net.cpp:425] inception_5b/pool_proj <- inception_5b/pool
I0403 14:29:58.640657 29877 net.cpp:399] inception_5b/pool_proj -> inception_5b/pool_proj
I0403 14:29:58.643529 29877 net.cpp:141] Setting up inception_5b/pool_proj
I0403 14:29:58.643570 29877 net.cpp:148] Top shape: 24 128 7 7 (150528)
I0403 14:29:58.643591 29877 net.cpp:156] Memory required for data: 1340445216
I0403 14:29:58.643615 29877 layer_factory.hpp:77] Creating layer inception_5b/relu_pool_proj
I0403 14:29:58.643641 29877 net.cpp:91] Creating Layer inception_5b/relu_pool_proj
I0403 14:29:58.643663 29877 net.cpp:425] inception_5b/relu_pool_proj <- inception_5b/pool_proj
I0403 14:29:58.643689 29877 net.cpp:386] inception_5b/relu_pool_proj -> inception_5b/pool_proj (in-place)
I0403 14:29:58.644053 29877 net.cpp:141] Setting up inception_5b/relu_pool_proj
I0403 14:29:58.644093 29877 net.cpp:148] Top shape: 24 128 7 7 (150528)
I0403 14:29:58.644114 29877 net.cpp:156] Memory required for data: 1341047328
I0403 14:29:58.644160 29877 layer_factory.hpp:77] Creating layer inception_5b/output
I0403 14:29:58.644182 29877 net.cpp:91] Creating Layer inception_5b/output
I0403 14:29:58.644234 29877 net.cpp:425] inception_5b/output <- inception_5b/1x1
I0403 14:29:58.644258 29877 net.cpp:425] inception_5b/output <- inception_5b/3x3
I0403 14:29:58.644279 29877 net.cpp:425] inception_5b/output <- inception_5b/5x5
I0403 14:29:58.644301 29877 net.cpp:425] inception_5b/output <- inception_5b/pool_proj
I0403 14:29:58.644331 29877 net.cpp:399] inception_5b/output -> inception_5b/output
I0403 14:29:58.644398 29877 net.cpp:141] Setting up inception_5b/output
I0403 14:29:58.644428 29877 net.cpp:148] Top shape: 24 1024 7 7 (1204224)
I0403 14:29:58.644446 29877 net.cpp:156] Memory required for data: 1345864224
I0403 14:29:58.644464 29877 layer_factory.hpp:77] Creating layer pool5/7x7_s1
I0403 14:29:58.644490 29877 net.cpp:91] Creating Layer pool5/7x7_s1
I0403 14:29:58.644512 29877 net.cpp:425] pool5/7x7_s1 <- inception_5b/output
I0403 14:29:58.644541 29877 net.cpp:399] pool5/7x7_s1 -> pool5/7x7_s1
I0403 14:29:58.644804 29877 net.cpp:141] Setting up pool5/7x7_s1
I0403 14:29:58.644839 29877 net.cpp:148] Top shape: 24 1024 1 1 (24576)
I0403 14:29:58.644857 29877 net.cpp:156] Memory required for data: 1345962528
I0403 14:29:58.644877 29877 layer_factory.hpp:77] Creating layer pool5/drop_7x7_s1
I0403 14:29:58.644899 29877 net.cpp:91] Creating Layer pool5/drop_7x7_s1
I0403 14:29:58.644919 29877 net.cpp:425] pool5/drop_7x7_s1 <- pool5/7x7_s1
I0403 14:29:58.644942 29877 net.cpp:386] pool5/drop_7x7_s1 -> pool5/7x7_s1 (in-place)
I0403 14:29:58.645004 29877 net.cpp:141] Setting up pool5/drop_7x7_s1
I0403 14:29:58.645035 29877 net.cpp:148] Top shape: 24 1024 1 1 (24576)
I0403 14:29:58.645052 29877 net.cpp:156] Memory required for data: 1346060832
I0403 14:29:58.645071 29877 layer_factory.hpp:77] Creating layer loss3/classifier_plantvillage
I0403 14:29:58.645100 29877 net.cpp:91] Creating Layer loss3/classifier_plantvillage
I0403 14:29:58.645122 29877 net.cpp:425] loss3/classifier_plantvillage <- pool5/7x7_s1
I0403 14:29:58.645148 29877 net.cpp:399] loss3/classifier_plantvillage -> loss3/classifier_plantvillage
I0403 14:29:58.645678 29877 net.cpp:141] Setting up loss3/classifier_plantvillage
I0403 14:29:58.645709 29877 net.cpp:148] Top shape: 24 38 (912)
I0403 14:29:58.645730 29877 net.cpp:156] Memory required for data: 1346064480
I0403 14:29:58.645755 29877 layer_factory.hpp:77] Creating layer loss3/classifier_plantvillage_loss3/classifier_plantvillage_0_split
I0403 14:29:58.645782 29877 net.cpp:91] Creating Layer loss3/classifier_plantvillage_loss3/classifier_plantvillage_0_split
I0403 14:29:58.645815 29877 net.cpp:425] loss3/classifier_plantvillage_loss3/classifier_plantvillage_0_split <- loss3/classifier_plantvillage
I0403 14:29:58.645839 29877 net.cpp:399] loss3/classifier_plantvillage_loss3/classifier_plantvillage_0_split -> loss3/classifier_plantvillage_loss3/classifier_plantvillage_0_split_0
I0403 14:29:58.645869 29877 net.cpp:399] loss3/classifier_plantvillage_loss3/classifier_plantvillage_0_split -> loss3/classifier_plantvillage_loss3/classifier_plantvillage_0_split_1
I0403 14:29:58.645951 29877 net.cpp:399] loss3/classifier_plantvillage_loss3/classifier_plantvillage_0_split -> loss3/classifier_plantvillage_loss3/classifier_plantvillage_0_split_2
I0403 14:29:58.646003 29877 net.cpp:399] loss3/classifier_plantvillage_loss3/classifier_plantvillage_0_split -> loss3/classifier_plantvillage_loss3/classifier_plantvillage_0_split_3
I0403 14:29:58.646131 29877 net.cpp:141] Setting up loss3/classifier_plantvillage_loss3/classifier_plantvillage_0_split
I0403 14:29:58.646160 29877 net.cpp:148] Top shape: 24 38 (912)
I0403 14:29:58.646180 29877 net.cpp:148] Top shape: 24 38 (912)
I0403 14:29:58.646199 29877 net.cpp:148] Top shape: 24 38 (912)
I0403 14:29:58.646226 29877 net.cpp:148] Top shape: 24 38 (912)
I0403 14:29:58.646245 29877 net.cpp:156] Memory required for data: 1346079072
I0403 14:29:58.646262 29877 layer_factory.hpp:77] Creating layer loss1/loss
I0403 14:29:58.646298 29877 net.cpp:91] Creating Layer loss1/loss
I0403 14:29:58.646327 29877 net.cpp:425] loss1/loss <- loss1/classifier_plantvillage_loss1/classifier_plantvillage_0_split_0
I0403 14:29:58.646378 29877 net.cpp:425] loss1/loss <- label_data_1_split_0
…
