…
I0403 14:21:42.148035 29618 net.cpp:313] The NetState phase (1) differed from the phase (0) specified by a rule in layer data
I0403 14:21:42.149240 29618 net.cpp:49] Initializing net from parameters: 
state {
  phase: TEST
}
layer {
  name: "data"
  type: "Data"
  top: "data"
  top: "label"
  include {
    phase: TEST
  }
  transform_param {
    mirror: false
    crop_size: 224
    mean_file: "/home/mohanty/data/final_dataset/lmdb/color-20-80/mean.binaryproto"
  }
  data_param {
    source: "/home/mohanty/data/final_dataset/lmdb/color-20-80/test_db"
    batch_size: 24
    backend: LMDB
  }
}
layer {
  name: "conv1/7x7_s2"
  type: "Convolution"
  bottom: "data"
  top: "conv1/7x7_s2"
  param {
    lr_mult: 1
    decay_mult: 1
  }
  param {
    lr_mult: 2
    decay_mult: 0
  }
  convolution_param {
    num_output: 64
    pad: 3
    kernel_size: 7
    stride: 2
    weight_filler {
      type: "xavier"
      std: 0.1
    }
    bias_filler {
      type: "constant"
      value: 0.2
    }
  }
}
layer {
  name: "conv1/relu_7x7"
  type: "ReLU"
  bottom: "conv1/7x7_s2"
  top: "conv1/7x7_s2"
}
layer {
  name: "pool1/3x3_s2"
  type: "Pooling"
  bottom: "conv1/7x7_s2"
  top: "pool1/3x3_s2"
  pooling_param {
    pool: MAX
    kernel_size: 3
    stride: 2
  }
}
layer {
  name: "pool1/norm1"
  type: "LRN"
  bottom: "pool1/3x3_s2"
  top: "pool1/norm1"
  lrn_param {
    local_size: 5
    alpha: 0.0001
    beta: 0.75
  }
}
layer {
  name: "conv2/3x3_reduce"
  type: "Convolution"
  bottom: "pool1/norm1"
  top: "conv2/3x3_reduce"
  param {
    lr_mult: 1
    decay_mult: 1
  }
  param {
    lr_mult: 2
    decay_mult: 0
  }
  convolution_param {
    num_output: 64
    kernel_size: 1
    weight_filler {
      type: "xavier"
      std: 0.1
    }
    bias_filler {
      type: "constant"
      value: 0.2
    }
  }
}
layer {
  name: "conv2/relu_3x3_reduce"
  type: "ReLU"
  bottom: "conv2/3x3_reduce"
  top: "conv2/3x3_reduce"
}
layer {
  name: "conv2/3x3"
  type: "Convolution"
  bottom: "conv2/3x3_reduce"
  top: "conv2/3x3"
  param {
    lr_mult: 1
    decay_mult: 1
  }
  param {
    lr_mult: 2
    decay_mult: 0
  }
  convolution_param {
    num_output: 192
    pad: 1
    kernel_size: 3
    weight_filler {
      type: "xavier"
      std: 0.03
    }
    bias_filler {
      type: "constant"
      value: 0.2
    }
  }
}
layer {
  name: "conv2/relu_3x3"
  type: "ReLU"
  bottom: "conv2/3x3"
  top: "conv2/3x3"
}
layer {
  name: "conv2/norm2"
  type: "LRN"
  bottom: "conv2/3x3"
  top: "conv2/norm2"
  lrn_param {
    local_size: 5
    alpha: 0.0001
    beta: 0.75
  }
}
layer {
  name: "pool2/3x3_s2"
  type: "Pooling"
  bottom: "conv2/norm2"
  top: "pool2/3x3_s2"
  pooling_param {
    pool: MAX
    kernel_size: 3
    stride: 2
  }
}
layer {
  name: "inception_3a/1x1"
  type: "Convolution"
  bottom: "pool2/3x3_s2"
  top: "inception_3a/1x1"
  param {
    lr_mult: 1
    decay_mult: 1
  }
  param {
    lr_mult: 2
    decay_mult: 0
  }
  convolution_param {
    num_output: 64
    kernel_size: 1
    weight_filler {
      type: "xavier"
      std: 0.03
    }
    bias_filler {
      type: "constant"
      value: 0.2
    }
  }
}
layer {
  name: "inception_3a/relu_1x1"
  type: "ReLU"
  bottom: "inception_3a/1x1"
  top: "inception_3a/1x1"
}
layer {
  name: "inception_3a/3x3_reduce"
  type: "Convolution"
  bottom: "pool2/3x3_s2"
  top: "inception_3a/3x3_reduce"
  param {
    lr_mult: 1
    decay_mult: 1
  }
  param {
    lr_mult: 2
    decay_mult: 0
  }
  convolution_param {
    num_output: 96
    kernel_size: 1
    weight_filler {
      type: "xavier"
      std: 0.09
    }
    bias_filler {
      type: "constant"
      value: 0.2
    }
  }
}
layer {
  name: "inception_3a/relu_3x3_reduce"
  type: "ReLU"
  bottom: "inception_3a/3x3_reduce"
  top: "inception_3a/3x3_reduce"
}
layer {
  name: "inception_3a/3x3"
  type: "Convolution"
  bottom: "inception_3a/3x3_reduce"
  top: "inception_3a/3x3"
  param {
    lr_mult: 1
    decay_mult: 1
  }
  param {
    lr_mult: 2
    decay_mult: 0
  }
  convolution_param {
    num_output: 128
    pad: 1
    kernel_size: 3
    weight_filler {
      type: "xavier"
      std: 0.03
    }
    bias_filler {
      type: "constant"
      value: 0.2
    }
  }
}
layer {
  name: "inception_3a/relu_3x3"
  type: "ReLU"
  bottom: "inception_3a/3x3"
  top: "inception_3a/3x3"
}
layer {
  name: "inception_3a/5x5_reduce"
  type: "Convolution"
  bottom: "pool2/3x3_s2"
  top: "inception_3a/5x5_reduce"
  param {
    lr_mult: 1
    decay_mult: 1
  }
  param {
    lr_mult: 2
    decay_mult: 0
  }
  convolution_param {
    num_output: 16
    kernel_size: 1
    weight_filler {
      type: "xavier"
      std: 0.2
    }
    bias_filler {
      type: "constant"
      value: 0.2
    }
  }
}
layer {
  name: "inception_3a/relu_5x5_reduce"
  type: "ReLU"
  bottom: "inception_3a/5x5_reduce"
  top: "inception_3a/5x5_reduce"
}
layer {
  name: "inception_3a/5x5"
  type: "Convolution"
  bottom: "inception_3a/5x5_reduce"
  top: "inception_3a/5x5"
  param {
    lr_mult: 1
    decay_mult: 1
  }
  param {
    lr_mult: 2
    decay_mult: 0
  }
  convolution_param {
    num_output: 32
    pad: 2
    kernel_size: 5
    weight_filler {
      type: "xavier"
      std: 0.03
    }
    bias_filler {
      type: "constant"
      value: 0.2
    }
  }
}
layer {
  name: "inception_3a/relu_5x5"
  type: "ReLU"
  bottom: "inception_3a/5x5"
  top: "inception_3a/5x5"
}
layer {
  name: "inception_3a/pool"
  type: "Pooling"
  bottom: "pool2/3x3_s2"
  top: "inception_3a/pool"
  pooling_param {
    pool: MAX
    kernel_size: 3
    stride: 1
    pad: 1
  }
}
layer {
  name: "inception_3a/pool_proj"
  type: "Convolution"
  bottom: "inception_3a/pool"
  top: "inception_3a/pool_proj"
  param {
    lr_mult: 1
    decay_mult: 1
  }
  param {
    lr_mult: 2
    decay_mult: 0
  }
  convolution_param {
    num_output: 32
    kernel_size: 1
    weight_filler {
      type: "xavier"
      std: 0.1
    }
    bias_filler {
      type: "constant"
      value: 0.2
    }
  }
}
layer {
  name: "inception_3a/relu_pool_proj"
  type: "ReLU"
  bottom: "inception_3a/pool_proj"
  top: "inception_3a/pool_proj"
}
layer {
  name: "inception_3a/output"
  type: "Concat"
  bottom: "inception_3a/1x1"
  bottom: "inception_3a/3x3"
  bottom: "inception_3a/5x5"
  bottom: "inception_3a/pool_proj"
  top: "inception_3a/output"
}
layer {
  name: "inception_3b/1x1"
  type: "Convolution"
  bottom: "inception_3a/output"
  top: "inception_3b/1x1"
  param {
    lr_mult: 1
    decay_mult: 1
  }
  param {
    lr_mult: 2
    decay_mult: 0
  }
  convolution_param {
    num_output: 128
    kernel_size: 1
    weight_filler {
      type: "xavier"
      std: 0.03
    }
    bias_filler {
      type: "constant"
      value: 0.2
    }
  }
}
layer {
  name: "inception_3b/relu_1x1"
  type: "ReLU"
  bottom: "inception_3b/1x1"
  top: "inception_3b/1x1"
}
layer {
  name: "inception_3b/3x3_reduce"
  type: "Convolution"
  bottom: "inception_3a/output"
  top: "inception_3b/3x3_reduce"
  param {
    lr_mult: 1
    decay_mult: 1
  }
  param {
    lr_mult: 2
    decay_mult: 0
  }
  convolution_param {
    num_output: 128
    kernel_size: 1
    weight_filler {
      type: "xavier"
      std: 0.09
    }
    bias_filler {
      type: "constant"
      value: 0.2
    }
  }
}
layer {
  name: "inception_3b/relu_3x3_reduce"
  type: "ReLU"
  bottom: "inception_3b/3x3_reduce"
  top: "inception_3b/3x3_reduce"
}
layer {
  name: "inception_3b/3x3"
  type: "Convolution"
  bottom: "inception_3b/3x3_reduce"
  top: "inception_3b/3x3"
  param {
    lr_mult: 1
    decay_mult: 1
  }
  param {
    lr_mult: 2
    decay_mult: 0
  }
  convolution_param {
    num_output: 192
    pad: 1
    kernel_size: 3
    weight_filler {
      type: "xavier"
      std: 0.03
    }
    bias_filler {
      type: "constant"
      value: 0.2
    }
  }
}
layer {
  name: "inception_3b/relu_3x3"
  type: "ReLU"
  bottom: "inception_3b/3x3"
  top: "inception_3b/3x3"
}
layer {
  name: "inception_3b/5x5_reduce"
  type: "Convolution"
  bottom: "inception_3a/output"
  top: "inception_3b/5x5_reduce"
  param {
    lr_mult: 1
    decay_mult: 1
  }
  param {
    lr_mult: 2
    decay_mult: 0
  }
  convolution_param {
    num_output: 32
    kernel_size: 1
    weight_filler {
      type: "xavier"
      std: 0.2
    }
    bias_filler {
      type: "constant"
      value: 0.2
    }
  }
}
layer {
  name: "inception_3b/relu_5x5_reduce"
  type: "ReLU"
  bottom: "inception_3b/5x5_reduce"
  top: "inception_3b/5x5_reduce"
}
layer {
  name: "inception_3b/5x5"
  type: "Convolution"
  bottom: "inception_3b/5x5_reduce"
  top: "inception_3b/5x5"
  param {
    lr_mult: 1
    decay_mult: 1
  }
  param {
    lr_mult: 2
    decay_mult: 0
  }
  convolution_param {
    num_output: 96
    pad: 2
    kernel_size: 5
    weight_filler {
      type: "xavier"
      std: 0.03
    }
    bias_filler {
      type: "constant"
      value: 0.2
    }
  }
}
layer {
  name: "inception_3b/relu_5x5"
  type: "ReLU"
  bottom: "inception_3b/5x5"
  top: "inception_3b/5x5"
}
layer {
  name: "inception_3b/pool"
  type: "Pooling"
  bottom: "inception_3a/output"
  top: "inception_3b/pool"
  pooling_param {
    pool: MAX
    kernel_size: 3
    stride: 1
    pad: 1
  }
}
layer {
  name: "inception_3b/pool_proj"
  type: "Convolution"
  bottom: "inception_3b/pool"
  top: "inception_3b/pool_proj"
  param {
    lr_mult: 1
    decay_mult: 1
  }
  param {
    lr_mult: 2
    decay_mult: 0
  }
  convolution_param {
    num_output: 64
    kernel_size: 1
    weight_filler {
      type: "xavier"
      std: 0.1
    }
    bias_filler {
      type: "constant"
      value: 0.2
    }
  }
}
layer {
  name: "inception_3b/relu_pool_proj"
  type: "ReLU"
  bottom: "inception_3b/pool_proj"
  top: "inception_3b/pool_proj"
}
layer {
  name: "inception_3b/output"
  type: "Concat"
  bottom: "inception_3b/1x1"
  bottom: "inception_3b/3x3"
  bottom: "inception_3b/5x5"
  bottom: "inception_3b/pool_proj"
  top: "inception_3b/output"
}
layer {
  name: "pool3/3x3_s2"
  type: "Pooling"
  bottom: "inception_3b/output"
  top: "pool3/3x3_s2"
  pooling_param {
    pool: MAX
    kernel_size: 3
    stride: 2
  }
}
layer {
  name: "inception_4a/1x1"
  type: "Convolution"
  bottom: "pool3/3x3_s2"
  top: "inception_4a/1x1"
  param {
    lr_mult: 1
    decay_mult: 1
  }
  param {
    lr_mult: 2
    decay_mult: 0
  }
  convolution_param {
    num_output: 192
    kernel_size: 1
    weight_filler {
      type: "xavier"
      std: 0.03
    }
    bias_filler {
      type: "constant"
      value: 0.2
    }
  }
}
layer {
  name: "inception_4a/relu_1x1"
  type: "ReLU"
  bottom: "inception_4a/1x1"
  top: "inception_4a/1x1"
}
layer {
  name: "inception_4a/3x3_reduce"
  type: "Convolution"
  bottom: "pool3/3x3_s2"
  top: "inception_4a/3x3_reduce"
  param {
    lr_mult: 1
    decay_mult: 1
  }
  param {
    lr_mult: 2
    decay_mult: 0
  }
  convolution_param {
    num_output: 96
    kernel_size: 1
    weight_filler {
      type: "xavier"
      std: 0.09
    }
    bias_filler {
      type: "constant"
      value: 0.2
    }
  }
}
layer {
  name: "inception_4a/relu_3x3_reduce"
  type: "ReLU"
  bottom: "inception_4a/3x3_reduce"
  top: "inception_4a/3x3_reduce"
}
layer {
  name: "inception_4a/3x3"
  type: "Convolution"
  bottom: "inception_4a/3x3_reduce"
  top: "inception_4a/3x3"
  param {
    lr_mult: 1
    decay_mult: 1
  }
  param {
    lr_mult: 2
    decay_mult: 0
  }
  convolution_param {
    num_output: 208
    pad: 1
    kernel_size: 3
    weight_filler {
      type: "xavier"
      std: 0.03
    }
    bias_filler {
      type: "constant"
      value: 0.2
    }
  }
}
layer {
  name: "inception_4a/relu_3x3"
  type: "ReLU"
  bottom: "inception_4a/3x3"
  top: "inception_4a/3x3"
}
layer {
  name: "inception_4a/5x5_reduce"
  type: "Convolution"
  bottom: "pool3/3x3_s2"
  top: "inception_4a/5x5_reduce"
  param {
    lr_mult: 1
    decay_mult: 1
  }
  param {
    lr_mult: 2
    decay_mult: 0
  }
  convolution_param {
    num_output: 16
    kernel_size: 1
    weight_filler {
      type: "xavier"
      std: 0.2
    }
    bias_filler {
      type: "constant"
      value: 0.2
    }
  }
}
layer {
  name: "inception_4a/relu_5x5_reduce"
  type: "ReLU"
  bottom: "inception_4a/5x5_reduce"
  top: "inception_4a/5x5_reduce"
}
layer {
  name: "inception_4a/5x5"
  type: "Convolution"
  bottom: "inception_4a/5x5_reduce"
  top: "inception_4a/5x5"
  param {
    lr_mult: 1
    decay_mult: 1
  }
  param {
    lr_mult: 2
    decay_mult: 0
  }
  convolution_param {
    num_output: 48
    pad: 2
    kernel_size: 5
    weight_filler {
      type: "xavier"
      std: 0.03
    }
    bias_filler {
      type: "constant"
      value: 0.2
    }
  }
}
layer {
  name: "inception_4a/relu_5x5"
  type: "ReLU"
  bottom: "inception_4a/5x5"
  top: "inception_4a/5x5"
}
layer {
  name: "inception_4a/pool"
  type: "Pooling"
  bottom: "pool3/3x3_s2"
  top: "inception_4a/pool"
  pooling_param {
    pool: MAX
    kernel_size: 3
    stride: 1
    pad: 1
  }
}
layer {
  name: "inception_4a/pool_proj"
  type: "Convolution"
  bottom: "inception_4a/pool"
  top: "inception_4a/pool_proj"
  param {
    lr_mult: 1
    decay_mult: 1
  }
  param {
    lr_mult: 2
    decay_mult: 0
  }
  convolution_param {
    num_output: 64
    kernel_size: 1
    weight_filler {
      type: "xavier"
      std: 0.1
    }
    bias_filler {
      type: "constant"
      value: 0.2
    }
  }
}
layer {
  name: "inception_4a/relu_pool_proj"
  type: "ReLU"
  bottom: "inception_4a/pool_proj"
  top: "inception_4a/pool_proj"
}
layer {
  name: "inception_4a/output"
  type: "Concat"
  bottom: "inception_4a/1x1"
  bottom: "inception_4a/3x3"
  bottom: "inception_4a/5x5"
  bottom: "inception_4a/pool_proj"
  top: "inception_4a/output"
}
layer {
  name: "loss1/ave_pool"
  type: "Pooling"
  bottom: "inception_4a/output"
  top: "loss1/ave_pool"
  pooling_param {
    pool: AVE
    kernel_size: 5
    stride: 3
  }
}
layer {
  name: "loss1/conv"
  type: "Convolution"
  bottom: "loss1/ave_pool"
  top: "loss1/conv"
  param {
    lr_mult: 1
    decay_mult: 1
  }
  param {
    lr_mult: 2
    decay_mult: 0
  }
  convolution_param {
    num_output: 128
    kernel_size: 1
    weight_filler {
      type: "xavier"
      std: 0.08
    }
    bias_filler {
      type: "constant"
      value: 0.2
    }
  }
}
layer {
  name: "loss1/relu_conv"
  type: "ReLU"
  bottom: "loss1/conv"
  top: "loss1/conv"
}
layer {
  name: "loss1/fc"
  type: "InnerProduct"
  bottom: "loss1/conv"
  top: "loss1/fc"
  param {
    lr_mult: 1
    decay_mult: 1
  }
  param {
    lr_mult: 2
    decay_mult: 0
  }
  inner_product_param {
    num_output: 1024
    weight_filler {
      type: "xavier"
      std: 0.02
    }
    bias_filler {
      type: "constant"
      value: 0.2
    }
  }
}
layer {
  name: "loss1/relu_fc"
  type: "ReLU"
  bottom: "loss1/fc"
  top: "loss1/fc"
}
layer {
  name: "loss1/drop_fc"
  type: "Dropout"
  bottom: "loss1/fc"
  top: "loss1/fc"
  dropout_param {
    dropout_ratio: 0.7
  }
}
layer {
  name: "loss1/classifier_plantvillage"
  type: "InnerProduct"
  bottom: "loss1/fc"
  top: "loss1/classifier_plantvillage"
  param {
    lr_mult: 1
    decay_mult: 1
  }
  param {
    lr_mult: 2
    decay_mult: 0
  }
  inner_product_param {
    num_output: 38
    weight_filler {
      type: "xavier"
      std: 0.0009765625
    }
    bias_filler {
      type: "constant"
      value: 0
    }
  }
}
layer {
  name: "inception_4b/1x1"
  type: "Convolution"
  bottom: "inception_4a/output"
  top: "inception_4b/1x1"
  param {
    lr_mult: 1
    decay_mult: 1
  }
  param {
    lr_mult: 2
    decay_mult: 0
  }
  convolution_param {
    num_output: 160
    kernel_size: 1
    weight_filler {
      type: "xavier"
      std: 0.03
    }
    bias_filler {
      type: "constant"
      value: 0.2
    }
  }
}
layer {
  name: "inception_4b/relu_1x1"
  type: "ReLU"
  bottom: "inception_4b/1x1"
  top: "inception_4b/1x1"
}
layer {
  name: "inception_4b/3x3_reduce"
  type: "Convolution"
  bottom: "inception_4a/output"
  top: "inception_4b/3x3_reduce"
  param {
    lr_mult: 1
    decay_mult: 1
  }
  param {
    lr_mult: 2
    decay_mult: 0
  }
  convolution_param {
    num_output: 112
    kernel_size: 1
    weight_filler {
      type: "xavier"
      std: 0.09
    }
    bias_filler {
      type: "constant"
      value: 0.2
    }
  }
}
layer {
  name: "inception_4b/relu_3x3_reduce"
  type: "ReLU"
  bottom: "inception_4b/3x3_reduce"
  top: "inception_4b/3x3_reduce"
}
layer {
  name: "inception_4b/3x3"
  type: "Convolution"
  bottom: "inception_4b/3x3_reduce"
  top: "inception_4b/3x3"
  param {
    lr_mult: 1
    decay_mult: 1
  }
  param {
    lr_mult: 2
    decay_mult: 0
  }
  convolution_param {
    num_output: 224
    pad: 1
    kernel_size: 3
    weight_filler {
      type: "xavier"
      std: 0.03
    }
    bias_filler {
      type: "constant"
      value: 0.2
    }
  }
}
layer {
  name: "inception_4b/relu_3x3"
  type: "ReLU"
  bottom: "inception_4b/3x3"
  top: "inception_4b/3x3"
}
layer {
  name: "inception_4b/5x5_reduce"
  type: "Convolution"
  bottom: "inception_4a/output"
  top: "inception_4b/5x5_reduce"
  param {
    lr_mult: 1
    decay_mult: 1
  }
  param {
    lr_mult: 2
    decay_mult: 0
  }
  convolution_param {
    num_output: 24
    kernel_size: 1
    weight_filler {
      type: "xavier"
      std: 0.2
    }
    bias_filler {
      type: "constant"
      value: 0.2
    }
  }
}
layer {
  name: "inception_4b/relu_5x5_reduce"
  type: "ReLU"
  bottom: "inception_4b/5x5_reduce"
  top: "inception_4b/5x5_reduce"
}
layer {
  name: "inception_4b/5x5"
  type: "Convolution"
  bottom: "inception_4b/5x5_reduce"
  top: "inception_4b/5x5"
  param {
    lr_mult: 1
    decay_mult: 1
  }
  param {
    lr_mult: 2
    decay_mult: 0
  }
  convolution_param {
    num_output: 64
    pad: 2
    kernel_size: 5
    weight_filler {
      type: "xavier"
      std: 0.03
    }
    bias_filler {
      type: "constant"
      value: 0.2
    }
  }
}
layer {
  name: "inception_4b/relu_5x5"
  type: "ReLU"
  bottom: "inception_4b/5x5"
  top: "inception_4b/5x5"
}
layer {
  name: "inception_4b/pool"
  type: "Pooling"
  bottom: "inception_4a/output"
  top: "inception_4b/pool"
  pooling_param {
    pool: MAX
    kernel_size: 3
    stride: 1
    pad: 1
  }
}
layer {
  name: "inception_4b/pool_proj"
  type: "Convolution"
  bottom: "inception_4b/pool"
  top: "inception_4b/pool_proj"
  param {
    lr_mult: 1
    decay_mult: 1
  }
  param {
    lr_mult: 2
    decay_mult: 0
  }
  convolution_param {
    num_output: 64
    kernel_size: 1
    weight_filler {
      type: "xavier"
      std: 0.1
    }
    bias_filler {
      type: "constant"
      value: 0.2
    }
  }
}
layer {
  name: "inception_4b/relu_pool_proj"
  type: "ReLU"
  bottom: "inception_4b/pool_proj"
  top: "inception_4b/pool_proj"
}
layer {
  name: "inception_4b/output"
  type: "Concat"
  bottom: "inception_4b/1x1"
  bottom: "inception_4b/3x3"
  bottom: "inception_4b/5x5"
  bottom: "inception_4b/pool_proj"
  top: "inception_4b/output"
}
layer {
  name: "inception_4c/1x1"
  type: "Convolution"
  bottom: "inception_4b/output"
  top: "inception_4c/1x1"
  param {
    lr_mult: 1
    decay_mult: 1
  }
  param {
    lr_mult: 2
    decay_mult: 0
  }
  convolution_param {
    num_output: 128
    kernel_size: 1
    weight_filler {
      type: "xavier"
      std: 0.03
    }
    bias_filler {
      type: "constant"
      value: 0.2
    }
  }
}
layer {
  name: "inception_4c/relu_1x1"
  type: "ReLU"
  bottom: "inception_4c/1x1"
  top: "inception_4c/1x1"
}
layer {
  name: "inception_4c/3x3_reduce"
  type: "Convolution"
  bottom: "inception_4b/output"
  top: "inception_4c/3x3_reduce"
  param {
    lr_mult: 1
    decay_mult: 1
  }
  param {
    lr_mult: 2
    decay_mult: 0
  }
  convolution_param {
    num_output: 128
    kernel_size: 1
    weight_filler {
      type: "xavier"
      std: 0.09
    }
    bias_filler {
      type: "constant"
      value: 0.2
    }
  }
}
layer {
  name: "inception_4c/relu_3x3_reduce"
  type: "ReLU"
  bottom: "inception_4c/3x3_reduce"
  top: "inception_4c/3x3_reduce"
}
layer {
  name: "inception_4c/3x3"
  type: "Convolution"
  bottom: "inception_4c/3x3_reduce"
  top: "inception_4c/3x3"
  param {
    lr_mult: 1
    decay_mult: 1
  }
  param {
    lr_mult: 2
    decay_mult: 0
  }
  convolution_param {
    num_output: 256
    pad: 1
    kernel_size: 3
    weight_filler {
      type: "xavier"
      std: 0.03
    }
    bias_filler {
      type: "constant"
      value: 0.2
    }
  }
}
layer {
  name: "inception_4c/relu_3x3"
  type: "ReLU"
  bottom: "inception_4c/3x3"
  top: "inception_4c/3x3"
}
layer {
  name: "inception_4c/5x5_reduce"
  type: "Convolution"
  bottom: "inception_4b/output"
  top: "inception_4c/5x5_reduce"
  param {
    lr_mult: 1
    decay_mult: 1
  }
  param {
    lr_mult: 2
    decay_mult: 0
  }
  convolution_param {
    num_output: 24
    kernel_size: 1
    weight_filler {
      type: "xavier"
      std: 0.2
    }
    bias_filler {
      type: "constant"
      value: 0.2
    }
  }
}
layer {
  name: "inception_4c/relu_5x5_reduce"
  type: "ReLU"
  bottom: "inception_4c/5x5_reduce"
  top: "inception_4c/5x5_reduce"
}
layer {
  name: "inception_4c/5x5"
  type: "Convolution"
  bottom: "inception_4c/5x5_reduce"
  top: "inception_4c/5x5"
  param {
    lr_mult: 1
    decay_mult: 1
  }
  param {
    lr_mult: 2
    decay_mult: 0
  }
  convolution_param {
    num_output: 64
    pad: 2
    kernel_size: 5
    weight_filler {
      type: "xavier"
      std: 0.03
    }
    bias_filler {
      type: "constant"
      value: 0.2
    }
  }
}
layer {
  name: "inception_4c/relu_5x5"
  type: "ReLU"
  bottom: "inception_4c/5x5"
  top: "inception_4c/5x5"
}
layer {
  name: "inception_4c/pool"
  type: "Pooling"
  bottom: "inception_4b/output"
  top: "inception_4c/pool"
  pooling_param {
    pool: MAX
    kernel_size: 3
    stride: 1
    pad: 1
  }
}
layer {
  name: "inception_4c/pool_proj"
  type: "Convolution"
  bottom: "inception_4c/pool"
  top: "inception_4c/pool_proj"
  param {
    lr_mult: 1
    decay_mult: 1
  }
  param {
    lr_mult: 2
    decay_mult: 0
  }
  convolution_param {
    num_output: 64
    kernel_size: 1
    weight_filler {
      type: "xavier"
      std: 0.1
    }
    bias_filler {
      type: "constant"
      value: 0.2
    }
  }
}
layer {
  name: "inception_4c/relu_pool_proj"
  type: "ReLU"
  bottom: "inception_4c/pool_proj"
  top: "inception_4c/pool_proj"
}
layer {
  name: "inception_4c/output"
  type: "Concat"
  bottom: "inception_4c/1x1"
  bottom: "inception_4c/3x3"
  bottom: "inception_4c/5x5"
  bottom: "inception_4c/pool_proj"
  top: "inception_4c/output"
}
layer {
  name: "inception_4d/1x1"
  type: "Convolution"
  bottom: "inception_4c/output"
  top: "inception_4d/1x1"
  param {
    lr_mult: 1
    decay_mult: 1
  }
  param {
    lr_mult: 2
    decay_mult: 0
  }
  convolution_param {
    num_output: 112
    kernel_size: 1
    weight_filler {
      type: "xavier"
      std: 0.03
    }
    bias_filler {
      type: "constant"
      value: 0.2
    }
  }
}
layer {
  name: "inception_4d/relu_1x1"
  type: "ReLU"
  bottom: "inception_4d/1x1"
  top: "inception_4d/1x1"
}
layer {
  name: "inception_4d/3x3_reduce"
  type: "Convolution"
  bottom: "inception_4c/output"
  top: "inception_4d/3x3_reduce"
  param {
    lr_mult: 1
    decay_mult: 1
  }
  param {
    lr_mult: 2
    decay_mult: 0
  }
  convolution_param {
    num_output: 144
    kernel_size: 1
    weight_filler {
      type: "xavier"
      std: 0.09
    }
    bias_filler {
      type: "constant"
      value: 0.2
    }
  }
}
layer {
  name: "inception_4d/relu_3x3_reduce"
  type: "ReLU"
  bottom: "inception_4d/3x3_reduce"
  top: "inception_4d/3x3_reduce"
}
layer {
  name: "inception_4d/3x3"
  type: "Convolution"
  bottom: "inception_4d/3x3_reduce"
  top: "inception_4d/3x3"
  param {
    lr_mult: 1
    decay_mult: 1
  }
  param {
    lr_mult: 2
    decay_mult: 0
  }
  convolution_param {
    num_output: 288
    pad: 1
    kernel_size: 3
    weight_filler {
      type: "xavier"
      std: 0.03
    }
    bias_filler {
      type: "constant"
      value: 0.2
    }
  }
}
layer {
  name: "inception_4d/relu_3x3"
  type: "ReLU"
  bottom: "inception_4d/3x3"
  top: "inception_4d/3x3"
}
layer {
  name: "inception_4d/5x5_reduce"
  type: "Convolution"
  bottom: "inception_4c/output"
  top: "inception_4d/5x5_reduce"
  param {
    lr_mult: 1
    decay_mult: 1
  }
  param {
    lr_mult: 2
    decay_mult: 0
  }
  convolution_param {
    num_output: 32
    kernel_size: 1
    weight_filler {
      type: "xavier"
      std: 0.2
    }
    bias_filler {
      type: "constant"
      value: 0.2
    }
  }
}
layer {
  name: "inception_4d/relu_5x5_reduce"
  type: "ReLU"
  bottom: "inception_4d/5x5_reduce"
  top: "inception_4d/5x5_reduce"
}
layer {
  name: "inception_4d/5x5"
  type: "Convolution"
  bottom: "inception_4d/5x5_reduce"
  top: "inception_4d/5x5"
  param {
    lr_mult: 1
    decay_mult: 1
  }
  param {
    lr_mult: 2
    decay_mult: 0
  }
  convolution_param {
    num_output: 64
    pad: 2
    kernel_size: 5
    weight_filler {
      type: "xavier"
      std: 0.03
    }
    bias_filler {
      type: "constant"
      value: 0.2
    }
  }
}
layer {
  name: "inception_4d/relu_5x5"
  type: "ReLU"
  bottom: "inception_4d/5x5"
  top: "inception_4d/5x5"
}
layer {
  name: "inception_4d/pool"
  type: "Pooling"
  bottom: "inception_4c/output"
  top: "inception_4d/pool"
  pooling_param {
    pool: MAX
    kernel_size: 3
    stride: 1
    pad: 1
  }
}
layer {
  name: "inception_4d/pool_proj"
  type: "Convolution"
  bottom: "inception_4d/pool"
  top: "inception_4d/pool_proj"
  param {
    lr_mult: 1
    decay_mult: 1
  }
  param {
    lr_mult: 2
    decay_mult: 0
  }
  convolution_param {
    num_output: 64
    kernel_size: 1
    weight_filler {
      type: "xavier"
      std: 0.1
    }
    bias_filler {
      type: "constant"
      value: 0.2
    }
  }
}
layer {
  name: "inception_4d/relu_pool_proj"
  type: "ReLU"
  bottom: "inception_4d/pool_proj"
  top: "inception_4d/pool_proj"
}
layer {
  name: "inception_4d/output"
  type: "Concat"
  bottom: "inception_4d/1x1"
  bottom: "inception_4d/3x3"
  bottom: "inception_4d/5x5"
  bottom: "inception_4d/pool_proj"
  top: "inception_4d/output"
}
layer {
  name: "loss2/ave_pool"
  type: "Pooling"
  bottom: "inception_4d/output"
  top: "loss2/ave_pool"
  pooling_param {
    pool: AVE
    kernel_size: 5
    stride: 3
  }
}
layer {
  name: "loss2/conv"
  type: "Convolution"
  bottom: "loss2/ave_pool"
  top: "loss2/conv"
  param {
    lr_mult: 1
    decay_mult: 1
  }
  param {
    lr_mult: 2
    decay_mult: 0
  }
  convolution_param {
    num_output: 128
    kernel_size: 1
    weight_filler {
      type: "xavier"
      std: 0.08
    }
    bias_filler {
      type: "constant"
      value: 0.2
    }
  }
}
layer {
  name: "loss2/relu_conv"
  type: "ReLU"
  bottom: "loss2/conv"
  top: "loss2/conv"
}
layer {
  name: "loss2/fc"
  type: "InnerProduct"
  bottom: "loss2/conv"
  top: "loss2/fc"
  param {
    lr_mult: 1
    decay_mult: 1
  }
  param {
    lr_mult: 2
    decay_mult: 0
  }
  inner_product_param {
    num_output: 1024
    weight_filler {
      type: "xavier"
      std: 0.02
    }
    bias_filler {
      type: "constant"
      value: 0.2
    }
  }
}
layer {
  name: "loss2/relu_fc"
  type: "ReLU"
  bottom: "loss2/fc"
  top: "loss2/fc"
}
layer {
  name: "loss2/drop_fc"
  type: "Dropout"
  bottom: "loss2/fc"
  top: "loss2/fc"
  dropout_param {
    dropout_ratio: 0.7
  }
}
layer {
  name: "loss2/classifier_plantvillage"
  type: "InnerProduct"
  bottom: "loss2/fc"
  top: "loss2/classifier_plantvillage"
  param {
    lr_mult: 1
    decay_mult: 1
  }
  param {
    lr_mult: 2
    decay_mult: 0
  }
  inner_product_param {
    num_output: 38
    weight_filler {
      type: "xavier"
      std: 0.0009765625
    }
    bias_filler {
      type: "constant"
      value: 0
    }
  }
}
layer {
  name: "inception_4e/1x1"
  type: "Convolution"
  bottom: "inception_4d/output"
  top: "inception_4e/1x1"
  param {
    lr_mult: 1
    decay_mult: 1
  }
  param {
    lr_mult: 2
    decay_mult: 0
  }
  convolution_param {
    num_output: 256
    kernel_size: 1
    weight_filler {
      type: "xavier"
      std: 0.03
    }
    bias_filler {
      type: "constant"
      value: 0.2
    }
  }
}
layer {
  name: "inception_4e/relu_1x1"
  type: "ReLU"
  bottom: "inception_4e/1x1"
  top: "inception_4e/1x1"
}
layer {
  name: "inception_4e/3x3_reduce"
  type: "Convolution"
  bottom: "inception_4d/output"
  top: "inception_4e/3x3_reduce"
  param {
    lr_mult: 1
    decay_mult: 1
  }
  param {
    lr_mult: 2
    decay_mult: 0
  }
  convolution_param {
    num_output: 160
    kernel_size: 1
    weight_filler {
      type: "xavier"
      std: 0.09
    }
    bias_filler {
      type: "constant"
      value: 0.2
    }
  }
}
layer {
  name: "inception_4e/relu_3x3_reduce"
  type: "ReLU"
  bottom: "inception_4e/3x3_reduce"
  top: "inception_4e/3x3_reduce"
}
layer {
  name: "inception_4e/3x3"
  type: "Convolution"
  bottom: "inception_4e/3x3_reduce"
  top: "inception_4e/3x3"
  param {
    lr_mult: 1
    decay_mult: 1
  }
  param {
    lr_mult: 2
    decay_mult: 0
  }
  convolution_param {
    num_output: 320
    pad: 1
    kernel_size: 3
    weight_filler {
      type: "xavier"
      std: 0.03
    }
    bias_filler {
      type: "constant"
      value: 0.2
    }
  }
}
layer {
  name: "inception_4e/relu_3x3"
  type: "ReLU"
  bottom: "inception_4e/3x3"
  top: "inception_4e/3x3"
}
layer {
  name: "inception_4e/5x5_reduce"
  type: "Convolution"
  bottom: "inception_4d/output"
  top: "inception_4e/5x5_reduce"
  param {
    lr_mult: 1
    decay_mult: 1
  }
  param {
    lr_mult: 2
    decay_mult: 0
  }
  convolution_param {
    num_output: 32
    kernel_size: 1
    weight_filler {
      type: "xavier"
      std: 0.2
    }
    bias_filler {
      type: "constant"
      value: 0.2
    }
  }
}
layer {
  name: "inception_4e/relu_5x5_reduce"
  type: "ReLU"
  bottom: "inception_4e/5x5_reduce"
  top: "inception_4e/5x5_reduce"
}
layer {
  name: "inception_4e/5x5"
  type: "Convolution"
  bottom: "inception_4e/5x5_reduce"
  top: "inception_4e/5x5"
  p
I0403 14:21:42.150481 29618 layer_factory.hpp:77] Creating layer data
I0403 14:21:42.151078 29618 net.cpp:91] Creating Layer data
I0403 14:21:42.151109 29618 net.cpp:399] data -> data
I0403 14:21:42.151160 29618 net.cpp:399] data -> label
I0403 14:21:42.151203 29618 data_transformer.cpp:25] Loading mean file from: /home/mohanty/data/final_dataset/lmdb/color-20-80/mean.binaryproto
I0403 14:21:42.153563 29621 db_lmdb.cpp:38] Opened lmdb /home/mohanty/data/final_dataset/lmdb/color-20-80/test_db
I0403 14:21:42.164387 29618 data_layer.cpp:41] output data size: 24,3,224,224
I0403 14:21:42.191679 29618 net.cpp:141] Setting up data
I0403 14:21:42.191767 29618 net.cpp:148] Top shape: 24 3 224 224 (3612672)
I0403 14:21:42.191792 29618 net.cpp:148] Top shape: 24 (24)
I0403 14:21:42.191807 29618 net.cpp:156] Memory required for data: 14450784
I0403 14:21:42.191836 29618 layer_factory.hpp:77] Creating layer label_data_1_split
I0403 14:21:42.191867 29618 net.cpp:91] Creating Layer label_data_1_split
I0403 14:21:42.191885 29618 net.cpp:425] label_data_1_split <- label
I0403 14:21:42.191916 29618 net.cpp:399] label_data_1_split -> label_data_1_split_0
I0403 14:21:42.191946 29618 net.cpp:399] label_data_1_split -> label_data_1_split_1
I0403 14:21:42.191968 29618 net.cpp:399] label_data_1_split -> label_data_1_split_2
I0403 14:21:42.191989 29618 net.cpp:399] label_data_1_split -> label_data_1_split_3
I0403 14:21:42.192011 29618 net.cpp:399] label_data_1_split -> label_data_1_split_4
I0403 14:21:42.192031 29618 net.cpp:399] label_data_1_split -> label_data_1_split_5
I0403 14:21:42.192050 29618 net.cpp:399] label_data_1_split -> label_data_1_split_6
I0403 14:21:42.192070 29618 net.cpp:399] label_data_1_split -> label_data_1_split_7
I0403 14:21:42.192090 29618 net.cpp:399] label_data_1_split -> label_data_1_split_8
I0403 14:21:42.192111 29618 net.cpp:399] label_data_1_split -> label_data_1_split_9
I0403 14:21:42.192230 29618 net.cpp:141] Setting up label_data_1_split
I0403 14:21:42.192255 29618 net.cpp:148] Top shape: 24 (24)
I0403 14:21:42.192272 29618 net.cpp:148] Top shape: 24 (24)
I0403 14:21:42.192289 29618 net.cpp:148] Top shape: 24 (24)
I0403 14:21:42.192306 29618 net.cpp:148] Top shape: 24 (24)
I0403 14:21:42.192325 29618 net.cpp:148] Top shape: 24 (24)
I0403 14:21:42.192344 29618 net.cpp:148] Top shape: 24 (24)
I0403 14:21:42.192363 29618 net.cpp:148] Top shape: 24 (24)
I0403 14:21:42.192379 29618 net.cpp:148] Top shape: 24 (24)
I0403 14:21:42.192395 29618 net.cpp:148] Top shape: 24 (24)
I0403 14:21:42.192412 29618 net.cpp:148] Top shape: 24 (24)
I0403 14:21:42.192458 29618 net.cpp:156] Memory required for data: 14451744
I0403 14:21:42.192476 29618 layer_factory.hpp:77] Creating layer conv1/7x7_s2
I0403 14:21:42.192509 29618 net.cpp:91] Creating Layer conv1/7x7_s2
I0403 14:21:42.192528 29618 net.cpp:425] conv1/7x7_s2 <- data
I0403 14:21:42.192550 29618 net.cpp:399] conv1/7x7_s2 -> conv1/7x7_s2
I0403 14:21:42.332720 29618 net.cpp:141] Setting up conv1/7x7_s2
I0403 14:21:42.332797 29618 net.cpp:148] Top shape: 24 64 112 112 (19267584)
I0403 14:21:42.332815 29618 net.cpp:156] Memory required for data: 91522080
I0403 14:21:42.332846 29618 layer_factory.hpp:77] Creating layer conv1/relu_7x7
I0403 14:21:42.332877 29618 net.cpp:91] Creating Layer conv1/relu_7x7
I0403 14:21:42.332898 29618 net.cpp:425] conv1/relu_7x7 <- conv1/7x7_s2
I0403 14:21:42.332918 29618 net.cpp:386] conv1/relu_7x7 -> conv1/7x7_s2 (in-place)
I0403 14:21:42.333189 29618 net.cpp:141] Setting up conv1/relu_7x7
I0403 14:21:42.333217 29618 net.cpp:148] Top shape: 24 64 112 112 (19267584)
I0403 14:21:42.333233 29618 net.cpp:156] Memory required for data: 168592416
I0403 14:21:42.333250 29618 layer_factory.hpp:77] Creating layer pool1/3x3_s2
I0403 14:21:42.333277 29618 net.cpp:91] Creating Layer pool1/3x3_s2
I0403 14:21:42.333297 29618 net.cpp:425] pool1/3x3_s2 <- conv1/7x7_s2
I0403 14:21:42.333323 29618 net.cpp:399] pool1/3x3_s2 -> pool1/3x3_s2
I0403 14:21:42.333402 29618 net.cpp:141] Setting up pool1/3x3_s2
I0403 14:21:42.333427 29618 net.cpp:148] Top shape: 24 64 56 56 (4816896)
I0403 14:21:42.333443 29618 net.cpp:156] Memory required for data: 187860000
I0403 14:21:42.333459 29618 layer_factory.hpp:77] Creating layer pool1/norm1
I0403 14:21:42.333487 29618 net.cpp:91] Creating Layer pool1/norm1
I0403 14:21:42.333504 29618 net.cpp:425] pool1/norm1 <- pool1/3x3_s2
I0403 14:21:42.333523 29618 net.cpp:399] pool1/norm1 -> pool1/norm1
I0403 14:21:42.333819 29618 net.cpp:141] Setting up pool1/norm1
I0403 14:21:42.333850 29618 net.cpp:148] Top shape: 24 64 56 56 (4816896)
I0403 14:21:42.333868 29618 net.cpp:156] Memory required for data: 207127584
I0403 14:21:42.333884 29618 layer_factory.hpp:77] Creating layer conv2/3x3_reduce
I0403 14:21:42.333912 29618 net.cpp:91] Creating Layer conv2/3x3_reduce
I0403 14:21:42.333931 29618 net.cpp:425] conv2/3x3_reduce <- pool1/norm1
I0403 14:21:42.333950 29618 net.cpp:399] conv2/3x3_reduce -> conv2/3x3_reduce
I0403 14:21:42.335340 29618 net.cpp:141] Setting up conv2/3x3_reduce
I0403 14:21:42.335371 29618 net.cpp:148] Top shape: 24 64 56 56 (4816896)
I0403 14:21:42.335387 29618 net.cpp:156] Memory required for data: 226395168
I0403 14:21:42.335409 29618 layer_factory.hpp:77] Creating layer conv2/relu_3x3_reduce
I0403 14:21:42.335429 29618 net.cpp:91] Creating Layer conv2/relu_3x3_reduce
I0403 14:21:42.335446 29618 net.cpp:425] conv2/relu_3x3_reduce <- conv2/3x3_reduce
I0403 14:21:42.335467 29618 net.cpp:386] conv2/relu_3x3_reduce -> conv2/3x3_reduce (in-place)
I0403 14:21:42.335743 29618 net.cpp:141] Setting up conv2/relu_3x3_reduce
I0403 14:21:42.335770 29618 net.cpp:148] Top shape: 24 64 56 56 (4816896)
I0403 14:21:42.335786 29618 net.cpp:156] Memory required for data: 245662752
I0403 14:21:42.335803 29618 layer_factory.hpp:77] Creating layer conv2/3x3
I0403 14:21:42.335827 29618 net.cpp:91] Creating Layer conv2/3x3
I0403 14:21:42.335846 29618 net.cpp:425] conv2/3x3 <- conv2/3x3_reduce
I0403 14:21:42.335870 29618 net.cpp:399] conv2/3x3 -> conv2/3x3
I0403 14:21:42.338145 29618 net.cpp:141] Setting up conv2/3x3
I0403 14:21:42.338176 29618 net.cpp:148] Top shape: 24 192 56 56 (14450688)
I0403 14:21:42.338192 29618 net.cpp:156] Memory required for data: 303465504
I0403 14:21:42.338214 29618 layer_factory.hpp:77] Creating layer conv2/relu_3x3
I0403 14:21:42.338238 29618 net.cpp:91] Creating Layer conv2/relu_3x3
I0403 14:21:42.338256 29618 net.cpp:425] conv2/relu_3x3 <- conv2/3x3
I0403 14:21:42.338274 29618 net.cpp:386] conv2/relu_3x3 -> conv2/3x3 (in-place)
I0403 14:21:42.338451 29618 net.cpp:141] Setting up conv2/relu_3x3
I0403 14:21:42.338480 29618 net.cpp:148] Top shape: 24 192 56 56 (14450688)
I0403 14:21:42.338526 29618 net.cpp:156] Memory required for data: 361268256
I0403 14:21:42.338544 29618 layer_factory.hpp:77] Creating layer conv2/norm2
I0403 14:21:42.338563 29618 net.cpp:91] Creating Layer conv2/norm2
I0403 14:21:42.338580 29618 net.cpp:425] conv2/norm2 <- conv2/3x3
I0403 14:21:42.338599 29618 net.cpp:399] conv2/norm2 -> conv2/norm2
I0403 14:21:42.338907 29618 net.cpp:141] Setting up conv2/norm2
I0403 14:21:42.338933 29618 net.cpp:148] Top shape: 24 192 56 56 (14450688)
I0403 14:21:42.338950 29618 net.cpp:156] Memory required for data: 419071008
I0403 14:21:42.338966 29618 layer_factory.hpp:77] Creating layer pool2/3x3_s2
I0403 14:21:42.338984 29618 net.cpp:91] Creating Layer pool2/3x3_s2
I0403 14:21:42.339000 29618 net.cpp:425] pool2/3x3_s2 <- conv2/norm2
I0403 14:21:42.339023 29618 net.cpp:399] pool2/3x3_s2 -> pool2/3x3_s2
I0403 14:21:42.339077 29618 net.cpp:141] Setting up pool2/3x3_s2
I0403 14:21:42.339102 29618 net.cpp:148] Top shape: 24 192 28 28 (3612672)
I0403 14:21:42.339118 29618 net.cpp:156] Memory required for data: 433521696
I0403 14:21:42.339133 29618 layer_factory.hpp:77] Creating layer pool2/3x3_s2_pool2/3x3_s2_0_split
I0403 14:21:42.339155 29618 net.cpp:91] Creating Layer pool2/3x3_s2_pool2/3x3_s2_0_split
I0403 14:21:42.339171 29618 net.cpp:425] pool2/3x3_s2_pool2/3x3_s2_0_split <- pool2/3x3_s2
I0403 14:21:42.339190 29618 net.cpp:399] pool2/3x3_s2_pool2/3x3_s2_0_split -> pool2/3x3_s2_pool2/3x3_s2_0_split_0
I0403 14:21:42.339212 29618 net.cpp:399] pool2/3x3_s2_pool2/3x3_s2_0_split -> pool2/3x3_s2_pool2/3x3_s2_0_split_1
I0403 14:21:42.339232 29618 net.cpp:399] pool2/3x3_s2_pool2/3x3_s2_0_split -> pool2/3x3_s2_pool2/3x3_s2_0_split_2
I0403 14:21:42.339253 29618 net.cpp:399] pool2/3x3_s2_pool2/3x3_s2_0_split -> pool2/3x3_s2_pool2/3x3_s2_0_split_3
I0403 14:21:42.339326 29618 net.cpp:141] Setting up pool2/3x3_s2_pool2/3x3_s2_0_split
I0403 14:21:42.339350 29618 net.cpp:148] Top shape: 24 192 28 28 (3612672)
I0403 14:21:42.339367 29618 net.cpp:148] Top shape: 24 192 28 28 (3612672)
I0403 14:21:42.339383 29618 net.cpp:148] Top shape: 24 192 28 28 (3612672)
I0403 14:21:42.339400 29618 net.cpp:148] Top shape: 24 192 28 28 (3612672)
I0403 14:21:42.339413 29618 net.cpp:156] Memory required for data: 491324448
I0403 14:21:42.339428 29618 layer_factory.hpp:77] Creating layer inception_3a/1x1
I0403 14:21:42.339452 29618 net.cpp:91] Creating Layer inception_3a/1x1
I0403 14:21:42.339470 29618 net.cpp:425] inception_3a/1x1 <- pool2/3x3_s2_pool2/3x3_s2_0_split_0
I0403 14:21:42.339493 29618 net.cpp:399] inception_3a/1x1 -> inception_3a/1x1
I0403 14:21:42.341011 29618 net.cpp:141] Setting up inception_3a/1x1
I0403 14:21:42.341040 29618 net.cpp:148] Top shape: 24 64 28 28 (1204224)
I0403 14:21:42.341058 29618 net.cpp:156] Memory required for data: 496141344
I0403 14:21:42.341078 29618 layer_factory.hpp:77] Creating layer inception_3a/relu_1x1
I0403 14:21:42.341114 29618 net.cpp:91] Creating Layer inception_3a/relu_1x1
I0403 14:21:42.341133 29618 net.cpp:425] inception_3a/relu_1x1 <- inception_3a/1x1
I0403 14:21:42.341152 29618 net.cpp:386] inception_3a/relu_1x1 -> inception_3a/1x1 (in-place)
I0403 14:21:42.341341 29618 net.cpp:141] Setting up inception_3a/relu_1x1
I0403 14:21:42.341368 29618 net.cpp:148] Top shape: 24 64 28 28 (1204224)
I0403 14:21:42.341383 29618 net.cpp:156] Memory required for data: 500958240
I0403 14:21:42.341400 29618 layer_factory.hpp:77] Creating layer inception_3a/3x3_reduce
I0403 14:21:42.341423 29618 net.cpp:91] Creating Layer inception_3a/3x3_reduce
I0403 14:21:42.341444 29618 net.cpp:425] inception_3a/3x3_reduce <- pool2/3x3_s2_pool2/3x3_s2_0_split_1
I0403 14:21:42.341464 29618 net.cpp:399] inception_3a/3x3_reduce -> inception_3a/3x3_reduce
I0403 14:21:42.344132 29618 net.cpp:141] Setting up inception_3a/3x3_reduce
I0403 14:21:42.344164 29618 net.cpp:148] Top shape: 24 96 28 28 (1806336)
I0403 14:21:42.344182 29618 net.cpp:156] Memory required for data: 508183584
I0403 14:21:42.344204 29618 layer_factory.hpp:77] Creating layer inception_3a/relu_3x3_reduce
I0403 14:21:42.344245 29618 net.cpp:91] Creating Layer inception_3a/relu_3x3_reduce
I0403 14:21:42.344265 29618 net.cpp:425] inception_3a/relu_3x3_reduce <- inception_3a/3x3_reduce
I0403 14:21:42.344283 29618 net.cpp:386] inception_3a/relu_3x3_reduce -> inception_3a/3x3_reduce (in-place)
I0403 14:21:42.344475 29618 net.cpp:141] Setting up inception_3a/relu_3x3_reduce
I0403 14:21:42.344502 29618 net.cpp:148] Top shape: 24 96 28 28 (1806336)
I0403 14:21:42.344518 29618 net.cpp:156] Memory required for data: 515408928
I0403 14:21:42.344534 29618 layer_factory.hpp:77] Creating layer inception_3a/3x3
I0403 14:21:42.344558 29618 net.cpp:91] Creating Layer inception_3a/3x3
I0403 14:21:42.344576 29618 net.cpp:425] inception_3a/3x3 <- inception_3a/3x3_reduce
I0403 14:21:42.344599 29618 net.cpp:399] inception_3a/3x3 -> inception_3a/3x3
I0403 14:21:42.346278 29618 net.cpp:141] Setting up inception_3a/3x3
I0403 14:21:42.346308 29618 net.cpp:148] Top shape: 24 128 28 28 (2408448)
I0403 14:21:42.346330 29618 net.cpp:156] Memory required for data: 525042720
I0403 14:21:42.346351 29618 layer_factory.hpp:77] Creating layer inception_3a/relu_3x3
I0403 14:21:42.346374 29618 net.cpp:91] Creating Layer inception_3a/relu_3x3
I0403 14:21:42.346392 29618 net.cpp:425] inception_3a/relu_3x3 <- inception_3a/3x3
I0403 14:21:42.346411 29618 net.cpp:386] inception_3a/relu_3x3 -> inception_3a/3x3 (in-place)
I0403 14:21:42.346695 29618 net.cpp:141] Setting up inception_3a/relu_3x3
I0403 14:21:42.346724 29618 net.cpp:148] Top shape: 24 128 28 28 (2408448)
I0403 14:21:42.346740 29618 net.cpp:156] Memory required for data: 534676512
I0403 14:21:42.346756 29618 layer_factory.hpp:77] Creating layer inception_3a/5x5_reduce
I0403 14:21:42.346781 29618 net.cpp:91] Creating Layer inception_3a/5x5_reduce
I0403 14:21:42.346799 29618 net.cpp:425] inception_3a/5x5_reduce <- pool2/3x3_s2_pool2/3x3_s2_0_split_2
I0403 14:21:42.346822 29618 net.cpp:399] inception_3a/5x5_reduce -> inception_3a/5x5_reduce
I0403 14:21:42.347802 29618 net.cpp:141] Setting up inception_3a/5x5_reduce
I0403 14:21:42.347831 29618 net.cpp:148] Top shape: 24 16 28 28 (301056)
I0403 14:21:42.347848 29618 net.cpp:156] Memory required for data: 535880736
I0403 14:21:42.347868 29618 layer_factory.hpp:77] Creating layer inception_3a/relu_5x5_reduce
I0403 14:21:42.347892 29618 net.cpp:91] Creating Layer inception_3a/relu_5x5_reduce
I0403 14:21:42.347909 29618 net.cpp:425] inception_3a/relu_5x5_reduce <- inception_3a/5x5_reduce
I0403 14:21:42.347929 29618 net.cpp:386] inception_3a/relu_5x5_reduce -> inception_3a/5x5_reduce (in-place)
I0403 14:21:42.348233 29618 net.cpp:141] Setting up inception_3a/relu_5x5_reduce
I0403 14:21:42.348263 29618 net.cpp:148] Top shape: 24 16 28 28 (301056)
I0403 14:21:42.348281 29618 net.cpp:156] Memory required for data: 537084960
I0403 14:21:42.348297 29618 layer_factory.hpp:77] Creating layer inception_3a/5x5
I0403 14:21:42.348325 29618 net.cpp:91] Creating Layer inception_3a/5x5
I0403 14:21:42.348345 29618 net.cpp:425] inception_3a/5x5 <- inception_3a/5x5_reduce
I0403 14:21:42.348366 29618 net.cpp:399] inception_3a/5x5 -> inception_3a/5x5
I0403 14:21:42.349397 29618 net.cpp:141] Setting up inception_3a/5x5
I0403 14:21:42.349426 29618 net.cpp:148] Top shape: 24 32 28 28 (602112)
I0403 14:21:42.349443 29618 net.cpp:156] Memory required for data: 539493408
I0403 14:21:42.349462 29618 layer_factory.hpp:77] Creating layer inception_3a/relu_5x5
I0403 14:21:42.349484 29618 net.cpp:91] Creating Layer inception_3a/relu_5x5
I0403 14:21:42.349503 29618 net.cpp:425] inception_3a/relu_5x5 <- inception_3a/5x5
I0403 14:21:42.349522 29618 net.cpp:386] inception_3a/relu_5x5 -> inception_3a/5x5 (in-place)
I0403 14:21:42.349714 29618 net.cpp:141] Setting up inception_3a/relu_5x5
I0403 14:21:42.349740 29618 net.cpp:148] Top shape: 24 32 28 28 (602112)
I0403 14:21:42.349757 29618 net.cpp:156] Memory required for data: 541901856
I0403 14:21:42.349772 29618 layer_factory.hpp:77] Creating layer inception_3a/pool
I0403 14:21:42.349794 29618 net.cpp:91] Creating Layer inception_3a/pool
I0403 14:21:42.349813 29618 net.cpp:425] inception_3a/pool <- pool2/3x3_s2_pool2/3x3_s2_0_split_3
I0403 14:21:42.349849 29618 net.cpp:399] inception_3a/pool -> inception_3a/pool
I0403 14:21:42.349910 29618 net.cpp:141] Setting up inception_3a/pool
I0403 14:21:42.349936 29618 net.cpp:148] Top shape: 24 192 28 28 (3612672)
I0403 14:21:42.349951 29618 net.cpp:156] Memory required for data: 556352544
I0403 14:21:42.349967 29618 layer_factory.hpp:77] Creating layer inception_3a/pool_proj
I0403 14:21:42.349992 29618 net.cpp:91] Creating Layer inception_3a/pool_proj
I0403 14:21:42.350009 29618 net.cpp:425] inception_3a/pool_proj <- inception_3a/pool
I0403 14:21:42.350033 29618 net.cpp:399] inception_3a/pool_proj -> inception_3a/pool_proj
I0403 14:21:42.351008 29618 net.cpp:141] Setting up inception_3a/pool_proj
I0403 14:21:42.351039 29618 net.cpp:148] Top shape: 24 32 28 28 (602112)
I0403 14:21:42.351058 29618 net.cpp:156] Memory required for data: 558760992
I0403 14:21:42.351080 29618 layer_factory.hpp:77] Creating layer inception_3a/relu_pool_proj
I0403 14:21:42.351104 29618 net.cpp:91] Creating Layer inception_3a/relu_pool_proj
I0403 14:21:42.351122 29618 net.cpp:425] inception_3a/relu_pool_proj <- inception_3a/pool_proj
I0403 14:21:42.351141 29618 net.cpp:386] inception_3a/relu_pool_proj -> inception_3a/pool_proj (in-place)
I0403 14:21:42.351428 29618 net.cpp:141] Setting up inception_3a/relu_pool_proj
I0403 14:21:42.351454 29618 net.cpp:148] Top shape: 24 32 28 28 (602112)
I0403 14:21:42.351470 29618 net.cpp:156] Memory required for data: 561169440
I0403 14:21:42.351487 29618 layer_factory.hpp:77] Creating layer inception_3a/output
I0403 14:21:42.351510 29618 net.cpp:91] Creating Layer inception_3a/output
I0403 14:21:42.351527 29618 net.cpp:425] inception_3a/output <- inception_3a/1x1
I0403 14:21:42.351547 29618 net.cpp:425] inception_3a/output <- inception_3a/3x3
I0403 14:21:42.351563 29618 net.cpp:425] inception_3a/output <- inception_3a/5x5
I0403 14:21:42.351580 29618 net.cpp:425] inception_3a/output <- inception_3a/pool_proj
I0403 14:21:42.351598 29618 net.cpp:399] inception_3a/output -> inception_3a/output
I0403 14:21:42.351649 29618 net.cpp:141] Setting up inception_3a/output
I0403 14:21:42.351675 29618 net.cpp:148] Top shape: 24 256 28 28 (4816896)
I0403 14:21:42.351692 29618 net.cpp:156] Memory required for data: 580437024
I0403 14:21:42.351707 29618 layer_factory.hpp:77] Creating layer inception_3a/output_inception_3a/output_0_split
I0403 14:21:42.351727 29618 net.cpp:91] Creating Layer inception_3a/output_inception_3a/output_0_split
I0403 14:21:42.351742 29618 net.cpp:425] inception_3a/output_inception_3a/output_0_split <- inception_3a/output
I0403 14:21:42.351763 29618 net.cpp:399] inception_3a/output_inception_3a/output_0_split -> inception_3a/output_inception_3a/output_0_split_0
I0403 14:21:42.351786 29618 net.cpp:399] inception_3a/output_inception_3a/output_0_split -> inception_3a/output_inception_3a/output_0_split_1
I0403 14:21:42.351810 29618 net.cpp:399] inception_3a/output_inception_3a/output_0_split -> inception_3a/output_inception_3a/output_0_split_2
I0403 14:21:42.351833 29618 net.cpp:399] inception_3a/output_inception_3a/output_0_split -> inception_3a/output_inception_3a/output_0_split_3
I0403 14:21:42.351910 29618 net.cpp:141] Setting up inception_3a/output_inception_3a/output_0_split
I0403 14:21:42.351935 29618 net.cpp:148] Top shape: 24 256 28 28 (4816896)
I0403 14:21:42.351953 29618 net.cpp:148] Top shape: 24 256 28 28 (4816896)
I0403 14:21:42.351970 29618 net.cpp:148] Top shape: 24 256 28 28 (4816896)
I0403 14:21:42.351986 29618 net.cpp:148] Top shape: 24 256 28 28 (4816896)
I0403 14:21:42.352000 29618 net.cpp:156] Memory required for data: 657507360
I0403 14:21:42.352016 29618 layer_factory.hpp:77] Creating layer inception_3b/1x1
I0403 14:21:42.352041 29618 net.cpp:91] Creating Layer inception_3b/1x1
I0403 14:21:42.352059 29618 net.cpp:425] inception_3b/1x1 <- inception_3a/output_inception_3a/output_0_split_0
I0403 14:21:42.352084 29618 net.cpp:399] inception_3b/1x1 -> inception_3b/1x1
I0403 14:21:42.353256 29618 net.cpp:141] Setting up inception_3b/1x1
I0403 14:21:42.353298 29618 net.cpp:148] Top shape: 24 128 28 28 (2408448)
I0403 14:21:42.353320 29618 net.cpp:156] Memory required for data: 667141152
I0403 14:21:42.353341 29618 layer_factory.hpp:77] Creating layer inception_3b/relu_1x1
I0403 14:21:42.353361 29618 net.cpp:91] Creating Layer inception_3b/relu_1x1
I0403 14:21:42.353379 29618 net.cpp:425] inception_3b/relu_1x1 <- inception_3b/1x1
I0403 14:21:42.353400 29618 net.cpp:386] inception_3b/relu_1x1 -> inception_3b/1x1 (in-place)
I0403 14:21:42.353580 29618 net.cpp:141] Setting up inception_3b/relu_1x1
I0403 14:21:42.353608 29618 net.cpp:148] Top shape: 24 128 28 28 (2408448)
I0403 14:21:42.353624 29618 net.cpp:156] Memory required for data: 676774944
I0403 14:21:42.353641 29618 layer_factory.hpp:77] Creating layer inception_3b/3x3_reduce
I0403 14:21:42.353664 29618 net.cpp:91] Creating Layer inception_3b/3x3_reduce
I0403 14:21:42.353682 29618 net.cpp:425] inception_3b/3x3_reduce <- inception_3a/output_inception_3a/output_0_split_1
I0403 14:21:42.353705 29618 net.cpp:399] inception_3b/3x3_reduce -> inception_3b/3x3_reduce
I0403 14:21:42.354894 29618 net.cpp:141] Setting up inception_3b/3x3_reduce
I0403 14:21:42.354925 29618 net.cpp:148] Top shape: 24 128 28 28 (2408448)
I0403 14:21:42.354943 29618 net.cpp:156] Memory required for data: 686408736
I0403 14:21:42.354964 29618 layer_factory.hpp:77] Creating layer inception_3b/relu_3x3_reduce
I0403 14:21:42.354984 29618 net.cpp:91] Creating Layer inception_3b/relu_3x3_reduce
I0403 14:21:42.355005 29618 net.cpp:425] inception_3b/relu_3x3_reduce <- inception_3b/3x3_reduce
I0403 14:21:42.355025 29618 net.cpp:386] inception_3b/relu_3x3_reduce -> inception_3b/3x3_reduce (in-place)
I0403 14:21:42.355203 29618 net.cpp:141] Setting up inception_3b/relu_3x3_reduce
I0403 14:21:42.355229 29618 net.cpp:148] Top shape: 24 128 28 28 (2408448)
I0403 14:21:42.355247 29618 net.cpp:156] Memory required for data: 696042528
I0403 14:21:42.355262 29618 layer_factory.hpp:77] Creating layer inception_3b/3x3
I0403 14:21:42.355289 29618 net.cpp:91] Creating Layer inception_3b/3x3
I0403 14:21:42.355309 29618 net.cpp:425] inception_3b/3x3 <- inception_3b/3x3_reduce
I0403 14:21:42.355335 29618 net.cpp:399] inception_3b/3x3 -> inception_3b/3x3
I0403 14:21:42.358297 29618 net.cpp:141] Setting up inception_3b/3x3
I0403 14:21:42.358332 29618 net.cpp:148] Top shape: 24 192 28 28 (3612672)
I0403 14:21:42.358351 29618 net.cpp:156] Memory required for data: 710493216
I0403 14:21:42.358371 29618 layer_factory.hpp:77] Creating layer inception_3b/relu_3x3
I0403 14:21:42.358393 29618 net.cpp:91] Creating Layer inception_3b/relu_3x3
I0403 14:21:42.358412 29618 net.cpp:425] inception_3b/relu_3x3 <- inception_3b/3x3
I0403 14:21:42.358430 29618 net.cpp:386] inception_3b/relu_3x3 -> inception_3b/3x3 (in-place)
I0403 14:21:42.358711 29618 net.cpp:141] Setting up inception_3b/relu_3x3
I0403 14:21:42.358739 29618 net.cpp:148] Top shape: 24 192 28 28 (3612672)
I0403 14:21:42.358755 29618 net.cpp:156] Memory required for data: 724943904
I0403 14:21:42.358772 29618 layer_factory.hpp:77] Creating layer inception_3b/5x5_reduce
I0403 14:21:42.358796 29618 net.cpp:91] Creating Layer inception_3b/5x5_reduce
I0403 14:21:42.358816 29618 net.cpp:425] inception_3b/5x5_reduce <- inception_3a/output_inception_3a/output_0_split_2
I0403 14:21:42.358839 29618 net.cpp:399] inception_3b/5x5_reduce -> inception_3b/5x5_reduce
I0403 14:21:42.359848 29618 net.cpp:141] Setting up inception_3b/5x5_reduce
I0403 14:21:42.359879 29618 net.cpp:148] Top shape: 24 32 28 28 (602112)
I0403 14:21:42.359894 29618 net.cpp:156] Memory required for data: 727352352
I0403 14:21:42.359915 29618 layer_factory.hpp:77] Creating layer inception_3b/relu_5x5_reduce
I0403 14:21:42.359936 29618 net.cpp:91] Creating Layer inception_3b/relu_5x5_reduce
I0403 14:21:42.359956 29618 net.cpp:425] inception_3b/relu_5x5_reduce <- inception_3b/5x5_reduce
I0403 14:21:42.359973 29618 net.cpp:386] inception_3b/relu_5x5_reduce -> inception_3b/5x5_reduce (in-place)
I0403 14:21:42.360154 29618 net.cpp:141] Setting up inception_3b/relu_5x5_reduce
I0403 14:21:42.360195 29618 net.cpp:148] Top shape: 24 32 28 28 (602112)
I0403 14:21:42.360213 29618 net.cpp:156] Memory required for data: 729760800
I0403 14:21:42.360229 29618 layer_factory.hpp:77] Creating layer inception_3b/5x5
I0403 14:21:42.360255 29618 net.cpp:91] Creating Layer inception_3b/5x5
I0403 14:21:42.360273 29618 net.cpp:425] inception_3b/5x5 <- inception_3b/5x5_reduce
I0403 14:21:42.360294 29618 net.cpp:399] inception_3b/5x5 -> inception_3b/5x5
I0403 14:21:42.362296 29618 net.cpp:141] Setting up inception_3b/5x5
I0403 14:21:42.362331 29618 net.cpp:148] Top shape: 24 96 28 28 (1806336)
I0403 14:21:42.362349 29618 net.cpp:156] Memory required for data: 736986144
I0403 14:21:42.362368 29618 layer_factory.hpp:77] Creating layer inception_3b/relu_5x5
I0403 14:21:42.362387 29618 net.cpp:91] Creating Layer inception_3b/relu_5x5
I0403 14:21:42.362406 29618 net.cpp:425] inception_3b/relu_5x5 <- inception_3b/5x5
I0403 14:21:42.362426 29618 net.cpp:386] inception_3b/relu_5x5 -> inception_3b/5x5 (in-place)
I0403 14:21:42.362617 29618 net.cpp:141] Setting up inception_3b/relu_5x5
I0403 14:21:42.362643 29618 net.cpp:148] Top shape: 24 96 28 28 (1806336)
I0403 14:21:42.362659 29618 net.cpp:156] Memory required for data: 744211488
I0403 14:21:42.362675 29618 layer_factory.hpp:77] Creating layer inception_3b/pool
I0403 14:21:42.362694 29618 net.cpp:91] Creating Layer inception_3b/pool
I0403 14:21:42.362711 29618 net.cpp:425] inception_3b/pool <- inception_3a/output_inception_3a/output_0_split_3
I0403 14:21:42.362731 29618 net.cpp:399] inception_3b/pool -> inception_3b/pool
I0403 14:21:42.362792 29618 net.cpp:141] Setting up inception_3b/pool
I0403 14:21:42.362818 29618 net.cpp:148] Top shape: 24 256 28 28 (4816896)
I0403 14:21:42.362833 29618 net.cpp:156] Memory required for data: 763479072
I0403 14:21:42.362848 29618 layer_factory.hpp:77] Creating layer inception_3b/pool_proj
I0403 14:21:42.362870 29618 net.cpp:91] Creating Layer inception_3b/pool_proj
I0403 14:21:42.362889 29618 net.cpp:425] inception_3b/pool_proj <- inception_3b/pool
I0403 14:21:42.362912 29618 net.cpp:399] inception_3b/pool_proj -> inception_3b/pool_proj
I0403 14:21:42.363960 29618 net.cpp:141] Setting up inception_3b/pool_proj
I0403 14:21:42.363991 29618 net.cpp:148] Top shape: 24 64 28 28 (1204224)
I0403 14:21:42.364008 29618 net.cpp:156] Memory required for data: 768295968
I0403 14:21:42.364027 29618 layer_factory.hpp:77] Creating layer inception_3b/relu_pool_proj
I0403 14:21:42.364048 29618 net.cpp:91] Creating Layer inception_3b/relu_pool_proj
I0403 14:21:42.364065 29618 net.cpp:425] inception_3b/relu_pool_proj <- inception_3b/pool_proj
I0403 14:21:42.364085 29618 net.cpp:386] inception_3b/relu_pool_proj -> inception_3b/pool_proj (in-place)
I0403 14:21:42.364486 29618 net.cpp:141] Setting up inception_3b/relu_pool_proj
I0403 14:21:42.364516 29618 net.cpp:148] Top shape: 24 64 28 28 (1204224)
I0403 14:21:42.364534 29618 net.cpp:156] Memory required for data: 773112864
I0403 14:21:42.364553 29618 layer_factory.hpp:77] Creating layer inception_3b/output
I0403 14:21:42.364573 29618 net.cpp:91] Creating Layer inception_3b/output
I0403 14:21:42.364588 29618 net.cpp:425] inception_3b/output <- inception_3b/1x1
I0403 14:21:42.364605 29618 net.cpp:425] inception_3b/output <- inception_3b/3x3
I0403 14:21:42.364622 29618 net.cpp:425] inception_3b/output <- inception_3b/5x5
I0403 14:21:42.364639 29618 net.cpp:425] inception_3b/output <- inception_3b/pool_proj
I0403 14:21:42.364657 29618 net.cpp:399] inception_3b/output -> inception_3b/output
I0403 14:21:42.364704 29618 net.cpp:141] Setting up inception_3b/output
I0403 14:21:42.364729 29618 net.cpp:148] Top shape: 24 480 28 28 (9031680)
I0403 14:21:42.364744 29618 net.cpp:156] Memory required for data: 809239584
I0403 14:21:42.364760 29618 layer_factory.hpp:77] Creating layer pool3/3x3_s2
I0403 14:21:42.364780 29618 net.cpp:91] Creating Layer pool3/3x3_s2
I0403 14:21:42.364797 29618 net.cpp:425] pool3/3x3_s2 <- inception_3b/output
I0403 14:21:42.364816 29618 net.cpp:399] pool3/3x3_s2 -> pool3/3x3_s2
I0403 14:21:42.364892 29618 net.cpp:141] Setting up pool3/3x3_s2
I0403 14:21:42.364917 29618 net.cpp:148] Top shape: 24 480 14 14 (2257920)
I0403 14:21:42.364931 29618 net.cpp:156] Memory required for data: 818271264
I0403 14:21:42.364946 29618 layer_factory.hpp:77] Creating layer pool3/3x3_s2_pool3/3x3_s2_0_split
I0403 14:21:42.364964 29618 net.cpp:91] Creating Layer pool3/3x3_s2_pool3/3x3_s2_0_split
I0403 14:21:42.364980 29618 net.cpp:425] pool3/3x3_s2_pool3/3x3_s2_0_split <- pool3/3x3_s2
I0403 14:21:42.365001 29618 net.cpp:399] pool3/3x3_s2_pool3/3x3_s2_0_split -> pool3/3x3_s2_pool3/3x3_s2_0_split_0
I0403 14:21:42.365021 29618 net.cpp:399] pool3/3x3_s2_pool3/3x3_s2_0_split -> pool3/3x3_s2_pool3/3x3_s2_0_split_1
I0403 14:21:42.365042 29618 net.cpp:399] pool3/3x3_s2_pool3/3x3_s2_0_split -> pool3/3x3_s2_pool3/3x3_s2_0_split_2
I0403 14:21:42.365062 29618 net.cpp:399] pool3/3x3_s2_pool3/3x3_s2_0_split -> pool3/3x3_s2_pool3/3x3_s2_0_split_3
I0403 14:21:42.365140 29618 net.cpp:141] Setting up pool3/3x3_s2_pool3/3x3_s2_0_split
I0403 14:21:42.365164 29618 net.cpp:148] Top shape: 24 480 14 14 (2257920)
I0403 14:21:42.365181 29618 net.cpp:148] Top shape: 24 480 14 14 (2257920)
I0403 14:21:42.365198 29618 net.cpp:148] Top shape: 24 480 14 14 (2257920)
I0403 14:21:42.365214 29618 net.cpp:148] Top shape: 24 480 14 14 (2257920)
I0403 14:21:42.365228 29618 net.cpp:156] Memory required for data: 854397984
I0403 14:21:42.365243 29618 layer_factory.hpp:77] Creating layer inception_4a/1x1
I0403 14:21:42.365268 29618 net.cpp:91] Creating Layer inception_4a/1x1
I0403 14:21:42.365288 29618 net.cpp:425] inception_4a/1x1 <- pool3/3x3_s2_pool3/3x3_s2_0_split_0
I0403 14:21:42.365311 29618 net.cpp:399] inception_4a/1x1 -> inception_4a/1x1
I0403 14:21:42.366884 29618 net.cpp:141] Setting up inception_4a/1x1
I0403 14:21:42.366915 29618 net.cpp:148] Top shape: 24 192 14 14 (903168)
I0403 14:21:42.366933 29618 net.cpp:156] Memory required for data: 858010656
I0403 14:21:42.366953 29618 layer_factory.hpp:77] Creating layer inception_4a/relu_1x1
I0403 14:21:42.366972 29618 net.cpp:91] Creating Layer inception_4a/relu_1x1
I0403 14:21:42.366989 29618 net.cpp:425] inception_4a/relu_1x1 <- inception_4a/1x1
I0403 14:21:42.367009 29618 net.cpp:386] inception_4a/relu_1x1 -> inception_4a/1x1 (in-place)
I0403 14:21:42.367188 29618 net.cpp:141] Setting up inception_4a/relu_1x1
I0403 14:21:42.367215 29618 net.cpp:148] Top shape: 24 192 14 14 (903168)
I0403 14:21:42.367231 29618 net.cpp:156] Memory required for data: 861623328
I0403 14:21:42.367247 29618 layer_factory.hpp:77] Creating layer inception_4a/3x3_reduce
I0403 14:21:42.367269 29618 net.cpp:91] Creating Layer inception_4a/3x3_reduce
I0403 14:21:42.367287 29618 net.cpp:425] inception_4a/3x3_reduce <- pool3/3x3_s2_pool3/3x3_s2_0_split_1
I0403 14:21:42.367310 29618 net.cpp:399] inception_4a/3x3_reduce -> inception_4a/3x3_reduce
I0403 14:21:42.368589 29618 net.cpp:141] Setting up inception_4a/3x3_reduce
I0403 14:21:42.368620 29618 net.cpp:148] Top shape: 24 96 14 14 (451584)
I0403 14:21:42.368638 29618 net.cpp:156] Memory required for data: 863429664
I0403 14:21:42.368661 29618 layer_factory.hpp:77] Creating layer inception_4a/relu_3x3_reduce
I0403 14:21:42.368683 29618 net.cpp:91] Creating Layer inception_4a/relu_3x3_reduce
I0403 14:21:42.368702 29618 net.cpp:425] inception_4a/relu_3x3_reduce <- inception_4a/3x3_reduce
I0403 14:21:42.368721 29618 net.cpp:386] inception_4a/relu_3x3_reduce -> inception_4a/3x3_reduce (in-place)
I0403 14:21:42.368898 29618 net.cpp:141] Setting up inception_4a/relu_3x3_reduce
I0403 14:21:42.368924 29618 net.cpp:148] Top shape: 24 96 14 14 (451584)
I0403 14:21:42.368940 29618 net.cpp:156] Memory required for data: 865236000
I0403 14:21:42.368957 29618 layer_factory.hpp:77] Creating layer inception_4a/3x3
I0403 14:21:42.368979 29618 net.cpp:91] Creating Layer inception_4a/3x3
I0403 14:21:42.368998 29618 net.cpp:425] inception_4a/3x3 <- inception_4a/3x3_reduce
I0403 14:21:42.369019 29618 net.cpp:399] inception_4a/3x3 -> inception_4a/3x3
I0403 14:21:42.371675 29618 net.cpp:141] Setting up inception_4a/3x3
I0403 14:21:42.371704 29618 net.cpp:148] Top shape: 24 208 14 14 (978432)
I0403 14:21:42.371721 29618 net.cpp:156] Memory required for data: 869149728
I0403 14:21:42.371740 29618 layer_factory.hpp:77] Creating layer inception_4a/relu_3x3
I0403 14:21:42.371764 29618 net.cpp:91] Creating Layer inception_4a/relu_3x3
I0403 14:21:42.371783 29618 net.cpp:425] inception_4a/relu_3x3 <- inception_4a/3x3
I0403 14:21:42.371803 29618 net.cpp:386] inception_4a/relu_3x3 -> inception_4a/3x3 (in-place)
I0403 14:21:42.372077 29618 net.cpp:141] Setting up inception_4a/relu_3x3
I0403 14:21:42.372105 29618 net.cpp:148] Top shape: 24 208 14 14 (978432)
I0403 14:21:42.372120 29618 net.cpp:156] Memory required for data: 873063456
I0403 14:21:42.372136 29618 layer_factory.hpp:77] Creating layer inception_4a/5x5_reduce
I0403 14:21:42.372160 29618 net.cpp:91] Creating Layer inception_4a/5x5_reduce
I0403 14:21:42.372179 29618 net.cpp:425] inception_4a/5x5_reduce <- pool3/3x3_s2_pool3/3x3_s2_0_split_2
I0403 14:21:42.372201 29618 net.cpp:399] inception_4a/5x5_reduce -> inception_4a/5x5_reduce
I0403 14:21:42.373209 29618 net.cpp:141] Setting up inception_4a/5x5_reduce
I0403 14:21:42.373239 29618 net.cpp:148] Top shape: 24 16 14 14 (75264)
I0403 14:21:42.373255 29618 net.cpp:156] Memory required for data: 873364512
I0403 14:21:42.373275 29618 layer_factory.hpp:77] Creating layer inception_4a/relu_5x5_reduce
I0403 14:21:42.373296 29618 net.cpp:91] Creating Layer inception_4a/relu_5x5_reduce
I0403 14:21:42.373318 29618 net.cpp:425] inception_4a/relu_5x5_reduce <- inception_4a/5x5_reduce
I0403 14:21:42.373338 29618 net.cpp:386] inception_4a/relu_5x5_reduce -> inception_4a/5x5_reduce (in-place)
I0403 14:21:42.373518 29618 net.cpp:141] Setting up inception_4a/relu_5x5_reduce
I0403 14:21:42.373544 29618 net.cpp:148] Top shape: 24 16 14 14 (75264)
I0403 14:21:42.373560 29618 net.cpp:156] Memory required for data: 873665568
I0403 14:21:42.373576 29618 layer_factory.hpp:77] Creating layer inception_4a/5x5
I0403 14:21:42.373601 29618 net.cpp:91] Creating Layer inception_4a/5x5
I0403 14:21:42.373622 29618 net.cpp:425] inception_4a/5x5 <- inception_4a/5x5_reduce
I0403 14:21:42.373641 29618 net.cpp:399] inception_4a/5x5 -> inception_4a/5x5
I0403 14:21:42.374722 29618 net.cpp:141] Setting up inception_4a/5x5
I0403 14:21:42.374752 29618 net.cpp:148] Top shape: 24 48 14 14 (225792)
I0403 14:21:42.374770 29618 net.cpp:156] Memory required for data: 874568736
I0403 14:21:42.374790 29618 layer_factory.hpp:77] Creating layer inception_4a/relu_5x5
I0403 14:21:42.374809 29618 net.cpp:91] Creating Layer inception_4a/relu_5x5
I0403 14:21:42.374826 29618 net.cpp:425] inception_4a/relu_5x5 <- inception_4a/5x5
I0403 14:21:42.374843 29618 net.cpp:386] inception_4a/relu_5x5 -> inception_4a/5x5 (in-place)
I0403 14:21:42.375021 29618 net.cpp:141] Setting up inception_4a/relu_5x5
I0403 14:21:42.375051 29618 net.cpp:148] Top shape: 24 48 14 14 (225792)
I0403 14:21:42.375068 29618 net.cpp:156] Memory required for data: 875471904
I0403 14:21:42.375084 29618 layer_factory.hpp:77] Creating layer inception_4a/pool
I0403 14:21:42.375104 29618 net.cpp:91] Creating Layer inception_4a/pool
I0403 14:21:42.375121 29618 net.cpp:425] inception_4a/pool <- pool3/3x3_s2_pool3/3x3_s2_0_split_3
I0403 14:21:42.375143 29618 net.cpp:399] inception_4a/pool -> inception_4a/pool
I0403 14:21:42.375205 29618 net.cpp:141] Setting up inception_4a/pool
I0403 14:21:42.375231 29618 net.cpp:148] Top shape: 24 480 14 14 (2257920)
I0403 14:21:42.375247 29618 net.cpp:156] Memory required for data: 884503584
I0403 14:21:42.375263 29618 layer_factory.hpp:77] Creating layer inception_4a/pool_proj
I0403 14:21:42.375285 29618 net.cpp:91] Creating Layer inception_4a/pool_proj
I0403 14:21:42.375303 29618 net.cpp:425] inception_4a/pool_proj <- inception_4a/pool
I0403 14:21:42.375329 29618 net.cpp:399] inception_4a/pool_proj -> inception_4a/pool_proj
I0403 14:21:42.376518 29618 net.cpp:141] Setting up inception_4a/pool_proj
I0403 14:21:42.376552 29618 net.cpp:148] Top shape: 24 64 14 14 (301056)
I0403 14:21:42.376585 29618 net.cpp:156] Memory required for data: 885707808
I0403 14:21:42.376607 29618 layer_factory.hpp:77] Creating layer inception_4a/relu_pool_proj
I0403 14:21:42.376628 29618 net.cpp:91] Creating Layer inception_4a/relu_pool_proj
I0403 14:21:42.376646 29618 net.cpp:425] inception_4a/relu_pool_proj <- inception_4a/pool_proj
I0403 14:21:42.376672 29618 net.cpp:386] inception_4a/relu_pool_proj -> inception_4a/pool_proj (in-place)
I0403 14:21:42.376960 29618 net.cpp:141] Setting up inception_4a/relu_pool_proj
I0403 14:21:42.376991 29618 net.cpp:148] Top shape: 24 64 14 14 (301056)
I0403 14:21:42.377009 29618 net.cpp:156] Memory required for data: 886912032
I0403 14:21:42.377025 29618 layer_factory.hpp:77] Creating layer inception_4a/output
I0403 14:21:42.377044 29618 net.cpp:91] Creating Layer inception_4a/output
I0403 14:21:42.377060 29618 net.cpp:425] inception_4a/output <- inception_4a/1x1
I0403 14:21:42.377079 29618 net.cpp:425] inception_4a/output <- inception_4a/3x3
I0403 14:21:42.377097 29618 net.cpp:425] inception_4a/output <- inception_4a/5x5
I0403 14:21:42.377115 29618 net.cpp:425] inception_4a/output <- inception_4a/pool_proj
I0403 14:21:42.377133 29618 net.cpp:399] inception_4a/output -> inception_4a/output
I0403 14:21:42.377182 29618 net.cpp:141] Setting up inception_4a/output
I0403 14:21:42.377207 29618 net.cpp:148] Top shape: 24 512 14 14 (2408448)
I0403 14:21:42.377224 29618 net.cpp:156] Memory required for data: 896545824
I0403 14:21:42.377239 29618 layer_factory.hpp:77] Creating layer inception_4a/output_inception_4a/output_0_split
I0403 14:21:42.377260 29618 net.cpp:91] Creating Layer inception_4a/output_inception_4a/output_0_split
I0403 14:21:42.377279 29618 net.cpp:425] inception_4a/output_inception_4a/output_0_split <- inception_4a/output
I0403 14:21:42.377297 29618 net.cpp:399] inception_4a/output_inception_4a/output_0_split -> inception_4a/output_inception_4a/output_0_split_0
I0403 14:21:42.377326 29618 net.cpp:399] inception_4a/output_inception_4a/output_0_split -> inception_4a/output_inception_4a/output_0_split_1
I0403 14:21:42.377348 29618 net.cpp:399] inception_4a/output_inception_4a/output_0_split -> inception_4a/output_inception_4a/output_0_split_2
I0403 14:21:42.377372 29618 net.cpp:399] inception_4a/output_inception_4a/output_0_split -> inception_4a/output_inception_4a/output_0_split_3
I0403 14:21:42.377395 29618 net.cpp:399] inception_4a/output_inception_4a/output_0_split -> inception_4a/output_inception_4a/output_0_split_4
I0403 14:21:42.377490 29618 net.cpp:141] Setting up inception_4a/output_inception_4a/output_0_split
I0403 14:21:42.377516 29618 net.cpp:148] Top shape: 24 512 14 14 (2408448)
I0403 14:21:42.377534 29618 net.cpp:148] Top shape: 24 512 14 14 (2408448)
I0403 14:21:42.377552 29618 net.cpp:148] Top shape: 24 512 14 14 (2408448)
I0403 14:21:42.377568 29618 net.cpp:148] Top shape: 24 512 14 14 (2408448)
I0403 14:21:42.377584 29618 net.cpp:148] Top shape: 24 512 14 14 (2408448)
I0403 14:21:42.377599 29618 net.cpp:156] Memory required for data: 944714784
I0403 14:21:42.377614 29618 layer_factory.hpp:77] Creating layer loss1/ave_pool
I0403 14:21:42.377635 29618 net.cpp:91] Creating Layer loss1/ave_pool
I0403 14:21:42.377653 29618 net.cpp:425] loss1/ave_pool <- inception_4a/output_inception_4a/output_0_split_0
I0403 14:21:42.377672 29618 net.cpp:399] loss1/ave_pool -> loss1/ave_pool
I0403 14:21:42.377890 29618 net.cpp:141] Setting up loss1/ave_pool
I0403 14:21:42.377920 29618 net.cpp:148] Top shape: 24 512 4 4 (196608)
I0403 14:21:42.377938 29618 net.cpp:156] Memory required for data: 945501216
I0403 14:21:42.377954 29618 layer_factory.hpp:77] Creating layer loss1/conv
I0403 14:21:42.377976 29618 net.cpp:91] Creating Layer loss1/conv
I0403 14:21:42.377996 29618 net.cpp:425] loss1/conv <- loss1/ave_pool
I0403 14:21:42.378015 29618 net.cpp:399] loss1/conv -> loss1/conv
I0403 14:21:42.379484 29618 net.cpp:141] Setting up loss1/conv
I0403 14:21:42.379515 29618 net.cpp:148] Top shape: 24 128 4 4 (49152)
I0403 14:21:42.379533 29618 net.cpp:156] Memory required for data: 945697824
I0403 14:21:42.379568 29618 layer_factory.hpp:77] Creating layer loss1/relu_conv
I0403 14:21:42.379593 29618 net.cpp:91] Creating Layer loss1/relu_conv
I0403 14:21:42.379611 29618 net.cpp:425] loss1/relu_conv <- loss1/conv
I0403 14:21:42.379631 29618 net.cpp:386] loss1/relu_conv -> loss1/conv (in-place)
I0403 14:21:42.379920 29618 net.cpp:141] Setting up loss1/relu_conv
I0403 14:21:42.379947 29618 net.cpp:148] Top shape: 24 128 4 4 (49152)
I0403 14:21:42.379963 29618 net.cpp:156] Memory required for data: 945894432
I0403 14:21:42.379981 29618 layer_factory.hpp:77] Creating layer loss1/fc
I0403 14:21:42.380007 29618 net.cpp:91] Creating Layer loss1/fc
I0403 14:21:42.380026 29618 net.cpp:425] loss1/fc <- loss1/conv
I0403 14:21:42.380046 29618 net.cpp:399] loss1/fc -> loss1/fc
I0403 14:21:42.398211 29618 net.cpp:141] Setting up loss1/fc
I0403 14:21:42.398262 29618 net.cpp:148] Top shape: 24 1024 (24576)
I0403 14:21:42.398278 29618 net.cpp:156] Memory required for data: 945992736
I0403 14:21:42.398300 29618 layer_factory.hpp:77] Creating layer loss1/relu_fc
I0403 14:21:42.398324 29618 net.cpp:91] Creating Layer loss1/relu_fc
I0403 14:21:42.398344 29618 net.cpp:425] loss1/relu_fc <- loss1/fc
I0403 14:21:42.398365 29618 net.cpp:386] loss1/relu_fc -> loss1/fc (in-place)
I0403 14:21:42.398578 29618 net.cpp:141] Setting up loss1/relu_fc
I0403 14:21:42.398605 29618 net.cpp:148] Top shape: 24 1024 (24576)
I0403 14:21:42.398622 29618 net.cpp:156] Memory required for data: 946091040
I0403 14:21:42.398636 29618 layer_factory.hpp:77] Creating layer loss1/drop_fc
I0403 14:21:42.398664 29618 net.cpp:91] Creating Layer loss1/drop_fc
I0403 14:21:42.398684 29618 net.cpp:425] loss1/drop_fc <- loss1/fc
I0403 14:21:42.398705 29618 net.cpp:386] loss1/drop_fc -> loss1/fc (in-place)
I0403 14:21:42.398758 29618 net.cpp:141] Setting up loss1/drop_fc
I0403 14:21:42.398782 29618 net.cpp:148] Top shape: 24 1024 (24576)
I0403 14:21:42.398798 29618 net.cpp:156] Memory required for data: 946189344
I0403 14:21:42.398813 29618 layer_factory.hpp:77] Creating layer loss1/classifier_plantvillage
I0403 14:21:42.398838 29618 net.cpp:91] Creating Layer loss1/classifier_plantvillage
I0403 14:21:42.398856 29618 net.cpp:425] loss1/classifier_plantvillage <- loss1/fc
I0403 14:21:42.398879 29618 net.cpp:399] loss1/classifier_plantvillage -> loss1/classifier_plantvillage
I0403 14:21:42.399806 29618 net.cpp:141] Setting up loss1/classifier_plantvillage
I0403 14:21:42.399837 29618 net.cpp:148] Top shape: 24 38 (912)
I0403 14:21:42.399854 29618 net.cpp:156] Memory required for data: 946192992
I0403 14:21:42.399874 29618 layer_factory.hpp:77] Creating layer loss1/classifier_plantvillage_loss1/classifier_plantvillage_0_split
I0403 14:21:42.399893 29618 net.cpp:91] Creating Layer loss1/classifier_plantvillage_loss1/classifier_plantvillage_0_split
I0403 14:21:42.399909 29618 net.cpp:425] loss1/classifier_plantvillage_loss1/classifier_plantvillage_0_split <- loss1/classifier_plantvillage
I0403 14:21:42.399931 29618 net.cpp:399] loss1/classifier_plantvillage_loss1/classifier_plantvillage_0_split -> loss1/classifier_plantvillage_loss1/classifier_plantvillage_0_split_0
I0403 14:21:42.399952 29618 net.cpp:399] loss1/classifier_plantvillage_loss1/classifier_plantvillage_0_split -> loss1/classifier_plantvillage_loss1/classifier_plantvillage_0_split_1
I0403 14:21:42.399974 29618 net.cpp:399] loss1/classifier_plantvillage_loss1/classifier_plantvillage_0_split -> loss1/classifier_plantvillage_loss1/classifier_plantvillage_0_split_2
I0403 14:21:42.400041 29618 net.cpp:141] Setting up loss1/classifier_plantvillage_loss1/classifier_plantvillage_0_split
I0403 14:21:42.400068 29618 net.cpp:148] Top shape: 24 38 (912)
I0403 14:21:42.400086 29618 net.cpp:148] Top shape: 24 38 (912)
I0403 14:21:42.400104 29618 net.cpp:148] Top shape: 24 38 (912)
I0403 14:21:42.400117 29618 net.cpp:156] Memory required for data: 946203936
I0403 14:21:42.400132 29618 layer_factory.hpp:77] Creating layer inception_4b/1x1
I0403 14:21:42.400154 29618 net.cpp:91] Creating Layer inception_4b/1x1
I0403 14:21:42.400197 29618 net.cpp:425] inception_4b/1x1 <- inception_4a/output_inception_4a/output_0_split_1
I0403 14:21:42.400218 29618 net.cpp:399] inception_4b/1x1 -> inception_4b/1x1
I0403 14:21:42.401911 29618 net.cpp:141] Setting up inception_4b/1x1
I0403 14:21:42.401942 29618 net.cpp:148] Top shape: 24 160 14 14 (752640)
I0403 14:21:42.401957 29618 net.cpp:156] Memory required for data: 949214496
I0403 14:21:42.401978 29618 layer_factory.hpp:77] Creating layer inception_4b/relu_1x1
I0403 14:21:42.402000 29618 net.cpp:91] Creating Layer inception_4b/relu_1x1
I0403 14:21:42.402019 29618 net.cpp:425] inception_4b/relu_1x1 <- inception_4b/1x1
I0403 14:21:42.402036 29618 net.cpp:386] inception_4b/relu_1x1 -> inception_4b/1x1 (in-place)
I0403 14:21:42.402220 29618 net.cpp:141] Setting up inception_4b/relu_1x1
I0403 14:21:42.402246 29618 net.cpp:148] Top shape: 24 160 14 14 (752640)
I0403 14:21:42.402262 29618 net.cpp:156] Memory required for data: 952225056
I0403 14:21:42.402281 29618 layer_factory.hpp:77] Creating layer inception_4b/3x3_reduce
I0403 14:21:42.402305 29618 net.cpp:91] Creating Layer inception_4b/3x3_reduce
I0403 14:21:42.402328 29618 net.cpp:425] inception_4b/3x3_reduce <- inception_4a/output_inception_4a/output_0_split_2
I0403 14:21:42.402348 29618 net.cpp:399] inception_4b/3x3_reduce -> inception_4b/3x3_reduce
I0403 14:21:42.403705 29618 net.cpp:141] Setting up inception_4b/3x3_reduce
I0403 14:21:42.403734 29618 net.cpp:148] Top shape: 24 112 14 14 (526848)
I0403 14:21:42.403750 29618 net.cpp:156] Memory required for data: 954332448
I0403 14:21:42.403769 29618 layer_factory.hpp:77] Creating layer inception_4b/relu_3x3_reduce
I0403 14:21:42.403794 29618 net.cpp:91] Creating Layer inception_4b/relu_3x3_reduce
I0403 14:21:42.403811 29618 net.cpp:425] inception_4b/relu_3x3_reduce <- inception_4b/3x3_reduce
I0403 14:21:42.403830 29618 net.cpp:386] inception_4b/relu_3x3_reduce -> inception_4b/3x3_reduce (in-place)
I0403 14:21:42.404112 29618 net.cpp:141] Setting up inception_4b/relu_3x3_reduce
I0403 14:21:42.404139 29618 net.cpp:148] Top shape: 24 112 14 14 (526848)
I0403 14:21:42.404155 29618 net.cpp:156] Memory required for data: 956439840
I0403 14:21:42.404171 29618 layer_factory.hpp:77] Creating layer inception_4b/3x3
I0403 14:21:42.404194 29618 net.cpp:91] Creating Layer inception_4b/3x3
I0403 14:21:42.404214 29618 net.cpp:425] inception_4b/3x3 <- inception_4b/3x3_reduce
I0403 14:21:42.404234 29618 net.cpp:399] inception_4b/3x3 -> inception_4b/3x3
I0403 14:21:42.407220 29618 net.cpp:141] Setting up inception_4b/3x3
I0403 14:21:42.407253 29618 net.cpp:148] Top shape: 24 224 14 14 (1053696)
I0403 14:21:42.407271 29618 net.cpp:156] Memory required for data: 960654624
I0403 14:21:42.407291 29618 layer_factory.hpp:77] Creating layer inception_4b/relu_3x3
I0403 14:21:42.407310 29618 net.cpp:91] Creating Layer inception_4b/relu_3x3
I0403 14:21:42.407331 29618 net.cpp:425] inception_4b/relu_3x3 <- inception_4b/3x3
I0403 14:21:42.407356 29618 net.cpp:386] inception_4b/relu_3x3 -> inception_4b/3x3 (in-place)
I0403 14:21:42.407539 29618 net.cpp:141] Setting up inception_4b/relu_3x3
I0403 14:21:42.407565 29618 net.cpp:148] Top shape: 24 224 14 14 (1053696)
I0403 14:21:42.407582 29618 net.cpp:156] Memory required for data: 964869408
I0403 14:21:42.407598 29618 layer_factory.hpp:77] Creating layer inception_4b/5x5_reduce
I0403 14:21:42.407620 29618 net.cpp:91] Creating Layer inception_4b/5x5_reduce
I0403 14:21:42.407640 29618 net.cpp:425] inception_4b/5x5_reduce <- inception_4a/output_inception_4a/output_0_split_3
I0403 14:21:42.407663 29618 net.cpp:399] inception_4b/5x5_reduce -> inception_4b/5x5_reduce
I0403 14:21:42.408787 29618 net.cpp:141] Setting up inception_4b/5x5_reduce
I0403 14:21:42.408817 29618 net.cpp:148] Top shape: 24 24 14 14 (112896)
I0403 14:21:42.408833 29618 net.cpp:156] Memory required for data: 965320992
I0403 14:21:42.408854 29618 layer_factory.hpp:77] Creating layer inception_4b/relu_5x5_reduce
I0403 14:21:42.408874 29618 net.cpp:91] Creating Layer inception_4b/relu_5x5_reduce
I0403 14:21:42.408906 29618 net.cpp:425] inception_4b/relu_5x5_reduce <- inception_4b/5x5_reduce
I0403 14:21:42.408927 29618 net.cpp:386] inception_4b/relu_5x5_reduce -> inception_4b/5x5_reduce (in-place)
I0403 14:21:42.409112 29618 net.cpp:141] Setting up inception_4b/relu_5x5_reduce
I0403 14:21:42.409140 29618 net.cpp:148] Top shape: 24 24 14 14 (112896)
I0403 14:21:42.409157 29618 net.cpp:156] Memory required for data: 965772576
I0403 14:21:42.409173 29618 layer_factory.hpp:77] Creating layer inception_4b/5x5
I0403 14:21:42.409195 29618 net.cpp:91] Creating Layer inception_4b/5x5
I0403 14:21:42.409214 29618 net.cpp:425] inception_4b/5x5 <- inception_4b/5x5_reduce
I0403 14:21:42.409235 29618 net.cpp:399] inception_4b/5x5 -> inception_4b/5x5
I0403 14:21:42.410475 29618 net.cpp:141] Setting up inception_4b/5x5
I0403 14:21:42.410502 29618 net.cpp:148] Top shape: 24 64 14 14 (301056)
I0403 14:21:42.410519 29618 net.cpp:156] Memory required for data: 966976800
I0403 14:21:42.410539 29618 layer_factory.hpp:77] Creating layer inception_4b/relu_5x5
I0403 14:21:42.410560 29618 net.cpp:91] Creating Layer inception_4b/relu_5x5
I0403 14:21:42.410578 29618 net.cpp:425] inception_4b/relu_5x5 <- inception_4b/5x5
I0403 14:21:42.410596 29618 net.cpp:386] inception_4b/relu_5x5 -> inception_4b/5x5 (in-place)
I0403 14:21:42.410883 29618 net.cpp:141] Setting up inception_4b/relu_5x5
I0403 14:21:42.410910 29618 net.cpp:148] Top shape: 24 64 14 14 (301056)
I0403 14:21:42.410926 29618 net.cpp:156] Memory required for data: 968181024
I0403 14:21:42.410943 29618 layer_factory.hpp:77] Creating layer inception_4b/pool
I0403 14:21:42.410964 29618 net.cpp:91] Creating Layer inception_4b/pool
I0403 14:21:42.410982 29618 net.cpp:425] inception_4b/pool <- inception_4a/output_inception_4a/output_0_split_4
I0403 14:21:42.411001 29618 net.cpp:399] inception_4b/pool -> inception_4b/pool
I0403 14:21:42.411070 29618 net.cpp:141] Setting up inception_4b/pool
I0403 14:21:42.411095 29618 net.cpp:148] Top shape: 24 512 14 14 (2408448)
I0403 14:21:42.411111 29618 net.cpp:156] Memory required for data: 977814816
I0403 14:21:42.411126 29618 layer_factory.hpp:77] Creating layer inception_4b/pool_proj
I0403 14:21:42.411149 29618 net.cpp:91] Creating Layer inception_4b/pool_proj
I0403 14:21:42.411169 29618 net.cpp:425] inception_4b/pool_proj <- inception_4b/pool
I0403 14:21:42.411190 29618 net.cpp:399] inception_4b/pool_proj -> inception_4b/pool_proj
I0403 14:21:42.412403 29618 net.cpp:141] Setting up inception_4b/pool_proj
I0403 14:21:42.412433 29618 net.cpp:148] Top shape: 24 64 14 14 (301056)
I0403 14:21:42.412449 29618 net.cpp:156] Memory required for data: 979019040
I0403 14:21:42.412468 29618 layer_factory.hpp:77] Creating layer inception_4b/relu_pool_proj
I0403 14:21:42.412490 29618 net.cpp:91] Creating Layer inception_4b/relu_pool_proj
I0403 14:21:42.412510 29618 net.cpp:425] inception_4b/relu_pool_proj <- inception_4b/pool_proj
I0403 14:21:42.412528 29618 net.cpp:386] inception_4b/relu_pool_proj -> inception_4b/pool_proj (in-place)
I0403 14:21:42.412710 29618 net.cpp:141] Setting up inception_4b/relu_pool_proj
I0403 14:21:42.412739 29618 net.cpp:148] Top shape: 24 64 14 14 (301056)
I0403 14:21:42.412755 29618 net.cpp:156] Memory required for data: 980223264
I0403 14:21:42.412771 29618 layer_factory.hpp:77] Creating layer inception_4b/output
I0403 14:21:42.412791 29618 net.cpp:91] Creating Layer inception_4b/output
I0403 14:21:42.412808 29618 net.cpp:425] inception_4b/output <- inception_4b/1x1
I0403 14:21:42.412825 29618 net.cpp:425] inception_4b/output <- inception_4b/3x3
I0403 14:21:42.412842 29618 net.cpp:425] inception_4b/output <- inception_4b/5x5
I0403 14:21:42.412858 29618 net.cpp:425] inception_4b/output <- inception_4b/pool_proj
I0403 14:21:42.412876 29618 net.cpp:399] inception_4b/output -> inception_4b/output
I0403 14:21:42.412925 29618 net.cpp:141] Setting up inception_4b/output
I0403 14:21:42.412950 29618 net.cpp:148] Top shape: 24 512 14 14 (2408448)
I0403 14:21:42.412963 29618 net.cpp:156] Memory required for data: 989857056
I0403 14:21:42.412993 29618 layer_factory.hpp:77] Creating layer inception_4b/output_inception_4b/output_0_split
I0403 14:21:42.413012 29618 net.cpp:91] Creating Layer inception_4b/output_inception_4b/output_0_split
I0403 14:21:42.413028 29618 net.cpp:425] inception_4b/output_inception_4b/output_0_split <- inception_4b/output
I0403 14:21:42.413049 29618 net.cpp:399] inception_4b/output_inception_4b/output_0_split -> inception_4b/output_inception_4b/output_0_split_0
I0403 14:21:42.413071 29618 net.cpp:399] inception_4b/output_inception_4b/output_0_split -> inception_4b/output_inception_4b/output_0_split_1
I0403 14:21:42.413094 29618 net.cpp:399] inception_4b/output_inception_4b/output_0_split -> inception_4b/output_inception_4b/output_0_split_2
I0403 14:21:42.413116 29618 net.cpp:399] inception_4b/output_inception_4b/output_0_split -> inception_4b/output_inception_4b/output_0_split_3
I0403 14:21:42.413204 29618 net.cpp:141] Setting up inception_4b/output_inception_4b/output_0_split
I0403 14:21:42.413228 29618 net.cpp:148] Top shape: 24 512 14 14 (2408448)
I0403 14:21:42.413245 29618 net.cpp:148] Top shape: 24 512 14 14 (2408448)
I0403 14:21:42.413262 29618 net.cpp:148] Top shape: 24 512 14 14 (2408448)
I0403 14:21:42.413277 29618 net.cpp:148] Top shape: 24 512 14 14 (2408448)
I0403 14:21:42.413292 29618 net.cpp:156] Memory required for data: 1028392224
I0403 14:21:42.413307 29618 layer_factory.hpp:77] Creating layer inception_4c/1x1
I0403 14:21:42.413334 29618 net.cpp:91] Creating Layer inception_4c/1x1
I0403 14:21:42.413353 29618 net.cpp:425] inception_4c/1x1 <- inception_4b/output_inception_4b/output_0_split_0
I0403 14:21:42.413375 29618 net.cpp:399] inception_4c/1x1 -> inception_4c/1x1
I0403 14:21:42.414824 29618 net.cpp:141] Setting up inception_4c/1x1
I0403 14:21:42.414856 29618 net.cpp:148] Top shape: 24 128 14 14 (602112)
I0403 14:21:42.414875 29618 net.cpp:156] Memory required for data: 1030800672
I0403 14:21:42.414896 29618 layer_factory.hpp:77] Creating layer inception_4c/relu_1x1
I0403 14:21:42.414916 29618 net.cpp:91] Creating Layer inception_4c/relu_1x1
I0403 14:21:42.414932 29618 net.cpp:425] inception_4c/relu_1x1 <- inception_4c/1x1
I0403 14:21:42.414952 29618 net.cpp:386] inception_4c/relu_1x1 -> inception_4c/1x1 (in-place)
I0403 14:21:42.415137 29618 net.cpp:141] Setting up inception_4c/relu_1x1
I0403 14:21:42.415163 29618 net.cpp:148] Top shape: 24 128 14 14 (602112)
I0403 14:21:42.415179 29618 net.cpp:156] Memory required for data: 1033209120
I0403 14:21:42.415195 29618 layer_factory.hpp:77] Creating layer inception_4c/3x3_reduce
I0403 14:21:42.415218 29618 net.cpp:91] Creating Layer inception_4c/3x3_reduce
I0403 14:21:42.415236 29618 net.cpp:425] inception_4c/3x3_reduce <- inception_4b/output_inception_4b/output_0_split_1
I0403 14:21:42.415258 29618 net.cpp:399] inception_4c/3x3_reduce -> inception_4c/3x3_reduce
I0403 14:21:42.417204 29618 net.cpp:141] Setting up inception_4c/3x3_reduce
I0403 14:21:42.417234 29618 net.cpp:148] Top shape: 24 128 14 14 (602112)
I0403 14:21:42.417250 29618 net.cpp:156] Memory required for data: 1035617568
I0403 14:21:42.417271 29618 layer_factory.hpp:77] Creating layer inception_4c/relu_3x3_reduce
I0403 14:21:42.417289 29618 net.cpp:91] Creating Layer inception_4c/relu_3x3_reduce
I0403 14:21:42.417306 29618 net.cpp:425] inception_4c/relu_3x3_reduce <- inception_4c/3x3_reduce
I0403 14:21:42.417332 29618 net.cpp:386] inception_4c/relu_3x3_reduce -> inception_4c/3x3_reduce (in-place)
I0403 14:21:42.417621 29618 net.cpp:141] Setting up inception_4c/relu_3x3_reduce
I0403 14:21:42.417649 29618 net.cpp:148] Top shape: 24 128 14 14 (602112)
I0403 14:21:42.417665 29618 net.cpp:156] Memory required for data: 1038026016
I0403 14:21:42.417681 29618 layer_factory.hpp:77] Creating layer inception_4c/3x3
I0403 14:21:42.417706 29618 net.cpp:91] Creating Layer inception_4c/3x3
I0403 14:21:42.417724 29618 net.cpp:425] inception_4c/3x3 <- inception_4c/3x3_reduce
I0403 14:21:42.417747 29618 net.cpp:399] inception_4c/3x3 -> inception_4c/3x3
I0403 14:21:42.421360 29618 net.cpp:141] Setting up inception_4c/3x3
I0403 14:21:42.421402 29618 net.cpp:148] Top shape: 24 256 14 14 (1204224)
I0403 14:21:42.421421 29618 net.cpp:156] Memory required for data: 1042842912
I0403 14:21:42.421452 29618 layer_factory.hpp:77] Creating layer inception_4c/relu_3x3
I0403 14:21:42.421476 29618 net.cpp:91] Creating Layer inception_4c/relu_3x3
I0403 14:21:42.421495 29618 net.cpp:425] inception_4c/relu_3x3 <- inception_4c/3x3
I0403 14:21:42.421514 29618 net.cpp:386] inception_4c/relu_3x3 -> inception_4c/3x3 (in-place)
I0403 14:21:42.421700 29618 net.cpp:141] Setting up inception_4c/relu_3x3
I0403 14:21:42.421726 29618 net.cpp:148] Top shape: 24 256 14 14 (1204224)
I0403 14:21:42.421742 29618 net.cpp:156] Memory required for data: 1047659808
I0403 14:21:42.421758 29618 layer_factory.hpp:77] Creating layer inception_4c/5x5_reduce
I0403 14:21:42.421782 29618 net.cpp:91] Creating Layer inception_4c/5x5_reduce
I0403 14:21:42.421800 29618 net.cpp:425] inception_4c/5x5_reduce <- inception_4b/output_inception_4b/output_0_split_2
I0403 14:21:42.421823 29618 net.cpp:399] inception_4c/5x5_reduce -> inception_4c/5x5_reduce
I0403 14:21:42.422917 29618 net.cpp:141] Setting up inception_4c/5x5_reduce
I0403 14:21:42.422947 29618 net.cpp:148] Top shape: 24 24 14 14 (112896)
I0403 14:21:42.422963 29618 net.cpp:156] Memory required for data: 1048111392
I0403 14:21:42.422982 29618 layer_factory.hpp:77] Creating layer inception_4c/relu_5x5_reduce
I0403 14:21:42.423004 29618 net.cpp:91] Creating Layer inception_4c/relu_5x5_reduce
I0403 14:21:42.423023 29618 net.cpp:425] inception_4c/relu_5x5_reduce <- inception_4c/5x5_reduce
I0403 14:21:42.423041 29618 net.cpp:386] inception_4c/relu_5x5_reduce -> inception_4c/5x5_reduce (in-place)
I0403 14:21:42.423228 29618 net.cpp:141] Setting up inception_4c/relu_5x5_reduce
I0403 14:21:42.423255 29618 net.cpp:148] Top shape: 24 24 14 14 (112896)
I0403 14:21:42.423272 29618 net.cpp:156] Memory required for data: 1048562976
I0403 14:21:42.423288 29618 layer_factory.hpp:77] Creating layer inception_4c/5x5
I0403 14:21:42.423311 29618 net.cpp:91] Creating Layer inception_4c/5x5
I0403 14:21:42.423333 29618 net.cpp:425] inception_4c/5x5 <- inception_4c/5x5_reduce
I0403 14:21:42.423353 29618 net.cpp:399] inception_4c/5x5 -> inception_4c/5x5
I0403 14:21:42.424605 29618 net.cpp:141] Setting up inception_4c/5x5
I0403 14:21:42.424634 29618 net.cpp:148] Top shape: 24 64 14 14 (301056)
I0403 14:21:42.424651 29618 net.cpp:156] Memory required for data: 1049767200
I0403 14:21:42.424670 29618 layer_factory.hpp:77] Creating layer inception_4c/relu_5x5
I0403 14:21:42.424692 29618 net.cpp:91] Creating Layer inception_4c/relu_5x5
I0403 14:21:42.424712 29618 net.cpp:425] inception_4c/relu_5x5 <- inception_4c/5x5
I0403 14:21:42.424731 29618 net.cpp:386] inception_4c/relu_5x5 -> inception_4c/5x5 (in-place)
I0403 14:21:42.425019 29618 net.cpp:141] Setting up inception_4c/relu_5x5
I0403 14:21:42.425047 29618 net.cpp:148] Top shape: 24 64 14 14 (301056)
I0403 14:21:42.425062 29618 net.cpp:156] Memory required for data: 1050971424
I0403 14:21:42.425079 29618 layer_factory.hpp:77] Creating layer inception_4c/pool
I0403 14:21:42.425101 29618 net.cpp:91] Creating Layer inception_4c/pool
I0403 14:21:42.425118 29618 net.cpp:425] inception_4c/pool <- inception_4b/output_inception_4b/output_0_split_3
I0403 14:21:42.425142 29618 net.cpp:399] inception_4c/pool -> inception_4c/pool
I0403 14:21:42.425207 29618 net.cpp:141] Setting up inception_4c/pool
I0403 14:21:42.425233 29618 net.cpp:148] Top shape: 24 512 14 14 (2408448)
I0403 14:21:42.425248 29618 net.cpp:156] Memory required for data: 1060605216
I0403 14:21:42.425266 29618 layer_factory.hpp:77] Creating layer inception_4c/pool_proj
I0403 14:21:42.425289 29618 net.cpp:91] Creating Layer inception_4c/pool_proj
I0403 14:21:42.425307 29618 net.cpp:425] inception_4c/pool_proj <- inception_4c/pool
I0403 14:21:42.425333 29618 net.cpp:399] inception_4c/pool_proj -> inception_4c/pool_proj
I0403 14:21:42.426575 29618 net.cpp:141] Setting up inception_4c/pool_proj
I0403 14:21:42.426605 29618 net.cpp:148] Top shape: 24 64 14 14 (301056)
I0403 14:21:42.426637 29618 net.cpp:156] Memory required for data: 1061809440
I0403 14:21:42.426658 29618 layer_factory.hpp:77] Creating layer inception_4c/relu_pool_proj
I0403 14:21:42.426692 29618 net.cpp:91] Creating Layer inception_4c/relu_pool_proj
I0403 14:21:42.426710 29618 net.cpp:425] inception_4c/relu_pool_proj <- inception_4c/pool_proj
I0403 14:21:42.426730 29618 net.cpp:386] inception_4c/relu_pool_proj -> inception_4c/pool_proj (in-place)
I0403 14:21:42.426920 29618 net.cpp:141] Setting up inception_4c/relu_pool_proj
I0403 14:21:42.426947 29618 net.cpp:148] Top shape: 24 64 14 14 (301056)
I0403 14:21:42.426964 29618 net.cpp:156] Memory required for data: 1063013664
I0403 14:21:42.426980 29618 layer_factory.hpp:77] Creating layer inception_4c/output
I0403 14:21:42.427000 29618 net.cpp:91] Creating Layer inception_4c/output
I0403 14:21:42.427017 29618 net.cpp:425] inception_4c/output <- inception_4c/1x1
I0403 14:21:42.427036 29618 net.cpp:425] inception_4c/output <- inception_4c/3x3
I0403 14:21:42.427052 29618 net.cpp:425] inception_4c/output <- inception_4c/5x5
I0403 14:21:42.427070 29618 net.cpp:425] inception_4c/output <- inception_4c/pool_proj
I0403 14:21:42.427088 29618 net.cpp:399] inception_4c/output -> inception_4c/output
I0403 14:21:42.427140 29618 net.cpp:141] Setting up inception_4c/output
I0403 14:21:42.427166 29618 net.cpp:148] Top shape: 24 512 14 14 (2408448)
I0403 14:21:42.427181 29618 net.cpp:156] Memory required for data: 1072647456
I0403 14:21:42.427196 29618 layer_factory.hpp:77] Creating layer inception_4c/output_inception_4c/output_0_split
I0403 14:21:42.427214 29618 net.cpp:91] Creating Layer inception_4c/output_inception_4c/output_0_split
I0403 14:21:42.427232 29618 net.cpp:425] inception_4c/output_inception_4c/output_0_split <- inception_4c/output
I0403 14:21:42.427253 29618 net.cpp:399] inception_4c/output_inception_4c/output_0_split -> inception_4c/output_inception_4c/output_0_split_0
I0403 14:21:42.427275 29618 net.cpp:399] inception_4c/output_inception_4c/output_0_split -> inception_4c/output_inception_4c/output_0_split_1
I0403 14:21:42.427299 29618 net.cpp:399] inception_4c/output_inception_4c/output_0_split -> inception_4c/output_inception_4c/output_0_split_2
I0403 14:21:42.427325 29618 net.cpp:399] inception_4c/output_inception_4c/output_0_split -> inception_4c/output_inception_4c/output_0_split_3
I0403 14:21:42.427420 29618 net.cpp:141] Setting up inception_4c/output_inception_4c/output_0_split
I0403 14:21:42.427445 29618 net.cpp:148] Top shape: 24 512 14 14 (2408448)
I0403 14:21:42.427462 29618 net.cpp:148] Top shape: 24 512 14 14 (2408448)
I0403 14:21:42.427479 29618 net.cpp:148] Top shape: 24 512 14 14 (2408448)
I0403 14:21:42.427496 29618 net.cpp:148] Top shape: 24 512 14 14 (2408448)
I0403 14:21:42.427512 29618 net.cpp:156] Memory required for data: 1111182624
I0403 14:21:42.427527 29618 layer_factory.hpp:77] Creating layer inception_4d/1x1
I0403 14:21:42.427551 29618 net.cpp:91] Creating Layer inception_4d/1x1
I0403 14:21:42.427569 29618 net.cpp:425] inception_4d/1x1 <- inception_4c/output_inception_4c/output_0_split_0
I0403 14:21:42.427592 29618 net.cpp:399] inception_4d/1x1 -> inception_4d/1x1
I0403 14:21:42.429024 29618 net.cpp:141] Setting up inception_4d/1x1
I0403 14:21:42.429056 29618 net.cpp:148] Top shape: 24 112 14 14 (526848)
I0403 14:21:42.429075 29618 net.cpp:156] Memory required for data: 1113290016
I0403 14:21:42.429095 29618 layer_factory.hpp:77] Creating layer inception_4d/relu_1x1
I0403 14:21:42.429114 29618 net.cpp:91] Creating Layer inception_4d/relu_1x1
I0403 14:21:42.429132 29618 net.cpp:425] inception_4d/relu_1x1 <- inception_4d/1x1
I0403 14:21:42.429154 29618 net.cpp:386] inception_4d/relu_1x1 -> inception_4d/1x1 (in-place)
I0403 14:21:42.429353 29618 net.cpp:141] Setting up inception_4d/relu_1x1
I0403 14:21:42.429380 29618 net.cpp:148] Top shape: 24 112 14 14 (526848)
I0403 14:21:42.429396 29618 net.cpp:156] Memory required for data: 1115397408
I0403 14:21:42.429411 29618 layer_factory.hpp:77] Creating layer inception_4d/3x3_reduce
I0403 14:21:42.429450 29618 net.cpp:91] Creating Layer inception_4d/3x3_reduce
I0403 14:21:42.429471 29618 net.cpp:425] inception_4d/3x3_reduce <- inception_4c/output_inception_4c/output_0_split_1
I0403 14:21:42.429494 29618 net.cpp:399] inception_4d/3x3_reduce -> inception_4d/3x3_reduce
I0403 14:21:42.431061 29618 net.cpp:141] Setting up inception_4d/3x3_reduce
I0403 14:21:42.431092 29618 net.cpp:148] Top shape: 24 144 14 14 (677376)
I0403 14:21:42.431110 29618 net.cpp:156] Memory required for data: 1118106912
I0403 14:21:42.431133 29618 layer_factory.hpp:77] Creating layer inception_4d/relu_3x3_reduce
I0403 14:21:42.431152 29618 net.cpp:91] Creating Layer inception_4d/relu_3x3_reduce
I0403 14:21:42.431170 29618 net.cpp:425] inception_4d/relu_3x3_reduce <- inception_4d/3x3_reduce
I0403 14:21:42.431190 29618 net.cpp:386] inception_4d/relu_3x3_reduce -> inception_4d/3x3_reduce (in-place)
I0403 14:21:42.431493 29618 net.cpp:141] Setting up inception_4d/relu_3x3_reduce
I0403 14:21:42.431524 29618 net.cpp:148] Top shape: 24 144 14 14 (677376)
I0403 14:21:42.431540 29618 net.cpp:156] Memory required for data: 1120816416
I0403 14:21:42.431556 29618 layer_factory.hpp:77] Creating layer inception_4d/3x3
I0403 14:21:42.431579 29618 net.cpp:91] Creating Layer inception_4d/3x3
I0403 14:21:42.431599 29618 net.cpp:425] inception_4d/3x3 <- inception_4d/3x3_reduce
I0403 14:21:42.431620 29618 net.cpp:399] inception_4d/3x3 -> inception_4d/3x3
I0403 14:21:42.436022 29618 net.cpp:141] Setting up inception_4d/3x3
I0403 14:21:42.436054 29618 net.cpp:148] Top shape: 24 288 14 14 (1354752)
I0403 14:21:42.436071 29618 net.cpp:156] Memory required for data: 1126235424
I0403 14:21:42.436091 29618 layer_factory.hpp:77] Creating layer inception_4d/relu_3x3
I0403 14:21:42.436111 29618 net.cpp:91] Creating Layer inception_4d/relu_3x3
I0403 14:21:42.436131 29618 net.cpp:425] inception_4d/relu_3x3 <- inception_4d/3x3
I0403 14:21:42.436152 29618 net.cpp:386] inception_4d/relu_3x3 -> inception_4d/3x3 (in-place)
I0403 14:21:42.436349 29618 net.cpp:141] Setting up inception_4d/relu_3x3
I0403 14:21:42.436377 29618 net.cpp:148] Top shape: 24 288 14 14 (1354752)
I0403 14:21:42.436393 29618 net.cpp:156] Memory required for data: 1131654432
I0403 14:21:42.436409 29618 layer_factory.hpp:77] Creating layer inception_4d/5x5_reduce
I0403 14:21:42.436432 29618 net.cpp:91] Creating Layer inception_4d/5x5_reduce
I0403 14:21:42.436452 29618 net.cpp:425] inception_4d/5x5_reduce <- inception_4c/output_inception_4c/output_0_split_2
I0403 14:21:42.436475 29618 net.cpp:399] inception_4d/5x5_reduce -> inception_4d/5x5_reduce
I0403 14:21:42.437669 29618 net.cpp:141] Setting up inception_4d/5x5_reduce
I0403 14:21:42.437698 29618 net.cpp:148] Top shape: 24 32 14 14 (150528)
I0403 14:21:42.437716 29618 net.cpp:156] Memory required for data: 1132256544
I0403 14:21:42.437736 29618 layer_factory.hpp:77] Creating layer inception_4d/relu_5x5_reduce
I0403 14:21:42.437757 29618 net.cpp:91] Creating Layer inception_4d/relu_5x5_reduce
I0403 14:21:42.437775 29618 net.cpp:425] inception_4d/relu_5x5_reduce <- inception_4d/5x5_reduce
I0403 14:21:42.437796 29618 net.cpp:386] inception_4d/relu_5x5_reduce -> inception_4d/5x5_reduce (in-place)
I0403 14:21:42.437994 29618 net.cpp:141] Setting up inception_4d/relu_5x5_reduce
I0403 14:21:42.438021 29618 net.cpp:148] Top shape: 24 32 14 14 (150528)
I0403 14:21:42.438037 29618 net.cpp:156] Memory required for data: 1132858656
I0403 14:21:42.438055 29618 layer_factory.hpp:77] Creating layer inception_4d/5x5
I0403 14:21:42.438077 29618 net.cpp:91] Creating Layer inception_4d/5x5
I0403 14:21:42.438097 29618 net.cpp:425] inception_4d/5x5 <- inception_4d/5x5_reduce
I0403 14:21:42.438120 29618 net.cpp:399] inception_4d/5x5 -> inception_4d/5x5
I0403 14:21:42.439673 29618 net.cpp:141] Setting up inception_4d/5x5
I0403 14:21:42.439703 29618 net.cpp:148] Top shape: 24 64 14 14 (301056)
I0403 14:21:42.439723 29618 net.cpp:156] Memory required for data: 1134062880
I0403 14:21:42.439743 29618 layer_factory.hpp:77] Creating layer inception_4d/relu_5x5
I0403 14:21:42.439782 29618 net.cpp:91] Creating Layer inception_4d/relu_5x5
I0403 14:21:42.439801 29618 net.cpp:425] inception_4d/relu_5x5 <- inception_4d/5x5
I0403 14:21:42.439821 29618 net.cpp:386] inception_4d/relu_5x5 -> inception_4d/5x5 (in-place)
I0403 14:21:42.440130 29618 net.cpp:141] Setting up inception_4d/relu_5x5
I0403 14:21:42.440160 29618 net.cpp:148] Top shape: 24 64 14 14 (301056)
I0403 14:21:42.440176 29618 net.cpp:156] Memory required for data: 1135267104
I0403 14:21:42.440191 29618 layer_factory.hpp:77] Creating layer inception_4d/pool
I0403 14:21:42.440213 29618 net.cpp:91] Creating Layer inception_4d/pool
I0403 14:21:42.440232 29618 net.cpp:425] inception_4d/pool <- inception_4c/output_inception_4c/output_0_split_3
I0403 14:21:42.440251 29618 net.cpp:399] inception_4d/pool -> inception_4d/pool
I0403 14:21:42.440327 29618 net.cpp:141] Setting up inception_4d/pool
I0403 14:21:42.440353 29618 net.cpp:148] Top shape: 24 512 14 14 (2408448)
I0403 14:21:42.440369 29618 net.cpp:156] Memory required for data: 1144900896
I0403 14:21:42.440385 29618 layer_factory.hpp:77] Creating layer inception_4d/pool_proj
I0403 14:21:42.440409 29618 net.cpp:91] Creating Layer inception_4d/pool_proj
I0403 14:21:42.440428 29618 net.cpp:425] inception_4d/pool_proj <- inception_4d/pool
I0403 14:21:42.440449 29618 net.cpp:399] inception_4d/pool_proj -> inception_4d/pool_proj
I0403 14:21:42.442292 29618 net.cpp:141] Setting up inception_4d/pool_proj
I0403 14:21:42.442328 29618 net.cpp:148] Top shape: 24 64 14 14 (301056)
I0403 14:21:42.442347 29618 net.cpp:156] Memory required for data: 1146105120
I0403 14:21:42.442366 29618 layer_factory.hpp:77] Creating layer inception_4d/relu_pool_proj
I0403 14:21:42.442385 29618 net.cpp:91] Creating Layer inception_4d/relu_pool_proj
I0403 14:21:42.442404 29618 net.cpp:425] inception_4d/relu_pool_proj <- inception_4d/pool_proj
I0403 14:21:42.442425 29618 net.cpp:386] inception_4d/relu_pool_proj -> inception_4d/pool_proj (in-place)
I0403 14:21:42.442620 29618 net.cpp:141] Setting up inception_4d/relu_pool_proj
I0403 14:21:42.442647 29618 net.cpp:148] Top shape: 24 64 14 14 (301056)
I0403 14:21:42.442664 29618 net.cpp:156] Memory required for data: 1147309344
I0403 14:21:42.442680 29618 layer_factory.hpp:77] Creating layer inception_4d/output
I0403 14:21:42.442701 29618 net.cpp:91] Creating Layer inception_4d/output
I0403 14:21:42.442718 29618 net.cpp:425] inception_4d/output <- inception_4d/1x1
I0403 14:21:42.442736 29618 net.cpp:425] inception_4d/output <- inception_4d/3x3
I0403 14:21:42.442754 29618 net.cpp:425] inception_4d/output <- inception_4d/5x5
I0403 14:21:42.442772 29618 net.cpp:425] inception_4d/output <- inception_4d/pool_proj
I0403 14:21:42.442792 29618 net.cpp:399] inception_4d/output -> inception_4d/output
I0403 14:21:42.442843 29618 net.cpp:141] Setting up inception_4d/output
I0403 14:21:42.442868 29618 net.cpp:148] Top shape: 24 528 14 14 (2483712)
I0403 14:21:42.442884 29618 net.cpp:156] Memory required for data: 1157244192
I0403 14:21:42.442900 29618 layer_factory.hpp:77] Creating layer inception_4d/output_inception_4d/output_0_split
I0403 14:21:42.442927 29618 net.cpp:91] Creating Layer inception_4d/output_inception_4d/output_0_split
I0403 14:21:42.442945 29618 net.cpp:425] inception_4d/output_inception_4d/output_0_split <- inception_4d/output
I0403 14:21:42.442967 29618 net.cpp:399] inception_4d/output_inception_4d/output_0_split -> inception_4d/output_inception_4d/output_0_split_0
I0403 14:21:42.442991 29618 net.cpp:399] inception_4d/output_inception_4d/output_0_split -> inception_4d/output_inception_4d/output_0_split_1
I0403 14:21:42.443016 29618 net.cpp:399] inception_4d/output_inception_4d/output_0_split -> inception_4d/output_inception_4d/output_0_split_2
I0403 14:21:42.443039 29618 net.cpp:399] inception_4d/output_inception_4d/output_0_split -> inception_4d/output_inception_4d/output_0_split_3
I0403 14:21:42.443060 29618 net.cpp:399] inception_4d/output_inception_4d/output_0_split -> inception_4d/output_inception_4d/output_0_split_4
I0403 14:21:42.443172 29618 net.cpp:141] Setting up inception_4d/output_inception_4d/output_0_split
I0403 14:21:42.443212 29618 net.cpp:148] Top shape: 24 528 14 14 (2483712)
I0403 14:21:42.443233 29618 net.cpp:148] Top shape: 24 528 14 14 (2483712)
I0403 14:21:42.443253 29618 net.cpp:148] Top shape: 24 528 14 14 (2483712)
I0403 14:21:42.443271 29618 net.cpp:148] Top shape: 24 528 14 14 (2483712)
I0403 14:21:42.443289 29618 net.cpp:148] Top shape: 24 528 14 14 (2483712)
I0403 14:21:42.443303 29618 net.cpp:156] Memory required for data: 1206918432
I0403 14:21:42.443332 29618 layer_factory.hpp:77] Creating layer loss2/ave_pool
I0403 14:21:42.443356 29618 net.cpp:91] Creating Layer loss2/ave_pool
I0403 14:21:42.443373 29618 net.cpp:425] loss2/ave_pool <- inception_4d/output_inception_4d/output_0_split_0
I0403 14:21:42.443397 29618 net.cpp:399] loss2/ave_pool -> loss2/ave_pool
I0403 14:21:42.443737 29618 net.cpp:141] Setting up loss2/ave_pool
I0403 14:21:42.443765 29618 net.cpp:148] Top shape: 24 528 4 4 (202752)
I0403 14:21:42.443783 29618 net.cpp:156] Memory required for data: 1207729440
I0403 14:21:42.443799 29618 layer_factory.hpp:77] Creating layer loss2/conv
I0403 14:21:42.443822 29618 net.cpp:91] Creating Layer loss2/conv
I0403 14:21:42.443841 29618 net.cpp:425] loss2/conv <- loss2/ave_pool
I0403 14:21:42.443864 29618 net.cpp:399] loss2/conv -> loss2/conv
I0403 14:21:42.445837 29618 net.cpp:141] Setting up loss2/conv
I0403 14:21:42.445868 29618 net.cpp:148] Top shape: 24 128 4 4 (49152)
I0403 14:21:42.445883 29618 net.cpp:156] Memory required for data: 1207926048
I0403 14:21:42.445904 29618 layer_factory.hpp:77] Creating layer loss2/relu_conv
I0403 14:21:42.445925 29618 net.cpp:91] Creating Layer loss2/relu_conv
I0403 14:21:42.445945 29618 net.cpp:425] loss2/relu_conv <- loss2/conv
I0403 14:21:42.445963 29618 net.cpp:386] loss2/relu_conv -> loss2/conv (in-place)
I0403 14:21:42.446256 29618 net.cpp:141] Setting up loss2/relu_conv
I0403 14:21:42.446283 29618 net.cpp:148] Top shape: 24 128 4 4 (49152)
I0403 14:21:42.446298 29618 net.cpp:156] Memory required for data: 1208122656
I0403 14:21:42.446317 29618 layer_factory.hpp:77] Creating layer loss2/fc
I0403 14:21:42.446343 29618 net.cpp:91] Creating Layer loss2/fc
I0403 14:21:42.446362 29618 net.cpp:425] loss2/fc <- loss2/conv
I0403 14:21:42.446384 29618 net.cpp:399] loss2/fc -> loss2/fc
I0403 14:21:42.464992 29618 net.cpp:141] Setting up loss2/fc
I0403 14:21:42.465029 29618 net.cpp:148] Top shape: 24 1024 (24576)
I0403 14:21:42.465046 29618 net.cpp:156] Memory required for data: 1208220960
I0403 14:21:42.465078 29618 layer_factory.hpp:77] Creating layer loss2/relu_fc
I0403 14:21:42.465098 29618 net.cpp:91] Creating Layer loss2/relu_fc
I0403 14:21:42.465117 29618 net.cpp:425] loss2/relu_fc <- loss2/fc
I0403 14:21:42.465139 29618 net.cpp:386] loss2/relu_fc -> loss2/fc (in-place)
I0403 14:21:42.465476 29618 net.cpp:141] Setting up loss2/relu_fc
I0403 14:21:42.465503 29618 net.cpp:148] Top shape: 24 1024 (24576)
I0403 14:21:42.465519 29618 net.cpp:156] Memory required for data: 1208319264
I0403 14:21:42.465535 29618 layer_factory.hpp:77] Creating layer loss2/drop_fc
I0403 14:21:42.465554 29618 net.cpp:91] Creating Layer loss2/drop_fc
I0403 14:21:42.465571 29618 net.cpp:425] loss2/drop_fc <- loss2/fc
I0403 14:21:42.465591 29618 net.cpp:386] loss2/drop_fc -> loss2/fc (in-place)
I0403 14:21:42.465641 29618 net.cpp:141] Setting up loss2/drop_fc
I0403 14:21:42.465667 29618 net.cpp:148] Top shape: 24 1024 (24576)
I0403 14:21:42.465683 29618 net.cpp:156] Memory required for data: 1208417568
I0403 14:21:42.465698 29618 layer_factory.hpp:77] Creating layer loss2/classifier_plantvillage
I0403 14:21:42.465718 29618 net.cpp:91] Creating Layer loss2/classifier_plantvillage
I0403 14:21:42.465735 29618 net.cpp:425] loss2/classifier_plantvillage <- loss2/fc
I0403 14:21:42.465757 29618 net.cpp:399] loss2/classifier_plantvillage -> loss2/classifier_plantvillage
I0403 14:21:42.466156 29618 net.cpp:141] Setting up loss2/classifier_plantvillage
I0403 14:21:42.466184 29618 net.cpp:148] Top shape: 24 38 (912)
I0403 14:21:42.466200 29618 net.cpp:156] Memory required for data: 1208421216
I0403 14:21:42.466245 29618 layer_factory.hpp:77] Creating layer loss2/classifier_plantvillage_loss2/classifier_plantvillage_0_split
I0403 14:21:42.466265 29618 net.cpp:91] Creating Layer loss2/classifier_plantvillage_loss2/classifier_plantvillage_0_split
I0403 14:21:42.466282 29618 net.cpp:425] loss2/classifier_plantvillage_loss2/classifier_plantvillage_0_split <- loss2/classifier_plantvillage
I0403 14:21:42.466300 29618 net.cpp:399] loss2/classifier_plantvillage_loss2/classifier_plantvillage_0_split -> loss2/classifier_plantvillage_loss2/classifier_plantvillage_0_split_0
I0403 14:21:42.466325 29618 net.cpp:399] loss2/classifier_plantvillage_loss2/classifier_plantvillage_0_split -> loss2/classifier_plantvillage_loss2/classifier_plantvillage_0_split_1
I0403 14:21:42.466348 29618 net.cpp:399] loss2/classifier_plantvillage_loss2/classifier_plantvillage_0_split -> loss2/classifier_plantvillage_loss2/classifier_plantvillage_0_split_2
I0403 14:21:42.466439 29618 net.cpp:141] Setting up loss2/classifier_plantvillage_loss2/classifier_plantvillage_0_split
I0403 14:21:42.466464 29618 net.cpp:148] Top shape: 24 38 (912)
I0403 14:21:42.466482 29618 net.cpp:148] Top shape: 24 38 (912)
I0403 14:21:42.466498 29618 net.cpp:148] Top shape: 24 38 (912)
I0403 14:21:42.466513 29618 net.cpp:156] Memory required for data: 1208432160
I0403 14:21:42.466528 29618 layer_factory.hpp:77] Creating layer inception_4e/1x1
I0403 14:21:42.466549 29618 net.cpp:91] Creating Layer inception_4e/1x1
I0403 14:21:42.466567 29618 net.cpp:425] inception_4e/1x1 <- inception_4d/output_inception_4d/output_0_split_1
I0403 14:21:42.466590 29618 net.cpp:399] inception_4e/1x1 -> inception_4e/1x1
I0403 14:21:42.468446 29618 net.cpp:141] Setting up inception_4e/1x1
I0403 14:21:42.468487 29618 net.cpp:148] Top shape: 24 256 14 14 (1204224)
I0403 14:21:42.468502 29618 net.cpp:156] Memory required for data: 1213249056
I0403 14:21:42.468521 29618 layer_factory.hpp:77] Creating layer inception_4e/relu_1x1
I0403 14:21:42.468544 29618 net.cpp:91] Creating Layer inception_4e/relu_1x1
I0403 14:21:42.468561 29618 net.cpp:425] inception_4e/relu_1x1 <- inception_4e/1x1
I0403 14:21:42.468580 29618 net.cpp:386] inception_4e/relu_1x1 -> inception_4e/1x1 (in-place)
I0403 14:21:42.468868 29618 net.cpp:141] Setting up inception_4e/relu_1x1
I0403 14:21:42.468895 29618 net.cpp:148] Top shape: 24 256 14 14 (1204224)
I0403 14:21:42.468910 29618 net.cpp:156] Memory required for data: 1218065952
I0403 14:21:42.468925 29618 layer_factory.hpp:77] Creating layer inception_4e/3x3_reduce
I0403 14:21:42.468950 29618 net.cpp:91] Creating Layer inception_4e/3x3_reduce
I0403 14:21:42.468968 29618 net.cpp:425] inception_4e/3x3_reduce <- inception_4d/output_inception_4d/output_0_split_2
I0403 14:21:42.468989 29618 net.cpp:399] inception_4e/3x3_reduce -> inception_4e/3x3_reduce
I0403 14:21:42.471114 29618 net.cpp:141] Setting up inception_4e/3x3_reduce
I0403 14:21:42.471144 29618 net.cpp:148] Top shape: 24 160 14 14 (752640)
I0403 14:21:42.471160 29618 net.cpp:156] Memory required for data: 1221076512
I0403 14:21:42.471179 29618 layer_factory.hpp:77] Creating layer inception_4e/relu_3x3_reduce
I0403 14:21:42.471199 29618 net.cpp:91] Creating Layer inception_4e/relu_3x3_reduce
I0403 14:21:42.471217 29618 net.cpp:425] inception_4e/relu_3x3_reduce <- inception_4e/3x3_reduce
I0403 14:21:42.471235 29618 net.cpp:386] inception_4e/relu_3x3_reduce -> inception_4e/3x3_reduce (in-place)
I0403 14:21:42.471436 29618 net.cpp:141] Setting up inception_4e/relu_3x3_reduce
I0403 14:21:42.471467 29618 net.cpp:148] Top shape: 24 160 14 14 (752640)
I0403 14:21:42.471485 29618 net.cpp:156] Memory required for data: 1224087072
I0403 14:21:42.471501 29618 layer_factory.hpp:77] Creating layer inception_4e/3x3
I0403 14:21:42.471524 29618 net.cpp:91] Creating Layer inception_4e/3x3
I0403 14:21:42.471544 29618 net.cpp:425] inception_4e/3x3 <- inception_4e/3x3_reduce
I0403 14:21:42.471562 29618 net.cpp:399] inception_4e/3x3 -> inception_4e/3x3
I0403 14:21:42.476583 29618 net.cpp:141] Setting up inception_4e/3x3
I0403 14:21:42.476627 29618 net.cpp:148] Top shape: 24 320 14 14 (1505280)
I0403 14:21:42.476645 29618 net.cpp:156] Memory required for data: 1230108192
I0403 14:21:42.476665 29618 layer_factory.hpp:77] Creating layer inception_4e/relu_3x3
I0403 14:21:42.476686 29618 net.cpp:91] Creating Layer inception_4e/relu_3x3
I0403 14:21:42.476706 29618 net.cpp:425] inception_4e/relu_3x3 <- inception_4e/3x3
I0403 14:21:42.476727 29618 net.cpp:386] inception_4e/relu_3x3 -> inception_4e/3x3 (in-place)
I0403 14:21:42.477038 29618 net.cpp:141] Setting up inception_4e/relu_3x3
I0403 14:21:42.477066 29618 net.cpp:148] Top shape: 24 320 14 14 (1505280)
I0403 14:21:42.477082 29618 net.cpp:156] Memory required for data: 1236129312
I0403 14:21:42.477097 29618 layer_factory.hpp:77] Creating layer inception_4e/5x5_reduce
I0403 14:21:42.477120 29618 net.cpp:91] Creating Layer inception_4e/5x5_reduce
I0403 14:21:42.477139 29618 net.cpp:425] inception_4e/5x5_reduce <- inception_4d/output_inception_4d/output_0_split_3
I0403 14:21:42.477161 29618 net.cpp:399] inception_4e/5x5_reduce -> inception_4e/5x5_reduce
I0403 14:21:42.478210 29618 net.cpp:141] Setting up inception_4e/5x5_reduce
I0403 14:21:42.478238 29618 net.cpp:148] Top shape: 24 32 14 14 (150528)
I0403 14:21:42.478255 29618 net.cpp:156] Memory required for data: 1236731424
I0403 14:21:42.478274 29618 layer_factory.hpp:77] Creating layer inception_4e/relu_5x5_reduce
I0403 14:21:42.478296 29618 net.cpp:91] Creating Layer inception_4e/relu_5x5_reduce
I0403 14:21:42.478318 29618 net.cpp:425] inception_4e/relu_5x5_reduce <- inception_4e/5x5_reduce
I0403 14:21:42.478338 29618 net.cpp:386] inception_4e/relu_5x5_reduce -> inception_4e/5x5_reduce (in-place)
I0403 14:21:42.478646 29618 net.cpp:141] Setting up inception_4e/relu_5x5_reduce
I0403 14:21:42.478673 29618 net.cpp:148] Top shape: 24 32 14 14 (150528)
I0403 14:21:42.478689 29618 net.cpp:156] Memory required for data: 1237333536
I0403 14:21:42.478706 29618 layer_factory.hpp:77] Creating layer inception_4e/5x5
I0403 14:21:42.478747 29618 net.cpp:91] Creating Layer inception_4e/5x5
I0403 14:21:42.478768 29618 net.cpp:425] inception_4e/5x5 <- inception_4e/5x5_reduce
I0403 14:21:42.478792 29618 net.cpp:399] inception_4e/5x5 -> inception_4e/5x5
I0403 14:21:42.480643 29618 net.cpp:141] Setting up inception_4e/5x5
I0403 14:21:42.480672 29618 net.cpp:148] Top shape: 24 128 14 14 (602112)
I0403 14:21:42.480690 29618 net.cpp:156] Memory required for data: 1239741984
I0403 14:21:42.480708 29618 layer_factory.hpp:77] Creating layer inception_4e/relu_5x5
I0403 14:21:42.480728 29618 net.cpp:91] Creating Layer inception_4e/relu_5x5
I0403 14:21:42.480747 29618 net.cpp:425] inception_4e/relu_5x5 <- inception_4e/5x5
I0403 14:21:42.480765 29618 net.cpp:386] inception_4e/relu_5x5 -> inception_4e/5x5 (in-place)
I0403 14:21:42.480957 29618 net.cpp:141] Setting up inception_4e/relu_5x5
I0403 14:21:42.480983 29618 net.cpp:148] Top shape: 24 128 14 14 (602112)
I0403 14:21:42.481000 29618 net.cpp:156] Memory required for data: 1242150432
I0403 14:21:42.481016 29618 layer_factory.hpp:77] Creating layer inception_4e/pool
I0403 14:21:42.481035 29618 net.cpp:91] Creating Layer inception_4e/pool
I0403 14:21:42.481052 29618 net.cpp:425] inception_4e/pool <- inception_4d/output_inception_4d/output_0_split_4
I0403 14:21:42.481071 29618 net.cpp:399] inception_4e/pool -> inception_4e/pool
I0403 14:21:42.481142 29618 net.cpp:141] Setting up inception_4e/pool
I0403 14:21:42.481166 29618 net.cpp:148] Top shape: 24 528 14 14 (2483712)
I0403 14:21:42.481180 29618 net.cpp:156] Memory required for data: 1252085280
I0403 14:21:42.481197 29618 layer_factory.hpp:77] Creating layer inception_4e/pool_proj
I0403 14:21:42.481221 29618 net.cpp:91] Creating Layer inception_4e/pool_proj
I0403 14:21:42.481240 29618 net.cpp:425] inception_4e/pool_proj <- inception_4e/pool
I0403 14:21:42.481259 29618 net.cpp:399] inception_4e/pool_proj -> inception_4e/pool_proj
I0403 14:21:42.482805 29618 net.cpp:141] Setting up inception_4e/pool_proj
I0403 14:21:42.482834 29618 net.cpp:148] Top shape: 24 128 14 14 (602112)
I0403 14:21:42.482866 29618 net.cpp:156] Memory required for data: 1254493728
I0403 14:21:42.482887 29618 layer_factory.hpp:77] Creating layer inception_4e/relu_pool_proj
I0403 14:21:42.482905 29618 net.cpp:91] Creating Layer inception_4e/relu_pool_proj
I0403 14:21:42.482923 29618 net.cpp:425] inception_4e/relu_pool_proj <- inception_4e/pool_proj
I0403 14:21:42.482944 29618 net.cpp:386] inception_4e/relu_pool_proj -> inception_4e/pool_proj (in-place)
I0403 14:21:42.483242 29618 net.cpp:141] Setting up inception_4e/relu_pool_proj
I0403 14:21:42.483268 29618 net.cpp:148] Top shape: 24 128 14 14 (602112)
I0403 14:21:42.483283 29618 net.cpp:156] Memory required for data: 1256902176
I0403 14:21:42.483300 29618 layer_factory.hpp:77] Creating layer inception_4e/output
I0403 14:21:42.483322 29618 net.cpp:91] Creating Layer inception_4e/output
I0403 14:21:42.483341 29618 net.cpp:425] inception_4e/output <- inception_4e/1x1
I0403 14:21:42.483358 29618 net.cpp:425] inception_4e/output <- inception_4e/3x3
I0403 14:21:42.483376 29618 net.cpp:425] inception_4e/output <- inception_4e/5x5
I0403 14:21:42.483392 29618 net.cpp:425] inception_4e/output <- inception_4e/pool_proj
I0403 14:21:42.483412 29618 net.cpp:399] inception_4e/output -> inception_4e/output
I0403 14:21:42.483464 29618 net.cpp:141] Setting up inception_4e/output
I0403 14:21:42.483491 29618 net.cpp:148] Top shape: 24 832 14 14 (3913728)
I0403 14:21:42.483508 29618 net.cpp:156] Memory required for data: 1272557088
I0403 14:21:42.483523 29618 layer_factory.hpp:77] Creating layer pool4/3x3_s2
I0403 14:21:42.483543 29618 net.cpp:91] Creating Layer pool4/3x3_s2
I0403 14:21:42.483559 29618 net.cpp:425] pool4/3x3_s2 <- inception_4e/output
I0403 14:21:42.483578 29618 net.cpp:399] pool4/3x3_s2 -> pool4/3x3_s2
I0403 14:21:42.483647 29618 net.cpp:141] Setting up pool4/3x3_s2
I0403 14:21:42.483672 29618 net.cpp:148] Top shape: 24 832 7 7 (978432)
I0403 14:21:42.483687 29618 net.cpp:156] Memory required for data: 1276470816
I0403 14:21:42.483702 29618 layer_factory.hpp:77] Creating layer pool4/3x3_s2_pool4/3x3_s2_0_split
I0403 14:21:42.483736 29618 net.cpp:91] Creating Layer pool4/3x3_s2_pool4/3x3_s2_0_split
I0403 14:21:42.483753 29618 net.cpp:425] pool4/3x3_s2_pool4/3x3_s2_0_split <- pool4/3x3_s2
I0403 14:21:42.483773 29618 net.cpp:399] pool4/3x3_s2_pool4/3x3_s2_0_split -> pool4/3x3_s2_pool4/3x3_s2_0_split_0
I0403 14:21:42.483796 29618 net.cpp:399] pool4/3x3_s2_pool4/3x3_s2_0_split -> pool4/3x3_s2_pool4/3x3_s2_0_split_1
I0403 14:21:42.483819 29618 net.cpp:399] pool4/3x3_s2_pool4/3x3_s2_0_split -> pool4/3x3_s2_pool4/3x3_s2_0_split_2
I0403 14:21:42.483844 29618 net.cpp:399] pool4/3x3_s2_pool4/3x3_s2_0_split -> pool4/3x3_s2_pool4/3x3_s2_0_split_3
I0403 14:21:42.483939 29618 net.cpp:141] Setting up pool4/3x3_s2_pool4/3x3_s2_0_split
I0403 14:21:42.483964 29618 net.cpp:148] Top shape: 24 832 7 7 (978432)
I0403 14:21:42.483983 29618 net.cpp:148] Top shape: 24 832 7 7 (978432)
I0403 14:21:42.483999 29618 net.cpp:148] Top shape: 24 832 7 7 (978432)
I0403 14:21:42.484016 29618 net.cpp:148] Top shape: 24 832 7 7 (978432)
I0403 14:21:42.484030 29618 net.cpp:156] Memory required for data: 1292125728
I0403 14:21:42.484045 29618 layer_factory.hpp:77] Creating layer inception_5a/1x1
I0403 14:21:42.484069 29618 net.cpp:91] Creating Layer inception_5a/1x1
I0403 14:21:42.484088 29618 net.cpp:425] inception_5a/1x1 <- pool4/3x3_s2_pool4/3x3_s2_0_split_0
I0403 14:21:42.484110 29618 net.cpp:399] inception_5a/1x1 -> inception_5a/1x1
I0403 14:21:42.487088 29618 net.cpp:141] Setting up inception_5a/1x1
I0403 14:21:42.487119 29618 net.cpp:148] Top shape: 24 256 7 7 (301056)
I0403 14:21:42.487136 29618 net.cpp:156] Memory required for data: 1293329952
I0403 14:21:42.487155 29618 layer_factory.hpp:77] Creating layer inception_5a/relu_1x1
I0403 14:21:42.487176 29618 net.cpp:91] Creating Layer inception_5a/relu_1x1
I0403 14:21:42.487195 29618 net.cpp:425] inception_5a/relu_1x1 <- inception_5a/1x1
I0403 14:21:42.487213 29618 net.cpp:386] inception_5a/relu_1x1 -> inception_5a/1x1 (in-place)
I0403 14:21:42.487545 29618 net.cpp:141] Setting up inception_5a/relu_1x1
I0403 14:21:42.487576 29618 net.cpp:148] Top shape: 24 256 7 7 (301056)
I0403 14:21:42.487594 29618 net.cpp:156] Memory required for data: 1294534176
I0403 14:21:42.487612 29618 layer_factory.hpp:77] Creating layer inception_5a/3x3_reduce
I0403 14:21:42.487635 29618 net.cpp:91] Creating Layer inception_5a/3x3_reduce
I0403 14:21:42.487654 29618 net.cpp:425] inception_5a/3x3_reduce <- pool4/3x3_s2_pool4/3x3_s2_0_split_1
I0403 14:21:42.487679 29618 net.cpp:399] inception_5a/3x3_reduce -> inception_5a/3x3_reduce
I0403 14:21:42.490222 29618 net.cpp:141] Setting up inception_5a/3x3_reduce
I0403 14:21:42.490253 29618 net.cpp:148] Top shape: 24 160 7 7 (188160)
I0403 14:21:42.490270 29618 net.cpp:156] Memory required for data: 1295286816
I0403 14:21:42.490290 29618 layer_factory.hpp:77] Creating layer inception_5a/relu_3x3_reduce
I0403 14:21:42.490309 29618 net.cpp:91] Creating Layer inception_5a/relu_3x3_reduce
I0403 14:21:42.490331 29618 net.cpp:425] inception_5a/relu_3x3_reduce <- inception_5a/3x3_reduce
I0403 14:21:42.490352 29618 net.cpp:386] inception_5a/relu_3x3_reduce -> inception_5a/3x3_reduce (in-place)
I0403 14:21:42.490543 29618 net.cpp:141] Setting up inception_5a/relu_3x3_reduce
I0403 14:21:42.490571 29618 net.cpp:148] Top shape: 24 160 7 7 (188160)
I0403 14:21:42.490586 29618 net.cpp:156] Memory required for data: 1296039456
I0403 14:21:42.490603 29618 layer_factory.hpp:77] Creating layer inception_5a/3x3
I0403 14:21:42.490625 29618 net.cpp:91] Creating Layer inception_5a/3x3
I0403 14:21:42.490643 29618 net.cpp:425] inception_5a/3x3 <- inception_5a/3x3_reduce
I0403 14:21:42.490667 29618 net.cpp:399] inception_5a/3x3 -> inception_5a/3x3
I0403 14:21:42.495838 29618 net.cpp:141] Setting up inception_5a/3x3
I0403 14:21:42.495872 29618 net.cpp:148] Top shape: 24 320 7 7 (376320)
I0403 14:21:42.495887 29618 net.cpp:156] Memory required for data: 1297544736
I0403 14:21:42.495906 29618 layer_factory.hpp:77] Creating layer inception_5a/relu_3x3
I0403 14:21:42.495929 29618 net.cpp:91] Creating Layer inception_5a/relu_3x3
I0403 14:21:42.495946 29618 net.cpp:425] inception_5a/relu_3x3 <- inception_5a/3x3
I0403 14:21:42.495965 29618 net.cpp:386] inception_5a/relu_3x3 -> inception_5a/3x3 (in-place)
I0403 14:21:42.496263 29618 net.cpp:141] Setting up inception_5a/relu_3x3
I0403 14:21:42.496291 29618 net.cpp:148] Top shape: 24 320 7 7 (376320)
I0403 14:21:42.496307 29618 net.cpp:156] Memory required for data: 1299050016
I0403 14:21:42.496340 29618 layer_factory.hpp:77] Creating layer inception_5a/5x5_reduce
I0403 14:21:42.496366 29618 net.cpp:91] Creating Layer inception_5a/5x5_reduce
I0403 14:21:42.496388 29618 net.cpp:425] inception_5a/5x5_reduce <- pool4/3x3_s2_pool4/3x3_s2_0_split_2
I0403 14:21:42.496412 29618 net.cpp:399] inception_5a/5x5_reduce -> inception_5a/5x5_reduce
I0403 14:21:42.497632 29618 net.cpp:141] Setting up inception_5a/5x5_reduce
I0403 14:21:42.497663 29618 net.cpp:148] Top shape: 24 32 7 7 (37632)
I0403 14:21:42.497681 29618 net.cpp:156] Memory required for data: 1299200544
I0403 14:21:42.497702 29618 layer_factory.hpp:77] Creating layer inception_5a/relu_5x5_reduce
I0403 14:21:42.497720 29618 net.cpp:91] Creating Layer inception_5a/relu_5x5_reduce
I0403 14:21:42.497737 29618 net.cpp:425] inception_5a/relu_5x5_reduce <- inception_5a/5x5_reduce
I0403 14:21:42.497757 29618 net.cpp:386] inception_5a/relu_5x5_reduce -> inception_5a/5x5_reduce (in-place)
I0403 14:21:42.498078 29618 net.cpp:141] Setting up inception_5a/relu_5x5_reduce
I0403 14:21:42.498106 29618 net.cpp:148] Top shape: 24 32 7 7 (37632)
I0403 14:21:42.498123 29618 net.cpp:156] Memory required for data: 1299351072
I0403 14:21:42.498141 29618 layer_factory.hpp:77] Creating layer inception_5a/5x5
I0403 14:21:42.498164 29618 net.cpp:91] Creating Layer inception_5a/5x5
I0403 14:21:42.498183 29618 net.cpp:425] inception_5a/5x5 <- inception_5a/5x5_reduce
I0403 14:21:42.498206 29618 net.cpp:399] inception_5a/5x5 -> inception_5a/5x5
I0403 14:21:42.499989 29618 net.cpp:141] Setting up inception_5a/5x5
I0403 14:21:42.500032 29618 net.cpp:148] Top shape: 24 128 7 7 (150528)
I0403 14:21:42.500051 29618 net.cpp:156] Memory required for data: 1299953184
I0403 14:21:42.500072 29618 layer_factory.hpp:77] Creating layer inception_5a/relu_5x5
I0403 14:21:42.500093 29618 net.cpp:91] Creating Layer inception_5a/relu_5x5
I0403 14:21:42.500113 29618 net.cpp:425] inception_5a/relu_5x5 <- inception_5a/5x5
I0403 14:21:42.500131 29618 net.cpp:386] inception_5a/relu_5x5 -> inception_5a/5x5 (in-place)
I0403 14:21:42.500344 29618 net.cpp:141] Setting up inception_5a/relu_5x5
I0403 14:21:42.500386 29618 net.cpp:148] Top shape: 24 128 7 7 (150528)
I0403 14:21:42.500404 29618 net.cpp:156] Memory required for data: 1300555296
I0403 14:21:42.500419 29618 layer_factory.hpp:77] Creating layer inception_5a/pool
I0403 14:21:42.500439 29618 net.cpp:91] Creating Layer inception_5a/pool
I0403 14:21:42.500458 29618 net.cpp:425] inception_5a/pool <- pool4/3x3_s2_pool4/3x3_s2_0_split_3
I0403 14:21:42.500478 29618 net.cpp:399] inception_5a/pool -> inception_5a/pool
I0403 14:21:42.500552 29618 net.cpp:141] Setting up inception_5a/pool
I0403 14:21:42.500579 29618 net.cpp:148] Top shape: 24 832 7 7 (978432)
I0403 14:21:42.500596 29618 net.cpp:156] Memory required for data: 1304469024
I0403 14:21:42.500610 29618 layer_factory.hpp:77] Creating layer inception_5a/pool_proj
I0403 14:21:42.500646 29618 net.cpp:91] Creating Layer inception_5a/pool_proj
I0403 14:21:42.500665 29618 net.cpp:425] inception_5a/pool_proj <- inception_5a/pool
I0403 14:21:42.500689 29618 net.cpp:399] inception_5a/pool_proj -> inception_5a/pool_proj
I0403 14:21:42.502990 29618 net.cpp:141] Setting up inception_5a/pool_proj
I0403 14:21:42.503020 29618 net.cpp:148] Top shape: 24 128 7 7 (150528)
I0403 14:21:42.503037 29618 net.cpp:156] Memory required for data: 1305071136
I0403 14:21:42.503056 29618 layer_factory.hpp:77] Creating layer inception_5a/relu_pool_proj
I0403 14:21:42.503077 29618 net.cpp:91] Creating Layer inception_5a/relu_pool_proj
I0403 14:21:42.503093 29618 net.cpp:425] inception_5a/relu_pool_proj <- inception_5a/pool_proj
I0403 14:21:42.503113 29618 net.cpp:386] inception_5a/relu_pool_proj -> inception_5a/pool_proj (in-place)
I0403 14:21:42.503413 29618 net.cpp:141] Setting up inception_5a/relu_pool_proj
I0403 14:21:42.503453 29618 net.cpp:148] Top shape: 24 128 7 7 (150528)
I0403 14:21:42.503471 29618 net.cpp:156] Memory required for data: 1305673248
I0403 14:21:42.503487 29618 layer_factory.hpp:77] Creating layer inception_5a/output
I0403 14:21:42.503507 29618 net.cpp:91] Creating Layer inception_5a/output
I0403 14:21:42.503525 29618 net.cpp:425] inception_5a/output <- inception_5a/1x1
I0403 14:21:42.503543 29618 net.cpp:425] inception_5a/output <- inception_5a/3x3
I0403 14:21:42.503561 29618 net.cpp:425] inception_5a/output <- inception_5a/5x5
I0403 14:21:42.503578 29618 net.cpp:425] inception_5a/output <- inception_5a/pool_proj
I0403 14:21:42.503597 29618 net.cpp:399] inception_5a/output -> inception_5a/output
I0403 14:21:42.503648 29618 net.cpp:141] Setting up inception_5a/output
I0403 14:21:42.503675 29618 net.cpp:148] Top shape: 24 832 7 7 (978432)
I0403 14:21:42.503691 29618 net.cpp:156] Memory required for data: 1309586976
I0403 14:21:42.503707 29618 layer_factory.hpp:77] Creating layer inception_5a/output_inception_5a/output_0_split
I0403 14:21:42.503726 29618 net.cpp:91] Creating Layer inception_5a/output_inception_5a/output_0_split
I0403 14:21:42.503742 29618 net.cpp:425] inception_5a/output_inception_5a/output_0_split <- inception_5a/output
I0403 14:21:42.503762 29618 net.cpp:399] inception_5a/output_inception_5a/output_0_split -> inception_5a/output_inception_5a/output_0_split_0
I0403 14:21:42.503796 29618 net.cpp:399] inception_5a/output_inception_5a/output_0_split -> inception_5a/output_inception_5a/output_0_split_1
I0403 14:21:42.503818 29618 net.cpp:399] inception_5a/output_inception_5a/output_0_split -> inception_5a/output_inception_5a/output_0_split_2
I0403 14:21:42.503839 29618 net.cpp:399] inception_5a/output_inception_5a/output_0_split -> inception_5a/output_inception_5a/output_0_split_3
I0403 14:21:42.503950 29618 net.cpp:141] Setting up inception_5a/output_inception_5a/output_0_split
I0403 14:21:42.503975 29618 net.cpp:148] Top shape: 24 832 7 7 (978432)
I0403 14:21:42.503991 29618 net.cpp:148] Top shape: 24 832 7 7 (978432)
I0403 14:21:42.504006 29618 net.cpp:148] Top shape: 24 832 7 7 (978432)
I0403 14:21:42.504022 29618 net.cpp:148] Top shape: 24 832 7 7 (978432)
I0403 14:21:42.504036 29618 net.cpp:156] Memory required for data: 1325241888
I0403 14:21:42.504051 29618 layer_factory.hpp:77] Creating layer inception_5b/1x1
I0403 14:21:42.504075 29618 net.cpp:91] Creating Layer inception_5b/1x1
I0403 14:21:42.504093 29618 net.cpp:425] inception_5b/1x1 <- inception_5a/output_inception_5a/output_0_split_0
I0403 14:21:42.504114 29618 net.cpp:399] inception_5b/1x1 -> inception_5b/1x1
I0403 14:21:42.508015 29618 net.cpp:141] Setting up inception_5b/1x1
I0403 14:21:42.508046 29618 net.cpp:148] Top shape: 24 384 7 7 (451584)
I0403 14:21:42.508064 29618 net.cpp:156] Memory required for data: 1327048224
I0403 14:21:42.508082 29618 layer_factory.hpp:77] Creating layer inception_5b/relu_1x1
I0403 14:21:42.508101 29618 net.cpp:91] Creating Layer inception_5b/relu_1x1
I0403 14:21:42.508119 29618 net.cpp:425] inception_5b/relu_1x1 <- inception_5b/1x1
I0403 14:21:42.508139 29618 net.cpp:386] inception_5b/relu_1x1 -> inception_5b/1x1 (in-place)
I0403 14:21:42.508450 29618 net.cpp:141] Setting up inception_5b/relu_1x1
I0403 14:21:42.508476 29618 net.cpp:148] Top shape: 24 384 7 7 (451584)
I0403 14:21:42.508491 29618 net.cpp:156] Memory required for data: 1328854560
I0403 14:21:42.508507 29618 layer_factory.hpp:77] Creating layer inception_5b/3x3_reduce
I0403 14:21:42.508529 29618 net.cpp:91] Creating Layer inception_5b/3x3_reduce
I0403 14:21:42.508549 29618 net.cpp:425] inception_5b/3x3_reduce <- inception_5a/output_inception_5a/output_0_split_1
I0403 14:21:42.508572 29618 net.cpp:399] inception_5b/3x3_reduce -> inception_5b/3x3_reduce
I0403 14:21:42.511349 29618 net.cpp:141] Setting up inception_5b/3x3_reduce
I0403 14:21:42.511380 29618 net.cpp:148] Top shape: 24 192 7 7 (225792)
I0403 14:21:42.511399 29618 net.cpp:156] Memory required for data: 1329757728
I0403 14:21:42.511417 29618 layer_factory.hpp:77] Creating layer inception_5b/relu_3x3_reduce
I0403 14:21:42.511435 29618 net.cpp:91] Creating Layer inception_5b/relu_3x3_reduce
I0403 14:21:42.511452 29618 net.cpp:425] inception_5b/relu_3x3_reduce <- inception_5b/3x3_reduce
I0403 14:21:42.511472 29618 net.cpp:386] inception_5b/relu_3x3_reduce -> inception_5b/3x3_reduce (in-place)
I0403 14:21:42.511662 29618 net.cpp:141] Setting up inception_5b/relu_3x3_reduce
I0403 14:21:42.511687 29618 net.cpp:148] Top shape: 24 192 7 7 (225792)
I0403 14:21:42.511701 29618 net.cpp:156] Memory required for data: 1330660896
I0403 14:21:42.511716 29618 layer_factory.hpp:77] Creating layer inception_5b/3x3
I0403 14:21:42.511739 29618 net.cpp:91] Creating Layer inception_5b/3x3
I0403 14:21:42.511757 29618 net.cpp:425] inception_5b/3x3 <- inception_5b/3x3_reduce
I0403 14:21:42.511781 29618 net.cpp:399] inception_5b/3x3 -> inception_5b/3x3
I0403 14:21:42.518476 29618 net.cpp:141] Setting up inception_5b/3x3
I0403 14:21:42.518507 29618 net.cpp:148] Top shape: 24 384 7 7 (451584)
I0403 14:21:42.518523 29618 net.cpp:156] Memory required for data: 1332467232
I0403 14:21:42.518543 29618 layer_factory.hpp:77] Creating layer inception_5b/relu_3x3
I0403 14:21:42.518564 29618 net.cpp:91] Creating Layer inception_5b/relu_3x3
I0403 14:21:42.518584 29618 net.cpp:425] inception_5b/relu_3x3 <- inception_5b/3x3
I0403 14:21:42.518601 29618 net.cpp:386] inception_5b/relu_3x3 -> inception_5b/3x3 (in-place)
I0403 14:21:42.518905 29618 net.cpp:141] Setting up inception_5b/relu_3x3
I0403 14:21:42.518931 29618 net.cpp:148] Top shape: 24 384 7 7 (451584)
I0403 14:21:42.518947 29618 net.cpp:156] Memory required for data: 1334273568
I0403 14:21:42.518964 29618 layer_factory.hpp:77] Creating layer inception_5b/5x5_reduce
I0403 14:21:42.519003 29618 net.cpp:91] Creating Layer inception_5b/5x5_reduce
I0403 14:21:42.519024 29618 net.cpp:425] inception_5b/5x5_reduce <- inception_5a/output_inception_5a/output_0_split_2
I0403 14:21:42.519047 29618 net.cpp:399] inception_5b/5x5_reduce -> inception_5b/5x5_reduce
I0403 14:21:42.520303 29618 net.cpp:141] Setting up inception_5b/5x5_reduce
I0403 14:21:42.520335 29618 net.cpp:148] Top shape: 24 48 7 7 (56448)
I0403 14:21:42.520352 29618 net.cpp:156] Memory required for data: 1334499360
I0403 14:21:42.520371 29618 layer_factory.hpp:77] Creating layer inception_5b/relu_5x5_reduce
I0403 14:21:42.520390 29618 net.cpp:91] Creating Layer inception_5b/relu_5x5_reduce
I0403 14:21:42.520406 29618 net.cpp:425] inception_5b/relu_5x5_reduce <- inception_5b/5x5_reduce
I0403 14:21:42.520426 29618 net.cpp:386] inception_5b/relu_5x5_reduce -> inception_5b/5x5_reduce (in-place)
I0403 14:21:42.520799 29618 net.cpp:141] Setting up inception_5b/relu_5x5_reduce
I0403 14:21:42.520828 29618 net.cpp:148] Top shape: 24 48 7 7 (56448)
I0403 14:21:42.520843 29618 net.cpp:156] Memory required for data: 1334725152
I0403 14:21:42.520859 29618 layer_factory.hpp:77] Creating layer inception_5b/5x5
I0403 14:21:42.520880 29618 net.cpp:91] Creating Layer inception_5b/5x5
I0403 14:21:42.520898 29618 net.cpp:425] inception_5b/5x5 <- inception_5b/5x5_reduce
I0403 14:21:42.520917 29618 net.cpp:399] inception_5b/5x5 -> inception_5b/5x5
I0403 14:21:42.522951 29618 net.cpp:141] Setting up inception_5b/5x5
I0403 14:21:42.522980 29618 net.cpp:148] Top shape: 24 128 7 7 (150528)
I0403 14:21:42.522996 29618 net.cpp:156] Memory required for data: 1335327264
I0403 14:21:42.523015 29618 layer_factory.hpp:77] Creating layer inception_5b/relu_5x5
I0403 14:21:42.523037 29618 net.cpp:91] Creating Layer inception_5b/relu_5x5
I0403 14:21:42.523054 29618 net.cpp:425] inception_5b/relu_5x5 <- inception_5b/5x5
I0403 14:21:42.523072 29618 net.cpp:386] inception_5b/relu_5x5 -> inception_5b/5x5 (in-place)
I0403 14:21:42.523264 29618 net.cpp:141] Setting up inception_5b/relu_5x5
I0403 14:21:42.523289 29618 net.cpp:148] Top shape: 24 128 7 7 (150528)
I0403 14:21:42.523305 29618 net.cpp:156] Memory required for data: 1335929376
I0403 14:21:42.523325 29618 layer_factory.hpp:77] Creating layer inception_5b/pool
I0403 14:21:42.523346 29618 net.cpp:91] Creating Layer inception_5b/pool
I0403 14:21:42.523365 29618 net.cpp:425] inception_5b/pool <- inception_5a/output_inception_5a/output_0_split_3
I0403 14:21:42.523386 29618 net.cpp:399] inception_5b/pool -> inception_5b/pool
I0403 14:21:42.523459 29618 net.cpp:141] Setting up inception_5b/pool
I0403 14:21:42.523485 29618 net.cpp:148] Top shape: 24 832 7 7 (978432)
I0403 14:21:42.523499 29618 net.cpp:156] Memory required for data: 1339843104
I0403 14:21:42.523515 29618 layer_factory.hpp:77] Creating layer inception_5b/pool_proj
I0403 14:21:42.523536 29618 net.cpp:91] Creating Layer inception_5b/pool_proj
I0403 14:21:42.523555 29618 net.cpp:425] inception_5b/pool_proj <- inception_5b/pool
I0403 14:21:42.523576 29618 net.cpp:399] inception_5b/pool_proj -> inception_5b/pool_proj
I0403 14:21:42.525852 29618 net.cpp:141] Setting up inception_5b/pool_proj
I0403 14:21:42.525882 29618 net.cpp:148] Top shape: 24 128 7 7 (150528)
I0403 14:21:42.525900 29618 net.cpp:156] Memory required for data: 1340445216
I0403 14:21:42.525919 29618 layer_factory.hpp:77] Creating layer inception_5b/relu_pool_proj
I0403 14:21:42.525938 29618 net.cpp:91] Creating Layer inception_5b/relu_pool_proj
I0403 14:21:42.525954 29618 net.cpp:425] inception_5b/relu_pool_proj <- inception_5b/pool_proj
I0403 14:21:42.525974 29618 net.cpp:386] inception_5b/relu_pool_proj -> inception_5b/pool_proj (in-place)
I0403 14:21:42.526270 29618 net.cpp:141] Setting up inception_5b/relu_pool_proj
I0403 14:21:42.526298 29618 net.cpp:148] Top shape: 24 128 7 7 (150528)
I0403 14:21:42.526312 29618 net.cpp:156] Memory required for data: 1341047328
I0403 14:21:42.526334 29618 layer_factory.hpp:77] Creating layer inception_5b/output
I0403 14:21:42.526352 29618 net.cpp:91] Creating Layer inception_5b/output
I0403 14:21:42.526384 29618 net.cpp:425] inception_5b/output <- inception_5b/1x1
I0403 14:21:42.526403 29618 net.cpp:425] inception_5b/output <- inception_5b/3x3
I0403 14:21:42.526420 29618 net.cpp:425] inception_5b/output <- inception_5b/5x5
I0403 14:21:42.526437 29618 net.cpp:425] inception_5b/output <- inception_5b/pool_proj
I0403 14:21:42.526456 29618 net.cpp:399] inception_5b/output -> inception_5b/output
I0403 14:21:42.526510 29618 net.cpp:141] Setting up inception_5b/output
I0403 14:21:42.526535 29618 net.cpp:148] Top shape: 24 1024 7 7 (1204224)
I0403 14:21:42.526552 29618 net.cpp:156] Memory required for data: 1345864224
I0403 14:21:42.526568 29618 layer_factory.hpp:77] Creating layer pool5/7x7_s1
I0403 14:21:42.526587 29618 net.cpp:91] Creating Layer pool5/7x7_s1
I0403 14:21:42.526602 29618 net.cpp:425] pool5/7x7_s1 <- inception_5b/output
I0403 14:21:42.526623 29618 net.cpp:399] pool5/7x7_s1 -> pool5/7x7_s1
I0403 14:21:42.526834 29618 net.cpp:141] Setting up pool5/7x7_s1
I0403 14:21:42.526861 29618 net.cpp:148] Top shape: 24 1024 1 1 (24576)
I0403 14:21:42.526876 29618 net.cpp:156] Memory required for data: 1345962528
I0403 14:21:42.526891 29618 layer_factory.hpp:77] Creating layer pool5/drop_7x7_s1
I0403 14:21:42.526909 29618 net.cpp:91] Creating Layer pool5/drop_7x7_s1
I0403 14:21:42.526926 29618 net.cpp:425] pool5/drop_7x7_s1 <- pool5/7x7_s1
I0403 14:21:42.526947 29618 net.cpp:386] pool5/drop_7x7_s1 -> pool5/7x7_s1 (in-place)
I0403 14:21:42.527000 29618 net.cpp:141] Setting up pool5/drop_7x7_s1
I0403 14:21:42.527024 29618 net.cpp:148] Top shape: 24 1024 1 1 (24576)
I0403 14:21:42.527040 29618 net.cpp:156] Memory required for data: 1346060832
I0403 14:21:42.527055 29618 layer_factory.hpp:77] Creating layer loss3/classifier_plantvillage
I0403 14:21:42.527073 29618 net.cpp:91] Creating Layer loss3/classifier_plantvillage
I0403 14:21:42.527089 29618 net.cpp:425] loss3/classifier_plantvillage <- pool5/7x7_s1
I0403 14:21:42.527112 29618 net.cpp:399] loss3/classifier_plantvillage -> loss3/classifier_plantvillage
I0403 14:21:42.527559 29618 net.cpp:141] Setting up loss3/classifier_plantvillage
I0403 14:21:42.527585 29618 net.cpp:148] Top shape: 24 38 (912)
I0403 14:21:42.527600 29618 net.cpp:156] Memory required for data: 1346064480
I0403 14:21:42.527618 29618 layer_factory.hpp:77] Creating layer loss3/classifier_plantvillage_loss3/classifier_plantvillage_0_split
I0403 14:21:42.527640 29618 net.cpp:91] Creating Layer loss3/classifier_plantvillage_loss3/classifier_plantvillage_0_split
I0403 14:21:42.527659 29618 net.cpp:425] loss3/classifier_plantvillage_loss3/classifier_plantvillage_0_split <- loss3/classifier_plantvillage
I0403 14:21:42.527680 29618 net.cpp:399] loss3/classifier_plantvillage_loss3/classifier_plantvillage_0_split -> loss3/classifier_plantvillage_loss3/classifier_plantvillage_0_split_0
I0403 14:21:42.527701 29618 net.cpp:399] loss3/classifier_plantvillage_loss3/classifier_plantvillage_0_split -> loss3/classifier_plantvillage_loss3/classifier_plantvillage_0_split_1
I0403 14:21:42.527721 29618 net.cpp:399] loss3/classifier_plantvillage_loss3/classifier_plantvillage_0_split -> loss3/classifier_plantvillage_loss3/classifier_plantvillage_0_split_2
I0403 14:21:42.527742 29618 net.cpp:399] loss3/classifier_plantvillage_loss3/classifier_plantvillage_0_split -> loss3/classifier_plantvillage_loss3/classifier_plantvillage_0_split_3
I0403 14:21:42.527848 29618 net.cpp:141] Setting up loss3/classifier_plantvillage_loss3/classifier_plantvillage_0_split
I0403 14:21:42.527874 29618 net.cpp:148] Top shape: 24 38 (912)
I0403 14:21:42.527890 29618 net.cpp:148] Top shape: 24 38 (912)
I0403 14:21:42.527907 29618 net.cpp:148] Top shape: 24 38 (912)
I0403 14:21:42.527922 29618 net.cpp:148] Top shape: 24 38 (912)
I0403 14:21:42.527936 29618 net.cpp:156] Memory required for data: 1346079072
I0403 14:21:42.527951 29618 layer_factory.hpp:77] Creating layer loss1/loss
I0403 14:21:42.527973 29618 net.cpp:91] Creating Layer loss1/loss
I0403 14:21:42.527992 29618 net.cpp:425] loss1/loss <- loss1/classifier_plantvillage_loss1/classifier_plantvillage_0_split_0
I0403 14:21:42.528025 29618 net.cpp:425] loss1/loss <- label_data_1_split_0
…
