…
I0403 15:11:13.821283 31265 net.cpp:313] The NetState phase (1) differed from the phase (0) specified by a rule in layer data
I0403 15:11:13.822420 31265 net.cpp:49] Initializing net from parameters: 
state {
  phase: TEST
}
layer {
  name: "data"
  type: "Data"
  top: "data"
  top: "label"
  include {
    phase: TEST
  }
  transform_param {
    mirror: false
    crop_size: 224
    mean_file: "/home/mohanty/data/final_dataset/lmdb/color-20-80/mean.binaryproto"
  }
  data_param {
    source: "/home/mohanty/data/final_dataset/lmdb/color-20-80/test_db"
    batch_size: 24
    backend: LMDB
  }
}
layer {
  name: "conv1/7x7_s2"
  type: "Convolution"
  bottom: "data"
  top: "conv1/7x7_s2"
  param {
    lr_mult: 1
    decay_mult: 1
  }
  param {
    lr_mult: 2
    decay_mult: 0
  }
  convolution_param {
    num_output: 64
    pad: 3
    kernel_size: 7
    stride: 2
    weight_filler {
      type: "xavier"
      std: 0.1
    }
    bias_filler {
      type: "constant"
      value: 0.2
    }
  }
}
layer {
  name: "conv1/relu_7x7"
  type: "ReLU"
  bottom: "conv1/7x7_s2"
  top: "conv1/7x7_s2"
}
layer {
  name: "pool1/3x3_s2"
  type: "Pooling"
  bottom: "conv1/7x7_s2"
  top: "pool1/3x3_s2"
  pooling_param {
    pool: MAX
    kernel_size: 3
    stride: 2
  }
}
layer {
  name: "pool1/norm1"
  type: "LRN"
  bottom: "pool1/3x3_s2"
  top: "pool1/norm1"
  lrn_param {
    local_size: 5
    alpha: 0.0001
    beta: 0.75
  }
}
layer {
  name: "conv2/3x3_reduce"
  type: "Convolution"
  bottom: "pool1/norm1"
  top: "conv2/3x3_reduce"
  param {
    lr_mult: 1
    decay_mult: 1
  }
  param {
    lr_mult: 2
    decay_mult: 0
  }
  convolution_param {
    num_output: 64
    kernel_size: 1
    weight_filler {
      type: "xavier"
      std: 0.1
    }
    bias_filler {
      type: "constant"
      value: 0.2
    }
  }
}
layer {
  name: "conv2/relu_3x3_reduce"
  type: "ReLU"
  bottom: "conv2/3x3_reduce"
  top: "conv2/3x3_reduce"
}
layer {
  name: "conv2/3x3"
  type: "Convolution"
  bottom: "conv2/3x3_reduce"
  top: "conv2/3x3"
  param {
    lr_mult: 1
    decay_mult: 1
  }
  param {
    lr_mult: 2
    decay_mult: 0
  }
  convolution_param {
    num_output: 192
    pad: 1
    kernel_size: 3
    weight_filler {
      type: "xavier"
      std: 0.03
    }
    bias_filler {
      type: "constant"
      value: 0.2
    }
  }
}
layer {
  name: "conv2/relu_3x3"
  type: "ReLU"
  bottom: "conv2/3x3"
  top: "conv2/3x3"
}
layer {
  name: "conv2/norm2"
  type: "LRN"
  bottom: "conv2/3x3"
  top: "conv2/norm2"
  lrn_param {
    local_size: 5
    alpha: 0.0001
    beta: 0.75
  }
}
layer {
  name: "pool2/3x3_s2"
  type: "Pooling"
  bottom: "conv2/norm2"
  top: "pool2/3x3_s2"
  pooling_param {
    pool: MAX
    kernel_size: 3
    stride: 2
  }
}
layer {
  name: "inception_3a/1x1"
  type: "Convolution"
  bottom: "pool2/3x3_s2"
  top: "inception_3a/1x1"
  param {
    lr_mult: 1
    decay_mult: 1
  }
  param {
    lr_mult: 2
    decay_mult: 0
  }
  convolution_param {
    num_output: 64
    kernel_size: 1
    weight_filler {
      type: "xavier"
      std: 0.03
    }
    bias_filler {
      type: "constant"
      value: 0.2
    }
  }
}
layer {
  name: "inception_3a/relu_1x1"
  type: "ReLU"
  bottom: "inception_3a/1x1"
  top: "inception_3a/1x1"
}
layer {
  name: "inception_3a/3x3_reduce"
  type: "Convolution"
  bottom: "pool2/3x3_s2"
  top: "inception_3a/3x3_reduce"
  param {
    lr_mult: 1
    decay_mult: 1
  }
  param {
    lr_mult: 2
    decay_mult: 0
  }
  convolution_param {
    num_output: 96
    kernel_size: 1
    weight_filler {
      type: "xavier"
      std: 0.09
    }
    bias_filler {
      type: "constant"
      value: 0.2
    }
  }
}
layer {
  name: "inception_3a/relu_3x3_reduce"
  type: "ReLU"
  bottom: "inception_3a/3x3_reduce"
  top: "inception_3a/3x3_reduce"
}
layer {
  name: "inception_3a/3x3"
  type: "Convolution"
  bottom: "inception_3a/3x3_reduce"
  top: "inception_3a/3x3"
  param {
    lr_mult: 1
    decay_mult: 1
  }
  param {
    lr_mult: 2
    decay_mult: 0
  }
  convolution_param {
    num_output: 128
    pad: 1
    kernel_size: 3
    weight_filler {
      type: "xavier"
      std: 0.03
    }
    bias_filler {
      type: "constant"
      value: 0.2
    }
  }
}
layer {
  name: "inception_3a/relu_3x3"
  type: "ReLU"
  bottom: "inception_3a/3x3"
  top: "inception_3a/3x3"
}
layer {
  name: "inception_3a/5x5_reduce"
  type: "Convolution"
  bottom: "pool2/3x3_s2"
  top: "inception_3a/5x5_reduce"
  param {
    lr_mult: 1
    decay_mult: 1
  }
  param {
    lr_mult: 2
    decay_mult: 0
  }
  convolution_param {
    num_output: 16
    kernel_size: 1
    weight_filler {
      type: "xavier"
      std: 0.2
    }
    bias_filler {
      type: "constant"
      value: 0.2
    }
  }
}
layer {
  name: "inception_3a/relu_5x5_reduce"
  type: "ReLU"
  bottom: "inception_3a/5x5_reduce"
  top: "inception_3a/5x5_reduce"
}
layer {
  name: "inception_3a/5x5"
  type: "Convolution"
  bottom: "inception_3a/5x5_reduce"
  top: "inception_3a/5x5"
  param {
    lr_mult: 1
    decay_mult: 1
  }
  param {
    lr_mult: 2
    decay_mult: 0
  }
  convolution_param {
    num_output: 32
    pad: 2
    kernel_size: 5
    weight_filler {
      type: "xavier"
      std: 0.03
    }
    bias_filler {
      type: "constant"
      value: 0.2
    }
  }
}
layer {
  name: "inception_3a/relu_5x5"
  type: "ReLU"
  bottom: "inception_3a/5x5"
  top: "inception_3a/5x5"
}
layer {
  name: "inception_3a/pool"
  type: "Pooling"
  bottom: "pool2/3x3_s2"
  top: "inception_3a/pool"
  pooling_param {
    pool: MAX
    kernel_size: 3
    stride: 1
    pad: 1
  }
}
layer {
  name: "inception_3a/pool_proj"
  type: "Convolution"
  bottom: "inception_3a/pool"
  top: "inception_3a/pool_proj"
  param {
    lr_mult: 1
    decay_mult: 1
  }
  param {
    lr_mult: 2
    decay_mult: 0
  }
  convolution_param {
    num_output: 32
    kernel_size: 1
    weight_filler {
      type: "xavier"
      std: 0.1
    }
    bias_filler {
      type: "constant"
      value: 0.2
    }
  }
}
layer {
  name: "inception_3a/relu_pool_proj"
  type: "ReLU"
  bottom: "inception_3a/pool_proj"
  top: "inception_3a/pool_proj"
}
layer {
  name: "inception_3a/output"
  type: "Concat"
  bottom: "inception_3a/1x1"
  bottom: "inception_3a/3x3"
  bottom: "inception_3a/5x5"
  bottom: "inception_3a/pool_proj"
  top: "inception_3a/output"
}
layer {
  name: "inception_3b/1x1"
  type: "Convolution"
  bottom: "inception_3a/output"
  top: "inception_3b/1x1"
  param {
    lr_mult: 1
    decay_mult: 1
  }
  param {
    lr_mult: 2
    decay_mult: 0
  }
  convolution_param {
    num_output: 128
    kernel_size: 1
    weight_filler {
      type: "xavier"
      std: 0.03
    }
    bias_filler {
      type: "constant"
      value: 0.2
    }
  }
}
layer {
  name: "inception_3b/relu_1x1"
  type: "ReLU"
  bottom: "inception_3b/1x1"
  top: "inception_3b/1x1"
}
layer {
  name: "inception_3b/3x3_reduce"
  type: "Convolution"
  bottom: "inception_3a/output"
  top: "inception_3b/3x3_reduce"
  param {
    lr_mult: 1
    decay_mult: 1
  }
  param {
    lr_mult: 2
    decay_mult: 0
  }
  convolution_param {
    num_output: 128
    kernel_size: 1
    weight_filler {
      type: "xavier"
      std: 0.09
    }
    bias_filler {
      type: "constant"
      value: 0.2
    }
  }
}
layer {
  name: "inception_3b/relu_3x3_reduce"
  type: "ReLU"
  bottom: "inception_3b/3x3_reduce"
  top: "inception_3b/3x3_reduce"
}
layer {
  name: "inception_3b/3x3"
  type: "Convolution"
  bottom: "inception_3b/3x3_reduce"
  top: "inception_3b/3x3"
  param {
    lr_mult: 1
    decay_mult: 1
  }
  param {
    lr_mult: 2
    decay_mult: 0
  }
  convolution_param {
    num_output: 192
    pad: 1
    kernel_size: 3
    weight_filler {
      type: "xavier"
      std: 0.03
    }
    bias_filler {
      type: "constant"
      value: 0.2
    }
  }
}
layer {
  name: "inception_3b/relu_3x3"
  type: "ReLU"
  bottom: "inception_3b/3x3"
  top: "inception_3b/3x3"
}
layer {
  name: "inception_3b/5x5_reduce"
  type: "Convolution"
  bottom: "inception_3a/output"
  top: "inception_3b/5x5_reduce"
  param {
    lr_mult: 1
    decay_mult: 1
  }
  param {
    lr_mult: 2
    decay_mult: 0
  }
  convolution_param {
    num_output: 32
    kernel_size: 1
    weight_filler {
      type: "xavier"
      std: 0.2
    }
    bias_filler {
      type: "constant"
      value: 0.2
    }
  }
}
layer {
  name: "inception_3b/relu_5x5_reduce"
  type: "ReLU"
  bottom: "inception_3b/5x5_reduce"
  top: "inception_3b/5x5_reduce"
}
layer {
  name: "inception_3b/5x5"
  type: "Convolution"
  bottom: "inception_3b/5x5_reduce"
  top: "inception_3b/5x5"
  param {
    lr_mult: 1
    decay_mult: 1
  }
  param {
    lr_mult: 2
    decay_mult: 0
  }
  convolution_param {
    num_output: 96
    pad: 2
    kernel_size: 5
    weight_filler {
      type: "xavier"
      std: 0.03
    }
    bias_filler {
      type: "constant"
      value: 0.2
    }
  }
}
layer {
  name: "inception_3b/relu_5x5"
  type: "ReLU"
  bottom: "inception_3b/5x5"
  top: "inception_3b/5x5"
}
layer {
  name: "inception_3b/pool"
  type: "Pooling"
  bottom: "inception_3a/output"
  top: "inception_3b/pool"
  pooling_param {
    pool: MAX
    kernel_size: 3
    stride: 1
    pad: 1
  }
}
layer {
  name: "inception_3b/pool_proj"
  type: "Convolution"
  bottom: "inception_3b/pool"
  top: "inception_3b/pool_proj"
  param {
    lr_mult: 1
    decay_mult: 1
  }
  param {
    lr_mult: 2
    decay_mult: 0
  }
  convolution_param {
    num_output: 64
    kernel_size: 1
    weight_filler {
      type: "xavier"
      std: 0.1
    }
    bias_filler {
      type: "constant"
      value: 0.2
    }
  }
}
layer {
  name: "inception_3b/relu_pool_proj"
  type: "ReLU"
  bottom: "inception_3b/pool_proj"
  top: "inception_3b/pool_proj"
}
layer {
  name: "inception_3b/output"
  type: "Concat"
  bottom: "inception_3b/1x1"
  bottom: "inception_3b/3x3"
  bottom: "inception_3b/5x5"
  bottom: "inception_3b/pool_proj"
  top: "inception_3b/output"
}
layer {
  name: "pool3/3x3_s2"
  type: "Pooling"
  bottom: "inception_3b/output"
  top: "pool3/3x3_s2"
  pooling_param {
    pool: MAX
    kernel_size: 3
    stride: 2
  }
}
layer {
  name: "inception_4a/1x1"
  type: "Convolution"
  bottom: "pool3/3x3_s2"
  top: "inception_4a/1x1"
  param {
    lr_mult: 1
    decay_mult: 1
  }
  param {
    lr_mult: 2
    decay_mult: 0
  }
  convolution_param {
    num_output: 192
    kernel_size: 1
    weight_filler {
      type: "xavier"
      std: 0.03
    }
    bias_filler {
      type: "constant"
      value: 0.2
    }
  }
}
layer {
  name: "inception_4a/relu_1x1"
  type: "ReLU"
  bottom: "inception_4a/1x1"
  top: "inception_4a/1x1"
}
layer {
  name: "inception_4a/3x3_reduce"
  type: "Convolution"
  bottom: "pool3/3x3_s2"
  top: "inception_4a/3x3_reduce"
  param {
    lr_mult: 1
    decay_mult: 1
  }
  param {
    lr_mult: 2
    decay_mult: 0
  }
  convolution_param {
    num_output: 96
    kernel_size: 1
    weight_filler {
      type: "xavier"
      std: 0.09
    }
    bias_filler {
      type: "constant"
      value: 0.2
    }
  }
}
layer {
  name: "inception_4a/relu_3x3_reduce"
  type: "ReLU"
  bottom: "inception_4a/3x3_reduce"
  top: "inception_4a/3x3_reduce"
}
layer {
  name: "inception_4a/3x3"
  type: "Convolution"
  bottom: "inception_4a/3x3_reduce"
  top: "inception_4a/3x3"
  param {
    lr_mult: 1
    decay_mult: 1
  }
  param {
    lr_mult: 2
    decay_mult: 0
  }
  convolution_param {
    num_output: 208
    pad: 1
    kernel_size: 3
    weight_filler {
      type: "xavier"
      std: 0.03
    }
    bias_filler {
      type: "constant"
      value: 0.2
    }
  }
}
layer {
  name: "inception_4a/relu_3x3"
  type: "ReLU"
  bottom: "inception_4a/3x3"
  top: "inception_4a/3x3"
}
layer {
  name: "inception_4a/5x5_reduce"
  type: "Convolution"
  bottom: "pool3/3x3_s2"
  top: "inception_4a/5x5_reduce"
  param {
    lr_mult: 1
    decay_mult: 1
  }
  param {
    lr_mult: 2
    decay_mult: 0
  }
  convolution_param {
    num_output: 16
    kernel_size: 1
    weight_filler {
      type: "xavier"
      std: 0.2
    }
    bias_filler {
      type: "constant"
      value: 0.2
    }
  }
}
layer {
  name: "inception_4a/relu_5x5_reduce"
  type: "ReLU"
  bottom: "inception_4a/5x5_reduce"
  top: "inception_4a/5x5_reduce"
}
layer {
  name: "inception_4a/5x5"
  type: "Convolution"
  bottom: "inception_4a/5x5_reduce"
  top: "inception_4a/5x5"
  param {
    lr_mult: 1
    decay_mult: 1
  }
  param {
    lr_mult: 2
    decay_mult: 0
  }
  convolution_param {
    num_output: 48
    pad: 2
    kernel_size: 5
    weight_filler {
      type: "xavier"
      std: 0.03
    }
    bias_filler {
      type: "constant"
      value: 0.2
    }
  }
}
layer {
  name: "inception_4a/relu_5x5"
  type: "ReLU"
  bottom: "inception_4a/5x5"
  top: "inception_4a/5x5"
}
layer {
  name: "inception_4a/pool"
  type: "Pooling"
  bottom: "pool3/3x3_s2"
  top: "inception_4a/pool"
  pooling_param {
    pool: MAX
    kernel_size: 3
    stride: 1
    pad: 1
  }
}
layer {
  name: "inception_4a/pool_proj"
  type: "Convolution"
  bottom: "inception_4a/pool"
  top: "inception_4a/pool_proj"
  param {
    lr_mult: 1
    decay_mult: 1
  }
  param {
    lr_mult: 2
    decay_mult: 0
  }
  convolution_param {
    num_output: 64
    kernel_size: 1
    weight_filler {
      type: "xavier"
      std: 0.1
    }
    bias_filler {
      type: "constant"
      value: 0.2
    }
  }
}
layer {
  name: "inception_4a/relu_pool_proj"
  type: "ReLU"
  bottom: "inception_4a/pool_proj"
  top: "inception_4a/pool_proj"
}
layer {
  name: "inception_4a/output"
  type: "Concat"
  bottom: "inception_4a/1x1"
  bottom: "inception_4a/3x3"
  bottom: "inception_4a/5x5"
  bottom: "inception_4a/pool_proj"
  top: "inception_4a/output"
}
layer {
  name: "loss1/ave_pool"
  type: "Pooling"
  bottom: "inception_4a/output"
  top: "loss1/ave_pool"
  pooling_param {
    pool: AVE
    kernel_size: 5
    stride: 3
  }
}
layer {
  name: "loss1/conv"
  type: "Convolution"
  bottom: "loss1/ave_pool"
  top: "loss1/conv"
  param {
    lr_mult: 1
    decay_mult: 1
  }
  param {
    lr_mult: 2
    decay_mult: 0
  }
  convolution_param {
    num_output: 128
    kernel_size: 1
    weight_filler {
      type: "xavier"
      std: 0.08
    }
    bias_filler {
      type: "constant"
      value: 0.2
    }
  }
}
layer {
  name: "loss1/relu_conv"
  type: "ReLU"
  bottom: "loss1/conv"
  top: "loss1/conv"
}
layer {
  name: "loss1/fc"
  type: "InnerProduct"
  bottom: "loss1/conv"
  top: "loss1/fc"
  param {
    lr_mult: 1
    decay_mult: 1
  }
  param {
    lr_mult: 2
    decay_mult: 0
  }
  inner_product_param {
    num_output: 1024
    weight_filler {
      type: "xavier"
      std: 0.02
    }
    bias_filler {
      type: "constant"
      value: 0.2
    }
  }
}
layer {
  name: "loss1/relu_fc"
  type: "ReLU"
  bottom: "loss1/fc"
  top: "loss1/fc"
}
layer {
  name: "loss1/drop_fc"
  type: "Dropout"
  bottom: "loss1/fc"
  top: "loss1/fc"
  dropout_param {
    dropout_ratio: 0.7
  }
}
layer {
  name: "loss1/classifier_plantvillage"
  type: "InnerProduct"
  bottom: "loss1/fc"
  top: "loss1/classifier_plantvillage"
  param {
    lr_mult: 1
    decay_mult: 1
  }
  param {
    lr_mult: 2
    decay_mult: 0
  }
  inner_product_param {
    num_output: 38
    weight_filler {
      type: "xavier"
      std: 0.0009765625
    }
    bias_filler {
      type: "constant"
      value: 0
    }
  }
}
layer {
  name: "inception_4b/1x1"
  type: "Convolution"
  bottom: "inception_4a/output"
  top: "inception_4b/1x1"
  param {
    lr_mult: 1
    decay_mult: 1
  }
  param {
    lr_mult: 2
    decay_mult: 0
  }
  convolution_param {
    num_output: 160
    kernel_size: 1
    weight_filler {
      type: "xavier"
      std: 0.03
    }
    bias_filler {
      type: "constant"
      value: 0.2
    }
  }
}
layer {
  name: "inception_4b/relu_1x1"
  type: "ReLU"
  bottom: "inception_4b/1x1"
  top: "inception_4b/1x1"
}
layer {
  name: "inception_4b/3x3_reduce"
  type: "Convolution"
  bottom: "inception_4a/output"
  top: "inception_4b/3x3_reduce"
  param {
    lr_mult: 1
    decay_mult: 1
  }
  param {
    lr_mult: 2
    decay_mult: 0
  }
  convolution_param {
    num_output: 112
    kernel_size: 1
    weight_filler {
      type: "xavier"
      std: 0.09
    }
    bias_filler {
      type: "constant"
      value: 0.2
    }
  }
}
layer {
  name: "inception_4b/relu_3x3_reduce"
  type: "ReLU"
  bottom: "inception_4b/3x3_reduce"
  top: "inception_4b/3x3_reduce"
}
layer {
  name: "inception_4b/3x3"
  type: "Convolution"
  bottom: "inception_4b/3x3_reduce"
  top: "inception_4b/3x3"
  param {
    lr_mult: 1
    decay_mult: 1
  }
  param {
    lr_mult: 2
    decay_mult: 0
  }
  convolution_param {
    num_output: 224
    pad: 1
    kernel_size: 3
    weight_filler {
      type: "xavier"
      std: 0.03
    }
    bias_filler {
      type: "constant"
      value: 0.2
    }
  }
}
layer {
  name: "inception_4b/relu_3x3"
  type: "ReLU"
  bottom: "inception_4b/3x3"
  top: "inception_4b/3x3"
}
layer {
  name: "inception_4b/5x5_reduce"
  type: "Convolution"
  bottom: "inception_4a/output"
  top: "inception_4b/5x5_reduce"
  param {
    lr_mult: 1
    decay_mult: 1
  }
  param {
    lr_mult: 2
    decay_mult: 0
  }
  convolution_param {
    num_output: 24
    kernel_size: 1
    weight_filler {
      type: "xavier"
      std: 0.2
    }
    bias_filler {
      type: "constant"
      value: 0.2
    }
  }
}
layer {
  name: "inception_4b/relu_5x5_reduce"
  type: "ReLU"
  bottom: "inception_4b/5x5_reduce"
  top: "inception_4b/5x5_reduce"
}
layer {
  name: "inception_4b/5x5"
  type: "Convolution"
  bottom: "inception_4b/5x5_reduce"
  top: "inception_4b/5x5"
  param {
    lr_mult: 1
    decay_mult: 1
  }
  param {
    lr_mult: 2
    decay_mult: 0
  }
  convolution_param {
    num_output: 64
    pad: 2
    kernel_size: 5
    weight_filler {
      type: "xavier"
      std: 0.03
    }
    bias_filler {
      type: "constant"
      value: 0.2
    }
  }
}
layer {
  name: "inception_4b/relu_5x5"
  type: "ReLU"
  bottom: "inception_4b/5x5"
  top: "inception_4b/5x5"
}
layer {
  name: "inception_4b/pool"
  type: "Pooling"
  bottom: "inception_4a/output"
  top: "inception_4b/pool"
  pooling_param {
    pool: MAX
    kernel_size: 3
    stride: 1
    pad: 1
  }
}
layer {
  name: "inception_4b/pool_proj"
  type: "Convolution"
  bottom: "inception_4b/pool"
  top: "inception_4b/pool_proj"
  param {
    lr_mult: 1
    decay_mult: 1
  }
  param {
    lr_mult: 2
    decay_mult: 0
  }
  convolution_param {
    num_output: 64
    kernel_size: 1
    weight_filler {
      type: "xavier"
      std: 0.1
    }
    bias_filler {
      type: "constant"
      value: 0.2
    }
  }
}
layer {
  name: "inception_4b/relu_pool_proj"
  type: "ReLU"
  bottom: "inception_4b/pool_proj"
  top: "inception_4b/pool_proj"
}
layer {
  name: "inception_4b/output"
  type: "Concat"
  bottom: "inception_4b/1x1"
  bottom: "inception_4b/3x3"
  bottom: "inception_4b/5x5"
  bottom: "inception_4b/pool_proj"
  top: "inception_4b/output"
}
layer {
  name: "inception_4c/1x1"
  type: "Convolution"
  bottom: "inception_4b/output"
  top: "inception_4c/1x1"
  param {
    lr_mult: 1
    decay_mult: 1
  }
  param {
    lr_mult: 2
    decay_mult: 0
  }
  convolution_param {
    num_output: 128
    kernel_size: 1
    weight_filler {
      type: "xavier"
      std: 0.03
    }
    bias_filler {
      type: "constant"
      value: 0.2
    }
  }
}
layer {
  name: "inception_4c/relu_1x1"
  type: "ReLU"
  bottom: "inception_4c/1x1"
  top: "inception_4c/1x1"
}
layer {
  name: "inception_4c/3x3_reduce"
  type: "Convolution"
  bottom: "inception_4b/output"
  top: "inception_4c/3x3_reduce"
  param {
    lr_mult: 1
    decay_mult: 1
  }
  param {
    lr_mult: 2
    decay_mult: 0
  }
  convolution_param {
    num_output: 128
    kernel_size: 1
    weight_filler {
      type: "xavier"
      std: 0.09
    }
    bias_filler {
      type: "constant"
      value: 0.2
    }
  }
}
layer {
  name: "inception_4c/relu_3x3_reduce"
  type: "ReLU"
  bottom: "inception_4c/3x3_reduce"
  top: "inception_4c/3x3_reduce"
}
layer {
  name: "inception_4c/3x3"
  type: "Convolution"
  bottom: "inception_4c/3x3_reduce"
  top: "inception_4c/3x3"
  param {
    lr_mult: 1
    decay_mult: 1
  }
  param {
    lr_mult: 2
    decay_mult: 0
  }
  convolution_param {
    num_output: 256
    pad: 1
    kernel_size: 3
    weight_filler {
      type: "xavier"
      std: 0.03
    }
    bias_filler {
      type: "constant"
      value: 0.2
    }
  }
}
layer {
  name: "inception_4c/relu_3x3"
  type: "ReLU"
  bottom: "inception_4c/3x3"
  top: "inception_4c/3x3"
}
layer {
  name: "inception_4c/5x5_reduce"
  type: "Convolution"
  bottom: "inception_4b/output"
  top: "inception_4c/5x5_reduce"
  param {
    lr_mult: 1
    decay_mult: 1
  }
  param {
    lr_mult: 2
    decay_mult: 0
  }
  convolution_param {
    num_output: 24
    kernel_size: 1
    weight_filler {
      type: "xavier"
      std: 0.2
    }
    bias_filler {
      type: "constant"
      value: 0.2
    }
  }
}
layer {
  name: "inception_4c/relu_5x5_reduce"
  type: "ReLU"
  bottom: "inception_4c/5x5_reduce"
  top: "inception_4c/5x5_reduce"
}
layer {
  name: "inception_4c/5x5"
  type: "Convolution"
  bottom: "inception_4c/5x5_reduce"
  top: "inception_4c/5x5"
  param {
    lr_mult: 1
    decay_mult: 1
  }
  param {
    lr_mult: 2
    decay_mult: 0
  }
  convolution_param {
    num_output: 64
    pad: 2
    kernel_size: 5
    weight_filler {
      type: "xavier"
      std: 0.03
    }
    bias_filler {
      type: "constant"
      value: 0.2
    }
  }
}
layer {
  name: "inception_4c/relu_5x5"
  type: "ReLU"
  bottom: "inception_4c/5x5"
  top: "inception_4c/5x5"
}
layer {
  name: "inception_4c/pool"
  type: "Pooling"
  bottom: "inception_4b/output"
  top: "inception_4c/pool"
  pooling_param {
    pool: MAX
    kernel_size: 3
    stride: 1
    pad: 1
  }
}
layer {
  name: "inception_4c/pool_proj"
  type: "Convolution"
  bottom: "inception_4c/pool"
  top: "inception_4c/pool_proj"
  param {
    lr_mult: 1
    decay_mult: 1
  }
  param {
    lr_mult: 2
    decay_mult: 0
  }
  convolution_param {
    num_output: 64
    kernel_size: 1
    weight_filler {
      type: "xavier"
      std: 0.1
    }
    bias_filler {
      type: "constant"
      value: 0.2
    }
  }
}
layer {
  name: "inception_4c/relu_pool_proj"
  type: "ReLU"
  bottom: "inception_4c/pool_proj"
  top: "inception_4c/pool_proj"
}
layer {
  name: "inception_4c/output"
  type: "Concat"
  bottom: "inception_4c/1x1"
  bottom: "inception_4c/3x3"
  bottom: "inception_4c/5x5"
  bottom: "inception_4c/pool_proj"
  top: "inception_4c/output"
}
layer {
  name: "inception_4d/1x1"
  type: "Convolution"
  bottom: "inception_4c/output"
  top: "inception_4d/1x1"
  param {
    lr_mult: 1
    decay_mult: 1
  }
  param {
    lr_mult: 2
    decay_mult: 0
  }
  convolution_param {
    num_output: 112
    kernel_size: 1
    weight_filler {
      type: "xavier"
      std: 0.03
    }
    bias_filler {
      type: "constant"
      value: 0.2
    }
  }
}
layer {
  name: "inception_4d/relu_1x1"
  type: "ReLU"
  bottom: "inception_4d/1x1"
  top: "inception_4d/1x1"
}
layer {
  name: "inception_4d/3x3_reduce"
  type: "Convolution"
  bottom: "inception_4c/output"
  top: "inception_4d/3x3_reduce"
  param {
    lr_mult: 1
    decay_mult: 1
  }
  param {
    lr_mult: 2
    decay_mult: 0
  }
  convolution_param {
    num_output: 144
    kernel_size: 1
    weight_filler {
      type: "xavier"
      std: 0.09
    }
    bias_filler {
      type: "constant"
      value: 0.2
    }
  }
}
layer {
  name: "inception_4d/relu_3x3_reduce"
  type: "ReLU"
  bottom: "inception_4d/3x3_reduce"
  top: "inception_4d/3x3_reduce"
}
layer {
  name: "inception_4d/3x3"
  type: "Convolution"
  bottom: "inception_4d/3x3_reduce"
  top: "inception_4d/3x3"
  param {
    lr_mult: 1
    decay_mult: 1
  }
  param {
    lr_mult: 2
    decay_mult: 0
  }
  convolution_param {
    num_output: 288
    pad: 1
    kernel_size: 3
    weight_filler {
      type: "xavier"
      std: 0.03
    }
    bias_filler {
      type: "constant"
      value: 0.2
    }
  }
}
layer {
  name: "inception_4d/relu_3x3"
  type: "ReLU"
  bottom: "inception_4d/3x3"
  top: "inception_4d/3x3"
}
layer {
  name: "inception_4d/5x5_reduce"
  type: "Convolution"
  bottom: "inception_4c/output"
  top: "inception_4d/5x5_reduce"
  param {
    lr_mult: 1
    decay_mult: 1
  }
  param {
    lr_mult: 2
    decay_mult: 0
  }
  convolution_param {
    num_output: 32
    kernel_size: 1
    weight_filler {
      type: "xavier"
      std: 0.2
    }
    bias_filler {
      type: "constant"
      value: 0.2
    }
  }
}
layer {
  name: "inception_4d/relu_5x5_reduce"
  type: "ReLU"
  bottom: "inception_4d/5x5_reduce"
  top: "inception_4d/5x5_reduce"
}
layer {
  name: "inception_4d/5x5"
  type: "Convolution"
  bottom: "inception_4d/5x5_reduce"
  top: "inception_4d/5x5"
  param {
    lr_mult: 1
    decay_mult: 1
  }
  param {
    lr_mult: 2
    decay_mult: 0
  }
  convolution_param {
    num_output: 64
    pad: 2
    kernel_size: 5
    weight_filler {
      type: "xavier"
      std: 0.03
    }
    bias_filler {
      type: "constant"
      value: 0.2
    }
  }
}
layer {
  name: "inception_4d/relu_5x5"
  type: "ReLU"
  bottom: "inception_4d/5x5"
  top: "inception_4d/5x5"
}
layer {
  name: "inception_4d/pool"
  type: "Pooling"
  bottom: "inception_4c/output"
  top: "inception_4d/pool"
  pooling_param {
    pool: MAX
    kernel_size: 3
    stride: 1
    pad: 1
  }
}
layer {
  name: "inception_4d/pool_proj"
  type: "Convolution"
  bottom: "inception_4d/pool"
  top: "inception_4d/pool_proj"
  param {
    lr_mult: 1
    decay_mult: 1
  }
  param {
    lr_mult: 2
    decay_mult: 0
  }
  convolution_param {
    num_output: 64
    kernel_size: 1
    weight_filler {
      type: "xavier"
      std: 0.1
    }
    bias_filler {
      type: "constant"
      value: 0.2
    }
  }
}
layer {
  name: "inception_4d/relu_pool_proj"
  type: "ReLU"
  bottom: "inception_4d/pool_proj"
  top: "inception_4d/pool_proj"
}
layer {
  name: "inception_4d/output"
  type: "Concat"
  bottom: "inception_4d/1x1"
  bottom: "inception_4d/3x3"
  bottom: "inception_4d/5x5"
  bottom: "inception_4d/pool_proj"
  top: "inception_4d/output"
}
layer {
  name: "loss2/ave_pool"
  type: "Pooling"
  bottom: "inception_4d/output"
  top: "loss2/ave_pool"
  pooling_param {
    pool: AVE
    kernel_size: 5
    stride: 3
  }
}
layer {
  name: "loss2/conv"
  type: "Convolution"
  bottom: "loss2/ave_pool"
  top: "loss2/conv"
  param {
    lr_mult: 1
    decay_mult: 1
  }
  param {
    lr_mult: 2
    decay_mult: 0
  }
  convolution_param {
    num_output: 128
    kernel_size: 1
    weight_filler {
      type: "xavier"
      std: 0.08
    }
    bias_filler {
      type: "constant"
      value: 0.2
    }
  }
}
layer {
  name: "loss2/relu_conv"
  type: "ReLU"
  bottom: "loss2/conv"
  top: "loss2/conv"
}
layer {
  name: "loss2/fc"
  type: "InnerProduct"
  bottom: "loss2/conv"
  top: "loss2/fc"
  param {
    lr_mult: 1
    decay_mult: 1
  }
  param {
    lr_mult: 2
    decay_mult: 0
  }
  inner_product_param {
    num_output: 1024
    weight_filler {
      type: "xavier"
      std: 0.02
    }
    bias_filler {
      type: "constant"
      value: 0.2
    }
  }
}
layer {
  name: "loss2/relu_fc"
  type: "ReLU"
  bottom: "loss2/fc"
  top: "loss2/fc"
}
layer {
  name: "loss2/drop_fc"
  type: "Dropout"
  bottom: "loss2/fc"
  top: "loss2/fc"
  dropout_param {
    dropout_ratio: 0.7
  }
}
layer {
  name: "loss2/classifier_plantvillage"
  type: "InnerProduct"
  bottom: "loss2/fc"
  top: "loss2/classifier_plantvillage"
  param {
    lr_mult: 1
    decay_mult: 1
  }
  param {
    lr_mult: 2
    decay_mult: 0
  }
  inner_product_param {
    num_output: 38
    weight_filler {
      type: "xavier"
      std: 0.0009765625
    }
    bias_filler {
      type: "constant"
      value: 0
    }
  }
}
layer {
  name: "inception_4e/1x1"
  type: "Convolution"
  bottom: "inception_4d/output"
  top: "inception_4e/1x1"
  param {
    lr_mult: 1
    decay_mult: 1
  }
  param {
    lr_mult: 2
    decay_mult: 0
  }
  convolution_param {
    num_output: 256
    kernel_size: 1
    weight_filler {
      type: "xavier"
      std: 0.03
    }
    bias_filler {
      type: "constant"
      value: 0.2
    }
  }
}
layer {
  name: "inception_4e/relu_1x1"
  type: "ReLU"
  bottom: "inception_4e/1x1"
  top: "inception_4e/1x1"
}
layer {
  name: "inception_4e/3x3_reduce"
  type: "Convolution"
  bottom: "inception_4d/output"
  top: "inception_4e/3x3_reduce"
  param {
    lr_mult: 1
    decay_mult: 1
  }
  param {
    lr_mult: 2
    decay_mult: 0
  }
  convolution_param {
    num_output: 160
    kernel_size: 1
    weight_filler {
      type: "xavier"
      std: 0.09
    }
    bias_filler {
      type: "constant"
      value: 0.2
    }
  }
}
layer {
  name: "inception_4e/relu_3x3_reduce"
  type: "ReLU"
  bottom: "inception_4e/3x3_reduce"
  top: "inception_4e/3x3_reduce"
}
layer {
  name: "inception_4e/3x3"
  type: "Convolution"
  bottom: "inception_4e/3x3_reduce"
  top: "inception_4e/3x3"
  param {
    lr_mult: 1
    decay_mult: 1
  }
  param {
    lr_mult: 2
    decay_mult: 0
  }
  convolution_param {
    num_output: 320
    pad: 1
    kernel_size: 3
    weight_filler {
      type: "xavier"
      std: 0.03
    }
    bias_filler {
      type: "constant"
      value: 0.2
    }
  }
}
layer {
  name: "inception_4e/relu_3x3"
  type: "ReLU"
  bottom: "inception_4e/3x3"
  top: "inception_4e/3x3"
}
layer {
  name: "inception_4e/5x5_reduce"
  type: "Convolution"
  bottom: "inception_4d/output"
  top: "inception_4e/5x5_reduce"
  param {
    lr_mult: 1
    decay_mult: 1
  }
  param {
    lr_mult: 2
    decay_mult: 0
  }
  convolution_param {
    num_output: 32
    kernel_size: 1
    weight_filler {
      type: "xavier"
      std: 0.2
    }
    bias_filler {
      type: "constant"
      value: 0.2
    }
  }
}
layer {
  name: "inception_4e/relu_5x5_reduce"
  type: "ReLU"
  bottom: "inception_4e/5x5_reduce"
  top: "inception_4e/5x5_reduce"
}
layer {
  name: "inception_4e/5x5"
  type: "Convolution"
  bottom: "inception_4e/5x5_reduce"
  top: "inception_4e/5x5"
  p
I0403 15:11:13.823714 31265 layer_factory.hpp:77] Creating layer data
I0403 15:11:13.824326 31265 net.cpp:91] Creating Layer data
I0403 15:11:13.824357 31265 net.cpp:399] data -> data
I0403 15:11:13.824420 31265 net.cpp:399] data -> label
I0403 15:11:13.824458 31265 data_transformer.cpp:25] Loading mean file from: /home/mohanty/data/final_dataset/lmdb/color-20-80/mean.binaryproto
I0403 15:11:13.827926 31270 db_lmdb.cpp:38] Opened lmdb /home/mohanty/data/final_dataset/lmdb/color-20-80/test_db
I0403 15:11:13.838038 31265 data_layer.cpp:41] output data size: 24,3,224,224
I0403 15:11:13.865347 31265 net.cpp:141] Setting up data
I0403 15:11:13.865422 31265 net.cpp:148] Top shape: 24 3 224 224 (3612672)
I0403 15:11:13.865444 31265 net.cpp:148] Top shape: 24 (24)
I0403 15:11:13.865459 31265 net.cpp:156] Memory required for data: 14450784
I0403 15:11:13.865488 31265 layer_factory.hpp:77] Creating layer label_data_1_split
I0403 15:11:13.865514 31265 net.cpp:91] Creating Layer label_data_1_split
I0403 15:11:13.865532 31265 net.cpp:425] label_data_1_split <- label
I0403 15:11:13.865564 31265 net.cpp:399] label_data_1_split -> label_data_1_split_0
I0403 15:11:13.865592 31265 net.cpp:399] label_data_1_split -> label_data_1_split_1
I0403 15:11:13.865612 31265 net.cpp:399] label_data_1_split -> label_data_1_split_2
I0403 15:11:13.865634 31265 net.cpp:399] label_data_1_split -> label_data_1_split_3
I0403 15:11:13.865655 31265 net.cpp:399] label_data_1_split -> label_data_1_split_4
I0403 15:11:13.865676 31265 net.cpp:399] label_data_1_split -> label_data_1_split_5
I0403 15:11:13.865697 31265 net.cpp:399] label_data_1_split -> label_data_1_split_6
I0403 15:11:13.865718 31265 net.cpp:399] label_data_1_split -> label_data_1_split_7
I0403 15:11:13.865738 31265 net.cpp:399] label_data_1_split -> label_data_1_split_8
I0403 15:11:13.865758 31265 net.cpp:399] label_data_1_split -> label_data_1_split_9
I0403 15:11:13.865875 31265 net.cpp:141] Setting up label_data_1_split
I0403 15:11:13.865897 31265 net.cpp:148] Top shape: 24 (24)
I0403 15:11:13.865916 31265 net.cpp:148] Top shape: 24 (24)
I0403 15:11:13.865931 31265 net.cpp:148] Top shape: 24 (24)
I0403 15:11:13.865947 31265 net.cpp:148] Top shape: 24 (24)
I0403 15:11:13.865963 31265 net.cpp:148] Top shape: 24 (24)
I0403 15:11:13.865979 31265 net.cpp:148] Top shape: 24 (24)
I0403 15:11:13.865995 31265 net.cpp:148] Top shape: 24 (24)
I0403 15:11:13.866013 31265 net.cpp:148] Top shape: 24 (24)
I0403 15:11:13.866029 31265 net.cpp:148] Top shape: 24 (24)
I0403 15:11:13.866045 31265 net.cpp:148] Top shape: 24 (24)
I0403 15:11:13.866081 31265 net.cpp:156] Memory required for data: 14451744
I0403 15:11:13.866098 31265 layer_factory.hpp:77] Creating layer conv1/7x7_s2
I0403 15:11:13.866130 31265 net.cpp:91] Creating Layer conv1/7x7_s2
I0403 15:11:13.866149 31265 net.cpp:425] conv1/7x7_s2 <- data
I0403 15:11:13.866170 31265 net.cpp:399] conv1/7x7_s2 -> conv1/7x7_s2
I0403 15:11:14.003541 31265 net.cpp:141] Setting up conv1/7x7_s2
I0403 15:11:14.003614 31265 net.cpp:148] Top shape: 24 64 112 112 (19267584)
I0403 15:11:14.003633 31265 net.cpp:156] Memory required for data: 91522080
I0403 15:11:14.003664 31265 layer_factory.hpp:77] Creating layer conv1/relu_7x7
I0403 15:11:14.003690 31265 net.cpp:91] Creating Layer conv1/relu_7x7
I0403 15:11:14.003710 31265 net.cpp:425] conv1/relu_7x7 <- conv1/7x7_s2
I0403 15:11:14.003729 31265 net.cpp:386] conv1/relu_7x7 -> conv1/7x7_s2 (in-place)
I0403 15:11:14.003981 31265 net.cpp:141] Setting up conv1/relu_7x7
I0403 15:11:14.004009 31265 net.cpp:148] Top shape: 24 64 112 112 (19267584)
I0403 15:11:14.004025 31265 net.cpp:156] Memory required for data: 168592416
I0403 15:11:14.004041 31265 layer_factory.hpp:77] Creating layer pool1/3x3_s2
I0403 15:11:14.004067 31265 net.cpp:91] Creating Layer pool1/3x3_s2
I0403 15:11:14.004084 31265 net.cpp:425] pool1/3x3_s2 <- conv1/7x7_s2
I0403 15:11:14.004103 31265 net.cpp:399] pool1/3x3_s2 -> pool1/3x3_s2
I0403 15:11:14.004178 31265 net.cpp:141] Setting up pool1/3x3_s2
I0403 15:11:14.004204 31265 net.cpp:148] Top shape: 24 64 56 56 (4816896)
I0403 15:11:14.004220 31265 net.cpp:156] Memory required for data: 187860000
I0403 15:11:14.004236 31265 layer_factory.hpp:77] Creating layer pool1/norm1
I0403 15:11:14.004261 31265 net.cpp:91] Creating Layer pool1/norm1
I0403 15:11:14.004281 31265 net.cpp:425] pool1/norm1 <- pool1/3x3_s2
I0403 15:11:14.004298 31265 net.cpp:399] pool1/norm1 -> pool1/norm1
I0403 15:11:14.004591 31265 net.cpp:141] Setting up pool1/norm1
I0403 15:11:14.004619 31265 net.cpp:148] Top shape: 24 64 56 56 (4816896)
I0403 15:11:14.004636 31265 net.cpp:156] Memory required for data: 207127584
I0403 15:11:14.004652 31265 layer_factory.hpp:77] Creating layer conv2/3x3_reduce
I0403 15:11:14.004676 31265 net.cpp:91] Creating Layer conv2/3x3_reduce
I0403 15:11:14.004694 31265 net.cpp:425] conv2/3x3_reduce <- pool1/norm1
I0403 15:11:14.004714 31265 net.cpp:399] conv2/3x3_reduce -> conv2/3x3_reduce
I0403 15:11:14.006026 31265 net.cpp:141] Setting up conv2/3x3_reduce
I0403 15:11:14.006057 31265 net.cpp:148] Top shape: 24 64 56 56 (4816896)
I0403 15:11:14.006074 31265 net.cpp:156] Memory required for data: 226395168
I0403 15:11:14.006096 31265 layer_factory.hpp:77] Creating layer conv2/relu_3x3_reduce
I0403 15:11:14.006115 31265 net.cpp:91] Creating Layer conv2/relu_3x3_reduce
I0403 15:11:14.006131 31265 net.cpp:425] conv2/relu_3x3_reduce <- conv2/3x3_reduce
I0403 15:11:14.006150 31265 net.cpp:386] conv2/relu_3x3_reduce -> conv2/3x3_reduce (in-place)
I0403 15:11:14.006420 31265 net.cpp:141] Setting up conv2/relu_3x3_reduce
I0403 15:11:14.006450 31265 net.cpp:148] Top shape: 24 64 56 56 (4816896)
I0403 15:11:14.006466 31265 net.cpp:156] Memory required for data: 245662752
I0403 15:11:14.006482 31265 layer_factory.hpp:77] Creating layer conv2/3x3
I0403 15:11:14.006505 31265 net.cpp:91] Creating Layer conv2/3x3
I0403 15:11:14.006523 31265 net.cpp:425] conv2/3x3 <- conv2/3x3_reduce
I0403 15:11:14.006543 31265 net.cpp:399] conv2/3x3 -> conv2/3x3
I0403 15:11:14.008793 31265 net.cpp:141] Setting up conv2/3x3
I0403 15:11:14.008823 31265 net.cpp:148] Top shape: 24 192 56 56 (14450688)
I0403 15:11:14.008841 31265 net.cpp:156] Memory required for data: 303465504
I0403 15:11:14.008862 31265 layer_factory.hpp:77] Creating layer conv2/relu_3x3
I0403 15:11:14.008882 31265 net.cpp:91] Creating Layer conv2/relu_3x3
I0403 15:11:14.008898 31265 net.cpp:425] conv2/relu_3x3 <- conv2/3x3
I0403 15:11:14.008915 31265 net.cpp:386] conv2/relu_3x3 -> conv2/3x3 (in-place)
I0403 15:11:14.009073 31265 net.cpp:141] Setting up conv2/relu_3x3
I0403 15:11:14.009099 31265 net.cpp:148] Top shape: 24 192 56 56 (14450688)
I0403 15:11:14.009145 31265 net.cpp:156] Memory required for data: 361268256
I0403 15:11:14.009161 31265 layer_factory.hpp:77] Creating layer conv2/norm2
I0403 15:11:14.009181 31265 net.cpp:91] Creating Layer conv2/norm2
I0403 15:11:14.009201 31265 net.cpp:425] conv2/norm2 <- conv2/3x3
I0403 15:11:14.009218 31265 net.cpp:399] conv2/norm2 -> conv2/norm2
I0403 15:11:14.009506 31265 net.cpp:141] Setting up conv2/norm2
I0403 15:11:14.009533 31265 net.cpp:148] Top shape: 24 192 56 56 (14450688)
I0403 15:11:14.009549 31265 net.cpp:156] Memory required for data: 419071008
I0403 15:11:14.009564 31265 layer_factory.hpp:77] Creating layer pool2/3x3_s2
I0403 15:11:14.009583 31265 net.cpp:91] Creating Layer pool2/3x3_s2
I0403 15:11:14.009599 31265 net.cpp:425] pool2/3x3_s2 <- conv2/norm2
I0403 15:11:14.009618 31265 net.cpp:399] pool2/3x3_s2 -> pool2/3x3_s2
I0403 15:11:14.009666 31265 net.cpp:141] Setting up pool2/3x3_s2
I0403 15:11:14.009690 31265 net.cpp:148] Top shape: 24 192 28 28 (3612672)
I0403 15:11:14.009706 31265 net.cpp:156] Memory required for data: 433521696
I0403 15:11:14.009721 31265 layer_factory.hpp:77] Creating layer pool2/3x3_s2_pool2/3x3_s2_0_split
I0403 15:11:14.009737 31265 net.cpp:91] Creating Layer pool2/3x3_s2_pool2/3x3_s2_0_split
I0403 15:11:14.009752 31265 net.cpp:425] pool2/3x3_s2_pool2/3x3_s2_0_split <- pool2/3x3_s2
I0403 15:11:14.009769 31265 net.cpp:399] pool2/3x3_s2_pool2/3x3_s2_0_split -> pool2/3x3_s2_pool2/3x3_s2_0_split_0
I0403 15:11:14.009789 31265 net.cpp:399] pool2/3x3_s2_pool2/3x3_s2_0_split -> pool2/3x3_s2_pool2/3x3_s2_0_split_1
I0403 15:11:14.009809 31265 net.cpp:399] pool2/3x3_s2_pool2/3x3_s2_0_split -> pool2/3x3_s2_pool2/3x3_s2_0_split_2
I0403 15:11:14.009829 31265 net.cpp:399] pool2/3x3_s2_pool2/3x3_s2_0_split -> pool2/3x3_s2_pool2/3x3_s2_0_split_3
I0403 15:11:14.009892 31265 net.cpp:141] Setting up pool2/3x3_s2_pool2/3x3_s2_0_split
I0403 15:11:14.009914 31265 net.cpp:148] Top shape: 24 192 28 28 (3612672)
I0403 15:11:14.009930 31265 net.cpp:148] Top shape: 24 192 28 28 (3612672)
I0403 15:11:14.009946 31265 net.cpp:148] Top shape: 24 192 28 28 (3612672)
I0403 15:11:14.009963 31265 net.cpp:148] Top shape: 24 192 28 28 (3612672)
I0403 15:11:14.009977 31265 net.cpp:156] Memory required for data: 491324448
I0403 15:11:14.009992 31265 layer_factory.hpp:77] Creating layer inception_3a/1x1
I0403 15:11:14.010013 31265 net.cpp:91] Creating Layer inception_3a/1x1
I0403 15:11:14.010030 31265 net.cpp:425] inception_3a/1x1 <- pool2/3x3_s2_pool2/3x3_s2_0_split_0
I0403 15:11:14.010047 31265 net.cpp:399] inception_3a/1x1 -> inception_3a/1x1
I0403 15:11:14.011592 31265 net.cpp:141] Setting up inception_3a/1x1
I0403 15:11:14.011622 31265 net.cpp:148] Top shape: 24 64 28 28 (1204224)
I0403 15:11:14.011638 31265 net.cpp:156] Memory required for data: 496141344
I0403 15:11:14.011658 31265 layer_factory.hpp:77] Creating layer inception_3a/relu_1x1
I0403 15:11:14.011677 31265 net.cpp:91] Creating Layer inception_3a/relu_1x1
I0403 15:11:14.011693 31265 net.cpp:425] inception_3a/relu_1x1 <- inception_3a/1x1
I0403 15:11:14.011713 31265 net.cpp:386] inception_3a/relu_1x1 -> inception_3a/1x1 (in-place)
I0403 15:11:14.011888 31265 net.cpp:141] Setting up inception_3a/relu_1x1
I0403 15:11:14.011912 31265 net.cpp:148] Top shape: 24 64 28 28 (1204224)
I0403 15:11:14.011929 31265 net.cpp:156] Memory required for data: 500958240
I0403 15:11:14.011943 31265 layer_factory.hpp:77] Creating layer inception_3a/3x3_reduce
I0403 15:11:14.011966 31265 net.cpp:91] Creating Layer inception_3a/3x3_reduce
I0403 15:11:14.011986 31265 net.cpp:425] inception_3a/3x3_reduce <- pool2/3x3_s2_pool2/3x3_s2_0_split_1
I0403 15:11:14.012006 31265 net.cpp:399] inception_3a/3x3_reduce -> inception_3a/3x3_reduce
I0403 15:11:14.013669 31265 net.cpp:141] Setting up inception_3a/3x3_reduce
I0403 15:11:14.013700 31265 net.cpp:148] Top shape: 24 96 28 28 (1806336)
I0403 15:11:14.013715 31265 net.cpp:156] Memory required for data: 508183584
I0403 15:11:14.013737 31265 layer_factory.hpp:77] Creating layer inception_3a/relu_3x3_reduce
I0403 15:11:14.013775 31265 net.cpp:91] Creating Layer inception_3a/relu_3x3_reduce
I0403 15:11:14.013794 31265 net.cpp:425] inception_3a/relu_3x3_reduce <- inception_3a/3x3_reduce
I0403 15:11:14.013813 31265 net.cpp:386] inception_3a/relu_3x3_reduce -> inception_3a/3x3_reduce (in-place)
I0403 15:11:14.013989 31265 net.cpp:141] Setting up inception_3a/relu_3x3_reduce
I0403 15:11:14.014016 31265 net.cpp:148] Top shape: 24 96 28 28 (1806336)
I0403 15:11:14.014032 31265 net.cpp:156] Memory required for data: 515408928
I0403 15:11:14.014048 31265 layer_factory.hpp:77] Creating layer inception_3a/3x3
I0403 15:11:14.014072 31265 net.cpp:91] Creating Layer inception_3a/3x3
I0403 15:11:14.014091 31265 net.cpp:425] inception_3a/3x3 <- inception_3a/3x3_reduce
I0403 15:11:14.014111 31265 net.cpp:399] inception_3a/3x3 -> inception_3a/3x3
I0403 15:11:14.015786 31265 net.cpp:141] Setting up inception_3a/3x3
I0403 15:11:14.015815 31265 net.cpp:148] Top shape: 24 128 28 28 (2408448)
I0403 15:11:14.015832 31265 net.cpp:156] Memory required for data: 525042720
I0403 15:11:14.015851 31265 layer_factory.hpp:77] Creating layer inception_3a/relu_3x3
I0403 15:11:14.015872 31265 net.cpp:91] Creating Layer inception_3a/relu_3x3
I0403 15:11:14.015889 31265 net.cpp:425] inception_3a/relu_3x3 <- inception_3a/3x3
I0403 15:11:14.015908 31265 net.cpp:386] inception_3a/relu_3x3 -> inception_3a/3x3 (in-place)
I0403 15:11:14.016175 31265 net.cpp:141] Setting up inception_3a/relu_3x3
I0403 15:11:14.016201 31265 net.cpp:148] Top shape: 24 128 28 28 (2408448)
I0403 15:11:14.016217 31265 net.cpp:156] Memory required for data: 534676512
I0403 15:11:14.016232 31265 layer_factory.hpp:77] Creating layer inception_3a/5x5_reduce
I0403 15:11:14.016255 31265 net.cpp:91] Creating Layer inception_3a/5x5_reduce
I0403 15:11:14.016274 31265 net.cpp:425] inception_3a/5x5_reduce <- pool2/3x3_s2_pool2/3x3_s2_0_split_2
I0403 15:11:14.016295 31265 net.cpp:399] inception_3a/5x5_reduce -> inception_3a/5x5_reduce
I0403 15:11:14.017235 31265 net.cpp:141] Setting up inception_3a/5x5_reduce
I0403 15:11:14.017263 31265 net.cpp:148] Top shape: 24 16 28 28 (301056)
I0403 15:11:14.017279 31265 net.cpp:156] Memory required for data: 535880736
I0403 15:11:14.017298 31265 layer_factory.hpp:77] Creating layer inception_3a/relu_5x5_reduce
I0403 15:11:14.017323 31265 net.cpp:91] Creating Layer inception_3a/relu_5x5_reduce
I0403 15:11:14.017343 31265 net.cpp:425] inception_3a/relu_5x5_reduce <- inception_3a/5x5_reduce
I0403 15:11:14.017360 31265 net.cpp:386] inception_3a/relu_5x5_reduce -> inception_3a/5x5_reduce (in-place)
I0403 15:11:14.017655 31265 net.cpp:141] Setting up inception_3a/relu_5x5_reduce
I0403 15:11:14.017681 31265 net.cpp:148] Top shape: 24 16 28 28 (301056)
I0403 15:11:14.017698 31265 net.cpp:156] Memory required for data: 537084960
I0403 15:11:14.017712 31265 layer_factory.hpp:77] Creating layer inception_3a/5x5
I0403 15:11:14.017737 31265 net.cpp:91] Creating Layer inception_3a/5x5
I0403 15:11:14.017755 31265 net.cpp:425] inception_3a/5x5 <- inception_3a/5x5_reduce
I0403 15:11:14.017776 31265 net.cpp:399] inception_3a/5x5 -> inception_3a/5x5
I0403 15:11:14.018766 31265 net.cpp:141] Setting up inception_3a/5x5
I0403 15:11:14.018793 31265 net.cpp:148] Top shape: 24 32 28 28 (602112)
I0403 15:11:14.018810 31265 net.cpp:156] Memory required for data: 539493408
I0403 15:11:14.018829 31265 layer_factory.hpp:77] Creating layer inception_3a/relu_5x5
I0403 15:11:14.018847 31265 net.cpp:91] Creating Layer inception_3a/relu_5x5
I0403 15:11:14.018863 31265 net.cpp:425] inception_3a/relu_5x5 <- inception_3a/5x5
I0403 15:11:14.018885 31265 net.cpp:386] inception_3a/relu_5x5 -> inception_3a/5x5 (in-place)
I0403 15:11:14.019054 31265 net.cpp:141] Setting up inception_3a/relu_5x5
I0403 15:11:14.019080 31265 net.cpp:148] Top shape: 24 32 28 28 (602112)
I0403 15:11:14.019095 31265 net.cpp:156] Memory required for data: 541901856
I0403 15:11:14.019112 31265 layer_factory.hpp:77] Creating layer inception_3a/pool
I0403 15:11:14.019132 31265 net.cpp:91] Creating Layer inception_3a/pool
I0403 15:11:14.019150 31265 net.cpp:425] inception_3a/pool <- pool2/3x3_s2_pool2/3x3_s2_0_split_3
I0403 15:11:14.019183 31265 net.cpp:399] inception_3a/pool -> inception_3a/pool
I0403 15:11:14.019243 31265 net.cpp:141] Setting up inception_3a/pool
I0403 15:11:14.019268 31265 net.cpp:148] Top shape: 24 192 28 28 (3612672)
I0403 15:11:14.019282 31265 net.cpp:156] Memory required for data: 556352544
I0403 15:11:14.019297 31265 layer_factory.hpp:77] Creating layer inception_3a/pool_proj
I0403 15:11:14.019323 31265 net.cpp:91] Creating Layer inception_3a/pool_proj
I0403 15:11:14.019342 31265 net.cpp:425] inception_3a/pool_proj <- inception_3a/pool
I0403 15:11:14.019366 31265 net.cpp:399] inception_3a/pool_proj -> inception_3a/pool_proj
I0403 15:11:14.020333 31265 net.cpp:141] Setting up inception_3a/pool_proj
I0403 15:11:14.020364 31265 net.cpp:148] Top shape: 24 32 28 28 (602112)
I0403 15:11:14.020380 31265 net.cpp:156] Memory required for data: 558760992
I0403 15:11:14.020403 31265 layer_factory.hpp:77] Creating layer inception_3a/relu_pool_proj
I0403 15:11:14.020426 31265 net.cpp:91] Creating Layer inception_3a/relu_pool_proj
I0403 15:11:14.020444 31265 net.cpp:425] inception_3a/relu_pool_proj <- inception_3a/pool_proj
I0403 15:11:14.020462 31265 net.cpp:386] inception_3a/relu_pool_proj -> inception_3a/pool_proj (in-place)
I0403 15:11:14.020751 31265 net.cpp:141] Setting up inception_3a/relu_pool_proj
I0403 15:11:14.020778 31265 net.cpp:148] Top shape: 24 32 28 28 (602112)
I0403 15:11:14.020793 31265 net.cpp:156] Memory required for data: 561169440
I0403 15:11:14.020809 31265 layer_factory.hpp:77] Creating layer inception_3a/output
I0403 15:11:14.020826 31265 net.cpp:91] Creating Layer inception_3a/output
I0403 15:11:14.020843 31265 net.cpp:425] inception_3a/output <- inception_3a/1x1
I0403 15:11:14.020859 31265 net.cpp:425] inception_3a/output <- inception_3a/3x3
I0403 15:11:14.020875 31265 net.cpp:425] inception_3a/output <- inception_3a/5x5
I0403 15:11:14.020891 31265 net.cpp:425] inception_3a/output <- inception_3a/pool_proj
I0403 15:11:14.020911 31265 net.cpp:399] inception_3a/output -> inception_3a/output
I0403 15:11:14.020959 31265 net.cpp:141] Setting up inception_3a/output
I0403 15:11:14.020984 31265 net.cpp:148] Top shape: 24 256 28 28 (4816896)
I0403 15:11:14.020999 31265 net.cpp:156] Memory required for data: 580437024
I0403 15:11:14.021015 31265 layer_factory.hpp:77] Creating layer inception_3a/output_inception_3a/output_0_split
I0403 15:11:14.021033 31265 net.cpp:91] Creating Layer inception_3a/output_inception_3a/output_0_split
I0403 15:11:14.021047 31265 net.cpp:425] inception_3a/output_inception_3a/output_0_split <- inception_3a/output
I0403 15:11:14.021067 31265 net.cpp:399] inception_3a/output_inception_3a/output_0_split -> inception_3a/output_inception_3a/output_0_split_0
I0403 15:11:14.021090 31265 net.cpp:399] inception_3a/output_inception_3a/output_0_split -> inception_3a/output_inception_3a/output_0_split_1
I0403 15:11:14.021113 31265 net.cpp:399] inception_3a/output_inception_3a/output_0_split -> inception_3a/output_inception_3a/output_0_split_2
I0403 15:11:14.021136 31265 net.cpp:399] inception_3a/output_inception_3a/output_0_split -> inception_3a/output_inception_3a/output_0_split_3
I0403 15:11:14.021217 31265 net.cpp:141] Setting up inception_3a/output_inception_3a/output_0_split
I0403 15:11:14.021241 31265 net.cpp:148] Top shape: 24 256 28 28 (4816896)
I0403 15:11:14.021260 31265 net.cpp:148] Top shape: 24 256 28 28 (4816896)
I0403 15:11:14.021275 31265 net.cpp:148] Top shape: 24 256 28 28 (4816896)
I0403 15:11:14.021291 31265 net.cpp:148] Top shape: 24 256 28 28 (4816896)
I0403 15:11:14.021306 31265 net.cpp:156] Memory required for data: 657507360
I0403 15:11:14.021327 31265 layer_factory.hpp:77] Creating layer inception_3b/1x1
I0403 15:11:14.021352 31265 net.cpp:91] Creating Layer inception_3b/1x1
I0403 15:11:14.021370 31265 net.cpp:425] inception_3b/1x1 <- inception_3a/output_inception_3a/output_0_split_0
I0403 15:11:14.021391 31265 net.cpp:399] inception_3b/1x1 -> inception_3b/1x1
I0403 15:11:14.022519 31265 net.cpp:141] Setting up inception_3b/1x1
I0403 15:11:14.022558 31265 net.cpp:148] Top shape: 24 128 28 28 (2408448)
I0403 15:11:14.022578 31265 net.cpp:156] Memory required for data: 667141152
I0403 15:11:14.022598 31265 layer_factory.hpp:77] Creating layer inception_3b/relu_1x1
I0403 15:11:14.022615 31265 net.cpp:91] Creating Layer inception_3b/relu_1x1
I0403 15:11:14.022632 31265 net.cpp:425] inception_3b/relu_1x1 <- inception_3b/1x1
I0403 15:11:14.022653 31265 net.cpp:386] inception_3b/relu_1x1 -> inception_3b/1x1 (in-place)
I0403 15:11:14.022825 31265 net.cpp:141] Setting up inception_3b/relu_1x1
I0403 15:11:14.022851 31265 net.cpp:148] Top shape: 24 128 28 28 (2408448)
I0403 15:11:14.022867 31265 net.cpp:156] Memory required for data: 676774944
I0403 15:11:14.022883 31265 layer_factory.hpp:77] Creating layer inception_3b/3x3_reduce
I0403 15:11:14.022907 31265 net.cpp:91] Creating Layer inception_3b/3x3_reduce
I0403 15:11:14.022924 31265 net.cpp:425] inception_3b/3x3_reduce <- inception_3a/output_inception_3a/output_0_split_1
I0403 15:11:14.022946 31265 net.cpp:399] inception_3b/3x3_reduce -> inception_3b/3x3_reduce
I0403 15:11:14.024116 31265 net.cpp:141] Setting up inception_3b/3x3_reduce
I0403 15:11:14.024155 31265 net.cpp:148] Top shape: 24 128 28 28 (2408448)
I0403 15:11:14.024173 31265 net.cpp:156] Memory required for data: 686408736
I0403 15:11:14.024190 31265 layer_factory.hpp:77] Creating layer inception_3b/relu_3x3_reduce
I0403 15:11:14.024209 31265 net.cpp:91] Creating Layer inception_3b/relu_3x3_reduce
I0403 15:11:14.024225 31265 net.cpp:425] inception_3b/relu_3x3_reduce <- inception_3b/3x3_reduce
I0403 15:11:14.024247 31265 net.cpp:386] inception_3b/relu_3x3_reduce -> inception_3b/3x3_reduce (in-place)
I0403 15:11:14.024428 31265 net.cpp:141] Setting up inception_3b/relu_3x3_reduce
I0403 15:11:14.024466 31265 net.cpp:148] Top shape: 24 128 28 28 (2408448)
I0403 15:11:14.024482 31265 net.cpp:156] Memory required for data: 696042528
I0403 15:11:14.024497 31265 layer_factory.hpp:77] Creating layer inception_3b/3x3
I0403 15:11:14.024523 31265 net.cpp:91] Creating Layer inception_3b/3x3
I0403 15:11:14.024541 31265 net.cpp:425] inception_3b/3x3 <- inception_3b/3x3_reduce
I0403 15:11:14.024562 31265 net.cpp:399] inception_3b/3x3 -> inception_3b/3x3
I0403 15:11:14.027580 31265 net.cpp:141] Setting up inception_3b/3x3
I0403 15:11:14.027611 31265 net.cpp:148] Top shape: 24 192 28 28 (3612672)
I0403 15:11:14.027626 31265 net.cpp:156] Memory required for data: 710493216
I0403 15:11:14.027647 31265 layer_factory.hpp:77] Creating layer inception_3b/relu_3x3
I0403 15:11:14.027667 31265 net.cpp:91] Creating Layer inception_3b/relu_3x3
I0403 15:11:14.027685 31265 net.cpp:425] inception_3b/relu_3x3 <- inception_3b/3x3
I0403 15:11:14.027704 31265 net.cpp:386] inception_3b/relu_3x3 -> inception_3b/3x3 (in-place)
I0403 15:11:14.027974 31265 net.cpp:141] Setting up inception_3b/relu_3x3
I0403 15:11:14.028000 31265 net.cpp:148] Top shape: 24 192 28 28 (3612672)
I0403 15:11:14.028017 31265 net.cpp:156] Memory required for data: 724943904
I0403 15:11:14.028033 31265 layer_factory.hpp:77] Creating layer inception_3b/5x5_reduce
I0403 15:11:14.028058 31265 net.cpp:91] Creating Layer inception_3b/5x5_reduce
I0403 15:11:14.028077 31265 net.cpp:425] inception_3b/5x5_reduce <- inception_3a/output_inception_3a/output_0_split_2
I0403 15:11:14.028098 31265 net.cpp:399] inception_3b/5x5_reduce -> inception_3b/5x5_reduce
I0403 15:11:14.029078 31265 net.cpp:141] Setting up inception_3b/5x5_reduce
I0403 15:11:14.029105 31265 net.cpp:148] Top shape: 24 32 28 28 (602112)
I0403 15:11:14.029121 31265 net.cpp:156] Memory required for data: 727352352
I0403 15:11:14.029140 31265 layer_factory.hpp:77] Creating layer inception_3b/relu_5x5_reduce
I0403 15:11:14.029161 31265 net.cpp:91] Creating Layer inception_3b/relu_5x5_reduce
I0403 15:11:14.029180 31265 net.cpp:425] inception_3b/relu_5x5_reduce <- inception_3b/5x5_reduce
I0403 15:11:14.029197 31265 net.cpp:386] inception_3b/relu_5x5_reduce -> inception_3b/5x5_reduce (in-place)
I0403 15:11:14.029377 31265 net.cpp:141] Setting up inception_3b/relu_5x5_reduce
I0403 15:11:14.029415 31265 net.cpp:148] Top shape: 24 32 28 28 (602112)
I0403 15:11:14.029434 31265 net.cpp:156] Memory required for data: 729760800
I0403 15:11:14.029451 31265 layer_factory.hpp:77] Creating layer inception_3b/5x5
I0403 15:11:14.029471 31265 net.cpp:91] Creating Layer inception_3b/5x5
I0403 15:11:14.029489 31265 net.cpp:425] inception_3b/5x5 <- inception_3b/5x5_reduce
I0403 15:11:14.029510 31265 net.cpp:399] inception_3b/5x5 -> inception_3b/5x5
I0403 15:11:14.031491 31265 net.cpp:141] Setting up inception_3b/5x5
I0403 15:11:14.031520 31265 net.cpp:148] Top shape: 24 96 28 28 (1806336)
I0403 15:11:14.031536 31265 net.cpp:156] Memory required for data: 736986144
I0403 15:11:14.031556 31265 layer_factory.hpp:77] Creating layer inception_3b/relu_5x5
I0403 15:11:14.031575 31265 net.cpp:91] Creating Layer inception_3b/relu_5x5
I0403 15:11:14.031590 31265 net.cpp:425] inception_3b/relu_5x5 <- inception_3b/5x5
I0403 15:11:14.031610 31265 net.cpp:386] inception_3b/relu_5x5 -> inception_3b/5x5 (in-place)
I0403 15:11:14.031796 31265 net.cpp:141] Setting up inception_3b/relu_5x5
I0403 15:11:14.031822 31265 net.cpp:148] Top shape: 24 96 28 28 (1806336)
I0403 15:11:14.031838 31265 net.cpp:156] Memory required for data: 744211488
I0403 15:11:14.031853 31265 layer_factory.hpp:77] Creating layer inception_3b/pool
I0403 15:11:14.031870 31265 net.cpp:91] Creating Layer inception_3b/pool
I0403 15:11:14.031886 31265 net.cpp:425] inception_3b/pool <- inception_3a/output_inception_3a/output_0_split_3
I0403 15:11:14.031904 31265 net.cpp:399] inception_3b/pool -> inception_3b/pool
I0403 15:11:14.031962 31265 net.cpp:141] Setting up inception_3b/pool
I0403 15:11:14.031987 31265 net.cpp:148] Top shape: 24 256 28 28 (4816896)
I0403 15:11:14.032002 31265 net.cpp:156] Memory required for data: 763479072
I0403 15:11:14.032016 31265 layer_factory.hpp:77] Creating layer inception_3b/pool_proj
I0403 15:11:14.032042 31265 net.cpp:91] Creating Layer inception_3b/pool_proj
I0403 15:11:14.032059 31265 net.cpp:425] inception_3b/pool_proj <- inception_3b/pool
I0403 15:11:14.032081 31265 net.cpp:399] inception_3b/pool_proj -> inception_3b/pool_proj
I0403 15:11:14.033151 31265 net.cpp:141] Setting up inception_3b/pool_proj
I0403 15:11:14.033182 31265 net.cpp:148] Top shape: 24 64 28 28 (1204224)
I0403 15:11:14.033200 31265 net.cpp:156] Memory required for data: 768295968
I0403 15:11:14.033220 31265 layer_factory.hpp:77] Creating layer inception_3b/relu_pool_proj
I0403 15:11:14.033237 31265 net.cpp:91] Creating Layer inception_3b/relu_pool_proj
I0403 15:11:14.033254 31265 net.cpp:425] inception_3b/relu_pool_proj <- inception_3b/pool_proj
I0403 15:11:14.033272 31265 net.cpp:386] inception_3b/relu_pool_proj -> inception_3b/pool_proj (in-place)
I0403 15:11:14.033679 31265 net.cpp:141] Setting up inception_3b/relu_pool_proj
I0403 15:11:14.033706 31265 net.cpp:148] Top shape: 24 64 28 28 (1204224)
I0403 15:11:14.033722 31265 net.cpp:156] Memory required for data: 773112864
I0403 15:11:14.033738 31265 layer_factory.hpp:77] Creating layer inception_3b/output
I0403 15:11:14.033759 31265 net.cpp:91] Creating Layer inception_3b/output
I0403 15:11:14.033776 31265 net.cpp:425] inception_3b/output <- inception_3b/1x1
I0403 15:11:14.033793 31265 net.cpp:425] inception_3b/output <- inception_3b/3x3
I0403 15:11:14.033810 31265 net.cpp:425] inception_3b/output <- inception_3b/5x5
I0403 15:11:14.033826 31265 net.cpp:425] inception_3b/output <- inception_3b/pool_proj
I0403 15:11:14.033843 31265 net.cpp:399] inception_3b/output -> inception_3b/output
I0403 15:11:14.033890 31265 net.cpp:141] Setting up inception_3b/output
I0403 15:11:14.033913 31265 net.cpp:148] Top shape: 24 480 28 28 (9031680)
I0403 15:11:14.033928 31265 net.cpp:156] Memory required for data: 809239584
I0403 15:11:14.033944 31265 layer_factory.hpp:77] Creating layer pool3/3x3_s2
I0403 15:11:14.033962 31265 net.cpp:91] Creating Layer pool3/3x3_s2
I0403 15:11:14.033977 31265 net.cpp:425] pool3/3x3_s2 <- inception_3b/output
I0403 15:11:14.033998 31265 net.cpp:399] pool3/3x3_s2 -> pool3/3x3_s2
I0403 15:11:14.034070 31265 net.cpp:141] Setting up pool3/3x3_s2
I0403 15:11:14.034095 31265 net.cpp:148] Top shape: 24 480 14 14 (2257920)
I0403 15:11:14.034111 31265 net.cpp:156] Memory required for data: 818271264
I0403 15:11:14.034126 31265 layer_factory.hpp:77] Creating layer pool3/3x3_s2_pool3/3x3_s2_0_split
I0403 15:11:14.034147 31265 net.cpp:91] Creating Layer pool3/3x3_s2_pool3/3x3_s2_0_split
I0403 15:11:14.034163 31265 net.cpp:425] pool3/3x3_s2_pool3/3x3_s2_0_split <- pool3/3x3_s2
I0403 15:11:14.034183 31265 net.cpp:399] pool3/3x3_s2_pool3/3x3_s2_0_split -> pool3/3x3_s2_pool3/3x3_s2_0_split_0
I0403 15:11:14.034204 31265 net.cpp:399] pool3/3x3_s2_pool3/3x3_s2_0_split -> pool3/3x3_s2_pool3/3x3_s2_0_split_1
I0403 15:11:14.034226 31265 net.cpp:399] pool3/3x3_s2_pool3/3x3_s2_0_split -> pool3/3x3_s2_pool3/3x3_s2_0_split_2
I0403 15:11:14.034245 31265 net.cpp:399] pool3/3x3_s2_pool3/3x3_s2_0_split -> pool3/3x3_s2_pool3/3x3_s2_0_split_3
I0403 15:11:14.034339 31265 net.cpp:141] Setting up pool3/3x3_s2_pool3/3x3_s2_0_split
I0403 15:11:14.034366 31265 net.cpp:148] Top shape: 24 480 14 14 (2257920)
I0403 15:11:14.034384 31265 net.cpp:148] Top shape: 24 480 14 14 (2257920)
I0403 15:11:14.034400 31265 net.cpp:148] Top shape: 24 480 14 14 (2257920)
I0403 15:11:14.034417 31265 net.cpp:148] Top shape: 24 480 14 14 (2257920)
I0403 15:11:14.034432 31265 net.cpp:156] Memory required for data: 854397984
I0403 15:11:14.034447 31265 layer_factory.hpp:77] Creating layer inception_4a/1x1
I0403 15:11:14.034468 31265 net.cpp:91] Creating Layer inception_4a/1x1
I0403 15:11:14.034487 31265 net.cpp:425] inception_4a/1x1 <- pool3/3x3_s2_pool3/3x3_s2_0_split_0
I0403 15:11:14.034508 31265 net.cpp:399] inception_4a/1x1 -> inception_4a/1x1
I0403 15:11:14.036078 31265 net.cpp:141] Setting up inception_4a/1x1
I0403 15:11:14.036108 31265 net.cpp:148] Top shape: 24 192 14 14 (903168)
I0403 15:11:14.036124 31265 net.cpp:156] Memory required for data: 858010656
I0403 15:11:14.036144 31265 layer_factory.hpp:77] Creating layer inception_4a/relu_1x1
I0403 15:11:14.036161 31265 net.cpp:91] Creating Layer inception_4a/relu_1x1
I0403 15:11:14.036177 31265 net.cpp:425] inception_4a/relu_1x1 <- inception_4a/1x1
I0403 15:11:14.036195 31265 net.cpp:386] inception_4a/relu_1x1 -> inception_4a/1x1 (in-place)
I0403 15:11:14.036371 31265 net.cpp:141] Setting up inception_4a/relu_1x1
I0403 15:11:14.036396 31265 net.cpp:148] Top shape: 24 192 14 14 (903168)
I0403 15:11:14.036411 31265 net.cpp:156] Memory required for data: 861623328
I0403 15:11:14.036424 31265 layer_factory.hpp:77] Creating layer inception_4a/3x3_reduce
I0403 15:11:14.036447 31265 net.cpp:91] Creating Layer inception_4a/3x3_reduce
I0403 15:11:14.036464 31265 net.cpp:425] inception_4a/3x3_reduce <- pool3/3x3_s2_pool3/3x3_s2_0_split_1
I0403 15:11:14.036485 31265 net.cpp:399] inception_4a/3x3_reduce -> inception_4a/3x3_reduce
I0403 15:11:14.037708 31265 net.cpp:141] Setting up inception_4a/3x3_reduce
I0403 15:11:14.037739 31265 net.cpp:148] Top shape: 24 96 14 14 (451584)
I0403 15:11:14.037755 31265 net.cpp:156] Memory required for data: 863429664
I0403 15:11:14.037781 31265 layer_factory.hpp:77] Creating layer inception_4a/relu_3x3_reduce
I0403 15:11:14.037801 31265 net.cpp:91] Creating Layer inception_4a/relu_3x3_reduce
I0403 15:11:14.037817 31265 net.cpp:425] inception_4a/relu_3x3_reduce <- inception_4a/3x3_reduce
I0403 15:11:14.037835 31265 net.cpp:386] inception_4a/relu_3x3_reduce -> inception_4a/3x3_reduce (in-place)
I0403 15:11:14.038002 31265 net.cpp:141] Setting up inception_4a/relu_3x3_reduce
I0403 15:11:14.038028 31265 net.cpp:148] Top shape: 24 96 14 14 (451584)
I0403 15:11:14.038044 31265 net.cpp:156] Memory required for data: 865236000
I0403 15:11:14.038059 31265 layer_factory.hpp:77] Creating layer inception_4a/3x3
I0403 15:11:14.038080 31265 net.cpp:91] Creating Layer inception_4a/3x3
I0403 15:11:14.038099 31265 net.cpp:425] inception_4a/3x3 <- inception_4a/3x3_reduce
I0403 15:11:14.038120 31265 net.cpp:399] inception_4a/3x3 -> inception_4a/3x3
I0403 15:11:14.040838 31265 net.cpp:141] Setting up inception_4a/3x3
I0403 15:11:14.040868 31265 net.cpp:148] Top shape: 24 208 14 14 (978432)
I0403 15:11:14.040884 31265 net.cpp:156] Memory required for data: 869149728
I0403 15:11:14.040904 31265 layer_factory.hpp:77] Creating layer inception_4a/relu_3x3
I0403 15:11:14.040923 31265 net.cpp:91] Creating Layer inception_4a/relu_3x3
I0403 15:11:14.040941 31265 net.cpp:425] inception_4a/relu_3x3 <- inception_4a/3x3
I0403 15:11:14.040962 31265 net.cpp:386] inception_4a/relu_3x3 -> inception_4a/3x3 (in-place)
I0403 15:11:14.041239 31265 net.cpp:141] Setting up inception_4a/relu_3x3
I0403 15:11:14.041278 31265 net.cpp:148] Top shape: 24 208 14 14 (978432)
I0403 15:11:14.041296 31265 net.cpp:156] Memory required for data: 873063456
I0403 15:11:14.041311 31265 layer_factory.hpp:77] Creating layer inception_4a/5x5_reduce
I0403 15:11:14.041340 31265 net.cpp:91] Creating Layer inception_4a/5x5_reduce
I0403 15:11:14.041360 31265 net.cpp:425] inception_4a/5x5_reduce <- pool3/3x3_s2_pool3/3x3_s2_0_split_2
I0403 15:11:14.041383 31265 net.cpp:399] inception_4a/5x5_reduce -> inception_4a/5x5_reduce
I0403 15:11:14.042409 31265 net.cpp:141] Setting up inception_4a/5x5_reduce
I0403 15:11:14.042438 31265 net.cpp:148] Top shape: 24 16 14 14 (75264)
I0403 15:11:14.042454 31265 net.cpp:156] Memory required for data: 873364512
I0403 15:11:14.042472 31265 layer_factory.hpp:77] Creating layer inception_4a/relu_5x5_reduce
I0403 15:11:14.042490 31265 net.cpp:91] Creating Layer inception_4a/relu_5x5_reduce
I0403 15:11:14.042507 31265 net.cpp:425] inception_4a/relu_5x5_reduce <- inception_4a/5x5_reduce
I0403 15:11:14.042526 31265 net.cpp:386] inception_4a/relu_5x5_reduce -> inception_4a/5x5_reduce (in-place)
I0403 15:11:14.042702 31265 net.cpp:141] Setting up inception_4a/relu_5x5_reduce
I0403 15:11:14.042728 31265 net.cpp:148] Top shape: 24 16 14 14 (75264)
I0403 15:11:14.042744 31265 net.cpp:156] Memory required for data: 873665568
I0403 15:11:14.042760 31265 layer_factory.hpp:77] Creating layer inception_4a/5x5
I0403 15:11:14.042784 31265 net.cpp:91] Creating Layer inception_4a/5x5
I0403 15:11:14.042803 31265 net.cpp:425] inception_4a/5x5 <- inception_4a/5x5_reduce
I0403 15:11:14.042824 31265 net.cpp:399] inception_4a/5x5 -> inception_4a/5x5
I0403 15:11:14.043892 31265 net.cpp:141] Setting up inception_4a/5x5
I0403 15:11:14.043920 31265 net.cpp:148] Top shape: 24 48 14 14 (225792)
I0403 15:11:14.043936 31265 net.cpp:156] Memory required for data: 874568736
I0403 15:11:14.043956 31265 layer_factory.hpp:77] Creating layer inception_4a/relu_5x5
I0403 15:11:14.043977 31265 net.cpp:91] Creating Layer inception_4a/relu_5x5
I0403 15:11:14.043993 31265 net.cpp:425] inception_4a/relu_5x5 <- inception_4a/5x5
I0403 15:11:14.044011 31265 net.cpp:386] inception_4a/relu_5x5 -> inception_4a/5x5 (in-place)
I0403 15:11:14.044186 31265 net.cpp:141] Setting up inception_4a/relu_5x5
I0403 15:11:14.044214 31265 net.cpp:148] Top shape: 24 48 14 14 (225792)
I0403 15:11:14.044229 31265 net.cpp:156] Memory required for data: 875471904
I0403 15:11:14.044245 31265 layer_factory.hpp:77] Creating layer inception_4a/pool
I0403 15:11:14.044275 31265 net.cpp:91] Creating Layer inception_4a/pool
I0403 15:11:14.044292 31265 net.cpp:425] inception_4a/pool <- pool3/3x3_s2_pool3/3x3_s2_0_split_3
I0403 15:11:14.044323 31265 net.cpp:399] inception_4a/pool -> inception_4a/pool
I0403 15:11:14.044391 31265 net.cpp:141] Setting up inception_4a/pool
I0403 15:11:14.044416 31265 net.cpp:148] Top shape: 24 480 14 14 (2257920)
I0403 15:11:14.044431 31265 net.cpp:156] Memory required for data: 884503584
I0403 15:11:14.044446 31265 layer_factory.hpp:77] Creating layer inception_4a/pool_proj
I0403 15:11:14.044471 31265 net.cpp:91] Creating Layer inception_4a/pool_proj
I0403 15:11:14.044489 31265 net.cpp:425] inception_4a/pool_proj <- inception_4a/pool
I0403 15:11:14.044509 31265 net.cpp:399] inception_4a/pool_proj -> inception_4a/pool_proj
I0403 15:11:14.045678 31265 net.cpp:141] Setting up inception_4a/pool_proj
I0403 15:11:14.045711 31265 net.cpp:148] Top shape: 24 64 14 14 (301056)
I0403 15:11:14.045742 31265 net.cpp:156] Memory required for data: 885707808
I0403 15:11:14.045763 31265 layer_factory.hpp:77] Creating layer inception_4a/relu_pool_proj
I0403 15:11:14.045781 31265 net.cpp:91] Creating Layer inception_4a/relu_pool_proj
I0403 15:11:14.045799 31265 net.cpp:425] inception_4a/relu_pool_proj <- inception_4a/pool_proj
I0403 15:11:14.045819 31265 net.cpp:386] inception_4a/relu_pool_proj -> inception_4a/pool_proj (in-place)
I0403 15:11:14.046097 31265 net.cpp:141] Setting up inception_4a/relu_pool_proj
I0403 15:11:14.046125 31265 net.cpp:148] Top shape: 24 64 14 14 (301056)
I0403 15:11:14.046144 31265 net.cpp:156] Memory required for data: 886912032
I0403 15:11:14.046159 31265 layer_factory.hpp:77] Creating layer inception_4a/output
I0403 15:11:14.046176 31265 net.cpp:91] Creating Layer inception_4a/output
I0403 15:11:14.046192 31265 net.cpp:425] inception_4a/output <- inception_4a/1x1
I0403 15:11:14.046210 31265 net.cpp:425] inception_4a/output <- inception_4a/3x3
I0403 15:11:14.046226 31265 net.cpp:425] inception_4a/output <- inception_4a/5x5
I0403 15:11:14.046242 31265 net.cpp:425] inception_4a/output <- inception_4a/pool_proj
I0403 15:11:14.046258 31265 net.cpp:399] inception_4a/output -> inception_4a/output
I0403 15:11:14.046304 31265 net.cpp:141] Setting up inception_4a/output
I0403 15:11:14.046332 31265 net.cpp:148] Top shape: 24 512 14 14 (2408448)
I0403 15:11:14.046349 31265 net.cpp:156] Memory required for data: 896545824
I0403 15:11:14.046365 31265 layer_factory.hpp:77] Creating layer inception_4a/output_inception_4a/output_0_split
I0403 15:11:14.046386 31265 net.cpp:91] Creating Layer inception_4a/output_inception_4a/output_0_split
I0403 15:11:14.046401 31265 net.cpp:425] inception_4a/output_inception_4a/output_0_split <- inception_4a/output
I0403 15:11:14.046418 31265 net.cpp:399] inception_4a/output_inception_4a/output_0_split -> inception_4a/output_inception_4a/output_0_split_0
I0403 15:11:14.046439 31265 net.cpp:399] inception_4a/output_inception_4a/output_0_split -> inception_4a/output_inception_4a/output_0_split_1
I0403 15:11:14.046460 31265 net.cpp:399] inception_4a/output_inception_4a/output_0_split -> inception_4a/output_inception_4a/output_0_split_2
I0403 15:11:14.046486 31265 net.cpp:399] inception_4a/output_inception_4a/output_0_split -> inception_4a/output_inception_4a/output_0_split_3
I0403 15:11:14.046507 31265 net.cpp:399] inception_4a/output_inception_4a/output_0_split -> inception_4a/output_inception_4a/output_0_split_4
I0403 15:11:14.046599 31265 net.cpp:141] Setting up inception_4a/output_inception_4a/output_0_split
I0403 15:11:14.046624 31265 net.cpp:148] Top shape: 24 512 14 14 (2408448)
I0403 15:11:14.046640 31265 net.cpp:148] Top shape: 24 512 14 14 (2408448)
I0403 15:11:14.046656 31265 net.cpp:148] Top shape: 24 512 14 14 (2408448)
I0403 15:11:14.046674 31265 net.cpp:148] Top shape: 24 512 14 14 (2408448)
I0403 15:11:14.046690 31265 net.cpp:148] Top shape: 24 512 14 14 (2408448)
I0403 15:11:14.046705 31265 net.cpp:156] Memory required for data: 944714784
I0403 15:11:14.046720 31265 layer_factory.hpp:77] Creating layer loss1/ave_pool
I0403 15:11:14.046737 31265 net.cpp:91] Creating Layer loss1/ave_pool
I0403 15:11:14.046753 31265 net.cpp:425] loss1/ave_pool <- inception_4a/output_inception_4a/output_0_split_0
I0403 15:11:14.046774 31265 net.cpp:399] loss1/ave_pool -> loss1/ave_pool
I0403 15:11:14.046979 31265 net.cpp:141] Setting up loss1/ave_pool
I0403 15:11:14.047008 31265 net.cpp:148] Top shape: 24 512 4 4 (196608)
I0403 15:11:14.047024 31265 net.cpp:156] Memory required for data: 945501216
I0403 15:11:14.047040 31265 layer_factory.hpp:77] Creating layer loss1/conv
I0403 15:11:14.047062 31265 net.cpp:91] Creating Layer loss1/conv
I0403 15:11:14.047080 31265 net.cpp:425] loss1/conv <- loss1/ave_pool
I0403 15:11:14.047099 31265 net.cpp:399] loss1/conv -> loss1/conv
I0403 15:11:14.048499 31265 net.cpp:141] Setting up loss1/conv
I0403 15:11:14.048544 31265 net.cpp:148] Top shape: 24 128 4 4 (49152)
I0403 15:11:14.048585 31265 net.cpp:156] Memory required for data: 945697824
I0403 15:11:14.048629 31265 layer_factory.hpp:77] Creating layer loss1/relu_conv
I0403 15:11:14.048677 31265 net.cpp:91] Creating Layer loss1/relu_conv
I0403 15:11:14.048723 31265 net.cpp:425] loss1/relu_conv <- loss1/conv
I0403 15:11:14.048774 31265 net.cpp:386] loss1/relu_conv -> loss1/conv (in-place)
I0403 15:11:14.049077 31265 net.cpp:141] Setting up loss1/relu_conv
I0403 15:11:14.049105 31265 net.cpp:148] Top shape: 24 128 4 4 (49152)
I0403 15:11:14.049120 31265 net.cpp:156] Memory required for data: 945894432
I0403 15:11:14.049136 31265 layer_factory.hpp:77] Creating layer loss1/fc
I0403 15:11:14.049160 31265 net.cpp:91] Creating Layer loss1/fc
I0403 15:11:14.049178 31265 net.cpp:425] loss1/fc <- loss1/conv
I0403 15:11:14.049199 31265 net.cpp:399] loss1/fc -> loss1/fc
I0403 15:11:14.067029 31265 net.cpp:141] Setting up loss1/fc
I0403 15:11:14.067085 31265 net.cpp:148] Top shape: 24 1024 (24576)
I0403 15:11:14.067102 31265 net.cpp:156] Memory required for data: 945992736
I0403 15:11:14.067122 31265 layer_factory.hpp:77] Creating layer loss1/relu_fc
I0403 15:11:14.067143 31265 net.cpp:91] Creating Layer loss1/relu_fc
I0403 15:11:14.067173 31265 net.cpp:425] loss1/relu_fc <- loss1/fc
I0403 15:11:14.067193 31265 net.cpp:386] loss1/relu_fc -> loss1/fc (in-place)
I0403 15:11:14.067426 31265 net.cpp:141] Setting up loss1/relu_fc
I0403 15:11:14.067452 31265 net.cpp:148] Top shape: 24 1024 (24576)
I0403 15:11:14.067468 31265 net.cpp:156] Memory required for data: 946091040
I0403 15:11:14.067484 31265 layer_factory.hpp:77] Creating layer loss1/drop_fc
I0403 15:11:14.067513 31265 net.cpp:91] Creating Layer loss1/drop_fc
I0403 15:11:14.067531 31265 net.cpp:425] loss1/drop_fc <- loss1/fc
I0403 15:11:14.067564 31265 net.cpp:386] loss1/drop_fc -> loss1/fc (in-place)
I0403 15:11:14.067618 31265 net.cpp:141] Setting up loss1/drop_fc
I0403 15:11:14.067642 31265 net.cpp:148] Top shape: 24 1024 (24576)
I0403 15:11:14.067658 31265 net.cpp:156] Memory required for data: 946189344
I0403 15:11:14.067674 31265 layer_factory.hpp:77] Creating layer loss1/classifier_plantvillage
I0403 15:11:14.067698 31265 net.cpp:91] Creating Layer loss1/classifier_plantvillage
I0403 15:11:14.067715 31265 net.cpp:425] loss1/classifier_plantvillage <- loss1/fc
I0403 15:11:14.067735 31265 net.cpp:399] loss1/classifier_plantvillage -> loss1/classifier_plantvillage
I0403 15:11:14.068663 31265 net.cpp:141] Setting up loss1/classifier_plantvillage
I0403 15:11:14.068692 31265 net.cpp:148] Top shape: 24 38 (912)
I0403 15:11:14.068708 31265 net.cpp:156] Memory required for data: 946192992
I0403 15:11:14.068727 31265 layer_factory.hpp:77] Creating layer loss1/classifier_plantvillage_loss1/classifier_plantvillage_0_split
I0403 15:11:14.068745 31265 net.cpp:91] Creating Layer loss1/classifier_plantvillage_loss1/classifier_plantvillage_0_split
I0403 15:11:14.068761 31265 net.cpp:425] loss1/classifier_plantvillage_loss1/classifier_plantvillage_0_split <- loss1/classifier_plantvillage
I0403 15:11:14.068785 31265 net.cpp:399] loss1/classifier_plantvillage_loss1/classifier_plantvillage_0_split -> loss1/classifier_plantvillage_loss1/classifier_plantvillage_0_split_0
I0403 15:11:14.068809 31265 net.cpp:399] loss1/classifier_plantvillage_loss1/classifier_plantvillage_0_split -> loss1/classifier_plantvillage_loss1/classifier_plantvillage_0_split_1
I0403 15:11:14.068830 31265 net.cpp:399] loss1/classifier_plantvillage_loss1/classifier_plantvillage_0_split -> loss1/classifier_plantvillage_loss1/classifier_plantvillage_0_split_2
I0403 15:11:14.068897 31265 net.cpp:141] Setting up loss1/classifier_plantvillage_loss1/classifier_plantvillage_0_split
I0403 15:11:14.068920 31265 net.cpp:148] Top shape: 24 38 (912)
I0403 15:11:14.068938 31265 net.cpp:148] Top shape: 24 38 (912)
I0403 15:11:14.068953 31265 net.cpp:148] Top shape: 24 38 (912)
I0403 15:11:14.068970 31265 net.cpp:156] Memory required for data: 946203936
I0403 15:11:14.068985 31265 layer_factory.hpp:77] Creating layer inception_4b/1x1
I0403 15:11:14.069010 31265 net.cpp:91] Creating Layer inception_4b/1x1
I0403 15:11:14.069049 31265 net.cpp:425] inception_4b/1x1 <- inception_4a/output_inception_4a/output_0_split_1
I0403 15:11:14.069070 31265 net.cpp:399] inception_4b/1x1 -> inception_4b/1x1
I0403 15:11:14.070736 31265 net.cpp:141] Setting up inception_4b/1x1
I0403 15:11:14.070765 31265 net.cpp:148] Top shape: 24 160 14 14 (752640)
I0403 15:11:14.070781 31265 net.cpp:156] Memory required for data: 949214496
I0403 15:11:14.070801 31265 layer_factory.hpp:77] Creating layer inception_4b/relu_1x1
I0403 15:11:14.070819 31265 net.cpp:91] Creating Layer inception_4b/relu_1x1
I0403 15:11:14.070835 31265 net.cpp:425] inception_4b/relu_1x1 <- inception_4b/1x1
I0403 15:11:14.070858 31265 net.cpp:386] inception_4b/relu_1x1 -> inception_4b/1x1 (in-place)
I0403 15:11:14.071038 31265 net.cpp:141] Setting up inception_4b/relu_1x1
I0403 15:11:14.071064 31265 net.cpp:148] Top shape: 24 160 14 14 (752640)
I0403 15:11:14.071080 31265 net.cpp:156] Memory required for data: 952225056
I0403 15:11:14.071095 31265 layer_factory.hpp:77] Creating layer inception_4b/3x3_reduce
I0403 15:11:14.071117 31265 net.cpp:91] Creating Layer inception_4b/3x3_reduce
I0403 15:11:14.071136 31265 net.cpp:425] inception_4b/3x3_reduce <- inception_4a/output_inception_4a/output_0_split_2
I0403 15:11:14.071158 31265 net.cpp:399] inception_4b/3x3_reduce -> inception_4b/3x3_reduce
I0403 15:11:14.072541 31265 net.cpp:141] Setting up inception_4b/3x3_reduce
I0403 15:11:14.072569 31265 net.cpp:148] Top shape: 24 112 14 14 (526848)
I0403 15:11:14.072587 31265 net.cpp:156] Memory required for data: 954332448
I0403 15:11:14.072604 31265 layer_factory.hpp:77] Creating layer inception_4b/relu_3x3_reduce
I0403 15:11:14.072625 31265 net.cpp:91] Creating Layer inception_4b/relu_3x3_reduce
I0403 15:11:14.072643 31265 net.cpp:425] inception_4b/relu_3x3_reduce <- inception_4b/3x3_reduce
I0403 15:11:14.072661 31265 net.cpp:386] inception_4b/relu_3x3_reduce -> inception_4b/3x3_reduce (in-place)
I0403 15:11:14.072944 31265 net.cpp:141] Setting up inception_4b/relu_3x3_reduce
I0403 15:11:14.072971 31265 net.cpp:148] Top shape: 24 112 14 14 (526848)
I0403 15:11:14.072986 31265 net.cpp:156] Memory required for data: 956439840
I0403 15:11:14.073001 31265 layer_factory.hpp:77] Creating layer inception_4b/3x3
I0403 15:11:14.073025 31265 net.cpp:91] Creating Layer inception_4b/3x3
I0403 15:11:14.073043 31265 net.cpp:425] inception_4b/3x3 <- inception_4b/3x3_reduce
I0403 15:11:14.073065 31265 net.cpp:399] inception_4b/3x3 -> inception_4b/3x3
I0403 15:11:14.076041 31265 net.cpp:141] Setting up inception_4b/3x3
I0403 15:11:14.076076 31265 net.cpp:148] Top shape: 24 224 14 14 (1053696)
I0403 15:11:14.076094 31265 net.cpp:156] Memory required for data: 960654624
I0403 15:11:14.076113 31265 layer_factory.hpp:77] Creating layer inception_4b/relu_3x3
I0403 15:11:14.076133 31265 net.cpp:91] Creating Layer inception_4b/relu_3x3
I0403 15:11:14.076151 31265 net.cpp:425] inception_4b/relu_3x3 <- inception_4b/3x3
I0403 15:11:14.076171 31265 net.cpp:386] inception_4b/relu_3x3 -> inception_4b/3x3 (in-place)
I0403 15:11:14.076372 31265 net.cpp:141] Setting up inception_4b/relu_3x3
I0403 15:11:14.076398 31265 net.cpp:148] Top shape: 24 224 14 14 (1053696)
I0403 15:11:14.076416 31265 net.cpp:156] Memory required for data: 964869408
I0403 15:11:14.076431 31265 layer_factory.hpp:77] Creating layer inception_4b/5x5_reduce
I0403 15:11:14.076457 31265 net.cpp:91] Creating Layer inception_4b/5x5_reduce
I0403 15:11:14.076474 31265 net.cpp:425] inception_4b/5x5_reduce <- inception_4a/output_inception_4a/output_0_split_3
I0403 15:11:14.076498 31265 net.cpp:399] inception_4b/5x5_reduce -> inception_4b/5x5_reduce
I0403 15:11:14.077594 31265 net.cpp:141] Setting up inception_4b/5x5_reduce
I0403 15:11:14.077621 31265 net.cpp:148] Top shape: 24 24 14 14 (112896)
I0403 15:11:14.077638 31265 net.cpp:156] Memory required for data: 965320992
I0403 15:11:14.077656 31265 layer_factory.hpp:77] Creating layer inception_4b/relu_5x5_reduce
I0403 15:11:14.077677 31265 net.cpp:91] Creating Layer inception_4b/relu_5x5_reduce
I0403 15:11:14.077710 31265 net.cpp:425] inception_4b/relu_5x5_reduce <- inception_4b/5x5_reduce
I0403 15:11:14.077729 31265 net.cpp:386] inception_4b/relu_5x5_reduce -> inception_4b/5x5_reduce (in-place)
I0403 15:11:14.077913 31265 net.cpp:141] Setting up inception_4b/relu_5x5_reduce
I0403 15:11:14.077937 31265 net.cpp:148] Top shape: 24 24 14 14 (112896)
I0403 15:11:14.077952 31265 net.cpp:156] Memory required for data: 965772576
I0403 15:11:14.077967 31265 layer_factory.hpp:77] Creating layer inception_4b/5x5
I0403 15:11:14.077992 31265 net.cpp:91] Creating Layer inception_4b/5x5
I0403 15:11:14.078011 31265 net.cpp:425] inception_4b/5x5 <- inception_4b/5x5_reduce
I0403 15:11:14.078032 31265 net.cpp:399] inception_4b/5x5 -> inception_4b/5x5
I0403 15:11:14.079267 31265 net.cpp:141] Setting up inception_4b/5x5
I0403 15:11:14.079295 31265 net.cpp:148] Top shape: 24 64 14 14 (301056)
I0403 15:11:14.079311 31265 net.cpp:156] Memory required for data: 966976800
I0403 15:11:14.079336 31265 layer_factory.hpp:77] Creating layer inception_4b/relu_5x5
I0403 15:11:14.079355 31265 net.cpp:91] Creating Layer inception_4b/relu_5x5
I0403 15:11:14.079372 31265 net.cpp:425] inception_4b/relu_5x5 <- inception_4b/5x5
I0403 15:11:14.079393 31265 net.cpp:386] inception_4b/relu_5x5 -> inception_4b/5x5 (in-place)
I0403 15:11:14.079680 31265 net.cpp:141] Setting up inception_4b/relu_5x5
I0403 15:11:14.079709 31265 net.cpp:148] Top shape: 24 64 14 14 (301056)
I0403 15:11:14.079725 31265 net.cpp:156] Memory required for data: 968181024
I0403 15:11:14.079741 31265 layer_factory.hpp:77] Creating layer inception_4b/pool
I0403 15:11:14.079758 31265 net.cpp:91] Creating Layer inception_4b/pool
I0403 15:11:14.079776 31265 net.cpp:425] inception_4b/pool <- inception_4a/output_inception_4a/output_0_split_4
I0403 15:11:14.079798 31265 net.cpp:399] inception_4b/pool -> inception_4b/pool
I0403 15:11:14.079864 31265 net.cpp:141] Setting up inception_4b/pool
I0403 15:11:14.079890 31265 net.cpp:148] Top shape: 24 512 14 14 (2408448)
I0403 15:11:14.079905 31265 net.cpp:156] Memory required for data: 977814816
I0403 15:11:14.079921 31265 layer_factory.hpp:77] Creating layer inception_4b/pool_proj
I0403 15:11:14.079943 31265 net.cpp:91] Creating Layer inception_4b/pool_proj
I0403 15:11:14.079962 31265 net.cpp:425] inception_4b/pool_proj <- inception_4b/pool
I0403 15:11:14.079982 31265 net.cpp:399] inception_4b/pool_proj -> inception_4b/pool_proj
I0403 15:11:14.081185 31265 net.cpp:141] Setting up inception_4b/pool_proj
I0403 15:11:14.081213 31265 net.cpp:148] Top shape: 24 64 14 14 (301056)
I0403 15:11:14.081229 31265 net.cpp:156] Memory required for data: 979019040
I0403 15:11:14.081249 31265 layer_factory.hpp:77] Creating layer inception_4b/relu_pool_proj
I0403 15:11:14.081269 31265 net.cpp:91] Creating Layer inception_4b/relu_pool_proj
I0403 15:11:14.081287 31265 net.cpp:425] inception_4b/relu_pool_proj <- inception_4b/pool_proj
I0403 15:11:14.081305 31265 net.cpp:386] inception_4b/relu_pool_proj -> inception_4b/pool_proj (in-place)
I0403 15:11:14.081490 31265 net.cpp:141] Setting up inception_4b/relu_pool_proj
I0403 15:11:14.081517 31265 net.cpp:148] Top shape: 24 64 14 14 (301056)
I0403 15:11:14.081533 31265 net.cpp:156] Memory required for data: 980223264
I0403 15:11:14.081550 31265 layer_factory.hpp:77] Creating layer inception_4b/output
I0403 15:11:14.081568 31265 net.cpp:91] Creating Layer inception_4b/output
I0403 15:11:14.081583 31265 net.cpp:425] inception_4b/output <- inception_4b/1x1
I0403 15:11:14.081600 31265 net.cpp:425] inception_4b/output <- inception_4b/3x3
I0403 15:11:14.081616 31265 net.cpp:425] inception_4b/output <- inception_4b/5x5
I0403 15:11:14.081634 31265 net.cpp:425] inception_4b/output <- inception_4b/pool_proj
I0403 15:11:14.081650 31265 net.cpp:399] inception_4b/output -> inception_4b/output
I0403 15:11:14.081699 31265 net.cpp:141] Setting up inception_4b/output
I0403 15:11:14.081723 31265 net.cpp:148] Top shape: 24 512 14 14 (2408448)
I0403 15:11:14.081738 31265 net.cpp:156] Memory required for data: 989857056
I0403 15:11:14.081768 31265 layer_factory.hpp:77] Creating layer inception_4b/output_inception_4b/output_0_split
I0403 15:11:14.081786 31265 net.cpp:91] Creating Layer inception_4b/output_inception_4b/output_0_split
I0403 15:11:14.081806 31265 net.cpp:425] inception_4b/output_inception_4b/output_0_split <- inception_4b/output
I0403 15:11:14.081825 31265 net.cpp:399] inception_4b/output_inception_4b/output_0_split -> inception_4b/output_inception_4b/output_0_split_0
I0403 15:11:14.081845 31265 net.cpp:399] inception_4b/output_inception_4b/output_0_split -> inception_4b/output_inception_4b/output_0_split_1
I0403 15:11:14.081866 31265 net.cpp:399] inception_4b/output_inception_4b/output_0_split -> inception_4b/output_inception_4b/output_0_split_2
I0403 15:11:14.081886 31265 net.cpp:399] inception_4b/output_inception_4b/output_0_split -> inception_4b/output_inception_4b/output_0_split_3
I0403 15:11:14.081971 31265 net.cpp:141] Setting up inception_4b/output_inception_4b/output_0_split
I0403 15:11:14.081995 31265 net.cpp:148] Top shape: 24 512 14 14 (2408448)
I0403 15:11:14.082012 31265 net.cpp:148] Top shape: 24 512 14 14 (2408448)
I0403 15:11:14.082029 31265 net.cpp:148] Top shape: 24 512 14 14 (2408448)
I0403 15:11:14.082044 31265 net.cpp:148] Top shape: 24 512 14 14 (2408448)
I0403 15:11:14.082058 31265 net.cpp:156] Memory required for data: 1028392224
I0403 15:11:14.082073 31265 layer_factory.hpp:77] Creating layer inception_4c/1x1
I0403 15:11:14.082108 31265 net.cpp:91] Creating Layer inception_4c/1x1
I0403 15:11:14.082128 31265 net.cpp:425] inception_4c/1x1 <- inception_4b/output_inception_4b/output_0_split_0
I0403 15:11:14.082149 31265 net.cpp:399] inception_4c/1x1 -> inception_4c/1x1
I0403 15:11:14.083621 31265 net.cpp:141] Setting up inception_4c/1x1
I0403 15:11:14.083667 31265 net.cpp:148] Top shape: 24 128 14 14 (602112)
I0403 15:11:14.083684 31265 net.cpp:156] Memory required for data: 1030800672
I0403 15:11:14.083704 31265 layer_factory.hpp:77] Creating layer inception_4c/relu_1x1
I0403 15:11:14.083722 31265 net.cpp:91] Creating Layer inception_4c/relu_1x1
I0403 15:11:14.083737 31265 net.cpp:425] inception_4c/relu_1x1 <- inception_4c/1x1
I0403 15:11:14.083755 31265 net.cpp:386] inception_4c/relu_1x1 -> inception_4c/1x1 (in-place)
I0403 15:11:14.083935 31265 net.cpp:141] Setting up inception_4c/relu_1x1
I0403 15:11:14.083961 31265 net.cpp:148] Top shape: 24 128 14 14 (602112)
I0403 15:11:14.083976 31265 net.cpp:156] Memory required for data: 1033209120
I0403 15:11:14.083992 31265 layer_factory.hpp:77] Creating layer inception_4c/3x3_reduce
I0403 15:11:14.084015 31265 net.cpp:91] Creating Layer inception_4c/3x3_reduce
I0403 15:11:14.084033 31265 net.cpp:425] inception_4c/3x3_reduce <- inception_4b/output_inception_4b/output_0_split_1
I0403 15:11:14.084056 31265 net.cpp:399] inception_4c/3x3_reduce -> inception_4c/3x3_reduce
I0403 15:11:14.086009 31265 net.cpp:141] Setting up inception_4c/3x3_reduce
I0403 15:11:14.086037 31265 net.cpp:148] Top shape: 24 128 14 14 (602112)
I0403 15:11:14.086055 31265 net.cpp:156] Memory required for data: 1035617568
I0403 15:11:14.086073 31265 layer_factory.hpp:77] Creating layer inception_4c/relu_3x3_reduce
I0403 15:11:14.086093 31265 net.cpp:91] Creating Layer inception_4c/relu_3x3_reduce
I0403 15:11:14.086112 31265 net.cpp:425] inception_4c/relu_3x3_reduce <- inception_4c/3x3_reduce
I0403 15:11:14.086129 31265 net.cpp:386] inception_4c/relu_3x3_reduce -> inception_4c/3x3_reduce (in-place)
I0403 15:11:14.086410 31265 net.cpp:141] Setting up inception_4c/relu_3x3_reduce
I0403 15:11:14.086436 31265 net.cpp:148] Top shape: 24 128 14 14 (602112)
I0403 15:11:14.086452 31265 net.cpp:156] Memory required for data: 1038026016
I0403 15:11:14.086467 31265 layer_factory.hpp:77] Creating layer inception_4c/3x3
I0403 15:11:14.086489 31265 net.cpp:91] Creating Layer inception_4c/3x3
I0403 15:11:14.086508 31265 net.cpp:425] inception_4c/3x3 <- inception_4c/3x3_reduce
I0403 15:11:14.086531 31265 net.cpp:399] inception_4c/3x3 -> inception_4c/3x3
I0403 15:11:14.090020 31265 net.cpp:141] Setting up inception_4c/3x3
I0403 15:11:14.090060 31265 net.cpp:148] Top shape: 24 256 14 14 (1204224)
I0403 15:11:14.090077 31265 net.cpp:156] Memory required for data: 1042842912
I0403 15:11:14.090111 31265 layer_factory.hpp:77] Creating layer inception_4c/relu_3x3
I0403 15:11:14.090132 31265 net.cpp:91] Creating Layer inception_4c/relu_3x3
I0403 15:11:14.090149 31265 net.cpp:425] inception_4c/relu_3x3 <- inception_4c/3x3
I0403 15:11:14.090167 31265 net.cpp:386] inception_4c/relu_3x3 -> inception_4c/3x3 (in-place)
I0403 15:11:14.090350 31265 net.cpp:141] Setting up inception_4c/relu_3x3
I0403 15:11:14.090376 31265 net.cpp:148] Top shape: 24 256 14 14 (1204224)
I0403 15:11:14.090392 31265 net.cpp:156] Memory required for data: 1047659808
I0403 15:11:14.090409 31265 layer_factory.hpp:77] Creating layer inception_4c/5x5_reduce
I0403 15:11:14.090430 31265 net.cpp:91] Creating Layer inception_4c/5x5_reduce
I0403 15:11:14.090454 31265 net.cpp:425] inception_4c/5x5_reduce <- inception_4b/output_inception_4b/output_0_split_2
I0403 15:11:14.090476 31265 net.cpp:399] inception_4c/5x5_reduce -> inception_4c/5x5_reduce
I0403 15:11:14.091542 31265 net.cpp:141] Setting up inception_4c/5x5_reduce
I0403 15:11:14.091569 31265 net.cpp:148] Top shape: 24 24 14 14 (112896)
I0403 15:11:14.091585 31265 net.cpp:156] Memory required for data: 1048111392
I0403 15:11:14.091604 31265 layer_factory.hpp:77] Creating layer inception_4c/relu_5x5_reduce
I0403 15:11:14.091624 31265 net.cpp:91] Creating Layer inception_4c/relu_5x5_reduce
I0403 15:11:14.091642 31265 net.cpp:425] inception_4c/relu_5x5_reduce <- inception_4c/5x5_reduce
I0403 15:11:14.091660 31265 net.cpp:386] inception_4c/relu_5x5_reduce -> inception_4c/5x5_reduce (in-place)
I0403 15:11:14.091837 31265 net.cpp:141] Setting up inception_4c/relu_5x5_reduce
I0403 15:11:14.091863 31265 net.cpp:148] Top shape: 24 24 14 14 (112896)
I0403 15:11:14.091878 31265 net.cpp:156] Memory required for data: 1048562976
I0403 15:11:14.091893 31265 layer_factory.hpp:77] Creating layer inception_4c/5x5
I0403 15:11:14.091915 31265 net.cpp:91] Creating Layer inception_4c/5x5
I0403 15:11:14.091934 31265 net.cpp:425] inception_4c/5x5 <- inception_4c/5x5_reduce
I0403 15:11:14.091953 31265 net.cpp:399] inception_4c/5x5 -> inception_4c/5x5
I0403 15:11:14.093159 31265 net.cpp:141] Setting up inception_4c/5x5
I0403 15:11:14.093189 31265 net.cpp:148] Top shape: 24 64 14 14 (301056)
I0403 15:11:14.093206 31265 net.cpp:156] Memory required for data: 1049767200
I0403 15:11:14.093225 31265 layer_factory.hpp:77] Creating layer inception_4c/relu_5x5
I0403 15:11:14.093241 31265 net.cpp:91] Creating Layer inception_4c/relu_5x5
I0403 15:11:14.093258 31265 net.cpp:425] inception_4c/relu_5x5 <- inception_4c/5x5
I0403 15:11:14.093276 31265 net.cpp:386] inception_4c/relu_5x5 -> inception_4c/5x5 (in-place)
I0403 15:11:14.093564 31265 net.cpp:141] Setting up inception_4c/relu_5x5
I0403 15:11:14.093595 31265 net.cpp:148] Top shape: 24 64 14 14 (301056)
I0403 15:11:14.093612 31265 net.cpp:156] Memory required for data: 1050971424
I0403 15:11:14.093627 31265 layer_factory.hpp:77] Creating layer inception_4c/pool
I0403 15:11:14.093646 31265 net.cpp:91] Creating Layer inception_4c/pool
I0403 15:11:14.093662 31265 net.cpp:425] inception_4c/pool <- inception_4b/output_inception_4b/output_0_split_3
I0403 15:11:14.093682 31265 net.cpp:399] inception_4c/pool -> inception_4c/pool
I0403 15:11:14.093749 31265 net.cpp:141] Setting up inception_4c/pool
I0403 15:11:14.093772 31265 net.cpp:148] Top shape: 24 512 14 14 (2408448)
I0403 15:11:14.093787 31265 net.cpp:156] Memory required for data: 1060605216
I0403 15:11:14.093801 31265 layer_factory.hpp:77] Creating layer inception_4c/pool_proj
I0403 15:11:14.093824 31265 net.cpp:91] Creating Layer inception_4c/pool_proj
I0403 15:11:14.093842 31265 net.cpp:425] inception_4c/pool_proj <- inception_4c/pool
I0403 15:11:14.093864 31265 net.cpp:399] inception_4c/pool_proj -> inception_4c/pool_proj
I0403 15:11:14.095091 31265 net.cpp:141] Setting up inception_4c/pool_proj
I0403 15:11:14.095119 31265 net.cpp:148] Top shape: 24 64 14 14 (301056)
I0403 15:11:14.095149 31265 net.cpp:156] Memory required for data: 1061809440
I0403 15:11:14.095168 31265 layer_factory.hpp:77] Creating layer inception_4c/relu_pool_proj
I0403 15:11:14.095191 31265 net.cpp:91] Creating Layer inception_4c/relu_pool_proj
I0403 15:11:14.095211 31265 net.cpp:425] inception_4c/relu_pool_proj <- inception_4c/pool_proj
I0403 15:11:14.095227 31265 net.cpp:386] inception_4c/relu_pool_proj -> inception_4c/pool_proj (in-place)
I0403 15:11:14.095409 31265 net.cpp:141] Setting up inception_4c/relu_pool_proj
I0403 15:11:14.095437 31265 net.cpp:148] Top shape: 24 64 14 14 (301056)
I0403 15:11:14.095453 31265 net.cpp:156] Memory required for data: 1063013664
I0403 15:11:14.095468 31265 layer_factory.hpp:77] Creating layer inception_4c/output
I0403 15:11:14.095485 31265 net.cpp:91] Creating Layer inception_4c/output
I0403 15:11:14.095500 31265 net.cpp:425] inception_4c/output <- inception_4c/1x1
I0403 15:11:14.095517 31265 net.cpp:425] inception_4c/output <- inception_4c/3x3
I0403 15:11:14.095532 31265 net.cpp:425] inception_4c/output <- inception_4c/5x5
I0403 15:11:14.095549 31265 net.cpp:425] inception_4c/output <- inception_4c/pool_proj
I0403 15:11:14.095567 31265 net.cpp:399] inception_4c/output -> inception_4c/output
I0403 15:11:14.095615 31265 net.cpp:141] Setting up inception_4c/output
I0403 15:11:14.095639 31265 net.cpp:148] Top shape: 24 512 14 14 (2408448)
I0403 15:11:14.095654 31265 net.cpp:156] Memory required for data: 1072647456
I0403 15:11:14.095669 31265 layer_factory.hpp:77] Creating layer inception_4c/output_inception_4c/output_0_split
I0403 15:11:14.095685 31265 net.cpp:91] Creating Layer inception_4c/output_inception_4c/output_0_split
I0403 15:11:14.095700 31265 net.cpp:425] inception_4c/output_inception_4c/output_0_split <- inception_4c/output
I0403 15:11:14.095721 31265 net.cpp:399] inception_4c/output_inception_4c/output_0_split -> inception_4c/output_inception_4c/output_0_split_0
I0403 15:11:14.095743 31265 net.cpp:399] inception_4c/output_inception_4c/output_0_split -> inception_4c/output_inception_4c/output_0_split_1
I0403 15:11:14.095763 31265 net.cpp:399] inception_4c/output_inception_4c/output_0_split -> inception_4c/output_inception_4c/output_0_split_2
I0403 15:11:14.095783 31265 net.cpp:399] inception_4c/output_inception_4c/output_0_split -> inception_4c/output_inception_4c/output_0_split_3
I0403 15:11:14.095867 31265 net.cpp:141] Setting up inception_4c/output_inception_4c/output_0_split
I0403 15:11:14.095890 31265 net.cpp:148] Top shape: 24 512 14 14 (2408448)
I0403 15:11:14.095907 31265 net.cpp:148] Top shape: 24 512 14 14 (2408448)
I0403 15:11:14.095923 31265 net.cpp:148] Top shape: 24 512 14 14 (2408448)
I0403 15:11:14.095939 31265 net.cpp:148] Top shape: 24 512 14 14 (2408448)
I0403 15:11:14.095952 31265 net.cpp:156] Memory required for data: 1111182624
I0403 15:11:14.095966 31265 layer_factory.hpp:77] Creating layer inception_4d/1x1
I0403 15:11:14.095988 31265 net.cpp:91] Creating Layer inception_4d/1x1
I0403 15:11:14.096005 31265 net.cpp:425] inception_4d/1x1 <- inception_4c/output_inception_4c/output_0_split_0
I0403 15:11:14.096026 31265 net.cpp:399] inception_4d/1x1 -> inception_4d/1x1
I0403 15:11:14.097384 31265 net.cpp:141] Setting up inception_4d/1x1
I0403 15:11:14.097412 31265 net.cpp:148] Top shape: 24 112 14 14 (526848)
I0403 15:11:14.097429 31265 net.cpp:156] Memory required for data: 1113290016
I0403 15:11:14.097447 31265 layer_factory.hpp:77] Creating layer inception_4d/relu_1x1
I0403 15:11:14.097465 31265 net.cpp:91] Creating Layer inception_4d/relu_1x1
I0403 15:11:14.097482 31265 net.cpp:425] inception_4d/relu_1x1 <- inception_4d/1x1
I0403 15:11:14.097502 31265 net.cpp:386] inception_4d/relu_1x1 -> inception_4d/1x1 (in-place)
I0403 15:11:14.097682 31265 net.cpp:141] Setting up inception_4d/relu_1x1
I0403 15:11:14.097707 31265 net.cpp:148] Top shape: 24 112 14 14 (526848)
I0403 15:11:14.097723 31265 net.cpp:156] Memory required for data: 1115397408
I0403 15:11:14.097738 31265 layer_factory.hpp:77] Creating layer inception_4d/3x3_reduce
I0403 15:11:14.097776 31265 net.cpp:91] Creating Layer inception_4d/3x3_reduce
I0403 15:11:14.097796 31265 net.cpp:425] inception_4d/3x3_reduce <- inception_4c/output_inception_4c/output_0_split_1
I0403 15:11:14.097817 31265 net.cpp:399] inception_4d/3x3_reduce -> inception_4d/3x3_reduce
I0403 15:11:14.099303 31265 net.cpp:141] Setting up inception_4d/3x3_reduce
I0403 15:11:14.099336 31265 net.cpp:148] Top shape: 24 144 14 14 (677376)
I0403 15:11:14.099354 31265 net.cpp:156] Memory required for data: 1118106912
I0403 15:11:14.099372 31265 layer_factory.hpp:77] Creating layer inception_4d/relu_3x3_reduce
I0403 15:11:14.099395 31265 net.cpp:91] Creating Layer inception_4d/relu_3x3_reduce
I0403 15:11:14.099413 31265 net.cpp:425] inception_4d/relu_3x3_reduce <- inception_4d/3x3_reduce
I0403 15:11:14.099431 31265 net.cpp:386] inception_4d/relu_3x3_reduce -> inception_4d/3x3_reduce (in-place)
I0403 15:11:14.099733 31265 net.cpp:141] Setting up inception_4d/relu_3x3_reduce
I0403 15:11:14.099761 31265 net.cpp:148] Top shape: 24 144 14 14 (677376)
I0403 15:11:14.099776 31265 net.cpp:156] Memory required for data: 1120816416
I0403 15:11:14.099791 31265 layer_factory.hpp:77] Creating layer inception_4d/3x3
I0403 15:11:14.099814 31265 net.cpp:91] Creating Layer inception_4d/3x3
I0403 15:11:14.099833 31265 net.cpp:425] inception_4d/3x3 <- inception_4d/3x3_reduce
I0403 15:11:14.099851 31265 net.cpp:399] inception_4d/3x3 -> inception_4d/3x3
I0403 15:11:14.104077 31265 net.cpp:141] Setting up inception_4d/3x3
I0403 15:11:14.104110 31265 net.cpp:148] Top shape: 24 288 14 14 (1354752)
I0403 15:11:14.104126 31265 net.cpp:156] Memory required for data: 1126235424
I0403 15:11:14.104146 31265 layer_factory.hpp:77] Creating layer inception_4d/relu_3x3
I0403 15:11:14.104163 31265 net.cpp:91] Creating Layer inception_4d/relu_3x3
I0403 15:11:14.104178 31265 net.cpp:425] inception_4d/relu_3x3 <- inception_4d/3x3
I0403 15:11:14.104197 31265 net.cpp:386] inception_4d/relu_3x3 -> inception_4d/3x3 (in-place)
I0403 15:11:14.104382 31265 net.cpp:141] Setting up inception_4d/relu_3x3
I0403 15:11:14.104406 31265 net.cpp:148] Top shape: 24 288 14 14 (1354752)
I0403 15:11:14.104423 31265 net.cpp:156] Memory required for data: 1131654432
I0403 15:11:14.104439 31265 layer_factory.hpp:77] Creating layer inception_4d/5x5_reduce
I0403 15:11:14.104460 31265 net.cpp:91] Creating Layer inception_4d/5x5_reduce
I0403 15:11:14.104476 31265 net.cpp:425] inception_4d/5x5_reduce <- inception_4c/output_inception_4c/output_0_split_2
I0403 15:11:14.104497 31265 net.cpp:399] inception_4d/5x5_reduce -> inception_4d/5x5_reduce
I0403 15:11:14.105612 31265 net.cpp:141] Setting up inception_4d/5x5_reduce
I0403 15:11:14.105641 31265 net.cpp:148] Top shape: 24 32 14 14 (150528)
I0403 15:11:14.105656 31265 net.cpp:156] Memory required for data: 1132256544
I0403 15:11:14.105675 31265 layer_factory.hpp:77] Creating layer inception_4d/relu_5x5_reduce
I0403 15:11:14.105693 31265 net.cpp:91] Creating Layer inception_4d/relu_5x5_reduce
I0403 15:11:14.105710 31265 net.cpp:425] inception_4d/relu_5x5_reduce <- inception_4d/5x5_reduce
I0403 15:11:14.105731 31265 net.cpp:386] inception_4d/relu_5x5_reduce -> inception_4d/5x5_reduce (in-place)
I0403 15:11:14.105913 31265 net.cpp:141] Setting up inception_4d/relu_5x5_reduce
I0403 15:11:14.105938 31265 net.cpp:148] Top shape: 24 32 14 14 (150528)
I0403 15:11:14.105953 31265 net.cpp:156] Memory required for data: 1132858656
I0403 15:11:14.105967 31265 layer_factory.hpp:77] Creating layer inception_4d/5x5
I0403 15:11:14.105988 31265 net.cpp:91] Creating Layer inception_4d/5x5
I0403 15:11:14.106006 31265 net.cpp:425] inception_4d/5x5 <- inception_4d/5x5_reduce
I0403 15:11:14.106027 31265 net.cpp:399] inception_4d/5x5 -> inception_4d/5x5
I0403 15:11:14.107458 31265 net.cpp:141] Setting up inception_4d/5x5
I0403 15:11:14.107486 31265 net.cpp:148] Top shape: 24 64 14 14 (301056)
I0403 15:11:14.107501 31265 net.cpp:156] Memory required for data: 1134062880
I0403 15:11:14.107522 31265 layer_factory.hpp:77] Creating layer inception_4d/relu_5x5
I0403 15:11:14.107558 31265 net.cpp:91] Creating Layer inception_4d/relu_5x5
I0403 15:11:14.107578 31265 net.cpp:425] inception_4d/relu_5x5 <- inception_4d/5x5
I0403 15:11:14.107596 31265 net.cpp:386] inception_4d/relu_5x5 -> inception_4d/5x5 (in-place)
I0403 15:11:14.107888 31265 net.cpp:141] Setting up inception_4d/relu_5x5
I0403 15:11:14.107914 31265 net.cpp:148] Top shape: 24 64 14 14 (301056)
I0403 15:11:14.107929 31265 net.cpp:156] Memory required for data: 1135267104
I0403 15:11:14.107945 31265 layer_factory.hpp:77] Creating layer inception_4d/pool
I0403 15:11:14.107964 31265 net.cpp:91] Creating Layer inception_4d/pool
I0403 15:11:14.107982 31265 net.cpp:425] inception_4d/pool <- inception_4c/output_inception_4c/output_0_split_3
I0403 15:11:14.108000 31265 net.cpp:399] inception_4d/pool -> inception_4d/pool
I0403 15:11:14.108067 31265 net.cpp:141] Setting up inception_4d/pool
I0403 15:11:14.108090 31265 net.cpp:148] Top shape: 24 512 14 14 (2408448)
I0403 15:11:14.108105 31265 net.cpp:156] Memory required for data: 1144900896
I0403 15:11:14.108120 31265 layer_factory.hpp:77] Creating layer inception_4d/pool_proj
I0403 15:11:14.108144 31265 net.cpp:91] Creating Layer inception_4d/pool_proj
I0403 15:11:14.108162 31265 net.cpp:425] inception_4d/pool_proj <- inception_4d/pool
I0403 15:11:14.108182 31265 net.cpp:399] inception_4d/pool_proj -> inception_4d/pool_proj
I0403 15:11:14.109931 31265 net.cpp:141] Setting up inception_4d/pool_proj
I0403 15:11:14.109961 31265 net.cpp:148] Top shape: 24 64 14 14 (301056)
I0403 15:11:14.109977 31265 net.cpp:156] Memory required for data: 1146105120
I0403 15:11:14.109995 31265 layer_factory.hpp:77] Creating layer inception_4d/relu_pool_proj
I0403 15:11:14.110013 31265 net.cpp:91] Creating Layer inception_4d/relu_pool_proj
I0403 15:11:14.110030 31265 net.cpp:425] inception_4d/relu_pool_proj <- inception_4d/pool_proj
I0403 15:11:14.110050 31265 net.cpp:386] inception_4d/relu_pool_proj -> inception_4d/pool_proj (in-place)
I0403 15:11:14.110231 31265 net.cpp:141] Setting up inception_4d/relu_pool_proj
I0403 15:11:14.110256 31265 net.cpp:148] Top shape: 24 64 14 14 (301056)
I0403 15:11:14.110270 31265 net.cpp:156] Memory required for data: 1147309344
I0403 15:11:14.110285 31265 layer_factory.hpp:77] Creating layer inception_4d/output
I0403 15:11:14.110302 31265 net.cpp:91] Creating Layer inception_4d/output
I0403 15:11:14.110321 31265 net.cpp:425] inception_4d/output <- inception_4d/1x1
I0403 15:11:14.110337 31265 net.cpp:425] inception_4d/output <- inception_4d/3x3
I0403 15:11:14.110354 31265 net.cpp:425] inception_4d/output <- inception_4d/5x5
I0403 15:11:14.110371 31265 net.cpp:425] inception_4d/output <- inception_4d/pool_proj
I0403 15:11:14.110390 31265 net.cpp:399] inception_4d/output -> inception_4d/output
I0403 15:11:14.110440 31265 net.cpp:141] Setting up inception_4d/output
I0403 15:11:14.110465 31265 net.cpp:148] Top shape: 24 528 14 14 (2483712)
I0403 15:11:14.110478 31265 net.cpp:156] Memory required for data: 1157244192
I0403 15:11:14.110493 31265 layer_factory.hpp:77] Creating layer inception_4d/output_inception_4d/output_0_split
I0403 15:11:14.110510 31265 net.cpp:91] Creating Layer inception_4d/output_inception_4d/output_0_split
I0403 15:11:14.110527 31265 net.cpp:425] inception_4d/output_inception_4d/output_0_split <- inception_4d/output
I0403 15:11:14.110548 31265 net.cpp:399] inception_4d/output_inception_4d/output_0_split -> inception_4d/output_inception_4d/output_0_split_0
I0403 15:11:14.110570 31265 net.cpp:399] inception_4d/output_inception_4d/output_0_split -> inception_4d/output_inception_4d/output_0_split_1
I0403 15:11:14.110591 31265 net.cpp:399] inception_4d/output_inception_4d/output_0_split -> inception_4d/output_inception_4d/output_0_split_2
I0403 15:11:14.110612 31265 net.cpp:399] inception_4d/output_inception_4d/output_0_split -> inception_4d/output_inception_4d/output_0_split_3
I0403 15:11:14.110632 31265 net.cpp:399] inception_4d/output_inception_4d/output_0_split -> inception_4d/output_inception_4d/output_0_split_4
I0403 15:11:14.110733 31265 net.cpp:141] Setting up inception_4d/output_inception_4d/output_0_split
I0403 15:11:14.110769 31265 net.cpp:148] Top shape: 24 528 14 14 (2483712)
I0403 15:11:14.110786 31265 net.cpp:148] Top shape: 24 528 14 14 (2483712)
I0403 15:11:14.110802 31265 net.cpp:148] Top shape: 24 528 14 14 (2483712)
I0403 15:11:14.110817 31265 net.cpp:148] Top shape: 24 528 14 14 (2483712)
I0403 15:11:14.110833 31265 net.cpp:148] Top shape: 24 528 14 14 (2483712)
I0403 15:11:14.110847 31265 net.cpp:156] Memory required for data: 1206918432
I0403 15:11:14.110862 31265 layer_factory.hpp:77] Creating layer loss2/ave_pool
I0403 15:11:14.110879 31265 net.cpp:91] Creating Layer loss2/ave_pool
I0403 15:11:14.110893 31265 net.cpp:425] loss2/ave_pool <- inception_4d/output_inception_4d/output_0_split_0
I0403 15:11:14.110913 31265 net.cpp:399] loss2/ave_pool -> loss2/ave_pool
I0403 15:11:14.111225 31265 net.cpp:141] Setting up loss2/ave_pool
I0403 15:11:14.111251 31265 net.cpp:148] Top shape: 24 528 4 4 (202752)
I0403 15:11:14.111266 31265 net.cpp:156] Memory required for data: 1207729440
I0403 15:11:14.111282 31265 layer_factory.hpp:77] Creating layer loss2/conv
I0403 15:11:14.111306 31265 net.cpp:91] Creating Layer loss2/conv
I0403 15:11:14.111328 31265 net.cpp:425] loss2/conv <- loss2/ave_pool
I0403 15:11:14.111351 31265 net.cpp:399] loss2/conv -> loss2/conv
I0403 15:11:14.113224 31265 net.cpp:141] Setting up loss2/conv
I0403 15:11:14.113255 31265 net.cpp:148] Top shape: 24 128 4 4 (49152)
I0403 15:11:14.113271 31265 net.cpp:156] Memory required for data: 1207926048
I0403 15:11:14.113291 31265 layer_factory.hpp:77] Creating layer loss2/relu_conv
I0403 15:11:14.113311 31265 net.cpp:91] Creating Layer loss2/relu_conv
I0403 15:11:14.113332 31265 net.cpp:425] loss2/relu_conv <- loss2/conv
I0403 15:11:14.113350 31265 net.cpp:386] loss2/relu_conv -> loss2/conv (in-place)
I0403 15:11:14.113631 31265 net.cpp:141] Setting up loss2/relu_conv
I0403 15:11:14.113657 31265 net.cpp:148] Top shape: 24 128 4 4 (49152)
I0403 15:11:14.113674 31265 net.cpp:156] Memory required for data: 1208122656
I0403 15:11:14.113690 31265 layer_factory.hpp:77] Creating layer loss2/fc
I0403 15:11:14.113711 31265 net.cpp:91] Creating Layer loss2/fc
I0403 15:11:14.113729 31265 net.cpp:425] loss2/fc <- loss2/conv
I0403 15:11:14.113750 31265 net.cpp:399] loss2/fc -> loss2/fc
I0403 15:11:14.131074 31265 net.cpp:141] Setting up loss2/fc
I0403 15:11:14.131108 31265 net.cpp:148] Top shape: 24 1024 (24576)
I0403 15:11:14.131124 31265 net.cpp:156] Memory required for data: 1208220960
I0403 15:11:14.131142 31265 layer_factory.hpp:77] Creating layer loss2/relu_fc
I0403 15:11:14.131160 31265 net.cpp:91] Creating Layer loss2/relu_fc
I0403 15:11:14.131177 31265 net.cpp:425] loss2/relu_fc <- loss2/fc
I0403 15:11:14.131198 31265 net.cpp:386] loss2/relu_fc -> loss2/fc (in-place)
I0403 15:11:14.131502 31265 net.cpp:141] Setting up loss2/relu_fc
I0403 15:11:14.131530 31265 net.cpp:148] Top shape: 24 1024 (24576)
I0403 15:11:14.131546 31265 net.cpp:156] Memory required for data: 1208319264
I0403 15:11:14.131561 31265 layer_factory.hpp:77] Creating layer loss2/drop_fc
I0403 15:11:14.131582 31265 net.cpp:91] Creating Layer loss2/drop_fc
I0403 15:11:14.131597 31265 net.cpp:425] loss2/drop_fc <- loss2/fc
I0403 15:11:14.131618 31265 net.cpp:386] loss2/drop_fc -> loss2/fc (in-place)
I0403 15:11:14.131667 31265 net.cpp:141] Setting up loss2/drop_fc
I0403 15:11:14.131693 31265 net.cpp:148] Top shape: 24 1024 (24576)
I0403 15:11:14.131710 31265 net.cpp:156] Memory required for data: 1208417568
I0403 15:11:14.131724 31265 layer_factory.hpp:77] Creating layer loss2/classifier_plantvillage
I0403 15:11:14.131742 31265 net.cpp:91] Creating Layer loss2/classifier_plantvillage
I0403 15:11:14.131758 31265 net.cpp:425] loss2/classifier_plantvillage <- loss2/fc
I0403 15:11:14.131780 31265 net.cpp:399] loss2/classifier_plantvillage -> loss2/classifier_plantvillage
I0403 15:11:14.132181 31265 net.cpp:141] Setting up loss2/classifier_plantvillage
I0403 15:11:14.132207 31265 net.cpp:148] Top shape: 24 38 (912)
I0403 15:11:14.132222 31265 net.cpp:156] Memory required for data: 1208421216
I0403 15:11:14.132258 31265 layer_factory.hpp:77] Creating layer loss2/classifier_plantvillage_loss2/classifier_plantvillage_0_split
I0403 15:11:14.132295 31265 net.cpp:91] Creating Layer loss2/classifier_plantvillage_loss2/classifier_plantvillage_0_split
I0403 15:11:14.132318 31265 net.cpp:425] loss2/classifier_plantvillage_loss2/classifier_plantvillage_0_split <- loss2/classifier_plantvillage
I0403 15:11:14.132339 31265 net.cpp:399] loss2/classifier_plantvillage_loss2/classifier_plantvillage_0_split -> loss2/classifier_plantvillage_loss2/classifier_plantvillage_0_split_0
I0403 15:11:14.132359 31265 net.cpp:399] loss2/classifier_plantvillage_loss2/classifier_plantvillage_0_split -> loss2/classifier_plantvillage_loss2/classifier_plantvillage_0_split_1
I0403 15:11:14.132385 31265 net.cpp:399] loss2/classifier_plantvillage_loss2/classifier_plantvillage_0_split -> loss2/classifier_plantvillage_loss2/classifier_plantvillage_0_split_2
I0403 15:11:14.132464 31265 net.cpp:141] Setting up loss2/classifier_plantvillage_loss2/classifier_plantvillage_0_split
I0403 15:11:14.132490 31265 net.cpp:148] Top shape: 24 38 (912)
I0403 15:11:14.132508 31265 net.cpp:148] Top shape: 24 38 (912)
I0403 15:11:14.132524 31265 net.cpp:148] Top shape: 24 38 (912)
I0403 15:11:14.132539 31265 net.cpp:156] Memory required for data: 1208432160
I0403 15:11:14.132565 31265 layer_factory.hpp:77] Creating layer inception_4e/1x1
I0403 15:11:14.132588 31265 net.cpp:91] Creating Layer inception_4e/1x1
I0403 15:11:14.132606 31265 net.cpp:425] inception_4e/1x1 <- inception_4d/output_inception_4d/output_0_split_1
I0403 15:11:14.132627 31265 net.cpp:399] inception_4e/1x1 -> inception_4e/1x1
I0403 15:11:14.134452 31265 net.cpp:141] Setting up inception_4e/1x1
I0403 15:11:14.134480 31265 net.cpp:148] Top shape: 24 256 14 14 (1204224)
I0403 15:11:14.134497 31265 net.cpp:156] Memory required for data: 1213249056
I0403 15:11:14.134516 31265 layer_factory.hpp:77] Creating layer inception_4e/relu_1x1
I0403 15:11:14.134538 31265 net.cpp:91] Creating Layer inception_4e/relu_1x1
I0403 15:11:14.134555 31265 net.cpp:425] inception_4e/relu_1x1 <- inception_4e/1x1
I0403 15:11:14.134575 31265 net.cpp:386] inception_4e/relu_1x1 -> inception_4e/1x1 (in-place)
I0403 15:11:14.134872 31265 net.cpp:141] Setting up inception_4e/relu_1x1
I0403 15:11:14.134898 31265 net.cpp:148] Top shape: 24 256 14 14 (1204224)
I0403 15:11:14.134914 31265 net.cpp:156] Memory required for data: 1218065952
I0403 15:11:14.134932 31265 layer_factory.hpp:77] Creating layer inception_4e/3x3_reduce
I0403 15:11:14.134955 31265 net.cpp:91] Creating Layer inception_4e/3x3_reduce
I0403 15:11:14.134974 31265 net.cpp:425] inception_4e/3x3_reduce <- inception_4d/output_inception_4d/output_0_split_2
I0403 15:11:14.134994 31265 net.cpp:399] inception_4e/3x3_reduce -> inception_4e/3x3_reduce
I0403 15:11:14.137193 31265 net.cpp:141] Setting up inception_4e/3x3_reduce
I0403 15:11:14.137245 31265 net.cpp:148] Top shape: 24 160 14 14 (752640)
I0403 15:11:14.137285 31265 net.cpp:156] Memory required for data: 1221076512
I0403 15:11:14.137334 31265 layer_factory.hpp:77] Creating layer inception_4e/relu_3x3_reduce
I0403 15:11:14.137372 31265 net.cpp:91] Creating Layer inception_4e/relu_3x3_reduce
I0403 15:11:14.137390 31265 net.cpp:425] inception_4e/relu_3x3_reduce <- inception_4e/3x3_reduce
I0403 15:11:14.137408 31265 net.cpp:386] inception_4e/relu_3x3_reduce -> inception_4e/3x3_reduce (in-place)
I0403 15:11:14.137601 31265 net.cpp:141] Setting up inception_4e/relu_3x3_reduce
I0403 15:11:14.137629 31265 net.cpp:148] Top shape: 24 160 14 14 (752640)
I0403 15:11:14.137646 31265 net.cpp:156] Memory required for data: 1224087072
I0403 15:11:14.137661 31265 layer_factory.hpp:77] Creating layer inception_4e/3x3
I0403 15:11:14.137683 31265 net.cpp:91] Creating Layer inception_4e/3x3
I0403 15:11:14.137701 31265 net.cpp:425] inception_4e/3x3 <- inception_4e/3x3_reduce
I0403 15:11:14.137720 31265 net.cpp:399] inception_4e/3x3 -> inception_4e/3x3
I0403 15:11:14.142765 31265 net.cpp:141] Setting up inception_4e/3x3
I0403 15:11:14.142810 31265 net.cpp:148] Top shape: 24 320 14 14 (1505280)
I0403 15:11:14.142828 31265 net.cpp:156] Memory required for data: 1230108192
I0403 15:11:14.142848 31265 layer_factory.hpp:77] Creating layer inception_4e/relu_3x3
I0403 15:11:14.142866 31265 net.cpp:91] Creating Layer inception_4e/relu_3x3
I0403 15:11:14.142884 31265 net.cpp:425] inception_4e/relu_3x3 <- inception_4e/3x3
I0403 15:11:14.142900 31265 net.cpp:386] inception_4e/relu_3x3 -> inception_4e/3x3 (in-place)
I0403 15:11:14.143203 31265 net.cpp:141] Setting up inception_4e/relu_3x3
I0403 15:11:14.143231 31265 net.cpp:148] Top shape: 24 320 14 14 (1505280)
I0403 15:11:14.143246 31265 net.cpp:156] Memory required for data: 1236129312
I0403 15:11:14.143262 31265 layer_factory.hpp:77] Creating layer inception_4e/5x5_reduce
I0403 15:11:14.143286 31265 net.cpp:91] Creating Layer inception_4e/5x5_reduce
I0403 15:11:14.143306 31265 net.cpp:425] inception_4e/5x5_reduce <- inception_4d/output_inception_4d/output_0_split_3
I0403 15:11:14.143333 31265 net.cpp:399] inception_4e/5x5_reduce -> inception_4e/5x5_reduce
I0403 15:11:14.144425 31265 net.cpp:141] Setting up inception_4e/5x5_reduce
I0403 15:11:14.144454 31265 net.cpp:148] Top shape: 24 32 14 14 (150528)
I0403 15:11:14.144470 31265 net.cpp:156] Memory required for data: 1236731424
I0403 15:11:14.144490 31265 layer_factory.hpp:77] Creating layer inception_4e/relu_5x5_reduce
I0403 15:11:14.144510 31265 net.cpp:91] Creating Layer inception_4e/relu_5x5_reduce
I0403 15:11:14.144528 31265 net.cpp:425] inception_4e/relu_5x5_reduce <- inception_4e/5x5_reduce
I0403 15:11:14.144546 31265 net.cpp:386] inception_4e/relu_5x5_reduce -> inception_4e/5x5_reduce (in-place)
I0403 15:11:14.144850 31265 net.cpp:141] Setting up inception_4e/relu_5x5_reduce
I0403 15:11:14.144877 31265 net.cpp:148] Top shape: 24 32 14 14 (150528)
I0403 15:11:14.144893 31265 net.cpp:156] Memory required for data: 1237333536
I0403 15:11:14.144909 31265 layer_factory.hpp:77] Creating layer inception_4e/5x5
I0403 15:11:14.144951 31265 net.cpp:91] Creating Layer inception_4e/5x5
I0403 15:11:14.144973 31265 net.cpp:425] inception_4e/5x5 <- inception_4e/5x5_reduce
I0403 15:11:14.144992 31265 net.cpp:399] inception_4e/5x5 -> inception_4e/5x5
I0403 15:11:14.146842 31265 net.cpp:141] Setting up inception_4e/5x5
I0403 15:11:14.146870 31265 net.cpp:148] Top shape: 24 128 14 14 (602112)
I0403 15:11:14.146888 31265 net.cpp:156] Memory required for data: 1239741984
I0403 15:11:14.146908 31265 layer_factory.hpp:77] Creating layer inception_4e/relu_5x5
I0403 15:11:14.146927 31265 net.cpp:91] Creating Layer inception_4e/relu_5x5
I0403 15:11:14.146945 31265 net.cpp:425] inception_4e/relu_5x5 <- inception_4e/5x5
I0403 15:11:14.146963 31265 net.cpp:386] inception_4e/relu_5x5 -> inception_4e/5x5 (in-place)
I0403 15:11:14.147158 31265 net.cpp:141] Setting up inception_4e/relu_5x5
I0403 15:11:14.147188 31265 net.cpp:148] Top shape: 24 128 14 14 (602112)
I0403 15:11:14.147207 31265 net.cpp:156] Memory required for data: 1242150432
I0403 15:11:14.147222 31265 layer_factory.hpp:77] Creating layer inception_4e/pool
I0403 15:11:14.147243 31265 net.cpp:91] Creating Layer inception_4e/pool
I0403 15:11:14.147260 31265 net.cpp:425] inception_4e/pool <- inception_4d/output_inception_4d/output_0_split_4
I0403 15:11:14.147279 31265 net.cpp:399] inception_4e/pool -> inception_4e/pool
I0403 15:11:14.147356 31265 net.cpp:141] Setting up inception_4e/pool
I0403 15:11:14.147382 31265 net.cpp:148] Top shape: 24 528 14 14 (2483712)
I0403 15:11:14.147397 31265 net.cpp:156] Memory required for data: 1252085280
I0403 15:11:14.147413 31265 layer_factory.hpp:77] Creating layer inception_4e/pool_proj
I0403 15:11:14.147434 31265 net.cpp:91] Creating Layer inception_4e/pool_proj
I0403 15:11:14.147452 31265 net.cpp:425] inception_4e/pool_proj <- inception_4e/pool
I0403 15:11:14.147474 31265 net.cpp:399] inception_4e/pool_proj -> inception_4e/pool_proj
I0403 15:11:14.149008 31265 net.cpp:141] Setting up inception_4e/pool_proj
I0403 15:11:14.149036 31265 net.cpp:148] Top shape: 24 128 14 14 (602112)
I0403 15:11:14.149066 31265 net.cpp:156] Memory required for data: 1254493728
I0403 15:11:14.149087 31265 layer_factory.hpp:77] Creating layer inception_4e/relu_pool_proj
I0403 15:11:14.149107 31265 net.cpp:91] Creating Layer inception_4e/relu_pool_proj
I0403 15:11:14.149123 31265 net.cpp:425] inception_4e/relu_pool_proj <- inception_4e/pool_proj
I0403 15:11:14.149145 31265 net.cpp:386] inception_4e/relu_pool_proj -> inception_4e/pool_proj (in-place)
I0403 15:11:14.149461 31265 net.cpp:141] Setting up inception_4e/relu_pool_proj
I0403 15:11:14.149489 31265 net.cpp:148] Top shape: 24 128 14 14 (602112)
I0403 15:11:14.149507 31265 net.cpp:156] Memory required for data: 1256902176
I0403 15:11:14.149523 31265 layer_factory.hpp:77] Creating layer inception_4e/output
I0403 15:11:14.149541 31265 net.cpp:91] Creating Layer inception_4e/output
I0403 15:11:14.149570 31265 net.cpp:425] inception_4e/output <- inception_4e/1x1
I0403 15:11:14.149587 31265 net.cpp:425] inception_4e/output <- inception_4e/3x3
I0403 15:11:14.149603 31265 net.cpp:425] inception_4e/output <- inception_4e/5x5
I0403 15:11:14.149619 31265 net.cpp:425] inception_4e/output <- inception_4e/pool_proj
I0403 15:11:14.149639 31265 net.cpp:399] inception_4e/output -> inception_4e/output
I0403 15:11:14.149689 31265 net.cpp:141] Setting up inception_4e/output
I0403 15:11:14.149718 31265 net.cpp:148] Top shape: 24 832 14 14 (3913728)
I0403 15:11:14.149734 31265 net.cpp:156] Memory required for data: 1272557088
I0403 15:11:14.149751 31265 layer_factory.hpp:77] Creating layer pool4/3x3_s2
I0403 15:11:14.149768 31265 net.cpp:91] Creating Layer pool4/3x3_s2
I0403 15:11:14.149785 31265 net.cpp:425] pool4/3x3_s2 <- inception_4e/output
I0403 15:11:14.149806 31265 net.cpp:399] pool4/3x3_s2 -> pool4/3x3_s2
I0403 15:11:14.149874 31265 net.cpp:141] Setting up pool4/3x3_s2
I0403 15:11:14.149899 31265 net.cpp:148] Top shape: 24 832 7 7 (978432)
I0403 15:11:14.149915 31265 net.cpp:156] Memory required for data: 1276470816
I0403 15:11:14.149930 31265 layer_factory.hpp:77] Creating layer pool4/3x3_s2_pool4/3x3_s2_0_split
I0403 15:11:14.149950 31265 net.cpp:91] Creating Layer pool4/3x3_s2_pool4/3x3_s2_0_split
I0403 15:11:14.149968 31265 net.cpp:425] pool4/3x3_s2_pool4/3x3_s2_0_split <- pool4/3x3_s2
I0403 15:11:14.149986 31265 net.cpp:399] pool4/3x3_s2_pool4/3x3_s2_0_split -> pool4/3x3_s2_pool4/3x3_s2_0_split_0
I0403 15:11:14.150007 31265 net.cpp:399] pool4/3x3_s2_pool4/3x3_s2_0_split -> pool4/3x3_s2_pool4/3x3_s2_0_split_1
I0403 15:11:14.150027 31265 net.cpp:399] pool4/3x3_s2_pool4/3x3_s2_0_split -> pool4/3x3_s2_pool4/3x3_s2_0_split_2
I0403 15:11:14.150048 31265 net.cpp:399] pool4/3x3_s2_pool4/3x3_s2_0_split -> pool4/3x3_s2_pool4/3x3_s2_0_split_3
I0403 15:11:14.150141 31265 net.cpp:141] Setting up pool4/3x3_s2_pool4/3x3_s2_0_split
I0403 15:11:14.150166 31265 net.cpp:148] Top shape: 24 832 7 7 (978432)
I0403 15:11:14.150182 31265 net.cpp:148] Top shape: 24 832 7 7 (978432)
I0403 15:11:14.150197 31265 net.cpp:148] Top shape: 24 832 7 7 (978432)
I0403 15:11:14.150213 31265 net.cpp:148] Top shape: 24 832 7 7 (978432)
I0403 15:11:14.150228 31265 net.cpp:156] Memory required for data: 1292125728
I0403 15:11:14.150243 31265 layer_factory.hpp:77] Creating layer inception_5a/1x1
I0403 15:11:14.150277 31265 net.cpp:91] Creating Layer inception_5a/1x1
I0403 15:11:14.150298 31265 net.cpp:425] inception_5a/1x1 <- pool4/3x3_s2_pool4/3x3_s2_0_split_0
I0403 15:11:14.150326 31265 net.cpp:399] inception_5a/1x1 -> inception_5a/1x1
I0403 15:11:14.153200 31265 net.cpp:141] Setting up inception_5a/1x1
I0403 15:11:14.153230 31265 net.cpp:148] Top shape: 24 256 7 7 (301056)
I0403 15:11:14.153249 31265 net.cpp:156] Memory required for data: 1293329952
I0403 15:11:14.153267 31265 layer_factory.hpp:77] Creating layer inception_5a/relu_1x1
I0403 15:11:14.153288 31265 net.cpp:91] Creating Layer inception_5a/relu_1x1
I0403 15:11:14.153307 31265 net.cpp:425] inception_5a/relu_1x1 <- inception_5a/1x1
I0403 15:11:14.153331 31265 net.cpp:386] inception_5a/relu_1x1 -> inception_5a/1x1 (in-place)
I0403 15:11:14.153661 31265 net.cpp:141] Setting up inception_5a/relu_1x1
I0403 15:11:14.153688 31265 net.cpp:148] Top shape: 24 256 7 7 (301056)
I0403 15:11:14.153712 31265 net.cpp:156] Memory required for data: 1294534176
I0403 15:11:14.153728 31265 layer_factory.hpp:77] Creating layer inception_5a/3x3_reduce
I0403 15:11:14.153753 31265 net.cpp:91] Creating Layer inception_5a/3x3_reduce
I0403 15:11:14.153772 31265 net.cpp:425] inception_5a/3x3_reduce <- pool4/3x3_s2_pool4/3x3_s2_0_split_1
I0403 15:11:14.153797 31265 net.cpp:399] inception_5a/3x3_reduce -> inception_5a/3x3_reduce
I0403 15:11:14.156280 31265 net.cpp:141] Setting up inception_5a/3x3_reduce
I0403 15:11:14.156313 31265 net.cpp:148] Top shape: 24 160 7 7 (188160)
I0403 15:11:14.156335 31265 net.cpp:156] Memory required for data: 1295286816
I0403 15:11:14.156355 31265 layer_factory.hpp:77] Creating layer inception_5a/relu_3x3_reduce
I0403 15:11:14.156374 31265 net.cpp:91] Creating Layer inception_5a/relu_3x3_reduce
I0403 15:11:14.156391 31265 net.cpp:425] inception_5a/relu_3x3_reduce <- inception_5a/3x3_reduce
I0403 15:11:14.156411 31265 net.cpp:386] inception_5a/relu_3x3_reduce -> inception_5a/3x3_reduce (in-place)
I0403 15:11:14.156600 31265 net.cpp:141] Setting up inception_5a/relu_3x3_reduce
I0403 15:11:14.156626 31265 net.cpp:148] Top shape: 24 160 7 7 (188160)
I0403 15:11:14.156641 31265 net.cpp:156] Memory required for data: 1296039456
I0403 15:11:14.156656 31265 layer_factory.hpp:77] Creating layer inception_5a/3x3
I0403 15:11:14.156680 31265 net.cpp:91] Creating Layer inception_5a/3x3
I0403 15:11:14.156698 31265 net.cpp:425] inception_5a/3x3 <- inception_5a/3x3_reduce
I0403 15:11:14.156723 31265 net.cpp:399] inception_5a/3x3 -> inception_5a/3x3
I0403 15:11:14.162087 31265 net.cpp:141] Setting up inception_5a/3x3
I0403 15:11:14.162119 31265 net.cpp:148] Top shape: 24 320 7 7 (376320)
I0403 15:11:14.162137 31265 net.cpp:156] Memory required for data: 1297544736
I0403 15:11:14.162155 31265 layer_factory.hpp:77] Creating layer inception_5a/relu_3x3
I0403 15:11:14.162176 31265 net.cpp:91] Creating Layer inception_5a/relu_3x3
I0403 15:11:14.162195 31265 net.cpp:425] inception_5a/relu_3x3 <- inception_5a/3x3
I0403 15:11:14.162214 31265 net.cpp:386] inception_5a/relu_3x3 -> inception_5a/3x3 (in-place)
I0403 15:11:14.162511 31265 net.cpp:141] Setting up inception_5a/relu_3x3
I0403 15:11:14.162539 31265 net.cpp:148] Top shape: 24 320 7 7 (376320)
I0403 15:11:14.162554 31265 net.cpp:156] Memory required for data: 1299050016
I0403 15:11:14.162571 31265 layer_factory.hpp:77] Creating layer inception_5a/5x5_reduce
I0403 15:11:14.162595 31265 net.cpp:91] Creating Layer inception_5a/5x5_reduce
I0403 15:11:14.162613 31265 net.cpp:425] inception_5a/5x5_reduce <- pool4/3x3_s2_pool4/3x3_s2_0_split_2
I0403 15:11:14.162636 31265 net.cpp:399] inception_5a/5x5_reduce -> inception_5a/5x5_reduce
I0403 15:11:14.163808 31265 net.cpp:141] Setting up inception_5a/5x5_reduce
I0403 15:11:14.163837 31265 net.cpp:148] Top shape: 24 32 7 7 (37632)
I0403 15:11:14.163854 31265 net.cpp:156] Memory required for data: 1299200544
I0403 15:11:14.163873 31265 layer_factory.hpp:77] Creating layer inception_5a/relu_5x5_reduce
I0403 15:11:14.163894 31265 net.cpp:91] Creating Layer inception_5a/relu_5x5_reduce
I0403 15:11:14.163913 31265 net.cpp:425] inception_5a/relu_5x5_reduce <- inception_5a/5x5_reduce
I0403 15:11:14.163931 31265 net.cpp:386] inception_5a/relu_5x5_reduce -> inception_5a/5x5_reduce (in-place)
I0403 15:11:14.164240 31265 net.cpp:141] Setting up inception_5a/relu_5x5_reduce
I0403 15:11:14.164266 31265 net.cpp:148] Top shape: 24 32 7 7 (37632)
I0403 15:11:14.164283 31265 net.cpp:156] Memory required for data: 1299351072
I0403 15:11:14.164297 31265 layer_factory.hpp:77] Creating layer inception_5a/5x5
I0403 15:11:14.164330 31265 net.cpp:91] Creating Layer inception_5a/5x5
I0403 15:11:14.164351 31265 net.cpp:425] inception_5a/5x5 <- inception_5a/5x5_reduce
I0403 15:11:14.164373 31265 net.cpp:399] inception_5a/5x5 -> inception_5a/5x5
I0403 15:11:14.166136 31265 net.cpp:141] Setting up inception_5a/5x5
I0403 15:11:14.166177 31265 net.cpp:148] Top shape: 24 128 7 7 (150528)
I0403 15:11:14.166194 31265 net.cpp:156] Memory required for data: 1299953184
I0403 15:11:14.166214 31265 layer_factory.hpp:77] Creating layer inception_5a/relu_5x5
I0403 15:11:14.166236 31265 net.cpp:91] Creating Layer inception_5a/relu_5x5
I0403 15:11:14.166254 31265 net.cpp:425] inception_5a/relu_5x5 <- inception_5a/5x5
I0403 15:11:14.166272 31265 net.cpp:386] inception_5a/relu_5x5 -> inception_5a/5x5 (in-place)
I0403 15:11:14.166466 31265 net.cpp:141] Setting up inception_5a/relu_5x5
I0403 15:11:14.166492 31265 net.cpp:148] Top shape: 24 128 7 7 (150528)
I0403 15:11:14.166508 31265 net.cpp:156] Memory required for data: 1300555296
I0403 15:11:14.166524 31265 layer_factory.hpp:77] Creating layer inception_5a/pool
I0403 15:11:14.166544 31265 net.cpp:91] Creating Layer inception_5a/pool
I0403 15:11:14.166563 31265 net.cpp:425] inception_5a/pool <- pool4/3x3_s2_pool4/3x3_s2_0_split_3
I0403 15:11:14.166584 31265 net.cpp:399] inception_5a/pool -> inception_5a/pool
I0403 15:11:14.166654 31265 net.cpp:141] Setting up inception_5a/pool
I0403 15:11:14.166679 31265 net.cpp:148] Top shape: 24 832 7 7 (978432)
I0403 15:11:14.166694 31265 net.cpp:156] Memory required for data: 1304469024
I0403 15:11:14.166710 31265 layer_factory.hpp:77] Creating layer inception_5a/pool_proj
I0403 15:11:14.166733 31265 net.cpp:91] Creating Layer inception_5a/pool_proj
I0403 15:11:14.166750 31265 net.cpp:425] inception_5a/pool_proj <- inception_5a/pool
I0403 15:11:14.166771 31265 net.cpp:399] inception_5a/pool_proj -> inception_5a/pool_proj
I0403 15:11:14.169096 31265 net.cpp:141] Setting up inception_5a/pool_proj
I0403 15:11:14.169126 31265 net.cpp:148] Top shape: 24 128 7 7 (150528)
I0403 15:11:14.169143 31265 net.cpp:156] Memory required for data: 1305071136
I0403 15:11:14.169163 31265 layer_factory.hpp:77] Creating layer inception_5a/relu_pool_proj
I0403 15:11:14.169181 31265 net.cpp:91] Creating Layer inception_5a/relu_pool_proj
I0403 15:11:14.169198 31265 net.cpp:425] inception_5a/relu_pool_proj <- inception_5a/pool_proj
I0403 15:11:14.169219 31265 net.cpp:386] inception_5a/relu_pool_proj -> inception_5a/pool_proj (in-place)
I0403 15:11:14.169520 31265 net.cpp:141] Setting up inception_5a/relu_pool_proj
I0403 15:11:14.169548 31265 net.cpp:148] Top shape: 24 128 7 7 (150528)
I0403 15:11:14.169564 31265 net.cpp:156] Memory required for data: 1305673248
I0403 15:11:14.169579 31265 layer_factory.hpp:77] Creating layer inception_5a/output
I0403 15:11:14.169597 31265 net.cpp:91] Creating Layer inception_5a/output
I0403 15:11:14.169615 31265 net.cpp:425] inception_5a/output <- inception_5a/1x1
I0403 15:11:14.169632 31265 net.cpp:425] inception_5a/output <- inception_5a/3x3
I0403 15:11:14.169648 31265 net.cpp:425] inception_5a/output <- inception_5a/5x5
I0403 15:11:14.169667 31265 net.cpp:425] inception_5a/output <- inception_5a/pool_proj
I0403 15:11:14.169688 31265 net.cpp:399] inception_5a/output -> inception_5a/output
I0403 15:11:14.169739 31265 net.cpp:141] Setting up inception_5a/output
I0403 15:11:14.169767 31265 net.cpp:148] Top shape: 24 832 7 7 (978432)
I0403 15:11:14.169782 31265 net.cpp:156] Memory required for data: 1309586976
I0403 15:11:14.169798 31265 layer_factory.hpp:77] Creating layer inception_5a/output_inception_5a/output_0_split
I0403 15:11:14.169816 31265 net.cpp:91] Creating Layer inception_5a/output_inception_5a/output_0_split
I0403 15:11:14.169831 31265 net.cpp:425] inception_5a/output_inception_5a/output_0_split <- inception_5a/output
I0403 15:11:14.169848 31265 net.cpp:399] inception_5a/output_inception_5a/output_0_split -> inception_5a/output_inception_5a/output_0_split_0
I0403 15:11:14.169868 31265 net.cpp:399] inception_5a/output_inception_5a/output_0_split -> inception_5a/output_inception_5a/output_0_split_1
I0403 15:11:14.169893 31265 net.cpp:399] inception_5a/output_inception_5a/output_0_split -> inception_5a/output_inception_5a/output_0_split_2
I0403 15:11:14.169914 31265 net.cpp:399] inception_5a/output_inception_5a/output_0_split -> inception_5a/output_inception_5a/output_0_split_3
I0403 15:11:14.170030 31265 net.cpp:141] Setting up inception_5a/output_inception_5a/output_0_split
I0403 15:11:14.170055 31265 net.cpp:148] Top shape: 24 832 7 7 (978432)
I0403 15:11:14.170071 31265 net.cpp:148] Top shape: 24 832 7 7 (978432)
I0403 15:11:14.170088 31265 net.cpp:148] Top shape: 24 832 7 7 (978432)
I0403 15:11:14.170104 31265 net.cpp:148] Top shape: 24 832 7 7 (978432)
I0403 15:11:14.170117 31265 net.cpp:156] Memory required for data: 1325241888
I0403 15:11:14.170132 31265 layer_factory.hpp:77] Creating layer inception_5b/1x1
I0403 15:11:14.170156 31265 net.cpp:91] Creating Layer inception_5b/1x1
I0403 15:11:14.170173 31265 net.cpp:425] inception_5b/1x1 <- inception_5a/output_inception_5a/output_0_split_0
I0403 15:11:14.170194 31265 net.cpp:399] inception_5b/1x1 -> inception_5b/1x1
I0403 15:11:14.173979 31265 net.cpp:141] Setting up inception_5b/1x1
I0403 15:11:14.174012 31265 net.cpp:148] Top shape: 24 384 7 7 (451584)
I0403 15:11:14.174029 31265 net.cpp:156] Memory required for data: 1327048224
I0403 15:11:14.174049 31265 layer_factory.hpp:77] Creating layer inception_5b/relu_1x1
I0403 15:11:14.174067 31265 net.cpp:91] Creating Layer inception_5b/relu_1x1
I0403 15:11:14.174084 31265 net.cpp:425] inception_5b/relu_1x1 <- inception_5b/1x1
I0403 15:11:14.174104 31265 net.cpp:386] inception_5b/relu_1x1 -> inception_5b/1x1 (in-place)
I0403 15:11:14.174444 31265 net.cpp:141] Setting up inception_5b/relu_1x1
I0403 15:11:14.174475 31265 net.cpp:148] Top shape: 24 384 7 7 (451584)
I0403 15:11:14.174494 31265 net.cpp:156] Memory required for data: 1328854560
I0403 15:11:14.174510 31265 layer_factory.hpp:77] Creating layer inception_5b/3x3_reduce
I0403 15:11:14.174536 31265 net.cpp:91] Creating Layer inception_5b/3x3_reduce
I0403 15:11:14.174568 31265 net.cpp:425] inception_5b/3x3_reduce <- inception_5a/output_inception_5a/output_0_split_1
I0403 15:11:14.174588 31265 net.cpp:399] inception_5b/3x3_reduce -> inception_5b/3x3_reduce
I0403 15:11:14.177204 31265 net.cpp:141] Setting up inception_5b/3x3_reduce
I0403 15:11:14.177237 31265 net.cpp:148] Top shape: 24 192 7 7 (225792)
I0403 15:11:14.177253 31265 net.cpp:156] Memory required for data: 1329757728
I0403 15:11:14.177273 31265 layer_factory.hpp:77] Creating layer inception_5b/relu_3x3_reduce
I0403 15:11:14.177290 31265 net.cpp:91] Creating Layer inception_5b/relu_3x3_reduce
I0403 15:11:14.177306 31265 net.cpp:425] inception_5b/relu_3x3_reduce <- inception_5b/3x3_reduce
I0403 15:11:14.177332 31265 net.cpp:386] inception_5b/relu_3x3_reduce -> inception_5b/3x3_reduce (in-place)
I0403 15:11:14.177518 31265 net.cpp:141] Setting up inception_5b/relu_3x3_reduce
I0403 15:11:14.177542 31265 net.cpp:148] Top shape: 24 192 7 7 (225792)
I0403 15:11:14.177558 31265 net.cpp:156] Memory required for data: 1330660896
I0403 15:11:14.177575 31265 layer_factory.hpp:77] Creating layer inception_5b/3x3
I0403 15:11:14.177598 31265 net.cpp:91] Creating Layer inception_5b/3x3
I0403 15:11:14.177615 31265 net.cpp:425] inception_5b/3x3 <- inception_5b/3x3_reduce
I0403 15:11:14.177636 31265 net.cpp:399] inception_5b/3x3 -> inception_5b/3x3
I0403 15:11:14.184239 31265 net.cpp:141] Setting up inception_5b/3x3
I0403 15:11:14.184268 31265 net.cpp:148] Top shape: 24 384 7 7 (451584)
I0403 15:11:14.184284 31265 net.cpp:156] Memory required for data: 1332467232
I0403 15:11:14.184303 31265 layer_factory.hpp:77] Creating layer inception_5b/relu_3x3
I0403 15:11:14.184324 31265 net.cpp:91] Creating Layer inception_5b/relu_3x3
I0403 15:11:14.184342 31265 net.cpp:425] inception_5b/relu_3x3 <- inception_5b/3x3
I0403 15:11:14.184361 31265 net.cpp:386] inception_5b/relu_3x3 -> inception_5b/3x3 (in-place)
I0403 15:11:14.184656 31265 net.cpp:141] Setting up inception_5b/relu_3x3
I0403 15:11:14.184684 31265 net.cpp:148] Top shape: 24 384 7 7 (451584)
I0403 15:11:14.184698 31265 net.cpp:156] Memory required for data: 1334273568
I0403 15:11:14.184712 31265 layer_factory.hpp:77] Creating layer inception_5b/5x5_reduce
I0403 15:11:14.184749 31265 net.cpp:91] Creating Layer inception_5b/5x5_reduce
I0403 15:11:14.184770 31265 net.cpp:425] inception_5b/5x5_reduce <- inception_5a/output_inception_5a/output_0_split_2
I0403 15:11:14.184793 31265 net.cpp:399] inception_5b/5x5_reduce -> inception_5b/5x5_reduce
I0403 15:11:14.186034 31265 net.cpp:141] Setting up inception_5b/5x5_reduce
I0403 15:11:14.186063 31265 net.cpp:148] Top shape: 24 48 7 7 (56448)
I0403 15:11:14.186079 31265 net.cpp:156] Memory required for data: 1334499360
I0403 15:11:14.186097 31265 layer_factory.hpp:77] Creating layer inception_5b/relu_5x5_reduce
I0403 15:11:14.186115 31265 net.cpp:91] Creating Layer inception_5b/relu_5x5_reduce
I0403 15:11:14.186132 31265 net.cpp:425] inception_5b/relu_5x5_reduce <- inception_5b/5x5_reduce
I0403 15:11:14.186152 31265 net.cpp:386] inception_5b/relu_5x5_reduce -> inception_5b/5x5_reduce (in-place)
I0403 15:11:14.186538 31265 net.cpp:141] Setting up inception_5b/relu_5x5_reduce
I0403 15:11:14.186566 31265 net.cpp:148] Top shape: 24 48 7 7 (56448)
I0403 15:11:14.186583 31265 net.cpp:156] Memory required for data: 1334725152
I0403 15:11:14.186597 31265 layer_factory.hpp:77] Creating layer inception_5b/5x5
I0403 15:11:14.186619 31265 net.cpp:91] Creating Layer inception_5b/5x5
I0403 15:11:14.186637 31265 net.cpp:425] inception_5b/5x5 <- inception_5b/5x5_reduce
I0403 15:11:14.186668 31265 net.cpp:399] inception_5b/5x5 -> inception_5b/5x5
I0403 15:11:14.188714 31265 net.cpp:141] Setting up inception_5b/5x5
I0403 15:11:14.188740 31265 net.cpp:148] Top shape: 24 128 7 7 (150528)
I0403 15:11:14.188755 31265 net.cpp:156] Memory required for data: 1335327264
I0403 15:11:14.188774 31265 layer_factory.hpp:77] Creating layer inception_5b/relu_5x5
I0403 15:11:14.188796 31265 net.cpp:91] Creating Layer inception_5b/relu_5x5
I0403 15:11:14.188813 31265 net.cpp:425] inception_5b/relu_5x5 <- inception_5b/5x5
I0403 15:11:14.188830 31265 net.cpp:386] inception_5b/relu_5x5 -> inception_5b/5x5 (in-place)
I0403 15:11:14.189018 31265 net.cpp:141] Setting up inception_5b/relu_5x5
I0403 15:11:14.189045 31265 net.cpp:148] Top shape: 24 128 7 7 (150528)
I0403 15:11:14.189060 31265 net.cpp:156] Memory required for data: 1335929376
I0403 15:11:14.189075 31265 layer_factory.hpp:77] Creating layer inception_5b/pool
I0403 15:11:14.189093 31265 net.cpp:91] Creating Layer inception_5b/pool
I0403 15:11:14.189110 31265 net.cpp:425] inception_5b/pool <- inception_5a/output_inception_5a/output_0_split_3
I0403 15:11:14.189127 31265 net.cpp:399] inception_5b/pool -> inception_5b/pool
I0403 15:11:14.189198 31265 net.cpp:141] Setting up inception_5b/pool
I0403 15:11:14.189224 31265 net.cpp:148] Top shape: 24 832 7 7 (978432)
I0403 15:11:14.189239 31265 net.cpp:156] Memory required for data: 1339843104
I0403 15:11:14.189254 31265 layer_factory.hpp:77] Creating layer inception_5b/pool_proj
I0403 15:11:14.189275 31265 net.cpp:91] Creating Layer inception_5b/pool_proj
I0403 15:11:14.189292 31265 net.cpp:425] inception_5b/pool_proj <- inception_5b/pool
I0403 15:11:14.189313 31265 net.cpp:399] inception_5b/pool_proj -> inception_5b/pool_proj
I0403 15:11:14.191588 31265 net.cpp:141] Setting up inception_5b/pool_proj
I0403 15:11:14.191617 31265 net.cpp:148] Top shape: 24 128 7 7 (150528)
I0403 15:11:14.191634 31265 net.cpp:156] Memory required for data: 1340445216
I0403 15:11:14.191653 31265 layer_factory.hpp:77] Creating layer inception_5b/relu_pool_proj
I0403 15:11:14.191674 31265 net.cpp:91] Creating Layer inception_5b/relu_pool_proj
I0403 15:11:14.191691 31265 net.cpp:425] inception_5b/relu_pool_proj <- inception_5b/pool_proj
I0403 15:11:14.191709 31265 net.cpp:386] inception_5b/relu_pool_proj -> inception_5b/pool_proj (in-place)
I0403 15:11:14.191997 31265 net.cpp:141] Setting up inception_5b/relu_pool_proj
I0403 15:11:14.192023 31265 net.cpp:148] Top shape: 24 128 7 7 (150528)
I0403 15:11:14.192039 31265 net.cpp:156] Memory required for data: 1341047328
I0403 15:11:14.192054 31265 layer_factory.hpp:77] Creating layer inception_5b/output
I0403 15:11:14.192070 31265 net.cpp:91] Creating Layer inception_5b/output
I0403 15:11:14.192102 31265 net.cpp:425] inception_5b/output <- inception_5b/1x1
I0403 15:11:14.192121 31265 net.cpp:425] inception_5b/output <- inception_5b/3x3
I0403 15:11:14.192137 31265 net.cpp:425] inception_5b/output <- inception_5b/5x5
I0403 15:11:14.192155 31265 net.cpp:425] inception_5b/output <- inception_5b/pool_proj
I0403 15:11:14.192175 31265 net.cpp:399] inception_5b/output -> inception_5b/output
I0403 15:11:14.192226 31265 net.cpp:141] Setting up inception_5b/output
I0403 15:11:14.192252 31265 net.cpp:148] Top shape: 24 1024 7 7 (1204224)
I0403 15:11:14.192283 31265 net.cpp:156] Memory required for data: 1345864224
I0403 15:11:14.192298 31265 layer_factory.hpp:77] Creating layer pool5/7x7_s1
I0403 15:11:14.192319 31265 net.cpp:91] Creating Layer pool5/7x7_s1
I0403 15:11:14.192337 31265 net.cpp:425] pool5/7x7_s1 <- inception_5b/output
I0403 15:11:14.192359 31265 net.cpp:399] pool5/7x7_s1 -> pool5/7x7_s1
I0403 15:11:14.192584 31265 net.cpp:141] Setting up pool5/7x7_s1
I0403 15:11:14.192610 31265 net.cpp:148] Top shape: 24 1024 1 1 (24576)
I0403 15:11:14.192625 31265 net.cpp:156] Memory required for data: 1345962528
I0403 15:11:14.192641 31265 layer_factory.hpp:77] Creating layer pool5/drop_7x7_s1
I0403 15:11:14.192657 31265 net.cpp:91] Creating Layer pool5/drop_7x7_s1
I0403 15:11:14.192677 31265 net.cpp:425] pool5/drop_7x7_s1 <- pool5/7x7_s1
I0403 15:11:14.192694 31265 net.cpp:386] pool5/drop_7x7_s1 -> pool5/7x7_s1 (in-place)
I0403 15:11:14.192744 31265 net.cpp:141] Setting up pool5/drop_7x7_s1
I0403 15:11:14.192769 31265 net.cpp:148] Top shape: 24 1024 1 1 (24576)
I0403 15:11:14.192785 31265 net.cpp:156] Memory required for data: 1346060832
I0403 15:11:14.192800 31265 layer_factory.hpp:77] Creating layer loss3/classifier_plantvillage
I0403 15:11:14.192819 31265 net.cpp:91] Creating Layer loss3/classifier_plantvillage
I0403 15:11:14.192836 31265 net.cpp:425] loss3/classifier_plantvillage <- pool5/7x7_s1
I0403 15:11:14.192855 31265 net.cpp:399] loss3/classifier_plantvillage -> loss3/classifier_plantvillage
I0403 15:11:14.193271 31265 net.cpp:141] Setting up loss3/classifier_plantvillage
I0403 15:11:14.193297 31265 net.cpp:148] Top shape: 24 38 (912)
I0403 15:11:14.193312 31265 net.cpp:156] Memory required for data: 1346064480
I0403 15:11:14.193334 31265 layer_factory.hpp:77] Creating layer loss3/classifier_plantvillage_loss3/classifier_plantvillage_0_split
I0403 15:11:14.193352 31265 net.cpp:91] Creating Layer loss3/classifier_plantvillage_loss3/classifier_plantvillage_0_split
I0403 15:11:14.193368 31265 net.cpp:425] loss3/classifier_plantvillage_loss3/classifier_plantvillage_0_split <- loss3/classifier_plantvillage
I0403 15:11:14.193385 31265 net.cpp:399] loss3/classifier_plantvillage_loss3/classifier_plantvillage_0_split -> loss3/classifier_plantvillage_loss3/classifier_plantvillage_0_split_0
I0403 15:11:14.193409 31265 net.cpp:399] loss3/classifier_plantvillage_loss3/classifier_plantvillage_0_split -> loss3/classifier_plantvillage_loss3/classifier_plantvillage_0_split_1
I0403 15:11:14.193433 31265 net.cpp:399] loss3/classifier_plantvillage_loss3/classifier_plantvillage_0_split -> loss3/classifier_plantvillage_loss3/classifier_plantvillage_0_split_2
I0403 15:11:14.193454 31265 net.cpp:399] loss3/classifier_plantvillage_loss3/classifier_plantvillage_0_split -> loss3/classifier_plantvillage_loss3/classifier_plantvillage_0_split_3
I0403 15:11:14.193557 31265 net.cpp:141] Setting up loss3/classifier_plantvillage_loss3/classifier_plantvillage_0_split
I0403 15:11:14.193583 31265 net.cpp:148] Top shape: 24 38 (912)
I0403 15:11:14.193598 31265 net.cpp:148] Top shape: 24 38 (912)
I0403 15:11:14.193614 31265 net.cpp:148] Top shape: 24 38 (912)
I0403 15:11:14.193630 31265 net.cpp:148] Top shape: 24 38 (912)
I0403 15:11:14.193645 31265 net.cpp:156] Memory required for data: 1346079072
I0403 15:11:14.193660 31265 layer_factory.hpp:77] Creating layer loss1/loss
I0403 15:11:14.193682 31265 net.cpp:91] Creating Layer loss1/loss
I0403 15:11:14.193699 31265 net.cpp:425] loss1/loss <- loss1/classifier_plantvillage_loss1/classifier_plantvillage_0_split_0
I0403 15:11:14.193730 31265 net.cpp:425] loss1/loss <- label_data_1_split_0
…
