…
I0403 14:54:43.844249 30600 net.cpp:313] The NetState phase (1) differed from the phase (0) specified by a rule in layer data
I0403 14:54:43.845525 30600 net.cpp:49] Initializing net from parameters: 
state {
  phase: TEST
}
layer {
  name: "data"
  type: "Data"
  top: "data"
  top: "label"
  include {
    phase: TEST
  }
  transform_param {
    mirror: false
    crop_size: 224
    mean_file: "/home/mohanty/data/final_dataset/lmdb/color-20-80/mean.binaryproto"
  }
  data_param {
    source: "/home/mohanty/data/final_dataset/lmdb/color-20-80/test_db"
    batch_size: 24
    backend: LMDB
  }
}
layer {
  name: "conv1/7x7_s2"
  type: "Convolution"
  bottom: "data"
  top: "conv1/7x7_s2"
  param {
    lr_mult: 1
    decay_mult: 1
  }
  param {
    lr_mult: 2
    decay_mult: 0
  }
  convolution_param {
    num_output: 64
    pad: 3
    kernel_size: 7
    stride: 2
    weight_filler {
      type: "xavier"
      std: 0.1
    }
    bias_filler {
      type: "constant"
      value: 0.2
    }
  }
}
layer {
  name: "conv1/relu_7x7"
  type: "ReLU"
  bottom: "conv1/7x7_s2"
  top: "conv1/7x7_s2"
}
layer {
  name: "pool1/3x3_s2"
  type: "Pooling"
  bottom: "conv1/7x7_s2"
  top: "pool1/3x3_s2"
  pooling_param {
    pool: MAX
    kernel_size: 3
    stride: 2
  }
}
layer {
  name: "pool1/norm1"
  type: "LRN"
  bottom: "pool1/3x3_s2"
  top: "pool1/norm1"
  lrn_param {
    local_size: 5
    alpha: 0.0001
    beta: 0.75
  }
}
layer {
  name: "conv2/3x3_reduce"
  type: "Convolution"
  bottom: "pool1/norm1"
  top: "conv2/3x3_reduce"
  param {
    lr_mult: 1
    decay_mult: 1
  }
  param {
    lr_mult: 2
    decay_mult: 0
  }
  convolution_param {
    num_output: 64
    kernel_size: 1
    weight_filler {
      type: "xavier"
      std: 0.1
    }
    bias_filler {
      type: "constant"
      value: 0.2
    }
  }
}
layer {
  name: "conv2/relu_3x3_reduce"
  type: "ReLU"
  bottom: "conv2/3x3_reduce"
  top: "conv2/3x3_reduce"
}
layer {
  name: "conv2/3x3"
  type: "Convolution"
  bottom: "conv2/3x3_reduce"
  top: "conv2/3x3"
  param {
    lr_mult: 1
    decay_mult: 1
  }
  param {
    lr_mult: 2
    decay_mult: 0
  }
  convolution_param {
    num_output: 192
    pad: 1
    kernel_size: 3
    weight_filler {
      type: "xavier"
      std: 0.03
    }
    bias_filler {
      type: "constant"
      value: 0.2
    }
  }
}
layer {
  name: "conv2/relu_3x3"
  type: "ReLU"
  bottom: "conv2/3x3"
  top: "conv2/3x3"
}
layer {
  name: "conv2/norm2"
  type: "LRN"
  bottom: "conv2/3x3"
  top: "conv2/norm2"
  lrn_param {
    local_size: 5
    alpha: 0.0001
    beta: 0.75
  }
}
layer {
  name: "pool2/3x3_s2"
  type: "Pooling"
  bottom: "conv2/norm2"
  top: "pool2/3x3_s2"
  pooling_param {
    pool: MAX
    kernel_size: 3
    stride: 2
  }
}
layer {
  name: "inception_3a/1x1"
  type: "Convolution"
  bottom: "pool2/3x3_s2"
  top: "inception_3a/1x1"
  param {
    lr_mult: 1
    decay_mult: 1
  }
  param {
    lr_mult: 2
    decay_mult: 0
  }
  convolution_param {
    num_output: 64
    kernel_size: 1
    weight_filler {
      type: "xavier"
      std: 0.03
    }
    bias_filler {
      type: "constant"
      value: 0.2
    }
  }
}
layer {
  name: "inception_3a/relu_1x1"
  type: "ReLU"
  bottom: "inception_3a/1x1"
  top: "inception_3a/1x1"
}
layer {
  name: "inception_3a/3x3_reduce"
  type: "Convolution"
  bottom: "pool2/3x3_s2"
  top: "inception_3a/3x3_reduce"
  param {
    lr_mult: 1
    decay_mult: 1
  }
  param {
    lr_mult: 2
    decay_mult: 0
  }
  convolution_param {
    num_output: 96
    kernel_size: 1
    weight_filler {
      type: "xavier"
      std: 0.09
    }
    bias_filler {
      type: "constant"
      value: 0.2
    }
  }
}
layer {
  name: "inception_3a/relu_3x3_reduce"
  type: "ReLU"
  bottom: "inception_3a/3x3_reduce"
  top: "inception_3a/3x3_reduce"
}
layer {
  name: "inception_3a/3x3"
  type: "Convolution"
  bottom: "inception_3a/3x3_reduce"
  top: "inception_3a/3x3"
  param {
    lr_mult: 1
    decay_mult: 1
  }
  param {
    lr_mult: 2
    decay_mult: 0
  }
  convolution_param {
    num_output: 128
    pad: 1
    kernel_size: 3
    weight_filler {
      type: "xavier"
      std: 0.03
    }
    bias_filler {
      type: "constant"
      value: 0.2
    }
  }
}
layer {
  name: "inception_3a/relu_3x3"
  type: "ReLU"
  bottom: "inception_3a/3x3"
  top: "inception_3a/3x3"
}
layer {
  name: "inception_3a/5x5_reduce"
  type: "Convolution"
  bottom: "pool2/3x3_s2"
  top: "inception_3a/5x5_reduce"
  param {
    lr_mult: 1
    decay_mult: 1
  }
  param {
    lr_mult: 2
    decay_mult: 0
  }
  convolution_param {
    num_output: 16
    kernel_size: 1
    weight_filler {
      type: "xavier"
      std: 0.2
    }
    bias_filler {
      type: "constant"
      value: 0.2
    }
  }
}
layer {
  name: "inception_3a/relu_5x5_reduce"
  type: "ReLU"
  bottom: "inception_3a/5x5_reduce"
  top: "inception_3a/5x5_reduce"
}
layer {
  name: "inception_3a/5x5"
  type: "Convolution"
  bottom: "inception_3a/5x5_reduce"
  top: "inception_3a/5x5"
  param {
    lr_mult: 1
    decay_mult: 1
  }
  param {
    lr_mult: 2
    decay_mult: 0
  }
  convolution_param {
    num_output: 32
    pad: 2
    kernel_size: 5
    weight_filler {
      type: "xavier"
      std: 0.03
    }
    bias_filler {
      type: "constant"
      value: 0.2
    }
  }
}
layer {
  name: "inception_3a/relu_5x5"
  type: "ReLU"
  bottom: "inception_3a/5x5"
  top: "inception_3a/5x5"
}
layer {
  name: "inception_3a/pool"
  type: "Pooling"
  bottom: "pool2/3x3_s2"
  top: "inception_3a/pool"
  pooling_param {
    pool: MAX
    kernel_size: 3
    stride: 1
    pad: 1
  }
}
layer {
  name: "inception_3a/pool_proj"
  type: "Convolution"
  bottom: "inception_3a/pool"
  top: "inception_3a/pool_proj"
  param {
    lr_mult: 1
    decay_mult: 1
  }
  param {
    lr_mult: 2
    decay_mult: 0
  }
  convolution_param {
    num_output: 32
    kernel_size: 1
    weight_filler {
      type: "xavier"
      std: 0.1
    }
    bias_filler {
      type: "constant"
      value: 0.2
    }
  }
}
layer {
  name: "inception_3a/relu_pool_proj"
  type: "ReLU"
  bottom: "inception_3a/pool_proj"
  top: "inception_3a/pool_proj"
}
layer {
  name: "inception_3a/output"
  type: "Concat"
  bottom: "inception_3a/1x1"
  bottom: "inception_3a/3x3"
  bottom: "inception_3a/5x5"
  bottom: "inception_3a/pool_proj"
  top: "inception_3a/output"
}
layer {
  name: "inception_3b/1x1"
  type: "Convolution"
  bottom: "inception_3a/output"
  top: "inception_3b/1x1"
  param {
    lr_mult: 1
    decay_mult: 1
  }
  param {
    lr_mult: 2
    decay_mult: 0
  }
  convolution_param {
    num_output: 128
    kernel_size: 1
    weight_filler {
      type: "xavier"
      std: 0.03
    }
    bias_filler {
      type: "constant"
      value: 0.2
    }
  }
}
layer {
  name: "inception_3b/relu_1x1"
  type: "ReLU"
  bottom: "inception_3b/1x1"
  top: "inception_3b/1x1"
}
layer {
  name: "inception_3b/3x3_reduce"
  type: "Convolution"
  bottom: "inception_3a/output"
  top: "inception_3b/3x3_reduce"
  param {
    lr_mult: 1
    decay_mult: 1
  }
  param {
    lr_mult: 2
    decay_mult: 0
  }
  convolution_param {
    num_output: 128
    kernel_size: 1
    weight_filler {
      type: "xavier"
      std: 0.09
    }
    bias_filler {
      type: "constant"
      value: 0.2
    }
  }
}
layer {
  name: "inception_3b/relu_3x3_reduce"
  type: "ReLU"
  bottom: "inception_3b/3x3_reduce"
  top: "inception_3b/3x3_reduce"
}
layer {
  name: "inception_3b/3x3"
  type: "Convolution"
  bottom: "inception_3b/3x3_reduce"
  top: "inception_3b/3x3"
  param {
    lr_mult: 1
    decay_mult: 1
  }
  param {
    lr_mult: 2
    decay_mult: 0
  }
  convolution_param {
    num_output: 192
    pad: 1
    kernel_size: 3
    weight_filler {
      type: "xavier"
      std: 0.03
    }
    bias_filler {
      type: "constant"
      value: 0.2
    }
  }
}
layer {
  name: "inception_3b/relu_3x3"
  type: "ReLU"
  bottom: "inception_3b/3x3"
  top: "inception_3b/3x3"
}
layer {
  name: "inception_3b/5x5_reduce"
  type: "Convolution"
  bottom: "inception_3a/output"
  top: "inception_3b/5x5_reduce"
  param {
    lr_mult: 1
    decay_mult: 1
  }
  param {
    lr_mult: 2
    decay_mult: 0
  }
  convolution_param {
    num_output: 32
    kernel_size: 1
    weight_filler {
      type: "xavier"
      std: 0.2
    }
    bias_filler {
      type: "constant"
      value: 0.2
    }
  }
}
layer {
  name: "inception_3b/relu_5x5_reduce"
  type: "ReLU"
  bottom: "inception_3b/5x5_reduce"
  top: "inception_3b/5x5_reduce"
}
layer {
  name: "inception_3b/5x5"
  type: "Convolution"
  bottom: "inception_3b/5x5_reduce"
  top: "inception_3b/5x5"
  param {
    lr_mult: 1
    decay_mult: 1
  }
  param {
    lr_mult: 2
    decay_mult: 0
  }
  convolution_param {
    num_output: 96
    pad: 2
    kernel_size: 5
    weight_filler {
      type: "xavier"
      std: 0.03
    }
    bias_filler {
      type: "constant"
      value: 0.2
    }
  }
}
layer {
  name: "inception_3b/relu_5x5"
  type: "ReLU"
  bottom: "inception_3b/5x5"
  top: "inception_3b/5x5"
}
layer {
  name: "inception_3b/pool"
  type: "Pooling"
  bottom: "inception_3a/output"
  top: "inception_3b/pool"
  pooling_param {
    pool: MAX
    kernel_size: 3
    stride: 1
    pad: 1
  }
}
layer {
  name: "inception_3b/pool_proj"
  type: "Convolution"
  bottom: "inception_3b/pool"
  top: "inception_3b/pool_proj"
  param {
    lr_mult: 1
    decay_mult: 1
  }
  param {
    lr_mult: 2
    decay_mult: 0
  }
  convolution_param {
    num_output: 64
    kernel_size: 1
    weight_filler {
      type: "xavier"
      std: 0.1
    }
    bias_filler {
      type: "constant"
      value: 0.2
    }
  }
}
layer {
  name: "inception_3b/relu_pool_proj"
  type: "ReLU"
  bottom: "inception_3b/pool_proj"
  top: "inception_3b/pool_proj"
}
layer {
  name: "inception_3b/output"
  type: "Concat"
  bottom: "inception_3b/1x1"
  bottom: "inception_3b/3x3"
  bottom: "inception_3b/5x5"
  bottom: "inception_3b/pool_proj"
  top: "inception_3b/output"
}
layer {
  name: "pool3/3x3_s2"
  type: "Pooling"
  bottom: "inception_3b/output"
  top: "pool3/3x3_s2"
  pooling_param {
    pool: MAX
    kernel_size: 3
    stride: 2
  }
}
layer {
  name: "inception_4a/1x1"
  type: "Convolution"
  bottom: "pool3/3x3_s2"
  top: "inception_4a/1x1"
  param {
    lr_mult: 1
    decay_mult: 1
  }
  param {
    lr_mult: 2
    decay_mult: 0
  }
  convolution_param {
    num_output: 192
    kernel_size: 1
    weight_filler {
      type: "xavier"
      std: 0.03
    }
    bias_filler {
      type: "constant"
      value: 0.2
    }
  }
}
layer {
  name: "inception_4a/relu_1x1"
  type: "ReLU"
  bottom: "inception_4a/1x1"
  top: "inception_4a/1x1"
}
layer {
  name: "inception_4a/3x3_reduce"
  type: "Convolution"
  bottom: "pool3/3x3_s2"
  top: "inception_4a/3x3_reduce"
  param {
    lr_mult: 1
    decay_mult: 1
  }
  param {
    lr_mult: 2
    decay_mult: 0
  }
  convolution_param {
    num_output: 96
    kernel_size: 1
    weight_filler {
      type: "xavier"
      std: 0.09
    }
    bias_filler {
      type: "constant"
      value: 0.2
    }
  }
}
layer {
  name: "inception_4a/relu_3x3_reduce"
  type: "ReLU"
  bottom: "inception_4a/3x3_reduce"
  top: "inception_4a/3x3_reduce"
}
layer {
  name: "inception_4a/3x3"
  type: "Convolution"
  bottom: "inception_4a/3x3_reduce"
  top: "inception_4a/3x3"
  param {
    lr_mult: 1
    decay_mult: 1
  }
  param {
    lr_mult: 2
    decay_mult: 0
  }
  convolution_param {
    num_output: 208
    pad: 1
    kernel_size: 3
    weight_filler {
      type: "xavier"
      std: 0.03
    }
    bias_filler {
      type: "constant"
      value: 0.2
    }
  }
}
layer {
  name: "inception_4a/relu_3x3"
  type: "ReLU"
  bottom: "inception_4a/3x3"
  top: "inception_4a/3x3"
}
layer {
  name: "inception_4a/5x5_reduce"
  type: "Convolution"
  bottom: "pool3/3x3_s2"
  top: "inception_4a/5x5_reduce"
  param {
    lr_mult: 1
    decay_mult: 1
  }
  param {
    lr_mult: 2
    decay_mult: 0
  }
  convolution_param {
    num_output: 16
    kernel_size: 1
    weight_filler {
      type: "xavier"
      std: 0.2
    }
    bias_filler {
      type: "constant"
      value: 0.2
    }
  }
}
layer {
  name: "inception_4a/relu_5x5_reduce"
  type: "ReLU"
  bottom: "inception_4a/5x5_reduce"
  top: "inception_4a/5x5_reduce"
}
layer {
  name: "inception_4a/5x5"
  type: "Convolution"
  bottom: "inception_4a/5x5_reduce"
  top: "inception_4a/5x5"
  param {
    lr_mult: 1
    decay_mult: 1
  }
  param {
    lr_mult: 2
    decay_mult: 0
  }
  convolution_param {
    num_output: 48
    pad: 2
    kernel_size: 5
    weight_filler {
      type: "xavier"
      std: 0.03
    }
    bias_filler {
      type: "constant"
      value: 0.2
    }
  }
}
layer {
  name: "inception_4a/relu_5x5"
  type: "ReLU"
  bottom: "inception_4a/5x5"
  top: "inception_4a/5x5"
}
layer {
  name: "inception_4a/pool"
  type: "Pooling"
  bottom: "pool3/3x3_s2"
  top: "inception_4a/pool"
  pooling_param {
    pool: MAX
    kernel_size: 3
    stride: 1
    pad: 1
  }
}
layer {
  name: "inception_4a/pool_proj"
  type: "Convolution"
  bottom: "inception_4a/pool"
  top: "inception_4a/pool_proj"
  param {
    lr_mult: 1
    decay_mult: 1
  }
  param {
    lr_mult: 2
    decay_mult: 0
  }
  convolution_param {
    num_output: 64
    kernel_size: 1
    weight_filler {
      type: "xavier"
      std: 0.1
    }
    bias_filler {
      type: "constant"
      value: 0.2
    }
  }
}
layer {
  name: "inception_4a/relu_pool_proj"
  type: "ReLU"
  bottom: "inception_4a/pool_proj"
  top: "inception_4a/pool_proj"
}
layer {
  name: "inception_4a/output"
  type: "Concat"
  bottom: "inception_4a/1x1"
  bottom: "inception_4a/3x3"
  bottom: "inception_4a/5x5"
  bottom: "inception_4a/pool_proj"
  top: "inception_4a/output"
}
layer {
  name: "loss1/ave_pool"
  type: "Pooling"
  bottom: "inception_4a/output"
  top: "loss1/ave_pool"
  pooling_param {
    pool: AVE
    kernel_size: 5
    stride: 3
  }
}
layer {
  name: "loss1/conv"
  type: "Convolution"
  bottom: "loss1/ave_pool"
  top: "loss1/conv"
  param {
    lr_mult: 1
    decay_mult: 1
  }
  param {
    lr_mult: 2
    decay_mult: 0
  }
  convolution_param {
    num_output: 128
    kernel_size: 1
    weight_filler {
      type: "xavier"
      std: 0.08
    }
    bias_filler {
      type: "constant"
      value: 0.2
    }
  }
}
layer {
  name: "loss1/relu_conv"
  type: "ReLU"
  bottom: "loss1/conv"
  top: "loss1/conv"
}
layer {
  name: "loss1/fc"
  type: "InnerProduct"
  bottom: "loss1/conv"
  top: "loss1/fc"
  param {
    lr_mult: 1
    decay_mult: 1
  }
  param {
    lr_mult: 2
    decay_mult: 0
  }
  inner_product_param {
    num_output: 1024
    weight_filler {
      type: "xavier"
      std: 0.02
    }
    bias_filler {
      type: "constant"
      value: 0.2
    }
  }
}
layer {
  name: "loss1/relu_fc"
  type: "ReLU"
  bottom: "loss1/fc"
  top: "loss1/fc"
}
layer {
  name: "loss1/drop_fc"
  type: "Dropout"
  bottom: "loss1/fc"
  top: "loss1/fc"
  dropout_param {
    dropout_ratio: 0.7
  }
}
layer {
  name: "loss1/classifier_plantvillage"
  type: "InnerProduct"
  bottom: "loss1/fc"
  top: "loss1/classifier_plantvillage"
  param {
    lr_mult: 1
    decay_mult: 1
  }
  param {
    lr_mult: 2
    decay_mult: 0
  }
  inner_product_param {
    num_output: 38
    weight_filler {
      type: "xavier"
      std: 0.0009765625
    }
    bias_filler {
      type: "constant"
      value: 0
    }
  }
}
layer {
  name: "inception_4b/1x1"
  type: "Convolution"
  bottom: "inception_4a/output"
  top: "inception_4b/1x1"
  param {
    lr_mult: 1
    decay_mult: 1
  }
  param {
    lr_mult: 2
    decay_mult: 0
  }
  convolution_param {
    num_output: 160
    kernel_size: 1
    weight_filler {
      type: "xavier"
      std: 0.03
    }
    bias_filler {
      type: "constant"
      value: 0.2
    }
  }
}
layer {
  name: "inception_4b/relu_1x1"
  type: "ReLU"
  bottom: "inception_4b/1x1"
  top: "inception_4b/1x1"
}
layer {
  name: "inception_4b/3x3_reduce"
  type: "Convolution"
  bottom: "inception_4a/output"
  top: "inception_4b/3x3_reduce"
  param {
    lr_mult: 1
    decay_mult: 1
  }
  param {
    lr_mult: 2
    decay_mult: 0
  }
  convolution_param {
    num_output: 112
    kernel_size: 1
    weight_filler {
      type: "xavier"
      std: 0.09
    }
    bias_filler {
      type: "constant"
      value: 0.2
    }
  }
}
layer {
  name: "inception_4b/relu_3x3_reduce"
  type: "ReLU"
  bottom: "inception_4b/3x3_reduce"
  top: "inception_4b/3x3_reduce"
}
layer {
  name: "inception_4b/3x3"
  type: "Convolution"
  bottom: "inception_4b/3x3_reduce"
  top: "inception_4b/3x3"
  param {
    lr_mult: 1
    decay_mult: 1
  }
  param {
    lr_mult: 2
    decay_mult: 0
  }
  convolution_param {
    num_output: 224
    pad: 1
    kernel_size: 3
    weight_filler {
      type: "xavier"
      std: 0.03
    }
    bias_filler {
      type: "constant"
      value: 0.2
    }
  }
}
layer {
  name: "inception_4b/relu_3x3"
  type: "ReLU"
  bottom: "inception_4b/3x3"
  top: "inception_4b/3x3"
}
layer {
  name: "inception_4b/5x5_reduce"
  type: "Convolution"
  bottom: "inception_4a/output"
  top: "inception_4b/5x5_reduce"
  param {
    lr_mult: 1
    decay_mult: 1
  }
  param {
    lr_mult: 2
    decay_mult: 0
  }
  convolution_param {
    num_output: 24
    kernel_size: 1
    weight_filler {
      type: "xavier"
      std: 0.2
    }
    bias_filler {
      type: "constant"
      value: 0.2
    }
  }
}
layer {
  name: "inception_4b/relu_5x5_reduce"
  type: "ReLU"
  bottom: "inception_4b/5x5_reduce"
  top: "inception_4b/5x5_reduce"
}
layer {
  name: "inception_4b/5x5"
  type: "Convolution"
  bottom: "inception_4b/5x5_reduce"
  top: "inception_4b/5x5"
  param {
    lr_mult: 1
    decay_mult: 1
  }
  param {
    lr_mult: 2
    decay_mult: 0
  }
  convolution_param {
    num_output: 64
    pad: 2
    kernel_size: 5
    weight_filler {
      type: "xavier"
      std: 0.03
    }
    bias_filler {
      type: "constant"
      value: 0.2
    }
  }
}
layer {
  name: "inception_4b/relu_5x5"
  type: "ReLU"
  bottom: "inception_4b/5x5"
  top: "inception_4b/5x5"
}
layer {
  name: "inception_4b/pool"
  type: "Pooling"
  bottom: "inception_4a/output"
  top: "inception_4b/pool"
  pooling_param {
    pool: MAX
    kernel_size: 3
    stride: 1
    pad: 1
  }
}
layer {
  name: "inception_4b/pool_proj"
  type: "Convolution"
  bottom: "inception_4b/pool"
  top: "inception_4b/pool_proj"
  param {
    lr_mult: 1
    decay_mult: 1
  }
  param {
    lr_mult: 2
    decay_mult: 0
  }
  convolution_param {
    num_output: 64
    kernel_size: 1
    weight_filler {
      type: "xavier"
      std: 0.1
    }
    bias_filler {
      type: "constant"
      value: 0.2
    }
  }
}
layer {
  name: "inception_4b/relu_pool_proj"
  type: "ReLU"
  bottom: "inception_4b/pool_proj"
  top: "inception_4b/pool_proj"
}
layer {
  name: "inception_4b/output"
  type: "Concat"
  bottom: "inception_4b/1x1"
  bottom: "inception_4b/3x3"
  bottom: "inception_4b/5x5"
  bottom: "inception_4b/pool_proj"
  top: "inception_4b/output"
}
layer {
  name: "inception_4c/1x1"
  type: "Convolution"
  bottom: "inception_4b/output"
  top: "inception_4c/1x1"
  param {
    lr_mult: 1
    decay_mult: 1
  }
  param {
    lr_mult: 2
    decay_mult: 0
  }
  convolution_param {
    num_output: 128
    kernel_size: 1
    weight_filler {
      type: "xavier"
      std: 0.03
    }
    bias_filler {
      type: "constant"
      value: 0.2
    }
  }
}
layer {
  name: "inception_4c/relu_1x1"
  type: "ReLU"
  bottom: "inception_4c/1x1"
  top: "inception_4c/1x1"
}
layer {
  name: "inception_4c/3x3_reduce"
  type: "Convolution"
  bottom: "inception_4b/output"
  top: "inception_4c/3x3_reduce"
  param {
    lr_mult: 1
    decay_mult: 1
  }
  param {
    lr_mult: 2
    decay_mult: 0
  }
  convolution_param {
    num_output: 128
    kernel_size: 1
    weight_filler {
      type: "xavier"
      std: 0.09
    }
    bias_filler {
      type: "constant"
      value: 0.2
    }
  }
}
layer {
  name: "inception_4c/relu_3x3_reduce"
  type: "ReLU"
  bottom: "inception_4c/3x3_reduce"
  top: "inception_4c/3x3_reduce"
}
layer {
  name: "inception_4c/3x3"
  type: "Convolution"
  bottom: "inception_4c/3x3_reduce"
  top: "inception_4c/3x3"
  param {
    lr_mult: 1
    decay_mult: 1
  }
  param {
    lr_mult: 2
    decay_mult: 0
  }
  convolution_param {
    num_output: 256
    pad: 1
    kernel_size: 3
    weight_filler {
      type: "xavier"
      std: 0.03
    }
    bias_filler {
      type: "constant"
      value: 0.2
    }
  }
}
layer {
  name: "inception_4c/relu_3x3"
  type: "ReLU"
  bottom: "inception_4c/3x3"
  top: "inception_4c/3x3"
}
layer {
  name: "inception_4c/5x5_reduce"
  type: "Convolution"
  bottom: "inception_4b/output"
  top: "inception_4c/5x5_reduce"
  param {
    lr_mult: 1
    decay_mult: 1
  }
  param {
    lr_mult: 2
    decay_mult: 0
  }
  convolution_param {
    num_output: 24
    kernel_size: 1
    weight_filler {
      type: "xavier"
      std: 0.2
    }
    bias_filler {
      type: "constant"
      value: 0.2
    }
  }
}
layer {
  name: "inception_4c/relu_5x5_reduce"
  type: "ReLU"
  bottom: "inception_4c/5x5_reduce"
  top: "inception_4c/5x5_reduce"
}
layer {
  name: "inception_4c/5x5"
  type: "Convolution"
  bottom: "inception_4c/5x5_reduce"
  top: "inception_4c/5x5"
  param {
    lr_mult: 1
    decay_mult: 1
  }
  param {
    lr_mult: 2
    decay_mult: 0
  }
  convolution_param {
    num_output: 64
    pad: 2
    kernel_size: 5
    weight_filler {
      type: "xavier"
      std: 0.03
    }
    bias_filler {
      type: "constant"
      value: 0.2
    }
  }
}
layer {
  name: "inception_4c/relu_5x5"
  type: "ReLU"
  bottom: "inception_4c/5x5"
  top: "inception_4c/5x5"
}
layer {
  name: "inception_4c/pool"
  type: "Pooling"
  bottom: "inception_4b/output"
  top: "inception_4c/pool"
  pooling_param {
    pool: MAX
    kernel_size: 3
    stride: 1
    pad: 1
  }
}
layer {
  name: "inception_4c/pool_proj"
  type: "Convolution"
  bottom: "inception_4c/pool"
  top: "inception_4c/pool_proj"
  param {
    lr_mult: 1
    decay_mult: 1
  }
  param {
    lr_mult: 2
    decay_mult: 0
  }
  convolution_param {
    num_output: 64
    kernel_size: 1
    weight_filler {
      type: "xavier"
      std: 0.1
    }
    bias_filler {
      type: "constant"
      value: 0.2
    }
  }
}
layer {
  name: "inception_4c/relu_pool_proj"
  type: "ReLU"
  bottom: "inception_4c/pool_proj"
  top: "inception_4c/pool_proj"
}
layer {
  name: "inception_4c/output"
  type: "Concat"
  bottom: "inception_4c/1x1"
  bottom: "inception_4c/3x3"
  bottom: "inception_4c/5x5"
  bottom: "inception_4c/pool_proj"
  top: "inception_4c/output"
}
layer {
  name: "inception_4d/1x1"
  type: "Convolution"
  bottom: "inception_4c/output"
  top: "inception_4d/1x1"
  param {
    lr_mult: 1
    decay_mult: 1
  }
  param {
    lr_mult: 2
    decay_mult: 0
  }
  convolution_param {
    num_output: 112
    kernel_size: 1
    weight_filler {
      type: "xavier"
      std: 0.03
    }
    bias_filler {
      type: "constant"
      value: 0.2
    }
  }
}
layer {
  name: "inception_4d/relu_1x1"
  type: "ReLU"
  bottom: "inception_4d/1x1"
  top: "inception_4d/1x1"
}
layer {
  name: "inception_4d/3x3_reduce"
  type: "Convolution"
  bottom: "inception_4c/output"
  top: "inception_4d/3x3_reduce"
  param {
    lr_mult: 1
    decay_mult: 1
  }
  param {
    lr_mult: 2
    decay_mult: 0
  }
  convolution_param {
    num_output: 144
    kernel_size: 1
    weight_filler {
      type: "xavier"
      std: 0.09
    }
    bias_filler {
      type: "constant"
      value: 0.2
    }
  }
}
layer {
  name: "inception_4d/relu_3x3_reduce"
  type: "ReLU"
  bottom: "inception_4d/3x3_reduce"
  top: "inception_4d/3x3_reduce"
}
layer {
  name: "inception_4d/3x3"
  type: "Convolution"
  bottom: "inception_4d/3x3_reduce"
  top: "inception_4d/3x3"
  param {
    lr_mult: 1
    decay_mult: 1
  }
  param {
    lr_mult: 2
    decay_mult: 0
  }
  convolution_param {
    num_output: 288
    pad: 1
    kernel_size: 3
    weight_filler {
      type: "xavier"
      std: 0.03
    }
    bias_filler {
      type: "constant"
      value: 0.2
    }
  }
}
layer {
  name: "inception_4d/relu_3x3"
  type: "ReLU"
  bottom: "inception_4d/3x3"
  top: "inception_4d/3x3"
}
layer {
  name: "inception_4d/5x5_reduce"
  type: "Convolution"
  bottom: "inception_4c/output"
  top: "inception_4d/5x5_reduce"
  param {
    lr_mult: 1
    decay_mult: 1
  }
  param {
    lr_mult: 2
    decay_mult: 0
  }
  convolution_param {
    num_output: 32
    kernel_size: 1
    weight_filler {
      type: "xavier"
      std: 0.2
    }
    bias_filler {
      type: "constant"
      value: 0.2
    }
  }
}
layer {
  name: "inception_4d/relu_5x5_reduce"
  type: "ReLU"
  bottom: "inception_4d/5x5_reduce"
  top: "inception_4d/5x5_reduce"
}
layer {
  name: "inception_4d/5x5"
  type: "Convolution"
  bottom: "inception_4d/5x5_reduce"
  top: "inception_4d/5x5"
  param {
    lr_mult: 1
    decay_mult: 1
  }
  param {
    lr_mult: 2
    decay_mult: 0
  }
  convolution_param {
    num_output: 64
    pad: 2
    kernel_size: 5
    weight_filler {
      type: "xavier"
      std: 0.03
    }
    bias_filler {
      type: "constant"
      value: 0.2
    }
  }
}
layer {
  name: "inception_4d/relu_5x5"
  type: "ReLU"
  bottom: "inception_4d/5x5"
  top: "inception_4d/5x5"
}
layer {
  name: "inception_4d/pool"
  type: "Pooling"
  bottom: "inception_4c/output"
  top: "inception_4d/pool"
  pooling_param {
    pool: MAX
    kernel_size: 3
    stride: 1
    pad: 1
  }
}
layer {
  name: "inception_4d/pool_proj"
  type: "Convolution"
  bottom: "inception_4d/pool"
  top: "inception_4d/pool_proj"
  param {
    lr_mult: 1
    decay_mult: 1
  }
  param {
    lr_mult: 2
    decay_mult: 0
  }
  convolution_param {
    num_output: 64
    kernel_size: 1
    weight_filler {
      type: "xavier"
      std: 0.1
    }
    bias_filler {
      type: "constant"
      value: 0.2
    }
  }
}
layer {
  name: "inception_4d/relu_pool_proj"
  type: "ReLU"
  bottom: "inception_4d/pool_proj"
  top: "inception_4d/pool_proj"
}
layer {
  name: "inception_4d/output"
  type: "Concat"
  bottom: "inception_4d/1x1"
  bottom: "inception_4d/3x3"
  bottom: "inception_4d/5x5"
  bottom: "inception_4d/pool_proj"
  top: "inception_4d/output"
}
layer {
  name: "loss2/ave_pool"
  type: "Pooling"
  bottom: "inception_4d/output"
  top: "loss2/ave_pool"
  pooling_param {
    pool: AVE
    kernel_size: 5
    stride: 3
  }
}
layer {
  name: "loss2/conv"
  type: "Convolution"
  bottom: "loss2/ave_pool"
  top: "loss2/conv"
  param {
    lr_mult: 1
    decay_mult: 1
  }
  param {
    lr_mult: 2
    decay_mult: 0
  }
  convolution_param {
    num_output: 128
    kernel_size: 1
    weight_filler {
      type: "xavier"
      std: 0.08
    }
    bias_filler {
      type: "constant"
      value: 0.2
    }
  }
}
layer {
  name: "loss2/relu_conv"
  type: "ReLU"
  bottom: "loss2/conv"
  top: "loss2/conv"
}
layer {
  name: "loss2/fc"
  type: "InnerProduct"
  bottom: "loss2/conv"
  top: "loss2/fc"
  param {
    lr_mult: 1
    decay_mult: 1
  }
  param {
    lr_mult: 2
    decay_mult: 0
  }
  inner_product_param {
    num_output: 1024
    weight_filler {
      type: "xavier"
      std: 0.02
    }
    bias_filler {
      type: "constant"
      value: 0.2
    }
  }
}
layer {
  name: "loss2/relu_fc"
  type: "ReLU"
  bottom: "loss2/fc"
  top: "loss2/fc"
}
layer {
  name: "loss2/drop_fc"
  type: "Dropout"
  bottom: "loss2/fc"
  top: "loss2/fc"
  dropout_param {
    dropout_ratio: 0.7
  }
}
layer {
  name: "loss2/classifier_plantvillage"
  type: "InnerProduct"
  bottom: "loss2/fc"
  top: "loss2/classifier_plantvillage"
  param {
    lr_mult: 1
    decay_mult: 1
  }
  param {
    lr_mult: 2
    decay_mult: 0
  }
  inner_product_param {
    num_output: 38
    weight_filler {
      type: "xavier"
      std: 0.0009765625
    }
    bias_filler {
      type: "constant"
      value: 0
    }
  }
}
layer {
  name: "inception_4e/1x1"
  type: "Convolution"
  bottom: "inception_4d/output"
  top: "inception_4e/1x1"
  param {
    lr_mult: 1
    decay_mult: 1
  }
  param {
    lr_mult: 2
    decay_mult: 0
  }
  convolution_param {
    num_output: 256
    kernel_size: 1
    weight_filler {
      type: "xavier"
      std: 0.03
    }
    bias_filler {
      type: "constant"
      value: 0.2
    }
  }
}
layer {
  name: "inception_4e/relu_1x1"
  type: "ReLU"
  bottom: "inception_4e/1x1"
  top: "inception_4e/1x1"
}
layer {
  name: "inception_4e/3x3_reduce"
  type: "Convolution"
  bottom: "inception_4d/output"
  top: "inception_4e/3x3_reduce"
  param {
    lr_mult: 1
    decay_mult: 1
  }
  param {
    lr_mult: 2
    decay_mult: 0
  }
  convolution_param {
    num_output: 160
    kernel_size: 1
    weight_filler {
      type: "xavier"
      std: 0.09
    }
    bias_filler {
      type: "constant"
      value: 0.2
    }
  }
}
layer {
  name: "inception_4e/relu_3x3_reduce"
  type: "ReLU"
  bottom: "inception_4e/3x3_reduce"
  top: "inception_4e/3x3_reduce"
}
layer {
  name: "inception_4e/3x3"
  type: "Convolution"
  bottom: "inception_4e/3x3_reduce"
  top: "inception_4e/3x3"
  param {
    lr_mult: 1
    decay_mult: 1
  }
  param {
    lr_mult: 2
    decay_mult: 0
  }
  convolution_param {
    num_output: 320
    pad: 1
    kernel_size: 3
    weight_filler {
      type: "xavier"
      std: 0.03
    }
    bias_filler {
      type: "constant"
      value: 0.2
    }
  }
}
layer {
  name: "inception_4e/relu_3x3"
  type: "ReLU"
  bottom: "inception_4e/3x3"
  top: "inception_4e/3x3"
}
layer {
  name: "inception_4e/5x5_reduce"
  type: "Convolution"
  bottom: "inception_4d/output"
  top: "inception_4e/5x5_reduce"
  param {
    lr_mult: 1
    decay_mult: 1
  }
  param {
    lr_mult: 2
    decay_mult: 0
  }
  convolution_param {
    num_output: 32
    kernel_size: 1
    weight_filler {
      type: "xavier"
      std: 0.2
    }
    bias_filler {
      type: "constant"
      value: 0.2
    }
  }
}
layer {
  name: "inception_4e/relu_5x5_reduce"
  type: "ReLU"
  bottom: "inception_4e/5x5_reduce"
  top: "inception_4e/5x5_reduce"
}
layer {
  name: "inception_4e/5x5"
  type: "Convolution"
  bottom: "inception_4e/5x5_reduce"
  top: "inception_4e/5x5"
  p
I0403 14:54:43.846848 30600 layer_factory.hpp:77] Creating layer data
I0403 14:54:43.847489 30600 net.cpp:91] Creating Layer data
I0403 14:54:43.847523 30600 net.cpp:399] data -> data
I0403 14:54:43.847579 30600 net.cpp:399] data -> label
I0403 14:54:43.847617 30600 data_transformer.cpp:25] Loading mean file from: /home/mohanty/data/final_dataset/lmdb/color-20-80/mean.binaryproto
I0403 14:54:43.851544 30603 db_lmdb.cpp:38] Opened lmdb /home/mohanty/data/final_dataset/lmdb/color-20-80/test_db
I0403 14:54:43.861455 30600 data_layer.cpp:41] output data size: 24,3,224,224
I0403 14:54:43.889441 30600 net.cpp:141] Setting up data
I0403 14:54:43.889530 30600 net.cpp:148] Top shape: 24 3 224 224 (3612672)
I0403 14:54:43.889555 30600 net.cpp:148] Top shape: 24 (24)
I0403 14:54:43.889571 30600 net.cpp:156] Memory required for data: 14450784
I0403 14:54:43.889600 30600 layer_factory.hpp:77] Creating layer label_data_1_split
I0403 14:54:43.889629 30600 net.cpp:91] Creating Layer label_data_1_split
I0403 14:54:43.889649 30600 net.cpp:425] label_data_1_split <- label
I0403 14:54:43.889684 30600 net.cpp:399] label_data_1_split -> label_data_1_split_0
I0403 14:54:43.889714 30600 net.cpp:399] label_data_1_split -> label_data_1_split_1
I0403 14:54:43.889737 30600 net.cpp:399] label_data_1_split -> label_data_1_split_2
I0403 14:54:43.889761 30600 net.cpp:399] label_data_1_split -> label_data_1_split_3
I0403 14:54:43.889788 30600 net.cpp:399] label_data_1_split -> label_data_1_split_4
I0403 14:54:43.889811 30600 net.cpp:399] label_data_1_split -> label_data_1_split_5
I0403 14:54:43.889832 30600 net.cpp:399] label_data_1_split -> label_data_1_split_6
I0403 14:54:43.889856 30600 net.cpp:399] label_data_1_split -> label_data_1_split_7
I0403 14:54:43.889879 30600 net.cpp:399] label_data_1_split -> label_data_1_split_8
I0403 14:54:43.889901 30600 net.cpp:399] label_data_1_split -> label_data_1_split_9
I0403 14:54:43.890022 30600 net.cpp:141] Setting up label_data_1_split
I0403 14:54:43.890048 30600 net.cpp:148] Top shape: 24 (24)
I0403 14:54:43.890067 30600 net.cpp:148] Top shape: 24 (24)
I0403 14:54:43.890085 30600 net.cpp:148] Top shape: 24 (24)
I0403 14:54:43.890102 30600 net.cpp:148] Top shape: 24 (24)
I0403 14:54:43.890120 30600 net.cpp:148] Top shape: 24 (24)
I0403 14:54:43.890136 30600 net.cpp:148] Top shape: 24 (24)
I0403 14:54:43.890153 30600 net.cpp:148] Top shape: 24 (24)
I0403 14:54:43.890172 30600 net.cpp:148] Top shape: 24 (24)
I0403 14:54:43.890188 30600 net.cpp:148] Top shape: 24 (24)
I0403 14:54:43.890205 30600 net.cpp:148] Top shape: 24 (24)
I0403 14:54:43.890252 30600 net.cpp:156] Memory required for data: 14451744
I0403 14:54:43.890270 30600 layer_factory.hpp:77] Creating layer conv1/7x7_s2
I0403 14:54:43.890303 30600 net.cpp:91] Creating Layer conv1/7x7_s2
I0403 14:54:43.890324 30600 net.cpp:425] conv1/7x7_s2 <- data
I0403 14:54:43.890350 30600 net.cpp:399] conv1/7x7_s2 -> conv1/7x7_s2
I0403 14:54:44.035272 30600 net.cpp:141] Setting up conv1/7x7_s2
I0403 14:54:44.035356 30600 net.cpp:148] Top shape: 24 64 112 112 (19267584)
I0403 14:54:44.035377 30600 net.cpp:156] Memory required for data: 91522080
I0403 14:54:44.035411 30600 layer_factory.hpp:77] Creating layer conv1/relu_7x7
I0403 14:54:44.035440 30600 net.cpp:91] Creating Layer conv1/relu_7x7
I0403 14:54:44.035461 30600 net.cpp:425] conv1/relu_7x7 <- conv1/7x7_s2
I0403 14:54:44.035483 30600 net.cpp:386] conv1/relu_7x7 -> conv1/7x7_s2 (in-place)
I0403 14:54:44.035758 30600 net.cpp:141] Setting up conv1/relu_7x7
I0403 14:54:44.035786 30600 net.cpp:148] Top shape: 24 64 112 112 (19267584)
I0403 14:54:44.035804 30600 net.cpp:156] Memory required for data: 168592416
I0403 14:54:44.035820 30600 layer_factory.hpp:77] Creating layer pool1/3x3_s2
I0403 14:54:44.035847 30600 net.cpp:91] Creating Layer pool1/3x3_s2
I0403 14:54:44.035866 30600 net.cpp:425] pool1/3x3_s2 <- conv1/7x7_s2
I0403 14:54:44.035887 30600 net.cpp:399] pool1/3x3_s2 -> pool1/3x3_s2
I0403 14:54:44.035964 30600 net.cpp:141] Setting up pool1/3x3_s2
I0403 14:54:44.035994 30600 net.cpp:148] Top shape: 24 64 56 56 (4816896)
I0403 14:54:44.036061 30600 net.cpp:156] Memory required for data: 187860000
I0403 14:54:44.036083 30600 layer_factory.hpp:77] Creating layer pool1/norm1
I0403 14:54:44.036111 30600 net.cpp:91] Creating Layer pool1/norm1
I0403 14:54:44.036131 30600 net.cpp:425] pool1/norm1 <- pool1/3x3_s2
I0403 14:54:44.036151 30600 net.cpp:399] pool1/norm1 -> pool1/norm1
I0403 14:54:44.036454 30600 net.cpp:141] Setting up pool1/norm1
I0403 14:54:44.036484 30600 net.cpp:148] Top shape: 24 64 56 56 (4816896)
I0403 14:54:44.036502 30600 net.cpp:156] Memory required for data: 207127584
I0403 14:54:44.036520 30600 layer_factory.hpp:77] Creating layer conv2/3x3_reduce
I0403 14:54:44.036546 30600 net.cpp:91] Creating Layer conv2/3x3_reduce
I0403 14:54:44.036566 30600 net.cpp:425] conv2/3x3_reduce <- pool1/norm1
I0403 14:54:44.036587 30600 net.cpp:399] conv2/3x3_reduce -> conv2/3x3_reduce
I0403 14:54:44.038030 30600 net.cpp:141] Setting up conv2/3x3_reduce
I0403 14:54:44.038061 30600 net.cpp:148] Top shape: 24 64 56 56 (4816896)
I0403 14:54:44.038079 30600 net.cpp:156] Memory required for data: 226395168
I0403 14:54:44.038103 30600 layer_factory.hpp:77] Creating layer conv2/relu_3x3_reduce
I0403 14:54:44.038125 30600 net.cpp:91] Creating Layer conv2/relu_3x3_reduce
I0403 14:54:44.038142 30600 net.cpp:425] conv2/relu_3x3_reduce <- conv2/3x3_reduce
I0403 14:54:44.038161 30600 net.cpp:386] conv2/relu_3x3_reduce -> conv2/3x3_reduce (in-place)
I0403 14:54:44.038444 30600 net.cpp:141] Setting up conv2/relu_3x3_reduce
I0403 14:54:44.038472 30600 net.cpp:148] Top shape: 24 64 56 56 (4816896)
I0403 14:54:44.038488 30600 net.cpp:156] Memory required for data: 245662752
I0403 14:54:44.038506 30600 layer_factory.hpp:77] Creating layer conv2/3x3
I0403 14:54:44.038533 30600 net.cpp:91] Creating Layer conv2/3x3
I0403 14:54:44.038553 30600 net.cpp:425] conv2/3x3 <- conv2/3x3_reduce
I0403 14:54:44.038575 30600 net.cpp:399] conv2/3x3 -> conv2/3x3
I0403 14:54:44.041003 30600 net.cpp:141] Setting up conv2/3x3
I0403 14:54:44.041036 30600 net.cpp:148] Top shape: 24 192 56 56 (14450688)
I0403 14:54:44.041054 30600 net.cpp:156] Memory required for data: 303465504
I0403 14:54:44.041079 30600 layer_factory.hpp:77] Creating layer conv2/relu_3x3
I0403 14:54:44.041105 30600 net.cpp:91] Creating Layer conv2/relu_3x3
I0403 14:54:44.041126 30600 net.cpp:425] conv2/relu_3x3 <- conv2/3x3
I0403 14:54:44.041144 30600 net.cpp:386] conv2/relu_3x3 -> conv2/3x3 (in-place)
I0403 14:54:44.041331 30600 net.cpp:141] Setting up conv2/relu_3x3
I0403 14:54:44.041388 30600 net.cpp:148] Top shape: 24 192 56 56 (14450688)
I0403 14:54:44.041440 30600 net.cpp:156] Memory required for data: 361268256
I0403 14:54:44.041458 30600 layer_factory.hpp:77] Creating layer conv2/norm2
I0403 14:54:44.041478 30600 net.cpp:91] Creating Layer conv2/norm2
I0403 14:54:44.041496 30600 net.cpp:425] conv2/norm2 <- conv2/3x3
I0403 14:54:44.041519 30600 net.cpp:399] conv2/norm2 -> conv2/norm2
I0403 14:54:44.041838 30600 net.cpp:141] Setting up conv2/norm2
I0403 14:54:44.041868 30600 net.cpp:148] Top shape: 24 192 56 56 (14450688)
I0403 14:54:44.041885 30600 net.cpp:156] Memory required for data: 419071008
I0403 14:54:44.041901 30600 layer_factory.hpp:77] Creating layer pool2/3x3_s2
I0403 14:54:44.041920 30600 net.cpp:91] Creating Layer pool2/3x3_s2
I0403 14:54:44.041939 30600 net.cpp:425] pool2/3x3_s2 <- conv2/norm2
I0403 14:54:44.041961 30600 net.cpp:399] pool2/3x3_s2 -> pool2/3x3_s2
I0403 14:54:44.042019 30600 net.cpp:141] Setting up pool2/3x3_s2
I0403 14:54:44.042047 30600 net.cpp:148] Top shape: 24 192 28 28 (3612672)
I0403 14:54:44.042063 30600 net.cpp:156] Memory required for data: 433521696
I0403 14:54:44.042080 30600 layer_factory.hpp:77] Creating layer pool2/3x3_s2_pool2/3x3_s2_0_split
I0403 14:54:44.042099 30600 net.cpp:91] Creating Layer pool2/3x3_s2_pool2/3x3_s2_0_split
I0403 14:54:44.042116 30600 net.cpp:425] pool2/3x3_s2_pool2/3x3_s2_0_split <- pool2/3x3_s2
I0403 14:54:44.042138 30600 net.cpp:399] pool2/3x3_s2_pool2/3x3_s2_0_split -> pool2/3x3_s2_pool2/3x3_s2_0_split_0
I0403 14:54:44.042162 30600 net.cpp:399] pool2/3x3_s2_pool2/3x3_s2_0_split -> pool2/3x3_s2_pool2/3x3_s2_0_split_1
I0403 14:54:44.042186 30600 net.cpp:399] pool2/3x3_s2_pool2/3x3_s2_0_split -> pool2/3x3_s2_pool2/3x3_s2_0_split_2
I0403 14:54:44.042207 30600 net.cpp:399] pool2/3x3_s2_pool2/3x3_s2_0_split -> pool2/3x3_s2_pool2/3x3_s2_0_split_3
I0403 14:54:44.042282 30600 net.cpp:141] Setting up pool2/3x3_s2_pool2/3x3_s2_0_split
I0403 14:54:44.042311 30600 net.cpp:148] Top shape: 24 192 28 28 (3612672)
I0403 14:54:44.042330 30600 net.cpp:148] Top shape: 24 192 28 28 (3612672)
I0403 14:54:44.042351 30600 net.cpp:148] Top shape: 24 192 28 28 (3612672)
I0403 14:54:44.042371 30600 net.cpp:148] Top shape: 24 192 28 28 (3612672)
I0403 14:54:44.042385 30600 net.cpp:156] Memory required for data: 491324448
I0403 14:54:44.042400 30600 layer_factory.hpp:77] Creating layer inception_3a/1x1
I0403 14:54:44.042425 30600 net.cpp:91] Creating Layer inception_3a/1x1
I0403 14:54:44.042445 30600 net.cpp:425] inception_3a/1x1 <- pool2/3x3_s2_pool2/3x3_s2_0_split_0
I0403 14:54:44.042466 30600 net.cpp:399] inception_3a/1x1 -> inception_3a/1x1
I0403 14:54:44.044085 30600 net.cpp:141] Setting up inception_3a/1x1
I0403 14:54:44.044116 30600 net.cpp:148] Top shape: 24 64 28 28 (1204224)
I0403 14:54:44.044133 30600 net.cpp:156] Memory required for data: 496141344
I0403 14:54:44.044154 30600 layer_factory.hpp:77] Creating layer inception_3a/relu_1x1
I0403 14:54:44.044178 30600 net.cpp:91] Creating Layer inception_3a/relu_1x1
I0403 14:54:44.044198 30600 net.cpp:425] inception_3a/relu_1x1 <- inception_3a/1x1
I0403 14:54:44.044216 30600 net.cpp:386] inception_3a/relu_1x1 -> inception_3a/1x1 (in-place)
I0403 14:54:44.044415 30600 net.cpp:141] Setting up inception_3a/relu_1x1
I0403 14:54:44.044445 30600 net.cpp:148] Top shape: 24 64 28 28 (1204224)
I0403 14:54:44.044462 30600 net.cpp:156] Memory required for data: 500958240
I0403 14:54:44.044479 30600 layer_factory.hpp:77] Creating layer inception_3a/3x3_reduce
I0403 14:54:44.044504 30600 net.cpp:91] Creating Layer inception_3a/3x3_reduce
I0403 14:54:44.044524 30600 net.cpp:425] inception_3a/3x3_reduce <- pool2/3x3_s2_pool2/3x3_s2_0_split_1
I0403 14:54:44.044546 30600 net.cpp:399] inception_3a/3x3_reduce -> inception_3a/3x3_reduce
I0403 14:54:44.046353 30600 net.cpp:141] Setting up inception_3a/3x3_reduce
I0403 14:54:44.046386 30600 net.cpp:148] Top shape: 24 96 28 28 (1806336)
I0403 14:54:44.046403 30600 net.cpp:156] Memory required for data: 508183584
I0403 14:54:44.046427 30600 layer_factory.hpp:77] Creating layer inception_3a/relu_3x3_reduce
I0403 14:54:44.046468 30600 net.cpp:91] Creating Layer inception_3a/relu_3x3_reduce
I0403 14:54:44.046489 30600 net.cpp:425] inception_3a/relu_3x3_reduce <- inception_3a/3x3_reduce
I0403 14:54:44.046510 30600 net.cpp:386] inception_3a/relu_3x3_reduce -> inception_3a/3x3_reduce (in-place)
I0403 14:54:44.046702 30600 net.cpp:141] Setting up inception_3a/relu_3x3_reduce
I0403 14:54:44.046730 30600 net.cpp:148] Top shape: 24 96 28 28 (1806336)
I0403 14:54:44.046747 30600 net.cpp:156] Memory required for data: 515408928
I0403 14:54:44.046763 30600 layer_factory.hpp:77] Creating layer inception_3a/3x3
I0403 14:54:44.046788 30600 net.cpp:91] Creating Layer inception_3a/3x3
I0403 14:54:44.046808 30600 net.cpp:425] inception_3a/3x3 <- inception_3a/3x3_reduce
I0403 14:54:44.046833 30600 net.cpp:399] inception_3a/3x3 -> inception_3a/3x3
I0403 14:54:44.048571 30600 net.cpp:141] Setting up inception_3a/3x3
I0403 14:54:44.048604 30600 net.cpp:148] Top shape: 24 128 28 28 (2408448)
I0403 14:54:44.048622 30600 net.cpp:156] Memory required for data: 525042720
I0403 14:54:44.048643 30600 layer_factory.hpp:77] Creating layer inception_3a/relu_3x3
I0403 14:54:44.048662 30600 net.cpp:91] Creating Layer inception_3a/relu_3x3
I0403 14:54:44.048681 30600 net.cpp:425] inception_3a/relu_3x3 <- inception_3a/3x3
I0403 14:54:44.048699 30600 net.cpp:386] inception_3a/relu_3x3 -> inception_3a/3x3 (in-place)
I0403 14:54:44.048985 30600 net.cpp:141] Setting up inception_3a/relu_3x3
I0403 14:54:44.049016 30600 net.cpp:148] Top shape: 24 128 28 28 (2408448)
I0403 14:54:44.049034 30600 net.cpp:156] Memory required for data: 534676512
I0403 14:54:44.049052 30600 layer_factory.hpp:77] Creating layer inception_3a/5x5_reduce
I0403 14:54:44.049077 30600 net.cpp:91] Creating Layer inception_3a/5x5_reduce
I0403 14:54:44.049098 30600 net.cpp:425] inception_3a/5x5_reduce <- pool2/3x3_s2_pool2/3x3_s2_0_split_2
I0403 14:54:44.049119 30600 net.cpp:399] inception_3a/5x5_reduce -> inception_3a/5x5_reduce
I0403 14:54:44.050132 30600 net.cpp:141] Setting up inception_3a/5x5_reduce
I0403 14:54:44.050165 30600 net.cpp:148] Top shape: 24 16 28 28 (301056)
I0403 14:54:44.050182 30600 net.cpp:156] Memory required for data: 535880736
I0403 14:54:44.050204 30600 layer_factory.hpp:77] Creating layer inception_3a/relu_5x5_reduce
I0403 14:54:44.050223 30600 net.cpp:91] Creating Layer inception_3a/relu_5x5_reduce
I0403 14:54:44.050242 30600 net.cpp:425] inception_3a/relu_5x5_reduce <- inception_3a/5x5_reduce
I0403 14:54:44.050261 30600 net.cpp:386] inception_3a/relu_5x5_reduce -> inception_3a/5x5_reduce (in-place)
I0403 14:54:44.050586 30600 net.cpp:141] Setting up inception_3a/relu_5x5_reduce
I0403 14:54:44.050616 30600 net.cpp:148] Top shape: 24 16 28 28 (301056)
I0403 14:54:44.050632 30600 net.cpp:156] Memory required for data: 537084960
I0403 14:54:44.050649 30600 layer_factory.hpp:77] Creating layer inception_3a/5x5
I0403 14:54:44.050673 30600 net.cpp:91] Creating Layer inception_3a/5x5
I0403 14:54:44.050691 30600 net.cpp:425] inception_3a/5x5 <- inception_3a/5x5_reduce
I0403 14:54:44.050715 30600 net.cpp:399] inception_3a/5x5 -> inception_3a/5x5
I0403 14:54:44.051780 30600 net.cpp:141] Setting up inception_3a/5x5
I0403 14:54:44.051810 30600 net.cpp:148] Top shape: 24 32 28 28 (602112)
I0403 14:54:44.051828 30600 net.cpp:156] Memory required for data: 539493408
I0403 14:54:44.051849 30600 layer_factory.hpp:77] Creating layer inception_3a/relu_5x5
I0403 14:54:44.051872 30600 net.cpp:91] Creating Layer inception_3a/relu_5x5
I0403 14:54:44.051889 30600 net.cpp:425] inception_3a/relu_5x5 <- inception_3a/5x5
I0403 14:54:44.051909 30600 net.cpp:386] inception_3a/relu_5x5 -> inception_3a/5x5 (in-place)
I0403 14:54:44.052090 30600 net.cpp:141] Setting up inception_3a/relu_5x5
I0403 14:54:44.052119 30600 net.cpp:148] Top shape: 24 32 28 28 (602112)
I0403 14:54:44.052136 30600 net.cpp:156] Memory required for data: 541901856
I0403 14:54:44.052152 30600 layer_factory.hpp:77] Creating layer inception_3a/pool
I0403 14:54:44.052172 30600 net.cpp:91] Creating Layer inception_3a/pool
I0403 14:54:44.052189 30600 net.cpp:425] inception_3a/pool <- pool2/3x3_s2_pool2/3x3_s2_0_split_3
I0403 14:54:44.052227 30600 net.cpp:399] inception_3a/pool -> inception_3a/pool
I0403 14:54:44.052289 30600 net.cpp:141] Setting up inception_3a/pool
I0403 14:54:44.052316 30600 net.cpp:148] Top shape: 24 192 28 28 (3612672)
I0403 14:54:44.052333 30600 net.cpp:156] Memory required for data: 556352544
I0403 14:54:44.052355 30600 layer_factory.hpp:77] Creating layer inception_3a/pool_proj
I0403 14:54:44.052381 30600 net.cpp:91] Creating Layer inception_3a/pool_proj
I0403 14:54:44.052402 30600 net.cpp:425] inception_3a/pool_proj <- inception_3a/pool
I0403 14:54:44.052426 30600 net.cpp:399] inception_3a/pool_proj -> inception_3a/pool_proj
I0403 14:54:44.053443 30600 net.cpp:141] Setting up inception_3a/pool_proj
I0403 14:54:44.053474 30600 net.cpp:148] Top shape: 24 32 28 28 (602112)
I0403 14:54:44.053493 30600 net.cpp:156] Memory required for data: 558760992
I0403 14:54:44.053519 30600 layer_factory.hpp:77] Creating layer inception_3a/relu_pool_proj
I0403 14:54:44.053540 30600 net.cpp:91] Creating Layer inception_3a/relu_pool_proj
I0403 14:54:44.053560 30600 net.cpp:425] inception_3a/relu_pool_proj <- inception_3a/pool_proj
I0403 14:54:44.053580 30600 net.cpp:386] inception_3a/relu_pool_proj -> inception_3a/pool_proj (in-place)
I0403 14:54:44.053866 30600 net.cpp:141] Setting up inception_3a/relu_pool_proj
I0403 14:54:44.053897 30600 net.cpp:148] Top shape: 24 32 28 28 (602112)
I0403 14:54:44.053915 30600 net.cpp:156] Memory required for data: 561169440
I0403 14:54:44.053931 30600 layer_factory.hpp:77] Creating layer inception_3a/output
I0403 14:54:44.053952 30600 net.cpp:91] Creating Layer inception_3a/output
I0403 14:54:44.053969 30600 net.cpp:425] inception_3a/output <- inception_3a/1x1
I0403 14:54:44.053988 30600 net.cpp:425] inception_3a/output <- inception_3a/3x3
I0403 14:54:44.054006 30600 net.cpp:425] inception_3a/output <- inception_3a/5x5
I0403 14:54:44.054024 30600 net.cpp:425] inception_3a/output <- inception_3a/pool_proj
I0403 14:54:44.054044 30600 net.cpp:399] inception_3a/output -> inception_3a/output
I0403 14:54:44.054095 30600 net.cpp:141] Setting up inception_3a/output
I0403 14:54:44.054121 30600 net.cpp:148] Top shape: 24 256 28 28 (4816896)
I0403 14:54:44.054138 30600 net.cpp:156] Memory required for data: 580437024
I0403 14:54:44.054154 30600 layer_factory.hpp:77] Creating layer inception_3a/output_inception_3a/output_0_split
I0403 14:54:44.054173 30600 net.cpp:91] Creating Layer inception_3a/output_inception_3a/output_0_split
I0403 14:54:44.054195 30600 net.cpp:425] inception_3a/output_inception_3a/output_0_split <- inception_3a/output
I0403 14:54:44.054215 30600 net.cpp:399] inception_3a/output_inception_3a/output_0_split -> inception_3a/output_inception_3a/output_0_split_0
I0403 14:54:44.054237 30600 net.cpp:399] inception_3a/output_inception_3a/output_0_split -> inception_3a/output_inception_3a/output_0_split_1
I0403 14:54:44.054265 30600 net.cpp:399] inception_3a/output_inception_3a/output_0_split -> inception_3a/output_inception_3a/output_0_split_2
I0403 14:54:44.054288 30600 net.cpp:399] inception_3a/output_inception_3a/output_0_split -> inception_3a/output_inception_3a/output_0_split_3
I0403 14:54:44.054383 30600 net.cpp:141] Setting up inception_3a/output_inception_3a/output_0_split
I0403 14:54:44.054410 30600 net.cpp:148] Top shape: 24 256 28 28 (4816896)
I0403 14:54:44.054430 30600 net.cpp:148] Top shape: 24 256 28 28 (4816896)
I0403 14:54:44.054447 30600 net.cpp:148] Top shape: 24 256 28 28 (4816896)
I0403 14:54:44.054466 30600 net.cpp:148] Top shape: 24 256 28 28 (4816896)
I0403 14:54:44.054481 30600 net.cpp:156] Memory required for data: 657507360
I0403 14:54:44.054498 30600 layer_factory.hpp:77] Creating layer inception_3b/1x1
I0403 14:54:44.054523 30600 net.cpp:91] Creating Layer inception_3b/1x1
I0403 14:54:44.054543 30600 net.cpp:425] inception_3b/1x1 <- inception_3a/output_inception_3a/output_0_split_0
I0403 14:54:44.054566 30600 net.cpp:399] inception_3b/1x1 -> inception_3b/1x1
I0403 14:54:44.055755 30600 net.cpp:141] Setting up inception_3b/1x1
I0403 14:54:44.055799 30600 net.cpp:148] Top shape: 24 128 28 28 (2408448)
I0403 14:54:44.055817 30600 net.cpp:156] Memory required for data: 667141152
I0403 14:54:44.055837 30600 layer_factory.hpp:77] Creating layer inception_3b/relu_1x1
I0403 14:54:44.055860 30600 net.cpp:91] Creating Layer inception_3b/relu_1x1
I0403 14:54:44.055878 30600 net.cpp:425] inception_3b/relu_1x1 <- inception_3b/1x1
I0403 14:54:44.055897 30600 net.cpp:386] inception_3b/relu_1x1 -> inception_3b/1x1 (in-place)
I0403 14:54:44.056083 30600 net.cpp:141] Setting up inception_3b/relu_1x1
I0403 14:54:44.056114 30600 net.cpp:148] Top shape: 24 128 28 28 (2408448)
I0403 14:54:44.056133 30600 net.cpp:156] Memory required for data: 676774944
I0403 14:54:44.056149 30600 layer_factory.hpp:77] Creating layer inception_3b/3x3_reduce
I0403 14:54:44.056174 30600 net.cpp:91] Creating Layer inception_3b/3x3_reduce
I0403 14:54:44.056193 30600 net.cpp:425] inception_3b/3x3_reduce <- inception_3a/output_inception_3a/output_0_split_1
I0403 14:54:44.056216 30600 net.cpp:399] inception_3b/3x3_reduce -> inception_3b/3x3_reduce
I0403 14:54:44.057410 30600 net.cpp:141] Setting up inception_3b/3x3_reduce
I0403 14:54:44.057440 30600 net.cpp:148] Top shape: 24 128 28 28 (2408448)
I0403 14:54:44.057456 30600 net.cpp:156] Memory required for data: 686408736
I0403 14:54:44.057477 30600 layer_factory.hpp:77] Creating layer inception_3b/relu_3x3_reduce
I0403 14:54:44.057500 30600 net.cpp:91] Creating Layer inception_3b/relu_3x3_reduce
I0403 14:54:44.057519 30600 net.cpp:425] inception_3b/relu_3x3_reduce <- inception_3b/3x3_reduce
I0403 14:54:44.057539 30600 net.cpp:386] inception_3b/relu_3x3_reduce -> inception_3b/3x3_reduce (in-place)
I0403 14:54:44.057720 30600 net.cpp:141] Setting up inception_3b/relu_3x3_reduce
I0403 14:54:44.057749 30600 net.cpp:148] Top shape: 24 128 28 28 (2408448)
I0403 14:54:44.057765 30600 net.cpp:156] Memory required for data: 696042528
I0403 14:54:44.057782 30600 layer_factory.hpp:77] Creating layer inception_3b/3x3
I0403 14:54:44.057811 30600 net.cpp:91] Creating Layer inception_3b/3x3
I0403 14:54:44.057832 30600 net.cpp:425] inception_3b/3x3 <- inception_3b/3x3_reduce
I0403 14:54:44.057854 30600 net.cpp:399] inception_3b/3x3 -> inception_3b/3x3
I0403 14:54:44.060904 30600 net.cpp:141] Setting up inception_3b/3x3
I0403 14:54:44.060938 30600 net.cpp:148] Top shape: 24 192 28 28 (3612672)
I0403 14:54:44.060957 30600 net.cpp:156] Memory required for data: 710493216
I0403 14:54:44.060978 30600 layer_factory.hpp:77] Creating layer inception_3b/relu_3x3
I0403 14:54:44.060997 30600 net.cpp:91] Creating Layer inception_3b/relu_3x3
I0403 14:54:44.061017 30600 net.cpp:425] inception_3b/relu_3x3 <- inception_3b/3x3
I0403 14:54:44.061035 30600 net.cpp:386] inception_3b/relu_3x3 -> inception_3b/3x3 (in-place)
I0403 14:54:44.061327 30600 net.cpp:141] Setting up inception_3b/relu_3x3
I0403 14:54:44.061364 30600 net.cpp:148] Top shape: 24 192 28 28 (3612672)
I0403 14:54:44.061383 30600 net.cpp:156] Memory required for data: 724943904
I0403 14:54:44.061400 30600 layer_factory.hpp:77] Creating layer inception_3b/5x5_reduce
I0403 14:54:44.061424 30600 net.cpp:91] Creating Layer inception_3b/5x5_reduce
I0403 14:54:44.061444 30600 net.cpp:425] inception_3b/5x5_reduce <- inception_3a/output_inception_3a/output_0_split_2
I0403 14:54:44.061465 30600 net.cpp:399] inception_3b/5x5_reduce -> inception_3b/5x5_reduce
I0403 14:54:44.062507 30600 net.cpp:141] Setting up inception_3b/5x5_reduce
I0403 14:54:44.062537 30600 net.cpp:148] Top shape: 24 32 28 28 (602112)
I0403 14:54:44.062559 30600 net.cpp:156] Memory required for data: 727352352
I0403 14:54:44.062582 30600 layer_factory.hpp:77] Creating layer inception_3b/relu_5x5_reduce
I0403 14:54:44.062602 30600 net.cpp:91] Creating Layer inception_3b/relu_5x5_reduce
I0403 14:54:44.062620 30600 net.cpp:425] inception_3b/relu_5x5_reduce <- inception_3b/5x5_reduce
I0403 14:54:44.062640 30600 net.cpp:386] inception_3b/relu_5x5_reduce -> inception_3b/5x5_reduce (in-place)
I0403 14:54:44.062827 30600 net.cpp:141] Setting up inception_3b/relu_5x5_reduce
I0403 14:54:44.062870 30600 net.cpp:148] Top shape: 24 32 28 28 (602112)
I0403 14:54:44.062886 30600 net.cpp:156] Memory required for data: 729760800
I0403 14:54:44.062903 30600 layer_factory.hpp:77] Creating layer inception_3b/5x5
I0403 14:54:44.062928 30600 net.cpp:91] Creating Layer inception_3b/5x5
I0403 14:54:44.062948 30600 net.cpp:425] inception_3b/5x5 <- inception_3b/5x5_reduce
I0403 14:54:44.062968 30600 net.cpp:399] inception_3b/5x5 -> inception_3b/5x5
I0403 14:54:44.065028 30600 net.cpp:141] Setting up inception_3b/5x5
I0403 14:54:44.065058 30600 net.cpp:148] Top shape: 24 96 28 28 (1806336)
I0403 14:54:44.065076 30600 net.cpp:156] Memory required for data: 736986144
I0403 14:54:44.065096 30600 layer_factory.hpp:77] Creating layer inception_3b/relu_5x5
I0403 14:54:44.065119 30600 net.cpp:91] Creating Layer inception_3b/relu_5x5
I0403 14:54:44.065138 30600 net.cpp:425] inception_3b/relu_5x5 <- inception_3b/5x5
I0403 14:54:44.065158 30600 net.cpp:386] inception_3b/relu_5x5 -> inception_3b/5x5 (in-place)
I0403 14:54:44.065367 30600 net.cpp:141] Setting up inception_3b/relu_5x5
I0403 14:54:44.065395 30600 net.cpp:148] Top shape: 24 96 28 28 (1806336)
I0403 14:54:44.065412 30600 net.cpp:156] Memory required for data: 744211488
I0403 14:54:44.065428 30600 layer_factory.hpp:77] Creating layer inception_3b/pool
I0403 14:54:44.065448 30600 net.cpp:91] Creating Layer inception_3b/pool
I0403 14:54:44.065466 30600 net.cpp:425] inception_3b/pool <- inception_3a/output_inception_3a/output_0_split_3
I0403 14:54:44.065486 30600 net.cpp:399] inception_3b/pool -> inception_3b/pool
I0403 14:54:44.065546 30600 net.cpp:141] Setting up inception_3b/pool
I0403 14:54:44.065573 30600 net.cpp:148] Top shape: 24 256 28 28 (4816896)
I0403 14:54:44.065589 30600 net.cpp:156] Memory required for data: 763479072
I0403 14:54:44.065605 30600 layer_factory.hpp:77] Creating layer inception_3b/pool_proj
I0403 14:54:44.065630 30600 net.cpp:91] Creating Layer inception_3b/pool_proj
I0403 14:54:44.065650 30600 net.cpp:425] inception_3b/pool_proj <- inception_3b/pool
I0403 14:54:44.065675 30600 net.cpp:399] inception_3b/pool_proj -> inception_3b/pool_proj
I0403 14:54:44.066787 30600 net.cpp:141] Setting up inception_3b/pool_proj
I0403 14:54:44.066818 30600 net.cpp:148] Top shape: 24 64 28 28 (1204224)
I0403 14:54:44.066835 30600 net.cpp:156] Memory required for data: 768295968
I0403 14:54:44.066855 30600 layer_factory.hpp:77] Creating layer inception_3b/relu_pool_proj
I0403 14:54:44.066875 30600 net.cpp:91] Creating Layer inception_3b/relu_pool_proj
I0403 14:54:44.066893 30600 net.cpp:425] inception_3b/relu_pool_proj <- inception_3b/pool_proj
I0403 14:54:44.066915 30600 net.cpp:386] inception_3b/relu_pool_proj -> inception_3b/pool_proj (in-place)
I0403 14:54:44.067339 30600 net.cpp:141] Setting up inception_3b/relu_pool_proj
I0403 14:54:44.067375 30600 net.cpp:148] Top shape: 24 64 28 28 (1204224)
I0403 14:54:44.067394 30600 net.cpp:156] Memory required for data: 773112864
I0403 14:54:44.067410 30600 layer_factory.hpp:77] Creating layer inception_3b/output
I0403 14:54:44.067430 30600 net.cpp:91] Creating Layer inception_3b/output
I0403 14:54:44.067447 30600 net.cpp:425] inception_3b/output <- inception_3b/1x1
I0403 14:54:44.067466 30600 net.cpp:425] inception_3b/output <- inception_3b/3x3
I0403 14:54:44.067484 30600 net.cpp:425] inception_3b/output <- inception_3b/5x5
I0403 14:54:44.067502 30600 net.cpp:425] inception_3b/output <- inception_3b/pool_proj
I0403 14:54:44.067522 30600 net.cpp:399] inception_3b/output -> inception_3b/output
I0403 14:54:44.067570 30600 net.cpp:141] Setting up inception_3b/output
I0403 14:54:44.067596 30600 net.cpp:148] Top shape: 24 480 28 28 (9031680)
I0403 14:54:44.067612 30600 net.cpp:156] Memory required for data: 809239584
I0403 14:54:44.067630 30600 layer_factory.hpp:77] Creating layer pool3/3x3_s2
I0403 14:54:44.067651 30600 net.cpp:91] Creating Layer pool3/3x3_s2
I0403 14:54:44.067668 30600 net.cpp:425] pool3/3x3_s2 <- inception_3b/output
I0403 14:54:44.067687 30600 net.cpp:399] pool3/3x3_s2 -> pool3/3x3_s2
I0403 14:54:44.067766 30600 net.cpp:141] Setting up pool3/3x3_s2
I0403 14:54:44.067793 30600 net.cpp:148] Top shape: 24 480 14 14 (2257920)
I0403 14:54:44.067816 30600 net.cpp:156] Memory required for data: 818271264
I0403 14:54:44.067832 30600 layer_factory.hpp:77] Creating layer pool3/3x3_s2_pool3/3x3_s2_0_split
I0403 14:54:44.067852 30600 net.cpp:91] Creating Layer pool3/3x3_s2_pool3/3x3_s2_0_split
I0403 14:54:44.067867 30600 net.cpp:425] pool3/3x3_s2_pool3/3x3_s2_0_split <- pool3/3x3_s2
I0403 14:54:44.067889 30600 net.cpp:399] pool3/3x3_s2_pool3/3x3_s2_0_split -> pool3/3x3_s2_pool3/3x3_s2_0_split_0
I0403 14:54:44.067912 30600 net.cpp:399] pool3/3x3_s2_pool3/3x3_s2_0_split -> pool3/3x3_s2_pool3/3x3_s2_0_split_1
I0403 14:54:44.067934 30600 net.cpp:399] pool3/3x3_s2_pool3/3x3_s2_0_split -> pool3/3x3_s2_pool3/3x3_s2_0_split_2
I0403 14:54:44.067956 30600 net.cpp:399] pool3/3x3_s2_pool3/3x3_s2_0_split -> pool3/3x3_s2_pool3/3x3_s2_0_split_3
I0403 14:54:44.068038 30600 net.cpp:141] Setting up pool3/3x3_s2_pool3/3x3_s2_0_split
I0403 14:54:44.068066 30600 net.cpp:148] Top shape: 24 480 14 14 (2257920)
I0403 14:54:44.068084 30600 net.cpp:148] Top shape: 24 480 14 14 (2257920)
I0403 14:54:44.068101 30600 net.cpp:148] Top shape: 24 480 14 14 (2257920)
I0403 14:54:44.068120 30600 net.cpp:148] Top shape: 24 480 14 14 (2257920)
I0403 14:54:44.068135 30600 net.cpp:156] Memory required for data: 854397984
I0403 14:54:44.068151 30600 layer_factory.hpp:77] Creating layer inception_4a/1x1
I0403 14:54:44.068176 30600 net.cpp:91] Creating Layer inception_4a/1x1
I0403 14:54:44.068195 30600 net.cpp:425] inception_4a/1x1 <- pool3/3x3_s2_pool3/3x3_s2_0_split_0
I0403 14:54:44.068215 30600 net.cpp:399] inception_4a/1x1 -> inception_4a/1x1
I0403 14:54:44.069885 30600 net.cpp:141] Setting up inception_4a/1x1
I0403 14:54:44.069916 30600 net.cpp:148] Top shape: 24 192 14 14 (903168)
I0403 14:54:44.069932 30600 net.cpp:156] Memory required for data: 858010656
I0403 14:54:44.069952 30600 layer_factory.hpp:77] Creating layer inception_4a/relu_1x1
I0403 14:54:44.069974 30600 net.cpp:91] Creating Layer inception_4a/relu_1x1
I0403 14:54:44.069996 30600 net.cpp:425] inception_4a/relu_1x1 <- inception_4a/1x1
I0403 14:54:44.070015 30600 net.cpp:386] inception_4a/relu_1x1 -> inception_4a/1x1 (in-place)
I0403 14:54:44.070199 30600 net.cpp:141] Setting up inception_4a/relu_1x1
I0403 14:54:44.070226 30600 net.cpp:148] Top shape: 24 192 14 14 (903168)
I0403 14:54:44.070242 30600 net.cpp:156] Memory required for data: 861623328
I0403 14:54:44.070258 30600 layer_factory.hpp:77] Creating layer inception_4a/3x3_reduce
I0403 14:54:44.070283 30600 net.cpp:91] Creating Layer inception_4a/3x3_reduce
I0403 14:54:44.070302 30600 net.cpp:425] inception_4a/3x3_reduce <- pool3/3x3_s2_pool3/3x3_s2_0_split_1
I0403 14:54:44.070327 30600 net.cpp:399] inception_4a/3x3_reduce -> inception_4a/3x3_reduce
I0403 14:54:44.071671 30600 net.cpp:141] Setting up inception_4a/3x3_reduce
I0403 14:54:44.071701 30600 net.cpp:148] Top shape: 24 96 14 14 (451584)
I0403 14:54:44.071717 30600 net.cpp:156] Memory required for data: 863429664
I0403 14:54:44.071746 30600 layer_factory.hpp:77] Creating layer inception_4a/relu_3x3_reduce
I0403 14:54:44.071769 30600 net.cpp:91] Creating Layer inception_4a/relu_3x3_reduce
I0403 14:54:44.071787 30600 net.cpp:425] inception_4a/relu_3x3_reduce <- inception_4a/3x3_reduce
I0403 14:54:44.071810 30600 net.cpp:386] inception_4a/relu_3x3_reduce -> inception_4a/3x3_reduce (in-place)
I0403 14:54:44.071996 30600 net.cpp:141] Setting up inception_4a/relu_3x3_reduce
I0403 14:54:44.072023 30600 net.cpp:148] Top shape: 24 96 14 14 (451584)
I0403 14:54:44.072041 30600 net.cpp:156] Memory required for data: 865236000
I0403 14:54:44.072057 30600 layer_factory.hpp:77] Creating layer inception_4a/3x3
I0403 14:54:44.072082 30600 net.cpp:91] Creating Layer inception_4a/3x3
I0403 14:54:44.072101 30600 net.cpp:425] inception_4a/3x3 <- inception_4a/3x3_reduce
I0403 14:54:44.072125 30600 net.cpp:399] inception_4a/3x3 -> inception_4a/3x3
I0403 14:54:44.074954 30600 net.cpp:141] Setting up inception_4a/3x3
I0403 14:54:44.074985 30600 net.cpp:148] Top shape: 24 208 14 14 (978432)
I0403 14:54:44.075002 30600 net.cpp:156] Memory required for data: 869149728
I0403 14:54:44.075022 30600 layer_factory.hpp:77] Creating layer inception_4a/relu_3x3
I0403 14:54:44.075045 30600 net.cpp:91] Creating Layer inception_4a/relu_3x3
I0403 14:54:44.075064 30600 net.cpp:425] inception_4a/relu_3x3 <- inception_4a/3x3
I0403 14:54:44.075084 30600 net.cpp:386] inception_4a/relu_3x3 -> inception_4a/3x3 (in-place)
I0403 14:54:44.075381 30600 net.cpp:141] Setting up inception_4a/relu_3x3
I0403 14:54:44.075410 30600 net.cpp:148] Top shape: 24 208 14 14 (978432)
I0403 14:54:44.075428 30600 net.cpp:156] Memory required for data: 873063456
I0403 14:54:44.075444 30600 layer_factory.hpp:77] Creating layer inception_4a/5x5_reduce
I0403 14:54:44.075469 30600 net.cpp:91] Creating Layer inception_4a/5x5_reduce
I0403 14:54:44.075489 30600 net.cpp:425] inception_4a/5x5_reduce <- pool3/3x3_s2_pool3/3x3_s2_0_split_2
I0403 14:54:44.075513 30600 net.cpp:399] inception_4a/5x5_reduce -> inception_4a/5x5_reduce
I0403 14:54:44.076591 30600 net.cpp:141] Setting up inception_4a/5x5_reduce
I0403 14:54:44.076622 30600 net.cpp:148] Top shape: 24 16 14 14 (75264)
I0403 14:54:44.076638 30600 net.cpp:156] Memory required for data: 873364512
I0403 14:54:44.076659 30600 layer_factory.hpp:77] Creating layer inception_4a/relu_5x5_reduce
I0403 14:54:44.076683 30600 net.cpp:91] Creating Layer inception_4a/relu_5x5_reduce
I0403 14:54:44.076701 30600 net.cpp:425] inception_4a/relu_5x5_reduce <- inception_4a/5x5_reduce
I0403 14:54:44.076721 30600 net.cpp:386] inception_4a/relu_5x5_reduce -> inception_4a/5x5_reduce (in-place)
I0403 14:54:44.076910 30600 net.cpp:141] Setting up inception_4a/relu_5x5_reduce
I0403 14:54:44.076941 30600 net.cpp:148] Top shape: 24 16 14 14 (75264)
I0403 14:54:44.076957 30600 net.cpp:156] Memory required for data: 873665568
I0403 14:54:44.076974 30600 layer_factory.hpp:77] Creating layer inception_4a/5x5
I0403 14:54:44.076998 30600 net.cpp:91] Creating Layer inception_4a/5x5
I0403 14:54:44.077018 30600 net.cpp:425] inception_4a/5x5 <- inception_4a/5x5_reduce
I0403 14:54:44.077045 30600 net.cpp:399] inception_4a/5x5 -> inception_4a/5x5
I0403 14:54:44.078189 30600 net.cpp:141] Setting up inception_4a/5x5
I0403 14:54:44.078222 30600 net.cpp:148] Top shape: 24 48 14 14 (225792)
I0403 14:54:44.078239 30600 net.cpp:156] Memory required for data: 874568736
I0403 14:54:44.078259 30600 layer_factory.hpp:77] Creating layer inception_4a/relu_5x5
I0403 14:54:44.078280 30600 net.cpp:91] Creating Layer inception_4a/relu_5x5
I0403 14:54:44.078299 30600 net.cpp:425] inception_4a/relu_5x5 <- inception_4a/5x5
I0403 14:54:44.078321 30600 net.cpp:386] inception_4a/relu_5x5 -> inception_4a/5x5 (in-place)
I0403 14:54:44.078513 30600 net.cpp:141] Setting up inception_4a/relu_5x5
I0403 14:54:44.078541 30600 net.cpp:148] Top shape: 24 48 14 14 (225792)
I0403 14:54:44.078558 30600 net.cpp:156] Memory required for data: 875471904
I0403 14:54:44.078577 30600 layer_factory.hpp:77] Creating layer inception_4a/pool
I0403 14:54:44.078595 30600 net.cpp:91] Creating Layer inception_4a/pool
I0403 14:54:44.078616 30600 net.cpp:425] inception_4a/pool <- pool3/3x3_s2_pool3/3x3_s2_0_split_3
I0403 14:54:44.078636 30600 net.cpp:399] inception_4a/pool -> inception_4a/pool
I0403 14:54:44.078703 30600 net.cpp:141] Setting up inception_4a/pool
I0403 14:54:44.078730 30600 net.cpp:148] Top shape: 24 480 14 14 (2257920)
I0403 14:54:44.078747 30600 net.cpp:156] Memory required for data: 884503584
I0403 14:54:44.078763 30600 layer_factory.hpp:77] Creating layer inception_4a/pool_proj
I0403 14:54:44.078788 30600 net.cpp:91] Creating Layer inception_4a/pool_proj
I0403 14:54:44.078806 30600 net.cpp:425] inception_4a/pool_proj <- inception_4a/pool
I0403 14:54:44.078830 30600 net.cpp:399] inception_4a/pool_proj -> inception_4a/pool_proj
I0403 14:54:44.080065 30600 net.cpp:141] Setting up inception_4a/pool_proj
I0403 14:54:44.080096 30600 net.cpp:148] Top shape: 24 64 14 14 (301056)
I0403 14:54:44.080130 30600 net.cpp:156] Memory required for data: 885707808
I0403 14:54:44.080152 30600 layer_factory.hpp:77] Creating layer inception_4a/relu_pool_proj
I0403 14:54:44.080173 30600 net.cpp:91] Creating Layer inception_4a/relu_pool_proj
I0403 14:54:44.080190 30600 net.cpp:425] inception_4a/relu_pool_proj <- inception_4a/pool_proj
I0403 14:54:44.080214 30600 net.cpp:386] inception_4a/relu_pool_proj -> inception_4a/pool_proj (in-place)
I0403 14:54:44.080519 30600 net.cpp:141] Setting up inception_4a/relu_pool_proj
I0403 14:54:44.080549 30600 net.cpp:148] Top shape: 24 64 14 14 (301056)
I0403 14:54:44.080564 30600 net.cpp:156] Memory required for data: 886912032
I0403 14:54:44.080582 30600 layer_factory.hpp:77] Creating layer inception_4a/output
I0403 14:54:44.080601 30600 net.cpp:91] Creating Layer inception_4a/output
I0403 14:54:44.080620 30600 net.cpp:425] inception_4a/output <- inception_4a/1x1
I0403 14:54:44.080638 30600 net.cpp:425] inception_4a/output <- inception_4a/3x3
I0403 14:54:44.080657 30600 net.cpp:425] inception_4a/output <- inception_4a/5x5
I0403 14:54:44.080675 30600 net.cpp:425] inception_4a/output <- inception_4a/pool_proj
I0403 14:54:44.080696 30600 net.cpp:399] inception_4a/output -> inception_4a/output
I0403 14:54:44.080746 30600 net.cpp:141] Setting up inception_4a/output
I0403 14:54:44.080775 30600 net.cpp:148] Top shape: 24 512 14 14 (2408448)
I0403 14:54:44.080792 30600 net.cpp:156] Memory required for data: 896545824
I0403 14:54:44.080808 30600 layer_factory.hpp:77] Creating layer inception_4a/output_inception_4a/output_0_split
I0403 14:54:44.080828 30600 net.cpp:91] Creating Layer inception_4a/output_inception_4a/output_0_split
I0403 14:54:44.080847 30600 net.cpp:425] inception_4a/output_inception_4a/output_0_split <- inception_4a/output
I0403 14:54:44.080867 30600 net.cpp:399] inception_4a/output_inception_4a/output_0_split -> inception_4a/output_inception_4a/output_0_split_0
I0403 14:54:44.080891 30600 net.cpp:399] inception_4a/output_inception_4a/output_0_split -> inception_4a/output_inception_4a/output_0_split_1
I0403 14:54:44.080915 30600 net.cpp:399] inception_4a/output_inception_4a/output_0_split -> inception_4a/output_inception_4a/output_0_split_2
I0403 14:54:44.080940 30600 net.cpp:399] inception_4a/output_inception_4a/output_0_split -> inception_4a/output_inception_4a/output_0_split_3
I0403 14:54:44.080962 30600 net.cpp:399] inception_4a/output_inception_4a/output_0_split -> inception_4a/output_inception_4a/output_0_split_4
I0403 14:54:44.081061 30600 net.cpp:141] Setting up inception_4a/output_inception_4a/output_0_split
I0403 14:54:44.081087 30600 net.cpp:148] Top shape: 24 512 14 14 (2408448)
I0403 14:54:44.081105 30600 net.cpp:148] Top shape: 24 512 14 14 (2408448)
I0403 14:54:44.081123 30600 net.cpp:148] Top shape: 24 512 14 14 (2408448)
I0403 14:54:44.081140 30600 net.cpp:148] Top shape: 24 512 14 14 (2408448)
I0403 14:54:44.081157 30600 net.cpp:148] Top shape: 24 512 14 14 (2408448)
I0403 14:54:44.081172 30600 net.cpp:156] Memory required for data: 944714784
I0403 14:54:44.081188 30600 layer_factory.hpp:77] Creating layer loss1/ave_pool
I0403 14:54:44.081210 30600 net.cpp:91] Creating Layer loss1/ave_pool
I0403 14:54:44.081229 30600 net.cpp:425] loss1/ave_pool <- inception_4a/output_inception_4a/output_0_split_0
I0403 14:54:44.081248 30600 net.cpp:399] loss1/ave_pool -> loss1/ave_pool
I0403 14:54:44.081476 30600 net.cpp:141] Setting up loss1/ave_pool
I0403 14:54:44.081504 30600 net.cpp:148] Top shape: 24 512 4 4 (196608)
I0403 14:54:44.081521 30600 net.cpp:156] Memory required for data: 945501216
I0403 14:54:44.081538 30600 layer_factory.hpp:77] Creating layer loss1/conv
I0403 14:54:44.081563 30600 net.cpp:91] Creating Layer loss1/conv
I0403 14:54:44.081586 30600 net.cpp:425] loss1/conv <- loss1/ave_pool
I0403 14:54:44.081609 30600 net.cpp:399] loss1/conv -> loss1/conv
I0403 14:54:44.083112 30600 net.cpp:141] Setting up loss1/conv
I0403 14:54:44.083142 30600 net.cpp:148] Top shape: 24 128 4 4 (49152)
I0403 14:54:44.083160 30600 net.cpp:156] Memory required for data: 945697824
I0403 14:54:44.083197 30600 layer_factory.hpp:77] Creating layer loss1/relu_conv
I0403 14:54:44.083221 30600 net.cpp:91] Creating Layer loss1/relu_conv
I0403 14:54:44.083240 30600 net.cpp:425] loss1/relu_conv <- loss1/conv
I0403 14:54:44.083264 30600 net.cpp:386] loss1/relu_conv -> loss1/conv (in-place)
I0403 14:54:44.083573 30600 net.cpp:141] Setting up loss1/relu_conv
I0403 14:54:44.083603 30600 net.cpp:148] Top shape: 24 128 4 4 (49152)
I0403 14:54:44.083622 30600 net.cpp:156] Memory required for data: 945894432
I0403 14:54:44.083642 30600 layer_factory.hpp:77] Creating layer loss1/fc
I0403 14:54:44.083676 30600 net.cpp:91] Creating Layer loss1/fc
I0403 14:54:44.083698 30600 net.cpp:425] loss1/fc <- loss1/conv
I0403 14:54:44.083719 30600 net.cpp:399] loss1/fc -> loss1/fc
I0403 14:54:44.102035 30600 net.cpp:141] Setting up loss1/fc
I0403 14:54:44.102087 30600 net.cpp:148] Top shape: 24 1024 (24576)
I0403 14:54:44.102102 30600 net.cpp:156] Memory required for data: 945992736
I0403 14:54:44.102123 30600 layer_factory.hpp:77] Creating layer loss1/relu_fc
I0403 14:54:44.102144 30600 net.cpp:91] Creating Layer loss1/relu_fc
I0403 14:54:44.102162 30600 net.cpp:425] loss1/relu_fc <- loss1/fc
I0403 14:54:44.102185 30600 net.cpp:386] loss1/relu_fc -> loss1/fc (in-place)
I0403 14:54:44.102403 30600 net.cpp:141] Setting up loss1/relu_fc
I0403 14:54:44.102429 30600 net.cpp:148] Top shape: 24 1024 (24576)
I0403 14:54:44.102445 30600 net.cpp:156] Memory required for data: 946091040
I0403 14:54:44.102460 30600 layer_factory.hpp:77] Creating layer loss1/drop_fc
I0403 14:54:44.102494 30600 net.cpp:91] Creating Layer loss1/drop_fc
I0403 14:54:44.102514 30600 net.cpp:425] loss1/drop_fc <- loss1/fc
I0403 14:54:44.102532 30600 net.cpp:386] loss1/drop_fc -> loss1/fc (in-place)
I0403 14:54:44.102584 30600 net.cpp:141] Setting up loss1/drop_fc
I0403 14:54:44.102614 30600 net.cpp:148] Top shape: 24 1024 (24576)
I0403 14:54:44.102632 30600 net.cpp:156] Memory required for data: 946189344
I0403 14:54:44.102648 30600 layer_factory.hpp:77] Creating layer loss1/classifier_plantvillage
I0403 14:54:44.102669 30600 net.cpp:91] Creating Layer loss1/classifier_plantvillage
I0403 14:54:44.102685 30600 net.cpp:425] loss1/classifier_plantvillage <- loss1/fc
I0403 14:54:44.102707 30600 net.cpp:399] loss1/classifier_plantvillage -> loss1/classifier_plantvillage
I0403 14:54:44.103672 30600 net.cpp:141] Setting up loss1/classifier_plantvillage
I0403 14:54:44.103700 30600 net.cpp:148] Top shape: 24 38 (912)
I0403 14:54:44.103718 30600 net.cpp:156] Memory required for data: 946192992
I0403 14:54:44.103735 30600 layer_factory.hpp:77] Creating layer loss1/classifier_plantvillage_loss1/classifier_plantvillage_0_split
I0403 14:54:44.103757 30600 net.cpp:91] Creating Layer loss1/classifier_plantvillage_loss1/classifier_plantvillage_0_split
I0403 14:54:44.103775 30600 net.cpp:425] loss1/classifier_plantvillage_loss1/classifier_plantvillage_0_split <- loss1/classifier_plantvillage
I0403 14:54:44.103795 30600 net.cpp:399] loss1/classifier_plantvillage_loss1/classifier_plantvillage_0_split -> loss1/classifier_plantvillage_loss1/classifier_plantvillage_0_split_0
I0403 14:54:44.103816 30600 net.cpp:399] loss1/classifier_plantvillage_loss1/classifier_plantvillage_0_split -> loss1/classifier_plantvillage_loss1/classifier_plantvillage_0_split_1
I0403 14:54:44.103837 30600 net.cpp:399] loss1/classifier_plantvillage_loss1/classifier_plantvillage_0_split -> loss1/classifier_plantvillage_loss1/classifier_plantvillage_0_split_2
I0403 14:54:44.103904 30600 net.cpp:141] Setting up loss1/classifier_plantvillage_loss1/classifier_plantvillage_0_split
I0403 14:54:44.103930 30600 net.cpp:148] Top shape: 24 38 (912)
I0403 14:54:44.103948 30600 net.cpp:148] Top shape: 24 38 (912)
I0403 14:54:44.103965 30600 net.cpp:148] Top shape: 24 38 (912)
I0403 14:54:44.103979 30600 net.cpp:156] Memory required for data: 946203936
I0403 14:54:44.103996 30600 layer_factory.hpp:77] Creating layer inception_4b/1x1
I0403 14:54:44.104017 30600 net.cpp:91] Creating Layer inception_4b/1x1
I0403 14:54:44.104061 30600 net.cpp:425] inception_4b/1x1 <- inception_4a/output_inception_4a/output_0_split_1
I0403 14:54:44.104084 30600 net.cpp:399] inception_4b/1x1 -> inception_4b/1x1
I0403 14:54:44.105790 30600 net.cpp:141] Setting up inception_4b/1x1
I0403 14:54:44.105824 30600 net.cpp:148] Top shape: 24 160 14 14 (752640)
I0403 14:54:44.105840 30600 net.cpp:156] Memory required for data: 949214496
I0403 14:54:44.105860 30600 layer_factory.hpp:77] Creating layer inception_4b/relu_1x1
I0403 14:54:44.105882 30600 net.cpp:91] Creating Layer inception_4b/relu_1x1
I0403 14:54:44.105901 30600 net.cpp:425] inception_4b/relu_1x1 <- inception_4b/1x1
I0403 14:54:44.105918 30600 net.cpp:386] inception_4b/relu_1x1 -> inception_4b/1x1 (in-place)
I0403 14:54:44.106099 30600 net.cpp:141] Setting up inception_4b/relu_1x1
I0403 14:54:44.106127 30600 net.cpp:148] Top shape: 24 160 14 14 (752640)
I0403 14:54:44.106144 30600 net.cpp:156] Memory required for data: 952225056
I0403 14:54:44.106159 30600 layer_factory.hpp:77] Creating layer inception_4b/3x3_reduce
I0403 14:54:44.106184 30600 net.cpp:91] Creating Layer inception_4b/3x3_reduce
I0403 14:54:44.106201 30600 net.cpp:425] inception_4b/3x3_reduce <- inception_4a/output_inception_4a/output_0_split_2
I0403 14:54:44.106222 30600 net.cpp:399] inception_4b/3x3_reduce -> inception_4b/3x3_reduce
I0403 14:54:44.107612 30600 net.cpp:141] Setting up inception_4b/3x3_reduce
I0403 14:54:44.107645 30600 net.cpp:148] Top shape: 24 112 14 14 (526848)
I0403 14:54:44.107661 30600 net.cpp:156] Memory required for data: 954332448
I0403 14:54:44.107681 30600 layer_factory.hpp:77] Creating layer inception_4b/relu_3x3_reduce
I0403 14:54:44.107700 30600 net.cpp:91] Creating Layer inception_4b/relu_3x3_reduce
I0403 14:54:44.107717 30600 net.cpp:425] inception_4b/relu_3x3_reduce <- inception_4b/3x3_reduce
I0403 14:54:44.107738 30600 net.cpp:386] inception_4b/relu_3x3_reduce -> inception_4b/3x3_reduce (in-place)
I0403 14:54:44.108039 30600 net.cpp:141] Setting up inception_4b/relu_3x3_reduce
I0403 14:54:44.108069 30600 net.cpp:148] Top shape: 24 112 14 14 (526848)
I0403 14:54:44.108086 30600 net.cpp:156] Memory required for data: 956439840
I0403 14:54:44.108103 30600 layer_factory.hpp:77] Creating layer inception_4b/3x3
I0403 14:54:44.108139 30600 net.cpp:91] Creating Layer inception_4b/3x3
I0403 14:54:44.108158 30600 net.cpp:425] inception_4b/3x3 <- inception_4b/3x3_reduce
I0403 14:54:44.108180 30600 net.cpp:399] inception_4b/3x3 -> inception_4b/3x3
I0403 14:54:44.111238 30600 net.cpp:141] Setting up inception_4b/3x3
I0403 14:54:44.111268 30600 net.cpp:148] Top shape: 24 224 14 14 (1053696)
I0403 14:54:44.111284 30600 net.cpp:156] Memory required for data: 960654624
I0403 14:54:44.111304 30600 layer_factory.hpp:77] Creating layer inception_4b/relu_3x3
I0403 14:54:44.111326 30600 net.cpp:91] Creating Layer inception_4b/relu_3x3
I0403 14:54:44.111345 30600 net.cpp:425] inception_4b/relu_3x3 <- inception_4b/3x3
I0403 14:54:44.111369 30600 net.cpp:386] inception_4b/relu_3x3 -> inception_4b/3x3 (in-place)
I0403 14:54:44.111552 30600 net.cpp:141] Setting up inception_4b/relu_3x3
I0403 14:54:44.111580 30600 net.cpp:148] Top shape: 24 224 14 14 (1053696)
I0403 14:54:44.111596 30600 net.cpp:156] Memory required for data: 964869408
I0403 14:54:44.111613 30600 layer_factory.hpp:77] Creating layer inception_4b/5x5_reduce
I0403 14:54:44.111636 30600 net.cpp:91] Creating Layer inception_4b/5x5_reduce
I0403 14:54:44.111656 30600 net.cpp:425] inception_4b/5x5_reduce <- inception_4a/output_inception_4a/output_0_split_3
I0403 14:54:44.111680 30600 net.cpp:399] inception_4b/5x5_reduce -> inception_4b/5x5_reduce
I0403 14:54:44.112824 30600 net.cpp:141] Setting up inception_4b/5x5_reduce
I0403 14:54:44.112854 30600 net.cpp:148] Top shape: 24 24 14 14 (112896)
I0403 14:54:44.112872 30600 net.cpp:156] Memory required for data: 965320992
I0403 14:54:44.112893 30600 layer_factory.hpp:77] Creating layer inception_4b/relu_5x5_reduce
I0403 14:54:44.112916 30600 net.cpp:91] Creating Layer inception_4b/relu_5x5_reduce
I0403 14:54:44.112951 30600 net.cpp:425] inception_4b/relu_5x5_reduce <- inception_4b/5x5_reduce
I0403 14:54:44.112972 30600 net.cpp:386] inception_4b/relu_5x5_reduce -> inception_4b/5x5_reduce (in-place)
I0403 14:54:44.113168 30600 net.cpp:141] Setting up inception_4b/relu_5x5_reduce
I0403 14:54:44.113194 30600 net.cpp:148] Top shape: 24 24 14 14 (112896)
I0403 14:54:44.113211 30600 net.cpp:156] Memory required for data: 965772576
I0403 14:54:44.113229 30600 layer_factory.hpp:77] Creating layer inception_4b/5x5
I0403 14:54:44.113253 30600 net.cpp:91] Creating Layer inception_4b/5x5
I0403 14:54:44.113273 30600 net.cpp:425] inception_4b/5x5 <- inception_4b/5x5_reduce
I0403 14:54:44.113296 30600 net.cpp:399] inception_4b/5x5 -> inception_4b/5x5
I0403 14:54:44.114611 30600 net.cpp:141] Setting up inception_4b/5x5
I0403 14:54:44.114642 30600 net.cpp:148] Top shape: 24 64 14 14 (301056)
I0403 14:54:44.114660 30600 net.cpp:156] Memory required for data: 966976800
I0403 14:54:44.114681 30600 layer_factory.hpp:77] Creating layer inception_4b/relu_5x5
I0403 14:54:44.114706 30600 net.cpp:91] Creating Layer inception_4b/relu_5x5
I0403 14:54:44.114724 30600 net.cpp:425] inception_4b/relu_5x5 <- inception_4b/5x5
I0403 14:54:44.114743 30600 net.cpp:386] inception_4b/relu_5x5 -> inception_4b/5x5 (in-place)
I0403 14:54:44.115044 30600 net.cpp:141] Setting up inception_4b/relu_5x5
I0403 14:54:44.115073 30600 net.cpp:148] Top shape: 24 64 14 14 (301056)
I0403 14:54:44.115090 30600 net.cpp:156] Memory required for data: 968181024
I0403 14:54:44.115108 30600 layer_factory.hpp:77] Creating layer inception_4b/pool
I0403 14:54:44.115130 30600 net.cpp:91] Creating Layer inception_4b/pool
I0403 14:54:44.115149 30600 net.cpp:425] inception_4b/pool <- inception_4a/output_inception_4a/output_0_split_4
I0403 14:54:44.115170 30600 net.cpp:399] inception_4b/pool -> inception_4b/pool
I0403 14:54:44.115243 30600 net.cpp:141] Setting up inception_4b/pool
I0403 14:54:44.115269 30600 net.cpp:148] Top shape: 24 512 14 14 (2408448)
I0403 14:54:44.115286 30600 net.cpp:156] Memory required for data: 977814816
I0403 14:54:44.115303 30600 layer_factory.hpp:77] Creating layer inception_4b/pool_proj
I0403 14:54:44.115329 30600 net.cpp:91] Creating Layer inception_4b/pool_proj
I0403 14:54:44.115351 30600 net.cpp:425] inception_4b/pool_proj <- inception_4b/pool
I0403 14:54:44.115375 30600 net.cpp:399] inception_4b/pool_proj -> inception_4b/pool_proj
I0403 14:54:44.116648 30600 net.cpp:141] Setting up inception_4b/pool_proj
I0403 14:54:44.116680 30600 net.cpp:148] Top shape: 24 64 14 14 (301056)
I0403 14:54:44.116698 30600 net.cpp:156] Memory required for data: 979019040
I0403 14:54:44.116719 30600 layer_factory.hpp:77] Creating layer inception_4b/relu_pool_proj
I0403 14:54:44.116737 30600 net.cpp:91] Creating Layer inception_4b/relu_pool_proj
I0403 14:54:44.116755 30600 net.cpp:425] inception_4b/relu_pool_proj <- inception_4b/pool_proj
I0403 14:54:44.116775 30600 net.cpp:386] inception_4b/relu_pool_proj -> inception_4b/pool_proj (in-place)
I0403 14:54:44.116961 30600 net.cpp:141] Setting up inception_4b/relu_pool_proj
I0403 14:54:44.116991 30600 net.cpp:148] Top shape: 24 64 14 14 (301056)
I0403 14:54:44.117007 30600 net.cpp:156] Memory required for data: 980223264
I0403 14:54:44.117022 30600 layer_factory.hpp:77] Creating layer inception_4b/output
I0403 14:54:44.117041 30600 net.cpp:91] Creating Layer inception_4b/output
I0403 14:54:44.117058 30600 net.cpp:425] inception_4b/output <- inception_4b/1x1
I0403 14:54:44.117076 30600 net.cpp:425] inception_4b/output <- inception_4b/3x3
I0403 14:54:44.117094 30600 net.cpp:425] inception_4b/output <- inception_4b/5x5
I0403 14:54:44.117110 30600 net.cpp:425] inception_4b/output <- inception_4b/pool_proj
I0403 14:54:44.117132 30600 net.cpp:399] inception_4b/output -> inception_4b/output
I0403 14:54:44.117195 30600 net.cpp:141] Setting up inception_4b/output
I0403 14:54:44.117221 30600 net.cpp:148] Top shape: 24 512 14 14 (2408448)
I0403 14:54:44.117238 30600 net.cpp:156] Memory required for data: 989857056
I0403 14:54:44.117269 30600 layer_factory.hpp:77] Creating layer inception_4b/output_inception_4b/output_0_split
I0403 14:54:44.117291 30600 net.cpp:91] Creating Layer inception_4b/output_inception_4b/output_0_split
I0403 14:54:44.117311 30600 net.cpp:425] inception_4b/output_inception_4b/output_0_split <- inception_4b/output
I0403 14:54:44.117331 30600 net.cpp:399] inception_4b/output_inception_4b/output_0_split -> inception_4b/output_inception_4b/output_0_split_0
I0403 14:54:44.117357 30600 net.cpp:399] inception_4b/output_inception_4b/output_0_split -> inception_4b/output_inception_4b/output_0_split_1
I0403 14:54:44.117386 30600 net.cpp:399] inception_4b/output_inception_4b/output_0_split -> inception_4b/output_inception_4b/output_0_split_2
I0403 14:54:44.117410 30600 net.cpp:399] inception_4b/output_inception_4b/output_0_split -> inception_4b/output_inception_4b/output_0_split_3
I0403 14:54:44.117511 30600 net.cpp:141] Setting up inception_4b/output_inception_4b/output_0_split
I0403 14:54:44.117537 30600 net.cpp:148] Top shape: 24 512 14 14 (2408448)
I0403 14:54:44.117553 30600 net.cpp:148] Top shape: 24 512 14 14 (2408448)
I0403 14:54:44.117573 30600 net.cpp:148] Top shape: 24 512 14 14 (2408448)
I0403 14:54:44.117588 30600 net.cpp:148] Top shape: 24 512 14 14 (2408448)
I0403 14:54:44.117602 30600 net.cpp:156] Memory required for data: 1028392224
I0403 14:54:44.117617 30600 layer_factory.hpp:77] Creating layer inception_4c/1x1
I0403 14:54:44.117642 30600 net.cpp:91] Creating Layer inception_4c/1x1
I0403 14:54:44.117661 30600 net.cpp:425] inception_4c/1x1 <- inception_4b/output_inception_4b/output_0_split_0
I0403 14:54:44.117683 30600 net.cpp:399] inception_4c/1x1 -> inception_4c/1x1
I0403 14:54:44.119195 30600 net.cpp:141] Setting up inception_4c/1x1
I0403 14:54:44.119228 30600 net.cpp:148] Top shape: 24 128 14 14 (602112)
I0403 14:54:44.119247 30600 net.cpp:156] Memory required for data: 1030800672
I0403 14:54:44.119267 30600 layer_factory.hpp:77] Creating layer inception_4c/relu_1x1
I0403 14:54:44.119287 30600 net.cpp:91] Creating Layer inception_4c/relu_1x1
I0403 14:54:44.119304 30600 net.cpp:425] inception_4c/relu_1x1 <- inception_4c/1x1
I0403 14:54:44.119325 30600 net.cpp:386] inception_4c/relu_1x1 -> inception_4c/1x1 (in-place)
I0403 14:54:44.119521 30600 net.cpp:141] Setting up inception_4c/relu_1x1
I0403 14:54:44.119549 30600 net.cpp:148] Top shape: 24 128 14 14 (602112)
I0403 14:54:44.119565 30600 net.cpp:156] Memory required for data: 1033209120
I0403 14:54:44.119581 30600 layer_factory.hpp:77] Creating layer inception_4c/3x3_reduce
I0403 14:54:44.119604 30600 net.cpp:91] Creating Layer inception_4c/3x3_reduce
I0403 14:54:44.119624 30600 net.cpp:425] inception_4c/3x3_reduce <- inception_4b/output_inception_4b/output_0_split_1
I0403 14:54:44.119647 30600 net.cpp:399] inception_4c/3x3_reduce -> inception_4c/3x3_reduce
I0403 14:54:44.121670 30600 net.cpp:141] Setting up inception_4c/3x3_reduce
I0403 14:54:44.121701 30600 net.cpp:148] Top shape: 24 128 14 14 (602112)
I0403 14:54:44.121719 30600 net.cpp:156] Memory required for data: 1035617568
I0403 14:54:44.121739 30600 layer_factory.hpp:77] Creating layer inception_4c/relu_3x3_reduce
I0403 14:54:44.121760 30600 net.cpp:91] Creating Layer inception_4c/relu_3x3_reduce
I0403 14:54:44.121778 30600 net.cpp:425] inception_4c/relu_3x3_reduce <- inception_4c/3x3_reduce
I0403 14:54:44.121796 30600 net.cpp:386] inception_4c/relu_3x3_reduce -> inception_4c/3x3_reduce (in-place)
I0403 14:54:44.122092 30600 net.cpp:141] Setting up inception_4c/relu_3x3_reduce
I0403 14:54:44.122119 30600 net.cpp:148] Top shape: 24 128 14 14 (602112)
I0403 14:54:44.122148 30600 net.cpp:156] Memory required for data: 1038026016
I0403 14:54:44.122166 30600 layer_factory.hpp:77] Creating layer inception_4c/3x3
I0403 14:54:44.122192 30600 net.cpp:91] Creating Layer inception_4c/3x3
I0403 14:54:44.122213 30600 net.cpp:425] inception_4c/3x3 <- inception_4c/3x3_reduce
I0403 14:54:44.122238 30600 net.cpp:399] inception_4c/3x3 -> inception_4c/3x3
I0403 14:54:44.126065 30600 net.cpp:141] Setting up inception_4c/3x3
I0403 14:54:44.126109 30600 net.cpp:148] Top shape: 24 256 14 14 (1204224)
I0403 14:54:44.126130 30600 net.cpp:156] Memory required for data: 1042842912
I0403 14:54:44.126163 30600 layer_factory.hpp:77] Creating layer inception_4c/relu_3x3
I0403 14:54:44.126188 30600 net.cpp:91] Creating Layer inception_4c/relu_3x3
I0403 14:54:44.126206 30600 net.cpp:425] inception_4c/relu_3x3 <- inception_4c/3x3
I0403 14:54:44.126225 30600 net.cpp:386] inception_4c/relu_3x3 -> inception_4c/3x3 (in-place)
I0403 14:54:44.126420 30600 net.cpp:141] Setting up inception_4c/relu_3x3
I0403 14:54:44.126447 30600 net.cpp:148] Top shape: 24 256 14 14 (1204224)
I0403 14:54:44.126463 30600 net.cpp:156] Memory required for data: 1047659808
I0403 14:54:44.126479 30600 layer_factory.hpp:77] Creating layer inception_4c/5x5_reduce
I0403 14:54:44.126507 30600 net.cpp:91] Creating Layer inception_4c/5x5_reduce
I0403 14:54:44.126528 30600 net.cpp:425] inception_4c/5x5_reduce <- inception_4b/output_inception_4b/output_0_split_2
I0403 14:54:44.126549 30600 net.cpp:399] inception_4c/5x5_reduce -> inception_4c/5x5_reduce
I0403 14:54:44.127712 30600 net.cpp:141] Setting up inception_4c/5x5_reduce
I0403 14:54:44.127743 30600 net.cpp:148] Top shape: 24 24 14 14 (112896)
I0403 14:54:44.127758 30600 net.cpp:156] Memory required for data: 1048111392
I0403 14:54:44.127779 30600 layer_factory.hpp:77] Creating layer inception_4c/relu_5x5_reduce
I0403 14:54:44.127800 30600 net.cpp:91] Creating Layer inception_4c/relu_5x5_reduce
I0403 14:54:44.127818 30600 net.cpp:425] inception_4c/relu_5x5_reduce <- inception_4c/5x5_reduce
I0403 14:54:44.127837 30600 net.cpp:386] inception_4c/relu_5x5_reduce -> inception_4c/5x5_reduce (in-place)
I0403 14:54:44.128031 30600 net.cpp:141] Setting up inception_4c/relu_5x5_reduce
I0403 14:54:44.128058 30600 net.cpp:148] Top shape: 24 24 14 14 (112896)
I0403 14:54:44.128073 30600 net.cpp:156] Memory required for data: 1048562976
I0403 14:54:44.128089 30600 layer_factory.hpp:77] Creating layer inception_4c/5x5
I0403 14:54:44.128113 30600 net.cpp:91] Creating Layer inception_4c/5x5
I0403 14:54:44.128134 30600 net.cpp:425] inception_4c/5x5 <- inception_4c/5x5_reduce
I0403 14:54:44.128156 30600 net.cpp:399] inception_4c/5x5 -> inception_4c/5x5
I0403 14:54:44.129479 30600 net.cpp:141] Setting up inception_4c/5x5
I0403 14:54:44.129511 30600 net.cpp:148] Top shape: 24 64 14 14 (301056)
I0403 14:54:44.129528 30600 net.cpp:156] Memory required for data: 1049767200
I0403 14:54:44.129549 30600 layer_factory.hpp:77] Creating layer inception_4c/relu_5x5
I0403 14:54:44.129570 30600 net.cpp:91] Creating Layer inception_4c/relu_5x5
I0403 14:54:44.129587 30600 net.cpp:425] inception_4c/relu_5x5 <- inception_4c/5x5
I0403 14:54:44.129608 30600 net.cpp:386] inception_4c/relu_5x5 -> inception_4c/5x5 (in-place)
I0403 14:54:44.129904 30600 net.cpp:141] Setting up inception_4c/relu_5x5
I0403 14:54:44.129935 30600 net.cpp:148] Top shape: 24 64 14 14 (301056)
I0403 14:54:44.129952 30600 net.cpp:156] Memory required for data: 1050971424
I0403 14:54:44.129968 30600 layer_factory.hpp:77] Creating layer inception_4c/pool
I0403 14:54:44.129987 30600 net.cpp:91] Creating Layer inception_4c/pool
I0403 14:54:44.130004 30600 net.cpp:425] inception_4c/pool <- inception_4b/output_inception_4b/output_0_split_3
I0403 14:54:44.130026 30600 net.cpp:399] inception_4c/pool -> inception_4c/pool
I0403 14:54:44.130108 30600 net.cpp:141] Setting up inception_4c/pool
I0403 14:54:44.130138 30600 net.cpp:148] Top shape: 24 512 14 14 (2408448)
I0403 14:54:44.130156 30600 net.cpp:156] Memory required for data: 1060605216
I0403 14:54:44.130173 30600 layer_factory.hpp:77] Creating layer inception_4c/pool_proj
I0403 14:54:44.130195 30600 net.cpp:91] Creating Layer inception_4c/pool_proj
I0403 14:54:44.130214 30600 net.cpp:425] inception_4c/pool_proj <- inception_4c/pool
I0403 14:54:44.130239 30600 net.cpp:399] inception_4c/pool_proj -> inception_4c/pool_proj
I0403 14:54:44.131518 30600 net.cpp:141] Setting up inception_4c/pool_proj
I0403 14:54:44.131548 30600 net.cpp:148] Top shape: 24 64 14 14 (301056)
I0403 14:54:44.131584 30600 net.cpp:156] Memory required for data: 1061809440
I0403 14:54:44.131605 30600 layer_factory.hpp:77] Creating layer inception_4c/relu_pool_proj
I0403 14:54:44.131639 30600 net.cpp:91] Creating Layer inception_4c/relu_pool_proj
I0403 14:54:44.131657 30600 net.cpp:425] inception_4c/relu_pool_proj <- inception_4c/pool_proj
I0403 14:54:44.131678 30600 net.cpp:386] inception_4c/relu_pool_proj -> inception_4c/pool_proj (in-place)
I0403 14:54:44.131875 30600 net.cpp:141] Setting up inception_4c/relu_pool_proj
I0403 14:54:44.131906 30600 net.cpp:148] Top shape: 24 64 14 14 (301056)
I0403 14:54:44.131924 30600 net.cpp:156] Memory required for data: 1063013664
I0403 14:54:44.131940 30600 layer_factory.hpp:77] Creating layer inception_4c/output
I0403 14:54:44.131973 30600 net.cpp:91] Creating Layer inception_4c/output
I0403 14:54:44.131989 30600 net.cpp:425] inception_4c/output <- inception_4c/1x1
I0403 14:54:44.132006 30600 net.cpp:425] inception_4c/output <- inception_4c/3x3
I0403 14:54:44.132024 30600 net.cpp:425] inception_4c/output <- inception_4c/5x5
I0403 14:54:44.132040 30600 net.cpp:425] inception_4c/output <- inception_4c/pool_proj
I0403 14:54:44.132062 30600 net.cpp:399] inception_4c/output -> inception_4c/output
I0403 14:54:44.132110 30600 net.cpp:141] Setting up inception_4c/output
I0403 14:54:44.132135 30600 net.cpp:148] Top shape: 24 512 14 14 (2408448)
I0403 14:54:44.132164 30600 net.cpp:156] Memory required for data: 1072647456
I0403 14:54:44.132179 30600 layer_factory.hpp:77] Creating layer inception_4c/output_inception_4c/output_0_split
I0403 14:54:44.132200 30600 net.cpp:91] Creating Layer inception_4c/output_inception_4c/output_0_split
I0403 14:54:44.132216 30600 net.cpp:425] inception_4c/output_inception_4c/output_0_split <- inception_4c/output
I0403 14:54:44.132236 30600 net.cpp:399] inception_4c/output_inception_4c/output_0_split -> inception_4c/output_inception_4c/output_0_split_0
I0403 14:54:44.132257 30600 net.cpp:399] inception_4c/output_inception_4c/output_0_split -> inception_4c/output_inception_4c/output_0_split_1
I0403 14:54:44.132283 30600 net.cpp:399] inception_4c/output_inception_4c/output_0_split -> inception_4c/output_inception_4c/output_0_split_2
I0403 14:54:44.132305 30600 net.cpp:399] inception_4c/output_inception_4c/output_0_split -> inception_4c/output_inception_4c/output_0_split_3
I0403 14:54:44.132398 30600 net.cpp:141] Setting up inception_4c/output_inception_4c/output_0_split
I0403 14:54:44.132423 30600 net.cpp:148] Top shape: 24 512 14 14 (2408448)
I0403 14:54:44.132441 30600 net.cpp:148] Top shape: 24 512 14 14 (2408448)
I0403 14:54:44.132457 30600 net.cpp:148] Top shape: 24 512 14 14 (2408448)
I0403 14:54:44.132473 30600 net.cpp:148] Top shape: 24 512 14 14 (2408448)
I0403 14:54:44.132488 30600 net.cpp:156] Memory required for data: 1111182624
I0403 14:54:44.132503 30600 layer_factory.hpp:77] Creating layer inception_4d/1x1
I0403 14:54:44.132526 30600 net.cpp:91] Creating Layer inception_4d/1x1
I0403 14:54:44.132557 30600 net.cpp:425] inception_4d/1x1 <- inception_4c/output_inception_4c/output_0_split_0
I0403 14:54:44.132580 30600 net.cpp:399] inception_4d/1x1 -> inception_4d/1x1
I0403 14:54:44.133963 30600 net.cpp:141] Setting up inception_4d/1x1
I0403 14:54:44.133991 30600 net.cpp:148] Top shape: 24 112 14 14 (526848)
I0403 14:54:44.134007 30600 net.cpp:156] Memory required for data: 1113290016
I0403 14:54:44.134026 30600 layer_factory.hpp:77] Creating layer inception_4d/relu_1x1
I0403 14:54:44.134047 30600 net.cpp:91] Creating Layer inception_4d/relu_1x1
I0403 14:54:44.134064 30600 net.cpp:425] inception_4d/relu_1x1 <- inception_4d/1x1
I0403 14:54:44.134083 30600 net.cpp:386] inception_4d/relu_1x1 -> inception_4d/1x1 (in-place)
I0403 14:54:44.134263 30600 net.cpp:141] Setting up inception_4d/relu_1x1
I0403 14:54:44.134289 30600 net.cpp:148] Top shape: 24 112 14 14 (526848)
I0403 14:54:44.134304 30600 net.cpp:156] Memory required for data: 1115397408
I0403 14:54:44.134320 30600 layer_factory.hpp:77] Creating layer inception_4d/3x3_reduce
I0403 14:54:44.134361 30600 net.cpp:91] Creating Layer inception_4d/3x3_reduce
I0403 14:54:44.134380 30600 net.cpp:425] inception_4d/3x3_reduce <- inception_4c/output_inception_4c/output_0_split_1
I0403 14:54:44.134402 30600 net.cpp:399] inception_4d/3x3_reduce -> inception_4d/3x3_reduce
I0403 14:54:44.135910 30600 net.cpp:141] Setting up inception_4d/3x3_reduce
I0403 14:54:44.135938 30600 net.cpp:148] Top shape: 24 144 14 14 (677376)
I0403 14:54:44.135954 30600 net.cpp:156] Memory required for data: 1118106912
I0403 14:54:44.135972 30600 layer_factory.hpp:77] Creating layer inception_4d/relu_3x3_reduce
I0403 14:54:44.135990 30600 net.cpp:91] Creating Layer inception_4d/relu_3x3_reduce
I0403 14:54:44.136006 30600 net.cpp:425] inception_4d/relu_3x3_reduce <- inception_4d/3x3_reduce
I0403 14:54:44.136028 30600 net.cpp:386] inception_4d/relu_3x3_reduce -> inception_4d/3x3_reduce (in-place)
I0403 14:54:44.136328 30600 net.cpp:141] Setting up inception_4d/relu_3x3_reduce
I0403 14:54:44.136360 30600 net.cpp:148] Top shape: 24 144 14 14 (677376)
I0403 14:54:44.136378 30600 net.cpp:156] Memory required for data: 1120816416
I0403 14:54:44.136394 30600 layer_factory.hpp:77] Creating layer inception_4d/3x3
I0403 14:54:44.136417 30600 net.cpp:91] Creating Layer inception_4d/3x3
I0403 14:54:44.136436 30600 net.cpp:425] inception_4d/3x3 <- inception_4d/3x3_reduce
I0403 14:54:44.136458 30600 net.cpp:399] inception_4d/3x3 -> inception_4d/3x3
I0403 14:54:44.140653 30600 net.cpp:141] Setting up inception_4d/3x3
I0403 14:54:44.140681 30600 net.cpp:148] Top shape: 24 288 14 14 (1354752)
I0403 14:54:44.140697 30600 net.cpp:156] Memory required for data: 1126235424
I0403 14:54:44.140717 30600 layer_factory.hpp:77] Creating layer inception_4d/relu_3x3
I0403 14:54:44.140738 30600 net.cpp:91] Creating Layer inception_4d/relu_3x3
I0403 14:54:44.140756 30600 net.cpp:425] inception_4d/relu_3x3 <- inception_4d/3x3
I0403 14:54:44.140774 30600 net.cpp:386] inception_4d/relu_3x3 -> inception_4d/3x3 (in-place)
I0403 14:54:44.140952 30600 net.cpp:141] Setting up inception_4d/relu_3x3
I0403 14:54:44.140980 30600 net.cpp:148] Top shape: 24 288 14 14 (1354752)
I0403 14:54:44.140996 30600 net.cpp:156] Memory required for data: 1131654432
I0403 14:54:44.141012 30600 layer_factory.hpp:77] Creating layer inception_4d/5x5_reduce
I0403 14:54:44.141034 30600 net.cpp:91] Creating Layer inception_4d/5x5_reduce
I0403 14:54:44.141052 30600 net.cpp:425] inception_4d/5x5_reduce <- inception_4c/output_inception_4c/output_0_split_2
I0403 14:54:44.141072 30600 net.cpp:399] inception_4d/5x5_reduce -> inception_4d/5x5_reduce
I0403 14:54:44.142204 30600 net.cpp:141] Setting up inception_4d/5x5_reduce
I0403 14:54:44.142232 30600 net.cpp:148] Top shape: 24 32 14 14 (150528)
I0403 14:54:44.142247 30600 net.cpp:156] Memory required for data: 1132256544
I0403 14:54:44.142266 30600 layer_factory.hpp:77] Creating layer inception_4d/relu_5x5_reduce
I0403 14:54:44.142287 30600 net.cpp:91] Creating Layer inception_4d/relu_5x5_reduce
I0403 14:54:44.142304 30600 net.cpp:425] inception_4d/relu_5x5_reduce <- inception_4d/5x5_reduce
I0403 14:54:44.142321 30600 net.cpp:386] inception_4d/relu_5x5_reduce -> inception_4d/5x5_reduce (in-place)
I0403 14:54:44.142510 30600 net.cpp:141] Setting up inception_4d/relu_5x5_reduce
I0403 14:54:44.142536 30600 net.cpp:148] Top shape: 24 32 14 14 (150528)
I0403 14:54:44.142551 30600 net.cpp:156] Memory required for data: 1132858656
I0403 14:54:44.142566 30600 layer_factory.hpp:77] Creating layer inception_4d/5x5
I0403 14:54:44.142590 30600 net.cpp:91] Creating Layer inception_4d/5x5
I0403 14:54:44.142608 30600 net.cpp:425] inception_4d/5x5 <- inception_4d/5x5_reduce
I0403 14:54:44.142628 30600 net.cpp:399] inception_4d/5x5 -> inception_4d/5x5
I0403 14:54:44.144083 30600 net.cpp:141] Setting up inception_4d/5x5
I0403 14:54:44.144114 30600 net.cpp:148] Top shape: 24 64 14 14 (301056)
I0403 14:54:44.144130 30600 net.cpp:156] Memory required for data: 1134062880
I0403 14:54:44.144151 30600 layer_factory.hpp:77] Creating layer inception_4d/relu_5x5
I0403 14:54:44.144183 30600 net.cpp:91] Creating Layer inception_4d/relu_5x5
I0403 14:54:44.144201 30600 net.cpp:425] inception_4d/relu_5x5 <- inception_4d/5x5
I0403 14:54:44.144222 30600 net.cpp:386] inception_4d/relu_5x5 -> inception_4d/5x5 (in-place)
I0403 14:54:44.144525 30600 net.cpp:141] Setting up inception_4d/relu_5x5
I0403 14:54:44.144554 30600 net.cpp:148] Top shape: 24 64 14 14 (301056)
I0403 14:54:44.144572 30600 net.cpp:156] Memory required for data: 1135267104
I0403 14:54:44.144587 30600 layer_factory.hpp:77] Creating layer inception_4d/pool
I0403 14:54:44.144606 30600 net.cpp:91] Creating Layer inception_4d/pool
I0403 14:54:44.144623 30600 net.cpp:425] inception_4d/pool <- inception_4c/output_inception_4c/output_0_split_3
I0403 14:54:44.144644 30600 net.cpp:399] inception_4d/pool -> inception_4d/pool
I0403 14:54:44.144711 30600 net.cpp:141] Setting up inception_4d/pool
I0403 14:54:44.144736 30600 net.cpp:148] Top shape: 24 512 14 14 (2408448)
I0403 14:54:44.144752 30600 net.cpp:156] Memory required for data: 1144900896
I0403 14:54:44.144767 30600 layer_factory.hpp:77] Creating layer inception_4d/pool_proj
I0403 14:54:44.144790 30600 net.cpp:91] Creating Layer inception_4d/pool_proj
I0403 14:54:44.144809 30600 net.cpp:425] inception_4d/pool_proj <- inception_4d/pool
I0403 14:54:44.144830 30600 net.cpp:399] inception_4d/pool_proj -> inception_4d/pool_proj
I0403 14:54:44.146615 30600 net.cpp:141] Setting up inception_4d/pool_proj
I0403 14:54:44.146644 30600 net.cpp:148] Top shape: 24 64 14 14 (301056)
I0403 14:54:44.146661 30600 net.cpp:156] Memory required for data: 1146105120
I0403 14:54:44.146678 30600 layer_factory.hpp:77] Creating layer inception_4d/relu_pool_proj
I0403 14:54:44.146700 30600 net.cpp:91] Creating Layer inception_4d/relu_pool_proj
I0403 14:54:44.146719 30600 net.cpp:425] inception_4d/relu_pool_proj <- inception_4d/pool_proj
I0403 14:54:44.146739 30600 net.cpp:386] inception_4d/relu_pool_proj -> inception_4d/pool_proj (in-place)
I0403 14:54:44.146925 30600 net.cpp:141] Setting up inception_4d/relu_pool_proj
I0403 14:54:44.146953 30600 net.cpp:148] Top shape: 24 64 14 14 (301056)
I0403 14:54:44.146970 30600 net.cpp:156] Memory required for data: 1147309344
I0403 14:54:44.146986 30600 layer_factory.hpp:77] Creating layer inception_4d/output
I0403 14:54:44.147003 30600 net.cpp:91] Creating Layer inception_4d/output
I0403 14:54:44.147018 30600 net.cpp:425] inception_4d/output <- inception_4d/1x1
I0403 14:54:44.147035 30600 net.cpp:425] inception_4d/output <- inception_4d/3x3
I0403 14:54:44.147053 30600 net.cpp:425] inception_4d/output <- inception_4d/5x5
I0403 14:54:44.147069 30600 net.cpp:425] inception_4d/output <- inception_4d/pool_proj
I0403 14:54:44.147086 30600 net.cpp:399] inception_4d/output -> inception_4d/output
I0403 14:54:44.147136 30600 net.cpp:141] Setting up inception_4d/output
I0403 14:54:44.147161 30600 net.cpp:148] Top shape: 24 528 14 14 (2483712)
I0403 14:54:44.147176 30600 net.cpp:156] Memory required for data: 1157244192
I0403 14:54:44.147192 30600 layer_factory.hpp:77] Creating layer inception_4d/output_inception_4d/output_0_split
I0403 14:54:44.147212 30600 net.cpp:91] Creating Layer inception_4d/output_inception_4d/output_0_split
I0403 14:54:44.147228 30600 net.cpp:425] inception_4d/output_inception_4d/output_0_split <- inception_4d/output
I0403 14:54:44.147248 30600 net.cpp:399] inception_4d/output_inception_4d/output_0_split -> inception_4d/output_inception_4d/output_0_split_0
I0403 14:54:44.147269 30600 net.cpp:399] inception_4d/output_inception_4d/output_0_split -> inception_4d/output_inception_4d/output_0_split_1
I0403 14:54:44.147291 30600 net.cpp:399] inception_4d/output_inception_4d/output_0_split -> inception_4d/output_inception_4d/output_0_split_2
I0403 14:54:44.147313 30600 net.cpp:399] inception_4d/output_inception_4d/output_0_split -> inception_4d/output_inception_4d/output_0_split_3
I0403 14:54:44.147337 30600 net.cpp:399] inception_4d/output_inception_4d/output_0_split -> inception_4d/output_inception_4d/output_0_split_4
I0403 14:54:44.147450 30600 net.cpp:141] Setting up inception_4d/output_inception_4d/output_0_split
I0403 14:54:44.147487 30600 net.cpp:148] Top shape: 24 528 14 14 (2483712)
I0403 14:54:44.147506 30600 net.cpp:148] Top shape: 24 528 14 14 (2483712)
I0403 14:54:44.147523 30600 net.cpp:148] Top shape: 24 528 14 14 (2483712)
I0403 14:54:44.147538 30600 net.cpp:148] Top shape: 24 528 14 14 (2483712)
I0403 14:54:44.147554 30600 net.cpp:148] Top shape: 24 528 14 14 (2483712)
I0403 14:54:44.147570 30600 net.cpp:156] Memory required for data: 1206918432
I0403 14:54:44.147585 30600 layer_factory.hpp:77] Creating layer loss2/ave_pool
I0403 14:54:44.147604 30600 net.cpp:91] Creating Layer loss2/ave_pool
I0403 14:54:44.147624 30600 net.cpp:425] loss2/ave_pool <- inception_4d/output_inception_4d/output_0_split_0
I0403 14:54:44.147644 30600 net.cpp:399] loss2/ave_pool -> loss2/ave_pool
I0403 14:54:44.147955 30600 net.cpp:141] Setting up loss2/ave_pool
I0403 14:54:44.147984 30600 net.cpp:148] Top shape: 24 528 4 4 (202752)
I0403 14:54:44.147999 30600 net.cpp:156] Memory required for data: 1207729440
I0403 14:54:44.148015 30600 layer_factory.hpp:77] Creating layer loss2/conv
I0403 14:54:44.148038 30600 net.cpp:91] Creating Layer loss2/conv
I0403 14:54:44.148057 30600 net.cpp:425] loss2/conv <- loss2/ave_pool
I0403 14:54:44.148079 30600 net.cpp:399] loss2/conv -> loss2/conv
I0403 14:54:44.150136 30600 net.cpp:141] Setting up loss2/conv
I0403 14:54:44.150171 30600 net.cpp:148] Top shape: 24 128 4 4 (49152)
I0403 14:54:44.150190 30600 net.cpp:156] Memory required for data: 1207926048
I0403 14:54:44.150210 30600 layer_factory.hpp:77] Creating layer loss2/relu_conv
I0403 14:54:44.150230 30600 net.cpp:91] Creating Layer loss2/relu_conv
I0403 14:54:44.150249 30600 net.cpp:425] loss2/relu_conv <- loss2/conv
I0403 14:54:44.150267 30600 net.cpp:386] loss2/relu_conv -> loss2/conv (in-place)
I0403 14:54:44.150566 30600 net.cpp:141] Setting up loss2/relu_conv
I0403 14:54:44.150599 30600 net.cpp:148] Top shape: 24 128 4 4 (49152)
I0403 14:54:44.150615 30600 net.cpp:156] Memory required for data: 1208122656
I0403 14:54:44.150632 30600 layer_factory.hpp:77] Creating layer loss2/fc
I0403 14:54:44.150653 30600 net.cpp:91] Creating Layer loss2/fc
I0403 14:54:44.150671 30600 net.cpp:425] loss2/fc <- loss2/conv
I0403 14:54:44.150696 30600 net.cpp:399] loss2/fc -> loss2/fc
I0403 14:54:44.168848 30600 net.cpp:141] Setting up loss2/fc
I0403 14:54:44.168905 30600 net.cpp:148] Top shape: 24 1024 (24576)
I0403 14:54:44.168922 30600 net.cpp:156] Memory required for data: 1208220960
I0403 14:54:44.168943 30600 layer_factory.hpp:77] Creating layer loss2/relu_fc
I0403 14:54:44.168965 30600 net.cpp:91] Creating Layer loss2/relu_fc
I0403 14:54:44.168994 30600 net.cpp:425] loss2/relu_fc <- loss2/fc
I0403 14:54:44.169013 30600 net.cpp:386] loss2/relu_fc -> loss2/fc (in-place)
I0403 14:54:44.169383 30600 net.cpp:141] Setting up loss2/relu_fc
I0403 14:54:44.169409 30600 net.cpp:148] Top shape: 24 1024 (24576)
I0403 14:54:44.169425 30600 net.cpp:156] Memory required for data: 1208319264
I0403 14:54:44.169441 30600 layer_factory.hpp:77] Creating layer loss2/drop_fc
I0403 14:54:44.169462 30600 net.cpp:91] Creating Layer loss2/drop_fc
I0403 14:54:44.169479 30600 net.cpp:425] loss2/drop_fc <- loss2/fc
I0403 14:54:44.169497 30600 net.cpp:386] loss2/drop_fc -> loss2/fc (in-place)
I0403 14:54:44.169550 30600 net.cpp:141] Setting up loss2/drop_fc
I0403 14:54:44.169576 30600 net.cpp:148] Top shape: 24 1024 (24576)
I0403 14:54:44.169592 30600 net.cpp:156] Memory required for data: 1208417568
I0403 14:54:44.169607 30600 layer_factory.hpp:77] Creating layer loss2/classifier_plantvillage
I0403 14:54:44.169631 30600 net.cpp:91] Creating Layer loss2/classifier_plantvillage
I0403 14:54:44.169647 30600 net.cpp:425] loss2/classifier_plantvillage <- loss2/fc
I0403 14:54:44.169667 30600 net.cpp:399] loss2/classifier_plantvillage -> loss2/classifier_plantvillage
I0403 14:54:44.170081 30600 net.cpp:141] Setting up loss2/classifier_plantvillage
I0403 14:54:44.170107 30600 net.cpp:148] Top shape: 24 38 (912)
I0403 14:54:44.170123 30600 net.cpp:156] Memory required for data: 1208421216
I0403 14:54:44.170173 30600 layer_factory.hpp:77] Creating layer loss2/classifier_plantvillage_loss2/classifier_plantvillage_0_split
I0403 14:54:44.170193 30600 net.cpp:91] Creating Layer loss2/classifier_plantvillage_loss2/classifier_plantvillage_0_split
I0403 14:54:44.170210 30600 net.cpp:425] loss2/classifier_plantvillage_loss2/classifier_plantvillage_0_split <- loss2/classifier_plantvillage
I0403 14:54:44.170233 30600 net.cpp:399] loss2/classifier_plantvillage_loss2/classifier_plantvillage_0_split -> loss2/classifier_plantvillage_loss2/classifier_plantvillage_0_split_0
I0403 14:54:44.170254 30600 net.cpp:399] loss2/classifier_plantvillage_loss2/classifier_plantvillage_0_split -> loss2/classifier_plantvillage_loss2/classifier_plantvillage_0_split_1
I0403 14:54:44.170276 30600 net.cpp:399] loss2/classifier_plantvillage_loss2/classifier_plantvillage_0_split -> loss2/classifier_plantvillage_loss2/classifier_plantvillage_0_split_2
I0403 14:54:44.170361 30600 net.cpp:141] Setting up loss2/classifier_plantvillage_loss2/classifier_plantvillage_0_split
I0403 14:54:44.170388 30600 net.cpp:148] Top shape: 24 38 (912)
I0403 14:54:44.170408 30600 net.cpp:148] Top shape: 24 38 (912)
I0403 14:54:44.170424 30600 net.cpp:148] Top shape: 24 38 (912)
I0403 14:54:44.170439 30600 net.cpp:156] Memory required for data: 1208432160
I0403 14:54:44.170454 30600 layer_factory.hpp:77] Creating layer inception_4e/1x1
I0403 14:54:44.170487 30600 net.cpp:91] Creating Layer inception_4e/1x1
I0403 14:54:44.170507 30600 net.cpp:425] inception_4e/1x1 <- inception_4d/output_inception_4d/output_0_split_1
I0403 14:54:44.170532 30600 net.cpp:399] inception_4e/1x1 -> inception_4e/1x1
I0403 14:54:44.172408 30600 net.cpp:141] Setting up inception_4e/1x1
I0403 14:54:44.172441 30600 net.cpp:148] Top shape: 24 256 14 14 (1204224)
I0403 14:54:44.172456 30600 net.cpp:156] Memory required for data: 1213249056
I0403 14:54:44.172477 30600 layer_factory.hpp:77] Creating layer inception_4e/relu_1x1
I0403 14:54:44.172497 30600 net.cpp:91] Creating Layer inception_4e/relu_1x1
I0403 14:54:44.172513 30600 net.cpp:425] inception_4e/relu_1x1 <- inception_4e/1x1
I0403 14:54:44.172534 30600 net.cpp:386] inception_4e/relu_1x1 -> inception_4e/1x1 (in-place)
I0403 14:54:44.172834 30600 net.cpp:141] Setting up inception_4e/relu_1x1
I0403 14:54:44.172863 30600 net.cpp:148] Top shape: 24 256 14 14 (1204224)
I0403 14:54:44.172879 30600 net.cpp:156] Memory required for data: 1218065952
I0403 14:54:44.172894 30600 layer_factory.hpp:77] Creating layer inception_4e/3x3_reduce
I0403 14:54:44.172919 30600 net.cpp:91] Creating Layer inception_4e/3x3_reduce
I0403 14:54:44.172937 30600 net.cpp:425] inception_4e/3x3_reduce <- inception_4d/output_inception_4d/output_0_split_2
I0403 14:54:44.172958 30600 net.cpp:399] inception_4e/3x3_reduce -> inception_4e/3x3_reduce
I0403 14:54:44.175122 30600 net.cpp:141] Setting up inception_4e/3x3_reduce
I0403 14:54:44.175159 30600 net.cpp:148] Top shape: 24 160 14 14 (752640)
I0403 14:54:44.175178 30600 net.cpp:156] Memory required for data: 1221076512
I0403 14:54:44.175197 30600 layer_factory.hpp:77] Creating layer inception_4e/relu_3x3_reduce
I0403 14:54:44.175215 30600 net.cpp:91] Creating Layer inception_4e/relu_3x3_reduce
I0403 14:54:44.175232 30600 net.cpp:425] inception_4e/relu_3x3_reduce <- inception_4e/3x3_reduce
I0403 14:54:44.175251 30600 net.cpp:386] inception_4e/relu_3x3_reduce -> inception_4e/3x3_reduce (in-place)
I0403 14:54:44.175448 30600 net.cpp:141] Setting up inception_4e/relu_3x3_reduce
I0403 14:54:44.175474 30600 net.cpp:148] Top shape: 24 160 14 14 (752640)
I0403 14:54:44.175489 30600 net.cpp:156] Memory required for data: 1224087072
I0403 14:54:44.175505 30600 layer_factory.hpp:77] Creating layer inception_4e/3x3
I0403 14:54:44.175529 30600 net.cpp:91] Creating Layer inception_4e/3x3
I0403 14:54:44.175547 30600 net.cpp:425] inception_4e/3x3 <- inception_4e/3x3_reduce
I0403 14:54:44.175571 30600 net.cpp:399] inception_4e/3x3 -> inception_4e/3x3
I0403 14:54:44.180594 30600 net.cpp:141] Setting up inception_4e/3x3
I0403 14:54:44.180636 30600 net.cpp:148] Top shape: 24 320 14 14 (1505280)
I0403 14:54:44.180652 30600 net.cpp:156] Memory required for data: 1230108192
I0403 14:54:44.180671 30600 layer_factory.hpp:77] Creating layer inception_4e/relu_3x3
I0403 14:54:44.180691 30600 net.cpp:91] Creating Layer inception_4e/relu_3x3
I0403 14:54:44.180707 30600 net.cpp:425] inception_4e/relu_3x3 <- inception_4e/3x3
I0403 14:54:44.180728 30600 net.cpp:386] inception_4e/relu_3x3 -> inception_4e/3x3 (in-place)
I0403 14:54:44.181030 30600 net.cpp:141] Setting up inception_4e/relu_3x3
I0403 14:54:44.181058 30600 net.cpp:148] Top shape: 24 320 14 14 (1505280)
I0403 14:54:44.181074 30600 net.cpp:156] Memory required for data: 1236129312
I0403 14:54:44.181089 30600 layer_factory.hpp:77] Creating layer inception_4e/5x5_reduce
I0403 14:54:44.181113 30600 net.cpp:91] Creating Layer inception_4e/5x5_reduce
I0403 14:54:44.181133 30600 net.cpp:425] inception_4e/5x5_reduce <- inception_4d/output_inception_4d/output_0_split_3
I0403 14:54:44.181154 30600 net.cpp:399] inception_4e/5x5_reduce -> inception_4e/5x5_reduce
I0403 14:54:44.182245 30600 net.cpp:141] Setting up inception_4e/5x5_reduce
I0403 14:54:44.182276 30600 net.cpp:148] Top shape: 24 32 14 14 (150528)
I0403 14:54:44.182293 30600 net.cpp:156] Memory required for data: 1236731424
I0403 14:54:44.182312 30600 layer_factory.hpp:77] Creating layer inception_4e/relu_5x5_reduce
I0403 14:54:44.182332 30600 net.cpp:91] Creating Layer inception_4e/relu_5x5_reduce
I0403 14:54:44.182353 30600 net.cpp:425] inception_4e/relu_5x5_reduce <- inception_4e/5x5_reduce
I0403 14:54:44.182375 30600 net.cpp:386] inception_4e/relu_5x5_reduce -> inception_4e/5x5_reduce (in-place)
I0403 14:54:44.182674 30600 net.cpp:141] Setting up inception_4e/relu_5x5_reduce
I0403 14:54:44.182704 30600 net.cpp:148] Top shape: 24 32 14 14 (150528)
I0403 14:54:44.182721 30600 net.cpp:156] Memory required for data: 1237333536
I0403 14:54:44.182737 30600 layer_factory.hpp:77] Creating layer inception_4e/5x5
I0403 14:54:44.182780 30600 net.cpp:91] Creating Layer inception_4e/5x5
I0403 14:54:44.182801 30600 net.cpp:425] inception_4e/5x5 <- inception_4e/5x5_reduce
I0403 14:54:44.182821 30600 net.cpp:399] inception_4e/5x5 -> inception_4e/5x5
I0403 14:54:44.184689 30600 net.cpp:141] Setting up inception_4e/5x5
I0403 14:54:44.184717 30600 net.cpp:148] Top shape: 24 128 14 14 (602112)
I0403 14:54:44.184736 30600 net.cpp:156] Memory required for data: 1239741984
I0403 14:54:44.184756 30600 layer_factory.hpp:77] Creating layer inception_4e/relu_5x5
I0403 14:54:44.184777 30600 net.cpp:91] Creating Layer inception_4e/relu_5x5
I0403 14:54:44.184793 30600 net.cpp:425] inception_4e/relu_5x5 <- inception_4e/5x5
I0403 14:54:44.184813 30600 net.cpp:386] inception_4e/relu_5x5 -> inception_4e/5x5 (in-place)
I0403 14:54:44.185012 30600 net.cpp:141] Setting up inception_4e/relu_5x5
I0403 14:54:44.185040 30600 net.cpp:148] Top shape: 24 128 14 14 (602112)
I0403 14:54:44.185057 30600 net.cpp:156] Memory required for data: 1242150432
I0403 14:54:44.185073 30600 layer_factory.hpp:77] Creating layer inception_4e/pool
I0403 14:54:44.185092 30600 net.cpp:91] Creating Layer inception_4e/pool
I0403 14:54:44.185108 30600 net.cpp:425] inception_4e/pool <- inception_4d/output_inception_4d/output_0_split_4
I0403 14:54:44.185130 30600 net.cpp:399] inception_4e/pool -> inception_4e/pool
I0403 14:54:44.185201 30600 net.cpp:141] Setting up inception_4e/pool
I0403 14:54:44.185227 30600 net.cpp:148] Top shape: 24 528 14 14 (2483712)
I0403 14:54:44.185243 30600 net.cpp:156] Memory required for data: 1252085280
I0403 14:54:44.185258 30600 layer_factory.hpp:77] Creating layer inception_4e/pool_proj
I0403 14:54:44.185281 30600 net.cpp:91] Creating Layer inception_4e/pool_proj
I0403 14:54:44.185302 30600 net.cpp:425] inception_4e/pool_proj <- inception_4e/pool
I0403 14:54:44.185322 30600 net.cpp:399] inception_4e/pool_proj -> inception_4e/pool_proj
I0403 14:54:44.186841 30600 net.cpp:141] Setting up inception_4e/pool_proj
I0403 14:54:44.186871 30600 net.cpp:148] Top shape: 24 128 14 14 (602112)
I0403 14:54:44.186902 30600 net.cpp:156] Memory required for data: 1254493728
I0403 14:54:44.186923 30600 layer_factory.hpp:77] Creating layer inception_4e/relu_pool_proj
I0403 14:54:44.186944 30600 net.cpp:91] Creating Layer inception_4e/relu_pool_proj
I0403 14:54:44.186961 30600 net.cpp:425] inception_4e/relu_pool_proj <- inception_4e/pool_proj
I0403 14:54:44.186980 30600 net.cpp:386] inception_4e/relu_pool_proj -> inception_4e/pool_proj (in-place)
I0403 14:54:44.187285 30600 net.cpp:141] Setting up inception_4e/relu_pool_proj
I0403 14:54:44.187314 30600 net.cpp:148] Top shape: 24 128 14 14 (602112)
I0403 14:54:44.187330 30600 net.cpp:156] Memory required for data: 1256902176
I0403 14:54:44.187350 30600 layer_factory.hpp:77] Creating layer inception_4e/output
I0403 14:54:44.187369 30600 net.cpp:91] Creating Layer inception_4e/output
I0403 14:54:44.187386 30600 net.cpp:425] inception_4e/output <- inception_4e/1x1
I0403 14:54:44.187407 30600 net.cpp:425] inception_4e/output <- inception_4e/3x3
I0403 14:54:44.187425 30600 net.cpp:425] inception_4e/output <- inception_4e/5x5
I0403 14:54:44.187443 30600 net.cpp:425] inception_4e/output <- inception_4e/pool_proj
I0403 14:54:44.187461 30600 net.cpp:399] inception_4e/output -> inception_4e/output
I0403 14:54:44.187515 30600 net.cpp:141] Setting up inception_4e/output
I0403 14:54:44.187541 30600 net.cpp:148] Top shape: 24 832 14 14 (3913728)
I0403 14:54:44.187564 30600 net.cpp:156] Memory required for data: 1272557088
I0403 14:54:44.187580 30600 layer_factory.hpp:77] Creating layer pool4/3x3_s2
I0403 14:54:44.187599 30600 net.cpp:91] Creating Layer pool4/3x3_s2
I0403 14:54:44.187615 30600 net.cpp:425] pool4/3x3_s2 <- inception_4e/output
I0403 14:54:44.187638 30600 net.cpp:399] pool4/3x3_s2 -> pool4/3x3_s2
I0403 14:54:44.187705 30600 net.cpp:141] Setting up pool4/3x3_s2
I0403 14:54:44.187731 30600 net.cpp:148] Top shape: 24 832 7 7 (978432)
I0403 14:54:44.187747 30600 net.cpp:156] Memory required for data: 1276470816
I0403 14:54:44.187762 30600 layer_factory.hpp:77] Creating layer pool4/3x3_s2_pool4/3x3_s2_0_split
I0403 14:54:44.187783 30600 net.cpp:91] Creating Layer pool4/3x3_s2_pool4/3x3_s2_0_split
I0403 14:54:44.187800 30600 net.cpp:425] pool4/3x3_s2_pool4/3x3_s2_0_split <- pool4/3x3_s2
I0403 14:54:44.187819 30600 net.cpp:399] pool4/3x3_s2_pool4/3x3_s2_0_split -> pool4/3x3_s2_pool4/3x3_s2_0_split_0
I0403 14:54:44.187844 30600 net.cpp:399] pool4/3x3_s2_pool4/3x3_s2_0_split -> pool4/3x3_s2_pool4/3x3_s2_0_split_1
I0403 14:54:44.187865 30600 net.cpp:399] pool4/3x3_s2_pool4/3x3_s2_0_split -> pool4/3x3_s2_pool4/3x3_s2_0_split_2
I0403 14:54:44.187886 30600 net.cpp:399] pool4/3x3_s2_pool4/3x3_s2_0_split -> pool4/3x3_s2_pool4/3x3_s2_0_split_3
I0403 14:54:44.187976 30600 net.cpp:141] Setting up pool4/3x3_s2_pool4/3x3_s2_0_split
I0403 14:54:44.188001 30600 net.cpp:148] Top shape: 24 832 7 7 (978432)
I0403 14:54:44.188019 30600 net.cpp:148] Top shape: 24 832 7 7 (978432)
I0403 14:54:44.188035 30600 net.cpp:148] Top shape: 24 832 7 7 (978432)
I0403 14:54:44.188050 30600 net.cpp:148] Top shape: 24 832 7 7 (978432)
I0403 14:54:44.188065 30600 net.cpp:156] Memory required for data: 1292125728
I0403 14:54:44.188079 30600 layer_factory.hpp:77] Creating layer inception_5a/1x1
I0403 14:54:44.188102 30600 net.cpp:91] Creating Layer inception_5a/1x1
I0403 14:54:44.188120 30600 net.cpp:425] inception_5a/1x1 <- pool4/3x3_s2_pool4/3x3_s2_0_split_0
I0403 14:54:44.188141 30600 net.cpp:399] inception_5a/1x1 -> inception_5a/1x1
I0403 14:54:44.191016 30600 net.cpp:141] Setting up inception_5a/1x1
I0403 14:54:44.191050 30600 net.cpp:148] Top shape: 24 256 7 7 (301056)
I0403 14:54:44.191067 30600 net.cpp:156] Memory required for data: 1293329952
I0403 14:54:44.191087 30600 layer_factory.hpp:77] Creating layer inception_5a/relu_1x1
I0403 14:54:44.191105 30600 net.cpp:91] Creating Layer inception_5a/relu_1x1
I0403 14:54:44.191123 30600 net.cpp:425] inception_5a/relu_1x1 <- inception_5a/1x1
I0403 14:54:44.191140 30600 net.cpp:386] inception_5a/relu_1x1 -> inception_5a/1x1 (in-place)
I0403 14:54:44.191460 30600 net.cpp:141] Setting up inception_5a/relu_1x1
I0403 14:54:44.191490 30600 net.cpp:148] Top shape: 24 256 7 7 (301056)
I0403 14:54:44.191507 30600 net.cpp:156] Memory required for data: 1294534176
I0403 14:54:44.191524 30600 layer_factory.hpp:77] Creating layer inception_5a/3x3_reduce
I0403 14:54:44.191550 30600 net.cpp:91] Creating Layer inception_5a/3x3_reduce
I0403 14:54:44.191570 30600 net.cpp:425] inception_5a/3x3_reduce <- pool4/3x3_s2_pool4/3x3_s2_0_split_1
I0403 14:54:44.191592 30600 net.cpp:399] inception_5a/3x3_reduce -> inception_5a/3x3_reduce
I0403 14:54:44.194172 30600 net.cpp:141] Setting up inception_5a/3x3_reduce
I0403 14:54:44.194203 30600 net.cpp:148] Top shape: 24 160 7 7 (188160)
I0403 14:54:44.194219 30600 net.cpp:156] Memory required for data: 1295286816
I0403 14:54:44.194239 30600 layer_factory.hpp:77] Creating layer inception_5a/relu_3x3_reduce
I0403 14:54:44.194258 30600 net.cpp:91] Creating Layer inception_5a/relu_3x3_reduce
I0403 14:54:44.194277 30600 net.cpp:425] inception_5a/relu_3x3_reduce <- inception_5a/3x3_reduce
I0403 14:54:44.194298 30600 net.cpp:386] inception_5a/relu_3x3_reduce -> inception_5a/3x3_reduce (in-place)
I0403 14:54:44.194489 30600 net.cpp:141] Setting up inception_5a/relu_3x3_reduce
I0403 14:54:44.194517 30600 net.cpp:148] Top shape: 24 160 7 7 (188160)
I0403 14:54:44.194547 30600 net.cpp:156] Memory required for data: 1296039456
I0403 14:54:44.194564 30600 layer_factory.hpp:77] Creating layer inception_5a/3x3
I0403 14:54:44.194589 30600 net.cpp:91] Creating Layer inception_5a/3x3
I0403 14:54:44.194608 30600 net.cpp:425] inception_5a/3x3 <- inception_5a/3x3_reduce
I0403 14:54:44.194633 30600 net.cpp:399] inception_5a/3x3 -> inception_5a/3x3
I0403 14:54:44.199791 30600 net.cpp:141] Setting up inception_5a/3x3
I0403 14:54:44.199823 30600 net.cpp:148] Top shape: 24 320 7 7 (376320)
I0403 14:54:44.199839 30600 net.cpp:156] Memory required for data: 1297544736
I0403 14:54:44.199859 30600 layer_factory.hpp:77] Creating layer inception_5a/relu_3x3
I0403 14:54:44.199883 30600 net.cpp:91] Creating Layer inception_5a/relu_3x3
I0403 14:54:44.199903 30600 net.cpp:425] inception_5a/relu_3x3 <- inception_5a/3x3
I0403 14:54:44.199920 30600 net.cpp:386] inception_5a/relu_3x3 -> inception_5a/3x3 (in-place)
I0403 14:54:44.200224 30600 net.cpp:141] Setting up inception_5a/relu_3x3
I0403 14:54:44.200251 30600 net.cpp:148] Top shape: 24 320 7 7 (376320)
I0403 14:54:44.200268 30600 net.cpp:156] Memory required for data: 1299050016
I0403 14:54:44.200283 30600 layer_factory.hpp:77] Creating layer inception_5a/5x5_reduce
I0403 14:54:44.200307 30600 net.cpp:91] Creating Layer inception_5a/5x5_reduce
I0403 14:54:44.200328 30600 net.cpp:425] inception_5a/5x5_reduce <- pool4/3x3_s2_pool4/3x3_s2_0_split_2
I0403 14:54:44.200352 30600 net.cpp:399] inception_5a/5x5_reduce -> inception_5a/5x5_reduce
I0403 14:54:44.201542 30600 net.cpp:141] Setting up inception_5a/5x5_reduce
I0403 14:54:44.201576 30600 net.cpp:148] Top shape: 24 32 7 7 (37632)
I0403 14:54:44.201592 30600 net.cpp:156] Memory required for data: 1299200544
I0403 14:54:44.201612 30600 layer_factory.hpp:77] Creating layer inception_5a/relu_5x5_reduce
I0403 14:54:44.201632 30600 net.cpp:91] Creating Layer inception_5a/relu_5x5_reduce
I0403 14:54:44.201649 30600 net.cpp:425] inception_5a/relu_5x5_reduce <- inception_5a/5x5_reduce
I0403 14:54:44.201668 30600 net.cpp:386] inception_5a/relu_5x5_reduce -> inception_5a/5x5_reduce (in-place)
I0403 14:54:44.201972 30600 net.cpp:141] Setting up inception_5a/relu_5x5_reduce
I0403 14:54:44.202002 30600 net.cpp:148] Top shape: 24 32 7 7 (37632)
I0403 14:54:44.202018 30600 net.cpp:156] Memory required for data: 1299351072
I0403 14:54:44.202033 30600 layer_factory.hpp:77] Creating layer inception_5a/5x5
I0403 14:54:44.202056 30600 net.cpp:91] Creating Layer inception_5a/5x5
I0403 14:54:44.202076 30600 net.cpp:425] inception_5a/5x5 <- inception_5a/5x5_reduce
I0403 14:54:44.202096 30600 net.cpp:399] inception_5a/5x5 -> inception_5a/5x5
I0403 14:54:44.203858 30600 net.cpp:141] Setting up inception_5a/5x5
I0403 14:54:44.203902 30600 net.cpp:148] Top shape: 24 128 7 7 (150528)
I0403 14:54:44.203918 30600 net.cpp:156] Memory required for data: 1299953184
I0403 14:54:44.203939 30600 layer_factory.hpp:77] Creating layer inception_5a/relu_5x5
I0403 14:54:44.203961 30600 net.cpp:91] Creating Layer inception_5a/relu_5x5
I0403 14:54:44.203980 30600 net.cpp:425] inception_5a/relu_5x5 <- inception_5a/5x5
I0403 14:54:44.203999 30600 net.cpp:386] inception_5a/relu_5x5 -> inception_5a/5x5 (in-place)
I0403 14:54:44.204191 30600 net.cpp:141] Setting up inception_5a/relu_5x5
I0403 14:54:44.204221 30600 net.cpp:148] Top shape: 24 128 7 7 (150528)
I0403 14:54:44.204236 30600 net.cpp:156] Memory required for data: 1300555296
I0403 14:54:44.204252 30600 layer_factory.hpp:77] Creating layer inception_5a/pool
I0403 14:54:44.204272 30600 net.cpp:91] Creating Layer inception_5a/pool
I0403 14:54:44.204288 30600 net.cpp:425] inception_5a/pool <- pool4/3x3_s2_pool4/3x3_s2_0_split_3
I0403 14:54:44.204309 30600 net.cpp:399] inception_5a/pool -> inception_5a/pool
I0403 14:54:44.204387 30600 net.cpp:141] Setting up inception_5a/pool
I0403 14:54:44.204414 30600 net.cpp:148] Top shape: 24 832 7 7 (978432)
I0403 14:54:44.204430 30600 net.cpp:156] Memory required for data: 1304469024
I0403 14:54:44.204447 30600 layer_factory.hpp:77] Creating layer inception_5a/pool_proj
I0403 14:54:44.204471 30600 net.cpp:91] Creating Layer inception_5a/pool_proj
I0403 14:54:44.204490 30600 net.cpp:425] inception_5a/pool_proj <- inception_5a/pool
I0403 14:54:44.204512 30600 net.cpp:399] inception_5a/pool_proj -> inception_5a/pool_proj
I0403 14:54:44.206804 30600 net.cpp:141] Setting up inception_5a/pool_proj
I0403 14:54:44.206835 30600 net.cpp:148] Top shape: 24 128 7 7 (150528)
I0403 14:54:44.206851 30600 net.cpp:156] Memory required for data: 1305071136
I0403 14:54:44.206871 30600 layer_factory.hpp:77] Creating layer inception_5a/relu_pool_proj
I0403 14:54:44.206892 30600 net.cpp:91] Creating Layer inception_5a/relu_pool_proj
I0403 14:54:44.206909 30600 net.cpp:425] inception_5a/relu_pool_proj <- inception_5a/pool_proj
I0403 14:54:44.206928 30600 net.cpp:386] inception_5a/relu_pool_proj -> inception_5a/pool_proj (in-place)
I0403 14:54:44.207226 30600 net.cpp:141] Setting up inception_5a/relu_pool_proj
I0403 14:54:44.207253 30600 net.cpp:148] Top shape: 24 128 7 7 (150528)
I0403 14:54:44.207268 30600 net.cpp:156] Memory required for data: 1305673248
I0403 14:54:44.207285 30600 layer_factory.hpp:77] Creating layer inception_5a/output
I0403 14:54:44.207309 30600 net.cpp:91] Creating Layer inception_5a/output
I0403 14:54:44.207325 30600 net.cpp:425] inception_5a/output <- inception_5a/1x1
I0403 14:54:44.207345 30600 net.cpp:425] inception_5a/output <- inception_5a/3x3
I0403 14:54:44.207370 30600 net.cpp:425] inception_5a/output <- inception_5a/5x5
I0403 14:54:44.207387 30600 net.cpp:425] inception_5a/output <- inception_5a/pool_proj
I0403 14:54:44.207406 30600 net.cpp:399] inception_5a/output -> inception_5a/output
I0403 14:54:44.207459 30600 net.cpp:141] Setting up inception_5a/output
I0403 14:54:44.207484 30600 net.cpp:148] Top shape: 24 832 7 7 (978432)
I0403 14:54:44.207499 30600 net.cpp:156] Memory required for data: 1309586976
I0403 14:54:44.207515 30600 layer_factory.hpp:77] Creating layer inception_5a/output_inception_5a/output_0_split
I0403 14:54:44.207532 30600 net.cpp:91] Creating Layer inception_5a/output_inception_5a/output_0_split
I0403 14:54:44.207550 30600 net.cpp:425] inception_5a/output_inception_5a/output_0_split <- inception_5a/output
I0403 14:54:44.207569 30600 net.cpp:399] inception_5a/output_inception_5a/output_0_split -> inception_5a/output_inception_5a/output_0_split_0
I0403 14:54:44.207590 30600 net.cpp:399] inception_5a/output_inception_5a/output_0_split -> inception_5a/output_inception_5a/output_0_split_1
I0403 14:54:44.207612 30600 net.cpp:399] inception_5a/output_inception_5a/output_0_split -> inception_5a/output_inception_5a/output_0_split_2
I0403 14:54:44.207633 30600 net.cpp:399] inception_5a/output_inception_5a/output_0_split -> inception_5a/output_inception_5a/output_0_split_3
I0403 14:54:44.207746 30600 net.cpp:141] Setting up inception_5a/output_inception_5a/output_0_split
I0403 14:54:44.207775 30600 net.cpp:148] Top shape: 24 832 7 7 (978432)
I0403 14:54:44.207793 30600 net.cpp:148] Top shape: 24 832 7 7 (978432)
I0403 14:54:44.207811 30600 net.cpp:148] Top shape: 24 832 7 7 (978432)
I0403 14:54:44.207828 30600 net.cpp:148] Top shape: 24 832 7 7 (978432)
I0403 14:54:44.207842 30600 net.cpp:156] Memory required for data: 1325241888
I0403 14:54:44.207859 30600 layer_factory.hpp:77] Creating layer inception_5b/1x1
I0403 14:54:44.207881 30600 net.cpp:91] Creating Layer inception_5b/1x1
I0403 14:54:44.207900 30600 net.cpp:425] inception_5b/1x1 <- inception_5a/output_inception_5a/output_0_split_0
I0403 14:54:44.207921 30600 net.cpp:399] inception_5b/1x1 -> inception_5b/1x1
I0403 14:54:44.211835 30600 net.cpp:141] Setting up inception_5b/1x1
I0403 14:54:44.211869 30600 net.cpp:148] Top shape: 24 384 7 7 (451584)
I0403 14:54:44.211886 30600 net.cpp:156] Memory required for data: 1327048224
I0403 14:54:44.211906 30600 layer_factory.hpp:77] Creating layer inception_5b/relu_1x1
I0403 14:54:44.211928 30600 net.cpp:91] Creating Layer inception_5b/relu_1x1
I0403 14:54:44.211947 30600 net.cpp:425] inception_5b/relu_1x1 <- inception_5b/1x1
I0403 14:54:44.211967 30600 net.cpp:386] inception_5b/relu_1x1 -> inception_5b/1x1 (in-place)
I0403 14:54:44.212285 30600 net.cpp:141] Setting up inception_5b/relu_1x1
I0403 14:54:44.212312 30600 net.cpp:148] Top shape: 24 384 7 7 (451584)
I0403 14:54:44.212328 30600 net.cpp:156] Memory required for data: 1328854560
I0403 14:54:44.212344 30600 layer_factory.hpp:77] Creating layer inception_5b/3x3_reduce
I0403 14:54:44.212374 30600 net.cpp:91] Creating Layer inception_5b/3x3_reduce
I0403 14:54:44.212395 30600 net.cpp:425] inception_5b/3x3_reduce <- inception_5a/output_inception_5a/output_0_split_1
I0403 14:54:44.212420 30600 net.cpp:399] inception_5b/3x3_reduce -> inception_5b/3x3_reduce
I0403 14:54:44.215188 30600 net.cpp:141] Setting up inception_5b/3x3_reduce
I0403 14:54:44.215221 30600 net.cpp:148] Top shape: 24 192 7 7 (225792)
I0403 14:54:44.215240 30600 net.cpp:156] Memory required for data: 1329757728
I0403 14:54:44.215260 30600 layer_factory.hpp:77] Creating layer inception_5b/relu_3x3_reduce
I0403 14:54:44.215283 30600 net.cpp:91] Creating Layer inception_5b/relu_3x3_reduce
I0403 14:54:44.215301 30600 net.cpp:425] inception_5b/relu_3x3_reduce <- inception_5b/3x3_reduce
I0403 14:54:44.215320 30600 net.cpp:386] inception_5b/relu_3x3_reduce -> inception_5b/3x3_reduce (in-place)
I0403 14:54:44.215524 30600 net.cpp:141] Setting up inception_5b/relu_3x3_reduce
I0403 14:54:44.215553 30600 net.cpp:148] Top shape: 24 192 7 7 (225792)
I0403 14:54:44.215569 30600 net.cpp:156] Memory required for data: 1330660896
I0403 14:54:44.215584 30600 layer_factory.hpp:77] Creating layer inception_5b/3x3
I0403 14:54:44.215610 30600 net.cpp:91] Creating Layer inception_5b/3x3
I0403 14:54:44.215629 30600 net.cpp:425] inception_5b/3x3 <- inception_5b/3x3_reduce
I0403 14:54:44.215651 30600 net.cpp:399] inception_5b/3x3 -> inception_5b/3x3
I0403 14:54:44.222600 30600 net.cpp:141] Setting up inception_5b/3x3
I0403 14:54:44.222632 30600 net.cpp:148] Top shape: 24 384 7 7 (451584)
I0403 14:54:44.222650 30600 net.cpp:156] Memory required for data: 1332467232
I0403 14:54:44.222671 30600 layer_factory.hpp:77] Creating layer inception_5b/relu_3x3
I0403 14:54:44.222692 30600 net.cpp:91] Creating Layer inception_5b/relu_3x3
I0403 14:54:44.222712 30600 net.cpp:425] inception_5b/relu_3x3 <- inception_5b/3x3
I0403 14:54:44.222731 30600 net.cpp:386] inception_5b/relu_3x3 -> inception_5b/3x3 (in-place)
I0403 14:54:44.223040 30600 net.cpp:141] Setting up inception_5b/relu_3x3
I0403 14:54:44.223069 30600 net.cpp:148] Top shape: 24 384 7 7 (451584)
I0403 14:54:44.223084 30600 net.cpp:156] Memory required for data: 1334273568
I0403 14:54:44.223100 30600 layer_factory.hpp:77] Creating layer inception_5b/5x5_reduce
I0403 14:54:44.223145 30600 net.cpp:91] Creating Layer inception_5b/5x5_reduce
I0403 14:54:44.223165 30600 net.cpp:425] inception_5b/5x5_reduce <- inception_5a/output_inception_5a/output_0_split_2
I0403 14:54:44.223188 30600 net.cpp:399] inception_5b/5x5_reduce -> inception_5b/5x5_reduce
I0403 14:54:44.224526 30600 net.cpp:141] Setting up inception_5b/5x5_reduce
I0403 14:54:44.224556 30600 net.cpp:148] Top shape: 24 48 7 7 (56448)
I0403 14:54:44.224573 30600 net.cpp:156] Memory required for data: 1334499360
I0403 14:54:44.224594 30600 layer_factory.hpp:77] Creating layer inception_5b/relu_5x5_reduce
I0403 14:54:44.224618 30600 net.cpp:91] Creating Layer inception_5b/relu_5x5_reduce
I0403 14:54:44.224637 30600 net.cpp:425] inception_5b/relu_5x5_reduce <- inception_5b/5x5_reduce
I0403 14:54:44.224656 30600 net.cpp:386] inception_5b/relu_5x5_reduce -> inception_5b/5x5_reduce (in-place)
I0403 14:54:44.225044 30600 net.cpp:141] Setting up inception_5b/relu_5x5_reduce
I0403 14:54:44.225074 30600 net.cpp:148] Top shape: 24 48 7 7 (56448)
I0403 14:54:44.225090 30600 net.cpp:156] Memory required for data: 1334725152
I0403 14:54:44.225106 30600 layer_factory.hpp:77] Creating layer inception_5b/5x5
I0403 14:54:44.225127 30600 net.cpp:91] Creating Layer inception_5b/5x5
I0403 14:54:44.225147 30600 net.cpp:425] inception_5b/5x5 <- inception_5b/5x5_reduce
I0403 14:54:44.225167 30600 net.cpp:399] inception_5b/5x5 -> inception_5b/5x5
I0403 14:54:44.227324 30600 net.cpp:141] Setting up inception_5b/5x5
I0403 14:54:44.227361 30600 net.cpp:148] Top shape: 24 128 7 7 (150528)
I0403 14:54:44.227392 30600 net.cpp:156] Memory required for data: 1335327264
I0403 14:54:44.227412 30600 layer_factory.hpp:77] Creating layer inception_5b/relu_5x5
I0403 14:54:44.227432 30600 net.cpp:91] Creating Layer inception_5b/relu_5x5
I0403 14:54:44.227448 30600 net.cpp:425] inception_5b/relu_5x5 <- inception_5b/5x5
I0403 14:54:44.227466 30600 net.cpp:386] inception_5b/relu_5x5 -> inception_5b/5x5 (in-place)
I0403 14:54:44.227665 30600 net.cpp:141] Setting up inception_5b/relu_5x5
I0403 14:54:44.227704 30600 net.cpp:148] Top shape: 24 128 7 7 (150528)
I0403 14:54:44.227722 30600 net.cpp:156] Memory required for data: 1335929376
I0403 14:54:44.227738 30600 layer_factory.hpp:77] Creating layer inception_5b/pool
I0403 14:54:44.227757 30600 net.cpp:91] Creating Layer inception_5b/pool
I0403 14:54:44.227774 30600 net.cpp:425] inception_5b/pool <- inception_5a/output_inception_5a/output_0_split_3
I0403 14:54:44.227795 30600 net.cpp:399] inception_5b/pool -> inception_5b/pool
I0403 14:54:44.227872 30600 net.cpp:141] Setting up inception_5b/pool
I0403 14:54:44.227900 30600 net.cpp:148] Top shape: 24 832 7 7 (978432)
I0403 14:54:44.227916 30600 net.cpp:156] Memory required for data: 1339843104
I0403 14:54:44.227932 30600 layer_factory.hpp:77] Creating layer inception_5b/pool_proj
I0403 14:54:44.227952 30600 net.cpp:91] Creating Layer inception_5b/pool_proj
I0403 14:54:44.227972 30600 net.cpp:425] inception_5b/pool_proj <- inception_5b/pool
I0403 14:54:44.227993 30600 net.cpp:399] inception_5b/pool_proj -> inception_5b/pool_proj
I0403 14:54:44.230307 30600 net.cpp:141] Setting up inception_5b/pool_proj
I0403 14:54:44.230337 30600 net.cpp:148] Top shape: 24 128 7 7 (150528)
I0403 14:54:44.230358 30600 net.cpp:156] Memory required for data: 1340445216
I0403 14:54:44.230381 30600 layer_factory.hpp:77] Creating layer inception_5b/relu_pool_proj
I0403 14:54:44.230402 30600 net.cpp:91] Creating Layer inception_5b/relu_pool_proj
I0403 14:54:44.230422 30600 net.cpp:425] inception_5b/relu_pool_proj <- inception_5b/pool_proj
I0403 14:54:44.230440 30600 net.cpp:386] inception_5b/relu_pool_proj -> inception_5b/pool_proj (in-place)
I0403 14:54:44.230746 30600 net.cpp:141] Setting up inception_5b/relu_pool_proj
I0403 14:54:44.230774 30600 net.cpp:148] Top shape: 24 128 7 7 (150528)
I0403 14:54:44.230790 30600 net.cpp:156] Memory required for data: 1341047328
I0403 14:54:44.230806 30600 layer_factory.hpp:77] Creating layer inception_5b/output
I0403 14:54:44.230829 30600 net.cpp:91] Creating Layer inception_5b/output
I0403 14:54:44.230861 30600 net.cpp:425] inception_5b/output <- inception_5b/1x1
I0403 14:54:44.230881 30600 net.cpp:425] inception_5b/output <- inception_5b/3x3
I0403 14:54:44.230898 30600 net.cpp:425] inception_5b/output <- inception_5b/5x5
I0403 14:54:44.230916 30600 net.cpp:425] inception_5b/output <- inception_5b/pool_proj
I0403 14:54:44.230934 30600 net.cpp:399] inception_5b/output -> inception_5b/output
I0403 14:54:44.230991 30600 net.cpp:141] Setting up inception_5b/output
I0403 14:54:44.231016 30600 net.cpp:148] Top shape: 24 1024 7 7 (1204224)
I0403 14:54:44.231032 30600 net.cpp:156] Memory required for data: 1345864224
I0403 14:54:44.231047 30600 layer_factory.hpp:77] Creating layer pool5/7x7_s1
I0403 14:54:44.231065 30600 net.cpp:91] Creating Layer pool5/7x7_s1
I0403 14:54:44.231082 30600 net.cpp:425] pool5/7x7_s1 <- inception_5b/output
I0403 14:54:44.231102 30600 net.cpp:399] pool5/7x7_s1 -> pool5/7x7_s1
I0403 14:54:44.231322 30600 net.cpp:141] Setting up pool5/7x7_s1
I0403 14:54:44.231351 30600 net.cpp:148] Top shape: 24 1024 1 1 (24576)
I0403 14:54:44.231369 30600 net.cpp:156] Memory required for data: 1345962528
I0403 14:54:44.231384 30600 layer_factory.hpp:77] Creating layer pool5/drop_7x7_s1
I0403 14:54:44.231405 30600 net.cpp:91] Creating Layer pool5/drop_7x7_s1
I0403 14:54:44.231422 30600 net.cpp:425] pool5/drop_7x7_s1 <- pool5/7x7_s1
I0403 14:54:44.231441 30600 net.cpp:386] pool5/drop_7x7_s1 -> pool5/7x7_s1 (in-place)
I0403 14:54:44.231497 30600 net.cpp:141] Setting up pool5/drop_7x7_s1
I0403 14:54:44.231521 30600 net.cpp:148] Top shape: 24 1024 1 1 (24576)
I0403 14:54:44.231537 30600 net.cpp:156] Memory required for data: 1346060832
I0403 14:54:44.231552 30600 layer_factory.hpp:77] Creating layer loss3/classifier_plantvillage
I0403 14:54:44.231573 30600 net.cpp:91] Creating Layer loss3/classifier_plantvillage
I0403 14:54:44.231592 30600 net.cpp:425] loss3/classifier_plantvillage <- pool5/7x7_s1
I0403 14:54:44.231612 30600 net.cpp:399] loss3/classifier_plantvillage -> loss3/classifier_plantvillage
I0403 14:54:44.232046 30600 net.cpp:141] Setting up loss3/classifier_plantvillage
I0403 14:54:44.232072 30600 net.cpp:148] Top shape: 24 38 (912)
I0403 14:54:44.232089 30600 net.cpp:156] Memory required for data: 1346064480
I0403 14:54:44.232106 30600 layer_factory.hpp:77] Creating layer loss3/classifier_plantvillage_loss3/classifier_plantvillage_0_split
I0403 14:54:44.232126 30600 net.cpp:91] Creating Layer loss3/classifier_plantvillage_loss3/classifier_plantvillage_0_split
I0403 14:54:44.232144 30600 net.cpp:425] loss3/classifier_plantvillage_loss3/classifier_plantvillage_0_split <- loss3/classifier_plantvillage
I0403 14:54:44.232168 30600 net.cpp:399] loss3/classifier_plantvillage_loss3/classifier_plantvillage_0_split -> loss3/classifier_plantvillage_loss3/classifier_plantvillage_0_split_0
I0403 14:54:44.232190 30600 net.cpp:399] loss3/classifier_plantvillage_loss3/classifier_plantvillage_0_split -> loss3/classifier_plantvillage_loss3/classifier_plantvillage_0_split_1
I0403 14:54:44.232213 30600 net.cpp:399] loss3/classifier_plantvillage_loss3/classifier_plantvillage_0_split -> loss3/classifier_plantvillage_loss3/classifier_plantvillage_0_split_2
I0403 14:54:44.232234 30600 net.cpp:399] loss3/classifier_plantvillage_loss3/classifier_plantvillage_0_split -> loss3/classifier_plantvillage_loss3/classifier_plantvillage_0_split_3
I0403 14:54:44.232337 30600 net.cpp:141] Setting up loss3/classifier_plantvillage_loss3/classifier_plantvillage_0_split
I0403 14:54:44.232367 30600 net.cpp:148] Top shape: 24 38 (912)
I0403 14:54:44.232383 30600 net.cpp:148] Top shape: 24 38 (912)
I0403 14:54:44.232401 30600 net.cpp:148] Top shape: 24 38 (912)
I0403 14:54:44.232419 30600 net.cpp:148] Top shape: 24 38 (912)
I0403 14:54:44.232432 30600 net.cpp:156] Memory required for data: 1346079072
I0403 14:54:44.232447 30600 layer_factory.hpp:77] Creating layer loss1/loss
I0403 14:54:44.232470 30600 net.cpp:91] Creating Layer loss1/loss
I0403 14:54:44.232487 30600 net.cpp:425] loss1/loss <- loss1/classifier_plantvillage_loss1/classifier_plantvillage_0_split_0
I0403 14:54:44.232520 30600 net.cpp:425] loss1/loss <- label_data_1_split_0
…
