…
I0403 13:29:00.493834 28224 net.cpp:313] The NetState phase (1) differed from the phase (0) specified by a rule in layer data
I0403 13:29:00.494422 28224 net.cpp:49] Initializing net from parameters: 
state {
  phase: TEST
}
layer {
  name: "data"
  type: "Data"
  top: "data"
  top: "label"
  include {
    phase: TEST
  }
  transform_param {
    crop_size: 227
    mean_file: "/home/mohanty/data/final_dataset/lmdb/grayscale-20-80/mean.binaryproto"
  }
  data_param {
    source: "/home/mohanty/data/final_dataset/lmdb/grayscale-20-80/test_db"
    batch_size: 100
    backend: LMDB
  }
}
layer {
  name: "conv1"
  type: "Convolution"
  bottom: "data"
  top: "conv1"
  param {
    lr_mult: 1
    decay_mult: 1
  }
  param {
    lr_mult: 2
    decay_mult: 0
  }
  convolution_param {
    num_output: 96
    kernel_size: 11
    stride: 4
    weight_filler {
      type: "gaussian"
      std: 0.01
    }
    bias_filler {
      type: "constant"
      value: 0
    }
  }
}
layer {
  name: "relu1"
  type: "ReLU"
  bottom: "conv1"
  top: "conv1"
}
layer {
  name: "norm1"
  type: "LRN"
  bottom: "conv1"
  top: "norm1"
  lrn_param {
    local_size: 5
    alpha: 0.0001
    beta: 0.75
  }
}
layer {
  name: "pool1"
  type: "Pooling"
  bottom: "norm1"
  top: "pool1"
  pooling_param {
    pool: MAX
    kernel_size: 3
    stride: 2
  }
}
layer {
  name: "conv2"
  type: "Convolution"
  bottom: "pool1"
  top: "conv2"
  param {
    lr_mult: 1
    decay_mult: 1
  }
  param {
    lr_mult: 2
    decay_mult: 0
  }
  convolution_param {
    num_output: 256
    pad: 2
    kernel_size: 5
    group: 2
    weight_filler {
      type: "gaussian"
      std: 0.01
    }
    bias_filler {
      type: "constant"
      value: 0.1
    }
  }
}
layer {
  name: "relu2"
  type: "ReLU"
  bottom: "conv2"
  top: "conv2"
}
layer {
  name: "norm2"
  type: "LRN"
  bottom: "conv2"
  top: "norm2"
  lrn_param {
    local_size: 5
    alpha: 0.0001
    beta: 0.75
  }
}
layer {
  name: "pool2"
  type: "Pooling"
  bottom: "norm2"
  top: "pool2"
  pooling_param {
    pool: MAX
    kernel_size: 3
    stride: 2
  }
}
layer {
  name: "conv3"
  type: "Convolution"
  bottom: "pool2"
  top: "conv3"
  param {
    lr_mult: 1
    decay_mult: 1
  }
  param {
    lr_mult: 2
    decay_mult: 0
  }
  convolution_param {
    num_output: 384
    pad: 1
    kernel_size: 3
    weight_filler {
      type: "gaussian"
      std: 0.01
    }
    bias_filler {
      type: "constant"
      value: 0
    }
  }
}
layer {
  name: "relu3"
  type: "ReLU"
  bottom: "conv3"
  top: "conv3"
}
layer {
  name: "conv4"
  type: "Convolution"
  bottom: "conv3"
  top: "conv4"
  param {
    lr_mult: 1
    decay_mult: 1
  }
  param {
    lr_mult: 2
    decay_mult: 0
  }
  convolution_param {
    num_output: 384
    pad: 1
    kernel_size: 3
    group: 2
    weight_filler {
      type: "gaussian"
      std: 0.01
    }
    bias_filler {
      type: "constant"
      value: 0.1
    }
  }
}
layer {
  name: "relu4"
  type: "ReLU"
  bottom: "conv4"
  top: "conv4"
}
layer {
  name: "conv5"
  type: "Convolution"
  bottom: "conv4"
  top: "conv5"
  param {
    lr_mult: 1
    decay_mult: 1
  }
  param {
    lr_mult: 2
    decay_mult: 0
  }
  convolution_param {
    num_output: 256
    pad: 1
    kernel_size: 3
    group: 2
    weight_filler {
      type: "gaussian"
      std: 0.01
    }
    bias_filler {
      type: "constant"
      value: 0.1
    }
  }
}
layer {
  name: "relu5"
  type: "ReLU"
  bottom: "conv5"
  top: "conv5"
}
layer {
  name: "pool5"
  type: "Pooling"
  bottom: "conv5"
  top: "pool5"
  pooling_param {
    pool: MAX
    kernel_size: 3
    stride: 2
  }
}
layer {
  name: "fc6"
  type: "InnerProduct"
  bottom: "pool5"
  top: "fc6"
  param {
    lr_mult: 1
    decay_mult: 1
  }
  param {
    lr_mult: 2
    decay_mult: 0
  }
  inner_product_param {
    num_output: 4096
    weight_filler {
      type: "gaussian"
      std: 0.005
    }
    bias_filler {
      type: "constant"
      value: 0.1
    }
  }
}
layer {
  name: "relu6"
  type: "ReLU"
  bottom: "fc6"
  top: "fc6"
}
layer {
  name: "drop6"
  type: "Dropout"
  bottom: "fc6"
  top: "fc6"
  dropout_param {
    dropout_ratio: 0.5
  }
}
layer {
  name: "fc7"
  type: "InnerProduct"
  bottom: "fc6"
  top: "fc7"
  param {
    lr_mult: 1
    decay_mult: 1
  }
  param {
    lr_mult: 2
    decay_mult: 0
  }
  inner_product_param {
    num_output: 4096
    weight_filler {
      type: "gaussian"
      std: 0.005
    }
    bias_filler {
      type: "constant"
      value: 0.1
    }
  }
}
layer {
  name: "relu7"
  type: "ReLU"
  bottom: "fc7"
  top: "fc7"
}
layer {
  name: "drop7"
  type: "Dropout"
  bottom: "fc7"
  top: "fc7"
  dropout_param {
    dropout_ratio: 0.5
  }
}
layer {
  name: "fc8_plantvillage"
  type: "InnerProduct"
  bottom: "fc7"
  top: "fc8_plantvillage"
  param {
    lr_mult: 1
    decay_mult: 1
  }
  param {
    lr_mult: 2
    decay_mult: 0
  }
  inner_product_param {
    num_output: 38
    weight_filler {
      type: "gaussian"
      std: 0.01
    }
    bias_filler {
      type: "constant"
      value: 0
    }
  }
}
layer {
  name: "prob"
  type: "Softmax"
  bottom: "fc8_plantvillage"
  top: "prob"
  include {
    phase: TEST
  }
}
layer {
  name: "hdf5out"
  type: "HDF5Output"
  bottom: "prob"
  bottom: "label"
  include {
    phase: TEST
  }
  hdf5_output_param {
    file_name: "hdf5_dumps/iter_525.h5"
  }
}
layer {
  name: "loss"
  type: "SoftmaxWithLoss"
  bottom: "fc8_plantvillage"
  bottom: "label"
  top: "loss"
}
layer {
  name: "accuracy"
  type: "Accuracy"
  bottom: "fc8_plantvillage"
  bottom: "label"
  top: "accuracy"
  include {
    phase: TEST
  }
}
I0403 13:29:00.495163 28224 layer_factory.hpp:77] Creating layer data
I0403 13:29:00.496738 28224 net.cpp:91] Creating Layer data
I0403 13:29:00.496815 28224 net.cpp:399] data -> data
I0403 13:29:00.496927 28224 net.cpp:399] data -> label
I0403 13:29:00.497020 28224 data_transformer.cpp:25] Loading mean file from: /home/mohanty/data/final_dataset/lmdb/grayscale-20-80/mean.binaryproto
I0403 13:29:00.499265 28228 db_lmdb.cpp:38] Opened lmdb /home/mohanty/data/final_dataset/lmdb/grayscale-20-80/test_db
I0403 13:29:00.515405 28224 data_layer.cpp:41] output data size: 100,3,227,227
I0403 13:29:00.634330 28224 net.cpp:141] Setting up data
I0403 13:29:00.634425 28224 net.cpp:148] Top shape: 100 3 227 227 (15458700)
I0403 13:29:00.634450 28224 net.cpp:148] Top shape: 100 (100)
I0403 13:29:00.634465 28224 net.cpp:156] Memory required for data: 61835200
I0403 13:29:00.634493 28224 layer_factory.hpp:77] Creating layer label_data_1_split
I0403 13:29:00.634519 28224 net.cpp:91] Creating Layer label_data_1_split
I0403 13:29:00.634537 28224 net.cpp:425] label_data_1_split <- label
I0403 13:29:00.634569 28224 net.cpp:399] label_data_1_split -> label_data_1_split_0
I0403 13:29:00.634598 28224 net.cpp:399] label_data_1_split -> label_data_1_split_1
I0403 13:29:00.634618 28224 net.cpp:399] label_data_1_split -> label_data_1_split_2
I0403 13:29:00.634682 28224 net.cpp:141] Setting up label_data_1_split
I0403 13:29:00.634706 28224 net.cpp:148] Top shape: 100 (100)
I0403 13:29:00.634722 28224 net.cpp:148] Top shape: 100 (100)
I0403 13:29:00.634738 28224 net.cpp:148] Top shape: 100 (100)
I0403 13:29:00.634753 28224 net.cpp:156] Memory required for data: 61836400
I0403 13:29:00.634769 28224 layer_factory.hpp:77] Creating layer conv1
I0403 13:29:00.634809 28224 net.cpp:91] Creating Layer conv1
I0403 13:29:00.634829 28224 net.cpp:425] conv1 <- data
I0403 13:29:00.634850 28224 net.cpp:399] conv1 -> conv1
I0403 13:29:00.777163 28224 net.cpp:141] Setting up conv1
I0403 13:29:00.777238 28224 net.cpp:148] Top shape: 100 96 55 55 (29040000)
I0403 13:29:00.777256 28224 net.cpp:156] Memory required for data: 177996400
I0403 13:29:00.777289 28224 layer_factory.hpp:77] Creating layer relu1
I0403 13:29:00.777323 28224 net.cpp:91] Creating Layer relu1
I0403 13:29:00.777345 28224 net.cpp:425] relu1 <- conv1
I0403 13:29:00.777364 28224 net.cpp:386] relu1 -> conv1 (in-place)
I0403 13:29:00.777622 28224 net.cpp:141] Setting up relu1
I0403 13:29:00.777650 28224 net.cpp:148] Top shape: 100 96 55 55 (29040000)
I0403 13:29:00.777700 28224 net.cpp:156] Memory required for data: 294156400
I0403 13:29:00.777717 28224 layer_factory.hpp:77] Creating layer norm1
I0403 13:29:00.777745 28224 net.cpp:91] Creating Layer norm1
I0403 13:29:00.777763 28224 net.cpp:425] norm1 <- conv1
I0403 13:29:00.777783 28224 net.cpp:399] norm1 -> norm1
I0403 13:29:00.778112 28224 net.cpp:141] Setting up norm1
I0403 13:29:00.778141 28224 net.cpp:148] Top shape: 100 96 55 55 (29040000)
I0403 13:29:00.778157 28224 net.cpp:156] Memory required for data: 410316400
I0403 13:29:00.778172 28224 layer_factory.hpp:77] Creating layer pool1
I0403 13:29:00.778198 28224 net.cpp:91] Creating Layer pool1
I0403 13:29:00.778215 28224 net.cpp:425] pool1 <- norm1
I0403 13:29:00.778234 28224 net.cpp:399] pool1 -> pool1
I0403 13:29:00.778301 28224 net.cpp:141] Setting up pool1
I0403 13:29:00.778331 28224 net.cpp:148] Top shape: 100 96 27 27 (6998400)
I0403 13:29:00.778347 28224 net.cpp:156] Memory required for data: 438310000
I0403 13:29:00.778362 28224 layer_factory.hpp:77] Creating layer conv2
I0403 13:29:00.778388 28224 net.cpp:91] Creating Layer conv2
I0403 13:29:00.778405 28224 net.cpp:425] conv2 <- pool1
I0403 13:29:00.778424 28224 net.cpp:399] conv2 -> conv2
I0403 13:29:00.793737 28224 net.cpp:141] Setting up conv2
I0403 13:29:00.793776 28224 net.cpp:148] Top shape: 100 256 27 27 (18662400)
I0403 13:29:00.793795 28224 net.cpp:156] Memory required for data: 512959600
I0403 13:29:00.793818 28224 layer_factory.hpp:77] Creating layer relu2
I0403 13:29:00.793838 28224 net.cpp:91] Creating Layer relu2
I0403 13:29:00.793854 28224 net.cpp:425] relu2 <- conv2
I0403 13:29:00.793875 28224 net.cpp:386] relu2 -> conv2 (in-place)
I0403 13:29:00.794153 28224 net.cpp:141] Setting up relu2
I0403 13:29:00.794181 28224 net.cpp:148] Top shape: 100 256 27 27 (18662400)
I0403 13:29:00.794196 28224 net.cpp:156] Memory required for data: 587609200
I0403 13:29:00.794225 28224 layer_factory.hpp:77] Creating layer norm2
I0403 13:29:00.794248 28224 net.cpp:91] Creating Layer norm2
I0403 13:29:00.794267 28224 net.cpp:425] norm2 <- conv2
I0403 13:29:00.794286 28224 net.cpp:399] norm2 -> norm2
I0403 13:29:00.794507 28224 net.cpp:141] Setting up norm2
I0403 13:29:00.794538 28224 net.cpp:148] Top shape: 100 256 27 27 (18662400)
I0403 13:29:00.794555 28224 net.cpp:156] Memory required for data: 662258800
I0403 13:29:00.794572 28224 layer_factory.hpp:77] Creating layer pool2
I0403 13:29:00.794591 28224 net.cpp:91] Creating Layer pool2
I0403 13:29:00.794608 28224 net.cpp:425] pool2 <- norm2
I0403 13:29:00.794641 28224 net.cpp:399] pool2 -> pool2
I0403 13:29:00.794693 28224 net.cpp:141] Setting up pool2
I0403 13:29:00.794718 28224 net.cpp:148] Top shape: 100 256 13 13 (4326400)
I0403 13:29:00.794733 28224 net.cpp:156] Memory required for data: 679564400
I0403 13:29:00.794749 28224 layer_factory.hpp:77] Creating layer conv3
I0403 13:29:00.794772 28224 net.cpp:91] Creating Layer conv3
I0403 13:29:00.794790 28224 net.cpp:425] conv3 <- pool2
I0403 13:29:00.794811 28224 net.cpp:399] conv3 -> conv3
I0403 13:29:00.834146 28224 net.cpp:141] Setting up conv3
I0403 13:29:00.834194 28224 net.cpp:148] Top shape: 100 384 13 13 (6489600)
I0403 13:29:00.834211 28224 net.cpp:156] Memory required for data: 705522800
I0403 13:29:00.834236 28224 layer_factory.hpp:77] Creating layer relu3
I0403 13:29:00.834256 28224 net.cpp:91] Creating Layer relu3
I0403 13:29:00.834273 28224 net.cpp:425] relu3 <- conv3
I0403 13:29:00.834295 28224 net.cpp:386] relu3 -> conv3 (in-place)
I0403 13:29:00.834578 28224 net.cpp:141] Setting up relu3
I0403 13:29:00.834605 28224 net.cpp:148] Top shape: 100 384 13 13 (6489600)
I0403 13:29:00.834621 28224 net.cpp:156] Memory required for data: 731481200
I0403 13:29:00.834637 28224 layer_factory.hpp:77] Creating layer conv4
I0403 13:29:00.834662 28224 net.cpp:91] Creating Layer conv4
I0403 13:29:00.834679 28224 net.cpp:425] conv4 <- conv3
I0403 13:29:00.834700 28224 net.cpp:399] conv4 -> conv4
I0403 13:29:00.864953 28224 net.cpp:141] Setting up conv4
I0403 13:29:00.864997 28224 net.cpp:148] Top shape: 100 384 13 13 (6489600)
I0403 13:29:00.865044 28224 net.cpp:156] Memory required for data: 757439600
I0403 13:29:00.865066 28224 layer_factory.hpp:77] Creating layer relu4
I0403 13:29:00.865085 28224 net.cpp:91] Creating Layer relu4
I0403 13:29:00.865103 28224 net.cpp:425] relu4 <- conv4
I0403 13:29:00.865120 28224 net.cpp:386] relu4 -> conv4 (in-place)
I0403 13:29:00.865494 28224 net.cpp:141] Setting up relu4
I0403 13:29:00.865525 28224 net.cpp:148] Top shape: 100 384 13 13 (6489600)
I0403 13:29:00.865541 28224 net.cpp:156] Memory required for data: 783398000
I0403 13:29:00.865557 28224 layer_factory.hpp:77] Creating layer conv5
I0403 13:29:00.865581 28224 net.cpp:91] Creating Layer conv5
I0403 13:29:00.865598 28224 net.cpp:425] conv5 <- conv4
I0403 13:29:00.865617 28224 net.cpp:399] conv5 -> conv5
I0403 13:29:00.886482 28224 net.cpp:141] Setting up conv5
I0403 13:29:00.886520 28224 net.cpp:148] Top shape: 100 256 13 13 (4326400)
I0403 13:29:00.886539 28224 net.cpp:156] Memory required for data: 800703600
I0403 13:29:00.886564 28224 layer_factory.hpp:77] Creating layer relu5
I0403 13:29:00.886582 28224 net.cpp:91] Creating Layer relu5
I0403 13:29:00.886598 28224 net.cpp:425] relu5 <- conv5
I0403 13:29:00.886618 28224 net.cpp:386] relu5 -> conv5 (in-place)
I0403 13:29:00.886894 28224 net.cpp:141] Setting up relu5
I0403 13:29:00.886921 28224 net.cpp:148] Top shape: 100 256 13 13 (4326400)
I0403 13:29:00.886936 28224 net.cpp:156] Memory required for data: 818009200
I0403 13:29:00.886952 28224 layer_factory.hpp:77] Creating layer pool5
I0403 13:29:00.886976 28224 net.cpp:91] Creating Layer pool5
I0403 13:29:00.886994 28224 net.cpp:425] pool5 <- conv5
I0403 13:29:00.887013 28224 net.cpp:399] pool5 -> pool5
I0403 13:29:00.887071 28224 net.cpp:141] Setting up pool5
I0403 13:29:00.887095 28224 net.cpp:148] Top shape: 100 256 6 6 (921600)
I0403 13:29:00.887110 28224 net.cpp:156] Memory required for data: 821695600
I0403 13:29:00.887125 28224 layer_factory.hpp:77] Creating layer fc6
I0403 13:29:00.887151 28224 net.cpp:91] Creating Layer fc6
I0403 13:29:00.887168 28224 net.cpp:425] fc6 <- pool5
I0403 13:29:00.887188 28224 net.cpp:399] fc6 -> fc6
I0403 13:29:02.419157 28224 net.cpp:141] Setting up fc6
I0403 13:29:02.419237 28224 net.cpp:148] Top shape: 100 4096 (409600)
I0403 13:29:02.419255 28224 net.cpp:156] Memory required for data: 823334000
I0403 13:29:02.419277 28224 layer_factory.hpp:77] Creating layer relu6
I0403 13:29:02.419299 28224 net.cpp:91] Creating Layer relu6
I0403 13:29:02.419322 28224 net.cpp:425] relu6 <- fc6
I0403 13:29:02.419342 28224 net.cpp:386] relu6 -> fc6 (in-place)
I0403 13:29:02.419574 28224 net.cpp:141] Setting up relu6
I0403 13:29:02.419600 28224 net.cpp:148] Top shape: 100 4096 (409600)
I0403 13:29:02.419616 28224 net.cpp:156] Memory required for data: 824972400
I0403 13:29:02.419631 28224 layer_factory.hpp:77] Creating layer drop6
I0403 13:29:02.419649 28224 net.cpp:91] Creating Layer drop6
I0403 13:29:02.419664 28224 net.cpp:425] drop6 <- fc6
I0403 13:29:02.419684 28224 net.cpp:386] drop6 -> fc6 (in-place)
I0403 13:29:02.419737 28224 net.cpp:141] Setting up drop6
I0403 13:29:02.419759 28224 net.cpp:148] Top shape: 100 4096 (409600)
I0403 13:29:02.419775 28224 net.cpp:156] Memory required for data: 826610800
I0403 13:29:02.419788 28224 layer_factory.hpp:77] Creating layer fc7
I0403 13:29:02.419811 28224 net.cpp:91] Creating Layer fc7
I0403 13:29:02.419827 28224 net.cpp:425] fc7 <- fc6
I0403 13:29:02.419858 28224 net.cpp:399] fc7 -> fc7
I0403 13:29:03.087333 28224 net.cpp:141] Setting up fc7
I0403 13:29:03.087409 28224 net.cpp:148] Top shape: 100 4096 (409600)
I0403 13:29:03.087424 28224 net.cpp:156] Memory required for data: 828249200
I0403 13:29:03.087445 28224 layer_factory.hpp:77] Creating layer relu7
I0403 13:29:03.087467 28224 net.cpp:91] Creating Layer relu7
I0403 13:29:03.087486 28224 net.cpp:425] relu7 <- fc7
I0403 13:29:03.087504 28224 net.cpp:386] relu7 -> fc7 (in-place)
I0403 13:29:03.087887 28224 net.cpp:141] Setting up relu7
I0403 13:29:03.087911 28224 net.cpp:148] Top shape: 100 4096 (409600)
I0403 13:29:03.087972 28224 net.cpp:156] Memory required for data: 829887600
I0403 13:29:03.087988 28224 layer_factory.hpp:77] Creating layer drop7
I0403 13:29:03.088008 28224 net.cpp:91] Creating Layer drop7
I0403 13:29:03.088023 28224 net.cpp:425] drop7 <- fc7
I0403 13:29:03.088042 28224 net.cpp:386] drop7 -> fc7 (in-place)
I0403 13:29:03.088085 28224 net.cpp:141] Setting up drop7
I0403 13:29:03.088107 28224 net.cpp:148] Top shape: 100 4096 (409600)
I0403 13:29:03.088121 28224 net.cpp:156] Memory required for data: 831526000
I0403 13:29:03.088136 28224 layer_factory.hpp:77] Creating layer fc8_plantvillage
I0403 13:29:03.088158 28224 net.cpp:91] Creating Layer fc8_plantvillage
I0403 13:29:03.088174 28224 net.cpp:425] fc8_plantvillage <- fc7
I0403 13:29:03.088193 28224 net.cpp:399] fc8_plantvillage -> fc8_plantvillage
I0403 13:29:03.094877 28224 net.cpp:141] Setting up fc8_plantvillage
I0403 13:29:03.094904 28224 net.cpp:148] Top shape: 100 38 (3800)
I0403 13:29:03.094919 28224 net.cpp:156] Memory required for data: 831541200
I0403 13:29:03.094938 28224 layer_factory.hpp:77] Creating layer fc8_plantvillage_fc8_plantvillage_0_split
I0403 13:29:03.094955 28224 net.cpp:91] Creating Layer fc8_plantvillage_fc8_plantvillage_0_split
I0403 13:29:03.094970 28224 net.cpp:425] fc8_plantvillage_fc8_plantvillage_0_split <- fc8_plantvillage
I0403 13:29:03.094988 28224 net.cpp:399] fc8_plantvillage_fc8_plantvillage_0_split -> fc8_plantvillage_fc8_plantvillage_0_split_0
I0403 13:29:03.095010 28224 net.cpp:399] fc8_plantvillage_fc8_plantvillage_0_split -> fc8_plantvillage_fc8_plantvillage_0_split_1
I0403 13:29:03.095027 28224 net.cpp:399] fc8_plantvillage_fc8_plantvillage_0_split -> fc8_plantvillage_fc8_plantvillage_0_split_2
I0403 13:29:03.095099 28224 net.cpp:141] Setting up fc8_plantvillage_fc8_plantvillage_0_split
I0403 13:29:03.095126 28224 net.cpp:148] Top shape: 100 38 (3800)
I0403 13:29:03.095142 28224 net.cpp:148] Top shape: 100 38 (3800)
I0403 13:29:03.095156 28224 net.cpp:148] Top shape: 100 38 (3800)
I0403 13:29:03.095170 28224 net.cpp:156] Memory required for data: 831586800
I0403 13:29:03.095182 28224 layer_factory.hpp:77] Creating layer prob
I0403 13:29:03.095201 28224 net.cpp:91] Creating Layer prob
I0403 13:29:03.095214 28224 net.cpp:425] prob <- fc8_plantvillage_fc8_plantvillage_0_split_0
I0403 13:29:03.095232 28224 net.cpp:399] prob -> prob
I0403 13:29:03.095443 28224 net.cpp:141] Setting up prob
I0403 13:29:03.095470 28224 net.cpp:148] Top shape: 100 38 (3800)
I0403 13:29:03.095484 28224 net.cpp:156] Memory required for data: 831602000
I0403 13:29:03.095499 28224 layer_factory.hpp:77] Creating layer hdf5out
I0403 13:29:03.095517 28224 net.cpp:91] Creating Layer hdf5out
I0403 13:29:03.095531 28224 net.cpp:425] hdf5out <- prob
I0403 13:29:03.095547 28224 net.cpp:425] hdf5out <- label_data_1_split_0
I0403 13:29:03.099853 28224 net.cpp:141] Setting up hdf5out
…
