…
I0403 13:33:17.975929 28348 net.cpp:313] The NetState phase (1) differed from the phase (0) specified by a rule in layer data
I0403 13:33:17.976225 28348 net.cpp:49] Initializing net from parameters: 
state {
  phase: TEST
}
layer {
  name: "data"
  type: "Data"
  top: "data"
  top: "label"
  include {
    phase: TEST
  }
  transform_param {
    crop_size: 227
    mean_file: "/home/mohanty/data/final_dataset/lmdb/grayscale-20-80/mean.binaryproto"
  }
  data_param {
    source: "/home/mohanty/data/final_dataset/lmdb/grayscale-20-80/test_db"
    batch_size: 100
    backend: LMDB
  }
}
layer {
  name: "conv1"
  type: "Convolution"
  bottom: "data"
  top: "conv1"
  param {
    lr_mult: 1
    decay_mult: 1
  }
  param {
    lr_mult: 2
    decay_mult: 0
  }
  convolution_param {
    num_output: 96
    kernel_size: 11
    stride: 4
    weight_filler {
      type: "gaussian"
      std: 0.01
    }
    bias_filler {
      type: "constant"
      value: 0
    }
  }
}
layer {
  name: "relu1"
  type: "ReLU"
  bottom: "conv1"
  top: "conv1"
}
layer {
  name: "norm1"
  type: "LRN"
  bottom: "conv1"
  top: "norm1"
  lrn_param {
    local_size: 5
    alpha: 0.0001
    beta: 0.75
  }
}
layer {
  name: "pool1"
  type: "Pooling"
  bottom: "norm1"
  top: "pool1"
  pooling_param {
    pool: MAX
    kernel_size: 3
    stride: 2
  }
}
layer {
  name: "conv2"
  type: "Convolution"
  bottom: "pool1"
  top: "conv2"
  param {
    lr_mult: 1
    decay_mult: 1
  }
  param {
    lr_mult: 2
    decay_mult: 0
  }
  convolution_param {
    num_output: 256
    pad: 2
    kernel_size: 5
    group: 2
    weight_filler {
      type: "gaussian"
      std: 0.01
    }
    bias_filler {
      type: "constant"
      value: 0.1
    }
  }
}
layer {
  name: "relu2"
  type: "ReLU"
  bottom: "conv2"
  top: "conv2"
}
layer {
  name: "norm2"
  type: "LRN"
  bottom: "conv2"
  top: "norm2"
  lrn_param {
    local_size: 5
    alpha: 0.0001
    beta: 0.75
  }
}
layer {
  name: "pool2"
  type: "Pooling"
  bottom: "norm2"
  top: "pool2"
  pooling_param {
    pool: MAX
    kernel_size: 3
    stride: 2
  }
}
layer {
  name: "conv3"
  type: "Convolution"
  bottom: "pool2"
  top: "conv3"
  param {
    lr_mult: 1
    decay_mult: 1
  }
  param {
    lr_mult: 2
    decay_mult: 0
  }
  convolution_param {
    num_output: 384
    pad: 1
    kernel_size: 3
    weight_filler {
      type: "gaussian"
      std: 0.01
    }
    bias_filler {
      type: "constant"
      value: 0
    }
  }
}
layer {
  name: "relu3"
  type: "ReLU"
  bottom: "conv3"
  top: "conv3"
}
layer {
  name: "conv4"
  type: "Convolution"
  bottom: "conv3"
  top: "conv4"
  param {
    lr_mult: 1
    decay_mult: 1
  }
  param {
    lr_mult: 2
    decay_mult: 0
  }
  convolution_param {
    num_output: 384
    pad: 1
    kernel_size: 3
    group: 2
    weight_filler {
      type: "gaussian"
      std: 0.01
    }
    bias_filler {
      type: "constant"
      value: 0.1
    }
  }
}
layer {
  name: "relu4"
  type: "ReLU"
  bottom: "conv4"
  top: "conv4"
}
layer {
  name: "conv5"
  type: "Convolution"
  bottom: "conv4"
  top: "conv5"
  param {
    lr_mult: 1
    decay_mult: 1
  }
  param {
    lr_mult: 2
    decay_mult: 0
  }
  convolution_param {
    num_output: 256
    pad: 1
    kernel_size: 3
    group: 2
    weight_filler {
      type: "gaussian"
      std: 0.01
    }
    bias_filler {
      type: "constant"
      value: 0.1
    }
  }
}
layer {
  name: "relu5"
  type: "ReLU"
  bottom: "conv5"
  top: "conv5"
}
layer {
  name: "pool5"
  type: "Pooling"
  bottom: "conv5"
  top: "pool5"
  pooling_param {
    pool: MAX
    kernel_size: 3
    stride: 2
  }
}
layer {
  name: "fc6"
  type: "InnerProduct"
  bottom: "pool5"
  top: "fc6"
  param {
    lr_mult: 1
    decay_mult: 1
  }
  param {
    lr_mult: 2
    decay_mult: 0
  }
  inner_product_param {
    num_output: 4096
    weight_filler {
      type: "gaussian"
      std: 0.005
    }
    bias_filler {
      type: "constant"
      value: 0.1
    }
  }
}
layer {
  name: "relu6"
  type: "ReLU"
  bottom: "fc6"
  top: "fc6"
}
layer {
  name: "drop6"
  type: "Dropout"
  bottom: "fc6"
  top: "fc6"
  dropout_param {
    dropout_ratio: 0.5
  }
}
layer {
  name: "fc7"
  type: "InnerProduct"
  bottom: "fc6"
  top: "fc7"
  param {
    lr_mult: 1
    decay_mult: 1
  }
  param {
    lr_mult: 2
    decay_mult: 0
  }
  inner_product_param {
    num_output: 4096
    weight_filler {
      type: "gaussian"
      std: 0.005
    }
    bias_filler {
      type: "constant"
      value: 0.1
    }
  }
}
layer {
  name: "relu7"
  type: "ReLU"
  bottom: "fc7"
  top: "fc7"
}
layer {
  name: "drop7"
  type: "Dropout"
  bottom: "fc7"
  top: "fc7"
  dropout_param {
    dropout_ratio: 0.5
  }
}
layer {
  name: "fc8_plantvillage"
  type: "InnerProduct"
  bottom: "fc7"
  top: "fc8_plantvillage"
  param {
    lr_mult: 1
    decay_mult: 1
  }
  param {
    lr_mult: 2
    decay_mult: 0
  }
  inner_product_param {
    num_output: 38
    weight_filler {
      type: "gaussian"
      std: 0.01
    }
    bias_filler {
      type: "constant"
      value: 0
    }
  }
}
layer {
  name: "prob"
  type: "Softmax"
  bottom: "fc8_plantvillage"
  top: "prob"
  include {
    phase: TEST
  }
}
layer {
  name: "hdf5out"
  type: "HDF5Output"
  bottom: "prob"
  bottom: "label"
  include {
    phase: TEST
  }
  hdf5_output_param {
    file_name: "hdf5_dumps/iter_840.h5"
  }
}
layer {
  name: "loss"
  type: "SoftmaxWithLoss"
  bottom: "fc8_plantvillage"
  bottom: "label"
  top: "loss"
}
layer {
  name: "accuracy"
  type: "Accuracy"
  bottom: "fc8_plantvillage"
  bottom: "label"
  top: "accuracy"
  include {
    phase: TEST
  }
}
I0403 13:33:17.976866 28348 layer_factory.hpp:77] Creating layer data
I0403 13:33:17.977519 28348 net.cpp:91] Creating Layer data
I0403 13:33:17.977552 28348 net.cpp:399] data -> data
I0403 13:33:17.977604 28348 net.cpp:399] data -> label
I0403 13:33:17.977643 28348 data_transformer.cpp:25] Loading mean file from: /home/mohanty/data/final_dataset/lmdb/grayscale-20-80/mean.binaryproto
I0403 13:33:17.978816 28351 db_lmdb.cpp:38] Opened lmdb /home/mohanty/data/final_dataset/lmdb/grayscale-20-80/test_db
I0403 13:33:17.992230 28348 data_layer.cpp:41] output data size: 100,3,227,227
I0403 13:33:18.112323 28348 net.cpp:141] Setting up data
I0403 13:33:18.112419 28348 net.cpp:148] Top shape: 100 3 227 227 (15458700)
I0403 13:33:18.112444 28348 net.cpp:148] Top shape: 100 (100)
I0403 13:33:18.112462 28348 net.cpp:156] Memory required for data: 61835200
I0403 13:33:18.112490 28348 layer_factory.hpp:77] Creating layer label_data_1_split
I0403 13:33:18.112519 28348 net.cpp:91] Creating Layer label_data_1_split
I0403 13:33:18.112537 28348 net.cpp:425] label_data_1_split <- label
I0403 13:33:18.112570 28348 net.cpp:399] label_data_1_split -> label_data_1_split_0
I0403 13:33:18.112597 28348 net.cpp:399] label_data_1_split -> label_data_1_split_1
I0403 13:33:18.112618 28348 net.cpp:399] label_data_1_split -> label_data_1_split_2
I0403 13:33:18.112681 28348 net.cpp:141] Setting up label_data_1_split
I0403 13:33:18.112706 28348 net.cpp:148] Top shape: 100 (100)
I0403 13:33:18.112725 28348 net.cpp:148] Top shape: 100 (100)
I0403 13:33:18.112742 28348 net.cpp:148] Top shape: 100 (100)
I0403 13:33:18.112758 28348 net.cpp:156] Memory required for data: 61836400
I0403 13:33:18.112773 28348 layer_factory.hpp:77] Creating layer conv1
I0403 13:33:18.112805 28348 net.cpp:91] Creating Layer conv1
I0403 13:33:18.112825 28348 net.cpp:425] conv1 <- data
I0403 13:33:18.112846 28348 net.cpp:399] conv1 -> conv1
I0403 13:33:18.256383 28348 net.cpp:141] Setting up conv1
I0403 13:33:18.256445 28348 net.cpp:148] Top shape: 100 96 55 55 (29040000)
I0403 13:33:18.256464 28348 net.cpp:156] Memory required for data: 177996400
I0403 13:33:18.256496 28348 layer_factory.hpp:77] Creating layer relu1
I0403 13:33:18.256525 28348 net.cpp:91] Creating Layer relu1
I0403 13:33:18.256546 28348 net.cpp:425] relu1 <- conv1
I0403 13:33:18.256564 28348 net.cpp:386] relu1 -> conv1 (in-place)
I0403 13:33:18.256821 28348 net.cpp:141] Setting up relu1
I0403 13:33:18.256850 28348 net.cpp:148] Top shape: 100 96 55 55 (29040000)
I0403 13:33:18.256897 28348 net.cpp:156] Memory required for data: 294156400
I0403 13:33:18.256914 28348 layer_factory.hpp:77] Creating layer norm1
I0403 13:33:18.256942 28348 net.cpp:91] Creating Layer norm1
I0403 13:33:18.256960 28348 net.cpp:425] norm1 <- conv1
I0403 13:33:18.256990 28348 net.cpp:399] norm1 -> norm1
I0403 13:33:18.257298 28348 net.cpp:141] Setting up norm1
I0403 13:33:18.257339 28348 net.cpp:148] Top shape: 100 96 55 55 (29040000)
I0403 13:33:18.257361 28348 net.cpp:156] Memory required for data: 410316400
I0403 13:33:18.257377 28348 layer_factory.hpp:77] Creating layer pool1
I0403 13:33:18.257401 28348 net.cpp:91] Creating Layer pool1
I0403 13:33:18.257419 28348 net.cpp:425] pool1 <- norm1
I0403 13:33:18.257437 28348 net.cpp:399] pool1 -> pool1
I0403 13:33:18.257522 28348 net.cpp:141] Setting up pool1
I0403 13:33:18.257550 28348 net.cpp:148] Top shape: 100 96 27 27 (6998400)
I0403 13:33:18.257566 28348 net.cpp:156] Memory required for data: 438310000
I0403 13:33:18.257583 28348 layer_factory.hpp:77] Creating layer conv2
I0403 13:33:18.257608 28348 net.cpp:91] Creating Layer conv2
I0403 13:33:18.257623 28348 net.cpp:425] conv2 <- pool1
I0403 13:33:18.257642 28348 net.cpp:399] conv2 -> conv2
I0403 13:33:18.272696 28348 net.cpp:141] Setting up conv2
I0403 13:33:18.272761 28348 net.cpp:148] Top shape: 100 256 27 27 (18662400)
I0403 13:33:18.272809 28348 net.cpp:156] Memory required for data: 512959600
I0403 13:33:18.272840 28348 layer_factory.hpp:77] Creating layer relu2
I0403 13:33:18.272861 28348 net.cpp:91] Creating Layer relu2
I0403 13:33:18.272877 28348 net.cpp:425] relu2 <- conv2
I0403 13:33:18.272899 28348 net.cpp:386] relu2 -> conv2 (in-place)
I0403 13:33:18.273195 28348 net.cpp:141] Setting up relu2
I0403 13:33:18.273222 28348 net.cpp:148] Top shape: 100 256 27 27 (18662400)
I0403 13:33:18.273238 28348 net.cpp:156] Memory required for data: 587609200
I0403 13:33:18.273254 28348 layer_factory.hpp:77] Creating layer norm2
I0403 13:33:18.273278 28348 net.cpp:91] Creating Layer norm2
I0403 13:33:18.273296 28348 net.cpp:425] norm2 <- conv2
I0403 13:33:18.273315 28348 net.cpp:399] norm2 -> norm2
I0403 13:33:18.273514 28348 net.cpp:141] Setting up norm2
I0403 13:33:18.273545 28348 net.cpp:148] Top shape: 100 256 27 27 (18662400)
I0403 13:33:18.273561 28348 net.cpp:156] Memory required for data: 662258800
I0403 13:33:18.273577 28348 layer_factory.hpp:77] Creating layer pool2
I0403 13:33:18.273596 28348 net.cpp:91] Creating Layer pool2
I0403 13:33:18.273612 28348 net.cpp:425] pool2 <- norm2
I0403 13:33:18.273632 28348 net.cpp:399] pool2 -> pool2
I0403 13:33:18.273684 28348 net.cpp:141] Setting up pool2
I0403 13:33:18.273707 28348 net.cpp:148] Top shape: 100 256 13 13 (4326400)
I0403 13:33:18.273722 28348 net.cpp:156] Memory required for data: 679564400
I0403 13:33:18.273737 28348 layer_factory.hpp:77] Creating layer conv3
I0403 13:33:18.273762 28348 net.cpp:91] Creating Layer conv3
I0403 13:33:18.273782 28348 net.cpp:425] conv3 <- pool2
I0403 13:33:18.273803 28348 net.cpp:399] conv3 -> conv3
I0403 13:33:18.312548 28348 net.cpp:141] Setting up conv3
I0403 13:33:18.312624 28348 net.cpp:148] Top shape: 100 384 13 13 (6489600)
I0403 13:33:18.312644 28348 net.cpp:156] Memory required for data: 705522800
I0403 13:33:18.312670 28348 layer_factory.hpp:77] Creating layer relu3
I0403 13:33:18.312695 28348 net.cpp:91] Creating Layer relu3
I0403 13:33:18.312713 28348 net.cpp:425] relu3 <- conv3
I0403 13:33:18.312736 28348 net.cpp:386] relu3 -> conv3 (in-place)
I0403 13:33:18.313050 28348 net.cpp:141] Setting up relu3
I0403 13:33:18.313081 28348 net.cpp:148] Top shape: 100 384 13 13 (6489600)
I0403 13:33:18.313098 28348 net.cpp:156] Memory required for data: 731481200
I0403 13:33:18.313115 28348 layer_factory.hpp:77] Creating layer conv4
I0403 13:33:18.313143 28348 net.cpp:91] Creating Layer conv4
I0403 13:33:18.313160 28348 net.cpp:425] conv4 <- conv3
I0403 13:33:18.313180 28348 net.cpp:399] conv4 -> conv4
I0403 13:33:18.343510 28348 net.cpp:141] Setting up conv4
I0403 13:33:18.343575 28348 net.cpp:148] Top shape: 100 384 13 13 (6489600)
I0403 13:33:18.343626 28348 net.cpp:156] Memory required for data: 757439600
I0403 13:33:18.343647 28348 layer_factory.hpp:77] Creating layer relu4
I0403 13:33:18.343672 28348 net.cpp:91] Creating Layer relu4
I0403 13:33:18.343690 28348 net.cpp:425] relu4 <- conv4
I0403 13:33:18.343710 28348 net.cpp:386] relu4 -> conv4 (in-place)
I0403 13:33:18.344002 28348 net.cpp:141] Setting up relu4
I0403 13:33:18.344030 28348 net.cpp:148] Top shape: 100 384 13 13 (6489600)
I0403 13:33:18.344048 28348 net.cpp:156] Memory required for data: 783398000
I0403 13:33:18.344063 28348 layer_factory.hpp:77] Creating layer conv5
I0403 13:33:18.344094 28348 net.cpp:91] Creating Layer conv5
I0403 13:33:18.344115 28348 net.cpp:425] conv5 <- conv4
I0403 13:33:18.344135 28348 net.cpp:399] conv5 -> conv5
I0403 13:33:18.365186 28348 net.cpp:141] Setting up conv5
I0403 13:33:18.365243 28348 net.cpp:148] Top shape: 100 256 13 13 (4326400)
I0403 13:33:18.365264 28348 net.cpp:156] Memory required for data: 800703600
I0403 13:33:18.365291 28348 layer_factory.hpp:77] Creating layer relu5
I0403 13:33:18.365313 28348 net.cpp:91] Creating Layer relu5
I0403 13:33:18.365330 28348 net.cpp:425] relu5 <- conv5
I0403 13:33:18.365360 28348 net.cpp:386] relu5 -> conv5 (in-place)
I0403 13:33:18.365644 28348 net.cpp:141] Setting up relu5
I0403 13:33:18.365674 28348 net.cpp:148] Top shape: 100 256 13 13 (4326400)
I0403 13:33:18.365689 28348 net.cpp:156] Memory required for data: 818009200
I0403 13:33:18.365706 28348 layer_factory.hpp:77] Creating layer pool5
I0403 13:33:18.365731 28348 net.cpp:91] Creating Layer pool5
I0403 13:33:18.365748 28348 net.cpp:425] pool5 <- conv5
I0403 13:33:18.365769 28348 net.cpp:399] pool5 -> pool5
I0403 13:33:18.365833 28348 net.cpp:141] Setting up pool5
I0403 13:33:18.365859 28348 net.cpp:148] Top shape: 100 256 6 6 (921600)
I0403 13:33:18.365875 28348 net.cpp:156] Memory required for data: 821695600
I0403 13:33:18.365890 28348 layer_factory.hpp:77] Creating layer fc6
I0403 13:33:18.365990 28348 net.cpp:91] Creating Layer fc6
I0403 13:33:18.366014 28348 net.cpp:425] fc6 <- pool5
I0403 13:33:18.366036 28348 net.cpp:399] fc6 -> fc6
I0403 13:33:19.937731 28348 net.cpp:141] Setting up fc6
I0403 13:33:19.937775 28348 net.cpp:148] Top shape: 100 4096 (409600)
I0403 13:33:19.937793 28348 net.cpp:156] Memory required for data: 823334000
I0403 13:33:19.937815 28348 layer_factory.hpp:77] Creating layer relu6
I0403 13:33:19.937844 28348 net.cpp:91] Creating Layer relu6
I0403 13:33:19.937865 28348 net.cpp:425] relu6 <- fc6
I0403 13:33:19.937885 28348 net.cpp:386] relu6 -> fc6 (in-place)
I0403 13:33:19.938107 28348 net.cpp:141] Setting up relu6
I0403 13:33:19.938134 28348 net.cpp:148] Top shape: 100 4096 (409600)
I0403 13:33:19.938150 28348 net.cpp:156] Memory required for data: 824972400
I0403 13:33:19.938168 28348 layer_factory.hpp:77] Creating layer drop6
I0403 13:33:19.938187 28348 net.cpp:91] Creating Layer drop6
I0403 13:33:19.938202 28348 net.cpp:425] drop6 <- fc6
I0403 13:33:19.938220 28348 net.cpp:386] drop6 -> fc6 (in-place)
I0403 13:33:19.938283 28348 net.cpp:141] Setting up drop6
I0403 13:33:19.938308 28348 net.cpp:148] Top shape: 100 4096 (409600)
I0403 13:33:19.938323 28348 net.cpp:156] Memory required for data: 826610800
I0403 13:33:19.938338 28348 layer_factory.hpp:77] Creating layer fc7
I0403 13:33:19.938366 28348 net.cpp:91] Creating Layer fc7
I0403 13:33:19.938385 28348 net.cpp:425] fc7 <- fc6
I0403 13:33:19.938402 28348 net.cpp:399] fc7 -> fc7
I0403 13:33:20.628270 28348 net.cpp:141] Setting up fc7
I0403 13:33:20.628352 28348 net.cpp:148] Top shape: 100 4096 (409600)
I0403 13:33:20.628371 28348 net.cpp:156] Memory required for data: 828249200
I0403 13:33:20.628394 28348 layer_factory.hpp:77] Creating layer relu7
I0403 13:33:20.628417 28348 net.cpp:91] Creating Layer relu7
I0403 13:33:20.628435 28348 net.cpp:425] relu7 <- fc7
I0403 13:33:20.628458 28348 net.cpp:386] relu7 -> fc7 (in-place)
I0403 13:33:20.628912 28348 net.cpp:141] Setting up relu7
I0403 13:33:20.628942 28348 net.cpp:148] Top shape: 100 4096 (409600)
I0403 13:33:20.628993 28348 net.cpp:156] Memory required for data: 829887600
I0403 13:33:20.629009 28348 layer_factory.hpp:77] Creating layer drop7
I0403 13:33:20.629029 28348 net.cpp:91] Creating Layer drop7
I0403 13:33:20.629046 28348 net.cpp:425] drop7 <- fc7
I0403 13:33:20.629066 28348 net.cpp:386] drop7 -> fc7 (in-place)
I0403 13:33:20.629112 28348 net.cpp:141] Setting up drop7
I0403 13:33:20.629137 28348 net.cpp:148] Top shape: 100 4096 (409600)
I0403 13:33:20.629153 28348 net.cpp:156] Memory required for data: 831526000
I0403 13:33:20.629169 28348 layer_factory.hpp:77] Creating layer fc8_plantvillage
I0403 13:33:20.629194 28348 net.cpp:91] Creating Layer fc8_plantvillage
I0403 13:33:20.629211 28348 net.cpp:425] fc8_plantvillage <- fc7
I0403 13:33:20.629233 28348 net.cpp:399] fc8_plantvillage -> fc8_plantvillage
I0403 13:33:20.636167 28348 net.cpp:141] Setting up fc8_plantvillage
I0403 13:33:20.636198 28348 net.cpp:148] Top shape: 100 38 (3800)
I0403 13:33:20.636214 28348 net.cpp:156] Memory required for data: 831541200
I0403 13:33:20.636234 28348 layer_factory.hpp:77] Creating layer fc8_plantvillage_fc8_plantvillage_0_split
I0403 13:33:20.636255 28348 net.cpp:91] Creating Layer fc8_plantvillage_fc8_plantvillage_0_split
I0403 13:33:20.636271 28348 net.cpp:425] fc8_plantvillage_fc8_plantvillage_0_split <- fc8_plantvillage
I0403 13:33:20.636292 28348 net.cpp:399] fc8_plantvillage_fc8_plantvillage_0_split -> fc8_plantvillage_fc8_plantvillage_0_split_0
I0403 13:33:20.636314 28348 net.cpp:399] fc8_plantvillage_fc8_plantvillage_0_split -> fc8_plantvillage_fc8_plantvillage_0_split_1
I0403 13:33:20.636335 28348 net.cpp:399] fc8_plantvillage_fc8_plantvillage_0_split -> fc8_plantvillage_fc8_plantvillage_0_split_2
I0403 13:33:20.636423 28348 net.cpp:141] Setting up fc8_plantvillage_fc8_plantvillage_0_split
I0403 13:33:20.636450 28348 net.cpp:148] Top shape: 100 38 (3800)
I0403 13:33:20.636467 28348 net.cpp:148] Top shape: 100 38 (3800)
I0403 13:33:20.636483 28348 net.cpp:148] Top shape: 100 38 (3800)
I0403 13:33:20.636498 28348 net.cpp:156] Memory required for data: 831586800
I0403 13:33:20.636514 28348 layer_factory.hpp:77] Creating layer prob
I0403 13:33:20.636534 28348 net.cpp:91] Creating Layer prob
I0403 13:33:20.636550 28348 net.cpp:425] prob <- fc8_plantvillage_fc8_plantvillage_0_split_0
I0403 13:33:20.636569 28348 net.cpp:399] prob -> prob
I0403 13:33:20.636802 28348 net.cpp:141] Setting up prob
I0403 13:33:20.636832 28348 net.cpp:148] Top shape: 100 38 (3800)
I0403 13:33:20.636850 28348 net.cpp:156] Memory required for data: 831602000
I0403 13:33:20.636868 28348 layer_factory.hpp:77] Creating layer hdf5out
I0403 13:33:20.636888 28348 net.cpp:91] Creating Layer hdf5out
I0403 13:33:20.636904 28348 net.cpp:425] hdf5out <- prob
I0403 13:33:20.636920 28348 net.cpp:425] hdf5out <- label_data_1_split_0
I0403 13:33:20.641484 28348 net.cpp:141] Setting up hdf5out
…
