…
I0403 13:56:19.914466 28879 net.cpp:313] The NetState phase (1) differed from the phase (0) specified by a rule in layer data
I0403 13:56:19.914777 28879 net.cpp:49] Initializing net from parameters: 
state {
  phase: TEST
}
layer {
  name: "data"
  type: "Data"
  top: "data"
  top: "label"
  include {
    phase: TEST
  }
  transform_param {
    crop_size: 227
    mean_file: "/home/mohanty/data/final_dataset/lmdb/grayscale-20-80/mean.binaryproto"
  }
  data_param {
    source: "/home/mohanty/data/final_dataset/lmdb/grayscale-20-80/test_db"
    batch_size: 100
    backend: LMDB
  }
}
layer {
  name: "conv1"
  type: "Convolution"
  bottom: "data"
  top: "conv1"
  param {
    lr_mult: 1
    decay_mult: 1
  }
  param {
    lr_mult: 2
    decay_mult: 0
  }
  convolution_param {
    num_output: 96
    kernel_size: 11
    stride: 4
    weight_filler {
      type: "gaussian"
      std: 0.01
    }
    bias_filler {
      type: "constant"
      value: 0
    }
  }
}
layer {
  name: "relu1"
  type: "ReLU"
  bottom: "conv1"
  top: "conv1"
}
layer {
  name: "norm1"
  type: "LRN"
  bottom: "conv1"
  top: "norm1"
  lrn_param {
    local_size: 5
    alpha: 0.0001
    beta: 0.75
  }
}
layer {
  name: "pool1"
  type: "Pooling"
  bottom: "norm1"
  top: "pool1"
  pooling_param {
    pool: MAX
    kernel_size: 3
    stride: 2
  }
}
layer {
  name: "conv2"
  type: "Convolution"
  bottom: "pool1"
  top: "conv2"
  param {
    lr_mult: 1
    decay_mult: 1
  }
  param {
    lr_mult: 2
    decay_mult: 0
  }
  convolution_param {
    num_output: 256
    pad: 2
    kernel_size: 5
    group: 2
    weight_filler {
      type: "gaussian"
      std: 0.01
    }
    bias_filler {
      type: "constant"
      value: 0.1
    }
  }
}
layer {
  name: "relu2"
  type: "ReLU"
  bottom: "conv2"
  top: "conv2"
}
layer {
  name: "norm2"
  type: "LRN"
  bottom: "conv2"
  top: "norm2"
  lrn_param {
    local_size: 5
    alpha: 0.0001
    beta: 0.75
  }
}
layer {
  name: "pool2"
  type: "Pooling"
  bottom: "norm2"
  top: "pool2"
  pooling_param {
    pool: MAX
    kernel_size: 3
    stride: 2
  }
}
layer {
  name: "conv3"
  type: "Convolution"
  bottom: "pool2"
  top: "conv3"
  param {
    lr_mult: 1
    decay_mult: 1
  }
  param {
    lr_mult: 2
    decay_mult: 0
  }
  convolution_param {
    num_output: 384
    pad: 1
    kernel_size: 3
    weight_filler {
      type: "gaussian"
      std: 0.01
    }
    bias_filler {
      type: "constant"
      value: 0
    }
  }
}
layer {
  name: "relu3"
  type: "ReLU"
  bottom: "conv3"
  top: "conv3"
}
layer {
  name: "conv4"
  type: "Convolution"
  bottom: "conv3"
  top: "conv4"
  param {
    lr_mult: 1
    decay_mult: 1
  }
  param {
    lr_mult: 2
    decay_mult: 0
  }
  convolution_param {
    num_output: 384
    pad: 1
    kernel_size: 3
    group: 2
    weight_filler {
      type: "gaussian"
      std: 0.01
    }
    bias_filler {
      type: "constant"
      value: 0.1
    }
  }
}
layer {
  name: "relu4"
  type: "ReLU"
  bottom: "conv4"
  top: "conv4"
}
layer {
  name: "conv5"
  type: "Convolution"
  bottom: "conv4"
  top: "conv5"
  param {
    lr_mult: 1
    decay_mult: 1
  }
  param {
    lr_mult: 2
    decay_mult: 0
  }
  convolution_param {
    num_output: 256
    pad: 1
    kernel_size: 3
    group: 2
    weight_filler {
      type: "gaussian"
      std: 0.01
    }
    bias_filler {
      type: "constant"
      value: 0.1
    }
  }
}
layer {
  name: "relu5"
  type: "ReLU"
  bottom: "conv5"
  top: "conv5"
}
layer {
  name: "pool5"
  type: "Pooling"
  bottom: "conv5"
  top: "pool5"
  pooling_param {
    pool: MAX
    kernel_size: 3
    stride: 2
  }
}
layer {
  name: "fc6"
  type: "InnerProduct"
  bottom: "pool5"
  top: "fc6"
  param {
    lr_mult: 1
    decay_mult: 1
  }
  param {
    lr_mult: 2
    decay_mult: 0
  }
  inner_product_param {
    num_output: 4096
    weight_filler {
      type: "gaussian"
      std: 0.005
    }
    bias_filler {
      type: "constant"
      value: 0.1
    }
  }
}
layer {
  name: "relu6"
  type: "ReLU"
  bottom: "fc6"
  top: "fc6"
}
layer {
  name: "drop6"
  type: "Dropout"
  bottom: "fc6"
  top: "fc6"
  dropout_param {
    dropout_ratio: 0.5
  }
}
layer {
  name: "fc7"
  type: "InnerProduct"
  bottom: "fc6"
  top: "fc7"
  param {
    lr_mult: 1
    decay_mult: 1
  }
  param {
    lr_mult: 2
    decay_mult: 0
  }
  inner_product_param {
    num_output: 4096
    weight_filler {
      type: "gaussian"
      std: 0.005
    }
    bias_filler {
      type: "constant"
      value: 0.1
    }
  }
}
layer {
  name: "relu7"
  type: "ReLU"
  bottom: "fc7"
  top: "fc7"
}
layer {
  name: "drop7"
  type: "Dropout"
  bottom: "fc7"
  top: "fc7"
  dropout_param {
    dropout_ratio: 0.5
  }
}
layer {
  name: "fc8_plantvillage"
  type: "InnerProduct"
  bottom: "fc7"
  top: "fc8_plantvillage"
  param {
    lr_mult: 1
    decay_mult: 1
  }
  param {
    lr_mult: 2
    decay_mult: 0
  }
  inner_product_param {
    num_output: 38
    weight_filler {
      type: "gaussian"
      std: 0.01
    }
    bias_filler {
      type: "constant"
      value: 0
    }
  }
}
layer {
  name: "prob"
  type: "Softmax"
  bottom: "fc8_plantvillage"
  top: "prob"
  include {
    phase: TEST
  }
}
layer {
  name: "hdf5out"
  type: "HDF5Output"
  bottom: "prob"
  bottom: "label"
  include {
    phase: TEST
  }
  hdf5_output_param {
    file_name: "hdf5_dumps/iter_2520.h5"
  }
}
layer {
  name: "loss"
  type: "SoftmaxWithLoss"
  bottom: "fc8_plantvillage"
  bottom: "label"
  top: "loss"
}
layer {
  name: "accuracy"
  type: "Accuracy"
  bottom: "fc8_plantvillage"
  bottom: "label"
  top: "accuracy"
  include {
    phase: TEST
  }
}
I0403 13:56:19.915325 28879 layer_factory.hpp:77] Creating layer data
I0403 13:56:19.915982 28879 net.cpp:91] Creating Layer data
I0403 13:56:19.916013 28879 net.cpp:399] data -> data
I0403 13:56:19.916062 28879 net.cpp:399] data -> label
I0403 13:56:19.916100 28879 data_transformer.cpp:25] Loading mean file from: /home/mohanty/data/final_dataset/lmdb/grayscale-20-80/mean.binaryproto
I0403 13:56:19.918968 28882 db_lmdb.cpp:38] Opened lmdb /home/mohanty/data/final_dataset/lmdb/grayscale-20-80/test_db
I0403 13:56:19.930119 28879 data_layer.cpp:41] output data size: 100,3,227,227
I0403 13:56:20.049149 28879 net.cpp:141] Setting up data
I0403 13:56:20.049250 28879 net.cpp:148] Top shape: 100 3 227 227 (15458700)
I0403 13:56:20.049276 28879 net.cpp:148] Top shape: 100 (100)
I0403 13:56:20.049293 28879 net.cpp:156] Memory required for data: 61835200
I0403 13:56:20.049320 28879 layer_factory.hpp:77] Creating layer label_data_1_split
I0403 13:56:20.049350 28879 net.cpp:91] Creating Layer label_data_1_split
I0403 13:56:20.049371 28879 net.cpp:425] label_data_1_split <- label
I0403 13:56:20.049404 28879 net.cpp:399] label_data_1_split -> label_data_1_split_0
I0403 13:56:20.049434 28879 net.cpp:399] label_data_1_split -> label_data_1_split_1
I0403 13:56:20.049456 28879 net.cpp:399] label_data_1_split -> label_data_1_split_2
I0403 13:56:20.049523 28879 net.cpp:141] Setting up label_data_1_split
I0403 13:56:20.049549 28879 net.cpp:148] Top shape: 100 (100)
I0403 13:56:20.049567 28879 net.cpp:148] Top shape: 100 (100)
I0403 13:56:20.049585 28879 net.cpp:148] Top shape: 100 (100)
I0403 13:56:20.049600 28879 net.cpp:156] Memory required for data: 61836400
I0403 13:56:20.049617 28879 layer_factory.hpp:77] Creating layer conv1
I0403 13:56:20.049659 28879 net.cpp:91] Creating Layer conv1
I0403 13:56:20.049679 28879 net.cpp:425] conv1 <- data
I0403 13:56:20.049698 28879 net.cpp:399] conv1 -> conv1
I0403 13:56:20.193025 28879 net.cpp:141] Setting up conv1
I0403 13:56:20.193101 28879 net.cpp:148] Top shape: 100 96 55 55 (29040000)
I0403 13:56:20.193120 28879 net.cpp:156] Memory required for data: 177996400
I0403 13:56:20.193152 28879 layer_factory.hpp:77] Creating layer relu1
I0403 13:56:20.193181 28879 net.cpp:91] Creating Layer relu1
I0403 13:56:20.193200 28879 net.cpp:425] relu1 <- conv1
I0403 13:56:20.193220 28879 net.cpp:386] relu1 -> conv1 (in-place)
I0403 13:56:20.193491 28879 net.cpp:141] Setting up relu1
I0403 13:56:20.193519 28879 net.cpp:148] Top shape: 100 96 55 55 (29040000)
I0403 13:56:20.193568 28879 net.cpp:156] Memory required for data: 294156400
I0403 13:56:20.193585 28879 layer_factory.hpp:77] Creating layer norm1
I0403 13:56:20.193614 28879 net.cpp:91] Creating Layer norm1
I0403 13:56:20.193634 28879 net.cpp:425] norm1 <- conv1
I0403 13:56:20.193655 28879 net.cpp:399] norm1 -> norm1
I0403 13:56:20.193960 28879 net.cpp:141] Setting up norm1
I0403 13:56:20.193989 28879 net.cpp:148] Top shape: 100 96 55 55 (29040000)
I0403 13:56:20.194006 28879 net.cpp:156] Memory required for data: 410316400
I0403 13:56:20.194022 28879 layer_factory.hpp:77] Creating layer pool1
I0403 13:56:20.194046 28879 net.cpp:91] Creating Layer pool1
I0403 13:56:20.194064 28879 net.cpp:425] pool1 <- norm1
I0403 13:56:20.194083 28879 net.cpp:399] pool1 -> pool1
I0403 13:56:20.194149 28879 net.cpp:141] Setting up pool1
I0403 13:56:20.194175 28879 net.cpp:148] Top shape: 100 96 27 27 (6998400)
I0403 13:56:20.194190 28879 net.cpp:156] Memory required for data: 438310000
I0403 13:56:20.194205 28879 layer_factory.hpp:77] Creating layer conv2
I0403 13:56:20.194231 28879 net.cpp:91] Creating Layer conv2
I0403 13:56:20.194247 28879 net.cpp:425] conv2 <- pool1
I0403 13:56:20.194268 28879 net.cpp:399] conv2 -> conv2
I0403 13:56:20.209417 28879 net.cpp:141] Setting up conv2
I0403 13:56:20.209463 28879 net.cpp:148] Top shape: 100 256 27 27 (18662400)
I0403 13:56:20.209481 28879 net.cpp:156] Memory required for data: 512959600
I0403 13:56:20.209503 28879 layer_factory.hpp:77] Creating layer relu2
I0403 13:56:20.209538 28879 net.cpp:91] Creating Layer relu2
I0403 13:56:20.209558 28879 net.cpp:425] relu2 <- conv2
I0403 13:56:20.209578 28879 net.cpp:386] relu2 -> conv2 (in-place)
I0403 13:56:20.209861 28879 net.cpp:141] Setting up relu2
I0403 13:56:20.209902 28879 net.cpp:148] Top shape: 100 256 27 27 (18662400)
I0403 13:56:20.209916 28879 net.cpp:156] Memory required for data: 587609200
I0403 13:56:20.209931 28879 layer_factory.hpp:77] Creating layer norm2
I0403 13:56:20.209954 28879 net.cpp:91] Creating Layer norm2
I0403 13:56:20.209971 28879 net.cpp:425] norm2 <- conv2
I0403 13:56:20.209992 28879 net.cpp:399] norm2 -> norm2
I0403 13:56:20.210221 28879 net.cpp:141] Setting up norm2
I0403 13:56:20.210247 28879 net.cpp:148] Top shape: 100 256 27 27 (18662400)
I0403 13:56:20.210263 28879 net.cpp:156] Memory required for data: 662258800
I0403 13:56:20.210278 28879 layer_factory.hpp:77] Creating layer pool2
I0403 13:56:20.210295 28879 net.cpp:91] Creating Layer pool2
I0403 13:56:20.210310 28879 net.cpp:425] pool2 <- norm2
I0403 13:56:20.210331 28879 net.cpp:399] pool2 -> pool2
I0403 13:56:20.210388 28879 net.cpp:141] Setting up pool2
I0403 13:56:20.210412 28879 net.cpp:148] Top shape: 100 256 13 13 (4326400)
I0403 13:56:20.210428 28879 net.cpp:156] Memory required for data: 679564400
I0403 13:56:20.210443 28879 layer_factory.hpp:77] Creating layer conv3
I0403 13:56:20.210467 28879 net.cpp:91] Creating Layer conv3
I0403 13:56:20.210484 28879 net.cpp:425] conv3 <- pool2
I0403 13:56:20.210505 28879 net.cpp:399] conv3 -> conv3
I0403 13:56:20.249217 28879 net.cpp:141] Setting up conv3
I0403 13:56:20.249290 28879 net.cpp:148] Top shape: 100 384 13 13 (6489600)
I0403 13:56:20.249308 28879 net.cpp:156] Memory required for data: 705522800
I0403 13:56:20.249336 28879 layer_factory.hpp:77] Creating layer relu3
I0403 13:56:20.249364 28879 net.cpp:91] Creating Layer relu3
I0403 13:56:20.249383 28879 net.cpp:425] relu3 <- conv3
I0403 13:56:20.249407 28879 net.cpp:386] relu3 -> conv3 (in-place)
I0403 13:56:20.249691 28879 net.cpp:141] Setting up relu3
I0403 13:56:20.249718 28879 net.cpp:148] Top shape: 100 384 13 13 (6489600)
I0403 13:56:20.249734 28879 net.cpp:156] Memory required for data: 731481200
I0403 13:56:20.249750 28879 layer_factory.hpp:77] Creating layer conv4
I0403 13:56:20.249776 28879 net.cpp:91] Creating Layer conv4
I0403 13:56:20.249795 28879 net.cpp:425] conv4 <- conv3
I0403 13:56:20.249816 28879 net.cpp:399] conv4 -> conv4
I0403 13:56:20.279884 28879 net.cpp:141] Setting up conv4
I0403 13:56:20.279948 28879 net.cpp:148] Top shape: 100 384 13 13 (6489600)
I0403 13:56:20.280002 28879 net.cpp:156] Memory required for data: 757439600
I0403 13:56:20.280025 28879 layer_factory.hpp:77] Creating layer relu4
I0403 13:56:20.280050 28879 net.cpp:91] Creating Layer relu4
I0403 13:56:20.280068 28879 net.cpp:425] relu4 <- conv4
I0403 13:56:20.280092 28879 net.cpp:386] relu4 -> conv4 (in-place)
I0403 13:56:20.280388 28879 net.cpp:141] Setting up relu4
I0403 13:56:20.280418 28879 net.cpp:148] Top shape: 100 384 13 13 (6489600)
I0403 13:56:20.280539 28879 net.cpp:156] Memory required for data: 783398000
I0403 13:56:20.280557 28879 layer_factory.hpp:77] Creating layer conv5
I0403 13:56:20.280585 28879 net.cpp:91] Creating Layer conv5
I0403 13:56:20.280603 28879 net.cpp:425] conv5 <- conv4
I0403 13:56:20.280627 28879 net.cpp:399] conv5 -> conv5
I0403 13:56:20.301977 28879 net.cpp:141] Setting up conv5
I0403 13:56:20.302038 28879 net.cpp:148] Top shape: 100 256 13 13 (4326400)
I0403 13:56:20.302057 28879 net.cpp:156] Memory required for data: 800703600
I0403 13:56:20.302089 28879 layer_factory.hpp:77] Creating layer relu5
I0403 13:56:20.302114 28879 net.cpp:91] Creating Layer relu5
I0403 13:56:20.302134 28879 net.cpp:425] relu5 <- conv5
I0403 13:56:20.302153 28879 net.cpp:386] relu5 -> conv5 (in-place)
I0403 13:56:20.302443 28879 net.cpp:141] Setting up relu5
I0403 13:56:20.302470 28879 net.cpp:148] Top shape: 100 256 13 13 (4326400)
I0403 13:56:20.302486 28879 net.cpp:156] Memory required for data: 818009200
I0403 13:56:20.302501 28879 layer_factory.hpp:77] Creating layer pool5
I0403 13:56:20.302526 28879 net.cpp:91] Creating Layer pool5
I0403 13:56:20.302543 28879 net.cpp:425] pool5 <- conv5
I0403 13:56:20.302563 28879 net.cpp:399] pool5 -> pool5
I0403 13:56:20.302626 28879 net.cpp:141] Setting up pool5
I0403 13:56:20.302651 28879 net.cpp:148] Top shape: 100 256 6 6 (921600)
I0403 13:56:20.302667 28879 net.cpp:156] Memory required for data: 821695600
I0403 13:56:20.302682 28879 layer_factory.hpp:77] Creating layer fc6
I0403 13:56:20.302711 28879 net.cpp:91] Creating Layer fc6
I0403 13:56:20.302728 28879 net.cpp:425] fc6 <- pool5
I0403 13:56:20.302750 28879 net.cpp:399] fc6 -> fc6
I0403 13:56:21.863813 28879 net.cpp:141] Setting up fc6
I0403 13:56:21.863857 28879 net.cpp:148] Top shape: 100 4096 (409600)
I0403 13:56:21.863873 28879 net.cpp:156] Memory required for data: 823334000
I0403 13:56:21.863895 28879 layer_factory.hpp:77] Creating layer relu6
I0403 13:56:21.863917 28879 net.cpp:91] Creating Layer relu6
I0403 13:56:21.863934 28879 net.cpp:425] relu6 <- fc6
I0403 13:56:21.863955 28879 net.cpp:386] relu6 -> fc6 (in-place)
I0403 13:56:21.864171 28879 net.cpp:141] Setting up relu6
I0403 13:56:21.864197 28879 net.cpp:148] Top shape: 100 4096 (409600)
I0403 13:56:21.864212 28879 net.cpp:156] Memory required for data: 824972400
I0403 13:56:21.864226 28879 layer_factory.hpp:77] Creating layer drop6
I0403 13:56:21.864245 28879 net.cpp:91] Creating Layer drop6
I0403 13:56:21.864260 28879 net.cpp:425] drop6 <- fc6
I0403 13:56:21.864279 28879 net.cpp:386] drop6 -> fc6 (in-place)
I0403 13:56:21.864331 28879 net.cpp:141] Setting up drop6
I0403 13:56:21.864361 28879 net.cpp:148] Top shape: 100 4096 (409600)
I0403 13:56:21.864378 28879 net.cpp:156] Memory required for data: 826610800
I0403 13:56:21.864393 28879 layer_factory.hpp:77] Creating layer fc7
I0403 13:56:21.864413 28879 net.cpp:91] Creating Layer fc7
I0403 13:56:21.864428 28879 net.cpp:425] fc7 <- fc6
I0403 13:56:21.864449 28879 net.cpp:399] fc7 -> fc7
I0403 13:56:22.553714 28879 net.cpp:141] Setting up fc7
I0403 13:56:22.553789 28879 net.cpp:148] Top shape: 100 4096 (409600)
I0403 13:56:22.553807 28879 net.cpp:156] Memory required for data: 828249200
I0403 13:56:22.553829 28879 layer_factory.hpp:77] Creating layer relu7
I0403 13:56:22.553851 28879 net.cpp:91] Creating Layer relu7
I0403 13:56:22.553870 28879 net.cpp:425] relu7 <- fc7
I0403 13:56:22.553894 28879 net.cpp:386] relu7 -> fc7 (in-place)
I0403 13:56:22.554342 28879 net.cpp:141] Setting up relu7
I0403 13:56:22.554373 28879 net.cpp:148] Top shape: 100 4096 (409600)
I0403 13:56:22.554420 28879 net.cpp:156] Memory required for data: 829887600
I0403 13:56:22.554437 28879 layer_factory.hpp:77] Creating layer drop7
I0403 13:56:22.554457 28879 net.cpp:91] Creating Layer drop7
I0403 13:56:22.554473 28879 net.cpp:425] drop7 <- fc7
I0403 13:56:22.554494 28879 net.cpp:386] drop7 -> fc7 (in-place)
I0403 13:56:22.554541 28879 net.cpp:141] Setting up drop7
I0403 13:56:22.554568 28879 net.cpp:148] Top shape: 100 4096 (409600)
I0403 13:56:22.554584 28879 net.cpp:156] Memory required for data: 831526000
I0403 13:56:22.554600 28879 layer_factory.hpp:77] Creating layer fc8_plantvillage
I0403 13:56:22.554620 28879 net.cpp:91] Creating Layer fc8_plantvillage
I0403 13:56:22.554635 28879 net.cpp:425] fc8_plantvillage <- fc7
I0403 13:56:22.554656 28879 net.cpp:399] fc8_plantvillage -> fc8_plantvillage
I0403 13:56:22.561419 28879 net.cpp:141] Setting up fc8_plantvillage
I0403 13:56:22.561451 28879 net.cpp:148] Top shape: 100 38 (3800)
I0403 13:56:22.561467 28879 net.cpp:156] Memory required for data: 831541200
I0403 13:56:22.561487 28879 layer_factory.hpp:77] Creating layer fc8_plantvillage_fc8_plantvillage_0_split
I0403 13:56:22.561508 28879 net.cpp:91] Creating Layer fc8_plantvillage_fc8_plantvillage_0_split
I0403 13:56:22.561527 28879 net.cpp:425] fc8_plantvillage_fc8_plantvillage_0_split <- fc8_plantvillage
I0403 13:56:22.561545 28879 net.cpp:399] fc8_plantvillage_fc8_plantvillage_0_split -> fc8_plantvillage_fc8_plantvillage_0_split_0
I0403 13:56:22.561565 28879 net.cpp:399] fc8_plantvillage_fc8_plantvillage_0_split -> fc8_plantvillage_fc8_plantvillage_0_split_1
I0403 13:56:22.561585 28879 net.cpp:399] fc8_plantvillage_fc8_plantvillage_0_split -> fc8_plantvillage_fc8_plantvillage_0_split_2
I0403 13:56:22.561664 28879 net.cpp:141] Setting up fc8_plantvillage_fc8_plantvillage_0_split
I0403 13:56:22.561688 28879 net.cpp:148] Top shape: 100 38 (3800)
I0403 13:56:22.561705 28879 net.cpp:148] Top shape: 100 38 (3800)
I0403 13:56:22.561722 28879 net.cpp:148] Top shape: 100 38 (3800)
I0403 13:56:22.561736 28879 net.cpp:156] Memory required for data: 831586800
I0403 13:56:22.561751 28879 layer_factory.hpp:77] Creating layer prob
I0403 13:56:22.561770 28879 net.cpp:91] Creating Layer prob
I0403 13:56:22.561785 28879 net.cpp:425] prob <- fc8_plantvillage_fc8_plantvillage_0_split_0
I0403 13:56:22.561803 28879 net.cpp:399] prob -> prob
I0403 13:56:22.562031 28879 net.cpp:141] Setting up prob
I0403 13:56:22.562057 28879 net.cpp:148] Top shape: 100 38 (3800)
I0403 13:56:22.562073 28879 net.cpp:156] Memory required for data: 831602000
I0403 13:56:22.562088 28879 layer_factory.hpp:77] Creating layer hdf5out
I0403 13:56:22.562108 28879 net.cpp:91] Creating Layer hdf5out
I0403 13:56:22.562124 28879 net.cpp:425] hdf5out <- prob
I0403 13:56:22.562141 28879 net.cpp:425] hdf5out <- label_data_1_split_0
I0403 13:56:22.566480 28879 net.cpp:141] Setting up hdf5out
…
