…
I0403 13:24:41.418392 28036 net.cpp:313] The NetState phase (1) differed from the phase (0) specified by a rule in layer data
I0403 13:24:41.418689 28036 net.cpp:49] Initializing net from parameters: 
state {
  phase: TEST
}
layer {
  name: "data"
  type: "Data"
  top: "data"
  top: "label"
  include {
    phase: TEST
  }
  transform_param {
    crop_size: 227
    mean_file: "/home/mohanty/data/final_dataset/lmdb/grayscale-20-80/mean.binaryproto"
  }
  data_param {
    source: "/home/mohanty/data/final_dataset/lmdb/grayscale-20-80/test_db"
    batch_size: 100
    backend: LMDB
  }
}
layer {
  name: "conv1"
  type: "Convolution"
  bottom: "data"
  top: "conv1"
  param {
    lr_mult: 1
    decay_mult: 1
  }
  param {
    lr_mult: 2
    decay_mult: 0
  }
  convolution_param {
    num_output: 96
    kernel_size: 11
    stride: 4
    weight_filler {
      type: "gaussian"
      std: 0.01
    }
    bias_filler {
      type: "constant"
      value: 0
    }
  }
}
layer {
  name: "relu1"
  type: "ReLU"
  bottom: "conv1"
  top: "conv1"
}
layer {
  name: "norm1"
  type: "LRN"
  bottom: "conv1"
  top: "norm1"
  lrn_param {
    local_size: 5
    alpha: 0.0001
    beta: 0.75
  }
}
layer {
  name: "pool1"
  type: "Pooling"
  bottom: "norm1"
  top: "pool1"
  pooling_param {
    pool: MAX
    kernel_size: 3
    stride: 2
  }
}
layer {
  name: "conv2"
  type: "Convolution"
  bottom: "pool1"
  top: "conv2"
  param {
    lr_mult: 1
    decay_mult: 1
  }
  param {
    lr_mult: 2
    decay_mult: 0
  }
  convolution_param {
    num_output: 256
    pad: 2
    kernel_size: 5
    group: 2
    weight_filler {
      type: "gaussian"
      std: 0.01
    }
    bias_filler {
      type: "constant"
      value: 0.1
    }
  }
}
layer {
  name: "relu2"
  type: "ReLU"
  bottom: "conv2"
  top: "conv2"
}
layer {
  name: "norm2"
  type: "LRN"
  bottom: "conv2"
  top: "norm2"
  lrn_param {
    local_size: 5
    alpha: 0.0001
    beta: 0.75
  }
}
layer {
  name: "pool2"
  type: "Pooling"
  bottom: "norm2"
  top: "pool2"
  pooling_param {
    pool: MAX
    kernel_size: 3
    stride: 2
  }
}
layer {
  name: "conv3"
  type: "Convolution"
  bottom: "pool2"
  top: "conv3"
  param {
    lr_mult: 1
    decay_mult: 1
  }
  param {
    lr_mult: 2
    decay_mult: 0
  }
  convolution_param {
    num_output: 384
    pad: 1
    kernel_size: 3
    weight_filler {
      type: "gaussian"
      std: 0.01
    }
    bias_filler {
      type: "constant"
      value: 0
    }
  }
}
layer {
  name: "relu3"
  type: "ReLU"
  bottom: "conv3"
  top: "conv3"
}
layer {
  name: "conv4"
  type: "Convolution"
  bottom: "conv3"
  top: "conv4"
  param {
    lr_mult: 1
    decay_mult: 1
  }
  param {
    lr_mult: 2
    decay_mult: 0
  }
  convolution_param {
    num_output: 384
    pad: 1
    kernel_size: 3
    group: 2
    weight_filler {
      type: "gaussian"
      std: 0.01
    }
    bias_filler {
      type: "constant"
      value: 0.1
    }
  }
}
layer {
  name: "relu4"
  type: "ReLU"
  bottom: "conv4"
  top: "conv4"
}
layer {
  name: "conv5"
  type: "Convolution"
  bottom: "conv4"
  top: "conv5"
  param {
    lr_mult: 1
    decay_mult: 1
  }
  param {
    lr_mult: 2
    decay_mult: 0
  }
  convolution_param {
    num_output: 256
    pad: 1
    kernel_size: 3
    group: 2
    weight_filler {
      type: "gaussian"
      std: 0.01
    }
    bias_filler {
      type: "constant"
      value: 0.1
    }
  }
}
layer {
  name: "relu5"
  type: "ReLU"
  bottom: "conv5"
  top: "conv5"
}
layer {
  name: "pool5"
  type: "Pooling"
  bottom: "conv5"
  top: "pool5"
  pooling_param {
    pool: MAX
    kernel_size: 3
    stride: 2
  }
}
layer {
  name: "fc6"
  type: "InnerProduct"
  bottom: "pool5"
  top: "fc6"
  param {
    lr_mult: 1
    decay_mult: 1
  }
  param {
    lr_mult: 2
    decay_mult: 0
  }
  inner_product_param {
    num_output: 4096
    weight_filler {
      type: "gaussian"
      std: 0.005
    }
    bias_filler {
      type: "constant"
      value: 0.1
    }
  }
}
layer {
  name: "relu6"
  type: "ReLU"
  bottom: "fc6"
  top: "fc6"
}
layer {
  name: "drop6"
  type: "Dropout"
  bottom: "fc6"
  top: "fc6"
  dropout_param {
    dropout_ratio: 0.5
  }
}
layer {
  name: "fc7"
  type: "InnerProduct"
  bottom: "fc6"
  top: "fc7"
  param {
    lr_mult: 1
    decay_mult: 1
  }
  param {
    lr_mult: 2
    decay_mult: 0
  }
  inner_product_param {
    num_output: 4096
    weight_filler {
      type: "gaussian"
      std: 0.005
    }
    bias_filler {
      type: "constant"
      value: 0.1
    }
  }
}
layer {
  name: "relu7"
  type: "ReLU"
  bottom: "fc7"
  top: "fc7"
}
layer {
  name: "drop7"
  type: "Dropout"
  bottom: "fc7"
  top: "fc7"
  dropout_param {
    dropout_ratio: 0.5
  }
}
layer {
  name: "fc8_plantvillage"
  type: "InnerProduct"
  bottom: "fc7"
  top: "fc8_plantvillage"
  param {
    lr_mult: 1
    decay_mult: 1
  }
  param {
    lr_mult: 2
    decay_mult: 0
  }
  inner_product_param {
    num_output: 38
    weight_filler {
      type: "gaussian"
      std: 0.01
    }
    bias_filler {
      type: "constant"
      value: 0
    }
  }
}
layer {
  name: "prob"
  type: "Softmax"
  bottom: "fc8_plantvillage"
  top: "prob"
  include {
    phase: TEST
  }
}
layer {
  name: "hdf5out"
  type: "HDF5Output"
  bottom: "prob"
  bottom: "label"
  include {
    phase: TEST
  }
  hdf5_output_param {
    file_name: "hdf5_dumps/iter_210.h5"
  }
}
layer {
  name: "loss"
  type: "SoftmaxWithLoss"
  bottom: "fc8_plantvillage"
  bottom: "label"
  top: "loss"
}
layer {
  name: "accuracy"
  type: "Accuracy"
  bottom: "fc8_plantvillage"
  bottom: "label"
  top: "accuracy"
  include {
    phase: TEST
  }
}
I0403 13:24:41.419286 28036 layer_factory.hpp:77] Creating layer data
I0403 13:24:41.419940 28036 net.cpp:91] Creating Layer data
I0403 13:24:41.419975 28036 net.cpp:399] data -> data
I0403 13:24:41.420027 28036 net.cpp:399] data -> label
I0403 13:24:41.420063 28036 data_transformer.cpp:25] Loading mean file from: /home/mohanty/data/final_dataset/lmdb/grayscale-20-80/mean.binaryproto
I0403 13:24:41.421239 28039 db_lmdb.cpp:38] Opened lmdb /home/mohanty/data/final_dataset/lmdb/grayscale-20-80/test_db
I0403 13:24:41.434674 28036 data_layer.cpp:41] output data size: 100,3,227,227
I0403 13:24:41.555028 28036 net.cpp:141] Setting up data
I0403 13:24:41.555121 28036 net.cpp:148] Top shape: 100 3 227 227 (15458700)
I0403 13:24:41.555145 28036 net.cpp:148] Top shape: 100 (100)
I0403 13:24:41.555162 28036 net.cpp:156] Memory required for data: 61835200
I0403 13:24:41.555191 28036 layer_factory.hpp:77] Creating layer label_data_1_split
I0403 13:24:41.555218 28036 net.cpp:91] Creating Layer label_data_1_split
I0403 13:24:41.555238 28036 net.cpp:425] label_data_1_split <- label
I0403 13:24:41.555272 28036 net.cpp:399] label_data_1_split -> label_data_1_split_0
I0403 13:24:41.555300 28036 net.cpp:399] label_data_1_split -> label_data_1_split_1
I0403 13:24:41.555322 28036 net.cpp:399] label_data_1_split -> label_data_1_split_2
I0403 13:24:41.555392 28036 net.cpp:141] Setting up label_data_1_split
I0403 13:24:41.555418 28036 net.cpp:148] Top shape: 100 (100)
I0403 13:24:41.555436 28036 net.cpp:148] Top shape: 100 (100)
I0403 13:24:41.555454 28036 net.cpp:148] Top shape: 100 (100)
I0403 13:24:41.555469 28036 net.cpp:156] Memory required for data: 61836400
I0403 13:24:41.555485 28036 layer_factory.hpp:77] Creating layer conv1
I0403 13:24:41.555518 28036 net.cpp:91] Creating Layer conv1
I0403 13:24:41.555541 28036 net.cpp:425] conv1 <- data
I0403 13:24:41.555560 28036 net.cpp:399] conv1 -> conv1
I0403 13:24:41.699260 28036 net.cpp:141] Setting up conv1
I0403 13:24:41.699329 28036 net.cpp:148] Top shape: 100 96 55 55 (29040000)
I0403 13:24:41.699352 28036 net.cpp:156] Memory required for data: 177996400
I0403 13:24:41.699396 28036 layer_factory.hpp:77] Creating layer relu1
I0403 13:24:41.699425 28036 net.cpp:91] Creating Layer relu1
I0403 13:24:41.699443 28036 net.cpp:425] relu1 <- conv1
I0403 13:24:41.699465 28036 net.cpp:386] relu1 -> conv1 (in-place)
I0403 13:24:41.699717 28036 net.cpp:141] Setting up relu1
I0403 13:24:41.699743 28036 net.cpp:148] Top shape: 100 96 55 55 (29040000)
I0403 13:24:41.699791 28036 net.cpp:156] Memory required for data: 294156400
I0403 13:24:41.699807 28036 layer_factory.hpp:77] Creating layer norm1
I0403 13:24:41.699836 28036 net.cpp:91] Creating Layer norm1
I0403 13:24:41.699856 28036 net.cpp:425] norm1 <- conv1
I0403 13:24:41.699874 28036 net.cpp:399] norm1 -> norm1
I0403 13:24:41.700175 28036 net.cpp:141] Setting up norm1
I0403 13:24:41.700204 28036 net.cpp:148] Top shape: 100 96 55 55 (29040000)
I0403 13:24:41.700220 28036 net.cpp:156] Memory required for data: 410316400
I0403 13:24:41.700237 28036 layer_factory.hpp:77] Creating layer pool1
I0403 13:24:41.700259 28036 net.cpp:91] Creating Layer pool1
I0403 13:24:41.700276 28036 net.cpp:425] pool1 <- norm1
I0403 13:24:41.700296 28036 net.cpp:399] pool1 -> pool1
I0403 13:24:41.700366 28036 net.cpp:141] Setting up pool1
I0403 13:24:41.700392 28036 net.cpp:148] Top shape: 100 96 27 27 (6998400)
I0403 13:24:41.700407 28036 net.cpp:156] Memory required for data: 438310000
I0403 13:24:41.700423 28036 layer_factory.hpp:77] Creating layer conv2
I0403 13:24:41.700448 28036 net.cpp:91] Creating Layer conv2
I0403 13:24:41.700465 28036 net.cpp:425] conv2 <- pool1
I0403 13:24:41.700485 28036 net.cpp:399] conv2 -> conv2
I0403 13:24:41.715334 28036 net.cpp:141] Setting up conv2
I0403 13:24:41.715387 28036 net.cpp:148] Top shape: 100 256 27 27 (18662400)
I0403 13:24:41.715405 28036 net.cpp:156] Memory required for data: 512959600
I0403 13:24:41.715430 28036 layer_factory.hpp:77] Creating layer relu2
I0403 13:24:41.715451 28036 net.cpp:91] Creating Layer relu2
I0403 13:24:41.715467 28036 net.cpp:425] relu2 <- conv2
I0403 13:24:41.715486 28036 net.cpp:386] relu2 -> conv2 (in-place)
I0403 13:24:41.715762 28036 net.cpp:141] Setting up relu2
I0403 13:24:41.715790 28036 net.cpp:148] Top shape: 100 256 27 27 (18662400)
I0403 13:24:41.715807 28036 net.cpp:156] Memory required for data: 587609200
I0403 13:24:41.715824 28036 layer_factory.hpp:77] Creating layer norm2
I0403 13:24:41.715847 28036 net.cpp:91] Creating Layer norm2
I0403 13:24:41.715864 28036 net.cpp:425] norm2 <- conv2
I0403 13:24:41.715884 28036 net.cpp:399] norm2 -> norm2
I0403 13:24:41.716076 28036 net.cpp:141] Setting up norm2
I0403 13:24:41.716104 28036 net.cpp:148] Top shape: 100 256 27 27 (18662400)
I0403 13:24:41.716120 28036 net.cpp:156] Memory required for data: 662258800
I0403 13:24:41.716135 28036 layer_factory.hpp:77] Creating layer pool2
I0403 13:24:41.716156 28036 net.cpp:91] Creating Layer pool2
I0403 13:24:41.716172 28036 net.cpp:425] pool2 <- norm2
I0403 13:24:41.716192 28036 net.cpp:399] pool2 -> pool2
I0403 13:24:41.716243 28036 net.cpp:141] Setting up pool2
I0403 13:24:41.716267 28036 net.cpp:148] Top shape: 100 256 13 13 (4326400)
I0403 13:24:41.716287 28036 net.cpp:156] Memory required for data: 679564400
I0403 13:24:41.716303 28036 layer_factory.hpp:77] Creating layer conv3
I0403 13:24:41.716326 28036 net.cpp:91] Creating Layer conv3
I0403 13:24:41.716343 28036 net.cpp:425] conv3 <- pool2
I0403 13:24:41.716368 28036 net.cpp:399] conv3 -> conv3
I0403 13:24:41.754303 28036 net.cpp:141] Setting up conv3
I0403 13:24:41.754387 28036 net.cpp:148] Top shape: 100 384 13 13 (6489600)
I0403 13:24:41.754407 28036 net.cpp:156] Memory required for data: 705522800
I0403 13:24:41.754433 28036 layer_factory.hpp:77] Creating layer relu3
I0403 13:24:41.754456 28036 net.cpp:91] Creating Layer relu3
I0403 13:24:41.754473 28036 net.cpp:425] relu3 <- conv3
I0403 13:24:41.754492 28036 net.cpp:386] relu3 -> conv3 (in-place)
I0403 13:24:41.754750 28036 net.cpp:141] Setting up relu3
I0403 13:24:41.754778 28036 net.cpp:148] Top shape: 100 384 13 13 (6489600)
I0403 13:24:41.754794 28036 net.cpp:156] Memory required for data: 731481200
I0403 13:24:41.754812 28036 layer_factory.hpp:77] Creating layer conv4
I0403 13:24:41.754837 28036 net.cpp:91] Creating Layer conv4
I0403 13:24:41.754866 28036 net.cpp:425] conv4 <- conv3
I0403 13:24:41.754889 28036 net.cpp:399] conv4 -> conv4
I0403 13:24:41.784183 28036 net.cpp:141] Setting up conv4
I0403 13:24:41.784243 28036 net.cpp:148] Top shape: 100 384 13 13 (6489600)
I0403 13:24:41.784291 28036 net.cpp:156] Memory required for data: 757439600
I0403 13:24:41.784315 28036 layer_factory.hpp:77] Creating layer relu4
I0403 13:24:41.784358 28036 net.cpp:91] Creating Layer relu4
I0403 13:24:41.784379 28036 net.cpp:425] relu4 <- conv4
I0403 13:24:41.784399 28036 net.cpp:386] relu4 -> conv4 (in-place)
I0403 13:24:41.784708 28036 net.cpp:141] Setting up relu4
I0403 13:24:41.784736 28036 net.cpp:148] Top shape: 100 384 13 13 (6489600)
I0403 13:24:41.784752 28036 net.cpp:156] Memory required for data: 783398000
I0403 13:24:41.784770 28036 layer_factory.hpp:77] Creating layer conv5
I0403 13:24:41.784795 28036 net.cpp:91] Creating Layer conv5
I0403 13:24:41.784814 28036 net.cpp:425] conv5 <- conv4
I0403 13:24:41.784837 28036 net.cpp:399] conv5 -> conv5
I0403 13:24:41.805328 28036 net.cpp:141] Setting up conv5
I0403 13:24:41.805387 28036 net.cpp:148] Top shape: 100 256 13 13 (4326400)
I0403 13:24:41.805403 28036 net.cpp:156] Memory required for data: 800703600
I0403 13:24:41.805429 28036 layer_factory.hpp:77] Creating layer relu5
I0403 13:24:41.805450 28036 net.cpp:91] Creating Layer relu5
I0403 13:24:41.805469 28036 net.cpp:425] relu5 <- conv5
I0403 13:24:41.805491 28036 net.cpp:386] relu5 -> conv5 (in-place)
I0403 13:24:41.805776 28036 net.cpp:141] Setting up relu5
I0403 13:24:41.805805 28036 net.cpp:148] Top shape: 100 256 13 13 (4326400)
I0403 13:24:41.805821 28036 net.cpp:156] Memory required for data: 818009200
I0403 13:24:41.805837 28036 layer_factory.hpp:77] Creating layer pool5
I0403 13:24:41.805863 28036 net.cpp:91] Creating Layer pool5
I0403 13:24:41.805881 28036 net.cpp:425] pool5 <- conv5
I0403 13:24:41.805901 28036 net.cpp:399] pool5 -> pool5
I0403 13:24:41.805963 28036 net.cpp:141] Setting up pool5
I0403 13:24:41.805989 28036 net.cpp:148] Top shape: 100 256 6 6 (921600)
I0403 13:24:41.806005 28036 net.cpp:156] Memory required for data: 821695600
I0403 13:24:41.806021 28036 layer_factory.hpp:77] Creating layer fc6
I0403 13:24:41.806051 28036 net.cpp:91] Creating Layer fc6
I0403 13:24:41.806071 28036 net.cpp:425] fc6 <- pool5
I0403 13:24:41.806090 28036 net.cpp:399] fc6 -> fc6
I0403 13:24:43.372355 28036 net.cpp:141] Setting up fc6
I0403 13:24:43.372401 28036 net.cpp:148] Top shape: 100 4096 (409600)
I0403 13:24:43.372418 28036 net.cpp:156] Memory required for data: 823334000
I0403 13:24:43.372442 28036 layer_factory.hpp:77] Creating layer relu6
I0403 13:24:43.372463 28036 net.cpp:91] Creating Layer relu6
I0403 13:24:43.372483 28036 net.cpp:425] relu6 <- fc6
I0403 13:24:43.372509 28036 net.cpp:386] relu6 -> fc6 (in-place)
I0403 13:24:43.372730 28036 net.cpp:141] Setting up relu6
I0403 13:24:43.372756 28036 net.cpp:148] Top shape: 100 4096 (409600)
I0403 13:24:43.372771 28036 net.cpp:156] Memory required for data: 824972400
I0403 13:24:43.372787 28036 layer_factory.hpp:77] Creating layer drop6
I0403 13:24:43.372807 28036 net.cpp:91] Creating Layer drop6
I0403 13:24:43.372822 28036 net.cpp:425] drop6 <- fc6
I0403 13:24:43.372843 28036 net.cpp:386] drop6 -> fc6 (in-place)
I0403 13:24:43.372895 28036 net.cpp:141] Setting up drop6
I0403 13:24:43.372918 28036 net.cpp:148] Top shape: 100 4096 (409600)
I0403 13:24:43.372933 28036 net.cpp:156] Memory required for data: 826610800
I0403 13:24:43.372948 28036 layer_factory.hpp:77] Creating layer fc7
I0403 13:24:43.372968 28036 net.cpp:91] Creating Layer fc7
I0403 13:24:43.372983 28036 net.cpp:425] fc7 <- fc6
I0403 13:24:43.373004 28036 net.cpp:399] fc7 -> fc7
I0403 13:24:44.062994 28036 net.cpp:141] Setting up fc7
I0403 13:24:44.063071 28036 net.cpp:148] Top shape: 100 4096 (409600)
I0403 13:24:44.063088 28036 net.cpp:156] Memory required for data: 828249200
I0403 13:24:44.063110 28036 layer_factory.hpp:77] Creating layer relu7
I0403 13:24:44.063135 28036 net.cpp:91] Creating Layer relu7
I0403 13:24:44.063153 28036 net.cpp:425] relu7 <- fc7
I0403 13:24:44.063174 28036 net.cpp:386] relu7 -> fc7 (in-place)
I0403 13:24:44.063602 28036 net.cpp:141] Setting up relu7
I0403 13:24:44.063630 28036 net.cpp:148] Top shape: 100 4096 (409600)
I0403 13:24:44.063678 28036 net.cpp:156] Memory required for data: 829887600
I0403 13:24:44.063695 28036 layer_factory.hpp:77] Creating layer drop7
I0403 13:24:44.063714 28036 net.cpp:91] Creating Layer drop7
I0403 13:24:44.063732 28036 net.cpp:425] drop7 <- fc7
I0403 13:24:44.063750 28036 net.cpp:386] drop7 -> fc7 (in-place)
I0403 13:24:44.063793 28036 net.cpp:141] Setting up drop7
I0403 13:24:44.063818 28036 net.cpp:148] Top shape: 100 4096 (409600)
I0403 13:24:44.063835 28036 net.cpp:156] Memory required for data: 831526000
I0403 13:24:44.063851 28036 layer_factory.hpp:77] Creating layer fc8_plantvillage
I0403 13:24:44.063871 28036 net.cpp:91] Creating Layer fc8_plantvillage
I0403 13:24:44.063887 28036 net.cpp:425] fc8_plantvillage <- fc7
I0403 13:24:44.063910 28036 net.cpp:399] fc8_plantvillage -> fc8_plantvillage
I0403 13:24:44.070665 28036 net.cpp:141] Setting up fc8_plantvillage
I0403 13:24:44.070695 28036 net.cpp:148] Top shape: 100 38 (3800)
I0403 13:24:44.070711 28036 net.cpp:156] Memory required for data: 831541200
I0403 13:24:44.070730 28036 layer_factory.hpp:77] Creating layer fc8_plantvillage_fc8_plantvillage_0_split
I0403 13:24:44.070751 28036 net.cpp:91] Creating Layer fc8_plantvillage_fc8_plantvillage_0_split
I0403 13:24:44.070770 28036 net.cpp:425] fc8_plantvillage_fc8_plantvillage_0_split <- fc8_plantvillage
I0403 13:24:44.070788 28036 net.cpp:399] fc8_plantvillage_fc8_plantvillage_0_split -> fc8_plantvillage_fc8_plantvillage_0_split_0
I0403 13:24:44.070808 28036 net.cpp:399] fc8_plantvillage_fc8_plantvillage_0_split -> fc8_plantvillage_fc8_plantvillage_0_split_1
I0403 13:24:44.070829 28036 net.cpp:399] fc8_plantvillage_fc8_plantvillage_0_split -> fc8_plantvillage_fc8_plantvillage_0_split_2
I0403 13:24:44.070906 28036 net.cpp:141] Setting up fc8_plantvillage_fc8_plantvillage_0_split
I0403 13:24:44.070930 28036 net.cpp:148] Top shape: 100 38 (3800)
I0403 13:24:44.070947 28036 net.cpp:148] Top shape: 100 38 (3800)
I0403 13:24:44.070963 28036 net.cpp:148] Top shape: 100 38 (3800)
I0403 13:24:44.070977 28036 net.cpp:156] Memory required for data: 831586800
I0403 13:24:44.070993 28036 layer_factory.hpp:77] Creating layer prob
I0403 13:24:44.071012 28036 net.cpp:91] Creating Layer prob
I0403 13:24:44.071027 28036 net.cpp:425] prob <- fc8_plantvillage_fc8_plantvillage_0_split_0
I0403 13:24:44.071048 28036 net.cpp:399] prob -> prob
I0403 13:24:44.071276 28036 net.cpp:141] Setting up prob
I0403 13:24:44.071303 28036 net.cpp:148] Top shape: 100 38 (3800)
I0403 13:24:44.071319 28036 net.cpp:156] Memory required for data: 831602000
I0403 13:24:44.071336 28036 layer_factory.hpp:77] Creating layer hdf5out
I0403 13:24:44.071362 28036 net.cpp:91] Creating Layer hdf5out
I0403 13:24:44.071382 28036 net.cpp:425] hdf5out <- prob
I0403 13:24:44.071398 28036 net.cpp:425] hdf5out <- label_data_1_split_0
I0403 13:24:44.074893 28036 net.cpp:141] Setting up hdf5out
…
