…
I0403 14:06:30.215270 29226 net.cpp:313] The NetState phase (1) differed from the phase (0) specified by a rule in layer data
I0403 14:06:30.215623 29226 net.cpp:49] Initializing net from parameters: 
state {
  phase: TEST
}
layer {
  name: "data"
  type: "Data"
  top: "data"
  top: "label"
  include {
    phase: TEST
  }
  transform_param {
    crop_size: 227
    mean_file: "/home/mohanty/data/final_dataset/lmdb/grayscale-20-80/mean.binaryproto"
  }
  data_param {
    source: "/home/mohanty/data/final_dataset/lmdb/grayscale-20-80/test_db"
    batch_size: 100
    backend: LMDB
  }
}
layer {
  name: "conv1"
  type: "Convolution"
  bottom: "data"
  top: "conv1"
  param {
    lr_mult: 1
    decay_mult: 1
  }
  param {
    lr_mult: 2
    decay_mult: 0
  }
  convolution_param {
    num_output: 96
    kernel_size: 11
    stride: 4
    weight_filler {
      type: "gaussian"
      std: 0.01
    }
    bias_filler {
      type: "constant"
      value: 0
    }
  }
}
layer {
  name: "relu1"
  type: "ReLU"
  bottom: "conv1"
  top: "conv1"
}
layer {
  name: "norm1"
  type: "LRN"
  bottom: "conv1"
  top: "norm1"
  lrn_param {
    local_size: 5
    alpha: 0.0001
    beta: 0.75
  }
}
layer {
  name: "pool1"
  type: "Pooling"
  bottom: "norm1"
  top: "pool1"
  pooling_param {
    pool: MAX
    kernel_size: 3
    stride: 2
  }
}
layer {
  name: "conv2"
  type: "Convolution"
  bottom: "pool1"
  top: "conv2"
  param {
    lr_mult: 1
    decay_mult: 1
  }
  param {
    lr_mult: 2
    decay_mult: 0
  }
  convolution_param {
    num_output: 256
    pad: 2
    kernel_size: 5
    group: 2
    weight_filler {
      type: "gaussian"
      std: 0.01
    }
    bias_filler {
      type: "constant"
      value: 0.1
    }
  }
}
layer {
  name: "relu2"
  type: "ReLU"
  bottom: "conv2"
  top: "conv2"
}
layer {
  name: "norm2"
  type: "LRN"
  bottom: "conv2"
  top: "norm2"
  lrn_param {
    local_size: 5
    alpha: 0.0001
    beta: 0.75
  }
}
layer {
  name: "pool2"
  type: "Pooling"
  bottom: "norm2"
  top: "pool2"
  pooling_param {
    pool: MAX
    kernel_size: 3
    stride: 2
  }
}
layer {
  name: "conv3"
  type: "Convolution"
  bottom: "pool2"
  top: "conv3"
  param {
    lr_mult: 1
    decay_mult: 1
  }
  param {
    lr_mult: 2
    decay_mult: 0
  }
  convolution_param {
    num_output: 384
    pad: 1
    kernel_size: 3
    weight_filler {
      type: "gaussian"
      std: 0.01
    }
    bias_filler {
      type: "constant"
      value: 0
    }
  }
}
layer {
  name: "relu3"
  type: "ReLU"
  bottom: "conv3"
  top: "conv3"
}
layer {
  name: "conv4"
  type: "Convolution"
  bottom: "conv3"
  top: "conv4"
  param {
    lr_mult: 1
    decay_mult: 1
  }
  param {
    lr_mult: 2
    decay_mult: 0
  }
  convolution_param {
    num_output: 384
    pad: 1
    kernel_size: 3
    group: 2
    weight_filler {
      type: "gaussian"
      std: 0.01
    }
    bias_filler {
      type: "constant"
      value: 0.1
    }
  }
}
layer {
  name: "relu4"
  type: "ReLU"
  bottom: "conv4"
  top: "conv4"
}
layer {
  name: "conv5"
  type: "Convolution"
  bottom: "conv4"
  top: "conv5"
  param {
    lr_mult: 1
    decay_mult: 1
  }
  param {
    lr_mult: 2
    decay_mult: 0
  }
  convolution_param {
    num_output: 256
    pad: 1
    kernel_size: 3
    group: 2
    weight_filler {
      type: "gaussian"
      std: 0.01
    }
    bias_filler {
      type: "constant"
      value: 0.1
    }
  }
}
layer {
  name: "relu5"
  type: "ReLU"
  bottom: "conv5"
  top: "conv5"
}
layer {
  name: "pool5"
  type: "Pooling"
  bottom: "conv5"
  top: "pool5"
  pooling_param {
    pool: MAX
    kernel_size: 3
    stride: 2
  }
}
layer {
  name: "fc6"
  type: "InnerProduct"
  bottom: "pool5"
  top: "fc6"
  param {
    lr_mult: 1
    decay_mult: 1
  }
  param {
    lr_mult: 2
    decay_mult: 0
  }
  inner_product_param {
    num_output: 4096
    weight_filler {
      type: "gaussian"
      std: 0.005
    }
    bias_filler {
      type: "constant"
      value: 0.1
    }
  }
}
layer {
  name: "relu6"
  type: "ReLU"
  bottom: "fc6"
  top: "fc6"
}
layer {
  name: "drop6"
  type: "Dropout"
  bottom: "fc6"
  top: "fc6"
  dropout_param {
    dropout_ratio: 0.5
  }
}
layer {
  name: "fc7"
  type: "InnerProduct"
  bottom: "fc6"
  top: "fc7"
  param {
    lr_mult: 1
    decay_mult: 1
  }
  param {
    lr_mult: 2
    decay_mult: 0
  }
  inner_product_param {
    num_output: 4096
    weight_filler {
      type: "gaussian"
      std: 0.005
    }
    bias_filler {
      type: "constant"
      value: 0.1
    }
  }
}
layer {
  name: "relu7"
  type: "ReLU"
  bottom: "fc7"
  top: "fc7"
}
layer {
  name: "drop7"
  type: "Dropout"
  bottom: "fc7"
  top: "fc7"
  dropout_param {
    dropout_ratio: 0.5
  }
}
layer {
  name: "fc8_plantvillage"
  type: "InnerProduct"
  bottom: "fc7"
  top: "fc8_plantvillage"
  param {
    lr_mult: 1
    decay_mult: 1
  }
  param {
    lr_mult: 2
    decay_mult: 0
  }
  inner_product_param {
    num_output: 38
    weight_filler {
      type: "gaussian"
      std: 0.01
    }
    bias_filler {
      type: "constant"
      value: 0
    }
  }
}
layer {
  name: "prob"
  type: "Softmax"
  bottom: "fc8_plantvillage"
  top: "prob"
  include {
    phase: TEST
  }
}
layer {
  name: "hdf5out"
  type: "HDF5Output"
  bottom: "prob"
  bottom: "label"
  include {
    phase: TEST
  }
  hdf5_output_param {
    file_name: "hdf5_dumps/iter_3172.h5"
  }
}
layer {
  name: "loss"
  type: "SoftmaxWithLoss"
  bottom: "fc8_plantvillage"
  bottom: "label"
  top: "loss"
}
layer {
  name: "accuracy"
  type: "Accuracy"
  bottom: "fc8_plantvillage"
  bottom: "label"
  top: "accuracy"
  include {
    phase: TEST
  }
}
I0403 14:06:30.216186 29226 layer_factory.hpp:77] Creating layer data
I0403 14:06:30.216877 29226 net.cpp:91] Creating Layer data
I0403 14:06:30.216917 29226 net.cpp:399] data -> data
I0403 14:06:30.216971 29226 net.cpp:399] data -> label
I0403 14:06:30.217010 29226 data_transformer.cpp:25] Loading mean file from: /home/mohanty/data/final_dataset/lmdb/grayscale-20-80/mean.binaryproto
I0403 14:06:30.219830 29232 db_lmdb.cpp:38] Opened lmdb /home/mohanty/data/final_dataset/lmdb/grayscale-20-80/test_db
I0403 14:06:30.231221 29226 data_layer.cpp:41] output data size: 100,3,227,227
I0403 14:06:30.354171 29226 net.cpp:141] Setting up data
I0403 14:06:30.354259 29226 net.cpp:148] Top shape: 100 3 227 227 (15458700)
I0403 14:06:30.354282 29226 net.cpp:148] Top shape: 100 (100)
I0403 14:06:30.354298 29226 net.cpp:156] Memory required for data: 61835200
I0403 14:06:30.354326 29226 layer_factory.hpp:77] Creating layer label_data_1_split
I0403 14:06:30.354358 29226 net.cpp:91] Creating Layer label_data_1_split
I0403 14:06:30.354379 29226 net.cpp:425] label_data_1_split <- label
I0403 14:06:30.354411 29226 net.cpp:399] label_data_1_split -> label_data_1_split_0
I0403 14:06:30.354439 29226 net.cpp:399] label_data_1_split -> label_data_1_split_1
I0403 14:06:30.354460 29226 net.cpp:399] label_data_1_split -> label_data_1_split_2
I0403 14:06:30.354526 29226 net.cpp:141] Setting up label_data_1_split
I0403 14:06:30.354550 29226 net.cpp:148] Top shape: 100 (100)
I0403 14:06:30.354568 29226 net.cpp:148] Top shape: 100 (100)
I0403 14:06:30.354585 29226 net.cpp:148] Top shape: 100 (100)
I0403 14:06:30.354601 29226 net.cpp:156] Memory required for data: 61836400
I0403 14:06:30.354617 29226 layer_factory.hpp:77] Creating layer conv1
I0403 14:06:30.354650 29226 net.cpp:91] Creating Layer conv1
I0403 14:06:30.354671 29226 net.cpp:425] conv1 <- data
I0403 14:06:30.354691 29226 net.cpp:399] conv1 -> conv1
I0403 14:06:30.497314 29226 net.cpp:141] Setting up conv1
I0403 14:06:30.497397 29226 net.cpp:148] Top shape: 100 96 55 55 (29040000)
I0403 14:06:30.497416 29226 net.cpp:156] Memory required for data: 177996400
I0403 14:06:30.497449 29226 layer_factory.hpp:77] Creating layer relu1
I0403 14:06:30.497478 29226 net.cpp:91] Creating Layer relu1
I0403 14:06:30.497498 29226 net.cpp:425] relu1 <- conv1
I0403 14:06:30.497519 29226 net.cpp:386] relu1 -> conv1 (in-place)
I0403 14:06:30.497791 29226 net.cpp:141] Setting up relu1
I0403 14:06:30.497819 29226 net.cpp:148] Top shape: 100 96 55 55 (29040000)
I0403 14:06:30.497870 29226 net.cpp:156] Memory required for data: 294156400
I0403 14:06:30.497887 29226 layer_factory.hpp:77] Creating layer norm1
I0403 14:06:30.497915 29226 net.cpp:91] Creating Layer norm1
I0403 14:06:30.497934 29226 net.cpp:425] norm1 <- conv1
I0403 14:06:30.497954 29226 net.cpp:399] norm1 -> norm1
I0403 14:06:30.498272 29226 net.cpp:141] Setting up norm1
I0403 14:06:30.498302 29226 net.cpp:148] Top shape: 100 96 55 55 (29040000)
I0403 14:06:30.498319 29226 net.cpp:156] Memory required for data: 410316400
I0403 14:06:30.498337 29226 layer_factory.hpp:77] Creating layer pool1
I0403 14:06:30.498368 29226 net.cpp:91] Creating Layer pool1
I0403 14:06:30.498386 29226 net.cpp:425] pool1 <- norm1
I0403 14:06:30.498405 29226 net.cpp:399] pool1 -> pool1
I0403 14:06:30.498474 29226 net.cpp:141] Setting up pool1
I0403 14:06:30.498500 29226 net.cpp:148] Top shape: 100 96 27 27 (6998400)
I0403 14:06:30.498517 29226 net.cpp:156] Memory required for data: 438310000
I0403 14:06:30.498533 29226 layer_factory.hpp:77] Creating layer conv2
I0403 14:06:30.498558 29226 net.cpp:91] Creating Layer conv2
I0403 14:06:30.498576 29226 net.cpp:425] conv2 <- pool1
I0403 14:06:30.498595 29226 net.cpp:399] conv2 -> conv2
I0403 14:06:30.513932 29226 net.cpp:141] Setting up conv2
I0403 14:06:30.513990 29226 net.cpp:148] Top shape: 100 256 27 27 (18662400)
I0403 14:06:30.514008 29226 net.cpp:156] Memory required for data: 512959600
I0403 14:06:30.514034 29226 layer_factory.hpp:77] Creating layer relu2
I0403 14:06:30.514055 29226 net.cpp:91] Creating Layer relu2
I0403 14:06:30.514072 29226 net.cpp:425] relu2 <- conv2
I0403 14:06:30.514096 29226 net.cpp:386] relu2 -> conv2 (in-place)
I0403 14:06:30.514380 29226 net.cpp:141] Setting up relu2
I0403 14:06:30.514410 29226 net.cpp:148] Top shape: 100 256 27 27 (18662400)
I0403 14:06:30.514427 29226 net.cpp:156] Memory required for data: 587609200
I0403 14:06:30.514443 29226 layer_factory.hpp:77] Creating layer norm2
I0403 14:06:30.514467 29226 net.cpp:91] Creating Layer norm2
I0403 14:06:30.514485 29226 net.cpp:425] norm2 <- conv2
I0403 14:06:30.514504 29226 net.cpp:399] norm2 -> norm2
I0403 14:06:30.514696 29226 net.cpp:141] Setting up norm2
I0403 14:06:30.514724 29226 net.cpp:148] Top shape: 100 256 27 27 (18662400)
I0403 14:06:30.514739 29226 net.cpp:156] Memory required for data: 662258800
I0403 14:06:30.514755 29226 layer_factory.hpp:77] Creating layer pool2
I0403 14:06:30.514775 29226 net.cpp:91] Creating Layer pool2
I0403 14:06:30.514792 29226 net.cpp:425] pool2 <- norm2
I0403 14:06:30.514811 29226 net.cpp:399] pool2 -> pool2
I0403 14:06:30.514863 29226 net.cpp:141] Setting up pool2
I0403 14:06:30.514889 29226 net.cpp:148] Top shape: 100 256 13 13 (4326400)
I0403 14:06:30.514904 29226 net.cpp:156] Memory required for data: 679564400
I0403 14:06:30.514919 29226 layer_factory.hpp:77] Creating layer conv3
I0403 14:06:30.514942 29226 net.cpp:91] Creating Layer conv3
I0403 14:06:30.514960 29226 net.cpp:425] conv3 <- pool2
I0403 14:06:30.514981 29226 net.cpp:399] conv3 -> conv3
I0403 14:06:30.556929 29226 net.cpp:141] Setting up conv3
I0403 14:06:30.557008 29226 net.cpp:148] Top shape: 100 384 13 13 (6489600)
I0403 14:06:30.557026 29226 net.cpp:156] Memory required for data: 705522800
I0403 14:06:30.557054 29226 layer_factory.hpp:77] Creating layer relu3
I0403 14:06:30.557078 29226 net.cpp:91] Creating Layer relu3
I0403 14:06:30.557098 29226 net.cpp:425] relu3 <- conv3
I0403 14:06:30.557118 29226 net.cpp:386] relu3 -> conv3 (in-place)
I0403 14:06:30.557410 29226 net.cpp:141] Setting up relu3
I0403 14:06:30.557443 29226 net.cpp:148] Top shape: 100 384 13 13 (6489600)
I0403 14:06:30.557459 29226 net.cpp:156] Memory required for data: 731481200
I0403 14:06:30.557476 29226 layer_factory.hpp:77] Creating layer conv4
I0403 14:06:30.557502 29226 net.cpp:91] Creating Layer conv4
I0403 14:06:30.557521 29226 net.cpp:425] conv4 <- conv3
I0403 14:06:30.557544 29226 net.cpp:399] conv4 -> conv4
I0403 14:06:30.588294 29226 net.cpp:141] Setting up conv4
I0403 14:06:30.588367 29226 net.cpp:148] Top shape: 100 384 13 13 (6489600)
I0403 14:06:30.588423 29226 net.cpp:156] Memory required for data: 757439600
I0403 14:06:30.588448 29226 layer_factory.hpp:77] Creating layer relu4
I0403 14:06:30.588471 29226 net.cpp:91] Creating Layer relu4
I0403 14:06:30.588491 29226 net.cpp:425] relu4 <- conv4
I0403 14:06:30.588512 29226 net.cpp:386] relu4 -> conv4 (in-place)
I0403 14:06:30.588803 29226 net.cpp:141] Setting up relu4
I0403 14:06:30.588831 29226 net.cpp:148] Top shape: 100 384 13 13 (6489600)
I0403 14:06:30.588850 29226 net.cpp:156] Memory required for data: 783398000
I0403 14:06:30.588868 29226 layer_factory.hpp:77] Creating layer conv5
I0403 14:06:30.588894 29226 net.cpp:91] Creating Layer conv5
I0403 14:06:30.588912 29226 net.cpp:425] conv5 <- conv4
I0403 14:06:30.588937 29226 net.cpp:399] conv5 -> conv5
I0403 14:06:30.610167 29226 net.cpp:141] Setting up conv5
I0403 14:06:30.610225 29226 net.cpp:148] Top shape: 100 256 13 13 (4326400)
I0403 14:06:30.610244 29226 net.cpp:156] Memory required for data: 800703600
I0403 14:06:30.610275 29226 layer_factory.hpp:77] Creating layer relu5
I0403 14:06:30.610298 29226 net.cpp:91] Creating Layer relu5
I0403 14:06:30.610316 29226 net.cpp:425] relu5 <- conv5
I0403 14:06:30.610337 29226 net.cpp:386] relu5 -> conv5 (in-place)
I0403 14:06:30.610636 29226 net.cpp:141] Setting up relu5
I0403 14:06:30.610668 29226 net.cpp:148] Top shape: 100 256 13 13 (4326400)
I0403 14:06:30.610687 29226 net.cpp:156] Memory required for data: 818009200
I0403 14:06:30.610703 29226 layer_factory.hpp:77] Creating layer pool5
I0403 14:06:30.610728 29226 net.cpp:91] Creating Layer pool5
I0403 14:06:30.610745 29226 net.cpp:425] pool5 <- conv5
I0403 14:06:30.610767 29226 net.cpp:399] pool5 -> pool5
I0403 14:06:30.610831 29226 net.cpp:141] Setting up pool5
I0403 14:06:30.610858 29226 net.cpp:148] Top shape: 100 256 6 6 (921600)
I0403 14:06:30.610875 29226 net.cpp:156] Memory required for data: 821695600
I0403 14:06:30.610893 29226 layer_factory.hpp:77] Creating layer fc6
I0403 14:06:30.610920 29226 net.cpp:91] Creating Layer fc6
I0403 14:06:30.610939 29226 net.cpp:425] fc6 <- pool5
I0403 14:06:30.610961 29226 net.cpp:399] fc6 -> fc6
I0403 14:06:32.129511 29226 net.cpp:141] Setting up fc6
I0403 14:06:32.129595 29226 net.cpp:148] Top shape: 100 4096 (409600)
I0403 14:06:32.129611 29226 net.cpp:156] Memory required for data: 823334000
I0403 14:06:32.129633 29226 layer_factory.hpp:77] Creating layer relu6
I0403 14:06:32.129655 29226 net.cpp:91] Creating Layer relu6
I0403 14:06:32.129673 29226 net.cpp:425] relu6 <- fc6
I0403 14:06:32.129693 29226 net.cpp:386] relu6 -> fc6 (in-place)
I0403 14:06:32.129914 29226 net.cpp:141] Setting up relu6
I0403 14:06:32.129943 29226 net.cpp:148] Top shape: 100 4096 (409600)
I0403 14:06:32.129959 29226 net.cpp:156] Memory required for data: 824972400
I0403 14:06:32.129976 29226 layer_factory.hpp:77] Creating layer drop6
I0403 14:06:32.129994 29226 net.cpp:91] Creating Layer drop6
I0403 14:06:32.130009 29226 net.cpp:425] drop6 <- fc6
I0403 14:06:32.130028 29226 net.cpp:386] drop6 -> fc6 (in-place)
I0403 14:06:32.130079 29226 net.cpp:141] Setting up drop6
I0403 14:06:32.130103 29226 net.cpp:148] Top shape: 100 4096 (409600)
I0403 14:06:32.130118 29226 net.cpp:156] Memory required for data: 826610800
I0403 14:06:32.130133 29226 layer_factory.hpp:77] Creating layer fc7
I0403 14:06:32.130161 29226 net.cpp:91] Creating Layer fc7
I0403 14:06:32.130178 29226 net.cpp:425] fc7 <- fc6
I0403 14:06:32.130198 29226 net.cpp:399] fc7 -> fc7
I0403 14:06:32.815409 29226 net.cpp:141] Setting up fc7
I0403 14:06:32.815477 29226 net.cpp:148] Top shape: 100 4096 (409600)
I0403 14:06:32.815496 29226 net.cpp:156] Memory required for data: 828249200
I0403 14:06:32.815521 29226 layer_factory.hpp:77] Creating layer relu7
I0403 14:06:32.815547 29226 net.cpp:91] Creating Layer relu7
I0403 14:06:32.815568 29226 net.cpp:425] relu7 <- fc7
I0403 14:06:32.815592 29226 net.cpp:386] relu7 -> fc7 (in-place)
I0403 14:06:32.816005 29226 net.cpp:141] Setting up relu7
I0403 14:06:32.816040 29226 net.cpp:148] Top shape: 100 4096 (409600)
I0403 14:06:32.816092 29226 net.cpp:156] Memory required for data: 829887600
I0403 14:06:32.816110 29226 layer_factory.hpp:77] Creating layer drop7
I0403 14:06:32.816130 29226 net.cpp:91] Creating Layer drop7
I0403 14:06:32.816154 29226 net.cpp:425] drop7 <- fc7
I0403 14:06:32.816246 29226 net.cpp:386] drop7 -> fc7 (in-place)
I0403 14:06:32.816334 29226 net.cpp:141] Setting up drop7
I0403 14:06:32.816390 29226 net.cpp:148] Top shape: 100 4096 (409600)
I0403 14:06:32.816416 29226 net.cpp:156] Memory required for data: 831526000
I0403 14:06:32.816432 29226 layer_factory.hpp:77] Creating layer fc8_plantvillage
I0403 14:06:32.816458 29226 net.cpp:91] Creating Layer fc8_plantvillage
I0403 14:06:32.816479 29226 net.cpp:425] fc8_plantvillage <- fc7
I0403 14:06:32.816499 29226 net.cpp:399] fc8_plantvillage -> fc8_plantvillage
I0403 14:06:32.823714 29226 net.cpp:141] Setting up fc8_plantvillage
I0403 14:06:32.823776 29226 net.cpp:148] Top shape: 100 38 (3800)
I0403 14:06:32.823849 29226 net.cpp:156] Memory required for data: 831541200
I0403 14:06:32.823887 29226 layer_factory.hpp:77] Creating layer fc8_plantvillage_fc8_plantvillage_0_split
I0403 14:06:32.823940 29226 net.cpp:91] Creating Layer fc8_plantvillage_fc8_plantvillage_0_split
I0403 14:06:32.823978 29226 net.cpp:425] fc8_plantvillage_fc8_plantvillage_0_split <- fc8_plantvillage
I0403 14:06:32.824005 29226 net.cpp:399] fc8_plantvillage_fc8_plantvillage_0_split -> fc8_plantvillage_fc8_plantvillage_0_split_0
I0403 14:06:32.824036 29226 net.cpp:399] fc8_plantvillage_fc8_plantvillage_0_split -> fc8_plantvillage_fc8_plantvillage_0_split_1
I0403 14:06:32.824060 29226 net.cpp:399] fc8_plantvillage_fc8_plantvillage_0_split -> fc8_plantvillage_fc8_plantvillage_0_split_2
I0403 14:06:32.824147 29226 net.cpp:141] Setting up fc8_plantvillage_fc8_plantvillage_0_split
I0403 14:06:32.824175 29226 net.cpp:148] Top shape: 100 38 (3800)
I0403 14:06:32.824195 29226 net.cpp:148] Top shape: 100 38 (3800)
I0403 14:06:32.824213 29226 net.cpp:148] Top shape: 100 38 (3800)
I0403 14:06:32.824231 29226 net.cpp:156] Memory required for data: 831586800
I0403 14:06:32.824249 29226 layer_factory.hpp:77] Creating layer prob
I0403 14:06:32.824275 29226 net.cpp:91] Creating Layer prob
I0403 14:06:32.824295 29226 net.cpp:425] prob <- fc8_plantvillage_fc8_plantvillage_0_split_0
I0403 14:06:32.824316 29226 net.cpp:399] prob -> prob
I0403 14:06:32.824607 29226 net.cpp:141] Setting up prob
I0403 14:06:32.824640 29226 net.cpp:148] Top shape: 100 38 (3800)
I0403 14:06:32.824658 29226 net.cpp:156] Memory required for data: 831602000
I0403 14:06:32.824676 29226 layer_factory.hpp:77] Creating layer hdf5out
I0403 14:06:32.824700 29226 net.cpp:91] Creating Layer hdf5out
I0403 14:06:32.824718 29226 net.cpp:425] hdf5out <- prob
I0403 14:06:32.824736 29226 net.cpp:425] hdf5out <- label_data_1_split_0
I0403 14:06:32.828339 29226 net.cpp:141] Setting up hdf5out
…
