…
I0403 13:53:27.017017 28815 net.cpp:313] The NetState phase (1) differed from the phase (0) specified by a rule in layer data
I0403 13:53:27.017305 28815 net.cpp:49] Initializing net from parameters: 
state {
  phase: TEST
}
layer {
  name: "data"
  type: "Data"
  top: "data"
  top: "label"
  include {
    phase: TEST
  }
  transform_param {
    crop_size: 227
    mean_file: "/home/mohanty/data/final_dataset/lmdb/grayscale-20-80/mean.binaryproto"
  }
  data_param {
    source: "/home/mohanty/data/final_dataset/lmdb/grayscale-20-80/test_db"
    batch_size: 100
    backend: LMDB
  }
}
layer {
  name: "conv1"
  type: "Convolution"
  bottom: "data"
  top: "conv1"
  param {
    lr_mult: 1
    decay_mult: 1
  }
  param {
    lr_mult: 2
    decay_mult: 0
  }
  convolution_param {
    num_output: 96
    kernel_size: 11
    stride: 4
    weight_filler {
      type: "gaussian"
      std: 0.01
    }
    bias_filler {
      type: "constant"
      value: 0
    }
  }
}
layer {
  name: "relu1"
  type: "ReLU"
  bottom: "conv1"
  top: "conv1"
}
layer {
  name: "norm1"
  type: "LRN"
  bottom: "conv1"
  top: "norm1"
  lrn_param {
    local_size: 5
    alpha: 0.0001
    beta: 0.75
  }
}
layer {
  name: "pool1"
  type: "Pooling"
  bottom: "norm1"
  top: "pool1"
  pooling_param {
    pool: MAX
    kernel_size: 3
    stride: 2
  }
}
layer {
  name: "conv2"
  type: "Convolution"
  bottom: "pool1"
  top: "conv2"
  param {
    lr_mult: 1
    decay_mult: 1
  }
  param {
    lr_mult: 2
    decay_mult: 0
  }
  convolution_param {
    num_output: 256
    pad: 2
    kernel_size: 5
    group: 2
    weight_filler {
      type: "gaussian"
      std: 0.01
    }
    bias_filler {
      type: "constant"
      value: 0.1
    }
  }
}
layer {
  name: "relu2"
  type: "ReLU"
  bottom: "conv2"
  top: "conv2"
}
layer {
  name: "norm2"
  type: "LRN"
  bottom: "conv2"
  top: "norm2"
  lrn_param {
    local_size: 5
    alpha: 0.0001
    beta: 0.75
  }
}
layer {
  name: "pool2"
  type: "Pooling"
  bottom: "norm2"
  top: "pool2"
  pooling_param {
    pool: MAX
    kernel_size: 3
    stride: 2
  }
}
layer {
  name: "conv3"
  type: "Convolution"
  bottom: "pool2"
  top: "conv3"
  param {
    lr_mult: 1
    decay_mult: 1
  }
  param {
    lr_mult: 2
    decay_mult: 0
  }
  convolution_param {
    num_output: 384
    pad: 1
    kernel_size: 3
    weight_filler {
      type: "gaussian"
      std: 0.01
    }
    bias_filler {
      type: "constant"
      value: 0
    }
  }
}
layer {
  name: "relu3"
  type: "ReLU"
  bottom: "conv3"
  top: "conv3"
}
layer {
  name: "conv4"
  type: "Convolution"
  bottom: "conv3"
  top: "conv4"
  param {
    lr_mult: 1
    decay_mult: 1
  }
  param {
    lr_mult: 2
    decay_mult: 0
  }
  convolution_param {
    num_output: 384
    pad: 1
    kernel_size: 3
    group: 2
    weight_filler {
      type: "gaussian"
      std: 0.01
    }
    bias_filler {
      type: "constant"
      value: 0.1
    }
  }
}
layer {
  name: "relu4"
  type: "ReLU"
  bottom: "conv4"
  top: "conv4"
}
layer {
  name: "conv5"
  type: "Convolution"
  bottom: "conv4"
  top: "conv5"
  param {
    lr_mult: 1
    decay_mult: 1
  }
  param {
    lr_mult: 2
    decay_mult: 0
  }
  convolution_param {
    num_output: 256
    pad: 1
    kernel_size: 3
    group: 2
    weight_filler {
      type: "gaussian"
      std: 0.01
    }
    bias_filler {
      type: "constant"
      value: 0.1
    }
  }
}
layer {
  name: "relu5"
  type: "ReLU"
  bottom: "conv5"
  top: "conv5"
}
layer {
  name: "pool5"
  type: "Pooling"
  bottom: "conv5"
  top: "pool5"
  pooling_param {
    pool: MAX
    kernel_size: 3
    stride: 2
  }
}
layer {
  name: "fc6"
  type: "InnerProduct"
  bottom: "pool5"
  top: "fc6"
  param {
    lr_mult: 1
    decay_mult: 1
  }
  param {
    lr_mult: 2
    decay_mult: 0
  }
  inner_product_param {
    num_output: 4096
    weight_filler {
      type: "gaussian"
      std: 0.005
    }
    bias_filler {
      type: "constant"
      value: 0.1
    }
  }
}
layer {
  name: "relu6"
  type: "ReLU"
  bottom: "fc6"
  top: "fc6"
}
layer {
  name: "drop6"
  type: "Dropout"
  bottom: "fc6"
  top: "fc6"
  dropout_param {
    dropout_ratio: 0.5
  }
}
layer {
  name: "fc7"
  type: "InnerProduct"
  bottom: "fc6"
  top: "fc7"
  param {
    lr_mult: 1
    decay_mult: 1
  }
  param {
    lr_mult: 2
    decay_mult: 0
  }
  inner_product_param {
    num_output: 4096
    weight_filler {
      type: "gaussian"
      std: 0.005
    }
    bias_filler {
      type: "constant"
      value: 0.1
    }
  }
}
layer {
  name: "relu7"
  type: "ReLU"
  bottom: "fc7"
  top: "fc7"
}
layer {
  name: "drop7"
  type: "Dropout"
  bottom: "fc7"
  top: "fc7"
  dropout_param {
    dropout_ratio: 0.5
  }
}
layer {
  name: "fc8_plantvillage"
  type: "InnerProduct"
  bottom: "fc7"
  top: "fc8_plantvillage"
  param {
    lr_mult: 1
    decay_mult: 1
  }
  param {
    lr_mult: 2
    decay_mult: 0
  }
  inner_product_param {
    num_output: 38
    weight_filler {
      type: "gaussian"
      std: 0.01
    }
    bias_filler {
      type: "constant"
      value: 0
    }
  }
}
layer {
  name: "prob"
  type: "Softmax"
  bottom: "fc8_plantvillage"
  top: "prob"
  include {
    phase: TEST
  }
}
layer {
  name: "hdf5out"
  type: "HDF5Output"
  bottom: "prob"
  bottom: "label"
  include {
    phase: TEST
  }
  hdf5_output_param {
    file_name: "hdf5_dumps/iter_2310.h5"
  }
}
layer {
  name: "loss"
  type: "SoftmaxWithLoss"
  bottom: "fc8_plantvillage"
  bottom: "label"
  top: "loss"
}
layer {
  name: "accuracy"
  type: "Accuracy"
  bottom: "fc8_plantvillage"
  bottom: "label"
  top: "accuracy"
  include {
    phase: TEST
  }
}
I0403 13:53:27.017817 28815 layer_factory.hpp:77] Creating layer data
I0403 13:53:27.018443 28815 net.cpp:91] Creating Layer data
I0403 13:53:27.018474 28815 net.cpp:399] data -> data
I0403 13:53:27.018525 28815 net.cpp:399] data -> label
I0403 13:53:27.018565 28815 data_transformer.cpp:25] Loading mean file from: /home/mohanty/data/final_dataset/lmdb/grayscale-20-80/mean.binaryproto
I0403 13:53:27.021395 28818 db_lmdb.cpp:38] Opened lmdb /home/mohanty/data/final_dataset/lmdb/grayscale-20-80/test_db
I0403 13:53:27.032685 28815 data_layer.cpp:41] output data size: 100,3,227,227
I0403 13:53:27.155073 28815 net.cpp:141] Setting up data
I0403 13:53:27.155133 28815 net.cpp:148] Top shape: 100 3 227 227 (15458700)
I0403 13:53:27.155156 28815 net.cpp:148] Top shape: 100 (100)
I0403 13:53:27.155182 28815 net.cpp:156] Memory required for data: 61835200
I0403 13:53:27.155211 28815 layer_factory.hpp:77] Creating layer label_data_1_split
I0403 13:53:27.155237 28815 net.cpp:91] Creating Layer label_data_1_split
I0403 13:53:27.155256 28815 net.cpp:425] label_data_1_split <- label
I0403 13:53:27.155289 28815 net.cpp:399] label_data_1_split -> label_data_1_split_0
I0403 13:53:27.155320 28815 net.cpp:399] label_data_1_split -> label_data_1_split_1
I0403 13:53:27.155344 28815 net.cpp:399] label_data_1_split -> label_data_1_split_2
I0403 13:53:27.155407 28815 net.cpp:141] Setting up label_data_1_split
I0403 13:53:27.155431 28815 net.cpp:148] Top shape: 100 (100)
I0403 13:53:27.155448 28815 net.cpp:148] Top shape: 100 (100)
I0403 13:53:27.155464 28815 net.cpp:148] Top shape: 100 (100)
I0403 13:53:27.155479 28815 net.cpp:156] Memory required for data: 61836400
I0403 13:53:27.155506 28815 layer_factory.hpp:77] Creating layer conv1
I0403 13:53:27.155539 28815 net.cpp:91] Creating Layer conv1
I0403 13:53:27.155557 28815 net.cpp:425] conv1 <- data
I0403 13:53:27.155576 28815 net.cpp:399] conv1 -> conv1
I0403 13:53:27.298604 28815 net.cpp:141] Setting up conv1
I0403 13:53:27.298693 28815 net.cpp:148] Top shape: 100 96 55 55 (29040000)
I0403 13:53:27.298712 28815 net.cpp:156] Memory required for data: 177996400
I0403 13:53:27.298743 28815 layer_factory.hpp:77] Creating layer relu1
I0403 13:53:27.298774 28815 net.cpp:91] Creating Layer relu1
I0403 13:53:27.298792 28815 net.cpp:425] relu1 <- conv1
I0403 13:53:27.298812 28815 net.cpp:386] relu1 -> conv1 (in-place)
I0403 13:53:27.299084 28815 net.cpp:141] Setting up relu1
I0403 13:53:27.299113 28815 net.cpp:148] Top shape: 100 96 55 55 (29040000)
I0403 13:53:27.299160 28815 net.cpp:156] Memory required for data: 294156400
I0403 13:53:27.299177 28815 layer_factory.hpp:77] Creating layer norm1
I0403 13:53:27.299208 28815 net.cpp:91] Creating Layer norm1
I0403 13:53:27.299228 28815 net.cpp:425] norm1 <- conv1
I0403 13:53:27.299249 28815 net.cpp:399] norm1 -> norm1
I0403 13:53:27.299608 28815 net.cpp:141] Setting up norm1
I0403 13:53:27.299641 28815 net.cpp:148] Top shape: 100 96 55 55 (29040000)
I0403 13:53:27.299659 28815 net.cpp:156] Memory required for data: 410316400
I0403 13:53:27.299675 28815 layer_factory.hpp:77] Creating layer pool1
I0403 13:53:27.299698 28815 net.cpp:91] Creating Layer pool1
I0403 13:53:27.299717 28815 net.cpp:425] pool1 <- norm1
I0403 13:53:27.299738 28815 net.cpp:399] pool1 -> pool1
I0403 13:53:27.299810 28815 net.cpp:141] Setting up pool1
I0403 13:53:27.299835 28815 net.cpp:148] Top shape: 100 96 27 27 (6998400)
I0403 13:53:27.299851 28815 net.cpp:156] Memory required for data: 438310000
I0403 13:53:27.299868 28815 layer_factory.hpp:77] Creating layer conv2
I0403 13:53:27.299896 28815 net.cpp:91] Creating Layer conv2
I0403 13:53:27.299913 28815 net.cpp:425] conv2 <- pool1
I0403 13:53:27.299934 28815 net.cpp:399] conv2 -> conv2
I0403 13:53:27.315656 28815 net.cpp:141] Setting up conv2
I0403 13:53:27.315709 28815 net.cpp:148] Top shape: 100 256 27 27 (18662400)
I0403 13:53:27.315727 28815 net.cpp:156] Memory required for data: 512959600
I0403 13:53:27.315750 28815 layer_factory.hpp:77] Creating layer relu2
I0403 13:53:27.315771 28815 net.cpp:91] Creating Layer relu2
I0403 13:53:27.315788 28815 net.cpp:425] relu2 <- conv2
I0403 13:53:27.315806 28815 net.cpp:386] relu2 -> conv2 (in-place)
I0403 13:53:27.316095 28815 net.cpp:141] Setting up relu2
I0403 13:53:27.316123 28815 net.cpp:148] Top shape: 100 256 27 27 (18662400)
I0403 13:53:27.316139 28815 net.cpp:156] Memory required for data: 587609200
I0403 13:53:27.316155 28815 layer_factory.hpp:77] Creating layer norm2
I0403 13:53:27.316179 28815 net.cpp:91] Creating Layer norm2
I0403 13:53:27.316197 28815 net.cpp:425] norm2 <- conv2
I0403 13:53:27.316217 28815 net.cpp:399] norm2 -> norm2
I0403 13:53:27.316423 28815 net.cpp:141] Setting up norm2
I0403 13:53:27.316452 28815 net.cpp:148] Top shape: 100 256 27 27 (18662400)
I0403 13:53:27.316469 28815 net.cpp:156] Memory required for data: 662258800
I0403 13:53:27.316485 28815 layer_factory.hpp:77] Creating layer pool2
I0403 13:53:27.316504 28815 net.cpp:91] Creating Layer pool2
I0403 13:53:27.316521 28815 net.cpp:425] pool2 <- norm2
I0403 13:53:27.316539 28815 net.cpp:399] pool2 -> pool2
I0403 13:53:27.316622 28815 net.cpp:141] Setting up pool2
I0403 13:53:27.316649 28815 net.cpp:148] Top shape: 100 256 13 13 (4326400)
I0403 13:53:27.316664 28815 net.cpp:156] Memory required for data: 679564400
I0403 13:53:27.316680 28815 layer_factory.hpp:77] Creating layer conv3
I0403 13:53:27.316704 28815 net.cpp:91] Creating Layer conv3
I0403 13:53:27.316722 28815 net.cpp:425] conv3 <- pool2
I0403 13:53:27.316745 28815 net.cpp:399] conv3 -> conv3
I0403 13:53:27.356884 28815 net.cpp:141] Setting up conv3
I0403 13:53:27.356956 28815 net.cpp:148] Top shape: 100 384 13 13 (6489600)
I0403 13:53:27.356974 28815 net.cpp:156] Memory required for data: 705522800
I0403 13:53:27.357002 28815 layer_factory.hpp:77] Creating layer relu3
I0403 13:53:27.357028 28815 net.cpp:91] Creating Layer relu3
I0403 13:53:27.357075 28815 net.cpp:425] relu3 <- conv3
I0403 13:53:27.357100 28815 net.cpp:386] relu3 -> conv3 (in-place)
I0403 13:53:27.357393 28815 net.cpp:141] Setting up relu3
I0403 13:53:27.357424 28815 net.cpp:148] Top shape: 100 384 13 13 (6489600)
I0403 13:53:27.357439 28815 net.cpp:156] Memory required for data: 731481200
I0403 13:53:27.357455 28815 layer_factory.hpp:77] Creating layer conv4
I0403 13:53:27.357481 28815 net.cpp:91] Creating Layer conv4
I0403 13:53:27.357499 28815 net.cpp:425] conv4 <- conv3
I0403 13:53:27.357518 28815 net.cpp:399] conv4 -> conv4
I0403 13:53:27.388957 28815 net.cpp:141] Setting up conv4
I0403 13:53:27.389027 28815 net.cpp:148] Top shape: 100 384 13 13 (6489600)
I0403 13:53:27.389078 28815 net.cpp:156] Memory required for data: 757439600
I0403 13:53:27.389102 28815 layer_factory.hpp:77] Creating layer relu4
I0403 13:53:27.389127 28815 net.cpp:91] Creating Layer relu4
I0403 13:53:27.389145 28815 net.cpp:425] relu4 <- conv4
I0403 13:53:27.389166 28815 net.cpp:386] relu4 -> conv4 (in-place)
I0403 13:53:27.389544 28815 net.cpp:141] Setting up relu4
I0403 13:53:27.389574 28815 net.cpp:148] Top shape: 100 384 13 13 (6489600)
I0403 13:53:27.389590 28815 net.cpp:156] Memory required for data: 783398000
I0403 13:53:27.389605 28815 layer_factory.hpp:77] Creating layer conv5
I0403 13:53:27.389633 28815 net.cpp:91] Creating Layer conv5
I0403 13:53:27.389652 28815 net.cpp:425] conv5 <- conv4
I0403 13:53:27.389675 28815 net.cpp:399] conv5 -> conv5
I0403 13:53:27.411479 28815 net.cpp:141] Setting up conv5
I0403 13:53:27.411528 28815 net.cpp:148] Top shape: 100 256 13 13 (4326400)
I0403 13:53:27.411548 28815 net.cpp:156] Memory required for data: 800703600
I0403 13:53:27.411574 28815 layer_factory.hpp:77] Creating layer relu5
I0403 13:53:27.411595 28815 net.cpp:91] Creating Layer relu5
I0403 13:53:27.411613 28815 net.cpp:425] relu5 <- conv5
I0403 13:53:27.411631 28815 net.cpp:386] relu5 -> conv5 (in-place)
I0403 13:53:27.411916 28815 net.cpp:141] Setting up relu5
I0403 13:53:27.411947 28815 net.cpp:148] Top shape: 100 256 13 13 (4326400)
I0403 13:53:27.411963 28815 net.cpp:156] Memory required for data: 818009200
I0403 13:53:27.411980 28815 layer_factory.hpp:77] Creating layer pool5
I0403 13:53:27.412003 28815 net.cpp:91] Creating Layer pool5
I0403 13:53:27.412019 28815 net.cpp:425] pool5 <- conv5
I0403 13:53:27.412040 28815 net.cpp:399] pool5 -> pool5
I0403 13:53:27.412101 28815 net.cpp:141] Setting up pool5
I0403 13:53:27.412125 28815 net.cpp:148] Top shape: 100 256 6 6 (921600)
I0403 13:53:27.412140 28815 net.cpp:156] Memory required for data: 821695600
I0403 13:53:27.412156 28815 layer_factory.hpp:77] Creating layer fc6
I0403 13:53:27.412185 28815 net.cpp:91] Creating Layer fc6
I0403 13:53:27.412204 28815 net.cpp:425] fc6 <- pool5
I0403 13:53:27.412226 28815 net.cpp:399] fc6 -> fc6
I0403 13:53:29.007841 28815 net.cpp:141] Setting up fc6
I0403 13:53:29.007917 28815 net.cpp:148] Top shape: 100 4096 (409600)
I0403 13:53:29.007935 28815 net.cpp:156] Memory required for data: 823334000
I0403 13:53:29.007957 28815 layer_factory.hpp:77] Creating layer relu6
I0403 13:53:29.007984 28815 net.cpp:91] Creating Layer relu6
I0403 13:53:29.008004 28815 net.cpp:425] relu6 <- fc6
I0403 13:53:29.008026 28815 net.cpp:386] relu6 -> fc6 (in-place)
I0403 13:53:29.008266 28815 net.cpp:141] Setting up relu6
I0403 13:53:29.008296 28815 net.cpp:148] Top shape: 100 4096 (409600)
I0403 13:53:29.008312 28815 net.cpp:156] Memory required for data: 824972400
I0403 13:53:29.008335 28815 layer_factory.hpp:77] Creating layer drop6
I0403 13:53:29.008357 28815 net.cpp:91] Creating Layer drop6
I0403 13:53:29.008373 28815 net.cpp:425] drop6 <- fc6
I0403 13:53:29.008391 28815 net.cpp:386] drop6 -> fc6 (in-place)
I0403 13:53:29.008447 28815 net.cpp:141] Setting up drop6
I0403 13:53:29.008472 28815 net.cpp:148] Top shape: 100 4096 (409600)
I0403 13:53:29.008488 28815 net.cpp:156] Memory required for data: 826610800
I0403 13:53:29.008504 28815 layer_factory.hpp:77] Creating layer fc7
I0403 13:53:29.008528 28815 net.cpp:91] Creating Layer fc7
I0403 13:53:29.008544 28815 net.cpp:425] fc7 <- fc6
I0403 13:53:29.008563 28815 net.cpp:399] fc7 -> fc7
I0403 13:53:29.719696 28815 net.cpp:141] Setting up fc7
I0403 13:53:29.719774 28815 net.cpp:148] Top shape: 100 4096 (409600)
I0403 13:53:29.719791 28815 net.cpp:156] Memory required for data: 828249200
I0403 13:53:29.719812 28815 layer_factory.hpp:77] Creating layer relu7
I0403 13:53:29.719838 28815 net.cpp:91] Creating Layer relu7
I0403 13:53:29.719856 28815 net.cpp:425] relu7 <- fc7
I0403 13:53:29.719877 28815 net.cpp:386] relu7 -> fc7 (in-place)
I0403 13:53:29.720290 28815 net.cpp:141] Setting up relu7
I0403 13:53:29.720322 28815 net.cpp:148] Top shape: 100 4096 (409600)
I0403 13:53:29.720372 28815 net.cpp:156] Memory required for data: 829887600
I0403 13:53:29.720388 28815 layer_factory.hpp:77] Creating layer drop7
I0403 13:53:29.720412 28815 net.cpp:91] Creating Layer drop7
I0403 13:53:29.720427 28815 net.cpp:425] drop7 <- fc7
I0403 13:53:29.720445 28815 net.cpp:386] drop7 -> fc7 (in-place)
I0403 13:53:29.720490 28815 net.cpp:141] Setting up drop7
I0403 13:53:29.720515 28815 net.cpp:148] Top shape: 100 4096 (409600)
I0403 13:53:29.720530 28815 net.cpp:156] Memory required for data: 831526000
I0403 13:53:29.720544 28815 layer_factory.hpp:77] Creating layer fc8_plantvillage
I0403 13:53:29.720566 28815 net.cpp:91] Creating Layer fc8_plantvillage
I0403 13:53:29.720582 28815 net.cpp:425] fc8_plantvillage <- fc7
I0403 13:53:29.720600 28815 net.cpp:399] fc8_plantvillage -> fc8_plantvillage
I0403 13:53:29.727326 28815 net.cpp:141] Setting up fc8_plantvillage
I0403 13:53:29.727355 28815 net.cpp:148] Top shape: 100 38 (3800)
I0403 13:53:29.727370 28815 net.cpp:156] Memory required for data: 831541200
I0403 13:53:29.727391 28815 layer_factory.hpp:77] Creating layer fc8_plantvillage_fc8_plantvillage_0_split
I0403 13:53:29.727408 28815 net.cpp:91] Creating Layer fc8_plantvillage_fc8_plantvillage_0_split
I0403 13:53:29.727424 28815 net.cpp:425] fc8_plantvillage_fc8_plantvillage_0_split <- fc8_plantvillage
I0403 13:53:29.727442 28815 net.cpp:399] fc8_plantvillage_fc8_plantvillage_0_split -> fc8_plantvillage_fc8_plantvillage_0_split_0
I0403 13:53:29.727465 28815 net.cpp:399] fc8_plantvillage_fc8_plantvillage_0_split -> fc8_plantvillage_fc8_plantvillage_0_split_1
I0403 13:53:29.727486 28815 net.cpp:399] fc8_plantvillage_fc8_plantvillage_0_split -> fc8_plantvillage_fc8_plantvillage_0_split_2
I0403 13:53:29.727561 28815 net.cpp:141] Setting up fc8_plantvillage_fc8_plantvillage_0_split
I0403 13:53:29.727586 28815 net.cpp:148] Top shape: 100 38 (3800)
I0403 13:53:29.727602 28815 net.cpp:148] Top shape: 100 38 (3800)
I0403 13:53:29.727618 28815 net.cpp:148] Top shape: 100 38 (3800)
I0403 13:53:29.727632 28815 net.cpp:156] Memory required for data: 831586800
I0403 13:53:29.727646 28815 layer_factory.hpp:77] Creating layer prob
I0403 13:53:29.727664 28815 net.cpp:91] Creating Layer prob
I0403 13:53:29.727679 28815 net.cpp:425] prob <- fc8_plantvillage_fc8_plantvillage_0_split_0
I0403 13:53:29.727699 28815 net.cpp:399] prob -> prob
I0403 13:53:29.727921 28815 net.cpp:141] Setting up prob
I0403 13:53:29.727946 28815 net.cpp:148] Top shape: 100 38 (3800)
I0403 13:53:29.727962 28815 net.cpp:156] Memory required for data: 831602000
I0403 13:53:29.727977 28815 layer_factory.hpp:77] Creating layer hdf5out
I0403 13:53:29.727999 28815 net.cpp:91] Creating Layer hdf5out
I0403 13:53:29.728015 28815 net.cpp:425] hdf5out <- prob
I0403 13:53:29.728031 28815 net.cpp:425] hdf5out <- label_data_1_split_0
I0403 13:53:29.747810 28815 net.cpp:141] Setting up hdf5out
…
