…
I0403 13:36:10.396497 28412 net.cpp:313] The NetState phase (1) differed from the phase (0) specified by a rule in layer data
I0403 13:36:10.396792 28412 net.cpp:49] Initializing net from parameters: 
state {
  phase: TEST
}
layer {
  name: "data"
  type: "Data"
  top: "data"
  top: "label"
  include {
    phase: TEST
  }
  transform_param {
    crop_size: 227
    mean_file: "/home/mohanty/data/final_dataset/lmdb/grayscale-20-80/mean.binaryproto"
  }
  data_param {
    source: "/home/mohanty/data/final_dataset/lmdb/grayscale-20-80/test_db"
    batch_size: 100
    backend: LMDB
  }
}
layer {
  name: "conv1"
  type: "Convolution"
  bottom: "data"
  top: "conv1"
  param {
    lr_mult: 1
    decay_mult: 1
  }
  param {
    lr_mult: 2
    decay_mult: 0
  }
  convolution_param {
    num_output: 96
    kernel_size: 11
    stride: 4
    weight_filler {
      type: "gaussian"
      std: 0.01
    }
    bias_filler {
      type: "constant"
      value: 0
    }
  }
}
layer {
  name: "relu1"
  type: "ReLU"
  bottom: "conv1"
  top: "conv1"
}
layer {
  name: "norm1"
  type: "LRN"
  bottom: "conv1"
  top: "norm1"
  lrn_param {
    local_size: 5
    alpha: 0.0001
    beta: 0.75
  }
}
layer {
  name: "pool1"
  type: "Pooling"
  bottom: "norm1"
  top: "pool1"
  pooling_param {
    pool: MAX
    kernel_size: 3
    stride: 2
  }
}
layer {
  name: "conv2"
  type: "Convolution"
  bottom: "pool1"
  top: "conv2"
  param {
    lr_mult: 1
    decay_mult: 1
  }
  param {
    lr_mult: 2
    decay_mult: 0
  }
  convolution_param {
    num_output: 256
    pad: 2
    kernel_size: 5
    group: 2
    weight_filler {
      type: "gaussian"
      std: 0.01
    }
    bias_filler {
      type: "constant"
      value: 0.1
    }
  }
}
layer {
  name: "relu2"
  type: "ReLU"
  bottom: "conv2"
  top: "conv2"
}
layer {
  name: "norm2"
  type: "LRN"
  bottom: "conv2"
  top: "norm2"
  lrn_param {
    local_size: 5
    alpha: 0.0001
    beta: 0.75
  }
}
layer {
  name: "pool2"
  type: "Pooling"
  bottom: "norm2"
  top: "pool2"
  pooling_param {
    pool: MAX
    kernel_size: 3
    stride: 2
  }
}
layer {
  name: "conv3"
  type: "Convolution"
  bottom: "pool2"
  top: "conv3"
  param {
    lr_mult: 1
    decay_mult: 1
  }
  param {
    lr_mult: 2
    decay_mult: 0
  }
  convolution_param {
    num_output: 384
    pad: 1
    kernel_size: 3
    weight_filler {
      type: "gaussian"
      std: 0.01
    }
    bias_filler {
      type: "constant"
      value: 0
    }
  }
}
layer {
  name: "relu3"
  type: "ReLU"
  bottom: "conv3"
  top: "conv3"
}
layer {
  name: "conv4"
  type: "Convolution"
  bottom: "conv3"
  top: "conv4"
  param {
    lr_mult: 1
    decay_mult: 1
  }
  param {
    lr_mult: 2
    decay_mult: 0
  }
  convolution_param {
    num_output: 384
    pad: 1
    kernel_size: 3
    group: 2
    weight_filler {
      type: "gaussian"
      std: 0.01
    }
    bias_filler {
      type: "constant"
      value: 0.1
    }
  }
}
layer {
  name: "relu4"
  type: "ReLU"
  bottom: "conv4"
  top: "conv4"
}
layer {
  name: "conv5"
  type: "Convolution"
  bottom: "conv4"
  top: "conv5"
  param {
    lr_mult: 1
    decay_mult: 1
  }
  param {
    lr_mult: 2
    decay_mult: 0
  }
  convolution_param {
    num_output: 256
    pad: 1
    kernel_size: 3
    group: 2
    weight_filler {
      type: "gaussian"
      std: 0.01
    }
    bias_filler {
      type: "constant"
      value: 0.1
    }
  }
}
layer {
  name: "relu5"
  type: "ReLU"
  bottom: "conv5"
  top: "conv5"
}
layer {
  name: "pool5"
  type: "Pooling"
  bottom: "conv5"
  top: "pool5"
  pooling_param {
    pool: MAX
    kernel_size: 3
    stride: 2
  }
}
layer {
  name: "fc6"
  type: "InnerProduct"
  bottom: "pool5"
  top: "fc6"
  param {
    lr_mult: 1
    decay_mult: 1
  }
  param {
    lr_mult: 2
    decay_mult: 0
  }
  inner_product_param {
    num_output: 4096
    weight_filler {
      type: "gaussian"
      std: 0.005
    }
    bias_filler {
      type: "constant"
      value: 0.1
    }
  }
}
layer {
  name: "relu6"
  type: "ReLU"
  bottom: "fc6"
  top: "fc6"
}
layer {
  name: "drop6"
  type: "Dropout"
  bottom: "fc6"
  top: "fc6"
  dropout_param {
    dropout_ratio: 0.5
  }
}
layer {
  name: "fc7"
  type: "InnerProduct"
  bottom: "fc6"
  top: "fc7"
  param {
    lr_mult: 1
    decay_mult: 1
  }
  param {
    lr_mult: 2
    decay_mult: 0
  }
  inner_product_param {
    num_output: 4096
    weight_filler {
      type: "gaussian"
      std: 0.005
    }
    bias_filler {
      type: "constant"
      value: 0.1
    }
  }
}
layer {
  name: "relu7"
  type: "ReLU"
  bottom: "fc7"
  top: "fc7"
}
layer {
  name: "drop7"
  type: "Dropout"
  bottom: "fc7"
  top: "fc7"
  dropout_param {
    dropout_ratio: 0.5
  }
}
layer {
  name: "fc8_plantvillage"
  type: "InnerProduct"
  bottom: "fc7"
  top: "fc8_plantvillage"
  param {
    lr_mult: 1
    decay_mult: 1
  }
  param {
    lr_mult: 2
    decay_mult: 0
  }
  inner_product_param {
    num_output: 38
    weight_filler {
      type: "gaussian"
      std: 0.01
    }
    bias_filler {
      type: "constant"
      value: 0
    }
  }
}
layer {
  name: "prob"
  type: "Softmax"
  bottom: "fc8_plantvillage"
  top: "prob"
  include {
    phase: TEST
  }
}
layer {
  name: "hdf5out"
  type: "HDF5Output"
  bottom: "prob"
  bottom: "label"
  include {
    phase: TEST
  }
  hdf5_output_param {
    file_name: "hdf5_dumps/iter_1050.h5"
  }
}
layer {
  name: "loss"
  type: "SoftmaxWithLoss"
  bottom: "fc8_plantvillage"
  bottom: "label"
  top: "loss"
}
layer {
  name: "accuracy"
  type: "Accuracy"
  bottom: "fc8_plantvillage"
  bottom: "label"
  top: "accuracy"
  include {
    phase: TEST
  }
}
I0403 13:36:10.397393 28412 layer_factory.hpp:77] Creating layer data
I0403 13:36:10.398071 28412 net.cpp:91] Creating Layer data
I0403 13:36:10.398102 28412 net.cpp:399] data -> data
I0403 13:36:10.398154 28412 net.cpp:399] data -> label
I0403 13:36:10.398193 28412 data_transformer.cpp:25] Loading mean file from: /home/mohanty/data/final_dataset/lmdb/grayscale-20-80/mean.binaryproto
I0403 13:36:10.401154 28415 db_lmdb.cpp:38] Opened lmdb /home/mohanty/data/final_dataset/lmdb/grayscale-20-80/test_db
I0403 13:36:10.412479 28412 data_layer.cpp:41] output data size: 100,3,227,227
I0403 13:36:10.536623 28412 net.cpp:141] Setting up data
I0403 13:36:10.536727 28412 net.cpp:148] Top shape: 100 3 227 227 (15458700)
I0403 13:36:10.536752 28412 net.cpp:148] Top shape: 100 (100)
I0403 13:36:10.536769 28412 net.cpp:156] Memory required for data: 61835200
I0403 13:36:10.536798 28412 layer_factory.hpp:77] Creating layer label_data_1_split
I0403 13:36:10.536824 28412 net.cpp:91] Creating Layer label_data_1_split
I0403 13:36:10.536844 28412 net.cpp:425] label_data_1_split <- label
I0403 13:36:10.536875 28412 net.cpp:399] label_data_1_split -> label_data_1_split_0
I0403 13:36:10.536905 28412 net.cpp:399] label_data_1_split -> label_data_1_split_1
I0403 13:36:10.536936 28412 net.cpp:399] label_data_1_split -> label_data_1_split_2
I0403 13:36:10.537003 28412 net.cpp:141] Setting up label_data_1_split
I0403 13:36:10.537027 28412 net.cpp:148] Top shape: 100 (100)
I0403 13:36:10.537045 28412 net.cpp:148] Top shape: 100 (100)
I0403 13:36:10.537061 28412 net.cpp:148] Top shape: 100 (100)
I0403 13:36:10.537075 28412 net.cpp:156] Memory required for data: 61836400
I0403 13:36:10.537092 28412 layer_factory.hpp:77] Creating layer conv1
I0403 13:36:10.537124 28412 net.cpp:91] Creating Layer conv1
I0403 13:36:10.537144 28412 net.cpp:425] conv1 <- data
I0403 13:36:10.537164 28412 net.cpp:399] conv1 -> conv1
I0403 13:36:10.684016 28412 net.cpp:141] Setting up conv1
I0403 13:36:10.684097 28412 net.cpp:148] Top shape: 100 96 55 55 (29040000)
I0403 13:36:10.684116 28412 net.cpp:156] Memory required for data: 177996400
I0403 13:36:10.684150 28412 layer_factory.hpp:77] Creating layer relu1
I0403 13:36:10.684181 28412 net.cpp:91] Creating Layer relu1
I0403 13:36:10.684202 28412 net.cpp:425] relu1 <- conv1
I0403 13:36:10.684221 28412 net.cpp:386] relu1 -> conv1 (in-place)
I0403 13:36:10.684550 28412 net.cpp:141] Setting up relu1
I0403 13:36:10.684578 28412 net.cpp:148] Top shape: 100 96 55 55 (29040000)
I0403 13:36:10.684628 28412 net.cpp:156] Memory required for data: 294156400
I0403 13:36:10.684645 28412 layer_factory.hpp:77] Creating layer norm1
I0403 13:36:10.684675 28412 net.cpp:91] Creating Layer norm1
I0403 13:36:10.684695 28412 net.cpp:425] norm1 <- conv1
I0403 13:36:10.684713 28412 net.cpp:399] norm1 -> norm1
I0403 13:36:10.685039 28412 net.cpp:141] Setting up norm1
I0403 13:36:10.685070 28412 net.cpp:148] Top shape: 100 96 55 55 (29040000)
I0403 13:36:10.685086 28412 net.cpp:156] Memory required for data: 410316400
I0403 13:36:10.685102 28412 layer_factory.hpp:77] Creating layer pool1
I0403 13:36:10.685125 28412 net.cpp:91] Creating Layer pool1
I0403 13:36:10.685144 28412 net.cpp:425] pool1 <- norm1
I0403 13:36:10.685163 28412 net.cpp:399] pool1 -> pool1
I0403 13:36:10.685233 28412 net.cpp:141] Setting up pool1
I0403 13:36:10.685261 28412 net.cpp:148] Top shape: 100 96 27 27 (6998400)
I0403 13:36:10.685276 28412 net.cpp:156] Memory required for data: 438310000
I0403 13:36:10.685293 28412 layer_factory.hpp:77] Creating layer conv2
I0403 13:36:10.685318 28412 net.cpp:91] Creating Layer conv2
I0403 13:36:10.685350 28412 net.cpp:425] conv2 <- pool1
I0403 13:36:10.685372 28412 net.cpp:399] conv2 -> conv2
I0403 13:36:10.701084 28412 net.cpp:141] Setting up conv2
I0403 13:36:10.701133 28412 net.cpp:148] Top shape: 100 256 27 27 (18662400)
I0403 13:36:10.701150 28412 net.cpp:156] Memory required for data: 512959600
I0403 13:36:10.701174 28412 layer_factory.hpp:77] Creating layer relu2
I0403 13:36:10.701197 28412 net.cpp:91] Creating Layer relu2
I0403 13:36:10.701217 28412 net.cpp:425] relu2 <- conv2
I0403 13:36:10.701237 28412 net.cpp:386] relu2 -> conv2 (in-place)
I0403 13:36:10.701531 28412 net.cpp:141] Setting up relu2
I0403 13:36:10.701561 28412 net.cpp:148] Top shape: 100 256 27 27 (18662400)
I0403 13:36:10.701577 28412 net.cpp:156] Memory required for data: 587609200
I0403 13:36:10.701594 28412 layer_factory.hpp:77] Creating layer norm2
I0403 13:36:10.701619 28412 net.cpp:91] Creating Layer norm2
I0403 13:36:10.701637 28412 net.cpp:425] norm2 <- conv2
I0403 13:36:10.701659 28412 net.cpp:399] norm2 -> norm2
I0403 13:36:10.701869 28412 net.cpp:141] Setting up norm2
I0403 13:36:10.701897 28412 net.cpp:148] Top shape: 100 256 27 27 (18662400)
I0403 13:36:10.701915 28412 net.cpp:156] Memory required for data: 662258800
I0403 13:36:10.701930 28412 layer_factory.hpp:77] Creating layer pool2
I0403 13:36:10.701953 28412 net.cpp:91] Creating Layer pool2
I0403 13:36:10.701970 28412 net.cpp:425] pool2 <- norm2
I0403 13:36:10.701989 28412 net.cpp:399] pool2 -> pool2
I0403 13:36:10.702075 28412 net.cpp:141] Setting up pool2
I0403 13:36:10.702105 28412 net.cpp:148] Top shape: 100 256 13 13 (4326400)
I0403 13:36:10.702121 28412 net.cpp:156] Memory required for data: 679564400
I0403 13:36:10.702136 28412 layer_factory.hpp:77] Creating layer conv3
I0403 13:36:10.702162 28412 net.cpp:91] Creating Layer conv3
I0403 13:36:10.702181 28412 net.cpp:425] conv3 <- pool2
I0403 13:36:10.702204 28412 net.cpp:399] conv3 -> conv3
I0403 13:36:10.742306 28412 net.cpp:141] Setting up conv3
I0403 13:36:10.742394 28412 net.cpp:148] Top shape: 100 384 13 13 (6489600)
I0403 13:36:10.742413 28412 net.cpp:156] Memory required for data: 705522800
I0403 13:36:10.742439 28412 layer_factory.hpp:77] Creating layer relu3
I0403 13:36:10.742465 28412 net.cpp:91] Creating Layer relu3
I0403 13:36:10.742486 28412 net.cpp:425] relu3 <- conv3
I0403 13:36:10.742506 28412 net.cpp:386] relu3 -> conv3 (in-place)
I0403 13:36:10.742806 28412 net.cpp:141] Setting up relu3
I0403 13:36:10.742836 28412 net.cpp:148] Top shape: 100 384 13 13 (6489600)
I0403 13:36:10.742853 28412 net.cpp:156] Memory required for data: 731481200
I0403 13:36:10.742869 28412 layer_factory.hpp:77] Creating layer conv4
I0403 13:36:10.742897 28412 net.cpp:91] Creating Layer conv4
I0403 13:36:10.742916 28412 net.cpp:425] conv4 <- conv3
I0403 13:36:10.742938 28412 net.cpp:399] conv4 -> conv4
I0403 13:36:10.774286 28412 net.cpp:141] Setting up conv4
I0403 13:36:10.774350 28412 net.cpp:148] Top shape: 100 384 13 13 (6489600)
I0403 13:36:10.774400 28412 net.cpp:156] Memory required for data: 757439600
I0403 13:36:10.774425 28412 layer_factory.hpp:77] Creating layer relu4
I0403 13:36:10.774447 28412 net.cpp:91] Creating Layer relu4
I0403 13:36:10.774467 28412 net.cpp:425] relu4 <- conv4
I0403 13:36:10.774490 28412 net.cpp:386] relu4 -> conv4 (in-place)
I0403 13:36:10.774859 28412 net.cpp:141] Setting up relu4
I0403 13:36:10.774888 28412 net.cpp:148] Top shape: 100 384 13 13 (6489600)
I0403 13:36:10.774905 28412 net.cpp:156] Memory required for data: 783398000
I0403 13:36:10.774922 28412 layer_factory.hpp:77] Creating layer conv5
I0403 13:36:10.774948 28412 net.cpp:91] Creating Layer conv5
I0403 13:36:10.774967 28412 net.cpp:425] conv5 <- conv4
I0403 13:36:10.774991 28412 net.cpp:399] conv5 -> conv5
I0403 13:36:10.796484 28412 net.cpp:141] Setting up conv5
I0403 13:36:10.796540 28412 net.cpp:148] Top shape: 100 256 13 13 (4326400)
I0403 13:36:10.796558 28412 net.cpp:156] Memory required for data: 800703600
I0403 13:36:10.796584 28412 layer_factory.hpp:77] Creating layer relu5
I0403 13:36:10.796609 28412 net.cpp:91] Creating Layer relu5
I0403 13:36:10.796628 28412 net.cpp:425] relu5 <- conv5
I0403 13:36:10.796648 28412 net.cpp:386] relu5 -> conv5 (in-place)
I0403 13:36:10.796949 28412 net.cpp:141] Setting up relu5
I0403 13:36:10.796977 28412 net.cpp:148] Top shape: 100 256 13 13 (4326400)
I0403 13:36:10.796994 28412 net.cpp:156] Memory required for data: 818009200
I0403 13:36:10.797010 28412 layer_factory.hpp:77] Creating layer pool5
I0403 13:36:10.797036 28412 net.cpp:91] Creating Layer pool5
I0403 13:36:10.797055 28412 net.cpp:425] pool5 <- conv5
I0403 13:36:10.797075 28412 net.cpp:399] pool5 -> pool5
I0403 13:36:10.797137 28412 net.cpp:141] Setting up pool5
I0403 13:36:10.797163 28412 net.cpp:148] Top shape: 100 256 6 6 (921600)
I0403 13:36:10.797178 28412 net.cpp:156] Memory required for data: 821695600
I0403 13:36:10.797194 28412 layer_factory.hpp:77] Creating layer fc6
I0403 13:36:10.797224 28412 net.cpp:91] Creating Layer fc6
I0403 13:36:10.797243 28412 net.cpp:425] fc6 <- pool5
I0403 13:36:10.797262 28412 net.cpp:399] fc6 -> fc6
I0403 13:36:12.369529 28412 net.cpp:141] Setting up fc6
I0403 13:36:12.369608 28412 net.cpp:148] Top shape: 100 4096 (409600)
I0403 13:36:12.369626 28412 net.cpp:156] Memory required for data: 823334000
I0403 13:36:12.369647 28412 layer_factory.hpp:77] Creating layer relu6
I0403 13:36:12.369669 28412 net.cpp:91] Creating Layer relu6
I0403 13:36:12.369686 28412 net.cpp:425] relu6 <- fc6
I0403 13:36:12.369709 28412 net.cpp:386] relu6 -> fc6 (in-place)
I0403 13:36:12.369933 28412 net.cpp:141] Setting up relu6
I0403 13:36:12.369959 28412 net.cpp:148] Top shape: 100 4096 (409600)
I0403 13:36:12.369976 28412 net.cpp:156] Memory required for data: 824972400
I0403 13:36:12.369989 28412 layer_factory.hpp:77] Creating layer drop6
I0403 13:36:12.370008 28412 net.cpp:91] Creating Layer drop6
I0403 13:36:12.370028 28412 net.cpp:425] drop6 <- fc6
I0403 13:36:12.370044 28412 net.cpp:386] drop6 -> fc6 (in-place)
I0403 13:36:12.370098 28412 net.cpp:141] Setting up drop6
I0403 13:36:12.370126 28412 net.cpp:148] Top shape: 100 4096 (409600)
I0403 13:36:12.370142 28412 net.cpp:156] Memory required for data: 826610800
I0403 13:36:12.370157 28412 layer_factory.hpp:77] Creating layer fc7
I0403 13:36:12.370178 28412 net.cpp:91] Creating Layer fc7
I0403 13:36:12.370194 28412 net.cpp:425] fc7 <- fc6
I0403 13:36:12.370215 28412 net.cpp:399] fc7 -> fc7
I0403 13:36:13.087610 28412 net.cpp:141] Setting up fc7
I0403 13:36:13.087680 28412 net.cpp:148] Top shape: 100 4096 (409600)
I0403 13:36:13.087697 28412 net.cpp:156] Memory required for data: 828249200
I0403 13:36:13.087719 28412 layer_factory.hpp:77] Creating layer relu7
I0403 13:36:13.087741 28412 net.cpp:91] Creating Layer relu7
I0403 13:36:13.087759 28412 net.cpp:425] relu7 <- fc7
I0403 13:36:13.087779 28412 net.cpp:386] relu7 -> fc7 (in-place)
I0403 13:36:15.128494 28412 net.cpp:141] Setting up relu7
I0403 13:36:15.128643 28412 net.cpp:148] Top shape: 100 4096 (409600)
I0403 13:36:15.128752 28412 net.cpp:156] Memory required for data: 829887600
I0403 13:36:15.128799 28412 layer_factory.hpp:77] Creating layer drop7
I0403 13:36:15.128852 28412 net.cpp:91] Creating Layer drop7
I0403 13:36:15.128895 28412 net.cpp:425] drop7 <- fc7
I0403 13:36:15.128949 28412 net.cpp:386] drop7 -> fc7 (in-place)
I0403 13:36:15.129086 28412 net.cpp:141] Setting up drop7
I0403 13:36:15.129153 28412 net.cpp:148] Top shape: 100 4096 (409600)
I0403 13:36:15.129194 28412 net.cpp:156] Memory required for data: 831526000
I0403 13:36:15.129231 28412 layer_factory.hpp:77] Creating layer fc8_plantvillage
I0403 13:36:15.129281 28412 net.cpp:91] Creating Layer fc8_plantvillage
I0403 13:36:15.129320 28412 net.cpp:425] fc8_plantvillage <- fc7
I0403 13:36:15.129390 28412 net.cpp:399] fc8_plantvillage -> fc8_plantvillage
I0403 13:36:15.146586 28412 net.cpp:141] Setting up fc8_plantvillage
I0403 13:36:15.146621 28412 net.cpp:148] Top shape: 100 38 (3800)
I0403 13:36:15.146638 28412 net.cpp:156] Memory required for data: 831541200
I0403 13:36:15.146659 28412 layer_factory.hpp:77] Creating layer fc8_plantvillage_fc8_plantvillage_0_split
I0403 13:36:15.146682 28412 net.cpp:91] Creating Layer fc8_plantvillage_fc8_plantvillage_0_split
I0403 13:36:15.146698 28412 net.cpp:425] fc8_plantvillage_fc8_plantvillage_0_split <- fc8_plantvillage
I0403 13:36:15.146716 28412 net.cpp:399] fc8_plantvillage_fc8_plantvillage_0_split -> fc8_plantvillage_fc8_plantvillage_0_split_0
I0403 13:36:15.146738 28412 net.cpp:399] fc8_plantvillage_fc8_plantvillage_0_split -> fc8_plantvillage_fc8_plantvillage_0_split_1
I0403 13:36:15.146757 28412 net.cpp:399] fc8_plantvillage_fc8_plantvillage_0_split -> fc8_plantvillage_fc8_plantvillage_0_split_2
I0403 13:36:15.146832 28412 net.cpp:141] Setting up fc8_plantvillage_fc8_plantvillage_0_split
I0403 13:36:15.146857 28412 net.cpp:148] Top shape: 100 38 (3800)
I0403 13:36:15.146873 28412 net.cpp:148] Top shape: 100 38 (3800)
I0403 13:36:15.146889 28412 net.cpp:148] Top shape: 100 38 (3800)
I0403 13:36:15.146903 28412 net.cpp:156] Memory required for data: 831586800
I0403 13:36:15.146919 28412 layer_factory.hpp:77] Creating layer prob
I0403 13:36:15.146936 28412 net.cpp:91] Creating Layer prob
I0403 13:36:15.146951 28412 net.cpp:425] prob <- fc8_plantvillage_fc8_plantvillage_0_split_0
I0403 13:36:15.146968 28412 net.cpp:399] prob -> prob
I0403 13:36:15.147197 28412 net.cpp:141] Setting up prob
I0403 13:36:15.147223 28412 net.cpp:148] Top shape: 100 38 (3800)
I0403 13:36:15.147238 28412 net.cpp:156] Memory required for data: 831602000
I0403 13:36:15.147253 28412 layer_factory.hpp:77] Creating layer hdf5out
I0403 13:36:15.147271 28412 net.cpp:91] Creating Layer hdf5out
I0403 13:36:15.147286 28412 net.cpp:425] hdf5out <- prob
I0403 13:36:15.147302 28412 net.cpp:425] hdf5out <- label_data_1_split_0
I0403 13:36:15.155117 28412 net.cpp:141] Setting up hdf5out
…
