…
I0403 13:59:15.386682 28952 net.cpp:313] The NetState phase (1) differed from the phase (0) specified by a rule in layer data
I0403 13:59:15.387002 28952 net.cpp:49] Initializing net from parameters: 
state {
  phase: TEST
}
layer {
  name: "data"
  type: "Data"
  top: "data"
  top: "label"
  include {
    phase: TEST
  }
  transform_param {
    crop_size: 227
    mean_file: "/home/mohanty/data/final_dataset/lmdb/grayscale-20-80/mean.binaryproto"
  }
  data_param {
    source: "/home/mohanty/data/final_dataset/lmdb/grayscale-20-80/test_db"
    batch_size: 100
    backend: LMDB
  }
}
layer {
  name: "conv1"
  type: "Convolution"
  bottom: "data"
  top: "conv1"
  param {
    lr_mult: 1
    decay_mult: 1
  }
  param {
    lr_mult: 2
    decay_mult: 0
  }
  convolution_param {
    num_output: 96
    kernel_size: 11
    stride: 4
    weight_filler {
      type: "gaussian"
      std: 0.01
    }
    bias_filler {
      type: "constant"
      value: 0
    }
  }
}
layer {
  name: "relu1"
  type: "ReLU"
  bottom: "conv1"
  top: "conv1"
}
layer {
  name: "norm1"
  type: "LRN"
  bottom: "conv1"
  top: "norm1"
  lrn_param {
    local_size: 5
    alpha: 0.0001
    beta: 0.75
  }
}
layer {
  name: "pool1"
  type: "Pooling"
  bottom: "norm1"
  top: "pool1"
  pooling_param {
    pool: MAX
    kernel_size: 3
    stride: 2
  }
}
layer {
  name: "conv2"
  type: "Convolution"
  bottom: "pool1"
  top: "conv2"
  param {
    lr_mult: 1
    decay_mult: 1
  }
  param {
    lr_mult: 2
    decay_mult: 0
  }
  convolution_param {
    num_output: 256
    pad: 2
    kernel_size: 5
    group: 2
    weight_filler {
      type: "gaussian"
      std: 0.01
    }
    bias_filler {
      type: "constant"
      value: 0.1
    }
  }
}
layer {
  name: "relu2"
  type: "ReLU"
  bottom: "conv2"
  top: "conv2"
}
layer {
  name: "norm2"
  type: "LRN"
  bottom: "conv2"
  top: "norm2"
  lrn_param {
    local_size: 5
    alpha: 0.0001
    beta: 0.75
  }
}
layer {
  name: "pool2"
  type: "Pooling"
  bottom: "norm2"
  top: "pool2"
  pooling_param {
    pool: MAX
    kernel_size: 3
    stride: 2
  }
}
layer {
  name: "conv3"
  type: "Convolution"
  bottom: "pool2"
  top: "conv3"
  param {
    lr_mult: 1
    decay_mult: 1
  }
  param {
    lr_mult: 2
    decay_mult: 0
  }
  convolution_param {
    num_output: 384
    pad: 1
    kernel_size: 3
    weight_filler {
      type: "gaussian"
      std: 0.01
    }
    bias_filler {
      type: "constant"
      value: 0
    }
  }
}
layer {
  name: "relu3"
  type: "ReLU"
  bottom: "conv3"
  top: "conv3"
}
layer {
  name: "conv4"
  type: "Convolution"
  bottom: "conv3"
  top: "conv4"
  param {
    lr_mult: 1
    decay_mult: 1
  }
  param {
    lr_mult: 2
    decay_mult: 0
  }
  convolution_param {
    num_output: 384
    pad: 1
    kernel_size: 3
    group: 2
    weight_filler {
      type: "gaussian"
      std: 0.01
    }
    bias_filler {
      type: "constant"
      value: 0.1
    }
  }
}
layer {
  name: "relu4"
  type: "ReLU"
  bottom: "conv4"
  top: "conv4"
}
layer {
  name: "conv5"
  type: "Convolution"
  bottom: "conv4"
  top: "conv5"
  param {
    lr_mult: 1
    decay_mult: 1
  }
  param {
    lr_mult: 2
    decay_mult: 0
  }
  convolution_param {
    num_output: 256
    pad: 1
    kernel_size: 3
    group: 2
    weight_filler {
      type: "gaussian"
      std: 0.01
    }
    bias_filler {
      type: "constant"
      value: 0.1
    }
  }
}
layer {
  name: "relu5"
  type: "ReLU"
  bottom: "conv5"
  top: "conv5"
}
layer {
  name: "pool5"
  type: "Pooling"
  bottom: "conv5"
  top: "pool5"
  pooling_param {
    pool: MAX
    kernel_size: 3
    stride: 2
  }
}
layer {
  name: "fc6"
  type: "InnerProduct"
  bottom: "pool5"
  top: "fc6"
  param {
    lr_mult: 1
    decay_mult: 1
  }
  param {
    lr_mult: 2
    decay_mult: 0
  }
  inner_product_param {
    num_output: 4096
    weight_filler {
      type: "gaussian"
      std: 0.005
    }
    bias_filler {
      type: "constant"
      value: 0.1
    }
  }
}
layer {
  name: "relu6"
  type: "ReLU"
  bottom: "fc6"
  top: "fc6"
}
layer {
  name: "drop6"
  type: "Dropout"
  bottom: "fc6"
  top: "fc6"
  dropout_param {
    dropout_ratio: 0.5
  }
}
layer {
  name: "fc7"
  type: "InnerProduct"
  bottom: "fc6"
  top: "fc7"
  param {
    lr_mult: 1
    decay_mult: 1
  }
  param {
    lr_mult: 2
    decay_mult: 0
  }
  inner_product_param {
    num_output: 4096
    weight_filler {
      type: "gaussian"
      std: 0.005
    }
    bias_filler {
      type: "constant"
      value: 0.1
    }
  }
}
layer {
  name: "relu7"
  type: "ReLU"
  bottom: "fc7"
  top: "fc7"
}
layer {
  name: "drop7"
  type: "Dropout"
  bottom: "fc7"
  top: "fc7"
  dropout_param {
    dropout_ratio: 0.5
  }
}
layer {
  name: "fc8_plantvillage"
  type: "InnerProduct"
  bottom: "fc7"
  top: "fc8_plantvillage"
  param {
    lr_mult: 1
    decay_mult: 1
  }
  param {
    lr_mult: 2
    decay_mult: 0
  }
  inner_product_param {
    num_output: 38
    weight_filler {
      type: "gaussian"
      std: 0.01
    }
    bias_filler {
      type: "constant"
      value: 0
    }
  }
}
layer {
  name: "prob"
  type: "Softmax"
  bottom: "fc8_plantvillage"
  top: "prob"
  include {
    phase: TEST
  }
}
layer {
  name: "hdf5out"
  type: "HDF5Output"
  bottom: "prob"
  bottom: "label"
  include {
    phase: TEST
  }
  hdf5_output_param {
    file_name: "hdf5_dumps/iter_2730.h5"
  }
}
layer {
  name: "loss"
  type: "SoftmaxWithLoss"
  bottom: "fc8_plantvillage"
  bottom: "label"
  top: "loss"
}
layer {
  name: "accuracy"
  type: "Accuracy"
  bottom: "fc8_plantvillage"
  bottom: "label"
  top: "accuracy"
  include {
    phase: TEST
  }
}
I0403 13:59:15.387614 28952 layer_factory.hpp:77] Creating layer data
I0403 13:59:15.388267 28952 net.cpp:91] Creating Layer data
I0403 13:59:15.388301 28952 net.cpp:399] data -> data
I0403 13:59:15.388358 28952 net.cpp:399] data -> label
I0403 13:59:15.388398 28952 data_transformer.cpp:25] Loading mean file from: /home/mohanty/data/final_dataset/lmdb/grayscale-20-80/mean.binaryproto
I0403 13:59:15.391170 28956 db_lmdb.cpp:38] Opened lmdb /home/mohanty/data/final_dataset/lmdb/grayscale-20-80/test_db
I0403 13:59:15.402868 28952 data_layer.cpp:41] output data size: 100,3,227,227
I0403 13:59:15.524231 28952 net.cpp:141] Setting up data
I0403 13:59:15.524292 28952 net.cpp:148] Top shape: 100 3 227 227 (15458700)
I0403 13:59:15.524317 28952 net.cpp:148] Top shape: 100 (100)
I0403 13:59:15.524334 28952 net.cpp:156] Memory required for data: 61835200
I0403 13:59:15.524365 28952 layer_factory.hpp:77] Creating layer label_data_1_split
I0403 13:59:15.524391 28952 net.cpp:91] Creating Layer label_data_1_split
I0403 13:59:15.524410 28952 net.cpp:425] label_data_1_split <- label
I0403 13:59:15.524441 28952 net.cpp:399] label_data_1_split -> label_data_1_split_0
I0403 13:59:15.524468 28952 net.cpp:399] label_data_1_split -> label_data_1_split_1
I0403 13:59:15.524490 28952 net.cpp:399] label_data_1_split -> label_data_1_split_2
I0403 13:59:15.524554 28952 net.cpp:141] Setting up label_data_1_split
I0403 13:59:15.524579 28952 net.cpp:148] Top shape: 100 (100)
I0403 13:59:15.524596 28952 net.cpp:148] Top shape: 100 (100)
I0403 13:59:15.524615 28952 net.cpp:148] Top shape: 100 (100)
I0403 13:59:15.524628 28952 net.cpp:156] Memory required for data: 61836400
I0403 13:59:15.524644 28952 layer_factory.hpp:77] Creating layer conv1
I0403 13:59:15.524677 28952 net.cpp:91] Creating Layer conv1
I0403 13:59:15.524696 28952 net.cpp:425] conv1 <- data
I0403 13:59:15.524716 28952 net.cpp:399] conv1 -> conv1
I0403 13:59:15.666831 28952 net.cpp:141] Setting up conv1
I0403 13:59:15.666908 28952 net.cpp:148] Top shape: 100 96 55 55 (29040000)
I0403 13:59:15.666926 28952 net.cpp:156] Memory required for data: 177996400
I0403 13:59:15.666960 28952 layer_factory.hpp:77] Creating layer relu1
I0403 13:59:15.666987 28952 net.cpp:91] Creating Layer relu1
I0403 13:59:15.667007 28952 net.cpp:425] relu1 <- conv1
I0403 13:59:15.667027 28952 net.cpp:386] relu1 -> conv1 (in-place)
I0403 13:59:15.667328 28952 net.cpp:141] Setting up relu1
I0403 13:59:15.667361 28952 net.cpp:148] Top shape: 100 96 55 55 (29040000)
I0403 13:59:15.667409 28952 net.cpp:156] Memory required for data: 294156400
I0403 13:59:15.667428 28952 layer_factory.hpp:77] Creating layer norm1
I0403 13:59:15.667456 28952 net.cpp:91] Creating Layer norm1
I0403 13:59:15.667477 28952 net.cpp:425] norm1 <- conv1
I0403 13:59:15.667496 28952 net.cpp:399] norm1 -> norm1
I0403 13:59:15.667819 28952 net.cpp:141] Setting up norm1
I0403 13:59:15.667850 28952 net.cpp:148] Top shape: 100 96 55 55 (29040000)
I0403 13:59:15.667870 28952 net.cpp:156] Memory required for data: 410316400
I0403 13:59:15.667886 28952 layer_factory.hpp:77] Creating layer pool1
I0403 13:59:15.667911 28952 net.cpp:91] Creating Layer pool1
I0403 13:59:15.667929 28952 net.cpp:425] pool1 <- norm1
I0403 13:59:15.667948 28952 net.cpp:399] pool1 -> pool1
I0403 13:59:15.668020 28952 net.cpp:141] Setting up pool1
I0403 13:59:15.668046 28952 net.cpp:148] Top shape: 100 96 27 27 (6998400)
I0403 13:59:15.668062 28952 net.cpp:156] Memory required for data: 438310000
I0403 13:59:15.668077 28952 layer_factory.hpp:77] Creating layer conv2
I0403 13:59:15.668105 28952 net.cpp:91] Creating Layer conv2
I0403 13:59:15.668125 28952 net.cpp:425] conv2 <- pool1
I0403 13:59:15.668148 28952 net.cpp:399] conv2 -> conv2
I0403 13:59:15.683392 28952 net.cpp:141] Setting up conv2
I0403 13:59:15.683441 28952 net.cpp:148] Top shape: 100 256 27 27 (18662400)
I0403 13:59:15.683459 28952 net.cpp:156] Memory required for data: 512959600
I0403 13:59:15.683482 28952 layer_factory.hpp:77] Creating layer relu2
I0403 13:59:15.683506 28952 net.cpp:91] Creating Layer relu2
I0403 13:59:15.683526 28952 net.cpp:425] relu2 <- conv2
I0403 13:59:15.683543 28952 net.cpp:386] relu2 -> conv2 (in-place)
I0403 13:59:15.683828 28952 net.cpp:141] Setting up relu2
I0403 13:59:15.683861 28952 net.cpp:148] Top shape: 100 256 27 27 (18662400)
I0403 13:59:15.683877 28952 net.cpp:156] Memory required for data: 587609200
I0403 13:59:15.683895 28952 layer_factory.hpp:77] Creating layer norm2
I0403 13:59:15.683917 28952 net.cpp:91] Creating Layer norm2
I0403 13:59:15.683938 28952 net.cpp:425] norm2 <- conv2
I0403 13:59:15.683957 28952 net.cpp:399] norm2 -> norm2
I0403 13:59:15.684211 28952 net.cpp:141] Setting up norm2
I0403 13:59:15.684238 28952 net.cpp:148] Top shape: 100 256 27 27 (18662400)
I0403 13:59:15.684254 28952 net.cpp:156] Memory required for data: 662258800
I0403 13:59:15.684272 28952 layer_factory.hpp:77] Creating layer pool2
I0403 13:59:15.684293 28952 net.cpp:91] Creating Layer pool2
I0403 13:59:15.684310 28952 net.cpp:425] pool2 <- norm2
I0403 13:59:15.684330 28952 net.cpp:399] pool2 -> pool2
I0403 13:59:15.684391 28952 net.cpp:141] Setting up pool2
I0403 13:59:15.684417 28952 net.cpp:148] Top shape: 100 256 13 13 (4326400)
I0403 13:59:15.684432 28952 net.cpp:156] Memory required for data: 679564400
I0403 13:59:15.684448 28952 layer_factory.hpp:77] Creating layer conv3
I0403 13:59:15.684473 28952 net.cpp:91] Creating Layer conv3
I0403 13:59:15.684490 28952 net.cpp:425] conv3 <- pool2
I0403 13:59:15.684512 28952 net.cpp:399] conv3 -> conv3
I0403 13:59:15.723783 28952 net.cpp:141] Setting up conv3
I0403 13:59:15.723842 28952 net.cpp:148] Top shape: 100 384 13 13 (6489600)
I0403 13:59:15.723860 28952 net.cpp:156] Memory required for data: 705522800
I0403 13:59:15.723889 28952 layer_factory.hpp:77] Creating layer relu3
I0403 13:59:15.723912 28952 net.cpp:91] Creating Layer relu3
I0403 13:59:15.723930 28952 net.cpp:425] relu3 <- conv3
I0403 13:59:15.723950 28952 net.cpp:386] relu3 -> conv3 (in-place)
I0403 13:59:15.724231 28952 net.cpp:141] Setting up relu3
I0403 13:59:15.724261 28952 net.cpp:148] Top shape: 100 384 13 13 (6489600)
I0403 13:59:15.724278 28952 net.cpp:156] Memory required for data: 731481200
I0403 13:59:15.724295 28952 layer_factory.hpp:77] Creating layer conv4
I0403 13:59:15.724323 28952 net.cpp:91] Creating Layer conv4
I0403 13:59:15.724339 28952 net.cpp:425] conv4 <- conv3
I0403 13:59:15.724364 28952 net.cpp:399] conv4 -> conv4
I0403 13:59:15.754957 28952 net.cpp:141] Setting up conv4
I0403 13:59:15.755038 28952 net.cpp:148] Top shape: 100 384 13 13 (6489600)
I0403 13:59:15.755079 28952 net.cpp:156] Memory required for data: 757439600
I0403 13:59:15.755103 28952 layer_factory.hpp:77] Creating layer relu4
I0403 13:59:15.755127 28952 net.cpp:91] Creating Layer relu4
I0403 13:59:15.755146 28952 net.cpp:425] relu4 <- conv4
I0403 13:59:15.755167 28952 net.cpp:386] relu4 -> conv4 (in-place)
I0403 13:59:15.755470 28952 net.cpp:141] Setting up relu4
I0403 13:59:15.755497 28952 net.cpp:148] Top shape: 100 384 13 13 (6489600)
I0403 13:59:15.755513 28952 net.cpp:156] Memory required for data: 783398000
I0403 13:59:15.755529 28952 layer_factory.hpp:77] Creating layer conv5
I0403 13:59:15.755556 28952 net.cpp:91] Creating Layer conv5
I0403 13:59:15.755575 28952 net.cpp:425] conv5 <- conv4
I0403 13:59:15.755596 28952 net.cpp:399] conv5 -> conv5
I0403 13:59:15.776476 28952 net.cpp:141] Setting up conv5
I0403 13:59:15.776530 28952 net.cpp:148] Top shape: 100 256 13 13 (4326400)
I0403 13:59:15.776547 28952 net.cpp:156] Memory required for data: 800703600
I0403 13:59:15.776572 28952 layer_factory.hpp:77] Creating layer relu5
I0403 13:59:15.776597 28952 net.cpp:91] Creating Layer relu5
I0403 13:59:15.776618 28952 net.cpp:425] relu5 <- conv5
I0403 13:59:15.776638 28952 net.cpp:386] relu5 -> conv5 (in-place)
I0403 13:59:15.776913 28952 net.cpp:141] Setting up relu5
I0403 13:59:15.776940 28952 net.cpp:148] Top shape: 100 256 13 13 (4326400)
I0403 13:59:15.776957 28952 net.cpp:156] Memory required for data: 818009200
I0403 13:59:15.776973 28952 layer_factory.hpp:77] Creating layer pool5
I0403 13:59:15.777000 28952 net.cpp:91] Creating Layer pool5
I0403 13:59:15.777019 28952 net.cpp:425] pool5 <- conv5
I0403 13:59:15.777040 28952 net.cpp:399] pool5 -> pool5
I0403 13:59:15.777101 28952 net.cpp:141] Setting up pool5
I0403 13:59:15.777124 28952 net.cpp:148] Top shape: 100 256 6 6 (921600)
I0403 13:59:15.777139 28952 net.cpp:156] Memory required for data: 821695600
I0403 13:59:15.777155 28952 layer_factory.hpp:77] Creating layer fc6
I0403 13:59:15.777184 28952 net.cpp:91] Creating Layer fc6
I0403 13:59:15.777204 28952 net.cpp:425] fc6 <- pool5
I0403 13:59:15.777223 28952 net.cpp:399] fc6 -> fc6
I0403 13:59:17.370167 28952 net.cpp:141] Setting up fc6
I0403 13:59:17.370244 28952 net.cpp:148] Top shape: 100 4096 (409600)
I0403 13:59:17.370273 28952 net.cpp:156] Memory required for data: 823334000
I0403 13:59:17.370297 28952 layer_factory.hpp:77] Creating layer relu6
I0403 13:59:17.370324 28952 net.cpp:91] Creating Layer relu6
I0403 13:59:17.370349 28952 net.cpp:425] relu6 <- fc6
I0403 13:59:17.370373 28952 net.cpp:386] relu6 -> fc6 (in-place)
I0403 13:59:17.370623 28952 net.cpp:141] Setting up relu6
I0403 13:59:17.370650 28952 net.cpp:148] Top shape: 100 4096 (409600)
I0403 13:59:17.370666 28952 net.cpp:156] Memory required for data: 824972400
I0403 13:59:17.370682 28952 layer_factory.hpp:77] Creating layer drop6
I0403 13:59:17.370704 28952 net.cpp:91] Creating Layer drop6
I0403 13:59:17.370721 28952 net.cpp:425] drop6 <- fc6
I0403 13:59:17.370739 28952 net.cpp:386] drop6 -> fc6 (in-place)
I0403 13:59:17.370795 28952 net.cpp:141] Setting up drop6
I0403 13:59:17.370820 28952 net.cpp:148] Top shape: 100 4096 (409600)
I0403 13:59:17.370834 28952 net.cpp:156] Memory required for data: 826610800
I0403 13:59:17.370851 28952 layer_factory.hpp:77] Creating layer fc7
I0403 13:59:17.370872 28952 net.cpp:91] Creating Layer fc7
I0403 13:59:17.370888 28952 net.cpp:425] fc7 <- fc6
I0403 13:59:17.370909 28952 net.cpp:399] fc7 -> fc7
I0403 13:59:18.064350 28952 net.cpp:141] Setting up fc7
I0403 13:59:18.064429 28952 net.cpp:148] Top shape: 100 4096 (409600)
I0403 13:59:18.064447 28952 net.cpp:156] Memory required for data: 828249200
I0403 13:59:18.064470 28952 layer_factory.hpp:77] Creating layer relu7
I0403 13:59:18.064492 28952 net.cpp:91] Creating Layer relu7
I0403 13:59:18.064510 28952 net.cpp:425] relu7 <- fc7
I0403 13:59:18.064529 28952 net.cpp:386] relu7 -> fc7 (in-place)
I0403 13:59:18.064934 28952 net.cpp:141] Setting up relu7
I0403 13:59:18.064962 28952 net.cpp:148] Top shape: 100 4096 (409600)
I0403 13:59:18.065011 28952 net.cpp:156] Memory required for data: 829887600
I0403 13:59:18.065028 28952 layer_factory.hpp:77] Creating layer drop7
I0403 13:59:18.065050 28952 net.cpp:91] Creating Layer drop7
I0403 13:59:18.065067 28952 net.cpp:425] drop7 <- fc7
I0403 13:59:18.065084 28952 net.cpp:386] drop7 -> fc7 (in-place)
I0403 13:59:18.065129 28952 net.cpp:141] Setting up drop7
I0403 13:59:18.065153 28952 net.cpp:148] Top shape: 100 4096 (409600)
I0403 13:59:18.065170 28952 net.cpp:156] Memory required for data: 831526000
I0403 13:59:18.065184 28952 layer_factory.hpp:77] Creating layer fc8_plantvillage
I0403 13:59:18.065207 28952 net.cpp:91] Creating Layer fc8_plantvillage
I0403 13:59:18.065224 28952 net.cpp:425] fc8_plantvillage <- fc7
I0403 13:59:18.065243 28952 net.cpp:399] fc8_plantvillage -> fc8_plantvillage
I0403 13:59:18.071995 28952 net.cpp:141] Setting up fc8_plantvillage
I0403 13:59:18.072024 28952 net.cpp:148] Top shape: 100 38 (3800)
I0403 13:59:18.072039 28952 net.cpp:156] Memory required for data: 831541200
I0403 13:59:18.072058 28952 layer_factory.hpp:77] Creating layer fc8_plantvillage_fc8_plantvillage_0_split
I0403 13:59:18.072080 28952 net.cpp:91] Creating Layer fc8_plantvillage_fc8_plantvillage_0_split
I0403 13:59:18.072098 28952 net.cpp:425] fc8_plantvillage_fc8_plantvillage_0_split <- fc8_plantvillage
I0403 13:59:18.072116 28952 net.cpp:399] fc8_plantvillage_fc8_plantvillage_0_split -> fc8_plantvillage_fc8_plantvillage_0_split_0
I0403 13:59:18.072139 28952 net.cpp:399] fc8_plantvillage_fc8_plantvillage_0_split -> fc8_plantvillage_fc8_plantvillage_0_split_1
I0403 13:59:18.072160 28952 net.cpp:399] fc8_plantvillage_fc8_plantvillage_0_split -> fc8_plantvillage_fc8_plantvillage_0_split_2
I0403 13:59:18.072237 28952 net.cpp:141] Setting up fc8_plantvillage_fc8_plantvillage_0_split
I0403 13:59:18.072262 28952 net.cpp:148] Top shape: 100 38 (3800)
I0403 13:59:18.072278 28952 net.cpp:148] Top shape: 100 38 (3800)
I0403 13:59:18.072294 28952 net.cpp:148] Top shape: 100 38 (3800)
I0403 13:59:18.072309 28952 net.cpp:156] Memory required for data: 831586800
I0403 13:59:18.072324 28952 layer_factory.hpp:77] Creating layer prob
I0403 13:59:18.072350 28952 net.cpp:91] Creating Layer prob
I0403 13:59:18.072370 28952 net.cpp:425] prob <- fc8_plantvillage_fc8_plantvillage_0_split_0
I0403 13:59:18.072387 28952 net.cpp:399] prob -> prob
I0403 13:59:18.072614 28952 net.cpp:141] Setting up prob
I0403 13:59:18.072641 28952 net.cpp:148] Top shape: 100 38 (3800)
I0403 13:59:18.072656 28952 net.cpp:156] Memory required for data: 831602000
I0403 13:59:18.072672 28952 layer_factory.hpp:77] Creating layer hdf5out
I0403 13:59:18.072695 28952 net.cpp:91] Creating Layer hdf5out
I0403 13:59:18.072710 28952 net.cpp:425] hdf5out <- prob
I0403 13:59:18.072728 28952 net.cpp:425] hdf5out <- label_data_1_split_0
I0403 13:59:18.087203 28952 net.cpp:141] Setting up hdf5out
…
