…
I0403 13:39:05.019618 28484 net.cpp:313] The NetState phase (1) differed from the phase (0) specified by a rule in layer data
I0403 13:39:05.019932 28484 net.cpp:49] Initializing net from parameters: 
state {
  phase: TEST
}
layer {
  name: "data"
  type: "Data"
  top: "data"
  top: "label"
  include {
    phase: TEST
  }
  transform_param {
    crop_size: 227
    mean_file: "/home/mohanty/data/final_dataset/lmdb/grayscale-20-80/mean.binaryproto"
  }
  data_param {
    source: "/home/mohanty/data/final_dataset/lmdb/grayscale-20-80/test_db"
    batch_size: 100
    backend: LMDB
  }
}
layer {
  name: "conv1"
  type: "Convolution"
  bottom: "data"
  top: "conv1"
  param {
    lr_mult: 1
    decay_mult: 1
  }
  param {
    lr_mult: 2
    decay_mult: 0
  }
  convolution_param {
    num_output: 96
    kernel_size: 11
    stride: 4
    weight_filler {
      type: "gaussian"
      std: 0.01
    }
    bias_filler {
      type: "constant"
      value: 0
    }
  }
}
layer {
  name: "relu1"
  type: "ReLU"
  bottom: "conv1"
  top: "conv1"
}
layer {
  name: "norm1"
  type: "LRN"
  bottom: "conv1"
  top: "norm1"
  lrn_param {
    local_size: 5
    alpha: 0.0001
    beta: 0.75
  }
}
layer {
  name: "pool1"
  type: "Pooling"
  bottom: "norm1"
  top: "pool1"
  pooling_param {
    pool: MAX
    kernel_size: 3
    stride: 2
  }
}
layer {
  name: "conv2"
  type: "Convolution"
  bottom: "pool1"
  top: "conv2"
  param {
    lr_mult: 1
    decay_mult: 1
  }
  param {
    lr_mult: 2
    decay_mult: 0
  }
  convolution_param {
    num_output: 256
    pad: 2
    kernel_size: 5
    group: 2
    weight_filler {
      type: "gaussian"
      std: 0.01
    }
    bias_filler {
      type: "constant"
      value: 0.1
    }
  }
}
layer {
  name: "relu2"
  type: "ReLU"
  bottom: "conv2"
  top: "conv2"
}
layer {
  name: "norm2"
  type: "LRN"
  bottom: "conv2"
  top: "norm2"
  lrn_param {
    local_size: 5
    alpha: 0.0001
    beta: 0.75
  }
}
layer {
  name: "pool2"
  type: "Pooling"
  bottom: "norm2"
  top: "pool2"
  pooling_param {
    pool: MAX
    kernel_size: 3
    stride: 2
  }
}
layer {
  name: "conv3"
  type: "Convolution"
  bottom: "pool2"
  top: "conv3"
  param {
    lr_mult: 1
    decay_mult: 1
  }
  param {
    lr_mult: 2
    decay_mult: 0
  }
  convolution_param {
    num_output: 384
    pad: 1
    kernel_size: 3
    weight_filler {
      type: "gaussian"
      std: 0.01
    }
    bias_filler {
      type: "constant"
      value: 0
    }
  }
}
layer {
  name: "relu3"
  type: "ReLU"
  bottom: "conv3"
  top: "conv3"
}
layer {
  name: "conv4"
  type: "Convolution"
  bottom: "conv3"
  top: "conv4"
  param {
    lr_mult: 1
    decay_mult: 1
  }
  param {
    lr_mult: 2
    decay_mult: 0
  }
  convolution_param {
    num_output: 384
    pad: 1
    kernel_size: 3
    group: 2
    weight_filler {
      type: "gaussian"
      std: 0.01
    }
    bias_filler {
      type: "constant"
      value: 0.1
    }
  }
}
layer {
  name: "relu4"
  type: "ReLU"
  bottom: "conv4"
  top: "conv4"
}
layer {
  name: "conv5"
  type: "Convolution"
  bottom: "conv4"
  top: "conv5"
  param {
    lr_mult: 1
    decay_mult: 1
  }
  param {
    lr_mult: 2
    decay_mult: 0
  }
  convolution_param {
    num_output: 256
    pad: 1
    kernel_size: 3
    group: 2
    weight_filler {
      type: "gaussian"
      std: 0.01
    }
    bias_filler {
      type: "constant"
      value: 0.1
    }
  }
}
layer {
  name: "relu5"
  type: "ReLU"
  bottom: "conv5"
  top: "conv5"
}
layer {
  name: "pool5"
  type: "Pooling"
  bottom: "conv5"
  top: "pool5"
  pooling_param {
    pool: MAX
    kernel_size: 3
    stride: 2
  }
}
layer {
  name: "fc6"
  type: "InnerProduct"
  bottom: "pool5"
  top: "fc6"
  param {
    lr_mult: 1
    decay_mult: 1
  }
  param {
    lr_mult: 2
    decay_mult: 0
  }
  inner_product_param {
    num_output: 4096
    weight_filler {
      type: "gaussian"
      std: 0.005
    }
    bias_filler {
      type: "constant"
      value: 0.1
    }
  }
}
layer {
  name: "relu6"
  type: "ReLU"
  bottom: "fc6"
  top: "fc6"
}
layer {
  name: "drop6"
  type: "Dropout"
  bottom: "fc6"
  top: "fc6"
  dropout_param {
    dropout_ratio: 0.5
  }
}
layer {
  name: "fc7"
  type: "InnerProduct"
  bottom: "fc6"
  top: "fc7"
  param {
    lr_mult: 1
    decay_mult: 1
  }
  param {
    lr_mult: 2
    decay_mult: 0
  }
  inner_product_param {
    num_output: 4096
    weight_filler {
      type: "gaussian"
      std: 0.005
    }
    bias_filler {
      type: "constant"
      value: 0.1
    }
  }
}
layer {
  name: "relu7"
  type: "ReLU"
  bottom: "fc7"
  top: "fc7"
}
layer {
  name: "drop7"
  type: "Dropout"
  bottom: "fc7"
  top: "fc7"
  dropout_param {
    dropout_ratio: 0.5
  }
}
layer {
  name: "fc8_plantvillage"
  type: "InnerProduct"
  bottom: "fc7"
  top: "fc8_plantvillage"
  param {
    lr_mult: 1
    decay_mult: 1
  }
  param {
    lr_mult: 2
    decay_mult: 0
  }
  inner_product_param {
    num_output: 38
    weight_filler {
      type: "gaussian"
      std: 0.01
    }
    bias_filler {
      type: "constant"
      value: 0
    }
  }
}
layer {
  name: "prob"
  type: "Softmax"
  bottom: "fc8_plantvillage"
  top: "prob"
  include {
    phase: TEST
  }
}
layer {
  name: "hdf5out"
  type: "HDF5Output"
  bottom: "prob"
  bottom: "label"
  include {
    phase: TEST
  }
  hdf5_output_param {
    file_name: "hdf5_dumps/iter_1260.h5"
  }
}
layer {
  name: "loss"
  type: "SoftmaxWithLoss"
  bottom: "fc8_plantvillage"
  bottom: "label"
  top: "loss"
}
layer {
  name: "accuracy"
  type: "Accuracy"
  bottom: "fc8_plantvillage"
  bottom: "label"
  top: "accuracy"
  include {
    phase: TEST
  }
}
I0403 13:39:05.020505 28484 layer_factory.hpp:77] Creating layer data
I0403 13:39:05.021162 28484 net.cpp:91] Creating Layer data
I0403 13:39:05.021195 28484 net.cpp:399] data -> data
I0403 13:39:05.021250 28484 net.cpp:399] data -> label
I0403 13:39:05.021291 28484 data_transformer.cpp:25] Loading mean file from: /home/mohanty/data/final_dataset/lmdb/grayscale-20-80/mean.binaryproto
I0403 13:39:05.024121 28487 db_lmdb.cpp:38] Opened lmdb /home/mohanty/data/final_dataset/lmdb/grayscale-20-80/test_db
I0403 13:39:05.035256 28484 data_layer.cpp:41] output data size: 100,3,227,227
I0403 13:39:05.158418 28484 net.cpp:141] Setting up data
I0403 13:39:05.158483 28484 net.cpp:148] Top shape: 100 3 227 227 (15458700)
I0403 13:39:05.158509 28484 net.cpp:148] Top shape: 100 (100)
I0403 13:39:05.158526 28484 net.cpp:156] Memory required for data: 61835200
I0403 13:39:05.158556 28484 layer_factory.hpp:77] Creating layer label_data_1_split
I0403 13:39:05.158583 28484 net.cpp:91] Creating Layer label_data_1_split
I0403 13:39:05.158601 28484 net.cpp:425] label_data_1_split <- label
I0403 13:39:05.158633 28484 net.cpp:399] label_data_1_split -> label_data_1_split_0
I0403 13:39:05.158661 28484 net.cpp:399] label_data_1_split -> label_data_1_split_1
I0403 13:39:05.158684 28484 net.cpp:399] label_data_1_split -> label_data_1_split_2
I0403 13:39:05.158751 28484 net.cpp:141] Setting up label_data_1_split
I0403 13:39:05.158776 28484 net.cpp:148] Top shape: 100 (100)
I0403 13:39:05.158795 28484 net.cpp:148] Top shape: 100 (100)
I0403 13:39:05.158813 28484 net.cpp:148] Top shape: 100 (100)
I0403 13:39:05.158828 28484 net.cpp:156] Memory required for data: 61836400
I0403 13:39:05.158843 28484 layer_factory.hpp:77] Creating layer conv1
I0403 13:39:05.158877 28484 net.cpp:91] Creating Layer conv1
I0403 13:39:05.158896 28484 net.cpp:425] conv1 <- data
I0403 13:39:05.158916 28484 net.cpp:399] conv1 -> conv1
I0403 13:39:05.304464 28484 net.cpp:141] Setting up conv1
I0403 13:39:05.304543 28484 net.cpp:148] Top shape: 100 96 55 55 (29040000)
I0403 13:39:05.304561 28484 net.cpp:156] Memory required for data: 177996400
I0403 13:39:05.304594 28484 layer_factory.hpp:77] Creating layer relu1
I0403 13:39:05.304626 28484 net.cpp:91] Creating Layer relu1
I0403 13:39:05.304647 28484 net.cpp:425] relu1 <- conv1
I0403 13:39:05.304668 28484 net.cpp:386] relu1 -> conv1 (in-place)
I0403 13:39:05.304961 28484 net.cpp:141] Setting up relu1
I0403 13:39:05.304991 28484 net.cpp:148] Top shape: 100 96 55 55 (29040000)
I0403 13:39:05.305042 28484 net.cpp:156] Memory required for data: 294156400
I0403 13:39:05.305059 28484 layer_factory.hpp:77] Creating layer norm1
I0403 13:39:05.305089 28484 net.cpp:91] Creating Layer norm1
I0403 13:39:05.305109 28484 net.cpp:425] norm1 <- conv1
I0403 13:39:05.305131 28484 net.cpp:399] norm1 -> norm1
I0403 13:39:05.305502 28484 net.cpp:141] Setting up norm1
I0403 13:39:05.305533 28484 net.cpp:148] Top shape: 100 96 55 55 (29040000)
I0403 13:39:05.305551 28484 net.cpp:156] Memory required for data: 410316400
I0403 13:39:05.305567 28484 layer_factory.hpp:77] Creating layer pool1
I0403 13:39:05.305591 28484 net.cpp:91] Creating Layer pool1
I0403 13:39:05.305608 28484 net.cpp:425] pool1 <- norm1
I0403 13:39:05.305630 28484 net.cpp:399] pool1 -> pool1
I0403 13:39:05.305703 28484 net.cpp:141] Setting up pool1
I0403 13:39:05.305732 28484 net.cpp:148] Top shape: 100 96 27 27 (6998400)
I0403 13:39:05.305749 28484 net.cpp:156] Memory required for data: 438310000
I0403 13:39:05.305766 28484 layer_factory.hpp:77] Creating layer conv2
I0403 13:39:05.305794 28484 net.cpp:91] Creating Layer conv2
I0403 13:39:05.305814 28484 net.cpp:425] conv2 <- pool1
I0403 13:39:05.305833 28484 net.cpp:399] conv2 -> conv2
I0403 13:39:05.321576 28484 net.cpp:141] Setting up conv2
I0403 13:39:05.321630 28484 net.cpp:148] Top shape: 100 256 27 27 (18662400)
I0403 13:39:05.321647 28484 net.cpp:156] Memory required for data: 512959600
I0403 13:39:05.321671 28484 layer_factory.hpp:77] Creating layer relu2
I0403 13:39:05.321692 28484 net.cpp:91] Creating Layer relu2
I0403 13:39:05.321709 28484 net.cpp:425] relu2 <- conv2
I0403 13:39:05.321732 28484 net.cpp:386] relu2 -> conv2 (in-place)
I0403 13:39:05.322022 28484 net.cpp:141] Setting up relu2
I0403 13:39:05.322052 28484 net.cpp:148] Top shape: 100 256 27 27 (18662400)
I0403 13:39:05.322067 28484 net.cpp:156] Memory required for data: 587609200
I0403 13:39:05.322083 28484 layer_factory.hpp:77] Creating layer norm2
I0403 13:39:05.322108 28484 net.cpp:91] Creating Layer norm2
I0403 13:39:05.322127 28484 net.cpp:425] norm2 <- conv2
I0403 13:39:05.322146 28484 net.cpp:399] norm2 -> norm2
I0403 13:39:05.322357 28484 net.cpp:141] Setting up norm2
I0403 13:39:05.322386 28484 net.cpp:148] Top shape: 100 256 27 27 (18662400)
I0403 13:39:05.322402 28484 net.cpp:156] Memory required for data: 662258800
I0403 13:39:05.322417 28484 layer_factory.hpp:77] Creating layer pool2
I0403 13:39:05.322438 28484 net.cpp:91] Creating Layer pool2
I0403 13:39:05.322454 28484 net.cpp:425] pool2 <- norm2
I0403 13:39:05.322475 28484 net.cpp:399] pool2 -> pool2
I0403 13:39:05.322532 28484 net.cpp:141] Setting up pool2
I0403 13:39:05.322557 28484 net.cpp:148] Top shape: 100 256 13 13 (4326400)
I0403 13:39:05.322573 28484 net.cpp:156] Memory required for data: 679564400
I0403 13:39:05.322589 28484 layer_factory.hpp:77] Creating layer conv3
I0403 13:39:05.322616 28484 net.cpp:91] Creating Layer conv3
I0403 13:39:05.322634 28484 net.cpp:425] conv3 <- pool2
I0403 13:39:05.322654 28484 net.cpp:399] conv3 -> conv3
I0403 13:39:05.362550 28484 net.cpp:141] Setting up conv3
I0403 13:39:05.362624 28484 net.cpp:148] Top shape: 100 384 13 13 (6489600)
I0403 13:39:05.362644 28484 net.cpp:156] Memory required for data: 705522800
I0403 13:39:05.362673 28484 layer_factory.hpp:77] Creating layer relu3
I0403 13:39:05.362695 28484 net.cpp:91] Creating Layer relu3
I0403 13:39:05.362714 28484 net.cpp:425] relu3 <- conv3
I0403 13:39:05.362736 28484 net.cpp:386] relu3 -> conv3 (in-place)
I0403 13:39:05.363028 28484 net.cpp:141] Setting up relu3
I0403 13:39:05.363056 28484 net.cpp:148] Top shape: 100 384 13 13 (6489600)
I0403 13:39:05.363073 28484 net.cpp:156] Memory required for data: 731481200
I0403 13:39:05.363090 28484 layer_factory.hpp:77] Creating layer conv4
I0403 13:39:05.363116 28484 net.cpp:91] Creating Layer conv4
I0403 13:39:05.363136 28484 net.cpp:425] conv4 <- conv3
I0403 13:39:05.363158 28484 net.cpp:399] conv4 -> conv4
I0403 13:39:05.394261 28484 net.cpp:141] Setting up conv4
I0403 13:39:05.394335 28484 net.cpp:148] Top shape: 100 384 13 13 (6489600)
I0403 13:39:05.394397 28484 net.cpp:156] Memory required for data: 757439600
I0403 13:39:05.394423 28484 layer_factory.hpp:77] Creating layer relu4
I0403 13:39:05.394457 28484 net.cpp:91] Creating Layer relu4
I0403 13:39:05.394475 28484 net.cpp:425] relu4 <- conv4
I0403 13:39:05.394498 28484 net.cpp:386] relu4 -> conv4 (in-place)
I0403 13:39:05.394829 28484 net.cpp:141] Setting up relu4
I0403 13:39:05.394918 28484 net.cpp:148] Top shape: 100 384 13 13 (6489600)
I0403 13:39:05.394937 28484 net.cpp:156] Memory required for data: 783398000
I0403 13:39:05.394954 28484 layer_factory.hpp:77] Creating layer conv5
I0403 13:39:05.394981 28484 net.cpp:91] Creating Layer conv5
I0403 13:39:05.394999 28484 net.cpp:425] conv5 <- conv4
I0403 13:39:05.395018 28484 net.cpp:399] conv5 -> conv5
I0403 13:39:05.416286 28484 net.cpp:141] Setting up conv5
I0403 13:39:05.416335 28484 net.cpp:148] Top shape: 100 256 13 13 (4326400)
I0403 13:39:05.416359 28484 net.cpp:156] Memory required for data: 800703600
I0403 13:39:05.416386 28484 layer_factory.hpp:77] Creating layer relu5
I0403 13:39:05.416409 28484 net.cpp:91] Creating Layer relu5
I0403 13:39:05.416426 28484 net.cpp:425] relu5 <- conv5
I0403 13:39:05.416448 28484 net.cpp:386] relu5 -> conv5 (in-place)
I0403 13:39:05.416740 28484 net.cpp:141] Setting up relu5
I0403 13:39:05.416771 28484 net.cpp:148] Top shape: 100 256 13 13 (4326400)
I0403 13:39:05.416788 28484 net.cpp:156] Memory required for data: 818009200
I0403 13:39:05.416805 28484 layer_factory.hpp:77] Creating layer pool5
I0403 13:39:05.416831 28484 net.cpp:91] Creating Layer pool5
I0403 13:39:05.416851 28484 net.cpp:425] pool5 <- conv5
I0403 13:39:05.416870 28484 net.cpp:399] pool5 -> pool5
I0403 13:39:05.416934 28484 net.cpp:141] Setting up pool5
I0403 13:39:05.416960 28484 net.cpp:148] Top shape: 100 256 6 6 (921600)
I0403 13:39:05.416976 28484 net.cpp:156] Memory required for data: 821695600
I0403 13:39:05.416992 28484 layer_factory.hpp:77] Creating layer fc6
I0403 13:39:05.417021 28484 net.cpp:91] Creating Layer fc6
I0403 13:39:05.417038 28484 net.cpp:425] fc6 <- pool5
I0403 13:39:05.417060 28484 net.cpp:399] fc6 -> fc6
I0403 13:39:06.997661 28484 net.cpp:141] Setting up fc6
I0403 13:39:06.997737 28484 net.cpp:148] Top shape: 100 4096 (409600)
I0403 13:39:06.997755 28484 net.cpp:156] Memory required for data: 823334000
I0403 13:39:06.997776 28484 layer_factory.hpp:77] Creating layer relu6
I0403 13:39:06.997803 28484 net.cpp:91] Creating Layer relu6
I0403 13:39:06.997823 28484 net.cpp:425] relu6 <- fc6
I0403 13:39:06.997843 28484 net.cpp:386] relu6 -> fc6 (in-place)
I0403 13:39:06.998064 28484 net.cpp:141] Setting up relu6
I0403 13:39:06.998090 28484 net.cpp:148] Top shape: 100 4096 (409600)
I0403 13:39:06.998106 28484 net.cpp:156] Memory required for data: 824972400
I0403 13:39:06.998136 28484 layer_factory.hpp:77] Creating layer drop6
I0403 13:39:06.998154 28484 net.cpp:91] Creating Layer drop6
I0403 13:39:06.998170 28484 net.cpp:425] drop6 <- fc6
I0403 13:39:06.998193 28484 net.cpp:386] drop6 -> fc6 (in-place)
I0403 13:39:06.998247 28484 net.cpp:141] Setting up drop6
I0403 13:39:06.998275 28484 net.cpp:148] Top shape: 100 4096 (409600)
I0403 13:39:06.998291 28484 net.cpp:156] Memory required for data: 826610800
I0403 13:39:06.998306 28484 layer_factory.hpp:77] Creating layer fc7
I0403 13:39:06.998327 28484 net.cpp:91] Creating Layer fc7
I0403 13:39:06.998342 28484 net.cpp:425] fc7 <- fc6
I0403 13:39:06.998369 28484 net.cpp:399] fc7 -> fc7
I0403 13:39:07.693842 28484 net.cpp:141] Setting up fc7
I0403 13:39:07.693918 28484 net.cpp:148] Top shape: 100 4096 (409600)
I0403 13:39:07.693935 28484 net.cpp:156] Memory required for data: 828249200
I0403 13:39:07.693958 28484 layer_factory.hpp:77] Creating layer relu7
I0403 13:39:07.693979 28484 net.cpp:91] Creating Layer relu7
I0403 13:39:07.693996 28484 net.cpp:425] relu7 <- fc7
I0403 13:39:07.694018 28484 net.cpp:386] relu7 -> fc7 (in-place)
I0403 13:39:07.694427 28484 net.cpp:141] Setting up relu7
I0403 13:39:07.694458 28484 net.cpp:148] Top shape: 100 4096 (409600)
I0403 13:39:07.694532 28484 net.cpp:156] Memory required for data: 829887600
I0403 13:39:07.694550 28484 layer_factory.hpp:77] Creating layer drop7
I0403 13:39:07.694569 28484 net.cpp:91] Creating Layer drop7
I0403 13:39:07.694593 28484 net.cpp:425] drop7 <- fc7
I0403 13:39:07.694614 28484 net.cpp:386] drop7 -> fc7 (in-place)
I0403 13:39:07.694660 28484 net.cpp:141] Setting up drop7
I0403 13:39:07.694684 28484 net.cpp:148] Top shape: 100 4096 (409600)
I0403 13:39:07.694700 28484 net.cpp:156] Memory required for data: 831526000
I0403 13:39:07.694715 28484 layer_factory.hpp:77] Creating layer fc8_plantvillage
I0403 13:39:07.694738 28484 net.cpp:91] Creating Layer fc8_plantvillage
I0403 13:39:07.694756 28484 net.cpp:425] fc8_plantvillage <- fc7
I0403 13:39:07.694777 28484 net.cpp:399] fc8_plantvillage -> fc8_plantvillage
I0403 13:39:07.701685 28484 net.cpp:141] Setting up fc8_plantvillage
I0403 13:39:07.701714 28484 net.cpp:148] Top shape: 100 38 (3800)
I0403 13:39:07.701730 28484 net.cpp:156] Memory required for data: 831541200
I0403 13:39:07.701750 28484 layer_factory.hpp:77] Creating layer fc8_plantvillage_fc8_plantvillage_0_split
I0403 13:39:07.701769 28484 net.cpp:91] Creating Layer fc8_plantvillage_fc8_plantvillage_0_split
I0403 13:39:07.701783 28484 net.cpp:425] fc8_plantvillage_fc8_plantvillage_0_split <- fc8_plantvillage
I0403 13:39:07.701804 28484 net.cpp:399] fc8_plantvillage_fc8_plantvillage_0_split -> fc8_plantvillage_fc8_plantvillage_0_split_0
I0403 13:39:07.701827 28484 net.cpp:399] fc8_plantvillage_fc8_plantvillage_0_split -> fc8_plantvillage_fc8_plantvillage_0_split_1
I0403 13:39:07.701848 28484 net.cpp:399] fc8_plantvillage_fc8_plantvillage_0_split -> fc8_plantvillage_fc8_plantvillage_0_split_2
I0403 13:39:07.701937 28484 net.cpp:141] Setting up fc8_plantvillage_fc8_plantvillage_0_split
I0403 13:39:07.701961 28484 net.cpp:148] Top shape: 100 38 (3800)
I0403 13:39:07.701978 28484 net.cpp:148] Top shape: 100 38 (3800)
I0403 13:39:07.701993 28484 net.cpp:148] Top shape: 100 38 (3800)
I0403 13:39:07.702008 28484 net.cpp:156] Memory required for data: 831586800
I0403 13:39:07.702023 28484 layer_factory.hpp:77] Creating layer prob
I0403 13:39:07.702042 28484 net.cpp:91] Creating Layer prob
I0403 13:39:07.702056 28484 net.cpp:425] prob <- fc8_plantvillage_fc8_plantvillage_0_split_0
I0403 13:39:07.702077 28484 net.cpp:399] prob -> prob
I0403 13:39:07.702304 28484 net.cpp:141] Setting up prob
I0403 13:39:07.702334 28484 net.cpp:148] Top shape: 100 38 (3800)
I0403 13:39:07.702356 28484 net.cpp:156] Memory required for data: 831602000
I0403 13:39:07.702373 28484 layer_factory.hpp:77] Creating layer hdf5out
I0403 13:39:07.702394 28484 net.cpp:91] Creating Layer hdf5out
I0403 13:39:07.702409 28484 net.cpp:425] hdf5out <- prob
I0403 13:39:07.702425 28484 net.cpp:425] hdf5out <- label_data_1_split_0
I0403 13:39:07.706182 28484 net.cpp:141] Setting up hdf5out
…
