…
I0403 13:34:44.343091 28385 net.cpp:313] The NetState phase (1) differed from the phase (0) specified by a rule in layer data
I0403 13:34:44.343423 28385 net.cpp:49] Initializing net from parameters: 
state {
  phase: TEST
}
layer {
  name: "data"
  type: "Data"
  top: "data"
  top: "label"
  include {
    phase: TEST
  }
  transform_param {
    crop_size: 227
    mean_file: "/home/mohanty/data/final_dataset/lmdb/grayscale-20-80/mean.binaryproto"
  }
  data_param {
    source: "/home/mohanty/data/final_dataset/lmdb/grayscale-20-80/test_db"
    batch_size: 100
    backend: LMDB
  }
}
layer {
  name: "conv1"
  type: "Convolution"
  bottom: "data"
  top: "conv1"
  param {
    lr_mult: 1
    decay_mult: 1
  }
  param {
    lr_mult: 2
    decay_mult: 0
  }
  convolution_param {
    num_output: 96
    kernel_size: 11
    stride: 4
    weight_filler {
      type: "gaussian"
      std: 0.01
    }
    bias_filler {
      type: "constant"
      value: 0
    }
  }
}
layer {
  name: "relu1"
  type: "ReLU"
  bottom: "conv1"
  top: "conv1"
}
layer {
  name: "norm1"
  type: "LRN"
  bottom: "conv1"
  top: "norm1"
  lrn_param {
    local_size: 5
    alpha: 0.0001
    beta: 0.75
  }
}
layer {
  name: "pool1"
  type: "Pooling"
  bottom: "norm1"
  top: "pool1"
  pooling_param {
    pool: MAX
    kernel_size: 3
    stride: 2
  }
}
layer {
  name: "conv2"
  type: "Convolution"
  bottom: "pool1"
  top: "conv2"
  param {
    lr_mult: 1
    decay_mult: 1
  }
  param {
    lr_mult: 2
    decay_mult: 0
  }
  convolution_param {
    num_output: 256
    pad: 2
    kernel_size: 5
    group: 2
    weight_filler {
      type: "gaussian"
      std: 0.01
    }
    bias_filler {
      type: "constant"
      value: 0.1
    }
  }
}
layer {
  name: "relu2"
  type: "ReLU"
  bottom: "conv2"
  top: "conv2"
}
layer {
  name: "norm2"
  type: "LRN"
  bottom: "conv2"
  top: "norm2"
  lrn_param {
    local_size: 5
    alpha: 0.0001
    beta: 0.75
  }
}
layer {
  name: "pool2"
  type: "Pooling"
  bottom: "norm2"
  top: "pool2"
  pooling_param {
    pool: MAX
    kernel_size: 3
    stride: 2
  }
}
layer {
  name: "conv3"
  type: "Convolution"
  bottom: "pool2"
  top: "conv3"
  param {
    lr_mult: 1
    decay_mult: 1
  }
  param {
    lr_mult: 2
    decay_mult: 0
  }
  convolution_param {
    num_output: 384
    pad: 1
    kernel_size: 3
    weight_filler {
      type: "gaussian"
      std: 0.01
    }
    bias_filler {
      type: "constant"
      value: 0
    }
  }
}
layer {
  name: "relu3"
  type: "ReLU"
  bottom: "conv3"
  top: "conv3"
}
layer {
  name: "conv4"
  type: "Convolution"
  bottom: "conv3"
  top: "conv4"
  param {
    lr_mult: 1
    decay_mult: 1
  }
  param {
    lr_mult: 2
    decay_mult: 0
  }
  convolution_param {
    num_output: 384
    pad: 1
    kernel_size: 3
    group: 2
    weight_filler {
      type: "gaussian"
      std: 0.01
    }
    bias_filler {
      type: "constant"
      value: 0.1
    }
  }
}
layer {
  name: "relu4"
  type: "ReLU"
  bottom: "conv4"
  top: "conv4"
}
layer {
  name: "conv5"
  type: "Convolution"
  bottom: "conv4"
  top: "conv5"
  param {
    lr_mult: 1
    decay_mult: 1
  }
  param {
    lr_mult: 2
    decay_mult: 0
  }
  convolution_param {
    num_output: 256
    pad: 1
    kernel_size: 3
    group: 2
    weight_filler {
      type: "gaussian"
      std: 0.01
    }
    bias_filler {
      type: "constant"
      value: 0.1
    }
  }
}
layer {
  name: "relu5"
  type: "ReLU"
  bottom: "conv5"
  top: "conv5"
}
layer {
  name: "pool5"
  type: "Pooling"
  bottom: "conv5"
  top: "pool5"
  pooling_param {
    pool: MAX
    kernel_size: 3
    stride: 2
  }
}
layer {
  name: "fc6"
  type: "InnerProduct"
  bottom: "pool5"
  top: "fc6"
  param {
    lr_mult: 1
    decay_mult: 1
  }
  param {
    lr_mult: 2
    decay_mult: 0
  }
  inner_product_param {
    num_output: 4096
    weight_filler {
      type: "gaussian"
      std: 0.005
    }
    bias_filler {
      type: "constant"
      value: 0.1
    }
  }
}
layer {
  name: "relu6"
  type: "ReLU"
  bottom: "fc6"
  top: "fc6"
}
layer {
  name: "drop6"
  type: "Dropout"
  bottom: "fc6"
  top: "fc6"
  dropout_param {
    dropout_ratio: 0.5
  }
}
layer {
  name: "fc7"
  type: "InnerProduct"
  bottom: "fc6"
  top: "fc7"
  param {
    lr_mult: 1
    decay_mult: 1
  }
  param {
    lr_mult: 2
    decay_mult: 0
  }
  inner_product_param {
    num_output: 4096
    weight_filler {
      type: "gaussian"
      std: 0.005
    }
    bias_filler {
      type: "constant"
      value: 0.1
    }
  }
}
layer {
  name: "relu7"
  type: "ReLU"
  bottom: "fc7"
  top: "fc7"
}
layer {
  name: "drop7"
  type: "Dropout"
  bottom: "fc7"
  top: "fc7"
  dropout_param {
    dropout_ratio: 0.5
  }
}
layer {
  name: "fc8_plantvillage"
  type: "InnerProduct"
  bottom: "fc7"
  top: "fc8_plantvillage"
  param {
    lr_mult: 1
    decay_mult: 1
  }
  param {
    lr_mult: 2
    decay_mult: 0
  }
  inner_product_param {
    num_output: 38
    weight_filler {
      type: "gaussian"
      std: 0.01
    }
    bias_filler {
      type: "constant"
      value: 0
    }
  }
}
layer {
  name: "prob"
  type: "Softmax"
  bottom: "fc8_plantvillage"
  top: "prob"
  include {
    phase: TEST
  }
}
layer {
  name: "hdf5out"
  type: "HDF5Output"
  bottom: "prob"
  bottom: "label"
  include {
    phase: TEST
  }
  hdf5_output_param {
    file_name: "hdf5_dumps/iter_945.h5"
  }
}
layer {
  name: "loss"
  type: "SoftmaxWithLoss"
  bottom: "fc8_plantvillage"
  bottom: "label"
  top: "loss"
}
layer {
  name: "accuracy"
  type: "Accuracy"
  bottom: "fc8_plantvillage"
  bottom: "label"
  top: "accuracy"
  include {
    phase: TEST
  }
}
I0403 13:34:44.345976 28385 layer_factory.hpp:77] Creating layer data
I0403 13:34:44.346639 28385 net.cpp:91] Creating Layer data
I0403 13:34:44.346673 28385 net.cpp:399] data -> data
I0403 13:34:44.346726 28385 net.cpp:399] data -> label
I0403 13:34:44.346765 28385 data_transformer.cpp:25] Loading mean file from: /home/mohanty/data/final_dataset/lmdb/grayscale-20-80/mean.binaryproto
I0403 13:34:44.349220 28388 db_lmdb.cpp:38] Opened lmdb /home/mohanty/data/final_dataset/lmdb/grayscale-20-80/test_db
I0403 13:34:44.361270 28385 data_layer.cpp:41] output data size: 100,3,227,227
I0403 13:34:44.483659 28385 net.cpp:141] Setting up data
I0403 13:34:44.483750 28385 net.cpp:148] Top shape: 100 3 227 227 (15458700)
I0403 13:34:44.483775 28385 net.cpp:148] Top shape: 100 (100)
I0403 13:34:44.483791 28385 net.cpp:156] Memory required for data: 61835200
I0403 13:34:44.483819 28385 layer_factory.hpp:77] Creating layer label_data_1_split
I0403 13:34:44.483845 28385 net.cpp:91] Creating Layer label_data_1_split
I0403 13:34:44.483865 28385 net.cpp:425] label_data_1_split <- label
I0403 13:34:44.483897 28385 net.cpp:399] label_data_1_split -> label_data_1_split_0
I0403 13:34:44.483927 28385 net.cpp:399] label_data_1_split -> label_data_1_split_1
I0403 13:34:44.483947 28385 net.cpp:399] label_data_1_split -> label_data_1_split_2
I0403 13:34:44.484011 28385 net.cpp:141] Setting up label_data_1_split
I0403 13:34:44.484035 28385 net.cpp:148] Top shape: 100 (100)
I0403 13:34:44.484053 28385 net.cpp:148] Top shape: 100 (100)
I0403 13:34:44.484071 28385 net.cpp:148] Top shape: 100 (100)
I0403 13:34:44.484086 28385 net.cpp:156] Memory required for data: 61836400
I0403 13:34:44.484102 28385 layer_factory.hpp:77] Creating layer conv1
I0403 13:34:44.484135 28385 net.cpp:91] Creating Layer conv1
I0403 13:34:44.484154 28385 net.cpp:425] conv1 <- data
I0403 13:34:44.484175 28385 net.cpp:399] conv1 -> conv1
I0403 13:34:44.629905 28385 net.cpp:141] Setting up conv1
I0403 13:34:44.629951 28385 net.cpp:148] Top shape: 100 96 55 55 (29040000)
I0403 13:34:44.629969 28385 net.cpp:156] Memory required for data: 177996400
I0403 13:34:44.630002 28385 layer_factory.hpp:77] Creating layer relu1
I0403 13:34:44.630035 28385 net.cpp:91] Creating Layer relu1
I0403 13:34:44.630056 28385 net.cpp:425] relu1 <- conv1
I0403 13:34:44.630079 28385 net.cpp:386] relu1 -> conv1 (in-place)
I0403 13:34:44.630369 28385 net.cpp:141] Setting up relu1
I0403 13:34:44.630398 28385 net.cpp:148] Top shape: 100 96 55 55 (29040000)
I0403 13:34:44.630445 28385 net.cpp:156] Memory required for data: 294156400
I0403 13:34:44.630462 28385 layer_factory.hpp:77] Creating layer norm1
I0403 13:34:44.630492 28385 net.cpp:91] Creating Layer norm1
I0403 13:34:44.630512 28385 net.cpp:425] norm1 <- conv1
I0403 13:34:44.630532 28385 net.cpp:399] norm1 -> norm1
I0403 13:34:44.630887 28385 net.cpp:141] Setting up norm1
I0403 13:34:44.630916 28385 net.cpp:148] Top shape: 100 96 55 55 (29040000)
I0403 13:34:44.630934 28385 net.cpp:156] Memory required for data: 410316400
I0403 13:34:44.630949 28385 layer_factory.hpp:77] Creating layer pool1
I0403 13:34:44.630975 28385 net.cpp:91] Creating Layer pool1
I0403 13:34:44.630995 28385 net.cpp:425] pool1 <- norm1
I0403 13:34:44.631013 28385 net.cpp:399] pool1 -> pool1
I0403 13:34:44.631086 28385 net.cpp:141] Setting up pool1
I0403 13:34:44.631111 28385 net.cpp:148] Top shape: 100 96 27 27 (6998400)
I0403 13:34:44.631129 28385 net.cpp:156] Memory required for data: 438310000
I0403 13:34:44.631145 28385 layer_factory.hpp:77] Creating layer conv2
I0403 13:34:44.631170 28385 net.cpp:91] Creating Layer conv2
I0403 13:34:44.631188 28385 net.cpp:425] conv2 <- pool1
I0403 13:34:44.631211 28385 net.cpp:399] conv2 -> conv2
I0403 13:34:44.646833 28385 net.cpp:141] Setting up conv2
I0403 13:34:44.646898 28385 net.cpp:148] Top shape: 100 256 27 27 (18662400)
I0403 13:34:44.646916 28385 net.cpp:156] Memory required for data: 512959600
I0403 13:34:44.646941 28385 layer_factory.hpp:77] Creating layer relu2
I0403 13:34:44.646965 28385 net.cpp:91] Creating Layer relu2
I0403 13:34:44.646984 28385 net.cpp:425] relu2 <- conv2
I0403 13:34:44.647004 28385 net.cpp:386] relu2 -> conv2 (in-place)
I0403 13:34:44.647289 28385 net.cpp:141] Setting up relu2
I0403 13:34:44.647318 28385 net.cpp:148] Top shape: 100 256 27 27 (18662400)
I0403 13:34:44.647336 28385 net.cpp:156] Memory required for data: 587609200
I0403 13:34:44.647357 28385 layer_factory.hpp:77] Creating layer norm2
I0403 13:34:44.647378 28385 net.cpp:91] Creating Layer norm2
I0403 13:34:44.647395 28385 net.cpp:425] norm2 <- conv2
I0403 13:34:44.647418 28385 net.cpp:399] norm2 -> norm2
I0403 13:34:44.647619 28385 net.cpp:141] Setting up norm2
I0403 13:34:44.647645 28385 net.cpp:148] Top shape: 100 256 27 27 (18662400)
I0403 13:34:44.647661 28385 net.cpp:156] Memory required for data: 662258800
I0403 13:34:44.647677 28385 layer_factory.hpp:77] Creating layer pool2
I0403 13:34:44.647698 28385 net.cpp:91] Creating Layer pool2
I0403 13:34:44.647716 28385 net.cpp:425] pool2 <- norm2
I0403 13:34:44.647734 28385 net.cpp:399] pool2 -> pool2
I0403 13:34:44.647789 28385 net.cpp:141] Setting up pool2
I0403 13:34:44.647814 28385 net.cpp:148] Top shape: 100 256 13 13 (4326400)
I0403 13:34:44.647828 28385 net.cpp:156] Memory required for data: 679564400
I0403 13:34:44.647845 28385 layer_factory.hpp:77] Creating layer conv3
I0403 13:34:44.647869 28385 net.cpp:91] Creating Layer conv3
I0403 13:34:44.647887 28385 net.cpp:425] conv3 <- pool2
I0403 13:34:44.647909 28385 net.cpp:399] conv3 -> conv3
I0403 13:34:44.687628 28385 net.cpp:141] Setting up conv3
I0403 13:34:44.687701 28385 net.cpp:148] Top shape: 100 384 13 13 (6489600)
I0403 13:34:44.687719 28385 net.cpp:156] Memory required for data: 705522800
I0403 13:34:44.687749 28385 layer_factory.hpp:77] Creating layer relu3
I0403 13:34:44.687774 28385 net.cpp:91] Creating Layer relu3
I0403 13:34:44.687793 28385 net.cpp:425] relu3 <- conv3
I0403 13:34:44.687813 28385 net.cpp:386] relu3 -> conv3 (in-place)
I0403 13:34:44.688097 28385 net.cpp:141] Setting up relu3
I0403 13:34:44.688124 28385 net.cpp:148] Top shape: 100 384 13 13 (6489600)
I0403 13:34:44.688144 28385 net.cpp:156] Memory required for data: 731481200
I0403 13:34:44.688161 28385 layer_factory.hpp:77] Creating layer conv4
I0403 13:34:44.688185 28385 net.cpp:91] Creating Layer conv4
I0403 13:34:44.688204 28385 net.cpp:425] conv4 <- conv3
I0403 13:34:44.688225 28385 net.cpp:399] conv4 -> conv4
I0403 13:34:44.719177 28385 net.cpp:141] Setting up conv4
I0403 13:34:44.719243 28385 net.cpp:148] Top shape: 100 384 13 13 (6489600)
I0403 13:34:44.719291 28385 net.cpp:156] Memory required for data: 757439600
I0403 13:34:44.719315 28385 layer_factory.hpp:77] Creating layer relu4
I0403 13:34:44.719339 28385 net.cpp:91] Creating Layer relu4
I0403 13:34:44.719363 28385 net.cpp:425] relu4 <- conv4
I0403 13:34:44.719383 28385 net.cpp:386] relu4 -> conv4 (in-place)
I0403 13:34:44.719674 28385 net.cpp:141] Setting up relu4
I0403 13:34:44.719703 28385 net.cpp:148] Top shape: 100 384 13 13 (6489600)
I0403 13:34:44.719720 28385 net.cpp:156] Memory required for data: 783398000
I0403 13:34:44.719737 28385 layer_factory.hpp:77] Creating layer conv5
I0403 13:34:44.719764 28385 net.cpp:91] Creating Layer conv5
I0403 13:34:44.719784 28385 net.cpp:425] conv5 <- conv4
I0403 13:34:44.719806 28385 net.cpp:399] conv5 -> conv5
I0403 13:34:44.741468 28385 net.cpp:141] Setting up conv5
I0403 13:34:44.741597 28385 net.cpp:148] Top shape: 100 256 13 13 (4326400)
I0403 13:34:44.741621 28385 net.cpp:156] Memory required for data: 800703600
I0403 13:34:44.741648 28385 layer_factory.hpp:77] Creating layer relu5
I0403 13:34:44.741675 28385 net.cpp:91] Creating Layer relu5
I0403 13:34:44.741696 28385 net.cpp:425] relu5 <- conv5
I0403 13:34:44.741717 28385 net.cpp:386] relu5 -> conv5 (in-place)
I0403 13:34:44.742012 28385 net.cpp:141] Setting up relu5
I0403 13:34:44.742040 28385 net.cpp:148] Top shape: 100 256 13 13 (4326400)
I0403 13:34:44.742056 28385 net.cpp:156] Memory required for data: 818009200
I0403 13:34:44.742074 28385 layer_factory.hpp:77] Creating layer pool5
I0403 13:34:44.742099 28385 net.cpp:91] Creating Layer pool5
I0403 13:34:44.742120 28385 net.cpp:425] pool5 <- conv5
I0403 13:34:44.742142 28385 net.cpp:399] pool5 -> pool5
I0403 13:34:44.742205 28385 net.cpp:141] Setting up pool5
I0403 13:34:44.742230 28385 net.cpp:148] Top shape: 100 256 6 6 (921600)
I0403 13:34:44.742247 28385 net.cpp:156] Memory required for data: 821695600
I0403 13:34:44.742264 28385 layer_factory.hpp:77] Creating layer fc6
I0403 13:34:44.742295 28385 net.cpp:91] Creating Layer fc6
I0403 13:34:44.742314 28385 net.cpp:425] fc6 <- pool5
I0403 13:34:44.742334 28385 net.cpp:399] fc6 -> fc6
I0403 13:34:46.315106 28385 net.cpp:141] Setting up fc6
I0403 13:34:46.315148 28385 net.cpp:148] Top shape: 100 4096 (409600)
I0403 13:34:46.315165 28385 net.cpp:156] Memory required for data: 823334000
I0403 13:34:46.315187 28385 layer_factory.hpp:77] Creating layer relu6
I0403 13:34:46.315210 28385 net.cpp:91] Creating Layer relu6
I0403 13:34:46.315227 28385 net.cpp:425] relu6 <- fc6
I0403 13:34:46.315248 28385 net.cpp:386] relu6 -> fc6 (in-place)
I0403 13:34:46.315482 28385 net.cpp:141] Setting up relu6
I0403 13:34:46.315508 28385 net.cpp:148] Top shape: 100 4096 (409600)
I0403 13:34:46.315524 28385 net.cpp:156] Memory required for data: 824972400
I0403 13:34:46.315552 28385 layer_factory.hpp:77] Creating layer drop6
I0403 13:34:46.315575 28385 net.cpp:91] Creating Layer drop6
I0403 13:34:46.315593 28385 net.cpp:425] drop6 <- fc6
I0403 13:34:46.315611 28385 net.cpp:386] drop6 -> fc6 (in-place)
I0403 13:34:46.315665 28385 net.cpp:141] Setting up drop6
I0403 13:34:46.315688 28385 net.cpp:148] Top shape: 100 4096 (409600)
I0403 13:34:46.315706 28385 net.cpp:156] Memory required for data: 826610800
I0403 13:34:46.315721 28385 layer_factory.hpp:77] Creating layer fc7
I0403 13:34:46.315753 28385 net.cpp:91] Creating Layer fc7
I0403 13:34:46.315769 28385 net.cpp:425] fc7 <- fc6
I0403 13:34:46.315788 28385 net.cpp:399] fc7 -> fc7
I0403 13:34:47.018272 28385 net.cpp:141] Setting up fc7
I0403 13:34:47.018358 28385 net.cpp:148] Top shape: 100 4096 (409600)
I0403 13:34:47.018379 28385 net.cpp:156] Memory required for data: 828249200
I0403 13:34:47.018404 28385 layer_factory.hpp:77] Creating layer relu7
I0403 13:34:47.018429 28385 net.cpp:91] Creating Layer relu7
I0403 13:34:47.018448 28385 net.cpp:425] relu7 <- fc7
I0403 13:34:47.018470 28385 net.cpp:386] relu7 -> fc7 (in-place)
I0403 13:34:47.018889 28385 net.cpp:141] Setting up relu7
I0403 13:34:47.018918 28385 net.cpp:148] Top shape: 100 4096 (409600)
I0403 13:34:47.018968 28385 net.cpp:156] Memory required for data: 829887600
I0403 13:34:47.018985 28385 layer_factory.hpp:77] Creating layer drop7
I0403 13:34:47.019009 28385 net.cpp:91] Creating Layer drop7
I0403 13:34:47.019027 28385 net.cpp:425] drop7 <- fc7
I0403 13:34:47.019047 28385 net.cpp:386] drop7 -> fc7 (in-place)
I0403 13:34:47.019093 28385 net.cpp:141] Setting up drop7
I0403 13:34:47.019119 28385 net.cpp:148] Top shape: 100 4096 (409600)
I0403 13:34:47.019134 28385 net.cpp:156] Memory required for data: 831526000
I0403 13:34:47.019150 28385 layer_factory.hpp:77] Creating layer fc8_plantvillage
I0403 13:34:47.019171 28385 net.cpp:91] Creating Layer fc8_plantvillage
I0403 13:34:47.019192 28385 net.cpp:425] fc8_plantvillage <- fc7
I0403 13:34:47.019212 28385 net.cpp:399] fc8_plantvillage -> fc8_plantvillage
I0403 13:34:47.026389 28385 net.cpp:141] Setting up fc8_plantvillage
I0403 13:34:47.026422 28385 net.cpp:148] Top shape: 100 38 (3800)
I0403 13:34:47.026438 28385 net.cpp:156] Memory required for data: 831541200
I0403 13:34:47.026459 28385 layer_factory.hpp:77] Creating layer fc8_plantvillage_fc8_plantvillage_0_split
I0403 13:34:47.026482 28385 net.cpp:91] Creating Layer fc8_plantvillage_fc8_plantvillage_0_split
I0403 13:34:47.026499 28385 net.cpp:425] fc8_plantvillage_fc8_plantvillage_0_split <- fc8_plantvillage
I0403 13:34:47.026520 28385 net.cpp:399] fc8_plantvillage_fc8_plantvillage_0_split -> fc8_plantvillage_fc8_plantvillage_0_split_0
I0403 13:34:47.026540 28385 net.cpp:399] fc8_plantvillage_fc8_plantvillage_0_split -> fc8_plantvillage_fc8_plantvillage_0_split_1
I0403 13:34:47.026566 28385 net.cpp:399] fc8_plantvillage_fc8_plantvillage_0_split -> fc8_plantvillage_fc8_plantvillage_0_split_2
I0403 13:34:47.026650 28385 net.cpp:141] Setting up fc8_plantvillage_fc8_plantvillage_0_split
I0403 13:34:47.026677 28385 net.cpp:148] Top shape: 100 38 (3800)
I0403 13:34:47.026695 28385 net.cpp:148] Top shape: 100 38 (3800)
I0403 13:34:47.026711 28385 net.cpp:148] Top shape: 100 38 (3800)
I0403 13:34:47.026726 28385 net.cpp:156] Memory required for data: 831586800
I0403 13:34:47.026741 28385 layer_factory.hpp:77] Creating layer prob
I0403 13:34:47.026764 28385 net.cpp:91] Creating Layer prob
I0403 13:34:47.026783 28385 net.cpp:425] prob <- fc8_plantvillage_fc8_plantvillage_0_split_0
I0403 13:34:47.026803 28385 net.cpp:399] prob -> prob
I0403 13:34:47.027042 28385 net.cpp:141] Setting up prob
I0403 13:34:47.027070 28385 net.cpp:148] Top shape: 100 38 (3800)
I0403 13:34:47.027087 28385 net.cpp:156] Memory required for data: 831602000
I0403 13:34:47.027103 28385 layer_factory.hpp:77] Creating layer hdf5out
I0403 13:34:47.027125 28385 net.cpp:91] Creating Layer hdf5out
I0403 13:34:47.027143 28385 net.cpp:425] hdf5out <- prob
I0403 13:34:47.027161 28385 net.cpp:425] hdf5out <- label_data_1_split_0
I0403 13:34:47.050016 28385 net.cpp:141] Setting up hdf5out
…
