…
I0403 13:26:07.754972 28069 net.cpp:313] The NetState phase (1) differed from the phase (0) specified by a rule in layer data
I0403 13:26:07.755280 28069 net.cpp:49] Initializing net from parameters: 
state {
  phase: TEST
}
layer {
  name: "data"
  type: "Data"
  top: "data"
  top: "label"
  include {
    phase: TEST
  }
  transform_param {
    crop_size: 227
    mean_file: "/home/mohanty/data/final_dataset/lmdb/grayscale-20-80/mean.binaryproto"
  }
  data_param {
    source: "/home/mohanty/data/final_dataset/lmdb/grayscale-20-80/test_db"
    batch_size: 100
    backend: LMDB
  }
}
layer {
  name: "conv1"
  type: "Convolution"
  bottom: "data"
  top: "conv1"
  param {
    lr_mult: 1
    decay_mult: 1
  }
  param {
    lr_mult: 2
    decay_mult: 0
  }
  convolution_param {
    num_output: 96
    kernel_size: 11
    stride: 4
    weight_filler {
      type: "gaussian"
      std: 0.01
    }
    bias_filler {
      type: "constant"
      value: 0
    }
  }
}
layer {
  name: "relu1"
  type: "ReLU"
  bottom: "conv1"
  top: "conv1"
}
layer {
  name: "norm1"
  type: "LRN"
  bottom: "conv1"
  top: "norm1"
  lrn_param {
    local_size: 5
    alpha: 0.0001
    beta: 0.75
  }
}
layer {
  name: "pool1"
  type: "Pooling"
  bottom: "norm1"
  top: "pool1"
  pooling_param {
    pool: MAX
    kernel_size: 3
    stride: 2
  }
}
layer {
  name: "conv2"
  type: "Convolution"
  bottom: "pool1"
  top: "conv2"
  param {
    lr_mult: 1
    decay_mult: 1
  }
  param {
    lr_mult: 2
    decay_mult: 0
  }
  convolution_param {
    num_output: 256
    pad: 2
    kernel_size: 5
    group: 2
    weight_filler {
      type: "gaussian"
      std: 0.01
    }
    bias_filler {
      type: "constant"
      value: 0.1
    }
  }
}
layer {
  name: "relu2"
  type: "ReLU"
  bottom: "conv2"
  top: "conv2"
}
layer {
  name: "norm2"
  type: "LRN"
  bottom: "conv2"
  top: "norm2"
  lrn_param {
    local_size: 5
    alpha: 0.0001
    beta: 0.75
  }
}
layer {
  name: "pool2"
  type: "Pooling"
  bottom: "norm2"
  top: "pool2"
  pooling_param {
    pool: MAX
    kernel_size: 3
    stride: 2
  }
}
layer {
  name: "conv3"
  type: "Convolution"
  bottom: "pool2"
  top: "conv3"
  param {
    lr_mult: 1
    decay_mult: 1
  }
  param {
    lr_mult: 2
    decay_mult: 0
  }
  convolution_param {
    num_output: 384
    pad: 1
    kernel_size: 3
    weight_filler {
      type: "gaussian"
      std: 0.01
    }
    bias_filler {
      type: "constant"
      value: 0
    }
  }
}
layer {
  name: "relu3"
  type: "ReLU"
  bottom: "conv3"
  top: "conv3"
}
layer {
  name: "conv4"
  type: "Convolution"
  bottom: "conv3"
  top: "conv4"
  param {
    lr_mult: 1
    decay_mult: 1
  }
  param {
    lr_mult: 2
    decay_mult: 0
  }
  convolution_param {
    num_output: 384
    pad: 1
    kernel_size: 3
    group: 2
    weight_filler {
      type: "gaussian"
      std: 0.01
    }
    bias_filler {
      type: "constant"
      value: 0.1
    }
  }
}
layer {
  name: "relu4"
  type: "ReLU"
  bottom: "conv4"
  top: "conv4"
}
layer {
  name: "conv5"
  type: "Convolution"
  bottom: "conv4"
  top: "conv5"
  param {
    lr_mult: 1
    decay_mult: 1
  }
  param {
    lr_mult: 2
    decay_mult: 0
  }
  convolution_param {
    num_output: 256
    pad: 1
    kernel_size: 3
    group: 2
    weight_filler {
      type: "gaussian"
      std: 0.01
    }
    bias_filler {
      type: "constant"
      value: 0.1
    }
  }
}
layer {
  name: "relu5"
  type: "ReLU"
  bottom: "conv5"
  top: "conv5"
}
layer {
  name: "pool5"
  type: "Pooling"
  bottom: "conv5"
  top: "pool5"
  pooling_param {
    pool: MAX
    kernel_size: 3
    stride: 2
  }
}
layer {
  name: "fc6"
  type: "InnerProduct"
  bottom: "pool5"
  top: "fc6"
  param {
    lr_mult: 1
    decay_mult: 1
  }
  param {
    lr_mult: 2
    decay_mult: 0
  }
  inner_product_param {
    num_output: 4096
    weight_filler {
      type: "gaussian"
      std: 0.005
    }
    bias_filler {
      type: "constant"
      value: 0.1
    }
  }
}
layer {
  name: "relu6"
  type: "ReLU"
  bottom: "fc6"
  top: "fc6"
}
layer {
  name: "drop6"
  type: "Dropout"
  bottom: "fc6"
  top: "fc6"
  dropout_param {
    dropout_ratio: 0.5
  }
}
layer {
  name: "fc7"
  type: "InnerProduct"
  bottom: "fc6"
  top: "fc7"
  param {
    lr_mult: 1
    decay_mult: 1
  }
  param {
    lr_mult: 2
    decay_mult: 0
  }
  inner_product_param {
    num_output: 4096
    weight_filler {
      type: "gaussian"
      std: 0.005
    }
    bias_filler {
      type: "constant"
      value: 0.1
    }
  }
}
layer {
  name: "relu7"
  type: "ReLU"
  bottom: "fc7"
  top: "fc7"
}
layer {
  name: "drop7"
  type: "Dropout"
  bottom: "fc7"
  top: "fc7"
  dropout_param {
    dropout_ratio: 0.5
  }
}
layer {
  name: "fc8_plantvillage"
  type: "InnerProduct"
  bottom: "fc7"
  top: "fc8_plantvillage"
  param {
    lr_mult: 1
    decay_mult: 1
  }
  param {
    lr_mult: 2
    decay_mult: 0
  }
  inner_product_param {
    num_output: 38
    weight_filler {
      type: "gaussian"
      std: 0.01
    }
    bias_filler {
      type: "constant"
      value: 0
    }
  }
}
layer {
  name: "prob"
  type: "Softmax"
  bottom: "fc8_plantvillage"
  top: "prob"
  include {
    phase: TEST
  }
}
layer {
  name: "hdf5out"
  type: "HDF5Output"
  bottom: "prob"
  bottom: "label"
  include {
    phase: TEST
  }
  hdf5_output_param {
    file_name: "hdf5_dumps/iter_315.h5"
  }
}
layer {
  name: "loss"
  type: "SoftmaxWithLoss"
  bottom: "fc8_plantvillage"
  bottom: "label"
  top: "loss"
}
layer {
  name: "accuracy"
  type: "Accuracy"
  bottom: "fc8_plantvillage"
  bottom: "label"
  top: "accuracy"
  include {
    phase: TEST
  }
}
I0403 13:26:07.755878 28069 layer_factory.hpp:77] Creating layer data
I0403 13:26:07.756518 28069 net.cpp:91] Creating Layer data
I0403 13:26:07.756549 28069 net.cpp:399] data -> data
I0403 13:26:07.756599 28069 net.cpp:399] data -> label
I0403 13:26:07.756636 28069 data_transformer.cpp:25] Loading mean file from: /home/mohanty/data/final_dataset/lmdb/grayscale-20-80/mean.binaryproto
I0403 13:26:07.757782 28075 db_lmdb.cpp:38] Opened lmdb /home/mohanty/data/final_dataset/lmdb/grayscale-20-80/test_db
I0403 13:26:07.770957 28069 data_layer.cpp:41] output data size: 100,3,227,227
I0403 13:26:07.889493 28069 net.cpp:141] Setting up data
I0403 13:26:07.889585 28069 net.cpp:148] Top shape: 100 3 227 227 (15458700)
I0403 13:26:07.889608 28069 net.cpp:148] Top shape: 100 (100)
I0403 13:26:07.889624 28069 net.cpp:156] Memory required for data: 61835200
I0403 13:26:07.889652 28069 layer_factory.hpp:77] Creating layer label_data_1_split
I0403 13:26:07.889678 28069 net.cpp:91] Creating Layer label_data_1_split
I0403 13:26:07.889696 28069 net.cpp:425] label_data_1_split <- label
I0403 13:26:07.889727 28069 net.cpp:399] label_data_1_split -> label_data_1_split_0
I0403 13:26:07.889755 28069 net.cpp:399] label_data_1_split -> label_data_1_split_1
I0403 13:26:07.889775 28069 net.cpp:399] label_data_1_split -> label_data_1_split_2
I0403 13:26:07.889838 28069 net.cpp:141] Setting up label_data_1_split
I0403 13:26:07.889863 28069 net.cpp:148] Top shape: 100 (100)
I0403 13:26:07.889880 28069 net.cpp:148] Top shape: 100 (100)
I0403 13:26:07.889897 28069 net.cpp:148] Top shape: 100 (100)
I0403 13:26:07.889911 28069 net.cpp:156] Memory required for data: 61836400
I0403 13:26:07.889927 28069 layer_factory.hpp:77] Creating layer conv1
I0403 13:26:07.889960 28069 net.cpp:91] Creating Layer conv1
I0403 13:26:07.889981 28069 net.cpp:425] conv1 <- data
I0403 13:26:07.890002 28069 net.cpp:399] conv1 -> conv1
I0403 13:26:08.032097 28069 net.cpp:141] Setting up conv1
I0403 13:26:08.032174 28069 net.cpp:148] Top shape: 100 96 55 55 (29040000)
I0403 13:26:08.032192 28069 net.cpp:156] Memory required for data: 177996400
I0403 13:26:08.032224 28069 layer_factory.hpp:77] Creating layer relu1
I0403 13:26:08.032253 28069 net.cpp:91] Creating Layer relu1
I0403 13:26:08.032271 28069 net.cpp:425] relu1 <- conv1
I0403 13:26:08.032290 28069 net.cpp:386] relu1 -> conv1 (in-place)
I0403 13:26:08.032600 28069 net.cpp:141] Setting up relu1
I0403 13:26:08.032629 28069 net.cpp:148] Top shape: 100 96 55 55 (29040000)
I0403 13:26:08.032675 28069 net.cpp:156] Memory required for data: 294156400
I0403 13:26:08.032692 28069 layer_factory.hpp:77] Creating layer norm1
I0403 13:26:08.032719 28069 net.cpp:91] Creating Layer norm1
I0403 13:26:08.032738 28069 net.cpp:425] norm1 <- conv1
I0403 13:26:08.032759 28069 net.cpp:399] norm1 -> norm1
I0403 13:26:08.033087 28069 net.cpp:141] Setting up norm1
I0403 13:26:08.033114 28069 net.cpp:148] Top shape: 100 96 55 55 (29040000)
I0403 13:26:08.033130 28069 net.cpp:156] Memory required for data: 410316400
I0403 13:26:08.033146 28069 layer_factory.hpp:77] Creating layer pool1
I0403 13:26:08.033169 28069 net.cpp:91] Creating Layer pool1
I0403 13:26:08.033186 28069 net.cpp:425] pool1 <- norm1
I0403 13:26:08.033207 28069 net.cpp:399] pool1 -> pool1
I0403 13:26:08.033277 28069 net.cpp:141] Setting up pool1
I0403 13:26:08.033303 28069 net.cpp:148] Top shape: 100 96 27 27 (6998400)
I0403 13:26:08.033318 28069 net.cpp:156] Memory required for data: 438310000
I0403 13:26:08.033334 28069 layer_factory.hpp:77] Creating layer conv2
I0403 13:26:08.033366 28069 net.cpp:91] Creating Layer conv2
I0403 13:26:08.033385 28069 net.cpp:425] conv2 <- pool1
I0403 13:26:08.033406 28069 net.cpp:399] conv2 -> conv2
I0403 13:26:08.048573 28069 net.cpp:141] Setting up conv2
I0403 13:26:08.048634 28069 net.cpp:148] Top shape: 100 256 27 27 (18662400)
I0403 13:26:08.048651 28069 net.cpp:156] Memory required for data: 512959600
I0403 13:26:08.048674 28069 layer_factory.hpp:77] Creating layer relu2
I0403 13:26:08.048696 28069 net.cpp:91] Creating Layer relu2
I0403 13:26:08.048715 28069 net.cpp:425] relu2 <- conv2
I0403 13:26:08.048733 28069 net.cpp:386] relu2 -> conv2 (in-place)
I0403 13:26:08.049015 28069 net.cpp:141] Setting up relu2
I0403 13:26:08.049042 28069 net.cpp:148] Top shape: 100 256 27 27 (18662400)
I0403 13:26:08.049057 28069 net.cpp:156] Memory required for data: 587609200
I0403 13:26:08.049073 28069 layer_factory.hpp:77] Creating layer norm2
I0403 13:26:08.049098 28069 net.cpp:91] Creating Layer norm2
I0403 13:26:08.049113 28069 net.cpp:425] norm2 <- conv2
I0403 13:26:08.049132 28069 net.cpp:399] norm2 -> norm2
I0403 13:26:08.049330 28069 net.cpp:141] Setting up norm2
I0403 13:26:08.049360 28069 net.cpp:148] Top shape: 100 256 27 27 (18662400)
I0403 13:26:08.049376 28069 net.cpp:156] Memory required for data: 662258800
I0403 13:26:08.049392 28069 layer_factory.hpp:77] Creating layer pool2
I0403 13:26:08.049410 28069 net.cpp:91] Creating Layer pool2
I0403 13:26:08.049427 28069 net.cpp:425] pool2 <- norm2
I0403 13:26:08.049445 28069 net.cpp:399] pool2 -> pool2
I0403 13:26:08.049499 28069 net.cpp:141] Setting up pool2
I0403 13:26:08.049525 28069 net.cpp:148] Top shape: 100 256 13 13 (4326400)
I0403 13:26:08.049542 28069 net.cpp:156] Memory required for data: 679564400
I0403 13:26:08.049558 28069 layer_factory.hpp:77] Creating layer conv3
I0403 13:26:08.049583 28069 net.cpp:91] Creating Layer conv3
I0403 13:26:08.049600 28069 net.cpp:425] conv3 <- pool2
I0403 13:26:08.049619 28069 net.cpp:399] conv3 -> conv3
I0403 13:26:08.088304 28069 net.cpp:141] Setting up conv3
I0403 13:26:08.088379 28069 net.cpp:148] Top shape: 100 384 13 13 (6489600)
I0403 13:26:08.088398 28069 net.cpp:156] Memory required for data: 705522800
I0403 13:26:08.088425 28069 layer_factory.hpp:77] Creating layer relu3
I0403 13:26:08.088449 28069 net.cpp:91] Creating Layer relu3
I0403 13:26:08.088467 28069 net.cpp:425] relu3 <- conv3
I0403 13:26:08.088490 28069 net.cpp:386] relu3 -> conv3 (in-place)
I0403 13:26:08.088785 28069 net.cpp:141] Setting up relu3
I0403 13:26:08.088814 28069 net.cpp:148] Top shape: 100 384 13 13 (6489600)
I0403 13:26:08.088829 28069 net.cpp:156] Memory required for data: 731481200
I0403 13:26:08.088845 28069 layer_factory.hpp:77] Creating layer conv4
I0403 13:26:08.088871 28069 net.cpp:91] Creating Layer conv4
I0403 13:26:08.088889 28069 net.cpp:425] conv4 <- conv3
I0403 13:26:08.088912 28069 net.cpp:399] conv4 -> conv4
I0403 13:26:08.119277 28069 net.cpp:141] Setting up conv4
I0403 13:26:08.119349 28069 net.cpp:148] Top shape: 100 384 13 13 (6489600)
I0403 13:26:08.119400 28069 net.cpp:156] Memory required for data: 757439600
I0403 13:26:08.119423 28069 layer_factory.hpp:77] Creating layer relu4
I0403 13:26:08.119446 28069 net.cpp:91] Creating Layer relu4
I0403 13:26:08.119462 28069 net.cpp:425] relu4 <- conv4
I0403 13:26:08.119485 28069 net.cpp:386] relu4 -> conv4 (in-place)
I0403 13:26:08.119770 28069 net.cpp:141] Setting up relu4
I0403 13:26:08.119827 28069 net.cpp:148] Top shape: 100 384 13 13 (6489600)
I0403 13:26:08.119846 28069 net.cpp:156] Memory required for data: 783398000
I0403 13:26:08.119861 28069 layer_factory.hpp:77] Creating layer conv5
I0403 13:26:08.119890 28069 net.cpp:91] Creating Layer conv5
I0403 13:26:08.119910 28069 net.cpp:425] conv5 <- conv4
I0403 13:26:08.119932 28069 net.cpp:399] conv5 -> conv5
I0403 13:26:08.141059 28069 net.cpp:141] Setting up conv5
I0403 13:26:08.141118 28069 net.cpp:148] Top shape: 100 256 13 13 (4326400)
I0403 13:26:08.141135 28069 net.cpp:156] Memory required for data: 800703600
I0403 13:26:08.141162 28069 layer_factory.hpp:77] Creating layer relu5
I0403 13:26:08.141185 28069 net.cpp:91] Creating Layer relu5
I0403 13:26:08.141202 28069 net.cpp:425] relu5 <- conv5
I0403 13:26:08.141227 28069 net.cpp:386] relu5 -> conv5 (in-place)
I0403 13:26:08.141513 28069 net.cpp:141] Setting up relu5
I0403 13:26:08.141542 28069 net.cpp:148] Top shape: 100 256 13 13 (4326400)
I0403 13:26:08.141558 28069 net.cpp:156] Memory required for data: 818009200
I0403 13:26:08.141574 28069 layer_factory.hpp:77] Creating layer pool5
I0403 13:26:08.141600 28069 net.cpp:91] Creating Layer pool5
I0403 13:26:08.141619 28069 net.cpp:425] pool5 <- conv5
I0403 13:26:08.141639 28069 net.cpp:399] pool5 -> pool5
I0403 13:26:08.141702 28069 net.cpp:141] Setting up pool5
I0403 13:26:08.141726 28069 net.cpp:148] Top shape: 100 256 6 6 (921600)
I0403 13:26:08.141741 28069 net.cpp:156] Memory required for data: 821695600
I0403 13:26:08.141757 28069 layer_factory.hpp:77] Creating layer fc6
I0403 13:26:08.141783 28069 net.cpp:91] Creating Layer fc6
I0403 13:26:08.141803 28069 net.cpp:425] fc6 <- pool5
I0403 13:26:08.141824 28069 net.cpp:399] fc6 -> fc6
I0403 13:26:09.707032 28069 net.cpp:141] Setting up fc6
I0403 13:26:09.707103 28069 net.cpp:148] Top shape: 100 4096 (409600)
I0403 13:26:09.707120 28069 net.cpp:156] Memory required for data: 823334000
I0403 13:26:09.707144 28069 layer_factory.hpp:77] Creating layer relu6
I0403 13:26:09.707165 28069 net.cpp:91] Creating Layer relu6
I0403 13:26:09.707183 28069 net.cpp:425] relu6 <- fc6
I0403 13:26:09.707203 28069 net.cpp:386] relu6 -> fc6 (in-place)
I0403 13:26:09.707447 28069 net.cpp:141] Setting up relu6
I0403 13:26:09.707473 28069 net.cpp:148] Top shape: 100 4096 (409600)
I0403 13:26:09.707489 28069 net.cpp:156] Memory required for data: 824972400
I0403 13:26:09.707504 28069 layer_factory.hpp:77] Creating layer drop6
I0403 13:26:09.707525 28069 net.cpp:91] Creating Layer drop6
I0403 13:26:09.707540 28069 net.cpp:425] drop6 <- fc6
I0403 13:26:09.707558 28069 net.cpp:386] drop6 -> fc6 (in-place)
I0403 13:26:09.707610 28069 net.cpp:141] Setting up drop6
I0403 13:26:09.707636 28069 net.cpp:148] Top shape: 100 4096 (409600)
I0403 13:26:09.707653 28069 net.cpp:156] Memory required for data: 826610800
I0403 13:26:09.707669 28069 layer_factory.hpp:77] Creating layer fc7
I0403 13:26:09.707687 28069 net.cpp:91] Creating Layer fc7
I0403 13:26:09.707703 28069 net.cpp:425] fc7 <- fc6
I0403 13:26:09.707723 28069 net.cpp:399] fc7 -> fc7
I0403 13:26:10.397078 28069 net.cpp:141] Setting up fc7
I0403 13:26:10.397121 28069 net.cpp:148] Top shape: 100 4096 (409600)
I0403 13:26:10.397138 28069 net.cpp:156] Memory required for data: 828249200
I0403 13:26:10.397159 28069 layer_factory.hpp:77] Creating layer relu7
I0403 13:26:10.397181 28069 net.cpp:91] Creating Layer relu7
I0403 13:26:10.397199 28069 net.cpp:425] relu7 <- fc7
I0403 13:26:10.397222 28069 net.cpp:386] relu7 -> fc7 (in-place)
I0403 13:26:10.397624 28069 net.cpp:141] Setting up relu7
I0403 13:26:10.397651 28069 net.cpp:148] Top shape: 100 4096 (409600)
I0403 13:26:10.397697 28069 net.cpp:156] Memory required for data: 829887600
I0403 13:26:10.397713 28069 layer_factory.hpp:77] Creating layer drop7
I0403 13:26:10.397732 28069 net.cpp:91] Creating Layer drop7
I0403 13:26:10.397748 28069 net.cpp:425] drop7 <- fc7
I0403 13:26:10.397768 28069 net.cpp:386] drop7 -> fc7 (in-place)
I0403 13:26:10.397810 28069 net.cpp:141] Setting up drop7
I0403 13:26:10.397836 28069 net.cpp:148] Top shape: 100 4096 (409600)
I0403 13:26:10.397851 28069 net.cpp:156] Memory required for data: 831526000
I0403 13:26:10.397866 28069 layer_factory.hpp:77] Creating layer fc8_plantvillage
I0403 13:26:10.397886 28069 net.cpp:91] Creating Layer fc8_plantvillage
I0403 13:26:10.397902 28069 net.cpp:425] fc8_plantvillage <- fc7
I0403 13:26:10.397922 28069 net.cpp:399] fc8_plantvillage -> fc8_plantvillage
I0403 13:26:10.404641 28069 net.cpp:141] Setting up fc8_plantvillage
I0403 13:26:10.404670 28069 net.cpp:148] Top shape: 100 38 (3800)
I0403 13:26:10.404687 28069 net.cpp:156] Memory required for data: 831541200
I0403 13:26:10.404705 28069 layer_factory.hpp:77] Creating layer fc8_plantvillage_fc8_plantvillage_0_split
I0403 13:26:10.404726 28069 net.cpp:91] Creating Layer fc8_plantvillage_fc8_plantvillage_0_split
I0403 13:26:10.404741 28069 net.cpp:425] fc8_plantvillage_fc8_plantvillage_0_split <- fc8_plantvillage
I0403 13:26:10.404758 28069 net.cpp:399] fc8_plantvillage_fc8_plantvillage_0_split -> fc8_plantvillage_fc8_plantvillage_0_split_0
I0403 13:26:10.404778 28069 net.cpp:399] fc8_plantvillage_fc8_plantvillage_0_split -> fc8_plantvillage_fc8_plantvillage_0_split_1
I0403 13:26:10.404798 28069 net.cpp:399] fc8_plantvillage_fc8_plantvillage_0_split -> fc8_plantvillage_fc8_plantvillage_0_split_2
I0403 13:26:10.404877 28069 net.cpp:141] Setting up fc8_plantvillage_fc8_plantvillage_0_split
I0403 13:26:10.404902 28069 net.cpp:148] Top shape: 100 38 (3800)
I0403 13:26:10.404919 28069 net.cpp:148] Top shape: 100 38 (3800)
I0403 13:26:10.404935 28069 net.cpp:148] Top shape: 100 38 (3800)
I0403 13:26:10.404949 28069 net.cpp:156] Memory required for data: 831586800
I0403 13:26:10.404963 28069 layer_factory.hpp:77] Creating layer prob
I0403 13:26:10.404981 28069 net.cpp:91] Creating Layer prob
I0403 13:26:10.404996 28069 net.cpp:425] prob <- fc8_plantvillage_fc8_plantvillage_0_split_0
I0403 13:26:10.405014 28069 net.cpp:399] prob -> prob
I0403 13:26:10.405236 28069 net.cpp:141] Setting up prob
I0403 13:26:10.405261 28069 net.cpp:148] Top shape: 100 38 (3800)
I0403 13:26:10.405277 28069 net.cpp:156] Memory required for data: 831602000
I0403 13:26:10.405292 28069 layer_factory.hpp:77] Creating layer hdf5out
I0403 13:26:10.405310 28069 net.cpp:91] Creating Layer hdf5out
I0403 13:26:10.405325 28069 net.cpp:425] hdf5out <- prob
I0403 13:26:10.405359 28069 net.cpp:425] hdf5out <- label_data_1_split_0
I0403 13:26:10.447638 28069 net.cpp:141] Setting up hdf5out
…
