…
I0403 14:05:01.181656 29201 net.cpp:313] The NetState phase (1) differed from the phase (0) specified by a rule in layer data
I0403 14:05:01.181946 29201 net.cpp:49] Initializing net from parameters: 
state {
  phase: TEST
}
layer {
  name: "data"
  type: "Data"
  top: "data"
  top: "label"
  include {
    phase: TEST
  }
  transform_param {
    crop_size: 227
    mean_file: "/home/mohanty/data/final_dataset/lmdb/grayscale-20-80/mean.binaryproto"
  }
  data_param {
    source: "/home/mohanty/data/final_dataset/lmdb/grayscale-20-80/test_db"
    batch_size: 100
    backend: LMDB
  }
}
layer {
  name: "conv1"
  type: "Convolution"
  bottom: "data"
  top: "conv1"
  param {
    lr_mult: 1
    decay_mult: 1
  }
  param {
    lr_mult: 2
    decay_mult: 0
  }
  convolution_param {
    num_output: 96
    kernel_size: 11
    stride: 4
    weight_filler {
      type: "gaussian"
      std: 0.01
    }
    bias_filler {
      type: "constant"
      value: 0
    }
  }
}
layer {
  name: "relu1"
  type: "ReLU"
  bottom: "conv1"
  top: "conv1"
}
layer {
  name: "norm1"
  type: "LRN"
  bottom: "conv1"
  top: "norm1"
  lrn_param {
    local_size: 5
    alpha: 0.0001
    beta: 0.75
  }
}
layer {
  name: "pool1"
  type: "Pooling"
  bottom: "norm1"
  top: "pool1"
  pooling_param {
    pool: MAX
    kernel_size: 3
    stride: 2
  }
}
layer {
  name: "conv2"
  type: "Convolution"
  bottom: "pool1"
  top: "conv2"
  param {
    lr_mult: 1
    decay_mult: 1
  }
  param {
    lr_mult: 2
    decay_mult: 0
  }
  convolution_param {
    num_output: 256
    pad: 2
    kernel_size: 5
    group: 2
    weight_filler {
      type: "gaussian"
      std: 0.01
    }
    bias_filler {
      type: "constant"
      value: 0.1
    }
  }
}
layer {
  name: "relu2"
  type: "ReLU"
  bottom: "conv2"
  top: "conv2"
}
layer {
  name: "norm2"
  type: "LRN"
  bottom: "conv2"
  top: "norm2"
  lrn_param {
    local_size: 5
    alpha: 0.0001
    beta: 0.75
  }
}
layer {
  name: "pool2"
  type: "Pooling"
  bottom: "norm2"
  top: "pool2"
  pooling_param {
    pool: MAX
    kernel_size: 3
    stride: 2
  }
}
layer {
  name: "conv3"
  type: "Convolution"
  bottom: "pool2"
  top: "conv3"
  param {
    lr_mult: 1
    decay_mult: 1
  }
  param {
    lr_mult: 2
    decay_mult: 0
  }
  convolution_param {
    num_output: 384
    pad: 1
    kernel_size: 3
    weight_filler {
      type: "gaussian"
      std: 0.01
    }
    bias_filler {
      type: "constant"
      value: 0
    }
  }
}
layer {
  name: "relu3"
  type: "ReLU"
  bottom: "conv3"
  top: "conv3"
}
layer {
  name: "conv4"
  type: "Convolution"
  bottom: "conv3"
  top: "conv4"
  param {
    lr_mult: 1
    decay_mult: 1
  }
  param {
    lr_mult: 2
    decay_mult: 0
  }
  convolution_param {
    num_output: 384
    pad: 1
    kernel_size: 3
    group: 2
    weight_filler {
      type: "gaussian"
      std: 0.01
    }
    bias_filler {
      type: "constant"
      value: 0.1
    }
  }
}
layer {
  name: "relu4"
  type: "ReLU"
  bottom: "conv4"
  top: "conv4"
}
layer {
  name: "conv5"
  type: "Convolution"
  bottom: "conv4"
  top: "conv5"
  param {
    lr_mult: 1
    decay_mult: 1
  }
  param {
    lr_mult: 2
    decay_mult: 0
  }
  convolution_param {
    num_output: 256
    pad: 1
    kernel_size: 3
    group: 2
    weight_filler {
      type: "gaussian"
      std: 0.01
    }
    bias_filler {
      type: "constant"
      value: 0.1
    }
  }
}
layer {
  name: "relu5"
  type: "ReLU"
  bottom: "conv5"
  top: "conv5"
}
layer {
  name: "pool5"
  type: "Pooling"
  bottom: "conv5"
  top: "pool5"
  pooling_param {
    pool: MAX
    kernel_size: 3
    stride: 2
  }
}
layer {
  name: "fc6"
  type: "InnerProduct"
  bottom: "pool5"
  top: "fc6"
  param {
    lr_mult: 1
    decay_mult: 1
  }
  param {
    lr_mult: 2
    decay_mult: 0
  }
  inner_product_param {
    num_output: 4096
    weight_filler {
      type: "gaussian"
      std: 0.005
    }
    bias_filler {
      type: "constant"
      value: 0.1
    }
  }
}
layer {
  name: "relu6"
  type: "ReLU"
  bottom: "fc6"
  top: "fc6"
}
layer {
  name: "drop6"
  type: "Dropout"
  bottom: "fc6"
  top: "fc6"
  dropout_param {
    dropout_ratio: 0.5
  }
}
layer {
  name: "fc7"
  type: "InnerProduct"
  bottom: "fc6"
  top: "fc7"
  param {
    lr_mult: 1
    decay_mult: 1
  }
  param {
    lr_mult: 2
    decay_mult: 0
  }
  inner_product_param {
    num_output: 4096
    weight_filler {
      type: "gaussian"
      std: 0.005
    }
    bias_filler {
      type: "constant"
      value: 0.1
    }
  }
}
layer {
  name: "relu7"
  type: "ReLU"
  bottom: "fc7"
  top: "fc7"
}
layer {
  name: "drop7"
  type: "Dropout"
  bottom: "fc7"
  top: "fc7"
  dropout_param {
    dropout_ratio: 0.5
  }
}
layer {
  name: "fc8_plantvillage"
  type: "InnerProduct"
  bottom: "fc7"
  top: "fc8_plantvillage"
  param {
    lr_mult: 1
    decay_mult: 1
  }
  param {
    lr_mult: 2
    decay_mult: 0
  }
  inner_product_param {
    num_output: 38
    weight_filler {
      type: "gaussian"
      std: 0.01
    }
    bias_filler {
      type: "constant"
      value: 0
    }
  }
}
layer {
  name: "prob"
  type: "Softmax"
  bottom: "fc8_plantvillage"
  top: "prob"
  include {
    phase: TEST
  }
}
layer {
  name: "hdf5out"
  type: "HDF5Output"
  bottom: "prob"
  bottom: "label"
  include {
    phase: TEST
  }
  hdf5_output_param {
    file_name: "hdf5_dumps/iter_3150.h5"
  }
}
layer {
  name: "loss"
  type: "SoftmaxWithLoss"
  bottom: "fc8_plantvillage"
  bottom: "label"
  top: "loss"
}
layer {
  name: "accuracy"
  type: "Accuracy"
  bottom: "fc8_plantvillage"
  bottom: "label"
  top: "accuracy"
  include {
    phase: TEST
  }
}
I0403 14:05:01.182533 29201 layer_factory.hpp:77] Creating layer data
I0403 14:05:01.183159 29201 net.cpp:91] Creating Layer data
I0403 14:05:01.183193 29201 net.cpp:399] data -> data
I0403 14:05:01.183246 29201 net.cpp:399] data -> label
I0403 14:05:01.183284 29201 data_transformer.cpp:25] Loading mean file from: /home/mohanty/data/final_dataset/lmdb/grayscale-20-80/mean.binaryproto
I0403 14:05:01.194908 29204 db_lmdb.cpp:38] Opened lmdb /home/mohanty/data/final_dataset/lmdb/grayscale-20-80/test_db
I0403 14:05:01.198616 29201 data_layer.cpp:41] output data size: 100,3,227,227
I0403 14:05:01.317090 29201 net.cpp:141] Setting up data
I0403 14:05:01.317185 29201 net.cpp:148] Top shape: 100 3 227 227 (15458700)
I0403 14:05:01.317209 29201 net.cpp:148] Top shape: 100 (100)
I0403 14:05:01.317226 29201 net.cpp:156] Memory required for data: 61835200
I0403 14:05:01.317255 29201 layer_factory.hpp:77] Creating layer label_data_1_split
I0403 14:05:01.317283 29201 net.cpp:91] Creating Layer label_data_1_split
I0403 14:05:01.317301 29201 net.cpp:425] label_data_1_split <- label
I0403 14:05:01.317333 29201 net.cpp:399] label_data_1_split -> label_data_1_split_0
I0403 14:05:01.317368 29201 net.cpp:399] label_data_1_split -> label_data_1_split_1
I0403 14:05:01.317389 29201 net.cpp:399] label_data_1_split -> label_data_1_split_2
I0403 14:05:01.317456 29201 net.cpp:141] Setting up label_data_1_split
I0403 14:05:01.317479 29201 net.cpp:148] Top shape: 100 (100)
I0403 14:05:01.317498 29201 net.cpp:148] Top shape: 100 (100)
I0403 14:05:01.317515 29201 net.cpp:148] Top shape: 100 (100)
I0403 14:05:01.317531 29201 net.cpp:156] Memory required for data: 61836400
I0403 14:05:01.317548 29201 layer_factory.hpp:77] Creating layer conv1
I0403 14:05:01.317579 29201 net.cpp:91] Creating Layer conv1
I0403 14:05:01.317598 29201 net.cpp:425] conv1 <- data
I0403 14:05:01.317620 29201 net.cpp:399] conv1 -> conv1
I0403 14:05:01.455909 29201 net.cpp:141] Setting up conv1
I0403 14:05:01.455987 29201 net.cpp:148] Top shape: 100 96 55 55 (29040000)
I0403 14:05:01.456006 29201 net.cpp:156] Memory required for data: 177996400
I0403 14:05:01.456038 29201 layer_factory.hpp:77] Creating layer relu1
I0403 14:05:01.456068 29201 net.cpp:91] Creating Layer relu1
I0403 14:05:01.456089 29201 net.cpp:425] relu1 <- conv1
I0403 14:05:01.456107 29201 net.cpp:386] relu1 -> conv1 (in-place)
I0403 14:05:01.456383 29201 net.cpp:141] Setting up relu1
I0403 14:05:01.456411 29201 net.cpp:148] Top shape: 100 96 55 55 (29040000)
I0403 14:05:01.456461 29201 net.cpp:156] Memory required for data: 294156400
I0403 14:05:01.456480 29201 layer_factory.hpp:77] Creating layer norm1
I0403 14:05:01.456538 29201 net.cpp:91] Creating Layer norm1
I0403 14:05:01.456562 29201 net.cpp:425] norm1 <- conv1
I0403 14:05:01.456581 29201 net.cpp:399] norm1 -> norm1
I0403 14:05:01.456912 29201 net.cpp:141] Setting up norm1
I0403 14:05:01.456940 29201 net.cpp:148] Top shape: 100 96 55 55 (29040000)
I0403 14:05:01.456957 29201 net.cpp:156] Memory required for data: 410316400
I0403 14:05:01.456974 29201 layer_factory.hpp:77] Creating layer pool1
I0403 14:05:01.457000 29201 net.cpp:91] Creating Layer pool1
I0403 14:05:01.457020 29201 net.cpp:425] pool1 <- norm1
I0403 14:05:01.457039 29201 net.cpp:399] pool1 -> pool1
I0403 14:05:01.457113 29201 net.cpp:141] Setting up pool1
I0403 14:05:01.457137 29201 net.cpp:148] Top shape: 100 96 27 27 (6998400)
I0403 14:05:01.457154 29201 net.cpp:156] Memory required for data: 438310000
I0403 14:05:01.457170 29201 layer_factory.hpp:77] Creating layer conv2
I0403 14:05:01.457196 29201 net.cpp:91] Creating Layer conv2
I0403 14:05:01.457214 29201 net.cpp:425] conv2 <- pool1
I0403 14:05:01.457237 29201 net.cpp:399] conv2 -> conv2
I0403 14:05:01.472545 29201 net.cpp:141] Setting up conv2
I0403 14:05:01.472584 29201 net.cpp:148] Top shape: 100 256 27 27 (18662400)
I0403 14:05:01.472601 29201 net.cpp:156] Memory required for data: 512959600
I0403 14:05:01.472625 29201 layer_factory.hpp:77] Creating layer relu2
I0403 14:05:01.472650 29201 net.cpp:91] Creating Layer relu2
I0403 14:05:01.472667 29201 net.cpp:425] relu2 <- conv2
I0403 14:05:01.472687 29201 net.cpp:386] relu2 -> conv2 (in-place)
I0403 14:05:01.472972 29201 net.cpp:141] Setting up relu2
I0403 14:05:01.473003 29201 net.cpp:148] Top shape: 100 256 27 27 (18662400)
I0403 14:05:01.473021 29201 net.cpp:156] Memory required for data: 587609200
I0403 14:05:01.473037 29201 layer_factory.hpp:77] Creating layer norm2
I0403 14:05:01.473059 29201 net.cpp:91] Creating Layer norm2
I0403 14:05:01.473076 29201 net.cpp:425] norm2 <- conv2
I0403 14:05:01.473098 29201 net.cpp:399] norm2 -> norm2
I0403 14:05:01.473304 29201 net.cpp:141] Setting up norm2
I0403 14:05:01.473330 29201 net.cpp:148] Top shape: 100 256 27 27 (18662400)
I0403 14:05:01.473356 29201 net.cpp:156] Memory required for data: 662258800
I0403 14:05:01.473376 29201 layer_factory.hpp:77] Creating layer pool2
I0403 14:05:01.473399 29201 net.cpp:91] Creating Layer pool2
I0403 14:05:01.473417 29201 net.cpp:425] pool2 <- norm2
I0403 14:05:01.473436 29201 net.cpp:399] pool2 -> pool2
I0403 14:05:01.473492 29201 net.cpp:141] Setting up pool2
I0403 14:05:01.473516 29201 net.cpp:148] Top shape: 100 256 13 13 (4326400)
I0403 14:05:01.473532 29201 net.cpp:156] Memory required for data: 679564400
I0403 14:05:01.473557 29201 layer_factory.hpp:77] Creating layer conv3
I0403 14:05:01.473582 29201 net.cpp:91] Creating Layer conv3
I0403 14:05:01.473628 29201 net.cpp:425] conv3 <- pool2
I0403 14:05:01.473655 29201 net.cpp:399] conv3 -> conv3
I0403 14:05:01.512480 29201 net.cpp:141] Setting up conv3
I0403 14:05:01.512534 29201 net.cpp:148] Top shape: 100 384 13 13 (6489600)
I0403 14:05:01.512552 29201 net.cpp:156] Memory required for data: 705522800
I0403 14:05:01.512580 29201 layer_factory.hpp:77] Creating layer relu3
I0403 14:05:01.512603 29201 net.cpp:91] Creating Layer relu3
I0403 14:05:01.512619 29201 net.cpp:425] relu3 <- conv3
I0403 14:05:01.512636 29201 net.cpp:386] relu3 -> conv3 (in-place)
I0403 14:05:01.512912 29201 net.cpp:141] Setting up relu3
I0403 14:05:01.512940 29201 net.cpp:148] Top shape: 100 384 13 13 (6489600)
I0403 14:05:01.512961 29201 net.cpp:156] Memory required for data: 731481200
I0403 14:05:01.512977 29201 layer_factory.hpp:77] Creating layer conv4
I0403 14:05:01.513000 29201 net.cpp:91] Creating Layer conv4
I0403 14:05:01.513017 29201 net.cpp:425] conv4 <- conv3
I0403 14:05:01.513039 29201 net.cpp:399] conv4 -> conv4
I0403 14:05:01.542383 29201 net.cpp:141] Setting up conv4
I0403 14:05:01.542431 29201 net.cpp:148] Top shape: 100 384 13 13 (6489600)
I0403 14:05:01.542479 29201 net.cpp:156] Memory required for data: 757439600
I0403 14:05:01.542500 29201 layer_factory.hpp:77] Creating layer relu4
I0403 14:05:01.542525 29201 net.cpp:91] Creating Layer relu4
I0403 14:05:01.542543 29201 net.cpp:425] relu4 <- conv4
I0403 14:05:01.542563 29201 net.cpp:386] relu4 -> conv4 (in-place)
I0403 14:05:01.542886 29201 net.cpp:141] Setting up relu4
I0403 14:05:01.542917 29201 net.cpp:148] Top shape: 100 384 13 13 (6489600)
I0403 14:05:01.542932 29201 net.cpp:156] Memory required for data: 783398000
I0403 14:05:01.542948 29201 layer_factory.hpp:77] Creating layer conv5
I0403 14:05:01.542975 29201 net.cpp:91] Creating Layer conv5
I0403 14:05:01.542994 29201 net.cpp:425] conv5 <- conv4
I0403 14:05:01.543016 29201 net.cpp:399] conv5 -> conv5
I0403 14:05:01.563329 29201 net.cpp:141] Setting up conv5
I0403 14:05:01.563375 29201 net.cpp:148] Top shape: 100 256 13 13 (4326400)
I0403 14:05:01.563395 29201 net.cpp:156] Memory required for data: 800703600
I0403 14:05:01.563419 29201 layer_factory.hpp:77] Creating layer relu5
I0403 14:05:01.563446 29201 net.cpp:91] Creating Layer relu5
I0403 14:05:01.563464 29201 net.cpp:425] relu5 <- conv5
I0403 14:05:01.563482 29201 net.cpp:386] relu5 -> conv5 (in-place)
I0403 14:05:01.563756 29201 net.cpp:141] Setting up relu5
I0403 14:05:01.563786 29201 net.cpp:148] Top shape: 100 256 13 13 (4326400)
I0403 14:05:01.563802 29201 net.cpp:156] Memory required for data: 818009200
I0403 14:05:01.563817 29201 layer_factory.hpp:77] Creating layer pool5
I0403 14:05:01.563843 29201 net.cpp:91] Creating Layer pool5
I0403 14:05:01.563859 29201 net.cpp:425] pool5 <- conv5
I0403 14:05:01.563884 29201 net.cpp:399] pool5 -> pool5
I0403 14:05:01.563957 29201 net.cpp:141] Setting up pool5
I0403 14:05:01.563982 29201 net.cpp:148] Top shape: 100 256 6 6 (921600)
I0403 14:05:01.563999 29201 net.cpp:156] Memory required for data: 821695600
I0403 14:05:01.564014 29201 layer_factory.hpp:77] Creating layer fc6
I0403 14:05:01.564044 29201 net.cpp:91] Creating Layer fc6
I0403 14:05:01.564064 29201 net.cpp:425] fc6 <- pool5
I0403 14:05:01.564084 29201 net.cpp:399] fc6 -> fc6
I0403 14:05:03.162686 29201 net.cpp:141] Setting up fc6
I0403 14:05:03.162729 29201 net.cpp:148] Top shape: 100 4096 (409600)
I0403 14:05:03.162745 29201 net.cpp:156] Memory required for data: 823334000
I0403 14:05:03.162767 29201 layer_factory.hpp:77] Creating layer relu6
I0403 14:05:03.162789 29201 net.cpp:91] Creating Layer relu6
I0403 14:05:03.162806 29201 net.cpp:425] relu6 <- fc6
I0403 14:05:03.162828 29201 net.cpp:386] relu6 -> fc6 (in-place)
I0403 14:05:03.163053 29201 net.cpp:141] Setting up relu6
I0403 14:05:03.163091 29201 net.cpp:148] Top shape: 100 4096 (409600)
I0403 14:05:03.163106 29201 net.cpp:156] Memory required for data: 824972400
I0403 14:05:03.163121 29201 layer_factory.hpp:77] Creating layer drop6
I0403 14:05:03.163143 29201 net.cpp:91] Creating Layer drop6
I0403 14:05:03.163161 29201 net.cpp:425] drop6 <- fc6
I0403 14:05:03.163179 29201 net.cpp:386] drop6 -> fc6 (in-place)
I0403 14:05:03.163233 29201 net.cpp:141] Setting up drop6
I0403 14:05:03.163255 29201 net.cpp:148] Top shape: 100 4096 (409600)
I0403 14:05:03.163270 29201 net.cpp:156] Memory required for data: 826610800
I0403 14:05:03.163286 29201 layer_factory.hpp:77] Creating layer fc7
I0403 14:05:03.163307 29201 net.cpp:91] Creating Layer fc7
I0403 14:05:03.163322 29201 net.cpp:425] fc7 <- fc6
I0403 14:05:03.163344 29201 net.cpp:399] fc7 -> fc7
I0403 14:05:03.848345 29201 net.cpp:141] Setting up fc7
I0403 14:05:03.848428 29201 net.cpp:148] Top shape: 100 4096 (409600)
I0403 14:05:03.848445 29201 net.cpp:156] Memory required for data: 828249200
I0403 14:05:03.848469 29201 layer_factory.hpp:77] Creating layer relu7
I0403 14:05:03.848491 29201 net.cpp:91] Creating Layer relu7
I0403 14:05:03.848510 29201 net.cpp:425] relu7 <- fc7
I0403 14:05:03.848529 29201 net.cpp:386] relu7 -> fc7 (in-place)
I0403 14:05:03.848969 29201 net.cpp:141] Setting up relu7
I0403 14:05:03.848997 29201 net.cpp:148] Top shape: 100 4096 (409600)
I0403 14:05:03.849045 29201 net.cpp:156] Memory required for data: 829887600
I0403 14:05:03.849061 29201 layer_factory.hpp:77] Creating layer drop7
I0403 14:05:03.849083 29201 net.cpp:91] Creating Layer drop7
I0403 14:05:03.849102 29201 net.cpp:425] drop7 <- fc7
I0403 14:05:03.849118 29201 net.cpp:386] drop7 -> fc7 (in-place)
I0403 14:05:03.849164 29201 net.cpp:141] Setting up drop7
I0403 14:05:03.849189 29201 net.cpp:148] Top shape: 100 4096 (409600)
I0403 14:05:03.849203 29201 net.cpp:156] Memory required for data: 831526000
I0403 14:05:03.849220 29201 layer_factory.hpp:77] Creating layer fc8_plantvillage
I0403 14:05:03.849241 29201 net.cpp:91] Creating Layer fc8_plantvillage
I0403 14:05:03.849259 29201 net.cpp:425] fc8_plantvillage <- fc7
I0403 14:05:03.849277 29201 net.cpp:399] fc8_plantvillage -> fc8_plantvillage
I0403 14:05:03.856019 29201 net.cpp:141] Setting up fc8_plantvillage
I0403 14:05:03.856050 29201 net.cpp:148] Top shape: 100 38 (3800)
I0403 14:05:03.856066 29201 net.cpp:156] Memory required for data: 831541200
I0403 14:05:03.856087 29201 layer_factory.hpp:77] Creating layer fc8_plantvillage_fc8_plantvillage_0_split
I0403 14:05:03.856108 29201 net.cpp:91] Creating Layer fc8_plantvillage_fc8_plantvillage_0_split
I0403 14:05:03.856125 29201 net.cpp:425] fc8_plantvillage_fc8_plantvillage_0_split <- fc8_plantvillage
I0403 14:05:03.856143 29201 net.cpp:399] fc8_plantvillage_fc8_plantvillage_0_split -> fc8_plantvillage_fc8_plantvillage_0_split_0
I0403 14:05:03.856164 29201 net.cpp:399] fc8_plantvillage_fc8_plantvillage_0_split -> fc8_plantvillage_fc8_plantvillage_0_split_1
I0403 14:05:03.856189 29201 net.cpp:399] fc8_plantvillage_fc8_plantvillage_0_split -> fc8_plantvillage_fc8_plantvillage_0_split_2
I0403 14:05:03.856268 29201 net.cpp:141] Setting up fc8_plantvillage_fc8_plantvillage_0_split
I0403 14:05:03.856292 29201 net.cpp:148] Top shape: 100 38 (3800)
I0403 14:05:03.856309 29201 net.cpp:148] Top shape: 100 38 (3800)
I0403 14:05:03.856325 29201 net.cpp:148] Top shape: 100 38 (3800)
I0403 14:05:03.856340 29201 net.cpp:156] Memory required for data: 831586800
I0403 14:05:03.856377 29201 layer_factory.hpp:77] Creating layer prob
I0403 14:05:03.856400 29201 net.cpp:91] Creating Layer prob
I0403 14:05:03.856418 29201 net.cpp:425] prob <- fc8_plantvillage_fc8_plantvillage_0_split_0
I0403 14:05:03.856438 29201 net.cpp:399] prob -> prob
I0403 14:05:03.856673 29201 net.cpp:141] Setting up prob
I0403 14:05:03.856701 29201 net.cpp:148] Top shape: 100 38 (3800)
I0403 14:05:03.856717 29201 net.cpp:156] Memory required for data: 831602000
I0403 14:05:03.856734 29201 layer_factory.hpp:77] Creating layer hdf5out
I0403 14:05:03.856755 29201 net.cpp:91] Creating Layer hdf5out
I0403 14:05:03.856771 29201 net.cpp:425] hdf5out <- prob
I0403 14:05:03.856788 29201 net.cpp:425] hdf5out <- label_data_1_split_0
I0403 14:05:03.861040 29201 net.cpp:141] Setting up hdf5out
…
