…
I0403 13:41:57.135177 28550 net.cpp:313] The NetState phase (1) differed from the phase (0) specified by a rule in layer data
I0403 13:41:57.135498 28550 net.cpp:49] Initializing net from parameters: 
state {
  phase: TEST
}
layer {
  name: "data"
  type: "Data"
  top: "data"
  top: "label"
  include {
    phase: TEST
  }
  transform_param {
    crop_size: 227
    mean_file: "/home/mohanty/data/final_dataset/lmdb/grayscale-20-80/mean.binaryproto"
  }
  data_param {
    source: "/home/mohanty/data/final_dataset/lmdb/grayscale-20-80/test_db"
    batch_size: 100
    backend: LMDB
  }
}
layer {
  name: "conv1"
  type: "Convolution"
  bottom: "data"
  top: "conv1"
  param {
    lr_mult: 1
    decay_mult: 1
  }
  param {
    lr_mult: 2
    decay_mult: 0
  }
  convolution_param {
    num_output: 96
    kernel_size: 11
    stride: 4
    weight_filler {
      type: "gaussian"
      std: 0.01
    }
    bias_filler {
      type: "constant"
      value: 0
    }
  }
}
layer {
  name: "relu1"
  type: "ReLU"
  bottom: "conv1"
  top: "conv1"
}
layer {
  name: "norm1"
  type: "LRN"
  bottom: "conv1"
  top: "norm1"
  lrn_param {
    local_size: 5
    alpha: 0.0001
    beta: 0.75
  }
}
layer {
  name: "pool1"
  type: "Pooling"
  bottom: "norm1"
  top: "pool1"
  pooling_param {
    pool: MAX
    kernel_size: 3
    stride: 2
  }
}
layer {
  name: "conv2"
  type: "Convolution"
  bottom: "pool1"
  top: "conv2"
  param {
    lr_mult: 1
    decay_mult: 1
  }
  param {
    lr_mult: 2
    decay_mult: 0
  }
  convolution_param {
    num_output: 256
    pad: 2
    kernel_size: 5
    group: 2
    weight_filler {
      type: "gaussian"
      std: 0.01
    }
    bias_filler {
      type: "constant"
      value: 0.1
    }
  }
}
layer {
  name: "relu2"
  type: "ReLU"
  bottom: "conv2"
  top: "conv2"
}
layer {
  name: "norm2"
  type: "LRN"
  bottom: "conv2"
  top: "norm2"
  lrn_param {
    local_size: 5
    alpha: 0.0001
    beta: 0.75
  }
}
layer {
  name: "pool2"
  type: "Pooling"
  bottom: "norm2"
  top: "pool2"
  pooling_param {
    pool: MAX
    kernel_size: 3
    stride: 2
  }
}
layer {
  name: "conv3"
  type: "Convolution"
  bottom: "pool2"
  top: "conv3"
  param {
    lr_mult: 1
    decay_mult: 1
  }
  param {
    lr_mult: 2
    decay_mult: 0
  }
  convolution_param {
    num_output: 384
    pad: 1
    kernel_size: 3
    weight_filler {
      type: "gaussian"
      std: 0.01
    }
    bias_filler {
      type: "constant"
      value: 0
    }
  }
}
layer {
  name: "relu3"
  type: "ReLU"
  bottom: "conv3"
  top: "conv3"
}
layer {
  name: "conv4"
  type: "Convolution"
  bottom: "conv3"
  top: "conv4"
  param {
    lr_mult: 1
    decay_mult: 1
  }
  param {
    lr_mult: 2
    decay_mult: 0
  }
  convolution_param {
    num_output: 384
    pad: 1
    kernel_size: 3
    group: 2
    weight_filler {
      type: "gaussian"
      std: 0.01
    }
    bias_filler {
      type: "constant"
      value: 0.1
    }
  }
}
layer {
  name: "relu4"
  type: "ReLU"
  bottom: "conv4"
  top: "conv4"
}
layer {
  name: "conv5"
  type: "Convolution"
  bottom: "conv4"
  top: "conv5"
  param {
    lr_mult: 1
    decay_mult: 1
  }
  param {
    lr_mult: 2
    decay_mult: 0
  }
  convolution_param {
    num_output: 256
    pad: 1
    kernel_size: 3
    group: 2
    weight_filler {
      type: "gaussian"
      std: 0.01
    }
    bias_filler {
      type: "constant"
      value: 0.1
    }
  }
}
layer {
  name: "relu5"
  type: "ReLU"
  bottom: "conv5"
  top: "conv5"
}
layer {
  name: "pool5"
  type: "Pooling"
  bottom: "conv5"
  top: "pool5"
  pooling_param {
    pool: MAX
    kernel_size: 3
    stride: 2
  }
}
layer {
  name: "fc6"
  type: "InnerProduct"
  bottom: "pool5"
  top: "fc6"
  param {
    lr_mult: 1
    decay_mult: 1
  }
  param {
    lr_mult: 2
    decay_mult: 0
  }
  inner_product_param {
    num_output: 4096
    weight_filler {
      type: "gaussian"
      std: 0.005
    }
    bias_filler {
      type: "constant"
      value: 0.1
    }
  }
}
layer {
  name: "relu6"
  type: "ReLU"
  bottom: "fc6"
  top: "fc6"
}
layer {
  name: "drop6"
  type: "Dropout"
  bottom: "fc6"
  top: "fc6"
  dropout_param {
    dropout_ratio: 0.5
  }
}
layer {
  name: "fc7"
  type: "InnerProduct"
  bottom: "fc6"
  top: "fc7"
  param {
    lr_mult: 1
    decay_mult: 1
  }
  param {
    lr_mult: 2
    decay_mult: 0
  }
  inner_product_param {
    num_output: 4096
    weight_filler {
      type: "gaussian"
      std: 0.005
    }
    bias_filler {
      type: "constant"
      value: 0.1
    }
  }
}
layer {
  name: "relu7"
  type: "ReLU"
  bottom: "fc7"
  top: "fc7"
}
layer {
  name: "drop7"
  type: "Dropout"
  bottom: "fc7"
  top: "fc7"
  dropout_param {
    dropout_ratio: 0.5
  }
}
layer {
  name: "fc8_plantvillage"
  type: "InnerProduct"
  bottom: "fc7"
  top: "fc8_plantvillage"
  param {
    lr_mult: 1
    decay_mult: 1
  }
  param {
    lr_mult: 2
    decay_mult: 0
  }
  inner_product_param {
    num_output: 38
    weight_filler {
      type: "gaussian"
      std: 0.01
    }
    bias_filler {
      type: "constant"
      value: 0
    }
  }
}
layer {
  name: "prob"
  type: "Softmax"
  bottom: "fc8_plantvillage"
  top: "prob"
  include {
    phase: TEST
  }
}
layer {
  name: "hdf5out"
  type: "HDF5Output"
  bottom: "prob"
  bottom: "label"
  include {
    phase: TEST
  }
  hdf5_output_param {
    file_name: "hdf5_dumps/iter_1470.h5"
  }
}
layer {
  name: "loss"
  type: "SoftmaxWithLoss"
  bottom: "fc8_plantvillage"
  bottom: "label"
  top: "loss"
}
layer {
  name: "accuracy"
  type: "Accuracy"
  bottom: "fc8_plantvillage"
  bottom: "label"
  top: "accuracy"
  include {
    phase: TEST
  }
}
I0403 13:41:57.136049 28550 layer_factory.hpp:77] Creating layer data
I0403 13:41:57.136670 28550 net.cpp:91] Creating Layer data
I0403 13:41:57.136703 28550 net.cpp:399] data -> data
I0403 13:41:57.136755 28550 net.cpp:399] data -> label
I0403 13:41:57.136792 28550 data_transformer.cpp:25] Loading mean file from: /home/mohanty/data/final_dataset/lmdb/grayscale-20-80/mean.binaryproto
I0403 13:41:57.140136 28554 db_lmdb.cpp:38] Opened lmdb /home/mohanty/data/final_dataset/lmdb/grayscale-20-80/test_db
I0403 13:41:57.150627 28550 data_layer.cpp:41] output data size: 100,3,227,227
I0403 13:41:57.269418 28550 net.cpp:141] Setting up data
I0403 13:41:57.269511 28550 net.cpp:148] Top shape: 100 3 227 227 (15458700)
I0403 13:41:57.269536 28550 net.cpp:148] Top shape: 100 (100)
I0403 13:41:57.269552 28550 net.cpp:156] Memory required for data: 61835200
I0403 13:41:57.269582 28550 layer_factory.hpp:77] Creating layer label_data_1_split
I0403 13:41:57.269608 28550 net.cpp:91] Creating Layer label_data_1_split
I0403 13:41:57.269626 28550 net.cpp:425] label_data_1_split <- label
I0403 13:41:57.269657 28550 net.cpp:399] label_data_1_split -> label_data_1_split_0
I0403 13:41:57.269687 28550 net.cpp:399] label_data_1_split -> label_data_1_split_1
I0403 13:41:57.269709 28550 net.cpp:399] label_data_1_split -> label_data_1_split_2
I0403 13:41:57.269774 28550 net.cpp:141] Setting up label_data_1_split
I0403 13:41:57.269800 28550 net.cpp:148] Top shape: 100 (100)
I0403 13:41:57.269819 28550 net.cpp:148] Top shape: 100 (100)
I0403 13:41:57.269834 28550 net.cpp:148] Top shape: 100 (100)
I0403 13:41:57.269848 28550 net.cpp:156] Memory required for data: 61836400
I0403 13:41:57.269865 28550 layer_factory.hpp:77] Creating layer conv1
I0403 13:41:57.269896 28550 net.cpp:91] Creating Layer conv1
I0403 13:41:57.269914 28550 net.cpp:425] conv1 <- data
I0403 13:41:57.269934 28550 net.cpp:399] conv1 -> conv1
I0403 13:41:57.406801 28550 net.cpp:141] Setting up conv1
I0403 13:41:57.406878 28550 net.cpp:148] Top shape: 100 96 55 55 (29040000)
I0403 13:41:57.406898 28550 net.cpp:156] Memory required for data: 177996400
I0403 13:41:57.406931 28550 layer_factory.hpp:77] Creating layer relu1
I0403 13:41:57.406960 28550 net.cpp:91] Creating Layer relu1
I0403 13:41:57.406980 28550 net.cpp:425] relu1 <- conv1
I0403 13:41:57.407001 28550 net.cpp:386] relu1 -> conv1 (in-place)
I0403 13:41:57.407268 28550 net.cpp:141] Setting up relu1
I0403 13:41:57.407299 28550 net.cpp:148] Top shape: 100 96 55 55 (29040000)
I0403 13:41:57.407349 28550 net.cpp:156] Memory required for data: 294156400
I0403 13:41:57.407368 28550 layer_factory.hpp:77] Creating layer norm1
I0403 13:41:57.407399 28550 net.cpp:91] Creating Layer norm1
I0403 13:41:57.407419 28550 net.cpp:425] norm1 <- conv1
I0403 13:41:57.407438 28550 net.cpp:399] norm1 -> norm1
I0403 13:41:57.407773 28550 net.cpp:141] Setting up norm1
I0403 13:41:57.407804 28550 net.cpp:148] Top shape: 100 96 55 55 (29040000)
I0403 13:41:57.407819 28550 net.cpp:156] Memory required for data: 410316400
I0403 13:41:57.407835 28550 layer_factory.hpp:77] Creating layer pool1
I0403 13:41:57.407857 28550 net.cpp:91] Creating Layer pool1
I0403 13:41:57.407876 28550 net.cpp:425] pool1 <- norm1
I0403 13:41:57.407897 28550 net.cpp:399] pool1 -> pool1
I0403 13:41:57.407970 28550 net.cpp:141] Setting up pool1
I0403 13:41:57.407996 28550 net.cpp:148] Top shape: 100 96 27 27 (6998400)
I0403 13:41:57.408011 28550 net.cpp:156] Memory required for data: 438310000
I0403 13:41:57.408027 28550 layer_factory.hpp:77] Creating layer conv2
I0403 13:41:57.408061 28550 net.cpp:91] Creating Layer conv2
I0403 13:41:57.408079 28550 net.cpp:425] conv2 <- pool1
I0403 13:41:57.408099 28550 net.cpp:399] conv2 -> conv2
I0403 13:41:57.423005 28550 net.cpp:141] Setting up conv2
I0403 13:41:57.423044 28550 net.cpp:148] Top shape: 100 256 27 27 (18662400)
I0403 13:41:57.423063 28550 net.cpp:156] Memory required for data: 512959600
I0403 13:41:57.423085 28550 layer_factory.hpp:77] Creating layer relu2
I0403 13:41:57.423106 28550 net.cpp:91] Creating Layer relu2
I0403 13:41:57.423125 28550 net.cpp:425] relu2 <- conv2
I0403 13:41:57.423146 28550 net.cpp:386] relu2 -> conv2 (in-place)
I0403 13:41:57.423442 28550 net.cpp:141] Setting up relu2
I0403 13:41:57.423471 28550 net.cpp:148] Top shape: 100 256 27 27 (18662400)
I0403 13:41:57.423488 28550 net.cpp:156] Memory required for data: 587609200
I0403 13:41:57.423504 28550 layer_factory.hpp:77] Creating layer norm2
I0403 13:41:57.423527 28550 net.cpp:91] Creating Layer norm2
I0403 13:41:57.423547 28550 net.cpp:425] norm2 <- conv2
I0403 13:41:57.423565 28550 net.cpp:399] norm2 -> norm2
I0403 13:41:57.423771 28550 net.cpp:141] Setting up norm2
I0403 13:41:57.423799 28550 net.cpp:148] Top shape: 100 256 27 27 (18662400)
I0403 13:41:57.423815 28550 net.cpp:156] Memory required for data: 662258800
I0403 13:41:57.423830 28550 layer_factory.hpp:77] Creating layer pool2
I0403 13:41:57.423849 28550 net.cpp:91] Creating Layer pool2
I0403 13:41:57.423864 28550 net.cpp:425] pool2 <- norm2
I0403 13:41:57.423885 28550 net.cpp:399] pool2 -> pool2
I0403 13:41:57.423941 28550 net.cpp:141] Setting up pool2
I0403 13:41:57.423967 28550 net.cpp:148] Top shape: 100 256 13 13 (4326400)
I0403 13:41:57.423985 28550 net.cpp:156] Memory required for data: 679564400
I0403 13:41:57.424001 28550 layer_factory.hpp:77] Creating layer conv3
I0403 13:41:57.424026 28550 net.cpp:91] Creating Layer conv3
I0403 13:41:57.424046 28550 net.cpp:425] conv3 <- pool2
I0403 13:41:57.424065 28550 net.cpp:399] conv3 -> conv3
I0403 13:41:57.466073 28550 net.cpp:141] Setting up conv3
I0403 13:41:57.466135 28550 net.cpp:148] Top shape: 100 384 13 13 (6489600)
I0403 13:41:57.466155 28550 net.cpp:156] Memory required for data: 705522800
I0403 13:41:57.466181 28550 layer_factory.hpp:77] Creating layer relu3
I0403 13:41:57.466202 28550 net.cpp:91] Creating Layer relu3
I0403 13:41:57.466220 28550 net.cpp:425] relu3 <- conv3
I0403 13:41:57.466243 28550 net.cpp:386] relu3 -> conv3 (in-place)
I0403 13:41:57.466526 28550 net.cpp:141] Setting up relu3
I0403 13:41:57.466554 28550 net.cpp:148] Top shape: 100 384 13 13 (6489600)
I0403 13:41:57.466572 28550 net.cpp:156] Memory required for data: 731481200
I0403 13:41:57.466588 28550 layer_factory.hpp:77] Creating layer conv4
I0403 13:41:57.466614 28550 net.cpp:91] Creating Layer conv4
I0403 13:41:57.466634 28550 net.cpp:425] conv4 <- conv3
I0403 13:41:57.466657 28550 net.cpp:399] conv4 -> conv4
I0403 13:41:57.496245 28550 net.cpp:141] Setting up conv4
I0403 13:41:57.496299 28550 net.cpp:148] Top shape: 100 384 13 13 (6489600)
I0403 13:41:57.496352 28550 net.cpp:156] Memory required for data: 757439600
I0403 13:41:57.496376 28550 layer_factory.hpp:77] Creating layer relu4
I0403 13:41:57.496398 28550 net.cpp:91] Creating Layer relu4
I0403 13:41:57.496415 28550 net.cpp:425] relu4 <- conv4
I0403 13:41:57.496440 28550 net.cpp:386] relu4 -> conv4 (in-place)
I0403 13:41:57.496721 28550 net.cpp:141] Setting up relu4
I0403 13:41:57.496752 28550 net.cpp:148] Top shape: 100 384 13 13 (6489600)
I0403 13:41:57.496769 28550 net.cpp:156] Memory required for data: 783398000
I0403 13:41:57.496785 28550 layer_factory.hpp:77] Creating layer conv5
I0403 13:41:57.496814 28550 net.cpp:91] Creating Layer conv5
I0403 13:41:57.496831 28550 net.cpp:425] conv5 <- conv4
I0403 13:41:57.496852 28550 net.cpp:399] conv5 -> conv5
I0403 13:41:57.524408 28550 net.cpp:141] Setting up conv5
I0403 13:41:57.524449 28550 net.cpp:148] Top shape: 100 256 13 13 (4326400)
I0403 13:41:57.524468 28550 net.cpp:156] Memory required for data: 800703600
I0403 13:41:57.524493 28550 layer_factory.hpp:77] Creating layer relu5
I0403 13:41:57.524515 28550 net.cpp:91] Creating Layer relu5
I0403 13:41:57.524533 28550 net.cpp:425] relu5 <- conv5
I0403 13:41:57.524552 28550 net.cpp:386] relu5 -> conv5 (in-place)
I0403 13:41:57.524830 28550 net.cpp:141] Setting up relu5
I0403 13:41:57.524857 28550 net.cpp:148] Top shape: 100 256 13 13 (4326400)
I0403 13:41:57.524874 28550 net.cpp:156] Memory required for data: 818009200
I0403 13:41:57.524891 28550 layer_factory.hpp:77] Creating layer pool5
I0403 13:41:57.524917 28550 net.cpp:91] Creating Layer pool5
I0403 13:41:57.524935 28550 net.cpp:425] pool5 <- conv5
I0403 13:41:57.524953 28550 net.cpp:399] pool5 -> pool5
I0403 13:41:57.525013 28550 net.cpp:141] Setting up pool5
I0403 13:41:57.525038 28550 net.cpp:148] Top shape: 100 256 6 6 (921600)
I0403 13:41:57.525054 28550 net.cpp:156] Memory required for data: 821695600
I0403 13:41:57.525070 28550 layer_factory.hpp:77] Creating layer fc6
I0403 13:41:57.525096 28550 net.cpp:91] Creating Layer fc6
I0403 13:41:57.525115 28550 net.cpp:425] fc6 <- pool5
I0403 13:41:57.525137 28550 net.cpp:399] fc6 -> fc6
I0403 13:41:59.170536 28550 net.cpp:141] Setting up fc6
I0403 13:41:59.170615 28550 net.cpp:148] Top shape: 100 4096 (409600)
I0403 13:41:59.170634 28550 net.cpp:156] Memory required for data: 823334000
I0403 13:41:59.170658 28550 layer_factory.hpp:77] Creating layer relu6
I0403 13:41:59.170682 28550 net.cpp:91] Creating Layer relu6
I0403 13:41:59.170702 28550 net.cpp:425] relu6 <- fc6
I0403 13:41:59.170723 28550 net.cpp:386] relu6 -> fc6 (in-place)
I0403 13:41:59.170960 28550 net.cpp:141] Setting up relu6
I0403 13:41:59.170987 28550 net.cpp:148] Top shape: 100 4096 (409600)
I0403 13:41:59.171005 28550 net.cpp:156] Memory required for data: 824972400
I0403 13:41:59.171021 28550 layer_factory.hpp:77] Creating layer drop6
I0403 13:41:59.171041 28550 net.cpp:91] Creating Layer drop6
I0403 13:41:59.171059 28550 net.cpp:425] drop6 <- fc6
I0403 13:41:59.171079 28550 net.cpp:386] drop6 -> fc6 (in-place)
I0403 13:41:59.171135 28550 net.cpp:141] Setting up drop6
I0403 13:41:59.171160 28550 net.cpp:148] Top shape: 100 4096 (409600)
I0403 13:41:59.171176 28550 net.cpp:156] Memory required for data: 826610800
I0403 13:41:59.171192 28550 layer_factory.hpp:77] Creating layer fc7
I0403 13:41:59.171217 28550 net.cpp:91] Creating Layer fc7
I0403 13:41:59.171236 28550 net.cpp:425] fc7 <- fc6
I0403 13:41:59.171257 28550 net.cpp:399] fc7 -> fc7
I0403 13:41:59.885246 28550 net.cpp:141] Setting up fc7
I0403 13:41:59.885324 28550 net.cpp:148] Top shape: 100 4096 (409600)
I0403 13:41:59.885344 28550 net.cpp:156] Memory required for data: 828249200
I0403 13:41:59.885371 28550 layer_factory.hpp:77] Creating layer relu7
I0403 13:41:59.885396 28550 net.cpp:91] Creating Layer relu7
I0403 13:41:59.885416 28550 net.cpp:425] relu7 <- fc7
I0403 13:41:59.885439 28550 net.cpp:386] relu7 -> fc7 (in-place)
I0403 13:41:59.885833 28550 net.cpp:141] Setting up relu7
I0403 13:41:59.885861 28550 net.cpp:148] Top shape: 100 4096 (409600)
I0403 13:41:59.885913 28550 net.cpp:156] Memory required for data: 829887600
I0403 13:41:59.885929 28550 layer_factory.hpp:77] Creating layer drop7
I0403 13:41:59.885951 28550 net.cpp:91] Creating Layer drop7
I0403 13:41:59.885969 28550 net.cpp:425] drop7 <- fc7
I0403 13:41:59.885992 28550 net.cpp:386] drop7 -> fc7 (in-place)
I0403 13:41:59.886035 28550 net.cpp:141] Setting up drop7
I0403 13:41:59.886064 28550 net.cpp:148] Top shape: 100 4096 (409600)
I0403 13:41:59.886080 28550 net.cpp:156] Memory required for data: 831526000
I0403 13:41:59.886096 28550 layer_factory.hpp:77] Creating layer fc8_plantvillage
I0403 13:41:59.886116 28550 net.cpp:91] Creating Layer fc8_plantvillage
I0403 13:41:59.886132 28550 net.cpp:425] fc8_plantvillage <- fc7
I0403 13:41:59.886153 28550 net.cpp:399] fc8_plantvillage -> fc8_plantvillage
I0403 13:41:59.893076 28550 net.cpp:141] Setting up fc8_plantvillage
I0403 13:41:59.893105 28550 net.cpp:148] Top shape: 100 38 (3800)
I0403 13:41:59.893123 28550 net.cpp:156] Memory required for data: 831541200
I0403 13:41:59.893143 28550 layer_factory.hpp:77] Creating layer fc8_plantvillage_fc8_plantvillage_0_split
I0403 13:41:59.893164 28550 net.cpp:91] Creating Layer fc8_plantvillage_fc8_plantvillage_0_split
I0403 13:41:59.893182 28550 net.cpp:425] fc8_plantvillage_fc8_plantvillage_0_split <- fc8_plantvillage
I0403 13:41:59.893203 28550 net.cpp:399] fc8_plantvillage_fc8_plantvillage_0_split -> fc8_plantvillage_fc8_plantvillage_0_split_0
I0403 13:41:59.893227 28550 net.cpp:399] fc8_plantvillage_fc8_plantvillage_0_split -> fc8_plantvillage_fc8_plantvillage_0_split_1
I0403 13:41:59.893250 28550 net.cpp:399] fc8_plantvillage_fc8_plantvillage_0_split -> fc8_plantvillage_fc8_plantvillage_0_split_2
I0403 13:41:59.893328 28550 net.cpp:141] Setting up fc8_plantvillage_fc8_plantvillage_0_split
I0403 13:41:59.893370 28550 net.cpp:148] Top shape: 100 38 (3800)
I0403 13:41:59.893393 28550 net.cpp:148] Top shape: 100 38 (3800)
I0403 13:41:59.893409 28550 net.cpp:148] Top shape: 100 38 (3800)
I0403 13:41:59.893424 28550 net.cpp:156] Memory required for data: 831586800
I0403 13:41:59.893440 28550 layer_factory.hpp:77] Creating layer prob
I0403 13:41:59.893460 28550 net.cpp:91] Creating Layer prob
I0403 13:41:59.893478 28550 net.cpp:425] prob <- fc8_plantvillage_fc8_plantvillage_0_split_0
I0403 13:41:59.893497 28550 net.cpp:399] prob -> prob
I0403 13:41:59.893730 28550 net.cpp:141] Setting up prob
I0403 13:41:59.893757 28550 net.cpp:148] Top shape: 100 38 (3800)
I0403 13:41:59.893774 28550 net.cpp:156] Memory required for data: 831602000
I0403 13:41:59.893790 28550 layer_factory.hpp:77] Creating layer hdf5out
I0403 13:41:59.893808 28550 net.cpp:91] Creating Layer hdf5out
I0403 13:41:59.893826 28550 net.cpp:425] hdf5out <- prob
I0403 13:41:59.893846 28550 net.cpp:425] hdf5out <- label_data_1_split_0
I0403 13:41:59.898072 28550 net.cpp:141] Setting up hdf5out
…
