…
I0403 13:43:23.430626 28575 net.cpp:313] The NetState phase (1) differed from the phase (0) specified by a rule in layer data
I0403 13:43:23.430937 28575 net.cpp:49] Initializing net from parameters: 
state {
  phase: TEST
}
layer {
  name: "data"
  type: "Data"
  top: "data"
  top: "label"
  include {
    phase: TEST
  }
  transform_param {
    crop_size: 227
    mean_file: "/home/mohanty/data/final_dataset/lmdb/grayscale-20-80/mean.binaryproto"
  }
  data_param {
    source: "/home/mohanty/data/final_dataset/lmdb/grayscale-20-80/test_db"
    batch_size: 100
    backend: LMDB
  }
}
layer {
  name: "conv1"
  type: "Convolution"
  bottom: "data"
  top: "conv1"
  param {
    lr_mult: 1
    decay_mult: 1
  }
  param {
    lr_mult: 2
    decay_mult: 0
  }
  convolution_param {
    num_output: 96
    kernel_size: 11
    stride: 4
    weight_filler {
      type: "gaussian"
      std: 0.01
    }
    bias_filler {
      type: "constant"
      value: 0
    }
  }
}
layer {
  name: "relu1"
  type: "ReLU"
  bottom: "conv1"
  top: "conv1"
}
layer {
  name: "norm1"
  type: "LRN"
  bottom: "conv1"
  top: "norm1"
  lrn_param {
    local_size: 5
    alpha: 0.0001
    beta: 0.75
  }
}
layer {
  name: "pool1"
  type: "Pooling"
  bottom: "norm1"
  top: "pool1"
  pooling_param {
    pool: MAX
    kernel_size: 3
    stride: 2
  }
}
layer {
  name: "conv2"
  type: "Convolution"
  bottom: "pool1"
  top: "conv2"
  param {
    lr_mult: 1
    decay_mult: 1
  }
  param {
    lr_mult: 2
    decay_mult: 0
  }
  convolution_param {
    num_output: 256
    pad: 2
    kernel_size: 5
    group: 2
    weight_filler {
      type: "gaussian"
      std: 0.01
    }
    bias_filler {
      type: "constant"
      value: 0.1
    }
  }
}
layer {
  name: "relu2"
  type: "ReLU"
  bottom: "conv2"
  top: "conv2"
}
layer {
  name: "norm2"
  type: "LRN"
  bottom: "conv2"
  top: "norm2"
  lrn_param {
    local_size: 5
    alpha: 0.0001
    beta: 0.75
  }
}
layer {
  name: "pool2"
  type: "Pooling"
  bottom: "norm2"
  top: "pool2"
  pooling_param {
    pool: MAX
    kernel_size: 3
    stride: 2
  }
}
layer {
  name: "conv3"
  type: "Convolution"
  bottom: "pool2"
  top: "conv3"
  param {
    lr_mult: 1
    decay_mult: 1
  }
  param {
    lr_mult: 2
    decay_mult: 0
  }
  convolution_param {
    num_output: 384
    pad: 1
    kernel_size: 3
    weight_filler {
      type: "gaussian"
      std: 0.01
    }
    bias_filler {
      type: "constant"
      value: 0
    }
  }
}
layer {
  name: "relu3"
  type: "ReLU"
  bottom: "conv3"
  top: "conv3"
}
layer {
  name: "conv4"
  type: "Convolution"
  bottom: "conv3"
  top: "conv4"
  param {
    lr_mult: 1
    decay_mult: 1
  }
  param {
    lr_mult: 2
    decay_mult: 0
  }
  convolution_param {
    num_output: 384
    pad: 1
    kernel_size: 3
    group: 2
    weight_filler {
      type: "gaussian"
      std: 0.01
    }
    bias_filler {
      type: "constant"
      value: 0.1
    }
  }
}
layer {
  name: "relu4"
  type: "ReLU"
  bottom: "conv4"
  top: "conv4"
}
layer {
  name: "conv5"
  type: "Convolution"
  bottom: "conv4"
  top: "conv5"
  param {
    lr_mult: 1
    decay_mult: 1
  }
  param {
    lr_mult: 2
    decay_mult: 0
  }
  convolution_param {
    num_output: 256
    pad: 1
    kernel_size: 3
    group: 2
    weight_filler {
      type: "gaussian"
      std: 0.01
    }
    bias_filler {
      type: "constant"
      value: 0.1
    }
  }
}
layer {
  name: "relu5"
  type: "ReLU"
  bottom: "conv5"
  top: "conv5"
}
layer {
  name: "pool5"
  type: "Pooling"
  bottom: "conv5"
  top: "pool5"
  pooling_param {
    pool: MAX
    kernel_size: 3
    stride: 2
  }
}
layer {
  name: "fc6"
  type: "InnerProduct"
  bottom: "pool5"
  top: "fc6"
  param {
    lr_mult: 1
    decay_mult: 1
  }
  param {
    lr_mult: 2
    decay_mult: 0
  }
  inner_product_param {
    num_output: 4096
    weight_filler {
      type: "gaussian"
      std: 0.005
    }
    bias_filler {
      type: "constant"
      value: 0.1
    }
  }
}
layer {
  name: "relu6"
  type: "ReLU"
  bottom: "fc6"
  top: "fc6"
}
layer {
  name: "drop6"
  type: "Dropout"
  bottom: "fc6"
  top: "fc6"
  dropout_param {
    dropout_ratio: 0.5
  }
}
layer {
  name: "fc7"
  type: "InnerProduct"
  bottom: "fc6"
  top: "fc7"
  param {
    lr_mult: 1
    decay_mult: 1
  }
  param {
    lr_mult: 2
    decay_mult: 0
  }
  inner_product_param {
    num_output: 4096
    weight_filler {
      type: "gaussian"
      std: 0.005
    }
    bias_filler {
      type: "constant"
      value: 0.1
    }
  }
}
layer {
  name: "relu7"
  type: "ReLU"
  bottom: "fc7"
  top: "fc7"
}
layer {
  name: "drop7"
  type: "Dropout"
  bottom: "fc7"
  top: "fc7"
  dropout_param {
    dropout_ratio: 0.5
  }
}
layer {
  name: "fc8_plantvillage"
  type: "InnerProduct"
  bottom: "fc7"
  top: "fc8_plantvillage"
  param {
    lr_mult: 1
    decay_mult: 1
  }
  param {
    lr_mult: 2
    decay_mult: 0
  }
  inner_product_param {
    num_output: 38
    weight_filler {
      type: "gaussian"
      std: 0.01
    }
    bias_filler {
      type: "constant"
      value: 0
    }
  }
}
layer {
  name: "prob"
  type: "Softmax"
  bottom: "fc8_plantvillage"
  top: "prob"
  include {
    phase: TEST
  }
}
layer {
  name: "hdf5out"
  type: "HDF5Output"
  bottom: "prob"
  bottom: "label"
  include {
    phase: TEST
  }
  hdf5_output_param {
    file_name: "hdf5_dumps/iter_1575.h5"
  }
}
layer {
  name: "loss"
  type: "SoftmaxWithLoss"
  bottom: "fc8_plantvillage"
  bottom: "label"
  top: "loss"
}
layer {
  name: "accuracy"
  type: "Accuracy"
  bottom: "fc8_plantvillage"
  bottom: "label"
  top: "accuracy"
  include {
    phase: TEST
  }
}
I0403 13:43:23.431535 28575 layer_factory.hpp:77] Creating layer data
I0403 13:43:23.432150 28575 net.cpp:91] Creating Layer data
I0403 13:43:23.432181 28575 net.cpp:399] data -> data
I0403 13:43:23.432230 28575 net.cpp:399] data -> label
I0403 13:43:23.432270 28575 data_transformer.cpp:25] Loading mean file from: /home/mohanty/data/final_dataset/lmdb/grayscale-20-80/mean.binaryproto
I0403 13:43:23.436892 28580 db_lmdb.cpp:38] Opened lmdb /home/mohanty/data/final_dataset/lmdb/grayscale-20-80/test_db
I0403 13:43:23.446316 28575 data_layer.cpp:41] output data size: 100,3,227,227
I0403 13:43:23.568899 28575 net.cpp:141] Setting up data
I0403 13:43:23.568990 28575 net.cpp:148] Top shape: 100 3 227 227 (15458700)
I0403 13:43:23.569015 28575 net.cpp:148] Top shape: 100 (100)
I0403 13:43:23.569031 28575 net.cpp:156] Memory required for data: 61835200
I0403 13:43:23.569072 28575 layer_factory.hpp:77] Creating layer label_data_1_split
I0403 13:43:23.569099 28575 net.cpp:91] Creating Layer label_data_1_split
I0403 13:43:23.569118 28575 net.cpp:425] label_data_1_split <- label
I0403 13:43:23.569150 28575 net.cpp:399] label_data_1_split -> label_data_1_split_0
I0403 13:43:23.569180 28575 net.cpp:399] label_data_1_split -> label_data_1_split_1
I0403 13:43:23.569202 28575 net.cpp:399] label_data_1_split -> label_data_1_split_2
I0403 13:43:23.569267 28575 net.cpp:141] Setting up label_data_1_split
I0403 13:43:23.569291 28575 net.cpp:148] Top shape: 100 (100)
I0403 13:43:23.569308 28575 net.cpp:148] Top shape: 100 (100)
I0403 13:43:23.569325 28575 net.cpp:148] Top shape: 100 (100)
I0403 13:43:23.569340 28575 net.cpp:156] Memory required for data: 61836400
I0403 13:43:23.569365 28575 layer_factory.hpp:77] Creating layer conv1
I0403 13:43:23.569398 28575 net.cpp:91] Creating Layer conv1
I0403 13:43:23.569419 28575 net.cpp:425] conv1 <- data
I0403 13:43:23.569440 28575 net.cpp:399] conv1 -> conv1
I0403 13:43:23.712754 28575 net.cpp:141] Setting up conv1
I0403 13:43:23.712831 28575 net.cpp:148] Top shape: 100 96 55 55 (29040000)
I0403 13:43:23.712849 28575 net.cpp:156] Memory required for data: 177996400
I0403 13:43:23.712882 28575 layer_factory.hpp:77] Creating layer relu1
I0403 13:43:23.712910 28575 net.cpp:91] Creating Layer relu1
I0403 13:43:23.712930 28575 net.cpp:425] relu1 <- conv1
I0403 13:43:23.712950 28575 net.cpp:386] relu1 -> conv1 (in-place)
I0403 13:43:23.713218 28575 net.cpp:141] Setting up relu1
I0403 13:43:23.713248 28575 net.cpp:148] Top shape: 100 96 55 55 (29040000)
I0403 13:43:23.713294 28575 net.cpp:156] Memory required for data: 294156400
I0403 13:43:23.713312 28575 layer_factory.hpp:77] Creating layer norm1
I0403 13:43:23.713340 28575 net.cpp:91] Creating Layer norm1
I0403 13:43:23.713374 28575 net.cpp:425] norm1 <- conv1
I0403 13:43:23.713395 28575 net.cpp:399] norm1 -> norm1
I0403 13:43:23.713712 28575 net.cpp:141] Setting up norm1
I0403 13:43:23.713742 28575 net.cpp:148] Top shape: 100 96 55 55 (29040000)
I0403 13:43:23.713770 28575 net.cpp:156] Memory required for data: 410316400
I0403 13:43:23.713785 28575 layer_factory.hpp:77] Creating layer pool1
I0403 13:43:23.713809 28575 net.cpp:91] Creating Layer pool1
I0403 13:43:23.713825 28575 net.cpp:425] pool1 <- norm1
I0403 13:43:23.713843 28575 net.cpp:399] pool1 -> pool1
I0403 13:43:23.713909 28575 net.cpp:141] Setting up pool1
I0403 13:43:23.713934 28575 net.cpp:148] Top shape: 100 96 27 27 (6998400)
I0403 13:43:23.713950 28575 net.cpp:156] Memory required for data: 438310000
I0403 13:43:23.713965 28575 layer_factory.hpp:77] Creating layer conv2
I0403 13:43:23.713989 28575 net.cpp:91] Creating Layer conv2
I0403 13:43:23.714005 28575 net.cpp:425] conv2 <- pool1
I0403 13:43:23.714023 28575 net.cpp:399] conv2 -> conv2
I0403 13:43:23.729022 28575 net.cpp:141] Setting up conv2
I0403 13:43:23.729069 28575 net.cpp:148] Top shape: 100 256 27 27 (18662400)
I0403 13:43:23.729089 28575 net.cpp:156] Memory required for data: 512959600
I0403 13:43:23.729112 28575 layer_factory.hpp:77] Creating layer relu2
I0403 13:43:23.729133 28575 net.cpp:91] Creating Layer relu2
I0403 13:43:23.729149 28575 net.cpp:425] relu2 <- conv2
I0403 13:43:23.729167 28575 net.cpp:386] relu2 -> conv2 (in-place)
I0403 13:43:23.729467 28575 net.cpp:141] Setting up relu2
I0403 13:43:23.729495 28575 net.cpp:148] Top shape: 100 256 27 27 (18662400)
I0403 13:43:23.729511 28575 net.cpp:156] Memory required for data: 587609200
I0403 13:43:23.729527 28575 layer_factory.hpp:77] Creating layer norm2
I0403 13:43:23.729550 28575 net.cpp:91] Creating Layer norm2
I0403 13:43:23.729568 28575 net.cpp:425] norm2 <- conv2
I0403 13:43:23.729585 28575 net.cpp:399] norm2 -> norm2
I0403 13:43:23.729773 28575 net.cpp:141] Setting up norm2
I0403 13:43:23.729801 28575 net.cpp:148] Top shape: 100 256 27 27 (18662400)
I0403 13:43:23.729817 28575 net.cpp:156] Memory required for data: 662258800
I0403 13:43:23.729832 28575 layer_factory.hpp:77] Creating layer pool2
I0403 13:43:23.729862 28575 net.cpp:91] Creating Layer pool2
I0403 13:43:23.729881 28575 net.cpp:425] pool2 <- norm2
I0403 13:43:23.729899 28575 net.cpp:399] pool2 -> pool2
I0403 13:43:23.729954 28575 net.cpp:141] Setting up pool2
I0403 13:43:23.729977 28575 net.cpp:148] Top shape: 100 256 13 13 (4326400)
I0403 13:43:23.729993 28575 net.cpp:156] Memory required for data: 679564400
I0403 13:43:23.730010 28575 layer_factory.hpp:77] Creating layer conv3
I0403 13:43:23.730033 28575 net.cpp:91] Creating Layer conv3
I0403 13:43:23.730052 28575 net.cpp:425] conv3 <- pool2
I0403 13:43:23.730072 28575 net.cpp:399] conv3 -> conv3
I0403 13:43:23.768610 28575 net.cpp:141] Setting up conv3
I0403 13:43:23.768682 28575 net.cpp:148] Top shape: 100 384 13 13 (6489600)
I0403 13:43:23.768700 28575 net.cpp:156] Memory required for data: 705522800
I0403 13:43:23.768730 28575 layer_factory.hpp:77] Creating layer relu3
I0403 13:43:23.768754 28575 net.cpp:91] Creating Layer relu3
I0403 13:43:23.768771 28575 net.cpp:425] relu3 <- conv3
I0403 13:43:23.768792 28575 net.cpp:386] relu3 -> conv3 (in-place)
I0403 13:43:23.769074 28575 net.cpp:141] Setting up relu3
I0403 13:43:23.769105 28575 net.cpp:148] Top shape: 100 384 13 13 (6489600)
I0403 13:43:23.769122 28575 net.cpp:156] Memory required for data: 731481200
I0403 13:43:23.769137 28575 layer_factory.hpp:77] Creating layer conv4
I0403 13:43:23.769165 28575 net.cpp:91] Creating Layer conv4
I0403 13:43:23.769184 28575 net.cpp:425] conv4 <- conv3
I0403 13:43:23.769203 28575 net.cpp:399] conv4 -> conv4
I0403 13:43:23.800132 28575 net.cpp:141] Setting up conv4
I0403 13:43:23.800204 28575 net.cpp:148] Top shape: 100 384 13 13 (6489600)
I0403 13:43:23.800249 28575 net.cpp:156] Memory required for data: 757439600
I0403 13:43:23.800307 28575 layer_factory.hpp:77] Creating layer relu4
I0403 13:43:23.800334 28575 net.cpp:91] Creating Layer relu4
I0403 13:43:23.800359 28575 net.cpp:425] relu4 <- conv4
I0403 13:43:23.800380 28575 net.cpp:386] relu4 -> conv4 (in-place)
I0403 13:43:23.800667 28575 net.cpp:141] Setting up relu4
I0403 13:43:23.800695 28575 net.cpp:148] Top shape: 100 384 13 13 (6489600)
I0403 13:43:23.800711 28575 net.cpp:156] Memory required for data: 783398000
I0403 13:43:23.800726 28575 layer_factory.hpp:77] Creating layer conv5
I0403 13:43:23.800755 28575 net.cpp:91] Creating Layer conv5
I0403 13:43:23.800772 28575 net.cpp:425] conv5 <- conv4
I0403 13:43:23.800794 28575 net.cpp:399] conv5 -> conv5
I0403 13:43:23.821777 28575 net.cpp:141] Setting up conv5
I0403 13:43:23.821835 28575 net.cpp:148] Top shape: 100 256 13 13 (4326400)
I0403 13:43:23.821854 28575 net.cpp:156] Memory required for data: 800703600
I0403 13:43:23.821880 28575 layer_factory.hpp:77] Creating layer relu5
I0403 13:43:23.821902 28575 net.cpp:91] Creating Layer relu5
I0403 13:43:23.821919 28575 net.cpp:425] relu5 <- conv5
I0403 13:43:23.821938 28575 net.cpp:386] relu5 -> conv5 (in-place)
I0403 13:43:23.822224 28575 net.cpp:141] Setting up relu5
I0403 13:43:23.822255 28575 net.cpp:148] Top shape: 100 256 13 13 (4326400)
I0403 13:43:23.822273 28575 net.cpp:156] Memory required for data: 818009200
I0403 13:43:23.822289 28575 layer_factory.hpp:77] Creating layer pool5
I0403 13:43:23.822311 28575 net.cpp:91] Creating Layer pool5
I0403 13:43:23.822329 28575 net.cpp:425] pool5 <- conv5
I0403 13:43:23.822355 28575 net.cpp:399] pool5 -> pool5
I0403 13:43:23.822422 28575 net.cpp:141] Setting up pool5
I0403 13:43:23.822448 28575 net.cpp:148] Top shape: 100 256 6 6 (921600)
I0403 13:43:23.822463 28575 net.cpp:156] Memory required for data: 821695600
I0403 13:43:23.822479 28575 layer_factory.hpp:77] Creating layer fc6
I0403 13:43:23.822510 28575 net.cpp:91] Creating Layer fc6
I0403 13:43:23.822530 28575 net.cpp:425] fc6 <- pool5
I0403 13:43:23.822551 28575 net.cpp:399] fc6 -> fc6
I0403 13:43:25.391289 28575 net.cpp:141] Setting up fc6
I0403 13:43:25.391360 28575 net.cpp:148] Top shape: 100 4096 (409600)
I0403 13:43:25.391378 28575 net.cpp:156] Memory required for data: 823334000
I0403 13:43:25.391402 28575 layer_factory.hpp:77] Creating layer relu6
I0403 13:43:25.391428 28575 net.cpp:91] Creating Layer relu6
I0403 13:43:25.391448 28575 net.cpp:425] relu6 <- fc6
I0403 13:43:25.391469 28575 net.cpp:386] relu6 -> fc6 (in-place)
I0403 13:43:25.391693 28575 net.cpp:141] Setting up relu6
I0403 13:43:25.391732 28575 net.cpp:148] Top shape: 100 4096 (409600)
I0403 13:43:25.391747 28575 net.cpp:156] Memory required for data: 824972400
I0403 13:43:25.391762 28575 layer_factory.hpp:77] Creating layer drop6
I0403 13:43:25.391782 28575 net.cpp:91] Creating Layer drop6
I0403 13:43:25.391796 28575 net.cpp:425] drop6 <- fc6
I0403 13:43:25.391814 28575 net.cpp:386] drop6 -> fc6 (in-place)
I0403 13:43:25.391865 28575 net.cpp:141] Setting up drop6
I0403 13:43:25.391887 28575 net.cpp:148] Top shape: 100 4096 (409600)
I0403 13:43:25.391902 28575 net.cpp:156] Memory required for data: 826610800
I0403 13:43:25.391917 28575 layer_factory.hpp:77] Creating layer fc7
I0403 13:43:25.391940 28575 net.cpp:91] Creating Layer fc7
I0403 13:43:25.391957 28575 net.cpp:425] fc7 <- fc6
I0403 13:43:25.391974 28575 net.cpp:399] fc7 -> fc7
I0403 13:43:26.078979 28575 net.cpp:141] Setting up fc7
I0403 13:43:26.079057 28575 net.cpp:148] Top shape: 100 4096 (409600)
I0403 13:43:26.079077 28575 net.cpp:156] Memory required for data: 828249200
I0403 13:43:26.079099 28575 layer_factory.hpp:77] Creating layer relu7
I0403 13:43:26.079123 28575 net.cpp:91] Creating Layer relu7
I0403 13:43:26.079144 28575 net.cpp:425] relu7 <- fc7
I0403 13:43:26.079164 28575 net.cpp:386] relu7 -> fc7 (in-place)
I0403 13:43:26.079572 28575 net.cpp:141] Setting up relu7
I0403 13:43:26.079602 28575 net.cpp:148] Top shape: 100 4096 (409600)
I0403 13:43:26.079651 28575 net.cpp:156] Memory required for data: 829887600
I0403 13:43:26.079668 28575 layer_factory.hpp:77] Creating layer drop7
I0403 13:43:26.079687 28575 net.cpp:91] Creating Layer drop7
I0403 13:43:26.079702 28575 net.cpp:425] drop7 <- fc7
I0403 13:43:26.079721 28575 net.cpp:386] drop7 -> fc7 (in-place)
I0403 13:43:26.079766 28575 net.cpp:141] Setting up drop7
I0403 13:43:26.079790 28575 net.cpp:148] Top shape: 100 4096 (409600)
I0403 13:43:26.079807 28575 net.cpp:156] Memory required for data: 831526000
I0403 13:43:26.079821 28575 layer_factory.hpp:77] Creating layer fc8_plantvillage
I0403 13:43:26.079844 28575 net.cpp:91] Creating Layer fc8_plantvillage
I0403 13:43:26.079860 28575 net.cpp:425] fc8_plantvillage <- fc7
I0403 13:43:26.079879 28575 net.cpp:399] fc8_plantvillage -> fc8_plantvillage
I0403 13:43:26.086649 28575 net.cpp:141] Setting up fc8_plantvillage
I0403 13:43:26.086679 28575 net.cpp:148] Top shape: 100 38 (3800)
I0403 13:43:26.086695 28575 net.cpp:156] Memory required for data: 831541200
I0403 13:43:26.086715 28575 layer_factory.hpp:77] Creating layer fc8_plantvillage_fc8_plantvillage_0_split
I0403 13:43:26.086735 28575 net.cpp:91] Creating Layer fc8_plantvillage_fc8_plantvillage_0_split
I0403 13:43:26.086751 28575 net.cpp:425] fc8_plantvillage_fc8_plantvillage_0_split <- fc8_plantvillage
I0403 13:43:26.086771 28575 net.cpp:399] fc8_plantvillage_fc8_plantvillage_0_split -> fc8_plantvillage_fc8_plantvillage_0_split_0
I0403 13:43:26.086808 28575 net.cpp:399] fc8_plantvillage_fc8_plantvillage_0_split -> fc8_plantvillage_fc8_plantvillage_0_split_1
I0403 13:43:26.086832 28575 net.cpp:399] fc8_plantvillage_fc8_plantvillage_0_split -> fc8_plantvillage_fc8_plantvillage_0_split_2
I0403 13:43:26.086910 28575 net.cpp:141] Setting up fc8_plantvillage_fc8_plantvillage_0_split
I0403 13:43:26.086932 28575 net.cpp:148] Top shape: 100 38 (3800)
I0403 13:43:26.086949 28575 net.cpp:148] Top shape: 100 38 (3800)
I0403 13:43:26.086964 28575 net.cpp:148] Top shape: 100 38 (3800)
I0403 13:43:26.086979 28575 net.cpp:156] Memory required for data: 831586800
I0403 13:43:26.086994 28575 layer_factory.hpp:77] Creating layer prob
I0403 13:43:26.087013 28575 net.cpp:91] Creating Layer prob
I0403 13:43:26.087029 28575 net.cpp:425] prob <- fc8_plantvillage_fc8_plantvillage_0_split_0
I0403 13:43:26.087049 28575 net.cpp:399] prob -> prob
I0403 13:43:26.087271 28575 net.cpp:141] Setting up prob
I0403 13:43:26.087298 28575 net.cpp:148] Top shape: 100 38 (3800)
I0403 13:43:26.087314 28575 net.cpp:156] Memory required for data: 831602000
I0403 13:43:26.087330 28575 layer_factory.hpp:77] Creating layer hdf5out
I0403 13:43:26.087357 28575 net.cpp:91] Creating Layer hdf5out
I0403 13:43:26.087378 28575 net.cpp:425] hdf5out <- prob
I0403 13:43:26.087394 28575 net.cpp:425] hdf5out <- label_data_1_split_0
I0403 13:43:26.091336 28575 net.cpp:141] Setting up hdf5out
…
