…
I0403 14:00:41.404109 28985 net.cpp:313] The NetState phase (1) differed from the phase (0) specified by a rule in layer data
I0403 14:00:41.404419 28985 net.cpp:49] Initializing net from parameters: 
state {
  phase: TEST
}
layer {
  name: "data"
  type: "Data"
  top: "data"
  top: "label"
  include {
    phase: TEST
  }
  transform_param {
    crop_size: 227
    mean_file: "/home/mohanty/data/final_dataset/lmdb/grayscale-20-80/mean.binaryproto"
  }
  data_param {
    source: "/home/mohanty/data/final_dataset/lmdb/grayscale-20-80/test_db"
    batch_size: 100
    backend: LMDB
  }
}
layer {
  name: "conv1"
  type: "Convolution"
  bottom: "data"
  top: "conv1"
  param {
    lr_mult: 1
    decay_mult: 1
  }
  param {
    lr_mult: 2
    decay_mult: 0
  }
  convolution_param {
    num_output: 96
    kernel_size: 11
    stride: 4
    weight_filler {
      type: "gaussian"
      std: 0.01
    }
    bias_filler {
      type: "constant"
      value: 0
    }
  }
}
layer {
  name: "relu1"
  type: "ReLU"
  bottom: "conv1"
  top: "conv1"
}
layer {
  name: "norm1"
  type: "LRN"
  bottom: "conv1"
  top: "norm1"
  lrn_param {
    local_size: 5
    alpha: 0.0001
    beta: 0.75
  }
}
layer {
  name: "pool1"
  type: "Pooling"
  bottom: "norm1"
  top: "pool1"
  pooling_param {
    pool: MAX
    kernel_size: 3
    stride: 2
  }
}
layer {
  name: "conv2"
  type: "Convolution"
  bottom: "pool1"
  top: "conv2"
  param {
    lr_mult: 1
    decay_mult: 1
  }
  param {
    lr_mult: 2
    decay_mult: 0
  }
  convolution_param {
    num_output: 256
    pad: 2
    kernel_size: 5
    group: 2
    weight_filler {
      type: "gaussian"
      std: 0.01
    }
    bias_filler {
      type: "constant"
      value: 0.1
    }
  }
}
layer {
  name: "relu2"
  type: "ReLU"
  bottom: "conv2"
  top: "conv2"
}
layer {
  name: "norm2"
  type: "LRN"
  bottom: "conv2"
  top: "norm2"
  lrn_param {
    local_size: 5
    alpha: 0.0001
    beta: 0.75
  }
}
layer {
  name: "pool2"
  type: "Pooling"
  bottom: "norm2"
  top: "pool2"
  pooling_param {
    pool: MAX
    kernel_size: 3
    stride: 2
  }
}
layer {
  name: "conv3"
  type: "Convolution"
  bottom: "pool2"
  top: "conv3"
  param {
    lr_mult: 1
    decay_mult: 1
  }
  param {
    lr_mult: 2
    decay_mult: 0
  }
  convolution_param {
    num_output: 384
    pad: 1
    kernel_size: 3
    weight_filler {
      type: "gaussian"
      std: 0.01
    }
    bias_filler {
      type: "constant"
      value: 0
    }
  }
}
layer {
  name: "relu3"
  type: "ReLU"
  bottom: "conv3"
  top: "conv3"
}
layer {
  name: "conv4"
  type: "Convolution"
  bottom: "conv3"
  top: "conv4"
  param {
    lr_mult: 1
    decay_mult: 1
  }
  param {
    lr_mult: 2
    decay_mult: 0
  }
  convolution_param {
    num_output: 384
    pad: 1
    kernel_size: 3
    group: 2
    weight_filler {
      type: "gaussian"
      std: 0.01
    }
    bias_filler {
      type: "constant"
      value: 0.1
    }
  }
}
layer {
  name: "relu4"
  type: "ReLU"
  bottom: "conv4"
  top: "conv4"
}
layer {
  name: "conv5"
  type: "Convolution"
  bottom: "conv4"
  top: "conv5"
  param {
    lr_mult: 1
    decay_mult: 1
  }
  param {
    lr_mult: 2
    decay_mult: 0
  }
  convolution_param {
    num_output: 256
    pad: 1
    kernel_size: 3
    group: 2
    weight_filler {
      type: "gaussian"
      std: 0.01
    }
    bias_filler {
      type: "constant"
      value: 0.1
    }
  }
}
layer {
  name: "relu5"
  type: "ReLU"
  bottom: "conv5"
  top: "conv5"
}
layer {
  name: "pool5"
  type: "Pooling"
  bottom: "conv5"
  top: "pool5"
  pooling_param {
    pool: MAX
    kernel_size: 3
    stride: 2
  }
}
layer {
  name: "fc6"
  type: "InnerProduct"
  bottom: "pool5"
  top: "fc6"
  param {
    lr_mult: 1
    decay_mult: 1
  }
  param {
    lr_mult: 2
    decay_mult: 0
  }
  inner_product_param {
    num_output: 4096
    weight_filler {
      type: "gaussian"
      std: 0.005
    }
    bias_filler {
      type: "constant"
      value: 0.1
    }
  }
}
layer {
  name: "relu6"
  type: "ReLU"
  bottom: "fc6"
  top: "fc6"
}
layer {
  name: "drop6"
  type: "Dropout"
  bottom: "fc6"
  top: "fc6"
  dropout_param {
    dropout_ratio: 0.5
  }
}
layer {
  name: "fc7"
  type: "InnerProduct"
  bottom: "fc6"
  top: "fc7"
  param {
    lr_mult: 1
    decay_mult: 1
  }
  param {
    lr_mult: 2
    decay_mult: 0
  }
  inner_product_param {
    num_output: 4096
    weight_filler {
      type: "gaussian"
      std: 0.005
    }
    bias_filler {
      type: "constant"
      value: 0.1
    }
  }
}
layer {
  name: "relu7"
  type: "ReLU"
  bottom: "fc7"
  top: "fc7"
}
layer {
  name: "drop7"
  type: "Dropout"
  bottom: "fc7"
  top: "fc7"
  dropout_param {
    dropout_ratio: 0.5
  }
}
layer {
  name: "fc8_plantvillage"
  type: "InnerProduct"
  bottom: "fc7"
  top: "fc8_plantvillage"
  param {
    lr_mult: 1
    decay_mult: 1
  }
  param {
    lr_mult: 2
    decay_mult: 0
  }
  inner_product_param {
    num_output: 38
    weight_filler {
      type: "gaussian"
      std: 0.01
    }
    bias_filler {
      type: "constant"
      value: 0
    }
  }
}
layer {
  name: "prob"
  type: "Softmax"
  bottom: "fc8_plantvillage"
  top: "prob"
  include {
    phase: TEST
  }
}
layer {
  name: "hdf5out"
  type: "HDF5Output"
  bottom: "prob"
  bottom: "label"
  include {
    phase: TEST
  }
  hdf5_output_param {
    file_name: "hdf5_dumps/iter_2835.h5"
  }
}
layer {
  name: "loss"
  type: "SoftmaxWithLoss"
  bottom: "fc8_plantvillage"
  bottom: "label"
  top: "loss"
}
layer {
  name: "accuracy"
  type: "Accuracy"
  bottom: "fc8_plantvillage"
  bottom: "label"
  top: "accuracy"
  include {
    phase: TEST
  }
}
I0403 14:00:41.404956 28985 layer_factory.hpp:77] Creating layer data
I0403 14:00:41.405591 28985 net.cpp:91] Creating Layer data
I0403 14:00:41.405625 28985 net.cpp:399] data -> data
I0403 14:00:41.405678 28985 net.cpp:399] data -> label
I0403 14:00:41.405715 28985 data_transformer.cpp:25] Loading mean file from: /home/mohanty/data/final_dataset/lmdb/grayscale-20-80/mean.binaryproto
I0403 14:00:41.410295 28988 db_lmdb.cpp:38] Opened lmdb /home/mohanty/data/final_dataset/lmdb/grayscale-20-80/test_db
I0403 14:00:41.419644 28985 data_layer.cpp:41] output data size: 100,3,227,227
I0403 14:00:41.541312 28985 net.cpp:141] Setting up data
I0403 14:00:41.541391 28985 net.cpp:148] Top shape: 100 3 227 227 (15458700)
I0403 14:00:41.541416 28985 net.cpp:148] Top shape: 100 (100)
I0403 14:00:41.541434 28985 net.cpp:156] Memory required for data: 61835200
I0403 14:00:41.541463 28985 layer_factory.hpp:77] Creating layer label_data_1_split
I0403 14:00:41.541489 28985 net.cpp:91] Creating Layer label_data_1_split
I0403 14:00:41.541509 28985 net.cpp:425] label_data_1_split <- label
I0403 14:00:41.541543 28985 net.cpp:399] label_data_1_split -> label_data_1_split_0
I0403 14:00:41.541571 28985 net.cpp:399] label_data_1_split -> label_data_1_split_1
I0403 14:00:41.541594 28985 net.cpp:399] label_data_1_split -> label_data_1_split_2
I0403 14:00:41.541661 28985 net.cpp:141] Setting up label_data_1_split
I0403 14:00:41.541687 28985 net.cpp:148] Top shape: 100 (100)
I0403 14:00:41.541704 28985 net.cpp:148] Top shape: 100 (100)
I0403 14:00:41.541723 28985 net.cpp:148] Top shape: 100 (100)
I0403 14:00:41.541738 28985 net.cpp:156] Memory required for data: 61836400
I0403 14:00:41.541754 28985 layer_factory.hpp:77] Creating layer conv1
I0403 14:00:41.541788 28985 net.cpp:91] Creating Layer conv1
I0403 14:00:41.541808 28985 net.cpp:425] conv1 <- data
I0403 14:00:41.541829 28985 net.cpp:399] conv1 -> conv1
I0403 14:00:41.681576 28985 net.cpp:141] Setting up conv1
I0403 14:00:41.681653 28985 net.cpp:148] Top shape: 100 96 55 55 (29040000)
I0403 14:00:41.681674 28985 net.cpp:156] Memory required for data: 177996400
I0403 14:00:41.681705 28985 layer_factory.hpp:77] Creating layer relu1
I0403 14:00:41.681735 28985 net.cpp:91] Creating Layer relu1
I0403 14:00:41.681754 28985 net.cpp:425] relu1 <- conv1
I0403 14:00:41.681774 28985 net.cpp:386] relu1 -> conv1 (in-place)
I0403 14:00:41.682035 28985 net.cpp:141] Setting up relu1
I0403 14:00:41.682065 28985 net.cpp:148] Top shape: 100 96 55 55 (29040000)
I0403 14:00:41.682113 28985 net.cpp:156] Memory required for data: 294156400
I0403 14:00:41.682154 28985 layer_factory.hpp:77] Creating layer norm1
I0403 14:00:41.682188 28985 net.cpp:91] Creating Layer norm1
I0403 14:00:41.682207 28985 net.cpp:425] norm1 <- conv1
I0403 14:00:41.682229 28985 net.cpp:399] norm1 -> norm1
I0403 14:00:41.682559 28985 net.cpp:141] Setting up norm1
I0403 14:00:41.682591 28985 net.cpp:148] Top shape: 100 96 55 55 (29040000)
I0403 14:00:41.682610 28985 net.cpp:156] Memory required for data: 410316400
I0403 14:00:41.682626 28985 layer_factory.hpp:77] Creating layer pool1
I0403 14:00:41.682648 28985 net.cpp:91] Creating Layer pool1
I0403 14:00:41.682667 28985 net.cpp:425] pool1 <- norm1
I0403 14:00:41.682689 28985 net.cpp:399] pool1 -> pool1
I0403 14:00:41.682761 28985 net.cpp:141] Setting up pool1
I0403 14:00:41.682787 28985 net.cpp:148] Top shape: 100 96 27 27 (6998400)
I0403 14:00:41.682803 28985 net.cpp:156] Memory required for data: 438310000
I0403 14:00:41.682819 28985 layer_factory.hpp:77] Creating layer conv2
I0403 14:00:41.682847 28985 net.cpp:91] Creating Layer conv2
I0403 14:00:41.682865 28985 net.cpp:425] conv2 <- pool1
I0403 14:00:41.682888 28985 net.cpp:399] conv2 -> conv2
I0403 14:00:41.698072 28985 net.cpp:141] Setting up conv2
I0403 14:00:41.698112 28985 net.cpp:148] Top shape: 100 256 27 27 (18662400)
I0403 14:00:41.698130 28985 net.cpp:156] Memory required for data: 512959600
I0403 14:00:41.698156 28985 layer_factory.hpp:77] Creating layer relu2
I0403 14:00:41.698179 28985 net.cpp:91] Creating Layer relu2
I0403 14:00:41.698195 28985 net.cpp:425] relu2 <- conv2
I0403 14:00:41.698213 28985 net.cpp:386] relu2 -> conv2 (in-place)
I0403 14:00:41.698501 28985 net.cpp:141] Setting up relu2
I0403 14:00:41.698529 28985 net.cpp:148] Top shape: 100 256 27 27 (18662400)
I0403 14:00:41.698545 28985 net.cpp:156] Memory required for data: 587609200
I0403 14:00:41.698561 28985 layer_factory.hpp:77] Creating layer norm2
I0403 14:00:41.698597 28985 net.cpp:91] Creating Layer norm2
I0403 14:00:41.698616 28985 net.cpp:425] norm2 <- conv2
I0403 14:00:41.698634 28985 net.cpp:399] norm2 -> norm2
I0403 14:00:41.698829 28985 net.cpp:141] Setting up norm2
I0403 14:00:41.698858 28985 net.cpp:148] Top shape: 100 256 27 27 (18662400)
I0403 14:00:41.698874 28985 net.cpp:156] Memory required for data: 662258800
I0403 14:00:41.698890 28985 layer_factory.hpp:77] Creating layer pool2
I0403 14:00:41.698909 28985 net.cpp:91] Creating Layer pool2
I0403 14:00:41.698925 28985 net.cpp:425] pool2 <- norm2
I0403 14:00:41.698942 28985 net.cpp:399] pool2 -> pool2
I0403 14:00:41.698995 28985 net.cpp:141] Setting up pool2
I0403 14:00:41.699018 28985 net.cpp:148] Top shape: 100 256 13 13 (4326400)
I0403 14:00:41.699034 28985 net.cpp:156] Memory required for data: 679564400
I0403 14:00:41.699049 28985 layer_factory.hpp:77] Creating layer conv3
I0403 14:00:41.699123 28985 net.cpp:91] Creating Layer conv3
I0403 14:00:41.699142 28985 net.cpp:425] conv3 <- pool2
I0403 14:00:41.699164 28985 net.cpp:399] conv3 -> conv3
I0403 14:00:41.738476 28985 net.cpp:141] Setting up conv3
I0403 14:00:41.738554 28985 net.cpp:148] Top shape: 100 384 13 13 (6489600)
I0403 14:00:41.738572 28985 net.cpp:156] Memory required for data: 705522800
I0403 14:00:41.738600 28985 layer_factory.hpp:77] Creating layer relu3
I0403 14:00:41.738625 28985 net.cpp:91] Creating Layer relu3
I0403 14:00:41.738643 28985 net.cpp:425] relu3 <- conv3
I0403 14:00:41.738664 28985 net.cpp:386] relu3 -> conv3 (in-place)
I0403 14:00:41.738934 28985 net.cpp:141] Setting up relu3
I0403 14:00:41.738965 28985 net.cpp:148] Top shape: 100 384 13 13 (6489600)
I0403 14:00:41.738981 28985 net.cpp:156] Memory required for data: 731481200
I0403 14:00:41.738997 28985 layer_factory.hpp:77] Creating layer conv4
I0403 14:00:41.739023 28985 net.cpp:91] Creating Layer conv4
I0403 14:00:41.739042 28985 net.cpp:425] conv4 <- conv3
I0403 14:00:41.739060 28985 net.cpp:399] conv4 -> conv4
I0403 14:00:41.769155 28985 net.cpp:141] Setting up conv4
I0403 14:00:41.769222 28985 net.cpp:148] Top shape: 100 384 13 13 (6489600)
I0403 14:00:41.769271 28985 net.cpp:156] Memory required for data: 757439600
I0403 14:00:41.769306 28985 layer_factory.hpp:77] Creating layer relu4
I0403 14:00:41.769330 28985 net.cpp:91] Creating Layer relu4
I0403 14:00:41.769353 28985 net.cpp:425] relu4 <- conv4
I0403 14:00:41.769374 28985 net.cpp:386] relu4 -> conv4 (in-place)
I0403 14:00:41.769654 28985 net.cpp:141] Setting up relu4
I0403 14:00:41.769680 28985 net.cpp:148] Top shape: 100 384 13 13 (6489600)
I0403 14:00:41.769697 28985 net.cpp:156] Memory required for data: 783398000
I0403 14:00:41.769713 28985 layer_factory.hpp:77] Creating layer conv5
I0403 14:00:41.769742 28985 net.cpp:91] Creating Layer conv5
I0403 14:00:41.769762 28985 net.cpp:425] conv5 <- conv4
I0403 14:00:41.769781 28985 net.cpp:399] conv5 -> conv5
I0403 14:00:41.790393 28985 net.cpp:141] Setting up conv5
I0403 14:00:41.790442 28985 net.cpp:148] Top shape: 100 256 13 13 (4326400)
I0403 14:00:41.790462 28985 net.cpp:156] Memory required for data: 800703600
I0403 14:00:41.790488 28985 layer_factory.hpp:77] Creating layer relu5
I0403 14:00:41.790508 28985 net.cpp:91] Creating Layer relu5
I0403 14:00:41.790525 28985 net.cpp:425] relu5 <- conv5
I0403 14:00:41.790544 28985 net.cpp:386] relu5 -> conv5 (in-place)
I0403 14:00:41.790829 28985 net.cpp:141] Setting up relu5
I0403 14:00:41.790858 28985 net.cpp:148] Top shape: 100 256 13 13 (4326400)
I0403 14:00:41.790874 28985 net.cpp:156] Memory required for data: 818009200
I0403 14:00:41.790890 28985 layer_factory.hpp:77] Creating layer pool5
I0403 14:00:41.790913 28985 net.cpp:91] Creating Layer pool5
I0403 14:00:41.790930 28985 net.cpp:425] pool5 <- conv5
I0403 14:00:41.790952 28985 net.cpp:399] pool5 -> pool5
I0403 14:00:41.791016 28985 net.cpp:141] Setting up pool5
I0403 14:00:41.791043 28985 net.cpp:148] Top shape: 100 256 6 6 (921600)
I0403 14:00:41.791059 28985 net.cpp:156] Memory required for data: 821695600
I0403 14:00:41.791075 28985 layer_factory.hpp:77] Creating layer fc6
I0403 14:00:41.791105 28985 net.cpp:91] Creating Layer fc6
I0403 14:00:41.791124 28985 net.cpp:425] fc6 <- pool5
I0403 14:00:41.791146 28985 net.cpp:399] fc6 -> fc6
I0403 14:00:43.345299 28985 net.cpp:141] Setting up fc6
I0403 14:00:43.345379 28985 net.cpp:148] Top shape: 100 4096 (409600)
I0403 14:00:43.345398 28985 net.cpp:156] Memory required for data: 823334000
I0403 14:00:43.345420 28985 layer_factory.hpp:77] Creating layer relu6
I0403 14:00:43.345446 28985 net.cpp:91] Creating Layer relu6
I0403 14:00:43.345463 28985 net.cpp:425] relu6 <- fc6
I0403 14:00:43.345484 28985 net.cpp:386] relu6 -> fc6 (in-place)
I0403 14:00:43.345713 28985 net.cpp:141] Setting up relu6
I0403 14:00:43.345741 28985 net.cpp:148] Top shape: 100 4096 (409600)
I0403 14:00:43.345759 28985 net.cpp:156] Memory required for data: 824972400
I0403 14:00:43.345774 28985 layer_factory.hpp:77] Creating layer drop6
I0403 14:00:43.345793 28985 net.cpp:91] Creating Layer drop6
I0403 14:00:43.345809 28985 net.cpp:425] drop6 <- fc6
I0403 14:00:43.345827 28985 net.cpp:386] drop6 -> fc6 (in-place)
I0403 14:00:43.345881 28985 net.cpp:141] Setting up drop6
I0403 14:00:43.345904 28985 net.cpp:148] Top shape: 100 4096 (409600)
I0403 14:00:43.345921 28985 net.cpp:156] Memory required for data: 826610800
I0403 14:00:43.345934 28985 layer_factory.hpp:77] Creating layer fc7
I0403 14:00:43.345959 28985 net.cpp:91] Creating Layer fc7
I0403 14:00:43.345975 28985 net.cpp:425] fc7 <- fc6
I0403 14:00:43.345993 28985 net.cpp:399] fc7 -> fc7
I0403 14:00:44.028112 28985 net.cpp:141] Setting up fc7
I0403 14:00:44.028188 28985 net.cpp:148] Top shape: 100 4096 (409600)
I0403 14:00:44.028205 28985 net.cpp:156] Memory required for data: 828249200
I0403 14:00:44.028226 28985 layer_factory.hpp:77] Creating layer relu7
I0403 14:00:44.028251 28985 net.cpp:91] Creating Layer relu7
I0403 14:00:44.028270 28985 net.cpp:425] relu7 <- fc7
I0403 14:00:44.028290 28985 net.cpp:386] relu7 -> fc7 (in-place)
I0403 14:00:44.028690 28985 net.cpp:141] Setting up relu7
I0403 14:00:44.028720 28985 net.cpp:148] Top shape: 100 4096 (409600)
I0403 14:00:44.028771 28985 net.cpp:156] Memory required for data: 829887600
I0403 14:00:44.028789 28985 layer_factory.hpp:77] Creating layer drop7
I0403 14:00:44.028808 28985 net.cpp:91] Creating Layer drop7
I0403 14:00:44.028823 28985 net.cpp:425] drop7 <- fc7
I0403 14:00:44.028843 28985 net.cpp:386] drop7 -> fc7 (in-place)
I0403 14:00:44.028889 28985 net.cpp:141] Setting up drop7
I0403 14:00:44.028913 28985 net.cpp:148] Top shape: 100 4096 (409600)
I0403 14:00:44.028928 28985 net.cpp:156] Memory required for data: 831526000
I0403 14:00:44.028944 28985 layer_factory.hpp:77] Creating layer fc8_plantvillage
I0403 14:00:44.028965 28985 net.cpp:91] Creating Layer fc8_plantvillage
I0403 14:00:44.028981 28985 net.cpp:425] fc8_plantvillage <- fc7
I0403 14:00:44.029003 28985 net.cpp:399] fc8_plantvillage -> fc8_plantvillage
I0403 14:00:44.035722 28985 net.cpp:141] Setting up fc8_plantvillage
I0403 14:00:44.035753 28985 net.cpp:148] Top shape: 100 38 (3800)
I0403 14:00:44.035769 28985 net.cpp:156] Memory required for data: 831541200
I0403 14:00:44.035789 28985 layer_factory.hpp:77] Creating layer fc8_plantvillage_fc8_plantvillage_0_split
I0403 14:00:44.035807 28985 net.cpp:91] Creating Layer fc8_plantvillage_fc8_plantvillage_0_split
I0403 14:00:44.035823 28985 net.cpp:425] fc8_plantvillage_fc8_plantvillage_0_split <- fc8_plantvillage
I0403 14:00:44.035843 28985 net.cpp:399] fc8_plantvillage_fc8_plantvillage_0_split -> fc8_plantvillage_fc8_plantvillage_0_split_0
I0403 14:00:44.035866 28985 net.cpp:399] fc8_plantvillage_fc8_plantvillage_0_split -> fc8_plantvillage_fc8_plantvillage_0_split_1
I0403 14:00:44.035886 28985 net.cpp:399] fc8_plantvillage_fc8_plantvillage_0_split -> fc8_plantvillage_fc8_plantvillage_0_split_2
I0403 14:00:44.035964 28985 net.cpp:141] Setting up fc8_plantvillage_fc8_plantvillage_0_split
I0403 14:00:44.035987 28985 net.cpp:148] Top shape: 100 38 (3800)
I0403 14:00:44.036005 28985 net.cpp:148] Top shape: 100 38 (3800)
I0403 14:00:44.036020 28985 net.cpp:148] Top shape: 100 38 (3800)
I0403 14:00:44.036036 28985 net.cpp:156] Memory required for data: 831586800
I0403 14:00:44.036051 28985 layer_factory.hpp:77] Creating layer prob
I0403 14:00:44.036070 28985 net.cpp:91] Creating Layer prob
I0403 14:00:44.036087 28985 net.cpp:425] prob <- fc8_plantvillage_fc8_plantvillage_0_split_0
I0403 14:00:44.036105 28985 net.cpp:399] prob -> prob
I0403 14:00:44.036330 28985 net.cpp:141] Setting up prob
I0403 14:00:44.036366 28985 net.cpp:148] Top shape: 100 38 (3800)
I0403 14:00:44.036383 28985 net.cpp:156] Memory required for data: 831602000
I0403 14:00:44.036401 28985 layer_factory.hpp:77] Creating layer hdf5out
I0403 14:00:44.036419 28985 net.cpp:91] Creating Layer hdf5out
I0403 14:00:44.036435 28985 net.cpp:425] hdf5out <- prob
I0403 14:00:44.036451 28985 net.cpp:425] hdf5out <- label_data_1_split_0
I0403 14:00:44.040328 28985 net.cpp:141] Setting up hdf5out
…
