…
I0403 13:30:25.591248 28285 net.cpp:313] The NetState phase (1) differed from the phase (0) specified by a rule in layer data
I0403 13:30:25.591586 28285 net.cpp:49] Initializing net from parameters: 
state {
  phase: TEST
}
layer {
  name: "data"
  type: "Data"
  top: "data"
  top: "label"
  include {
    phase: TEST
  }
  transform_param {
    crop_size: 227
    mean_file: "/home/mohanty/data/final_dataset/lmdb/grayscale-20-80/mean.binaryproto"
  }
  data_param {
    source: "/home/mohanty/data/final_dataset/lmdb/grayscale-20-80/test_db"
    batch_size: 100
    backend: LMDB
  }
}
layer {
  name: "conv1"
  type: "Convolution"
  bottom: "data"
  top: "conv1"
  param {
    lr_mult: 1
    decay_mult: 1
  }
  param {
    lr_mult: 2
    decay_mult: 0
  }
  convolution_param {
    num_output: 96
    kernel_size: 11
    stride: 4
    weight_filler {
      type: "gaussian"
      std: 0.01
    }
    bias_filler {
      type: "constant"
      value: 0
    }
  }
}
layer {
  name: "relu1"
  type: "ReLU"
  bottom: "conv1"
  top: "conv1"
}
layer {
  name: "norm1"
  type: "LRN"
  bottom: "conv1"
  top: "norm1"
  lrn_param {
    local_size: 5
    alpha: 0.0001
    beta: 0.75
  }
}
layer {
  name: "pool1"
  type: "Pooling"
  bottom: "norm1"
  top: "pool1"
  pooling_param {
    pool: MAX
    kernel_size: 3
    stride: 2
  }
}
layer {
  name: "conv2"
  type: "Convolution"
  bottom: "pool1"
  top: "conv2"
  param {
    lr_mult: 1
    decay_mult: 1
  }
  param {
    lr_mult: 2
    decay_mult: 0
  }
  convolution_param {
    num_output: 256
    pad: 2
    kernel_size: 5
    group: 2
    weight_filler {
      type: "gaussian"
      std: 0.01
    }
    bias_filler {
      type: "constant"
      value: 0.1
    }
  }
}
layer {
  name: "relu2"
  type: "ReLU"
  bottom: "conv2"
  top: "conv2"
}
layer {
  name: "norm2"
  type: "LRN"
  bottom: "conv2"
  top: "norm2"
  lrn_param {
    local_size: 5
    alpha: 0.0001
    beta: 0.75
  }
}
layer {
  name: "pool2"
  type: "Pooling"
  bottom: "norm2"
  top: "pool2"
  pooling_param {
    pool: MAX
    kernel_size: 3
    stride: 2
  }
}
layer {
  name: "conv3"
  type: "Convolution"
  bottom: "pool2"
  top: "conv3"
  param {
    lr_mult: 1
    decay_mult: 1
  }
  param {
    lr_mult: 2
    decay_mult: 0
  }
  convolution_param {
    num_output: 384
    pad: 1
    kernel_size: 3
    weight_filler {
      type: "gaussian"
      std: 0.01
    }
    bias_filler {
      type: "constant"
      value: 0
    }
  }
}
layer {
  name: "relu3"
  type: "ReLU"
  bottom: "conv3"
  top: "conv3"
}
layer {
  name: "conv4"
  type: "Convolution"
  bottom: "conv3"
  top: "conv4"
  param {
    lr_mult: 1
    decay_mult: 1
  }
  param {
    lr_mult: 2
    decay_mult: 0
  }
  convolution_param {
    num_output: 384
    pad: 1
    kernel_size: 3
    group: 2
    weight_filler {
      type: "gaussian"
      std: 0.01
    }
    bias_filler {
      type: "constant"
      value: 0.1
    }
  }
}
layer {
  name: "relu4"
  type: "ReLU"
  bottom: "conv4"
  top: "conv4"
}
layer {
  name: "conv5"
  type: "Convolution"
  bottom: "conv4"
  top: "conv5"
  param {
    lr_mult: 1
    decay_mult: 1
  }
  param {
    lr_mult: 2
    decay_mult: 0
  }
  convolution_param {
    num_output: 256
    pad: 1
    kernel_size: 3
    group: 2
    weight_filler {
      type: "gaussian"
      std: 0.01
    }
    bias_filler {
      type: "constant"
      value: 0.1
    }
  }
}
layer {
  name: "relu5"
  type: "ReLU"
  bottom: "conv5"
  top: "conv5"
}
layer {
  name: "pool5"
  type: "Pooling"
  bottom: "conv5"
  top: "pool5"
  pooling_param {
    pool: MAX
    kernel_size: 3
    stride: 2
  }
}
layer {
  name: "fc6"
  type: "InnerProduct"
  bottom: "pool5"
  top: "fc6"
  param {
    lr_mult: 1
    decay_mult: 1
  }
  param {
    lr_mult: 2
    decay_mult: 0
  }
  inner_product_param {
    num_output: 4096
    weight_filler {
      type: "gaussian"
      std: 0.005
    }
    bias_filler {
      type: "constant"
      value: 0.1
    }
  }
}
layer {
  name: "relu6"
  type: "ReLU"
  bottom: "fc6"
  top: "fc6"
}
layer {
  name: "drop6"
  type: "Dropout"
  bottom: "fc6"
  top: "fc6"
  dropout_param {
    dropout_ratio: 0.5
  }
}
layer {
  name: "fc7"
  type: "InnerProduct"
  bottom: "fc6"
  top: "fc7"
  param {
    lr_mult: 1
    decay_mult: 1
  }
  param {
    lr_mult: 2
    decay_mult: 0
  }
  inner_product_param {
    num_output: 4096
    weight_filler {
      type: "gaussian"
      std: 0.005
    }
    bias_filler {
      type: "constant"
      value: 0.1
    }
  }
}
layer {
  name: "relu7"
  type: "ReLU"
  bottom: "fc7"
  top: "fc7"
}
layer {
  name: "drop7"
  type: "Dropout"
  bottom: "fc7"
  top: "fc7"
  dropout_param {
    dropout_ratio: 0.5
  }
}
layer {
  name: "fc8_plantvillage"
  type: "InnerProduct"
  bottom: "fc7"
  top: "fc8_plantvillage"
  param {
    lr_mult: 1
    decay_mult: 1
  }
  param {
    lr_mult: 2
    decay_mult: 0
  }
  inner_product_param {
    num_output: 38
    weight_filler {
      type: "gaussian"
      std: 0.01
    }
    bias_filler {
      type: "constant"
      value: 0
    }
  }
}
layer {
  name: "prob"
  type: "Softmax"
  bottom: "fc8_plantvillage"
  top: "prob"
  include {
    phase: TEST
  }
}
layer {
  name: "hdf5out"
  type: "HDF5Output"
  bottom: "prob"
  bottom: "label"
  include {
    phase: TEST
  }
  hdf5_output_param {
    file_name: "hdf5_dumps/iter_630.h5"
  }
}
layer {
  name: "loss"
  type: "SoftmaxWithLoss"
  bottom: "fc8_plantvillage"
  bottom: "label"
  top: "loss"
}
layer {
  name: "accuracy"
  type: "Accuracy"
  bottom: "fc8_plantvillage"
  bottom: "label"
  top: "accuracy"
  include {
    phase: TEST
  }
}
I0403 13:30:25.592144 28285 layer_factory.hpp:77] Creating layer data
I0403 13:30:25.592782 28285 net.cpp:91] Creating Layer data
I0403 13:30:25.592818 28285 net.cpp:399] data -> data
I0403 13:30:25.592869 28285 net.cpp:399] data -> label
I0403 13:30:25.592906 28285 data_transformer.cpp:25] Loading mean file from: /home/mohanty/data/final_dataset/lmdb/grayscale-20-80/mean.binaryproto
I0403 13:30:25.594079 28288 db_lmdb.cpp:38] Opened lmdb /home/mohanty/data/final_dataset/lmdb/grayscale-20-80/test_db
I0403 13:30:25.607122 28285 data_layer.cpp:41] output data size: 100,3,227,227
I0403 13:30:25.727277 28285 net.cpp:141] Setting up data
I0403 13:30:25.727339 28285 net.cpp:148] Top shape: 100 3 227 227 (15458700)
I0403 13:30:25.727361 28285 net.cpp:148] Top shape: 100 (100)
I0403 13:30:25.727377 28285 net.cpp:156] Memory required for data: 61835200
I0403 13:30:25.727406 28285 layer_factory.hpp:77] Creating layer label_data_1_split
I0403 13:30:25.727432 28285 net.cpp:91] Creating Layer label_data_1_split
I0403 13:30:25.727449 28285 net.cpp:425] label_data_1_split <- label
I0403 13:30:25.727481 28285 net.cpp:399] label_data_1_split -> label_data_1_split_0
I0403 13:30:25.727507 28285 net.cpp:399] label_data_1_split -> label_data_1_split_1
I0403 13:30:25.727529 28285 net.cpp:399] label_data_1_split -> label_data_1_split_2
I0403 13:30:25.727591 28285 net.cpp:141] Setting up label_data_1_split
I0403 13:30:25.727615 28285 net.cpp:148] Top shape: 100 (100)
I0403 13:30:25.727632 28285 net.cpp:148] Top shape: 100 (100)
I0403 13:30:25.727648 28285 net.cpp:148] Top shape: 100 (100)
I0403 13:30:25.727661 28285 net.cpp:156] Memory required for data: 61836400
I0403 13:30:25.727677 28285 layer_factory.hpp:77] Creating layer conv1
I0403 13:30:25.727706 28285 net.cpp:91] Creating Layer conv1
I0403 13:30:25.727725 28285 net.cpp:425] conv1 <- data
I0403 13:30:25.727744 28285 net.cpp:399] conv1 -> conv1
I0403 13:30:25.875815 28285 net.cpp:141] Setting up conv1
I0403 13:30:25.875895 28285 net.cpp:148] Top shape: 100 96 55 55 (29040000)
I0403 13:30:25.875913 28285 net.cpp:156] Memory required for data: 177996400
I0403 13:30:25.875947 28285 layer_factory.hpp:77] Creating layer relu1
I0403 13:30:25.875977 28285 net.cpp:91] Creating Layer relu1
I0403 13:30:25.875998 28285 net.cpp:425] relu1 <- conv1
I0403 13:30:25.876019 28285 net.cpp:386] relu1 -> conv1 (in-place)
I0403 13:30:25.876284 28285 net.cpp:141] Setting up relu1
I0403 13:30:25.876312 28285 net.cpp:148] Top shape: 100 96 55 55 (29040000)
I0403 13:30:25.876369 28285 net.cpp:156] Memory required for data: 294156400
I0403 13:30:25.876387 28285 layer_factory.hpp:77] Creating layer norm1
I0403 13:30:25.876416 28285 net.cpp:91] Creating Layer norm1
I0403 13:30:25.876435 28285 net.cpp:425] norm1 <- conv1
I0403 13:30:25.876453 28285 net.cpp:399] norm1 -> norm1
I0403 13:30:25.876770 28285 net.cpp:141] Setting up norm1
I0403 13:30:25.876798 28285 net.cpp:148] Top shape: 100 96 55 55 (29040000)
I0403 13:30:25.876816 28285 net.cpp:156] Memory required for data: 410316400
I0403 13:30:25.876832 28285 layer_factory.hpp:77] Creating layer pool1
I0403 13:30:25.876855 28285 net.cpp:91] Creating Layer pool1
I0403 13:30:25.876873 28285 net.cpp:425] pool1 <- norm1
I0403 13:30:25.876893 28285 net.cpp:399] pool1 -> pool1
I0403 13:30:25.876962 28285 net.cpp:141] Setting up pool1
I0403 13:30:25.876989 28285 net.cpp:148] Top shape: 100 96 27 27 (6998400)
I0403 13:30:25.877005 28285 net.cpp:156] Memory required for data: 438310000
I0403 13:30:25.877023 28285 layer_factory.hpp:77] Creating layer conv2
I0403 13:30:25.877049 28285 net.cpp:91] Creating Layer conv2
I0403 13:30:25.877068 28285 net.cpp:425] conv2 <- pool1
I0403 13:30:25.877089 28285 net.cpp:399] conv2 -> conv2
I0403 13:30:25.892843 28285 net.cpp:141] Setting up conv2
I0403 13:30:25.892894 28285 net.cpp:148] Top shape: 100 256 27 27 (18662400)
I0403 13:30:25.892911 28285 net.cpp:156] Memory required for data: 512959600
I0403 13:30:25.892936 28285 layer_factory.hpp:77] Creating layer relu2
I0403 13:30:25.892959 28285 net.cpp:91] Creating Layer relu2
I0403 13:30:25.892978 28285 net.cpp:425] relu2 <- conv2
I0403 13:30:25.892998 28285 net.cpp:386] relu2 -> conv2 (in-place)
I0403 13:30:25.893287 28285 net.cpp:141] Setting up relu2
I0403 13:30:25.893328 28285 net.cpp:148] Top shape: 100 256 27 27 (18662400)
I0403 13:30:25.893350 28285 net.cpp:156] Memory required for data: 587609200
I0403 13:30:25.893368 28285 layer_factory.hpp:77] Creating layer norm2
I0403 13:30:25.893393 28285 net.cpp:91] Creating Layer norm2
I0403 13:30:25.893412 28285 net.cpp:425] norm2 <- conv2
I0403 13:30:25.893435 28285 net.cpp:399] norm2 -> norm2
I0403 13:30:25.893673 28285 net.cpp:141] Setting up norm2
I0403 13:30:25.893702 28285 net.cpp:148] Top shape: 100 256 27 27 (18662400)
I0403 13:30:25.893718 28285 net.cpp:156] Memory required for data: 662258800
I0403 13:30:25.893733 28285 layer_factory.hpp:77] Creating layer pool2
I0403 13:30:25.893755 28285 net.cpp:91] Creating Layer pool2
I0403 13:30:25.893774 28285 net.cpp:425] pool2 <- norm2
I0403 13:30:25.893792 28285 net.cpp:399] pool2 -> pool2
I0403 13:30:25.893848 28285 net.cpp:141] Setting up pool2
I0403 13:30:25.893872 28285 net.cpp:148] Top shape: 100 256 13 13 (4326400)
I0403 13:30:25.893887 28285 net.cpp:156] Memory required for data: 679564400
I0403 13:30:25.893903 28285 layer_factory.hpp:77] Creating layer conv3
I0403 13:30:25.893928 28285 net.cpp:91] Creating Layer conv3
I0403 13:30:25.893945 28285 net.cpp:425] conv3 <- pool2
I0403 13:30:25.893970 28285 net.cpp:399] conv3 -> conv3
I0403 13:30:25.933930 28285 net.cpp:141] Setting up conv3
I0403 13:30:25.933992 28285 net.cpp:148] Top shape: 100 384 13 13 (6489600)
I0403 13:30:25.934010 28285 net.cpp:156] Memory required for data: 705522800
I0403 13:30:25.934037 28285 layer_factory.hpp:77] Creating layer relu3
I0403 13:30:25.934064 28285 net.cpp:91] Creating Layer relu3
I0403 13:30:25.934084 28285 net.cpp:425] relu3 <- conv3
I0403 13:30:25.934104 28285 net.cpp:386] relu3 -> conv3 (in-place)
I0403 13:30:25.934399 28285 net.cpp:141] Setting up relu3
I0403 13:30:25.934428 28285 net.cpp:148] Top shape: 100 384 13 13 (6489600)
I0403 13:30:25.934444 28285 net.cpp:156] Memory required for data: 731481200
I0403 13:30:25.934463 28285 layer_factory.hpp:77] Creating layer conv4
I0403 13:30:25.934489 28285 net.cpp:91] Creating Layer conv4
I0403 13:30:25.934509 28285 net.cpp:425] conv4 <- conv3
I0403 13:30:25.934530 28285 net.cpp:399] conv4 -> conv4
I0403 13:30:25.965692 28285 net.cpp:141] Setting up conv4
I0403 13:30:25.965756 28285 net.cpp:148] Top shape: 100 384 13 13 (6489600)
I0403 13:30:25.965806 28285 net.cpp:156] Memory required for data: 757439600
I0403 13:30:25.965828 28285 layer_factory.hpp:77] Creating layer relu4
I0403 13:30:25.965852 28285 net.cpp:91] Creating Layer relu4
I0403 13:30:25.965872 28285 net.cpp:425] relu4 <- conv4
I0403 13:30:25.965894 28285 net.cpp:386] relu4 -> conv4 (in-place)
I0403 13:30:25.966179 28285 net.cpp:141] Setting up relu4
I0403 13:30:25.966207 28285 net.cpp:148] Top shape: 100 384 13 13 (6489600)
I0403 13:30:25.966223 28285 net.cpp:156] Memory required for data: 783398000
I0403 13:30:25.966238 28285 layer_factory.hpp:77] Creating layer conv5
I0403 13:30:25.966265 28285 net.cpp:91] Creating Layer conv5
I0403 13:30:25.966284 28285 net.cpp:425] conv5 <- conv4
I0403 13:30:25.966305 28285 net.cpp:399] conv5 -> conv5
I0403 13:30:25.987610 28285 net.cpp:141] Setting up conv5
I0403 13:30:25.987655 28285 net.cpp:148] Top shape: 100 256 13 13 (4326400)
I0403 13:30:25.987673 28285 net.cpp:156] Memory required for data: 800703600
I0403 13:30:25.987697 28285 layer_factory.hpp:77] Creating layer relu5
I0403 13:30:25.987721 28285 net.cpp:91] Creating Layer relu5
I0403 13:30:25.987740 28285 net.cpp:425] relu5 <- conv5
I0403 13:30:25.987758 28285 net.cpp:386] relu5 -> conv5 (in-place)
I0403 13:30:25.988045 28285 net.cpp:141] Setting up relu5
I0403 13:30:25.988073 28285 net.cpp:148] Top shape: 100 256 13 13 (4326400)
I0403 13:30:25.988090 28285 net.cpp:156] Memory required for data: 818009200
I0403 13:30:25.988106 28285 layer_factory.hpp:77] Creating layer pool5
I0403 13:30:25.988131 28285 net.cpp:91] Creating Layer pool5
I0403 13:30:25.988148 28285 net.cpp:425] pool5 <- conv5
I0403 13:30:25.988168 28285 net.cpp:399] pool5 -> pool5
I0403 13:30:25.988232 28285 net.cpp:141] Setting up pool5
I0403 13:30:25.988257 28285 net.cpp:148] Top shape: 100 256 6 6 (921600)
I0403 13:30:25.988272 28285 net.cpp:156] Memory required for data: 821695600
I0403 13:30:25.988287 28285 layer_factory.hpp:77] Creating layer fc6
I0403 13:30:25.988322 28285 net.cpp:91] Creating Layer fc6
I0403 13:30:25.988343 28285 net.cpp:425] fc6 <- pool5
I0403 13:30:25.988363 28285 net.cpp:399] fc6 -> fc6
I0403 13:30:27.580114 28285 net.cpp:141] Setting up fc6
I0403 13:30:27.580193 28285 net.cpp:148] Top shape: 100 4096 (409600)
I0403 13:30:27.580210 28285 net.cpp:156] Memory required for data: 823334000
I0403 13:30:27.580234 28285 layer_factory.hpp:77] Creating layer relu6
I0403 13:30:27.580256 28285 net.cpp:91] Creating Layer relu6
I0403 13:30:27.580274 28285 net.cpp:425] relu6 <- fc6
I0403 13:30:27.580297 28285 net.cpp:386] relu6 -> fc6 (in-place)
I0403 13:30:27.580554 28285 net.cpp:141] Setting up relu6
I0403 13:30:27.580581 28285 net.cpp:148] Top shape: 100 4096 (409600)
I0403 13:30:27.580597 28285 net.cpp:156] Memory required for data: 824972400
I0403 13:30:27.580615 28285 layer_factory.hpp:77] Creating layer drop6
I0403 13:30:27.580636 28285 net.cpp:91] Creating Layer drop6
I0403 13:30:27.580654 28285 net.cpp:425] drop6 <- fc6
I0403 13:30:27.580673 28285 net.cpp:386] drop6 -> fc6 (in-place)
I0403 13:30:27.580727 28285 net.cpp:141] Setting up drop6
I0403 13:30:27.580755 28285 net.cpp:148] Top shape: 100 4096 (409600)
I0403 13:30:27.580785 28285 net.cpp:156] Memory required for data: 826610800
I0403 13:30:27.580801 28285 layer_factory.hpp:77] Creating layer fc7
I0403 13:30:27.580821 28285 net.cpp:91] Creating Layer fc7
I0403 13:30:27.580838 28285 net.cpp:425] fc7 <- fc6
I0403 13:30:27.580859 28285 net.cpp:399] fc7 -> fc7
I0403 13:30:28.285060 28285 net.cpp:141] Setting up fc7
I0403 13:30:28.285138 28285 net.cpp:148] Top shape: 100 4096 (409600)
I0403 13:30:28.285156 28285 net.cpp:156] Memory required for data: 828249200
I0403 13:30:28.285177 28285 layer_factory.hpp:77] Creating layer relu7
I0403 13:30:28.285200 28285 net.cpp:91] Creating Layer relu7
I0403 13:30:28.285218 28285 net.cpp:425] relu7 <- fc7
I0403 13:30:28.285241 28285 net.cpp:386] relu7 -> fc7 (in-place)
I0403 13:30:28.285665 28285 net.cpp:141] Setting up relu7
I0403 13:30:28.285692 28285 net.cpp:148] Top shape: 100 4096 (409600)
I0403 13:30:28.285742 28285 net.cpp:156] Memory required for data: 829887600
I0403 13:30:28.285758 28285 layer_factory.hpp:77] Creating layer drop7
I0403 13:30:28.285776 28285 net.cpp:91] Creating Layer drop7
I0403 13:30:28.285792 28285 net.cpp:425] drop7 <- fc7
I0403 13:30:28.285812 28285 net.cpp:386] drop7 -> fc7 (in-place)
I0403 13:30:28.285858 28285 net.cpp:141] Setting up drop7
I0403 13:30:28.285882 28285 net.cpp:148] Top shape: 100 4096 (409600)
I0403 13:30:28.285897 28285 net.cpp:156] Memory required for data: 831526000
I0403 13:30:28.285912 28285 layer_factory.hpp:77] Creating layer fc8_plantvillage
I0403 13:30:28.285931 28285 net.cpp:91] Creating Layer fc8_plantvillage
I0403 13:30:28.285948 28285 net.cpp:425] fc8_plantvillage <- fc7
I0403 13:30:28.285969 28285 net.cpp:399] fc8_plantvillage -> fc8_plantvillage
I0403 13:30:28.292682 28285 net.cpp:141] Setting up fc8_plantvillage
I0403 13:30:28.292712 28285 net.cpp:148] Top shape: 100 38 (3800)
I0403 13:30:28.292728 28285 net.cpp:156] Memory required for data: 831541200
I0403 13:30:28.292747 28285 layer_factory.hpp:77] Creating layer fc8_plantvillage_fc8_plantvillage_0_split
I0403 13:30:28.292768 28285 net.cpp:91] Creating Layer fc8_plantvillage_fc8_plantvillage_0_split
I0403 13:30:28.292784 28285 net.cpp:425] fc8_plantvillage_fc8_plantvillage_0_split <- fc8_plantvillage
I0403 13:30:28.292803 28285 net.cpp:399] fc8_plantvillage_fc8_plantvillage_0_split -> fc8_plantvillage_fc8_plantvillage_0_split_0
I0403 13:30:28.292824 28285 net.cpp:399] fc8_plantvillage_fc8_plantvillage_0_split -> fc8_plantvillage_fc8_plantvillage_0_split_1
I0403 13:30:28.292842 28285 net.cpp:399] fc8_plantvillage_fc8_plantvillage_0_split -> fc8_plantvillage_fc8_plantvillage_0_split_2
I0403 13:30:28.292923 28285 net.cpp:141] Setting up fc8_plantvillage_fc8_plantvillage_0_split
I0403 13:30:28.292948 28285 net.cpp:148] Top shape: 100 38 (3800)
I0403 13:30:28.292964 28285 net.cpp:148] Top shape: 100 38 (3800)
I0403 13:30:28.292981 28285 net.cpp:148] Top shape: 100 38 (3800)
I0403 13:30:28.292995 28285 net.cpp:156] Memory required for data: 831586800
I0403 13:30:28.293011 28285 layer_factory.hpp:77] Creating layer prob
I0403 13:30:28.293030 28285 net.cpp:91] Creating Layer prob
I0403 13:30:28.293045 28285 net.cpp:425] prob <- fc8_plantvillage_fc8_plantvillage_0_split_0
I0403 13:30:28.293063 28285 net.cpp:399] prob -> prob
I0403 13:30:28.293292 28285 net.cpp:141] Setting up prob
I0403 13:30:28.293328 28285 net.cpp:148] Top shape: 100 38 (3800)
I0403 13:30:28.293346 28285 net.cpp:156] Memory required for data: 831602000
I0403 13:30:28.293362 28285 layer_factory.hpp:77] Creating layer hdf5out
I0403 13:30:28.293380 28285 net.cpp:91] Creating Layer hdf5out
I0403 13:30:28.293396 28285 net.cpp:425] hdf5out <- prob
I0403 13:30:28.293412 28285 net.cpp:425] hdf5out <- label_data_1_split_0
I0403 13:30:28.297581 28285 net.cpp:141] Setting up hdf5out
…
