…
I0403 13:49:08.240819 28720 net.cpp:313] The NetState phase (1) differed from the phase (0) specified by a rule in layer data
I0403 13:49:08.241127 28720 net.cpp:49] Initializing net from parameters: 
state {
  phase: TEST
}
layer {
  name: "data"
  type: "Data"
  top: "data"
  top: "label"
  include {
    phase: TEST
  }
  transform_param {
    crop_size: 227
    mean_file: "/home/mohanty/data/final_dataset/lmdb/grayscale-20-80/mean.binaryproto"
  }
  data_param {
    source: "/home/mohanty/data/final_dataset/lmdb/grayscale-20-80/test_db"
    batch_size: 100
    backend: LMDB
  }
}
layer {
  name: "conv1"
  type: "Convolution"
  bottom: "data"
  top: "conv1"
  param {
    lr_mult: 1
    decay_mult: 1
  }
  param {
    lr_mult: 2
    decay_mult: 0
  }
  convolution_param {
    num_output: 96
    kernel_size: 11
    stride: 4
    weight_filler {
      type: "gaussian"
      std: 0.01
    }
    bias_filler {
      type: "constant"
      value: 0
    }
  }
}
layer {
  name: "relu1"
  type: "ReLU"
  bottom: "conv1"
  top: "conv1"
}
layer {
  name: "norm1"
  type: "LRN"
  bottom: "conv1"
  top: "norm1"
  lrn_param {
    local_size: 5
    alpha: 0.0001
    beta: 0.75
  }
}
layer {
  name: "pool1"
  type: "Pooling"
  bottom: "norm1"
  top: "pool1"
  pooling_param {
    pool: MAX
    kernel_size: 3
    stride: 2
  }
}
layer {
  name: "conv2"
  type: "Convolution"
  bottom: "pool1"
  top: "conv2"
  param {
    lr_mult: 1
    decay_mult: 1
  }
  param {
    lr_mult: 2
    decay_mult: 0
  }
  convolution_param {
    num_output: 256
    pad: 2
    kernel_size: 5
    group: 2
    weight_filler {
      type: "gaussian"
      std: 0.01
    }
    bias_filler {
      type: "constant"
      value: 0.1
    }
  }
}
layer {
  name: "relu2"
  type: "ReLU"
  bottom: "conv2"
  top: "conv2"
}
layer {
  name: "norm2"
  type: "LRN"
  bottom: "conv2"
  top: "norm2"
  lrn_param {
    local_size: 5
    alpha: 0.0001
    beta: 0.75
  }
}
layer {
  name: "pool2"
  type: "Pooling"
  bottom: "norm2"
  top: "pool2"
  pooling_param {
    pool: MAX
    kernel_size: 3
    stride: 2
  }
}
layer {
  name: "conv3"
  type: "Convolution"
  bottom: "pool2"
  top: "conv3"
  param {
    lr_mult: 1
    decay_mult: 1
  }
  param {
    lr_mult: 2
    decay_mult: 0
  }
  convolution_param {
    num_output: 384
    pad: 1
    kernel_size: 3
    weight_filler {
      type: "gaussian"
      std: 0.01
    }
    bias_filler {
      type: "constant"
      value: 0
    }
  }
}
layer {
  name: "relu3"
  type: "ReLU"
  bottom: "conv3"
  top: "conv3"
}
layer {
  name: "conv4"
  type: "Convolution"
  bottom: "conv3"
  top: "conv4"
  param {
    lr_mult: 1
    decay_mult: 1
  }
  param {
    lr_mult: 2
    decay_mult: 0
  }
  convolution_param {
    num_output: 384
    pad: 1
    kernel_size: 3
    group: 2
    weight_filler {
      type: "gaussian"
      std: 0.01
    }
    bias_filler {
      type: "constant"
      value: 0.1
    }
  }
}
layer {
  name: "relu4"
  type: "ReLU"
  bottom: "conv4"
  top: "conv4"
}
layer {
  name: "conv5"
  type: "Convolution"
  bottom: "conv4"
  top: "conv5"
  param {
    lr_mult: 1
    decay_mult: 1
  }
  param {
    lr_mult: 2
    decay_mult: 0
  }
  convolution_param {
    num_output: 256
    pad: 1
    kernel_size: 3
    group: 2
    weight_filler {
      type: "gaussian"
      std: 0.01
    }
    bias_filler {
      type: "constant"
      value: 0.1
    }
  }
}
layer {
  name: "relu5"
  type: "ReLU"
  bottom: "conv5"
  top: "conv5"
}
layer {
  name: "pool5"
  type: "Pooling"
  bottom: "conv5"
  top: "pool5"
  pooling_param {
    pool: MAX
    kernel_size: 3
    stride: 2
  }
}
layer {
  name: "fc6"
  type: "InnerProduct"
  bottom: "pool5"
  top: "fc6"
  param {
    lr_mult: 1
    decay_mult: 1
  }
  param {
    lr_mult: 2
    decay_mult: 0
  }
  inner_product_param {
    num_output: 4096
    weight_filler {
      type: "gaussian"
      std: 0.005
    }
    bias_filler {
      type: "constant"
      value: 0.1
    }
  }
}
layer {
  name: "relu6"
  type: "ReLU"
  bottom: "fc6"
  top: "fc6"
}
layer {
  name: "drop6"
  type: "Dropout"
  bottom: "fc6"
  top: "fc6"
  dropout_param {
    dropout_ratio: 0.5
  }
}
layer {
  name: "fc7"
  type: "InnerProduct"
  bottom: "fc6"
  top: "fc7"
  param {
    lr_mult: 1
    decay_mult: 1
  }
  param {
    lr_mult: 2
    decay_mult: 0
  }
  inner_product_param {
    num_output: 4096
    weight_filler {
      type: "gaussian"
      std: 0.005
    }
    bias_filler {
      type: "constant"
      value: 0.1
    }
  }
}
layer {
  name: "relu7"
  type: "ReLU"
  bottom: "fc7"
  top: "fc7"
}
layer {
  name: "drop7"
  type: "Dropout"
  bottom: "fc7"
  top: "fc7"
  dropout_param {
    dropout_ratio: 0.5
  }
}
layer {
  name: "fc8_plantvillage"
  type: "InnerProduct"
  bottom: "fc7"
  top: "fc8_plantvillage"
  param {
    lr_mult: 1
    decay_mult: 1
  }
  param {
    lr_mult: 2
    decay_mult: 0
  }
  inner_product_param {
    num_output: 38
    weight_filler {
      type: "gaussian"
      std: 0.01
    }
    bias_filler {
      type: "constant"
      value: 0
    }
  }
}
layer {
  name: "prob"
  type: "Softmax"
  bottom: "fc8_plantvillage"
  top: "prob"
  include {
    phase: TEST
  }
}
layer {
  name: "hdf5out"
  type: "HDF5Output"
  bottom: "prob"
  bottom: "label"
  include {
    phase: TEST
  }
  hdf5_output_param {
    file_name: "hdf5_dumps/iter_1995.h5"
  }
}
layer {
  name: "loss"
  type: "SoftmaxWithLoss"
  bottom: "fc8_plantvillage"
  bottom: "label"
  top: "loss"
}
layer {
  name: "accuracy"
  type: "Accuracy"
  bottom: "fc8_plantvillage"
  bottom: "label"
  top: "accuracy"
  include {
    phase: TEST
  }
}
I0403 13:49:08.241703 28720 layer_factory.hpp:77] Creating layer data
I0403 13:49:08.242375 28720 net.cpp:91] Creating Layer data
I0403 13:49:08.242408 28720 net.cpp:399] data -> data
I0403 13:49:08.242462 28720 net.cpp:399] data -> label
I0403 13:49:08.242499 28720 data_transformer.cpp:25] Loading mean file from: /home/mohanty/data/final_dataset/lmdb/grayscale-20-80/mean.binaryproto
I0403 13:49:08.247995 28725 db_lmdb.cpp:38] Opened lmdb /home/mohanty/data/final_dataset/lmdb/grayscale-20-80/test_db
I0403 13:49:08.256212 28720 data_layer.cpp:41] output data size: 100,3,227,227
I0403 13:49:08.376999 28720 net.cpp:141] Setting up data
I0403 13:49:08.377092 28720 net.cpp:148] Top shape: 100 3 227 227 (15458700)
I0403 13:49:08.377117 28720 net.cpp:148] Top shape: 100 (100)
I0403 13:49:08.377133 28720 net.cpp:156] Memory required for data: 61835200
I0403 13:49:08.377162 28720 layer_factory.hpp:77] Creating layer label_data_1_split
I0403 13:49:08.377189 28720 net.cpp:91] Creating Layer label_data_1_split
I0403 13:49:08.377208 28720 net.cpp:425] label_data_1_split <- label
I0403 13:49:08.377240 28720 net.cpp:399] label_data_1_split -> label_data_1_split_0
I0403 13:49:08.377269 28720 net.cpp:399] label_data_1_split -> label_data_1_split_1
I0403 13:49:08.377292 28720 net.cpp:399] label_data_1_split -> label_data_1_split_2
I0403 13:49:08.377363 28720 net.cpp:141] Setting up label_data_1_split
I0403 13:49:08.377389 28720 net.cpp:148] Top shape: 100 (100)
I0403 13:49:08.377408 28720 net.cpp:148] Top shape: 100 (100)
I0403 13:49:08.377425 28720 net.cpp:148] Top shape: 100 (100)
I0403 13:49:08.377440 28720 net.cpp:156] Memory required for data: 61836400
I0403 13:49:08.377456 28720 layer_factory.hpp:77] Creating layer conv1
I0403 13:49:08.377490 28720 net.cpp:91] Creating Layer conv1
I0403 13:49:08.377508 28720 net.cpp:425] conv1 <- data
I0403 13:49:08.377531 28720 net.cpp:399] conv1 -> conv1
I0403 13:49:08.519412 28720 net.cpp:141] Setting up conv1
I0403 13:49:08.519492 28720 net.cpp:148] Top shape: 100 96 55 55 (29040000)
I0403 13:49:08.519510 28720 net.cpp:156] Memory required for data: 177996400
I0403 13:49:08.519543 28720 layer_factory.hpp:77] Creating layer relu1
I0403 13:49:08.519572 28720 net.cpp:91] Creating Layer relu1
I0403 13:49:08.519590 28720 net.cpp:425] relu1 <- conv1
I0403 13:49:08.519611 28720 net.cpp:386] relu1 -> conv1 (in-place)
I0403 13:49:08.519870 28720 net.cpp:141] Setting up relu1
I0403 13:49:08.519898 28720 net.cpp:148] Top shape: 100 96 55 55 (29040000)
I0403 13:49:08.519948 28720 net.cpp:156] Memory required for data: 294156400
I0403 13:49:08.519964 28720 layer_factory.hpp:77] Creating layer norm1
I0403 13:49:08.519992 28720 net.cpp:91] Creating Layer norm1
I0403 13:49:08.520011 28720 net.cpp:425] norm1 <- conv1
I0403 13:49:08.520030 28720 net.cpp:399] norm1 -> norm1
I0403 13:49:08.520347 28720 net.cpp:141] Setting up norm1
I0403 13:49:08.520376 28720 net.cpp:148] Top shape: 100 96 55 55 (29040000)
I0403 13:49:08.520393 28720 net.cpp:156] Memory required for data: 410316400
I0403 13:49:08.520408 28720 layer_factory.hpp:77] Creating layer pool1
I0403 13:49:08.520433 28720 net.cpp:91] Creating Layer pool1
I0403 13:49:08.520452 28720 net.cpp:425] pool1 <- norm1
I0403 13:49:08.520472 28720 net.cpp:399] pool1 -> pool1
I0403 13:49:08.520539 28720 net.cpp:141] Setting up pool1
I0403 13:49:08.520565 28720 net.cpp:148] Top shape: 100 96 27 27 (6998400)
I0403 13:49:08.520581 28720 net.cpp:156] Memory required for data: 438310000
I0403 13:49:08.520596 28720 layer_factory.hpp:77] Creating layer conv2
I0403 13:49:08.520622 28720 net.cpp:91] Creating Layer conv2
I0403 13:49:08.520639 28720 net.cpp:425] conv2 <- pool1
I0403 13:49:08.520659 28720 net.cpp:399] conv2 -> conv2
I0403 13:49:08.535913 28720 net.cpp:141] Setting up conv2
I0403 13:49:08.535966 28720 net.cpp:148] Top shape: 100 256 27 27 (18662400)
I0403 13:49:08.535984 28720 net.cpp:156] Memory required for data: 512959600
I0403 13:49:08.536010 28720 layer_factory.hpp:77] Creating layer relu2
I0403 13:49:08.536031 28720 net.cpp:91] Creating Layer relu2
I0403 13:49:08.536046 28720 net.cpp:425] relu2 <- conv2
I0403 13:49:08.536067 28720 net.cpp:386] relu2 -> conv2 (in-place)
I0403 13:49:08.536368 28720 net.cpp:141] Setting up relu2
I0403 13:49:08.536397 28720 net.cpp:148] Top shape: 100 256 27 27 (18662400)
I0403 13:49:08.536413 28720 net.cpp:156] Memory required for data: 587609200
I0403 13:49:08.536430 28720 layer_factory.hpp:77] Creating layer norm2
I0403 13:49:08.536453 28720 net.cpp:91] Creating Layer norm2
I0403 13:49:08.536470 28720 net.cpp:425] norm2 <- conv2
I0403 13:49:08.536489 28720 net.cpp:399] norm2 -> norm2
I0403 13:49:08.536681 28720 net.cpp:141] Setting up norm2
I0403 13:49:08.536708 28720 net.cpp:148] Top shape: 100 256 27 27 (18662400)
I0403 13:49:08.536725 28720 net.cpp:156] Memory required for data: 662258800
I0403 13:49:08.536741 28720 layer_factory.hpp:77] Creating layer pool2
I0403 13:49:08.536761 28720 net.cpp:91] Creating Layer pool2
I0403 13:49:08.536777 28720 net.cpp:425] pool2 <- norm2
I0403 13:49:08.536794 28720 net.cpp:399] pool2 -> pool2
I0403 13:49:08.536846 28720 net.cpp:141] Setting up pool2
I0403 13:49:08.536870 28720 net.cpp:148] Top shape: 100 256 13 13 (4326400)
I0403 13:49:08.536887 28720 net.cpp:156] Memory required for data: 679564400
I0403 13:49:08.536903 28720 layer_factory.hpp:77] Creating layer conv3
I0403 13:49:08.536926 28720 net.cpp:91] Creating Layer conv3
I0403 13:49:08.536943 28720 net.cpp:425] conv3 <- pool2
I0403 13:49:08.536963 28720 net.cpp:399] conv3 -> conv3
I0403 13:49:08.576249 28720 net.cpp:141] Setting up conv3
I0403 13:49:08.576328 28720 net.cpp:148] Top shape: 100 384 13 13 (6489600)
I0403 13:49:08.576347 28720 net.cpp:156] Memory required for data: 705522800
I0403 13:49:08.576375 28720 layer_factory.hpp:77] Creating layer relu3
I0403 13:49:08.576400 28720 net.cpp:91] Creating Layer relu3
I0403 13:49:08.576417 28720 net.cpp:425] relu3 <- conv3
I0403 13:49:08.576438 28720 net.cpp:386] relu3 -> conv3 (in-place)
I0403 13:49:08.576711 28720 net.cpp:141] Setting up relu3
I0403 13:49:08.576740 28720 net.cpp:148] Top shape: 100 384 13 13 (6489600)
I0403 13:49:08.576756 28720 net.cpp:156] Memory required for data: 731481200
I0403 13:49:08.576772 28720 layer_factory.hpp:77] Creating layer conv4
I0403 13:49:08.576797 28720 net.cpp:91] Creating Layer conv4
I0403 13:49:08.576814 28720 net.cpp:425] conv4 <- conv3
I0403 13:49:08.576835 28720 net.cpp:399] conv4 -> conv4
I0403 13:49:08.607408 28720 net.cpp:141] Setting up conv4
I0403 13:49:08.607481 28720 net.cpp:148] Top shape: 100 384 13 13 (6489600)
I0403 13:49:08.607529 28720 net.cpp:156] Memory required for data: 757439600
I0403 13:49:08.607564 28720 layer_factory.hpp:77] Creating layer relu4
I0403 13:49:08.607589 28720 net.cpp:91] Creating Layer relu4
I0403 13:49:08.607610 28720 net.cpp:425] relu4 <- conv4
I0403 13:49:08.607630 28720 net.cpp:386] relu4 -> conv4 (in-place)
I0403 13:49:08.607928 28720 net.cpp:141] Setting up relu4
I0403 13:49:08.607954 28720 net.cpp:148] Top shape: 100 384 13 13 (6489600)
I0403 13:49:08.607970 28720 net.cpp:156] Memory required for data: 783398000
I0403 13:49:08.607985 28720 layer_factory.hpp:77] Creating layer conv5
I0403 13:49:08.608011 28720 net.cpp:91] Creating Layer conv5
I0403 13:49:08.608027 28720 net.cpp:425] conv5 <- conv4
I0403 13:49:08.608048 28720 net.cpp:399] conv5 -> conv5
I0403 13:49:08.628731 28720 net.cpp:141] Setting up conv5
I0403 13:49:08.628785 28720 net.cpp:148] Top shape: 100 256 13 13 (4326400)
I0403 13:49:08.628801 28720 net.cpp:156] Memory required for data: 800703600
I0403 13:49:08.628826 28720 layer_factory.hpp:77] Creating layer relu5
I0403 13:49:08.628864 28720 net.cpp:91] Creating Layer relu5
I0403 13:49:08.628882 28720 net.cpp:425] relu5 <- conv5
I0403 13:49:08.628901 28720 net.cpp:386] relu5 -> conv5 (in-place)
I0403 13:49:08.629189 28720 net.cpp:141] Setting up relu5
I0403 13:49:08.629217 28720 net.cpp:148] Top shape: 100 256 13 13 (4326400)
I0403 13:49:08.629233 28720 net.cpp:156] Memory required for data: 818009200
I0403 13:49:08.629251 28720 layer_factory.hpp:77] Creating layer pool5
I0403 13:49:08.629274 28720 net.cpp:91] Creating Layer pool5
I0403 13:49:08.629293 28720 net.cpp:425] pool5 <- conv5
I0403 13:49:08.629329 28720 net.cpp:399] pool5 -> pool5
I0403 13:49:08.629393 28720 net.cpp:141] Setting up pool5
I0403 13:49:08.629418 28720 net.cpp:148] Top shape: 100 256 6 6 (921600)
I0403 13:49:08.629433 28720 net.cpp:156] Memory required for data: 821695600
I0403 13:49:08.629448 28720 layer_factory.hpp:77] Creating layer fc6
I0403 13:49:08.629477 28720 net.cpp:91] Creating Layer fc6
I0403 13:49:08.629495 28720 net.cpp:425] fc6 <- pool5
I0403 13:49:08.629513 28720 net.cpp:399] fc6 -> fc6
I0403 13:49:10.188211 28720 net.cpp:141] Setting up fc6
I0403 13:49:10.188287 28720 net.cpp:148] Top shape: 100 4096 (409600)
I0403 13:49:10.188304 28720 net.cpp:156] Memory required for data: 823334000
I0403 13:49:10.188333 28720 layer_factory.hpp:77] Creating layer relu6
I0403 13:49:10.188356 28720 net.cpp:91] Creating Layer relu6
I0403 13:49:10.188375 28720 net.cpp:425] relu6 <- fc6
I0403 13:49:10.188397 28720 net.cpp:386] relu6 -> fc6 (in-place)
I0403 13:49:10.188621 28720 net.cpp:141] Setting up relu6
I0403 13:49:10.188647 28720 net.cpp:148] Top shape: 100 4096 (409600)
I0403 13:49:10.188663 28720 net.cpp:156] Memory required for data: 824972400
I0403 13:49:10.188678 28720 layer_factory.hpp:77] Creating layer drop6
I0403 13:49:10.188696 28720 net.cpp:91] Creating Layer drop6
I0403 13:49:10.188712 28720 net.cpp:425] drop6 <- fc6
I0403 13:49:10.188731 28720 net.cpp:386] drop6 -> fc6 (in-place)
I0403 13:49:10.188786 28720 net.cpp:141] Setting up drop6
I0403 13:49:10.188808 28720 net.cpp:148] Top shape: 100 4096 (409600)
I0403 13:49:10.188823 28720 net.cpp:156] Memory required for data: 826610800
I0403 13:49:10.188839 28720 layer_factory.hpp:77] Creating layer fc7
I0403 13:49:10.188859 28720 net.cpp:91] Creating Layer fc7
I0403 13:49:10.188875 28720 net.cpp:425] fc7 <- fc6
I0403 13:49:10.188895 28720 net.cpp:399] fc7 -> fc7
I0403 13:49:10.882057 28720 net.cpp:141] Setting up fc7
I0403 13:49:10.882133 28720 net.cpp:148] Top shape: 100 4096 (409600)
I0403 13:49:10.882149 28720 net.cpp:156] Memory required for data: 828249200
I0403 13:49:10.882170 28720 layer_factory.hpp:77] Creating layer relu7
I0403 13:49:10.882195 28720 net.cpp:91] Creating Layer relu7
I0403 13:49:10.882215 28720 net.cpp:425] relu7 <- fc7
I0403 13:49:10.882246 28720 net.cpp:386] relu7 -> fc7 (in-place)
I0403 13:49:10.882702 28720 net.cpp:141] Setting up relu7
I0403 13:49:10.882730 28720 net.cpp:148] Top shape: 100 4096 (409600)
I0403 13:49:10.882779 28720 net.cpp:156] Memory required for data: 829887600
I0403 13:49:10.882796 28720 layer_factory.hpp:77] Creating layer drop7
I0403 13:49:10.882817 28720 net.cpp:91] Creating Layer drop7
I0403 13:49:10.882846 28720 net.cpp:425] drop7 <- fc7
I0403 13:49:10.882863 28720 net.cpp:386] drop7 -> fc7 (in-place)
I0403 13:49:10.882906 28720 net.cpp:141] Setting up drop7
I0403 13:49:10.882930 28720 net.cpp:148] Top shape: 100 4096 (409600)
I0403 13:49:10.882946 28720 net.cpp:156] Memory required for data: 831526000
I0403 13:49:10.882959 28720 layer_factory.hpp:77] Creating layer fc8_plantvillage
I0403 13:49:10.882979 28720 net.cpp:91] Creating Layer fc8_plantvillage
I0403 13:49:10.882994 28720 net.cpp:425] fc8_plantvillage <- fc7
I0403 13:49:10.883014 28720 net.cpp:399] fc8_plantvillage -> fc8_plantvillage
I0403 13:49:10.889693 28720 net.cpp:141] Setting up fc8_plantvillage
I0403 13:49:10.889722 28720 net.cpp:148] Top shape: 100 38 (3800)
I0403 13:49:10.889739 28720 net.cpp:156] Memory required for data: 831541200
I0403 13:49:10.889757 28720 layer_factory.hpp:77] Creating layer fc8_plantvillage_fc8_plantvillage_0_split
I0403 13:49:10.889780 28720 net.cpp:91] Creating Layer fc8_plantvillage_fc8_plantvillage_0_split
I0403 13:49:10.889796 28720 net.cpp:425] fc8_plantvillage_fc8_plantvillage_0_split <- fc8_plantvillage
I0403 13:49:10.889812 28720 net.cpp:399] fc8_plantvillage_fc8_plantvillage_0_split -> fc8_plantvillage_fc8_plantvillage_0_split_0
I0403 13:49:10.889832 28720 net.cpp:399] fc8_plantvillage_fc8_plantvillage_0_split -> fc8_plantvillage_fc8_plantvillage_0_split_1
I0403 13:49:10.889853 28720 net.cpp:399] fc8_plantvillage_fc8_plantvillage_0_split -> fc8_plantvillage_fc8_plantvillage_0_split_2
I0403 13:49:10.889932 28720 net.cpp:141] Setting up fc8_plantvillage_fc8_plantvillage_0_split
I0403 13:49:10.889955 28720 net.cpp:148] Top shape: 100 38 (3800)
I0403 13:49:10.889972 28720 net.cpp:148] Top shape: 100 38 (3800)
I0403 13:49:10.889988 28720 net.cpp:148] Top shape: 100 38 (3800)
I0403 13:49:10.890003 28720 net.cpp:156] Memory required for data: 831586800
I0403 13:49:10.890018 28720 layer_factory.hpp:77] Creating layer prob
I0403 13:49:10.890038 28720 net.cpp:91] Creating Layer prob
I0403 13:49:10.890053 28720 net.cpp:425] prob <- fc8_plantvillage_fc8_plantvillage_0_split_0
I0403 13:49:10.890074 28720 net.cpp:399] prob -> prob
I0403 13:49:10.890300 28720 net.cpp:141] Setting up prob
I0403 13:49:10.890331 28720 net.cpp:148] Top shape: 100 38 (3800)
I0403 13:49:10.890347 28720 net.cpp:156] Memory required for data: 831602000
I0403 13:49:10.890362 28720 layer_factory.hpp:77] Creating layer hdf5out
I0403 13:49:10.890385 28720 net.cpp:91] Creating Layer hdf5out
I0403 13:49:10.890403 28720 net.cpp:425] hdf5out <- prob
I0403 13:49:10.890419 28720 net.cpp:425] hdf5out <- label_data_1_split_0
I0403 13:49:10.894130 28720 net.cpp:141] Setting up hdf5out
…
