…
I0403 13:50:34.401233 28751 net.cpp:313] The NetState phase (1) differed from the phase (0) specified by a rule in layer data
I0403 13:50:34.401567 28751 net.cpp:49] Initializing net from parameters: 
state {
  phase: TEST
}
layer {
  name: "data"
  type: "Data"
  top: "data"
  top: "label"
  include {
    phase: TEST
  }
  transform_param {
    crop_size: 227
    mean_file: "/home/mohanty/data/final_dataset/lmdb/grayscale-20-80/mean.binaryproto"
  }
  data_param {
    source: "/home/mohanty/data/final_dataset/lmdb/grayscale-20-80/test_db"
    batch_size: 100
    backend: LMDB
  }
}
layer {
  name: "conv1"
  type: "Convolution"
  bottom: "data"
  top: "conv1"
  param {
    lr_mult: 1
    decay_mult: 1
  }
  param {
    lr_mult: 2
    decay_mult: 0
  }
  convolution_param {
    num_output: 96
    kernel_size: 11
    stride: 4
    weight_filler {
      type: "gaussian"
      std: 0.01
    }
    bias_filler {
      type: "constant"
      value: 0
    }
  }
}
layer {
  name: "relu1"
  type: "ReLU"
  bottom: "conv1"
  top: "conv1"
}
layer {
  name: "norm1"
  type: "LRN"
  bottom: "conv1"
  top: "norm1"
  lrn_param {
    local_size: 5
    alpha: 0.0001
    beta: 0.75
  }
}
layer {
  name: "pool1"
  type: "Pooling"
  bottom: "norm1"
  top: "pool1"
  pooling_param {
    pool: MAX
    kernel_size: 3
    stride: 2
  }
}
layer {
  name: "conv2"
  type: "Convolution"
  bottom: "pool1"
  top: "conv2"
  param {
    lr_mult: 1
    decay_mult: 1
  }
  param {
    lr_mult: 2
    decay_mult: 0
  }
  convolution_param {
    num_output: 256
    pad: 2
    kernel_size: 5
    group: 2
    weight_filler {
      type: "gaussian"
      std: 0.01
    }
    bias_filler {
      type: "constant"
      value: 0.1
    }
  }
}
layer {
  name: "relu2"
  type: "ReLU"
  bottom: "conv2"
  top: "conv2"
}
layer {
  name: "norm2"
  type: "LRN"
  bottom: "conv2"
  top: "norm2"
  lrn_param {
    local_size: 5
    alpha: 0.0001
    beta: 0.75
  }
}
layer {
  name: "pool2"
  type: "Pooling"
  bottom: "norm2"
  top: "pool2"
  pooling_param {
    pool: MAX
    kernel_size: 3
    stride: 2
  }
}
layer {
  name: "conv3"
  type: "Convolution"
  bottom: "pool2"
  top: "conv3"
  param {
    lr_mult: 1
    decay_mult: 1
  }
  param {
    lr_mult: 2
    decay_mult: 0
  }
  convolution_param {
    num_output: 384
    pad: 1
    kernel_size: 3
    weight_filler {
      type: "gaussian"
      std: 0.01
    }
    bias_filler {
      type: "constant"
      value: 0
    }
  }
}
layer {
  name: "relu3"
  type: "ReLU"
  bottom: "conv3"
  top: "conv3"
}
layer {
  name: "conv4"
  type: "Convolution"
  bottom: "conv3"
  top: "conv4"
  param {
    lr_mult: 1
    decay_mult: 1
  }
  param {
    lr_mult: 2
    decay_mult: 0
  }
  convolution_param {
    num_output: 384
    pad: 1
    kernel_size: 3
    group: 2
    weight_filler {
      type: "gaussian"
      std: 0.01
    }
    bias_filler {
      type: "constant"
      value: 0.1
    }
  }
}
layer {
  name: "relu4"
  type: "ReLU"
  bottom: "conv4"
  top: "conv4"
}
layer {
  name: "conv5"
  type: "Convolution"
  bottom: "conv4"
  top: "conv5"
  param {
    lr_mult: 1
    decay_mult: 1
  }
  param {
    lr_mult: 2
    decay_mult: 0
  }
  convolution_param {
    num_output: 256
    pad: 1
    kernel_size: 3
    group: 2
    weight_filler {
      type: "gaussian"
      std: 0.01
    }
    bias_filler {
      type: "constant"
      value: 0.1
    }
  }
}
layer {
  name: "relu5"
  type: "ReLU"
  bottom: "conv5"
  top: "conv5"
}
layer {
  name: "pool5"
  type: "Pooling"
  bottom: "conv5"
  top: "pool5"
  pooling_param {
    pool: MAX
    kernel_size: 3
    stride: 2
  }
}
layer {
  name: "fc6"
  type: "InnerProduct"
  bottom: "pool5"
  top: "fc6"
  param {
    lr_mult: 1
    decay_mult: 1
  }
  param {
    lr_mult: 2
    decay_mult: 0
  }
  inner_product_param {
    num_output: 4096
    weight_filler {
      type: "gaussian"
      std: 0.005
    }
    bias_filler {
      type: "constant"
      value: 0.1
    }
  }
}
layer {
  name: "relu6"
  type: "ReLU"
  bottom: "fc6"
  top: "fc6"
}
layer {
  name: "drop6"
  type: "Dropout"
  bottom: "fc6"
  top: "fc6"
  dropout_param {
    dropout_ratio: 0.5
  }
}
layer {
  name: "fc7"
  type: "InnerProduct"
  bottom: "fc6"
  top: "fc7"
  param {
    lr_mult: 1
    decay_mult: 1
  }
  param {
    lr_mult: 2
    decay_mult: 0
  }
  inner_product_param {
    num_output: 4096
    weight_filler {
      type: "gaussian"
      std: 0.005
    }
    bias_filler {
      type: "constant"
      value: 0.1
    }
  }
}
layer {
  name: "relu7"
  type: "ReLU"
  bottom: "fc7"
  top: "fc7"
}
layer {
  name: "drop7"
  type: "Dropout"
  bottom: "fc7"
  top: "fc7"
  dropout_param {
    dropout_ratio: 0.5
  }
}
layer {
  name: "fc8_plantvillage"
  type: "InnerProduct"
  bottom: "fc7"
  top: "fc8_plantvillage"
  param {
    lr_mult: 1
    decay_mult: 1
  }
  param {
    lr_mult: 2
    decay_mult: 0
  }
  inner_product_param {
    num_output: 38
    weight_filler {
      type: "gaussian"
      std: 0.01
    }
    bias_filler {
      type: "constant"
      value: 0
    }
  }
}
layer {
  name: "prob"
  type: "Softmax"
  bottom: "fc8_plantvillage"
  top: "prob"
  include {
    phase: TEST
  }
}
layer {
  name: "hdf5out"
  type: "HDF5Output"
  bottom: "prob"
  bottom: "label"
  include {
    phase: TEST
  }
  hdf5_output_param {
    file_name: "hdf5_dumps/iter_2100.h5"
  }
}
layer {
  name: "loss"
  type: "SoftmaxWithLoss"
  bottom: "fc8_plantvillage"
  bottom: "label"
  top: "loss"
}
layer {
  name: "accuracy"
  type: "Accuracy"
  bottom: "fc8_plantvillage"
  bottom: "label"
  top: "accuracy"
  include {
    phase: TEST
  }
}
I0403 13:50:34.402112 28751 layer_factory.hpp:77] Creating layer data
I0403 13:50:34.402772 28751 net.cpp:91] Creating Layer data
I0403 13:50:34.402808 28751 net.cpp:399] data -> data
I0403 13:50:34.402863 28751 net.cpp:399] data -> label
I0403 13:50:34.402900 28751 data_transformer.cpp:25] Loading mean file from: /home/mohanty/data/final_dataset/lmdb/grayscale-20-80/mean.binaryproto
I0403 13:50:34.405498 28754 db_lmdb.cpp:38] Opened lmdb /home/mohanty/data/final_dataset/lmdb/grayscale-20-80/test_db
I0403 13:50:34.418004 28751 data_layer.cpp:41] output data size: 100,3,227,227
I0403 13:50:34.539127 28751 net.cpp:141] Setting up data
I0403 13:50:34.539189 28751 net.cpp:148] Top shape: 100 3 227 227 (15458700)
I0403 13:50:34.539213 28751 net.cpp:148] Top shape: 100 (100)
I0403 13:50:34.539230 28751 net.cpp:156] Memory required for data: 61835200
I0403 13:50:34.539261 28751 layer_factory.hpp:77] Creating layer label_data_1_split
I0403 13:50:34.539288 28751 net.cpp:91] Creating Layer label_data_1_split
I0403 13:50:34.539309 28751 net.cpp:425] label_data_1_split <- label
I0403 13:50:34.539345 28751 net.cpp:399] label_data_1_split -> label_data_1_split_0
I0403 13:50:34.539379 28751 net.cpp:399] label_data_1_split -> label_data_1_split_1
I0403 13:50:34.539402 28751 net.cpp:399] label_data_1_split -> label_data_1_split_2
I0403 13:50:34.539469 28751 net.cpp:141] Setting up label_data_1_split
I0403 13:50:34.539494 28751 net.cpp:148] Top shape: 100 (100)
I0403 13:50:34.539516 28751 net.cpp:148] Top shape: 100 (100)
I0403 13:50:34.539535 28751 net.cpp:148] Top shape: 100 (100)
I0403 13:50:34.539551 28751 net.cpp:156] Memory required for data: 61836400
I0403 13:50:34.539567 28751 layer_factory.hpp:77] Creating layer conv1
I0403 13:50:34.539600 28751 net.cpp:91] Creating Layer conv1
I0403 13:50:34.539621 28751 net.cpp:425] conv1 <- data
I0403 13:50:34.539644 28751 net.cpp:399] conv1 -> conv1
I0403 13:50:34.685962 28751 net.cpp:141] Setting up conv1
I0403 13:50:34.686064 28751 net.cpp:148] Top shape: 100 96 55 55 (29040000)
I0403 13:50:34.686086 28751 net.cpp:156] Memory required for data: 177996400
I0403 13:50:34.686120 28751 layer_factory.hpp:77] Creating layer relu1
I0403 13:50:34.686151 28751 net.cpp:91] Creating Layer relu1
I0403 13:50:34.686172 28751 net.cpp:425] relu1 <- conv1
I0403 13:50:34.686192 28751 net.cpp:386] relu1 -> conv1 (in-place)
I0403 13:50:34.686470 28751 net.cpp:141] Setting up relu1
I0403 13:50:34.686499 28751 net.cpp:148] Top shape: 100 96 55 55 (29040000)
I0403 13:50:34.686549 28751 net.cpp:156] Memory required for data: 294156400
I0403 13:50:34.686568 28751 layer_factory.hpp:77] Creating layer norm1
I0403 13:50:34.686599 28751 net.cpp:91] Creating Layer norm1
I0403 13:50:34.686619 28751 net.cpp:425] norm1 <- conv1
I0403 13:50:34.686640 28751 net.cpp:399] norm1 -> norm1
I0403 13:50:34.686969 28751 net.cpp:141] Setting up norm1
I0403 13:50:34.687002 28751 net.cpp:148] Top shape: 100 96 55 55 (29040000)
I0403 13:50:34.687021 28751 net.cpp:156] Memory required for data: 410316400
I0403 13:50:34.687038 28751 layer_factory.hpp:77] Creating layer pool1
I0403 13:50:34.687062 28751 net.cpp:91] Creating Layer pool1
I0403 13:50:34.687082 28751 net.cpp:425] pool1 <- norm1
I0403 13:50:34.687101 28751 net.cpp:399] pool1 -> pool1
I0403 13:50:34.687172 28751 net.cpp:141] Setting up pool1
I0403 13:50:34.687198 28751 net.cpp:148] Top shape: 100 96 27 27 (6998400)
I0403 13:50:34.687216 28751 net.cpp:156] Memory required for data: 438310000
I0403 13:50:34.687233 28751 layer_factory.hpp:77] Creating layer conv2
I0403 13:50:34.687260 28751 net.cpp:91] Creating Layer conv2
I0403 13:50:34.687279 28751 net.cpp:425] conv2 <- pool1
I0403 13:50:34.687300 28751 net.cpp:399] conv2 -> conv2
I0403 13:50:34.703033 28751 net.cpp:141] Setting up conv2
I0403 13:50:34.703088 28751 net.cpp:148] Top shape: 100 256 27 27 (18662400)
I0403 13:50:34.703107 28751 net.cpp:156] Memory required for data: 512959600
I0403 13:50:34.703133 28751 layer_factory.hpp:77] Creating layer relu2
I0403 13:50:34.703156 28751 net.cpp:91] Creating Layer relu2
I0403 13:50:34.703174 28751 net.cpp:425] relu2 <- conv2
I0403 13:50:34.703197 28751 net.cpp:386] relu2 -> conv2 (in-place)
I0403 13:50:34.703510 28751 net.cpp:141] Setting up relu2
I0403 13:50:34.703542 28751 net.cpp:148] Top shape: 100 256 27 27 (18662400)
I0403 13:50:34.703564 28751 net.cpp:156] Memory required for data: 587609200
I0403 13:50:34.703583 28751 layer_factory.hpp:77] Creating layer norm2
I0403 13:50:34.703605 28751 net.cpp:91] Creating Layer norm2
I0403 13:50:34.703624 28751 net.cpp:425] norm2 <- conv2
I0403 13:50:34.703676 28751 net.cpp:399] norm2 -> norm2
I0403 13:50:34.703896 28751 net.cpp:141] Setting up norm2
I0403 13:50:34.703925 28751 net.cpp:148] Top shape: 100 256 27 27 (18662400)
I0403 13:50:34.703945 28751 net.cpp:156] Memory required for data: 662258800
I0403 13:50:34.703963 28751 layer_factory.hpp:77] Creating layer pool2
I0403 13:50:34.703984 28751 net.cpp:91] Creating Layer pool2
I0403 13:50:34.704001 28751 net.cpp:425] pool2 <- norm2
I0403 13:50:34.704021 28751 net.cpp:399] pool2 -> pool2
I0403 13:50:34.704079 28751 net.cpp:141] Setting up pool2
I0403 13:50:34.704105 28751 net.cpp:148] Top shape: 100 256 13 13 (4326400)
I0403 13:50:34.704123 28751 net.cpp:156] Memory required for data: 679564400
I0403 13:50:34.704141 28751 layer_factory.hpp:77] Creating layer conv3
I0403 13:50:34.704169 28751 net.cpp:91] Creating Layer conv3
I0403 13:50:34.704188 28751 net.cpp:425] conv3 <- pool2
I0403 13:50:34.704212 28751 net.cpp:399] conv3 -> conv3
I0403 13:50:34.744243 28751 net.cpp:141] Setting up conv3
I0403 13:50:34.744297 28751 net.cpp:148] Top shape: 100 384 13 13 (6489600)
I0403 13:50:34.744318 28751 net.cpp:156] Memory required for data: 705522800
I0403 13:50:34.744344 28751 layer_factory.hpp:77] Creating layer relu3
I0403 13:50:34.744377 28751 net.cpp:91] Creating Layer relu3
I0403 13:50:34.744398 28751 net.cpp:425] relu3 <- conv3
I0403 13:50:34.744421 28751 net.cpp:386] relu3 -> conv3 (in-place)
I0403 13:50:34.744716 28751 net.cpp:141] Setting up relu3
I0403 13:50:34.744746 28751 net.cpp:148] Top shape: 100 384 13 13 (6489600)
I0403 13:50:34.744763 28751 net.cpp:156] Memory required for data: 731481200
I0403 13:50:34.744812 28751 layer_factory.hpp:77] Creating layer conv4
I0403 13:50:34.744848 28751 net.cpp:91] Creating Layer conv4
I0403 13:50:34.744869 28751 net.cpp:425] conv4 <- conv3
I0403 13:50:34.744890 28751 net.cpp:399] conv4 -> conv4
I0403 13:50:34.776067 28751 net.cpp:141] Setting up conv4
I0403 13:50:34.776134 28751 net.cpp:148] Top shape: 100 384 13 13 (6489600)
I0403 13:50:34.776186 28751 net.cpp:156] Memory required for data: 757439600
I0403 13:50:34.776211 28751 layer_factory.hpp:77] Creating layer relu4
I0403 13:50:34.776237 28751 net.cpp:91] Creating Layer relu4
I0403 13:50:34.776255 28751 net.cpp:425] relu4 <- conv4
I0403 13:50:34.776276 28751 net.cpp:386] relu4 -> conv4 (in-place)
I0403 13:50:34.776576 28751 net.cpp:141] Setting up relu4
I0403 13:50:34.776604 28751 net.cpp:148] Top shape: 100 384 13 13 (6489600)
I0403 13:50:34.776623 28751 net.cpp:156] Memory required for data: 783398000
I0403 13:50:34.776638 28751 layer_factory.hpp:77] Creating layer conv5
I0403 13:50:34.776665 28751 net.cpp:91] Creating Layer conv5
I0403 13:50:34.776684 28751 net.cpp:425] conv5 <- conv4
I0403 13:50:34.776708 28751 net.cpp:399] conv5 -> conv5
I0403 13:50:34.798256 28751 net.cpp:141] Setting up conv5
I0403 13:50:34.798308 28751 net.cpp:148] Top shape: 100 256 13 13 (4326400)
I0403 13:50:34.798326 28751 net.cpp:156] Memory required for data: 800703600
I0403 13:50:34.798359 28751 layer_factory.hpp:77] Creating layer relu5
I0403 13:50:34.798384 28751 net.cpp:91] Creating Layer relu5
I0403 13:50:34.798403 28751 net.cpp:425] relu5 <- conv5
I0403 13:50:34.798421 28751 net.cpp:386] relu5 -> conv5 (in-place)
I0403 13:50:34.798707 28751 net.cpp:141] Setting up relu5
I0403 13:50:34.798738 28751 net.cpp:148] Top shape: 100 256 13 13 (4326400)
I0403 13:50:34.798755 28751 net.cpp:156] Memory required for data: 818009200
I0403 13:50:34.798773 28751 layer_factory.hpp:77] Creating layer pool5
I0403 13:50:34.798795 28751 net.cpp:91] Creating Layer pool5
I0403 13:50:34.798813 28751 net.cpp:425] pool5 <- conv5
I0403 13:50:34.798835 28751 net.cpp:399] pool5 -> pool5
I0403 13:50:34.798898 28751 net.cpp:141] Setting up pool5
I0403 13:50:34.798924 28751 net.cpp:148] Top shape: 100 256 6 6 (921600)
I0403 13:50:34.798940 28751 net.cpp:156] Memory required for data: 821695600
I0403 13:50:34.798957 28751 layer_factory.hpp:77] Creating layer fc6
I0403 13:50:34.798987 28751 net.cpp:91] Creating Layer fc6
I0403 13:50:34.799005 28751 net.cpp:425] fc6 <- pool5
I0403 13:50:34.799027 28751 net.cpp:399] fc6 -> fc6
I0403 13:50:36.381996 28751 net.cpp:141] Setting up fc6
I0403 13:50:36.382074 28751 net.cpp:148] Top shape: 100 4096 (409600)
I0403 13:50:36.382092 28751 net.cpp:156] Memory required for data: 823334000
I0403 13:50:36.382115 28751 layer_factory.hpp:77] Creating layer relu6
I0403 13:50:36.382139 28751 net.cpp:91] Creating Layer relu6
I0403 13:50:36.382158 28751 net.cpp:425] relu6 <- fc6
I0403 13:50:36.382182 28751 net.cpp:386] relu6 -> fc6 (in-place)
I0403 13:50:36.382426 28751 net.cpp:141] Setting up relu6
I0403 13:50:36.382455 28751 net.cpp:148] Top shape: 100 4096 (409600)
I0403 13:50:36.382472 28751 net.cpp:156] Memory required for data: 824972400
I0403 13:50:36.382488 28751 layer_factory.hpp:77] Creating layer drop6
I0403 13:50:36.382509 28751 net.cpp:91] Creating Layer drop6
I0403 13:50:36.382535 28751 net.cpp:425] drop6 <- fc6
I0403 13:50:36.382553 28751 net.cpp:386] drop6 -> fc6 (in-place)
I0403 13:50:36.382608 28751 net.cpp:141] Setting up drop6
I0403 13:50:36.382633 28751 net.cpp:148] Top shape: 100 4096 (409600)
I0403 13:50:36.382650 28751 net.cpp:156] Memory required for data: 826610800
I0403 13:50:36.382668 28751 layer_factory.hpp:77] Creating layer fc7
I0403 13:50:36.382690 28751 net.cpp:91] Creating Layer fc7
I0403 13:50:36.382707 28751 net.cpp:425] fc7 <- fc6
I0403 13:50:36.382726 28751 net.cpp:399] fc7 -> fc7
I0403 13:50:37.070507 28751 net.cpp:141] Setting up fc7
I0403 13:50:37.070592 28751 net.cpp:148] Top shape: 100 4096 (409600)
I0403 13:50:37.070611 28751 net.cpp:156] Memory required for data: 828249200
I0403 13:50:37.070633 28751 layer_factory.hpp:77] Creating layer relu7
I0403 13:50:37.070658 28751 net.cpp:91] Creating Layer relu7
I0403 13:50:37.070677 28751 net.cpp:425] relu7 <- fc7
I0403 13:50:37.070698 28751 net.cpp:386] relu7 -> fc7 (in-place)
I0403 13:50:37.071105 28751 net.cpp:141] Setting up relu7
I0403 13:50:37.071131 28751 net.cpp:148] Top shape: 100 4096 (409600)
I0403 13:50:37.071179 28751 net.cpp:156] Memory required for data: 829887600
I0403 13:50:37.071197 28751 layer_factory.hpp:77] Creating layer drop7
I0403 13:50:37.071221 28751 net.cpp:91] Creating Layer drop7
I0403 13:50:37.071239 28751 net.cpp:425] drop7 <- fc7
I0403 13:50:37.071257 28751 net.cpp:386] drop7 -> fc7 (in-place)
I0403 13:50:37.071305 28751 net.cpp:141] Setting up drop7
I0403 13:50:37.071329 28751 net.cpp:148] Top shape: 100 4096 (409600)
I0403 13:50:37.071344 28751 net.cpp:156] Memory required for data: 831526000
I0403 13:50:37.071365 28751 layer_factory.hpp:77] Creating layer fc8_plantvillage
I0403 13:50:37.071387 28751 net.cpp:91] Creating Layer fc8_plantvillage
I0403 13:50:37.071403 28751 net.cpp:425] fc8_plantvillage <- fc7
I0403 13:50:37.071424 28751 net.cpp:399] fc8_plantvillage -> fc8_plantvillage
I0403 13:50:37.078197 28751 net.cpp:141] Setting up fc8_plantvillage
I0403 13:50:37.078227 28751 net.cpp:148] Top shape: 100 38 (3800)
I0403 13:50:37.078244 28751 net.cpp:156] Memory required for data: 831541200
I0403 13:50:37.078263 28751 layer_factory.hpp:77] Creating layer fc8_plantvillage_fc8_plantvillage_0_split
I0403 13:50:37.078282 28751 net.cpp:91] Creating Layer fc8_plantvillage_fc8_plantvillage_0_split
I0403 13:50:37.078300 28751 net.cpp:425] fc8_plantvillage_fc8_plantvillage_0_split <- fc8_plantvillage
I0403 13:50:37.078320 28751 net.cpp:399] fc8_plantvillage_fc8_plantvillage_0_split -> fc8_plantvillage_fc8_plantvillage_0_split_0
I0403 13:50:37.078339 28751 net.cpp:399] fc8_plantvillage_fc8_plantvillage_0_split -> fc8_plantvillage_fc8_plantvillage_0_split_1
I0403 13:50:37.078368 28751 net.cpp:399] fc8_plantvillage_fc8_plantvillage_0_split -> fc8_plantvillage_fc8_plantvillage_0_split_2
I0403 13:50:37.078449 28751 net.cpp:141] Setting up fc8_plantvillage_fc8_plantvillage_0_split
I0403 13:50:37.078474 28751 net.cpp:148] Top shape: 100 38 (3800)
I0403 13:50:37.078491 28751 net.cpp:148] Top shape: 100 38 (3800)
I0403 13:50:37.078508 28751 net.cpp:148] Top shape: 100 38 (3800)
I0403 13:50:37.078523 28751 net.cpp:156] Memory required for data: 831586800
I0403 13:50:37.078538 28751 layer_factory.hpp:77] Creating layer prob
I0403 13:50:37.078558 28751 net.cpp:91] Creating Layer prob
I0403 13:50:37.078574 28751 net.cpp:425] prob <- fc8_plantvillage_fc8_plantvillage_0_split_0
I0403 13:50:37.078593 28751 net.cpp:399] prob -> prob
I0403 13:50:37.078825 28751 net.cpp:141] Setting up prob
I0403 13:50:37.078852 28751 net.cpp:148] Top shape: 100 38 (3800)
I0403 13:50:37.078868 28751 net.cpp:156] Memory required for data: 831602000
I0403 13:50:37.078884 28751 layer_factory.hpp:77] Creating layer hdf5out
I0403 13:50:37.078907 28751 net.cpp:91] Creating Layer hdf5out
I0403 13:50:37.078925 28751 net.cpp:425] hdf5out <- prob
I0403 13:50:37.078944 28751 net.cpp:425] hdf5out <- label_data_1_split_0
I0403 13:50:37.083112 28751 net.cpp:141] Setting up hdf5out
…
