…
I0403 13:23:14.791787 27988 net.cpp:313] The NetState phase (1) differed from the phase (0) specified by a rule in layer data
I0403 13:23:14.792096 27988 net.cpp:49] Initializing net from parameters: 
state {
  phase: TEST
}
layer {
  name: "data"
  type: "Data"
  top: "data"
  top: "label"
  include {
    phase: TEST
  }
  transform_param {
    crop_size: 227
    mean_file: "/home/mohanty/data/final_dataset/lmdb/grayscale-20-80/mean.binaryproto"
  }
  data_param {
    source: "/home/mohanty/data/final_dataset/lmdb/grayscale-20-80/test_db"
    batch_size: 100
    backend: LMDB
  }
}
layer {
  name: "conv1"
  type: "Convolution"
  bottom: "data"
  top: "conv1"
  param {
    lr_mult: 1
    decay_mult: 1
  }
  param {
    lr_mult: 2
    decay_mult: 0
  }
  convolution_param {
    num_output: 96
    kernel_size: 11
    stride: 4
    weight_filler {
      type: "gaussian"
      std: 0.01
    }
    bias_filler {
      type: "constant"
      value: 0
    }
  }
}
layer {
  name: "relu1"
  type: "ReLU"
  bottom: "conv1"
  top: "conv1"
}
layer {
  name: "norm1"
  type: "LRN"
  bottom: "conv1"
  top: "norm1"
  lrn_param {
    local_size: 5
    alpha: 0.0001
    beta: 0.75
  }
}
layer {
  name: "pool1"
  type: "Pooling"
  bottom: "norm1"
  top: "pool1"
  pooling_param {
    pool: MAX
    kernel_size: 3
    stride: 2
  }
}
layer {
  name: "conv2"
  type: "Convolution"
  bottom: "pool1"
  top: "conv2"
  param {
    lr_mult: 1
    decay_mult: 1
  }
  param {
    lr_mult: 2
    decay_mult: 0
  }
  convolution_param {
    num_output: 256
    pad: 2
    kernel_size: 5
    group: 2
    weight_filler {
      type: "gaussian"
      std: 0.01
    }
    bias_filler {
      type: "constant"
      value: 0.1
    }
  }
}
layer {
  name: "relu2"
  type: "ReLU"
  bottom: "conv2"
  top: "conv2"
}
layer {
  name: "norm2"
  type: "LRN"
  bottom: "conv2"
  top: "norm2"
  lrn_param {
    local_size: 5
    alpha: 0.0001
    beta: 0.75
  }
}
layer {
  name: "pool2"
  type: "Pooling"
  bottom: "norm2"
  top: "pool2"
  pooling_param {
    pool: MAX
    kernel_size: 3
    stride: 2
  }
}
layer {
  name: "conv3"
  type: "Convolution"
  bottom: "pool2"
  top: "conv3"
  param {
    lr_mult: 1
    decay_mult: 1
  }
  param {
    lr_mult: 2
    decay_mult: 0
  }
  convolution_param {
    num_output: 384
    pad: 1
    kernel_size: 3
    weight_filler {
      type: "gaussian"
      std: 0.01
    }
    bias_filler {
      type: "constant"
      value: 0
    }
  }
}
layer {
  name: "relu3"
  type: "ReLU"
  bottom: "conv3"
  top: "conv3"
}
layer {
  name: "conv4"
  type: "Convolution"
  bottom: "conv3"
  top: "conv4"
  param {
    lr_mult: 1
    decay_mult: 1
  }
  param {
    lr_mult: 2
    decay_mult: 0
  }
  convolution_param {
    num_output: 384
    pad: 1
    kernel_size: 3
    group: 2
    weight_filler {
      type: "gaussian"
      std: 0.01
    }
    bias_filler {
      type: "constant"
      value: 0.1
    }
  }
}
layer {
  name: "relu4"
  type: "ReLU"
  bottom: "conv4"
  top: "conv4"
}
layer {
  name: "conv5"
  type: "Convolution"
  bottom: "conv4"
  top: "conv5"
  param {
    lr_mult: 1
    decay_mult: 1
  }
  param {
    lr_mult: 2
    decay_mult: 0
  }
  convolution_param {
    num_output: 256
    pad: 1
    kernel_size: 3
    group: 2
    weight_filler {
      type: "gaussian"
      std: 0.01
    }
    bias_filler {
      type: "constant"
      value: 0.1
    }
  }
}
layer {
  name: "relu5"
  type: "ReLU"
  bottom: "conv5"
  top: "conv5"
}
layer {
  name: "pool5"
  type: "Pooling"
  bottom: "conv5"
  top: "pool5"
  pooling_param {
    pool: MAX
    kernel_size: 3
    stride: 2
  }
}
layer {
  name: "fc6"
  type: "InnerProduct"
  bottom: "pool5"
  top: "fc6"
  param {
    lr_mult: 1
    decay_mult: 1
  }
  param {
    lr_mult: 2
    decay_mult: 0
  }
  inner_product_param {
    num_output: 4096
    weight_filler {
      type: "gaussian"
      std: 0.005
    }
    bias_filler {
      type: "constant"
      value: 0.1
    }
  }
}
layer {
  name: "relu6"
  type: "ReLU"
  bottom: "fc6"
  top: "fc6"
}
layer {
  name: "drop6"
  type: "Dropout"
  bottom: "fc6"
  top: "fc6"
  dropout_param {
    dropout_ratio: 0.5
  }
}
layer {
  name: "fc7"
  type: "InnerProduct"
  bottom: "fc6"
  top: "fc7"
  param {
    lr_mult: 1
    decay_mult: 1
  }
  param {
    lr_mult: 2
    decay_mult: 0
  }
  inner_product_param {
    num_output: 4096
    weight_filler {
      type: "gaussian"
      std: 0.005
    }
    bias_filler {
      type: "constant"
      value: 0.1
    }
  }
}
layer {
  name: "relu7"
  type: "ReLU"
  bottom: "fc7"
  top: "fc7"
}
layer {
  name: "drop7"
  type: "Dropout"
  bottom: "fc7"
  top: "fc7"
  dropout_param {
    dropout_ratio: 0.5
  }
}
layer {
  name: "fc8_plantvillage"
  type: "InnerProduct"
  bottom: "fc7"
  top: "fc8_plantvillage"
  param {
    lr_mult: 1
    decay_mult: 1
  }
  param {
    lr_mult: 2
    decay_mult: 0
  }
  inner_product_param {
    num_output: 38
    weight_filler {
      type: "gaussian"
      std: 0.01
    }
    bias_filler {
      type: "constant"
      value: 0
    }
  }
}
layer {
  name: "prob"
  type: "Softmax"
  bottom: "fc8_plantvillage"
  top: "prob"
  include {
    phase: TEST
  }
}
layer {
  name: "hdf5out"
  type: "HDF5Output"
  bottom: "prob"
  bottom: "label"
  include {
    phase: TEST
  }
  hdf5_output_param {
    file_name: "hdf5_dumps/iter_105.h5"
  }
}
layer {
  name: "loss"
  type: "SoftmaxWithLoss"
  bottom: "fc8_plantvillage"
  bottom: "label"
  top: "loss"
}
layer {
  name: "accuracy"
  type: "Accuracy"
  bottom: "fc8_plantvillage"
  bottom: "label"
  top: "accuracy"
  include {
    phase: TEST
  }
}
I0403 13:23:14.792659 27988 layer_factory.hpp:77] Creating layer data
I0403 13:23:14.793287 27988 net.cpp:91] Creating Layer data
I0403 13:23:14.793318 27988 net.cpp:399] data -> data
I0403 13:23:14.793382 27988 net.cpp:399] data -> label
I0403 13:23:14.793424 27988 data_transformer.cpp:25] Loading mean file from: /home/mohanty/data/final_dataset/lmdb/grayscale-20-80/mean.binaryproto
I0403 13:23:14.810840 27991 db_lmdb.cpp:38] Opened lmdb /home/mohanty/data/final_dataset/lmdb/grayscale-20-80/test_db
I0403 13:23:14.827986 27988 data_layer.cpp:41] output data size: 100,3,227,227
I0403 13:23:14.945852 27988 net.cpp:141] Setting up data
I0403 13:23:14.945914 27988 net.cpp:148] Top shape: 100 3 227 227 (15458700)
I0403 13:23:14.945938 27988 net.cpp:148] Top shape: 100 (100)
I0403 13:23:14.945955 27988 net.cpp:156] Memory required for data: 61835200
I0403 13:23:14.945983 27988 layer_factory.hpp:77] Creating layer label_data_1_split
I0403 13:23:14.946009 27988 net.cpp:91] Creating Layer label_data_1_split
I0403 13:23:14.946027 27988 net.cpp:425] label_data_1_split <- label
I0403 13:23:14.946058 27988 net.cpp:399] label_data_1_split -> label_data_1_split_0
I0403 13:23:14.946085 27988 net.cpp:399] label_data_1_split -> label_data_1_split_1
I0403 13:23:14.946105 27988 net.cpp:399] label_data_1_split -> label_data_1_split_2
I0403 13:23:14.946169 27988 net.cpp:141] Setting up label_data_1_split
I0403 13:23:14.946195 27988 net.cpp:148] Top shape: 100 (100)
I0403 13:23:14.946213 27988 net.cpp:148] Top shape: 100 (100)
I0403 13:23:14.946228 27988 net.cpp:148] Top shape: 100 (100)
I0403 13:23:14.946244 27988 net.cpp:156] Memory required for data: 61836400
I0403 13:23:14.946260 27988 layer_factory.hpp:77] Creating layer conv1
I0403 13:23:14.946291 27988 net.cpp:91] Creating Layer conv1
I0403 13:23:14.946310 27988 net.cpp:425] conv1 <- data
I0403 13:23:14.946336 27988 net.cpp:399] conv1 -> conv1
I0403 13:23:15.087568 27988 net.cpp:141] Setting up conv1
I0403 13:23:15.087646 27988 net.cpp:148] Top shape: 100 96 55 55 (29040000)
I0403 13:23:15.087666 27988 net.cpp:156] Memory required for data: 177996400
I0403 13:23:15.087700 27988 layer_factory.hpp:77] Creating layer relu1
I0403 13:23:15.087728 27988 net.cpp:91] Creating Layer relu1
I0403 13:23:15.087749 27988 net.cpp:425] relu1 <- conv1
I0403 13:23:15.087769 27988 net.cpp:386] relu1 -> conv1 (in-place)
I0403 13:23:15.088037 27988 net.cpp:141] Setting up relu1
I0403 13:23:15.088066 27988 net.cpp:148] Top shape: 100 96 55 55 (29040000)
I0403 13:23:15.088116 27988 net.cpp:156] Memory required for data: 294156400
I0403 13:23:15.088135 27988 layer_factory.hpp:77] Creating layer norm1
I0403 13:23:15.088163 27988 net.cpp:91] Creating Layer norm1
I0403 13:23:15.088182 27988 net.cpp:425] norm1 <- conv1
I0403 13:23:15.088202 27988 net.cpp:399] norm1 -> norm1
I0403 13:23:15.088526 27988 net.cpp:141] Setting up norm1
I0403 13:23:15.088557 27988 net.cpp:148] Top shape: 100 96 55 55 (29040000)
I0403 13:23:15.088573 27988 net.cpp:156] Memory required for data: 410316400
I0403 13:23:15.088590 27988 layer_factory.hpp:77] Creating layer pool1
I0403 13:23:15.088614 27988 net.cpp:91] Creating Layer pool1
I0403 13:23:15.088632 27988 net.cpp:425] pool1 <- norm1
I0403 13:23:15.088651 27988 net.cpp:399] pool1 -> pool1
I0403 13:23:15.088719 27988 net.cpp:141] Setting up pool1
I0403 13:23:15.088745 27988 net.cpp:148] Top shape: 100 96 27 27 (6998400)
I0403 13:23:15.088762 27988 net.cpp:156] Memory required for data: 438310000
I0403 13:23:15.088778 27988 layer_factory.hpp:77] Creating layer conv2
I0403 13:23:15.088804 27988 net.cpp:91] Creating Layer conv2
I0403 13:23:15.088820 27988 net.cpp:425] conv2 <- pool1
I0403 13:23:15.088840 27988 net.cpp:399] conv2 -> conv2
I0403 13:23:15.103966 27988 net.cpp:141] Setting up conv2
I0403 13:23:15.104015 27988 net.cpp:148] Top shape: 100 256 27 27 (18662400)
I0403 13:23:15.104032 27988 net.cpp:156] Memory required for data: 512959600
I0403 13:23:15.104056 27988 layer_factory.hpp:77] Creating layer relu2
I0403 13:23:15.104076 27988 net.cpp:91] Creating Layer relu2
I0403 13:23:15.104094 27988 net.cpp:425] relu2 <- conv2
I0403 13:23:15.104112 27988 net.cpp:386] relu2 -> conv2 (in-place)
I0403 13:23:15.104400 27988 net.cpp:141] Setting up relu2
I0403 13:23:15.104429 27988 net.cpp:148] Top shape: 100 256 27 27 (18662400)
I0403 13:23:15.104444 27988 net.cpp:156] Memory required for data: 587609200
I0403 13:23:15.104463 27988 layer_factory.hpp:77] Creating layer norm2
I0403 13:23:15.104486 27988 net.cpp:91] Creating Layer norm2
I0403 13:23:15.104503 27988 net.cpp:425] norm2 <- conv2
I0403 13:23:15.104522 27988 net.cpp:399] norm2 -> norm2
I0403 13:23:15.104712 27988 net.cpp:141] Setting up norm2
I0403 13:23:15.104739 27988 net.cpp:148] Top shape: 100 256 27 27 (18662400)
I0403 13:23:15.104754 27988 net.cpp:156] Memory required for data: 662258800
I0403 13:23:15.104800 27988 layer_factory.hpp:77] Creating layer pool2
I0403 13:23:15.104821 27988 net.cpp:91] Creating Layer pool2
I0403 13:23:15.104838 27988 net.cpp:425] pool2 <- norm2
I0403 13:23:15.104858 27988 net.cpp:399] pool2 -> pool2
I0403 13:23:15.104912 27988 net.cpp:141] Setting up pool2
I0403 13:23:15.104935 27988 net.cpp:148] Top shape: 100 256 13 13 (4326400)
I0403 13:23:15.104951 27988 net.cpp:156] Memory required for data: 679564400
I0403 13:23:15.104966 27988 layer_factory.hpp:77] Creating layer conv3
I0403 13:23:15.104990 27988 net.cpp:91] Creating Layer conv3
I0403 13:23:15.105006 27988 net.cpp:425] conv3 <- pool2
I0403 13:23:15.105026 27988 net.cpp:399] conv3 -> conv3
I0403 13:23:15.144280 27988 net.cpp:141] Setting up conv3
I0403 13:23:15.144361 27988 net.cpp:148] Top shape: 100 384 13 13 (6489600)
I0403 13:23:15.144379 27988 net.cpp:156] Memory required for data: 705522800
I0403 13:23:15.144407 27988 layer_factory.hpp:77] Creating layer relu3
I0403 13:23:15.144433 27988 net.cpp:91] Creating Layer relu3
I0403 13:23:15.144453 27988 net.cpp:425] relu3 <- conv3
I0403 13:23:15.144472 27988 net.cpp:386] relu3 -> conv3 (in-place)
I0403 13:23:15.144752 27988 net.cpp:141] Setting up relu3
I0403 13:23:15.144780 27988 net.cpp:148] Top shape: 100 384 13 13 (6489600)
I0403 13:23:15.144796 27988 net.cpp:156] Memory required for data: 731481200
I0403 13:23:15.144812 27988 layer_factory.hpp:77] Creating layer conv4
I0403 13:23:15.144841 27988 net.cpp:91] Creating Layer conv4
I0403 13:23:15.144860 27988 net.cpp:425] conv4 <- conv3
I0403 13:23:15.144879 27988 net.cpp:399] conv4 -> conv4
I0403 13:23:15.175294 27988 net.cpp:141] Setting up conv4
I0403 13:23:15.175369 27988 net.cpp:148] Top shape: 100 384 13 13 (6489600)
I0403 13:23:15.175418 27988 net.cpp:156] Memory required for data: 757439600
I0403 13:23:15.175442 27988 layer_factory.hpp:77] Creating layer relu4
I0403 13:23:15.175467 27988 net.cpp:91] Creating Layer relu4
I0403 13:23:15.175487 27988 net.cpp:425] relu4 <- conv4
I0403 13:23:15.175508 27988 net.cpp:386] relu4 -> conv4 (in-place)
I0403 13:23:15.175837 27988 net.cpp:141] Setting up relu4
I0403 13:23:15.175865 27988 net.cpp:148] Top shape: 100 384 13 13 (6489600)
I0403 13:23:15.175881 27988 net.cpp:156] Memory required for data: 783398000
I0403 13:23:15.175897 27988 layer_factory.hpp:77] Creating layer conv5
I0403 13:23:15.175925 27988 net.cpp:91] Creating Layer conv5
I0403 13:23:15.175943 27988 net.cpp:425] conv5 <- conv4
I0403 13:23:15.175966 27988 net.cpp:399] conv5 -> conv5
I0403 13:23:15.196774 27988 net.cpp:141] Setting up conv5
I0403 13:23:15.196818 27988 net.cpp:148] Top shape: 100 256 13 13 (4326400)
I0403 13:23:15.196836 27988 net.cpp:156] Memory required for data: 800703600
I0403 13:23:15.196864 27988 layer_factory.hpp:77] Creating layer relu5
I0403 13:23:15.196887 27988 net.cpp:91] Creating Layer relu5
I0403 13:23:15.196902 27988 net.cpp:425] relu5 <- conv5
I0403 13:23:15.196921 27988 net.cpp:386] relu5 -> conv5 (in-place)
I0403 13:23:15.197203 27988 net.cpp:141] Setting up relu5
I0403 13:23:15.197233 27988 net.cpp:148] Top shape: 100 256 13 13 (4326400)
I0403 13:23:15.197250 27988 net.cpp:156] Memory required for data: 818009200
I0403 13:23:15.197269 27988 layer_factory.hpp:77] Creating layer pool5
I0403 13:23:15.197293 27988 net.cpp:91] Creating Layer pool5
I0403 13:23:15.197311 27988 net.cpp:425] pool5 <- conv5
I0403 13:23:15.197338 27988 net.cpp:399] pool5 -> pool5
I0403 13:23:15.197402 27988 net.cpp:141] Setting up pool5
I0403 13:23:15.197427 27988 net.cpp:148] Top shape: 100 256 6 6 (921600)
I0403 13:23:15.197443 27988 net.cpp:156] Memory required for data: 821695600
I0403 13:23:15.197458 27988 layer_factory.hpp:77] Creating layer fc6
I0403 13:23:15.197487 27988 net.cpp:91] Creating Layer fc6
I0403 13:23:15.197507 27988 net.cpp:425] fc6 <- pool5
I0403 13:23:15.197528 27988 net.cpp:399] fc6 -> fc6
I0403 13:23:16.760565 27988 net.cpp:141] Setting up fc6
I0403 13:23:16.760643 27988 net.cpp:148] Top shape: 100 4096 (409600)
I0403 13:23:16.760659 27988 net.cpp:156] Memory required for data: 823334000
I0403 13:23:16.760681 27988 layer_factory.hpp:77] Creating layer relu6
I0403 13:23:16.760704 27988 net.cpp:91] Creating Layer relu6
I0403 13:23:16.760721 27988 net.cpp:425] relu6 <- fc6
I0403 13:23:16.760745 27988 net.cpp:386] relu6 -> fc6 (in-place)
I0403 13:23:16.760974 27988 net.cpp:141] Setting up relu6
I0403 13:23:16.761003 27988 net.cpp:148] Top shape: 100 4096 (409600)
I0403 13:23:16.761018 27988 net.cpp:156] Memory required for data: 824972400
I0403 13:23:16.761035 27988 layer_factory.hpp:77] Creating layer drop6
I0403 13:23:16.761054 27988 net.cpp:91] Creating Layer drop6
I0403 13:23:16.761070 27988 net.cpp:425] drop6 <- fc6
I0403 13:23:16.761087 27988 net.cpp:386] drop6 -> fc6 (in-place)
I0403 13:23:16.761140 27988 net.cpp:141] Setting up drop6
I0403 13:23:16.761165 27988 net.cpp:148] Top shape: 100 4096 (409600)
I0403 13:23:16.761181 27988 net.cpp:156] Memory required for data: 826610800
I0403 13:23:16.761198 27988 layer_factory.hpp:77] Creating layer fc7
I0403 13:23:16.761219 27988 net.cpp:91] Creating Layer fc7
I0403 13:23:16.761236 27988 net.cpp:425] fc7 <- fc6
I0403 13:23:16.761253 27988 net.cpp:399] fc7 -> fc7
I0403 13:23:17.474016 27988 net.cpp:141] Setting up fc7
I0403 13:23:17.474094 27988 net.cpp:148] Top shape: 100 4096 (409600)
I0403 13:23:17.474112 27988 net.cpp:156] Memory required for data: 828249200
I0403 13:23:17.474133 27988 layer_factory.hpp:77] Creating layer relu7
I0403 13:23:17.474159 27988 net.cpp:91] Creating Layer relu7
I0403 13:23:17.474177 27988 net.cpp:425] relu7 <- fc7
I0403 13:23:17.474198 27988 net.cpp:386] relu7 -> fc7 (in-place)
I0403 13:23:17.474611 27988 net.cpp:141] Setting up relu7
I0403 13:23:17.474639 27988 net.cpp:148] Top shape: 100 4096 (409600)
I0403 13:23:17.474690 27988 net.cpp:156] Memory required for data: 829887600
I0403 13:23:17.474709 27988 layer_factory.hpp:77] Creating layer drop7
I0403 13:23:17.474730 27988 net.cpp:91] Creating Layer drop7
I0403 13:23:17.474747 27988 net.cpp:425] drop7 <- fc7
I0403 13:23:17.474766 27988 net.cpp:386] drop7 -> fc7 (in-place)
I0403 13:23:17.474813 27988 net.cpp:141] Setting up drop7
I0403 13:23:17.474836 27988 net.cpp:148] Top shape: 100 4096 (409600)
I0403 13:23:17.474853 27988 net.cpp:156] Memory required for data: 831526000
I0403 13:23:17.474867 27988 layer_factory.hpp:77] Creating layer fc8_plantvillage
I0403 13:23:17.474889 27988 net.cpp:91] Creating Layer fc8_plantvillage
I0403 13:23:17.474905 27988 net.cpp:425] fc8_plantvillage <- fc7
I0403 13:23:17.474926 27988 net.cpp:399] fc8_plantvillage -> fc8_plantvillage
I0403 13:23:17.481858 27988 net.cpp:141] Setting up fc8_plantvillage
I0403 13:23:17.481891 27988 net.cpp:148] Top shape: 100 38 (3800)
I0403 13:23:17.481907 27988 net.cpp:156] Memory required for data: 831541200
I0403 13:23:17.481927 27988 layer_factory.hpp:77] Creating layer fc8_plantvillage_fc8_plantvillage_0_split
I0403 13:23:17.481947 27988 net.cpp:91] Creating Layer fc8_plantvillage_fc8_plantvillage_0_split
I0403 13:23:17.481963 27988 net.cpp:425] fc8_plantvillage_fc8_plantvillage_0_split <- fc8_plantvillage
I0403 13:23:17.481982 27988 net.cpp:399] fc8_plantvillage_fc8_plantvillage_0_split -> fc8_plantvillage_fc8_plantvillage_0_split_0
I0403 13:23:17.482003 27988 net.cpp:399] fc8_plantvillage_fc8_plantvillage_0_split -> fc8_plantvillage_fc8_plantvillage_0_split_1
I0403 13:23:17.482026 27988 net.cpp:399] fc8_plantvillage_fc8_plantvillage_0_split -> fc8_plantvillage_fc8_plantvillage_0_split_2
I0403 13:23:17.482105 27988 net.cpp:141] Setting up fc8_plantvillage_fc8_plantvillage_0_split
I0403 13:23:17.482131 27988 net.cpp:148] Top shape: 100 38 (3800)
I0403 13:23:17.482147 27988 net.cpp:148] Top shape: 100 38 (3800)
I0403 13:23:17.482164 27988 net.cpp:148] Top shape: 100 38 (3800)
I0403 13:23:17.482178 27988 net.cpp:156] Memory required for data: 831586800
I0403 13:23:17.482193 27988 layer_factory.hpp:77] Creating layer prob
I0403 13:23:17.482213 27988 net.cpp:91] Creating Layer prob
I0403 13:23:17.482228 27988 net.cpp:425] prob <- fc8_plantvillage_fc8_plantvillage_0_split_0
I0403 13:23:17.482249 27988 net.cpp:399] prob -> prob
I0403 13:23:17.482488 27988 net.cpp:141] Setting up prob
I0403 13:23:17.482517 27988 net.cpp:148] Top shape: 100 38 (3800)
I0403 13:23:17.482532 27988 net.cpp:156] Memory required for data: 831602000
I0403 13:23:17.482548 27988 layer_factory.hpp:77] Creating layer hdf5out
I0403 13:23:17.482573 27988 net.cpp:91] Creating Layer hdf5out
I0403 13:23:17.482590 27988 net.cpp:425] hdf5out <- prob
I0403 13:23:17.482609 27988 net.cpp:425] hdf5out <- label_data_1_split_0
I0403 13:23:17.495188 27988 net.cpp:141] Setting up hdf5out
…
