…
I0403 13:46:16.117808 28645 net.cpp:313] The NetState phase (1) differed from the phase (0) specified by a rule in layer data
I0403 13:46:16.118103 28645 net.cpp:49] Initializing net from parameters: 
state {
  phase: TEST
}
layer {
  name: "data"
  type: "Data"
  top: "data"
  top: "label"
  include {
    phase: TEST
  }
  transform_param {
    crop_size: 227
    mean_file: "/home/mohanty/data/final_dataset/lmdb/grayscale-20-80/mean.binaryproto"
  }
  data_param {
    source: "/home/mohanty/data/final_dataset/lmdb/grayscale-20-80/test_db"
    batch_size: 100
    backend: LMDB
  }
}
layer {
  name: "conv1"
  type: "Convolution"
  bottom: "data"
  top: "conv1"
  param {
    lr_mult: 1
    decay_mult: 1
  }
  param {
    lr_mult: 2
    decay_mult: 0
  }
  convolution_param {
    num_output: 96
    kernel_size: 11
    stride: 4
    weight_filler {
      type: "gaussian"
      std: 0.01
    }
    bias_filler {
      type: "constant"
      value: 0
    }
  }
}
layer {
  name: "relu1"
  type: "ReLU"
  bottom: "conv1"
  top: "conv1"
}
layer {
  name: "norm1"
  type: "LRN"
  bottom: "conv1"
  top: "norm1"
  lrn_param {
    local_size: 5
    alpha: 0.0001
    beta: 0.75
  }
}
layer {
  name: "pool1"
  type: "Pooling"
  bottom: "norm1"
  top: "pool1"
  pooling_param {
    pool: MAX
    kernel_size: 3
    stride: 2
  }
}
layer {
  name: "conv2"
  type: "Convolution"
  bottom: "pool1"
  top: "conv2"
  param {
    lr_mult: 1
    decay_mult: 1
  }
  param {
    lr_mult: 2
    decay_mult: 0
  }
  convolution_param {
    num_output: 256
    pad: 2
    kernel_size: 5
    group: 2
    weight_filler {
      type: "gaussian"
      std: 0.01
    }
    bias_filler {
      type: "constant"
      value: 0.1
    }
  }
}
layer {
  name: "relu2"
  type: "ReLU"
  bottom: "conv2"
  top: "conv2"
}
layer {
  name: "norm2"
  type: "LRN"
  bottom: "conv2"
  top: "norm2"
  lrn_param {
    local_size: 5
    alpha: 0.0001
    beta: 0.75
  }
}
layer {
  name: "pool2"
  type: "Pooling"
  bottom: "norm2"
  top: "pool2"
  pooling_param {
    pool: MAX
    kernel_size: 3
    stride: 2
  }
}
layer {
  name: "conv3"
  type: "Convolution"
  bottom: "pool2"
  top: "conv3"
  param {
    lr_mult: 1
    decay_mult: 1
  }
  param {
    lr_mult: 2
    decay_mult: 0
  }
  convolution_param {
    num_output: 384
    pad: 1
    kernel_size: 3
    weight_filler {
      type: "gaussian"
      std: 0.01
    }
    bias_filler {
      type: "constant"
      value: 0
    }
  }
}
layer {
  name: "relu3"
  type: "ReLU"
  bottom: "conv3"
  top: "conv3"
}
layer {
  name: "conv4"
  type: "Convolution"
  bottom: "conv3"
  top: "conv4"
  param {
    lr_mult: 1
    decay_mult: 1
  }
  param {
    lr_mult: 2
    decay_mult: 0
  }
  convolution_param {
    num_output: 384
    pad: 1
    kernel_size: 3
    group: 2
    weight_filler {
      type: "gaussian"
      std: 0.01
    }
    bias_filler {
      type: "constant"
      value: 0.1
    }
  }
}
layer {
  name: "relu4"
  type: "ReLU"
  bottom: "conv4"
  top: "conv4"
}
layer {
  name: "conv5"
  type: "Convolution"
  bottom: "conv4"
  top: "conv5"
  param {
    lr_mult: 1
    decay_mult: 1
  }
  param {
    lr_mult: 2
    decay_mult: 0
  }
  convolution_param {
    num_output: 256
    pad: 1
    kernel_size: 3
    group: 2
    weight_filler {
      type: "gaussian"
      std: 0.01
    }
    bias_filler {
      type: "constant"
      value: 0.1
    }
  }
}
layer {
  name: "relu5"
  type: "ReLU"
  bottom: "conv5"
  top: "conv5"
}
layer {
  name: "pool5"
  type: "Pooling"
  bottom: "conv5"
  top: "pool5"
  pooling_param {
    pool: MAX
    kernel_size: 3
    stride: 2
  }
}
layer {
  name: "fc6"
  type: "InnerProduct"
  bottom: "pool5"
  top: "fc6"
  param {
    lr_mult: 1
    decay_mult: 1
  }
  param {
    lr_mult: 2
    decay_mult: 0
  }
  inner_product_param {
    num_output: 4096
    weight_filler {
      type: "gaussian"
      std: 0.005
    }
    bias_filler {
      type: "constant"
      value: 0.1
    }
  }
}
layer {
  name: "relu6"
  type: "ReLU"
  bottom: "fc6"
  top: "fc6"
}
layer {
  name: "drop6"
  type: "Dropout"
  bottom: "fc6"
  top: "fc6"
  dropout_param {
    dropout_ratio: 0.5
  }
}
layer {
  name: "fc7"
  type: "InnerProduct"
  bottom: "fc6"
  top: "fc7"
  param {
    lr_mult: 1
    decay_mult: 1
  }
  param {
    lr_mult: 2
    decay_mult: 0
  }
  inner_product_param {
    num_output: 4096
    weight_filler {
      type: "gaussian"
      std: 0.005
    }
    bias_filler {
      type: "constant"
      value: 0.1
    }
  }
}
layer {
  name: "relu7"
  type: "ReLU"
  bottom: "fc7"
  top: "fc7"
}
layer {
  name: "drop7"
  type: "Dropout"
  bottom: "fc7"
  top: "fc7"
  dropout_param {
    dropout_ratio: 0.5
  }
}
layer {
  name: "fc8_plantvillage"
  type: "InnerProduct"
  bottom: "fc7"
  top: "fc8_plantvillage"
  param {
    lr_mult: 1
    decay_mult: 1
  }
  param {
    lr_mult: 2
    decay_mult: 0
  }
  inner_product_param {
    num_output: 38
    weight_filler {
      type: "gaussian"
      std: 0.01
    }
    bias_filler {
      type: "constant"
      value: 0
    }
  }
}
layer {
  name: "prob"
  type: "Softmax"
  bottom: "fc8_plantvillage"
  top: "prob"
  include {
    phase: TEST
  }
}
layer {
  name: "hdf5out"
  type: "HDF5Output"
  bottom: "prob"
  bottom: "label"
  include {
    phase: TEST
  }
  hdf5_output_param {
    file_name: "hdf5_dumps/iter_1785.h5"
  }
}
layer {
  name: "loss"
  type: "SoftmaxWithLoss"
  bottom: "fc8_plantvillage"
  bottom: "label"
  top: "loss"
}
layer {
  name: "accuracy"
  type: "Accuracy"
  bottom: "fc8_plantvillage"
  bottom: "label"
  top: "accuracy"
  include {
    phase: TEST
  }
}
I0403 13:46:16.118798 28645 layer_factory.hpp:77] Creating layer data
I0403 13:46:16.119452 28645 net.cpp:91] Creating Layer data
I0403 13:46:16.119484 28645 net.cpp:399] data -> data
I0403 13:46:16.119534 28645 net.cpp:399] data -> label
I0403 13:46:16.119582 28645 data_transformer.cpp:25] Loading mean file from: /home/mohanty/data/final_dataset/lmdb/grayscale-20-80/mean.binaryproto
I0403 13:46:16.124387 28649 db_lmdb.cpp:38] Opened lmdb /home/mohanty/data/final_dataset/lmdb/grayscale-20-80/test_db
I0403 13:46:16.134690 28645 data_layer.cpp:41] output data size: 100,3,227,227
I0403 13:46:16.256749 28645 net.cpp:141] Setting up data
I0403 13:46:16.256826 28645 net.cpp:148] Top shape: 100 3 227 227 (15458700)
I0403 13:46:16.256850 28645 net.cpp:148] Top shape: 100 (100)
I0403 13:46:16.256867 28645 net.cpp:156] Memory required for data: 61835200
I0403 13:46:16.256896 28645 layer_factory.hpp:77] Creating layer label_data_1_split
I0403 13:46:16.256922 28645 net.cpp:91] Creating Layer label_data_1_split
I0403 13:46:16.256940 28645 net.cpp:425] label_data_1_split <- label
I0403 13:46:16.256973 28645 net.cpp:399] label_data_1_split -> label_data_1_split_0
I0403 13:46:16.257000 28645 net.cpp:399] label_data_1_split -> label_data_1_split_1
I0403 13:46:16.257022 28645 net.cpp:399] label_data_1_split -> label_data_1_split_2
I0403 13:46:16.257087 28645 net.cpp:141] Setting up label_data_1_split
I0403 13:46:16.257112 28645 net.cpp:148] Top shape: 100 (100)
I0403 13:46:16.257129 28645 net.cpp:148] Top shape: 100 (100)
I0403 13:46:16.257148 28645 net.cpp:148] Top shape: 100 (100)
I0403 13:46:16.257164 28645 net.cpp:156] Memory required for data: 61836400
I0403 13:46:16.257179 28645 layer_factory.hpp:77] Creating layer conv1
I0403 13:46:16.257211 28645 net.cpp:91] Creating Layer conv1
I0403 13:46:16.257230 28645 net.cpp:425] conv1 <- data
I0403 13:46:16.257251 28645 net.cpp:399] conv1 -> conv1
I0403 13:46:16.401695 28645 net.cpp:141] Setting up conv1
I0403 13:46:16.401774 28645 net.cpp:148] Top shape: 100 96 55 55 (29040000)
I0403 13:46:16.401793 28645 net.cpp:156] Memory required for data: 177996400
I0403 13:46:16.401828 28645 layer_factory.hpp:77] Creating layer relu1
I0403 13:46:16.401856 28645 net.cpp:91] Creating Layer relu1
I0403 13:46:16.401876 28645 net.cpp:425] relu1 <- conv1
I0403 13:46:16.401897 28645 net.cpp:386] relu1 -> conv1 (in-place)
I0403 13:46:16.402158 28645 net.cpp:141] Setting up relu1
I0403 13:46:16.402209 28645 net.cpp:148] Top shape: 100 96 55 55 (29040000)
I0403 13:46:16.402258 28645 net.cpp:156] Memory required for data: 294156400
I0403 13:46:16.402276 28645 layer_factory.hpp:77] Creating layer norm1
I0403 13:46:16.402302 28645 net.cpp:91] Creating Layer norm1
I0403 13:46:16.402323 28645 net.cpp:425] norm1 <- conv1
I0403 13:46:16.402343 28645 net.cpp:399] norm1 -> norm1
I0403 13:46:16.402695 28645 net.cpp:141] Setting up norm1
I0403 13:46:16.402725 28645 net.cpp:148] Top shape: 100 96 55 55 (29040000)
I0403 13:46:16.402742 28645 net.cpp:156] Memory required for data: 410316400
I0403 13:46:16.402760 28645 layer_factory.hpp:77] Creating layer pool1
I0403 13:46:16.402783 28645 net.cpp:91] Creating Layer pool1
I0403 13:46:16.402801 28645 net.cpp:425] pool1 <- norm1
I0403 13:46:16.402822 28645 net.cpp:399] pool1 -> pool1
I0403 13:46:16.402889 28645 net.cpp:141] Setting up pool1
I0403 13:46:16.402915 28645 net.cpp:148] Top shape: 100 96 27 27 (6998400)
I0403 13:46:16.402931 28645 net.cpp:156] Memory required for data: 438310000
I0403 13:46:16.402947 28645 layer_factory.hpp:77] Creating layer conv2
I0403 13:46:16.402972 28645 net.cpp:91] Creating Layer conv2
I0403 13:46:16.402990 28645 net.cpp:425] conv2 <- pool1
I0403 13:46:16.403009 28645 net.cpp:399] conv2 -> conv2
I0403 13:46:16.418630 28645 net.cpp:141] Setting up conv2
I0403 13:46:16.418679 28645 net.cpp:148] Top shape: 100 256 27 27 (18662400)
I0403 13:46:16.418697 28645 net.cpp:156] Memory required for data: 512959600
I0403 13:46:16.418721 28645 layer_factory.hpp:77] Creating layer relu2
I0403 13:46:16.418742 28645 net.cpp:91] Creating Layer relu2
I0403 13:46:16.418759 28645 net.cpp:425] relu2 <- conv2
I0403 13:46:16.418778 28645 net.cpp:386] relu2 -> conv2 (in-place)
I0403 13:46:16.419044 28645 net.cpp:141] Setting up relu2
I0403 13:46:16.419071 28645 net.cpp:148] Top shape: 100 256 27 27 (18662400)
I0403 13:46:16.419087 28645 net.cpp:156] Memory required for data: 587609200
I0403 13:46:16.419103 28645 layer_factory.hpp:77] Creating layer norm2
I0403 13:46:16.419124 28645 net.cpp:91] Creating Layer norm2
I0403 13:46:16.419142 28645 net.cpp:425] norm2 <- conv2
I0403 13:46:16.419159 28645 net.cpp:399] norm2 -> norm2
I0403 13:46:16.419349 28645 net.cpp:141] Setting up norm2
I0403 13:46:16.419378 28645 net.cpp:148] Top shape: 100 256 27 27 (18662400)
I0403 13:46:16.419394 28645 net.cpp:156] Memory required for data: 662258800
I0403 13:46:16.419410 28645 layer_factory.hpp:77] Creating layer pool2
I0403 13:46:16.419430 28645 net.cpp:91] Creating Layer pool2
I0403 13:46:16.419445 28645 net.cpp:425] pool2 <- norm2
I0403 13:46:16.419463 28645 net.cpp:399] pool2 -> pool2
I0403 13:46:16.419543 28645 net.cpp:141] Setting up pool2
I0403 13:46:16.419569 28645 net.cpp:148] Top shape: 100 256 13 13 (4326400)
I0403 13:46:16.419584 28645 net.cpp:156] Memory required for data: 679564400
I0403 13:46:16.419600 28645 layer_factory.hpp:77] Creating layer conv3
I0403 13:46:16.419622 28645 net.cpp:91] Creating Layer conv3
I0403 13:46:16.419638 28645 net.cpp:425] conv3 <- pool2
I0403 13:46:16.419657 28645 net.cpp:399] conv3 -> conv3
I0403 13:46:16.459617 28645 net.cpp:141] Setting up conv3
I0403 13:46:16.459694 28645 net.cpp:148] Top shape: 100 384 13 13 (6489600)
I0403 13:46:16.459712 28645 net.cpp:156] Memory required for data: 705522800
I0403 13:46:16.459739 28645 layer_factory.hpp:77] Creating layer relu3
I0403 13:46:16.459764 28645 net.cpp:91] Creating Layer relu3
I0403 13:46:16.459782 28645 net.cpp:425] relu3 <- conv3
I0403 13:46:16.459805 28645 net.cpp:386] relu3 -> conv3 (in-place)
I0403 13:46:16.460125 28645 net.cpp:141] Setting up relu3
I0403 13:46:16.460156 28645 net.cpp:148] Top shape: 100 384 13 13 (6489600)
I0403 13:46:16.460173 28645 net.cpp:156] Memory required for data: 731481200
I0403 13:46:16.460189 28645 layer_factory.hpp:77] Creating layer conv4
I0403 13:46:16.460216 28645 net.cpp:91] Creating Layer conv4
I0403 13:46:16.460234 28645 net.cpp:425] conv4 <- conv3
I0403 13:46:16.460254 28645 net.cpp:399] conv4 -> conv4
I0403 13:46:16.491296 28645 net.cpp:141] Setting up conv4
I0403 13:46:16.491369 28645 net.cpp:148] Top shape: 100 384 13 13 (6489600)
I0403 13:46:16.491416 28645 net.cpp:156] Memory required for data: 757439600
I0403 13:46:16.491439 28645 layer_factory.hpp:77] Creating layer relu4
I0403 13:46:16.491464 28645 net.cpp:91] Creating Layer relu4
I0403 13:46:16.491482 28645 net.cpp:425] relu4 <- conv4
I0403 13:46:16.491503 28645 net.cpp:386] relu4 -> conv4 (in-place)
I0403 13:46:16.491782 28645 net.cpp:141] Setting up relu4
I0403 13:46:16.491809 28645 net.cpp:148] Top shape: 100 384 13 13 (6489600)
I0403 13:46:16.491827 28645 net.cpp:156] Memory required for data: 783398000
I0403 13:46:16.491842 28645 layer_factory.hpp:77] Creating layer conv5
I0403 13:46:16.491873 28645 net.cpp:91] Creating Layer conv5
I0403 13:46:16.491889 28645 net.cpp:425] conv5 <- conv4
I0403 13:46:16.491909 28645 net.cpp:399] conv5 -> conv5
I0403 13:46:16.513535 28645 net.cpp:141] Setting up conv5
I0403 13:46:16.513589 28645 net.cpp:148] Top shape: 100 256 13 13 (4326400)
I0403 13:46:16.513608 28645 net.cpp:156] Memory required for data: 800703600
I0403 13:46:16.513634 28645 layer_factory.hpp:77] Creating layer relu5
I0403 13:46:16.513656 28645 net.cpp:91] Creating Layer relu5
I0403 13:46:16.513674 28645 net.cpp:425] relu5 <- conv5
I0403 13:46:16.513697 28645 net.cpp:386] relu5 -> conv5 (in-place)
I0403 13:46:16.513985 28645 net.cpp:141] Setting up relu5
I0403 13:46:16.514014 28645 net.cpp:148] Top shape: 100 256 13 13 (4326400)
I0403 13:46:16.514029 28645 net.cpp:156] Memory required for data: 818009200
I0403 13:46:16.514045 28645 layer_factory.hpp:77] Creating layer pool5
I0403 13:46:16.514068 28645 net.cpp:91] Creating Layer pool5
I0403 13:46:16.514086 28645 net.cpp:425] pool5 <- conv5
I0403 13:46:16.514107 28645 net.cpp:399] pool5 -> pool5
I0403 13:46:16.514169 28645 net.cpp:141] Setting up pool5
I0403 13:46:16.514194 28645 net.cpp:148] Top shape: 100 256 6 6 (921600)
I0403 13:46:16.514211 28645 net.cpp:156] Memory required for data: 821695600
I0403 13:46:16.514226 28645 layer_factory.hpp:77] Creating layer fc6
I0403 13:46:16.514256 28645 net.cpp:91] Creating Layer fc6
I0403 13:46:16.514276 28645 net.cpp:425] fc6 <- pool5
I0403 13:46:16.514310 28645 net.cpp:399] fc6 -> fc6
I0403 13:46:18.128051 28645 net.cpp:141] Setting up fc6
I0403 13:46:18.128093 28645 net.cpp:148] Top shape: 100 4096 (409600)
I0403 13:46:18.128110 28645 net.cpp:156] Memory required for data: 823334000
I0403 13:46:18.128131 28645 layer_factory.hpp:77] Creating layer relu6
I0403 13:46:18.128156 28645 net.cpp:91] Creating Layer relu6
I0403 13:46:18.128175 28645 net.cpp:425] relu6 <- fc6
I0403 13:46:18.128195 28645 net.cpp:386] relu6 -> fc6 (in-place)
I0403 13:46:18.128415 28645 net.cpp:141] Setting up relu6
I0403 13:46:18.128443 28645 net.cpp:148] Top shape: 100 4096 (409600)
I0403 13:46:18.128469 28645 net.cpp:156] Memory required for data: 824972400
I0403 13:46:18.128484 28645 layer_factory.hpp:77] Creating layer drop6
I0403 13:46:18.128505 28645 net.cpp:91] Creating Layer drop6
I0403 13:46:18.128521 28645 net.cpp:425] drop6 <- fc6
I0403 13:46:18.128540 28645 net.cpp:386] drop6 -> fc6 (in-place)
I0403 13:46:18.128593 28645 net.cpp:141] Setting up drop6
I0403 13:46:18.128618 28645 net.cpp:148] Top shape: 100 4096 (409600)
I0403 13:46:18.128633 28645 net.cpp:156] Memory required for data: 826610800
I0403 13:46:18.128648 28645 layer_factory.hpp:77] Creating layer fc7
I0403 13:46:18.128669 28645 net.cpp:91] Creating Layer fc7
I0403 13:46:18.128687 28645 net.cpp:425] fc7 <- fc6
I0403 13:46:18.128705 28645 net.cpp:399] fc7 -> fc7
I0403 13:46:18.813540 28645 net.cpp:141] Setting up fc7
I0403 13:46:18.813618 28645 net.cpp:148] Top shape: 100 4096 (409600)
I0403 13:46:18.813637 28645 net.cpp:156] Memory required for data: 828249200
I0403 13:46:18.813659 28645 layer_factory.hpp:77] Creating layer relu7
I0403 13:46:18.813683 28645 net.cpp:91] Creating Layer relu7
I0403 13:46:18.813700 28645 net.cpp:425] relu7 <- fc7
I0403 13:46:18.813724 28645 net.cpp:386] relu7 -> fc7 (in-place)
I0403 13:46:18.814159 28645 net.cpp:141] Setting up relu7
I0403 13:46:18.814189 28645 net.cpp:148] Top shape: 100 4096 (409600)
I0403 13:46:18.814240 28645 net.cpp:156] Memory required for data: 829887600
I0403 13:46:18.814259 28645 layer_factory.hpp:77] Creating layer drop7
I0403 13:46:18.814278 28645 net.cpp:91] Creating Layer drop7
I0403 13:46:18.814306 28645 net.cpp:425] drop7 <- fc7
I0403 13:46:18.814329 28645 net.cpp:386] drop7 -> fc7 (in-place)
I0403 13:46:18.814378 28645 net.cpp:141] Setting up drop7
I0403 13:46:18.814404 28645 net.cpp:148] Top shape: 100 4096 (409600)
I0403 13:46:18.814419 28645 net.cpp:156] Memory required for data: 831526000
I0403 13:46:18.814435 28645 layer_factory.hpp:77] Creating layer fc8_plantvillage
I0403 13:46:18.814458 28645 net.cpp:91] Creating Layer fc8_plantvillage
I0403 13:46:18.814476 28645 net.cpp:425] fc8_plantvillage <- fc7
I0403 13:46:18.814498 28645 net.cpp:399] fc8_plantvillage -> fc8_plantvillage
I0403 13:46:18.821249 28645 net.cpp:141] Setting up fc8_plantvillage
I0403 13:46:18.821277 28645 net.cpp:148] Top shape: 100 38 (3800)
I0403 13:46:18.821295 28645 net.cpp:156] Memory required for data: 831541200
I0403 13:46:18.821313 28645 layer_factory.hpp:77] Creating layer fc8_plantvillage_fc8_plantvillage_0_split
I0403 13:46:18.821332 28645 net.cpp:91] Creating Layer fc8_plantvillage_fc8_plantvillage_0_split
I0403 13:46:18.821353 28645 net.cpp:425] fc8_plantvillage_fc8_plantvillage_0_split <- fc8_plantvillage
I0403 13:46:18.821377 28645 net.cpp:399] fc8_plantvillage_fc8_plantvillage_0_split -> fc8_plantvillage_fc8_plantvillage_0_split_0
I0403 13:46:18.821399 28645 net.cpp:399] fc8_plantvillage_fc8_plantvillage_0_split -> fc8_plantvillage_fc8_plantvillage_0_split_1
I0403 13:46:18.821419 28645 net.cpp:399] fc8_plantvillage_fc8_plantvillage_0_split -> fc8_plantvillage_fc8_plantvillage_0_split_2
I0403 13:46:18.821496 28645 net.cpp:141] Setting up fc8_plantvillage_fc8_plantvillage_0_split
I0403 13:46:18.821519 28645 net.cpp:148] Top shape: 100 38 (3800)
I0403 13:46:18.821537 28645 net.cpp:148] Top shape: 100 38 (3800)
I0403 13:46:18.821552 28645 net.cpp:148] Top shape: 100 38 (3800)
I0403 13:46:18.821568 28645 net.cpp:156] Memory required for data: 831586800
I0403 13:46:18.821583 28645 layer_factory.hpp:77] Creating layer prob
I0403 13:46:18.821601 28645 net.cpp:91] Creating Layer prob
I0403 13:46:18.821617 28645 net.cpp:425] prob <- fc8_plantvillage_fc8_plantvillage_0_split_0
I0403 13:46:18.821637 28645 net.cpp:399] prob -> prob
I0403 13:46:18.821863 28645 net.cpp:141] Setting up prob
I0403 13:46:18.821894 28645 net.cpp:148] Top shape: 100 38 (3800)
I0403 13:46:18.821910 28645 net.cpp:156] Memory required for data: 831602000
I0403 13:46:18.821926 28645 layer_factory.hpp:77] Creating layer hdf5out
I0403 13:46:18.821945 28645 net.cpp:91] Creating Layer hdf5out
I0403 13:46:18.821960 28645 net.cpp:425] hdf5out <- prob
I0403 13:46:18.821977 28645 net.cpp:425] hdf5out <- label_data_1_split_0
I0403 13:46:18.825611 28645 net.cpp:141] Setting up hdf5out
…
