…
I0403 14:03:35.688408 29057 net.cpp:313] The NetState phase (1) differed from the phase (0) specified by a rule in layer data
I0403 14:03:35.688724 29057 net.cpp:49] Initializing net from parameters: 
state {
  phase: TEST
}
layer {
  name: "data"
  type: "Data"
  top: "data"
  top: "label"
  include {
    phase: TEST
  }
  transform_param {
    crop_size: 227
    mean_file: "/home/mohanty/data/final_dataset/lmdb/grayscale-20-80/mean.binaryproto"
  }
  data_param {
    source: "/home/mohanty/data/final_dataset/lmdb/grayscale-20-80/test_db"
    batch_size: 100
    backend: LMDB
  }
}
layer {
  name: "conv1"
  type: "Convolution"
  bottom: "data"
  top: "conv1"
  param {
    lr_mult: 1
    decay_mult: 1
  }
  param {
    lr_mult: 2
    decay_mult: 0
  }
  convolution_param {
    num_output: 96
    kernel_size: 11
    stride: 4
    weight_filler {
      type: "gaussian"
      std: 0.01
    }
    bias_filler {
      type: "constant"
      value: 0
    }
  }
}
layer {
  name: "relu1"
  type: "ReLU"
  bottom: "conv1"
  top: "conv1"
}
layer {
  name: "norm1"
  type: "LRN"
  bottom: "conv1"
  top: "norm1"
  lrn_param {
    local_size: 5
    alpha: 0.0001
    beta: 0.75
  }
}
layer {
  name: "pool1"
  type: "Pooling"
  bottom: "norm1"
  top: "pool1"
  pooling_param {
    pool: MAX
    kernel_size: 3
    stride: 2
  }
}
layer {
  name: "conv2"
  type: "Convolution"
  bottom: "pool1"
  top: "conv2"
  param {
    lr_mult: 1
    decay_mult: 1
  }
  param {
    lr_mult: 2
    decay_mult: 0
  }
  convolution_param {
    num_output: 256
    pad: 2
    kernel_size: 5
    group: 2
    weight_filler {
      type: "gaussian"
      std: 0.01
    }
    bias_filler {
      type: "constant"
      value: 0.1
    }
  }
}
layer {
  name: "relu2"
  type: "ReLU"
  bottom: "conv2"
  top: "conv2"
}
layer {
  name: "norm2"
  type: "LRN"
  bottom: "conv2"
  top: "norm2"
  lrn_param {
    local_size: 5
    alpha: 0.0001
    beta: 0.75
  }
}
layer {
  name: "pool2"
  type: "Pooling"
  bottom: "norm2"
  top: "pool2"
  pooling_param {
    pool: MAX
    kernel_size: 3
    stride: 2
  }
}
layer {
  name: "conv3"
  type: "Convolution"
  bottom: "pool2"
  top: "conv3"
  param {
    lr_mult: 1
    decay_mult: 1
  }
  param {
    lr_mult: 2
    decay_mult: 0
  }
  convolution_param {
    num_output: 384
    pad: 1
    kernel_size: 3
    weight_filler {
      type: "gaussian"
      std: 0.01
    }
    bias_filler {
      type: "constant"
      value: 0
    }
  }
}
layer {
  name: "relu3"
  type: "ReLU"
  bottom: "conv3"
  top: "conv3"
}
layer {
  name: "conv4"
  type: "Convolution"
  bottom: "conv3"
  top: "conv4"
  param {
    lr_mult: 1
    decay_mult: 1
  }
  param {
    lr_mult: 2
    decay_mult: 0
  }
  convolution_param {
    num_output: 384
    pad: 1
    kernel_size: 3
    group: 2
    weight_filler {
      type: "gaussian"
      std: 0.01
    }
    bias_filler {
      type: "constant"
      value: 0.1
    }
  }
}
layer {
  name: "relu4"
  type: "ReLU"
  bottom: "conv4"
  top: "conv4"
}
layer {
  name: "conv5"
  type: "Convolution"
  bottom: "conv4"
  top: "conv5"
  param {
    lr_mult: 1
    decay_mult: 1
  }
  param {
    lr_mult: 2
    decay_mult: 0
  }
  convolution_param {
    num_output: 256
    pad: 1
    kernel_size: 3
    group: 2
    weight_filler {
      type: "gaussian"
      std: 0.01
    }
    bias_filler {
      type: "constant"
      value: 0.1
    }
  }
}
layer {
  name: "relu5"
  type: "ReLU"
  bottom: "conv5"
  top: "conv5"
}
layer {
  name: "pool5"
  type: "Pooling"
  bottom: "conv5"
  top: "pool5"
  pooling_param {
    pool: MAX
    kernel_size: 3
    stride: 2
  }
}
layer {
  name: "fc6"
  type: "InnerProduct"
  bottom: "pool5"
  top: "fc6"
  param {
    lr_mult: 1
    decay_mult: 1
  }
  param {
    lr_mult: 2
    decay_mult: 0
  }
  inner_product_param {
    num_output: 4096
    weight_filler {
      type: "gaussian"
      std: 0.005
    }
    bias_filler {
      type: "constant"
      value: 0.1
    }
  }
}
layer {
  name: "relu6"
  type: "ReLU"
  bottom: "fc6"
  top: "fc6"
}
layer {
  name: "drop6"
  type: "Dropout"
  bottom: "fc6"
  top: "fc6"
  dropout_param {
    dropout_ratio: 0.5
  }
}
layer {
  name: "fc7"
  type: "InnerProduct"
  bottom: "fc6"
  top: "fc7"
  param {
    lr_mult: 1
    decay_mult: 1
  }
  param {
    lr_mult: 2
    decay_mult: 0
  }
  inner_product_param {
    num_output: 4096
    weight_filler {
      type: "gaussian"
      std: 0.005
    }
    bias_filler {
      type: "constant"
      value: 0.1
    }
  }
}
layer {
  name: "relu7"
  type: "ReLU"
  bottom: "fc7"
  top: "fc7"
}
layer {
  name: "drop7"
  type: "Dropout"
  bottom: "fc7"
  top: "fc7"
  dropout_param {
    dropout_ratio: 0.5
  }
}
layer {
  name: "fc8_plantvillage"
  type: "InnerProduct"
  bottom: "fc7"
  top: "fc8_plantvillage"
  param {
    lr_mult: 1
    decay_mult: 1
  }
  param {
    lr_mult: 2
    decay_mult: 0
  }
  inner_product_param {
    num_output: 38
    weight_filler {
      type: "gaussian"
      std: 0.01
    }
    bias_filler {
      type: "constant"
      value: 0
    }
  }
}
layer {
  name: "prob"
  type: "Softmax"
  bottom: "fc8_plantvillage"
  top: "prob"
  include {
    phase: TEST
  }
}
layer {
  name: "hdf5out"
  type: "HDF5Output"
  bottom: "prob"
  bottom: "label"
  include {
    phase: TEST
  }
  hdf5_output_param {
    file_name: "hdf5_dumps/iter_3045.h5"
  }
}
layer {
  name: "loss"
  type: "SoftmaxWithLoss"
  bottom: "fc8_plantvillage"
  bottom: "label"
  top: "loss"
}
layer {
  name: "accuracy"
  type: "Accuracy"
  bottom: "fc8_plantvillage"
  bottom: "label"
  top: "accuracy"
  include {
    phase: TEST
  }
}
I0403 14:03:35.689334 29057 layer_factory.hpp:77] Creating layer data
I0403 14:03:35.690016 29057 net.cpp:91] Creating Layer data
I0403 14:03:35.690047 29057 net.cpp:399] data -> data
I0403 14:03:35.690099 29057 net.cpp:399] data -> label
I0403 14:03:35.690137 29057 data_transformer.cpp:25] Loading mean file from: /home/mohanty/data/final_dataset/lmdb/grayscale-20-80/mean.binaryproto
I0403 14:03:35.694280 29059 db_lmdb.cpp:38] Opened lmdb /home/mohanty/data/final_dataset/lmdb/grayscale-20-80/test_db
I0403 14:03:35.703999 29057 data_layer.cpp:41] output data size: 100,3,227,227
I0403 14:03:35.824035 29057 net.cpp:141] Setting up data
I0403 14:03:35.824126 29057 net.cpp:148] Top shape: 100 3 227 227 (15458700)
I0403 14:03:35.824151 29057 net.cpp:148] Top shape: 100 (100)
I0403 14:03:35.824165 29057 net.cpp:156] Memory required for data: 61835200
I0403 14:03:35.824194 29057 layer_factory.hpp:77] Creating layer label_data_1_split
I0403 14:03:35.824221 29057 net.cpp:91] Creating Layer label_data_1_split
I0403 14:03:35.824239 29057 net.cpp:425] label_data_1_split <- label
I0403 14:03:35.824270 29057 net.cpp:399] label_data_1_split -> label_data_1_split_0
I0403 14:03:35.824297 29057 net.cpp:399] label_data_1_split -> label_data_1_split_1
I0403 14:03:35.824318 29057 net.cpp:399] label_data_1_split -> label_data_1_split_2
I0403 14:03:35.824385 29057 net.cpp:141] Setting up label_data_1_split
I0403 14:03:35.824409 29057 net.cpp:148] Top shape: 100 (100)
I0403 14:03:35.824426 29057 net.cpp:148] Top shape: 100 (100)
I0403 14:03:35.824443 29057 net.cpp:148] Top shape: 100 (100)
I0403 14:03:35.824458 29057 net.cpp:156] Memory required for data: 61836400
I0403 14:03:35.824473 29057 layer_factory.hpp:77] Creating layer conv1
I0403 14:03:35.824504 29057 net.cpp:91] Creating Layer conv1
I0403 14:03:35.824524 29057 net.cpp:425] conv1 <- data
I0403 14:03:35.824544 29057 net.cpp:399] conv1 -> conv1
I0403 14:03:35.962007 29057 net.cpp:141] Setting up conv1
I0403 14:03:35.962085 29057 net.cpp:148] Top shape: 100 96 55 55 (29040000)
I0403 14:03:35.962102 29057 net.cpp:156] Memory required for data: 177996400
I0403 14:03:35.962134 29057 layer_factory.hpp:77] Creating layer relu1
I0403 14:03:35.962164 29057 net.cpp:91] Creating Layer relu1
I0403 14:03:35.962184 29057 net.cpp:425] relu1 <- conv1
I0403 14:03:35.962204 29057 net.cpp:386] relu1 -> conv1 (in-place)
I0403 14:03:35.962493 29057 net.cpp:141] Setting up relu1
I0403 14:03:35.962524 29057 net.cpp:148] Top shape: 100 96 55 55 (29040000)
I0403 14:03:35.962574 29057 net.cpp:156] Memory required for data: 294156400
I0403 14:03:35.962591 29057 layer_factory.hpp:77] Creating layer norm1
I0403 14:03:35.962635 29057 net.cpp:91] Creating Layer norm1
I0403 14:03:35.962656 29057 net.cpp:425] norm1 <- conv1
I0403 14:03:35.962676 29057 net.cpp:399] norm1 -> norm1
I0403 14:03:35.962995 29057 net.cpp:141] Setting up norm1
I0403 14:03:35.963022 29057 net.cpp:148] Top shape: 100 96 55 55 (29040000)
I0403 14:03:35.963038 29057 net.cpp:156] Memory required for data: 410316400
I0403 14:03:35.963053 29057 layer_factory.hpp:77] Creating layer pool1
I0403 14:03:35.963076 29057 net.cpp:91] Creating Layer pool1
I0403 14:03:35.963094 29057 net.cpp:425] pool1 <- norm1
I0403 14:03:35.963114 29057 net.cpp:399] pool1 -> pool1
I0403 14:03:35.963183 29057 net.cpp:141] Setting up pool1
I0403 14:03:35.963210 29057 net.cpp:148] Top shape: 100 96 27 27 (6998400)
I0403 14:03:35.963227 29057 net.cpp:156] Memory required for data: 438310000
I0403 14:03:35.963243 29057 layer_factory.hpp:77] Creating layer conv2
I0403 14:03:35.963268 29057 net.cpp:91] Creating Layer conv2
I0403 14:03:35.963286 29057 net.cpp:425] conv2 <- pool1
I0403 14:03:35.963305 29057 net.cpp:399] conv2 -> conv2
I0403 14:03:35.978229 29057 net.cpp:141] Setting up conv2
I0403 14:03:35.978278 29057 net.cpp:148] Top shape: 100 256 27 27 (18662400)
I0403 14:03:35.978296 29057 net.cpp:156] Memory required for data: 512959600
I0403 14:03:35.978330 29057 layer_factory.hpp:77] Creating layer relu2
I0403 14:03:35.978355 29057 net.cpp:91] Creating Layer relu2
I0403 14:03:35.978374 29057 net.cpp:425] relu2 <- conv2
I0403 14:03:35.978394 29057 net.cpp:386] relu2 -> conv2 (in-place)
I0403 14:03:35.978672 29057 net.cpp:141] Setting up relu2
I0403 14:03:35.978698 29057 net.cpp:148] Top shape: 100 256 27 27 (18662400)
I0403 14:03:35.978713 29057 net.cpp:156] Memory required for data: 587609200
I0403 14:03:35.978729 29057 layer_factory.hpp:77] Creating layer norm2
I0403 14:03:35.978752 29057 net.cpp:91] Creating Layer norm2
I0403 14:03:35.978770 29057 net.cpp:425] norm2 <- conv2
I0403 14:03:35.978788 29057 net.cpp:399] norm2 -> norm2
I0403 14:03:35.978986 29057 net.cpp:141] Setting up norm2
I0403 14:03:35.979012 29057 net.cpp:148] Top shape: 100 256 27 27 (18662400)
I0403 14:03:35.979027 29057 net.cpp:156] Memory required for data: 662258800
I0403 14:03:35.979043 29057 layer_factory.hpp:77] Creating layer pool2
I0403 14:03:35.979061 29057 net.cpp:91] Creating Layer pool2
I0403 14:03:35.979077 29057 net.cpp:425] pool2 <- norm2
I0403 14:03:35.979099 29057 net.cpp:399] pool2 -> pool2
I0403 14:03:35.979151 29057 net.cpp:141] Setting up pool2
I0403 14:03:35.979174 29057 net.cpp:148] Top shape: 100 256 13 13 (4326400)
I0403 14:03:35.979189 29057 net.cpp:156] Memory required for data: 679564400
I0403 14:03:35.979207 29057 layer_factory.hpp:77] Creating layer conv3
I0403 14:03:35.979233 29057 net.cpp:91] Creating Layer conv3
I0403 14:03:35.979250 29057 net.cpp:425] conv3 <- pool2
I0403 14:03:35.979269 29057 net.cpp:399] conv3 -> conv3
I0403 14:03:36.022150 29057 net.cpp:141] Setting up conv3
I0403 14:03:36.022228 29057 net.cpp:148] Top shape: 100 384 13 13 (6489600)
I0403 14:03:36.022246 29057 net.cpp:156] Memory required for data: 705522800
I0403 14:03:36.022274 29057 layer_factory.hpp:77] Creating layer relu3
I0403 14:03:36.022300 29057 net.cpp:91] Creating Layer relu3
I0403 14:03:36.022318 29057 net.cpp:425] relu3 <- conv3
I0403 14:03:36.022359 29057 net.cpp:386] relu3 -> conv3 (in-place)
I0403 14:03:36.022660 29057 net.cpp:141] Setting up relu3
I0403 14:03:36.022689 29057 net.cpp:148] Top shape: 100 384 13 13 (6489600)
I0403 14:03:36.022706 29057 net.cpp:156] Memory required for data: 731481200
I0403 14:03:36.022722 29057 layer_factory.hpp:77] Creating layer conv4
I0403 14:03:36.022748 29057 net.cpp:91] Creating Layer conv4
I0403 14:03:36.022768 29057 net.cpp:425] conv4 <- conv3
I0403 14:03:36.022791 29057 net.cpp:399] conv4 -> conv4
I0403 14:03:36.052821 29057 net.cpp:141] Setting up conv4
I0403 14:03:36.052892 29057 net.cpp:148] Top shape: 100 384 13 13 (6489600)
I0403 14:03:36.052942 29057 net.cpp:156] Memory required for data: 757439600
I0403 14:03:36.052964 29057 layer_factory.hpp:77] Creating layer relu4
I0403 14:03:36.052989 29057 net.cpp:91] Creating Layer relu4
I0403 14:03:36.053009 29057 net.cpp:425] relu4 <- conv4
I0403 14:03:36.053030 29057 net.cpp:386] relu4 -> conv4 (in-place)
I0403 14:03:36.053313 29057 net.cpp:141] Setting up relu4
I0403 14:03:36.053344 29057 net.cpp:148] Top shape: 100 384 13 13 (6489600)
I0403 14:03:36.053374 29057 net.cpp:156] Memory required for data: 783398000
I0403 14:03:36.053390 29057 layer_factory.hpp:77] Creating layer conv5
I0403 14:03:36.053417 29057 net.cpp:91] Creating Layer conv5
I0403 14:03:36.053436 29057 net.cpp:425] conv5 <- conv4
I0403 14:03:36.053457 29057 net.cpp:399] conv5 -> conv5
I0403 14:03:36.074163 29057 net.cpp:141] Setting up conv5
I0403 14:03:36.074218 29057 net.cpp:148] Top shape: 100 256 13 13 (4326400)
I0403 14:03:36.074235 29057 net.cpp:156] Memory required for data: 800703600
I0403 14:03:36.074261 29057 layer_factory.hpp:77] Creating layer relu5
I0403 14:03:36.074283 29057 net.cpp:91] Creating Layer relu5
I0403 14:03:36.074301 29057 net.cpp:425] relu5 <- conv5
I0403 14:03:36.074321 29057 net.cpp:386] relu5 -> conv5 (in-place)
I0403 14:03:36.074607 29057 net.cpp:141] Setting up relu5
I0403 14:03:36.074636 29057 net.cpp:148] Top shape: 100 256 13 13 (4326400)
I0403 14:03:36.074652 29057 net.cpp:156] Memory required for data: 818009200
I0403 14:03:36.074669 29057 layer_factory.hpp:77] Creating layer pool5
I0403 14:03:36.074697 29057 net.cpp:91] Creating Layer pool5
I0403 14:03:36.074714 29057 net.cpp:425] pool5 <- conv5
I0403 14:03:36.074735 29057 net.cpp:399] pool5 -> pool5
I0403 14:03:36.074798 29057 net.cpp:141] Setting up pool5
I0403 14:03:36.074823 29057 net.cpp:148] Top shape: 100 256 6 6 (921600)
I0403 14:03:36.074839 29057 net.cpp:156] Memory required for data: 821695600
I0403 14:03:36.074856 29057 layer_factory.hpp:77] Creating layer fc6
I0403 14:03:36.074883 29057 net.cpp:91] Creating Layer fc6
I0403 14:03:36.074903 29057 net.cpp:425] fc6 <- pool5
I0403 14:03:36.074923 29057 net.cpp:399] fc6 -> fc6
I0403 14:03:37.653759 29057 net.cpp:141] Setting up fc6
I0403 14:03:37.653821 29057 net.cpp:148] Top shape: 100 4096 (409600)
I0403 14:03:37.653837 29057 net.cpp:156] Memory required for data: 823334000
I0403 14:03:37.653859 29057 layer_factory.hpp:77] Creating layer relu6
I0403 14:03:37.653883 29057 net.cpp:91] Creating Layer relu6
I0403 14:03:37.653903 29057 net.cpp:425] relu6 <- fc6
I0403 14:03:37.653924 29057 net.cpp:386] relu6 -> fc6 (in-place)
I0403 14:03:37.654140 29057 net.cpp:141] Setting up relu6
I0403 14:03:37.654166 29057 net.cpp:148] Top shape: 100 4096 (409600)
I0403 14:03:37.654181 29057 net.cpp:156] Memory required for data: 824972400
I0403 14:03:37.654196 29057 layer_factory.hpp:77] Creating layer drop6
I0403 14:03:37.654216 29057 net.cpp:91] Creating Layer drop6
I0403 14:03:37.654230 29057 net.cpp:425] drop6 <- fc6
I0403 14:03:37.654252 29057 net.cpp:386] drop6 -> fc6 (in-place)
I0403 14:03:37.654302 29057 net.cpp:141] Setting up drop6
I0403 14:03:37.654328 29057 net.cpp:148] Top shape: 100 4096 (409600)
I0403 14:03:37.654343 29057 net.cpp:156] Memory required for data: 826610800
I0403 14:03:37.654366 29057 layer_factory.hpp:77] Creating layer fc7
I0403 14:03:37.654387 29057 net.cpp:91] Creating Layer fc7
I0403 14:03:37.654403 29057 net.cpp:425] fc7 <- fc6
I0403 14:03:37.654423 29057 net.cpp:399] fc7 -> fc7
I0403 14:03:38.344162 29057 net.cpp:141] Setting up fc7
I0403 14:03:38.344240 29057 net.cpp:148] Top shape: 100 4096 (409600)
I0403 14:03:38.344257 29057 net.cpp:156] Memory required for data: 828249200
I0403 14:03:38.344280 29057 layer_factory.hpp:77] Creating layer relu7
I0403 14:03:38.344302 29057 net.cpp:91] Creating Layer relu7
I0403 14:03:38.344321 29057 net.cpp:425] relu7 <- fc7
I0403 14:03:38.344343 29057 net.cpp:386] relu7 -> fc7 (in-place)
I0403 14:03:38.344764 29057 net.cpp:141] Setting up relu7
I0403 14:03:38.344792 29057 net.cpp:148] Top shape: 100 4096 (409600)
I0403 14:03:38.344843 29057 net.cpp:156] Memory required for data: 829887600
I0403 14:03:38.344861 29057 layer_factory.hpp:77] Creating layer drop7
I0403 14:03:38.344879 29057 net.cpp:91] Creating Layer drop7
I0403 14:03:38.344897 29057 net.cpp:425] drop7 <- fc7
I0403 14:03:38.344916 29057 net.cpp:386] drop7 -> fc7 (in-place)
I0403 14:03:38.344960 29057 net.cpp:141] Setting up drop7
I0403 14:03:38.344983 29057 net.cpp:148] Top shape: 100 4096 (409600)
I0403 14:03:38.345000 29057 net.cpp:156] Memory required for data: 831526000
I0403 14:03:38.345015 29057 layer_factory.hpp:77] Creating layer fc8_plantvillage
I0403 14:03:38.345037 29057 net.cpp:91] Creating Layer fc8_plantvillage
I0403 14:03:38.345053 29057 net.cpp:425] fc8_plantvillage <- fc7
I0403 14:03:38.345074 29057 net.cpp:399] fc8_plantvillage -> fc8_plantvillage
I0403 14:03:38.351855 29057 net.cpp:141] Setting up fc8_plantvillage
I0403 14:03:38.351883 29057 net.cpp:148] Top shape: 100 38 (3800)
I0403 14:03:38.351899 29057 net.cpp:156] Memory required for data: 831541200
I0403 14:03:38.351918 29057 layer_factory.hpp:77] Creating layer fc8_plantvillage_fc8_plantvillage_0_split
I0403 14:03:38.351938 29057 net.cpp:91] Creating Layer fc8_plantvillage_fc8_plantvillage_0_split
I0403 14:03:38.351953 29057 net.cpp:425] fc8_plantvillage_fc8_plantvillage_0_split <- fc8_plantvillage
I0403 14:03:38.351976 29057 net.cpp:399] fc8_plantvillage_fc8_plantvillage_0_split -> fc8_plantvillage_fc8_plantvillage_0_split_0
I0403 14:03:38.351999 29057 net.cpp:399] fc8_plantvillage_fc8_plantvillage_0_split -> fc8_plantvillage_fc8_plantvillage_0_split_1
I0403 14:03:38.352017 29057 net.cpp:399] fc8_plantvillage_fc8_plantvillage_0_split -> fc8_plantvillage_fc8_plantvillage_0_split_2
I0403 14:03:38.352093 29057 net.cpp:141] Setting up fc8_plantvillage_fc8_plantvillage_0_split
I0403 14:03:38.352118 29057 net.cpp:148] Top shape: 100 38 (3800)
I0403 14:03:38.352133 29057 net.cpp:148] Top shape: 100 38 (3800)
I0403 14:03:38.352150 29057 net.cpp:148] Top shape: 100 38 (3800)
I0403 14:03:38.352164 29057 net.cpp:156] Memory required for data: 831586800
I0403 14:03:38.352180 29057 layer_factory.hpp:77] Creating layer prob
I0403 14:03:38.352198 29057 net.cpp:91] Creating Layer prob
I0403 14:03:38.352215 29057 net.cpp:425] prob <- fc8_plantvillage_fc8_plantvillage_0_split_0
I0403 14:03:38.352234 29057 net.cpp:399] prob -> prob
I0403 14:03:38.352473 29057 net.cpp:141] Setting up prob
I0403 14:03:38.352504 29057 net.cpp:148] Top shape: 100 38 (3800)
I0403 14:03:38.352520 29057 net.cpp:156] Memory required for data: 831602000
I0403 14:03:38.352536 29057 layer_factory.hpp:77] Creating layer hdf5out
I0403 14:03:38.352555 29057 net.cpp:91] Creating Layer hdf5out
I0403 14:03:38.352571 29057 net.cpp:425] hdf5out <- prob
I0403 14:03:38.352588 29057 net.cpp:425] hdf5out <- label_data_1_split_0
I0403 14:03:38.356235 29057 net.cpp:141] Setting up hdf5out
…
