…
I0403 13:57:46.476387 28907 net.cpp:313] The NetState phase (1) differed from the phase (0) specified by a rule in layer data
I0403 13:57:46.477083 28907 net.cpp:49] Initializing net from parameters: 
state {
  phase: TEST
}
layer {
  name: "data"
  type: "Data"
  top: "data"
  top: "label"
  include {
    phase: TEST
  }
  transform_param {
    crop_size: 227
    mean_file: "/home/mohanty/data/final_dataset/lmdb/grayscale-20-80/mean.binaryproto"
  }
  data_param {
    source: "/home/mohanty/data/final_dataset/lmdb/grayscale-20-80/test_db"
    batch_size: 100
    backend: LMDB
  }
}
layer {
  name: "conv1"
  type: "Convolution"
  bottom: "data"
  top: "conv1"
  param {
    lr_mult: 1
    decay_mult: 1
  }
  param {
    lr_mult: 2
    decay_mult: 0
  }
  convolution_param {
    num_output: 96
    kernel_size: 11
    stride: 4
    weight_filler {
      type: "gaussian"
      std: 0.01
    }
    bias_filler {
      type: "constant"
      value: 0
    }
  }
}
layer {
  name: "relu1"
  type: "ReLU"
  bottom: "conv1"
  top: "conv1"
}
layer {
  name: "norm1"
  type: "LRN"
  bottom: "conv1"
  top: "norm1"
  lrn_param {
    local_size: 5
    alpha: 0.0001
    beta: 0.75
  }
}
layer {
  name: "pool1"
  type: "Pooling"
  bottom: "norm1"
  top: "pool1"
  pooling_param {
    pool: MAX
    kernel_size: 3
    stride: 2
  }
}
layer {
  name: "conv2"
  type: "Convolution"
  bottom: "pool1"
  top: "conv2"
  param {
    lr_mult: 1
    decay_mult: 1
  }
  param {
    lr_mult: 2
    decay_mult: 0
  }
  convolution_param {
    num_output: 256
    pad: 2
    kernel_size: 5
    group: 2
    weight_filler {
      type: "gaussian"
      std: 0.01
    }
    bias_filler {
      type: "constant"
      value: 0.1
    }
  }
}
layer {
  name: "relu2"
  type: "ReLU"
  bottom: "conv2"
  top: "conv2"
}
layer {
  name: "norm2"
  type: "LRN"
  bottom: "conv2"
  top: "norm2"
  lrn_param {
    local_size: 5
    alpha: 0.0001
    beta: 0.75
  }
}
layer {
  name: "pool2"
  type: "Pooling"
  bottom: "norm2"
  top: "pool2"
  pooling_param {
    pool: MAX
    kernel_size: 3
    stride: 2
  }
}
layer {
  name: "conv3"
  type: "Convolution"
  bottom: "pool2"
  top: "conv3"
  param {
    lr_mult: 1
    decay_mult: 1
  }
  param {
    lr_mult: 2
    decay_mult: 0
  }
  convolution_param {
    num_output: 384
    pad: 1
    kernel_size: 3
    weight_filler {
      type: "gaussian"
      std: 0.01
    }
    bias_filler {
      type: "constant"
      value: 0
    }
  }
}
layer {
  name: "relu3"
  type: "ReLU"
  bottom: "conv3"
  top: "conv3"
}
layer {
  name: "conv4"
  type: "Convolution"
  bottom: "conv3"
  top: "conv4"
  param {
    lr_mult: 1
    decay_mult: 1
  }
  param {
    lr_mult: 2
    decay_mult: 0
  }
  convolution_param {
    num_output: 384
    pad: 1
    kernel_size: 3
    group: 2
    weight_filler {
      type: "gaussian"
      std: 0.01
    }
    bias_filler {
      type: "constant"
      value: 0.1
    }
  }
}
layer {
  name: "relu4"
  type: "ReLU"
  bottom: "conv4"
  top: "conv4"
}
layer {
  name: "conv5"
  type: "Convolution"
  bottom: "conv4"
  top: "conv5"
  param {
    lr_mult: 1
    decay_mult: 1
  }
  param {
    lr_mult: 2
    decay_mult: 0
  }
  convolution_param {
    num_output: 256
    pad: 1
    kernel_size: 3
    group: 2
    weight_filler {
      type: "gaussian"
      std: 0.01
    }
    bias_filler {
      type: "constant"
      value: 0.1
    }
  }
}
layer {
  name: "relu5"
  type: "ReLU"
  bottom: "conv5"
  top: "conv5"
}
layer {
  name: "pool5"
  type: "Pooling"
  bottom: "conv5"
  top: "pool5"
  pooling_param {
    pool: MAX
    kernel_size: 3
    stride: 2
  }
}
layer {
  name: "fc6"
  type: "InnerProduct"
  bottom: "pool5"
  top: "fc6"
  param {
    lr_mult: 1
    decay_mult: 1
  }
  param {
    lr_mult: 2
    decay_mult: 0
  }
  inner_product_param {
    num_output: 4096
    weight_filler {
      type: "gaussian"
      std: 0.005
    }
    bias_filler {
      type: "constant"
      value: 0.1
    }
  }
}
layer {
  name: "relu6"
  type: "ReLU"
  bottom: "fc6"
  top: "fc6"
}
layer {
  name: "drop6"
  type: "Dropout"
  bottom: "fc6"
  top: "fc6"
  dropout_param {
    dropout_ratio: 0.5
  }
}
layer {
  name: "fc7"
  type: "InnerProduct"
  bottom: "fc6"
  top: "fc7"
  param {
    lr_mult: 1
    decay_mult: 1
  }
  param {
    lr_mult: 2
    decay_mult: 0
  }
  inner_product_param {
    num_output: 4096
    weight_filler {
      type: "gaussian"
      std: 0.005
    }
    bias_filler {
      type: "constant"
      value: 0.1
    }
  }
}
layer {
  name: "relu7"
  type: "ReLU"
  bottom: "fc7"
  top: "fc7"
}
layer {
  name: "drop7"
  type: "Dropout"
  bottom: "fc7"
  top: "fc7"
  dropout_param {
    dropout_ratio: 0.5
  }
}
layer {
  name: "fc8_plantvillage"
  type: "InnerProduct"
  bottom: "fc7"
  top: "fc8_plantvillage"
  param {
    lr_mult: 1
    decay_mult: 1
  }
  param {
    lr_mult: 2
    decay_mult: 0
  }
  inner_product_param {
    num_output: 38
    weight_filler {
      type: "gaussian"
      std: 0.01
    }
    bias_filler {
      type: "constant"
      value: 0
    }
  }
}
layer {
  name: "prob"
  type: "Softmax"
  bottom: "fc8_plantvillage"
  top: "prob"
  include {
    phase: TEST
  }
}
layer {
  name: "hdf5out"
  type: "HDF5Output"
  bottom: "prob"
  bottom: "label"
  include {
    phase: TEST
  }
  hdf5_output_param {
    file_name: "hdf5_dumps/iter_2625.h5"
  }
}
layer {
  name: "loss"
  type: "SoftmaxWithLoss"
  bottom: "fc8_plantvillage"
  bottom: "label"
  top: "loss"
}
layer {
  name: "accuracy"
  type: "Accuracy"
  bottom: "fc8_plantvillage"
  bottom: "label"
  top: "accuracy"
  include {
    phase: TEST
  }
}
I0403 13:57:46.477959 28907 layer_factory.hpp:77] Creating layer data
I0403 13:57:46.479538 28907 net.cpp:91] Creating Layer data
I0403 13:57:46.479596 28907 net.cpp:399] data -> data
I0403 13:57:46.479645 28907 net.cpp:399] data -> label
I0403 13:57:46.479681 28907 data_transformer.cpp:25] Loading mean file from: /home/mohanty/data/final_dataset/lmdb/grayscale-20-80/mean.binaryproto
I0403 13:57:46.485132 28911 db_lmdb.cpp:38] Opened lmdb /home/mohanty/data/final_dataset/lmdb/grayscale-20-80/test_db
I0403 13:57:46.494884 28907 data_layer.cpp:41] output data size: 100,3,227,227
I0403 13:57:48.700872 28907 net.cpp:141] Setting up data
I0403 13:57:48.700985 28907 net.cpp:148] Top shape: 100 3 227 227 (15458700)
I0403 13:57:48.701011 28907 net.cpp:148] Top shape: 100 (100)
I0403 13:57:48.701028 28907 net.cpp:156] Memory required for data: 61835200
I0403 13:57:48.701059 28907 layer_factory.hpp:77] Creating layer label_data_1_split
I0403 13:57:48.701087 28907 net.cpp:91] Creating Layer label_data_1_split
I0403 13:57:48.701107 28907 net.cpp:425] label_data_1_split <- label
I0403 13:57:48.701139 28907 net.cpp:399] label_data_1_split -> label_data_1_split_0
I0403 13:57:48.701169 28907 net.cpp:399] label_data_1_split -> label_data_1_split_1
I0403 13:57:48.701191 28907 net.cpp:399] label_data_1_split -> label_data_1_split_2
I0403 13:57:48.701264 28907 net.cpp:141] Setting up label_data_1_split
I0403 13:57:48.701292 28907 net.cpp:148] Top shape: 100 (100)
I0403 13:57:48.701309 28907 net.cpp:148] Top shape: 100 (100)
I0403 13:57:48.701333 28907 net.cpp:148] Top shape: 100 (100)
I0403 13:57:48.701349 28907 net.cpp:156] Memory required for data: 61836400
I0403 13:57:48.701366 28907 layer_factory.hpp:77] Creating layer conv1
I0403 13:57:48.701401 28907 net.cpp:91] Creating Layer conv1
I0403 13:57:48.701421 28907 net.cpp:425] conv1 <- data
I0403 13:57:48.701442 28907 net.cpp:399] conv1 -> conv1
I0403 13:57:48.859180 28907 net.cpp:141] Setting up conv1
I0403 13:57:48.859237 28907 net.cpp:148] Top shape: 100 96 55 55 (29040000)
I0403 13:57:48.859256 28907 net.cpp:156] Memory required for data: 177996400
I0403 13:57:48.859287 28907 layer_factory.hpp:77] Creating layer relu1
I0403 13:57:48.859320 28907 net.cpp:91] Creating Layer relu1
I0403 13:57:48.859341 28907 net.cpp:425] relu1 <- conv1
I0403 13:57:48.859361 28907 net.cpp:386] relu1 -> conv1 (in-place)
I0403 13:57:48.859612 28907 net.cpp:141] Setting up relu1
I0403 13:57:48.859640 28907 net.cpp:148] Top shape: 100 96 55 55 (29040000)
I0403 13:57:48.859733 28907 net.cpp:156] Memory required for data: 294156400
I0403 13:57:48.859752 28907 layer_factory.hpp:77] Creating layer norm1
I0403 13:57:48.859781 28907 net.cpp:91] Creating Layer norm1
I0403 13:57:48.859798 28907 net.cpp:425] norm1 <- conv1
I0403 13:57:48.859817 28907 net.cpp:399] norm1 -> norm1
I0403 13:57:48.860115 28907 net.cpp:141] Setting up norm1
I0403 13:57:48.860143 28907 net.cpp:148] Top shape: 100 96 55 55 (29040000)
I0403 13:57:48.860160 28907 net.cpp:156] Memory required for data: 410316400
I0403 13:57:48.860177 28907 layer_factory.hpp:77] Creating layer pool1
I0403 13:57:48.860199 28907 net.cpp:91] Creating Layer pool1
I0403 13:57:48.860218 28907 net.cpp:425] pool1 <- norm1
I0403 13:57:48.860234 28907 net.cpp:399] pool1 -> pool1
I0403 13:57:48.860301 28907 net.cpp:141] Setting up pool1
I0403 13:57:48.860343 28907 net.cpp:148] Top shape: 100 96 27 27 (6998400)
I0403 13:57:48.860360 28907 net.cpp:156] Memory required for data: 438310000
I0403 13:57:48.860378 28907 layer_factory.hpp:77] Creating layer conv2
I0403 13:57:48.860404 28907 net.cpp:91] Creating Layer conv2
I0403 13:57:48.860420 28907 net.cpp:425] conv2 <- pool1
I0403 13:57:48.860438 28907 net.cpp:399] conv2 -> conv2
I0403 13:57:48.875725 28907 net.cpp:141] Setting up conv2
I0403 13:57:48.875768 28907 net.cpp:148] Top shape: 100 256 27 27 (18662400)
I0403 13:57:48.875789 28907 net.cpp:156] Memory required for data: 512959600
I0403 13:57:48.875814 28907 layer_factory.hpp:77] Creating layer relu2
I0403 13:57:48.875839 28907 net.cpp:91] Creating Layer relu2
I0403 13:57:48.875859 28907 net.cpp:425] relu2 <- conv2
I0403 13:57:48.875880 28907 net.cpp:386] relu2 -> conv2 (in-place)
I0403 13:57:48.876158 28907 net.cpp:141] Setting up relu2
I0403 13:57:48.876189 28907 net.cpp:148] Top shape: 100 256 27 27 (18662400)
I0403 13:57:48.876207 28907 net.cpp:156] Memory required for data: 587609200
I0403 13:57:48.876227 28907 layer_factory.hpp:77] Creating layer norm2
I0403 13:57:48.876250 28907 net.cpp:91] Creating Layer norm2
I0403 13:57:48.876271 28907 net.cpp:425] norm2 <- conv2
I0403 13:57:48.876291 28907 net.cpp:399] norm2 -> norm2
I0403 13:57:48.876488 28907 net.cpp:141] Setting up norm2
I0403 13:57:48.876519 28907 net.cpp:148] Top shape: 100 256 27 27 (18662400)
I0403 13:57:48.876540 28907 net.cpp:156] Memory required for data: 662258800
I0403 13:57:48.876557 28907 layer_factory.hpp:77] Creating layer pool2
I0403 13:57:48.876579 28907 net.cpp:91] Creating Layer pool2
I0403 13:57:48.876596 28907 net.cpp:425] pool2 <- norm2
I0403 13:57:48.876616 28907 net.cpp:399] pool2 -> pool2
I0403 13:57:48.876673 28907 net.cpp:141] Setting up pool2
I0403 13:57:48.876699 28907 net.cpp:148] Top shape: 100 256 13 13 (4326400)
I0403 13:57:48.876718 28907 net.cpp:156] Memory required for data: 679564400
I0403 13:57:48.876734 28907 layer_factory.hpp:77] Creating layer conv3
I0403 13:57:48.876760 28907 net.cpp:91] Creating Layer conv3
I0403 13:57:48.876777 28907 net.cpp:425] conv3 <- pool2
I0403 13:57:48.876801 28907 net.cpp:399] conv3 -> conv3
I0403 13:57:48.916496 28907 net.cpp:141] Setting up conv3
I0403 13:57:48.916574 28907 net.cpp:148] Top shape: 100 384 13 13 (6489600)
I0403 13:57:48.916591 28907 net.cpp:156] Memory required for data: 705522800
I0403 13:57:48.916620 28907 layer_factory.hpp:77] Creating layer relu3
I0403 13:57:48.916648 28907 net.cpp:91] Creating Layer relu3
I0403 13:57:48.916668 28907 net.cpp:425] relu3 <- conv3
I0403 13:57:48.916688 28907 net.cpp:386] relu3 -> conv3 (in-place)
I0403 13:57:48.916966 28907 net.cpp:141] Setting up relu3
I0403 13:57:48.916996 28907 net.cpp:148] Top shape: 100 384 13 13 (6489600)
I0403 13:57:48.917011 28907 net.cpp:156] Memory required for data: 731481200
I0403 13:57:48.917029 28907 layer_factory.hpp:77] Creating layer conv4
I0403 13:57:48.917057 28907 net.cpp:91] Creating Layer conv4
I0403 13:57:48.917076 28907 net.cpp:425] conv4 <- conv3
I0403 13:57:48.917098 28907 net.cpp:399] conv4 -> conv4
I0403 13:57:48.947674 28907 net.cpp:141] Setting up conv4
I0403 13:57:48.947751 28907 net.cpp:148] Top shape: 100 384 13 13 (6489600)
I0403 13:57:48.947801 28907 net.cpp:156] Memory required for data: 757439600
I0403 13:57:48.947825 28907 layer_factory.hpp:77] Creating layer relu4
I0403 13:57:48.947849 28907 net.cpp:91] Creating Layer relu4
I0403 13:57:48.947868 28907 net.cpp:425] relu4 <- conv4
I0403 13:57:48.947892 28907 net.cpp:386] relu4 -> conv4 (in-place)
I0403 13:57:48.948179 28907 net.cpp:141] Setting up relu4
I0403 13:57:48.948220 28907 net.cpp:148] Top shape: 100 384 13 13 (6489600)
I0403 13:57:48.948237 28907 net.cpp:156] Memory required for data: 783398000
I0403 13:57:48.948254 28907 layer_factory.hpp:77] Creating layer conv5
I0403 13:57:48.948285 28907 net.cpp:91] Creating Layer conv5
I0403 13:57:48.948307 28907 net.cpp:425] conv5 <- conv4
I0403 13:57:48.948336 28907 net.cpp:399] conv5 -> conv5
I0403 13:57:48.979171 28907 net.cpp:141] Setting up conv5
I0403 13:57:48.979252 28907 net.cpp:148] Top shape: 100 256 13 13 (4326400)
I0403 13:57:48.979272 28907 net.cpp:156] Memory required for data: 800703600
I0403 13:57:48.979303 28907 layer_factory.hpp:77] Creating layer relu5
I0403 13:57:48.979336 28907 net.cpp:91] Creating Layer relu5
I0403 13:57:48.979356 28907 net.cpp:425] relu5 <- conv5
I0403 13:57:48.979382 28907 net.cpp:386] relu5 -> conv5 (in-place)
I0403 13:57:48.979665 28907 net.cpp:141] Setting up relu5
I0403 13:57:48.979692 28907 net.cpp:148] Top shape: 100 256 13 13 (4326400)
I0403 13:57:48.979709 28907 net.cpp:156] Memory required for data: 818009200
I0403 13:57:48.979727 28907 layer_factory.hpp:77] Creating layer pool5
I0403 13:57:48.979753 28907 net.cpp:91] Creating Layer pool5
I0403 13:57:48.979771 28907 net.cpp:425] pool5 <- conv5
I0403 13:57:48.979791 28907 net.cpp:399] pool5 -> pool5
I0403 13:57:48.979861 28907 net.cpp:141] Setting up pool5
I0403 13:57:48.979924 28907 net.cpp:148] Top shape: 100 256 6 6 (921600)
I0403 13:57:48.979943 28907 net.cpp:156] Memory required for data: 821695600
I0403 13:57:48.979960 28907 layer_factory.hpp:77] Creating layer fc6
I0403 13:57:48.979993 28907 net.cpp:91] Creating Layer fc6
I0403 13:57:48.980011 28907 net.cpp:425] fc6 <- pool5
I0403 13:57:48.980031 28907 net.cpp:399] fc6 -> fc6
I0403 13:57:50.529925 28907 net.cpp:141] Setting up fc6
I0403 13:57:50.530005 28907 net.cpp:148] Top shape: 100 4096 (409600)
I0403 13:57:50.530024 28907 net.cpp:156] Memory required for data: 823334000
I0403 13:57:50.530045 28907 layer_factory.hpp:77] Creating layer relu6
I0403 13:57:50.530067 28907 net.cpp:91] Creating Layer relu6
I0403 13:57:50.530084 28907 net.cpp:425] relu6 <- fc6
I0403 13:57:50.530107 28907 net.cpp:386] relu6 -> fc6 (in-place)
I0403 13:57:50.530349 28907 net.cpp:141] Setting up relu6
I0403 13:57:50.530375 28907 net.cpp:148] Top shape: 100 4096 (409600)
I0403 13:57:50.530391 28907 net.cpp:156] Memory required for data: 824972400
I0403 13:57:50.530407 28907 layer_factory.hpp:77] Creating layer drop6
I0403 13:57:50.530426 28907 net.cpp:91] Creating Layer drop6
I0403 13:57:50.530442 28907 net.cpp:425] drop6 <- fc6
I0403 13:57:50.530462 28907 net.cpp:386] drop6 -> fc6 (in-place)
I0403 13:57:50.530529 28907 net.cpp:141] Setting up drop6
I0403 13:57:50.530555 28907 net.cpp:148] Top shape: 100 4096 (409600)
I0403 13:57:50.530570 28907 net.cpp:156] Memory required for data: 826610800
I0403 13:57:50.530586 28907 layer_factory.hpp:77] Creating layer fc7
I0403 13:57:50.530606 28907 net.cpp:91] Creating Layer fc7
I0403 13:57:50.530622 28907 net.cpp:425] fc7 <- fc6
I0403 13:57:50.530642 28907 net.cpp:399] fc7 -> fc7
I0403 13:57:51.203171 28907 net.cpp:141] Setting up fc7
I0403 13:57:51.203251 28907 net.cpp:148] Top shape: 100 4096 (409600)
I0403 13:57:51.203268 28907 net.cpp:156] Memory required for data: 828249200
I0403 13:57:51.203289 28907 layer_factory.hpp:77] Creating layer relu7
I0403 13:57:51.203312 28907 net.cpp:91] Creating Layer relu7
I0403 13:57:51.203346 28907 net.cpp:425] relu7 <- fc7
I0403 13:57:51.203366 28907 net.cpp:386] relu7 -> fc7 (in-place)
I0403 13:57:51.203757 28907 net.cpp:141] Setting up relu7
I0403 13:57:51.203783 28907 net.cpp:148] Top shape: 100 4096 (409600)
I0403 13:57:51.203832 28907 net.cpp:156] Memory required for data: 829887600
I0403 13:57:51.203850 28907 layer_factory.hpp:77] Creating layer drop7
I0403 13:57:51.203868 28907 net.cpp:91] Creating Layer drop7
I0403 13:57:51.203884 28907 net.cpp:425] drop7 <- fc7
I0403 13:57:51.203907 28907 net.cpp:386] drop7 -> fc7 (in-place)
I0403 13:57:51.203949 28907 net.cpp:141] Setting up drop7
I0403 13:57:51.203974 28907 net.cpp:148] Top shape: 100 4096 (409600)
I0403 13:57:51.203991 28907 net.cpp:156] Memory required for data: 831526000
I0403 13:57:51.204006 28907 layer_factory.hpp:77] Creating layer fc8_plantvillage
I0403 13:57:51.204027 28907 net.cpp:91] Creating Layer fc8_plantvillage
I0403 13:57:51.204042 28907 net.cpp:425] fc8_plantvillage <- fc7
I0403 13:57:51.204063 28907 net.cpp:399] fc8_plantvillage -> fc8_plantvillage
I0403 13:57:51.210685 28907 net.cpp:141] Setting up fc8_plantvillage
I0403 13:57:51.210713 28907 net.cpp:148] Top shape: 100 38 (3800)
I0403 13:57:51.210731 28907 net.cpp:156] Memory required for data: 831541200
I0403 13:57:51.210750 28907 layer_factory.hpp:77] Creating layer fc8_plantvillage_fc8_plantvillage_0_split
I0403 13:57:51.210770 28907 net.cpp:91] Creating Layer fc8_plantvillage_fc8_plantvillage_0_split
I0403 13:57:51.210788 28907 net.cpp:425] fc8_plantvillage_fc8_plantvillage_0_split <- fc8_plantvillage
I0403 13:57:51.210808 28907 net.cpp:399] fc8_plantvillage_fc8_plantvillage_0_split -> fc8_plantvillage_fc8_plantvillage_0_split_0
I0403 13:57:51.210842 28907 net.cpp:399] fc8_plantvillage_fc8_plantvillage_0_split -> fc8_plantvillage_fc8_plantvillage_0_split_1
I0403 13:57:51.210862 28907 net.cpp:399] fc8_plantvillage_fc8_plantvillage_0_split -> fc8_plantvillage_fc8_plantvillage_0_split_2
I0403 13:57:51.210948 28907 net.cpp:141] Setting up fc8_plantvillage_fc8_plantvillage_0_split
I0403 13:57:51.210973 28907 net.cpp:148] Top shape: 100 38 (3800)
I0403 13:57:51.210990 28907 net.cpp:148] Top shape: 100 38 (3800)
I0403 13:57:51.211006 28907 net.cpp:148] Top shape: 100 38 (3800)
I0403 13:57:51.211021 28907 net.cpp:156] Memory required for data: 831586800
I0403 13:57:51.211036 28907 layer_factory.hpp:77] Creating layer prob
I0403 13:57:51.211055 28907 net.cpp:91] Creating Layer prob
I0403 13:57:51.211072 28907 net.cpp:425] prob <- fc8_plantvillage_fc8_plantvillage_0_split_0
I0403 13:57:51.211094 28907 net.cpp:399] prob -> prob
I0403 13:57:51.211319 28907 net.cpp:141] Setting up prob
I0403 13:57:51.211345 28907 net.cpp:148] Top shape: 100 38 (3800)
I0403 13:57:51.211361 28907 net.cpp:156] Memory required for data: 831602000
I0403 13:57:51.211376 28907 layer_factory.hpp:77] Creating layer hdf5out
I0403 13:57:51.211396 28907 net.cpp:91] Creating Layer hdf5out
I0403 13:57:51.211416 28907 net.cpp:425] hdf5out <- prob
I0403 13:57:51.211433 28907 net.cpp:425] hdf5out <- label_data_1_split_0
I0403 13:57:51.215198 28907 net.cpp:141] Setting up hdf5out
…
