…
I0403 13:44:50.022860 28617 net.cpp:313] The NetState phase (1) differed from the phase (0) specified by a rule in layer data
I0403 13:44:50.023172 28617 net.cpp:49] Initializing net from parameters: 
state {
  phase: TEST
}
layer {
  name: "data"
  type: "Data"
  top: "data"
  top: "label"
  include {
    phase: TEST
  }
  transform_param {
    crop_size: 227
    mean_file: "/home/mohanty/data/final_dataset/lmdb/grayscale-20-80/mean.binaryproto"
  }
  data_param {
    source: "/home/mohanty/data/final_dataset/lmdb/grayscale-20-80/test_db"
    batch_size: 100
    backend: LMDB
  }
}
layer {
  name: "conv1"
  type: "Convolution"
  bottom: "data"
  top: "conv1"
  param {
    lr_mult: 1
    decay_mult: 1
  }
  param {
    lr_mult: 2
    decay_mult: 0
  }
  convolution_param {
    num_output: 96
    kernel_size: 11
    stride: 4
    weight_filler {
      type: "gaussian"
      std: 0.01
    }
    bias_filler {
      type: "constant"
      value: 0
    }
  }
}
layer {
  name: "relu1"
  type: "ReLU"
  bottom: "conv1"
  top: "conv1"
}
layer {
  name: "norm1"
  type: "LRN"
  bottom: "conv1"
  top: "norm1"
  lrn_param {
    local_size: 5
    alpha: 0.0001
    beta: 0.75
  }
}
layer {
  name: "pool1"
  type: "Pooling"
  bottom: "norm1"
  top: "pool1"
  pooling_param {
    pool: MAX
    kernel_size: 3
    stride: 2
  }
}
layer {
  name: "conv2"
  type: "Convolution"
  bottom: "pool1"
  top: "conv2"
  param {
    lr_mult: 1
    decay_mult: 1
  }
  param {
    lr_mult: 2
    decay_mult: 0
  }
  convolution_param {
    num_output: 256
    pad: 2
    kernel_size: 5
    group: 2
    weight_filler {
      type: "gaussian"
      std: 0.01
    }
    bias_filler {
      type: "constant"
      value: 0.1
    }
  }
}
layer {
  name: "relu2"
  type: "ReLU"
  bottom: "conv2"
  top: "conv2"
}
layer {
  name: "norm2"
  type: "LRN"
  bottom: "conv2"
  top: "norm2"
  lrn_param {
    local_size: 5
    alpha: 0.0001
    beta: 0.75
  }
}
layer {
  name: "pool2"
  type: "Pooling"
  bottom: "norm2"
  top: "pool2"
  pooling_param {
    pool: MAX
    kernel_size: 3
    stride: 2
  }
}
layer {
  name: "conv3"
  type: "Convolution"
  bottom: "pool2"
  top: "conv3"
  param {
    lr_mult: 1
    decay_mult: 1
  }
  param {
    lr_mult: 2
    decay_mult: 0
  }
  convolution_param {
    num_output: 384
    pad: 1
    kernel_size: 3
    weight_filler {
      type: "gaussian"
      std: 0.01
    }
    bias_filler {
      type: "constant"
      value: 0
    }
  }
}
layer {
  name: "relu3"
  type: "ReLU"
  bottom: "conv3"
  top: "conv3"
}
layer {
  name: "conv4"
  type: "Convolution"
  bottom: "conv3"
  top: "conv4"
  param {
    lr_mult: 1
    decay_mult: 1
  }
  param {
    lr_mult: 2
    decay_mult: 0
  }
  convolution_param {
    num_output: 384
    pad: 1
    kernel_size: 3
    group: 2
    weight_filler {
      type: "gaussian"
      std: 0.01
    }
    bias_filler {
      type: "constant"
      value: 0.1
    }
  }
}
layer {
  name: "relu4"
  type: "ReLU"
  bottom: "conv4"
  top: "conv4"
}
layer {
  name: "conv5"
  type: "Convolution"
  bottom: "conv4"
  top: "conv5"
  param {
    lr_mult: 1
    decay_mult: 1
  }
  param {
    lr_mult: 2
    decay_mult: 0
  }
  convolution_param {
    num_output: 256
    pad: 1
    kernel_size: 3
    group: 2
    weight_filler {
      type: "gaussian"
      std: 0.01
    }
    bias_filler {
      type: "constant"
      value: 0.1
    }
  }
}
layer {
  name: "relu5"
  type: "ReLU"
  bottom: "conv5"
  top: "conv5"
}
layer {
  name: "pool5"
  type: "Pooling"
  bottom: "conv5"
  top: "pool5"
  pooling_param {
    pool: MAX
    kernel_size: 3
    stride: 2
  }
}
layer {
  name: "fc6"
  type: "InnerProduct"
  bottom: "pool5"
  top: "fc6"
  param {
    lr_mult: 1
    decay_mult: 1
  }
  param {
    lr_mult: 2
    decay_mult: 0
  }
  inner_product_param {
    num_output: 4096
    weight_filler {
      type: "gaussian"
      std: 0.005
    }
    bias_filler {
      type: "constant"
      value: 0.1
    }
  }
}
layer {
  name: "relu6"
  type: "ReLU"
  bottom: "fc6"
  top: "fc6"
}
layer {
  name: "drop6"
  type: "Dropout"
  bottom: "fc6"
  top: "fc6"
  dropout_param {
    dropout_ratio: 0.5
  }
}
layer {
  name: "fc7"
  type: "InnerProduct"
  bottom: "fc6"
  top: "fc7"
  param {
    lr_mult: 1
    decay_mult: 1
  }
  param {
    lr_mult: 2
    decay_mult: 0
  }
  inner_product_param {
    num_output: 4096
    weight_filler {
      type: "gaussian"
      std: 0.005
    }
    bias_filler {
      type: "constant"
      value: 0.1
    }
  }
}
layer {
  name: "relu7"
  type: "ReLU"
  bottom: "fc7"
  top: "fc7"
}
layer {
  name: "drop7"
  type: "Dropout"
  bottom: "fc7"
  top: "fc7"
  dropout_param {
    dropout_ratio: 0.5
  }
}
layer {
  name: "fc8_plantvillage"
  type: "InnerProduct"
  bottom: "fc7"
  top: "fc8_plantvillage"
  param {
    lr_mult: 1
    decay_mult: 1
  }
  param {
    lr_mult: 2
    decay_mult: 0
  }
  inner_product_param {
    num_output: 38
    weight_filler {
      type: "gaussian"
      std: 0.01
    }
    bias_filler {
      type: "constant"
      value: 0
    }
  }
}
layer {
  name: "prob"
  type: "Softmax"
  bottom: "fc8_plantvillage"
  top: "prob"
  include {
    phase: TEST
  }
}
layer {
  name: "hdf5out"
  type: "HDF5Output"
  bottom: "prob"
  bottom: "label"
  include {
    phase: TEST
  }
  hdf5_output_param {
    file_name: "hdf5_dumps/iter_1680.h5"
  }
}
layer {
  name: "loss"
  type: "SoftmaxWithLoss"
  bottom: "fc8_plantvillage"
  bottom: "label"
  top: "loss"
}
layer {
  name: "accuracy"
  type: "Accuracy"
  bottom: "fc8_plantvillage"
  bottom: "label"
  top: "accuracy"
  include {
    phase: TEST
  }
}
I0403 13:44:50.023785 28617 layer_factory.hpp:77] Creating layer data
I0403 13:44:50.024443 28617 net.cpp:91] Creating Layer data
I0403 13:44:50.024476 28617 net.cpp:399] data -> data
I0403 13:44:50.024528 28617 net.cpp:399] data -> label
I0403 13:44:50.024569 28617 data_transformer.cpp:25] Loading mean file from: /home/mohanty/data/final_dataset/lmdb/grayscale-20-80/mean.binaryproto
I0403 13:44:50.027168 28620 db_lmdb.cpp:38] Opened lmdb /home/mohanty/data/final_dataset/lmdb/grayscale-20-80/test_db
I0403 13:44:50.055552 28617 data_layer.cpp:41] output data size: 100,3,227,227
I0403 13:44:50.178478 28617 net.cpp:141] Setting up data
I0403 13:44:50.178570 28617 net.cpp:148] Top shape: 100 3 227 227 (15458700)
I0403 13:44:50.178594 28617 net.cpp:148] Top shape: 100 (100)
I0403 13:44:50.178611 28617 net.cpp:156] Memory required for data: 61835200
I0403 13:44:50.178639 28617 layer_factory.hpp:77] Creating layer label_data_1_split
I0403 13:44:50.178665 28617 net.cpp:91] Creating Layer label_data_1_split
I0403 13:44:50.178684 28617 net.cpp:425] label_data_1_split <- label
I0403 13:44:50.178717 28617 net.cpp:399] label_data_1_split -> label_data_1_split_0
I0403 13:44:50.178745 28617 net.cpp:399] label_data_1_split -> label_data_1_split_1
I0403 13:44:50.178766 28617 net.cpp:399] label_data_1_split -> label_data_1_split_2
I0403 13:44:50.178831 28617 net.cpp:141] Setting up label_data_1_split
I0403 13:44:50.178856 28617 net.cpp:148] Top shape: 100 (100)
I0403 13:44:50.178874 28617 net.cpp:148] Top shape: 100 (100)
I0403 13:44:50.178891 28617 net.cpp:148] Top shape: 100 (100)
I0403 13:44:50.178906 28617 net.cpp:156] Memory required for data: 61836400
I0403 13:44:50.178922 28617 layer_factory.hpp:77] Creating layer conv1
I0403 13:44:50.178954 28617 net.cpp:91] Creating Layer conv1
I0403 13:44:50.178974 28617 net.cpp:425] conv1 <- data
I0403 13:44:50.178994 28617 net.cpp:399] conv1 -> conv1
I0403 13:44:50.320613 28617 net.cpp:141] Setting up conv1
I0403 13:44:50.320688 28617 net.cpp:148] Top shape: 100 96 55 55 (29040000)
I0403 13:44:50.320708 28617 net.cpp:156] Memory required for data: 177996400
I0403 13:44:50.320740 28617 layer_factory.hpp:77] Creating layer relu1
I0403 13:44:50.320798 28617 net.cpp:91] Creating Layer relu1
I0403 13:44:50.320822 28617 net.cpp:425] relu1 <- conv1
I0403 13:44:50.320842 28617 net.cpp:386] relu1 -> conv1 (in-place)
I0403 13:44:50.321106 28617 net.cpp:141] Setting up relu1
I0403 13:44:50.321135 28617 net.cpp:148] Top shape: 100 96 55 55 (29040000)
I0403 13:44:50.321184 28617 net.cpp:156] Memory required for data: 294156400
I0403 13:44:50.321202 28617 layer_factory.hpp:77] Creating layer norm1
I0403 13:44:50.321230 28617 net.cpp:91] Creating Layer norm1
I0403 13:44:50.321250 28617 net.cpp:425] norm1 <- conv1
I0403 13:44:50.321270 28617 net.cpp:399] norm1 -> norm1
I0403 13:44:50.321583 28617 net.cpp:141] Setting up norm1
I0403 13:44:50.321611 28617 net.cpp:148] Top shape: 100 96 55 55 (29040000)
I0403 13:44:50.321627 28617 net.cpp:156] Memory required for data: 410316400
I0403 13:44:50.321643 28617 layer_factory.hpp:77] Creating layer pool1
I0403 13:44:50.321668 28617 net.cpp:91] Creating Layer pool1
I0403 13:44:50.321686 28617 net.cpp:425] pool1 <- norm1
I0403 13:44:50.321707 28617 net.cpp:399] pool1 -> pool1
I0403 13:44:50.321774 28617 net.cpp:141] Setting up pool1
I0403 13:44:50.321799 28617 net.cpp:148] Top shape: 100 96 27 27 (6998400)
I0403 13:44:50.321815 28617 net.cpp:156] Memory required for data: 438310000
I0403 13:44:50.321830 28617 layer_factory.hpp:77] Creating layer conv2
I0403 13:44:50.321856 28617 net.cpp:91] Creating Layer conv2
I0403 13:44:50.321873 28617 net.cpp:425] conv2 <- pool1
I0403 13:44:50.321893 28617 net.cpp:399] conv2 -> conv2
I0403 13:44:50.337044 28617 net.cpp:141] Setting up conv2
I0403 13:44:50.337095 28617 net.cpp:148] Top shape: 100 256 27 27 (18662400)
I0403 13:44:50.337113 28617 net.cpp:156] Memory required for data: 512959600
I0403 13:44:50.337138 28617 layer_factory.hpp:77] Creating layer relu2
I0403 13:44:50.337160 28617 net.cpp:91] Creating Layer relu2
I0403 13:44:50.337178 28617 net.cpp:425] relu2 <- conv2
I0403 13:44:50.337198 28617 net.cpp:386] relu2 -> conv2 (in-place)
I0403 13:44:50.337476 28617 net.cpp:141] Setting up relu2
I0403 13:44:50.337505 28617 net.cpp:148] Top shape: 100 256 27 27 (18662400)
I0403 13:44:50.337522 28617 net.cpp:156] Memory required for data: 587609200
I0403 13:44:50.337539 28617 layer_factory.hpp:77] Creating layer norm2
I0403 13:44:50.337563 28617 net.cpp:91] Creating Layer norm2
I0403 13:44:50.337581 28617 net.cpp:425] norm2 <- conv2
I0403 13:44:50.337602 28617 net.cpp:399] norm2 -> norm2
I0403 13:44:50.337824 28617 net.cpp:141] Setting up norm2
I0403 13:44:50.337852 28617 net.cpp:148] Top shape: 100 256 27 27 (18662400)
I0403 13:44:50.337868 28617 net.cpp:156] Memory required for data: 662258800
I0403 13:44:50.337883 28617 layer_factory.hpp:77] Creating layer pool2
I0403 13:44:50.337903 28617 net.cpp:91] Creating Layer pool2
I0403 13:44:50.337920 28617 net.cpp:425] pool2 <- norm2
I0403 13:44:50.337939 28617 net.cpp:399] pool2 -> pool2
I0403 13:44:50.337991 28617 net.cpp:141] Setting up pool2
I0403 13:44:50.338016 28617 net.cpp:148] Top shape: 100 256 13 13 (4326400)
I0403 13:44:50.338032 28617 net.cpp:156] Memory required for data: 679564400
I0403 13:44:50.338047 28617 layer_factory.hpp:77] Creating layer conv3
I0403 13:44:50.338073 28617 net.cpp:91] Creating Layer conv3
I0403 13:44:50.338089 28617 net.cpp:425] conv3 <- pool2
I0403 13:44:50.338109 28617 net.cpp:399] conv3 -> conv3
I0403 13:44:50.376644 28617 net.cpp:141] Setting up conv3
I0403 13:44:50.376719 28617 net.cpp:148] Top shape: 100 384 13 13 (6489600)
I0403 13:44:50.376737 28617 net.cpp:156] Memory required for data: 705522800
I0403 13:44:50.376766 28617 layer_factory.hpp:77] Creating layer relu3
I0403 13:44:50.376791 28617 net.cpp:91] Creating Layer relu3
I0403 13:44:50.376811 28617 net.cpp:425] relu3 <- conv3
I0403 13:44:50.376830 28617 net.cpp:386] relu3 -> conv3 (in-place)
I0403 13:44:50.377104 28617 net.cpp:141] Setting up relu3
I0403 13:44:50.377133 28617 net.cpp:148] Top shape: 100 384 13 13 (6489600)
I0403 13:44:50.377151 28617 net.cpp:156] Memory required for data: 731481200
I0403 13:44:50.377166 28617 layer_factory.hpp:77] Creating layer conv4
I0403 13:44:50.377193 28617 net.cpp:91] Creating Layer conv4
I0403 13:44:50.377210 28617 net.cpp:425] conv4 <- conv3
I0403 13:44:50.377231 28617 net.cpp:399] conv4 -> conv4
I0403 13:44:50.407537 28617 net.cpp:141] Setting up conv4
I0403 13:44:50.407600 28617 net.cpp:148] Top shape: 100 384 13 13 (6489600)
I0403 13:44:50.407654 28617 net.cpp:156] Memory required for data: 757439600
I0403 13:44:50.407676 28617 layer_factory.hpp:77] Creating layer relu4
I0403 13:44:50.407701 28617 net.cpp:91] Creating Layer relu4
I0403 13:44:50.407721 28617 net.cpp:425] relu4 <- conv4
I0403 13:44:50.407740 28617 net.cpp:386] relu4 -> conv4 (in-place)
I0403 13:44:50.408072 28617 net.cpp:141] Setting up relu4
I0403 13:44:50.408102 28617 net.cpp:148] Top shape: 100 384 13 13 (6489600)
I0403 13:44:50.408118 28617 net.cpp:156] Memory required for data: 783398000
I0403 13:44:50.408134 28617 layer_factory.hpp:77] Creating layer conv5
I0403 13:44:50.408159 28617 net.cpp:91] Creating Layer conv5
I0403 13:44:50.408179 28617 net.cpp:425] conv5 <- conv4
I0403 13:44:50.408200 28617 net.cpp:399] conv5 -> conv5
I0403 13:44:50.428859 28617 net.cpp:141] Setting up conv5
I0403 13:44:50.428912 28617 net.cpp:148] Top shape: 100 256 13 13 (4326400)
I0403 13:44:50.428930 28617 net.cpp:156] Memory required for data: 800703600
I0403 13:44:50.428959 28617 layer_factory.hpp:77] Creating layer relu5
I0403 13:44:50.428982 28617 net.cpp:91] Creating Layer relu5
I0403 13:44:50.428998 28617 net.cpp:425] relu5 <- conv5
I0403 13:44:50.429018 28617 net.cpp:386] relu5 -> conv5 (in-place)
I0403 13:44:50.429317 28617 net.cpp:141] Setting up relu5
I0403 13:44:50.429352 28617 net.cpp:148] Top shape: 100 256 13 13 (4326400)
I0403 13:44:50.429370 28617 net.cpp:156] Memory required for data: 818009200
I0403 13:44:50.429388 28617 layer_factory.hpp:77] Creating layer pool5
I0403 13:44:50.429410 28617 net.cpp:91] Creating Layer pool5
I0403 13:44:50.429428 28617 net.cpp:425] pool5 <- conv5
I0403 13:44:50.429450 28617 net.cpp:399] pool5 -> pool5
I0403 13:44:50.429512 28617 net.cpp:141] Setting up pool5
I0403 13:44:50.429536 28617 net.cpp:148] Top shape: 100 256 6 6 (921600)
I0403 13:44:50.429553 28617 net.cpp:156] Memory required for data: 821695600
I0403 13:44:50.429568 28617 layer_factory.hpp:77] Creating layer fc6
I0403 13:44:50.429597 28617 net.cpp:91] Creating Layer fc6
I0403 13:44:50.429616 28617 net.cpp:425] fc6 <- pool5
I0403 13:44:50.429638 28617 net.cpp:399] fc6 -> fc6
I0403 13:44:51.990784 28617 net.cpp:141] Setting up fc6
I0403 13:44:51.990828 28617 net.cpp:148] Top shape: 100 4096 (409600)
I0403 13:44:51.990844 28617 net.cpp:156] Memory required for data: 823334000
I0403 13:44:51.990865 28617 layer_factory.hpp:77] Creating layer relu6
I0403 13:44:51.990888 28617 net.cpp:91] Creating Layer relu6
I0403 13:44:51.990906 28617 net.cpp:425] relu6 <- fc6
I0403 13:44:51.990928 28617 net.cpp:386] relu6 -> fc6 (in-place)
I0403 13:44:51.991147 28617 net.cpp:141] Setting up relu6
I0403 13:44:51.991173 28617 net.cpp:148] Top shape: 100 4096 (409600)
I0403 13:44:51.991189 28617 net.cpp:156] Memory required for data: 824972400
I0403 13:44:51.991204 28617 layer_factory.hpp:77] Creating layer drop6
I0403 13:44:51.991225 28617 net.cpp:91] Creating Layer drop6
I0403 13:44:51.991241 28617 net.cpp:425] drop6 <- fc6
I0403 13:44:51.991260 28617 net.cpp:386] drop6 -> fc6 (in-place)
I0403 13:44:51.991312 28617 net.cpp:141] Setting up drop6
I0403 13:44:51.991335 28617 net.cpp:148] Top shape: 100 4096 (409600)
I0403 13:44:51.991358 28617 net.cpp:156] Memory required for data: 826610800
I0403 13:44:51.991374 28617 layer_factory.hpp:77] Creating layer fc7
I0403 13:44:51.991396 28617 net.cpp:91] Creating Layer fc7
I0403 13:44:51.991415 28617 net.cpp:425] fc7 <- fc6
I0403 13:44:51.991433 28617 net.cpp:399] fc7 -> fc7
I0403 13:44:52.680804 28617 net.cpp:141] Setting up fc7
I0403 13:44:52.680882 28617 net.cpp:148] Top shape: 100 4096 (409600)
I0403 13:44:52.680899 28617 net.cpp:156] Memory required for data: 828249200
I0403 13:44:52.680922 28617 layer_factory.hpp:77] Creating layer relu7
I0403 13:44:52.680948 28617 net.cpp:91] Creating Layer relu7
I0403 13:44:52.680965 28617 net.cpp:425] relu7 <- fc7
I0403 13:44:52.680987 28617 net.cpp:386] relu7 -> fc7 (in-place)
I0403 13:44:52.681402 28617 net.cpp:141] Setting up relu7
I0403 13:44:52.681429 28617 net.cpp:148] Top shape: 100 4096 (409600)
I0403 13:44:52.681478 28617 net.cpp:156] Memory required for data: 829887600
I0403 13:44:52.681496 28617 layer_factory.hpp:77] Creating layer drop7
I0403 13:44:52.681519 28617 net.cpp:91] Creating Layer drop7
I0403 13:44:52.681535 28617 net.cpp:425] drop7 <- fc7
I0403 13:44:52.681552 28617 net.cpp:386] drop7 -> fc7 (in-place)
I0403 13:44:52.681597 28617 net.cpp:141] Setting up drop7
I0403 13:44:52.681622 28617 net.cpp:148] Top shape: 100 4096 (409600)
I0403 13:44:52.681637 28617 net.cpp:156] Memory required for data: 831526000
I0403 13:44:52.681653 28617 layer_factory.hpp:77] Creating layer fc8_plantvillage
I0403 13:44:52.681674 28617 net.cpp:91] Creating Layer fc8_plantvillage
I0403 13:44:52.681689 28617 net.cpp:425] fc8_plantvillage <- fc7
I0403 13:44:52.681710 28617 net.cpp:399] fc8_plantvillage -> fc8_plantvillage
I0403 13:44:52.688520 28617 net.cpp:141] Setting up fc8_plantvillage
I0403 13:44:52.688552 28617 net.cpp:148] Top shape: 100 38 (3800)
I0403 13:44:52.688570 28617 net.cpp:156] Memory required for data: 831541200
I0403 13:44:52.688588 28617 layer_factory.hpp:77] Creating layer fc8_plantvillage_fc8_plantvillage_0_split
I0403 13:44:52.688607 28617 net.cpp:91] Creating Layer fc8_plantvillage_fc8_plantvillage_0_split
I0403 13:44:52.688623 28617 net.cpp:425] fc8_plantvillage_fc8_plantvillage_0_split <- fc8_plantvillage
I0403 13:44:52.688642 28617 net.cpp:399] fc8_plantvillage_fc8_plantvillage_0_split -> fc8_plantvillage_fc8_plantvillage_0_split_0
I0403 13:44:52.688663 28617 net.cpp:399] fc8_plantvillage_fc8_plantvillage_0_split -> fc8_plantvillage_fc8_plantvillage_0_split_1
I0403 13:44:52.688688 28617 net.cpp:399] fc8_plantvillage_fc8_plantvillage_0_split -> fc8_plantvillage_fc8_plantvillage_0_split_2
I0403 13:44:52.688769 28617 net.cpp:141] Setting up fc8_plantvillage_fc8_plantvillage_0_split
I0403 13:44:52.688794 28617 net.cpp:148] Top shape: 100 38 (3800)
I0403 13:44:52.688812 28617 net.cpp:148] Top shape: 100 38 (3800)
I0403 13:44:52.688827 28617 net.cpp:148] Top shape: 100 38 (3800)
I0403 13:44:52.688843 28617 net.cpp:156] Memory required for data: 831586800
I0403 13:44:52.688858 28617 layer_factory.hpp:77] Creating layer prob
I0403 13:44:52.688877 28617 net.cpp:91] Creating Layer prob
I0403 13:44:52.688892 28617 net.cpp:425] prob <- fc8_plantvillage_fc8_plantvillage_0_split_0
I0403 13:44:52.688910 28617 net.cpp:399] prob -> prob
I0403 13:44:52.689138 28617 net.cpp:141] Setting up prob
I0403 13:44:52.689164 28617 net.cpp:148] Top shape: 100 38 (3800)
I0403 13:44:52.689180 28617 net.cpp:156] Memory required for data: 831602000
I0403 13:44:52.689196 28617 layer_factory.hpp:77] Creating layer hdf5out
I0403 13:44:52.689218 28617 net.cpp:91] Creating Layer hdf5out
I0403 13:44:52.689235 28617 net.cpp:425] hdf5out <- prob
I0403 13:44:52.689252 28617 net.cpp:425] hdf5out <- label_data_1_split_0
I0403 13:44:52.693542 28617 net.cpp:141] Setting up hdf5out
…
