…
I0403 13:54:53.644937 28851 net.cpp:313] The NetState phase (1) differed from the phase (0) specified by a rule in layer data
I0403 13:54:53.645251 28851 net.cpp:49] Initializing net from parameters: 
state {
  phase: TEST
}
layer {
  name: "data"
  type: "Data"
  top: "data"
  top: "label"
  include {
    phase: TEST
  }
  transform_param {
    crop_size: 227
    mean_file: "/home/mohanty/data/final_dataset/lmdb/grayscale-20-80/mean.binaryproto"
  }
  data_param {
    source: "/home/mohanty/data/final_dataset/lmdb/grayscale-20-80/test_db"
    batch_size: 100
    backend: LMDB
  }
}
layer {
  name: "conv1"
  type: "Convolution"
  bottom: "data"
  top: "conv1"
  param {
    lr_mult: 1
    decay_mult: 1
  }
  param {
    lr_mult: 2
    decay_mult: 0
  }
  convolution_param {
    num_output: 96
    kernel_size: 11
    stride: 4
    weight_filler {
      type: "gaussian"
      std: 0.01
    }
    bias_filler {
      type: "constant"
      value: 0
    }
  }
}
layer {
  name: "relu1"
  type: "ReLU"
  bottom: "conv1"
  top: "conv1"
}
layer {
  name: "norm1"
  type: "LRN"
  bottom: "conv1"
  top: "norm1"
  lrn_param {
    local_size: 5
    alpha: 0.0001
    beta: 0.75
  }
}
layer {
  name: "pool1"
  type: "Pooling"
  bottom: "norm1"
  top: "pool1"
  pooling_param {
    pool: MAX
    kernel_size: 3
    stride: 2
  }
}
layer {
  name: "conv2"
  type: "Convolution"
  bottom: "pool1"
  top: "conv2"
  param {
    lr_mult: 1
    decay_mult: 1
  }
  param {
    lr_mult: 2
    decay_mult: 0
  }
  convolution_param {
    num_output: 256
    pad: 2
    kernel_size: 5
    group: 2
    weight_filler {
      type: "gaussian"
      std: 0.01
    }
    bias_filler {
      type: "constant"
      value: 0.1
    }
  }
}
layer {
  name: "relu2"
  type: "ReLU"
  bottom: "conv2"
  top: "conv2"
}
layer {
  name: "norm2"
  type: "LRN"
  bottom: "conv2"
  top: "norm2"
  lrn_param {
    local_size: 5
    alpha: 0.0001
    beta: 0.75
  }
}
layer {
  name: "pool2"
  type: "Pooling"
  bottom: "norm2"
  top: "pool2"
  pooling_param {
    pool: MAX
    kernel_size: 3
    stride: 2
  }
}
layer {
  name: "conv3"
  type: "Convolution"
  bottom: "pool2"
  top: "conv3"
  param {
    lr_mult: 1
    decay_mult: 1
  }
  param {
    lr_mult: 2
    decay_mult: 0
  }
  convolution_param {
    num_output: 384
    pad: 1
    kernel_size: 3
    weight_filler {
      type: "gaussian"
      std: 0.01
    }
    bias_filler {
      type: "constant"
      value: 0
    }
  }
}
layer {
  name: "relu3"
  type: "ReLU"
  bottom: "conv3"
  top: "conv3"
}
layer {
  name: "conv4"
  type: "Convolution"
  bottom: "conv3"
  top: "conv4"
  param {
    lr_mult: 1
    decay_mult: 1
  }
  param {
    lr_mult: 2
    decay_mult: 0
  }
  convolution_param {
    num_output: 384
    pad: 1
    kernel_size: 3
    group: 2
    weight_filler {
      type: "gaussian"
      std: 0.01
    }
    bias_filler {
      type: "constant"
      value: 0.1
    }
  }
}
layer {
  name: "relu4"
  type: "ReLU"
  bottom: "conv4"
  top: "conv4"
}
layer {
  name: "conv5"
  type: "Convolution"
  bottom: "conv4"
  top: "conv5"
  param {
    lr_mult: 1
    decay_mult: 1
  }
  param {
    lr_mult: 2
    decay_mult: 0
  }
  convolution_param {
    num_output: 256
    pad: 1
    kernel_size: 3
    group: 2
    weight_filler {
      type: "gaussian"
      std: 0.01
    }
    bias_filler {
      type: "constant"
      value: 0.1
    }
  }
}
layer {
  name: "relu5"
  type: "ReLU"
  bottom: "conv5"
  top: "conv5"
}
layer {
  name: "pool5"
  type: "Pooling"
  bottom: "conv5"
  top: "pool5"
  pooling_param {
    pool: MAX
    kernel_size: 3
    stride: 2
  }
}
layer {
  name: "fc6"
  type: "InnerProduct"
  bottom: "pool5"
  top: "fc6"
  param {
    lr_mult: 1
    decay_mult: 1
  }
  param {
    lr_mult: 2
    decay_mult: 0
  }
  inner_product_param {
    num_output: 4096
    weight_filler {
      type: "gaussian"
      std: 0.005
    }
    bias_filler {
      type: "constant"
      value: 0.1
    }
  }
}
layer {
  name: "relu6"
  type: "ReLU"
  bottom: "fc6"
  top: "fc6"
}
layer {
  name: "drop6"
  type: "Dropout"
  bottom: "fc6"
  top: "fc6"
  dropout_param {
    dropout_ratio: 0.5
  }
}
layer {
  name: "fc7"
  type: "InnerProduct"
  bottom: "fc6"
  top: "fc7"
  param {
    lr_mult: 1
    decay_mult: 1
  }
  param {
    lr_mult: 2
    decay_mult: 0
  }
  inner_product_param {
    num_output: 4096
    weight_filler {
      type: "gaussian"
      std: 0.005
    }
    bias_filler {
      type: "constant"
      value: 0.1
    }
  }
}
layer {
  name: "relu7"
  type: "ReLU"
  bottom: "fc7"
  top: "fc7"
}
layer {
  name: "drop7"
  type: "Dropout"
  bottom: "fc7"
  top: "fc7"
  dropout_param {
    dropout_ratio: 0.5
  }
}
layer {
  name: "fc8_plantvillage"
  type: "InnerProduct"
  bottom: "fc7"
  top: "fc8_plantvillage"
  param {
    lr_mult: 1
    decay_mult: 1
  }
  param {
    lr_mult: 2
    decay_mult: 0
  }
  inner_product_param {
    num_output: 38
    weight_filler {
      type: "gaussian"
      std: 0.01
    }
    bias_filler {
      type: "constant"
      value: 0
    }
  }
}
layer {
  name: "prob"
  type: "Softmax"
  bottom: "fc8_plantvillage"
  top: "prob"
  include {
    phase: TEST
  }
}
layer {
  name: "hdf5out"
  type: "HDF5Output"
  bottom: "prob"
  bottom: "label"
  include {
    phase: TEST
  }
  hdf5_output_param {
    file_name: "hdf5_dumps/iter_2415.h5"
  }
}
layer {
  name: "loss"
  type: "SoftmaxWithLoss"
  bottom: "fc8_plantvillage"
  bottom: "label"
  top: "loss"
}
layer {
  name: "accuracy"
  type: "Accuracy"
  bottom: "fc8_plantvillage"
  bottom: "label"
  top: "accuracy"
  include {
    phase: TEST
  }
}
I0403 13:54:53.645907 28851 layer_factory.hpp:77] Creating layer data
I0403 13:54:53.646582 28851 net.cpp:91] Creating Layer data
I0403 13:54:53.646615 28851 net.cpp:399] data -> data
I0403 13:54:53.646672 28851 net.cpp:399] data -> label
I0403 13:54:53.646710 28851 data_transformer.cpp:25] Loading mean file from: /home/mohanty/data/final_dataset/lmdb/grayscale-20-80/mean.binaryproto
I0403 13:54:53.651773 28856 db_lmdb.cpp:38] Opened lmdb /home/mohanty/data/final_dataset/lmdb/grayscale-20-80/test_db
I0403 13:54:53.660543 28851 data_layer.cpp:41] output data size: 100,3,227,227
I0403 13:54:53.783521 28851 net.cpp:141] Setting up data
I0403 13:54:53.783614 28851 net.cpp:148] Top shape: 100 3 227 227 (15458700)
I0403 13:54:53.783638 28851 net.cpp:148] Top shape: 100 (100)
I0403 13:54:53.783655 28851 net.cpp:156] Memory required for data: 61835200
I0403 13:54:53.783684 28851 layer_factory.hpp:77] Creating layer label_data_1_split
I0403 13:54:53.783711 28851 net.cpp:91] Creating Layer label_data_1_split
I0403 13:54:53.783730 28851 net.cpp:425] label_data_1_split <- label
I0403 13:54:53.783763 28851 net.cpp:399] label_data_1_split -> label_data_1_split_0
I0403 13:54:53.783793 28851 net.cpp:399] label_data_1_split -> label_data_1_split_1
I0403 13:54:53.783815 28851 net.cpp:399] label_data_1_split -> label_data_1_split_2
I0403 13:54:53.783881 28851 net.cpp:141] Setting up label_data_1_split
I0403 13:54:53.783906 28851 net.cpp:148] Top shape: 100 (100)
I0403 13:54:53.783923 28851 net.cpp:148] Top shape: 100 (100)
I0403 13:54:53.783939 28851 net.cpp:148] Top shape: 100 (100)
I0403 13:54:53.783954 28851 net.cpp:156] Memory required for data: 61836400
I0403 13:54:53.783969 28851 layer_factory.hpp:77] Creating layer conv1
I0403 13:54:53.784001 28851 net.cpp:91] Creating Layer conv1
I0403 13:54:53.784020 28851 net.cpp:425] conv1 <- data
I0403 13:54:53.784041 28851 net.cpp:399] conv1 -> conv1
I0403 13:54:53.927287 28851 net.cpp:141] Setting up conv1
I0403 13:54:53.927381 28851 net.cpp:148] Top shape: 100 96 55 55 (29040000)
I0403 13:54:53.927400 28851 net.cpp:156] Memory required for data: 177996400
I0403 13:54:53.927433 28851 layer_factory.hpp:77] Creating layer relu1
I0403 13:54:53.927462 28851 net.cpp:91] Creating Layer relu1
I0403 13:54:53.927481 28851 net.cpp:425] relu1 <- conv1
I0403 13:54:53.927501 28851 net.cpp:386] relu1 -> conv1 (in-place)
I0403 13:54:53.927778 28851 net.cpp:141] Setting up relu1
I0403 13:54:53.927805 28851 net.cpp:148] Top shape: 100 96 55 55 (29040000)
I0403 13:54:53.927851 28851 net.cpp:156] Memory required for data: 294156400
I0403 13:54:53.927870 28851 layer_factory.hpp:77] Creating layer norm1
I0403 13:54:53.927896 28851 net.cpp:91] Creating Layer norm1
I0403 13:54:53.927914 28851 net.cpp:425] norm1 <- conv1
I0403 13:54:53.927933 28851 net.cpp:399] norm1 -> norm1
I0403 13:54:53.928236 28851 net.cpp:141] Setting up norm1
I0403 13:54:53.928263 28851 net.cpp:148] Top shape: 100 96 55 55 (29040000)
I0403 13:54:53.928279 28851 net.cpp:156] Memory required for data: 410316400
I0403 13:54:53.928295 28851 layer_factory.hpp:77] Creating layer pool1
I0403 13:54:53.928318 28851 net.cpp:91] Creating Layer pool1
I0403 13:54:53.928334 28851 net.cpp:425] pool1 <- norm1
I0403 13:54:53.928359 28851 net.cpp:399] pool1 -> pool1
I0403 13:54:53.928426 28851 net.cpp:141] Setting up pool1
I0403 13:54:53.928450 28851 net.cpp:148] Top shape: 100 96 27 27 (6998400)
I0403 13:54:53.928465 28851 net.cpp:156] Memory required for data: 438310000
I0403 13:54:53.928480 28851 layer_factory.hpp:77] Creating layer conv2
I0403 13:54:53.928504 28851 net.cpp:91] Creating Layer conv2
I0403 13:54:53.928521 28851 net.cpp:425] conv2 <- pool1
I0403 13:54:53.928541 28851 net.cpp:399] conv2 -> conv2
I0403 13:54:53.943141 28851 net.cpp:141] Setting up conv2
I0403 13:54:53.943181 28851 net.cpp:148] Top shape: 100 256 27 27 (18662400)
I0403 13:54:53.943198 28851 net.cpp:156] Memory required for data: 512959600
I0403 13:54:53.943222 28851 layer_factory.hpp:77] Creating layer relu2
I0403 13:54:53.943243 28851 net.cpp:91] Creating Layer relu2
I0403 13:54:53.943262 28851 net.cpp:425] relu2 <- conv2
I0403 13:54:53.943280 28851 net.cpp:386] relu2 -> conv2 (in-place)
I0403 13:54:53.943553 28851 net.cpp:141] Setting up relu2
I0403 13:54:53.943581 28851 net.cpp:148] Top shape: 100 256 27 27 (18662400)
I0403 13:54:53.943598 28851 net.cpp:156] Memory required for data: 587609200
I0403 13:54:53.943613 28851 layer_factory.hpp:77] Creating layer norm2
I0403 13:54:53.943634 28851 net.cpp:91] Creating Layer norm2
I0403 13:54:53.943650 28851 net.cpp:425] norm2 <- conv2
I0403 13:54:53.943670 28851 net.cpp:399] norm2 -> norm2
I0403 13:54:53.943846 28851 net.cpp:141] Setting up norm2
I0403 13:54:53.943874 28851 net.cpp:148] Top shape: 100 256 27 27 (18662400)
I0403 13:54:53.943889 28851 net.cpp:156] Memory required for data: 662258800
I0403 13:54:53.943904 28851 layer_factory.hpp:77] Creating layer pool2
I0403 13:54:53.943923 28851 net.cpp:91] Creating Layer pool2
I0403 13:54:53.943939 28851 net.cpp:425] pool2 <- norm2
I0403 13:54:53.943958 28851 net.cpp:399] pool2 -> pool2
I0403 13:54:53.944006 28851 net.cpp:141] Setting up pool2
I0403 13:54:53.944031 28851 net.cpp:148] Top shape: 100 256 13 13 (4326400)
I0403 13:54:53.944046 28851 net.cpp:156] Memory required for data: 679564400
I0403 13:54:53.944061 28851 layer_factory.hpp:77] Creating layer conv3
I0403 13:54:53.944083 28851 net.cpp:91] Creating Layer conv3
I0403 13:54:53.944100 28851 net.cpp:425] conv3 <- pool2
I0403 13:54:53.944119 28851 net.cpp:399] conv3 -> conv3
I0403 13:54:53.982959 28851 net.cpp:141] Setting up conv3
I0403 13:54:53.983034 28851 net.cpp:148] Top shape: 100 384 13 13 (6489600)
I0403 13:54:53.983053 28851 net.cpp:156] Memory required for data: 705522800
I0403 13:54:53.983080 28851 layer_factory.hpp:77] Creating layer relu3
I0403 13:54:53.983106 28851 net.cpp:91] Creating Layer relu3
I0403 13:54:53.983125 28851 net.cpp:425] relu3 <- conv3
I0403 13:54:53.983144 28851 net.cpp:386] relu3 -> conv3 (in-place)
I0403 13:54:53.983449 28851 net.cpp:141] Setting up relu3
I0403 13:54:53.983479 28851 net.cpp:148] Top shape: 100 384 13 13 (6489600)
I0403 13:54:53.983494 28851 net.cpp:156] Memory required for data: 731481200
I0403 13:54:53.983510 28851 layer_factory.hpp:77] Creating layer conv4
I0403 13:54:53.983537 28851 net.cpp:91] Creating Layer conv4
I0403 13:54:53.983556 28851 net.cpp:425] conv4 <- conv3
I0403 13:54:53.983577 28851 net.cpp:399] conv4 -> conv4
I0403 13:54:54.013388 28851 net.cpp:141] Setting up conv4
I0403 13:54:54.013459 28851 net.cpp:148] Top shape: 100 384 13 13 (6489600)
I0403 13:54:54.013509 28851 net.cpp:156] Memory required for data: 757439600
I0403 13:54:54.013533 28851 layer_factory.hpp:77] Creating layer relu4
I0403 13:54:54.013556 28851 net.cpp:91] Creating Layer relu4
I0403 13:54:54.013574 28851 net.cpp:425] relu4 <- conv4
I0403 13:54:54.013597 28851 net.cpp:386] relu4 -> conv4 (in-place)
I0403 13:54:54.013890 28851 net.cpp:141] Setting up relu4
I0403 13:54:54.013919 28851 net.cpp:148] Top shape: 100 384 13 13 (6489600)
I0403 13:54:54.013936 28851 net.cpp:156] Memory required for data: 783398000
I0403 13:54:54.013953 28851 layer_factory.hpp:77] Creating layer conv5
I0403 13:54:54.013983 28851 net.cpp:91] Creating Layer conv5
I0403 13:54:54.014004 28851 net.cpp:425] conv5 <- conv4
I0403 13:54:54.014024 28851 net.cpp:399] conv5 -> conv5
I0403 13:54:54.034538 28851 net.cpp:141] Setting up conv5
I0403 13:54:54.034593 28851 net.cpp:148] Top shape: 100 256 13 13 (4326400)
I0403 13:54:54.034611 28851 net.cpp:156] Memory required for data: 800703600
I0403 13:54:54.034637 28851 layer_factory.hpp:77] Creating layer relu5
I0403 13:54:54.034657 28851 net.cpp:91] Creating Layer relu5
I0403 13:54:54.034674 28851 net.cpp:425] relu5 <- conv5
I0403 13:54:54.034696 28851 net.cpp:386] relu5 -> conv5 (in-place)
I0403 13:54:54.034976 28851 net.cpp:141] Setting up relu5
I0403 13:54:54.035004 28851 net.cpp:148] Top shape: 100 256 13 13 (4326400)
I0403 13:54:54.035020 28851 net.cpp:156] Memory required for data: 818009200
I0403 13:54:54.035037 28851 layer_factory.hpp:77] Creating layer pool5
I0403 13:54:54.035064 28851 net.cpp:91] Creating Layer pool5
I0403 13:54:54.035084 28851 net.cpp:425] pool5 <- conv5
I0403 13:54:54.035102 28851 net.cpp:399] pool5 -> pool5
I0403 13:54:54.035166 28851 net.cpp:141] Setting up pool5
I0403 13:54:54.035192 28851 net.cpp:148] Top shape: 100 256 6 6 (921600)
I0403 13:54:54.035207 28851 net.cpp:156] Memory required for data: 821695600
I0403 13:54:54.035223 28851 layer_factory.hpp:77] Creating layer fc6
I0403 13:54:54.035254 28851 net.cpp:91] Creating Layer fc6
I0403 13:54:54.035272 28851 net.cpp:425] fc6 <- pool5
I0403 13:54:54.035292 28851 net.cpp:399] fc6 -> fc6
I0403 13:54:55.596271 28851 net.cpp:141] Setting up fc6
I0403 13:54:55.596344 28851 net.cpp:148] Top shape: 100 4096 (409600)
I0403 13:54:55.596367 28851 net.cpp:156] Memory required for data: 823334000
I0403 13:54:55.596390 28851 layer_factory.hpp:77] Creating layer relu6
I0403 13:54:55.596412 28851 net.cpp:91] Creating Layer relu6
I0403 13:54:55.596429 28851 net.cpp:425] relu6 <- fc6
I0403 13:54:55.596451 28851 net.cpp:386] relu6 -> fc6 (in-place)
I0403 13:54:55.596671 28851 net.cpp:141] Setting up relu6
I0403 13:54:55.596698 28851 net.cpp:148] Top shape: 100 4096 (409600)
I0403 13:54:55.596714 28851 net.cpp:156] Memory required for data: 824972400
I0403 13:54:55.596729 28851 layer_factory.hpp:77] Creating layer drop6
I0403 13:54:55.596747 28851 net.cpp:91] Creating Layer drop6
I0403 13:54:55.596763 28851 net.cpp:425] drop6 <- fc6
I0403 13:54:55.596783 28851 net.cpp:386] drop6 -> fc6 (in-place)
I0403 13:54:55.596837 28851 net.cpp:141] Setting up drop6
I0403 13:54:55.596863 28851 net.cpp:148] Top shape: 100 4096 (409600)
I0403 13:54:55.596879 28851 net.cpp:156] Memory required for data: 826610800
I0403 13:54:55.596895 28851 layer_factory.hpp:77] Creating layer fc7
I0403 13:54:55.596915 28851 net.cpp:91] Creating Layer fc7
I0403 13:54:55.596931 28851 net.cpp:425] fc7 <- fc6
I0403 13:54:55.596956 28851 net.cpp:399] fc7 -> fc7
I0403 13:54:56.286810 28851 net.cpp:141] Setting up fc7
I0403 13:54:56.286865 28851 net.cpp:148] Top shape: 100 4096 (409600)
I0403 13:54:56.286882 28851 net.cpp:156] Memory required for data: 828249200
I0403 13:54:56.286903 28851 layer_factory.hpp:77] Creating layer relu7
I0403 13:54:56.286926 28851 net.cpp:91] Creating Layer relu7
I0403 13:54:56.286943 28851 net.cpp:425] relu7 <- fc7
I0403 13:54:56.286965 28851 net.cpp:386] relu7 -> fc7 (in-place)
I0403 13:54:56.287370 28851 net.cpp:141] Setting up relu7
I0403 13:54:56.287397 28851 net.cpp:148] Top shape: 100 4096 (409600)
I0403 13:54:56.287444 28851 net.cpp:156] Memory required for data: 829887600
I0403 13:54:56.287472 28851 layer_factory.hpp:77] Creating layer drop7
I0403 13:54:56.287493 28851 net.cpp:91] Creating Layer drop7
I0403 13:54:56.287509 28851 net.cpp:425] drop7 <- fc7
I0403 13:54:56.287528 28851 net.cpp:386] drop7 -> fc7 (in-place)
I0403 13:54:56.287582 28851 net.cpp:141] Setting up drop7
I0403 13:54:56.287608 28851 net.cpp:148] Top shape: 100 4096 (409600)
I0403 13:54:56.287626 28851 net.cpp:156] Memory required for data: 831526000
I0403 13:54:56.287642 28851 layer_factory.hpp:77] Creating layer fc8_plantvillage
I0403 13:54:56.287662 28851 net.cpp:91] Creating Layer fc8_plantvillage
I0403 13:54:56.287678 28851 net.cpp:425] fc8_plantvillage <- fc7
I0403 13:54:56.287701 28851 net.cpp:399] fc8_plantvillage -> fc8_plantvillage
I0403 13:54:56.294467 28851 net.cpp:141] Setting up fc8_plantvillage
I0403 13:54:56.294497 28851 net.cpp:148] Top shape: 100 38 (3800)
I0403 13:54:56.294512 28851 net.cpp:156] Memory required for data: 831541200
I0403 13:54:56.294531 28851 layer_factory.hpp:77] Creating layer fc8_plantvillage_fc8_plantvillage_0_split
I0403 13:54:56.294550 28851 net.cpp:91] Creating Layer fc8_plantvillage_fc8_plantvillage_0_split
I0403 13:54:56.294566 28851 net.cpp:425] fc8_plantvillage_fc8_plantvillage_0_split <- fc8_plantvillage
I0403 13:54:56.294585 28851 net.cpp:399] fc8_plantvillage_fc8_plantvillage_0_split -> fc8_plantvillage_fc8_plantvillage_0_split_0
I0403 13:54:56.294607 28851 net.cpp:399] fc8_plantvillage_fc8_plantvillage_0_split -> fc8_plantvillage_fc8_plantvillage_0_split_1
I0403 13:54:56.294627 28851 net.cpp:399] fc8_plantvillage_fc8_plantvillage_0_split -> fc8_plantvillage_fc8_plantvillage_0_split_2
I0403 13:54:56.294708 28851 net.cpp:141] Setting up fc8_plantvillage_fc8_plantvillage_0_split
I0403 13:54:56.294731 28851 net.cpp:148] Top shape: 100 38 (3800)
I0403 13:54:56.294749 28851 net.cpp:148] Top shape: 100 38 (3800)
I0403 13:54:56.294764 28851 net.cpp:148] Top shape: 100 38 (3800)
I0403 13:54:56.294776 28851 net.cpp:156] Memory required for data: 831586800
I0403 13:54:56.294792 28851 layer_factory.hpp:77] Creating layer prob
I0403 13:54:56.294811 28851 net.cpp:91] Creating Layer prob
I0403 13:54:56.294826 28851 net.cpp:425] prob <- fc8_plantvillage_fc8_plantvillage_0_split_0
I0403 13:54:56.294847 28851 net.cpp:399] prob -> prob
I0403 13:54:56.295071 28851 net.cpp:141] Setting up prob
I0403 13:54:56.295097 28851 net.cpp:148] Top shape: 100 38 (3800)
I0403 13:54:56.295112 28851 net.cpp:156] Memory required for data: 831602000
I0403 13:54:56.295128 28851 layer_factory.hpp:77] Creating layer hdf5out
I0403 13:54:56.295147 28851 net.cpp:91] Creating Layer hdf5out
I0403 13:54:56.295163 28851 net.cpp:425] hdf5out <- prob
I0403 13:54:56.295178 28851 net.cpp:425] hdf5out <- label_data_1_split_0
I0403 13:54:56.299134 28851 net.cpp:141] Setting up hdf5out
…
