…
I0403 13:27:34.094295 28108 net.cpp:313] The NetState phase (1) differed from the phase (0) specified by a rule in layer data
I0403 13:27:34.094614 28108 net.cpp:49] Initializing net from parameters: 
state {
  phase: TEST
}
layer {
  name: "data"
  type: "Data"
  top: "data"
  top: "label"
  include {
    phase: TEST
  }
  transform_param {
    crop_size: 227
    mean_file: "/home/mohanty/data/final_dataset/lmdb/grayscale-20-80/mean.binaryproto"
  }
  data_param {
    source: "/home/mohanty/data/final_dataset/lmdb/grayscale-20-80/test_db"
    batch_size: 100
    backend: LMDB
  }
}
layer {
  name: "conv1"
  type: "Convolution"
  bottom: "data"
  top: "conv1"
  param {
    lr_mult: 1
    decay_mult: 1
  }
  param {
    lr_mult: 2
    decay_mult: 0
  }
  convolution_param {
    num_output: 96
    kernel_size: 11
    stride: 4
    weight_filler {
      type: "gaussian"
      std: 0.01
    }
    bias_filler {
      type: "constant"
      value: 0
    }
  }
}
layer {
  name: "relu1"
  type: "ReLU"
  bottom: "conv1"
  top: "conv1"
}
layer {
  name: "norm1"
  type: "LRN"
  bottom: "conv1"
  top: "norm1"
  lrn_param {
    local_size: 5
    alpha: 0.0001
    beta: 0.75
  }
}
layer {
  name: "pool1"
  type: "Pooling"
  bottom: "norm1"
  top: "pool1"
  pooling_param {
    pool: MAX
    kernel_size: 3
    stride: 2
  }
}
layer {
  name: "conv2"
  type: "Convolution"
  bottom: "pool1"
  top: "conv2"
  param {
    lr_mult: 1
    decay_mult: 1
  }
  param {
    lr_mult: 2
    decay_mult: 0
  }
  convolution_param {
    num_output: 256
    pad: 2
    kernel_size: 5
    group: 2
    weight_filler {
      type: "gaussian"
      std: 0.01
    }
    bias_filler {
      type: "constant"
      value: 0.1
    }
  }
}
layer {
  name: "relu2"
  type: "ReLU"
  bottom: "conv2"
  top: "conv2"
}
layer {
  name: "norm2"
  type: "LRN"
  bottom: "conv2"
  top: "norm2"
  lrn_param {
    local_size: 5
    alpha: 0.0001
    beta: 0.75
  }
}
layer {
  name: "pool2"
  type: "Pooling"
  bottom: "norm2"
  top: "pool2"
  pooling_param {
    pool: MAX
    kernel_size: 3
    stride: 2
  }
}
layer {
  name: "conv3"
  type: "Convolution"
  bottom: "pool2"
  top: "conv3"
  param {
    lr_mult: 1
    decay_mult: 1
  }
  param {
    lr_mult: 2
    decay_mult: 0
  }
  convolution_param {
    num_output: 384
    pad: 1
    kernel_size: 3
    weight_filler {
      type: "gaussian"
      std: 0.01
    }
    bias_filler {
      type: "constant"
      value: 0
    }
  }
}
layer {
  name: "relu3"
  type: "ReLU"
  bottom: "conv3"
  top: "conv3"
}
layer {
  name: "conv4"
  type: "Convolution"
  bottom: "conv3"
  top: "conv4"
  param {
    lr_mult: 1
    decay_mult: 1
  }
  param {
    lr_mult: 2
    decay_mult: 0
  }
  convolution_param {
    num_output: 384
    pad: 1
    kernel_size: 3
    group: 2
    weight_filler {
      type: "gaussian"
      std: 0.01
    }
    bias_filler {
      type: "constant"
      value: 0.1
    }
  }
}
layer {
  name: "relu4"
  type: "ReLU"
  bottom: "conv4"
  top: "conv4"
}
layer {
  name: "conv5"
  type: "Convolution"
  bottom: "conv4"
  top: "conv5"
  param {
    lr_mult: 1
    decay_mult: 1
  }
  param {
    lr_mult: 2
    decay_mult: 0
  }
  convolution_param {
    num_output: 256
    pad: 1
    kernel_size: 3
    group: 2
    weight_filler {
      type: "gaussian"
      std: 0.01
    }
    bias_filler {
      type: "constant"
      value: 0.1
    }
  }
}
layer {
  name: "relu5"
  type: "ReLU"
  bottom: "conv5"
  top: "conv5"
}
layer {
  name: "pool5"
  type: "Pooling"
  bottom: "conv5"
  top: "pool5"
  pooling_param {
    pool: MAX
    kernel_size: 3
    stride: 2
  }
}
layer {
  name: "fc6"
  type: "InnerProduct"
  bottom: "pool5"
  top: "fc6"
  param {
    lr_mult: 1
    decay_mult: 1
  }
  param {
    lr_mult: 2
    decay_mult: 0
  }
  inner_product_param {
    num_output: 4096
    weight_filler {
      type: "gaussian"
      std: 0.005
    }
    bias_filler {
      type: "constant"
      value: 0.1
    }
  }
}
layer {
  name: "relu6"
  type: "ReLU"
  bottom: "fc6"
  top: "fc6"
}
layer {
  name: "drop6"
  type: "Dropout"
  bottom: "fc6"
  top: "fc6"
  dropout_param {
    dropout_ratio: 0.5
  }
}
layer {
  name: "fc7"
  type: "InnerProduct"
  bottom: "fc6"
  top: "fc7"
  param {
    lr_mult: 1
    decay_mult: 1
  }
  param {
    lr_mult: 2
    decay_mult: 0
  }
  inner_product_param {
    num_output: 4096
    weight_filler {
      type: "gaussian"
      std: 0.005
    }
    bias_filler {
      type: "constant"
      value: 0.1
    }
  }
}
layer {
  name: "relu7"
  type: "ReLU"
  bottom: "fc7"
  top: "fc7"
}
layer {
  name: "drop7"
  type: "Dropout"
  bottom: "fc7"
  top: "fc7"
  dropout_param {
    dropout_ratio: 0.5
  }
}
layer {
  name: "fc8_plantvillage"
  type: "InnerProduct"
  bottom: "fc7"
  top: "fc8_plantvillage"
  param {
    lr_mult: 1
    decay_mult: 1
  }
  param {
    lr_mult: 2
    decay_mult: 0
  }
  inner_product_param {
    num_output: 38
    weight_filler {
      type: "gaussian"
      std: 0.01
    }
    bias_filler {
      type: "constant"
      value: 0
    }
  }
}
layer {
  name: "prob"
  type: "Softmax"
  bottom: "fc8_plantvillage"
  top: "prob"
  include {
    phase: TEST
  }
}
layer {
  name: "hdf5out"
  type: "HDF5Output"
  bottom: "prob"
  bottom: "label"
  include {
    phase: TEST
  }
  hdf5_output_param {
    file_name: "hdf5_dumps/iter_420.h5"
  }
}
layer {
  name: "loss"
  type: "SoftmaxWithLoss"
  bottom: "fc8_plantvillage"
  bottom: "label"
  top: "loss"
}
layer {
  name: "accuracy"
  type: "Accuracy"
  bottom: "fc8_plantvillage"
  bottom: "label"
  top: "accuracy"
  include {
    phase: TEST
  }
}
I0403 13:27:34.095221 28108 layer_factory.hpp:77] Creating layer data
I0403 13:27:34.095883 28108 net.cpp:91] Creating Layer data
I0403 13:27:34.095914 28108 net.cpp:399] data -> data
I0403 13:27:34.095968 28108 net.cpp:399] data -> label
I0403 13:27:34.096006 28108 data_transformer.cpp:25] Loading mean file from: /home/mohanty/data/final_dataset/lmdb/grayscale-20-80/mean.binaryproto
I0403 13:27:34.097183 28111 db_lmdb.cpp:38] Opened lmdb /home/mohanty/data/final_dataset/lmdb/grayscale-20-80/test_db
I0403 13:27:34.110117 28108 data_layer.cpp:41] output data size: 100,3,227,227
I0403 13:27:34.227753 28108 net.cpp:141] Setting up data
I0403 13:27:34.227845 28108 net.cpp:148] Top shape: 100 3 227 227 (15458700)
I0403 13:27:34.227869 28108 net.cpp:148] Top shape: 100 (100)
I0403 13:27:34.227885 28108 net.cpp:156] Memory required for data: 61835200
I0403 13:27:34.227912 28108 layer_factory.hpp:77] Creating layer label_data_1_split
I0403 13:27:34.227938 28108 net.cpp:91] Creating Layer label_data_1_split
I0403 13:27:34.227957 28108 net.cpp:425] label_data_1_split <- label
I0403 13:27:34.227989 28108 net.cpp:399] label_data_1_split -> label_data_1_split_0
I0403 13:27:34.228019 28108 net.cpp:399] label_data_1_split -> label_data_1_split_1
I0403 13:27:34.228041 28108 net.cpp:399] label_data_1_split -> label_data_1_split_2
I0403 13:27:34.228106 28108 net.cpp:141] Setting up label_data_1_split
I0403 13:27:34.228132 28108 net.cpp:148] Top shape: 100 (100)
I0403 13:27:34.228149 28108 net.cpp:148] Top shape: 100 (100)
I0403 13:27:34.228168 28108 net.cpp:148] Top shape: 100 (100)
I0403 13:27:34.228183 28108 net.cpp:156] Memory required for data: 61836400
I0403 13:27:34.228198 28108 layer_factory.hpp:77] Creating layer conv1
I0403 13:27:34.228229 28108 net.cpp:91] Creating Layer conv1
I0403 13:27:34.228250 28108 net.cpp:425] conv1 <- data
I0403 13:27:34.228269 28108 net.cpp:399] conv1 -> conv1
I0403 13:27:34.369339 28108 net.cpp:141] Setting up conv1
I0403 13:27:34.369421 28108 net.cpp:148] Top shape: 100 96 55 55 (29040000)
I0403 13:27:34.369439 28108 net.cpp:156] Memory required for data: 177996400
I0403 13:27:34.369470 28108 layer_factory.hpp:77] Creating layer relu1
I0403 13:27:34.369500 28108 net.cpp:91] Creating Layer relu1
I0403 13:27:34.369520 28108 net.cpp:425] relu1 <- conv1
I0403 13:27:34.369540 28108 net.cpp:386] relu1 -> conv1 (in-place)
I0403 13:27:34.369827 28108 net.cpp:141] Setting up relu1
I0403 13:27:34.369858 28108 net.cpp:148] Top shape: 100 96 55 55 (29040000)
I0403 13:27:34.369907 28108 net.cpp:156] Memory required for data: 294156400
I0403 13:27:34.369923 28108 layer_factory.hpp:77] Creating layer norm1
I0403 13:27:34.369954 28108 net.cpp:91] Creating Layer norm1
I0403 13:27:34.369974 28108 net.cpp:425] norm1 <- conv1
I0403 13:27:34.369993 28108 net.cpp:399] norm1 -> norm1
I0403 13:27:34.370331 28108 net.cpp:141] Setting up norm1
I0403 13:27:34.370363 28108 net.cpp:148] Top shape: 100 96 55 55 (29040000)
I0403 13:27:34.370380 28108 net.cpp:156] Memory required for data: 410316400
I0403 13:27:34.370396 28108 layer_factory.hpp:77] Creating layer pool1
I0403 13:27:34.370421 28108 net.cpp:91] Creating Layer pool1
I0403 13:27:34.370461 28108 net.cpp:425] pool1 <- norm1
I0403 13:27:34.370484 28108 net.cpp:399] pool1 -> pool1
I0403 13:27:34.370558 28108 net.cpp:141] Setting up pool1
I0403 13:27:34.370584 28108 net.cpp:148] Top shape: 100 96 27 27 (6998400)
I0403 13:27:34.370599 28108 net.cpp:156] Memory required for data: 438310000
I0403 13:27:34.370615 28108 layer_factory.hpp:77] Creating layer conv2
I0403 13:27:34.370641 28108 net.cpp:91] Creating Layer conv2
I0403 13:27:34.370659 28108 net.cpp:425] conv2 <- pool1
I0403 13:27:34.370682 28108 net.cpp:399] conv2 -> conv2
I0403 13:27:34.386142 28108 net.cpp:141] Setting up conv2
I0403 13:27:34.386184 28108 net.cpp:148] Top shape: 100 256 27 27 (18662400)
I0403 13:27:34.386201 28108 net.cpp:156] Memory required for data: 512959600
I0403 13:27:34.386253 28108 layer_factory.hpp:77] Creating layer relu2
I0403 13:27:34.386279 28108 net.cpp:91] Creating Layer relu2
I0403 13:27:34.386298 28108 net.cpp:425] relu2 <- conv2
I0403 13:27:34.386319 28108 net.cpp:386] relu2 -> conv2 (in-place)
I0403 13:27:34.386613 28108 net.cpp:141] Setting up relu2
I0403 13:27:34.386642 28108 net.cpp:148] Top shape: 100 256 27 27 (18662400)
I0403 13:27:34.386659 28108 net.cpp:156] Memory required for data: 587609200
I0403 13:27:34.386675 28108 layer_factory.hpp:77] Creating layer norm2
I0403 13:27:34.386699 28108 net.cpp:91] Creating Layer norm2
I0403 13:27:34.386718 28108 net.cpp:425] norm2 <- conv2
I0403 13:27:34.386739 28108 net.cpp:399] norm2 -> norm2
I0403 13:27:34.386945 28108 net.cpp:141] Setting up norm2
I0403 13:27:34.386972 28108 net.cpp:148] Top shape: 100 256 27 27 (18662400)
I0403 13:27:34.386988 28108 net.cpp:156] Memory required for data: 662258800
I0403 13:27:34.387006 28108 layer_factory.hpp:77] Creating layer pool2
I0403 13:27:34.387029 28108 net.cpp:91] Creating Layer pool2
I0403 13:27:34.387048 28108 net.cpp:425] pool2 <- norm2
I0403 13:27:34.387066 28108 net.cpp:399] pool2 -> pool2
I0403 13:27:34.387122 28108 net.cpp:141] Setting up pool2
I0403 13:27:34.387147 28108 net.cpp:148] Top shape: 100 256 13 13 (4326400)
I0403 13:27:34.387163 28108 net.cpp:156] Memory required for data: 679564400
I0403 13:27:34.387181 28108 layer_factory.hpp:77] Creating layer conv3
I0403 13:27:34.387205 28108 net.cpp:91] Creating Layer conv3
I0403 13:27:34.387224 28108 net.cpp:425] conv3 <- pool2
I0403 13:27:34.387248 28108 net.cpp:399] conv3 -> conv3
I0403 13:27:34.426419 28108 net.cpp:141] Setting up conv3
I0403 13:27:34.426491 28108 net.cpp:148] Top shape: 100 384 13 13 (6489600)
I0403 13:27:34.426509 28108 net.cpp:156] Memory required for data: 705522800
I0403 13:27:34.426535 28108 layer_factory.hpp:77] Creating layer relu3
I0403 13:27:34.426563 28108 net.cpp:91] Creating Layer relu3
I0403 13:27:34.426583 28108 net.cpp:425] relu3 <- conv3
I0403 13:27:34.426604 28108 net.cpp:386] relu3 -> conv3 (in-place)
I0403 13:27:34.426920 28108 net.cpp:141] Setting up relu3
I0403 13:27:34.426949 28108 net.cpp:148] Top shape: 100 384 13 13 (6489600)
I0403 13:27:34.426965 28108 net.cpp:156] Memory required for data: 731481200
I0403 13:27:34.426981 28108 layer_factory.hpp:77] Creating layer conv4
I0403 13:27:34.427009 28108 net.cpp:91] Creating Layer conv4
I0403 13:27:34.427027 28108 net.cpp:425] conv4 <- conv3
I0403 13:27:34.427050 28108 net.cpp:399] conv4 -> conv4
I0403 13:27:34.457799 28108 net.cpp:141] Setting up conv4
I0403 13:27:34.457870 28108 net.cpp:148] Top shape: 100 384 13 13 (6489600)
I0403 13:27:34.457918 28108 net.cpp:156] Memory required for data: 757439600
I0403 13:27:34.457942 28108 layer_factory.hpp:77] Creating layer relu4
I0403 13:27:34.457965 28108 net.cpp:91] Creating Layer relu4
I0403 13:27:34.457983 28108 net.cpp:425] relu4 <- conv4
I0403 13:27:34.458006 28108 net.cpp:386] relu4 -> conv4 (in-place)
I0403 13:27:34.458290 28108 net.cpp:141] Setting up relu4
I0403 13:27:34.458319 28108 net.cpp:148] Top shape: 100 384 13 13 (6489600)
I0403 13:27:34.458335 28108 net.cpp:156] Memory required for data: 783398000
I0403 13:27:34.458356 28108 layer_factory.hpp:77] Creating layer conv5
I0403 13:27:34.458385 28108 net.cpp:91] Creating Layer conv5
I0403 13:27:34.458405 28108 net.cpp:425] conv5 <- conv4
I0403 13:27:34.458428 28108 net.cpp:399] conv5 -> conv5
I0403 13:27:34.479637 28108 net.cpp:141] Setting up conv5
I0403 13:27:34.479689 28108 net.cpp:148] Top shape: 100 256 13 13 (4326400)
I0403 13:27:34.479707 28108 net.cpp:156] Memory required for data: 800703600
I0403 13:27:34.479733 28108 layer_factory.hpp:77] Creating layer relu5
I0403 13:27:34.479760 28108 net.cpp:91] Creating Layer relu5
I0403 13:27:34.479779 28108 net.cpp:425] relu5 <- conv5
I0403 13:27:34.479799 28108 net.cpp:386] relu5 -> conv5 (in-place)
I0403 13:27:34.480077 28108 net.cpp:141] Setting up relu5
I0403 13:27:34.480105 28108 net.cpp:148] Top shape: 100 256 13 13 (4326400)
I0403 13:27:34.480121 28108 net.cpp:156] Memory required for data: 818009200
I0403 13:27:34.480137 28108 layer_factory.hpp:77] Creating layer pool5
I0403 13:27:34.480164 28108 net.cpp:91] Creating Layer pool5
I0403 13:27:34.480182 28108 net.cpp:425] pool5 <- conv5
I0403 13:27:34.480202 28108 net.cpp:399] pool5 -> pool5
I0403 13:27:34.480279 28108 net.cpp:141] Setting up pool5
I0403 13:27:34.480304 28108 net.cpp:148] Top shape: 100 256 6 6 (921600)
I0403 13:27:34.480321 28108 net.cpp:156] Memory required for data: 821695600
I0403 13:27:34.480337 28108 layer_factory.hpp:77] Creating layer fc6
I0403 13:27:34.480373 28108 net.cpp:91] Creating Layer fc6
I0403 13:27:34.480393 28108 net.cpp:425] fc6 <- pool5
I0403 13:27:34.480484 28108 net.cpp:399] fc6 -> fc6
I0403 13:27:36.105134 28108 net.cpp:141] Setting up fc6
I0403 13:27:36.105206 28108 net.cpp:148] Top shape: 100 4096 (409600)
I0403 13:27:36.105224 28108 net.cpp:156] Memory required for data: 823334000
I0403 13:27:36.105247 28108 layer_factory.hpp:77] Creating layer relu6
I0403 13:27:36.105270 28108 net.cpp:91] Creating Layer relu6
I0403 13:27:36.105288 28108 net.cpp:425] relu6 <- fc6
I0403 13:27:36.105310 28108 net.cpp:386] relu6 -> fc6 (in-place)
I0403 13:27:36.105542 28108 net.cpp:141] Setting up relu6
I0403 13:27:36.105568 28108 net.cpp:148] Top shape: 100 4096 (409600)
I0403 13:27:36.105584 28108 net.cpp:156] Memory required for data: 824972400
I0403 13:27:36.105602 28108 layer_factory.hpp:77] Creating layer drop6
I0403 13:27:36.105623 28108 net.cpp:91] Creating Layer drop6
I0403 13:27:36.105639 28108 net.cpp:425] drop6 <- fc6
I0403 13:27:36.105657 28108 net.cpp:386] drop6 -> fc6 (in-place)
I0403 13:27:36.105708 28108 net.cpp:141] Setting up drop6
I0403 13:27:36.105738 28108 net.cpp:148] Top shape: 100 4096 (409600)
I0403 13:27:36.105756 28108 net.cpp:156] Memory required for data: 826610800
I0403 13:27:36.105772 28108 layer_factory.hpp:77] Creating layer fc7
I0403 13:27:36.105790 28108 net.cpp:91] Creating Layer fc7
I0403 13:27:36.105806 28108 net.cpp:425] fc7 <- fc6
I0403 13:27:36.105828 28108 net.cpp:399] fc7 -> fc7
I0403 13:27:36.807211 28108 net.cpp:141] Setting up fc7
I0403 13:27:36.807253 28108 net.cpp:148] Top shape: 100 4096 (409600)
I0403 13:27:36.807271 28108 net.cpp:156] Memory required for data: 828249200
I0403 13:27:36.807292 28108 layer_factory.hpp:77] Creating layer relu7
I0403 13:27:36.807315 28108 net.cpp:91] Creating Layer relu7
I0403 13:27:36.807333 28108 net.cpp:425] relu7 <- fc7
I0403 13:27:36.807361 28108 net.cpp:386] relu7 -> fc7 (in-place)
I0403 13:27:36.807765 28108 net.cpp:141] Setting up relu7
I0403 13:27:36.807792 28108 net.cpp:148] Top shape: 100 4096 (409600)
I0403 13:27:36.807857 28108 net.cpp:156] Memory required for data: 829887600
I0403 13:27:36.807874 28108 layer_factory.hpp:77] Creating layer drop7
I0403 13:27:36.807894 28108 net.cpp:91] Creating Layer drop7
I0403 13:27:36.807911 28108 net.cpp:425] drop7 <- fc7
I0403 13:27:36.807932 28108 net.cpp:386] drop7 -> fc7 (in-place)
I0403 13:27:36.807983 28108 net.cpp:141] Setting up drop7
I0403 13:27:36.808007 28108 net.cpp:148] Top shape: 100 4096 (409600)
I0403 13:27:36.808022 28108 net.cpp:156] Memory required for data: 831526000
I0403 13:27:36.808048 28108 layer_factory.hpp:77] Creating layer fc8_plantvillage
I0403 13:27:36.808069 28108 net.cpp:91] Creating Layer fc8_plantvillage
I0403 13:27:36.808084 28108 net.cpp:425] fc8_plantvillage <- fc7
I0403 13:27:36.808106 28108 net.cpp:399] fc8_plantvillage -> fc8_plantvillage
I0403 13:27:36.814815 28108 net.cpp:141] Setting up fc8_plantvillage
I0403 13:27:36.814846 28108 net.cpp:148] Top shape: 100 38 (3800)
I0403 13:27:36.814862 28108 net.cpp:156] Memory required for data: 831541200
I0403 13:27:36.814882 28108 layer_factory.hpp:77] Creating layer fc8_plantvillage_fc8_plantvillage_0_split
I0403 13:27:36.814903 28108 net.cpp:91] Creating Layer fc8_plantvillage_fc8_plantvillage_0_split
I0403 13:27:36.814920 28108 net.cpp:425] fc8_plantvillage_fc8_plantvillage_0_split <- fc8_plantvillage
I0403 13:27:36.814939 28108 net.cpp:399] fc8_plantvillage_fc8_plantvillage_0_split -> fc8_plantvillage_fc8_plantvillage_0_split_0
I0403 13:27:36.814970 28108 net.cpp:399] fc8_plantvillage_fc8_plantvillage_0_split -> fc8_plantvillage_fc8_plantvillage_0_split_1
I0403 13:27:36.814990 28108 net.cpp:399] fc8_plantvillage_fc8_plantvillage_0_split -> fc8_plantvillage_fc8_plantvillage_0_split_2
I0403 13:27:36.815068 28108 net.cpp:141] Setting up fc8_plantvillage_fc8_plantvillage_0_split
I0403 13:27:36.815093 28108 net.cpp:148] Top shape: 100 38 (3800)
I0403 13:27:36.815110 28108 net.cpp:148] Top shape: 100 38 (3800)
I0403 13:27:36.815126 28108 net.cpp:148] Top shape: 100 38 (3800)
I0403 13:27:36.815140 28108 net.cpp:156] Memory required for data: 831586800
I0403 13:27:36.815155 28108 layer_factory.hpp:77] Creating layer prob
I0403 13:27:36.815176 28108 net.cpp:91] Creating Layer prob
I0403 13:27:36.815191 28108 net.cpp:425] prob <- fc8_plantvillage_fc8_plantvillage_0_split_0
I0403 13:27:36.815209 28108 net.cpp:399] prob -> prob
I0403 13:27:36.815439 28108 net.cpp:141] Setting up prob
I0403 13:27:36.815465 28108 net.cpp:148] Top shape: 100 38 (3800)
I0403 13:27:36.815480 28108 net.cpp:156] Memory required for data: 831602000
I0403 13:27:36.815495 28108 layer_factory.hpp:77] Creating layer hdf5out
I0403 13:27:36.815515 28108 net.cpp:91] Creating Layer hdf5out
I0403 13:27:36.815531 28108 net.cpp:425] hdf5out <- prob
I0403 13:27:36.815548 28108 net.cpp:425] hdf5out <- label_data_1_split_0
I0403 13:27:36.818948 28108 net.cpp:141] Setting up hdf5out
…
