…
I0403 13:40:31.098724 28517 net.cpp:313] The NetState phase (1) differed from the phase (0) specified by a rule in layer data
I0403 13:40:31.099040 28517 net.cpp:49] Initializing net from parameters: 
state {
  phase: TEST
}
layer {
  name: "data"
  type: "Data"
  top: "data"
  top: "label"
  include {
    phase: TEST
  }
  transform_param {
    crop_size: 227
    mean_file: "/home/mohanty/data/final_dataset/lmdb/grayscale-20-80/mean.binaryproto"
  }
  data_param {
    source: "/home/mohanty/data/final_dataset/lmdb/grayscale-20-80/test_db"
    batch_size: 100
    backend: LMDB
  }
}
layer {
  name: "conv1"
  type: "Convolution"
  bottom: "data"
  top: "conv1"
  param {
    lr_mult: 1
    decay_mult: 1
  }
  param {
    lr_mult: 2
    decay_mult: 0
  }
  convolution_param {
    num_output: 96
    kernel_size: 11
    stride: 4
    weight_filler {
      type: "gaussian"
      std: 0.01
    }
    bias_filler {
      type: "constant"
      value: 0
    }
  }
}
layer {
  name: "relu1"
  type: "ReLU"
  bottom: "conv1"
  top: "conv1"
}
layer {
  name: "norm1"
  type: "LRN"
  bottom: "conv1"
  top: "norm1"
  lrn_param {
    local_size: 5
    alpha: 0.0001
    beta: 0.75
  }
}
layer {
  name: "pool1"
  type: "Pooling"
  bottom: "norm1"
  top: "pool1"
  pooling_param {
    pool: MAX
    kernel_size: 3
    stride: 2
  }
}
layer {
  name: "conv2"
  type: "Convolution"
  bottom: "pool1"
  top: "conv2"
  param {
    lr_mult: 1
    decay_mult: 1
  }
  param {
    lr_mult: 2
    decay_mult: 0
  }
  convolution_param {
    num_output: 256
    pad: 2
    kernel_size: 5
    group: 2
    weight_filler {
      type: "gaussian"
      std: 0.01
    }
    bias_filler {
      type: "constant"
      value: 0.1
    }
  }
}
layer {
  name: "relu2"
  type: "ReLU"
  bottom: "conv2"
  top: "conv2"
}
layer {
  name: "norm2"
  type: "LRN"
  bottom: "conv2"
  top: "norm2"
  lrn_param {
    local_size: 5
    alpha: 0.0001
    beta: 0.75
  }
}
layer {
  name: "pool2"
  type: "Pooling"
  bottom: "norm2"
  top: "pool2"
  pooling_param {
    pool: MAX
    kernel_size: 3
    stride: 2
  }
}
layer {
  name: "conv3"
  type: "Convolution"
  bottom: "pool2"
  top: "conv3"
  param {
    lr_mult: 1
    decay_mult: 1
  }
  param {
    lr_mult: 2
    decay_mult: 0
  }
  convolution_param {
    num_output: 384
    pad: 1
    kernel_size: 3
    weight_filler {
      type: "gaussian"
      std: 0.01
    }
    bias_filler {
      type: "constant"
      value: 0
    }
  }
}
layer {
  name: "relu3"
  type: "ReLU"
  bottom: "conv3"
  top: "conv3"
}
layer {
  name: "conv4"
  type: "Convolution"
  bottom: "conv3"
  top: "conv4"
  param {
    lr_mult: 1
    decay_mult: 1
  }
  param {
    lr_mult: 2
    decay_mult: 0
  }
  convolution_param {
    num_output: 384
    pad: 1
    kernel_size: 3
    group: 2
    weight_filler {
      type: "gaussian"
      std: 0.01
    }
    bias_filler {
      type: "constant"
      value: 0.1
    }
  }
}
layer {
  name: "relu4"
  type: "ReLU"
  bottom: "conv4"
  top: "conv4"
}
layer {
  name: "conv5"
  type: "Convolution"
  bottom: "conv4"
  top: "conv5"
  param {
    lr_mult: 1
    decay_mult: 1
  }
  param {
    lr_mult: 2
    decay_mult: 0
  }
  convolution_param {
    num_output: 256
    pad: 1
    kernel_size: 3
    group: 2
    weight_filler {
      type: "gaussian"
      std: 0.01
    }
    bias_filler {
      type: "constant"
      value: 0.1
    }
  }
}
layer {
  name: "relu5"
  type: "ReLU"
  bottom: "conv5"
  top: "conv5"
}
layer {
  name: "pool5"
  type: "Pooling"
  bottom: "conv5"
  top: "pool5"
  pooling_param {
    pool: MAX
    kernel_size: 3
    stride: 2
  }
}
layer {
  name: "fc6"
  type: "InnerProduct"
  bottom: "pool5"
  top: "fc6"
  param {
    lr_mult: 1
    decay_mult: 1
  }
  param {
    lr_mult: 2
    decay_mult: 0
  }
  inner_product_param {
    num_output: 4096
    weight_filler {
      type: "gaussian"
      std: 0.005
    }
    bias_filler {
      type: "constant"
      value: 0.1
    }
  }
}
layer {
  name: "relu6"
  type: "ReLU"
  bottom: "fc6"
  top: "fc6"
}
layer {
  name: "drop6"
  type: "Dropout"
  bottom: "fc6"
  top: "fc6"
  dropout_param {
    dropout_ratio: 0.5
  }
}
layer {
  name: "fc7"
  type: "InnerProduct"
  bottom: "fc6"
  top: "fc7"
  param {
    lr_mult: 1
    decay_mult: 1
  }
  param {
    lr_mult: 2
    decay_mult: 0
  }
  inner_product_param {
    num_output: 4096
    weight_filler {
      type: "gaussian"
      std: 0.005
    }
    bias_filler {
      type: "constant"
      value: 0.1
    }
  }
}
layer {
  name: "relu7"
  type: "ReLU"
  bottom: "fc7"
  top: "fc7"
}
layer {
  name: "drop7"
  type: "Dropout"
  bottom: "fc7"
  top: "fc7"
  dropout_param {
    dropout_ratio: 0.5
  }
}
layer {
  name: "fc8_plantvillage"
  type: "InnerProduct"
  bottom: "fc7"
  top: "fc8_plantvillage"
  param {
    lr_mult: 1
    decay_mult: 1
  }
  param {
    lr_mult: 2
    decay_mult: 0
  }
  inner_product_param {
    num_output: 38
    weight_filler {
      type: "gaussian"
      std: 0.01
    }
    bias_filler {
      type: "constant"
      value: 0
    }
  }
}
layer {
  name: "prob"
  type: "Softmax"
  bottom: "fc8_plantvillage"
  top: "prob"
  include {
    phase: TEST
  }
}
layer {
  name: "hdf5out"
  type: "HDF5Output"
  bottom: "prob"
  bottom: "label"
  include {
    phase: TEST
  }
  hdf5_output_param {
    file_name: "hdf5_dumps/iter_1365.h5"
  }
}
layer {
  name: "loss"
  type: "SoftmaxWithLoss"
  bottom: "fc8_plantvillage"
  bottom: "label"
  top: "loss"
}
layer {
  name: "accuracy"
  type: "Accuracy"
  bottom: "fc8_plantvillage"
  bottom: "label"
  top: "accuracy"
  include {
    phase: TEST
  }
}
I0403 13:40:31.099659 28517 layer_factory.hpp:77] Creating layer data
I0403 13:40:31.100323 28517 net.cpp:91] Creating Layer data
I0403 13:40:31.100356 28517 net.cpp:399] data -> data
I0403 13:40:31.100409 28517 net.cpp:399] data -> label
I0403 13:40:31.100447 28517 data_transformer.cpp:25] Loading mean file from: /home/mohanty/data/final_dataset/lmdb/grayscale-20-80/mean.binaryproto
I0403 13:40:31.106003 28520 db_lmdb.cpp:38] Opened lmdb /home/mohanty/data/final_dataset/lmdb/grayscale-20-80/test_db
I0403 13:40:31.114476 28517 data_layer.cpp:41] output data size: 100,3,227,227
I0403 13:40:31.238701 28517 net.cpp:141] Setting up data
I0403 13:40:31.238795 28517 net.cpp:148] Top shape: 100 3 227 227 (15458700)
I0403 13:40:31.238819 28517 net.cpp:148] Top shape: 100 (100)
I0403 13:40:31.238837 28517 net.cpp:156] Memory required for data: 61835200
I0403 13:40:31.238867 28517 layer_factory.hpp:77] Creating layer label_data_1_split
I0403 13:40:31.238895 28517 net.cpp:91] Creating Layer label_data_1_split
I0403 13:40:31.238915 28517 net.cpp:425] label_data_1_split <- label
I0403 13:40:31.238950 28517 net.cpp:399] label_data_1_split -> label_data_1_split_0
I0403 13:40:31.238979 28517 net.cpp:399] label_data_1_split -> label_data_1_split_1
I0403 13:40:31.239003 28517 net.cpp:399] label_data_1_split -> label_data_1_split_2
I0403 13:40:31.239069 28517 net.cpp:141] Setting up label_data_1_split
I0403 13:40:31.239094 28517 net.cpp:148] Top shape: 100 (100)
I0403 13:40:31.239112 28517 net.cpp:148] Top shape: 100 (100)
I0403 13:40:31.239130 28517 net.cpp:148] Top shape: 100 (100)
I0403 13:40:31.239147 28517 net.cpp:156] Memory required for data: 61836400
I0403 13:40:31.239164 28517 layer_factory.hpp:77] Creating layer conv1
I0403 13:40:31.239197 28517 net.cpp:91] Creating Layer conv1
I0403 13:40:31.239218 28517 net.cpp:425] conv1 <- data
I0403 13:40:31.239239 28517 net.cpp:399] conv1 -> conv1
I0403 13:40:31.383803 28517 net.cpp:141] Setting up conv1
I0403 13:40:31.383880 28517 net.cpp:148] Top shape: 100 96 55 55 (29040000)
I0403 13:40:31.383899 28517 net.cpp:156] Memory required for data: 177996400
I0403 13:40:31.383932 28517 layer_factory.hpp:77] Creating layer relu1
I0403 13:40:31.383962 28517 net.cpp:91] Creating Layer relu1
I0403 13:40:31.383981 28517 net.cpp:425] relu1 <- conv1
I0403 13:40:31.384002 28517 net.cpp:386] relu1 -> conv1 (in-place)
I0403 13:40:31.384307 28517 net.cpp:141] Setting up relu1
I0403 13:40:31.384348 28517 net.cpp:148] Top shape: 100 96 55 55 (29040000)
I0403 13:40:31.384397 28517 net.cpp:156] Memory required for data: 294156400
I0403 13:40:31.384415 28517 layer_factory.hpp:77] Creating layer norm1
I0403 13:40:31.384444 28517 net.cpp:91] Creating Layer norm1
I0403 13:40:31.384465 28517 net.cpp:425] norm1 <- conv1
I0403 13:40:31.384485 28517 net.cpp:399] norm1 -> norm1
I0403 13:40:31.384807 28517 net.cpp:141] Setting up norm1
I0403 13:40:31.384836 28517 net.cpp:148] Top shape: 100 96 55 55 (29040000)
I0403 13:40:31.384853 28517 net.cpp:156] Memory required for data: 410316400
I0403 13:40:31.384870 28517 layer_factory.hpp:77] Creating layer pool1
I0403 13:40:31.384893 28517 net.cpp:91] Creating Layer pool1
I0403 13:40:31.384912 28517 net.cpp:425] pool1 <- norm1
I0403 13:40:31.384930 28517 net.cpp:399] pool1 -> pool1
I0403 13:40:31.385000 28517 net.cpp:141] Setting up pool1
I0403 13:40:31.385026 28517 net.cpp:148] Top shape: 100 96 27 27 (6998400)
I0403 13:40:31.385041 28517 net.cpp:156] Memory required for data: 438310000
I0403 13:40:31.385057 28517 layer_factory.hpp:77] Creating layer conv2
I0403 13:40:31.385082 28517 net.cpp:91] Creating Layer conv2
I0403 13:40:31.385100 28517 net.cpp:425] conv2 <- pool1
I0403 13:40:31.385119 28517 net.cpp:399] conv2 -> conv2
I0403 13:40:31.400252 28517 net.cpp:141] Setting up conv2
I0403 13:40:31.400305 28517 net.cpp:148] Top shape: 100 256 27 27 (18662400)
I0403 13:40:31.400327 28517 net.cpp:156] Memory required for data: 512959600
I0403 13:40:31.400352 28517 layer_factory.hpp:77] Creating layer relu2
I0403 13:40:31.400372 28517 net.cpp:91] Creating Layer relu2
I0403 13:40:31.400389 28517 net.cpp:425] relu2 <- conv2
I0403 13:40:31.400423 28517 net.cpp:386] relu2 -> conv2 (in-place)
I0403 13:40:31.400709 28517 net.cpp:141] Setting up relu2
I0403 13:40:31.400750 28517 net.cpp:148] Top shape: 100 256 27 27 (18662400)
I0403 13:40:31.400766 28517 net.cpp:156] Memory required for data: 587609200
I0403 13:40:31.400782 28517 layer_factory.hpp:77] Creating layer norm2
I0403 13:40:31.400805 28517 net.cpp:91] Creating Layer norm2
I0403 13:40:31.400823 28517 net.cpp:425] norm2 <- conv2
I0403 13:40:31.400842 28517 net.cpp:399] norm2 -> norm2
I0403 13:40:31.401037 28517 net.cpp:141] Setting up norm2
I0403 13:40:31.401065 28517 net.cpp:148] Top shape: 100 256 27 27 (18662400)
I0403 13:40:31.401083 28517 net.cpp:156] Memory required for data: 662258800
I0403 13:40:31.401099 28517 layer_factory.hpp:77] Creating layer pool2
I0403 13:40:31.401118 28517 net.cpp:91] Creating Layer pool2
I0403 13:40:31.401134 28517 net.cpp:425] pool2 <- norm2
I0403 13:40:31.401180 28517 net.cpp:399] pool2 -> pool2
I0403 13:40:31.401238 28517 net.cpp:141] Setting up pool2
I0403 13:40:31.401263 28517 net.cpp:148] Top shape: 100 256 13 13 (4326400)
I0403 13:40:31.401278 28517 net.cpp:156] Memory required for data: 679564400
I0403 13:40:31.401295 28517 layer_factory.hpp:77] Creating layer conv3
I0403 13:40:31.401324 28517 net.cpp:91] Creating Layer conv3
I0403 13:40:31.401343 28517 net.cpp:425] conv3 <- pool2
I0403 13:40:31.401365 28517 net.cpp:399] conv3 -> conv3
I0403 13:40:31.439862 28517 net.cpp:141] Setting up conv3
I0403 13:40:31.439939 28517 net.cpp:148] Top shape: 100 384 13 13 (6489600)
I0403 13:40:31.439959 28517 net.cpp:156] Memory required for data: 705522800
I0403 13:40:31.439985 28517 layer_factory.hpp:77] Creating layer relu3
I0403 13:40:31.440009 28517 net.cpp:91] Creating Layer relu3
I0403 13:40:31.440028 28517 net.cpp:425] relu3 <- conv3
I0403 13:40:31.440052 28517 net.cpp:386] relu3 -> conv3 (in-place)
I0403 13:40:31.440338 28517 net.cpp:141] Setting up relu3
I0403 13:40:31.440368 28517 net.cpp:148] Top shape: 100 384 13 13 (6489600)
I0403 13:40:31.440384 28517 net.cpp:156] Memory required for data: 731481200
I0403 13:40:31.440400 28517 layer_factory.hpp:77] Creating layer conv4
I0403 13:40:31.440426 28517 net.cpp:91] Creating Layer conv4
I0403 13:40:31.440445 28517 net.cpp:425] conv4 <- conv3
I0403 13:40:31.440465 28517 net.cpp:399] conv4 -> conv4
I0403 13:40:31.470563 28517 net.cpp:141] Setting up conv4
I0403 13:40:31.470626 28517 net.cpp:148] Top shape: 100 384 13 13 (6489600)
I0403 13:40:31.470677 28517 net.cpp:156] Memory required for data: 757439600
I0403 13:40:31.470700 28517 layer_factory.hpp:77] Creating layer relu4
I0403 13:40:31.470726 28517 net.cpp:91] Creating Layer relu4
I0403 13:40:31.470744 28517 net.cpp:425] relu4 <- conv4
I0403 13:40:31.470765 28517 net.cpp:386] relu4 -> conv4 (in-place)
I0403 13:40:31.471099 28517 net.cpp:141] Setting up relu4
I0403 13:40:31.471128 28517 net.cpp:148] Top shape: 100 384 13 13 (6489600)
I0403 13:40:31.471145 28517 net.cpp:156] Memory required for data: 783398000
I0403 13:40:31.471161 28517 layer_factory.hpp:77] Creating layer conv5
I0403 13:40:31.471191 28517 net.cpp:91] Creating Layer conv5
I0403 13:40:31.471211 28517 net.cpp:425] conv5 <- conv4
I0403 13:40:31.471232 28517 net.cpp:399] conv5 -> conv5
I0403 13:40:31.492207 28517 net.cpp:141] Setting up conv5
I0403 13:40:31.492261 28517 net.cpp:148] Top shape: 100 256 13 13 (4326400)
I0403 13:40:31.492281 28517 net.cpp:156] Memory required for data: 800703600
I0403 13:40:31.492307 28517 layer_factory.hpp:77] Creating layer relu5
I0403 13:40:31.492334 28517 net.cpp:91] Creating Layer relu5
I0403 13:40:31.492365 28517 net.cpp:425] relu5 <- conv5
I0403 13:40:31.492389 28517 net.cpp:386] relu5 -> conv5 (in-place)
I0403 13:40:31.492693 28517 net.cpp:141] Setting up relu5
I0403 13:40:31.492722 28517 net.cpp:148] Top shape: 100 256 13 13 (4326400)
I0403 13:40:31.492736 28517 net.cpp:156] Memory required for data: 818009200
I0403 13:40:31.492753 28517 layer_factory.hpp:77] Creating layer pool5
I0403 13:40:31.492776 28517 net.cpp:91] Creating Layer pool5
I0403 13:40:31.492794 28517 net.cpp:425] pool5 <- conv5
I0403 13:40:31.492815 28517 net.cpp:399] pool5 -> pool5
I0403 13:40:31.492882 28517 net.cpp:141] Setting up pool5
I0403 13:40:31.492907 28517 net.cpp:148] Top shape: 100 256 6 6 (921600)
I0403 13:40:31.492923 28517 net.cpp:156] Memory required for data: 821695600
I0403 13:40:31.492939 28517 layer_factory.hpp:77] Creating layer fc6
I0403 13:40:31.492969 28517 net.cpp:91] Creating Layer fc6
I0403 13:40:31.492990 28517 net.cpp:425] fc6 <- pool5
I0403 13:40:31.493015 28517 net.cpp:399] fc6 -> fc6
I0403 13:40:33.055289 28517 net.cpp:141] Setting up fc6
I0403 13:40:33.055349 28517 net.cpp:148] Top shape: 100 4096 (409600)
I0403 13:40:33.055368 28517 net.cpp:156] Memory required for data: 823334000
I0403 13:40:33.055392 28517 layer_factory.hpp:77] Creating layer relu6
I0403 13:40:33.055418 28517 net.cpp:91] Creating Layer relu6
I0403 13:40:33.055436 28517 net.cpp:425] relu6 <- fc6
I0403 13:40:33.055456 28517 net.cpp:386] relu6 -> fc6 (in-place)
I0403 13:40:33.055680 28517 net.cpp:141] Setting up relu6
I0403 13:40:33.055707 28517 net.cpp:148] Top shape: 100 4096 (409600)
I0403 13:40:33.055724 28517 net.cpp:156] Memory required for data: 824972400
I0403 13:40:33.055740 28517 layer_factory.hpp:77] Creating layer drop6
I0403 13:40:33.055759 28517 net.cpp:91] Creating Layer drop6
I0403 13:40:33.055776 28517 net.cpp:425] drop6 <- fc6
I0403 13:40:33.055795 28517 net.cpp:386] drop6 -> fc6 (in-place)
I0403 13:40:33.055847 28517 net.cpp:141] Setting up drop6
I0403 13:40:33.055883 28517 net.cpp:148] Top shape: 100 4096 (409600)
I0403 13:40:33.055899 28517 net.cpp:156] Memory required for data: 826610800
I0403 13:40:33.055915 28517 layer_factory.hpp:77] Creating layer fc7
I0403 13:40:33.055939 28517 net.cpp:91] Creating Layer fc7
I0403 13:40:33.055958 28517 net.cpp:425] fc7 <- fc6
I0403 13:40:33.055977 28517 net.cpp:399] fc7 -> fc7
I0403 13:40:33.742091 28517 net.cpp:141] Setting up fc7
I0403 13:40:33.742167 28517 net.cpp:148] Top shape: 100 4096 (409600)
I0403 13:40:33.742184 28517 net.cpp:156] Memory required for data: 828249200
I0403 13:40:33.742207 28517 layer_factory.hpp:77] Creating layer relu7
I0403 13:40:33.742229 28517 net.cpp:91] Creating Layer relu7
I0403 13:40:33.742247 28517 net.cpp:425] relu7 <- fc7
I0403 13:40:33.742270 28517 net.cpp:386] relu7 -> fc7 (in-place)
I0403 13:40:33.742689 28517 net.cpp:141] Setting up relu7
I0403 13:40:33.742723 28517 net.cpp:148] Top shape: 100 4096 (409600)
I0403 13:40:33.742789 28517 net.cpp:156] Memory required for data: 829887600
I0403 13:40:33.742806 28517 layer_factory.hpp:77] Creating layer drop7
I0403 13:40:33.742826 28517 net.cpp:91] Creating Layer drop7
I0403 13:40:33.742843 28517 net.cpp:425] drop7 <- fc7
I0403 13:40:33.742866 28517 net.cpp:386] drop7 -> fc7 (in-place)
I0403 13:40:33.742913 28517 net.cpp:141] Setting up drop7
I0403 13:40:33.742936 28517 net.cpp:148] Top shape: 100 4096 (409600)
I0403 13:40:33.742952 28517 net.cpp:156] Memory required for data: 831526000
I0403 13:40:33.742969 28517 layer_factory.hpp:77] Creating layer fc8_plantvillage
I0403 13:40:33.742993 28517 net.cpp:91] Creating Layer fc8_plantvillage
I0403 13:40:33.743011 28517 net.cpp:425] fc8_plantvillage <- fc7
I0403 13:40:33.743034 28517 net.cpp:399] fc8_plantvillage -> fc8_plantvillage
I0403 13:40:33.749958 28517 net.cpp:141] Setting up fc8_plantvillage
I0403 13:40:33.749989 28517 net.cpp:148] Top shape: 100 38 (3800)
I0403 13:40:33.750005 28517 net.cpp:156] Memory required for data: 831541200
I0403 13:40:33.750025 28517 layer_factory.hpp:77] Creating layer fc8_plantvillage_fc8_plantvillage_0_split
I0403 13:40:33.750046 28517 net.cpp:91] Creating Layer fc8_plantvillage_fc8_plantvillage_0_split
I0403 13:40:33.750061 28517 net.cpp:425] fc8_plantvillage_fc8_plantvillage_0_split <- fc8_plantvillage
I0403 13:40:33.750082 28517 net.cpp:399] fc8_plantvillage_fc8_plantvillage_0_split -> fc8_plantvillage_fc8_plantvillage_0_split_0
I0403 13:40:33.750104 28517 net.cpp:399] fc8_plantvillage_fc8_plantvillage_0_split -> fc8_plantvillage_fc8_plantvillage_0_split_1
I0403 13:40:33.750125 28517 net.cpp:399] fc8_plantvillage_fc8_plantvillage_0_split -> fc8_plantvillage_fc8_plantvillage_0_split_2
I0403 13:40:33.750205 28517 net.cpp:141] Setting up fc8_plantvillage_fc8_plantvillage_0_split
I0403 13:40:33.750231 28517 net.cpp:148] Top shape: 100 38 (3800)
I0403 13:40:33.750248 28517 net.cpp:148] Top shape: 100 38 (3800)
I0403 13:40:33.750267 28517 net.cpp:148] Top shape: 100 38 (3800)
I0403 13:40:33.750280 28517 net.cpp:156] Memory required for data: 831586800
I0403 13:40:33.750295 28517 layer_factory.hpp:77] Creating layer prob
I0403 13:40:33.750319 28517 net.cpp:91] Creating Layer prob
I0403 13:40:33.750339 28517 net.cpp:425] prob <- fc8_plantvillage_fc8_plantvillage_0_split_0
I0403 13:40:33.750360 28517 net.cpp:399] prob -> prob
I0403 13:40:33.750588 28517 net.cpp:141] Setting up prob
I0403 13:40:33.750617 28517 net.cpp:148] Top shape: 100 38 (3800)
I0403 13:40:33.750635 28517 net.cpp:156] Memory required for data: 831602000
I0403 13:40:33.750651 28517 layer_factory.hpp:77] Creating layer hdf5out
I0403 13:40:33.750672 28517 net.cpp:91] Creating Layer hdf5out
I0403 13:40:33.750689 28517 net.cpp:425] hdf5out <- prob
I0403 13:40:33.750707 28517 net.cpp:425] hdf5out <- label_data_1_split_0
I0403 13:40:33.765005 28517 net.cpp:141] Setting up hdf5out
…
