…
I0403 13:31:51.925195 28319 net.cpp:313] The NetState phase (1) differed from the phase (0) specified by a rule in layer data
I0403 13:31:51.925516 28319 net.cpp:49] Initializing net from parameters: 
state {
  phase: TEST
}
layer {
  name: "data"
  type: "Data"
  top: "data"
  top: "label"
  include {
    phase: TEST
  }
  transform_param {
    crop_size: 227
    mean_file: "/home/mohanty/data/final_dataset/lmdb/grayscale-20-80/mean.binaryproto"
  }
  data_param {
    source: "/home/mohanty/data/final_dataset/lmdb/grayscale-20-80/test_db"
    batch_size: 100
    backend: LMDB
  }
}
layer {
  name: "conv1"
  type: "Convolution"
  bottom: "data"
  top: "conv1"
  param {
    lr_mult: 1
    decay_mult: 1
  }
  param {
    lr_mult: 2
    decay_mult: 0
  }
  convolution_param {
    num_output: 96
    kernel_size: 11
    stride: 4
    weight_filler {
      type: "gaussian"
      std: 0.01
    }
    bias_filler {
      type: "constant"
      value: 0
    }
  }
}
layer {
  name: "relu1"
  type: "ReLU"
  bottom: "conv1"
  top: "conv1"
}
layer {
  name: "norm1"
  type: "LRN"
  bottom: "conv1"
  top: "norm1"
  lrn_param {
    local_size: 5
    alpha: 0.0001
    beta: 0.75
  }
}
layer {
  name: "pool1"
  type: "Pooling"
  bottom: "norm1"
  top: "pool1"
  pooling_param {
    pool: MAX
    kernel_size: 3
    stride: 2
  }
}
layer {
  name: "conv2"
  type: "Convolution"
  bottom: "pool1"
  top: "conv2"
  param {
    lr_mult: 1
    decay_mult: 1
  }
  param {
    lr_mult: 2
    decay_mult: 0
  }
  convolution_param {
    num_output: 256
    pad: 2
    kernel_size: 5
    group: 2
    weight_filler {
      type: "gaussian"
      std: 0.01
    }
    bias_filler {
      type: "constant"
      value: 0.1
    }
  }
}
layer {
  name: "relu2"
  type: "ReLU"
  bottom: "conv2"
  top: "conv2"
}
layer {
  name: "norm2"
  type: "LRN"
  bottom: "conv2"
  top: "norm2"
  lrn_param {
    local_size: 5
    alpha: 0.0001
    beta: 0.75
  }
}
layer {
  name: "pool2"
  type: "Pooling"
  bottom: "norm2"
  top: "pool2"
  pooling_param {
    pool: MAX
    kernel_size: 3
    stride: 2
  }
}
layer {
  name: "conv3"
  type: "Convolution"
  bottom: "pool2"
  top: "conv3"
  param {
    lr_mult: 1
    decay_mult: 1
  }
  param {
    lr_mult: 2
    decay_mult: 0
  }
  convolution_param {
    num_output: 384
    pad: 1
    kernel_size: 3
    weight_filler {
      type: "gaussian"
      std: 0.01
    }
    bias_filler {
      type: "constant"
      value: 0
    }
  }
}
layer {
  name: "relu3"
  type: "ReLU"
  bottom: "conv3"
  top: "conv3"
}
layer {
  name: "conv4"
  type: "Convolution"
  bottom: "conv3"
  top: "conv4"
  param {
    lr_mult: 1
    decay_mult: 1
  }
  param {
    lr_mult: 2
    decay_mult: 0
  }
  convolution_param {
    num_output: 384
    pad: 1
    kernel_size: 3
    group: 2
    weight_filler {
      type: "gaussian"
      std: 0.01
    }
    bias_filler {
      type: "constant"
      value: 0.1
    }
  }
}
layer {
  name: "relu4"
  type: "ReLU"
  bottom: "conv4"
  top: "conv4"
}
layer {
  name: "conv5"
  type: "Convolution"
  bottom: "conv4"
  top: "conv5"
  param {
    lr_mult: 1
    decay_mult: 1
  }
  param {
    lr_mult: 2
    decay_mult: 0
  }
  convolution_param {
    num_output: 256
    pad: 1
    kernel_size: 3
    group: 2
    weight_filler {
      type: "gaussian"
      std: 0.01
    }
    bias_filler {
      type: "constant"
      value: 0.1
    }
  }
}
layer {
  name: "relu5"
  type: "ReLU"
  bottom: "conv5"
  top: "conv5"
}
layer {
  name: "pool5"
  type: "Pooling"
  bottom: "conv5"
  top: "pool5"
  pooling_param {
    pool: MAX
    kernel_size: 3
    stride: 2
  }
}
layer {
  name: "fc6"
  type: "InnerProduct"
  bottom: "pool5"
  top: "fc6"
  param {
    lr_mult: 1
    decay_mult: 1
  }
  param {
    lr_mult: 2
    decay_mult: 0
  }
  inner_product_param {
    num_output: 4096
    weight_filler {
      type: "gaussian"
      std: 0.005
    }
    bias_filler {
      type: "constant"
      value: 0.1
    }
  }
}
layer {
  name: "relu6"
  type: "ReLU"
  bottom: "fc6"
  top: "fc6"
}
layer {
  name: "drop6"
  type: "Dropout"
  bottom: "fc6"
  top: "fc6"
  dropout_param {
    dropout_ratio: 0.5
  }
}
layer {
  name: "fc7"
  type: "InnerProduct"
  bottom: "fc6"
  top: "fc7"
  param {
    lr_mult: 1
    decay_mult: 1
  }
  param {
    lr_mult: 2
    decay_mult: 0
  }
  inner_product_param {
    num_output: 4096
    weight_filler {
      type: "gaussian"
      std: 0.005
    }
    bias_filler {
      type: "constant"
      value: 0.1
    }
  }
}
layer {
  name: "relu7"
  type: "ReLU"
  bottom: "fc7"
  top: "fc7"
}
layer {
  name: "drop7"
  type: "Dropout"
  bottom: "fc7"
  top: "fc7"
  dropout_param {
    dropout_ratio: 0.5
  }
}
layer {
  name: "fc8_plantvillage"
  type: "InnerProduct"
  bottom: "fc7"
  top: "fc8_plantvillage"
  param {
    lr_mult: 1
    decay_mult: 1
  }
  param {
    lr_mult: 2
    decay_mult: 0
  }
  inner_product_param {
    num_output: 38
    weight_filler {
      type: "gaussian"
      std: 0.01
    }
    bias_filler {
      type: "constant"
      value: 0
    }
  }
}
layer {
  name: "prob"
  type: "Softmax"
  bottom: "fc8_plantvillage"
  top: "prob"
  include {
    phase: TEST
  }
}
layer {
  name: "hdf5out"
  type: "HDF5Output"
  bottom: "prob"
  bottom: "label"
  include {
    phase: TEST
  }
  hdf5_output_param {
    file_name: "hdf5_dumps/iter_735.h5"
  }
}
layer {
  name: "loss"
  type: "SoftmaxWithLoss"
  bottom: "fc8_plantvillage"
  bottom: "label"
  top: "loss"
}
layer {
  name: "accuracy"
  type: "Accuracy"
  bottom: "fc8_plantvillage"
  bottom: "label"
  top: "accuracy"
  include {
    phase: TEST
  }
}
I0403 13:31:51.926117 28319 layer_factory.hpp:77] Creating layer data
I0403 13:31:51.926792 28319 net.cpp:91] Creating Layer data
I0403 13:31:51.926827 28319 net.cpp:399] data -> data
I0403 13:31:51.926882 28319 net.cpp:399] data -> label
I0403 13:31:51.926921 28319 data_transformer.cpp:25] Loading mean file from: /home/mohanty/data/final_dataset/lmdb/grayscale-20-80/mean.binaryproto
I0403 13:31:51.928095 28324 db_lmdb.cpp:38] Opened lmdb /home/mohanty/data/final_dataset/lmdb/grayscale-20-80/test_db
I0403 13:31:51.941387 28319 data_layer.cpp:41] output data size: 100,3,227,227
I0403 13:31:52.064471 28319 net.cpp:141] Setting up data
I0403 13:31:52.064533 28319 net.cpp:148] Top shape: 100 3 227 227 (15458700)
I0403 13:31:52.064558 28319 net.cpp:148] Top shape: 100 (100)
I0403 13:31:52.064576 28319 net.cpp:156] Memory required for data: 61835200
I0403 13:31:52.064605 28319 layer_factory.hpp:77] Creating layer label_data_1_split
I0403 13:31:52.064632 28319 net.cpp:91] Creating Layer label_data_1_split
I0403 13:31:52.064651 28319 net.cpp:425] label_data_1_split <- label
I0403 13:31:52.064697 28319 net.cpp:399] label_data_1_split -> label_data_1_split_0
I0403 13:31:52.064725 28319 net.cpp:399] label_data_1_split -> label_data_1_split_1
I0403 13:31:52.064749 28319 net.cpp:399] label_data_1_split -> label_data_1_split_2
I0403 13:31:52.064812 28319 net.cpp:141] Setting up label_data_1_split
I0403 13:31:52.064836 28319 net.cpp:148] Top shape: 100 (100)
I0403 13:31:52.064856 28319 net.cpp:148] Top shape: 100 (100)
I0403 13:31:52.064872 28319 net.cpp:148] Top shape: 100 (100)
I0403 13:31:52.064888 28319 net.cpp:156] Memory required for data: 61836400
I0403 13:31:52.064903 28319 layer_factory.hpp:77] Creating layer conv1
I0403 13:31:52.064935 28319 net.cpp:91] Creating Layer conv1
I0403 13:31:52.064954 28319 net.cpp:425] conv1 <- data
I0403 13:31:52.064975 28319 net.cpp:399] conv1 -> conv1
I0403 13:31:52.212498 28319 net.cpp:141] Setting up conv1
I0403 13:31:52.212577 28319 net.cpp:148] Top shape: 100 96 55 55 (29040000)
I0403 13:31:52.212596 28319 net.cpp:156] Memory required for data: 177996400
I0403 13:31:52.212630 28319 layer_factory.hpp:77] Creating layer relu1
I0403 13:31:52.212656 28319 net.cpp:91] Creating Layer relu1
I0403 13:31:52.212676 28319 net.cpp:425] relu1 <- conv1
I0403 13:31:52.212694 28319 net.cpp:386] relu1 -> conv1 (in-place)
I0403 13:31:52.212955 28319 net.cpp:141] Setting up relu1
I0403 13:31:52.212985 28319 net.cpp:148] Top shape: 100 96 55 55 (29040000)
I0403 13:31:52.213033 28319 net.cpp:156] Memory required for data: 294156400
I0403 13:31:52.213052 28319 layer_factory.hpp:77] Creating layer norm1
I0403 13:31:52.213078 28319 net.cpp:91] Creating Layer norm1
I0403 13:31:52.213098 28319 net.cpp:425] norm1 <- conv1
I0403 13:31:52.213116 28319 net.cpp:399] norm1 -> norm1
I0403 13:31:52.213454 28319 net.cpp:141] Setting up norm1
I0403 13:31:52.213485 28319 net.cpp:148] Top shape: 100 96 55 55 (29040000)
I0403 13:31:52.213501 28319 net.cpp:156] Memory required for data: 410316400
I0403 13:31:52.213520 28319 layer_factory.hpp:77] Creating layer pool1
I0403 13:31:52.213543 28319 net.cpp:91] Creating Layer pool1
I0403 13:31:52.213575 28319 net.cpp:425] pool1 <- norm1
I0403 13:31:52.213594 28319 net.cpp:399] pool1 -> pool1
I0403 13:31:52.213670 28319 net.cpp:141] Setting up pool1
I0403 13:31:52.213696 28319 net.cpp:148] Top shape: 100 96 27 27 (6998400)
I0403 13:31:52.213713 28319 net.cpp:156] Memory required for data: 438310000
I0403 13:31:52.213729 28319 layer_factory.hpp:77] Creating layer conv2
I0403 13:31:52.213754 28319 net.cpp:91] Creating Layer conv2
I0403 13:31:52.213771 28319 net.cpp:425] conv2 <- pool1
I0403 13:31:52.213804 28319 net.cpp:399] conv2 -> conv2
I0403 13:31:52.229702 28319 net.cpp:141] Setting up conv2
I0403 13:31:52.229756 28319 net.cpp:148] Top shape: 100 256 27 27 (18662400)
I0403 13:31:52.229774 28319 net.cpp:156] Memory required for data: 512959600
I0403 13:31:52.229799 28319 layer_factory.hpp:77] Creating layer relu2
I0403 13:31:52.229821 28319 net.cpp:91] Creating Layer relu2
I0403 13:31:52.229840 28319 net.cpp:425] relu2 <- conv2
I0403 13:31:52.229859 28319 net.cpp:386] relu2 -> conv2 (in-place)
I0403 13:31:52.230144 28319 net.cpp:141] Setting up relu2
I0403 13:31:52.230171 28319 net.cpp:148] Top shape: 100 256 27 27 (18662400)
I0403 13:31:52.230188 28319 net.cpp:156] Memory required for data: 587609200
I0403 13:31:52.230206 28319 layer_factory.hpp:77] Creating layer norm2
I0403 13:31:52.230231 28319 net.cpp:91] Creating Layer norm2
I0403 13:31:52.230248 28319 net.cpp:425] norm2 <- conv2
I0403 13:31:52.230268 28319 net.cpp:399] norm2 -> norm2
I0403 13:31:52.230479 28319 net.cpp:141] Setting up norm2
I0403 13:31:52.230509 28319 net.cpp:148] Top shape: 100 256 27 27 (18662400)
I0403 13:31:52.230527 28319 net.cpp:156] Memory required for data: 662258800
I0403 13:31:52.230545 28319 layer_factory.hpp:77] Creating layer pool2
I0403 13:31:52.230564 28319 net.cpp:91] Creating Layer pool2
I0403 13:31:52.230581 28319 net.cpp:425] pool2 <- norm2
I0403 13:31:52.230598 28319 net.cpp:399] pool2 -> pool2
I0403 13:31:52.230654 28319 net.cpp:141] Setting up pool2
I0403 13:31:52.230679 28319 net.cpp:148] Top shape: 100 256 13 13 (4326400)
I0403 13:31:52.230695 28319 net.cpp:156] Memory required for data: 679564400
I0403 13:31:52.230710 28319 layer_factory.hpp:77] Creating layer conv3
I0403 13:31:52.230734 28319 net.cpp:91] Creating Layer conv3
I0403 13:31:52.230753 28319 net.cpp:425] conv3 <- pool2
I0403 13:31:52.230775 28319 net.cpp:399] conv3 -> conv3
I0403 13:31:52.270704 28319 net.cpp:141] Setting up conv3
I0403 13:31:52.270764 28319 net.cpp:148] Top shape: 100 384 13 13 (6489600)
I0403 13:31:52.270782 28319 net.cpp:156] Memory required for data: 705522800
I0403 13:31:52.270809 28319 layer_factory.hpp:77] Creating layer relu3
I0403 13:31:52.270838 28319 net.cpp:91] Creating Layer relu3
I0403 13:31:52.270856 28319 net.cpp:425] relu3 <- conv3
I0403 13:31:52.270877 28319 net.cpp:386] relu3 -> conv3 (in-place)
I0403 13:31:52.271152 28319 net.cpp:141] Setting up relu3
I0403 13:31:52.271180 28319 net.cpp:148] Top shape: 100 384 13 13 (6489600)
I0403 13:31:52.271198 28319 net.cpp:156] Memory required for data: 731481200
I0403 13:31:52.271214 28319 layer_factory.hpp:77] Creating layer conv4
I0403 13:31:52.271240 28319 net.cpp:91] Creating Layer conv4
I0403 13:31:52.271260 28319 net.cpp:425] conv4 <- conv3
I0403 13:31:52.271278 28319 net.cpp:399] conv4 -> conv4
I0403 13:31:52.302440 28319 net.cpp:141] Setting up conv4
I0403 13:31:52.302508 28319 net.cpp:148] Top shape: 100 384 13 13 (6489600)
I0403 13:31:52.302575 28319 net.cpp:156] Memory required for data: 757439600
I0403 13:31:52.302599 28319 layer_factory.hpp:77] Creating layer relu4
I0403 13:31:52.302637 28319 net.cpp:91] Creating Layer relu4
I0403 13:31:52.302657 28319 net.cpp:425] relu4 <- conv4
I0403 13:31:52.302678 28319 net.cpp:386] relu4 -> conv4 (in-place)
I0403 13:31:52.302968 28319 net.cpp:141] Setting up relu4
I0403 13:31:52.302996 28319 net.cpp:148] Top shape: 100 384 13 13 (6489600)
I0403 13:31:52.303012 28319 net.cpp:156] Memory required for data: 783398000
I0403 13:31:52.303028 28319 layer_factory.hpp:77] Creating layer conv5
I0403 13:31:52.303055 28319 net.cpp:91] Creating Layer conv5
I0403 13:31:52.303073 28319 net.cpp:425] conv5 <- conv4
I0403 13:31:52.303097 28319 net.cpp:399] conv5 -> conv5
I0403 13:31:52.324401 28319 net.cpp:141] Setting up conv5
I0403 13:31:52.324447 28319 net.cpp:148] Top shape: 100 256 13 13 (4326400)
I0403 13:31:52.324470 28319 net.cpp:156] Memory required for data: 800703600
I0403 13:31:52.324496 28319 layer_factory.hpp:77] Creating layer relu5
I0403 13:31:52.324518 28319 net.cpp:91] Creating Layer relu5
I0403 13:31:52.324537 28319 net.cpp:425] relu5 <- conv5
I0403 13:31:52.324555 28319 net.cpp:386] relu5 -> conv5 (in-place)
I0403 13:31:52.324883 28319 net.cpp:141] Setting up relu5
I0403 13:31:52.324918 28319 net.cpp:148] Top shape: 100 256 13 13 (4326400)
I0403 13:31:52.324935 28319 net.cpp:156] Memory required for data: 818009200
I0403 13:31:52.324951 28319 layer_factory.hpp:77] Creating layer pool5
I0403 13:31:52.324975 28319 net.cpp:91] Creating Layer pool5
I0403 13:31:52.324991 28319 net.cpp:425] pool5 <- conv5
I0403 13:31:52.325012 28319 net.cpp:399] pool5 -> pool5
I0403 13:31:52.325075 28319 net.cpp:141] Setting up pool5
I0403 13:31:52.325101 28319 net.cpp:148] Top shape: 100 256 6 6 (921600)
I0403 13:31:52.325117 28319 net.cpp:156] Memory required for data: 821695600
I0403 13:31:52.325134 28319 layer_factory.hpp:77] Creating layer fc6
I0403 13:31:52.325163 28319 net.cpp:91] Creating Layer fc6
I0403 13:31:52.325182 28319 net.cpp:425] fc6 <- pool5
I0403 13:31:52.325204 28319 net.cpp:399] fc6 -> fc6
I0403 13:31:53.919889 28319 net.cpp:141] Setting up fc6
I0403 13:31:53.919932 28319 net.cpp:148] Top shape: 100 4096 (409600)
I0403 13:31:53.919950 28319 net.cpp:156] Memory required for data: 823334000
I0403 13:31:53.919986 28319 layer_factory.hpp:77] Creating layer relu6
I0403 13:31:53.920009 28319 net.cpp:91] Creating Layer relu6
I0403 13:31:53.920028 28319 net.cpp:425] relu6 <- fc6
I0403 13:31:53.920048 28319 net.cpp:386] relu6 -> fc6 (in-place)
I0403 13:31:53.920264 28319 net.cpp:141] Setting up relu6
I0403 13:31:53.920292 28319 net.cpp:148] Top shape: 100 4096 (409600)
I0403 13:31:53.920308 28319 net.cpp:156] Memory required for data: 824972400
I0403 13:31:53.920322 28319 layer_factory.hpp:77] Creating layer drop6
I0403 13:31:53.920341 28319 net.cpp:91] Creating Layer drop6
I0403 13:31:53.920364 28319 net.cpp:425] drop6 <- fc6
I0403 13:31:53.920383 28319 net.cpp:386] drop6 -> fc6 (in-place)
I0403 13:31:53.920434 28319 net.cpp:141] Setting up drop6
I0403 13:31:53.920459 28319 net.cpp:148] Top shape: 100 4096 (409600)
I0403 13:31:53.920472 28319 net.cpp:156] Memory required for data: 826610800
I0403 13:31:53.920487 28319 layer_factory.hpp:77] Creating layer fc7
I0403 13:31:53.920509 28319 net.cpp:91] Creating Layer fc7
I0403 13:31:53.920526 28319 net.cpp:425] fc7 <- fc6
I0403 13:31:53.920544 28319 net.cpp:399] fc7 -> fc7
I0403 13:31:54.605813 28319 net.cpp:141] Setting up fc7
I0403 13:31:54.605890 28319 net.cpp:148] Top shape: 100 4096 (409600)
I0403 13:31:54.605906 28319 net.cpp:156] Memory required for data: 828249200
I0403 13:31:54.605928 28319 layer_factory.hpp:77] Creating layer relu7
I0403 13:31:54.605954 28319 net.cpp:91] Creating Layer relu7
I0403 13:31:54.605975 28319 net.cpp:425] relu7 <- fc7
I0403 13:31:54.605996 28319 net.cpp:386] relu7 -> fc7 (in-place)
I0403 13:31:54.606405 28319 net.cpp:141] Setting up relu7
I0403 13:31:54.606432 28319 net.cpp:148] Top shape: 100 4096 (409600)
I0403 13:31:54.606480 28319 net.cpp:156] Memory required for data: 829887600
I0403 13:31:54.606498 28319 layer_factory.hpp:77] Creating layer drop7
I0403 13:31:54.606520 28319 net.cpp:91] Creating Layer drop7
I0403 13:31:54.606539 28319 net.cpp:425] drop7 <- fc7
I0403 13:31:54.606555 28319 net.cpp:386] drop7 -> fc7 (in-place)
I0403 13:31:54.606601 28319 net.cpp:141] Setting up drop7
I0403 13:31:54.606624 28319 net.cpp:148] Top shape: 100 4096 (409600)
I0403 13:31:54.606640 28319 net.cpp:156] Memory required for data: 831526000
I0403 13:31:54.606654 28319 layer_factory.hpp:77] Creating layer fc8_plantvillage
I0403 13:31:54.606679 28319 net.cpp:91] Creating Layer fc8_plantvillage
I0403 13:31:54.606696 28319 net.cpp:425] fc8_plantvillage <- fc7
I0403 13:31:54.606715 28319 net.cpp:399] fc8_plantvillage -> fc8_plantvillage
I0403 13:31:54.613497 28319 net.cpp:141] Setting up fc8_plantvillage
I0403 13:31:54.613528 28319 net.cpp:148] Top shape: 100 38 (3800)
I0403 13:31:54.613544 28319 net.cpp:156] Memory required for data: 831541200
I0403 13:31:54.613574 28319 layer_factory.hpp:77] Creating layer fc8_plantvillage_fc8_plantvillage_0_split
I0403 13:31:54.613593 28319 net.cpp:91] Creating Layer fc8_plantvillage_fc8_plantvillage_0_split
I0403 13:31:54.613610 28319 net.cpp:425] fc8_plantvillage_fc8_plantvillage_0_split <- fc8_plantvillage
I0403 13:31:54.613626 28319 net.cpp:399] fc8_plantvillage_fc8_plantvillage_0_split -> fc8_plantvillage_fc8_plantvillage_0_split_0
I0403 13:31:54.613651 28319 net.cpp:399] fc8_plantvillage_fc8_plantvillage_0_split -> fc8_plantvillage_fc8_plantvillage_0_split_1
I0403 13:31:54.613672 28319 net.cpp:399] fc8_plantvillage_fc8_plantvillage_0_split -> fc8_plantvillage_fc8_plantvillage_0_split_2
I0403 13:31:54.613752 28319 net.cpp:141] Setting up fc8_plantvillage_fc8_plantvillage_0_split
I0403 13:31:54.613777 28319 net.cpp:148] Top shape: 100 38 (3800)
I0403 13:31:54.613795 28319 net.cpp:148] Top shape: 100 38 (3800)
I0403 13:31:54.613811 28319 net.cpp:148] Top shape: 100 38 (3800)
I0403 13:31:54.613826 28319 net.cpp:156] Memory required for data: 831586800
I0403 13:31:54.613840 28319 layer_factory.hpp:77] Creating layer prob
I0403 13:31:54.613859 28319 net.cpp:91] Creating Layer prob
I0403 13:31:54.613875 28319 net.cpp:425] prob <- fc8_plantvillage_fc8_plantvillage_0_split_0
I0403 13:31:54.613894 28319 net.cpp:399] prob -> prob
I0403 13:31:54.614119 28319 net.cpp:141] Setting up prob
I0403 13:31:54.614145 28319 net.cpp:148] Top shape: 100 38 (3800)
I0403 13:31:54.614161 28319 net.cpp:156] Memory required for data: 831602000
I0403 13:31:54.614176 28319 layer_factory.hpp:77] Creating layer hdf5out
I0403 13:31:54.614199 28319 net.cpp:91] Creating Layer hdf5out
I0403 13:31:54.614218 28319 net.cpp:425] hdf5out <- prob
I0403 13:31:54.614235 28319 net.cpp:425] hdf5out <- label_data_1_split_0
I0403 13:31:54.632552 28319 net.cpp:141] Setting up hdf5out
…
