…
I0403 14:02:08.942344 29023 net.cpp:313] The NetState phase (1) differed from the phase (0) specified by a rule in layer data
I0403 14:02:08.942677 29023 net.cpp:49] Initializing net from parameters: 
state {
  phase: TEST
}
layer {
  name: "data"
  type: "Data"
  top: "data"
  top: "label"
  include {
    phase: TEST
  }
  transform_param {
    crop_size: 227
    mean_file: "/home/mohanty/data/final_dataset/lmdb/grayscale-20-80/mean.binaryproto"
  }
  data_param {
    source: "/home/mohanty/data/final_dataset/lmdb/grayscale-20-80/test_db"
    batch_size: 100
    backend: LMDB
  }
}
layer {
  name: "conv1"
  type: "Convolution"
  bottom: "data"
  top: "conv1"
  param {
    lr_mult: 1
    decay_mult: 1
  }
  param {
    lr_mult: 2
    decay_mult: 0
  }
  convolution_param {
    num_output: 96
    kernel_size: 11
    stride: 4
    weight_filler {
      type: "gaussian"
      std: 0.01
    }
    bias_filler {
      type: "constant"
      value: 0
    }
  }
}
layer {
  name: "relu1"
  type: "ReLU"
  bottom: "conv1"
  top: "conv1"
}
layer {
  name: "norm1"
  type: "LRN"
  bottom: "conv1"
  top: "norm1"
  lrn_param {
    local_size: 5
    alpha: 0.0001
    beta: 0.75
  }
}
layer {
  name: "pool1"
  type: "Pooling"
  bottom: "norm1"
  top: "pool1"
  pooling_param {
    pool: MAX
    kernel_size: 3
    stride: 2
  }
}
layer {
  name: "conv2"
  type: "Convolution"
  bottom: "pool1"
  top: "conv2"
  param {
    lr_mult: 1
    decay_mult: 1
  }
  param {
    lr_mult: 2
    decay_mult: 0
  }
  convolution_param {
    num_output: 256
    pad: 2
    kernel_size: 5
    group: 2
    weight_filler {
      type: "gaussian"
      std: 0.01
    }
    bias_filler {
      type: "constant"
      value: 0.1
    }
  }
}
layer {
  name: "relu2"
  type: "ReLU"
  bottom: "conv2"
  top: "conv2"
}
layer {
  name: "norm2"
  type: "LRN"
  bottom: "conv2"
  top: "norm2"
  lrn_param {
    local_size: 5
    alpha: 0.0001
    beta: 0.75
  }
}
layer {
  name: "pool2"
  type: "Pooling"
  bottom: "norm2"
  top: "pool2"
  pooling_param {
    pool: MAX
    kernel_size: 3
    stride: 2
  }
}
layer {
  name: "conv3"
  type: "Convolution"
  bottom: "pool2"
  top: "conv3"
  param {
    lr_mult: 1
    decay_mult: 1
  }
  param {
    lr_mult: 2
    decay_mult: 0
  }
  convolution_param {
    num_output: 384
    pad: 1
    kernel_size: 3
    weight_filler {
      type: "gaussian"
      std: 0.01
    }
    bias_filler {
      type: "constant"
      value: 0
    }
  }
}
layer {
  name: "relu3"
  type: "ReLU"
  bottom: "conv3"
  top: "conv3"
}
layer {
  name: "conv4"
  type: "Convolution"
  bottom: "conv3"
  top: "conv4"
  param {
    lr_mult: 1
    decay_mult: 1
  }
  param {
    lr_mult: 2
    decay_mult: 0
  }
  convolution_param {
    num_output: 384
    pad: 1
    kernel_size: 3
    group: 2
    weight_filler {
      type: "gaussian"
      std: 0.01
    }
    bias_filler {
      type: "constant"
      value: 0.1
    }
  }
}
layer {
  name: "relu4"
  type: "ReLU"
  bottom: "conv4"
  top: "conv4"
}
layer {
  name: "conv5"
  type: "Convolution"
  bottom: "conv4"
  top: "conv5"
  param {
    lr_mult: 1
    decay_mult: 1
  }
  param {
    lr_mult: 2
    decay_mult: 0
  }
  convolution_param {
    num_output: 256
    pad: 1
    kernel_size: 3
    group: 2
    weight_filler {
      type: "gaussian"
      std: 0.01
    }
    bias_filler {
      type: "constant"
      value: 0.1
    }
  }
}
layer {
  name: "relu5"
  type: "ReLU"
  bottom: "conv5"
  top: "conv5"
}
layer {
  name: "pool5"
  type: "Pooling"
  bottom: "conv5"
  top: "pool5"
  pooling_param {
    pool: MAX
    kernel_size: 3
    stride: 2
  }
}
layer {
  name: "fc6"
  type: "InnerProduct"
  bottom: "pool5"
  top: "fc6"
  param {
    lr_mult: 1
    decay_mult: 1
  }
  param {
    lr_mult: 2
    decay_mult: 0
  }
  inner_product_param {
    num_output: 4096
    weight_filler {
      type: "gaussian"
      std: 0.005
    }
    bias_filler {
      type: "constant"
      value: 0.1
    }
  }
}
layer {
  name: "relu6"
  type: "ReLU"
  bottom: "fc6"
  top: "fc6"
}
layer {
  name: "drop6"
  type: "Dropout"
  bottom: "fc6"
  top: "fc6"
  dropout_param {
    dropout_ratio: 0.5
  }
}
layer {
  name: "fc7"
  type: "InnerProduct"
  bottom: "fc6"
  top: "fc7"
  param {
    lr_mult: 1
    decay_mult: 1
  }
  param {
    lr_mult: 2
    decay_mult: 0
  }
  inner_product_param {
    num_output: 4096
    weight_filler {
      type: "gaussian"
      std: 0.005
    }
    bias_filler {
      type: "constant"
      value: 0.1
    }
  }
}
layer {
  name: "relu7"
  type: "ReLU"
  bottom: "fc7"
  top: "fc7"
}
layer {
  name: "drop7"
  type: "Dropout"
  bottom: "fc7"
  top: "fc7"
  dropout_param {
    dropout_ratio: 0.5
  }
}
layer {
  name: "fc8_plantvillage"
  type: "InnerProduct"
  bottom: "fc7"
  top: "fc8_plantvillage"
  param {
    lr_mult: 1
    decay_mult: 1
  }
  param {
    lr_mult: 2
    decay_mult: 0
  }
  inner_product_param {
    num_output: 38
    weight_filler {
      type: "gaussian"
      std: 0.01
    }
    bias_filler {
      type: "constant"
      value: 0
    }
  }
}
layer {
  name: "prob"
  type: "Softmax"
  bottom: "fc8_plantvillage"
  top: "prob"
  include {
    phase: TEST
  }
}
layer {
  name: "hdf5out"
  type: "HDF5Output"
  bottom: "prob"
  bottom: "label"
  include {
    phase: TEST
  }
  hdf5_output_param {
    file_name: "hdf5_dumps/iter_2940.h5"
  }
}
layer {
  name: "loss"
  type: "SoftmaxWithLoss"
  bottom: "fc8_plantvillage"
  bottom: "label"
  top: "loss"
}
layer {
  name: "accuracy"
  type: "Accuracy"
  bottom: "fc8_plantvillage"
  bottom: "label"
  top: "accuracy"
  include {
    phase: TEST
  }
}
I0403 14:02:08.943253 29023 layer_factory.hpp:77] Creating layer data
I0403 14:02:08.943914 29023 net.cpp:91] Creating Layer data
I0403 14:02:08.943948 29023 net.cpp:399] data -> data
I0403 14:02:08.944000 29023 net.cpp:399] data -> label
I0403 14:02:08.944037 29023 data_transformer.cpp:25] Loading mean file from: /home/mohanty/data/final_dataset/lmdb/grayscale-20-80/mean.binaryproto
I0403 14:02:08.953810 29028 db_lmdb.cpp:38] Opened lmdb /home/mohanty/data/final_dataset/lmdb/grayscale-20-80/test_db
I0403 14:02:08.957342 29023 data_layer.cpp:41] output data size: 100,3,227,227
I0403 14:02:09.079350 29023 net.cpp:141] Setting up data
I0403 14:02:09.079412 29023 net.cpp:148] Top shape: 100 3 227 227 (15458700)
I0403 14:02:09.079437 29023 net.cpp:148] Top shape: 100 (100)
I0403 14:02:09.079465 29023 net.cpp:156] Memory required for data: 61835200
I0403 14:02:09.079493 29023 layer_factory.hpp:77] Creating layer label_data_1_split
I0403 14:02:09.079521 29023 net.cpp:91] Creating Layer label_data_1_split
I0403 14:02:09.079540 29023 net.cpp:425] label_data_1_split <- label
I0403 14:02:09.079571 29023 net.cpp:399] label_data_1_split -> label_data_1_split_0
I0403 14:02:09.079599 29023 net.cpp:399] label_data_1_split -> label_data_1_split_1
I0403 14:02:09.079619 29023 net.cpp:399] label_data_1_split -> label_data_1_split_2
I0403 14:02:09.079684 29023 net.cpp:141] Setting up label_data_1_split
I0403 14:02:09.079710 29023 net.cpp:148] Top shape: 100 (100)
I0403 14:02:09.079727 29023 net.cpp:148] Top shape: 100 (100)
I0403 14:02:09.079743 29023 net.cpp:148] Top shape: 100 (100)
I0403 14:02:09.079758 29023 net.cpp:156] Memory required for data: 61836400
I0403 14:02:09.079774 29023 layer_factory.hpp:77] Creating layer conv1
I0403 14:02:09.079807 29023 net.cpp:91] Creating Layer conv1
I0403 14:02:09.079825 29023 net.cpp:425] conv1 <- data
I0403 14:02:09.079848 29023 net.cpp:399] conv1 -> conv1
I0403 14:02:09.222533 29023 net.cpp:141] Setting up conv1
I0403 14:02:09.222614 29023 net.cpp:148] Top shape: 100 96 55 55 (29040000)
I0403 14:02:09.222632 29023 net.cpp:156] Memory required for data: 177996400
I0403 14:02:09.222666 29023 layer_factory.hpp:77] Creating layer relu1
I0403 14:02:09.222697 29023 net.cpp:91] Creating Layer relu1
I0403 14:02:09.222718 29023 net.cpp:425] relu1 <- conv1
I0403 14:02:09.222740 29023 net.cpp:386] relu1 -> conv1 (in-place)
I0403 14:02:09.223062 29023 net.cpp:141] Setting up relu1
I0403 14:02:09.223093 29023 net.cpp:148] Top shape: 100 96 55 55 (29040000)
I0403 14:02:09.223141 29023 net.cpp:156] Memory required for data: 294156400
I0403 14:02:09.223160 29023 layer_factory.hpp:77] Creating layer norm1
I0403 14:02:09.223191 29023 net.cpp:91] Creating Layer norm1
I0403 14:02:09.223209 29023 net.cpp:425] norm1 <- conv1
I0403 14:02:09.223233 29023 net.cpp:399] norm1 -> norm1
I0403 14:02:09.223594 29023 net.cpp:141] Setting up norm1
I0403 14:02:09.223628 29023 net.cpp:148] Top shape: 100 96 55 55 (29040000)
I0403 14:02:09.223645 29023 net.cpp:156] Memory required for data: 410316400
I0403 14:02:09.223662 29023 layer_factory.hpp:77] Creating layer pool1
I0403 14:02:09.223686 29023 net.cpp:91] Creating Layer pool1
I0403 14:02:09.223706 29023 net.cpp:425] pool1 <- norm1
I0403 14:02:09.223727 29023 net.cpp:399] pool1 -> pool1
I0403 14:02:09.223803 29023 net.cpp:141] Setting up pool1
I0403 14:02:09.223829 29023 net.cpp:148] Top shape: 100 96 27 27 (6998400)
I0403 14:02:09.223845 29023 net.cpp:156] Memory required for data: 438310000
I0403 14:02:09.223862 29023 layer_factory.hpp:77] Creating layer conv2
I0403 14:02:09.223889 29023 net.cpp:91] Creating Layer conv2
I0403 14:02:09.223907 29023 net.cpp:425] conv2 <- pool1
I0403 14:02:09.223930 29023 net.cpp:399] conv2 -> conv2
I0403 14:02:09.239796 29023 net.cpp:141] Setting up conv2
I0403 14:02:09.239853 29023 net.cpp:148] Top shape: 100 256 27 27 (18662400)
I0403 14:02:09.239873 29023 net.cpp:156] Memory required for data: 512959600
I0403 14:02:09.239899 29023 layer_factory.hpp:77] Creating layer relu2
I0403 14:02:09.239922 29023 net.cpp:91] Creating Layer relu2
I0403 14:02:09.239939 29023 net.cpp:425] relu2 <- conv2
I0403 14:02:09.239959 29023 net.cpp:386] relu2 -> conv2 (in-place)
I0403 14:02:09.240255 29023 net.cpp:141] Setting up relu2
I0403 14:02:09.240283 29023 net.cpp:148] Top shape: 100 256 27 27 (18662400)
I0403 14:02:09.240300 29023 net.cpp:156] Memory required for data: 587609200
I0403 14:02:09.240351 29023 layer_factory.hpp:77] Creating layer norm2
I0403 14:02:09.240382 29023 net.cpp:91] Creating Layer norm2
I0403 14:02:09.240402 29023 net.cpp:425] norm2 <- conv2
I0403 14:02:09.240422 29023 net.cpp:399] norm2 -> norm2
I0403 14:02:09.240631 29023 net.cpp:141] Setting up norm2
I0403 14:02:09.240663 29023 net.cpp:148] Top shape: 100 256 27 27 (18662400)
I0403 14:02:09.240680 29023 net.cpp:156] Memory required for data: 662258800
I0403 14:02:09.240697 29023 layer_factory.hpp:77] Creating layer pool2
I0403 14:02:09.240717 29023 net.cpp:91] Creating Layer pool2
I0403 14:02:09.240736 29023 net.cpp:425] pool2 <- norm2
I0403 14:02:09.240753 29023 net.cpp:399] pool2 -> pool2
I0403 14:02:09.240809 29023 net.cpp:141] Setting up pool2
I0403 14:02:09.240834 29023 net.cpp:148] Top shape: 100 256 13 13 (4326400)
I0403 14:02:09.240852 29023 net.cpp:156] Memory required for data: 679564400
I0403 14:02:09.240869 29023 layer_factory.hpp:77] Creating layer conv3
I0403 14:02:09.240893 29023 net.cpp:91] Creating Layer conv3
I0403 14:02:09.240911 29023 net.cpp:425] conv3 <- pool2
I0403 14:02:09.240933 29023 net.cpp:399] conv3 -> conv3
I0403 14:02:09.280844 29023 net.cpp:141] Setting up conv3
I0403 14:02:09.280900 29023 net.cpp:148] Top shape: 100 384 13 13 (6489600)
I0403 14:02:09.280918 29023 net.cpp:156] Memory required for data: 705522800
I0403 14:02:09.280948 29023 layer_factory.hpp:77] Creating layer relu3
I0403 14:02:09.280974 29023 net.cpp:91] Creating Layer relu3
I0403 14:02:09.280993 29023 net.cpp:425] relu3 <- conv3
I0403 14:02:09.281015 29023 net.cpp:386] relu3 -> conv3 (in-place)
I0403 14:02:09.281316 29023 net.cpp:141] Setting up relu3
I0403 14:02:09.281350 29023 net.cpp:148] Top shape: 100 384 13 13 (6489600)
I0403 14:02:09.281370 29023 net.cpp:156] Memory required for data: 731481200
I0403 14:02:09.281386 29023 layer_factory.hpp:77] Creating layer conv4
I0403 14:02:09.281414 29023 net.cpp:91] Creating Layer conv4
I0403 14:02:09.281433 29023 net.cpp:425] conv4 <- conv3
I0403 14:02:09.281452 29023 net.cpp:399] conv4 -> conv4
I0403 14:02:09.312474 29023 net.cpp:141] Setting up conv4
I0403 14:02:09.312541 29023 net.cpp:148] Top shape: 100 384 13 13 (6489600)
I0403 14:02:09.312590 29023 net.cpp:156] Memory required for data: 757439600
I0403 14:02:09.312614 29023 layer_factory.hpp:77] Creating layer relu4
I0403 14:02:09.312641 29023 net.cpp:91] Creating Layer relu4
I0403 14:02:09.312661 29023 net.cpp:425] relu4 <- conv4
I0403 14:02:09.312681 29023 net.cpp:386] relu4 -> conv4 (in-place)
I0403 14:02:09.312973 29023 net.cpp:141] Setting up relu4
I0403 14:02:09.313001 29023 net.cpp:148] Top shape: 100 384 13 13 (6489600)
I0403 14:02:09.313019 29023 net.cpp:156] Memory required for data: 783398000
I0403 14:02:09.313035 29023 layer_factory.hpp:77] Creating layer conv5
I0403 14:02:09.313065 29023 net.cpp:91] Creating Layer conv5
I0403 14:02:09.313084 29023 net.cpp:425] conv5 <- conv4
I0403 14:02:09.313103 29023 net.cpp:399] conv5 -> conv5
I0403 14:02:09.334620 29023 net.cpp:141] Setting up conv5
I0403 14:02:09.334679 29023 net.cpp:148] Top shape: 100 256 13 13 (4326400)
I0403 14:02:09.334699 29023 net.cpp:156] Memory required for data: 800703600
I0403 14:02:09.334728 29023 layer_factory.hpp:77] Creating layer relu5
I0403 14:02:09.334750 29023 net.cpp:91] Creating Layer relu5
I0403 14:02:09.334769 29023 net.cpp:425] relu5 <- conv5
I0403 14:02:09.334789 29023 net.cpp:386] relu5 -> conv5 (in-place)
I0403 14:02:09.335079 29023 net.cpp:141] Setting up relu5
I0403 14:02:09.335111 29023 net.cpp:148] Top shape: 100 256 13 13 (4326400)
I0403 14:02:09.335130 29023 net.cpp:156] Memory required for data: 818009200
I0403 14:02:09.335149 29023 layer_factory.hpp:77] Creating layer pool5
I0403 14:02:09.335172 29023 net.cpp:91] Creating Layer pool5
I0403 14:02:09.335191 29023 net.cpp:425] pool5 <- conv5
I0403 14:02:09.335211 29023 net.cpp:399] pool5 -> pool5
I0403 14:02:09.335278 29023 net.cpp:141] Setting up pool5
I0403 14:02:09.335304 29023 net.cpp:148] Top shape: 100 256 6 6 (921600)
I0403 14:02:09.335319 29023 net.cpp:156] Memory required for data: 821695600
I0403 14:02:09.335335 29023 layer_factory.hpp:77] Creating layer fc6
I0403 14:02:09.335373 29023 net.cpp:91] Creating Layer fc6
I0403 14:02:09.335394 29023 net.cpp:425] fc6 <- pool5
I0403 14:02:09.335417 29023 net.cpp:399] fc6 -> fc6
I0403 14:02:10.897776 29023 net.cpp:141] Setting up fc6
I0403 14:02:10.897851 29023 net.cpp:148] Top shape: 100 4096 (409600)
I0403 14:02:10.897871 29023 net.cpp:156] Memory required for data: 823334000
I0403 14:02:10.897896 29023 layer_factory.hpp:77] Creating layer relu6
I0403 14:02:10.897922 29023 net.cpp:91] Creating Layer relu6
I0403 14:02:10.897943 29023 net.cpp:425] relu6 <- fc6
I0403 14:02:10.897964 29023 net.cpp:386] relu6 -> fc6 (in-place)
I0403 14:02:10.898202 29023 net.cpp:141] Setting up relu6
I0403 14:02:10.898232 29023 net.cpp:148] Top shape: 100 4096 (409600)
I0403 14:02:10.898248 29023 net.cpp:156] Memory required for data: 824972400
I0403 14:02:10.898265 29023 layer_factory.hpp:77] Creating layer drop6
I0403 14:02:10.898285 29023 net.cpp:91] Creating Layer drop6
I0403 14:02:10.898301 29023 net.cpp:425] drop6 <- fc6
I0403 14:02:10.898321 29023 net.cpp:386] drop6 -> fc6 (in-place)
I0403 14:02:10.898382 29023 net.cpp:141] Setting up drop6
I0403 14:02:10.898408 29023 net.cpp:148] Top shape: 100 4096 (409600)
I0403 14:02:10.898425 29023 net.cpp:156] Memory required for data: 826610800
I0403 14:02:10.898442 29023 layer_factory.hpp:77] Creating layer fc7
I0403 14:02:10.898466 29023 net.cpp:91] Creating Layer fc7
I0403 14:02:10.898484 29023 net.cpp:425] fc7 <- fc6
I0403 14:02:10.898504 29023 net.cpp:399] fc7 -> fc7
I0403 14:02:11.611882 29023 net.cpp:141] Setting up fc7
I0403 14:02:11.611959 29023 net.cpp:148] Top shape: 100 4096 (409600)
I0403 14:02:11.611976 29023 net.cpp:156] Memory required for data: 828249200
I0403 14:02:11.611999 29023 layer_factory.hpp:77] Creating layer relu7
I0403 14:02:11.612023 29023 net.cpp:91] Creating Layer relu7
I0403 14:02:11.612043 29023 net.cpp:425] relu7 <- fc7
I0403 14:02:11.612063 29023 net.cpp:386] relu7 -> fc7 (in-place)
I0403 14:02:11.612491 29023 net.cpp:141] Setting up relu7
I0403 14:02:11.612522 29023 net.cpp:148] Top shape: 100 4096 (409600)
I0403 14:02:11.612571 29023 net.cpp:156] Memory required for data: 829887600
I0403 14:02:11.612589 29023 layer_factory.hpp:77] Creating layer drop7
I0403 14:02:11.612609 29023 net.cpp:91] Creating Layer drop7
I0403 14:02:11.612625 29023 net.cpp:425] drop7 <- fc7
I0403 14:02:11.612643 29023 net.cpp:386] drop7 -> fc7 (in-place)
I0403 14:02:11.612691 29023 net.cpp:141] Setting up drop7
I0403 14:02:11.612715 29023 net.cpp:148] Top shape: 100 4096 (409600)
I0403 14:02:11.612732 29023 net.cpp:156] Memory required for data: 831526000
I0403 14:02:11.612748 29023 layer_factory.hpp:77] Creating layer fc8_plantvillage
I0403 14:02:11.612771 29023 net.cpp:91] Creating Layer fc8_plantvillage
I0403 14:02:11.612788 29023 net.cpp:425] fc8_plantvillage <- fc7
I0403 14:02:11.612807 29023 net.cpp:399] fc8_plantvillage -> fc8_plantvillage
I0403 14:02:11.619741 29023 net.cpp:141] Setting up fc8_plantvillage
I0403 14:02:11.619771 29023 net.cpp:148] Top shape: 100 38 (3800)
I0403 14:02:11.619788 29023 net.cpp:156] Memory required for data: 831541200
I0403 14:02:11.619807 29023 layer_factory.hpp:77] Creating layer fc8_plantvillage_fc8_plantvillage_0_split
I0403 14:02:11.619827 29023 net.cpp:91] Creating Layer fc8_plantvillage_fc8_plantvillage_0_split
I0403 14:02:11.619844 29023 net.cpp:425] fc8_plantvillage_fc8_plantvillage_0_split <- fc8_plantvillage
I0403 14:02:11.619863 29023 net.cpp:399] fc8_plantvillage_fc8_plantvillage_0_split -> fc8_plantvillage_fc8_plantvillage_0_split_0
I0403 14:02:11.619886 29023 net.cpp:399] fc8_plantvillage_fc8_plantvillage_0_split -> fc8_plantvillage_fc8_plantvillage_0_split_1
I0403 14:02:11.619909 29023 net.cpp:399] fc8_plantvillage_fc8_plantvillage_0_split -> fc8_plantvillage_fc8_plantvillage_0_split_2
I0403 14:02:11.619989 29023 net.cpp:141] Setting up fc8_plantvillage_fc8_plantvillage_0_split
I0403 14:02:11.620014 29023 net.cpp:148] Top shape: 100 38 (3800)
I0403 14:02:11.620031 29023 net.cpp:148] Top shape: 100 38 (3800)
I0403 14:02:11.620048 29023 net.cpp:148] Top shape: 100 38 (3800)
I0403 14:02:11.620062 29023 net.cpp:156] Memory required for data: 831586800
I0403 14:02:11.620079 29023 layer_factory.hpp:77] Creating layer prob
I0403 14:02:11.620097 29023 net.cpp:91] Creating Layer prob
I0403 14:02:11.620113 29023 net.cpp:425] prob <- fc8_plantvillage_fc8_plantvillage_0_split_0
I0403 14:02:11.620133 29023 net.cpp:399] prob -> prob
I0403 14:02:11.620375 29023 net.cpp:141] Setting up prob
I0403 14:02:11.620403 29023 net.cpp:148] Top shape: 100 38 (3800)
I0403 14:02:11.620419 29023 net.cpp:156] Memory required for data: 831602000
I0403 14:02:11.620434 29023 layer_factory.hpp:77] Creating layer hdf5out
I0403 14:02:11.620457 29023 net.cpp:91] Creating Layer hdf5out
I0403 14:02:11.620476 29023 net.cpp:425] hdf5out <- prob
I0403 14:02:11.620494 29023 net.cpp:425] hdf5out <- label_data_1_split_0
I0403 14:02:11.624261 29023 net.cpp:141] Setting up hdf5out
…
