…
I0403 13:47:42.362709 28686 net.cpp:313] The NetState phase (1) differed from the phase (0) specified by a rule in layer data
I0403 13:47:42.363021 28686 net.cpp:49] Initializing net from parameters: 
state {
  phase: TEST
}
layer {
  name: "data"
  type: "Data"
  top: "data"
  top: "label"
  include {
    phase: TEST
  }
  transform_param {
    crop_size: 227
    mean_file: "/home/mohanty/data/final_dataset/lmdb/grayscale-20-80/mean.binaryproto"
  }
  data_param {
    source: "/home/mohanty/data/final_dataset/lmdb/grayscale-20-80/test_db"
    batch_size: 100
    backend: LMDB
  }
}
layer {
  name: "conv1"
  type: "Convolution"
  bottom: "data"
  top: "conv1"
  param {
    lr_mult: 1
    decay_mult: 1
  }
  param {
    lr_mult: 2
    decay_mult: 0
  }
  convolution_param {
    num_output: 96
    kernel_size: 11
    stride: 4
    weight_filler {
      type: "gaussian"
      std: 0.01
    }
    bias_filler {
      type: "constant"
      value: 0
    }
  }
}
layer {
  name: "relu1"
  type: "ReLU"
  bottom: "conv1"
  top: "conv1"
}
layer {
  name: "norm1"
  type: "LRN"
  bottom: "conv1"
  top: "norm1"
  lrn_param {
    local_size: 5
    alpha: 0.0001
    beta: 0.75
  }
}
layer {
  name: "pool1"
  type: "Pooling"
  bottom: "norm1"
  top: "pool1"
  pooling_param {
    pool: MAX
    kernel_size: 3
    stride: 2
  }
}
layer {
  name: "conv2"
  type: "Convolution"
  bottom: "pool1"
  top: "conv2"
  param {
    lr_mult: 1
    decay_mult: 1
  }
  param {
    lr_mult: 2
    decay_mult: 0
  }
  convolution_param {
    num_output: 256
    pad: 2
    kernel_size: 5
    group: 2
    weight_filler {
      type: "gaussian"
      std: 0.01
    }
    bias_filler {
      type: "constant"
      value: 0.1
    }
  }
}
layer {
  name: "relu2"
  type: "ReLU"
  bottom: "conv2"
  top: "conv2"
}
layer {
  name: "norm2"
  type: "LRN"
  bottom: "conv2"
  top: "norm2"
  lrn_param {
    local_size: 5
    alpha: 0.0001
    beta: 0.75
  }
}
layer {
  name: "pool2"
  type: "Pooling"
  bottom: "norm2"
  top: "pool2"
  pooling_param {
    pool: MAX
    kernel_size: 3
    stride: 2
  }
}
layer {
  name: "conv3"
  type: "Convolution"
  bottom: "pool2"
  top: "conv3"
  param {
    lr_mult: 1
    decay_mult: 1
  }
  param {
    lr_mult: 2
    decay_mult: 0
  }
  convolution_param {
    num_output: 384
    pad: 1
    kernel_size: 3
    weight_filler {
      type: "gaussian"
      std: 0.01
    }
    bias_filler {
      type: "constant"
      value: 0
    }
  }
}
layer {
  name: "relu3"
  type: "ReLU"
  bottom: "conv3"
  top: "conv3"
}
layer {
  name: "conv4"
  type: "Convolution"
  bottom: "conv3"
  top: "conv4"
  param {
    lr_mult: 1
    decay_mult: 1
  }
  param {
    lr_mult: 2
    decay_mult: 0
  }
  convolution_param {
    num_output: 384
    pad: 1
    kernel_size: 3
    group: 2
    weight_filler {
      type: "gaussian"
      std: 0.01
    }
    bias_filler {
      type: "constant"
      value: 0.1
    }
  }
}
layer {
  name: "relu4"
  type: "ReLU"
  bottom: "conv4"
  top: "conv4"
}
layer {
  name: "conv5"
  type: "Convolution"
  bottom: "conv4"
  top: "conv5"
  param {
    lr_mult: 1
    decay_mult: 1
  }
  param {
    lr_mult: 2
    decay_mult: 0
  }
  convolution_param {
    num_output: 256
    pad: 1
    kernel_size: 3
    group: 2
    weight_filler {
      type: "gaussian"
      std: 0.01
    }
    bias_filler {
      type: "constant"
      value: 0.1
    }
  }
}
layer {
  name: "relu5"
  type: "ReLU"
  bottom: "conv5"
  top: "conv5"
}
layer {
  name: "pool5"
  type: "Pooling"
  bottom: "conv5"
  top: "pool5"
  pooling_param {
    pool: MAX
    kernel_size: 3
    stride: 2
  }
}
layer {
  name: "fc6"
  type: "InnerProduct"
  bottom: "pool5"
  top: "fc6"
  param {
    lr_mult: 1
    decay_mult: 1
  }
  param {
    lr_mult: 2
    decay_mult: 0
  }
  inner_product_param {
    num_output: 4096
    weight_filler {
      type: "gaussian"
      std: 0.005
    }
    bias_filler {
      type: "constant"
      value: 0.1
    }
  }
}
layer {
  name: "relu6"
  type: "ReLU"
  bottom: "fc6"
  top: "fc6"
}
layer {
  name: "drop6"
  type: "Dropout"
  bottom: "fc6"
  top: "fc6"
  dropout_param {
    dropout_ratio: 0.5
  }
}
layer {
  name: "fc7"
  type: "InnerProduct"
  bottom: "fc6"
  top: "fc7"
  param {
    lr_mult: 1
    decay_mult: 1
  }
  param {
    lr_mult: 2
    decay_mult: 0
  }
  inner_product_param {
    num_output: 4096
    weight_filler {
      type: "gaussian"
      std: 0.005
    }
    bias_filler {
      type: "constant"
      value: 0.1
    }
  }
}
layer {
  name: "relu7"
  type: "ReLU"
  bottom: "fc7"
  top: "fc7"
}
layer {
  name: "drop7"
  type: "Dropout"
  bottom: "fc7"
  top: "fc7"
  dropout_param {
    dropout_ratio: 0.5
  }
}
layer {
  name: "fc8_plantvillage"
  type: "InnerProduct"
  bottom: "fc7"
  top: "fc8_plantvillage"
  param {
    lr_mult: 1
    decay_mult: 1
  }
  param {
    lr_mult: 2
    decay_mult: 0
  }
  inner_product_param {
    num_output: 38
    weight_filler {
      type: "gaussian"
      std: 0.01
    }
    bias_filler {
      type: "constant"
      value: 0
    }
  }
}
layer {
  name: "prob"
  type: "Softmax"
  bottom: "fc8_plantvillage"
  top: "prob"
  include {
    phase: TEST
  }
}
layer {
  name: "hdf5out"
  type: "HDF5Output"
  bottom: "prob"
  bottom: "label"
  include {
    phase: TEST
  }
  hdf5_output_param {
    file_name: "hdf5_dumps/iter_1890.h5"
  }
}
layer {
  name: "loss"
  type: "SoftmaxWithLoss"
  bottom: "fc8_plantvillage"
  bottom: "label"
  top: "loss"
}
layer {
  name: "accuracy"
  type: "Accuracy"
  bottom: "fc8_plantvillage"
  bottom: "label"
  top: "accuracy"
  include {
    phase: TEST
  }
}
I0403 13:47:42.363610 28686 layer_factory.hpp:77] Creating layer data
I0403 13:47:42.364269 28686 net.cpp:91] Creating Layer data
I0403 13:47:42.364300 28686 net.cpp:399] data -> data
I0403 13:47:42.364361 28686 net.cpp:399] data -> label
I0403 13:47:42.364401 28686 data_transformer.cpp:25] Loading mean file from: /home/mohanty/data/final_dataset/lmdb/grayscale-20-80/mean.binaryproto
I0403 13:47:42.366834 28688 db_lmdb.cpp:38] Opened lmdb /home/mohanty/data/final_dataset/lmdb/grayscale-20-80/test_db
I0403 13:47:42.378564 28686 data_layer.cpp:41] output data size: 100,3,227,227
I0403 13:47:42.500723 28686 net.cpp:141] Setting up data
I0403 13:47:42.500815 28686 net.cpp:148] Top shape: 100 3 227 227 (15458700)
I0403 13:47:42.500839 28686 net.cpp:148] Top shape: 100 (100)
I0403 13:47:42.500856 28686 net.cpp:156] Memory required for data: 61835200
I0403 13:47:42.500885 28686 layer_factory.hpp:77] Creating layer label_data_1_split
I0403 13:47:42.500911 28686 net.cpp:91] Creating Layer label_data_1_split
I0403 13:47:42.500931 28686 net.cpp:425] label_data_1_split <- label
I0403 13:47:42.500962 28686 net.cpp:399] label_data_1_split -> label_data_1_split_0
I0403 13:47:42.500991 28686 net.cpp:399] label_data_1_split -> label_data_1_split_1
I0403 13:47:42.501014 28686 net.cpp:399] label_data_1_split -> label_data_1_split_2
I0403 13:47:42.501080 28686 net.cpp:141] Setting up label_data_1_split
I0403 13:47:42.501104 28686 net.cpp:148] Top shape: 100 (100)
I0403 13:47:42.501122 28686 net.cpp:148] Top shape: 100 (100)
I0403 13:47:42.501140 28686 net.cpp:148] Top shape: 100 (100)
I0403 13:47:42.501155 28686 net.cpp:156] Memory required for data: 61836400
I0403 13:47:42.501173 28686 layer_factory.hpp:77] Creating layer conv1
I0403 13:47:42.501205 28686 net.cpp:91] Creating Layer conv1
I0403 13:47:42.501225 28686 net.cpp:425] conv1 <- data
I0403 13:47:42.501246 28686 net.cpp:399] conv1 -> conv1
I0403 13:47:42.641693 28686 net.cpp:141] Setting up conv1
I0403 13:47:42.641770 28686 net.cpp:148] Top shape: 100 96 55 55 (29040000)
I0403 13:47:42.641788 28686 net.cpp:156] Memory required for data: 177996400
I0403 13:47:42.641821 28686 layer_factory.hpp:77] Creating layer relu1
I0403 13:47:42.641850 28686 net.cpp:91] Creating Layer relu1
I0403 13:47:42.641870 28686 net.cpp:425] relu1 <- conv1
I0403 13:47:42.641888 28686 net.cpp:386] relu1 -> conv1 (in-place)
I0403 13:47:42.642148 28686 net.cpp:141] Setting up relu1
I0403 13:47:42.642179 28686 net.cpp:148] Top shape: 100 96 55 55 (29040000)
I0403 13:47:42.642231 28686 net.cpp:156] Memory required for data: 294156400
I0403 13:47:42.642249 28686 layer_factory.hpp:77] Creating layer norm1
I0403 13:47:42.642278 28686 net.cpp:91] Creating Layer norm1
I0403 13:47:42.642297 28686 net.cpp:425] norm1 <- conv1
I0403 13:47:42.642316 28686 net.cpp:399] norm1 -> norm1
I0403 13:47:42.642628 28686 net.cpp:141] Setting up norm1
I0403 13:47:42.642657 28686 net.cpp:148] Top shape: 100 96 55 55 (29040000)
I0403 13:47:42.642674 28686 net.cpp:156] Memory required for data: 410316400
I0403 13:47:42.642690 28686 layer_factory.hpp:77] Creating layer pool1
I0403 13:47:42.642714 28686 net.cpp:91] Creating Layer pool1
I0403 13:47:42.642731 28686 net.cpp:425] pool1 <- norm1
I0403 13:47:42.642750 28686 net.cpp:399] pool1 -> pool1
I0403 13:47:42.642817 28686 net.cpp:141] Setting up pool1
I0403 13:47:42.642843 28686 net.cpp:148] Top shape: 100 96 27 27 (6998400)
I0403 13:47:42.642858 28686 net.cpp:156] Memory required for data: 438310000
I0403 13:47:42.642875 28686 layer_factory.hpp:77] Creating layer conv2
I0403 13:47:42.642900 28686 net.cpp:91] Creating Layer conv2
I0403 13:47:42.642918 28686 net.cpp:425] conv2 <- pool1
I0403 13:47:42.642938 28686 net.cpp:399] conv2 -> conv2
I0403 13:47:42.657768 28686 net.cpp:141] Setting up conv2
I0403 13:47:42.657814 28686 net.cpp:148] Top shape: 100 256 27 27 (18662400)
I0403 13:47:42.657831 28686 net.cpp:156] Memory required for data: 512959600
I0403 13:47:42.657855 28686 layer_factory.hpp:77] Creating layer relu2
I0403 13:47:42.657876 28686 net.cpp:91] Creating Layer relu2
I0403 13:47:42.657893 28686 net.cpp:425] relu2 <- conv2
I0403 13:47:42.657912 28686 net.cpp:386] relu2 -> conv2 (in-place)
I0403 13:47:42.658172 28686 net.cpp:141] Setting up relu2
I0403 13:47:42.658200 28686 net.cpp:148] Top shape: 100 256 27 27 (18662400)
I0403 13:47:42.658216 28686 net.cpp:156] Memory required for data: 587609200
I0403 13:47:42.658232 28686 layer_factory.hpp:77] Creating layer norm2
I0403 13:47:42.658254 28686 net.cpp:91] Creating Layer norm2
I0403 13:47:42.658272 28686 net.cpp:425] norm2 <- conv2
I0403 13:47:42.658289 28686 net.cpp:399] norm2 -> norm2
I0403 13:47:42.658473 28686 net.cpp:141] Setting up norm2
I0403 13:47:42.658499 28686 net.cpp:148] Top shape: 100 256 27 27 (18662400)
I0403 13:47:42.658515 28686 net.cpp:156] Memory required for data: 662258800
I0403 13:47:42.658531 28686 layer_factory.hpp:77] Creating layer pool2
I0403 13:47:42.658550 28686 net.cpp:91] Creating Layer pool2
I0403 13:47:42.658567 28686 net.cpp:425] pool2 <- norm2
I0403 13:47:42.658586 28686 net.cpp:399] pool2 -> pool2
I0403 13:47:42.658635 28686 net.cpp:141] Setting up pool2
I0403 13:47:42.658659 28686 net.cpp:148] Top shape: 100 256 13 13 (4326400)
I0403 13:47:42.658674 28686 net.cpp:156] Memory required for data: 679564400
I0403 13:47:42.658690 28686 layer_factory.hpp:77] Creating layer conv3
I0403 13:47:42.658713 28686 net.cpp:91] Creating Layer conv3
I0403 13:47:42.658730 28686 net.cpp:425] conv3 <- pool2
I0403 13:47:42.658749 28686 net.cpp:399] conv3 -> conv3
I0403 13:47:42.700752 28686 net.cpp:141] Setting up conv3
I0403 13:47:42.700827 28686 net.cpp:148] Top shape: 100 384 13 13 (6489600)
I0403 13:47:42.700845 28686 net.cpp:156] Memory required for data: 705522800
I0403 13:47:42.700871 28686 layer_factory.hpp:77] Creating layer relu3
I0403 13:47:42.700894 28686 net.cpp:91] Creating Layer relu3
I0403 13:47:42.700913 28686 net.cpp:425] relu3 <- conv3
I0403 13:47:42.700934 28686 net.cpp:386] relu3 -> conv3 (in-place)
I0403 13:47:42.701203 28686 net.cpp:141] Setting up relu3
I0403 13:47:42.701232 28686 net.cpp:148] Top shape: 100 384 13 13 (6489600)
I0403 13:47:42.701248 28686 net.cpp:156] Memory required for data: 731481200
I0403 13:47:42.701264 28686 layer_factory.hpp:77] Creating layer conv4
I0403 13:47:42.701290 28686 net.cpp:91] Creating Layer conv4
I0403 13:47:42.701308 28686 net.cpp:425] conv4 <- conv3
I0403 13:47:42.701328 28686 net.cpp:399] conv4 -> conv4
I0403 13:47:42.730659 28686 net.cpp:141] Setting up conv4
I0403 13:47:42.730716 28686 net.cpp:148] Top shape: 100 384 13 13 (6489600)
I0403 13:47:42.730767 28686 net.cpp:156] Memory required for data: 757439600
I0403 13:47:42.730788 28686 layer_factory.hpp:77] Creating layer relu4
I0403 13:47:42.730813 28686 net.cpp:91] Creating Layer relu4
I0403 13:47:42.730831 28686 net.cpp:425] relu4 <- conv4
I0403 13:47:42.730851 28686 net.cpp:386] relu4 -> conv4 (in-place)
I0403 13:47:42.731140 28686 net.cpp:141] Setting up relu4
I0403 13:47:42.731168 28686 net.cpp:148] Top shape: 100 384 13 13 (6489600)
I0403 13:47:42.731184 28686 net.cpp:156] Memory required for data: 783398000
I0403 13:47:42.731199 28686 layer_factory.hpp:77] Creating layer conv5
I0403 13:47:42.731228 28686 net.cpp:91] Creating Layer conv5
I0403 13:47:42.731247 28686 net.cpp:425] conv5 <- conv4
I0403 13:47:42.731268 28686 net.cpp:399] conv5 -> conv5
I0403 13:47:42.751780 28686 net.cpp:141] Setting up conv5
I0403 13:47:42.751837 28686 net.cpp:148] Top shape: 100 256 13 13 (4326400)
I0403 13:47:42.751855 28686 net.cpp:156] Memory required for data: 800703600
I0403 13:47:42.751881 28686 layer_factory.hpp:77] Creating layer relu5
I0403 13:47:42.751904 28686 net.cpp:91] Creating Layer relu5
I0403 13:47:42.751921 28686 net.cpp:425] relu5 <- conv5
I0403 13:47:42.751941 28686 net.cpp:386] relu5 -> conv5 (in-place)
I0403 13:47:42.752243 28686 net.cpp:141] Setting up relu5
I0403 13:47:42.752271 28686 net.cpp:148] Top shape: 100 256 13 13 (4326400)
I0403 13:47:42.752288 28686 net.cpp:156] Memory required for data: 818009200
I0403 13:47:42.752305 28686 layer_factory.hpp:77] Creating layer pool5
I0403 13:47:42.752326 28686 net.cpp:91] Creating Layer pool5
I0403 13:47:42.752342 28686 net.cpp:425] pool5 <- conv5
I0403 13:47:42.752388 28686 net.cpp:399] pool5 -> pool5
I0403 13:47:42.752454 28686 net.cpp:141] Setting up pool5
I0403 13:47:42.752480 28686 net.cpp:148] Top shape: 100 256 6 6 (921600)
I0403 13:47:42.752496 28686 net.cpp:156] Memory required for data: 821695600
I0403 13:47:42.752511 28686 layer_factory.hpp:77] Creating layer fc6
I0403 13:47:42.752542 28686 net.cpp:91] Creating Layer fc6
I0403 13:47:42.752562 28686 net.cpp:425] fc6 <- pool5
I0403 13:47:42.752583 28686 net.cpp:399] fc6 -> fc6
I0403 13:47:44.312141 28686 net.cpp:141] Setting up fc6
I0403 13:47:44.312196 28686 net.cpp:148] Top shape: 100 4096 (409600)
I0403 13:47:44.312212 28686 net.cpp:156] Memory required for data: 823334000
I0403 13:47:44.312234 28686 layer_factory.hpp:77] Creating layer relu6
I0403 13:47:44.312258 28686 net.cpp:91] Creating Layer relu6
I0403 13:47:44.312278 28686 net.cpp:425] relu6 <- fc6
I0403 13:47:44.312297 28686 net.cpp:386] relu6 -> fc6 (in-place)
I0403 13:47:44.312512 28686 net.cpp:141] Setting up relu6
I0403 13:47:44.312538 28686 net.cpp:148] Top shape: 100 4096 (409600)
I0403 13:47:44.312554 28686 net.cpp:156] Memory required for data: 824972400
I0403 13:47:44.312568 28686 layer_factory.hpp:77] Creating layer drop6
I0403 13:47:44.312587 28686 net.cpp:91] Creating Layer drop6
I0403 13:47:44.312603 28686 net.cpp:425] drop6 <- fc6
I0403 13:47:44.312620 28686 net.cpp:386] drop6 -> fc6 (in-place)
I0403 13:47:44.312670 28686 net.cpp:141] Setting up drop6
I0403 13:47:44.312693 28686 net.cpp:148] Top shape: 100 4096 (409600)
I0403 13:47:44.312707 28686 net.cpp:156] Memory required for data: 826610800
I0403 13:47:44.312722 28686 layer_factory.hpp:77] Creating layer fc7
I0403 13:47:44.312744 28686 net.cpp:91] Creating Layer fc7
I0403 13:47:44.312760 28686 net.cpp:425] fc7 <- fc6
I0403 13:47:44.312779 28686 net.cpp:399] fc7 -> fc7
I0403 13:47:44.997583 28686 net.cpp:141] Setting up fc7
I0403 13:47:44.997661 28686 net.cpp:148] Top shape: 100 4096 (409600)
I0403 13:47:44.997678 28686 net.cpp:156] Memory required for data: 828249200
I0403 13:47:44.997701 28686 layer_factory.hpp:77] Creating layer relu7
I0403 13:47:44.997725 28686 net.cpp:91] Creating Layer relu7
I0403 13:47:44.997742 28686 net.cpp:425] relu7 <- fc7
I0403 13:47:44.997766 28686 net.cpp:386] relu7 -> fc7 (in-place)
I0403 13:47:44.998180 28686 net.cpp:141] Setting up relu7
I0403 13:47:44.998209 28686 net.cpp:148] Top shape: 100 4096 (409600)
I0403 13:47:44.998260 28686 net.cpp:156] Memory required for data: 829887600
I0403 13:47:44.998275 28686 layer_factory.hpp:77] Creating layer drop7
I0403 13:47:44.998296 28686 net.cpp:91] Creating Layer drop7
I0403 13:47:44.998311 28686 net.cpp:425] drop7 <- fc7
I0403 13:47:44.998332 28686 net.cpp:386] drop7 -> fc7 (in-place)
I0403 13:47:44.998384 28686 net.cpp:141] Setting up drop7
I0403 13:47:44.998409 28686 net.cpp:148] Top shape: 100 4096 (409600)
I0403 13:47:44.998423 28686 net.cpp:156] Memory required for data: 831526000
I0403 13:47:44.998437 28686 layer_factory.hpp:77] Creating layer fc8_plantvillage
I0403 13:47:44.998461 28686 net.cpp:91] Creating Layer fc8_plantvillage
I0403 13:47:44.998477 28686 net.cpp:425] fc8_plantvillage <- fc7
I0403 13:47:44.998499 28686 net.cpp:399] fc8_plantvillage -> fc8_plantvillage
I0403 13:47:45.005282 28686 net.cpp:141] Setting up fc8_plantvillage
I0403 13:47:45.005311 28686 net.cpp:148] Top shape: 100 38 (3800)
I0403 13:47:45.005327 28686 net.cpp:156] Memory required for data: 831541200
I0403 13:47:45.005352 28686 layer_factory.hpp:77] Creating layer fc8_plantvillage_fc8_plantvillage_0_split
I0403 13:47:45.005373 28686 net.cpp:91] Creating Layer fc8_plantvillage_fc8_plantvillage_0_split
I0403 13:47:45.005389 28686 net.cpp:425] fc8_plantvillage_fc8_plantvillage_0_split <- fc8_plantvillage
I0403 13:47:45.005409 28686 net.cpp:399] fc8_plantvillage_fc8_plantvillage_0_split -> fc8_plantvillage_fc8_plantvillage_0_split_0
I0403 13:47:45.005431 28686 net.cpp:399] fc8_plantvillage_fc8_plantvillage_0_split -> fc8_plantvillage_fc8_plantvillage_0_split_1
I0403 13:47:45.005451 28686 net.cpp:399] fc8_plantvillage_fc8_plantvillage_0_split -> fc8_plantvillage_fc8_plantvillage_0_split_2
I0403 13:47:45.005528 28686 net.cpp:141] Setting up fc8_plantvillage_fc8_plantvillage_0_split
I0403 13:47:45.005566 28686 net.cpp:148] Top shape: 100 38 (3800)
I0403 13:47:45.005584 28686 net.cpp:148] Top shape: 100 38 (3800)
I0403 13:47:45.005599 28686 net.cpp:148] Top shape: 100 38 (3800)
I0403 13:47:45.005614 28686 net.cpp:156] Memory required for data: 831586800
I0403 13:47:45.005628 28686 layer_factory.hpp:77] Creating layer prob
I0403 13:47:45.005647 28686 net.cpp:91] Creating Layer prob
I0403 13:47:45.005664 28686 net.cpp:425] prob <- fc8_plantvillage_fc8_plantvillage_0_split_0
I0403 13:47:45.005683 28686 net.cpp:399] prob -> prob
I0403 13:47:45.005928 28686 net.cpp:141] Setting up prob
I0403 13:47:45.005959 28686 net.cpp:148] Top shape: 100 38 (3800)
I0403 13:47:45.005975 28686 net.cpp:156] Memory required for data: 831602000
I0403 13:47:45.005991 28686 layer_factory.hpp:77] Creating layer hdf5out
I0403 13:47:45.006011 28686 net.cpp:91] Creating Layer hdf5out
I0403 13:47:45.006027 28686 net.cpp:425] hdf5out <- prob
I0403 13:47:45.006044 28686 net.cpp:425] hdf5out <- label_data_1_split_0
I0403 13:47:45.009898 28686 net.cpp:141] Setting up hdf5out
…
