…
I0403 13:52:00.546779 28780 net.cpp:313] The NetState phase (1) differed from the phase (0) specified by a rule in layer data
I0403 13:52:00.547055 28780 net.cpp:49] Initializing net from parameters: 
state {
  phase: TEST
}
layer {
  name: "data"
  type: "Data"
  top: "data"
  top: "label"
  include {
    phase: TEST
  }
  transform_param {
    crop_size: 227
    mean_file: "/home/mohanty/data/final_dataset/lmdb/grayscale-20-80/mean.binaryproto"
  }
  data_param {
    source: "/home/mohanty/data/final_dataset/lmdb/grayscale-20-80/test_db"
    batch_size: 100
    backend: LMDB
  }
}
layer {
  name: "conv1"
  type: "Convolution"
  bottom: "data"
  top: "conv1"
  param {
    lr_mult: 1
    decay_mult: 1
  }
  param {
    lr_mult: 2
    decay_mult: 0
  }
  convolution_param {
    num_output: 96
    kernel_size: 11
    stride: 4
    weight_filler {
      type: "gaussian"
      std: 0.01
    }
    bias_filler {
      type: "constant"
      value: 0
    }
  }
}
layer {
  name: "relu1"
  type: "ReLU"
  bottom: "conv1"
  top: "conv1"
}
layer {
  name: "norm1"
  type: "LRN"
  bottom: "conv1"
  top: "norm1"
  lrn_param {
    local_size: 5
    alpha: 0.0001
    beta: 0.75
  }
}
layer {
  name: "pool1"
  type: "Pooling"
  bottom: "norm1"
  top: "pool1"
  pooling_param {
    pool: MAX
    kernel_size: 3
    stride: 2
  }
}
layer {
  name: "conv2"
  type: "Convolution"
  bottom: "pool1"
  top: "conv2"
  param {
    lr_mult: 1
    decay_mult: 1
  }
  param {
    lr_mult: 2
    decay_mult: 0
  }
  convolution_param {
    num_output: 256
    pad: 2
    kernel_size: 5
    group: 2
    weight_filler {
      type: "gaussian"
      std: 0.01
    }
    bias_filler {
      type: "constant"
      value: 0.1
    }
  }
}
layer {
  name: "relu2"
  type: "ReLU"
  bottom: "conv2"
  top: "conv2"
}
layer {
  name: "norm2"
  type: "LRN"
  bottom: "conv2"
  top: "norm2"
  lrn_param {
    local_size: 5
    alpha: 0.0001
    beta: 0.75
  }
}
layer {
  name: "pool2"
  type: "Pooling"
  bottom: "norm2"
  top: "pool2"
  pooling_param {
    pool: MAX
    kernel_size: 3
    stride: 2
  }
}
layer {
  name: "conv3"
  type: "Convolution"
  bottom: "pool2"
  top: "conv3"
  param {
    lr_mult: 1
    decay_mult: 1
  }
  param {
    lr_mult: 2
    decay_mult: 0
  }
  convolution_param {
    num_output: 384
    pad: 1
    kernel_size: 3
    weight_filler {
      type: "gaussian"
      std: 0.01
    }
    bias_filler {
      type: "constant"
      value: 0
    }
  }
}
layer {
  name: "relu3"
  type: "ReLU"
  bottom: "conv3"
  top: "conv3"
}
layer {
  name: "conv4"
  type: "Convolution"
  bottom: "conv3"
  top: "conv4"
  param {
    lr_mult: 1
    decay_mult: 1
  }
  param {
    lr_mult: 2
    decay_mult: 0
  }
  convolution_param {
    num_output: 384
    pad: 1
    kernel_size: 3
    group: 2
    weight_filler {
      type: "gaussian"
      std: 0.01
    }
    bias_filler {
      type: "constant"
      value: 0.1
    }
  }
}
layer {
  name: "relu4"
  type: "ReLU"
  bottom: "conv4"
  top: "conv4"
}
layer {
  name: "conv5"
  type: "Convolution"
  bottom: "conv4"
  top: "conv5"
  param {
    lr_mult: 1
    decay_mult: 1
  }
  param {
    lr_mult: 2
    decay_mult: 0
  }
  convolution_param {
    num_output: 256
    pad: 1
    kernel_size: 3
    group: 2
    weight_filler {
      type: "gaussian"
      std: 0.01
    }
    bias_filler {
      type: "constant"
      value: 0.1
    }
  }
}
layer {
  name: "relu5"
  type: "ReLU"
  bottom: "conv5"
  top: "conv5"
}
layer {
  name: "pool5"
  type: "Pooling"
  bottom: "conv5"
  top: "pool5"
  pooling_param {
    pool: MAX
    kernel_size: 3
    stride: 2
  }
}
layer {
  name: "fc6"
  type: "InnerProduct"
  bottom: "pool5"
  top: "fc6"
  param {
    lr_mult: 1
    decay_mult: 1
  }
  param {
    lr_mult: 2
    decay_mult: 0
  }
  inner_product_param {
    num_output: 4096
    weight_filler {
      type: "gaussian"
      std: 0.005
    }
    bias_filler {
      type: "constant"
      value: 0.1
    }
  }
}
layer {
  name: "relu6"
  type: "ReLU"
  bottom: "fc6"
  top: "fc6"
}
layer {
  name: "drop6"
  type: "Dropout"
  bottom: "fc6"
  top: "fc6"
  dropout_param {
    dropout_ratio: 0.5
  }
}
layer {
  name: "fc7"
  type: "InnerProduct"
  bottom: "fc6"
  top: "fc7"
  param {
    lr_mult: 1
    decay_mult: 1
  }
  param {
    lr_mult: 2
    decay_mult: 0
  }
  inner_product_param {
    num_output: 4096
    weight_filler {
      type: "gaussian"
      std: 0.005
    }
    bias_filler {
      type: "constant"
      value: 0.1
    }
  }
}
layer {
  name: "relu7"
  type: "ReLU"
  bottom: "fc7"
  top: "fc7"
}
layer {
  name: "drop7"
  type: "Dropout"
  bottom: "fc7"
  top: "fc7"
  dropout_param {
    dropout_ratio: 0.5
  }
}
layer {
  name: "fc8_plantvillage"
  type: "InnerProduct"
  bottom: "fc7"
  top: "fc8_plantvillage"
  param {
    lr_mult: 1
    decay_mult: 1
  }
  param {
    lr_mult: 2
    decay_mult: 0
  }
  inner_product_param {
    num_output: 38
    weight_filler {
      type: "gaussian"
      std: 0.01
    }
    bias_filler {
      type: "constant"
      value: 0
    }
  }
}
layer {
  name: "prob"
  type: "Softmax"
  bottom: "fc8_plantvillage"
  top: "prob"
  include {
    phase: TEST
  }
}
layer {
  name: "hdf5out"
  type: "HDF5Output"
  bottom: "prob"
  bottom: "label"
  include {
    phase: TEST
  }
  hdf5_output_param {
    file_name: "hdf5_dumps/iter_2205.h5"
  }
}
layer {
  name: "loss"
  type: "SoftmaxWithLoss"
  bottom: "fc8_plantvillage"
  bottom: "label"
  top: "loss"
}
layer {
  name: "accuracy"
  type: "Accuracy"
  bottom: "fc8_plantvillage"
  bottom: "label"
  top: "accuracy"
  include {
    phase: TEST
  }
}
I0403 13:52:00.547652 28780 layer_factory.hpp:77] Creating layer data
I0403 13:52:00.548260 28780 net.cpp:91] Creating Layer data
I0403 13:52:00.548290 28780 net.cpp:399] data -> data
I0403 13:52:00.548344 28780 net.cpp:399] data -> label
I0403 13:52:00.548382 28780 data_transformer.cpp:25] Loading mean file from: /home/mohanty/data/final_dataset/lmdb/grayscale-20-80/mean.binaryproto
I0403 13:52:00.552709 28784 db_lmdb.cpp:38] Opened lmdb /home/mohanty/data/final_dataset/lmdb/grayscale-20-80/test_db
I0403 13:52:00.561926 28780 data_layer.cpp:41] output data size: 100,3,227,227
I0403 13:52:00.679445 28780 net.cpp:141] Setting up data
I0403 13:52:00.679538 28780 net.cpp:148] Top shape: 100 3 227 227 (15458700)
I0403 13:52:00.679560 28780 net.cpp:148] Top shape: 100 (100)
I0403 13:52:00.679576 28780 net.cpp:156] Memory required for data: 61835200
I0403 13:52:00.679606 28780 layer_factory.hpp:77] Creating layer label_data_1_split
I0403 13:52:00.679635 28780 net.cpp:91] Creating Layer label_data_1_split
I0403 13:52:00.679652 28780 net.cpp:425] label_data_1_split <- label
I0403 13:52:00.679684 28780 net.cpp:399] label_data_1_split -> label_data_1_split_0
I0403 13:52:00.679713 28780 net.cpp:399] label_data_1_split -> label_data_1_split_1
I0403 13:52:00.679734 28780 net.cpp:399] label_data_1_split -> label_data_1_split_2
I0403 13:52:00.679796 28780 net.cpp:141] Setting up label_data_1_split
I0403 13:52:00.679821 28780 net.cpp:148] Top shape: 100 (100)
I0403 13:52:00.679837 28780 net.cpp:148] Top shape: 100 (100)
I0403 13:52:00.679854 28780 net.cpp:148] Top shape: 100 (100)
I0403 13:52:00.679868 28780 net.cpp:156] Memory required for data: 61836400
I0403 13:52:00.679884 28780 layer_factory.hpp:77] Creating layer conv1
I0403 13:52:00.679918 28780 net.cpp:91] Creating Layer conv1
I0403 13:52:00.679936 28780 net.cpp:425] conv1 <- data
I0403 13:52:00.679956 28780 net.cpp:399] conv1 -> conv1
I0403 13:52:00.822015 28780 net.cpp:141] Setting up conv1
I0403 13:52:00.822090 28780 net.cpp:148] Top shape: 100 96 55 55 (29040000)
I0403 13:52:00.822108 28780 net.cpp:156] Memory required for data: 177996400
I0403 13:52:00.822139 28780 layer_factory.hpp:77] Creating layer relu1
I0403 13:52:00.822167 28780 net.cpp:91] Creating Layer relu1
I0403 13:52:00.822188 28780 net.cpp:425] relu1 <- conv1
I0403 13:52:00.822207 28780 net.cpp:386] relu1 -> conv1 (in-place)
I0403 13:52:00.822468 28780 net.cpp:141] Setting up relu1
I0403 13:52:00.822495 28780 net.cpp:148] Top shape: 100 96 55 55 (29040000)
I0403 13:52:00.822545 28780 net.cpp:156] Memory required for data: 294156400
I0403 13:52:00.822561 28780 layer_factory.hpp:77] Creating layer norm1
I0403 13:52:00.822590 28780 net.cpp:91] Creating Layer norm1
I0403 13:52:00.822609 28780 net.cpp:425] norm1 <- conv1
I0403 13:52:00.822628 28780 net.cpp:399] norm1 -> norm1
I0403 13:52:00.822959 28780 net.cpp:141] Setting up norm1
I0403 13:52:00.822988 28780 net.cpp:148] Top shape: 100 96 55 55 (29040000)
I0403 13:52:00.823004 28780 net.cpp:156] Memory required for data: 410316400
I0403 13:52:00.823019 28780 layer_factory.hpp:77] Creating layer pool1
I0403 13:52:00.823041 28780 net.cpp:91] Creating Layer pool1
I0403 13:52:00.823060 28780 net.cpp:425] pool1 <- norm1
I0403 13:52:00.823078 28780 net.cpp:399] pool1 -> pool1
I0403 13:52:00.823145 28780 net.cpp:141] Setting up pool1
I0403 13:52:00.823169 28780 net.cpp:148] Top shape: 100 96 27 27 (6998400)
I0403 13:52:00.823184 28780 net.cpp:156] Memory required for data: 438310000
I0403 13:52:00.823199 28780 layer_factory.hpp:77] Creating layer conv2
I0403 13:52:00.823225 28780 net.cpp:91] Creating Layer conv2
I0403 13:52:00.823242 28780 net.cpp:425] conv2 <- pool1
I0403 13:52:00.823261 28780 net.cpp:399] conv2 -> conv2
I0403 13:52:00.838551 28780 net.cpp:141] Setting up conv2
I0403 13:52:00.838614 28780 net.cpp:148] Top shape: 100 256 27 27 (18662400)
I0403 13:52:00.838634 28780 net.cpp:156] Memory required for data: 512959600
I0403 13:52:00.838660 28780 layer_factory.hpp:77] Creating layer relu2
I0403 13:52:00.838682 28780 net.cpp:91] Creating Layer relu2
I0403 13:52:00.838699 28780 net.cpp:425] relu2 <- conv2
I0403 13:52:00.838717 28780 net.cpp:386] relu2 -> conv2 (in-place)
I0403 13:52:00.839001 28780 net.cpp:141] Setting up relu2
I0403 13:52:00.839035 28780 net.cpp:148] Top shape: 100 256 27 27 (18662400)
I0403 13:52:00.839051 28780 net.cpp:156] Memory required for data: 587609200
I0403 13:52:00.839068 28780 layer_factory.hpp:77] Creating layer norm2
I0403 13:52:00.839090 28780 net.cpp:91] Creating Layer norm2
I0403 13:52:00.839107 28780 net.cpp:425] norm2 <- conv2
I0403 13:52:00.839128 28780 net.cpp:399] norm2 -> norm2
I0403 13:52:00.839336 28780 net.cpp:141] Setting up norm2
I0403 13:52:00.839364 28780 net.cpp:148] Top shape: 100 256 27 27 (18662400)
I0403 13:52:00.839380 28780 net.cpp:156] Memory required for data: 662258800
I0403 13:52:00.839395 28780 layer_factory.hpp:77] Creating layer pool2
I0403 13:52:00.839418 28780 net.cpp:91] Creating Layer pool2
I0403 13:52:00.839434 28780 net.cpp:425] pool2 <- norm2
I0403 13:52:00.839452 28780 net.cpp:399] pool2 -> pool2
I0403 13:52:00.839507 28780 net.cpp:141] Setting up pool2
I0403 13:52:00.839531 28780 net.cpp:148] Top shape: 100 256 13 13 (4326400)
I0403 13:52:00.839546 28780 net.cpp:156] Memory required for data: 679564400
I0403 13:52:00.839561 28780 layer_factory.hpp:77] Creating layer conv3
I0403 13:52:00.839586 28780 net.cpp:91] Creating Layer conv3
I0403 13:52:00.839603 28780 net.cpp:425] conv3 <- pool2
I0403 13:52:00.839624 28780 net.cpp:399] conv3 -> conv3
I0403 13:52:00.878754 28780 net.cpp:141] Setting up conv3
I0403 13:52:00.878828 28780 net.cpp:148] Top shape: 100 384 13 13 (6489600)
I0403 13:52:00.878845 28780 net.cpp:156] Memory required for data: 705522800
I0403 13:52:00.878872 28780 layer_factory.hpp:77] Creating layer relu3
I0403 13:52:00.878897 28780 net.cpp:91] Creating Layer relu3
I0403 13:52:00.878917 28780 net.cpp:425] relu3 <- conv3
I0403 13:52:00.878937 28780 net.cpp:386] relu3 -> conv3 (in-place)
I0403 13:52:00.879248 28780 net.cpp:141] Setting up relu3
I0403 13:52:00.879276 28780 net.cpp:148] Top shape: 100 384 13 13 (6489600)
I0403 13:52:00.879292 28780 net.cpp:156] Memory required for data: 731481200
I0403 13:52:00.879308 28780 layer_factory.hpp:77] Creating layer conv4
I0403 13:52:00.879343 28780 net.cpp:91] Creating Layer conv4
I0403 13:52:00.879364 28780 net.cpp:425] conv4 <- conv3
I0403 13:52:00.879384 28780 net.cpp:399] conv4 -> conv4
I0403 13:52:00.909965 28780 net.cpp:141] Setting up conv4
I0403 13:52:00.910033 28780 net.cpp:148] Top shape: 100 384 13 13 (6489600)
I0403 13:52:00.910081 28780 net.cpp:156] Memory required for data: 757439600
I0403 13:52:00.910104 28780 layer_factory.hpp:77] Creating layer relu4
I0403 13:52:00.910130 28780 net.cpp:91] Creating Layer relu4
I0403 13:52:00.910151 28780 net.cpp:425] relu4 <- conv4
I0403 13:52:00.910171 28780 net.cpp:386] relu4 -> conv4 (in-place)
I0403 13:52:00.910478 28780 net.cpp:141] Setting up relu4
I0403 13:52:00.910506 28780 net.cpp:148] Top shape: 100 384 13 13 (6489600)
I0403 13:52:00.910523 28780 net.cpp:156] Memory required for data: 783398000
I0403 13:52:00.910540 28780 layer_factory.hpp:77] Creating layer conv5
I0403 13:52:00.910580 28780 net.cpp:91] Creating Layer conv5
I0403 13:52:00.910599 28780 net.cpp:425] conv5 <- conv4
I0403 13:52:00.910621 28780 net.cpp:399] conv5 -> conv5
I0403 13:52:00.932078 28780 net.cpp:141] Setting up conv5
I0403 13:52:00.932145 28780 net.cpp:148] Top shape: 100 256 13 13 (4326400)
I0403 13:52:00.932163 28780 net.cpp:156] Memory required for data: 800703600
I0403 13:52:00.932191 28780 layer_factory.hpp:77] Creating layer relu5
I0403 13:52:00.932215 28780 net.cpp:91] Creating Layer relu5
I0403 13:52:00.932235 28780 net.cpp:425] relu5 <- conv5
I0403 13:52:00.932255 28780 net.cpp:386] relu5 -> conv5 (in-place)
I0403 13:52:00.932560 28780 net.cpp:141] Setting up relu5
I0403 13:52:00.932591 28780 net.cpp:148] Top shape: 100 256 13 13 (4326400)
I0403 13:52:00.932610 28780 net.cpp:156] Memory required for data: 818009200
I0403 13:52:00.932626 28780 layer_factory.hpp:77] Creating layer pool5
I0403 13:52:00.932651 28780 net.cpp:91] Creating Layer pool5
I0403 13:52:00.932667 28780 net.cpp:425] pool5 <- conv5
I0403 13:52:00.932689 28780 net.cpp:399] pool5 -> pool5
I0403 13:52:00.932766 28780 net.cpp:141] Setting up pool5
I0403 13:52:00.932790 28780 net.cpp:148] Top shape: 100 256 6 6 (921600)
I0403 13:52:00.932806 28780 net.cpp:156] Memory required for data: 821695600
I0403 13:52:00.932822 28780 layer_factory.hpp:77] Creating layer fc6
I0403 13:52:00.932852 28780 net.cpp:91] Creating Layer fc6
I0403 13:52:00.932871 28780 net.cpp:425] fc6 <- pool5
I0403 13:52:00.932893 28780 net.cpp:399] fc6 -> fc6
I0403 13:52:02.502408 28780 net.cpp:141] Setting up fc6
I0403 13:52:02.502481 28780 net.cpp:148] Top shape: 100 4096 (409600)
I0403 13:52:02.502497 28780 net.cpp:156] Memory required for data: 823334000
I0403 13:52:02.502528 28780 layer_factory.hpp:77] Creating layer relu6
I0403 13:52:02.502550 28780 net.cpp:91] Creating Layer relu6
I0403 13:52:02.502568 28780 net.cpp:425] relu6 <- fc6
I0403 13:52:02.502589 28780 net.cpp:386] relu6 -> fc6 (in-place)
I0403 13:52:02.502818 28780 net.cpp:141] Setting up relu6
I0403 13:52:02.502842 28780 net.cpp:148] Top shape: 100 4096 (409600)
I0403 13:52:02.502857 28780 net.cpp:156] Memory required for data: 824972400
I0403 13:52:02.502871 28780 layer_factory.hpp:77] Creating layer drop6
I0403 13:52:02.502893 28780 net.cpp:91] Creating Layer drop6
I0403 13:52:02.502908 28780 net.cpp:425] drop6 <- fc6
I0403 13:52:02.502928 28780 net.cpp:386] drop6 -> fc6 (in-place)
I0403 13:52:02.502980 28780 net.cpp:141] Setting up drop6
I0403 13:52:02.503002 28780 net.cpp:148] Top shape: 100 4096 (409600)
I0403 13:52:02.503017 28780 net.cpp:156] Memory required for data: 826610800
I0403 13:52:02.503031 28780 layer_factory.hpp:77] Creating layer fc7
I0403 13:52:02.503054 28780 net.cpp:91] Creating Layer fc7
I0403 13:52:02.503072 28780 net.cpp:425] fc7 <- fc6
I0403 13:52:02.503090 28780 net.cpp:399] fc7 -> fc7
I0403 13:52:03.187520 28780 net.cpp:141] Setting up fc7
I0403 13:52:03.187574 28780 net.cpp:148] Top shape: 100 4096 (409600)
I0403 13:52:03.187592 28780 net.cpp:156] Memory required for data: 828249200
I0403 13:52:03.187613 28780 layer_factory.hpp:77] Creating layer relu7
I0403 13:52:03.187638 28780 net.cpp:91] Creating Layer relu7
I0403 13:52:03.187655 28780 net.cpp:425] relu7 <- fc7
I0403 13:52:03.187674 28780 net.cpp:386] relu7 -> fc7 (in-place)
I0403 13:52:03.188060 28780 net.cpp:141] Setting up relu7
I0403 13:52:03.188086 28780 net.cpp:148] Top shape: 100 4096 (409600)
I0403 13:52:03.188133 28780 net.cpp:156] Memory required for data: 829887600
I0403 13:52:03.188148 28780 layer_factory.hpp:77] Creating layer drop7
I0403 13:52:03.188169 28780 net.cpp:91] Creating Layer drop7
I0403 13:52:03.188186 28780 net.cpp:425] drop7 <- fc7
I0403 13:52:03.188204 28780 net.cpp:386] drop7 -> fc7 (in-place)
I0403 13:52:03.188247 28780 net.cpp:141] Setting up drop7
I0403 13:52:03.188271 28780 net.cpp:148] Top shape: 100 4096 (409600)
I0403 13:52:03.188285 28780 net.cpp:156] Memory required for data: 831526000
I0403 13:52:03.188299 28780 layer_factory.hpp:77] Creating layer fc8_plantvillage
I0403 13:52:03.188324 28780 net.cpp:91] Creating Layer fc8_plantvillage
I0403 13:52:03.188341 28780 net.cpp:425] fc8_plantvillage <- fc7
I0403 13:52:03.188361 28780 net.cpp:399] fc8_plantvillage -> fc8_plantvillage
I0403 13:52:03.195091 28780 net.cpp:141] Setting up fc8_plantvillage
I0403 13:52:03.195122 28780 net.cpp:148] Top shape: 100 38 (3800)
I0403 13:52:03.195140 28780 net.cpp:156] Memory required for data: 831541200
I0403 13:52:03.195158 28780 layer_factory.hpp:77] Creating layer fc8_plantvillage_fc8_plantvillage_0_split
I0403 13:52:03.195178 28780 net.cpp:91] Creating Layer fc8_plantvillage_fc8_plantvillage_0_split
I0403 13:52:03.195194 28780 net.cpp:425] fc8_plantvillage_fc8_plantvillage_0_split <- fc8_plantvillage
I0403 13:52:03.195211 28780 net.cpp:399] fc8_plantvillage_fc8_plantvillage_0_split -> fc8_plantvillage_fc8_plantvillage_0_split_0
I0403 13:52:03.195232 28780 net.cpp:399] fc8_plantvillage_fc8_plantvillage_0_split -> fc8_plantvillage_fc8_plantvillage_0_split_1
I0403 13:52:03.195258 28780 net.cpp:399] fc8_plantvillage_fc8_plantvillage_0_split -> fc8_plantvillage_fc8_plantvillage_0_split_2
I0403 13:52:03.195343 28780 net.cpp:141] Setting up fc8_plantvillage_fc8_plantvillage_0_split
I0403 13:52:03.195368 28780 net.cpp:148] Top shape: 100 38 (3800)
I0403 13:52:03.195384 28780 net.cpp:148] Top shape: 100 38 (3800)
I0403 13:52:03.195400 28780 net.cpp:148] Top shape: 100 38 (3800)
I0403 13:52:03.195415 28780 net.cpp:156] Memory required for data: 831586800
I0403 13:52:03.195430 28780 layer_factory.hpp:77] Creating layer prob
I0403 13:52:03.195448 28780 net.cpp:91] Creating Layer prob
I0403 13:52:03.195464 28780 net.cpp:425] prob <- fc8_plantvillage_fc8_plantvillage_0_split_0
I0403 13:52:03.195483 28780 net.cpp:399] prob -> prob
I0403 13:52:03.195713 28780 net.cpp:141] Setting up prob
I0403 13:52:03.195740 28780 net.cpp:148] Top shape: 100 38 (3800)
I0403 13:52:03.195755 28780 net.cpp:156] Memory required for data: 831602000
I0403 13:52:03.195771 28780 layer_factory.hpp:77] Creating layer hdf5out
I0403 13:52:03.195794 28780 net.cpp:91] Creating Layer hdf5out
I0403 13:52:03.195811 28780 net.cpp:425] hdf5out <- prob
I0403 13:52:03.195828 28780 net.cpp:425] hdf5out <- label_data_1_split_0
I0403 13:52:03.229840 28780 net.cpp:141] Setting up hdf5out
…
