…
I0403 13:37:38.976128 28448 net.cpp:313] The NetState phase (1) differed from the phase (0) specified by a rule in layer data
I0403 13:37:38.976444 28448 net.cpp:49] Initializing net from parameters: 
state {
  phase: TEST
}
layer {
  name: "data"
  type: "Data"
  top: "data"
  top: "label"
  include {
    phase: TEST
  }
  transform_param {
    crop_size: 227
    mean_file: "/home/mohanty/data/final_dataset/lmdb/grayscale-20-80/mean.binaryproto"
  }
  data_param {
    source: "/home/mohanty/data/final_dataset/lmdb/grayscale-20-80/test_db"
    batch_size: 100
    backend: LMDB
  }
}
layer {
  name: "conv1"
  type: "Convolution"
  bottom: "data"
  top: "conv1"
  param {
    lr_mult: 1
    decay_mult: 1
  }
  param {
    lr_mult: 2
    decay_mult: 0
  }
  convolution_param {
    num_output: 96
    kernel_size: 11
    stride: 4
    weight_filler {
      type: "gaussian"
      std: 0.01
    }
    bias_filler {
      type: "constant"
      value: 0
    }
  }
}
layer {
  name: "relu1"
  type: "ReLU"
  bottom: "conv1"
  top: "conv1"
}
layer {
  name: "norm1"
  type: "LRN"
  bottom: "conv1"
  top: "norm1"
  lrn_param {
    local_size: 5
    alpha: 0.0001
    beta: 0.75
  }
}
layer {
  name: "pool1"
  type: "Pooling"
  bottom: "norm1"
  top: "pool1"
  pooling_param {
    pool: MAX
    kernel_size: 3
    stride: 2
  }
}
layer {
  name: "conv2"
  type: "Convolution"
  bottom: "pool1"
  top: "conv2"
  param {
    lr_mult: 1
    decay_mult: 1
  }
  param {
    lr_mult: 2
    decay_mult: 0
  }
  convolution_param {
    num_output: 256
    pad: 2
    kernel_size: 5
    group: 2
    weight_filler {
      type: "gaussian"
      std: 0.01
    }
    bias_filler {
      type: "constant"
      value: 0.1
    }
  }
}
layer {
  name: "relu2"
  type: "ReLU"
  bottom: "conv2"
  top: "conv2"
}
layer {
  name: "norm2"
  type: "LRN"
  bottom: "conv2"
  top: "norm2"
  lrn_param {
    local_size: 5
    alpha: 0.0001
    beta: 0.75
  }
}
layer {
  name: "pool2"
  type: "Pooling"
  bottom: "norm2"
  top: "pool2"
  pooling_param {
    pool: MAX
    kernel_size: 3
    stride: 2
  }
}
layer {
  name: "conv3"
  type: "Convolution"
  bottom: "pool2"
  top: "conv3"
  param {
    lr_mult: 1
    decay_mult: 1
  }
  param {
    lr_mult: 2
    decay_mult: 0
  }
  convolution_param {
    num_output: 384
    pad: 1
    kernel_size: 3
    weight_filler {
      type: "gaussian"
      std: 0.01
    }
    bias_filler {
      type: "constant"
      value: 0
    }
  }
}
layer {
  name: "relu3"
  type: "ReLU"
  bottom: "conv3"
  top: "conv3"
}
layer {
  name: "conv4"
  type: "Convolution"
  bottom: "conv3"
  top: "conv4"
  param {
    lr_mult: 1
    decay_mult: 1
  }
  param {
    lr_mult: 2
    decay_mult: 0
  }
  convolution_param {
    num_output: 384
    pad: 1
    kernel_size: 3
    group: 2
    weight_filler {
      type: "gaussian"
      std: 0.01
    }
    bias_filler {
      type: "constant"
      value: 0.1
    }
  }
}
layer {
  name: "relu4"
  type: "ReLU"
  bottom: "conv4"
  top: "conv4"
}
layer {
  name: "conv5"
  type: "Convolution"
  bottom: "conv4"
  top: "conv5"
  param {
    lr_mult: 1
    decay_mult: 1
  }
  param {
    lr_mult: 2
    decay_mult: 0
  }
  convolution_param {
    num_output: 256
    pad: 1
    kernel_size: 3
    group: 2
    weight_filler {
      type: "gaussian"
      std: 0.01
    }
    bias_filler {
      type: "constant"
      value: 0.1
    }
  }
}
layer {
  name: "relu5"
  type: "ReLU"
  bottom: "conv5"
  top: "conv5"
}
layer {
  name: "pool5"
  type: "Pooling"
  bottom: "conv5"
  top: "pool5"
  pooling_param {
    pool: MAX
    kernel_size: 3
    stride: 2
  }
}
layer {
  name: "fc6"
  type: "InnerProduct"
  bottom: "pool5"
  top: "fc6"
  param {
    lr_mult: 1
    decay_mult: 1
  }
  param {
    lr_mult: 2
    decay_mult: 0
  }
  inner_product_param {
    num_output: 4096
    weight_filler {
      type: "gaussian"
      std: 0.005
    }
    bias_filler {
      type: "constant"
      value: 0.1
    }
  }
}
layer {
  name: "relu6"
  type: "ReLU"
  bottom: "fc6"
  top: "fc6"
}
layer {
  name: "drop6"
  type: "Dropout"
  bottom: "fc6"
  top: "fc6"
  dropout_param {
    dropout_ratio: 0.5
  }
}
layer {
  name: "fc7"
  type: "InnerProduct"
  bottom: "fc6"
  top: "fc7"
  param {
    lr_mult: 1
    decay_mult: 1
  }
  param {
    lr_mult: 2
    decay_mult: 0
  }
  inner_product_param {
    num_output: 4096
    weight_filler {
      type: "gaussian"
      std: 0.005
    }
    bias_filler {
      type: "constant"
      value: 0.1
    }
  }
}
layer {
  name: "relu7"
  type: "ReLU"
  bottom: "fc7"
  top: "fc7"
}
layer {
  name: "drop7"
  type: "Dropout"
  bottom: "fc7"
  top: "fc7"
  dropout_param {
    dropout_ratio: 0.5
  }
}
layer {
  name: "fc8_plantvillage"
  type: "InnerProduct"
  bottom: "fc7"
  top: "fc8_plantvillage"
  param {
    lr_mult: 1
    decay_mult: 1
  }
  param {
    lr_mult: 2
    decay_mult: 0
  }
  inner_product_param {
    num_output: 38
    weight_filler {
      type: "gaussian"
      std: 0.01
    }
    bias_filler {
      type: "constant"
      value: 0
    }
  }
}
layer {
  name: "prob"
  type: "Softmax"
  bottom: "fc8_plantvillage"
  top: "prob"
  include {
    phase: TEST
  }
}
layer {
  name: "hdf5out"
  type: "HDF5Output"
  bottom: "prob"
  bottom: "label"
  include {
    phase: TEST
  }
  hdf5_output_param {
    file_name: "hdf5_dumps/iter_1155.h5"
  }
}
layer {
  name: "loss"
  type: "SoftmaxWithLoss"
  bottom: "fc8_plantvillage"
  bottom: "label"
  top: "loss"
}
layer {
  name: "accuracy"
  type: "Accuracy"
  bottom: "fc8_plantvillage"
  bottom: "label"
  top: "accuracy"
  include {
    phase: TEST
  }
}
I0403 13:37:38.977041 28448 layer_factory.hpp:77] Creating layer data
I0403 13:37:38.977695 28448 net.cpp:91] Creating Layer data
I0403 13:37:38.977728 28448 net.cpp:399] data -> data
I0403 13:37:38.977780 28448 net.cpp:399] data -> label
I0403 13:37:38.977816 28448 data_transformer.cpp:25] Loading mean file from: /home/mohanty/data/final_dataset/lmdb/grayscale-20-80/mean.binaryproto
I0403 13:37:38.982409 28451 db_lmdb.cpp:38] Opened lmdb /home/mohanty/data/final_dataset/lmdb/grayscale-20-80/test_db
I0403 13:37:38.992055 28448 data_layer.cpp:41] output data size: 100,3,227,227
I0403 13:37:39.114773 28448 net.cpp:141] Setting up data
I0403 13:37:39.114835 28448 net.cpp:148] Top shape: 100 3 227 227 (15458700)
I0403 13:37:39.114859 28448 net.cpp:148] Top shape: 100 (100)
I0403 13:37:39.114876 28448 net.cpp:156] Memory required for data: 61835200
I0403 13:37:39.114904 28448 layer_factory.hpp:77] Creating layer label_data_1_split
I0403 13:37:39.114930 28448 net.cpp:91] Creating Layer label_data_1_split
I0403 13:37:39.114949 28448 net.cpp:425] label_data_1_split <- label
I0403 13:37:39.114981 28448 net.cpp:399] label_data_1_split -> label_data_1_split_0
I0403 13:37:39.115010 28448 net.cpp:399] label_data_1_split -> label_data_1_split_1
I0403 13:37:39.115031 28448 net.cpp:399] label_data_1_split -> label_data_1_split_2
I0403 13:37:39.115095 28448 net.cpp:141] Setting up label_data_1_split
I0403 13:37:39.115119 28448 net.cpp:148] Top shape: 100 (100)
I0403 13:37:39.115136 28448 net.cpp:148] Top shape: 100 (100)
I0403 13:37:39.115154 28448 net.cpp:148] Top shape: 100 (100)
I0403 13:37:39.115170 28448 net.cpp:156] Memory required for data: 61836400
I0403 13:37:39.115186 28448 layer_factory.hpp:77] Creating layer conv1
I0403 13:37:39.115218 28448 net.cpp:91] Creating Layer conv1
I0403 13:37:39.115239 28448 net.cpp:425] conv1 <- data
I0403 13:37:39.115259 28448 net.cpp:399] conv1 -> conv1
I0403 13:37:39.258152 28448 net.cpp:141] Setting up conv1
I0403 13:37:39.258214 28448 net.cpp:148] Top shape: 100 96 55 55 (29040000)
I0403 13:37:39.258234 28448 net.cpp:156] Memory required for data: 177996400
I0403 13:37:39.258267 28448 layer_factory.hpp:77] Creating layer relu1
I0403 13:37:39.258296 28448 net.cpp:91] Creating Layer relu1
I0403 13:37:39.258316 28448 net.cpp:425] relu1 <- conv1
I0403 13:37:39.258338 28448 net.cpp:386] relu1 -> conv1 (in-place)
I0403 13:37:39.258608 28448 net.cpp:141] Setting up relu1
I0403 13:37:39.258640 28448 net.cpp:148] Top shape: 100 96 55 55 (29040000)
I0403 13:37:39.258689 28448 net.cpp:156] Memory required for data: 294156400
I0403 13:37:39.258708 28448 layer_factory.hpp:77] Creating layer norm1
I0403 13:37:39.258736 28448 net.cpp:91] Creating Layer norm1
I0403 13:37:39.258756 28448 net.cpp:425] norm1 <- conv1
I0403 13:37:39.258776 28448 net.cpp:399] norm1 -> norm1
I0403 13:37:39.259098 28448 net.cpp:141] Setting up norm1
I0403 13:37:39.259127 28448 net.cpp:148] Top shape: 100 96 55 55 (29040000)
I0403 13:37:39.259145 28448 net.cpp:156] Memory required for data: 410316400
I0403 13:37:39.259160 28448 layer_factory.hpp:77] Creating layer pool1
I0403 13:37:39.259184 28448 net.cpp:91] Creating Layer pool1
I0403 13:37:39.259203 28448 net.cpp:425] pool1 <- norm1
I0403 13:37:39.259224 28448 net.cpp:399] pool1 -> pool1
I0403 13:37:39.259294 28448 net.cpp:141] Setting up pool1
I0403 13:37:39.259318 28448 net.cpp:148] Top shape: 100 96 27 27 (6998400)
I0403 13:37:39.259335 28448 net.cpp:156] Memory required for data: 438310000
I0403 13:37:39.259358 28448 layer_factory.hpp:77] Creating layer conv2
I0403 13:37:39.259385 28448 net.cpp:91] Creating Layer conv2
I0403 13:37:39.259404 28448 net.cpp:425] conv2 <- pool1
I0403 13:37:39.259424 28448 net.cpp:399] conv2 -> conv2
I0403 13:37:39.275029 28448 net.cpp:141] Setting up conv2
I0403 13:37:39.275079 28448 net.cpp:148] Top shape: 100 256 27 27 (18662400)
I0403 13:37:39.275099 28448 net.cpp:156] Memory required for data: 512959600
I0403 13:37:39.275123 28448 layer_factory.hpp:77] Creating layer relu2
I0403 13:37:39.275144 28448 net.cpp:91] Creating Layer relu2
I0403 13:37:39.275161 28448 net.cpp:425] relu2 <- conv2
I0403 13:37:39.275180 28448 net.cpp:386] relu2 -> conv2 (in-place)
I0403 13:37:39.275465 28448 net.cpp:141] Setting up relu2
I0403 13:37:39.275495 28448 net.cpp:148] Top shape: 100 256 27 27 (18662400)
I0403 13:37:39.275512 28448 net.cpp:156] Memory required for data: 587609200
I0403 13:37:39.275529 28448 layer_factory.hpp:77] Creating layer norm2
I0403 13:37:39.275552 28448 net.cpp:91] Creating Layer norm2
I0403 13:37:39.275569 28448 net.cpp:425] norm2 <- conv2
I0403 13:37:39.275624 28448 net.cpp:399] norm2 -> norm2
I0403 13:37:39.275821 28448 net.cpp:141] Setting up norm2
I0403 13:37:39.275851 28448 net.cpp:148] Top shape: 100 256 27 27 (18662400)
I0403 13:37:39.275867 28448 net.cpp:156] Memory required for data: 662258800
I0403 13:37:39.275883 28448 layer_factory.hpp:77] Creating layer pool2
I0403 13:37:39.275903 28448 net.cpp:91] Creating Layer pool2
I0403 13:37:39.275919 28448 net.cpp:425] pool2 <- norm2
I0403 13:37:39.275939 28448 net.cpp:399] pool2 -> pool2
I0403 13:37:39.275993 28448 net.cpp:141] Setting up pool2
I0403 13:37:39.276017 28448 net.cpp:148] Top shape: 100 256 13 13 (4326400)
I0403 13:37:39.276033 28448 net.cpp:156] Memory required for data: 679564400
I0403 13:37:39.276051 28448 layer_factory.hpp:77] Creating layer conv3
I0403 13:37:39.276072 28448 net.cpp:91] Creating Layer conv3
I0403 13:37:39.276089 28448 net.cpp:425] conv3 <- pool2
I0403 13:37:39.276109 28448 net.cpp:399] conv3 -> conv3
I0403 13:37:39.316105 28448 net.cpp:141] Setting up conv3
I0403 13:37:39.316162 28448 net.cpp:148] Top shape: 100 384 13 13 (6489600)
I0403 13:37:39.316180 28448 net.cpp:156] Memory required for data: 705522800
I0403 13:37:39.316207 28448 layer_factory.hpp:77] Creating layer relu3
I0403 13:37:39.316231 28448 net.cpp:91] Creating Layer relu3
I0403 13:37:39.316248 28448 net.cpp:425] relu3 <- conv3
I0403 13:37:39.316272 28448 net.cpp:386] relu3 -> conv3 (in-place)
I0403 13:37:39.316566 28448 net.cpp:141] Setting up relu3
I0403 13:37:39.316596 28448 net.cpp:148] Top shape: 100 384 13 13 (6489600)
I0403 13:37:39.316612 28448 net.cpp:156] Memory required for data: 731481200
I0403 13:37:39.316627 28448 layer_factory.hpp:77] Creating layer conv4
I0403 13:37:39.316653 28448 net.cpp:91] Creating Layer conv4
I0403 13:37:39.316673 28448 net.cpp:425] conv4 <- conv3
I0403 13:37:39.316694 28448 net.cpp:399] conv4 -> conv4
I0403 13:37:39.347290 28448 net.cpp:141] Setting up conv4
I0403 13:37:39.347364 28448 net.cpp:148] Top shape: 100 384 13 13 (6489600)
I0403 13:37:39.347407 28448 net.cpp:156] Memory required for data: 757439600
I0403 13:37:39.347431 28448 layer_factory.hpp:77] Creating layer relu4
I0403 13:37:39.347455 28448 net.cpp:91] Creating Layer relu4
I0403 13:37:39.347472 28448 net.cpp:425] relu4 <- conv4
I0403 13:37:39.347497 28448 net.cpp:386] relu4 -> conv4 (in-place)
I0403 13:37:39.347784 28448 net.cpp:141] Setting up relu4
I0403 13:37:39.347812 28448 net.cpp:148] Top shape: 100 384 13 13 (6489600)
I0403 13:37:39.347829 28448 net.cpp:156] Memory required for data: 783398000
I0403 13:37:39.347846 28448 layer_factory.hpp:77] Creating layer conv5
I0403 13:37:39.347873 28448 net.cpp:91] Creating Layer conv5
I0403 13:37:39.347892 28448 net.cpp:425] conv5 <- conv4
I0403 13:37:39.347916 28448 net.cpp:399] conv5 -> conv5
I0403 13:37:39.368571 28448 net.cpp:141] Setting up conv5
I0403 13:37:39.368619 28448 net.cpp:148] Top shape: 100 256 13 13 (4326400)
I0403 13:37:39.368638 28448 net.cpp:156] Memory required for data: 800703600
I0403 13:37:39.368661 28448 layer_factory.hpp:77] Creating layer relu5
I0403 13:37:39.368681 28448 net.cpp:91] Creating Layer relu5
I0403 13:37:39.368702 28448 net.cpp:425] relu5 <- conv5
I0403 13:37:39.368721 28448 net.cpp:386] relu5 -> conv5 (in-place)
I0403 13:37:39.368993 28448 net.cpp:141] Setting up relu5
I0403 13:37:39.369020 28448 net.cpp:148] Top shape: 100 256 13 13 (4326400)
I0403 13:37:39.369037 28448 net.cpp:156] Memory required for data: 818009200
I0403 13:37:39.369052 28448 layer_factory.hpp:77] Creating layer pool5
I0403 13:37:39.369078 28448 net.cpp:91] Creating Layer pool5
I0403 13:37:39.369096 28448 net.cpp:425] pool5 <- conv5
I0403 13:37:39.369115 28448 net.cpp:399] pool5 -> pool5
I0403 13:37:39.369176 28448 net.cpp:141] Setting up pool5
I0403 13:37:39.369200 28448 net.cpp:148] Top shape: 100 256 6 6 (921600)
I0403 13:37:39.369215 28448 net.cpp:156] Memory required for data: 821695600
I0403 13:37:39.369230 28448 layer_factory.hpp:77] Creating layer fc6
I0403 13:37:39.369256 28448 net.cpp:91] Creating Layer fc6
I0403 13:37:39.369274 28448 net.cpp:425] fc6 <- pool5
I0403 13:37:39.369297 28448 net.cpp:399] fc6 -> fc6
I0403 13:37:40.929368 28448 net.cpp:141] Setting up fc6
I0403 13:37:40.929443 28448 net.cpp:148] Top shape: 100 4096 (409600)
I0403 13:37:40.929461 28448 net.cpp:156] Memory required for data: 823334000
I0403 13:37:40.929483 28448 layer_factory.hpp:77] Creating layer relu6
I0403 13:37:40.929507 28448 net.cpp:91] Creating Layer relu6
I0403 13:37:40.929527 28448 net.cpp:425] relu6 <- fc6
I0403 13:37:40.929548 28448 net.cpp:386] relu6 -> fc6 (in-place)
I0403 13:37:40.929783 28448 net.cpp:141] Setting up relu6
I0403 13:37:40.929811 28448 net.cpp:148] Top shape: 100 4096 (409600)
I0403 13:37:40.929826 28448 net.cpp:156] Memory required for data: 824972400
I0403 13:37:40.929842 28448 layer_factory.hpp:77] Creating layer drop6
I0403 13:37:40.929862 28448 net.cpp:91] Creating Layer drop6
I0403 13:37:40.929878 28448 net.cpp:425] drop6 <- fc6
I0403 13:37:40.929899 28448 net.cpp:386] drop6 -> fc6 (in-place)
I0403 13:37:40.929954 28448 net.cpp:141] Setting up drop6
I0403 13:37:40.929980 28448 net.cpp:148] Top shape: 100 4096 (409600)
I0403 13:37:40.929997 28448 net.cpp:156] Memory required for data: 826610800
I0403 13:37:40.930013 28448 layer_factory.hpp:77] Creating layer fc7
I0403 13:37:40.930034 28448 net.cpp:91] Creating Layer fc7
I0403 13:37:40.930050 28448 net.cpp:425] fc7 <- fc6
I0403 13:37:40.930073 28448 net.cpp:399] fc7 -> fc7
I0403 13:37:41.621247 28448 net.cpp:141] Setting up fc7
I0403 13:37:41.621323 28448 net.cpp:148] Top shape: 100 4096 (409600)
I0403 13:37:41.621340 28448 net.cpp:156] Memory required for data: 828249200
I0403 13:37:41.621368 28448 layer_factory.hpp:77] Creating layer relu7
I0403 13:37:41.621392 28448 net.cpp:91] Creating Layer relu7
I0403 13:37:41.621410 28448 net.cpp:425] relu7 <- fc7
I0403 13:37:41.621433 28448 net.cpp:386] relu7 -> fc7 (in-place)
I0403 13:37:41.621835 28448 net.cpp:141] Setting up relu7
I0403 13:37:41.621863 28448 net.cpp:148] Top shape: 100 4096 (409600)
I0403 13:37:41.621912 28448 net.cpp:156] Memory required for data: 829887600
I0403 13:37:41.621929 28448 layer_factory.hpp:77] Creating layer drop7
I0403 13:37:41.621948 28448 net.cpp:91] Creating Layer drop7
I0403 13:37:41.621965 28448 net.cpp:425] drop7 <- fc7
I0403 13:37:41.621986 28448 net.cpp:386] drop7 -> fc7 (in-place)
I0403 13:37:41.622030 28448 net.cpp:141] Setting up drop7
I0403 13:37:41.622056 28448 net.cpp:148] Top shape: 100 4096 (409600)
I0403 13:37:41.622071 28448 net.cpp:156] Memory required for data: 831526000
I0403 13:37:41.622087 28448 layer_factory.hpp:77] Creating layer fc8_plantvillage
I0403 13:37:41.622107 28448 net.cpp:91] Creating Layer fc8_plantvillage
I0403 13:37:41.622123 28448 net.cpp:425] fc8_plantvillage <- fc7
I0403 13:37:41.622144 28448 net.cpp:399] fc8_plantvillage -> fc8_plantvillage
I0403 13:37:41.628885 28448 net.cpp:141] Setting up fc8_plantvillage
I0403 13:37:41.628914 28448 net.cpp:148] Top shape: 100 38 (3800)
I0403 13:37:41.628931 28448 net.cpp:156] Memory required for data: 831541200
I0403 13:37:41.628949 28448 layer_factory.hpp:77] Creating layer fc8_plantvillage_fc8_plantvillage_0_split
I0403 13:37:41.628971 28448 net.cpp:91] Creating Layer fc8_plantvillage_fc8_plantvillage_0_split
I0403 13:37:41.628989 28448 net.cpp:425] fc8_plantvillage_fc8_plantvillage_0_split <- fc8_plantvillage
I0403 13:37:41.629009 28448 net.cpp:399] fc8_plantvillage_fc8_plantvillage_0_split -> fc8_plantvillage_fc8_plantvillage_0_split_0
I0403 13:37:41.629029 28448 net.cpp:399] fc8_plantvillage_fc8_plantvillage_0_split -> fc8_plantvillage_fc8_plantvillage_0_split_1
I0403 13:37:41.629051 28448 net.cpp:399] fc8_plantvillage_fc8_plantvillage_0_split -> fc8_plantvillage_fc8_plantvillage_0_split_2
I0403 13:37:41.629132 28448 net.cpp:141] Setting up fc8_plantvillage_fc8_plantvillage_0_split
I0403 13:37:41.629156 28448 net.cpp:148] Top shape: 100 38 (3800)
I0403 13:37:41.629173 28448 net.cpp:148] Top shape: 100 38 (3800)
I0403 13:37:41.629189 28448 net.cpp:148] Top shape: 100 38 (3800)
I0403 13:37:41.629204 28448 net.cpp:156] Memory required for data: 831586800
I0403 13:37:41.629217 28448 layer_factory.hpp:77] Creating layer prob
I0403 13:37:41.629237 28448 net.cpp:91] Creating Layer prob
I0403 13:37:41.629252 28448 net.cpp:425] prob <- fc8_plantvillage_fc8_plantvillage_0_split_0
I0403 13:37:41.629272 28448 net.cpp:399] prob -> prob
I0403 13:37:41.629503 28448 net.cpp:141] Setting up prob
I0403 13:37:41.629529 28448 net.cpp:148] Top shape: 100 38 (3800)
I0403 13:37:41.629544 28448 net.cpp:156] Memory required for data: 831602000
I0403 13:37:41.629560 28448 layer_factory.hpp:77] Creating layer hdf5out
I0403 13:37:41.629580 28448 net.cpp:91] Creating Layer hdf5out
I0403 13:37:41.629595 28448 net.cpp:425] hdf5out <- prob
I0403 13:37:41.629611 28448 net.cpp:425] hdf5out <- label_data_1_split_0
I0403 13:37:41.633822 28448 net.cpp:141] Setting up hdf5out
…
