…
I0403 21:43:35.163800 12615 net.cpp:313] The NetState phase (1) differed from the phase (0) specified by a rule in layer data
I0403 21:43:35.165038 12615 net.cpp:49] Initializing net from parameters: 
state {
  phase: TEST
}
layer {
  name: "data"
  type: "Data"
  top: "data"
  top: "label"
  include {
    phase: TEST
  }
  transform_param {
    mirror: false
    crop_size: 224
    mean_file: "/home/mohanty/data/final_dataset/lmdb/color-80-20/mean.binaryproto"
  }
  data_param {
    source: "/home/mohanty/data/final_dataset/lmdb/color-80-20/test_db"
    batch_size: 24
    backend: LMDB
  }
}
layer {
  name: "conv1/7x7_s2"
  type: "Convolution"
  bottom: "data"
  top: "conv1/7x7_s2"
  param {
    lr_mult: 1
    decay_mult: 1
  }
  param {
    lr_mult: 2
    decay_mult: 0
  }
  convolution_param {
    num_output: 64
    pad: 3
    kernel_size: 7
    stride: 2
    weight_filler {
      type: "xavier"
      std: 0.1
    }
    bias_filler {
      type: "constant"
      value: 0.2
    }
  }
}
layer {
  name: "conv1/relu_7x7"
  type: "ReLU"
  bottom: "conv1/7x7_s2"
  top: "conv1/7x7_s2"
}
layer {
  name: "pool1/3x3_s2"
  type: "Pooling"
  bottom: "conv1/7x7_s2"
  top: "pool1/3x3_s2"
  pooling_param {
    pool: MAX
    kernel_size: 3
    stride: 2
  }
}
layer {
  name: "pool1/norm1"
  type: "LRN"
  bottom: "pool1/3x3_s2"
  top: "pool1/norm1"
  lrn_param {
    local_size: 5
    alpha: 0.0001
    beta: 0.75
  }
}
layer {
  name: "conv2/3x3_reduce"
  type: "Convolution"
  bottom: "pool1/norm1"
  top: "conv2/3x3_reduce"
  param {
    lr_mult: 1
    decay_mult: 1
  }
  param {
    lr_mult: 2
    decay_mult: 0
  }
  convolution_param {
    num_output: 64
    kernel_size: 1
    weight_filler {
      type: "xavier"
      std: 0.1
    }
    bias_filler {
      type: "constant"
      value: 0.2
    }
  }
}
layer {
  name: "conv2/relu_3x3_reduce"
  type: "ReLU"
  bottom: "conv2/3x3_reduce"
  top: "conv2/3x3_reduce"
}
layer {
  name: "conv2/3x3"
  type: "Convolution"
  bottom: "conv2/3x3_reduce"
  top: "conv2/3x3"
  param {
    lr_mult: 1
    decay_mult: 1
  }
  param {
    lr_mult: 2
    decay_mult: 0
  }
  convolution_param {
    num_output: 192
    pad: 1
    kernel_size: 3
    weight_filler {
      type: "xavier"
      std: 0.03
    }
    bias_filler {
      type: "constant"
      value: 0.2
    }
  }
}
layer {
  name: "conv2/relu_3x3"
  type: "ReLU"
  bottom: "conv2/3x3"
  top: "conv2/3x3"
}
layer {
  name: "conv2/norm2"
  type: "LRN"
  bottom: "conv2/3x3"
  top: "conv2/norm2"
  lrn_param {
    local_size: 5
    alpha: 0.0001
    beta: 0.75
  }
}
layer {
  name: "pool2/3x3_s2"
  type: "Pooling"
  bottom: "conv2/norm2"
  top: "pool2/3x3_s2"
  pooling_param {
    pool: MAX
    kernel_size: 3
    stride: 2
  }
}
layer {
  name: "inception_3a/1x1"
  type: "Convolution"
  bottom: "pool2/3x3_s2"
  top: "inception_3a/1x1"
  param {
    lr_mult: 1
    decay_mult: 1
  }
  param {
    lr_mult: 2
    decay_mult: 0
  }
  convolution_param {
    num_output: 64
    kernel_size: 1
    weight_filler {
      type: "xavier"
      std: 0.03
    }
    bias_filler {
      type: "constant"
      value: 0.2
    }
  }
}
layer {
  name: "inception_3a/relu_1x1"
  type: "ReLU"
  bottom: "inception_3a/1x1"
  top: "inception_3a/1x1"
}
layer {
  name: "inception_3a/3x3_reduce"
  type: "Convolution"
  bottom: "pool2/3x3_s2"
  top: "inception_3a/3x3_reduce"
  param {
    lr_mult: 1
    decay_mult: 1
  }
  param {
    lr_mult: 2
    decay_mult: 0
  }
  convolution_param {
    num_output: 96
    kernel_size: 1
    weight_filler {
      type: "xavier"
      std: 0.09
    }
    bias_filler {
      type: "constant"
      value: 0.2
    }
  }
}
layer {
  name: "inception_3a/relu_3x3_reduce"
  type: "ReLU"
  bottom: "inception_3a/3x3_reduce"
  top: "inception_3a/3x3_reduce"
}
layer {
  name: "inception_3a/3x3"
  type: "Convolution"
  bottom: "inception_3a/3x3_reduce"
  top: "inception_3a/3x3"
  param {
    lr_mult: 1
    decay_mult: 1
  }
  param {
    lr_mult: 2
    decay_mult: 0
  }
  convolution_param {
    num_output: 128
    pad: 1
    kernel_size: 3
    weight_filler {
      type: "xavier"
      std: 0.03
    }
    bias_filler {
      type: "constant"
      value: 0.2
    }
  }
}
layer {
  name: "inception_3a/relu_3x3"
  type: "ReLU"
  bottom: "inception_3a/3x3"
  top: "inception_3a/3x3"
}
layer {
  name: "inception_3a/5x5_reduce"
  type: "Convolution"
  bottom: "pool2/3x3_s2"
  top: "inception_3a/5x5_reduce"
  param {
    lr_mult: 1
    decay_mult: 1
  }
  param {
    lr_mult: 2
    decay_mult: 0
  }
  convolution_param {
    num_output: 16
    kernel_size: 1
    weight_filler {
      type: "xavier"
      std: 0.2
    }
    bias_filler {
      type: "constant"
      value: 0.2
    }
  }
}
layer {
  name: "inception_3a/relu_5x5_reduce"
  type: "ReLU"
  bottom: "inception_3a/5x5_reduce"
  top: "inception_3a/5x5_reduce"
}
layer {
  name: "inception_3a/5x5"
  type: "Convolution"
  bottom: "inception_3a/5x5_reduce"
  top: "inception_3a/5x5"
  param {
    lr_mult: 1
    decay_mult: 1
  }
  param {
    lr_mult: 2
    decay_mult: 0
  }
  convolution_param {
    num_output: 32
    pad: 2
    kernel_size: 5
    weight_filler {
      type: "xavier"
      std: 0.03
    }
    bias_filler {
      type: "constant"
      value: 0.2
    }
  }
}
layer {
  name: "inception_3a/relu_5x5"
  type: "ReLU"
  bottom: "inception_3a/5x5"
  top: "inception_3a/5x5"
}
layer {
  name: "inception_3a/pool"
  type: "Pooling"
  bottom: "pool2/3x3_s2"
  top: "inception_3a/pool"
  pooling_param {
    pool: MAX
    kernel_size: 3
    stride: 1
    pad: 1
  }
}
layer {
  name: "inception_3a/pool_proj"
  type: "Convolution"
  bottom: "inception_3a/pool"
  top: "inception_3a/pool_proj"
  param {
    lr_mult: 1
    decay_mult: 1
  }
  param {
    lr_mult: 2
    decay_mult: 0
  }
  convolution_param {
    num_output: 32
    kernel_size: 1
    weight_filler {
      type: "xavier"
      std: 0.1
    }
    bias_filler {
      type: "constant"
      value: 0.2
    }
  }
}
layer {
  name: "inception_3a/relu_pool_proj"
  type: "ReLU"
  bottom: "inception_3a/pool_proj"
  top: "inception_3a/pool_proj"
}
layer {
  name: "inception_3a/output"
  type: "Concat"
  bottom: "inception_3a/1x1"
  bottom: "inception_3a/3x3"
  bottom: "inception_3a/5x5"
  bottom: "inception_3a/pool_proj"
  top: "inception_3a/output"
}
layer {
  name: "inception_3b/1x1"
  type: "Convolution"
  bottom: "inception_3a/output"
  top: "inception_3b/1x1"
  param {
    lr_mult: 1
    decay_mult: 1
  }
  param {
    lr_mult: 2
    decay_mult: 0
  }
  convolution_param {
    num_output: 128
    kernel_size: 1
    weight_filler {
      type: "xavier"
      std: 0.03
    }
    bias_filler {
      type: "constant"
      value: 0.2
    }
  }
}
layer {
  name: "inception_3b/relu_1x1"
  type: "ReLU"
  bottom: "inception_3b/1x1"
  top: "inception_3b/1x1"
}
layer {
  name: "inception_3b/3x3_reduce"
  type: "Convolution"
  bottom: "inception_3a/output"
  top: "inception_3b/3x3_reduce"
  param {
    lr_mult: 1
    decay_mult: 1
  }
  param {
    lr_mult: 2
    decay_mult: 0
  }
  convolution_param {
    num_output: 128
    kernel_size: 1
    weight_filler {
      type: "xavier"
      std: 0.09
    }
    bias_filler {
      type: "constant"
      value: 0.2
    }
  }
}
layer {
  name: "inception_3b/relu_3x3_reduce"
  type: "ReLU"
  bottom: "inception_3b/3x3_reduce"
  top: "inception_3b/3x3_reduce"
}
layer {
  name: "inception_3b/3x3"
  type: "Convolution"
  bottom: "inception_3b/3x3_reduce"
  top: "inception_3b/3x3"
  param {
    lr_mult: 1
    decay_mult: 1
  }
  param {
    lr_mult: 2
    decay_mult: 0
  }
  convolution_param {
    num_output: 192
    pad: 1
    kernel_size: 3
    weight_filler {
      type: "xavier"
      std: 0.03
    }
    bias_filler {
      type: "constant"
      value: 0.2
    }
  }
}
layer {
  name: "inception_3b/relu_3x3"
  type: "ReLU"
  bottom: "inception_3b/3x3"
  top: "inception_3b/3x3"
}
layer {
  name: "inception_3b/5x5_reduce"
  type: "Convolution"
  bottom: "inception_3a/output"
  top: "inception_3b/5x5_reduce"
  param {
    lr_mult: 1
    decay_mult: 1
  }
  param {
    lr_mult: 2
    decay_mult: 0
  }
  convolution_param {
    num_output: 32
    kernel_size: 1
    weight_filler {
      type: "xavier"
      std: 0.2
    }
    bias_filler {
      type: "constant"
      value: 0.2
    }
  }
}
layer {
  name: "inception_3b/relu_5x5_reduce"
  type: "ReLU"
  bottom: "inception_3b/5x5_reduce"
  top: "inception_3b/5x5_reduce"
}
layer {
  name: "inception_3b/5x5"
  type: "Convolution"
  bottom: "inception_3b/5x5_reduce"
  top: "inception_3b/5x5"
  param {
    lr_mult: 1
    decay_mult: 1
  }
  param {
    lr_mult: 2
    decay_mult: 0
  }
  convolution_param {
    num_output: 96
    pad: 2
    kernel_size: 5
    weight_filler {
      type: "xavier"
      std: 0.03
    }
    bias_filler {
      type: "constant"
      value: 0.2
    }
  }
}
layer {
  name: "inception_3b/relu_5x5"
  type: "ReLU"
  bottom: "inception_3b/5x5"
  top: "inception_3b/5x5"
}
layer {
  name: "inception_3b/pool"
  type: "Pooling"
  bottom: "inception_3a/output"
  top: "inception_3b/pool"
  pooling_param {
    pool: MAX
    kernel_size: 3
    stride: 1
    pad: 1
  }
}
layer {
  name: "inception_3b/pool_proj"
  type: "Convolution"
  bottom: "inception_3b/pool"
  top: "inception_3b/pool_proj"
  param {
    lr_mult: 1
    decay_mult: 1
  }
  param {
    lr_mult: 2
    decay_mult: 0
  }
  convolution_param {
    num_output: 64
    kernel_size: 1
    weight_filler {
      type: "xavier"
      std: 0.1
    }
    bias_filler {
      type: "constant"
      value: 0.2
    }
  }
}
layer {
  name: "inception_3b/relu_pool_proj"
  type: "ReLU"
  bottom: "inception_3b/pool_proj"
  top: "inception_3b/pool_proj"
}
layer {
  name: "inception_3b/output"
  type: "Concat"
  bottom: "inception_3b/1x1"
  bottom: "inception_3b/3x3"
  bottom: "inception_3b/5x5"
  bottom: "inception_3b/pool_proj"
  top: "inception_3b/output"
}
layer {
  name: "pool3/3x3_s2"
  type: "Pooling"
  bottom: "inception_3b/output"
  top: "pool3/3x3_s2"
  pooling_param {
    pool: MAX
    kernel_size: 3
    stride: 2
  }
}
layer {
  name: "inception_4a/1x1"
  type: "Convolution"
  bottom: "pool3/3x3_s2"
  top: "inception_4a/1x1"
  param {
    lr_mult: 1
    decay_mult: 1
  }
  param {
    lr_mult: 2
    decay_mult: 0
  }
  convolution_param {
    num_output: 192
    kernel_size: 1
    weight_filler {
      type: "xavier"
      std: 0.03
    }
    bias_filler {
      type: "constant"
      value: 0.2
    }
  }
}
layer {
  name: "inception_4a/relu_1x1"
  type: "ReLU"
  bottom: "inception_4a/1x1"
  top: "inception_4a/1x1"
}
layer {
  name: "inception_4a/3x3_reduce"
  type: "Convolution"
  bottom: "pool3/3x3_s2"
  top: "inception_4a/3x3_reduce"
  param {
    lr_mult: 1
    decay_mult: 1
  }
  param {
    lr_mult: 2
    decay_mult: 0
  }
  convolution_param {
    num_output: 96
    kernel_size: 1
    weight_filler {
      type: "xavier"
      std: 0.09
    }
    bias_filler {
      type: "constant"
      value: 0.2
    }
  }
}
layer {
  name: "inception_4a/relu_3x3_reduce"
  type: "ReLU"
  bottom: "inception_4a/3x3_reduce"
  top: "inception_4a/3x3_reduce"
}
layer {
  name: "inception_4a/3x3"
  type: "Convolution"
  bottom: "inception_4a/3x3_reduce"
  top: "inception_4a/3x3"
  param {
    lr_mult: 1
    decay_mult: 1
  }
  param {
    lr_mult: 2
    decay_mult: 0
  }
  convolution_param {
    num_output: 208
    pad: 1
    kernel_size: 3
    weight_filler {
      type: "xavier"
      std: 0.03
    }
    bias_filler {
      type: "constant"
      value: 0.2
    }
  }
}
layer {
  name: "inception_4a/relu_3x3"
  type: "ReLU"
  bottom: "inception_4a/3x3"
  top: "inception_4a/3x3"
}
layer {
  name: "inception_4a/5x5_reduce"
  type: "Convolution"
  bottom: "pool3/3x3_s2"
  top: "inception_4a/5x5_reduce"
  param {
    lr_mult: 1
    decay_mult: 1
  }
  param {
    lr_mult: 2
    decay_mult: 0
  }
  convolution_param {
    num_output: 16
    kernel_size: 1
    weight_filler {
      type: "xavier"
      std: 0.2
    }
    bias_filler {
      type: "constant"
      value: 0.2
    }
  }
}
layer {
  name: "inception_4a/relu_5x5_reduce"
  type: "ReLU"
  bottom: "inception_4a/5x5_reduce"
  top: "inception_4a/5x5_reduce"
}
layer {
  name: "inception_4a/5x5"
  type: "Convolution"
  bottom: "inception_4a/5x5_reduce"
  top: "inception_4a/5x5"
  param {
    lr_mult: 1
    decay_mult: 1
  }
  param {
    lr_mult: 2
    decay_mult: 0
  }
  convolution_param {
    num_output: 48
    pad: 2
    kernel_size: 5
    weight_filler {
      type: "xavier"
      std: 0.03
    }
    bias_filler {
      type: "constant"
      value: 0.2
    }
  }
}
layer {
  name: "inception_4a/relu_5x5"
  type: "ReLU"
  bottom: "inception_4a/5x5"
  top: "inception_4a/5x5"
}
layer {
  name: "inception_4a/pool"
  type: "Pooling"
  bottom: "pool3/3x3_s2"
  top: "inception_4a/pool"
  pooling_param {
    pool: MAX
    kernel_size: 3
    stride: 1
    pad: 1
  }
}
layer {
  name: "inception_4a/pool_proj"
  type: "Convolution"
  bottom: "inception_4a/pool"
  top: "inception_4a/pool_proj"
  param {
    lr_mult: 1
    decay_mult: 1
  }
  param {
    lr_mult: 2
    decay_mult: 0
  }
  convolution_param {
    num_output: 64
    kernel_size: 1
    weight_filler {
      type: "xavier"
      std: 0.1
    }
    bias_filler {
      type: "constant"
      value: 0.2
    }
  }
}
layer {
  name: "inception_4a/relu_pool_proj"
  type: "ReLU"
  bottom: "inception_4a/pool_proj"
  top: "inception_4a/pool_proj"
}
layer {
  name: "inception_4a/output"
  type: "Concat"
  bottom: "inception_4a/1x1"
  bottom: "inception_4a/3x3"
  bottom: "inception_4a/5x5"
  bottom: "inception_4a/pool_proj"
  top: "inception_4a/output"
}
layer {
  name: "loss1/ave_pool"
  type: "Pooling"
  bottom: "inception_4a/output"
  top: "loss1/ave_pool"
  pooling_param {
    pool: AVE
    kernel_size: 5
    stride: 3
  }
}
layer {
  name: "loss1/conv"
  type: "Convolution"
  bottom: "loss1/ave_pool"
  top: "loss1/conv"
  param {
    lr_mult: 1
    decay_mult: 1
  }
  param {
    lr_mult: 2
    decay_mult: 0
  }
  convolution_param {
    num_output: 128
    kernel_size: 1
    weight_filler {
      type: "xavier"
      std: 0.08
    }
    bias_filler {
      type: "constant"
      value: 0.2
    }
  }
}
layer {
  name: "loss1/relu_conv"
  type: "ReLU"
  bottom: "loss1/conv"
  top: "loss1/conv"
}
layer {
  name: "loss1/fc"
  type: "InnerProduct"
  bottom: "loss1/conv"
  top: "loss1/fc"
  param {
    lr_mult: 1
    decay_mult: 1
  }
  param {
    lr_mult: 2
    decay_mult: 0
  }
  inner_product_param {
    num_output: 1024
    weight_filler {
      type: "xavier"
      std: 0.02
    }
    bias_filler {
      type: "constant"
      value: 0.2
    }
  }
}
layer {
  name: "loss1/relu_fc"
  type: "ReLU"
  bottom: "loss1/fc"
  top: "loss1/fc"
}
layer {
  name: "loss1/drop_fc"
  type: "Dropout"
  bottom: "loss1/fc"
  top: "loss1/fc"
  dropout_param {
    dropout_ratio: 0.7
  }
}
layer {
  name: "loss1/classifier_plantvillage"
  type: "InnerProduct"
  bottom: "loss1/fc"
  top: "loss1/classifier_plantvillage"
  param {
    lr_mult: 1
    decay_mult: 1
  }
  param {
    lr_mult: 2
    decay_mult: 0
  }
  inner_product_param {
    num_output: 38
    weight_filler {
      type: "xavier"
      std: 0.0009765625
    }
    bias_filler {
      type: "constant"
      value: 0
    }
  }
}
layer {
  name: "inception_4b/1x1"
  type: "Convolution"
  bottom: "inception_4a/output"
  top: "inception_4b/1x1"
  param {
    lr_mult: 1
    decay_mult: 1
  }
  param {
    lr_mult: 2
    decay_mult: 0
  }
  convolution_param {
    num_output: 160
    kernel_size: 1
    weight_filler {
      type: "xavier"
      std: 0.03
    }
    bias_filler {
      type: "constant"
      value: 0.2
    }
  }
}
layer {
  name: "inception_4b/relu_1x1"
  type: "ReLU"
  bottom: "inception_4b/1x1"
  top: "inception_4b/1x1"
}
layer {
  name: "inception_4b/3x3_reduce"
  type: "Convolution"
  bottom: "inception_4a/output"
  top: "inception_4b/3x3_reduce"
  param {
    lr_mult: 1
    decay_mult: 1
  }
  param {
    lr_mult: 2
    decay_mult: 0
  }
  convolution_param {
    num_output: 112
    kernel_size: 1
    weight_filler {
      type: "xavier"
      std: 0.09
    }
    bias_filler {
      type: "constant"
      value: 0.2
    }
  }
}
layer {
  name: "inception_4b/relu_3x3_reduce"
  type: "ReLU"
  bottom: "inception_4b/3x3_reduce"
  top: "inception_4b/3x3_reduce"
}
layer {
  name: "inception_4b/3x3"
  type: "Convolution"
  bottom: "inception_4b/3x3_reduce"
  top: "inception_4b/3x3"
  param {
    lr_mult: 1
    decay_mult: 1
  }
  param {
    lr_mult: 2
    decay_mult: 0
  }
  convolution_param {
    num_output: 224
    pad: 1
    kernel_size: 3
    weight_filler {
      type: "xavier"
      std: 0.03
    }
    bias_filler {
      type: "constant"
      value: 0.2
    }
  }
}
layer {
  name: "inception_4b/relu_3x3"
  type: "ReLU"
  bottom: "inception_4b/3x3"
  top: "inception_4b/3x3"
}
layer {
  name: "inception_4b/5x5_reduce"
  type: "Convolution"
  bottom: "inception_4a/output"
  top: "inception_4b/5x5_reduce"
  param {
    lr_mult: 1
    decay_mult: 1
  }
  param {
    lr_mult: 2
    decay_mult: 0
  }
  convolution_param {
    num_output: 24
    kernel_size: 1
    weight_filler {
      type: "xavier"
      std: 0.2
    }
    bias_filler {
      type: "constant"
      value: 0.2
    }
  }
}
layer {
  name: "inception_4b/relu_5x5_reduce"
  type: "ReLU"
  bottom: "inception_4b/5x5_reduce"
  top: "inception_4b/5x5_reduce"
}
layer {
  name: "inception_4b/5x5"
  type: "Convolution"
  bottom: "inception_4b/5x5_reduce"
  top: "inception_4b/5x5"
  param {
    lr_mult: 1
    decay_mult: 1
  }
  param {
    lr_mult: 2
    decay_mult: 0
  }
  convolution_param {
    num_output: 64
    pad: 2
    kernel_size: 5
    weight_filler {
      type: "xavier"
      std: 0.03
    }
    bias_filler {
      type: "constant"
      value: 0.2
    }
  }
}
layer {
  name: "inception_4b/relu_5x5"
  type: "ReLU"
  bottom: "inception_4b/5x5"
  top: "inception_4b/5x5"
}
layer {
  name: "inception_4b/pool"
  type: "Pooling"
  bottom: "inception_4a/output"
  top: "inception_4b/pool"
  pooling_param {
    pool: MAX
    kernel_size: 3
    stride: 1
    pad: 1
  }
}
layer {
  name: "inception_4b/pool_proj"
  type: "Convolution"
  bottom: "inception_4b/pool"
  top: "inception_4b/pool_proj"
  param {
    lr_mult: 1
    decay_mult: 1
  }
  param {
    lr_mult: 2
    decay_mult: 0
  }
  convolution_param {
    num_output: 64
    kernel_size: 1
    weight_filler {
      type: "xavier"
      std: 0.1
    }
    bias_filler {
      type: "constant"
      value: 0.2
    }
  }
}
layer {
  name: "inception_4b/relu_pool_proj"
  type: "ReLU"
  bottom: "inception_4b/pool_proj"
  top: "inception_4b/pool_proj"
}
layer {
  name: "inception_4b/output"
  type: "Concat"
  bottom: "inception_4b/1x1"
  bottom: "inception_4b/3x3"
  bottom: "inception_4b/5x5"
  bottom: "inception_4b/pool_proj"
  top: "inception_4b/output"
}
layer {
  name: "inception_4c/1x1"
  type: "Convolution"
  bottom: "inception_4b/output"
  top: "inception_4c/1x1"
  param {
    lr_mult: 1
    decay_mult: 1
  }
  param {
    lr_mult: 2
    decay_mult: 0
  }
  convolution_param {
    num_output: 128
    kernel_size: 1
    weight_filler {
      type: "xavier"
      std: 0.03
    }
    bias_filler {
      type: "constant"
      value: 0.2
    }
  }
}
layer {
  name: "inception_4c/relu_1x1"
  type: "ReLU"
  bottom: "inception_4c/1x1"
  top: "inception_4c/1x1"
}
layer {
  name: "inception_4c/3x3_reduce"
  type: "Convolution"
  bottom: "inception_4b/output"
  top: "inception_4c/3x3_reduce"
  param {
    lr_mult: 1
    decay_mult: 1
  }
  param {
    lr_mult: 2
    decay_mult: 0
  }
  convolution_param {
    num_output: 128
    kernel_size: 1
    weight_filler {
      type: "xavier"
      std: 0.09
    }
    bias_filler {
      type: "constant"
      value: 0.2
    }
  }
}
layer {
  name: "inception_4c/relu_3x3_reduce"
  type: "ReLU"
  bottom: "inception_4c/3x3_reduce"
  top: "inception_4c/3x3_reduce"
}
layer {
  name: "inception_4c/3x3"
  type: "Convolution"
  bottom: "inception_4c/3x3_reduce"
  top: "inception_4c/3x3"
  param {
    lr_mult: 1
    decay_mult: 1
  }
  param {
    lr_mult: 2
    decay_mult: 0
  }
  convolution_param {
    num_output: 256
    pad: 1
    kernel_size: 3
    weight_filler {
      type: "xavier"
      std: 0.03
    }
    bias_filler {
      type: "constant"
      value: 0.2
    }
  }
}
layer {
  name: "inception_4c/relu_3x3"
  type: "ReLU"
  bottom: "inception_4c/3x3"
  top: "inception_4c/3x3"
}
layer {
  name: "inception_4c/5x5_reduce"
  type: "Convolution"
  bottom: "inception_4b/output"
  top: "inception_4c/5x5_reduce"
  param {
    lr_mult: 1
    decay_mult: 1
  }
  param {
    lr_mult: 2
    decay_mult: 0
  }
  convolution_param {
    num_output: 24
    kernel_size: 1
    weight_filler {
      type: "xavier"
      std: 0.2
    }
    bias_filler {
      type: "constant"
      value: 0.2
    }
  }
}
layer {
  name: "inception_4c/relu_5x5_reduce"
  type: "ReLU"
  bottom: "inception_4c/5x5_reduce"
  top: "inception_4c/5x5_reduce"
}
layer {
  name: "inception_4c/5x5"
  type: "Convolution"
  bottom: "inception_4c/5x5_reduce"
  top: "inception_4c/5x5"
  param {
    lr_mult: 1
    decay_mult: 1
  }
  param {
    lr_mult: 2
    decay_mult: 0
  }
  convolution_param {
    num_output: 64
    pad: 2
    kernel_size: 5
    weight_filler {
      type: "xavier"
      std: 0.03
    }
    bias_filler {
      type: "constant"
      value: 0.2
    }
  }
}
layer {
  name: "inception_4c/relu_5x5"
  type: "ReLU"
  bottom: "inception_4c/5x5"
  top: "inception_4c/5x5"
}
layer {
  name: "inception_4c/pool"
  type: "Pooling"
  bottom: "inception_4b/output"
  top: "inception_4c/pool"
  pooling_param {
    pool: MAX
    kernel_size: 3
    stride: 1
    pad: 1
  }
}
layer {
  name: "inception_4c/pool_proj"
  type: "Convolution"
  bottom: "inception_4c/pool"
  top: "inception_4c/pool_proj"
  param {
    lr_mult: 1
    decay_mult: 1
  }
  param {
    lr_mult: 2
    decay_mult: 0
  }
  convolution_param {
    num_output: 64
    kernel_size: 1
    weight_filler {
      type: "xavier"
      std: 0.1
    }
    bias_filler {
      type: "constant"
      value: 0.2
    }
  }
}
layer {
  name: "inception_4c/relu_pool_proj"
  type: "ReLU"
  bottom: "inception_4c/pool_proj"
  top: "inception_4c/pool_proj"
}
layer {
  name: "inception_4c/output"
  type: "Concat"
  bottom: "inception_4c/1x1"
  bottom: "inception_4c/3x3"
  bottom: "inception_4c/5x5"
  bottom: "inception_4c/pool_proj"
  top: "inception_4c/output"
}
layer {
  name: "inception_4d/1x1"
  type: "Convolution"
  bottom: "inception_4c/output"
  top: "inception_4d/1x1"
  param {
    lr_mult: 1
    decay_mult: 1
  }
  param {
    lr_mult: 2
    decay_mult: 0
  }
  convolution_param {
    num_output: 112
    kernel_size: 1
    weight_filler {
      type: "xavier"
      std: 0.03
    }
    bias_filler {
      type: "constant"
      value: 0.2
    }
  }
}
layer {
  name: "inception_4d/relu_1x1"
  type: "ReLU"
  bottom: "inception_4d/1x1"
  top: "inception_4d/1x1"
}
layer {
  name: "inception_4d/3x3_reduce"
  type: "Convolution"
  bottom: "inception_4c/output"
  top: "inception_4d/3x3_reduce"
  param {
    lr_mult: 1
    decay_mult: 1
  }
  param {
    lr_mult: 2
    decay_mult: 0
  }
  convolution_param {
    num_output: 144
    kernel_size: 1
    weight_filler {
      type: "xavier"
      std: 0.09
    }
    bias_filler {
      type: "constant"
      value: 0.2
    }
  }
}
layer {
  name: "inception_4d/relu_3x3_reduce"
  type: "ReLU"
  bottom: "inception_4d/3x3_reduce"
  top: "inception_4d/3x3_reduce"
}
layer {
  name: "inception_4d/3x3"
  type: "Convolution"
  bottom: "inception_4d/3x3_reduce"
  top: "inception_4d/3x3"
  param {
    lr_mult: 1
    decay_mult: 1
  }
  param {
    lr_mult: 2
    decay_mult: 0
  }
  convolution_param {
    num_output: 288
    pad: 1
    kernel_size: 3
    weight_filler {
      type: "xavier"
      std: 0.03
    }
    bias_filler {
      type: "constant"
      value: 0.2
    }
  }
}
layer {
  name: "inception_4d/relu_3x3"
  type: "ReLU"
  bottom: "inception_4d/3x3"
  top: "inception_4d/3x3"
}
layer {
  name: "inception_4d/5x5_reduce"
  type: "Convolution"
  bottom: "inception_4c/output"
  top: "inception_4d/5x5_reduce"
  param {
    lr_mult: 1
    decay_mult: 1
  }
  param {
    lr_mult: 2
    decay_mult: 0
  }
  convolution_param {
    num_output: 32
    kernel_size: 1
    weight_filler {
      type: "xavier"
      std: 0.2
    }
    bias_filler {
      type: "constant"
      value: 0.2
    }
  }
}
layer {
  name: "inception_4d/relu_5x5_reduce"
  type: "ReLU"
  bottom: "inception_4d/5x5_reduce"
  top: "inception_4d/5x5_reduce"
}
layer {
  name: "inception_4d/5x5"
  type: "Convolution"
  bottom: "inception_4d/5x5_reduce"
  top: "inception_4d/5x5"
  param {
    lr_mult: 1
    decay_mult: 1
  }
  param {
    lr_mult: 2
    decay_mult: 0
  }
  convolution_param {
    num_output: 64
    pad: 2
    kernel_size: 5
    weight_filler {
      type: "xavier"
      std: 0.03
    }
    bias_filler {
      type: "constant"
      value: 0.2
    }
  }
}
layer {
  name: "inception_4d/relu_5x5"
  type: "ReLU"
  bottom: "inception_4d/5x5"
  top: "inception_4d/5x5"
}
layer {
  name: "inception_4d/pool"
  type: "Pooling"
  bottom: "inception_4c/output"
  top: "inception_4d/pool"
  pooling_param {
    pool: MAX
    kernel_size: 3
    stride: 1
    pad: 1
  }
}
layer {
  name: "inception_4d/pool_proj"
  type: "Convolution"
  bottom: "inception_4d/pool"
  top: "inception_4d/pool_proj"
  param {
    lr_mult: 1
    decay_mult: 1
  }
  param {
    lr_mult: 2
    decay_mult: 0
  }
  convolution_param {
    num_output: 64
    kernel_size: 1
    weight_filler {
      type: "xavier"
      std: 0.1
    }
    bias_filler {
      type: "constant"
      value: 0.2
    }
  }
}
layer {
  name: "inception_4d/relu_pool_proj"
  type: "ReLU"
  bottom: "inception_4d/pool_proj"
  top: "inception_4d/pool_proj"
}
layer {
  name: "inception_4d/output"
  type: "Concat"
  bottom: "inception_4d/1x1"
  bottom: "inception_4d/3x3"
  bottom: "inception_4d/5x5"
  bottom: "inception_4d/pool_proj"
  top: "inception_4d/output"
}
layer {
  name: "loss2/ave_pool"
  type: "Pooling"
  bottom: "inception_4d/output"
  top: "loss2/ave_pool"
  pooling_param {
    pool: AVE
    kernel_size: 5
    stride: 3
  }
}
layer {
  name: "loss2/conv"
  type: "Convolution"
  bottom: "loss2/ave_pool"
  top: "loss2/conv"
  param {
    lr_mult: 1
    decay_mult: 1
  }
  param {
    lr_mult: 2
    decay_mult: 0
  }
  convolution_param {
    num_output: 128
    kernel_size: 1
    weight_filler {
      type: "xavier"
      std: 0.08
    }
    bias_filler {
      type: "constant"
      value: 0.2
    }
  }
}
layer {
  name: "loss2/relu_conv"
  type: "ReLU"
  bottom: "loss2/conv"
  top: "loss2/conv"
}
layer {
  name: "loss2/fc"
  type: "InnerProduct"
  bottom: "loss2/conv"
  top: "loss2/fc"
  param {
    lr_mult: 1
    decay_mult: 1
  }
  param {
    lr_mult: 2
    decay_mult: 0
  }
  inner_product_param {
    num_output: 1024
    weight_filler {
      type: "xavier"
      std: 0.02
    }
    bias_filler {
      type: "constant"
      value: 0.2
    }
  }
}
layer {
  name: "loss2/relu_fc"
  type: "ReLU"
  bottom: "loss2/fc"
  top: "loss2/fc"
}
layer {
  name: "loss2/drop_fc"
  type: "Dropout"
  bottom: "loss2/fc"
  top: "loss2/fc"
  dropout_param {
    dropout_ratio: 0.7
  }
}
layer {
  name: "loss2/classifier_plantvillage"
  type: "InnerProduct"
  bottom: "loss2/fc"
  top: "loss2/classifier_plantvillage"
  param {
    lr_mult: 1
    decay_mult: 1
  }
  param {
    lr_mult: 2
    decay_mult: 0
  }
  inner_product_param {
    num_output: 38
    weight_filler {
      type: "xavier"
      std: 0.0009765625
    }
    bias_filler {
      type: "constant"
      value: 0
    }
  }
}
layer {
  name: "inception_4e/1x1"
  type: "Convolution"
  bottom: "inception_4d/output"
  top: "inception_4e/1x1"
  param {
    lr_mult: 1
    decay_mult: 1
  }
  param {
    lr_mult: 2
    decay_mult: 0
  }
  convolution_param {
    num_output: 256
    kernel_size: 1
    weight_filler {
      type: "xavier"
      std: 0.03
    }
    bias_filler {
      type: "constant"
      value: 0.2
    }
  }
}
layer {
  name: "inception_4e/relu_1x1"
  type: "ReLU"
  bottom: "inception_4e/1x1"
  top: "inception_4e/1x1"
}
layer {
  name: "inception_4e/3x3_reduce"
  type: "Convolution"
  bottom: "inception_4d/output"
  top: "inception_4e/3x3_reduce"
  param {
    lr_mult: 1
    decay_mult: 1
  }
  param {
    lr_mult: 2
    decay_mult: 0
  }
  convolution_param {
    num_output: 160
    kernel_size: 1
    weight_filler {
      type: "xavier"
      std: 0.09
    }
    bias_filler {
      type: "constant"
      value: 0.2
    }
  }
}
layer {
  name: "inception_4e/relu_3x3_reduce"
  type: "ReLU"
  bottom: "inception_4e/3x3_reduce"
  top: "inception_4e/3x3_reduce"
}
layer {
  name: "inception_4e/3x3"
  type: "Convolution"
  bottom: "inception_4e/3x3_reduce"
  top: "inception_4e/3x3"
  param {
    lr_mult: 1
    decay_mult: 1
  }
  param {
    lr_mult: 2
    decay_mult: 0
  }
  convolution_param {
    num_output: 320
    pad: 1
    kernel_size: 3
    weight_filler {
      type: "xavier"
      std: 0.03
    }
    bias_filler {
      type: "constant"
      value: 0.2
    }
  }
}
layer {
  name: "inception_4e/relu_3x3"
  type: "ReLU"
  bottom: "inception_4e/3x3"
  top: "inception_4e/3x3"
}
layer {
  name: "inception_4e/5x5_reduce"
  type: "Convolution"
  bottom: "inception_4d/output"
  top: "inception_4e/5x5_reduce"
  param {
    lr_mult: 1
    decay_mult: 1
  }
  param {
    lr_mult: 2
    decay_mult: 0
  }
  convolution_param {
    num_output: 32
    kernel_size: 1
    weight_filler {
      type: "xavier"
      std: 0.2
    }
    bias_filler {
      type: "constant"
      value: 0.2
    }
  }
}
layer {
  name: "inception_4e/relu_5x5_reduce"
  type: "ReLU"
  bottom: "inception_4e/5x5_reduce"
  top: "inception_4e/5x5_reduce"
}
layer {
  name: "inception_4e/5x5"
  type: "Convolution"
  bottom: "inception_4e/5x5_reduce"
  top: "inception_4e/5x5"
  p
I0403 21:43:35.166750 12615 layer_factory.hpp:77] Creating layer data
I0403 21:43:35.167376 12615 net.cpp:91] Creating Layer data
I0403 21:43:35.167410 12615 net.cpp:399] data -> data
I0403 21:43:35.167465 12615 net.cpp:399] data -> label
I0403 21:43:35.167503 12615 data_transformer.cpp:25] Loading mean file from: /home/mohanty/data/final_dataset/lmdb/color-80-20/mean.binaryproto
I0403 21:43:35.168704 12617 db_lmdb.cpp:38] Opened lmdb /home/mohanty/data/final_dataset/lmdb/color-80-20/test_db
I0403 21:43:35.182000 12615 data_layer.cpp:41] output data size: 24,3,224,224
I0403 21:43:35.212085 12615 net.cpp:141] Setting up data
I0403 21:43:35.212194 12615 net.cpp:148] Top shape: 24 3 224 224 (3612672)
I0403 21:43:35.212219 12615 net.cpp:148] Top shape: 24 (24)
I0403 21:43:35.212235 12615 net.cpp:156] Memory required for data: 14450784
I0403 21:43:35.212263 12615 layer_factory.hpp:77] Creating layer label_data_1_split
I0403 21:43:35.212291 12615 net.cpp:91] Creating Layer label_data_1_split
I0403 21:43:35.212311 12615 net.cpp:425] label_data_1_split <- label
I0403 21:43:35.212344 12615 net.cpp:399] label_data_1_split -> label_data_1_split_0
I0403 21:43:35.212373 12615 net.cpp:399] label_data_1_split -> label_data_1_split_1
I0403 21:43:35.212396 12615 net.cpp:399] label_data_1_split -> label_data_1_split_2
I0403 21:43:35.212419 12615 net.cpp:399] label_data_1_split -> label_data_1_split_3
I0403 21:43:35.212440 12615 net.cpp:399] label_data_1_split -> label_data_1_split_4
I0403 21:43:35.212461 12615 net.cpp:399] label_data_1_split -> label_data_1_split_5
I0403 21:43:35.212483 12615 net.cpp:399] label_data_1_split -> label_data_1_split_6
I0403 21:43:35.212505 12615 net.cpp:399] label_data_1_split -> label_data_1_split_7
I0403 21:43:35.212527 12615 net.cpp:399] label_data_1_split -> label_data_1_split_8
I0403 21:43:35.212548 12615 net.cpp:399] label_data_1_split -> label_data_1_split_9
I0403 21:43:35.212671 12615 net.cpp:141] Setting up label_data_1_split
I0403 21:43:35.212695 12615 net.cpp:148] Top shape: 24 (24)
I0403 21:43:35.212714 12615 net.cpp:148] Top shape: 24 (24)
I0403 21:43:35.212733 12615 net.cpp:148] Top shape: 24 (24)
I0403 21:43:35.212749 12615 net.cpp:148] Top shape: 24 (24)
I0403 21:43:35.212765 12615 net.cpp:148] Top shape: 24 (24)
I0403 21:43:35.212782 12615 net.cpp:148] Top shape: 24 (24)
I0403 21:43:35.212798 12615 net.cpp:148] Top shape: 24 (24)
I0403 21:43:35.212816 12615 net.cpp:148] Top shape: 24 (24)
I0403 21:43:35.212832 12615 net.cpp:148] Top shape: 24 (24)
I0403 21:43:35.212852 12615 net.cpp:148] Top shape: 24 (24)
I0403 21:43:35.212899 12615 net.cpp:156] Memory required for data: 14451744
I0403 21:43:35.212918 12615 layer_factory.hpp:77] Creating layer conv1/7x7_s2
I0403 21:43:35.212951 12615 net.cpp:91] Creating Layer conv1/7x7_s2
I0403 21:43:35.212970 12615 net.cpp:425] conv1/7x7_s2 <- data
I0403 21:43:35.212991 12615 net.cpp:399] conv1/7x7_s2 -> conv1/7x7_s2
I0403 21:43:35.359005 12615 net.cpp:141] Setting up conv1/7x7_s2
I0403 21:43:35.359117 12615 net.cpp:148] Top shape: 24 64 112 112 (19267584)
I0403 21:43:35.359135 12615 net.cpp:156] Memory required for data: 91522080
I0403 21:43:35.359168 12615 layer_factory.hpp:77] Creating layer conv1/relu_7x7
I0403 21:43:35.359200 12615 net.cpp:91] Creating Layer conv1/relu_7x7
I0403 21:43:35.359220 12615 net.cpp:425] conv1/relu_7x7 <- conv1/7x7_s2
I0403 21:43:35.359241 12615 net.cpp:386] conv1/relu_7x7 -> conv1/7x7_s2 (in-place)
I0403 21:43:35.359519 12615 net.cpp:141] Setting up conv1/relu_7x7
I0403 21:43:35.359545 12615 net.cpp:148] Top shape: 24 64 112 112 (19267584)
I0403 21:43:35.359560 12615 net.cpp:156] Memory required for data: 168592416
I0403 21:43:35.359576 12615 layer_factory.hpp:77] Creating layer pool1/3x3_s2
I0403 21:43:35.359601 12615 net.cpp:91] Creating Layer pool1/3x3_s2
I0403 21:43:35.359619 12615 net.cpp:425] pool1/3x3_s2 <- conv1/7x7_s2
I0403 21:43:35.359640 12615 net.cpp:399] pool1/3x3_s2 -> pool1/3x3_s2
I0403 21:43:35.359719 12615 net.cpp:141] Setting up pool1/3x3_s2
I0403 21:43:35.359743 12615 net.cpp:148] Top shape: 24 64 56 56 (4816896)
I0403 21:43:35.359758 12615 net.cpp:156] Memory required for data: 187860000
I0403 21:43:35.359773 12615 layer_factory.hpp:77] Creating layer pool1/norm1
I0403 21:43:35.359800 12615 net.cpp:91] Creating Layer pool1/norm1
I0403 21:43:35.359819 12615 net.cpp:425] pool1/norm1 <- pool1/3x3_s2
I0403 21:43:35.359838 12615 net.cpp:399] pool1/norm1 -> pool1/norm1
I0403 21:43:35.360139 12615 net.cpp:141] Setting up pool1/norm1
I0403 21:43:35.360168 12615 net.cpp:148] Top shape: 24 64 56 56 (4816896)
I0403 21:43:35.360190 12615 net.cpp:156] Memory required for data: 207127584
I0403 21:43:35.360208 12615 layer_factory.hpp:77] Creating layer conv2/3x3_reduce
I0403 21:43:35.360234 12615 net.cpp:91] Creating Layer conv2/3x3_reduce
I0403 21:43:35.360254 12615 net.cpp:425] conv2/3x3_reduce <- pool1/norm1
I0403 21:43:35.360278 12615 net.cpp:399] conv2/3x3_reduce -> conv2/3x3_reduce
I0403 21:43:35.361727 12615 net.cpp:141] Setting up conv2/3x3_reduce
I0403 21:43:35.361757 12615 net.cpp:148] Top shape: 24 64 56 56 (4816896)
I0403 21:43:35.361773 12615 net.cpp:156] Memory required for data: 226395168
I0403 21:43:35.361796 12615 layer_factory.hpp:77] Creating layer conv2/relu_3x3_reduce
I0403 21:43:35.361816 12615 net.cpp:91] Creating Layer conv2/relu_3x3_reduce
I0403 21:43:35.361834 12615 net.cpp:425] conv2/relu_3x3_reduce <- conv2/3x3_reduce
I0403 21:43:35.361851 12615 net.cpp:386] conv2/relu_3x3_reduce -> conv2/3x3_reduce (in-place)
I0403 21:43:35.362118 12615 net.cpp:141] Setting up conv2/relu_3x3_reduce
I0403 21:43:35.362144 12615 net.cpp:148] Top shape: 24 64 56 56 (4816896)
I0403 21:43:35.362160 12615 net.cpp:156] Memory required for data: 245662752
I0403 21:43:35.362175 12615 layer_factory.hpp:77] Creating layer conv2/3x3
I0403 21:43:35.362216 12615 net.cpp:91] Creating Layer conv2/3x3
I0403 21:43:35.362236 12615 net.cpp:425] conv2/3x3 <- conv2/3x3_reduce
I0403 21:43:35.362257 12615 net.cpp:399] conv2/3x3 -> conv2/3x3
I0403 21:43:35.364585 12615 net.cpp:141] Setting up conv2/3x3
I0403 21:43:35.364617 12615 net.cpp:148] Top shape: 24 192 56 56 (14450688)
I0403 21:43:35.364634 12615 net.cpp:156] Memory required for data: 303465504
I0403 21:43:35.364655 12615 layer_factory.hpp:77] Creating layer conv2/relu_3x3
I0403 21:43:35.364675 12615 net.cpp:91] Creating Layer conv2/relu_3x3
I0403 21:43:35.364692 12615 net.cpp:425] conv2/relu_3x3 <- conv2/3x3
I0403 21:43:35.364709 12615 net.cpp:386] conv2/relu_3x3 -> conv2/3x3 (in-place)
I0403 21:43:35.364886 12615 net.cpp:141] Setting up conv2/relu_3x3
I0403 21:43:35.364909 12615 net.cpp:148] Top shape: 24 192 56 56 (14450688)
I0403 21:43:35.364956 12615 net.cpp:156] Memory required for data: 361268256
I0403 21:43:35.364972 12615 layer_factory.hpp:77] Creating layer conv2/norm2
I0403 21:43:35.364995 12615 net.cpp:91] Creating Layer conv2/norm2
I0403 21:43:35.365010 12615 net.cpp:425] conv2/norm2 <- conv2/3x3
I0403 21:43:35.365030 12615 net.cpp:399] conv2/norm2 -> conv2/norm2
I0403 21:43:35.365332 12615 net.cpp:141] Setting up conv2/norm2
I0403 21:43:35.365360 12615 net.cpp:148] Top shape: 24 192 56 56 (14450688)
I0403 21:43:35.365375 12615 net.cpp:156] Memory required for data: 419071008
I0403 21:43:35.365391 12615 layer_factory.hpp:77] Creating layer pool2/3x3_s2
I0403 21:43:35.365411 12615 net.cpp:91] Creating Layer pool2/3x3_s2
I0403 21:43:35.365427 12615 net.cpp:425] pool2/3x3_s2 <- conv2/norm2
I0403 21:43:35.365445 12615 net.cpp:399] pool2/3x3_s2 -> pool2/3x3_s2
I0403 21:43:35.365500 12615 net.cpp:141] Setting up pool2/3x3_s2
I0403 21:43:35.365523 12615 net.cpp:148] Top shape: 24 192 28 28 (3612672)
I0403 21:43:35.365540 12615 net.cpp:156] Memory required for data: 433521696
I0403 21:43:35.365555 12615 layer_factory.hpp:77] Creating layer pool2/3x3_s2_pool2/3x3_s2_0_split
I0403 21:43:35.365572 12615 net.cpp:91] Creating Layer pool2/3x3_s2_pool2/3x3_s2_0_split
I0403 21:43:35.365589 12615 net.cpp:425] pool2/3x3_s2_pool2/3x3_s2_0_split <- pool2/3x3_s2
I0403 21:43:35.365608 12615 net.cpp:399] pool2/3x3_s2_pool2/3x3_s2_0_split -> pool2/3x3_s2_pool2/3x3_s2_0_split_0
I0403 21:43:35.365629 12615 net.cpp:399] pool2/3x3_s2_pool2/3x3_s2_0_split -> pool2/3x3_s2_pool2/3x3_s2_0_split_1
I0403 21:43:35.365649 12615 net.cpp:399] pool2/3x3_s2_pool2/3x3_s2_0_split -> pool2/3x3_s2_pool2/3x3_s2_0_split_2
I0403 21:43:35.365670 12615 net.cpp:399] pool2/3x3_s2_pool2/3x3_s2_0_split -> pool2/3x3_s2_pool2/3x3_s2_0_split_3
I0403 21:43:35.365743 12615 net.cpp:141] Setting up pool2/3x3_s2_pool2/3x3_s2_0_split
I0403 21:43:35.365767 12615 net.cpp:148] Top shape: 24 192 28 28 (3612672)
I0403 21:43:35.365784 12615 net.cpp:148] Top shape: 24 192 28 28 (3612672)
I0403 21:43:35.365800 12615 net.cpp:148] Top shape: 24 192 28 28 (3612672)
I0403 21:43:35.365816 12615 net.cpp:148] Top shape: 24 192 28 28 (3612672)
I0403 21:43:35.365830 12615 net.cpp:156] Memory required for data: 491324448
I0403 21:43:35.365845 12615 layer_factory.hpp:77] Creating layer inception_3a/1x1
I0403 21:43:35.365872 12615 net.cpp:91] Creating Layer inception_3a/1x1
I0403 21:43:35.365890 12615 net.cpp:425] inception_3a/1x1 <- pool2/3x3_s2_pool2/3x3_s2_0_split_0
I0403 21:43:35.365909 12615 net.cpp:399] inception_3a/1x1 -> inception_3a/1x1
I0403 21:43:35.367534 12615 net.cpp:141] Setting up inception_3a/1x1
I0403 21:43:35.367563 12615 net.cpp:148] Top shape: 24 64 28 28 (1204224)
I0403 21:43:35.367579 12615 net.cpp:156] Memory required for data: 496141344
I0403 21:43:35.367599 12615 layer_factory.hpp:77] Creating layer inception_3a/relu_1x1
I0403 21:43:35.367619 12615 net.cpp:91] Creating Layer inception_3a/relu_1x1
I0403 21:43:35.367637 12615 net.cpp:425] inception_3a/relu_1x1 <- inception_3a/1x1
I0403 21:43:35.367655 12615 net.cpp:386] inception_3a/relu_1x1 -> inception_3a/1x1 (in-place)
I0403 21:43:35.367825 12615 net.cpp:141] Setting up inception_3a/relu_1x1
I0403 21:43:35.367854 12615 net.cpp:148] Top shape: 24 64 28 28 (1204224)
I0403 21:43:35.367871 12615 net.cpp:156] Memory required for data: 500958240
I0403 21:43:35.367887 12615 layer_factory.hpp:77] Creating layer inception_3a/3x3_reduce
I0403 21:43:35.367908 12615 net.cpp:91] Creating Layer inception_3a/3x3_reduce
I0403 21:43:35.367926 12615 net.cpp:425] inception_3a/3x3_reduce <- pool2/3x3_s2_pool2/3x3_s2_0_split_1
I0403 21:43:35.367945 12615 net.cpp:399] inception_3a/3x3_reduce -> inception_3a/3x3_reduce
I0403 21:43:35.369698 12615 net.cpp:141] Setting up inception_3a/3x3_reduce
I0403 21:43:35.369740 12615 net.cpp:148] Top shape: 24 96 28 28 (1806336)
I0403 21:43:35.369755 12615 net.cpp:156] Memory required for data: 508183584
I0403 21:43:35.369779 12615 layer_factory.hpp:77] Creating layer inception_3a/relu_3x3_reduce
I0403 21:43:35.369815 12615 net.cpp:91] Creating Layer inception_3a/relu_3x3_reduce
I0403 21:43:35.369833 12615 net.cpp:425] inception_3a/relu_3x3_reduce <- inception_3a/3x3_reduce
I0403 21:43:35.369854 12615 net.cpp:386] inception_3a/relu_3x3_reduce -> inception_3a/3x3_reduce (in-place)
I0403 21:43:35.370038 12615 net.cpp:141] Setting up inception_3a/relu_3x3_reduce
I0403 21:43:35.370062 12615 net.cpp:148] Top shape: 24 96 28 28 (1806336)
I0403 21:43:35.370079 12615 net.cpp:156] Memory required for data: 515408928
I0403 21:43:35.370093 12615 layer_factory.hpp:77] Creating layer inception_3a/3x3
I0403 21:43:35.370115 12615 net.cpp:91] Creating Layer inception_3a/3x3
I0403 21:43:35.370132 12615 net.cpp:425] inception_3a/3x3 <- inception_3a/3x3_reduce
I0403 21:43:35.370157 12615 net.cpp:399] inception_3a/3x3 -> inception_3a/3x3
I0403 21:43:35.371827 12615 net.cpp:141] Setting up inception_3a/3x3
I0403 21:43:35.371857 12615 net.cpp:148] Top shape: 24 128 28 28 (2408448)
I0403 21:43:35.371875 12615 net.cpp:156] Memory required for data: 525042720
I0403 21:43:35.371892 12615 layer_factory.hpp:77] Creating layer inception_3a/relu_3x3
I0403 21:43:35.371911 12615 net.cpp:91] Creating Layer inception_3a/relu_3x3
I0403 21:43:35.371927 12615 net.cpp:425] inception_3a/relu_3x3 <- inception_3a/3x3
I0403 21:43:35.371947 12615 net.cpp:386] inception_3a/relu_3x3 -> inception_3a/3x3 (in-place)
I0403 21:43:35.372267 12615 net.cpp:141] Setting up inception_3a/relu_3x3
I0403 21:43:35.372295 12615 net.cpp:148] Top shape: 24 128 28 28 (2408448)
I0403 21:43:35.372311 12615 net.cpp:156] Memory required for data: 534676512
I0403 21:43:35.372326 12615 layer_factory.hpp:77] Creating layer inception_3a/5x5_reduce
I0403 21:43:35.372349 12615 net.cpp:91] Creating Layer inception_3a/5x5_reduce
I0403 21:43:35.372367 12615 net.cpp:425] inception_3a/5x5_reduce <- pool2/3x3_s2_pool2/3x3_s2_0_split_2
I0403 21:43:35.372386 12615 net.cpp:399] inception_3a/5x5_reduce -> inception_3a/5x5_reduce
I0403 21:43:35.373344 12615 net.cpp:141] Setting up inception_3a/5x5_reduce
I0403 21:43:35.373375 12615 net.cpp:148] Top shape: 24 16 28 28 (301056)
I0403 21:43:35.373391 12615 net.cpp:156] Memory required for data: 535880736
I0403 21:43:35.373409 12615 layer_factory.hpp:77] Creating layer inception_3a/relu_5x5_reduce
I0403 21:43:35.373428 12615 net.cpp:91] Creating Layer inception_3a/relu_5x5_reduce
I0403 21:43:35.373445 12615 net.cpp:425] inception_3a/relu_5x5_reduce <- inception_3a/5x5_reduce
I0403 21:43:35.373467 12615 net.cpp:386] inception_3a/relu_5x5_reduce -> inception_3a/5x5_reduce (in-place)
I0403 21:43:35.373740 12615 net.cpp:141] Setting up inception_3a/relu_5x5_reduce
I0403 21:43:35.373766 12615 net.cpp:148] Top shape: 24 16 28 28 (301056)
I0403 21:43:35.373782 12615 net.cpp:156] Memory required for data: 537084960
I0403 21:43:35.373797 12615 layer_factory.hpp:77] Creating layer inception_3a/5x5
I0403 21:43:35.373821 12615 net.cpp:91] Creating Layer inception_3a/5x5
I0403 21:43:35.373837 12615 net.cpp:425] inception_3a/5x5 <- inception_3a/5x5_reduce
I0403 21:43:35.373859 12615 net.cpp:399] inception_3a/5x5 -> inception_3a/5x5
I0403 21:43:35.374964 12615 net.cpp:141] Setting up inception_3a/5x5
I0403 21:43:35.374992 12615 net.cpp:148] Top shape: 24 32 28 28 (602112)
I0403 21:43:35.375007 12615 net.cpp:156] Memory required for data: 539493408
I0403 21:43:35.375026 12615 layer_factory.hpp:77] Creating layer inception_3a/relu_5x5
I0403 21:43:35.375048 12615 net.cpp:91] Creating Layer inception_3a/relu_5x5
I0403 21:43:35.375066 12615 net.cpp:425] inception_3a/relu_5x5 <- inception_3a/5x5
I0403 21:43:35.375084 12615 net.cpp:386] inception_3a/relu_5x5 -> inception_3a/5x5 (in-place)
I0403 21:43:35.375262 12615 net.cpp:141] Setting up inception_3a/relu_5x5
I0403 21:43:35.375286 12615 net.cpp:148] Top shape: 24 32 28 28 (602112)
I0403 21:43:35.375303 12615 net.cpp:156] Memory required for data: 541901856
I0403 21:43:35.375318 12615 layer_factory.hpp:77] Creating layer inception_3a/pool
I0403 21:43:35.375335 12615 net.cpp:91] Creating Layer inception_3a/pool
I0403 21:43:35.375352 12615 net.cpp:425] inception_3a/pool <- pool2/3x3_s2_pool2/3x3_s2_0_split_3
I0403 21:43:35.375390 12615 net.cpp:399] inception_3a/pool -> inception_3a/pool
I0403 21:43:35.375449 12615 net.cpp:141] Setting up inception_3a/pool
I0403 21:43:35.375473 12615 net.cpp:148] Top shape: 24 192 28 28 (3612672)
I0403 21:43:35.375488 12615 net.cpp:156] Memory required for data: 556352544
I0403 21:43:35.375502 12615 layer_factory.hpp:77] Creating layer inception_3a/pool_proj
I0403 21:43:35.375527 12615 net.cpp:91] Creating Layer inception_3a/pool_proj
I0403 21:43:35.375545 12615 net.cpp:425] inception_3a/pool_proj <- inception_3a/pool
I0403 21:43:35.375563 12615 net.cpp:399] inception_3a/pool_proj -> inception_3a/pool_proj
I0403 21:43:35.376526 12615 net.cpp:141] Setting up inception_3a/pool_proj
I0403 21:43:35.376555 12615 net.cpp:148] Top shape: 24 32 28 28 (602112)
I0403 21:43:35.376570 12615 net.cpp:156] Memory required for data: 558760992
I0403 21:43:35.376595 12615 layer_factory.hpp:77] Creating layer inception_3a/relu_pool_proj
I0403 21:43:35.376616 12615 net.cpp:91] Creating Layer inception_3a/relu_pool_proj
I0403 21:43:35.376632 12615 net.cpp:425] inception_3a/relu_pool_proj <- inception_3a/pool_proj
I0403 21:43:35.376652 12615 net.cpp:386] inception_3a/relu_pool_proj -> inception_3a/pool_proj (in-place)
I0403 21:43:35.376924 12615 net.cpp:141] Setting up inception_3a/relu_pool_proj
I0403 21:43:35.376952 12615 net.cpp:148] Top shape: 24 32 28 28 (602112)
I0403 21:43:35.376968 12615 net.cpp:156] Memory required for data: 561169440
I0403 21:43:35.376983 12615 layer_factory.hpp:77] Creating layer inception_3a/output
I0403 21:43:35.377002 12615 net.cpp:91] Creating Layer inception_3a/output
I0403 21:43:35.377018 12615 net.cpp:425] inception_3a/output <- inception_3a/1x1
I0403 21:43:35.377034 12615 net.cpp:425] inception_3a/output <- inception_3a/3x3
I0403 21:43:35.377051 12615 net.cpp:425] inception_3a/output <- inception_3a/5x5
I0403 21:43:35.377068 12615 net.cpp:425] inception_3a/output <- inception_3a/pool_proj
I0403 21:43:35.377085 12615 net.cpp:399] inception_3a/output -> inception_3a/output
I0403 21:43:35.377133 12615 net.cpp:141] Setting up inception_3a/output
I0403 21:43:35.377156 12615 net.cpp:148] Top shape: 24 256 28 28 (4816896)
I0403 21:43:35.377171 12615 net.cpp:156] Memory required for data: 580437024
I0403 21:43:35.377192 12615 layer_factory.hpp:77] Creating layer inception_3a/output_inception_3a/output_0_split
I0403 21:43:35.377210 12615 net.cpp:91] Creating Layer inception_3a/output_inception_3a/output_0_split
I0403 21:43:35.377226 12615 net.cpp:425] inception_3a/output_inception_3a/output_0_split <- inception_3a/output
I0403 21:43:35.377249 12615 net.cpp:399] inception_3a/output_inception_3a/output_0_split -> inception_3a/output_inception_3a/output_0_split_0
I0403 21:43:35.377271 12615 net.cpp:399] inception_3a/output_inception_3a/output_0_split -> inception_3a/output_inception_3a/output_0_split_1
I0403 21:43:35.377295 12615 net.cpp:399] inception_3a/output_inception_3a/output_0_split -> inception_3a/output_inception_3a/output_0_split_2
I0403 21:43:35.377318 12615 net.cpp:399] inception_3a/output_inception_3a/output_0_split -> inception_3a/output_inception_3a/output_0_split_3
I0403 21:43:35.377393 12615 net.cpp:141] Setting up inception_3a/output_inception_3a/output_0_split
I0403 21:43:35.377415 12615 net.cpp:148] Top shape: 24 256 28 28 (4816896)
I0403 21:43:35.377435 12615 net.cpp:148] Top shape: 24 256 28 28 (4816896)
I0403 21:43:35.377452 12615 net.cpp:148] Top shape: 24 256 28 28 (4816896)
I0403 21:43:35.377468 12615 net.cpp:148] Top shape: 24 256 28 28 (4816896)
I0403 21:43:35.377482 12615 net.cpp:156] Memory required for data: 657507360
I0403 21:43:35.377496 12615 layer_factory.hpp:77] Creating layer inception_3b/1x1
I0403 21:43:35.377516 12615 net.cpp:91] Creating Layer inception_3b/1x1
I0403 21:43:35.377533 12615 net.cpp:425] inception_3b/1x1 <- inception_3a/output_inception_3a/output_0_split_0
I0403 21:43:35.377554 12615 net.cpp:399] inception_3b/1x1 -> inception_3b/1x1
I0403 21:43:35.378684 12615 net.cpp:141] Setting up inception_3b/1x1
I0403 21:43:35.378723 12615 net.cpp:148] Top shape: 24 128 28 28 (2408448)
I0403 21:43:35.378739 12615 net.cpp:156] Memory required for data: 667141152
I0403 21:43:35.378758 12615 layer_factory.hpp:77] Creating layer inception_3b/relu_1x1
I0403 21:43:35.378780 12615 net.cpp:91] Creating Layer inception_3b/relu_1x1
I0403 21:43:35.378798 12615 net.cpp:425] inception_3b/relu_1x1 <- inception_3b/1x1
I0403 21:43:35.378816 12615 net.cpp:386] inception_3b/relu_1x1 -> inception_3b/1x1 (in-place)
I0403 21:43:35.378990 12615 net.cpp:141] Setting up inception_3b/relu_1x1
I0403 21:43:35.379017 12615 net.cpp:148] Top shape: 24 128 28 28 (2408448)
I0403 21:43:35.379034 12615 net.cpp:156] Memory required for data: 676774944
I0403 21:43:35.379050 12615 layer_factory.hpp:77] Creating layer inception_3b/3x3_reduce
I0403 21:43:35.379076 12615 net.cpp:91] Creating Layer inception_3b/3x3_reduce
I0403 21:43:35.379094 12615 net.cpp:425] inception_3b/3x3_reduce <- inception_3a/output_inception_3a/output_0_split_1
I0403 21:43:35.379113 12615 net.cpp:399] inception_3b/3x3_reduce -> inception_3b/3x3_reduce
I0403 21:43:35.380246 12615 net.cpp:141] Setting up inception_3b/3x3_reduce
I0403 21:43:35.380275 12615 net.cpp:148] Top shape: 24 128 28 28 (2408448)
I0403 21:43:35.380290 12615 net.cpp:156] Memory required for data: 686408736
I0403 21:43:35.380309 12615 layer_factory.hpp:77] Creating layer inception_3b/relu_3x3_reduce
I0403 21:43:35.380331 12615 net.cpp:91] Creating Layer inception_3b/relu_3x3_reduce
I0403 21:43:35.380347 12615 net.cpp:425] inception_3b/relu_3x3_reduce <- inception_3b/3x3_reduce
I0403 21:43:35.380365 12615 net.cpp:386] inception_3b/relu_3x3_reduce -> inception_3b/3x3_reduce (in-place)
I0403 21:43:35.380537 12615 net.cpp:141] Setting up inception_3b/relu_3x3_reduce
I0403 21:43:35.380564 12615 net.cpp:148] Top shape: 24 128 28 28 (2408448)
I0403 21:43:35.380581 12615 net.cpp:156] Memory required for data: 696042528
I0403 21:43:35.380596 12615 layer_factory.hpp:77] Creating layer inception_3b/3x3
I0403 21:43:35.380620 12615 net.cpp:91] Creating Layer inception_3b/3x3
I0403 21:43:35.380640 12615 net.cpp:425] inception_3b/3x3 <- inception_3b/3x3_reduce
I0403 21:43:35.380661 12615 net.cpp:399] inception_3b/3x3 -> inception_3b/3x3
I0403 21:43:35.383587 12615 net.cpp:141] Setting up inception_3b/3x3
I0403 21:43:35.383616 12615 net.cpp:148] Top shape: 24 192 28 28 (3612672)
I0403 21:43:35.383633 12615 net.cpp:156] Memory required for data: 710493216
I0403 21:43:35.383656 12615 layer_factory.hpp:77] Creating layer inception_3b/relu_3x3
I0403 21:43:35.383674 12615 net.cpp:91] Creating Layer inception_3b/relu_3x3
I0403 21:43:35.383690 12615 net.cpp:425] inception_3b/relu_3x3 <- inception_3b/3x3
I0403 21:43:35.383709 12615 net.cpp:386] inception_3b/relu_3x3 -> inception_3b/3x3 (in-place)
I0403 21:43:35.383996 12615 net.cpp:141] Setting up inception_3b/relu_3x3
I0403 21:43:35.384024 12615 net.cpp:148] Top shape: 24 192 28 28 (3612672)
I0403 21:43:35.384040 12615 net.cpp:156] Memory required for data: 724943904
I0403 21:43:35.384057 12615 layer_factory.hpp:77] Creating layer inception_3b/5x5_reduce
I0403 21:43:35.384079 12615 net.cpp:91] Creating Layer inception_3b/5x5_reduce
I0403 21:43:35.384099 12615 net.cpp:425] inception_3b/5x5_reduce <- inception_3a/output_inception_3a/output_0_split_2
I0403 21:43:35.384119 12615 net.cpp:399] inception_3b/5x5_reduce -> inception_3b/5x5_reduce
I0403 21:43:35.385155 12615 net.cpp:141] Setting up inception_3b/5x5_reduce
I0403 21:43:35.385190 12615 net.cpp:148] Top shape: 24 32 28 28 (602112)
I0403 21:43:35.385207 12615 net.cpp:156] Memory required for data: 727352352
I0403 21:43:35.385226 12615 layer_factory.hpp:77] Creating layer inception_3b/relu_5x5_reduce
I0403 21:43:35.385248 12615 net.cpp:91] Creating Layer inception_3b/relu_5x5_reduce
I0403 21:43:35.385267 12615 net.cpp:425] inception_3b/relu_5x5_reduce <- inception_3b/5x5_reduce
I0403 21:43:35.385285 12615 net.cpp:386] inception_3b/relu_5x5_reduce -> inception_3b/5x5_reduce (in-place)
I0403 21:43:35.385468 12615 net.cpp:141] Setting up inception_3b/relu_5x5_reduce
I0403 21:43:35.385504 12615 net.cpp:148] Top shape: 24 32 28 28 (602112)
I0403 21:43:35.385520 12615 net.cpp:156] Memory required for data: 729760800
I0403 21:43:35.385537 12615 layer_factory.hpp:77] Creating layer inception_3b/5x5
I0403 21:43:35.385560 12615 net.cpp:91] Creating Layer inception_3b/5x5
I0403 21:43:35.385581 12615 net.cpp:425] inception_3b/5x5 <- inception_3b/5x5_reduce
I0403 21:43:35.385603 12615 net.cpp:399] inception_3b/5x5 -> inception_3b/5x5
I0403 21:43:35.387666 12615 net.cpp:141] Setting up inception_3b/5x5
I0403 21:43:35.387697 12615 net.cpp:148] Top shape: 24 96 28 28 (1806336)
I0403 21:43:35.387713 12615 net.cpp:156] Memory required for data: 736986144
I0403 21:43:35.387734 12615 layer_factory.hpp:77] Creating layer inception_3b/relu_5x5
I0403 21:43:35.387756 12615 net.cpp:91] Creating Layer inception_3b/relu_5x5
I0403 21:43:35.387774 12615 net.cpp:425] inception_3b/relu_5x5 <- inception_3b/5x5
I0403 21:43:35.387794 12615 net.cpp:386] inception_3b/relu_5x5 -> inception_3b/5x5 (in-place)
I0403 21:43:35.387991 12615 net.cpp:141] Setting up inception_3b/relu_5x5
I0403 21:43:35.388018 12615 net.cpp:148] Top shape: 24 96 28 28 (1806336)
I0403 21:43:35.388036 12615 net.cpp:156] Memory required for data: 744211488
I0403 21:43:35.388051 12615 layer_factory.hpp:77] Creating layer inception_3b/pool
I0403 21:43:35.388069 12615 net.cpp:91] Creating Layer inception_3b/pool
I0403 21:43:35.388087 12615 net.cpp:425] inception_3b/pool <- inception_3a/output_inception_3a/output_0_split_3
I0403 21:43:35.388104 12615 net.cpp:399] inception_3b/pool -> inception_3b/pool
I0403 21:43:35.388162 12615 net.cpp:141] Setting up inception_3b/pool
I0403 21:43:35.388190 12615 net.cpp:148] Top shape: 24 256 28 28 (4816896)
I0403 21:43:35.388207 12615 net.cpp:156] Memory required for data: 763479072
I0403 21:43:35.388222 12615 layer_factory.hpp:77] Creating layer inception_3b/pool_proj
I0403 21:43:35.388247 12615 net.cpp:91] Creating Layer inception_3b/pool_proj
I0403 21:43:35.388264 12615 net.cpp:425] inception_3b/pool_proj <- inception_3b/pool
I0403 21:43:35.388286 12615 net.cpp:399] inception_3b/pool_proj -> inception_3b/pool_proj
I0403 21:43:35.389367 12615 net.cpp:141] Setting up inception_3b/pool_proj
I0403 21:43:35.389395 12615 net.cpp:148] Top shape: 24 64 28 28 (1204224)
I0403 21:43:35.389410 12615 net.cpp:156] Memory required for data: 768295968
I0403 21:43:35.389430 12615 layer_factory.hpp:77] Creating layer inception_3b/relu_pool_proj
I0403 21:43:35.389449 12615 net.cpp:91] Creating Layer inception_3b/relu_pool_proj
I0403 21:43:35.389466 12615 net.cpp:425] inception_3b/relu_pool_proj <- inception_3b/pool_proj
I0403 21:43:35.389485 12615 net.cpp:386] inception_3b/relu_pool_proj -> inception_3b/pool_proj (in-place)
I0403 21:43:35.389866 12615 net.cpp:141] Setting up inception_3b/relu_pool_proj
I0403 21:43:35.389900 12615 net.cpp:148] Top shape: 24 64 28 28 (1204224)
I0403 21:43:35.389917 12615 net.cpp:156] Memory required for data: 773112864
I0403 21:43:35.389935 12615 layer_factory.hpp:77] Creating layer inception_3b/output
I0403 21:43:35.389952 12615 net.cpp:91] Creating Layer inception_3b/output
I0403 21:43:35.389969 12615 net.cpp:425] inception_3b/output <- inception_3b/1x1
I0403 21:43:35.389987 12615 net.cpp:425] inception_3b/output <- inception_3b/3x3
I0403 21:43:35.390005 12615 net.cpp:425] inception_3b/output <- inception_3b/5x5
I0403 21:43:35.390022 12615 net.cpp:425] inception_3b/output <- inception_3b/pool_proj
I0403 21:43:35.390043 12615 net.cpp:399] inception_3b/output -> inception_3b/output
I0403 21:43:35.390087 12615 net.cpp:141] Setting up inception_3b/output
I0403 21:43:35.390110 12615 net.cpp:148] Top shape: 24 480 28 28 (9031680)
I0403 21:43:35.390126 12615 net.cpp:156] Memory required for data: 809239584
I0403 21:43:35.390142 12615 layer_factory.hpp:77] Creating layer pool3/3x3_s2
I0403 21:43:35.390163 12615 net.cpp:91] Creating Layer pool3/3x3_s2
I0403 21:43:35.390185 12615 net.cpp:425] pool3/3x3_s2 <- inception_3b/output
I0403 21:43:35.390207 12615 net.cpp:399] pool3/3x3_s2 -> pool3/3x3_s2
I0403 21:43:35.390282 12615 net.cpp:141] Setting up pool3/3x3_s2
I0403 21:43:35.390306 12615 net.cpp:148] Top shape: 24 480 14 14 (2257920)
I0403 21:43:35.390321 12615 net.cpp:156] Memory required for data: 818271264
I0403 21:43:35.390336 12615 layer_factory.hpp:77] Creating layer pool3/3x3_s2_pool3/3x3_s2_0_split
I0403 21:43:35.390354 12615 net.cpp:91] Creating Layer pool3/3x3_s2_pool3/3x3_s2_0_split
I0403 21:43:35.390370 12615 net.cpp:425] pool3/3x3_s2_pool3/3x3_s2_0_split <- pool3/3x3_s2
I0403 21:43:35.390390 12615 net.cpp:399] pool3/3x3_s2_pool3/3x3_s2_0_split -> pool3/3x3_s2_pool3/3x3_s2_0_split_0
I0403 21:43:35.390413 12615 net.cpp:399] pool3/3x3_s2_pool3/3x3_s2_0_split -> pool3/3x3_s2_pool3/3x3_s2_0_split_1
I0403 21:43:35.390434 12615 net.cpp:399] pool3/3x3_s2_pool3/3x3_s2_0_split -> pool3/3x3_s2_pool3/3x3_s2_0_split_2
I0403 21:43:35.390455 12615 net.cpp:399] pool3/3x3_s2_pool3/3x3_s2_0_split -> pool3/3x3_s2_pool3/3x3_s2_0_split_3
I0403 21:43:35.390535 12615 net.cpp:141] Setting up pool3/3x3_s2_pool3/3x3_s2_0_split
I0403 21:43:35.390559 12615 net.cpp:148] Top shape: 24 480 14 14 (2257920)
I0403 21:43:35.390576 12615 net.cpp:148] Top shape: 24 480 14 14 (2257920)
I0403 21:43:35.390594 12615 net.cpp:148] Top shape: 24 480 14 14 (2257920)
I0403 21:43:35.390609 12615 net.cpp:148] Top shape: 24 480 14 14 (2257920)
I0403 21:43:35.390637 12615 net.cpp:156] Memory required for data: 854397984
I0403 21:43:35.390652 12615 layer_factory.hpp:77] Creating layer inception_4a/1x1
I0403 21:43:35.390674 12615 net.cpp:91] Creating Layer inception_4a/1x1
I0403 21:43:35.390691 12615 net.cpp:425] inception_4a/1x1 <- pool3/3x3_s2_pool3/3x3_s2_0_split_0
I0403 21:43:35.390713 12615 net.cpp:399] inception_4a/1x1 -> inception_4a/1x1
I0403 21:43:35.392284 12615 net.cpp:141] Setting up inception_4a/1x1
I0403 21:43:35.392313 12615 net.cpp:148] Top shape: 24 192 14 14 (903168)
I0403 21:43:35.392328 12615 net.cpp:156] Memory required for data: 858010656
I0403 21:43:35.392349 12615 layer_factory.hpp:77] Creating layer inception_4a/relu_1x1
I0403 21:43:35.392366 12615 net.cpp:91] Creating Layer inception_4a/relu_1x1
I0403 21:43:35.392382 12615 net.cpp:425] inception_4a/relu_1x1 <- inception_4a/1x1
I0403 21:43:35.392402 12615 net.cpp:386] inception_4a/relu_1x1 -> inception_4a/1x1 (in-place)
I0403 21:43:35.392580 12615 net.cpp:141] Setting up inception_4a/relu_1x1
I0403 21:43:35.392606 12615 net.cpp:148] Top shape: 24 192 14 14 (903168)
I0403 21:43:35.392619 12615 net.cpp:156] Memory required for data: 861623328
I0403 21:43:35.392635 12615 layer_factory.hpp:77] Creating layer inception_4a/3x3_reduce
I0403 21:43:35.392657 12615 net.cpp:91] Creating Layer inception_4a/3x3_reduce
I0403 21:43:35.392675 12615 net.cpp:425] inception_4a/3x3_reduce <- pool3/3x3_s2_pool3/3x3_s2_0_split_1
I0403 21:43:35.392696 12615 net.cpp:399] inception_4a/3x3_reduce -> inception_4a/3x3_reduce
I0403 21:43:35.393964 12615 net.cpp:141] Setting up inception_4a/3x3_reduce
I0403 21:43:35.393991 12615 net.cpp:148] Top shape: 24 96 14 14 (451584)
I0403 21:43:35.394006 12615 net.cpp:156] Memory required for data: 863429664
I0403 21:43:35.394032 12615 layer_factory.hpp:77] Creating layer inception_4a/relu_3x3_reduce
I0403 21:43:35.394053 12615 net.cpp:91] Creating Layer inception_4a/relu_3x3_reduce
I0403 21:43:35.394069 12615 net.cpp:425] inception_4a/relu_3x3_reduce <- inception_4a/3x3_reduce
I0403 21:43:35.394089 12615 net.cpp:386] inception_4a/relu_3x3_reduce -> inception_4a/3x3_reduce (in-place)
I0403 21:43:35.394274 12615 net.cpp:141] Setting up inception_4a/relu_3x3_reduce
I0403 21:43:35.394300 12615 net.cpp:148] Top shape: 24 96 14 14 (451584)
I0403 21:43:35.394315 12615 net.cpp:156] Memory required for data: 865236000
I0403 21:43:35.394331 12615 layer_factory.hpp:77] Creating layer inception_4a/3x3
I0403 21:43:35.394353 12615 net.cpp:91] Creating Layer inception_4a/3x3
I0403 21:43:35.394372 12615 net.cpp:425] inception_4a/3x3 <- inception_4a/3x3_reduce
I0403 21:43:35.394394 12615 net.cpp:399] inception_4a/3x3 -> inception_4a/3x3
I0403 21:43:35.397080 12615 net.cpp:141] Setting up inception_4a/3x3
I0403 21:43:35.397109 12615 net.cpp:148] Top shape: 24 208 14 14 (978432)
I0403 21:43:35.397125 12615 net.cpp:156] Memory required for data: 869149728
I0403 21:43:35.397143 12615 layer_factory.hpp:77] Creating layer inception_4a/relu_3x3
I0403 21:43:35.397164 12615 net.cpp:91] Creating Layer inception_4a/relu_3x3
I0403 21:43:35.397187 12615 net.cpp:425] inception_4a/relu_3x3 <- inception_4a/3x3
I0403 21:43:35.397207 12615 net.cpp:386] inception_4a/relu_3x3 -> inception_4a/3x3 (in-place)
I0403 21:43:35.397480 12615 net.cpp:141] Setting up inception_4a/relu_3x3
I0403 21:43:35.397507 12615 net.cpp:148] Top shape: 24 208 14 14 (978432)
I0403 21:43:35.397522 12615 net.cpp:156] Memory required for data: 873063456
I0403 21:43:35.397537 12615 layer_factory.hpp:77] Creating layer inception_4a/5x5_reduce
I0403 21:43:35.397560 12615 net.cpp:91] Creating Layer inception_4a/5x5_reduce
I0403 21:43:35.397579 12615 net.cpp:425] inception_4a/5x5_reduce <- pool3/3x3_s2_pool3/3x3_s2_0_split_2
I0403 21:43:35.397603 12615 net.cpp:399] inception_4a/5x5_reduce -> inception_4a/5x5_reduce
I0403 21:43:35.398627 12615 net.cpp:141] Setting up inception_4a/5x5_reduce
I0403 21:43:35.398656 12615 net.cpp:148] Top shape: 24 16 14 14 (75264)
I0403 21:43:35.398671 12615 net.cpp:156] Memory required for data: 873364512
I0403 21:43:35.398690 12615 layer_factory.hpp:77] Creating layer inception_4a/relu_5x5_reduce
I0403 21:43:35.398711 12615 net.cpp:91] Creating Layer inception_4a/relu_5x5_reduce
I0403 21:43:35.398728 12615 net.cpp:425] inception_4a/relu_5x5_reduce <- inception_4a/5x5_reduce
I0403 21:43:35.398747 12615 net.cpp:386] inception_4a/relu_5x5_reduce -> inception_4a/5x5_reduce (in-place)
I0403 21:43:35.398926 12615 net.cpp:141] Setting up inception_4a/relu_5x5_reduce
I0403 21:43:35.398952 12615 net.cpp:148] Top shape: 24 16 14 14 (75264)
I0403 21:43:35.398967 12615 net.cpp:156] Memory required for data: 873665568
I0403 21:43:35.398983 12615 layer_factory.hpp:77] Creating layer inception_4a/5x5
I0403 21:43:35.399005 12615 net.cpp:91] Creating Layer inception_4a/5x5
I0403 21:43:35.399022 12615 net.cpp:425] inception_4a/5x5 <- inception_4a/5x5_reduce
I0403 21:43:35.399044 12615 net.cpp:399] inception_4a/5x5 -> inception_4a/5x5
I0403 21:43:35.400140 12615 net.cpp:141] Setting up inception_4a/5x5
I0403 21:43:35.400169 12615 net.cpp:148] Top shape: 24 48 14 14 (225792)
I0403 21:43:35.400192 12615 net.cpp:156] Memory required for data: 874568736
I0403 21:43:35.400213 12615 layer_factory.hpp:77] Creating layer inception_4a/relu_5x5
I0403 21:43:35.400230 12615 net.cpp:91] Creating Layer inception_4a/relu_5x5
I0403 21:43:35.400248 12615 net.cpp:425] inception_4a/relu_5x5 <- inception_4a/5x5
I0403 21:43:35.400266 12615 net.cpp:386] inception_4a/relu_5x5 -> inception_4a/5x5 (in-place)
I0403 21:43:35.400445 12615 net.cpp:141] Setting up inception_4a/relu_5x5
I0403 21:43:35.400470 12615 net.cpp:148] Top shape: 24 48 14 14 (225792)
I0403 21:43:35.400486 12615 net.cpp:156] Memory required for data: 875471904
I0403 21:43:35.400501 12615 layer_factory.hpp:77] Creating layer inception_4a/pool
I0403 21:43:35.400519 12615 net.cpp:91] Creating Layer inception_4a/pool
I0403 21:43:35.400534 12615 net.cpp:425] inception_4a/pool <- pool3/3x3_s2_pool3/3x3_s2_0_split_3
I0403 21:43:35.400554 12615 net.cpp:399] inception_4a/pool -> inception_4a/pool
I0403 21:43:35.400620 12615 net.cpp:141] Setting up inception_4a/pool
I0403 21:43:35.400645 12615 net.cpp:148] Top shape: 24 480 14 14 (2257920)
I0403 21:43:35.400660 12615 net.cpp:156] Memory required for data: 884503584
I0403 21:43:35.400674 12615 layer_factory.hpp:77] Creating layer inception_4a/pool_proj
I0403 21:43:35.400696 12615 net.cpp:91] Creating Layer inception_4a/pool_proj
I0403 21:43:35.400714 12615 net.cpp:425] inception_4a/pool_proj <- inception_4a/pool
I0403 21:43:35.400737 12615 net.cpp:399] inception_4a/pool_proj -> inception_4a/pool_proj
I0403 21:43:35.401909 12615 net.cpp:141] Setting up inception_4a/pool_proj
I0403 21:43:35.401939 12615 net.cpp:148] Top shape: 24 64 14 14 (301056)
I0403 21:43:35.401973 12615 net.cpp:156] Memory required for data: 885707808
I0403 21:43:35.401993 12615 layer_factory.hpp:77] Creating layer inception_4a/relu_pool_proj
I0403 21:43:35.402014 12615 net.cpp:91] Creating Layer inception_4a/relu_pool_proj
I0403 21:43:35.402031 12615 net.cpp:425] inception_4a/relu_pool_proj <- inception_4a/pool_proj
I0403 21:43:35.402050 12615 net.cpp:386] inception_4a/relu_pool_proj -> inception_4a/pool_proj (in-place)
I0403 21:43:35.402345 12615 net.cpp:141] Setting up inception_4a/relu_pool_proj
I0403 21:43:35.402374 12615 net.cpp:148] Top shape: 24 64 14 14 (301056)
I0403 21:43:35.402390 12615 net.cpp:156] Memory required for data: 886912032
I0403 21:43:35.402405 12615 layer_factory.hpp:77] Creating layer inception_4a/output
I0403 21:43:35.402421 12615 net.cpp:91] Creating Layer inception_4a/output
I0403 21:43:35.402437 12615 net.cpp:425] inception_4a/output <- inception_4a/1x1
I0403 21:43:35.402454 12615 net.cpp:425] inception_4a/output <- inception_4a/3x3
I0403 21:43:35.402470 12615 net.cpp:425] inception_4a/output <- inception_4a/5x5
I0403 21:43:35.402498 12615 net.cpp:425] inception_4a/output <- inception_4a/pool_proj
I0403 21:43:35.402516 12615 net.cpp:399] inception_4a/output -> inception_4a/output
I0403 21:43:35.402570 12615 net.cpp:141] Setting up inception_4a/output
I0403 21:43:35.402595 12615 net.cpp:148] Top shape: 24 512 14 14 (2408448)
I0403 21:43:35.402611 12615 net.cpp:156] Memory required for data: 896545824
I0403 21:43:35.402626 12615 layer_factory.hpp:77] Creating layer inception_4a/output_inception_4a/output_0_split
I0403 21:43:35.402643 12615 net.cpp:91] Creating Layer inception_4a/output_inception_4a/output_0_split
I0403 21:43:35.402658 12615 net.cpp:425] inception_4a/output_inception_4a/output_0_split <- inception_4a/output
I0403 21:43:35.402678 12615 net.cpp:399] inception_4a/output_inception_4a/output_0_split -> inception_4a/output_inception_4a/output_0_split_0
I0403 21:43:35.402698 12615 net.cpp:399] inception_4a/output_inception_4a/output_0_split -> inception_4a/output_inception_4a/output_0_split_1
I0403 21:43:35.402719 12615 net.cpp:399] inception_4a/output_inception_4a/output_0_split -> inception_4a/output_inception_4a/output_0_split_2
I0403 21:43:35.402740 12615 net.cpp:399] inception_4a/output_inception_4a/output_0_split -> inception_4a/output_inception_4a/output_0_split_3
I0403 21:43:35.402760 12615 net.cpp:399] inception_4a/output_inception_4a/output_0_split -> inception_4a/output_inception_4a/output_0_split_4
I0403 21:43:35.402851 12615 net.cpp:141] Setting up inception_4a/output_inception_4a/output_0_split
I0403 21:43:35.402873 12615 net.cpp:148] Top shape: 24 512 14 14 (2408448)
I0403 21:43:35.402890 12615 net.cpp:148] Top shape: 24 512 14 14 (2408448)
I0403 21:43:35.402905 12615 net.cpp:148] Top shape: 24 512 14 14 (2408448)
I0403 21:43:35.402921 12615 net.cpp:148] Top shape: 24 512 14 14 (2408448)
I0403 21:43:35.402936 12615 net.cpp:148] Top shape: 24 512 14 14 (2408448)
I0403 21:43:35.402951 12615 net.cpp:156] Memory required for data: 944714784
I0403 21:43:35.402966 12615 layer_factory.hpp:77] Creating layer loss1/ave_pool
I0403 21:43:35.402984 12615 net.cpp:91] Creating Layer loss1/ave_pool
I0403 21:43:35.403002 12615 net.cpp:425] loss1/ave_pool <- inception_4a/output_inception_4a/output_0_split_0
I0403 21:43:35.403019 12615 net.cpp:399] loss1/ave_pool -> loss1/ave_pool
I0403 21:43:35.403225 12615 net.cpp:141] Setting up loss1/ave_pool
I0403 21:43:35.403250 12615 net.cpp:148] Top shape: 24 512 4 4 (196608)
I0403 21:43:35.403265 12615 net.cpp:156] Memory required for data: 945501216
I0403 21:43:35.403280 12615 layer_factory.hpp:77] Creating layer loss1/conv
I0403 21:43:35.403301 12615 net.cpp:91] Creating Layer loss1/conv
I0403 21:43:35.403319 12615 net.cpp:425] loss1/conv <- loss1/ave_pool
I0403 21:43:35.403339 12615 net.cpp:399] loss1/conv -> loss1/conv
I0403 21:43:35.404702 12615 net.cpp:141] Setting up loss1/conv
I0403 21:43:35.404731 12615 net.cpp:148] Top shape: 24 128 4 4 (49152)
I0403 21:43:35.404745 12615 net.cpp:156] Memory required for data: 945697824
I0403 21:43:35.404778 12615 layer_factory.hpp:77] Creating layer loss1/relu_conv
I0403 21:43:35.404800 12615 net.cpp:91] Creating Layer loss1/relu_conv
I0403 21:43:35.404817 12615 net.cpp:425] loss1/relu_conv <- loss1/conv
I0403 21:43:35.404835 12615 net.cpp:386] loss1/relu_conv -> loss1/conv (in-place)
I0403 21:43:35.405110 12615 net.cpp:141] Setting up loss1/relu_conv
I0403 21:43:35.405136 12615 net.cpp:148] Top shape: 24 128 4 4 (49152)
I0403 21:43:35.405151 12615 net.cpp:156] Memory required for data: 945894432
I0403 21:43:35.405165 12615 layer_factory.hpp:77] Creating layer loss1/fc
I0403 21:43:35.405195 12615 net.cpp:91] Creating Layer loss1/fc
I0403 21:43:35.405215 12615 net.cpp:425] loss1/fc <- loss1/conv
I0403 21:43:35.405236 12615 net.cpp:399] loss1/fc -> loss1/fc
I0403 21:43:35.422793 12615 net.cpp:141] Setting up loss1/fc
I0403 21:43:35.422826 12615 net.cpp:148] Top shape: 24 1024 (24576)
I0403 21:43:35.422840 12615 net.cpp:156] Memory required for data: 945992736
I0403 21:43:35.422858 12615 layer_factory.hpp:77] Creating layer loss1/relu_fc
I0403 21:43:35.422875 12615 net.cpp:91] Creating Layer loss1/relu_fc
I0403 21:43:35.422893 12615 net.cpp:425] loss1/relu_fc <- loss1/fc
I0403 21:43:35.422912 12615 net.cpp:386] loss1/relu_fc -> loss1/fc (in-place)
I0403 21:43:35.423096 12615 net.cpp:141] Setting up loss1/relu_fc
I0403 21:43:35.423120 12615 net.cpp:148] Top shape: 24 1024 (24576)
I0403 21:43:35.423136 12615 net.cpp:156] Memory required for data: 946091040
I0403 21:43:35.423151 12615 layer_factory.hpp:77] Creating layer loss1/drop_fc
I0403 21:43:35.423182 12615 net.cpp:91] Creating Layer loss1/drop_fc
I0403 21:43:35.423200 12615 net.cpp:425] loss1/drop_fc <- loss1/fc
I0403 21:43:35.423218 12615 net.cpp:386] loss1/drop_fc -> loss1/fc (in-place)
I0403 21:43:35.423270 12615 net.cpp:141] Setting up loss1/drop_fc
I0403 21:43:35.423293 12615 net.cpp:148] Top shape: 24 1024 (24576)
I0403 21:43:35.423308 12615 net.cpp:156] Memory required for data: 946189344
I0403 21:43:35.423323 12615 layer_factory.hpp:77] Creating layer loss1/classifier_plantvillage
I0403 21:43:35.423341 12615 net.cpp:91] Creating Layer loss1/classifier_plantvillage
I0403 21:43:35.423355 12615 net.cpp:425] loss1/classifier_plantvillage <- loss1/fc
I0403 21:43:35.423377 12615 net.cpp:399] loss1/classifier_plantvillage -> loss1/classifier_plantvillage
I0403 21:43:35.424296 12615 net.cpp:141] Setting up loss1/classifier_plantvillage
I0403 21:43:35.424324 12615 net.cpp:148] Top shape: 24 38 (912)
I0403 21:43:35.424338 12615 net.cpp:156] Memory required for data: 946192992
I0403 21:43:35.424356 12615 layer_factory.hpp:77] Creating layer loss1/classifier_plantvillage_loss1/classifier_plantvillage_0_split
I0403 21:43:35.424377 12615 net.cpp:91] Creating Layer loss1/classifier_plantvillage_loss1/classifier_plantvillage_0_split
I0403 21:43:35.424394 12615 net.cpp:425] loss1/classifier_plantvillage_loss1/classifier_plantvillage_0_split <- loss1/classifier_plantvillage
I0403 21:43:35.424412 12615 net.cpp:399] loss1/classifier_plantvillage_loss1/classifier_plantvillage_0_split -> loss1/classifier_plantvillage_loss1/classifier_plantvillage_0_split_0
I0403 21:43:35.424432 12615 net.cpp:399] loss1/classifier_plantvillage_loss1/classifier_plantvillage_0_split -> loss1/classifier_plantvillage_loss1/classifier_plantvillage_0_split_1
I0403 21:43:35.424451 12615 net.cpp:399] loss1/classifier_plantvillage_loss1/classifier_plantvillage_0_split -> loss1/classifier_plantvillage_loss1/classifier_plantvillage_0_split_2
I0403 21:43:35.424520 12615 net.cpp:141] Setting up loss1/classifier_plantvillage_loss1/classifier_plantvillage_0_split
I0403 21:43:35.424542 12615 net.cpp:148] Top shape: 24 38 (912)
I0403 21:43:35.424558 12615 net.cpp:148] Top shape: 24 38 (912)
I0403 21:43:35.424573 12615 net.cpp:148] Top shape: 24 38 (912)
I0403 21:43:35.424587 12615 net.cpp:156] Memory required for data: 946203936
I0403 21:43:35.424602 12615 layer_factory.hpp:77] Creating layer inception_4b/1x1
I0403 21:43:35.424624 12615 net.cpp:91] Creating Layer inception_4b/1x1
I0403 21:43:35.424655 12615 net.cpp:425] inception_4b/1x1 <- inception_4a/output_inception_4a/output_0_split_1
I0403 21:43:35.424674 12615 net.cpp:399] inception_4b/1x1 -> inception_4b/1x1
I0403 21:43:35.426251 12615 net.cpp:141] Setting up inception_4b/1x1
I0403 21:43:35.426280 12615 net.cpp:148] Top shape: 24 160 14 14 (752640)
I0403 21:43:35.426295 12615 net.cpp:156] Memory required for data: 949214496
I0403 21:43:35.426313 12615 layer_factory.hpp:77] Creating layer inception_4b/relu_1x1
I0403 21:43:35.426333 12615 net.cpp:91] Creating Layer inception_4b/relu_1x1
I0403 21:43:35.426350 12615 net.cpp:425] inception_4b/relu_1x1 <- inception_4b/1x1
I0403 21:43:35.426367 12615 net.cpp:386] inception_4b/relu_1x1 -> inception_4b/1x1 (in-place)
I0403 21:43:35.426542 12615 net.cpp:141] Setting up inception_4b/relu_1x1
I0403 21:43:35.426569 12615 net.cpp:148] Top shape: 24 160 14 14 (752640)
I0403 21:43:35.426584 12615 net.cpp:156] Memory required for data: 952225056
I0403 21:43:35.426599 12615 layer_factory.hpp:77] Creating layer inception_4b/3x3_reduce
I0403 21:43:35.426622 12615 net.cpp:91] Creating Layer inception_4b/3x3_reduce
I0403 21:43:35.426640 12615 net.cpp:425] inception_4b/3x3_reduce <- inception_4a/output_inception_4a/output_0_split_2
I0403 21:43:35.426662 12615 net.cpp:399] inception_4b/3x3_reduce -> inception_4b/3x3_reduce
I0403 21:43:35.427976 12615 net.cpp:141] Setting up inception_4b/3x3_reduce
I0403 21:43:35.428006 12615 net.cpp:148] Top shape: 24 112 14 14 (526848)
I0403 21:43:35.428023 12615 net.cpp:156] Memory required for data: 954332448
I0403 21:43:35.428041 12615 layer_factory.hpp:77] Creating layer inception_4b/relu_3x3_reduce
I0403 21:43:35.428059 12615 net.cpp:91] Creating Layer inception_4b/relu_3x3_reduce
I0403 21:43:35.428074 12615 net.cpp:425] inception_4b/relu_3x3_reduce <- inception_4b/3x3_reduce
I0403 21:43:35.428093 12615 net.cpp:386] inception_4b/relu_3x3_reduce -> inception_4b/3x3_reduce (in-place)
I0403 21:43:35.428375 12615 net.cpp:141] Setting up inception_4b/relu_3x3_reduce
I0403 21:43:35.428403 12615 net.cpp:148] Top shape: 24 112 14 14 (526848)
I0403 21:43:35.428421 12615 net.cpp:156] Memory required for data: 956439840
I0403 21:43:35.428436 12615 layer_factory.hpp:77] Creating layer inception_4b/3x3
I0403 21:43:35.428457 12615 net.cpp:91] Creating Layer inception_4b/3x3
I0403 21:43:35.428474 12615 net.cpp:425] inception_4b/3x3 <- inception_4b/3x3_reduce
I0403 21:43:35.428493 12615 net.cpp:399] inception_4b/3x3 -> inception_4b/3x3
I0403 21:43:35.431439 12615 net.cpp:141] Setting up inception_4b/3x3
I0403 21:43:35.431468 12615 net.cpp:148] Top shape: 24 224 14 14 (1053696)
I0403 21:43:35.431484 12615 net.cpp:156] Memory required for data: 960654624
I0403 21:43:35.431502 12615 layer_factory.hpp:77] Creating layer inception_4b/relu_3x3
I0403 21:43:35.431521 12615 net.cpp:91] Creating Layer inception_4b/relu_3x3
I0403 21:43:35.431537 12615 net.cpp:425] inception_4b/relu_3x3 <- inception_4b/3x3
I0403 21:43:35.431557 12615 net.cpp:386] inception_4b/relu_3x3 -> inception_4b/3x3 (in-place)
I0403 21:43:35.431735 12615 net.cpp:141] Setting up inception_4b/relu_3x3
I0403 21:43:35.431759 12615 net.cpp:148] Top shape: 24 224 14 14 (1053696)
I0403 21:43:35.431776 12615 net.cpp:156] Memory required for data: 964869408
I0403 21:43:35.431789 12615 layer_factory.hpp:77] Creating layer inception_4b/5x5_reduce
I0403 21:43:35.431812 12615 net.cpp:91] Creating Layer inception_4b/5x5_reduce
I0403 21:43:35.431829 12615 net.cpp:425] inception_4b/5x5_reduce <- inception_4a/output_inception_4a/output_0_split_3
I0403 21:43:35.431851 12615 net.cpp:399] inception_4b/5x5_reduce -> inception_4b/5x5_reduce
I0403 21:43:35.432929 12615 net.cpp:141] Setting up inception_4b/5x5_reduce
I0403 21:43:35.432962 12615 net.cpp:148] Top shape: 24 24 14 14 (112896)
I0403 21:43:35.432979 12615 net.cpp:156] Memory required for data: 965320992
I0403 21:43:35.432996 12615 layer_factory.hpp:77] Creating layer inception_4b/relu_5x5_reduce
I0403 21:43:35.433017 12615 net.cpp:91] Creating Layer inception_4b/relu_5x5_reduce
I0403 21:43:35.433045 12615 net.cpp:425] inception_4b/relu_5x5_reduce <- inception_4b/5x5_reduce
I0403 21:43:35.433063 12615 net.cpp:386] inception_4b/relu_5x5_reduce -> inception_4b/5x5_reduce (in-place)
I0403 21:43:35.433269 12615 net.cpp:141] Setting up inception_4b/relu_5x5_reduce
I0403 21:43:35.433295 12615 net.cpp:148] Top shape: 24 24 14 14 (112896)
I0403 21:43:35.433310 12615 net.cpp:156] Memory required for data: 965772576
I0403 21:43:35.433325 12615 layer_factory.hpp:77] Creating layer inception_4b/5x5
I0403 21:43:35.433346 12615 net.cpp:91] Creating Layer inception_4b/5x5
I0403 21:43:35.433364 12615 net.cpp:425] inception_4b/5x5 <- inception_4b/5x5_reduce
I0403 21:43:35.433385 12615 net.cpp:399] inception_4b/5x5 -> inception_4b/5x5
I0403 21:43:35.434624 12615 net.cpp:141] Setting up inception_4b/5x5
I0403 21:43:35.434653 12615 net.cpp:148] Top shape: 24 64 14 14 (301056)
I0403 21:43:35.434667 12615 net.cpp:156] Memory required for data: 966976800
I0403 21:43:35.434687 12615 layer_factory.hpp:77] Creating layer inception_4b/relu_5x5
I0403 21:43:35.434707 12615 net.cpp:91] Creating Layer inception_4b/relu_5x5
I0403 21:43:35.434726 12615 net.cpp:425] inception_4b/relu_5x5 <- inception_4b/5x5
I0403 21:43:35.434743 12615 net.cpp:386] inception_4b/relu_5x5 -> inception_4b/5x5 (in-place)
I0403 21:43:35.435027 12615 net.cpp:141] Setting up inception_4b/relu_5x5
I0403 21:43:35.435055 12615 net.cpp:148] Top shape: 24 64 14 14 (301056)
I0403 21:43:35.435070 12615 net.cpp:156] Memory required for data: 968181024
I0403 21:43:35.435086 12615 layer_factory.hpp:77] Creating layer inception_4b/pool
I0403 21:43:35.435106 12615 net.cpp:91] Creating Layer inception_4b/pool
I0403 21:43:35.435122 12615 net.cpp:425] inception_4b/pool <- inception_4a/output_inception_4a/output_0_split_4
I0403 21:43:35.435142 12615 net.cpp:399] inception_4b/pool -> inception_4b/pool
I0403 21:43:35.435214 12615 net.cpp:141] Setting up inception_4b/pool
I0403 21:43:35.435237 12615 net.cpp:148] Top shape: 24 512 14 14 (2408448)
I0403 21:43:35.435252 12615 net.cpp:156] Memory required for data: 977814816
I0403 21:43:35.435267 12615 layer_factory.hpp:77] Creating layer inception_4b/pool_proj
I0403 21:43:35.435289 12615 net.cpp:91] Creating Layer inception_4b/pool_proj
I0403 21:43:35.435307 12615 net.cpp:425] inception_4b/pool_proj <- inception_4b/pool
I0403 21:43:35.435329 12615 net.cpp:399] inception_4b/pool_proj -> inception_4b/pool_proj
I0403 21:43:35.436539 12615 net.cpp:141] Setting up inception_4b/pool_proj
I0403 21:43:35.436568 12615 net.cpp:148] Top shape: 24 64 14 14 (301056)
I0403 21:43:35.436583 12615 net.cpp:156] Memory required for data: 979019040
I0403 21:43:35.436601 12615 layer_factory.hpp:77] Creating layer inception_4b/relu_pool_proj
I0403 21:43:35.436626 12615 net.cpp:91] Creating Layer inception_4b/relu_pool_proj
I0403 21:43:35.436645 12615 net.cpp:425] inception_4b/relu_pool_proj <- inception_4b/pool_proj
I0403 21:43:35.436662 12615 net.cpp:386] inception_4b/relu_pool_proj -> inception_4b/pool_proj (in-place)
I0403 21:43:35.436846 12615 net.cpp:141] Setting up inception_4b/relu_pool_proj
I0403 21:43:35.436872 12615 net.cpp:148] Top shape: 24 64 14 14 (301056)
I0403 21:43:35.436887 12615 net.cpp:156] Memory required for data: 980223264
I0403 21:43:35.436902 12615 layer_factory.hpp:77] Creating layer inception_4b/output
I0403 21:43:35.436920 12615 net.cpp:91] Creating Layer inception_4b/output
I0403 21:43:35.436936 12615 net.cpp:425] inception_4b/output <- inception_4b/1x1
I0403 21:43:35.436954 12615 net.cpp:425] inception_4b/output <- inception_4b/3x3
I0403 21:43:35.436969 12615 net.cpp:425] inception_4b/output <- inception_4b/5x5
I0403 21:43:35.436985 12615 net.cpp:425] inception_4b/output <- inception_4b/pool_proj
I0403 21:43:35.437005 12615 net.cpp:399] inception_4b/output -> inception_4b/output
I0403 21:43:35.437052 12615 net.cpp:141] Setting up inception_4b/output
I0403 21:43:35.437077 12615 net.cpp:148] Top shape: 24 512 14 14 (2408448)
I0403 21:43:35.437093 12615 net.cpp:156] Memory required for data: 989857056
I0403 21:43:35.437121 12615 layer_factory.hpp:77] Creating layer inception_4b/output_inception_4b/output_0_split
I0403 21:43:35.437139 12615 net.cpp:91] Creating Layer inception_4b/output_inception_4b/output_0_split
I0403 21:43:35.437155 12615 net.cpp:425] inception_4b/output_inception_4b/output_0_split <- inception_4b/output
I0403 21:43:35.437172 12615 net.cpp:399] inception_4b/output_inception_4b/output_0_split -> inception_4b/output_inception_4b/output_0_split_0
I0403 21:43:35.437201 12615 net.cpp:399] inception_4b/output_inception_4b/output_0_split -> inception_4b/output_inception_4b/output_0_split_1
I0403 21:43:35.437223 12615 net.cpp:399] inception_4b/output_inception_4b/output_0_split -> inception_4b/output_inception_4b/output_0_split_2
I0403 21:43:35.437244 12615 net.cpp:399] inception_4b/output_inception_4b/output_0_split -> inception_4b/output_inception_4b/output_0_split_3
I0403 21:43:35.437332 12615 net.cpp:141] Setting up inception_4b/output_inception_4b/output_0_split
I0403 21:43:35.437355 12615 net.cpp:148] Top shape: 24 512 14 14 (2408448)
I0403 21:43:35.437372 12615 net.cpp:148] Top shape: 24 512 14 14 (2408448)
I0403 21:43:35.437387 12615 net.cpp:148] Top shape: 24 512 14 14 (2408448)
I0403 21:43:35.437403 12615 net.cpp:148] Top shape: 24 512 14 14 (2408448)
I0403 21:43:35.437417 12615 net.cpp:156] Memory required for data: 1028392224
I0403 21:43:35.437433 12615 layer_factory.hpp:77] Creating layer inception_4c/1x1
I0403 21:43:35.437454 12615 net.cpp:91] Creating Layer inception_4c/1x1
I0403 21:43:35.437472 12615 net.cpp:425] inception_4c/1x1 <- inception_4b/output_inception_4b/output_0_split_0
I0403 21:43:35.437494 12615 net.cpp:399] inception_4c/1x1 -> inception_4c/1x1
I0403 21:43:35.438933 12615 net.cpp:141] Setting up inception_4c/1x1
I0403 21:43:35.438961 12615 net.cpp:148] Top shape: 24 128 14 14 (602112)
I0403 21:43:35.438977 12615 net.cpp:156] Memory required for data: 1030800672
I0403 21:43:35.438997 12615 layer_factory.hpp:77] Creating layer inception_4c/relu_1x1
I0403 21:43:35.439014 12615 net.cpp:91] Creating Layer inception_4c/relu_1x1
I0403 21:43:35.439031 12615 net.cpp:425] inception_4c/relu_1x1 <- inception_4c/1x1
I0403 21:43:35.439050 12615 net.cpp:386] inception_4c/relu_1x1 -> inception_4c/1x1 (in-place)
I0403 21:43:35.439244 12615 net.cpp:141] Setting up inception_4c/relu_1x1
I0403 21:43:35.439270 12615 net.cpp:148] Top shape: 24 128 14 14 (602112)
I0403 21:43:35.439285 12615 net.cpp:156] Memory required for data: 1033209120
I0403 21:43:35.439301 12615 layer_factory.hpp:77] Creating layer inception_4c/3x3_reduce
I0403 21:43:35.439322 12615 net.cpp:91] Creating Layer inception_4c/3x3_reduce
I0403 21:43:35.439340 12615 net.cpp:425] inception_4c/3x3_reduce <- inception_4b/output_inception_4b/output_0_split_1
I0403 21:43:35.439363 12615 net.cpp:399] inception_4c/3x3_reduce -> inception_4c/3x3_reduce
I0403 21:43:35.441347 12615 net.cpp:141] Setting up inception_4c/3x3_reduce
I0403 21:43:35.441377 12615 net.cpp:148] Top shape: 24 128 14 14 (602112)
I0403 21:43:35.441393 12615 net.cpp:156] Memory required for data: 1035617568
I0403 21:43:35.441412 12615 layer_factory.hpp:77] Creating layer inception_4c/relu_3x3_reduce
I0403 21:43:35.441433 12615 net.cpp:91] Creating Layer inception_4c/relu_3x3_reduce
I0403 21:43:35.441452 12615 net.cpp:425] inception_4c/relu_3x3_reduce <- inception_4c/3x3_reduce
I0403 21:43:35.441469 12615 net.cpp:386] inception_4c/relu_3x3_reduce -> inception_4c/3x3_reduce (in-place)
I0403 21:43:35.441758 12615 net.cpp:141] Setting up inception_4c/relu_3x3_reduce
I0403 21:43:35.441786 12615 net.cpp:148] Top shape: 24 128 14 14 (602112)
I0403 21:43:35.441800 12615 net.cpp:156] Memory required for data: 1038026016
I0403 21:43:35.441814 12615 layer_factory.hpp:77] Creating layer inception_4c/3x3
I0403 21:43:35.441838 12615 net.cpp:91] Creating Layer inception_4c/3x3
I0403 21:43:35.441856 12615 net.cpp:425] inception_4c/3x3 <- inception_4c/3x3_reduce
I0403 21:43:35.441879 12615 net.cpp:399] inception_4c/3x3 -> inception_4c/3x3
I0403 21:43:35.445541 12615 net.cpp:141] Setting up inception_4c/3x3
I0403 21:43:35.445585 12615 net.cpp:148] Top shape: 24 256 14 14 (1204224)
I0403 21:43:35.445600 12615 net.cpp:156] Memory required for data: 1042842912
I0403 21:43:35.445633 12615 layer_factory.hpp:77] Creating layer inception_4c/relu_3x3
I0403 21:43:35.445658 12615 net.cpp:91] Creating Layer inception_4c/relu_3x3
I0403 21:43:35.445677 12615 net.cpp:425] inception_4c/relu_3x3 <- inception_4c/3x3
I0403 21:43:35.445694 12615 net.cpp:386] inception_4c/relu_3x3 -> inception_4c/3x3 (in-place)
I0403 21:43:35.445880 12615 net.cpp:141] Setting up inception_4c/relu_3x3
I0403 21:43:35.445909 12615 net.cpp:148] Top shape: 24 256 14 14 (1204224)
I0403 21:43:35.445924 12615 net.cpp:156] Memory required for data: 1047659808
I0403 21:43:35.445940 12615 layer_factory.hpp:77] Creating layer inception_4c/5x5_reduce
I0403 21:43:35.445965 12615 net.cpp:91] Creating Layer inception_4c/5x5_reduce
I0403 21:43:35.445983 12615 net.cpp:425] inception_4c/5x5_reduce <- inception_4b/output_inception_4b/output_0_split_2
I0403 21:43:35.446003 12615 net.cpp:399] inception_4c/5x5_reduce -> inception_4c/5x5_reduce
I0403 21:43:35.447118 12615 net.cpp:141] Setting up inception_4c/5x5_reduce
I0403 21:43:35.447147 12615 net.cpp:148] Top shape: 24 24 14 14 (112896)
I0403 21:43:35.447165 12615 net.cpp:156] Memory required for data: 1048111392
I0403 21:43:35.447188 12615 layer_factory.hpp:77] Creating layer inception_4c/relu_5x5_reduce
I0403 21:43:35.447208 12615 net.cpp:91] Creating Layer inception_4c/relu_5x5_reduce
I0403 21:43:35.447227 12615 net.cpp:425] inception_4c/relu_5x5_reduce <- inception_4c/5x5_reduce
I0403 21:43:35.447244 12615 net.cpp:386] inception_4c/relu_5x5_reduce -> inception_4c/5x5_reduce (in-place)
I0403 21:43:35.447437 12615 net.cpp:141] Setting up inception_4c/relu_5x5_reduce
I0403 21:43:35.447463 12615 net.cpp:148] Top shape: 24 24 14 14 (112896)
I0403 21:43:35.447479 12615 net.cpp:156] Memory required for data: 1048562976
I0403 21:43:35.447494 12615 layer_factory.hpp:77] Creating layer inception_4c/5x5
I0403 21:43:35.447516 12615 net.cpp:91] Creating Layer inception_4c/5x5
I0403 21:43:35.447535 12615 net.cpp:425] inception_4c/5x5 <- inception_4c/5x5_reduce
I0403 21:43:35.447556 12615 net.cpp:399] inception_4c/5x5 -> inception_4c/5x5
I0403 21:43:35.448802 12615 net.cpp:141] Setting up inception_4c/5x5
I0403 21:43:35.448832 12615 net.cpp:148] Top shape: 24 64 14 14 (301056)
I0403 21:43:35.448848 12615 net.cpp:156] Memory required for data: 1049767200
I0403 21:43:35.448868 12615 layer_factory.hpp:77] Creating layer inception_4c/relu_5x5
I0403 21:43:35.448884 12615 net.cpp:91] Creating Layer inception_4c/relu_5x5
I0403 21:43:35.448900 12615 net.cpp:425] inception_4c/relu_5x5 <- inception_4c/5x5
I0403 21:43:35.448920 12615 net.cpp:386] inception_4c/relu_5x5 -> inception_4c/5x5 (in-place)
I0403 21:43:35.449213 12615 net.cpp:141] Setting up inception_4c/relu_5x5
I0403 21:43:35.449240 12615 net.cpp:148] Top shape: 24 64 14 14 (301056)
I0403 21:43:35.449256 12615 net.cpp:156] Memory required for data: 1050971424
I0403 21:43:35.449272 12615 layer_factory.hpp:77] Creating layer inception_4c/pool
I0403 21:43:35.449290 12615 net.cpp:91] Creating Layer inception_4c/pool
I0403 21:43:35.449306 12615 net.cpp:425] inception_4c/pool <- inception_4b/output_inception_4b/output_0_split_3
I0403 21:43:35.449327 12615 net.cpp:399] inception_4c/pool -> inception_4c/pool
I0403 21:43:35.449395 12615 net.cpp:141] Setting up inception_4c/pool
I0403 21:43:35.449420 12615 net.cpp:148] Top shape: 24 512 14 14 (2408448)
I0403 21:43:35.449436 12615 net.cpp:156] Memory required for data: 1060605216
I0403 21:43:35.449451 12615 layer_factory.hpp:77] Creating layer inception_4c/pool_proj
I0403 21:43:35.449476 12615 net.cpp:91] Creating Layer inception_4c/pool_proj
I0403 21:43:35.449493 12615 net.cpp:425] inception_4c/pool_proj <- inception_4c/pool
I0403 21:43:35.449512 12615 net.cpp:399] inception_4c/pool_proj -> inception_4c/pool_proj
I0403 21:43:35.450743 12615 net.cpp:141] Setting up inception_4c/pool_proj
I0403 21:43:35.450773 12615 net.cpp:148] Top shape: 24 64 14 14 (301056)
I0403 21:43:35.450803 12615 net.cpp:156] Memory required for data: 1061809440
I0403 21:43:35.450822 12615 layer_factory.hpp:77] Creating layer inception_4c/relu_pool_proj
I0403 21:43:35.450844 12615 net.cpp:91] Creating Layer inception_4c/relu_pool_proj
I0403 21:43:35.450860 12615 net.cpp:425] inception_4c/relu_pool_proj <- inception_4c/pool_proj
I0403 21:43:35.450878 12615 net.cpp:386] inception_4c/relu_pool_proj -> inception_4c/pool_proj (in-place)
I0403 21:43:35.451067 12615 net.cpp:141] Setting up inception_4c/relu_pool_proj
I0403 21:43:35.451093 12615 net.cpp:148] Top shape: 24 64 14 14 (301056)
I0403 21:43:35.451107 12615 net.cpp:156] Memory required for data: 1063013664
I0403 21:43:35.451123 12615 layer_factory.hpp:77] Creating layer inception_4c/output
I0403 21:43:35.451153 12615 net.cpp:91] Creating Layer inception_4c/output
I0403 21:43:35.451169 12615 net.cpp:425] inception_4c/output <- inception_4c/1x1
I0403 21:43:35.451194 12615 net.cpp:425] inception_4c/output <- inception_4c/3x3
I0403 21:43:35.451220 12615 net.cpp:425] inception_4c/output <- inception_4c/5x5
I0403 21:43:35.451236 12615 net.cpp:425] inception_4c/output <- inception_4c/pool_proj
I0403 21:43:35.451256 12615 net.cpp:399] inception_4c/output -> inception_4c/output
I0403 21:43:35.451302 12615 net.cpp:141] Setting up inception_4c/output
I0403 21:43:35.451328 12615 net.cpp:148] Top shape: 24 512 14 14 (2408448)
I0403 21:43:35.451342 12615 net.cpp:156] Memory required for data: 1072647456
I0403 21:43:35.451357 12615 layer_factory.hpp:77] Creating layer inception_4c/output_inception_4c/output_0_split
I0403 21:43:35.451375 12615 net.cpp:91] Creating Layer inception_4c/output_inception_4c/output_0_split
I0403 21:43:35.451390 12615 net.cpp:425] inception_4c/output_inception_4c/output_0_split <- inception_4c/output
I0403 21:43:35.451406 12615 net.cpp:399] inception_4c/output_inception_4c/output_0_split -> inception_4c/output_inception_4c/output_0_split_0
I0403 21:43:35.451427 12615 net.cpp:399] inception_4c/output_inception_4c/output_0_split -> inception_4c/output_inception_4c/output_0_split_1
I0403 21:43:35.451448 12615 net.cpp:399] inception_4c/output_inception_4c/output_0_split -> inception_4c/output_inception_4c/output_0_split_2
I0403 21:43:35.451470 12615 net.cpp:399] inception_4c/output_inception_4c/output_0_split -> inception_4c/output_inception_4c/output_0_split_3
I0403 21:43:35.451556 12615 net.cpp:141] Setting up inception_4c/output_inception_4c/output_0_split
I0403 21:43:35.451578 12615 net.cpp:148] Top shape: 24 512 14 14 (2408448)
I0403 21:43:35.451596 12615 net.cpp:148] Top shape: 24 512 14 14 (2408448)
I0403 21:43:35.451611 12615 net.cpp:148] Top shape: 24 512 14 14 (2408448)
I0403 21:43:35.451625 12615 net.cpp:148] Top shape: 24 512 14 14 (2408448)
I0403 21:43:35.451639 12615 net.cpp:156] Memory required for data: 1111182624
I0403 21:43:35.451654 12615 layer_factory.hpp:77] Creating layer inception_4d/1x1
I0403 21:43:35.451675 12615 net.cpp:91] Creating Layer inception_4d/1x1
I0403 21:43:35.451692 12615 net.cpp:425] inception_4d/1x1 <- inception_4c/output_inception_4c/output_0_split_0
I0403 21:43:35.451714 12615 net.cpp:399] inception_4d/1x1 -> inception_4d/1x1
I0403 21:43:35.453070 12615 net.cpp:141] Setting up inception_4d/1x1
I0403 21:43:35.453099 12615 net.cpp:148] Top shape: 24 112 14 14 (526848)
I0403 21:43:35.453114 12615 net.cpp:156] Memory required for data: 1113290016
I0403 21:43:35.453132 12615 layer_factory.hpp:77] Creating layer inception_4d/relu_1x1
I0403 21:43:35.453152 12615 net.cpp:91] Creating Layer inception_4d/relu_1x1
I0403 21:43:35.453171 12615 net.cpp:425] inception_4d/relu_1x1 <- inception_4d/1x1
I0403 21:43:35.453192 12615 net.cpp:386] inception_4d/relu_1x1 -> inception_4d/1x1 (in-place)
I0403 21:43:35.453374 12615 net.cpp:141] Setting up inception_4d/relu_1x1
I0403 21:43:35.453402 12615 net.cpp:148] Top shape: 24 112 14 14 (526848)
I0403 21:43:35.453416 12615 net.cpp:156] Memory required for data: 1115397408
I0403 21:43:35.453433 12615 layer_factory.hpp:77] Creating layer inception_4d/3x3_reduce
I0403 21:43:35.453465 12615 net.cpp:91] Creating Layer inception_4d/3x3_reduce
I0403 21:43:35.453483 12615 net.cpp:425] inception_4d/3x3_reduce <- inception_4c/output_inception_4c/output_0_split_1
I0403 21:43:35.453505 12615 net.cpp:399] inception_4d/3x3_reduce -> inception_4d/3x3_reduce
I0403 21:43:35.454983 12615 net.cpp:141] Setting up inception_4d/3x3_reduce
I0403 21:43:35.455010 12615 net.cpp:148] Top shape: 24 144 14 14 (677376)
I0403 21:43:35.455025 12615 net.cpp:156] Memory required for data: 1118106912
I0403 21:43:35.455044 12615 layer_factory.hpp:77] Creating layer inception_4d/relu_3x3_reduce
I0403 21:43:35.455061 12615 net.cpp:91] Creating Layer inception_4d/relu_3x3_reduce
I0403 21:43:35.455077 12615 net.cpp:425] inception_4d/relu_3x3_reduce <- inception_4d/3x3_reduce
I0403 21:43:35.455097 12615 net.cpp:386] inception_4d/relu_3x3_reduce -> inception_4d/3x3_reduce (in-place)
I0403 21:43:35.455386 12615 net.cpp:141] Setting up inception_4d/relu_3x3_reduce
I0403 21:43:35.455413 12615 net.cpp:148] Top shape: 24 144 14 14 (677376)
I0403 21:43:35.455428 12615 net.cpp:156] Memory required for data: 1120816416
I0403 21:43:35.455442 12615 layer_factory.hpp:77] Creating layer inception_4d/3x3
I0403 21:43:35.455466 12615 net.cpp:91] Creating Layer inception_4d/3x3
I0403 21:43:35.455482 12615 net.cpp:425] inception_4d/3x3 <- inception_4d/3x3_reduce
I0403 21:43:35.455503 12615 net.cpp:399] inception_4d/3x3 -> inception_4d/3x3
I0403 21:43:35.459709 12615 net.cpp:141] Setting up inception_4d/3x3
I0403 21:43:35.459738 12615 net.cpp:148] Top shape: 24 288 14 14 (1354752)
I0403 21:43:35.459753 12615 net.cpp:156] Memory required for data: 1126235424
I0403 21:43:35.459771 12615 layer_factory.hpp:77] Creating layer inception_4d/relu_3x3
I0403 21:43:35.459792 12615 net.cpp:91] Creating Layer inception_4d/relu_3x3
I0403 21:43:35.459810 12615 net.cpp:425] inception_4d/relu_3x3 <- inception_4d/3x3
I0403 21:43:35.459827 12615 net.cpp:386] inception_4d/relu_3x3 -> inception_4d/3x3 (in-place)
I0403 21:43:35.460011 12615 net.cpp:141] Setting up inception_4d/relu_3x3
I0403 21:43:35.460037 12615 net.cpp:148] Top shape: 24 288 14 14 (1354752)
I0403 21:43:35.460053 12615 net.cpp:156] Memory required for data: 1131654432
I0403 21:43:35.460067 12615 layer_factory.hpp:77] Creating layer inception_4d/5x5_reduce
I0403 21:43:35.460088 12615 net.cpp:91] Creating Layer inception_4d/5x5_reduce
I0403 21:43:35.460106 12615 net.cpp:425] inception_4d/5x5_reduce <- inception_4c/output_inception_4c/output_0_split_2
I0403 21:43:35.460126 12615 net.cpp:399] inception_4d/5x5_reduce -> inception_4d/5x5_reduce
I0403 21:43:35.461262 12615 net.cpp:141] Setting up inception_4d/5x5_reduce
I0403 21:43:35.461288 12615 net.cpp:148] Top shape: 24 32 14 14 (150528)
I0403 21:43:35.461304 12615 net.cpp:156] Memory required for data: 1132256544
I0403 21:43:35.461323 12615 layer_factory.hpp:77] Creating layer inception_4d/relu_5x5_reduce
I0403 21:43:35.461343 12615 net.cpp:91] Creating Layer inception_4d/relu_5x5_reduce
I0403 21:43:35.461359 12615 net.cpp:425] inception_4d/relu_5x5_reduce <- inception_4d/5x5_reduce
I0403 21:43:35.461375 12615 net.cpp:386] inception_4d/relu_5x5_reduce -> inception_4d/5x5_reduce (in-place)
I0403 21:43:35.461557 12615 net.cpp:141] Setting up inception_4d/relu_5x5_reduce
I0403 21:43:35.461585 12615 net.cpp:148] Top shape: 24 32 14 14 (150528)
I0403 21:43:35.461601 12615 net.cpp:156] Memory required for data: 1132858656
I0403 21:43:35.461616 12615 layer_factory.hpp:77] Creating layer inception_4d/5x5
I0403 21:43:35.461637 12615 net.cpp:91] Creating Layer inception_4d/5x5
I0403 21:43:35.461654 12615 net.cpp:425] inception_4d/5x5 <- inception_4d/5x5_reduce
I0403 21:43:35.461673 12615 net.cpp:399] inception_4d/5x5 -> inception_4d/5x5
I0403 21:43:35.463119 12615 net.cpp:141] Setting up inception_4d/5x5
I0403 21:43:35.463312 12615 net.cpp:148] Top shape: 24 64 14 14 (301056)
I0403 21:43:35.463335 12615 net.cpp:156] Memory required for data: 1134062880
I0403 21:43:35.463357 12615 layer_factory.hpp:77] Creating layer inception_4d/relu_5x5
I0403 21:43:35.463393 12615 net.cpp:91] Creating Layer inception_4d/relu_5x5
I0403 21:43:35.463412 12615 net.cpp:425] inception_4d/relu_5x5 <- inception_4d/5x5
I0403 21:43:35.463428 12615 net.cpp:386] inception_4d/relu_5x5 -> inception_4d/5x5 (in-place)
I0403 21:43:35.463752 12615 net.cpp:141] Setting up inception_4d/relu_5x5
I0403 21:43:35.463783 12615 net.cpp:148] Top shape: 24 64 14 14 (301056)
I0403 21:43:35.463798 12615 net.cpp:156] Memory required for data: 1135267104
I0403 21:43:35.463812 12615 layer_factory.hpp:77] Creating layer inception_4d/pool
I0403 21:43:35.463830 12615 net.cpp:91] Creating Layer inception_4d/pool
I0403 21:43:35.463846 12615 net.cpp:425] inception_4d/pool <- inception_4c/output_inception_4c/output_0_split_3
I0403 21:43:35.463867 12615 net.cpp:399] inception_4d/pool -> inception_4d/pool
I0403 21:43:35.463933 12615 net.cpp:141] Setting up inception_4d/pool
I0403 21:43:35.463956 12615 net.cpp:148] Top shape: 24 512 14 14 (2408448)
I0403 21:43:35.463971 12615 net.cpp:156] Memory required for data: 1144900896
I0403 21:43:35.463985 12615 layer_factory.hpp:77] Creating layer inception_4d/pool_proj
I0403 21:43:35.464006 12615 net.cpp:91] Creating Layer inception_4d/pool_proj
I0403 21:43:35.464026 12615 net.cpp:425] inception_4d/pool_proj <- inception_4d/pool
I0403 21:43:35.464046 12615 net.cpp:399] inception_4d/pool_proj -> inception_4d/pool_proj
I0403 21:43:35.465798 12615 net.cpp:141] Setting up inception_4d/pool_proj
I0403 21:43:35.465827 12615 net.cpp:148] Top shape: 24 64 14 14 (301056)
I0403 21:43:35.465842 12615 net.cpp:156] Memory required for data: 1146105120
I0403 21:43:35.465862 12615 layer_factory.hpp:77] Creating layer inception_4d/relu_pool_proj
I0403 21:43:35.465883 12615 net.cpp:91] Creating Layer inception_4d/relu_pool_proj
I0403 21:43:35.465899 12615 net.cpp:425] inception_4d/relu_pool_proj <- inception_4d/pool_proj
I0403 21:43:35.465917 12615 net.cpp:386] inception_4d/relu_pool_proj -> inception_4d/pool_proj (in-place)
I0403 21:43:35.466102 12615 net.cpp:141] Setting up inception_4d/relu_pool_proj
I0403 21:43:35.466130 12615 net.cpp:148] Top shape: 24 64 14 14 (301056)
I0403 21:43:35.466145 12615 net.cpp:156] Memory required for data: 1147309344
I0403 21:43:35.466161 12615 layer_factory.hpp:77] Creating layer inception_4d/output
I0403 21:43:35.466181 12615 net.cpp:91] Creating Layer inception_4d/output
I0403 21:43:35.466198 12615 net.cpp:425] inception_4d/output <- inception_4d/1x1
I0403 21:43:35.466215 12615 net.cpp:425] inception_4d/output <- inception_4d/3x3
I0403 21:43:35.466231 12615 net.cpp:425] inception_4d/output <- inception_4d/5x5
I0403 21:43:35.466246 12615 net.cpp:425] inception_4d/output <- inception_4d/pool_proj
I0403 21:43:35.466264 12615 net.cpp:399] inception_4d/output -> inception_4d/output
I0403 21:43:35.466311 12615 net.cpp:141] Setting up inception_4d/output
I0403 21:43:35.466334 12615 net.cpp:148] Top shape: 24 528 14 14 (2483712)
I0403 21:43:35.466349 12615 net.cpp:156] Memory required for data: 1157244192
I0403 21:43:35.466366 12615 layer_factory.hpp:77] Creating layer inception_4d/output_inception_4d/output_0_split
I0403 21:43:35.466382 12615 net.cpp:91] Creating Layer inception_4d/output_inception_4d/output_0_split
I0403 21:43:35.466398 12615 net.cpp:425] inception_4d/output_inception_4d/output_0_split <- inception_4d/output
I0403 21:43:35.466418 12615 net.cpp:399] inception_4d/output_inception_4d/output_0_split -> inception_4d/output_inception_4d/output_0_split_0
I0403 21:43:35.466441 12615 net.cpp:399] inception_4d/output_inception_4d/output_0_split -> inception_4d/output_inception_4d/output_0_split_1
I0403 21:43:35.466464 12615 net.cpp:399] inception_4d/output_inception_4d/output_0_split -> inception_4d/output_inception_4d/output_0_split_2
I0403 21:43:35.466490 12615 net.cpp:399] inception_4d/output_inception_4d/output_0_split -> inception_4d/output_inception_4d/output_0_split_3
I0403 21:43:35.466511 12615 net.cpp:399] inception_4d/output_inception_4d/output_0_split -> inception_4d/output_inception_4d/output_0_split_4
I0403 21:43:35.466612 12615 net.cpp:141] Setting up inception_4d/output_inception_4d/output_0_split
I0403 21:43:35.466646 12615 net.cpp:148] Top shape: 24 528 14 14 (2483712)
I0403 21:43:35.466663 12615 net.cpp:148] Top shape: 24 528 14 14 (2483712)
I0403 21:43:35.466680 12615 net.cpp:148] Top shape: 24 528 14 14 (2483712)
I0403 21:43:35.466694 12615 net.cpp:148] Top shape: 24 528 14 14 (2483712)
I0403 21:43:35.466709 12615 net.cpp:148] Top shape: 24 528 14 14 (2483712)
I0403 21:43:35.466722 12615 net.cpp:156] Memory required for data: 1206918432
I0403 21:43:35.466737 12615 layer_factory.hpp:77] Creating layer loss2/ave_pool
I0403 21:43:35.466754 12615 net.cpp:91] Creating Layer loss2/ave_pool
I0403 21:43:35.466770 12615 net.cpp:425] loss2/ave_pool <- inception_4d/output_inception_4d/output_0_split_0
I0403 21:43:35.466791 12615 net.cpp:399] loss2/ave_pool -> loss2/ave_pool
I0403 21:43:35.467097 12615 net.cpp:141] Setting up loss2/ave_pool
I0403 21:43:35.467123 12615 net.cpp:148] Top shape: 24 528 4 4 (202752)
I0403 21:43:35.467139 12615 net.cpp:156] Memory required for data: 1207729440
I0403 21:43:35.467152 12615 layer_factory.hpp:77] Creating layer loss2/conv
I0403 21:43:35.467175 12615 net.cpp:91] Creating Layer loss2/conv
I0403 21:43:35.467198 12615 net.cpp:425] loss2/conv <- loss2/ave_pool
I0403 21:43:35.467221 12615 net.cpp:399] loss2/conv -> loss2/conv
I0403 21:43:35.469142 12615 net.cpp:141] Setting up loss2/conv
I0403 21:43:35.469173 12615 net.cpp:148] Top shape: 24 128 4 4 (49152)
I0403 21:43:35.469197 12615 net.cpp:156] Memory required for data: 1207926048
I0403 21:43:35.469218 12615 layer_factory.hpp:77] Creating layer loss2/relu_conv
I0403 21:43:35.469235 12615 net.cpp:91] Creating Layer loss2/relu_conv
I0403 21:43:35.469252 12615 net.cpp:425] loss2/relu_conv <- loss2/conv
I0403 21:43:35.469275 12615 net.cpp:386] loss2/relu_conv -> loss2/conv (in-place)
I0403 21:43:35.469558 12615 net.cpp:141] Setting up loss2/relu_conv
I0403 21:43:35.469586 12615 net.cpp:148] Top shape: 24 128 4 4 (49152)
I0403 21:43:35.469604 12615 net.cpp:156] Memory required for data: 1208122656
I0403 21:43:35.469619 12615 layer_factory.hpp:77] Creating layer loss2/fc
I0403 21:43:35.469638 12615 net.cpp:91] Creating Layer loss2/fc
I0403 21:43:35.469655 12615 net.cpp:425] loss2/fc <- loss2/conv
I0403 21:43:35.469677 12615 net.cpp:399] loss2/fc -> loss2/fc
I0403 21:43:35.487437 12615 net.cpp:141] Setting up loss2/fc
I0403 21:43:35.487470 12615 net.cpp:148] Top shape: 24 1024 (24576)
I0403 21:43:35.487485 12615 net.cpp:156] Memory required for data: 1208220960
I0403 21:43:35.487504 12615 layer_factory.hpp:77] Creating layer loss2/relu_fc
I0403 21:43:35.487524 12615 net.cpp:91] Creating Layer loss2/relu_fc
I0403 21:43:35.487540 12615 net.cpp:425] loss2/relu_fc <- loss2/fc
I0403 21:43:35.487557 12615 net.cpp:386] loss2/relu_fc -> loss2/fc (in-place)
I0403 21:43:35.487846 12615 net.cpp:141] Setting up loss2/relu_fc
I0403 21:43:35.487871 12615 net.cpp:148] Top shape: 24 1024 (24576)
I0403 21:43:35.487886 12615 net.cpp:156] Memory required for data: 1208319264
I0403 21:43:35.487901 12615 layer_factory.hpp:77] Creating layer loss2/drop_fc
I0403 21:43:35.487921 12615 net.cpp:91] Creating Layer loss2/drop_fc
I0403 21:43:35.487937 12615 net.cpp:425] loss2/drop_fc <- loss2/fc
I0403 21:43:35.487953 12615 net.cpp:386] loss2/drop_fc -> loss2/fc (in-place)
I0403 21:43:35.488001 12615 net.cpp:141] Setting up loss2/drop_fc
I0403 21:43:35.488023 12615 net.cpp:148] Top shape: 24 1024 (24576)
I0403 21:43:35.488037 12615 net.cpp:156] Memory required for data: 1208417568
I0403 21:43:35.488054 12615 layer_factory.hpp:77] Creating layer loss2/classifier_plantvillage
I0403 21:43:35.488070 12615 net.cpp:91] Creating Layer loss2/classifier_plantvillage
I0403 21:43:35.488085 12615 net.cpp:425] loss2/classifier_plantvillage <- loss2/fc
I0403 21:43:35.488106 12615 net.cpp:399] loss2/classifier_plantvillage -> loss2/classifier_plantvillage
I0403 21:43:35.488531 12615 net.cpp:141] Setting up loss2/classifier_plantvillage
I0403 21:43:35.488556 12615 net.cpp:148] Top shape: 24 38 (912)
I0403 21:43:35.488570 12615 net.cpp:156] Memory required for data: 1208421216
I0403 21:43:35.488608 12615 layer_factory.hpp:77] Creating layer loss2/classifier_plantvillage_loss2/classifier_plantvillage_0_split
I0403 21:43:35.488627 12615 net.cpp:91] Creating Layer loss2/classifier_plantvillage_loss2/classifier_plantvillage_0_split
I0403 21:43:35.488644 12615 net.cpp:425] loss2/classifier_plantvillage_loss2/classifier_plantvillage_0_split <- loss2/classifier_plantvillage
I0403 21:43:35.488667 12615 net.cpp:399] loss2/classifier_plantvillage_loss2/classifier_plantvillage_0_split -> loss2/classifier_plantvillage_loss2/classifier_plantvillage_0_split_0
I0403 21:43:35.488687 12615 net.cpp:399] loss2/classifier_plantvillage_loss2/classifier_plantvillage_0_split -> loss2/classifier_plantvillage_loss2/classifier_plantvillage_0_split_1
I0403 21:43:35.488708 12615 net.cpp:399] loss2/classifier_plantvillage_loss2/classifier_plantvillage_0_split -> loss2/classifier_plantvillage_loss2/classifier_plantvillage_0_split_2
I0403 21:43:35.488781 12615 net.cpp:141] Setting up loss2/classifier_plantvillage_loss2/classifier_plantvillage_0_split
I0403 21:43:35.488806 12615 net.cpp:148] Top shape: 24 38 (912)
I0403 21:43:35.488822 12615 net.cpp:148] Top shape: 24 38 (912)
I0403 21:43:35.488838 12615 net.cpp:148] Top shape: 24 38 (912)
I0403 21:43:35.488852 12615 net.cpp:156] Memory required for data: 1208432160
I0403 21:43:35.488867 12615 layer_factory.hpp:77] Creating layer inception_4e/1x1
I0403 21:43:35.488886 12615 net.cpp:91] Creating Layer inception_4e/1x1
I0403 21:43:35.488901 12615 net.cpp:425] inception_4e/1x1 <- inception_4d/output_inception_4d/output_0_split_1
I0403 21:43:35.488919 12615 net.cpp:399] inception_4e/1x1 -> inception_4e/1x1
I0403 21:43:35.490670 12615 net.cpp:141] Setting up inception_4e/1x1
I0403 21:43:35.490699 12615 net.cpp:148] Top shape: 24 256 14 14 (1204224)
I0403 21:43:35.490713 12615 net.cpp:156] Memory required for data: 1213249056
I0403 21:43:35.490732 12615 layer_factory.hpp:77] Creating layer inception_4e/relu_1x1
I0403 21:43:35.490762 12615 net.cpp:91] Creating Layer inception_4e/relu_1x1
I0403 21:43:35.490777 12615 net.cpp:425] inception_4e/relu_1x1 <- inception_4e/1x1
I0403 21:43:35.490797 12615 net.cpp:386] inception_4e/relu_1x1 -> inception_4e/1x1 (in-place)
I0403 21:43:35.491083 12615 net.cpp:141] Setting up inception_4e/relu_1x1
I0403 21:43:35.491108 12615 net.cpp:148] Top shape: 24 256 14 14 (1204224)
I0403 21:43:35.491123 12615 net.cpp:156] Memory required for data: 1218065952
I0403 21:43:35.491137 12615 layer_factory.hpp:77] Creating layer inception_4e/3x3_reduce
I0403 21:43:35.491159 12615 net.cpp:91] Creating Layer inception_4e/3x3_reduce
I0403 21:43:35.491176 12615 net.cpp:425] inception_4e/3x3_reduce <- inception_4d/output_inception_4d/output_0_split_2
I0403 21:43:35.491204 12615 net.cpp:399] inception_4e/3x3_reduce -> inception_4e/3x3_reduce
I0403 21:43:35.493288 12615 net.cpp:141] Setting up inception_4e/3x3_reduce
I0403 21:43:35.493319 12615 net.cpp:148] Top shape: 24 160 14 14 (752640)
I0403 21:43:35.493336 12615 net.cpp:156] Memory required for data: 1221076512
I0403 21:43:35.493353 12615 layer_factory.hpp:77] Creating layer inception_4e/relu_3x3_reduce
I0403 21:43:35.493371 12615 net.cpp:91] Creating Layer inception_4e/relu_3x3_reduce
I0403 21:43:35.493387 12615 net.cpp:425] inception_4e/relu_3x3_reduce <- inception_4e/3x3_reduce
I0403 21:43:35.493407 12615 net.cpp:386] inception_4e/relu_3x3_reduce -> inception_4e/3x3_reduce (in-place)
I0403 21:43:35.493588 12615 net.cpp:141] Setting up inception_4e/relu_3x3_reduce
I0403 21:43:35.493613 12615 net.cpp:148] Top shape: 24 160 14 14 (752640)
I0403 21:43:35.493626 12615 net.cpp:156] Memory required for data: 1224087072
I0403 21:43:35.493640 12615 layer_factory.hpp:77] Creating layer inception_4e/3x3
I0403 21:43:35.493664 12615 net.cpp:91] Creating Layer inception_4e/3x3
I0403 21:43:35.493681 12615 net.cpp:425] inception_4e/3x3 <- inception_4e/3x3_reduce
I0403 21:43:35.493703 12615 net.cpp:399] inception_4e/3x3 -> inception_4e/3x3
I0403 21:43:35.498517 12615 net.cpp:141] Setting up inception_4e/3x3
I0403 21:43:35.498558 12615 net.cpp:148] Top shape: 24 320 14 14 (1505280)
I0403 21:43:35.498572 12615 net.cpp:156] Memory required for data: 1230108192
I0403 21:43:35.498590 12615 layer_factory.hpp:77] Creating layer inception_4e/relu_3x3
I0403 21:43:35.498607 12615 net.cpp:91] Creating Layer inception_4e/relu_3x3
I0403 21:43:35.498625 12615 net.cpp:425] inception_4e/relu_3x3 <- inception_4e/3x3
I0403 21:43:35.498643 12615 net.cpp:386] inception_4e/relu_3x3 -> inception_4e/3x3 (in-place)
I0403 21:43:35.498935 12615 net.cpp:141] Setting up inception_4e/relu_3x3
I0403 21:43:35.498960 12615 net.cpp:148] Top shape: 24 320 14 14 (1505280)
I0403 21:43:35.498975 12615 net.cpp:156] Memory required for data: 1236129312
I0403 21:43:35.498988 12615 layer_factory.hpp:77] Creating layer inception_4e/5x5_reduce
I0403 21:43:35.499012 12615 net.cpp:91] Creating Layer inception_4e/5x5_reduce
I0403 21:43:35.499029 12615 net.cpp:425] inception_4e/5x5_reduce <- inception_4d/output_inception_4d/output_0_split_3
I0403 21:43:35.499050 12615 net.cpp:399] inception_4e/5x5_reduce -> inception_4e/5x5_reduce
I0403 21:43:35.500082 12615 net.cpp:141] Setting up inception_4e/5x5_reduce
I0403 21:43:35.500110 12615 net.cpp:148] Top shape: 24 32 14 14 (150528)
I0403 21:43:35.500126 12615 net.cpp:156] Memory required for data: 1236731424
I0403 21:43:35.500145 12615 layer_factory.hpp:77] Creating layer inception_4e/relu_5x5_reduce
I0403 21:43:35.500164 12615 net.cpp:91] Creating Layer inception_4e/relu_5x5_reduce
I0403 21:43:35.500182 12615 net.cpp:425] inception_4e/relu_5x5_reduce <- inception_4e/5x5_reduce
I0403 21:43:35.500200 12615 net.cpp:386] inception_4e/relu_5x5_reduce -> inception_4e/5x5_reduce (in-place)
I0403 21:43:35.500483 12615 net.cpp:141] Setting up inception_4e/relu_5x5_reduce
I0403 21:43:35.500509 12615 net.cpp:148] Top shape: 24 32 14 14 (150528)
I0403 21:43:35.500525 12615 net.cpp:156] Memory required for data: 1237333536
I0403 21:43:35.500540 12615 layer_factory.hpp:77] Creating layer inception_4e/5x5
I0403 21:43:35.500577 12615 net.cpp:91] Creating Layer inception_4e/5x5
I0403 21:43:35.500596 12615 net.cpp:425] inception_4e/5x5 <- inception_4e/5x5_reduce
I0403 21:43:35.500614 12615 net.cpp:399] inception_4e/5x5 -> inception_4e/5x5
I0403 21:43:35.502360 12615 net.cpp:141] Setting up inception_4e/5x5
I0403 21:43:35.502388 12615 net.cpp:148] Top shape: 24 128 14 14 (602112)
I0403 21:43:35.502403 12615 net.cpp:156] Memory required for data: 1239741984
I0403 21:43:35.502423 12615 layer_factory.hpp:77] Creating layer inception_4e/relu_5x5
I0403 21:43:35.502441 12615 net.cpp:91] Creating Layer inception_4e/relu_5x5
I0403 21:43:35.502457 12615 net.cpp:425] inception_4e/relu_5x5 <- inception_4e/5x5
I0403 21:43:35.502475 12615 net.cpp:386] inception_4e/relu_5x5 -> inception_4e/5x5 (in-place)
I0403 21:43:35.502668 12615 net.cpp:141] Setting up inception_4e/relu_5x5
I0403 21:43:35.502694 12615 net.cpp:148] Top shape: 24 128 14 14 (602112)
I0403 21:43:35.502709 12615 net.cpp:156] Memory required for data: 1242150432
I0403 21:43:35.502724 12615 layer_factory.hpp:77] Creating layer inception_4e/pool
I0403 21:43:35.502742 12615 net.cpp:91] Creating Layer inception_4e/pool
I0403 21:43:35.502756 12615 net.cpp:425] inception_4e/pool <- inception_4d/output_inception_4d/output_0_split_4
I0403 21:43:35.502777 12615 net.cpp:399] inception_4e/pool -> inception_4e/pool
I0403 21:43:35.502845 12615 net.cpp:141] Setting up inception_4e/pool
I0403 21:43:35.502868 12615 net.cpp:148] Top shape: 24 528 14 14 (2483712)
I0403 21:43:35.502882 12615 net.cpp:156] Memory required for data: 1252085280
I0403 21:43:35.502895 12615 layer_factory.hpp:77] Creating layer inception_4e/pool_proj
I0403 21:43:35.502918 12615 net.cpp:91] Creating Layer inception_4e/pool_proj
I0403 21:43:35.502934 12615 net.cpp:425] inception_4e/pool_proj <- inception_4e/pool
I0403 21:43:35.502955 12615 net.cpp:399] inception_4e/pool_proj -> inception_4e/pool_proj
I0403 21:43:35.504387 12615 net.cpp:141] Setting up inception_4e/pool_proj
I0403 21:43:35.504415 12615 net.cpp:148] Top shape: 24 128 14 14 (602112)
I0403 21:43:35.504442 12615 net.cpp:156] Memory required for data: 1254493728
I0403 21:43:35.504462 12615 layer_factory.hpp:77] Creating layer inception_4e/relu_pool_proj
I0403 21:43:35.504482 12615 net.cpp:91] Creating Layer inception_4e/relu_pool_proj
I0403 21:43:35.504499 12615 net.cpp:425] inception_4e/relu_pool_proj <- inception_4e/pool_proj
I0403 21:43:35.504516 12615 net.cpp:386] inception_4e/relu_pool_proj -> inception_4e/pool_proj (in-place)
I0403 21:43:35.504798 12615 net.cpp:141] Setting up inception_4e/relu_pool_proj
I0403 21:43:35.504822 12615 net.cpp:148] Top shape: 24 128 14 14 (602112)
I0403 21:43:35.504837 12615 net.cpp:156] Memory required for data: 1256902176
I0403 21:43:35.504851 12615 layer_factory.hpp:77] Creating layer inception_4e/output
I0403 21:43:35.504871 12615 net.cpp:91] Creating Layer inception_4e/output
I0403 21:43:35.504887 12615 net.cpp:425] inception_4e/output <- inception_4e/1x1
I0403 21:43:35.504904 12615 net.cpp:425] inception_4e/output <- inception_4e/3x3
I0403 21:43:35.504920 12615 net.cpp:425] inception_4e/output <- inception_4e/5x5
I0403 21:43:35.504933 12615 net.cpp:425] inception_4e/output <- inception_4e/pool_proj
I0403 21:43:35.504951 12615 net.cpp:399] inception_4e/output -> inception_4e/output
I0403 21:43:35.504998 12615 net.cpp:141] Setting up inception_4e/output
I0403 21:43:35.505023 12615 net.cpp:148] Top shape: 24 832 14 14 (3913728)
I0403 21:43:35.505038 12615 net.cpp:156] Memory required for data: 1272557088
I0403 21:43:35.505051 12615 layer_factory.hpp:77] Creating layer pool4/3x3_s2
I0403 21:43:35.505067 12615 net.cpp:91] Creating Layer pool4/3x3_s2
I0403 21:43:35.505082 12615 net.cpp:425] pool4/3x3_s2 <- inception_4e/output
I0403 21:43:35.505102 12615 net.cpp:399] pool4/3x3_s2 -> pool4/3x3_s2
I0403 21:43:35.505167 12615 net.cpp:141] Setting up pool4/3x3_s2
I0403 21:43:35.505197 12615 net.cpp:148] Top shape: 24 832 7 7 (978432)
I0403 21:43:35.505213 12615 net.cpp:156] Memory required for data: 1276470816
I0403 21:43:35.505226 12615 layer_factory.hpp:77] Creating layer pool4/3x3_s2_pool4/3x3_s2_0_split
I0403 21:43:35.505242 12615 net.cpp:91] Creating Layer pool4/3x3_s2_pool4/3x3_s2_0_split
I0403 21:43:35.505259 12615 net.cpp:425] pool4/3x3_s2_pool4/3x3_s2_0_split <- pool4/3x3_s2
I0403 21:43:35.505275 12615 net.cpp:399] pool4/3x3_s2_pool4/3x3_s2_0_split -> pool4/3x3_s2_pool4/3x3_s2_0_split_0
I0403 21:43:35.505298 12615 net.cpp:399] pool4/3x3_s2_pool4/3x3_s2_0_split -> pool4/3x3_s2_pool4/3x3_s2_0_split_1
I0403 21:43:35.505318 12615 net.cpp:399] pool4/3x3_s2_pool4/3x3_s2_0_split -> pool4/3x3_s2_pool4/3x3_s2_0_split_2
I0403 21:43:35.505337 12615 net.cpp:399] pool4/3x3_s2_pool4/3x3_s2_0_split -> pool4/3x3_s2_pool4/3x3_s2_0_split_3
I0403 21:43:35.505426 12615 net.cpp:141] Setting up pool4/3x3_s2_pool4/3x3_s2_0_split
I0403 21:43:35.505450 12615 net.cpp:148] Top shape: 24 832 7 7 (978432)
I0403 21:43:35.505465 12615 net.cpp:148] Top shape: 24 832 7 7 (978432)
I0403 21:43:35.505481 12615 net.cpp:148] Top shape: 24 832 7 7 (978432)
I0403 21:43:35.505496 12615 net.cpp:148] Top shape: 24 832 7 7 (978432)
I0403 21:43:35.505507 12615 net.cpp:156] Memory required for data: 1292125728
I0403 21:43:35.505520 12615 layer_factory.hpp:77] Creating layer inception_5a/1x1
I0403 21:43:35.505542 12615 net.cpp:91] Creating Layer inception_5a/1x1
I0403 21:43:35.505559 12615 net.cpp:425] inception_5a/1x1 <- pool4/3x3_s2_pool4/3x3_s2_0_split_0
I0403 21:43:35.505578 12615 net.cpp:399] inception_5a/1x1 -> inception_5a/1x1
I0403 21:43:35.508335 12615 net.cpp:141] Setting up inception_5a/1x1
I0403 21:43:35.508363 12615 net.cpp:148] Top shape: 24 256 7 7 (301056)
I0403 21:43:35.508378 12615 net.cpp:156] Memory required for data: 1293329952
I0403 21:43:35.508395 12615 layer_factory.hpp:77] Creating layer inception_5a/relu_1x1
I0403 21:43:35.508415 12615 net.cpp:91] Creating Layer inception_5a/relu_1x1
I0403 21:43:35.508432 12615 net.cpp:425] inception_5a/relu_1x1 <- inception_5a/1x1
I0403 21:43:35.508450 12615 net.cpp:386] inception_5a/relu_1x1 -> inception_5a/1x1 (in-place)
I0403 21:43:35.508745 12615 net.cpp:141] Setting up inception_5a/relu_1x1
I0403 21:43:35.508770 12615 net.cpp:148] Top shape: 24 256 7 7 (301056)
I0403 21:43:35.508785 12615 net.cpp:156] Memory required for data: 1294534176
I0403 21:43:35.508800 12615 layer_factory.hpp:77] Creating layer inception_5a/3x3_reduce
I0403 21:43:35.508824 12615 net.cpp:91] Creating Layer inception_5a/3x3_reduce
I0403 21:43:35.508841 12615 net.cpp:425] inception_5a/3x3_reduce <- pool4/3x3_s2_pool4/3x3_s2_0_split_1
I0403 21:43:35.508862 12615 net.cpp:399] inception_5a/3x3_reduce -> inception_5a/3x3_reduce
I0403 21:43:35.511237 12615 net.cpp:141] Setting up inception_5a/3x3_reduce
I0403 21:43:35.511266 12615 net.cpp:148] Top shape: 24 160 7 7 (188160)
I0403 21:43:35.511281 12615 net.cpp:156] Memory required for data: 1295286816
I0403 21:43:35.511299 12615 layer_factory.hpp:77] Creating layer inception_5a/relu_3x3_reduce
I0403 21:43:35.511320 12615 net.cpp:91] Creating Layer inception_5a/relu_3x3_reduce
I0403 21:43:35.511338 12615 net.cpp:425] inception_5a/relu_3x3_reduce <- inception_5a/3x3_reduce
I0403 21:43:35.511354 12615 net.cpp:386] inception_5a/relu_3x3_reduce -> inception_5a/3x3_reduce (in-place)
I0403 21:43:35.511540 12615 net.cpp:141] Setting up inception_5a/relu_3x3_reduce
I0403 21:43:35.511564 12615 net.cpp:148] Top shape: 24 160 7 7 (188160)
I0403 21:43:35.511577 12615 net.cpp:156] Memory required for data: 1296039456
I0403 21:43:35.511592 12615 layer_factory.hpp:77] Creating layer inception_5a/3x3
I0403 21:43:35.511615 12615 net.cpp:91] Creating Layer inception_5a/3x3
I0403 21:43:35.511632 12615 net.cpp:425] inception_5a/3x3 <- inception_5a/3x3_reduce
I0403 21:43:35.511651 12615 net.cpp:399] inception_5a/3x3 -> inception_5a/3x3
I0403 21:43:35.516517 12615 net.cpp:141] Setting up inception_5a/3x3
I0403 21:43:35.516551 12615 net.cpp:148] Top shape: 24 320 7 7 (376320)
I0403 21:43:35.516566 12615 net.cpp:156] Memory required for data: 1297544736
I0403 21:43:35.516584 12615 layer_factory.hpp:77] Creating layer inception_5a/relu_3x3
I0403 21:43:35.516602 12615 net.cpp:91] Creating Layer inception_5a/relu_3x3
I0403 21:43:35.516616 12615 net.cpp:425] inception_5a/relu_3x3 <- inception_5a/3x3
I0403 21:43:35.516633 12615 net.cpp:386] inception_5a/relu_3x3 -> inception_5a/3x3 (in-place)
I0403 21:43:35.516918 12615 net.cpp:141] Setting up inception_5a/relu_3x3
I0403 21:43:35.516945 12615 net.cpp:148] Top shape: 24 320 7 7 (376320)
I0403 21:43:35.516962 12615 net.cpp:156] Memory required for data: 1299050016
I0403 21:43:35.516976 12615 layer_factory.hpp:77] Creating layer inception_5a/5x5_reduce
I0403 21:43:35.516995 12615 net.cpp:91] Creating Layer inception_5a/5x5_reduce
I0403 21:43:35.517010 12615 net.cpp:425] inception_5a/5x5_reduce <- pool4/3x3_s2_pool4/3x3_s2_0_split_2
I0403 21:43:35.517032 12615 net.cpp:399] inception_5a/5x5_reduce -> inception_5a/5x5_reduce
I0403 21:43:35.518160 12615 net.cpp:141] Setting up inception_5a/5x5_reduce
I0403 21:43:35.518193 12615 net.cpp:148] Top shape: 24 32 7 7 (37632)
I0403 21:43:35.518210 12615 net.cpp:156] Memory required for data: 1299200544
I0403 21:43:35.518229 12615 layer_factory.hpp:77] Creating layer inception_5a/relu_5x5_reduce
I0403 21:43:35.518245 12615 net.cpp:91] Creating Layer inception_5a/relu_5x5_reduce
I0403 21:43:35.518262 12615 net.cpp:425] inception_5a/relu_5x5_reduce <- inception_5a/5x5_reduce
I0403 21:43:35.518281 12615 net.cpp:386] inception_5a/relu_5x5_reduce -> inception_5a/5x5_reduce (in-place)
I0403 21:43:35.518563 12615 net.cpp:141] Setting up inception_5a/relu_5x5_reduce
I0403 21:43:35.518589 12615 net.cpp:148] Top shape: 24 32 7 7 (37632)
I0403 21:43:35.518604 12615 net.cpp:156] Memory required for data: 1299351072
I0403 21:43:35.518618 12615 layer_factory.hpp:77] Creating layer inception_5a/5x5
I0403 21:43:35.518640 12615 net.cpp:91] Creating Layer inception_5a/5x5
I0403 21:43:35.518658 12615 net.cpp:425] inception_5a/5x5 <- inception_5a/5x5_reduce
I0403 21:43:35.518676 12615 net.cpp:399] inception_5a/5x5 -> inception_5a/5x5
I0403 21:43:35.520334 12615 net.cpp:141] Setting up inception_5a/5x5
I0403 21:43:35.520373 12615 net.cpp:148] Top shape: 24 128 7 7 (150528)
I0403 21:43:35.520390 12615 net.cpp:156] Memory required for data: 1299953184
I0403 21:43:35.520407 12615 layer_factory.hpp:77] Creating layer inception_5a/relu_5x5
I0403 21:43:35.520426 12615 net.cpp:91] Creating Layer inception_5a/relu_5x5
I0403 21:43:35.520442 12615 net.cpp:425] inception_5a/relu_5x5 <- inception_5a/5x5
I0403 21:43:35.520458 12615 net.cpp:386] inception_5a/relu_5x5 -> inception_5a/5x5 (in-place)
I0403 21:43:35.520649 12615 net.cpp:141] Setting up inception_5a/relu_5x5
I0403 21:43:35.520675 12615 net.cpp:148] Top shape: 24 128 7 7 (150528)
I0403 21:43:35.520690 12615 net.cpp:156] Memory required for data: 1300555296
I0403 21:43:35.520705 12615 layer_factory.hpp:77] Creating layer inception_5a/pool
I0403 21:43:35.520723 12615 net.cpp:91] Creating Layer inception_5a/pool
I0403 21:43:35.520740 12615 net.cpp:425] inception_5a/pool <- pool4/3x3_s2_pool4/3x3_s2_0_split_3
I0403 21:43:35.520761 12615 net.cpp:399] inception_5a/pool -> inception_5a/pool
I0403 21:43:35.520828 12615 net.cpp:141] Setting up inception_5a/pool
I0403 21:43:35.520853 12615 net.cpp:148] Top shape: 24 832 7 7 (978432)
I0403 21:43:35.520866 12615 net.cpp:156] Memory required for data: 1304469024
I0403 21:43:35.520880 12615 layer_factory.hpp:77] Creating layer inception_5a/pool_proj
I0403 21:43:35.520900 12615 net.cpp:91] Creating Layer inception_5a/pool_proj
I0403 21:43:35.520916 12615 net.cpp:425] inception_5a/pool_proj <- inception_5a/pool
I0403 21:43:35.520936 12615 net.cpp:399] inception_5a/pool_proj -> inception_5a/pool_proj
I0403 21:43:35.523174 12615 net.cpp:141] Setting up inception_5a/pool_proj
I0403 21:43:35.523205 12615 net.cpp:148] Top shape: 24 128 7 7 (150528)
I0403 21:43:35.523221 12615 net.cpp:156] Memory required for data: 1305071136
I0403 21:43:35.523241 12615 layer_factory.hpp:77] Creating layer inception_5a/relu_pool_proj
I0403 21:43:35.523260 12615 net.cpp:91] Creating Layer inception_5a/relu_pool_proj
I0403 21:43:35.523277 12615 net.cpp:425] inception_5a/relu_pool_proj <- inception_5a/pool_proj
I0403 21:43:35.523294 12615 net.cpp:386] inception_5a/relu_pool_proj -> inception_5a/pool_proj (in-place)
I0403 21:43:35.523578 12615 net.cpp:141] Setting up inception_5a/relu_pool_proj
I0403 21:43:35.523603 12615 net.cpp:148] Top shape: 24 128 7 7 (150528)
I0403 21:43:35.523618 12615 net.cpp:156] Memory required for data: 1305673248
I0403 21:43:35.523633 12615 layer_factory.hpp:77] Creating layer inception_5a/output
I0403 21:43:35.523653 12615 net.cpp:91] Creating Layer inception_5a/output
I0403 21:43:35.523668 12615 net.cpp:425] inception_5a/output <- inception_5a/1x1
I0403 21:43:35.523684 12615 net.cpp:425] inception_5a/output <- inception_5a/3x3
I0403 21:43:35.523699 12615 net.cpp:425] inception_5a/output <- inception_5a/5x5
I0403 21:43:35.523715 12615 net.cpp:425] inception_5a/output <- inception_5a/pool_proj
I0403 21:43:35.523730 12615 net.cpp:399] inception_5a/output -> inception_5a/output
I0403 21:43:35.523784 12615 net.cpp:141] Setting up inception_5a/output
I0403 21:43:35.523807 12615 net.cpp:148] Top shape: 24 832 7 7 (978432)
I0403 21:43:35.523820 12615 net.cpp:156] Memory required for data: 1309586976
I0403 21:43:35.523834 12615 layer_factory.hpp:77] Creating layer inception_5a/output_inception_5a/output_0_split
I0403 21:43:35.523851 12615 net.cpp:91] Creating Layer inception_5a/output_inception_5a/output_0_split
I0403 21:43:35.523865 12615 net.cpp:425] inception_5a/output_inception_5a/output_0_split <- inception_5a/output
I0403 21:43:35.523886 12615 net.cpp:399] inception_5a/output_inception_5a/output_0_split -> inception_5a/output_inception_5a/output_0_split_0
I0403 21:43:35.523905 12615 net.cpp:399] inception_5a/output_inception_5a/output_0_split -> inception_5a/output_inception_5a/output_0_split_1
I0403 21:43:35.523926 12615 net.cpp:399] inception_5a/output_inception_5a/output_0_split -> inception_5a/output_inception_5a/output_0_split_2
I0403 21:43:35.523947 12615 net.cpp:399] inception_5a/output_inception_5a/output_0_split -> inception_5a/output_inception_5a/output_0_split_3
I0403 21:43:35.524057 12615 net.cpp:141] Setting up inception_5a/output_inception_5a/output_0_split
I0403 21:43:35.524082 12615 net.cpp:148] Top shape: 24 832 7 7 (978432)
I0403 21:43:35.524099 12615 net.cpp:148] Top shape: 24 832 7 7 (978432)
I0403 21:43:35.524114 12615 net.cpp:148] Top shape: 24 832 7 7 (978432)
I0403 21:43:35.524129 12615 net.cpp:148] Top shape: 24 832 7 7 (978432)
I0403 21:43:35.524142 12615 net.cpp:156] Memory required for data: 1325241888
I0403 21:43:35.524157 12615 layer_factory.hpp:77] Creating layer inception_5b/1x1
I0403 21:43:35.524183 12615 net.cpp:91] Creating Layer inception_5b/1x1
I0403 21:43:35.524201 12615 net.cpp:425] inception_5b/1x1 <- inception_5a/output_inception_5a/output_0_split_0
I0403 21:43:35.524221 12615 net.cpp:399] inception_5b/1x1 -> inception_5b/1x1
I0403 21:43:35.527830 12615 net.cpp:141] Setting up inception_5b/1x1
I0403 21:43:35.527859 12615 net.cpp:148] Top shape: 24 384 7 7 (451584)
I0403 21:43:35.527874 12615 net.cpp:156] Memory required for data: 1327048224
I0403 21:43:35.527891 12615 layer_factory.hpp:77] Creating layer inception_5b/relu_1x1
I0403 21:43:35.527911 12615 net.cpp:91] Creating Layer inception_5b/relu_1x1
I0403 21:43:35.527928 12615 net.cpp:425] inception_5b/relu_1x1 <- inception_5b/1x1
I0403 21:43:35.527945 12615 net.cpp:386] inception_5b/relu_1x1 -> inception_5b/1x1 (in-place)
I0403 21:43:35.528240 12615 net.cpp:141] Setting up inception_5b/relu_1x1
I0403 21:43:35.528265 12615 net.cpp:148] Top shape: 24 384 7 7 (451584)
I0403 21:43:35.528280 12615 net.cpp:156] Memory required for data: 1328854560
I0403 21:43:35.528292 12615 layer_factory.hpp:77] Creating layer inception_5b/3x3_reduce
I0403 21:43:35.528314 12615 net.cpp:91] Creating Layer inception_5b/3x3_reduce
I0403 21:43:35.528331 12615 net.cpp:425] inception_5b/3x3_reduce <- inception_5a/output_inception_5a/output_0_split_1
I0403 21:43:35.528352 12615 net.cpp:399] inception_5b/3x3_reduce -> inception_5b/3x3_reduce
I0403 21:43:35.530935 12615 net.cpp:141] Setting up inception_5b/3x3_reduce
I0403 21:43:35.530963 12615 net.cpp:148] Top shape: 24 192 7 7 (225792)
I0403 21:43:35.530980 12615 net.cpp:156] Memory required for data: 1329757728
I0403 21:43:35.530998 12615 layer_factory.hpp:77] Creating layer inception_5b/relu_3x3_reduce
I0403 21:43:35.531018 12615 net.cpp:91] Creating Layer inception_5b/relu_3x3_reduce
I0403 21:43:35.531034 12615 net.cpp:425] inception_5b/relu_3x3_reduce <- inception_5b/3x3_reduce
I0403 21:43:35.531051 12615 net.cpp:386] inception_5b/relu_3x3_reduce -> inception_5b/3x3_reduce (in-place)
I0403 21:43:35.531256 12615 net.cpp:141] Setting up inception_5b/relu_3x3_reduce
I0403 21:43:35.531285 12615 net.cpp:148] Top shape: 24 192 7 7 (225792)
I0403 21:43:35.531301 12615 net.cpp:156] Memory required for data: 1330660896
I0403 21:43:35.531316 12615 layer_factory.hpp:77] Creating layer inception_5b/3x3
I0403 21:43:35.531337 12615 net.cpp:91] Creating Layer inception_5b/3x3
I0403 21:43:35.531354 12615 net.cpp:425] inception_5b/3x3 <- inception_5b/3x3_reduce
I0403 21:43:35.531373 12615 net.cpp:399] inception_5b/3x3 -> inception_5b/3x3
I0403 21:43:35.538049 12615 net.cpp:141] Setting up inception_5b/3x3
I0403 21:43:35.538079 12615 net.cpp:148] Top shape: 24 384 7 7 (451584)
I0403 21:43:35.538094 12615 net.cpp:156] Memory required for data: 1332467232
I0403 21:43:35.538112 12615 layer_factory.hpp:77] Creating layer inception_5b/relu_3x3
I0403 21:43:35.538132 12615 net.cpp:91] Creating Layer inception_5b/relu_3x3
I0403 21:43:35.538151 12615 net.cpp:425] inception_5b/relu_3x3 <- inception_5b/3x3
I0403 21:43:35.538166 12615 net.cpp:386] inception_5b/relu_3x3 -> inception_5b/3x3 (in-place)
I0403 21:43:35.538471 12615 net.cpp:141] Setting up inception_5b/relu_3x3
I0403 21:43:35.538497 12615 net.cpp:148] Top shape: 24 384 7 7 (451584)
I0403 21:43:35.538512 12615 net.cpp:156] Memory required for data: 1334273568
I0403 21:43:35.538527 12615 layer_factory.hpp:77] Creating layer inception_5b/5x5_reduce
I0403 21:43:35.538565 12615 net.cpp:91] Creating Layer inception_5b/5x5_reduce
I0403 21:43:35.538584 12615 net.cpp:425] inception_5b/5x5_reduce <- inception_5a/output_inception_5a/output_0_split_2
I0403 21:43:35.538607 12615 net.cpp:399] inception_5b/5x5_reduce -> inception_5b/5x5_reduce
I0403 21:43:35.539867 12615 net.cpp:141] Setting up inception_5b/5x5_reduce
I0403 21:43:35.539896 12615 net.cpp:148] Top shape: 24 48 7 7 (56448)
I0403 21:43:35.539911 12615 net.cpp:156] Memory required for data: 1334499360
I0403 21:43:35.539930 12615 layer_factory.hpp:77] Creating layer inception_5b/relu_5x5_reduce
I0403 21:43:35.539952 12615 net.cpp:91] Creating Layer inception_5b/relu_5x5_reduce
I0403 21:43:35.539968 12615 net.cpp:425] inception_5b/relu_5x5_reduce <- inception_5b/5x5_reduce
I0403 21:43:35.539985 12615 net.cpp:386] inception_5b/relu_5x5_reduce -> inception_5b/5x5_reduce (in-place)
I0403 21:43:35.540370 12615 net.cpp:141] Setting up inception_5b/relu_5x5_reduce
I0403 21:43:35.540396 12615 net.cpp:148] Top shape: 24 48 7 7 (56448)
I0403 21:43:35.540411 12615 net.cpp:156] Memory required for data: 1334725152
I0403 21:43:35.540426 12615 layer_factory.hpp:77] Creating layer inception_5b/5x5
I0403 21:43:35.540446 12615 net.cpp:91] Creating Layer inception_5b/5x5
I0403 21:43:35.540464 12615 net.cpp:425] inception_5b/5x5 <- inception_5b/5x5_reduce
I0403 21:43:35.540483 12615 net.cpp:399] inception_5b/5x5 -> inception_5b/5x5
I0403 21:43:35.542495 12615 net.cpp:141] Setting up inception_5b/5x5
I0403 21:43:35.542523 12615 net.cpp:148] Top shape: 24 128 7 7 (150528)
I0403 21:43:35.542538 12615 net.cpp:156] Memory required for data: 1335327264
I0403 21:43:35.542557 12615 layer_factory.hpp:77] Creating layer inception_5b/relu_5x5
I0403 21:43:35.542578 12615 net.cpp:91] Creating Layer inception_5b/relu_5x5
I0403 21:43:35.542596 12615 net.cpp:425] inception_5b/relu_5x5 <- inception_5b/5x5
I0403 21:43:35.542614 12615 net.cpp:386] inception_5b/relu_5x5 -> inception_5b/5x5 (in-place)
I0403 21:43:35.542811 12615 net.cpp:141] Setting up inception_5b/relu_5x5
I0403 21:43:35.542835 12615 net.cpp:148] Top shape: 24 128 7 7 (150528)
I0403 21:43:35.542850 12615 net.cpp:156] Memory required for data: 1335929376
I0403 21:43:35.542865 12615 layer_factory.hpp:77] Creating layer inception_5b/pool
I0403 21:43:35.542883 12615 net.cpp:91] Creating Layer inception_5b/pool
I0403 21:43:35.542899 12615 net.cpp:425] inception_5b/pool <- inception_5a/output_inception_5a/output_0_split_3
I0403 21:43:35.542920 12615 net.cpp:399] inception_5b/pool -> inception_5b/pool
I0403 21:43:35.542994 12615 net.cpp:141] Setting up inception_5b/pool
I0403 21:43:35.543016 12615 net.cpp:148] Top shape: 24 832 7 7 (978432)
I0403 21:43:35.543030 12615 net.cpp:156] Memory required for data: 1339843104
I0403 21:43:35.543046 12615 layer_factory.hpp:77] Creating layer inception_5b/pool_proj
I0403 21:43:35.543071 12615 net.cpp:91] Creating Layer inception_5b/pool_proj
I0403 21:43:35.543087 12615 net.cpp:425] inception_5b/pool_proj <- inception_5b/pool
I0403 21:43:35.543107 12615 net.cpp:399] inception_5b/pool_proj -> inception_5b/pool_proj
I0403 21:43:35.545419 12615 net.cpp:141] Setting up inception_5b/pool_proj
I0403 21:43:35.545449 12615 net.cpp:148] Top shape: 24 128 7 7 (150528)
I0403 21:43:35.545464 12615 net.cpp:156] Memory required for data: 1340445216
I0403 21:43:35.545482 12615 layer_factory.hpp:77] Creating layer inception_5b/relu_pool_proj
I0403 21:43:35.545502 12615 net.cpp:91] Creating Layer inception_5b/relu_pool_proj
I0403 21:43:35.545519 12615 net.cpp:425] inception_5b/relu_pool_proj <- inception_5b/pool_proj
I0403 21:43:35.545536 12615 net.cpp:386] inception_5b/relu_pool_proj -> inception_5b/pool_proj (in-place)
I0403 21:43:35.545825 12615 net.cpp:141] Setting up inception_5b/relu_pool_proj
I0403 21:43:35.545851 12615 net.cpp:148] Top shape: 24 128 7 7 (150528)
I0403 21:43:35.545866 12615 net.cpp:156] Memory required for data: 1341047328
I0403 21:43:35.545881 12615 layer_factory.hpp:77] Creating layer inception_5b/output
I0403 21:43:35.545902 12615 net.cpp:91] Creating Layer inception_5b/output
I0403 21:43:35.545930 12615 net.cpp:425] inception_5b/output <- inception_5b/1x1
I0403 21:43:35.545948 12615 net.cpp:425] inception_5b/output <- inception_5b/3x3
I0403 21:43:35.545964 12615 net.cpp:425] inception_5b/output <- inception_5b/5x5
I0403 21:43:35.545979 12615 net.cpp:425] inception_5b/output <- inception_5b/pool_proj
I0403 21:43:35.545996 12615 net.cpp:399] inception_5b/output -> inception_5b/output
I0403 21:43:35.546051 12615 net.cpp:141] Setting up inception_5b/output
I0403 21:43:35.546075 12615 net.cpp:148] Top shape: 24 1024 7 7 (1204224)
I0403 21:43:35.546089 12615 net.cpp:156] Memory required for data: 1345864224
I0403 21:43:35.546103 12615 layer_factory.hpp:77] Creating layer pool5/7x7_s1
I0403 21:43:35.546121 12615 net.cpp:91] Creating Layer pool5/7x7_s1
I0403 21:43:35.546138 12615 net.cpp:425] pool5/7x7_s1 <- inception_5b/output
I0403 21:43:35.546159 12615 net.cpp:399] pool5/7x7_s1 -> pool5/7x7_s1
I0403 21:43:35.546375 12615 net.cpp:141] Setting up pool5/7x7_s1
I0403 21:43:35.546402 12615 net.cpp:148] Top shape: 24 1024 1 1 (24576)
I0403 21:43:35.546418 12615 net.cpp:156] Memory required for data: 1345962528
I0403 21:43:35.546433 12615 layer_factory.hpp:77] Creating layer pool5/drop_7x7_s1
I0403 21:43:35.546450 12615 net.cpp:91] Creating Layer pool5/drop_7x7_s1
I0403 21:43:35.546466 12615 net.cpp:425] pool5/drop_7x7_s1 <- pool5/7x7_s1
I0403 21:43:35.546483 12615 net.cpp:386] pool5/drop_7x7_s1 -> pool5/7x7_s1 (in-place)
I0403 21:43:35.546535 12615 net.cpp:141] Setting up pool5/drop_7x7_s1
I0403 21:43:35.546556 12615 net.cpp:148] Top shape: 24 1024 1 1 (24576)
I0403 21:43:35.546571 12615 net.cpp:156] Memory required for data: 1346060832
I0403 21:43:35.546586 12615 layer_factory.hpp:77] Creating layer loss3/classifier_plantvillage
I0403 21:43:35.546607 12615 net.cpp:91] Creating Layer loss3/classifier_plantvillage
I0403 21:43:35.546625 12615 net.cpp:425] loss3/classifier_plantvillage <- pool5/7x7_s1
I0403 21:43:35.546644 12615 net.cpp:399] loss3/classifier_plantvillage -> loss3/classifier_plantvillage
I0403 21:43:35.547063 12615 net.cpp:141] Setting up loss3/classifier_plantvillage
I0403 21:43:35.547087 12615 net.cpp:148] Top shape: 24 38 (912)
I0403 21:43:35.547102 12615 net.cpp:156] Memory required for data: 1346064480
I0403 21:43:35.547122 12615 layer_factory.hpp:77] Creating layer loss3/classifier_plantvillage_loss3/classifier_plantvillage_0_split
I0403 21:43:35.547140 12615 net.cpp:91] Creating Layer loss3/classifier_plantvillage_loss3/classifier_plantvillage_0_split
I0403 21:43:35.547157 12615 net.cpp:425] loss3/classifier_plantvillage_loss3/classifier_plantvillage_0_split <- loss3/classifier_plantvillage
I0403 21:43:35.547180 12615 net.cpp:399] loss3/classifier_plantvillage_loss3/classifier_plantvillage_0_split -> loss3/classifier_plantvillage_loss3/classifier_plantvillage_0_split_0
I0403 21:43:35.547205 12615 net.cpp:399] loss3/classifier_plantvillage_loss3/classifier_plantvillage_0_split -> loss3/classifier_plantvillage_loss3/classifier_plantvillage_0_split_1
I0403 21:43:35.547229 12615 net.cpp:399] loss3/classifier_plantvillage_loss3/classifier_plantvillage_0_split -> loss3/classifier_plantvillage_loss3/classifier_plantvillage_0_split_2
I0403 21:43:35.547248 12615 net.cpp:399] loss3/classifier_plantvillage_loss3/classifier_plantvillage_0_split -> loss3/classifier_plantvillage_loss3/classifier_plantvillage_0_split_3
I0403 21:43:35.547353 12615 net.cpp:141] Setting up loss3/classifier_plantvillage_loss3/classifier_plantvillage_0_split
I0403 21:43:35.547377 12615 net.cpp:148] Top shape: 24 38 (912)
I0403 21:43:35.547394 12615 net.cpp:148] Top shape: 24 38 (912)
I0403 21:43:35.547410 12615 net.cpp:148] Top shape: 24 38 (912)
I0403 21:43:35.547425 12615 net.cpp:148] Top shape: 24 38 (912)
I0403 21:43:35.547441 12615 net.cpp:156] Memory required for data: 1346079072
I0403 21:43:35.547454 12615 layer_factory.hpp:77] Creating layer loss1/loss
I0403 21:43:35.547477 12615 net.cpp:91] Creating Layer loss1/loss
I0403 21:43:35.547493 12615 net.cpp:425] loss1/loss <- loss1/classifier_plantvillage_loss1/classifier_plantvillage_0_split_0
I0403 21:43:35.547524 12615 net.cpp:425] loss1/loss <- label_data_1_split_0
…
