…
I0403 21:45:00.072676 12694 net.cpp:313] The NetState phase (1) differed from the phase (0) specified by a rule in layer data
I0403 21:45:00.073791 12694 net.cpp:49] Initializing net from parameters: 
state {
  phase: TEST
}
layer {
  name: "data"
  type: "Data"
  top: "data"
  top: "label"
  include {
    phase: TEST
  }
  transform_param {
    mirror: false
    crop_size: 224
    mean_file: "/home/mohanty/data/final_dataset/lmdb/color-80-20/mean.binaryproto"
  }
  data_param {
    source: "/home/mohanty/data/final_dataset/lmdb/color-80-20/test_db"
    batch_size: 24
    backend: LMDB
  }
}
layer {
  name: "conv1/7x7_s2"
  type: "Convolution"
  bottom: "data"
  top: "conv1/7x7_s2"
  param {
    lr_mult: 1
    decay_mult: 1
  }
  param {
    lr_mult: 2
    decay_mult: 0
  }
  convolution_param {
    num_output: 64
    pad: 3
    kernel_size: 7
    stride: 2
    weight_filler {
      type: "xavier"
      std: 0.1
    }
    bias_filler {
      type: "constant"
      value: 0.2
    }
  }
}
layer {
  name: "conv1/relu_7x7"
  type: "ReLU"
  bottom: "conv1/7x7_s2"
  top: "conv1/7x7_s2"
}
layer {
  name: "pool1/3x3_s2"
  type: "Pooling"
  bottom: "conv1/7x7_s2"
  top: "pool1/3x3_s2"
  pooling_param {
    pool: MAX
    kernel_size: 3
    stride: 2
  }
}
layer {
  name: "pool1/norm1"
  type: "LRN"
  bottom: "pool1/3x3_s2"
  top: "pool1/norm1"
  lrn_param {
    local_size: 5
    alpha: 0.0001
    beta: 0.75
  }
}
layer {
  name: "conv2/3x3_reduce"
  type: "Convolution"
  bottom: "pool1/norm1"
  top: "conv2/3x3_reduce"
  param {
    lr_mult: 1
    decay_mult: 1
  }
  param {
    lr_mult: 2
    decay_mult: 0
  }
  convolution_param {
    num_output: 64
    kernel_size: 1
    weight_filler {
      type: "xavier"
      std: 0.1
    }
    bias_filler {
      type: "constant"
      value: 0.2
    }
  }
}
layer {
  name: "conv2/relu_3x3_reduce"
  type: "ReLU"
  bottom: "conv2/3x3_reduce"
  top: "conv2/3x3_reduce"
}
layer {
  name: "conv2/3x3"
  type: "Convolution"
  bottom: "conv2/3x3_reduce"
  top: "conv2/3x3"
  param {
    lr_mult: 1
    decay_mult: 1
  }
  param {
    lr_mult: 2
    decay_mult: 0
  }
  convolution_param {
    num_output: 192
    pad: 1
    kernel_size: 3
    weight_filler {
      type: "xavier"
      std: 0.03
    }
    bias_filler {
      type: "constant"
      value: 0.2
    }
  }
}
layer {
  name: "conv2/relu_3x3"
  type: "ReLU"
  bottom: "conv2/3x3"
  top: "conv2/3x3"
}
layer {
  name: "conv2/norm2"
  type: "LRN"
  bottom: "conv2/3x3"
  top: "conv2/norm2"
  lrn_param {
    local_size: 5
    alpha: 0.0001
    beta: 0.75
  }
}
layer {
  name: "pool2/3x3_s2"
  type: "Pooling"
  bottom: "conv2/norm2"
  top: "pool2/3x3_s2"
  pooling_param {
    pool: MAX
    kernel_size: 3
    stride: 2
  }
}
layer {
  name: "inception_3a/1x1"
  type: "Convolution"
  bottom: "pool2/3x3_s2"
  top: "inception_3a/1x1"
  param {
    lr_mult: 1
    decay_mult: 1
  }
  param {
    lr_mult: 2
    decay_mult: 0
  }
  convolution_param {
    num_output: 64
    kernel_size: 1
    weight_filler {
      type: "xavier"
      std: 0.03
    }
    bias_filler {
      type: "constant"
      value: 0.2
    }
  }
}
layer {
  name: "inception_3a/relu_1x1"
  type: "ReLU"
  bottom: "inception_3a/1x1"
  top: "inception_3a/1x1"
}
layer {
  name: "inception_3a/3x3_reduce"
  type: "Convolution"
  bottom: "pool2/3x3_s2"
  top: "inception_3a/3x3_reduce"
  param {
    lr_mult: 1
    decay_mult: 1
  }
  param {
    lr_mult: 2
    decay_mult: 0
  }
  convolution_param {
    num_output: 96
    kernel_size: 1
    weight_filler {
      type: "xavier"
      std: 0.09
    }
    bias_filler {
      type: "constant"
      value: 0.2
    }
  }
}
layer {
  name: "inception_3a/relu_3x3_reduce"
  type: "ReLU"
  bottom: "inception_3a/3x3_reduce"
  top: "inception_3a/3x3_reduce"
}
layer {
  name: "inception_3a/3x3"
  type: "Convolution"
  bottom: "inception_3a/3x3_reduce"
  top: "inception_3a/3x3"
  param {
    lr_mult: 1
    decay_mult: 1
  }
  param {
    lr_mult: 2
    decay_mult: 0
  }
  convolution_param {
    num_output: 128
    pad: 1
    kernel_size: 3
    weight_filler {
      type: "xavier"
      std: 0.03
    }
    bias_filler {
      type: "constant"
      value: 0.2
    }
  }
}
layer {
  name: "inception_3a/relu_3x3"
  type: "ReLU"
  bottom: "inception_3a/3x3"
  top: "inception_3a/3x3"
}
layer {
  name: "inception_3a/5x5_reduce"
  type: "Convolution"
  bottom: "pool2/3x3_s2"
  top: "inception_3a/5x5_reduce"
  param {
    lr_mult: 1
    decay_mult: 1
  }
  param {
    lr_mult: 2
    decay_mult: 0
  }
  convolution_param {
    num_output: 16
    kernel_size: 1
    weight_filler {
      type: "xavier"
      std: 0.2
    }
    bias_filler {
      type: "constant"
      value: 0.2
    }
  }
}
layer {
  name: "inception_3a/relu_5x5_reduce"
  type: "ReLU"
  bottom: "inception_3a/5x5_reduce"
  top: "inception_3a/5x5_reduce"
}
layer {
  name: "inception_3a/5x5"
  type: "Convolution"
  bottom: "inception_3a/5x5_reduce"
  top: "inception_3a/5x5"
  param {
    lr_mult: 1
    decay_mult: 1
  }
  param {
    lr_mult: 2
    decay_mult: 0
  }
  convolution_param {
    num_output: 32
    pad: 2
    kernel_size: 5
    weight_filler {
      type: "xavier"
      std: 0.03
    }
    bias_filler {
      type: "constant"
      value: 0.2
    }
  }
}
layer {
  name: "inception_3a/relu_5x5"
  type: "ReLU"
  bottom: "inception_3a/5x5"
  top: "inception_3a/5x5"
}
layer {
  name: "inception_3a/pool"
  type: "Pooling"
  bottom: "pool2/3x3_s2"
  top: "inception_3a/pool"
  pooling_param {
    pool: MAX
    kernel_size: 3
    stride: 1
    pad: 1
  }
}
layer {
  name: "inception_3a/pool_proj"
  type: "Convolution"
  bottom: "inception_3a/pool"
  top: "inception_3a/pool_proj"
  param {
    lr_mult: 1
    decay_mult: 1
  }
  param {
    lr_mult: 2
    decay_mult: 0
  }
  convolution_param {
    num_output: 32
    kernel_size: 1
    weight_filler {
      type: "xavier"
      std: 0.1
    }
    bias_filler {
      type: "constant"
      value: 0.2
    }
  }
}
layer {
  name: "inception_3a/relu_pool_proj"
  type: "ReLU"
  bottom: "inception_3a/pool_proj"
  top: "inception_3a/pool_proj"
}
layer {
  name: "inception_3a/output"
  type: "Concat"
  bottom: "inception_3a/1x1"
  bottom: "inception_3a/3x3"
  bottom: "inception_3a/5x5"
  bottom: "inception_3a/pool_proj"
  top: "inception_3a/output"
}
layer {
  name: "inception_3b/1x1"
  type: "Convolution"
  bottom: "inception_3a/output"
  top: "inception_3b/1x1"
  param {
    lr_mult: 1
    decay_mult: 1
  }
  param {
    lr_mult: 2
    decay_mult: 0
  }
  convolution_param {
    num_output: 128
    kernel_size: 1
    weight_filler {
      type: "xavier"
      std: 0.03
    }
    bias_filler {
      type: "constant"
      value: 0.2
    }
  }
}
layer {
  name: "inception_3b/relu_1x1"
  type: "ReLU"
  bottom: "inception_3b/1x1"
  top: "inception_3b/1x1"
}
layer {
  name: "inception_3b/3x3_reduce"
  type: "Convolution"
  bottom: "inception_3a/output"
  top: "inception_3b/3x3_reduce"
  param {
    lr_mult: 1
    decay_mult: 1
  }
  param {
    lr_mult: 2
    decay_mult: 0
  }
  convolution_param {
    num_output: 128
    kernel_size: 1
    weight_filler {
      type: "xavier"
      std: 0.09
    }
    bias_filler {
      type: "constant"
      value: 0.2
    }
  }
}
layer {
  name: "inception_3b/relu_3x3_reduce"
  type: "ReLU"
  bottom: "inception_3b/3x3_reduce"
  top: "inception_3b/3x3_reduce"
}
layer {
  name: "inception_3b/3x3"
  type: "Convolution"
  bottom: "inception_3b/3x3_reduce"
  top: "inception_3b/3x3"
  param {
    lr_mult: 1
    decay_mult: 1
  }
  param {
    lr_mult: 2
    decay_mult: 0
  }
  convolution_param {
    num_output: 192
    pad: 1
    kernel_size: 3
    weight_filler {
      type: "xavier"
      std: 0.03
    }
    bias_filler {
      type: "constant"
      value: 0.2
    }
  }
}
layer {
  name: "inception_3b/relu_3x3"
  type: "ReLU"
  bottom: "inception_3b/3x3"
  top: "inception_3b/3x3"
}
layer {
  name: "inception_3b/5x5_reduce"
  type: "Convolution"
  bottom: "inception_3a/output"
  top: "inception_3b/5x5_reduce"
  param {
    lr_mult: 1
    decay_mult: 1
  }
  param {
    lr_mult: 2
    decay_mult: 0
  }
  convolution_param {
    num_output: 32
    kernel_size: 1
    weight_filler {
      type: "xavier"
      std: 0.2
    }
    bias_filler {
      type: "constant"
      value: 0.2
    }
  }
}
layer {
  name: "inception_3b/relu_5x5_reduce"
  type: "ReLU"
  bottom: "inception_3b/5x5_reduce"
  top: "inception_3b/5x5_reduce"
}
layer {
  name: "inception_3b/5x5"
  type: "Convolution"
  bottom: "inception_3b/5x5_reduce"
  top: "inception_3b/5x5"
  param {
    lr_mult: 1
    decay_mult: 1
  }
  param {
    lr_mult: 2
    decay_mult: 0
  }
  convolution_param {
    num_output: 96
    pad: 2
    kernel_size: 5
    weight_filler {
      type: "xavier"
      std: 0.03
    }
    bias_filler {
      type: "constant"
      value: 0.2
    }
  }
}
layer {
  name: "inception_3b/relu_5x5"
  type: "ReLU"
  bottom: "inception_3b/5x5"
  top: "inception_3b/5x5"
}
layer {
  name: "inception_3b/pool"
  type: "Pooling"
  bottom: "inception_3a/output"
  top: "inception_3b/pool"
  pooling_param {
    pool: MAX
    kernel_size: 3
    stride: 1
    pad: 1
  }
}
layer {
  name: "inception_3b/pool_proj"
  type: "Convolution"
  bottom: "inception_3b/pool"
  top: "inception_3b/pool_proj"
  param {
    lr_mult: 1
    decay_mult: 1
  }
  param {
    lr_mult: 2
    decay_mult: 0
  }
  convolution_param {
    num_output: 64
    kernel_size: 1
    weight_filler {
      type: "xavier"
      std: 0.1
    }
    bias_filler {
      type: "constant"
      value: 0.2
    }
  }
}
layer {
  name: "inception_3b/relu_pool_proj"
  type: "ReLU"
  bottom: "inception_3b/pool_proj"
  top: "inception_3b/pool_proj"
}
layer {
  name: "inception_3b/output"
  type: "Concat"
  bottom: "inception_3b/1x1"
  bottom: "inception_3b/3x3"
  bottom: "inception_3b/5x5"
  bottom: "inception_3b/pool_proj"
  top: "inception_3b/output"
}
layer {
  name: "pool3/3x3_s2"
  type: "Pooling"
  bottom: "inception_3b/output"
  top: "pool3/3x3_s2"
  pooling_param {
    pool: MAX
    kernel_size: 3
    stride: 2
  }
}
layer {
  name: "inception_4a/1x1"
  type: "Convolution"
  bottom: "pool3/3x3_s2"
  top: "inception_4a/1x1"
  param {
    lr_mult: 1
    decay_mult: 1
  }
  param {
    lr_mult: 2
    decay_mult: 0
  }
  convolution_param {
    num_output: 192
    kernel_size: 1
    weight_filler {
      type: "xavier"
      std: 0.03
    }
    bias_filler {
      type: "constant"
      value: 0.2
    }
  }
}
layer {
  name: "inception_4a/relu_1x1"
  type: "ReLU"
  bottom: "inception_4a/1x1"
  top: "inception_4a/1x1"
}
layer {
  name: "inception_4a/3x3_reduce"
  type: "Convolution"
  bottom: "pool3/3x3_s2"
  top: "inception_4a/3x3_reduce"
  param {
    lr_mult: 1
    decay_mult: 1
  }
  param {
    lr_mult: 2
    decay_mult: 0
  }
  convolution_param {
    num_output: 96
    kernel_size: 1
    weight_filler {
      type: "xavier"
      std: 0.09
    }
    bias_filler {
      type: "constant"
      value: 0.2
    }
  }
}
layer {
  name: "inception_4a/relu_3x3_reduce"
  type: "ReLU"
  bottom: "inception_4a/3x3_reduce"
  top: "inception_4a/3x3_reduce"
}
layer {
  name: "inception_4a/3x3"
  type: "Convolution"
  bottom: "inception_4a/3x3_reduce"
  top: "inception_4a/3x3"
  param {
    lr_mult: 1
    decay_mult: 1
  }
  param {
    lr_mult: 2
    decay_mult: 0
  }
  convolution_param {
    num_output: 208
    pad: 1
    kernel_size: 3
    weight_filler {
      type: "xavier"
      std: 0.03
    }
    bias_filler {
      type: "constant"
      value: 0.2
    }
  }
}
layer {
  name: "inception_4a/relu_3x3"
  type: "ReLU"
  bottom: "inception_4a/3x3"
  top: "inception_4a/3x3"
}
layer {
  name: "inception_4a/5x5_reduce"
  type: "Convolution"
  bottom: "pool3/3x3_s2"
  top: "inception_4a/5x5_reduce"
  param {
    lr_mult: 1
    decay_mult: 1
  }
  param {
    lr_mult: 2
    decay_mult: 0
  }
  convolution_param {
    num_output: 16
    kernel_size: 1
    weight_filler {
      type: "xavier"
      std: 0.2
    }
    bias_filler {
      type: "constant"
      value: 0.2
    }
  }
}
layer {
  name: "inception_4a/relu_5x5_reduce"
  type: "ReLU"
  bottom: "inception_4a/5x5_reduce"
  top: "inception_4a/5x5_reduce"
}
layer {
  name: "inception_4a/5x5"
  type: "Convolution"
  bottom: "inception_4a/5x5_reduce"
  top: "inception_4a/5x5"
  param {
    lr_mult: 1
    decay_mult: 1
  }
  param {
    lr_mult: 2
    decay_mult: 0
  }
  convolution_param {
    num_output: 48
    pad: 2
    kernel_size: 5
    weight_filler {
      type: "xavier"
      std: 0.03
    }
    bias_filler {
      type: "constant"
      value: 0.2
    }
  }
}
layer {
  name: "inception_4a/relu_5x5"
  type: "ReLU"
  bottom: "inception_4a/5x5"
  top: "inception_4a/5x5"
}
layer {
  name: "inception_4a/pool"
  type: "Pooling"
  bottom: "pool3/3x3_s2"
  top: "inception_4a/pool"
  pooling_param {
    pool: MAX
    kernel_size: 3
    stride: 1
    pad: 1
  }
}
layer {
  name: "inception_4a/pool_proj"
  type: "Convolution"
  bottom: "inception_4a/pool"
  top: "inception_4a/pool_proj"
  param {
    lr_mult: 1
    decay_mult: 1
  }
  param {
    lr_mult: 2
    decay_mult: 0
  }
  convolution_param {
    num_output: 64
    kernel_size: 1
    weight_filler {
      type: "xavier"
      std: 0.1
    }
    bias_filler {
      type: "constant"
      value: 0.2
    }
  }
}
layer {
  name: "inception_4a/relu_pool_proj"
  type: "ReLU"
  bottom: "inception_4a/pool_proj"
  top: "inception_4a/pool_proj"
}
layer {
  name: "inception_4a/output"
  type: "Concat"
  bottom: "inception_4a/1x1"
  bottom: "inception_4a/3x3"
  bottom: "inception_4a/5x5"
  bottom: "inception_4a/pool_proj"
  top: "inception_4a/output"
}
layer {
  name: "loss1/ave_pool"
  type: "Pooling"
  bottom: "inception_4a/output"
  top: "loss1/ave_pool"
  pooling_param {
    pool: AVE
    kernel_size: 5
    stride: 3
  }
}
layer {
  name: "loss1/conv"
  type: "Convolution"
  bottom: "loss1/ave_pool"
  top: "loss1/conv"
  param {
    lr_mult: 1
    decay_mult: 1
  }
  param {
    lr_mult: 2
    decay_mult: 0
  }
  convolution_param {
    num_output: 128
    kernel_size: 1
    weight_filler {
      type: "xavier"
      std: 0.08
    }
    bias_filler {
      type: "constant"
      value: 0.2
    }
  }
}
layer {
  name: "loss1/relu_conv"
  type: "ReLU"
  bottom: "loss1/conv"
  top: "loss1/conv"
}
layer {
  name: "loss1/fc"
  type: "InnerProduct"
  bottom: "loss1/conv"
  top: "loss1/fc"
  param {
    lr_mult: 1
    decay_mult: 1
  }
  param {
    lr_mult: 2
    decay_mult: 0
  }
  inner_product_param {
    num_output: 1024
    weight_filler {
      type: "xavier"
      std: 0.02
    }
    bias_filler {
      type: "constant"
      value: 0.2
    }
  }
}
layer {
  name: "loss1/relu_fc"
  type: "ReLU"
  bottom: "loss1/fc"
  top: "loss1/fc"
}
layer {
  name: "loss1/drop_fc"
  type: "Dropout"
  bottom: "loss1/fc"
  top: "loss1/fc"
  dropout_param {
    dropout_ratio: 0.7
  }
}
layer {
  name: "loss1/classifier_plantvillage"
  type: "InnerProduct"
  bottom: "loss1/fc"
  top: "loss1/classifier_plantvillage"
  param {
    lr_mult: 1
    decay_mult: 1
  }
  param {
    lr_mult: 2
    decay_mult: 0
  }
  inner_product_param {
    num_output: 38
    weight_filler {
      type: "xavier"
      std: 0.0009765625
    }
    bias_filler {
      type: "constant"
      value: 0
    }
  }
}
layer {
  name: "inception_4b/1x1"
  type: "Convolution"
  bottom: "inception_4a/output"
  top: "inception_4b/1x1"
  param {
    lr_mult: 1
    decay_mult: 1
  }
  param {
    lr_mult: 2
    decay_mult: 0
  }
  convolution_param {
    num_output: 160
    kernel_size: 1
    weight_filler {
      type: "xavier"
      std: 0.03
    }
    bias_filler {
      type: "constant"
      value: 0.2
    }
  }
}
layer {
  name: "inception_4b/relu_1x1"
  type: "ReLU"
  bottom: "inception_4b/1x1"
  top: "inception_4b/1x1"
}
layer {
  name: "inception_4b/3x3_reduce"
  type: "Convolution"
  bottom: "inception_4a/output"
  top: "inception_4b/3x3_reduce"
  param {
    lr_mult: 1
    decay_mult: 1
  }
  param {
    lr_mult: 2
    decay_mult: 0
  }
  convolution_param {
    num_output: 112
    kernel_size: 1
    weight_filler {
      type: "xavier"
      std: 0.09
    }
    bias_filler {
      type: "constant"
      value: 0.2
    }
  }
}
layer {
  name: "inception_4b/relu_3x3_reduce"
  type: "ReLU"
  bottom: "inception_4b/3x3_reduce"
  top: "inception_4b/3x3_reduce"
}
layer {
  name: "inception_4b/3x3"
  type: "Convolution"
  bottom: "inception_4b/3x3_reduce"
  top: "inception_4b/3x3"
  param {
    lr_mult: 1
    decay_mult: 1
  }
  param {
    lr_mult: 2
    decay_mult: 0
  }
  convolution_param {
    num_output: 224
    pad: 1
    kernel_size: 3
    weight_filler {
      type: "xavier"
      std: 0.03
    }
    bias_filler {
      type: "constant"
      value: 0.2
    }
  }
}
layer {
  name: "inception_4b/relu_3x3"
  type: "ReLU"
  bottom: "inception_4b/3x3"
  top: "inception_4b/3x3"
}
layer {
  name: "inception_4b/5x5_reduce"
  type: "Convolution"
  bottom: "inception_4a/output"
  top: "inception_4b/5x5_reduce"
  param {
    lr_mult: 1
    decay_mult: 1
  }
  param {
    lr_mult: 2
    decay_mult: 0
  }
  convolution_param {
    num_output: 24
    kernel_size: 1
    weight_filler {
      type: "xavier"
      std: 0.2
    }
    bias_filler {
      type: "constant"
      value: 0.2
    }
  }
}
layer {
  name: "inception_4b/relu_5x5_reduce"
  type: "ReLU"
  bottom: "inception_4b/5x5_reduce"
  top: "inception_4b/5x5_reduce"
}
layer {
  name: "inception_4b/5x5"
  type: "Convolution"
  bottom: "inception_4b/5x5_reduce"
  top: "inception_4b/5x5"
  param {
    lr_mult: 1
    decay_mult: 1
  }
  param {
    lr_mult: 2
    decay_mult: 0
  }
  convolution_param {
    num_output: 64
    pad: 2
    kernel_size: 5
    weight_filler {
      type: "xavier"
      std: 0.03
    }
    bias_filler {
      type: "constant"
      value: 0.2
    }
  }
}
layer {
  name: "inception_4b/relu_5x5"
  type: "ReLU"
  bottom: "inception_4b/5x5"
  top: "inception_4b/5x5"
}
layer {
  name: "inception_4b/pool"
  type: "Pooling"
  bottom: "inception_4a/output"
  top: "inception_4b/pool"
  pooling_param {
    pool: MAX
    kernel_size: 3
    stride: 1
    pad: 1
  }
}
layer {
  name: "inception_4b/pool_proj"
  type: "Convolution"
  bottom: "inception_4b/pool"
  top: "inception_4b/pool_proj"
  param {
    lr_mult: 1
    decay_mult: 1
  }
  param {
    lr_mult: 2
    decay_mult: 0
  }
  convolution_param {
    num_output: 64
    kernel_size: 1
    weight_filler {
      type: "xavier"
      std: 0.1
    }
    bias_filler {
      type: "constant"
      value: 0.2
    }
  }
}
layer {
  name: "inception_4b/relu_pool_proj"
  type: "ReLU"
  bottom: "inception_4b/pool_proj"
  top: "inception_4b/pool_proj"
}
layer {
  name: "inception_4b/output"
  type: "Concat"
  bottom: "inception_4b/1x1"
  bottom: "inception_4b/3x3"
  bottom: "inception_4b/5x5"
  bottom: "inception_4b/pool_proj"
  top: "inception_4b/output"
}
layer {
  name: "inception_4c/1x1"
  type: "Convolution"
  bottom: "inception_4b/output"
  top: "inception_4c/1x1"
  param {
    lr_mult: 1
    decay_mult: 1
  }
  param {
    lr_mult: 2
    decay_mult: 0
  }
  convolution_param {
    num_output: 128
    kernel_size: 1
    weight_filler {
      type: "xavier"
      std: 0.03
    }
    bias_filler {
      type: "constant"
      value: 0.2
    }
  }
}
layer {
  name: "inception_4c/relu_1x1"
  type: "ReLU"
  bottom: "inception_4c/1x1"
  top: "inception_4c/1x1"
}
layer {
  name: "inception_4c/3x3_reduce"
  type: "Convolution"
  bottom: "inception_4b/output"
  top: "inception_4c/3x3_reduce"
  param {
    lr_mult: 1
    decay_mult: 1
  }
  param {
    lr_mult: 2
    decay_mult: 0
  }
  convolution_param {
    num_output: 128
    kernel_size: 1
    weight_filler {
      type: "xavier"
      std: 0.09
    }
    bias_filler {
      type: "constant"
      value: 0.2
    }
  }
}
layer {
  name: "inception_4c/relu_3x3_reduce"
  type: "ReLU"
  bottom: "inception_4c/3x3_reduce"
  top: "inception_4c/3x3_reduce"
}
layer {
  name: "inception_4c/3x3"
  type: "Convolution"
  bottom: "inception_4c/3x3_reduce"
  top: "inception_4c/3x3"
  param {
    lr_mult: 1
    decay_mult: 1
  }
  param {
    lr_mult: 2
    decay_mult: 0
  }
  convolution_param {
    num_output: 256
    pad: 1
    kernel_size: 3
    weight_filler {
      type: "xavier"
      std: 0.03
    }
    bias_filler {
      type: "constant"
      value: 0.2
    }
  }
}
layer {
  name: "inception_4c/relu_3x3"
  type: "ReLU"
  bottom: "inception_4c/3x3"
  top: "inception_4c/3x3"
}
layer {
  name: "inception_4c/5x5_reduce"
  type: "Convolution"
  bottom: "inception_4b/output"
  top: "inception_4c/5x5_reduce"
  param {
    lr_mult: 1
    decay_mult: 1
  }
  param {
    lr_mult: 2
    decay_mult: 0
  }
  convolution_param {
    num_output: 24
    kernel_size: 1
    weight_filler {
      type: "xavier"
      std: 0.2
    }
    bias_filler {
      type: "constant"
      value: 0.2
    }
  }
}
layer {
  name: "inception_4c/relu_5x5_reduce"
  type: "ReLU"
  bottom: "inception_4c/5x5_reduce"
  top: "inception_4c/5x5_reduce"
}
layer {
  name: "inception_4c/5x5"
  type: "Convolution"
  bottom: "inception_4c/5x5_reduce"
  top: "inception_4c/5x5"
  param {
    lr_mult: 1
    decay_mult: 1
  }
  param {
    lr_mult: 2
    decay_mult: 0
  }
  convolution_param {
    num_output: 64
    pad: 2
    kernel_size: 5
    weight_filler {
      type: "xavier"
      std: 0.03
    }
    bias_filler {
      type: "constant"
      value: 0.2
    }
  }
}
layer {
  name: "inception_4c/relu_5x5"
  type: "ReLU"
  bottom: "inception_4c/5x5"
  top: "inception_4c/5x5"
}
layer {
  name: "inception_4c/pool"
  type: "Pooling"
  bottom: "inception_4b/output"
  top: "inception_4c/pool"
  pooling_param {
    pool: MAX
    kernel_size: 3
    stride: 1
    pad: 1
  }
}
layer {
  name: "inception_4c/pool_proj"
  type: "Convolution"
  bottom: "inception_4c/pool"
  top: "inception_4c/pool_proj"
  param {
    lr_mult: 1
    decay_mult: 1
  }
  param {
    lr_mult: 2
    decay_mult: 0
  }
  convolution_param {
    num_output: 64
    kernel_size: 1
    weight_filler {
      type: "xavier"
      std: 0.1
    }
    bias_filler {
      type: "constant"
      value: 0.2
    }
  }
}
layer {
  name: "inception_4c/relu_pool_proj"
  type: "ReLU"
  bottom: "inception_4c/pool_proj"
  top: "inception_4c/pool_proj"
}
layer {
  name: "inception_4c/output"
  type: "Concat"
  bottom: "inception_4c/1x1"
  bottom: "inception_4c/3x3"
  bottom: "inception_4c/5x5"
  bottom: "inception_4c/pool_proj"
  top: "inception_4c/output"
}
layer {
  name: "inception_4d/1x1"
  type: "Convolution"
  bottom: "inception_4c/output"
  top: "inception_4d/1x1"
  param {
    lr_mult: 1
    decay_mult: 1
  }
  param {
    lr_mult: 2
    decay_mult: 0
  }
  convolution_param {
    num_output: 112
    kernel_size: 1
    weight_filler {
      type: "xavier"
      std: 0.03
    }
    bias_filler {
      type: "constant"
      value: 0.2
    }
  }
}
layer {
  name: "inception_4d/relu_1x1"
  type: "ReLU"
  bottom: "inception_4d/1x1"
  top: "inception_4d/1x1"
}
layer {
  name: "inception_4d/3x3_reduce"
  type: "Convolution"
  bottom: "inception_4c/output"
  top: "inception_4d/3x3_reduce"
  param {
    lr_mult: 1
    decay_mult: 1
  }
  param {
    lr_mult: 2
    decay_mult: 0
  }
  convolution_param {
    num_output: 144
    kernel_size: 1
    weight_filler {
      type: "xavier"
      std: 0.09
    }
    bias_filler {
      type: "constant"
      value: 0.2
    }
  }
}
layer {
  name: "inception_4d/relu_3x3_reduce"
  type: "ReLU"
  bottom: "inception_4d/3x3_reduce"
  top: "inception_4d/3x3_reduce"
}
layer {
  name: "inception_4d/3x3"
  type: "Convolution"
  bottom: "inception_4d/3x3_reduce"
  top: "inception_4d/3x3"
  param {
    lr_mult: 1
    decay_mult: 1
  }
  param {
    lr_mult: 2
    decay_mult: 0
  }
  convolution_param {
    num_output: 288
    pad: 1
    kernel_size: 3
    weight_filler {
      type: "xavier"
      std: 0.03
    }
    bias_filler {
      type: "constant"
      value: 0.2
    }
  }
}
layer {
  name: "inception_4d/relu_3x3"
  type: "ReLU"
  bottom: "inception_4d/3x3"
  top: "inception_4d/3x3"
}
layer {
  name: "inception_4d/5x5_reduce"
  type: "Convolution"
  bottom: "inception_4c/output"
  top: "inception_4d/5x5_reduce"
  param {
    lr_mult: 1
    decay_mult: 1
  }
  param {
    lr_mult: 2
    decay_mult: 0
  }
  convolution_param {
    num_output: 32
    kernel_size: 1
    weight_filler {
      type: "xavier"
      std: 0.2
    }
    bias_filler {
      type: "constant"
      value: 0.2
    }
  }
}
layer {
  name: "inception_4d/relu_5x5_reduce"
  type: "ReLU"
  bottom: "inception_4d/5x5_reduce"
  top: "inception_4d/5x5_reduce"
}
layer {
  name: "inception_4d/5x5"
  type: "Convolution"
  bottom: "inception_4d/5x5_reduce"
  top: "inception_4d/5x5"
  param {
    lr_mult: 1
    decay_mult: 1
  }
  param {
    lr_mult: 2
    decay_mult: 0
  }
  convolution_param {
    num_output: 64
    pad: 2
    kernel_size: 5
    weight_filler {
      type: "xavier"
      std: 0.03
    }
    bias_filler {
      type: "constant"
      value: 0.2
    }
  }
}
layer {
  name: "inception_4d/relu_5x5"
  type: "ReLU"
  bottom: "inception_4d/5x5"
  top: "inception_4d/5x5"
}
layer {
  name: "inception_4d/pool"
  type: "Pooling"
  bottom: "inception_4c/output"
  top: "inception_4d/pool"
  pooling_param {
    pool: MAX
    kernel_size: 3
    stride: 1
    pad: 1
  }
}
layer {
  name: "inception_4d/pool_proj"
  type: "Convolution"
  bottom: "inception_4d/pool"
  top: "inception_4d/pool_proj"
  param {
    lr_mult: 1
    decay_mult: 1
  }
  param {
    lr_mult: 2
    decay_mult: 0
  }
  convolution_param {
    num_output: 64
    kernel_size: 1
    weight_filler {
      type: "xavier"
      std: 0.1
    }
    bias_filler {
      type: "constant"
      value: 0.2
    }
  }
}
layer {
  name: "inception_4d/relu_pool_proj"
  type: "ReLU"
  bottom: "inception_4d/pool_proj"
  top: "inception_4d/pool_proj"
}
layer {
  name: "inception_4d/output"
  type: "Concat"
  bottom: "inception_4d/1x1"
  bottom: "inception_4d/3x3"
  bottom: "inception_4d/5x5"
  bottom: "inception_4d/pool_proj"
  top: "inception_4d/output"
}
layer {
  name: "loss2/ave_pool"
  type: "Pooling"
  bottom: "inception_4d/output"
  top: "loss2/ave_pool"
  pooling_param {
    pool: AVE
    kernel_size: 5
    stride: 3
  }
}
layer {
  name: "loss2/conv"
  type: "Convolution"
  bottom: "loss2/ave_pool"
  top: "loss2/conv"
  param {
    lr_mult: 1
    decay_mult: 1
  }
  param {
    lr_mult: 2
    decay_mult: 0
  }
  convolution_param {
    num_output: 128
    kernel_size: 1
    weight_filler {
      type: "xavier"
      std: 0.08
    }
    bias_filler {
      type: "constant"
      value: 0.2
    }
  }
}
layer {
  name: "loss2/relu_conv"
  type: "ReLU"
  bottom: "loss2/conv"
  top: "loss2/conv"
}
layer {
  name: "loss2/fc"
  type: "InnerProduct"
  bottom: "loss2/conv"
  top: "loss2/fc"
  param {
    lr_mult: 1
    decay_mult: 1
  }
  param {
    lr_mult: 2
    decay_mult: 0
  }
  inner_product_param {
    num_output: 1024
    weight_filler {
      type: "xavier"
      std: 0.02
    }
    bias_filler {
      type: "constant"
      value: 0.2
    }
  }
}
layer {
  name: "loss2/relu_fc"
  type: "ReLU"
  bottom: "loss2/fc"
  top: "loss2/fc"
}
layer {
  name: "loss2/drop_fc"
  type: "Dropout"
  bottom: "loss2/fc"
  top: "loss2/fc"
  dropout_param {
    dropout_ratio: 0.7
  }
}
layer {
  name: "loss2/classifier_plantvillage"
  type: "InnerProduct"
  bottom: "loss2/fc"
  top: "loss2/classifier_plantvillage"
  param {
    lr_mult: 1
    decay_mult: 1
  }
  param {
    lr_mult: 2
    decay_mult: 0
  }
  inner_product_param {
    num_output: 38
    weight_filler {
      type: "xavier"
      std: 0.0009765625
    }
    bias_filler {
      type: "constant"
      value: 0
    }
  }
}
layer {
  name: "inception_4e/1x1"
  type: "Convolution"
  bottom: "inception_4d/output"
  top: "inception_4e/1x1"
  param {
    lr_mult: 1
    decay_mult: 1
  }
  param {
    lr_mult: 2
    decay_mult: 0
  }
  convolution_param {
    num_output: 256
    kernel_size: 1
    weight_filler {
      type: "xavier"
      std: 0.03
    }
    bias_filler {
      type: "constant"
      value: 0.2
    }
  }
}
layer {
  name: "inception_4e/relu_1x1"
  type: "ReLU"
  bottom: "inception_4e/1x1"
  top: "inception_4e/1x1"
}
layer {
  name: "inception_4e/3x3_reduce"
  type: "Convolution"
  bottom: "inception_4d/output"
  top: "inception_4e/3x3_reduce"
  param {
    lr_mult: 1
    decay_mult: 1
  }
  param {
    lr_mult: 2
    decay_mult: 0
  }
  convolution_param {
    num_output: 160
    kernel_size: 1
    weight_filler {
      type: "xavier"
      std: 0.09
    }
    bias_filler {
      type: "constant"
      value: 0.2
    }
  }
}
layer {
  name: "inception_4e/relu_3x3_reduce"
  type: "ReLU"
  bottom: "inception_4e/3x3_reduce"
  top: "inception_4e/3x3_reduce"
}
layer {
  name: "inception_4e/3x3"
  type: "Convolution"
  bottom: "inception_4e/3x3_reduce"
  top: "inception_4e/3x3"
  param {
    lr_mult: 1
    decay_mult: 1
  }
  param {
    lr_mult: 2
    decay_mult: 0
  }
  convolution_param {
    num_output: 320
    pad: 1
    kernel_size: 3
    weight_filler {
      type: "xavier"
      std: 0.03
    }
    bias_filler {
      type: "constant"
      value: 0.2
    }
  }
}
layer {
  name: "inception_4e/relu_3x3"
  type: "ReLU"
  bottom: "inception_4e/3x3"
  top: "inception_4e/3x3"
}
layer {
  name: "inception_4e/5x5_reduce"
  type: "Convolution"
  bottom: "inception_4d/output"
  top: "inception_4e/5x5_reduce"
  param {
    lr_mult: 1
    decay_mult: 1
  }
  param {
    lr_mult: 2
    decay_mult: 0
  }
  convolution_param {
    num_output: 32
    kernel_size: 1
    weight_filler {
      type: "xavier"
      std: 0.2
    }
    bias_filler {
      type: "constant"
      value: 0.2
    }
  }
}
layer {
  name: "inception_4e/relu_5x5_reduce"
  type: "ReLU"
  bottom: "inception_4e/5x5_reduce"
  top: "inception_4e/5x5_reduce"
}
layer {
  name: "inception_4e/5x5"
  type: "Convolution"
  bottom: "inception_4e/5x5_reduce"
  top: "inception_4e/5x5"
  p
I0403 21:45:00.076042 12694 layer_factory.hpp:77] Creating layer data
I0403 21:45:00.076645 12694 net.cpp:91] Creating Layer data
I0403 21:45:00.076678 12694 net.cpp:399] data -> data
I0403 21:45:00.076730 12694 net.cpp:399] data -> label
I0403 21:45:00.076764 12694 data_transformer.cpp:25] Loading mean file from: /home/mohanty/data/final_dataset/lmdb/color-80-20/mean.binaryproto
I0403 21:45:00.077810 12697 db_lmdb.cpp:38] Opened lmdb /home/mohanty/data/final_dataset/lmdb/color-80-20/test_db
I0403 21:45:00.090287 12694 data_layer.cpp:41] output data size: 24,3,224,224
I0403 21:45:00.118648 12694 net.cpp:141] Setting up data
I0403 21:45:00.118737 12694 net.cpp:148] Top shape: 24 3 224 224 (3612672)
I0403 21:45:00.118762 12694 net.cpp:148] Top shape: 24 (24)
I0403 21:45:00.118779 12694 net.cpp:156] Memory required for data: 14450784
I0403 21:45:00.118806 12694 layer_factory.hpp:77] Creating layer label_data_1_split
I0403 21:45:00.118834 12694 net.cpp:91] Creating Layer label_data_1_split
I0403 21:45:00.118854 12694 net.cpp:425] label_data_1_split <- label
I0403 21:45:00.118887 12694 net.cpp:399] label_data_1_split -> label_data_1_split_0
I0403 21:45:00.118914 12694 net.cpp:399] label_data_1_split -> label_data_1_split_1
I0403 21:45:00.118937 12694 net.cpp:399] label_data_1_split -> label_data_1_split_2
I0403 21:45:00.118959 12694 net.cpp:399] label_data_1_split -> label_data_1_split_3
I0403 21:45:00.118979 12694 net.cpp:399] label_data_1_split -> label_data_1_split_4
I0403 21:45:00.118999 12694 net.cpp:399] label_data_1_split -> label_data_1_split_5
I0403 21:45:00.119019 12694 net.cpp:399] label_data_1_split -> label_data_1_split_6
I0403 21:45:00.119040 12694 net.cpp:399] label_data_1_split -> label_data_1_split_7
I0403 21:45:00.119058 12694 net.cpp:399] label_data_1_split -> label_data_1_split_8
I0403 21:45:00.119077 12694 net.cpp:399] label_data_1_split -> label_data_1_split_9
I0403 21:45:00.119194 12694 net.cpp:141] Setting up label_data_1_split
I0403 21:45:00.119222 12694 net.cpp:148] Top shape: 24 (24)
I0403 21:45:00.119240 12694 net.cpp:148] Top shape: 24 (24)
I0403 21:45:00.119257 12694 net.cpp:148] Top shape: 24 (24)
I0403 21:45:00.119273 12694 net.cpp:148] Top shape: 24 (24)
I0403 21:45:00.119289 12694 net.cpp:148] Top shape: 24 (24)
I0403 21:45:00.119305 12694 net.cpp:148] Top shape: 24 (24)
I0403 21:45:00.119321 12694 net.cpp:148] Top shape: 24 (24)
I0403 21:45:00.119338 12694 net.cpp:148] Top shape: 24 (24)
I0403 21:45:00.119352 12694 net.cpp:148] Top shape: 24 (24)
I0403 21:45:00.119369 12694 net.cpp:148] Top shape: 24 (24)
I0403 21:45:00.119415 12694 net.cpp:156] Memory required for data: 14451744
I0403 21:45:00.119433 12694 layer_factory.hpp:77] Creating layer conv1/7x7_s2
I0403 21:45:00.119467 12694 net.cpp:91] Creating Layer conv1/7x7_s2
I0403 21:45:00.119485 12694 net.cpp:425] conv1/7x7_s2 <- data
I0403 21:45:00.119505 12694 net.cpp:399] conv1/7x7_s2 -> conv1/7x7_s2
I0403 21:45:00.260632 12694 net.cpp:141] Setting up conv1/7x7_s2
I0403 21:45:00.260700 12694 net.cpp:148] Top shape: 24 64 112 112 (19267584)
I0403 21:45:00.260717 12694 net.cpp:156] Memory required for data: 91522080
I0403 21:45:00.260749 12694 layer_factory.hpp:77] Creating layer conv1/relu_7x7
I0403 21:45:00.260777 12694 net.cpp:91] Creating Layer conv1/relu_7x7
I0403 21:45:00.260795 12694 net.cpp:425] conv1/relu_7x7 <- conv1/7x7_s2
I0403 21:45:00.260855 12694 net.cpp:386] conv1/relu_7x7 -> conv1/7x7_s2 (in-place)
I0403 21:45:00.261117 12694 net.cpp:141] Setting up conv1/relu_7x7
I0403 21:45:00.261144 12694 net.cpp:148] Top shape: 24 64 112 112 (19267584)
I0403 21:45:00.261159 12694 net.cpp:156] Memory required for data: 168592416
I0403 21:45:00.261174 12694 layer_factory.hpp:77] Creating layer pool1/3x3_s2
I0403 21:45:00.261200 12694 net.cpp:91] Creating Layer pool1/3x3_s2
I0403 21:45:00.261224 12694 net.cpp:425] pool1/3x3_s2 <- conv1/7x7_s2
I0403 21:45:00.261245 12694 net.cpp:399] pool1/3x3_s2 -> pool1/3x3_s2
I0403 21:45:00.261318 12694 net.cpp:141] Setting up pool1/3x3_s2
I0403 21:45:00.261342 12694 net.cpp:148] Top shape: 24 64 56 56 (4816896)
I0403 21:45:00.261356 12694 net.cpp:156] Memory required for data: 187860000
I0403 21:45:00.261371 12694 layer_factory.hpp:77] Creating layer pool1/norm1
I0403 21:45:00.261395 12694 net.cpp:91] Creating Layer pool1/norm1
I0403 21:45:00.261414 12694 net.cpp:425] pool1/norm1 <- pool1/3x3_s2
I0403 21:45:00.261431 12694 net.cpp:399] pool1/norm1 -> pool1/norm1
I0403 21:45:00.261715 12694 net.cpp:141] Setting up pool1/norm1
I0403 21:45:00.261742 12694 net.cpp:148] Top shape: 24 64 56 56 (4816896)
I0403 21:45:00.261757 12694 net.cpp:156] Memory required for data: 207127584
I0403 21:45:00.261773 12694 layer_factory.hpp:77] Creating layer conv2/3x3_reduce
I0403 21:45:00.261797 12694 net.cpp:91] Creating Layer conv2/3x3_reduce
I0403 21:45:00.261814 12694 net.cpp:425] conv2/3x3_reduce <- pool1/norm1
I0403 21:45:00.261832 12694 net.cpp:399] conv2/3x3_reduce -> conv2/3x3_reduce
I0403 21:45:00.263224 12694 net.cpp:141] Setting up conv2/3x3_reduce
I0403 21:45:00.263254 12694 net.cpp:148] Top shape: 24 64 56 56 (4816896)
I0403 21:45:00.263270 12694 net.cpp:156] Memory required for data: 226395168
I0403 21:45:00.263290 12694 layer_factory.hpp:77] Creating layer conv2/relu_3x3_reduce
I0403 21:45:00.263311 12694 net.cpp:91] Creating Layer conv2/relu_3x3_reduce
I0403 21:45:00.263329 12694 net.cpp:425] conv2/relu_3x3_reduce <- conv2/3x3_reduce
I0403 21:45:00.263345 12694 net.cpp:386] conv2/relu_3x3_reduce -> conv2/3x3_reduce (in-place)
I0403 21:45:00.263610 12694 net.cpp:141] Setting up conv2/relu_3x3_reduce
I0403 21:45:00.263636 12694 net.cpp:148] Top shape: 24 64 56 56 (4816896)
I0403 21:45:00.263651 12694 net.cpp:156] Memory required for data: 245662752
I0403 21:45:00.263666 12694 layer_factory.hpp:77] Creating layer conv2/3x3
I0403 21:45:00.263690 12694 net.cpp:91] Creating Layer conv2/3x3
I0403 21:45:00.263708 12694 net.cpp:425] conv2/3x3 <- conv2/3x3_reduce
I0403 21:45:00.263730 12694 net.cpp:399] conv2/3x3 -> conv2/3x3
I0403 21:45:00.266041 12694 net.cpp:141] Setting up conv2/3x3
I0403 21:45:00.266072 12694 net.cpp:148] Top shape: 24 192 56 56 (14450688)
I0403 21:45:00.266088 12694 net.cpp:156] Memory required for data: 303465504
I0403 21:45:00.266109 12694 layer_factory.hpp:77] Creating layer conv2/relu_3x3
I0403 21:45:00.266160 12694 net.cpp:91] Creating Layer conv2/relu_3x3
I0403 21:45:00.266180 12694 net.cpp:425] conv2/relu_3x3 <- conv2/3x3
I0403 21:45:00.266196 12694 net.cpp:386] conv2/relu_3x3 -> conv2/3x3 (in-place)
I0403 21:45:00.266376 12694 net.cpp:141] Setting up conv2/relu_3x3
I0403 21:45:00.266405 12694 net.cpp:148] Top shape: 24 192 56 56 (14450688)
I0403 21:45:00.266450 12694 net.cpp:156] Memory required for data: 361268256
I0403 21:45:00.266466 12694 layer_factory.hpp:77] Creating layer conv2/norm2
I0403 21:45:00.266486 12694 net.cpp:91] Creating Layer conv2/norm2
I0403 21:45:00.266502 12694 net.cpp:425] conv2/norm2 <- conv2/3x3
I0403 21:45:00.266523 12694 net.cpp:399] conv2/norm2 -> conv2/norm2
I0403 21:45:00.266831 12694 net.cpp:141] Setting up conv2/norm2
I0403 21:45:00.266858 12694 net.cpp:148] Top shape: 24 192 56 56 (14450688)
I0403 21:45:00.266875 12694 net.cpp:156] Memory required for data: 419071008
I0403 21:45:00.266890 12694 layer_factory.hpp:77] Creating layer pool2/3x3_s2
I0403 21:45:00.266906 12694 net.cpp:91] Creating Layer pool2/3x3_s2
I0403 21:45:00.266921 12694 net.cpp:425] pool2/3x3_s2 <- conv2/norm2
I0403 21:45:00.266942 12694 net.cpp:399] pool2/3x3_s2 -> pool2/3x3_s2
I0403 21:45:00.266999 12694 net.cpp:141] Setting up pool2/3x3_s2
I0403 21:45:00.267022 12694 net.cpp:148] Top shape: 24 192 28 28 (3612672)
I0403 21:45:00.267037 12694 net.cpp:156] Memory required for data: 433521696
I0403 21:45:00.267052 12694 layer_factory.hpp:77] Creating layer pool2/3x3_s2_pool2/3x3_s2_0_split
I0403 21:45:00.267072 12694 net.cpp:91] Creating Layer pool2/3x3_s2_pool2/3x3_s2_0_split
I0403 21:45:00.267089 12694 net.cpp:425] pool2/3x3_s2_pool2/3x3_s2_0_split <- pool2/3x3_s2
I0403 21:45:00.267108 12694 net.cpp:399] pool2/3x3_s2_pool2/3x3_s2_0_split -> pool2/3x3_s2_pool2/3x3_s2_0_split_0
I0403 21:45:00.267128 12694 net.cpp:399] pool2/3x3_s2_pool2/3x3_s2_0_split -> pool2/3x3_s2_pool2/3x3_s2_0_split_1
I0403 21:45:00.267148 12694 net.cpp:399] pool2/3x3_s2_pool2/3x3_s2_0_split -> pool2/3x3_s2_pool2/3x3_s2_0_split_2
I0403 21:45:00.267169 12694 net.cpp:399] pool2/3x3_s2_pool2/3x3_s2_0_split -> pool2/3x3_s2_pool2/3x3_s2_0_split_3
I0403 21:45:00.267244 12694 net.cpp:141] Setting up pool2/3x3_s2_pool2/3x3_s2_0_split
I0403 21:45:00.267267 12694 net.cpp:148] Top shape: 24 192 28 28 (3612672)
I0403 21:45:00.267284 12694 net.cpp:148] Top shape: 24 192 28 28 (3612672)
I0403 21:45:00.267300 12694 net.cpp:148] Top shape: 24 192 28 28 (3612672)
I0403 21:45:00.267315 12694 net.cpp:148] Top shape: 24 192 28 28 (3612672)
I0403 21:45:00.267329 12694 net.cpp:156] Memory required for data: 491324448
I0403 21:45:00.267343 12694 layer_factory.hpp:77] Creating layer inception_3a/1x1
I0403 21:45:00.267365 12694 net.cpp:91] Creating Layer inception_3a/1x1
I0403 21:45:00.267384 12694 net.cpp:425] inception_3a/1x1 <- pool2/3x3_s2_pool2/3x3_s2_0_split_0
I0403 21:45:00.267405 12694 net.cpp:399] inception_3a/1x1 -> inception_3a/1x1
I0403 21:45:00.269008 12694 net.cpp:141] Setting up inception_3a/1x1
I0403 21:45:00.269037 12694 net.cpp:148] Top shape: 24 64 28 28 (1204224)
I0403 21:45:00.269053 12694 net.cpp:156] Memory required for data: 496141344
I0403 21:45:00.269073 12694 layer_factory.hpp:77] Creating layer inception_3a/relu_1x1
I0403 21:45:00.269093 12694 net.cpp:91] Creating Layer inception_3a/relu_1x1
I0403 21:45:00.269110 12694 net.cpp:425] inception_3a/relu_1x1 <- inception_3a/1x1
I0403 21:45:00.269129 12694 net.cpp:386] inception_3a/relu_1x1 -> inception_3a/1x1 (in-place)
I0403 21:45:00.269307 12694 net.cpp:141] Setting up inception_3a/relu_1x1
I0403 21:45:00.269333 12694 net.cpp:148] Top shape: 24 64 28 28 (1204224)
I0403 21:45:00.269348 12694 net.cpp:156] Memory required for data: 500958240
I0403 21:45:00.269363 12694 layer_factory.hpp:77] Creating layer inception_3a/3x3_reduce
I0403 21:45:00.269387 12694 net.cpp:91] Creating Layer inception_3a/3x3_reduce
I0403 21:45:00.269405 12694 net.cpp:425] inception_3a/3x3_reduce <- pool2/3x3_s2_pool2/3x3_s2_0_split_1
I0403 21:45:00.269424 12694 net.cpp:399] inception_3a/3x3_reduce -> inception_3a/3x3_reduce
I0403 21:45:00.271176 12694 net.cpp:141] Setting up inception_3a/3x3_reduce
I0403 21:45:00.271211 12694 net.cpp:148] Top shape: 24 96 28 28 (1806336)
I0403 21:45:00.271230 12694 net.cpp:156] Memory required for data: 508183584
I0403 21:45:00.271253 12694 layer_factory.hpp:77] Creating layer inception_3a/relu_3x3_reduce
I0403 21:45:00.271292 12694 net.cpp:91] Creating Layer inception_3a/relu_3x3_reduce
I0403 21:45:00.271311 12694 net.cpp:425] inception_3a/relu_3x3_reduce <- inception_3a/3x3_reduce
I0403 21:45:00.271329 12694 net.cpp:386] inception_3a/relu_3x3_reduce -> inception_3a/3x3_reduce (in-place)
I0403 21:45:00.271570 12694 net.cpp:141] Setting up inception_3a/relu_3x3_reduce
I0403 21:45:00.271598 12694 net.cpp:148] Top shape: 24 96 28 28 (1806336)
I0403 21:45:00.271613 12694 net.cpp:156] Memory required for data: 515408928
I0403 21:45:00.271630 12694 layer_factory.hpp:77] Creating layer inception_3a/3x3
I0403 21:45:00.271653 12694 net.cpp:91] Creating Layer inception_3a/3x3
I0403 21:45:00.271672 12694 net.cpp:425] inception_3a/3x3 <- inception_3a/3x3_reduce
I0403 21:45:00.271695 12694 net.cpp:399] inception_3a/3x3 -> inception_3a/3x3
I0403 21:45:00.273350 12694 net.cpp:141] Setting up inception_3a/3x3
I0403 21:45:00.273378 12694 net.cpp:148] Top shape: 24 128 28 28 (2408448)
I0403 21:45:00.273394 12694 net.cpp:156] Memory required for data: 525042720
I0403 21:45:00.273413 12694 layer_factory.hpp:77] Creating layer inception_3a/relu_3x3
I0403 21:45:00.273433 12694 net.cpp:91] Creating Layer inception_3a/relu_3x3
I0403 21:45:00.273450 12694 net.cpp:425] inception_3a/relu_3x3 <- inception_3a/3x3
I0403 21:45:00.273468 12694 net.cpp:386] inception_3a/relu_3x3 -> inception_3a/3x3 (in-place)
I0403 21:45:00.273741 12694 net.cpp:141] Setting up inception_3a/relu_3x3
I0403 21:45:00.273767 12694 net.cpp:148] Top shape: 24 128 28 28 (2408448)
I0403 21:45:00.273782 12694 net.cpp:156] Memory required for data: 534676512
I0403 21:45:00.273797 12694 layer_factory.hpp:77] Creating layer inception_3a/5x5_reduce
I0403 21:45:00.273820 12694 net.cpp:91] Creating Layer inception_3a/5x5_reduce
I0403 21:45:00.273838 12694 net.cpp:425] inception_3a/5x5_reduce <- pool2/3x3_s2_pool2/3x3_s2_0_split_2
I0403 21:45:00.273860 12694 net.cpp:399] inception_3a/5x5_reduce -> inception_3a/5x5_reduce
I0403 21:45:00.274816 12694 net.cpp:141] Setting up inception_3a/5x5_reduce
I0403 21:45:00.274847 12694 net.cpp:148] Top shape: 24 16 28 28 (301056)
I0403 21:45:00.274863 12694 net.cpp:156] Memory required for data: 535880736
I0403 21:45:00.274881 12694 layer_factory.hpp:77] Creating layer inception_3a/relu_5x5_reduce
I0403 21:45:00.274899 12694 net.cpp:91] Creating Layer inception_3a/relu_5x5_reduce
I0403 21:45:00.274916 12694 net.cpp:425] inception_3a/relu_5x5_reduce <- inception_3a/5x5_reduce
I0403 21:45:00.274935 12694 net.cpp:386] inception_3a/relu_5x5_reduce -> inception_3a/5x5_reduce (in-place)
I0403 21:45:00.275221 12694 net.cpp:141] Setting up inception_3a/relu_5x5_reduce
I0403 21:45:00.275249 12694 net.cpp:148] Top shape: 24 16 28 28 (301056)
I0403 21:45:00.275265 12694 net.cpp:156] Memory required for data: 537084960
I0403 21:45:00.275281 12694 layer_factory.hpp:77] Creating layer inception_3a/5x5
I0403 21:45:00.275303 12694 net.cpp:91] Creating Layer inception_3a/5x5
I0403 21:45:00.275321 12694 net.cpp:425] inception_3a/5x5 <- inception_3a/5x5_reduce
I0403 21:45:00.275341 12694 net.cpp:399] inception_3a/5x5 -> inception_3a/5x5
I0403 21:45:00.276357 12694 net.cpp:141] Setting up inception_3a/5x5
I0403 21:45:00.276384 12694 net.cpp:148] Top shape: 24 32 28 28 (602112)
I0403 21:45:00.276401 12694 net.cpp:156] Memory required for data: 539493408
I0403 21:45:00.276419 12694 layer_factory.hpp:77] Creating layer inception_3a/relu_5x5
I0403 21:45:00.276443 12694 net.cpp:91] Creating Layer inception_3a/relu_5x5
I0403 21:45:00.276461 12694 net.cpp:425] inception_3a/relu_5x5 <- inception_3a/5x5
I0403 21:45:00.276479 12694 net.cpp:386] inception_3a/relu_5x5 -> inception_3a/5x5 (in-place)
I0403 21:45:00.276653 12694 net.cpp:141] Setting up inception_3a/relu_5x5
I0403 21:45:00.276677 12694 net.cpp:148] Top shape: 24 32 28 28 (602112)
I0403 21:45:00.276692 12694 net.cpp:156] Memory required for data: 541901856
I0403 21:45:00.276707 12694 layer_factory.hpp:77] Creating layer inception_3a/pool
I0403 21:45:00.276728 12694 net.cpp:91] Creating Layer inception_3a/pool
I0403 21:45:00.276744 12694 net.cpp:425] inception_3a/pool <- pool2/3x3_s2_pool2/3x3_s2_0_split_3
I0403 21:45:00.276779 12694 net.cpp:399] inception_3a/pool -> inception_3a/pool
I0403 21:45:00.276839 12694 net.cpp:141] Setting up inception_3a/pool
I0403 21:45:00.276861 12694 net.cpp:148] Top shape: 24 192 28 28 (3612672)
I0403 21:45:00.276876 12694 net.cpp:156] Memory required for data: 556352544
I0403 21:45:00.276890 12694 layer_factory.hpp:77] Creating layer inception_3a/pool_proj
I0403 21:45:00.276912 12694 net.cpp:91] Creating Layer inception_3a/pool_proj
I0403 21:45:00.276931 12694 net.cpp:425] inception_3a/pool_proj <- inception_3a/pool
I0403 21:45:00.276952 12694 net.cpp:399] inception_3a/pool_proj -> inception_3a/pool_proj
I0403 21:45:00.277922 12694 net.cpp:141] Setting up inception_3a/pool_proj
I0403 21:45:00.277951 12694 net.cpp:148] Top shape: 24 32 28 28 (602112)
I0403 21:45:00.277966 12694 net.cpp:156] Memory required for data: 558760992
I0403 21:45:00.277989 12694 layer_factory.hpp:77] Creating layer inception_3a/relu_pool_proj
I0403 21:45:00.278009 12694 net.cpp:91] Creating Layer inception_3a/relu_pool_proj
I0403 21:45:00.278026 12694 net.cpp:425] inception_3a/relu_pool_proj <- inception_3a/pool_proj
I0403 21:45:00.278043 12694 net.cpp:386] inception_3a/relu_pool_proj -> inception_3a/pool_proj (in-place)
I0403 21:45:00.278314 12694 net.cpp:141] Setting up inception_3a/relu_pool_proj
I0403 21:45:00.278342 12694 net.cpp:148] Top shape: 24 32 28 28 (602112)
I0403 21:45:00.278357 12694 net.cpp:156] Memory required for data: 561169440
I0403 21:45:00.278372 12694 layer_factory.hpp:77] Creating layer inception_3a/output
I0403 21:45:00.278393 12694 net.cpp:91] Creating Layer inception_3a/output
I0403 21:45:00.278409 12694 net.cpp:425] inception_3a/output <- inception_3a/1x1
I0403 21:45:00.278425 12694 net.cpp:425] inception_3a/output <- inception_3a/3x3
I0403 21:45:00.278442 12694 net.cpp:425] inception_3a/output <- inception_3a/5x5
I0403 21:45:00.278458 12694 net.cpp:425] inception_3a/output <- inception_3a/pool_proj
I0403 21:45:00.278475 12694 net.cpp:399] inception_3a/output -> inception_3a/output
I0403 21:45:00.278522 12694 net.cpp:141] Setting up inception_3a/output
I0403 21:45:00.278545 12694 net.cpp:148] Top shape: 24 256 28 28 (4816896)
I0403 21:45:00.278559 12694 net.cpp:156] Memory required for data: 580437024
I0403 21:45:00.278574 12694 layer_factory.hpp:77] Creating layer inception_3a/output_inception_3a/output_0_split
I0403 21:45:00.278591 12694 net.cpp:91] Creating Layer inception_3a/output_inception_3a/output_0_split
I0403 21:45:00.278607 12694 net.cpp:425] inception_3a/output_inception_3a/output_0_split <- inception_3a/output
I0403 21:45:00.278626 12694 net.cpp:399] inception_3a/output_inception_3a/output_0_split -> inception_3a/output_inception_3a/output_0_split_0
I0403 21:45:00.278647 12694 net.cpp:399] inception_3a/output_inception_3a/output_0_split -> inception_3a/output_inception_3a/output_0_split_1
I0403 21:45:00.278668 12694 net.cpp:399] inception_3a/output_inception_3a/output_0_split -> inception_3a/output_inception_3a/output_0_split_2
I0403 21:45:00.278692 12694 net.cpp:399] inception_3a/output_inception_3a/output_0_split -> inception_3a/output_inception_3a/output_0_split_3
I0403 21:45:00.278774 12694 net.cpp:141] Setting up inception_3a/output_inception_3a/output_0_split
I0403 21:45:00.278797 12694 net.cpp:148] Top shape: 24 256 28 28 (4816896)
I0403 21:45:00.278815 12694 net.cpp:148] Top shape: 24 256 28 28 (4816896)
I0403 21:45:00.278831 12694 net.cpp:148] Top shape: 24 256 28 28 (4816896)
I0403 21:45:00.278846 12694 net.cpp:148] Top shape: 24 256 28 28 (4816896)
I0403 21:45:00.278861 12694 net.cpp:156] Memory required for data: 657507360
I0403 21:45:00.278874 12694 layer_factory.hpp:77] Creating layer inception_3b/1x1
I0403 21:45:00.278898 12694 net.cpp:91] Creating Layer inception_3b/1x1
I0403 21:45:00.278915 12694 net.cpp:425] inception_3b/1x1 <- inception_3a/output_inception_3a/output_0_split_0
I0403 21:45:00.278936 12694 net.cpp:399] inception_3b/1x1 -> inception_3b/1x1
I0403 21:45:00.280064 12694 net.cpp:141] Setting up inception_3b/1x1
I0403 21:45:00.280102 12694 net.cpp:148] Top shape: 24 128 28 28 (2408448)
I0403 21:45:00.280120 12694 net.cpp:156] Memory required for data: 667141152
I0403 21:45:00.280138 12694 layer_factory.hpp:77] Creating layer inception_3b/relu_1x1
I0403 21:45:00.280158 12694 net.cpp:91] Creating Layer inception_3b/relu_1x1
I0403 21:45:00.280174 12694 net.cpp:425] inception_3b/relu_1x1 <- inception_3b/1x1
I0403 21:45:00.280194 12694 net.cpp:386] inception_3b/relu_1x1 -> inception_3b/1x1 (in-place)
I0403 21:45:00.280372 12694 net.cpp:141] Setting up inception_3b/relu_1x1
I0403 21:45:00.280397 12694 net.cpp:148] Top shape: 24 128 28 28 (2408448)
I0403 21:45:00.280413 12694 net.cpp:156] Memory required for data: 676774944
I0403 21:45:00.280428 12694 layer_factory.hpp:77] Creating layer inception_3b/3x3_reduce
I0403 21:45:00.280450 12694 net.cpp:91] Creating Layer inception_3b/3x3_reduce
I0403 21:45:00.280467 12694 net.cpp:425] inception_3b/3x3_reduce <- inception_3a/output_inception_3a/output_0_split_1
I0403 21:45:00.280489 12694 net.cpp:399] inception_3b/3x3_reduce -> inception_3b/3x3_reduce
I0403 21:45:00.281620 12694 net.cpp:141] Setting up inception_3b/3x3_reduce
I0403 21:45:00.281647 12694 net.cpp:148] Top shape: 24 128 28 28 (2408448)
I0403 21:45:00.281663 12694 net.cpp:156] Memory required for data: 686408736
I0403 21:45:00.281682 12694 layer_factory.hpp:77] Creating layer inception_3b/relu_3x3_reduce
I0403 21:45:00.281702 12694 net.cpp:91] Creating Layer inception_3b/relu_3x3_reduce
I0403 21:45:00.281719 12694 net.cpp:425] inception_3b/relu_3x3_reduce <- inception_3b/3x3_reduce
I0403 21:45:00.281738 12694 net.cpp:386] inception_3b/relu_3x3_reduce -> inception_3b/3x3_reduce (in-place)
I0403 21:45:00.281908 12694 net.cpp:141] Setting up inception_3b/relu_3x3_reduce
I0403 21:45:00.281932 12694 net.cpp:148] Top shape: 24 128 28 28 (2408448)
I0403 21:45:00.281947 12694 net.cpp:156] Memory required for data: 696042528
I0403 21:45:00.281961 12694 layer_factory.hpp:77] Creating layer inception_3b/3x3
I0403 21:45:00.281987 12694 net.cpp:91] Creating Layer inception_3b/3x3
I0403 21:45:00.282006 12694 net.cpp:425] inception_3b/3x3 <- inception_3b/3x3_reduce
I0403 21:45:00.282026 12694 net.cpp:399] inception_3b/3x3 -> inception_3b/3x3
I0403 21:45:00.284984 12694 net.cpp:141] Setting up inception_3b/3x3
I0403 21:45:00.285013 12694 net.cpp:148] Top shape: 24 192 28 28 (3612672)
I0403 21:45:00.285029 12694 net.cpp:156] Memory required for data: 710493216
I0403 21:45:00.285048 12694 layer_factory.hpp:77] Creating layer inception_3b/relu_3x3
I0403 21:45:00.285068 12694 net.cpp:91] Creating Layer inception_3b/relu_3x3
I0403 21:45:00.285085 12694 net.cpp:425] inception_3b/relu_3x3 <- inception_3b/3x3
I0403 21:45:00.285104 12694 net.cpp:386] inception_3b/relu_3x3 -> inception_3b/3x3 (in-place)
I0403 21:45:00.285375 12694 net.cpp:141] Setting up inception_3b/relu_3x3
I0403 21:45:00.285403 12694 net.cpp:148] Top shape: 24 192 28 28 (3612672)
I0403 21:45:00.285418 12694 net.cpp:156] Memory required for data: 724943904
I0403 21:45:00.285434 12694 layer_factory.hpp:77] Creating layer inception_3b/5x5_reduce
I0403 21:45:00.285456 12694 net.cpp:91] Creating Layer inception_3b/5x5_reduce
I0403 21:45:00.285475 12694 net.cpp:425] inception_3b/5x5_reduce <- inception_3a/output_inception_3a/output_0_split_2
I0403 21:45:00.285497 12694 net.cpp:399] inception_3b/5x5_reduce -> inception_3b/5x5_reduce
I0403 21:45:00.286486 12694 net.cpp:141] Setting up inception_3b/5x5_reduce
I0403 21:45:00.286514 12694 net.cpp:148] Top shape: 24 32 28 28 (602112)
I0403 21:45:00.286530 12694 net.cpp:156] Memory required for data: 727352352
I0403 21:45:00.286548 12694 layer_factory.hpp:77] Creating layer inception_3b/relu_5x5_reduce
I0403 21:45:00.286569 12694 net.cpp:91] Creating Layer inception_3b/relu_5x5_reduce
I0403 21:45:00.286587 12694 net.cpp:425] inception_3b/relu_5x5_reduce <- inception_3b/5x5_reduce
I0403 21:45:00.286604 12694 net.cpp:386] inception_3b/relu_5x5_reduce -> inception_3b/5x5_reduce (in-place)
I0403 21:45:00.286783 12694 net.cpp:141] Setting up inception_3b/relu_5x5_reduce
I0403 21:45:00.286823 12694 net.cpp:148] Top shape: 24 32 28 28 (602112)
I0403 21:45:00.286839 12694 net.cpp:156] Memory required for data: 729760800
I0403 21:45:00.286854 12694 layer_factory.hpp:77] Creating layer inception_3b/5x5
I0403 21:45:00.286877 12694 net.cpp:91] Creating Layer inception_3b/5x5
I0403 21:45:00.286895 12694 net.cpp:425] inception_3b/5x5 <- inception_3b/5x5_reduce
I0403 21:45:00.286914 12694 net.cpp:399] inception_3b/5x5 -> inception_3b/5x5
I0403 21:45:00.288895 12694 net.cpp:141] Setting up inception_3b/5x5
I0403 21:45:00.288924 12694 net.cpp:148] Top shape: 24 96 28 28 (1806336)
I0403 21:45:00.288940 12694 net.cpp:156] Memory required for data: 736986144
I0403 21:45:00.288959 12694 layer_factory.hpp:77] Creating layer inception_3b/relu_5x5
I0403 21:45:00.288980 12694 net.cpp:91] Creating Layer inception_3b/relu_5x5
I0403 21:45:00.288997 12694 net.cpp:425] inception_3b/relu_5x5 <- inception_3b/5x5
I0403 21:45:00.289016 12694 net.cpp:386] inception_3b/relu_5x5 -> inception_3b/5x5 (in-place)
I0403 21:45:00.289203 12694 net.cpp:141] Setting up inception_3b/relu_5x5
I0403 21:45:00.289232 12694 net.cpp:148] Top shape: 24 96 28 28 (1806336)
I0403 21:45:00.289248 12694 net.cpp:156] Memory required for data: 744211488
I0403 21:45:00.289264 12694 layer_factory.hpp:77] Creating layer inception_3b/pool
I0403 21:45:00.289281 12694 net.cpp:91] Creating Layer inception_3b/pool
I0403 21:45:00.289297 12694 net.cpp:425] inception_3b/pool <- inception_3a/output_inception_3a/output_0_split_3
I0403 21:45:00.289316 12694 net.cpp:399] inception_3b/pool -> inception_3b/pool
I0403 21:45:00.289378 12694 net.cpp:141] Setting up inception_3b/pool
I0403 21:45:00.289402 12694 net.cpp:148] Top shape: 24 256 28 28 (4816896)
I0403 21:45:00.289417 12694 net.cpp:156] Memory required for data: 763479072
I0403 21:45:00.289433 12694 layer_factory.hpp:77] Creating layer inception_3b/pool_proj
I0403 21:45:00.289456 12694 net.cpp:91] Creating Layer inception_3b/pool_proj
I0403 21:45:00.289474 12694 net.cpp:425] inception_3b/pool_proj <- inception_3b/pool
I0403 21:45:00.289494 12694 net.cpp:399] inception_3b/pool_proj -> inception_3b/pool_proj
I0403 21:45:00.290558 12694 net.cpp:141] Setting up inception_3b/pool_proj
I0403 21:45:00.290588 12694 net.cpp:148] Top shape: 24 64 28 28 (1204224)
I0403 21:45:00.290606 12694 net.cpp:156] Memory required for data: 768295968
I0403 21:45:00.290624 12694 layer_factory.hpp:77] Creating layer inception_3b/relu_pool_proj
I0403 21:45:00.290643 12694 net.cpp:91] Creating Layer inception_3b/relu_pool_proj
I0403 21:45:00.290659 12694 net.cpp:425] inception_3b/relu_pool_proj <- inception_3b/pool_proj
I0403 21:45:00.290680 12694 net.cpp:386] inception_3b/relu_pool_proj -> inception_3b/pool_proj (in-place)
I0403 21:45:00.291052 12694 net.cpp:141] Setting up inception_3b/relu_pool_proj
I0403 21:45:00.291081 12694 net.cpp:148] Top shape: 24 64 28 28 (1204224)
I0403 21:45:00.291097 12694 net.cpp:156] Memory required for data: 773112864
I0403 21:45:00.291112 12694 layer_factory.hpp:77] Creating layer inception_3b/output
I0403 21:45:00.291131 12694 net.cpp:91] Creating Layer inception_3b/output
I0403 21:45:00.291146 12694 net.cpp:425] inception_3b/output <- inception_3b/1x1
I0403 21:45:00.291162 12694 net.cpp:425] inception_3b/output <- inception_3b/3x3
I0403 21:45:00.291178 12694 net.cpp:425] inception_3b/output <- inception_3b/5x5
I0403 21:45:00.291195 12694 net.cpp:425] inception_3b/output <- inception_3b/pool_proj
I0403 21:45:00.291225 12694 net.cpp:399] inception_3b/output -> inception_3b/output
I0403 21:45:00.291273 12694 net.cpp:141] Setting up inception_3b/output
I0403 21:45:00.291296 12694 net.cpp:148] Top shape: 24 480 28 28 (9031680)
I0403 21:45:00.291311 12694 net.cpp:156] Memory required for data: 809239584
I0403 21:45:00.291326 12694 layer_factory.hpp:77] Creating layer pool3/3x3_s2
I0403 21:45:00.291347 12694 net.cpp:91] Creating Layer pool3/3x3_s2
I0403 21:45:00.291363 12694 net.cpp:425] pool3/3x3_s2 <- inception_3b/output
I0403 21:45:00.291380 12694 net.cpp:399] pool3/3x3_s2 -> pool3/3x3_s2
I0403 21:45:00.291453 12694 net.cpp:141] Setting up pool3/3x3_s2
I0403 21:45:00.291489 12694 net.cpp:148] Top shape: 24 480 14 14 (2257920)
I0403 21:45:00.291504 12694 net.cpp:156] Memory required for data: 818271264
I0403 21:45:00.291518 12694 layer_factory.hpp:77] Creating layer pool3/3x3_s2_pool3/3x3_s2_0_split
I0403 21:45:00.291535 12694 net.cpp:91] Creating Layer pool3/3x3_s2_pool3/3x3_s2_0_split
I0403 21:45:00.291550 12694 net.cpp:425] pool3/3x3_s2_pool3/3x3_s2_0_split <- pool3/3x3_s2
I0403 21:45:00.291568 12694 net.cpp:399] pool3/3x3_s2_pool3/3x3_s2_0_split -> pool3/3x3_s2_pool3/3x3_s2_0_split_0
I0403 21:45:00.291589 12694 net.cpp:399] pool3/3x3_s2_pool3/3x3_s2_0_split -> pool3/3x3_s2_pool3/3x3_s2_0_split_1
I0403 21:45:00.291607 12694 net.cpp:399] pool3/3x3_s2_pool3/3x3_s2_0_split -> pool3/3x3_s2_pool3/3x3_s2_0_split_2
I0403 21:45:00.291626 12694 net.cpp:399] pool3/3x3_s2_pool3/3x3_s2_0_split -> pool3/3x3_s2_pool3/3x3_s2_0_split_3
I0403 21:45:00.291703 12694 net.cpp:141] Setting up pool3/3x3_s2_pool3/3x3_s2_0_split
I0403 21:45:00.291728 12694 net.cpp:148] Top shape: 24 480 14 14 (2257920)
I0403 21:45:00.291744 12694 net.cpp:148] Top shape: 24 480 14 14 (2257920)
I0403 21:45:00.291759 12694 net.cpp:148] Top shape: 24 480 14 14 (2257920)
I0403 21:45:00.291775 12694 net.cpp:148] Top shape: 24 480 14 14 (2257920)
I0403 21:45:00.291788 12694 net.cpp:156] Memory required for data: 854397984
I0403 21:45:00.291802 12694 layer_factory.hpp:77] Creating layer inception_4a/1x1
I0403 21:45:00.291824 12694 net.cpp:91] Creating Layer inception_4a/1x1
I0403 21:45:00.291841 12694 net.cpp:425] inception_4a/1x1 <- pool3/3x3_s2_pool3/3x3_s2_0_split_0
I0403 21:45:00.291859 12694 net.cpp:399] inception_4a/1x1 -> inception_4a/1x1
I0403 21:45:00.293433 12694 net.cpp:141] Setting up inception_4a/1x1
I0403 21:45:00.293475 12694 net.cpp:148] Top shape: 24 192 14 14 (903168)
I0403 21:45:00.293493 12694 net.cpp:156] Memory required for data: 858010656
I0403 21:45:00.293511 12694 layer_factory.hpp:77] Creating layer inception_4a/relu_1x1
I0403 21:45:00.293529 12694 net.cpp:91] Creating Layer inception_4a/relu_1x1
I0403 21:45:00.293543 12694 net.cpp:425] inception_4a/relu_1x1 <- inception_4a/1x1
I0403 21:45:00.293562 12694 net.cpp:386] inception_4a/relu_1x1 -> inception_4a/1x1 (in-place)
I0403 21:45:00.293736 12694 net.cpp:141] Setting up inception_4a/relu_1x1
I0403 21:45:00.293761 12694 net.cpp:148] Top shape: 24 192 14 14 (903168)
I0403 21:45:00.293776 12694 net.cpp:156] Memory required for data: 861623328
I0403 21:45:00.293790 12694 layer_factory.hpp:77] Creating layer inception_4a/3x3_reduce
I0403 21:45:00.293812 12694 net.cpp:91] Creating Layer inception_4a/3x3_reduce
I0403 21:45:00.293828 12694 net.cpp:425] inception_4a/3x3_reduce <- pool3/3x3_s2_pool3/3x3_s2_0_split_1
I0403 21:45:00.293850 12694 net.cpp:399] inception_4a/3x3_reduce -> inception_4a/3x3_reduce
I0403 21:45:00.295066 12694 net.cpp:141] Setting up inception_4a/3x3_reduce
I0403 21:45:00.295095 12694 net.cpp:148] Top shape: 24 96 14 14 (451584)
I0403 21:45:00.295110 12694 net.cpp:156] Memory required for data: 863429664
I0403 21:45:00.295131 12694 layer_factory.hpp:77] Creating layer inception_4a/relu_3x3_reduce
I0403 21:45:00.295153 12694 net.cpp:91] Creating Layer inception_4a/relu_3x3_reduce
I0403 21:45:00.295169 12694 net.cpp:425] inception_4a/relu_3x3_reduce <- inception_4a/3x3_reduce
I0403 21:45:00.295186 12694 net.cpp:386] inception_4a/relu_3x3_reduce -> inception_4a/3x3_reduce (in-place)
I0403 21:45:00.295361 12694 net.cpp:141] Setting up inception_4a/relu_3x3_reduce
I0403 21:45:00.295385 12694 net.cpp:148] Top shape: 24 96 14 14 (451584)
I0403 21:45:00.295399 12694 net.cpp:156] Memory required for data: 865236000
I0403 21:45:00.295413 12694 layer_factory.hpp:77] Creating layer inception_4a/3x3
I0403 21:45:00.295435 12694 net.cpp:91] Creating Layer inception_4a/3x3
I0403 21:45:00.295452 12694 net.cpp:425] inception_4a/3x3 <- inception_4a/3x3_reduce
I0403 21:45:00.295474 12694 net.cpp:399] inception_4a/3x3 -> inception_4a/3x3
I0403 21:45:00.298048 12694 net.cpp:141] Setting up inception_4a/3x3
I0403 21:45:00.298075 12694 net.cpp:148] Top shape: 24 208 14 14 (978432)
I0403 21:45:00.298090 12694 net.cpp:156] Memory required for data: 869149728
I0403 21:45:00.298108 12694 layer_factory.hpp:77] Creating layer inception_4a/relu_3x3
I0403 21:45:00.298128 12694 net.cpp:91] Creating Layer inception_4a/relu_3x3
I0403 21:45:00.298146 12694 net.cpp:425] inception_4a/relu_3x3 <- inception_4a/3x3
I0403 21:45:00.298161 12694 net.cpp:386] inception_4a/relu_3x3 -> inception_4a/3x3 (in-place)
I0403 21:45:00.298431 12694 net.cpp:141] Setting up inception_4a/relu_3x3
I0403 21:45:00.298456 12694 net.cpp:148] Top shape: 24 208 14 14 (978432)
I0403 21:45:00.298471 12694 net.cpp:156] Memory required for data: 873063456
I0403 21:45:00.298486 12694 layer_factory.hpp:77] Creating layer inception_4a/5x5_reduce
I0403 21:45:00.298509 12694 net.cpp:91] Creating Layer inception_4a/5x5_reduce
I0403 21:45:00.298527 12694 net.cpp:425] inception_4a/5x5_reduce <- pool3/3x3_s2_pool3/3x3_s2_0_split_2
I0403 21:45:00.298547 12694 net.cpp:399] inception_4a/5x5_reduce -> inception_4a/5x5_reduce
I0403 21:45:00.299522 12694 net.cpp:141] Setting up inception_4a/5x5_reduce
I0403 21:45:00.299548 12694 net.cpp:148] Top shape: 24 16 14 14 (75264)
I0403 21:45:00.299563 12694 net.cpp:156] Memory required for data: 873364512
I0403 21:45:00.299582 12694 layer_factory.hpp:77] Creating layer inception_4a/relu_5x5_reduce
I0403 21:45:00.299602 12694 net.cpp:91] Creating Layer inception_4a/relu_5x5_reduce
I0403 21:45:00.299619 12694 net.cpp:425] inception_4a/relu_5x5_reduce <- inception_4a/5x5_reduce
I0403 21:45:00.299635 12694 net.cpp:386] inception_4a/relu_5x5_reduce -> inception_4a/5x5_reduce (in-place)
I0403 21:45:00.299808 12694 net.cpp:141] Setting up inception_4a/relu_5x5_reduce
I0403 21:45:00.299831 12694 net.cpp:148] Top shape: 24 16 14 14 (75264)
I0403 21:45:00.299846 12694 net.cpp:156] Memory required for data: 873665568
I0403 21:45:00.299860 12694 layer_factory.hpp:77] Creating layer inception_4a/5x5
I0403 21:45:00.299883 12694 net.cpp:91] Creating Layer inception_4a/5x5
I0403 21:45:00.299901 12694 net.cpp:425] inception_4a/5x5 <- inception_4a/5x5_reduce
I0403 21:45:00.299917 12694 net.cpp:399] inception_4a/5x5 -> inception_4a/5x5
I0403 21:45:00.300951 12694 net.cpp:141] Setting up inception_4a/5x5
I0403 21:45:00.300979 12694 net.cpp:148] Top shape: 24 48 14 14 (225792)
I0403 21:45:00.300995 12694 net.cpp:156] Memory required for data: 874568736
I0403 21:45:00.301013 12694 layer_factory.hpp:77] Creating layer inception_4a/relu_5x5
I0403 21:45:00.301031 12694 net.cpp:91] Creating Layer inception_4a/relu_5x5
I0403 21:45:00.301046 12694 net.cpp:425] inception_4a/relu_5x5 <- inception_4a/5x5
I0403 21:45:00.301062 12694 net.cpp:386] inception_4a/relu_5x5 -> inception_4a/5x5 (in-place)
I0403 21:45:00.301242 12694 net.cpp:141] Setting up inception_4a/relu_5x5
I0403 21:45:00.301267 12694 net.cpp:148] Top shape: 24 48 14 14 (225792)
I0403 21:45:00.301281 12694 net.cpp:156] Memory required for data: 875471904
I0403 21:45:00.301296 12694 layer_factory.hpp:77] Creating layer inception_4a/pool
I0403 21:45:00.301313 12694 net.cpp:91] Creating Layer inception_4a/pool
I0403 21:45:00.301329 12694 net.cpp:425] inception_4a/pool <- pool3/3x3_s2_pool3/3x3_s2_0_split_3
I0403 21:45:00.301349 12694 net.cpp:399] inception_4a/pool -> inception_4a/pool
I0403 21:45:00.301409 12694 net.cpp:141] Setting up inception_4a/pool
I0403 21:45:00.301434 12694 net.cpp:148] Top shape: 24 480 14 14 (2257920)
I0403 21:45:00.301450 12694 net.cpp:156] Memory required for data: 884503584
I0403 21:45:00.301463 12694 layer_factory.hpp:77] Creating layer inception_4a/pool_proj
I0403 21:45:00.301484 12694 net.cpp:91] Creating Layer inception_4a/pool_proj
I0403 21:45:00.301501 12694 net.cpp:425] inception_4a/pool_proj <- inception_4a/pool
I0403 21:45:00.301519 12694 net.cpp:399] inception_4a/pool_proj -> inception_4a/pool_proj
I0403 21:45:00.302636 12694 net.cpp:141] Setting up inception_4a/pool_proj
I0403 21:45:00.302669 12694 net.cpp:148] Top shape: 24 64 14 14 (301056)
I0403 21:45:00.302697 12694 net.cpp:156] Memory required for data: 885707808
I0403 21:45:00.302716 12694 layer_factory.hpp:77] Creating layer inception_4a/relu_pool_proj
I0403 21:45:00.302733 12694 net.cpp:91] Creating Layer inception_4a/relu_pool_proj
I0403 21:45:00.302748 12694 net.cpp:425] inception_4a/relu_pool_proj <- inception_4a/pool_proj
I0403 21:45:00.302768 12694 net.cpp:386] inception_4a/relu_pool_proj -> inception_4a/pool_proj (in-place)
I0403 21:45:00.303035 12694 net.cpp:141] Setting up inception_4a/relu_pool_proj
I0403 21:45:00.303063 12694 net.cpp:148] Top shape: 24 64 14 14 (301056)
I0403 21:45:00.303077 12694 net.cpp:156] Memory required for data: 886912032
I0403 21:45:00.303092 12694 layer_factory.hpp:77] Creating layer inception_4a/output
I0403 21:45:00.303109 12694 net.cpp:91] Creating Layer inception_4a/output
I0403 21:45:00.303124 12694 net.cpp:425] inception_4a/output <- inception_4a/1x1
I0403 21:45:00.303140 12694 net.cpp:425] inception_4a/output <- inception_4a/3x3
I0403 21:45:00.303156 12694 net.cpp:425] inception_4a/output <- inception_4a/5x5
I0403 21:45:00.303172 12694 net.cpp:425] inception_4a/output <- inception_4a/pool_proj
I0403 21:45:00.303189 12694 net.cpp:399] inception_4a/output -> inception_4a/output
I0403 21:45:00.303237 12694 net.cpp:141] Setting up inception_4a/output
I0403 21:45:00.303261 12694 net.cpp:148] Top shape: 24 512 14 14 (2408448)
I0403 21:45:00.303275 12694 net.cpp:156] Memory required for data: 896545824
I0403 21:45:00.303289 12694 layer_factory.hpp:77] Creating layer inception_4a/output_inception_4a/output_0_split
I0403 21:45:00.303308 12694 net.cpp:91] Creating Layer inception_4a/output_inception_4a/output_0_split
I0403 21:45:00.303323 12694 net.cpp:425] inception_4a/output_inception_4a/output_0_split <- inception_4a/output
I0403 21:45:00.303341 12694 net.cpp:399] inception_4a/output_inception_4a/output_0_split -> inception_4a/output_inception_4a/output_0_split_0
I0403 21:45:00.303360 12694 net.cpp:399] inception_4a/output_inception_4a/output_0_split -> inception_4a/output_inception_4a/output_0_split_1
I0403 21:45:00.303381 12694 net.cpp:399] inception_4a/output_inception_4a/output_0_split -> inception_4a/output_inception_4a/output_0_split_2
I0403 21:45:00.303402 12694 net.cpp:399] inception_4a/output_inception_4a/output_0_split -> inception_4a/output_inception_4a/output_0_split_3
I0403 21:45:00.303422 12694 net.cpp:399] inception_4a/output_inception_4a/output_0_split -> inception_4a/output_inception_4a/output_0_split_4
I0403 21:45:00.303511 12694 net.cpp:141] Setting up inception_4a/output_inception_4a/output_0_split
I0403 21:45:00.303534 12694 net.cpp:148] Top shape: 24 512 14 14 (2408448)
I0403 21:45:00.303550 12694 net.cpp:148] Top shape: 24 512 14 14 (2408448)
I0403 21:45:00.303565 12694 net.cpp:148] Top shape: 24 512 14 14 (2408448)
I0403 21:45:00.303580 12694 net.cpp:148] Top shape: 24 512 14 14 (2408448)
I0403 21:45:00.303596 12694 net.cpp:148] Top shape: 24 512 14 14 (2408448)
I0403 21:45:00.303608 12694 net.cpp:156] Memory required for data: 944714784
I0403 21:45:00.303622 12694 layer_factory.hpp:77] Creating layer loss1/ave_pool
I0403 21:45:00.303642 12694 net.cpp:91] Creating Layer loss1/ave_pool
I0403 21:45:00.303658 12694 net.cpp:425] loss1/ave_pool <- inception_4a/output_inception_4a/output_0_split_0
I0403 21:45:00.303675 12694 net.cpp:399] loss1/ave_pool -> loss1/ave_pool
I0403 21:45:00.303874 12694 net.cpp:141] Setting up loss1/ave_pool
I0403 21:45:00.303900 12694 net.cpp:148] Top shape: 24 512 4 4 (196608)
I0403 21:45:00.303915 12694 net.cpp:156] Memory required for data: 945501216
I0403 21:45:00.303930 12694 layer_factory.hpp:77] Creating layer loss1/conv
I0403 21:45:00.303951 12694 net.cpp:91] Creating Layer loss1/conv
I0403 21:45:00.303968 12694 net.cpp:425] loss1/conv <- loss1/ave_pool
I0403 21:45:00.303989 12694 net.cpp:399] loss1/conv -> loss1/conv
I0403 21:45:00.305344 12694 net.cpp:141] Setting up loss1/conv
I0403 21:45:00.305371 12694 net.cpp:148] Top shape: 24 128 4 4 (49152)
I0403 21:45:00.305387 12694 net.cpp:156] Memory required for data: 945697824
I0403 21:45:00.305418 12694 layer_factory.hpp:77] Creating layer loss1/relu_conv
I0403 21:45:00.305439 12694 net.cpp:91] Creating Layer loss1/relu_conv
I0403 21:45:00.305456 12694 net.cpp:425] loss1/relu_conv <- loss1/conv
I0403 21:45:00.305474 12694 net.cpp:386] loss1/relu_conv -> loss1/conv (in-place)
I0403 21:45:00.305740 12694 net.cpp:141] Setting up loss1/relu_conv
I0403 21:45:00.305766 12694 net.cpp:148] Top shape: 24 128 4 4 (49152)
I0403 21:45:00.305780 12694 net.cpp:156] Memory required for data: 945894432
I0403 21:45:00.305795 12694 layer_factory.hpp:77] Creating layer loss1/fc
I0403 21:45:00.305821 12694 net.cpp:91] Creating Layer loss1/fc
I0403 21:45:00.305838 12694 net.cpp:425] loss1/fc <- loss1/conv
I0403 21:45:00.305856 12694 net.cpp:399] loss1/fc -> loss1/fc
I0403 21:45:00.323222 12694 net.cpp:141] Setting up loss1/fc
I0403 21:45:00.323257 12694 net.cpp:148] Top shape: 24 1024 (24576)
I0403 21:45:00.323274 12694 net.cpp:156] Memory required for data: 945992736
I0403 21:45:00.323293 12694 layer_factory.hpp:77] Creating layer loss1/relu_fc
I0403 21:45:00.323312 12694 net.cpp:91] Creating Layer loss1/relu_fc
I0403 21:45:00.323328 12694 net.cpp:425] loss1/relu_fc <- loss1/fc
I0403 21:45:00.323348 12694 net.cpp:386] loss1/relu_fc -> loss1/fc (in-place)
I0403 21:45:00.323539 12694 net.cpp:141] Setting up loss1/relu_fc
I0403 21:45:00.323562 12694 net.cpp:148] Top shape: 24 1024 (24576)
I0403 21:45:00.323577 12694 net.cpp:156] Memory required for data: 946091040
I0403 21:45:00.323592 12694 layer_factory.hpp:77] Creating layer loss1/drop_fc
I0403 21:45:00.323621 12694 net.cpp:91] Creating Layer loss1/drop_fc
I0403 21:45:00.323638 12694 net.cpp:425] loss1/drop_fc <- loss1/fc
I0403 21:45:00.323655 12694 net.cpp:386] loss1/drop_fc -> loss1/fc (in-place)
I0403 21:45:00.323704 12694 net.cpp:141] Setting up loss1/drop_fc
I0403 21:45:00.323727 12694 net.cpp:148] Top shape: 24 1024 (24576)
I0403 21:45:00.323742 12694 net.cpp:156] Memory required for data: 946189344
I0403 21:45:00.323757 12694 layer_factory.hpp:77] Creating layer loss1/classifier_plantvillage
I0403 21:45:00.323778 12694 net.cpp:91] Creating Layer loss1/classifier_plantvillage
I0403 21:45:00.323794 12694 net.cpp:425] loss1/classifier_plantvillage <- loss1/fc
I0403 21:45:00.323814 12694 net.cpp:399] loss1/classifier_plantvillage -> loss1/classifier_plantvillage
I0403 21:45:00.324730 12694 net.cpp:141] Setting up loss1/classifier_plantvillage
I0403 21:45:00.324758 12694 net.cpp:148] Top shape: 24 38 (912)
I0403 21:45:00.324774 12694 net.cpp:156] Memory required for data: 946192992
I0403 21:45:00.324791 12694 layer_factory.hpp:77] Creating layer loss1/classifier_plantvillage_loss1/classifier_plantvillage_0_split
I0403 21:45:00.324810 12694 net.cpp:91] Creating Layer loss1/classifier_plantvillage_loss1/classifier_plantvillage_0_split
I0403 21:45:00.324826 12694 net.cpp:425] loss1/classifier_plantvillage_loss1/classifier_plantvillage_0_split <- loss1/classifier_plantvillage
I0403 21:45:00.324844 12694 net.cpp:399] loss1/classifier_plantvillage_loss1/classifier_plantvillage_0_split -> loss1/classifier_plantvillage_loss1/classifier_plantvillage_0_split_0
I0403 21:45:00.324865 12694 net.cpp:399] loss1/classifier_plantvillage_loss1/classifier_plantvillage_0_split -> loss1/classifier_plantvillage_loss1/classifier_plantvillage_0_split_1
I0403 21:45:00.324887 12694 net.cpp:399] loss1/classifier_plantvillage_loss1/classifier_plantvillage_0_split -> loss1/classifier_plantvillage_loss1/classifier_plantvillage_0_split_2
I0403 21:45:00.324949 12694 net.cpp:141] Setting up loss1/classifier_plantvillage_loss1/classifier_plantvillage_0_split
I0403 21:45:00.324975 12694 net.cpp:148] Top shape: 24 38 (912)
I0403 21:45:00.324991 12694 net.cpp:148] Top shape: 24 38 (912)
I0403 21:45:00.325007 12694 net.cpp:148] Top shape: 24 38 (912)
I0403 21:45:00.325021 12694 net.cpp:156] Memory required for data: 946203936
I0403 21:45:00.325034 12694 layer_factory.hpp:77] Creating layer inception_4b/1x1
I0403 21:45:00.325054 12694 net.cpp:91] Creating Layer inception_4b/1x1
I0403 21:45:00.325086 12694 net.cpp:425] inception_4b/1x1 <- inception_4a/output_inception_4a/output_0_split_1
I0403 21:45:00.325106 12694 net.cpp:399] inception_4b/1x1 -> inception_4b/1x1
I0403 21:45:00.326673 12694 net.cpp:141] Setting up inception_4b/1x1
I0403 21:45:00.326700 12694 net.cpp:148] Top shape: 24 160 14 14 (752640)
I0403 21:45:00.326716 12694 net.cpp:156] Memory required for data: 949214496
I0403 21:45:00.326735 12694 layer_factory.hpp:77] Creating layer inception_4b/relu_1x1
I0403 21:45:00.326756 12694 net.cpp:91] Creating Layer inception_4b/relu_1x1
I0403 21:45:00.326771 12694 net.cpp:425] inception_4b/relu_1x1 <- inception_4b/1x1
I0403 21:45:00.326788 12694 net.cpp:386] inception_4b/relu_1x1 -> inception_4b/1x1 (in-place)
I0403 21:45:00.326968 12694 net.cpp:141] Setting up inception_4b/relu_1x1
I0403 21:45:00.326994 12694 net.cpp:148] Top shape: 24 160 14 14 (752640)
I0403 21:45:00.327009 12694 net.cpp:156] Memory required for data: 952225056
I0403 21:45:00.327023 12694 layer_factory.hpp:77] Creating layer inception_4b/3x3_reduce
I0403 21:45:00.327046 12694 net.cpp:91] Creating Layer inception_4b/3x3_reduce
I0403 21:45:00.327064 12694 net.cpp:425] inception_4b/3x3_reduce <- inception_4a/output_inception_4a/output_0_split_2
I0403 21:45:00.327082 12694 net.cpp:399] inception_4b/3x3_reduce -> inception_4b/3x3_reduce
I0403 21:45:00.328393 12694 net.cpp:141] Setting up inception_4b/3x3_reduce
I0403 21:45:00.328421 12694 net.cpp:148] Top shape: 24 112 14 14 (526848)
I0403 21:45:00.328438 12694 net.cpp:156] Memory required for data: 954332448
I0403 21:45:00.328455 12694 layer_factory.hpp:77] Creating layer inception_4b/relu_3x3_reduce
I0403 21:45:00.328476 12694 net.cpp:91] Creating Layer inception_4b/relu_3x3_reduce
I0403 21:45:00.328492 12694 net.cpp:425] inception_4b/relu_3x3_reduce <- inception_4b/3x3_reduce
I0403 21:45:00.328510 12694 net.cpp:386] inception_4b/relu_3x3_reduce -> inception_4b/3x3_reduce (in-place)
I0403 21:45:00.328781 12694 net.cpp:141] Setting up inception_4b/relu_3x3_reduce
I0403 21:45:00.328807 12694 net.cpp:148] Top shape: 24 112 14 14 (526848)
I0403 21:45:00.328821 12694 net.cpp:156] Memory required for data: 956439840
I0403 21:45:00.328836 12694 layer_factory.hpp:77] Creating layer inception_4b/3x3
I0403 21:45:00.328860 12694 net.cpp:91] Creating Layer inception_4b/3x3
I0403 21:45:00.328877 12694 net.cpp:425] inception_4b/3x3 <- inception_4b/3x3_reduce
I0403 21:45:00.328896 12694 net.cpp:399] inception_4b/3x3 -> inception_4b/3x3
I0403 21:45:00.331815 12694 net.cpp:141] Setting up inception_4b/3x3
I0403 21:45:00.331846 12694 net.cpp:148] Top shape: 24 224 14 14 (1053696)
I0403 21:45:00.331863 12694 net.cpp:156] Memory required for data: 960654624
I0403 21:45:00.331881 12694 layer_factory.hpp:77] Creating layer inception_4b/relu_3x3
I0403 21:45:00.331900 12694 net.cpp:91] Creating Layer inception_4b/relu_3x3
I0403 21:45:00.331915 12694 net.cpp:425] inception_4b/relu_3x3 <- inception_4b/3x3
I0403 21:45:00.331935 12694 net.cpp:386] inception_4b/relu_3x3 -> inception_4b/3x3 (in-place)
I0403 21:45:00.332113 12694 net.cpp:141] Setting up inception_4b/relu_3x3
I0403 21:45:00.332139 12694 net.cpp:148] Top shape: 24 224 14 14 (1053696)
I0403 21:45:00.332152 12694 net.cpp:156] Memory required for data: 964869408
I0403 21:45:00.332166 12694 layer_factory.hpp:77] Creating layer inception_4b/5x5_reduce
I0403 21:45:00.332188 12694 net.cpp:91] Creating Layer inception_4b/5x5_reduce
I0403 21:45:00.332206 12694 net.cpp:425] inception_4b/5x5_reduce <- inception_4a/output_inception_4a/output_0_split_3
I0403 21:45:00.332242 12694 net.cpp:399] inception_4b/5x5_reduce -> inception_4b/5x5_reduce
I0403 21:45:00.333298 12694 net.cpp:141] Setting up inception_4b/5x5_reduce
I0403 21:45:00.333326 12694 net.cpp:148] Top shape: 24 24 14 14 (112896)
I0403 21:45:00.333341 12694 net.cpp:156] Memory required for data: 965320992
I0403 21:45:00.333359 12694 layer_factory.hpp:77] Creating layer inception_4b/relu_5x5_reduce
I0403 21:45:00.333380 12694 net.cpp:91] Creating Layer inception_4b/relu_5x5_reduce
I0403 21:45:00.333410 12694 net.cpp:425] inception_4b/relu_5x5_reduce <- inception_4b/5x5_reduce
I0403 21:45:00.333428 12694 net.cpp:386] inception_4b/relu_5x5_reduce -> inception_4b/5x5_reduce (in-place)
I0403 21:45:00.333602 12694 net.cpp:141] Setting up inception_4b/relu_5x5_reduce
I0403 21:45:00.333629 12694 net.cpp:148] Top shape: 24 24 14 14 (112896)
I0403 21:45:00.333645 12694 net.cpp:156] Memory required for data: 965772576
I0403 21:45:00.333660 12694 layer_factory.hpp:77] Creating layer inception_4b/5x5
I0403 21:45:00.333683 12694 net.cpp:91] Creating Layer inception_4b/5x5
I0403 21:45:00.333699 12694 net.cpp:425] inception_4b/5x5 <- inception_4b/5x5_reduce
I0403 21:45:00.333719 12694 net.cpp:399] inception_4b/5x5 -> inception_4b/5x5
I0403 21:45:00.334909 12694 net.cpp:141] Setting up inception_4b/5x5
I0403 21:45:00.334936 12694 net.cpp:148] Top shape: 24 64 14 14 (301056)
I0403 21:45:00.334951 12694 net.cpp:156] Memory required for data: 966976800
I0403 21:45:00.334969 12694 layer_factory.hpp:77] Creating layer inception_4b/relu_5x5
I0403 21:45:00.334990 12694 net.cpp:91] Creating Layer inception_4b/relu_5x5
I0403 21:45:00.335007 12694 net.cpp:425] inception_4b/relu_5x5 <- inception_4b/5x5
I0403 21:45:00.335024 12694 net.cpp:386] inception_4b/relu_5x5 -> inception_4b/5x5 (in-place)
I0403 21:45:00.335314 12694 net.cpp:141] Setting up inception_4b/relu_5x5
I0403 21:45:00.335338 12694 net.cpp:148] Top shape: 24 64 14 14 (301056)
I0403 21:45:00.335353 12694 net.cpp:156] Memory required for data: 968181024
I0403 21:45:00.335369 12694 layer_factory.hpp:77] Creating layer inception_4b/pool
I0403 21:45:00.335389 12694 net.cpp:91] Creating Layer inception_4b/pool
I0403 21:45:00.335405 12694 net.cpp:425] inception_4b/pool <- inception_4a/output_inception_4a/output_0_split_4
I0403 21:45:00.335424 12694 net.cpp:399] inception_4b/pool -> inception_4b/pool
I0403 21:45:00.335500 12694 net.cpp:141] Setting up inception_4b/pool
I0403 21:45:00.335523 12694 net.cpp:148] Top shape: 24 512 14 14 (2408448)
I0403 21:45:00.335538 12694 net.cpp:156] Memory required for data: 977814816
I0403 21:45:00.335553 12694 layer_factory.hpp:77] Creating layer inception_4b/pool_proj
I0403 21:45:00.335575 12694 net.cpp:91] Creating Layer inception_4b/pool_proj
I0403 21:45:00.335592 12694 net.cpp:425] inception_4b/pool_proj <- inception_4b/pool
I0403 21:45:00.335613 12694 net.cpp:399] inception_4b/pool_proj -> inception_4b/pool_proj
I0403 21:45:00.336901 12694 net.cpp:141] Setting up inception_4b/pool_proj
I0403 21:45:00.336928 12694 net.cpp:148] Top shape: 24 64 14 14 (301056)
I0403 21:45:00.336943 12694 net.cpp:156] Memory required for data: 979019040
I0403 21:45:00.336962 12694 layer_factory.hpp:77] Creating layer inception_4b/relu_pool_proj
I0403 21:45:00.336985 12694 net.cpp:91] Creating Layer inception_4b/relu_pool_proj
I0403 21:45:00.337002 12694 net.cpp:425] inception_4b/relu_pool_proj <- inception_4b/pool_proj
I0403 21:45:00.337019 12694 net.cpp:386] inception_4b/relu_pool_proj -> inception_4b/pool_proj (in-place)
I0403 21:45:00.337198 12694 net.cpp:141] Setting up inception_4b/relu_pool_proj
I0403 21:45:00.337231 12694 net.cpp:148] Top shape: 24 64 14 14 (301056)
I0403 21:45:00.337249 12694 net.cpp:156] Memory required for data: 980223264
I0403 21:45:00.337265 12694 layer_factory.hpp:77] Creating layer inception_4b/output
I0403 21:45:00.337292 12694 net.cpp:91] Creating Layer inception_4b/output
I0403 21:45:00.337308 12694 net.cpp:425] inception_4b/output <- inception_4b/1x1
I0403 21:45:00.337324 12694 net.cpp:425] inception_4b/output <- inception_4b/3x3
I0403 21:45:00.337342 12694 net.cpp:425] inception_4b/output <- inception_4b/5x5
I0403 21:45:00.337357 12694 net.cpp:425] inception_4b/output <- inception_4b/pool_proj
I0403 21:45:00.337374 12694 net.cpp:399] inception_4b/output -> inception_4b/output
I0403 21:45:00.337419 12694 net.cpp:141] Setting up inception_4b/output
I0403 21:45:00.337441 12694 net.cpp:148] Top shape: 24 512 14 14 (2408448)
I0403 21:45:00.337456 12694 net.cpp:156] Memory required for data: 989857056
I0403 21:45:00.337484 12694 layer_factory.hpp:77] Creating layer inception_4b/output_inception_4b/output_0_split
I0403 21:45:00.337505 12694 net.cpp:91] Creating Layer inception_4b/output_inception_4b/output_0_split
I0403 21:45:00.337520 12694 net.cpp:425] inception_4b/output_inception_4b/output_0_split <- inception_4b/output
I0403 21:45:00.337543 12694 net.cpp:399] inception_4b/output_inception_4b/output_0_split -> inception_4b/output_inception_4b/output_0_split_0
I0403 21:45:00.337563 12694 net.cpp:399] inception_4b/output_inception_4b/output_0_split -> inception_4b/output_inception_4b/output_0_split_1
I0403 21:45:00.337584 12694 net.cpp:399] inception_4b/output_inception_4b/output_0_split -> inception_4b/output_inception_4b/output_0_split_2
I0403 21:45:00.337607 12694 net.cpp:399] inception_4b/output_inception_4b/output_0_split -> inception_4b/output_inception_4b/output_0_split_3
I0403 21:45:00.337690 12694 net.cpp:141] Setting up inception_4b/output_inception_4b/output_0_split
I0403 21:45:00.337715 12694 net.cpp:148] Top shape: 24 512 14 14 (2408448)
I0403 21:45:00.337731 12694 net.cpp:148] Top shape: 24 512 14 14 (2408448)
I0403 21:45:00.337748 12694 net.cpp:148] Top shape: 24 512 14 14 (2408448)
I0403 21:45:00.337762 12694 net.cpp:148] Top shape: 24 512 14 14 (2408448)
I0403 21:45:00.337775 12694 net.cpp:156] Memory required for data: 1028392224
I0403 21:45:00.337790 12694 layer_factory.hpp:77] Creating layer inception_4c/1x1
I0403 21:45:00.337817 12694 net.cpp:91] Creating Layer inception_4c/1x1
I0403 21:45:00.337836 12694 net.cpp:425] inception_4c/1x1 <- inception_4b/output_inception_4b/output_0_split_0
I0403 21:45:00.337857 12694 net.cpp:399] inception_4c/1x1 -> inception_4c/1x1
I0403 21:45:00.339253 12694 net.cpp:141] Setting up inception_4c/1x1
I0403 21:45:00.339285 12694 net.cpp:148] Top shape: 24 128 14 14 (602112)
I0403 21:45:00.339303 12694 net.cpp:156] Memory required for data: 1030800672
I0403 21:45:00.339321 12694 layer_factory.hpp:77] Creating layer inception_4c/relu_1x1
I0403 21:45:00.339339 12694 net.cpp:91] Creating Layer inception_4c/relu_1x1
I0403 21:45:00.339355 12694 net.cpp:425] inception_4c/relu_1x1 <- inception_4c/1x1
I0403 21:45:00.339375 12694 net.cpp:386] inception_4c/relu_1x1 -> inception_4c/1x1 (in-place)
I0403 21:45:00.339550 12694 net.cpp:141] Setting up inception_4c/relu_1x1
I0403 21:45:00.339576 12694 net.cpp:148] Top shape: 24 128 14 14 (602112)
I0403 21:45:00.339591 12694 net.cpp:156] Memory required for data: 1033209120
I0403 21:45:00.339607 12694 layer_factory.hpp:77] Creating layer inception_4c/3x3_reduce
I0403 21:45:00.339628 12694 net.cpp:91] Creating Layer inception_4c/3x3_reduce
I0403 21:45:00.339648 12694 net.cpp:425] inception_4c/3x3_reduce <- inception_4b/output_inception_4b/output_0_split_1
I0403 21:45:00.339669 12694 net.cpp:399] inception_4c/3x3_reduce -> inception_4c/3x3_reduce
I0403 21:45:00.341595 12694 net.cpp:141] Setting up inception_4c/3x3_reduce
I0403 21:45:00.341624 12694 net.cpp:148] Top shape: 24 128 14 14 (602112)
I0403 21:45:00.341639 12694 net.cpp:156] Memory required for data: 1035617568
I0403 21:45:00.341657 12694 layer_factory.hpp:77] Creating layer inception_4c/relu_3x3_reduce
I0403 21:45:00.341677 12694 net.cpp:91] Creating Layer inception_4c/relu_3x3_reduce
I0403 21:45:00.341696 12694 net.cpp:425] inception_4c/relu_3x3_reduce <- inception_4c/3x3_reduce
I0403 21:45:00.341713 12694 net.cpp:386] inception_4c/relu_3x3_reduce -> inception_4c/3x3_reduce (in-place)
I0403 21:45:00.341990 12694 net.cpp:141] Setting up inception_4c/relu_3x3_reduce
I0403 21:45:00.342017 12694 net.cpp:148] Top shape: 24 128 14 14 (602112)
I0403 21:45:00.342032 12694 net.cpp:156] Memory required for data: 1038026016
I0403 21:45:00.342047 12694 layer_factory.hpp:77] Creating layer inception_4c/3x3
I0403 21:45:00.342069 12694 net.cpp:91] Creating Layer inception_4c/3x3
I0403 21:45:00.342087 12694 net.cpp:425] inception_4c/3x3 <- inception_4c/3x3_reduce
I0403 21:45:00.342110 12694 net.cpp:399] inception_4c/3x3 -> inception_4c/3x3
I0403 21:45:00.345628 12694 net.cpp:141] Setting up inception_4c/3x3
I0403 21:45:00.345669 12694 net.cpp:148] Top shape: 24 256 14 14 (1204224)
I0403 21:45:00.345685 12694 net.cpp:156] Memory required for data: 1042842912
I0403 21:45:00.345715 12694 layer_factory.hpp:77] Creating layer inception_4c/relu_3x3
I0403 21:45:00.345736 12694 net.cpp:91] Creating Layer inception_4c/relu_3x3
I0403 21:45:00.345754 12694 net.cpp:425] inception_4c/relu_3x3 <- inception_4c/3x3
I0403 21:45:00.345772 12694 net.cpp:386] inception_4c/relu_3x3 -> inception_4c/3x3 (in-place)
I0403 21:45:00.345950 12694 net.cpp:141] Setting up inception_4c/relu_3x3
I0403 21:45:00.345974 12694 net.cpp:148] Top shape: 24 256 14 14 (1204224)
I0403 21:45:00.345989 12694 net.cpp:156] Memory required for data: 1047659808
I0403 21:45:00.346004 12694 layer_factory.hpp:77] Creating layer inception_4c/5x5_reduce
I0403 21:45:00.346025 12694 net.cpp:91] Creating Layer inception_4c/5x5_reduce
I0403 21:45:00.346043 12694 net.cpp:425] inception_4c/5x5_reduce <- inception_4b/output_inception_4b/output_0_split_2
I0403 21:45:00.346066 12694 net.cpp:399] inception_4c/5x5_reduce -> inception_4c/5x5_reduce
I0403 21:45:00.347120 12694 net.cpp:141] Setting up inception_4c/5x5_reduce
I0403 21:45:00.347146 12694 net.cpp:148] Top shape: 24 24 14 14 (112896)
I0403 21:45:00.347160 12694 net.cpp:156] Memory required for data: 1048111392
I0403 21:45:00.347179 12694 layer_factory.hpp:77] Creating layer inception_4c/relu_5x5_reduce
I0403 21:45:00.347199 12694 net.cpp:91] Creating Layer inception_4c/relu_5x5_reduce
I0403 21:45:00.347221 12694 net.cpp:425] inception_4c/relu_5x5_reduce <- inception_4c/5x5_reduce
I0403 21:45:00.347239 12694 net.cpp:386] inception_4c/relu_5x5_reduce -> inception_4c/5x5_reduce (in-place)
I0403 21:45:00.347416 12694 net.cpp:141] Setting up inception_4c/relu_5x5_reduce
I0403 21:45:00.347443 12694 net.cpp:148] Top shape: 24 24 14 14 (112896)
I0403 21:45:00.347458 12694 net.cpp:156] Memory required for data: 1048562976
I0403 21:45:00.347473 12694 layer_factory.hpp:77] Creating layer inception_4c/5x5
I0403 21:45:00.347496 12694 net.cpp:91] Creating Layer inception_4c/5x5
I0403 21:45:00.347512 12694 net.cpp:425] inception_4c/5x5 <- inception_4c/5x5_reduce
I0403 21:45:00.347530 12694 net.cpp:399] inception_4c/5x5 -> inception_4c/5x5
I0403 21:45:00.348733 12694 net.cpp:141] Setting up inception_4c/5x5
I0403 21:45:00.348762 12694 net.cpp:148] Top shape: 24 64 14 14 (301056)
I0403 21:45:00.348778 12694 net.cpp:156] Memory required for data: 1049767200
I0403 21:45:00.348796 12694 layer_factory.hpp:77] Creating layer inception_4c/relu_5x5
I0403 21:45:00.348814 12694 net.cpp:91] Creating Layer inception_4c/relu_5x5
I0403 21:45:00.348830 12694 net.cpp:425] inception_4c/relu_5x5 <- inception_4c/5x5
I0403 21:45:00.348850 12694 net.cpp:386] inception_4c/relu_5x5 -> inception_4c/5x5 (in-place)
I0403 21:45:00.349126 12694 net.cpp:141] Setting up inception_4c/relu_5x5
I0403 21:45:00.349154 12694 net.cpp:148] Top shape: 24 64 14 14 (301056)
I0403 21:45:00.349170 12694 net.cpp:156] Memory required for data: 1050971424
I0403 21:45:00.349185 12694 layer_factory.hpp:77] Creating layer inception_4c/pool
I0403 21:45:00.349203 12694 net.cpp:91] Creating Layer inception_4c/pool
I0403 21:45:00.349225 12694 net.cpp:425] inception_4c/pool <- inception_4b/output_inception_4b/output_0_split_3
I0403 21:45:00.349246 12694 net.cpp:399] inception_4c/pool -> inception_4c/pool
I0403 21:45:00.349310 12694 net.cpp:141] Setting up inception_4c/pool
I0403 21:45:00.349334 12694 net.cpp:148] Top shape: 24 512 14 14 (2408448)
I0403 21:45:00.349347 12694 net.cpp:156] Memory required for data: 1060605216
I0403 21:45:00.349361 12694 layer_factory.hpp:77] Creating layer inception_4c/pool_proj
I0403 21:45:00.349383 12694 net.cpp:91] Creating Layer inception_4c/pool_proj
I0403 21:45:00.349401 12694 net.cpp:425] inception_4c/pool_proj <- inception_4c/pool
I0403 21:45:00.349421 12694 net.cpp:399] inception_4c/pool_proj -> inception_4c/pool_proj
I0403 21:45:00.350608 12694 net.cpp:141] Setting up inception_4c/pool_proj
I0403 21:45:00.350636 12694 net.cpp:148] Top shape: 24 64 14 14 (301056)
I0403 21:45:00.350664 12694 net.cpp:156] Memory required for data: 1061809440
I0403 21:45:00.350683 12694 layer_factory.hpp:77] Creating layer inception_4c/relu_pool_proj
I0403 21:45:00.350705 12694 net.cpp:91] Creating Layer inception_4c/relu_pool_proj
I0403 21:45:00.350723 12694 net.cpp:425] inception_4c/relu_pool_proj <- inception_4c/pool_proj
I0403 21:45:00.350739 12694 net.cpp:386] inception_4c/relu_pool_proj -> inception_4c/pool_proj (in-place)
I0403 21:45:00.350919 12694 net.cpp:141] Setting up inception_4c/relu_pool_proj
I0403 21:45:00.350946 12694 net.cpp:148] Top shape: 24 64 14 14 (301056)
I0403 21:45:00.350962 12694 net.cpp:156] Memory required for data: 1063013664
I0403 21:45:00.350976 12694 layer_factory.hpp:77] Creating layer inception_4c/output
I0403 21:45:00.350993 12694 net.cpp:91] Creating Layer inception_4c/output
I0403 21:45:00.351008 12694 net.cpp:425] inception_4c/output <- inception_4c/1x1
I0403 21:45:00.351024 12694 net.cpp:425] inception_4c/output <- inception_4c/3x3
I0403 21:45:00.351040 12694 net.cpp:425] inception_4c/output <- inception_4c/5x5
I0403 21:45:00.351055 12694 net.cpp:425] inception_4c/output <- inception_4c/pool_proj
I0403 21:45:00.351071 12694 net.cpp:399] inception_4c/output -> inception_4c/output
I0403 21:45:00.351119 12694 net.cpp:141] Setting up inception_4c/output
I0403 21:45:00.351141 12694 net.cpp:148] Top shape: 24 512 14 14 (2408448)
I0403 21:45:00.351155 12694 net.cpp:156] Memory required for data: 1072647456
I0403 21:45:00.351171 12694 layer_factory.hpp:77] Creating layer inception_4c/output_inception_4c/output_0_split
I0403 21:45:00.351186 12694 net.cpp:91] Creating Layer inception_4c/output_inception_4c/output_0_split
I0403 21:45:00.351202 12694 net.cpp:425] inception_4c/output_inception_4c/output_0_split <- inception_4c/output
I0403 21:45:00.351227 12694 net.cpp:399] inception_4c/output_inception_4c/output_0_split -> inception_4c/output_inception_4c/output_0_split_0
I0403 21:45:00.351248 12694 net.cpp:399] inception_4c/output_inception_4c/output_0_split -> inception_4c/output_inception_4c/output_0_split_1
I0403 21:45:00.351268 12694 net.cpp:399] inception_4c/output_inception_4c/output_0_split -> inception_4c/output_inception_4c/output_0_split_2
I0403 21:45:00.351289 12694 net.cpp:399] inception_4c/output_inception_4c/output_0_split -> inception_4c/output_inception_4c/output_0_split_3
I0403 21:45:00.351374 12694 net.cpp:141] Setting up inception_4c/output_inception_4c/output_0_split
I0403 21:45:00.351397 12694 net.cpp:148] Top shape: 24 512 14 14 (2408448)
I0403 21:45:00.351413 12694 net.cpp:148] Top shape: 24 512 14 14 (2408448)
I0403 21:45:00.351428 12694 net.cpp:148] Top shape: 24 512 14 14 (2408448)
I0403 21:45:00.351444 12694 net.cpp:148] Top shape: 24 512 14 14 (2408448)
I0403 21:45:00.351457 12694 net.cpp:156] Memory required for data: 1111182624
I0403 21:45:00.351471 12694 layer_factory.hpp:77] Creating layer inception_4d/1x1
I0403 21:45:00.351493 12694 net.cpp:91] Creating Layer inception_4d/1x1
I0403 21:45:00.351511 12694 net.cpp:425] inception_4d/1x1 <- inception_4c/output_inception_4c/output_0_split_0
I0403 21:45:00.351531 12694 net.cpp:399] inception_4d/1x1 -> inception_4d/1x1
I0403 21:45:00.352883 12694 net.cpp:141] Setting up inception_4d/1x1
I0403 21:45:00.352910 12694 net.cpp:148] Top shape: 24 112 14 14 (526848)
I0403 21:45:00.352926 12694 net.cpp:156] Memory required for data: 1113290016
I0403 21:45:00.352943 12694 layer_factory.hpp:77] Creating layer inception_4d/relu_1x1
I0403 21:45:00.352962 12694 net.cpp:91] Creating Layer inception_4d/relu_1x1
I0403 21:45:00.353013 12694 net.cpp:425] inception_4d/relu_1x1 <- inception_4d/1x1
I0403 21:45:00.353031 12694 net.cpp:386] inception_4d/relu_1x1 -> inception_4d/1x1 (in-place)
I0403 21:45:00.353222 12694 net.cpp:141] Setting up inception_4d/relu_1x1
I0403 21:45:00.353247 12694 net.cpp:148] Top shape: 24 112 14 14 (526848)
I0403 21:45:00.353274 12694 net.cpp:156] Memory required for data: 1115397408
I0403 21:45:00.353288 12694 layer_factory.hpp:77] Creating layer inception_4d/3x3_reduce
I0403 21:45:00.353323 12694 net.cpp:91] Creating Layer inception_4d/3x3_reduce
I0403 21:45:00.353341 12694 net.cpp:425] inception_4d/3x3_reduce <- inception_4c/output_inception_4c/output_0_split_1
I0403 21:45:00.353363 12694 net.cpp:399] inception_4d/3x3_reduce -> inception_4d/3x3_reduce
I0403 21:45:00.354830 12694 net.cpp:141] Setting up inception_4d/3x3_reduce
I0403 21:45:00.354859 12694 net.cpp:148] Top shape: 24 144 14 14 (677376)
I0403 21:45:00.354876 12694 net.cpp:156] Memory required for data: 1118106912
I0403 21:45:00.354894 12694 layer_factory.hpp:77] Creating layer inception_4d/relu_3x3_reduce
I0403 21:45:00.354912 12694 net.cpp:91] Creating Layer inception_4d/relu_3x3_reduce
I0403 21:45:00.354928 12694 net.cpp:425] inception_4d/relu_3x3_reduce <- inception_4d/3x3_reduce
I0403 21:45:00.354948 12694 net.cpp:386] inception_4d/relu_3x3_reduce -> inception_4d/3x3_reduce (in-place)
I0403 21:45:00.355229 12694 net.cpp:141] Setting up inception_4d/relu_3x3_reduce
I0403 21:45:00.355257 12694 net.cpp:148] Top shape: 24 144 14 14 (677376)
I0403 21:45:00.355273 12694 net.cpp:156] Memory required for data: 1120816416
I0403 21:45:00.355288 12694 layer_factory.hpp:77] Creating layer inception_4d/3x3
I0403 21:45:00.355309 12694 net.cpp:91] Creating Layer inception_4d/3x3
I0403 21:45:00.355327 12694 net.cpp:425] inception_4d/3x3 <- inception_4d/3x3_reduce
I0403 21:45:00.355345 12694 net.cpp:399] inception_4d/3x3 -> inception_4d/3x3
I0403 21:45:00.359480 12694 net.cpp:141] Setting up inception_4d/3x3
I0403 21:45:00.359509 12694 net.cpp:148] Top shape: 24 288 14 14 (1354752)
I0403 21:45:00.359524 12694 net.cpp:156] Memory required for data: 1126235424
I0403 21:45:00.359542 12694 layer_factory.hpp:77] Creating layer inception_4d/relu_3x3
I0403 21:45:00.359560 12694 net.cpp:91] Creating Layer inception_4d/relu_3x3
I0403 21:45:00.359576 12694 net.cpp:425] inception_4d/relu_3x3 <- inception_4d/3x3
I0403 21:45:00.359596 12694 net.cpp:386] inception_4d/relu_3x3 -> inception_4d/3x3 (in-place)
I0403 21:45:00.359773 12694 net.cpp:141] Setting up inception_4d/relu_3x3
I0403 21:45:00.359798 12694 net.cpp:148] Top shape: 24 288 14 14 (1354752)
I0403 21:45:00.359812 12694 net.cpp:156] Memory required for data: 1131654432
I0403 21:45:00.359827 12694 layer_factory.hpp:77] Creating layer inception_4d/5x5_reduce
I0403 21:45:00.359850 12694 net.cpp:91] Creating Layer inception_4d/5x5_reduce
I0403 21:45:00.359868 12694 net.cpp:425] inception_4d/5x5_reduce <- inception_4c/output_inception_4c/output_0_split_2
I0403 21:45:00.359887 12694 net.cpp:399] inception_4d/5x5_reduce -> inception_4d/5x5_reduce
I0403 21:45:00.361002 12694 net.cpp:141] Setting up inception_4d/5x5_reduce
I0403 21:45:00.361029 12694 net.cpp:148] Top shape: 24 32 14 14 (150528)
I0403 21:45:00.361045 12694 net.cpp:156] Memory required for data: 1132256544
I0403 21:45:00.361063 12694 layer_factory.hpp:77] Creating layer inception_4d/relu_5x5_reduce
I0403 21:45:00.361083 12694 net.cpp:91] Creating Layer inception_4d/relu_5x5_reduce
I0403 21:45:00.361099 12694 net.cpp:425] inception_4d/relu_5x5_reduce <- inception_4d/5x5_reduce
I0403 21:45:00.361116 12694 net.cpp:386] inception_4d/relu_5x5_reduce -> inception_4d/5x5_reduce (in-place)
I0403 21:45:00.361302 12694 net.cpp:141] Setting up inception_4d/relu_5x5_reduce
I0403 21:45:00.361327 12694 net.cpp:148] Top shape: 24 32 14 14 (150528)
I0403 21:45:00.361342 12694 net.cpp:156] Memory required for data: 1132858656
I0403 21:45:00.361356 12694 layer_factory.hpp:77] Creating layer inception_4d/5x5
I0403 21:45:00.361378 12694 net.cpp:91] Creating Layer inception_4d/5x5
I0403 21:45:00.361395 12694 net.cpp:425] inception_4d/5x5 <- inception_4d/5x5_reduce
I0403 21:45:00.361418 12694 net.cpp:399] inception_4d/5x5 -> inception_4d/5x5
I0403 21:45:00.362865 12694 net.cpp:141] Setting up inception_4d/5x5
I0403 21:45:00.362893 12694 net.cpp:148] Top shape: 24 64 14 14 (301056)
I0403 21:45:00.362910 12694 net.cpp:156] Memory required for data: 1134062880
I0403 21:45:00.362931 12694 layer_factory.hpp:77] Creating layer inception_4d/relu_5x5
I0403 21:45:00.362965 12694 net.cpp:91] Creating Layer inception_4d/relu_5x5
I0403 21:45:00.362982 12694 net.cpp:425] inception_4d/relu_5x5 <- inception_4d/5x5
I0403 21:45:00.363000 12694 net.cpp:386] inception_4d/relu_5x5 -> inception_4d/5x5 (in-place)
I0403 21:45:00.363294 12694 net.cpp:141] Setting up inception_4d/relu_5x5
I0403 21:45:00.363320 12694 net.cpp:148] Top shape: 24 64 14 14 (301056)
I0403 21:45:00.363335 12694 net.cpp:156] Memory required for data: 1135267104
I0403 21:45:00.363349 12694 layer_factory.hpp:77] Creating layer inception_4d/pool
I0403 21:45:00.363368 12694 net.cpp:91] Creating Layer inception_4d/pool
I0403 21:45:00.363385 12694 net.cpp:425] inception_4d/pool <- inception_4c/output_inception_4c/output_0_split_3
I0403 21:45:00.363404 12694 net.cpp:399] inception_4d/pool -> inception_4d/pool
I0403 21:45:00.363471 12694 net.cpp:141] Setting up inception_4d/pool
I0403 21:45:00.363493 12694 net.cpp:148] Top shape: 24 512 14 14 (2408448)
I0403 21:45:00.363508 12694 net.cpp:156] Memory required for data: 1144900896
I0403 21:45:00.363523 12694 layer_factory.hpp:77] Creating layer inception_4d/pool_proj
I0403 21:45:00.363544 12694 net.cpp:91] Creating Layer inception_4d/pool_proj
I0403 21:45:00.363561 12694 net.cpp:425] inception_4d/pool_proj <- inception_4d/pool
I0403 21:45:00.363582 12694 net.cpp:399] inception_4d/pool_proj -> inception_4d/pool_proj
I0403 21:45:00.365341 12694 net.cpp:141] Setting up inception_4d/pool_proj
I0403 21:45:00.365371 12694 net.cpp:148] Top shape: 24 64 14 14 (301056)
I0403 21:45:00.365386 12694 net.cpp:156] Memory required for data: 1146105120
I0403 21:45:00.365404 12694 layer_factory.hpp:77] Creating layer inception_4d/relu_pool_proj
I0403 21:45:00.365422 12694 net.cpp:91] Creating Layer inception_4d/relu_pool_proj
I0403 21:45:00.365438 12694 net.cpp:425] inception_4d/relu_pool_proj <- inception_4d/pool_proj
I0403 21:45:00.365458 12694 net.cpp:386] inception_4d/relu_pool_proj -> inception_4d/pool_proj (in-place)
I0403 21:45:00.365638 12694 net.cpp:141] Setting up inception_4d/relu_pool_proj
I0403 21:45:00.365664 12694 net.cpp:148] Top shape: 24 64 14 14 (301056)
I0403 21:45:00.365679 12694 net.cpp:156] Memory required for data: 1147309344
I0403 21:45:00.365694 12694 layer_factory.hpp:77] Creating layer inception_4d/output
I0403 21:45:00.365712 12694 net.cpp:91] Creating Layer inception_4d/output
I0403 21:45:00.365728 12694 net.cpp:425] inception_4d/output <- inception_4d/1x1
I0403 21:45:00.365746 12694 net.cpp:425] inception_4d/output <- inception_4d/3x3
I0403 21:45:00.365761 12694 net.cpp:425] inception_4d/output <- inception_4d/5x5
I0403 21:45:00.365777 12694 net.cpp:425] inception_4d/output <- inception_4d/pool_proj
I0403 21:45:00.365793 12694 net.cpp:399] inception_4d/output -> inception_4d/output
I0403 21:45:00.365841 12694 net.cpp:141] Setting up inception_4d/output
I0403 21:45:00.365865 12694 net.cpp:148] Top shape: 24 528 14 14 (2483712)
I0403 21:45:00.365880 12694 net.cpp:156] Memory required for data: 1157244192
I0403 21:45:00.365893 12694 layer_factory.hpp:77] Creating layer inception_4d/output_inception_4d/output_0_split
I0403 21:45:00.365911 12694 net.cpp:91] Creating Layer inception_4d/output_inception_4d/output_0_split
I0403 21:45:00.365926 12694 net.cpp:425] inception_4d/output_inception_4d/output_0_split <- inception_4d/output
I0403 21:45:00.365947 12694 net.cpp:399] inception_4d/output_inception_4d/output_0_split -> inception_4d/output_inception_4d/output_0_split_0
I0403 21:45:00.365968 12694 net.cpp:399] inception_4d/output_inception_4d/output_0_split -> inception_4d/output_inception_4d/output_0_split_1
I0403 21:45:00.365988 12694 net.cpp:399] inception_4d/output_inception_4d/output_0_split -> inception_4d/output_inception_4d/output_0_split_2
I0403 21:45:00.366008 12694 net.cpp:399] inception_4d/output_inception_4d/output_0_split -> inception_4d/output_inception_4d/output_0_split_3
I0403 21:45:00.366027 12694 net.cpp:399] inception_4d/output_inception_4d/output_0_split -> inception_4d/output_inception_4d/output_0_split_4
I0403 21:45:00.366132 12694 net.cpp:141] Setting up inception_4d/output_inception_4d/output_0_split
I0403 21:45:00.366166 12694 net.cpp:148] Top shape: 24 528 14 14 (2483712)
I0403 21:45:00.366184 12694 net.cpp:148] Top shape: 24 528 14 14 (2483712)
I0403 21:45:00.366200 12694 net.cpp:148] Top shape: 24 528 14 14 (2483712)
I0403 21:45:00.366221 12694 net.cpp:148] Top shape: 24 528 14 14 (2483712)
I0403 21:45:00.366237 12694 net.cpp:148] Top shape: 24 528 14 14 (2483712)
I0403 21:45:00.366251 12694 net.cpp:156] Memory required for data: 1206918432
I0403 21:45:00.366266 12694 layer_factory.hpp:77] Creating layer loss2/ave_pool
I0403 21:45:00.366283 12694 net.cpp:91] Creating Layer loss2/ave_pool
I0403 21:45:00.366298 12694 net.cpp:425] loss2/ave_pool <- inception_4d/output_inception_4d/output_0_split_0
I0403 21:45:00.366318 12694 net.cpp:399] loss2/ave_pool -> loss2/ave_pool
I0403 21:45:00.366621 12694 net.cpp:141] Setting up loss2/ave_pool
I0403 21:45:00.366647 12694 net.cpp:148] Top shape: 24 528 4 4 (202752)
I0403 21:45:00.366660 12694 net.cpp:156] Memory required for data: 1207729440
I0403 21:45:00.366675 12694 layer_factory.hpp:77] Creating layer loss2/conv
I0403 21:45:00.366701 12694 net.cpp:91] Creating Layer loss2/conv
I0403 21:45:00.366719 12694 net.cpp:425] loss2/conv <- loss2/ave_pool
I0403 21:45:00.366740 12694 net.cpp:399] loss2/conv -> loss2/conv
I0403 21:45:00.368626 12694 net.cpp:141] Setting up loss2/conv
I0403 21:45:00.368656 12694 net.cpp:148] Top shape: 24 128 4 4 (49152)
I0403 21:45:00.368674 12694 net.cpp:156] Memory required for data: 1207926048
I0403 21:45:00.368691 12694 layer_factory.hpp:77] Creating layer loss2/relu_conv
I0403 21:45:00.368710 12694 net.cpp:91] Creating Layer loss2/relu_conv
I0403 21:45:00.368726 12694 net.cpp:425] loss2/relu_conv <- loss2/conv
I0403 21:45:00.368743 12694 net.cpp:386] loss2/relu_conv -> loss2/conv (in-place)
I0403 21:45:00.369024 12694 net.cpp:141] Setting up loss2/relu_conv
I0403 21:45:00.369051 12694 net.cpp:148] Top shape: 24 128 4 4 (49152)
I0403 21:45:00.369068 12694 net.cpp:156] Memory required for data: 1208122656
I0403 21:45:00.369083 12694 layer_factory.hpp:77] Creating layer loss2/fc
I0403 21:45:00.369102 12694 net.cpp:91] Creating Layer loss2/fc
I0403 21:45:00.369117 12694 net.cpp:425] loss2/fc <- loss2/conv
I0403 21:45:00.369138 12694 net.cpp:399] loss2/fc -> loss2/fc
I0403 21:45:00.386775 12694 net.cpp:141] Setting up loss2/fc
I0403 21:45:00.386813 12694 net.cpp:148] Top shape: 24 1024 (24576)
I0403 21:45:00.386829 12694 net.cpp:156] Memory required for data: 1208220960
I0403 21:45:00.386847 12694 layer_factory.hpp:77] Creating layer loss2/relu_fc
I0403 21:45:00.386868 12694 net.cpp:91] Creating Layer loss2/relu_fc
I0403 21:45:00.386885 12694 net.cpp:425] loss2/relu_fc <- loss2/fc
I0403 21:45:00.386904 12694 net.cpp:386] loss2/relu_fc -> loss2/fc (in-place)
I0403 21:45:00.387207 12694 net.cpp:141] Setting up loss2/relu_fc
I0403 21:45:00.387236 12694 net.cpp:148] Top shape: 24 1024 (24576)
I0403 21:45:00.387253 12694 net.cpp:156] Memory required for data: 1208319264
I0403 21:45:00.387266 12694 layer_factory.hpp:77] Creating layer loss2/drop_fc
I0403 21:45:00.387286 12694 net.cpp:91] Creating Layer loss2/drop_fc
I0403 21:45:00.387305 12694 net.cpp:425] loss2/drop_fc <- loss2/fc
I0403 21:45:00.387322 12694 net.cpp:386] loss2/drop_fc -> loss2/fc (in-place)
I0403 21:45:00.387369 12694 net.cpp:141] Setting up loss2/drop_fc
I0403 21:45:00.387395 12694 net.cpp:148] Top shape: 24 1024 (24576)
I0403 21:45:00.387410 12694 net.cpp:156] Memory required for data: 1208417568
I0403 21:45:00.387424 12694 layer_factory.hpp:77] Creating layer loss2/classifier_plantvillage
I0403 21:45:00.387442 12694 net.cpp:91] Creating Layer loss2/classifier_plantvillage
I0403 21:45:00.387459 12694 net.cpp:425] loss2/classifier_plantvillage <- loss2/fc
I0403 21:45:00.387480 12694 net.cpp:399] loss2/classifier_plantvillage -> loss2/classifier_plantvillage
I0403 21:45:00.387874 12694 net.cpp:141] Setting up loss2/classifier_plantvillage
I0403 21:45:00.387899 12694 net.cpp:148] Top shape: 24 38 (912)
I0403 21:45:00.387913 12694 net.cpp:156] Memory required for data: 1208421216
I0403 21:45:00.387948 12694 layer_factory.hpp:77] Creating layer loss2/classifier_plantvillage_loss2/classifier_plantvillage_0_split
I0403 21:45:00.387966 12694 net.cpp:91] Creating Layer loss2/classifier_plantvillage_loss2/classifier_plantvillage_0_split
I0403 21:45:00.387984 12694 net.cpp:425] loss2/classifier_plantvillage_loss2/classifier_plantvillage_0_split <- loss2/classifier_plantvillage
I0403 21:45:00.388001 12694 net.cpp:399] loss2/classifier_plantvillage_loss2/classifier_plantvillage_0_split -> loss2/classifier_plantvillage_loss2/classifier_plantvillage_0_split_0
I0403 21:45:00.388023 12694 net.cpp:399] loss2/classifier_plantvillage_loss2/classifier_plantvillage_0_split -> loss2/classifier_plantvillage_loss2/classifier_plantvillage_0_split_1
I0403 21:45:00.388046 12694 net.cpp:399] loss2/classifier_plantvillage_loss2/classifier_plantvillage_0_split -> loss2/classifier_plantvillage_loss2/classifier_plantvillage_0_split_2
I0403 21:45:00.388121 12694 net.cpp:141] Setting up loss2/classifier_plantvillage_loss2/classifier_plantvillage_0_split
I0403 21:45:00.388144 12694 net.cpp:148] Top shape: 24 38 (912)
I0403 21:45:00.388160 12694 net.cpp:148] Top shape: 24 38 (912)
I0403 21:45:00.388176 12694 net.cpp:148] Top shape: 24 38 (912)
I0403 21:45:00.388190 12694 net.cpp:156] Memory required for data: 1208432160
I0403 21:45:00.388205 12694 layer_factory.hpp:77] Creating layer inception_4e/1x1
I0403 21:45:00.388236 12694 net.cpp:91] Creating Layer inception_4e/1x1
I0403 21:45:00.388254 12694 net.cpp:425] inception_4e/1x1 <- inception_4d/output_inception_4d/output_0_split_1
I0403 21:45:00.388276 12694 net.cpp:399] inception_4e/1x1 -> inception_4e/1x1
I0403 21:45:00.390058 12694 net.cpp:141] Setting up inception_4e/1x1
I0403 21:45:00.390089 12694 net.cpp:148] Top shape: 24 256 14 14 (1204224)
I0403 21:45:00.390105 12694 net.cpp:156] Memory required for data: 1213249056
I0403 21:45:00.390125 12694 layer_factory.hpp:77] Creating layer inception_4e/relu_1x1
I0403 21:45:00.390142 12694 net.cpp:91] Creating Layer inception_4e/relu_1x1
I0403 21:45:00.390158 12694 net.cpp:425] inception_4e/relu_1x1 <- inception_4e/1x1
I0403 21:45:00.390179 12694 net.cpp:386] inception_4e/relu_1x1 -> inception_4e/1x1 (in-place)
I0403 21:45:00.390470 12694 net.cpp:141] Setting up inception_4e/relu_1x1
I0403 21:45:00.390499 12694 net.cpp:148] Top shape: 24 256 14 14 (1204224)
I0403 21:45:00.390516 12694 net.cpp:156] Memory required for data: 1218065952
I0403 21:45:00.390530 12694 layer_factory.hpp:77] Creating layer inception_4e/3x3_reduce
I0403 21:45:00.390553 12694 net.cpp:91] Creating Layer inception_4e/3x3_reduce
I0403 21:45:00.390573 12694 net.cpp:425] inception_4e/3x3_reduce <- inception_4d/output_inception_4d/output_0_split_2
I0403 21:45:00.390593 12694 net.cpp:399] inception_4e/3x3_reduce -> inception_4e/3x3_reduce
I0403 21:45:00.392702 12694 net.cpp:141] Setting up inception_4e/3x3_reduce
I0403 21:45:00.392730 12694 net.cpp:148] Top shape: 24 160 14 14 (752640)
I0403 21:45:00.392746 12694 net.cpp:156] Memory required for data: 1221076512
I0403 21:45:00.392765 12694 layer_factory.hpp:77] Creating layer inception_4e/relu_3x3_reduce
I0403 21:45:00.392783 12694 net.cpp:91] Creating Layer inception_4e/relu_3x3_reduce
I0403 21:45:00.392802 12694 net.cpp:425] inception_4e/relu_3x3_reduce <- inception_4e/3x3_reduce
I0403 21:45:00.392818 12694 net.cpp:386] inception_4e/relu_3x3_reduce -> inception_4e/3x3_reduce (in-place)
I0403 21:45:00.392999 12694 net.cpp:141] Setting up inception_4e/relu_3x3_reduce
I0403 21:45:00.393025 12694 net.cpp:148] Top shape: 24 160 14 14 (752640)
I0403 21:45:00.393041 12694 net.cpp:156] Memory required for data: 1224087072
I0403 21:45:00.393056 12694 layer_factory.hpp:77] Creating layer inception_4e/3x3
I0403 21:45:00.393079 12694 net.cpp:91] Creating Layer inception_4e/3x3
I0403 21:45:00.393095 12694 net.cpp:425] inception_4e/3x3 <- inception_4e/3x3_reduce
I0403 21:45:00.393115 12694 net.cpp:399] inception_4e/3x3 -> inception_4e/3x3
I0403 21:45:00.398012 12694 net.cpp:141] Setting up inception_4e/3x3
I0403 21:45:00.398053 12694 net.cpp:148] Top shape: 24 320 14 14 (1505280)
I0403 21:45:00.398071 12694 net.cpp:156] Memory required for data: 1230108192
I0403 21:45:00.398089 12694 layer_factory.hpp:77] Creating layer inception_4e/relu_3x3
I0403 21:45:00.398108 12694 net.cpp:91] Creating Layer inception_4e/relu_3x3
I0403 21:45:00.398123 12694 net.cpp:425] inception_4e/relu_3x3 <- inception_4e/3x3
I0403 21:45:00.398141 12694 net.cpp:386] inception_4e/relu_3x3 -> inception_4e/3x3 (in-place)
I0403 21:45:00.398440 12694 net.cpp:141] Setting up inception_4e/relu_3x3
I0403 21:45:00.398466 12694 net.cpp:148] Top shape: 24 320 14 14 (1505280)
I0403 21:45:00.398481 12694 net.cpp:156] Memory required for data: 1236129312
I0403 21:45:00.398496 12694 layer_factory.hpp:77] Creating layer inception_4e/5x5_reduce
I0403 21:45:00.398520 12694 net.cpp:91] Creating Layer inception_4e/5x5_reduce
I0403 21:45:00.398537 12694 net.cpp:425] inception_4e/5x5_reduce <- inception_4d/output_inception_4d/output_0_split_3
I0403 21:45:00.398560 12694 net.cpp:399] inception_4e/5x5_reduce -> inception_4e/5x5_reduce
I0403 21:45:00.399608 12694 net.cpp:141] Setting up inception_4e/5x5_reduce
I0403 21:45:00.399636 12694 net.cpp:148] Top shape: 24 32 14 14 (150528)
I0403 21:45:00.399652 12694 net.cpp:156] Memory required for data: 1236731424
I0403 21:45:00.399669 12694 layer_factory.hpp:77] Creating layer inception_4e/relu_5x5_reduce
I0403 21:45:00.399689 12694 net.cpp:91] Creating Layer inception_4e/relu_5x5_reduce
I0403 21:45:00.399705 12694 net.cpp:425] inception_4e/relu_5x5_reduce <- inception_4e/5x5_reduce
I0403 21:45:00.399723 12694 net.cpp:386] inception_4e/relu_5x5_reduce -> inception_4e/5x5_reduce (in-place)
I0403 21:45:00.400013 12694 net.cpp:141] Setting up inception_4e/relu_5x5_reduce
I0403 21:45:00.400039 12694 net.cpp:148] Top shape: 24 32 14 14 (150528)
I0403 21:45:00.400054 12694 net.cpp:156] Memory required for data: 1237333536
I0403 21:45:00.400069 12694 layer_factory.hpp:77] Creating layer inception_4e/5x5
I0403 21:45:00.400107 12694 net.cpp:91] Creating Layer inception_4e/5x5
I0403 21:45:00.400127 12694 net.cpp:425] inception_4e/5x5 <- inception_4e/5x5_reduce
I0403 21:45:00.400146 12694 net.cpp:399] inception_4e/5x5 -> inception_4e/5x5
I0403 21:45:00.401933 12694 net.cpp:141] Setting up inception_4e/5x5
I0403 21:45:00.401960 12694 net.cpp:148] Top shape: 24 128 14 14 (602112)
I0403 21:45:00.401976 12694 net.cpp:156] Memory required for data: 1239741984
I0403 21:45:00.401994 12694 layer_factory.hpp:77] Creating layer inception_4e/relu_5x5
I0403 21:45:00.402014 12694 net.cpp:91] Creating Layer inception_4e/relu_5x5
I0403 21:45:00.402031 12694 net.cpp:425] inception_4e/relu_5x5 <- inception_4e/5x5
I0403 21:45:00.402048 12694 net.cpp:386] inception_4e/relu_5x5 -> inception_4e/5x5 (in-place)
I0403 21:45:00.402252 12694 net.cpp:141] Setting up inception_4e/relu_5x5
I0403 21:45:00.402281 12694 net.cpp:148] Top shape: 24 128 14 14 (602112)
I0403 21:45:00.402295 12694 net.cpp:156] Memory required for data: 1242150432
I0403 21:45:00.402309 12694 layer_factory.hpp:77] Creating layer inception_4e/pool
I0403 21:45:00.402328 12694 net.cpp:91] Creating Layer inception_4e/pool
I0403 21:45:00.402343 12694 net.cpp:425] inception_4e/pool <- inception_4d/output_inception_4d/output_0_split_4
I0403 21:45:00.402361 12694 net.cpp:399] inception_4e/pool -> inception_4e/pool
I0403 21:45:00.402431 12694 net.cpp:141] Setting up inception_4e/pool
I0403 21:45:00.402454 12694 net.cpp:148] Top shape: 24 528 14 14 (2483712)
I0403 21:45:00.402468 12694 net.cpp:156] Memory required for data: 1252085280
I0403 21:45:00.402483 12694 layer_factory.hpp:77] Creating layer inception_4e/pool_proj
I0403 21:45:00.402504 12694 net.cpp:91] Creating Layer inception_4e/pool_proj
I0403 21:45:00.402523 12694 net.cpp:425] inception_4e/pool_proj <- inception_4e/pool
I0403 21:45:00.402544 12694 net.cpp:399] inception_4e/pool_proj -> inception_4e/pool_proj
I0403 21:45:00.404006 12694 net.cpp:141] Setting up inception_4e/pool_proj
I0403 21:45:00.404032 12694 net.cpp:148] Top shape: 24 128 14 14 (602112)
I0403 21:45:00.404062 12694 net.cpp:156] Memory required for data: 1254493728
I0403 21:45:00.404080 12694 layer_factory.hpp:77] Creating layer inception_4e/relu_pool_proj
I0403 21:45:00.404098 12694 net.cpp:91] Creating Layer inception_4e/relu_pool_proj
I0403 21:45:00.404114 12694 net.cpp:425] inception_4e/relu_pool_proj <- inception_4e/pool_proj
I0403 21:45:00.404134 12694 net.cpp:386] inception_4e/relu_pool_proj -> inception_4e/pool_proj (in-place)
I0403 21:45:00.404425 12694 net.cpp:141] Setting up inception_4e/relu_pool_proj
I0403 21:45:00.404451 12694 net.cpp:148] Top shape: 24 128 14 14 (602112)
I0403 21:45:00.404465 12694 net.cpp:156] Memory required for data: 1256902176
I0403 21:45:00.404480 12694 layer_factory.hpp:77] Creating layer inception_4e/output
I0403 21:45:00.404498 12694 net.cpp:91] Creating Layer inception_4e/output
I0403 21:45:00.404513 12694 net.cpp:425] inception_4e/output <- inception_4e/1x1
I0403 21:45:00.404530 12694 net.cpp:425] inception_4e/output <- inception_4e/3x3
I0403 21:45:00.404546 12694 net.cpp:425] inception_4e/output <- inception_4e/5x5
I0403 21:45:00.404561 12694 net.cpp:425] inception_4e/output <- inception_4e/pool_proj
I0403 21:45:00.404580 12694 net.cpp:399] inception_4e/output -> inception_4e/output
I0403 21:45:00.404628 12694 net.cpp:141] Setting up inception_4e/output
I0403 21:45:00.404654 12694 net.cpp:148] Top shape: 24 832 14 14 (3913728)
I0403 21:45:00.404669 12694 net.cpp:156] Memory required for data: 1272557088
I0403 21:45:00.404682 12694 layer_factory.hpp:77] Creating layer pool4/3x3_s2
I0403 21:45:00.404700 12694 net.cpp:91] Creating Layer pool4/3x3_s2
I0403 21:45:00.404716 12694 net.cpp:425] pool4/3x3_s2 <- inception_4e/output
I0403 21:45:00.404736 12694 net.cpp:399] pool4/3x3_s2 -> pool4/3x3_s2
I0403 21:45:00.404803 12694 net.cpp:141] Setting up pool4/3x3_s2
I0403 21:45:00.404826 12694 net.cpp:148] Top shape: 24 832 7 7 (978432)
I0403 21:45:00.404841 12694 net.cpp:156] Memory required for data: 1276470816
I0403 21:45:00.404855 12694 layer_factory.hpp:77] Creating layer pool4/3x3_s2_pool4/3x3_s2_0_split
I0403 21:45:00.404873 12694 net.cpp:91] Creating Layer pool4/3x3_s2_pool4/3x3_s2_0_split
I0403 21:45:00.404891 12694 net.cpp:425] pool4/3x3_s2_pool4/3x3_s2_0_split <- pool4/3x3_s2
I0403 21:45:00.404908 12694 net.cpp:399] pool4/3x3_s2_pool4/3x3_s2_0_split -> pool4/3x3_s2_pool4/3x3_s2_0_split_0
I0403 21:45:00.404927 12694 net.cpp:399] pool4/3x3_s2_pool4/3x3_s2_0_split -> pool4/3x3_s2_pool4/3x3_s2_0_split_1
I0403 21:45:00.404948 12694 net.cpp:399] pool4/3x3_s2_pool4/3x3_s2_0_split -> pool4/3x3_s2_pool4/3x3_s2_0_split_2
I0403 21:45:00.404969 12694 net.cpp:399] pool4/3x3_s2_pool4/3x3_s2_0_split -> pool4/3x3_s2_pool4/3x3_s2_0_split_3
I0403 21:45:00.405057 12694 net.cpp:141] Setting up pool4/3x3_s2_pool4/3x3_s2_0_split
I0403 21:45:00.405079 12694 net.cpp:148] Top shape: 24 832 7 7 (978432)
I0403 21:45:00.405097 12694 net.cpp:148] Top shape: 24 832 7 7 (978432)
I0403 21:45:00.405112 12694 net.cpp:148] Top shape: 24 832 7 7 (978432)
I0403 21:45:00.405128 12694 net.cpp:148] Top shape: 24 832 7 7 (978432)
I0403 21:45:00.405140 12694 net.cpp:156] Memory required for data: 1292125728
I0403 21:45:00.405154 12694 layer_factory.hpp:77] Creating layer inception_5a/1x1
I0403 21:45:00.405176 12694 net.cpp:91] Creating Layer inception_5a/1x1
I0403 21:45:00.405194 12694 net.cpp:425] inception_5a/1x1 <- pool4/3x3_s2_pool4/3x3_s2_0_split_0
I0403 21:45:00.405220 12694 net.cpp:399] inception_5a/1x1 -> inception_5a/1x1
I0403 21:45:00.407989 12694 net.cpp:141] Setting up inception_5a/1x1
I0403 21:45:00.408016 12694 net.cpp:148] Top shape: 24 256 7 7 (301056)
I0403 21:45:00.408031 12694 net.cpp:156] Memory required for data: 1293329952
I0403 21:45:00.408049 12694 layer_factory.hpp:77] Creating layer inception_5a/relu_1x1
I0403 21:45:00.408069 12694 net.cpp:91] Creating Layer inception_5a/relu_1x1
I0403 21:45:00.408087 12694 net.cpp:425] inception_5a/relu_1x1 <- inception_5a/1x1
I0403 21:45:00.408104 12694 net.cpp:386] inception_5a/relu_1x1 -> inception_5a/1x1 (in-place)
I0403 21:45:00.408411 12694 net.cpp:141] Setting up inception_5a/relu_1x1
I0403 21:45:00.408437 12694 net.cpp:148] Top shape: 24 256 7 7 (301056)
I0403 21:45:00.408452 12694 net.cpp:156] Memory required for data: 1294534176
I0403 21:45:00.408466 12694 layer_factory.hpp:77] Creating layer inception_5a/3x3_reduce
I0403 21:45:00.408488 12694 net.cpp:91] Creating Layer inception_5a/3x3_reduce
I0403 21:45:00.408505 12694 net.cpp:425] inception_5a/3x3_reduce <- pool4/3x3_s2_pool4/3x3_s2_0_split_1
I0403 21:45:00.408530 12694 net.cpp:399] inception_5a/3x3_reduce -> inception_5a/3x3_reduce
I0403 21:45:00.410964 12694 net.cpp:141] Setting up inception_5a/3x3_reduce
I0403 21:45:00.410992 12694 net.cpp:148] Top shape: 24 160 7 7 (188160)
I0403 21:45:00.411007 12694 net.cpp:156] Memory required for data: 1295286816
I0403 21:45:00.411026 12694 layer_factory.hpp:77] Creating layer inception_5a/relu_3x3_reduce
I0403 21:45:00.411042 12694 net.cpp:91] Creating Layer inception_5a/relu_3x3_reduce
I0403 21:45:00.411058 12694 net.cpp:425] inception_5a/relu_3x3_reduce <- inception_5a/3x3_reduce
I0403 21:45:00.411078 12694 net.cpp:386] inception_5a/relu_3x3_reduce -> inception_5a/3x3_reduce (in-place)
I0403 21:45:00.411264 12694 net.cpp:141] Setting up inception_5a/relu_3x3_reduce
I0403 21:45:00.411289 12694 net.cpp:148] Top shape: 24 160 7 7 (188160)
I0403 21:45:00.411304 12694 net.cpp:156] Memory required for data: 1296039456
I0403 21:45:00.411319 12694 layer_factory.hpp:77] Creating layer inception_5a/3x3
I0403 21:45:00.411340 12694 net.cpp:91] Creating Layer inception_5a/3x3
I0403 21:45:00.411358 12694 net.cpp:425] inception_5a/3x3 <- inception_5a/3x3_reduce
I0403 21:45:00.411381 12694 net.cpp:399] inception_5a/3x3 -> inception_5a/3x3
I0403 21:45:00.416385 12694 net.cpp:141] Setting up inception_5a/3x3
I0403 21:45:00.416415 12694 net.cpp:148] Top shape: 24 320 7 7 (376320)
I0403 21:45:00.416431 12694 net.cpp:156] Memory required for data: 1297544736
I0403 21:45:00.416450 12694 layer_factory.hpp:77] Creating layer inception_5a/relu_3x3
I0403 21:45:00.416470 12694 net.cpp:91] Creating Layer inception_5a/relu_3x3
I0403 21:45:00.416486 12694 net.cpp:425] inception_5a/relu_3x3 <- inception_5a/3x3
I0403 21:45:00.416503 12694 net.cpp:386] inception_5a/relu_3x3 -> inception_5a/3x3 (in-place)
I0403 21:45:00.416790 12694 net.cpp:141] Setting up inception_5a/relu_3x3
I0403 21:45:00.416815 12694 net.cpp:148] Top shape: 24 320 7 7 (376320)
I0403 21:45:00.416831 12694 net.cpp:156] Memory required for data: 1299050016
I0403 21:45:00.416846 12694 layer_factory.hpp:77] Creating layer inception_5a/5x5_reduce
I0403 21:45:00.416867 12694 net.cpp:91] Creating Layer inception_5a/5x5_reduce
I0403 21:45:00.416885 12694 net.cpp:425] inception_5a/5x5_reduce <- pool4/3x3_s2_pool4/3x3_s2_0_split_2
I0403 21:45:00.416908 12694 net.cpp:399] inception_5a/5x5_reduce -> inception_5a/5x5_reduce
I0403 21:45:00.418094 12694 net.cpp:141] Setting up inception_5a/5x5_reduce
I0403 21:45:00.418124 12694 net.cpp:148] Top shape: 24 32 7 7 (37632)
I0403 21:45:00.418141 12694 net.cpp:156] Memory required for data: 1299200544
I0403 21:45:00.418159 12694 layer_factory.hpp:77] Creating layer inception_5a/relu_5x5_reduce
I0403 21:45:00.418176 12694 net.cpp:91] Creating Layer inception_5a/relu_5x5_reduce
I0403 21:45:00.418192 12694 net.cpp:425] inception_5a/relu_5x5_reduce <- inception_5a/5x5_reduce
I0403 21:45:00.418215 12694 net.cpp:386] inception_5a/relu_5x5_reduce -> inception_5a/5x5_reduce (in-place)
I0403 21:45:00.418511 12694 net.cpp:141] Setting up inception_5a/relu_5x5_reduce
I0403 21:45:00.418540 12694 net.cpp:148] Top shape: 24 32 7 7 (37632)
I0403 21:45:00.418556 12694 net.cpp:156] Memory required for data: 1299351072
I0403 21:45:00.418571 12694 layer_factory.hpp:77] Creating layer inception_5a/5x5
I0403 21:45:00.418591 12694 net.cpp:91] Creating Layer inception_5a/5x5
I0403 21:45:00.418607 12694 net.cpp:425] inception_5a/5x5 <- inception_5a/5x5_reduce
I0403 21:45:00.418629 12694 net.cpp:399] inception_5a/5x5 -> inception_5a/5x5
I0403 21:45:00.420317 12694 net.cpp:141] Setting up inception_5a/5x5
I0403 21:45:00.420356 12694 net.cpp:148] Top shape: 24 128 7 7 (150528)
I0403 21:45:00.420372 12694 net.cpp:156] Memory required for data: 1299953184
I0403 21:45:00.420390 12694 layer_factory.hpp:77] Creating layer inception_5a/relu_5x5
I0403 21:45:00.420410 12694 net.cpp:91] Creating Layer inception_5a/relu_5x5
I0403 21:45:00.420428 12694 net.cpp:425] inception_5a/relu_5x5 <- inception_5a/5x5
I0403 21:45:00.420445 12694 net.cpp:386] inception_5a/relu_5x5 -> inception_5a/5x5 (in-place)
I0403 21:45:00.420630 12694 net.cpp:141] Setting up inception_5a/relu_5x5
I0403 21:45:00.420657 12694 net.cpp:148] Top shape: 24 128 7 7 (150528)
I0403 21:45:00.420673 12694 net.cpp:156] Memory required for data: 1300555296
I0403 21:45:00.420688 12694 layer_factory.hpp:77] Creating layer inception_5a/pool
I0403 21:45:00.420706 12694 net.cpp:91] Creating Layer inception_5a/pool
I0403 21:45:00.420723 12694 net.cpp:425] inception_5a/pool <- pool4/3x3_s2_pool4/3x3_s2_0_split_3
I0403 21:45:00.420742 12694 net.cpp:399] inception_5a/pool -> inception_5a/pool
I0403 21:45:00.420811 12694 net.cpp:141] Setting up inception_5a/pool
I0403 21:45:00.420835 12694 net.cpp:148] Top shape: 24 832 7 7 (978432)
I0403 21:45:00.420850 12694 net.cpp:156] Memory required for data: 1304469024
I0403 21:45:00.420864 12694 layer_factory.hpp:77] Creating layer inception_5a/pool_proj
I0403 21:45:00.420886 12694 net.cpp:91] Creating Layer inception_5a/pool_proj
I0403 21:45:00.420902 12694 net.cpp:425] inception_5a/pool_proj <- inception_5a/pool
I0403 21:45:00.420923 12694 net.cpp:399] inception_5a/pool_proj -> inception_5a/pool_proj
I0403 21:45:00.423200 12694 net.cpp:141] Setting up inception_5a/pool_proj
I0403 21:45:00.423234 12694 net.cpp:148] Top shape: 24 128 7 7 (150528)
I0403 21:45:00.423250 12694 net.cpp:156] Memory required for data: 1305071136
I0403 21:45:00.423269 12694 layer_factory.hpp:77] Creating layer inception_5a/relu_pool_proj
I0403 21:45:00.423290 12694 net.cpp:91] Creating Layer inception_5a/relu_pool_proj
I0403 21:45:00.423305 12694 net.cpp:425] inception_5a/relu_pool_proj <- inception_5a/pool_proj
I0403 21:45:00.423323 12694 net.cpp:386] inception_5a/relu_pool_proj -> inception_5a/pool_proj (in-place)
I0403 21:45:00.423609 12694 net.cpp:141] Setting up inception_5a/relu_pool_proj
I0403 21:45:00.423634 12694 net.cpp:148] Top shape: 24 128 7 7 (150528)
I0403 21:45:00.423648 12694 net.cpp:156] Memory required for data: 1305673248
I0403 21:45:00.423665 12694 layer_factory.hpp:77] Creating layer inception_5a/output
I0403 21:45:00.423681 12694 net.cpp:91] Creating Layer inception_5a/output
I0403 21:45:00.423697 12694 net.cpp:425] inception_5a/output <- inception_5a/1x1
I0403 21:45:00.423714 12694 net.cpp:425] inception_5a/output <- inception_5a/3x3
I0403 21:45:00.423729 12694 net.cpp:425] inception_5a/output <- inception_5a/5x5
I0403 21:45:00.423745 12694 net.cpp:425] inception_5a/output <- inception_5a/pool_proj
I0403 21:45:00.423765 12694 net.cpp:399] inception_5a/output -> inception_5a/output
I0403 21:45:00.423815 12694 net.cpp:141] Setting up inception_5a/output
I0403 21:45:00.423840 12694 net.cpp:148] Top shape: 24 832 7 7 (978432)
I0403 21:45:00.423856 12694 net.cpp:156] Memory required for data: 1309586976
I0403 21:45:00.423871 12694 layer_factory.hpp:77] Creating layer inception_5a/output_inception_5a/output_0_split
I0403 21:45:00.423888 12694 net.cpp:91] Creating Layer inception_5a/output_inception_5a/output_0_split
I0403 21:45:00.423904 12694 net.cpp:425] inception_5a/output_inception_5a/output_0_split <- inception_5a/output
I0403 21:45:00.423924 12694 net.cpp:399] inception_5a/output_inception_5a/output_0_split -> inception_5a/output_inception_5a/output_0_split_0
I0403 21:45:00.423945 12694 net.cpp:399] inception_5a/output_inception_5a/output_0_split -> inception_5a/output_inception_5a/output_0_split_1
I0403 21:45:00.423965 12694 net.cpp:399] inception_5a/output_inception_5a/output_0_split -> inception_5a/output_inception_5a/output_0_split_2
I0403 21:45:00.423985 12694 net.cpp:399] inception_5a/output_inception_5a/output_0_split -> inception_5a/output_inception_5a/output_0_split_3
I0403 21:45:00.424093 12694 net.cpp:141] Setting up inception_5a/output_inception_5a/output_0_split
I0403 21:45:00.424119 12694 net.cpp:148] Top shape: 24 832 7 7 (978432)
I0403 21:45:00.424136 12694 net.cpp:148] Top shape: 24 832 7 7 (978432)
I0403 21:45:00.424152 12694 net.cpp:148] Top shape: 24 832 7 7 (978432)
I0403 21:45:00.424167 12694 net.cpp:148] Top shape: 24 832 7 7 (978432)
I0403 21:45:00.424181 12694 net.cpp:156] Memory required for data: 1325241888
I0403 21:45:00.424196 12694 layer_factory.hpp:77] Creating layer inception_5b/1x1
I0403 21:45:00.424221 12694 net.cpp:91] Creating Layer inception_5b/1x1
I0403 21:45:00.424238 12694 net.cpp:425] inception_5b/1x1 <- inception_5a/output_inception_5a/output_0_split_0
I0403 21:45:00.424260 12694 net.cpp:399] inception_5b/1x1 -> inception_5b/1x1
I0403 21:45:00.427973 12694 net.cpp:141] Setting up inception_5b/1x1
I0403 21:45:00.428001 12694 net.cpp:148] Top shape: 24 384 7 7 (451584)
I0403 21:45:00.428017 12694 net.cpp:156] Memory required for data: 1327048224
I0403 21:45:00.428035 12694 layer_factory.hpp:77] Creating layer inception_5b/relu_1x1
I0403 21:45:00.428053 12694 net.cpp:91] Creating Layer inception_5b/relu_1x1
I0403 21:45:00.428071 12694 net.cpp:425] inception_5b/relu_1x1 <- inception_5b/1x1
I0403 21:45:00.428091 12694 net.cpp:386] inception_5b/relu_1x1 -> inception_5b/1x1 (in-place)
I0403 21:45:00.428400 12694 net.cpp:141] Setting up inception_5b/relu_1x1
I0403 21:45:00.428426 12694 net.cpp:148] Top shape: 24 384 7 7 (451584)
I0403 21:45:00.428442 12694 net.cpp:156] Memory required for data: 1328854560
I0403 21:45:00.428457 12694 layer_factory.hpp:77] Creating layer inception_5b/3x3_reduce
I0403 21:45:00.428478 12694 net.cpp:91] Creating Layer inception_5b/3x3_reduce
I0403 21:45:00.428498 12694 net.cpp:425] inception_5b/3x3_reduce <- inception_5a/output_inception_5a/output_0_split_1
I0403 21:45:00.428519 12694 net.cpp:399] inception_5b/3x3_reduce -> inception_5b/3x3_reduce
I0403 21:45:00.431156 12694 net.cpp:141] Setting up inception_5b/3x3_reduce
I0403 21:45:00.431185 12694 net.cpp:148] Top shape: 24 192 7 7 (225792)
I0403 21:45:00.431200 12694 net.cpp:156] Memory required for data: 1329757728
I0403 21:45:00.431223 12694 layer_factory.hpp:77] Creating layer inception_5b/relu_3x3_reduce
I0403 21:45:00.431244 12694 net.cpp:91] Creating Layer inception_5b/relu_3x3_reduce
I0403 21:45:00.431262 12694 net.cpp:425] inception_5b/relu_3x3_reduce <- inception_5b/3x3_reduce
I0403 21:45:00.431278 12694 net.cpp:386] inception_5b/relu_3x3_reduce -> inception_5b/3x3_reduce (in-place)
I0403 21:45:00.431463 12694 net.cpp:141] Setting up inception_5b/relu_3x3_reduce
I0403 21:45:00.431488 12694 net.cpp:148] Top shape: 24 192 7 7 (225792)
I0403 21:45:00.431504 12694 net.cpp:156] Memory required for data: 1330660896
I0403 21:45:00.431519 12694 layer_factory.hpp:77] Creating layer inception_5b/3x3
I0403 21:45:00.431540 12694 net.cpp:91] Creating Layer inception_5b/3x3
I0403 21:45:00.431558 12694 net.cpp:425] inception_5b/3x3 <- inception_5b/3x3_reduce
I0403 21:45:00.431581 12694 net.cpp:399] inception_5b/3x3 -> inception_5b/3x3
I0403 21:45:00.438251 12694 net.cpp:141] Setting up inception_5b/3x3
I0403 21:45:00.438280 12694 net.cpp:148] Top shape: 24 384 7 7 (451584)
I0403 21:45:00.438295 12694 net.cpp:156] Memory required for data: 1332467232
I0403 21:45:00.438313 12694 layer_factory.hpp:77] Creating layer inception_5b/relu_3x3
I0403 21:45:00.438334 12694 net.cpp:91] Creating Layer inception_5b/relu_3x3
I0403 21:45:00.438351 12694 net.cpp:425] inception_5b/relu_3x3 <- inception_5b/3x3
I0403 21:45:00.438369 12694 net.cpp:386] inception_5b/relu_3x3 -> inception_5b/3x3 (in-place)
I0403 21:45:00.438663 12694 net.cpp:141] Setting up inception_5b/relu_3x3
I0403 21:45:00.438688 12694 net.cpp:148] Top shape: 24 384 7 7 (451584)
I0403 21:45:00.438702 12694 net.cpp:156] Memory required for data: 1334273568
I0403 21:45:00.438716 12694 layer_factory.hpp:77] Creating layer inception_5b/5x5_reduce
I0403 21:45:00.438755 12694 net.cpp:91] Creating Layer inception_5b/5x5_reduce
I0403 21:45:00.438774 12694 net.cpp:425] inception_5b/5x5_reduce <- inception_5a/output_inception_5a/output_0_split_2
I0403 21:45:00.438797 12694 net.cpp:399] inception_5b/5x5_reduce -> inception_5b/5x5_reduce
I0403 21:45:00.440052 12694 net.cpp:141] Setting up inception_5b/5x5_reduce
I0403 21:45:00.440081 12694 net.cpp:148] Top shape: 24 48 7 7 (56448)
I0403 21:45:00.440098 12694 net.cpp:156] Memory required for data: 1334499360
I0403 21:45:00.440115 12694 layer_factory.hpp:77] Creating layer inception_5b/relu_5x5_reduce
I0403 21:45:00.440132 12694 net.cpp:91] Creating Layer inception_5b/relu_5x5_reduce
I0403 21:45:00.440150 12694 net.cpp:425] inception_5b/relu_5x5_reduce <- inception_5b/5x5_reduce
I0403 21:45:00.440170 12694 net.cpp:386] inception_5b/relu_5x5_reduce -> inception_5b/5x5_reduce (in-place)
I0403 21:45:00.440543 12694 net.cpp:141] Setting up inception_5b/relu_5x5_reduce
I0403 21:45:00.440569 12694 net.cpp:148] Top shape: 24 48 7 7 (56448)
I0403 21:45:00.440587 12694 net.cpp:156] Memory required for data: 1334725152
I0403 21:45:00.440601 12694 layer_factory.hpp:77] Creating layer inception_5b/5x5
I0403 21:45:00.440621 12694 net.cpp:91] Creating Layer inception_5b/5x5
I0403 21:45:00.440639 12694 net.cpp:425] inception_5b/5x5 <- inception_5b/5x5_reduce
I0403 21:45:00.440659 12694 net.cpp:399] inception_5b/5x5 -> inception_5b/5x5
I0403 21:45:00.442695 12694 net.cpp:141] Setting up inception_5b/5x5
I0403 21:45:00.442723 12694 net.cpp:148] Top shape: 24 128 7 7 (150528)
I0403 21:45:00.442739 12694 net.cpp:156] Memory required for data: 1335327264
I0403 21:45:00.442757 12694 layer_factory.hpp:77] Creating layer inception_5b/relu_5x5
I0403 21:45:00.442777 12694 net.cpp:91] Creating Layer inception_5b/relu_5x5
I0403 21:45:00.442795 12694 net.cpp:425] inception_5b/relu_5x5 <- inception_5b/5x5
I0403 21:45:00.442811 12694 net.cpp:386] inception_5b/relu_5x5 -> inception_5b/5x5 (in-place)
I0403 21:45:00.443001 12694 net.cpp:141] Setting up inception_5b/relu_5x5
I0403 21:45:00.443027 12694 net.cpp:148] Top shape: 24 128 7 7 (150528)
I0403 21:45:00.443042 12694 net.cpp:156] Memory required for data: 1335929376
I0403 21:45:00.443058 12694 layer_factory.hpp:77] Creating layer inception_5b/pool
I0403 21:45:00.443074 12694 net.cpp:91] Creating Layer inception_5b/pool
I0403 21:45:00.443090 12694 net.cpp:425] inception_5b/pool <- inception_5a/output_inception_5a/output_0_split_3
I0403 21:45:00.443110 12694 net.cpp:399] inception_5b/pool -> inception_5b/pool
I0403 21:45:00.443182 12694 net.cpp:141] Setting up inception_5b/pool
I0403 21:45:00.443205 12694 net.cpp:148] Top shape: 24 832 7 7 (978432)
I0403 21:45:00.443225 12694 net.cpp:156] Memory required for data: 1339843104
I0403 21:45:00.443240 12694 layer_factory.hpp:77] Creating layer inception_5b/pool_proj
I0403 21:45:00.443261 12694 net.cpp:91] Creating Layer inception_5b/pool_proj
I0403 21:45:00.443279 12694 net.cpp:425] inception_5b/pool_proj <- inception_5b/pool
I0403 21:45:00.443300 12694 net.cpp:399] inception_5b/pool_proj -> inception_5b/pool_proj
I0403 21:45:00.445569 12694 net.cpp:141] Setting up inception_5b/pool_proj
I0403 21:45:00.445597 12694 net.cpp:148] Top shape: 24 128 7 7 (150528)
I0403 21:45:00.445613 12694 net.cpp:156] Memory required for data: 1340445216
I0403 21:45:00.445631 12694 layer_factory.hpp:77] Creating layer inception_5b/relu_pool_proj
I0403 21:45:00.445652 12694 net.cpp:91] Creating Layer inception_5b/relu_pool_proj
I0403 21:45:00.445669 12694 net.cpp:425] inception_5b/relu_pool_proj <- inception_5b/pool_proj
I0403 21:45:00.445686 12694 net.cpp:386] inception_5b/relu_pool_proj -> inception_5b/pool_proj (in-place)
I0403 21:45:00.445974 12694 net.cpp:141] Setting up inception_5b/relu_pool_proj
I0403 21:45:00.446001 12694 net.cpp:148] Top shape: 24 128 7 7 (150528)
I0403 21:45:00.446014 12694 net.cpp:156] Memory required for data: 1341047328
I0403 21:45:00.446028 12694 layer_factory.hpp:77] Creating layer inception_5b/output
I0403 21:45:00.446045 12694 net.cpp:91] Creating Layer inception_5b/output
I0403 21:45:00.446075 12694 net.cpp:425] inception_5b/output <- inception_5b/1x1
I0403 21:45:00.446094 12694 net.cpp:425] inception_5b/output <- inception_5b/3x3
I0403 21:45:00.446110 12694 net.cpp:425] inception_5b/output <- inception_5b/5x5
I0403 21:45:00.446126 12694 net.cpp:425] inception_5b/output <- inception_5b/pool_proj
I0403 21:45:00.446146 12694 net.cpp:399] inception_5b/output -> inception_5b/output
I0403 21:45:00.446197 12694 net.cpp:141] Setting up inception_5b/output
I0403 21:45:00.446225 12694 net.cpp:148] Top shape: 24 1024 7 7 (1204224)
I0403 21:45:00.446240 12694 net.cpp:156] Memory required for data: 1345864224
I0403 21:45:00.446255 12694 layer_factory.hpp:77] Creating layer pool5/7x7_s1
I0403 21:45:00.446274 12694 net.cpp:91] Creating Layer pool5/7x7_s1
I0403 21:45:00.446290 12694 net.cpp:425] pool5/7x7_s1 <- inception_5b/output
I0403 21:45:00.446310 12694 net.cpp:399] pool5/7x7_s1 -> pool5/7x7_s1
I0403 21:45:00.446521 12694 net.cpp:141] Setting up pool5/7x7_s1
I0403 21:45:00.446547 12694 net.cpp:148] Top shape: 24 1024 1 1 (24576)
I0403 21:45:00.446562 12694 net.cpp:156] Memory required for data: 1345962528
I0403 21:45:00.446576 12694 layer_factory.hpp:77] Creating layer pool5/drop_7x7_s1
I0403 21:45:00.446596 12694 net.cpp:91] Creating Layer pool5/drop_7x7_s1
I0403 21:45:00.446611 12694 net.cpp:425] pool5/drop_7x7_s1 <- pool5/7x7_s1
I0403 21:45:00.446630 12694 net.cpp:386] pool5/drop_7x7_s1 -> pool5/7x7_s1 (in-place)
I0403 21:45:00.446681 12694 net.cpp:141] Setting up pool5/drop_7x7_s1
I0403 21:45:00.446703 12694 net.cpp:148] Top shape: 24 1024 1 1 (24576)
I0403 21:45:00.446717 12694 net.cpp:156] Memory required for data: 1346060832
I0403 21:45:00.446732 12694 layer_factory.hpp:77] Creating layer loss3/classifier_plantvillage
I0403 21:45:00.446750 12694 net.cpp:91] Creating Layer loss3/classifier_plantvillage
I0403 21:45:00.446766 12694 net.cpp:425] loss3/classifier_plantvillage <- pool5/7x7_s1
I0403 21:45:00.446787 12694 net.cpp:399] loss3/classifier_plantvillage -> loss3/classifier_plantvillage
I0403 21:45:00.447216 12694 net.cpp:141] Setting up loss3/classifier_plantvillage
I0403 21:45:00.447240 12694 net.cpp:148] Top shape: 24 38 (912)
I0403 21:45:00.447254 12694 net.cpp:156] Memory required for data: 1346064480
I0403 21:45:00.447273 12694 layer_factory.hpp:77] Creating layer loss3/classifier_plantvillage_loss3/classifier_plantvillage_0_split
I0403 21:45:00.447289 12694 net.cpp:91] Creating Layer loss3/classifier_plantvillage_loss3/classifier_plantvillage_0_split
I0403 21:45:00.447305 12694 net.cpp:425] loss3/classifier_plantvillage_loss3/classifier_plantvillage_0_split <- loss3/classifier_plantvillage
I0403 21:45:00.447325 12694 net.cpp:399] loss3/classifier_plantvillage_loss3/classifier_plantvillage_0_split -> loss3/classifier_plantvillage_loss3/classifier_plantvillage_0_split_0
I0403 21:45:00.447346 12694 net.cpp:399] loss3/classifier_plantvillage_loss3/classifier_plantvillage_0_split -> loss3/classifier_plantvillage_loss3/classifier_plantvillage_0_split_1
I0403 21:45:00.447366 12694 net.cpp:399] loss3/classifier_plantvillage_loss3/classifier_plantvillage_0_split -> loss3/classifier_plantvillage_loss3/classifier_plantvillage_0_split_2
I0403 21:45:00.447386 12694 net.cpp:399] loss3/classifier_plantvillage_loss3/classifier_plantvillage_0_split -> loss3/classifier_plantvillage_loss3/classifier_plantvillage_0_split_3
I0403 21:45:00.447485 12694 net.cpp:141] Setting up loss3/classifier_plantvillage_loss3/classifier_plantvillage_0_split
I0403 21:45:00.447507 12694 net.cpp:148] Top shape: 24 38 (912)
I0403 21:45:00.447523 12694 net.cpp:148] Top shape: 24 38 (912)
I0403 21:45:00.447538 12694 net.cpp:148] Top shape: 24 38 (912)
I0403 21:45:00.447554 12694 net.cpp:148] Top shape: 24 38 (912)
I0403 21:45:00.447567 12694 net.cpp:156] Memory required for data: 1346079072
I0403 21:45:00.447582 12694 layer_factory.hpp:77] Creating layer loss1/loss
I0403 21:45:00.447603 12694 net.cpp:91] Creating Layer loss1/loss
I0403 21:45:00.447619 12694 net.cpp:425] loss1/loss <- loss1/classifier_plantvillage_loss1/classifier_plantvillage_0_split_0
I0403 21:45:00.447650 12694 net.cpp:425] loss1/loss <- label_data_1_split_0
…
