…
I0403 21:46:25.402647 12771 net.cpp:313] The NetState phase (1) differed from the phase (0) specified by a rule in layer data
I0403 21:46:25.403812 12771 net.cpp:49] Initializing net from parameters: 
state {
  phase: TEST
}
layer {
  name: "data"
  type: "Data"
  top: "data"
  top: "label"
  include {
    phase: TEST
  }
  transform_param {
    mirror: false
    crop_size: 224
    mean_file: "/home/mohanty/data/final_dataset/lmdb/color-80-20/mean.binaryproto"
  }
  data_param {
    source: "/home/mohanty/data/final_dataset/lmdb/color-80-20/test_db"
    batch_size: 24
    backend: LMDB
  }
}
layer {
  name: "conv1/7x7_s2"
  type: "Convolution"
  bottom: "data"
  top: "conv1/7x7_s2"
  param {
    lr_mult: 1
    decay_mult: 1
  }
  param {
    lr_mult: 2
    decay_mult: 0
  }
  convolution_param {
    num_output: 64
    pad: 3
    kernel_size: 7
    stride: 2
    weight_filler {
      type: "xavier"
      std: 0.1
    }
    bias_filler {
      type: "constant"
      value: 0.2
    }
  }
}
layer {
  name: "conv1/relu_7x7"
  type: "ReLU"
  bottom: "conv1/7x7_s2"
  top: "conv1/7x7_s2"
}
layer {
  name: "pool1/3x3_s2"
  type: "Pooling"
  bottom: "conv1/7x7_s2"
  top: "pool1/3x3_s2"
  pooling_param {
    pool: MAX
    kernel_size: 3
    stride: 2
  }
}
layer {
  name: "pool1/norm1"
  type: "LRN"
  bottom: "pool1/3x3_s2"
  top: "pool1/norm1"
  lrn_param {
    local_size: 5
    alpha: 0.0001
    beta: 0.75
  }
}
layer {
  name: "conv2/3x3_reduce"
  type: "Convolution"
  bottom: "pool1/norm1"
  top: "conv2/3x3_reduce"
  param {
    lr_mult: 1
    decay_mult: 1
  }
  param {
    lr_mult: 2
    decay_mult: 0
  }
  convolution_param {
    num_output: 64
    kernel_size: 1
    weight_filler {
      type: "xavier"
      std: 0.1
    }
    bias_filler {
      type: "constant"
      value: 0.2
    }
  }
}
layer {
  name: "conv2/relu_3x3_reduce"
  type: "ReLU"
  bottom: "conv2/3x3_reduce"
  top: "conv2/3x3_reduce"
}
layer {
  name: "conv2/3x3"
  type: "Convolution"
  bottom: "conv2/3x3_reduce"
  top: "conv2/3x3"
  param {
    lr_mult: 1
    decay_mult: 1
  }
  param {
    lr_mult: 2
    decay_mult: 0
  }
  convolution_param {
    num_output: 192
    pad: 1
    kernel_size: 3
    weight_filler {
      type: "xavier"
      std: 0.03
    }
    bias_filler {
      type: "constant"
      value: 0.2
    }
  }
}
layer {
  name: "conv2/relu_3x3"
  type: "ReLU"
  bottom: "conv2/3x3"
  top: "conv2/3x3"
}
layer {
  name: "conv2/norm2"
  type: "LRN"
  bottom: "conv2/3x3"
  top: "conv2/norm2"
  lrn_param {
    local_size: 5
    alpha: 0.0001
    beta: 0.75
  }
}
layer {
  name: "pool2/3x3_s2"
  type: "Pooling"
  bottom: "conv2/norm2"
  top: "pool2/3x3_s2"
  pooling_param {
    pool: MAX
    kernel_size: 3
    stride: 2
  }
}
layer {
  name: "inception_3a/1x1"
  type: "Convolution"
  bottom: "pool2/3x3_s2"
  top: "inception_3a/1x1"
  param {
    lr_mult: 1
    decay_mult: 1
  }
  param {
    lr_mult: 2
    decay_mult: 0
  }
  convolution_param {
    num_output: 64
    kernel_size: 1
    weight_filler {
      type: "xavier"
      std: 0.03
    }
    bias_filler {
      type: "constant"
      value: 0.2
    }
  }
}
layer {
  name: "inception_3a/relu_1x1"
  type: "ReLU"
  bottom: "inception_3a/1x1"
  top: "inception_3a/1x1"
}
layer {
  name: "inception_3a/3x3_reduce"
  type: "Convolution"
  bottom: "pool2/3x3_s2"
  top: "inception_3a/3x3_reduce"
  param {
    lr_mult: 1
    decay_mult: 1
  }
  param {
    lr_mult: 2
    decay_mult: 0
  }
  convolution_param {
    num_output: 96
    kernel_size: 1
    weight_filler {
      type: "xavier"
      std: 0.09
    }
    bias_filler {
      type: "constant"
      value: 0.2
    }
  }
}
layer {
  name: "inception_3a/relu_3x3_reduce"
  type: "ReLU"
  bottom: "inception_3a/3x3_reduce"
  top: "inception_3a/3x3_reduce"
}
layer {
  name: "inception_3a/3x3"
  type: "Convolution"
  bottom: "inception_3a/3x3_reduce"
  top: "inception_3a/3x3"
  param {
    lr_mult: 1
    decay_mult: 1
  }
  param {
    lr_mult: 2
    decay_mult: 0
  }
  convolution_param {
    num_output: 128
    pad: 1
    kernel_size: 3
    weight_filler {
      type: "xavier"
      std: 0.03
    }
    bias_filler {
      type: "constant"
      value: 0.2
    }
  }
}
layer {
  name: "inception_3a/relu_3x3"
  type: "ReLU"
  bottom: "inception_3a/3x3"
  top: "inception_3a/3x3"
}
layer {
  name: "inception_3a/5x5_reduce"
  type: "Convolution"
  bottom: "pool2/3x3_s2"
  top: "inception_3a/5x5_reduce"
  param {
    lr_mult: 1
    decay_mult: 1
  }
  param {
    lr_mult: 2
    decay_mult: 0
  }
  convolution_param {
    num_output: 16
    kernel_size: 1
    weight_filler {
      type: "xavier"
      std: 0.2
    }
    bias_filler {
      type: "constant"
      value: 0.2
    }
  }
}
layer {
  name: "inception_3a/relu_5x5_reduce"
  type: "ReLU"
  bottom: "inception_3a/5x5_reduce"
  top: "inception_3a/5x5_reduce"
}
layer {
  name: "inception_3a/5x5"
  type: "Convolution"
  bottom: "inception_3a/5x5_reduce"
  top: "inception_3a/5x5"
  param {
    lr_mult: 1
    decay_mult: 1
  }
  param {
    lr_mult: 2
    decay_mult: 0
  }
  convolution_param {
    num_output: 32
    pad: 2
    kernel_size: 5
    weight_filler {
      type: "xavier"
      std: 0.03
    }
    bias_filler {
      type: "constant"
      value: 0.2
    }
  }
}
layer {
  name: "inception_3a/relu_5x5"
  type: "ReLU"
  bottom: "inception_3a/5x5"
  top: "inception_3a/5x5"
}
layer {
  name: "inception_3a/pool"
  type: "Pooling"
  bottom: "pool2/3x3_s2"
  top: "inception_3a/pool"
  pooling_param {
    pool: MAX
    kernel_size: 3
    stride: 1
    pad: 1
  }
}
layer {
  name: "inception_3a/pool_proj"
  type: "Convolution"
  bottom: "inception_3a/pool"
  top: "inception_3a/pool_proj"
  param {
    lr_mult: 1
    decay_mult: 1
  }
  param {
    lr_mult: 2
    decay_mult: 0
  }
  convolution_param {
    num_output: 32
    kernel_size: 1
    weight_filler {
      type: "xavier"
      std: 0.1
    }
    bias_filler {
      type: "constant"
      value: 0.2
    }
  }
}
layer {
  name: "inception_3a/relu_pool_proj"
  type: "ReLU"
  bottom: "inception_3a/pool_proj"
  top: "inception_3a/pool_proj"
}
layer {
  name: "inception_3a/output"
  type: "Concat"
  bottom: "inception_3a/1x1"
  bottom: "inception_3a/3x3"
  bottom: "inception_3a/5x5"
  bottom: "inception_3a/pool_proj"
  top: "inception_3a/output"
}
layer {
  name: "inception_3b/1x1"
  type: "Convolution"
  bottom: "inception_3a/output"
  top: "inception_3b/1x1"
  param {
    lr_mult: 1
    decay_mult: 1
  }
  param {
    lr_mult: 2
    decay_mult: 0
  }
  convolution_param {
    num_output: 128
    kernel_size: 1
    weight_filler {
      type: "xavier"
      std: 0.03
    }
    bias_filler {
      type: "constant"
      value: 0.2
    }
  }
}
layer {
  name: "inception_3b/relu_1x1"
  type: "ReLU"
  bottom: "inception_3b/1x1"
  top: "inception_3b/1x1"
}
layer {
  name: "inception_3b/3x3_reduce"
  type: "Convolution"
  bottom: "inception_3a/output"
  top: "inception_3b/3x3_reduce"
  param {
    lr_mult: 1
    decay_mult: 1
  }
  param {
    lr_mult: 2
    decay_mult: 0
  }
  convolution_param {
    num_output: 128
    kernel_size: 1
    weight_filler {
      type: "xavier"
      std: 0.09
    }
    bias_filler {
      type: "constant"
      value: 0.2
    }
  }
}
layer {
  name: "inception_3b/relu_3x3_reduce"
  type: "ReLU"
  bottom: "inception_3b/3x3_reduce"
  top: "inception_3b/3x3_reduce"
}
layer {
  name: "inception_3b/3x3"
  type: "Convolution"
  bottom: "inception_3b/3x3_reduce"
  top: "inception_3b/3x3"
  param {
    lr_mult: 1
    decay_mult: 1
  }
  param {
    lr_mult: 2
    decay_mult: 0
  }
  convolution_param {
    num_output: 192
    pad: 1
    kernel_size: 3
    weight_filler {
      type: "xavier"
      std: 0.03
    }
    bias_filler {
      type: "constant"
      value: 0.2
    }
  }
}
layer {
  name: "inception_3b/relu_3x3"
  type: "ReLU"
  bottom: "inception_3b/3x3"
  top: "inception_3b/3x3"
}
layer {
  name: "inception_3b/5x5_reduce"
  type: "Convolution"
  bottom: "inception_3a/output"
  top: "inception_3b/5x5_reduce"
  param {
    lr_mult: 1
    decay_mult: 1
  }
  param {
    lr_mult: 2
    decay_mult: 0
  }
  convolution_param {
    num_output: 32
    kernel_size: 1
    weight_filler {
      type: "xavier"
      std: 0.2
    }
    bias_filler {
      type: "constant"
      value: 0.2
    }
  }
}
layer {
  name: "inception_3b/relu_5x5_reduce"
  type: "ReLU"
  bottom: "inception_3b/5x5_reduce"
  top: "inception_3b/5x5_reduce"
}
layer {
  name: "inception_3b/5x5"
  type: "Convolution"
  bottom: "inception_3b/5x5_reduce"
  top: "inception_3b/5x5"
  param {
    lr_mult: 1
    decay_mult: 1
  }
  param {
    lr_mult: 2
    decay_mult: 0
  }
  convolution_param {
    num_output: 96
    pad: 2
    kernel_size: 5
    weight_filler {
      type: "xavier"
      std: 0.03
    }
    bias_filler {
      type: "constant"
      value: 0.2
    }
  }
}
layer {
  name: "inception_3b/relu_5x5"
  type: "ReLU"
  bottom: "inception_3b/5x5"
  top: "inception_3b/5x5"
}
layer {
  name: "inception_3b/pool"
  type: "Pooling"
  bottom: "inception_3a/output"
  top: "inception_3b/pool"
  pooling_param {
    pool: MAX
    kernel_size: 3
    stride: 1
    pad: 1
  }
}
layer {
  name: "inception_3b/pool_proj"
  type: "Convolution"
  bottom: "inception_3b/pool"
  top: "inception_3b/pool_proj"
  param {
    lr_mult: 1
    decay_mult: 1
  }
  param {
    lr_mult: 2
    decay_mult: 0
  }
  convolution_param {
    num_output: 64
    kernel_size: 1
    weight_filler {
      type: "xavier"
      std: 0.1
    }
    bias_filler {
      type: "constant"
      value: 0.2
    }
  }
}
layer {
  name: "inception_3b/relu_pool_proj"
  type: "ReLU"
  bottom: "inception_3b/pool_proj"
  top: "inception_3b/pool_proj"
}
layer {
  name: "inception_3b/output"
  type: "Concat"
  bottom: "inception_3b/1x1"
  bottom: "inception_3b/3x3"
  bottom: "inception_3b/5x5"
  bottom: "inception_3b/pool_proj"
  top: "inception_3b/output"
}
layer {
  name: "pool3/3x3_s2"
  type: "Pooling"
  bottom: "inception_3b/output"
  top: "pool3/3x3_s2"
  pooling_param {
    pool: MAX
    kernel_size: 3
    stride: 2
  }
}
layer {
  name: "inception_4a/1x1"
  type: "Convolution"
  bottom: "pool3/3x3_s2"
  top: "inception_4a/1x1"
  param {
    lr_mult: 1
    decay_mult: 1
  }
  param {
    lr_mult: 2
    decay_mult: 0
  }
  convolution_param {
    num_output: 192
    kernel_size: 1
    weight_filler {
      type: "xavier"
      std: 0.03
    }
    bias_filler {
      type: "constant"
      value: 0.2
    }
  }
}
layer {
  name: "inception_4a/relu_1x1"
  type: "ReLU"
  bottom: "inception_4a/1x1"
  top: "inception_4a/1x1"
}
layer {
  name: "inception_4a/3x3_reduce"
  type: "Convolution"
  bottom: "pool3/3x3_s2"
  top: "inception_4a/3x3_reduce"
  param {
    lr_mult: 1
    decay_mult: 1
  }
  param {
    lr_mult: 2
    decay_mult: 0
  }
  convolution_param {
    num_output: 96
    kernel_size: 1
    weight_filler {
      type: "xavier"
      std: 0.09
    }
    bias_filler {
      type: "constant"
      value: 0.2
    }
  }
}
layer {
  name: "inception_4a/relu_3x3_reduce"
  type: "ReLU"
  bottom: "inception_4a/3x3_reduce"
  top: "inception_4a/3x3_reduce"
}
layer {
  name: "inception_4a/3x3"
  type: "Convolution"
  bottom: "inception_4a/3x3_reduce"
  top: "inception_4a/3x3"
  param {
    lr_mult: 1
    decay_mult: 1
  }
  param {
    lr_mult: 2
    decay_mult: 0
  }
  convolution_param {
    num_output: 208
    pad: 1
    kernel_size: 3
    weight_filler {
      type: "xavier"
      std: 0.03
    }
    bias_filler {
      type: "constant"
      value: 0.2
    }
  }
}
layer {
  name: "inception_4a/relu_3x3"
  type: "ReLU"
  bottom: "inception_4a/3x3"
  top: "inception_4a/3x3"
}
layer {
  name: "inception_4a/5x5_reduce"
  type: "Convolution"
  bottom: "pool3/3x3_s2"
  top: "inception_4a/5x5_reduce"
  param {
    lr_mult: 1
    decay_mult: 1
  }
  param {
    lr_mult: 2
    decay_mult: 0
  }
  convolution_param {
    num_output: 16
    kernel_size: 1
    weight_filler {
      type: "xavier"
      std: 0.2
    }
    bias_filler {
      type: "constant"
      value: 0.2
    }
  }
}
layer {
  name: "inception_4a/relu_5x5_reduce"
  type: "ReLU"
  bottom: "inception_4a/5x5_reduce"
  top: "inception_4a/5x5_reduce"
}
layer {
  name: "inception_4a/5x5"
  type: "Convolution"
  bottom: "inception_4a/5x5_reduce"
  top: "inception_4a/5x5"
  param {
    lr_mult: 1
    decay_mult: 1
  }
  param {
    lr_mult: 2
    decay_mult: 0
  }
  convolution_param {
    num_output: 48
    pad: 2
    kernel_size: 5
    weight_filler {
      type: "xavier"
      std: 0.03
    }
    bias_filler {
      type: "constant"
      value: 0.2
    }
  }
}
layer {
  name: "inception_4a/relu_5x5"
  type: "ReLU"
  bottom: "inception_4a/5x5"
  top: "inception_4a/5x5"
}
layer {
  name: "inception_4a/pool"
  type: "Pooling"
  bottom: "pool3/3x3_s2"
  top: "inception_4a/pool"
  pooling_param {
    pool: MAX
    kernel_size: 3
    stride: 1
    pad: 1
  }
}
layer {
  name: "inception_4a/pool_proj"
  type: "Convolution"
  bottom: "inception_4a/pool"
  top: "inception_4a/pool_proj"
  param {
    lr_mult: 1
    decay_mult: 1
  }
  param {
    lr_mult: 2
    decay_mult: 0
  }
  convolution_param {
    num_output: 64
    kernel_size: 1
    weight_filler {
      type: "xavier"
      std: 0.1
    }
    bias_filler {
      type: "constant"
      value: 0.2
    }
  }
}
layer {
  name: "inception_4a/relu_pool_proj"
  type: "ReLU"
  bottom: "inception_4a/pool_proj"
  top: "inception_4a/pool_proj"
}
layer {
  name: "inception_4a/output"
  type: "Concat"
  bottom: "inception_4a/1x1"
  bottom: "inception_4a/3x3"
  bottom: "inception_4a/5x5"
  bottom: "inception_4a/pool_proj"
  top: "inception_4a/output"
}
layer {
  name: "loss1/ave_pool"
  type: "Pooling"
  bottom: "inception_4a/output"
  top: "loss1/ave_pool"
  pooling_param {
    pool: AVE
    kernel_size: 5
    stride: 3
  }
}
layer {
  name: "loss1/conv"
  type: "Convolution"
  bottom: "loss1/ave_pool"
  top: "loss1/conv"
  param {
    lr_mult: 1
    decay_mult: 1
  }
  param {
    lr_mult: 2
    decay_mult: 0
  }
  convolution_param {
    num_output: 128
    kernel_size: 1
    weight_filler {
      type: "xavier"
      std: 0.08
    }
    bias_filler {
      type: "constant"
      value: 0.2
    }
  }
}
layer {
  name: "loss1/relu_conv"
  type: "ReLU"
  bottom: "loss1/conv"
  top: "loss1/conv"
}
layer {
  name: "loss1/fc"
  type: "InnerProduct"
  bottom: "loss1/conv"
  top: "loss1/fc"
  param {
    lr_mult: 1
    decay_mult: 1
  }
  param {
    lr_mult: 2
    decay_mult: 0
  }
  inner_product_param {
    num_output: 1024
    weight_filler {
      type: "xavier"
      std: 0.02
    }
    bias_filler {
      type: "constant"
      value: 0.2
    }
  }
}
layer {
  name: "loss1/relu_fc"
  type: "ReLU"
  bottom: "loss1/fc"
  top: "loss1/fc"
}
layer {
  name: "loss1/drop_fc"
  type: "Dropout"
  bottom: "loss1/fc"
  top: "loss1/fc"
  dropout_param {
    dropout_ratio: 0.7
  }
}
layer {
  name: "loss1/classifier_plantvillage"
  type: "InnerProduct"
  bottom: "loss1/fc"
  top: "loss1/classifier_plantvillage"
  param {
    lr_mult: 1
    decay_mult: 1
  }
  param {
    lr_mult: 2
    decay_mult: 0
  }
  inner_product_param {
    num_output: 38
    weight_filler {
      type: "xavier"
      std: 0.0009765625
    }
    bias_filler {
      type: "constant"
      value: 0
    }
  }
}
layer {
  name: "inception_4b/1x1"
  type: "Convolution"
  bottom: "inception_4a/output"
  top: "inception_4b/1x1"
  param {
    lr_mult: 1
    decay_mult: 1
  }
  param {
    lr_mult: 2
    decay_mult: 0
  }
  convolution_param {
    num_output: 160
    kernel_size: 1
    weight_filler {
      type: "xavier"
      std: 0.03
    }
    bias_filler {
      type: "constant"
      value: 0.2
    }
  }
}
layer {
  name: "inception_4b/relu_1x1"
  type: "ReLU"
  bottom: "inception_4b/1x1"
  top: "inception_4b/1x1"
}
layer {
  name: "inception_4b/3x3_reduce"
  type: "Convolution"
  bottom: "inception_4a/output"
  top: "inception_4b/3x3_reduce"
  param {
    lr_mult: 1
    decay_mult: 1
  }
  param {
    lr_mult: 2
    decay_mult: 0
  }
  convolution_param {
    num_output: 112
    kernel_size: 1
    weight_filler {
      type: "xavier"
      std: 0.09
    }
    bias_filler {
      type: "constant"
      value: 0.2
    }
  }
}
layer {
  name: "inception_4b/relu_3x3_reduce"
  type: "ReLU"
  bottom: "inception_4b/3x3_reduce"
  top: "inception_4b/3x3_reduce"
}
layer {
  name: "inception_4b/3x3"
  type: "Convolution"
  bottom: "inception_4b/3x3_reduce"
  top: "inception_4b/3x3"
  param {
    lr_mult: 1
    decay_mult: 1
  }
  param {
    lr_mult: 2
    decay_mult: 0
  }
  convolution_param {
    num_output: 224
    pad: 1
    kernel_size: 3
    weight_filler {
      type: "xavier"
      std: 0.03
    }
    bias_filler {
      type: "constant"
      value: 0.2
    }
  }
}
layer {
  name: "inception_4b/relu_3x3"
  type: "ReLU"
  bottom: "inception_4b/3x3"
  top: "inception_4b/3x3"
}
layer {
  name: "inception_4b/5x5_reduce"
  type: "Convolution"
  bottom: "inception_4a/output"
  top: "inception_4b/5x5_reduce"
  param {
    lr_mult: 1
    decay_mult: 1
  }
  param {
    lr_mult: 2
    decay_mult: 0
  }
  convolution_param {
    num_output: 24
    kernel_size: 1
    weight_filler {
      type: "xavier"
      std: 0.2
    }
    bias_filler {
      type: "constant"
      value: 0.2
    }
  }
}
layer {
  name: "inception_4b/relu_5x5_reduce"
  type: "ReLU"
  bottom: "inception_4b/5x5_reduce"
  top: "inception_4b/5x5_reduce"
}
layer {
  name: "inception_4b/5x5"
  type: "Convolution"
  bottom: "inception_4b/5x5_reduce"
  top: "inception_4b/5x5"
  param {
    lr_mult: 1
    decay_mult: 1
  }
  param {
    lr_mult: 2
    decay_mult: 0
  }
  convolution_param {
    num_output: 64
    pad: 2
    kernel_size: 5
    weight_filler {
      type: "xavier"
      std: 0.03
    }
    bias_filler {
      type: "constant"
      value: 0.2
    }
  }
}
layer {
  name: "inception_4b/relu_5x5"
  type: "ReLU"
  bottom: "inception_4b/5x5"
  top: "inception_4b/5x5"
}
layer {
  name: "inception_4b/pool"
  type: "Pooling"
  bottom: "inception_4a/output"
  top: "inception_4b/pool"
  pooling_param {
    pool: MAX
    kernel_size: 3
    stride: 1
    pad: 1
  }
}
layer {
  name: "inception_4b/pool_proj"
  type: "Convolution"
  bottom: "inception_4b/pool"
  top: "inception_4b/pool_proj"
  param {
    lr_mult: 1
    decay_mult: 1
  }
  param {
    lr_mult: 2
    decay_mult: 0
  }
  convolution_param {
    num_output: 64
    kernel_size: 1
    weight_filler {
      type: "xavier"
      std: 0.1
    }
    bias_filler {
      type: "constant"
      value: 0.2
    }
  }
}
layer {
  name: "inception_4b/relu_pool_proj"
  type: "ReLU"
  bottom: "inception_4b/pool_proj"
  top: "inception_4b/pool_proj"
}
layer {
  name: "inception_4b/output"
  type: "Concat"
  bottom: "inception_4b/1x1"
  bottom: "inception_4b/3x3"
  bottom: "inception_4b/5x5"
  bottom: "inception_4b/pool_proj"
  top: "inception_4b/output"
}
layer {
  name: "inception_4c/1x1"
  type: "Convolution"
  bottom: "inception_4b/output"
  top: "inception_4c/1x1"
  param {
    lr_mult: 1
    decay_mult: 1
  }
  param {
    lr_mult: 2
    decay_mult: 0
  }
  convolution_param {
    num_output: 128
    kernel_size: 1
    weight_filler {
      type: "xavier"
      std: 0.03
    }
    bias_filler {
      type: "constant"
      value: 0.2
    }
  }
}
layer {
  name: "inception_4c/relu_1x1"
  type: "ReLU"
  bottom: "inception_4c/1x1"
  top: "inception_4c/1x1"
}
layer {
  name: "inception_4c/3x3_reduce"
  type: "Convolution"
  bottom: "inception_4b/output"
  top: "inception_4c/3x3_reduce"
  param {
    lr_mult: 1
    decay_mult: 1
  }
  param {
    lr_mult: 2
    decay_mult: 0
  }
  convolution_param {
    num_output: 128
    kernel_size: 1
    weight_filler {
      type: "xavier"
      std: 0.09
    }
    bias_filler {
      type: "constant"
      value: 0.2
    }
  }
}
layer {
  name: "inception_4c/relu_3x3_reduce"
  type: "ReLU"
  bottom: "inception_4c/3x3_reduce"
  top: "inception_4c/3x3_reduce"
}
layer {
  name: "inception_4c/3x3"
  type: "Convolution"
  bottom: "inception_4c/3x3_reduce"
  top: "inception_4c/3x3"
  param {
    lr_mult: 1
    decay_mult: 1
  }
  param {
    lr_mult: 2
    decay_mult: 0
  }
  convolution_param {
    num_output: 256
    pad: 1
    kernel_size: 3
    weight_filler {
      type: "xavier"
      std: 0.03
    }
    bias_filler {
      type: "constant"
      value: 0.2
    }
  }
}
layer {
  name: "inception_4c/relu_3x3"
  type: "ReLU"
  bottom: "inception_4c/3x3"
  top: "inception_4c/3x3"
}
layer {
  name: "inception_4c/5x5_reduce"
  type: "Convolution"
  bottom: "inception_4b/output"
  top: "inception_4c/5x5_reduce"
  param {
    lr_mult: 1
    decay_mult: 1
  }
  param {
    lr_mult: 2
    decay_mult: 0
  }
  convolution_param {
    num_output: 24
    kernel_size: 1
    weight_filler {
      type: "xavier"
      std: 0.2
    }
    bias_filler {
      type: "constant"
      value: 0.2
    }
  }
}
layer {
  name: "inception_4c/relu_5x5_reduce"
  type: "ReLU"
  bottom: "inception_4c/5x5_reduce"
  top: "inception_4c/5x5_reduce"
}
layer {
  name: "inception_4c/5x5"
  type: "Convolution"
  bottom: "inception_4c/5x5_reduce"
  top: "inception_4c/5x5"
  param {
    lr_mult: 1
    decay_mult: 1
  }
  param {
    lr_mult: 2
    decay_mult: 0
  }
  convolution_param {
    num_output: 64
    pad: 2
    kernel_size: 5
    weight_filler {
      type: "xavier"
      std: 0.03
    }
    bias_filler {
      type: "constant"
      value: 0.2
    }
  }
}
layer {
  name: "inception_4c/relu_5x5"
  type: "ReLU"
  bottom: "inception_4c/5x5"
  top: "inception_4c/5x5"
}
layer {
  name: "inception_4c/pool"
  type: "Pooling"
  bottom: "inception_4b/output"
  top: "inception_4c/pool"
  pooling_param {
    pool: MAX
    kernel_size: 3
    stride: 1
    pad: 1
  }
}
layer {
  name: "inception_4c/pool_proj"
  type: "Convolution"
  bottom: "inception_4c/pool"
  top: "inception_4c/pool_proj"
  param {
    lr_mult: 1
    decay_mult: 1
  }
  param {
    lr_mult: 2
    decay_mult: 0
  }
  convolution_param {
    num_output: 64
    kernel_size: 1
    weight_filler {
      type: "xavier"
      std: 0.1
    }
    bias_filler {
      type: "constant"
      value: 0.2
    }
  }
}
layer {
  name: "inception_4c/relu_pool_proj"
  type: "ReLU"
  bottom: "inception_4c/pool_proj"
  top: "inception_4c/pool_proj"
}
layer {
  name: "inception_4c/output"
  type: "Concat"
  bottom: "inception_4c/1x1"
  bottom: "inception_4c/3x3"
  bottom: "inception_4c/5x5"
  bottom: "inception_4c/pool_proj"
  top: "inception_4c/output"
}
layer {
  name: "inception_4d/1x1"
  type: "Convolution"
  bottom: "inception_4c/output"
  top: "inception_4d/1x1"
  param {
    lr_mult: 1
    decay_mult: 1
  }
  param {
    lr_mult: 2
    decay_mult: 0
  }
  convolution_param {
    num_output: 112
    kernel_size: 1
    weight_filler {
      type: "xavier"
      std: 0.03
    }
    bias_filler {
      type: "constant"
      value: 0.2
    }
  }
}
layer {
  name: "inception_4d/relu_1x1"
  type: "ReLU"
  bottom: "inception_4d/1x1"
  top: "inception_4d/1x1"
}
layer {
  name: "inception_4d/3x3_reduce"
  type: "Convolution"
  bottom: "inception_4c/output"
  top: "inception_4d/3x3_reduce"
  param {
    lr_mult: 1
    decay_mult: 1
  }
  param {
    lr_mult: 2
    decay_mult: 0
  }
  convolution_param {
    num_output: 144
    kernel_size: 1
    weight_filler {
      type: "xavier"
      std: 0.09
    }
    bias_filler {
      type: "constant"
      value: 0.2
    }
  }
}
layer {
  name: "inception_4d/relu_3x3_reduce"
  type: "ReLU"
  bottom: "inception_4d/3x3_reduce"
  top: "inception_4d/3x3_reduce"
}
layer {
  name: "inception_4d/3x3"
  type: "Convolution"
  bottom: "inception_4d/3x3_reduce"
  top: "inception_4d/3x3"
  param {
    lr_mult: 1
    decay_mult: 1
  }
  param {
    lr_mult: 2
    decay_mult: 0
  }
  convolution_param {
    num_output: 288
    pad: 1
    kernel_size: 3
    weight_filler {
      type: "xavier"
      std: 0.03
    }
    bias_filler {
      type: "constant"
      value: 0.2
    }
  }
}
layer {
  name: "inception_4d/relu_3x3"
  type: "ReLU"
  bottom: "inception_4d/3x3"
  top: "inception_4d/3x3"
}
layer {
  name: "inception_4d/5x5_reduce"
  type: "Convolution"
  bottom: "inception_4c/output"
  top: "inception_4d/5x5_reduce"
  param {
    lr_mult: 1
    decay_mult: 1
  }
  param {
    lr_mult: 2
    decay_mult: 0
  }
  convolution_param {
    num_output: 32
    kernel_size: 1
    weight_filler {
      type: "xavier"
      std: 0.2
    }
    bias_filler {
      type: "constant"
      value: 0.2
    }
  }
}
layer {
  name: "inception_4d/relu_5x5_reduce"
  type: "ReLU"
  bottom: "inception_4d/5x5_reduce"
  top: "inception_4d/5x5_reduce"
}
layer {
  name: "inception_4d/5x5"
  type: "Convolution"
  bottom: "inception_4d/5x5_reduce"
  top: "inception_4d/5x5"
  param {
    lr_mult: 1
    decay_mult: 1
  }
  param {
    lr_mult: 2
    decay_mult: 0
  }
  convolution_param {
    num_output: 64
    pad: 2
    kernel_size: 5
    weight_filler {
      type: "xavier"
      std: 0.03
    }
    bias_filler {
      type: "constant"
      value: 0.2
    }
  }
}
layer {
  name: "inception_4d/relu_5x5"
  type: "ReLU"
  bottom: "inception_4d/5x5"
  top: "inception_4d/5x5"
}
layer {
  name: "inception_4d/pool"
  type: "Pooling"
  bottom: "inception_4c/output"
  top: "inception_4d/pool"
  pooling_param {
    pool: MAX
    kernel_size: 3
    stride: 1
    pad: 1
  }
}
layer {
  name: "inception_4d/pool_proj"
  type: "Convolution"
  bottom: "inception_4d/pool"
  top: "inception_4d/pool_proj"
  param {
    lr_mult: 1
    decay_mult: 1
  }
  param {
    lr_mult: 2
    decay_mult: 0
  }
  convolution_param {
    num_output: 64
    kernel_size: 1
    weight_filler {
      type: "xavier"
      std: 0.1
    }
    bias_filler {
      type: "constant"
      value: 0.2
    }
  }
}
layer {
  name: "inception_4d/relu_pool_proj"
  type: "ReLU"
  bottom: "inception_4d/pool_proj"
  top: "inception_4d/pool_proj"
}
layer {
  name: "inception_4d/output"
  type: "Concat"
  bottom: "inception_4d/1x1"
  bottom: "inception_4d/3x3"
  bottom: "inception_4d/5x5"
  bottom: "inception_4d/pool_proj"
  top: "inception_4d/output"
}
layer {
  name: "loss2/ave_pool"
  type: "Pooling"
  bottom: "inception_4d/output"
  top: "loss2/ave_pool"
  pooling_param {
    pool: AVE
    kernel_size: 5
    stride: 3
  }
}
layer {
  name: "loss2/conv"
  type: "Convolution"
  bottom: "loss2/ave_pool"
  top: "loss2/conv"
  param {
    lr_mult: 1
    decay_mult: 1
  }
  param {
    lr_mult: 2
    decay_mult: 0
  }
  convolution_param {
    num_output: 128
    kernel_size: 1
    weight_filler {
      type: "xavier"
      std: 0.08
    }
    bias_filler {
      type: "constant"
      value: 0.2
    }
  }
}
layer {
  name: "loss2/relu_conv"
  type: "ReLU"
  bottom: "loss2/conv"
  top: "loss2/conv"
}
layer {
  name: "loss2/fc"
  type: "InnerProduct"
  bottom: "loss2/conv"
  top: "loss2/fc"
  param {
    lr_mult: 1
    decay_mult: 1
  }
  param {
    lr_mult: 2
    decay_mult: 0
  }
  inner_product_param {
    num_output: 1024
    weight_filler {
      type: "xavier"
      std: 0.02
    }
    bias_filler {
      type: "constant"
      value: 0.2
    }
  }
}
layer {
  name: "loss2/relu_fc"
  type: "ReLU"
  bottom: "loss2/fc"
  top: "loss2/fc"
}
layer {
  name: "loss2/drop_fc"
  type: "Dropout"
  bottom: "loss2/fc"
  top: "loss2/fc"
  dropout_param {
    dropout_ratio: 0.7
  }
}
layer {
  name: "loss2/classifier_plantvillage"
  type: "InnerProduct"
  bottom: "loss2/fc"
  top: "loss2/classifier_plantvillage"
  param {
    lr_mult: 1
    decay_mult: 1
  }
  param {
    lr_mult: 2
    decay_mult: 0
  }
  inner_product_param {
    num_output: 38
    weight_filler {
      type: "xavier"
      std: 0.0009765625
    }
    bias_filler {
      type: "constant"
      value: 0
    }
  }
}
layer {
  name: "inception_4e/1x1"
  type: "Convolution"
  bottom: "inception_4d/output"
  top: "inception_4e/1x1"
  param {
    lr_mult: 1
    decay_mult: 1
  }
  param {
    lr_mult: 2
    decay_mult: 0
  }
  convolution_param {
    num_output: 256
    kernel_size: 1
    weight_filler {
      type: "xavier"
      std: 0.03
    }
    bias_filler {
      type: "constant"
      value: 0.2
    }
  }
}
layer {
  name: "inception_4e/relu_1x1"
  type: "ReLU"
  bottom: "inception_4e/1x1"
  top: "inception_4e/1x1"
}
layer {
  name: "inception_4e/3x3_reduce"
  type: "Convolution"
  bottom: "inception_4d/output"
  top: "inception_4e/3x3_reduce"
  param {
    lr_mult: 1
    decay_mult: 1
  }
  param {
    lr_mult: 2
    decay_mult: 0
  }
  convolution_param {
    num_output: 160
    kernel_size: 1
    weight_filler {
      type: "xavier"
      std: 0.09
    }
    bias_filler {
      type: "constant"
      value: 0.2
    }
  }
}
layer {
  name: "inception_4e/relu_3x3_reduce"
  type: "ReLU"
  bottom: "inception_4e/3x3_reduce"
  top: "inception_4e/3x3_reduce"
}
layer {
  name: "inception_4e/3x3"
  type: "Convolution"
  bottom: "inception_4e/3x3_reduce"
  top: "inception_4e/3x3"
  param {
    lr_mult: 1
    decay_mult: 1
  }
  param {
    lr_mult: 2
    decay_mult: 0
  }
  convolution_param {
    num_output: 320
    pad: 1
    kernel_size: 3
    weight_filler {
      type: "xavier"
      std: 0.03
    }
    bias_filler {
      type: "constant"
      value: 0.2
    }
  }
}
layer {
  name: "inception_4e/relu_3x3"
  type: "ReLU"
  bottom: "inception_4e/3x3"
  top: "inception_4e/3x3"
}
layer {
  name: "inception_4e/5x5_reduce"
  type: "Convolution"
  bottom: "inception_4d/output"
  top: "inception_4e/5x5_reduce"
  param {
    lr_mult: 1
    decay_mult: 1
  }
  param {
    lr_mult: 2
    decay_mult: 0
  }
  convolution_param {
    num_output: 32
    kernel_size: 1
    weight_filler {
      type: "xavier"
      std: 0.2
    }
    bias_filler {
      type: "constant"
      value: 0.2
    }
  }
}
layer {
  name: "inception_4e/relu_5x5_reduce"
  type: "ReLU"
  bottom: "inception_4e/5x5_reduce"
  top: "inception_4e/5x5_reduce"
}
layer {
  name: "inception_4e/5x5"
  type: "Convolution"
  bottom: "inception_4e/5x5_reduce"
  top: "inception_4e/5x5"
  p
I0403 21:46:25.405804 12771 layer_factory.hpp:77] Creating layer data
I0403 21:46:25.406407 12771 net.cpp:91] Creating Layer data
I0403 21:46:25.406438 12771 net.cpp:399] data -> data
I0403 21:46:25.406491 12771 net.cpp:399] data -> label
I0403 21:46:25.406528 12771 data_transformer.cpp:25] Loading mean file from: /home/mohanty/data/final_dataset/lmdb/color-80-20/mean.binaryproto
I0403 21:46:25.407765 12776 db_lmdb.cpp:38] Opened lmdb /home/mohanty/data/final_dataset/lmdb/color-80-20/test_db
I0403 21:46:25.420423 12771 data_layer.cpp:41] output data size: 24,3,224,224
I0403 21:46:25.448926 12771 net.cpp:141] Setting up data
I0403 21:46:25.449019 12771 net.cpp:148] Top shape: 24 3 224 224 (3612672)
I0403 21:46:25.449044 12771 net.cpp:148] Top shape: 24 (24)
I0403 21:46:25.449060 12771 net.cpp:156] Memory required for data: 14450784
I0403 21:46:25.449090 12771 layer_factory.hpp:77] Creating layer label_data_1_split
I0403 21:46:25.449118 12771 net.cpp:91] Creating Layer label_data_1_split
I0403 21:46:25.449138 12771 net.cpp:425] label_data_1_split <- label
I0403 21:46:25.449169 12771 net.cpp:399] label_data_1_split -> label_data_1_split_0
I0403 21:46:25.449198 12771 net.cpp:399] label_data_1_split -> label_data_1_split_1
I0403 21:46:25.449240 12771 net.cpp:399] label_data_1_split -> label_data_1_split_2
I0403 21:46:25.449264 12771 net.cpp:399] label_data_1_split -> label_data_1_split_3
I0403 21:46:25.449285 12771 net.cpp:399] label_data_1_split -> label_data_1_split_4
I0403 21:46:25.449306 12771 net.cpp:399] label_data_1_split -> label_data_1_split_5
I0403 21:46:25.449327 12771 net.cpp:399] label_data_1_split -> label_data_1_split_6
I0403 21:46:25.449348 12771 net.cpp:399] label_data_1_split -> label_data_1_split_7
I0403 21:46:25.449370 12771 net.cpp:399] label_data_1_split -> label_data_1_split_8
I0403 21:46:25.449390 12771 net.cpp:399] label_data_1_split -> label_data_1_split_9
I0403 21:46:25.449506 12771 net.cpp:141] Setting up label_data_1_split
I0403 21:46:25.449532 12771 net.cpp:148] Top shape: 24 (24)
I0403 21:46:25.449549 12771 net.cpp:148] Top shape: 24 (24)
I0403 21:46:25.449579 12771 net.cpp:148] Top shape: 24 (24)
I0403 21:46:25.449594 12771 net.cpp:148] Top shape: 24 (24)
I0403 21:46:25.449610 12771 net.cpp:148] Top shape: 24 (24)
I0403 21:46:25.449627 12771 net.cpp:148] Top shape: 24 (24)
I0403 21:46:25.449643 12771 net.cpp:148] Top shape: 24 (24)
I0403 21:46:25.449661 12771 net.cpp:148] Top shape: 24 (24)
I0403 21:46:25.449676 12771 net.cpp:148] Top shape: 24 (24)
I0403 21:46:25.449692 12771 net.cpp:148] Top shape: 24 (24)
I0403 21:46:25.449738 12771 net.cpp:156] Memory required for data: 14451744
I0403 21:46:25.449755 12771 layer_factory.hpp:77] Creating layer conv1/7x7_s2
I0403 21:46:25.449796 12771 net.cpp:91] Creating Layer conv1/7x7_s2
I0403 21:46:25.449816 12771 net.cpp:425] conv1/7x7_s2 <- data
I0403 21:46:25.449836 12771 net.cpp:399] conv1/7x7_s2 -> conv1/7x7_s2
I0403 21:46:25.594727 12771 net.cpp:141] Setting up conv1/7x7_s2
I0403 21:46:25.594832 12771 net.cpp:148] Top shape: 24 64 112 112 (19267584)
I0403 21:46:25.594848 12771 net.cpp:156] Memory required for data: 91522080
I0403 21:46:25.594879 12771 layer_factory.hpp:77] Creating layer conv1/relu_7x7
I0403 21:46:25.594905 12771 net.cpp:91] Creating Layer conv1/relu_7x7
I0403 21:46:25.594923 12771 net.cpp:425] conv1/relu_7x7 <- conv1/7x7_s2
I0403 21:46:25.594941 12771 net.cpp:386] conv1/relu_7x7 -> conv1/7x7_s2 (in-place)
I0403 21:46:25.595185 12771 net.cpp:141] Setting up conv1/relu_7x7
I0403 21:46:25.595216 12771 net.cpp:148] Top shape: 24 64 112 112 (19267584)
I0403 21:46:25.595232 12771 net.cpp:156] Memory required for data: 168592416
I0403 21:46:25.595247 12771 layer_factory.hpp:77] Creating layer pool1/3x3_s2
I0403 21:46:25.595273 12771 net.cpp:91] Creating Layer pool1/3x3_s2
I0403 21:46:25.595289 12771 net.cpp:425] pool1/3x3_s2 <- conv1/7x7_s2
I0403 21:46:25.595307 12771 net.cpp:399] pool1/3x3_s2 -> pool1/3x3_s2
I0403 21:46:25.595377 12771 net.cpp:141] Setting up pool1/3x3_s2
I0403 21:46:25.595401 12771 net.cpp:148] Top shape: 24 64 56 56 (4816896)
I0403 21:46:25.595415 12771 net.cpp:156] Memory required for data: 187860000
I0403 21:46:25.595430 12771 layer_factory.hpp:77] Creating layer pool1/norm1
I0403 21:46:25.595454 12771 net.cpp:91] Creating Layer pool1/norm1
I0403 21:46:25.595471 12771 net.cpp:425] pool1/norm1 <- pool1/3x3_s2
I0403 21:46:25.595489 12771 net.cpp:399] pool1/norm1 -> pool1/norm1
I0403 21:46:25.595861 12771 net.cpp:141] Setting up pool1/norm1
I0403 21:46:25.595888 12771 net.cpp:148] Top shape: 24 64 56 56 (4816896)
I0403 21:46:25.595903 12771 net.cpp:156] Memory required for data: 207127584
I0403 21:46:25.595918 12771 layer_factory.hpp:77] Creating layer conv2/3x3_reduce
I0403 21:46:25.595942 12771 net.cpp:91] Creating Layer conv2/3x3_reduce
I0403 21:46:25.595958 12771 net.cpp:425] conv2/3x3_reduce <- pool1/norm1
I0403 21:46:25.595976 12771 net.cpp:399] conv2/3x3_reduce -> conv2/3x3_reduce
I0403 21:46:25.597316 12771 net.cpp:141] Setting up conv2/3x3_reduce
I0403 21:46:25.597345 12771 net.cpp:148] Top shape: 24 64 56 56 (4816896)
I0403 21:46:25.597360 12771 net.cpp:156] Memory required for data: 226395168
I0403 21:46:25.597381 12771 layer_factory.hpp:77] Creating layer conv2/relu_3x3_reduce
I0403 21:46:25.597399 12771 net.cpp:91] Creating Layer conv2/relu_3x3_reduce
I0403 21:46:25.597415 12771 net.cpp:425] conv2/relu_3x3_reduce <- conv2/3x3_reduce
I0403 21:46:25.597431 12771 net.cpp:386] conv2/relu_3x3_reduce -> conv2/3x3_reduce (in-place)
I0403 21:46:25.597667 12771 net.cpp:141] Setting up conv2/relu_3x3_reduce
I0403 21:46:25.597693 12771 net.cpp:148] Top shape: 24 64 56 56 (4816896)
I0403 21:46:25.597708 12771 net.cpp:156] Memory required for data: 245662752
I0403 21:46:25.597723 12771 layer_factory.hpp:77] Creating layer conv2/3x3
I0403 21:46:25.597745 12771 net.cpp:91] Creating Layer conv2/3x3
I0403 21:46:25.597762 12771 net.cpp:425] conv2/3x3 <- conv2/3x3_reduce
I0403 21:46:25.597780 12771 net.cpp:399] conv2/3x3 -> conv2/3x3
I0403 21:46:25.600019 12771 net.cpp:141] Setting up conv2/3x3
I0403 21:46:25.600049 12771 net.cpp:148] Top shape: 24 192 56 56 (14450688)
I0403 21:46:25.600065 12771 net.cpp:156] Memory required for data: 303465504
I0403 21:46:25.600087 12771 layer_factory.hpp:77] Creating layer conv2/relu_3x3
I0403 21:46:25.600106 12771 net.cpp:91] Creating Layer conv2/relu_3x3
I0403 21:46:25.600123 12771 net.cpp:425] conv2/relu_3x3 <- conv2/3x3
I0403 21:46:25.600139 12771 net.cpp:386] conv2/relu_3x3 -> conv2/3x3 (in-place)
I0403 21:46:25.600296 12771 net.cpp:141] Setting up conv2/relu_3x3
I0403 21:46:25.600320 12771 net.cpp:148] Top shape: 24 192 56 56 (14450688)
I0403 21:46:25.600366 12771 net.cpp:156] Memory required for data: 361268256
I0403 21:46:25.600383 12771 layer_factory.hpp:77] Creating layer conv2/norm2
I0403 21:46:25.600400 12771 net.cpp:91] Creating Layer conv2/norm2
I0403 21:46:25.600416 12771 net.cpp:425] conv2/norm2 <- conv2/3x3
I0403 21:46:25.600435 12771 net.cpp:399] conv2/norm2 -> conv2/norm2
I0403 21:46:25.600764 12771 net.cpp:141] Setting up conv2/norm2
I0403 21:46:25.600790 12771 net.cpp:148] Top shape: 24 192 56 56 (14450688)
I0403 21:46:25.600805 12771 net.cpp:156] Memory required for data: 419071008
I0403 21:46:25.600821 12771 layer_factory.hpp:77] Creating layer pool2/3x3_s2
I0403 21:46:25.600837 12771 net.cpp:91] Creating Layer pool2/3x3_s2
I0403 21:46:25.600853 12771 net.cpp:425] pool2/3x3_s2 <- conv2/norm2
I0403 21:46:25.600870 12771 net.cpp:399] pool2/3x3_s2 -> pool2/3x3_s2
I0403 21:46:25.600917 12771 net.cpp:141] Setting up pool2/3x3_s2
I0403 21:46:25.600939 12771 net.cpp:148] Top shape: 24 192 28 28 (3612672)
I0403 21:46:25.600955 12771 net.cpp:156] Memory required for data: 433521696
I0403 21:46:25.600968 12771 layer_factory.hpp:77] Creating layer pool2/3x3_s2_pool2/3x3_s2_0_split
I0403 21:46:25.600986 12771 net.cpp:91] Creating Layer pool2/3x3_s2_pool2/3x3_s2_0_split
I0403 21:46:25.601001 12771 net.cpp:425] pool2/3x3_s2_pool2/3x3_s2_0_split <- pool2/3x3_s2
I0403 21:46:25.601019 12771 net.cpp:399] pool2/3x3_s2_pool2/3x3_s2_0_split -> pool2/3x3_s2_pool2/3x3_s2_0_split_0
I0403 21:46:25.601039 12771 net.cpp:399] pool2/3x3_s2_pool2/3x3_s2_0_split -> pool2/3x3_s2_pool2/3x3_s2_0_split_1
I0403 21:46:25.601058 12771 net.cpp:399] pool2/3x3_s2_pool2/3x3_s2_0_split -> pool2/3x3_s2_pool2/3x3_s2_0_split_2
I0403 21:46:25.601078 12771 net.cpp:399] pool2/3x3_s2_pool2/3x3_s2_0_split -> pool2/3x3_s2_pool2/3x3_s2_0_split_3
I0403 21:46:25.601138 12771 net.cpp:141] Setting up pool2/3x3_s2_pool2/3x3_s2_0_split
I0403 21:46:25.601161 12771 net.cpp:148] Top shape: 24 192 28 28 (3612672)
I0403 21:46:25.601178 12771 net.cpp:148] Top shape: 24 192 28 28 (3612672)
I0403 21:46:25.601194 12771 net.cpp:148] Top shape: 24 192 28 28 (3612672)
I0403 21:46:25.601213 12771 net.cpp:148] Top shape: 24 192 28 28 (3612672)
I0403 21:46:25.601228 12771 net.cpp:156] Memory required for data: 491324448
I0403 21:46:25.601243 12771 layer_factory.hpp:77] Creating layer inception_3a/1x1
I0403 21:46:25.601263 12771 net.cpp:91] Creating Layer inception_3a/1x1
I0403 21:46:25.601279 12771 net.cpp:425] inception_3a/1x1 <- pool2/3x3_s2_pool2/3x3_s2_0_split_0
I0403 21:46:25.601297 12771 net.cpp:399] inception_3a/1x1 -> inception_3a/1x1
I0403 21:46:25.602810 12771 net.cpp:141] Setting up inception_3a/1x1
I0403 21:46:25.602840 12771 net.cpp:148] Top shape: 24 64 28 28 (1204224)
I0403 21:46:25.602856 12771 net.cpp:156] Memory required for data: 496141344
I0403 21:46:25.602875 12771 layer_factory.hpp:77] Creating layer inception_3a/relu_1x1
I0403 21:46:25.602897 12771 net.cpp:91] Creating Layer inception_3a/relu_1x1
I0403 21:46:25.602916 12771 net.cpp:425] inception_3a/relu_1x1 <- inception_3a/1x1
I0403 21:46:25.602933 12771 net.cpp:386] inception_3a/relu_1x1 -> inception_3a/1x1 (in-place)
I0403 21:46:25.603103 12771 net.cpp:141] Setting up inception_3a/relu_1x1
I0403 21:46:25.603127 12771 net.cpp:148] Top shape: 24 64 28 28 (1204224)
I0403 21:46:25.603142 12771 net.cpp:156] Memory required for data: 500958240
I0403 21:46:25.603157 12771 layer_factory.hpp:77] Creating layer inception_3a/3x3_reduce
I0403 21:46:25.603179 12771 net.cpp:91] Creating Layer inception_3a/3x3_reduce
I0403 21:46:25.603198 12771 net.cpp:425] inception_3a/3x3_reduce <- pool2/3x3_s2_pool2/3x3_s2_0_split_1
I0403 21:46:25.603224 12771 net.cpp:399] inception_3a/3x3_reduce -> inception_3a/3x3_reduce
I0403 21:46:25.604917 12771 net.cpp:141] Setting up inception_3a/3x3_reduce
I0403 21:46:25.604948 12771 net.cpp:148] Top shape: 24 96 28 28 (1806336)
I0403 21:46:25.604964 12771 net.cpp:156] Memory required for data: 508183584
I0403 21:46:25.604985 12771 layer_factory.hpp:77] Creating layer inception_3a/relu_3x3_reduce
I0403 21:46:25.605026 12771 net.cpp:91] Creating Layer inception_3a/relu_3x3_reduce
I0403 21:46:25.605043 12771 net.cpp:425] inception_3a/relu_3x3_reduce <- inception_3a/3x3_reduce
I0403 21:46:25.605063 12771 net.cpp:386] inception_3a/relu_3x3_reduce -> inception_3a/3x3_reduce (in-place)
I0403 21:46:25.605242 12771 net.cpp:141] Setting up inception_3a/relu_3x3_reduce
I0403 21:46:25.605268 12771 net.cpp:148] Top shape: 24 96 28 28 (1806336)
I0403 21:46:25.605283 12771 net.cpp:156] Memory required for data: 515408928
I0403 21:46:25.605298 12771 layer_factory.hpp:77] Creating layer inception_3a/3x3
I0403 21:46:25.605319 12771 net.cpp:91] Creating Layer inception_3a/3x3
I0403 21:46:25.605335 12771 net.cpp:425] inception_3a/3x3 <- inception_3a/3x3_reduce
I0403 21:46:25.605357 12771 net.cpp:399] inception_3a/3x3 -> inception_3a/3x3
I0403 21:46:25.607007 12771 net.cpp:141] Setting up inception_3a/3x3
I0403 21:46:25.607038 12771 net.cpp:148] Top shape: 24 128 28 28 (2408448)
I0403 21:46:25.607059 12771 net.cpp:156] Memory required for data: 525042720
I0403 21:46:25.607079 12771 layer_factory.hpp:77] Creating layer inception_3a/relu_3x3
I0403 21:46:25.607164 12771 net.cpp:91] Creating Layer inception_3a/relu_3x3
I0403 21:46:25.607182 12771 net.cpp:425] inception_3a/relu_3x3 <- inception_3a/3x3
I0403 21:46:25.607203 12771 net.cpp:386] inception_3a/relu_3x3 -> inception_3a/3x3 (in-place)
I0403 21:46:25.607475 12771 net.cpp:141] Setting up inception_3a/relu_3x3
I0403 21:46:25.607504 12771 net.cpp:148] Top shape: 24 128 28 28 (2408448)
I0403 21:46:25.607519 12771 net.cpp:156] Memory required for data: 534676512
I0403 21:46:25.607534 12771 layer_factory.hpp:77] Creating layer inception_3a/5x5_reduce
I0403 21:46:25.607556 12771 net.cpp:91] Creating Layer inception_3a/5x5_reduce
I0403 21:46:25.607573 12771 net.cpp:425] inception_3a/5x5_reduce <- pool2/3x3_s2_pool2/3x3_s2_0_split_2
I0403 21:46:25.607591 12771 net.cpp:399] inception_3a/5x5_reduce -> inception_3a/5x5_reduce
I0403 21:46:25.608525 12771 net.cpp:141] Setting up inception_3a/5x5_reduce
I0403 21:46:25.608556 12771 net.cpp:148] Top shape: 24 16 28 28 (301056)
I0403 21:46:25.608575 12771 net.cpp:156] Memory required for data: 535880736
I0403 21:46:25.608638 12771 layer_factory.hpp:77] Creating layer inception_3a/relu_5x5_reduce
I0403 21:46:25.608661 12771 net.cpp:91] Creating Layer inception_3a/relu_5x5_reduce
I0403 21:46:25.608677 12771 net.cpp:425] inception_3a/relu_5x5_reduce <- inception_3a/5x5_reduce
I0403 21:46:25.608698 12771 net.cpp:386] inception_3a/relu_5x5_reduce -> inception_3a/5x5_reduce (in-place)
I0403 21:46:25.608966 12771 net.cpp:141] Setting up inception_3a/relu_5x5_reduce
I0403 21:46:25.608992 12771 net.cpp:148] Top shape: 24 16 28 28 (301056)
I0403 21:46:25.609009 12771 net.cpp:156] Memory required for data: 537084960
I0403 21:46:25.609024 12771 layer_factory.hpp:77] Creating layer inception_3a/5x5
I0403 21:46:25.609046 12771 net.cpp:91] Creating Layer inception_3a/5x5
I0403 21:46:25.609063 12771 net.cpp:425] inception_3a/5x5 <- inception_3a/5x5_reduce
I0403 21:46:25.609086 12771 net.cpp:399] inception_3a/5x5 -> inception_3a/5x5
I0403 21:46:25.610056 12771 net.cpp:141] Setting up inception_3a/5x5
I0403 21:46:25.610083 12771 net.cpp:148] Top shape: 24 32 28 28 (602112)
I0403 21:46:25.610100 12771 net.cpp:156] Memory required for data: 539493408
I0403 21:46:25.610119 12771 layer_factory.hpp:77] Creating layer inception_3a/relu_5x5
I0403 21:46:25.610138 12771 net.cpp:91] Creating Layer inception_3a/relu_5x5
I0403 21:46:25.610154 12771 net.cpp:425] inception_3a/relu_5x5 <- inception_3a/5x5
I0403 21:46:25.610172 12771 net.cpp:386] inception_3a/relu_5x5 -> inception_3a/5x5 (in-place)
I0403 21:46:25.610376 12771 net.cpp:141] Setting up inception_3a/relu_5x5
I0403 21:46:25.610402 12771 net.cpp:148] Top shape: 24 32 28 28 (602112)
I0403 21:46:25.610417 12771 net.cpp:156] Memory required for data: 541901856
I0403 21:46:25.610433 12771 layer_factory.hpp:77] Creating layer inception_3a/pool
I0403 21:46:25.610450 12771 net.cpp:91] Creating Layer inception_3a/pool
I0403 21:46:25.610466 12771 net.cpp:425] inception_3a/pool <- pool2/3x3_s2_pool2/3x3_s2_0_split_3
I0403 21:46:25.610503 12771 net.cpp:399] inception_3a/pool -> inception_3a/pool
I0403 21:46:25.610559 12771 net.cpp:141] Setting up inception_3a/pool
I0403 21:46:25.610584 12771 net.cpp:148] Top shape: 24 192 28 28 (3612672)
I0403 21:46:25.610599 12771 net.cpp:156] Memory required for data: 556352544
I0403 21:46:25.610613 12771 layer_factory.hpp:77] Creating layer inception_3a/pool_proj
I0403 21:46:25.610637 12771 net.cpp:91] Creating Layer inception_3a/pool_proj
I0403 21:46:25.610654 12771 net.cpp:425] inception_3a/pool_proj <- inception_3a/pool
I0403 21:46:25.610672 12771 net.cpp:399] inception_3a/pool_proj -> inception_3a/pool_proj
I0403 21:46:25.611604 12771 net.cpp:141] Setting up inception_3a/pool_proj
I0403 21:46:25.611631 12771 net.cpp:148] Top shape: 24 32 28 28 (602112)
I0403 21:46:25.611649 12771 net.cpp:156] Memory required for data: 558760992
I0403 21:46:25.611672 12771 layer_factory.hpp:77] Creating layer inception_3a/relu_pool_proj
I0403 21:46:25.611691 12771 net.cpp:91] Creating Layer inception_3a/relu_pool_proj
I0403 21:46:25.611706 12771 net.cpp:425] inception_3a/relu_pool_proj <- inception_3a/pool_proj
I0403 21:46:25.611726 12771 net.cpp:386] inception_3a/relu_pool_proj -> inception_3a/pool_proj (in-place)
I0403 21:46:25.611989 12771 net.cpp:141] Setting up inception_3a/relu_pool_proj
I0403 21:46:25.612017 12771 net.cpp:148] Top shape: 24 32 28 28 (602112)
I0403 21:46:25.612033 12771 net.cpp:156] Memory required for data: 561169440
I0403 21:46:25.612048 12771 layer_factory.hpp:77] Creating layer inception_3a/output
I0403 21:46:25.612066 12771 net.cpp:91] Creating Layer inception_3a/output
I0403 21:46:25.612082 12771 net.cpp:425] inception_3a/output <- inception_3a/1x1
I0403 21:46:25.612097 12771 net.cpp:425] inception_3a/output <- inception_3a/3x3
I0403 21:46:25.612164 12771 net.cpp:425] inception_3a/output <- inception_3a/5x5
I0403 21:46:25.612185 12771 net.cpp:425] inception_3a/output <- inception_3a/pool_proj
I0403 21:46:25.612206 12771 net.cpp:399] inception_3a/output -> inception_3a/output
I0403 21:46:25.612264 12771 net.cpp:141] Setting up inception_3a/output
I0403 21:46:25.612287 12771 net.cpp:148] Top shape: 24 256 28 28 (4816896)
I0403 21:46:25.612301 12771 net.cpp:156] Memory required for data: 580437024
I0403 21:46:25.612318 12771 layer_factory.hpp:77] Creating layer inception_3a/output_inception_3a/output_0_split
I0403 21:46:25.612337 12771 net.cpp:91] Creating Layer inception_3a/output_inception_3a/output_0_split
I0403 21:46:25.612354 12771 net.cpp:425] inception_3a/output_inception_3a/output_0_split <- inception_3a/output
I0403 21:46:25.612370 12771 net.cpp:399] inception_3a/output_inception_3a/output_0_split -> inception_3a/output_inception_3a/output_0_split_0
I0403 21:46:25.612390 12771 net.cpp:399] inception_3a/output_inception_3a/output_0_split -> inception_3a/output_inception_3a/output_0_split_1
I0403 21:46:25.612413 12771 net.cpp:399] inception_3a/output_inception_3a/output_0_split -> inception_3a/output_inception_3a/output_0_split_2
I0403 21:46:25.612437 12771 net.cpp:399] inception_3a/output_inception_3a/output_0_split -> inception_3a/output_inception_3a/output_0_split_3
I0403 21:46:25.612507 12771 net.cpp:141] Setting up inception_3a/output_inception_3a/output_0_split
I0403 21:46:25.612530 12771 net.cpp:148] Top shape: 24 256 28 28 (4816896)
I0403 21:46:25.612551 12771 net.cpp:148] Top shape: 24 256 28 28 (4816896)
I0403 21:46:25.612567 12771 net.cpp:148] Top shape: 24 256 28 28 (4816896)
I0403 21:46:25.612583 12771 net.cpp:148] Top shape: 24 256 28 28 (4816896)
I0403 21:46:25.612597 12771 net.cpp:156] Memory required for data: 657507360
I0403 21:46:25.612612 12771 layer_factory.hpp:77] Creating layer inception_3b/1x1
I0403 21:46:25.612633 12771 net.cpp:91] Creating Layer inception_3b/1x1
I0403 21:46:25.612651 12771 net.cpp:425] inception_3b/1x1 <- inception_3a/output_inception_3a/output_0_split_0
I0403 21:46:25.612670 12771 net.cpp:399] inception_3b/1x1 -> inception_3b/1x1
I0403 21:46:25.613808 12771 net.cpp:141] Setting up inception_3b/1x1
I0403 21:46:25.613847 12771 net.cpp:148] Top shape: 24 128 28 28 (2408448)
I0403 21:46:25.613864 12771 net.cpp:156] Memory required for data: 667141152
I0403 21:46:25.613883 12771 layer_factory.hpp:77] Creating layer inception_3b/relu_1x1
I0403 21:46:25.613904 12771 net.cpp:91] Creating Layer inception_3b/relu_1x1
I0403 21:46:25.613921 12771 net.cpp:425] inception_3b/relu_1x1 <- inception_3b/1x1
I0403 21:46:25.613940 12771 net.cpp:386] inception_3b/relu_1x1 -> inception_3b/1x1 (in-place)
I0403 21:46:25.614111 12771 net.cpp:141] Setting up inception_3b/relu_1x1
I0403 21:46:25.614137 12771 net.cpp:148] Top shape: 24 128 28 28 (2408448)
I0403 21:46:25.614152 12771 net.cpp:156] Memory required for data: 676774944
I0403 21:46:25.614167 12771 layer_factory.hpp:77] Creating layer inception_3b/3x3_reduce
I0403 21:46:25.614190 12771 net.cpp:91] Creating Layer inception_3b/3x3_reduce
I0403 21:46:25.614217 12771 net.cpp:425] inception_3b/3x3_reduce <- inception_3a/output_inception_3a/output_0_split_1
I0403 21:46:25.614249 12771 net.cpp:399] inception_3b/3x3_reduce -> inception_3b/3x3_reduce
I0403 21:46:25.615386 12771 net.cpp:141] Setting up inception_3b/3x3_reduce
I0403 21:46:25.615413 12771 net.cpp:148] Top shape: 24 128 28 28 (2408448)
I0403 21:46:25.615429 12771 net.cpp:156] Memory required for data: 686408736
I0403 21:46:25.615449 12771 layer_factory.hpp:77] Creating layer inception_3b/relu_3x3_reduce
I0403 21:46:25.615521 12771 net.cpp:91] Creating Layer inception_3b/relu_3x3_reduce
I0403 21:46:25.615545 12771 net.cpp:425] inception_3b/relu_3x3_reduce <- inception_3b/3x3_reduce
I0403 21:46:25.615562 12771 net.cpp:386] inception_3b/relu_3x3_reduce -> inception_3b/3x3_reduce (in-place)
I0403 21:46:25.615736 12771 net.cpp:141] Setting up inception_3b/relu_3x3_reduce
I0403 21:46:25.615764 12771 net.cpp:148] Top shape: 24 128 28 28 (2408448)
I0403 21:46:25.615782 12771 net.cpp:156] Memory required for data: 696042528
I0403 21:46:25.615797 12771 layer_factory.hpp:77] Creating layer inception_3b/3x3
I0403 21:46:25.615823 12771 net.cpp:91] Creating Layer inception_3b/3x3
I0403 21:46:25.615842 12771 net.cpp:425] inception_3b/3x3 <- inception_3b/3x3_reduce
I0403 21:46:25.615866 12771 net.cpp:399] inception_3b/3x3 -> inception_3b/3x3
I0403 21:46:25.618777 12771 net.cpp:141] Setting up inception_3b/3x3
I0403 21:46:25.618810 12771 net.cpp:148] Top shape: 24 192 28 28 (3612672)
I0403 21:46:25.618826 12771 net.cpp:156] Memory required for data: 710493216
I0403 21:46:25.618845 12771 layer_factory.hpp:77] Creating layer inception_3b/relu_3x3
I0403 21:46:25.618863 12771 net.cpp:91] Creating Layer inception_3b/relu_3x3
I0403 21:46:25.618880 12771 net.cpp:425] inception_3b/relu_3x3 <- inception_3b/3x3
I0403 21:46:25.618901 12771 net.cpp:386] inception_3b/relu_3x3 -> inception_3b/3x3 (in-place)
I0403 21:46:25.619170 12771 net.cpp:141] Setting up inception_3b/relu_3x3
I0403 21:46:25.619199 12771 net.cpp:148] Top shape: 24 192 28 28 (3612672)
I0403 21:46:25.619222 12771 net.cpp:156] Memory required for data: 724943904
I0403 21:46:25.619238 12771 layer_factory.hpp:77] Creating layer inception_3b/5x5_reduce
I0403 21:46:25.619262 12771 net.cpp:91] Creating Layer inception_3b/5x5_reduce
I0403 21:46:25.619282 12771 net.cpp:425] inception_3b/5x5_reduce <- inception_3a/output_inception_3a/output_0_split_2
I0403 21:46:25.619302 12771 net.cpp:399] inception_3b/5x5_reduce -> inception_3b/5x5_reduce
I0403 21:46:25.620290 12771 net.cpp:141] Setting up inception_3b/5x5_reduce
I0403 21:46:25.620321 12771 net.cpp:148] Top shape: 24 32 28 28 (602112)
I0403 21:46:25.620338 12771 net.cpp:156] Memory required for data: 727352352
I0403 21:46:25.620357 12771 layer_factory.hpp:77] Creating layer inception_3b/relu_5x5_reduce
I0403 21:46:25.620376 12771 net.cpp:91] Creating Layer inception_3b/relu_5x5_reduce
I0403 21:46:25.620393 12771 net.cpp:425] inception_3b/relu_5x5_reduce <- inception_3b/5x5_reduce
I0403 21:46:25.620412 12771 net.cpp:386] inception_3b/relu_5x5_reduce -> inception_3b/5x5_reduce (in-place)
I0403 21:46:25.620592 12771 net.cpp:141] Setting up inception_3b/relu_5x5_reduce
I0403 21:46:25.620630 12771 net.cpp:148] Top shape: 24 32 28 28 (602112)
I0403 21:46:25.620645 12771 net.cpp:156] Memory required for data: 729760800
I0403 21:46:25.620661 12771 layer_factory.hpp:77] Creating layer inception_3b/5x5
I0403 21:46:25.620682 12771 net.cpp:91] Creating Layer inception_3b/5x5
I0403 21:46:25.620702 12771 net.cpp:425] inception_3b/5x5 <- inception_3b/5x5_reduce
I0403 21:46:25.620723 12771 net.cpp:399] inception_3b/5x5 -> inception_3b/5x5
I0403 21:46:25.622730 12771 net.cpp:141] Setting up inception_3b/5x5
I0403 21:46:25.622761 12771 net.cpp:148] Top shape: 24 96 28 28 (1806336)
I0403 21:46:25.622776 12771 net.cpp:156] Memory required for data: 736986144
I0403 21:46:25.622797 12771 layer_factory.hpp:77] Creating layer inception_3b/relu_5x5
I0403 21:46:25.622817 12771 net.cpp:91] Creating Layer inception_3b/relu_5x5
I0403 21:46:25.622835 12771 net.cpp:425] inception_3b/relu_5x5 <- inception_3b/5x5
I0403 21:46:25.622853 12771 net.cpp:386] inception_3b/relu_5x5 -> inception_3b/5x5 (in-place)
I0403 21:46:25.623042 12771 net.cpp:141] Setting up inception_3b/relu_5x5
I0403 21:46:25.623067 12771 net.cpp:148] Top shape: 24 96 28 28 (1806336)
I0403 21:46:25.623082 12771 net.cpp:156] Memory required for data: 744211488
I0403 21:46:25.623097 12771 layer_factory.hpp:77] Creating layer inception_3b/pool
I0403 21:46:25.623116 12771 net.cpp:91] Creating Layer inception_3b/pool
I0403 21:46:25.623131 12771 net.cpp:425] inception_3b/pool <- inception_3a/output_inception_3a/output_0_split_3
I0403 21:46:25.623149 12771 net.cpp:399] inception_3b/pool -> inception_3b/pool
I0403 21:46:25.623204 12771 net.cpp:141] Setting up inception_3b/pool
I0403 21:46:25.623234 12771 net.cpp:148] Top shape: 24 256 28 28 (4816896)
I0403 21:46:25.623250 12771 net.cpp:156] Memory required for data: 763479072
I0403 21:46:25.623265 12771 layer_factory.hpp:77] Creating layer inception_3b/pool_proj
I0403 21:46:25.623287 12771 net.cpp:91] Creating Layer inception_3b/pool_proj
I0403 21:46:25.623306 12771 net.cpp:425] inception_3b/pool_proj <- inception_3b/pool
I0403 21:46:25.623330 12771 net.cpp:399] inception_3b/pool_proj -> inception_3b/pool_proj
I0403 21:46:25.624384 12771 net.cpp:141] Setting up inception_3b/pool_proj
I0403 21:46:25.624413 12771 net.cpp:148] Top shape: 24 64 28 28 (1204224)
I0403 21:46:25.624429 12771 net.cpp:156] Memory required for data: 768295968
I0403 21:46:25.624447 12771 layer_factory.hpp:77] Creating layer inception_3b/relu_pool_proj
I0403 21:46:25.624466 12771 net.cpp:91] Creating Layer inception_3b/relu_pool_proj
I0403 21:46:25.624482 12771 net.cpp:425] inception_3b/relu_pool_proj <- inception_3b/pool_proj
I0403 21:46:25.624502 12771 net.cpp:386] inception_3b/relu_pool_proj -> inception_3b/pool_proj (in-place)
I0403 21:46:25.624874 12771 net.cpp:141] Setting up inception_3b/relu_pool_proj
I0403 21:46:25.624902 12771 net.cpp:148] Top shape: 24 64 28 28 (1204224)
I0403 21:46:25.624918 12771 net.cpp:156] Memory required for data: 773112864
I0403 21:46:25.624933 12771 layer_factory.hpp:77] Creating layer inception_3b/output
I0403 21:46:25.624951 12771 net.cpp:91] Creating Layer inception_3b/output
I0403 21:46:25.624968 12771 net.cpp:425] inception_3b/output <- inception_3b/1x1
I0403 21:46:25.624985 12771 net.cpp:425] inception_3b/output <- inception_3b/3x3
I0403 21:46:25.625001 12771 net.cpp:425] inception_3b/output <- inception_3b/5x5
I0403 21:46:25.625017 12771 net.cpp:425] inception_3b/output <- inception_3b/pool_proj
I0403 21:46:25.625037 12771 net.cpp:399] inception_3b/output -> inception_3b/output
I0403 21:46:25.625082 12771 net.cpp:141] Setting up inception_3b/output
I0403 21:46:25.625104 12771 net.cpp:148] Top shape: 24 480 28 28 (9031680)
I0403 21:46:25.625119 12771 net.cpp:156] Memory required for data: 809239584
I0403 21:46:25.625135 12771 layer_factory.hpp:77] Creating layer pool3/3x3_s2
I0403 21:46:25.625155 12771 net.cpp:91] Creating Layer pool3/3x3_s2
I0403 21:46:25.625171 12771 net.cpp:425] pool3/3x3_s2 <- inception_3b/output
I0403 21:46:25.625190 12771 net.cpp:399] pool3/3x3_s2 -> pool3/3x3_s2
I0403 21:46:25.625268 12771 net.cpp:141] Setting up pool3/3x3_s2
I0403 21:46:25.625293 12771 net.cpp:148] Top shape: 24 480 14 14 (2257920)
I0403 21:46:25.625308 12771 net.cpp:156] Memory required for data: 818271264
I0403 21:46:25.625324 12771 layer_factory.hpp:77] Creating layer pool3/3x3_s2_pool3/3x3_s2_0_split
I0403 21:46:25.625344 12771 net.cpp:91] Creating Layer pool3/3x3_s2_pool3/3x3_s2_0_split
I0403 21:46:25.625360 12771 net.cpp:425] pool3/3x3_s2_pool3/3x3_s2_0_split <- pool3/3x3_s2
I0403 21:46:25.625377 12771 net.cpp:399] pool3/3x3_s2_pool3/3x3_s2_0_split -> pool3/3x3_s2_pool3/3x3_s2_0_split_0
I0403 21:46:25.625396 12771 net.cpp:399] pool3/3x3_s2_pool3/3x3_s2_0_split -> pool3/3x3_s2_pool3/3x3_s2_0_split_1
I0403 21:46:25.625417 12771 net.cpp:399] pool3/3x3_s2_pool3/3x3_s2_0_split -> pool3/3x3_s2_pool3/3x3_s2_0_split_2
I0403 21:46:25.625437 12771 net.cpp:399] pool3/3x3_s2_pool3/3x3_s2_0_split -> pool3/3x3_s2_pool3/3x3_s2_0_split_3
I0403 21:46:25.625514 12771 net.cpp:141] Setting up pool3/3x3_s2_pool3/3x3_s2_0_split
I0403 21:46:25.625537 12771 net.cpp:148] Top shape: 24 480 14 14 (2257920)
I0403 21:46:25.625553 12771 net.cpp:148] Top shape: 24 480 14 14 (2257920)
I0403 21:46:25.625571 12771 net.cpp:148] Top shape: 24 480 14 14 (2257920)
I0403 21:46:25.625586 12771 net.cpp:148] Top shape: 24 480 14 14 (2257920)
I0403 21:46:25.625602 12771 net.cpp:156] Memory required for data: 854397984
I0403 21:46:25.625615 12771 layer_factory.hpp:77] Creating layer inception_4a/1x1
I0403 21:46:25.625638 12771 net.cpp:91] Creating Layer inception_4a/1x1
I0403 21:46:25.625655 12771 net.cpp:425] inception_4a/1x1 <- pool3/3x3_s2_pool3/3x3_s2_0_split_0
I0403 21:46:25.625677 12771 net.cpp:399] inception_4a/1x1 -> inception_4a/1x1
I0403 21:46:25.627241 12771 net.cpp:141] Setting up inception_4a/1x1
I0403 21:46:25.627269 12771 net.cpp:148] Top shape: 24 192 14 14 (903168)
I0403 21:46:25.627286 12771 net.cpp:156] Memory required for data: 858010656
I0403 21:46:25.627305 12771 layer_factory.hpp:77] Creating layer inception_4a/relu_1x1
I0403 21:46:25.627326 12771 net.cpp:91] Creating Layer inception_4a/relu_1x1
I0403 21:46:25.627341 12771 net.cpp:425] inception_4a/relu_1x1 <- inception_4a/1x1
I0403 21:46:25.627360 12771 net.cpp:386] inception_4a/relu_1x1 -> inception_4a/1x1 (in-place)
I0403 21:46:25.627538 12771 net.cpp:141] Setting up inception_4a/relu_1x1
I0403 21:46:25.627567 12771 net.cpp:148] Top shape: 24 192 14 14 (903168)
I0403 21:46:25.627583 12771 net.cpp:156] Memory required for data: 861623328
I0403 21:46:25.627598 12771 layer_factory.hpp:77] Creating layer inception_4a/3x3_reduce
I0403 21:46:25.627617 12771 net.cpp:91] Creating Layer inception_4a/3x3_reduce
I0403 21:46:25.627635 12771 net.cpp:425] inception_4a/3x3_reduce <- pool3/3x3_s2_pool3/3x3_s2_0_split_1
I0403 21:46:25.627655 12771 net.cpp:399] inception_4a/3x3_reduce -> inception_4a/3x3_reduce
I0403 21:46:25.628923 12771 net.cpp:141] Setting up inception_4a/3x3_reduce
I0403 21:46:25.628952 12771 net.cpp:148] Top shape: 24 96 14 14 (451584)
I0403 21:46:25.628967 12771 net.cpp:156] Memory required for data: 863429664
I0403 21:46:25.628991 12771 layer_factory.hpp:77] Creating layer inception_4a/relu_3x3_reduce
I0403 21:46:25.629011 12771 net.cpp:91] Creating Layer inception_4a/relu_3x3_reduce
I0403 21:46:25.629029 12771 net.cpp:425] inception_4a/relu_3x3_reduce <- inception_4a/3x3_reduce
I0403 21:46:25.629047 12771 net.cpp:386] inception_4a/relu_3x3_reduce -> inception_4a/3x3_reduce (in-place)
I0403 21:46:25.629225 12771 net.cpp:141] Setting up inception_4a/relu_3x3_reduce
I0403 21:46:25.629250 12771 net.cpp:148] Top shape: 24 96 14 14 (451584)
I0403 21:46:25.629264 12771 net.cpp:156] Memory required for data: 865236000
I0403 21:46:25.629281 12771 layer_factory.hpp:77] Creating layer inception_4a/3x3
I0403 21:46:25.629303 12771 net.cpp:91] Creating Layer inception_4a/3x3
I0403 21:46:25.629323 12771 net.cpp:425] inception_4a/3x3 <- inception_4a/3x3_reduce
I0403 21:46:25.629343 12771 net.cpp:399] inception_4a/3x3 -> inception_4a/3x3
I0403 21:46:25.632040 12771 net.cpp:141] Setting up inception_4a/3x3
I0403 21:46:25.632068 12771 net.cpp:148] Top shape: 24 208 14 14 (978432)
I0403 21:46:25.632096 12771 net.cpp:156] Memory required for data: 869149728
I0403 21:46:25.632114 12771 layer_factory.hpp:77] Creating layer inception_4a/relu_3x3
I0403 21:46:25.632136 12771 net.cpp:91] Creating Layer inception_4a/relu_3x3
I0403 21:46:25.632154 12771 net.cpp:425] inception_4a/relu_3x3 <- inception_4a/3x3
I0403 21:46:25.632171 12771 net.cpp:386] inception_4a/relu_3x3 -> inception_4a/3x3 (in-place)
I0403 21:46:25.632467 12771 net.cpp:141] Setting up inception_4a/relu_3x3
I0403 21:46:25.632493 12771 net.cpp:148] Top shape: 24 208 14 14 (978432)
I0403 21:46:25.632508 12771 net.cpp:156] Memory required for data: 873063456
I0403 21:46:25.632522 12771 layer_factory.hpp:77] Creating layer inception_4a/5x5_reduce
I0403 21:46:25.632546 12771 net.cpp:91] Creating Layer inception_4a/5x5_reduce
I0403 21:46:25.632563 12771 net.cpp:425] inception_4a/5x5_reduce <- pool3/3x3_s2_pool3/3x3_s2_0_split_2
I0403 21:46:25.632581 12771 net.cpp:399] inception_4a/5x5_reduce -> inception_4a/5x5_reduce
I0403 21:46:25.633543 12771 net.cpp:141] Setting up inception_4a/5x5_reduce
I0403 21:46:25.633569 12771 net.cpp:148] Top shape: 24 16 14 14 (75264)
I0403 21:46:25.633584 12771 net.cpp:156] Memory required for data: 873364512
I0403 21:46:25.633600 12771 layer_factory.hpp:77] Creating layer inception_4a/relu_5x5_reduce
I0403 21:46:25.633620 12771 net.cpp:91] Creating Layer inception_4a/relu_5x5_reduce
I0403 21:46:25.633635 12771 net.cpp:425] inception_4a/relu_5x5_reduce <- inception_4a/5x5_reduce
I0403 21:46:25.633651 12771 net.cpp:386] inception_4a/relu_5x5_reduce -> inception_4a/5x5_reduce (in-place)
I0403 21:46:25.633821 12771 net.cpp:141] Setting up inception_4a/relu_5x5_reduce
I0403 21:46:25.633846 12771 net.cpp:148] Top shape: 24 16 14 14 (75264)
I0403 21:46:25.633859 12771 net.cpp:156] Memory required for data: 873665568
I0403 21:46:25.633874 12771 layer_factory.hpp:77] Creating layer inception_4a/5x5
I0403 21:46:25.633896 12771 net.cpp:91] Creating Layer inception_4a/5x5
I0403 21:46:25.633913 12771 net.cpp:425] inception_4a/5x5 <- inception_4a/5x5_reduce
I0403 21:46:25.633934 12771 net.cpp:399] inception_4a/5x5 -> inception_4a/5x5
I0403 21:46:25.634958 12771 net.cpp:141] Setting up inception_4a/5x5
I0403 21:46:25.634984 12771 net.cpp:148] Top shape: 24 48 14 14 (225792)
I0403 21:46:25.634999 12771 net.cpp:156] Memory required for data: 874568736
I0403 21:46:25.635017 12771 layer_factory.hpp:77] Creating layer inception_4a/relu_5x5
I0403 21:46:25.635035 12771 net.cpp:91] Creating Layer inception_4a/relu_5x5
I0403 21:46:25.635049 12771 net.cpp:425] inception_4a/relu_5x5 <- inception_4a/5x5
I0403 21:46:25.635068 12771 net.cpp:386] inception_4a/relu_5x5 -> inception_4a/5x5 (in-place)
I0403 21:46:25.635243 12771 net.cpp:141] Setting up inception_4a/relu_5x5
I0403 21:46:25.635268 12771 net.cpp:148] Top shape: 24 48 14 14 (225792)
I0403 21:46:25.635282 12771 net.cpp:156] Memory required for data: 875471904
I0403 21:46:25.635298 12771 layer_factory.hpp:77] Creating layer inception_4a/pool
I0403 21:46:25.635315 12771 net.cpp:91] Creating Layer inception_4a/pool
I0403 21:46:25.635332 12771 net.cpp:425] inception_4a/pool <- pool3/3x3_s2_pool3/3x3_s2_0_split_3
I0403 21:46:25.635349 12771 net.cpp:399] inception_4a/pool -> inception_4a/pool
I0403 21:46:25.635407 12771 net.cpp:141] Setting up inception_4a/pool
I0403 21:46:25.635431 12771 net.cpp:148] Top shape: 24 480 14 14 (2257920)
I0403 21:46:25.635444 12771 net.cpp:156] Memory required for data: 884503584
I0403 21:46:25.635458 12771 layer_factory.hpp:77] Creating layer inception_4a/pool_proj
I0403 21:46:25.635479 12771 net.cpp:91] Creating Layer inception_4a/pool_proj
I0403 21:46:25.635496 12771 net.cpp:425] inception_4a/pool_proj <- inception_4a/pool
I0403 21:46:25.635517 12771 net.cpp:399] inception_4a/pool_proj -> inception_4a/pool_proj
I0403 21:46:25.636612 12771 net.cpp:141] Setting up inception_4a/pool_proj
I0403 21:46:25.636641 12771 net.cpp:148] Top shape: 24 64 14 14 (301056)
I0403 21:46:25.636672 12771 net.cpp:156] Memory required for data: 885707808
I0403 21:46:25.636690 12771 layer_factory.hpp:77] Creating layer inception_4a/relu_pool_proj
I0403 21:46:25.636711 12771 net.cpp:91] Creating Layer inception_4a/relu_pool_proj
I0403 21:46:25.636728 12771 net.cpp:425] inception_4a/relu_pool_proj <- inception_4a/pool_proj
I0403 21:46:25.636744 12771 net.cpp:386] inception_4a/relu_pool_proj -> inception_4a/pool_proj (in-place)
I0403 21:46:25.637007 12771 net.cpp:141] Setting up inception_4a/relu_pool_proj
I0403 21:46:25.637032 12771 net.cpp:148] Top shape: 24 64 14 14 (301056)
I0403 21:46:25.637048 12771 net.cpp:156] Memory required for data: 886912032
I0403 21:46:25.637061 12771 layer_factory.hpp:77] Creating layer inception_4a/output
I0403 21:46:25.637079 12771 net.cpp:91] Creating Layer inception_4a/output
I0403 21:46:25.637094 12771 net.cpp:425] inception_4a/output <- inception_4a/1x1
I0403 21:46:25.637110 12771 net.cpp:425] inception_4a/output <- inception_4a/3x3
I0403 21:46:25.637128 12771 net.cpp:425] inception_4a/output <- inception_4a/5x5
I0403 21:46:25.637143 12771 net.cpp:425] inception_4a/output <- inception_4a/pool_proj
I0403 21:46:25.637161 12771 net.cpp:399] inception_4a/output -> inception_4a/output
I0403 21:46:25.637202 12771 net.cpp:141] Setting up inception_4a/output
I0403 21:46:25.637230 12771 net.cpp:148] Top shape: 24 512 14 14 (2408448)
I0403 21:46:25.637246 12771 net.cpp:156] Memory required for data: 896545824
I0403 21:46:25.637260 12771 layer_factory.hpp:77] Creating layer inception_4a/output_inception_4a/output_0_split
I0403 21:46:25.637277 12771 net.cpp:91] Creating Layer inception_4a/output_inception_4a/output_0_split
I0403 21:46:25.637293 12771 net.cpp:425] inception_4a/output_inception_4a/output_0_split <- inception_4a/output
I0403 21:46:25.637311 12771 net.cpp:399] inception_4a/output_inception_4a/output_0_split -> inception_4a/output_inception_4a/output_0_split_0
I0403 21:46:25.637331 12771 net.cpp:399] inception_4a/output_inception_4a/output_0_split -> inception_4a/output_inception_4a/output_0_split_1
I0403 21:46:25.637351 12771 net.cpp:399] inception_4a/output_inception_4a/output_0_split -> inception_4a/output_inception_4a/output_0_split_2
I0403 21:46:25.637372 12771 net.cpp:399] inception_4a/output_inception_4a/output_0_split -> inception_4a/output_inception_4a/output_0_split_3
I0403 21:46:25.637390 12771 net.cpp:399] inception_4a/output_inception_4a/output_0_split -> inception_4a/output_inception_4a/output_0_split_4
I0403 21:46:25.637476 12771 net.cpp:141] Setting up inception_4a/output_inception_4a/output_0_split
I0403 21:46:25.637498 12771 net.cpp:148] Top shape: 24 512 14 14 (2408448)
I0403 21:46:25.637516 12771 net.cpp:148] Top shape: 24 512 14 14 (2408448)
I0403 21:46:25.637534 12771 net.cpp:148] Top shape: 24 512 14 14 (2408448)
I0403 21:46:25.637550 12771 net.cpp:148] Top shape: 24 512 14 14 (2408448)
I0403 21:46:25.637564 12771 net.cpp:148] Top shape: 24 512 14 14 (2408448)
I0403 21:46:25.637578 12771 net.cpp:156] Memory required for data: 944714784
I0403 21:46:25.637593 12771 layer_factory.hpp:77] Creating layer loss1/ave_pool
I0403 21:46:25.637609 12771 net.cpp:91] Creating Layer loss1/ave_pool
I0403 21:46:25.637625 12771 net.cpp:425] loss1/ave_pool <- inception_4a/output_inception_4a/output_0_split_0
I0403 21:46:25.637645 12771 net.cpp:399] loss1/ave_pool -> loss1/ave_pool
I0403 21:46:25.637842 12771 net.cpp:141] Setting up loss1/ave_pool
I0403 21:46:25.637867 12771 net.cpp:148] Top shape: 24 512 4 4 (196608)
I0403 21:46:25.637881 12771 net.cpp:156] Memory required for data: 945501216
I0403 21:46:25.637897 12771 layer_factory.hpp:77] Creating layer loss1/conv
I0403 21:46:25.637917 12771 net.cpp:91] Creating Layer loss1/conv
I0403 21:46:25.637935 12771 net.cpp:425] loss1/conv <- loss1/ave_pool
I0403 21:46:25.637955 12771 net.cpp:399] loss1/conv -> loss1/conv
I0403 21:46:25.639284 12771 net.cpp:141] Setting up loss1/conv
I0403 21:46:25.639312 12771 net.cpp:148] Top shape: 24 128 4 4 (49152)
I0403 21:46:25.639327 12771 net.cpp:156] Memory required for data: 945697824
I0403 21:46:25.639358 12771 layer_factory.hpp:77] Creating layer loss1/relu_conv
I0403 21:46:25.639379 12771 net.cpp:91] Creating Layer loss1/relu_conv
I0403 21:46:25.639394 12771 net.cpp:425] loss1/relu_conv <- loss1/conv
I0403 21:46:25.639410 12771 net.cpp:386] loss1/relu_conv -> loss1/conv (in-place)
I0403 21:46:25.639672 12771 net.cpp:141] Setting up loss1/relu_conv
I0403 21:46:25.639696 12771 net.cpp:148] Top shape: 24 128 4 4 (49152)
I0403 21:46:25.639710 12771 net.cpp:156] Memory required for data: 945894432
I0403 21:46:25.639725 12771 layer_factory.hpp:77] Creating layer loss1/fc
I0403 21:46:25.639750 12771 net.cpp:91] Creating Layer loss1/fc
I0403 21:46:25.639768 12771 net.cpp:425] loss1/fc <- loss1/conv
I0403 21:46:25.639788 12771 net.cpp:399] loss1/fc -> loss1/fc
I0403 21:46:25.656874 12771 net.cpp:141] Setting up loss1/fc
I0403 21:46:25.656905 12771 net.cpp:148] Top shape: 24 1024 (24576)
I0403 21:46:25.656921 12771 net.cpp:156] Memory required for data: 945992736
I0403 21:46:25.656940 12771 layer_factory.hpp:77] Creating layer loss1/relu_fc
I0403 21:46:25.656957 12771 net.cpp:91] Creating Layer loss1/relu_fc
I0403 21:46:25.656973 12771 net.cpp:425] loss1/relu_fc <- loss1/fc
I0403 21:46:25.656991 12771 net.cpp:386] loss1/relu_fc -> loss1/fc (in-place)
I0403 21:46:25.657183 12771 net.cpp:141] Setting up loss1/relu_fc
I0403 21:46:25.657213 12771 net.cpp:148] Top shape: 24 1024 (24576)
I0403 21:46:25.657230 12771 net.cpp:156] Memory required for data: 946091040
I0403 21:46:25.657245 12771 layer_factory.hpp:77] Creating layer loss1/drop_fc
I0403 21:46:25.657271 12771 net.cpp:91] Creating Layer loss1/drop_fc
I0403 21:46:25.657289 12771 net.cpp:425] loss1/drop_fc <- loss1/fc
I0403 21:46:25.657306 12771 net.cpp:386] loss1/drop_fc -> loss1/fc (in-place)
I0403 21:46:25.657358 12771 net.cpp:141] Setting up loss1/drop_fc
I0403 21:46:25.657382 12771 net.cpp:148] Top shape: 24 1024 (24576)
I0403 21:46:25.657408 12771 net.cpp:156] Memory required for data: 946189344
I0403 21:46:25.657423 12771 layer_factory.hpp:77] Creating layer loss1/classifier_plantvillage
I0403 21:46:25.657441 12771 net.cpp:91] Creating Layer loss1/classifier_plantvillage
I0403 21:46:25.657457 12771 net.cpp:425] loss1/classifier_plantvillage <- loss1/fc
I0403 21:46:25.657490 12771 net.cpp:399] loss1/classifier_plantvillage -> loss1/classifier_plantvillage
I0403 21:46:25.658399 12771 net.cpp:141] Setting up loss1/classifier_plantvillage
I0403 21:46:25.658427 12771 net.cpp:148] Top shape: 24 38 (912)
I0403 21:46:25.658442 12771 net.cpp:156] Memory required for data: 946192992
I0403 21:46:25.658458 12771 layer_factory.hpp:77] Creating layer loss1/classifier_plantvillage_loss1/classifier_plantvillage_0_split
I0403 21:46:25.658478 12771 net.cpp:91] Creating Layer loss1/classifier_plantvillage_loss1/classifier_plantvillage_0_split
I0403 21:46:25.658494 12771 net.cpp:425] loss1/classifier_plantvillage_loss1/classifier_plantvillage_0_split <- loss1/classifier_plantvillage
I0403 21:46:25.658511 12771 net.cpp:399] loss1/classifier_plantvillage_loss1/classifier_plantvillage_0_split -> loss1/classifier_plantvillage_loss1/classifier_plantvillage_0_split_0
I0403 21:46:25.658531 12771 net.cpp:399] loss1/classifier_plantvillage_loss1/classifier_plantvillage_0_split -> loss1/classifier_plantvillage_loss1/classifier_plantvillage_0_split_1
I0403 21:46:25.658552 12771 net.cpp:399] loss1/classifier_plantvillage_loss1/classifier_plantvillage_0_split -> loss1/classifier_plantvillage_loss1/classifier_plantvillage_0_split_2
I0403 21:46:25.658618 12771 net.cpp:141] Setting up loss1/classifier_plantvillage_loss1/classifier_plantvillage_0_split
I0403 21:46:25.658640 12771 net.cpp:148] Top shape: 24 38 (912)
I0403 21:46:25.658658 12771 net.cpp:148] Top shape: 24 38 (912)
I0403 21:46:25.658671 12771 net.cpp:148] Top shape: 24 38 (912)
I0403 21:46:25.658686 12771 net.cpp:156] Memory required for data: 946203936
I0403 21:46:25.658701 12771 layer_factory.hpp:77] Creating layer inception_4b/1x1
I0403 21:46:25.658722 12771 net.cpp:91] Creating Layer inception_4b/1x1
I0403 21:46:25.658754 12771 net.cpp:425] inception_4b/1x1 <- inception_4a/output_inception_4a/output_0_split_1
I0403 21:46:25.658773 12771 net.cpp:399] inception_4b/1x1 -> inception_4b/1x1
I0403 21:46:25.660300 12771 net.cpp:141] Setting up inception_4b/1x1
I0403 21:46:25.660326 12771 net.cpp:148] Top shape: 24 160 14 14 (752640)
I0403 21:46:25.660341 12771 net.cpp:156] Memory required for data: 949214496
I0403 21:46:25.660358 12771 layer_factory.hpp:77] Creating layer inception_4b/relu_1x1
I0403 21:46:25.660378 12771 net.cpp:91] Creating Layer inception_4b/relu_1x1
I0403 21:46:25.660394 12771 net.cpp:425] inception_4b/relu_1x1 <- inception_4b/1x1
I0403 21:46:25.660411 12771 net.cpp:386] inception_4b/relu_1x1 -> inception_4b/1x1 (in-place)
I0403 21:46:25.660583 12771 net.cpp:141] Setting up inception_4b/relu_1x1
I0403 21:46:25.660609 12771 net.cpp:148] Top shape: 24 160 14 14 (752640)
I0403 21:46:25.660622 12771 net.cpp:156] Memory required for data: 952225056
I0403 21:46:25.660637 12771 layer_factory.hpp:77] Creating layer inception_4b/3x3_reduce
I0403 21:46:25.660658 12771 net.cpp:91] Creating Layer inception_4b/3x3_reduce
I0403 21:46:25.660676 12771 net.cpp:425] inception_4b/3x3_reduce <- inception_4a/output_inception_4a/output_0_split_2
I0403 21:46:25.660696 12771 net.cpp:399] inception_4b/3x3_reduce -> inception_4b/3x3_reduce
I0403 21:46:25.661967 12771 net.cpp:141] Setting up inception_4b/3x3_reduce
I0403 21:46:25.661993 12771 net.cpp:148] Top shape: 24 112 14 14 (526848)
I0403 21:46:25.662009 12771 net.cpp:156] Memory required for data: 954332448
I0403 21:46:25.662027 12771 layer_factory.hpp:77] Creating layer inception_4b/relu_3x3_reduce
I0403 21:46:25.662045 12771 net.cpp:91] Creating Layer inception_4b/relu_3x3_reduce
I0403 21:46:25.662060 12771 net.cpp:425] inception_4b/relu_3x3_reduce <- inception_4b/3x3_reduce
I0403 21:46:25.662080 12771 net.cpp:386] inception_4b/relu_3x3_reduce -> inception_4b/3x3_reduce (in-place)
I0403 21:46:25.662387 12771 net.cpp:141] Setting up inception_4b/relu_3x3_reduce
I0403 21:46:25.662413 12771 net.cpp:148] Top shape: 24 112 14 14 (526848)
I0403 21:46:25.662428 12771 net.cpp:156] Memory required for data: 956439840
I0403 21:46:25.662442 12771 layer_factory.hpp:77] Creating layer inception_4b/3x3
I0403 21:46:25.662464 12771 net.cpp:91] Creating Layer inception_4b/3x3
I0403 21:46:25.662482 12771 net.cpp:425] inception_4b/3x3 <- inception_4b/3x3_reduce
I0403 21:46:25.662503 12771 net.cpp:399] inception_4b/3x3 -> inception_4b/3x3
I0403 21:46:25.665426 12771 net.cpp:141] Setting up inception_4b/3x3
I0403 21:46:25.665455 12771 net.cpp:148] Top shape: 24 224 14 14 (1053696)
I0403 21:46:25.665472 12771 net.cpp:156] Memory required for data: 960654624
I0403 21:46:25.665490 12771 layer_factory.hpp:77] Creating layer inception_4b/relu_3x3
I0403 21:46:25.665515 12771 net.cpp:91] Creating Layer inception_4b/relu_3x3
I0403 21:46:25.665532 12771 net.cpp:425] inception_4b/relu_3x3 <- inception_4b/3x3
I0403 21:46:25.665550 12771 net.cpp:386] inception_4b/relu_3x3 -> inception_4b/3x3 (in-place)
I0403 21:46:25.665724 12771 net.cpp:141] Setting up inception_4b/relu_3x3
I0403 21:46:25.665751 12771 net.cpp:148] Top shape: 24 224 14 14 (1053696)
I0403 21:46:25.665766 12771 net.cpp:156] Memory required for data: 964869408
I0403 21:46:25.665781 12771 layer_factory.hpp:77] Creating layer inception_4b/5x5_reduce
I0403 21:46:25.665805 12771 net.cpp:91] Creating Layer inception_4b/5x5_reduce
I0403 21:46:25.665824 12771 net.cpp:425] inception_4b/5x5_reduce <- inception_4a/output_inception_4a/output_0_split_3
I0403 21:46:25.665843 12771 net.cpp:399] inception_4b/5x5_reduce -> inception_4b/5x5_reduce
I0403 21:46:25.666905 12771 net.cpp:141] Setting up inception_4b/5x5_reduce
I0403 21:46:25.666935 12771 net.cpp:148] Top shape: 24 24 14 14 (112896)
I0403 21:46:25.666952 12771 net.cpp:156] Memory required for data: 965320992
I0403 21:46:25.666970 12771 layer_factory.hpp:77] Creating layer inception_4b/relu_5x5_reduce
I0403 21:46:25.666990 12771 net.cpp:91] Creating Layer inception_4b/relu_5x5_reduce
I0403 21:46:25.667021 12771 net.cpp:425] inception_4b/relu_5x5_reduce <- inception_4b/5x5_reduce
I0403 21:46:25.667037 12771 net.cpp:386] inception_4b/relu_5x5_reduce -> inception_4b/5x5_reduce (in-place)
I0403 21:46:25.667222 12771 net.cpp:141] Setting up inception_4b/relu_5x5_reduce
I0403 21:46:25.667245 12771 net.cpp:148] Top shape: 24 24 14 14 (112896)
I0403 21:46:25.667261 12771 net.cpp:156] Memory required for data: 965772576
I0403 21:46:25.667276 12771 layer_factory.hpp:77] Creating layer inception_4b/5x5
I0403 21:46:25.667299 12771 net.cpp:91] Creating Layer inception_4b/5x5
I0403 21:46:25.667315 12771 net.cpp:425] inception_4b/5x5 <- inception_4b/5x5_reduce
I0403 21:46:25.667336 12771 net.cpp:399] inception_4b/5x5 -> inception_4b/5x5
I0403 21:46:25.668530 12771 net.cpp:141] Setting up inception_4b/5x5
I0403 21:46:25.668558 12771 net.cpp:148] Top shape: 24 64 14 14 (301056)
I0403 21:46:25.668573 12771 net.cpp:156] Memory required for data: 966976800
I0403 21:46:25.668592 12771 layer_factory.hpp:77] Creating layer inception_4b/relu_5x5
I0403 21:46:25.668612 12771 net.cpp:91] Creating Layer inception_4b/relu_5x5
I0403 21:46:25.668629 12771 net.cpp:425] inception_4b/relu_5x5 <- inception_4b/5x5
I0403 21:46:25.668647 12771 net.cpp:386] inception_4b/relu_5x5 -> inception_4b/5x5 (in-place)
I0403 21:46:25.668926 12771 net.cpp:141] Setting up inception_4b/relu_5x5
I0403 21:46:25.668951 12771 net.cpp:148] Top shape: 24 64 14 14 (301056)
I0403 21:46:25.668967 12771 net.cpp:156] Memory required for data: 968181024
I0403 21:46:25.668982 12771 layer_factory.hpp:77] Creating layer inception_4b/pool
I0403 21:46:25.669004 12771 net.cpp:91] Creating Layer inception_4b/pool
I0403 21:46:25.669023 12771 net.cpp:425] inception_4b/pool <- inception_4a/output_inception_4a/output_0_split_4
I0403 21:46:25.669040 12771 net.cpp:399] inception_4b/pool -> inception_4b/pool
I0403 21:46:25.669105 12771 net.cpp:141] Setting up inception_4b/pool
I0403 21:46:25.669128 12771 net.cpp:148] Top shape: 24 512 14 14 (2408448)
I0403 21:46:25.669142 12771 net.cpp:156] Memory required for data: 977814816
I0403 21:46:25.669157 12771 layer_factory.hpp:77] Creating layer inception_4b/pool_proj
I0403 21:46:25.669178 12771 net.cpp:91] Creating Layer inception_4b/pool_proj
I0403 21:46:25.669195 12771 net.cpp:425] inception_4b/pool_proj <- inception_4b/pool
I0403 21:46:25.669221 12771 net.cpp:399] inception_4b/pool_proj -> inception_4b/pool_proj
I0403 21:46:25.670390 12771 net.cpp:141] Setting up inception_4b/pool_proj
I0403 21:46:25.670420 12771 net.cpp:148] Top shape: 24 64 14 14 (301056)
I0403 21:46:25.670438 12771 net.cpp:156] Memory required for data: 979019040
I0403 21:46:25.670455 12771 layer_factory.hpp:77] Creating layer inception_4b/relu_pool_proj
I0403 21:46:25.670475 12771 net.cpp:91] Creating Layer inception_4b/relu_pool_proj
I0403 21:46:25.670491 12771 net.cpp:425] inception_4b/relu_pool_proj <- inception_4b/pool_proj
I0403 21:46:25.670511 12771 net.cpp:386] inception_4b/relu_pool_proj -> inception_4b/pool_proj (in-place)
I0403 21:46:25.670686 12771 net.cpp:141] Setting up inception_4b/relu_pool_proj
I0403 21:46:25.670711 12771 net.cpp:148] Top shape: 24 64 14 14 (301056)
I0403 21:46:25.670724 12771 net.cpp:156] Memory required for data: 980223264
I0403 21:46:25.670739 12771 layer_factory.hpp:77] Creating layer inception_4b/output
I0403 21:46:25.670758 12771 net.cpp:91] Creating Layer inception_4b/output
I0403 21:46:25.670773 12771 net.cpp:425] inception_4b/output <- inception_4b/1x1
I0403 21:46:25.670789 12771 net.cpp:425] inception_4b/output <- inception_4b/3x3
I0403 21:46:25.670806 12771 net.cpp:425] inception_4b/output <- inception_4b/5x5
I0403 21:46:25.670821 12771 net.cpp:425] inception_4b/output <- inception_4b/pool_proj
I0403 21:46:25.670841 12771 net.cpp:399] inception_4b/output -> inception_4b/output
I0403 21:46:25.670884 12771 net.cpp:141] Setting up inception_4b/output
I0403 21:46:25.670910 12771 net.cpp:148] Top shape: 24 512 14 14 (2408448)
I0403 21:46:25.670928 12771 net.cpp:156] Memory required for data: 989857056
I0403 21:46:25.670956 12771 layer_factory.hpp:77] Creating layer inception_4b/output_inception_4b/output_0_split
I0403 21:46:25.670974 12771 net.cpp:91] Creating Layer inception_4b/output_inception_4b/output_0_split
I0403 21:46:25.670989 12771 net.cpp:425] inception_4b/output_inception_4b/output_0_split <- inception_4b/output
I0403 21:46:25.671005 12771 net.cpp:399] inception_4b/output_inception_4b/output_0_split -> inception_4b/output_inception_4b/output_0_split_0
I0403 21:46:25.671030 12771 net.cpp:399] inception_4b/output_inception_4b/output_0_split -> inception_4b/output_inception_4b/output_0_split_1
I0403 21:46:25.671049 12771 net.cpp:399] inception_4b/output_inception_4b/output_0_split -> inception_4b/output_inception_4b/output_0_split_2
I0403 21:46:25.671072 12771 net.cpp:399] inception_4b/output_inception_4b/output_0_split -> inception_4b/output_inception_4b/output_0_split_3
I0403 21:46:25.671154 12771 net.cpp:141] Setting up inception_4b/output_inception_4b/output_0_split
I0403 21:46:25.671177 12771 net.cpp:148] Top shape: 24 512 14 14 (2408448)
I0403 21:46:25.671195 12771 net.cpp:148] Top shape: 24 512 14 14 (2408448)
I0403 21:46:25.671213 12771 net.cpp:148] Top shape: 24 512 14 14 (2408448)
I0403 21:46:25.671231 12771 net.cpp:148] Top shape: 24 512 14 14 (2408448)
I0403 21:46:25.671247 12771 net.cpp:156] Memory required for data: 1028392224
I0403 21:46:25.671262 12771 layer_factory.hpp:77] Creating layer inception_4c/1x1
I0403 21:46:25.671284 12771 net.cpp:91] Creating Layer inception_4c/1x1
I0403 21:46:25.671303 12771 net.cpp:425] inception_4c/1x1 <- inception_4b/output_inception_4b/output_0_split_0
I0403 21:46:25.671320 12771 net.cpp:399] inception_4c/1x1 -> inception_4c/1x1
I0403 21:46:25.672720 12771 net.cpp:141] Setting up inception_4c/1x1
I0403 21:46:25.672749 12771 net.cpp:148] Top shape: 24 128 14 14 (602112)
I0403 21:46:25.672765 12771 net.cpp:156] Memory required for data: 1030800672
I0403 21:46:25.672783 12771 layer_factory.hpp:77] Creating layer inception_4c/relu_1x1
I0403 21:46:25.672802 12771 net.cpp:91] Creating Layer inception_4c/relu_1x1
I0403 21:46:25.672817 12771 net.cpp:425] inception_4c/relu_1x1 <- inception_4c/1x1
I0403 21:46:25.672835 12771 net.cpp:386] inception_4c/relu_1x1 -> inception_4c/1x1 (in-place)
I0403 21:46:25.673010 12771 net.cpp:141] Setting up inception_4c/relu_1x1
I0403 21:46:25.673035 12771 net.cpp:148] Top shape: 24 128 14 14 (602112)
I0403 21:46:25.673050 12771 net.cpp:156] Memory required for data: 1033209120
I0403 21:46:25.673064 12771 layer_factory.hpp:77] Creating layer inception_4c/3x3_reduce
I0403 21:46:25.673086 12771 net.cpp:91] Creating Layer inception_4c/3x3_reduce
I0403 21:46:25.673105 12771 net.cpp:425] inception_4c/3x3_reduce <- inception_4b/output_inception_4b/output_0_split_1
I0403 21:46:25.673126 12771 net.cpp:399] inception_4c/3x3_reduce -> inception_4c/3x3_reduce
I0403 21:46:25.675043 12771 net.cpp:141] Setting up inception_4c/3x3_reduce
I0403 21:46:25.675074 12771 net.cpp:148] Top shape: 24 128 14 14 (602112)
I0403 21:46:25.675091 12771 net.cpp:156] Memory required for data: 1035617568
I0403 21:46:25.675110 12771 layer_factory.hpp:77] Creating layer inception_4c/relu_3x3_reduce
I0403 21:46:25.675127 12771 net.cpp:91] Creating Layer inception_4c/relu_3x3_reduce
I0403 21:46:25.675144 12771 net.cpp:425] inception_4c/relu_3x3_reduce <- inception_4c/3x3_reduce
I0403 21:46:25.675163 12771 net.cpp:386] inception_4c/relu_3x3_reduce -> inception_4c/3x3_reduce (in-place)
I0403 21:46:25.675446 12771 net.cpp:141] Setting up inception_4c/relu_3x3_reduce
I0403 21:46:25.675474 12771 net.cpp:148] Top shape: 24 128 14 14 (602112)
I0403 21:46:25.675490 12771 net.cpp:156] Memory required for data: 1038026016
I0403 21:46:25.675505 12771 layer_factory.hpp:77] Creating layer inception_4c/3x3
I0403 21:46:25.675525 12771 net.cpp:91] Creating Layer inception_4c/3x3
I0403 21:46:25.675544 12771 net.cpp:425] inception_4c/3x3 <- inception_4c/3x3_reduce
I0403 21:46:25.675565 12771 net.cpp:399] inception_4c/3x3 -> inception_4c/3x3
I0403 21:46:25.679169 12771 net.cpp:141] Setting up inception_4c/3x3
I0403 21:46:25.679215 12771 net.cpp:148] Top shape: 24 256 14 14 (1204224)
I0403 21:46:25.679234 12771 net.cpp:156] Memory required for data: 1042842912
I0403 21:46:25.679267 12771 layer_factory.hpp:77] Creating layer inception_4c/relu_3x3
I0403 21:46:25.679288 12771 net.cpp:91] Creating Layer inception_4c/relu_3x3
I0403 21:46:25.679306 12771 net.cpp:425] inception_4c/relu_3x3 <- inception_4c/3x3
I0403 21:46:25.679324 12771 net.cpp:386] inception_4c/relu_3x3 -> inception_4c/3x3 (in-place)
I0403 21:46:25.679504 12771 net.cpp:141] Setting up inception_4c/relu_3x3
I0403 21:46:25.679530 12771 net.cpp:148] Top shape: 24 256 14 14 (1204224)
I0403 21:46:25.679546 12771 net.cpp:156] Memory required for data: 1047659808
I0403 21:46:25.679561 12771 layer_factory.hpp:77] Creating layer inception_4c/5x5_reduce
I0403 21:46:25.679585 12771 net.cpp:91] Creating Layer inception_4c/5x5_reduce
I0403 21:46:25.679603 12771 net.cpp:425] inception_4c/5x5_reduce <- inception_4b/output_inception_4b/output_0_split_2
I0403 21:46:25.679623 12771 net.cpp:399] inception_4c/5x5_reduce -> inception_4c/5x5_reduce
I0403 21:46:25.680726 12771 net.cpp:141] Setting up inception_4c/5x5_reduce
I0403 21:46:25.680755 12771 net.cpp:148] Top shape: 24 24 14 14 (112896)
I0403 21:46:25.680771 12771 net.cpp:156] Memory required for data: 1048111392
I0403 21:46:25.680790 12771 layer_factory.hpp:77] Creating layer inception_4c/relu_5x5_reduce
I0403 21:46:25.680807 12771 net.cpp:91] Creating Layer inception_4c/relu_5x5_reduce
I0403 21:46:25.680824 12771 net.cpp:425] inception_4c/relu_5x5_reduce <- inception_4c/5x5_reduce
I0403 21:46:25.680840 12771 net.cpp:386] inception_4c/relu_5x5_reduce -> inception_4c/5x5_reduce (in-place)
I0403 21:46:25.681015 12771 net.cpp:141] Setting up inception_4c/relu_5x5_reduce
I0403 21:46:25.681041 12771 net.cpp:148] Top shape: 24 24 14 14 (112896)
I0403 21:46:25.681054 12771 net.cpp:156] Memory required for data: 1048562976
I0403 21:46:25.681071 12771 layer_factory.hpp:77] Creating layer inception_4c/5x5
I0403 21:46:25.681092 12771 net.cpp:91] Creating Layer inception_4c/5x5
I0403 21:46:25.681107 12771 net.cpp:425] inception_4c/5x5 <- inception_4c/5x5_reduce
I0403 21:46:25.681128 12771 net.cpp:399] inception_4c/5x5 -> inception_4c/5x5
I0403 21:46:25.682325 12771 net.cpp:141] Setting up inception_4c/5x5
I0403 21:46:25.682353 12771 net.cpp:148] Top shape: 24 64 14 14 (301056)
I0403 21:46:25.682368 12771 net.cpp:156] Memory required for data: 1049767200
I0403 21:46:25.682386 12771 layer_factory.hpp:77] Creating layer inception_4c/relu_5x5
I0403 21:46:25.682404 12771 net.cpp:91] Creating Layer inception_4c/relu_5x5
I0403 21:46:25.682418 12771 net.cpp:425] inception_4c/relu_5x5 <- inception_4c/5x5
I0403 21:46:25.682438 12771 net.cpp:386] inception_4c/relu_5x5 -> inception_4c/5x5 (in-place)
I0403 21:46:25.682716 12771 net.cpp:141] Setting up inception_4c/relu_5x5
I0403 21:46:25.682742 12771 net.cpp:148] Top shape: 24 64 14 14 (301056)
I0403 21:46:25.682757 12771 net.cpp:156] Memory required for data: 1050971424
I0403 21:46:25.682771 12771 layer_factory.hpp:77] Creating layer inception_4c/pool
I0403 21:46:25.682787 12771 net.cpp:91] Creating Layer inception_4c/pool
I0403 21:46:25.682802 12771 net.cpp:425] inception_4c/pool <- inception_4b/output_inception_4b/output_0_split_3
I0403 21:46:25.682826 12771 net.cpp:399] inception_4c/pool -> inception_4c/pool
I0403 21:46:25.682890 12771 net.cpp:141] Setting up inception_4c/pool
I0403 21:46:25.682914 12771 net.cpp:148] Top shape: 24 512 14 14 (2408448)
I0403 21:46:25.682929 12771 net.cpp:156] Memory required for data: 1060605216
I0403 21:46:25.682942 12771 layer_factory.hpp:77] Creating layer inception_4c/pool_proj
I0403 21:46:25.682965 12771 net.cpp:91] Creating Layer inception_4c/pool_proj
I0403 21:46:25.682982 12771 net.cpp:425] inception_4c/pool_proj <- inception_4c/pool
I0403 21:46:25.683001 12771 net.cpp:399] inception_4c/pool_proj -> inception_4c/pool_proj
I0403 21:46:25.684162 12771 net.cpp:141] Setting up inception_4c/pool_proj
I0403 21:46:25.684192 12771 net.cpp:148] Top shape: 24 64 14 14 (301056)
I0403 21:46:25.684226 12771 net.cpp:156] Memory required for data: 1061809440
I0403 21:46:25.684244 12771 layer_factory.hpp:77] Creating layer inception_4c/relu_pool_proj
I0403 21:46:25.684262 12771 net.cpp:91] Creating Layer inception_4c/relu_pool_proj
I0403 21:46:25.684278 12771 net.cpp:425] inception_4c/relu_pool_proj <- inception_4c/pool_proj
I0403 21:46:25.684298 12771 net.cpp:386] inception_4c/relu_pool_proj -> inception_4c/pool_proj (in-place)
I0403 21:46:25.684469 12771 net.cpp:141] Setting up inception_4c/relu_pool_proj
I0403 21:46:25.684494 12771 net.cpp:148] Top shape: 24 64 14 14 (301056)
I0403 21:46:25.684509 12771 net.cpp:156] Memory required for data: 1063013664
I0403 21:46:25.684523 12771 layer_factory.hpp:77] Creating layer inception_4c/output
I0403 21:46:25.684540 12771 net.cpp:91] Creating Layer inception_4c/output
I0403 21:46:25.684556 12771 net.cpp:425] inception_4c/output <- inception_4c/1x1
I0403 21:46:25.684573 12771 net.cpp:425] inception_4c/output <- inception_4c/3x3
I0403 21:46:25.684588 12771 net.cpp:425] inception_4c/output <- inception_4c/5x5
I0403 21:46:25.684603 12771 net.cpp:425] inception_4c/output <- inception_4c/pool_proj
I0403 21:46:25.684623 12771 net.cpp:399] inception_4c/output -> inception_4c/output
I0403 21:46:25.684666 12771 net.cpp:141] Setting up inception_4c/output
I0403 21:46:25.684691 12771 net.cpp:148] Top shape: 24 512 14 14 (2408448)
I0403 21:46:25.684707 12771 net.cpp:156] Memory required for data: 1072647456
I0403 21:46:25.684721 12771 layer_factory.hpp:77] Creating layer inception_4c/output_inception_4c/output_0_split
I0403 21:46:25.684738 12771 net.cpp:91] Creating Layer inception_4c/output_inception_4c/output_0_split
I0403 21:46:25.684753 12771 net.cpp:425] inception_4c/output_inception_4c/output_0_split <- inception_4c/output
I0403 21:46:25.684772 12771 net.cpp:399] inception_4c/output_inception_4c/output_0_split -> inception_4c/output_inception_4c/output_0_split_0
I0403 21:46:25.684790 12771 net.cpp:399] inception_4c/output_inception_4c/output_0_split -> inception_4c/output_inception_4c/output_0_split_1
I0403 21:46:25.684813 12771 net.cpp:399] inception_4c/output_inception_4c/output_0_split -> inception_4c/output_inception_4c/output_0_split_2
I0403 21:46:25.684834 12771 net.cpp:399] inception_4c/output_inception_4c/output_0_split -> inception_4c/output_inception_4c/output_0_split_3
I0403 21:46:25.684916 12771 net.cpp:141] Setting up inception_4c/output_inception_4c/output_0_split
I0403 21:46:25.684938 12771 net.cpp:148] Top shape: 24 512 14 14 (2408448)
I0403 21:46:25.684954 12771 net.cpp:148] Top shape: 24 512 14 14 (2408448)
I0403 21:46:25.684970 12771 net.cpp:148] Top shape: 24 512 14 14 (2408448)
I0403 21:46:25.684986 12771 net.cpp:148] Top shape: 24 512 14 14 (2408448)
I0403 21:46:25.685000 12771 net.cpp:156] Memory required for data: 1111182624
I0403 21:46:25.685014 12771 layer_factory.hpp:77] Creating layer inception_4d/1x1
I0403 21:46:25.685035 12771 net.cpp:91] Creating Layer inception_4d/1x1
I0403 21:46:25.685052 12771 net.cpp:425] inception_4d/1x1 <- inception_4c/output_inception_4c/output_0_split_0
I0403 21:46:25.685072 12771 net.cpp:399] inception_4d/1x1 -> inception_4d/1x1
I0403 21:46:25.686381 12771 net.cpp:141] Setting up inception_4d/1x1
I0403 21:46:25.686408 12771 net.cpp:148] Top shape: 24 112 14 14 (526848)
I0403 21:46:25.686424 12771 net.cpp:156] Memory required for data: 1113290016
I0403 21:46:25.686441 12771 layer_factory.hpp:77] Creating layer inception_4d/relu_1x1
I0403 21:46:25.686461 12771 net.cpp:91] Creating Layer inception_4d/relu_1x1
I0403 21:46:25.686478 12771 net.cpp:425] inception_4d/relu_1x1 <- inception_4d/1x1
I0403 21:46:25.686496 12771 net.cpp:386] inception_4d/relu_1x1 -> inception_4d/1x1 (in-place)
I0403 21:46:25.686676 12771 net.cpp:141] Setting up inception_4d/relu_1x1
I0403 21:46:25.686702 12771 net.cpp:148] Top shape: 24 112 14 14 (526848)
I0403 21:46:25.686718 12771 net.cpp:156] Memory required for data: 1115397408
I0403 21:46:25.686733 12771 layer_factory.hpp:77] Creating layer inception_4d/3x3_reduce
I0403 21:46:25.686767 12771 net.cpp:91] Creating Layer inception_4d/3x3_reduce
I0403 21:46:25.686786 12771 net.cpp:425] inception_4d/3x3_reduce <- inception_4c/output_inception_4c/output_0_split_1
I0403 21:46:25.686805 12771 net.cpp:399] inception_4d/3x3_reduce -> inception_4d/3x3_reduce
I0403 21:46:25.688240 12771 net.cpp:141] Setting up inception_4d/3x3_reduce
I0403 21:46:25.688266 12771 net.cpp:148] Top shape: 24 144 14 14 (677376)
I0403 21:46:25.688282 12771 net.cpp:156] Memory required for data: 1118106912
I0403 21:46:25.688300 12771 layer_factory.hpp:77] Creating layer inception_4d/relu_3x3_reduce
I0403 21:46:25.688319 12771 net.cpp:91] Creating Layer inception_4d/relu_3x3_reduce
I0403 21:46:25.688336 12771 net.cpp:425] inception_4d/relu_3x3_reduce <- inception_4d/3x3_reduce
I0403 21:46:25.688354 12771 net.cpp:386] inception_4d/relu_3x3_reduce -> inception_4d/3x3_reduce (in-place)
I0403 21:46:25.688626 12771 net.cpp:141] Setting up inception_4d/relu_3x3_reduce
I0403 21:46:25.688652 12771 net.cpp:148] Top shape: 24 144 14 14 (677376)
I0403 21:46:25.688665 12771 net.cpp:156] Memory required for data: 1120816416
I0403 21:46:25.688680 12771 layer_factory.hpp:77] Creating layer inception_4d/3x3
I0403 21:46:25.688702 12771 net.cpp:91] Creating Layer inception_4d/3x3
I0403 21:46:25.688719 12771 net.cpp:425] inception_4d/3x3 <- inception_4d/3x3_reduce
I0403 21:46:25.688740 12771 net.cpp:399] inception_4d/3x3 -> inception_4d/3x3
I0403 21:46:25.692838 12771 net.cpp:141] Setting up inception_4d/3x3
I0403 21:46:25.692867 12771 net.cpp:148] Top shape: 24 288 14 14 (1354752)
I0403 21:46:25.692881 12771 net.cpp:156] Memory required for data: 1126235424
I0403 21:46:25.692899 12771 layer_factory.hpp:77] Creating layer inception_4d/relu_3x3
I0403 21:46:25.692920 12771 net.cpp:91] Creating Layer inception_4d/relu_3x3
I0403 21:46:25.692936 12771 net.cpp:425] inception_4d/relu_3x3 <- inception_4d/3x3
I0403 21:46:25.692952 12771 net.cpp:386] inception_4d/relu_3x3 -> inception_4d/3x3 (in-place)
I0403 21:46:25.693127 12771 net.cpp:141] Setting up inception_4d/relu_3x3
I0403 21:46:25.693153 12771 net.cpp:148] Top shape: 24 288 14 14 (1354752)
I0403 21:46:25.693169 12771 net.cpp:156] Memory required for data: 1131654432
I0403 21:46:25.693184 12771 layer_factory.hpp:77] Creating layer inception_4d/5x5_reduce
I0403 21:46:25.693205 12771 net.cpp:91] Creating Layer inception_4d/5x5_reduce
I0403 21:46:25.693228 12771 net.cpp:425] inception_4d/5x5_reduce <- inception_4c/output_inception_4c/output_0_split_2
I0403 21:46:25.693248 12771 net.cpp:399] inception_4d/5x5_reduce -> inception_4d/5x5_reduce
I0403 21:46:25.694334 12771 net.cpp:141] Setting up inception_4d/5x5_reduce
I0403 21:46:25.694360 12771 net.cpp:148] Top shape: 24 32 14 14 (150528)
I0403 21:46:25.694375 12771 net.cpp:156] Memory required for data: 1132256544
I0403 21:46:25.694393 12771 layer_factory.hpp:77] Creating layer inception_4d/relu_5x5_reduce
I0403 21:46:25.694413 12771 net.cpp:91] Creating Layer inception_4d/relu_5x5_reduce
I0403 21:46:25.694430 12771 net.cpp:425] inception_4d/relu_5x5_reduce <- inception_4d/5x5_reduce
I0403 21:46:25.694447 12771 net.cpp:386] inception_4d/relu_5x5_reduce -> inception_4d/5x5_reduce (in-place)
I0403 21:46:25.694625 12771 net.cpp:141] Setting up inception_4d/relu_5x5_reduce
I0403 21:46:25.694653 12771 net.cpp:148] Top shape: 24 32 14 14 (150528)
I0403 21:46:25.694670 12771 net.cpp:156] Memory required for data: 1132858656
I0403 21:46:25.694684 12771 layer_factory.hpp:77] Creating layer inception_4d/5x5
I0403 21:46:25.694705 12771 net.cpp:91] Creating Layer inception_4d/5x5
I0403 21:46:25.694722 12771 net.cpp:425] inception_4d/5x5 <- inception_4d/5x5_reduce
I0403 21:46:25.694741 12771 net.cpp:399] inception_4d/5x5 -> inception_4d/5x5
I0403 21:46:25.696138 12771 net.cpp:141] Setting up inception_4d/5x5
I0403 21:46:25.696166 12771 net.cpp:148] Top shape: 24 64 14 14 (301056)
I0403 21:46:25.696182 12771 net.cpp:156] Memory required for data: 1134062880
I0403 21:46:25.696202 12771 layer_factory.hpp:77] Creating layer inception_4d/relu_5x5
I0403 21:46:25.696238 12771 net.cpp:91] Creating Layer inception_4d/relu_5x5
I0403 21:46:25.696255 12771 net.cpp:425] inception_4d/relu_5x5 <- inception_4d/5x5
I0403 21:46:25.696274 12771 net.cpp:386] inception_4d/relu_5x5 -> inception_4d/5x5 (in-place)
I0403 21:46:25.696563 12771 net.cpp:141] Setting up inception_4d/relu_5x5
I0403 21:46:25.696588 12771 net.cpp:148] Top shape: 24 64 14 14 (301056)
I0403 21:46:25.696602 12771 net.cpp:156] Memory required for data: 1135267104
I0403 21:46:25.696616 12771 layer_factory.hpp:77] Creating layer inception_4d/pool
I0403 21:46:25.696635 12771 net.cpp:91] Creating Layer inception_4d/pool
I0403 21:46:25.696650 12771 net.cpp:425] inception_4d/pool <- inception_4c/output_inception_4c/output_0_split_3
I0403 21:46:25.696669 12771 net.cpp:399] inception_4d/pool -> inception_4d/pool
I0403 21:46:25.696732 12771 net.cpp:141] Setting up inception_4d/pool
I0403 21:46:25.696756 12771 net.cpp:148] Top shape: 24 512 14 14 (2408448)
I0403 21:46:25.696770 12771 net.cpp:156] Memory required for data: 1144900896
I0403 21:46:25.696785 12771 layer_factory.hpp:77] Creating layer inception_4d/pool_proj
I0403 21:46:25.696807 12771 net.cpp:91] Creating Layer inception_4d/pool_proj
I0403 21:46:25.696826 12771 net.cpp:425] inception_4d/pool_proj <- inception_4d/pool
I0403 21:46:25.696843 12771 net.cpp:399] inception_4d/pool_proj -> inception_4d/pool_proj
I0403 21:46:25.698567 12771 net.cpp:141] Setting up inception_4d/pool_proj
I0403 21:46:25.698595 12771 net.cpp:148] Top shape: 24 64 14 14 (301056)
I0403 21:46:25.698611 12771 net.cpp:156] Memory required for data: 1146105120
I0403 21:46:25.698627 12771 layer_factory.hpp:77] Creating layer inception_4d/relu_pool_proj
I0403 21:46:25.698647 12771 net.cpp:91] Creating Layer inception_4d/relu_pool_proj
I0403 21:46:25.698664 12771 net.cpp:425] inception_4d/relu_pool_proj <- inception_4d/pool_proj
I0403 21:46:25.698683 12771 net.cpp:386] inception_4d/relu_pool_proj -> inception_4d/pool_proj (in-place)
I0403 21:46:25.698858 12771 net.cpp:141] Setting up inception_4d/relu_pool_proj
I0403 21:46:25.698885 12771 net.cpp:148] Top shape: 24 64 14 14 (301056)
I0403 21:46:25.698899 12771 net.cpp:156] Memory required for data: 1147309344
I0403 21:46:25.698915 12771 layer_factory.hpp:77] Creating layer inception_4d/output
I0403 21:46:25.698931 12771 net.cpp:91] Creating Layer inception_4d/output
I0403 21:46:25.698946 12771 net.cpp:425] inception_4d/output <- inception_4d/1x1
I0403 21:46:25.698961 12771 net.cpp:425] inception_4d/output <- inception_4d/3x3
I0403 21:46:25.698977 12771 net.cpp:425] inception_4d/output <- inception_4d/5x5
I0403 21:46:25.698992 12771 net.cpp:425] inception_4d/output <- inception_4d/pool_proj
I0403 21:46:25.699010 12771 net.cpp:399] inception_4d/output -> inception_4d/output
I0403 21:46:25.699057 12771 net.cpp:141] Setting up inception_4d/output
I0403 21:46:25.699079 12771 net.cpp:148] Top shape: 24 528 14 14 (2483712)
I0403 21:46:25.699093 12771 net.cpp:156] Memory required for data: 1157244192
I0403 21:46:25.699108 12771 layer_factory.hpp:77] Creating layer inception_4d/output_inception_4d/output_0_split
I0403 21:46:25.699127 12771 net.cpp:91] Creating Layer inception_4d/output_inception_4d/output_0_split
I0403 21:46:25.699143 12771 net.cpp:425] inception_4d/output_inception_4d/output_0_split <- inception_4d/output
I0403 21:46:25.699161 12771 net.cpp:399] inception_4d/output_inception_4d/output_0_split -> inception_4d/output_inception_4d/output_0_split_0
I0403 21:46:25.699182 12771 net.cpp:399] inception_4d/output_inception_4d/output_0_split -> inception_4d/output_inception_4d/output_0_split_1
I0403 21:46:25.699208 12771 net.cpp:399] inception_4d/output_inception_4d/output_0_split -> inception_4d/output_inception_4d/output_0_split_2
I0403 21:46:25.699247 12771 net.cpp:399] inception_4d/output_inception_4d/output_0_split -> inception_4d/output_inception_4d/output_0_split_3
I0403 21:46:25.699267 12771 net.cpp:399] inception_4d/output_inception_4d/output_0_split -> inception_4d/output_inception_4d/output_0_split_4
I0403 21:46:25.699369 12771 net.cpp:141] Setting up inception_4d/output_inception_4d/output_0_split
I0403 21:46:25.699409 12771 net.cpp:148] Top shape: 24 528 14 14 (2483712)
I0403 21:46:25.699425 12771 net.cpp:148] Top shape: 24 528 14 14 (2483712)
I0403 21:46:25.699441 12771 net.cpp:148] Top shape: 24 528 14 14 (2483712)
I0403 21:46:25.699456 12771 net.cpp:148] Top shape: 24 528 14 14 (2483712)
I0403 21:46:25.699473 12771 net.cpp:148] Top shape: 24 528 14 14 (2483712)
I0403 21:46:25.699487 12771 net.cpp:156] Memory required for data: 1206918432
I0403 21:46:25.699502 12771 layer_factory.hpp:77] Creating layer loss2/ave_pool
I0403 21:46:25.699522 12771 net.cpp:91] Creating Layer loss2/ave_pool
I0403 21:46:25.699538 12771 net.cpp:425] loss2/ave_pool <- inception_4d/output_inception_4d/output_0_split_0
I0403 21:46:25.699558 12771 net.cpp:399] loss2/ave_pool -> loss2/ave_pool
I0403 21:46:25.699856 12771 net.cpp:141] Setting up loss2/ave_pool
I0403 21:46:25.699882 12771 net.cpp:148] Top shape: 24 528 4 4 (202752)
I0403 21:46:25.699898 12771 net.cpp:156] Memory required for data: 1207729440
I0403 21:46:25.699913 12771 layer_factory.hpp:77] Creating layer loss2/conv
I0403 21:46:25.699935 12771 net.cpp:91] Creating Layer loss2/conv
I0403 21:46:25.699954 12771 net.cpp:425] loss2/conv <- loss2/ave_pool
I0403 21:46:25.699973 12771 net.cpp:399] loss2/conv -> loss2/conv
I0403 21:46:25.701865 12771 net.cpp:141] Setting up loss2/conv
I0403 21:46:25.701895 12771 net.cpp:148] Top shape: 24 128 4 4 (49152)
I0403 21:46:25.701912 12771 net.cpp:156] Memory required for data: 1207926048
I0403 21:46:25.701930 12771 layer_factory.hpp:77] Creating layer loss2/relu_conv
I0403 21:46:25.701948 12771 net.cpp:91] Creating Layer loss2/relu_conv
I0403 21:46:25.701964 12771 net.cpp:425] loss2/relu_conv <- loss2/conv
I0403 21:46:25.701983 12771 net.cpp:386] loss2/relu_conv -> loss2/conv (in-place)
I0403 21:46:25.702271 12771 net.cpp:141] Setting up loss2/relu_conv
I0403 21:46:25.702301 12771 net.cpp:148] Top shape: 24 128 4 4 (49152)
I0403 21:46:25.702317 12771 net.cpp:156] Memory required for data: 1208122656
I0403 21:46:25.702333 12771 layer_factory.hpp:77] Creating layer loss2/fc
I0403 21:46:25.702352 12771 net.cpp:91] Creating Layer loss2/fc
I0403 21:46:25.702368 12771 net.cpp:425] loss2/fc <- loss2/conv
I0403 21:46:25.702389 12771 net.cpp:399] loss2/fc -> loss2/fc
I0403 21:46:25.719907 12771 net.cpp:141] Setting up loss2/fc
I0403 21:46:25.719944 12771 net.cpp:148] Top shape: 24 1024 (24576)
I0403 21:46:25.719957 12771 net.cpp:156] Memory required for data: 1208220960
I0403 21:46:25.719975 12771 layer_factory.hpp:77] Creating layer loss2/relu_fc
I0403 21:46:25.719995 12771 net.cpp:91] Creating Layer loss2/relu_fc
I0403 21:46:25.720010 12771 net.cpp:425] loss2/relu_fc <- loss2/fc
I0403 21:46:25.720028 12771 net.cpp:386] loss2/relu_fc -> loss2/fc (in-place)
I0403 21:46:25.720324 12771 net.cpp:141] Setting up loss2/relu_fc
I0403 21:46:25.720350 12771 net.cpp:148] Top shape: 24 1024 (24576)
I0403 21:46:25.720363 12771 net.cpp:156] Memory required for data: 1208319264
I0403 21:46:25.720378 12771 layer_factory.hpp:77] Creating layer loss2/drop_fc
I0403 21:46:25.720397 12771 net.cpp:91] Creating Layer loss2/drop_fc
I0403 21:46:25.720413 12771 net.cpp:425] loss2/drop_fc <- loss2/fc
I0403 21:46:25.720430 12771 net.cpp:386] loss2/drop_fc -> loss2/fc (in-place)
I0403 21:46:25.720479 12771 net.cpp:141] Setting up loss2/drop_fc
I0403 21:46:25.720502 12771 net.cpp:148] Top shape: 24 1024 (24576)
I0403 21:46:25.720516 12771 net.cpp:156] Memory required for data: 1208417568
I0403 21:46:25.720530 12771 layer_factory.hpp:77] Creating layer loss2/classifier_plantvillage
I0403 21:46:25.720551 12771 net.cpp:91] Creating Layer loss2/classifier_plantvillage
I0403 21:46:25.720567 12771 net.cpp:425] loss2/classifier_plantvillage <- loss2/fc
I0403 21:46:25.720587 12771 net.cpp:399] loss2/classifier_plantvillage -> loss2/classifier_plantvillage
I0403 21:46:25.720966 12771 net.cpp:141] Setting up loss2/classifier_plantvillage
I0403 21:46:25.720990 12771 net.cpp:148] Top shape: 24 38 (912)
I0403 21:46:25.721004 12771 net.cpp:156] Memory required for data: 1208421216
I0403 21:46:25.721040 12771 layer_factory.hpp:77] Creating layer loss2/classifier_plantvillage_loss2/classifier_plantvillage_0_split
I0403 21:46:25.721058 12771 net.cpp:91] Creating Layer loss2/classifier_plantvillage_loss2/classifier_plantvillage_0_split
I0403 21:46:25.721074 12771 net.cpp:425] loss2/classifier_plantvillage_loss2/classifier_plantvillage_0_split <- loss2/classifier_plantvillage
I0403 21:46:25.721093 12771 net.cpp:399] loss2/classifier_plantvillage_loss2/classifier_plantvillage_0_split -> loss2/classifier_plantvillage_loss2/classifier_plantvillage_0_split_0
I0403 21:46:25.721114 12771 net.cpp:399] loss2/classifier_plantvillage_loss2/classifier_plantvillage_0_split -> loss2/classifier_plantvillage_loss2/classifier_plantvillage_0_split_1
I0403 21:46:25.721133 12771 net.cpp:399] loss2/classifier_plantvillage_loss2/classifier_plantvillage_0_split -> loss2/classifier_plantvillage_loss2/classifier_plantvillage_0_split_2
I0403 21:46:25.721211 12771 net.cpp:141] Setting up loss2/classifier_plantvillage_loss2/classifier_plantvillage_0_split
I0403 21:46:25.721236 12771 net.cpp:148] Top shape: 24 38 (912)
I0403 21:46:25.721253 12771 net.cpp:148] Top shape: 24 38 (912)
I0403 21:46:25.721269 12771 net.cpp:148] Top shape: 24 38 (912)
I0403 21:46:25.721283 12771 net.cpp:156] Memory required for data: 1208432160
I0403 21:46:25.721297 12771 layer_factory.hpp:77] Creating layer inception_4e/1x1
I0403 21:46:25.721318 12771 net.cpp:91] Creating Layer inception_4e/1x1
I0403 21:46:25.721334 12771 net.cpp:425] inception_4e/1x1 <- inception_4d/output_inception_4d/output_0_split_1
I0403 21:46:25.721352 12771 net.cpp:399] inception_4e/1x1 -> inception_4e/1x1
I0403 21:46:25.723083 12771 net.cpp:141] Setting up inception_4e/1x1
I0403 21:46:25.723109 12771 net.cpp:148] Top shape: 24 256 14 14 (1204224)
I0403 21:46:25.723124 12771 net.cpp:156] Memory required for data: 1213249056
I0403 21:46:25.723143 12771 layer_factory.hpp:77] Creating layer inception_4e/relu_1x1
I0403 21:46:25.723160 12771 net.cpp:91] Creating Layer inception_4e/relu_1x1
I0403 21:46:25.723176 12771 net.cpp:425] inception_4e/relu_1x1 <- inception_4e/1x1
I0403 21:46:25.723196 12771 net.cpp:386] inception_4e/relu_1x1 -> inception_4e/1x1 (in-place)
I0403 21:46:25.723482 12771 net.cpp:141] Setting up inception_4e/relu_1x1
I0403 21:46:25.723507 12771 net.cpp:148] Top shape: 24 256 14 14 (1204224)
I0403 21:46:25.723522 12771 net.cpp:156] Memory required for data: 1218065952
I0403 21:46:25.723536 12771 layer_factory.hpp:77] Creating layer inception_4e/3x3_reduce
I0403 21:46:25.723559 12771 net.cpp:91] Creating Layer inception_4e/3x3_reduce
I0403 21:46:25.723577 12771 net.cpp:425] inception_4e/3x3_reduce <- inception_4d/output_inception_4d/output_0_split_2
I0403 21:46:25.723598 12771 net.cpp:399] inception_4e/3x3_reduce -> inception_4e/3x3_reduce
I0403 21:46:25.725664 12771 net.cpp:141] Setting up inception_4e/3x3_reduce
I0403 21:46:25.725695 12771 net.cpp:148] Top shape: 24 160 14 14 (752640)
I0403 21:46:25.725711 12771 net.cpp:156] Memory required for data: 1221076512
I0403 21:46:25.725729 12771 layer_factory.hpp:77] Creating layer inception_4e/relu_3x3_reduce
I0403 21:46:25.725746 12771 net.cpp:91] Creating Layer inception_4e/relu_3x3_reduce
I0403 21:46:25.725762 12771 net.cpp:425] inception_4e/relu_3x3_reduce <- inception_4e/3x3_reduce
I0403 21:46:25.725781 12771 net.cpp:386] inception_4e/relu_3x3_reduce -> inception_4e/3x3_reduce (in-place)
I0403 21:46:25.725960 12771 net.cpp:141] Setting up inception_4e/relu_3x3_reduce
I0403 21:46:25.725982 12771 net.cpp:148] Top shape: 24 160 14 14 (752640)
I0403 21:46:25.725996 12771 net.cpp:156] Memory required for data: 1224087072
I0403 21:46:25.726011 12771 layer_factory.hpp:77] Creating layer inception_4e/3x3
I0403 21:46:25.726033 12771 net.cpp:91] Creating Layer inception_4e/3x3
I0403 21:46:25.726052 12771 net.cpp:425] inception_4e/3x3 <- inception_4e/3x3_reduce
I0403 21:46:25.726073 12771 net.cpp:399] inception_4e/3x3 -> inception_4e/3x3
I0403 21:46:25.730895 12771 net.cpp:141] Setting up inception_4e/3x3
I0403 21:46:25.730936 12771 net.cpp:148] Top shape: 24 320 14 14 (1505280)
I0403 21:46:25.730950 12771 net.cpp:156] Memory required for data: 1230108192
I0403 21:46:25.730968 12771 layer_factory.hpp:77] Creating layer inception_4e/relu_3x3
I0403 21:46:25.730988 12771 net.cpp:91] Creating Layer inception_4e/relu_3x3
I0403 21:46:25.731004 12771 net.cpp:425] inception_4e/relu_3x3 <- inception_4e/3x3
I0403 21:46:25.731020 12771 net.cpp:386] inception_4e/relu_3x3 -> inception_4e/3x3 (in-place)
I0403 21:46:25.731309 12771 net.cpp:141] Setting up inception_4e/relu_3x3
I0403 21:46:25.731334 12771 net.cpp:148] Top shape: 24 320 14 14 (1505280)
I0403 21:46:25.731349 12771 net.cpp:156] Memory required for data: 1236129312
I0403 21:46:25.731364 12771 layer_factory.hpp:77] Creating layer inception_4e/5x5_reduce
I0403 21:46:25.731389 12771 net.cpp:91] Creating Layer inception_4e/5x5_reduce
I0403 21:46:25.731405 12771 net.cpp:425] inception_4e/5x5_reduce <- inception_4d/output_inception_4d/output_0_split_3
I0403 21:46:25.731428 12771 net.cpp:399] inception_4e/5x5_reduce -> inception_4e/5x5_reduce
I0403 21:46:25.732460 12771 net.cpp:141] Setting up inception_4e/5x5_reduce
I0403 21:46:25.732486 12771 net.cpp:148] Top shape: 24 32 14 14 (150528)
I0403 21:46:25.732502 12771 net.cpp:156] Memory required for data: 1236731424
I0403 21:46:25.732520 12771 layer_factory.hpp:77] Creating layer inception_4e/relu_5x5_reduce
I0403 21:46:25.732538 12771 net.cpp:91] Creating Layer inception_4e/relu_5x5_reduce
I0403 21:46:25.732553 12771 net.cpp:425] inception_4e/relu_5x5_reduce <- inception_4e/5x5_reduce
I0403 21:46:25.732571 12771 net.cpp:386] inception_4e/relu_5x5_reduce -> inception_4e/5x5_reduce (in-place)
I0403 21:46:25.732858 12771 net.cpp:141] Setting up inception_4e/relu_5x5_reduce
I0403 21:46:25.732883 12771 net.cpp:148] Top shape: 24 32 14 14 (150528)
I0403 21:46:25.732898 12771 net.cpp:156] Memory required for data: 1237333536
I0403 21:46:25.732913 12771 layer_factory.hpp:77] Creating layer inception_4e/5x5
I0403 21:46:25.732951 12771 net.cpp:91] Creating Layer inception_4e/5x5
I0403 21:46:25.732970 12771 net.cpp:425] inception_4e/5x5 <- inception_4e/5x5_reduce
I0403 21:46:25.732990 12771 net.cpp:399] inception_4e/5x5 -> inception_4e/5x5
I0403 21:46:25.734732 12771 net.cpp:141] Setting up inception_4e/5x5
I0403 21:46:25.734761 12771 net.cpp:148] Top shape: 24 128 14 14 (602112)
I0403 21:46:25.734777 12771 net.cpp:156] Memory required for data: 1239741984
I0403 21:46:25.734797 12771 layer_factory.hpp:77] Creating layer inception_4e/relu_5x5
I0403 21:46:25.734813 12771 net.cpp:91] Creating Layer inception_4e/relu_5x5
I0403 21:46:25.734828 12771 net.cpp:425] inception_4e/relu_5x5 <- inception_4e/5x5
I0403 21:46:25.734845 12771 net.cpp:386] inception_4e/relu_5x5 -> inception_4e/5x5 (in-place)
I0403 21:46:25.735033 12771 net.cpp:141] Setting up inception_4e/relu_5x5
I0403 21:46:25.735059 12771 net.cpp:148] Top shape: 24 128 14 14 (602112)
I0403 21:46:25.735075 12771 net.cpp:156] Memory required for data: 1242150432
I0403 21:46:25.735090 12771 layer_factory.hpp:77] Creating layer inception_4e/pool
I0403 21:46:25.735106 12771 net.cpp:91] Creating Layer inception_4e/pool
I0403 21:46:25.735121 12771 net.cpp:425] inception_4e/pool <- inception_4d/output_inception_4d/output_0_split_4
I0403 21:46:25.735142 12771 net.cpp:399] inception_4e/pool -> inception_4e/pool
I0403 21:46:25.735213 12771 net.cpp:141] Setting up inception_4e/pool
I0403 21:46:25.735239 12771 net.cpp:148] Top shape: 24 528 14 14 (2483712)
I0403 21:46:25.735254 12771 net.cpp:156] Memory required for data: 1252085280
I0403 21:46:25.735266 12771 layer_factory.hpp:77] Creating layer inception_4e/pool_proj
I0403 21:46:25.735287 12771 net.cpp:91] Creating Layer inception_4e/pool_proj
I0403 21:46:25.735306 12771 net.cpp:425] inception_4e/pool_proj <- inception_4e/pool
I0403 21:46:25.735323 12771 net.cpp:399] inception_4e/pool_proj -> inception_4e/pool_proj
I0403 21:46:25.736753 12771 net.cpp:141] Setting up inception_4e/pool_proj
I0403 21:46:25.736780 12771 net.cpp:148] Top shape: 24 128 14 14 (602112)
I0403 21:46:25.736809 12771 net.cpp:156] Memory required for data: 1254493728
I0403 21:46:25.736827 12771 layer_factory.hpp:77] Creating layer inception_4e/relu_pool_proj
I0403 21:46:25.736850 12771 net.cpp:91] Creating Layer inception_4e/relu_pool_proj
I0403 21:46:25.736866 12771 net.cpp:425] inception_4e/relu_pool_proj <- inception_4e/pool_proj
I0403 21:46:25.736882 12771 net.cpp:386] inception_4e/relu_pool_proj -> inception_4e/pool_proj (in-place)
I0403 21:46:25.737164 12771 net.cpp:141] Setting up inception_4e/relu_pool_proj
I0403 21:46:25.737190 12771 net.cpp:148] Top shape: 24 128 14 14 (602112)
I0403 21:46:25.737205 12771 net.cpp:156] Memory required for data: 1256902176
I0403 21:46:25.737223 12771 layer_factory.hpp:77] Creating layer inception_4e/output
I0403 21:46:25.737243 12771 net.cpp:91] Creating Layer inception_4e/output
I0403 21:46:25.737259 12771 net.cpp:425] inception_4e/output <- inception_4e/1x1
I0403 21:46:25.737275 12771 net.cpp:425] inception_4e/output <- inception_4e/3x3
I0403 21:46:25.737292 12771 net.cpp:425] inception_4e/output <- inception_4e/5x5
I0403 21:46:25.737306 12771 net.cpp:425] inception_4e/output <- inception_4e/pool_proj
I0403 21:46:25.737323 12771 net.cpp:399] inception_4e/output -> inception_4e/output
I0403 21:46:25.737371 12771 net.cpp:141] Setting up inception_4e/output
I0403 21:46:25.737395 12771 net.cpp:148] Top shape: 24 832 14 14 (3913728)
I0403 21:46:25.737408 12771 net.cpp:156] Memory required for data: 1272557088
I0403 21:46:25.737422 12771 layer_factory.hpp:77] Creating layer pool4/3x3_s2
I0403 21:46:25.737439 12771 net.cpp:91] Creating Layer pool4/3x3_s2
I0403 21:46:25.737457 12771 net.cpp:425] pool4/3x3_s2 <- inception_4e/output
I0403 21:46:25.737475 12771 net.cpp:399] pool4/3x3_s2 -> pool4/3x3_s2
I0403 21:46:25.737540 12771 net.cpp:141] Setting up pool4/3x3_s2
I0403 21:46:25.737562 12771 net.cpp:148] Top shape: 24 832 7 7 (978432)
I0403 21:46:25.737576 12771 net.cpp:156] Memory required for data: 1276470816
I0403 21:46:25.737589 12771 layer_factory.hpp:77] Creating layer pool4/3x3_s2_pool4/3x3_s2_0_split
I0403 21:46:25.737606 12771 net.cpp:91] Creating Layer pool4/3x3_s2_pool4/3x3_s2_0_split
I0403 21:46:25.737622 12771 net.cpp:425] pool4/3x3_s2_pool4/3x3_s2_0_split <- pool4/3x3_s2
I0403 21:46:25.737639 12771 net.cpp:399] pool4/3x3_s2_pool4/3x3_s2_0_split -> pool4/3x3_s2_pool4/3x3_s2_0_split_0
I0403 21:46:25.737658 12771 net.cpp:399] pool4/3x3_s2_pool4/3x3_s2_0_split -> pool4/3x3_s2_pool4/3x3_s2_0_split_1
I0403 21:46:25.737678 12771 net.cpp:399] pool4/3x3_s2_pool4/3x3_s2_0_split -> pool4/3x3_s2_pool4/3x3_s2_0_split_2
I0403 21:46:25.737696 12771 net.cpp:399] pool4/3x3_s2_pool4/3x3_s2_0_split -> pool4/3x3_s2_pool4/3x3_s2_0_split_3
I0403 21:46:25.737783 12771 net.cpp:141] Setting up pool4/3x3_s2_pool4/3x3_s2_0_split
I0403 21:46:25.737804 12771 net.cpp:148] Top shape: 24 832 7 7 (978432)
I0403 21:46:25.737820 12771 net.cpp:148] Top shape: 24 832 7 7 (978432)
I0403 21:46:25.737836 12771 net.cpp:148] Top shape: 24 832 7 7 (978432)
I0403 21:46:25.737850 12771 net.cpp:148] Top shape: 24 832 7 7 (978432)
I0403 21:46:25.737862 12771 net.cpp:156] Memory required for data: 1292125728
I0403 21:46:25.737876 12771 layer_factory.hpp:77] Creating layer inception_5a/1x1
I0403 21:46:25.737900 12771 net.cpp:91] Creating Layer inception_5a/1x1
I0403 21:46:25.737917 12771 net.cpp:425] inception_5a/1x1 <- pool4/3x3_s2_pool4/3x3_s2_0_split_0
I0403 21:46:25.737934 12771 net.cpp:399] inception_5a/1x1 -> inception_5a/1x1
I0403 21:46:25.740681 12771 net.cpp:141] Setting up inception_5a/1x1
I0403 21:46:25.740711 12771 net.cpp:148] Top shape: 24 256 7 7 (301056)
I0403 21:46:25.740726 12771 net.cpp:156] Memory required for data: 1293329952
I0403 21:46:25.740744 12771 layer_factory.hpp:77] Creating layer inception_5a/relu_1x1
I0403 21:46:25.740762 12771 net.cpp:91] Creating Layer inception_5a/relu_1x1
I0403 21:46:25.740779 12771 net.cpp:425] inception_5a/relu_1x1 <- inception_5a/1x1
I0403 21:46:25.740799 12771 net.cpp:386] inception_5a/relu_1x1 -> inception_5a/1x1 (in-place)
I0403 21:46:25.741096 12771 net.cpp:141] Setting up inception_5a/relu_1x1
I0403 21:46:25.741123 12771 net.cpp:148] Top shape: 24 256 7 7 (301056)
I0403 21:46:25.741138 12771 net.cpp:156] Memory required for data: 1294534176
I0403 21:46:25.741153 12771 layer_factory.hpp:77] Creating layer inception_5a/3x3_reduce
I0403 21:46:25.741175 12771 net.cpp:91] Creating Layer inception_5a/3x3_reduce
I0403 21:46:25.741191 12771 net.cpp:425] inception_5a/3x3_reduce <- pool4/3x3_s2_pool4/3x3_s2_0_split_1
I0403 21:46:25.741216 12771 net.cpp:399] inception_5a/3x3_reduce -> inception_5a/3x3_reduce
I0403 21:46:25.743623 12771 net.cpp:141] Setting up inception_5a/3x3_reduce
I0403 21:46:25.743650 12771 net.cpp:148] Top shape: 24 160 7 7 (188160)
I0403 21:46:25.743665 12771 net.cpp:156] Memory required for data: 1295286816
I0403 21:46:25.743685 12771 layer_factory.hpp:77] Creating layer inception_5a/relu_3x3_reduce
I0403 21:46:25.743703 12771 net.cpp:91] Creating Layer inception_5a/relu_3x3_reduce
I0403 21:46:25.743721 12771 net.cpp:425] inception_5a/relu_3x3_reduce <- inception_5a/3x3_reduce
I0403 21:46:25.743738 12771 net.cpp:386] inception_5a/relu_3x3_reduce -> inception_5a/3x3_reduce (in-place)
I0403 21:46:25.743919 12771 net.cpp:141] Setting up inception_5a/relu_3x3_reduce
I0403 21:46:25.743945 12771 net.cpp:148] Top shape: 24 160 7 7 (188160)
I0403 21:46:25.743963 12771 net.cpp:156] Memory required for data: 1296039456
I0403 21:46:25.743978 12771 layer_factory.hpp:77] Creating layer inception_5a/3x3
I0403 21:46:25.743999 12771 net.cpp:91] Creating Layer inception_5a/3x3
I0403 21:46:25.744017 12771 net.cpp:425] inception_5a/3x3 <- inception_5a/3x3_reduce
I0403 21:46:25.744035 12771 net.cpp:399] inception_5a/3x3 -> inception_5a/3x3
I0403 21:46:25.748889 12771 net.cpp:141] Setting up inception_5a/3x3
I0403 21:46:25.748921 12771 net.cpp:148] Top shape: 24 320 7 7 (376320)
I0403 21:46:25.748937 12771 net.cpp:156] Memory required for data: 1297544736
I0403 21:46:25.748955 12771 layer_factory.hpp:77] Creating layer inception_5a/relu_3x3
I0403 21:46:25.748972 12771 net.cpp:91] Creating Layer inception_5a/relu_3x3
I0403 21:46:25.748987 12771 net.cpp:425] inception_5a/relu_3x3 <- inception_5a/3x3
I0403 21:46:25.749004 12771 net.cpp:386] inception_5a/relu_3x3 -> inception_5a/3x3 (in-place)
I0403 21:46:25.749287 12771 net.cpp:141] Setting up inception_5a/relu_3x3
I0403 21:46:25.749315 12771 net.cpp:148] Top shape: 24 320 7 7 (376320)
I0403 21:46:25.749332 12771 net.cpp:156] Memory required for data: 1299050016
I0403 21:46:25.749346 12771 layer_factory.hpp:77] Creating layer inception_5a/5x5_reduce
I0403 21:46:25.749367 12771 net.cpp:91] Creating Layer inception_5a/5x5_reduce
I0403 21:46:25.749385 12771 net.cpp:425] inception_5a/5x5_reduce <- pool4/3x3_s2_pool4/3x3_s2_0_split_2
I0403 21:46:25.749404 12771 net.cpp:399] inception_5a/5x5_reduce -> inception_5a/5x5_reduce
I0403 21:46:25.750541 12771 net.cpp:141] Setting up inception_5a/5x5_reduce
I0403 21:46:25.750571 12771 net.cpp:148] Top shape: 24 32 7 7 (37632)
I0403 21:46:25.750587 12771 net.cpp:156] Memory required for data: 1299200544
I0403 21:46:25.750607 12771 layer_factory.hpp:77] Creating layer inception_5a/relu_5x5_reduce
I0403 21:46:25.750624 12771 net.cpp:91] Creating Layer inception_5a/relu_5x5_reduce
I0403 21:46:25.750641 12771 net.cpp:425] inception_5a/relu_5x5_reduce <- inception_5a/5x5_reduce
I0403 21:46:25.750661 12771 net.cpp:386] inception_5a/relu_5x5_reduce -> inception_5a/5x5_reduce (in-place)
I0403 21:46:25.751021 12771 net.cpp:141] Setting up inception_5a/relu_5x5_reduce
I0403 21:46:25.751060 12771 net.cpp:148] Top shape: 24 32 7 7 (37632)
I0403 21:46:25.751076 12771 net.cpp:156] Memory required for data: 1299351072
I0403 21:46:25.751092 12771 layer_factory.hpp:77] Creating layer inception_5a/5x5
I0403 21:46:25.751116 12771 net.cpp:91] Creating Layer inception_5a/5x5
I0403 21:46:25.751137 12771 net.cpp:425] inception_5a/5x5 <- inception_5a/5x5_reduce
I0403 21:46:25.751158 12771 net.cpp:399] inception_5a/5x5 -> inception_5a/5x5
I0403 21:46:25.753597 12771 net.cpp:141] Setting up inception_5a/5x5
I0403 21:46:25.753646 12771 net.cpp:148] Top shape: 24 128 7 7 (150528)
I0403 21:46:25.753664 12771 net.cpp:156] Memory required for data: 1299953184
I0403 21:46:25.753684 12771 layer_factory.hpp:77] Creating layer inception_5a/relu_5x5
I0403 21:46:25.753703 12771 net.cpp:91] Creating Layer inception_5a/relu_5x5
I0403 21:46:25.753732 12771 net.cpp:425] inception_5a/relu_5x5 <- inception_5a/5x5
I0403 21:46:25.753751 12771 net.cpp:386] inception_5a/relu_5x5 -> inception_5a/5x5 (in-place)
I0403 21:46:25.753959 12771 net.cpp:141] Setting up inception_5a/relu_5x5
I0403 21:46:25.753985 12771 net.cpp:148] Top shape: 24 128 7 7 (150528)
I0403 21:46:25.754000 12771 net.cpp:156] Memory required for data: 1300555296
I0403 21:46:25.754017 12771 layer_factory.hpp:77] Creating layer inception_5a/pool
I0403 21:46:25.754050 12771 net.cpp:91] Creating Layer inception_5a/pool
I0403 21:46:25.754065 12771 net.cpp:425] inception_5a/pool <- pool4/3x3_s2_pool4/3x3_s2_0_split_3
I0403 21:46:25.754086 12771 net.cpp:399] inception_5a/pool -> inception_5a/pool
I0403 21:46:25.754169 12771 net.cpp:141] Setting up inception_5a/pool
I0403 21:46:25.754202 12771 net.cpp:148] Top shape: 24 832 7 7 (978432)
I0403 21:46:25.754220 12771 net.cpp:156] Memory required for data: 1304469024
I0403 21:46:25.754235 12771 layer_factory.hpp:77] Creating layer inception_5a/pool_proj
I0403 21:46:25.754259 12771 net.cpp:91] Creating Layer inception_5a/pool_proj
I0403 21:46:25.754277 12771 net.cpp:425] inception_5a/pool_proj <- inception_5a/pool
I0403 21:46:25.754297 12771 net.cpp:399] inception_5a/pool_proj -> inception_5a/pool_proj
I0403 21:46:25.756683 12771 net.cpp:141] Setting up inception_5a/pool_proj
I0403 21:46:25.756713 12771 net.cpp:148] Top shape: 24 128 7 7 (150528)
I0403 21:46:25.756729 12771 net.cpp:156] Memory required for data: 1305071136
I0403 21:46:25.756748 12771 layer_factory.hpp:77] Creating layer inception_5a/relu_pool_proj
I0403 21:46:25.756768 12771 net.cpp:91] Creating Layer inception_5a/relu_pool_proj
I0403 21:46:25.756784 12771 net.cpp:425] inception_5a/relu_pool_proj <- inception_5a/pool_proj
I0403 21:46:25.756803 12771 net.cpp:386] inception_5a/relu_pool_proj -> inception_5a/pool_proj (in-place)
I0403 21:46:25.757097 12771 net.cpp:141] Setting up inception_5a/relu_pool_proj
I0403 21:46:25.757122 12771 net.cpp:148] Top shape: 24 128 7 7 (150528)
I0403 21:46:25.757136 12771 net.cpp:156] Memory required for data: 1305673248
I0403 21:46:25.757151 12771 layer_factory.hpp:77] Creating layer inception_5a/output
I0403 21:46:25.757169 12771 net.cpp:91] Creating Layer inception_5a/output
I0403 21:46:25.757191 12771 net.cpp:425] inception_5a/output <- inception_5a/1x1
I0403 21:46:25.757208 12771 net.cpp:425] inception_5a/output <- inception_5a/3x3
I0403 21:46:25.757225 12771 net.cpp:425] inception_5a/output <- inception_5a/5x5
I0403 21:46:25.757241 12771 net.cpp:425] inception_5a/output <- inception_5a/pool_proj
I0403 21:46:25.757257 12771 net.cpp:399] inception_5a/output -> inception_5a/output
I0403 21:46:25.757309 12771 net.cpp:141] Setting up inception_5a/output
I0403 21:46:25.757331 12771 net.cpp:148] Top shape: 24 832 7 7 (978432)
I0403 21:46:25.757345 12771 net.cpp:156] Memory required for data: 1309586976
I0403 21:46:25.757360 12771 layer_factory.hpp:77] Creating layer inception_5a/output_inception_5a/output_0_split
I0403 21:46:25.757377 12771 net.cpp:91] Creating Layer inception_5a/output_inception_5a/output_0_split
I0403 21:46:25.757392 12771 net.cpp:425] inception_5a/output_inception_5a/output_0_split <- inception_5a/output
I0403 21:46:25.757411 12771 net.cpp:399] inception_5a/output_inception_5a/output_0_split -> inception_5a/output_inception_5a/output_0_split_0
I0403 21:46:25.757431 12771 net.cpp:399] inception_5a/output_inception_5a/output_0_split -> inception_5a/output_inception_5a/output_0_split_1
I0403 21:46:25.757455 12771 net.cpp:399] inception_5a/output_inception_5a/output_0_split -> inception_5a/output_inception_5a/output_0_split_2
I0403 21:46:25.757477 12771 net.cpp:399] inception_5a/output_inception_5a/output_0_split -> inception_5a/output_inception_5a/output_0_split_3
I0403 21:46:25.757597 12771 net.cpp:141] Setting up inception_5a/output_inception_5a/output_0_split
I0403 21:46:25.757624 12771 net.cpp:148] Top shape: 24 832 7 7 (978432)
I0403 21:46:25.757642 12771 net.cpp:148] Top shape: 24 832 7 7 (978432)
I0403 21:46:25.757658 12771 net.cpp:148] Top shape: 24 832 7 7 (978432)
I0403 21:46:25.757673 12771 net.cpp:148] Top shape: 24 832 7 7 (978432)
I0403 21:46:25.757688 12771 net.cpp:156] Memory required for data: 1325241888
I0403 21:46:25.757702 12771 layer_factory.hpp:77] Creating layer inception_5b/1x1
I0403 21:46:25.757725 12771 net.cpp:91] Creating Layer inception_5b/1x1
I0403 21:46:25.757741 12771 net.cpp:425] inception_5b/1x1 <- inception_5a/output_inception_5a/output_0_split_0
I0403 21:46:25.757760 12771 net.cpp:399] inception_5b/1x1 -> inception_5b/1x1
I0403 21:46:25.761608 12771 net.cpp:141] Setting up inception_5b/1x1
I0403 21:46:25.761638 12771 net.cpp:148] Top shape: 24 384 7 7 (451584)
I0403 21:46:25.761654 12771 net.cpp:156] Memory required for data: 1327048224
I0403 21:46:25.761674 12771 layer_factory.hpp:77] Creating layer inception_5b/relu_1x1
I0403 21:46:25.761695 12771 net.cpp:91] Creating Layer inception_5b/relu_1x1
I0403 21:46:25.761713 12771 net.cpp:425] inception_5b/relu_1x1 <- inception_5b/1x1
I0403 21:46:25.761730 12771 net.cpp:386] inception_5b/relu_1x1 -> inception_5b/1x1 (in-place)
I0403 21:46:25.762034 12771 net.cpp:141] Setting up inception_5b/relu_1x1
I0403 21:46:25.762061 12771 net.cpp:148] Top shape: 24 384 7 7 (451584)
I0403 21:46:25.762078 12771 net.cpp:156] Memory required for data: 1328854560
I0403 21:46:25.762092 12771 layer_factory.hpp:77] Creating layer inception_5b/3x3_reduce
I0403 21:46:25.762116 12771 net.cpp:91] Creating Layer inception_5b/3x3_reduce
I0403 21:46:25.762135 12771 net.cpp:425] inception_5b/3x3_reduce <- inception_5a/output_inception_5a/output_0_split_1
I0403 21:46:25.762156 12771 net.cpp:399] inception_5b/3x3_reduce -> inception_5b/3x3_reduce
I0403 21:46:25.764895 12771 net.cpp:141] Setting up inception_5b/3x3_reduce
I0403 21:46:25.764926 12771 net.cpp:148] Top shape: 24 192 7 7 (225792)
I0403 21:46:25.764942 12771 net.cpp:156] Memory required for data: 1329757728
I0403 21:46:25.764962 12771 layer_factory.hpp:77] Creating layer inception_5b/relu_3x3_reduce
I0403 21:46:25.764982 12771 net.cpp:91] Creating Layer inception_5b/relu_3x3_reduce
I0403 21:46:25.765000 12771 net.cpp:425] inception_5b/relu_3x3_reduce <- inception_5b/3x3_reduce
I0403 21:46:25.765019 12771 net.cpp:386] inception_5b/relu_3x3_reduce -> inception_5b/3x3_reduce (in-place)
I0403 21:46:25.765223 12771 net.cpp:141] Setting up inception_5b/relu_3x3_reduce
I0403 21:46:25.765251 12771 net.cpp:148] Top shape: 24 192 7 7 (225792)
I0403 21:46:25.765269 12771 net.cpp:156] Memory required for data: 1330660896
I0403 21:46:25.765283 12771 layer_factory.hpp:77] Creating layer inception_5b/3x3
I0403 21:46:25.765305 12771 net.cpp:91] Creating Layer inception_5b/3x3
I0403 21:46:25.765324 12771 net.cpp:425] inception_5b/3x3 <- inception_5b/3x3_reduce
I0403 21:46:25.765344 12771 net.cpp:399] inception_5b/3x3 -> inception_5b/3x3
I0403 21:46:25.772225 12771 net.cpp:141] Setting up inception_5b/3x3
I0403 21:46:25.772256 12771 net.cpp:148] Top shape: 24 384 7 7 (451584)
I0403 21:46:25.772271 12771 net.cpp:156] Memory required for data: 1332467232
I0403 21:46:25.772291 12771 layer_factory.hpp:77] Creating layer inception_5b/relu_3x3
I0403 21:46:25.772315 12771 net.cpp:91] Creating Layer inception_5b/relu_3x3
I0403 21:46:25.772332 12771 net.cpp:425] inception_5b/relu_3x3 <- inception_5b/3x3
I0403 21:46:25.772351 12771 net.cpp:386] inception_5b/relu_3x3 -> inception_5b/3x3 (in-place)
I0403 21:46:25.772655 12771 net.cpp:141] Setting up inception_5b/relu_3x3
I0403 21:46:25.772682 12771 net.cpp:148] Top shape: 24 384 7 7 (451584)
I0403 21:46:25.772699 12771 net.cpp:156] Memory required for data: 1334273568
I0403 21:46:25.772714 12771 layer_factory.hpp:77] Creating layer inception_5b/5x5_reduce
I0403 21:46:25.772758 12771 net.cpp:91] Creating Layer inception_5b/5x5_reduce
I0403 21:46:25.772778 12771 net.cpp:425] inception_5b/5x5_reduce <- inception_5a/output_inception_5a/output_0_split_2
I0403 21:46:25.772799 12771 net.cpp:399] inception_5b/5x5_reduce -> inception_5b/5x5_reduce
I0403 21:46:25.774096 12771 net.cpp:141] Setting up inception_5b/5x5_reduce
I0403 21:46:25.774124 12771 net.cpp:148] Top shape: 24 48 7 7 (56448)
I0403 21:46:25.774140 12771 net.cpp:156] Memory required for data: 1334499360
I0403 21:46:25.774160 12771 layer_factory.hpp:77] Creating layer inception_5b/relu_5x5_reduce
I0403 21:46:25.774186 12771 net.cpp:91] Creating Layer inception_5b/relu_5x5_reduce
I0403 21:46:25.774205 12771 net.cpp:425] inception_5b/relu_5x5_reduce <- inception_5b/5x5_reduce
I0403 21:46:25.774224 12771 net.cpp:386] inception_5b/relu_5x5_reduce -> inception_5b/5x5_reduce (in-place)
I0403 21:46:25.774615 12771 net.cpp:141] Setting up inception_5b/relu_5x5_reduce
I0403 21:46:25.774641 12771 net.cpp:148] Top shape: 24 48 7 7 (56448)
I0403 21:46:25.774657 12771 net.cpp:156] Memory required for data: 1334725152
I0403 21:46:25.774672 12771 layer_factory.hpp:77] Creating layer inception_5b/5x5
I0403 21:46:25.774693 12771 net.cpp:91] Creating Layer inception_5b/5x5
I0403 21:46:25.774710 12771 net.cpp:425] inception_5b/5x5 <- inception_5b/5x5_reduce
I0403 21:46:25.774729 12771 net.cpp:399] inception_5b/5x5 -> inception_5b/5x5
I0403 21:46:25.776788 12771 net.cpp:141] Setting up inception_5b/5x5
I0403 21:46:25.776818 12771 net.cpp:148] Top shape: 24 128 7 7 (150528)
I0403 21:46:25.776834 12771 net.cpp:156] Memory required for data: 1335327264
I0403 21:46:25.776852 12771 layer_factory.hpp:77] Creating layer inception_5b/relu_5x5
I0403 21:46:25.776871 12771 net.cpp:91] Creating Layer inception_5b/relu_5x5
I0403 21:46:25.776887 12771 net.cpp:425] inception_5b/relu_5x5 <- inception_5b/5x5
I0403 21:46:25.776907 12771 net.cpp:386] inception_5b/relu_5x5 -> inception_5b/5x5 (in-place)
I0403 21:46:25.777104 12771 net.cpp:141] Setting up inception_5b/relu_5x5
I0403 21:46:25.777129 12771 net.cpp:148] Top shape: 24 128 7 7 (150528)
I0403 21:46:25.777144 12771 net.cpp:156] Memory required for data: 1335929376
I0403 21:46:25.777159 12771 layer_factory.hpp:77] Creating layer inception_5b/pool
I0403 21:46:25.777181 12771 net.cpp:91] Creating Layer inception_5b/pool
I0403 21:46:25.777199 12771 net.cpp:425] inception_5b/pool <- inception_5a/output_inception_5a/output_0_split_3
I0403 21:46:25.777220 12771 net.cpp:399] inception_5b/pool -> inception_5b/pool
I0403 21:46:25.777292 12771 net.cpp:141] Setting up inception_5b/pool
I0403 21:46:25.777315 12771 net.cpp:148] Top shape: 24 832 7 7 (978432)
I0403 21:46:25.777330 12771 net.cpp:156] Memory required for data: 1339843104
I0403 21:46:25.777345 12771 layer_factory.hpp:77] Creating layer inception_5b/pool_proj
I0403 21:46:25.777369 12771 net.cpp:91] Creating Layer inception_5b/pool_proj
I0403 21:46:25.777387 12771 net.cpp:425] inception_5b/pool_proj <- inception_5b/pool
I0403 21:46:25.777405 12771 net.cpp:399] inception_5b/pool_proj -> inception_5b/pool_proj
I0403 21:46:25.779712 12771 net.cpp:141] Setting up inception_5b/pool_proj
I0403 21:46:25.779744 12771 net.cpp:148] Top shape: 24 128 7 7 (150528)
I0403 21:46:25.779762 12771 net.cpp:156] Memory required for data: 1340445216
I0403 21:46:25.779779 12771 layer_factory.hpp:77] Creating layer inception_5b/relu_pool_proj
I0403 21:46:25.779798 12771 net.cpp:91] Creating Layer inception_5b/relu_pool_proj
I0403 21:46:25.779814 12771 net.cpp:425] inception_5b/relu_pool_proj <- inception_5b/pool_proj
I0403 21:46:25.779832 12771 net.cpp:386] inception_5b/relu_pool_proj -> inception_5b/pool_proj (in-place)
I0403 21:46:25.780124 12771 net.cpp:141] Setting up inception_5b/relu_pool_proj
I0403 21:46:25.780153 12771 net.cpp:148] Top shape: 24 128 7 7 (150528)
I0403 21:46:25.780169 12771 net.cpp:156] Memory required for data: 1341047328
I0403 21:46:25.780189 12771 layer_factory.hpp:77] Creating layer inception_5b/output
I0403 21:46:25.780208 12771 net.cpp:91] Creating Layer inception_5b/output
I0403 21:46:25.780239 12771 net.cpp:425] inception_5b/output <- inception_5b/1x1
I0403 21:46:25.780257 12771 net.cpp:425] inception_5b/output <- inception_5b/3x3
I0403 21:46:25.780273 12771 net.cpp:425] inception_5b/output <- inception_5b/5x5
I0403 21:46:25.780289 12771 net.cpp:425] inception_5b/output <- inception_5b/pool_proj
I0403 21:46:25.780306 12771 net.cpp:399] inception_5b/output -> inception_5b/output
I0403 21:46:25.780359 12771 net.cpp:141] Setting up inception_5b/output
I0403 21:46:25.780382 12771 net.cpp:148] Top shape: 24 1024 7 7 (1204224)
I0403 21:46:25.780397 12771 net.cpp:156] Memory required for data: 1345864224
I0403 21:46:25.780411 12771 layer_factory.hpp:77] Creating layer pool5/7x7_s1
I0403 21:46:25.780432 12771 net.cpp:91] Creating Layer pool5/7x7_s1
I0403 21:46:25.780447 12771 net.cpp:425] pool5/7x7_s1 <- inception_5b/output
I0403 21:46:25.780465 12771 net.cpp:399] pool5/7x7_s1 -> pool5/7x7_s1
I0403 21:46:25.780681 12771 net.cpp:141] Setting up pool5/7x7_s1
I0403 21:46:25.780709 12771 net.cpp:148] Top shape: 24 1024 1 1 (24576)
I0403 21:46:25.780725 12771 net.cpp:156] Memory required for data: 1345962528
I0403 21:46:25.780740 12771 layer_factory.hpp:77] Creating layer pool5/drop_7x7_s1
I0403 21:46:25.780757 12771 net.cpp:91] Creating Layer pool5/drop_7x7_s1
I0403 21:46:25.780773 12771 net.cpp:425] pool5/drop_7x7_s1 <- pool5/7x7_s1
I0403 21:46:25.780789 12771 net.cpp:386] pool5/drop_7x7_s1 -> pool5/7x7_s1 (in-place)
I0403 21:46:25.780840 12771 net.cpp:141] Setting up pool5/drop_7x7_s1
I0403 21:46:25.780865 12771 net.cpp:148] Top shape: 24 1024 1 1 (24576)
I0403 21:46:25.780879 12771 net.cpp:156] Memory required for data: 1346060832
I0403 21:46:25.780894 12771 layer_factory.hpp:77] Creating layer loss3/classifier_plantvillage
I0403 21:46:25.780915 12771 net.cpp:91] Creating Layer loss3/classifier_plantvillage
I0403 21:46:25.780932 12771 net.cpp:425] loss3/classifier_plantvillage <- pool5/7x7_s1
I0403 21:46:25.780951 12771 net.cpp:399] loss3/classifier_plantvillage -> loss3/classifier_plantvillage
I0403 21:46:25.781375 12771 net.cpp:141] Setting up loss3/classifier_plantvillage
I0403 21:46:25.781399 12771 net.cpp:148] Top shape: 24 38 (912)
I0403 21:46:25.781414 12771 net.cpp:156] Memory required for data: 1346064480
I0403 21:46:25.781432 12771 layer_factory.hpp:77] Creating layer loss3/classifier_plantvillage_loss3/classifier_plantvillage_0_split
I0403 21:46:25.781451 12771 net.cpp:91] Creating Layer loss3/classifier_plantvillage_loss3/classifier_plantvillage_0_split
I0403 21:46:25.781468 12771 net.cpp:425] loss3/classifier_plantvillage_loss3/classifier_plantvillage_0_split <- loss3/classifier_plantvillage
I0403 21:46:25.781489 12771 net.cpp:399] loss3/classifier_plantvillage_loss3/classifier_plantvillage_0_split -> loss3/classifier_plantvillage_loss3/classifier_plantvillage_0_split_0
I0403 21:46:25.781512 12771 net.cpp:399] loss3/classifier_plantvillage_loss3/classifier_plantvillage_0_split -> loss3/classifier_plantvillage_loss3/classifier_plantvillage_0_split_1
I0403 21:46:25.781533 12771 net.cpp:399] loss3/classifier_plantvillage_loss3/classifier_plantvillage_0_split -> loss3/classifier_plantvillage_loss3/classifier_plantvillage_0_split_2
I0403 21:46:25.781551 12771 net.cpp:399] loss3/classifier_plantvillage_loss3/classifier_plantvillage_0_split -> loss3/classifier_plantvillage_loss3/classifier_plantvillage_0_split_3
I0403 21:46:25.781656 12771 net.cpp:141] Setting up loss3/classifier_plantvillage_loss3/classifier_plantvillage_0_split
I0403 21:46:25.781678 12771 net.cpp:148] Top shape: 24 38 (912)
I0403 21:46:25.781695 12771 net.cpp:148] Top shape: 24 38 (912)
I0403 21:46:25.781710 12771 net.cpp:148] Top shape: 24 38 (912)
I0403 21:46:25.781726 12771 net.cpp:148] Top shape: 24 38 (912)
I0403 21:46:25.781740 12771 net.cpp:156] Memory required for data: 1346079072
I0403 21:46:25.781754 12771 layer_factory.hpp:77] Creating layer loss1/loss
I0403 21:46:25.781777 12771 net.cpp:91] Creating Layer loss1/loss
I0403 21:46:25.781795 12771 net.cpp:425] loss1/loss <- loss1/classifier_plantvillage_loss1/classifier_plantvillage_0_split_0
I0403 21:46:25.781826 12771 net.cpp:425] loss1/loss <- label_data_1_split_0
…
