…
I0403 21:38:37.683279 12324 net.cpp:313] The NetState phase (1) differed from the phase (0) specified by a rule in layer data
I0403 21:38:37.684393 12324 net.cpp:49] Initializing net from parameters: 
state {
  phase: TEST
}
layer {
  name: "data"
  type: "Data"
  top: "data"
  top: "label"
  include {
    phase: TEST
  }
  transform_param {
    mirror: false
    crop_size: 224
    mean_file: "/home/mohanty/data/final_dataset/lmdb/color-80-20/mean.binaryproto"
  }
  data_param {
    source: "/home/mohanty/data/final_dataset/lmdb/color-80-20/test_db"
    batch_size: 24
    backend: LMDB
  }
}
layer {
  name: "conv1/7x7_s2"
  type: "Convolution"
  bottom: "data"
  top: "conv1/7x7_s2"
  param {
    lr_mult: 1
    decay_mult: 1
  }
  param {
    lr_mult: 2
    decay_mult: 0
  }
  convolution_param {
    num_output: 64
    pad: 3
    kernel_size: 7
    stride: 2
    weight_filler {
      type: "xavier"
      std: 0.1
    }
    bias_filler {
      type: "constant"
      value: 0.2
    }
  }
}
layer {
  name: "conv1/relu_7x7"
  type: "ReLU"
  bottom: "conv1/7x7_s2"
  top: "conv1/7x7_s2"
}
layer {
  name: "pool1/3x3_s2"
  type: "Pooling"
  bottom: "conv1/7x7_s2"
  top: "pool1/3x3_s2"
  pooling_param {
    pool: MAX
    kernel_size: 3
    stride: 2
  }
}
layer {
  name: "pool1/norm1"
  type: "LRN"
  bottom: "pool1/3x3_s2"
  top: "pool1/norm1"
  lrn_param {
    local_size: 5
    alpha: 0.0001
    beta: 0.75
  }
}
layer {
  name: "conv2/3x3_reduce"
  type: "Convolution"
  bottom: "pool1/norm1"
  top: "conv2/3x3_reduce"
  param {
    lr_mult: 1
    decay_mult: 1
  }
  param {
    lr_mult: 2
    decay_mult: 0
  }
  convolution_param {
    num_output: 64
    kernel_size: 1
    weight_filler {
      type: "xavier"
      std: 0.1
    }
    bias_filler {
      type: "constant"
      value: 0.2
    }
  }
}
layer {
  name: "conv2/relu_3x3_reduce"
  type: "ReLU"
  bottom: "conv2/3x3_reduce"
  top: "conv2/3x3_reduce"
}
layer {
  name: "conv2/3x3"
  type: "Convolution"
  bottom: "conv2/3x3_reduce"
  top: "conv2/3x3"
  param {
    lr_mult: 1
    decay_mult: 1
  }
  param {
    lr_mult: 2
    decay_mult: 0
  }
  convolution_param {
    num_output: 192
    pad: 1
    kernel_size: 3
    weight_filler {
      type: "xavier"
      std: 0.03
    }
    bias_filler {
      type: "constant"
      value: 0.2
    }
  }
}
layer {
  name: "conv2/relu_3x3"
  type: "ReLU"
  bottom: "conv2/3x3"
  top: "conv2/3x3"
}
layer {
  name: "conv2/norm2"
  type: "LRN"
  bottom: "conv2/3x3"
  top: "conv2/norm2"
  lrn_param {
    local_size: 5
    alpha: 0.0001
    beta: 0.75
  }
}
layer {
  name: "pool2/3x3_s2"
  type: "Pooling"
  bottom: "conv2/norm2"
  top: "pool2/3x3_s2"
  pooling_param {
    pool: MAX
    kernel_size: 3
    stride: 2
  }
}
layer {
  name: "inception_3a/1x1"
  type: "Convolution"
  bottom: "pool2/3x3_s2"
  top: "inception_3a/1x1"
  param {
    lr_mult: 1
    decay_mult: 1
  }
  param {
    lr_mult: 2
    decay_mult: 0
  }
  convolution_param {
    num_output: 64
    kernel_size: 1
    weight_filler {
      type: "xavier"
      std: 0.03
    }
    bias_filler {
      type: "constant"
      value: 0.2
    }
  }
}
layer {
  name: "inception_3a/relu_1x1"
  type: "ReLU"
  bottom: "inception_3a/1x1"
  top: "inception_3a/1x1"
}
layer {
  name: "inception_3a/3x3_reduce"
  type: "Convolution"
  bottom: "pool2/3x3_s2"
  top: "inception_3a/3x3_reduce"
  param {
    lr_mult: 1
    decay_mult: 1
  }
  param {
    lr_mult: 2
    decay_mult: 0
  }
  convolution_param {
    num_output: 96
    kernel_size: 1
    weight_filler {
      type: "xavier"
      std: 0.09
    }
    bias_filler {
      type: "constant"
      value: 0.2
    }
  }
}
layer {
  name: "inception_3a/relu_3x3_reduce"
  type: "ReLU"
  bottom: "inception_3a/3x3_reduce"
  top: "inception_3a/3x3_reduce"
}
layer {
  name: "inception_3a/3x3"
  type: "Convolution"
  bottom: "inception_3a/3x3_reduce"
  top: "inception_3a/3x3"
  param {
    lr_mult: 1
    decay_mult: 1
  }
  param {
    lr_mult: 2
    decay_mult: 0
  }
  convolution_param {
    num_output: 128
    pad: 1
    kernel_size: 3
    weight_filler {
      type: "xavier"
      std: 0.03
    }
    bias_filler {
      type: "constant"
      value: 0.2
    }
  }
}
layer {
  name: "inception_3a/relu_3x3"
  type: "ReLU"
  bottom: "inception_3a/3x3"
  top: "inception_3a/3x3"
}
layer {
  name: "inception_3a/5x5_reduce"
  type: "Convolution"
  bottom: "pool2/3x3_s2"
  top: "inception_3a/5x5_reduce"
  param {
    lr_mult: 1
    decay_mult: 1
  }
  param {
    lr_mult: 2
    decay_mult: 0
  }
  convolution_param {
    num_output: 16
    kernel_size: 1
    weight_filler {
      type: "xavier"
      std: 0.2
    }
    bias_filler {
      type: "constant"
      value: 0.2
    }
  }
}
layer {
  name: "inception_3a/relu_5x5_reduce"
  type: "ReLU"
  bottom: "inception_3a/5x5_reduce"
  top: "inception_3a/5x5_reduce"
}
layer {
  name: "inception_3a/5x5"
  type: "Convolution"
  bottom: "inception_3a/5x5_reduce"
  top: "inception_3a/5x5"
  param {
    lr_mult: 1
    decay_mult: 1
  }
  param {
    lr_mult: 2
    decay_mult: 0
  }
  convolution_param {
    num_output: 32
    pad: 2
    kernel_size: 5
    weight_filler {
      type: "xavier"
      std: 0.03
    }
    bias_filler {
      type: "constant"
      value: 0.2
    }
  }
}
layer {
  name: "inception_3a/relu_5x5"
  type: "ReLU"
  bottom: "inception_3a/5x5"
  top: "inception_3a/5x5"
}
layer {
  name: "inception_3a/pool"
  type: "Pooling"
  bottom: "pool2/3x3_s2"
  top: "inception_3a/pool"
  pooling_param {
    pool: MAX
    kernel_size: 3
    stride: 1
    pad: 1
  }
}
layer {
  name: "inception_3a/pool_proj"
  type: "Convolution"
  bottom: "inception_3a/pool"
  top: "inception_3a/pool_proj"
  param {
    lr_mult: 1
    decay_mult: 1
  }
  param {
    lr_mult: 2
    decay_mult: 0
  }
  convolution_param {
    num_output: 32
    kernel_size: 1
    weight_filler {
      type: "xavier"
      std: 0.1
    }
    bias_filler {
      type: "constant"
      value: 0.2
    }
  }
}
layer {
  name: "inception_3a/relu_pool_proj"
  type: "ReLU"
  bottom: "inception_3a/pool_proj"
  top: "inception_3a/pool_proj"
}
layer {
  name: "inception_3a/output"
  type: "Concat"
  bottom: "inception_3a/1x1"
  bottom: "inception_3a/3x3"
  bottom: "inception_3a/5x5"
  bottom: "inception_3a/pool_proj"
  top: "inception_3a/output"
}
layer {
  name: "inception_3b/1x1"
  type: "Convolution"
  bottom: "inception_3a/output"
  top: "inception_3b/1x1"
  param {
    lr_mult: 1
    decay_mult: 1
  }
  param {
    lr_mult: 2
    decay_mult: 0
  }
  convolution_param {
    num_output: 128
    kernel_size: 1
    weight_filler {
      type: "xavier"
      std: 0.03
    }
    bias_filler {
      type: "constant"
      value: 0.2
    }
  }
}
layer {
  name: "inception_3b/relu_1x1"
  type: "ReLU"
  bottom: "inception_3b/1x1"
  top: "inception_3b/1x1"
}
layer {
  name: "inception_3b/3x3_reduce"
  type: "Convolution"
  bottom: "inception_3a/output"
  top: "inception_3b/3x3_reduce"
  param {
    lr_mult: 1
    decay_mult: 1
  }
  param {
    lr_mult: 2
    decay_mult: 0
  }
  convolution_param {
    num_output: 128
    kernel_size: 1
    weight_filler {
      type: "xavier"
      std: 0.09
    }
    bias_filler {
      type: "constant"
      value: 0.2
    }
  }
}
layer {
  name: "inception_3b/relu_3x3_reduce"
  type: "ReLU"
  bottom: "inception_3b/3x3_reduce"
  top: "inception_3b/3x3_reduce"
}
layer {
  name: "inception_3b/3x3"
  type: "Convolution"
  bottom: "inception_3b/3x3_reduce"
  top: "inception_3b/3x3"
  param {
    lr_mult: 1
    decay_mult: 1
  }
  param {
    lr_mult: 2
    decay_mult: 0
  }
  convolution_param {
    num_output: 192
    pad: 1
    kernel_size: 3
    weight_filler {
      type: "xavier"
      std: 0.03
    }
    bias_filler {
      type: "constant"
      value: 0.2
    }
  }
}
layer {
  name: "inception_3b/relu_3x3"
  type: "ReLU"
  bottom: "inception_3b/3x3"
  top: "inception_3b/3x3"
}
layer {
  name: "inception_3b/5x5_reduce"
  type: "Convolution"
  bottom: "inception_3a/output"
  top: "inception_3b/5x5_reduce"
  param {
    lr_mult: 1
    decay_mult: 1
  }
  param {
    lr_mult: 2
    decay_mult: 0
  }
  convolution_param {
    num_output: 32
    kernel_size: 1
    weight_filler {
      type: "xavier"
      std: 0.2
    }
    bias_filler {
      type: "constant"
      value: 0.2
    }
  }
}
layer {
  name: "inception_3b/relu_5x5_reduce"
  type: "ReLU"
  bottom: "inception_3b/5x5_reduce"
  top: "inception_3b/5x5_reduce"
}
layer {
  name: "inception_3b/5x5"
  type: "Convolution"
  bottom: "inception_3b/5x5_reduce"
  top: "inception_3b/5x5"
  param {
    lr_mult: 1
    decay_mult: 1
  }
  param {
    lr_mult: 2
    decay_mult: 0
  }
  convolution_param {
    num_output: 96
    pad: 2
    kernel_size: 5
    weight_filler {
      type: "xavier"
      std: 0.03
    }
    bias_filler {
      type: "constant"
      value: 0.2
    }
  }
}
layer {
  name: "inception_3b/relu_5x5"
  type: "ReLU"
  bottom: "inception_3b/5x5"
  top: "inception_3b/5x5"
}
layer {
  name: "inception_3b/pool"
  type: "Pooling"
  bottom: "inception_3a/output"
  top: "inception_3b/pool"
  pooling_param {
    pool: MAX
    kernel_size: 3
    stride: 1
    pad: 1
  }
}
layer {
  name: "inception_3b/pool_proj"
  type: "Convolution"
  bottom: "inception_3b/pool"
  top: "inception_3b/pool_proj"
  param {
    lr_mult: 1
    decay_mult: 1
  }
  param {
    lr_mult: 2
    decay_mult: 0
  }
  convolution_param {
    num_output: 64
    kernel_size: 1
    weight_filler {
      type: "xavier"
      std: 0.1
    }
    bias_filler {
      type: "constant"
      value: 0.2
    }
  }
}
layer {
  name: "inception_3b/relu_pool_proj"
  type: "ReLU"
  bottom: "inception_3b/pool_proj"
  top: "inception_3b/pool_proj"
}
layer {
  name: "inception_3b/output"
  type: "Concat"
  bottom: "inception_3b/1x1"
  bottom: "inception_3b/3x3"
  bottom: "inception_3b/5x5"
  bottom: "inception_3b/pool_proj"
  top: "inception_3b/output"
}
layer {
  name: "pool3/3x3_s2"
  type: "Pooling"
  bottom: "inception_3b/output"
  top: "pool3/3x3_s2"
  pooling_param {
    pool: MAX
    kernel_size: 3
    stride: 2
  }
}
layer {
  name: "inception_4a/1x1"
  type: "Convolution"
  bottom: "pool3/3x3_s2"
  top: "inception_4a/1x1"
  param {
    lr_mult: 1
    decay_mult: 1
  }
  param {
    lr_mult: 2
    decay_mult: 0
  }
  convolution_param {
    num_output: 192
    kernel_size: 1
    weight_filler {
      type: "xavier"
      std: 0.03
    }
    bias_filler {
      type: "constant"
      value: 0.2
    }
  }
}
layer {
  name: "inception_4a/relu_1x1"
  type: "ReLU"
  bottom: "inception_4a/1x1"
  top: "inception_4a/1x1"
}
layer {
  name: "inception_4a/3x3_reduce"
  type: "Convolution"
  bottom: "pool3/3x3_s2"
  top: "inception_4a/3x3_reduce"
  param {
    lr_mult: 1
    decay_mult: 1
  }
  param {
    lr_mult: 2
    decay_mult: 0
  }
  convolution_param {
    num_output: 96
    kernel_size: 1
    weight_filler {
      type: "xavier"
      std: 0.09
    }
    bias_filler {
      type: "constant"
      value: 0.2
    }
  }
}
layer {
  name: "inception_4a/relu_3x3_reduce"
  type: "ReLU"
  bottom: "inception_4a/3x3_reduce"
  top: "inception_4a/3x3_reduce"
}
layer {
  name: "inception_4a/3x3"
  type: "Convolution"
  bottom: "inception_4a/3x3_reduce"
  top: "inception_4a/3x3"
  param {
    lr_mult: 1
    decay_mult: 1
  }
  param {
    lr_mult: 2
    decay_mult: 0
  }
  convolution_param {
    num_output: 208
    pad: 1
    kernel_size: 3
    weight_filler {
      type: "xavier"
      std: 0.03
    }
    bias_filler {
      type: "constant"
      value: 0.2
    }
  }
}
layer {
  name: "inception_4a/relu_3x3"
  type: "ReLU"
  bottom: "inception_4a/3x3"
  top: "inception_4a/3x3"
}
layer {
  name: "inception_4a/5x5_reduce"
  type: "Convolution"
  bottom: "pool3/3x3_s2"
  top: "inception_4a/5x5_reduce"
  param {
    lr_mult: 1
    decay_mult: 1
  }
  param {
    lr_mult: 2
    decay_mult: 0
  }
  convolution_param {
    num_output: 16
    kernel_size: 1
    weight_filler {
      type: "xavier"
      std: 0.2
    }
    bias_filler {
      type: "constant"
      value: 0.2
    }
  }
}
layer {
  name: "inception_4a/relu_5x5_reduce"
  type: "ReLU"
  bottom: "inception_4a/5x5_reduce"
  top: "inception_4a/5x5_reduce"
}
layer {
  name: "inception_4a/5x5"
  type: "Convolution"
  bottom: "inception_4a/5x5_reduce"
  top: "inception_4a/5x5"
  param {
    lr_mult: 1
    decay_mult: 1
  }
  param {
    lr_mult: 2
    decay_mult: 0
  }
  convolution_param {
    num_output: 48
    pad: 2
    kernel_size: 5
    weight_filler {
      type: "xavier"
      std: 0.03
    }
    bias_filler {
      type: "constant"
      value: 0.2
    }
  }
}
layer {
  name: "inception_4a/relu_5x5"
  type: "ReLU"
  bottom: "inception_4a/5x5"
  top: "inception_4a/5x5"
}
layer {
  name: "inception_4a/pool"
  type: "Pooling"
  bottom: "pool3/3x3_s2"
  top: "inception_4a/pool"
  pooling_param {
    pool: MAX
    kernel_size: 3
    stride: 1
    pad: 1
  }
}
layer {
  name: "inception_4a/pool_proj"
  type: "Convolution"
  bottom: "inception_4a/pool"
  top: "inception_4a/pool_proj"
  param {
    lr_mult: 1
    decay_mult: 1
  }
  param {
    lr_mult: 2
    decay_mult: 0
  }
  convolution_param {
    num_output: 64
    kernel_size: 1
    weight_filler {
      type: "xavier"
      std: 0.1
    }
    bias_filler {
      type: "constant"
      value: 0.2
    }
  }
}
layer {
  name: "inception_4a/relu_pool_proj"
  type: "ReLU"
  bottom: "inception_4a/pool_proj"
  top: "inception_4a/pool_proj"
}
layer {
  name: "inception_4a/output"
  type: "Concat"
  bottom: "inception_4a/1x1"
  bottom: "inception_4a/3x3"
  bottom: "inception_4a/5x5"
  bottom: "inception_4a/pool_proj"
  top: "inception_4a/output"
}
layer {
  name: "loss1/ave_pool"
  type: "Pooling"
  bottom: "inception_4a/output"
  top: "loss1/ave_pool"
  pooling_param {
    pool: AVE
    kernel_size: 5
    stride: 3
  }
}
layer {
  name: "loss1/conv"
  type: "Convolution"
  bottom: "loss1/ave_pool"
  top: "loss1/conv"
  param {
    lr_mult: 1
    decay_mult: 1
  }
  param {
    lr_mult: 2
    decay_mult: 0
  }
  convolution_param {
    num_output: 128
    kernel_size: 1
    weight_filler {
      type: "xavier"
      std: 0.08
    }
    bias_filler {
      type: "constant"
      value: 0.2
    }
  }
}
layer {
  name: "loss1/relu_conv"
  type: "ReLU"
  bottom: "loss1/conv"
  top: "loss1/conv"
}
layer {
  name: "loss1/fc"
  type: "InnerProduct"
  bottom: "loss1/conv"
  top: "loss1/fc"
  param {
    lr_mult: 1
    decay_mult: 1
  }
  param {
    lr_mult: 2
    decay_mult: 0
  }
  inner_product_param {
    num_output: 1024
    weight_filler {
      type: "xavier"
      std: 0.02
    }
    bias_filler {
      type: "constant"
      value: 0.2
    }
  }
}
layer {
  name: "loss1/relu_fc"
  type: "ReLU"
  bottom: "loss1/fc"
  top: "loss1/fc"
}
layer {
  name: "loss1/drop_fc"
  type: "Dropout"
  bottom: "loss1/fc"
  top: "loss1/fc"
  dropout_param {
    dropout_ratio: 0.7
  }
}
layer {
  name: "loss1/classifier_plantvillage"
  type: "InnerProduct"
  bottom: "loss1/fc"
  top: "loss1/classifier_plantvillage"
  param {
    lr_mult: 1
    decay_mult: 1
  }
  param {
    lr_mult: 2
    decay_mult: 0
  }
  inner_product_param {
    num_output: 38
    weight_filler {
      type: "xavier"
      std: 0.0009765625
    }
    bias_filler {
      type: "constant"
      value: 0
    }
  }
}
layer {
  name: "inception_4b/1x1"
  type: "Convolution"
  bottom: "inception_4a/output"
  top: "inception_4b/1x1"
  param {
    lr_mult: 1
    decay_mult: 1
  }
  param {
    lr_mult: 2
    decay_mult: 0
  }
  convolution_param {
    num_output: 160
    kernel_size: 1
    weight_filler {
      type: "xavier"
      std: 0.03
    }
    bias_filler {
      type: "constant"
      value: 0.2
    }
  }
}
layer {
  name: "inception_4b/relu_1x1"
  type: "ReLU"
  bottom: "inception_4b/1x1"
  top: "inception_4b/1x1"
}
layer {
  name: "inception_4b/3x3_reduce"
  type: "Convolution"
  bottom: "inception_4a/output"
  top: "inception_4b/3x3_reduce"
  param {
    lr_mult: 1
    decay_mult: 1
  }
  param {
    lr_mult: 2
    decay_mult: 0
  }
  convolution_param {
    num_output: 112
    kernel_size: 1
    weight_filler {
      type: "xavier"
      std: 0.09
    }
    bias_filler {
      type: "constant"
      value: 0.2
    }
  }
}
layer {
  name: "inception_4b/relu_3x3_reduce"
  type: "ReLU"
  bottom: "inception_4b/3x3_reduce"
  top: "inception_4b/3x3_reduce"
}
layer {
  name: "inception_4b/3x3"
  type: "Convolution"
  bottom: "inception_4b/3x3_reduce"
  top: "inception_4b/3x3"
  param {
    lr_mult: 1
    decay_mult: 1
  }
  param {
    lr_mult: 2
    decay_mult: 0
  }
  convolution_param {
    num_output: 224
    pad: 1
    kernel_size: 3
    weight_filler {
      type: "xavier"
      std: 0.03
    }
    bias_filler {
      type: "constant"
      value: 0.2
    }
  }
}
layer {
  name: "inception_4b/relu_3x3"
  type: "ReLU"
  bottom: "inception_4b/3x3"
  top: "inception_4b/3x3"
}
layer {
  name: "inception_4b/5x5_reduce"
  type: "Convolution"
  bottom: "inception_4a/output"
  top: "inception_4b/5x5_reduce"
  param {
    lr_mult: 1
    decay_mult: 1
  }
  param {
    lr_mult: 2
    decay_mult: 0
  }
  convolution_param {
    num_output: 24
    kernel_size: 1
    weight_filler {
      type: "xavier"
      std: 0.2
    }
    bias_filler {
      type: "constant"
      value: 0.2
    }
  }
}
layer {
  name: "inception_4b/relu_5x5_reduce"
  type: "ReLU"
  bottom: "inception_4b/5x5_reduce"
  top: "inception_4b/5x5_reduce"
}
layer {
  name: "inception_4b/5x5"
  type: "Convolution"
  bottom: "inception_4b/5x5_reduce"
  top: "inception_4b/5x5"
  param {
    lr_mult: 1
    decay_mult: 1
  }
  param {
    lr_mult: 2
    decay_mult: 0
  }
  convolution_param {
    num_output: 64
    pad: 2
    kernel_size: 5
    weight_filler {
      type: "xavier"
      std: 0.03
    }
    bias_filler {
      type: "constant"
      value: 0.2
    }
  }
}
layer {
  name: "inception_4b/relu_5x5"
  type: "ReLU"
  bottom: "inception_4b/5x5"
  top: "inception_4b/5x5"
}
layer {
  name: "inception_4b/pool"
  type: "Pooling"
  bottom: "inception_4a/output"
  top: "inception_4b/pool"
  pooling_param {
    pool: MAX
    kernel_size: 3
    stride: 1
    pad: 1
  }
}
layer {
  name: "inception_4b/pool_proj"
  type: "Convolution"
  bottom: "inception_4b/pool"
  top: "inception_4b/pool_proj"
  param {
    lr_mult: 1
    decay_mult: 1
  }
  param {
    lr_mult: 2
    decay_mult: 0
  }
  convolution_param {
    num_output: 64
    kernel_size: 1
    weight_filler {
      type: "xavier"
      std: 0.1
    }
    bias_filler {
      type: "constant"
      value: 0.2
    }
  }
}
layer {
  name: "inception_4b/relu_pool_proj"
  type: "ReLU"
  bottom: "inception_4b/pool_proj"
  top: "inception_4b/pool_proj"
}
layer {
  name: "inception_4b/output"
  type: "Concat"
  bottom: "inception_4b/1x1"
  bottom: "inception_4b/3x3"
  bottom: "inception_4b/5x5"
  bottom: "inception_4b/pool_proj"
  top: "inception_4b/output"
}
layer {
  name: "inception_4c/1x1"
  type: "Convolution"
  bottom: "inception_4b/output"
  top: "inception_4c/1x1"
  param {
    lr_mult: 1
    decay_mult: 1
  }
  param {
    lr_mult: 2
    decay_mult: 0
  }
  convolution_param {
    num_output: 128
    kernel_size: 1
    weight_filler {
      type: "xavier"
      std: 0.03
    }
    bias_filler {
      type: "constant"
      value: 0.2
    }
  }
}
layer {
  name: "inception_4c/relu_1x1"
  type: "ReLU"
  bottom: "inception_4c/1x1"
  top: "inception_4c/1x1"
}
layer {
  name: "inception_4c/3x3_reduce"
  type: "Convolution"
  bottom: "inception_4b/output"
  top: "inception_4c/3x3_reduce"
  param {
    lr_mult: 1
    decay_mult: 1
  }
  param {
    lr_mult: 2
    decay_mult: 0
  }
  convolution_param {
    num_output: 128
    kernel_size: 1
    weight_filler {
      type: "xavier"
      std: 0.09
    }
    bias_filler {
      type: "constant"
      value: 0.2
    }
  }
}
layer {
  name: "inception_4c/relu_3x3_reduce"
  type: "ReLU"
  bottom: "inception_4c/3x3_reduce"
  top: "inception_4c/3x3_reduce"
}
layer {
  name: "inception_4c/3x3"
  type: "Convolution"
  bottom: "inception_4c/3x3_reduce"
  top: "inception_4c/3x3"
  param {
    lr_mult: 1
    decay_mult: 1
  }
  param {
    lr_mult: 2
    decay_mult: 0
  }
  convolution_param {
    num_output: 256
    pad: 1
    kernel_size: 3
    weight_filler {
      type: "xavier"
      std: 0.03
    }
    bias_filler {
      type: "constant"
      value: 0.2
    }
  }
}
layer {
  name: "inception_4c/relu_3x3"
  type: "ReLU"
  bottom: "inception_4c/3x3"
  top: "inception_4c/3x3"
}
layer {
  name: "inception_4c/5x5_reduce"
  type: "Convolution"
  bottom: "inception_4b/output"
  top: "inception_4c/5x5_reduce"
  param {
    lr_mult: 1
    decay_mult: 1
  }
  param {
    lr_mult: 2
    decay_mult: 0
  }
  convolution_param {
    num_output: 24
    kernel_size: 1
    weight_filler {
      type: "xavier"
      std: 0.2
    }
    bias_filler {
      type: "constant"
      value: 0.2
    }
  }
}
layer {
  name: "inception_4c/relu_5x5_reduce"
  type: "ReLU"
  bottom: "inception_4c/5x5_reduce"
  top: "inception_4c/5x5_reduce"
}
layer {
  name: "inception_4c/5x5"
  type: "Convolution"
  bottom: "inception_4c/5x5_reduce"
  top: "inception_4c/5x5"
  param {
    lr_mult: 1
    decay_mult: 1
  }
  param {
    lr_mult: 2
    decay_mult: 0
  }
  convolution_param {
    num_output: 64
    pad: 2
    kernel_size: 5
    weight_filler {
      type: "xavier"
      std: 0.03
    }
    bias_filler {
      type: "constant"
      value: 0.2
    }
  }
}
layer {
  name: "inception_4c/relu_5x5"
  type: "ReLU"
  bottom: "inception_4c/5x5"
  top: "inception_4c/5x5"
}
layer {
  name: "inception_4c/pool"
  type: "Pooling"
  bottom: "inception_4b/output"
  top: "inception_4c/pool"
  pooling_param {
    pool: MAX
    kernel_size: 3
    stride: 1
    pad: 1
  }
}
layer {
  name: "inception_4c/pool_proj"
  type: "Convolution"
  bottom: "inception_4c/pool"
  top: "inception_4c/pool_proj"
  param {
    lr_mult: 1
    decay_mult: 1
  }
  param {
    lr_mult: 2
    decay_mult: 0
  }
  convolution_param {
    num_output: 64
    kernel_size: 1
    weight_filler {
      type: "xavier"
      std: 0.1
    }
    bias_filler {
      type: "constant"
      value: 0.2
    }
  }
}
layer {
  name: "inception_4c/relu_pool_proj"
  type: "ReLU"
  bottom: "inception_4c/pool_proj"
  top: "inception_4c/pool_proj"
}
layer {
  name: "inception_4c/output"
  type: "Concat"
  bottom: "inception_4c/1x1"
  bottom: "inception_4c/3x3"
  bottom: "inception_4c/5x5"
  bottom: "inception_4c/pool_proj"
  top: "inception_4c/output"
}
layer {
  name: "inception_4d/1x1"
  type: "Convolution"
  bottom: "inception_4c/output"
  top: "inception_4d/1x1"
  param {
    lr_mult: 1
    decay_mult: 1
  }
  param {
    lr_mult: 2
    decay_mult: 0
  }
  convolution_param {
    num_output: 112
    kernel_size: 1
    weight_filler {
      type: "xavier"
      std: 0.03
    }
    bias_filler {
      type: "constant"
      value: 0.2
    }
  }
}
layer {
  name: "inception_4d/relu_1x1"
  type: "ReLU"
  bottom: "inception_4d/1x1"
  top: "inception_4d/1x1"
}
layer {
  name: "inception_4d/3x3_reduce"
  type: "Convolution"
  bottom: "inception_4c/output"
  top: "inception_4d/3x3_reduce"
  param {
    lr_mult: 1
    decay_mult: 1
  }
  param {
    lr_mult: 2
    decay_mult: 0
  }
  convolution_param {
    num_output: 144
    kernel_size: 1
    weight_filler {
      type: "xavier"
      std: 0.09
    }
    bias_filler {
      type: "constant"
      value: 0.2
    }
  }
}
layer {
  name: "inception_4d/relu_3x3_reduce"
  type: "ReLU"
  bottom: "inception_4d/3x3_reduce"
  top: "inception_4d/3x3_reduce"
}
layer {
  name: "inception_4d/3x3"
  type: "Convolution"
  bottom: "inception_4d/3x3_reduce"
  top: "inception_4d/3x3"
  param {
    lr_mult: 1
    decay_mult: 1
  }
  param {
    lr_mult: 2
    decay_mult: 0
  }
  convolution_param {
    num_output: 288
    pad: 1
    kernel_size: 3
    weight_filler {
      type: "xavier"
      std: 0.03
    }
    bias_filler {
      type: "constant"
      value: 0.2
    }
  }
}
layer {
  name: "inception_4d/relu_3x3"
  type: "ReLU"
  bottom: "inception_4d/3x3"
  top: "inception_4d/3x3"
}
layer {
  name: "inception_4d/5x5_reduce"
  type: "Convolution"
  bottom: "inception_4c/output"
  top: "inception_4d/5x5_reduce"
  param {
    lr_mult: 1
    decay_mult: 1
  }
  param {
    lr_mult: 2
    decay_mult: 0
  }
  convolution_param {
    num_output: 32
    kernel_size: 1
    weight_filler {
      type: "xavier"
      std: 0.2
    }
    bias_filler {
      type: "constant"
      value: 0.2
    }
  }
}
layer {
  name: "inception_4d/relu_5x5_reduce"
  type: "ReLU"
  bottom: "inception_4d/5x5_reduce"
  top: "inception_4d/5x5_reduce"
}
layer {
  name: "inception_4d/5x5"
  type: "Convolution"
  bottom: "inception_4d/5x5_reduce"
  top: "inception_4d/5x5"
  param {
    lr_mult: 1
    decay_mult: 1
  }
  param {
    lr_mult: 2
    decay_mult: 0
  }
  convolution_param {
    num_output: 64
    pad: 2
    kernel_size: 5
    weight_filler {
      type: "xavier"
      std: 0.03
    }
    bias_filler {
      type: "constant"
      value: 0.2
    }
  }
}
layer {
  name: "inception_4d/relu_5x5"
  type: "ReLU"
  bottom: "inception_4d/5x5"
  top: "inception_4d/5x5"
}
layer {
  name: "inception_4d/pool"
  type: "Pooling"
  bottom: "inception_4c/output"
  top: "inception_4d/pool"
  pooling_param {
    pool: MAX
    kernel_size: 3
    stride: 1
    pad: 1
  }
}
layer {
  name: "inception_4d/pool_proj"
  type: "Convolution"
  bottom: "inception_4d/pool"
  top: "inception_4d/pool_proj"
  param {
    lr_mult: 1
    decay_mult: 1
  }
  param {
    lr_mult: 2
    decay_mult: 0
  }
  convolution_param {
    num_output: 64
    kernel_size: 1
    weight_filler {
      type: "xavier"
      std: 0.1
    }
    bias_filler {
      type: "constant"
      value: 0.2
    }
  }
}
layer {
  name: "inception_4d/relu_pool_proj"
  type: "ReLU"
  bottom: "inception_4d/pool_proj"
  top: "inception_4d/pool_proj"
}
layer {
  name: "inception_4d/output"
  type: "Concat"
  bottom: "inception_4d/1x1"
  bottom: "inception_4d/3x3"
  bottom: "inception_4d/5x5"
  bottom: "inception_4d/pool_proj"
  top: "inception_4d/output"
}
layer {
  name: "loss2/ave_pool"
  type: "Pooling"
  bottom: "inception_4d/output"
  top: "loss2/ave_pool"
  pooling_param {
    pool: AVE
    kernel_size: 5
    stride: 3
  }
}
layer {
  name: "loss2/conv"
  type: "Convolution"
  bottom: "loss2/ave_pool"
  top: "loss2/conv"
  param {
    lr_mult: 1
    decay_mult: 1
  }
  param {
    lr_mult: 2
    decay_mult: 0
  }
  convolution_param {
    num_output: 128
    kernel_size: 1
    weight_filler {
      type: "xavier"
      std: 0.08
    }
    bias_filler {
      type: "constant"
      value: 0.2
    }
  }
}
layer {
  name: "loss2/relu_conv"
  type: "ReLU"
  bottom: "loss2/conv"
  top: "loss2/conv"
}
layer {
  name: "loss2/fc"
  type: "InnerProduct"
  bottom: "loss2/conv"
  top: "loss2/fc"
  param {
    lr_mult: 1
    decay_mult: 1
  }
  param {
    lr_mult: 2
    decay_mult: 0
  }
  inner_product_param {
    num_output: 1024
    weight_filler {
      type: "xavier"
      std: 0.02
    }
    bias_filler {
      type: "constant"
      value: 0.2
    }
  }
}
layer {
  name: "loss2/relu_fc"
  type: "ReLU"
  bottom: "loss2/fc"
  top: "loss2/fc"
}
layer {
  name: "loss2/drop_fc"
  type: "Dropout"
  bottom: "loss2/fc"
  top: "loss2/fc"
  dropout_param {
    dropout_ratio: 0.7
  }
}
layer {
  name: "loss2/classifier_plantvillage"
  type: "InnerProduct"
  bottom: "loss2/fc"
  top: "loss2/classifier_plantvillage"
  param {
    lr_mult: 1
    decay_mult: 1
  }
  param {
    lr_mult: 2
    decay_mult: 0
  }
  inner_product_param {
    num_output: 38
    weight_filler {
      type: "xavier"
      std: 0.0009765625
    }
    bias_filler {
      type: "constant"
      value: 0
    }
  }
}
layer {
  name: "inception_4e/1x1"
  type: "Convolution"
  bottom: "inception_4d/output"
  top: "inception_4e/1x1"
  param {
    lr_mult: 1
    decay_mult: 1
  }
  param {
    lr_mult: 2
    decay_mult: 0
  }
  convolution_param {
    num_output: 256
    kernel_size: 1
    weight_filler {
      type: "xavier"
      std: 0.03
    }
    bias_filler {
      type: "constant"
      value: 0.2
    }
  }
}
layer {
  name: "inception_4e/relu_1x1"
  type: "ReLU"
  bottom: "inception_4e/1x1"
  top: "inception_4e/1x1"
}
layer {
  name: "inception_4e/3x3_reduce"
  type: "Convolution"
  bottom: "inception_4d/output"
  top: "inception_4e/3x3_reduce"
  param {
    lr_mult: 1
    decay_mult: 1
  }
  param {
    lr_mult: 2
    decay_mult: 0
  }
  convolution_param {
    num_output: 160
    kernel_size: 1
    weight_filler {
      type: "xavier"
      std: 0.09
    }
    bias_filler {
      type: "constant"
      value: 0.2
    }
  }
}
layer {
  name: "inception_4e/relu_3x3_reduce"
  type: "ReLU"
  bottom: "inception_4e/3x3_reduce"
  top: "inception_4e/3x3_reduce"
}
layer {
  name: "inception_4e/3x3"
  type: "Convolution"
  bottom: "inception_4e/3x3_reduce"
  top: "inception_4e/3x3"
  param {
    lr_mult: 1
    decay_mult: 1
  }
  param {
    lr_mult: 2
    decay_mult: 0
  }
  convolution_param {
    num_output: 320
    pad: 1
    kernel_size: 3
    weight_filler {
      type: "xavier"
      std: 0.03
    }
    bias_filler {
      type: "constant"
      value: 0.2
    }
  }
}
layer {
  name: "inception_4e/relu_3x3"
  type: "ReLU"
  bottom: "inception_4e/3x3"
  top: "inception_4e/3x3"
}
layer {
  name: "inception_4e/5x5_reduce"
  type: "Convolution"
  bottom: "inception_4d/output"
  top: "inception_4e/5x5_reduce"
  param {
    lr_mult: 1
    decay_mult: 1
  }
  param {
    lr_mult: 2
    decay_mult: 0
  }
  convolution_param {
    num_output: 32
    kernel_size: 1
    weight_filler {
      type: "xavier"
      std: 0.2
    }
    bias_filler {
      type: "constant"
      value: 0.2
    }
  }
}
layer {
  name: "inception_4e/relu_5x5_reduce"
  type: "ReLU"
  bottom: "inception_4e/5x5_reduce"
  top: "inception_4e/5x5_reduce"
}
layer {
  name: "inception_4e/5x5"
  type: "Convolution"
  bottom: "inception_4e/5x5_reduce"
  top: "inception_4e/5x5"
  p
I0403 21:38:37.686480 12324 layer_factory.hpp:77] Creating layer data
I0403 21:38:37.687042 12324 net.cpp:91] Creating Layer data
I0403 21:38:37.687075 12324 net.cpp:399] data -> data
I0403 21:38:37.687126 12324 net.cpp:399] data -> label
I0403 21:38:37.687162 12324 data_transformer.cpp:25] Loading mean file from: /home/mohanty/data/final_dataset/lmdb/color-80-20/mean.binaryproto
I0403 21:38:37.688273 12327 db_lmdb.cpp:38] Opened lmdb /home/mohanty/data/final_dataset/lmdb/color-80-20/test_db
I0403 21:38:37.700408 12324 data_layer.cpp:41] output data size: 24,3,224,224
I0403 21:38:37.728227 12324 net.cpp:141] Setting up data
I0403 21:38:37.728337 12324 net.cpp:148] Top shape: 24 3 224 224 (3612672)
I0403 21:38:37.728359 12324 net.cpp:148] Top shape: 24 (24)
I0403 21:38:37.728374 12324 net.cpp:156] Memory required for data: 14450784
I0403 21:38:37.728401 12324 layer_factory.hpp:77] Creating layer label_data_1_split
I0403 21:38:37.728430 12324 net.cpp:91] Creating Layer label_data_1_split
I0403 21:38:37.728447 12324 net.cpp:425] label_data_1_split <- label
I0403 21:38:37.728478 12324 net.cpp:399] label_data_1_split -> label_data_1_split_0
I0403 21:38:37.728507 12324 net.cpp:399] label_data_1_split -> label_data_1_split_1
I0403 21:38:37.728528 12324 net.cpp:399] label_data_1_split -> label_data_1_split_2
I0403 21:38:37.728549 12324 net.cpp:399] label_data_1_split -> label_data_1_split_3
I0403 21:38:37.728580 12324 net.cpp:399] label_data_1_split -> label_data_1_split_4
I0403 21:38:37.728600 12324 net.cpp:399] label_data_1_split -> label_data_1_split_5
I0403 21:38:37.728620 12324 net.cpp:399] label_data_1_split -> label_data_1_split_6
I0403 21:38:37.728638 12324 net.cpp:399] label_data_1_split -> label_data_1_split_7
I0403 21:38:37.728657 12324 net.cpp:399] label_data_1_split -> label_data_1_split_8
I0403 21:38:37.728677 12324 net.cpp:399] label_data_1_split -> label_data_1_split_9
I0403 21:38:37.728787 12324 net.cpp:141] Setting up label_data_1_split
I0403 21:38:37.728809 12324 net.cpp:148] Top shape: 24 (24)
I0403 21:38:37.728826 12324 net.cpp:148] Top shape: 24 (24)
I0403 21:38:37.728842 12324 net.cpp:148] Top shape: 24 (24)
I0403 21:38:37.728857 12324 net.cpp:148] Top shape: 24 (24)
I0403 21:38:37.728873 12324 net.cpp:148] Top shape: 24 (24)
I0403 21:38:37.728886 12324 net.cpp:148] Top shape: 24 (24)
I0403 21:38:37.728902 12324 net.cpp:148] Top shape: 24 (24)
I0403 21:38:37.728917 12324 net.cpp:148] Top shape: 24 (24)
I0403 21:38:37.728931 12324 net.cpp:148] Top shape: 24 (24)
I0403 21:38:37.728947 12324 net.cpp:148] Top shape: 24 (24)
I0403 21:38:37.728992 12324 net.cpp:156] Memory required for data: 14451744
I0403 21:38:37.729009 12324 layer_factory.hpp:77] Creating layer conv1/7x7_s2
I0403 21:38:37.729041 12324 net.cpp:91] Creating Layer conv1/7x7_s2
I0403 21:38:37.729059 12324 net.cpp:425] conv1/7x7_s2 <- data
I0403 21:38:37.729079 12324 net.cpp:399] conv1/7x7_s2 -> conv1/7x7_s2
I0403 21:38:37.870105 12324 net.cpp:141] Setting up conv1/7x7_s2
I0403 21:38:37.870218 12324 net.cpp:148] Top shape: 24 64 112 112 (19267584)
I0403 21:38:37.870235 12324 net.cpp:156] Memory required for data: 91522080
I0403 21:38:37.870266 12324 layer_factory.hpp:77] Creating layer conv1/relu_7x7
I0403 21:38:37.870292 12324 net.cpp:91] Creating Layer conv1/relu_7x7
I0403 21:38:37.870311 12324 net.cpp:425] conv1/relu_7x7 <- conv1/7x7_s2
I0403 21:38:37.870332 12324 net.cpp:386] conv1/relu_7x7 -> conv1/7x7_s2 (in-place)
I0403 21:38:37.870592 12324 net.cpp:141] Setting up conv1/relu_7x7
I0403 21:38:37.870618 12324 net.cpp:148] Top shape: 24 64 112 112 (19267584)
I0403 21:38:37.870633 12324 net.cpp:156] Memory required for data: 168592416
I0403 21:38:37.870648 12324 layer_factory.hpp:77] Creating layer pool1/3x3_s2
I0403 21:38:37.870676 12324 net.cpp:91] Creating Layer pool1/3x3_s2
I0403 21:38:37.870693 12324 net.cpp:425] pool1/3x3_s2 <- conv1/7x7_s2
I0403 21:38:37.870712 12324 net.cpp:399] pool1/3x3_s2 -> pool1/3x3_s2
I0403 21:38:37.870789 12324 net.cpp:141] Setting up pool1/3x3_s2
I0403 21:38:37.870812 12324 net.cpp:148] Top shape: 24 64 56 56 (4816896)
I0403 21:38:37.870826 12324 net.cpp:156] Memory required for data: 187860000
I0403 21:38:37.870841 12324 layer_factory.hpp:77] Creating layer pool1/norm1
I0403 21:38:37.870867 12324 net.cpp:91] Creating Layer pool1/norm1
I0403 21:38:37.870884 12324 net.cpp:425] pool1/norm1 <- pool1/3x3_s2
I0403 21:38:37.870903 12324 net.cpp:399] pool1/norm1 -> pool1/norm1
I0403 21:38:37.871196 12324 net.cpp:141] Setting up pool1/norm1
I0403 21:38:37.871227 12324 net.cpp:148] Top shape: 24 64 56 56 (4816896)
I0403 21:38:37.871242 12324 net.cpp:156] Memory required for data: 207127584
I0403 21:38:37.871255 12324 layer_factory.hpp:77] Creating layer conv2/3x3_reduce
I0403 21:38:37.871282 12324 net.cpp:91] Creating Layer conv2/3x3_reduce
I0403 21:38:37.871300 12324 net.cpp:425] conv2/3x3_reduce <- pool1/norm1
I0403 21:38:37.871323 12324 net.cpp:399] conv2/3x3_reduce -> conv2/3x3_reduce
I0403 21:38:37.872757 12324 net.cpp:141] Setting up conv2/3x3_reduce
I0403 21:38:37.872791 12324 net.cpp:148] Top shape: 24 64 56 56 (4816896)
I0403 21:38:37.872807 12324 net.cpp:156] Memory required for data: 226395168
I0403 21:38:37.872829 12324 layer_factory.hpp:77] Creating layer conv2/relu_3x3_reduce
I0403 21:38:37.872848 12324 net.cpp:91] Creating Layer conv2/relu_3x3_reduce
I0403 21:38:37.872864 12324 net.cpp:425] conv2/relu_3x3_reduce <- conv2/3x3_reduce
I0403 21:38:37.872884 12324 net.cpp:386] conv2/relu_3x3_reduce -> conv2/3x3_reduce (in-place)
I0403 21:38:37.873142 12324 net.cpp:141] Setting up conv2/relu_3x3_reduce
I0403 21:38:37.873170 12324 net.cpp:148] Top shape: 24 64 56 56 (4816896)
I0403 21:38:37.873188 12324 net.cpp:156] Memory required for data: 245662752
I0403 21:38:37.873203 12324 layer_factory.hpp:77] Creating layer conv2/3x3
I0403 21:38:37.873245 12324 net.cpp:91] Creating Layer conv2/3x3
I0403 21:38:37.873266 12324 net.cpp:425] conv2/3x3 <- conv2/3x3_reduce
I0403 21:38:37.873291 12324 net.cpp:399] conv2/3x3 -> conv2/3x3
I0403 21:38:37.875516 12324 net.cpp:141] Setting up conv2/3x3
I0403 21:38:37.875547 12324 net.cpp:148] Top shape: 24 192 56 56 (14450688)
I0403 21:38:37.875563 12324 net.cpp:156] Memory required for data: 303465504
I0403 21:38:37.875583 12324 layer_factory.hpp:77] Creating layer conv2/relu_3x3
I0403 21:38:37.875602 12324 net.cpp:91] Creating Layer conv2/relu_3x3
I0403 21:38:37.875618 12324 net.cpp:425] conv2/relu_3x3 <- conv2/3x3
I0403 21:38:37.875638 12324 net.cpp:386] conv2/relu_3x3 -> conv2/3x3 (in-place)
I0403 21:38:37.875802 12324 net.cpp:141] Setting up conv2/relu_3x3
I0403 21:38:37.875826 12324 net.cpp:148] Top shape: 24 192 56 56 (14450688)
I0403 21:38:37.875872 12324 net.cpp:156] Memory required for data: 361268256
I0403 21:38:37.875888 12324 layer_factory.hpp:77] Creating layer conv2/norm2
I0403 21:38:37.875910 12324 net.cpp:91] Creating Layer conv2/norm2
I0403 21:38:37.875926 12324 net.cpp:425] conv2/norm2 <- conv2/3x3
I0403 21:38:37.875946 12324 net.cpp:399] conv2/norm2 -> conv2/norm2
I0403 21:38:37.876245 12324 net.cpp:141] Setting up conv2/norm2
I0403 21:38:37.876276 12324 net.cpp:148] Top shape: 24 192 56 56 (14450688)
I0403 21:38:37.876292 12324 net.cpp:156] Memory required for data: 419071008
I0403 21:38:37.876307 12324 layer_factory.hpp:77] Creating layer pool2/3x3_s2
I0403 21:38:37.876323 12324 net.cpp:91] Creating Layer pool2/3x3_s2
I0403 21:38:37.876338 12324 net.cpp:425] pool2/3x3_s2 <- conv2/norm2
I0403 21:38:37.876356 12324 net.cpp:399] pool2/3x3_s2 -> pool2/3x3_s2
I0403 21:38:37.876406 12324 net.cpp:141] Setting up pool2/3x3_s2
I0403 21:38:37.876428 12324 net.cpp:148] Top shape: 24 192 28 28 (3612672)
I0403 21:38:37.876442 12324 net.cpp:156] Memory required for data: 433521696
I0403 21:38:37.876456 12324 layer_factory.hpp:77] Creating layer pool2/3x3_s2_pool2/3x3_s2_0_split
I0403 21:38:37.876474 12324 net.cpp:91] Creating Layer pool2/3x3_s2_pool2/3x3_s2_0_split
I0403 21:38:37.876490 12324 net.cpp:425] pool2/3x3_s2_pool2/3x3_s2_0_split <- pool2/3x3_s2
I0403 21:38:37.876507 12324 net.cpp:399] pool2/3x3_s2_pool2/3x3_s2_0_split -> pool2/3x3_s2_pool2/3x3_s2_0_split_0
I0403 21:38:37.876525 12324 net.cpp:399] pool2/3x3_s2_pool2/3x3_s2_0_split -> pool2/3x3_s2_pool2/3x3_s2_0_split_1
I0403 21:38:37.876544 12324 net.cpp:399] pool2/3x3_s2_pool2/3x3_s2_0_split -> pool2/3x3_s2_pool2/3x3_s2_0_split_2
I0403 21:38:37.876564 12324 net.cpp:399] pool2/3x3_s2_pool2/3x3_s2_0_split -> pool2/3x3_s2_pool2/3x3_s2_0_split_3
I0403 21:38:37.876631 12324 net.cpp:141] Setting up pool2/3x3_s2_pool2/3x3_s2_0_split
I0403 21:38:37.876653 12324 net.cpp:148] Top shape: 24 192 28 28 (3612672)
I0403 21:38:37.876668 12324 net.cpp:148] Top shape: 24 192 28 28 (3612672)
I0403 21:38:37.876683 12324 net.cpp:148] Top shape: 24 192 28 28 (3612672)
I0403 21:38:37.876698 12324 net.cpp:148] Top shape: 24 192 28 28 (3612672)
I0403 21:38:37.876713 12324 net.cpp:156] Memory required for data: 491324448
I0403 21:38:37.876726 12324 layer_factory.hpp:77] Creating layer inception_3a/1x1
I0403 21:38:37.876746 12324 net.cpp:91] Creating Layer inception_3a/1x1
I0403 21:38:37.876762 12324 net.cpp:425] inception_3a/1x1 <- pool2/3x3_s2_pool2/3x3_s2_0_split_0
I0403 21:38:37.876782 12324 net.cpp:399] inception_3a/1x1 -> inception_3a/1x1
I0403 21:38:37.878275 12324 net.cpp:141] Setting up inception_3a/1x1
I0403 21:38:37.878305 12324 net.cpp:148] Top shape: 24 64 28 28 (1204224)
I0403 21:38:37.878320 12324 net.cpp:156] Memory required for data: 496141344
I0403 21:38:37.878339 12324 layer_factory.hpp:77] Creating layer inception_3a/relu_1x1
I0403 21:38:37.878355 12324 net.cpp:91] Creating Layer inception_3a/relu_1x1
I0403 21:38:37.878371 12324 net.cpp:425] inception_3a/relu_1x1 <- inception_3a/1x1
I0403 21:38:37.878389 12324 net.cpp:386] inception_3a/relu_1x1 -> inception_3a/1x1 (in-place)
I0403 21:38:37.878556 12324 net.cpp:141] Setting up inception_3a/relu_1x1
I0403 21:38:37.878579 12324 net.cpp:148] Top shape: 24 64 28 28 (1204224)
I0403 21:38:37.878593 12324 net.cpp:156] Memory required for data: 500958240
I0403 21:38:37.878607 12324 layer_factory.hpp:77] Creating layer inception_3a/3x3_reduce
I0403 21:38:37.878628 12324 net.cpp:91] Creating Layer inception_3a/3x3_reduce
I0403 21:38:37.878645 12324 net.cpp:425] inception_3a/3x3_reduce <- pool2/3x3_s2_pool2/3x3_s2_0_split_1
I0403 21:38:37.878666 12324 net.cpp:399] inception_3a/3x3_reduce -> inception_3a/3x3_reduce
I0403 21:38:37.880275 12324 net.cpp:141] Setting up inception_3a/3x3_reduce
I0403 21:38:37.880305 12324 net.cpp:148] Top shape: 24 96 28 28 (1806336)
I0403 21:38:37.880321 12324 net.cpp:156] Memory required for data: 508183584
I0403 21:38:37.880342 12324 layer_factory.hpp:77] Creating layer inception_3a/relu_3x3_reduce
I0403 21:38:37.880378 12324 net.cpp:91] Creating Layer inception_3a/relu_3x3_reduce
I0403 21:38:37.880396 12324 net.cpp:425] inception_3a/relu_3x3_reduce <- inception_3a/3x3_reduce
I0403 21:38:37.880414 12324 net.cpp:386] inception_3a/relu_3x3_reduce -> inception_3a/3x3_reduce (in-place)
I0403 21:38:37.880585 12324 net.cpp:141] Setting up inception_3a/relu_3x3_reduce
I0403 21:38:37.880611 12324 net.cpp:148] Top shape: 24 96 28 28 (1806336)
I0403 21:38:37.880626 12324 net.cpp:156] Memory required for data: 515408928
I0403 21:38:37.880640 12324 layer_factory.hpp:77] Creating layer inception_3a/3x3
I0403 21:38:37.880661 12324 net.cpp:91] Creating Layer inception_3a/3x3
I0403 21:38:37.880679 12324 net.cpp:425] inception_3a/3x3 <- inception_3a/3x3_reduce
I0403 21:38:37.880697 12324 net.cpp:399] inception_3a/3x3 -> inception_3a/3x3
I0403 21:38:37.882282 12324 net.cpp:141] Setting up inception_3a/3x3
I0403 21:38:37.882308 12324 net.cpp:148] Top shape: 24 128 28 28 (2408448)
I0403 21:38:37.882323 12324 net.cpp:156] Memory required for data: 525042720
I0403 21:38:37.882339 12324 layer_factory.hpp:77] Creating layer inception_3a/relu_3x3
I0403 21:38:37.882356 12324 net.cpp:91] Creating Layer inception_3a/relu_3x3
I0403 21:38:37.882371 12324 net.cpp:425] inception_3a/relu_3x3 <- inception_3a/3x3
I0403 21:38:37.882390 12324 net.cpp:386] inception_3a/relu_3x3 -> inception_3a/3x3 (in-place)
I0403 21:38:37.882652 12324 net.cpp:141] Setting up inception_3a/relu_3x3
I0403 21:38:37.882676 12324 net.cpp:148] Top shape: 24 128 28 28 (2408448)
I0403 21:38:37.882689 12324 net.cpp:156] Memory required for data: 534676512
I0403 21:38:37.882704 12324 layer_factory.hpp:77] Creating layer inception_3a/5x5_reduce
I0403 21:38:37.882725 12324 net.cpp:91] Creating Layer inception_3a/5x5_reduce
I0403 21:38:37.882742 12324 net.cpp:425] inception_3a/5x5_reduce <- pool2/3x3_s2_pool2/3x3_s2_0_split_2
I0403 21:38:37.882763 12324 net.cpp:399] inception_3a/5x5_reduce -> inception_3a/5x5_reduce
I0403 21:38:37.883671 12324 net.cpp:141] Setting up inception_3a/5x5_reduce
I0403 21:38:37.883697 12324 net.cpp:148] Top shape: 24 16 28 28 (301056)
I0403 21:38:37.883711 12324 net.cpp:156] Memory required for data: 535880736
I0403 21:38:37.883729 12324 layer_factory.hpp:77] Creating layer inception_3a/relu_5x5_reduce
I0403 21:38:37.883749 12324 net.cpp:91] Creating Layer inception_3a/relu_5x5_reduce
I0403 21:38:37.883765 12324 net.cpp:425] inception_3a/relu_5x5_reduce <- inception_3a/5x5_reduce
I0403 21:38:37.883783 12324 net.cpp:386] inception_3a/relu_5x5_reduce -> inception_3a/5x5_reduce (in-place)
I0403 21:38:37.884043 12324 net.cpp:141] Setting up inception_3a/relu_5x5_reduce
I0403 21:38:37.884068 12324 net.cpp:148] Top shape: 24 16 28 28 (301056)
I0403 21:38:37.884081 12324 net.cpp:156] Memory required for data: 537084960
I0403 21:38:37.884095 12324 layer_factory.hpp:77] Creating layer inception_3a/5x5
I0403 21:38:37.884116 12324 net.cpp:91] Creating Layer inception_3a/5x5
I0403 21:38:37.884135 12324 net.cpp:425] inception_3a/5x5 <- inception_3a/5x5_reduce
I0403 21:38:37.884155 12324 net.cpp:399] inception_3a/5x5 -> inception_3a/5x5
I0403 21:38:37.885107 12324 net.cpp:141] Setting up inception_3a/5x5
I0403 21:38:37.885133 12324 net.cpp:148] Top shape: 24 32 28 28 (602112)
I0403 21:38:37.885148 12324 net.cpp:156] Memory required for data: 539493408
I0403 21:38:37.885165 12324 layer_factory.hpp:77] Creating layer inception_3a/relu_5x5
I0403 21:38:37.885182 12324 net.cpp:91] Creating Layer inception_3a/relu_5x5
I0403 21:38:37.885198 12324 net.cpp:425] inception_3a/relu_5x5 <- inception_3a/5x5
I0403 21:38:37.885221 12324 net.cpp:386] inception_3a/relu_5x5 -> inception_3a/5x5 (in-place)
I0403 21:38:37.885390 12324 net.cpp:141] Setting up inception_3a/relu_5x5
I0403 21:38:37.885413 12324 net.cpp:148] Top shape: 24 32 28 28 (602112)
I0403 21:38:37.885426 12324 net.cpp:156] Memory required for data: 541901856
I0403 21:38:37.885442 12324 layer_factory.hpp:77] Creating layer inception_3a/pool
I0403 21:38:37.885460 12324 net.cpp:91] Creating Layer inception_3a/pool
I0403 21:38:37.885476 12324 net.cpp:425] inception_3a/pool <- pool2/3x3_s2_pool2/3x3_s2_0_split_3
I0403 21:38:37.885507 12324 net.cpp:399] inception_3a/pool -> inception_3a/pool
I0403 21:38:37.885563 12324 net.cpp:141] Setting up inception_3a/pool
I0403 21:38:37.885586 12324 net.cpp:148] Top shape: 24 192 28 28 (3612672)
I0403 21:38:37.885599 12324 net.cpp:156] Memory required for data: 556352544
I0403 21:38:37.885613 12324 layer_factory.hpp:77] Creating layer inception_3a/pool_proj
I0403 21:38:37.885634 12324 net.cpp:91] Creating Layer inception_3a/pool_proj
I0403 21:38:37.885651 12324 net.cpp:425] inception_3a/pool_proj <- inception_3a/pool
I0403 21:38:37.885671 12324 net.cpp:399] inception_3a/pool_proj -> inception_3a/pool_proj
I0403 21:38:37.886574 12324 net.cpp:141] Setting up inception_3a/pool_proj
I0403 21:38:37.886603 12324 net.cpp:148] Top shape: 24 32 28 28 (602112)
I0403 21:38:37.886618 12324 net.cpp:156] Memory required for data: 558760992
I0403 21:38:37.886639 12324 layer_factory.hpp:77] Creating layer inception_3a/relu_pool_proj
I0403 21:38:37.886661 12324 net.cpp:91] Creating Layer inception_3a/relu_pool_proj
I0403 21:38:37.886678 12324 net.cpp:425] inception_3a/relu_pool_proj <- inception_3a/pool_proj
I0403 21:38:37.886694 12324 net.cpp:386] inception_3a/relu_pool_proj -> inception_3a/pool_proj (in-place)
I0403 21:38:37.886952 12324 net.cpp:141] Setting up inception_3a/relu_pool_proj
I0403 21:38:37.886977 12324 net.cpp:148] Top shape: 24 32 28 28 (602112)
I0403 21:38:37.886992 12324 net.cpp:156] Memory required for data: 561169440
I0403 21:38:37.887006 12324 layer_factory.hpp:77] Creating layer inception_3a/output
I0403 21:38:37.887022 12324 net.cpp:91] Creating Layer inception_3a/output
I0403 21:38:37.887037 12324 net.cpp:425] inception_3a/output <- inception_3a/1x1
I0403 21:38:37.887053 12324 net.cpp:425] inception_3a/output <- inception_3a/3x3
I0403 21:38:37.887068 12324 net.cpp:425] inception_3a/output <- inception_3a/5x5
I0403 21:38:37.887084 12324 net.cpp:425] inception_3a/output <- inception_3a/pool_proj
I0403 21:38:37.887102 12324 net.cpp:399] inception_3a/output -> inception_3a/output
I0403 21:38:37.887146 12324 net.cpp:141] Setting up inception_3a/output
I0403 21:38:37.887171 12324 net.cpp:148] Top shape: 24 256 28 28 (4816896)
I0403 21:38:37.887187 12324 net.cpp:156] Memory required for data: 580437024
I0403 21:38:37.887200 12324 layer_factory.hpp:77] Creating layer inception_3a/output_inception_3a/output_0_split
I0403 21:38:37.887222 12324 net.cpp:91] Creating Layer inception_3a/output_inception_3a/output_0_split
I0403 21:38:37.887238 12324 net.cpp:425] inception_3a/output_inception_3a/output_0_split <- inception_3a/output
I0403 21:38:37.887254 12324 net.cpp:399] inception_3a/output_inception_3a/output_0_split -> inception_3a/output_inception_3a/output_0_split_0
I0403 21:38:37.887275 12324 net.cpp:399] inception_3a/output_inception_3a/output_0_split -> inception_3a/output_inception_3a/output_0_split_1
I0403 21:38:37.887298 12324 net.cpp:399] inception_3a/output_inception_3a/output_0_split -> inception_3a/output_inception_3a/output_0_split_2
I0403 21:38:37.887318 12324 net.cpp:399] inception_3a/output_inception_3a/output_0_split -> inception_3a/output_inception_3a/output_0_split_3
I0403 21:38:37.887389 12324 net.cpp:141] Setting up inception_3a/output_inception_3a/output_0_split
I0403 21:38:37.887413 12324 net.cpp:148] Top shape: 24 256 28 28 (4816896)
I0403 21:38:37.887430 12324 net.cpp:148] Top shape: 24 256 28 28 (4816896)
I0403 21:38:37.887445 12324 net.cpp:148] Top shape: 24 256 28 28 (4816896)
I0403 21:38:37.887459 12324 net.cpp:148] Top shape: 24 256 28 28 (4816896)
I0403 21:38:37.887472 12324 net.cpp:156] Memory required for data: 657507360
I0403 21:38:37.887486 12324 layer_factory.hpp:77] Creating layer inception_3b/1x1
I0403 21:38:37.887507 12324 net.cpp:91] Creating Layer inception_3b/1x1
I0403 21:38:37.887523 12324 net.cpp:425] inception_3b/1x1 <- inception_3a/output_inception_3a/output_0_split_0
I0403 21:38:37.887542 12324 net.cpp:399] inception_3b/1x1 -> inception_3b/1x1
I0403 21:38:37.888607 12324 net.cpp:141] Setting up inception_3b/1x1
I0403 21:38:37.888646 12324 net.cpp:148] Top shape: 24 128 28 28 (2408448)
I0403 21:38:37.888664 12324 net.cpp:156] Memory required for data: 667141152
I0403 21:38:37.888681 12324 layer_factory.hpp:77] Creating layer inception_3b/relu_1x1
I0403 21:38:37.888697 12324 net.cpp:91] Creating Layer inception_3b/relu_1x1
I0403 21:38:37.888712 12324 net.cpp:425] inception_3b/relu_1x1 <- inception_3b/1x1
I0403 21:38:37.888731 12324 net.cpp:386] inception_3b/relu_1x1 -> inception_3b/1x1 (in-place)
I0403 21:38:37.888898 12324 net.cpp:141] Setting up inception_3b/relu_1x1
I0403 21:38:37.888922 12324 net.cpp:148] Top shape: 24 128 28 28 (2408448)
I0403 21:38:37.888936 12324 net.cpp:156] Memory required for data: 676774944
I0403 21:38:37.888950 12324 layer_factory.hpp:77] Creating layer inception_3b/3x3_reduce
I0403 21:38:37.888972 12324 net.cpp:91] Creating Layer inception_3b/3x3_reduce
I0403 21:38:37.888988 12324 net.cpp:425] inception_3b/3x3_reduce <- inception_3a/output_inception_3a/output_0_split_1
I0403 21:38:37.889008 12324 net.cpp:399] inception_3b/3x3_reduce -> inception_3b/3x3_reduce
I0403 21:38:37.890076 12324 net.cpp:141] Setting up inception_3b/3x3_reduce
I0403 21:38:37.890106 12324 net.cpp:148] Top shape: 24 128 28 28 (2408448)
I0403 21:38:37.890121 12324 net.cpp:156] Memory required for data: 686408736
I0403 21:38:37.890139 12324 layer_factory.hpp:77] Creating layer inception_3b/relu_3x3_reduce
I0403 21:38:37.890156 12324 net.cpp:91] Creating Layer inception_3b/relu_3x3_reduce
I0403 21:38:37.890172 12324 net.cpp:425] inception_3b/relu_3x3_reduce <- inception_3b/3x3_reduce
I0403 21:38:37.890187 12324 net.cpp:386] inception_3b/relu_3x3_reduce -> inception_3b/3x3_reduce (in-place)
I0403 21:38:37.890359 12324 net.cpp:141] Setting up inception_3b/relu_3x3_reduce
I0403 21:38:37.890383 12324 net.cpp:148] Top shape: 24 128 28 28 (2408448)
I0403 21:38:37.890396 12324 net.cpp:156] Memory required for data: 696042528
I0403 21:38:37.890410 12324 layer_factory.hpp:77] Creating layer inception_3b/3x3
I0403 21:38:37.890434 12324 net.cpp:91] Creating Layer inception_3b/3x3
I0403 21:38:37.890451 12324 net.cpp:425] inception_3b/3x3 <- inception_3b/3x3_reduce
I0403 21:38:37.890471 12324 net.cpp:399] inception_3b/3x3 -> inception_3b/3x3
I0403 21:38:37.893252 12324 net.cpp:141] Setting up inception_3b/3x3
I0403 21:38:37.893280 12324 net.cpp:148] Top shape: 24 192 28 28 (3612672)
I0403 21:38:37.893296 12324 net.cpp:156] Memory required for data: 710493216
I0403 21:38:37.893312 12324 layer_factory.hpp:77] Creating layer inception_3b/relu_3x3
I0403 21:38:37.893329 12324 net.cpp:91] Creating Layer inception_3b/relu_3x3
I0403 21:38:37.893344 12324 net.cpp:425] inception_3b/relu_3x3 <- inception_3b/3x3
I0403 21:38:37.893363 12324 net.cpp:386] inception_3b/relu_3x3 -> inception_3b/3x3 (in-place)
I0403 21:38:37.893628 12324 net.cpp:141] Setting up inception_3b/relu_3x3
I0403 21:38:37.893654 12324 net.cpp:148] Top shape: 24 192 28 28 (3612672)
I0403 21:38:37.893667 12324 net.cpp:156] Memory required for data: 724943904
I0403 21:38:37.893682 12324 layer_factory.hpp:77] Creating layer inception_3b/5x5_reduce
I0403 21:38:37.893703 12324 net.cpp:91] Creating Layer inception_3b/5x5_reduce
I0403 21:38:37.893720 12324 net.cpp:425] inception_3b/5x5_reduce <- inception_3a/output_inception_3a/output_0_split_2
I0403 21:38:37.893743 12324 net.cpp:399] inception_3b/5x5_reduce -> inception_3b/5x5_reduce
I0403 21:38:37.894672 12324 net.cpp:141] Setting up inception_3b/5x5_reduce
I0403 21:38:37.894700 12324 net.cpp:148] Top shape: 24 32 28 28 (602112)
I0403 21:38:37.894713 12324 net.cpp:156] Memory required for data: 727352352
I0403 21:38:37.894731 12324 layer_factory.hpp:77] Creating layer inception_3b/relu_5x5_reduce
I0403 21:38:37.894749 12324 net.cpp:91] Creating Layer inception_3b/relu_5x5_reduce
I0403 21:38:37.894764 12324 net.cpp:425] inception_3b/relu_5x5_reduce <- inception_3b/5x5_reduce
I0403 21:38:37.894783 12324 net.cpp:386] inception_3b/relu_5x5_reduce -> inception_3b/5x5_reduce (in-place)
I0403 21:38:37.894949 12324 net.cpp:141] Setting up inception_3b/relu_5x5_reduce
I0403 21:38:37.894984 12324 net.cpp:148] Top shape: 24 32 28 28 (602112)
I0403 21:38:37.894999 12324 net.cpp:156] Memory required for data: 729760800
I0403 21:38:37.895014 12324 layer_factory.hpp:77] Creating layer inception_3b/5x5
I0403 21:38:37.895035 12324 net.cpp:91] Creating Layer inception_3b/5x5
I0403 21:38:37.895051 12324 net.cpp:425] inception_3b/5x5 <- inception_3b/5x5_reduce
I0403 21:38:37.895071 12324 net.cpp:399] inception_3b/5x5 -> inception_3b/5x5
I0403 21:38:37.897058 12324 net.cpp:141] Setting up inception_3b/5x5
I0403 21:38:37.897089 12324 net.cpp:148] Top shape: 24 96 28 28 (1806336)
I0403 21:38:37.897104 12324 net.cpp:156] Memory required for data: 736986144
I0403 21:38:37.897121 12324 layer_factory.hpp:77] Creating layer inception_3b/relu_5x5
I0403 21:38:37.897140 12324 net.cpp:91] Creating Layer inception_3b/relu_5x5
I0403 21:38:37.897155 12324 net.cpp:425] inception_3b/relu_5x5 <- inception_3b/5x5
I0403 21:38:37.897171 12324 net.cpp:386] inception_3b/relu_5x5 -> inception_3b/5x5 (in-place)
I0403 21:38:37.897362 12324 net.cpp:141] Setting up inception_3b/relu_5x5
I0403 21:38:37.897387 12324 net.cpp:148] Top shape: 24 96 28 28 (1806336)
I0403 21:38:37.897402 12324 net.cpp:156] Memory required for data: 744211488
I0403 21:38:37.897415 12324 layer_factory.hpp:77] Creating layer inception_3b/pool
I0403 21:38:37.897433 12324 net.cpp:91] Creating Layer inception_3b/pool
I0403 21:38:37.897449 12324 net.cpp:425] inception_3b/pool <- inception_3a/output_inception_3a/output_0_split_3
I0403 21:38:37.897466 12324 net.cpp:399] inception_3b/pool -> inception_3b/pool
I0403 21:38:37.897519 12324 net.cpp:141] Setting up inception_3b/pool
I0403 21:38:37.897544 12324 net.cpp:148] Top shape: 24 256 28 28 (4816896)
I0403 21:38:37.897560 12324 net.cpp:156] Memory required for data: 763479072
I0403 21:38:37.897574 12324 layer_factory.hpp:77] Creating layer inception_3b/pool_proj
I0403 21:38:37.897596 12324 net.cpp:91] Creating Layer inception_3b/pool_proj
I0403 21:38:37.897614 12324 net.cpp:425] inception_3b/pool_proj <- inception_3b/pool
I0403 21:38:37.897631 12324 net.cpp:399] inception_3b/pool_proj -> inception_3b/pool_proj
I0403 21:38:37.898653 12324 net.cpp:141] Setting up inception_3b/pool_proj
I0403 21:38:37.898680 12324 net.cpp:148] Top shape: 24 64 28 28 (1204224)
I0403 21:38:37.898695 12324 net.cpp:156] Memory required for data: 768295968
I0403 21:38:37.898713 12324 layer_factory.hpp:77] Creating layer inception_3b/relu_pool_proj
I0403 21:38:37.898732 12324 net.cpp:91] Creating Layer inception_3b/relu_pool_proj
I0403 21:38:37.898749 12324 net.cpp:425] inception_3b/relu_pool_proj <- inception_3b/pool_proj
I0403 21:38:37.898766 12324 net.cpp:386] inception_3b/relu_pool_proj -> inception_3b/pool_proj (in-place)
I0403 21:38:37.899132 12324 net.cpp:141] Setting up inception_3b/relu_pool_proj
I0403 21:38:37.899158 12324 net.cpp:148] Top shape: 24 64 28 28 (1204224)
I0403 21:38:37.899173 12324 net.cpp:156] Memory required for data: 773112864
I0403 21:38:37.899186 12324 layer_factory.hpp:77] Creating layer inception_3b/output
I0403 21:38:37.899202 12324 net.cpp:91] Creating Layer inception_3b/output
I0403 21:38:37.899224 12324 net.cpp:425] inception_3b/output <- inception_3b/1x1
I0403 21:38:37.899240 12324 net.cpp:425] inception_3b/output <- inception_3b/3x3
I0403 21:38:37.899256 12324 net.cpp:425] inception_3b/output <- inception_3b/5x5
I0403 21:38:37.899271 12324 net.cpp:425] inception_3b/output <- inception_3b/pool_proj
I0403 21:38:37.899291 12324 net.cpp:399] inception_3b/output -> inception_3b/output
I0403 21:38:37.899334 12324 net.cpp:141] Setting up inception_3b/output
I0403 21:38:37.899356 12324 net.cpp:148] Top shape: 24 480 28 28 (9031680)
I0403 21:38:37.899370 12324 net.cpp:156] Memory required for data: 809239584
I0403 21:38:37.899384 12324 layer_factory.hpp:77] Creating layer pool3/3x3_s2
I0403 21:38:37.899401 12324 net.cpp:91] Creating Layer pool3/3x3_s2
I0403 21:38:37.899416 12324 net.cpp:425] pool3/3x3_s2 <- inception_3b/output
I0403 21:38:37.899435 12324 net.cpp:399] pool3/3x3_s2 -> pool3/3x3_s2
I0403 21:38:37.899504 12324 net.cpp:141] Setting up pool3/3x3_s2
I0403 21:38:37.899528 12324 net.cpp:148] Top shape: 24 480 14 14 (2257920)
I0403 21:38:37.899541 12324 net.cpp:156] Memory required for data: 818271264
I0403 21:38:37.899556 12324 layer_factory.hpp:77] Creating layer pool3/3x3_s2_pool3/3x3_s2_0_split
I0403 21:38:37.899575 12324 net.cpp:91] Creating Layer pool3/3x3_s2_pool3/3x3_s2_0_split
I0403 21:38:37.899592 12324 net.cpp:425] pool3/3x3_s2_pool3/3x3_s2_0_split <- pool3/3x3_s2
I0403 21:38:37.899610 12324 net.cpp:399] pool3/3x3_s2_pool3/3x3_s2_0_split -> pool3/3x3_s2_pool3/3x3_s2_0_split_0
I0403 21:38:37.899631 12324 net.cpp:399] pool3/3x3_s2_pool3/3x3_s2_0_split -> pool3/3x3_s2_pool3/3x3_s2_0_split_1
I0403 21:38:37.899652 12324 net.cpp:399] pool3/3x3_s2_pool3/3x3_s2_0_split -> pool3/3x3_s2_pool3/3x3_s2_0_split_2
I0403 21:38:37.899670 12324 net.cpp:399] pool3/3x3_s2_pool3/3x3_s2_0_split -> pool3/3x3_s2_pool3/3x3_s2_0_split_3
I0403 21:38:37.899742 12324 net.cpp:141] Setting up pool3/3x3_s2_pool3/3x3_s2_0_split
I0403 21:38:37.899765 12324 net.cpp:148] Top shape: 24 480 14 14 (2257920)
I0403 21:38:37.899780 12324 net.cpp:148] Top shape: 24 480 14 14 (2257920)
I0403 21:38:37.899796 12324 net.cpp:148] Top shape: 24 480 14 14 (2257920)
I0403 21:38:37.899811 12324 net.cpp:148] Top shape: 24 480 14 14 (2257920)
I0403 21:38:37.899823 12324 net.cpp:156] Memory required for data: 854397984
I0403 21:38:37.899837 12324 layer_factory.hpp:77] Creating layer inception_4a/1x1
I0403 21:38:37.899858 12324 net.cpp:91] Creating Layer inception_4a/1x1
I0403 21:38:37.899875 12324 net.cpp:425] inception_4a/1x1 <- pool3/3x3_s2_pool3/3x3_s2_0_split_0
I0403 21:38:37.899895 12324 net.cpp:399] inception_4a/1x1 -> inception_4a/1x1
I0403 21:38:37.901468 12324 net.cpp:141] Setting up inception_4a/1x1
I0403 21:38:37.901495 12324 net.cpp:148] Top shape: 24 192 14 14 (903168)
I0403 21:38:37.901511 12324 net.cpp:156] Memory required for data: 858010656
I0403 21:38:37.901530 12324 layer_factory.hpp:77] Creating layer inception_4a/relu_1x1
I0403 21:38:37.901551 12324 net.cpp:91] Creating Layer inception_4a/relu_1x1
I0403 21:38:37.901567 12324 net.cpp:425] inception_4a/relu_1x1 <- inception_4a/1x1
I0403 21:38:37.901585 12324 net.cpp:386] inception_4a/relu_1x1 -> inception_4a/1x1 (in-place)
I0403 21:38:37.901772 12324 net.cpp:141] Setting up inception_4a/relu_1x1
I0403 21:38:37.901799 12324 net.cpp:148] Top shape: 24 192 14 14 (903168)
I0403 21:38:37.901814 12324 net.cpp:156] Memory required for data: 861623328
I0403 21:38:37.901829 12324 layer_factory.hpp:77] Creating layer inception_4a/3x3_reduce
I0403 21:38:37.901851 12324 net.cpp:91] Creating Layer inception_4a/3x3_reduce
I0403 21:38:37.901868 12324 net.cpp:425] inception_4a/3x3_reduce <- pool3/3x3_s2_pool3/3x3_s2_0_split_1
I0403 21:38:37.901886 12324 net.cpp:399] inception_4a/3x3_reduce -> inception_4a/3x3_reduce
I0403 21:38:37.903126 12324 net.cpp:141] Setting up inception_4a/3x3_reduce
I0403 21:38:37.903154 12324 net.cpp:148] Top shape: 24 96 14 14 (451584)
I0403 21:38:37.903169 12324 net.cpp:156] Memory required for data: 863429664
I0403 21:38:37.903193 12324 layer_factory.hpp:77] Creating layer inception_4a/relu_3x3_reduce
I0403 21:38:37.903220 12324 net.cpp:91] Creating Layer inception_4a/relu_3x3_reduce
I0403 21:38:37.903239 12324 net.cpp:425] inception_4a/relu_3x3_reduce <- inception_4a/3x3_reduce
I0403 21:38:37.903255 12324 net.cpp:386] inception_4a/relu_3x3_reduce -> inception_4a/3x3_reduce (in-place)
I0403 21:38:37.903427 12324 net.cpp:141] Setting up inception_4a/relu_3x3_reduce
I0403 21:38:37.903453 12324 net.cpp:148] Top shape: 24 96 14 14 (451584)
I0403 21:38:37.903468 12324 net.cpp:156] Memory required for data: 865236000
I0403 21:38:37.903483 12324 layer_factory.hpp:77] Creating layer inception_4a/3x3
I0403 21:38:37.903506 12324 net.cpp:91] Creating Layer inception_4a/3x3
I0403 21:38:37.903522 12324 net.cpp:425] inception_4a/3x3 <- inception_4a/3x3_reduce
I0403 21:38:37.903540 12324 net.cpp:399] inception_4a/3x3 -> inception_4a/3x3
I0403 21:38:37.906215 12324 net.cpp:141] Setting up inception_4a/3x3
I0403 21:38:37.906246 12324 net.cpp:148] Top shape: 24 208 14 14 (978432)
I0403 21:38:37.906261 12324 net.cpp:156] Memory required for data: 869149728
I0403 21:38:37.906280 12324 layer_factory.hpp:77] Creating layer inception_4a/relu_3x3
I0403 21:38:37.906296 12324 net.cpp:91] Creating Layer inception_4a/relu_3x3
I0403 21:38:37.906312 12324 net.cpp:425] inception_4a/relu_3x3 <- inception_4a/3x3
I0403 21:38:37.906332 12324 net.cpp:386] inception_4a/relu_3x3 -> inception_4a/3x3 (in-place)
I0403 21:38:37.906610 12324 net.cpp:141] Setting up inception_4a/relu_3x3
I0403 21:38:37.906638 12324 net.cpp:148] Top shape: 24 208 14 14 (978432)
I0403 21:38:37.906653 12324 net.cpp:156] Memory required for data: 873063456
I0403 21:38:37.906668 12324 layer_factory.hpp:77] Creating layer inception_4a/5x5_reduce
I0403 21:38:37.906689 12324 net.cpp:91] Creating Layer inception_4a/5x5_reduce
I0403 21:38:37.906707 12324 net.cpp:425] inception_4a/5x5_reduce <- pool3/3x3_s2_pool3/3x3_s2_0_split_2
I0403 21:38:37.906726 12324 net.cpp:399] inception_4a/5x5_reduce -> inception_4a/5x5_reduce
I0403 21:38:37.907723 12324 net.cpp:141] Setting up inception_4a/5x5_reduce
I0403 21:38:37.907750 12324 net.cpp:148] Top shape: 24 16 14 14 (75264)
I0403 21:38:37.907765 12324 net.cpp:156] Memory required for data: 873364512
I0403 21:38:37.907783 12324 layer_factory.hpp:77] Creating layer inception_4a/relu_5x5_reduce
I0403 21:38:37.907800 12324 net.cpp:91] Creating Layer inception_4a/relu_5x5_reduce
I0403 21:38:37.907817 12324 net.cpp:425] inception_4a/relu_5x5_reduce <- inception_4a/5x5_reduce
I0403 21:38:37.907836 12324 net.cpp:386] inception_4a/relu_5x5_reduce -> inception_4a/5x5_reduce (in-place)
I0403 21:38:37.908009 12324 net.cpp:141] Setting up inception_4a/relu_5x5_reduce
I0403 21:38:37.908032 12324 net.cpp:148] Top shape: 24 16 14 14 (75264)
I0403 21:38:37.908046 12324 net.cpp:156] Memory required for data: 873665568
I0403 21:38:37.908061 12324 layer_factory.hpp:77] Creating layer inception_4a/5x5
I0403 21:38:37.908082 12324 net.cpp:91] Creating Layer inception_4a/5x5
I0403 21:38:37.908099 12324 net.cpp:425] inception_4a/5x5 <- inception_4a/5x5_reduce
I0403 21:38:37.908120 12324 net.cpp:399] inception_4a/5x5 -> inception_4a/5x5
I0403 21:38:37.909204 12324 net.cpp:141] Setting up inception_4a/5x5
I0403 21:38:37.909235 12324 net.cpp:148] Top shape: 24 48 14 14 (225792)
I0403 21:38:37.909251 12324 net.cpp:156] Memory required for data: 874568736
I0403 21:38:37.909268 12324 layer_factory.hpp:77] Creating layer inception_4a/relu_5x5
I0403 21:38:37.909288 12324 net.cpp:91] Creating Layer inception_4a/relu_5x5
I0403 21:38:37.909304 12324 net.cpp:425] inception_4a/relu_5x5 <- inception_4a/5x5
I0403 21:38:37.909322 12324 net.cpp:386] inception_4a/relu_5x5 -> inception_4a/5x5 (in-place)
I0403 21:38:37.909494 12324 net.cpp:141] Setting up inception_4a/relu_5x5
I0403 21:38:37.909525 12324 net.cpp:148] Top shape: 24 48 14 14 (225792)
I0403 21:38:37.909541 12324 net.cpp:156] Memory required for data: 875471904
I0403 21:38:37.909556 12324 layer_factory.hpp:77] Creating layer inception_4a/pool
I0403 21:38:37.909574 12324 net.cpp:91] Creating Layer inception_4a/pool
I0403 21:38:37.909589 12324 net.cpp:425] inception_4a/pool <- pool3/3x3_s2_pool3/3x3_s2_0_split_3
I0403 21:38:37.909606 12324 net.cpp:399] inception_4a/pool -> inception_4a/pool
I0403 21:38:37.909667 12324 net.cpp:141] Setting up inception_4a/pool
I0403 21:38:37.909689 12324 net.cpp:148] Top shape: 24 480 14 14 (2257920)
I0403 21:38:37.909703 12324 net.cpp:156] Memory required for data: 884503584
I0403 21:38:37.909718 12324 layer_factory.hpp:77] Creating layer inception_4a/pool_proj
I0403 21:38:37.909739 12324 net.cpp:91] Creating Layer inception_4a/pool_proj
I0403 21:38:37.909756 12324 net.cpp:425] inception_4a/pool_proj <- inception_4a/pool
I0403 21:38:37.909776 12324 net.cpp:399] inception_4a/pool_proj -> inception_4a/pool_proj
I0403 21:38:37.910897 12324 net.cpp:141] Setting up inception_4a/pool_proj
I0403 21:38:37.910923 12324 net.cpp:148] Top shape: 24 64 14 14 (301056)
I0403 21:38:37.910953 12324 net.cpp:156] Memory required for data: 885707808
I0403 21:38:37.910971 12324 layer_factory.hpp:77] Creating layer inception_4a/relu_pool_proj
I0403 21:38:37.910992 12324 net.cpp:91] Creating Layer inception_4a/relu_pool_proj
I0403 21:38:37.911010 12324 net.cpp:425] inception_4a/relu_pool_proj <- inception_4a/pool_proj
I0403 21:38:37.911026 12324 net.cpp:386] inception_4a/relu_pool_proj -> inception_4a/pool_proj (in-place)
I0403 21:38:37.911299 12324 net.cpp:141] Setting up inception_4a/relu_pool_proj
I0403 21:38:37.911325 12324 net.cpp:148] Top shape: 24 64 14 14 (301056)
I0403 21:38:37.911339 12324 net.cpp:156] Memory required for data: 886912032
I0403 21:38:37.911353 12324 layer_factory.hpp:77] Creating layer inception_4a/output
I0403 21:38:37.911372 12324 net.cpp:91] Creating Layer inception_4a/output
I0403 21:38:37.911388 12324 net.cpp:425] inception_4a/output <- inception_4a/1x1
I0403 21:38:37.911406 12324 net.cpp:425] inception_4a/output <- inception_4a/3x3
I0403 21:38:37.911422 12324 net.cpp:425] inception_4a/output <- inception_4a/5x5
I0403 21:38:37.911437 12324 net.cpp:425] inception_4a/output <- inception_4a/pool_proj
I0403 21:38:37.911453 12324 net.cpp:399] inception_4a/output -> inception_4a/output
I0403 21:38:37.911496 12324 net.cpp:141] Setting up inception_4a/output
I0403 21:38:37.911519 12324 net.cpp:148] Top shape: 24 512 14 14 (2408448)
I0403 21:38:37.911533 12324 net.cpp:156] Memory required for data: 896545824
I0403 21:38:37.911547 12324 layer_factory.hpp:77] Creating layer inception_4a/output_inception_4a/output_0_split
I0403 21:38:37.911564 12324 net.cpp:91] Creating Layer inception_4a/output_inception_4a/output_0_split
I0403 21:38:37.911579 12324 net.cpp:425] inception_4a/output_inception_4a/output_0_split <- inception_4a/output
I0403 21:38:37.911598 12324 net.cpp:399] inception_4a/output_inception_4a/output_0_split -> inception_4a/output_inception_4a/output_0_split_0
I0403 21:38:37.911619 12324 net.cpp:399] inception_4a/output_inception_4a/output_0_split -> inception_4a/output_inception_4a/output_0_split_1
I0403 21:38:37.911640 12324 net.cpp:399] inception_4a/output_inception_4a/output_0_split -> inception_4a/output_inception_4a/output_0_split_2
I0403 21:38:37.911661 12324 net.cpp:399] inception_4a/output_inception_4a/output_0_split -> inception_4a/output_inception_4a/output_0_split_3
I0403 21:38:37.911684 12324 net.cpp:399] inception_4a/output_inception_4a/output_0_split -> inception_4a/output_inception_4a/output_0_split_4
I0403 21:38:37.911774 12324 net.cpp:141] Setting up inception_4a/output_inception_4a/output_0_split
I0403 21:38:37.911798 12324 net.cpp:148] Top shape: 24 512 14 14 (2408448)
I0403 21:38:37.911813 12324 net.cpp:148] Top shape: 24 512 14 14 (2408448)
I0403 21:38:37.911828 12324 net.cpp:148] Top shape: 24 512 14 14 (2408448)
I0403 21:38:37.911844 12324 net.cpp:148] Top shape: 24 512 14 14 (2408448)
I0403 21:38:37.911859 12324 net.cpp:148] Top shape: 24 512 14 14 (2408448)
I0403 21:38:37.911871 12324 net.cpp:156] Memory required for data: 944714784
I0403 21:38:37.911885 12324 layer_factory.hpp:77] Creating layer loss1/ave_pool
I0403 21:38:37.911901 12324 net.cpp:91] Creating Layer loss1/ave_pool
I0403 21:38:37.911917 12324 net.cpp:425] loss1/ave_pool <- inception_4a/output_inception_4a/output_0_split_0
I0403 21:38:37.911936 12324 net.cpp:399] loss1/ave_pool -> loss1/ave_pool
I0403 21:38:37.912137 12324 net.cpp:141] Setting up loss1/ave_pool
I0403 21:38:37.912160 12324 net.cpp:148] Top shape: 24 512 4 4 (196608)
I0403 21:38:37.912175 12324 net.cpp:156] Memory required for data: 945501216
I0403 21:38:37.912189 12324 layer_factory.hpp:77] Creating layer loss1/conv
I0403 21:38:37.912225 12324 net.cpp:91] Creating Layer loss1/conv
I0403 21:38:37.912245 12324 net.cpp:425] loss1/conv <- loss1/ave_pool
I0403 21:38:37.912278 12324 net.cpp:399] loss1/conv -> loss1/conv
I0403 21:38:37.913677 12324 net.cpp:141] Setting up loss1/conv
I0403 21:38:37.913705 12324 net.cpp:148] Top shape: 24 128 4 4 (49152)
I0403 21:38:37.913720 12324 net.cpp:156] Memory required for data: 945697824
I0403 21:38:37.913753 12324 layer_factory.hpp:77] Creating layer loss1/relu_conv
I0403 21:38:37.913770 12324 net.cpp:91] Creating Layer loss1/relu_conv
I0403 21:38:37.913786 12324 net.cpp:425] loss1/relu_conv <- loss1/conv
I0403 21:38:37.913805 12324 net.cpp:386] loss1/relu_conv -> loss1/conv (in-place)
I0403 21:38:37.914068 12324 net.cpp:141] Setting up loss1/relu_conv
I0403 21:38:37.914095 12324 net.cpp:148] Top shape: 24 128 4 4 (49152)
I0403 21:38:37.914109 12324 net.cpp:156] Memory required for data: 945894432
I0403 21:38:37.914124 12324 layer_factory.hpp:77] Creating layer loss1/fc
I0403 21:38:37.914146 12324 net.cpp:91] Creating Layer loss1/fc
I0403 21:38:37.914165 12324 net.cpp:425] loss1/fc <- loss1/conv
I0403 21:38:37.914185 12324 net.cpp:399] loss1/fc -> loss1/fc
I0403 21:38:37.931419 12324 net.cpp:141] Setting up loss1/fc
I0403 21:38:37.931458 12324 net.cpp:148] Top shape: 24 1024 (24576)
I0403 21:38:37.931474 12324 net.cpp:156] Memory required for data: 945992736
I0403 21:38:37.931491 12324 layer_factory.hpp:77] Creating layer loss1/relu_fc
I0403 21:38:37.931509 12324 net.cpp:91] Creating Layer loss1/relu_fc
I0403 21:38:37.931524 12324 net.cpp:425] loss1/relu_fc <- loss1/fc
I0403 21:38:37.931540 12324 net.cpp:386] loss1/relu_fc -> loss1/fc (in-place)
I0403 21:38:37.931717 12324 net.cpp:141] Setting up loss1/relu_fc
I0403 21:38:37.931743 12324 net.cpp:148] Top shape: 24 1024 (24576)
I0403 21:38:37.931758 12324 net.cpp:156] Memory required for data: 946091040
I0403 21:38:37.931772 12324 layer_factory.hpp:77] Creating layer loss1/drop_fc
I0403 21:38:37.931797 12324 net.cpp:91] Creating Layer loss1/drop_fc
I0403 21:38:37.931814 12324 net.cpp:425] loss1/drop_fc <- loss1/fc
I0403 21:38:37.931831 12324 net.cpp:386] loss1/drop_fc -> loss1/fc (in-place)
I0403 21:38:37.931885 12324 net.cpp:141] Setting up loss1/drop_fc
I0403 21:38:37.931906 12324 net.cpp:148] Top shape: 24 1024 (24576)
I0403 21:38:37.931921 12324 net.cpp:156] Memory required for data: 946189344
I0403 21:38:37.931934 12324 layer_factory.hpp:77] Creating layer loss1/classifier_plantvillage
I0403 21:38:37.931957 12324 net.cpp:91] Creating Layer loss1/classifier_plantvillage
I0403 21:38:37.931972 12324 net.cpp:425] loss1/classifier_plantvillage <- loss1/fc
I0403 21:38:37.931989 12324 net.cpp:399] loss1/classifier_plantvillage -> loss1/classifier_plantvillage
I0403 21:38:37.932890 12324 net.cpp:141] Setting up loss1/classifier_plantvillage
I0403 21:38:37.932919 12324 net.cpp:148] Top shape: 24 38 (912)
I0403 21:38:37.932934 12324 net.cpp:156] Memory required for data: 946192992
I0403 21:38:37.932952 12324 layer_factory.hpp:77] Creating layer loss1/classifier_plantvillage_loss1/classifier_plantvillage_0_split
I0403 21:38:37.932968 12324 net.cpp:91] Creating Layer loss1/classifier_plantvillage_loss1/classifier_plantvillage_0_split
I0403 21:38:37.932982 12324 net.cpp:425] loss1/classifier_plantvillage_loss1/classifier_plantvillage_0_split <- loss1/classifier_plantvillage
I0403 21:38:37.932999 12324 net.cpp:399] loss1/classifier_plantvillage_loss1/classifier_plantvillage_0_split -> loss1/classifier_plantvillage_loss1/classifier_plantvillage_0_split_0
I0403 21:38:37.933018 12324 net.cpp:399] loss1/classifier_plantvillage_loss1/classifier_plantvillage_0_split -> loss1/classifier_plantvillage_loss1/classifier_plantvillage_0_split_1
I0403 21:38:37.933040 12324 net.cpp:399] loss1/classifier_plantvillage_loss1/classifier_plantvillage_0_split -> loss1/classifier_plantvillage_loss1/classifier_plantvillage_0_split_2
I0403 21:38:37.933104 12324 net.cpp:141] Setting up loss1/classifier_plantvillage_loss1/classifier_plantvillage_0_split
I0403 21:38:37.933125 12324 net.cpp:148] Top shape: 24 38 (912)
I0403 21:38:37.933140 12324 net.cpp:148] Top shape: 24 38 (912)
I0403 21:38:37.933154 12324 net.cpp:148] Top shape: 24 38 (912)
I0403 21:38:37.933167 12324 net.cpp:156] Memory required for data: 946203936
I0403 21:38:37.933182 12324 layer_factory.hpp:77] Creating layer inception_4b/1x1
I0403 21:38:37.933200 12324 net.cpp:91] Creating Layer inception_4b/1x1
I0403 21:38:37.933235 12324 net.cpp:425] inception_4b/1x1 <- inception_4a/output_inception_4a/output_0_split_1
I0403 21:38:37.933257 12324 net.cpp:399] inception_4b/1x1 -> inception_4b/1x1
I0403 21:38:37.934787 12324 net.cpp:141] Setting up inception_4b/1x1
I0403 21:38:37.934813 12324 net.cpp:148] Top shape: 24 160 14 14 (752640)
I0403 21:38:37.934828 12324 net.cpp:156] Memory required for data: 949214496
I0403 21:38:37.934846 12324 layer_factory.hpp:77] Creating layer inception_4b/relu_1x1
I0403 21:38:37.934862 12324 net.cpp:91] Creating Layer inception_4b/relu_1x1
I0403 21:38:37.934876 12324 net.cpp:425] inception_4b/relu_1x1 <- inception_4b/1x1
I0403 21:38:37.934895 12324 net.cpp:386] inception_4b/relu_1x1 -> inception_4b/1x1 (in-place)
I0403 21:38:37.935065 12324 net.cpp:141] Setting up inception_4b/relu_1x1
I0403 21:38:37.935089 12324 net.cpp:148] Top shape: 24 160 14 14 (752640)
I0403 21:38:37.935103 12324 net.cpp:156] Memory required for data: 952225056
I0403 21:38:37.935117 12324 layer_factory.hpp:77] Creating layer inception_4b/3x3_reduce
I0403 21:38:37.935139 12324 net.cpp:91] Creating Layer inception_4b/3x3_reduce
I0403 21:38:37.935156 12324 net.cpp:425] inception_4b/3x3_reduce <- inception_4a/output_inception_4a/output_0_split_2
I0403 21:38:37.935178 12324 net.cpp:399] inception_4b/3x3_reduce -> inception_4b/3x3_reduce
I0403 21:38:37.936472 12324 net.cpp:141] Setting up inception_4b/3x3_reduce
I0403 21:38:37.936498 12324 net.cpp:148] Top shape: 24 112 14 14 (526848)
I0403 21:38:37.936512 12324 net.cpp:156] Memory required for data: 954332448
I0403 21:38:37.936530 12324 layer_factory.hpp:77] Creating layer inception_4b/relu_3x3_reduce
I0403 21:38:37.936550 12324 net.cpp:91] Creating Layer inception_4b/relu_3x3_reduce
I0403 21:38:37.936566 12324 net.cpp:425] inception_4b/relu_3x3_reduce <- inception_4b/3x3_reduce
I0403 21:38:37.936583 12324 net.cpp:386] inception_4b/relu_3x3_reduce -> inception_4b/3x3_reduce (in-place)
I0403 21:38:37.936853 12324 net.cpp:141] Setting up inception_4b/relu_3x3_reduce
I0403 21:38:37.936878 12324 net.cpp:148] Top shape: 24 112 14 14 (526848)
I0403 21:38:37.936892 12324 net.cpp:156] Memory required for data: 956439840
I0403 21:38:37.936907 12324 layer_factory.hpp:77] Creating layer inception_4b/3x3
I0403 21:38:37.936928 12324 net.cpp:91] Creating Layer inception_4b/3x3
I0403 21:38:37.936944 12324 net.cpp:425] inception_4b/3x3 <- inception_4b/3x3_reduce
I0403 21:38:37.936965 12324 net.cpp:399] inception_4b/3x3 -> inception_4b/3x3
I0403 21:38:37.939812 12324 net.cpp:141] Setting up inception_4b/3x3
I0403 21:38:37.939843 12324 net.cpp:148] Top shape: 24 224 14 14 (1053696)
I0403 21:38:37.939858 12324 net.cpp:156] Memory required for data: 960654624
I0403 21:38:37.939877 12324 layer_factory.hpp:77] Creating layer inception_4b/relu_3x3
I0403 21:38:37.939893 12324 net.cpp:91] Creating Layer inception_4b/relu_3x3
I0403 21:38:37.939909 12324 net.cpp:425] inception_4b/relu_3x3 <- inception_4b/3x3
I0403 21:38:37.939926 12324 net.cpp:386] inception_4b/relu_3x3 -> inception_4b/3x3 (in-place)
I0403 21:38:37.940100 12324 net.cpp:141] Setting up inception_4b/relu_3x3
I0403 21:38:37.940126 12324 net.cpp:148] Top shape: 24 224 14 14 (1053696)
I0403 21:38:37.940141 12324 net.cpp:156] Memory required for data: 964869408
I0403 21:38:37.940155 12324 layer_factory.hpp:77] Creating layer inception_4b/5x5_reduce
I0403 21:38:37.940176 12324 net.cpp:91] Creating Layer inception_4b/5x5_reduce
I0403 21:38:37.940193 12324 net.cpp:425] inception_4b/5x5_reduce <- inception_4a/output_inception_4a/output_0_split_3
I0403 21:38:37.940217 12324 net.cpp:399] inception_4b/5x5_reduce -> inception_4b/5x5_reduce
I0403 21:38:37.941239 12324 net.cpp:141] Setting up inception_4b/5x5_reduce
I0403 21:38:37.941267 12324 net.cpp:148] Top shape: 24 24 14 14 (112896)
I0403 21:38:37.941282 12324 net.cpp:156] Memory required for data: 965320992
I0403 21:38:37.941299 12324 layer_factory.hpp:77] Creating layer inception_4b/relu_5x5_reduce
I0403 21:38:37.941316 12324 net.cpp:91] Creating Layer inception_4b/relu_5x5_reduce
I0403 21:38:37.941349 12324 net.cpp:425] inception_4b/relu_5x5_reduce <- inception_4b/5x5_reduce
I0403 21:38:37.941367 12324 net.cpp:386] inception_4b/relu_5x5_reduce -> inception_4b/5x5_reduce (in-place)
I0403 21:38:37.941540 12324 net.cpp:141] Setting up inception_4b/relu_5x5_reduce
I0403 21:38:37.941562 12324 net.cpp:148] Top shape: 24 24 14 14 (112896)
I0403 21:38:37.941576 12324 net.cpp:156] Memory required for data: 965772576
I0403 21:38:37.941591 12324 layer_factory.hpp:77] Creating layer inception_4b/5x5
I0403 21:38:37.941613 12324 net.cpp:91] Creating Layer inception_4b/5x5
I0403 21:38:37.941632 12324 net.cpp:425] inception_4b/5x5 <- inception_4b/5x5_reduce
I0403 21:38:37.941651 12324 net.cpp:399] inception_4b/5x5 -> inception_4b/5x5
I0403 21:38:37.942845 12324 net.cpp:141] Setting up inception_4b/5x5
I0403 21:38:37.942874 12324 net.cpp:148] Top shape: 24 64 14 14 (301056)
I0403 21:38:37.942888 12324 net.cpp:156] Memory required for data: 966976800
I0403 21:38:37.942906 12324 layer_factory.hpp:77] Creating layer inception_4b/relu_5x5
I0403 21:38:37.942924 12324 net.cpp:91] Creating Layer inception_4b/relu_5x5
I0403 21:38:37.942939 12324 net.cpp:425] inception_4b/relu_5x5 <- inception_4b/5x5
I0403 21:38:37.942958 12324 net.cpp:386] inception_4b/relu_5x5 -> inception_4b/5x5 (in-place)
I0403 21:38:37.943243 12324 net.cpp:141] Setting up inception_4b/relu_5x5
I0403 21:38:37.943280 12324 net.cpp:148] Top shape: 24 64 14 14 (301056)
I0403 21:38:37.943295 12324 net.cpp:156] Memory required for data: 968181024
I0403 21:38:37.943311 12324 layer_factory.hpp:77] Creating layer inception_4b/pool
I0403 21:38:37.943330 12324 net.cpp:91] Creating Layer inception_4b/pool
I0403 21:38:37.943344 12324 net.cpp:425] inception_4b/pool <- inception_4a/output_inception_4a/output_0_split_4
I0403 21:38:37.943366 12324 net.cpp:399] inception_4b/pool -> inception_4b/pool
I0403 21:38:37.943429 12324 net.cpp:141] Setting up inception_4b/pool
I0403 21:38:37.943454 12324 net.cpp:148] Top shape: 24 512 14 14 (2408448)
I0403 21:38:37.943469 12324 net.cpp:156] Memory required for data: 977814816
I0403 21:38:37.943483 12324 layer_factory.hpp:77] Creating layer inception_4b/pool_proj
I0403 21:38:37.943507 12324 net.cpp:91] Creating Layer inception_4b/pool_proj
I0403 21:38:37.943526 12324 net.cpp:425] inception_4b/pool_proj <- inception_4b/pool
I0403 21:38:37.943544 12324 net.cpp:399] inception_4b/pool_proj -> inception_4b/pool_proj
I0403 21:38:37.944742 12324 net.cpp:141] Setting up inception_4b/pool_proj
I0403 21:38:37.944771 12324 net.cpp:148] Top shape: 24 64 14 14 (301056)
I0403 21:38:37.944785 12324 net.cpp:156] Memory required for data: 979019040
I0403 21:38:37.944804 12324 layer_factory.hpp:77] Creating layer inception_4b/relu_pool_proj
I0403 21:38:37.944823 12324 net.cpp:91] Creating Layer inception_4b/relu_pool_proj
I0403 21:38:37.944839 12324 net.cpp:425] inception_4b/relu_pool_proj <- inception_4b/pool_proj
I0403 21:38:37.944870 12324 net.cpp:386] inception_4b/relu_pool_proj -> inception_4b/pool_proj (in-place)
I0403 21:38:37.945049 12324 net.cpp:141] Setting up inception_4b/relu_pool_proj
I0403 21:38:37.945072 12324 net.cpp:148] Top shape: 24 64 14 14 (301056)
I0403 21:38:37.945086 12324 net.cpp:156] Memory required for data: 980223264
I0403 21:38:37.945101 12324 layer_factory.hpp:77] Creating layer inception_4b/output
I0403 21:38:37.945121 12324 net.cpp:91] Creating Layer inception_4b/output
I0403 21:38:37.945137 12324 net.cpp:425] inception_4b/output <- inception_4b/1x1
I0403 21:38:37.945153 12324 net.cpp:425] inception_4b/output <- inception_4b/3x3
I0403 21:38:37.945169 12324 net.cpp:425] inception_4b/output <- inception_4b/5x5
I0403 21:38:37.945185 12324 net.cpp:425] inception_4b/output <- inception_4b/pool_proj
I0403 21:38:37.945202 12324 net.cpp:399] inception_4b/output -> inception_4b/output
I0403 21:38:37.945253 12324 net.cpp:141] Setting up inception_4b/output
I0403 21:38:37.945276 12324 net.cpp:148] Top shape: 24 512 14 14 (2408448)
I0403 21:38:37.945291 12324 net.cpp:156] Memory required for data: 989857056
I0403 21:38:37.945318 12324 layer_factory.hpp:77] Creating layer inception_4b/output_inception_4b/output_0_split
I0403 21:38:37.945338 12324 net.cpp:91] Creating Layer inception_4b/output_inception_4b/output_0_split
I0403 21:38:37.945353 12324 net.cpp:425] inception_4b/output_inception_4b/output_0_split <- inception_4b/output
I0403 21:38:37.945371 12324 net.cpp:399] inception_4b/output_inception_4b/output_0_split -> inception_4b/output_inception_4b/output_0_split_0
I0403 21:38:37.945392 12324 net.cpp:399] inception_4b/output_inception_4b/output_0_split -> inception_4b/output_inception_4b/output_0_split_1
I0403 21:38:37.945412 12324 net.cpp:399] inception_4b/output_inception_4b/output_0_split -> inception_4b/output_inception_4b/output_0_split_2
I0403 21:38:37.945433 12324 net.cpp:399] inception_4b/output_inception_4b/output_0_split -> inception_4b/output_inception_4b/output_0_split_3
I0403 21:38:37.945513 12324 net.cpp:141] Setting up inception_4b/output_inception_4b/output_0_split
I0403 21:38:37.945539 12324 net.cpp:148] Top shape: 24 512 14 14 (2408448)
I0403 21:38:37.945556 12324 net.cpp:148] Top shape: 24 512 14 14 (2408448)
I0403 21:38:37.945570 12324 net.cpp:148] Top shape: 24 512 14 14 (2408448)
I0403 21:38:37.945585 12324 net.cpp:148] Top shape: 24 512 14 14 (2408448)
I0403 21:38:37.945600 12324 net.cpp:156] Memory required for data: 1028392224
I0403 21:38:37.945613 12324 layer_factory.hpp:77] Creating layer inception_4c/1x1
I0403 21:38:37.945636 12324 net.cpp:91] Creating Layer inception_4c/1x1
I0403 21:38:37.945654 12324 net.cpp:425] inception_4c/1x1 <- inception_4b/output_inception_4b/output_0_split_0
I0403 21:38:37.945673 12324 net.cpp:399] inception_4c/1x1 -> inception_4c/1x1
I0403 21:38:37.947065 12324 net.cpp:141] Setting up inception_4c/1x1
I0403 21:38:37.947093 12324 net.cpp:148] Top shape: 24 128 14 14 (602112)
I0403 21:38:37.947108 12324 net.cpp:156] Memory required for data: 1030800672
I0403 21:38:37.947125 12324 layer_factory.hpp:77] Creating layer inception_4c/relu_1x1
I0403 21:38:37.947145 12324 net.cpp:91] Creating Layer inception_4c/relu_1x1
I0403 21:38:37.947175 12324 net.cpp:425] inception_4c/relu_1x1 <- inception_4c/1x1
I0403 21:38:37.947192 12324 net.cpp:386] inception_4c/relu_1x1 -> inception_4c/1x1 (in-place)
I0403 21:38:37.947381 12324 net.cpp:141] Setting up inception_4c/relu_1x1
I0403 21:38:37.947407 12324 net.cpp:148] Top shape: 24 128 14 14 (602112)
I0403 21:38:37.947424 12324 net.cpp:156] Memory required for data: 1033209120
I0403 21:38:37.947439 12324 layer_factory.hpp:77] Creating layer inception_4c/3x3_reduce
I0403 21:38:37.947463 12324 net.cpp:91] Creating Layer inception_4c/3x3_reduce
I0403 21:38:37.947480 12324 net.cpp:425] inception_4c/3x3_reduce <- inception_4b/output_inception_4b/output_0_split_1
I0403 21:38:37.947511 12324 net.cpp:399] inception_4c/3x3_reduce -> inception_4c/3x3_reduce
I0403 21:38:37.949434 12324 net.cpp:141] Setting up inception_4c/3x3_reduce
I0403 21:38:37.949465 12324 net.cpp:148] Top shape: 24 128 14 14 (602112)
I0403 21:38:37.949481 12324 net.cpp:156] Memory required for data: 1035617568
I0403 21:38:37.949498 12324 layer_factory.hpp:77] Creating layer inception_4c/relu_3x3_reduce
I0403 21:38:37.949515 12324 net.cpp:91] Creating Layer inception_4c/relu_3x3_reduce
I0403 21:38:37.949532 12324 net.cpp:425] inception_4c/relu_3x3_reduce <- inception_4c/3x3_reduce
I0403 21:38:37.949551 12324 net.cpp:386] inception_4c/relu_3x3_reduce -> inception_4c/3x3_reduce (in-place)
I0403 21:38:37.949833 12324 net.cpp:141] Setting up inception_4c/relu_3x3_reduce
I0403 21:38:37.949862 12324 net.cpp:148] Top shape: 24 128 14 14 (602112)
I0403 21:38:37.949877 12324 net.cpp:156] Memory required for data: 1038026016
I0403 21:38:37.949892 12324 layer_factory.hpp:77] Creating layer inception_4c/3x3
I0403 21:38:37.949914 12324 net.cpp:91] Creating Layer inception_4c/3x3
I0403 21:38:37.949931 12324 net.cpp:425] inception_4c/3x3 <- inception_4c/3x3_reduce
I0403 21:38:37.949951 12324 net.cpp:399] inception_4c/3x3 -> inception_4c/3x3
I0403 21:38:37.953567 12324 net.cpp:141] Setting up inception_4c/3x3
I0403 21:38:37.953610 12324 net.cpp:148] Top shape: 24 256 14 14 (1204224)
I0403 21:38:37.953626 12324 net.cpp:156] Memory required for data: 1042842912
I0403 21:38:37.953658 12324 layer_factory.hpp:77] Creating layer inception_4c/relu_3x3
I0403 21:38:37.953680 12324 net.cpp:91] Creating Layer inception_4c/relu_3x3
I0403 21:38:37.953696 12324 net.cpp:425] inception_4c/relu_3x3 <- inception_4c/3x3
I0403 21:38:37.953714 12324 net.cpp:386] inception_4c/relu_3x3 -> inception_4c/3x3 (in-place)
I0403 21:38:37.953897 12324 net.cpp:141] Setting up inception_4c/relu_3x3
I0403 21:38:37.953922 12324 net.cpp:148] Top shape: 24 256 14 14 (1204224)
I0403 21:38:37.953938 12324 net.cpp:156] Memory required for data: 1047659808
I0403 21:38:37.953951 12324 layer_factory.hpp:77] Creating layer inception_4c/5x5_reduce
I0403 21:38:37.953974 12324 net.cpp:91] Creating Layer inception_4c/5x5_reduce
I0403 21:38:37.953992 12324 net.cpp:425] inception_4c/5x5_reduce <- inception_4b/output_inception_4b/output_0_split_2
I0403 21:38:37.954013 12324 net.cpp:399] inception_4c/5x5_reduce -> inception_4c/5x5_reduce
I0403 21:38:37.955086 12324 net.cpp:141] Setting up inception_4c/5x5_reduce
I0403 21:38:37.955113 12324 net.cpp:148] Top shape: 24 24 14 14 (112896)
I0403 21:38:37.955128 12324 net.cpp:156] Memory required for data: 1048111392
I0403 21:38:37.955147 12324 layer_factory.hpp:77] Creating layer inception_4c/relu_5x5_reduce
I0403 21:38:37.955164 12324 net.cpp:91] Creating Layer inception_4c/relu_5x5_reduce
I0403 21:38:37.955180 12324 net.cpp:425] inception_4c/relu_5x5_reduce <- inception_4c/5x5_reduce
I0403 21:38:37.955199 12324 net.cpp:386] inception_4c/relu_5x5_reduce -> inception_4c/5x5_reduce (in-place)
I0403 21:38:37.955402 12324 net.cpp:141] Setting up inception_4c/relu_5x5_reduce
I0403 21:38:37.955427 12324 net.cpp:148] Top shape: 24 24 14 14 (112896)
I0403 21:38:37.955442 12324 net.cpp:156] Memory required for data: 1048562976
I0403 21:38:37.955458 12324 layer_factory.hpp:77] Creating layer inception_4c/5x5
I0403 21:38:37.955482 12324 net.cpp:91] Creating Layer inception_4c/5x5
I0403 21:38:37.955499 12324 net.cpp:425] inception_4c/5x5 <- inception_4c/5x5_reduce
I0403 21:38:37.955521 12324 net.cpp:399] inception_4c/5x5 -> inception_4c/5x5
I0403 21:38:37.956743 12324 net.cpp:141] Setting up inception_4c/5x5
I0403 21:38:37.956769 12324 net.cpp:148] Top shape: 24 64 14 14 (301056)
I0403 21:38:37.956784 12324 net.cpp:156] Memory required for data: 1049767200
I0403 21:38:37.956801 12324 layer_factory.hpp:77] Creating layer inception_4c/relu_5x5
I0403 21:38:37.956821 12324 net.cpp:91] Creating Layer inception_4c/relu_5x5
I0403 21:38:37.956837 12324 net.cpp:425] inception_4c/relu_5x5 <- inception_4c/5x5
I0403 21:38:37.956853 12324 net.cpp:386] inception_4c/relu_5x5 -> inception_4c/5x5 (in-place)
I0403 21:38:37.957132 12324 net.cpp:141] Setting up inception_4c/relu_5x5
I0403 21:38:37.957159 12324 net.cpp:148] Top shape: 24 64 14 14 (301056)
I0403 21:38:37.957172 12324 net.cpp:156] Memory required for data: 1050971424
I0403 21:38:37.957187 12324 layer_factory.hpp:77] Creating layer inception_4c/pool
I0403 21:38:37.957212 12324 net.cpp:91] Creating Layer inception_4c/pool
I0403 21:38:37.957231 12324 net.cpp:425] inception_4c/pool <- inception_4b/output_inception_4b/output_0_split_3
I0403 21:38:37.957248 12324 net.cpp:399] inception_4c/pool -> inception_4c/pool
I0403 21:38:37.957312 12324 net.cpp:141] Setting up inception_4c/pool
I0403 21:38:37.957336 12324 net.cpp:148] Top shape: 24 512 14 14 (2408448)
I0403 21:38:37.957350 12324 net.cpp:156] Memory required for data: 1060605216
I0403 21:38:37.957365 12324 layer_factory.hpp:77] Creating layer inception_4c/pool_proj
I0403 21:38:37.957386 12324 net.cpp:91] Creating Layer inception_4c/pool_proj
I0403 21:38:37.957404 12324 net.cpp:425] inception_4c/pool_proj <- inception_4c/pool
I0403 21:38:37.957425 12324 net.cpp:399] inception_4c/pool_proj -> inception_4c/pool_proj
I0403 21:38:37.958618 12324 net.cpp:141] Setting up inception_4c/pool_proj
I0403 21:38:37.958645 12324 net.cpp:148] Top shape: 24 64 14 14 (301056)
I0403 21:38:37.958675 12324 net.cpp:156] Memory required for data: 1061809440
I0403 21:38:37.958694 12324 layer_factory.hpp:77] Creating layer inception_4c/relu_pool_proj
I0403 21:38:37.958711 12324 net.cpp:91] Creating Layer inception_4c/relu_pool_proj
I0403 21:38:37.958729 12324 net.cpp:425] inception_4c/relu_pool_proj <- inception_4c/pool_proj
I0403 21:38:37.958748 12324 net.cpp:386] inception_4c/relu_pool_proj -> inception_4c/pool_proj (in-place)
I0403 21:38:37.958928 12324 net.cpp:141] Setting up inception_4c/relu_pool_proj
I0403 21:38:37.958952 12324 net.cpp:148] Top shape: 24 64 14 14 (301056)
I0403 21:38:37.958966 12324 net.cpp:156] Memory required for data: 1063013664
I0403 21:38:37.958981 12324 layer_factory.hpp:77] Creating layer inception_4c/output
I0403 21:38:37.958999 12324 net.cpp:91] Creating Layer inception_4c/output
I0403 21:38:37.959017 12324 net.cpp:425] inception_4c/output <- inception_4c/1x1
I0403 21:38:37.959033 12324 net.cpp:425] inception_4c/output <- inception_4c/3x3
I0403 21:38:37.959048 12324 net.cpp:425] inception_4c/output <- inception_4c/5x5
I0403 21:38:37.959064 12324 net.cpp:425] inception_4c/output <- inception_4c/pool_proj
I0403 21:38:37.959080 12324 net.cpp:399] inception_4c/output -> inception_4c/output
I0403 21:38:37.959126 12324 net.cpp:141] Setting up inception_4c/output
I0403 21:38:37.959149 12324 net.cpp:148] Top shape: 24 512 14 14 (2408448)
I0403 21:38:37.959164 12324 net.cpp:156] Memory required for data: 1072647456
I0403 21:38:37.959178 12324 layer_factory.hpp:77] Creating layer inception_4c/output_inception_4c/output_0_split
I0403 21:38:37.959195 12324 net.cpp:91] Creating Layer inception_4c/output_inception_4c/output_0_split
I0403 21:38:37.959215 12324 net.cpp:425] inception_4c/output_inception_4c/output_0_split <- inception_4c/output
I0403 21:38:37.959236 12324 net.cpp:399] inception_4c/output_inception_4c/output_0_split -> inception_4c/output_inception_4c/output_0_split_0
I0403 21:38:37.959270 12324 net.cpp:399] inception_4c/output_inception_4c/output_0_split -> inception_4c/output_inception_4c/output_0_split_1
I0403 21:38:37.959291 12324 net.cpp:399] inception_4c/output_inception_4c/output_0_split -> inception_4c/output_inception_4c/output_0_split_2
I0403 21:38:37.959311 12324 net.cpp:399] inception_4c/output_inception_4c/output_0_split -> inception_4c/output_inception_4c/output_0_split_3
I0403 21:38:37.959396 12324 net.cpp:141] Setting up inception_4c/output_inception_4c/output_0_split
I0403 21:38:37.959424 12324 net.cpp:148] Top shape: 24 512 14 14 (2408448)
I0403 21:38:37.959442 12324 net.cpp:148] Top shape: 24 512 14 14 (2408448)
I0403 21:38:37.959458 12324 net.cpp:148] Top shape: 24 512 14 14 (2408448)
I0403 21:38:37.959473 12324 net.cpp:148] Top shape: 24 512 14 14 (2408448)
I0403 21:38:37.959487 12324 net.cpp:156] Memory required for data: 1111182624
I0403 21:38:37.959502 12324 layer_factory.hpp:77] Creating layer inception_4d/1x1
I0403 21:38:37.959524 12324 net.cpp:91] Creating Layer inception_4d/1x1
I0403 21:38:37.959554 12324 net.cpp:425] inception_4d/1x1 <- inception_4c/output_inception_4c/output_0_split_0
I0403 21:38:37.959573 12324 net.cpp:399] inception_4d/1x1 -> inception_4d/1x1
I0403 21:38:37.960930 12324 net.cpp:141] Setting up inception_4d/1x1
I0403 21:38:37.960959 12324 net.cpp:148] Top shape: 24 112 14 14 (526848)
I0403 21:38:37.960974 12324 net.cpp:156] Memory required for data: 1113290016
I0403 21:38:37.960990 12324 layer_factory.hpp:77] Creating layer inception_4d/relu_1x1
I0403 21:38:37.961007 12324 net.cpp:91] Creating Layer inception_4d/relu_1x1
I0403 21:38:37.961022 12324 net.cpp:425] inception_4d/relu_1x1 <- inception_4d/1x1
I0403 21:38:37.961040 12324 net.cpp:386] inception_4d/relu_1x1 -> inception_4d/1x1 (in-place)
I0403 21:38:37.961220 12324 net.cpp:141] Setting up inception_4d/relu_1x1
I0403 21:38:37.961243 12324 net.cpp:148] Top shape: 24 112 14 14 (526848)
I0403 21:38:37.961257 12324 net.cpp:156] Memory required for data: 1115397408
I0403 21:38:37.961272 12324 layer_factory.hpp:77] Creating layer inception_4d/3x3_reduce
I0403 21:38:37.961307 12324 net.cpp:91] Creating Layer inception_4d/3x3_reduce
I0403 21:38:37.961324 12324 net.cpp:425] inception_4d/3x3_reduce <- inception_4c/output_inception_4c/output_0_split_1
I0403 21:38:37.961345 12324 net.cpp:399] inception_4d/3x3_reduce -> inception_4d/3x3_reduce
I0403 21:38:37.962781 12324 net.cpp:141] Setting up inception_4d/3x3_reduce
I0403 21:38:37.962808 12324 net.cpp:148] Top shape: 24 144 14 14 (677376)
I0403 21:38:37.962822 12324 net.cpp:156] Memory required for data: 1118106912
I0403 21:38:37.962839 12324 layer_factory.hpp:77] Creating layer inception_4d/relu_3x3_reduce
I0403 21:38:37.962859 12324 net.cpp:91] Creating Layer inception_4d/relu_3x3_reduce
I0403 21:38:37.962877 12324 net.cpp:425] inception_4d/relu_3x3_reduce <- inception_4d/3x3_reduce
I0403 21:38:37.962893 12324 net.cpp:386] inception_4d/relu_3x3_reduce -> inception_4d/3x3_reduce (in-place)
I0403 21:38:37.963165 12324 net.cpp:141] Setting up inception_4d/relu_3x3_reduce
I0403 21:38:37.963189 12324 net.cpp:148] Top shape: 24 144 14 14 (677376)
I0403 21:38:37.963203 12324 net.cpp:156] Memory required for data: 1120816416
I0403 21:38:37.963222 12324 layer_factory.hpp:77] Creating layer inception_4d/3x3
I0403 21:38:37.963245 12324 net.cpp:91] Creating Layer inception_4d/3x3
I0403 21:38:37.963263 12324 net.cpp:425] inception_4d/3x3 <- inception_4d/3x3_reduce
I0403 21:38:37.963284 12324 net.cpp:399] inception_4d/3x3 -> inception_4d/3x3
I0403 21:38:37.967371 12324 net.cpp:141] Setting up inception_4d/3x3
I0403 21:38:37.967401 12324 net.cpp:148] Top shape: 24 288 14 14 (1354752)
I0403 21:38:37.967417 12324 net.cpp:156] Memory required for data: 1126235424
I0403 21:38:37.967435 12324 layer_factory.hpp:77] Creating layer inception_4d/relu_3x3
I0403 21:38:37.967452 12324 net.cpp:91] Creating Layer inception_4d/relu_3x3
I0403 21:38:37.967466 12324 net.cpp:425] inception_4d/relu_3x3 <- inception_4d/3x3
I0403 21:38:37.967485 12324 net.cpp:386] inception_4d/relu_3x3 -> inception_4d/3x3 (in-place)
I0403 21:38:37.967660 12324 net.cpp:141] Setting up inception_4d/relu_3x3
I0403 21:38:37.967684 12324 net.cpp:148] Top shape: 24 288 14 14 (1354752)
I0403 21:38:37.967699 12324 net.cpp:156] Memory required for data: 1131654432
I0403 21:38:37.967712 12324 layer_factory.hpp:77] Creating layer inception_4d/5x5_reduce
I0403 21:38:37.967735 12324 net.cpp:91] Creating Layer inception_4d/5x5_reduce
I0403 21:38:37.967751 12324 net.cpp:425] inception_4d/5x5_reduce <- inception_4c/output_inception_4c/output_0_split_2
I0403 21:38:37.967772 12324 net.cpp:399] inception_4d/5x5_reduce -> inception_4d/5x5_reduce
I0403 21:38:37.968868 12324 net.cpp:141] Setting up inception_4d/5x5_reduce
I0403 21:38:37.968896 12324 net.cpp:148] Top shape: 24 32 14 14 (150528)
I0403 21:38:37.968910 12324 net.cpp:156] Memory required for data: 1132256544
I0403 21:38:37.968927 12324 layer_factory.hpp:77] Creating layer inception_4d/relu_5x5_reduce
I0403 21:38:37.968943 12324 net.cpp:91] Creating Layer inception_4d/relu_5x5_reduce
I0403 21:38:37.968960 12324 net.cpp:425] inception_4d/relu_5x5_reduce <- inception_4d/5x5_reduce
I0403 21:38:37.968974 12324 net.cpp:386] inception_4d/relu_5x5_reduce -> inception_4d/5x5_reduce (in-place)
I0403 21:38:37.969159 12324 net.cpp:141] Setting up inception_4d/relu_5x5_reduce
I0403 21:38:37.969183 12324 net.cpp:148] Top shape: 24 32 14 14 (150528)
I0403 21:38:37.969197 12324 net.cpp:156] Memory required for data: 1132858656
I0403 21:38:37.969214 12324 layer_factory.hpp:77] Creating layer inception_4d/5x5
I0403 21:38:37.969238 12324 net.cpp:91] Creating Layer inception_4d/5x5
I0403 21:38:37.969254 12324 net.cpp:425] inception_4d/5x5 <- inception_4d/5x5_reduce
I0403 21:38:37.969275 12324 net.cpp:399] inception_4d/5x5 -> inception_4d/5x5
I0403 21:38:37.970650 12324 net.cpp:141] Setting up inception_4d/5x5
I0403 21:38:37.970677 12324 net.cpp:148] Top shape: 24 64 14 14 (301056)
I0403 21:38:37.970691 12324 net.cpp:156] Memory required for data: 1134062880
I0403 21:38:37.970711 12324 layer_factory.hpp:77] Creating layer inception_4d/relu_5x5
I0403 21:38:37.970744 12324 net.cpp:91] Creating Layer inception_4d/relu_5x5
I0403 21:38:37.970762 12324 net.cpp:425] inception_4d/relu_5x5 <- inception_4d/5x5
I0403 21:38:37.970779 12324 net.cpp:386] inception_4d/relu_5x5 -> inception_4d/5x5 (in-place)
I0403 21:38:37.971063 12324 net.cpp:141] Setting up inception_4d/relu_5x5
I0403 21:38:37.971089 12324 net.cpp:148] Top shape: 24 64 14 14 (301056)
I0403 21:38:37.971102 12324 net.cpp:156] Memory required for data: 1135267104
I0403 21:38:37.971117 12324 layer_factory.hpp:77] Creating layer inception_4d/pool
I0403 21:38:37.971133 12324 net.cpp:91] Creating Layer inception_4d/pool
I0403 21:38:37.971151 12324 net.cpp:425] inception_4d/pool <- inception_4c/output_inception_4c/output_0_split_3
I0403 21:38:37.971169 12324 net.cpp:399] inception_4d/pool -> inception_4d/pool
I0403 21:38:37.971238 12324 net.cpp:141] Setting up inception_4d/pool
I0403 21:38:37.971261 12324 net.cpp:148] Top shape: 24 512 14 14 (2408448)
I0403 21:38:37.971276 12324 net.cpp:156] Memory required for data: 1144900896
I0403 21:38:37.971289 12324 layer_factory.hpp:77] Creating layer inception_4d/pool_proj
I0403 21:38:37.971310 12324 net.cpp:91] Creating Layer inception_4d/pool_proj
I0403 21:38:37.971328 12324 net.cpp:425] inception_4d/pool_proj <- inception_4d/pool
I0403 21:38:37.971349 12324 net.cpp:399] inception_4d/pool_proj -> inception_4d/pool_proj
I0403 21:38:37.973060 12324 net.cpp:141] Setting up inception_4d/pool_proj
I0403 21:38:37.973091 12324 net.cpp:148] Top shape: 24 64 14 14 (301056)
I0403 21:38:37.973107 12324 net.cpp:156] Memory required for data: 1146105120
I0403 21:38:37.973124 12324 layer_factory.hpp:77] Creating layer inception_4d/relu_pool_proj
I0403 21:38:37.973140 12324 net.cpp:91] Creating Layer inception_4d/relu_pool_proj
I0403 21:38:37.973156 12324 net.cpp:425] inception_4d/relu_pool_proj <- inception_4d/pool_proj
I0403 21:38:37.973176 12324 net.cpp:386] inception_4d/relu_pool_proj -> inception_4d/pool_proj (in-place)
I0403 21:38:37.973357 12324 net.cpp:141] Setting up inception_4d/relu_pool_proj
I0403 21:38:37.973381 12324 net.cpp:148] Top shape: 24 64 14 14 (301056)
I0403 21:38:37.973393 12324 net.cpp:156] Memory required for data: 1147309344
I0403 21:38:37.973407 12324 layer_factory.hpp:77] Creating layer inception_4d/output
I0403 21:38:37.973423 12324 net.cpp:91] Creating Layer inception_4d/output
I0403 21:38:37.973438 12324 net.cpp:425] inception_4d/output <- inception_4d/1x1
I0403 21:38:37.973453 12324 net.cpp:425] inception_4d/output <- inception_4d/3x3
I0403 21:38:37.973469 12324 net.cpp:425] inception_4d/output <- inception_4d/5x5
I0403 21:38:37.973484 12324 net.cpp:425] inception_4d/output <- inception_4d/pool_proj
I0403 21:38:37.973501 12324 net.cpp:399] inception_4d/output -> inception_4d/output
I0403 21:38:37.973546 12324 net.cpp:141] Setting up inception_4d/output
I0403 21:38:37.973570 12324 net.cpp:148] Top shape: 24 528 14 14 (2483712)
I0403 21:38:37.973584 12324 net.cpp:156] Memory required for data: 1157244192
I0403 21:38:37.973598 12324 layer_factory.hpp:77] Creating layer inception_4d/output_inception_4d/output_0_split
I0403 21:38:37.973614 12324 net.cpp:91] Creating Layer inception_4d/output_inception_4d/output_0_split
I0403 21:38:37.973629 12324 net.cpp:425] inception_4d/output_inception_4d/output_0_split <- inception_4d/output
I0403 21:38:37.973649 12324 net.cpp:399] inception_4d/output_inception_4d/output_0_split -> inception_4d/output_inception_4d/output_0_split_0
I0403 21:38:37.973670 12324 net.cpp:399] inception_4d/output_inception_4d/output_0_split -> inception_4d/output_inception_4d/output_0_split_1
I0403 21:38:37.973690 12324 net.cpp:399] inception_4d/output_inception_4d/output_0_split -> inception_4d/output_inception_4d/output_0_split_2
I0403 21:38:37.973708 12324 net.cpp:399] inception_4d/output_inception_4d/output_0_split -> inception_4d/output_inception_4d/output_0_split_3
I0403 21:38:37.973727 12324 net.cpp:399] inception_4d/output_inception_4d/output_0_split -> inception_4d/output_inception_4d/output_0_split_4
I0403 21:38:37.973824 12324 net.cpp:141] Setting up inception_4d/output_inception_4d/output_0_split
I0403 21:38:37.973860 12324 net.cpp:148] Top shape: 24 528 14 14 (2483712)
I0403 21:38:37.973877 12324 net.cpp:148] Top shape: 24 528 14 14 (2483712)
I0403 21:38:37.973892 12324 net.cpp:148] Top shape: 24 528 14 14 (2483712)
I0403 21:38:37.973906 12324 net.cpp:148] Top shape: 24 528 14 14 (2483712)
I0403 21:38:37.973920 12324 net.cpp:148] Top shape: 24 528 14 14 (2483712)
I0403 21:38:37.973933 12324 net.cpp:156] Memory required for data: 1206918432
I0403 21:38:37.973947 12324 layer_factory.hpp:77] Creating layer loss2/ave_pool
I0403 21:38:37.973963 12324 net.cpp:91] Creating Layer loss2/ave_pool
I0403 21:38:37.973978 12324 net.cpp:425] loss2/ave_pool <- inception_4d/output_inception_4d/output_0_split_0
I0403 21:38:37.973994 12324 net.cpp:399] loss2/ave_pool -> loss2/ave_pool
I0403 21:38:37.974295 12324 net.cpp:141] Setting up loss2/ave_pool
I0403 21:38:37.974323 12324 net.cpp:148] Top shape: 24 528 4 4 (202752)
I0403 21:38:37.974337 12324 net.cpp:156] Memory required for data: 1207729440
I0403 21:38:37.974352 12324 layer_factory.hpp:77] Creating layer loss2/conv
I0403 21:38:37.974373 12324 net.cpp:91] Creating Layer loss2/conv
I0403 21:38:37.974390 12324 net.cpp:425] loss2/conv <- loss2/ave_pool
I0403 21:38:37.974408 12324 net.cpp:399] loss2/conv -> loss2/conv
I0403 21:38:37.976240 12324 net.cpp:141] Setting up loss2/conv
I0403 21:38:37.976269 12324 net.cpp:148] Top shape: 24 128 4 4 (49152)
I0403 21:38:37.976284 12324 net.cpp:156] Memory required for data: 1207926048
I0403 21:38:37.976301 12324 layer_factory.hpp:77] Creating layer loss2/relu_conv
I0403 21:38:37.976320 12324 net.cpp:91] Creating Layer loss2/relu_conv
I0403 21:38:37.976336 12324 net.cpp:425] loss2/relu_conv <- loss2/conv
I0403 21:38:37.976351 12324 net.cpp:386] loss2/relu_conv -> loss2/conv (in-place)
I0403 21:38:37.976625 12324 net.cpp:141] Setting up loss2/relu_conv
I0403 21:38:37.976651 12324 net.cpp:148] Top shape: 24 128 4 4 (49152)
I0403 21:38:37.976665 12324 net.cpp:156] Memory required for data: 1208122656
I0403 21:38:37.976680 12324 layer_factory.hpp:77] Creating layer loss2/fc
I0403 21:38:37.976699 12324 net.cpp:91] Creating Layer loss2/fc
I0403 21:38:37.976716 12324 net.cpp:425] loss2/fc <- loss2/conv
I0403 21:38:37.976733 12324 net.cpp:399] loss2/fc -> loss2/fc
I0403 21:38:37.994730 12324 net.cpp:141] Setting up loss2/fc
I0403 21:38:37.994770 12324 net.cpp:148] Top shape: 24 1024 (24576)
I0403 21:38:37.994784 12324 net.cpp:156] Memory required for data: 1208220960
I0403 21:38:37.994802 12324 layer_factory.hpp:77] Creating layer loss2/relu_fc
I0403 21:38:37.994820 12324 net.cpp:91] Creating Layer loss2/relu_fc
I0403 21:38:37.994835 12324 net.cpp:425] loss2/relu_fc <- loss2/fc
I0403 21:38:37.994855 12324 net.cpp:386] loss2/relu_fc -> loss2/fc (in-place)
I0403 21:38:37.995154 12324 net.cpp:141] Setting up loss2/relu_fc
I0403 21:38:37.995179 12324 net.cpp:148] Top shape: 24 1024 (24576)
I0403 21:38:37.995193 12324 net.cpp:156] Memory required for data: 1208319264
I0403 21:38:37.995211 12324 layer_factory.hpp:77] Creating layer loss2/drop_fc
I0403 21:38:37.995231 12324 net.cpp:91] Creating Layer loss2/drop_fc
I0403 21:38:37.995247 12324 net.cpp:425] loss2/drop_fc <- loss2/fc
I0403 21:38:37.995270 12324 net.cpp:386] loss2/drop_fc -> loss2/fc (in-place)
I0403 21:38:37.995317 12324 net.cpp:141] Setting up loss2/drop_fc
I0403 21:38:37.995339 12324 net.cpp:148] Top shape: 24 1024 (24576)
I0403 21:38:37.995352 12324 net.cpp:156] Memory required for data: 1208417568
I0403 21:38:37.995367 12324 layer_factory.hpp:77] Creating layer loss2/classifier_plantvillage
I0403 21:38:37.995385 12324 net.cpp:91] Creating Layer loss2/classifier_plantvillage
I0403 21:38:37.995403 12324 net.cpp:425] loss2/classifier_plantvillage <- loss2/fc
I0403 21:38:37.995424 12324 net.cpp:399] loss2/classifier_plantvillage -> loss2/classifier_plantvillage
I0403 21:38:37.995805 12324 net.cpp:141] Setting up loss2/classifier_plantvillage
I0403 21:38:37.995828 12324 net.cpp:148] Top shape: 24 38 (912)
I0403 21:38:37.995842 12324 net.cpp:156] Memory required for data: 1208421216
I0403 21:38:37.995877 12324 layer_factory.hpp:77] Creating layer loss2/classifier_plantvillage_loss2/classifier_plantvillage_0_split
I0403 21:38:37.995893 12324 net.cpp:91] Creating Layer loss2/classifier_plantvillage_loss2/classifier_plantvillage_0_split
I0403 21:38:37.995909 12324 net.cpp:425] loss2/classifier_plantvillage_loss2/classifier_plantvillage_0_split <- loss2/classifier_plantvillage
I0403 21:38:37.995929 12324 net.cpp:399] loss2/classifier_plantvillage_loss2/classifier_plantvillage_0_split -> loss2/classifier_plantvillage_loss2/classifier_plantvillage_0_split_0
I0403 21:38:37.995949 12324 net.cpp:399] loss2/classifier_plantvillage_loss2/classifier_plantvillage_0_split -> loss2/classifier_plantvillage_loss2/classifier_plantvillage_0_split_1
I0403 21:38:37.995970 12324 net.cpp:399] loss2/classifier_plantvillage_loss2/classifier_plantvillage_0_split -> loss2/classifier_plantvillage_loss2/classifier_plantvillage_0_split_2
I0403 21:38:37.996043 12324 net.cpp:141] Setting up loss2/classifier_plantvillage_loss2/classifier_plantvillage_0_split
I0403 21:38:37.996065 12324 net.cpp:148] Top shape: 24 38 (912)
I0403 21:38:37.996080 12324 net.cpp:148] Top shape: 24 38 (912)
I0403 21:38:37.996095 12324 net.cpp:148] Top shape: 24 38 (912)
I0403 21:38:37.996109 12324 net.cpp:156] Memory required for data: 1208432160
I0403 21:38:37.996122 12324 layer_factory.hpp:77] Creating layer inception_4e/1x1
I0403 21:38:37.996143 12324 net.cpp:91] Creating Layer inception_4e/1x1
I0403 21:38:37.996161 12324 net.cpp:425] inception_4e/1x1 <- inception_4d/output_inception_4d/output_0_split_1
I0403 21:38:37.996179 12324 net.cpp:399] inception_4e/1x1 -> inception_4e/1x1
I0403 21:38:37.997908 12324 net.cpp:141] Setting up inception_4e/1x1
I0403 21:38:37.997934 12324 net.cpp:148] Top shape: 24 256 14 14 (1204224)
I0403 21:38:37.997949 12324 net.cpp:156] Memory required for data: 1213249056
I0403 21:38:37.997967 12324 layer_factory.hpp:77] Creating layer inception_4e/relu_1x1
I0403 21:38:37.997987 12324 net.cpp:91] Creating Layer inception_4e/relu_1x1
I0403 21:38:37.998003 12324 net.cpp:425] inception_4e/relu_1x1 <- inception_4e/1x1
I0403 21:38:37.998018 12324 net.cpp:386] inception_4e/relu_1x1 -> inception_4e/1x1 (in-place)
I0403 21:38:37.998307 12324 net.cpp:141] Setting up inception_4e/relu_1x1
I0403 21:38:37.998332 12324 net.cpp:148] Top shape: 24 256 14 14 (1204224)
I0403 21:38:37.998347 12324 net.cpp:156] Memory required for data: 1218065952
I0403 21:38:37.998360 12324 layer_factory.hpp:77] Creating layer inception_4e/3x3_reduce
I0403 21:38:37.998381 12324 net.cpp:91] Creating Layer inception_4e/3x3_reduce
I0403 21:38:37.998399 12324 net.cpp:425] inception_4e/3x3_reduce <- inception_4d/output_inception_4d/output_0_split_2
I0403 21:38:37.998420 12324 net.cpp:399] inception_4e/3x3_reduce -> inception_4e/3x3_reduce
I0403 21:38:38.000478 12324 net.cpp:141] Setting up inception_4e/3x3_reduce
I0403 21:38:38.000506 12324 net.cpp:148] Top shape: 24 160 14 14 (752640)
I0403 21:38:38.000521 12324 net.cpp:156] Memory required for data: 1221076512
I0403 21:38:38.000540 12324 layer_factory.hpp:77] Creating layer inception_4e/relu_3x3_reduce
I0403 21:38:38.000556 12324 net.cpp:91] Creating Layer inception_4e/relu_3x3_reduce
I0403 21:38:38.000572 12324 net.cpp:425] inception_4e/relu_3x3_reduce <- inception_4e/3x3_reduce
I0403 21:38:38.000592 12324 net.cpp:386] inception_4e/relu_3x3_reduce -> inception_4e/3x3_reduce (in-place)
I0403 21:38:38.000771 12324 net.cpp:141] Setting up inception_4e/relu_3x3_reduce
I0403 21:38:38.000795 12324 net.cpp:148] Top shape: 24 160 14 14 (752640)
I0403 21:38:38.000809 12324 net.cpp:156] Memory required for data: 1224087072
I0403 21:38:38.000823 12324 layer_factory.hpp:77] Creating layer inception_4e/3x3
I0403 21:38:38.000845 12324 net.cpp:91] Creating Layer inception_4e/3x3
I0403 21:38:38.000862 12324 net.cpp:425] inception_4e/3x3 <- inception_4e/3x3_reduce
I0403 21:38:38.000882 12324 net.cpp:399] inception_4e/3x3 -> inception_4e/3x3
I0403 21:38:38.005695 12324 net.cpp:141] Setting up inception_4e/3x3
I0403 21:38:38.005734 12324 net.cpp:148] Top shape: 24 320 14 14 (1505280)
I0403 21:38:38.005750 12324 net.cpp:156] Memory required for data: 1230108192
I0403 21:38:38.005767 12324 layer_factory.hpp:77] Creating layer inception_4e/relu_3x3
I0403 21:38:38.005787 12324 net.cpp:91] Creating Layer inception_4e/relu_3x3
I0403 21:38:38.005805 12324 net.cpp:425] inception_4e/relu_3x3 <- inception_4e/3x3
I0403 21:38:38.005820 12324 net.cpp:386] inception_4e/relu_3x3 -> inception_4e/3x3 (in-place)
I0403 21:38:38.006108 12324 net.cpp:141] Setting up inception_4e/relu_3x3
I0403 21:38:38.006135 12324 net.cpp:148] Top shape: 24 320 14 14 (1505280)
I0403 21:38:38.006150 12324 net.cpp:156] Memory required for data: 1236129312
I0403 21:38:38.006165 12324 layer_factory.hpp:77] Creating layer inception_4e/5x5_reduce
I0403 21:38:38.006187 12324 net.cpp:91] Creating Layer inception_4e/5x5_reduce
I0403 21:38:38.006204 12324 net.cpp:425] inception_4e/5x5_reduce <- inception_4d/output_inception_4d/output_0_split_3
I0403 21:38:38.006228 12324 net.cpp:399] inception_4e/5x5_reduce -> inception_4e/5x5_reduce
I0403 21:38:38.007247 12324 net.cpp:141] Setting up inception_4e/5x5_reduce
I0403 21:38:38.007273 12324 net.cpp:148] Top shape: 24 32 14 14 (150528)
I0403 21:38:38.007288 12324 net.cpp:156] Memory required for data: 1236731424
I0403 21:38:38.007305 12324 layer_factory.hpp:77] Creating layer inception_4e/relu_5x5_reduce
I0403 21:38:38.007324 12324 net.cpp:91] Creating Layer inception_4e/relu_5x5_reduce
I0403 21:38:38.007341 12324 net.cpp:425] inception_4e/relu_5x5_reduce <- inception_4e/5x5_reduce
I0403 21:38:38.007359 12324 net.cpp:386] inception_4e/relu_5x5_reduce -> inception_4e/5x5_reduce (in-place)
I0403 21:38:38.007642 12324 net.cpp:141] Setting up inception_4e/relu_5x5_reduce
I0403 21:38:38.007668 12324 net.cpp:148] Top shape: 24 32 14 14 (150528)
I0403 21:38:38.007681 12324 net.cpp:156] Memory required for data: 1237333536
I0403 21:38:38.007695 12324 layer_factory.hpp:77] Creating layer inception_4e/5x5
I0403 21:38:38.007735 12324 net.cpp:91] Creating Layer inception_4e/5x5
I0403 21:38:38.007753 12324 net.cpp:425] inception_4e/5x5 <- inception_4e/5x5_reduce
I0403 21:38:38.007771 12324 net.cpp:399] inception_4e/5x5 -> inception_4e/5x5
I0403 21:38:38.009510 12324 net.cpp:141] Setting up inception_4e/5x5
I0403 21:38:38.009538 12324 net.cpp:148] Top shape: 24 128 14 14 (602112)
I0403 21:38:38.009555 12324 net.cpp:156] Memory required for data: 1239741984
I0403 21:38:38.009572 12324 layer_factory.hpp:77] Creating layer inception_4e/relu_5x5
I0403 21:38:38.009590 12324 net.cpp:91] Creating Layer inception_4e/relu_5x5
I0403 21:38:38.009606 12324 net.cpp:425] inception_4e/relu_5x5 <- inception_4e/5x5
I0403 21:38:38.009625 12324 net.cpp:386] inception_4e/relu_5x5 -> inception_4e/5x5 (in-place)
I0403 21:38:38.009815 12324 net.cpp:141] Setting up inception_4e/relu_5x5
I0403 21:38:38.009838 12324 net.cpp:148] Top shape: 24 128 14 14 (602112)
I0403 21:38:38.009852 12324 net.cpp:156] Memory required for data: 1242150432
I0403 21:38:38.009866 12324 layer_factory.hpp:77] Creating layer inception_4e/pool
I0403 21:38:38.009884 12324 net.cpp:91] Creating Layer inception_4e/pool
I0403 21:38:38.009899 12324 net.cpp:425] inception_4e/pool <- inception_4d/output_inception_4d/output_0_split_4
I0403 21:38:38.009919 12324 net.cpp:399] inception_4e/pool -> inception_4e/pool
I0403 21:38:38.009987 12324 net.cpp:141] Setting up inception_4e/pool
I0403 21:38:38.010010 12324 net.cpp:148] Top shape: 24 528 14 14 (2483712)
I0403 21:38:38.010023 12324 net.cpp:156] Memory required for data: 1252085280
I0403 21:38:38.010037 12324 layer_factory.hpp:77] Creating layer inception_4e/pool_proj
I0403 21:38:38.010058 12324 net.cpp:91] Creating Layer inception_4e/pool_proj
I0403 21:38:38.010076 12324 net.cpp:425] inception_4e/pool_proj <- inception_4e/pool
I0403 21:38:38.010097 12324 net.cpp:399] inception_4e/pool_proj -> inception_4e/pool_proj
I0403 21:38:38.011539 12324 net.cpp:141] Setting up inception_4e/pool_proj
I0403 21:38:38.011569 12324 net.cpp:148] Top shape: 24 128 14 14 (602112)
I0403 21:38:38.011597 12324 net.cpp:156] Memory required for data: 1254493728
I0403 21:38:38.011615 12324 layer_factory.hpp:77] Creating layer inception_4e/relu_pool_proj
I0403 21:38:38.011633 12324 net.cpp:91] Creating Layer inception_4e/relu_pool_proj
I0403 21:38:38.011649 12324 net.cpp:425] inception_4e/relu_pool_proj <- inception_4e/pool_proj
I0403 21:38:38.011668 12324 net.cpp:386] inception_4e/relu_pool_proj -> inception_4e/pool_proj (in-place)
I0403 21:38:38.011948 12324 net.cpp:141] Setting up inception_4e/relu_pool_proj
I0403 21:38:38.011976 12324 net.cpp:148] Top shape: 24 128 14 14 (602112)
I0403 21:38:38.011991 12324 net.cpp:156] Memory required for data: 1256902176
I0403 21:38:38.012006 12324 layer_factory.hpp:77] Creating layer inception_4e/output
I0403 21:38:38.012022 12324 net.cpp:91] Creating Layer inception_4e/output
I0403 21:38:38.012037 12324 net.cpp:425] inception_4e/output <- inception_4e/1x1
I0403 21:38:38.012053 12324 net.cpp:425] inception_4e/output <- inception_4e/3x3
I0403 21:38:38.012068 12324 net.cpp:425] inception_4e/output <- inception_4e/5x5
I0403 21:38:38.012082 12324 net.cpp:425] inception_4e/output <- inception_4e/pool_proj
I0403 21:38:38.012100 12324 net.cpp:399] inception_4e/output -> inception_4e/output
I0403 21:38:38.012148 12324 net.cpp:141] Setting up inception_4e/output
I0403 21:38:38.012171 12324 net.cpp:148] Top shape: 24 832 14 14 (3913728)
I0403 21:38:38.012186 12324 net.cpp:156] Memory required for data: 1272557088
I0403 21:38:38.012199 12324 layer_factory.hpp:77] Creating layer pool4/3x3_s2
I0403 21:38:38.012228 12324 net.cpp:91] Creating Layer pool4/3x3_s2
I0403 21:38:38.012246 12324 net.cpp:425] pool4/3x3_s2 <- inception_4e/output
I0403 21:38:38.012266 12324 net.cpp:399] pool4/3x3_s2 -> pool4/3x3_s2
I0403 21:38:38.012336 12324 net.cpp:141] Setting up pool4/3x3_s2
I0403 21:38:38.012361 12324 net.cpp:148] Top shape: 24 832 7 7 (978432)
I0403 21:38:38.012373 12324 net.cpp:156] Memory required for data: 1276470816
I0403 21:38:38.012387 12324 layer_factory.hpp:77] Creating layer pool4/3x3_s2_pool4/3x3_s2_0_split
I0403 21:38:38.012404 12324 net.cpp:91] Creating Layer pool4/3x3_s2_pool4/3x3_s2_0_split
I0403 21:38:38.012419 12324 net.cpp:425] pool4/3x3_s2_pool4/3x3_s2_0_split <- pool4/3x3_s2
I0403 21:38:38.012439 12324 net.cpp:399] pool4/3x3_s2_pool4/3x3_s2_0_split -> pool4/3x3_s2_pool4/3x3_s2_0_split_0
I0403 21:38:38.012459 12324 net.cpp:399] pool4/3x3_s2_pool4/3x3_s2_0_split -> pool4/3x3_s2_pool4/3x3_s2_0_split_1
I0403 21:38:38.012478 12324 net.cpp:399] pool4/3x3_s2_pool4/3x3_s2_0_split -> pool4/3x3_s2_pool4/3x3_s2_0_split_2
I0403 21:38:38.012498 12324 net.cpp:399] pool4/3x3_s2_pool4/3x3_s2_0_split -> pool4/3x3_s2_pool4/3x3_s2_0_split_3
I0403 21:38:38.012584 12324 net.cpp:141] Setting up pool4/3x3_s2_pool4/3x3_s2_0_split
I0403 21:38:38.012606 12324 net.cpp:148] Top shape: 24 832 7 7 (978432)
I0403 21:38:38.012622 12324 net.cpp:148] Top shape: 24 832 7 7 (978432)
I0403 21:38:38.012637 12324 net.cpp:148] Top shape: 24 832 7 7 (978432)
I0403 21:38:38.012651 12324 net.cpp:148] Top shape: 24 832 7 7 (978432)
I0403 21:38:38.012665 12324 net.cpp:156] Memory required for data: 1292125728
I0403 21:38:38.012678 12324 layer_factory.hpp:77] Creating layer inception_5a/1x1
I0403 21:38:38.012701 12324 net.cpp:91] Creating Layer inception_5a/1x1
I0403 21:38:38.012718 12324 net.cpp:425] inception_5a/1x1 <- pool4/3x3_s2_pool4/3x3_s2_0_split_0
I0403 21:38:38.012739 12324 net.cpp:399] inception_5a/1x1 -> inception_5a/1x1
I0403 21:38:38.015487 12324 net.cpp:141] Setting up inception_5a/1x1
I0403 21:38:38.015516 12324 net.cpp:148] Top shape: 24 256 7 7 (301056)
I0403 21:38:38.015530 12324 net.cpp:156] Memory required for data: 1293329952
I0403 21:38:38.015548 12324 layer_factory.hpp:77] Creating layer inception_5a/relu_1x1
I0403 21:38:38.015565 12324 net.cpp:91] Creating Layer inception_5a/relu_1x1
I0403 21:38:38.015581 12324 net.cpp:425] inception_5a/relu_1x1 <- inception_5a/1x1
I0403 21:38:38.015601 12324 net.cpp:386] inception_5a/relu_1x1 -> inception_5a/1x1 (in-place)
I0403 21:38:38.015897 12324 net.cpp:141] Setting up inception_5a/relu_1x1
I0403 21:38:38.015923 12324 net.cpp:148] Top shape: 24 256 7 7 (301056)
I0403 21:38:38.015938 12324 net.cpp:156] Memory required for data: 1294534176
I0403 21:38:38.015951 12324 layer_factory.hpp:77] Creating layer inception_5a/3x3_reduce
I0403 21:38:38.015972 12324 net.cpp:91] Creating Layer inception_5a/3x3_reduce
I0403 21:38:38.015990 12324 net.cpp:425] inception_5a/3x3_reduce <- pool4/3x3_s2_pool4/3x3_s2_0_split_1
I0403 21:38:38.016011 12324 net.cpp:399] inception_5a/3x3_reduce -> inception_5a/3x3_reduce
I0403 21:38:38.018393 12324 net.cpp:141] Setting up inception_5a/3x3_reduce
I0403 21:38:38.018420 12324 net.cpp:148] Top shape: 24 160 7 7 (188160)
I0403 21:38:38.018435 12324 net.cpp:156] Memory required for data: 1295286816
I0403 21:38:38.018452 12324 layer_factory.hpp:77] Creating layer inception_5a/relu_3x3_reduce
I0403 21:38:38.018472 12324 net.cpp:91] Creating Layer inception_5a/relu_3x3_reduce
I0403 21:38:38.018489 12324 net.cpp:425] inception_5a/relu_3x3_reduce <- inception_5a/3x3_reduce
I0403 21:38:38.018506 12324 net.cpp:386] inception_5a/relu_3x3_reduce -> inception_5a/3x3_reduce (in-place)
I0403 21:38:38.018687 12324 net.cpp:141] Setting up inception_5a/relu_3x3_reduce
I0403 21:38:38.018710 12324 net.cpp:148] Top shape: 24 160 7 7 (188160)
I0403 21:38:38.018724 12324 net.cpp:156] Memory required for data: 1296039456
I0403 21:38:38.018739 12324 layer_factory.hpp:77] Creating layer inception_5a/3x3
I0403 21:38:38.018761 12324 net.cpp:91] Creating Layer inception_5a/3x3
I0403 21:38:38.018779 12324 net.cpp:425] inception_5a/3x3 <- inception_5a/3x3_reduce
I0403 21:38:38.018800 12324 net.cpp:399] inception_5a/3x3 -> inception_5a/3x3
I0403 21:38:38.025483 12324 net.cpp:141] Setting up inception_5a/3x3
I0403 21:38:38.025521 12324 net.cpp:148] Top shape: 24 320 7 7 (376320)
I0403 21:38:38.025539 12324 net.cpp:156] Memory required for data: 1297544736
I0403 21:38:38.025559 12324 layer_factory.hpp:77] Creating layer inception_5a/relu_3x3
I0403 21:38:38.025578 12324 net.cpp:91] Creating Layer inception_5a/relu_3x3
I0403 21:38:38.025594 12324 net.cpp:425] inception_5a/relu_3x3 <- inception_5a/3x3
I0403 21:38:38.025615 12324 net.cpp:386] inception_5a/relu_3x3 -> inception_5a/3x3 (in-place)
I0403 21:38:38.025915 12324 net.cpp:141] Setting up inception_5a/relu_3x3
I0403 21:38:38.025943 12324 net.cpp:148] Top shape: 24 320 7 7 (376320)
I0403 21:38:38.025957 12324 net.cpp:156] Memory required for data: 1299050016
I0403 21:38:38.025972 12324 layer_factory.hpp:77] Creating layer inception_5a/5x5_reduce
I0403 21:38:38.025995 12324 net.cpp:91] Creating Layer inception_5a/5x5_reduce
I0403 21:38:38.026013 12324 net.cpp:425] inception_5a/5x5_reduce <- pool4/3x3_s2_pool4/3x3_s2_0_split_2
I0403 21:38:38.026036 12324 net.cpp:399] inception_5a/5x5_reduce -> inception_5a/5x5_reduce
I0403 21:38:38.027215 12324 net.cpp:141] Setting up inception_5a/5x5_reduce
I0403 21:38:38.027243 12324 net.cpp:148] Top shape: 24 32 7 7 (37632)
I0403 21:38:38.027259 12324 net.cpp:156] Memory required for data: 1299200544
I0403 21:38:38.027277 12324 layer_factory.hpp:77] Creating layer inception_5a/relu_5x5_reduce
I0403 21:38:38.027294 12324 net.cpp:91] Creating Layer inception_5a/relu_5x5_reduce
I0403 21:38:38.027310 12324 net.cpp:425] inception_5a/relu_5x5_reduce <- inception_5a/5x5_reduce
I0403 21:38:38.027330 12324 net.cpp:386] inception_5a/relu_5x5_reduce -> inception_5a/5x5_reduce (in-place)
I0403 21:38:38.027627 12324 net.cpp:141] Setting up inception_5a/relu_5x5_reduce
I0403 21:38:38.027653 12324 net.cpp:148] Top shape: 24 32 7 7 (37632)
I0403 21:38:38.027667 12324 net.cpp:156] Memory required for data: 1299351072
I0403 21:38:38.027683 12324 layer_factory.hpp:77] Creating layer inception_5a/5x5
I0403 21:38:38.027704 12324 net.cpp:91] Creating Layer inception_5a/5x5
I0403 21:38:38.027722 12324 net.cpp:425] inception_5a/5x5 <- inception_5a/5x5_reduce
I0403 21:38:38.027745 12324 net.cpp:399] inception_5a/5x5 -> inception_5a/5x5
I0403 21:38:38.029490 12324 net.cpp:141] Setting up inception_5a/5x5
I0403 21:38:38.029536 12324 net.cpp:148] Top shape: 24 128 7 7 (150528)
I0403 21:38:38.029552 12324 net.cpp:156] Memory required for data: 1299953184
I0403 21:38:38.029572 12324 layer_factory.hpp:77] Creating layer inception_5a/relu_5x5
I0403 21:38:38.029589 12324 net.cpp:91] Creating Layer inception_5a/relu_5x5
I0403 21:38:38.029605 12324 net.cpp:425] inception_5a/relu_5x5 <- inception_5a/5x5
I0403 21:38:38.029624 12324 net.cpp:386] inception_5a/relu_5x5 -> inception_5a/5x5 (in-place)
I0403 21:38:38.029815 12324 net.cpp:141] Setting up inception_5a/relu_5x5
I0403 21:38:38.029840 12324 net.cpp:148] Top shape: 24 128 7 7 (150528)
I0403 21:38:38.029855 12324 net.cpp:156] Memory required for data: 1300555296
I0403 21:38:38.029870 12324 layer_factory.hpp:77] Creating layer inception_5a/pool
I0403 21:38:38.029886 12324 net.cpp:91] Creating Layer inception_5a/pool
I0403 21:38:38.029901 12324 net.cpp:425] inception_5a/pool <- pool4/3x3_s2_pool4/3x3_s2_0_split_3
I0403 21:38:38.029922 12324 net.cpp:399] inception_5a/pool -> inception_5a/pool
I0403 21:38:38.029994 12324 net.cpp:141] Setting up inception_5a/pool
I0403 21:38:38.030017 12324 net.cpp:148] Top shape: 24 832 7 7 (978432)
I0403 21:38:38.030031 12324 net.cpp:156] Memory required for data: 1304469024
I0403 21:38:38.030045 12324 layer_factory.hpp:77] Creating layer inception_5a/pool_proj
I0403 21:38:38.030067 12324 net.cpp:91] Creating Layer inception_5a/pool_proj
I0403 21:38:38.030084 12324 net.cpp:425] inception_5a/pool_proj <- inception_5a/pool
I0403 21:38:38.030103 12324 net.cpp:399] inception_5a/pool_proj -> inception_5a/pool_proj
I0403 21:38:38.032428 12324 net.cpp:141] Setting up inception_5a/pool_proj
I0403 21:38:38.032459 12324 net.cpp:148] Top shape: 24 128 7 7 (150528)
I0403 21:38:38.032487 12324 net.cpp:156] Memory required for data: 1305071136
I0403 21:38:38.032506 12324 layer_factory.hpp:77] Creating layer inception_5a/relu_pool_proj
I0403 21:38:38.032533 12324 net.cpp:91] Creating Layer inception_5a/relu_pool_proj
I0403 21:38:38.032549 12324 net.cpp:425] inception_5a/relu_pool_proj <- inception_5a/pool_proj
I0403 21:38:38.032568 12324 net.cpp:386] inception_5a/relu_pool_proj -> inception_5a/pool_proj (in-place)
I0403 21:38:38.032874 12324 net.cpp:141] Setting up inception_5a/relu_pool_proj
I0403 21:38:38.032902 12324 net.cpp:148] Top shape: 24 128 7 7 (150528)
I0403 21:38:38.032918 12324 net.cpp:156] Memory required for data: 1305673248
I0403 21:38:38.032932 12324 layer_factory.hpp:77] Creating layer inception_5a/output
I0403 21:38:38.032949 12324 net.cpp:91] Creating Layer inception_5a/output
I0403 21:38:38.032964 12324 net.cpp:425] inception_5a/output <- inception_5a/1x1
I0403 21:38:38.032980 12324 net.cpp:425] inception_5a/output <- inception_5a/3x3
I0403 21:38:38.032996 12324 net.cpp:425] inception_5a/output <- inception_5a/5x5
I0403 21:38:38.033012 12324 net.cpp:425] inception_5a/output <- inception_5a/pool_proj
I0403 21:38:38.033030 12324 net.cpp:399] inception_5a/output -> inception_5a/output
I0403 21:38:38.033079 12324 net.cpp:141] Setting up inception_5a/output
I0403 21:38:38.033102 12324 net.cpp:148] Top shape: 24 832 7 7 (978432)
I0403 21:38:38.033115 12324 net.cpp:156] Memory required for data: 1309586976
I0403 21:38:38.033129 12324 layer_factory.hpp:77] Creating layer inception_5a/output_inception_5a/output_0_split
I0403 21:38:38.033148 12324 net.cpp:91] Creating Layer inception_5a/output_inception_5a/output_0_split
I0403 21:38:38.033164 12324 net.cpp:425] inception_5a/output_inception_5a/output_0_split <- inception_5a/output
I0403 21:38:38.033185 12324 net.cpp:399] inception_5a/output_inception_5a/output_0_split -> inception_5a/output_inception_5a/output_0_split_0
I0403 21:38:38.033207 12324 net.cpp:399] inception_5a/output_inception_5a/output_0_split -> inception_5a/output_inception_5a/output_0_split_1
I0403 21:38:38.033227 12324 net.cpp:399] inception_5a/output_inception_5a/output_0_split -> inception_5a/output_inception_5a/output_0_split_2
I0403 21:38:38.033251 12324 net.cpp:399] inception_5a/output_inception_5a/output_0_split -> inception_5a/output_inception_5a/output_0_split_3
I0403 21:38:38.033366 12324 net.cpp:141] Setting up inception_5a/output_inception_5a/output_0_split
I0403 21:38:38.033390 12324 net.cpp:148] Top shape: 24 832 7 7 (978432)
I0403 21:38:38.033406 12324 net.cpp:148] Top shape: 24 832 7 7 (978432)
I0403 21:38:38.033421 12324 net.cpp:148] Top shape: 24 832 7 7 (978432)
I0403 21:38:38.033434 12324 net.cpp:148] Top shape: 24 832 7 7 (978432)
I0403 21:38:38.033448 12324 net.cpp:156] Memory required for data: 1325241888
I0403 21:38:38.033463 12324 layer_factory.hpp:77] Creating layer inception_5b/1x1
I0403 21:38:38.033483 12324 net.cpp:91] Creating Layer inception_5b/1x1
I0403 21:38:38.033501 12324 net.cpp:425] inception_5b/1x1 <- inception_5a/output_inception_5a/output_0_split_0
I0403 21:38:38.033526 12324 net.cpp:399] inception_5b/1x1 -> inception_5b/1x1
I0403 21:38:38.037238 12324 net.cpp:141] Setting up inception_5b/1x1
I0403 21:38:38.037271 12324 net.cpp:148] Top shape: 24 384 7 7 (451584)
I0403 21:38:38.037286 12324 net.cpp:156] Memory required for data: 1327048224
I0403 21:38:38.037304 12324 layer_factory.hpp:77] Creating layer inception_5b/relu_1x1
I0403 21:38:38.037324 12324 net.cpp:91] Creating Layer inception_5b/relu_1x1
I0403 21:38:38.037341 12324 net.cpp:425] inception_5b/relu_1x1 <- inception_5b/1x1
I0403 21:38:38.037358 12324 net.cpp:386] inception_5b/relu_1x1 -> inception_5b/1x1 (in-place)
I0403 21:38:38.037657 12324 net.cpp:141] Setting up inception_5b/relu_1x1
I0403 21:38:38.037683 12324 net.cpp:148] Top shape: 24 384 7 7 (451584)
I0403 21:38:38.037698 12324 net.cpp:156] Memory required for data: 1328854560
I0403 21:38:38.037713 12324 layer_factory.hpp:77] Creating layer inception_5b/3x3_reduce
I0403 21:38:38.037735 12324 net.cpp:91] Creating Layer inception_5b/3x3_reduce
I0403 21:38:38.037753 12324 net.cpp:425] inception_5b/3x3_reduce <- inception_5a/output_inception_5a/output_0_split_1
I0403 21:38:38.037771 12324 net.cpp:399] inception_5b/3x3_reduce -> inception_5b/3x3_reduce
I0403 21:38:38.040418 12324 net.cpp:141] Setting up inception_5b/3x3_reduce
I0403 21:38:38.040451 12324 net.cpp:148] Top shape: 24 192 7 7 (225792)
I0403 21:38:38.040467 12324 net.cpp:156] Memory required for data: 1329757728
I0403 21:38:38.040485 12324 layer_factory.hpp:77] Creating layer inception_5b/relu_3x3_reduce
I0403 21:38:38.040503 12324 net.cpp:91] Creating Layer inception_5b/relu_3x3_reduce
I0403 21:38:38.040518 12324 net.cpp:425] inception_5b/relu_3x3_reduce <- inception_5b/3x3_reduce
I0403 21:38:38.040535 12324 net.cpp:386] inception_5b/relu_3x3_reduce -> inception_5b/3x3_reduce (in-place)
I0403 21:38:38.040731 12324 net.cpp:141] Setting up inception_5b/relu_3x3_reduce
I0403 21:38:38.040756 12324 net.cpp:148] Top shape: 24 192 7 7 (225792)
I0403 21:38:38.040771 12324 net.cpp:156] Memory required for data: 1330660896
I0403 21:38:38.040786 12324 layer_factory.hpp:77] Creating layer inception_5b/3x3
I0403 21:38:38.040808 12324 net.cpp:91] Creating Layer inception_5b/3x3
I0403 21:38:38.040827 12324 net.cpp:425] inception_5b/3x3 <- inception_5b/3x3_reduce
I0403 21:38:38.040848 12324 net.cpp:399] inception_5b/3x3 -> inception_5b/3x3
I0403 21:38:38.047719 12324 net.cpp:141] Setting up inception_5b/3x3
I0403 21:38:38.047750 12324 net.cpp:148] Top shape: 24 384 7 7 (451584)
I0403 21:38:38.047766 12324 net.cpp:156] Memory required for data: 1332467232
I0403 21:38:38.047783 12324 layer_factory.hpp:77] Creating layer inception_5b/relu_3x3
I0403 21:38:38.047801 12324 net.cpp:91] Creating Layer inception_5b/relu_3x3
I0403 21:38:38.047816 12324 net.cpp:425] inception_5b/relu_3x3 <- inception_5b/3x3
I0403 21:38:38.047835 12324 net.cpp:386] inception_5b/relu_3x3 -> inception_5b/3x3 (in-place)
I0403 21:38:38.048127 12324 net.cpp:141] Setting up inception_5b/relu_3x3
I0403 21:38:38.048156 12324 net.cpp:148] Top shape: 24 384 7 7 (451584)
I0403 21:38:38.048171 12324 net.cpp:156] Memory required for data: 1334273568
I0403 21:38:38.048190 12324 layer_factory.hpp:77] Creating layer inception_5b/5x5_reduce
I0403 21:38:38.048229 12324 net.cpp:91] Creating Layer inception_5b/5x5_reduce
I0403 21:38:38.048249 12324 net.cpp:425] inception_5b/5x5_reduce <- inception_5a/output_inception_5a/output_0_split_2
I0403 21:38:38.048269 12324 net.cpp:399] inception_5b/5x5_reduce -> inception_5b/5x5_reduce
I0403 21:38:38.049522 12324 net.cpp:141] Setting up inception_5b/5x5_reduce
I0403 21:38:38.049553 12324 net.cpp:148] Top shape: 24 48 7 7 (56448)
I0403 21:38:38.049571 12324 net.cpp:156] Memory required for data: 1334499360
I0403 21:38:38.049588 12324 layer_factory.hpp:77] Creating layer inception_5b/relu_5x5_reduce
I0403 21:38:38.049605 12324 net.cpp:91] Creating Layer inception_5b/relu_5x5_reduce
I0403 21:38:38.049621 12324 net.cpp:425] inception_5b/relu_5x5_reduce <- inception_5b/5x5_reduce
I0403 21:38:38.049641 12324 net.cpp:386] inception_5b/relu_5x5_reduce -> inception_5b/5x5_reduce (in-place)
I0403 21:38:38.050016 12324 net.cpp:141] Setting up inception_5b/relu_5x5_reduce
I0403 21:38:38.050042 12324 net.cpp:148] Top shape: 24 48 7 7 (56448)
I0403 21:38:38.050057 12324 net.cpp:156] Memory required for data: 1334725152
I0403 21:38:38.050071 12324 layer_factory.hpp:77] Creating layer inception_5b/5x5
I0403 21:38:38.050091 12324 net.cpp:91] Creating Layer inception_5b/5x5
I0403 21:38:38.050107 12324 net.cpp:425] inception_5b/5x5 <- inception_5b/5x5_reduce
I0403 21:38:38.050127 12324 net.cpp:399] inception_5b/5x5 -> inception_5b/5x5
I0403 21:38:38.052171 12324 net.cpp:141] Setting up inception_5b/5x5
I0403 21:38:38.052209 12324 net.cpp:148] Top shape: 24 128 7 7 (150528)
I0403 21:38:38.052225 12324 net.cpp:156] Memory required for data: 1335327264
I0403 21:38:38.052243 12324 layer_factory.hpp:77] Creating layer inception_5b/relu_5x5
I0403 21:38:38.052261 12324 net.cpp:91] Creating Layer inception_5b/relu_5x5
I0403 21:38:38.052278 12324 net.cpp:425] inception_5b/relu_5x5 <- inception_5b/5x5
I0403 21:38:38.052296 12324 net.cpp:386] inception_5b/relu_5x5 -> inception_5b/5x5 (in-place)
I0403 21:38:38.052495 12324 net.cpp:141] Setting up inception_5b/relu_5x5
I0403 21:38:38.052520 12324 net.cpp:148] Top shape: 24 128 7 7 (150528)
I0403 21:38:38.052533 12324 net.cpp:156] Memory required for data: 1335929376
I0403 21:38:38.052548 12324 layer_factory.hpp:77] Creating layer inception_5b/pool
I0403 21:38:38.052568 12324 net.cpp:91] Creating Layer inception_5b/pool
I0403 21:38:38.052585 12324 net.cpp:425] inception_5b/pool <- inception_5a/output_inception_5a/output_0_split_3
I0403 21:38:38.052603 12324 net.cpp:399] inception_5b/pool -> inception_5b/pool
I0403 21:38:38.052676 12324 net.cpp:141] Setting up inception_5b/pool
I0403 21:38:38.052700 12324 net.cpp:148] Top shape: 24 832 7 7 (978432)
I0403 21:38:38.052713 12324 net.cpp:156] Memory required for data: 1339843104
I0403 21:38:38.052728 12324 layer_factory.hpp:77] Creating layer inception_5b/pool_proj
I0403 21:38:38.052750 12324 net.cpp:91] Creating Layer inception_5b/pool_proj
I0403 21:38:38.052767 12324 net.cpp:425] inception_5b/pool_proj <- inception_5b/pool
I0403 21:38:38.052788 12324 net.cpp:399] inception_5b/pool_proj -> inception_5b/pool_proj
I0403 21:38:38.055119 12324 net.cpp:141] Setting up inception_5b/pool_proj
I0403 21:38:38.055150 12324 net.cpp:148] Top shape: 24 128 7 7 (150528)
I0403 21:38:38.055166 12324 net.cpp:156] Memory required for data: 1340445216
I0403 21:38:38.055188 12324 layer_factory.hpp:77] Creating layer inception_5b/relu_pool_proj
I0403 21:38:38.055207 12324 net.cpp:91] Creating Layer inception_5b/relu_pool_proj
I0403 21:38:38.055223 12324 net.cpp:425] inception_5b/relu_pool_proj <- inception_5b/pool_proj
I0403 21:38:38.055243 12324 net.cpp:386] inception_5b/relu_pool_proj -> inception_5b/pool_proj (in-place)
I0403 21:38:38.055569 12324 net.cpp:141] Setting up inception_5b/relu_pool_proj
I0403 21:38:38.055598 12324 net.cpp:148] Top shape: 24 128 7 7 (150528)
I0403 21:38:38.055613 12324 net.cpp:156] Memory required for data: 1341047328
I0403 21:38:38.055626 12324 layer_factory.hpp:77] Creating layer inception_5b/output
I0403 21:38:38.055642 12324 net.cpp:91] Creating Layer inception_5b/output
I0403 21:38:38.055673 12324 net.cpp:425] inception_5b/output <- inception_5b/1x1
I0403 21:38:38.055691 12324 net.cpp:425] inception_5b/output <- inception_5b/3x3
I0403 21:38:38.055707 12324 net.cpp:425] inception_5b/output <- inception_5b/5x5
I0403 21:38:38.055723 12324 net.cpp:425] inception_5b/output <- inception_5b/pool_proj
I0403 21:38:38.055742 12324 net.cpp:399] inception_5b/output -> inception_5b/output
I0403 21:38:38.055793 12324 net.cpp:141] Setting up inception_5b/output
I0403 21:38:38.055815 12324 net.cpp:148] Top shape: 24 1024 7 7 (1204224)
I0403 21:38:38.055830 12324 net.cpp:156] Memory required for data: 1345864224
I0403 21:38:38.055843 12324 layer_factory.hpp:77] Creating layer pool5/7x7_s1
I0403 21:38:38.055865 12324 net.cpp:91] Creating Layer pool5/7x7_s1
I0403 21:38:38.055881 12324 net.cpp:425] pool5/7x7_s1 <- inception_5b/output
I0403 21:38:38.055898 12324 net.cpp:399] pool5/7x7_s1 -> pool5/7x7_s1
I0403 21:38:38.056116 12324 net.cpp:141] Setting up pool5/7x7_s1
I0403 21:38:38.056141 12324 net.cpp:148] Top shape: 24 1024 1 1 (24576)
I0403 21:38:38.056156 12324 net.cpp:156] Memory required for data: 1345962528
I0403 21:38:38.056170 12324 layer_factory.hpp:77] Creating layer pool5/drop_7x7_s1
I0403 21:38:38.056193 12324 net.cpp:91] Creating Layer pool5/drop_7x7_s1
I0403 21:38:38.056211 12324 net.cpp:425] pool5/drop_7x7_s1 <- pool5/7x7_s1
I0403 21:38:38.056231 12324 net.cpp:386] pool5/drop_7x7_s1 -> pool5/7x7_s1 (in-place)
I0403 21:38:38.056280 12324 net.cpp:141] Setting up pool5/drop_7x7_s1
I0403 21:38:38.056303 12324 net.cpp:148] Top shape: 24 1024 1 1 (24576)
I0403 21:38:38.056318 12324 net.cpp:156] Memory required for data: 1346060832
I0403 21:38:38.056331 12324 layer_factory.hpp:77] Creating layer loss3/classifier_plantvillage
I0403 21:38:38.056352 12324 net.cpp:91] Creating Layer loss3/classifier_plantvillage
I0403 21:38:38.056370 12324 net.cpp:425] loss3/classifier_plantvillage <- pool5/7x7_s1
I0403 21:38:38.056390 12324 net.cpp:399] loss3/classifier_plantvillage -> loss3/classifier_plantvillage
I0403 21:38:38.056803 12324 net.cpp:141] Setting up loss3/classifier_plantvillage
I0403 21:38:38.056831 12324 net.cpp:148] Top shape: 24 38 (912)
I0403 21:38:38.056846 12324 net.cpp:156] Memory required for data: 1346064480
I0403 21:38:38.056864 12324 layer_factory.hpp:77] Creating layer loss3/classifier_plantvillage_loss3/classifier_plantvillage_0_split
I0403 21:38:38.056882 12324 net.cpp:91] Creating Layer loss3/classifier_plantvillage_loss3/classifier_plantvillage_0_split
I0403 21:38:38.056898 12324 net.cpp:425] loss3/classifier_plantvillage_loss3/classifier_plantvillage_0_split <- loss3/classifier_plantvillage
I0403 21:38:38.056915 12324 net.cpp:399] loss3/classifier_plantvillage_loss3/classifier_plantvillage_0_split -> loss3/classifier_plantvillage_loss3/classifier_plantvillage_0_split_0
I0403 21:38:38.056936 12324 net.cpp:399] loss3/classifier_plantvillage_loss3/classifier_plantvillage_0_split -> loss3/classifier_plantvillage_loss3/classifier_plantvillage_0_split_1
I0403 21:38:38.056956 12324 net.cpp:399] loss3/classifier_plantvillage_loss3/classifier_plantvillage_0_split -> loss3/classifier_plantvillage_loss3/classifier_plantvillage_0_split_2
I0403 21:38:38.056977 12324 net.cpp:399] loss3/classifier_plantvillage_loss3/classifier_plantvillage_0_split -> loss3/classifier_plantvillage_loss3/classifier_plantvillage_0_split_3
I0403 21:38:38.057076 12324 net.cpp:141] Setting up loss3/classifier_plantvillage_loss3/classifier_plantvillage_0_split
I0403 21:38:38.057101 12324 net.cpp:148] Top shape: 24 38 (912)
I0403 21:38:38.057116 12324 net.cpp:148] Top shape: 24 38 (912)
I0403 21:38:38.057131 12324 net.cpp:148] Top shape: 24 38 (912)
I0403 21:38:38.057145 12324 net.cpp:148] Top shape: 24 38 (912)
I0403 21:38:38.057158 12324 net.cpp:156] Memory required for data: 1346079072
I0403 21:38:38.057173 12324 layer_factory.hpp:77] Creating layer loss1/loss
I0403 21:38:38.057201 12324 net.cpp:91] Creating Layer loss1/loss
I0403 21:38:38.057219 12324 net.cpp:425] loss1/loss <- loss1/classifier_plantvillage_loss1/classifier_plantvillage_0_split_0
I0403 21:38:38.057250 12324 net.cpp:425] loss1/loss <- label_data_1_split_0
…
