…
I0403 21:52:49.891966 13153 net.cpp:313] The NetState phase (1) differed from the phase (0) specified by a rule in layer data
I0403 21:52:49.893270 13153 net.cpp:49] Initializing net from parameters: 
state {
  phase: TEST
}
layer {
  name: "data"
  type: "Data"
  top: "data"
  top: "label"
  include {
    phase: TEST
  }
  transform_param {
    mirror: false
    crop_size: 224
    mean_file: "/home/mohanty/data/final_dataset/lmdb/color-80-20/mean.binaryproto"
  }
  data_param {
    source: "/home/mohanty/data/final_dataset/lmdb/color-80-20/test_db"
    batch_size: 24
    backend: LMDB
  }
}
layer {
  name: "conv1/7x7_s2"
  type: "Convolution"
  bottom: "data"
  top: "conv1/7x7_s2"
  param {
    lr_mult: 1
    decay_mult: 1
  }
  param {
    lr_mult: 2
    decay_mult: 0
  }
  convolution_param {
    num_output: 64
    pad: 3
    kernel_size: 7
    stride: 2
    weight_filler {
      type: "xavier"
      std: 0.1
    }
    bias_filler {
      type: "constant"
      value: 0.2
    }
  }
}
layer {
  name: "conv1/relu_7x7"
  type: "ReLU"
  bottom: "conv1/7x7_s2"
  top: "conv1/7x7_s2"
}
layer {
  name: "pool1/3x3_s2"
  type: "Pooling"
  bottom: "conv1/7x7_s2"
  top: "pool1/3x3_s2"
  pooling_param {
    pool: MAX
    kernel_size: 3
    stride: 2
  }
}
layer {
  name: "pool1/norm1"
  type: "LRN"
  bottom: "pool1/3x3_s2"
  top: "pool1/norm1"
  lrn_param {
    local_size: 5
    alpha: 0.0001
    beta: 0.75
  }
}
layer {
  name: "conv2/3x3_reduce"
  type: "Convolution"
  bottom: "pool1/norm1"
  top: "conv2/3x3_reduce"
  param {
    lr_mult: 1
    decay_mult: 1
  }
  param {
    lr_mult: 2
    decay_mult: 0
  }
  convolution_param {
    num_output: 64
    kernel_size: 1
    weight_filler {
      type: "xavier"
      std: 0.1
    }
    bias_filler {
      type: "constant"
      value: 0.2
    }
  }
}
layer {
  name: "conv2/relu_3x3_reduce"
  type: "ReLU"
  bottom: "conv2/3x3_reduce"
  top: "conv2/3x3_reduce"
}
layer {
  name: "conv2/3x3"
  type: "Convolution"
  bottom: "conv2/3x3_reduce"
  top: "conv2/3x3"
  param {
    lr_mult: 1
    decay_mult: 1
  }
  param {
    lr_mult: 2
    decay_mult: 0
  }
  convolution_param {
    num_output: 192
    pad: 1
    kernel_size: 3
    weight_filler {
      type: "xavier"
      std: 0.03
    }
    bias_filler {
      type: "constant"
      value: 0.2
    }
  }
}
layer {
  name: "conv2/relu_3x3"
  type: "ReLU"
  bottom: "conv2/3x3"
  top: "conv2/3x3"
}
layer {
  name: "conv2/norm2"
  type: "LRN"
  bottom: "conv2/3x3"
  top: "conv2/norm2"
  lrn_param {
    local_size: 5
    alpha: 0.0001
    beta: 0.75
  }
}
layer {
  name: "pool2/3x3_s2"
  type: "Pooling"
  bottom: "conv2/norm2"
  top: "pool2/3x3_s2"
  pooling_param {
    pool: MAX
    kernel_size: 3
    stride: 2
  }
}
layer {
  name: "inception_3a/1x1"
  type: "Convolution"
  bottom: "pool2/3x3_s2"
  top: "inception_3a/1x1"
  param {
    lr_mult: 1
    decay_mult: 1
  }
  param {
    lr_mult: 2
    decay_mult: 0
  }
  convolution_param {
    num_output: 64
    kernel_size: 1
    weight_filler {
      type: "xavier"
      std: 0.03
    }
    bias_filler {
      type: "constant"
      value: 0.2
    }
  }
}
layer {
  name: "inception_3a/relu_1x1"
  type: "ReLU"
  bottom: "inception_3a/1x1"
  top: "inception_3a/1x1"
}
layer {
  name: "inception_3a/3x3_reduce"
  type: "Convolution"
  bottom: "pool2/3x3_s2"
  top: "inception_3a/3x3_reduce"
  param {
    lr_mult: 1
    decay_mult: 1
  }
  param {
    lr_mult: 2
    decay_mult: 0
  }
  convolution_param {
    num_output: 96
    kernel_size: 1
    weight_filler {
      type: "xavier"
      std: 0.09
    }
    bias_filler {
      type: "constant"
      value: 0.2
    }
  }
}
layer {
  name: "inception_3a/relu_3x3_reduce"
  type: "ReLU"
  bottom: "inception_3a/3x3_reduce"
  top: "inception_3a/3x3_reduce"
}
layer {
  name: "inception_3a/3x3"
  type: "Convolution"
  bottom: "inception_3a/3x3_reduce"
  top: "inception_3a/3x3"
  param {
    lr_mult: 1
    decay_mult: 1
  }
  param {
    lr_mult: 2
    decay_mult: 0
  }
  convolution_param {
    num_output: 128
    pad: 1
    kernel_size: 3
    weight_filler {
      type: "xavier"
      std: 0.03
    }
    bias_filler {
      type: "constant"
      value: 0.2
    }
  }
}
layer {
  name: "inception_3a/relu_3x3"
  type: "ReLU"
  bottom: "inception_3a/3x3"
  top: "inception_3a/3x3"
}
layer {
  name: "inception_3a/5x5_reduce"
  type: "Convolution"
  bottom: "pool2/3x3_s2"
  top: "inception_3a/5x5_reduce"
  param {
    lr_mult: 1
    decay_mult: 1
  }
  param {
    lr_mult: 2
    decay_mult: 0
  }
  convolution_param {
    num_output: 16
    kernel_size: 1
    weight_filler {
      type: "xavier"
      std: 0.2
    }
    bias_filler {
      type: "constant"
      value: 0.2
    }
  }
}
layer {
  name: "inception_3a/relu_5x5_reduce"
  type: "ReLU"
  bottom: "inception_3a/5x5_reduce"
  top: "inception_3a/5x5_reduce"
}
layer {
  name: "inception_3a/5x5"
  type: "Convolution"
  bottom: "inception_3a/5x5_reduce"
  top: "inception_3a/5x5"
  param {
    lr_mult: 1
    decay_mult: 1
  }
  param {
    lr_mult: 2
    decay_mult: 0
  }
  convolution_param {
    num_output: 32
    pad: 2
    kernel_size: 5
    weight_filler {
      type: "xavier"
      std: 0.03
    }
    bias_filler {
      type: "constant"
      value: 0.2
    }
  }
}
layer {
  name: "inception_3a/relu_5x5"
  type: "ReLU"
  bottom: "inception_3a/5x5"
  top: "inception_3a/5x5"
}
layer {
  name: "inception_3a/pool"
  type: "Pooling"
  bottom: "pool2/3x3_s2"
  top: "inception_3a/pool"
  pooling_param {
    pool: MAX
    kernel_size: 3
    stride: 1
    pad: 1
  }
}
layer {
  name: "inception_3a/pool_proj"
  type: "Convolution"
  bottom: "inception_3a/pool"
  top: "inception_3a/pool_proj"
  param {
    lr_mult: 1
    decay_mult: 1
  }
  param {
    lr_mult: 2
    decay_mult: 0
  }
  convolution_param {
    num_output: 32
    kernel_size: 1
    weight_filler {
      type: "xavier"
      std: 0.1
    }
    bias_filler {
      type: "constant"
      value: 0.2
    }
  }
}
layer {
  name: "inception_3a/relu_pool_proj"
  type: "ReLU"
  bottom: "inception_3a/pool_proj"
  top: "inception_3a/pool_proj"
}
layer {
  name: "inception_3a/output"
  type: "Concat"
  bottom: "inception_3a/1x1"
  bottom: "inception_3a/3x3"
  bottom: "inception_3a/5x5"
  bottom: "inception_3a/pool_proj"
  top: "inception_3a/output"
}
layer {
  name: "inception_3b/1x1"
  type: "Convolution"
  bottom: "inception_3a/output"
  top: "inception_3b/1x1"
  param {
    lr_mult: 1
    decay_mult: 1
  }
  param {
    lr_mult: 2
    decay_mult: 0
  }
  convolution_param {
    num_output: 128
    kernel_size: 1
    weight_filler {
      type: "xavier"
      std: 0.03
    }
    bias_filler {
      type: "constant"
      value: 0.2
    }
  }
}
layer {
  name: "inception_3b/relu_1x1"
  type: "ReLU"
  bottom: "inception_3b/1x1"
  top: "inception_3b/1x1"
}
layer {
  name: "inception_3b/3x3_reduce"
  type: "Convolution"
  bottom: "inception_3a/output"
  top: "inception_3b/3x3_reduce"
  param {
    lr_mult: 1
    decay_mult: 1
  }
  param {
    lr_mult: 2
    decay_mult: 0
  }
  convolution_param {
    num_output: 128
    kernel_size: 1
    weight_filler {
      type: "xavier"
      std: 0.09
    }
    bias_filler {
      type: "constant"
      value: 0.2
    }
  }
}
layer {
  name: "inception_3b/relu_3x3_reduce"
  type: "ReLU"
  bottom: "inception_3b/3x3_reduce"
  top: "inception_3b/3x3_reduce"
}
layer {
  name: "inception_3b/3x3"
  type: "Convolution"
  bottom: "inception_3b/3x3_reduce"
  top: "inception_3b/3x3"
  param {
    lr_mult: 1
    decay_mult: 1
  }
  param {
    lr_mult: 2
    decay_mult: 0
  }
  convolution_param {
    num_output: 192
    pad: 1
    kernel_size: 3
    weight_filler {
      type: "xavier"
      std: 0.03
    }
    bias_filler {
      type: "constant"
      value: 0.2
    }
  }
}
layer {
  name: "inception_3b/relu_3x3"
  type: "ReLU"
  bottom: "inception_3b/3x3"
  top: "inception_3b/3x3"
}
layer {
  name: "inception_3b/5x5_reduce"
  type: "Convolution"
  bottom: "inception_3a/output"
  top: "inception_3b/5x5_reduce"
  param {
    lr_mult: 1
    decay_mult: 1
  }
  param {
    lr_mult: 2
    decay_mult: 0
  }
  convolution_param {
    num_output: 32
    kernel_size: 1
    weight_filler {
      type: "xavier"
      std: 0.2
    }
    bias_filler {
      type: "constant"
      value: 0.2
    }
  }
}
layer {
  name: "inception_3b/relu_5x5_reduce"
  type: "ReLU"
  bottom: "inception_3b/5x5_reduce"
  top: "inception_3b/5x5_reduce"
}
layer {
  name: "inception_3b/5x5"
  type: "Convolution"
  bottom: "inception_3b/5x5_reduce"
  top: "inception_3b/5x5"
  param {
    lr_mult: 1
    decay_mult: 1
  }
  param {
    lr_mult: 2
    decay_mult: 0
  }
  convolution_param {
    num_output: 96
    pad: 2
    kernel_size: 5
    weight_filler {
      type: "xavier"
      std: 0.03
    }
    bias_filler {
      type: "constant"
      value: 0.2
    }
  }
}
layer {
  name: "inception_3b/relu_5x5"
  type: "ReLU"
  bottom: "inception_3b/5x5"
  top: "inception_3b/5x5"
}
layer {
  name: "inception_3b/pool"
  type: "Pooling"
  bottom: "inception_3a/output"
  top: "inception_3b/pool"
  pooling_param {
    pool: MAX
    kernel_size: 3
    stride: 1
    pad: 1
  }
}
layer {
  name: "inception_3b/pool_proj"
  type: "Convolution"
  bottom: "inception_3b/pool"
  top: "inception_3b/pool_proj"
  param {
    lr_mult: 1
    decay_mult: 1
  }
  param {
    lr_mult: 2
    decay_mult: 0
  }
  convolution_param {
    num_output: 64
    kernel_size: 1
    weight_filler {
      type: "xavier"
      std: 0.1
    }
    bias_filler {
      type: "constant"
      value: 0.2
    }
  }
}
layer {
  name: "inception_3b/relu_pool_proj"
  type: "ReLU"
  bottom: "inception_3b/pool_proj"
  top: "inception_3b/pool_proj"
}
layer {
  name: "inception_3b/output"
  type: "Concat"
  bottom: "inception_3b/1x1"
  bottom: "inception_3b/3x3"
  bottom: "inception_3b/5x5"
  bottom: "inception_3b/pool_proj"
  top: "inception_3b/output"
}
layer {
  name: "pool3/3x3_s2"
  type: "Pooling"
  bottom: "inception_3b/output"
  top: "pool3/3x3_s2"
  pooling_param {
    pool: MAX
    kernel_size: 3
    stride: 2
  }
}
layer {
  name: "inception_4a/1x1"
  type: "Convolution"
  bottom: "pool3/3x3_s2"
  top: "inception_4a/1x1"
  param {
    lr_mult: 1
    decay_mult: 1
  }
  param {
    lr_mult: 2
    decay_mult: 0
  }
  convolution_param {
    num_output: 192
    kernel_size: 1
    weight_filler {
      type: "xavier"
      std: 0.03
    }
    bias_filler {
      type: "constant"
      value: 0.2
    }
  }
}
layer {
  name: "inception_4a/relu_1x1"
  type: "ReLU"
  bottom: "inception_4a/1x1"
  top: "inception_4a/1x1"
}
layer {
  name: "inception_4a/3x3_reduce"
  type: "Convolution"
  bottom: "pool3/3x3_s2"
  top: "inception_4a/3x3_reduce"
  param {
    lr_mult: 1
    decay_mult: 1
  }
  param {
    lr_mult: 2
    decay_mult: 0
  }
  convolution_param {
    num_output: 96
    kernel_size: 1
    weight_filler {
      type: "xavier"
      std: 0.09
    }
    bias_filler {
      type: "constant"
      value: 0.2
    }
  }
}
layer {
  name: "inception_4a/relu_3x3_reduce"
  type: "ReLU"
  bottom: "inception_4a/3x3_reduce"
  top: "inception_4a/3x3_reduce"
}
layer {
  name: "inception_4a/3x3"
  type: "Convolution"
  bottom: "inception_4a/3x3_reduce"
  top: "inception_4a/3x3"
  param {
    lr_mult: 1
    decay_mult: 1
  }
  param {
    lr_mult: 2
    decay_mult: 0
  }
  convolution_param {
    num_output: 208
    pad: 1
    kernel_size: 3
    weight_filler {
      type: "xavier"
      std: 0.03
    }
    bias_filler {
      type: "constant"
      value: 0.2
    }
  }
}
layer {
  name: "inception_4a/relu_3x3"
  type: "ReLU"
  bottom: "inception_4a/3x3"
  top: "inception_4a/3x3"
}
layer {
  name: "inception_4a/5x5_reduce"
  type: "Convolution"
  bottom: "pool3/3x3_s2"
  top: "inception_4a/5x5_reduce"
  param {
    lr_mult: 1
    decay_mult: 1
  }
  param {
    lr_mult: 2
    decay_mult: 0
  }
  convolution_param {
    num_output: 16
    kernel_size: 1
    weight_filler {
      type: "xavier"
      std: 0.2
    }
    bias_filler {
      type: "constant"
      value: 0.2
    }
  }
}
layer {
  name: "inception_4a/relu_5x5_reduce"
  type: "ReLU"
  bottom: "inception_4a/5x5_reduce"
  top: "inception_4a/5x5_reduce"
}
layer {
  name: "inception_4a/5x5"
  type: "Convolution"
  bottom: "inception_4a/5x5_reduce"
  top: "inception_4a/5x5"
  param {
    lr_mult: 1
    decay_mult: 1
  }
  param {
    lr_mult: 2
    decay_mult: 0
  }
  convolution_param {
    num_output: 48
    pad: 2
    kernel_size: 5
    weight_filler {
      type: "xavier"
      std: 0.03
    }
    bias_filler {
      type: "constant"
      value: 0.2
    }
  }
}
layer {
  name: "inception_4a/relu_5x5"
  type: "ReLU"
  bottom: "inception_4a/5x5"
  top: "inception_4a/5x5"
}
layer {
  name: "inception_4a/pool"
  type: "Pooling"
  bottom: "pool3/3x3_s2"
  top: "inception_4a/pool"
  pooling_param {
    pool: MAX
    kernel_size: 3
    stride: 1
    pad: 1
  }
}
layer {
  name: "inception_4a/pool_proj"
  type: "Convolution"
  bottom: "inception_4a/pool"
  top: "inception_4a/pool_proj"
  param {
    lr_mult: 1
    decay_mult: 1
  }
  param {
    lr_mult: 2
    decay_mult: 0
  }
  convolution_param {
    num_output: 64
    kernel_size: 1
    weight_filler {
      type: "xavier"
      std: 0.1
    }
    bias_filler {
      type: "constant"
      value: 0.2
    }
  }
}
layer {
  name: "inception_4a/relu_pool_proj"
  type: "ReLU"
  bottom: "inception_4a/pool_proj"
  top: "inception_4a/pool_proj"
}
layer {
  name: "inception_4a/output"
  type: "Concat"
  bottom: "inception_4a/1x1"
  bottom: "inception_4a/3x3"
  bottom: "inception_4a/5x5"
  bottom: "inception_4a/pool_proj"
  top: "inception_4a/output"
}
layer {
  name: "loss1/ave_pool"
  type: "Pooling"
  bottom: "inception_4a/output"
  top: "loss1/ave_pool"
  pooling_param {
    pool: AVE
    kernel_size: 5
    stride: 3
  }
}
layer {
  name: "loss1/conv"
  type: "Convolution"
  bottom: "loss1/ave_pool"
  top: "loss1/conv"
  param {
    lr_mult: 1
    decay_mult: 1
  }
  param {
    lr_mult: 2
    decay_mult: 0
  }
  convolution_param {
    num_output: 128
    kernel_size: 1
    weight_filler {
      type: "xavier"
      std: 0.08
    }
    bias_filler {
      type: "constant"
      value: 0.2
    }
  }
}
layer {
  name: "loss1/relu_conv"
  type: "ReLU"
  bottom: "loss1/conv"
  top: "loss1/conv"
}
layer {
  name: "loss1/fc"
  type: "InnerProduct"
  bottom: "loss1/conv"
  top: "loss1/fc"
  param {
    lr_mult: 1
    decay_mult: 1
  }
  param {
    lr_mult: 2
    decay_mult: 0
  }
  inner_product_param {
    num_output: 1024
    weight_filler {
      type: "xavier"
      std: 0.02
    }
    bias_filler {
      type: "constant"
      value: 0.2
    }
  }
}
layer {
  name: "loss1/relu_fc"
  type: "ReLU"
  bottom: "loss1/fc"
  top: "loss1/fc"
}
layer {
  name: "loss1/drop_fc"
  type: "Dropout"
  bottom: "loss1/fc"
  top: "loss1/fc"
  dropout_param {
    dropout_ratio: 0.7
  }
}
layer {
  name: "loss1/classifier_plantvillage"
  type: "InnerProduct"
  bottom: "loss1/fc"
  top: "loss1/classifier_plantvillage"
  param {
    lr_mult: 1
    decay_mult: 1
  }
  param {
    lr_mult: 2
    decay_mult: 0
  }
  inner_product_param {
    num_output: 38
    weight_filler {
      type: "xavier"
      std: 0.0009765625
    }
    bias_filler {
      type: "constant"
      value: 0
    }
  }
}
layer {
  name: "inception_4b/1x1"
  type: "Convolution"
  bottom: "inception_4a/output"
  top: "inception_4b/1x1"
  param {
    lr_mult: 1
    decay_mult: 1
  }
  param {
    lr_mult: 2
    decay_mult: 0
  }
  convolution_param {
    num_output: 160
    kernel_size: 1
    weight_filler {
      type: "xavier"
      std: 0.03
    }
    bias_filler {
      type: "constant"
      value: 0.2
    }
  }
}
layer {
  name: "inception_4b/relu_1x1"
  type: "ReLU"
  bottom: "inception_4b/1x1"
  top: "inception_4b/1x1"
}
layer {
  name: "inception_4b/3x3_reduce"
  type: "Convolution"
  bottom: "inception_4a/output"
  top: "inception_4b/3x3_reduce"
  param {
    lr_mult: 1
    decay_mult: 1
  }
  param {
    lr_mult: 2
    decay_mult: 0
  }
  convolution_param {
    num_output: 112
    kernel_size: 1
    weight_filler {
      type: "xavier"
      std: 0.09
    }
    bias_filler {
      type: "constant"
      value: 0.2
    }
  }
}
layer {
  name: "inception_4b/relu_3x3_reduce"
  type: "ReLU"
  bottom: "inception_4b/3x3_reduce"
  top: "inception_4b/3x3_reduce"
}
layer {
  name: "inception_4b/3x3"
  type: "Convolution"
  bottom: "inception_4b/3x3_reduce"
  top: "inception_4b/3x3"
  param {
    lr_mult: 1
    decay_mult: 1
  }
  param {
    lr_mult: 2
    decay_mult: 0
  }
  convolution_param {
    num_output: 224
    pad: 1
    kernel_size: 3
    weight_filler {
      type: "xavier"
      std: 0.03
    }
    bias_filler {
      type: "constant"
      value: 0.2
    }
  }
}
layer {
  name: "inception_4b/relu_3x3"
  type: "ReLU"
  bottom: "inception_4b/3x3"
  top: "inception_4b/3x3"
}
layer {
  name: "inception_4b/5x5_reduce"
  type: "Convolution"
  bottom: "inception_4a/output"
  top: "inception_4b/5x5_reduce"
  param {
    lr_mult: 1
    decay_mult: 1
  }
  param {
    lr_mult: 2
    decay_mult: 0
  }
  convolution_param {
    num_output: 24
    kernel_size: 1
    weight_filler {
      type: "xavier"
      std: 0.2
    }
    bias_filler {
      type: "constant"
      value: 0.2
    }
  }
}
layer {
  name: "inception_4b/relu_5x5_reduce"
  type: "ReLU"
  bottom: "inception_4b/5x5_reduce"
  top: "inception_4b/5x5_reduce"
}
layer {
  name: "inception_4b/5x5"
  type: "Convolution"
  bottom: "inception_4b/5x5_reduce"
  top: "inception_4b/5x5"
  param {
    lr_mult: 1
    decay_mult: 1
  }
  param {
    lr_mult: 2
    decay_mult: 0
  }
  convolution_param {
    num_output: 64
    pad: 2
    kernel_size: 5
    weight_filler {
      type: "xavier"
      std: 0.03
    }
    bias_filler {
      type: "constant"
      value: 0.2
    }
  }
}
layer {
  name: "inception_4b/relu_5x5"
  type: "ReLU"
  bottom: "inception_4b/5x5"
  top: "inception_4b/5x5"
}
layer {
  name: "inception_4b/pool"
  type: "Pooling"
  bottom: "inception_4a/output"
  top: "inception_4b/pool"
  pooling_param {
    pool: MAX
    kernel_size: 3
    stride: 1
    pad: 1
  }
}
layer {
  name: "inception_4b/pool_proj"
  type: "Convolution"
  bottom: "inception_4b/pool"
  top: "inception_4b/pool_proj"
  param {
    lr_mult: 1
    decay_mult: 1
  }
  param {
    lr_mult: 2
    decay_mult: 0
  }
  convolution_param {
    num_output: 64
    kernel_size: 1
    weight_filler {
      type: "xavier"
      std: 0.1
    }
    bias_filler {
      type: "constant"
      value: 0.2
    }
  }
}
layer {
  name: "inception_4b/relu_pool_proj"
  type: "ReLU"
  bottom: "inception_4b/pool_proj"
  top: "inception_4b/pool_proj"
}
layer {
  name: "inception_4b/output"
  type: "Concat"
  bottom: "inception_4b/1x1"
  bottom: "inception_4b/3x3"
  bottom: "inception_4b/5x5"
  bottom: "inception_4b/pool_proj"
  top: "inception_4b/output"
}
layer {
  name: "inception_4c/1x1"
  type: "Convolution"
  bottom: "inception_4b/output"
  top: "inception_4c/1x1"
  param {
    lr_mult: 1
    decay_mult: 1
  }
  param {
    lr_mult: 2
    decay_mult: 0
  }
  convolution_param {
    num_output: 128
    kernel_size: 1
    weight_filler {
      type: "xavier"
      std: 0.03
    }
    bias_filler {
      type: "constant"
      value: 0.2
    }
  }
}
layer {
  name: "inception_4c/relu_1x1"
  type: "ReLU"
  bottom: "inception_4c/1x1"
  top: "inception_4c/1x1"
}
layer {
  name: "inception_4c/3x3_reduce"
  type: "Convolution"
  bottom: "inception_4b/output"
  top: "inception_4c/3x3_reduce"
  param {
    lr_mult: 1
    decay_mult: 1
  }
  param {
    lr_mult: 2
    decay_mult: 0
  }
  convolution_param {
    num_output: 128
    kernel_size: 1
    weight_filler {
      type: "xavier"
      std: 0.09
    }
    bias_filler {
      type: "constant"
      value: 0.2
    }
  }
}
layer {
  name: "inception_4c/relu_3x3_reduce"
  type: "ReLU"
  bottom: "inception_4c/3x3_reduce"
  top: "inception_4c/3x3_reduce"
}
layer {
  name: "inception_4c/3x3"
  type: "Convolution"
  bottom: "inception_4c/3x3_reduce"
  top: "inception_4c/3x3"
  param {
    lr_mult: 1
    decay_mult: 1
  }
  param {
    lr_mult: 2
    decay_mult: 0
  }
  convolution_param {
    num_output: 256
    pad: 1
    kernel_size: 3
    weight_filler {
      type: "xavier"
      std: 0.03
    }
    bias_filler {
      type: "constant"
      value: 0.2
    }
  }
}
layer {
  name: "inception_4c/relu_3x3"
  type: "ReLU"
  bottom: "inception_4c/3x3"
  top: "inception_4c/3x3"
}
layer {
  name: "inception_4c/5x5_reduce"
  type: "Convolution"
  bottom: "inception_4b/output"
  top: "inception_4c/5x5_reduce"
  param {
    lr_mult: 1
    decay_mult: 1
  }
  param {
    lr_mult: 2
    decay_mult: 0
  }
  convolution_param {
    num_output: 24
    kernel_size: 1
    weight_filler {
      type: "xavier"
      std: 0.2
    }
    bias_filler {
      type: "constant"
      value: 0.2
    }
  }
}
layer {
  name: "inception_4c/relu_5x5_reduce"
  type: "ReLU"
  bottom: "inception_4c/5x5_reduce"
  top: "inception_4c/5x5_reduce"
}
layer {
  name: "inception_4c/5x5"
  type: "Convolution"
  bottom: "inception_4c/5x5_reduce"
  top: "inception_4c/5x5"
  param {
    lr_mult: 1
    decay_mult: 1
  }
  param {
    lr_mult: 2
    decay_mult: 0
  }
  convolution_param {
    num_output: 64
    pad: 2
    kernel_size: 5
    weight_filler {
      type: "xavier"
      std: 0.03
    }
    bias_filler {
      type: "constant"
      value: 0.2
    }
  }
}
layer {
  name: "inception_4c/relu_5x5"
  type: "ReLU"
  bottom: "inception_4c/5x5"
  top: "inception_4c/5x5"
}
layer {
  name: "inception_4c/pool"
  type: "Pooling"
  bottom: "inception_4b/output"
  top: "inception_4c/pool"
  pooling_param {
    pool: MAX
    kernel_size: 3
    stride: 1
    pad: 1
  }
}
layer {
  name: "inception_4c/pool_proj"
  type: "Convolution"
  bottom: "inception_4c/pool"
  top: "inception_4c/pool_proj"
  param {
    lr_mult: 1
    decay_mult: 1
  }
  param {
    lr_mult: 2
    decay_mult: 0
  }
  convolution_param {
    num_output: 64
    kernel_size: 1
    weight_filler {
      type: "xavier"
      std: 0.1
    }
    bias_filler {
      type: "constant"
      value: 0.2
    }
  }
}
layer {
  name: "inception_4c/relu_pool_proj"
  type: "ReLU"
  bottom: "inception_4c/pool_proj"
  top: "inception_4c/pool_proj"
}
layer {
  name: "inception_4c/output"
  type: "Concat"
  bottom: "inception_4c/1x1"
  bottom: "inception_4c/3x3"
  bottom: "inception_4c/5x5"
  bottom: "inception_4c/pool_proj"
  top: "inception_4c/output"
}
layer {
  name: "inception_4d/1x1"
  type: "Convolution"
  bottom: "inception_4c/output"
  top: "inception_4d/1x1"
  param {
    lr_mult: 1
    decay_mult: 1
  }
  param {
    lr_mult: 2
    decay_mult: 0
  }
  convolution_param {
    num_output: 112
    kernel_size: 1
    weight_filler {
      type: "xavier"
      std: 0.03
    }
    bias_filler {
      type: "constant"
      value: 0.2
    }
  }
}
layer {
  name: "inception_4d/relu_1x1"
  type: "ReLU"
  bottom: "inception_4d/1x1"
  top: "inception_4d/1x1"
}
layer {
  name: "inception_4d/3x3_reduce"
  type: "Convolution"
  bottom: "inception_4c/output"
  top: "inception_4d/3x3_reduce"
  param {
    lr_mult: 1
    decay_mult: 1
  }
  param {
    lr_mult: 2
    decay_mult: 0
  }
  convolution_param {
    num_output: 144
    kernel_size: 1
    weight_filler {
      type: "xavier"
      std: 0.09
    }
    bias_filler {
      type: "constant"
      value: 0.2
    }
  }
}
layer {
  name: "inception_4d/relu_3x3_reduce"
  type: "ReLU"
  bottom: "inception_4d/3x3_reduce"
  top: "inception_4d/3x3_reduce"
}
layer {
  name: "inception_4d/3x3"
  type: "Convolution"
  bottom: "inception_4d/3x3_reduce"
  top: "inception_4d/3x3"
  param {
    lr_mult: 1
    decay_mult: 1
  }
  param {
    lr_mult: 2
    decay_mult: 0
  }
  convolution_param {
    num_output: 288
    pad: 1
    kernel_size: 3
    weight_filler {
      type: "xavier"
      std: 0.03
    }
    bias_filler {
      type: "constant"
      value: 0.2
    }
  }
}
layer {
  name: "inception_4d/relu_3x3"
  type: "ReLU"
  bottom: "inception_4d/3x3"
  top: "inception_4d/3x3"
}
layer {
  name: "inception_4d/5x5_reduce"
  type: "Convolution"
  bottom: "inception_4c/output"
  top: "inception_4d/5x5_reduce"
  param {
    lr_mult: 1
    decay_mult: 1
  }
  param {
    lr_mult: 2
    decay_mult: 0
  }
  convolution_param {
    num_output: 32
    kernel_size: 1
    weight_filler {
      type: "xavier"
      std: 0.2
    }
    bias_filler {
      type: "constant"
      value: 0.2
    }
  }
}
layer {
  name: "inception_4d/relu_5x5_reduce"
  type: "ReLU"
  bottom: "inception_4d/5x5_reduce"
  top: "inception_4d/5x5_reduce"
}
layer {
  name: "inception_4d/5x5"
  type: "Convolution"
  bottom: "inception_4d/5x5_reduce"
  top: "inception_4d/5x5"
  param {
    lr_mult: 1
    decay_mult: 1
  }
  param {
    lr_mult: 2
    decay_mult: 0
  }
  convolution_param {
    num_output: 64
    pad: 2
    kernel_size: 5
    weight_filler {
      type: "xavier"
      std: 0.03
    }
    bias_filler {
      type: "constant"
      value: 0.2
    }
  }
}
layer {
  name: "inception_4d/relu_5x5"
  type: "ReLU"
  bottom: "inception_4d/5x5"
  top: "inception_4d/5x5"
}
layer {
  name: "inception_4d/pool"
  type: "Pooling"
  bottom: "inception_4c/output"
  top: "inception_4d/pool"
  pooling_param {
    pool: MAX
    kernel_size: 3
    stride: 1
    pad: 1
  }
}
layer {
  name: "inception_4d/pool_proj"
  type: "Convolution"
  bottom: "inception_4d/pool"
  top: "inception_4d/pool_proj"
  param {
    lr_mult: 1
    decay_mult: 1
  }
  param {
    lr_mult: 2
    decay_mult: 0
  }
  convolution_param {
    num_output: 64
    kernel_size: 1
    weight_filler {
      type: "xavier"
      std: 0.1
    }
    bias_filler {
      type: "constant"
      value: 0.2
    }
  }
}
layer {
  name: "inception_4d/relu_pool_proj"
  type: "ReLU"
  bottom: "inception_4d/pool_proj"
  top: "inception_4d/pool_proj"
}
layer {
  name: "inception_4d/output"
  type: "Concat"
  bottom: "inception_4d/1x1"
  bottom: "inception_4d/3x3"
  bottom: "inception_4d/5x5"
  bottom: "inception_4d/pool_proj"
  top: "inception_4d/output"
}
layer {
  name: "loss2/ave_pool"
  type: "Pooling"
  bottom: "inception_4d/output"
  top: "loss2/ave_pool"
  pooling_param {
    pool: AVE
    kernel_size: 5
    stride: 3
  }
}
layer {
  name: "loss2/conv"
  type: "Convolution"
  bottom: "loss2/ave_pool"
  top: "loss2/conv"
  param {
    lr_mult: 1
    decay_mult: 1
  }
  param {
    lr_mult: 2
    decay_mult: 0
  }
  convolution_param {
    num_output: 128
    kernel_size: 1
    weight_filler {
      type: "xavier"
      std: 0.08
    }
    bias_filler {
      type: "constant"
      value: 0.2
    }
  }
}
layer {
  name: "loss2/relu_conv"
  type: "ReLU"
  bottom: "loss2/conv"
  top: "loss2/conv"
}
layer {
  name: "loss2/fc"
  type: "InnerProduct"
  bottom: "loss2/conv"
  top: "loss2/fc"
  param {
    lr_mult: 1
    decay_mult: 1
  }
  param {
    lr_mult: 2
    decay_mult: 0
  }
  inner_product_param {
    num_output: 1024
    weight_filler {
      type: "xavier"
      std: 0.02
    }
    bias_filler {
      type: "constant"
      value: 0.2
    }
  }
}
layer {
  name: "loss2/relu_fc"
  type: "ReLU"
  bottom: "loss2/fc"
  top: "loss2/fc"
}
layer {
  name: "loss2/drop_fc"
  type: "Dropout"
  bottom: "loss2/fc"
  top: "loss2/fc"
  dropout_param {
    dropout_ratio: 0.7
  }
}
layer {
  name: "loss2/classifier_plantvillage"
  type: "InnerProduct"
  bottom: "loss2/fc"
  top: "loss2/classifier_plantvillage"
  param {
    lr_mult: 1
    decay_mult: 1
  }
  param {
    lr_mult: 2
    decay_mult: 0
  }
  inner_product_param {
    num_output: 38
    weight_filler {
      type: "xavier"
      std: 0.0009765625
    }
    bias_filler {
      type: "constant"
      value: 0
    }
  }
}
layer {
  name: "inception_4e/1x1"
  type: "Convolution"
  bottom: "inception_4d/output"
  top: "inception_4e/1x1"
  param {
    lr_mult: 1
    decay_mult: 1
  }
  param {
    lr_mult: 2
    decay_mult: 0
  }
  convolution_param {
    num_output: 256
    kernel_size: 1
    weight_filler {
      type: "xavier"
      std: 0.03
    }
    bias_filler {
      type: "constant"
      value: 0.2
    }
  }
}
layer {
  name: "inception_4e/relu_1x1"
  type: "ReLU"
  bottom: "inception_4e/1x1"
  top: "inception_4e/1x1"
}
layer {
  name: "inception_4e/3x3_reduce"
  type: "Convolution"
  bottom: "inception_4d/output"
  top: "inception_4e/3x3_reduce"
  param {
    lr_mult: 1
    decay_mult: 1
  }
  param {
    lr_mult: 2
    decay_mult: 0
  }
  convolution_param {
    num_output: 160
    kernel_size: 1
    weight_filler {
      type: "xavier"
      std: 0.09
    }
    bias_filler {
      type: "constant"
      value: 0.2
    }
  }
}
layer {
  name: "inception_4e/relu_3x3_reduce"
  type: "ReLU"
  bottom: "inception_4e/3x3_reduce"
  top: "inception_4e/3x3_reduce"
}
layer {
  name: "inception_4e/3x3"
  type: "Convolution"
  bottom: "inception_4e/3x3_reduce"
  top: "inception_4e/3x3"
  param {
    lr_mult: 1
    decay_mult: 1
  }
  param {
    lr_mult: 2
    decay_mult: 0
  }
  convolution_param {
    num_output: 320
    pad: 1
    kernel_size: 3
    weight_filler {
      type: "xavier"
      std: 0.03
    }
    bias_filler {
      type: "constant"
      value: 0.2
    }
  }
}
layer {
  name: "inception_4e/relu_3x3"
  type: "ReLU"
  bottom: "inception_4e/3x3"
  top: "inception_4e/3x3"
}
layer {
  name: "inception_4e/5x5_reduce"
  type: "Convolution"
  bottom: "inception_4d/output"
  top: "inception_4e/5x5_reduce"
  param {
    lr_mult: 1
    decay_mult: 1
  }
  param {
    lr_mult: 2
    decay_mult: 0
  }
  convolution_param {
    num_output: 32
    kernel_size: 1
    weight_filler {
      type: "xavier"
      std: 0.2
    }
    bias_filler {
      type: "constant"
      value: 0.2
    }
  }
}
layer {
  name: "inception_4e/relu_5x5_reduce"
  type: "ReLU"
  bottom: "inception_4e/5x5_reduce"
  top: "inception_4e/5x5_reduce"
}
layer {
  name: "inception_4e/5x5"
  type: "Convolution"
  bottom: "inception_4e/5x5_reduce"
  top: "inception_4e/5x5"
  p
I0403 21:52:49.895444 13153 layer_factory.hpp:77] Creating layer data
I0403 21:52:49.896016 13153 net.cpp:91] Creating Layer data
I0403 21:52:49.896049 13153 net.cpp:399] data -> data
I0403 21:52:49.896100 13153 net.cpp:399] data -> label
I0403 21:52:49.896136 13153 data_transformer.cpp:25] Loading mean file from: /home/mohanty/data/final_dataset/lmdb/color-80-20/mean.binaryproto
I0403 21:52:49.897205 13155 db_lmdb.cpp:38] Opened lmdb /home/mohanty/data/final_dataset/lmdb/color-80-20/test_db
I0403 21:52:49.909361 13153 data_layer.cpp:41] output data size: 24,3,224,224
I0403 21:52:49.936306 13153 net.cpp:141] Setting up data
I0403 21:52:49.936404 13153 net.cpp:148] Top shape: 24 3 224 224 (3612672)
I0403 21:52:49.936427 13153 net.cpp:148] Top shape: 24 (24)
I0403 21:52:49.936442 13153 net.cpp:156] Memory required for data: 14450784
I0403 21:52:49.936470 13153 layer_factory.hpp:77] Creating layer label_data_1_split
I0403 21:52:49.936496 13153 net.cpp:91] Creating Layer label_data_1_split
I0403 21:52:49.936512 13153 net.cpp:425] label_data_1_split <- label
I0403 21:52:49.936543 13153 net.cpp:399] label_data_1_split -> label_data_1_split_0
I0403 21:52:49.936570 13153 net.cpp:399] label_data_1_split -> label_data_1_split_1
I0403 21:52:49.936590 13153 net.cpp:399] label_data_1_split -> label_data_1_split_2
I0403 21:52:49.936610 13153 net.cpp:399] label_data_1_split -> label_data_1_split_3
I0403 21:52:49.936630 13153 net.cpp:399] label_data_1_split -> label_data_1_split_4
I0403 21:52:49.936648 13153 net.cpp:399] label_data_1_split -> label_data_1_split_5
I0403 21:52:49.936666 13153 net.cpp:399] label_data_1_split -> label_data_1_split_6
I0403 21:52:49.936686 13153 net.cpp:399] label_data_1_split -> label_data_1_split_7
I0403 21:52:49.936707 13153 net.cpp:399] label_data_1_split -> label_data_1_split_8
I0403 21:52:49.936724 13153 net.cpp:399] label_data_1_split -> label_data_1_split_9
I0403 21:52:49.936833 13153 net.cpp:141] Setting up label_data_1_split
I0403 21:52:49.936856 13153 net.cpp:148] Top shape: 24 (24)
I0403 21:52:49.936872 13153 net.cpp:148] Top shape: 24 (24)
I0403 21:52:49.936888 13153 net.cpp:148] Top shape: 24 (24)
I0403 21:52:49.936903 13153 net.cpp:148] Top shape: 24 (24)
I0403 21:52:49.936918 13153 net.cpp:148] Top shape: 24 (24)
I0403 21:52:49.936933 13153 net.cpp:148] Top shape: 24 (24)
I0403 21:52:49.936949 13153 net.cpp:148] Top shape: 24 (24)
I0403 21:52:49.936964 13153 net.cpp:148] Top shape: 24 (24)
I0403 21:52:49.936978 13153 net.cpp:148] Top shape: 24 (24)
I0403 21:52:49.936995 13153 net.cpp:148] Top shape: 24 (24)
I0403 21:52:49.937039 13153 net.cpp:156] Memory required for data: 14451744
I0403 21:52:49.937055 13153 layer_factory.hpp:77] Creating layer conv1/7x7_s2
I0403 21:52:49.937088 13153 net.cpp:91] Creating Layer conv1/7x7_s2
I0403 21:52:49.937106 13153 net.cpp:425] conv1/7x7_s2 <- data
I0403 21:52:49.937125 13153 net.cpp:399] conv1/7x7_s2 -> conv1/7x7_s2
I0403 21:52:50.079471 13153 net.cpp:141] Setting up conv1/7x7_s2
I0403 21:52:50.079596 13153 net.cpp:148] Top shape: 24 64 112 112 (19267584)
I0403 21:52:50.079612 13153 net.cpp:156] Memory required for data: 91522080
I0403 21:52:50.079643 13153 layer_factory.hpp:77] Creating layer conv1/relu_7x7
I0403 21:52:50.079669 13153 net.cpp:91] Creating Layer conv1/relu_7x7
I0403 21:52:50.079689 13153 net.cpp:425] conv1/relu_7x7 <- conv1/7x7_s2
I0403 21:52:50.079707 13153 net.cpp:386] conv1/relu_7x7 -> conv1/7x7_s2 (in-place)
I0403 21:52:50.080044 13153 net.cpp:141] Setting up conv1/relu_7x7
I0403 21:52:50.080070 13153 net.cpp:148] Top shape: 24 64 112 112 (19267584)
I0403 21:52:50.080085 13153 net.cpp:156] Memory required for data: 168592416
I0403 21:52:50.080101 13153 layer_factory.hpp:77] Creating layer pool1/3x3_s2
I0403 21:52:50.080126 13153 net.cpp:91] Creating Layer pool1/3x3_s2
I0403 21:52:50.080142 13153 net.cpp:425] pool1/3x3_s2 <- conv1/7x7_s2
I0403 21:52:50.080163 13153 net.cpp:399] pool1/3x3_s2 -> pool1/3x3_s2
I0403 21:52:50.080238 13153 net.cpp:141] Setting up pool1/3x3_s2
I0403 21:52:50.080262 13153 net.cpp:148] Top shape: 24 64 56 56 (4816896)
I0403 21:52:50.080277 13153 net.cpp:156] Memory required for data: 187860000
I0403 21:52:50.080291 13153 layer_factory.hpp:77] Creating layer pool1/norm1
I0403 21:52:50.080315 13153 net.cpp:91] Creating Layer pool1/norm1
I0403 21:52:50.080333 13153 net.cpp:425] pool1/norm1 <- pool1/3x3_s2
I0403 21:52:50.080350 13153 net.cpp:399] pool1/norm1 -> pool1/norm1
I0403 21:52:50.080626 13153 net.cpp:141] Setting up pool1/norm1
I0403 21:52:50.080652 13153 net.cpp:148] Top shape: 24 64 56 56 (4816896)
I0403 21:52:50.080667 13153 net.cpp:156] Memory required for data: 207127584
I0403 21:52:50.080684 13153 layer_factory.hpp:77] Creating layer conv2/3x3_reduce
I0403 21:52:50.080708 13153 net.cpp:91] Creating Layer conv2/3x3_reduce
I0403 21:52:50.080724 13153 net.cpp:425] conv2/3x3_reduce <- pool1/norm1
I0403 21:52:50.080741 13153 net.cpp:399] conv2/3x3_reduce -> conv2/3x3_reduce
I0403 21:52:50.082094 13153 net.cpp:141] Setting up conv2/3x3_reduce
I0403 21:52:50.082124 13153 net.cpp:148] Top shape: 24 64 56 56 (4816896)
I0403 21:52:50.082139 13153 net.cpp:156] Memory required for data: 226395168
I0403 21:52:50.082160 13153 layer_factory.hpp:77] Creating layer conv2/relu_3x3_reduce
I0403 21:52:50.082178 13153 net.cpp:91] Creating Layer conv2/relu_3x3_reduce
I0403 21:52:50.082193 13153 net.cpp:425] conv2/relu_3x3_reduce <- conv2/3x3_reduce
I0403 21:52:50.082216 13153 net.cpp:386] conv2/relu_3x3_reduce -> conv2/3x3_reduce (in-place)
I0403 21:52:50.082454 13153 net.cpp:141] Setting up conv2/relu_3x3_reduce
I0403 21:52:50.082479 13153 net.cpp:148] Top shape: 24 64 56 56 (4816896)
I0403 21:52:50.082496 13153 net.cpp:156] Memory required for data: 245662752
I0403 21:52:50.082511 13153 layer_factory.hpp:77] Creating layer conv2/3x3
I0403 21:52:50.082532 13153 net.cpp:91] Creating Layer conv2/3x3
I0403 21:52:50.082554 13153 net.cpp:425] conv2/3x3 <- conv2/3x3_reduce
I0403 21:52:50.082572 13153 net.cpp:399] conv2/3x3 -> conv2/3x3
I0403 21:52:50.084719 13153 net.cpp:141] Setting up conv2/3x3
I0403 21:52:50.084748 13153 net.cpp:148] Top shape: 24 192 56 56 (14450688)
I0403 21:52:50.084764 13153 net.cpp:156] Memory required for data: 303465504
I0403 21:52:50.084785 13153 layer_factory.hpp:77] Creating layer conv2/relu_3x3
I0403 21:52:50.084815 13153 net.cpp:91] Creating Layer conv2/relu_3x3
I0403 21:52:50.084831 13153 net.cpp:425] conv2/relu_3x3 <- conv2/3x3
I0403 21:52:50.084848 13153 net.cpp:386] conv2/relu_3x3 -> conv2/3x3 (in-place)
I0403 21:52:50.085002 13153 net.cpp:141] Setting up conv2/relu_3x3
I0403 21:52:50.085026 13153 net.cpp:148] Top shape: 24 192 56 56 (14450688)
I0403 21:52:50.085072 13153 net.cpp:156] Memory required for data: 361268256
I0403 21:52:50.085088 13153 layer_factory.hpp:77] Creating layer conv2/norm2
I0403 21:52:50.085105 13153 net.cpp:91] Creating Layer conv2/norm2
I0403 21:52:50.085121 13153 net.cpp:425] conv2/norm2 <- conv2/3x3
I0403 21:52:50.085140 13153 net.cpp:399] conv2/norm2 -> conv2/norm2
I0403 21:52:50.085420 13153 net.cpp:141] Setting up conv2/norm2
I0403 21:52:50.085446 13153 net.cpp:148] Top shape: 24 192 56 56 (14450688)
I0403 21:52:50.085461 13153 net.cpp:156] Memory required for data: 419071008
I0403 21:52:50.085475 13153 layer_factory.hpp:77] Creating layer pool2/3x3_s2
I0403 21:52:50.085494 13153 net.cpp:91] Creating Layer pool2/3x3_s2
I0403 21:52:50.085520 13153 net.cpp:425] pool2/3x3_s2 <- conv2/norm2
I0403 21:52:50.085538 13153 net.cpp:399] pool2/3x3_s2 -> pool2/3x3_s2
I0403 21:52:50.085585 13153 net.cpp:141] Setting up pool2/3x3_s2
I0403 21:52:50.085608 13153 net.cpp:148] Top shape: 24 192 28 28 (3612672)
I0403 21:52:50.085623 13153 net.cpp:156] Memory required for data: 433521696
I0403 21:52:50.085638 13153 layer_factory.hpp:77] Creating layer pool2/3x3_s2_pool2/3x3_s2_0_split
I0403 21:52:50.085656 13153 net.cpp:91] Creating Layer pool2/3x3_s2_pool2/3x3_s2_0_split
I0403 21:52:50.085670 13153 net.cpp:425] pool2/3x3_s2_pool2/3x3_s2_0_split <- pool2/3x3_s2
I0403 21:52:50.085688 13153 net.cpp:399] pool2/3x3_s2_pool2/3x3_s2_0_split -> pool2/3x3_s2_pool2/3x3_s2_0_split_0
I0403 21:52:50.085707 13153 net.cpp:399] pool2/3x3_s2_pool2/3x3_s2_0_split -> pool2/3x3_s2_pool2/3x3_s2_0_split_1
I0403 21:52:50.085726 13153 net.cpp:399] pool2/3x3_s2_pool2/3x3_s2_0_split -> pool2/3x3_s2_pool2/3x3_s2_0_split_2
I0403 21:52:50.085747 13153 net.cpp:399] pool2/3x3_s2_pool2/3x3_s2_0_split -> pool2/3x3_s2_pool2/3x3_s2_0_split_3
I0403 21:52:50.085819 13153 net.cpp:141] Setting up pool2/3x3_s2_pool2/3x3_s2_0_split
I0403 21:52:50.085841 13153 net.cpp:148] Top shape: 24 192 28 28 (3612672)
I0403 21:52:50.085857 13153 net.cpp:148] Top shape: 24 192 28 28 (3612672)
I0403 21:52:50.085872 13153 net.cpp:148] Top shape: 24 192 28 28 (3612672)
I0403 21:52:50.085887 13153 net.cpp:148] Top shape: 24 192 28 28 (3612672)
I0403 21:52:50.085901 13153 net.cpp:156] Memory required for data: 491324448
I0403 21:52:50.085914 13153 layer_factory.hpp:77] Creating layer inception_3a/1x1
I0403 21:52:50.085933 13153 net.cpp:91] Creating Layer inception_3a/1x1
I0403 21:52:50.085949 13153 net.cpp:425] inception_3a/1x1 <- pool2/3x3_s2_pool2/3x3_s2_0_split_0
I0403 21:52:50.085966 13153 net.cpp:399] inception_3a/1x1 -> inception_3a/1x1
I0403 21:52:50.087404 13153 net.cpp:141] Setting up inception_3a/1x1
I0403 21:52:50.087433 13153 net.cpp:148] Top shape: 24 64 28 28 (1204224)
I0403 21:52:50.087448 13153 net.cpp:156] Memory required for data: 496141344
I0403 21:52:50.087466 13153 layer_factory.hpp:77] Creating layer inception_3a/relu_1x1
I0403 21:52:50.087486 13153 net.cpp:91] Creating Layer inception_3a/relu_1x1
I0403 21:52:50.087505 13153 net.cpp:425] inception_3a/relu_1x1 <- inception_3a/1x1
I0403 21:52:50.087522 13153 net.cpp:386] inception_3a/relu_1x1 -> inception_3a/1x1 (in-place)
I0403 21:52:50.087687 13153 net.cpp:141] Setting up inception_3a/relu_1x1
I0403 21:52:50.087712 13153 net.cpp:148] Top shape: 24 64 28 28 (1204224)
I0403 21:52:50.087729 13153 net.cpp:156] Memory required for data: 500958240
I0403 21:52:50.087743 13153 layer_factory.hpp:77] Creating layer inception_3a/3x3_reduce
I0403 21:52:50.087764 13153 net.cpp:91] Creating Layer inception_3a/3x3_reduce
I0403 21:52:50.087779 13153 net.cpp:425] inception_3a/3x3_reduce <- pool2/3x3_s2_pool2/3x3_s2_0_split_1
I0403 21:52:50.087798 13153 net.cpp:399] inception_3a/3x3_reduce -> inception_3a/3x3_reduce
I0403 21:52:50.089494 13153 net.cpp:141] Setting up inception_3a/3x3_reduce
I0403 21:52:50.089522 13153 net.cpp:148] Top shape: 24 96 28 28 (1806336)
I0403 21:52:50.089548 13153 net.cpp:156] Memory required for data: 508183584
I0403 21:52:50.089572 13153 layer_factory.hpp:77] Creating layer inception_3a/relu_3x3_reduce
I0403 21:52:50.089607 13153 net.cpp:91] Creating Layer inception_3a/relu_3x3_reduce
I0403 21:52:50.089623 13153 net.cpp:425] inception_3a/relu_3x3_reduce <- inception_3a/3x3_reduce
I0403 21:52:50.089639 13153 net.cpp:386] inception_3a/relu_3x3_reduce -> inception_3a/3x3_reduce (in-place)
I0403 21:52:50.089833 13153 net.cpp:141] Setting up inception_3a/relu_3x3_reduce
I0403 21:52:50.089856 13153 net.cpp:148] Top shape: 24 96 28 28 (1806336)
I0403 21:52:50.089870 13153 net.cpp:156] Memory required for data: 515408928
I0403 21:52:50.089884 13153 layer_factory.hpp:77] Creating layer inception_3a/3x3
I0403 21:52:50.089906 13153 net.cpp:91] Creating Layer inception_3a/3x3
I0403 21:52:50.089923 13153 net.cpp:425] inception_3a/3x3 <- inception_3a/3x3_reduce
I0403 21:52:50.089943 13153 net.cpp:399] inception_3a/3x3 -> inception_3a/3x3
I0403 21:52:50.091545 13153 net.cpp:141] Setting up inception_3a/3x3
I0403 21:52:50.091572 13153 net.cpp:148] Top shape: 24 128 28 28 (2408448)
I0403 21:52:50.091586 13153 net.cpp:156] Memory required for data: 525042720
I0403 21:52:50.091604 13153 layer_factory.hpp:77] Creating layer inception_3a/relu_3x3
I0403 21:52:50.091624 13153 net.cpp:91] Creating Layer inception_3a/relu_3x3
I0403 21:52:50.091639 13153 net.cpp:425] inception_3a/relu_3x3 <- inception_3a/3x3
I0403 21:52:50.091656 13153 net.cpp:386] inception_3a/relu_3x3 -> inception_3a/3x3 (in-place)
I0403 21:52:50.091909 13153 net.cpp:141] Setting up inception_3a/relu_3x3
I0403 21:52:50.091933 13153 net.cpp:148] Top shape: 24 128 28 28 (2408448)
I0403 21:52:50.091948 13153 net.cpp:156] Memory required for data: 534676512
I0403 21:52:50.091961 13153 layer_factory.hpp:77] Creating layer inception_3a/5x5_reduce
I0403 21:52:50.091982 13153 net.cpp:91] Creating Layer inception_3a/5x5_reduce
I0403 21:52:50.091998 13153 net.cpp:425] inception_3a/5x5_reduce <- pool2/3x3_s2_pool2/3x3_s2_0_split_2
I0403 21:52:50.092020 13153 net.cpp:399] inception_3a/5x5_reduce -> inception_3a/5x5_reduce
I0403 21:52:50.092941 13153 net.cpp:141] Setting up inception_3a/5x5_reduce
I0403 21:52:50.092967 13153 net.cpp:148] Top shape: 24 16 28 28 (301056)
I0403 21:52:50.092980 13153 net.cpp:156] Memory required for data: 535880736
I0403 21:52:50.092998 13153 layer_factory.hpp:77] Creating layer inception_3a/relu_5x5_reduce
I0403 21:52:50.093015 13153 net.cpp:91] Creating Layer inception_3a/relu_5x5_reduce
I0403 21:52:50.093031 13153 net.cpp:425] inception_3a/relu_5x5_reduce <- inception_3a/5x5_reduce
I0403 21:52:50.093049 13153 net.cpp:386] inception_3a/relu_5x5_reduce -> inception_3a/5x5_reduce (in-place)
I0403 21:52:50.093322 13153 net.cpp:141] Setting up inception_3a/relu_5x5_reduce
I0403 21:52:50.093348 13153 net.cpp:148] Top shape: 24 16 28 28 (301056)
I0403 21:52:50.093364 13153 net.cpp:156] Memory required for data: 537084960
I0403 21:52:50.093377 13153 layer_factory.hpp:77] Creating layer inception_3a/5x5
I0403 21:52:50.093399 13153 net.cpp:91] Creating Layer inception_3a/5x5
I0403 21:52:50.093415 13153 net.cpp:425] inception_3a/5x5 <- inception_3a/5x5_reduce
I0403 21:52:50.093433 13153 net.cpp:399] inception_3a/5x5 -> inception_3a/5x5
I0403 21:52:50.094403 13153 net.cpp:141] Setting up inception_3a/5x5
I0403 21:52:50.094429 13153 net.cpp:148] Top shape: 24 32 28 28 (602112)
I0403 21:52:50.094444 13153 net.cpp:156] Memory required for data: 539493408
I0403 21:52:50.094460 13153 layer_factory.hpp:77] Creating layer inception_3a/relu_5x5
I0403 21:52:50.094480 13153 net.cpp:91] Creating Layer inception_3a/relu_5x5
I0403 21:52:50.094498 13153 net.cpp:425] inception_3a/relu_5x5 <- inception_3a/5x5
I0403 21:52:50.094516 13153 net.cpp:386] inception_3a/relu_5x5 -> inception_3a/5x5 (in-place)
I0403 21:52:50.094676 13153 net.cpp:141] Setting up inception_3a/relu_5x5
I0403 21:52:50.094702 13153 net.cpp:148] Top shape: 24 32 28 28 (602112)
I0403 21:52:50.094717 13153 net.cpp:156] Memory required for data: 541901856
I0403 21:52:50.094730 13153 layer_factory.hpp:77] Creating layer inception_3a/pool
I0403 21:52:50.094748 13153 net.cpp:91] Creating Layer inception_3a/pool
I0403 21:52:50.094763 13153 net.cpp:425] inception_3a/pool <- pool2/3x3_s2_pool2/3x3_s2_0_split_3
I0403 21:52:50.094794 13153 net.cpp:399] inception_3a/pool -> inception_3a/pool
I0403 21:52:50.094848 13153 net.cpp:141] Setting up inception_3a/pool
I0403 21:52:50.094869 13153 net.cpp:148] Top shape: 24 192 28 28 (3612672)
I0403 21:52:50.094883 13153 net.cpp:156] Memory required for data: 556352544
I0403 21:52:50.094897 13153 layer_factory.hpp:77] Creating layer inception_3a/pool_proj
I0403 21:52:50.094918 13153 net.cpp:91] Creating Layer inception_3a/pool_proj
I0403 21:52:50.094934 13153 net.cpp:425] inception_3a/pool_proj <- inception_3a/pool
I0403 21:52:50.094955 13153 net.cpp:399] inception_3a/pool_proj -> inception_3a/pool_proj
I0403 21:52:50.095854 13153 net.cpp:141] Setting up inception_3a/pool_proj
I0403 21:52:50.095880 13153 net.cpp:148] Top shape: 24 32 28 28 (602112)
I0403 21:52:50.095895 13153 net.cpp:156] Memory required for data: 558760992
I0403 21:52:50.095914 13153 layer_factory.hpp:77] Creating layer inception_3a/relu_pool_proj
I0403 21:52:50.095934 13153 net.cpp:91] Creating Layer inception_3a/relu_pool_proj
I0403 21:52:50.095950 13153 net.cpp:425] inception_3a/relu_pool_proj <- inception_3a/pool_proj
I0403 21:52:50.095966 13153 net.cpp:386] inception_3a/relu_pool_proj -> inception_3a/pool_proj (in-place)
I0403 21:52:50.096230 13153 net.cpp:141] Setting up inception_3a/relu_pool_proj
I0403 21:52:50.096254 13153 net.cpp:148] Top shape: 24 32 28 28 (602112)
I0403 21:52:50.096268 13153 net.cpp:156] Memory required for data: 561169440
I0403 21:52:50.096283 13153 layer_factory.hpp:77] Creating layer inception_3a/output
I0403 21:52:50.096302 13153 net.cpp:91] Creating Layer inception_3a/output
I0403 21:52:50.096318 13153 net.cpp:425] inception_3a/output <- inception_3a/1x1
I0403 21:52:50.096334 13153 net.cpp:425] inception_3a/output <- inception_3a/3x3
I0403 21:52:50.096349 13153 net.cpp:425] inception_3a/output <- inception_3a/5x5
I0403 21:52:50.096364 13153 net.cpp:425] inception_3a/output <- inception_3a/pool_proj
I0403 21:52:50.096380 13153 net.cpp:399] inception_3a/output -> inception_3a/output
I0403 21:52:50.096426 13153 net.cpp:141] Setting up inception_3a/output
I0403 21:52:50.096447 13153 net.cpp:148] Top shape: 24 256 28 28 (4816896)
I0403 21:52:50.096462 13153 net.cpp:156] Memory required for data: 580437024
I0403 21:52:50.096474 13153 layer_factory.hpp:77] Creating layer inception_3a/output_inception_3a/output_0_split
I0403 21:52:50.096490 13153 net.cpp:91] Creating Layer inception_3a/output_inception_3a/output_0_split
I0403 21:52:50.096518 13153 net.cpp:425] inception_3a/output_inception_3a/output_0_split <- inception_3a/output
I0403 21:52:50.096537 13153 net.cpp:399] inception_3a/output_inception_3a/output_0_split -> inception_3a/output_inception_3a/output_0_split_0
I0403 21:52:50.096557 13153 net.cpp:399] inception_3a/output_inception_3a/output_0_split -> inception_3a/output_inception_3a/output_0_split_1
I0403 21:52:50.096581 13153 net.cpp:399] inception_3a/output_inception_3a/output_0_split -> inception_3a/output_inception_3a/output_0_split_2
I0403 21:52:50.096603 13153 net.cpp:399] inception_3a/output_inception_3a/output_0_split -> inception_3a/output_inception_3a/output_0_split_3
I0403 21:52:50.096675 13153 net.cpp:141] Setting up inception_3a/output_inception_3a/output_0_split
I0403 21:52:50.096698 13153 net.cpp:148] Top shape: 24 256 28 28 (4816896)
I0403 21:52:50.096714 13153 net.cpp:148] Top shape: 24 256 28 28 (4816896)
I0403 21:52:50.096729 13153 net.cpp:148] Top shape: 24 256 28 28 (4816896)
I0403 21:52:50.096743 13153 net.cpp:148] Top shape: 24 256 28 28 (4816896)
I0403 21:52:50.096756 13153 net.cpp:156] Memory required for data: 657507360
I0403 21:52:50.096771 13153 layer_factory.hpp:77] Creating layer inception_3b/1x1
I0403 21:52:50.096804 13153 net.cpp:91] Creating Layer inception_3b/1x1
I0403 21:52:50.096820 13153 net.cpp:425] inception_3b/1x1 <- inception_3a/output_inception_3a/output_0_split_0
I0403 21:52:50.096840 13153 net.cpp:399] inception_3b/1x1 -> inception_3b/1x1
I0403 21:52:50.097924 13153 net.cpp:141] Setting up inception_3b/1x1
I0403 21:52:50.097962 13153 net.cpp:148] Top shape: 24 128 28 28 (2408448)
I0403 21:52:50.097977 13153 net.cpp:156] Memory required for data: 667141152
I0403 21:52:50.097995 13153 layer_factory.hpp:77] Creating layer inception_3b/relu_1x1
I0403 21:52:50.098016 13153 net.cpp:91] Creating Layer inception_3b/relu_1x1
I0403 21:52:50.098032 13153 net.cpp:425] inception_3b/relu_1x1 <- inception_3b/1x1
I0403 21:52:50.098048 13153 net.cpp:386] inception_3b/relu_1x1 -> inception_3b/1x1 (in-place)
I0403 21:52:50.098213 13153 net.cpp:141] Setting up inception_3b/relu_1x1
I0403 21:52:50.098237 13153 net.cpp:148] Top shape: 24 128 28 28 (2408448)
I0403 21:52:50.098250 13153 net.cpp:156] Memory required for data: 676774944
I0403 21:52:50.098265 13153 layer_factory.hpp:77] Creating layer inception_3b/3x3_reduce
I0403 21:52:50.098286 13153 net.cpp:91] Creating Layer inception_3b/3x3_reduce
I0403 21:52:50.098305 13153 net.cpp:425] inception_3b/3x3_reduce <- inception_3a/output_inception_3a/output_0_split_1
I0403 21:52:50.098323 13153 net.cpp:399] inception_3b/3x3_reduce -> inception_3b/3x3_reduce
I0403 21:52:50.099393 13153 net.cpp:141] Setting up inception_3b/3x3_reduce
I0403 21:52:50.099421 13153 net.cpp:148] Top shape: 24 128 28 28 (2408448)
I0403 21:52:50.099434 13153 net.cpp:156] Memory required for data: 686408736
I0403 21:52:50.099452 13153 layer_factory.hpp:77] Creating layer inception_3b/relu_3x3_reduce
I0403 21:52:50.099469 13153 net.cpp:91] Creating Layer inception_3b/relu_3x3_reduce
I0403 21:52:50.099483 13153 net.cpp:425] inception_3b/relu_3x3_reduce <- inception_3b/3x3_reduce
I0403 21:52:50.099503 13153 net.cpp:386] inception_3b/relu_3x3_reduce -> inception_3b/3x3_reduce (in-place)
I0403 21:52:50.099668 13153 net.cpp:141] Setting up inception_3b/relu_3x3_reduce
I0403 21:52:50.099690 13153 net.cpp:148] Top shape: 24 128 28 28 (2408448)
I0403 21:52:50.099704 13153 net.cpp:156] Memory required for data: 696042528
I0403 21:52:50.099719 13153 layer_factory.hpp:77] Creating layer inception_3b/3x3
I0403 21:52:50.099743 13153 net.cpp:91] Creating Layer inception_3b/3x3
I0403 21:52:50.099761 13153 net.cpp:425] inception_3b/3x3 <- inception_3b/3x3_reduce
I0403 21:52:50.099781 13153 net.cpp:399] inception_3b/3x3 -> inception_3b/3x3
I0403 21:52:50.102571 13153 net.cpp:141] Setting up inception_3b/3x3
I0403 21:52:50.102597 13153 net.cpp:148] Top shape: 24 192 28 28 (3612672)
I0403 21:52:50.102612 13153 net.cpp:156] Memory required for data: 710493216
I0403 21:52:50.102630 13153 layer_factory.hpp:77] Creating layer inception_3b/relu_3x3
I0403 21:52:50.102649 13153 net.cpp:91] Creating Layer inception_3b/relu_3x3
I0403 21:52:50.102665 13153 net.cpp:425] inception_3b/relu_3x3 <- inception_3b/3x3
I0403 21:52:50.102682 13153 net.cpp:386] inception_3b/relu_3x3 -> inception_3b/3x3 (in-place)
I0403 21:52:50.102936 13153 net.cpp:141] Setting up inception_3b/relu_3x3
I0403 21:52:50.102962 13153 net.cpp:148] Top shape: 24 192 28 28 (3612672)
I0403 21:52:50.102977 13153 net.cpp:156] Memory required for data: 724943904
I0403 21:52:50.102989 13153 layer_factory.hpp:77] Creating layer inception_3b/5x5_reduce
I0403 21:52:50.103013 13153 net.cpp:91] Creating Layer inception_3b/5x5_reduce
I0403 21:52:50.103029 13153 net.cpp:425] inception_3b/5x5_reduce <- inception_3a/output_inception_3a/output_0_split_2
I0403 21:52:50.103049 13153 net.cpp:399] inception_3b/5x5_reduce -> inception_3b/5x5_reduce
I0403 21:52:50.103981 13153 net.cpp:141] Setting up inception_3b/5x5_reduce
I0403 21:52:50.104007 13153 net.cpp:148] Top shape: 24 32 28 28 (602112)
I0403 21:52:50.104020 13153 net.cpp:156] Memory required for data: 727352352
I0403 21:52:50.104038 13153 layer_factory.hpp:77] Creating layer inception_3b/relu_5x5_reduce
I0403 21:52:50.104058 13153 net.cpp:91] Creating Layer inception_3b/relu_5x5_reduce
I0403 21:52:50.104074 13153 net.cpp:425] inception_3b/relu_5x5_reduce <- inception_3b/5x5_reduce
I0403 21:52:50.104091 13153 net.cpp:386] inception_3b/relu_5x5_reduce -> inception_3b/5x5_reduce (in-place)
I0403 21:52:50.104255 13153 net.cpp:141] Setting up inception_3b/relu_5x5_reduce
I0403 21:52:50.104293 13153 net.cpp:148] Top shape: 24 32 28 28 (602112)
I0403 21:52:50.104308 13153 net.cpp:156] Memory required for data: 729760800
I0403 21:52:50.104322 13153 layer_factory.hpp:77] Creating layer inception_3b/5x5
I0403 21:52:50.104344 13153 net.cpp:91] Creating Layer inception_3b/5x5
I0403 21:52:50.104362 13153 net.cpp:425] inception_3b/5x5 <- inception_3b/5x5_reduce
I0403 21:52:50.104379 13153 net.cpp:399] inception_3b/5x5 -> inception_3b/5x5
I0403 21:52:50.106282 13153 net.cpp:141] Setting up inception_3b/5x5
I0403 21:52:50.106309 13153 net.cpp:148] Top shape: 24 96 28 28 (1806336)
I0403 21:52:50.106324 13153 net.cpp:156] Memory required for data: 736986144
I0403 21:52:50.106343 13153 layer_factory.hpp:77] Creating layer inception_3b/relu_5x5
I0403 21:52:50.106360 13153 net.cpp:91] Creating Layer inception_3b/relu_5x5
I0403 21:52:50.106376 13153 net.cpp:425] inception_3b/relu_5x5 <- inception_3b/5x5
I0403 21:52:50.106395 13153 net.cpp:386] inception_3b/relu_5x5 -> inception_3b/5x5 (in-place)
I0403 21:52:50.106580 13153 net.cpp:141] Setting up inception_3b/relu_5x5
I0403 21:52:50.106605 13153 net.cpp:148] Top shape: 24 96 28 28 (1806336)
I0403 21:52:50.106618 13153 net.cpp:156] Memory required for data: 744211488
I0403 21:52:50.106632 13153 layer_factory.hpp:77] Creating layer inception_3b/pool
I0403 21:52:50.106650 13153 net.cpp:91] Creating Layer inception_3b/pool
I0403 21:52:50.106667 13153 net.cpp:425] inception_3b/pool <- inception_3a/output_inception_3a/output_0_split_3
I0403 21:52:50.106683 13153 net.cpp:399] inception_3b/pool -> inception_3b/pool
I0403 21:52:50.106734 13153 net.cpp:141] Setting up inception_3b/pool
I0403 21:52:50.106756 13153 net.cpp:148] Top shape: 24 256 28 28 (4816896)
I0403 21:52:50.106770 13153 net.cpp:156] Memory required for data: 763479072
I0403 21:52:50.106786 13153 layer_factory.hpp:77] Creating layer inception_3b/pool_proj
I0403 21:52:50.106808 13153 net.cpp:91] Creating Layer inception_3b/pool_proj
I0403 21:52:50.106824 13153 net.cpp:425] inception_3b/pool_proj <- inception_3b/pool
I0403 21:52:50.106844 13153 net.cpp:399] inception_3b/pool_proj -> inception_3b/pool_proj
I0403 21:52:50.107823 13153 net.cpp:141] Setting up inception_3b/pool_proj
I0403 21:52:50.107851 13153 net.cpp:148] Top shape: 24 64 28 28 (1204224)
I0403 21:52:50.107867 13153 net.cpp:156] Memory required for data: 768295968
I0403 21:52:50.107887 13153 layer_factory.hpp:77] Creating layer inception_3b/relu_pool_proj
I0403 21:52:50.107903 13153 net.cpp:91] Creating Layer inception_3b/relu_pool_proj
I0403 21:52:50.107918 13153 net.cpp:425] inception_3b/relu_pool_proj <- inception_3b/pool_proj
I0403 21:52:50.107934 13153 net.cpp:386] inception_3b/relu_pool_proj -> inception_3b/pool_proj (in-place)
I0403 21:52:50.108290 13153 net.cpp:141] Setting up inception_3b/relu_pool_proj
I0403 21:52:50.108316 13153 net.cpp:148] Top shape: 24 64 28 28 (1204224)
I0403 21:52:50.108330 13153 net.cpp:156] Memory required for data: 773112864
I0403 21:52:50.108345 13153 layer_factory.hpp:77] Creating layer inception_3b/output
I0403 21:52:50.108364 13153 net.cpp:91] Creating Layer inception_3b/output
I0403 21:52:50.108381 13153 net.cpp:425] inception_3b/output <- inception_3b/1x1
I0403 21:52:50.108397 13153 net.cpp:425] inception_3b/output <- inception_3b/3x3
I0403 21:52:50.108413 13153 net.cpp:425] inception_3b/output <- inception_3b/5x5
I0403 21:52:50.108428 13153 net.cpp:425] inception_3b/output <- inception_3b/pool_proj
I0403 21:52:50.108446 13153 net.cpp:399] inception_3b/output -> inception_3b/output
I0403 21:52:50.108489 13153 net.cpp:141] Setting up inception_3b/output
I0403 21:52:50.108510 13153 net.cpp:148] Top shape: 24 480 28 28 (9031680)
I0403 21:52:50.108525 13153 net.cpp:156] Memory required for data: 809239584
I0403 21:52:50.108538 13153 layer_factory.hpp:77] Creating layer pool3/3x3_s2
I0403 21:52:50.108556 13153 net.cpp:91] Creating Layer pool3/3x3_s2
I0403 21:52:50.108571 13153 net.cpp:425] pool3/3x3_s2 <- inception_3b/output
I0403 21:52:50.108589 13153 net.cpp:399] pool3/3x3_s2 -> pool3/3x3_s2
I0403 21:52:50.108659 13153 net.cpp:141] Setting up pool3/3x3_s2
I0403 21:52:50.108680 13153 net.cpp:148] Top shape: 24 480 14 14 (2257920)
I0403 21:52:50.108695 13153 net.cpp:156] Memory required for data: 818271264
I0403 21:52:50.108710 13153 layer_factory.hpp:77] Creating layer pool3/3x3_s2_pool3/3x3_s2_0_split
I0403 21:52:50.108726 13153 net.cpp:91] Creating Layer pool3/3x3_s2_pool3/3x3_s2_0_split
I0403 21:52:50.108741 13153 net.cpp:425] pool3/3x3_s2_pool3/3x3_s2_0_split <- pool3/3x3_s2
I0403 21:52:50.108760 13153 net.cpp:399] pool3/3x3_s2_pool3/3x3_s2_0_split -> pool3/3x3_s2_pool3/3x3_s2_0_split_0
I0403 21:52:50.108779 13153 net.cpp:399] pool3/3x3_s2_pool3/3x3_s2_0_split -> pool3/3x3_s2_pool3/3x3_s2_0_split_1
I0403 21:52:50.108799 13153 net.cpp:399] pool3/3x3_s2_pool3/3x3_s2_0_split -> pool3/3x3_s2_pool3/3x3_s2_0_split_2
I0403 21:52:50.108817 13153 net.cpp:399] pool3/3x3_s2_pool3/3x3_s2_0_split -> pool3/3x3_s2_pool3/3x3_s2_0_split_3
I0403 21:52:50.108889 13153 net.cpp:141] Setting up pool3/3x3_s2_pool3/3x3_s2_0_split
I0403 21:52:50.108917 13153 net.cpp:148] Top shape: 24 480 14 14 (2257920)
I0403 21:52:50.108934 13153 net.cpp:148] Top shape: 24 480 14 14 (2257920)
I0403 21:52:50.108949 13153 net.cpp:148] Top shape: 24 480 14 14 (2257920)
I0403 21:52:50.108964 13153 net.cpp:148] Top shape: 24 480 14 14 (2257920)
I0403 21:52:50.108978 13153 net.cpp:156] Memory required for data: 854397984
I0403 21:52:50.108994 13153 layer_factory.hpp:77] Creating layer inception_4a/1x1
I0403 21:52:50.109016 13153 net.cpp:91] Creating Layer inception_4a/1x1
I0403 21:52:50.109032 13153 net.cpp:425] inception_4a/1x1 <- pool3/3x3_s2_pool3/3x3_s2_0_split_0
I0403 21:52:50.109051 13153 net.cpp:399] inception_4a/1x1 -> inception_4a/1x1
I0403 21:52:50.110517 13153 net.cpp:141] Setting up inception_4a/1x1
I0403 21:52:50.110546 13153 net.cpp:148] Top shape: 24 192 14 14 (903168)
I0403 21:52:50.110560 13153 net.cpp:156] Memory required for data: 858010656
I0403 21:52:50.110579 13153 layer_factory.hpp:77] Creating layer inception_4a/relu_1x1
I0403 21:52:50.110595 13153 net.cpp:91] Creating Layer inception_4a/relu_1x1
I0403 21:52:50.110610 13153 net.cpp:425] inception_4a/relu_1x1 <- inception_4a/1x1
I0403 21:52:50.110630 13153 net.cpp:386] inception_4a/relu_1x1 -> inception_4a/1x1 (in-place)
I0403 21:52:50.110797 13153 net.cpp:141] Setting up inception_4a/relu_1x1
I0403 21:52:50.110821 13153 net.cpp:148] Top shape: 24 192 14 14 (903168)
I0403 21:52:50.110837 13153 net.cpp:156] Memory required for data: 861623328
I0403 21:52:50.110852 13153 layer_factory.hpp:77] Creating layer inception_4a/3x3_reduce
I0403 21:52:50.110874 13153 net.cpp:91] Creating Layer inception_4a/3x3_reduce
I0403 21:52:50.110891 13153 net.cpp:425] inception_4a/3x3_reduce <- pool3/3x3_s2_pool3/3x3_s2_0_split_1
I0403 21:52:50.110911 13153 net.cpp:399] inception_4a/3x3_reduce -> inception_4a/3x3_reduce
I0403 21:52:50.112126 13153 net.cpp:141] Setting up inception_4a/3x3_reduce
I0403 21:52:50.112154 13153 net.cpp:148] Top shape: 24 96 14 14 (451584)
I0403 21:52:50.112170 13153 net.cpp:156] Memory required for data: 863429664
I0403 21:52:50.112193 13153 layer_factory.hpp:77] Creating layer inception_4a/relu_3x3_reduce
I0403 21:52:50.112224 13153 net.cpp:91] Creating Layer inception_4a/relu_3x3_reduce
I0403 21:52:50.112242 13153 net.cpp:425] inception_4a/relu_3x3_reduce <- inception_4a/3x3_reduce
I0403 21:52:50.112259 13153 net.cpp:386] inception_4a/relu_3x3_reduce -> inception_4a/3x3_reduce (in-place)
I0403 21:52:50.112426 13153 net.cpp:141] Setting up inception_4a/relu_3x3_reduce
I0403 21:52:50.112449 13153 net.cpp:148] Top shape: 24 96 14 14 (451584)
I0403 21:52:50.112463 13153 net.cpp:156] Memory required for data: 865236000
I0403 21:52:50.112478 13153 layer_factory.hpp:77] Creating layer inception_4a/3x3
I0403 21:52:50.112498 13153 net.cpp:91] Creating Layer inception_4a/3x3
I0403 21:52:50.112514 13153 net.cpp:425] inception_4a/3x3 <- inception_4a/3x3_reduce
I0403 21:52:50.112545 13153 net.cpp:399] inception_4a/3x3 -> inception_4a/3x3
I0403 21:52:50.115099 13153 net.cpp:141] Setting up inception_4a/3x3
I0403 21:52:50.115126 13153 net.cpp:148] Top shape: 24 208 14 14 (978432)
I0403 21:52:50.115141 13153 net.cpp:156] Memory required for data: 869149728
I0403 21:52:50.115159 13153 layer_factory.hpp:77] Creating layer inception_4a/relu_3x3
I0403 21:52:50.115176 13153 net.cpp:91] Creating Layer inception_4a/relu_3x3
I0403 21:52:50.115191 13153 net.cpp:425] inception_4a/relu_3x3 <- inception_4a/3x3
I0403 21:52:50.115216 13153 net.cpp:386] inception_4a/relu_3x3 -> inception_4a/3x3 (in-place)
I0403 21:52:50.115485 13153 net.cpp:141] Setting up inception_4a/relu_3x3
I0403 21:52:50.115522 13153 net.cpp:148] Top shape: 24 208 14 14 (978432)
I0403 21:52:50.115537 13153 net.cpp:156] Memory required for data: 873063456
I0403 21:52:50.115551 13153 layer_factory.hpp:77] Creating layer inception_4a/5x5_reduce
I0403 21:52:50.115574 13153 net.cpp:91] Creating Layer inception_4a/5x5_reduce
I0403 21:52:50.115592 13153 net.cpp:425] inception_4a/5x5_reduce <- pool3/3x3_s2_pool3/3x3_s2_0_split_2
I0403 21:52:50.115614 13153 net.cpp:399] inception_4a/5x5_reduce -> inception_4a/5x5_reduce
I0403 21:52:50.116616 13153 net.cpp:141] Setting up inception_4a/5x5_reduce
I0403 21:52:50.116642 13153 net.cpp:148] Top shape: 24 16 14 14 (75264)
I0403 21:52:50.116657 13153 net.cpp:156] Memory required for data: 873364512
I0403 21:52:50.116674 13153 layer_factory.hpp:77] Creating layer inception_4a/relu_5x5_reduce
I0403 21:52:50.116694 13153 net.cpp:91] Creating Layer inception_4a/relu_5x5_reduce
I0403 21:52:50.116713 13153 net.cpp:425] inception_4a/relu_5x5_reduce <- inception_4a/5x5_reduce
I0403 21:52:50.116729 13153 net.cpp:386] inception_4a/relu_5x5_reduce -> inception_4a/5x5_reduce (in-place)
I0403 21:52:50.116906 13153 net.cpp:141] Setting up inception_4a/relu_5x5_reduce
I0403 21:52:50.116937 13153 net.cpp:148] Top shape: 24 16 14 14 (75264)
I0403 21:52:50.116953 13153 net.cpp:156] Memory required for data: 873665568
I0403 21:52:50.116967 13153 layer_factory.hpp:77] Creating layer inception_4a/5x5
I0403 21:52:50.116988 13153 net.cpp:91] Creating Layer inception_4a/5x5
I0403 21:52:50.117005 13153 net.cpp:425] inception_4a/5x5 <- inception_4a/5x5_reduce
I0403 21:52:50.117024 13153 net.cpp:399] inception_4a/5x5 -> inception_4a/5x5
I0403 21:52:50.118072 13153 net.cpp:141] Setting up inception_4a/5x5
I0403 21:52:50.118099 13153 net.cpp:148] Top shape: 24 48 14 14 (225792)
I0403 21:52:50.118114 13153 net.cpp:156] Memory required for data: 874568736
I0403 21:52:50.118134 13153 layer_factory.hpp:77] Creating layer inception_4a/relu_5x5
I0403 21:52:50.118152 13153 net.cpp:91] Creating Layer inception_4a/relu_5x5
I0403 21:52:50.118167 13153 net.cpp:425] inception_4a/relu_5x5 <- inception_4a/5x5
I0403 21:52:50.118185 13153 net.cpp:386] inception_4a/relu_5x5 -> inception_4a/5x5 (in-place)
I0403 21:52:50.118360 13153 net.cpp:141] Setting up inception_4a/relu_5x5
I0403 21:52:50.118384 13153 net.cpp:148] Top shape: 24 48 14 14 (225792)
I0403 21:52:50.118398 13153 net.cpp:156] Memory required for data: 875471904
I0403 21:52:50.118413 13153 layer_factory.hpp:77] Creating layer inception_4a/pool
I0403 21:52:50.118429 13153 net.cpp:91] Creating Layer inception_4a/pool
I0403 21:52:50.118444 13153 net.cpp:425] inception_4a/pool <- pool3/3x3_s2_pool3/3x3_s2_0_split_3
I0403 21:52:50.118463 13153 net.cpp:399] inception_4a/pool -> inception_4a/pool
I0403 21:52:50.118521 13153 net.cpp:141] Setting up inception_4a/pool
I0403 21:52:50.118544 13153 net.cpp:148] Top shape: 24 480 14 14 (2257920)
I0403 21:52:50.118559 13153 net.cpp:156] Memory required for data: 884503584
I0403 21:52:50.118573 13153 layer_factory.hpp:77] Creating layer inception_4a/pool_proj
I0403 21:52:50.118597 13153 net.cpp:91] Creating Layer inception_4a/pool_proj
I0403 21:52:50.118613 13153 net.cpp:425] inception_4a/pool_proj <- inception_4a/pool
I0403 21:52:50.118630 13153 net.cpp:399] inception_4a/pool_proj -> inception_4a/pool_proj
I0403 21:52:50.119732 13153 net.cpp:141] Setting up inception_4a/pool_proj
I0403 21:52:50.119763 13153 net.cpp:148] Top shape: 24 64 14 14 (301056)
I0403 21:52:50.119804 13153 net.cpp:156] Memory required for data: 885707808
I0403 21:52:50.119823 13153 layer_factory.hpp:77] Creating layer inception_4a/relu_pool_proj
I0403 21:52:50.119840 13153 net.cpp:91] Creating Layer inception_4a/relu_pool_proj
I0403 21:52:50.119854 13153 net.cpp:425] inception_4a/relu_pool_proj <- inception_4a/pool_proj
I0403 21:52:50.119874 13153 net.cpp:386] inception_4a/relu_pool_proj -> inception_4a/pool_proj (in-place)
I0403 21:52:50.120133 13153 net.cpp:141] Setting up inception_4a/relu_pool_proj
I0403 21:52:50.120164 13153 net.cpp:148] Top shape: 24 64 14 14 (301056)
I0403 21:52:50.120182 13153 net.cpp:156] Memory required for data: 886912032
I0403 21:52:50.120196 13153 layer_factory.hpp:77] Creating layer inception_4a/output
I0403 21:52:50.120218 13153 net.cpp:91] Creating Layer inception_4a/output
I0403 21:52:50.120234 13153 net.cpp:425] inception_4a/output <- inception_4a/1x1
I0403 21:52:50.120249 13153 net.cpp:425] inception_4a/output <- inception_4a/3x3
I0403 21:52:50.120265 13153 net.cpp:425] inception_4a/output <- inception_4a/5x5
I0403 21:52:50.120280 13153 net.cpp:425] inception_4a/output <- inception_4a/pool_proj
I0403 21:52:50.120298 13153 net.cpp:399] inception_4a/output -> inception_4a/output
I0403 21:52:50.120339 13153 net.cpp:141] Setting up inception_4a/output
I0403 21:52:50.120362 13153 net.cpp:148] Top shape: 24 512 14 14 (2408448)
I0403 21:52:50.120375 13153 net.cpp:156] Memory required for data: 896545824
I0403 21:52:50.120389 13153 layer_factory.hpp:77] Creating layer inception_4a/output_inception_4a/output_0_split
I0403 21:52:50.120409 13153 net.cpp:91] Creating Layer inception_4a/output_inception_4a/output_0_split
I0403 21:52:50.120424 13153 net.cpp:425] inception_4a/output_inception_4a/output_0_split <- inception_4a/output
I0403 21:52:50.120441 13153 net.cpp:399] inception_4a/output_inception_4a/output_0_split -> inception_4a/output_inception_4a/output_0_split_0
I0403 21:52:50.120461 13153 net.cpp:399] inception_4a/output_inception_4a/output_0_split -> inception_4a/output_inception_4a/output_0_split_1
I0403 21:52:50.120484 13153 net.cpp:399] inception_4a/output_inception_4a/output_0_split -> inception_4a/output_inception_4a/output_0_split_2
I0403 21:52:50.120506 13153 net.cpp:399] inception_4a/output_inception_4a/output_0_split -> inception_4a/output_inception_4a/output_0_split_3
I0403 21:52:50.120525 13153 net.cpp:399] inception_4a/output_inception_4a/output_0_split -> inception_4a/output_inception_4a/output_0_split_4
I0403 21:52:50.120612 13153 net.cpp:141] Setting up inception_4a/output_inception_4a/output_0_split
I0403 21:52:50.120635 13153 net.cpp:148] Top shape: 24 512 14 14 (2408448)
I0403 21:52:50.120651 13153 net.cpp:148] Top shape: 24 512 14 14 (2408448)
I0403 21:52:50.120666 13153 net.cpp:148] Top shape: 24 512 14 14 (2408448)
I0403 21:52:50.120681 13153 net.cpp:148] Top shape: 24 512 14 14 (2408448)
I0403 21:52:50.120695 13153 net.cpp:148] Top shape: 24 512 14 14 (2408448)
I0403 21:52:50.120708 13153 net.cpp:156] Memory required for data: 944714784
I0403 21:52:50.120723 13153 layer_factory.hpp:77] Creating layer loss1/ave_pool
I0403 21:52:50.120743 13153 net.cpp:91] Creating Layer loss1/ave_pool
I0403 21:52:50.120759 13153 net.cpp:425] loss1/ave_pool <- inception_4a/output_inception_4a/output_0_split_0
I0403 21:52:50.120774 13153 net.cpp:399] loss1/ave_pool -> loss1/ave_pool
I0403 21:52:50.120965 13153 net.cpp:141] Setting up loss1/ave_pool
I0403 21:52:50.120992 13153 net.cpp:148] Top shape: 24 512 4 4 (196608)
I0403 21:52:50.121008 13153 net.cpp:156] Memory required for data: 945501216
I0403 21:52:50.121022 13153 layer_factory.hpp:77] Creating layer loss1/conv
I0403 21:52:50.121042 13153 net.cpp:91] Creating Layer loss1/conv
I0403 21:52:50.121059 13153 net.cpp:425] loss1/conv <- loss1/ave_pool
I0403 21:52:50.121078 13153 net.cpp:399] loss1/conv -> loss1/conv
I0403 21:52:50.122400 13153 net.cpp:141] Setting up loss1/conv
I0403 21:52:50.122428 13153 net.cpp:148] Top shape: 24 128 4 4 (49152)
I0403 21:52:50.122443 13153 net.cpp:156] Memory required for data: 945697824
I0403 21:52:50.122474 13153 layer_factory.hpp:77] Creating layer loss1/relu_conv
I0403 21:52:50.122494 13153 net.cpp:91] Creating Layer loss1/relu_conv
I0403 21:52:50.122511 13153 net.cpp:425] loss1/relu_conv <- loss1/conv
I0403 21:52:50.122529 13153 net.cpp:386] loss1/relu_conv -> loss1/conv (in-place)
I0403 21:52:50.122795 13153 net.cpp:141] Setting up loss1/relu_conv
I0403 21:52:50.122820 13153 net.cpp:148] Top shape: 24 128 4 4 (49152)
I0403 21:52:50.122835 13153 net.cpp:156] Memory required for data: 945894432
I0403 21:52:50.122848 13153 layer_factory.hpp:77] Creating layer loss1/fc
I0403 21:52:50.122874 13153 net.cpp:91] Creating Layer loss1/fc
I0403 21:52:50.122891 13153 net.cpp:425] loss1/fc <- loss1/conv
I0403 21:52:50.122910 13153 net.cpp:399] loss1/fc -> loss1/fc
I0403 21:52:50.139973 13153 net.cpp:141] Setting up loss1/fc
I0403 21:52:50.140008 13153 net.cpp:148] Top shape: 24 1024 (24576)
I0403 21:52:50.140023 13153 net.cpp:156] Memory required for data: 945992736
I0403 21:52:50.140040 13153 layer_factory.hpp:77] Creating layer loss1/relu_fc
I0403 21:52:50.140058 13153 net.cpp:91] Creating Layer loss1/relu_fc
I0403 21:52:50.140072 13153 net.cpp:425] loss1/relu_fc <- loss1/fc
I0403 21:52:50.140091 13153 net.cpp:386] loss1/relu_fc -> loss1/fc (in-place)
I0403 21:52:50.140269 13153 net.cpp:141] Setting up loss1/relu_fc
I0403 21:52:50.140292 13153 net.cpp:148] Top shape: 24 1024 (24576)
I0403 21:52:50.140307 13153 net.cpp:156] Memory required for data: 946091040
I0403 21:52:50.140321 13153 layer_factory.hpp:77] Creating layer loss1/drop_fc
I0403 21:52:50.140346 13153 net.cpp:91] Creating Layer loss1/drop_fc
I0403 21:52:50.140362 13153 net.cpp:425] loss1/drop_fc <- loss1/fc
I0403 21:52:50.140383 13153 net.cpp:386] loss1/drop_fc -> loss1/fc (in-place)
I0403 21:52:50.140430 13153 net.cpp:141] Setting up loss1/drop_fc
I0403 21:52:50.140455 13153 net.cpp:148] Top shape: 24 1024 (24576)
I0403 21:52:50.140470 13153 net.cpp:156] Memory required for data: 946189344
I0403 21:52:50.140485 13153 layer_factory.hpp:77] Creating layer loss1/classifier_plantvillage
I0403 21:52:50.140502 13153 net.cpp:91] Creating Layer loss1/classifier_plantvillage
I0403 21:52:50.140517 13153 net.cpp:425] loss1/classifier_plantvillage <- loss1/fc
I0403 21:52:50.140537 13153 net.cpp:399] loss1/classifier_plantvillage -> loss1/classifier_plantvillage
I0403 21:52:50.141433 13153 net.cpp:141] Setting up loss1/classifier_plantvillage
I0403 21:52:50.141459 13153 net.cpp:148] Top shape: 24 38 (912)
I0403 21:52:50.141474 13153 net.cpp:156] Memory required for data: 946192992
I0403 21:52:50.141491 13153 layer_factory.hpp:77] Creating layer loss1/classifier_plantvillage_loss1/classifier_plantvillage_0_split
I0403 21:52:50.141510 13153 net.cpp:91] Creating Layer loss1/classifier_plantvillage_loss1/classifier_plantvillage_0_split
I0403 21:52:50.141525 13153 net.cpp:425] loss1/classifier_plantvillage_loss1/classifier_plantvillage_0_split <- loss1/classifier_plantvillage
I0403 21:52:50.141546 13153 net.cpp:399] loss1/classifier_plantvillage_loss1/classifier_plantvillage_0_split -> loss1/classifier_plantvillage_loss1/classifier_plantvillage_0_split_0
I0403 21:52:50.141566 13153 net.cpp:399] loss1/classifier_plantvillage_loss1/classifier_plantvillage_0_split -> loss1/classifier_plantvillage_loss1/classifier_plantvillage_0_split_1
I0403 21:52:50.141585 13153 net.cpp:399] loss1/classifier_plantvillage_loss1/classifier_plantvillage_0_split -> loss1/classifier_plantvillage_loss1/classifier_plantvillage_0_split_2
I0403 21:52:50.141654 13153 net.cpp:141] Setting up loss1/classifier_plantvillage_loss1/classifier_plantvillage_0_split
I0403 21:52:50.141676 13153 net.cpp:148] Top shape: 24 38 (912)
I0403 21:52:50.141693 13153 net.cpp:148] Top shape: 24 38 (912)
I0403 21:52:50.141708 13153 net.cpp:148] Top shape: 24 38 (912)
I0403 21:52:50.141721 13153 net.cpp:156] Memory required for data: 946203936
I0403 21:52:50.141736 13153 layer_factory.hpp:77] Creating layer inception_4b/1x1
I0403 21:52:50.141757 13153 net.cpp:91] Creating Layer inception_4b/1x1
I0403 21:52:50.141789 13153 net.cpp:425] inception_4b/1x1 <- inception_4a/output_inception_4a/output_0_split_1
I0403 21:52:50.141808 13153 net.cpp:399] inception_4b/1x1 -> inception_4b/1x1
I0403 21:52:50.143343 13153 net.cpp:141] Setting up inception_4b/1x1
I0403 21:52:50.143370 13153 net.cpp:148] Top shape: 24 160 14 14 (752640)
I0403 21:52:50.143386 13153 net.cpp:156] Memory required for data: 949214496
I0403 21:52:50.143404 13153 layer_factory.hpp:77] Creating layer inception_4b/relu_1x1
I0403 21:52:50.143422 13153 net.cpp:91] Creating Layer inception_4b/relu_1x1
I0403 21:52:50.143440 13153 net.cpp:425] inception_4b/relu_1x1 <- inception_4b/1x1
I0403 21:52:50.143455 13153 net.cpp:386] inception_4b/relu_1x1 -> inception_4b/1x1 (in-place)
I0403 21:52:50.143625 13153 net.cpp:141] Setting up inception_4b/relu_1x1
I0403 21:52:50.143651 13153 net.cpp:148] Top shape: 24 160 14 14 (752640)
I0403 21:52:50.143666 13153 net.cpp:156] Memory required for data: 952225056
I0403 21:52:50.143682 13153 layer_factory.hpp:77] Creating layer inception_4b/3x3_reduce
I0403 21:52:50.143704 13153 net.cpp:91] Creating Layer inception_4b/3x3_reduce
I0403 21:52:50.143721 13153 net.cpp:425] inception_4b/3x3_reduce <- inception_4a/output_inception_4a/output_0_split_2
I0403 21:52:50.143740 13153 net.cpp:399] inception_4b/3x3_reduce -> inception_4b/3x3_reduce
I0403 21:52:50.145033 13153 net.cpp:141] Setting up inception_4b/3x3_reduce
I0403 21:52:50.145059 13153 net.cpp:148] Top shape: 24 112 14 14 (526848)
I0403 21:52:50.145078 13153 net.cpp:156] Memory required for data: 954332448
I0403 21:52:50.145097 13153 layer_factory.hpp:77] Creating layer inception_4b/relu_3x3_reduce
I0403 21:52:50.145113 13153 net.cpp:91] Creating Layer inception_4b/relu_3x3_reduce
I0403 21:52:50.145128 13153 net.cpp:425] inception_4b/relu_3x3_reduce <- inception_4b/3x3_reduce
I0403 21:52:50.145143 13153 net.cpp:386] inception_4b/relu_3x3_reduce -> inception_4b/3x3_reduce (in-place)
I0403 21:52:50.145419 13153 net.cpp:141] Setting up inception_4b/relu_3x3_reduce
I0403 21:52:50.145444 13153 net.cpp:148] Top shape: 24 112 14 14 (526848)
I0403 21:52:50.145462 13153 net.cpp:156] Memory required for data: 956439840
I0403 21:52:50.145478 13153 layer_factory.hpp:77] Creating layer inception_4b/3x3
I0403 21:52:50.145496 13153 net.cpp:91] Creating Layer inception_4b/3x3
I0403 21:52:50.145512 13153 net.cpp:425] inception_4b/3x3 <- inception_4b/3x3_reduce
I0403 21:52:50.145534 13153 net.cpp:399] inception_4b/3x3 -> inception_4b/3x3
I0403 21:52:50.148408 13153 net.cpp:141] Setting up inception_4b/3x3
I0403 21:52:50.148435 13153 net.cpp:148] Top shape: 24 224 14 14 (1053696)
I0403 21:52:50.148450 13153 net.cpp:156] Memory required for data: 960654624
I0403 21:52:50.148469 13153 layer_factory.hpp:77] Creating layer inception_4b/relu_3x3
I0403 21:52:50.148486 13153 net.cpp:91] Creating Layer inception_4b/relu_3x3
I0403 21:52:50.148501 13153 net.cpp:425] inception_4b/relu_3x3 <- inception_4b/3x3
I0403 21:52:50.148521 13153 net.cpp:386] inception_4b/relu_3x3 -> inception_4b/3x3 (in-place)
I0403 21:52:50.148691 13153 net.cpp:141] Setting up inception_4b/relu_3x3
I0403 21:52:50.148715 13153 net.cpp:148] Top shape: 24 224 14 14 (1053696)
I0403 21:52:50.148730 13153 net.cpp:156] Memory required for data: 964869408
I0403 21:52:50.148744 13153 layer_factory.hpp:77] Creating layer inception_4b/5x5_reduce
I0403 21:52:50.148766 13153 net.cpp:91] Creating Layer inception_4b/5x5_reduce
I0403 21:52:50.148782 13153 net.cpp:425] inception_4b/5x5_reduce <- inception_4a/output_inception_4a/output_0_split_3
I0403 21:52:50.148804 13153 net.cpp:399] inception_4b/5x5_reduce -> inception_4b/5x5_reduce
I0403 21:52:50.149822 13153 net.cpp:141] Setting up inception_4b/5x5_reduce
I0403 21:52:50.149849 13153 net.cpp:148] Top shape: 24 24 14 14 (112896)
I0403 21:52:50.149863 13153 net.cpp:156] Memory required for data: 965320992
I0403 21:52:50.149881 13153 layer_factory.hpp:77] Creating layer inception_4b/relu_5x5_reduce
I0403 21:52:50.149902 13153 net.cpp:91] Creating Layer inception_4b/relu_5x5_reduce
I0403 21:52:50.149931 13153 net.cpp:425] inception_4b/relu_5x5_reduce <- inception_4b/5x5_reduce
I0403 21:52:50.149950 13153 net.cpp:386] inception_4b/relu_5x5_reduce -> inception_4b/5x5_reduce (in-place)
I0403 21:52:50.150125 13153 net.cpp:141] Setting up inception_4b/relu_5x5_reduce
I0403 21:52:50.150151 13153 net.cpp:148] Top shape: 24 24 14 14 (112896)
I0403 21:52:50.150166 13153 net.cpp:156] Memory required for data: 965772576
I0403 21:52:50.150179 13153 layer_factory.hpp:77] Creating layer inception_4b/5x5
I0403 21:52:50.150202 13153 net.cpp:91] Creating Layer inception_4b/5x5
I0403 21:52:50.150223 13153 net.cpp:425] inception_4b/5x5 <- inception_4b/5x5_reduce
I0403 21:52:50.150243 13153 net.cpp:399] inception_4b/5x5 -> inception_4b/5x5
I0403 21:52:50.151396 13153 net.cpp:141] Setting up inception_4b/5x5
I0403 21:52:50.151422 13153 net.cpp:148] Top shape: 24 64 14 14 (301056)
I0403 21:52:50.151437 13153 net.cpp:156] Memory required for data: 966976800
I0403 21:52:50.151454 13153 layer_factory.hpp:77] Creating layer inception_4b/relu_5x5
I0403 21:52:50.151473 13153 net.cpp:91] Creating Layer inception_4b/relu_5x5
I0403 21:52:50.151490 13153 net.cpp:425] inception_4b/relu_5x5 <- inception_4b/5x5
I0403 21:52:50.151509 13153 net.cpp:386] inception_4b/relu_5x5 -> inception_4b/5x5 (in-place)
I0403 21:52:50.151775 13153 net.cpp:141] Setting up inception_4b/relu_5x5
I0403 21:52:50.151799 13153 net.cpp:148] Top shape: 24 64 14 14 (301056)
I0403 21:52:50.151813 13153 net.cpp:156] Memory required for data: 968181024
I0403 21:52:50.151828 13153 layer_factory.hpp:77] Creating layer inception_4b/pool
I0403 21:52:50.151845 13153 net.cpp:91] Creating Layer inception_4b/pool
I0403 21:52:50.151861 13153 net.cpp:425] inception_4b/pool <- inception_4a/output_inception_4a/output_0_split_4
I0403 21:52:50.151882 13153 net.cpp:399] inception_4b/pool -> inception_4b/pool
I0403 21:52:50.151945 13153 net.cpp:141] Setting up inception_4b/pool
I0403 21:52:50.151968 13153 net.cpp:148] Top shape: 24 512 14 14 (2408448)
I0403 21:52:50.151983 13153 net.cpp:156] Memory required for data: 977814816
I0403 21:52:50.151996 13153 layer_factory.hpp:77] Creating layer inception_4b/pool_proj
I0403 21:52:50.152019 13153 net.cpp:91] Creating Layer inception_4b/pool_proj
I0403 21:52:50.152035 13153 net.cpp:425] inception_4b/pool_proj <- inception_4b/pool
I0403 21:52:50.152056 13153 net.cpp:399] inception_4b/pool_proj -> inception_4b/pool_proj
I0403 21:52:50.153189 13153 net.cpp:141] Setting up inception_4b/pool_proj
I0403 21:52:50.153221 13153 net.cpp:148] Top shape: 24 64 14 14 (301056)
I0403 21:52:50.153237 13153 net.cpp:156] Memory required for data: 979019040
I0403 21:52:50.153255 13153 layer_factory.hpp:77] Creating layer inception_4b/relu_pool_proj
I0403 21:52:50.153275 13153 net.cpp:91] Creating Layer inception_4b/relu_pool_proj
I0403 21:52:50.153291 13153 net.cpp:425] inception_4b/relu_pool_proj <- inception_4b/pool_proj
I0403 21:52:50.153307 13153 net.cpp:386] inception_4b/relu_pool_proj -> inception_4b/pool_proj (in-place)
I0403 21:52:50.153477 13153 net.cpp:141] Setting up inception_4b/relu_pool_proj
I0403 21:52:50.153503 13153 net.cpp:148] Top shape: 24 64 14 14 (301056)
I0403 21:52:50.153518 13153 net.cpp:156] Memory required for data: 980223264
I0403 21:52:50.153534 13153 layer_factory.hpp:77] Creating layer inception_4b/output
I0403 21:52:50.153551 13153 net.cpp:91] Creating Layer inception_4b/output
I0403 21:52:50.153566 13153 net.cpp:425] inception_4b/output <- inception_4b/1x1
I0403 21:52:50.153583 13153 net.cpp:425] inception_4b/output <- inception_4b/3x3
I0403 21:52:50.153599 13153 net.cpp:425] inception_4b/output <- inception_4b/5x5
I0403 21:52:50.153614 13153 net.cpp:425] inception_4b/output <- inception_4b/pool_proj
I0403 21:52:50.153630 13153 net.cpp:399] inception_4b/output -> inception_4b/output
I0403 21:52:50.153677 13153 net.cpp:141] Setting up inception_4b/output
I0403 21:52:50.153700 13153 net.cpp:148] Top shape: 24 512 14 14 (2408448)
I0403 21:52:50.153714 13153 net.cpp:156] Memory required for data: 989857056
I0403 21:52:50.153743 13153 layer_factory.hpp:77] Creating layer inception_4b/output_inception_4b/output_0_split
I0403 21:52:50.153762 13153 net.cpp:91] Creating Layer inception_4b/output_inception_4b/output_0_split
I0403 21:52:50.153779 13153 net.cpp:425] inception_4b/output_inception_4b/output_0_split <- inception_4b/output
I0403 21:52:50.153796 13153 net.cpp:399] inception_4b/output_inception_4b/output_0_split -> inception_4b/output_inception_4b/output_0_split_0
I0403 21:52:50.153816 13153 net.cpp:399] inception_4b/output_inception_4b/output_0_split -> inception_4b/output_inception_4b/output_0_split_1
I0403 21:52:50.153836 13153 net.cpp:399] inception_4b/output_inception_4b/output_0_split -> inception_4b/output_inception_4b/output_0_split_2
I0403 21:52:50.153854 13153 net.cpp:399] inception_4b/output_inception_4b/output_0_split -> inception_4b/output_inception_4b/output_0_split_3
I0403 21:52:50.153935 13153 net.cpp:141] Setting up inception_4b/output_inception_4b/output_0_split
I0403 21:52:50.153957 13153 net.cpp:148] Top shape: 24 512 14 14 (2408448)
I0403 21:52:50.153973 13153 net.cpp:148] Top shape: 24 512 14 14 (2408448)
I0403 21:52:50.153988 13153 net.cpp:148] Top shape: 24 512 14 14 (2408448)
I0403 21:52:50.154005 13153 net.cpp:148] Top shape: 24 512 14 14 (2408448)
I0403 21:52:50.154017 13153 net.cpp:156] Memory required for data: 1028392224
I0403 21:52:50.154032 13153 layer_factory.hpp:77] Creating layer inception_4c/1x1
I0403 21:52:50.154053 13153 net.cpp:91] Creating Layer inception_4c/1x1
I0403 21:52:50.154070 13153 net.cpp:425] inception_4c/1x1 <- inception_4b/output_inception_4b/output_0_split_0
I0403 21:52:50.154091 13153 net.cpp:399] inception_4c/1x1 -> inception_4c/1x1
I0403 21:52:50.155446 13153 net.cpp:141] Setting up inception_4c/1x1
I0403 21:52:50.155474 13153 net.cpp:148] Top shape: 24 128 14 14 (602112)
I0403 21:52:50.155490 13153 net.cpp:156] Memory required for data: 1030800672
I0403 21:52:50.155508 13153 layer_factory.hpp:77] Creating layer inception_4c/relu_1x1
I0403 21:52:50.155526 13153 net.cpp:91] Creating Layer inception_4c/relu_1x1
I0403 21:52:50.155540 13153 net.cpp:425] inception_4c/relu_1x1 <- inception_4c/1x1
I0403 21:52:50.155560 13153 net.cpp:386] inception_4c/relu_1x1 -> inception_4c/1x1 (in-place)
I0403 21:52:50.155733 13153 net.cpp:141] Setting up inception_4c/relu_1x1
I0403 21:52:50.155757 13153 net.cpp:148] Top shape: 24 128 14 14 (602112)
I0403 21:52:50.155771 13153 net.cpp:156] Memory required for data: 1033209120
I0403 21:52:50.155786 13153 layer_factory.hpp:77] Creating layer inception_4c/3x3_reduce
I0403 21:52:50.155808 13153 net.cpp:91] Creating Layer inception_4c/3x3_reduce
I0403 21:52:50.155827 13153 net.cpp:425] inception_4c/3x3_reduce <- inception_4b/output_inception_4b/output_0_split_1
I0403 21:52:50.155848 13153 net.cpp:399] inception_4c/3x3_reduce -> inception_4c/3x3_reduce
I0403 21:52:50.157716 13153 net.cpp:141] Setting up inception_4c/3x3_reduce
I0403 21:52:50.157743 13153 net.cpp:148] Top shape: 24 128 14 14 (602112)
I0403 21:52:50.157758 13153 net.cpp:156] Memory required for data: 1035617568
I0403 21:52:50.157775 13153 layer_factory.hpp:77] Creating layer inception_4c/relu_3x3_reduce
I0403 21:52:50.157795 13153 net.cpp:91] Creating Layer inception_4c/relu_3x3_reduce
I0403 21:52:50.157812 13153 net.cpp:425] inception_4c/relu_3x3_reduce <- inception_4c/3x3_reduce
I0403 21:52:50.157830 13153 net.cpp:386] inception_4c/relu_3x3_reduce -> inception_4c/3x3_reduce (in-place)
I0403 21:52:50.158097 13153 net.cpp:141] Setting up inception_4c/relu_3x3_reduce
I0403 21:52:50.158123 13153 net.cpp:148] Top shape: 24 128 14 14 (602112)
I0403 21:52:50.158138 13153 net.cpp:156] Memory required for data: 1038026016
I0403 21:52:50.158151 13153 layer_factory.hpp:77] Creating layer inception_4c/3x3
I0403 21:52:50.158174 13153 net.cpp:91] Creating Layer inception_4c/3x3
I0403 21:52:50.158190 13153 net.cpp:425] inception_4c/3x3 <- inception_4c/3x3_reduce
I0403 21:52:50.158217 13153 net.cpp:399] inception_4c/3x3 -> inception_4c/3x3
I0403 21:52:50.161697 13153 net.cpp:141] Setting up inception_4c/3x3
I0403 21:52:50.161736 13153 net.cpp:148] Top shape: 24 256 14 14 (1204224)
I0403 21:52:50.161752 13153 net.cpp:156] Memory required for data: 1042842912
I0403 21:52:50.161783 13153 layer_factory.hpp:77] Creating layer inception_4c/relu_3x3
I0403 21:52:50.161806 13153 net.cpp:91] Creating Layer inception_4c/relu_3x3
I0403 21:52:50.161824 13153 net.cpp:425] inception_4c/relu_3x3 <- inception_4c/3x3
I0403 21:52:50.161841 13153 net.cpp:386] inception_4c/relu_3x3 -> inception_4c/3x3 (in-place)
I0403 21:52:50.162014 13153 net.cpp:141] Setting up inception_4c/relu_3x3
I0403 21:52:50.162039 13153 net.cpp:148] Top shape: 24 256 14 14 (1204224)
I0403 21:52:50.162052 13153 net.cpp:156] Memory required for data: 1047659808
I0403 21:52:50.162066 13153 layer_factory.hpp:77] Creating layer inception_4c/5x5_reduce
I0403 21:52:50.162088 13153 net.cpp:91] Creating Layer inception_4c/5x5_reduce
I0403 21:52:50.162106 13153 net.cpp:425] inception_4c/5x5_reduce <- inception_4b/output_inception_4b/output_0_split_2
I0403 21:52:50.162127 13153 net.cpp:399] inception_4c/5x5_reduce -> inception_4c/5x5_reduce
I0403 21:52:50.163203 13153 net.cpp:141] Setting up inception_4c/5x5_reduce
I0403 21:52:50.163234 13153 net.cpp:148] Top shape: 24 24 14 14 (112896)
I0403 21:52:50.163249 13153 net.cpp:156] Memory required for data: 1048111392
I0403 21:52:50.163267 13153 layer_factory.hpp:77] Creating layer inception_4c/relu_5x5_reduce
I0403 21:52:50.163286 13153 net.cpp:91] Creating Layer inception_4c/relu_5x5_reduce
I0403 21:52:50.163305 13153 net.cpp:425] inception_4c/relu_5x5_reduce <- inception_4c/5x5_reduce
I0403 21:52:50.163321 13153 net.cpp:386] inception_4c/relu_5x5_reduce -> inception_4c/5x5_reduce (in-place)
I0403 21:52:50.163497 13153 net.cpp:141] Setting up inception_4c/relu_5x5_reduce
I0403 21:52:50.163522 13153 net.cpp:148] Top shape: 24 24 14 14 (112896)
I0403 21:52:50.163537 13153 net.cpp:156] Memory required for data: 1048562976
I0403 21:52:50.163552 13153 layer_factory.hpp:77] Creating layer inception_4c/5x5
I0403 21:52:50.163573 13153 net.cpp:91] Creating Layer inception_4c/5x5
I0403 21:52:50.163589 13153 net.cpp:425] inception_4c/5x5 <- inception_4c/5x5_reduce
I0403 21:52:50.163607 13153 net.cpp:399] inception_4c/5x5 -> inception_4c/5x5
I0403 21:52:50.164774 13153 net.cpp:141] Setting up inception_4c/5x5
I0403 21:52:50.164803 13153 net.cpp:148] Top shape: 24 64 14 14 (301056)
I0403 21:52:50.164819 13153 net.cpp:156] Memory required for data: 1049767200
I0403 21:52:50.164836 13153 layer_factory.hpp:77] Creating layer inception_4c/relu_5x5
I0403 21:52:50.164854 13153 net.cpp:91] Creating Layer inception_4c/relu_5x5
I0403 21:52:50.164868 13153 net.cpp:425] inception_4c/relu_5x5 <- inception_4c/5x5
I0403 21:52:50.164885 13153 net.cpp:386] inception_4c/relu_5x5 -> inception_4c/5x5 (in-place)
I0403 21:52:50.165158 13153 net.cpp:141] Setting up inception_4c/relu_5x5
I0403 21:52:50.165186 13153 net.cpp:148] Top shape: 24 64 14 14 (301056)
I0403 21:52:50.165202 13153 net.cpp:156] Memory required for data: 1050971424
I0403 21:52:50.165222 13153 layer_factory.hpp:77] Creating layer inception_4c/pool
I0403 21:52:50.165241 13153 net.cpp:91] Creating Layer inception_4c/pool
I0403 21:52:50.165256 13153 net.cpp:425] inception_4c/pool <- inception_4b/output_inception_4b/output_0_split_3
I0403 21:52:50.165272 13153 net.cpp:399] inception_4c/pool -> inception_4c/pool
I0403 21:52:50.165333 13153 net.cpp:141] Setting up inception_4c/pool
I0403 21:52:50.165356 13153 net.cpp:148] Top shape: 24 512 14 14 (2408448)
I0403 21:52:50.165370 13153 net.cpp:156] Memory required for data: 1060605216
I0403 21:52:50.165385 13153 layer_factory.hpp:77] Creating layer inception_4c/pool_proj
I0403 21:52:50.165405 13153 net.cpp:91] Creating Layer inception_4c/pool_proj
I0403 21:52:50.165421 13153 net.cpp:425] inception_4c/pool_proj <- inception_4c/pool
I0403 21:52:50.165441 13153 net.cpp:399] inception_4c/pool_proj -> inception_4c/pool_proj
I0403 21:52:50.166609 13153 net.cpp:141] Setting up inception_4c/pool_proj
I0403 21:52:50.166635 13153 net.cpp:148] Top shape: 24 64 14 14 (301056)
I0403 21:52:50.166664 13153 net.cpp:156] Memory required for data: 1061809440
I0403 21:52:50.166682 13153 layer_factory.hpp:77] Creating layer inception_4c/relu_pool_proj
I0403 21:52:50.166702 13153 net.cpp:91] Creating Layer inception_4c/relu_pool_proj
I0403 21:52:50.166718 13153 net.cpp:425] inception_4c/relu_pool_proj <- inception_4c/pool_proj
I0403 21:52:50.166735 13153 net.cpp:386] inception_4c/relu_pool_proj -> inception_4c/pool_proj (in-place)
I0403 21:52:50.166920 13153 net.cpp:141] Setting up inception_4c/relu_pool_proj
I0403 21:52:50.166946 13153 net.cpp:148] Top shape: 24 64 14 14 (301056)
I0403 21:52:50.166961 13153 net.cpp:156] Memory required for data: 1063013664
I0403 21:52:50.166976 13153 layer_factory.hpp:77] Creating layer inception_4c/output
I0403 21:52:50.166992 13153 net.cpp:91] Creating Layer inception_4c/output
I0403 21:52:50.167007 13153 net.cpp:425] inception_4c/output <- inception_4c/1x1
I0403 21:52:50.167022 13153 net.cpp:425] inception_4c/output <- inception_4c/3x3
I0403 21:52:50.167037 13153 net.cpp:425] inception_4c/output <- inception_4c/5x5
I0403 21:52:50.167052 13153 net.cpp:425] inception_4c/output <- inception_4c/pool_proj
I0403 21:52:50.167068 13153 net.cpp:399] inception_4c/output -> inception_4c/output
I0403 21:52:50.167112 13153 net.cpp:141] Setting up inception_4c/output
I0403 21:52:50.167135 13153 net.cpp:148] Top shape: 24 512 14 14 (2408448)
I0403 21:52:50.167147 13153 net.cpp:156] Memory required for data: 1072647456
I0403 21:52:50.167161 13153 layer_factory.hpp:77] Creating layer inception_4c/output_inception_4c/output_0_split
I0403 21:52:50.167181 13153 net.cpp:91] Creating Layer inception_4c/output_inception_4c/output_0_split
I0403 21:52:50.167196 13153 net.cpp:425] inception_4c/output_inception_4c/output_0_split <- inception_4c/output
I0403 21:52:50.167217 13153 net.cpp:399] inception_4c/output_inception_4c/output_0_split -> inception_4c/output_inception_4c/output_0_split_0
I0403 21:52:50.167237 13153 net.cpp:399] inception_4c/output_inception_4c/output_0_split -> inception_4c/output_inception_4c/output_0_split_1
I0403 21:52:50.167256 13153 net.cpp:399] inception_4c/output_inception_4c/output_0_split -> inception_4c/output_inception_4c/output_0_split_2
I0403 21:52:50.167275 13153 net.cpp:399] inception_4c/output_inception_4c/output_0_split -> inception_4c/output_inception_4c/output_0_split_3
I0403 21:52:50.167357 13153 net.cpp:141] Setting up inception_4c/output_inception_4c/output_0_split
I0403 21:52:50.167381 13153 net.cpp:148] Top shape: 24 512 14 14 (2408448)
I0403 21:52:50.167395 13153 net.cpp:148] Top shape: 24 512 14 14 (2408448)
I0403 21:52:50.167410 13153 net.cpp:148] Top shape: 24 512 14 14 (2408448)
I0403 21:52:50.167425 13153 net.cpp:148] Top shape: 24 512 14 14 (2408448)
I0403 21:52:50.167438 13153 net.cpp:156] Memory required for data: 1111182624
I0403 21:52:50.167453 13153 layer_factory.hpp:77] Creating layer inception_4d/1x1
I0403 21:52:50.167474 13153 net.cpp:91] Creating Layer inception_4d/1x1
I0403 21:52:50.167490 13153 net.cpp:425] inception_4d/1x1 <- inception_4c/output_inception_4c/output_0_split_0
I0403 21:52:50.167513 13153 net.cpp:399] inception_4d/1x1 -> inception_4d/1x1
I0403 21:52:50.168813 13153 net.cpp:141] Setting up inception_4d/1x1
I0403 21:52:50.168839 13153 net.cpp:148] Top shape: 24 112 14 14 (526848)
I0403 21:52:50.168854 13153 net.cpp:156] Memory required for data: 1113290016
I0403 21:52:50.168871 13153 layer_factory.hpp:77] Creating layer inception_4d/relu_1x1
I0403 21:52:50.168889 13153 net.cpp:91] Creating Layer inception_4d/relu_1x1
I0403 21:52:50.168903 13153 net.cpp:425] inception_4d/relu_1x1 <- inception_4d/1x1
I0403 21:52:50.168922 13153 net.cpp:386] inception_4d/relu_1x1 -> inception_4d/1x1 (in-place)
I0403 21:52:50.169095 13153 net.cpp:141] Setting up inception_4d/relu_1x1
I0403 21:52:50.169119 13153 net.cpp:148] Top shape: 24 112 14 14 (526848)
I0403 21:52:50.169133 13153 net.cpp:156] Memory required for data: 1115397408
I0403 21:52:50.169147 13153 layer_factory.hpp:77] Creating layer inception_4d/3x3_reduce
I0403 21:52:50.169181 13153 net.cpp:91] Creating Layer inception_4d/3x3_reduce
I0403 21:52:50.169199 13153 net.cpp:425] inception_4d/3x3_reduce <- inception_4c/output_inception_4c/output_0_split_1
I0403 21:52:50.169227 13153 net.cpp:399] inception_4d/3x3_reduce -> inception_4d/3x3_reduce
I0403 21:52:50.170668 13153 net.cpp:141] Setting up inception_4d/3x3_reduce
I0403 21:52:50.170698 13153 net.cpp:148] Top shape: 24 144 14 14 (677376)
I0403 21:52:50.170717 13153 net.cpp:156] Memory required for data: 1118106912
I0403 21:52:50.170735 13153 layer_factory.hpp:77] Creating layer inception_4d/relu_3x3_reduce
I0403 21:52:50.170753 13153 net.cpp:91] Creating Layer inception_4d/relu_3x3_reduce
I0403 21:52:50.170768 13153 net.cpp:425] inception_4d/relu_3x3_reduce <- inception_4d/3x3_reduce
I0403 21:52:50.170799 13153 net.cpp:386] inception_4d/relu_3x3_reduce -> inception_4d/3x3_reduce (in-place)
I0403 21:52:50.171072 13153 net.cpp:141] Setting up inception_4d/relu_3x3_reduce
I0403 21:52:50.171099 13153 net.cpp:148] Top shape: 24 144 14 14 (677376)
I0403 21:52:50.171114 13153 net.cpp:156] Memory required for data: 1120816416
I0403 21:52:50.171128 13153 layer_factory.hpp:77] Creating layer inception_4d/3x3
I0403 21:52:50.171149 13153 net.cpp:91] Creating Layer inception_4d/3x3
I0403 21:52:50.171166 13153 net.cpp:425] inception_4d/3x3 <- inception_4d/3x3_reduce
I0403 21:52:50.171185 13153 net.cpp:399] inception_4d/3x3 -> inception_4d/3x3
I0403 21:52:50.175267 13153 net.cpp:141] Setting up inception_4d/3x3
I0403 21:52:50.175295 13153 net.cpp:148] Top shape: 24 288 14 14 (1354752)
I0403 21:52:50.175309 13153 net.cpp:156] Memory required for data: 1126235424
I0403 21:52:50.175326 13153 layer_factory.hpp:77] Creating layer inception_4d/relu_3x3
I0403 21:52:50.175346 13153 net.cpp:91] Creating Layer inception_4d/relu_3x3
I0403 21:52:50.175362 13153 net.cpp:425] inception_4d/relu_3x3 <- inception_4d/3x3
I0403 21:52:50.175380 13153 net.cpp:386] inception_4d/relu_3x3 -> inception_4d/3x3 (in-place)
I0403 21:52:50.175555 13153 net.cpp:141] Setting up inception_4d/relu_3x3
I0403 21:52:50.175580 13153 net.cpp:148] Top shape: 24 288 14 14 (1354752)
I0403 21:52:50.175593 13153 net.cpp:156] Memory required for data: 1131654432
I0403 21:52:50.175607 13153 layer_factory.hpp:77] Creating layer inception_4d/5x5_reduce
I0403 21:52:50.175628 13153 net.cpp:91] Creating Layer inception_4d/5x5_reduce
I0403 21:52:50.175645 13153 net.cpp:425] inception_4d/5x5_reduce <- inception_4c/output_inception_4c/output_0_split_2
I0403 21:52:50.175667 13153 net.cpp:399] inception_4d/5x5_reduce -> inception_4d/5x5_reduce
I0403 21:52:50.176754 13153 net.cpp:141] Setting up inception_4d/5x5_reduce
I0403 21:52:50.176780 13153 net.cpp:148] Top shape: 24 32 14 14 (150528)
I0403 21:52:50.176795 13153 net.cpp:156] Memory required for data: 1132256544
I0403 21:52:50.176812 13153 layer_factory.hpp:77] Creating layer inception_4d/relu_5x5_reduce
I0403 21:52:50.176828 13153 net.cpp:91] Creating Layer inception_4d/relu_5x5_reduce
I0403 21:52:50.176844 13153 net.cpp:425] inception_4d/relu_5x5_reduce <- inception_4d/5x5_reduce
I0403 21:52:50.176863 13153 net.cpp:386] inception_4d/relu_5x5_reduce -> inception_4d/5x5_reduce (in-place)
I0403 21:52:50.177039 13153 net.cpp:141] Setting up inception_4d/relu_5x5_reduce
I0403 21:52:50.177063 13153 net.cpp:148] Top shape: 24 32 14 14 (150528)
I0403 21:52:50.177078 13153 net.cpp:156] Memory required for data: 1132858656
I0403 21:52:50.177091 13153 layer_factory.hpp:77] Creating layer inception_4d/5x5
I0403 21:52:50.177112 13153 net.cpp:91] Creating Layer inception_4d/5x5
I0403 21:52:50.177129 13153 net.cpp:425] inception_4d/5x5 <- inception_4d/5x5_reduce
I0403 21:52:50.177150 13153 net.cpp:399] inception_4d/5x5 -> inception_4d/5x5
I0403 21:52:50.178544 13153 net.cpp:141] Setting up inception_4d/5x5
I0403 21:52:50.178570 13153 net.cpp:148] Top shape: 24 64 14 14 (301056)
I0403 21:52:50.178586 13153 net.cpp:156] Memory required for data: 1134062880
I0403 21:52:50.178606 13153 layer_factory.hpp:77] Creating layer inception_4d/relu_5x5
I0403 21:52:50.178639 13153 net.cpp:91] Creating Layer inception_4d/relu_5x5
I0403 21:52:50.178656 13153 net.cpp:425] inception_4d/relu_5x5 <- inception_4d/5x5
I0403 21:52:50.178673 13153 net.cpp:386] inception_4d/relu_5x5 -> inception_4d/5x5 (in-place)
I0403 21:52:50.178969 13153 net.cpp:141] Setting up inception_4d/relu_5x5
I0403 21:52:50.178994 13153 net.cpp:148] Top shape: 24 64 14 14 (301056)
I0403 21:52:50.179008 13153 net.cpp:156] Memory required for data: 1135267104
I0403 21:52:50.179023 13153 layer_factory.hpp:77] Creating layer inception_4d/pool
I0403 21:52:50.179045 13153 net.cpp:91] Creating Layer inception_4d/pool
I0403 21:52:50.179062 13153 net.cpp:425] inception_4d/pool <- inception_4c/output_inception_4c/output_0_split_3
I0403 21:52:50.179080 13153 net.cpp:399] inception_4d/pool -> inception_4d/pool
I0403 21:52:50.179143 13153 net.cpp:141] Setting up inception_4d/pool
I0403 21:52:50.179167 13153 net.cpp:148] Top shape: 24 512 14 14 (2408448)
I0403 21:52:50.179182 13153 net.cpp:156] Memory required for data: 1144900896
I0403 21:52:50.179195 13153 layer_factory.hpp:77] Creating layer inception_4d/pool_proj
I0403 21:52:50.179221 13153 net.cpp:91] Creating Layer inception_4d/pool_proj
I0403 21:52:50.179240 13153 net.cpp:425] inception_4d/pool_proj <- inception_4d/pool
I0403 21:52:50.179260 13153 net.cpp:399] inception_4d/pool_proj -> inception_4d/pool_proj
I0403 21:52:50.180950 13153 net.cpp:141] Setting up inception_4d/pool_proj
I0403 21:52:50.180977 13153 net.cpp:148] Top shape: 24 64 14 14 (301056)
I0403 21:52:50.180991 13153 net.cpp:156] Memory required for data: 1146105120
I0403 21:52:50.181010 13153 layer_factory.hpp:77] Creating layer inception_4d/relu_pool_proj
I0403 21:52:50.181030 13153 net.cpp:91] Creating Layer inception_4d/relu_pool_proj
I0403 21:52:50.181046 13153 net.cpp:425] inception_4d/relu_pool_proj <- inception_4d/pool_proj
I0403 21:52:50.181063 13153 net.cpp:386] inception_4d/relu_pool_proj -> inception_4d/pool_proj (in-place)
I0403 21:52:50.181241 13153 net.cpp:141] Setting up inception_4d/relu_pool_proj
I0403 21:52:50.181264 13153 net.cpp:148] Top shape: 24 64 14 14 (301056)
I0403 21:52:50.181278 13153 net.cpp:156] Memory required for data: 1147309344
I0403 21:52:50.181291 13153 layer_factory.hpp:77] Creating layer inception_4d/output
I0403 21:52:50.181310 13153 net.cpp:91] Creating Layer inception_4d/output
I0403 21:52:50.181327 13153 net.cpp:425] inception_4d/output <- inception_4d/1x1
I0403 21:52:50.181344 13153 net.cpp:425] inception_4d/output <- inception_4d/3x3
I0403 21:52:50.181360 13153 net.cpp:425] inception_4d/output <- inception_4d/5x5
I0403 21:52:50.181375 13153 net.cpp:425] inception_4d/output <- inception_4d/pool_proj
I0403 21:52:50.181390 13153 net.cpp:399] inception_4d/output -> inception_4d/output
I0403 21:52:50.181437 13153 net.cpp:141] Setting up inception_4d/output
I0403 21:52:50.181459 13153 net.cpp:148] Top shape: 24 528 14 14 (2483712)
I0403 21:52:50.181473 13153 net.cpp:156] Memory required for data: 1157244192
I0403 21:52:50.181488 13153 layer_factory.hpp:77] Creating layer inception_4d/output_inception_4d/output_0_split
I0403 21:52:50.181519 13153 net.cpp:91] Creating Layer inception_4d/output_inception_4d/output_0_split
I0403 21:52:50.181534 13153 net.cpp:425] inception_4d/output_inception_4d/output_0_split <- inception_4d/output
I0403 21:52:50.181552 13153 net.cpp:399] inception_4d/output_inception_4d/output_0_split -> inception_4d/output_inception_4d/output_0_split_0
I0403 21:52:50.181573 13153 net.cpp:399] inception_4d/output_inception_4d/output_0_split -> inception_4d/output_inception_4d/output_0_split_1
I0403 21:52:50.181594 13153 net.cpp:399] inception_4d/output_inception_4d/output_0_split -> inception_4d/output_inception_4d/output_0_split_2
I0403 21:52:50.181615 13153 net.cpp:399] inception_4d/output_inception_4d/output_0_split -> inception_4d/output_inception_4d/output_0_split_3
I0403 21:52:50.181634 13153 net.cpp:399] inception_4d/output_inception_4d/output_0_split -> inception_4d/output_inception_4d/output_0_split_4
I0403 21:52:50.181737 13153 net.cpp:141] Setting up inception_4d/output_inception_4d/output_0_split
I0403 21:52:50.181777 13153 net.cpp:148] Top shape: 24 528 14 14 (2483712)
I0403 21:52:50.181804 13153 net.cpp:148] Top shape: 24 528 14 14 (2483712)
I0403 21:52:50.181820 13153 net.cpp:148] Top shape: 24 528 14 14 (2483712)
I0403 21:52:50.181835 13153 net.cpp:148] Top shape: 24 528 14 14 (2483712)
I0403 21:52:50.181849 13153 net.cpp:148] Top shape: 24 528 14 14 (2483712)
I0403 21:52:50.181862 13153 net.cpp:156] Memory required for data: 1206918432
I0403 21:52:50.181875 13153 layer_factory.hpp:77] Creating layer loss2/ave_pool
I0403 21:52:50.181892 13153 net.cpp:91] Creating Layer loss2/ave_pool
I0403 21:52:50.181907 13153 net.cpp:425] loss2/ave_pool <- inception_4d/output_inception_4d/output_0_split_0
I0403 21:52:50.181926 13153 net.cpp:399] loss2/ave_pool -> loss2/ave_pool
I0403 21:52:50.182253 13153 net.cpp:141] Setting up loss2/ave_pool
I0403 21:52:50.182279 13153 net.cpp:148] Top shape: 24 528 4 4 (202752)
I0403 21:52:50.182296 13153 net.cpp:156] Memory required for data: 1207729440
I0403 21:52:50.182309 13153 layer_factory.hpp:77] Creating layer loss2/conv
I0403 21:52:50.182332 13153 net.cpp:91] Creating Layer loss2/conv
I0403 21:52:50.182350 13153 net.cpp:425] loss2/conv <- loss2/ave_pool
I0403 21:52:50.182371 13153 net.cpp:399] loss2/conv -> loss2/conv
I0403 21:52:50.184216 13153 net.cpp:141] Setting up loss2/conv
I0403 21:52:50.184244 13153 net.cpp:148] Top shape: 24 128 4 4 (49152)
I0403 21:52:50.184259 13153 net.cpp:156] Memory required for data: 1207926048
I0403 21:52:50.184276 13153 layer_factory.hpp:77] Creating layer loss2/relu_conv
I0403 21:52:50.184296 13153 net.cpp:91] Creating Layer loss2/relu_conv
I0403 21:52:50.184314 13153 net.cpp:425] loss2/relu_conv <- loss2/conv
I0403 21:52:50.184331 13153 net.cpp:386] loss2/relu_conv -> loss2/conv (in-place)
I0403 21:52:50.184599 13153 net.cpp:141] Setting up loss2/relu_conv
I0403 21:52:50.184625 13153 net.cpp:148] Top shape: 24 128 4 4 (49152)
I0403 21:52:50.184640 13153 net.cpp:156] Memory required for data: 1208122656
I0403 21:52:50.184654 13153 layer_factory.hpp:77] Creating layer loss2/fc
I0403 21:52:50.184674 13153 net.cpp:91] Creating Layer loss2/fc
I0403 21:52:50.184691 13153 net.cpp:425] loss2/fc <- loss2/conv
I0403 21:52:50.184716 13153 net.cpp:399] loss2/fc -> loss2/fc
I0403 21:52:50.201819 13153 net.cpp:141] Setting up loss2/fc
I0403 21:52:50.201854 13153 net.cpp:148] Top shape: 24 1024 (24576)
I0403 21:52:50.201869 13153 net.cpp:156] Memory required for data: 1208220960
I0403 21:52:50.201886 13153 layer_factory.hpp:77] Creating layer loss2/relu_fc
I0403 21:52:50.201903 13153 net.cpp:91] Creating Layer loss2/relu_fc
I0403 21:52:50.201918 13153 net.cpp:425] loss2/relu_fc <- loss2/fc
I0403 21:52:50.201937 13153 net.cpp:386] loss2/relu_fc -> loss2/fc (in-place)
I0403 21:52:50.202232 13153 net.cpp:141] Setting up loss2/relu_fc
I0403 21:52:50.202258 13153 net.cpp:148] Top shape: 24 1024 (24576)
I0403 21:52:50.202273 13153 net.cpp:156] Memory required for data: 1208319264
I0403 21:52:50.202289 13153 layer_factory.hpp:77] Creating layer loss2/drop_fc
I0403 21:52:50.202306 13153 net.cpp:91] Creating Layer loss2/drop_fc
I0403 21:52:50.202321 13153 net.cpp:425] loss2/drop_fc <- loss2/fc
I0403 21:52:50.202340 13153 net.cpp:386] loss2/drop_fc -> loss2/fc (in-place)
I0403 21:52:50.202390 13153 net.cpp:141] Setting up loss2/drop_fc
I0403 21:52:50.202414 13153 net.cpp:148] Top shape: 24 1024 (24576)
I0403 21:52:50.202427 13153 net.cpp:156] Memory required for data: 1208417568
I0403 21:52:50.202442 13153 layer_factory.hpp:77] Creating layer loss2/classifier_plantvillage
I0403 21:52:50.202460 13153 net.cpp:91] Creating Layer loss2/classifier_plantvillage
I0403 21:52:50.202473 13153 net.cpp:425] loss2/classifier_plantvillage <- loss2/fc
I0403 21:52:50.202494 13153 net.cpp:399] loss2/classifier_plantvillage -> loss2/classifier_plantvillage
I0403 21:52:50.202877 13153 net.cpp:141] Setting up loss2/classifier_plantvillage
I0403 21:52:50.202903 13153 net.cpp:148] Top shape: 24 38 (912)
I0403 21:52:50.202916 13153 net.cpp:156] Memory required for data: 1208421216
I0403 21:52:50.202950 13153 layer_factory.hpp:77] Creating layer loss2/classifier_plantvillage_loss2/classifier_plantvillage_0_split
I0403 21:52:50.202970 13153 net.cpp:91] Creating Layer loss2/classifier_plantvillage_loss2/classifier_plantvillage_0_split
I0403 21:52:50.202986 13153 net.cpp:425] loss2/classifier_plantvillage_loss2/classifier_plantvillage_0_split <- loss2/classifier_plantvillage
I0403 21:52:50.203003 13153 net.cpp:399] loss2/classifier_plantvillage_loss2/classifier_plantvillage_0_split -> loss2/classifier_plantvillage_loss2/classifier_plantvillage_0_split_0
I0403 21:52:50.203028 13153 net.cpp:399] loss2/classifier_plantvillage_loss2/classifier_plantvillage_0_split -> loss2/classifier_plantvillage_loss2/classifier_plantvillage_0_split_1
I0403 21:52:50.203048 13153 net.cpp:399] loss2/classifier_plantvillage_loss2/classifier_plantvillage_0_split -> loss2/classifier_plantvillage_loss2/classifier_plantvillage_0_split_2
I0403 21:52:50.203120 13153 net.cpp:141] Setting up loss2/classifier_plantvillage_loss2/classifier_plantvillage_0_split
I0403 21:52:50.203141 13153 net.cpp:148] Top shape: 24 38 (912)
I0403 21:52:50.203157 13153 net.cpp:148] Top shape: 24 38 (912)
I0403 21:52:50.203172 13153 net.cpp:148] Top shape: 24 38 (912)
I0403 21:52:50.203186 13153 net.cpp:156] Memory required for data: 1208432160
I0403 21:52:50.203200 13153 layer_factory.hpp:77] Creating layer inception_4e/1x1
I0403 21:52:50.203228 13153 net.cpp:91] Creating Layer inception_4e/1x1
I0403 21:52:50.203246 13153 net.cpp:425] inception_4e/1x1 <- inception_4d/output_inception_4d/output_0_split_1
I0403 21:52:50.203264 13153 net.cpp:399] inception_4e/1x1 -> inception_4e/1x1
I0403 21:52:50.204979 13153 net.cpp:141] Setting up inception_4e/1x1
I0403 21:52:50.205008 13153 net.cpp:148] Top shape: 24 256 14 14 (1204224)
I0403 21:52:50.205026 13153 net.cpp:156] Memory required for data: 1213249056
I0403 21:52:50.205044 13153 layer_factory.hpp:77] Creating layer inception_4e/relu_1x1
I0403 21:52:50.205061 13153 net.cpp:91] Creating Layer inception_4e/relu_1x1
I0403 21:52:50.205076 13153 net.cpp:425] inception_4e/relu_1x1 <- inception_4e/1x1
I0403 21:52:50.205092 13153 net.cpp:386] inception_4e/relu_1x1 -> inception_4e/1x1 (in-place)
I0403 21:52:50.205382 13153 net.cpp:141] Setting up inception_4e/relu_1x1
I0403 21:52:50.205410 13153 net.cpp:148] Top shape: 24 256 14 14 (1204224)
I0403 21:52:50.205425 13153 net.cpp:156] Memory required for data: 1218065952
I0403 21:52:50.205441 13153 layer_factory.hpp:77] Creating layer inception_4e/3x3_reduce
I0403 21:52:50.205462 13153 net.cpp:91] Creating Layer inception_4e/3x3_reduce
I0403 21:52:50.205479 13153 net.cpp:425] inception_4e/3x3_reduce <- inception_4d/output_inception_4d/output_0_split_2
I0403 21:52:50.205499 13153 net.cpp:399] inception_4e/3x3_reduce -> inception_4e/3x3_reduce
I0403 21:52:50.207553 13153 net.cpp:141] Setting up inception_4e/3x3_reduce
I0403 21:52:50.207582 13153 net.cpp:148] Top shape: 24 160 14 14 (752640)
I0403 21:52:50.207598 13153 net.cpp:156] Memory required for data: 1221076512
I0403 21:52:50.207615 13153 layer_factory.hpp:77] Creating layer inception_4e/relu_3x3_reduce
I0403 21:52:50.207634 13153 net.cpp:91] Creating Layer inception_4e/relu_3x3_reduce
I0403 21:52:50.207651 13153 net.cpp:425] inception_4e/relu_3x3_reduce <- inception_4e/3x3_reduce
I0403 21:52:50.207669 13153 net.cpp:386] inception_4e/relu_3x3_reduce -> inception_4e/3x3_reduce (in-place)
I0403 21:52:50.207844 13153 net.cpp:141] Setting up inception_4e/relu_3x3_reduce
I0403 21:52:50.207870 13153 net.cpp:148] Top shape: 24 160 14 14 (752640)
I0403 21:52:50.207885 13153 net.cpp:156] Memory required for data: 1224087072
I0403 21:52:50.207898 13153 layer_factory.hpp:77] Creating layer inception_4e/3x3
I0403 21:52:50.207921 13153 net.cpp:91] Creating Layer inception_4e/3x3
I0403 21:52:50.207938 13153 net.cpp:425] inception_4e/3x3 <- inception_4e/3x3_reduce
I0403 21:52:50.207957 13153 net.cpp:399] inception_4e/3x3 -> inception_4e/3x3
I0403 21:52:50.212776 13153 net.cpp:141] Setting up inception_4e/3x3
I0403 21:52:50.212821 13153 net.cpp:148] Top shape: 24 320 14 14 (1505280)
I0403 21:52:50.212837 13153 net.cpp:156] Memory required for data: 1230108192
I0403 21:52:50.212854 13153 layer_factory.hpp:77] Creating layer inception_4e/relu_3x3
I0403 21:52:50.212872 13153 net.cpp:91] Creating Layer inception_4e/relu_3x3
I0403 21:52:50.212887 13153 net.cpp:425] inception_4e/relu_3x3 <- inception_4e/3x3
I0403 21:52:50.212906 13153 net.cpp:386] inception_4e/relu_3x3 -> inception_4e/3x3 (in-place)
I0403 21:52:50.213188 13153 net.cpp:141] Setting up inception_4e/relu_3x3
I0403 21:52:50.213217 13153 net.cpp:148] Top shape: 24 320 14 14 (1505280)
I0403 21:52:50.213233 13153 net.cpp:156] Memory required for data: 1236129312
I0403 21:52:50.213248 13153 layer_factory.hpp:77] Creating layer inception_4e/5x5_reduce
I0403 21:52:50.213271 13153 net.cpp:91] Creating Layer inception_4e/5x5_reduce
I0403 21:52:50.213289 13153 net.cpp:425] inception_4e/5x5_reduce <- inception_4d/output_inception_4d/output_0_split_3
I0403 21:52:50.213311 13153 net.cpp:399] inception_4e/5x5_reduce -> inception_4e/5x5_reduce
I0403 21:52:50.214329 13153 net.cpp:141] Setting up inception_4e/5x5_reduce
I0403 21:52:50.214355 13153 net.cpp:148] Top shape: 24 32 14 14 (150528)
I0403 21:52:50.214370 13153 net.cpp:156] Memory required for data: 1236731424
I0403 21:52:50.214388 13153 layer_factory.hpp:77] Creating layer inception_4e/relu_5x5_reduce
I0403 21:52:50.214412 13153 net.cpp:91] Creating Layer inception_4e/relu_5x5_reduce
I0403 21:52:50.214428 13153 net.cpp:425] inception_4e/relu_5x5_reduce <- inception_4e/5x5_reduce
I0403 21:52:50.214444 13153 net.cpp:386] inception_4e/relu_5x5_reduce -> inception_4e/5x5_reduce (in-place)
I0403 21:52:50.214741 13153 net.cpp:141] Setting up inception_4e/relu_5x5_reduce
I0403 21:52:50.214768 13153 net.cpp:148] Top shape: 24 32 14 14 (150528)
I0403 21:52:50.214784 13153 net.cpp:156] Memory required for data: 1237333536
I0403 21:52:50.214802 13153 layer_factory.hpp:77] Creating layer inception_4e/5x5
I0403 21:52:50.214853 13153 net.cpp:91] Creating Layer inception_4e/5x5
I0403 21:52:50.214872 13153 net.cpp:425] inception_4e/5x5 <- inception_4e/5x5_reduce
I0403 21:52:50.214895 13153 net.cpp:399] inception_4e/5x5 -> inception_4e/5x5
I0403 21:52:50.216619 13153 net.cpp:141] Setting up inception_4e/5x5
I0403 21:52:50.216646 13153 net.cpp:148] Top shape: 24 128 14 14 (602112)
I0403 21:52:50.216661 13153 net.cpp:156] Memory required for data: 1239741984
I0403 21:52:50.216681 13153 layer_factory.hpp:77] Creating layer inception_4e/relu_5x5
I0403 21:52:50.216701 13153 net.cpp:91] Creating Layer inception_4e/relu_5x5
I0403 21:52:50.216716 13153 net.cpp:425] inception_4e/relu_5x5 <- inception_4e/5x5
I0403 21:52:50.216732 13153 net.cpp:386] inception_4e/relu_5x5 -> inception_4e/5x5 (in-place)
I0403 21:52:50.216919 13153 net.cpp:141] Setting up inception_4e/relu_5x5
I0403 21:52:50.216944 13153 net.cpp:148] Top shape: 24 128 14 14 (602112)
I0403 21:52:50.216960 13153 net.cpp:156] Memory required for data: 1242150432
I0403 21:52:50.216974 13153 layer_factory.hpp:77] Creating layer inception_4e/pool
I0403 21:52:50.216995 13153 net.cpp:91] Creating Layer inception_4e/pool
I0403 21:52:50.217010 13153 net.cpp:425] inception_4e/pool <- inception_4d/output_inception_4d/output_0_split_4
I0403 21:52:50.217028 13153 net.cpp:399] inception_4e/pool -> inception_4e/pool
I0403 21:52:50.217095 13153 net.cpp:141] Setting up inception_4e/pool
I0403 21:52:50.217119 13153 net.cpp:148] Top shape: 24 528 14 14 (2483712)
I0403 21:52:50.217134 13153 net.cpp:156] Memory required for data: 1252085280
I0403 21:52:50.217149 13153 layer_factory.hpp:77] Creating layer inception_4e/pool_proj
I0403 21:52:50.217170 13153 net.cpp:91] Creating Layer inception_4e/pool_proj
I0403 21:52:50.217187 13153 net.cpp:425] inception_4e/pool_proj <- inception_4e/pool
I0403 21:52:50.217213 13153 net.cpp:399] inception_4e/pool_proj -> inception_4e/pool_proj
I0403 21:52:50.218653 13153 net.cpp:141] Setting up inception_4e/pool_proj
I0403 21:52:50.218682 13153 net.cpp:148] Top shape: 24 128 14 14 (602112)
I0403 21:52:50.218711 13153 net.cpp:156] Memory required for data: 1254493728
I0403 21:52:50.218731 13153 layer_factory.hpp:77] Creating layer inception_4e/relu_pool_proj
I0403 21:52:50.218752 13153 net.cpp:91] Creating Layer inception_4e/relu_pool_proj
I0403 21:52:50.218770 13153 net.cpp:425] inception_4e/relu_pool_proj <- inception_4e/pool_proj
I0403 21:52:50.218801 13153 net.cpp:386] inception_4e/relu_pool_proj -> inception_4e/pool_proj (in-place)
I0403 21:52:50.219072 13153 net.cpp:141] Setting up inception_4e/relu_pool_proj
I0403 21:52:50.219097 13153 net.cpp:148] Top shape: 24 128 14 14 (602112)
I0403 21:52:50.219111 13153 net.cpp:156] Memory required for data: 1256902176
I0403 21:52:50.219126 13153 layer_factory.hpp:77] Creating layer inception_4e/output
I0403 21:52:50.219143 13153 net.cpp:91] Creating Layer inception_4e/output
I0403 21:52:50.219159 13153 net.cpp:425] inception_4e/output <- inception_4e/1x1
I0403 21:52:50.219177 13153 net.cpp:425] inception_4e/output <- inception_4e/3x3
I0403 21:52:50.219192 13153 net.cpp:425] inception_4e/output <- inception_4e/5x5
I0403 21:52:50.219208 13153 net.cpp:425] inception_4e/output <- inception_4e/pool_proj
I0403 21:52:50.219233 13153 net.cpp:399] inception_4e/output -> inception_4e/output
I0403 21:52:50.219282 13153 net.cpp:141] Setting up inception_4e/output
I0403 21:52:50.219308 13153 net.cpp:148] Top shape: 24 832 14 14 (3913728)
I0403 21:52:50.219324 13153 net.cpp:156] Memory required for data: 1272557088
I0403 21:52:50.219339 13153 layer_factory.hpp:77] Creating layer pool4/3x3_s2
I0403 21:52:50.219355 13153 net.cpp:91] Creating Layer pool4/3x3_s2
I0403 21:52:50.219370 13153 net.cpp:425] pool4/3x3_s2 <- inception_4e/output
I0403 21:52:50.219393 13153 net.cpp:399] pool4/3x3_s2 -> pool4/3x3_s2
I0403 21:52:50.219455 13153 net.cpp:141] Setting up pool4/3x3_s2
I0403 21:52:50.219480 13153 net.cpp:148] Top shape: 24 832 7 7 (978432)
I0403 21:52:50.219496 13153 net.cpp:156] Memory required for data: 1276470816
I0403 21:52:50.219511 13153 layer_factory.hpp:77] Creating layer pool4/3x3_s2_pool4/3x3_s2_0_split
I0403 21:52:50.219529 13153 net.cpp:91] Creating Layer pool4/3x3_s2_pool4/3x3_s2_0_split
I0403 21:52:50.219547 13153 net.cpp:425] pool4/3x3_s2_pool4/3x3_s2_0_split <- pool4/3x3_s2
I0403 21:52:50.219563 13153 net.cpp:399] pool4/3x3_s2_pool4/3x3_s2_0_split -> pool4/3x3_s2_pool4/3x3_s2_0_split_0
I0403 21:52:50.219583 13153 net.cpp:399] pool4/3x3_s2_pool4/3x3_s2_0_split -> pool4/3x3_s2_pool4/3x3_s2_0_split_1
I0403 21:52:50.219604 13153 net.cpp:399] pool4/3x3_s2_pool4/3x3_s2_0_split -> pool4/3x3_s2_pool4/3x3_s2_0_split_2
I0403 21:52:50.219626 13153 net.cpp:399] pool4/3x3_s2_pool4/3x3_s2_0_split -> pool4/3x3_s2_pool4/3x3_s2_0_split_3
I0403 21:52:50.219713 13153 net.cpp:141] Setting up pool4/3x3_s2_pool4/3x3_s2_0_split
I0403 21:52:50.219737 13153 net.cpp:148] Top shape: 24 832 7 7 (978432)
I0403 21:52:50.219753 13153 net.cpp:148] Top shape: 24 832 7 7 (978432)
I0403 21:52:50.219769 13153 net.cpp:148] Top shape: 24 832 7 7 (978432)
I0403 21:52:50.219784 13153 net.cpp:148] Top shape: 24 832 7 7 (978432)
I0403 21:52:50.219799 13153 net.cpp:156] Memory required for data: 1292125728
I0403 21:52:50.219812 13153 layer_factory.hpp:77] Creating layer inception_5a/1x1
I0403 21:52:50.219835 13153 net.cpp:91] Creating Layer inception_5a/1x1
I0403 21:52:50.219852 13153 net.cpp:425] inception_5a/1x1 <- pool4/3x3_s2_pool4/3x3_s2_0_split_0
I0403 21:52:50.219873 13153 net.cpp:399] inception_5a/1x1 -> inception_5a/1x1
I0403 21:52:50.222626 13153 net.cpp:141] Setting up inception_5a/1x1
I0403 21:52:50.222656 13153 net.cpp:148] Top shape: 24 256 7 7 (301056)
I0403 21:52:50.222671 13153 net.cpp:156] Memory required for data: 1293329952
I0403 21:52:50.222689 13153 layer_factory.hpp:77] Creating layer inception_5a/relu_1x1
I0403 21:52:50.222709 13153 net.cpp:91] Creating Layer inception_5a/relu_1x1
I0403 21:52:50.222726 13153 net.cpp:425] inception_5a/relu_1x1 <- inception_5a/1x1
I0403 21:52:50.222743 13153 net.cpp:386] inception_5a/relu_1x1 -> inception_5a/1x1 (in-place)
I0403 21:52:50.223057 13153 net.cpp:141] Setting up inception_5a/relu_1x1
I0403 21:52:50.223083 13153 net.cpp:148] Top shape: 24 256 7 7 (301056)
I0403 21:52:50.223096 13153 net.cpp:156] Memory required for data: 1294534176
I0403 21:52:50.223110 13153 layer_factory.hpp:77] Creating layer inception_5a/3x3_reduce
I0403 21:52:50.223131 13153 net.cpp:91] Creating Layer inception_5a/3x3_reduce
I0403 21:52:50.223148 13153 net.cpp:425] inception_5a/3x3_reduce <- pool4/3x3_s2_pool4/3x3_s2_0_split_1
I0403 21:52:50.223170 13153 net.cpp:399] inception_5a/3x3_reduce -> inception_5a/3x3_reduce
I0403 21:52:50.225492 13153 net.cpp:141] Setting up inception_5a/3x3_reduce
I0403 21:52:50.225522 13153 net.cpp:148] Top shape: 24 160 7 7 (188160)
I0403 21:52:50.225536 13153 net.cpp:156] Memory required for data: 1295286816
I0403 21:52:50.225554 13153 layer_factory.hpp:77] Creating layer inception_5a/relu_3x3_reduce
I0403 21:52:50.225571 13153 net.cpp:91] Creating Layer inception_5a/relu_3x3_reduce
I0403 21:52:50.225586 13153 net.cpp:425] inception_5a/relu_3x3_reduce <- inception_5a/3x3_reduce
I0403 21:52:50.225605 13153 net.cpp:386] inception_5a/relu_3x3_reduce -> inception_5a/3x3_reduce (in-place)
I0403 21:52:50.225781 13153 net.cpp:141] Setting up inception_5a/relu_3x3_reduce
I0403 21:52:50.225805 13153 net.cpp:148] Top shape: 24 160 7 7 (188160)
I0403 21:52:50.225819 13153 net.cpp:156] Memory required for data: 1296039456
I0403 21:52:50.225833 13153 layer_factory.hpp:77] Creating layer inception_5a/3x3
I0403 21:52:50.225854 13153 net.cpp:91] Creating Layer inception_5a/3x3
I0403 21:52:50.225872 13153 net.cpp:425] inception_5a/3x3 <- inception_5a/3x3_reduce
I0403 21:52:50.225896 13153 net.cpp:399] inception_5a/3x3 -> inception_5a/3x3
I0403 21:52:50.230715 13153 net.cpp:141] Setting up inception_5a/3x3
I0403 21:52:50.230743 13153 net.cpp:148] Top shape: 24 320 7 7 (376320)
I0403 21:52:50.230758 13153 net.cpp:156] Memory required for data: 1297544736
I0403 21:52:50.230777 13153 layer_factory.hpp:77] Creating layer inception_5a/relu_3x3
I0403 21:52:50.230808 13153 net.cpp:91] Creating Layer inception_5a/relu_3x3
I0403 21:52:50.230823 13153 net.cpp:425] inception_5a/relu_3x3 <- inception_5a/3x3
I0403 21:52:50.230840 13153 net.cpp:386] inception_5a/relu_3x3 -> inception_5a/3x3 (in-place)
I0403 21:52:50.231115 13153 net.cpp:141] Setting up inception_5a/relu_3x3
I0403 21:52:50.231139 13153 net.cpp:148] Top shape: 24 320 7 7 (376320)
I0403 21:52:50.231154 13153 net.cpp:156] Memory required for data: 1299050016
I0403 21:52:50.231168 13153 layer_factory.hpp:77] Creating layer inception_5a/5x5_reduce
I0403 21:52:50.231189 13153 net.cpp:91] Creating Layer inception_5a/5x5_reduce
I0403 21:52:50.231206 13153 net.cpp:425] inception_5a/5x5_reduce <- pool4/3x3_s2_pool4/3x3_s2_0_split_2
I0403 21:52:50.231233 13153 net.cpp:399] inception_5a/5x5_reduce -> inception_5a/5x5_reduce
I0403 21:52:50.232352 13153 net.cpp:141] Setting up inception_5a/5x5_reduce
I0403 21:52:50.232379 13153 net.cpp:148] Top shape: 24 32 7 7 (37632)
I0403 21:52:50.232393 13153 net.cpp:156] Memory required for data: 1299200544
I0403 21:52:50.232411 13153 layer_factory.hpp:77] Creating layer inception_5a/relu_5x5_reduce
I0403 21:52:50.232430 13153 net.cpp:91] Creating Layer inception_5a/relu_5x5_reduce
I0403 21:52:50.232446 13153 net.cpp:425] inception_5a/relu_5x5_reduce <- inception_5a/5x5_reduce
I0403 21:52:50.232462 13153 net.cpp:386] inception_5a/relu_5x5_reduce -> inception_5a/5x5_reduce (in-place)
I0403 21:52:50.232748 13153 net.cpp:141] Setting up inception_5a/relu_5x5_reduce
I0403 21:52:50.232771 13153 net.cpp:148] Top shape: 24 32 7 7 (37632)
I0403 21:52:50.232786 13153 net.cpp:156] Memory required for data: 1299351072
I0403 21:52:50.232800 13153 layer_factory.hpp:77] Creating layer inception_5a/5x5
I0403 21:52:50.232823 13153 net.cpp:91] Creating Layer inception_5a/5x5
I0403 21:52:50.232841 13153 net.cpp:425] inception_5a/5x5 <- inception_5a/5x5_reduce
I0403 21:52:50.232859 13153 net.cpp:399] inception_5a/5x5 -> inception_5a/5x5
I0403 21:52:50.234490 13153 net.cpp:141] Setting up inception_5a/5x5
I0403 21:52:50.234539 13153 net.cpp:148] Top shape: 24 128 7 7 (150528)
I0403 21:52:50.234555 13153 net.cpp:156] Memory required for data: 1299953184
I0403 21:52:50.234572 13153 layer_factory.hpp:77] Creating layer inception_5a/relu_5x5
I0403 21:52:50.234593 13153 net.cpp:91] Creating Layer inception_5a/relu_5x5
I0403 21:52:50.234609 13153 net.cpp:425] inception_5a/relu_5x5 <- inception_5a/5x5
I0403 21:52:50.234627 13153 net.cpp:386] inception_5a/relu_5x5 -> inception_5a/5x5 (in-place)
I0403 21:52:50.234825 13153 net.cpp:141] Setting up inception_5a/relu_5x5
I0403 21:52:50.234849 13153 net.cpp:148] Top shape: 24 128 7 7 (150528)
I0403 21:52:50.234863 13153 net.cpp:156] Memory required for data: 1300555296
I0403 21:52:50.234877 13153 layer_factory.hpp:77] Creating layer inception_5a/pool
I0403 21:52:50.234895 13153 net.cpp:91] Creating Layer inception_5a/pool
I0403 21:52:50.234912 13153 net.cpp:425] inception_5a/pool <- pool4/3x3_s2_pool4/3x3_s2_0_split_3
I0403 21:52:50.234931 13153 net.cpp:399] inception_5a/pool -> inception_5a/pool
I0403 21:52:50.234997 13153 net.cpp:141] Setting up inception_5a/pool
I0403 21:52:50.235020 13153 net.cpp:148] Top shape: 24 832 7 7 (978432)
I0403 21:52:50.235034 13153 net.cpp:156] Memory required for data: 1304469024
I0403 21:52:50.235049 13153 layer_factory.hpp:77] Creating layer inception_5a/pool_proj
I0403 21:52:50.235072 13153 net.cpp:91] Creating Layer inception_5a/pool_proj
I0403 21:52:50.235088 13153 net.cpp:425] inception_5a/pool_proj <- inception_5a/pool
I0403 21:52:50.235110 13153 net.cpp:399] inception_5a/pool_proj -> inception_5a/pool_proj
I0403 21:52:50.237298 13153 net.cpp:141] Setting up inception_5a/pool_proj
I0403 21:52:50.237324 13153 net.cpp:148] Top shape: 24 128 7 7 (150528)
I0403 21:52:50.237339 13153 net.cpp:156] Memory required for data: 1305071136
I0403 21:52:50.237356 13153 layer_factory.hpp:77] Creating layer inception_5a/relu_pool_proj
I0403 21:52:50.237373 13153 net.cpp:91] Creating Layer inception_5a/relu_pool_proj
I0403 21:52:50.237390 13153 net.cpp:425] inception_5a/relu_pool_proj <- inception_5a/pool_proj
I0403 21:52:50.237407 13153 net.cpp:386] inception_5a/relu_pool_proj -> inception_5a/pool_proj (in-place)
I0403 21:52:50.237694 13153 net.cpp:141] Setting up inception_5a/relu_pool_proj
I0403 21:52:50.237720 13153 net.cpp:148] Top shape: 24 128 7 7 (150528)
I0403 21:52:50.237735 13153 net.cpp:156] Memory required for data: 1305673248
I0403 21:52:50.237748 13153 layer_factory.hpp:77] Creating layer inception_5a/output
I0403 21:52:50.237766 13153 net.cpp:91] Creating Layer inception_5a/output
I0403 21:52:50.237781 13153 net.cpp:425] inception_5a/output <- inception_5a/1x1
I0403 21:52:50.237795 13153 net.cpp:425] inception_5a/output <- inception_5a/3x3
I0403 21:52:50.237810 13153 net.cpp:425] inception_5a/output <- inception_5a/5x5
I0403 21:52:50.237825 13153 net.cpp:425] inception_5a/output <- inception_5a/pool_proj
I0403 21:52:50.237844 13153 net.cpp:399] inception_5a/output -> inception_5a/output
I0403 21:52:50.237891 13153 net.cpp:141] Setting up inception_5a/output
I0403 21:52:50.237916 13153 net.cpp:148] Top shape: 24 832 7 7 (978432)
I0403 21:52:50.237931 13153 net.cpp:156] Memory required for data: 1309586976
I0403 21:52:50.237944 13153 layer_factory.hpp:77] Creating layer inception_5a/output_inception_5a/output_0_split
I0403 21:52:50.237962 13153 net.cpp:91] Creating Layer inception_5a/output_inception_5a/output_0_split
I0403 21:52:50.237975 13153 net.cpp:425] inception_5a/output_inception_5a/output_0_split <- inception_5a/output
I0403 21:52:50.237993 13153 net.cpp:399] inception_5a/output_inception_5a/output_0_split -> inception_5a/output_inception_5a/output_0_split_0
I0403 21:52:50.238014 13153 net.cpp:399] inception_5a/output_inception_5a/output_0_split -> inception_5a/output_inception_5a/output_0_split_1
I0403 21:52:50.238036 13153 net.cpp:399] inception_5a/output_inception_5a/output_0_split -> inception_5a/output_inception_5a/output_0_split_2
I0403 21:52:50.238056 13153 net.cpp:399] inception_5a/output_inception_5a/output_0_split -> inception_5a/output_inception_5a/output_0_split_3
I0403 21:52:50.238162 13153 net.cpp:141] Setting up inception_5a/output_inception_5a/output_0_split
I0403 21:52:50.238185 13153 net.cpp:148] Top shape: 24 832 7 7 (978432)
I0403 21:52:50.238201 13153 net.cpp:148] Top shape: 24 832 7 7 (978432)
I0403 21:52:50.238222 13153 net.cpp:148] Top shape: 24 832 7 7 (978432)
I0403 21:52:50.238237 13153 net.cpp:148] Top shape: 24 832 7 7 (978432)
I0403 21:52:50.238250 13153 net.cpp:156] Memory required for data: 1325241888
I0403 21:52:50.238263 13153 layer_factory.hpp:77] Creating layer inception_5b/1x1
I0403 21:52:50.238286 13153 net.cpp:91] Creating Layer inception_5b/1x1
I0403 21:52:50.238304 13153 net.cpp:425] inception_5b/1x1 <- inception_5a/output_inception_5a/output_0_split_0
I0403 21:52:50.238322 13153 net.cpp:399] inception_5b/1x1 -> inception_5b/1x1
I0403 21:52:50.241976 13153 net.cpp:141] Setting up inception_5b/1x1
I0403 21:52:50.242007 13153 net.cpp:148] Top shape: 24 384 7 7 (451584)
I0403 21:52:50.242022 13153 net.cpp:156] Memory required for data: 1327048224
I0403 21:52:50.242038 13153 layer_factory.hpp:77] Creating layer inception_5b/relu_1x1
I0403 21:52:50.242056 13153 net.cpp:91] Creating Layer inception_5b/relu_1x1
I0403 21:52:50.242072 13153 net.cpp:425] inception_5b/relu_1x1 <- inception_5b/1x1
I0403 21:52:50.242091 13153 net.cpp:386] inception_5b/relu_1x1 -> inception_5b/1x1 (in-place)
I0403 21:52:50.242393 13153 net.cpp:141] Setting up inception_5b/relu_1x1
I0403 21:52:50.242419 13153 net.cpp:148] Top shape: 24 384 7 7 (451584)
I0403 21:52:50.242434 13153 net.cpp:156] Memory required for data: 1328854560
I0403 21:52:50.242447 13153 layer_factory.hpp:77] Creating layer inception_5b/3x3_reduce
I0403 21:52:50.242470 13153 net.cpp:91] Creating Layer inception_5b/3x3_reduce
I0403 21:52:50.242487 13153 net.cpp:425] inception_5b/3x3_reduce <- inception_5a/output_inception_5a/output_0_split_1
I0403 21:52:50.242511 13153 net.cpp:399] inception_5b/3x3_reduce -> inception_5b/3x3_reduce
I0403 21:52:50.245070 13153 net.cpp:141] Setting up inception_5b/3x3_reduce
I0403 21:52:50.245097 13153 net.cpp:148] Top shape: 24 192 7 7 (225792)
I0403 21:52:50.245112 13153 net.cpp:156] Memory required for data: 1329757728
I0403 21:52:50.245131 13153 layer_factory.hpp:77] Creating layer inception_5b/relu_3x3_reduce
I0403 21:52:50.245147 13153 net.cpp:91] Creating Layer inception_5b/relu_3x3_reduce
I0403 21:52:50.245163 13153 net.cpp:425] inception_5b/relu_3x3_reduce <- inception_5b/3x3_reduce
I0403 21:52:50.245182 13153 net.cpp:386] inception_5b/relu_3x3_reduce -> inception_5b/3x3_reduce (in-place)
I0403 21:52:50.245373 13153 net.cpp:141] Setting up inception_5b/relu_3x3_reduce
I0403 21:52:50.245398 13153 net.cpp:148] Top shape: 24 192 7 7 (225792)
I0403 21:52:50.245414 13153 net.cpp:156] Memory required for data: 1330660896
I0403 21:52:50.245427 13153 layer_factory.hpp:77] Creating layer inception_5b/3x3
I0403 21:52:50.245448 13153 net.cpp:91] Creating Layer inception_5b/3x3
I0403 21:52:50.245466 13153 net.cpp:425] inception_5b/3x3 <- inception_5b/3x3_reduce
I0403 21:52:50.245486 13153 net.cpp:399] inception_5b/3x3 -> inception_5b/3x3
I0403 21:52:50.252009 13153 net.cpp:141] Setting up inception_5b/3x3
I0403 21:52:50.252039 13153 net.cpp:148] Top shape: 24 384 7 7 (451584)
I0403 21:52:50.252054 13153 net.cpp:156] Memory required for data: 1332467232
I0403 21:52:50.252074 13153 layer_factory.hpp:77] Creating layer inception_5b/relu_3x3
I0403 21:52:50.252091 13153 net.cpp:91] Creating Layer inception_5b/relu_3x3
I0403 21:52:50.252105 13153 net.cpp:425] inception_5b/relu_3x3 <- inception_5b/3x3
I0403 21:52:50.252125 13153 net.cpp:386] inception_5b/relu_3x3 -> inception_5b/3x3 (in-place)
I0403 21:52:50.252420 13153 net.cpp:141] Setting up inception_5b/relu_3x3
I0403 21:52:50.252447 13153 net.cpp:148] Top shape: 24 384 7 7 (451584)
I0403 21:52:50.252462 13153 net.cpp:156] Memory required for data: 1334273568
I0403 21:52:50.252477 13153 layer_factory.hpp:77] Creating layer inception_5b/5x5_reduce
I0403 21:52:50.252514 13153 net.cpp:91] Creating Layer inception_5b/5x5_reduce
I0403 21:52:50.252532 13153 net.cpp:425] inception_5b/5x5_reduce <- inception_5a/output_inception_5a/output_0_split_2
I0403 21:52:50.252557 13153 net.cpp:399] inception_5b/5x5_reduce -> inception_5b/5x5_reduce
I0403 21:52:50.253772 13153 net.cpp:141] Setting up inception_5b/5x5_reduce
I0403 21:52:50.253798 13153 net.cpp:148] Top shape: 24 48 7 7 (56448)
I0403 21:52:50.253813 13153 net.cpp:156] Memory required for data: 1334499360
I0403 21:52:50.253830 13153 layer_factory.hpp:77] Creating layer inception_5b/relu_5x5_reduce
I0403 21:52:50.253850 13153 net.cpp:91] Creating Layer inception_5b/relu_5x5_reduce
I0403 21:52:50.253867 13153 net.cpp:425] inception_5b/relu_5x5_reduce <- inception_5b/5x5_reduce
I0403 21:52:50.253885 13153 net.cpp:386] inception_5b/relu_5x5_reduce -> inception_5b/5x5_reduce (in-place)
I0403 21:52:50.254266 13153 net.cpp:141] Setting up inception_5b/relu_5x5_reduce
I0403 21:52:50.254292 13153 net.cpp:148] Top shape: 24 48 7 7 (56448)
I0403 21:52:50.254307 13153 net.cpp:156] Memory required for data: 1334725152
I0403 21:52:50.254320 13153 layer_factory.hpp:77] Creating layer inception_5b/5x5
I0403 21:52:50.254340 13153 net.cpp:91] Creating Layer inception_5b/5x5
I0403 21:52:50.254359 13153 net.cpp:425] inception_5b/5x5 <- inception_5b/5x5_reduce
I0403 21:52:50.254376 13153 net.cpp:399] inception_5b/5x5 -> inception_5b/5x5
I0403 21:52:50.256362 13153 net.cpp:141] Setting up inception_5b/5x5
I0403 21:52:50.256388 13153 net.cpp:148] Top shape: 24 128 7 7 (150528)
I0403 21:52:50.256403 13153 net.cpp:156] Memory required for data: 1335327264
I0403 21:52:50.256420 13153 layer_factory.hpp:77] Creating layer inception_5b/relu_5x5
I0403 21:52:50.256441 13153 net.cpp:91] Creating Layer inception_5b/relu_5x5
I0403 21:52:50.256458 13153 net.cpp:425] inception_5b/relu_5x5 <- inception_5b/5x5
I0403 21:52:50.256476 13153 net.cpp:386] inception_5b/relu_5x5 -> inception_5b/5x5 (in-place)
I0403 21:52:50.256660 13153 net.cpp:141] Setting up inception_5b/relu_5x5
I0403 21:52:50.256686 13153 net.cpp:148] Top shape: 24 128 7 7 (150528)
I0403 21:52:50.256701 13153 net.cpp:156] Memory required for data: 1335929376
I0403 21:52:50.256716 13153 layer_factory.hpp:77] Creating layer inception_5b/pool
I0403 21:52:50.256732 13153 net.cpp:91] Creating Layer inception_5b/pool
I0403 21:52:50.256749 13153 net.cpp:425] inception_5b/pool <- inception_5a/output_inception_5a/output_0_split_3
I0403 21:52:50.256767 13153 net.cpp:399] inception_5b/pool -> inception_5b/pool
I0403 21:52:50.256834 13153 net.cpp:141] Setting up inception_5b/pool
I0403 21:52:50.256857 13153 net.cpp:148] Top shape: 24 832 7 7 (978432)
I0403 21:52:50.256871 13153 net.cpp:156] Memory required for data: 1339843104
I0403 21:52:50.256886 13153 layer_factory.hpp:77] Creating layer inception_5b/pool_proj
I0403 21:52:50.256908 13153 net.cpp:91] Creating Layer inception_5b/pool_proj
I0403 21:52:50.256924 13153 net.cpp:425] inception_5b/pool_proj <- inception_5b/pool
I0403 21:52:50.256948 13153 net.cpp:399] inception_5b/pool_proj -> inception_5b/pool_proj
I0403 21:52:50.259215 13153 net.cpp:141] Setting up inception_5b/pool_proj
I0403 21:52:50.259243 13153 net.cpp:148] Top shape: 24 128 7 7 (150528)
I0403 21:52:50.259258 13153 net.cpp:156] Memory required for data: 1340445216
I0403 21:52:50.259276 13153 layer_factory.hpp:77] Creating layer inception_5b/relu_pool_proj
I0403 21:52:50.259296 13153 net.cpp:91] Creating Layer inception_5b/relu_pool_proj
I0403 21:52:50.259315 13153 net.cpp:425] inception_5b/relu_pool_proj <- inception_5b/pool_proj
I0403 21:52:50.259330 13153 net.cpp:386] inception_5b/relu_pool_proj -> inception_5b/pool_proj (in-place)
I0403 21:52:50.259611 13153 net.cpp:141] Setting up inception_5b/relu_pool_proj
I0403 21:52:50.259636 13153 net.cpp:148] Top shape: 24 128 7 7 (150528)
I0403 21:52:50.259651 13153 net.cpp:156] Memory required for data: 1341047328
I0403 21:52:50.259666 13153 layer_factory.hpp:77] Creating layer inception_5b/output
I0403 21:52:50.259685 13153 net.cpp:91] Creating Layer inception_5b/output
I0403 21:52:50.259713 13153 net.cpp:425] inception_5b/output <- inception_5b/1x1
I0403 21:52:50.259732 13153 net.cpp:425] inception_5b/output <- inception_5b/3x3
I0403 21:52:50.259750 13153 net.cpp:425] inception_5b/output <- inception_5b/5x5
I0403 21:52:50.259768 13153 net.cpp:425] inception_5b/output <- inception_5b/pool_proj
I0403 21:52:50.259784 13153 net.cpp:399] inception_5b/output -> inception_5b/output
I0403 21:52:50.259831 13153 net.cpp:141] Setting up inception_5b/output
I0403 21:52:50.259856 13153 net.cpp:148] Top shape: 24 1024 7 7 (1204224)
I0403 21:52:50.259871 13153 net.cpp:156] Memory required for data: 1345864224
I0403 21:52:50.259886 13153 layer_factory.hpp:77] Creating layer pool5/7x7_s1
I0403 21:52:50.259903 13153 net.cpp:91] Creating Layer pool5/7x7_s1
I0403 21:52:50.259918 13153 net.cpp:425] pool5/7x7_s1 <- inception_5b/output
I0403 21:52:50.259940 13153 net.cpp:399] pool5/7x7_s1 -> pool5/7x7_s1
I0403 21:52:50.260144 13153 net.cpp:141] Setting up pool5/7x7_s1
I0403 21:52:50.260169 13153 net.cpp:148] Top shape: 24 1024 1 1 (24576)
I0403 21:52:50.260182 13153 net.cpp:156] Memory required for data: 1345962528
I0403 21:52:50.260196 13153 layer_factory.hpp:77] Creating layer pool5/drop_7x7_s1
I0403 21:52:50.260224 13153 net.cpp:91] Creating Layer pool5/drop_7x7_s1
I0403 21:52:50.260244 13153 net.cpp:425] pool5/drop_7x7_s1 <- pool5/7x7_s1
I0403 21:52:50.260263 13153 net.cpp:386] pool5/drop_7x7_s1 -> pool5/7x7_s1 (in-place)
I0403 21:52:50.260313 13153 net.cpp:141] Setting up pool5/drop_7x7_s1
I0403 21:52:50.260336 13153 net.cpp:148] Top shape: 24 1024 1 1 (24576)
I0403 21:52:50.260350 13153 net.cpp:156] Memory required for data: 1346060832
I0403 21:52:50.260365 13153 layer_factory.hpp:77] Creating layer loss3/classifier_plantvillage
I0403 21:52:50.260383 13153 net.cpp:91] Creating Layer loss3/classifier_plantvillage
I0403 21:52:50.260399 13153 net.cpp:425] loss3/classifier_plantvillage <- pool5/7x7_s1
I0403 21:52:50.260421 13153 net.cpp:399] loss3/classifier_plantvillage -> loss3/classifier_plantvillage
I0403 21:52:50.260821 13153 net.cpp:141] Setting up loss3/classifier_plantvillage
I0403 21:52:50.260845 13153 net.cpp:148] Top shape: 24 38 (912)
I0403 21:52:50.260859 13153 net.cpp:156] Memory required for data: 1346064480
I0403 21:52:50.260879 13153 layer_factory.hpp:77] Creating layer loss3/classifier_plantvillage_loss3/classifier_plantvillage_0_split
I0403 21:52:50.260896 13153 net.cpp:91] Creating Layer loss3/classifier_plantvillage_loss3/classifier_plantvillage_0_split
I0403 21:52:50.260911 13153 net.cpp:425] loss3/classifier_plantvillage_loss3/classifier_plantvillage_0_split <- loss3/classifier_plantvillage
I0403 21:52:50.260931 13153 net.cpp:399] loss3/classifier_plantvillage_loss3/classifier_plantvillage_0_split -> loss3/classifier_plantvillage_loss3/classifier_plantvillage_0_split_0
I0403 21:52:50.260954 13153 net.cpp:399] loss3/classifier_plantvillage_loss3/classifier_plantvillage_0_split -> loss3/classifier_plantvillage_loss3/classifier_plantvillage_0_split_1
I0403 21:52:50.260974 13153 net.cpp:399] loss3/classifier_plantvillage_loss3/classifier_plantvillage_0_split -> loss3/classifier_plantvillage_loss3/classifier_plantvillage_0_split_2
I0403 21:52:50.260994 13153 net.cpp:399] loss3/classifier_plantvillage_loss3/classifier_plantvillage_0_split -> loss3/classifier_plantvillage_loss3/classifier_plantvillage_0_split_3
I0403 21:52:50.261092 13153 net.cpp:141] Setting up loss3/classifier_plantvillage_loss3/classifier_plantvillage_0_split
I0403 21:52:50.261116 13153 net.cpp:148] Top shape: 24 38 (912)
I0403 21:52:50.261132 13153 net.cpp:148] Top shape: 24 38 (912)
I0403 21:52:50.261145 13153 net.cpp:148] Top shape: 24 38 (912)
I0403 21:52:50.261160 13153 net.cpp:148] Top shape: 24 38 (912)
I0403 21:52:50.261174 13153 net.cpp:156] Memory required for data: 1346079072
I0403 21:52:50.261188 13153 layer_factory.hpp:77] Creating layer loss1/loss
I0403 21:52:50.261220 13153 net.cpp:91] Creating Layer loss1/loss
I0403 21:52:50.261240 13153 net.cpp:425] loss1/loss <- loss1/classifier_plantvillage_loss1/classifier_plantvillage_0_split_0
I0403 21:52:50.261271 13153 net.cpp:425] loss1/loss <- label_data_1_split_0
…
