…
I0403 21:45:42.792830 12732 net.cpp:313] The NetState phase (1) differed from the phase (0) specified by a rule in layer data
I0403 21:45:42.794239 12732 net.cpp:49] Initializing net from parameters: 
state {
  phase: TEST
}
layer {
  name: "data"
  type: "Data"
  top: "data"
  top: "label"
  include {
    phase: TEST
  }
  transform_param {
    mirror: false
    crop_size: 224
    mean_file: "/home/mohanty/data/final_dataset/lmdb/color-80-20/mean.binaryproto"
  }
  data_param {
    source: "/home/mohanty/data/final_dataset/lmdb/color-80-20/test_db"
    batch_size: 24
    backend: LMDB
  }
}
layer {
  name: "conv1/7x7_s2"
  type: "Convolution"
  bottom: "data"
  top: "conv1/7x7_s2"
  param {
    lr_mult: 1
    decay_mult: 1
  }
  param {
    lr_mult: 2
    decay_mult: 0
  }
  convolution_param {
    num_output: 64
    pad: 3
    kernel_size: 7
    stride: 2
    weight_filler {
      type: "xavier"
      std: 0.1
    }
    bias_filler {
      type: "constant"
      value: 0.2
    }
  }
}
layer {
  name: "conv1/relu_7x7"
  type: "ReLU"
  bottom: "conv1/7x7_s2"
  top: "conv1/7x7_s2"
}
layer {
  name: "pool1/3x3_s2"
  type: "Pooling"
  bottom: "conv1/7x7_s2"
  top: "pool1/3x3_s2"
  pooling_param {
    pool: MAX
    kernel_size: 3
    stride: 2
  }
}
layer {
  name: "pool1/norm1"
  type: "LRN"
  bottom: "pool1/3x3_s2"
  top: "pool1/norm1"
  lrn_param {
    local_size: 5
    alpha: 0.0001
    beta: 0.75
  }
}
layer {
  name: "conv2/3x3_reduce"
  type: "Convolution"
  bottom: "pool1/norm1"
  top: "conv2/3x3_reduce"
  param {
    lr_mult: 1
    decay_mult: 1
  }
  param {
    lr_mult: 2
    decay_mult: 0
  }
  convolution_param {
    num_output: 64
    kernel_size: 1
    weight_filler {
      type: "xavier"
      std: 0.1
    }
    bias_filler {
      type: "constant"
      value: 0.2
    }
  }
}
layer {
  name: "conv2/relu_3x3_reduce"
  type: "ReLU"
  bottom: "conv2/3x3_reduce"
  top: "conv2/3x3_reduce"
}
layer {
  name: "conv2/3x3"
  type: "Convolution"
  bottom: "conv2/3x3_reduce"
  top: "conv2/3x3"
  param {
    lr_mult: 1
    decay_mult: 1
  }
  param {
    lr_mult: 2
    decay_mult: 0
  }
  convolution_param {
    num_output: 192
    pad: 1
    kernel_size: 3
    weight_filler {
      type: "xavier"
      std: 0.03
    }
    bias_filler {
      type: "constant"
      value: 0.2
    }
  }
}
layer {
  name: "conv2/relu_3x3"
  type: "ReLU"
  bottom: "conv2/3x3"
  top: "conv2/3x3"
}
layer {
  name: "conv2/norm2"
  type: "LRN"
  bottom: "conv2/3x3"
  top: "conv2/norm2"
  lrn_param {
    local_size: 5
    alpha: 0.0001
    beta: 0.75
  }
}
layer {
  name: "pool2/3x3_s2"
  type: "Pooling"
  bottom: "conv2/norm2"
  top: "pool2/3x3_s2"
  pooling_param {
    pool: MAX
    kernel_size: 3
    stride: 2
  }
}
layer {
  name: "inception_3a/1x1"
  type: "Convolution"
  bottom: "pool2/3x3_s2"
  top: "inception_3a/1x1"
  param {
    lr_mult: 1
    decay_mult: 1
  }
  param {
    lr_mult: 2
    decay_mult: 0
  }
  convolution_param {
    num_output: 64
    kernel_size: 1
    weight_filler {
      type: "xavier"
      std: 0.03
    }
    bias_filler {
      type: "constant"
      value: 0.2
    }
  }
}
layer {
  name: "inception_3a/relu_1x1"
  type: "ReLU"
  bottom: "inception_3a/1x1"
  top: "inception_3a/1x1"
}
layer {
  name: "inception_3a/3x3_reduce"
  type: "Convolution"
  bottom: "pool2/3x3_s2"
  top: "inception_3a/3x3_reduce"
  param {
    lr_mult: 1
    decay_mult: 1
  }
  param {
    lr_mult: 2
    decay_mult: 0
  }
  convolution_param {
    num_output: 96
    kernel_size: 1
    weight_filler {
      type: "xavier"
      std: 0.09
    }
    bias_filler {
      type: "constant"
      value: 0.2
    }
  }
}
layer {
  name: "inception_3a/relu_3x3_reduce"
  type: "ReLU"
  bottom: "inception_3a/3x3_reduce"
  top: "inception_3a/3x3_reduce"
}
layer {
  name: "inception_3a/3x3"
  type: "Convolution"
  bottom: "inception_3a/3x3_reduce"
  top: "inception_3a/3x3"
  param {
    lr_mult: 1
    decay_mult: 1
  }
  param {
    lr_mult: 2
    decay_mult: 0
  }
  convolution_param {
    num_output: 128
    pad: 1
    kernel_size: 3
    weight_filler {
      type: "xavier"
      std: 0.03
    }
    bias_filler {
      type: "constant"
      value: 0.2
    }
  }
}
layer {
  name: "inception_3a/relu_3x3"
  type: "ReLU"
  bottom: "inception_3a/3x3"
  top: "inception_3a/3x3"
}
layer {
  name: "inception_3a/5x5_reduce"
  type: "Convolution"
  bottom: "pool2/3x3_s2"
  top: "inception_3a/5x5_reduce"
  param {
    lr_mult: 1
    decay_mult: 1
  }
  param {
    lr_mult: 2
    decay_mult: 0
  }
  convolution_param {
    num_output: 16
    kernel_size: 1
    weight_filler {
      type: "xavier"
      std: 0.2
    }
    bias_filler {
      type: "constant"
      value: 0.2
    }
  }
}
layer {
  name: "inception_3a/relu_5x5_reduce"
  type: "ReLU"
  bottom: "inception_3a/5x5_reduce"
  top: "inception_3a/5x5_reduce"
}
layer {
  name: "inception_3a/5x5"
  type: "Convolution"
  bottom: "inception_3a/5x5_reduce"
  top: "inception_3a/5x5"
  param {
    lr_mult: 1
    decay_mult: 1
  }
  param {
    lr_mult: 2
    decay_mult: 0
  }
  convolution_param {
    num_output: 32
    pad: 2
    kernel_size: 5
    weight_filler {
      type: "xavier"
      std: 0.03
    }
    bias_filler {
      type: "constant"
      value: 0.2
    }
  }
}
layer {
  name: "inception_3a/relu_5x5"
  type: "ReLU"
  bottom: "inception_3a/5x5"
  top: "inception_3a/5x5"
}
layer {
  name: "inception_3a/pool"
  type: "Pooling"
  bottom: "pool2/3x3_s2"
  top: "inception_3a/pool"
  pooling_param {
    pool: MAX
    kernel_size: 3
    stride: 1
    pad: 1
  }
}
layer {
  name: "inception_3a/pool_proj"
  type: "Convolution"
  bottom: "inception_3a/pool"
  top: "inception_3a/pool_proj"
  param {
    lr_mult: 1
    decay_mult: 1
  }
  param {
    lr_mult: 2
    decay_mult: 0
  }
  convolution_param {
    num_output: 32
    kernel_size: 1
    weight_filler {
      type: "xavier"
      std: 0.1
    }
    bias_filler {
      type: "constant"
      value: 0.2
    }
  }
}
layer {
  name: "inception_3a/relu_pool_proj"
  type: "ReLU"
  bottom: "inception_3a/pool_proj"
  top: "inception_3a/pool_proj"
}
layer {
  name: "inception_3a/output"
  type: "Concat"
  bottom: "inception_3a/1x1"
  bottom: "inception_3a/3x3"
  bottom: "inception_3a/5x5"
  bottom: "inception_3a/pool_proj"
  top: "inception_3a/output"
}
layer {
  name: "inception_3b/1x1"
  type: "Convolution"
  bottom: "inception_3a/output"
  top: "inception_3b/1x1"
  param {
    lr_mult: 1
    decay_mult: 1
  }
  param {
    lr_mult: 2
    decay_mult: 0
  }
  convolution_param {
    num_output: 128
    kernel_size: 1
    weight_filler {
      type: "xavier"
      std: 0.03
    }
    bias_filler {
      type: "constant"
      value: 0.2
    }
  }
}
layer {
  name: "inception_3b/relu_1x1"
  type: "ReLU"
  bottom: "inception_3b/1x1"
  top: "inception_3b/1x1"
}
layer {
  name: "inception_3b/3x3_reduce"
  type: "Convolution"
  bottom: "inception_3a/output"
  top: "inception_3b/3x3_reduce"
  param {
    lr_mult: 1
    decay_mult: 1
  }
  param {
    lr_mult: 2
    decay_mult: 0
  }
  convolution_param {
    num_output: 128
    kernel_size: 1
    weight_filler {
      type: "xavier"
      std: 0.09
    }
    bias_filler {
      type: "constant"
      value: 0.2
    }
  }
}
layer {
  name: "inception_3b/relu_3x3_reduce"
  type: "ReLU"
  bottom: "inception_3b/3x3_reduce"
  top: "inception_3b/3x3_reduce"
}
layer {
  name: "inception_3b/3x3"
  type: "Convolution"
  bottom: "inception_3b/3x3_reduce"
  top: "inception_3b/3x3"
  param {
    lr_mult: 1
    decay_mult: 1
  }
  param {
    lr_mult: 2
    decay_mult: 0
  }
  convolution_param {
    num_output: 192
    pad: 1
    kernel_size: 3
    weight_filler {
      type: "xavier"
      std: 0.03
    }
    bias_filler {
      type: "constant"
      value: 0.2
    }
  }
}
layer {
  name: "inception_3b/relu_3x3"
  type: "ReLU"
  bottom: "inception_3b/3x3"
  top: "inception_3b/3x3"
}
layer {
  name: "inception_3b/5x5_reduce"
  type: "Convolution"
  bottom: "inception_3a/output"
  top: "inception_3b/5x5_reduce"
  param {
    lr_mult: 1
    decay_mult: 1
  }
  param {
    lr_mult: 2
    decay_mult: 0
  }
  convolution_param {
    num_output: 32
    kernel_size: 1
    weight_filler {
      type: "xavier"
      std: 0.2
    }
    bias_filler {
      type: "constant"
      value: 0.2
    }
  }
}
layer {
  name: "inception_3b/relu_5x5_reduce"
  type: "ReLU"
  bottom: "inception_3b/5x5_reduce"
  top: "inception_3b/5x5_reduce"
}
layer {
  name: "inception_3b/5x5"
  type: "Convolution"
  bottom: "inception_3b/5x5_reduce"
  top: "inception_3b/5x5"
  param {
    lr_mult: 1
    decay_mult: 1
  }
  param {
    lr_mult: 2
    decay_mult: 0
  }
  convolution_param {
    num_output: 96
    pad: 2
    kernel_size: 5
    weight_filler {
      type: "xavier"
      std: 0.03
    }
    bias_filler {
      type: "constant"
      value: 0.2
    }
  }
}
layer {
  name: "inception_3b/relu_5x5"
  type: "ReLU"
  bottom: "inception_3b/5x5"
  top: "inception_3b/5x5"
}
layer {
  name: "inception_3b/pool"
  type: "Pooling"
  bottom: "inception_3a/output"
  top: "inception_3b/pool"
  pooling_param {
    pool: MAX
    kernel_size: 3
    stride: 1
    pad: 1
  }
}
layer {
  name: "inception_3b/pool_proj"
  type: "Convolution"
  bottom: "inception_3b/pool"
  top: "inception_3b/pool_proj"
  param {
    lr_mult: 1
    decay_mult: 1
  }
  param {
    lr_mult: 2
    decay_mult: 0
  }
  convolution_param {
    num_output: 64
    kernel_size: 1
    weight_filler {
      type: "xavier"
      std: 0.1
    }
    bias_filler {
      type: "constant"
      value: 0.2
    }
  }
}
layer {
  name: "inception_3b/relu_pool_proj"
  type: "ReLU"
  bottom: "inception_3b/pool_proj"
  top: "inception_3b/pool_proj"
}
layer {
  name: "inception_3b/output"
  type: "Concat"
  bottom: "inception_3b/1x1"
  bottom: "inception_3b/3x3"
  bottom: "inception_3b/5x5"
  bottom: "inception_3b/pool_proj"
  top: "inception_3b/output"
}
layer {
  name: "pool3/3x3_s2"
  type: "Pooling"
  bottom: "inception_3b/output"
  top: "pool3/3x3_s2"
  pooling_param {
    pool: MAX
    kernel_size: 3
    stride: 2
  }
}
layer {
  name: "inception_4a/1x1"
  type: "Convolution"
  bottom: "pool3/3x3_s2"
  top: "inception_4a/1x1"
  param {
    lr_mult: 1
    decay_mult: 1
  }
  param {
    lr_mult: 2
    decay_mult: 0
  }
  convolution_param {
    num_output: 192
    kernel_size: 1
    weight_filler {
      type: "xavier"
      std: 0.03
    }
    bias_filler {
      type: "constant"
      value: 0.2
    }
  }
}
layer {
  name: "inception_4a/relu_1x1"
  type: "ReLU"
  bottom: "inception_4a/1x1"
  top: "inception_4a/1x1"
}
layer {
  name: "inception_4a/3x3_reduce"
  type: "Convolution"
  bottom: "pool3/3x3_s2"
  top: "inception_4a/3x3_reduce"
  param {
    lr_mult: 1
    decay_mult: 1
  }
  param {
    lr_mult: 2
    decay_mult: 0
  }
  convolution_param {
    num_output: 96
    kernel_size: 1
    weight_filler {
      type: "xavier"
      std: 0.09
    }
    bias_filler {
      type: "constant"
      value: 0.2
    }
  }
}
layer {
  name: "inception_4a/relu_3x3_reduce"
  type: "ReLU"
  bottom: "inception_4a/3x3_reduce"
  top: "inception_4a/3x3_reduce"
}
layer {
  name: "inception_4a/3x3"
  type: "Convolution"
  bottom: "inception_4a/3x3_reduce"
  top: "inception_4a/3x3"
  param {
    lr_mult: 1
    decay_mult: 1
  }
  param {
    lr_mult: 2
    decay_mult: 0
  }
  convolution_param {
    num_output: 208
    pad: 1
    kernel_size: 3
    weight_filler {
      type: "xavier"
      std: 0.03
    }
    bias_filler {
      type: "constant"
      value: 0.2
    }
  }
}
layer {
  name: "inception_4a/relu_3x3"
  type: "ReLU"
  bottom: "inception_4a/3x3"
  top: "inception_4a/3x3"
}
layer {
  name: "inception_4a/5x5_reduce"
  type: "Convolution"
  bottom: "pool3/3x3_s2"
  top: "inception_4a/5x5_reduce"
  param {
    lr_mult: 1
    decay_mult: 1
  }
  param {
    lr_mult: 2
    decay_mult: 0
  }
  convolution_param {
    num_output: 16
    kernel_size: 1
    weight_filler {
      type: "xavier"
      std: 0.2
    }
    bias_filler {
      type: "constant"
      value: 0.2
    }
  }
}
layer {
  name: "inception_4a/relu_5x5_reduce"
  type: "ReLU"
  bottom: "inception_4a/5x5_reduce"
  top: "inception_4a/5x5_reduce"
}
layer {
  name: "inception_4a/5x5"
  type: "Convolution"
  bottom: "inception_4a/5x5_reduce"
  top: "inception_4a/5x5"
  param {
    lr_mult: 1
    decay_mult: 1
  }
  param {
    lr_mult: 2
    decay_mult: 0
  }
  convolution_param {
    num_output: 48
    pad: 2
    kernel_size: 5
    weight_filler {
      type: "xavier"
      std: 0.03
    }
    bias_filler {
      type: "constant"
      value: 0.2
    }
  }
}
layer {
  name: "inception_4a/relu_5x5"
  type: "ReLU"
  bottom: "inception_4a/5x5"
  top: "inception_4a/5x5"
}
layer {
  name: "inception_4a/pool"
  type: "Pooling"
  bottom: "pool3/3x3_s2"
  top: "inception_4a/pool"
  pooling_param {
    pool: MAX
    kernel_size: 3
    stride: 1
    pad: 1
  }
}
layer {
  name: "inception_4a/pool_proj"
  type: "Convolution"
  bottom: "inception_4a/pool"
  top: "inception_4a/pool_proj"
  param {
    lr_mult: 1
    decay_mult: 1
  }
  param {
    lr_mult: 2
    decay_mult: 0
  }
  convolution_param {
    num_output: 64
    kernel_size: 1
    weight_filler {
      type: "xavier"
      std: 0.1
    }
    bias_filler {
      type: "constant"
      value: 0.2
    }
  }
}
layer {
  name: "inception_4a/relu_pool_proj"
  type: "ReLU"
  bottom: "inception_4a/pool_proj"
  top: "inception_4a/pool_proj"
}
layer {
  name: "inception_4a/output"
  type: "Concat"
  bottom: "inception_4a/1x1"
  bottom: "inception_4a/3x3"
  bottom: "inception_4a/5x5"
  bottom: "inception_4a/pool_proj"
  top: "inception_4a/output"
}
layer {
  name: "loss1/ave_pool"
  type: "Pooling"
  bottom: "inception_4a/output"
  top: "loss1/ave_pool"
  pooling_param {
    pool: AVE
    kernel_size: 5
    stride: 3
  }
}
layer {
  name: "loss1/conv"
  type: "Convolution"
  bottom: "loss1/ave_pool"
  top: "loss1/conv"
  param {
    lr_mult: 1
    decay_mult: 1
  }
  param {
    lr_mult: 2
    decay_mult: 0
  }
  convolution_param {
    num_output: 128
    kernel_size: 1
    weight_filler {
      type: "xavier"
      std: 0.08
    }
    bias_filler {
      type: "constant"
      value: 0.2
    }
  }
}
layer {
  name: "loss1/relu_conv"
  type: "ReLU"
  bottom: "loss1/conv"
  top: "loss1/conv"
}
layer {
  name: "loss1/fc"
  type: "InnerProduct"
  bottom: "loss1/conv"
  top: "loss1/fc"
  param {
    lr_mult: 1
    decay_mult: 1
  }
  param {
    lr_mult: 2
    decay_mult: 0
  }
  inner_product_param {
    num_output: 1024
    weight_filler {
      type: "xavier"
      std: 0.02
    }
    bias_filler {
      type: "constant"
      value: 0.2
    }
  }
}
layer {
  name: "loss1/relu_fc"
  type: "ReLU"
  bottom: "loss1/fc"
  top: "loss1/fc"
}
layer {
  name: "loss1/drop_fc"
  type: "Dropout"
  bottom: "loss1/fc"
  top: "loss1/fc"
  dropout_param {
    dropout_ratio: 0.7
  }
}
layer {
  name: "loss1/classifier_plantvillage"
  type: "InnerProduct"
  bottom: "loss1/fc"
  top: "loss1/classifier_plantvillage"
  param {
    lr_mult: 1
    decay_mult: 1
  }
  param {
    lr_mult: 2
    decay_mult: 0
  }
  inner_product_param {
    num_output: 38
    weight_filler {
      type: "xavier"
      std: 0.0009765625
    }
    bias_filler {
      type: "constant"
      value: 0
    }
  }
}
layer {
  name: "inception_4b/1x1"
  type: "Convolution"
  bottom: "inception_4a/output"
  top: "inception_4b/1x1"
  param {
    lr_mult: 1
    decay_mult: 1
  }
  param {
    lr_mult: 2
    decay_mult: 0
  }
  convolution_param {
    num_output: 160
    kernel_size: 1
    weight_filler {
      type: "xavier"
      std: 0.03
    }
    bias_filler {
      type: "constant"
      value: 0.2
    }
  }
}
layer {
  name: "inception_4b/relu_1x1"
  type: "ReLU"
  bottom: "inception_4b/1x1"
  top: "inception_4b/1x1"
}
layer {
  name: "inception_4b/3x3_reduce"
  type: "Convolution"
  bottom: "inception_4a/output"
  top: "inception_4b/3x3_reduce"
  param {
    lr_mult: 1
    decay_mult: 1
  }
  param {
    lr_mult: 2
    decay_mult: 0
  }
  convolution_param {
    num_output: 112
    kernel_size: 1
    weight_filler {
      type: "xavier"
      std: 0.09
    }
    bias_filler {
      type: "constant"
      value: 0.2
    }
  }
}
layer {
  name: "inception_4b/relu_3x3_reduce"
  type: "ReLU"
  bottom: "inception_4b/3x3_reduce"
  top: "inception_4b/3x3_reduce"
}
layer {
  name: "inception_4b/3x3"
  type: "Convolution"
  bottom: "inception_4b/3x3_reduce"
  top: "inception_4b/3x3"
  param {
    lr_mult: 1
    decay_mult: 1
  }
  param {
    lr_mult: 2
    decay_mult: 0
  }
  convolution_param {
    num_output: 224
    pad: 1
    kernel_size: 3
    weight_filler {
      type: "xavier"
      std: 0.03
    }
    bias_filler {
      type: "constant"
      value: 0.2
    }
  }
}
layer {
  name: "inception_4b/relu_3x3"
  type: "ReLU"
  bottom: "inception_4b/3x3"
  top: "inception_4b/3x3"
}
layer {
  name: "inception_4b/5x5_reduce"
  type: "Convolution"
  bottom: "inception_4a/output"
  top: "inception_4b/5x5_reduce"
  param {
    lr_mult: 1
    decay_mult: 1
  }
  param {
    lr_mult: 2
    decay_mult: 0
  }
  convolution_param {
    num_output: 24
    kernel_size: 1
    weight_filler {
      type: "xavier"
      std: 0.2
    }
    bias_filler {
      type: "constant"
      value: 0.2
    }
  }
}
layer {
  name: "inception_4b/relu_5x5_reduce"
  type: "ReLU"
  bottom: "inception_4b/5x5_reduce"
  top: "inception_4b/5x5_reduce"
}
layer {
  name: "inception_4b/5x5"
  type: "Convolution"
  bottom: "inception_4b/5x5_reduce"
  top: "inception_4b/5x5"
  param {
    lr_mult: 1
    decay_mult: 1
  }
  param {
    lr_mult: 2
    decay_mult: 0
  }
  convolution_param {
    num_output: 64
    pad: 2
    kernel_size: 5
    weight_filler {
      type: "xavier"
      std: 0.03
    }
    bias_filler {
      type: "constant"
      value: 0.2
    }
  }
}
layer {
  name: "inception_4b/relu_5x5"
  type: "ReLU"
  bottom: "inception_4b/5x5"
  top: "inception_4b/5x5"
}
layer {
  name: "inception_4b/pool"
  type: "Pooling"
  bottom: "inception_4a/output"
  top: "inception_4b/pool"
  pooling_param {
    pool: MAX
    kernel_size: 3
    stride: 1
    pad: 1
  }
}
layer {
  name: "inception_4b/pool_proj"
  type: "Convolution"
  bottom: "inception_4b/pool"
  top: "inception_4b/pool_proj"
  param {
    lr_mult: 1
    decay_mult: 1
  }
  param {
    lr_mult: 2
    decay_mult: 0
  }
  convolution_param {
    num_output: 64
    kernel_size: 1
    weight_filler {
      type: "xavier"
      std: 0.1
    }
    bias_filler {
      type: "constant"
      value: 0.2
    }
  }
}
layer {
  name: "inception_4b/relu_pool_proj"
  type: "ReLU"
  bottom: "inception_4b/pool_proj"
  top: "inception_4b/pool_proj"
}
layer {
  name: "inception_4b/output"
  type: "Concat"
  bottom: "inception_4b/1x1"
  bottom: "inception_4b/3x3"
  bottom: "inception_4b/5x5"
  bottom: "inception_4b/pool_proj"
  top: "inception_4b/output"
}
layer {
  name: "inception_4c/1x1"
  type: "Convolution"
  bottom: "inception_4b/output"
  top: "inception_4c/1x1"
  param {
    lr_mult: 1
    decay_mult: 1
  }
  param {
    lr_mult: 2
    decay_mult: 0
  }
  convolution_param {
    num_output: 128
    kernel_size: 1
    weight_filler {
      type: "xavier"
      std: 0.03
    }
    bias_filler {
      type: "constant"
      value: 0.2
    }
  }
}
layer {
  name: "inception_4c/relu_1x1"
  type: "ReLU"
  bottom: "inception_4c/1x1"
  top: "inception_4c/1x1"
}
layer {
  name: "inception_4c/3x3_reduce"
  type: "Convolution"
  bottom: "inception_4b/output"
  top: "inception_4c/3x3_reduce"
  param {
    lr_mult: 1
    decay_mult: 1
  }
  param {
    lr_mult: 2
    decay_mult: 0
  }
  convolution_param {
    num_output: 128
    kernel_size: 1
    weight_filler {
      type: "xavier"
      std: 0.09
    }
    bias_filler {
      type: "constant"
      value: 0.2
    }
  }
}
layer {
  name: "inception_4c/relu_3x3_reduce"
  type: "ReLU"
  bottom: "inception_4c/3x3_reduce"
  top: "inception_4c/3x3_reduce"
}
layer {
  name: "inception_4c/3x3"
  type: "Convolution"
  bottom: "inception_4c/3x3_reduce"
  top: "inception_4c/3x3"
  param {
    lr_mult: 1
    decay_mult: 1
  }
  param {
    lr_mult: 2
    decay_mult: 0
  }
  convolution_param {
    num_output: 256
    pad: 1
    kernel_size: 3
    weight_filler {
      type: "xavier"
      std: 0.03
    }
    bias_filler {
      type: "constant"
      value: 0.2
    }
  }
}
layer {
  name: "inception_4c/relu_3x3"
  type: "ReLU"
  bottom: "inception_4c/3x3"
  top: "inception_4c/3x3"
}
layer {
  name: "inception_4c/5x5_reduce"
  type: "Convolution"
  bottom: "inception_4b/output"
  top: "inception_4c/5x5_reduce"
  param {
    lr_mult: 1
    decay_mult: 1
  }
  param {
    lr_mult: 2
    decay_mult: 0
  }
  convolution_param {
    num_output: 24
    kernel_size: 1
    weight_filler {
      type: "xavier"
      std: 0.2
    }
    bias_filler {
      type: "constant"
      value: 0.2
    }
  }
}
layer {
  name: "inception_4c/relu_5x5_reduce"
  type: "ReLU"
  bottom: "inception_4c/5x5_reduce"
  top: "inception_4c/5x5_reduce"
}
layer {
  name: "inception_4c/5x5"
  type: "Convolution"
  bottom: "inception_4c/5x5_reduce"
  top: "inception_4c/5x5"
  param {
    lr_mult: 1
    decay_mult: 1
  }
  param {
    lr_mult: 2
    decay_mult: 0
  }
  convolution_param {
    num_output: 64
    pad: 2
    kernel_size: 5
    weight_filler {
      type: "xavier"
      std: 0.03
    }
    bias_filler {
      type: "constant"
      value: 0.2
    }
  }
}
layer {
  name: "inception_4c/relu_5x5"
  type: "ReLU"
  bottom: "inception_4c/5x5"
  top: "inception_4c/5x5"
}
layer {
  name: "inception_4c/pool"
  type: "Pooling"
  bottom: "inception_4b/output"
  top: "inception_4c/pool"
  pooling_param {
    pool: MAX
    kernel_size: 3
    stride: 1
    pad: 1
  }
}
layer {
  name: "inception_4c/pool_proj"
  type: "Convolution"
  bottom: "inception_4c/pool"
  top: "inception_4c/pool_proj"
  param {
    lr_mult: 1
    decay_mult: 1
  }
  param {
    lr_mult: 2
    decay_mult: 0
  }
  convolution_param {
    num_output: 64
    kernel_size: 1
    weight_filler {
      type: "xavier"
      std: 0.1
    }
    bias_filler {
      type: "constant"
      value: 0.2
    }
  }
}
layer {
  name: "inception_4c/relu_pool_proj"
  type: "ReLU"
  bottom: "inception_4c/pool_proj"
  top: "inception_4c/pool_proj"
}
layer {
  name: "inception_4c/output"
  type: "Concat"
  bottom: "inception_4c/1x1"
  bottom: "inception_4c/3x3"
  bottom: "inception_4c/5x5"
  bottom: "inception_4c/pool_proj"
  top: "inception_4c/output"
}
layer {
  name: "inception_4d/1x1"
  type: "Convolution"
  bottom: "inception_4c/output"
  top: "inception_4d/1x1"
  param {
    lr_mult: 1
    decay_mult: 1
  }
  param {
    lr_mult: 2
    decay_mult: 0
  }
  convolution_param {
    num_output: 112
    kernel_size: 1
    weight_filler {
      type: "xavier"
      std: 0.03
    }
    bias_filler {
      type: "constant"
      value: 0.2
    }
  }
}
layer {
  name: "inception_4d/relu_1x1"
  type: "ReLU"
  bottom: "inception_4d/1x1"
  top: "inception_4d/1x1"
}
layer {
  name: "inception_4d/3x3_reduce"
  type: "Convolution"
  bottom: "inception_4c/output"
  top: "inception_4d/3x3_reduce"
  param {
    lr_mult: 1
    decay_mult: 1
  }
  param {
    lr_mult: 2
    decay_mult: 0
  }
  convolution_param {
    num_output: 144
    kernel_size: 1
    weight_filler {
      type: "xavier"
      std: 0.09
    }
    bias_filler {
      type: "constant"
      value: 0.2
    }
  }
}
layer {
  name: "inception_4d/relu_3x3_reduce"
  type: "ReLU"
  bottom: "inception_4d/3x3_reduce"
  top: "inception_4d/3x3_reduce"
}
layer {
  name: "inception_4d/3x3"
  type: "Convolution"
  bottom: "inception_4d/3x3_reduce"
  top: "inception_4d/3x3"
  param {
    lr_mult: 1
    decay_mult: 1
  }
  param {
    lr_mult: 2
    decay_mult: 0
  }
  convolution_param {
    num_output: 288
    pad: 1
    kernel_size: 3
    weight_filler {
      type: "xavier"
      std: 0.03
    }
    bias_filler {
      type: "constant"
      value: 0.2
    }
  }
}
layer {
  name: "inception_4d/relu_3x3"
  type: "ReLU"
  bottom: "inception_4d/3x3"
  top: "inception_4d/3x3"
}
layer {
  name: "inception_4d/5x5_reduce"
  type: "Convolution"
  bottom: "inception_4c/output"
  top: "inception_4d/5x5_reduce"
  param {
    lr_mult: 1
    decay_mult: 1
  }
  param {
    lr_mult: 2
    decay_mult: 0
  }
  convolution_param {
    num_output: 32
    kernel_size: 1
    weight_filler {
      type: "xavier"
      std: 0.2
    }
    bias_filler {
      type: "constant"
      value: 0.2
    }
  }
}
layer {
  name: "inception_4d/relu_5x5_reduce"
  type: "ReLU"
  bottom: "inception_4d/5x5_reduce"
  top: "inception_4d/5x5_reduce"
}
layer {
  name: "inception_4d/5x5"
  type: "Convolution"
  bottom: "inception_4d/5x5_reduce"
  top: "inception_4d/5x5"
  param {
    lr_mult: 1
    decay_mult: 1
  }
  param {
    lr_mult: 2
    decay_mult: 0
  }
  convolution_param {
    num_output: 64
    pad: 2
    kernel_size: 5
    weight_filler {
      type: "xavier"
      std: 0.03
    }
    bias_filler {
      type: "constant"
      value: 0.2
    }
  }
}
layer {
  name: "inception_4d/relu_5x5"
  type: "ReLU"
  bottom: "inception_4d/5x5"
  top: "inception_4d/5x5"
}
layer {
  name: "inception_4d/pool"
  type: "Pooling"
  bottom: "inception_4c/output"
  top: "inception_4d/pool"
  pooling_param {
    pool: MAX
    kernel_size: 3
    stride: 1
    pad: 1
  }
}
layer {
  name: "inception_4d/pool_proj"
  type: "Convolution"
  bottom: "inception_4d/pool"
  top: "inception_4d/pool_proj"
  param {
    lr_mult: 1
    decay_mult: 1
  }
  param {
    lr_mult: 2
    decay_mult: 0
  }
  convolution_param {
    num_output: 64
    kernel_size: 1
    weight_filler {
      type: "xavier"
      std: 0.1
    }
    bias_filler {
      type: "constant"
      value: 0.2
    }
  }
}
layer {
  name: "inception_4d/relu_pool_proj"
  type: "ReLU"
  bottom: "inception_4d/pool_proj"
  top: "inception_4d/pool_proj"
}
layer {
  name: "inception_4d/output"
  type: "Concat"
  bottom: "inception_4d/1x1"
  bottom: "inception_4d/3x3"
  bottom: "inception_4d/5x5"
  bottom: "inception_4d/pool_proj"
  top: "inception_4d/output"
}
layer {
  name: "loss2/ave_pool"
  type: "Pooling"
  bottom: "inception_4d/output"
  top: "loss2/ave_pool"
  pooling_param {
    pool: AVE
    kernel_size: 5
    stride: 3
  }
}
layer {
  name: "loss2/conv"
  type: "Convolution"
  bottom: "loss2/ave_pool"
  top: "loss2/conv"
  param {
    lr_mult: 1
    decay_mult: 1
  }
  param {
    lr_mult: 2
    decay_mult: 0
  }
  convolution_param {
    num_output: 128
    kernel_size: 1
    weight_filler {
      type: "xavier"
      std: 0.08
    }
    bias_filler {
      type: "constant"
      value: 0.2
    }
  }
}
layer {
  name: "loss2/relu_conv"
  type: "ReLU"
  bottom: "loss2/conv"
  top: "loss2/conv"
}
layer {
  name: "loss2/fc"
  type: "InnerProduct"
  bottom: "loss2/conv"
  top: "loss2/fc"
  param {
    lr_mult: 1
    decay_mult: 1
  }
  param {
    lr_mult: 2
    decay_mult: 0
  }
  inner_product_param {
    num_output: 1024
    weight_filler {
      type: "xavier"
      std: 0.02
    }
    bias_filler {
      type: "constant"
      value: 0.2
    }
  }
}
layer {
  name: "loss2/relu_fc"
  type: "ReLU"
  bottom: "loss2/fc"
  top: "loss2/fc"
}
layer {
  name: "loss2/drop_fc"
  type: "Dropout"
  bottom: "loss2/fc"
  top: "loss2/fc"
  dropout_param {
    dropout_ratio: 0.7
  }
}
layer {
  name: "loss2/classifier_plantvillage"
  type: "InnerProduct"
  bottom: "loss2/fc"
  top: "loss2/classifier_plantvillage"
  param {
    lr_mult: 1
    decay_mult: 1
  }
  param {
    lr_mult: 2
    decay_mult: 0
  }
  inner_product_param {
    num_output: 38
    weight_filler {
      type: "xavier"
      std: 0.0009765625
    }
    bias_filler {
      type: "constant"
      value: 0
    }
  }
}
layer {
  name: "inception_4e/1x1"
  type: "Convolution"
  bottom: "inception_4d/output"
  top: "inception_4e/1x1"
  param {
    lr_mult: 1
    decay_mult: 1
  }
  param {
    lr_mult: 2
    decay_mult: 0
  }
  convolution_param {
    num_output: 256
    kernel_size: 1
    weight_filler {
      type: "xavier"
      std: 0.03
    }
    bias_filler {
      type: "constant"
      value: 0.2
    }
  }
}
layer {
  name: "inception_4e/relu_1x1"
  type: "ReLU"
  bottom: "inception_4e/1x1"
  top: "inception_4e/1x1"
}
layer {
  name: "inception_4e/3x3_reduce"
  type: "Convolution"
  bottom: "inception_4d/output"
  top: "inception_4e/3x3_reduce"
  param {
    lr_mult: 1
    decay_mult: 1
  }
  param {
    lr_mult: 2
    decay_mult: 0
  }
  convolution_param {
    num_output: 160
    kernel_size: 1
    weight_filler {
      type: "xavier"
      std: 0.09
    }
    bias_filler {
      type: "constant"
      value: 0.2
    }
  }
}
layer {
  name: "inception_4e/relu_3x3_reduce"
  type: "ReLU"
  bottom: "inception_4e/3x3_reduce"
  top: "inception_4e/3x3_reduce"
}
layer {
  name: "inception_4e/3x3"
  type: "Convolution"
  bottom: "inception_4e/3x3_reduce"
  top: "inception_4e/3x3"
  param {
    lr_mult: 1
    decay_mult: 1
  }
  param {
    lr_mult: 2
    decay_mult: 0
  }
  convolution_param {
    num_output: 320
    pad: 1
    kernel_size: 3
    weight_filler {
      type: "xavier"
      std: 0.03
    }
    bias_filler {
      type: "constant"
      value: 0.2
    }
  }
}
layer {
  name: "inception_4e/relu_3x3"
  type: "ReLU"
  bottom: "inception_4e/3x3"
  top: "inception_4e/3x3"
}
layer {
  name: "inception_4e/5x5_reduce"
  type: "Convolution"
  bottom: "inception_4d/output"
  top: "inception_4e/5x5_reduce"
  param {
    lr_mult: 1
    decay_mult: 1
  }
  param {
    lr_mult: 2
    decay_mult: 0
  }
  convolution_param {
    num_output: 32
    kernel_size: 1
    weight_filler {
      type: "xavier"
      std: 0.2
    }
    bias_filler {
      type: "constant"
      value: 0.2
    }
  }
}
layer {
  name: "inception_4e/relu_5x5_reduce"
  type: "ReLU"
  bottom: "inception_4e/5x5_reduce"
  top: "inception_4e/5x5_reduce"
}
layer {
  name: "inception_4e/5x5"
  type: "Convolution"
  bottom: "inception_4e/5x5_reduce"
  top: "inception_4e/5x5"
  p
I0403 21:45:42.796707 12732 layer_factory.hpp:77] Creating layer data
I0403 21:45:42.797433 12732 net.cpp:91] Creating Layer data
I0403 21:45:42.797473 12732 net.cpp:399] data -> data
I0403 21:45:42.797536 12732 net.cpp:399] data -> label
I0403 21:45:42.797580 12732 data_transformer.cpp:25] Loading mean file from: /home/mohanty/data/final_dataset/lmdb/color-80-20/mean.binaryproto
I0403 21:45:42.798725 12735 db_lmdb.cpp:38] Opened lmdb /home/mohanty/data/final_dataset/lmdb/color-80-20/test_db
I0403 21:45:42.814159 12732 data_layer.cpp:41] output data size: 24,3,224,224
I0403 21:45:42.847566 12732 net.cpp:141] Setting up data
I0403 21:45:42.847682 12732 net.cpp:148] Top shape: 24 3 224 224 (3612672)
I0403 21:45:42.847712 12732 net.cpp:148] Top shape: 24 (24)
I0403 21:45:42.847731 12732 net.cpp:156] Memory required for data: 14450784
I0403 21:45:42.847765 12732 layer_factory.hpp:77] Creating layer label_data_1_split
I0403 21:45:42.847798 12732 net.cpp:91] Creating Layer label_data_1_split
I0403 21:45:42.847822 12732 net.cpp:425] label_data_1_split <- label
I0403 21:45:42.847862 12732 net.cpp:399] label_data_1_split -> label_data_1_split_0
I0403 21:45:42.847898 12732 net.cpp:399] label_data_1_split -> label_data_1_split_1
I0403 21:45:42.847923 12732 net.cpp:399] label_data_1_split -> label_data_1_split_2
I0403 21:45:42.847949 12732 net.cpp:399] label_data_1_split -> label_data_1_split_3
I0403 21:45:42.847973 12732 net.cpp:399] label_data_1_split -> label_data_1_split_4
I0403 21:45:42.848000 12732 net.cpp:399] label_data_1_split -> label_data_1_split_5
I0403 21:45:42.848024 12732 net.cpp:399] label_data_1_split -> label_data_1_split_6
I0403 21:45:42.848052 12732 net.cpp:399] label_data_1_split -> label_data_1_split_7
I0403 21:45:42.848078 12732 net.cpp:399] label_data_1_split -> label_data_1_split_8
I0403 21:45:42.848104 12732 net.cpp:399] label_data_1_split -> label_data_1_split_9
I0403 21:45:42.848253 12732 net.cpp:141] Setting up label_data_1_split
I0403 21:45:42.848283 12732 net.cpp:148] Top shape: 24 (24)
I0403 21:45:42.848304 12732 net.cpp:148] Top shape: 24 (24)
I0403 21:45:42.848325 12732 net.cpp:148] Top shape: 24 (24)
I0403 21:45:42.848345 12732 net.cpp:148] Top shape: 24 (24)
I0403 21:45:42.848366 12732 net.cpp:148] Top shape: 24 (24)
I0403 21:45:42.848384 12732 net.cpp:148] Top shape: 24 (24)
I0403 21:45:42.848403 12732 net.cpp:148] Top shape: 24 (24)
I0403 21:45:42.848423 12732 net.cpp:148] Top shape: 24 (24)
I0403 21:45:42.848443 12732 net.cpp:148] Top shape: 24 (24)
I0403 21:45:42.848465 12732 net.cpp:148] Top shape: 24 (24)
I0403 21:45:42.848521 12732 net.cpp:156] Memory required for data: 14451744
I0403 21:45:42.848543 12732 layer_factory.hpp:77] Creating layer conv1/7x7_s2
I0403 21:45:42.848583 12732 net.cpp:91] Creating Layer conv1/7x7_s2
I0403 21:45:42.848608 12732 net.cpp:425] conv1/7x7_s2 <- data
I0403 21:45:42.848631 12732 net.cpp:399] conv1/7x7_s2 -> conv1/7x7_s2
I0403 21:45:43.017864 12732 net.cpp:141] Setting up conv1/7x7_s2
I0403 21:45:43.017961 12732 net.cpp:148] Top shape: 24 64 112 112 (19267584)
I0403 21:45:43.017983 12732 net.cpp:156] Memory required for data: 91522080
I0403 21:45:43.018023 12732 layer_factory.hpp:77] Creating layer conv1/relu_7x7
I0403 21:45:43.018056 12732 net.cpp:91] Creating Layer conv1/relu_7x7
I0403 21:45:43.018079 12732 net.cpp:425] conv1/relu_7x7 <- conv1/7x7_s2
I0403 21:45:43.018103 12732 net.cpp:386] conv1/relu_7x7 -> conv1/7x7_s2 (in-place)
I0403 21:45:43.018430 12732 net.cpp:141] Setting up conv1/relu_7x7
I0403 21:45:43.018466 12732 net.cpp:148] Top shape: 24 64 112 112 (19267584)
I0403 21:45:43.018486 12732 net.cpp:156] Memory required for data: 168592416
I0403 21:45:43.018504 12732 layer_factory.hpp:77] Creating layer pool1/3x3_s2
I0403 21:45:43.018535 12732 net.cpp:91] Creating Layer pool1/3x3_s2
I0403 21:45:43.018558 12732 net.cpp:425] pool1/3x3_s2 <- conv1/7x7_s2
I0403 21:45:43.018584 12732 net.cpp:399] pool1/3x3_s2 -> pool1/3x3_s2
I0403 21:45:43.018678 12732 net.cpp:141] Setting up pool1/3x3_s2
I0403 21:45:43.018709 12732 net.cpp:148] Top shape: 24 64 56 56 (4816896)
I0403 21:45:43.018728 12732 net.cpp:156] Memory required for data: 187860000
I0403 21:45:43.018745 12732 layer_factory.hpp:77] Creating layer pool1/norm1
I0403 21:45:43.018779 12732 net.cpp:91] Creating Layer pool1/norm1
I0403 21:45:43.018877 12732 net.cpp:425] pool1/norm1 <- pool1/3x3_s2
I0403 21:45:43.018911 12732 net.cpp:399] pool1/norm1 -> pool1/norm1
I0403 21:45:43.019285 12732 net.cpp:141] Setting up pool1/norm1
I0403 21:45:43.019320 12732 net.cpp:148] Top shape: 24 64 56 56 (4816896)
I0403 21:45:43.019342 12732 net.cpp:156] Memory required for data: 207127584
I0403 21:45:43.019362 12732 layer_factory.hpp:77] Creating layer conv2/3x3_reduce
I0403 21:45:43.019393 12732 net.cpp:91] Creating Layer conv2/3x3_reduce
I0403 21:45:43.019414 12732 net.cpp:425] conv2/3x3_reduce <- pool1/norm1
I0403 21:45:43.019443 12732 net.cpp:399] conv2/3x3_reduce -> conv2/3x3_reduce
I0403 21:45:43.021212 12732 net.cpp:141] Setting up conv2/3x3_reduce
I0403 21:45:43.021248 12732 net.cpp:148] Top shape: 24 64 56 56 (4816896)
I0403 21:45:43.021268 12732 net.cpp:156] Memory required for data: 226395168
I0403 21:45:43.021294 12732 layer_factory.hpp:77] Creating layer conv2/relu_3x3_reduce
I0403 21:45:43.021317 12732 net.cpp:91] Creating Layer conv2/relu_3x3_reduce
I0403 21:45:43.021338 12732 net.cpp:425] conv2/relu_3x3_reduce <- conv2/3x3_reduce
I0403 21:45:43.021364 12732 net.cpp:386] conv2/relu_3x3_reduce -> conv2/3x3_reduce (in-place)
I0403 21:45:43.021692 12732 net.cpp:141] Setting up conv2/relu_3x3_reduce
I0403 21:45:43.021723 12732 net.cpp:148] Top shape: 24 64 56 56 (4816896)
I0403 21:45:43.021742 12732 net.cpp:156] Memory required for data: 245662752
I0403 21:45:43.021762 12732 layer_factory.hpp:77] Creating layer conv2/3x3
I0403 21:45:43.021793 12732 net.cpp:91] Creating Layer conv2/3x3
I0403 21:45:43.021816 12732 net.cpp:425] conv2/3x3 <- conv2/3x3_reduce
I0403 21:45:43.021843 12732 net.cpp:399] conv2/3x3 -> conv2/3x3
I0403 21:45:43.024742 12732 net.cpp:141] Setting up conv2/3x3
I0403 21:45:43.024781 12732 net.cpp:148] Top shape: 24 192 56 56 (14450688)
I0403 21:45:43.024801 12732 net.cpp:156] Memory required for data: 303465504
I0403 21:45:43.024879 12732 layer_factory.hpp:77] Creating layer conv2/relu_3x3
I0403 21:45:43.024909 12732 net.cpp:91] Creating Layer conv2/relu_3x3
I0403 21:45:43.024930 12732 net.cpp:425] conv2/relu_3x3 <- conv2/3x3
I0403 21:45:43.024955 12732 net.cpp:386] conv2/relu_3x3 -> conv2/3x3 (in-place)
I0403 21:45:43.025173 12732 net.cpp:141] Setting up conv2/relu_3x3
I0403 21:45:43.025213 12732 net.cpp:148] Top shape: 24 192 56 56 (14450688)
I0403 21:45:43.025271 12732 net.cpp:156] Memory required for data: 361268256
I0403 21:45:43.025291 12732 layer_factory.hpp:77] Creating layer conv2/norm2
I0403 21:45:43.025315 12732 net.cpp:91] Creating Layer conv2/norm2
I0403 21:45:43.025336 12732 net.cpp:425] conv2/norm2 <- conv2/3x3
I0403 21:45:43.025360 12732 net.cpp:399] conv2/norm2 -> conv2/norm2
I0403 21:45:43.025737 12732 net.cpp:141] Setting up conv2/norm2
I0403 21:45:43.025770 12732 net.cpp:148] Top shape: 24 192 56 56 (14450688)
I0403 21:45:43.025790 12732 net.cpp:156] Memory required for data: 419071008
I0403 21:45:43.025809 12732 layer_factory.hpp:77] Creating layer pool2/3x3_s2
I0403 21:45:43.025830 12732 net.cpp:91] Creating Layer pool2/3x3_s2
I0403 21:45:43.025851 12732 net.cpp:425] pool2/3x3_s2 <- conv2/norm2
I0403 21:45:43.025879 12732 net.cpp:399] pool2/3x3_s2 -> pool2/3x3_s2
I0403 21:45:43.025946 12732 net.cpp:141] Setting up pool2/3x3_s2
I0403 21:45:43.025974 12732 net.cpp:148] Top shape: 24 192 28 28 (3612672)
I0403 21:45:43.025995 12732 net.cpp:156] Memory required for data: 433521696
I0403 21:45:43.026012 12732 layer_factory.hpp:77] Creating layer pool2/3x3_s2_pool2/3x3_s2_0_split
I0403 21:45:43.026037 12732 net.cpp:91] Creating Layer pool2/3x3_s2_pool2/3x3_s2_0_split
I0403 21:45:43.026060 12732 net.cpp:425] pool2/3x3_s2_pool2/3x3_s2_0_split <- pool2/3x3_s2
I0403 21:45:43.026082 12732 net.cpp:399] pool2/3x3_s2_pool2/3x3_s2_0_split -> pool2/3x3_s2_pool2/3x3_s2_0_split_0
I0403 21:45:43.026108 12732 net.cpp:399] pool2/3x3_s2_pool2/3x3_s2_0_split -> pool2/3x3_s2_pool2/3x3_s2_0_split_1
I0403 21:45:43.026137 12732 net.cpp:399] pool2/3x3_s2_pool2/3x3_s2_0_split -> pool2/3x3_s2_pool2/3x3_s2_0_split_2
I0403 21:45:43.026162 12732 net.cpp:399] pool2/3x3_s2_pool2/3x3_s2_0_split -> pool2/3x3_s2_pool2/3x3_s2_0_split_3
I0403 21:45:43.026254 12732 net.cpp:141] Setting up pool2/3x3_s2_pool2/3x3_s2_0_split
I0403 21:45:43.026284 12732 net.cpp:148] Top shape: 24 192 28 28 (3612672)
I0403 21:45:43.026305 12732 net.cpp:148] Top shape: 24 192 28 28 (3612672)
I0403 21:45:43.026325 12732 net.cpp:148] Top shape: 24 192 28 28 (3612672)
I0403 21:45:43.026345 12732 net.cpp:148] Top shape: 24 192 28 28 (3612672)
I0403 21:45:43.026362 12732 net.cpp:156] Memory required for data: 491324448
I0403 21:45:43.026382 12732 layer_factory.hpp:77] Creating layer inception_3a/1x1
I0403 21:45:43.026412 12732 net.cpp:91] Creating Layer inception_3a/1x1
I0403 21:45:43.026434 12732 net.cpp:425] inception_3a/1x1 <- pool2/3x3_s2_pool2/3x3_s2_0_split_0
I0403 21:45:43.026461 12732 net.cpp:399] inception_3a/1x1 -> inception_3a/1x1
I0403 21:45:43.028444 12732 net.cpp:141] Setting up inception_3a/1x1
I0403 21:45:43.028481 12732 net.cpp:148] Top shape: 24 64 28 28 (1204224)
I0403 21:45:43.028501 12732 net.cpp:156] Memory required for data: 496141344
I0403 21:45:43.028523 12732 layer_factory.hpp:77] Creating layer inception_3a/relu_1x1
I0403 21:45:43.028545 12732 net.cpp:91] Creating Layer inception_3a/relu_1x1
I0403 21:45:43.028573 12732 net.cpp:425] inception_3a/relu_1x1 <- inception_3a/1x1
I0403 21:45:43.028596 12732 net.cpp:386] inception_3a/relu_1x1 -> inception_3a/1x1 (in-place)
I0403 21:45:43.028811 12732 net.cpp:141] Setting up inception_3a/relu_1x1
I0403 21:45:43.028844 12732 net.cpp:148] Top shape: 24 64 28 28 (1204224)
I0403 21:45:43.028916 12732 net.cpp:156] Memory required for data: 500958240
I0403 21:45:43.028940 12732 layer_factory.hpp:77] Creating layer inception_3a/3x3_reduce
I0403 21:45:43.028970 12732 net.cpp:91] Creating Layer inception_3a/3x3_reduce
I0403 21:45:43.028992 12732 net.cpp:425] inception_3a/3x3_reduce <- pool2/3x3_s2_pool2/3x3_s2_0_split_1
I0403 21:45:43.029021 12732 net.cpp:399] inception_3a/3x3_reduce -> inception_3a/3x3_reduce
I0403 21:45:43.031061 12732 net.cpp:141] Setting up inception_3a/3x3_reduce
I0403 21:45:43.031131 12732 net.cpp:148] Top shape: 24 96 28 28 (1806336)
I0403 21:45:43.031162 12732 net.cpp:156] Memory required for data: 508183584
I0403 21:45:43.031196 12732 layer_factory.hpp:77] Creating layer inception_3a/relu_3x3_reduce
I0403 21:45:43.031246 12732 net.cpp:91] Creating Layer inception_3a/relu_3x3_reduce
I0403 21:45:43.031270 12732 net.cpp:425] inception_3a/relu_3x3_reduce <- inception_3a/3x3_reduce
I0403 21:45:43.031293 12732 net.cpp:386] inception_3a/relu_3x3_reduce -> inception_3a/3x3_reduce (in-place)
I0403 21:45:43.031514 12732 net.cpp:141] Setting up inception_3a/relu_3x3_reduce
I0403 21:45:43.031546 12732 net.cpp:148] Top shape: 24 96 28 28 (1806336)
I0403 21:45:43.031566 12732 net.cpp:156] Memory required for data: 515408928
I0403 21:45:43.031585 12732 layer_factory.hpp:77] Creating layer inception_3a/3x3
I0403 21:45:43.031615 12732 net.cpp:91] Creating Layer inception_3a/3x3
I0403 21:45:43.031637 12732 net.cpp:425] inception_3a/3x3 <- inception_3a/3x3_reduce
I0403 21:45:43.031666 12732 net.cpp:399] inception_3a/3x3 -> inception_3a/3x3
I0403 21:45:43.033756 12732 net.cpp:141] Setting up inception_3a/3x3
I0403 21:45:43.033792 12732 net.cpp:148] Top shape: 24 128 28 28 (2408448)
I0403 21:45:43.033814 12732 net.cpp:156] Memory required for data: 525042720
I0403 21:45:43.033838 12732 layer_factory.hpp:77] Creating layer inception_3a/relu_3x3
I0403 21:45:43.033864 12732 net.cpp:91] Creating Layer inception_3a/relu_3x3
I0403 21:45:43.033885 12732 net.cpp:425] inception_3a/relu_3x3 <- inception_3a/3x3
I0403 21:45:43.033907 12732 net.cpp:386] inception_3a/relu_3x3 -> inception_3a/3x3 (in-place)
I0403 21:45:43.034245 12732 net.cpp:141] Setting up inception_3a/relu_3x3
I0403 21:45:43.034279 12732 net.cpp:148] Top shape: 24 128 28 28 (2408448)
I0403 21:45:43.034298 12732 net.cpp:156] Memory required for data: 534676512
I0403 21:45:43.034317 12732 layer_factory.hpp:77] Creating layer inception_3a/5x5_reduce
I0403 21:45:43.034346 12732 net.cpp:91] Creating Layer inception_3a/5x5_reduce
I0403 21:45:43.034369 12732 net.cpp:425] inception_3a/5x5_reduce <- pool2/3x3_s2_pool2/3x3_s2_0_split_2
I0403 21:45:43.034397 12732 net.cpp:399] inception_3a/5x5_reduce -> inception_3a/5x5_reduce
I0403 21:45:43.035625 12732 net.cpp:141] Setting up inception_3a/5x5_reduce
I0403 21:45:43.035663 12732 net.cpp:148] Top shape: 24 16 28 28 (301056)
I0403 21:45:43.035684 12732 net.cpp:156] Memory required for data: 535880736
I0403 21:45:43.035708 12732 layer_factory.hpp:77] Creating layer inception_3a/relu_5x5_reduce
I0403 21:45:43.035737 12732 net.cpp:91] Creating Layer inception_3a/relu_5x5_reduce
I0403 21:45:43.035760 12732 net.cpp:425] inception_3a/relu_5x5_reduce <- inception_3a/5x5_reduce
I0403 21:45:43.035784 12732 net.cpp:386] inception_3a/relu_5x5_reduce -> inception_3a/5x5_reduce (in-place)
I0403 21:45:43.036118 12732 net.cpp:141] Setting up inception_3a/relu_5x5_reduce
I0403 21:45:43.036154 12732 net.cpp:148] Top shape: 24 16 28 28 (301056)
I0403 21:45:43.036175 12732 net.cpp:156] Memory required for data: 537084960
I0403 21:45:43.036201 12732 layer_factory.hpp:77] Creating layer inception_3a/5x5
I0403 21:45:43.036231 12732 net.cpp:91] Creating Layer inception_3a/5x5
I0403 21:45:43.036253 12732 net.cpp:425] inception_3a/5x5 <- inception_3a/5x5_reduce
I0403 21:45:43.036279 12732 net.cpp:399] inception_3a/5x5 -> inception_3a/5x5
I0403 21:45:43.037516 12732 net.cpp:141] Setting up inception_3a/5x5
I0403 21:45:43.037613 12732 net.cpp:148] Top shape: 24 32 28 28 (602112)
I0403 21:45:43.037637 12732 net.cpp:156] Memory required for data: 539493408
I0403 21:45:43.037662 12732 layer_factory.hpp:77] Creating layer inception_3a/relu_5x5
I0403 21:45:43.037689 12732 net.cpp:91] Creating Layer inception_3a/relu_5x5
I0403 21:45:43.037713 12732 net.cpp:425] inception_3a/relu_5x5 <- inception_3a/5x5
I0403 21:45:43.037734 12732 net.cpp:386] inception_3a/relu_5x5 -> inception_3a/5x5 (in-place)
I0403 21:45:43.037950 12732 net.cpp:141] Setting up inception_3a/relu_5x5
I0403 21:45:43.037982 12732 net.cpp:148] Top shape: 24 32 28 28 (602112)
I0403 21:45:43.038002 12732 net.cpp:156] Memory required for data: 541901856
I0403 21:45:43.038022 12732 layer_factory.hpp:77] Creating layer inception_3a/pool
I0403 21:45:43.038049 12732 net.cpp:91] Creating Layer inception_3a/pool
I0403 21:45:43.038074 12732 net.cpp:425] inception_3a/pool <- pool2/3x3_s2_pool2/3x3_s2_0_split_3
I0403 21:45:43.038116 12732 net.cpp:399] inception_3a/pool -> inception_3a/pool
I0403 21:45:43.038203 12732 net.cpp:141] Setting up inception_3a/pool
I0403 21:45:43.038235 12732 net.cpp:148] Top shape: 24 192 28 28 (3612672)
I0403 21:45:43.038255 12732 net.cpp:156] Memory required for data: 556352544
I0403 21:45:43.038274 12732 layer_factory.hpp:77] Creating layer inception_3a/pool_proj
I0403 21:45:43.038301 12732 net.cpp:91] Creating Layer inception_3a/pool_proj
I0403 21:45:43.038331 12732 net.cpp:425] inception_3a/pool_proj <- inception_3a/pool
I0403 21:45:43.038357 12732 net.cpp:399] inception_3a/pool_proj -> inception_3a/pool_proj
I0403 21:45:43.039544 12732 net.cpp:141] Setting up inception_3a/pool_proj
I0403 21:45:43.039585 12732 net.cpp:148] Top shape: 24 32 28 28 (602112)
I0403 21:45:43.039608 12732 net.cpp:156] Memory required for data: 558760992
I0403 21:45:43.039636 12732 layer_factory.hpp:77] Creating layer inception_3a/relu_pool_proj
I0403 21:45:43.039664 12732 net.cpp:91] Creating Layer inception_3a/relu_pool_proj
I0403 21:45:43.039687 12732 net.cpp:425] inception_3a/relu_pool_proj <- inception_3a/pool_proj
I0403 21:45:43.039711 12732 net.cpp:386] inception_3a/relu_pool_proj -> inception_3a/pool_proj (in-place)
I0403 21:45:43.040040 12732 net.cpp:141] Setting up inception_3a/relu_pool_proj
I0403 21:45:43.040073 12732 net.cpp:148] Top shape: 24 32 28 28 (602112)
I0403 21:45:43.040092 12732 net.cpp:156] Memory required for data: 561169440
I0403 21:45:43.040112 12732 layer_factory.hpp:77] Creating layer inception_3a/output
I0403 21:45:43.040134 12732 net.cpp:91] Creating Layer inception_3a/output
I0403 21:45:43.040159 12732 net.cpp:425] inception_3a/output <- inception_3a/1x1
I0403 21:45:43.040186 12732 net.cpp:425] inception_3a/output <- inception_3a/3x3
I0403 21:45:43.040208 12732 net.cpp:425] inception_3a/output <- inception_3a/5x5
I0403 21:45:43.040230 12732 net.cpp:425] inception_3a/output <- inception_3a/pool_proj
I0403 21:45:43.040251 12732 net.cpp:399] inception_3a/output -> inception_3a/output
I0403 21:45:43.040305 12732 net.cpp:141] Setting up inception_3a/output
I0403 21:45:43.040343 12732 net.cpp:148] Top shape: 24 256 28 28 (4816896)
I0403 21:45:43.040364 12732 net.cpp:156] Memory required for data: 580437024
I0403 21:45:43.040381 12732 layer_factory.hpp:77] Creating layer inception_3a/output_inception_3a/output_0_split
I0403 21:45:43.040402 12732 net.cpp:91] Creating Layer inception_3a/output_inception_3a/output_0_split
I0403 21:45:43.040422 12732 net.cpp:425] inception_3a/output_inception_3a/output_0_split <- inception_3a/output
I0403 21:45:43.040448 12732 net.cpp:399] inception_3a/output_inception_3a/output_0_split -> inception_3a/output_inception_3a/output_0_split_0
I0403 21:45:43.040474 12732 net.cpp:399] inception_3a/output_inception_3a/output_0_split -> inception_3a/output_inception_3a/output_0_split_1
I0403 21:45:43.040503 12732 net.cpp:399] inception_3a/output_inception_3a/output_0_split -> inception_3a/output_inception_3a/output_0_split_2
I0403 21:45:43.040529 12732 net.cpp:399] inception_3a/output_inception_3a/output_0_split -> inception_3a/output_inception_3a/output_0_split_3
I0403 21:45:43.040622 12732 net.cpp:141] Setting up inception_3a/output_inception_3a/output_0_split
I0403 21:45:43.040650 12732 net.cpp:148] Top shape: 24 256 28 28 (4816896)
I0403 21:45:43.040671 12732 net.cpp:148] Top shape: 24 256 28 28 (4816896)
I0403 21:45:43.040693 12732 net.cpp:148] Top shape: 24 256 28 28 (4816896)
I0403 21:45:43.040712 12732 net.cpp:148] Top shape: 24 256 28 28 (4816896)
I0403 21:45:43.040729 12732 net.cpp:156] Memory required for data: 657507360
I0403 21:45:43.040746 12732 layer_factory.hpp:77] Creating layer inception_3b/1x1
I0403 21:45:43.040774 12732 net.cpp:91] Creating Layer inception_3b/1x1
I0403 21:45:43.040797 12732 net.cpp:425] inception_3b/1x1 <- inception_3a/output_inception_3a/output_0_split_0
I0403 21:45:43.040824 12732 net.cpp:399] inception_3b/1x1 -> inception_3b/1x1
I0403 21:45:43.042242 12732 net.cpp:141] Setting up inception_3b/1x1
I0403 21:45:43.042290 12732 net.cpp:148] Top shape: 24 128 28 28 (2408448)
I0403 21:45:43.042310 12732 net.cpp:156] Memory required for data: 667141152
I0403 21:45:43.042333 12732 layer_factory.hpp:77] Creating layer inception_3b/relu_1x1
I0403 21:45:43.042356 12732 net.cpp:91] Creating Layer inception_3b/relu_1x1
I0403 21:45:43.042376 12732 net.cpp:425] inception_3b/relu_1x1 <- inception_3b/1x1
I0403 21:45:43.042402 12732 net.cpp:386] inception_3b/relu_1x1 -> inception_3b/1x1 (in-place)
I0403 21:45:43.042613 12732 net.cpp:141] Setting up inception_3b/relu_1x1
I0403 21:45:43.042644 12732 net.cpp:148] Top shape: 24 128 28 28 (2408448)
I0403 21:45:43.042665 12732 net.cpp:156] Memory required for data: 676774944
I0403 21:45:43.042685 12732 layer_factory.hpp:77] Creating layer inception_3b/3x3_reduce
I0403 21:45:43.042712 12732 net.cpp:91] Creating Layer inception_3b/3x3_reduce
I0403 21:45:43.042735 12732 net.cpp:425] inception_3b/3x3_reduce <- inception_3a/output_inception_3a/output_0_split_1
I0403 21:45:43.042762 12732 net.cpp:399] inception_3b/3x3_reduce -> inception_3b/3x3_reduce
I0403 21:45:43.044150 12732 net.cpp:141] Setting up inception_3b/3x3_reduce
I0403 21:45:43.044194 12732 net.cpp:148] Top shape: 24 128 28 28 (2408448)
I0403 21:45:43.044215 12732 net.cpp:156] Memory required for data: 686408736
I0403 21:45:43.044239 12732 layer_factory.hpp:77] Creating layer inception_3b/relu_3x3_reduce
I0403 21:45:43.044261 12732 net.cpp:91] Creating Layer inception_3b/relu_3x3_reduce
I0403 21:45:43.044282 12732 net.cpp:425] inception_3b/relu_3x3_reduce <- inception_3b/3x3_reduce
I0403 21:45:43.044306 12732 net.cpp:386] inception_3b/relu_3x3_reduce -> inception_3b/3x3_reduce (in-place)
I0403 21:45:43.044528 12732 net.cpp:141] Setting up inception_3b/relu_3x3_reduce
I0403 21:45:43.044559 12732 net.cpp:148] Top shape: 24 128 28 28 (2408448)
I0403 21:45:43.044577 12732 net.cpp:156] Memory required for data: 696042528
I0403 21:45:43.044597 12732 layer_factory.hpp:77] Creating layer inception_3b/3x3
I0403 21:45:43.044631 12732 net.cpp:91] Creating Layer inception_3b/3x3
I0403 21:45:43.044654 12732 net.cpp:425] inception_3b/3x3 <- inception_3b/3x3_reduce
I0403 21:45:43.044678 12732 net.cpp:399] inception_3b/3x3 -> inception_3b/3x3
I0403 21:45:43.048192 12732 net.cpp:141] Setting up inception_3b/3x3
I0403 21:45:43.048228 12732 net.cpp:148] Top shape: 24 192 28 28 (3612672)
I0403 21:45:43.048249 12732 net.cpp:156] Memory required for data: 710493216
I0403 21:45:43.048272 12732 layer_factory.hpp:77] Creating layer inception_3b/relu_3x3
I0403 21:45:43.048297 12732 net.cpp:91] Creating Layer inception_3b/relu_3x3
I0403 21:45:43.048318 12732 net.cpp:425] inception_3b/relu_3x3 <- inception_3b/3x3
I0403 21:45:43.048341 12732 net.cpp:386] inception_3b/relu_3x3 -> inception_3b/3x3 (in-place)
I0403 21:45:43.048668 12732 net.cpp:141] Setting up inception_3b/relu_3x3
I0403 21:45:43.048702 12732 net.cpp:148] Top shape: 24 192 28 28 (3612672)
I0403 21:45:43.048722 12732 net.cpp:156] Memory required for data: 724943904
I0403 21:45:43.048741 12732 layer_factory.hpp:77] Creating layer inception_3b/5x5_reduce
I0403 21:45:43.048769 12732 net.cpp:91] Creating Layer inception_3b/5x5_reduce
I0403 21:45:43.048794 12732 net.cpp:425] inception_3b/5x5_reduce <- inception_3a/output_inception_3a/output_0_split_2
I0403 21:45:43.048820 12732 net.cpp:399] inception_3b/5x5_reduce -> inception_3b/5x5_reduce
I0403 21:45:43.050024 12732 net.cpp:141] Setting up inception_3b/5x5_reduce
I0403 21:45:43.050058 12732 net.cpp:148] Top shape: 24 32 28 28 (602112)
I0403 21:45:43.050079 12732 net.cpp:156] Memory required for data: 727352352
I0403 21:45:43.050101 12732 layer_factory.hpp:77] Creating layer inception_3b/relu_5x5_reduce
I0403 21:45:43.050127 12732 net.cpp:91] Creating Layer inception_3b/relu_5x5_reduce
I0403 21:45:43.050148 12732 net.cpp:425] inception_3b/relu_5x5_reduce <- inception_3b/5x5_reduce
I0403 21:45:43.050171 12732 net.cpp:386] inception_3b/relu_5x5_reduce -> inception_3b/5x5_reduce (in-place)
I0403 21:45:43.050391 12732 net.cpp:141] Setting up inception_3b/relu_5x5_reduce
I0403 21:45:43.050437 12732 net.cpp:148] Top shape: 24 32 28 28 (602112)
I0403 21:45:43.050457 12732 net.cpp:156] Memory required for data: 729760800
I0403 21:45:43.050475 12732 layer_factory.hpp:77] Creating layer inception_3b/5x5
I0403 21:45:43.050506 12732 net.cpp:91] Creating Layer inception_3b/5x5
I0403 21:45:43.050529 12732 net.cpp:425] inception_3b/5x5 <- inception_3b/5x5_reduce
I0403 21:45:43.050554 12732 net.cpp:399] inception_3b/5x5 -> inception_3b/5x5
I0403 21:45:43.052932 12732 net.cpp:141] Setting up inception_3b/5x5
I0403 21:45:43.052973 12732 net.cpp:148] Top shape: 24 96 28 28 (1806336)
I0403 21:45:43.052994 12732 net.cpp:156] Memory required for data: 736986144
I0403 21:45:43.053016 12732 layer_factory.hpp:77] Creating layer inception_3b/relu_5x5
I0403 21:45:43.053040 12732 net.cpp:91] Creating Layer inception_3b/relu_5x5
I0403 21:45:43.053061 12732 net.cpp:425] inception_3b/relu_5x5 <- inception_3b/5x5
I0403 21:45:43.053086 12732 net.cpp:386] inception_3b/relu_5x5 -> inception_3b/5x5 (in-place)
I0403 21:45:43.053336 12732 net.cpp:141] Setting up inception_3b/relu_5x5
I0403 21:45:43.053367 12732 net.cpp:148] Top shape: 24 96 28 28 (1806336)
I0403 21:45:43.053386 12732 net.cpp:156] Memory required for data: 744211488
I0403 21:45:43.053406 12732 layer_factory.hpp:77] Creating layer inception_3b/pool
I0403 21:45:43.053427 12732 net.cpp:91] Creating Layer inception_3b/pool
I0403 21:45:43.053448 12732 net.cpp:425] inception_3b/pool <- inception_3a/output_inception_3a/output_0_split_3
I0403 21:45:43.053472 12732 net.cpp:399] inception_3b/pool -> inception_3b/pool
I0403 21:45:43.053544 12732 net.cpp:141] Setting up inception_3b/pool
I0403 21:45:43.053575 12732 net.cpp:148] Top shape: 24 256 28 28 (4816896)
I0403 21:45:43.053593 12732 net.cpp:156] Memory required for data: 763479072
I0403 21:45:43.053611 12732 layer_factory.hpp:77] Creating layer inception_3b/pool_proj
I0403 21:45:43.053638 12732 net.cpp:91] Creating Layer inception_3b/pool_proj
I0403 21:45:43.053658 12732 net.cpp:425] inception_3b/pool_proj <- inception_3b/pool
I0403 21:45:43.053683 12732 net.cpp:399] inception_3b/pool_proj -> inception_3b/pool_proj
I0403 21:45:43.054960 12732 net.cpp:141] Setting up inception_3b/pool_proj
I0403 21:45:43.054996 12732 net.cpp:148] Top shape: 24 64 28 28 (1204224)
I0403 21:45:43.055014 12732 net.cpp:156] Memory required for data: 768295968
I0403 21:45:43.055037 12732 layer_factory.hpp:77] Creating layer inception_3b/relu_pool_proj
I0403 21:45:43.055063 12732 net.cpp:91] Creating Layer inception_3b/relu_pool_proj
I0403 21:45:43.055083 12732 net.cpp:425] inception_3b/relu_pool_proj <- inception_3b/pool_proj
I0403 21:45:43.055106 12732 net.cpp:386] inception_3b/relu_pool_proj -> inception_3b/pool_proj (in-place)
I0403 21:45:43.055562 12732 net.cpp:141] Setting up inception_3b/relu_pool_proj
I0403 21:45:43.055595 12732 net.cpp:148] Top shape: 24 64 28 28 (1204224)
I0403 21:45:43.055615 12732 net.cpp:156] Memory required for data: 773112864
I0403 21:45:43.055635 12732 layer_factory.hpp:77] Creating layer inception_3b/output
I0403 21:45:43.055660 12732 net.cpp:91] Creating Layer inception_3b/output
I0403 21:45:43.055680 12732 net.cpp:425] inception_3b/output <- inception_3b/1x1
I0403 21:45:43.055701 12732 net.cpp:425] inception_3b/output <- inception_3b/3x3
I0403 21:45:43.055722 12732 net.cpp:425] inception_3b/output <- inception_3b/5x5
I0403 21:45:43.055743 12732 net.cpp:425] inception_3b/output <- inception_3b/pool_proj
I0403 21:45:43.055764 12732 net.cpp:399] inception_3b/output -> inception_3b/output
I0403 21:45:43.055819 12732 net.cpp:141] Setting up inception_3b/output
I0403 21:45:43.055848 12732 net.cpp:148] Top shape: 24 480 28 28 (9031680)
I0403 21:45:43.055866 12732 net.cpp:156] Memory required for data: 809239584
I0403 21:45:43.055886 12732 layer_factory.hpp:77] Creating layer pool3/3x3_s2
I0403 21:45:43.055909 12732 net.cpp:91] Creating Layer pool3/3x3_s2
I0403 21:45:43.055930 12732 net.cpp:425] pool3/3x3_s2 <- inception_3b/output
I0403 21:45:43.055955 12732 net.cpp:399] pool3/3x3_s2 -> pool3/3x3_s2
I0403 21:45:43.056041 12732 net.cpp:141] Setting up pool3/3x3_s2
I0403 21:45:43.056073 12732 net.cpp:148] Top shape: 24 480 14 14 (2257920)
I0403 21:45:43.056092 12732 net.cpp:156] Memory required for data: 818271264
I0403 21:45:43.056112 12732 layer_factory.hpp:77] Creating layer pool3/3x3_s2_pool3/3x3_s2_0_split
I0403 21:45:43.056133 12732 net.cpp:91] Creating Layer pool3/3x3_s2_pool3/3x3_s2_0_split
I0403 21:45:43.056152 12732 net.cpp:425] pool3/3x3_s2_pool3/3x3_s2_0_split <- pool3/3x3_s2
I0403 21:45:43.056174 12732 net.cpp:399] pool3/3x3_s2_pool3/3x3_s2_0_split -> pool3/3x3_s2_pool3/3x3_s2_0_split_0
I0403 21:45:43.056210 12732 net.cpp:399] pool3/3x3_s2_pool3/3x3_s2_0_split -> pool3/3x3_s2_pool3/3x3_s2_0_split_1
I0403 21:45:43.056236 12732 net.cpp:399] pool3/3x3_s2_pool3/3x3_s2_0_split -> pool3/3x3_s2_pool3/3x3_s2_0_split_2
I0403 21:45:43.056262 12732 net.cpp:399] pool3/3x3_s2_pool3/3x3_s2_0_split -> pool3/3x3_s2_pool3/3x3_s2_0_split_3
I0403 21:45:43.056361 12732 net.cpp:141] Setting up pool3/3x3_s2_pool3/3x3_s2_0_split
I0403 21:45:43.056391 12732 net.cpp:148] Top shape: 24 480 14 14 (2257920)
I0403 21:45:43.056411 12732 net.cpp:148] Top shape: 24 480 14 14 (2257920)
I0403 21:45:43.056430 12732 net.cpp:148] Top shape: 24 480 14 14 (2257920)
I0403 21:45:43.056450 12732 net.cpp:148] Top shape: 24 480 14 14 (2257920)
I0403 21:45:43.056468 12732 net.cpp:156] Memory required for data: 854397984
I0403 21:45:43.056485 12732 layer_factory.hpp:77] Creating layer inception_4a/1x1
I0403 21:45:43.056515 12732 net.cpp:91] Creating Layer inception_4a/1x1
I0403 21:45:43.056536 12732 net.cpp:425] inception_4a/1x1 <- pool3/3x3_s2_pool3/3x3_s2_0_split_0
I0403 21:45:43.056561 12732 net.cpp:399] inception_4a/1x1 -> inception_4a/1x1
I0403 21:45:43.058478 12732 net.cpp:141] Setting up inception_4a/1x1
I0403 21:45:43.058516 12732 net.cpp:148] Top shape: 24 192 14 14 (903168)
I0403 21:45:43.058538 12732 net.cpp:156] Memory required for data: 858010656
I0403 21:45:43.058562 12732 layer_factory.hpp:77] Creating layer inception_4a/relu_1x1
I0403 21:45:43.058585 12732 net.cpp:91] Creating Layer inception_4a/relu_1x1
I0403 21:45:43.058605 12732 net.cpp:425] inception_4a/relu_1x1 <- inception_4a/1x1
I0403 21:45:43.058629 12732 net.cpp:386] inception_4a/relu_1x1 -> inception_4a/1x1 (in-place)
I0403 21:45:43.058845 12732 net.cpp:141] Setting up inception_4a/relu_1x1
I0403 21:45:43.058878 12732 net.cpp:148] Top shape: 24 192 14 14 (903168)
I0403 21:45:43.058897 12732 net.cpp:156] Memory required for data: 861623328
I0403 21:45:43.058917 12732 layer_factory.hpp:77] Creating layer inception_4a/3x3_reduce
I0403 21:45:43.058943 12732 net.cpp:91] Creating Layer inception_4a/3x3_reduce
I0403 21:45:43.058966 12732 net.cpp:425] inception_4a/3x3_reduce <- pool3/3x3_s2_pool3/3x3_s2_0_split_1
I0403 21:45:43.058992 12732 net.cpp:399] inception_4a/3x3_reduce -> inception_4a/3x3_reduce
I0403 21:45:43.060554 12732 net.cpp:141] Setting up inception_4a/3x3_reduce
I0403 21:45:43.060591 12732 net.cpp:148] Top shape: 24 96 14 14 (451584)
I0403 21:45:43.060613 12732 net.cpp:156] Memory required for data: 863429664
I0403 21:45:43.060642 12732 layer_factory.hpp:77] Creating layer inception_4a/relu_3x3_reduce
I0403 21:45:43.060670 12732 net.cpp:91] Creating Layer inception_4a/relu_3x3_reduce
I0403 21:45:43.060693 12732 net.cpp:425] inception_4a/relu_3x3_reduce <- inception_4a/3x3_reduce
I0403 21:45:43.060714 12732 net.cpp:386] inception_4a/relu_3x3_reduce -> inception_4a/3x3_reduce (in-place)
I0403 21:45:43.060935 12732 net.cpp:141] Setting up inception_4a/relu_3x3_reduce
I0403 21:45:43.060966 12732 net.cpp:148] Top shape: 24 96 14 14 (451584)
I0403 21:45:43.060984 12732 net.cpp:156] Memory required for data: 865236000
I0403 21:45:43.061003 12732 layer_factory.hpp:77] Creating layer inception_4a/3x3
I0403 21:45:43.061031 12732 net.cpp:91] Creating Layer inception_4a/3x3
I0403 21:45:43.061053 12732 net.cpp:425] inception_4a/3x3 <- inception_4a/3x3_reduce
I0403 21:45:43.061079 12732 net.cpp:399] inception_4a/3x3 -> inception_4a/3x3
I0403 21:45:43.064357 12732 net.cpp:141] Setting up inception_4a/3x3
I0403 21:45:43.064393 12732 net.cpp:148] Top shape: 24 208 14 14 (978432)
I0403 21:45:43.064414 12732 net.cpp:156] Memory required for data: 869149728
I0403 21:45:43.064438 12732 layer_factory.hpp:77] Creating layer inception_4a/relu_3x3
I0403 21:45:43.064461 12732 net.cpp:91] Creating Layer inception_4a/relu_3x3
I0403 21:45:43.064481 12732 net.cpp:425] inception_4a/relu_3x3 <- inception_4a/3x3
I0403 21:45:43.064507 12732 net.cpp:386] inception_4a/relu_3x3 -> inception_4a/3x3 (in-place)
I0403 21:45:43.064841 12732 net.cpp:141] Setting up inception_4a/relu_3x3
I0403 21:45:43.064874 12732 net.cpp:148] Top shape: 24 208 14 14 (978432)
I0403 21:45:43.064893 12732 net.cpp:156] Memory required for data: 873063456
I0403 21:45:43.064911 12732 layer_factory.hpp:77] Creating layer inception_4a/5x5_reduce
I0403 21:45:43.064941 12732 net.cpp:91] Creating Layer inception_4a/5x5_reduce
I0403 21:45:43.064965 12732 net.cpp:425] inception_4a/5x5_reduce <- pool3/3x3_s2_pool3/3x3_s2_0_split_2
I0403 21:45:43.064992 12732 net.cpp:399] inception_4a/5x5_reduce -> inception_4a/5x5_reduce
I0403 21:45:43.066253 12732 net.cpp:141] Setting up inception_4a/5x5_reduce
I0403 21:45:43.066288 12732 net.cpp:148] Top shape: 24 16 14 14 (75264)
I0403 21:45:43.066308 12732 net.cpp:156] Memory required for data: 873364512
I0403 21:45:43.066330 12732 layer_factory.hpp:77] Creating layer inception_4a/relu_5x5_reduce
I0403 21:45:43.066357 12732 net.cpp:91] Creating Layer inception_4a/relu_5x5_reduce
I0403 21:45:43.066378 12732 net.cpp:425] inception_4a/relu_5x5_reduce <- inception_4a/5x5_reduce
I0403 21:45:43.066401 12732 net.cpp:386] inception_4a/relu_5x5_reduce -> inception_4a/5x5_reduce (in-place)
I0403 21:45:43.066627 12732 net.cpp:141] Setting up inception_4a/relu_5x5_reduce
I0403 21:45:43.066658 12732 net.cpp:148] Top shape: 24 16 14 14 (75264)
I0403 21:45:43.066676 12732 net.cpp:156] Memory required for data: 873665568
I0403 21:45:43.066695 12732 layer_factory.hpp:77] Creating layer inception_4a/5x5
I0403 21:45:43.066723 12732 net.cpp:91] Creating Layer inception_4a/5x5
I0403 21:45:43.066747 12732 net.cpp:425] inception_4a/5x5 <- inception_4a/5x5_reduce
I0403 21:45:43.066773 12732 net.cpp:399] inception_4a/5x5 -> inception_4a/5x5
I0403 21:45:43.068100 12732 net.cpp:141] Setting up inception_4a/5x5
I0403 21:45:43.068135 12732 net.cpp:148] Top shape: 24 48 14 14 (225792)
I0403 21:45:43.068156 12732 net.cpp:156] Memory required for data: 874568736
I0403 21:45:43.068184 12732 layer_factory.hpp:77] Creating layer inception_4a/relu_5x5
I0403 21:45:43.068214 12732 net.cpp:91] Creating Layer inception_4a/relu_5x5
I0403 21:45:43.068235 12732 net.cpp:425] inception_4a/relu_5x5 <- inception_4a/5x5
I0403 21:45:43.068259 12732 net.cpp:386] inception_4a/relu_5x5 -> inception_4a/5x5 (in-place)
I0403 21:45:43.068480 12732 net.cpp:141] Setting up inception_4a/relu_5x5
I0403 21:45:43.068516 12732 net.cpp:148] Top shape: 24 48 14 14 (225792)
I0403 21:45:43.068536 12732 net.cpp:156] Memory required for data: 875471904
I0403 21:45:43.068555 12732 layer_factory.hpp:77] Creating layer inception_4a/pool
I0403 21:45:43.068578 12732 net.cpp:91] Creating Layer inception_4a/pool
I0403 21:45:43.068598 12732 net.cpp:425] inception_4a/pool <- pool3/3x3_s2_pool3/3x3_s2_0_split_3
I0403 21:45:43.068624 12732 net.cpp:399] inception_4a/pool -> inception_4a/pool
I0403 21:45:43.068699 12732 net.cpp:141] Setting up inception_4a/pool
I0403 21:45:43.068728 12732 net.cpp:148] Top shape: 24 480 14 14 (2257920)
I0403 21:45:43.068747 12732 net.cpp:156] Memory required for data: 884503584
I0403 21:45:43.068766 12732 layer_factory.hpp:77] Creating layer inception_4a/pool_proj
I0403 21:45:43.068794 12732 net.cpp:91] Creating Layer inception_4a/pool_proj
I0403 21:45:43.068817 12732 net.cpp:425] inception_4a/pool_proj <- inception_4a/pool
I0403 21:45:43.068845 12732 net.cpp:399] inception_4a/pool_proj -> inception_4a/pool_proj
I0403 21:45:43.070274 12732 net.cpp:141] Setting up inception_4a/pool_proj
I0403 21:45:43.070315 12732 net.cpp:148] Top shape: 24 64 14 14 (301056)
I0403 21:45:43.070353 12732 net.cpp:156] Memory required for data: 885707808
I0403 21:45:43.070377 12732 layer_factory.hpp:77] Creating layer inception_4a/relu_pool_proj
I0403 21:45:43.070401 12732 net.cpp:91] Creating Layer inception_4a/relu_pool_proj
I0403 21:45:43.070420 12732 net.cpp:425] inception_4a/relu_pool_proj <- inception_4a/pool_proj
I0403 21:45:43.070442 12732 net.cpp:386] inception_4a/relu_pool_proj -> inception_4a/pool_proj (in-place)
I0403 21:45:43.070787 12732 net.cpp:141] Setting up inception_4a/relu_pool_proj
I0403 21:45:43.070824 12732 net.cpp:148] Top shape: 24 64 14 14 (301056)
I0403 21:45:43.070844 12732 net.cpp:156] Memory required for data: 886912032
I0403 21:45:43.070864 12732 layer_factory.hpp:77] Creating layer inception_4a/output
I0403 21:45:43.070888 12732 net.cpp:91] Creating Layer inception_4a/output
I0403 21:45:43.070907 12732 net.cpp:425] inception_4a/output <- inception_4a/1x1
I0403 21:45:43.070930 12732 net.cpp:425] inception_4a/output <- inception_4a/3x3
I0403 21:45:43.070950 12732 net.cpp:425] inception_4a/output <- inception_4a/5x5
I0403 21:45:43.070971 12732 net.cpp:425] inception_4a/output <- inception_4a/pool_proj
I0403 21:45:43.070992 12732 net.cpp:399] inception_4a/output -> inception_4a/output
I0403 21:45:43.071048 12732 net.cpp:141] Setting up inception_4a/output
I0403 21:45:43.071079 12732 net.cpp:148] Top shape: 24 512 14 14 (2408448)
I0403 21:45:43.071096 12732 net.cpp:156] Memory required for data: 896545824
I0403 21:45:43.071116 12732 layer_factory.hpp:77] Creating layer inception_4a/output_inception_4a/output_0_split
I0403 21:45:43.071142 12732 net.cpp:91] Creating Layer inception_4a/output_inception_4a/output_0_split
I0403 21:45:43.071164 12732 net.cpp:425] inception_4a/output_inception_4a/output_0_split <- inception_4a/output
I0403 21:45:43.071193 12732 net.cpp:399] inception_4a/output_inception_4a/output_0_split -> inception_4a/output_inception_4a/output_0_split_0
I0403 21:45:43.071223 12732 net.cpp:399] inception_4a/output_inception_4a/output_0_split -> inception_4a/output_inception_4a/output_0_split_1
I0403 21:45:43.071247 12732 net.cpp:399] inception_4a/output_inception_4a/output_0_split -> inception_4a/output_inception_4a/output_0_split_2
I0403 21:45:43.071272 12732 net.cpp:399] inception_4a/output_inception_4a/output_0_split -> inception_4a/output_inception_4a/output_0_split_3
I0403 21:45:43.071302 12732 net.cpp:399] inception_4a/output_inception_4a/output_0_split -> inception_4a/output_inception_4a/output_0_split_4
I0403 21:45:43.071421 12732 net.cpp:141] Setting up inception_4a/output_inception_4a/output_0_split
I0403 21:45:43.071451 12732 net.cpp:148] Top shape: 24 512 14 14 (2408448)
I0403 21:45:43.071473 12732 net.cpp:148] Top shape: 24 512 14 14 (2408448)
I0403 21:45:43.071493 12732 net.cpp:148] Top shape: 24 512 14 14 (2408448)
I0403 21:45:43.071513 12732 net.cpp:148] Top shape: 24 512 14 14 (2408448)
I0403 21:45:43.071534 12732 net.cpp:148] Top shape: 24 512 14 14 (2408448)
I0403 21:45:43.071552 12732 net.cpp:156] Memory required for data: 944714784
I0403 21:45:43.071571 12732 layer_factory.hpp:77] Creating layer loss1/ave_pool
I0403 21:45:43.071593 12732 net.cpp:91] Creating Layer loss1/ave_pool
I0403 21:45:43.071620 12732 net.cpp:425] loss1/ave_pool <- inception_4a/output_inception_4a/output_0_split_0
I0403 21:45:43.071643 12732 net.cpp:399] loss1/ave_pool -> loss1/ave_pool
I0403 21:45:43.071897 12732 net.cpp:141] Setting up loss1/ave_pool
I0403 21:45:43.071933 12732 net.cpp:148] Top shape: 24 512 4 4 (196608)
I0403 21:45:43.071954 12732 net.cpp:156] Memory required for data: 945501216
I0403 21:45:43.071971 12732 layer_factory.hpp:77] Creating layer loss1/conv
I0403 21:45:43.071998 12732 net.cpp:91] Creating Layer loss1/conv
I0403 21:45:43.072021 12732 net.cpp:425] loss1/conv <- loss1/ave_pool
I0403 21:45:43.072044 12732 net.cpp:399] loss1/conv -> loss1/conv
I0403 21:45:43.073812 12732 net.cpp:141] Setting up loss1/conv
I0403 21:45:43.073846 12732 net.cpp:148] Top shape: 24 128 4 4 (49152)
I0403 21:45:43.073866 12732 net.cpp:156] Memory required for data: 945697824
I0403 21:45:43.073907 12732 layer_factory.hpp:77] Creating layer loss1/relu_conv
I0403 21:45:43.073932 12732 net.cpp:91] Creating Layer loss1/relu_conv
I0403 21:45:43.073956 12732 net.cpp:425] loss1/relu_conv <- loss1/conv
I0403 21:45:43.073978 12732 net.cpp:386] loss1/relu_conv -> loss1/conv (in-place)
I0403 21:45:43.074337 12732 net.cpp:141] Setting up loss1/relu_conv
I0403 21:45:43.074370 12732 net.cpp:148] Top shape: 24 128 4 4 (49152)
I0403 21:45:43.074389 12732 net.cpp:156] Memory required for data: 945894432
I0403 21:45:43.074409 12732 layer_factory.hpp:77] Creating layer loss1/fc
I0403 21:45:43.074437 12732 net.cpp:91] Creating Layer loss1/fc
I0403 21:45:43.074460 12732 net.cpp:425] loss1/fc <- loss1/conv
I0403 21:45:43.074488 12732 net.cpp:399] loss1/fc -> loss1/fc
I0403 21:45:43.096745 12732 net.cpp:141] Setting up loss1/fc
I0403 21:45:43.096788 12732 net.cpp:148] Top shape: 24 1024 (24576)
I0403 21:45:43.096809 12732 net.cpp:156] Memory required for data: 945992736
I0403 21:45:43.096832 12732 layer_factory.hpp:77] Creating layer loss1/relu_fc
I0403 21:45:43.096858 12732 net.cpp:91] Creating Layer loss1/relu_fc
I0403 21:45:43.096879 12732 net.cpp:425] loss1/relu_fc <- loss1/fc
I0403 21:45:43.096900 12732 net.cpp:386] loss1/relu_fc -> loss1/fc (in-place)
I0403 21:45:43.097133 12732 net.cpp:141] Setting up loss1/relu_fc
I0403 21:45:43.097165 12732 net.cpp:148] Top shape: 24 1024 (24576)
I0403 21:45:43.097190 12732 net.cpp:156] Memory required for data: 946091040
I0403 21:45:43.097210 12732 layer_factory.hpp:77] Creating layer loss1/drop_fc
I0403 21:45:43.097242 12732 net.cpp:91] Creating Layer loss1/drop_fc
I0403 21:45:43.097265 12732 net.cpp:425] loss1/drop_fc <- loss1/fc
I0403 21:45:43.097290 12732 net.cpp:386] loss1/drop_fc -> loss1/fc (in-place)
I0403 21:45:43.097354 12732 net.cpp:141] Setting up loss1/drop_fc
I0403 21:45:43.097383 12732 net.cpp:148] Top shape: 24 1024 (24576)
I0403 21:45:43.097401 12732 net.cpp:156] Memory required for data: 946189344
I0403 21:45:43.097420 12732 layer_factory.hpp:77] Creating layer loss1/classifier_plantvillage
I0403 21:45:43.097448 12732 net.cpp:91] Creating Layer loss1/classifier_plantvillage
I0403 21:45:43.097470 12732 net.cpp:425] loss1/classifier_plantvillage <- loss1/fc
I0403 21:45:43.097496 12732 net.cpp:399] loss1/classifier_plantvillage -> loss1/classifier_plantvillage
I0403 21:45:43.098585 12732 net.cpp:141] Setting up loss1/classifier_plantvillage
I0403 21:45:43.098628 12732 net.cpp:148] Top shape: 24 38 (912)
I0403 21:45:43.098649 12732 net.cpp:156] Memory required for data: 946192992
I0403 21:45:43.098671 12732 layer_factory.hpp:77] Creating layer loss1/classifier_plantvillage_loss1/classifier_plantvillage_0_split
I0403 21:45:43.098693 12732 net.cpp:91] Creating Layer loss1/classifier_plantvillage_loss1/classifier_plantvillage_0_split
I0403 21:45:43.098714 12732 net.cpp:425] loss1/classifier_plantvillage_loss1/classifier_plantvillage_0_split <- loss1/classifier_plantvillage
I0403 21:45:43.098738 12732 net.cpp:399] loss1/classifier_plantvillage_loss1/classifier_plantvillage_0_split -> loss1/classifier_plantvillage_loss1/classifier_plantvillage_0_split_0
I0403 21:45:43.098765 12732 net.cpp:399] loss1/classifier_plantvillage_loss1/classifier_plantvillage_0_split -> loss1/classifier_plantvillage_loss1/classifier_plantvillage_0_split_1
I0403 21:45:43.098790 12732 net.cpp:399] loss1/classifier_plantvillage_loss1/classifier_plantvillage_0_split -> loss1/classifier_plantvillage_loss1/classifier_plantvillage_0_split_2
I0403 21:45:43.098872 12732 net.cpp:141] Setting up loss1/classifier_plantvillage_loss1/classifier_plantvillage_0_split
I0403 21:45:43.098901 12732 net.cpp:148] Top shape: 24 38 (912)
I0403 21:45:43.098922 12732 net.cpp:148] Top shape: 24 38 (912)
I0403 21:45:43.098942 12732 net.cpp:148] Top shape: 24 38 (912)
I0403 21:45:43.098959 12732 net.cpp:156] Memory required for data: 946203936
I0403 21:45:43.098978 12732 layer_factory.hpp:77] Creating layer inception_4b/1x1
I0403 21:45:43.099005 12732 net.cpp:91] Creating Layer inception_4b/1x1
I0403 21:45:43.099045 12732 net.cpp:425] inception_4b/1x1 <- inception_4a/output_inception_4a/output_0_split_1
I0403 21:45:43.099069 12732 net.cpp:399] inception_4b/1x1 -> inception_4b/1x1
I0403 21:45:43.101052 12732 net.cpp:141] Setting up inception_4b/1x1
I0403 21:45:43.101089 12732 net.cpp:148] Top shape: 24 160 14 14 (752640)
I0403 21:45:43.101109 12732 net.cpp:156] Memory required for data: 949214496
I0403 21:45:43.101132 12732 layer_factory.hpp:77] Creating layer inception_4b/relu_1x1
I0403 21:45:43.101157 12732 net.cpp:91] Creating Layer inception_4b/relu_1x1
I0403 21:45:43.101184 12732 net.cpp:425] inception_4b/relu_1x1 <- inception_4b/1x1
I0403 21:45:43.101208 12732 net.cpp:386] inception_4b/relu_1x1 -> inception_4b/1x1 (in-place)
I0403 21:45:43.101430 12732 net.cpp:141] Setting up inception_4b/relu_1x1
I0403 21:45:43.101461 12732 net.cpp:148] Top shape: 24 160 14 14 (752640)
I0403 21:45:43.101480 12732 net.cpp:156] Memory required for data: 952225056
I0403 21:45:43.101500 12732 layer_factory.hpp:77] Creating layer inception_4b/3x3_reduce
I0403 21:45:43.101528 12732 net.cpp:91] Creating Layer inception_4b/3x3_reduce
I0403 21:45:43.101550 12732 net.cpp:425] inception_4b/3x3_reduce <- inception_4a/output_inception_4a/output_0_split_2
I0403 21:45:43.101577 12732 net.cpp:399] inception_4b/3x3_reduce -> inception_4b/3x3_reduce
I0403 21:45:43.103276 12732 net.cpp:141] Setting up inception_4b/3x3_reduce
I0403 21:45:43.103312 12732 net.cpp:148] Top shape: 24 112 14 14 (526848)
I0403 21:45:43.103332 12732 net.cpp:156] Memory required for data: 954332448
I0403 21:45:43.103356 12732 layer_factory.hpp:77] Creating layer inception_4b/relu_3x3_reduce
I0403 21:45:43.103382 12732 net.cpp:91] Creating Layer inception_4b/relu_3x3_reduce
I0403 21:45:43.103404 12732 net.cpp:425] inception_4b/relu_3x3_reduce <- inception_4b/3x3_reduce
I0403 21:45:43.103426 12732 net.cpp:386] inception_4b/relu_3x3_reduce -> inception_4b/3x3_reduce (in-place)
I0403 21:45:43.103775 12732 net.cpp:141] Setting up inception_4b/relu_3x3_reduce
I0403 21:45:43.103807 12732 net.cpp:148] Top shape: 24 112 14 14 (526848)
I0403 21:45:43.103827 12732 net.cpp:156] Memory required for data: 956439840
I0403 21:45:43.103847 12732 layer_factory.hpp:77] Creating layer inception_4b/3x3
I0403 21:45:43.103874 12732 net.cpp:91] Creating Layer inception_4b/3x3
I0403 21:45:43.103896 12732 net.cpp:425] inception_4b/3x3 <- inception_4b/3x3_reduce
I0403 21:45:43.103924 12732 net.cpp:399] inception_4b/3x3 -> inception_4b/3x3
I0403 21:45:43.107599 12732 net.cpp:141] Setting up inception_4b/3x3
I0403 21:45:43.107638 12732 net.cpp:148] Top shape: 24 224 14 14 (1053696)
I0403 21:45:43.107661 12732 net.cpp:156] Memory required for data: 960654624
I0403 21:45:43.107684 12732 layer_factory.hpp:77] Creating layer inception_4b/relu_3x3
I0403 21:45:43.107707 12732 net.cpp:91] Creating Layer inception_4b/relu_3x3
I0403 21:45:43.107728 12732 net.cpp:425] inception_4b/relu_3x3 <- inception_4b/3x3
I0403 21:45:43.107753 12732 net.cpp:386] inception_4b/relu_3x3 -> inception_4b/3x3 (in-place)
I0403 21:45:43.107977 12732 net.cpp:141] Setting up inception_4b/relu_3x3
I0403 21:45:43.108009 12732 net.cpp:148] Top shape: 24 224 14 14 (1053696)
I0403 21:45:43.108029 12732 net.cpp:156] Memory required for data: 964869408
I0403 21:45:43.108048 12732 layer_factory.hpp:77] Creating layer inception_4b/5x5_reduce
I0403 21:45:43.108078 12732 net.cpp:91] Creating Layer inception_4b/5x5_reduce
I0403 21:45:43.108101 12732 net.cpp:425] inception_4b/5x5_reduce <- inception_4a/output_inception_4a/output_0_split_3
I0403 21:45:43.108129 12732 net.cpp:399] inception_4b/5x5_reduce -> inception_4b/5x5_reduce
I0403 21:45:43.109475 12732 net.cpp:141] Setting up inception_4b/5x5_reduce
I0403 21:45:43.109510 12732 net.cpp:148] Top shape: 24 24 14 14 (112896)
I0403 21:45:43.109530 12732 net.cpp:156] Memory required for data: 965320992
I0403 21:45:43.109555 12732 layer_factory.hpp:77] Creating layer inception_4b/relu_5x5_reduce
I0403 21:45:43.109581 12732 net.cpp:91] Creating Layer inception_4b/relu_5x5_reduce
I0403 21:45:43.109622 12732 net.cpp:425] inception_4b/relu_5x5_reduce <- inception_4b/5x5_reduce
I0403 21:45:43.109645 12732 net.cpp:386] inception_4b/relu_5x5_reduce -> inception_4b/5x5_reduce (in-place)
I0403 21:45:43.109879 12732 net.cpp:141] Setting up inception_4b/relu_5x5_reduce
I0403 21:45:43.109913 12732 net.cpp:148] Top shape: 24 24 14 14 (112896)
I0403 21:45:43.109933 12732 net.cpp:156] Memory required for data: 965772576
I0403 21:45:43.109952 12732 layer_factory.hpp:77] Creating layer inception_4b/5x5
I0403 21:45:43.109977 12732 net.cpp:91] Creating Layer inception_4b/5x5
I0403 21:45:43.109999 12732 net.cpp:425] inception_4b/5x5 <- inception_4b/5x5_reduce
I0403 21:45:43.110026 12732 net.cpp:399] inception_4b/5x5 -> inception_4b/5x5
I0403 21:45:43.111552 12732 net.cpp:141] Setting up inception_4b/5x5
I0403 21:45:43.111587 12732 net.cpp:148] Top shape: 24 64 14 14 (301056)
I0403 21:45:43.111606 12732 net.cpp:156] Memory required for data: 966976800
I0403 21:45:43.111629 12732 layer_factory.hpp:77] Creating layer inception_4b/relu_5x5
I0403 21:45:43.111655 12732 net.cpp:91] Creating Layer inception_4b/relu_5x5
I0403 21:45:43.111677 12732 net.cpp:425] inception_4b/relu_5x5 <- inception_4b/5x5
I0403 21:45:43.111701 12732 net.cpp:386] inception_4b/relu_5x5 -> inception_4b/5x5 (in-place)
I0403 21:45:43.112048 12732 net.cpp:141] Setting up inception_4b/relu_5x5
I0403 21:45:43.112082 12732 net.cpp:148] Top shape: 24 64 14 14 (301056)
I0403 21:45:43.112102 12732 net.cpp:156] Memory required for data: 968181024
I0403 21:45:43.112121 12732 layer_factory.hpp:77] Creating layer inception_4b/pool
I0403 21:45:43.112144 12732 net.cpp:91] Creating Layer inception_4b/pool
I0403 21:45:43.112164 12732 net.cpp:425] inception_4b/pool <- inception_4a/output_inception_4a/output_0_split_4
I0403 21:45:43.112205 12732 net.cpp:399] inception_4b/pool -> inception_4b/pool
I0403 21:45:43.112289 12732 net.cpp:141] Setting up inception_4b/pool
I0403 21:45:43.112321 12732 net.cpp:148] Top shape: 24 512 14 14 (2408448)
I0403 21:45:43.112339 12732 net.cpp:156] Memory required for data: 977814816
I0403 21:45:43.112360 12732 layer_factory.hpp:77] Creating layer inception_4b/pool_proj
I0403 21:45:43.112387 12732 net.cpp:91] Creating Layer inception_4b/pool_proj
I0403 21:45:43.112411 12732 net.cpp:425] inception_4b/pool_proj <- inception_4b/pool
I0403 21:45:43.112434 12732 net.cpp:399] inception_4b/pool_proj -> inception_4b/pool_proj
I0403 21:45:43.113912 12732 net.cpp:141] Setting up inception_4b/pool_proj
I0403 21:45:43.113947 12732 net.cpp:148] Top shape: 24 64 14 14 (301056)
I0403 21:45:43.113967 12732 net.cpp:156] Memory required for data: 979019040
I0403 21:45:43.113991 12732 layer_factory.hpp:77] Creating layer inception_4b/relu_pool_proj
I0403 21:45:43.114018 12732 net.cpp:91] Creating Layer inception_4b/relu_pool_proj
I0403 21:45:43.114040 12732 net.cpp:425] inception_4b/relu_pool_proj <- inception_4b/pool_proj
I0403 21:45:43.114063 12732 net.cpp:386] inception_4b/relu_pool_proj -> inception_4b/pool_proj (in-place)
I0403 21:45:43.114300 12732 net.cpp:141] Setting up inception_4b/relu_pool_proj
I0403 21:45:43.114331 12732 net.cpp:148] Top shape: 24 64 14 14 (301056)
I0403 21:45:43.114351 12732 net.cpp:156] Memory required for data: 980223264
I0403 21:45:43.114372 12732 layer_factory.hpp:77] Creating layer inception_4b/output
I0403 21:45:43.114398 12732 net.cpp:91] Creating Layer inception_4b/output
I0403 21:45:43.114418 12732 net.cpp:425] inception_4b/output <- inception_4b/1x1
I0403 21:45:43.114440 12732 net.cpp:425] inception_4b/output <- inception_4b/3x3
I0403 21:45:43.114461 12732 net.cpp:425] inception_4b/output <- inception_4b/5x5
I0403 21:45:43.114482 12732 net.cpp:425] inception_4b/output <- inception_4b/pool_proj
I0403 21:45:43.114506 12732 net.cpp:399] inception_4b/output -> inception_4b/output
I0403 21:45:43.114564 12732 net.cpp:141] Setting up inception_4b/output
I0403 21:45:43.114594 12732 net.cpp:148] Top shape: 24 512 14 14 (2408448)
I0403 21:45:43.114614 12732 net.cpp:156] Memory required for data: 989857056
I0403 21:45:43.114650 12732 layer_factory.hpp:77] Creating layer inception_4b/output_inception_4b/output_0_split
I0403 21:45:43.114673 12732 net.cpp:91] Creating Layer inception_4b/output_inception_4b/output_0_split
I0403 21:45:43.114693 12732 net.cpp:425] inception_4b/output_inception_4b/output_0_split <- inception_4b/output
I0403 21:45:43.114718 12732 net.cpp:399] inception_4b/output_inception_4b/output_0_split -> inception_4b/output_inception_4b/output_0_split_0
I0403 21:45:43.114745 12732 net.cpp:399] inception_4b/output_inception_4b/output_0_split -> inception_4b/output_inception_4b/output_0_split_1
I0403 21:45:43.114770 12732 net.cpp:399] inception_4b/output_inception_4b/output_0_split -> inception_4b/output_inception_4b/output_0_split_2
I0403 21:45:43.114797 12732 net.cpp:399] inception_4b/output_inception_4b/output_0_split -> inception_4b/output_inception_4b/output_0_split_3
I0403 21:45:43.114903 12732 net.cpp:141] Setting up inception_4b/output_inception_4b/output_0_split
I0403 21:45:43.114935 12732 net.cpp:148] Top shape: 24 512 14 14 (2408448)
I0403 21:45:43.114959 12732 net.cpp:148] Top shape: 24 512 14 14 (2408448)
I0403 21:45:43.114979 12732 net.cpp:148] Top shape: 24 512 14 14 (2408448)
I0403 21:45:43.115000 12732 net.cpp:148] Top shape: 24 512 14 14 (2408448)
I0403 21:45:43.115016 12732 net.cpp:156] Memory required for data: 1028392224
I0403 21:45:43.115036 12732 layer_factory.hpp:77] Creating layer inception_4c/1x1
I0403 21:45:43.115063 12732 net.cpp:91] Creating Layer inception_4c/1x1
I0403 21:45:43.115085 12732 net.cpp:425] inception_4c/1x1 <- inception_4b/output_inception_4b/output_0_split_0
I0403 21:45:43.115113 12732 net.cpp:399] inception_4c/1x1 -> inception_4c/1x1
I0403 21:45:43.116876 12732 net.cpp:141] Setting up inception_4c/1x1
I0403 21:45:43.116911 12732 net.cpp:148] Top shape: 24 128 14 14 (602112)
I0403 21:45:43.116931 12732 net.cpp:156] Memory required for data: 1030800672
I0403 21:45:43.116955 12732 layer_factory.hpp:77] Creating layer inception_4c/relu_1x1
I0403 21:45:43.116982 12732 net.cpp:91] Creating Layer inception_4c/relu_1x1
I0403 21:45:43.117003 12732 net.cpp:425] inception_4c/relu_1x1 <- inception_4c/1x1
I0403 21:45:43.117027 12732 net.cpp:386] inception_4c/relu_1x1 -> inception_4c/1x1 (in-place)
I0403 21:45:43.117264 12732 net.cpp:141] Setting up inception_4c/relu_1x1
I0403 21:45:43.117295 12732 net.cpp:148] Top shape: 24 128 14 14 (602112)
I0403 21:45:43.117312 12732 net.cpp:156] Memory required for data: 1033209120
I0403 21:45:43.117332 12732 layer_factory.hpp:77] Creating layer inception_4c/3x3_reduce
I0403 21:45:43.117360 12732 net.cpp:91] Creating Layer inception_4c/3x3_reduce
I0403 21:45:43.117382 12732 net.cpp:425] inception_4c/3x3_reduce <- inception_4b/output_inception_4b/output_0_split_1
I0403 21:45:43.117408 12732 net.cpp:399] inception_4c/3x3_reduce -> inception_4c/3x3_reduce
I0403 21:45:43.119813 12732 net.cpp:141] Setting up inception_4c/3x3_reduce
I0403 21:45:43.119849 12732 net.cpp:148] Top shape: 24 128 14 14 (602112)
I0403 21:45:43.119870 12732 net.cpp:156] Memory required for data: 1035617568
I0403 21:45:43.119894 12732 layer_factory.hpp:77] Creating layer inception_4c/relu_3x3_reduce
I0403 21:45:43.119916 12732 net.cpp:91] Creating Layer inception_4c/relu_3x3_reduce
I0403 21:45:43.119937 12732 net.cpp:425] inception_4c/relu_3x3_reduce <- inception_4c/3x3_reduce
I0403 21:45:43.119962 12732 net.cpp:386] inception_4c/relu_3x3_reduce -> inception_4c/3x3_reduce (in-place)
I0403 21:45:43.120323 12732 net.cpp:141] Setting up inception_4c/relu_3x3_reduce
I0403 21:45:43.120357 12732 net.cpp:148] Top shape: 24 128 14 14 (602112)
I0403 21:45:43.120378 12732 net.cpp:156] Memory required for data: 1038026016
I0403 21:45:43.120395 12732 layer_factory.hpp:77] Creating layer inception_4c/3x3
I0403 21:45:43.120425 12732 net.cpp:91] Creating Layer inception_4c/3x3
I0403 21:45:43.120448 12732 net.cpp:425] inception_4c/3x3 <- inception_4c/3x3_reduce
I0403 21:45:43.120476 12732 net.cpp:399] inception_4c/3x3 -> inception_4c/3x3
I0403 21:45:43.124903 12732 net.cpp:141] Setting up inception_4c/3x3
I0403 21:45:43.124954 12732 net.cpp:148] Top shape: 24 256 14 14 (1204224)
I0403 21:45:43.124975 12732 net.cpp:156] Memory required for data: 1042842912
I0403 21:45:43.125015 12732 layer_factory.hpp:77] Creating layer inception_4c/relu_3x3
I0403 21:45:43.125046 12732 net.cpp:91] Creating Layer inception_4c/relu_3x3
I0403 21:45:43.125067 12732 net.cpp:425] inception_4c/relu_3x3 <- inception_4c/3x3
I0403 21:45:43.125090 12732 net.cpp:386] inception_4c/relu_3x3 -> inception_4c/3x3 (in-place)
I0403 21:45:43.125325 12732 net.cpp:141] Setting up inception_4c/relu_3x3
I0403 21:45:43.125356 12732 net.cpp:148] Top shape: 24 256 14 14 (1204224)
I0403 21:45:43.125375 12732 net.cpp:156] Memory required for data: 1047659808
I0403 21:45:43.125394 12732 layer_factory.hpp:77] Creating layer inception_4c/5x5_reduce
I0403 21:45:43.125425 12732 net.cpp:91] Creating Layer inception_4c/5x5_reduce
I0403 21:45:43.125447 12732 net.cpp:425] inception_4c/5x5_reduce <- inception_4b/output_inception_4b/output_0_split_2
I0403 21:45:43.125475 12732 net.cpp:399] inception_4c/5x5_reduce -> inception_4c/5x5_reduce
I0403 21:45:43.126817 12732 net.cpp:141] Setting up inception_4c/5x5_reduce
I0403 21:45:43.126852 12732 net.cpp:148] Top shape: 24 24 14 14 (112896)
I0403 21:45:43.126873 12732 net.cpp:156] Memory required for data: 1048111392
I0403 21:45:43.126896 12732 layer_factory.hpp:77] Creating layer inception_4c/relu_5x5_reduce
I0403 21:45:43.126921 12732 net.cpp:91] Creating Layer inception_4c/relu_5x5_reduce
I0403 21:45:43.126945 12732 net.cpp:425] inception_4c/relu_5x5_reduce <- inception_4c/5x5_reduce
I0403 21:45:43.126967 12732 net.cpp:386] inception_4c/relu_5x5_reduce -> inception_4c/5x5_reduce (in-place)
I0403 21:45:43.127204 12732 net.cpp:141] Setting up inception_4c/relu_5x5_reduce
I0403 21:45:43.127234 12732 net.cpp:148] Top shape: 24 24 14 14 (112896)
I0403 21:45:43.127254 12732 net.cpp:156] Memory required for data: 1048562976
I0403 21:45:43.127274 12732 layer_factory.hpp:77] Creating layer inception_4c/5x5
I0403 21:45:43.127301 12732 net.cpp:91] Creating Layer inception_4c/5x5
I0403 21:45:43.127324 12732 net.cpp:425] inception_4c/5x5 <- inception_4c/5x5_reduce
I0403 21:45:43.127351 12732 net.cpp:399] inception_4c/5x5 -> inception_4c/5x5
I0403 21:45:43.128883 12732 net.cpp:141] Setting up inception_4c/5x5
I0403 21:45:43.128919 12732 net.cpp:148] Top shape: 24 64 14 14 (301056)
I0403 21:45:43.128939 12732 net.cpp:156] Memory required for data: 1049767200
I0403 21:45:43.128963 12732 layer_factory.hpp:77] Creating layer inception_4c/relu_5x5
I0403 21:45:43.128988 12732 net.cpp:91] Creating Layer inception_4c/relu_5x5
I0403 21:45:43.129011 12732 net.cpp:425] inception_4c/relu_5x5 <- inception_4c/5x5
I0403 21:45:43.129034 12732 net.cpp:386] inception_4c/relu_5x5 -> inception_4c/5x5 (in-place)
I0403 21:45:43.129390 12732 net.cpp:141] Setting up inception_4c/relu_5x5
I0403 21:45:43.129422 12732 net.cpp:148] Top shape: 24 64 14 14 (301056)
I0403 21:45:43.129442 12732 net.cpp:156] Memory required for data: 1050971424
I0403 21:45:43.129462 12732 layer_factory.hpp:77] Creating layer inception_4c/pool
I0403 21:45:43.129487 12732 net.cpp:91] Creating Layer inception_4c/pool
I0403 21:45:43.129509 12732 net.cpp:425] inception_4c/pool <- inception_4b/output_inception_4b/output_0_split_3
I0403 21:45:43.129533 12732 net.cpp:399] inception_4c/pool -> inception_4c/pool
I0403 21:45:43.129616 12732 net.cpp:141] Setting up inception_4c/pool
I0403 21:45:43.129645 12732 net.cpp:148] Top shape: 24 512 14 14 (2408448)
I0403 21:45:43.129665 12732 net.cpp:156] Memory required for data: 1060605216
I0403 21:45:43.129684 12732 layer_factory.hpp:77] Creating layer inception_4c/pool_proj
I0403 21:45:43.129712 12732 net.cpp:91] Creating Layer inception_4c/pool_proj
I0403 21:45:43.129735 12732 net.cpp:425] inception_4c/pool_proj <- inception_4c/pool
I0403 21:45:43.129762 12732 net.cpp:399] inception_4c/pool_proj -> inception_4c/pool_proj
I0403 21:45:43.131273 12732 net.cpp:141] Setting up inception_4c/pool_proj
I0403 21:45:43.131307 12732 net.cpp:148] Top shape: 24 64 14 14 (301056)
I0403 21:45:43.131345 12732 net.cpp:156] Memory required for data: 1061809440
I0403 21:45:43.131369 12732 layer_factory.hpp:77] Creating layer inception_4c/relu_pool_proj
I0403 21:45:43.131394 12732 net.cpp:91] Creating Layer inception_4c/relu_pool_proj
I0403 21:45:43.131415 12732 net.cpp:425] inception_4c/relu_pool_proj <- inception_4c/pool_proj
I0403 21:45:43.131438 12732 net.cpp:386] inception_4c/relu_pool_proj -> inception_4c/pool_proj (in-place)
I0403 21:45:43.131664 12732 net.cpp:141] Setting up inception_4c/relu_pool_proj
I0403 21:45:43.131695 12732 net.cpp:148] Top shape: 24 64 14 14 (301056)
I0403 21:45:43.131714 12732 net.cpp:156] Memory required for data: 1063013664
I0403 21:45:43.131733 12732 layer_factory.hpp:77] Creating layer inception_4c/output
I0403 21:45:43.131758 12732 net.cpp:91] Creating Layer inception_4c/output
I0403 21:45:43.131779 12732 net.cpp:425] inception_4c/output <- inception_4c/1x1
I0403 21:45:43.131800 12732 net.cpp:425] inception_4c/output <- inception_4c/3x3
I0403 21:45:43.131821 12732 net.cpp:425] inception_4c/output <- inception_4c/5x5
I0403 21:45:43.131842 12732 net.cpp:425] inception_4c/output <- inception_4c/pool_proj
I0403 21:45:43.131865 12732 net.cpp:399] inception_4c/output -> inception_4c/output
I0403 21:45:43.131924 12732 net.cpp:141] Setting up inception_4c/output
I0403 21:45:43.131953 12732 net.cpp:148] Top shape: 24 512 14 14 (2408448)
I0403 21:45:43.131973 12732 net.cpp:156] Memory required for data: 1072647456
I0403 21:45:43.131992 12732 layer_factory.hpp:77] Creating layer inception_4c/output_inception_4c/output_0_split
I0403 21:45:43.132014 12732 net.cpp:91] Creating Layer inception_4c/output_inception_4c/output_0_split
I0403 21:45:43.132035 12732 net.cpp:425] inception_4c/output_inception_4c/output_0_split <- inception_4c/output
I0403 21:45:43.132060 12732 net.cpp:399] inception_4c/output_inception_4c/output_0_split -> inception_4c/output_inception_4c/output_0_split_0
I0403 21:45:43.132087 12732 net.cpp:399] inception_4c/output_inception_4c/output_0_split -> inception_4c/output_inception_4c/output_0_split_1
I0403 21:45:43.132113 12732 net.cpp:399] inception_4c/output_inception_4c/output_0_split -> inception_4c/output_inception_4c/output_0_split_2
I0403 21:45:43.132139 12732 net.cpp:399] inception_4c/output_inception_4c/output_0_split -> inception_4c/output_inception_4c/output_0_split_3
I0403 21:45:43.132271 12732 net.cpp:141] Setting up inception_4c/output_inception_4c/output_0_split
I0403 21:45:43.132303 12732 net.cpp:148] Top shape: 24 512 14 14 (2408448)
I0403 21:45:43.132325 12732 net.cpp:148] Top shape: 24 512 14 14 (2408448)
I0403 21:45:43.132346 12732 net.cpp:148] Top shape: 24 512 14 14 (2408448)
I0403 21:45:43.132366 12732 net.cpp:148] Top shape: 24 512 14 14 (2408448)
I0403 21:45:43.132383 12732 net.cpp:156] Memory required for data: 1111182624
I0403 21:45:43.132403 12732 layer_factory.hpp:77] Creating layer inception_4d/1x1
I0403 21:45:43.132431 12732 net.cpp:91] Creating Layer inception_4d/1x1
I0403 21:45:43.132454 12732 net.cpp:425] inception_4d/1x1 <- inception_4c/output_inception_4c/output_0_split_0
I0403 21:45:43.132479 12732 net.cpp:399] inception_4d/1x1 -> inception_4d/1x1
I0403 21:45:43.134186 12732 net.cpp:141] Setting up inception_4d/1x1
I0403 21:45:43.134224 12732 net.cpp:148] Top shape: 24 112 14 14 (526848)
I0403 21:45:43.134248 12732 net.cpp:156] Memory required for data: 1113290016
I0403 21:45:43.134271 12732 layer_factory.hpp:77] Creating layer inception_4d/relu_1x1
I0403 21:45:43.134295 12732 net.cpp:91] Creating Layer inception_4d/relu_1x1
I0403 21:45:43.134315 12732 net.cpp:425] inception_4d/relu_1x1 <- inception_4d/1x1
I0403 21:45:43.134340 12732 net.cpp:386] inception_4d/relu_1x1 -> inception_4d/1x1 (in-place)
I0403 21:45:43.134569 12732 net.cpp:141] Setting up inception_4d/relu_1x1
I0403 21:45:43.134601 12732 net.cpp:148] Top shape: 24 112 14 14 (526848)
I0403 21:45:43.134620 12732 net.cpp:156] Memory required for data: 1115397408
I0403 21:45:43.134640 12732 layer_factory.hpp:77] Creating layer inception_4d/3x3_reduce
I0403 21:45:43.134687 12732 net.cpp:91] Creating Layer inception_4d/3x3_reduce
I0403 21:45:43.134711 12732 net.cpp:425] inception_4d/3x3_reduce <- inception_4c/output_inception_4c/output_0_split_1
I0403 21:45:43.134738 12732 net.cpp:399] inception_4d/3x3_reduce -> inception_4d/3x3_reduce
I0403 21:45:43.136605 12732 net.cpp:141] Setting up inception_4d/3x3_reduce
I0403 21:45:43.136643 12732 net.cpp:148] Top shape: 24 144 14 14 (677376)
I0403 21:45:43.136665 12732 net.cpp:156] Memory required for data: 1118106912
I0403 21:45:43.136688 12732 layer_factory.hpp:77] Creating layer inception_4d/relu_3x3_reduce
I0403 21:45:43.136711 12732 net.cpp:91] Creating Layer inception_4d/relu_3x3_reduce
I0403 21:45:43.136732 12732 net.cpp:425] inception_4d/relu_3x3_reduce <- inception_4d/3x3_reduce
I0403 21:45:43.136754 12732 net.cpp:386] inception_4d/relu_3x3_reduce -> inception_4d/3x3_reduce (in-place)
I0403 21:45:43.137109 12732 net.cpp:141] Setting up inception_4d/relu_3x3_reduce
I0403 21:45:43.137145 12732 net.cpp:148] Top shape: 24 144 14 14 (677376)
I0403 21:45:43.137166 12732 net.cpp:156] Memory required for data: 1120816416
I0403 21:45:43.137192 12732 layer_factory.hpp:77] Creating layer inception_4d/3x3
I0403 21:45:43.137219 12732 net.cpp:91] Creating Layer inception_4d/3x3
I0403 21:45:43.137241 12732 net.cpp:425] inception_4d/3x3 <- inception_4d/3x3_reduce
I0403 21:45:43.137269 12732 net.cpp:399] inception_4d/3x3 -> inception_4d/3x3
I0403 21:45:43.142596 12732 net.cpp:141] Setting up inception_4d/3x3
I0403 21:45:43.142633 12732 net.cpp:148] Top shape: 24 288 14 14 (1354752)
I0403 21:45:43.142653 12732 net.cpp:156] Memory required for data: 1126235424
I0403 21:45:43.142676 12732 layer_factory.hpp:77] Creating layer inception_4d/relu_3x3
I0403 21:45:43.142700 12732 net.cpp:91] Creating Layer inception_4d/relu_3x3
I0403 21:45:43.142721 12732 net.cpp:425] inception_4d/relu_3x3 <- inception_4d/3x3
I0403 21:45:43.142745 12732 net.cpp:386] inception_4d/relu_3x3 -> inception_4d/3x3 (in-place)
I0403 21:45:43.142981 12732 net.cpp:141] Setting up inception_4d/relu_3x3
I0403 21:45:43.143013 12732 net.cpp:148] Top shape: 24 288 14 14 (1354752)
I0403 21:45:43.143033 12732 net.cpp:156] Memory required for data: 1131654432
I0403 21:45:43.143050 12732 layer_factory.hpp:77] Creating layer inception_4d/5x5_reduce
I0403 21:45:43.143079 12732 net.cpp:91] Creating Layer inception_4d/5x5_reduce
I0403 21:45:43.143102 12732 net.cpp:425] inception_4d/5x5_reduce <- inception_4c/output_inception_4c/output_0_split_2
I0403 21:45:43.143129 12732 net.cpp:399] inception_4d/5x5_reduce -> inception_4d/5x5_reduce
I0403 21:45:43.144565 12732 net.cpp:141] Setting up inception_4d/5x5_reduce
I0403 21:45:43.144603 12732 net.cpp:148] Top shape: 24 32 14 14 (150528)
I0403 21:45:43.144623 12732 net.cpp:156] Memory required for data: 1132256544
I0403 21:45:43.144649 12732 layer_factory.hpp:77] Creating layer inception_4d/relu_5x5_reduce
I0403 21:45:43.144671 12732 net.cpp:91] Creating Layer inception_4d/relu_5x5_reduce
I0403 21:45:43.144695 12732 net.cpp:425] inception_4d/relu_5x5_reduce <- inception_4d/5x5_reduce
I0403 21:45:43.144719 12732 net.cpp:386] inception_4d/relu_5x5_reduce -> inception_4d/5x5_reduce (in-place)
I0403 21:45:43.144950 12732 net.cpp:141] Setting up inception_4d/relu_5x5_reduce
I0403 21:45:43.144981 12732 net.cpp:148] Top shape: 24 32 14 14 (150528)
I0403 21:45:43.145000 12732 net.cpp:156] Memory required for data: 1132858656
I0403 21:45:43.145020 12732 layer_factory.hpp:77] Creating layer inception_4d/5x5
I0403 21:45:43.145047 12732 net.cpp:91] Creating Layer inception_4d/5x5
I0403 21:45:43.145069 12732 net.cpp:425] inception_4d/5x5 <- inception_4d/5x5_reduce
I0403 21:45:43.145095 12732 net.cpp:399] inception_4d/5x5 -> inception_4d/5x5
I0403 21:45:43.146884 12732 net.cpp:141] Setting up inception_4d/5x5
I0403 21:45:43.146920 12732 net.cpp:148] Top shape: 24 64 14 14 (301056)
I0403 21:45:43.146940 12732 net.cpp:156] Memory required for data: 1134062880
I0403 21:45:43.146965 12732 layer_factory.hpp:77] Creating layer inception_4d/relu_5x5
I0403 21:45:43.147008 12732 net.cpp:91] Creating Layer inception_4d/relu_5x5
I0403 21:45:43.147032 12732 net.cpp:425] inception_4d/relu_5x5 <- inception_4d/5x5
I0403 21:45:43.147054 12732 net.cpp:386] inception_4d/relu_5x5 -> inception_4d/5x5 (in-place)
I0403 21:45:43.147439 12732 net.cpp:141] Setting up inception_4d/relu_5x5
I0403 21:45:43.147472 12732 net.cpp:148] Top shape: 24 64 14 14 (301056)
I0403 21:45:43.147491 12732 net.cpp:156] Memory required for data: 1135267104
I0403 21:45:43.147511 12732 layer_factory.hpp:77] Creating layer inception_4d/pool
I0403 21:45:43.147536 12732 net.cpp:91] Creating Layer inception_4d/pool
I0403 21:45:43.147558 12732 net.cpp:425] inception_4d/pool <- inception_4c/output_inception_4c/output_0_split_3
I0403 21:45:43.147583 12732 net.cpp:399] inception_4d/pool -> inception_4d/pool
I0403 21:45:43.147666 12732 net.cpp:141] Setting up inception_4d/pool
I0403 21:45:43.147697 12732 net.cpp:148] Top shape: 24 512 14 14 (2408448)
I0403 21:45:43.147716 12732 net.cpp:156] Memory required for data: 1144900896
I0403 21:45:43.147735 12732 layer_factory.hpp:77] Creating layer inception_4d/pool_proj
I0403 21:45:43.147764 12732 net.cpp:91] Creating Layer inception_4d/pool_proj
I0403 21:45:43.147785 12732 net.cpp:425] inception_4d/pool_proj <- inception_4d/pool
I0403 21:45:43.147811 12732 net.cpp:399] inception_4d/pool_proj -> inception_4d/pool_proj
I0403 21:45:43.150003 12732 net.cpp:141] Setting up inception_4d/pool_proj
I0403 21:45:43.150040 12732 net.cpp:148] Top shape: 24 64 14 14 (301056)
I0403 21:45:43.150060 12732 net.cpp:156] Memory required for data: 1146105120
I0403 21:45:43.150084 12732 layer_factory.hpp:77] Creating layer inception_4d/relu_pool_proj
I0403 21:45:43.150105 12732 net.cpp:91] Creating Layer inception_4d/relu_pool_proj
I0403 21:45:43.150125 12732 net.cpp:425] inception_4d/relu_pool_proj <- inception_4d/pool_proj
I0403 21:45:43.150151 12732 net.cpp:386] inception_4d/relu_pool_proj -> inception_4d/pool_proj (in-place)
I0403 21:45:43.150387 12732 net.cpp:141] Setting up inception_4d/relu_pool_proj
I0403 21:45:43.150418 12732 net.cpp:148] Top shape: 24 64 14 14 (301056)
I0403 21:45:43.150437 12732 net.cpp:156] Memory required for data: 1147309344
I0403 21:45:43.150457 12732 layer_factory.hpp:77] Creating layer inception_4d/output
I0403 21:45:43.150480 12732 net.cpp:91] Creating Layer inception_4d/output
I0403 21:45:43.150506 12732 net.cpp:425] inception_4d/output <- inception_4d/1x1
I0403 21:45:43.150527 12732 net.cpp:425] inception_4d/output <- inception_4d/3x3
I0403 21:45:43.150547 12732 net.cpp:425] inception_4d/output <- inception_4d/5x5
I0403 21:45:43.150568 12732 net.cpp:425] inception_4d/output <- inception_4d/pool_proj
I0403 21:45:43.150588 12732 net.cpp:399] inception_4d/output -> inception_4d/output
I0403 21:45:43.150645 12732 net.cpp:141] Setting up inception_4d/output
I0403 21:45:43.150676 12732 net.cpp:148] Top shape: 24 528 14 14 (2483712)
I0403 21:45:43.150697 12732 net.cpp:156] Memory required for data: 1157244192
I0403 21:45:43.150717 12732 layer_factory.hpp:77] Creating layer inception_4d/output_inception_4d/output_0_split
I0403 21:45:43.150738 12732 net.cpp:91] Creating Layer inception_4d/output_inception_4d/output_0_split
I0403 21:45:43.150756 12732 net.cpp:425] inception_4d/output_inception_4d/output_0_split <- inception_4d/output
I0403 21:45:43.150781 12732 net.cpp:399] inception_4d/output_inception_4d/output_0_split -> inception_4d/output_inception_4d/output_0_split_0
I0403 21:45:43.150807 12732 net.cpp:399] inception_4d/output_inception_4d/output_0_split -> inception_4d/output_inception_4d/output_0_split_1
I0403 21:45:43.150835 12732 net.cpp:399] inception_4d/output_inception_4d/output_0_split -> inception_4d/output_inception_4d/output_0_split_2
I0403 21:45:43.150861 12732 net.cpp:399] inception_4d/output_inception_4d/output_0_split -> inception_4d/output_inception_4d/output_0_split_3
I0403 21:45:43.150887 12732 net.cpp:399] inception_4d/output_inception_4d/output_0_split -> inception_4d/output_inception_4d/output_0_split_4
I0403 21:45:43.151020 12732 net.cpp:141] Setting up inception_4d/output_inception_4d/output_0_split
I0403 21:45:43.151063 12732 net.cpp:148] Top shape: 24 528 14 14 (2483712)
I0403 21:45:43.151088 12732 net.cpp:148] Top shape: 24 528 14 14 (2483712)
I0403 21:45:43.151110 12732 net.cpp:148] Top shape: 24 528 14 14 (2483712)
I0403 21:45:43.151131 12732 net.cpp:148] Top shape: 24 528 14 14 (2483712)
I0403 21:45:43.151151 12732 net.cpp:148] Top shape: 24 528 14 14 (2483712)
I0403 21:45:43.151168 12732 net.cpp:156] Memory required for data: 1206918432
I0403 21:45:43.151195 12732 layer_factory.hpp:77] Creating layer loss2/ave_pool
I0403 21:45:43.151217 12732 net.cpp:91] Creating Layer loss2/ave_pool
I0403 21:45:43.151238 12732 net.cpp:425] loss2/ave_pool <- inception_4d/output_inception_4d/output_0_split_0
I0403 21:45:43.151267 12732 net.cpp:399] loss2/ave_pool -> loss2/ave_pool
I0403 21:45:43.151649 12732 net.cpp:141] Setting up loss2/ave_pool
I0403 21:45:43.151684 12732 net.cpp:148] Top shape: 24 528 4 4 (202752)
I0403 21:45:43.151703 12732 net.cpp:156] Memory required for data: 1207729440
I0403 21:45:43.151722 12732 layer_factory.hpp:77] Creating layer loss2/conv
I0403 21:45:43.151751 12732 net.cpp:91] Creating Layer loss2/conv
I0403 21:45:43.151774 12732 net.cpp:425] loss2/conv <- loss2/ave_pool
I0403 21:45:43.151803 12732 net.cpp:399] loss2/conv -> loss2/conv
I0403 21:45:43.154150 12732 net.cpp:141] Setting up loss2/conv
I0403 21:45:43.154191 12732 net.cpp:148] Top shape: 24 128 4 4 (49152)
I0403 21:45:43.154211 12732 net.cpp:156] Memory required for data: 1207926048
I0403 21:45:43.154234 12732 layer_factory.hpp:77] Creating layer loss2/relu_conv
I0403 21:45:43.154260 12732 net.cpp:91] Creating Layer loss2/relu_conv
I0403 21:45:43.154281 12732 net.cpp:425] loss2/relu_conv <- loss2/conv
I0403 21:45:43.154304 12732 net.cpp:386] loss2/relu_conv -> loss2/conv (in-place)
I0403 21:45:43.154655 12732 net.cpp:141] Setting up loss2/relu_conv
I0403 21:45:43.154687 12732 net.cpp:148] Top shape: 24 128 4 4 (49152)
I0403 21:45:43.154706 12732 net.cpp:156] Memory required for data: 1208122656
I0403 21:45:43.154726 12732 layer_factory.hpp:77] Creating layer loss2/fc
I0403 21:45:43.154750 12732 net.cpp:91] Creating Layer loss2/fc
I0403 21:45:43.154773 12732 net.cpp:425] loss2/fc <- loss2/conv
I0403 21:45:43.154796 12732 net.cpp:399] loss2/fc -> loss2/fc
I0403 21:45:43.176810 12732 net.cpp:141] Setting up loss2/fc
I0403 21:45:43.176854 12732 net.cpp:148] Top shape: 24 1024 (24576)
I0403 21:45:43.176874 12732 net.cpp:156] Memory required for data: 1208220960
I0403 21:45:43.176899 12732 layer_factory.hpp:77] Creating layer loss2/relu_fc
I0403 21:45:43.176924 12732 net.cpp:91] Creating Layer loss2/relu_fc
I0403 21:45:43.176946 12732 net.cpp:425] loss2/relu_fc <- loss2/fc
I0403 21:45:43.176973 12732 net.cpp:386] loss2/relu_fc -> loss2/fc (in-place)
I0403 21:45:43.177357 12732 net.cpp:141] Setting up loss2/relu_fc
I0403 21:45:43.177392 12732 net.cpp:148] Top shape: 24 1024 (24576)
I0403 21:45:43.177412 12732 net.cpp:156] Memory required for data: 1208319264
I0403 21:45:43.177431 12732 layer_factory.hpp:77] Creating layer loss2/drop_fc
I0403 21:45:43.177453 12732 net.cpp:91] Creating Layer loss2/drop_fc
I0403 21:45:43.177472 12732 net.cpp:425] loss2/drop_fc <- loss2/fc
I0403 21:45:43.177498 12732 net.cpp:386] loss2/drop_fc -> loss2/fc (in-place)
I0403 21:45:43.177561 12732 net.cpp:141] Setting up loss2/drop_fc
I0403 21:45:43.177593 12732 net.cpp:148] Top shape: 24 1024 (24576)
I0403 21:45:43.177613 12732 net.cpp:156] Memory required for data: 1208417568
I0403 21:45:43.177633 12732 layer_factory.hpp:77] Creating layer loss2/classifier_plantvillage
I0403 21:45:43.177654 12732 net.cpp:91] Creating Layer loss2/classifier_plantvillage
I0403 21:45:43.177675 12732 net.cpp:425] loss2/classifier_plantvillage <- loss2/fc
I0403 21:45:43.177701 12732 net.cpp:399] loss2/classifier_plantvillage -> loss2/classifier_plantvillage
I0403 21:45:43.178201 12732 net.cpp:141] Setting up loss2/classifier_plantvillage
I0403 21:45:43.178237 12732 net.cpp:148] Top shape: 24 38 (912)
I0403 21:45:43.178257 12732 net.cpp:156] Memory required for data: 1208421216
I0403 21:45:43.178300 12732 layer_factory.hpp:77] Creating layer loss2/classifier_plantvillage_loss2/classifier_plantvillage_0_split
I0403 21:45:43.178323 12732 net.cpp:91] Creating Layer loss2/classifier_plantvillage_loss2/classifier_plantvillage_0_split
I0403 21:45:43.178344 12732 net.cpp:425] loss2/classifier_plantvillage_loss2/classifier_plantvillage_0_split <- loss2/classifier_plantvillage
I0403 21:45:43.178366 12732 net.cpp:399] loss2/classifier_plantvillage_loss2/classifier_plantvillage_0_split -> loss2/classifier_plantvillage_loss2/classifier_plantvillage_0_split_0
I0403 21:45:43.178392 12732 net.cpp:399] loss2/classifier_plantvillage_loss2/classifier_plantvillage_0_split -> loss2/classifier_plantvillage_loss2/classifier_plantvillage_0_split_1
I0403 21:45:43.178419 12732 net.cpp:399] loss2/classifier_plantvillage_loss2/classifier_plantvillage_0_split -> loss2/classifier_plantvillage_loss2/classifier_plantvillage_0_split_2
I0403 21:45:43.178517 12732 net.cpp:141] Setting up loss2/classifier_plantvillage_loss2/classifier_plantvillage_0_split
I0403 21:45:43.178545 12732 net.cpp:148] Top shape: 24 38 (912)
I0403 21:45:43.178565 12732 net.cpp:148] Top shape: 24 38 (912)
I0403 21:45:43.178586 12732 net.cpp:148] Top shape: 24 38 (912)
I0403 21:45:43.178603 12732 net.cpp:156] Memory required for data: 1208432160
I0403 21:45:43.178622 12732 layer_factory.hpp:77] Creating layer inception_4e/1x1
I0403 21:45:43.178648 12732 net.cpp:91] Creating Layer inception_4e/1x1
I0403 21:45:43.178668 12732 net.cpp:425] inception_4e/1x1 <- inception_4d/output_inception_4d/output_0_split_1
I0403 21:45:43.178694 12732 net.cpp:399] inception_4e/1x1 -> inception_4e/1x1
I0403 21:45:43.180950 12732 net.cpp:141] Setting up inception_4e/1x1
I0403 21:45:43.180985 12732 net.cpp:148] Top shape: 24 256 14 14 (1204224)
I0403 21:45:43.181005 12732 net.cpp:156] Memory required for data: 1213249056
I0403 21:45:43.181028 12732 layer_factory.hpp:77] Creating layer inception_4e/relu_1x1
I0403 21:45:43.181054 12732 net.cpp:91] Creating Layer inception_4e/relu_1x1
I0403 21:45:43.181076 12732 net.cpp:425] inception_4e/relu_1x1 <- inception_4e/1x1
I0403 21:45:43.181097 12732 net.cpp:386] inception_4e/relu_1x1 -> inception_4e/1x1 (in-place)
I0403 21:45:43.181471 12732 net.cpp:141] Setting up inception_4e/relu_1x1
I0403 21:45:43.181504 12732 net.cpp:148] Top shape: 24 256 14 14 (1204224)
I0403 21:45:43.181524 12732 net.cpp:156] Memory required for data: 1218065952
I0403 21:45:43.181543 12732 layer_factory.hpp:77] Creating layer inception_4e/3x3_reduce
I0403 21:45:43.181571 12732 net.cpp:91] Creating Layer inception_4e/3x3_reduce
I0403 21:45:43.181596 12732 net.cpp:425] inception_4e/3x3_reduce <- inception_4d/output_inception_4d/output_0_split_2
I0403 21:45:43.181620 12732 net.cpp:399] inception_4e/3x3_reduce -> inception_4e/3x3_reduce
I0403 21:45:43.184243 12732 net.cpp:141] Setting up inception_4e/3x3_reduce
I0403 21:45:43.184279 12732 net.cpp:148] Top shape: 24 160 14 14 (752640)
I0403 21:45:43.184300 12732 net.cpp:156] Memory required for data: 1221076512
I0403 21:45:43.184322 12732 layer_factory.hpp:77] Creating layer inception_4e/relu_3x3_reduce
I0403 21:45:43.184348 12732 net.cpp:91] Creating Layer inception_4e/relu_3x3_reduce
I0403 21:45:43.184370 12732 net.cpp:425] inception_4e/relu_3x3_reduce <- inception_4e/3x3_reduce
I0403 21:45:43.184393 12732 net.cpp:386] inception_4e/relu_3x3_reduce -> inception_4e/3x3_reduce (in-place)
I0403 21:45:43.184623 12732 net.cpp:141] Setting up inception_4e/relu_3x3_reduce
I0403 21:45:43.184654 12732 net.cpp:148] Top shape: 24 160 14 14 (752640)
I0403 21:45:43.184674 12732 net.cpp:156] Memory required for data: 1224087072
I0403 21:45:43.184691 12732 layer_factory.hpp:77] Creating layer inception_4e/3x3
I0403 21:45:43.184722 12732 net.cpp:91] Creating Layer inception_4e/3x3
I0403 21:45:43.184746 12732 net.cpp:425] inception_4e/3x3 <- inception_4e/3x3_reduce
I0403 21:45:43.184769 12732 net.cpp:399] inception_4e/3x3 -> inception_4e/3x3
I0403 21:45:43.191038 12732 net.cpp:141] Setting up inception_4e/3x3
I0403 21:45:43.191094 12732 net.cpp:148] Top shape: 24 320 14 14 (1505280)
I0403 21:45:43.191114 12732 net.cpp:156] Memory required for data: 1230108192
I0403 21:45:43.191138 12732 layer_factory.hpp:77] Creating layer inception_4e/relu_3x3
I0403 21:45:43.191164 12732 net.cpp:91] Creating Layer inception_4e/relu_3x3
I0403 21:45:43.191190 12732 net.cpp:425] inception_4e/relu_3x3 <- inception_4e/3x3
I0403 21:45:43.191216 12732 net.cpp:386] inception_4e/relu_3x3 -> inception_4e/3x3 (in-place)
I0403 21:45:43.191584 12732 net.cpp:141] Setting up inception_4e/relu_3x3
I0403 21:45:43.191619 12732 net.cpp:148] Top shape: 24 320 14 14 (1505280)
I0403 21:45:43.191639 12732 net.cpp:156] Memory required for data: 1236129312
I0403 21:45:43.191659 12732 layer_factory.hpp:77] Creating layer inception_4e/5x5_reduce
I0403 21:45:43.191690 12732 net.cpp:91] Creating Layer inception_4e/5x5_reduce
I0403 21:45:43.191712 12732 net.cpp:425] inception_4e/5x5_reduce <- inception_4d/output_inception_4d/output_0_split_3
I0403 21:45:43.191737 12732 net.cpp:399] inception_4e/5x5_reduce -> inception_4e/5x5_reduce
I0403 21:45:43.193083 12732 net.cpp:141] Setting up inception_4e/5x5_reduce
I0403 21:45:43.193117 12732 net.cpp:148] Top shape: 24 32 14 14 (150528)
I0403 21:45:43.193137 12732 net.cpp:156] Memory required for data: 1236731424
I0403 21:45:43.193161 12732 layer_factory.hpp:77] Creating layer inception_4e/relu_5x5_reduce
I0403 21:45:43.193193 12732 net.cpp:91] Creating Layer inception_4e/relu_5x5_reduce
I0403 21:45:43.193217 12732 net.cpp:425] inception_4e/relu_5x5_reduce <- inception_4e/5x5_reduce
I0403 21:45:43.193238 12732 net.cpp:386] inception_4e/relu_5x5_reduce -> inception_4e/5x5_reduce (in-place)
I0403 21:45:43.193605 12732 net.cpp:141] Setting up inception_4e/relu_5x5_reduce
I0403 21:45:43.193637 12732 net.cpp:148] Top shape: 24 32 14 14 (150528)
I0403 21:45:43.193656 12732 net.cpp:156] Memory required for data: 1237333536
I0403 21:45:43.193675 12732 layer_factory.hpp:77] Creating layer inception_4e/5x5
I0403 21:45:43.193722 12732 net.cpp:91] Creating Layer inception_4e/5x5
I0403 21:45:43.193745 12732 net.cpp:425] inception_4e/5x5 <- inception_4e/5x5_reduce
I0403 21:45:43.193773 12732 net.cpp:399] inception_4e/5x5 -> inception_4e/5x5
I0403 21:45:43.196041 12732 net.cpp:141] Setting up inception_4e/5x5
I0403 21:45:43.196076 12732 net.cpp:148] Top shape: 24 128 14 14 (602112)
I0403 21:45:43.196095 12732 net.cpp:156] Memory required for data: 1239741984
I0403 21:45:43.196120 12732 layer_factory.hpp:77] Creating layer inception_4e/relu_5x5
I0403 21:45:43.196142 12732 net.cpp:91] Creating Layer inception_4e/relu_5x5
I0403 21:45:43.196162 12732 net.cpp:425] inception_4e/relu_5x5 <- inception_4e/5x5
I0403 21:45:43.196192 12732 net.cpp:386] inception_4e/relu_5x5 -> inception_4e/5x5 (in-place)
I0403 21:45:43.196439 12732 net.cpp:141] Setting up inception_4e/relu_5x5
I0403 21:45:43.196470 12732 net.cpp:148] Top shape: 24 128 14 14 (602112)
I0403 21:45:43.196491 12732 net.cpp:156] Memory required for data: 1242150432
I0403 21:45:43.196509 12732 layer_factory.hpp:77] Creating layer inception_4e/pool
I0403 21:45:43.196535 12732 net.cpp:91] Creating Layer inception_4e/pool
I0403 21:45:43.196557 12732 net.cpp:425] inception_4e/pool <- inception_4d/output_inception_4d/output_0_split_4
I0403 21:45:43.196579 12732 net.cpp:399] inception_4e/pool -> inception_4e/pool
I0403 21:45:43.196666 12732 net.cpp:141] Setting up inception_4e/pool
I0403 21:45:43.196697 12732 net.cpp:148] Top shape: 24 528 14 14 (2483712)
I0403 21:45:43.196715 12732 net.cpp:156] Memory required for data: 1252085280
I0403 21:45:43.196733 12732 layer_factory.hpp:77] Creating layer inception_4e/pool_proj
I0403 21:45:43.196760 12732 net.cpp:91] Creating Layer inception_4e/pool_proj
I0403 21:45:43.196784 12732 net.cpp:425] inception_4e/pool_proj <- inception_4e/pool
I0403 21:45:43.196813 12732 net.cpp:399] inception_4e/pool_proj -> inception_4e/pool_proj
I0403 21:45:43.198674 12732 net.cpp:141] Setting up inception_4e/pool_proj
I0403 21:45:43.198709 12732 net.cpp:148] Top shape: 24 128 14 14 (602112)
I0403 21:45:43.198746 12732 net.cpp:156] Memory required for data: 1254493728
I0403 21:45:43.198770 12732 layer_factory.hpp:77] Creating layer inception_4e/relu_pool_proj
I0403 21:45:43.198793 12732 net.cpp:91] Creating Layer inception_4e/relu_pool_proj
I0403 21:45:43.198814 12732 net.cpp:425] inception_4e/relu_pool_proj <- inception_4e/pool_proj
I0403 21:45:43.198839 12732 net.cpp:386] inception_4e/relu_pool_proj -> inception_4e/pool_proj (in-place)
I0403 21:45:43.199201 12732 net.cpp:141] Setting up inception_4e/relu_pool_proj
I0403 21:45:43.199234 12732 net.cpp:148] Top shape: 24 128 14 14 (602112)
I0403 21:45:43.199254 12732 net.cpp:156] Memory required for data: 1256902176
I0403 21:45:43.199272 12732 layer_factory.hpp:77] Creating layer inception_4e/output
I0403 21:45:43.199295 12732 net.cpp:91] Creating Layer inception_4e/output
I0403 21:45:43.199316 12732 net.cpp:425] inception_4e/output <- inception_4e/1x1
I0403 21:45:43.199337 12732 net.cpp:425] inception_4e/output <- inception_4e/3x3
I0403 21:45:43.199357 12732 net.cpp:425] inception_4e/output <- inception_4e/5x5
I0403 21:45:43.199378 12732 net.cpp:425] inception_4e/output <- inception_4e/pool_proj
I0403 21:45:43.199401 12732 net.cpp:399] inception_4e/output -> inception_4e/output
I0403 21:45:43.199462 12732 net.cpp:141] Setting up inception_4e/output
I0403 21:45:43.199494 12732 net.cpp:148] Top shape: 24 832 14 14 (3913728)
I0403 21:45:43.199515 12732 net.cpp:156] Memory required for data: 1272557088
I0403 21:45:43.199533 12732 layer_factory.hpp:77] Creating layer pool4/3x3_s2
I0403 21:45:43.199555 12732 net.cpp:91] Creating Layer pool4/3x3_s2
I0403 21:45:43.199574 12732 net.cpp:425] pool4/3x3_s2 <- inception_4e/output
I0403 21:45:43.199599 12732 net.cpp:399] pool4/3x3_s2 -> pool4/3x3_s2
I0403 21:45:43.199683 12732 net.cpp:141] Setting up pool4/3x3_s2
I0403 21:45:43.199713 12732 net.cpp:148] Top shape: 24 832 7 7 (978432)
I0403 21:45:43.199733 12732 net.cpp:156] Memory required for data: 1276470816
I0403 21:45:43.199750 12732 layer_factory.hpp:77] Creating layer pool4/3x3_s2_pool4/3x3_s2_0_split
I0403 21:45:43.199771 12732 net.cpp:91] Creating Layer pool4/3x3_s2_pool4/3x3_s2_0_split
I0403 21:45:43.199791 12732 net.cpp:425] pool4/3x3_s2_pool4/3x3_s2_0_split <- pool4/3x3_s2
I0403 21:45:43.199816 12732 net.cpp:399] pool4/3x3_s2_pool4/3x3_s2_0_split -> pool4/3x3_s2_pool4/3x3_s2_0_split_0
I0403 21:45:43.199843 12732 net.cpp:399] pool4/3x3_s2_pool4/3x3_s2_0_split -> pool4/3x3_s2_pool4/3x3_s2_0_split_1
I0403 21:45:43.199872 12732 net.cpp:399] pool4/3x3_s2_pool4/3x3_s2_0_split -> pool4/3x3_s2_pool4/3x3_s2_0_split_2
I0403 21:45:43.199895 12732 net.cpp:399] pool4/3x3_s2_pool4/3x3_s2_0_split -> pool4/3x3_s2_pool4/3x3_s2_0_split_3
I0403 21:45:43.200013 12732 net.cpp:141] Setting up pool4/3x3_s2_pool4/3x3_s2_0_split
I0403 21:45:43.200042 12732 net.cpp:148] Top shape: 24 832 7 7 (978432)
I0403 21:45:43.200063 12732 net.cpp:148] Top shape: 24 832 7 7 (978432)
I0403 21:45:43.200083 12732 net.cpp:148] Top shape: 24 832 7 7 (978432)
I0403 21:45:43.200103 12732 net.cpp:148] Top shape: 24 832 7 7 (978432)
I0403 21:45:43.200119 12732 net.cpp:156] Memory required for data: 1292125728
I0403 21:45:43.200136 12732 layer_factory.hpp:77] Creating layer inception_5a/1x1
I0403 21:45:43.200165 12732 net.cpp:91] Creating Layer inception_5a/1x1
I0403 21:45:43.200193 12732 net.cpp:425] inception_5a/1x1 <- pool4/3x3_s2_pool4/3x3_s2_0_split_0
I0403 21:45:43.200222 12732 net.cpp:399] inception_5a/1x1 -> inception_5a/1x1
I0403 21:45:43.203758 12732 net.cpp:141] Setting up inception_5a/1x1
I0403 21:45:43.203795 12732 net.cpp:148] Top shape: 24 256 7 7 (301056)
I0403 21:45:43.203814 12732 net.cpp:156] Memory required for data: 1293329952
I0403 21:45:43.203837 12732 layer_factory.hpp:77] Creating layer inception_5a/relu_1x1
I0403 21:45:43.203867 12732 net.cpp:91] Creating Layer inception_5a/relu_1x1
I0403 21:45:43.203889 12732 net.cpp:425] inception_5a/relu_1x1 <- inception_5a/1x1
I0403 21:45:43.203913 12732 net.cpp:386] inception_5a/relu_1x1 -> inception_5a/1x1 (in-place)
I0403 21:45:43.204301 12732 net.cpp:141] Setting up inception_5a/relu_1x1
I0403 21:45:43.204334 12732 net.cpp:148] Top shape: 24 256 7 7 (301056)
I0403 21:45:43.204354 12732 net.cpp:156] Memory required for data: 1294534176
I0403 21:45:43.204371 12732 layer_factory.hpp:77] Creating layer inception_5a/3x3_reduce
I0403 21:45:43.204399 12732 net.cpp:91] Creating Layer inception_5a/3x3_reduce
I0403 21:45:43.204421 12732 net.cpp:425] inception_5a/3x3_reduce <- pool4/3x3_s2_pool4/3x3_s2_0_split_1
I0403 21:45:43.204450 12732 net.cpp:399] inception_5a/3x3_reduce -> inception_5a/3x3_reduce
I0403 21:45:43.207480 12732 net.cpp:141] Setting up inception_5a/3x3_reduce
I0403 21:45:43.207520 12732 net.cpp:148] Top shape: 24 160 7 7 (188160)
I0403 21:45:43.207540 12732 net.cpp:156] Memory required for data: 1295286816
I0403 21:45:43.207564 12732 layer_factory.hpp:77] Creating layer inception_5a/relu_3x3_reduce
I0403 21:45:43.207587 12732 net.cpp:91] Creating Layer inception_5a/relu_3x3_reduce
I0403 21:45:43.207607 12732 net.cpp:425] inception_5a/relu_3x3_reduce <- inception_5a/3x3_reduce
I0403 21:45:43.207633 12732 net.cpp:386] inception_5a/relu_3x3_reduce -> inception_5a/3x3_reduce (in-place)
I0403 21:45:43.207875 12732 net.cpp:141] Setting up inception_5a/relu_3x3_reduce
I0403 21:45:43.207906 12732 net.cpp:148] Top shape: 24 160 7 7 (188160)
I0403 21:45:43.207926 12732 net.cpp:156] Memory required for data: 1296039456
I0403 21:45:43.207943 12732 layer_factory.hpp:77] Creating layer inception_5a/3x3
I0403 21:45:43.207973 12732 net.cpp:91] Creating Layer inception_5a/3x3
I0403 21:45:43.207994 12732 net.cpp:425] inception_5a/3x3 <- inception_5a/3x3_reduce
I0403 21:45:43.208022 12732 net.cpp:399] inception_5a/3x3 -> inception_5a/3x3
I0403 21:45:43.214326 12732 net.cpp:141] Setting up inception_5a/3x3
I0403 21:45:43.214364 12732 net.cpp:148] Top shape: 24 320 7 7 (376320)
I0403 21:45:43.214383 12732 net.cpp:156] Memory required for data: 1297544736
I0403 21:45:43.214407 12732 layer_factory.hpp:77] Creating layer inception_5a/relu_3x3
I0403 21:45:43.214429 12732 net.cpp:91] Creating Layer inception_5a/relu_3x3
I0403 21:45:43.214449 12732 net.cpp:425] inception_5a/relu_3x3 <- inception_5a/3x3
I0403 21:45:43.214474 12732 net.cpp:386] inception_5a/relu_3x3 -> inception_5a/3x3 (in-place)
I0403 21:45:43.214839 12732 net.cpp:141] Setting up inception_5a/relu_3x3
I0403 21:45:43.214872 12732 net.cpp:148] Top shape: 24 320 7 7 (376320)
I0403 21:45:43.214892 12732 net.cpp:156] Memory required for data: 1299050016
I0403 21:45:43.214911 12732 layer_factory.hpp:77] Creating layer inception_5a/5x5_reduce
I0403 21:45:43.214939 12732 net.cpp:91] Creating Layer inception_5a/5x5_reduce
I0403 21:45:43.214962 12732 net.cpp:425] inception_5a/5x5_reduce <- pool4/3x3_s2_pool4/3x3_s2_0_split_2
I0403 21:45:43.214989 12732 net.cpp:399] inception_5a/5x5_reduce -> inception_5a/5x5_reduce
I0403 21:45:43.216444 12732 net.cpp:141] Setting up inception_5a/5x5_reduce
I0403 21:45:43.216481 12732 net.cpp:148] Top shape: 24 32 7 7 (37632)
I0403 21:45:43.216505 12732 net.cpp:156] Memory required for data: 1299200544
I0403 21:45:43.216527 12732 layer_factory.hpp:77] Creating layer inception_5a/relu_5x5_reduce
I0403 21:45:43.216549 12732 net.cpp:91] Creating Layer inception_5a/relu_5x5_reduce
I0403 21:45:43.216570 12732 net.cpp:425] inception_5a/relu_5x5_reduce <- inception_5a/5x5_reduce
I0403 21:45:43.216593 12732 net.cpp:386] inception_5a/relu_5x5_reduce -> inception_5a/5x5_reduce (in-place)
I0403 21:45:43.216956 12732 net.cpp:141] Setting up inception_5a/relu_5x5_reduce
I0403 21:45:43.216989 12732 net.cpp:148] Top shape: 24 32 7 7 (37632)
I0403 21:45:43.217008 12732 net.cpp:156] Memory required for data: 1299351072
I0403 21:45:43.217027 12732 layer_factory.hpp:77] Creating layer inception_5a/5x5
I0403 21:45:43.217056 12732 net.cpp:91] Creating Layer inception_5a/5x5
I0403 21:45:43.217078 12732 net.cpp:425] inception_5a/5x5 <- inception_5a/5x5_reduce
I0403 21:45:43.217104 12732 net.cpp:399] inception_5a/5x5 -> inception_5a/5x5
I0403 21:45:43.219249 12732 net.cpp:141] Setting up inception_5a/5x5
I0403 21:45:43.219298 12732 net.cpp:148] Top shape: 24 128 7 7 (150528)
I0403 21:45:43.219319 12732 net.cpp:156] Memory required for data: 1299953184
I0403 21:45:43.219342 12732 layer_factory.hpp:77] Creating layer inception_5a/relu_5x5
I0403 21:45:43.219365 12732 net.cpp:91] Creating Layer inception_5a/relu_5x5
I0403 21:45:43.219386 12732 net.cpp:425] inception_5a/relu_5x5 <- inception_5a/5x5
I0403 21:45:43.219411 12732 net.cpp:386] inception_5a/relu_5x5 -> inception_5a/5x5 (in-place)
I0403 21:45:43.219651 12732 net.cpp:141] Setting up inception_5a/relu_5x5
I0403 21:45:43.219683 12732 net.cpp:148] Top shape: 24 128 7 7 (150528)
I0403 21:45:43.219702 12732 net.cpp:156] Memory required for data: 1300555296
I0403 21:45:43.219720 12732 layer_factory.hpp:77] Creating layer inception_5a/pool
I0403 21:45:43.219746 12732 net.cpp:91] Creating Layer inception_5a/pool
I0403 21:45:43.219768 12732 net.cpp:425] inception_5a/pool <- pool4/3x3_s2_pool4/3x3_s2_0_split_3
I0403 21:45:43.219791 12732 net.cpp:399] inception_5a/pool -> inception_5a/pool
I0403 21:45:43.219887 12732 net.cpp:141] Setting up inception_5a/pool
I0403 21:45:43.219918 12732 net.cpp:148] Top shape: 24 832 7 7 (978432)
I0403 21:45:43.219935 12732 net.cpp:156] Memory required for data: 1304469024
I0403 21:45:43.219954 12732 layer_factory.hpp:77] Creating layer inception_5a/pool_proj
I0403 21:45:43.219981 12732 net.cpp:91] Creating Layer inception_5a/pool_proj
I0403 21:45:43.220005 12732 net.cpp:425] inception_5a/pool_proj <- inception_5a/pool
I0403 21:45:43.220032 12732 net.cpp:399] inception_5a/pool_proj -> inception_5a/pool_proj
I0403 21:45:43.222874 12732 net.cpp:141] Setting up inception_5a/pool_proj
I0403 21:45:43.222914 12732 net.cpp:148] Top shape: 24 128 7 7 (150528)
I0403 21:45:43.222935 12732 net.cpp:156] Memory required for data: 1305071136
I0403 21:45:43.222957 12732 layer_factory.hpp:77] Creating layer inception_5a/relu_pool_proj
I0403 21:45:43.223162 12732 net.cpp:91] Creating Layer inception_5a/relu_pool_proj
I0403 21:45:43.223197 12732 net.cpp:425] inception_5a/relu_pool_proj <- inception_5a/pool_proj
I0403 21:45:43.223224 12732 net.cpp:386] inception_5a/relu_pool_proj -> inception_5a/pool_proj (in-place)
I0403 21:45:43.223592 12732 net.cpp:141] Setting up inception_5a/relu_pool_proj
I0403 21:45:43.223624 12732 net.cpp:148] Top shape: 24 128 7 7 (150528)
I0403 21:45:43.223644 12732 net.cpp:156] Memory required for data: 1305673248
I0403 21:45:43.223662 12732 layer_factory.hpp:77] Creating layer inception_5a/output
I0403 21:45:43.223683 12732 net.cpp:91] Creating Layer inception_5a/output
I0403 21:45:43.223703 12732 net.cpp:425] inception_5a/output <- inception_5a/1x1
I0403 21:45:43.223724 12732 net.cpp:425] inception_5a/output <- inception_5a/3x3
I0403 21:45:43.223743 12732 net.cpp:425] inception_5a/output <- inception_5a/5x5
I0403 21:45:43.223763 12732 net.cpp:425] inception_5a/output <- inception_5a/pool_proj
I0403 21:45:43.223788 12732 net.cpp:399] inception_5a/output -> inception_5a/output
I0403 21:45:43.223850 12732 net.cpp:141] Setting up inception_5a/output
I0403 21:45:43.223878 12732 net.cpp:148] Top shape: 24 832 7 7 (978432)
I0403 21:45:43.223896 12732 net.cpp:156] Memory required for data: 1309586976
I0403 21:45:43.223913 12732 layer_factory.hpp:77] Creating layer inception_5a/output_inception_5a/output_0_split
I0403 21:45:43.223938 12732 net.cpp:91] Creating Layer inception_5a/output_inception_5a/output_0_split
I0403 21:45:43.223958 12732 net.cpp:425] inception_5a/output_inception_5a/output_0_split <- inception_5a/output
I0403 21:45:43.223980 12732 net.cpp:399] inception_5a/output_inception_5a/output_0_split -> inception_5a/output_inception_5a/output_0_split_0
I0403 21:45:43.224009 12732 net.cpp:399] inception_5a/output_inception_5a/output_0_split -> inception_5a/output_inception_5a/output_0_split_1
I0403 21:45:43.224037 12732 net.cpp:399] inception_5a/output_inception_5a/output_0_split -> inception_5a/output_inception_5a/output_0_split_2
I0403 21:45:43.224061 12732 net.cpp:399] inception_5a/output_inception_5a/output_0_split -> inception_5a/output_inception_5a/output_0_split_3
I0403 21:45:43.224206 12732 net.cpp:141] Setting up inception_5a/output_inception_5a/output_0_split
I0403 21:45:43.224236 12732 net.cpp:148] Top shape: 24 832 7 7 (978432)
I0403 21:45:43.224256 12732 net.cpp:148] Top shape: 24 832 7 7 (978432)
I0403 21:45:43.224277 12732 net.cpp:148] Top shape: 24 832 7 7 (978432)
I0403 21:45:43.224297 12732 net.cpp:148] Top shape: 24 832 7 7 (978432)
I0403 21:45:43.224313 12732 net.cpp:156] Memory required for data: 1325241888
I0403 21:45:43.224331 12732 layer_factory.hpp:77] Creating layer inception_5b/1x1
I0403 21:45:43.224359 12732 net.cpp:91] Creating Layer inception_5b/1x1
I0403 21:45:43.224380 12732 net.cpp:425] inception_5b/1x1 <- inception_5a/output_inception_5a/output_0_split_0
I0403 21:45:43.224411 12732 net.cpp:399] inception_5b/1x1 -> inception_5b/1x1
I0403 21:45:43.229059 12732 net.cpp:141] Setting up inception_5b/1x1
I0403 21:45:43.229100 12732 net.cpp:148] Top shape: 24 384 7 7 (451584)
I0403 21:45:43.229120 12732 net.cpp:156] Memory required for data: 1327048224
I0403 21:45:43.229145 12732 layer_factory.hpp:77] Creating layer inception_5b/relu_1x1
I0403 21:45:43.229166 12732 net.cpp:91] Creating Layer inception_5b/relu_1x1
I0403 21:45:43.229195 12732 net.cpp:425] inception_5b/relu_1x1 <- inception_5b/1x1
I0403 21:45:43.229221 12732 net.cpp:386] inception_5b/relu_1x1 -> inception_5b/1x1 (in-place)
I0403 21:45:43.229591 12732 net.cpp:141] Setting up inception_5b/relu_1x1
I0403 21:45:43.229626 12732 net.cpp:148] Top shape: 24 384 7 7 (451584)
I0403 21:45:43.229646 12732 net.cpp:156] Memory required for data: 1328854560
I0403 21:45:43.229665 12732 layer_factory.hpp:77] Creating layer inception_5b/3x3_reduce
I0403 21:45:43.229693 12732 net.cpp:91] Creating Layer inception_5b/3x3_reduce
I0403 21:45:43.229717 12732 net.cpp:425] inception_5b/3x3_reduce <- inception_5a/output_inception_5a/output_0_split_1
I0403 21:45:43.229740 12732 net.cpp:399] inception_5b/3x3_reduce -> inception_5b/3x3_reduce
I0403 21:45:43.233013 12732 net.cpp:141] Setting up inception_5b/3x3_reduce
I0403 21:45:43.233053 12732 net.cpp:148] Top shape: 24 192 7 7 (225792)
I0403 21:45:43.233073 12732 net.cpp:156] Memory required for data: 1329757728
I0403 21:45:43.233098 12732 layer_factory.hpp:77] Creating layer inception_5b/relu_3x3_reduce
I0403 21:45:43.233122 12732 net.cpp:91] Creating Layer inception_5b/relu_3x3_reduce
I0403 21:45:43.233142 12732 net.cpp:425] inception_5b/relu_3x3_reduce <- inception_5b/3x3_reduce
I0403 21:45:43.233166 12732 net.cpp:386] inception_5b/relu_3x3_reduce -> inception_5b/3x3_reduce (in-place)
I0403 21:45:43.233412 12732 net.cpp:141] Setting up inception_5b/relu_3x3_reduce
I0403 21:45:43.233443 12732 net.cpp:148] Top shape: 24 192 7 7 (225792)
I0403 21:45:43.233461 12732 net.cpp:156] Memory required for data: 1330660896
I0403 21:45:43.233479 12732 layer_factory.hpp:77] Creating layer inception_5b/3x3
I0403 21:45:43.233507 12732 net.cpp:91] Creating Layer inception_5b/3x3
I0403 21:45:43.233530 12732 net.cpp:425] inception_5b/3x3 <- inception_5b/3x3_reduce
I0403 21:45:43.233557 12732 net.cpp:399] inception_5b/3x3 -> inception_5b/3x3
I0403 21:45:43.241947 12732 net.cpp:141] Setting up inception_5b/3x3
I0403 21:45:43.241984 12732 net.cpp:148] Top shape: 24 384 7 7 (451584)
I0403 21:45:43.242004 12732 net.cpp:156] Memory required for data: 1332467232
I0403 21:45:43.242027 12732 layer_factory.hpp:77] Creating layer inception_5b/relu_3x3
I0403 21:45:43.242049 12732 net.cpp:91] Creating Layer inception_5b/relu_3x3
I0403 21:45:43.242069 12732 net.cpp:425] inception_5b/relu_3x3 <- inception_5b/3x3
I0403 21:45:43.242094 12732 net.cpp:386] inception_5b/relu_3x3 -> inception_5b/3x3 (in-place)
I0403 21:45:43.242470 12732 net.cpp:141] Setting up inception_5b/relu_3x3
I0403 21:45:43.242503 12732 net.cpp:148] Top shape: 24 384 7 7 (451584)
I0403 21:45:43.242524 12732 net.cpp:156] Memory required for data: 1334273568
I0403 21:45:43.242543 12732 layer_factory.hpp:77] Creating layer inception_5b/5x5_reduce
I0403 21:45:43.242593 12732 net.cpp:91] Creating Layer inception_5b/5x5_reduce
I0403 21:45:43.242616 12732 net.cpp:425] inception_5b/5x5_reduce <- inception_5a/output_inception_5a/output_0_split_2
I0403 21:45:43.242645 12732 net.cpp:399] inception_5b/5x5_reduce -> inception_5b/5x5_reduce
I0403 21:45:43.244225 12732 net.cpp:141] Setting up inception_5b/5x5_reduce
I0403 21:45:43.244261 12732 net.cpp:148] Top shape: 24 48 7 7 (56448)
I0403 21:45:43.244280 12732 net.cpp:156] Memory required for data: 1334499360
I0403 21:45:43.244303 12732 layer_factory.hpp:77] Creating layer inception_5b/relu_5x5_reduce
I0403 21:45:43.244325 12732 net.cpp:91] Creating Layer inception_5b/relu_5x5_reduce
I0403 21:45:43.244345 12732 net.cpp:425] inception_5b/relu_5x5_reduce <- inception_5b/5x5_reduce
I0403 21:45:43.244370 12732 net.cpp:386] inception_5b/relu_5x5_reduce -> inception_5b/5x5_reduce (in-place)
I0403 21:45:43.244832 12732 net.cpp:141] Setting up inception_5b/relu_5x5_reduce
I0403 21:45:43.244864 12732 net.cpp:148] Top shape: 24 48 7 7 (56448)
I0403 21:45:43.244884 12732 net.cpp:156] Memory required for data: 1334725152
I0403 21:45:43.244902 12732 layer_factory.hpp:77] Creating layer inception_5b/5x5
I0403 21:45:43.244928 12732 net.cpp:91] Creating Layer inception_5b/5x5
I0403 21:45:43.244951 12732 net.cpp:425] inception_5b/5x5 <- inception_5b/5x5_reduce
I0403 21:45:43.244974 12732 net.cpp:399] inception_5b/5x5 -> inception_5b/5x5
I0403 21:45:43.247520 12732 net.cpp:141] Setting up inception_5b/5x5
I0403 21:45:43.247555 12732 net.cpp:148] Top shape: 24 128 7 7 (150528)
I0403 21:45:43.247575 12732 net.cpp:156] Memory required for data: 1335327264
I0403 21:45:43.247596 12732 layer_factory.hpp:77] Creating layer inception_5b/relu_5x5
I0403 21:45:43.247622 12732 net.cpp:91] Creating Layer inception_5b/relu_5x5
I0403 21:45:43.247644 12732 net.cpp:425] inception_5b/relu_5x5 <- inception_5b/5x5
I0403 21:45:43.247666 12732 net.cpp:386] inception_5b/relu_5x5 -> inception_5b/5x5 (in-place)
I0403 21:45:43.247906 12732 net.cpp:141] Setting up inception_5b/relu_5x5
I0403 21:45:43.247936 12732 net.cpp:148] Top shape: 24 128 7 7 (150528)
I0403 21:45:43.247956 12732 net.cpp:156] Memory required for data: 1335929376
I0403 21:45:43.247973 12732 layer_factory.hpp:77] Creating layer inception_5b/pool
I0403 21:45:43.247999 12732 net.cpp:91] Creating Layer inception_5b/pool
I0403 21:45:43.248021 12732 net.cpp:425] inception_5b/pool <- inception_5a/output_inception_5a/output_0_split_3
I0403 21:45:43.248044 12732 net.cpp:399] inception_5b/pool -> inception_5b/pool
I0403 21:45:43.248141 12732 net.cpp:141] Setting up inception_5b/pool
I0403 21:45:43.248170 12732 net.cpp:148] Top shape: 24 832 7 7 (978432)
I0403 21:45:43.248194 12732 net.cpp:156] Memory required for data: 1339843104
I0403 21:45:43.248214 12732 layer_factory.hpp:77] Creating layer inception_5b/pool_proj
I0403 21:45:43.248242 12732 net.cpp:91] Creating Layer inception_5b/pool_proj
I0403 21:45:43.248265 12732 net.cpp:425] inception_5b/pool_proj <- inception_5b/pool
I0403 21:45:43.248292 12732 net.cpp:399] inception_5b/pool_proj -> inception_5b/pool_proj
I0403 21:45:43.251152 12732 net.cpp:141] Setting up inception_5b/pool_proj
I0403 21:45:43.251193 12732 net.cpp:148] Top shape: 24 128 7 7 (150528)
I0403 21:45:43.251214 12732 net.cpp:156] Memory required for data: 1340445216
I0403 21:45:43.251237 12732 layer_factory.hpp:77] Creating layer inception_5b/relu_pool_proj
I0403 21:45:43.251261 12732 net.cpp:91] Creating Layer inception_5b/relu_pool_proj
I0403 21:45:43.251283 12732 net.cpp:425] inception_5b/relu_pool_proj <- inception_5b/pool_proj
I0403 21:45:43.251307 12732 net.cpp:386] inception_5b/relu_pool_proj -> inception_5b/pool_proj (in-place)
I0403 21:45:43.251673 12732 net.cpp:141] Setting up inception_5b/relu_pool_proj
I0403 21:45:43.251706 12732 net.cpp:148] Top shape: 24 128 7 7 (150528)
I0403 21:45:43.251726 12732 net.cpp:156] Memory required for data: 1341047328
I0403 21:45:43.251745 12732 layer_factory.hpp:77] Creating layer inception_5b/output
I0403 21:45:43.251768 12732 net.cpp:91] Creating Layer inception_5b/output
I0403 21:45:43.251806 12732 net.cpp:425] inception_5b/output <- inception_5b/1x1
I0403 21:45:43.251828 12732 net.cpp:425] inception_5b/output <- inception_5b/3x3
I0403 21:45:43.251850 12732 net.cpp:425] inception_5b/output <- inception_5b/5x5
I0403 21:45:43.251870 12732 net.cpp:425] inception_5b/output <- inception_5b/pool_proj
I0403 21:45:43.251895 12732 net.cpp:399] inception_5b/output -> inception_5b/output
I0403 21:45:43.251960 12732 net.cpp:141] Setting up inception_5b/output
I0403 21:45:43.251991 12732 net.cpp:148] Top shape: 24 1024 7 7 (1204224)
I0403 21:45:43.252010 12732 net.cpp:156] Memory required for data: 1345864224
I0403 21:45:43.252028 12732 layer_factory.hpp:77] Creating layer pool5/7x7_s1
I0403 21:45:43.252051 12732 net.cpp:91] Creating Layer pool5/7x7_s1
I0403 21:45:43.252073 12732 net.cpp:425] pool5/7x7_s1 <- inception_5b/output
I0403 21:45:43.252094 12732 net.cpp:399] pool5/7x7_s1 -> pool5/7x7_s1
I0403 21:45:43.252388 12732 net.cpp:141] Setting up pool5/7x7_s1
I0403 21:45:43.252420 12732 net.cpp:148] Top shape: 24 1024 1 1 (24576)
I0403 21:45:43.252439 12732 net.cpp:156] Memory required for data: 1345962528
I0403 21:45:43.252459 12732 layer_factory.hpp:77] Creating layer pool5/drop_7x7_s1
I0403 21:45:43.252481 12732 net.cpp:91] Creating Layer pool5/drop_7x7_s1
I0403 21:45:43.252502 12732 net.cpp:425] pool5/drop_7x7_s1 <- pool5/7x7_s1
I0403 21:45:43.252526 12732 net.cpp:386] pool5/drop_7x7_s1 -> pool5/7x7_s1 (in-place)
I0403 21:45:43.252588 12732 net.cpp:141] Setting up pool5/drop_7x7_s1
I0403 21:45:43.252620 12732 net.cpp:148] Top shape: 24 1024 1 1 (24576)
I0403 21:45:43.252638 12732 net.cpp:156] Memory required for data: 1346060832
I0403 21:45:43.252657 12732 layer_factory.hpp:77] Creating layer loss3/classifier_plantvillage
I0403 21:45:43.252681 12732 net.cpp:91] Creating Layer loss3/classifier_plantvillage
I0403 21:45:43.252701 12732 net.cpp:425] loss3/classifier_plantvillage <- pool5/7x7_s1
I0403 21:45:43.252727 12732 net.cpp:399] loss3/classifier_plantvillage -> loss3/classifier_plantvillage
I0403 21:45:43.253263 12732 net.cpp:141] Setting up loss3/classifier_plantvillage
I0403 21:45:43.253293 12732 net.cpp:148] Top shape: 24 38 (912)
I0403 21:45:43.253312 12732 net.cpp:156] Memory required for data: 1346064480
I0403 21:45:43.253335 12732 layer_factory.hpp:77] Creating layer loss3/classifier_plantvillage_loss3/classifier_plantvillage_0_split
I0403 21:45:43.253361 12732 net.cpp:91] Creating Layer loss3/classifier_plantvillage_loss3/classifier_plantvillage_0_split
I0403 21:45:43.253381 12732 net.cpp:425] loss3/classifier_plantvillage_loss3/classifier_plantvillage_0_split <- loss3/classifier_plantvillage
I0403 21:45:43.253404 12732 net.cpp:399] loss3/classifier_plantvillage_loss3/classifier_plantvillage_0_split -> loss3/classifier_plantvillage_loss3/classifier_plantvillage_0_split_0
I0403 21:45:43.253433 12732 net.cpp:399] loss3/classifier_plantvillage_loss3/classifier_plantvillage_0_split -> loss3/classifier_plantvillage_loss3/classifier_plantvillage_0_split_1
I0403 21:45:43.253459 12732 net.cpp:399] loss3/classifier_plantvillage_loss3/classifier_plantvillage_0_split -> loss3/classifier_plantvillage_loss3/classifier_plantvillage_0_split_2
I0403 21:45:43.253484 12732 net.cpp:399] loss3/classifier_plantvillage_loss3/classifier_plantvillage_0_split -> loss3/classifier_plantvillage_loss3/classifier_plantvillage_0_split_3
I0403 21:45:43.253610 12732 net.cpp:141] Setting up loss3/classifier_plantvillage_loss3/classifier_plantvillage_0_split
I0403 21:45:43.253639 12732 net.cpp:148] Top shape: 24 38 (912)
I0403 21:45:43.253659 12732 net.cpp:148] Top shape: 24 38 (912)
I0403 21:45:43.253679 12732 net.cpp:148] Top shape: 24 38 (912)
I0403 21:45:43.253697 12732 net.cpp:148] Top shape: 24 38 (912)
I0403 21:45:43.253715 12732 net.cpp:156] Memory required for data: 1346079072
I0403 21:45:43.253733 12732 layer_factory.hpp:77] Creating layer loss1/loss
I0403 21:45:43.253759 12732 net.cpp:91] Creating Layer loss1/loss
I0403 21:45:43.253782 12732 net.cpp:425] loss1/loss <- loss1/classifier_plantvillage_loss1/classifier_plantvillage_0_split_0
I0403 21:45:43.253819 12732 net.cpp:425] loss1/loss <- label_data_1_split_0
…
