…
I0403 21:40:45.032412 12450 net.cpp:313] The NetState phase (1) differed from the phase (0) specified by a rule in layer data
I0403 21:40:45.033529 12450 net.cpp:49] Initializing net from parameters: 
state {
  phase: TEST
}
layer {
  name: "data"
  type: "Data"
  top: "data"
  top: "label"
  include {
    phase: TEST
  }
  transform_param {
    mirror: false
    crop_size: 224
    mean_file: "/home/mohanty/data/final_dataset/lmdb/color-80-20/mean.binaryproto"
  }
  data_param {
    source: "/home/mohanty/data/final_dataset/lmdb/color-80-20/test_db"
    batch_size: 24
    backend: LMDB
  }
}
layer {
  name: "conv1/7x7_s2"
  type: "Convolution"
  bottom: "data"
  top: "conv1/7x7_s2"
  param {
    lr_mult: 1
    decay_mult: 1
  }
  param {
    lr_mult: 2
    decay_mult: 0
  }
  convolution_param {
    num_output: 64
    pad: 3
    kernel_size: 7
    stride: 2
    weight_filler {
      type: "xavier"
      std: 0.1
    }
    bias_filler {
      type: "constant"
      value: 0.2
    }
  }
}
layer {
  name: "conv1/relu_7x7"
  type: "ReLU"
  bottom: "conv1/7x7_s2"
  top: "conv1/7x7_s2"
}
layer {
  name: "pool1/3x3_s2"
  type: "Pooling"
  bottom: "conv1/7x7_s2"
  top: "pool1/3x3_s2"
  pooling_param {
    pool: MAX
    kernel_size: 3
    stride: 2
  }
}
layer {
  name: "pool1/norm1"
  type: "LRN"
  bottom: "pool1/3x3_s2"
  top: "pool1/norm1"
  lrn_param {
    local_size: 5
    alpha: 0.0001
    beta: 0.75
  }
}
layer {
  name: "conv2/3x3_reduce"
  type: "Convolution"
  bottom: "pool1/norm1"
  top: "conv2/3x3_reduce"
  param {
    lr_mult: 1
    decay_mult: 1
  }
  param {
    lr_mult: 2
    decay_mult: 0
  }
  convolution_param {
    num_output: 64
    kernel_size: 1
    weight_filler {
      type: "xavier"
      std: 0.1
    }
    bias_filler {
      type: "constant"
      value: 0.2
    }
  }
}
layer {
  name: "conv2/relu_3x3_reduce"
  type: "ReLU"
  bottom: "conv2/3x3_reduce"
  top: "conv2/3x3_reduce"
}
layer {
  name: "conv2/3x3"
  type: "Convolution"
  bottom: "conv2/3x3_reduce"
  top: "conv2/3x3"
  param {
    lr_mult: 1
    decay_mult: 1
  }
  param {
    lr_mult: 2
    decay_mult: 0
  }
  convolution_param {
    num_output: 192
    pad: 1
    kernel_size: 3
    weight_filler {
      type: "xavier"
      std: 0.03
    }
    bias_filler {
      type: "constant"
      value: 0.2
    }
  }
}
layer {
  name: "conv2/relu_3x3"
  type: "ReLU"
  bottom: "conv2/3x3"
  top: "conv2/3x3"
}
layer {
  name: "conv2/norm2"
  type: "LRN"
  bottom: "conv2/3x3"
  top: "conv2/norm2"
  lrn_param {
    local_size: 5
    alpha: 0.0001
    beta: 0.75
  }
}
layer {
  name: "pool2/3x3_s2"
  type: "Pooling"
  bottom: "conv2/norm2"
  top: "pool2/3x3_s2"
  pooling_param {
    pool: MAX
    kernel_size: 3
    stride: 2
  }
}
layer {
  name: "inception_3a/1x1"
  type: "Convolution"
  bottom: "pool2/3x3_s2"
  top: "inception_3a/1x1"
  param {
    lr_mult: 1
    decay_mult: 1
  }
  param {
    lr_mult: 2
    decay_mult: 0
  }
  convolution_param {
    num_output: 64
    kernel_size: 1
    weight_filler {
      type: "xavier"
      std: 0.03
    }
    bias_filler {
      type: "constant"
      value: 0.2
    }
  }
}
layer {
  name: "inception_3a/relu_1x1"
  type: "ReLU"
  bottom: "inception_3a/1x1"
  top: "inception_3a/1x1"
}
layer {
  name: "inception_3a/3x3_reduce"
  type: "Convolution"
  bottom: "pool2/3x3_s2"
  top: "inception_3a/3x3_reduce"
  param {
    lr_mult: 1
    decay_mult: 1
  }
  param {
    lr_mult: 2
    decay_mult: 0
  }
  convolution_param {
    num_output: 96
    kernel_size: 1
    weight_filler {
      type: "xavier"
      std: 0.09
    }
    bias_filler {
      type: "constant"
      value: 0.2
    }
  }
}
layer {
  name: "inception_3a/relu_3x3_reduce"
  type: "ReLU"
  bottom: "inception_3a/3x3_reduce"
  top: "inception_3a/3x3_reduce"
}
layer {
  name: "inception_3a/3x3"
  type: "Convolution"
  bottom: "inception_3a/3x3_reduce"
  top: "inception_3a/3x3"
  param {
    lr_mult: 1
    decay_mult: 1
  }
  param {
    lr_mult: 2
    decay_mult: 0
  }
  convolution_param {
    num_output: 128
    pad: 1
    kernel_size: 3
    weight_filler {
      type: "xavier"
      std: 0.03
    }
    bias_filler {
      type: "constant"
      value: 0.2
    }
  }
}
layer {
  name: "inception_3a/relu_3x3"
  type: "ReLU"
  bottom: "inception_3a/3x3"
  top: "inception_3a/3x3"
}
layer {
  name: "inception_3a/5x5_reduce"
  type: "Convolution"
  bottom: "pool2/3x3_s2"
  top: "inception_3a/5x5_reduce"
  param {
    lr_mult: 1
    decay_mult: 1
  }
  param {
    lr_mult: 2
    decay_mult: 0
  }
  convolution_param {
    num_output: 16
    kernel_size: 1
    weight_filler {
      type: "xavier"
      std: 0.2
    }
    bias_filler {
      type: "constant"
      value: 0.2
    }
  }
}
layer {
  name: "inception_3a/relu_5x5_reduce"
  type: "ReLU"
  bottom: "inception_3a/5x5_reduce"
  top: "inception_3a/5x5_reduce"
}
layer {
  name: "inception_3a/5x5"
  type: "Convolution"
  bottom: "inception_3a/5x5_reduce"
  top: "inception_3a/5x5"
  param {
    lr_mult: 1
    decay_mult: 1
  }
  param {
    lr_mult: 2
    decay_mult: 0
  }
  convolution_param {
    num_output: 32
    pad: 2
    kernel_size: 5
    weight_filler {
      type: "xavier"
      std: 0.03
    }
    bias_filler {
      type: "constant"
      value: 0.2
    }
  }
}
layer {
  name: "inception_3a/relu_5x5"
  type: "ReLU"
  bottom: "inception_3a/5x5"
  top: "inception_3a/5x5"
}
layer {
  name: "inception_3a/pool"
  type: "Pooling"
  bottom: "pool2/3x3_s2"
  top: "inception_3a/pool"
  pooling_param {
    pool: MAX
    kernel_size: 3
    stride: 1
    pad: 1
  }
}
layer {
  name: "inception_3a/pool_proj"
  type: "Convolution"
  bottom: "inception_3a/pool"
  top: "inception_3a/pool_proj"
  param {
    lr_mult: 1
    decay_mult: 1
  }
  param {
    lr_mult: 2
    decay_mult: 0
  }
  convolution_param {
    num_output: 32
    kernel_size: 1
    weight_filler {
      type: "xavier"
      std: 0.1
    }
    bias_filler {
      type: "constant"
      value: 0.2
    }
  }
}
layer {
  name: "inception_3a/relu_pool_proj"
  type: "ReLU"
  bottom: "inception_3a/pool_proj"
  top: "inception_3a/pool_proj"
}
layer {
  name: "inception_3a/output"
  type: "Concat"
  bottom: "inception_3a/1x1"
  bottom: "inception_3a/3x3"
  bottom: "inception_3a/5x5"
  bottom: "inception_3a/pool_proj"
  top: "inception_3a/output"
}
layer {
  name: "inception_3b/1x1"
  type: "Convolution"
  bottom: "inception_3a/output"
  top: "inception_3b/1x1"
  param {
    lr_mult: 1
    decay_mult: 1
  }
  param {
    lr_mult: 2
    decay_mult: 0
  }
  convolution_param {
    num_output: 128
    kernel_size: 1
    weight_filler {
      type: "xavier"
      std: 0.03
    }
    bias_filler {
      type: "constant"
      value: 0.2
    }
  }
}
layer {
  name: "inception_3b/relu_1x1"
  type: "ReLU"
  bottom: "inception_3b/1x1"
  top: "inception_3b/1x1"
}
layer {
  name: "inception_3b/3x3_reduce"
  type: "Convolution"
  bottom: "inception_3a/output"
  top: "inception_3b/3x3_reduce"
  param {
    lr_mult: 1
    decay_mult: 1
  }
  param {
    lr_mult: 2
    decay_mult: 0
  }
  convolution_param {
    num_output: 128
    kernel_size: 1
    weight_filler {
      type: "xavier"
      std: 0.09
    }
    bias_filler {
      type: "constant"
      value: 0.2
    }
  }
}
layer {
  name: "inception_3b/relu_3x3_reduce"
  type: "ReLU"
  bottom: "inception_3b/3x3_reduce"
  top: "inception_3b/3x3_reduce"
}
layer {
  name: "inception_3b/3x3"
  type: "Convolution"
  bottom: "inception_3b/3x3_reduce"
  top: "inception_3b/3x3"
  param {
    lr_mult: 1
    decay_mult: 1
  }
  param {
    lr_mult: 2
    decay_mult: 0
  }
  convolution_param {
    num_output: 192
    pad: 1
    kernel_size: 3
    weight_filler {
      type: "xavier"
      std: 0.03
    }
    bias_filler {
      type: "constant"
      value: 0.2
    }
  }
}
layer {
  name: "inception_3b/relu_3x3"
  type: "ReLU"
  bottom: "inception_3b/3x3"
  top: "inception_3b/3x3"
}
layer {
  name: "inception_3b/5x5_reduce"
  type: "Convolution"
  bottom: "inception_3a/output"
  top: "inception_3b/5x5_reduce"
  param {
    lr_mult: 1
    decay_mult: 1
  }
  param {
    lr_mult: 2
    decay_mult: 0
  }
  convolution_param {
    num_output: 32
    kernel_size: 1
    weight_filler {
      type: "xavier"
      std: 0.2
    }
    bias_filler {
      type: "constant"
      value: 0.2
    }
  }
}
layer {
  name: "inception_3b/relu_5x5_reduce"
  type: "ReLU"
  bottom: "inception_3b/5x5_reduce"
  top: "inception_3b/5x5_reduce"
}
layer {
  name: "inception_3b/5x5"
  type: "Convolution"
  bottom: "inception_3b/5x5_reduce"
  top: "inception_3b/5x5"
  param {
    lr_mult: 1
    decay_mult: 1
  }
  param {
    lr_mult: 2
    decay_mult: 0
  }
  convolution_param {
    num_output: 96
    pad: 2
    kernel_size: 5
    weight_filler {
      type: "xavier"
      std: 0.03
    }
    bias_filler {
      type: "constant"
      value: 0.2
    }
  }
}
layer {
  name: "inception_3b/relu_5x5"
  type: "ReLU"
  bottom: "inception_3b/5x5"
  top: "inception_3b/5x5"
}
layer {
  name: "inception_3b/pool"
  type: "Pooling"
  bottom: "inception_3a/output"
  top: "inception_3b/pool"
  pooling_param {
    pool: MAX
    kernel_size: 3
    stride: 1
    pad: 1
  }
}
layer {
  name: "inception_3b/pool_proj"
  type: "Convolution"
  bottom: "inception_3b/pool"
  top: "inception_3b/pool_proj"
  param {
    lr_mult: 1
    decay_mult: 1
  }
  param {
    lr_mult: 2
    decay_mult: 0
  }
  convolution_param {
    num_output: 64
    kernel_size: 1
    weight_filler {
      type: "xavier"
      std: 0.1
    }
    bias_filler {
      type: "constant"
      value: 0.2
    }
  }
}
layer {
  name: "inception_3b/relu_pool_proj"
  type: "ReLU"
  bottom: "inception_3b/pool_proj"
  top: "inception_3b/pool_proj"
}
layer {
  name: "inception_3b/output"
  type: "Concat"
  bottom: "inception_3b/1x1"
  bottom: "inception_3b/3x3"
  bottom: "inception_3b/5x5"
  bottom: "inception_3b/pool_proj"
  top: "inception_3b/output"
}
layer {
  name: "pool3/3x3_s2"
  type: "Pooling"
  bottom: "inception_3b/output"
  top: "pool3/3x3_s2"
  pooling_param {
    pool: MAX
    kernel_size: 3
    stride: 2
  }
}
layer {
  name: "inception_4a/1x1"
  type: "Convolution"
  bottom: "pool3/3x3_s2"
  top: "inception_4a/1x1"
  param {
    lr_mult: 1
    decay_mult: 1
  }
  param {
    lr_mult: 2
    decay_mult: 0
  }
  convolution_param {
    num_output: 192
    kernel_size: 1
    weight_filler {
      type: "xavier"
      std: 0.03
    }
    bias_filler {
      type: "constant"
      value: 0.2
    }
  }
}
layer {
  name: "inception_4a/relu_1x1"
  type: "ReLU"
  bottom: "inception_4a/1x1"
  top: "inception_4a/1x1"
}
layer {
  name: "inception_4a/3x3_reduce"
  type: "Convolution"
  bottom: "pool3/3x3_s2"
  top: "inception_4a/3x3_reduce"
  param {
    lr_mult: 1
    decay_mult: 1
  }
  param {
    lr_mult: 2
    decay_mult: 0
  }
  convolution_param {
    num_output: 96
    kernel_size: 1
    weight_filler {
      type: "xavier"
      std: 0.09
    }
    bias_filler {
      type: "constant"
      value: 0.2
    }
  }
}
layer {
  name: "inception_4a/relu_3x3_reduce"
  type: "ReLU"
  bottom: "inception_4a/3x3_reduce"
  top: "inception_4a/3x3_reduce"
}
layer {
  name: "inception_4a/3x3"
  type: "Convolution"
  bottom: "inception_4a/3x3_reduce"
  top: "inception_4a/3x3"
  param {
    lr_mult: 1
    decay_mult: 1
  }
  param {
    lr_mult: 2
    decay_mult: 0
  }
  convolution_param {
    num_output: 208
    pad: 1
    kernel_size: 3
    weight_filler {
      type: "xavier"
      std: 0.03
    }
    bias_filler {
      type: "constant"
      value: 0.2
    }
  }
}
layer {
  name: "inception_4a/relu_3x3"
  type: "ReLU"
  bottom: "inception_4a/3x3"
  top: "inception_4a/3x3"
}
layer {
  name: "inception_4a/5x5_reduce"
  type: "Convolution"
  bottom: "pool3/3x3_s2"
  top: "inception_4a/5x5_reduce"
  param {
    lr_mult: 1
    decay_mult: 1
  }
  param {
    lr_mult: 2
    decay_mult: 0
  }
  convolution_param {
    num_output: 16
    kernel_size: 1
    weight_filler {
      type: "xavier"
      std: 0.2
    }
    bias_filler {
      type: "constant"
      value: 0.2
    }
  }
}
layer {
  name: "inception_4a/relu_5x5_reduce"
  type: "ReLU"
  bottom: "inception_4a/5x5_reduce"
  top: "inception_4a/5x5_reduce"
}
layer {
  name: "inception_4a/5x5"
  type: "Convolution"
  bottom: "inception_4a/5x5_reduce"
  top: "inception_4a/5x5"
  param {
    lr_mult: 1
    decay_mult: 1
  }
  param {
    lr_mult: 2
    decay_mult: 0
  }
  convolution_param {
    num_output: 48
    pad: 2
    kernel_size: 5
    weight_filler {
      type: "xavier"
      std: 0.03
    }
    bias_filler {
      type: "constant"
      value: 0.2
    }
  }
}
layer {
  name: "inception_4a/relu_5x5"
  type: "ReLU"
  bottom: "inception_4a/5x5"
  top: "inception_4a/5x5"
}
layer {
  name: "inception_4a/pool"
  type: "Pooling"
  bottom: "pool3/3x3_s2"
  top: "inception_4a/pool"
  pooling_param {
    pool: MAX
    kernel_size: 3
    stride: 1
    pad: 1
  }
}
layer {
  name: "inception_4a/pool_proj"
  type: "Convolution"
  bottom: "inception_4a/pool"
  top: "inception_4a/pool_proj"
  param {
    lr_mult: 1
    decay_mult: 1
  }
  param {
    lr_mult: 2
    decay_mult: 0
  }
  convolution_param {
    num_output: 64
    kernel_size: 1
    weight_filler {
      type: "xavier"
      std: 0.1
    }
    bias_filler {
      type: "constant"
      value: 0.2
    }
  }
}
layer {
  name: "inception_4a/relu_pool_proj"
  type: "ReLU"
  bottom: "inception_4a/pool_proj"
  top: "inception_4a/pool_proj"
}
layer {
  name: "inception_4a/output"
  type: "Concat"
  bottom: "inception_4a/1x1"
  bottom: "inception_4a/3x3"
  bottom: "inception_4a/5x5"
  bottom: "inception_4a/pool_proj"
  top: "inception_4a/output"
}
layer {
  name: "loss1/ave_pool"
  type: "Pooling"
  bottom: "inception_4a/output"
  top: "loss1/ave_pool"
  pooling_param {
    pool: AVE
    kernel_size: 5
    stride: 3
  }
}
layer {
  name: "loss1/conv"
  type: "Convolution"
  bottom: "loss1/ave_pool"
  top: "loss1/conv"
  param {
    lr_mult: 1
    decay_mult: 1
  }
  param {
    lr_mult: 2
    decay_mult: 0
  }
  convolution_param {
    num_output: 128
    kernel_size: 1
    weight_filler {
      type: "xavier"
      std: 0.08
    }
    bias_filler {
      type: "constant"
      value: 0.2
    }
  }
}
layer {
  name: "loss1/relu_conv"
  type: "ReLU"
  bottom: "loss1/conv"
  top: "loss1/conv"
}
layer {
  name: "loss1/fc"
  type: "InnerProduct"
  bottom: "loss1/conv"
  top: "loss1/fc"
  param {
    lr_mult: 1
    decay_mult: 1
  }
  param {
    lr_mult: 2
    decay_mult: 0
  }
  inner_product_param {
    num_output: 1024
    weight_filler {
      type: "xavier"
      std: 0.02
    }
    bias_filler {
      type: "constant"
      value: 0.2
    }
  }
}
layer {
  name: "loss1/relu_fc"
  type: "ReLU"
  bottom: "loss1/fc"
  top: "loss1/fc"
}
layer {
  name: "loss1/drop_fc"
  type: "Dropout"
  bottom: "loss1/fc"
  top: "loss1/fc"
  dropout_param {
    dropout_ratio: 0.7
  }
}
layer {
  name: "loss1/classifier_plantvillage"
  type: "InnerProduct"
  bottom: "loss1/fc"
  top: "loss1/classifier_plantvillage"
  param {
    lr_mult: 1
    decay_mult: 1
  }
  param {
    lr_mult: 2
    decay_mult: 0
  }
  inner_product_param {
    num_output: 38
    weight_filler {
      type: "xavier"
      std: 0.0009765625
    }
    bias_filler {
      type: "constant"
      value: 0
    }
  }
}
layer {
  name: "inception_4b/1x1"
  type: "Convolution"
  bottom: "inception_4a/output"
  top: "inception_4b/1x1"
  param {
    lr_mult: 1
    decay_mult: 1
  }
  param {
    lr_mult: 2
    decay_mult: 0
  }
  convolution_param {
    num_output: 160
    kernel_size: 1
    weight_filler {
      type: "xavier"
      std: 0.03
    }
    bias_filler {
      type: "constant"
      value: 0.2
    }
  }
}
layer {
  name: "inception_4b/relu_1x1"
  type: "ReLU"
  bottom: "inception_4b/1x1"
  top: "inception_4b/1x1"
}
layer {
  name: "inception_4b/3x3_reduce"
  type: "Convolution"
  bottom: "inception_4a/output"
  top: "inception_4b/3x3_reduce"
  param {
    lr_mult: 1
    decay_mult: 1
  }
  param {
    lr_mult: 2
    decay_mult: 0
  }
  convolution_param {
    num_output: 112
    kernel_size: 1
    weight_filler {
      type: "xavier"
      std: 0.09
    }
    bias_filler {
      type: "constant"
      value: 0.2
    }
  }
}
layer {
  name: "inception_4b/relu_3x3_reduce"
  type: "ReLU"
  bottom: "inception_4b/3x3_reduce"
  top: "inception_4b/3x3_reduce"
}
layer {
  name: "inception_4b/3x3"
  type: "Convolution"
  bottom: "inception_4b/3x3_reduce"
  top: "inception_4b/3x3"
  param {
    lr_mult: 1
    decay_mult: 1
  }
  param {
    lr_mult: 2
    decay_mult: 0
  }
  convolution_param {
    num_output: 224
    pad: 1
    kernel_size: 3
    weight_filler {
      type: "xavier"
      std: 0.03
    }
    bias_filler {
      type: "constant"
      value: 0.2
    }
  }
}
layer {
  name: "inception_4b/relu_3x3"
  type: "ReLU"
  bottom: "inception_4b/3x3"
  top: "inception_4b/3x3"
}
layer {
  name: "inception_4b/5x5_reduce"
  type: "Convolution"
  bottom: "inception_4a/output"
  top: "inception_4b/5x5_reduce"
  param {
    lr_mult: 1
    decay_mult: 1
  }
  param {
    lr_mult: 2
    decay_mult: 0
  }
  convolution_param {
    num_output: 24
    kernel_size: 1
    weight_filler {
      type: "xavier"
      std: 0.2
    }
    bias_filler {
      type: "constant"
      value: 0.2
    }
  }
}
layer {
  name: "inception_4b/relu_5x5_reduce"
  type: "ReLU"
  bottom: "inception_4b/5x5_reduce"
  top: "inception_4b/5x5_reduce"
}
layer {
  name: "inception_4b/5x5"
  type: "Convolution"
  bottom: "inception_4b/5x5_reduce"
  top: "inception_4b/5x5"
  param {
    lr_mult: 1
    decay_mult: 1
  }
  param {
    lr_mult: 2
    decay_mult: 0
  }
  convolution_param {
    num_output: 64
    pad: 2
    kernel_size: 5
    weight_filler {
      type: "xavier"
      std: 0.03
    }
    bias_filler {
      type: "constant"
      value: 0.2
    }
  }
}
layer {
  name: "inception_4b/relu_5x5"
  type: "ReLU"
  bottom: "inception_4b/5x5"
  top: "inception_4b/5x5"
}
layer {
  name: "inception_4b/pool"
  type: "Pooling"
  bottom: "inception_4a/output"
  top: "inception_4b/pool"
  pooling_param {
    pool: MAX
    kernel_size: 3
    stride: 1
    pad: 1
  }
}
layer {
  name: "inception_4b/pool_proj"
  type: "Convolution"
  bottom: "inception_4b/pool"
  top: "inception_4b/pool_proj"
  param {
    lr_mult: 1
    decay_mult: 1
  }
  param {
    lr_mult: 2
    decay_mult: 0
  }
  convolution_param {
    num_output: 64
    kernel_size: 1
    weight_filler {
      type: "xavier"
      std: 0.1
    }
    bias_filler {
      type: "constant"
      value: 0.2
    }
  }
}
layer {
  name: "inception_4b/relu_pool_proj"
  type: "ReLU"
  bottom: "inception_4b/pool_proj"
  top: "inception_4b/pool_proj"
}
layer {
  name: "inception_4b/output"
  type: "Concat"
  bottom: "inception_4b/1x1"
  bottom: "inception_4b/3x3"
  bottom: "inception_4b/5x5"
  bottom: "inception_4b/pool_proj"
  top: "inception_4b/output"
}
layer {
  name: "inception_4c/1x1"
  type: "Convolution"
  bottom: "inception_4b/output"
  top: "inception_4c/1x1"
  param {
    lr_mult: 1
    decay_mult: 1
  }
  param {
    lr_mult: 2
    decay_mult: 0
  }
  convolution_param {
    num_output: 128
    kernel_size: 1
    weight_filler {
      type: "xavier"
      std: 0.03
    }
    bias_filler {
      type: "constant"
      value: 0.2
    }
  }
}
layer {
  name: "inception_4c/relu_1x1"
  type: "ReLU"
  bottom: "inception_4c/1x1"
  top: "inception_4c/1x1"
}
layer {
  name: "inception_4c/3x3_reduce"
  type: "Convolution"
  bottom: "inception_4b/output"
  top: "inception_4c/3x3_reduce"
  param {
    lr_mult: 1
    decay_mult: 1
  }
  param {
    lr_mult: 2
    decay_mult: 0
  }
  convolution_param {
    num_output: 128
    kernel_size: 1
    weight_filler {
      type: "xavier"
      std: 0.09
    }
    bias_filler {
      type: "constant"
      value: 0.2
    }
  }
}
layer {
  name: "inception_4c/relu_3x3_reduce"
  type: "ReLU"
  bottom: "inception_4c/3x3_reduce"
  top: "inception_4c/3x3_reduce"
}
layer {
  name: "inception_4c/3x3"
  type: "Convolution"
  bottom: "inception_4c/3x3_reduce"
  top: "inception_4c/3x3"
  param {
    lr_mult: 1
    decay_mult: 1
  }
  param {
    lr_mult: 2
    decay_mult: 0
  }
  convolution_param {
    num_output: 256
    pad: 1
    kernel_size: 3
    weight_filler {
      type: "xavier"
      std: 0.03
    }
    bias_filler {
      type: "constant"
      value: 0.2
    }
  }
}
layer {
  name: "inception_4c/relu_3x3"
  type: "ReLU"
  bottom: "inception_4c/3x3"
  top: "inception_4c/3x3"
}
layer {
  name: "inception_4c/5x5_reduce"
  type: "Convolution"
  bottom: "inception_4b/output"
  top: "inception_4c/5x5_reduce"
  param {
    lr_mult: 1
    decay_mult: 1
  }
  param {
    lr_mult: 2
    decay_mult: 0
  }
  convolution_param {
    num_output: 24
    kernel_size: 1
    weight_filler {
      type: "xavier"
      std: 0.2
    }
    bias_filler {
      type: "constant"
      value: 0.2
    }
  }
}
layer {
  name: "inception_4c/relu_5x5_reduce"
  type: "ReLU"
  bottom: "inception_4c/5x5_reduce"
  top: "inception_4c/5x5_reduce"
}
layer {
  name: "inception_4c/5x5"
  type: "Convolution"
  bottom: "inception_4c/5x5_reduce"
  top: "inception_4c/5x5"
  param {
    lr_mult: 1
    decay_mult: 1
  }
  param {
    lr_mult: 2
    decay_mult: 0
  }
  convolution_param {
    num_output: 64
    pad: 2
    kernel_size: 5
    weight_filler {
      type: "xavier"
      std: 0.03
    }
    bias_filler {
      type: "constant"
      value: 0.2
    }
  }
}
layer {
  name: "inception_4c/relu_5x5"
  type: "ReLU"
  bottom: "inception_4c/5x5"
  top: "inception_4c/5x5"
}
layer {
  name: "inception_4c/pool"
  type: "Pooling"
  bottom: "inception_4b/output"
  top: "inception_4c/pool"
  pooling_param {
    pool: MAX
    kernel_size: 3
    stride: 1
    pad: 1
  }
}
layer {
  name: "inception_4c/pool_proj"
  type: "Convolution"
  bottom: "inception_4c/pool"
  top: "inception_4c/pool_proj"
  param {
    lr_mult: 1
    decay_mult: 1
  }
  param {
    lr_mult: 2
    decay_mult: 0
  }
  convolution_param {
    num_output: 64
    kernel_size: 1
    weight_filler {
      type: "xavier"
      std: 0.1
    }
    bias_filler {
      type: "constant"
      value: 0.2
    }
  }
}
layer {
  name: "inception_4c/relu_pool_proj"
  type: "ReLU"
  bottom: "inception_4c/pool_proj"
  top: "inception_4c/pool_proj"
}
layer {
  name: "inception_4c/output"
  type: "Concat"
  bottom: "inception_4c/1x1"
  bottom: "inception_4c/3x3"
  bottom: "inception_4c/5x5"
  bottom: "inception_4c/pool_proj"
  top: "inception_4c/output"
}
layer {
  name: "inception_4d/1x1"
  type: "Convolution"
  bottom: "inception_4c/output"
  top: "inception_4d/1x1"
  param {
    lr_mult: 1
    decay_mult: 1
  }
  param {
    lr_mult: 2
    decay_mult: 0
  }
  convolution_param {
    num_output: 112
    kernel_size: 1
    weight_filler {
      type: "xavier"
      std: 0.03
    }
    bias_filler {
      type: "constant"
      value: 0.2
    }
  }
}
layer {
  name: "inception_4d/relu_1x1"
  type: "ReLU"
  bottom: "inception_4d/1x1"
  top: "inception_4d/1x1"
}
layer {
  name: "inception_4d/3x3_reduce"
  type: "Convolution"
  bottom: "inception_4c/output"
  top: "inception_4d/3x3_reduce"
  param {
    lr_mult: 1
    decay_mult: 1
  }
  param {
    lr_mult: 2
    decay_mult: 0
  }
  convolution_param {
    num_output: 144
    kernel_size: 1
    weight_filler {
      type: "xavier"
      std: 0.09
    }
    bias_filler {
      type: "constant"
      value: 0.2
    }
  }
}
layer {
  name: "inception_4d/relu_3x3_reduce"
  type: "ReLU"
  bottom: "inception_4d/3x3_reduce"
  top: "inception_4d/3x3_reduce"
}
layer {
  name: "inception_4d/3x3"
  type: "Convolution"
  bottom: "inception_4d/3x3_reduce"
  top: "inception_4d/3x3"
  param {
    lr_mult: 1
    decay_mult: 1
  }
  param {
    lr_mult: 2
    decay_mult: 0
  }
  convolution_param {
    num_output: 288
    pad: 1
    kernel_size: 3
    weight_filler {
      type: "xavier"
      std: 0.03
    }
    bias_filler {
      type: "constant"
      value: 0.2
    }
  }
}
layer {
  name: "inception_4d/relu_3x3"
  type: "ReLU"
  bottom: "inception_4d/3x3"
  top: "inception_4d/3x3"
}
layer {
  name: "inception_4d/5x5_reduce"
  type: "Convolution"
  bottom: "inception_4c/output"
  top: "inception_4d/5x5_reduce"
  param {
    lr_mult: 1
    decay_mult: 1
  }
  param {
    lr_mult: 2
    decay_mult: 0
  }
  convolution_param {
    num_output: 32
    kernel_size: 1
    weight_filler {
      type: "xavier"
      std: 0.2
    }
    bias_filler {
      type: "constant"
      value: 0.2
    }
  }
}
layer {
  name: "inception_4d/relu_5x5_reduce"
  type: "ReLU"
  bottom: "inception_4d/5x5_reduce"
  top: "inception_4d/5x5_reduce"
}
layer {
  name: "inception_4d/5x5"
  type: "Convolution"
  bottom: "inception_4d/5x5_reduce"
  top: "inception_4d/5x5"
  param {
    lr_mult: 1
    decay_mult: 1
  }
  param {
    lr_mult: 2
    decay_mult: 0
  }
  convolution_param {
    num_output: 64
    pad: 2
    kernel_size: 5
    weight_filler {
      type: "xavier"
      std: 0.03
    }
    bias_filler {
      type: "constant"
      value: 0.2
    }
  }
}
layer {
  name: "inception_4d/relu_5x5"
  type: "ReLU"
  bottom: "inception_4d/5x5"
  top: "inception_4d/5x5"
}
layer {
  name: "inception_4d/pool"
  type: "Pooling"
  bottom: "inception_4c/output"
  top: "inception_4d/pool"
  pooling_param {
    pool: MAX
    kernel_size: 3
    stride: 1
    pad: 1
  }
}
layer {
  name: "inception_4d/pool_proj"
  type: "Convolution"
  bottom: "inception_4d/pool"
  top: "inception_4d/pool_proj"
  param {
    lr_mult: 1
    decay_mult: 1
  }
  param {
    lr_mult: 2
    decay_mult: 0
  }
  convolution_param {
    num_output: 64
    kernel_size: 1
    weight_filler {
      type: "xavier"
      std: 0.1
    }
    bias_filler {
      type: "constant"
      value: 0.2
    }
  }
}
layer {
  name: "inception_4d/relu_pool_proj"
  type: "ReLU"
  bottom: "inception_4d/pool_proj"
  top: "inception_4d/pool_proj"
}
layer {
  name: "inception_4d/output"
  type: "Concat"
  bottom: "inception_4d/1x1"
  bottom: "inception_4d/3x3"
  bottom: "inception_4d/5x5"
  bottom: "inception_4d/pool_proj"
  top: "inception_4d/output"
}
layer {
  name: "loss2/ave_pool"
  type: "Pooling"
  bottom: "inception_4d/output"
  top: "loss2/ave_pool"
  pooling_param {
    pool: AVE
    kernel_size: 5
    stride: 3
  }
}
layer {
  name: "loss2/conv"
  type: "Convolution"
  bottom: "loss2/ave_pool"
  top: "loss2/conv"
  param {
    lr_mult: 1
    decay_mult: 1
  }
  param {
    lr_mult: 2
    decay_mult: 0
  }
  convolution_param {
    num_output: 128
    kernel_size: 1
    weight_filler {
      type: "xavier"
      std: 0.08
    }
    bias_filler {
      type: "constant"
      value: 0.2
    }
  }
}
layer {
  name: "loss2/relu_conv"
  type: "ReLU"
  bottom: "loss2/conv"
  top: "loss2/conv"
}
layer {
  name: "loss2/fc"
  type: "InnerProduct"
  bottom: "loss2/conv"
  top: "loss2/fc"
  param {
    lr_mult: 1
    decay_mult: 1
  }
  param {
    lr_mult: 2
    decay_mult: 0
  }
  inner_product_param {
    num_output: 1024
    weight_filler {
      type: "xavier"
      std: 0.02
    }
    bias_filler {
      type: "constant"
      value: 0.2
    }
  }
}
layer {
  name: "loss2/relu_fc"
  type: "ReLU"
  bottom: "loss2/fc"
  top: "loss2/fc"
}
layer {
  name: "loss2/drop_fc"
  type: "Dropout"
  bottom: "loss2/fc"
  top: "loss2/fc"
  dropout_param {
    dropout_ratio: 0.7
  }
}
layer {
  name: "loss2/classifier_plantvillage"
  type: "InnerProduct"
  bottom: "loss2/fc"
  top: "loss2/classifier_plantvillage"
  param {
    lr_mult: 1
    decay_mult: 1
  }
  param {
    lr_mult: 2
    decay_mult: 0
  }
  inner_product_param {
    num_output: 38
    weight_filler {
      type: "xavier"
      std: 0.0009765625
    }
    bias_filler {
      type: "constant"
      value: 0
    }
  }
}
layer {
  name: "inception_4e/1x1"
  type: "Convolution"
  bottom: "inception_4d/output"
  top: "inception_4e/1x1"
  param {
    lr_mult: 1
    decay_mult: 1
  }
  param {
    lr_mult: 2
    decay_mult: 0
  }
  convolution_param {
    num_output: 256
    kernel_size: 1
    weight_filler {
      type: "xavier"
      std: 0.03
    }
    bias_filler {
      type: "constant"
      value: 0.2
    }
  }
}
layer {
  name: "inception_4e/relu_1x1"
  type: "ReLU"
  bottom: "inception_4e/1x1"
  top: "inception_4e/1x1"
}
layer {
  name: "inception_4e/3x3_reduce"
  type: "Convolution"
  bottom: "inception_4d/output"
  top: "inception_4e/3x3_reduce"
  param {
    lr_mult: 1
    decay_mult: 1
  }
  param {
    lr_mult: 2
    decay_mult: 0
  }
  convolution_param {
    num_output: 160
    kernel_size: 1
    weight_filler {
      type: "xavier"
      std: 0.09
    }
    bias_filler {
      type: "constant"
      value: 0.2
    }
  }
}
layer {
  name: "inception_4e/relu_3x3_reduce"
  type: "ReLU"
  bottom: "inception_4e/3x3_reduce"
  top: "inception_4e/3x3_reduce"
}
layer {
  name: "inception_4e/3x3"
  type: "Convolution"
  bottom: "inception_4e/3x3_reduce"
  top: "inception_4e/3x3"
  param {
    lr_mult: 1
    decay_mult: 1
  }
  param {
    lr_mult: 2
    decay_mult: 0
  }
  convolution_param {
    num_output: 320
    pad: 1
    kernel_size: 3
    weight_filler {
      type: "xavier"
      std: 0.03
    }
    bias_filler {
      type: "constant"
      value: 0.2
    }
  }
}
layer {
  name: "inception_4e/relu_3x3"
  type: "ReLU"
  bottom: "inception_4e/3x3"
  top: "inception_4e/3x3"
}
layer {
  name: "inception_4e/5x5_reduce"
  type: "Convolution"
  bottom: "inception_4d/output"
  top: "inception_4e/5x5_reduce"
  param {
    lr_mult: 1
    decay_mult: 1
  }
  param {
    lr_mult: 2
    decay_mult: 0
  }
  convolution_param {
    num_output: 32
    kernel_size: 1
    weight_filler {
      type: "xavier"
      std: 0.2
    }
    bias_filler {
      type: "constant"
      value: 0.2
    }
  }
}
layer {
  name: "inception_4e/relu_5x5_reduce"
  type: "ReLU"
  bottom: "inception_4e/5x5_reduce"
  top: "inception_4e/5x5_reduce"
}
layer {
  name: "inception_4e/5x5"
  type: "Convolution"
  bottom: "inception_4e/5x5_reduce"
  top: "inception_4e/5x5"
  p
I0403 21:40:45.035617 12450 layer_factory.hpp:77] Creating layer data
I0403 21:40:45.036192 12450 net.cpp:91] Creating Layer data
I0403 21:40:45.036221 12450 net.cpp:399] data -> data
I0403 21:40:45.036273 12450 net.cpp:399] data -> label
I0403 21:40:45.036308 12450 data_transformer.cpp:25] Loading mean file from: /home/mohanty/data/final_dataset/lmdb/color-80-20/mean.binaryproto
I0403 21:40:45.037386 12453 db_lmdb.cpp:38] Opened lmdb /home/mohanty/data/final_dataset/lmdb/color-80-20/test_db
I0403 21:40:45.049563 12450 data_layer.cpp:41] output data size: 24,3,224,224
I0403 21:40:45.077437 12450 net.cpp:141] Setting up data
I0403 21:40:45.077529 12450 net.cpp:148] Top shape: 24 3 224 224 (3612672)
I0403 21:40:45.077550 12450 net.cpp:148] Top shape: 24 (24)
I0403 21:40:45.077565 12450 net.cpp:156] Memory required for data: 14450784
I0403 21:40:45.077591 12450 layer_factory.hpp:77] Creating layer label_data_1_split
I0403 21:40:45.077617 12450 net.cpp:91] Creating Layer label_data_1_split
I0403 21:40:45.077635 12450 net.cpp:425] label_data_1_split <- label
I0403 21:40:45.077664 12450 net.cpp:399] label_data_1_split -> label_data_1_split_0
I0403 21:40:45.077690 12450 net.cpp:399] label_data_1_split -> label_data_1_split_1
I0403 21:40:45.077710 12450 net.cpp:399] label_data_1_split -> label_data_1_split_2
I0403 21:40:45.077729 12450 net.cpp:399] label_data_1_split -> label_data_1_split_3
I0403 21:40:45.077749 12450 net.cpp:399] label_data_1_split -> label_data_1_split_4
I0403 21:40:45.077766 12450 net.cpp:399] label_data_1_split -> label_data_1_split_5
I0403 21:40:45.077785 12450 net.cpp:399] label_data_1_split -> label_data_1_split_6
I0403 21:40:45.077805 12450 net.cpp:399] label_data_1_split -> label_data_1_split_7
I0403 21:40:45.077823 12450 net.cpp:399] label_data_1_split -> label_data_1_split_8
I0403 21:40:45.077842 12450 net.cpp:399] label_data_1_split -> label_data_1_split_9
I0403 21:40:45.077952 12450 net.cpp:141] Setting up label_data_1_split
I0403 21:40:45.077975 12450 net.cpp:148] Top shape: 24 (24)
I0403 21:40:45.077992 12450 net.cpp:148] Top shape: 24 (24)
I0403 21:40:45.078007 12450 net.cpp:148] Top shape: 24 (24)
I0403 21:40:45.078022 12450 net.cpp:148] Top shape: 24 (24)
I0403 21:40:45.078037 12450 net.cpp:148] Top shape: 24 (24)
I0403 21:40:45.078053 12450 net.cpp:148] Top shape: 24 (24)
I0403 21:40:45.078068 12450 net.cpp:148] Top shape: 24 (24)
I0403 21:40:45.078083 12450 net.cpp:148] Top shape: 24 (24)
I0403 21:40:45.078099 12450 net.cpp:148] Top shape: 24 (24)
I0403 21:40:45.078114 12450 net.cpp:148] Top shape: 24 (24)
I0403 21:40:45.078160 12450 net.cpp:156] Memory required for data: 14451744
I0403 21:40:45.078174 12450 layer_factory.hpp:77] Creating layer conv1/7x7_s2
I0403 21:40:45.078238 12450 net.cpp:91] Creating Layer conv1/7x7_s2
I0403 21:40:45.078256 12450 net.cpp:425] conv1/7x7_s2 <- data
I0403 21:40:45.078276 12450 net.cpp:399] conv1/7x7_s2 -> conv1/7x7_s2
I0403 21:40:45.222996 12450 net.cpp:141] Setting up conv1/7x7_s2
I0403 21:40:45.223101 12450 net.cpp:148] Top shape: 24 64 112 112 (19267584)
I0403 21:40:45.223119 12450 net.cpp:156] Memory required for data: 91522080
I0403 21:40:45.223151 12450 layer_factory.hpp:77] Creating layer conv1/relu_7x7
I0403 21:40:45.223178 12450 net.cpp:91] Creating Layer conv1/relu_7x7
I0403 21:40:45.223196 12450 net.cpp:425] conv1/relu_7x7 <- conv1/7x7_s2
I0403 21:40:45.223232 12450 net.cpp:386] conv1/relu_7x7 -> conv1/7x7_s2 (in-place)
I0403 21:40:45.223497 12450 net.cpp:141] Setting up conv1/relu_7x7
I0403 21:40:45.223538 12450 net.cpp:148] Top shape: 24 64 112 112 (19267584)
I0403 21:40:45.223554 12450 net.cpp:156] Memory required for data: 168592416
I0403 21:40:45.223570 12450 layer_factory.hpp:77] Creating layer pool1/3x3_s2
I0403 21:40:45.223595 12450 net.cpp:91] Creating Layer pool1/3x3_s2
I0403 21:40:45.223613 12450 net.cpp:425] pool1/3x3_s2 <- conv1/7x7_s2
I0403 21:40:45.223634 12450 net.cpp:399] pool1/3x3_s2 -> pool1/3x3_s2
I0403 21:40:45.223711 12450 net.cpp:141] Setting up pool1/3x3_s2
I0403 21:40:45.223737 12450 net.cpp:148] Top shape: 24 64 56 56 (4816896)
I0403 21:40:45.223753 12450 net.cpp:156] Memory required for data: 187860000
I0403 21:40:45.223768 12450 layer_factory.hpp:77] Creating layer pool1/norm1
I0403 21:40:45.223793 12450 net.cpp:91] Creating Layer pool1/norm1
I0403 21:40:45.223809 12450 net.cpp:425] pool1/norm1 <- pool1/3x3_s2
I0403 21:40:45.223829 12450 net.cpp:399] pool1/norm1 -> pool1/norm1
I0403 21:40:45.224118 12450 net.cpp:141] Setting up pool1/norm1
I0403 21:40:45.224144 12450 net.cpp:148] Top shape: 24 64 56 56 (4816896)
I0403 21:40:45.224159 12450 net.cpp:156] Memory required for data: 207127584
I0403 21:40:45.224174 12450 layer_factory.hpp:77] Creating layer conv2/3x3_reduce
I0403 21:40:45.224200 12450 net.cpp:91] Creating Layer conv2/3x3_reduce
I0403 21:40:45.224220 12450 net.cpp:425] conv2/3x3_reduce <- pool1/norm1
I0403 21:40:45.224242 12450 net.cpp:399] conv2/3x3_reduce -> conv2/3x3_reduce
I0403 21:40:45.225606 12450 net.cpp:141] Setting up conv2/3x3_reduce
I0403 21:40:45.225635 12450 net.cpp:148] Top shape: 24 64 56 56 (4816896)
I0403 21:40:45.225651 12450 net.cpp:156] Memory required for data: 226395168
I0403 21:40:45.225672 12450 layer_factory.hpp:77] Creating layer conv2/relu_3x3_reduce
I0403 21:40:45.225692 12450 net.cpp:91] Creating Layer conv2/relu_3x3_reduce
I0403 21:40:45.225708 12450 net.cpp:425] conv2/relu_3x3_reduce <- conv2/3x3_reduce
I0403 21:40:45.225725 12450 net.cpp:386] conv2/relu_3x3_reduce -> conv2/3x3_reduce (in-place)
I0403 21:40:45.225985 12450 net.cpp:141] Setting up conv2/relu_3x3_reduce
I0403 21:40:45.226011 12450 net.cpp:148] Top shape: 24 64 56 56 (4816896)
I0403 21:40:45.226025 12450 net.cpp:156] Memory required for data: 245662752
I0403 21:40:45.226040 12450 layer_factory.hpp:77] Creating layer conv2/3x3
I0403 21:40:45.226065 12450 net.cpp:91] Creating Layer conv2/3x3
I0403 21:40:45.226083 12450 net.cpp:425] conv2/3x3 <- conv2/3x3_reduce
I0403 21:40:45.226101 12450 net.cpp:399] conv2/3x3 -> conv2/3x3
I0403 21:40:45.228349 12450 net.cpp:141] Setting up conv2/3x3
I0403 21:40:45.228379 12450 net.cpp:148] Top shape: 24 192 56 56 (14450688)
I0403 21:40:45.228395 12450 net.cpp:156] Memory required for data: 303465504
I0403 21:40:45.228416 12450 layer_factory.hpp:77] Creating layer conv2/relu_3x3
I0403 21:40:45.228437 12450 net.cpp:91] Creating Layer conv2/relu_3x3
I0403 21:40:45.228454 12450 net.cpp:425] conv2/relu_3x3 <- conv2/3x3
I0403 21:40:45.228471 12450 net.cpp:386] conv2/relu_3x3 -> conv2/3x3 (in-place)
I0403 21:40:45.228639 12450 net.cpp:141] Setting up conv2/relu_3x3
I0403 21:40:45.228665 12450 net.cpp:148] Top shape: 24 192 56 56 (14450688)
I0403 21:40:45.228711 12450 net.cpp:156] Memory required for data: 361268256
I0403 21:40:45.228727 12450 layer_factory.hpp:77] Creating layer conv2/norm2
I0403 21:40:45.228745 12450 net.cpp:91] Creating Layer conv2/norm2
I0403 21:40:45.228761 12450 net.cpp:425] conv2/norm2 <- conv2/3x3
I0403 21:40:45.228780 12450 net.cpp:399] conv2/norm2 -> conv2/norm2
I0403 21:40:45.229084 12450 net.cpp:141] Setting up conv2/norm2
I0403 21:40:45.229110 12450 net.cpp:148] Top shape: 24 192 56 56 (14450688)
I0403 21:40:45.229125 12450 net.cpp:156] Memory required for data: 419071008
I0403 21:40:45.229140 12450 layer_factory.hpp:77] Creating layer pool2/3x3_s2
I0403 21:40:45.229157 12450 net.cpp:91] Creating Layer pool2/3x3_s2
I0403 21:40:45.229185 12450 net.cpp:425] pool2/3x3_s2 <- conv2/norm2
I0403 21:40:45.229205 12450 net.cpp:399] pool2/3x3_s2 -> pool2/3x3_s2
I0403 21:40:45.229265 12450 net.cpp:141] Setting up pool2/3x3_s2
I0403 21:40:45.229290 12450 net.cpp:148] Top shape: 24 192 28 28 (3612672)
I0403 21:40:45.229305 12450 net.cpp:156] Memory required for data: 433521696
I0403 21:40:45.229321 12450 layer_factory.hpp:77] Creating layer pool2/3x3_s2_pool2/3x3_s2_0_split
I0403 21:40:45.229337 12450 net.cpp:91] Creating Layer pool2/3x3_s2_pool2/3x3_s2_0_split
I0403 21:40:45.229353 12450 net.cpp:425] pool2/3x3_s2_pool2/3x3_s2_0_split <- pool2/3x3_s2
I0403 21:40:45.229372 12450 net.cpp:399] pool2/3x3_s2_pool2/3x3_s2_0_split -> pool2/3x3_s2_pool2/3x3_s2_0_split_0
I0403 21:40:45.229393 12450 net.cpp:399] pool2/3x3_s2_pool2/3x3_s2_0_split -> pool2/3x3_s2_pool2/3x3_s2_0_split_1
I0403 21:40:45.229413 12450 net.cpp:399] pool2/3x3_s2_pool2/3x3_s2_0_split -> pool2/3x3_s2_pool2/3x3_s2_0_split_2
I0403 21:40:45.229434 12450 net.cpp:399] pool2/3x3_s2_pool2/3x3_s2_0_split -> pool2/3x3_s2_pool2/3x3_s2_0_split_3
I0403 21:40:45.229513 12450 net.cpp:141] Setting up pool2/3x3_s2_pool2/3x3_s2_0_split
I0403 21:40:45.229538 12450 net.cpp:148] Top shape: 24 192 28 28 (3612672)
I0403 21:40:45.229554 12450 net.cpp:148] Top shape: 24 192 28 28 (3612672)
I0403 21:40:45.229570 12450 net.cpp:148] Top shape: 24 192 28 28 (3612672)
I0403 21:40:45.229586 12450 net.cpp:148] Top shape: 24 192 28 28 (3612672)
I0403 21:40:45.229600 12450 net.cpp:156] Memory required for data: 491324448
I0403 21:40:45.229614 12450 layer_factory.hpp:77] Creating layer inception_3a/1x1
I0403 21:40:45.229636 12450 net.cpp:91] Creating Layer inception_3a/1x1
I0403 21:40:45.229653 12450 net.cpp:425] inception_3a/1x1 <- pool2/3x3_s2_pool2/3x3_s2_0_split_0
I0403 21:40:45.229672 12450 net.cpp:399] inception_3a/1x1 -> inception_3a/1x1
I0403 21:40:45.231191 12450 net.cpp:141] Setting up inception_3a/1x1
I0403 21:40:45.231225 12450 net.cpp:148] Top shape: 24 64 28 28 (1204224)
I0403 21:40:45.231241 12450 net.cpp:156] Memory required for data: 496141344
I0403 21:40:45.231261 12450 layer_factory.hpp:77] Creating layer inception_3a/relu_1x1
I0403 21:40:45.231281 12450 net.cpp:91] Creating Layer inception_3a/relu_1x1
I0403 21:40:45.231297 12450 net.cpp:425] inception_3a/relu_1x1 <- inception_3a/1x1
I0403 21:40:45.231312 12450 net.cpp:386] inception_3a/relu_1x1 -> inception_3a/1x1 (in-place)
I0403 21:40:45.231487 12450 net.cpp:141] Setting up inception_3a/relu_1x1
I0403 21:40:45.231514 12450 net.cpp:148] Top shape: 24 64 28 28 (1204224)
I0403 21:40:45.231529 12450 net.cpp:156] Memory required for data: 500958240
I0403 21:40:45.231544 12450 layer_factory.hpp:77] Creating layer inception_3a/3x3_reduce
I0403 21:40:45.231564 12450 net.cpp:91] Creating Layer inception_3a/3x3_reduce
I0403 21:40:45.231581 12450 net.cpp:425] inception_3a/3x3_reduce <- pool2/3x3_s2_pool2/3x3_s2_0_split_1
I0403 21:40:45.231600 12450 net.cpp:399] inception_3a/3x3_reduce -> inception_3a/3x3_reduce
I0403 21:40:45.233242 12450 net.cpp:141] Setting up inception_3a/3x3_reduce
I0403 21:40:45.233271 12450 net.cpp:148] Top shape: 24 96 28 28 (1806336)
I0403 21:40:45.233286 12450 net.cpp:156] Memory required for data: 508183584
I0403 21:40:45.233307 12450 layer_factory.hpp:77] Creating layer inception_3a/relu_3x3_reduce
I0403 21:40:45.233345 12450 net.cpp:91] Creating Layer inception_3a/relu_3x3_reduce
I0403 21:40:45.233362 12450 net.cpp:425] inception_3a/relu_3x3_reduce <- inception_3a/3x3_reduce
I0403 21:40:45.233381 12450 net.cpp:386] inception_3a/relu_3x3_reduce -> inception_3a/3x3_reduce (in-place)
I0403 21:40:45.233558 12450 net.cpp:141] Setting up inception_3a/relu_3x3_reduce
I0403 21:40:45.233583 12450 net.cpp:148] Top shape: 24 96 28 28 (1806336)
I0403 21:40:45.233598 12450 net.cpp:156] Memory required for data: 515408928
I0403 21:40:45.233613 12450 layer_factory.hpp:77] Creating layer inception_3a/3x3
I0403 21:40:45.233634 12450 net.cpp:91] Creating Layer inception_3a/3x3
I0403 21:40:45.233651 12450 net.cpp:425] inception_3a/3x3 <- inception_3a/3x3_reduce
I0403 21:40:45.233674 12450 net.cpp:399] inception_3a/3x3 -> inception_3a/3x3
I0403 21:40:45.235263 12450 net.cpp:141] Setting up inception_3a/3x3
I0403 21:40:45.235293 12450 net.cpp:148] Top shape: 24 128 28 28 (2408448)
I0403 21:40:45.235309 12450 net.cpp:156] Memory required for data: 525042720
I0403 21:40:45.235328 12450 layer_factory.hpp:77] Creating layer inception_3a/relu_3x3
I0403 21:40:45.235347 12450 net.cpp:91] Creating Layer inception_3a/relu_3x3
I0403 21:40:45.235363 12450 net.cpp:425] inception_3a/relu_3x3 <- inception_3a/3x3
I0403 21:40:45.235379 12450 net.cpp:386] inception_3a/relu_3x3 -> inception_3a/3x3 (in-place)
I0403 21:40:45.235644 12450 net.cpp:141] Setting up inception_3a/relu_3x3
I0403 21:40:45.235672 12450 net.cpp:148] Top shape: 24 128 28 28 (2408448)
I0403 21:40:45.235688 12450 net.cpp:156] Memory required for data: 534676512
I0403 21:40:45.235703 12450 layer_factory.hpp:77] Creating layer inception_3a/5x5_reduce
I0403 21:40:45.235725 12450 net.cpp:91] Creating Layer inception_3a/5x5_reduce
I0403 21:40:45.235743 12450 net.cpp:425] inception_3a/5x5_reduce <- pool2/3x3_s2_pool2/3x3_s2_0_split_2
I0403 21:40:45.235761 12450 net.cpp:399] inception_3a/5x5_reduce -> inception_3a/5x5_reduce
I0403 21:40:45.236685 12450 net.cpp:141] Setting up inception_3a/5x5_reduce
I0403 21:40:45.236716 12450 net.cpp:148] Top shape: 24 16 28 28 (301056)
I0403 21:40:45.236732 12450 net.cpp:156] Memory required for data: 535880736
I0403 21:40:45.236750 12450 layer_factory.hpp:77] Creating layer inception_3a/relu_5x5_reduce
I0403 21:40:45.236768 12450 net.cpp:91] Creating Layer inception_3a/relu_5x5_reduce
I0403 21:40:45.236783 12450 net.cpp:425] inception_3a/relu_5x5_reduce <- inception_3a/5x5_reduce
I0403 21:40:45.236800 12450 net.cpp:386] inception_3a/relu_5x5_reduce -> inception_3a/5x5_reduce (in-place)
I0403 21:40:45.237071 12450 net.cpp:141] Setting up inception_3a/relu_5x5_reduce
I0403 21:40:45.237097 12450 net.cpp:148] Top shape: 24 16 28 28 (301056)
I0403 21:40:45.237113 12450 net.cpp:156] Memory required for data: 537084960
I0403 21:40:45.237128 12450 layer_factory.hpp:77] Creating layer inception_3a/5x5
I0403 21:40:45.237149 12450 net.cpp:91] Creating Layer inception_3a/5x5
I0403 21:40:45.237167 12450 net.cpp:425] inception_3a/5x5 <- inception_3a/5x5_reduce
I0403 21:40:45.237187 12450 net.cpp:399] inception_3a/5x5 -> inception_3a/5x5
I0403 21:40:45.238159 12450 net.cpp:141] Setting up inception_3a/5x5
I0403 21:40:45.238186 12450 net.cpp:148] Top shape: 24 32 28 28 (602112)
I0403 21:40:45.238200 12450 net.cpp:156] Memory required for data: 539493408
I0403 21:40:45.238229 12450 layer_factory.hpp:77] Creating layer inception_3a/relu_5x5
I0403 21:40:45.238250 12450 net.cpp:91] Creating Layer inception_3a/relu_5x5
I0403 21:40:45.238267 12450 net.cpp:425] inception_3a/relu_5x5 <- inception_3a/5x5
I0403 21:40:45.238284 12450 net.cpp:386] inception_3a/relu_5x5 -> inception_3a/5x5 (in-place)
I0403 21:40:45.238451 12450 net.cpp:141] Setting up inception_3a/relu_5x5
I0403 21:40:45.238489 12450 net.cpp:148] Top shape: 24 32 28 28 (602112)
I0403 21:40:45.238504 12450 net.cpp:156] Memory required for data: 541901856
I0403 21:40:45.238519 12450 layer_factory.hpp:77] Creating layer inception_3a/pool
I0403 21:40:45.238548 12450 net.cpp:91] Creating Layer inception_3a/pool
I0403 21:40:45.238564 12450 net.cpp:425] inception_3a/pool <- pool2/3x3_s2_pool2/3x3_s2_0_split_3
I0403 21:40:45.238597 12450 net.cpp:399] inception_3a/pool -> inception_3a/pool
I0403 21:40:45.238653 12450 net.cpp:141] Setting up inception_3a/pool
I0403 21:40:45.238677 12450 net.cpp:148] Top shape: 24 192 28 28 (3612672)
I0403 21:40:45.238692 12450 net.cpp:156] Memory required for data: 556352544
I0403 21:40:45.238705 12450 layer_factory.hpp:77] Creating layer inception_3a/pool_proj
I0403 21:40:45.238729 12450 net.cpp:91] Creating Layer inception_3a/pool_proj
I0403 21:40:45.238744 12450 net.cpp:425] inception_3a/pool_proj <- inception_3a/pool
I0403 21:40:45.238778 12450 net.cpp:399] inception_3a/pool_proj -> inception_3a/pool_proj
I0403 21:40:45.239719 12450 net.cpp:141] Setting up inception_3a/pool_proj
I0403 21:40:45.239745 12450 net.cpp:148] Top shape: 24 32 28 28 (602112)
I0403 21:40:45.239760 12450 net.cpp:156] Memory required for data: 558760992
I0403 21:40:45.239784 12450 layer_factory.hpp:77] Creating layer inception_3a/relu_pool_proj
I0403 21:40:45.239802 12450 net.cpp:91] Creating Layer inception_3a/relu_pool_proj
I0403 21:40:45.239817 12450 net.cpp:425] inception_3a/relu_pool_proj <- inception_3a/pool_proj
I0403 21:40:45.239836 12450 net.cpp:386] inception_3a/relu_pool_proj -> inception_3a/pool_proj (in-place)
I0403 21:40:45.240092 12450 net.cpp:141] Setting up inception_3a/relu_pool_proj
I0403 21:40:45.240118 12450 net.cpp:148] Top shape: 24 32 28 28 (602112)
I0403 21:40:45.240134 12450 net.cpp:156] Memory required for data: 561169440
I0403 21:40:45.240149 12450 layer_factory.hpp:77] Creating layer inception_3a/output
I0403 21:40:45.240166 12450 net.cpp:91] Creating Layer inception_3a/output
I0403 21:40:45.240180 12450 net.cpp:425] inception_3a/output <- inception_3a/1x1
I0403 21:40:45.240196 12450 net.cpp:425] inception_3a/output <- inception_3a/3x3
I0403 21:40:45.240216 12450 net.cpp:425] inception_3a/output <- inception_3a/5x5
I0403 21:40:45.240232 12450 net.cpp:425] inception_3a/output <- inception_3a/pool_proj
I0403 21:40:45.240248 12450 net.cpp:399] inception_3a/output -> inception_3a/output
I0403 21:40:45.240293 12450 net.cpp:141] Setting up inception_3a/output
I0403 21:40:45.240314 12450 net.cpp:148] Top shape: 24 256 28 28 (4816896)
I0403 21:40:45.240329 12450 net.cpp:156] Memory required for data: 580437024
I0403 21:40:45.240344 12450 layer_factory.hpp:77] Creating layer inception_3a/output_inception_3a/output_0_split
I0403 21:40:45.240360 12450 net.cpp:91] Creating Layer inception_3a/output_inception_3a/output_0_split
I0403 21:40:45.240376 12450 net.cpp:425] inception_3a/output_inception_3a/output_0_split <- inception_3a/output
I0403 21:40:45.240392 12450 net.cpp:399] inception_3a/output_inception_3a/output_0_split -> inception_3a/output_inception_3a/output_0_split_0
I0403 21:40:45.240411 12450 net.cpp:399] inception_3a/output_inception_3a/output_0_split -> inception_3a/output_inception_3a/output_0_split_1
I0403 21:40:45.240437 12450 net.cpp:399] inception_3a/output_inception_3a/output_0_split -> inception_3a/output_inception_3a/output_0_split_2
I0403 21:40:45.240458 12450 net.cpp:399] inception_3a/output_inception_3a/output_0_split -> inception_3a/output_inception_3a/output_0_split_3
I0403 21:40:45.240528 12450 net.cpp:141] Setting up inception_3a/output_inception_3a/output_0_split
I0403 21:40:45.240550 12450 net.cpp:148] Top shape: 24 256 28 28 (4816896)
I0403 21:40:45.240566 12450 net.cpp:148] Top shape: 24 256 28 28 (4816896)
I0403 21:40:45.240581 12450 net.cpp:148] Top shape: 24 256 28 28 (4816896)
I0403 21:40:45.240595 12450 net.cpp:148] Top shape: 24 256 28 28 (4816896)
I0403 21:40:45.240608 12450 net.cpp:156] Memory required for data: 657507360
I0403 21:40:45.240622 12450 layer_factory.hpp:77] Creating layer inception_3b/1x1
I0403 21:40:45.240643 12450 net.cpp:91] Creating Layer inception_3b/1x1
I0403 21:40:45.240660 12450 net.cpp:425] inception_3b/1x1 <- inception_3a/output_inception_3a/output_0_split_0
I0403 21:40:45.240681 12450 net.cpp:399] inception_3b/1x1 -> inception_3b/1x1
I0403 21:40:45.241745 12450 net.cpp:141] Setting up inception_3b/1x1
I0403 21:40:45.241783 12450 net.cpp:148] Top shape: 24 128 28 28 (2408448)
I0403 21:40:45.241799 12450 net.cpp:156] Memory required for data: 667141152
I0403 21:40:45.241817 12450 layer_factory.hpp:77] Creating layer inception_3b/relu_1x1
I0403 21:40:45.241837 12450 net.cpp:91] Creating Layer inception_3b/relu_1x1
I0403 21:40:45.241852 12450 net.cpp:425] inception_3b/relu_1x1 <- inception_3b/1x1
I0403 21:40:45.241868 12450 net.cpp:386] inception_3b/relu_1x1 -> inception_3b/1x1 (in-place)
I0403 21:40:45.242032 12450 net.cpp:141] Setting up inception_3b/relu_1x1
I0403 21:40:45.242058 12450 net.cpp:148] Top shape: 24 128 28 28 (2408448)
I0403 21:40:45.242072 12450 net.cpp:156] Memory required for data: 676774944
I0403 21:40:45.242087 12450 layer_factory.hpp:77] Creating layer inception_3b/3x3_reduce
I0403 21:40:45.242108 12450 net.cpp:91] Creating Layer inception_3b/3x3_reduce
I0403 21:40:45.242125 12450 net.cpp:425] inception_3b/3x3_reduce <- inception_3a/output_inception_3a/output_0_split_1
I0403 21:40:45.242143 12450 net.cpp:399] inception_3b/3x3_reduce -> inception_3b/3x3_reduce
I0403 21:40:45.243222 12450 net.cpp:141] Setting up inception_3b/3x3_reduce
I0403 21:40:45.243248 12450 net.cpp:148] Top shape: 24 128 28 28 (2408448)
I0403 21:40:45.243263 12450 net.cpp:156] Memory required for data: 686408736
I0403 21:40:45.243280 12450 layer_factory.hpp:77] Creating layer inception_3b/relu_3x3_reduce
I0403 21:40:45.243299 12450 net.cpp:91] Creating Layer inception_3b/relu_3x3_reduce
I0403 21:40:45.243316 12450 net.cpp:425] inception_3b/relu_3x3_reduce <- inception_3b/3x3_reduce
I0403 21:40:45.243332 12450 net.cpp:386] inception_3b/relu_3x3_reduce -> inception_3b/3x3_reduce (in-place)
I0403 21:40:45.243494 12450 net.cpp:141] Setting up inception_3b/relu_3x3_reduce
I0403 21:40:45.243518 12450 net.cpp:148] Top shape: 24 128 28 28 (2408448)
I0403 21:40:45.243532 12450 net.cpp:156] Memory required for data: 696042528
I0403 21:40:45.243546 12450 layer_factory.hpp:77] Creating layer inception_3b/3x3
I0403 21:40:45.243571 12450 net.cpp:91] Creating Layer inception_3b/3x3
I0403 21:40:45.243588 12450 net.cpp:425] inception_3b/3x3 <- inception_3b/3x3_reduce
I0403 21:40:45.243613 12450 net.cpp:399] inception_3b/3x3 -> inception_3b/3x3
I0403 21:40:45.246372 12450 net.cpp:141] Setting up inception_3b/3x3
I0403 21:40:45.246402 12450 net.cpp:148] Top shape: 24 192 28 28 (3612672)
I0403 21:40:45.246417 12450 net.cpp:156] Memory required for data: 710493216
I0403 21:40:45.246435 12450 layer_factory.hpp:77] Creating layer inception_3b/relu_3x3
I0403 21:40:45.246454 12450 net.cpp:91] Creating Layer inception_3b/relu_3x3
I0403 21:40:45.246469 12450 net.cpp:425] inception_3b/relu_3x3 <- inception_3b/3x3
I0403 21:40:45.246485 12450 net.cpp:386] inception_3b/relu_3x3 -> inception_3b/3x3 (in-place)
I0403 21:40:45.246743 12450 net.cpp:141] Setting up inception_3b/relu_3x3
I0403 21:40:45.246770 12450 net.cpp:148] Top shape: 24 192 28 28 (3612672)
I0403 21:40:45.246786 12450 net.cpp:156] Memory required for data: 724943904
I0403 21:40:45.246800 12450 layer_factory.hpp:77] Creating layer inception_3b/5x5_reduce
I0403 21:40:45.246821 12450 net.cpp:91] Creating Layer inception_3b/5x5_reduce
I0403 21:40:45.246839 12450 net.cpp:425] inception_3b/5x5_reduce <- inception_3a/output_inception_3a/output_0_split_2
I0403 21:40:45.246857 12450 net.cpp:399] inception_3b/5x5_reduce -> inception_3b/5x5_reduce
I0403 21:40:45.247783 12450 net.cpp:141] Setting up inception_3b/5x5_reduce
I0403 21:40:45.247809 12450 net.cpp:148] Top shape: 24 32 28 28 (602112)
I0403 21:40:45.247827 12450 net.cpp:156] Memory required for data: 727352352
I0403 21:40:45.247845 12450 layer_factory.hpp:77] Creating layer inception_3b/relu_5x5_reduce
I0403 21:40:45.247861 12450 net.cpp:91] Creating Layer inception_3b/relu_5x5_reduce
I0403 21:40:45.247876 12450 net.cpp:425] inception_3b/relu_5x5_reduce <- inception_3b/5x5_reduce
I0403 21:40:45.247892 12450 net.cpp:386] inception_3b/relu_5x5_reduce -> inception_3b/5x5_reduce (in-place)
I0403 21:40:45.248062 12450 net.cpp:141] Setting up inception_3b/relu_5x5_reduce
I0403 21:40:45.248100 12450 net.cpp:148] Top shape: 24 32 28 28 (602112)
I0403 21:40:45.248116 12450 net.cpp:156] Memory required for data: 729760800
I0403 21:40:45.248129 12450 layer_factory.hpp:77] Creating layer inception_3b/5x5
I0403 21:40:45.248152 12450 net.cpp:91] Creating Layer inception_3b/5x5
I0403 21:40:45.248167 12450 net.cpp:425] inception_3b/5x5 <- inception_3b/5x5_reduce
I0403 21:40:45.248185 12450 net.cpp:399] inception_3b/5x5 -> inception_3b/5x5
I0403 21:40:45.250155 12450 net.cpp:141] Setting up inception_3b/5x5
I0403 21:40:45.250183 12450 net.cpp:148] Top shape: 24 96 28 28 (1806336)
I0403 21:40:45.250200 12450 net.cpp:156] Memory required for data: 736986144
I0403 21:40:45.250223 12450 layer_factory.hpp:77] Creating layer inception_3b/relu_5x5
I0403 21:40:45.250246 12450 net.cpp:91] Creating Layer inception_3b/relu_5x5
I0403 21:40:45.250262 12450 net.cpp:425] inception_3b/relu_5x5 <- inception_3b/5x5
I0403 21:40:45.250279 12450 net.cpp:386] inception_3b/relu_5x5 -> inception_3b/5x5 (in-place)
I0403 21:40:45.250470 12450 net.cpp:141] Setting up inception_3b/relu_5x5
I0403 21:40:45.250495 12450 net.cpp:148] Top shape: 24 96 28 28 (1806336)
I0403 21:40:45.250510 12450 net.cpp:156] Memory required for data: 744211488
I0403 21:40:45.250525 12450 layer_factory.hpp:77] Creating layer inception_3b/pool
I0403 21:40:45.250543 12450 net.cpp:91] Creating Layer inception_3b/pool
I0403 21:40:45.250558 12450 net.cpp:425] inception_3b/pool <- inception_3a/output_inception_3a/output_0_split_3
I0403 21:40:45.250576 12450 net.cpp:399] inception_3b/pool -> inception_3b/pool
I0403 21:40:45.250629 12450 net.cpp:141] Setting up inception_3b/pool
I0403 21:40:45.250653 12450 net.cpp:148] Top shape: 24 256 28 28 (4816896)
I0403 21:40:45.250668 12450 net.cpp:156] Memory required for data: 763479072
I0403 21:40:45.250682 12450 layer_factory.hpp:77] Creating layer inception_3b/pool_proj
I0403 21:40:45.250704 12450 net.cpp:91] Creating Layer inception_3b/pool_proj
I0403 21:40:45.250721 12450 net.cpp:425] inception_3b/pool_proj <- inception_3b/pool
I0403 21:40:45.250741 12450 net.cpp:399] inception_3b/pool_proj -> inception_3b/pool_proj
I0403 21:40:45.251756 12450 net.cpp:141] Setting up inception_3b/pool_proj
I0403 21:40:45.251785 12450 net.cpp:148] Top shape: 24 64 28 28 (1204224)
I0403 21:40:45.251801 12450 net.cpp:156] Memory required for data: 768295968
I0403 21:40:45.251821 12450 layer_factory.hpp:77] Creating layer inception_3b/relu_pool_proj
I0403 21:40:45.251837 12450 net.cpp:91] Creating Layer inception_3b/relu_pool_proj
I0403 21:40:45.251852 12450 net.cpp:425] inception_3b/relu_pool_proj <- inception_3b/pool_proj
I0403 21:40:45.251871 12450 net.cpp:386] inception_3b/relu_pool_proj -> inception_3b/pool_proj (in-place)
I0403 21:40:45.252239 12450 net.cpp:141] Setting up inception_3b/relu_pool_proj
I0403 21:40:45.252267 12450 net.cpp:148] Top shape: 24 64 28 28 (1204224)
I0403 21:40:45.252284 12450 net.cpp:156] Memory required for data: 773112864
I0403 21:40:45.252297 12450 layer_factory.hpp:77] Creating layer inception_3b/output
I0403 21:40:45.252315 12450 net.cpp:91] Creating Layer inception_3b/output
I0403 21:40:45.252329 12450 net.cpp:425] inception_3b/output <- inception_3b/1x1
I0403 21:40:45.252346 12450 net.cpp:425] inception_3b/output <- inception_3b/3x3
I0403 21:40:45.252362 12450 net.cpp:425] inception_3b/output <- inception_3b/5x5
I0403 21:40:45.252377 12450 net.cpp:425] inception_3b/output <- inception_3b/pool_proj
I0403 21:40:45.252393 12450 net.cpp:399] inception_3b/output -> inception_3b/output
I0403 21:40:45.252436 12450 net.cpp:141] Setting up inception_3b/output
I0403 21:40:45.252460 12450 net.cpp:148] Top shape: 24 480 28 28 (9031680)
I0403 21:40:45.252473 12450 net.cpp:156] Memory required for data: 809239584
I0403 21:40:45.252488 12450 layer_factory.hpp:77] Creating layer pool3/3x3_s2
I0403 21:40:45.252507 12450 net.cpp:91] Creating Layer pool3/3x3_s2
I0403 21:40:45.252524 12450 net.cpp:425] pool3/3x3_s2 <- inception_3b/output
I0403 21:40:45.252542 12450 net.cpp:399] pool3/3x3_s2 -> pool3/3x3_s2
I0403 21:40:45.252612 12450 net.cpp:141] Setting up pool3/3x3_s2
I0403 21:40:45.252635 12450 net.cpp:148] Top shape: 24 480 14 14 (2257920)
I0403 21:40:45.252650 12450 net.cpp:156] Memory required for data: 818271264
I0403 21:40:45.252665 12450 layer_factory.hpp:77] Creating layer pool3/3x3_s2_pool3/3x3_s2_0_split
I0403 21:40:45.252681 12450 net.cpp:91] Creating Layer pool3/3x3_s2_pool3/3x3_s2_0_split
I0403 21:40:45.252696 12450 net.cpp:425] pool3/3x3_s2_pool3/3x3_s2_0_split <- pool3/3x3_s2
I0403 21:40:45.252714 12450 net.cpp:399] pool3/3x3_s2_pool3/3x3_s2_0_split -> pool3/3x3_s2_pool3/3x3_s2_0_split_0
I0403 21:40:45.252733 12450 net.cpp:399] pool3/3x3_s2_pool3/3x3_s2_0_split -> pool3/3x3_s2_pool3/3x3_s2_0_split_1
I0403 21:40:45.252753 12450 net.cpp:399] pool3/3x3_s2_pool3/3x3_s2_0_split -> pool3/3x3_s2_pool3/3x3_s2_0_split_2
I0403 21:40:45.252770 12450 net.cpp:399] pool3/3x3_s2_pool3/3x3_s2_0_split -> pool3/3x3_s2_pool3/3x3_s2_0_split_3
I0403 21:40:45.252843 12450 net.cpp:141] Setting up pool3/3x3_s2_pool3/3x3_s2_0_split
I0403 21:40:45.252868 12450 net.cpp:148] Top shape: 24 480 14 14 (2257920)
I0403 21:40:45.252885 12450 net.cpp:148] Top shape: 24 480 14 14 (2257920)
I0403 21:40:45.252900 12450 net.cpp:148] Top shape: 24 480 14 14 (2257920)
I0403 21:40:45.252915 12450 net.cpp:148] Top shape: 24 480 14 14 (2257920)
I0403 21:40:45.252929 12450 net.cpp:156] Memory required for data: 854397984
I0403 21:40:45.252943 12450 layer_factory.hpp:77] Creating layer inception_4a/1x1
I0403 21:40:45.252964 12450 net.cpp:91] Creating Layer inception_4a/1x1
I0403 21:40:45.252981 12450 net.cpp:425] inception_4a/1x1 <- pool3/3x3_s2_pool3/3x3_s2_0_split_0
I0403 21:40:45.253000 12450 net.cpp:399] inception_4a/1x1 -> inception_4a/1x1
I0403 21:40:45.254542 12450 net.cpp:141] Setting up inception_4a/1x1
I0403 21:40:45.254570 12450 net.cpp:148] Top shape: 24 192 14 14 (903168)
I0403 21:40:45.254585 12450 net.cpp:156] Memory required for data: 858010656
I0403 21:40:45.254604 12450 layer_factory.hpp:77] Creating layer inception_4a/relu_1x1
I0403 21:40:45.254621 12450 net.cpp:91] Creating Layer inception_4a/relu_1x1
I0403 21:40:45.254640 12450 net.cpp:425] inception_4a/relu_1x1 <- inception_4a/1x1
I0403 21:40:45.254657 12450 net.cpp:386] inception_4a/relu_1x1 -> inception_4a/1x1 (in-place)
I0403 21:40:45.254830 12450 net.cpp:141] Setting up inception_4a/relu_1x1
I0403 21:40:45.254855 12450 net.cpp:148] Top shape: 24 192 14 14 (903168)
I0403 21:40:45.254869 12450 net.cpp:156] Memory required for data: 861623328
I0403 21:40:45.254884 12450 layer_factory.hpp:77] Creating layer inception_4a/3x3_reduce
I0403 21:40:45.254906 12450 net.cpp:91] Creating Layer inception_4a/3x3_reduce
I0403 21:40:45.254923 12450 net.cpp:425] inception_4a/3x3_reduce <- pool3/3x3_s2_pool3/3x3_s2_0_split_1
I0403 21:40:45.254945 12450 net.cpp:399] inception_4a/3x3_reduce -> inception_4a/3x3_reduce
I0403 21:40:45.256162 12450 net.cpp:141] Setting up inception_4a/3x3_reduce
I0403 21:40:45.256189 12450 net.cpp:148] Top shape: 24 96 14 14 (451584)
I0403 21:40:45.256206 12450 net.cpp:156] Memory required for data: 863429664
I0403 21:40:45.256234 12450 layer_factory.hpp:77] Creating layer inception_4a/relu_3x3_reduce
I0403 21:40:45.256254 12450 net.cpp:91] Creating Layer inception_4a/relu_3x3_reduce
I0403 21:40:45.256271 12450 net.cpp:425] inception_4a/relu_3x3_reduce <- inception_4a/3x3_reduce
I0403 21:40:45.256290 12450 net.cpp:386] inception_4a/relu_3x3_reduce -> inception_4a/3x3_reduce (in-place)
I0403 21:40:45.256458 12450 net.cpp:141] Setting up inception_4a/relu_3x3_reduce
I0403 21:40:45.256484 12450 net.cpp:148] Top shape: 24 96 14 14 (451584)
I0403 21:40:45.256497 12450 net.cpp:156] Memory required for data: 865236000
I0403 21:40:45.256511 12450 layer_factory.hpp:77] Creating layer inception_4a/3x3
I0403 21:40:45.256532 12450 net.cpp:91] Creating Layer inception_4a/3x3
I0403 21:40:45.256551 12450 net.cpp:425] inception_4a/3x3 <- inception_4a/3x3_reduce
I0403 21:40:45.256572 12450 net.cpp:399] inception_4a/3x3 -> inception_4a/3x3
I0403 21:40:45.259229 12450 net.cpp:141] Setting up inception_4a/3x3
I0403 21:40:45.259258 12450 net.cpp:148] Top shape: 24 208 14 14 (978432)
I0403 21:40:45.259273 12450 net.cpp:156] Memory required for data: 869149728
I0403 21:40:45.259290 12450 layer_factory.hpp:77] Creating layer inception_4a/relu_3x3
I0403 21:40:45.259310 12450 net.cpp:91] Creating Layer inception_4a/relu_3x3
I0403 21:40:45.259327 12450 net.cpp:425] inception_4a/relu_3x3 <- inception_4a/3x3
I0403 21:40:45.259344 12450 net.cpp:386] inception_4a/relu_3x3 -> inception_4a/3x3 (in-place)
I0403 21:40:45.259621 12450 net.cpp:141] Setting up inception_4a/relu_3x3
I0403 21:40:45.259646 12450 net.cpp:148] Top shape: 24 208 14 14 (978432)
I0403 21:40:45.259661 12450 net.cpp:156] Memory required for data: 873063456
I0403 21:40:45.259676 12450 layer_factory.hpp:77] Creating layer inception_4a/5x5_reduce
I0403 21:40:45.259698 12450 net.cpp:91] Creating Layer inception_4a/5x5_reduce
I0403 21:40:45.259716 12450 net.cpp:425] inception_4a/5x5_reduce <- pool3/3x3_s2_pool3/3x3_s2_0_split_2
I0403 21:40:45.259737 12450 net.cpp:399] inception_4a/5x5_reduce -> inception_4a/5x5_reduce
I0403 21:40:45.260730 12450 net.cpp:141] Setting up inception_4a/5x5_reduce
I0403 21:40:45.260756 12450 net.cpp:148] Top shape: 24 16 14 14 (75264)
I0403 21:40:45.260771 12450 net.cpp:156] Memory required for data: 873364512
I0403 21:40:45.260789 12450 layer_factory.hpp:77] Creating layer inception_4a/relu_5x5_reduce
I0403 21:40:45.260810 12450 net.cpp:91] Creating Layer inception_4a/relu_5x5_reduce
I0403 21:40:45.260826 12450 net.cpp:425] inception_4a/relu_5x5_reduce <- inception_4a/5x5_reduce
I0403 21:40:45.260844 12450 net.cpp:386] inception_4a/relu_5x5_reduce -> inception_4a/5x5_reduce (in-place)
I0403 21:40:45.261018 12450 net.cpp:141] Setting up inception_4a/relu_5x5_reduce
I0403 21:40:45.261044 12450 net.cpp:148] Top shape: 24 16 14 14 (75264)
I0403 21:40:45.261059 12450 net.cpp:156] Memory required for data: 873665568
I0403 21:40:45.261075 12450 layer_factory.hpp:77] Creating layer inception_4a/5x5
I0403 21:40:45.261096 12450 net.cpp:91] Creating Layer inception_4a/5x5
I0403 21:40:45.261114 12450 net.cpp:425] inception_4a/5x5 <- inception_4a/5x5_reduce
I0403 21:40:45.261132 12450 net.cpp:399] inception_4a/5x5 -> inception_4a/5x5
I0403 21:40:45.262218 12450 net.cpp:141] Setting up inception_4a/5x5
I0403 21:40:45.262253 12450 net.cpp:148] Top shape: 24 48 14 14 (225792)
I0403 21:40:45.262269 12450 net.cpp:156] Memory required for data: 874568736
I0403 21:40:45.262286 12450 layer_factory.hpp:77] Creating layer inception_4a/relu_5x5
I0403 21:40:45.262303 12450 net.cpp:91] Creating Layer inception_4a/relu_5x5
I0403 21:40:45.262320 12450 net.cpp:425] inception_4a/relu_5x5 <- inception_4a/5x5
I0403 21:40:45.262338 12450 net.cpp:386] inception_4a/relu_5x5 -> inception_4a/5x5 (in-place)
I0403 21:40:45.262512 12450 net.cpp:141] Setting up inception_4a/relu_5x5
I0403 21:40:45.262537 12450 net.cpp:148] Top shape: 24 48 14 14 (225792)
I0403 21:40:45.262552 12450 net.cpp:156] Memory required for data: 875471904
I0403 21:40:45.262565 12450 layer_factory.hpp:77] Creating layer inception_4a/pool
I0403 21:40:45.262586 12450 net.cpp:91] Creating Layer inception_4a/pool
I0403 21:40:45.262603 12450 net.cpp:425] inception_4a/pool <- pool3/3x3_s2_pool3/3x3_s2_0_split_3
I0403 21:40:45.262620 12450 net.cpp:399] inception_4a/pool -> inception_4a/pool
I0403 21:40:45.262679 12450 net.cpp:141] Setting up inception_4a/pool
I0403 21:40:45.262703 12450 net.cpp:148] Top shape: 24 480 14 14 (2257920)
I0403 21:40:45.262718 12450 net.cpp:156] Memory required for data: 884503584
I0403 21:40:45.262733 12450 layer_factory.hpp:77] Creating layer inception_4a/pool_proj
I0403 21:40:45.262754 12450 net.cpp:91] Creating Layer inception_4a/pool_proj
I0403 21:40:45.262773 12450 net.cpp:425] inception_4a/pool_proj <- inception_4a/pool
I0403 21:40:45.262794 12450 net.cpp:399] inception_4a/pool_proj -> inception_4a/pool_proj
I0403 21:40:45.263912 12450 net.cpp:141] Setting up inception_4a/pool_proj
I0403 21:40:45.263942 12450 net.cpp:148] Top shape: 24 64 14 14 (301056)
I0403 21:40:45.263970 12450 net.cpp:156] Memory required for data: 885707808
I0403 21:40:45.263989 12450 layer_factory.hpp:77] Creating layer inception_4a/relu_pool_proj
I0403 21:40:45.264006 12450 net.cpp:91] Creating Layer inception_4a/relu_pool_proj
I0403 21:40:45.264022 12450 net.cpp:425] inception_4a/relu_pool_proj <- inception_4a/pool_proj
I0403 21:40:45.264042 12450 net.cpp:386] inception_4a/relu_pool_proj -> inception_4a/pool_proj (in-place)
I0403 21:40:45.264320 12450 net.cpp:141] Setting up inception_4a/relu_pool_proj
I0403 21:40:45.264346 12450 net.cpp:148] Top shape: 24 64 14 14 (301056)
I0403 21:40:45.264361 12450 net.cpp:156] Memory required for data: 886912032
I0403 21:40:45.264375 12450 layer_factory.hpp:77] Creating layer inception_4a/output
I0403 21:40:45.264392 12450 net.cpp:91] Creating Layer inception_4a/output
I0403 21:40:45.264408 12450 net.cpp:425] inception_4a/output <- inception_4a/1x1
I0403 21:40:45.264425 12450 net.cpp:425] inception_4a/output <- inception_4a/3x3
I0403 21:40:45.264441 12450 net.cpp:425] inception_4a/output <- inception_4a/5x5
I0403 21:40:45.264456 12450 net.cpp:425] inception_4a/output <- inception_4a/pool_proj
I0403 21:40:45.264474 12450 net.cpp:399] inception_4a/output -> inception_4a/output
I0403 21:40:45.264518 12450 net.cpp:141] Setting up inception_4a/output
I0403 21:40:45.264544 12450 net.cpp:148] Top shape: 24 512 14 14 (2408448)
I0403 21:40:45.264559 12450 net.cpp:156] Memory required for data: 896545824
I0403 21:40:45.264575 12450 layer_factory.hpp:77] Creating layer inception_4a/output_inception_4a/output_0_split
I0403 21:40:45.264591 12450 net.cpp:91] Creating Layer inception_4a/output_inception_4a/output_0_split
I0403 21:40:45.264606 12450 net.cpp:425] inception_4a/output_inception_4a/output_0_split <- inception_4a/output
I0403 21:40:45.264623 12450 net.cpp:399] inception_4a/output_inception_4a/output_0_split -> inception_4a/output_inception_4a/output_0_split_0
I0403 21:40:45.264645 12450 net.cpp:399] inception_4a/output_inception_4a/output_0_split -> inception_4a/output_inception_4a/output_0_split_1
I0403 21:40:45.264667 12450 net.cpp:399] inception_4a/output_inception_4a/output_0_split -> inception_4a/output_inception_4a/output_0_split_2
I0403 21:40:45.264686 12450 net.cpp:399] inception_4a/output_inception_4a/output_0_split -> inception_4a/output_inception_4a/output_0_split_3
I0403 21:40:45.264705 12450 net.cpp:399] inception_4a/output_inception_4a/output_0_split -> inception_4a/output_inception_4a/output_0_split_4
I0403 21:40:45.264798 12450 net.cpp:141] Setting up inception_4a/output_inception_4a/output_0_split
I0403 21:40:45.264821 12450 net.cpp:148] Top shape: 24 512 14 14 (2408448)
I0403 21:40:45.264837 12450 net.cpp:148] Top shape: 24 512 14 14 (2408448)
I0403 21:40:45.264856 12450 net.cpp:148] Top shape: 24 512 14 14 (2408448)
I0403 21:40:45.264873 12450 net.cpp:148] Top shape: 24 512 14 14 (2408448)
I0403 21:40:45.264889 12450 net.cpp:148] Top shape: 24 512 14 14 (2408448)
I0403 21:40:45.264901 12450 net.cpp:156] Memory required for data: 944714784
I0403 21:40:45.264915 12450 layer_factory.hpp:77] Creating layer loss1/ave_pool
I0403 21:40:45.264932 12450 net.cpp:91] Creating Layer loss1/ave_pool
I0403 21:40:45.264948 12450 net.cpp:425] loss1/ave_pool <- inception_4a/output_inception_4a/output_0_split_0
I0403 21:40:45.264966 12450 net.cpp:399] loss1/ave_pool -> loss1/ave_pool
I0403 21:40:45.265167 12450 net.cpp:141] Setting up loss1/ave_pool
I0403 21:40:45.265192 12450 net.cpp:148] Top shape: 24 512 4 4 (196608)
I0403 21:40:45.265208 12450 net.cpp:156] Memory required for data: 945501216
I0403 21:40:45.265228 12450 layer_factory.hpp:77] Creating layer loss1/conv
I0403 21:40:45.265250 12450 net.cpp:91] Creating Layer loss1/conv
I0403 21:40:45.265269 12450 net.cpp:425] loss1/conv <- loss1/ave_pool
I0403 21:40:45.265301 12450 net.cpp:399] loss1/conv -> loss1/conv
I0403 21:40:45.266703 12450 net.cpp:141] Setting up loss1/conv
I0403 21:40:45.266729 12450 net.cpp:148] Top shape: 24 128 4 4 (49152)
I0403 21:40:45.266744 12450 net.cpp:156] Memory required for data: 945697824
I0403 21:40:45.266777 12450 layer_factory.hpp:77] Creating layer loss1/relu_conv
I0403 21:40:45.266798 12450 net.cpp:91] Creating Layer loss1/relu_conv
I0403 21:40:45.266815 12450 net.cpp:425] loss1/relu_conv <- loss1/conv
I0403 21:40:45.266834 12450 net.cpp:386] loss1/relu_conv -> loss1/conv (in-place)
I0403 21:40:45.267096 12450 net.cpp:141] Setting up loss1/relu_conv
I0403 21:40:45.267120 12450 net.cpp:148] Top shape: 24 128 4 4 (49152)
I0403 21:40:45.267135 12450 net.cpp:156] Memory required for data: 945894432
I0403 21:40:45.267149 12450 layer_factory.hpp:77] Creating layer loss1/fc
I0403 21:40:45.267175 12450 net.cpp:91] Creating Layer loss1/fc
I0403 21:40:45.267194 12450 net.cpp:425] loss1/fc <- loss1/conv
I0403 21:40:45.267215 12450 net.cpp:399] loss1/fc -> loss1/fc
I0403 21:40:45.284517 12450 net.cpp:141] Setting up loss1/fc
I0403 21:40:45.284548 12450 net.cpp:148] Top shape: 24 1024 (24576)
I0403 21:40:45.284562 12450 net.cpp:156] Memory required for data: 945992736
I0403 21:40:45.284580 12450 layer_factory.hpp:77] Creating layer loss1/relu_fc
I0403 21:40:45.284597 12450 net.cpp:91] Creating Layer loss1/relu_fc
I0403 21:40:45.284613 12450 net.cpp:425] loss1/relu_fc <- loss1/fc
I0403 21:40:45.284632 12450 net.cpp:386] loss1/relu_fc -> loss1/fc (in-place)
I0403 21:40:45.284824 12450 net.cpp:141] Setting up loss1/relu_fc
I0403 21:40:45.284849 12450 net.cpp:148] Top shape: 24 1024 (24576)
I0403 21:40:45.284863 12450 net.cpp:156] Memory required for data: 946091040
I0403 21:40:45.284878 12450 layer_factory.hpp:77] Creating layer loss1/drop_fc
I0403 21:40:45.284906 12450 net.cpp:91] Creating Layer loss1/drop_fc
I0403 21:40:45.284924 12450 net.cpp:425] loss1/drop_fc <- loss1/fc
I0403 21:40:45.284942 12450 net.cpp:386] loss1/drop_fc -> loss1/fc (in-place)
I0403 21:40:45.284992 12450 net.cpp:141] Setting up loss1/drop_fc
I0403 21:40:45.285018 12450 net.cpp:148] Top shape: 24 1024 (24576)
I0403 21:40:45.285034 12450 net.cpp:156] Memory required for data: 946189344
I0403 21:40:45.285050 12450 layer_factory.hpp:77] Creating layer loss1/classifier_plantvillage
I0403 21:40:45.285068 12450 net.cpp:91] Creating Layer loss1/classifier_plantvillage
I0403 21:40:45.285084 12450 net.cpp:425] loss1/classifier_plantvillage <- loss1/fc
I0403 21:40:45.285104 12450 net.cpp:399] loss1/classifier_plantvillage -> loss1/classifier_plantvillage
I0403 21:40:45.286018 12450 net.cpp:141] Setting up loss1/classifier_plantvillage
I0403 21:40:45.286046 12450 net.cpp:148] Top shape: 24 38 (912)
I0403 21:40:45.286062 12450 net.cpp:156] Memory required for data: 946192992
I0403 21:40:45.286079 12450 layer_factory.hpp:77] Creating layer loss1/classifier_plantvillage_loss1/classifier_plantvillage_0_split
I0403 21:40:45.286099 12450 net.cpp:91] Creating Layer loss1/classifier_plantvillage_loss1/classifier_plantvillage_0_split
I0403 21:40:45.286115 12450 net.cpp:425] loss1/classifier_plantvillage_loss1/classifier_plantvillage_0_split <- loss1/classifier_plantvillage
I0403 21:40:45.286133 12450 net.cpp:399] loss1/classifier_plantvillage_loss1/classifier_plantvillage_0_split -> loss1/classifier_plantvillage_loss1/classifier_plantvillage_0_split_0
I0403 21:40:45.286152 12450 net.cpp:399] loss1/classifier_plantvillage_loss1/classifier_plantvillage_0_split -> loss1/classifier_plantvillage_loss1/classifier_plantvillage_0_split_1
I0403 21:40:45.286172 12450 net.cpp:399] loss1/classifier_plantvillage_loss1/classifier_plantvillage_0_split -> loss1/classifier_plantvillage_loss1/classifier_plantvillage_0_split_2
I0403 21:40:45.286242 12450 net.cpp:141] Setting up loss1/classifier_plantvillage_loss1/classifier_plantvillage_0_split
I0403 21:40:45.286268 12450 net.cpp:148] Top shape: 24 38 (912)
I0403 21:40:45.286285 12450 net.cpp:148] Top shape: 24 38 (912)
I0403 21:40:45.286301 12450 net.cpp:148] Top shape: 24 38 (912)
I0403 21:40:45.286315 12450 net.cpp:156] Memory required for data: 946203936
I0403 21:40:45.286329 12450 layer_factory.hpp:77] Creating layer inception_4b/1x1
I0403 21:40:45.286350 12450 net.cpp:91] Creating Layer inception_4b/1x1
I0403 21:40:45.286381 12450 net.cpp:425] inception_4b/1x1 <- inception_4a/output_inception_4a/output_0_split_1
I0403 21:40:45.286404 12450 net.cpp:399] inception_4b/1x1 -> inception_4b/1x1
I0403 21:40:45.287984 12450 net.cpp:141] Setting up inception_4b/1x1
I0403 21:40:45.288012 12450 net.cpp:148] Top shape: 24 160 14 14 (752640)
I0403 21:40:45.288028 12450 net.cpp:156] Memory required for data: 949214496
I0403 21:40:45.288046 12450 layer_factory.hpp:77] Creating layer inception_4b/relu_1x1
I0403 21:40:45.288066 12450 net.cpp:91] Creating Layer inception_4b/relu_1x1
I0403 21:40:45.288082 12450 net.cpp:425] inception_4b/relu_1x1 <- inception_4b/1x1
I0403 21:40:45.288100 12450 net.cpp:386] inception_4b/relu_1x1 -> inception_4b/1x1 (in-place)
I0403 21:40:45.288282 12450 net.cpp:141] Setting up inception_4b/relu_1x1
I0403 21:40:45.288311 12450 net.cpp:148] Top shape: 24 160 14 14 (752640)
I0403 21:40:45.288326 12450 net.cpp:156] Memory required for data: 952225056
I0403 21:40:45.288341 12450 layer_factory.hpp:77] Creating layer inception_4b/3x3_reduce
I0403 21:40:45.288362 12450 net.cpp:91] Creating Layer inception_4b/3x3_reduce
I0403 21:40:45.288378 12450 net.cpp:425] inception_4b/3x3_reduce <- inception_4a/output_inception_4a/output_0_split_2
I0403 21:40:45.288398 12450 net.cpp:399] inception_4b/3x3_reduce -> inception_4b/3x3_reduce
I0403 21:40:45.289703 12450 net.cpp:141] Setting up inception_4b/3x3_reduce
I0403 21:40:45.289734 12450 net.cpp:148] Top shape: 24 112 14 14 (526848)
I0403 21:40:45.289752 12450 net.cpp:156] Memory required for data: 954332448
I0403 21:40:45.289770 12450 layer_factory.hpp:77] Creating layer inception_4b/relu_3x3_reduce
I0403 21:40:45.289788 12450 net.cpp:91] Creating Layer inception_4b/relu_3x3_reduce
I0403 21:40:45.289803 12450 net.cpp:425] inception_4b/relu_3x3_reduce <- inception_4b/3x3_reduce
I0403 21:40:45.289824 12450 net.cpp:386] inception_4b/relu_3x3_reduce -> inception_4b/3x3_reduce (in-place)
I0403 21:40:45.290094 12450 net.cpp:141] Setting up inception_4b/relu_3x3_reduce
I0403 21:40:45.290122 12450 net.cpp:148] Top shape: 24 112 14 14 (526848)
I0403 21:40:45.290138 12450 net.cpp:156] Memory required for data: 956439840
I0403 21:40:45.290153 12450 layer_factory.hpp:77] Creating layer inception_4b/3x3
I0403 21:40:45.290174 12450 net.cpp:91] Creating Layer inception_4b/3x3
I0403 21:40:45.290191 12450 net.cpp:425] inception_4b/3x3 <- inception_4b/3x3_reduce
I0403 21:40:45.290215 12450 net.cpp:399] inception_4b/3x3 -> inception_4b/3x3
I0403 21:40:45.293139 12450 net.cpp:141] Setting up inception_4b/3x3
I0403 21:40:45.293167 12450 net.cpp:148] Top shape: 24 224 14 14 (1053696)
I0403 21:40:45.293184 12450 net.cpp:156] Memory required for data: 960654624
I0403 21:40:45.293201 12450 layer_factory.hpp:77] Creating layer inception_4b/relu_3x3
I0403 21:40:45.293227 12450 net.cpp:91] Creating Layer inception_4b/relu_3x3
I0403 21:40:45.293246 12450 net.cpp:425] inception_4b/relu_3x3 <- inception_4b/3x3
I0403 21:40:45.293263 12450 net.cpp:386] inception_4b/relu_3x3 -> inception_4b/3x3 (in-place)
I0403 21:40:45.293439 12450 net.cpp:141] Setting up inception_4b/relu_3x3
I0403 21:40:45.293464 12450 net.cpp:148] Top shape: 24 224 14 14 (1053696)
I0403 21:40:45.293478 12450 net.cpp:156] Memory required for data: 964869408
I0403 21:40:45.293493 12450 layer_factory.hpp:77] Creating layer inception_4b/5x5_reduce
I0403 21:40:45.293515 12450 net.cpp:91] Creating Layer inception_4b/5x5_reduce
I0403 21:40:45.293535 12450 net.cpp:425] inception_4b/5x5_reduce <- inception_4a/output_inception_4a/output_0_split_3
I0403 21:40:45.293555 12450 net.cpp:399] inception_4b/5x5_reduce -> inception_4b/5x5_reduce
I0403 21:40:45.294610 12450 net.cpp:141] Setting up inception_4b/5x5_reduce
I0403 21:40:45.294636 12450 net.cpp:148] Top shape: 24 24 14 14 (112896)
I0403 21:40:45.294651 12450 net.cpp:156] Memory required for data: 965320992
I0403 21:40:45.294669 12450 layer_factory.hpp:77] Creating layer inception_4b/relu_5x5_reduce
I0403 21:40:45.294690 12450 net.cpp:91] Creating Layer inception_4b/relu_5x5_reduce
I0403 21:40:45.294721 12450 net.cpp:425] inception_4b/relu_5x5_reduce <- inception_4b/5x5_reduce
I0403 21:40:45.294739 12450 net.cpp:386] inception_4b/relu_5x5_reduce -> inception_4b/5x5_reduce (in-place)
I0403 21:40:45.294916 12450 net.cpp:141] Setting up inception_4b/relu_5x5_reduce
I0403 21:40:45.294941 12450 net.cpp:148] Top shape: 24 24 14 14 (112896)
I0403 21:40:45.294955 12450 net.cpp:156] Memory required for data: 965772576
I0403 21:40:45.294970 12450 layer_factory.hpp:77] Creating layer inception_4b/5x5
I0403 21:40:45.294991 12450 net.cpp:91] Creating Layer inception_4b/5x5
I0403 21:40:45.295009 12450 net.cpp:425] inception_4b/5x5 <- inception_4b/5x5_reduce
I0403 21:40:45.295029 12450 net.cpp:399] inception_4b/5x5 -> inception_4b/5x5
I0403 21:40:45.296221 12450 net.cpp:141] Setting up inception_4b/5x5
I0403 21:40:45.296247 12450 net.cpp:148] Top shape: 24 64 14 14 (301056)
I0403 21:40:45.296262 12450 net.cpp:156] Memory required for data: 966976800
I0403 21:40:45.296282 12450 layer_factory.hpp:77] Creating layer inception_4b/relu_5x5
I0403 21:40:45.296305 12450 net.cpp:91] Creating Layer inception_4b/relu_5x5
I0403 21:40:45.296324 12450 net.cpp:425] inception_4b/relu_5x5 <- inception_4b/5x5
I0403 21:40:45.296340 12450 net.cpp:386] inception_4b/relu_5x5 -> inception_4b/5x5 (in-place)
I0403 21:40:45.296615 12450 net.cpp:141] Setting up inception_4b/relu_5x5
I0403 21:40:45.296640 12450 net.cpp:148] Top shape: 24 64 14 14 (301056)
I0403 21:40:45.296656 12450 net.cpp:156] Memory required for data: 968181024
I0403 21:40:45.296671 12450 layer_factory.hpp:77] Creating layer inception_4b/pool
I0403 21:40:45.296691 12450 net.cpp:91] Creating Layer inception_4b/pool
I0403 21:40:45.296707 12450 net.cpp:425] inception_4b/pool <- inception_4a/output_inception_4a/output_0_split_4
I0403 21:40:45.296725 12450 net.cpp:399] inception_4b/pool -> inception_4b/pool
I0403 21:40:45.296790 12450 net.cpp:141] Setting up inception_4b/pool
I0403 21:40:45.296813 12450 net.cpp:148] Top shape: 24 512 14 14 (2408448)
I0403 21:40:45.296828 12450 net.cpp:156] Memory required for data: 977814816
I0403 21:40:45.296844 12450 layer_factory.hpp:77] Creating layer inception_4b/pool_proj
I0403 21:40:45.296865 12450 net.cpp:91] Creating Layer inception_4b/pool_proj
I0403 21:40:45.296882 12450 net.cpp:425] inception_4b/pool_proj <- inception_4b/pool
I0403 21:40:45.296902 12450 net.cpp:399] inception_4b/pool_proj -> inception_4b/pool_proj
I0403 21:40:45.298141 12450 net.cpp:141] Setting up inception_4b/pool_proj
I0403 21:40:45.298171 12450 net.cpp:148] Top shape: 24 64 14 14 (301056)
I0403 21:40:45.298188 12450 net.cpp:156] Memory required for data: 979019040
I0403 21:40:45.298207 12450 layer_factory.hpp:77] Creating layer inception_4b/relu_pool_proj
I0403 21:40:45.298231 12450 net.cpp:91] Creating Layer inception_4b/relu_pool_proj
I0403 21:40:45.298249 12450 net.cpp:425] inception_4b/relu_pool_proj <- inception_4b/pool_proj
I0403 21:40:45.298265 12450 net.cpp:386] inception_4b/relu_pool_proj -> inception_4b/pool_proj (in-place)
I0403 21:40:45.298447 12450 net.cpp:141] Setting up inception_4b/relu_pool_proj
I0403 21:40:45.298475 12450 net.cpp:148] Top shape: 24 64 14 14 (301056)
I0403 21:40:45.298491 12450 net.cpp:156] Memory required for data: 980223264
I0403 21:40:45.298506 12450 layer_factory.hpp:77] Creating layer inception_4b/output
I0403 21:40:45.298522 12450 net.cpp:91] Creating Layer inception_4b/output
I0403 21:40:45.298537 12450 net.cpp:425] inception_4b/output <- inception_4b/1x1
I0403 21:40:45.298554 12450 net.cpp:425] inception_4b/output <- inception_4b/3x3
I0403 21:40:45.298570 12450 net.cpp:425] inception_4b/output <- inception_4b/5x5
I0403 21:40:45.298586 12450 net.cpp:425] inception_4b/output <- inception_4b/pool_proj
I0403 21:40:45.298605 12450 net.cpp:399] inception_4b/output -> inception_4b/output
I0403 21:40:45.298650 12450 net.cpp:141] Setting up inception_4b/output
I0403 21:40:45.298673 12450 net.cpp:148] Top shape: 24 512 14 14 (2408448)
I0403 21:40:45.298688 12450 net.cpp:156] Memory required for data: 989857056
I0403 21:40:45.298717 12450 layer_factory.hpp:77] Creating layer inception_4b/output_inception_4b/output_0_split
I0403 21:40:45.298738 12450 net.cpp:91] Creating Layer inception_4b/output_inception_4b/output_0_split
I0403 21:40:45.298754 12450 net.cpp:425] inception_4b/output_inception_4b/output_0_split <- inception_4b/output
I0403 21:40:45.298773 12450 net.cpp:399] inception_4b/output_inception_4b/output_0_split -> inception_4b/output_inception_4b/output_0_split_0
I0403 21:40:45.298795 12450 net.cpp:399] inception_4b/output_inception_4b/output_0_split -> inception_4b/output_inception_4b/output_0_split_1
I0403 21:40:45.298816 12450 net.cpp:399] inception_4b/output_inception_4b/output_0_split -> inception_4b/output_inception_4b/output_0_split_2
I0403 21:40:45.298837 12450 net.cpp:399] inception_4b/output_inception_4b/output_0_split -> inception_4b/output_inception_4b/output_0_split_3
I0403 21:40:45.298924 12450 net.cpp:141] Setting up inception_4b/output_inception_4b/output_0_split
I0403 21:40:45.298949 12450 net.cpp:148] Top shape: 24 512 14 14 (2408448)
I0403 21:40:45.298965 12450 net.cpp:148] Top shape: 24 512 14 14 (2408448)
I0403 21:40:45.298981 12450 net.cpp:148] Top shape: 24 512 14 14 (2408448)
I0403 21:40:45.298997 12450 net.cpp:148] Top shape: 24 512 14 14 (2408448)
I0403 21:40:45.299010 12450 net.cpp:156] Memory required for data: 1028392224
I0403 21:40:45.299026 12450 layer_factory.hpp:77] Creating layer inception_4c/1x1
I0403 21:40:45.299048 12450 net.cpp:91] Creating Layer inception_4c/1x1
I0403 21:40:45.299065 12450 net.cpp:425] inception_4c/1x1 <- inception_4b/output_inception_4b/output_0_split_0
I0403 21:40:45.299088 12450 net.cpp:399] inception_4c/1x1 -> inception_4c/1x1
I0403 21:40:45.300532 12450 net.cpp:141] Setting up inception_4c/1x1
I0403 21:40:45.300560 12450 net.cpp:148] Top shape: 24 128 14 14 (602112)
I0403 21:40:45.300576 12450 net.cpp:156] Memory required for data: 1030800672
I0403 21:40:45.300595 12450 layer_factory.hpp:77] Creating layer inception_4c/relu_1x1
I0403 21:40:45.300613 12450 net.cpp:91] Creating Layer inception_4c/relu_1x1
I0403 21:40:45.300629 12450 net.cpp:425] inception_4c/relu_1x1 <- inception_4c/1x1
I0403 21:40:45.300649 12450 net.cpp:386] inception_4c/relu_1x1 -> inception_4c/1x1 (in-place)
I0403 21:40:45.300830 12450 net.cpp:141] Setting up inception_4c/relu_1x1
I0403 21:40:45.300855 12450 net.cpp:148] Top shape: 24 128 14 14 (602112)
I0403 21:40:45.300870 12450 net.cpp:156] Memory required for data: 1033209120
I0403 21:40:45.300885 12450 layer_factory.hpp:77] Creating layer inception_4c/3x3_reduce
I0403 21:40:45.300907 12450 net.cpp:91] Creating Layer inception_4c/3x3_reduce
I0403 21:40:45.300925 12450 net.cpp:425] inception_4c/3x3_reduce <- inception_4b/output_inception_4b/output_0_split_1
I0403 21:40:45.300947 12450 net.cpp:399] inception_4c/3x3_reduce -> inception_4c/3x3_reduce
I0403 21:40:45.302978 12450 net.cpp:141] Setting up inception_4c/3x3_reduce
I0403 21:40:45.303007 12450 net.cpp:148] Top shape: 24 128 14 14 (602112)
I0403 21:40:45.303023 12450 net.cpp:156] Memory required for data: 1035617568
I0403 21:40:45.303041 12450 layer_factory.hpp:77] Creating layer inception_4c/relu_3x3_reduce
I0403 21:40:45.303061 12450 net.cpp:91] Creating Layer inception_4c/relu_3x3_reduce
I0403 21:40:45.303079 12450 net.cpp:425] inception_4c/relu_3x3_reduce <- inception_4c/3x3_reduce
I0403 21:40:45.303097 12450 net.cpp:386] inception_4c/relu_3x3_reduce -> inception_4c/3x3_reduce (in-place)
I0403 21:40:45.303387 12450 net.cpp:141] Setting up inception_4c/relu_3x3_reduce
I0403 21:40:45.303414 12450 net.cpp:148] Top shape: 24 128 14 14 (602112)
I0403 21:40:45.303429 12450 net.cpp:156] Memory required for data: 1038026016
I0403 21:40:45.303444 12450 layer_factory.hpp:77] Creating layer inception_4c/3x3
I0403 21:40:45.303467 12450 net.cpp:91] Creating Layer inception_4c/3x3
I0403 21:40:45.303484 12450 net.cpp:425] inception_4c/3x3 <- inception_4c/3x3_reduce
I0403 21:40:45.303508 12450 net.cpp:399] inception_4c/3x3 -> inception_4c/3x3
I0403 21:40:45.307160 12450 net.cpp:141] Setting up inception_4c/3x3
I0403 21:40:45.307204 12450 net.cpp:148] Top shape: 24 256 14 14 (1204224)
I0403 21:40:45.307227 12450 net.cpp:156] Memory required for data: 1042842912
I0403 21:40:45.307260 12450 layer_factory.hpp:77] Creating layer inception_4c/relu_3x3
I0403 21:40:45.307281 12450 net.cpp:91] Creating Layer inception_4c/relu_3x3
I0403 21:40:45.307299 12450 net.cpp:425] inception_4c/relu_3x3 <- inception_4c/3x3
I0403 21:40:45.307317 12450 net.cpp:386] inception_4c/relu_3x3 -> inception_4c/3x3 (in-place)
I0403 21:40:45.307504 12450 net.cpp:141] Setting up inception_4c/relu_3x3
I0403 21:40:45.307529 12450 net.cpp:148] Top shape: 24 256 14 14 (1204224)
I0403 21:40:45.307544 12450 net.cpp:156] Memory required for data: 1047659808
I0403 21:40:45.307559 12450 layer_factory.hpp:77] Creating layer inception_4c/5x5_reduce
I0403 21:40:45.307585 12450 net.cpp:91] Creating Layer inception_4c/5x5_reduce
I0403 21:40:45.307603 12450 net.cpp:425] inception_4c/5x5_reduce <- inception_4b/output_inception_4b/output_0_split_2
I0403 21:40:45.307622 12450 net.cpp:399] inception_4c/5x5_reduce -> inception_4c/5x5_reduce
I0403 21:40:45.308717 12450 net.cpp:141] Setting up inception_4c/5x5_reduce
I0403 21:40:45.308745 12450 net.cpp:148] Top shape: 24 24 14 14 (112896)
I0403 21:40:45.308761 12450 net.cpp:156] Memory required for data: 1048111392
I0403 21:40:45.308781 12450 layer_factory.hpp:77] Creating layer inception_4c/relu_5x5_reduce
I0403 21:40:45.308801 12450 net.cpp:91] Creating Layer inception_4c/relu_5x5_reduce
I0403 21:40:45.308820 12450 net.cpp:425] inception_4c/relu_5x5_reduce <- inception_4c/5x5_reduce
I0403 21:40:45.308837 12450 net.cpp:386] inception_4c/relu_5x5_reduce -> inception_4c/5x5_reduce (in-place)
I0403 21:40:45.309023 12450 net.cpp:141] Setting up inception_4c/relu_5x5_reduce
I0403 21:40:45.309048 12450 net.cpp:148] Top shape: 24 24 14 14 (112896)
I0403 21:40:45.309063 12450 net.cpp:156] Memory required for data: 1048562976
I0403 21:40:45.309079 12450 layer_factory.hpp:77] Creating layer inception_4c/5x5
I0403 21:40:45.309101 12450 net.cpp:91] Creating Layer inception_4c/5x5
I0403 21:40:45.309120 12450 net.cpp:425] inception_4c/5x5 <- inception_4c/5x5_reduce
I0403 21:40:45.309142 12450 net.cpp:399] inception_4c/5x5 -> inception_4c/5x5
I0403 21:40:45.310427 12450 net.cpp:141] Setting up inception_4c/5x5
I0403 21:40:45.310457 12450 net.cpp:148] Top shape: 24 64 14 14 (301056)
I0403 21:40:45.310473 12450 net.cpp:156] Memory required for data: 1049767200
I0403 21:40:45.310492 12450 layer_factory.hpp:77] Creating layer inception_4c/relu_5x5
I0403 21:40:45.310510 12450 net.cpp:91] Creating Layer inception_4c/relu_5x5
I0403 21:40:45.310526 12450 net.cpp:425] inception_4c/relu_5x5 <- inception_4c/5x5
I0403 21:40:45.310546 12450 net.cpp:386] inception_4c/relu_5x5 -> inception_4c/5x5 (in-place)
I0403 21:40:45.310835 12450 net.cpp:141] Setting up inception_4c/relu_5x5
I0403 21:40:45.310864 12450 net.cpp:148] Top shape: 24 64 14 14 (301056)
I0403 21:40:45.310880 12450 net.cpp:156] Memory required for data: 1050971424
I0403 21:40:45.310895 12450 layer_factory.hpp:77] Creating layer inception_4c/pool
I0403 21:40:45.310914 12450 net.cpp:91] Creating Layer inception_4c/pool
I0403 21:40:45.310930 12450 net.cpp:425] inception_4c/pool <- inception_4b/output_inception_4b/output_0_split_3
I0403 21:40:45.310951 12450 net.cpp:399] inception_4c/pool -> inception_4c/pool
I0403 21:40:45.311017 12450 net.cpp:141] Setting up inception_4c/pool
I0403 21:40:45.311043 12450 net.cpp:148] Top shape: 24 512 14 14 (2408448)
I0403 21:40:45.311058 12450 net.cpp:156] Memory required for data: 1060605216
I0403 21:40:45.311074 12450 layer_factory.hpp:77] Creating layer inception_4c/pool_proj
I0403 21:40:45.311095 12450 net.cpp:91] Creating Layer inception_4c/pool_proj
I0403 21:40:45.311113 12450 net.cpp:425] inception_4c/pool_proj <- inception_4c/pool
I0403 21:40:45.311132 12450 net.cpp:399] inception_4c/pool_proj -> inception_4c/pool_proj
I0403 21:40:45.312361 12450 net.cpp:141] Setting up inception_4c/pool_proj
I0403 21:40:45.312393 12450 net.cpp:148] Top shape: 24 64 14 14 (301056)
I0403 21:40:45.312423 12450 net.cpp:156] Memory required for data: 1061809440
I0403 21:40:45.312443 12450 layer_factory.hpp:77] Creating layer inception_4c/relu_pool_proj
I0403 21:40:45.312461 12450 net.cpp:91] Creating Layer inception_4c/relu_pool_proj
I0403 21:40:45.312477 12450 net.cpp:425] inception_4c/relu_pool_proj <- inception_4c/pool_proj
I0403 21:40:45.312495 12450 net.cpp:386] inception_4c/relu_pool_proj -> inception_4c/pool_proj (in-place)
I0403 21:40:45.312679 12450 net.cpp:141] Setting up inception_4c/relu_pool_proj
I0403 21:40:45.312705 12450 net.cpp:148] Top shape: 24 64 14 14 (301056)
I0403 21:40:45.312721 12450 net.cpp:156] Memory required for data: 1063013664
I0403 21:40:45.312736 12450 layer_factory.hpp:77] Creating layer inception_4c/output
I0403 21:40:45.312753 12450 net.cpp:91] Creating Layer inception_4c/output
I0403 21:40:45.312769 12450 net.cpp:425] inception_4c/output <- inception_4c/1x1
I0403 21:40:45.312785 12450 net.cpp:425] inception_4c/output <- inception_4c/3x3
I0403 21:40:45.312801 12450 net.cpp:425] inception_4c/output <- inception_4c/5x5
I0403 21:40:45.312816 12450 net.cpp:425] inception_4c/output <- inception_4c/pool_proj
I0403 21:40:45.312835 12450 net.cpp:399] inception_4c/output -> inception_4c/output
I0403 21:40:45.312881 12450 net.cpp:141] Setting up inception_4c/output
I0403 21:40:45.312904 12450 net.cpp:148] Top shape: 24 512 14 14 (2408448)
I0403 21:40:45.312918 12450 net.cpp:156] Memory required for data: 1072647456
I0403 21:40:45.312933 12450 layer_factory.hpp:77] Creating layer inception_4c/output_inception_4c/output_0_split
I0403 21:40:45.312952 12450 net.cpp:91] Creating Layer inception_4c/output_inception_4c/output_0_split
I0403 21:40:45.312968 12450 net.cpp:425] inception_4c/output_inception_4c/output_0_split <- inception_4c/output
I0403 21:40:45.312985 12450 net.cpp:399] inception_4c/output_inception_4c/output_0_split -> inception_4c/output_inception_4c/output_0_split_0
I0403 21:40:45.313005 12450 net.cpp:399] inception_4c/output_inception_4c/output_0_split -> inception_4c/output_inception_4c/output_0_split_1
I0403 21:40:45.313029 12450 net.cpp:399] inception_4c/output_inception_4c/output_0_split -> inception_4c/output_inception_4c/output_0_split_2
I0403 21:40:45.313048 12450 net.cpp:399] inception_4c/output_inception_4c/output_0_split -> inception_4c/output_inception_4c/output_0_split_3
I0403 21:40:45.313133 12450 net.cpp:141] Setting up inception_4c/output_inception_4c/output_0_split
I0403 21:40:45.313155 12450 net.cpp:148] Top shape: 24 512 14 14 (2408448)
I0403 21:40:45.313171 12450 net.cpp:148] Top shape: 24 512 14 14 (2408448)
I0403 21:40:45.313186 12450 net.cpp:148] Top shape: 24 512 14 14 (2408448)
I0403 21:40:45.313202 12450 net.cpp:148] Top shape: 24 512 14 14 (2408448)
I0403 21:40:45.313221 12450 net.cpp:156] Memory required for data: 1111182624
I0403 21:40:45.313236 12450 layer_factory.hpp:77] Creating layer inception_4d/1x1
I0403 21:40:45.313258 12450 net.cpp:91] Creating Layer inception_4d/1x1
I0403 21:40:45.313276 12450 net.cpp:425] inception_4d/1x1 <- inception_4c/output_inception_4c/output_0_split_0
I0403 21:40:45.313309 12450 net.cpp:399] inception_4d/1x1 -> inception_4d/1x1
I0403 21:40:45.314708 12450 net.cpp:141] Setting up inception_4d/1x1
I0403 21:40:45.314736 12450 net.cpp:148] Top shape: 24 112 14 14 (526848)
I0403 21:40:45.314752 12450 net.cpp:156] Memory required for data: 1113290016
I0403 21:40:45.314770 12450 layer_factory.hpp:77] Creating layer inception_4d/relu_1x1
I0403 21:40:45.314791 12450 net.cpp:91] Creating Layer inception_4d/relu_1x1
I0403 21:40:45.314808 12450 net.cpp:425] inception_4d/relu_1x1 <- inception_4d/1x1
I0403 21:40:45.314826 12450 net.cpp:386] inception_4d/relu_1x1 -> inception_4d/1x1 (in-place)
I0403 21:40:45.315014 12450 net.cpp:141] Setting up inception_4d/relu_1x1
I0403 21:40:45.315039 12450 net.cpp:148] Top shape: 24 112 14 14 (526848)
I0403 21:40:45.315054 12450 net.cpp:156] Memory required for data: 1115397408
I0403 21:40:45.315069 12450 layer_factory.hpp:77] Creating layer inception_4d/3x3_reduce
I0403 21:40:45.315109 12450 net.cpp:91] Creating Layer inception_4d/3x3_reduce
I0403 21:40:45.315129 12450 net.cpp:425] inception_4d/3x3_reduce <- inception_4c/output_inception_4c/output_0_split_1
I0403 21:40:45.315148 12450 net.cpp:399] inception_4d/3x3_reduce -> inception_4d/3x3_reduce
I0403 21:40:45.316629 12450 net.cpp:141] Setting up inception_4d/3x3_reduce
I0403 21:40:45.316655 12450 net.cpp:148] Top shape: 24 144 14 14 (677376)
I0403 21:40:45.316670 12450 net.cpp:156] Memory required for data: 1118106912
I0403 21:40:45.316687 12450 layer_factory.hpp:77] Creating layer inception_4d/relu_3x3_reduce
I0403 21:40:45.316704 12450 net.cpp:91] Creating Layer inception_4d/relu_3x3_reduce
I0403 21:40:45.316720 12450 net.cpp:425] inception_4d/relu_3x3_reduce <- inception_4d/3x3_reduce
I0403 21:40:45.316738 12450 net.cpp:386] inception_4d/relu_3x3_reduce -> inception_4d/3x3_reduce (in-place)
I0403 21:40:45.317015 12450 net.cpp:141] Setting up inception_4d/relu_3x3_reduce
I0403 21:40:45.317040 12450 net.cpp:148] Top shape: 24 144 14 14 (677376)
I0403 21:40:45.317054 12450 net.cpp:156] Memory required for data: 1120816416
I0403 21:40:45.317070 12450 layer_factory.hpp:77] Creating layer inception_4d/3x3
I0403 21:40:45.317090 12450 net.cpp:91] Creating Layer inception_4d/3x3
I0403 21:40:45.317107 12450 net.cpp:425] inception_4d/3x3 <- inception_4d/3x3_reduce
I0403 21:40:45.317127 12450 net.cpp:399] inception_4d/3x3 -> inception_4d/3x3
I0403 21:40:45.321225 12450 net.cpp:141] Setting up inception_4d/3x3
I0403 21:40:45.321252 12450 net.cpp:148] Top shape: 24 288 14 14 (1354752)
I0403 21:40:45.321266 12450 net.cpp:156] Memory required for data: 1126235424
I0403 21:40:45.321283 12450 layer_factory.hpp:77] Creating layer inception_4d/relu_3x3
I0403 21:40:45.321302 12450 net.cpp:91] Creating Layer inception_4d/relu_3x3
I0403 21:40:45.321317 12450 net.cpp:425] inception_4d/relu_3x3 <- inception_4d/3x3
I0403 21:40:45.321333 12450 net.cpp:386] inception_4d/relu_3x3 -> inception_4d/3x3 (in-place)
I0403 21:40:45.321506 12450 net.cpp:141] Setting up inception_4d/relu_3x3
I0403 21:40:45.321532 12450 net.cpp:148] Top shape: 24 288 14 14 (1354752)
I0403 21:40:45.321547 12450 net.cpp:156] Memory required for data: 1131654432
I0403 21:40:45.321562 12450 layer_factory.hpp:77] Creating layer inception_4d/5x5_reduce
I0403 21:40:45.321583 12450 net.cpp:91] Creating Layer inception_4d/5x5_reduce
I0403 21:40:45.321599 12450 net.cpp:425] inception_4d/5x5_reduce <- inception_4c/output_inception_4c/output_0_split_2
I0403 21:40:45.321616 12450 net.cpp:399] inception_4d/5x5_reduce -> inception_4d/5x5_reduce
I0403 21:40:45.322710 12450 net.cpp:141] Setting up inception_4d/5x5_reduce
I0403 21:40:45.322736 12450 net.cpp:148] Top shape: 24 32 14 14 (150528)
I0403 21:40:45.322751 12450 net.cpp:156] Memory required for data: 1132256544
I0403 21:40:45.322768 12450 layer_factory.hpp:77] Creating layer inception_4d/relu_5x5_reduce
I0403 21:40:45.322788 12450 net.cpp:91] Creating Layer inception_4d/relu_5x5_reduce
I0403 21:40:45.322803 12450 net.cpp:425] inception_4d/relu_5x5_reduce <- inception_4d/5x5_reduce
I0403 21:40:45.322819 12450 net.cpp:386] inception_4d/relu_5x5_reduce -> inception_4d/5x5_reduce (in-place)
I0403 21:40:45.322998 12450 net.cpp:141] Setting up inception_4d/relu_5x5_reduce
I0403 21:40:45.323020 12450 net.cpp:148] Top shape: 24 32 14 14 (150528)
I0403 21:40:45.323035 12450 net.cpp:156] Memory required for data: 1132858656
I0403 21:40:45.323048 12450 layer_factory.hpp:77] Creating layer inception_4d/5x5
I0403 21:40:45.323071 12450 net.cpp:91] Creating Layer inception_4d/5x5
I0403 21:40:45.323087 12450 net.cpp:425] inception_4d/5x5 <- inception_4d/5x5_reduce
I0403 21:40:45.323104 12450 net.cpp:399] inception_4d/5x5 -> inception_4d/5x5
I0403 21:40:45.324484 12450 net.cpp:141] Setting up inception_4d/5x5
I0403 21:40:45.324512 12450 net.cpp:148] Top shape: 24 64 14 14 (301056)
I0403 21:40:45.324528 12450 net.cpp:156] Memory required for data: 1134062880
I0403 21:40:45.324548 12450 layer_factory.hpp:77] Creating layer inception_4d/relu_5x5
I0403 21:40:45.324579 12450 net.cpp:91] Creating Layer inception_4d/relu_5x5
I0403 21:40:45.324596 12450 net.cpp:425] inception_4d/relu_5x5 <- inception_4d/5x5
I0403 21:40:45.324615 12450 net.cpp:386] inception_4d/relu_5x5 -> inception_4d/5x5 (in-place)
I0403 21:40:45.324900 12450 net.cpp:141] Setting up inception_4d/relu_5x5
I0403 21:40:45.324928 12450 net.cpp:148] Top shape: 24 64 14 14 (301056)
I0403 21:40:45.324942 12450 net.cpp:156] Memory required for data: 1135267104
I0403 21:40:45.324957 12450 layer_factory.hpp:77] Creating layer inception_4d/pool
I0403 21:40:45.324975 12450 net.cpp:91] Creating Layer inception_4d/pool
I0403 21:40:45.324990 12450 net.cpp:425] inception_4d/pool <- inception_4c/output_inception_4c/output_0_split_3
I0403 21:40:45.325011 12450 net.cpp:399] inception_4d/pool -> inception_4d/pool
I0403 21:40:45.325072 12450 net.cpp:141] Setting up inception_4d/pool
I0403 21:40:45.325095 12450 net.cpp:148] Top shape: 24 512 14 14 (2408448)
I0403 21:40:45.325109 12450 net.cpp:156] Memory required for data: 1144900896
I0403 21:40:45.325124 12450 layer_factory.hpp:77] Creating layer inception_4d/pool_proj
I0403 21:40:45.325145 12450 net.cpp:91] Creating Layer inception_4d/pool_proj
I0403 21:40:45.325161 12450 net.cpp:425] inception_4d/pool_proj <- inception_4d/pool
I0403 21:40:45.325181 12450 net.cpp:399] inception_4d/pool_proj -> inception_4d/pool_proj
I0403 21:40:45.326894 12450 net.cpp:141] Setting up inception_4d/pool_proj
I0403 21:40:45.326922 12450 net.cpp:148] Top shape: 24 64 14 14 (301056)
I0403 21:40:45.326936 12450 net.cpp:156] Memory required for data: 1146105120
I0403 21:40:45.326954 12450 layer_factory.hpp:77] Creating layer inception_4d/relu_pool_proj
I0403 21:40:45.326973 12450 net.cpp:91] Creating Layer inception_4d/relu_pool_proj
I0403 21:40:45.326990 12450 net.cpp:425] inception_4d/relu_pool_proj <- inception_4d/pool_proj
I0403 21:40:45.327008 12450 net.cpp:386] inception_4d/relu_pool_proj -> inception_4d/pool_proj (in-place)
I0403 21:40:45.327180 12450 net.cpp:141] Setting up inception_4d/relu_pool_proj
I0403 21:40:45.327206 12450 net.cpp:148] Top shape: 24 64 14 14 (301056)
I0403 21:40:45.327226 12450 net.cpp:156] Memory required for data: 1147309344
I0403 21:40:45.327241 12450 layer_factory.hpp:77] Creating layer inception_4d/output
I0403 21:40:45.327258 12450 net.cpp:91] Creating Layer inception_4d/output
I0403 21:40:45.327272 12450 net.cpp:425] inception_4d/output <- inception_4d/1x1
I0403 21:40:45.327288 12450 net.cpp:425] inception_4d/output <- inception_4d/3x3
I0403 21:40:45.327303 12450 net.cpp:425] inception_4d/output <- inception_4d/5x5
I0403 21:40:45.327319 12450 net.cpp:425] inception_4d/output <- inception_4d/pool_proj
I0403 21:40:45.327335 12450 net.cpp:399] inception_4d/output -> inception_4d/output
I0403 21:40:45.327380 12450 net.cpp:141] Setting up inception_4d/output
I0403 21:40:45.327402 12450 net.cpp:148] Top shape: 24 528 14 14 (2483712)
I0403 21:40:45.327416 12450 net.cpp:156] Memory required for data: 1157244192
I0403 21:40:45.327430 12450 layer_factory.hpp:77] Creating layer inception_4d/output_inception_4d/output_0_split
I0403 21:40:45.327450 12450 net.cpp:91] Creating Layer inception_4d/output_inception_4d/output_0_split
I0403 21:40:45.327466 12450 net.cpp:425] inception_4d/output_inception_4d/output_0_split <- inception_4d/output
I0403 21:40:45.327482 12450 net.cpp:399] inception_4d/output_inception_4d/output_0_split -> inception_4d/output_inception_4d/output_0_split_0
I0403 21:40:45.327502 12450 net.cpp:399] inception_4d/output_inception_4d/output_0_split -> inception_4d/output_inception_4d/output_0_split_1
I0403 21:40:45.327522 12450 net.cpp:399] inception_4d/output_inception_4d/output_0_split -> inception_4d/output_inception_4d/output_0_split_2
I0403 21:40:45.327539 12450 net.cpp:399] inception_4d/output_inception_4d/output_0_split -> inception_4d/output_inception_4d/output_0_split_3
I0403 21:40:45.327560 12450 net.cpp:399] inception_4d/output_inception_4d/output_0_split -> inception_4d/output_inception_4d/output_0_split_4
I0403 21:40:45.327659 12450 net.cpp:141] Setting up inception_4d/output_inception_4d/output_0_split
I0403 21:40:45.327693 12450 net.cpp:148] Top shape: 24 528 14 14 (2483712)
I0403 21:40:45.327710 12450 net.cpp:148] Top shape: 24 528 14 14 (2483712)
I0403 21:40:45.327725 12450 net.cpp:148] Top shape: 24 528 14 14 (2483712)
I0403 21:40:45.327740 12450 net.cpp:148] Top shape: 24 528 14 14 (2483712)
I0403 21:40:45.327755 12450 net.cpp:148] Top shape: 24 528 14 14 (2483712)
I0403 21:40:45.327769 12450 net.cpp:156] Memory required for data: 1206918432
I0403 21:40:45.327783 12450 layer_factory.hpp:77] Creating layer loss2/ave_pool
I0403 21:40:45.327802 12450 net.cpp:91] Creating Layer loss2/ave_pool
I0403 21:40:45.327818 12450 net.cpp:425] loss2/ave_pool <- inception_4d/output_inception_4d/output_0_split_0
I0403 21:40:45.327836 12450 net.cpp:399] loss2/ave_pool -> loss2/ave_pool
I0403 21:40:45.328130 12450 net.cpp:141] Setting up loss2/ave_pool
I0403 21:40:45.328155 12450 net.cpp:148] Top shape: 24 528 4 4 (202752)
I0403 21:40:45.328171 12450 net.cpp:156] Memory required for data: 1207729440
I0403 21:40:45.328184 12450 layer_factory.hpp:77] Creating layer loss2/conv
I0403 21:40:45.328207 12450 net.cpp:91] Creating Layer loss2/conv
I0403 21:40:45.328229 12450 net.cpp:425] loss2/conv <- loss2/ave_pool
I0403 21:40:45.328250 12450 net.cpp:399] loss2/conv -> loss2/conv
I0403 21:40:45.330075 12450 net.cpp:141] Setting up loss2/conv
I0403 21:40:45.330104 12450 net.cpp:148] Top shape: 24 128 4 4 (49152)
I0403 21:40:45.330121 12450 net.cpp:156] Memory required for data: 1207926048
I0403 21:40:45.330139 12450 layer_factory.hpp:77] Creating layer loss2/relu_conv
I0403 21:40:45.330157 12450 net.cpp:91] Creating Layer loss2/relu_conv
I0403 21:40:45.330171 12450 net.cpp:425] loss2/relu_conv <- loss2/conv
I0403 21:40:45.330189 12450 net.cpp:386] loss2/relu_conv -> loss2/conv (in-place)
I0403 21:40:45.330462 12450 net.cpp:141] Setting up loss2/relu_conv
I0403 21:40:45.330489 12450 net.cpp:148] Top shape: 24 128 4 4 (49152)
I0403 21:40:45.330505 12450 net.cpp:156] Memory required for data: 1208122656
I0403 21:40:45.330519 12450 layer_factory.hpp:77] Creating layer loss2/fc
I0403 21:40:45.330538 12450 net.cpp:91] Creating Layer loss2/fc
I0403 21:40:45.330554 12450 net.cpp:425] loss2/fc <- loss2/conv
I0403 21:40:45.330574 12450 net.cpp:399] loss2/fc -> loss2/fc
I0403 21:40:45.348283 12450 net.cpp:141] Setting up loss2/fc
I0403 21:40:45.348327 12450 net.cpp:148] Top shape: 24 1024 (24576)
I0403 21:40:45.348345 12450 net.cpp:156] Memory required for data: 1208220960
I0403 21:40:45.348373 12450 layer_factory.hpp:77] Creating layer loss2/relu_fc
I0403 21:40:45.348390 12450 net.cpp:91] Creating Layer loss2/relu_fc
I0403 21:40:45.348407 12450 net.cpp:425] loss2/relu_fc <- loss2/fc
I0403 21:40:45.348436 12450 net.cpp:386] loss2/relu_fc -> loss2/fc (in-place)
I0403 21:40:45.348755 12450 net.cpp:141] Setting up loss2/relu_fc
I0403 21:40:45.348780 12450 net.cpp:148] Top shape: 24 1024 (24576)
I0403 21:40:45.348794 12450 net.cpp:156] Memory required for data: 1208319264
I0403 21:40:45.348809 12450 layer_factory.hpp:77] Creating layer loss2/drop_fc
I0403 21:40:45.348827 12450 net.cpp:91] Creating Layer loss2/drop_fc
I0403 21:40:45.348844 12450 net.cpp:425] loss2/drop_fc <- loss2/fc
I0403 21:40:45.348860 12450 net.cpp:386] loss2/drop_fc -> loss2/fc (in-place)
I0403 21:40:45.348908 12450 net.cpp:141] Setting up loss2/drop_fc
I0403 21:40:45.348932 12450 net.cpp:148] Top shape: 24 1024 (24576)
I0403 21:40:45.348945 12450 net.cpp:156] Memory required for data: 1208417568
I0403 21:40:45.348958 12450 layer_factory.hpp:77] Creating layer loss2/classifier_plantvillage
I0403 21:40:45.348978 12450 net.cpp:91] Creating Layer loss2/classifier_plantvillage
I0403 21:40:45.348995 12450 net.cpp:425] loss2/classifier_plantvillage <- loss2/fc
I0403 21:40:45.349014 12450 net.cpp:399] loss2/classifier_plantvillage -> loss2/classifier_plantvillage
I0403 21:40:45.349401 12450 net.cpp:141] Setting up loss2/classifier_plantvillage
I0403 21:40:45.349424 12450 net.cpp:148] Top shape: 24 38 (912)
I0403 21:40:45.349438 12450 net.cpp:156] Memory required for data: 1208421216
I0403 21:40:45.349474 12450 layer_factory.hpp:77] Creating layer loss2/classifier_plantvillage_loss2/classifier_plantvillage_0_split
I0403 21:40:45.349493 12450 net.cpp:91] Creating Layer loss2/classifier_plantvillage_loss2/classifier_plantvillage_0_split
I0403 21:40:45.349509 12450 net.cpp:425] loss2/classifier_plantvillage_loss2/classifier_plantvillage_0_split <- loss2/classifier_plantvillage
I0403 21:40:45.349529 12450 net.cpp:399] loss2/classifier_plantvillage_loss2/classifier_plantvillage_0_split -> loss2/classifier_plantvillage_loss2/classifier_plantvillage_0_split_0
I0403 21:40:45.349548 12450 net.cpp:399] loss2/classifier_plantvillage_loss2/classifier_plantvillage_0_split -> loss2/classifier_plantvillage_loss2/classifier_plantvillage_0_split_1
I0403 21:40:45.349568 12450 net.cpp:399] loss2/classifier_plantvillage_loss2/classifier_plantvillage_0_split -> loss2/classifier_plantvillage_loss2/classifier_plantvillage_0_split_2
I0403 21:40:45.349642 12450 net.cpp:141] Setting up loss2/classifier_plantvillage_loss2/classifier_plantvillage_0_split
I0403 21:40:45.349668 12450 net.cpp:148] Top shape: 24 38 (912)
I0403 21:40:45.349684 12450 net.cpp:148] Top shape: 24 38 (912)
I0403 21:40:45.349699 12450 net.cpp:148] Top shape: 24 38 (912)
I0403 21:40:45.349714 12450 net.cpp:156] Memory required for data: 1208432160
I0403 21:40:45.349726 12450 layer_factory.hpp:77] Creating layer inception_4e/1x1
I0403 21:40:45.349747 12450 net.cpp:91] Creating Layer inception_4e/1x1
I0403 21:40:45.349764 12450 net.cpp:425] inception_4e/1x1 <- inception_4d/output_inception_4d/output_0_split_1
I0403 21:40:45.349782 12450 net.cpp:399] inception_4e/1x1 -> inception_4e/1x1
I0403 21:40:45.351521 12450 net.cpp:141] Setting up inception_4e/1x1
I0403 21:40:45.351549 12450 net.cpp:148] Top shape: 24 256 14 14 (1204224)
I0403 21:40:45.351565 12450 net.cpp:156] Memory required for data: 1213249056
I0403 21:40:45.351583 12450 layer_factory.hpp:77] Creating layer inception_4e/relu_1x1
I0403 21:40:45.351600 12450 net.cpp:91] Creating Layer inception_4e/relu_1x1
I0403 21:40:45.351616 12450 net.cpp:425] inception_4e/relu_1x1 <- inception_4e/1x1
I0403 21:40:45.351635 12450 net.cpp:386] inception_4e/relu_1x1 -> inception_4e/1x1 (in-place)
I0403 21:40:45.351913 12450 net.cpp:141] Setting up inception_4e/relu_1x1
I0403 21:40:45.351940 12450 net.cpp:148] Top shape: 24 256 14 14 (1204224)
I0403 21:40:45.351955 12450 net.cpp:156] Memory required for data: 1218065952
I0403 21:40:45.351970 12450 layer_factory.hpp:77] Creating layer inception_4e/3x3_reduce
I0403 21:40:45.351991 12450 net.cpp:91] Creating Layer inception_4e/3x3_reduce
I0403 21:40:45.352008 12450 net.cpp:425] inception_4e/3x3_reduce <- inception_4d/output_inception_4d/output_0_split_2
I0403 21:40:45.352027 12450 net.cpp:399] inception_4e/3x3_reduce -> inception_4e/3x3_reduce
I0403 21:40:45.354079 12450 net.cpp:141] Setting up inception_4e/3x3_reduce
I0403 21:40:45.354110 12450 net.cpp:148] Top shape: 24 160 14 14 (752640)
I0403 21:40:45.354125 12450 net.cpp:156] Memory required for data: 1221076512
I0403 21:40:45.354143 12450 layer_factory.hpp:77] Creating layer inception_4e/relu_3x3_reduce
I0403 21:40:45.354161 12450 net.cpp:91] Creating Layer inception_4e/relu_3x3_reduce
I0403 21:40:45.354177 12450 net.cpp:425] inception_4e/relu_3x3_reduce <- inception_4e/3x3_reduce
I0403 21:40:45.354194 12450 net.cpp:386] inception_4e/relu_3x3_reduce -> inception_4e/3x3_reduce (in-place)
I0403 21:40:45.354378 12450 net.cpp:141] Setting up inception_4e/relu_3x3_reduce
I0403 21:40:45.354403 12450 net.cpp:148] Top shape: 24 160 14 14 (752640)
I0403 21:40:45.354418 12450 net.cpp:156] Memory required for data: 1224087072
I0403 21:40:45.354432 12450 layer_factory.hpp:77] Creating layer inception_4e/3x3
I0403 21:40:45.354454 12450 net.cpp:91] Creating Layer inception_4e/3x3
I0403 21:40:45.354470 12450 net.cpp:425] inception_4e/3x3 <- inception_4e/3x3_reduce
I0403 21:40:45.354491 12450 net.cpp:399] inception_4e/3x3 -> inception_4e/3x3
I0403 21:40:45.359313 12450 net.cpp:141] Setting up inception_4e/3x3
I0403 21:40:45.359354 12450 net.cpp:148] Top shape: 24 320 14 14 (1505280)
I0403 21:40:45.359369 12450 net.cpp:156] Memory required for data: 1230108192
I0403 21:40:45.359387 12450 layer_factory.hpp:77] Creating layer inception_4e/relu_3x3
I0403 21:40:45.359405 12450 net.cpp:91] Creating Layer inception_4e/relu_3x3
I0403 21:40:45.359423 12450 net.cpp:425] inception_4e/relu_3x3 <- inception_4e/3x3
I0403 21:40:45.359439 12450 net.cpp:386] inception_4e/relu_3x3 -> inception_4e/3x3 (in-place)
I0403 21:40:45.359721 12450 net.cpp:141] Setting up inception_4e/relu_3x3
I0403 21:40:45.359746 12450 net.cpp:148] Top shape: 24 320 14 14 (1505280)
I0403 21:40:45.359761 12450 net.cpp:156] Memory required for data: 1236129312
I0403 21:40:45.359776 12450 layer_factory.hpp:77] Creating layer inception_4e/5x5_reduce
I0403 21:40:45.359797 12450 net.cpp:91] Creating Layer inception_4e/5x5_reduce
I0403 21:40:45.359813 12450 net.cpp:425] inception_4e/5x5_reduce <- inception_4d/output_inception_4d/output_0_split_3
I0403 21:40:45.359834 12450 net.cpp:399] inception_4e/5x5_reduce -> inception_4e/5x5_reduce
I0403 21:40:45.360855 12450 net.cpp:141] Setting up inception_4e/5x5_reduce
I0403 21:40:45.360885 12450 net.cpp:148] Top shape: 24 32 14 14 (150528)
I0403 21:40:45.360901 12450 net.cpp:156] Memory required for data: 1236731424
I0403 21:40:45.360919 12450 layer_factory.hpp:77] Creating layer inception_4e/relu_5x5_reduce
I0403 21:40:45.360936 12450 net.cpp:91] Creating Layer inception_4e/relu_5x5_reduce
I0403 21:40:45.360951 12450 net.cpp:425] inception_4e/relu_5x5_reduce <- inception_4e/5x5_reduce
I0403 21:40:45.360970 12450 net.cpp:386] inception_4e/relu_5x5_reduce -> inception_4e/5x5_reduce (in-place)
I0403 21:40:45.361260 12450 net.cpp:141] Setting up inception_4e/relu_5x5_reduce
I0403 21:40:45.361287 12450 net.cpp:148] Top shape: 24 32 14 14 (150528)
I0403 21:40:45.361304 12450 net.cpp:156] Memory required for data: 1237333536
I0403 21:40:45.361318 12450 layer_factory.hpp:77] Creating layer inception_4e/5x5
I0403 21:40:45.361356 12450 net.cpp:91] Creating Layer inception_4e/5x5
I0403 21:40:45.361376 12450 net.cpp:425] inception_4e/5x5 <- inception_4e/5x5_reduce
I0403 21:40:45.361394 12450 net.cpp:399] inception_4e/5x5 -> inception_4e/5x5
I0403 21:40:45.363140 12450 net.cpp:141] Setting up inception_4e/5x5
I0403 21:40:45.363167 12450 net.cpp:148] Top shape: 24 128 14 14 (602112)
I0403 21:40:45.363181 12450 net.cpp:156] Memory required for data: 1239741984
I0403 21:40:45.363199 12450 layer_factory.hpp:77] Creating layer inception_4e/relu_5x5
I0403 21:40:45.363224 12450 net.cpp:91] Creating Layer inception_4e/relu_5x5
I0403 21:40:45.363241 12450 net.cpp:425] inception_4e/relu_5x5 <- inception_4e/5x5
I0403 21:40:45.363258 12450 net.cpp:386] inception_4e/relu_5x5 -> inception_4e/5x5 (in-place)
I0403 21:40:45.363445 12450 net.cpp:141] Setting up inception_4e/relu_5x5
I0403 21:40:45.363471 12450 net.cpp:148] Top shape: 24 128 14 14 (602112)
I0403 21:40:45.363487 12450 net.cpp:156] Memory required for data: 1242150432
I0403 21:40:45.363502 12450 layer_factory.hpp:77] Creating layer inception_4e/pool
I0403 21:40:45.363518 12450 net.cpp:91] Creating Layer inception_4e/pool
I0403 21:40:45.363533 12450 net.cpp:425] inception_4e/pool <- inception_4d/output_inception_4d/output_0_split_4
I0403 21:40:45.363554 12450 net.cpp:399] inception_4e/pool -> inception_4e/pool
I0403 21:40:45.363620 12450 net.cpp:141] Setting up inception_4e/pool
I0403 21:40:45.363641 12450 net.cpp:148] Top shape: 24 528 14 14 (2483712)
I0403 21:40:45.363656 12450 net.cpp:156] Memory required for data: 1252085280
I0403 21:40:45.363669 12450 layer_factory.hpp:77] Creating layer inception_4e/pool_proj
I0403 21:40:45.363692 12450 net.cpp:91] Creating Layer inception_4e/pool_proj
I0403 21:40:45.363708 12450 net.cpp:425] inception_4e/pool_proj <- inception_4e/pool
I0403 21:40:45.363726 12450 net.cpp:399] inception_4e/pool_proj -> inception_4e/pool_proj
I0403 21:40:45.365149 12450 net.cpp:141] Setting up inception_4e/pool_proj
I0403 21:40:45.365175 12450 net.cpp:148] Top shape: 24 128 14 14 (602112)
I0403 21:40:45.365203 12450 net.cpp:156] Memory required for data: 1254493728
I0403 21:40:45.365226 12450 layer_factory.hpp:77] Creating layer inception_4e/relu_pool_proj
I0403 21:40:45.365247 12450 net.cpp:91] Creating Layer inception_4e/relu_pool_proj
I0403 21:40:45.365264 12450 net.cpp:425] inception_4e/relu_pool_proj <- inception_4e/pool_proj
I0403 21:40:45.365281 12450 net.cpp:386] inception_4e/relu_pool_proj -> inception_4e/pool_proj (in-place)
I0403 21:40:45.365569 12450 net.cpp:141] Setting up inception_4e/relu_pool_proj
I0403 21:40:45.365595 12450 net.cpp:148] Top shape: 24 128 14 14 (602112)
I0403 21:40:45.365609 12450 net.cpp:156] Memory required for data: 1256902176
I0403 21:40:45.365624 12450 layer_factory.hpp:77] Creating layer inception_4e/output
I0403 21:40:45.365643 12450 net.cpp:91] Creating Layer inception_4e/output
I0403 21:40:45.365659 12450 net.cpp:425] inception_4e/output <- inception_4e/1x1
I0403 21:40:45.365675 12450 net.cpp:425] inception_4e/output <- inception_4e/3x3
I0403 21:40:45.365690 12450 net.cpp:425] inception_4e/output <- inception_4e/5x5
I0403 21:40:45.365705 12450 net.cpp:425] inception_4e/output <- inception_4e/pool_proj
I0403 21:40:45.365721 12450 net.cpp:399] inception_4e/output -> inception_4e/output
I0403 21:40:45.365770 12450 net.cpp:141] Setting up inception_4e/output
I0403 21:40:45.365793 12450 net.cpp:148] Top shape: 24 832 14 14 (3913728)
I0403 21:40:45.365808 12450 net.cpp:156] Memory required for data: 1272557088
I0403 21:40:45.365821 12450 layer_factory.hpp:77] Creating layer pool4/3x3_s2
I0403 21:40:45.365838 12450 net.cpp:91] Creating Layer pool4/3x3_s2
I0403 21:40:45.365854 12450 net.cpp:425] pool4/3x3_s2 <- inception_4e/output
I0403 21:40:45.365874 12450 net.cpp:399] pool4/3x3_s2 -> pool4/3x3_s2
I0403 21:40:45.365937 12450 net.cpp:141] Setting up pool4/3x3_s2
I0403 21:40:45.365960 12450 net.cpp:148] Top shape: 24 832 7 7 (978432)
I0403 21:40:45.365974 12450 net.cpp:156] Memory required for data: 1276470816
I0403 21:40:45.365988 12450 layer_factory.hpp:77] Creating layer pool4/3x3_s2_pool4/3x3_s2_0_split
I0403 21:40:45.366008 12450 net.cpp:91] Creating Layer pool4/3x3_s2_pool4/3x3_s2_0_split
I0403 21:40:45.366024 12450 net.cpp:425] pool4/3x3_s2_pool4/3x3_s2_0_split <- pool4/3x3_s2
I0403 21:40:45.366041 12450 net.cpp:399] pool4/3x3_s2_pool4/3x3_s2_0_split -> pool4/3x3_s2_pool4/3x3_s2_0_split_0
I0403 21:40:45.366063 12450 net.cpp:399] pool4/3x3_s2_pool4/3x3_s2_0_split -> pool4/3x3_s2_pool4/3x3_s2_0_split_1
I0403 21:40:45.366082 12450 net.cpp:399] pool4/3x3_s2_pool4/3x3_s2_0_split -> pool4/3x3_s2_pool4/3x3_s2_0_split_2
I0403 21:40:45.366101 12450 net.cpp:399] pool4/3x3_s2_pool4/3x3_s2_0_split -> pool4/3x3_s2_pool4/3x3_s2_0_split_3
I0403 21:40:45.366185 12450 net.cpp:141] Setting up pool4/3x3_s2_pool4/3x3_s2_0_split
I0403 21:40:45.366212 12450 net.cpp:148] Top shape: 24 832 7 7 (978432)
I0403 21:40:45.366230 12450 net.cpp:148] Top shape: 24 832 7 7 (978432)
I0403 21:40:45.366245 12450 net.cpp:148] Top shape: 24 832 7 7 (978432)
I0403 21:40:45.366261 12450 net.cpp:148] Top shape: 24 832 7 7 (978432)
I0403 21:40:45.366274 12450 net.cpp:156] Memory required for data: 1292125728
I0403 21:40:45.366288 12450 layer_factory.hpp:77] Creating layer inception_5a/1x1
I0403 21:40:45.366308 12450 net.cpp:91] Creating Layer inception_5a/1x1
I0403 21:40:45.366325 12450 net.cpp:425] inception_5a/1x1 <- pool4/3x3_s2_pool4/3x3_s2_0_split_0
I0403 21:40:45.366346 12450 net.cpp:399] inception_5a/1x1 -> inception_5a/1x1
I0403 21:40:45.369081 12450 net.cpp:141] Setting up inception_5a/1x1
I0403 21:40:45.369112 12450 net.cpp:148] Top shape: 24 256 7 7 (301056)
I0403 21:40:45.369127 12450 net.cpp:156] Memory required for data: 1293329952
I0403 21:40:45.369145 12450 layer_factory.hpp:77] Creating layer inception_5a/relu_1x1
I0403 21:40:45.369163 12450 net.cpp:91] Creating Layer inception_5a/relu_1x1
I0403 21:40:45.369179 12450 net.cpp:425] inception_5a/relu_1x1 <- inception_5a/1x1
I0403 21:40:45.369195 12450 net.cpp:386] inception_5a/relu_1x1 -> inception_5a/1x1 (in-place)
I0403 21:40:45.369501 12450 net.cpp:141] Setting up inception_5a/relu_1x1
I0403 21:40:45.369529 12450 net.cpp:148] Top shape: 24 256 7 7 (301056)
I0403 21:40:45.369544 12450 net.cpp:156] Memory required for data: 1294534176
I0403 21:40:45.369560 12450 layer_factory.hpp:77] Creating layer inception_5a/3x3_reduce
I0403 21:40:45.369580 12450 net.cpp:91] Creating Layer inception_5a/3x3_reduce
I0403 21:40:45.369597 12450 net.cpp:425] inception_5a/3x3_reduce <- pool4/3x3_s2_pool4/3x3_s2_0_split_1
I0403 21:40:45.369616 12450 net.cpp:399] inception_5a/3x3_reduce -> inception_5a/3x3_reduce
I0403 21:40:45.371985 12450 net.cpp:141] Setting up inception_5a/3x3_reduce
I0403 21:40:45.372012 12450 net.cpp:148] Top shape: 24 160 7 7 (188160)
I0403 21:40:45.372027 12450 net.cpp:156] Memory required for data: 1295286816
I0403 21:40:45.372045 12450 layer_factory.hpp:77] Creating layer inception_5a/relu_3x3_reduce
I0403 21:40:45.372064 12450 net.cpp:91] Creating Layer inception_5a/relu_3x3_reduce
I0403 21:40:45.372081 12450 net.cpp:425] inception_5a/relu_3x3_reduce <- inception_5a/3x3_reduce
I0403 21:40:45.372097 12450 net.cpp:386] inception_5a/relu_3x3_reduce -> inception_5a/3x3_reduce (in-place)
I0403 21:40:45.372285 12450 net.cpp:141] Setting up inception_5a/relu_3x3_reduce
I0403 21:40:45.372310 12450 net.cpp:148] Top shape: 24 160 7 7 (188160)
I0403 21:40:45.372328 12450 net.cpp:156] Memory required for data: 1296039456
I0403 21:40:45.372342 12450 layer_factory.hpp:77] Creating layer inception_5a/3x3
I0403 21:40:45.372361 12450 net.cpp:91] Creating Layer inception_5a/3x3
I0403 21:40:45.372377 12450 net.cpp:425] inception_5a/3x3 <- inception_5a/3x3_reduce
I0403 21:40:45.372398 12450 net.cpp:399] inception_5a/3x3 -> inception_5a/3x3
I0403 21:40:45.377308 12450 net.cpp:141] Setting up inception_5a/3x3
I0403 21:40:45.377337 12450 net.cpp:148] Top shape: 24 320 7 7 (376320)
I0403 21:40:45.377352 12450 net.cpp:156] Memory required for data: 1297544736
I0403 21:40:45.377369 12450 layer_factory.hpp:77] Creating layer inception_5a/relu_3x3
I0403 21:40:45.377400 12450 net.cpp:91] Creating Layer inception_5a/relu_3x3
I0403 21:40:45.377418 12450 net.cpp:425] inception_5a/relu_3x3 <- inception_5a/3x3
I0403 21:40:45.377434 12450 net.cpp:386] inception_5a/relu_3x3 -> inception_5a/3x3 (in-place)
I0403 21:40:45.377732 12450 net.cpp:141] Setting up inception_5a/relu_3x3
I0403 21:40:45.377758 12450 net.cpp:148] Top shape: 24 320 7 7 (376320)
I0403 21:40:45.377774 12450 net.cpp:156] Memory required for data: 1299050016
I0403 21:40:45.377787 12450 layer_factory.hpp:77] Creating layer inception_5a/5x5_reduce
I0403 21:40:45.377811 12450 net.cpp:91] Creating Layer inception_5a/5x5_reduce
I0403 21:40:45.377828 12450 net.cpp:425] inception_5a/5x5_reduce <- pool4/3x3_s2_pool4/3x3_s2_0_split_2
I0403 21:40:45.377847 12450 net.cpp:399] inception_5a/5x5_reduce -> inception_5a/5x5_reduce
I0403 21:40:45.378969 12450 net.cpp:141] Setting up inception_5a/5x5_reduce
I0403 21:40:45.378998 12450 net.cpp:148] Top shape: 24 32 7 7 (37632)
I0403 21:40:45.379014 12450 net.cpp:156] Memory required for data: 1299200544
I0403 21:40:45.379032 12450 layer_factory.hpp:77] Creating layer inception_5a/relu_5x5_reduce
I0403 21:40:45.379050 12450 net.cpp:91] Creating Layer inception_5a/relu_5x5_reduce
I0403 21:40:45.379065 12450 net.cpp:425] inception_5a/relu_5x5_reduce <- inception_5a/5x5_reduce
I0403 21:40:45.379081 12450 net.cpp:386] inception_5a/relu_5x5_reduce -> inception_5a/5x5_reduce (in-place)
I0403 21:40:45.379379 12450 net.cpp:141] Setting up inception_5a/relu_5x5_reduce
I0403 21:40:45.379406 12450 net.cpp:148] Top shape: 24 32 7 7 (37632)
I0403 21:40:45.379421 12450 net.cpp:156] Memory required for data: 1299351072
I0403 21:40:45.379436 12450 layer_factory.hpp:77] Creating layer inception_5a/5x5
I0403 21:40:45.379457 12450 net.cpp:91] Creating Layer inception_5a/5x5
I0403 21:40:45.379474 12450 net.cpp:425] inception_5a/5x5 <- inception_5a/5x5_reduce
I0403 21:40:45.379493 12450 net.cpp:399] inception_5a/5x5 -> inception_5a/5x5
I0403 21:40:45.381135 12450 net.cpp:141] Setting up inception_5a/5x5
I0403 21:40:45.381173 12450 net.cpp:148] Top shape: 24 128 7 7 (150528)
I0403 21:40:45.381188 12450 net.cpp:156] Memory required for data: 1299953184
I0403 21:40:45.381206 12450 layer_factory.hpp:77] Creating layer inception_5a/relu_5x5
I0403 21:40:45.381232 12450 net.cpp:91] Creating Layer inception_5a/relu_5x5
I0403 21:40:45.381247 12450 net.cpp:425] inception_5a/relu_5x5 <- inception_5a/5x5
I0403 21:40:45.381265 12450 net.cpp:386] inception_5a/relu_5x5 -> inception_5a/5x5 (in-place)
I0403 21:40:45.381448 12450 net.cpp:141] Setting up inception_5a/relu_5x5
I0403 21:40:45.381471 12450 net.cpp:148] Top shape: 24 128 7 7 (150528)
I0403 21:40:45.381485 12450 net.cpp:156] Memory required for data: 1300555296
I0403 21:40:45.381500 12450 layer_factory.hpp:77] Creating layer inception_5a/pool
I0403 21:40:45.381516 12450 net.cpp:91] Creating Layer inception_5a/pool
I0403 21:40:45.381531 12450 net.cpp:425] inception_5a/pool <- pool4/3x3_s2_pool4/3x3_s2_0_split_3
I0403 21:40:45.381551 12450 net.cpp:399] inception_5a/pool -> inception_5a/pool
I0403 21:40:45.381618 12450 net.cpp:141] Setting up inception_5a/pool
I0403 21:40:45.381642 12450 net.cpp:148] Top shape: 24 832 7 7 (978432)
I0403 21:40:45.381656 12450 net.cpp:156] Memory required for data: 1304469024
I0403 21:40:45.381670 12450 layer_factory.hpp:77] Creating layer inception_5a/pool_proj
I0403 21:40:45.381693 12450 net.cpp:91] Creating Layer inception_5a/pool_proj
I0403 21:40:45.381711 12450 net.cpp:425] inception_5a/pool_proj <- inception_5a/pool
I0403 21:40:45.381728 12450 net.cpp:399] inception_5a/pool_proj -> inception_5a/pool_proj
I0403 21:40:45.383945 12450 net.cpp:141] Setting up inception_5a/pool_proj
I0403 21:40:45.383973 12450 net.cpp:148] Top shape: 24 128 7 7 (150528)
I0403 21:40:45.383987 12450 net.cpp:156] Memory required for data: 1305071136
I0403 21:40:45.384006 12450 layer_factory.hpp:77] Creating layer inception_5a/relu_pool_proj
I0403 21:40:45.384026 12450 net.cpp:91] Creating Layer inception_5a/relu_pool_proj
I0403 21:40:45.384042 12450 net.cpp:425] inception_5a/relu_pool_proj <- inception_5a/pool_proj
I0403 21:40:45.384058 12450 net.cpp:386] inception_5a/relu_pool_proj -> inception_5a/pool_proj (in-place)
I0403 21:40:45.384346 12450 net.cpp:141] Setting up inception_5a/relu_pool_proj
I0403 21:40:45.384371 12450 net.cpp:148] Top shape: 24 128 7 7 (150528)
I0403 21:40:45.384385 12450 net.cpp:156] Memory required for data: 1305673248
I0403 21:40:45.384400 12450 layer_factory.hpp:77] Creating layer inception_5a/output
I0403 21:40:45.384419 12450 net.cpp:91] Creating Layer inception_5a/output
I0403 21:40:45.384435 12450 net.cpp:425] inception_5a/output <- inception_5a/1x1
I0403 21:40:45.384451 12450 net.cpp:425] inception_5a/output <- inception_5a/3x3
I0403 21:40:45.384467 12450 net.cpp:425] inception_5a/output <- inception_5a/5x5
I0403 21:40:45.384482 12450 net.cpp:425] inception_5a/output <- inception_5a/pool_proj
I0403 21:40:45.384498 12450 net.cpp:399] inception_5a/output -> inception_5a/output
I0403 21:40:45.384547 12450 net.cpp:141] Setting up inception_5a/output
I0403 21:40:45.384570 12450 net.cpp:148] Top shape: 24 832 7 7 (978432)
I0403 21:40:45.384584 12450 net.cpp:156] Memory required for data: 1309586976
I0403 21:40:45.384598 12450 layer_factory.hpp:77] Creating layer inception_5a/output_inception_5a/output_0_split
I0403 21:40:45.384615 12450 net.cpp:91] Creating Layer inception_5a/output_inception_5a/output_0_split
I0403 21:40:45.384630 12450 net.cpp:425] inception_5a/output_inception_5a/output_0_split <- inception_5a/output
I0403 21:40:45.384649 12450 net.cpp:399] inception_5a/output_inception_5a/output_0_split -> inception_5a/output_inception_5a/output_0_split_0
I0403 21:40:45.384668 12450 net.cpp:399] inception_5a/output_inception_5a/output_0_split -> inception_5a/output_inception_5a/output_0_split_1
I0403 21:40:45.384688 12450 net.cpp:399] inception_5a/output_inception_5a/output_0_split -> inception_5a/output_inception_5a/output_0_split_2
I0403 21:40:45.384707 12450 net.cpp:399] inception_5a/output_inception_5a/output_0_split -> inception_5a/output_inception_5a/output_0_split_3
I0403 21:40:45.384814 12450 net.cpp:141] Setting up inception_5a/output_inception_5a/output_0_split
I0403 21:40:45.384840 12450 net.cpp:148] Top shape: 24 832 7 7 (978432)
I0403 21:40:45.384856 12450 net.cpp:148] Top shape: 24 832 7 7 (978432)
I0403 21:40:45.384871 12450 net.cpp:148] Top shape: 24 832 7 7 (978432)
I0403 21:40:45.384886 12450 net.cpp:148] Top shape: 24 832 7 7 (978432)
I0403 21:40:45.384899 12450 net.cpp:156] Memory required for data: 1325241888
I0403 21:40:45.384914 12450 layer_factory.hpp:77] Creating layer inception_5b/1x1
I0403 21:40:45.384934 12450 net.cpp:91] Creating Layer inception_5b/1x1
I0403 21:40:45.384951 12450 net.cpp:425] inception_5b/1x1 <- inception_5a/output_inception_5a/output_0_split_0
I0403 21:40:45.384969 12450 net.cpp:399] inception_5b/1x1 -> inception_5b/1x1
I0403 21:40:45.388579 12450 net.cpp:141] Setting up inception_5b/1x1
I0403 21:40:45.388607 12450 net.cpp:148] Top shape: 24 384 7 7 (451584)
I0403 21:40:45.388622 12450 net.cpp:156] Memory required for data: 1327048224
I0403 21:40:45.388640 12450 layer_factory.hpp:77] Creating layer inception_5b/relu_1x1
I0403 21:40:45.388659 12450 net.cpp:91] Creating Layer inception_5b/relu_1x1
I0403 21:40:45.388676 12450 net.cpp:425] inception_5b/relu_1x1 <- inception_5b/1x1
I0403 21:40:45.388694 12450 net.cpp:386] inception_5b/relu_1x1 -> inception_5b/1x1 (in-place)
I0403 21:40:45.388986 12450 net.cpp:141] Setting up inception_5b/relu_1x1
I0403 21:40:45.389011 12450 net.cpp:148] Top shape: 24 384 7 7 (451584)
I0403 21:40:45.389026 12450 net.cpp:156] Memory required for data: 1328854560
I0403 21:40:45.389040 12450 layer_factory.hpp:77] Creating layer inception_5b/3x3_reduce
I0403 21:40:45.389061 12450 net.cpp:91] Creating Layer inception_5b/3x3_reduce
I0403 21:40:45.389078 12450 net.cpp:425] inception_5b/3x3_reduce <- inception_5a/output_inception_5a/output_0_split_1
I0403 21:40:45.389101 12450 net.cpp:399] inception_5b/3x3_reduce -> inception_5b/3x3_reduce
I0403 21:40:45.391674 12450 net.cpp:141] Setting up inception_5b/3x3_reduce
I0403 21:40:45.391702 12450 net.cpp:148] Top shape: 24 192 7 7 (225792)
I0403 21:40:45.391718 12450 net.cpp:156] Memory required for data: 1329757728
I0403 21:40:45.391736 12450 layer_factory.hpp:77] Creating layer inception_5b/relu_3x3_reduce
I0403 21:40:45.391757 12450 net.cpp:91] Creating Layer inception_5b/relu_3x3_reduce
I0403 21:40:45.391773 12450 net.cpp:425] inception_5b/relu_3x3_reduce <- inception_5b/3x3_reduce
I0403 21:40:45.391790 12450 net.cpp:386] inception_5b/relu_3x3_reduce -> inception_5b/3x3_reduce (in-place)
I0403 21:40:45.391973 12450 net.cpp:141] Setting up inception_5b/relu_3x3_reduce
I0403 21:40:45.391998 12450 net.cpp:148] Top shape: 24 192 7 7 (225792)
I0403 21:40:45.392011 12450 net.cpp:156] Memory required for data: 1330660896
I0403 21:40:45.392026 12450 layer_factory.hpp:77] Creating layer inception_5b/3x3
I0403 21:40:45.392048 12450 net.cpp:91] Creating Layer inception_5b/3x3
I0403 21:40:45.392066 12450 net.cpp:425] inception_5b/3x3 <- inception_5b/3x3_reduce
I0403 21:40:45.392084 12450 net.cpp:399] inception_5b/3x3 -> inception_5b/3x3
I0403 21:40:45.398586 12450 net.cpp:141] Setting up inception_5b/3x3
I0403 21:40:45.398615 12450 net.cpp:148] Top shape: 24 384 7 7 (451584)
I0403 21:40:45.398632 12450 net.cpp:156] Memory required for data: 1332467232
I0403 21:40:45.398649 12450 layer_factory.hpp:77] Creating layer inception_5b/relu_3x3
I0403 21:40:45.398669 12450 net.cpp:91] Creating Layer inception_5b/relu_3x3
I0403 21:40:45.398686 12450 net.cpp:425] inception_5b/relu_3x3 <- inception_5b/3x3
I0403 21:40:45.398704 12450 net.cpp:386] inception_5b/relu_3x3 -> inception_5b/3x3 (in-place)
I0403 21:40:45.398991 12450 net.cpp:141] Setting up inception_5b/relu_3x3
I0403 21:40:45.399018 12450 net.cpp:148] Top shape: 24 384 7 7 (451584)
I0403 21:40:45.399032 12450 net.cpp:156] Memory required for data: 1334273568
I0403 21:40:45.399046 12450 layer_factory.hpp:77] Creating layer inception_5b/5x5_reduce
I0403 21:40:45.399083 12450 net.cpp:91] Creating Layer inception_5b/5x5_reduce
I0403 21:40:45.399101 12450 net.cpp:425] inception_5b/5x5_reduce <- inception_5a/output_inception_5a/output_0_split_2
I0403 21:40:45.399123 12450 net.cpp:399] inception_5b/5x5_reduce -> inception_5b/5x5_reduce
I0403 21:40:45.400431 12450 net.cpp:141] Setting up inception_5b/5x5_reduce
I0403 21:40:45.400459 12450 net.cpp:148] Top shape: 24 48 7 7 (56448)
I0403 21:40:45.400473 12450 net.cpp:156] Memory required for data: 1334499360
I0403 21:40:45.400491 12450 layer_factory.hpp:77] Creating layer inception_5b/relu_5x5_reduce
I0403 21:40:45.400511 12450 net.cpp:91] Creating Layer inception_5b/relu_5x5_reduce
I0403 21:40:45.400529 12450 net.cpp:425] inception_5b/relu_5x5_reduce <- inception_5b/5x5_reduce
I0403 21:40:45.400547 12450 net.cpp:386] inception_5b/relu_5x5_reduce -> inception_5b/5x5_reduce (in-place)
I0403 21:40:45.400921 12450 net.cpp:141] Setting up inception_5b/relu_5x5_reduce
I0403 21:40:45.400948 12450 net.cpp:148] Top shape: 24 48 7 7 (56448)
I0403 21:40:45.400962 12450 net.cpp:156] Memory required for data: 1334725152
I0403 21:40:45.400977 12450 layer_factory.hpp:77] Creating layer inception_5b/5x5
I0403 21:40:45.400997 12450 net.cpp:91] Creating Layer inception_5b/5x5
I0403 21:40:45.401015 12450 net.cpp:425] inception_5b/5x5 <- inception_5b/5x5_reduce
I0403 21:40:45.401033 12450 net.cpp:399] inception_5b/5x5 -> inception_5b/5x5
I0403 21:40:45.403038 12450 net.cpp:141] Setting up inception_5b/5x5
I0403 21:40:45.403069 12450 net.cpp:148] Top shape: 24 128 7 7 (150528)
I0403 21:40:45.403085 12450 net.cpp:156] Memory required for data: 1335327264
I0403 21:40:45.403105 12450 layer_factory.hpp:77] Creating layer inception_5b/relu_5x5
I0403 21:40:45.403122 12450 net.cpp:91] Creating Layer inception_5b/relu_5x5
I0403 21:40:45.403138 12450 net.cpp:425] inception_5b/relu_5x5 <- inception_5b/5x5
I0403 21:40:45.403156 12450 net.cpp:386] inception_5b/relu_5x5 -> inception_5b/5x5 (in-place)
I0403 21:40:45.403367 12450 net.cpp:141] Setting up inception_5b/relu_5x5
I0403 21:40:45.403394 12450 net.cpp:148] Top shape: 24 128 7 7 (150528)
I0403 21:40:45.403410 12450 net.cpp:156] Memory required for data: 1335929376
I0403 21:40:45.403426 12450 layer_factory.hpp:77] Creating layer inception_5b/pool
I0403 21:40:45.403444 12450 net.cpp:91] Creating Layer inception_5b/pool
I0403 21:40:45.403460 12450 net.cpp:425] inception_5b/pool <- inception_5a/output_inception_5a/output_0_split_3
I0403 21:40:45.403481 12450 net.cpp:399] inception_5b/pool -> inception_5b/pool
I0403 21:40:45.403554 12450 net.cpp:141] Setting up inception_5b/pool
I0403 21:40:45.403592 12450 net.cpp:148] Top shape: 24 832 7 7 (978432)
I0403 21:40:45.403609 12450 net.cpp:156] Memory required for data: 1339843104
I0403 21:40:45.403623 12450 layer_factory.hpp:77] Creating layer inception_5b/pool_proj
I0403 21:40:45.403645 12450 net.cpp:91] Creating Layer inception_5b/pool_proj
I0403 21:40:45.403661 12450 net.cpp:425] inception_5b/pool_proj <- inception_5b/pool
I0403 21:40:45.403681 12450 net.cpp:399] inception_5b/pool_proj -> inception_5b/pool_proj
I0403 21:40:45.405974 12450 net.cpp:141] Setting up inception_5b/pool_proj
I0403 21:40:45.406003 12450 net.cpp:148] Top shape: 24 128 7 7 (150528)
I0403 21:40:45.406019 12450 net.cpp:156] Memory required for data: 1340445216
I0403 21:40:45.406038 12450 layer_factory.hpp:77] Creating layer inception_5b/relu_pool_proj
I0403 21:40:45.406057 12450 net.cpp:91] Creating Layer inception_5b/relu_pool_proj
I0403 21:40:45.406075 12450 net.cpp:425] inception_5b/relu_pool_proj <- inception_5b/pool_proj
I0403 21:40:45.406091 12450 net.cpp:386] inception_5b/relu_pool_proj -> inception_5b/pool_proj (in-place)
I0403 21:40:45.406388 12450 net.cpp:141] Setting up inception_5b/relu_pool_proj
I0403 21:40:45.406414 12450 net.cpp:148] Top shape: 24 128 7 7 (150528)
I0403 21:40:45.406429 12450 net.cpp:156] Memory required for data: 1341047328
I0403 21:40:45.406445 12450 layer_factory.hpp:77] Creating layer inception_5b/output
I0403 21:40:45.406464 12450 net.cpp:91] Creating Layer inception_5b/output
I0403 21:40:45.406494 12450 net.cpp:425] inception_5b/output <- inception_5b/1x1
I0403 21:40:45.406512 12450 net.cpp:425] inception_5b/output <- inception_5b/3x3
I0403 21:40:45.406529 12450 net.cpp:425] inception_5b/output <- inception_5b/5x5
I0403 21:40:45.406544 12450 net.cpp:425] inception_5b/output <- inception_5b/pool_proj
I0403 21:40:45.406561 12450 net.cpp:399] inception_5b/output -> inception_5b/output
I0403 21:40:45.406615 12450 net.cpp:141] Setting up inception_5b/output
I0403 21:40:45.406637 12450 net.cpp:148] Top shape: 24 1024 7 7 (1204224)
I0403 21:40:45.406652 12450 net.cpp:156] Memory required for data: 1345864224
I0403 21:40:45.406667 12450 layer_factory.hpp:77] Creating layer pool5/7x7_s1
I0403 21:40:45.406683 12450 net.cpp:91] Creating Layer pool5/7x7_s1
I0403 21:40:45.406699 12450 net.cpp:425] pool5/7x7_s1 <- inception_5b/output
I0403 21:40:45.406718 12450 net.cpp:399] pool5/7x7_s1 -> pool5/7x7_s1
I0403 21:40:45.406931 12450 net.cpp:141] Setting up pool5/7x7_s1
I0403 21:40:45.406957 12450 net.cpp:148] Top shape: 24 1024 1 1 (24576)
I0403 21:40:45.406972 12450 net.cpp:156] Memory required for data: 1345962528
I0403 21:40:45.406986 12450 layer_factory.hpp:77] Creating layer pool5/drop_7x7_s1
I0403 21:40:45.407006 12450 net.cpp:91] Creating Layer pool5/drop_7x7_s1
I0403 21:40:45.407022 12450 net.cpp:425] pool5/drop_7x7_s1 <- pool5/7x7_s1
I0403 21:40:45.407039 12450 net.cpp:386] pool5/drop_7x7_s1 -> pool5/7x7_s1 (in-place)
I0403 21:40:45.407090 12450 net.cpp:141] Setting up pool5/drop_7x7_s1
I0403 21:40:45.407114 12450 net.cpp:148] Top shape: 24 1024 1 1 (24576)
I0403 21:40:45.407127 12450 net.cpp:156] Memory required for data: 1346060832
I0403 21:40:45.407142 12450 layer_factory.hpp:77] Creating layer loss3/classifier_plantvillage
I0403 21:40:45.407162 12450 net.cpp:91] Creating Layer loss3/classifier_plantvillage
I0403 21:40:45.407181 12450 net.cpp:425] loss3/classifier_plantvillage <- pool5/7x7_s1
I0403 21:40:45.407198 12450 net.cpp:399] loss3/classifier_plantvillage -> loss3/classifier_plantvillage
I0403 21:40:45.407660 12450 net.cpp:141] Setting up loss3/classifier_plantvillage
I0403 21:40:45.407683 12450 net.cpp:148] Top shape: 24 38 (912)
I0403 21:40:45.407698 12450 net.cpp:156] Memory required for data: 1346064480
I0403 21:40:45.407716 12450 layer_factory.hpp:77] Creating layer loss3/classifier_plantvillage_loss3/classifier_plantvillage_0_split
I0403 21:40:45.407734 12450 net.cpp:91] Creating Layer loss3/classifier_plantvillage_loss3/classifier_plantvillage_0_split
I0403 21:40:45.407750 12450 net.cpp:425] loss3/classifier_plantvillage_loss3/classifier_plantvillage_0_split <- loss3/classifier_plantvillage
I0403 21:40:45.407769 12450 net.cpp:399] loss3/classifier_plantvillage_loss3/classifier_plantvillage_0_split -> loss3/classifier_plantvillage_loss3/classifier_plantvillage_0_split_0
I0403 21:40:45.407791 12450 net.cpp:399] loss3/classifier_plantvillage_loss3/classifier_plantvillage_0_split -> loss3/classifier_plantvillage_loss3/classifier_plantvillage_0_split_1
I0403 21:40:45.407810 12450 net.cpp:399] loss3/classifier_plantvillage_loss3/classifier_plantvillage_0_split -> loss3/classifier_plantvillage_loss3/classifier_plantvillage_0_split_2
I0403 21:40:45.407829 12450 net.cpp:399] loss3/classifier_plantvillage_loss3/classifier_plantvillage_0_split -> loss3/classifier_plantvillage_loss3/classifier_plantvillage_0_split_3
I0403 21:40:45.407928 12450 net.cpp:141] Setting up loss3/classifier_plantvillage_loss3/classifier_plantvillage_0_split
I0403 21:40:45.407951 12450 net.cpp:148] Top shape: 24 38 (912)
I0403 21:40:45.407968 12450 net.cpp:148] Top shape: 24 38 (912)
I0403 21:40:45.407984 12450 net.cpp:148] Top shape: 24 38 (912)
I0403 21:40:45.407999 12450 net.cpp:148] Top shape: 24 38 (912)
I0403 21:40:45.408012 12450 net.cpp:156] Memory required for data: 1346079072
I0403 21:40:45.408026 12450 layer_factory.hpp:77] Creating layer loss1/loss
I0403 21:40:45.408049 12450 net.cpp:91] Creating Layer loss1/loss
I0403 21:40:45.408066 12450 net.cpp:425] loss1/loss <- loss1/classifier_plantvillage_loss1/classifier_plantvillage_0_split_0
I0403 21:40:45.408097 12450 net.cpp:425] loss1/loss <- label_data_1_split_0
…
