…
I0403 21:49:15.763692 12939 net.cpp:313] The NetState phase (1) differed from the phase (0) specified by a rule in layer data
I0403 21:49:15.765091 12939 net.cpp:49] Initializing net from parameters: 
state {
  phase: TEST
}
layer {
  name: "data"
  type: "Data"
  top: "data"
  top: "label"
  include {
    phase: TEST
  }
  transform_param {
    mirror: false
    crop_size: 224
    mean_file: "/home/mohanty/data/final_dataset/lmdb/color-80-20/mean.binaryproto"
  }
  data_param {
    source: "/home/mohanty/data/final_dataset/lmdb/color-80-20/test_db"
    batch_size: 24
    backend: LMDB
  }
}
layer {
  name: "conv1/7x7_s2"
  type: "Convolution"
  bottom: "data"
  top: "conv1/7x7_s2"
  param {
    lr_mult: 1
    decay_mult: 1
  }
  param {
    lr_mult: 2
    decay_mult: 0
  }
  convolution_param {
    num_output: 64
    pad: 3
    kernel_size: 7
    stride: 2
    weight_filler {
      type: "xavier"
      std: 0.1
    }
    bias_filler {
      type: "constant"
      value: 0.2
    }
  }
}
layer {
  name: "conv1/relu_7x7"
  type: "ReLU"
  bottom: "conv1/7x7_s2"
  top: "conv1/7x7_s2"
}
layer {
  name: "pool1/3x3_s2"
  type: "Pooling"
  bottom: "conv1/7x7_s2"
  top: "pool1/3x3_s2"
  pooling_param {
    pool: MAX
    kernel_size: 3
    stride: 2
  }
}
layer {
  name: "pool1/norm1"
  type: "LRN"
  bottom: "pool1/3x3_s2"
  top: "pool1/norm1"
  lrn_param {
    local_size: 5
    alpha: 0.0001
    beta: 0.75
  }
}
layer {
  name: "conv2/3x3_reduce"
  type: "Convolution"
  bottom: "pool1/norm1"
  top: "conv2/3x3_reduce"
  param {
    lr_mult: 1
    decay_mult: 1
  }
  param {
    lr_mult: 2
    decay_mult: 0
  }
  convolution_param {
    num_output: 64
    kernel_size: 1
    weight_filler {
      type: "xavier"
      std: 0.1
    }
    bias_filler {
      type: "constant"
      value: 0.2
    }
  }
}
layer {
  name: "conv2/relu_3x3_reduce"
  type: "ReLU"
  bottom: "conv2/3x3_reduce"
  top: "conv2/3x3_reduce"
}
layer {
  name: "conv2/3x3"
  type: "Convolution"
  bottom: "conv2/3x3_reduce"
  top: "conv2/3x3"
  param {
    lr_mult: 1
    decay_mult: 1
  }
  param {
    lr_mult: 2
    decay_mult: 0
  }
  convolution_param {
    num_output: 192
    pad: 1
    kernel_size: 3
    weight_filler {
      type: "xavier"
      std: 0.03
    }
    bias_filler {
      type: "constant"
      value: 0.2
    }
  }
}
layer {
  name: "conv2/relu_3x3"
  type: "ReLU"
  bottom: "conv2/3x3"
  top: "conv2/3x3"
}
layer {
  name: "conv2/norm2"
  type: "LRN"
  bottom: "conv2/3x3"
  top: "conv2/norm2"
  lrn_param {
    local_size: 5
    alpha: 0.0001
    beta: 0.75
  }
}
layer {
  name: "pool2/3x3_s2"
  type: "Pooling"
  bottom: "conv2/norm2"
  top: "pool2/3x3_s2"
  pooling_param {
    pool: MAX
    kernel_size: 3
    stride: 2
  }
}
layer {
  name: "inception_3a/1x1"
  type: "Convolution"
  bottom: "pool2/3x3_s2"
  top: "inception_3a/1x1"
  param {
    lr_mult: 1
    decay_mult: 1
  }
  param {
    lr_mult: 2
    decay_mult: 0
  }
  convolution_param {
    num_output: 64
    kernel_size: 1
    weight_filler {
      type: "xavier"
      std: 0.03
    }
    bias_filler {
      type: "constant"
      value: 0.2
    }
  }
}
layer {
  name: "inception_3a/relu_1x1"
  type: "ReLU"
  bottom: "inception_3a/1x1"
  top: "inception_3a/1x1"
}
layer {
  name: "inception_3a/3x3_reduce"
  type: "Convolution"
  bottom: "pool2/3x3_s2"
  top: "inception_3a/3x3_reduce"
  param {
    lr_mult: 1
    decay_mult: 1
  }
  param {
    lr_mult: 2
    decay_mult: 0
  }
  convolution_param {
    num_output: 96
    kernel_size: 1
    weight_filler {
      type: "xavier"
      std: 0.09
    }
    bias_filler {
      type: "constant"
      value: 0.2
    }
  }
}
layer {
  name: "inception_3a/relu_3x3_reduce"
  type: "ReLU"
  bottom: "inception_3a/3x3_reduce"
  top: "inception_3a/3x3_reduce"
}
layer {
  name: "inception_3a/3x3"
  type: "Convolution"
  bottom: "inception_3a/3x3_reduce"
  top: "inception_3a/3x3"
  param {
    lr_mult: 1
    decay_mult: 1
  }
  param {
    lr_mult: 2
    decay_mult: 0
  }
  convolution_param {
    num_output: 128
    pad: 1
    kernel_size: 3
    weight_filler {
      type: "xavier"
      std: 0.03
    }
    bias_filler {
      type: "constant"
      value: 0.2
    }
  }
}
layer {
  name: "inception_3a/relu_3x3"
  type: "ReLU"
  bottom: "inception_3a/3x3"
  top: "inception_3a/3x3"
}
layer {
  name: "inception_3a/5x5_reduce"
  type: "Convolution"
  bottom: "pool2/3x3_s2"
  top: "inception_3a/5x5_reduce"
  param {
    lr_mult: 1
    decay_mult: 1
  }
  param {
    lr_mult: 2
    decay_mult: 0
  }
  convolution_param {
    num_output: 16
    kernel_size: 1
    weight_filler {
      type: "xavier"
      std: 0.2
    }
    bias_filler {
      type: "constant"
      value: 0.2
    }
  }
}
layer {
  name: "inception_3a/relu_5x5_reduce"
  type: "ReLU"
  bottom: "inception_3a/5x5_reduce"
  top: "inception_3a/5x5_reduce"
}
layer {
  name: "inception_3a/5x5"
  type: "Convolution"
  bottom: "inception_3a/5x5_reduce"
  top: "inception_3a/5x5"
  param {
    lr_mult: 1
    decay_mult: 1
  }
  param {
    lr_mult: 2
    decay_mult: 0
  }
  convolution_param {
    num_output: 32
    pad: 2
    kernel_size: 5
    weight_filler {
      type: "xavier"
      std: 0.03
    }
    bias_filler {
      type: "constant"
      value: 0.2
    }
  }
}
layer {
  name: "inception_3a/relu_5x5"
  type: "ReLU"
  bottom: "inception_3a/5x5"
  top: "inception_3a/5x5"
}
layer {
  name: "inception_3a/pool"
  type: "Pooling"
  bottom: "pool2/3x3_s2"
  top: "inception_3a/pool"
  pooling_param {
    pool: MAX
    kernel_size: 3
    stride: 1
    pad: 1
  }
}
layer {
  name: "inception_3a/pool_proj"
  type: "Convolution"
  bottom: "inception_3a/pool"
  top: "inception_3a/pool_proj"
  param {
    lr_mult: 1
    decay_mult: 1
  }
  param {
    lr_mult: 2
    decay_mult: 0
  }
  convolution_param {
    num_output: 32
    kernel_size: 1
    weight_filler {
      type: "xavier"
      std: 0.1
    }
    bias_filler {
      type: "constant"
      value: 0.2
    }
  }
}
layer {
  name: "inception_3a/relu_pool_proj"
  type: "ReLU"
  bottom: "inception_3a/pool_proj"
  top: "inception_3a/pool_proj"
}
layer {
  name: "inception_3a/output"
  type: "Concat"
  bottom: "inception_3a/1x1"
  bottom: "inception_3a/3x3"
  bottom: "inception_3a/5x5"
  bottom: "inception_3a/pool_proj"
  top: "inception_3a/output"
}
layer {
  name: "inception_3b/1x1"
  type: "Convolution"
  bottom: "inception_3a/output"
  top: "inception_3b/1x1"
  param {
    lr_mult: 1
    decay_mult: 1
  }
  param {
    lr_mult: 2
    decay_mult: 0
  }
  convolution_param {
    num_output: 128
    kernel_size: 1
    weight_filler {
      type: "xavier"
      std: 0.03
    }
    bias_filler {
      type: "constant"
      value: 0.2
    }
  }
}
layer {
  name: "inception_3b/relu_1x1"
  type: "ReLU"
  bottom: "inception_3b/1x1"
  top: "inception_3b/1x1"
}
layer {
  name: "inception_3b/3x3_reduce"
  type: "Convolution"
  bottom: "inception_3a/output"
  top: "inception_3b/3x3_reduce"
  param {
    lr_mult: 1
    decay_mult: 1
  }
  param {
    lr_mult: 2
    decay_mult: 0
  }
  convolution_param {
    num_output: 128
    kernel_size: 1
    weight_filler {
      type: "xavier"
      std: 0.09
    }
    bias_filler {
      type: "constant"
      value: 0.2
    }
  }
}
layer {
  name: "inception_3b/relu_3x3_reduce"
  type: "ReLU"
  bottom: "inception_3b/3x3_reduce"
  top: "inception_3b/3x3_reduce"
}
layer {
  name: "inception_3b/3x3"
  type: "Convolution"
  bottom: "inception_3b/3x3_reduce"
  top: "inception_3b/3x3"
  param {
    lr_mult: 1
    decay_mult: 1
  }
  param {
    lr_mult: 2
    decay_mult: 0
  }
  convolution_param {
    num_output: 192
    pad: 1
    kernel_size: 3
    weight_filler {
      type: "xavier"
      std: 0.03
    }
    bias_filler {
      type: "constant"
      value: 0.2
    }
  }
}
layer {
  name: "inception_3b/relu_3x3"
  type: "ReLU"
  bottom: "inception_3b/3x3"
  top: "inception_3b/3x3"
}
layer {
  name: "inception_3b/5x5_reduce"
  type: "Convolution"
  bottom: "inception_3a/output"
  top: "inception_3b/5x5_reduce"
  param {
    lr_mult: 1
    decay_mult: 1
  }
  param {
    lr_mult: 2
    decay_mult: 0
  }
  convolution_param {
    num_output: 32
    kernel_size: 1
    weight_filler {
      type: "xavier"
      std: 0.2
    }
    bias_filler {
      type: "constant"
      value: 0.2
    }
  }
}
layer {
  name: "inception_3b/relu_5x5_reduce"
  type: "ReLU"
  bottom: "inception_3b/5x5_reduce"
  top: "inception_3b/5x5_reduce"
}
layer {
  name: "inception_3b/5x5"
  type: "Convolution"
  bottom: "inception_3b/5x5_reduce"
  top: "inception_3b/5x5"
  param {
    lr_mult: 1
    decay_mult: 1
  }
  param {
    lr_mult: 2
    decay_mult: 0
  }
  convolution_param {
    num_output: 96
    pad: 2
    kernel_size: 5
    weight_filler {
      type: "xavier"
      std: 0.03
    }
    bias_filler {
      type: "constant"
      value: 0.2
    }
  }
}
layer {
  name: "inception_3b/relu_5x5"
  type: "ReLU"
  bottom: "inception_3b/5x5"
  top: "inception_3b/5x5"
}
layer {
  name: "inception_3b/pool"
  type: "Pooling"
  bottom: "inception_3a/output"
  top: "inception_3b/pool"
  pooling_param {
    pool: MAX
    kernel_size: 3
    stride: 1
    pad: 1
  }
}
layer {
  name: "inception_3b/pool_proj"
  type: "Convolution"
  bottom: "inception_3b/pool"
  top: "inception_3b/pool_proj"
  param {
    lr_mult: 1
    decay_mult: 1
  }
  param {
    lr_mult: 2
    decay_mult: 0
  }
  convolution_param {
    num_output: 64
    kernel_size: 1
    weight_filler {
      type: "xavier"
      std: 0.1
    }
    bias_filler {
      type: "constant"
      value: 0.2
    }
  }
}
layer {
  name: "inception_3b/relu_pool_proj"
  type: "ReLU"
  bottom: "inception_3b/pool_proj"
  top: "inception_3b/pool_proj"
}
layer {
  name: "inception_3b/output"
  type: "Concat"
  bottom: "inception_3b/1x1"
  bottom: "inception_3b/3x3"
  bottom: "inception_3b/5x5"
  bottom: "inception_3b/pool_proj"
  top: "inception_3b/output"
}
layer {
  name: "pool3/3x3_s2"
  type: "Pooling"
  bottom: "inception_3b/output"
  top: "pool3/3x3_s2"
  pooling_param {
    pool: MAX
    kernel_size: 3
    stride: 2
  }
}
layer {
  name: "inception_4a/1x1"
  type: "Convolution"
  bottom: "pool3/3x3_s2"
  top: "inception_4a/1x1"
  param {
    lr_mult: 1
    decay_mult: 1
  }
  param {
    lr_mult: 2
    decay_mult: 0
  }
  convolution_param {
    num_output: 192
    kernel_size: 1
    weight_filler {
      type: "xavier"
      std: 0.03
    }
    bias_filler {
      type: "constant"
      value: 0.2
    }
  }
}
layer {
  name: "inception_4a/relu_1x1"
  type: "ReLU"
  bottom: "inception_4a/1x1"
  top: "inception_4a/1x1"
}
layer {
  name: "inception_4a/3x3_reduce"
  type: "Convolution"
  bottom: "pool3/3x3_s2"
  top: "inception_4a/3x3_reduce"
  param {
    lr_mult: 1
    decay_mult: 1
  }
  param {
    lr_mult: 2
    decay_mult: 0
  }
  convolution_param {
    num_output: 96
    kernel_size: 1
    weight_filler {
      type: "xavier"
      std: 0.09
    }
    bias_filler {
      type: "constant"
      value: 0.2
    }
  }
}
layer {
  name: "inception_4a/relu_3x3_reduce"
  type: "ReLU"
  bottom: "inception_4a/3x3_reduce"
  top: "inception_4a/3x3_reduce"
}
layer {
  name: "inception_4a/3x3"
  type: "Convolution"
  bottom: "inception_4a/3x3_reduce"
  top: "inception_4a/3x3"
  param {
    lr_mult: 1
    decay_mult: 1
  }
  param {
    lr_mult: 2
    decay_mult: 0
  }
  convolution_param {
    num_output: 208
    pad: 1
    kernel_size: 3
    weight_filler {
      type: "xavier"
      std: 0.03
    }
    bias_filler {
      type: "constant"
      value: 0.2
    }
  }
}
layer {
  name: "inception_4a/relu_3x3"
  type: "ReLU"
  bottom: "inception_4a/3x3"
  top: "inception_4a/3x3"
}
layer {
  name: "inception_4a/5x5_reduce"
  type: "Convolution"
  bottom: "pool3/3x3_s2"
  top: "inception_4a/5x5_reduce"
  param {
    lr_mult: 1
    decay_mult: 1
  }
  param {
    lr_mult: 2
    decay_mult: 0
  }
  convolution_param {
    num_output: 16
    kernel_size: 1
    weight_filler {
      type: "xavier"
      std: 0.2
    }
    bias_filler {
      type: "constant"
      value: 0.2
    }
  }
}
layer {
  name: "inception_4a/relu_5x5_reduce"
  type: "ReLU"
  bottom: "inception_4a/5x5_reduce"
  top: "inception_4a/5x5_reduce"
}
layer {
  name: "inception_4a/5x5"
  type: "Convolution"
  bottom: "inception_4a/5x5_reduce"
  top: "inception_4a/5x5"
  param {
    lr_mult: 1
    decay_mult: 1
  }
  param {
    lr_mult: 2
    decay_mult: 0
  }
  convolution_param {
    num_output: 48
    pad: 2
    kernel_size: 5
    weight_filler {
      type: "xavier"
      std: 0.03
    }
    bias_filler {
      type: "constant"
      value: 0.2
    }
  }
}
layer {
  name: "inception_4a/relu_5x5"
  type: "ReLU"
  bottom: "inception_4a/5x5"
  top: "inception_4a/5x5"
}
layer {
  name: "inception_4a/pool"
  type: "Pooling"
  bottom: "pool3/3x3_s2"
  top: "inception_4a/pool"
  pooling_param {
    pool: MAX
    kernel_size: 3
    stride: 1
    pad: 1
  }
}
layer {
  name: "inception_4a/pool_proj"
  type: "Convolution"
  bottom: "inception_4a/pool"
  top: "inception_4a/pool_proj"
  param {
    lr_mult: 1
    decay_mult: 1
  }
  param {
    lr_mult: 2
    decay_mult: 0
  }
  convolution_param {
    num_output: 64
    kernel_size: 1
    weight_filler {
      type: "xavier"
      std: 0.1
    }
    bias_filler {
      type: "constant"
      value: 0.2
    }
  }
}
layer {
  name: "inception_4a/relu_pool_proj"
  type: "ReLU"
  bottom: "inception_4a/pool_proj"
  top: "inception_4a/pool_proj"
}
layer {
  name: "inception_4a/output"
  type: "Concat"
  bottom: "inception_4a/1x1"
  bottom: "inception_4a/3x3"
  bottom: "inception_4a/5x5"
  bottom: "inception_4a/pool_proj"
  top: "inception_4a/output"
}
layer {
  name: "loss1/ave_pool"
  type: "Pooling"
  bottom: "inception_4a/output"
  top: "loss1/ave_pool"
  pooling_param {
    pool: AVE
    kernel_size: 5
    stride: 3
  }
}
layer {
  name: "loss1/conv"
  type: "Convolution"
  bottom: "loss1/ave_pool"
  top: "loss1/conv"
  param {
    lr_mult: 1
    decay_mult: 1
  }
  param {
    lr_mult: 2
    decay_mult: 0
  }
  convolution_param {
    num_output: 128
    kernel_size: 1
    weight_filler {
      type: "xavier"
      std: 0.08
    }
    bias_filler {
      type: "constant"
      value: 0.2
    }
  }
}
layer {
  name: "loss1/relu_conv"
  type: "ReLU"
  bottom: "loss1/conv"
  top: "loss1/conv"
}
layer {
  name: "loss1/fc"
  type: "InnerProduct"
  bottom: "loss1/conv"
  top: "loss1/fc"
  param {
    lr_mult: 1
    decay_mult: 1
  }
  param {
    lr_mult: 2
    decay_mult: 0
  }
  inner_product_param {
    num_output: 1024
    weight_filler {
      type: "xavier"
      std: 0.02
    }
    bias_filler {
      type: "constant"
      value: 0.2
    }
  }
}
layer {
  name: "loss1/relu_fc"
  type: "ReLU"
  bottom: "loss1/fc"
  top: "loss1/fc"
}
layer {
  name: "loss1/drop_fc"
  type: "Dropout"
  bottom: "loss1/fc"
  top: "loss1/fc"
  dropout_param {
    dropout_ratio: 0.7
  }
}
layer {
  name: "loss1/classifier_plantvillage"
  type: "InnerProduct"
  bottom: "loss1/fc"
  top: "loss1/classifier_plantvillage"
  param {
    lr_mult: 1
    decay_mult: 1
  }
  param {
    lr_mult: 2
    decay_mult: 0
  }
  inner_product_param {
    num_output: 38
    weight_filler {
      type: "xavier"
      std: 0.0009765625
    }
    bias_filler {
      type: "constant"
      value: 0
    }
  }
}
layer {
  name: "inception_4b/1x1"
  type: "Convolution"
  bottom: "inception_4a/output"
  top: "inception_4b/1x1"
  param {
    lr_mult: 1
    decay_mult: 1
  }
  param {
    lr_mult: 2
    decay_mult: 0
  }
  convolution_param {
    num_output: 160
    kernel_size: 1
    weight_filler {
      type: "xavier"
      std: 0.03
    }
    bias_filler {
      type: "constant"
      value: 0.2
    }
  }
}
layer {
  name: "inception_4b/relu_1x1"
  type: "ReLU"
  bottom: "inception_4b/1x1"
  top: "inception_4b/1x1"
}
layer {
  name: "inception_4b/3x3_reduce"
  type: "Convolution"
  bottom: "inception_4a/output"
  top: "inception_4b/3x3_reduce"
  param {
    lr_mult: 1
    decay_mult: 1
  }
  param {
    lr_mult: 2
    decay_mult: 0
  }
  convolution_param {
    num_output: 112
    kernel_size: 1
    weight_filler {
      type: "xavier"
      std: 0.09
    }
    bias_filler {
      type: "constant"
      value: 0.2
    }
  }
}
layer {
  name: "inception_4b/relu_3x3_reduce"
  type: "ReLU"
  bottom: "inception_4b/3x3_reduce"
  top: "inception_4b/3x3_reduce"
}
layer {
  name: "inception_4b/3x3"
  type: "Convolution"
  bottom: "inception_4b/3x3_reduce"
  top: "inception_4b/3x3"
  param {
    lr_mult: 1
    decay_mult: 1
  }
  param {
    lr_mult: 2
    decay_mult: 0
  }
  convolution_param {
    num_output: 224
    pad: 1
    kernel_size: 3
    weight_filler {
      type: "xavier"
      std: 0.03
    }
    bias_filler {
      type: "constant"
      value: 0.2
    }
  }
}
layer {
  name: "inception_4b/relu_3x3"
  type: "ReLU"
  bottom: "inception_4b/3x3"
  top: "inception_4b/3x3"
}
layer {
  name: "inception_4b/5x5_reduce"
  type: "Convolution"
  bottom: "inception_4a/output"
  top: "inception_4b/5x5_reduce"
  param {
    lr_mult: 1
    decay_mult: 1
  }
  param {
    lr_mult: 2
    decay_mult: 0
  }
  convolution_param {
    num_output: 24
    kernel_size: 1
    weight_filler {
      type: "xavier"
      std: 0.2
    }
    bias_filler {
      type: "constant"
      value: 0.2
    }
  }
}
layer {
  name: "inception_4b/relu_5x5_reduce"
  type: "ReLU"
  bottom: "inception_4b/5x5_reduce"
  top: "inception_4b/5x5_reduce"
}
layer {
  name: "inception_4b/5x5"
  type: "Convolution"
  bottom: "inception_4b/5x5_reduce"
  top: "inception_4b/5x5"
  param {
    lr_mult: 1
    decay_mult: 1
  }
  param {
    lr_mult: 2
    decay_mult: 0
  }
  convolution_param {
    num_output: 64
    pad: 2
    kernel_size: 5
    weight_filler {
      type: "xavier"
      std: 0.03
    }
    bias_filler {
      type: "constant"
      value: 0.2
    }
  }
}
layer {
  name: "inception_4b/relu_5x5"
  type: "ReLU"
  bottom: "inception_4b/5x5"
  top: "inception_4b/5x5"
}
layer {
  name: "inception_4b/pool"
  type: "Pooling"
  bottom: "inception_4a/output"
  top: "inception_4b/pool"
  pooling_param {
    pool: MAX
    kernel_size: 3
    stride: 1
    pad: 1
  }
}
layer {
  name: "inception_4b/pool_proj"
  type: "Convolution"
  bottom: "inception_4b/pool"
  top: "inception_4b/pool_proj"
  param {
    lr_mult: 1
    decay_mult: 1
  }
  param {
    lr_mult: 2
    decay_mult: 0
  }
  convolution_param {
    num_output: 64
    kernel_size: 1
    weight_filler {
      type: "xavier"
      std: 0.1
    }
    bias_filler {
      type: "constant"
      value: 0.2
    }
  }
}
layer {
  name: "inception_4b/relu_pool_proj"
  type: "ReLU"
  bottom: "inception_4b/pool_proj"
  top: "inception_4b/pool_proj"
}
layer {
  name: "inception_4b/output"
  type: "Concat"
  bottom: "inception_4b/1x1"
  bottom: "inception_4b/3x3"
  bottom: "inception_4b/5x5"
  bottom: "inception_4b/pool_proj"
  top: "inception_4b/output"
}
layer {
  name: "inception_4c/1x1"
  type: "Convolution"
  bottom: "inception_4b/output"
  top: "inception_4c/1x1"
  param {
    lr_mult: 1
    decay_mult: 1
  }
  param {
    lr_mult: 2
    decay_mult: 0
  }
  convolution_param {
    num_output: 128
    kernel_size: 1
    weight_filler {
      type: "xavier"
      std: 0.03
    }
    bias_filler {
      type: "constant"
      value: 0.2
    }
  }
}
layer {
  name: "inception_4c/relu_1x1"
  type: "ReLU"
  bottom: "inception_4c/1x1"
  top: "inception_4c/1x1"
}
layer {
  name: "inception_4c/3x3_reduce"
  type: "Convolution"
  bottom: "inception_4b/output"
  top: "inception_4c/3x3_reduce"
  param {
    lr_mult: 1
    decay_mult: 1
  }
  param {
    lr_mult: 2
    decay_mult: 0
  }
  convolution_param {
    num_output: 128
    kernel_size: 1
    weight_filler {
      type: "xavier"
      std: 0.09
    }
    bias_filler {
      type: "constant"
      value: 0.2
    }
  }
}
layer {
  name: "inception_4c/relu_3x3_reduce"
  type: "ReLU"
  bottom: "inception_4c/3x3_reduce"
  top: "inception_4c/3x3_reduce"
}
layer {
  name: "inception_4c/3x3"
  type: "Convolution"
  bottom: "inception_4c/3x3_reduce"
  top: "inception_4c/3x3"
  param {
    lr_mult: 1
    decay_mult: 1
  }
  param {
    lr_mult: 2
    decay_mult: 0
  }
  convolution_param {
    num_output: 256
    pad: 1
    kernel_size: 3
    weight_filler {
      type: "xavier"
      std: 0.03
    }
    bias_filler {
      type: "constant"
      value: 0.2
    }
  }
}
layer {
  name: "inception_4c/relu_3x3"
  type: "ReLU"
  bottom: "inception_4c/3x3"
  top: "inception_4c/3x3"
}
layer {
  name: "inception_4c/5x5_reduce"
  type: "Convolution"
  bottom: "inception_4b/output"
  top: "inception_4c/5x5_reduce"
  param {
    lr_mult: 1
    decay_mult: 1
  }
  param {
    lr_mult: 2
    decay_mult: 0
  }
  convolution_param {
    num_output: 24
    kernel_size: 1
    weight_filler {
      type: "xavier"
      std: 0.2
    }
    bias_filler {
      type: "constant"
      value: 0.2
    }
  }
}
layer {
  name: "inception_4c/relu_5x5_reduce"
  type: "ReLU"
  bottom: "inception_4c/5x5_reduce"
  top: "inception_4c/5x5_reduce"
}
layer {
  name: "inception_4c/5x5"
  type: "Convolution"
  bottom: "inception_4c/5x5_reduce"
  top: "inception_4c/5x5"
  param {
    lr_mult: 1
    decay_mult: 1
  }
  param {
    lr_mult: 2
    decay_mult: 0
  }
  convolution_param {
    num_output: 64
    pad: 2
    kernel_size: 5
    weight_filler {
      type: "xavier"
      std: 0.03
    }
    bias_filler {
      type: "constant"
      value: 0.2
    }
  }
}
layer {
  name: "inception_4c/relu_5x5"
  type: "ReLU"
  bottom: "inception_4c/5x5"
  top: "inception_4c/5x5"
}
layer {
  name: "inception_4c/pool"
  type: "Pooling"
  bottom: "inception_4b/output"
  top: "inception_4c/pool"
  pooling_param {
    pool: MAX
    kernel_size: 3
    stride: 1
    pad: 1
  }
}
layer {
  name: "inception_4c/pool_proj"
  type: "Convolution"
  bottom: "inception_4c/pool"
  top: "inception_4c/pool_proj"
  param {
    lr_mult: 1
    decay_mult: 1
  }
  param {
    lr_mult: 2
    decay_mult: 0
  }
  convolution_param {
    num_output: 64
    kernel_size: 1
    weight_filler {
      type: "xavier"
      std: 0.1
    }
    bias_filler {
      type: "constant"
      value: 0.2
    }
  }
}
layer {
  name: "inception_4c/relu_pool_proj"
  type: "ReLU"
  bottom: "inception_4c/pool_proj"
  top: "inception_4c/pool_proj"
}
layer {
  name: "inception_4c/output"
  type: "Concat"
  bottom: "inception_4c/1x1"
  bottom: "inception_4c/3x3"
  bottom: "inception_4c/5x5"
  bottom: "inception_4c/pool_proj"
  top: "inception_4c/output"
}
layer {
  name: "inception_4d/1x1"
  type: "Convolution"
  bottom: "inception_4c/output"
  top: "inception_4d/1x1"
  param {
    lr_mult: 1
    decay_mult: 1
  }
  param {
    lr_mult: 2
    decay_mult: 0
  }
  convolution_param {
    num_output: 112
    kernel_size: 1
    weight_filler {
      type: "xavier"
      std: 0.03
    }
    bias_filler {
      type: "constant"
      value: 0.2
    }
  }
}
layer {
  name: "inception_4d/relu_1x1"
  type: "ReLU"
  bottom: "inception_4d/1x1"
  top: "inception_4d/1x1"
}
layer {
  name: "inception_4d/3x3_reduce"
  type: "Convolution"
  bottom: "inception_4c/output"
  top: "inception_4d/3x3_reduce"
  param {
    lr_mult: 1
    decay_mult: 1
  }
  param {
    lr_mult: 2
    decay_mult: 0
  }
  convolution_param {
    num_output: 144
    kernel_size: 1
    weight_filler {
      type: "xavier"
      std: 0.09
    }
    bias_filler {
      type: "constant"
      value: 0.2
    }
  }
}
layer {
  name: "inception_4d/relu_3x3_reduce"
  type: "ReLU"
  bottom: "inception_4d/3x3_reduce"
  top: "inception_4d/3x3_reduce"
}
layer {
  name: "inception_4d/3x3"
  type: "Convolution"
  bottom: "inception_4d/3x3_reduce"
  top: "inception_4d/3x3"
  param {
    lr_mult: 1
    decay_mult: 1
  }
  param {
    lr_mult: 2
    decay_mult: 0
  }
  convolution_param {
    num_output: 288
    pad: 1
    kernel_size: 3
    weight_filler {
      type: "xavier"
      std: 0.03
    }
    bias_filler {
      type: "constant"
      value: 0.2
    }
  }
}
layer {
  name: "inception_4d/relu_3x3"
  type: "ReLU"
  bottom: "inception_4d/3x3"
  top: "inception_4d/3x3"
}
layer {
  name: "inception_4d/5x5_reduce"
  type: "Convolution"
  bottom: "inception_4c/output"
  top: "inception_4d/5x5_reduce"
  param {
    lr_mult: 1
    decay_mult: 1
  }
  param {
    lr_mult: 2
    decay_mult: 0
  }
  convolution_param {
    num_output: 32
    kernel_size: 1
    weight_filler {
      type: "xavier"
      std: 0.2
    }
    bias_filler {
      type: "constant"
      value: 0.2
    }
  }
}
layer {
  name: "inception_4d/relu_5x5_reduce"
  type: "ReLU"
  bottom: "inception_4d/5x5_reduce"
  top: "inception_4d/5x5_reduce"
}
layer {
  name: "inception_4d/5x5"
  type: "Convolution"
  bottom: "inception_4d/5x5_reduce"
  top: "inception_4d/5x5"
  param {
    lr_mult: 1
    decay_mult: 1
  }
  param {
    lr_mult: 2
    decay_mult: 0
  }
  convolution_param {
    num_output: 64
    pad: 2
    kernel_size: 5
    weight_filler {
      type: "xavier"
      std: 0.03
    }
    bias_filler {
      type: "constant"
      value: 0.2
    }
  }
}
layer {
  name: "inception_4d/relu_5x5"
  type: "ReLU"
  bottom: "inception_4d/5x5"
  top: "inception_4d/5x5"
}
layer {
  name: "inception_4d/pool"
  type: "Pooling"
  bottom: "inception_4c/output"
  top: "inception_4d/pool"
  pooling_param {
    pool: MAX
    kernel_size: 3
    stride: 1
    pad: 1
  }
}
layer {
  name: "inception_4d/pool_proj"
  type: "Convolution"
  bottom: "inception_4d/pool"
  top: "inception_4d/pool_proj"
  param {
    lr_mult: 1
    decay_mult: 1
  }
  param {
    lr_mult: 2
    decay_mult: 0
  }
  convolution_param {
    num_output: 64
    kernel_size: 1
    weight_filler {
      type: "xavier"
      std: 0.1
    }
    bias_filler {
      type: "constant"
      value: 0.2
    }
  }
}
layer {
  name: "inception_4d/relu_pool_proj"
  type: "ReLU"
  bottom: "inception_4d/pool_proj"
  top: "inception_4d/pool_proj"
}
layer {
  name: "inception_4d/output"
  type: "Concat"
  bottom: "inception_4d/1x1"
  bottom: "inception_4d/3x3"
  bottom: "inception_4d/5x5"
  bottom: "inception_4d/pool_proj"
  top: "inception_4d/output"
}
layer {
  name: "loss2/ave_pool"
  type: "Pooling"
  bottom: "inception_4d/output"
  top: "loss2/ave_pool"
  pooling_param {
    pool: AVE
    kernel_size: 5
    stride: 3
  }
}
layer {
  name: "loss2/conv"
  type: "Convolution"
  bottom: "loss2/ave_pool"
  top: "loss2/conv"
  param {
    lr_mult: 1
    decay_mult: 1
  }
  param {
    lr_mult: 2
    decay_mult: 0
  }
  convolution_param {
    num_output: 128
    kernel_size: 1
    weight_filler {
      type: "xavier"
      std: 0.08
    }
    bias_filler {
      type: "constant"
      value: 0.2
    }
  }
}
layer {
  name: "loss2/relu_conv"
  type: "ReLU"
  bottom: "loss2/conv"
  top: "loss2/conv"
}
layer {
  name: "loss2/fc"
  type: "InnerProduct"
  bottom: "loss2/conv"
  top: "loss2/fc"
  param {
    lr_mult: 1
    decay_mult: 1
  }
  param {
    lr_mult: 2
    decay_mult: 0
  }
  inner_product_param {
    num_output: 1024
    weight_filler {
      type: "xavier"
      std: 0.02
    }
    bias_filler {
      type: "constant"
      value: 0.2
    }
  }
}
layer {
  name: "loss2/relu_fc"
  type: "ReLU"
  bottom: "loss2/fc"
  top: "loss2/fc"
}
layer {
  name: "loss2/drop_fc"
  type: "Dropout"
  bottom: "loss2/fc"
  top: "loss2/fc"
  dropout_param {
    dropout_ratio: 0.7
  }
}
layer {
  name: "loss2/classifier_plantvillage"
  type: "InnerProduct"
  bottom: "loss2/fc"
  top: "loss2/classifier_plantvillage"
  param {
    lr_mult: 1
    decay_mult: 1
  }
  param {
    lr_mult: 2
    decay_mult: 0
  }
  inner_product_param {
    num_output: 38
    weight_filler {
      type: "xavier"
      std: 0.0009765625
    }
    bias_filler {
      type: "constant"
      value: 0
    }
  }
}
layer {
  name: "inception_4e/1x1"
  type: "Convolution"
  bottom: "inception_4d/output"
  top: "inception_4e/1x1"
  param {
    lr_mult: 1
    decay_mult: 1
  }
  param {
    lr_mult: 2
    decay_mult: 0
  }
  convolution_param {
    num_output: 256
    kernel_size: 1
    weight_filler {
      type: "xavier"
      std: 0.03
    }
    bias_filler {
      type: "constant"
      value: 0.2
    }
  }
}
layer {
  name: "inception_4e/relu_1x1"
  type: "ReLU"
  bottom: "inception_4e/1x1"
  top: "inception_4e/1x1"
}
layer {
  name: "inception_4e/3x3_reduce"
  type: "Convolution"
  bottom: "inception_4d/output"
  top: "inception_4e/3x3_reduce"
  param {
    lr_mult: 1
    decay_mult: 1
  }
  param {
    lr_mult: 2
    decay_mult: 0
  }
  convolution_param {
    num_output: 160
    kernel_size: 1
    weight_filler {
      type: "xavier"
      std: 0.09
    }
    bias_filler {
      type: "constant"
      value: 0.2
    }
  }
}
layer {
  name: "inception_4e/relu_3x3_reduce"
  type: "ReLU"
  bottom: "inception_4e/3x3_reduce"
  top: "inception_4e/3x3_reduce"
}
layer {
  name: "inception_4e/3x3"
  type: "Convolution"
  bottom: "inception_4e/3x3_reduce"
  top: "inception_4e/3x3"
  param {
    lr_mult: 1
    decay_mult: 1
  }
  param {
    lr_mult: 2
    decay_mult: 0
  }
  convolution_param {
    num_output: 320
    pad: 1
    kernel_size: 3
    weight_filler {
      type: "xavier"
      std: 0.03
    }
    bias_filler {
      type: "constant"
      value: 0.2
    }
  }
}
layer {
  name: "inception_4e/relu_3x3"
  type: "ReLU"
  bottom: "inception_4e/3x3"
  top: "inception_4e/3x3"
}
layer {
  name: "inception_4e/5x5_reduce"
  type: "Convolution"
  bottom: "inception_4d/output"
  top: "inception_4e/5x5_reduce"
  param {
    lr_mult: 1
    decay_mult: 1
  }
  param {
    lr_mult: 2
    decay_mult: 0
  }
  convolution_param {
    num_output: 32
    kernel_size: 1
    weight_filler {
      type: "xavier"
      std: 0.2
    }
    bias_filler {
      type: "constant"
      value: 0.2
    }
  }
}
layer {
  name: "inception_4e/relu_5x5_reduce"
  type: "ReLU"
  bottom: "inception_4e/5x5_reduce"
  top: "inception_4e/5x5_reduce"
}
layer {
  name: "inception_4e/5x5"
  type: "Convolution"
  bottom: "inception_4e/5x5_reduce"
  top: "inception_4e/5x5"
  p
I0403 21:49:15.767559 12939 layer_factory.hpp:77] Creating layer data
I0403 21:49:15.768306 12939 net.cpp:91] Creating Layer data
I0403 21:49:15.768343 12939 net.cpp:399] data -> data
I0403 21:49:15.768404 12939 net.cpp:399] data -> label
I0403 21:49:15.768451 12939 data_transformer.cpp:25] Loading mean file from: /home/mohanty/data/final_dataset/lmdb/color-80-20/mean.binaryproto
I0403 21:49:15.769583 12941 db_lmdb.cpp:38] Opened lmdb /home/mohanty/data/final_dataset/lmdb/color-80-20/test_db
I0403 21:49:15.785106 12939 data_layer.cpp:41] output data size: 24,3,224,224
I0403 21:49:15.818366 12939 net.cpp:141] Setting up data
I0403 21:49:15.818477 12939 net.cpp:148] Top shape: 24 3 224 224 (3612672)
I0403 21:49:15.818506 12939 net.cpp:148] Top shape: 24 (24)
I0403 21:49:15.818526 12939 net.cpp:156] Memory required for data: 14450784
I0403 21:49:15.818560 12939 layer_factory.hpp:77] Creating layer label_data_1_split
I0403 21:49:15.818594 12939 net.cpp:91] Creating Layer label_data_1_split
I0403 21:49:15.818617 12939 net.cpp:425] label_data_1_split <- label
I0403 21:49:15.818657 12939 net.cpp:399] label_data_1_split -> label_data_1_split_0
I0403 21:49:15.818691 12939 net.cpp:399] label_data_1_split -> label_data_1_split_1
I0403 21:49:15.818717 12939 net.cpp:399] label_data_1_split -> label_data_1_split_2
I0403 21:49:15.818742 12939 net.cpp:399] label_data_1_split -> label_data_1_split_3
I0403 21:49:15.818765 12939 net.cpp:399] label_data_1_split -> label_data_1_split_4
I0403 21:49:15.818789 12939 net.cpp:399] label_data_1_split -> label_data_1_split_5
I0403 21:49:15.818812 12939 net.cpp:399] label_data_1_split -> label_data_1_split_6
I0403 21:49:15.818835 12939 net.cpp:399] label_data_1_split -> label_data_1_split_7
I0403 21:49:15.818859 12939 net.cpp:399] label_data_1_split -> label_data_1_split_8
I0403 21:49:15.818884 12939 net.cpp:399] label_data_1_split -> label_data_1_split_9
I0403 21:49:15.819027 12939 net.cpp:141] Setting up label_data_1_split
I0403 21:49:15.819058 12939 net.cpp:148] Top shape: 24 (24)
I0403 21:49:15.819080 12939 net.cpp:148] Top shape: 24 (24)
I0403 21:49:15.819098 12939 net.cpp:148] Top shape: 24 (24)
I0403 21:49:15.819118 12939 net.cpp:148] Top shape: 24 (24)
I0403 21:49:15.819138 12939 net.cpp:148] Top shape: 24 (24)
I0403 21:49:15.819156 12939 net.cpp:148] Top shape: 24 (24)
I0403 21:49:15.819175 12939 net.cpp:148] Top shape: 24 (24)
I0403 21:49:15.819193 12939 net.cpp:148] Top shape: 24 (24)
I0403 21:49:15.819224 12939 net.cpp:148] Top shape: 24 (24)
I0403 21:49:15.819247 12939 net.cpp:148] Top shape: 24 (24)
I0403 21:49:15.819301 12939 net.cpp:156] Memory required for data: 14451744
I0403 21:49:15.819322 12939 layer_factory.hpp:77] Creating layer conv1/7x7_s2
I0403 21:49:15.819363 12939 net.cpp:91] Creating Layer conv1/7x7_s2
I0403 21:49:15.819386 12939 net.cpp:425] conv1/7x7_s2 <- data
I0403 21:49:15.819409 12939 net.cpp:399] conv1/7x7_s2 -> conv1/7x7_s2
I0403 21:49:15.992686 12939 net.cpp:141] Setting up conv1/7x7_s2
I0403 21:49:15.992806 12939 net.cpp:148] Top shape: 24 64 112 112 (19267584)
I0403 21:49:15.992827 12939 net.cpp:156] Memory required for data: 91522080
I0403 21:49:15.992864 12939 layer_factory.hpp:77] Creating layer conv1/relu_7x7
I0403 21:49:15.992898 12939 net.cpp:91] Creating Layer conv1/relu_7x7
I0403 21:49:15.992921 12939 net.cpp:425] conv1/relu_7x7 <- conv1/7x7_s2
I0403 21:49:15.992944 12939 net.cpp:386] conv1/relu_7x7 -> conv1/7x7_s2 (in-place)
I0403 21:49:15.993257 12939 net.cpp:141] Setting up conv1/relu_7x7
I0403 21:49:15.993289 12939 net.cpp:148] Top shape: 24 64 112 112 (19267584)
I0403 21:49:15.993309 12939 net.cpp:156] Memory required for data: 168592416
I0403 21:49:15.993326 12939 layer_factory.hpp:77] Creating layer pool1/3x3_s2
I0403 21:49:15.993358 12939 net.cpp:91] Creating Layer pool1/3x3_s2
I0403 21:49:15.993381 12939 net.cpp:425] pool1/3x3_s2 <- conv1/7x7_s2
I0403 21:49:15.993403 12939 net.cpp:399] pool1/3x3_s2 -> pool1/3x3_s2
I0403 21:49:15.993494 12939 net.cpp:141] Setting up pool1/3x3_s2
I0403 21:49:15.993523 12939 net.cpp:148] Top shape: 24 64 56 56 (4816896)
I0403 21:49:15.993541 12939 net.cpp:156] Memory required for data: 187860000
I0403 21:49:15.993561 12939 layer_factory.hpp:77] Creating layer pool1/norm1
I0403 21:49:15.993590 12939 net.cpp:91] Creating Layer pool1/norm1
I0403 21:49:15.993613 12939 net.cpp:425] pool1/norm1 <- pool1/3x3_s2
I0403 21:49:15.993634 12939 net.cpp:399] pool1/norm1 -> pool1/norm1
I0403 21:49:15.993970 12939 net.cpp:141] Setting up pool1/norm1
I0403 21:49:15.994005 12939 net.cpp:148] Top shape: 24 64 56 56 (4816896)
I0403 21:49:15.994024 12939 net.cpp:156] Memory required for data: 207127584
I0403 21:49:15.994042 12939 layer_factory.hpp:77] Creating layer conv2/3x3_reduce
I0403 21:49:15.994072 12939 net.cpp:91] Creating Layer conv2/3x3_reduce
I0403 21:49:15.994093 12939 net.cpp:425] conv2/3x3_reduce <- pool1/norm1
I0403 21:49:15.994115 12939 net.cpp:399] conv2/3x3_reduce -> conv2/3x3_reduce
I0403 21:49:15.995749 12939 net.cpp:141] Setting up conv2/3x3_reduce
I0403 21:49:15.995786 12939 net.cpp:148] Top shape: 24 64 56 56 (4816896)
I0403 21:49:15.995806 12939 net.cpp:156] Memory required for data: 226395168
I0403 21:49:15.995834 12939 layer_factory.hpp:77] Creating layer conv2/relu_3x3_reduce
I0403 21:49:15.995857 12939 net.cpp:91] Creating Layer conv2/relu_3x3_reduce
I0403 21:49:15.995877 12939 net.cpp:425] conv2/relu_3x3_reduce <- conv2/3x3_reduce
I0403 21:49:15.995899 12939 net.cpp:386] conv2/relu_3x3_reduce -> conv2/3x3_reduce (in-place)
I0403 21:49:15.996208 12939 net.cpp:141] Setting up conv2/relu_3x3_reduce
I0403 21:49:15.996242 12939 net.cpp:148] Top shape: 24 64 56 56 (4816896)
I0403 21:49:15.996259 12939 net.cpp:156] Memory required for data: 245662752
I0403 21:49:15.996279 12939 layer_factory.hpp:77] Creating layer conv2/3x3
I0403 21:49:15.996306 12939 net.cpp:91] Creating Layer conv2/3x3
I0403 21:49:15.996326 12939 net.cpp:425] conv2/3x3 <- conv2/3x3_reduce
I0403 21:49:15.996350 12939 net.cpp:399] conv2/3x3 -> conv2/3x3
I0403 21:49:15.999034 12939 net.cpp:141] Setting up conv2/3x3
I0403 21:49:15.999073 12939 net.cpp:148] Top shape: 24 192 56 56 (14450688)
I0403 21:49:15.999094 12939 net.cpp:156] Memory required for data: 303465504
I0403 21:49:15.999120 12939 layer_factory.hpp:77] Creating layer conv2/relu_3x3
I0403 21:49:15.999145 12939 net.cpp:91] Creating Layer conv2/relu_3x3
I0403 21:49:15.999167 12939 net.cpp:425] conv2/relu_3x3 <- conv2/3x3
I0403 21:49:15.999198 12939 net.cpp:386] conv2/relu_3x3 -> conv2/3x3 (in-place)
I0403 21:49:15.999397 12939 net.cpp:141] Setting up conv2/relu_3x3
I0403 21:49:15.999428 12939 net.cpp:148] Top shape: 24 192 56 56 (14450688)
I0403 21:49:15.999486 12939 net.cpp:156] Memory required for data: 361268256
I0403 21:49:15.999505 12939 layer_factory.hpp:77] Creating layer conv2/norm2
I0403 21:49:15.999529 12939 net.cpp:91] Creating Layer conv2/norm2
I0403 21:49:15.999549 12939 net.cpp:425] conv2/norm2 <- conv2/3x3
I0403 21:49:15.999572 12939 net.cpp:399] conv2/norm2 -> conv2/norm2
I0403 21:49:15.999910 12939 net.cpp:141] Setting up conv2/norm2
I0403 21:49:15.999944 12939 net.cpp:148] Top shape: 24 192 56 56 (14450688)
I0403 21:49:15.999963 12939 net.cpp:156] Memory required for data: 419071008
I0403 21:49:15.999980 12939 layer_factory.hpp:77] Creating layer pool2/3x3_s2
I0403 21:49:16.000004 12939 net.cpp:91] Creating Layer pool2/3x3_s2
I0403 21:49:16.000022 12939 net.cpp:425] pool2/3x3_s2 <- conv2/norm2
I0403 21:49:16.000046 12939 net.cpp:399] pool2/3x3_s2 -> pool2/3x3_s2
I0403 21:49:16.000107 12939 net.cpp:141] Setting up pool2/3x3_s2
I0403 21:49:16.000135 12939 net.cpp:148] Top shape: 24 192 28 28 (3612672)
I0403 21:49:16.000155 12939 net.cpp:156] Memory required for data: 433521696
I0403 21:49:16.000174 12939 layer_factory.hpp:77] Creating layer pool2/3x3_s2_pool2/3x3_s2_0_split
I0403 21:49:16.000203 12939 net.cpp:91] Creating Layer pool2/3x3_s2_pool2/3x3_s2_0_split
I0403 21:49:16.000223 12939 net.cpp:425] pool2/3x3_s2_pool2/3x3_s2_0_split <- pool2/3x3_s2
I0403 21:49:16.000244 12939 net.cpp:399] pool2/3x3_s2_pool2/3x3_s2_0_split -> pool2/3x3_s2_pool2/3x3_s2_0_split_0
I0403 21:49:16.000269 12939 net.cpp:399] pool2/3x3_s2_pool2/3x3_s2_0_split -> pool2/3x3_s2_pool2/3x3_s2_0_split_1
I0403 21:49:16.000293 12939 net.cpp:399] pool2/3x3_s2_pool2/3x3_s2_0_split -> pool2/3x3_s2_pool2/3x3_s2_0_split_2
I0403 21:49:16.000319 12939 net.cpp:399] pool2/3x3_s2_pool2/3x3_s2_0_split -> pool2/3x3_s2_pool2/3x3_s2_0_split_3
I0403 21:49:16.000398 12939 net.cpp:141] Setting up pool2/3x3_s2_pool2/3x3_s2_0_split
I0403 21:49:16.000427 12939 net.cpp:148] Top shape: 24 192 28 28 (3612672)
I0403 21:49:16.000447 12939 net.cpp:148] Top shape: 24 192 28 28 (3612672)
I0403 21:49:16.000465 12939 net.cpp:148] Top shape: 24 192 28 28 (3612672)
I0403 21:49:16.000485 12939 net.cpp:148] Top shape: 24 192 28 28 (3612672)
I0403 21:49:16.000502 12939 net.cpp:156] Memory required for data: 491324448
I0403 21:49:16.000520 12939 layer_factory.hpp:77] Creating layer inception_3a/1x1
I0403 21:49:16.000545 12939 net.cpp:91] Creating Layer inception_3a/1x1
I0403 21:49:16.000566 12939 net.cpp:425] inception_3a/1x1 <- pool2/3x3_s2_pool2/3x3_s2_0_split_0
I0403 21:49:16.000588 12939 net.cpp:399] inception_3a/1x1 -> inception_3a/1x1
I0403 21:49:16.002367 12939 net.cpp:141] Setting up inception_3a/1x1
I0403 21:49:16.002403 12939 net.cpp:148] Top shape: 24 64 28 28 (1204224)
I0403 21:49:16.002424 12939 net.cpp:156] Memory required for data: 496141344
I0403 21:49:16.002449 12939 layer_factory.hpp:77] Creating layer inception_3a/relu_1x1
I0403 21:49:16.002472 12939 net.cpp:91] Creating Layer inception_3a/relu_1x1
I0403 21:49:16.002491 12939 net.cpp:425] inception_3a/relu_1x1 <- inception_3a/1x1
I0403 21:49:16.002512 12939 net.cpp:386] inception_3a/relu_1x1 -> inception_3a/1x1 (in-place)
I0403 21:49:16.002708 12939 net.cpp:141] Setting up inception_3a/relu_1x1
I0403 21:49:16.002740 12939 net.cpp:148] Top shape: 24 64 28 28 (1204224)
I0403 21:49:16.002759 12939 net.cpp:156] Memory required for data: 500958240
I0403 21:49:16.002779 12939 layer_factory.hpp:77] Creating layer inception_3a/3x3_reduce
I0403 21:49:16.002805 12939 net.cpp:91] Creating Layer inception_3a/3x3_reduce
I0403 21:49:16.002826 12939 net.cpp:425] inception_3a/3x3_reduce <- pool2/3x3_s2_pool2/3x3_s2_0_split_1
I0403 21:49:16.002851 12939 net.cpp:399] inception_3a/3x3_reduce -> inception_3a/3x3_reduce
I0403 21:49:16.004855 12939 net.cpp:141] Setting up inception_3a/3x3_reduce
I0403 21:49:16.004899 12939 net.cpp:148] Top shape: 24 96 28 28 (1806336)
I0403 21:49:16.004921 12939 net.cpp:156] Memory required for data: 508183584
I0403 21:49:16.004947 12939 layer_factory.hpp:77] Creating layer inception_3a/relu_3x3_reduce
I0403 21:49:16.004992 12939 net.cpp:91] Creating Layer inception_3a/relu_3x3_reduce
I0403 21:49:16.005013 12939 net.cpp:425] inception_3a/relu_3x3_reduce <- inception_3a/3x3_reduce
I0403 21:49:16.005038 12939 net.cpp:386] inception_3a/relu_3x3_reduce -> inception_3a/3x3_reduce (in-place)
I0403 21:49:16.005266 12939 net.cpp:141] Setting up inception_3a/relu_3x3_reduce
I0403 21:49:16.005300 12939 net.cpp:148] Top shape: 24 96 28 28 (1806336)
I0403 21:49:16.005318 12939 net.cpp:156] Memory required for data: 515408928
I0403 21:49:16.005338 12939 layer_factory.hpp:77] Creating layer inception_3a/3x3
I0403 21:49:16.005365 12939 net.cpp:91] Creating Layer inception_3a/3x3
I0403 21:49:16.005388 12939 net.cpp:425] inception_3a/3x3 <- inception_3a/3x3_reduce
I0403 21:49:16.005414 12939 net.cpp:399] inception_3a/3x3 -> inception_3a/3x3
I0403 21:49:16.007416 12939 net.cpp:141] Setting up inception_3a/3x3
I0403 21:49:16.007454 12939 net.cpp:148] Top shape: 24 128 28 28 (2408448)
I0403 21:49:16.007475 12939 net.cpp:156] Memory required for data: 525042720
I0403 21:49:16.007498 12939 layer_factory.hpp:77] Creating layer inception_3a/relu_3x3
I0403 21:49:16.007520 12939 net.cpp:91] Creating Layer inception_3a/relu_3x3
I0403 21:49:16.007540 12939 net.cpp:425] inception_3a/relu_3x3 <- inception_3a/3x3
I0403 21:49:16.007565 12939 net.cpp:386] inception_3a/relu_3x3 -> inception_3a/3x3 (in-place)
I0403 21:49:16.007890 12939 net.cpp:141] Setting up inception_3a/relu_3x3
I0403 21:49:16.007926 12939 net.cpp:148] Top shape: 24 128 28 28 (2408448)
I0403 21:49:16.007946 12939 net.cpp:156] Memory required for data: 534676512
I0403 21:49:16.007963 12939 layer_factory.hpp:77] Creating layer inception_3a/5x5_reduce
I0403 21:49:16.007992 12939 net.cpp:91] Creating Layer inception_3a/5x5_reduce
I0403 21:49:16.008014 12939 net.cpp:425] inception_3a/5x5_reduce <- pool2/3x3_s2_pool2/3x3_s2_0_split_2
I0403 21:49:16.008038 12939 net.cpp:399] inception_3a/5x5_reduce -> inception_3a/5x5_reduce
I0403 21:49:16.009208 12939 net.cpp:141] Setting up inception_3a/5x5_reduce
I0403 21:49:16.009245 12939 net.cpp:148] Top shape: 24 16 28 28 (301056)
I0403 21:49:16.009265 12939 net.cpp:156] Memory required for data: 535880736
I0403 21:49:16.009289 12939 layer_factory.hpp:77] Creating layer inception_3a/relu_5x5_reduce
I0403 21:49:16.009312 12939 net.cpp:91] Creating Layer inception_3a/relu_5x5_reduce
I0403 21:49:16.009331 12939 net.cpp:425] inception_3a/relu_5x5_reduce <- inception_3a/5x5_reduce
I0403 21:49:16.009357 12939 net.cpp:386] inception_3a/relu_5x5_reduce -> inception_3a/5x5_reduce (in-place)
I0403 21:49:16.009695 12939 net.cpp:141] Setting up inception_3a/relu_5x5_reduce
I0403 21:49:16.009727 12939 net.cpp:148] Top shape: 24 16 28 28 (301056)
I0403 21:49:16.009745 12939 net.cpp:156] Memory required for data: 537084960
I0403 21:49:16.009764 12939 layer_factory.hpp:77] Creating layer inception_3a/5x5
I0403 21:49:16.009793 12939 net.cpp:91] Creating Layer inception_3a/5x5
I0403 21:49:16.009815 12939 net.cpp:425] inception_3a/5x5 <- inception_3a/5x5_reduce
I0403 21:49:16.009842 12939 net.cpp:399] inception_3a/5x5 -> inception_3a/5x5
I0403 21:49:16.011083 12939 net.cpp:141] Setting up inception_3a/5x5
I0403 21:49:16.011117 12939 net.cpp:148] Top shape: 24 32 28 28 (602112)
I0403 21:49:16.011137 12939 net.cpp:156] Memory required for data: 539493408
I0403 21:49:16.011159 12939 layer_factory.hpp:77] Creating layer inception_3a/relu_5x5
I0403 21:49:16.011193 12939 net.cpp:91] Creating Layer inception_3a/relu_5x5
I0403 21:49:16.011215 12939 net.cpp:425] inception_3a/relu_5x5 <- inception_3a/5x5
I0403 21:49:16.011237 12939 net.cpp:386] inception_3a/relu_5x5 -> inception_3a/5x5 (in-place)
I0403 21:49:16.011450 12939 net.cpp:141] Setting up inception_3a/relu_5x5
I0403 21:49:16.011481 12939 net.cpp:148] Top shape: 24 32 28 28 (602112)
I0403 21:49:16.011498 12939 net.cpp:156] Memory required for data: 541901856
I0403 21:49:16.011518 12939 layer_factory.hpp:77] Creating layer inception_3a/pool
I0403 21:49:16.011540 12939 net.cpp:91] Creating Layer inception_3a/pool
I0403 21:49:16.011560 12939 net.cpp:425] inception_3a/pool <- pool2/3x3_s2_pool2/3x3_s2_0_split_3
I0403 21:49:16.011602 12939 net.cpp:399] inception_3a/pool -> inception_3a/pool
I0403 21:49:16.011672 12939 net.cpp:141] Setting up inception_3a/pool
I0403 21:49:16.011701 12939 net.cpp:148] Top shape: 24 192 28 28 (3612672)
I0403 21:49:16.011720 12939 net.cpp:156] Memory required for data: 556352544
I0403 21:49:16.011739 12939 layer_factory.hpp:77] Creating layer inception_3a/pool_proj
I0403 21:49:16.011768 12939 net.cpp:91] Creating Layer inception_3a/pool_proj
I0403 21:49:16.011790 12939 net.cpp:425] inception_3a/pool_proj <- inception_3a/pool
I0403 21:49:16.011812 12939 net.cpp:399] inception_3a/pool_proj -> inception_3a/pool_proj
I0403 21:49:16.013007 12939 net.cpp:141] Setting up inception_3a/pool_proj
I0403 21:49:16.013042 12939 net.cpp:148] Top shape: 24 32 28 28 (602112)
I0403 21:49:16.013062 12939 net.cpp:156] Memory required for data: 558760992
I0403 21:49:16.013090 12939 layer_factory.hpp:77] Creating layer inception_3a/relu_pool_proj
I0403 21:49:16.013115 12939 net.cpp:91] Creating Layer inception_3a/relu_pool_proj
I0403 21:49:16.013134 12939 net.cpp:425] inception_3a/relu_pool_proj <- inception_3a/pool_proj
I0403 21:49:16.013159 12939 net.cpp:386] inception_3a/relu_pool_proj -> inception_3a/pool_proj (in-place)
I0403 21:49:16.013499 12939 net.cpp:141] Setting up inception_3a/relu_pool_proj
I0403 21:49:16.013532 12939 net.cpp:148] Top shape: 24 32 28 28 (602112)
I0403 21:49:16.013555 12939 net.cpp:156] Memory required for data: 561169440
I0403 21:49:16.013573 12939 layer_factory.hpp:77] Creating layer inception_3a/output
I0403 21:49:16.013595 12939 net.cpp:91] Creating Layer inception_3a/output
I0403 21:49:16.013615 12939 net.cpp:425] inception_3a/output <- inception_3a/1x1
I0403 21:49:16.013635 12939 net.cpp:425] inception_3a/output <- inception_3a/3x3
I0403 21:49:16.013655 12939 net.cpp:425] inception_3a/output <- inception_3a/5x5
I0403 21:49:16.013675 12939 net.cpp:425] inception_3a/output <- inception_3a/pool_proj
I0403 21:49:16.013696 12939 net.cpp:399] inception_3a/output -> inception_3a/output
I0403 21:49:16.013756 12939 net.cpp:141] Setting up inception_3a/output
I0403 21:49:16.013784 12939 net.cpp:148] Top shape: 24 256 28 28 (4816896)
I0403 21:49:16.013803 12939 net.cpp:156] Memory required for data: 580437024
I0403 21:49:16.013821 12939 layer_factory.hpp:77] Creating layer inception_3a/output_inception_3a/output_0_split
I0403 21:49:16.013845 12939 net.cpp:91] Creating Layer inception_3a/output_inception_3a/output_0_split
I0403 21:49:16.013865 12939 net.cpp:425] inception_3a/output_inception_3a/output_0_split <- inception_3a/output
I0403 21:49:16.013886 12939 net.cpp:399] inception_3a/output_inception_3a/output_0_split -> inception_3a/output_inception_3a/output_0_split_0
I0403 21:49:16.013911 12939 net.cpp:399] inception_3a/output_inception_3a/output_0_split -> inception_3a/output_inception_3a/output_0_split_1
I0403 21:49:16.013942 12939 net.cpp:399] inception_3a/output_inception_3a/output_0_split -> inception_3a/output_inception_3a/output_0_split_2
I0403 21:49:16.013968 12939 net.cpp:399] inception_3a/output_inception_3a/output_0_split -> inception_3a/output_inception_3a/output_0_split_3
I0403 21:49:16.014058 12939 net.cpp:141] Setting up inception_3a/output_inception_3a/output_0_split
I0403 21:49:16.014086 12939 net.cpp:148] Top shape: 24 256 28 28 (4816896)
I0403 21:49:16.014111 12939 net.cpp:148] Top shape: 24 256 28 28 (4816896)
I0403 21:49:16.014132 12939 net.cpp:148] Top shape: 24 256 28 28 (4816896)
I0403 21:49:16.014152 12939 net.cpp:148] Top shape: 24 256 28 28 (4816896)
I0403 21:49:16.014168 12939 net.cpp:156] Memory required for data: 657507360
I0403 21:49:16.014192 12939 layer_factory.hpp:77] Creating layer inception_3b/1x1
I0403 21:49:16.014220 12939 net.cpp:91] Creating Layer inception_3b/1x1
I0403 21:49:16.014240 12939 net.cpp:425] inception_3b/1x1 <- inception_3a/output_inception_3a/output_0_split_0
I0403 21:49:16.014266 12939 net.cpp:399] inception_3b/1x1 -> inception_3b/1x1
I0403 21:49:16.015640 12939 net.cpp:141] Setting up inception_3b/1x1
I0403 21:49:16.015686 12939 net.cpp:148] Top shape: 24 128 28 28 (2408448)
I0403 21:49:16.015707 12939 net.cpp:156] Memory required for data: 667141152
I0403 21:49:16.015729 12939 layer_factory.hpp:77] Creating layer inception_3b/relu_1x1
I0403 21:49:16.015755 12939 net.cpp:91] Creating Layer inception_3b/relu_1x1
I0403 21:49:16.015775 12939 net.cpp:425] inception_3b/relu_1x1 <- inception_3b/1x1
I0403 21:49:16.015796 12939 net.cpp:386] inception_3b/relu_1x1 -> inception_3b/1x1 (in-place)
I0403 21:49:16.016010 12939 net.cpp:141] Setting up inception_3b/relu_1x1
I0403 21:49:16.016043 12939 net.cpp:148] Top shape: 24 128 28 28 (2408448)
I0403 21:49:16.016062 12939 net.cpp:156] Memory required for data: 676774944
I0403 21:49:16.016082 12939 layer_factory.hpp:77] Creating layer inception_3b/3x3_reduce
I0403 21:49:16.016108 12939 net.cpp:91] Creating Layer inception_3b/3x3_reduce
I0403 21:49:16.016130 12939 net.cpp:425] inception_3b/3x3_reduce <- inception_3a/output_inception_3a/output_0_split_1
I0403 21:49:16.016154 12939 net.cpp:399] inception_3b/3x3_reduce -> inception_3b/3x3_reduce
I0403 21:49:16.017531 12939 net.cpp:141] Setting up inception_3b/3x3_reduce
I0403 21:49:16.017565 12939 net.cpp:148] Top shape: 24 128 28 28 (2408448)
I0403 21:49:16.017585 12939 net.cpp:156] Memory required for data: 686408736
I0403 21:49:16.017607 12939 layer_factory.hpp:77] Creating layer inception_3b/relu_3x3_reduce
I0403 21:49:16.017632 12939 net.cpp:91] Creating Layer inception_3b/relu_3x3_reduce
I0403 21:49:16.017652 12939 net.cpp:425] inception_3b/relu_3x3_reduce <- inception_3b/3x3_reduce
I0403 21:49:16.017673 12939 net.cpp:386] inception_3b/relu_3x3_reduce -> inception_3b/3x3_reduce (in-place)
I0403 21:49:16.017881 12939 net.cpp:141] Setting up inception_3b/relu_3x3_reduce
I0403 21:49:16.017915 12939 net.cpp:148] Top shape: 24 128 28 28 (2408448)
I0403 21:49:16.017933 12939 net.cpp:156] Memory required for data: 696042528
I0403 21:49:16.017953 12939 layer_factory.hpp:77] Creating layer inception_3b/3x3
I0403 21:49:16.017982 12939 net.cpp:91] Creating Layer inception_3b/3x3
I0403 21:49:16.018004 12939 net.cpp:425] inception_3b/3x3 <- inception_3b/3x3_reduce
I0403 21:49:16.018029 12939 net.cpp:399] inception_3b/3x3 -> inception_3b/3x3
I0403 21:49:16.021545 12939 net.cpp:141] Setting up inception_3b/3x3
I0403 21:49:16.021585 12939 net.cpp:148] Top shape: 24 192 28 28 (3612672)
I0403 21:49:16.021606 12939 net.cpp:156] Memory required for data: 710493216
I0403 21:49:16.021630 12939 layer_factory.hpp:77] Creating layer inception_3b/relu_3x3
I0403 21:49:16.021651 12939 net.cpp:91] Creating Layer inception_3b/relu_3x3
I0403 21:49:16.021672 12939 net.cpp:425] inception_3b/relu_3x3 <- inception_3b/3x3
I0403 21:49:16.021695 12939 net.cpp:386] inception_3b/relu_3x3 -> inception_3b/3x3 (in-place)
I0403 21:49:16.022027 12939 net.cpp:141] Setting up inception_3b/relu_3x3
I0403 21:49:16.022063 12939 net.cpp:148] Top shape: 24 192 28 28 (3612672)
I0403 21:49:16.022083 12939 net.cpp:156] Memory required for data: 724943904
I0403 21:49:16.022101 12939 layer_factory.hpp:77] Creating layer inception_3b/5x5_reduce
I0403 21:49:16.022130 12939 net.cpp:91] Creating Layer inception_3b/5x5_reduce
I0403 21:49:16.022152 12939 net.cpp:425] inception_3b/5x5_reduce <- inception_3a/output_inception_3a/output_0_split_2
I0403 21:49:16.022188 12939 net.cpp:399] inception_3b/5x5_reduce -> inception_3b/5x5_reduce
I0403 21:49:16.023383 12939 net.cpp:141] Setting up inception_3b/5x5_reduce
I0403 21:49:16.023422 12939 net.cpp:148] Top shape: 24 32 28 28 (602112)
I0403 21:49:16.023442 12939 net.cpp:156] Memory required for data: 727352352
I0403 21:49:16.023464 12939 layer_factory.hpp:77] Creating layer inception_3b/relu_5x5_reduce
I0403 21:49:16.023488 12939 net.cpp:91] Creating Layer inception_3b/relu_5x5_reduce
I0403 21:49:16.023507 12939 net.cpp:425] inception_3b/relu_5x5_reduce <- inception_3b/5x5_reduce
I0403 21:49:16.023532 12939 net.cpp:386] inception_3b/relu_5x5_reduce -> inception_3b/5x5_reduce (in-place)
I0403 21:49:16.023746 12939 net.cpp:141] Setting up inception_3b/relu_5x5_reduce
I0403 21:49:16.023792 12939 net.cpp:148] Top shape: 24 32 28 28 (602112)
I0403 21:49:16.023810 12939 net.cpp:156] Memory required for data: 729760800
I0403 21:49:16.023829 12939 layer_factory.hpp:77] Creating layer inception_3b/5x5
I0403 21:49:16.023857 12939 net.cpp:91] Creating Layer inception_3b/5x5
I0403 21:49:16.023880 12939 net.cpp:425] inception_3b/5x5 <- inception_3b/5x5_reduce
I0403 21:49:16.023905 12939 net.cpp:399] inception_3b/5x5 -> inception_3b/5x5
I0403 21:49:16.026293 12939 net.cpp:141] Setting up inception_3b/5x5
I0403 21:49:16.026329 12939 net.cpp:148] Top shape: 24 96 28 28 (1806336)
I0403 21:49:16.026347 12939 net.cpp:156] Memory required for data: 736986144
I0403 21:49:16.026371 12939 layer_factory.hpp:77] Creating layer inception_3b/relu_5x5
I0403 21:49:16.026396 12939 net.cpp:91] Creating Layer inception_3b/relu_5x5
I0403 21:49:16.026418 12939 net.cpp:425] inception_3b/relu_5x5 <- inception_3b/5x5
I0403 21:49:16.026440 12939 net.cpp:386] inception_3b/relu_5x5 -> inception_3b/5x5 (in-place)
I0403 21:49:16.026672 12939 net.cpp:141] Setting up inception_3b/relu_5x5
I0403 21:49:16.026703 12939 net.cpp:148] Top shape: 24 96 28 28 (1806336)
I0403 21:49:16.026721 12939 net.cpp:156] Memory required for data: 744211488
I0403 21:49:16.026741 12939 layer_factory.hpp:77] Creating layer inception_3b/pool
I0403 21:49:16.026764 12939 net.cpp:91] Creating Layer inception_3b/pool
I0403 21:49:16.026784 12939 net.cpp:425] inception_3b/pool <- inception_3a/output_inception_3a/output_0_split_3
I0403 21:49:16.026805 12939 net.cpp:399] inception_3b/pool -> inception_3b/pool
I0403 21:49:16.026875 12939 net.cpp:141] Setting up inception_3b/pool
I0403 21:49:16.026904 12939 net.cpp:148] Top shape: 24 256 28 28 (4816896)
I0403 21:49:16.026923 12939 net.cpp:156] Memory required for data: 763479072
I0403 21:49:16.026942 12939 layer_factory.hpp:77] Creating layer inception_3b/pool_proj
I0403 21:49:16.026968 12939 net.cpp:91] Creating Layer inception_3b/pool_proj
I0403 21:49:16.026991 12939 net.cpp:425] inception_3b/pool_proj <- inception_3b/pool
I0403 21:49:16.027016 12939 net.cpp:399] inception_3b/pool_proj -> inception_3b/pool_proj
I0403 21:49:16.028311 12939 net.cpp:141] Setting up inception_3b/pool_proj
I0403 21:49:16.028344 12939 net.cpp:148] Top shape: 24 64 28 28 (1204224)
I0403 21:49:16.028362 12939 net.cpp:156] Memory required for data: 768295968
I0403 21:49:16.028386 12939 layer_factory.hpp:77] Creating layer inception_3b/relu_pool_proj
I0403 21:49:16.028409 12939 net.cpp:91] Creating Layer inception_3b/relu_pool_proj
I0403 21:49:16.028429 12939 net.cpp:425] inception_3b/relu_pool_proj <- inception_3b/pool_proj
I0403 21:49:16.028452 12939 net.cpp:386] inception_3b/relu_pool_proj -> inception_3b/pool_proj (in-place)
I0403 21:49:16.028898 12939 net.cpp:141] Setting up inception_3b/relu_pool_proj
I0403 21:49:16.028931 12939 net.cpp:148] Top shape: 24 64 28 28 (1204224)
I0403 21:49:16.028951 12939 net.cpp:156] Memory required for data: 773112864
I0403 21:49:16.028970 12939 layer_factory.hpp:77] Creating layer inception_3b/output
I0403 21:49:16.028992 12939 net.cpp:91] Creating Layer inception_3b/output
I0403 21:49:16.029011 12939 net.cpp:425] inception_3b/output <- inception_3b/1x1
I0403 21:49:16.029033 12939 net.cpp:425] inception_3b/output <- inception_3b/3x3
I0403 21:49:16.029054 12939 net.cpp:425] inception_3b/output <- inception_3b/5x5
I0403 21:49:16.029073 12939 net.cpp:425] inception_3b/output <- inception_3b/pool_proj
I0403 21:49:16.029098 12939 net.cpp:399] inception_3b/output -> inception_3b/output
I0403 21:49:16.029151 12939 net.cpp:141] Setting up inception_3b/output
I0403 21:49:16.029186 12939 net.cpp:148] Top shape: 24 480 28 28 (9031680)
I0403 21:49:16.029206 12939 net.cpp:156] Memory required for data: 809239584
I0403 21:49:16.029224 12939 layer_factory.hpp:77] Creating layer pool3/3x3_s2
I0403 21:49:16.029253 12939 net.cpp:91] Creating Layer pool3/3x3_s2
I0403 21:49:16.029273 12939 net.cpp:425] pool3/3x3_s2 <- inception_3b/output
I0403 21:49:16.029295 12939 net.cpp:399] pool3/3x3_s2 -> pool3/3x3_s2
I0403 21:49:16.029384 12939 net.cpp:141] Setting up pool3/3x3_s2
I0403 21:49:16.029413 12939 net.cpp:148] Top shape: 24 480 14 14 (2257920)
I0403 21:49:16.029431 12939 net.cpp:156] Memory required for data: 818271264
I0403 21:49:16.029449 12939 layer_factory.hpp:77] Creating layer pool3/3x3_s2_pool3/3x3_s2_0_split
I0403 21:49:16.029474 12939 net.cpp:91] Creating Layer pool3/3x3_s2_pool3/3x3_s2_0_split
I0403 21:49:16.029495 12939 net.cpp:425] pool3/3x3_s2_pool3/3x3_s2_0_split <- pool3/3x3_s2
I0403 21:49:16.029516 12939 net.cpp:399] pool3/3x3_s2_pool3/3x3_s2_0_split -> pool3/3x3_s2_pool3/3x3_s2_0_split_0
I0403 21:49:16.029541 12939 net.cpp:399] pool3/3x3_s2_pool3/3x3_s2_0_split -> pool3/3x3_s2_pool3/3x3_s2_0_split_1
I0403 21:49:16.029564 12939 net.cpp:399] pool3/3x3_s2_pool3/3x3_s2_0_split -> pool3/3x3_s2_pool3/3x3_s2_0_split_2
I0403 21:49:16.029588 12939 net.cpp:399] pool3/3x3_s2_pool3/3x3_s2_0_split -> pool3/3x3_s2_pool3/3x3_s2_0_split_3
I0403 21:49:16.029682 12939 net.cpp:141] Setting up pool3/3x3_s2_pool3/3x3_s2_0_split
I0403 21:49:16.029711 12939 net.cpp:148] Top shape: 24 480 14 14 (2257920)
I0403 21:49:16.029732 12939 net.cpp:148] Top shape: 24 480 14 14 (2257920)
I0403 21:49:16.029752 12939 net.cpp:148] Top shape: 24 480 14 14 (2257920)
I0403 21:49:16.029772 12939 net.cpp:148] Top shape: 24 480 14 14 (2257920)
I0403 21:49:16.029789 12939 net.cpp:156] Memory required for data: 854397984
I0403 21:49:16.029808 12939 layer_factory.hpp:77] Creating layer inception_4a/1x1
I0403 21:49:16.029836 12939 net.cpp:91] Creating Layer inception_4a/1x1
I0403 21:49:16.029857 12939 net.cpp:425] inception_4a/1x1 <- pool3/3x3_s2_pool3/3x3_s2_0_split_0
I0403 21:49:16.029883 12939 net.cpp:399] inception_4a/1x1 -> inception_4a/1x1
I0403 21:49:16.031790 12939 net.cpp:141] Setting up inception_4a/1x1
I0403 21:49:16.031822 12939 net.cpp:148] Top shape: 24 192 14 14 (903168)
I0403 21:49:16.031842 12939 net.cpp:156] Memory required for data: 858010656
I0403 21:49:16.031865 12939 layer_factory.hpp:77] Creating layer inception_4a/relu_1x1
I0403 21:49:16.031890 12939 net.cpp:91] Creating Layer inception_4a/relu_1x1
I0403 21:49:16.031911 12939 net.cpp:425] inception_4a/relu_1x1 <- inception_4a/1x1
I0403 21:49:16.031932 12939 net.cpp:386] inception_4a/relu_1x1 -> inception_4a/1x1 (in-place)
I0403 21:49:16.032143 12939 net.cpp:141] Setting up inception_4a/relu_1x1
I0403 21:49:16.032176 12939 net.cpp:148] Top shape: 24 192 14 14 (903168)
I0403 21:49:16.032214 12939 net.cpp:156] Memory required for data: 861623328
I0403 21:49:16.032237 12939 layer_factory.hpp:77] Creating layer inception_4a/3x3_reduce
I0403 21:49:16.032260 12939 net.cpp:91] Creating Layer inception_4a/3x3_reduce
I0403 21:49:16.032280 12939 net.cpp:425] inception_4a/3x3_reduce <- pool3/3x3_s2_pool3/3x3_s2_0_split_1
I0403 21:49:16.032306 12939 net.cpp:399] inception_4a/3x3_reduce -> inception_4a/3x3_reduce
I0403 21:49:16.033852 12939 net.cpp:141] Setting up inception_4a/3x3_reduce
I0403 21:49:16.033887 12939 net.cpp:148] Top shape: 24 96 14 14 (451584)
I0403 21:49:16.033906 12939 net.cpp:156] Memory required for data: 863429664
I0403 21:49:16.033937 12939 layer_factory.hpp:77] Creating layer inception_4a/relu_3x3_reduce
I0403 21:49:16.033962 12939 net.cpp:91] Creating Layer inception_4a/relu_3x3_reduce
I0403 21:49:16.033982 12939 net.cpp:425] inception_4a/relu_3x3_reduce <- inception_4a/3x3_reduce
I0403 21:49:16.034008 12939 net.cpp:386] inception_4a/relu_3x3_reduce -> inception_4a/3x3_reduce (in-place)
I0403 21:49:16.034234 12939 net.cpp:141] Setting up inception_4a/relu_3x3_reduce
I0403 21:49:16.034265 12939 net.cpp:148] Top shape: 24 96 14 14 (451584)
I0403 21:49:16.034283 12939 net.cpp:156] Memory required for data: 865236000
I0403 21:49:16.034301 12939 layer_factory.hpp:77] Creating layer inception_4a/3x3
I0403 21:49:16.034328 12939 net.cpp:91] Creating Layer inception_4a/3x3
I0403 21:49:16.034350 12939 net.cpp:425] inception_4a/3x3 <- inception_4a/3x3_reduce
I0403 21:49:16.034378 12939 net.cpp:399] inception_4a/3x3 -> inception_4a/3x3
I0403 21:49:16.037642 12939 net.cpp:141] Setting up inception_4a/3x3
I0403 21:49:16.037677 12939 net.cpp:148] Top shape: 24 208 14 14 (978432)
I0403 21:49:16.037696 12939 net.cpp:156] Memory required for data: 869149728
I0403 21:49:16.037720 12939 layer_factory.hpp:77] Creating layer inception_4a/relu_3x3
I0403 21:49:16.037750 12939 net.cpp:91] Creating Layer inception_4a/relu_3x3
I0403 21:49:16.037771 12939 net.cpp:425] inception_4a/relu_3x3 <- inception_4a/3x3
I0403 21:49:16.037794 12939 net.cpp:386] inception_4a/relu_3x3 -> inception_4a/3x3 (in-place)
I0403 21:49:16.038125 12939 net.cpp:141] Setting up inception_4a/relu_3x3
I0403 21:49:16.038158 12939 net.cpp:148] Top shape: 24 208 14 14 (978432)
I0403 21:49:16.038183 12939 net.cpp:156] Memory required for data: 873063456
I0403 21:49:16.038204 12939 layer_factory.hpp:77] Creating layer inception_4a/5x5_reduce
I0403 21:49:16.038233 12939 net.cpp:91] Creating Layer inception_4a/5x5_reduce
I0403 21:49:16.038260 12939 net.cpp:425] inception_4a/5x5_reduce <- pool3/3x3_s2_pool3/3x3_s2_0_split_2
I0403 21:49:16.038285 12939 net.cpp:399] inception_4a/5x5_reduce -> inception_4a/5x5_reduce
I0403 21:49:16.039521 12939 net.cpp:141] Setting up inception_4a/5x5_reduce
I0403 21:49:16.039556 12939 net.cpp:148] Top shape: 24 16 14 14 (75264)
I0403 21:49:16.039574 12939 net.cpp:156] Memory required for data: 873364512
I0403 21:49:16.039597 12939 layer_factory.hpp:77] Creating layer inception_4a/relu_5x5_reduce
I0403 21:49:16.039623 12939 net.cpp:91] Creating Layer inception_4a/relu_5x5_reduce
I0403 21:49:16.039644 12939 net.cpp:425] inception_4a/relu_5x5_reduce <- inception_4a/5x5_reduce
I0403 21:49:16.039666 12939 net.cpp:386] inception_4a/relu_5x5_reduce -> inception_4a/5x5_reduce (in-place)
I0403 21:49:16.039892 12939 net.cpp:141] Setting up inception_4a/relu_5x5_reduce
I0403 21:49:16.039923 12939 net.cpp:148] Top shape: 24 16 14 14 (75264)
I0403 21:49:16.039942 12939 net.cpp:156] Memory required for data: 873665568
I0403 21:49:16.039963 12939 layer_factory.hpp:77] Creating layer inception_4a/5x5
I0403 21:49:16.039989 12939 net.cpp:91] Creating Layer inception_4a/5x5
I0403 21:49:16.040012 12939 net.cpp:425] inception_4a/5x5 <- inception_4a/5x5_reduce
I0403 21:49:16.040038 12939 net.cpp:399] inception_4a/5x5 -> inception_4a/5x5
I0403 21:49:16.041371 12939 net.cpp:141] Setting up inception_4a/5x5
I0403 21:49:16.041405 12939 net.cpp:148] Top shape: 24 48 14 14 (225792)
I0403 21:49:16.041424 12939 net.cpp:156] Memory required for data: 874568736
I0403 21:49:16.041447 12939 layer_factory.hpp:77] Creating layer inception_4a/relu_5x5
I0403 21:49:16.041470 12939 net.cpp:91] Creating Layer inception_4a/relu_5x5
I0403 21:49:16.041489 12939 net.cpp:425] inception_4a/relu_5x5 <- inception_4a/5x5
I0403 21:49:16.041514 12939 net.cpp:386] inception_4a/relu_5x5 -> inception_4a/5x5 (in-place)
I0403 21:49:16.041731 12939 net.cpp:141] Setting up inception_4a/relu_5x5
I0403 21:49:16.041764 12939 net.cpp:148] Top shape: 24 48 14 14 (225792)
I0403 21:49:16.041781 12939 net.cpp:156] Memory required for data: 875471904
I0403 21:49:16.041801 12939 layer_factory.hpp:77] Creating layer inception_4a/pool
I0403 21:49:16.041829 12939 net.cpp:91] Creating Layer inception_4a/pool
I0403 21:49:16.041851 12939 net.cpp:425] inception_4a/pool <- pool3/3x3_s2_pool3/3x3_s2_0_split_3
I0403 21:49:16.041874 12939 net.cpp:399] inception_4a/pool -> inception_4a/pool
I0403 21:49:16.041952 12939 net.cpp:141] Setting up inception_4a/pool
I0403 21:49:16.041981 12939 net.cpp:148] Top shape: 24 480 14 14 (2257920)
I0403 21:49:16.042001 12939 net.cpp:156] Memory required for data: 884503584
I0403 21:49:16.042019 12939 layer_factory.hpp:77] Creating layer inception_4a/pool_proj
I0403 21:49:16.042047 12939 net.cpp:91] Creating Layer inception_4a/pool_proj
I0403 21:49:16.042071 12939 net.cpp:425] inception_4a/pool_proj <- inception_4a/pool
I0403 21:49:16.042098 12939 net.cpp:399] inception_4a/pool_proj -> inception_4a/pool_proj
I0403 21:49:16.043543 12939 net.cpp:141] Setting up inception_4a/pool_proj
I0403 21:49:16.043582 12939 net.cpp:148] Top shape: 24 64 14 14 (301056)
I0403 21:49:16.043620 12939 net.cpp:156] Memory required for data: 885707808
I0403 21:49:16.043644 12939 layer_factory.hpp:77] Creating layer inception_4a/relu_pool_proj
I0403 21:49:16.043669 12939 net.cpp:91] Creating Layer inception_4a/relu_pool_proj
I0403 21:49:16.043690 12939 net.cpp:425] inception_4a/relu_pool_proj <- inception_4a/pool_proj
I0403 21:49:16.043712 12939 net.cpp:386] inception_4a/relu_pool_proj -> inception_4a/pool_proj (in-place)
I0403 21:49:16.044054 12939 net.cpp:141] Setting up inception_4a/relu_pool_proj
I0403 21:49:16.044086 12939 net.cpp:148] Top shape: 24 64 14 14 (301056)
I0403 21:49:16.044105 12939 net.cpp:156] Memory required for data: 886912032
I0403 21:49:16.044122 12939 layer_factory.hpp:77] Creating layer inception_4a/output
I0403 21:49:16.044144 12939 net.cpp:91] Creating Layer inception_4a/output
I0403 21:49:16.044164 12939 net.cpp:425] inception_4a/output <- inception_4a/1x1
I0403 21:49:16.044193 12939 net.cpp:425] inception_4a/output <- inception_4a/3x3
I0403 21:49:16.044215 12939 net.cpp:425] inception_4a/output <- inception_4a/5x5
I0403 21:49:16.044235 12939 net.cpp:425] inception_4a/output <- inception_4a/pool_proj
I0403 21:49:16.044260 12939 net.cpp:399] inception_4a/output -> inception_4a/output
I0403 21:49:16.044314 12939 net.cpp:141] Setting up inception_4a/output
I0403 21:49:16.044348 12939 net.cpp:148] Top shape: 24 512 14 14 (2408448)
I0403 21:49:16.044368 12939 net.cpp:156] Memory required for data: 896545824
I0403 21:49:16.044386 12939 layer_factory.hpp:77] Creating layer inception_4a/output_inception_4a/output_0_split
I0403 21:49:16.044409 12939 net.cpp:91] Creating Layer inception_4a/output_inception_4a/output_0_split
I0403 21:49:16.044428 12939 net.cpp:425] inception_4a/output_inception_4a/output_0_split <- inception_4a/output
I0403 21:49:16.044453 12939 net.cpp:399] inception_4a/output_inception_4a/output_0_split -> inception_4a/output_inception_4a/output_0_split_0
I0403 21:49:16.044481 12939 net.cpp:399] inception_4a/output_inception_4a/output_0_split -> inception_4a/output_inception_4a/output_0_split_1
I0403 21:49:16.044505 12939 net.cpp:399] inception_4a/output_inception_4a/output_0_split -> inception_4a/output_inception_4a/output_0_split_2
I0403 21:49:16.044530 12939 net.cpp:399] inception_4a/output_inception_4a/output_0_split -> inception_4a/output_inception_4a/output_0_split_3
I0403 21:49:16.044555 12939 net.cpp:399] inception_4a/output_inception_4a/output_0_split -> inception_4a/output_inception_4a/output_0_split_4
I0403 21:49:16.044669 12939 net.cpp:141] Setting up inception_4a/output_inception_4a/output_0_split
I0403 21:49:16.044698 12939 net.cpp:148] Top shape: 24 512 14 14 (2408448)
I0403 21:49:16.044721 12939 net.cpp:148] Top shape: 24 512 14 14 (2408448)
I0403 21:49:16.044741 12939 net.cpp:148] Top shape: 24 512 14 14 (2408448)
I0403 21:49:16.044761 12939 net.cpp:148] Top shape: 24 512 14 14 (2408448)
I0403 21:49:16.044781 12939 net.cpp:148] Top shape: 24 512 14 14 (2408448)
I0403 21:49:16.044800 12939 net.cpp:156] Memory required for data: 944714784
I0403 21:49:16.044817 12939 layer_factory.hpp:77] Creating layer loss1/ave_pool
I0403 21:49:16.044838 12939 net.cpp:91] Creating Layer loss1/ave_pool
I0403 21:49:16.044857 12939 net.cpp:425] loss1/ave_pool <- inception_4a/output_inception_4a/output_0_split_0
I0403 21:49:16.044884 12939 net.cpp:399] loss1/ave_pool -> loss1/ave_pool
I0403 21:49:16.045135 12939 net.cpp:141] Setting up loss1/ave_pool
I0403 21:49:16.045167 12939 net.cpp:148] Top shape: 24 512 4 4 (196608)
I0403 21:49:16.045197 12939 net.cpp:156] Memory required for data: 945501216
I0403 21:49:16.045215 12939 layer_factory.hpp:77] Creating layer loss1/conv
I0403 21:49:16.045244 12939 net.cpp:91] Creating Layer loss1/conv
I0403 21:49:16.045269 12939 net.cpp:425] loss1/conv <- loss1/ave_pool
I0403 21:49:16.045295 12939 net.cpp:399] loss1/conv -> loss1/conv
I0403 21:49:16.047000 12939 net.cpp:141] Setting up loss1/conv
I0403 21:49:16.047036 12939 net.cpp:148] Top shape: 24 128 4 4 (49152)
I0403 21:49:16.047055 12939 net.cpp:156] Memory required for data: 945697824
I0403 21:49:16.047096 12939 layer_factory.hpp:77] Creating layer loss1/relu_conv
I0403 21:49:16.047122 12939 net.cpp:91] Creating Layer loss1/relu_conv
I0403 21:49:16.047143 12939 net.cpp:425] loss1/relu_conv <- loss1/conv
I0403 21:49:16.047165 12939 net.cpp:386] loss1/relu_conv -> loss1/conv (in-place)
I0403 21:49:16.047515 12939 net.cpp:141] Setting up loss1/relu_conv
I0403 21:49:16.047547 12939 net.cpp:148] Top shape: 24 128 4 4 (49152)
I0403 21:49:16.047567 12939 net.cpp:156] Memory required for data: 945894432
I0403 21:49:16.047585 12939 layer_factory.hpp:77] Creating layer loss1/fc
I0403 21:49:16.047617 12939 net.cpp:91] Creating Layer loss1/fc
I0403 21:49:16.047641 12939 net.cpp:425] loss1/fc <- loss1/conv
I0403 21:49:16.047667 12939 net.cpp:399] loss1/fc -> loss1/fc
I0403 21:49:16.069902 12939 net.cpp:141] Setting up loss1/fc
I0403 21:49:16.069946 12939 net.cpp:148] Top shape: 24 1024 (24576)
I0403 21:49:16.069967 12939 net.cpp:156] Memory required for data: 945992736
I0403 21:49:16.069990 12939 layer_factory.hpp:77] Creating layer loss1/relu_fc
I0403 21:49:16.070013 12939 net.cpp:91] Creating Layer loss1/relu_fc
I0403 21:49:16.070035 12939 net.cpp:425] loss1/relu_fc <- loss1/fc
I0403 21:49:16.070060 12939 net.cpp:386] loss1/relu_fc -> loss1/fc (in-place)
I0403 21:49:16.070294 12939 net.cpp:141] Setting up loss1/relu_fc
I0403 21:49:16.070332 12939 net.cpp:148] Top shape: 24 1024 (24576)
I0403 21:49:16.070350 12939 net.cpp:156] Memory required for data: 946091040
I0403 21:49:16.070371 12939 layer_factory.hpp:77] Creating layer loss1/drop_fc
I0403 21:49:16.070405 12939 net.cpp:91] Creating Layer loss1/drop_fc
I0403 21:49:16.070425 12939 net.cpp:425] loss1/drop_fc <- loss1/fc
I0403 21:49:16.070446 12939 net.cpp:386] loss1/drop_fc -> loss1/fc (in-place)
I0403 21:49:16.070513 12939 net.cpp:141] Setting up loss1/drop_fc
I0403 21:49:16.070543 12939 net.cpp:148] Top shape: 24 1024 (24576)
I0403 21:49:16.070560 12939 net.cpp:156] Memory required for data: 946189344
I0403 21:49:16.070579 12939 layer_factory.hpp:77] Creating layer loss1/classifier_plantvillage
I0403 21:49:16.070600 12939 net.cpp:91] Creating Layer loss1/classifier_plantvillage
I0403 21:49:16.070619 12939 net.cpp:425] loss1/classifier_plantvillage <- loss1/fc
I0403 21:49:16.070647 12939 net.cpp:399] loss1/classifier_plantvillage -> loss1/classifier_plantvillage
I0403 21:49:16.071761 12939 net.cpp:141] Setting up loss1/classifier_plantvillage
I0403 21:49:16.071795 12939 net.cpp:148] Top shape: 24 38 (912)
I0403 21:49:16.071815 12939 net.cpp:156] Memory required for data: 946192992
I0403 21:49:16.071837 12939 layer_factory.hpp:77] Creating layer loss1/classifier_plantvillage_loss1/classifier_plantvillage_0_split
I0403 21:49:16.071862 12939 net.cpp:91] Creating Layer loss1/classifier_plantvillage_loss1/classifier_plantvillage_0_split
I0403 21:49:16.071883 12939 net.cpp:425] loss1/classifier_plantvillage_loss1/classifier_plantvillage_0_split <- loss1/classifier_plantvillage
I0403 21:49:16.071905 12939 net.cpp:399] loss1/classifier_plantvillage_loss1/classifier_plantvillage_0_split -> loss1/classifier_plantvillage_loss1/classifier_plantvillage_0_split_0
I0403 21:49:16.071930 12939 net.cpp:399] loss1/classifier_plantvillage_loss1/classifier_plantvillage_0_split -> loss1/classifier_plantvillage_loss1/classifier_plantvillage_0_split_1
I0403 21:49:16.071955 12939 net.cpp:399] loss1/classifier_plantvillage_loss1/classifier_plantvillage_0_split -> loss1/classifier_plantvillage_loss1/classifier_plantvillage_0_split_2
I0403 21:49:16.072039 12939 net.cpp:141] Setting up loss1/classifier_plantvillage_loss1/classifier_plantvillage_0_split
I0403 21:49:16.072067 12939 net.cpp:148] Top shape: 24 38 (912)
I0403 21:49:16.072088 12939 net.cpp:148] Top shape: 24 38 (912)
I0403 21:49:16.072105 12939 net.cpp:148] Top shape: 24 38 (912)
I0403 21:49:16.072123 12939 net.cpp:156] Memory required for data: 946203936
I0403 21:49:16.072142 12939 layer_factory.hpp:77] Creating layer inception_4b/1x1
I0403 21:49:16.072170 12939 net.cpp:91] Creating Layer inception_4b/1x1
I0403 21:49:16.072224 12939 net.cpp:425] inception_4b/1x1 <- inception_4a/output_inception_4a/output_0_split_1
I0403 21:49:16.072249 12939 net.cpp:399] inception_4b/1x1 -> inception_4b/1x1
I0403 21:49:16.074229 12939 net.cpp:141] Setting up inception_4b/1x1
I0403 21:49:16.074265 12939 net.cpp:148] Top shape: 24 160 14 14 (752640)
I0403 21:49:16.074283 12939 net.cpp:156] Memory required for data: 949214496
I0403 21:49:16.074306 12939 layer_factory.hpp:77] Creating layer inception_4b/relu_1x1
I0403 21:49:16.074331 12939 net.cpp:91] Creating Layer inception_4b/relu_1x1
I0403 21:49:16.074352 12939 net.cpp:425] inception_4b/relu_1x1 <- inception_4b/1x1
I0403 21:49:16.074373 12939 net.cpp:386] inception_4b/relu_1x1 -> inception_4b/1x1 (in-place)
I0403 21:49:16.074591 12939 net.cpp:141] Setting up inception_4b/relu_1x1
I0403 21:49:16.074621 12939 net.cpp:148] Top shape: 24 160 14 14 (752640)
I0403 21:49:16.074640 12939 net.cpp:156] Memory required for data: 952225056
I0403 21:49:16.074659 12939 layer_factory.hpp:77] Creating layer inception_4b/3x3_reduce
I0403 21:49:16.074690 12939 net.cpp:91] Creating Layer inception_4b/3x3_reduce
I0403 21:49:16.074713 12939 net.cpp:425] inception_4b/3x3_reduce <- inception_4a/output_inception_4a/output_0_split_2
I0403 21:49:16.074739 12939 net.cpp:399] inception_4b/3x3_reduce -> inception_4b/3x3_reduce
I0403 21:49:16.076601 12939 net.cpp:141] Setting up inception_4b/3x3_reduce
I0403 21:49:16.076637 12939 net.cpp:148] Top shape: 24 112 14 14 (526848)
I0403 21:49:16.076656 12939 net.cpp:156] Memory required for data: 954332448
I0403 21:49:16.076679 12939 layer_factory.hpp:77] Creating layer inception_4b/relu_3x3_reduce
I0403 21:49:16.076701 12939 net.cpp:91] Creating Layer inception_4b/relu_3x3_reduce
I0403 21:49:16.076721 12939 net.cpp:425] inception_4b/relu_3x3_reduce <- inception_4b/3x3_reduce
I0403 21:49:16.076746 12939 net.cpp:386] inception_4b/relu_3x3_reduce -> inception_4b/3x3_reduce (in-place)
I0403 21:49:16.077088 12939 net.cpp:141] Setting up inception_4b/relu_3x3_reduce
I0403 21:49:16.077121 12939 net.cpp:148] Top shape: 24 112 14 14 (526848)
I0403 21:49:16.077141 12939 net.cpp:156] Memory required for data: 956439840
I0403 21:49:16.077162 12939 layer_factory.hpp:77] Creating layer inception_4b/3x3
I0403 21:49:16.077194 12939 net.cpp:91] Creating Layer inception_4b/3x3
I0403 21:49:16.077219 12939 net.cpp:425] inception_4b/3x3 <- inception_4b/3x3_reduce
I0403 21:49:16.077244 12939 net.cpp:399] inception_4b/3x3 -> inception_4b/3x3
I0403 21:49:16.080885 12939 net.cpp:141] Setting up inception_4b/3x3
I0403 21:49:16.080920 12939 net.cpp:148] Top shape: 24 224 14 14 (1053696)
I0403 21:49:16.080940 12939 net.cpp:156] Memory required for data: 960654624
I0403 21:49:16.080963 12939 layer_factory.hpp:77] Creating layer inception_4b/relu_3x3
I0403 21:49:16.080989 12939 net.cpp:91] Creating Layer inception_4b/relu_3x3
I0403 21:49:16.081009 12939 net.cpp:425] inception_4b/relu_3x3 <- inception_4b/3x3
I0403 21:49:16.081032 12939 net.cpp:386] inception_4b/relu_3x3 -> inception_4b/3x3 (in-place)
I0403 21:49:16.081257 12939 net.cpp:141] Setting up inception_4b/relu_3x3
I0403 21:49:16.081292 12939 net.cpp:148] Top shape: 24 224 14 14 (1053696)
I0403 21:49:16.081312 12939 net.cpp:156] Memory required for data: 964869408
I0403 21:49:16.081331 12939 layer_factory.hpp:77] Creating layer inception_4b/5x5_reduce
I0403 21:49:16.081360 12939 net.cpp:91] Creating Layer inception_4b/5x5_reduce
I0403 21:49:16.081382 12939 net.cpp:425] inception_4b/5x5_reduce <- inception_4a/output_inception_4a/output_0_split_3
I0403 21:49:16.081406 12939 net.cpp:399] inception_4b/5x5_reduce -> inception_4b/5x5_reduce
I0403 21:49:16.082734 12939 net.cpp:141] Setting up inception_4b/5x5_reduce
I0403 21:49:16.082772 12939 net.cpp:148] Top shape: 24 24 14 14 (112896)
I0403 21:49:16.082792 12939 net.cpp:156] Memory required for data: 965320992
I0403 21:49:16.082814 12939 layer_factory.hpp:77] Creating layer inception_4b/relu_5x5_reduce
I0403 21:49:16.082839 12939 net.cpp:91] Creating Layer inception_4b/relu_5x5_reduce
I0403 21:49:16.082876 12939 net.cpp:425] inception_4b/relu_5x5_reduce <- inception_4b/5x5_reduce
I0403 21:49:16.082901 12939 net.cpp:386] inception_4b/relu_5x5_reduce -> inception_4b/5x5_reduce (in-place)
I0403 21:49:16.083135 12939 net.cpp:141] Setting up inception_4b/relu_5x5_reduce
I0403 21:49:16.083166 12939 net.cpp:148] Top shape: 24 24 14 14 (112896)
I0403 21:49:16.083192 12939 net.cpp:156] Memory required for data: 965772576
I0403 21:49:16.083212 12939 layer_factory.hpp:77] Creating layer inception_4b/5x5
I0403 21:49:16.083240 12939 net.cpp:91] Creating Layer inception_4b/5x5
I0403 21:49:16.083261 12939 net.cpp:425] inception_4b/5x5 <- inception_4b/5x5_reduce
I0403 21:49:16.083287 12939 net.cpp:399] inception_4b/5x5 -> inception_4b/5x5
I0403 21:49:16.084781 12939 net.cpp:141] Setting up inception_4b/5x5
I0403 21:49:16.084816 12939 net.cpp:148] Top shape: 24 64 14 14 (301056)
I0403 21:49:16.084835 12939 net.cpp:156] Memory required for data: 966976800
I0403 21:49:16.084858 12939 layer_factory.hpp:77] Creating layer inception_4b/relu_5x5
I0403 21:49:16.084883 12939 net.cpp:91] Creating Layer inception_4b/relu_5x5
I0403 21:49:16.084903 12939 net.cpp:425] inception_4b/relu_5x5 <- inception_4b/5x5
I0403 21:49:16.084926 12939 net.cpp:386] inception_4b/relu_5x5 -> inception_4b/5x5 (in-place)
I0403 21:49:16.085278 12939 net.cpp:141] Setting up inception_4b/relu_5x5
I0403 21:49:16.085311 12939 net.cpp:148] Top shape: 24 64 14 14 (301056)
I0403 21:49:16.085331 12939 net.cpp:156] Memory required for data: 968181024
I0403 21:49:16.085350 12939 layer_factory.hpp:77] Creating layer inception_4b/pool
I0403 21:49:16.085376 12939 net.cpp:91] Creating Layer inception_4b/pool
I0403 21:49:16.085397 12939 net.cpp:425] inception_4b/pool <- inception_4a/output_inception_4a/output_0_split_4
I0403 21:49:16.085418 12939 net.cpp:399] inception_4b/pool -> inception_4b/pool
I0403 21:49:16.085500 12939 net.cpp:141] Setting up inception_4b/pool
I0403 21:49:16.085530 12939 net.cpp:148] Top shape: 24 512 14 14 (2408448)
I0403 21:49:16.085548 12939 net.cpp:156] Memory required for data: 977814816
I0403 21:49:16.085566 12939 layer_factory.hpp:77] Creating layer inception_4b/pool_proj
I0403 21:49:16.085595 12939 net.cpp:91] Creating Layer inception_4b/pool_proj
I0403 21:49:16.085618 12939 net.cpp:425] inception_4b/pool_proj <- inception_4b/pool
I0403 21:49:16.085644 12939 net.cpp:399] inception_4b/pool_proj -> inception_4b/pool_proj
I0403 21:49:16.087117 12939 net.cpp:141] Setting up inception_4b/pool_proj
I0403 21:49:16.087154 12939 net.cpp:148] Top shape: 24 64 14 14 (301056)
I0403 21:49:16.087175 12939 net.cpp:156] Memory required for data: 979019040
I0403 21:49:16.087205 12939 layer_factory.hpp:77] Creating layer inception_4b/relu_pool_proj
I0403 21:49:16.087229 12939 net.cpp:91] Creating Layer inception_4b/relu_pool_proj
I0403 21:49:16.087249 12939 net.cpp:425] inception_4b/relu_pool_proj <- inception_4b/pool_proj
I0403 21:49:16.087271 12939 net.cpp:386] inception_4b/relu_pool_proj -> inception_4b/pool_proj (in-place)
I0403 21:49:16.087498 12939 net.cpp:141] Setting up inception_4b/relu_pool_proj
I0403 21:49:16.087530 12939 net.cpp:148] Top shape: 24 64 14 14 (301056)
I0403 21:49:16.087549 12939 net.cpp:156] Memory required for data: 980223264
I0403 21:49:16.087569 12939 layer_factory.hpp:77] Creating layer inception_4b/output
I0403 21:49:16.087591 12939 net.cpp:91] Creating Layer inception_4b/output
I0403 21:49:16.087610 12939 net.cpp:425] inception_4b/output <- inception_4b/1x1
I0403 21:49:16.087630 12939 net.cpp:425] inception_4b/output <- inception_4b/3x3
I0403 21:49:16.087651 12939 net.cpp:425] inception_4b/output <- inception_4b/5x5
I0403 21:49:16.087669 12939 net.cpp:425] inception_4b/output <- inception_4b/pool_proj
I0403 21:49:16.087694 12939 net.cpp:399] inception_4b/output -> inception_4b/output
I0403 21:49:16.087750 12939 net.cpp:141] Setting up inception_4b/output
I0403 21:49:16.087784 12939 net.cpp:148] Top shape: 24 512 14 14 (2408448)
I0403 21:49:16.087802 12939 net.cpp:156] Memory required for data: 989857056
I0403 21:49:16.087837 12939 layer_factory.hpp:77] Creating layer inception_4b/output_inception_4b/output_0_split
I0403 21:49:16.087860 12939 net.cpp:91] Creating Layer inception_4b/output_inception_4b/output_0_split
I0403 21:49:16.087878 12939 net.cpp:425] inception_4b/output_inception_4b/output_0_split <- inception_4b/output
I0403 21:49:16.087899 12939 net.cpp:399] inception_4b/output_inception_4b/output_0_split -> inception_4b/output_inception_4b/output_0_split_0
I0403 21:49:16.087929 12939 net.cpp:399] inception_4b/output_inception_4b/output_0_split -> inception_4b/output_inception_4b/output_0_split_1
I0403 21:49:16.087954 12939 net.cpp:399] inception_4b/output_inception_4b/output_0_split -> inception_4b/output_inception_4b/output_0_split_2
I0403 21:49:16.087980 12939 net.cpp:399] inception_4b/output_inception_4b/output_0_split -> inception_4b/output_inception_4b/output_0_split_3
I0403 21:49:16.088084 12939 net.cpp:141] Setting up inception_4b/output_inception_4b/output_0_split
I0403 21:49:16.088114 12939 net.cpp:148] Top shape: 24 512 14 14 (2408448)
I0403 21:49:16.088134 12939 net.cpp:148] Top shape: 24 512 14 14 (2408448)
I0403 21:49:16.088152 12939 net.cpp:148] Top shape: 24 512 14 14 (2408448)
I0403 21:49:16.088171 12939 net.cpp:148] Top shape: 24 512 14 14 (2408448)
I0403 21:49:16.088196 12939 net.cpp:156] Memory required for data: 1028392224
I0403 21:49:16.088215 12939 layer_factory.hpp:77] Creating layer inception_4c/1x1
I0403 21:49:16.088243 12939 net.cpp:91] Creating Layer inception_4c/1x1
I0403 21:49:16.088269 12939 net.cpp:425] inception_4c/1x1 <- inception_4b/output_inception_4b/output_0_split_0
I0403 21:49:16.088291 12939 net.cpp:399] inception_4c/1x1 -> inception_4c/1x1
I0403 21:49:16.090041 12939 net.cpp:141] Setting up inception_4c/1x1
I0403 21:49:16.090076 12939 net.cpp:148] Top shape: 24 128 14 14 (602112)
I0403 21:49:16.090095 12939 net.cpp:156] Memory required for data: 1030800672
I0403 21:49:16.090118 12939 layer_factory.hpp:77] Creating layer inception_4c/relu_1x1
I0403 21:49:16.090142 12939 net.cpp:91] Creating Layer inception_4c/relu_1x1
I0403 21:49:16.090162 12939 net.cpp:425] inception_4c/relu_1x1 <- inception_4c/1x1
I0403 21:49:16.090190 12939 net.cpp:386] inception_4c/relu_1x1 -> inception_4c/1x1 (in-place)
I0403 21:49:16.090423 12939 net.cpp:141] Setting up inception_4c/relu_1x1
I0403 21:49:16.090456 12939 net.cpp:148] Top shape: 24 128 14 14 (602112)
I0403 21:49:16.090474 12939 net.cpp:156] Memory required for data: 1033209120
I0403 21:49:16.090493 12939 layer_factory.hpp:77] Creating layer inception_4c/3x3_reduce
I0403 21:49:16.090523 12939 net.cpp:91] Creating Layer inception_4c/3x3_reduce
I0403 21:49:16.090544 12939 net.cpp:425] inception_4c/3x3_reduce <- inception_4b/output_inception_4b/output_0_split_1
I0403 21:49:16.090570 12939 net.cpp:399] inception_4c/3x3_reduce -> inception_4c/3x3_reduce
I0403 21:49:16.092965 12939 net.cpp:141] Setting up inception_4c/3x3_reduce
I0403 21:49:16.093003 12939 net.cpp:148] Top shape: 24 128 14 14 (602112)
I0403 21:49:16.093027 12939 net.cpp:156] Memory required for data: 1035617568
I0403 21:49:16.093050 12939 layer_factory.hpp:77] Creating layer inception_4c/relu_3x3_reduce
I0403 21:49:16.093072 12939 net.cpp:91] Creating Layer inception_4c/relu_3x3_reduce
I0403 21:49:16.093092 12939 net.cpp:425] inception_4c/relu_3x3_reduce <- inception_4c/3x3_reduce
I0403 21:49:16.093114 12939 net.cpp:386] inception_4c/relu_3x3_reduce -> inception_4c/3x3_reduce (in-place)
I0403 21:49:16.093464 12939 net.cpp:141] Setting up inception_4c/relu_3x3_reduce
I0403 21:49:16.093499 12939 net.cpp:148] Top shape: 24 128 14 14 (602112)
I0403 21:49:16.093518 12939 net.cpp:156] Memory required for data: 1038026016
I0403 21:49:16.093536 12939 layer_factory.hpp:77] Creating layer inception_4c/3x3
I0403 21:49:16.093562 12939 net.cpp:91] Creating Layer inception_4c/3x3
I0403 21:49:16.093583 12939 net.cpp:425] inception_4c/3x3 <- inception_4c/3x3_reduce
I0403 21:49:16.093611 12939 net.cpp:399] inception_4c/3x3 -> inception_4c/3x3
I0403 21:49:16.098021 12939 net.cpp:141] Setting up inception_4c/3x3
I0403 21:49:16.098075 12939 net.cpp:148] Top shape: 24 256 14 14 (1204224)
I0403 21:49:16.098095 12939 net.cpp:156] Memory required for data: 1042842912
I0403 21:49:16.098134 12939 layer_factory.hpp:77] Creating layer inception_4c/relu_3x3
I0403 21:49:16.098162 12939 net.cpp:91] Creating Layer inception_4c/relu_3x3
I0403 21:49:16.098188 12939 net.cpp:425] inception_4c/relu_3x3 <- inception_4c/3x3
I0403 21:49:16.098214 12939 net.cpp:386] inception_4c/relu_3x3 -> inception_4c/3x3 (in-place)
I0403 21:49:16.098438 12939 net.cpp:141] Setting up inception_4c/relu_3x3
I0403 21:49:16.098472 12939 net.cpp:148] Top shape: 24 256 14 14 (1204224)
I0403 21:49:16.098491 12939 net.cpp:156] Memory required for data: 1047659808
I0403 21:49:16.098510 12939 layer_factory.hpp:77] Creating layer inception_4c/5x5_reduce
I0403 21:49:16.098539 12939 net.cpp:91] Creating Layer inception_4c/5x5_reduce
I0403 21:49:16.098562 12939 net.cpp:425] inception_4c/5x5_reduce <- inception_4b/output_inception_4b/output_0_split_2
I0403 21:49:16.098587 12939 net.cpp:399] inception_4c/5x5_reduce -> inception_4c/5x5_reduce
I0403 21:49:16.099918 12939 net.cpp:141] Setting up inception_4c/5x5_reduce
I0403 21:49:16.099956 12939 net.cpp:148] Top shape: 24 24 14 14 (112896)
I0403 21:49:16.099975 12939 net.cpp:156] Memory required for data: 1048111392
I0403 21:49:16.099999 12939 layer_factory.hpp:77] Creating layer inception_4c/relu_5x5_reduce
I0403 21:49:16.100023 12939 net.cpp:91] Creating Layer inception_4c/relu_5x5_reduce
I0403 21:49:16.100044 12939 net.cpp:425] inception_4c/relu_5x5_reduce <- inception_4c/5x5_reduce
I0403 21:49:16.100065 12939 net.cpp:386] inception_4c/relu_5x5_reduce -> inception_4c/5x5_reduce (in-place)
I0403 21:49:16.100306 12939 net.cpp:141] Setting up inception_4c/relu_5x5_reduce
I0403 21:49:16.100339 12939 net.cpp:148] Top shape: 24 24 14 14 (112896)
I0403 21:49:16.100359 12939 net.cpp:156] Memory required for data: 1048562976
I0403 21:49:16.100378 12939 layer_factory.hpp:77] Creating layer inception_4c/5x5
I0403 21:49:16.100406 12939 net.cpp:91] Creating Layer inception_4c/5x5
I0403 21:49:16.100427 12939 net.cpp:425] inception_4c/5x5 <- inception_4c/5x5_reduce
I0403 21:49:16.100452 12939 net.cpp:399] inception_4c/5x5 -> inception_4c/5x5
I0403 21:49:16.101987 12939 net.cpp:141] Setting up inception_4c/5x5
I0403 21:49:16.102022 12939 net.cpp:148] Top shape: 24 64 14 14 (301056)
I0403 21:49:16.102041 12939 net.cpp:156] Memory required for data: 1049767200
I0403 21:49:16.102064 12939 layer_factory.hpp:77] Creating layer inception_4c/relu_5x5
I0403 21:49:16.102085 12939 net.cpp:91] Creating Layer inception_4c/relu_5x5
I0403 21:49:16.102104 12939 net.cpp:425] inception_4c/relu_5x5 <- inception_4c/5x5
I0403 21:49:16.102129 12939 net.cpp:386] inception_4c/relu_5x5 -> inception_4c/5x5 (in-place)
I0403 21:49:16.102501 12939 net.cpp:141] Setting up inception_4c/relu_5x5
I0403 21:49:16.102535 12939 net.cpp:148] Top shape: 24 64 14 14 (301056)
I0403 21:49:16.102555 12939 net.cpp:156] Memory required for data: 1050971424
I0403 21:49:16.102573 12939 layer_factory.hpp:77] Creating layer inception_4c/pool
I0403 21:49:16.102596 12939 net.cpp:91] Creating Layer inception_4c/pool
I0403 21:49:16.102617 12939 net.cpp:425] inception_4c/pool <- inception_4b/output_inception_4b/output_0_split_3
I0403 21:49:16.102641 12939 net.cpp:399] inception_4c/pool -> inception_4c/pool
I0403 21:49:16.102725 12939 net.cpp:141] Setting up inception_4c/pool
I0403 21:49:16.102754 12939 net.cpp:148] Top shape: 24 512 14 14 (2408448)
I0403 21:49:16.102774 12939 net.cpp:156] Memory required for data: 1060605216
I0403 21:49:16.102793 12939 layer_factory.hpp:77] Creating layer inception_4c/pool_proj
I0403 21:49:16.102823 12939 net.cpp:91] Creating Layer inception_4c/pool_proj
I0403 21:49:16.102844 12939 net.cpp:425] inception_4c/pool_proj <- inception_4c/pool
I0403 21:49:16.102869 12939 net.cpp:399] inception_4c/pool_proj -> inception_4c/pool_proj
I0403 21:49:16.104388 12939 net.cpp:141] Setting up inception_4c/pool_proj
I0403 21:49:16.104425 12939 net.cpp:148] Top shape: 24 64 14 14 (301056)
I0403 21:49:16.104462 12939 net.cpp:156] Memory required for data: 1061809440
I0403 21:49:16.104485 12939 layer_factory.hpp:77] Creating layer inception_4c/relu_pool_proj
I0403 21:49:16.104508 12939 net.cpp:91] Creating Layer inception_4c/relu_pool_proj
I0403 21:49:16.104528 12939 net.cpp:425] inception_4c/relu_pool_proj <- inception_4c/pool_proj
I0403 21:49:16.104553 12939 net.cpp:386] inception_4c/relu_pool_proj -> inception_4c/pool_proj (in-place)
I0403 21:49:16.104784 12939 net.cpp:141] Setting up inception_4c/relu_pool_proj
I0403 21:49:16.104816 12939 net.cpp:148] Top shape: 24 64 14 14 (301056)
I0403 21:49:16.104835 12939 net.cpp:156] Memory required for data: 1063013664
I0403 21:49:16.104854 12939 layer_factory.hpp:77] Creating layer inception_4c/output
I0403 21:49:16.104876 12939 net.cpp:91] Creating Layer inception_4c/output
I0403 21:49:16.104895 12939 net.cpp:425] inception_4c/output <- inception_4c/1x1
I0403 21:49:16.104917 12939 net.cpp:425] inception_4c/output <- inception_4c/3x3
I0403 21:49:16.104936 12939 net.cpp:425] inception_4c/output <- inception_4c/5x5
I0403 21:49:16.104955 12939 net.cpp:425] inception_4c/output <- inception_4c/pool_proj
I0403 21:49:16.104980 12939 net.cpp:399] inception_4c/output -> inception_4c/output
I0403 21:49:16.105038 12939 net.cpp:141] Setting up inception_4c/output
I0403 21:49:16.105072 12939 net.cpp:148] Top shape: 24 512 14 14 (2408448)
I0403 21:49:16.105090 12939 net.cpp:156] Memory required for data: 1072647456
I0403 21:49:16.105109 12939 layer_factory.hpp:77] Creating layer inception_4c/output_inception_4c/output_0_split
I0403 21:49:16.105129 12939 net.cpp:91] Creating Layer inception_4c/output_inception_4c/output_0_split
I0403 21:49:16.105149 12939 net.cpp:425] inception_4c/output_inception_4c/output_0_split <- inception_4c/output
I0403 21:49:16.105171 12939 net.cpp:399] inception_4c/output_inception_4c/output_0_split -> inception_4c/output_inception_4c/output_0_split_0
I0403 21:49:16.105203 12939 net.cpp:399] inception_4c/output_inception_4c/output_0_split -> inception_4c/output_inception_4c/output_0_split_1
I0403 21:49:16.105232 12939 net.cpp:399] inception_4c/output_inception_4c/output_0_split -> inception_4c/output_inception_4c/output_0_split_2
I0403 21:49:16.105258 12939 net.cpp:399] inception_4c/output_inception_4c/output_0_split -> inception_4c/output_inception_4c/output_0_split_3
I0403 21:49:16.105370 12939 net.cpp:141] Setting up inception_4c/output_inception_4c/output_0_split
I0403 21:49:16.105398 12939 net.cpp:148] Top shape: 24 512 14 14 (2408448)
I0403 21:49:16.105418 12939 net.cpp:148] Top shape: 24 512 14 14 (2408448)
I0403 21:49:16.105438 12939 net.cpp:148] Top shape: 24 512 14 14 (2408448)
I0403 21:49:16.105458 12939 net.cpp:148] Top shape: 24 512 14 14 (2408448)
I0403 21:49:16.105475 12939 net.cpp:156] Memory required for data: 1111182624
I0403 21:49:16.105494 12939 layer_factory.hpp:77] Creating layer inception_4d/1x1
I0403 21:49:16.105521 12939 net.cpp:91] Creating Layer inception_4d/1x1
I0403 21:49:16.105543 12939 net.cpp:425] inception_4d/1x1 <- inception_4c/output_inception_4c/output_0_split_0
I0403 21:49:16.105569 12939 net.cpp:399] inception_4d/1x1 -> inception_4d/1x1
I0403 21:49:16.107275 12939 net.cpp:141] Setting up inception_4d/1x1
I0403 21:49:16.107311 12939 net.cpp:148] Top shape: 24 112 14 14 (526848)
I0403 21:49:16.107331 12939 net.cpp:156] Memory required for data: 1113290016
I0403 21:49:16.107353 12939 layer_factory.hpp:77] Creating layer inception_4d/relu_1x1
I0403 21:49:16.107378 12939 net.cpp:91] Creating Layer inception_4d/relu_1x1
I0403 21:49:16.107401 12939 net.cpp:425] inception_4d/relu_1x1 <- inception_4d/1x1
I0403 21:49:16.107424 12939 net.cpp:386] inception_4d/relu_1x1 -> inception_4d/1x1 (in-place)
I0403 21:49:16.107652 12939 net.cpp:141] Setting up inception_4d/relu_1x1
I0403 21:49:16.107686 12939 net.cpp:148] Top shape: 24 112 14 14 (526848)
I0403 21:49:16.107705 12939 net.cpp:156] Memory required for data: 1115397408
I0403 21:49:16.107724 12939 layer_factory.hpp:77] Creating layer inception_4d/3x3_reduce
I0403 21:49:16.107769 12939 net.cpp:91] Creating Layer inception_4d/3x3_reduce
I0403 21:49:16.107791 12939 net.cpp:425] inception_4d/3x3_reduce <- inception_4c/output_inception_4c/output_0_split_1
I0403 21:49:16.107815 12939 net.cpp:399] inception_4d/3x3_reduce -> inception_4d/3x3_reduce
I0403 21:49:16.109680 12939 net.cpp:141] Setting up inception_4d/3x3_reduce
I0403 21:49:16.109716 12939 net.cpp:148] Top shape: 24 144 14 14 (677376)
I0403 21:49:16.109735 12939 net.cpp:156] Memory required for data: 1118106912
I0403 21:49:16.109758 12939 layer_factory.hpp:77] Creating layer inception_4d/relu_3x3_reduce
I0403 21:49:16.109783 12939 net.cpp:91] Creating Layer inception_4d/relu_3x3_reduce
I0403 21:49:16.109805 12939 net.cpp:425] inception_4d/relu_3x3_reduce <- inception_4d/3x3_reduce
I0403 21:49:16.109827 12939 net.cpp:386] inception_4d/relu_3x3_reduce -> inception_4d/3x3_reduce (in-place)
I0403 21:49:16.110194 12939 net.cpp:141] Setting up inception_4d/relu_3x3_reduce
I0403 21:49:16.110227 12939 net.cpp:148] Top shape: 24 144 14 14 (677376)
I0403 21:49:16.110247 12939 net.cpp:156] Memory required for data: 1120816416
I0403 21:49:16.110268 12939 layer_factory.hpp:77] Creating layer inception_4d/3x3
I0403 21:49:16.110297 12939 net.cpp:91] Creating Layer inception_4d/3x3
I0403 21:49:16.110318 12939 net.cpp:425] inception_4d/3x3 <- inception_4d/3x3_reduce
I0403 21:49:16.110345 12939 net.cpp:399] inception_4d/3x3 -> inception_4d/3x3
I0403 21:49:16.115691 12939 net.cpp:141] Setting up inception_4d/3x3
I0403 21:49:16.115727 12939 net.cpp:148] Top shape: 24 288 14 14 (1354752)
I0403 21:49:16.115746 12939 net.cpp:156] Memory required for data: 1126235424
I0403 21:49:16.115768 12939 layer_factory.hpp:77] Creating layer inception_4d/relu_3x3
I0403 21:49:16.115797 12939 net.cpp:91] Creating Layer inception_4d/relu_3x3
I0403 21:49:16.115818 12939 net.cpp:425] inception_4d/relu_3x3 <- inception_4d/3x3
I0403 21:49:16.115840 12939 net.cpp:386] inception_4d/relu_3x3 -> inception_4d/3x3 (in-place)
I0403 21:49:16.116065 12939 net.cpp:141] Setting up inception_4d/relu_3x3
I0403 21:49:16.116099 12939 net.cpp:148] Top shape: 24 288 14 14 (1354752)
I0403 21:49:16.116118 12939 net.cpp:156] Memory required for data: 1131654432
I0403 21:49:16.116137 12939 layer_factory.hpp:77] Creating layer inception_4d/5x5_reduce
I0403 21:49:16.116164 12939 net.cpp:91] Creating Layer inception_4d/5x5_reduce
I0403 21:49:16.116191 12939 net.cpp:425] inception_4d/5x5_reduce <- inception_4c/output_inception_4c/output_0_split_2
I0403 21:49:16.116217 12939 net.cpp:399] inception_4d/5x5_reduce -> inception_4d/5x5_reduce
I0403 21:49:16.117624 12939 net.cpp:141] Setting up inception_4d/5x5_reduce
I0403 21:49:16.117658 12939 net.cpp:148] Top shape: 24 32 14 14 (150528)
I0403 21:49:16.117677 12939 net.cpp:156] Memory required for data: 1132256544
I0403 21:49:16.117700 12939 layer_factory.hpp:77] Creating layer inception_4d/relu_5x5_reduce
I0403 21:49:16.117724 12939 net.cpp:91] Creating Layer inception_4d/relu_5x5_reduce
I0403 21:49:16.117746 12939 net.cpp:425] inception_4d/relu_5x5_reduce <- inception_4d/5x5_reduce
I0403 21:49:16.117768 12939 net.cpp:386] inception_4d/relu_5x5_reduce -> inception_4d/5x5_reduce (in-place)
I0403 21:49:16.117995 12939 net.cpp:141] Setting up inception_4d/relu_5x5_reduce
I0403 21:49:16.118027 12939 net.cpp:148] Top shape: 24 32 14 14 (150528)
I0403 21:49:16.118048 12939 net.cpp:156] Memory required for data: 1132858656
I0403 21:49:16.118067 12939 layer_factory.hpp:77] Creating layer inception_4d/5x5
I0403 21:49:16.118095 12939 net.cpp:91] Creating Layer inception_4d/5x5
I0403 21:49:16.118116 12939 net.cpp:425] inception_4d/5x5 <- inception_4d/5x5_reduce
I0403 21:49:16.118139 12939 net.cpp:399] inception_4d/5x5 -> inception_4d/5x5
I0403 21:49:16.119915 12939 net.cpp:141] Setting up inception_4d/5x5
I0403 21:49:16.119952 12939 net.cpp:148] Top shape: 24 64 14 14 (301056)
I0403 21:49:16.119971 12939 net.cpp:156] Memory required for data: 1134062880
I0403 21:49:16.119994 12939 layer_factory.hpp:77] Creating layer inception_4d/relu_5x5
I0403 21:49:16.120034 12939 net.cpp:91] Creating Layer inception_4d/relu_5x5
I0403 21:49:16.120055 12939 net.cpp:425] inception_4d/relu_5x5 <- inception_4d/5x5
I0403 21:49:16.120079 12939 net.cpp:386] inception_4d/relu_5x5 -> inception_4d/5x5 (in-place)
I0403 21:49:16.120452 12939 net.cpp:141] Setting up inception_4d/relu_5x5
I0403 21:49:16.120486 12939 net.cpp:148] Top shape: 24 64 14 14 (301056)
I0403 21:49:16.120504 12939 net.cpp:156] Memory required for data: 1135267104
I0403 21:49:16.120522 12939 layer_factory.hpp:77] Creating layer inception_4d/pool
I0403 21:49:16.120544 12939 net.cpp:91] Creating Layer inception_4d/pool
I0403 21:49:16.120563 12939 net.cpp:425] inception_4d/pool <- inception_4c/output_inception_4c/output_0_split_3
I0403 21:49:16.120589 12939 net.cpp:399] inception_4d/pool -> inception_4d/pool
I0403 21:49:16.120671 12939 net.cpp:141] Setting up inception_4d/pool
I0403 21:49:16.120700 12939 net.cpp:148] Top shape: 24 512 14 14 (2408448)
I0403 21:49:16.120718 12939 net.cpp:156] Memory required for data: 1144900896
I0403 21:49:16.120734 12939 layer_factory.hpp:77] Creating layer inception_4d/pool_proj
I0403 21:49:16.120764 12939 net.cpp:91] Creating Layer inception_4d/pool_proj
I0403 21:49:16.120784 12939 net.cpp:425] inception_4d/pool_proj <- inception_4d/pool
I0403 21:49:16.120807 12939 net.cpp:399] inception_4d/pool_proj -> inception_4d/pool_proj
I0403 21:49:16.122939 12939 net.cpp:141] Setting up inception_4d/pool_proj
I0403 21:49:16.122975 12939 net.cpp:148] Top shape: 24 64 14 14 (301056)
I0403 21:49:16.122994 12939 net.cpp:156] Memory required for data: 1146105120
I0403 21:49:16.123018 12939 layer_factory.hpp:77] Creating layer inception_4d/relu_pool_proj
I0403 21:49:16.123041 12939 net.cpp:91] Creating Layer inception_4d/relu_pool_proj
I0403 21:49:16.123064 12939 net.cpp:425] inception_4d/relu_pool_proj <- inception_4d/pool_proj
I0403 21:49:16.123085 12939 net.cpp:386] inception_4d/relu_pool_proj -> inception_4d/pool_proj (in-place)
I0403 21:49:16.123319 12939 net.cpp:141] Setting up inception_4d/relu_pool_proj
I0403 21:49:16.123356 12939 net.cpp:148] Top shape: 24 64 14 14 (301056)
I0403 21:49:16.123375 12939 net.cpp:156] Memory required for data: 1147309344
I0403 21:49:16.123394 12939 layer_factory.hpp:77] Creating layer inception_4d/output
I0403 21:49:16.123415 12939 net.cpp:91] Creating Layer inception_4d/output
I0403 21:49:16.123435 12939 net.cpp:425] inception_4d/output <- inception_4d/1x1
I0403 21:49:16.123455 12939 net.cpp:425] inception_4d/output <- inception_4d/3x3
I0403 21:49:16.123473 12939 net.cpp:425] inception_4d/output <- inception_4d/5x5
I0403 21:49:16.123492 12939 net.cpp:425] inception_4d/output <- inception_4d/pool_proj
I0403 21:49:16.123515 12939 net.cpp:399] inception_4d/output -> inception_4d/output
I0403 21:49:16.123574 12939 net.cpp:141] Setting up inception_4d/output
I0403 21:49:16.123602 12939 net.cpp:148] Top shape: 24 528 14 14 (2483712)
I0403 21:49:16.123620 12939 net.cpp:156] Memory required for data: 1157244192
I0403 21:49:16.123638 12939 layer_factory.hpp:77] Creating layer inception_4d/output_inception_4d/output_0_split
I0403 21:49:16.123662 12939 net.cpp:91] Creating Layer inception_4d/output_inception_4d/output_0_split
I0403 21:49:16.123682 12939 net.cpp:425] inception_4d/output_inception_4d/output_0_split <- inception_4d/output
I0403 21:49:16.123704 12939 net.cpp:399] inception_4d/output_inception_4d/output_0_split -> inception_4d/output_inception_4d/output_0_split_0
I0403 21:49:16.123728 12939 net.cpp:399] inception_4d/output_inception_4d/output_0_split -> inception_4d/output_inception_4d/output_0_split_1
I0403 21:49:16.123759 12939 net.cpp:399] inception_4d/output_inception_4d/output_0_split -> inception_4d/output_inception_4d/output_0_split_2
I0403 21:49:16.123783 12939 net.cpp:399] inception_4d/output_inception_4d/output_0_split -> inception_4d/output_inception_4d/output_0_split_3
I0403 21:49:16.123807 12939 net.cpp:399] inception_4d/output_inception_4d/output_0_split -> inception_4d/output_inception_4d/output_0_split_4
I0403 21:49:16.123931 12939 net.cpp:141] Setting up inception_4d/output_inception_4d/output_0_split
I0403 21:49:16.123975 12939 net.cpp:148] Top shape: 24 528 14 14 (2483712)
I0403 21:49:16.123996 12939 net.cpp:148] Top shape: 24 528 14 14 (2483712)
I0403 21:49:16.124016 12939 net.cpp:148] Top shape: 24 528 14 14 (2483712)
I0403 21:49:16.124033 12939 net.cpp:148] Top shape: 24 528 14 14 (2483712)
I0403 21:49:16.124053 12939 net.cpp:148] Top shape: 24 528 14 14 (2483712)
I0403 21:49:16.124068 12939 net.cpp:156] Memory required for data: 1206918432
I0403 21:49:16.124086 12939 layer_factory.hpp:77] Creating layer loss2/ave_pool
I0403 21:49:16.124110 12939 net.cpp:91] Creating Layer loss2/ave_pool
I0403 21:49:16.124130 12939 net.cpp:425] loss2/ave_pool <- inception_4d/output_inception_4d/output_0_split_0
I0403 21:49:16.124152 12939 net.cpp:399] loss2/ave_pool -> loss2/ave_pool
I0403 21:49:16.124534 12939 net.cpp:141] Setting up loss2/ave_pool
I0403 21:49:16.124567 12939 net.cpp:148] Top shape: 24 528 4 4 (202752)
I0403 21:49:16.124585 12939 net.cpp:156] Memory required for data: 1207729440
I0403 21:49:16.124604 12939 layer_factory.hpp:77] Creating layer loss2/conv
I0403 21:49:16.124631 12939 net.cpp:91] Creating Layer loss2/conv
I0403 21:49:16.124653 12939 net.cpp:425] loss2/conv <- loss2/ave_pool
I0403 21:49:16.124680 12939 net.cpp:399] loss2/conv -> loss2/conv
I0403 21:49:16.126987 12939 net.cpp:141] Setting up loss2/conv
I0403 21:49:16.127027 12939 net.cpp:148] Top shape: 24 128 4 4 (49152)
I0403 21:49:16.127048 12939 net.cpp:156] Memory required for data: 1207926048
I0403 21:49:16.127070 12939 layer_factory.hpp:77] Creating layer loss2/relu_conv
I0403 21:49:16.127092 12939 net.cpp:91] Creating Layer loss2/relu_conv
I0403 21:49:16.127112 12939 net.cpp:425] loss2/relu_conv <- loss2/conv
I0403 21:49:16.127137 12939 net.cpp:386] loss2/relu_conv -> loss2/conv (in-place)
I0403 21:49:16.127488 12939 net.cpp:141] Setting up loss2/relu_conv
I0403 21:49:16.127523 12939 net.cpp:148] Top shape: 24 128 4 4 (49152)
I0403 21:49:16.127542 12939 net.cpp:156] Memory required for data: 1208122656
I0403 21:49:16.127562 12939 layer_factory.hpp:77] Creating layer loss2/fc
I0403 21:49:16.127583 12939 net.cpp:91] Creating Layer loss2/fc
I0403 21:49:16.127604 12939 net.cpp:425] loss2/fc <- loss2/conv
I0403 21:49:16.127630 12939 net.cpp:399] loss2/fc -> loss2/fc
I0403 21:49:16.149641 12939 net.cpp:141] Setting up loss2/fc
I0403 21:49:16.149687 12939 net.cpp:148] Top shape: 24 1024 (24576)
I0403 21:49:16.149706 12939 net.cpp:156] Memory required for data: 1208220960
I0403 21:49:16.149729 12939 layer_factory.hpp:77] Creating layer loss2/relu_fc
I0403 21:49:16.149755 12939 net.cpp:91] Creating Layer loss2/relu_fc
I0403 21:49:16.149775 12939 net.cpp:425] loss2/relu_fc <- loss2/fc
I0403 21:49:16.149796 12939 net.cpp:386] loss2/relu_fc -> loss2/fc (in-place)
I0403 21:49:16.150158 12939 net.cpp:141] Setting up loss2/relu_fc
I0403 21:49:16.150197 12939 net.cpp:148] Top shape: 24 1024 (24576)
I0403 21:49:16.150218 12939 net.cpp:156] Memory required for data: 1208319264
I0403 21:49:16.150236 12939 layer_factory.hpp:77] Creating layer loss2/drop_fc
I0403 21:49:16.150261 12939 net.cpp:91] Creating Layer loss2/drop_fc
I0403 21:49:16.150281 12939 net.cpp:425] loss2/drop_fc <- loss2/fc
I0403 21:49:16.150303 12939 net.cpp:386] loss2/drop_fc -> loss2/fc (in-place)
I0403 21:49:16.150367 12939 net.cpp:141] Setting up loss2/drop_fc
I0403 21:49:16.150395 12939 net.cpp:148] Top shape: 24 1024 (24576)
I0403 21:49:16.150413 12939 net.cpp:156] Memory required for data: 1208417568
I0403 21:49:16.150431 12939 layer_factory.hpp:77] Creating layer loss2/classifier_plantvillage
I0403 21:49:16.150457 12939 net.cpp:91] Creating Layer loss2/classifier_plantvillage
I0403 21:49:16.150478 12939 net.cpp:425] loss2/classifier_plantvillage <- loss2/fc
I0403 21:49:16.150501 12939 net.cpp:399] loss2/classifier_plantvillage -> loss2/classifier_plantvillage
I0403 21:49:16.151001 12939 net.cpp:141] Setting up loss2/classifier_plantvillage
I0403 21:49:16.151033 12939 net.cpp:148] Top shape: 24 38 (912)
I0403 21:49:16.151051 12939 net.cpp:156] Memory required for data: 1208421216
I0403 21:49:16.151095 12939 layer_factory.hpp:77] Creating layer loss2/classifier_plantvillage_loss2/classifier_plantvillage_0_split
I0403 21:49:16.151119 12939 net.cpp:91] Creating Layer loss2/classifier_plantvillage_loss2/classifier_plantvillage_0_split
I0403 21:49:16.151139 12939 net.cpp:425] loss2/classifier_plantvillage_loss2/classifier_plantvillage_0_split <- loss2/classifier_plantvillage
I0403 21:49:16.151166 12939 net.cpp:399] loss2/classifier_plantvillage_loss2/classifier_plantvillage_0_split -> loss2/classifier_plantvillage_loss2/classifier_plantvillage_0_split_0
I0403 21:49:16.151199 12939 net.cpp:399] loss2/classifier_plantvillage_loss2/classifier_plantvillage_0_split -> loss2/classifier_plantvillage_loss2/classifier_plantvillage_0_split_1
I0403 21:49:16.151227 12939 net.cpp:399] loss2/classifier_plantvillage_loss2/classifier_plantvillage_0_split -> loss2/classifier_plantvillage_loss2/classifier_plantvillage_0_split_2
I0403 21:49:16.151329 12939 net.cpp:141] Setting up loss2/classifier_plantvillage_loss2/classifier_plantvillage_0_split
I0403 21:49:16.151360 12939 net.cpp:148] Top shape: 24 38 (912)
I0403 21:49:16.151381 12939 net.cpp:148] Top shape: 24 38 (912)
I0403 21:49:16.151401 12939 net.cpp:148] Top shape: 24 38 (912)
I0403 21:49:16.151419 12939 net.cpp:156] Memory required for data: 1208432160
I0403 21:49:16.151438 12939 layer_factory.hpp:77] Creating layer inception_4e/1x1
I0403 21:49:16.151463 12939 net.cpp:91] Creating Layer inception_4e/1x1
I0403 21:49:16.151484 12939 net.cpp:425] inception_4e/1x1 <- inception_4d/output_inception_4d/output_0_split_1
I0403 21:49:16.151506 12939 net.cpp:399] inception_4e/1x1 -> inception_4e/1x1
I0403 21:49:16.153750 12939 net.cpp:141] Setting up inception_4e/1x1
I0403 21:49:16.153784 12939 net.cpp:148] Top shape: 24 256 14 14 (1204224)
I0403 21:49:16.153803 12939 net.cpp:156] Memory required for data: 1213249056
I0403 21:49:16.153825 12939 layer_factory.hpp:77] Creating layer inception_4e/relu_1x1
I0403 21:49:16.153848 12939 net.cpp:91] Creating Layer inception_4e/relu_1x1
I0403 21:49:16.153867 12939 net.cpp:425] inception_4e/relu_1x1 <- inception_4e/1x1
I0403 21:49:16.153892 12939 net.cpp:386] inception_4e/relu_1x1 -> inception_4e/1x1 (in-place)
I0403 21:49:16.154253 12939 net.cpp:141] Setting up inception_4e/relu_1x1
I0403 21:49:16.154284 12939 net.cpp:148] Top shape: 24 256 14 14 (1204224)
I0403 21:49:16.154302 12939 net.cpp:156] Memory required for data: 1218065952
I0403 21:49:16.154321 12939 layer_factory.hpp:77] Creating layer inception_4e/3x3_reduce
I0403 21:49:16.154348 12939 net.cpp:91] Creating Layer inception_4e/3x3_reduce
I0403 21:49:16.154371 12939 net.cpp:425] inception_4e/3x3_reduce <- inception_4d/output_inception_4d/output_0_split_2
I0403 21:49:16.154397 12939 net.cpp:399] inception_4e/3x3_reduce -> inception_4e/3x3_reduce
I0403 21:49:16.156994 12939 net.cpp:141] Setting up inception_4e/3x3_reduce
I0403 21:49:16.157033 12939 net.cpp:148] Top shape: 24 160 14 14 (752640)
I0403 21:49:16.157053 12939 net.cpp:156] Memory required for data: 1221076512
I0403 21:49:16.157075 12939 layer_factory.hpp:77] Creating layer inception_4e/relu_3x3_reduce
I0403 21:49:16.157099 12939 net.cpp:91] Creating Layer inception_4e/relu_3x3_reduce
I0403 21:49:16.157119 12939 net.cpp:425] inception_4e/relu_3x3_reduce <- inception_4e/3x3_reduce
I0403 21:49:16.157143 12939 net.cpp:386] inception_4e/relu_3x3_reduce -> inception_4e/3x3_reduce (in-place)
I0403 21:49:16.157383 12939 net.cpp:141] Setting up inception_4e/relu_3x3_reduce
I0403 21:49:16.157414 12939 net.cpp:148] Top shape: 24 160 14 14 (752640)
I0403 21:49:16.157433 12939 net.cpp:156] Memory required for data: 1224087072
I0403 21:49:16.157450 12939 layer_factory.hpp:77] Creating layer inception_4e/3x3
I0403 21:49:16.157479 12939 net.cpp:91] Creating Layer inception_4e/3x3
I0403 21:49:16.157500 12939 net.cpp:425] inception_4e/3x3 <- inception_4e/3x3_reduce
I0403 21:49:16.157528 12939 net.cpp:399] inception_4e/3x3 -> inception_4e/3x3
I0403 21:49:16.163801 12939 net.cpp:141] Setting up inception_4e/3x3
I0403 21:49:16.163852 12939 net.cpp:148] Top shape: 24 320 14 14 (1505280)
I0403 21:49:16.163872 12939 net.cpp:156] Memory required for data: 1230108192
I0403 21:49:16.163895 12939 layer_factory.hpp:77] Creating layer inception_4e/relu_3x3
I0403 21:49:16.163918 12939 net.cpp:91] Creating Layer inception_4e/relu_3x3
I0403 21:49:16.163939 12939 net.cpp:425] inception_4e/relu_3x3 <- inception_4e/3x3
I0403 21:49:16.163964 12939 net.cpp:386] inception_4e/relu_3x3 -> inception_4e/3x3 (in-place)
I0403 21:49:16.164342 12939 net.cpp:141] Setting up inception_4e/relu_3x3
I0403 21:49:16.164376 12939 net.cpp:148] Top shape: 24 320 14 14 (1505280)
I0403 21:49:16.164393 12939 net.cpp:156] Memory required for data: 1236129312
I0403 21:49:16.164412 12939 layer_factory.hpp:77] Creating layer inception_4e/5x5_reduce
I0403 21:49:16.164443 12939 net.cpp:91] Creating Layer inception_4e/5x5_reduce
I0403 21:49:16.164465 12939 net.cpp:425] inception_4e/5x5_reduce <- inception_4d/output_inception_4d/output_0_split_3
I0403 21:49:16.164494 12939 net.cpp:399] inception_4e/5x5_reduce -> inception_4e/5x5_reduce
I0403 21:49:16.165812 12939 net.cpp:141] Setting up inception_4e/5x5_reduce
I0403 21:49:16.165848 12939 net.cpp:148] Top shape: 24 32 14 14 (150528)
I0403 21:49:16.165866 12939 net.cpp:156] Memory required for data: 1236731424
I0403 21:49:16.165889 12939 layer_factory.hpp:77] Creating layer inception_4e/relu_5x5_reduce
I0403 21:49:16.165912 12939 net.cpp:91] Creating Layer inception_4e/relu_5x5_reduce
I0403 21:49:16.165931 12939 net.cpp:425] inception_4e/relu_5x5_reduce <- inception_4e/5x5_reduce
I0403 21:49:16.165956 12939 net.cpp:386] inception_4e/relu_5x5_reduce -> inception_4e/5x5_reduce (in-place)
I0403 21:49:16.166318 12939 net.cpp:141] Setting up inception_4e/relu_5x5_reduce
I0403 21:49:16.166352 12939 net.cpp:148] Top shape: 24 32 14 14 (150528)
I0403 21:49:16.166373 12939 net.cpp:156] Memory required for data: 1237333536
I0403 21:49:16.166391 12939 layer_factory.hpp:77] Creating layer inception_4e/5x5
I0403 21:49:16.166437 12939 net.cpp:91] Creating Layer inception_4e/5x5
I0403 21:49:16.166460 12939 net.cpp:425] inception_4e/5x5 <- inception_4e/5x5_reduce
I0403 21:49:16.166486 12939 net.cpp:399] inception_4e/5x5 -> inception_4e/5x5
I0403 21:49:16.168723 12939 net.cpp:141] Setting up inception_4e/5x5
I0403 21:49:16.168761 12939 net.cpp:148] Top shape: 24 128 14 14 (602112)
I0403 21:49:16.168781 12939 net.cpp:156] Memory required for data: 1239741984
I0403 21:49:16.168807 12939 layer_factory.hpp:77] Creating layer inception_4e/relu_5x5
I0403 21:49:16.168828 12939 net.cpp:91] Creating Layer inception_4e/relu_5x5
I0403 21:49:16.168848 12939 net.cpp:425] inception_4e/relu_5x5 <- inception_4e/5x5
I0403 21:49:16.168869 12939 net.cpp:386] inception_4e/relu_5x5 -> inception_4e/5x5 (in-place)
I0403 21:49:16.169118 12939 net.cpp:141] Setting up inception_4e/relu_5x5
I0403 21:49:16.169152 12939 net.cpp:148] Top shape: 24 128 14 14 (602112)
I0403 21:49:16.169173 12939 net.cpp:156] Memory required for data: 1242150432
I0403 21:49:16.169196 12939 layer_factory.hpp:77] Creating layer inception_4e/pool
I0403 21:49:16.169219 12939 net.cpp:91] Creating Layer inception_4e/pool
I0403 21:49:16.169239 12939 net.cpp:425] inception_4e/pool <- inception_4d/output_inception_4d/output_0_split_4
I0403 21:49:16.169265 12939 net.cpp:399] inception_4e/pool -> inception_4e/pool
I0403 21:49:16.169353 12939 net.cpp:141] Setting up inception_4e/pool
I0403 21:49:16.169384 12939 net.cpp:148] Top shape: 24 528 14 14 (2483712)
I0403 21:49:16.169404 12939 net.cpp:156] Memory required for data: 1252085280
I0403 21:49:16.169422 12939 layer_factory.hpp:77] Creating layer inception_4e/pool_proj
I0403 21:49:16.169450 12939 net.cpp:91] Creating Layer inception_4e/pool_proj
I0403 21:49:16.169471 12939 net.cpp:425] inception_4e/pool_proj <- inception_4e/pool
I0403 21:49:16.169495 12939 net.cpp:399] inception_4e/pool_proj -> inception_4e/pool_proj
I0403 21:49:16.171342 12939 net.cpp:141] Setting up inception_4e/pool_proj
I0403 21:49:16.171377 12939 net.cpp:148] Top shape: 24 128 14 14 (602112)
I0403 21:49:16.171414 12939 net.cpp:156] Memory required for data: 1254493728
I0403 21:49:16.171438 12939 layer_factory.hpp:77] Creating layer inception_4e/relu_pool_proj
I0403 21:49:16.171464 12939 net.cpp:91] Creating Layer inception_4e/relu_pool_proj
I0403 21:49:16.171486 12939 net.cpp:425] inception_4e/relu_pool_proj <- inception_4e/pool_proj
I0403 21:49:16.171507 12939 net.cpp:386] inception_4e/relu_pool_proj -> inception_4e/pool_proj (in-place)
I0403 21:49:16.171860 12939 net.cpp:141] Setting up inception_4e/relu_pool_proj
I0403 21:49:16.171892 12939 net.cpp:148] Top shape: 24 128 14 14 (602112)
I0403 21:49:16.171911 12939 net.cpp:156] Memory required for data: 1256902176
I0403 21:49:16.171931 12939 layer_factory.hpp:77] Creating layer inception_4e/output
I0403 21:49:16.171955 12939 net.cpp:91] Creating Layer inception_4e/output
I0403 21:49:16.171975 12939 net.cpp:425] inception_4e/output <- inception_4e/1x1
I0403 21:49:16.171996 12939 net.cpp:425] inception_4e/output <- inception_4e/3x3
I0403 21:49:16.172015 12939 net.cpp:425] inception_4e/output <- inception_4e/5x5
I0403 21:49:16.172034 12939 net.cpp:425] inception_4e/output <- inception_4e/pool_proj
I0403 21:49:16.172055 12939 net.cpp:399] inception_4e/output -> inception_4e/output
I0403 21:49:16.172118 12939 net.cpp:141] Setting up inception_4e/output
I0403 21:49:16.172147 12939 net.cpp:148] Top shape: 24 832 14 14 (3913728)
I0403 21:49:16.172166 12939 net.cpp:156] Memory required for data: 1272557088
I0403 21:49:16.172196 12939 layer_factory.hpp:77] Creating layer pool4/3x3_s2
I0403 21:49:16.172221 12939 net.cpp:91] Creating Layer pool4/3x3_s2
I0403 21:49:16.172240 12939 net.cpp:425] pool4/3x3_s2 <- inception_4e/output
I0403 21:49:16.172267 12939 net.cpp:399] pool4/3x3_s2 -> pool4/3x3_s2
I0403 21:49:16.172353 12939 net.cpp:141] Setting up pool4/3x3_s2
I0403 21:49:16.172384 12939 net.cpp:148] Top shape: 24 832 7 7 (978432)
I0403 21:49:16.172402 12939 net.cpp:156] Memory required for data: 1276470816
I0403 21:49:16.172420 12939 layer_factory.hpp:77] Creating layer pool4/3x3_s2_pool4/3x3_s2_0_split
I0403 21:49:16.172442 12939 net.cpp:91] Creating Layer pool4/3x3_s2_pool4/3x3_s2_0_split
I0403 21:49:16.172461 12939 net.cpp:425] pool4/3x3_s2_pool4/3x3_s2_0_split <- pool4/3x3_s2
I0403 21:49:16.172482 12939 net.cpp:399] pool4/3x3_s2_pool4/3x3_s2_0_split -> pool4/3x3_s2_pool4/3x3_s2_0_split_0
I0403 21:49:16.172509 12939 net.cpp:399] pool4/3x3_s2_pool4/3x3_s2_0_split -> pool4/3x3_s2_pool4/3x3_s2_0_split_1
I0403 21:49:16.172536 12939 net.cpp:399] pool4/3x3_s2_pool4/3x3_s2_0_split -> pool4/3x3_s2_pool4/3x3_s2_0_split_2
I0403 21:49:16.172560 12939 net.cpp:399] pool4/3x3_s2_pool4/3x3_s2_0_split -> pool4/3x3_s2_pool4/3x3_s2_0_split_3
I0403 21:49:16.172674 12939 net.cpp:141] Setting up pool4/3x3_s2_pool4/3x3_s2_0_split
I0403 21:49:16.172703 12939 net.cpp:148] Top shape: 24 832 7 7 (978432)
I0403 21:49:16.172724 12939 net.cpp:148] Top shape: 24 832 7 7 (978432)
I0403 21:49:16.172744 12939 net.cpp:148] Top shape: 24 832 7 7 (978432)
I0403 21:49:16.172763 12939 net.cpp:148] Top shape: 24 832 7 7 (978432)
I0403 21:49:16.172781 12939 net.cpp:156] Memory required for data: 1292125728
I0403 21:49:16.172798 12939 layer_factory.hpp:77] Creating layer inception_5a/1x1
I0403 21:49:16.172829 12939 net.cpp:91] Creating Layer inception_5a/1x1
I0403 21:49:16.172852 12939 net.cpp:425] inception_5a/1x1 <- pool4/3x3_s2_pool4/3x3_s2_0_split_0
I0403 21:49:16.172875 12939 net.cpp:399] inception_5a/1x1 -> inception_5a/1x1
I0403 21:49:16.176415 12939 net.cpp:141] Setting up inception_5a/1x1
I0403 21:49:16.176455 12939 net.cpp:148] Top shape: 24 256 7 7 (301056)
I0403 21:49:16.176475 12939 net.cpp:156] Memory required for data: 1293329952
I0403 21:49:16.176497 12939 layer_factory.hpp:77] Creating layer inception_5a/relu_1x1
I0403 21:49:16.176520 12939 net.cpp:91] Creating Layer inception_5a/relu_1x1
I0403 21:49:16.176540 12939 net.cpp:425] inception_5a/relu_1x1 <- inception_5a/1x1
I0403 21:49:16.176565 12939 net.cpp:386] inception_5a/relu_1x1 -> inception_5a/1x1 (in-place)
I0403 21:49:16.176942 12939 net.cpp:141] Setting up inception_5a/relu_1x1
I0403 21:49:16.176977 12939 net.cpp:148] Top shape: 24 256 7 7 (301056)
I0403 21:49:16.176997 12939 net.cpp:156] Memory required for data: 1294534176
I0403 21:49:16.177016 12939 layer_factory.hpp:77] Creating layer inception_5a/3x3_reduce
I0403 21:49:16.177044 12939 net.cpp:91] Creating Layer inception_5a/3x3_reduce
I0403 21:49:16.177067 12939 net.cpp:425] inception_5a/3x3_reduce <- pool4/3x3_s2_pool4/3x3_s2_0_split_1
I0403 21:49:16.177090 12939 net.cpp:399] inception_5a/3x3_reduce -> inception_5a/3x3_reduce
I0403 21:49:16.180135 12939 net.cpp:141] Setting up inception_5a/3x3_reduce
I0403 21:49:16.180171 12939 net.cpp:148] Top shape: 24 160 7 7 (188160)
I0403 21:49:16.180197 12939 net.cpp:156] Memory required for data: 1295286816
I0403 21:49:16.180220 12939 layer_factory.hpp:77] Creating layer inception_5a/relu_3x3_reduce
I0403 21:49:16.180246 12939 net.cpp:91] Creating Layer inception_5a/relu_3x3_reduce
I0403 21:49:16.180268 12939 net.cpp:425] inception_5a/relu_3x3_reduce <- inception_5a/3x3_reduce
I0403 21:49:16.180289 12939 net.cpp:386] inception_5a/relu_3x3_reduce -> inception_5a/3x3_reduce (in-place)
I0403 21:49:16.180527 12939 net.cpp:141] Setting up inception_5a/relu_3x3_reduce
I0403 21:49:16.180558 12939 net.cpp:148] Top shape: 24 160 7 7 (188160)
I0403 21:49:16.180578 12939 net.cpp:156] Memory required for data: 1296039456
I0403 21:49:16.180598 12939 layer_factory.hpp:77] Creating layer inception_5a/3x3
I0403 21:49:16.180629 12939 net.cpp:91] Creating Layer inception_5a/3x3
I0403 21:49:16.180649 12939 net.cpp:425] inception_5a/3x3 <- inception_5a/3x3_reduce
I0403 21:49:16.180672 12939 net.cpp:399] inception_5a/3x3 -> inception_5a/3x3
I0403 21:49:16.186972 12939 net.cpp:141] Setting up inception_5a/3x3
I0403 21:49:16.187011 12939 net.cpp:148] Top shape: 24 320 7 7 (376320)
I0403 21:49:16.187031 12939 net.cpp:156] Memory required for data: 1297544736
I0403 21:49:16.187054 12939 layer_factory.hpp:77] Creating layer inception_5a/relu_3x3
I0403 21:49:16.187075 12939 net.cpp:91] Creating Layer inception_5a/relu_3x3
I0403 21:49:16.187095 12939 net.cpp:425] inception_5a/relu_3x3 <- inception_5a/3x3
I0403 21:49:16.187116 12939 net.cpp:386] inception_5a/relu_3x3 -> inception_5a/3x3 (in-place)
I0403 21:49:16.187481 12939 net.cpp:141] Setting up inception_5a/relu_3x3
I0403 21:49:16.187516 12939 net.cpp:148] Top shape: 24 320 7 7 (376320)
I0403 21:49:16.187537 12939 net.cpp:156] Memory required for data: 1299050016
I0403 21:49:16.187556 12939 layer_factory.hpp:77] Creating layer inception_5a/5x5_reduce
I0403 21:49:16.187582 12939 net.cpp:91] Creating Layer inception_5a/5x5_reduce
I0403 21:49:16.187603 12939 net.cpp:425] inception_5a/5x5_reduce <- pool4/3x3_s2_pool4/3x3_s2_0_split_2
I0403 21:49:16.187628 12939 net.cpp:399] inception_5a/5x5_reduce -> inception_5a/5x5_reduce
I0403 21:49:16.189067 12939 net.cpp:141] Setting up inception_5a/5x5_reduce
I0403 21:49:16.189105 12939 net.cpp:148] Top shape: 24 32 7 7 (37632)
I0403 21:49:16.189126 12939 net.cpp:156] Memory required for data: 1299200544
I0403 21:49:16.189148 12939 layer_factory.hpp:77] Creating layer inception_5a/relu_5x5_reduce
I0403 21:49:16.189169 12939 net.cpp:91] Creating Layer inception_5a/relu_5x5_reduce
I0403 21:49:16.189196 12939 net.cpp:425] inception_5a/relu_5x5_reduce <- inception_5a/5x5_reduce
I0403 21:49:16.189221 12939 net.cpp:386] inception_5a/relu_5x5_reduce -> inception_5a/5x5_reduce (in-place)
I0403 21:49:16.189579 12939 net.cpp:141] Setting up inception_5a/relu_5x5_reduce
I0403 21:49:16.189613 12939 net.cpp:148] Top shape: 24 32 7 7 (37632)
I0403 21:49:16.189633 12939 net.cpp:156] Memory required for data: 1299351072
I0403 21:49:16.189651 12939 layer_factory.hpp:77] Creating layer inception_5a/5x5
I0403 21:49:16.189678 12939 net.cpp:91] Creating Layer inception_5a/5x5
I0403 21:49:16.189700 12939 net.cpp:425] inception_5a/5x5 <- inception_5a/5x5_reduce
I0403 21:49:16.189723 12939 net.cpp:399] inception_5a/5x5 -> inception_5a/5x5
I0403 21:49:16.191853 12939 net.cpp:141] Setting up inception_5a/5x5
I0403 21:49:16.191903 12939 net.cpp:148] Top shape: 24 128 7 7 (150528)
I0403 21:49:16.191923 12939 net.cpp:156] Memory required for data: 1299953184
I0403 21:49:16.191946 12939 layer_factory.hpp:77] Creating layer inception_5a/relu_5x5
I0403 21:49:16.191969 12939 net.cpp:91] Creating Layer inception_5a/relu_5x5
I0403 21:49:16.191989 12939 net.cpp:425] inception_5a/relu_5x5 <- inception_5a/5x5
I0403 21:49:16.192010 12939 net.cpp:386] inception_5a/relu_5x5 -> inception_5a/5x5 (in-place)
I0403 21:49:16.192270 12939 net.cpp:141] Setting up inception_5a/relu_5x5
I0403 21:49:16.192301 12939 net.cpp:148] Top shape: 24 128 7 7 (150528)
I0403 21:49:16.192318 12939 net.cpp:156] Memory required for data: 1300555296
I0403 21:49:16.192337 12939 layer_factory.hpp:77] Creating layer inception_5a/pool
I0403 21:49:16.192358 12939 net.cpp:91] Creating Layer inception_5a/pool
I0403 21:49:16.192378 12939 net.cpp:425] inception_5a/pool <- pool4/3x3_s2_pool4/3x3_s2_0_split_3
I0403 21:49:16.192404 12939 net.cpp:399] inception_5a/pool -> inception_5a/pool
I0403 21:49:16.192490 12939 net.cpp:141] Setting up inception_5a/pool
I0403 21:49:16.192523 12939 net.cpp:148] Top shape: 24 832 7 7 (978432)
I0403 21:49:16.192540 12939 net.cpp:156] Memory required for data: 1304469024
I0403 21:49:16.192559 12939 layer_factory.hpp:77] Creating layer inception_5a/pool_proj
I0403 21:49:16.192586 12939 net.cpp:91] Creating Layer inception_5a/pool_proj
I0403 21:49:16.192607 12939 net.cpp:425] inception_5a/pool_proj <- inception_5a/pool
I0403 21:49:16.192631 12939 net.cpp:399] inception_5a/pool_proj -> inception_5a/pool_proj
I0403 21:49:16.195427 12939 net.cpp:141] Setting up inception_5a/pool_proj
I0403 21:49:16.195464 12939 net.cpp:148] Top shape: 24 128 7 7 (150528)
I0403 21:49:16.195482 12939 net.cpp:156] Memory required for data: 1305071136
I0403 21:49:16.195505 12939 layer_factory.hpp:77] Creating layer inception_5a/relu_pool_proj
I0403 21:49:16.195531 12939 net.cpp:91] Creating Layer inception_5a/relu_pool_proj
I0403 21:49:16.195552 12939 net.cpp:425] inception_5a/relu_pool_proj <- inception_5a/pool_proj
I0403 21:49:16.195572 12939 net.cpp:386] inception_5a/relu_pool_proj -> inception_5a/pool_proj (in-place)
I0403 21:49:16.195930 12939 net.cpp:141] Setting up inception_5a/relu_pool_proj
I0403 21:49:16.195960 12939 net.cpp:148] Top shape: 24 128 7 7 (150528)
I0403 21:49:16.195978 12939 net.cpp:156] Memory required for data: 1305673248
I0403 21:49:16.195998 12939 layer_factory.hpp:77] Creating layer inception_5a/output
I0403 21:49:16.196022 12939 net.cpp:91] Creating Layer inception_5a/output
I0403 21:49:16.196043 12939 net.cpp:425] inception_5a/output <- inception_5a/1x1
I0403 21:49:16.196063 12939 net.cpp:425] inception_5a/output <- inception_5a/3x3
I0403 21:49:16.196082 12939 net.cpp:425] inception_5a/output <- inception_5a/5x5
I0403 21:49:16.196102 12939 net.cpp:425] inception_5a/output <- inception_5a/pool_proj
I0403 21:49:16.196123 12939 net.cpp:399] inception_5a/output -> inception_5a/output
I0403 21:49:16.196192 12939 net.cpp:141] Setting up inception_5a/output
I0403 21:49:16.196223 12939 net.cpp:148] Top shape: 24 832 7 7 (978432)
I0403 21:49:16.196240 12939 net.cpp:156] Memory required for data: 1309586976
I0403 21:49:16.196259 12939 layer_factory.hpp:77] Creating layer inception_5a/output_inception_5a/output_0_split
I0403 21:49:16.196280 12939 net.cpp:91] Creating Layer inception_5a/output_inception_5a/output_0_split
I0403 21:49:16.196298 12939 net.cpp:425] inception_5a/output_inception_5a/output_0_split <- inception_5a/output
I0403 21:49:16.196322 12939 net.cpp:399] inception_5a/output_inception_5a/output_0_split -> inception_5a/output_inception_5a/output_0_split_0
I0403 21:49:16.196348 12939 net.cpp:399] inception_5a/output_inception_5a/output_0_split -> inception_5a/output_inception_5a/output_0_split_1
I0403 21:49:16.196373 12939 net.cpp:399] inception_5a/output_inception_5a/output_0_split -> inception_5a/output_inception_5a/output_0_split_2
I0403 21:49:16.196398 12939 net.cpp:399] inception_5a/output_inception_5a/output_0_split -> inception_5a/output_inception_5a/output_0_split_3
I0403 21:49:16.196542 12939 net.cpp:141] Setting up inception_5a/output_inception_5a/output_0_split
I0403 21:49:16.196573 12939 net.cpp:148] Top shape: 24 832 7 7 (978432)
I0403 21:49:16.196594 12939 net.cpp:148] Top shape: 24 832 7 7 (978432)
I0403 21:49:16.196614 12939 net.cpp:148] Top shape: 24 832 7 7 (978432)
I0403 21:49:16.196633 12939 net.cpp:148] Top shape: 24 832 7 7 (978432)
I0403 21:49:16.196650 12939 net.cpp:156] Memory required for data: 1325241888
I0403 21:49:16.196667 12939 layer_factory.hpp:77] Creating layer inception_5b/1x1
I0403 21:49:16.196694 12939 net.cpp:91] Creating Layer inception_5b/1x1
I0403 21:49:16.196717 12939 net.cpp:425] inception_5b/1x1 <- inception_5a/output_inception_5a/output_0_split_0
I0403 21:49:16.196739 12939 net.cpp:399] inception_5b/1x1 -> inception_5b/1x1
I0403 21:49:16.201342 12939 net.cpp:141] Setting up inception_5b/1x1
I0403 21:49:16.201378 12939 net.cpp:148] Top shape: 24 384 7 7 (451584)
I0403 21:49:16.201397 12939 net.cpp:156] Memory required for data: 1327048224
I0403 21:49:16.201421 12939 layer_factory.hpp:77] Creating layer inception_5b/relu_1x1
I0403 21:49:16.201447 12939 net.cpp:91] Creating Layer inception_5b/relu_1x1
I0403 21:49:16.201467 12939 net.cpp:425] inception_5b/relu_1x1 <- inception_5b/1x1
I0403 21:49:16.201489 12939 net.cpp:386] inception_5b/relu_1x1 -> inception_5b/1x1 (in-place)
I0403 21:49:16.201855 12939 net.cpp:141] Setting up inception_5b/relu_1x1
I0403 21:49:16.201887 12939 net.cpp:148] Top shape: 24 384 7 7 (451584)
I0403 21:49:16.201905 12939 net.cpp:156] Memory required for data: 1328854560
I0403 21:49:16.201922 12939 layer_factory.hpp:77] Creating layer inception_5b/3x3_reduce
I0403 21:49:16.201951 12939 net.cpp:91] Creating Layer inception_5b/3x3_reduce
I0403 21:49:16.201972 12939 net.cpp:425] inception_5b/3x3_reduce <- inception_5a/output_inception_5a/output_0_split_1
I0403 21:49:16.201997 12939 net.cpp:399] inception_5b/3x3_reduce -> inception_5b/3x3_reduce
I0403 21:49:16.205304 12939 net.cpp:141] Setting up inception_5b/3x3_reduce
I0403 21:49:16.205340 12939 net.cpp:148] Top shape: 24 192 7 7 (225792)
I0403 21:49:16.205360 12939 net.cpp:156] Memory required for data: 1329757728
I0403 21:49:16.205384 12939 layer_factory.hpp:77] Creating layer inception_5b/relu_3x3_reduce
I0403 21:49:16.205410 12939 net.cpp:91] Creating Layer inception_5b/relu_3x3_reduce
I0403 21:49:16.205430 12939 net.cpp:425] inception_5b/relu_3x3_reduce <- inception_5b/3x3_reduce
I0403 21:49:16.205451 12939 net.cpp:386] inception_5b/relu_3x3_reduce -> inception_5b/3x3_reduce (in-place)
I0403 21:49:16.205688 12939 net.cpp:141] Setting up inception_5b/relu_3x3_reduce
I0403 21:49:16.205723 12939 net.cpp:148] Top shape: 24 192 7 7 (225792)
I0403 21:49:16.205742 12939 net.cpp:156] Memory required for data: 1330660896
I0403 21:49:16.205761 12939 layer_factory.hpp:77] Creating layer inception_5b/3x3
I0403 21:49:16.205790 12939 net.cpp:91] Creating Layer inception_5b/3x3
I0403 21:49:16.205811 12939 net.cpp:425] inception_5b/3x3 <- inception_5b/3x3_reduce
I0403 21:49:16.205834 12939 net.cpp:399] inception_5b/3x3 -> inception_5b/3x3
I0403 21:49:16.214277 12939 net.cpp:141] Setting up inception_5b/3x3
I0403 21:49:16.214313 12939 net.cpp:148] Top shape: 24 384 7 7 (451584)
I0403 21:49:16.214332 12939 net.cpp:156] Memory required for data: 1332467232
I0403 21:49:16.214355 12939 layer_factory.hpp:77] Creating layer inception_5b/relu_3x3
I0403 21:49:16.214380 12939 net.cpp:91] Creating Layer inception_5b/relu_3x3
I0403 21:49:16.214401 12939 net.cpp:425] inception_5b/relu_3x3 <- inception_5b/3x3
I0403 21:49:16.214422 12939 net.cpp:386] inception_5b/relu_3x3 -> inception_5b/3x3 (in-place)
I0403 21:49:16.214784 12939 net.cpp:141] Setting up inception_5b/relu_3x3
I0403 21:49:16.214818 12939 net.cpp:148] Top shape: 24 384 7 7 (451584)
I0403 21:49:16.214836 12939 net.cpp:156] Memory required for data: 1334273568
I0403 21:49:16.214854 12939 layer_factory.hpp:77] Creating layer inception_5b/5x5_reduce
I0403 21:49:16.214906 12939 net.cpp:91] Creating Layer inception_5b/5x5_reduce
I0403 21:49:16.214929 12939 net.cpp:425] inception_5b/5x5_reduce <- inception_5a/output_inception_5a/output_0_split_2
I0403 21:49:16.214953 12939 net.cpp:399] inception_5b/5x5_reduce -> inception_5b/5x5_reduce
I0403 21:49:16.216539 12939 net.cpp:141] Setting up inception_5b/5x5_reduce
I0403 21:49:16.216577 12939 net.cpp:148] Top shape: 24 48 7 7 (56448)
I0403 21:49:16.216594 12939 net.cpp:156] Memory required for data: 1334499360
I0403 21:49:16.216617 12939 layer_factory.hpp:77] Creating layer inception_5b/relu_5x5_reduce
I0403 21:49:16.216642 12939 net.cpp:91] Creating Layer inception_5b/relu_5x5_reduce
I0403 21:49:16.216663 12939 net.cpp:425] inception_5b/relu_5x5_reduce <- inception_5b/5x5_reduce
I0403 21:49:16.216686 12939 net.cpp:386] inception_5b/relu_5x5_reduce -> inception_5b/5x5_reduce (in-place)
I0403 21:49:16.217156 12939 net.cpp:141] Setting up inception_5b/relu_5x5_reduce
I0403 21:49:16.217193 12939 net.cpp:148] Top shape: 24 48 7 7 (56448)
I0403 21:49:16.217213 12939 net.cpp:156] Memory required for data: 1334725152
I0403 21:49:16.217232 12939 layer_factory.hpp:77] Creating layer inception_5b/5x5
I0403 21:49:16.217257 12939 net.cpp:91] Creating Layer inception_5b/5x5
I0403 21:49:16.217279 12939 net.cpp:425] inception_5b/5x5 <- inception_5b/5x5_reduce
I0403 21:49:16.217303 12939 net.cpp:399] inception_5b/5x5 -> inception_5b/5x5
I0403 21:49:16.219830 12939 net.cpp:141] Setting up inception_5b/5x5
I0403 21:49:16.219866 12939 net.cpp:148] Top shape: 24 128 7 7 (150528)
I0403 21:49:16.219887 12939 net.cpp:156] Memory required for data: 1335327264
I0403 21:49:16.219908 12939 layer_factory.hpp:77] Creating layer inception_5b/relu_5x5
I0403 21:49:16.219931 12939 net.cpp:91] Creating Layer inception_5b/relu_5x5
I0403 21:49:16.219952 12939 net.cpp:425] inception_5b/relu_5x5 <- inception_5b/5x5
I0403 21:49:16.219976 12939 net.cpp:386] inception_5b/relu_5x5 -> inception_5b/5x5 (in-place)
I0403 21:49:16.220227 12939 net.cpp:141] Setting up inception_5b/relu_5x5
I0403 21:49:16.220258 12939 net.cpp:148] Top shape: 24 128 7 7 (150528)
I0403 21:49:16.220276 12939 net.cpp:156] Memory required for data: 1335929376
I0403 21:49:16.220294 12939 layer_factory.hpp:77] Creating layer inception_5b/pool
I0403 21:49:16.220317 12939 net.cpp:91] Creating Layer inception_5b/pool
I0403 21:49:16.220337 12939 net.cpp:425] inception_5b/pool <- inception_5a/output_inception_5a/output_0_split_3
I0403 21:49:16.220363 12939 net.cpp:399] inception_5b/pool -> inception_5b/pool
I0403 21:49:16.220455 12939 net.cpp:141] Setting up inception_5b/pool
I0403 21:49:16.220484 12939 net.cpp:148] Top shape: 24 832 7 7 (978432)
I0403 21:49:16.220502 12939 net.cpp:156] Memory required for data: 1339843104
I0403 21:49:16.220521 12939 layer_factory.hpp:77] Creating layer inception_5b/pool_proj
I0403 21:49:16.220551 12939 net.cpp:91] Creating Layer inception_5b/pool_proj
I0403 21:49:16.220572 12939 net.cpp:425] inception_5b/pool_proj <- inception_5b/pool
I0403 21:49:16.220595 12939 net.cpp:399] inception_5b/pool_proj -> inception_5b/pool_proj
I0403 21:49:16.223464 12939 net.cpp:141] Setting up inception_5b/pool_proj
I0403 21:49:16.223505 12939 net.cpp:148] Top shape: 24 128 7 7 (150528)
I0403 21:49:16.223525 12939 net.cpp:156] Memory required for data: 1340445216
I0403 21:49:16.223547 12939 layer_factory.hpp:77] Creating layer inception_5b/relu_pool_proj
I0403 21:49:16.223570 12939 net.cpp:91] Creating Layer inception_5b/relu_pool_proj
I0403 21:49:16.223592 12939 net.cpp:425] inception_5b/relu_pool_proj <- inception_5b/pool_proj
I0403 21:49:16.223613 12939 net.cpp:386] inception_5b/relu_pool_proj -> inception_5b/pool_proj (in-place)
I0403 21:49:16.223984 12939 net.cpp:141] Setting up inception_5b/relu_pool_proj
I0403 21:49:16.224020 12939 net.cpp:148] Top shape: 24 128 7 7 (150528)
I0403 21:49:16.224040 12939 net.cpp:156] Memory required for data: 1341047328
I0403 21:49:16.224059 12939 layer_factory.hpp:77] Creating layer inception_5b/output
I0403 21:49:16.224081 12939 net.cpp:91] Creating Layer inception_5b/output
I0403 21:49:16.224119 12939 net.cpp:425] inception_5b/output <- inception_5b/1x1
I0403 21:49:16.224141 12939 net.cpp:425] inception_5b/output <- inception_5b/3x3
I0403 21:49:16.224162 12939 net.cpp:425] inception_5b/output <- inception_5b/5x5
I0403 21:49:16.224189 12939 net.cpp:425] inception_5b/output <- inception_5b/pool_proj
I0403 21:49:16.224212 12939 net.cpp:399] inception_5b/output -> inception_5b/output
I0403 21:49:16.224278 12939 net.cpp:141] Setting up inception_5b/output
I0403 21:49:16.224308 12939 net.cpp:148] Top shape: 24 1024 7 7 (1204224)
I0403 21:49:16.224324 12939 net.cpp:156] Memory required for data: 1345864224
I0403 21:49:16.224344 12939 layer_factory.hpp:77] Creating layer pool5/7x7_s1
I0403 21:49:16.224369 12939 net.cpp:91] Creating Layer pool5/7x7_s1
I0403 21:49:16.224387 12939 net.cpp:425] pool5/7x7_s1 <- inception_5b/output
I0403 21:49:16.224409 12939 net.cpp:399] pool5/7x7_s1 -> pool5/7x7_s1
I0403 21:49:16.224683 12939 net.cpp:141] Setting up pool5/7x7_s1
I0403 21:49:16.224717 12939 net.cpp:148] Top shape: 24 1024 1 1 (24576)
I0403 21:49:16.224737 12939 net.cpp:156] Memory required for data: 1345962528
I0403 21:49:16.224756 12939 layer_factory.hpp:77] Creating layer pool5/drop_7x7_s1
I0403 21:49:16.224777 12939 net.cpp:91] Creating Layer pool5/drop_7x7_s1
I0403 21:49:16.224797 12939 net.cpp:425] pool5/drop_7x7_s1 <- pool5/7x7_s1
I0403 21:49:16.224818 12939 net.cpp:386] pool5/drop_7x7_s1 -> pool5/7x7_s1 (in-place)
I0403 21:49:16.224882 12939 net.cpp:141] Setting up pool5/drop_7x7_s1
I0403 21:49:16.224912 12939 net.cpp:148] Top shape: 24 1024 1 1 (24576)
I0403 21:49:16.224930 12939 net.cpp:156] Memory required for data: 1346060832
I0403 21:49:16.224947 12939 layer_factory.hpp:77] Creating layer loss3/classifier_plantvillage
I0403 21:49:16.224973 12939 net.cpp:91] Creating Layer loss3/classifier_plantvillage
I0403 21:49:16.224994 12939 net.cpp:425] loss3/classifier_plantvillage <- pool5/7x7_s1
I0403 21:49:16.225018 12939 net.cpp:399] loss3/classifier_plantvillage -> loss3/classifier_plantvillage
I0403 21:49:16.225549 12939 net.cpp:141] Setting up loss3/classifier_plantvillage
I0403 21:49:16.225580 12939 net.cpp:148] Top shape: 24 38 (912)
I0403 21:49:16.225599 12939 net.cpp:156] Memory required for data: 1346064480
I0403 21:49:16.225622 12939 layer_factory.hpp:77] Creating layer loss3/classifier_plantvillage_loss3/classifier_plantvillage_0_split
I0403 21:49:16.225646 12939 net.cpp:91] Creating Layer loss3/classifier_plantvillage_loss3/classifier_plantvillage_0_split
I0403 21:49:16.225666 12939 net.cpp:425] loss3/classifier_plantvillage_loss3/classifier_plantvillage_0_split <- loss3/classifier_plantvillage
I0403 21:49:16.225690 12939 net.cpp:399] loss3/classifier_plantvillage_loss3/classifier_plantvillage_0_split -> loss3/classifier_plantvillage_loss3/classifier_plantvillage_0_split_0
I0403 21:49:16.225718 12939 net.cpp:399] loss3/classifier_plantvillage_loss3/classifier_plantvillage_0_split -> loss3/classifier_plantvillage_loss3/classifier_plantvillage_0_split_1
I0403 21:49:16.225744 12939 net.cpp:399] loss3/classifier_plantvillage_loss3/classifier_plantvillage_0_split -> loss3/classifier_plantvillage_loss3/classifier_plantvillage_0_split_2
I0403 21:49:16.225769 12939 net.cpp:399] loss3/classifier_plantvillage_loss3/classifier_plantvillage_0_split -> loss3/classifier_plantvillage_loss3/classifier_plantvillage_0_split_3
I0403 21:49:16.225898 12939 net.cpp:141] Setting up loss3/classifier_plantvillage_loss3/classifier_plantvillage_0_split
I0403 21:49:16.225929 12939 net.cpp:148] Top shape: 24 38 (912)
I0403 21:49:16.225950 12939 net.cpp:148] Top shape: 24 38 (912)
I0403 21:49:16.225970 12939 net.cpp:148] Top shape: 24 38 (912)
I0403 21:49:16.225988 12939 net.cpp:148] Top shape: 24 38 (912)
I0403 21:49:16.226006 12939 net.cpp:156] Memory required for data: 1346079072
I0403 21:49:16.226024 12939 layer_factory.hpp:77] Creating layer loss1/loss
I0403 21:49:16.226052 12939 net.cpp:91] Creating Layer loss1/loss
I0403 21:49:16.226073 12939 net.cpp:425] loss1/loss <- loss1/classifier_plantvillage_loss1/classifier_plantvillage_0_split_0
I0403 21:49:16.226110 12939 net.cpp:425] loss1/loss <- label_data_1_split_0
…
