…
I0403 21:41:27.605473 12486 net.cpp:313] The NetState phase (1) differed from the phase (0) specified by a rule in layer data
I0403 21:41:27.606909 12486 net.cpp:49] Initializing net from parameters: 
state {
  phase: TEST
}
layer {
  name: "data"
  type: "Data"
  top: "data"
  top: "label"
  include {
    phase: TEST
  }
  transform_param {
    mirror: false
    crop_size: 224
    mean_file: "/home/mohanty/data/final_dataset/lmdb/color-80-20/mean.binaryproto"
  }
  data_param {
    source: "/home/mohanty/data/final_dataset/lmdb/color-80-20/test_db"
    batch_size: 24
    backend: LMDB
  }
}
layer {
  name: "conv1/7x7_s2"
  type: "Convolution"
  bottom: "data"
  top: "conv1/7x7_s2"
  param {
    lr_mult: 1
    decay_mult: 1
  }
  param {
    lr_mult: 2
    decay_mult: 0
  }
  convolution_param {
    num_output: 64
    pad: 3
    kernel_size: 7
    stride: 2
    weight_filler {
      type: "xavier"
      std: 0.1
    }
    bias_filler {
      type: "constant"
      value: 0.2
    }
  }
}
layer {
  name: "conv1/relu_7x7"
  type: "ReLU"
  bottom: "conv1/7x7_s2"
  top: "conv1/7x7_s2"
}
layer {
  name: "pool1/3x3_s2"
  type: "Pooling"
  bottom: "conv1/7x7_s2"
  top: "pool1/3x3_s2"
  pooling_param {
    pool: MAX
    kernel_size: 3
    stride: 2
  }
}
layer {
  name: "pool1/norm1"
  type: "LRN"
  bottom: "pool1/3x3_s2"
  top: "pool1/norm1"
  lrn_param {
    local_size: 5
    alpha: 0.0001
    beta: 0.75
  }
}
layer {
  name: "conv2/3x3_reduce"
  type: "Convolution"
  bottom: "pool1/norm1"
  top: "conv2/3x3_reduce"
  param {
    lr_mult: 1
    decay_mult: 1
  }
  param {
    lr_mult: 2
    decay_mult: 0
  }
  convolution_param {
    num_output: 64
    kernel_size: 1
    weight_filler {
      type: "xavier"
      std: 0.1
    }
    bias_filler {
      type: "constant"
      value: 0.2
    }
  }
}
layer {
  name: "conv2/relu_3x3_reduce"
  type: "ReLU"
  bottom: "conv2/3x3_reduce"
  top: "conv2/3x3_reduce"
}
layer {
  name: "conv2/3x3"
  type: "Convolution"
  bottom: "conv2/3x3_reduce"
  top: "conv2/3x3"
  param {
    lr_mult: 1
    decay_mult: 1
  }
  param {
    lr_mult: 2
    decay_mult: 0
  }
  convolution_param {
    num_output: 192
    pad: 1
    kernel_size: 3
    weight_filler {
      type: "xavier"
      std: 0.03
    }
    bias_filler {
      type: "constant"
      value: 0.2
    }
  }
}
layer {
  name: "conv2/relu_3x3"
  type: "ReLU"
  bottom: "conv2/3x3"
  top: "conv2/3x3"
}
layer {
  name: "conv2/norm2"
  type: "LRN"
  bottom: "conv2/3x3"
  top: "conv2/norm2"
  lrn_param {
    local_size: 5
    alpha: 0.0001
    beta: 0.75
  }
}
layer {
  name: "pool2/3x3_s2"
  type: "Pooling"
  bottom: "conv2/norm2"
  top: "pool2/3x3_s2"
  pooling_param {
    pool: MAX
    kernel_size: 3
    stride: 2
  }
}
layer {
  name: "inception_3a/1x1"
  type: "Convolution"
  bottom: "pool2/3x3_s2"
  top: "inception_3a/1x1"
  param {
    lr_mult: 1
    decay_mult: 1
  }
  param {
    lr_mult: 2
    decay_mult: 0
  }
  convolution_param {
    num_output: 64
    kernel_size: 1
    weight_filler {
      type: "xavier"
      std: 0.03
    }
    bias_filler {
      type: "constant"
      value: 0.2
    }
  }
}
layer {
  name: "inception_3a/relu_1x1"
  type: "ReLU"
  bottom: "inception_3a/1x1"
  top: "inception_3a/1x1"
}
layer {
  name: "inception_3a/3x3_reduce"
  type: "Convolution"
  bottom: "pool2/3x3_s2"
  top: "inception_3a/3x3_reduce"
  param {
    lr_mult: 1
    decay_mult: 1
  }
  param {
    lr_mult: 2
    decay_mult: 0
  }
  convolution_param {
    num_output: 96
    kernel_size: 1
    weight_filler {
      type: "xavier"
      std: 0.09
    }
    bias_filler {
      type: "constant"
      value: 0.2
    }
  }
}
layer {
  name: "inception_3a/relu_3x3_reduce"
  type: "ReLU"
  bottom: "inception_3a/3x3_reduce"
  top: "inception_3a/3x3_reduce"
}
layer {
  name: "inception_3a/3x3"
  type: "Convolution"
  bottom: "inception_3a/3x3_reduce"
  top: "inception_3a/3x3"
  param {
    lr_mult: 1
    decay_mult: 1
  }
  param {
    lr_mult: 2
    decay_mult: 0
  }
  convolution_param {
    num_output: 128
    pad: 1
    kernel_size: 3
    weight_filler {
      type: "xavier"
      std: 0.03
    }
    bias_filler {
      type: "constant"
      value: 0.2
    }
  }
}
layer {
  name: "inception_3a/relu_3x3"
  type: "ReLU"
  bottom: "inception_3a/3x3"
  top: "inception_3a/3x3"
}
layer {
  name: "inception_3a/5x5_reduce"
  type: "Convolution"
  bottom: "pool2/3x3_s2"
  top: "inception_3a/5x5_reduce"
  param {
    lr_mult: 1
    decay_mult: 1
  }
  param {
    lr_mult: 2
    decay_mult: 0
  }
  convolution_param {
    num_output: 16
    kernel_size: 1
    weight_filler {
      type: "xavier"
      std: 0.2
    }
    bias_filler {
      type: "constant"
      value: 0.2
    }
  }
}
layer {
  name: "inception_3a/relu_5x5_reduce"
  type: "ReLU"
  bottom: "inception_3a/5x5_reduce"
  top: "inception_3a/5x5_reduce"
}
layer {
  name: "inception_3a/5x5"
  type: "Convolution"
  bottom: "inception_3a/5x5_reduce"
  top: "inception_3a/5x5"
  param {
    lr_mult: 1
    decay_mult: 1
  }
  param {
    lr_mult: 2
    decay_mult: 0
  }
  convolution_param {
    num_output: 32
    pad: 2
    kernel_size: 5
    weight_filler {
      type: "xavier"
      std: 0.03
    }
    bias_filler {
      type: "constant"
      value: 0.2
    }
  }
}
layer {
  name: "inception_3a/relu_5x5"
  type: "ReLU"
  bottom: "inception_3a/5x5"
  top: "inception_3a/5x5"
}
layer {
  name: "inception_3a/pool"
  type: "Pooling"
  bottom: "pool2/3x3_s2"
  top: "inception_3a/pool"
  pooling_param {
    pool: MAX
    kernel_size: 3
    stride: 1
    pad: 1
  }
}
layer {
  name: "inception_3a/pool_proj"
  type: "Convolution"
  bottom: "inception_3a/pool"
  top: "inception_3a/pool_proj"
  param {
    lr_mult: 1
    decay_mult: 1
  }
  param {
    lr_mult: 2
    decay_mult: 0
  }
  convolution_param {
    num_output: 32
    kernel_size: 1
    weight_filler {
      type: "xavier"
      std: 0.1
    }
    bias_filler {
      type: "constant"
      value: 0.2
    }
  }
}
layer {
  name: "inception_3a/relu_pool_proj"
  type: "ReLU"
  bottom: "inception_3a/pool_proj"
  top: "inception_3a/pool_proj"
}
layer {
  name: "inception_3a/output"
  type: "Concat"
  bottom: "inception_3a/1x1"
  bottom: "inception_3a/3x3"
  bottom: "inception_3a/5x5"
  bottom: "inception_3a/pool_proj"
  top: "inception_3a/output"
}
layer {
  name: "inception_3b/1x1"
  type: "Convolution"
  bottom: "inception_3a/output"
  top: "inception_3b/1x1"
  param {
    lr_mult: 1
    decay_mult: 1
  }
  param {
    lr_mult: 2
    decay_mult: 0
  }
  convolution_param {
    num_output: 128
    kernel_size: 1
    weight_filler {
      type: "xavier"
      std: 0.03
    }
    bias_filler {
      type: "constant"
      value: 0.2
    }
  }
}
layer {
  name: "inception_3b/relu_1x1"
  type: "ReLU"
  bottom: "inception_3b/1x1"
  top: "inception_3b/1x1"
}
layer {
  name: "inception_3b/3x3_reduce"
  type: "Convolution"
  bottom: "inception_3a/output"
  top: "inception_3b/3x3_reduce"
  param {
    lr_mult: 1
    decay_mult: 1
  }
  param {
    lr_mult: 2
    decay_mult: 0
  }
  convolution_param {
    num_output: 128
    kernel_size: 1
    weight_filler {
      type: "xavier"
      std: 0.09
    }
    bias_filler {
      type: "constant"
      value: 0.2
    }
  }
}
layer {
  name: "inception_3b/relu_3x3_reduce"
  type: "ReLU"
  bottom: "inception_3b/3x3_reduce"
  top: "inception_3b/3x3_reduce"
}
layer {
  name: "inception_3b/3x3"
  type: "Convolution"
  bottom: "inception_3b/3x3_reduce"
  top: "inception_3b/3x3"
  param {
    lr_mult: 1
    decay_mult: 1
  }
  param {
    lr_mult: 2
    decay_mult: 0
  }
  convolution_param {
    num_output: 192
    pad: 1
    kernel_size: 3
    weight_filler {
      type: "xavier"
      std: 0.03
    }
    bias_filler {
      type: "constant"
      value: 0.2
    }
  }
}
layer {
  name: "inception_3b/relu_3x3"
  type: "ReLU"
  bottom: "inception_3b/3x3"
  top: "inception_3b/3x3"
}
layer {
  name: "inception_3b/5x5_reduce"
  type: "Convolution"
  bottom: "inception_3a/output"
  top: "inception_3b/5x5_reduce"
  param {
    lr_mult: 1
    decay_mult: 1
  }
  param {
    lr_mult: 2
    decay_mult: 0
  }
  convolution_param {
    num_output: 32
    kernel_size: 1
    weight_filler {
      type: "xavier"
      std: 0.2
    }
    bias_filler {
      type: "constant"
      value: 0.2
    }
  }
}
layer {
  name: "inception_3b/relu_5x5_reduce"
  type: "ReLU"
  bottom: "inception_3b/5x5_reduce"
  top: "inception_3b/5x5_reduce"
}
layer {
  name: "inception_3b/5x5"
  type: "Convolution"
  bottom: "inception_3b/5x5_reduce"
  top: "inception_3b/5x5"
  param {
    lr_mult: 1
    decay_mult: 1
  }
  param {
    lr_mult: 2
    decay_mult: 0
  }
  convolution_param {
    num_output: 96
    pad: 2
    kernel_size: 5
    weight_filler {
      type: "xavier"
      std: 0.03
    }
    bias_filler {
      type: "constant"
      value: 0.2
    }
  }
}
layer {
  name: "inception_3b/relu_5x5"
  type: "ReLU"
  bottom: "inception_3b/5x5"
  top: "inception_3b/5x5"
}
layer {
  name: "inception_3b/pool"
  type: "Pooling"
  bottom: "inception_3a/output"
  top: "inception_3b/pool"
  pooling_param {
    pool: MAX
    kernel_size: 3
    stride: 1
    pad: 1
  }
}
layer {
  name: "inception_3b/pool_proj"
  type: "Convolution"
  bottom: "inception_3b/pool"
  top: "inception_3b/pool_proj"
  param {
    lr_mult: 1
    decay_mult: 1
  }
  param {
    lr_mult: 2
    decay_mult: 0
  }
  convolution_param {
    num_output: 64
    kernel_size: 1
    weight_filler {
      type: "xavier"
      std: 0.1
    }
    bias_filler {
      type: "constant"
      value: 0.2
    }
  }
}
layer {
  name: "inception_3b/relu_pool_proj"
  type: "ReLU"
  bottom: "inception_3b/pool_proj"
  top: "inception_3b/pool_proj"
}
layer {
  name: "inception_3b/output"
  type: "Concat"
  bottom: "inception_3b/1x1"
  bottom: "inception_3b/3x3"
  bottom: "inception_3b/5x5"
  bottom: "inception_3b/pool_proj"
  top: "inception_3b/output"
}
layer {
  name: "pool3/3x3_s2"
  type: "Pooling"
  bottom: "inception_3b/output"
  top: "pool3/3x3_s2"
  pooling_param {
    pool: MAX
    kernel_size: 3
    stride: 2
  }
}
layer {
  name: "inception_4a/1x1"
  type: "Convolution"
  bottom: "pool3/3x3_s2"
  top: "inception_4a/1x1"
  param {
    lr_mult: 1
    decay_mult: 1
  }
  param {
    lr_mult: 2
    decay_mult: 0
  }
  convolution_param {
    num_output: 192
    kernel_size: 1
    weight_filler {
      type: "xavier"
      std: 0.03
    }
    bias_filler {
      type: "constant"
      value: 0.2
    }
  }
}
layer {
  name: "inception_4a/relu_1x1"
  type: "ReLU"
  bottom: "inception_4a/1x1"
  top: "inception_4a/1x1"
}
layer {
  name: "inception_4a/3x3_reduce"
  type: "Convolution"
  bottom: "pool3/3x3_s2"
  top: "inception_4a/3x3_reduce"
  param {
    lr_mult: 1
    decay_mult: 1
  }
  param {
    lr_mult: 2
    decay_mult: 0
  }
  convolution_param {
    num_output: 96
    kernel_size: 1
    weight_filler {
      type: "xavier"
      std: 0.09
    }
    bias_filler {
      type: "constant"
      value: 0.2
    }
  }
}
layer {
  name: "inception_4a/relu_3x3_reduce"
  type: "ReLU"
  bottom: "inception_4a/3x3_reduce"
  top: "inception_4a/3x3_reduce"
}
layer {
  name: "inception_4a/3x3"
  type: "Convolution"
  bottom: "inception_4a/3x3_reduce"
  top: "inception_4a/3x3"
  param {
    lr_mult: 1
    decay_mult: 1
  }
  param {
    lr_mult: 2
    decay_mult: 0
  }
  convolution_param {
    num_output: 208
    pad: 1
    kernel_size: 3
    weight_filler {
      type: "xavier"
      std: 0.03
    }
    bias_filler {
      type: "constant"
      value: 0.2
    }
  }
}
layer {
  name: "inception_4a/relu_3x3"
  type: "ReLU"
  bottom: "inception_4a/3x3"
  top: "inception_4a/3x3"
}
layer {
  name: "inception_4a/5x5_reduce"
  type: "Convolution"
  bottom: "pool3/3x3_s2"
  top: "inception_4a/5x5_reduce"
  param {
    lr_mult: 1
    decay_mult: 1
  }
  param {
    lr_mult: 2
    decay_mult: 0
  }
  convolution_param {
    num_output: 16
    kernel_size: 1
    weight_filler {
      type: "xavier"
      std: 0.2
    }
    bias_filler {
      type: "constant"
      value: 0.2
    }
  }
}
layer {
  name: "inception_4a/relu_5x5_reduce"
  type: "ReLU"
  bottom: "inception_4a/5x5_reduce"
  top: "inception_4a/5x5_reduce"
}
layer {
  name: "inception_4a/5x5"
  type: "Convolution"
  bottom: "inception_4a/5x5_reduce"
  top: "inception_4a/5x5"
  param {
    lr_mult: 1
    decay_mult: 1
  }
  param {
    lr_mult: 2
    decay_mult: 0
  }
  convolution_param {
    num_output: 48
    pad: 2
    kernel_size: 5
    weight_filler {
      type: "xavier"
      std: 0.03
    }
    bias_filler {
      type: "constant"
      value: 0.2
    }
  }
}
layer {
  name: "inception_4a/relu_5x5"
  type: "ReLU"
  bottom: "inception_4a/5x5"
  top: "inception_4a/5x5"
}
layer {
  name: "inception_4a/pool"
  type: "Pooling"
  bottom: "pool3/3x3_s2"
  top: "inception_4a/pool"
  pooling_param {
    pool: MAX
    kernel_size: 3
    stride: 1
    pad: 1
  }
}
layer {
  name: "inception_4a/pool_proj"
  type: "Convolution"
  bottom: "inception_4a/pool"
  top: "inception_4a/pool_proj"
  param {
    lr_mult: 1
    decay_mult: 1
  }
  param {
    lr_mult: 2
    decay_mult: 0
  }
  convolution_param {
    num_output: 64
    kernel_size: 1
    weight_filler {
      type: "xavier"
      std: 0.1
    }
    bias_filler {
      type: "constant"
      value: 0.2
    }
  }
}
layer {
  name: "inception_4a/relu_pool_proj"
  type: "ReLU"
  bottom: "inception_4a/pool_proj"
  top: "inception_4a/pool_proj"
}
layer {
  name: "inception_4a/output"
  type: "Concat"
  bottom: "inception_4a/1x1"
  bottom: "inception_4a/3x3"
  bottom: "inception_4a/5x5"
  bottom: "inception_4a/pool_proj"
  top: "inception_4a/output"
}
layer {
  name: "loss1/ave_pool"
  type: "Pooling"
  bottom: "inception_4a/output"
  top: "loss1/ave_pool"
  pooling_param {
    pool: AVE
    kernel_size: 5
    stride: 3
  }
}
layer {
  name: "loss1/conv"
  type: "Convolution"
  bottom: "loss1/ave_pool"
  top: "loss1/conv"
  param {
    lr_mult: 1
    decay_mult: 1
  }
  param {
    lr_mult: 2
    decay_mult: 0
  }
  convolution_param {
    num_output: 128
    kernel_size: 1
    weight_filler {
      type: "xavier"
      std: 0.08
    }
    bias_filler {
      type: "constant"
      value: 0.2
    }
  }
}
layer {
  name: "loss1/relu_conv"
  type: "ReLU"
  bottom: "loss1/conv"
  top: "loss1/conv"
}
layer {
  name: "loss1/fc"
  type: "InnerProduct"
  bottom: "loss1/conv"
  top: "loss1/fc"
  param {
    lr_mult: 1
    decay_mult: 1
  }
  param {
    lr_mult: 2
    decay_mult: 0
  }
  inner_product_param {
    num_output: 1024
    weight_filler {
      type: "xavier"
      std: 0.02
    }
    bias_filler {
      type: "constant"
      value: 0.2
    }
  }
}
layer {
  name: "loss1/relu_fc"
  type: "ReLU"
  bottom: "loss1/fc"
  top: "loss1/fc"
}
layer {
  name: "loss1/drop_fc"
  type: "Dropout"
  bottom: "loss1/fc"
  top: "loss1/fc"
  dropout_param {
    dropout_ratio: 0.7
  }
}
layer {
  name: "loss1/classifier_plantvillage"
  type: "InnerProduct"
  bottom: "loss1/fc"
  top: "loss1/classifier_plantvillage"
  param {
    lr_mult: 1
    decay_mult: 1
  }
  param {
    lr_mult: 2
    decay_mult: 0
  }
  inner_product_param {
    num_output: 38
    weight_filler {
      type: "xavier"
      std: 0.0009765625
    }
    bias_filler {
      type: "constant"
      value: 0
    }
  }
}
layer {
  name: "inception_4b/1x1"
  type: "Convolution"
  bottom: "inception_4a/output"
  top: "inception_4b/1x1"
  param {
    lr_mult: 1
    decay_mult: 1
  }
  param {
    lr_mult: 2
    decay_mult: 0
  }
  convolution_param {
    num_output: 160
    kernel_size: 1
    weight_filler {
      type: "xavier"
      std: 0.03
    }
    bias_filler {
      type: "constant"
      value: 0.2
    }
  }
}
layer {
  name: "inception_4b/relu_1x1"
  type: "ReLU"
  bottom: "inception_4b/1x1"
  top: "inception_4b/1x1"
}
layer {
  name: "inception_4b/3x3_reduce"
  type: "Convolution"
  bottom: "inception_4a/output"
  top: "inception_4b/3x3_reduce"
  param {
    lr_mult: 1
    decay_mult: 1
  }
  param {
    lr_mult: 2
    decay_mult: 0
  }
  convolution_param {
    num_output: 112
    kernel_size: 1
    weight_filler {
      type: "xavier"
      std: 0.09
    }
    bias_filler {
      type: "constant"
      value: 0.2
    }
  }
}
layer {
  name: "inception_4b/relu_3x3_reduce"
  type: "ReLU"
  bottom: "inception_4b/3x3_reduce"
  top: "inception_4b/3x3_reduce"
}
layer {
  name: "inception_4b/3x3"
  type: "Convolution"
  bottom: "inception_4b/3x3_reduce"
  top: "inception_4b/3x3"
  param {
    lr_mult: 1
    decay_mult: 1
  }
  param {
    lr_mult: 2
    decay_mult: 0
  }
  convolution_param {
    num_output: 224
    pad: 1
    kernel_size: 3
    weight_filler {
      type: "xavier"
      std: 0.03
    }
    bias_filler {
      type: "constant"
      value: 0.2
    }
  }
}
layer {
  name: "inception_4b/relu_3x3"
  type: "ReLU"
  bottom: "inception_4b/3x3"
  top: "inception_4b/3x3"
}
layer {
  name: "inception_4b/5x5_reduce"
  type: "Convolution"
  bottom: "inception_4a/output"
  top: "inception_4b/5x5_reduce"
  param {
    lr_mult: 1
    decay_mult: 1
  }
  param {
    lr_mult: 2
    decay_mult: 0
  }
  convolution_param {
    num_output: 24
    kernel_size: 1
    weight_filler {
      type: "xavier"
      std: 0.2
    }
    bias_filler {
      type: "constant"
      value: 0.2
    }
  }
}
layer {
  name: "inception_4b/relu_5x5_reduce"
  type: "ReLU"
  bottom: "inception_4b/5x5_reduce"
  top: "inception_4b/5x5_reduce"
}
layer {
  name: "inception_4b/5x5"
  type: "Convolution"
  bottom: "inception_4b/5x5_reduce"
  top: "inception_4b/5x5"
  param {
    lr_mult: 1
    decay_mult: 1
  }
  param {
    lr_mult: 2
    decay_mult: 0
  }
  convolution_param {
    num_output: 64
    pad: 2
    kernel_size: 5
    weight_filler {
      type: "xavier"
      std: 0.03
    }
    bias_filler {
      type: "constant"
      value: 0.2
    }
  }
}
layer {
  name: "inception_4b/relu_5x5"
  type: "ReLU"
  bottom: "inception_4b/5x5"
  top: "inception_4b/5x5"
}
layer {
  name: "inception_4b/pool"
  type: "Pooling"
  bottom: "inception_4a/output"
  top: "inception_4b/pool"
  pooling_param {
    pool: MAX
    kernel_size: 3
    stride: 1
    pad: 1
  }
}
layer {
  name: "inception_4b/pool_proj"
  type: "Convolution"
  bottom: "inception_4b/pool"
  top: "inception_4b/pool_proj"
  param {
    lr_mult: 1
    decay_mult: 1
  }
  param {
    lr_mult: 2
    decay_mult: 0
  }
  convolution_param {
    num_output: 64
    kernel_size: 1
    weight_filler {
      type: "xavier"
      std: 0.1
    }
    bias_filler {
      type: "constant"
      value: 0.2
    }
  }
}
layer {
  name: "inception_4b/relu_pool_proj"
  type: "ReLU"
  bottom: "inception_4b/pool_proj"
  top: "inception_4b/pool_proj"
}
layer {
  name: "inception_4b/output"
  type: "Concat"
  bottom: "inception_4b/1x1"
  bottom: "inception_4b/3x3"
  bottom: "inception_4b/5x5"
  bottom: "inception_4b/pool_proj"
  top: "inception_4b/output"
}
layer {
  name: "inception_4c/1x1"
  type: "Convolution"
  bottom: "inception_4b/output"
  top: "inception_4c/1x1"
  param {
    lr_mult: 1
    decay_mult: 1
  }
  param {
    lr_mult: 2
    decay_mult: 0
  }
  convolution_param {
    num_output: 128
    kernel_size: 1
    weight_filler {
      type: "xavier"
      std: 0.03
    }
    bias_filler {
      type: "constant"
      value: 0.2
    }
  }
}
layer {
  name: "inception_4c/relu_1x1"
  type: "ReLU"
  bottom: "inception_4c/1x1"
  top: "inception_4c/1x1"
}
layer {
  name: "inception_4c/3x3_reduce"
  type: "Convolution"
  bottom: "inception_4b/output"
  top: "inception_4c/3x3_reduce"
  param {
    lr_mult: 1
    decay_mult: 1
  }
  param {
    lr_mult: 2
    decay_mult: 0
  }
  convolution_param {
    num_output: 128
    kernel_size: 1
    weight_filler {
      type: "xavier"
      std: 0.09
    }
    bias_filler {
      type: "constant"
      value: 0.2
    }
  }
}
layer {
  name: "inception_4c/relu_3x3_reduce"
  type: "ReLU"
  bottom: "inception_4c/3x3_reduce"
  top: "inception_4c/3x3_reduce"
}
layer {
  name: "inception_4c/3x3"
  type: "Convolution"
  bottom: "inception_4c/3x3_reduce"
  top: "inception_4c/3x3"
  param {
    lr_mult: 1
    decay_mult: 1
  }
  param {
    lr_mult: 2
    decay_mult: 0
  }
  convolution_param {
    num_output: 256
    pad: 1
    kernel_size: 3
    weight_filler {
      type: "xavier"
      std: 0.03
    }
    bias_filler {
      type: "constant"
      value: 0.2
    }
  }
}
layer {
  name: "inception_4c/relu_3x3"
  type: "ReLU"
  bottom: "inception_4c/3x3"
  top: "inception_4c/3x3"
}
layer {
  name: "inception_4c/5x5_reduce"
  type: "Convolution"
  bottom: "inception_4b/output"
  top: "inception_4c/5x5_reduce"
  param {
    lr_mult: 1
    decay_mult: 1
  }
  param {
    lr_mult: 2
    decay_mult: 0
  }
  convolution_param {
    num_output: 24
    kernel_size: 1
    weight_filler {
      type: "xavier"
      std: 0.2
    }
    bias_filler {
      type: "constant"
      value: 0.2
    }
  }
}
layer {
  name: "inception_4c/relu_5x5_reduce"
  type: "ReLU"
  bottom: "inception_4c/5x5_reduce"
  top: "inception_4c/5x5_reduce"
}
layer {
  name: "inception_4c/5x5"
  type: "Convolution"
  bottom: "inception_4c/5x5_reduce"
  top: "inception_4c/5x5"
  param {
    lr_mult: 1
    decay_mult: 1
  }
  param {
    lr_mult: 2
    decay_mult: 0
  }
  convolution_param {
    num_output: 64
    pad: 2
    kernel_size: 5
    weight_filler {
      type: "xavier"
      std: 0.03
    }
    bias_filler {
      type: "constant"
      value: 0.2
    }
  }
}
layer {
  name: "inception_4c/relu_5x5"
  type: "ReLU"
  bottom: "inception_4c/5x5"
  top: "inception_4c/5x5"
}
layer {
  name: "inception_4c/pool"
  type: "Pooling"
  bottom: "inception_4b/output"
  top: "inception_4c/pool"
  pooling_param {
    pool: MAX
    kernel_size: 3
    stride: 1
    pad: 1
  }
}
layer {
  name: "inception_4c/pool_proj"
  type: "Convolution"
  bottom: "inception_4c/pool"
  top: "inception_4c/pool_proj"
  param {
    lr_mult: 1
    decay_mult: 1
  }
  param {
    lr_mult: 2
    decay_mult: 0
  }
  convolution_param {
    num_output: 64
    kernel_size: 1
    weight_filler {
      type: "xavier"
      std: 0.1
    }
    bias_filler {
      type: "constant"
      value: 0.2
    }
  }
}
layer {
  name: "inception_4c/relu_pool_proj"
  type: "ReLU"
  bottom: "inception_4c/pool_proj"
  top: "inception_4c/pool_proj"
}
layer {
  name: "inception_4c/output"
  type: "Concat"
  bottom: "inception_4c/1x1"
  bottom: "inception_4c/3x3"
  bottom: "inception_4c/5x5"
  bottom: "inception_4c/pool_proj"
  top: "inception_4c/output"
}
layer {
  name: "inception_4d/1x1"
  type: "Convolution"
  bottom: "inception_4c/output"
  top: "inception_4d/1x1"
  param {
    lr_mult: 1
    decay_mult: 1
  }
  param {
    lr_mult: 2
    decay_mult: 0
  }
  convolution_param {
    num_output: 112
    kernel_size: 1
    weight_filler {
      type: "xavier"
      std: 0.03
    }
    bias_filler {
      type: "constant"
      value: 0.2
    }
  }
}
layer {
  name: "inception_4d/relu_1x1"
  type: "ReLU"
  bottom: "inception_4d/1x1"
  top: "inception_4d/1x1"
}
layer {
  name: "inception_4d/3x3_reduce"
  type: "Convolution"
  bottom: "inception_4c/output"
  top: "inception_4d/3x3_reduce"
  param {
    lr_mult: 1
    decay_mult: 1
  }
  param {
    lr_mult: 2
    decay_mult: 0
  }
  convolution_param {
    num_output: 144
    kernel_size: 1
    weight_filler {
      type: "xavier"
      std: 0.09
    }
    bias_filler {
      type: "constant"
      value: 0.2
    }
  }
}
layer {
  name: "inception_4d/relu_3x3_reduce"
  type: "ReLU"
  bottom: "inception_4d/3x3_reduce"
  top: "inception_4d/3x3_reduce"
}
layer {
  name: "inception_4d/3x3"
  type: "Convolution"
  bottom: "inception_4d/3x3_reduce"
  top: "inception_4d/3x3"
  param {
    lr_mult: 1
    decay_mult: 1
  }
  param {
    lr_mult: 2
    decay_mult: 0
  }
  convolution_param {
    num_output: 288
    pad: 1
    kernel_size: 3
    weight_filler {
      type: "xavier"
      std: 0.03
    }
    bias_filler {
      type: "constant"
      value: 0.2
    }
  }
}
layer {
  name: "inception_4d/relu_3x3"
  type: "ReLU"
  bottom: "inception_4d/3x3"
  top: "inception_4d/3x3"
}
layer {
  name: "inception_4d/5x5_reduce"
  type: "Convolution"
  bottom: "inception_4c/output"
  top: "inception_4d/5x5_reduce"
  param {
    lr_mult: 1
    decay_mult: 1
  }
  param {
    lr_mult: 2
    decay_mult: 0
  }
  convolution_param {
    num_output: 32
    kernel_size: 1
    weight_filler {
      type: "xavier"
      std: 0.2
    }
    bias_filler {
      type: "constant"
      value: 0.2
    }
  }
}
layer {
  name: "inception_4d/relu_5x5_reduce"
  type: "ReLU"
  bottom: "inception_4d/5x5_reduce"
  top: "inception_4d/5x5_reduce"
}
layer {
  name: "inception_4d/5x5"
  type: "Convolution"
  bottom: "inception_4d/5x5_reduce"
  top: "inception_4d/5x5"
  param {
    lr_mult: 1
    decay_mult: 1
  }
  param {
    lr_mult: 2
    decay_mult: 0
  }
  convolution_param {
    num_output: 64
    pad: 2
    kernel_size: 5
    weight_filler {
      type: "xavier"
      std: 0.03
    }
    bias_filler {
      type: "constant"
      value: 0.2
    }
  }
}
layer {
  name: "inception_4d/relu_5x5"
  type: "ReLU"
  bottom: "inception_4d/5x5"
  top: "inception_4d/5x5"
}
layer {
  name: "inception_4d/pool"
  type: "Pooling"
  bottom: "inception_4c/output"
  top: "inception_4d/pool"
  pooling_param {
    pool: MAX
    kernel_size: 3
    stride: 1
    pad: 1
  }
}
layer {
  name: "inception_4d/pool_proj"
  type: "Convolution"
  bottom: "inception_4d/pool"
  top: "inception_4d/pool_proj"
  param {
    lr_mult: 1
    decay_mult: 1
  }
  param {
    lr_mult: 2
    decay_mult: 0
  }
  convolution_param {
    num_output: 64
    kernel_size: 1
    weight_filler {
      type: "xavier"
      std: 0.1
    }
    bias_filler {
      type: "constant"
      value: 0.2
    }
  }
}
layer {
  name: "inception_4d/relu_pool_proj"
  type: "ReLU"
  bottom: "inception_4d/pool_proj"
  top: "inception_4d/pool_proj"
}
layer {
  name: "inception_4d/output"
  type: "Concat"
  bottom: "inception_4d/1x1"
  bottom: "inception_4d/3x3"
  bottom: "inception_4d/5x5"
  bottom: "inception_4d/pool_proj"
  top: "inception_4d/output"
}
layer {
  name: "loss2/ave_pool"
  type: "Pooling"
  bottom: "inception_4d/output"
  top: "loss2/ave_pool"
  pooling_param {
    pool: AVE
    kernel_size: 5
    stride: 3
  }
}
layer {
  name: "loss2/conv"
  type: "Convolution"
  bottom: "loss2/ave_pool"
  top: "loss2/conv"
  param {
    lr_mult: 1
    decay_mult: 1
  }
  param {
    lr_mult: 2
    decay_mult: 0
  }
  convolution_param {
    num_output: 128
    kernel_size: 1
    weight_filler {
      type: "xavier"
      std: 0.08
    }
    bias_filler {
      type: "constant"
      value: 0.2
    }
  }
}
layer {
  name: "loss2/relu_conv"
  type: "ReLU"
  bottom: "loss2/conv"
  top: "loss2/conv"
}
layer {
  name: "loss2/fc"
  type: "InnerProduct"
  bottom: "loss2/conv"
  top: "loss2/fc"
  param {
    lr_mult: 1
    decay_mult: 1
  }
  param {
    lr_mult: 2
    decay_mult: 0
  }
  inner_product_param {
    num_output: 1024
    weight_filler {
      type: "xavier"
      std: 0.02
    }
    bias_filler {
      type: "constant"
      value: 0.2
    }
  }
}
layer {
  name: "loss2/relu_fc"
  type: "ReLU"
  bottom: "loss2/fc"
  top: "loss2/fc"
}
layer {
  name: "loss2/drop_fc"
  type: "Dropout"
  bottom: "loss2/fc"
  top: "loss2/fc"
  dropout_param {
    dropout_ratio: 0.7
  }
}
layer {
  name: "loss2/classifier_plantvillage"
  type: "InnerProduct"
  bottom: "loss2/fc"
  top: "loss2/classifier_plantvillage"
  param {
    lr_mult: 1
    decay_mult: 1
  }
  param {
    lr_mult: 2
    decay_mult: 0
  }
  inner_product_param {
    num_output: 38
    weight_filler {
      type: "xavier"
      std: 0.0009765625
    }
    bias_filler {
      type: "constant"
      value: 0
    }
  }
}
layer {
  name: "inception_4e/1x1"
  type: "Convolution"
  bottom: "inception_4d/output"
  top: "inception_4e/1x1"
  param {
    lr_mult: 1
    decay_mult: 1
  }
  param {
    lr_mult: 2
    decay_mult: 0
  }
  convolution_param {
    num_output: 256
    kernel_size: 1
    weight_filler {
      type: "xavier"
      std: 0.03
    }
    bias_filler {
      type: "constant"
      value: 0.2
    }
  }
}
layer {
  name: "inception_4e/relu_1x1"
  type: "ReLU"
  bottom: "inception_4e/1x1"
  top: "inception_4e/1x1"
}
layer {
  name: "inception_4e/3x3_reduce"
  type: "Convolution"
  bottom: "inception_4d/output"
  top: "inception_4e/3x3_reduce"
  param {
    lr_mult: 1
    decay_mult: 1
  }
  param {
    lr_mult: 2
    decay_mult: 0
  }
  convolution_param {
    num_output: 160
    kernel_size: 1
    weight_filler {
      type: "xavier"
      std: 0.09
    }
    bias_filler {
      type: "constant"
      value: 0.2
    }
  }
}
layer {
  name: "inception_4e/relu_3x3_reduce"
  type: "ReLU"
  bottom: "inception_4e/3x3_reduce"
  top: "inception_4e/3x3_reduce"
}
layer {
  name: "inception_4e/3x3"
  type: "Convolution"
  bottom: "inception_4e/3x3_reduce"
  top: "inception_4e/3x3"
  param {
    lr_mult: 1
    decay_mult: 1
  }
  param {
    lr_mult: 2
    decay_mult: 0
  }
  convolution_param {
    num_output: 320
    pad: 1
    kernel_size: 3
    weight_filler {
      type: "xavier"
      std: 0.03
    }
    bias_filler {
      type: "constant"
      value: 0.2
    }
  }
}
layer {
  name: "inception_4e/relu_3x3"
  type: "ReLU"
  bottom: "inception_4e/3x3"
  top: "inception_4e/3x3"
}
layer {
  name: "inception_4e/5x5_reduce"
  type: "Convolution"
  bottom: "inception_4d/output"
  top: "inception_4e/5x5_reduce"
  param {
    lr_mult: 1
    decay_mult: 1
  }
  param {
    lr_mult: 2
    decay_mult: 0
  }
  convolution_param {
    num_output: 32
    kernel_size: 1
    weight_filler {
      type: "xavier"
      std: 0.2
    }
    bias_filler {
      type: "constant"
      value: 0.2
    }
  }
}
layer {
  name: "inception_4e/relu_5x5_reduce"
  type: "ReLU"
  bottom: "inception_4e/5x5_reduce"
  top: "inception_4e/5x5_reduce"
}
layer {
  name: "inception_4e/5x5"
  type: "Convolution"
  bottom: "inception_4e/5x5_reduce"
  top: "inception_4e/5x5"
  p
I0403 21:41:27.609231 12486 layer_factory.hpp:77] Creating layer data
I0403 21:41:27.609956 12486 net.cpp:91] Creating Layer data
I0403 21:41:27.609993 12486 net.cpp:399] data -> data
I0403 21:41:27.610054 12486 net.cpp:399] data -> label
I0403 21:41:27.610098 12486 data_transformer.cpp:25] Loading mean file from: /home/mohanty/data/final_dataset/lmdb/color-80-20/mean.binaryproto
I0403 21:41:27.611546 12488 db_lmdb.cpp:38] Opened lmdb /home/mohanty/data/final_dataset/lmdb/color-80-20/test_db
I0403 21:41:27.627390 12486 data_layer.cpp:41] output data size: 24,3,224,224
I0403 21:41:27.660537 12486 net.cpp:141] Setting up data
I0403 21:41:27.660643 12486 net.cpp:148] Top shape: 24 3 224 224 (3612672)
I0403 21:41:27.660670 12486 net.cpp:148] Top shape: 24 (24)
I0403 21:41:27.660689 12486 net.cpp:156] Memory required for data: 14450784
I0403 21:41:27.660722 12486 layer_factory.hpp:77] Creating layer label_data_1_split
I0403 21:41:27.660754 12486 net.cpp:91] Creating Layer label_data_1_split
I0403 21:41:27.660776 12486 net.cpp:425] label_data_1_split <- label
I0403 21:41:27.660815 12486 net.cpp:399] label_data_1_split -> label_data_1_split_0
I0403 21:41:27.660850 12486 net.cpp:399] label_data_1_split -> label_data_1_split_1
I0403 21:41:27.660877 12486 net.cpp:399] label_data_1_split -> label_data_1_split_2
I0403 21:41:27.660902 12486 net.cpp:399] label_data_1_split -> label_data_1_split_3
I0403 21:41:27.660926 12486 net.cpp:399] label_data_1_split -> label_data_1_split_4
I0403 21:41:27.660949 12486 net.cpp:399] label_data_1_split -> label_data_1_split_5
I0403 21:41:27.660972 12486 net.cpp:399] label_data_1_split -> label_data_1_split_6
I0403 21:41:27.661000 12486 net.cpp:399] label_data_1_split -> label_data_1_split_7
I0403 21:41:27.661025 12486 net.cpp:399] label_data_1_split -> label_data_1_split_8
I0403 21:41:27.661051 12486 net.cpp:399] label_data_1_split -> label_data_1_split_9
I0403 21:41:27.661201 12486 net.cpp:141] Setting up label_data_1_split
I0403 21:41:27.661231 12486 net.cpp:148] Top shape: 24 (24)
I0403 21:41:27.661252 12486 net.cpp:148] Top shape: 24 (24)
I0403 21:41:27.661270 12486 net.cpp:148] Top shape: 24 (24)
I0403 21:41:27.661290 12486 net.cpp:148] Top shape: 24 (24)
I0403 21:41:27.661311 12486 net.cpp:148] Top shape: 24 (24)
I0403 21:41:27.661330 12486 net.cpp:148] Top shape: 24 (24)
I0403 21:41:27.661350 12486 net.cpp:148] Top shape: 24 (24)
I0403 21:41:27.661370 12486 net.cpp:148] Top shape: 24 (24)
I0403 21:41:27.661389 12486 net.cpp:148] Top shape: 24 (24)
I0403 21:41:27.661412 12486 net.cpp:148] Top shape: 24 (24)
I0403 21:41:27.661468 12486 net.cpp:156] Memory required for data: 14451744
I0403 21:41:27.661490 12486 layer_factory.hpp:77] Creating layer conv1/7x7_s2
I0403 21:41:27.661528 12486 net.cpp:91] Creating Layer conv1/7x7_s2
I0403 21:41:27.661550 12486 net.cpp:425] conv1/7x7_s2 <- data
I0403 21:41:27.661573 12486 net.cpp:399] conv1/7x7_s2 -> conv1/7x7_s2
I0403 21:41:27.836145 12486 net.cpp:141] Setting up conv1/7x7_s2
I0403 21:41:27.836267 12486 net.cpp:148] Top shape: 24 64 112 112 (19267584)
I0403 21:41:27.836289 12486 net.cpp:156] Memory required for data: 91522080
I0403 21:41:27.836328 12486 layer_factory.hpp:77] Creating layer conv1/relu_7x7
I0403 21:41:27.836360 12486 net.cpp:91] Creating Layer conv1/relu_7x7
I0403 21:41:27.836382 12486 net.cpp:425] conv1/relu_7x7 <- conv1/7x7_s2
I0403 21:41:27.836406 12486 net.cpp:386] conv1/relu_7x7 -> conv1/7x7_s2 (in-place)
I0403 21:41:27.836719 12486 net.cpp:141] Setting up conv1/relu_7x7
I0403 21:41:27.836750 12486 net.cpp:148] Top shape: 24 64 112 112 (19267584)
I0403 21:41:27.836769 12486 net.cpp:156] Memory required for data: 168592416
I0403 21:41:27.836788 12486 layer_factory.hpp:77] Creating layer pool1/3x3_s2
I0403 21:41:27.836819 12486 net.cpp:91] Creating Layer pool1/3x3_s2
I0403 21:41:27.836840 12486 net.cpp:425] pool1/3x3_s2 <- conv1/7x7_s2
I0403 21:41:27.836863 12486 net.cpp:399] pool1/3x3_s2 -> pool1/3x3_s2
I0403 21:41:27.836953 12486 net.cpp:141] Setting up pool1/3x3_s2
I0403 21:41:27.836982 12486 net.cpp:148] Top shape: 24 64 56 56 (4816896)
I0403 21:41:27.836999 12486 net.cpp:156] Memory required for data: 187860000
I0403 21:41:27.837018 12486 layer_factory.hpp:77] Creating layer pool1/norm1
I0403 21:41:27.837049 12486 net.cpp:91] Creating Layer pool1/norm1
I0403 21:41:27.837070 12486 net.cpp:425] pool1/norm1 <- pool1/3x3_s2
I0403 21:41:27.837092 12486 net.cpp:399] pool1/norm1 -> pool1/norm1
I0403 21:41:27.837438 12486 net.cpp:141] Setting up pool1/norm1
I0403 21:41:27.837471 12486 net.cpp:148] Top shape: 24 64 56 56 (4816896)
I0403 21:41:27.837489 12486 net.cpp:156] Memory required for data: 207127584
I0403 21:41:27.837509 12486 layer_factory.hpp:77] Creating layer conv2/3x3_reduce
I0403 21:41:27.837541 12486 net.cpp:91] Creating Layer conv2/3x3_reduce
I0403 21:41:27.837563 12486 net.cpp:425] conv2/3x3_reduce <- pool1/norm1
I0403 21:41:27.837586 12486 net.cpp:399] conv2/3x3_reduce -> conv2/3x3_reduce
I0403 21:41:27.839154 12486 net.cpp:141] Setting up conv2/3x3_reduce
I0403 21:41:27.839195 12486 net.cpp:148] Top shape: 24 64 56 56 (4816896)
I0403 21:41:27.839216 12486 net.cpp:156] Memory required for data: 226395168
I0403 21:41:27.839242 12486 layer_factory.hpp:77] Creating layer conv2/relu_3x3_reduce
I0403 21:41:27.839264 12486 net.cpp:91] Creating Layer conv2/relu_3x3_reduce
I0403 21:41:27.839284 12486 net.cpp:425] conv2/relu_3x3_reduce <- conv2/3x3_reduce
I0403 21:41:27.839308 12486 net.cpp:386] conv2/relu_3x3_reduce -> conv2/3x3_reduce (in-place)
I0403 21:41:27.839599 12486 net.cpp:141] Setting up conv2/relu_3x3_reduce
I0403 21:41:27.839632 12486 net.cpp:148] Top shape: 24 64 56 56 (4816896)
I0403 21:41:27.839651 12486 net.cpp:156] Memory required for data: 245662752
I0403 21:41:27.839670 12486 layer_factory.hpp:77] Creating layer conv2/3x3
I0403 21:41:27.839697 12486 net.cpp:91] Creating Layer conv2/3x3
I0403 21:41:27.839718 12486 net.cpp:425] conv2/3x3 <- conv2/3x3_reduce
I0403 21:41:27.839741 12486 net.cpp:399] conv2/3x3 -> conv2/3x3
I0403 21:41:27.842387 12486 net.cpp:141] Setting up conv2/3x3
I0403 21:41:27.842424 12486 net.cpp:148] Top shape: 24 192 56 56 (14450688)
I0403 21:41:27.842444 12486 net.cpp:156] Memory required for data: 303465504
I0403 21:41:27.842471 12486 layer_factory.hpp:77] Creating layer conv2/relu_3x3
I0403 21:41:27.842495 12486 net.cpp:91] Creating Layer conv2/relu_3x3
I0403 21:41:27.842515 12486 net.cpp:425] conv2/relu_3x3 <- conv2/3x3
I0403 21:41:27.842536 12486 net.cpp:386] conv2/relu_3x3 -> conv2/3x3 (in-place)
I0403 21:41:27.842730 12486 net.cpp:141] Setting up conv2/relu_3x3
I0403 21:41:27.842761 12486 net.cpp:148] Top shape: 24 192 56 56 (14450688)
I0403 21:41:27.842816 12486 net.cpp:156] Memory required for data: 361268256
I0403 21:41:27.842836 12486 layer_factory.hpp:77] Creating layer conv2/norm2
I0403 21:41:27.842859 12486 net.cpp:91] Creating Layer conv2/norm2
I0403 21:41:27.842880 12486 net.cpp:425] conv2/norm2 <- conv2/3x3
I0403 21:41:27.842902 12486 net.cpp:399] conv2/norm2 -> conv2/norm2
I0403 21:41:27.843243 12486 net.cpp:141] Setting up conv2/norm2
I0403 21:41:27.843276 12486 net.cpp:148] Top shape: 24 192 56 56 (14450688)
I0403 21:41:27.843296 12486 net.cpp:156] Memory required for data: 419071008
I0403 21:41:27.843314 12486 layer_factory.hpp:77] Creating layer pool2/3x3_s2
I0403 21:41:27.843338 12486 net.cpp:91] Creating Layer pool2/3x3_s2
I0403 21:41:27.843358 12486 net.cpp:425] pool2/3x3_s2 <- conv2/norm2
I0403 21:41:27.843380 12486 net.cpp:399] pool2/3x3_s2 -> pool2/3x3_s2
I0403 21:41:27.843441 12486 net.cpp:141] Setting up pool2/3x3_s2
I0403 21:41:27.843471 12486 net.cpp:148] Top shape: 24 192 28 28 (3612672)
I0403 21:41:27.843488 12486 net.cpp:156] Memory required for data: 433521696
I0403 21:41:27.843508 12486 layer_factory.hpp:77] Creating layer pool2/3x3_s2_pool2/3x3_s2_0_split
I0403 21:41:27.843530 12486 net.cpp:91] Creating Layer pool2/3x3_s2_pool2/3x3_s2_0_split
I0403 21:41:27.843550 12486 net.cpp:425] pool2/3x3_s2_pool2/3x3_s2_0_split <- pool2/3x3_s2
I0403 21:41:27.843574 12486 net.cpp:399] pool2/3x3_s2_pool2/3x3_s2_0_split -> pool2/3x3_s2_pool2/3x3_s2_0_split_0
I0403 21:41:27.843597 12486 net.cpp:399] pool2/3x3_s2_pool2/3x3_s2_0_split -> pool2/3x3_s2_pool2/3x3_s2_0_split_1
I0403 21:41:27.843622 12486 net.cpp:399] pool2/3x3_s2_pool2/3x3_s2_0_split -> pool2/3x3_s2_pool2/3x3_s2_0_split_2
I0403 21:41:27.843646 12486 net.cpp:399] pool2/3x3_s2_pool2/3x3_s2_0_split -> pool2/3x3_s2_pool2/3x3_s2_0_split_3
I0403 21:41:27.843724 12486 net.cpp:141] Setting up pool2/3x3_s2_pool2/3x3_s2_0_split
I0403 21:41:27.843752 12486 net.cpp:148] Top shape: 24 192 28 28 (3612672)
I0403 21:41:27.843773 12486 net.cpp:148] Top shape: 24 192 28 28 (3612672)
I0403 21:41:27.843793 12486 net.cpp:148] Top shape: 24 192 28 28 (3612672)
I0403 21:41:27.843812 12486 net.cpp:148] Top shape: 24 192 28 28 (3612672)
I0403 21:41:27.843829 12486 net.cpp:156] Memory required for data: 491324448
I0403 21:41:27.843847 12486 layer_factory.hpp:77] Creating layer inception_3a/1x1
I0403 21:41:27.843873 12486 net.cpp:91] Creating Layer inception_3a/1x1
I0403 21:41:27.843894 12486 net.cpp:425] inception_3a/1x1 <- pool2/3x3_s2_pool2/3x3_s2_0_split_0
I0403 21:41:27.843916 12486 net.cpp:399] inception_3a/1x1 -> inception_3a/1x1
I0403 21:41:27.845674 12486 net.cpp:141] Setting up inception_3a/1x1
I0403 21:41:27.845712 12486 net.cpp:148] Top shape: 24 64 28 28 (1204224)
I0403 21:41:27.845731 12486 net.cpp:156] Memory required for data: 496141344
I0403 21:41:27.845754 12486 layer_factory.hpp:77] Creating layer inception_3a/relu_1x1
I0403 21:41:27.845777 12486 net.cpp:91] Creating Layer inception_3a/relu_1x1
I0403 21:41:27.845798 12486 net.cpp:425] inception_3a/relu_1x1 <- inception_3a/1x1
I0403 21:41:27.845819 12486 net.cpp:386] inception_3a/relu_1x1 -> inception_3a/1x1 (in-place)
I0403 21:41:27.846029 12486 net.cpp:141] Setting up inception_3a/relu_1x1
I0403 21:41:27.846060 12486 net.cpp:148] Top shape: 24 64 28 28 (1204224)
I0403 21:41:27.846079 12486 net.cpp:156] Memory required for data: 500958240
I0403 21:41:27.846098 12486 layer_factory.hpp:77] Creating layer inception_3a/3x3_reduce
I0403 21:41:27.846127 12486 net.cpp:91] Creating Layer inception_3a/3x3_reduce
I0403 21:41:27.846148 12486 net.cpp:425] inception_3a/3x3_reduce <- pool2/3x3_s2_pool2/3x3_s2_0_split_1
I0403 21:41:27.846175 12486 net.cpp:399] inception_3a/3x3_reduce -> inception_3a/3x3_reduce
I0403 21:41:27.848215 12486 net.cpp:141] Setting up inception_3a/3x3_reduce
I0403 21:41:27.848254 12486 net.cpp:148] Top shape: 24 96 28 28 (1806336)
I0403 21:41:27.848275 12486 net.cpp:156] Memory required for data: 508183584
I0403 21:41:27.848304 12486 layer_factory.hpp:77] Creating layer inception_3a/relu_3x3_reduce
I0403 21:41:27.848350 12486 net.cpp:91] Creating Layer inception_3a/relu_3x3_reduce
I0403 21:41:27.848372 12486 net.cpp:425] inception_3a/relu_3x3_reduce <- inception_3a/3x3_reduce
I0403 21:41:27.848395 12486 net.cpp:386] inception_3a/relu_3x3_reduce -> inception_3a/3x3_reduce (in-place)
I0403 21:41:27.848618 12486 net.cpp:141] Setting up inception_3a/relu_3x3_reduce
I0403 21:41:27.848650 12486 net.cpp:148] Top shape: 24 96 28 28 (1806336)
I0403 21:41:27.848670 12486 net.cpp:156] Memory required for data: 515408928
I0403 21:41:27.848687 12486 layer_factory.hpp:77] Creating layer inception_3a/3x3
I0403 21:41:27.848718 12486 net.cpp:91] Creating Layer inception_3a/3x3
I0403 21:41:27.848740 12486 net.cpp:425] inception_3a/3x3 <- inception_3a/3x3_reduce
I0403 21:41:27.848764 12486 net.cpp:399] inception_3a/3x3 -> inception_3a/3x3
I0403 21:41:27.850766 12486 net.cpp:141] Setting up inception_3a/3x3
I0403 21:41:27.850801 12486 net.cpp:148] Top shape: 24 128 28 28 (2408448)
I0403 21:41:27.850821 12486 net.cpp:156] Memory required for data: 525042720
I0403 21:41:27.850844 12486 layer_factory.hpp:77] Creating layer inception_3a/relu_3x3
I0403 21:41:27.850867 12486 net.cpp:91] Creating Layer inception_3a/relu_3x3
I0403 21:41:27.850886 12486 net.cpp:425] inception_3a/relu_3x3 <- inception_3a/3x3
I0403 21:41:27.850910 12486 net.cpp:386] inception_3a/relu_3x3 -> inception_3a/3x3 (in-place)
I0403 21:41:27.851250 12486 net.cpp:141] Setting up inception_3a/relu_3x3
I0403 21:41:27.851284 12486 net.cpp:148] Top shape: 24 128 28 28 (2408448)
I0403 21:41:27.851302 12486 net.cpp:156] Memory required for data: 534676512
I0403 21:41:27.851322 12486 layer_factory.hpp:77] Creating layer inception_3a/5x5_reduce
I0403 21:41:27.851351 12486 net.cpp:91] Creating Layer inception_3a/5x5_reduce
I0403 21:41:27.851372 12486 net.cpp:425] inception_3a/5x5_reduce <- pool2/3x3_s2_pool2/3x3_s2_0_split_2
I0403 21:41:27.851399 12486 net.cpp:399] inception_3a/5x5_reduce -> inception_3a/5x5_reduce
I0403 21:41:27.852566 12486 net.cpp:141] Setting up inception_3a/5x5_reduce
I0403 21:41:27.852601 12486 net.cpp:148] Top shape: 24 16 28 28 (301056)
I0403 21:41:27.852622 12486 net.cpp:156] Memory required for data: 535880736
I0403 21:41:27.852643 12486 layer_factory.hpp:77] Creating layer inception_3a/relu_5x5_reduce
I0403 21:41:27.852666 12486 net.cpp:91] Creating Layer inception_3a/relu_5x5_reduce
I0403 21:41:27.852685 12486 net.cpp:425] inception_3a/relu_5x5_reduce <- inception_3a/5x5_reduce
I0403 21:41:27.852710 12486 net.cpp:386] inception_3a/relu_5x5_reduce -> inception_3a/5x5_reduce (in-place)
I0403 21:41:27.853049 12486 net.cpp:141] Setting up inception_3a/relu_5x5_reduce
I0403 21:41:27.853083 12486 net.cpp:148] Top shape: 24 16 28 28 (301056)
I0403 21:41:27.853103 12486 net.cpp:156] Memory required for data: 537084960
I0403 21:41:27.853122 12486 layer_factory.hpp:77] Creating layer inception_3a/5x5
I0403 21:41:27.853152 12486 net.cpp:91] Creating Layer inception_3a/5x5
I0403 21:41:27.853174 12486 net.cpp:425] inception_3a/5x5 <- inception_3a/5x5_reduce
I0403 21:41:27.853209 12486 net.cpp:399] inception_3a/5x5 -> inception_3a/5x5
I0403 21:41:27.854418 12486 net.cpp:141] Setting up inception_3a/5x5
I0403 21:41:27.854457 12486 net.cpp:148] Top shape: 24 32 28 28 (602112)
I0403 21:41:27.854480 12486 net.cpp:156] Memory required for data: 539493408
I0403 21:41:27.854502 12486 layer_factory.hpp:77] Creating layer inception_3a/relu_5x5
I0403 21:41:27.854526 12486 net.cpp:91] Creating Layer inception_3a/relu_5x5
I0403 21:41:27.854545 12486 net.cpp:425] inception_3a/relu_5x5 <- inception_3a/5x5
I0403 21:41:27.854570 12486 net.cpp:386] inception_3a/relu_5x5 -> inception_3a/5x5 (in-place)
I0403 21:41:27.854780 12486 net.cpp:141] Setting up inception_3a/relu_5x5
I0403 21:41:27.854811 12486 net.cpp:148] Top shape: 24 32 28 28 (602112)
I0403 21:41:27.854830 12486 net.cpp:156] Memory required for data: 541901856
I0403 21:41:27.854847 12486 layer_factory.hpp:77] Creating layer inception_3a/pool
I0403 21:41:27.854869 12486 net.cpp:91] Creating Layer inception_3a/pool
I0403 21:41:27.854892 12486 net.cpp:425] inception_3a/pool <- pool2/3x3_s2_pool2/3x3_s2_0_split_3
I0403 21:41:27.854933 12486 net.cpp:399] inception_3a/pool -> inception_3a/pool
I0403 21:41:27.855005 12486 net.cpp:141] Setting up inception_3a/pool
I0403 21:41:27.855034 12486 net.cpp:148] Top shape: 24 192 28 28 (3612672)
I0403 21:41:27.855053 12486 net.cpp:156] Memory required for data: 556352544
I0403 21:41:27.855072 12486 layer_factory.hpp:77] Creating layer inception_3a/pool_proj
I0403 21:41:27.855098 12486 net.cpp:91] Creating Layer inception_3a/pool_proj
I0403 21:41:27.855121 12486 net.cpp:425] inception_3a/pool_proj <- inception_3a/pool
I0403 21:41:27.855149 12486 net.cpp:399] inception_3a/pool_proj -> inception_3a/pool_proj
I0403 21:41:27.856302 12486 net.cpp:141] Setting up inception_3a/pool_proj
I0403 21:41:27.856338 12486 net.cpp:148] Top shape: 24 32 28 28 (602112)
I0403 21:41:27.856358 12486 net.cpp:156] Memory required for data: 558760992
I0403 21:41:27.856389 12486 layer_factory.hpp:77] Creating layer inception_3a/relu_pool_proj
I0403 21:41:27.856415 12486 net.cpp:91] Creating Layer inception_3a/relu_pool_proj
I0403 21:41:27.856436 12486 net.cpp:425] inception_3a/relu_pool_proj <- inception_3a/pool_proj
I0403 21:41:27.856462 12486 net.cpp:386] inception_3a/relu_pool_proj -> inception_3a/pool_proj (in-place)
I0403 21:41:27.856797 12486 net.cpp:141] Setting up inception_3a/relu_pool_proj
I0403 21:41:27.856829 12486 net.cpp:148] Top shape: 24 32 28 28 (602112)
I0403 21:41:27.856848 12486 net.cpp:156] Memory required for data: 561169440
I0403 21:41:27.856868 12486 layer_factory.hpp:77] Creating layer inception_3a/output
I0403 21:41:27.856891 12486 net.cpp:91] Creating Layer inception_3a/output
I0403 21:41:27.856911 12486 net.cpp:425] inception_3a/output <- inception_3a/1x1
I0403 21:41:27.856932 12486 net.cpp:425] inception_3a/output <- inception_3a/3x3
I0403 21:41:27.856952 12486 net.cpp:425] inception_3a/output <- inception_3a/5x5
I0403 21:41:27.856971 12486 net.cpp:425] inception_3a/output <- inception_3a/pool_proj
I0403 21:41:27.856995 12486 net.cpp:399] inception_3a/output -> inception_3a/output
I0403 21:41:27.857053 12486 net.cpp:141] Setting up inception_3a/output
I0403 21:41:27.857086 12486 net.cpp:148] Top shape: 24 256 28 28 (4816896)
I0403 21:41:27.857106 12486 net.cpp:156] Memory required for data: 580437024
I0403 21:41:27.857125 12486 layer_factory.hpp:77] Creating layer inception_3a/output_inception_3a/output_0_split
I0403 21:41:27.857146 12486 net.cpp:91] Creating Layer inception_3a/output_inception_3a/output_0_split
I0403 21:41:27.857167 12486 net.cpp:425] inception_3a/output_inception_3a/output_0_split <- inception_3a/output
I0403 21:41:27.857199 12486 net.cpp:399] inception_3a/output_inception_3a/output_0_split -> inception_3a/output_inception_3a/output_0_split_0
I0403 21:41:27.857225 12486 net.cpp:399] inception_3a/output_inception_3a/output_0_split -> inception_3a/output_inception_3a/output_0_split_1
I0403 21:41:27.857256 12486 net.cpp:399] inception_3a/output_inception_3a/output_0_split -> inception_3a/output_inception_3a/output_0_split_2
I0403 21:41:27.857285 12486 net.cpp:399] inception_3a/output_inception_3a/output_0_split -> inception_3a/output_inception_3a/output_0_split_3
I0403 21:41:27.857378 12486 net.cpp:141] Setting up inception_3a/output_inception_3a/output_0_split
I0403 21:41:27.857408 12486 net.cpp:148] Top shape: 24 256 28 28 (4816896)
I0403 21:41:27.857430 12486 net.cpp:148] Top shape: 24 256 28 28 (4816896)
I0403 21:41:27.857450 12486 net.cpp:148] Top shape: 24 256 28 28 (4816896)
I0403 21:41:27.857468 12486 net.cpp:148] Top shape: 24 256 28 28 (4816896)
I0403 21:41:27.857486 12486 net.cpp:156] Memory required for data: 657507360
I0403 21:41:27.857503 12486 layer_factory.hpp:77] Creating layer inception_3b/1x1
I0403 21:41:27.857532 12486 net.cpp:91] Creating Layer inception_3b/1x1
I0403 21:41:27.857553 12486 net.cpp:425] inception_3b/1x1 <- inception_3a/output_inception_3a/output_0_split_0
I0403 21:41:27.857576 12486 net.cpp:399] inception_3b/1x1 -> inception_3b/1x1
I0403 21:41:27.858937 12486 net.cpp:141] Setting up inception_3b/1x1
I0403 21:41:27.858985 12486 net.cpp:148] Top shape: 24 128 28 28 (2408448)
I0403 21:41:27.859006 12486 net.cpp:156] Memory required for data: 667141152
I0403 21:41:27.859030 12486 layer_factory.hpp:77] Creating layer inception_3b/relu_1x1
I0403 21:41:27.859055 12486 net.cpp:91] Creating Layer inception_3b/relu_1x1
I0403 21:41:27.859076 12486 net.cpp:425] inception_3b/relu_1x1 <- inception_3b/1x1
I0403 21:41:27.859099 12486 net.cpp:386] inception_3b/relu_1x1 -> inception_3b/1x1 (in-place)
I0403 21:41:27.859320 12486 net.cpp:141] Setting up inception_3b/relu_1x1
I0403 21:41:27.859352 12486 net.cpp:148] Top shape: 24 128 28 28 (2408448)
I0403 21:41:27.859371 12486 net.cpp:156] Memory required for data: 676774944
I0403 21:41:27.859390 12486 layer_factory.hpp:77] Creating layer inception_3b/3x3_reduce
I0403 21:41:27.859417 12486 net.cpp:91] Creating Layer inception_3b/3x3_reduce
I0403 21:41:27.859438 12486 net.cpp:425] inception_3b/3x3_reduce <- inception_3a/output_inception_3a/output_0_split_1
I0403 21:41:27.859465 12486 net.cpp:399] inception_3b/3x3_reduce -> inception_3b/3x3_reduce
I0403 21:41:27.860822 12486 net.cpp:141] Setting up inception_3b/3x3_reduce
I0403 21:41:27.860860 12486 net.cpp:148] Top shape: 24 128 28 28 (2408448)
I0403 21:41:27.860882 12486 net.cpp:156] Memory required for data: 686408736
I0403 21:41:27.860904 12486 layer_factory.hpp:77] Creating layer inception_3b/relu_3x3_reduce
I0403 21:41:27.860926 12486 net.cpp:91] Creating Layer inception_3b/relu_3x3_reduce
I0403 21:41:27.860946 12486 net.cpp:425] inception_3b/relu_3x3_reduce <- inception_3b/3x3_reduce
I0403 21:41:27.860968 12486 net.cpp:386] inception_3b/relu_3x3_reduce -> inception_3b/3x3_reduce (in-place)
I0403 21:41:27.861187 12486 net.cpp:141] Setting up inception_3b/relu_3x3_reduce
I0403 21:41:27.861222 12486 net.cpp:148] Top shape: 24 128 28 28 (2408448)
I0403 21:41:27.861243 12486 net.cpp:156] Memory required for data: 696042528
I0403 21:41:27.861263 12486 layer_factory.hpp:77] Creating layer inception_3b/3x3
I0403 21:41:27.861294 12486 net.cpp:91] Creating Layer inception_3b/3x3
I0403 21:41:27.861315 12486 net.cpp:425] inception_3b/3x3 <- inception_3b/3x3_reduce
I0403 21:41:27.861342 12486 net.cpp:399] inception_3b/3x3 -> inception_3b/3x3
I0403 21:41:27.864887 12486 net.cpp:141] Setting up inception_3b/3x3
I0403 21:41:27.864923 12486 net.cpp:148] Top shape: 24 192 28 28 (3612672)
I0403 21:41:27.864943 12486 net.cpp:156] Memory required for data: 710493216
I0403 21:41:27.864966 12486 layer_factory.hpp:77] Creating layer inception_3b/relu_3x3
I0403 21:41:27.864989 12486 net.cpp:91] Creating Layer inception_3b/relu_3x3
I0403 21:41:27.865010 12486 net.cpp:425] inception_3b/relu_3x3 <- inception_3b/3x3
I0403 21:41:27.865033 12486 net.cpp:386] inception_3b/relu_3x3 -> inception_3b/3x3 (in-place)
I0403 21:41:27.865380 12486 net.cpp:141] Setting up inception_3b/relu_3x3
I0403 21:41:27.865412 12486 net.cpp:148] Top shape: 24 192 28 28 (3612672)
I0403 21:41:27.865432 12486 net.cpp:156] Memory required for data: 724943904
I0403 21:41:27.865452 12486 layer_factory.hpp:77] Creating layer inception_3b/5x5_reduce
I0403 21:41:27.865479 12486 net.cpp:91] Creating Layer inception_3b/5x5_reduce
I0403 21:41:27.865501 12486 net.cpp:425] inception_3b/5x5_reduce <- inception_3a/output_inception_3a/output_0_split_2
I0403 21:41:27.865530 12486 net.cpp:399] inception_3b/5x5_reduce -> inception_3b/5x5_reduce
I0403 21:41:27.866730 12486 net.cpp:141] Setting up inception_3b/5x5_reduce
I0403 21:41:27.866765 12486 net.cpp:148] Top shape: 24 32 28 28 (602112)
I0403 21:41:27.866786 12486 net.cpp:156] Memory required for data: 727352352
I0403 21:41:27.866807 12486 layer_factory.hpp:77] Creating layer inception_3b/relu_5x5_reduce
I0403 21:41:27.866830 12486 net.cpp:91] Creating Layer inception_3b/relu_5x5_reduce
I0403 21:41:27.866849 12486 net.cpp:425] inception_3b/relu_5x5_reduce <- inception_3b/5x5_reduce
I0403 21:41:27.866880 12486 net.cpp:386] inception_3b/relu_5x5_reduce -> inception_3b/5x5_reduce (in-place)
I0403 21:41:27.867095 12486 net.cpp:141] Setting up inception_3b/relu_5x5_reduce
I0403 21:41:27.867141 12486 net.cpp:148] Top shape: 24 32 28 28 (602112)
I0403 21:41:27.867161 12486 net.cpp:156] Memory required for data: 729760800
I0403 21:41:27.867187 12486 layer_factory.hpp:77] Creating layer inception_3b/5x5
I0403 21:41:27.867216 12486 net.cpp:91] Creating Layer inception_3b/5x5
I0403 21:41:27.867238 12486 net.cpp:425] inception_3b/5x5 <- inception_3b/5x5_reduce
I0403 21:41:27.867265 12486 net.cpp:399] inception_3b/5x5 -> inception_3b/5x5
I0403 21:41:27.869649 12486 net.cpp:141] Setting up inception_3b/5x5
I0403 21:41:27.869688 12486 net.cpp:148] Top shape: 24 96 28 28 (1806336)
I0403 21:41:27.869709 12486 net.cpp:156] Memory required for data: 736986144
I0403 21:41:27.869732 12486 layer_factory.hpp:77] Creating layer inception_3b/relu_5x5
I0403 21:41:27.869755 12486 net.cpp:91] Creating Layer inception_3b/relu_5x5
I0403 21:41:27.869774 12486 net.cpp:425] inception_3b/relu_5x5 <- inception_3b/5x5
I0403 21:41:27.869796 12486 net.cpp:386] inception_3b/relu_5x5 -> inception_3b/5x5 (in-place)
I0403 21:41:27.870031 12486 net.cpp:141] Setting up inception_3b/relu_5x5
I0403 21:41:27.870064 12486 net.cpp:148] Top shape: 24 96 28 28 (1806336)
I0403 21:41:27.870082 12486 net.cpp:156] Memory required for data: 744211488
I0403 21:41:27.870100 12486 layer_factory.hpp:77] Creating layer inception_3b/pool
I0403 21:41:27.870123 12486 net.cpp:91] Creating Layer inception_3b/pool
I0403 21:41:27.870143 12486 net.cpp:425] inception_3b/pool <- inception_3a/output_inception_3a/output_0_split_3
I0403 21:41:27.870165 12486 net.cpp:399] inception_3b/pool -> inception_3b/pool
I0403 21:41:27.870239 12486 net.cpp:141] Setting up inception_3b/pool
I0403 21:41:27.870272 12486 net.cpp:148] Top shape: 24 256 28 28 (4816896)
I0403 21:41:27.870290 12486 net.cpp:156] Memory required for data: 763479072
I0403 21:41:27.870309 12486 layer_factory.hpp:77] Creating layer inception_3b/pool_proj
I0403 21:41:27.870337 12486 net.cpp:91] Creating Layer inception_3b/pool_proj
I0403 21:41:27.870358 12486 net.cpp:425] inception_3b/pool_proj <- inception_3b/pool
I0403 21:41:27.870380 12486 net.cpp:399] inception_3b/pool_proj -> inception_3b/pool_proj
I0403 21:41:27.871644 12486 net.cpp:141] Setting up inception_3b/pool_proj
I0403 21:41:27.871678 12486 net.cpp:148] Top shape: 24 64 28 28 (1204224)
I0403 21:41:27.871697 12486 net.cpp:156] Memory required for data: 768295968
I0403 21:41:27.871721 12486 layer_factory.hpp:77] Creating layer inception_3b/relu_pool_proj
I0403 21:41:27.871747 12486 net.cpp:91] Creating Layer inception_3b/relu_pool_proj
I0403 21:41:27.871767 12486 net.cpp:425] inception_3b/relu_pool_proj <- inception_3b/pool_proj
I0403 21:41:27.871789 12486 net.cpp:386] inception_3b/relu_pool_proj -> inception_3b/pool_proj (in-place)
I0403 21:41:27.872251 12486 net.cpp:141] Setting up inception_3b/relu_pool_proj
I0403 21:41:27.872285 12486 net.cpp:148] Top shape: 24 64 28 28 (1204224)
I0403 21:41:27.872304 12486 net.cpp:156] Memory required for data: 773112864
I0403 21:41:27.872323 12486 layer_factory.hpp:77] Creating layer inception_3b/output
I0403 21:41:27.872344 12486 net.cpp:91] Creating Layer inception_3b/output
I0403 21:41:27.872364 12486 net.cpp:425] inception_3b/output <- inception_3b/1x1
I0403 21:41:27.872385 12486 net.cpp:425] inception_3b/output <- inception_3b/3x3
I0403 21:41:27.872406 12486 net.cpp:425] inception_3b/output <- inception_3b/5x5
I0403 21:41:27.872426 12486 net.cpp:425] inception_3b/output <- inception_3b/pool_proj
I0403 21:41:27.872452 12486 net.cpp:399] inception_3b/output -> inception_3b/output
I0403 21:41:27.872506 12486 net.cpp:141] Setting up inception_3b/output
I0403 21:41:27.872539 12486 net.cpp:148] Top shape: 24 480 28 28 (9031680)
I0403 21:41:27.872558 12486 net.cpp:156] Memory required for data: 809239584
I0403 21:41:27.872576 12486 layer_factory.hpp:77] Creating layer pool3/3x3_s2
I0403 21:41:27.872598 12486 net.cpp:91] Creating Layer pool3/3x3_s2
I0403 21:41:27.872618 12486 net.cpp:425] pool3/3x3_s2 <- inception_3b/output
I0403 21:41:27.872643 12486 net.cpp:399] pool3/3x3_s2 -> pool3/3x3_s2
I0403 21:41:27.872730 12486 net.cpp:141] Setting up pool3/3x3_s2
I0403 21:41:27.872759 12486 net.cpp:148] Top shape: 24 480 14 14 (2257920)
I0403 21:41:27.872778 12486 net.cpp:156] Memory required for data: 818271264
I0403 21:41:27.872797 12486 layer_factory.hpp:77] Creating layer pool3/3x3_s2_pool3/3x3_s2_0_split
I0403 21:41:27.872822 12486 net.cpp:91] Creating Layer pool3/3x3_s2_pool3/3x3_s2_0_split
I0403 21:41:27.872841 12486 net.cpp:425] pool3/3x3_s2_pool3/3x3_s2_0_split <- pool3/3x3_s2
I0403 21:41:27.872864 12486 net.cpp:399] pool3/3x3_s2_pool3/3x3_s2_0_split -> pool3/3x3_s2_pool3/3x3_s2_0_split_0
I0403 21:41:27.872889 12486 net.cpp:399] pool3/3x3_s2_pool3/3x3_s2_0_split -> pool3/3x3_s2_pool3/3x3_s2_0_split_1
I0403 21:41:27.872916 12486 net.cpp:399] pool3/3x3_s2_pool3/3x3_s2_0_split -> pool3/3x3_s2_pool3/3x3_s2_0_split_2
I0403 21:41:27.872942 12486 net.cpp:399] pool3/3x3_s2_pool3/3x3_s2_0_split -> pool3/3x3_s2_pool3/3x3_s2_0_split_3
I0403 21:41:27.873034 12486 net.cpp:141] Setting up pool3/3x3_s2_pool3/3x3_s2_0_split
I0403 21:41:27.873064 12486 net.cpp:148] Top shape: 24 480 14 14 (2257920)
I0403 21:41:27.873085 12486 net.cpp:148] Top shape: 24 480 14 14 (2257920)
I0403 21:41:27.873105 12486 net.cpp:148] Top shape: 24 480 14 14 (2257920)
I0403 21:41:27.873124 12486 net.cpp:148] Top shape: 24 480 14 14 (2257920)
I0403 21:41:27.873142 12486 net.cpp:156] Memory required for data: 854397984
I0403 21:41:27.873160 12486 layer_factory.hpp:77] Creating layer inception_4a/1x1
I0403 21:41:27.873193 12486 net.cpp:91] Creating Layer inception_4a/1x1
I0403 21:41:27.873217 12486 net.cpp:425] inception_4a/1x1 <- pool3/3x3_s2_pool3/3x3_s2_0_split_0
I0403 21:41:27.873250 12486 net.cpp:399] inception_4a/1x1 -> inception_4a/1x1
I0403 21:41:27.875134 12486 net.cpp:141] Setting up inception_4a/1x1
I0403 21:41:27.875169 12486 net.cpp:148] Top shape: 24 192 14 14 (903168)
I0403 21:41:27.875195 12486 net.cpp:156] Memory required for data: 858010656
I0403 21:41:27.875219 12486 layer_factory.hpp:77] Creating layer inception_4a/relu_1x1
I0403 21:41:27.875252 12486 net.cpp:91] Creating Layer inception_4a/relu_1x1
I0403 21:41:27.875272 12486 net.cpp:425] inception_4a/relu_1x1 <- inception_4a/1x1
I0403 21:41:27.875295 12486 net.cpp:386] inception_4a/relu_1x1 -> inception_4a/1x1 (in-place)
I0403 21:41:27.875511 12486 net.cpp:141] Setting up inception_4a/relu_1x1
I0403 21:41:27.875546 12486 net.cpp:148] Top shape: 24 192 14 14 (903168)
I0403 21:41:27.875567 12486 net.cpp:156] Memory required for data: 861623328
I0403 21:41:27.875586 12486 layer_factory.hpp:77] Creating layer inception_4a/3x3_reduce
I0403 21:41:27.875615 12486 net.cpp:91] Creating Layer inception_4a/3x3_reduce
I0403 21:41:27.875638 12486 net.cpp:425] inception_4a/3x3_reduce <- pool3/3x3_s2_pool3/3x3_s2_0_split_1
I0403 21:41:27.875661 12486 net.cpp:399] inception_4a/3x3_reduce -> inception_4a/3x3_reduce
I0403 21:41:27.877182 12486 net.cpp:141] Setting up inception_4a/3x3_reduce
I0403 21:41:27.877216 12486 net.cpp:148] Top shape: 24 96 14 14 (451584)
I0403 21:41:27.877235 12486 net.cpp:156] Memory required for data: 863429664
I0403 21:41:27.877269 12486 layer_factory.hpp:77] Creating layer inception_4a/relu_3x3_reduce
I0403 21:41:27.877296 12486 net.cpp:91] Creating Layer inception_4a/relu_3x3_reduce
I0403 21:41:27.877317 12486 net.cpp:425] inception_4a/relu_3x3_reduce <- inception_4a/3x3_reduce
I0403 21:41:27.877341 12486 net.cpp:386] inception_4a/relu_3x3_reduce -> inception_4a/3x3_reduce (in-place)
I0403 21:41:27.877550 12486 net.cpp:141] Setting up inception_4a/relu_3x3_reduce
I0403 21:41:27.877581 12486 net.cpp:148] Top shape: 24 96 14 14 (451584)
I0403 21:41:27.877600 12486 net.cpp:156] Memory required for data: 865236000
I0403 21:41:27.877619 12486 layer_factory.hpp:77] Creating layer inception_4a/3x3
I0403 21:41:27.877648 12486 net.cpp:91] Creating Layer inception_4a/3x3
I0403 21:41:27.877671 12486 net.cpp:425] inception_4a/3x3 <- inception_4a/3x3_reduce
I0403 21:41:27.877696 12486 net.cpp:399] inception_4a/3x3 -> inception_4a/3x3
I0403 21:41:27.881165 12486 net.cpp:141] Setting up inception_4a/3x3
I0403 21:41:27.881211 12486 net.cpp:148] Top shape: 24 208 14 14 (978432)
I0403 21:41:27.881232 12486 net.cpp:156] Memory required for data: 869149728
I0403 21:41:27.881258 12486 layer_factory.hpp:77] Creating layer inception_4a/relu_3x3
I0403 21:41:27.881280 12486 net.cpp:91] Creating Layer inception_4a/relu_3x3
I0403 21:41:27.881300 12486 net.cpp:425] inception_4a/relu_3x3 <- inception_4a/3x3
I0403 21:41:27.881321 12486 net.cpp:386] inception_4a/relu_3x3 -> inception_4a/3x3 (in-place)
I0403 21:41:27.881654 12486 net.cpp:141] Setting up inception_4a/relu_3x3
I0403 21:41:27.881691 12486 net.cpp:148] Top shape: 24 208 14 14 (978432)
I0403 21:41:27.881712 12486 net.cpp:156] Memory required for data: 873063456
I0403 21:41:27.881731 12486 layer_factory.hpp:77] Creating layer inception_4a/5x5_reduce
I0403 21:41:27.881760 12486 net.cpp:91] Creating Layer inception_4a/5x5_reduce
I0403 21:41:27.881783 12486 net.cpp:425] inception_4a/5x5_reduce <- pool3/3x3_s2_pool3/3x3_s2_0_split_2
I0403 21:41:27.881808 12486 net.cpp:399] inception_4a/5x5_reduce -> inception_4a/5x5_reduce
I0403 21:41:27.883087 12486 net.cpp:141] Setting up inception_4a/5x5_reduce
I0403 21:41:27.883126 12486 net.cpp:148] Top shape: 24 16 14 14 (75264)
I0403 21:41:27.883147 12486 net.cpp:156] Memory required for data: 873364512
I0403 21:41:27.883170 12486 layer_factory.hpp:77] Creating layer inception_4a/relu_5x5_reduce
I0403 21:41:27.883199 12486 net.cpp:91] Creating Layer inception_4a/relu_5x5_reduce
I0403 21:41:27.883220 12486 net.cpp:425] inception_4a/relu_5x5_reduce <- inception_4a/5x5_reduce
I0403 21:41:27.883246 12486 net.cpp:386] inception_4a/relu_5x5_reduce -> inception_4a/5x5_reduce (in-place)
I0403 21:41:27.883467 12486 net.cpp:141] Setting up inception_4a/relu_5x5_reduce
I0403 21:41:27.883498 12486 net.cpp:148] Top shape: 24 16 14 14 (75264)
I0403 21:41:27.883517 12486 net.cpp:156] Memory required for data: 873665568
I0403 21:41:27.883534 12486 layer_factory.hpp:77] Creating layer inception_4a/5x5
I0403 21:41:27.883566 12486 net.cpp:91] Creating Layer inception_4a/5x5
I0403 21:41:27.883590 12486 net.cpp:425] inception_4a/5x5 <- inception_4a/5x5_reduce
I0403 21:41:27.883617 12486 net.cpp:399] inception_4a/5x5 -> inception_4a/5x5
I0403 21:41:27.884922 12486 net.cpp:141] Setting up inception_4a/5x5
I0403 21:41:27.884958 12486 net.cpp:148] Top shape: 24 48 14 14 (225792)
I0403 21:41:27.884977 12486 net.cpp:156] Memory required for data: 874568736
I0403 21:41:27.884999 12486 layer_factory.hpp:77] Creating layer inception_4a/relu_5x5
I0403 21:41:27.885021 12486 net.cpp:91] Creating Layer inception_4a/relu_5x5
I0403 21:41:27.885040 12486 net.cpp:425] inception_4a/relu_5x5 <- inception_4a/5x5
I0403 21:41:27.885066 12486 net.cpp:386] inception_4a/relu_5x5 -> inception_4a/5x5 (in-place)
I0403 21:41:27.885290 12486 net.cpp:141] Setting up inception_4a/relu_5x5
I0403 21:41:27.885321 12486 net.cpp:148] Top shape: 24 48 14 14 (225792)
I0403 21:41:27.885340 12486 net.cpp:156] Memory required for data: 875471904
I0403 21:41:27.885359 12486 layer_factory.hpp:77] Creating layer inception_4a/pool
I0403 21:41:27.885385 12486 net.cpp:91] Creating Layer inception_4a/pool
I0403 21:41:27.885406 12486 net.cpp:425] inception_4a/pool <- pool3/3x3_s2_pool3/3x3_s2_0_split_3
I0403 21:41:27.885428 12486 net.cpp:399] inception_4a/pool -> inception_4a/pool
I0403 21:41:27.885504 12486 net.cpp:141] Setting up inception_4a/pool
I0403 21:41:27.885534 12486 net.cpp:148] Top shape: 24 480 14 14 (2257920)
I0403 21:41:27.885552 12486 net.cpp:156] Memory required for data: 884503584
I0403 21:41:27.885571 12486 layer_factory.hpp:77] Creating layer inception_4a/pool_proj
I0403 21:41:27.885598 12486 net.cpp:91] Creating Layer inception_4a/pool_proj
I0403 21:41:27.885622 12486 net.cpp:425] inception_4a/pool_proj <- inception_4a/pool
I0403 21:41:27.885648 12486 net.cpp:399] inception_4a/pool_proj -> inception_4a/pool_proj
I0403 21:41:27.887053 12486 net.cpp:141] Setting up inception_4a/pool_proj
I0403 21:41:27.887089 12486 net.cpp:148] Top shape: 24 64 14 14 (301056)
I0403 21:41:27.887127 12486 net.cpp:156] Memory required for data: 885707808
I0403 21:41:27.887151 12486 layer_factory.hpp:77] Creating layer inception_4a/relu_pool_proj
I0403 21:41:27.887182 12486 net.cpp:91] Creating Layer inception_4a/relu_pool_proj
I0403 21:41:27.887207 12486 net.cpp:425] inception_4a/relu_pool_proj <- inception_4a/pool_proj
I0403 21:41:27.887228 12486 net.cpp:386] inception_4a/relu_pool_proj -> inception_4a/pool_proj (in-place)
I0403 21:41:27.887562 12486 net.cpp:141] Setting up inception_4a/relu_pool_proj
I0403 21:41:27.887593 12486 net.cpp:148] Top shape: 24 64 14 14 (301056)
I0403 21:41:27.887612 12486 net.cpp:156] Memory required for data: 886912032
I0403 21:41:27.887631 12486 layer_factory.hpp:77] Creating layer inception_4a/output
I0403 21:41:27.887653 12486 net.cpp:91] Creating Layer inception_4a/output
I0403 21:41:27.887673 12486 net.cpp:425] inception_4a/output <- inception_4a/1x1
I0403 21:41:27.887696 12486 net.cpp:425] inception_4a/output <- inception_4a/3x3
I0403 21:41:27.887717 12486 net.cpp:425] inception_4a/output <- inception_4a/5x5
I0403 21:41:27.887738 12486 net.cpp:425] inception_4a/output <- inception_4a/pool_proj
I0403 21:41:27.887760 12486 net.cpp:399] inception_4a/output -> inception_4a/output
I0403 21:41:27.887822 12486 net.cpp:141] Setting up inception_4a/output
I0403 21:41:27.887851 12486 net.cpp:148] Top shape: 24 512 14 14 (2408448)
I0403 21:41:27.887869 12486 net.cpp:156] Memory required for data: 896545824
I0403 21:41:27.887887 12486 layer_factory.hpp:77] Creating layer inception_4a/output_inception_4a/output_0_split
I0403 21:41:27.887909 12486 net.cpp:91] Creating Layer inception_4a/output_inception_4a/output_0_split
I0403 21:41:27.887930 12486 net.cpp:425] inception_4a/output_inception_4a/output_0_split <- inception_4a/output
I0403 21:41:27.887956 12486 net.cpp:399] inception_4a/output_inception_4a/output_0_split -> inception_4a/output_inception_4a/output_0_split_0
I0403 21:41:27.887984 12486 net.cpp:399] inception_4a/output_inception_4a/output_0_split -> inception_4a/output_inception_4a/output_0_split_1
I0403 21:41:27.888010 12486 net.cpp:399] inception_4a/output_inception_4a/output_0_split -> inception_4a/output_inception_4a/output_0_split_2
I0403 21:41:27.888034 12486 net.cpp:399] inception_4a/output_inception_4a/output_0_split -> inception_4a/output_inception_4a/output_0_split_3
I0403 21:41:27.888061 12486 net.cpp:399] inception_4a/output_inception_4a/output_0_split -> inception_4a/output_inception_4a/output_0_split_4
I0403 21:41:27.888173 12486 net.cpp:141] Setting up inception_4a/output_inception_4a/output_0_split
I0403 21:41:27.888209 12486 net.cpp:148] Top shape: 24 512 14 14 (2408448)
I0403 21:41:27.888231 12486 net.cpp:148] Top shape: 24 512 14 14 (2408448)
I0403 21:41:27.888250 12486 net.cpp:148] Top shape: 24 512 14 14 (2408448)
I0403 21:41:27.888269 12486 net.cpp:148] Top shape: 24 512 14 14 (2408448)
I0403 21:41:27.888288 12486 net.cpp:148] Top shape: 24 512 14 14 (2408448)
I0403 21:41:27.888305 12486 net.cpp:156] Memory required for data: 944714784
I0403 21:41:27.888325 12486 layer_factory.hpp:77] Creating layer loss1/ave_pool
I0403 21:41:27.888347 12486 net.cpp:91] Creating Layer loss1/ave_pool
I0403 21:41:27.888368 12486 net.cpp:425] loss1/ave_pool <- inception_4a/output_inception_4a/output_0_split_0
I0403 21:41:27.888394 12486 net.cpp:399] loss1/ave_pool -> loss1/ave_pool
I0403 21:41:27.888646 12486 net.cpp:141] Setting up loss1/ave_pool
I0403 21:41:27.888679 12486 net.cpp:148] Top shape: 24 512 4 4 (196608)
I0403 21:41:27.888697 12486 net.cpp:156] Memory required for data: 945501216
I0403 21:41:27.888717 12486 layer_factory.hpp:77] Creating layer loss1/conv
I0403 21:41:27.888744 12486 net.cpp:91] Creating Layer loss1/conv
I0403 21:41:27.888768 12486 net.cpp:425] loss1/conv <- loss1/ave_pool
I0403 21:41:27.888794 12486 net.cpp:399] loss1/conv -> loss1/conv
I0403 21:41:27.890491 12486 net.cpp:141] Setting up loss1/conv
I0403 21:41:27.890528 12486 net.cpp:148] Top shape: 24 128 4 4 (49152)
I0403 21:41:27.890549 12486 net.cpp:156] Memory required for data: 945697824
I0403 21:41:27.890589 12486 layer_factory.hpp:77] Creating layer loss1/relu_conv
I0403 21:41:27.890614 12486 net.cpp:91] Creating Layer loss1/relu_conv
I0403 21:41:27.890632 12486 net.cpp:425] loss1/relu_conv <- loss1/conv
I0403 21:41:27.890653 12486 net.cpp:386] loss1/relu_conv -> loss1/conv (in-place)
I0403 21:41:27.890991 12486 net.cpp:141] Setting up loss1/relu_conv
I0403 21:41:27.891026 12486 net.cpp:148] Top shape: 24 128 4 4 (49152)
I0403 21:41:27.891047 12486 net.cpp:156] Memory required for data: 945894432
I0403 21:41:27.891067 12486 layer_factory.hpp:77] Creating layer loss1/fc
I0403 21:41:27.891096 12486 net.cpp:91] Creating Layer loss1/fc
I0403 21:41:27.891119 12486 net.cpp:425] loss1/fc <- loss1/conv
I0403 21:41:27.891145 12486 net.cpp:399] loss1/fc -> loss1/fc
I0403 21:41:27.913434 12486 net.cpp:141] Setting up loss1/fc
I0403 21:41:27.913475 12486 net.cpp:148] Top shape: 24 1024 (24576)
I0403 21:41:27.913496 12486 net.cpp:156] Memory required for data: 945992736
I0403 21:41:27.913517 12486 layer_factory.hpp:77] Creating layer loss1/relu_fc
I0403 21:41:27.913543 12486 net.cpp:91] Creating Layer loss1/relu_fc
I0403 21:41:27.913565 12486 net.cpp:425] loss1/relu_fc <- loss1/fc
I0403 21:41:27.913589 12486 net.cpp:386] loss1/relu_fc -> loss1/fc (in-place)
I0403 21:41:27.913816 12486 net.cpp:141] Setting up loss1/relu_fc
I0403 21:41:27.913851 12486 net.cpp:148] Top shape: 24 1024 (24576)
I0403 21:41:27.913871 12486 net.cpp:156] Memory required for data: 946091040
I0403 21:41:27.913890 12486 layer_factory.hpp:77] Creating layer loss1/drop_fc
I0403 21:41:27.913923 12486 net.cpp:91] Creating Layer loss1/drop_fc
I0403 21:41:27.913944 12486 net.cpp:425] loss1/drop_fc <- loss1/fc
I0403 21:41:27.913969 12486 net.cpp:386] loss1/drop_fc -> loss1/fc (in-place)
I0403 21:41:27.914036 12486 net.cpp:141] Setting up loss1/drop_fc
I0403 21:41:27.914064 12486 net.cpp:148] Top shape: 24 1024 (24576)
I0403 21:41:27.914083 12486 net.cpp:156] Memory required for data: 946189344
I0403 21:41:27.914101 12486 layer_factory.hpp:77] Creating layer loss1/classifier_plantvillage
I0403 21:41:27.914129 12486 net.cpp:91] Creating Layer loss1/classifier_plantvillage
I0403 21:41:27.914150 12486 net.cpp:425] loss1/classifier_plantvillage <- loss1/fc
I0403 21:41:27.914173 12486 net.cpp:399] loss1/classifier_plantvillage -> loss1/classifier_plantvillage
I0403 21:41:27.915299 12486 net.cpp:141] Setting up loss1/classifier_plantvillage
I0403 21:41:27.915338 12486 net.cpp:148] Top shape: 24 38 (912)
I0403 21:41:27.915357 12486 net.cpp:156] Memory required for data: 946192992
I0403 21:41:27.915380 12486 layer_factory.hpp:77] Creating layer loss1/classifier_plantvillage_loss1/classifier_plantvillage_0_split
I0403 21:41:27.915405 12486 net.cpp:91] Creating Layer loss1/classifier_plantvillage_loss1/classifier_plantvillage_0_split
I0403 21:41:27.915426 12486 net.cpp:425] loss1/classifier_plantvillage_loss1/classifier_plantvillage_0_split <- loss1/classifier_plantvillage
I0403 21:41:27.915448 12486 net.cpp:399] loss1/classifier_plantvillage_loss1/classifier_plantvillage_0_split -> loss1/classifier_plantvillage_loss1/classifier_plantvillage_0_split_0
I0403 21:41:27.915472 12486 net.cpp:399] loss1/classifier_plantvillage_loss1/classifier_plantvillage_0_split -> loss1/classifier_plantvillage_loss1/classifier_plantvillage_0_split_1
I0403 21:41:27.915498 12486 net.cpp:399] loss1/classifier_plantvillage_loss1/classifier_plantvillage_0_split -> loss1/classifier_plantvillage_loss1/classifier_plantvillage_0_split_2
I0403 21:41:27.915580 12486 net.cpp:141] Setting up loss1/classifier_plantvillage_loss1/classifier_plantvillage_0_split
I0403 21:41:27.915609 12486 net.cpp:148] Top shape: 24 38 (912)
I0403 21:41:27.915629 12486 net.cpp:148] Top shape: 24 38 (912)
I0403 21:41:27.915649 12486 net.cpp:148] Top shape: 24 38 (912)
I0403 21:41:27.915666 12486 net.cpp:156] Memory required for data: 946203936
I0403 21:41:27.915685 12486 layer_factory.hpp:77] Creating layer inception_4b/1x1
I0403 21:41:27.915709 12486 net.cpp:91] Creating Layer inception_4b/1x1
I0403 21:41:27.915750 12486 net.cpp:425] inception_4b/1x1 <- inception_4a/output_inception_4a/output_0_split_1
I0403 21:41:27.915779 12486 net.cpp:399] inception_4b/1x1 -> inception_4b/1x1
I0403 21:41:27.917768 12486 net.cpp:141] Setting up inception_4b/1x1
I0403 21:41:27.917809 12486 net.cpp:148] Top shape: 24 160 14 14 (752640)
I0403 21:41:27.917830 12486 net.cpp:156] Memory required for data: 949214496
I0403 21:41:27.917853 12486 layer_factory.hpp:77] Creating layer inception_4b/relu_1x1
I0403 21:41:27.917876 12486 net.cpp:91] Creating Layer inception_4b/relu_1x1
I0403 21:41:27.917896 12486 net.cpp:425] inception_4b/relu_1x1 <- inception_4b/1x1
I0403 21:41:27.917922 12486 net.cpp:386] inception_4b/relu_1x1 -> inception_4b/1x1 (in-place)
I0403 21:41:27.918140 12486 net.cpp:141] Setting up inception_4b/relu_1x1
I0403 21:41:27.918171 12486 net.cpp:148] Top shape: 24 160 14 14 (752640)
I0403 21:41:27.918196 12486 net.cpp:156] Memory required for data: 952225056
I0403 21:41:27.918215 12486 layer_factory.hpp:77] Creating layer inception_4b/3x3_reduce
I0403 21:41:27.918244 12486 net.cpp:91] Creating Layer inception_4b/3x3_reduce
I0403 21:41:27.918268 12486 net.cpp:425] inception_4b/3x3_reduce <- inception_4a/output_inception_4a/output_0_split_2
I0403 21:41:27.918298 12486 net.cpp:399] inception_4b/3x3_reduce -> inception_4b/3x3_reduce
I0403 21:41:27.919939 12486 net.cpp:141] Setting up inception_4b/3x3_reduce
I0403 21:41:27.919973 12486 net.cpp:148] Top shape: 24 112 14 14 (526848)
I0403 21:41:27.919993 12486 net.cpp:156] Memory required for data: 954332448
I0403 21:41:27.920017 12486 layer_factory.hpp:77] Creating layer inception_4b/relu_3x3_reduce
I0403 21:41:27.920039 12486 net.cpp:91] Creating Layer inception_4b/relu_3x3_reduce
I0403 21:41:27.920064 12486 net.cpp:425] inception_4b/relu_3x3_reduce <- inception_4b/3x3_reduce
I0403 21:41:27.920086 12486 net.cpp:386] inception_4b/relu_3x3_reduce -> inception_4b/3x3_reduce (in-place)
I0403 21:41:27.920428 12486 net.cpp:141] Setting up inception_4b/relu_3x3_reduce
I0403 21:41:27.920461 12486 net.cpp:148] Top shape: 24 112 14 14 (526848)
I0403 21:41:27.920481 12486 net.cpp:156] Memory required for data: 956439840
I0403 21:41:27.920500 12486 layer_factory.hpp:77] Creating layer inception_4b/3x3
I0403 21:41:27.920528 12486 net.cpp:91] Creating Layer inception_4b/3x3
I0403 21:41:27.920552 12486 net.cpp:425] inception_4b/3x3 <- inception_4b/3x3_reduce
I0403 21:41:27.920578 12486 net.cpp:399] inception_4b/3x3 -> inception_4b/3x3
I0403 21:41:27.924239 12486 net.cpp:141] Setting up inception_4b/3x3
I0403 21:41:27.924276 12486 net.cpp:148] Top shape: 24 224 14 14 (1053696)
I0403 21:41:27.924296 12486 net.cpp:156] Memory required for data: 960654624
I0403 21:41:27.924320 12486 layer_factory.hpp:77] Creating layer inception_4b/relu_3x3
I0403 21:41:27.924345 12486 net.cpp:91] Creating Layer inception_4b/relu_3x3
I0403 21:41:27.924365 12486 net.cpp:425] inception_4b/relu_3x3 <- inception_4b/3x3
I0403 21:41:27.924386 12486 net.cpp:386] inception_4b/relu_3x3 -> inception_4b/3x3 (in-place)
I0403 21:41:27.924607 12486 net.cpp:141] Setting up inception_4b/relu_3x3
I0403 21:41:27.924643 12486 net.cpp:148] Top shape: 24 224 14 14 (1053696)
I0403 21:41:27.924662 12486 net.cpp:156] Memory required for data: 964869408
I0403 21:41:27.924681 12486 layer_factory.hpp:77] Creating layer inception_4b/5x5_reduce
I0403 21:41:27.924710 12486 net.cpp:91] Creating Layer inception_4b/5x5_reduce
I0403 21:41:27.924733 12486 net.cpp:425] inception_4b/5x5_reduce <- inception_4a/output_inception_4a/output_0_split_3
I0403 21:41:27.924757 12486 net.cpp:399] inception_4b/5x5_reduce -> inception_4b/5x5_reduce
I0403 21:41:27.926084 12486 net.cpp:141] Setting up inception_4b/5x5_reduce
I0403 21:41:27.926120 12486 net.cpp:148] Top shape: 24 24 14 14 (112896)
I0403 21:41:27.926141 12486 net.cpp:156] Memory required for data: 965320992
I0403 21:41:27.926164 12486 layer_factory.hpp:77] Creating layer inception_4b/relu_5x5_reduce
I0403 21:41:27.926194 12486 net.cpp:91] Creating Layer inception_4b/relu_5x5_reduce
I0403 21:41:27.926232 12486 net.cpp:425] inception_4b/relu_5x5_reduce <- inception_4b/5x5_reduce
I0403 21:41:27.926259 12486 net.cpp:386] inception_4b/relu_5x5_reduce -> inception_4b/5x5_reduce (in-place)
I0403 21:41:27.926488 12486 net.cpp:141] Setting up inception_4b/relu_5x5_reduce
I0403 21:41:27.926519 12486 net.cpp:148] Top shape: 24 24 14 14 (112896)
I0403 21:41:27.926538 12486 net.cpp:156] Memory required for data: 965772576
I0403 21:41:27.926558 12486 layer_factory.hpp:77] Creating layer inception_4b/5x5
I0403 21:41:27.926589 12486 net.cpp:91] Creating Layer inception_4b/5x5
I0403 21:41:27.926612 12486 net.cpp:425] inception_4b/5x5 <- inception_4b/5x5_reduce
I0403 21:41:27.926638 12486 net.cpp:399] inception_4b/5x5 -> inception_4b/5x5
I0403 21:41:27.928135 12486 net.cpp:141] Setting up inception_4b/5x5
I0403 21:41:27.928174 12486 net.cpp:148] Top shape: 24 64 14 14 (301056)
I0403 21:41:27.928200 12486 net.cpp:156] Memory required for data: 966976800
I0403 21:41:27.928223 12486 layer_factory.hpp:77] Creating layer inception_4b/relu_5x5
I0403 21:41:27.928247 12486 net.cpp:91] Creating Layer inception_4b/relu_5x5
I0403 21:41:27.928267 12486 net.cpp:425] inception_4b/relu_5x5 <- inception_4b/5x5
I0403 21:41:27.928288 12486 net.cpp:386] inception_4b/relu_5x5 -> inception_4b/5x5 (in-place)
I0403 21:41:27.928632 12486 net.cpp:141] Setting up inception_4b/relu_5x5
I0403 21:41:27.928668 12486 net.cpp:148] Top shape: 24 64 14 14 (301056)
I0403 21:41:27.928689 12486 net.cpp:156] Memory required for data: 968181024
I0403 21:41:27.928709 12486 layer_factory.hpp:77] Creating layer inception_4b/pool
I0403 21:41:27.928731 12486 net.cpp:91] Creating Layer inception_4b/pool
I0403 21:41:27.928751 12486 net.cpp:425] inception_4b/pool <- inception_4a/output_inception_4a/output_0_split_4
I0403 21:41:27.928776 12486 net.cpp:399] inception_4b/pool -> inception_4b/pool
I0403 21:41:27.928859 12486 net.cpp:141] Setting up inception_4b/pool
I0403 21:41:27.928889 12486 net.cpp:148] Top shape: 24 512 14 14 (2408448)
I0403 21:41:27.928907 12486 net.cpp:156] Memory required for data: 977814816
I0403 21:41:27.928925 12486 layer_factory.hpp:77] Creating layer inception_4b/pool_proj
I0403 21:41:27.928953 12486 net.cpp:91] Creating Layer inception_4b/pool_proj
I0403 21:41:27.928978 12486 net.cpp:425] inception_4b/pool_proj <- inception_4b/pool
I0403 21:41:27.929003 12486 net.cpp:399] inception_4b/pool_proj -> inception_4b/pool_proj
I0403 21:41:27.930474 12486 net.cpp:141] Setting up inception_4b/pool_proj
I0403 21:41:27.930507 12486 net.cpp:148] Top shape: 24 64 14 14 (301056)
I0403 21:41:27.930526 12486 net.cpp:156] Memory required for data: 979019040
I0403 21:41:27.930549 12486 layer_factory.hpp:77] Creating layer inception_4b/relu_pool_proj
I0403 21:41:27.930572 12486 net.cpp:91] Creating Layer inception_4b/relu_pool_proj
I0403 21:41:27.930594 12486 net.cpp:425] inception_4b/relu_pool_proj <- inception_4b/pool_proj
I0403 21:41:27.930620 12486 net.cpp:386] inception_4b/relu_pool_proj -> inception_4b/pool_proj (in-place)
I0403 21:41:27.930843 12486 net.cpp:141] Setting up inception_4b/relu_pool_proj
I0403 21:41:27.930876 12486 net.cpp:148] Top shape: 24 64 14 14 (301056)
I0403 21:41:27.930893 12486 net.cpp:156] Memory required for data: 980223264
I0403 21:41:27.930913 12486 layer_factory.hpp:77] Creating layer inception_4b/output
I0403 21:41:27.930935 12486 net.cpp:91] Creating Layer inception_4b/output
I0403 21:41:27.930958 12486 net.cpp:425] inception_4b/output <- inception_4b/1x1
I0403 21:41:27.930980 12486 net.cpp:425] inception_4b/output <- inception_4b/3x3
I0403 21:41:27.931001 12486 net.cpp:425] inception_4b/output <- inception_4b/5x5
I0403 21:41:27.931021 12486 net.cpp:425] inception_4b/output <- inception_4b/pool_proj
I0403 21:41:27.931042 12486 net.cpp:399] inception_4b/output -> inception_4b/output
I0403 21:41:27.931097 12486 net.cpp:141] Setting up inception_4b/output
I0403 21:41:27.931128 12486 net.cpp:148] Top shape: 24 512 14 14 (2408448)
I0403 21:41:27.931149 12486 net.cpp:156] Memory required for data: 989857056
I0403 21:41:27.931195 12486 layer_factory.hpp:77] Creating layer inception_4b/output_inception_4b/output_0_split
I0403 21:41:27.931219 12486 net.cpp:91] Creating Layer inception_4b/output_inception_4b/output_0_split
I0403 21:41:27.931238 12486 net.cpp:425] inception_4b/output_inception_4b/output_0_split <- inception_4b/output
I0403 21:41:27.931264 12486 net.cpp:399] inception_4b/output_inception_4b/output_0_split -> inception_4b/output_inception_4b/output_0_split_0
I0403 21:41:27.931291 12486 net.cpp:399] inception_4b/output_inception_4b/output_0_split -> inception_4b/output_inception_4b/output_0_split_1
I0403 21:41:27.931318 12486 net.cpp:399] inception_4b/output_inception_4b/output_0_split -> inception_4b/output_inception_4b/output_0_split_2
I0403 21:41:27.931344 12486 net.cpp:399] inception_4b/output_inception_4b/output_0_split -> inception_4b/output_inception_4b/output_0_split_3
I0403 21:41:27.931444 12486 net.cpp:141] Setting up inception_4b/output_inception_4b/output_0_split
I0403 21:41:27.931476 12486 net.cpp:148] Top shape: 24 512 14 14 (2408448)
I0403 21:41:27.931500 12486 net.cpp:148] Top shape: 24 512 14 14 (2408448)
I0403 21:41:27.931520 12486 net.cpp:148] Top shape: 24 512 14 14 (2408448)
I0403 21:41:27.931540 12486 net.cpp:148] Top shape: 24 512 14 14 (2408448)
I0403 21:41:27.931557 12486 net.cpp:156] Memory required for data: 1028392224
I0403 21:41:27.931576 12486 layer_factory.hpp:77] Creating layer inception_4c/1x1
I0403 21:41:27.931605 12486 net.cpp:91] Creating Layer inception_4c/1x1
I0403 21:41:27.931627 12486 net.cpp:425] inception_4c/1x1 <- inception_4b/output_inception_4b/output_0_split_0
I0403 21:41:27.931651 12486 net.cpp:399] inception_4c/1x1 -> inception_4c/1x1
I0403 21:41:27.933439 12486 net.cpp:141] Setting up inception_4c/1x1
I0403 21:41:27.933475 12486 net.cpp:148] Top shape: 24 128 14 14 (602112)
I0403 21:41:27.933495 12486 net.cpp:156] Memory required for data: 1030800672
I0403 21:41:27.933518 12486 layer_factory.hpp:77] Creating layer inception_4c/relu_1x1
I0403 21:41:27.933544 12486 net.cpp:91] Creating Layer inception_4c/relu_1x1
I0403 21:41:27.933565 12486 net.cpp:425] inception_4c/relu_1x1 <- inception_4c/1x1
I0403 21:41:27.933588 12486 net.cpp:386] inception_4c/relu_1x1 -> inception_4c/1x1 (in-place)
I0403 21:41:27.933815 12486 net.cpp:141] Setting up inception_4c/relu_1x1
I0403 21:41:27.933846 12486 net.cpp:148] Top shape: 24 128 14 14 (602112)
I0403 21:41:27.933864 12486 net.cpp:156] Memory required for data: 1033209120
I0403 21:41:27.933883 12486 layer_factory.hpp:77] Creating layer inception_4c/3x3_reduce
I0403 21:41:27.933913 12486 net.cpp:91] Creating Layer inception_4c/3x3_reduce
I0403 21:41:27.933935 12486 net.cpp:425] inception_4c/3x3_reduce <- inception_4b/output_inception_4b/output_0_split_1
I0403 21:41:27.933959 12486 net.cpp:399] inception_4c/3x3_reduce -> inception_4c/3x3_reduce
I0403 21:41:27.936345 12486 net.cpp:141] Setting up inception_4c/3x3_reduce
I0403 21:41:27.936384 12486 net.cpp:148] Top shape: 24 128 14 14 (602112)
I0403 21:41:27.936415 12486 net.cpp:156] Memory required for data: 1035617568
I0403 21:41:27.936441 12486 layer_factory.hpp:77] Creating layer inception_4c/relu_3x3_reduce
I0403 21:41:27.936465 12486 net.cpp:91] Creating Layer inception_4c/relu_3x3_reduce
I0403 21:41:27.936486 12486 net.cpp:425] inception_4c/relu_3x3_reduce <- inception_4c/3x3_reduce
I0403 21:41:27.936512 12486 net.cpp:386] inception_4c/relu_3x3_reduce -> inception_4c/3x3_reduce (in-place)
I0403 21:41:27.936853 12486 net.cpp:141] Setting up inception_4c/relu_3x3_reduce
I0403 21:41:27.936889 12486 net.cpp:148] Top shape: 24 128 14 14 (602112)
I0403 21:41:27.936910 12486 net.cpp:156] Memory required for data: 1038026016
I0403 21:41:27.936929 12486 layer_factory.hpp:77] Creating layer inception_4c/3x3
I0403 21:41:27.936959 12486 net.cpp:91] Creating Layer inception_4c/3x3
I0403 21:41:27.936983 12486 net.cpp:425] inception_4c/3x3 <- inception_4c/3x3_reduce
I0403 21:41:27.937006 12486 net.cpp:399] inception_4c/3x3 -> inception_4c/3x3
I0403 21:41:27.941429 12486 net.cpp:141] Setting up inception_4c/3x3
I0403 21:41:27.941488 12486 net.cpp:148] Top shape: 24 256 14 14 (1204224)
I0403 21:41:27.941509 12486 net.cpp:156] Memory required for data: 1042842912
I0403 21:41:27.941548 12486 layer_factory.hpp:77] Creating layer inception_4c/relu_3x3
I0403 21:41:27.941576 12486 net.cpp:91] Creating Layer inception_4c/relu_3x3
I0403 21:41:27.941596 12486 net.cpp:425] inception_4c/relu_3x3 <- inception_4c/3x3
I0403 21:41:27.941622 12486 net.cpp:386] inception_4c/relu_3x3 -> inception_4c/3x3 (in-place)
I0403 21:41:27.941848 12486 net.cpp:141] Setting up inception_4c/relu_3x3
I0403 21:41:27.941884 12486 net.cpp:148] Top shape: 24 256 14 14 (1204224)
I0403 21:41:27.941903 12486 net.cpp:156] Memory required for data: 1047659808
I0403 21:41:27.941923 12486 layer_factory.hpp:77] Creating layer inception_4c/5x5_reduce
I0403 21:41:27.941953 12486 net.cpp:91] Creating Layer inception_4c/5x5_reduce
I0403 21:41:27.941977 12486 net.cpp:425] inception_4c/5x5_reduce <- inception_4b/output_inception_4b/output_0_split_2
I0403 21:41:27.942003 12486 net.cpp:399] inception_4c/5x5_reduce -> inception_4c/5x5_reduce
I0403 21:41:27.943348 12486 net.cpp:141] Setting up inception_4c/5x5_reduce
I0403 21:41:27.943387 12486 net.cpp:148] Top shape: 24 24 14 14 (112896)
I0403 21:41:27.943408 12486 net.cpp:156] Memory required for data: 1048111392
I0403 21:41:27.943431 12486 layer_factory.hpp:77] Creating layer inception_4c/relu_5x5_reduce
I0403 21:41:27.943454 12486 net.cpp:91] Creating Layer inception_4c/relu_5x5_reduce
I0403 21:41:27.943475 12486 net.cpp:425] inception_4c/relu_5x5_reduce <- inception_4c/5x5_reduce
I0403 21:41:27.943500 12486 net.cpp:386] inception_4c/relu_5x5_reduce -> inception_4c/5x5_reduce (in-place)
I0403 21:41:27.943727 12486 net.cpp:141] Setting up inception_4c/relu_5x5_reduce
I0403 21:41:27.943759 12486 net.cpp:148] Top shape: 24 24 14 14 (112896)
I0403 21:41:27.943778 12486 net.cpp:156] Memory required for data: 1048562976
I0403 21:41:27.943796 12486 layer_factory.hpp:77] Creating layer inception_4c/5x5
I0403 21:41:27.943824 12486 net.cpp:91] Creating Layer inception_4c/5x5
I0403 21:41:27.943846 12486 net.cpp:425] inception_4c/5x5 <- inception_4c/5x5_reduce
I0403 21:41:27.943871 12486 net.cpp:399] inception_4c/5x5 -> inception_4c/5x5
I0403 21:41:27.945394 12486 net.cpp:141] Setting up inception_4c/5x5
I0403 21:41:27.945430 12486 net.cpp:148] Top shape: 24 64 14 14 (301056)
I0403 21:41:27.945451 12486 net.cpp:156] Memory required for data: 1049767200
I0403 21:41:27.945472 12486 layer_factory.hpp:77] Creating layer inception_4c/relu_5x5
I0403 21:41:27.945498 12486 net.cpp:91] Creating Layer inception_4c/relu_5x5
I0403 21:41:27.945520 12486 net.cpp:425] inception_4c/relu_5x5 <- inception_4c/5x5
I0403 21:41:27.945544 12486 net.cpp:386] inception_4c/relu_5x5 -> inception_4c/5x5 (in-place)
I0403 21:41:27.945895 12486 net.cpp:141] Setting up inception_4c/relu_5x5
I0403 21:41:27.945929 12486 net.cpp:148] Top shape: 24 64 14 14 (301056)
I0403 21:41:27.945947 12486 net.cpp:156] Memory required for data: 1050971424
I0403 21:41:27.945966 12486 layer_factory.hpp:77] Creating layer inception_4c/pool
I0403 21:41:27.945992 12486 net.cpp:91] Creating Layer inception_4c/pool
I0403 21:41:27.946014 12486 net.cpp:425] inception_4c/pool <- inception_4b/output_inception_4b/output_0_split_3
I0403 21:41:27.946038 12486 net.cpp:399] inception_4c/pool -> inception_4c/pool
I0403 21:41:27.946121 12486 net.cpp:141] Setting up inception_4c/pool
I0403 21:41:27.946152 12486 net.cpp:148] Top shape: 24 512 14 14 (2408448)
I0403 21:41:27.946171 12486 net.cpp:156] Memory required for data: 1060605216
I0403 21:41:27.946197 12486 layer_factory.hpp:77] Creating layer inception_4c/pool_proj
I0403 21:41:27.946226 12486 net.cpp:91] Creating Layer inception_4c/pool_proj
I0403 21:41:27.946247 12486 net.cpp:425] inception_4c/pool_proj <- inception_4c/pool
I0403 21:41:27.946274 12486 net.cpp:399] inception_4c/pool_proj -> inception_4c/pool_proj
I0403 21:41:27.947765 12486 net.cpp:141] Setting up inception_4c/pool_proj
I0403 21:41:27.947803 12486 net.cpp:148] Top shape: 24 64 14 14 (301056)
I0403 21:41:27.947840 12486 net.cpp:156] Memory required for data: 1061809440
I0403 21:41:27.947866 12486 layer_factory.hpp:77] Creating layer inception_4c/relu_pool_proj
I0403 21:41:27.947890 12486 net.cpp:91] Creating Layer inception_4c/relu_pool_proj
I0403 21:41:27.947909 12486 net.cpp:425] inception_4c/relu_pool_proj <- inception_4c/pool_proj
I0403 21:41:27.947934 12486 net.cpp:386] inception_4c/relu_pool_proj -> inception_4c/pool_proj (in-place)
I0403 21:41:27.948164 12486 net.cpp:141] Setting up inception_4c/relu_pool_proj
I0403 21:41:27.948201 12486 net.cpp:148] Top shape: 24 64 14 14 (301056)
I0403 21:41:27.948220 12486 net.cpp:156] Memory required for data: 1063013664
I0403 21:41:27.948240 12486 layer_factory.hpp:77] Creating layer inception_4c/output
I0403 21:41:27.948262 12486 net.cpp:91] Creating Layer inception_4c/output
I0403 21:41:27.948282 12486 net.cpp:425] inception_4c/output <- inception_4c/1x1
I0403 21:41:27.948302 12486 net.cpp:425] inception_4c/output <- inception_4c/3x3
I0403 21:41:27.948326 12486 net.cpp:425] inception_4c/output <- inception_4c/5x5
I0403 21:41:27.948348 12486 net.cpp:425] inception_4c/output <- inception_4c/pool_proj
I0403 21:41:27.948370 12486 net.cpp:399] inception_4c/output -> inception_4c/output
I0403 21:41:27.948427 12486 net.cpp:141] Setting up inception_4c/output
I0403 21:41:27.948458 12486 net.cpp:148] Top shape: 24 512 14 14 (2408448)
I0403 21:41:27.948477 12486 net.cpp:156] Memory required for data: 1072647456
I0403 21:41:27.948495 12486 layer_factory.hpp:77] Creating layer inception_4c/output_inception_4c/output_0_split
I0403 21:41:27.948518 12486 net.cpp:91] Creating Layer inception_4c/output_inception_4c/output_0_split
I0403 21:41:27.948539 12486 net.cpp:425] inception_4c/output_inception_4c/output_0_split <- inception_4c/output
I0403 21:41:27.948565 12486 net.cpp:399] inception_4c/output_inception_4c/output_0_split -> inception_4c/output_inception_4c/output_0_split_0
I0403 21:41:27.948590 12486 net.cpp:399] inception_4c/output_inception_4c/output_0_split -> inception_4c/output_inception_4c/output_0_split_1
I0403 21:41:27.948614 12486 net.cpp:399] inception_4c/output_inception_4c/output_0_split -> inception_4c/output_inception_4c/output_0_split_2
I0403 21:41:27.948640 12486 net.cpp:399] inception_4c/output_inception_4c/output_0_split -> inception_4c/output_inception_4c/output_0_split_3
I0403 21:41:27.948748 12486 net.cpp:141] Setting up inception_4c/output_inception_4c/output_0_split
I0403 21:41:27.948779 12486 net.cpp:148] Top shape: 24 512 14 14 (2408448)
I0403 21:41:27.948801 12486 net.cpp:148] Top shape: 24 512 14 14 (2408448)
I0403 21:41:27.948822 12486 net.cpp:148] Top shape: 24 512 14 14 (2408448)
I0403 21:41:27.948840 12486 net.cpp:148] Top shape: 24 512 14 14 (2408448)
I0403 21:41:27.948856 12486 net.cpp:156] Memory required for data: 1111182624
I0403 21:41:27.948875 12486 layer_factory.hpp:77] Creating layer inception_4d/1x1
I0403 21:41:27.948900 12486 net.cpp:91] Creating Layer inception_4d/1x1
I0403 21:41:27.948921 12486 net.cpp:425] inception_4d/1x1 <- inception_4c/output_inception_4c/output_0_split_0
I0403 21:41:27.948948 12486 net.cpp:399] inception_4d/1x1 -> inception_4d/1x1
I0403 21:41:27.950639 12486 net.cpp:141] Setting up inception_4d/1x1
I0403 21:41:27.950675 12486 net.cpp:148] Top shape: 24 112 14 14 (526848)
I0403 21:41:27.950695 12486 net.cpp:156] Memory required for data: 1113290016
I0403 21:41:27.950717 12486 layer_factory.hpp:77] Creating layer inception_4d/relu_1x1
I0403 21:41:27.950748 12486 net.cpp:91] Creating Layer inception_4d/relu_1x1
I0403 21:41:27.950768 12486 net.cpp:425] inception_4d/relu_1x1 <- inception_4d/1x1
I0403 21:41:27.950790 12486 net.cpp:386] inception_4d/relu_1x1 -> inception_4d/1x1 (in-place)
I0403 21:41:27.951019 12486 net.cpp:141] Setting up inception_4d/relu_1x1
I0403 21:41:27.951053 12486 net.cpp:148] Top shape: 24 112 14 14 (526848)
I0403 21:41:27.951073 12486 net.cpp:156] Memory required for data: 1115397408
I0403 21:41:27.951092 12486 layer_factory.hpp:77] Creating layer inception_4d/3x3_reduce
I0403 21:41:27.951135 12486 net.cpp:91] Creating Layer inception_4d/3x3_reduce
I0403 21:41:27.951159 12486 net.cpp:425] inception_4d/3x3_reduce <- inception_4c/output_inception_4c/output_0_split_1
I0403 21:41:27.951187 12486 net.cpp:399] inception_4d/3x3_reduce -> inception_4d/3x3_reduce
I0403 21:41:27.953035 12486 net.cpp:141] Setting up inception_4d/3x3_reduce
I0403 21:41:27.953069 12486 net.cpp:148] Top shape: 24 144 14 14 (677376)
I0403 21:41:27.953089 12486 net.cpp:156] Memory required for data: 1118106912
I0403 21:41:27.953112 12486 layer_factory.hpp:77] Creating layer inception_4d/relu_3x3_reduce
I0403 21:41:27.953138 12486 net.cpp:91] Creating Layer inception_4d/relu_3x3_reduce
I0403 21:41:27.953160 12486 net.cpp:425] inception_4d/relu_3x3_reduce <- inception_4d/3x3_reduce
I0403 21:41:27.953186 12486 net.cpp:386] inception_4d/relu_3x3_reduce -> inception_4d/3x3_reduce (in-place)
I0403 21:41:27.953541 12486 net.cpp:141] Setting up inception_4d/relu_3x3_reduce
I0403 21:41:27.953574 12486 net.cpp:148] Top shape: 24 144 14 14 (677376)
I0403 21:41:27.953593 12486 net.cpp:156] Memory required for data: 1120816416
I0403 21:41:27.953613 12486 layer_factory.hpp:77] Creating layer inception_4d/3x3
I0403 21:41:27.953640 12486 net.cpp:91] Creating Layer inception_4d/3x3
I0403 21:41:27.953663 12486 net.cpp:425] inception_4d/3x3 <- inception_4d/3x3_reduce
I0403 21:41:27.953691 12486 net.cpp:399] inception_4d/3x3 -> inception_4d/3x3
I0403 21:41:27.958988 12486 net.cpp:141] Setting up inception_4d/3x3
I0403 21:41:27.959023 12486 net.cpp:148] Top shape: 24 288 14 14 (1354752)
I0403 21:41:27.959043 12486 net.cpp:156] Memory required for data: 1126235424
I0403 21:41:27.959066 12486 layer_factory.hpp:77] Creating layer inception_4d/relu_3x3
I0403 21:41:27.959092 12486 net.cpp:91] Creating Layer inception_4d/relu_3x3
I0403 21:41:27.959115 12486 net.cpp:425] inception_4d/relu_3x3 <- inception_4d/3x3
I0403 21:41:27.959136 12486 net.cpp:386] inception_4d/relu_3x3 -> inception_4d/3x3 (in-place)
I0403 21:41:27.959374 12486 net.cpp:141] Setting up inception_4d/relu_3x3
I0403 21:41:27.959406 12486 net.cpp:148] Top shape: 24 288 14 14 (1354752)
I0403 21:41:27.959425 12486 net.cpp:156] Memory required for data: 1131654432
I0403 21:41:27.959444 12486 layer_factory.hpp:77] Creating layer inception_4d/5x5_reduce
I0403 21:41:27.959470 12486 net.cpp:91] Creating Layer inception_4d/5x5_reduce
I0403 21:41:27.959493 12486 net.cpp:425] inception_4d/5x5_reduce <- inception_4c/output_inception_4c/output_0_split_2
I0403 21:41:27.959520 12486 net.cpp:399] inception_4d/5x5_reduce -> inception_4d/5x5_reduce
I0403 21:41:27.960921 12486 net.cpp:141] Setting up inception_4d/5x5_reduce
I0403 21:41:27.960958 12486 net.cpp:148] Top shape: 24 32 14 14 (150528)
I0403 21:41:27.960979 12486 net.cpp:156] Memory required for data: 1132256544
I0403 21:41:27.961002 12486 layer_factory.hpp:77] Creating layer inception_4d/relu_5x5_reduce
I0403 21:41:27.961024 12486 net.cpp:91] Creating Layer inception_4d/relu_5x5_reduce
I0403 21:41:27.961043 12486 net.cpp:425] inception_4d/relu_5x5_reduce <- inception_4d/5x5_reduce
I0403 21:41:27.961066 12486 net.cpp:386] inception_4d/relu_5x5_reduce -> inception_4d/5x5_reduce (in-place)
I0403 21:41:27.961307 12486 net.cpp:141] Setting up inception_4d/relu_5x5_reduce
I0403 21:41:27.961341 12486 net.cpp:148] Top shape: 24 32 14 14 (150528)
I0403 21:41:27.961361 12486 net.cpp:156] Memory required for data: 1132858656
I0403 21:41:27.961380 12486 layer_factory.hpp:77] Creating layer inception_4d/5x5
I0403 21:41:27.961406 12486 net.cpp:91] Creating Layer inception_4d/5x5
I0403 21:41:27.961429 12486 net.cpp:425] inception_4d/5x5 <- inception_4d/5x5_reduce
I0403 21:41:27.961453 12486 net.cpp:399] inception_4d/5x5 -> inception_4d/5x5
I0403 21:41:27.963238 12486 net.cpp:141] Setting up inception_4d/5x5
I0403 21:41:27.963271 12486 net.cpp:148] Top shape: 24 64 14 14 (301056)
I0403 21:41:27.963290 12486 net.cpp:156] Memory required for data: 1134062880
I0403 21:41:27.963315 12486 layer_factory.hpp:77] Creating layer inception_4d/relu_5x5
I0403 21:41:27.963354 12486 net.cpp:91] Creating Layer inception_4d/relu_5x5
I0403 21:41:27.963403 12486 net.cpp:425] inception_4d/relu_5x5 <- inception_4d/5x5
I0403 21:41:27.963426 12486 net.cpp:386] inception_4d/relu_5x5 -> inception_4d/5x5 (in-place)
I0403 21:41:27.963788 12486 net.cpp:141] Setting up inception_4d/relu_5x5
I0403 21:41:27.963821 12486 net.cpp:148] Top shape: 24 64 14 14 (301056)
I0403 21:41:27.963840 12486 net.cpp:156] Memory required for data: 1135267104
I0403 21:41:27.963860 12486 layer_factory.hpp:77] Creating layer inception_4d/pool
I0403 21:41:27.963881 12486 net.cpp:91] Creating Layer inception_4d/pool
I0403 21:41:27.963902 12486 net.cpp:425] inception_4d/pool <- inception_4c/output_inception_4c/output_0_split_3
I0403 21:41:27.963934 12486 net.cpp:399] inception_4d/pool -> inception_4d/pool
I0403 21:41:27.964018 12486 net.cpp:141] Setting up inception_4d/pool
I0403 21:41:27.964052 12486 net.cpp:148] Top shape: 24 512 14 14 (2408448)
I0403 21:41:27.964072 12486 net.cpp:156] Memory required for data: 1144900896
I0403 21:41:27.964092 12486 layer_factory.hpp:77] Creating layer inception_4d/pool_proj
I0403 21:41:27.964118 12486 net.cpp:91] Creating Layer inception_4d/pool_proj
I0403 21:41:27.964140 12486 net.cpp:425] inception_4d/pool_proj <- inception_4d/pool
I0403 21:41:27.964164 12486 net.cpp:399] inception_4d/pool_proj -> inception_4d/pool_proj
I0403 21:41:27.966331 12486 net.cpp:141] Setting up inception_4d/pool_proj
I0403 21:41:27.966367 12486 net.cpp:148] Top shape: 24 64 14 14 (301056)
I0403 21:41:27.966387 12486 net.cpp:156] Memory required for data: 1146105120
I0403 21:41:27.966411 12486 layer_factory.hpp:77] Creating layer inception_4d/relu_pool_proj
I0403 21:41:27.966439 12486 net.cpp:91] Creating Layer inception_4d/relu_pool_proj
I0403 21:41:27.966459 12486 net.cpp:425] inception_4d/relu_pool_proj <- inception_4d/pool_proj
I0403 21:41:27.966482 12486 net.cpp:386] inception_4d/relu_pool_proj -> inception_4d/pool_proj (in-place)
I0403 21:41:27.966711 12486 net.cpp:141] Setting up inception_4d/relu_pool_proj
I0403 21:41:27.966742 12486 net.cpp:148] Top shape: 24 64 14 14 (301056)
I0403 21:41:27.966760 12486 net.cpp:156] Memory required for data: 1147309344
I0403 21:41:27.966778 12486 layer_factory.hpp:77] Creating layer inception_4d/output
I0403 21:41:27.966799 12486 net.cpp:91] Creating Layer inception_4d/output
I0403 21:41:27.966820 12486 net.cpp:425] inception_4d/output <- inception_4d/1x1
I0403 21:41:27.966840 12486 net.cpp:425] inception_4d/output <- inception_4d/3x3
I0403 21:41:27.966861 12486 net.cpp:425] inception_4d/output <- inception_4d/5x5
I0403 21:41:27.966881 12486 net.cpp:425] inception_4d/output <- inception_4d/pool_proj
I0403 21:41:27.966905 12486 net.cpp:399] inception_4d/output -> inception_4d/output
I0403 21:41:27.966964 12486 net.cpp:141] Setting up inception_4d/output
I0403 21:41:27.966996 12486 net.cpp:148] Top shape: 24 528 14 14 (2483712)
I0403 21:41:27.967016 12486 net.cpp:156] Memory required for data: 1157244192
I0403 21:41:27.967036 12486 layer_factory.hpp:77] Creating layer inception_4d/output_inception_4d/output_0_split
I0403 21:41:27.967057 12486 net.cpp:91] Creating Layer inception_4d/output_inception_4d/output_0_split
I0403 21:41:27.967077 12486 net.cpp:425] inception_4d/output_inception_4d/output_0_split <- inception_4d/output
I0403 21:41:27.967098 12486 net.cpp:399] inception_4d/output_inception_4d/output_0_split -> inception_4d/output_inception_4d/output_0_split_0
I0403 21:41:27.967128 12486 net.cpp:399] inception_4d/output_inception_4d/output_0_split -> inception_4d/output_inception_4d/output_0_split_1
I0403 21:41:27.967154 12486 net.cpp:399] inception_4d/output_inception_4d/output_0_split -> inception_4d/output_inception_4d/output_0_split_2
I0403 21:41:27.967185 12486 net.cpp:399] inception_4d/output_inception_4d/output_0_split -> inception_4d/output_inception_4d/output_0_split_3
I0403 21:41:27.967214 12486 net.cpp:399] inception_4d/output_inception_4d/output_0_split -> inception_4d/output_inception_4d/output_0_split_4
I0403 21:41:27.967344 12486 net.cpp:141] Setting up inception_4d/output_inception_4d/output_0_split
I0403 21:41:27.967388 12486 net.cpp:148] Top shape: 24 528 14 14 (2483712)
I0403 21:41:27.967409 12486 net.cpp:148] Top shape: 24 528 14 14 (2483712)
I0403 21:41:27.967429 12486 net.cpp:148] Top shape: 24 528 14 14 (2483712)
I0403 21:41:27.967449 12486 net.cpp:148] Top shape: 24 528 14 14 (2483712)
I0403 21:41:27.967469 12486 net.cpp:148] Top shape: 24 528 14 14 (2483712)
I0403 21:41:27.967488 12486 net.cpp:156] Memory required for data: 1206918432
I0403 21:41:27.967505 12486 layer_factory.hpp:77] Creating layer loss2/ave_pool
I0403 21:41:27.967532 12486 net.cpp:91] Creating Layer loss2/ave_pool
I0403 21:41:27.967553 12486 net.cpp:425] loss2/ave_pool <- inception_4d/output_inception_4d/output_0_split_0
I0403 21:41:27.967577 12486 net.cpp:399] loss2/ave_pool -> loss2/ave_pool
I0403 21:41:27.967962 12486 net.cpp:141] Setting up loss2/ave_pool
I0403 21:41:27.967996 12486 net.cpp:148] Top shape: 24 528 4 4 (202752)
I0403 21:41:27.968015 12486 net.cpp:156] Memory required for data: 1207729440
I0403 21:41:27.968035 12486 layer_factory.hpp:77] Creating layer loss2/conv
I0403 21:41:27.968065 12486 net.cpp:91] Creating Layer loss2/conv
I0403 21:41:27.968087 12486 net.cpp:425] loss2/conv <- loss2/ave_pool
I0403 21:41:27.968111 12486 net.cpp:399] loss2/conv -> loss2/conv
I0403 21:41:27.970463 12486 net.cpp:141] Setting up loss2/conv
I0403 21:41:27.970499 12486 net.cpp:148] Top shape: 24 128 4 4 (49152)
I0403 21:41:27.970520 12486 net.cpp:156] Memory required for data: 1207926048
I0403 21:41:27.970543 12486 layer_factory.hpp:77] Creating layer loss2/relu_conv
I0403 21:41:27.970566 12486 net.cpp:91] Creating Layer loss2/relu_conv
I0403 21:41:27.970587 12486 net.cpp:425] loss2/relu_conv <- loss2/conv
I0403 21:41:27.970612 12486 net.cpp:386] loss2/relu_conv -> loss2/conv (in-place)
I0403 21:41:27.970958 12486 net.cpp:141] Setting up loss2/relu_conv
I0403 21:41:27.970991 12486 net.cpp:148] Top shape: 24 128 4 4 (49152)
I0403 21:41:27.971009 12486 net.cpp:156] Memory required for data: 1208122656
I0403 21:41:27.971029 12486 layer_factory.hpp:77] Creating layer loss2/fc
I0403 21:41:27.971051 12486 net.cpp:91] Creating Layer loss2/fc
I0403 21:41:27.971071 12486 net.cpp:425] loss2/fc <- loss2/conv
I0403 21:41:27.971098 12486 net.cpp:399] loss2/fc -> loss2/fc
I0403 21:41:27.993423 12486 net.cpp:141] Setting up loss2/fc
I0403 21:41:27.993474 12486 net.cpp:148] Top shape: 24 1024 (24576)
I0403 21:41:27.993492 12486 net.cpp:156] Memory required for data: 1208220960
I0403 21:41:27.993515 12486 layer_factory.hpp:77] Creating layer loss2/relu_fc
I0403 21:41:27.993537 12486 net.cpp:91] Creating Layer loss2/relu_fc
I0403 21:41:27.993559 12486 net.cpp:425] loss2/relu_fc <- loss2/fc
I0403 21:41:27.993582 12486 net.cpp:386] loss2/relu_fc -> loss2/fc (in-place)
I0403 21:41:27.993952 12486 net.cpp:141] Setting up loss2/relu_fc
I0403 21:41:27.993988 12486 net.cpp:148] Top shape: 24 1024 (24576)
I0403 21:41:27.994007 12486 net.cpp:156] Memory required for data: 1208319264
I0403 21:41:27.994026 12486 layer_factory.hpp:77] Creating layer loss2/drop_fc
I0403 21:41:27.994050 12486 net.cpp:91] Creating Layer loss2/drop_fc
I0403 21:41:27.994070 12486 net.cpp:425] loss2/drop_fc <- loss2/fc
I0403 21:41:27.994092 12486 net.cpp:386] loss2/drop_fc -> loss2/fc (in-place)
I0403 21:41:27.994153 12486 net.cpp:141] Setting up loss2/drop_fc
I0403 21:41:27.994189 12486 net.cpp:148] Top shape: 24 1024 (24576)
I0403 21:41:27.994209 12486 net.cpp:156] Memory required for data: 1208417568
I0403 21:41:27.994226 12486 layer_factory.hpp:77] Creating layer loss2/classifier_plantvillage
I0403 21:41:27.994253 12486 net.cpp:91] Creating Layer loss2/classifier_plantvillage
I0403 21:41:27.994276 12486 net.cpp:425] loss2/classifier_plantvillage <- loss2/fc
I0403 21:41:27.994298 12486 net.cpp:399] loss2/classifier_plantvillage -> loss2/classifier_plantvillage
I0403 21:41:27.994798 12486 net.cpp:141] Setting up loss2/classifier_plantvillage
I0403 21:41:27.994832 12486 net.cpp:148] Top shape: 24 38 (912)
I0403 21:41:27.994849 12486 net.cpp:156] Memory required for data: 1208421216
I0403 21:41:27.994894 12486 layer_factory.hpp:77] Creating layer loss2/classifier_plantvillage_loss2/classifier_plantvillage_0_split
I0403 21:41:27.994918 12486 net.cpp:91] Creating Layer loss2/classifier_plantvillage_loss2/classifier_plantvillage_0_split
I0403 21:41:27.994938 12486 net.cpp:425] loss2/classifier_plantvillage_loss2/classifier_plantvillage_0_split <- loss2/classifier_plantvillage
I0403 21:41:27.994964 12486 net.cpp:399] loss2/classifier_plantvillage_loss2/classifier_plantvillage_0_split -> loss2/classifier_plantvillage_loss2/classifier_plantvillage_0_split_0
I0403 21:41:27.994992 12486 net.cpp:399] loss2/classifier_plantvillage_loss2/classifier_plantvillage_0_split -> loss2/classifier_plantvillage_loss2/classifier_plantvillage_0_split_1
I0403 21:41:27.995018 12486 net.cpp:399] loss2/classifier_plantvillage_loss2/classifier_plantvillage_0_split -> loss2/classifier_plantvillage_loss2/classifier_plantvillage_0_split_2
I0403 21:41:27.995116 12486 net.cpp:141] Setting up loss2/classifier_plantvillage_loss2/classifier_plantvillage_0_split
I0403 21:41:27.995146 12486 net.cpp:148] Top shape: 24 38 (912)
I0403 21:41:27.995165 12486 net.cpp:148] Top shape: 24 38 (912)
I0403 21:41:27.995194 12486 net.cpp:148] Top shape: 24 38 (912)
I0403 21:41:27.995213 12486 net.cpp:156] Memory required for data: 1208432160
I0403 21:41:27.995234 12486 layer_factory.hpp:77] Creating layer inception_4e/1x1
I0403 21:41:27.995262 12486 net.cpp:91] Creating Layer inception_4e/1x1
I0403 21:41:27.995285 12486 net.cpp:425] inception_4e/1x1 <- inception_4d/output_inception_4d/output_0_split_1
I0403 21:41:27.995308 12486 net.cpp:399] inception_4e/1x1 -> inception_4e/1x1
I0403 21:41:27.997562 12486 net.cpp:141] Setting up inception_4e/1x1
I0403 21:41:27.997596 12486 net.cpp:148] Top shape: 24 256 14 14 (1204224)
I0403 21:41:27.997617 12486 net.cpp:156] Memory required for data: 1213249056
I0403 21:41:27.997640 12486 layer_factory.hpp:77] Creating layer inception_4e/relu_1x1
I0403 21:41:27.997666 12486 net.cpp:91] Creating Layer inception_4e/relu_1x1
I0403 21:41:27.997687 12486 net.cpp:425] inception_4e/relu_1x1 <- inception_4e/1x1
I0403 21:41:27.997709 12486 net.cpp:386] inception_4e/relu_1x1 -> inception_4e/1x1 (in-place)
I0403 21:41:27.998070 12486 net.cpp:141] Setting up inception_4e/relu_1x1
I0403 21:41:27.998102 12486 net.cpp:148] Top shape: 24 256 14 14 (1204224)
I0403 21:41:27.998121 12486 net.cpp:156] Memory required for data: 1218065952
I0403 21:41:27.998139 12486 layer_factory.hpp:77] Creating layer inception_4e/3x3_reduce
I0403 21:41:27.998168 12486 net.cpp:91] Creating Layer inception_4e/3x3_reduce
I0403 21:41:27.998198 12486 net.cpp:425] inception_4e/3x3_reduce <- inception_4d/output_inception_4d/output_0_split_2
I0403 21:41:27.998226 12486 net.cpp:399] inception_4e/3x3_reduce -> inception_4e/3x3_reduce
I0403 21:41:28.000851 12486 net.cpp:141] Setting up inception_4e/3x3_reduce
I0403 21:41:28.000887 12486 net.cpp:148] Top shape: 24 160 14 14 (752640)
I0403 21:41:28.000907 12486 net.cpp:156] Memory required for data: 1221076512
I0403 21:41:28.000931 12486 layer_factory.hpp:77] Creating layer inception_4e/relu_3x3_reduce
I0403 21:41:28.000953 12486 net.cpp:91] Creating Layer inception_4e/relu_3x3_reduce
I0403 21:41:28.000974 12486 net.cpp:425] inception_4e/relu_3x3_reduce <- inception_4e/3x3_reduce
I0403 21:41:28.000999 12486 net.cpp:386] inception_4e/relu_3x3_reduce -> inception_4e/3x3_reduce (in-place)
I0403 21:41:28.001235 12486 net.cpp:141] Setting up inception_4e/relu_3x3_reduce
I0403 21:41:28.001268 12486 net.cpp:148] Top shape: 24 160 14 14 (752640)
I0403 21:41:28.001288 12486 net.cpp:156] Memory required for data: 1224087072
I0403 21:41:28.001307 12486 layer_factory.hpp:77] Creating layer inception_4e/3x3
I0403 21:41:28.001335 12486 net.cpp:91] Creating Layer inception_4e/3x3
I0403 21:41:28.001358 12486 net.cpp:425] inception_4e/3x3 <- inception_4e/3x3_reduce
I0403 21:41:28.001385 12486 net.cpp:399] inception_4e/3x3 -> inception_4e/3x3
I0403 21:41:28.007658 12486 net.cpp:141] Setting up inception_4e/3x3
I0403 21:41:28.007710 12486 net.cpp:148] Top shape: 24 320 14 14 (1505280)
I0403 21:41:28.007731 12486 net.cpp:156] Memory required for data: 1230108192
I0403 21:41:28.007755 12486 layer_factory.hpp:77] Creating layer inception_4e/relu_3x3
I0403 21:41:28.007781 12486 net.cpp:91] Creating Layer inception_4e/relu_3x3
I0403 21:41:28.007802 12486 net.cpp:425] inception_4e/relu_3x3 <- inception_4e/3x3
I0403 21:41:28.007823 12486 net.cpp:386] inception_4e/relu_3x3 -> inception_4e/3x3 (in-place)
I0403 21:41:28.008195 12486 net.cpp:141] Setting up inception_4e/relu_3x3
I0403 21:41:28.008229 12486 net.cpp:148] Top shape: 24 320 14 14 (1505280)
I0403 21:41:28.008251 12486 net.cpp:156] Memory required for data: 1236129312
I0403 21:41:28.008271 12486 layer_factory.hpp:77] Creating layer inception_4e/5x5_reduce
I0403 21:41:28.008296 12486 net.cpp:91] Creating Layer inception_4e/5x5_reduce
I0403 21:41:28.008318 12486 net.cpp:425] inception_4e/5x5_reduce <- inception_4d/output_inception_4d/output_0_split_3
I0403 21:41:28.008347 12486 net.cpp:399] inception_4e/5x5_reduce -> inception_4e/5x5_reduce
I0403 21:41:28.009667 12486 net.cpp:141] Setting up inception_4e/5x5_reduce
I0403 21:41:28.009702 12486 net.cpp:148] Top shape: 24 32 14 14 (150528)
I0403 21:41:28.009721 12486 net.cpp:156] Memory required for data: 1236731424
I0403 21:41:28.009744 12486 layer_factory.hpp:77] Creating layer inception_4e/relu_5x5_reduce
I0403 21:41:28.009768 12486 net.cpp:91] Creating Layer inception_4e/relu_5x5_reduce
I0403 21:41:28.009788 12486 net.cpp:425] inception_4e/relu_5x5_reduce <- inception_4e/5x5_reduce
I0403 21:41:28.009816 12486 net.cpp:386] inception_4e/relu_5x5_reduce -> inception_4e/5x5_reduce (in-place)
I0403 21:41:28.010182 12486 net.cpp:141] Setting up inception_4e/relu_5x5_reduce
I0403 21:41:28.010215 12486 net.cpp:148] Top shape: 24 32 14 14 (150528)
I0403 21:41:28.010236 12486 net.cpp:156] Memory required for data: 1237333536
I0403 21:41:28.010254 12486 layer_factory.hpp:77] Creating layer inception_4e/5x5
I0403 21:41:28.010303 12486 net.cpp:91] Creating Layer inception_4e/5x5
I0403 21:41:28.010329 12486 net.cpp:425] inception_4e/5x5 <- inception_4e/5x5_reduce
I0403 21:41:28.010354 12486 net.cpp:399] inception_4e/5x5 -> inception_4e/5x5
I0403 21:41:28.012596 12486 net.cpp:141] Setting up inception_4e/5x5
I0403 21:41:28.012635 12486 net.cpp:148] Top shape: 24 128 14 14 (602112)
I0403 21:41:28.012656 12486 net.cpp:156] Memory required for data: 1239741984
I0403 21:41:28.012681 12486 layer_factory.hpp:77] Creating layer inception_4e/relu_5x5
I0403 21:41:28.012703 12486 net.cpp:91] Creating Layer inception_4e/relu_5x5
I0403 21:41:28.012723 12486 net.cpp:425] inception_4e/relu_5x5 <- inception_4e/5x5
I0403 21:41:28.012748 12486 net.cpp:386] inception_4e/relu_5x5 -> inception_4e/5x5 (in-place)
I0403 21:41:28.012991 12486 net.cpp:141] Setting up inception_4e/relu_5x5
I0403 21:41:28.013022 12486 net.cpp:148] Top shape: 24 128 14 14 (602112)
I0403 21:41:28.013041 12486 net.cpp:156] Memory required for data: 1242150432
I0403 21:41:28.013061 12486 layer_factory.hpp:77] Creating layer inception_4e/pool
I0403 21:41:28.013084 12486 net.cpp:91] Creating Layer inception_4e/pool
I0403 21:41:28.013104 12486 net.cpp:425] inception_4e/pool <- inception_4d/output_inception_4d/output_0_split_4
I0403 21:41:28.013129 12486 net.cpp:399] inception_4e/pool -> inception_4e/pool
I0403 21:41:28.013224 12486 net.cpp:141] Setting up inception_4e/pool
I0403 21:41:28.013254 12486 net.cpp:148] Top shape: 24 528 14 14 (2483712)
I0403 21:41:28.013273 12486 net.cpp:156] Memory required for data: 1252085280
I0403 21:41:28.013291 12486 layer_factory.hpp:77] Creating layer inception_4e/pool_proj
I0403 21:41:28.013321 12486 net.cpp:91] Creating Layer inception_4e/pool_proj
I0403 21:41:28.013344 12486 net.cpp:425] inception_4e/pool_proj <- inception_4e/pool
I0403 21:41:28.013366 12486 net.cpp:399] inception_4e/pool_proj -> inception_4e/pool_proj
I0403 21:41:28.015226 12486 net.cpp:141] Setting up inception_4e/pool_proj
I0403 21:41:28.015262 12486 net.cpp:148] Top shape: 24 128 14 14 (602112)
I0403 21:41:28.015300 12486 net.cpp:156] Memory required for data: 1254493728
I0403 21:41:28.015331 12486 layer_factory.hpp:77] Creating layer inception_4e/relu_pool_proj
I0403 21:41:28.015354 12486 net.cpp:91] Creating Layer inception_4e/relu_pool_proj
I0403 21:41:28.015375 12486 net.cpp:425] inception_4e/relu_pool_proj <- inception_4e/pool_proj
I0403 21:41:28.015396 12486 net.cpp:386] inception_4e/relu_pool_proj -> inception_4e/pool_proj (in-place)
I0403 21:41:28.015759 12486 net.cpp:141] Setting up inception_4e/relu_pool_proj
I0403 21:41:28.015794 12486 net.cpp:148] Top shape: 24 128 14 14 (602112)
I0403 21:41:28.015812 12486 net.cpp:156] Memory required for data: 1256902176
I0403 21:41:28.015833 12486 layer_factory.hpp:77] Creating layer inception_4e/output
I0403 21:41:28.015857 12486 net.cpp:91] Creating Layer inception_4e/output
I0403 21:41:28.015877 12486 net.cpp:425] inception_4e/output <- inception_4e/1x1
I0403 21:41:28.015899 12486 net.cpp:425] inception_4e/output <- inception_4e/3x3
I0403 21:41:28.015919 12486 net.cpp:425] inception_4e/output <- inception_4e/5x5
I0403 21:41:28.015939 12486 net.cpp:425] inception_4e/output <- inception_4e/pool_proj
I0403 21:41:28.015960 12486 net.cpp:399] inception_4e/output -> inception_4e/output
I0403 21:41:28.016022 12486 net.cpp:141] Setting up inception_4e/output
I0403 21:41:28.016052 12486 net.cpp:148] Top shape: 24 832 14 14 (3913728)
I0403 21:41:28.016070 12486 net.cpp:156] Memory required for data: 1272557088
I0403 21:41:28.016088 12486 layer_factory.hpp:77] Creating layer pool4/3x3_s2
I0403 21:41:28.016113 12486 net.cpp:91] Creating Layer pool4/3x3_s2
I0403 21:41:28.016134 12486 net.cpp:425] pool4/3x3_s2 <- inception_4e/output
I0403 21:41:28.016155 12486 net.cpp:399] pool4/3x3_s2 -> pool4/3x3_s2
I0403 21:41:28.016247 12486 net.cpp:141] Setting up pool4/3x3_s2
I0403 21:41:28.016278 12486 net.cpp:148] Top shape: 24 832 7 7 (978432)
I0403 21:41:28.016295 12486 net.cpp:156] Memory required for data: 1276470816
I0403 21:41:28.016314 12486 layer_factory.hpp:77] Creating layer pool4/3x3_s2_pool4/3x3_s2_0_split
I0403 21:41:28.016335 12486 net.cpp:91] Creating Layer pool4/3x3_s2_pool4/3x3_s2_0_split
I0403 21:41:28.016356 12486 net.cpp:425] pool4/3x3_s2_pool4/3x3_s2_0_split <- pool4/3x3_s2
I0403 21:41:28.016381 12486 net.cpp:399] pool4/3x3_s2_pool4/3x3_s2_0_split -> pool4/3x3_s2_pool4/3x3_s2_0_split_0
I0403 21:41:28.016408 12486 net.cpp:399] pool4/3x3_s2_pool4/3x3_s2_0_split -> pool4/3x3_s2_pool4/3x3_s2_0_split_1
I0403 21:41:28.016433 12486 net.cpp:399] pool4/3x3_s2_pool4/3x3_s2_0_split -> pool4/3x3_s2_pool4/3x3_s2_0_split_2
I0403 21:41:28.016459 12486 net.cpp:399] pool4/3x3_s2_pool4/3x3_s2_0_split -> pool4/3x3_s2_pool4/3x3_s2_0_split_3
I0403 21:41:28.016571 12486 net.cpp:141] Setting up pool4/3x3_s2_pool4/3x3_s2_0_split
I0403 21:41:28.016604 12486 net.cpp:148] Top shape: 24 832 7 7 (978432)
I0403 21:41:28.016625 12486 net.cpp:148] Top shape: 24 832 7 7 (978432)
I0403 21:41:28.016644 12486 net.cpp:148] Top shape: 24 832 7 7 (978432)
I0403 21:41:28.016664 12486 net.cpp:148] Top shape: 24 832 7 7 (978432)
I0403 21:41:28.016682 12486 net.cpp:156] Memory required for data: 1292125728
I0403 21:41:28.016700 12486 layer_factory.hpp:77] Creating layer inception_5a/1x1
I0403 21:41:28.016729 12486 net.cpp:91] Creating Layer inception_5a/1x1
I0403 21:41:28.016752 12486 net.cpp:425] inception_5a/1x1 <- pool4/3x3_s2_pool4/3x3_s2_0_split_0
I0403 21:41:28.016775 12486 net.cpp:399] inception_5a/1x1 -> inception_5a/1x1
I0403 21:41:28.020308 12486 net.cpp:141] Setting up inception_5a/1x1
I0403 21:41:28.020344 12486 net.cpp:148] Top shape: 24 256 7 7 (301056)
I0403 21:41:28.020364 12486 net.cpp:156] Memory required for data: 1293329952
I0403 21:41:28.020387 12486 layer_factory.hpp:77] Creating layer inception_5a/relu_1x1
I0403 21:41:28.020411 12486 net.cpp:91] Creating Layer inception_5a/relu_1x1
I0403 21:41:28.020432 12486 net.cpp:425] inception_5a/relu_1x1 <- inception_5a/1x1
I0403 21:41:28.020457 12486 net.cpp:386] inception_5a/relu_1x1 -> inception_5a/1x1 (in-place)
I0403 21:41:28.020933 12486 net.cpp:141] Setting up inception_5a/relu_1x1
I0403 21:41:28.020967 12486 net.cpp:148] Top shape: 24 256 7 7 (301056)
I0403 21:41:28.020987 12486 net.cpp:156] Memory required for data: 1294534176
I0403 21:41:28.021008 12486 layer_factory.hpp:77] Creating layer inception_5a/3x3_reduce
I0403 21:41:28.021035 12486 net.cpp:91] Creating Layer inception_5a/3x3_reduce
I0403 21:41:28.021059 12486 net.cpp:425] inception_5a/3x3_reduce <- pool4/3x3_s2_pool4/3x3_s2_0_split_1
I0403 21:41:28.021086 12486 net.cpp:399] inception_5a/3x3_reduce -> inception_5a/3x3_reduce
I0403 21:41:28.024176 12486 net.cpp:141] Setting up inception_5a/3x3_reduce
I0403 21:41:28.024219 12486 net.cpp:148] Top shape: 24 160 7 7 (188160)
I0403 21:41:28.024238 12486 net.cpp:156] Memory required for data: 1295286816
I0403 21:41:28.024261 12486 layer_factory.hpp:77] Creating layer inception_5a/relu_3x3_reduce
I0403 21:41:28.024287 12486 net.cpp:91] Creating Layer inception_5a/relu_3x3_reduce
I0403 21:41:28.024309 12486 net.cpp:425] inception_5a/relu_3x3_reduce <- inception_5a/3x3_reduce
I0403 21:41:28.024332 12486 net.cpp:386] inception_5a/relu_3x3_reduce -> inception_5a/3x3_reduce (in-place)
I0403 21:41:28.024564 12486 net.cpp:141] Setting up inception_5a/relu_3x3_reduce
I0403 21:41:28.024598 12486 net.cpp:148] Top shape: 24 160 7 7 (188160)
I0403 21:41:28.024618 12486 net.cpp:156] Memory required for data: 1296039456
I0403 21:41:28.024637 12486 layer_factory.hpp:77] Creating layer inception_5a/3x3
I0403 21:41:28.024665 12486 net.cpp:91] Creating Layer inception_5a/3x3
I0403 21:41:28.024689 12486 net.cpp:425] inception_5a/3x3 <- inception_5a/3x3_reduce
I0403 21:41:28.024715 12486 net.cpp:399] inception_5a/3x3 -> inception_5a/3x3
I0403 21:41:28.031034 12486 net.cpp:141] Setting up inception_5a/3x3
I0403 21:41:28.031075 12486 net.cpp:148] Top shape: 24 320 7 7 (376320)
I0403 21:41:28.031096 12486 net.cpp:156] Memory required for data: 1297544736
I0403 21:41:28.031121 12486 layer_factory.hpp:77] Creating layer inception_5a/relu_3x3
I0403 21:41:28.031143 12486 net.cpp:91] Creating Layer inception_5a/relu_3x3
I0403 21:41:28.031165 12486 net.cpp:425] inception_5a/relu_3x3 <- inception_5a/3x3
I0403 21:41:28.031198 12486 net.cpp:386] inception_5a/relu_3x3 -> inception_5a/3x3 (in-place)
I0403 21:41:28.031564 12486 net.cpp:141] Setting up inception_5a/relu_3x3
I0403 21:41:28.031601 12486 net.cpp:148] Top shape: 24 320 7 7 (376320)
I0403 21:41:28.031621 12486 net.cpp:156] Memory required for data: 1299050016
I0403 21:41:28.031641 12486 layer_factory.hpp:77] Creating layer inception_5a/5x5_reduce
I0403 21:41:28.031671 12486 net.cpp:91] Creating Layer inception_5a/5x5_reduce
I0403 21:41:28.031693 12486 net.cpp:425] inception_5a/5x5_reduce <- pool4/3x3_s2_pool4/3x3_s2_0_split_2
I0403 21:41:28.031718 12486 net.cpp:399] inception_5a/5x5_reduce -> inception_5a/5x5_reduce
I0403 21:41:28.033188 12486 net.cpp:141] Setting up inception_5a/5x5_reduce
I0403 21:41:28.033226 12486 net.cpp:148] Top shape: 24 32 7 7 (37632)
I0403 21:41:28.033244 12486 net.cpp:156] Memory required for data: 1299200544
I0403 21:41:28.033269 12486 layer_factory.hpp:77] Creating layer inception_5a/relu_5x5_reduce
I0403 21:41:28.033291 12486 net.cpp:91] Creating Layer inception_5a/relu_5x5_reduce
I0403 21:41:28.033311 12486 net.cpp:425] inception_5a/relu_5x5_reduce <- inception_5a/5x5_reduce
I0403 21:41:28.033336 12486 net.cpp:386] inception_5a/relu_5x5_reduce -> inception_5a/5x5_reduce (in-place)
I0403 21:41:28.033704 12486 net.cpp:141] Setting up inception_5a/relu_5x5_reduce
I0403 21:41:28.033735 12486 net.cpp:148] Top shape: 24 32 7 7 (37632)
I0403 21:41:28.033754 12486 net.cpp:156] Memory required for data: 1299351072
I0403 21:41:28.033774 12486 layer_factory.hpp:77] Creating layer inception_5a/5x5
I0403 21:41:28.033803 12486 net.cpp:91] Creating Layer inception_5a/5x5
I0403 21:41:28.033826 12486 net.cpp:425] inception_5a/5x5 <- inception_5a/5x5_reduce
I0403 21:41:28.033854 12486 net.cpp:399] inception_5a/5x5 -> inception_5a/5x5
I0403 21:41:28.035969 12486 net.cpp:141] Setting up inception_5a/5x5
I0403 21:41:28.036021 12486 net.cpp:148] Top shape: 24 128 7 7 (150528)
I0403 21:41:28.036047 12486 net.cpp:156] Memory required for data: 1299953184
I0403 21:41:28.036072 12486 layer_factory.hpp:77] Creating layer inception_5a/relu_5x5
I0403 21:41:28.036095 12486 net.cpp:91] Creating Layer inception_5a/relu_5x5
I0403 21:41:28.036115 12486 net.cpp:425] inception_5a/relu_5x5 <- inception_5a/5x5
I0403 21:41:28.036139 12486 net.cpp:386] inception_5a/relu_5x5 -> inception_5a/5x5 (in-place)
I0403 21:41:28.036383 12486 net.cpp:141] Setting up inception_5a/relu_5x5
I0403 21:41:28.036415 12486 net.cpp:148] Top shape: 24 128 7 7 (150528)
I0403 21:41:28.036434 12486 net.cpp:156] Memory required for data: 1300555296
I0403 21:41:28.036453 12486 layer_factory.hpp:77] Creating layer inception_5a/pool
I0403 21:41:28.036476 12486 net.cpp:91] Creating Layer inception_5a/pool
I0403 21:41:28.036496 12486 net.cpp:425] inception_5a/pool <- pool4/3x3_s2_pool4/3x3_s2_0_split_3
I0403 21:41:28.036522 12486 net.cpp:399] inception_5a/pool -> inception_5a/pool
I0403 21:41:28.036610 12486 net.cpp:141] Setting up inception_5a/pool
I0403 21:41:28.036640 12486 net.cpp:148] Top shape: 24 832 7 7 (978432)
I0403 21:41:28.036659 12486 net.cpp:156] Memory required for data: 1304469024
I0403 21:41:28.036679 12486 layer_factory.hpp:77] Creating layer inception_5a/pool_proj
I0403 21:41:28.036707 12486 net.cpp:91] Creating Layer inception_5a/pool_proj
I0403 21:41:28.036730 12486 net.cpp:425] inception_5a/pool_proj <- inception_5a/pool
I0403 21:41:28.036752 12486 net.cpp:399] inception_5a/pool_proj -> inception_5a/pool_proj
I0403 21:41:28.039574 12486 net.cpp:141] Setting up inception_5a/pool_proj
I0403 21:41:28.039615 12486 net.cpp:148] Top shape: 24 128 7 7 (150528)
I0403 21:41:28.039636 12486 net.cpp:156] Memory required for data: 1305071136
I0403 21:41:28.039660 12486 layer_factory.hpp:77] Creating layer inception_5a/relu_pool_proj
I0403 21:41:28.039683 12486 net.cpp:91] Creating Layer inception_5a/relu_pool_proj
I0403 21:41:28.039703 12486 net.cpp:425] inception_5a/relu_pool_proj <- inception_5a/pool_proj
I0403 21:41:28.039726 12486 net.cpp:386] inception_5a/relu_pool_proj -> inception_5a/pool_proj (in-place)
I0403 21:41:28.040082 12486 net.cpp:141] Setting up inception_5a/relu_pool_proj
I0403 21:41:28.040118 12486 net.cpp:148] Top shape: 24 128 7 7 (150528)
I0403 21:41:28.040138 12486 net.cpp:156] Memory required for data: 1305673248
I0403 21:41:28.040158 12486 layer_factory.hpp:77] Creating layer inception_5a/output
I0403 21:41:28.040184 12486 net.cpp:91] Creating Layer inception_5a/output
I0403 21:41:28.040207 12486 net.cpp:425] inception_5a/output <- inception_5a/1x1
I0403 21:41:28.040230 12486 net.cpp:425] inception_5a/output <- inception_5a/3x3
I0403 21:41:28.040251 12486 net.cpp:425] inception_5a/output <- inception_5a/5x5
I0403 21:41:28.040271 12486 net.cpp:425] inception_5a/output <- inception_5a/pool_proj
I0403 21:41:28.040292 12486 net.cpp:399] inception_5a/output -> inception_5a/output
I0403 21:41:28.040355 12486 net.cpp:141] Setting up inception_5a/output
I0403 21:41:28.040385 12486 net.cpp:148] Top shape: 24 832 7 7 (978432)
I0403 21:41:28.040403 12486 net.cpp:156] Memory required for data: 1309586976
I0403 21:41:28.040424 12486 layer_factory.hpp:77] Creating layer inception_5a/output_inception_5a/output_0_split
I0403 21:41:28.040448 12486 net.cpp:91] Creating Layer inception_5a/output_inception_5a/output_0_split
I0403 21:41:28.040468 12486 net.cpp:425] inception_5a/output_inception_5a/output_0_split <- inception_5a/output
I0403 21:41:28.040490 12486 net.cpp:399] inception_5a/output_inception_5a/output_0_split -> inception_5a/output_inception_5a/output_0_split_0
I0403 21:41:28.040515 12486 net.cpp:399] inception_5a/output_inception_5a/output_0_split -> inception_5a/output_inception_5a/output_0_split_1
I0403 21:41:28.040542 12486 net.cpp:399] inception_5a/output_inception_5a/output_0_split -> inception_5a/output_inception_5a/output_0_split_2
I0403 21:41:28.040567 12486 net.cpp:399] inception_5a/output_inception_5a/output_0_split -> inception_5a/output_inception_5a/output_0_split_3
I0403 21:41:28.040707 12486 net.cpp:141] Setting up inception_5a/output_inception_5a/output_0_split
I0403 21:41:28.040736 12486 net.cpp:148] Top shape: 24 832 7 7 (978432)
I0403 21:41:28.040755 12486 net.cpp:148] Top shape: 24 832 7 7 (978432)
I0403 21:41:28.040776 12486 net.cpp:148] Top shape: 24 832 7 7 (978432)
I0403 21:41:28.040796 12486 net.cpp:148] Top shape: 24 832 7 7 (978432)
I0403 21:41:28.040813 12486 net.cpp:156] Memory required for data: 1325241888
I0403 21:41:28.040832 12486 layer_factory.hpp:77] Creating layer inception_5b/1x1
I0403 21:41:28.040859 12486 net.cpp:91] Creating Layer inception_5b/1x1
I0403 21:41:28.040882 12486 net.cpp:425] inception_5b/1x1 <- inception_5a/output_inception_5a/output_0_split_0
I0403 21:41:28.040910 12486 net.cpp:399] inception_5b/1x1 -> inception_5b/1x1
I0403 21:41:28.045563 12486 net.cpp:141] Setting up inception_5b/1x1
I0403 21:41:28.045603 12486 net.cpp:148] Top shape: 24 384 7 7 (451584)
I0403 21:41:28.045622 12486 net.cpp:156] Memory required for data: 1327048224
I0403 21:41:28.045645 12486 layer_factory.hpp:77] Creating layer inception_5b/relu_1x1
I0403 21:41:28.045672 12486 net.cpp:91] Creating Layer inception_5b/relu_1x1
I0403 21:41:28.045693 12486 net.cpp:425] inception_5b/relu_1x1 <- inception_5b/1x1
I0403 21:41:28.045717 12486 net.cpp:386] inception_5b/relu_1x1 -> inception_5b/1x1 (in-place)
I0403 21:41:28.046092 12486 net.cpp:141] Setting up inception_5b/relu_1x1
I0403 21:41:28.046123 12486 net.cpp:148] Top shape: 24 384 7 7 (451584)
I0403 21:41:28.046144 12486 net.cpp:156] Memory required for data: 1328854560
I0403 21:41:28.046162 12486 layer_factory.hpp:77] Creating layer inception_5b/3x3_reduce
I0403 21:41:28.046200 12486 net.cpp:91] Creating Layer inception_5b/3x3_reduce
I0403 21:41:28.046226 12486 net.cpp:425] inception_5b/3x3_reduce <- inception_5a/output_inception_5a/output_0_split_1
I0403 21:41:28.046250 12486 net.cpp:399] inception_5b/3x3_reduce -> inception_5b/3x3_reduce
I0403 21:41:28.049542 12486 net.cpp:141] Setting up inception_5b/3x3_reduce
I0403 21:41:28.049582 12486 net.cpp:148] Top shape: 24 192 7 7 (225792)
I0403 21:41:28.049603 12486 net.cpp:156] Memory required for data: 1329757728
I0403 21:41:28.049628 12486 layer_factory.hpp:77] Creating layer inception_5b/relu_3x3_reduce
I0403 21:41:28.049650 12486 net.cpp:91] Creating Layer inception_5b/relu_3x3_reduce
I0403 21:41:28.049671 12486 net.cpp:425] inception_5b/relu_3x3_reduce <- inception_5b/3x3_reduce
I0403 21:41:28.049693 12486 net.cpp:386] inception_5b/relu_3x3_reduce -> inception_5b/3x3_reduce (in-place)
I0403 21:41:28.049935 12486 net.cpp:141] Setting up inception_5b/relu_3x3_reduce
I0403 21:41:28.049969 12486 net.cpp:148] Top shape: 24 192 7 7 (225792)
I0403 21:41:28.049989 12486 net.cpp:156] Memory required for data: 1330660896
I0403 21:41:28.050009 12486 layer_factory.hpp:77] Creating layer inception_5b/3x3
I0403 21:41:28.050036 12486 net.cpp:91] Creating Layer inception_5b/3x3
I0403 21:41:28.050058 12486 net.cpp:425] inception_5b/3x3 <- inception_5b/3x3_reduce
I0403 21:41:28.050086 12486 net.cpp:399] inception_5b/3x3 -> inception_5b/3x3
I0403 21:41:28.058527 12486 net.cpp:141] Setting up inception_5b/3x3
I0403 21:41:28.058568 12486 net.cpp:148] Top shape: 24 384 7 7 (451584)
I0403 21:41:28.058589 12486 net.cpp:156] Memory required for data: 1332467232
I0403 21:41:28.058614 12486 layer_factory.hpp:77] Creating layer inception_5b/relu_3x3
I0403 21:41:28.058637 12486 net.cpp:91] Creating Layer inception_5b/relu_3x3
I0403 21:41:28.058658 12486 net.cpp:425] inception_5b/relu_3x3 <- inception_5b/3x3
I0403 21:41:28.058681 12486 net.cpp:386] inception_5b/relu_3x3 -> inception_5b/3x3 (in-place)
I0403 21:41:28.059042 12486 net.cpp:141] Setting up inception_5b/relu_3x3
I0403 21:41:28.059079 12486 net.cpp:148] Top shape: 24 384 7 7 (451584)
I0403 21:41:28.059100 12486 net.cpp:156] Memory required for data: 1334273568
I0403 21:41:28.059119 12486 layer_factory.hpp:77] Creating layer inception_5b/5x5_reduce
I0403 21:41:28.059168 12486 net.cpp:91] Creating Layer inception_5b/5x5_reduce
I0403 21:41:28.059201 12486 net.cpp:425] inception_5b/5x5_reduce <- inception_5a/output_inception_5a/output_0_split_2
I0403 21:41:28.059226 12486 net.cpp:399] inception_5b/5x5_reduce -> inception_5b/5x5_reduce
I0403 21:41:28.060806 12486 net.cpp:141] Setting up inception_5b/5x5_reduce
I0403 21:41:28.060839 12486 net.cpp:148] Top shape: 24 48 7 7 (56448)
I0403 21:41:28.060859 12486 net.cpp:156] Memory required for data: 1334499360
I0403 21:41:28.060883 12486 layer_factory.hpp:77] Creating layer inception_5b/relu_5x5_reduce
I0403 21:41:28.060907 12486 net.cpp:91] Creating Layer inception_5b/relu_5x5_reduce
I0403 21:41:28.060930 12486 net.cpp:425] inception_5b/relu_5x5_reduce <- inception_5b/5x5_reduce
I0403 21:41:28.060951 12486 net.cpp:386] inception_5b/relu_5x5_reduce -> inception_5b/5x5_reduce (in-place)
I0403 21:41:28.061422 12486 net.cpp:141] Setting up inception_5b/relu_5x5_reduce
I0403 21:41:28.061456 12486 net.cpp:148] Top shape: 24 48 7 7 (56448)
I0403 21:41:28.061476 12486 net.cpp:156] Memory required for data: 1334725152
I0403 21:41:28.061496 12486 layer_factory.hpp:77] Creating layer inception_5b/5x5
I0403 21:41:28.061522 12486 net.cpp:91] Creating Layer inception_5b/5x5
I0403 21:41:28.061542 12486 net.cpp:425] inception_5b/5x5 <- inception_5b/5x5_reduce
I0403 21:41:28.061565 12486 net.cpp:399] inception_5b/5x5 -> inception_5b/5x5
I0403 21:41:28.064105 12486 net.cpp:141] Setting up inception_5b/5x5
I0403 21:41:28.064141 12486 net.cpp:148] Top shape: 24 128 7 7 (150528)
I0403 21:41:28.064160 12486 net.cpp:156] Memory required for data: 1335327264
I0403 21:41:28.064188 12486 layer_factory.hpp:77] Creating layer inception_5b/relu_5x5
I0403 21:41:28.064214 12486 net.cpp:91] Creating Layer inception_5b/relu_5x5
I0403 21:41:28.064235 12486 net.cpp:425] inception_5b/relu_5x5 <- inception_5b/5x5
I0403 21:41:28.064260 12486 net.cpp:386] inception_5b/relu_5x5 -> inception_5b/5x5 (in-place)
I0403 21:41:28.064504 12486 net.cpp:141] Setting up inception_5b/relu_5x5
I0403 21:41:28.064535 12486 net.cpp:148] Top shape: 24 128 7 7 (150528)
I0403 21:41:28.064554 12486 net.cpp:156] Memory required for data: 1335929376
I0403 21:41:28.064573 12486 layer_factory.hpp:77] Creating layer inception_5b/pool
I0403 21:41:28.064599 12486 net.cpp:91] Creating Layer inception_5b/pool
I0403 21:41:28.064620 12486 net.cpp:425] inception_5b/pool <- inception_5a/output_inception_5a/output_0_split_3
I0403 21:41:28.064643 12486 net.cpp:399] inception_5b/pool -> inception_5b/pool
I0403 21:41:28.064734 12486 net.cpp:141] Setting up inception_5b/pool
I0403 21:41:28.064765 12486 net.cpp:148] Top shape: 24 832 7 7 (978432)
I0403 21:41:28.064784 12486 net.cpp:156] Memory required for data: 1339843104
I0403 21:41:28.064801 12486 layer_factory.hpp:77] Creating layer inception_5b/pool_proj
I0403 21:41:28.064829 12486 net.cpp:91] Creating Layer inception_5b/pool_proj
I0403 21:41:28.064852 12486 net.cpp:425] inception_5b/pool_proj <- inception_5b/pool
I0403 21:41:28.064878 12486 net.cpp:399] inception_5b/pool_proj -> inception_5b/pool_proj
I0403 21:41:28.067735 12486 net.cpp:141] Setting up inception_5b/pool_proj
I0403 21:41:28.067775 12486 net.cpp:148] Top shape: 24 128 7 7 (150528)
I0403 21:41:28.067796 12486 net.cpp:156] Memory required for data: 1340445216
I0403 21:41:28.067819 12486 layer_factory.hpp:77] Creating layer inception_5b/relu_pool_proj
I0403 21:41:28.067843 12486 net.cpp:91] Creating Layer inception_5b/relu_pool_proj
I0403 21:41:28.067867 12486 net.cpp:425] inception_5b/relu_pool_proj <- inception_5b/pool_proj
I0403 21:41:28.067890 12486 net.cpp:386] inception_5b/relu_pool_proj -> inception_5b/pool_proj (in-place)
I0403 21:41:28.068258 12486 net.cpp:141] Setting up inception_5b/relu_pool_proj
I0403 21:41:28.068295 12486 net.cpp:148] Top shape: 24 128 7 7 (150528)
I0403 21:41:28.068315 12486 net.cpp:156] Memory required for data: 1341047328
I0403 21:41:28.068334 12486 layer_factory.hpp:77] Creating layer inception_5b/output
I0403 21:41:28.068356 12486 net.cpp:91] Creating Layer inception_5b/output
I0403 21:41:28.068394 12486 net.cpp:425] inception_5b/output <- inception_5b/1x1
I0403 21:41:28.068418 12486 net.cpp:425] inception_5b/output <- inception_5b/3x3
I0403 21:41:28.068438 12486 net.cpp:425] inception_5b/output <- inception_5b/5x5
I0403 21:41:28.068457 12486 net.cpp:425] inception_5b/output <- inception_5b/pool_proj
I0403 21:41:28.068480 12486 net.cpp:399] inception_5b/output -> inception_5b/output
I0403 21:41:28.068548 12486 net.cpp:141] Setting up inception_5b/output
I0403 21:41:28.068578 12486 net.cpp:148] Top shape: 24 1024 7 7 (1204224)
I0403 21:41:28.068598 12486 net.cpp:156] Memory required for data: 1345864224
I0403 21:41:28.068615 12486 layer_factory.hpp:77] Creating layer pool5/7x7_s1
I0403 21:41:28.068644 12486 net.cpp:91] Creating Layer pool5/7x7_s1
I0403 21:41:28.068665 12486 net.cpp:425] pool5/7x7_s1 <- inception_5b/output
I0403 21:41:28.068687 12486 net.cpp:399] pool5/7x7_s1 -> pool5/7x7_s1
I0403 21:41:28.068956 12486 net.cpp:141] Setting up pool5/7x7_s1
I0403 21:41:28.068991 12486 net.cpp:148] Top shape: 24 1024 1 1 (24576)
I0403 21:41:28.069012 12486 net.cpp:156] Memory required for data: 1345962528
I0403 21:41:28.069031 12486 layer_factory.hpp:77] Creating layer pool5/drop_7x7_s1
I0403 21:41:28.069054 12486 net.cpp:91] Creating Layer pool5/drop_7x7_s1
I0403 21:41:28.069073 12486 net.cpp:425] pool5/drop_7x7_s1 <- pool5/7x7_s1
I0403 21:41:28.069103 12486 net.cpp:386] pool5/drop_7x7_s1 -> pool5/7x7_s1 (in-place)
I0403 21:41:28.069166 12486 net.cpp:141] Setting up pool5/drop_7x7_s1
I0403 21:41:28.069201 12486 net.cpp:148] Top shape: 24 1024 1 1 (24576)
I0403 21:41:28.069219 12486 net.cpp:156] Memory required for data: 1346060832
I0403 21:41:28.069238 12486 layer_factory.hpp:77] Creating layer loss3/classifier_plantvillage
I0403 21:41:28.069267 12486 net.cpp:91] Creating Layer loss3/classifier_plantvillage
I0403 21:41:28.069288 12486 net.cpp:425] loss3/classifier_plantvillage <- pool5/7x7_s1
I0403 21:41:28.069314 12486 net.cpp:399] loss3/classifier_plantvillage -> loss3/classifier_plantvillage
I0403 21:41:28.069839 12486 net.cpp:141] Setting up loss3/classifier_plantvillage
I0403 21:41:28.069871 12486 net.cpp:148] Top shape: 24 38 (912)
I0403 21:41:28.069890 12486 net.cpp:156] Memory required for data: 1346064480
I0403 21:41:28.069913 12486 layer_factory.hpp:77] Creating layer loss3/classifier_plantvillage_loss3/classifier_plantvillage_0_split
I0403 21:41:28.069941 12486 net.cpp:91] Creating Layer loss3/classifier_plantvillage_loss3/classifier_plantvillage_0_split
I0403 21:41:28.069962 12486 net.cpp:425] loss3/classifier_plantvillage_loss3/classifier_plantvillage_0_split <- loss3/classifier_plantvillage
I0403 21:41:28.069985 12486 net.cpp:399] loss3/classifier_plantvillage_loss3/classifier_plantvillage_0_split -> loss3/classifier_plantvillage_loss3/classifier_plantvillage_0_split_0
I0403 21:41:28.070010 12486 net.cpp:399] loss3/classifier_plantvillage_loss3/classifier_plantvillage_0_split -> loss3/classifier_plantvillage_loss3/classifier_plantvillage_0_split_1
I0403 21:41:28.070035 12486 net.cpp:399] loss3/classifier_plantvillage_loss3/classifier_plantvillage_0_split -> loss3/classifier_plantvillage_loss3/classifier_plantvillage_0_split_2
I0403 21:41:28.070062 12486 net.cpp:399] loss3/classifier_plantvillage_loss3/classifier_plantvillage_0_split -> loss3/classifier_plantvillage_loss3/classifier_plantvillage_0_split_3
I0403 21:41:28.070195 12486 net.cpp:141] Setting up loss3/classifier_plantvillage_loss3/classifier_plantvillage_0_split
I0403 21:41:28.070225 12486 net.cpp:148] Top shape: 24 38 (912)
I0403 21:41:28.070245 12486 net.cpp:148] Top shape: 24 38 (912)
I0403 21:41:28.070266 12486 net.cpp:148] Top shape: 24 38 (912)
I0403 21:41:28.070286 12486 net.cpp:148] Top shape: 24 38 (912)
I0403 21:41:28.070303 12486 net.cpp:156] Memory required for data: 1346079072
I0403 21:41:28.070322 12486 layer_factory.hpp:77] Creating layer loss1/loss
I0403 21:41:28.070350 12486 net.cpp:91] Creating Layer loss1/loss
I0403 21:41:28.070371 12486 net.cpp:425] loss1/loss <- loss1/classifier_plantvillage_loss1/classifier_plantvillage_0_split_0
I0403 21:41:28.070410 12486 net.cpp:425] loss1/loss <- label_data_1_split_0
…
