…
I0403 21:51:24.312525 13064 net.cpp:313] The NetState phase (1) differed from the phase (0) specified by a rule in layer data
I0403 21:51:24.313616 13064 net.cpp:49] Initializing net from parameters: 
state {
  phase: TEST
}
layer {
  name: "data"
  type: "Data"
  top: "data"
  top: "label"
  include {
    phase: TEST
  }
  transform_param {
    mirror: false
    crop_size: 224
    mean_file: "/home/mohanty/data/final_dataset/lmdb/color-80-20/mean.binaryproto"
  }
  data_param {
    source: "/home/mohanty/data/final_dataset/lmdb/color-80-20/test_db"
    batch_size: 24
    backend: LMDB
  }
}
layer {
  name: "conv1/7x7_s2"
  type: "Convolution"
  bottom: "data"
  top: "conv1/7x7_s2"
  param {
    lr_mult: 1
    decay_mult: 1
  }
  param {
    lr_mult: 2
    decay_mult: 0
  }
  convolution_param {
    num_output: 64
    pad: 3
    kernel_size: 7
    stride: 2
    weight_filler {
      type: "xavier"
      std: 0.1
    }
    bias_filler {
      type: "constant"
      value: 0.2
    }
  }
}
layer {
  name: "conv1/relu_7x7"
  type: "ReLU"
  bottom: "conv1/7x7_s2"
  top: "conv1/7x7_s2"
}
layer {
  name: "pool1/3x3_s2"
  type: "Pooling"
  bottom: "conv1/7x7_s2"
  top: "pool1/3x3_s2"
  pooling_param {
    pool: MAX
    kernel_size: 3
    stride: 2
  }
}
layer {
  name: "pool1/norm1"
  type: "LRN"
  bottom: "pool1/3x3_s2"
  top: "pool1/norm1"
  lrn_param {
    local_size: 5
    alpha: 0.0001
    beta: 0.75
  }
}
layer {
  name: "conv2/3x3_reduce"
  type: "Convolution"
  bottom: "pool1/norm1"
  top: "conv2/3x3_reduce"
  param {
    lr_mult: 1
    decay_mult: 1
  }
  param {
    lr_mult: 2
    decay_mult: 0
  }
  convolution_param {
    num_output: 64
    kernel_size: 1
    weight_filler {
      type: "xavier"
      std: 0.1
    }
    bias_filler {
      type: "constant"
      value: 0.2
    }
  }
}
layer {
  name: "conv2/relu_3x3_reduce"
  type: "ReLU"
  bottom: "conv2/3x3_reduce"
  top: "conv2/3x3_reduce"
}
layer {
  name: "conv2/3x3"
  type: "Convolution"
  bottom: "conv2/3x3_reduce"
  top: "conv2/3x3"
  param {
    lr_mult: 1
    decay_mult: 1
  }
  param {
    lr_mult: 2
    decay_mult: 0
  }
  convolution_param {
    num_output: 192
    pad: 1
    kernel_size: 3
    weight_filler {
      type: "xavier"
      std: 0.03
    }
    bias_filler {
      type: "constant"
      value: 0.2
    }
  }
}
layer {
  name: "conv2/relu_3x3"
  type: "ReLU"
  bottom: "conv2/3x3"
  top: "conv2/3x3"
}
layer {
  name: "conv2/norm2"
  type: "LRN"
  bottom: "conv2/3x3"
  top: "conv2/norm2"
  lrn_param {
    local_size: 5
    alpha: 0.0001
    beta: 0.75
  }
}
layer {
  name: "pool2/3x3_s2"
  type: "Pooling"
  bottom: "conv2/norm2"
  top: "pool2/3x3_s2"
  pooling_param {
    pool: MAX
    kernel_size: 3
    stride: 2
  }
}
layer {
  name: "inception_3a/1x1"
  type: "Convolution"
  bottom: "pool2/3x3_s2"
  top: "inception_3a/1x1"
  param {
    lr_mult: 1
    decay_mult: 1
  }
  param {
    lr_mult: 2
    decay_mult: 0
  }
  convolution_param {
    num_output: 64
    kernel_size: 1
    weight_filler {
      type: "xavier"
      std: 0.03
    }
    bias_filler {
      type: "constant"
      value: 0.2
    }
  }
}
layer {
  name: "inception_3a/relu_1x1"
  type: "ReLU"
  bottom: "inception_3a/1x1"
  top: "inception_3a/1x1"
}
layer {
  name: "inception_3a/3x3_reduce"
  type: "Convolution"
  bottom: "pool2/3x3_s2"
  top: "inception_3a/3x3_reduce"
  param {
    lr_mult: 1
    decay_mult: 1
  }
  param {
    lr_mult: 2
    decay_mult: 0
  }
  convolution_param {
    num_output: 96
    kernel_size: 1
    weight_filler {
      type: "xavier"
      std: 0.09
    }
    bias_filler {
      type: "constant"
      value: 0.2
    }
  }
}
layer {
  name: "inception_3a/relu_3x3_reduce"
  type: "ReLU"
  bottom: "inception_3a/3x3_reduce"
  top: "inception_3a/3x3_reduce"
}
layer {
  name: "inception_3a/3x3"
  type: "Convolution"
  bottom: "inception_3a/3x3_reduce"
  top: "inception_3a/3x3"
  param {
    lr_mult: 1
    decay_mult: 1
  }
  param {
    lr_mult: 2
    decay_mult: 0
  }
  convolution_param {
    num_output: 128
    pad: 1
    kernel_size: 3
    weight_filler {
      type: "xavier"
      std: 0.03
    }
    bias_filler {
      type: "constant"
      value: 0.2
    }
  }
}
layer {
  name: "inception_3a/relu_3x3"
  type: "ReLU"
  bottom: "inception_3a/3x3"
  top: "inception_3a/3x3"
}
layer {
  name: "inception_3a/5x5_reduce"
  type: "Convolution"
  bottom: "pool2/3x3_s2"
  top: "inception_3a/5x5_reduce"
  param {
    lr_mult: 1
    decay_mult: 1
  }
  param {
    lr_mult: 2
    decay_mult: 0
  }
  convolution_param {
    num_output: 16
    kernel_size: 1
    weight_filler {
      type: "xavier"
      std: 0.2
    }
    bias_filler {
      type: "constant"
      value: 0.2
    }
  }
}
layer {
  name: "inception_3a/relu_5x5_reduce"
  type: "ReLU"
  bottom: "inception_3a/5x5_reduce"
  top: "inception_3a/5x5_reduce"
}
layer {
  name: "inception_3a/5x5"
  type: "Convolution"
  bottom: "inception_3a/5x5_reduce"
  top: "inception_3a/5x5"
  param {
    lr_mult: 1
    decay_mult: 1
  }
  param {
    lr_mult: 2
    decay_mult: 0
  }
  convolution_param {
    num_output: 32
    pad: 2
    kernel_size: 5
    weight_filler {
      type: "xavier"
      std: 0.03
    }
    bias_filler {
      type: "constant"
      value: 0.2
    }
  }
}
layer {
  name: "inception_3a/relu_5x5"
  type: "ReLU"
  bottom: "inception_3a/5x5"
  top: "inception_3a/5x5"
}
layer {
  name: "inception_3a/pool"
  type: "Pooling"
  bottom: "pool2/3x3_s2"
  top: "inception_3a/pool"
  pooling_param {
    pool: MAX
    kernel_size: 3
    stride: 1
    pad: 1
  }
}
layer {
  name: "inception_3a/pool_proj"
  type: "Convolution"
  bottom: "inception_3a/pool"
  top: "inception_3a/pool_proj"
  param {
    lr_mult: 1
    decay_mult: 1
  }
  param {
    lr_mult: 2
    decay_mult: 0
  }
  convolution_param {
    num_output: 32
    kernel_size: 1
    weight_filler {
      type: "xavier"
      std: 0.1
    }
    bias_filler {
      type: "constant"
      value: 0.2
    }
  }
}
layer {
  name: "inception_3a/relu_pool_proj"
  type: "ReLU"
  bottom: "inception_3a/pool_proj"
  top: "inception_3a/pool_proj"
}
layer {
  name: "inception_3a/output"
  type: "Concat"
  bottom: "inception_3a/1x1"
  bottom: "inception_3a/3x3"
  bottom: "inception_3a/5x5"
  bottom: "inception_3a/pool_proj"
  top: "inception_3a/output"
}
layer {
  name: "inception_3b/1x1"
  type: "Convolution"
  bottom: "inception_3a/output"
  top: "inception_3b/1x1"
  param {
    lr_mult: 1
    decay_mult: 1
  }
  param {
    lr_mult: 2
    decay_mult: 0
  }
  convolution_param {
    num_output: 128
    kernel_size: 1
    weight_filler {
      type: "xavier"
      std: 0.03
    }
    bias_filler {
      type: "constant"
      value: 0.2
    }
  }
}
layer {
  name: "inception_3b/relu_1x1"
  type: "ReLU"
  bottom: "inception_3b/1x1"
  top: "inception_3b/1x1"
}
layer {
  name: "inception_3b/3x3_reduce"
  type: "Convolution"
  bottom: "inception_3a/output"
  top: "inception_3b/3x3_reduce"
  param {
    lr_mult: 1
    decay_mult: 1
  }
  param {
    lr_mult: 2
    decay_mult: 0
  }
  convolution_param {
    num_output: 128
    kernel_size: 1
    weight_filler {
      type: "xavier"
      std: 0.09
    }
    bias_filler {
      type: "constant"
      value: 0.2
    }
  }
}
layer {
  name: "inception_3b/relu_3x3_reduce"
  type: "ReLU"
  bottom: "inception_3b/3x3_reduce"
  top: "inception_3b/3x3_reduce"
}
layer {
  name: "inception_3b/3x3"
  type: "Convolution"
  bottom: "inception_3b/3x3_reduce"
  top: "inception_3b/3x3"
  param {
    lr_mult: 1
    decay_mult: 1
  }
  param {
    lr_mult: 2
    decay_mult: 0
  }
  convolution_param {
    num_output: 192
    pad: 1
    kernel_size: 3
    weight_filler {
      type: "xavier"
      std: 0.03
    }
    bias_filler {
      type: "constant"
      value: 0.2
    }
  }
}
layer {
  name: "inception_3b/relu_3x3"
  type: "ReLU"
  bottom: "inception_3b/3x3"
  top: "inception_3b/3x3"
}
layer {
  name: "inception_3b/5x5_reduce"
  type: "Convolution"
  bottom: "inception_3a/output"
  top: "inception_3b/5x5_reduce"
  param {
    lr_mult: 1
    decay_mult: 1
  }
  param {
    lr_mult: 2
    decay_mult: 0
  }
  convolution_param {
    num_output: 32
    kernel_size: 1
    weight_filler {
      type: "xavier"
      std: 0.2
    }
    bias_filler {
      type: "constant"
      value: 0.2
    }
  }
}
layer {
  name: "inception_3b/relu_5x5_reduce"
  type: "ReLU"
  bottom: "inception_3b/5x5_reduce"
  top: "inception_3b/5x5_reduce"
}
layer {
  name: "inception_3b/5x5"
  type: "Convolution"
  bottom: "inception_3b/5x5_reduce"
  top: "inception_3b/5x5"
  param {
    lr_mult: 1
    decay_mult: 1
  }
  param {
    lr_mult: 2
    decay_mult: 0
  }
  convolution_param {
    num_output: 96
    pad: 2
    kernel_size: 5
    weight_filler {
      type: "xavier"
      std: 0.03
    }
    bias_filler {
      type: "constant"
      value: 0.2
    }
  }
}
layer {
  name: "inception_3b/relu_5x5"
  type: "ReLU"
  bottom: "inception_3b/5x5"
  top: "inception_3b/5x5"
}
layer {
  name: "inception_3b/pool"
  type: "Pooling"
  bottom: "inception_3a/output"
  top: "inception_3b/pool"
  pooling_param {
    pool: MAX
    kernel_size: 3
    stride: 1
    pad: 1
  }
}
layer {
  name: "inception_3b/pool_proj"
  type: "Convolution"
  bottom: "inception_3b/pool"
  top: "inception_3b/pool_proj"
  param {
    lr_mult: 1
    decay_mult: 1
  }
  param {
    lr_mult: 2
    decay_mult: 0
  }
  convolution_param {
    num_output: 64
    kernel_size: 1
    weight_filler {
      type: "xavier"
      std: 0.1
    }
    bias_filler {
      type: "constant"
      value: 0.2
    }
  }
}
layer {
  name: "inception_3b/relu_pool_proj"
  type: "ReLU"
  bottom: "inception_3b/pool_proj"
  top: "inception_3b/pool_proj"
}
layer {
  name: "inception_3b/output"
  type: "Concat"
  bottom: "inception_3b/1x1"
  bottom: "inception_3b/3x3"
  bottom: "inception_3b/5x5"
  bottom: "inception_3b/pool_proj"
  top: "inception_3b/output"
}
layer {
  name: "pool3/3x3_s2"
  type: "Pooling"
  bottom: "inception_3b/output"
  top: "pool3/3x3_s2"
  pooling_param {
    pool: MAX
    kernel_size: 3
    stride: 2
  }
}
layer {
  name: "inception_4a/1x1"
  type: "Convolution"
  bottom: "pool3/3x3_s2"
  top: "inception_4a/1x1"
  param {
    lr_mult: 1
    decay_mult: 1
  }
  param {
    lr_mult: 2
    decay_mult: 0
  }
  convolution_param {
    num_output: 192
    kernel_size: 1
    weight_filler {
      type: "xavier"
      std: 0.03
    }
    bias_filler {
      type: "constant"
      value: 0.2
    }
  }
}
layer {
  name: "inception_4a/relu_1x1"
  type: "ReLU"
  bottom: "inception_4a/1x1"
  top: "inception_4a/1x1"
}
layer {
  name: "inception_4a/3x3_reduce"
  type: "Convolution"
  bottom: "pool3/3x3_s2"
  top: "inception_4a/3x3_reduce"
  param {
    lr_mult: 1
    decay_mult: 1
  }
  param {
    lr_mult: 2
    decay_mult: 0
  }
  convolution_param {
    num_output: 96
    kernel_size: 1
    weight_filler {
      type: "xavier"
      std: 0.09
    }
    bias_filler {
      type: "constant"
      value: 0.2
    }
  }
}
layer {
  name: "inception_4a/relu_3x3_reduce"
  type: "ReLU"
  bottom: "inception_4a/3x3_reduce"
  top: "inception_4a/3x3_reduce"
}
layer {
  name: "inception_4a/3x3"
  type: "Convolution"
  bottom: "inception_4a/3x3_reduce"
  top: "inception_4a/3x3"
  param {
    lr_mult: 1
    decay_mult: 1
  }
  param {
    lr_mult: 2
    decay_mult: 0
  }
  convolution_param {
    num_output: 208
    pad: 1
    kernel_size: 3
    weight_filler {
      type: "xavier"
      std: 0.03
    }
    bias_filler {
      type: "constant"
      value: 0.2
    }
  }
}
layer {
  name: "inception_4a/relu_3x3"
  type: "ReLU"
  bottom: "inception_4a/3x3"
  top: "inception_4a/3x3"
}
layer {
  name: "inception_4a/5x5_reduce"
  type: "Convolution"
  bottom: "pool3/3x3_s2"
  top: "inception_4a/5x5_reduce"
  param {
    lr_mult: 1
    decay_mult: 1
  }
  param {
    lr_mult: 2
    decay_mult: 0
  }
  convolution_param {
    num_output: 16
    kernel_size: 1
    weight_filler {
      type: "xavier"
      std: 0.2
    }
    bias_filler {
      type: "constant"
      value: 0.2
    }
  }
}
layer {
  name: "inception_4a/relu_5x5_reduce"
  type: "ReLU"
  bottom: "inception_4a/5x5_reduce"
  top: "inception_4a/5x5_reduce"
}
layer {
  name: "inception_4a/5x5"
  type: "Convolution"
  bottom: "inception_4a/5x5_reduce"
  top: "inception_4a/5x5"
  param {
    lr_mult: 1
    decay_mult: 1
  }
  param {
    lr_mult: 2
    decay_mult: 0
  }
  convolution_param {
    num_output: 48
    pad: 2
    kernel_size: 5
    weight_filler {
      type: "xavier"
      std: 0.03
    }
    bias_filler {
      type: "constant"
      value: 0.2
    }
  }
}
layer {
  name: "inception_4a/relu_5x5"
  type: "ReLU"
  bottom: "inception_4a/5x5"
  top: "inception_4a/5x5"
}
layer {
  name: "inception_4a/pool"
  type: "Pooling"
  bottom: "pool3/3x3_s2"
  top: "inception_4a/pool"
  pooling_param {
    pool: MAX
    kernel_size: 3
    stride: 1
    pad: 1
  }
}
layer {
  name: "inception_4a/pool_proj"
  type: "Convolution"
  bottom: "inception_4a/pool"
  top: "inception_4a/pool_proj"
  param {
    lr_mult: 1
    decay_mult: 1
  }
  param {
    lr_mult: 2
    decay_mult: 0
  }
  convolution_param {
    num_output: 64
    kernel_size: 1
    weight_filler {
      type: "xavier"
      std: 0.1
    }
    bias_filler {
      type: "constant"
      value: 0.2
    }
  }
}
layer {
  name: "inception_4a/relu_pool_proj"
  type: "ReLU"
  bottom: "inception_4a/pool_proj"
  top: "inception_4a/pool_proj"
}
layer {
  name: "inception_4a/output"
  type: "Concat"
  bottom: "inception_4a/1x1"
  bottom: "inception_4a/3x3"
  bottom: "inception_4a/5x5"
  bottom: "inception_4a/pool_proj"
  top: "inception_4a/output"
}
layer {
  name: "loss1/ave_pool"
  type: "Pooling"
  bottom: "inception_4a/output"
  top: "loss1/ave_pool"
  pooling_param {
    pool: AVE
    kernel_size: 5
    stride: 3
  }
}
layer {
  name: "loss1/conv"
  type: "Convolution"
  bottom: "loss1/ave_pool"
  top: "loss1/conv"
  param {
    lr_mult: 1
    decay_mult: 1
  }
  param {
    lr_mult: 2
    decay_mult: 0
  }
  convolution_param {
    num_output: 128
    kernel_size: 1
    weight_filler {
      type: "xavier"
      std: 0.08
    }
    bias_filler {
      type: "constant"
      value: 0.2
    }
  }
}
layer {
  name: "loss1/relu_conv"
  type: "ReLU"
  bottom: "loss1/conv"
  top: "loss1/conv"
}
layer {
  name: "loss1/fc"
  type: "InnerProduct"
  bottom: "loss1/conv"
  top: "loss1/fc"
  param {
    lr_mult: 1
    decay_mult: 1
  }
  param {
    lr_mult: 2
    decay_mult: 0
  }
  inner_product_param {
    num_output: 1024
    weight_filler {
      type: "xavier"
      std: 0.02
    }
    bias_filler {
      type: "constant"
      value: 0.2
    }
  }
}
layer {
  name: "loss1/relu_fc"
  type: "ReLU"
  bottom: "loss1/fc"
  top: "loss1/fc"
}
layer {
  name: "loss1/drop_fc"
  type: "Dropout"
  bottom: "loss1/fc"
  top: "loss1/fc"
  dropout_param {
    dropout_ratio: 0.7
  }
}
layer {
  name: "loss1/classifier_plantvillage"
  type: "InnerProduct"
  bottom: "loss1/fc"
  top: "loss1/classifier_plantvillage"
  param {
    lr_mult: 1
    decay_mult: 1
  }
  param {
    lr_mult: 2
    decay_mult: 0
  }
  inner_product_param {
    num_output: 38
    weight_filler {
      type: "xavier"
      std: 0.0009765625
    }
    bias_filler {
      type: "constant"
      value: 0
    }
  }
}
layer {
  name: "inception_4b/1x1"
  type: "Convolution"
  bottom: "inception_4a/output"
  top: "inception_4b/1x1"
  param {
    lr_mult: 1
    decay_mult: 1
  }
  param {
    lr_mult: 2
    decay_mult: 0
  }
  convolution_param {
    num_output: 160
    kernel_size: 1
    weight_filler {
      type: "xavier"
      std: 0.03
    }
    bias_filler {
      type: "constant"
      value: 0.2
    }
  }
}
layer {
  name: "inception_4b/relu_1x1"
  type: "ReLU"
  bottom: "inception_4b/1x1"
  top: "inception_4b/1x1"
}
layer {
  name: "inception_4b/3x3_reduce"
  type: "Convolution"
  bottom: "inception_4a/output"
  top: "inception_4b/3x3_reduce"
  param {
    lr_mult: 1
    decay_mult: 1
  }
  param {
    lr_mult: 2
    decay_mult: 0
  }
  convolution_param {
    num_output: 112
    kernel_size: 1
    weight_filler {
      type: "xavier"
      std: 0.09
    }
    bias_filler {
      type: "constant"
      value: 0.2
    }
  }
}
layer {
  name: "inception_4b/relu_3x3_reduce"
  type: "ReLU"
  bottom: "inception_4b/3x3_reduce"
  top: "inception_4b/3x3_reduce"
}
layer {
  name: "inception_4b/3x3"
  type: "Convolution"
  bottom: "inception_4b/3x3_reduce"
  top: "inception_4b/3x3"
  param {
    lr_mult: 1
    decay_mult: 1
  }
  param {
    lr_mult: 2
    decay_mult: 0
  }
  convolution_param {
    num_output: 224
    pad: 1
    kernel_size: 3
    weight_filler {
      type: "xavier"
      std: 0.03
    }
    bias_filler {
      type: "constant"
      value: 0.2
    }
  }
}
layer {
  name: "inception_4b/relu_3x3"
  type: "ReLU"
  bottom: "inception_4b/3x3"
  top: "inception_4b/3x3"
}
layer {
  name: "inception_4b/5x5_reduce"
  type: "Convolution"
  bottom: "inception_4a/output"
  top: "inception_4b/5x5_reduce"
  param {
    lr_mult: 1
    decay_mult: 1
  }
  param {
    lr_mult: 2
    decay_mult: 0
  }
  convolution_param {
    num_output: 24
    kernel_size: 1
    weight_filler {
      type: "xavier"
      std: 0.2
    }
    bias_filler {
      type: "constant"
      value: 0.2
    }
  }
}
layer {
  name: "inception_4b/relu_5x5_reduce"
  type: "ReLU"
  bottom: "inception_4b/5x5_reduce"
  top: "inception_4b/5x5_reduce"
}
layer {
  name: "inception_4b/5x5"
  type: "Convolution"
  bottom: "inception_4b/5x5_reduce"
  top: "inception_4b/5x5"
  param {
    lr_mult: 1
    decay_mult: 1
  }
  param {
    lr_mult: 2
    decay_mult: 0
  }
  convolution_param {
    num_output: 64
    pad: 2
    kernel_size: 5
    weight_filler {
      type: "xavier"
      std: 0.03
    }
    bias_filler {
      type: "constant"
      value: 0.2
    }
  }
}
layer {
  name: "inception_4b/relu_5x5"
  type: "ReLU"
  bottom: "inception_4b/5x5"
  top: "inception_4b/5x5"
}
layer {
  name: "inception_4b/pool"
  type: "Pooling"
  bottom: "inception_4a/output"
  top: "inception_4b/pool"
  pooling_param {
    pool: MAX
    kernel_size: 3
    stride: 1
    pad: 1
  }
}
layer {
  name: "inception_4b/pool_proj"
  type: "Convolution"
  bottom: "inception_4b/pool"
  top: "inception_4b/pool_proj"
  param {
    lr_mult: 1
    decay_mult: 1
  }
  param {
    lr_mult: 2
    decay_mult: 0
  }
  convolution_param {
    num_output: 64
    kernel_size: 1
    weight_filler {
      type: "xavier"
      std: 0.1
    }
    bias_filler {
      type: "constant"
      value: 0.2
    }
  }
}
layer {
  name: "inception_4b/relu_pool_proj"
  type: "ReLU"
  bottom: "inception_4b/pool_proj"
  top: "inception_4b/pool_proj"
}
layer {
  name: "inception_4b/output"
  type: "Concat"
  bottom: "inception_4b/1x1"
  bottom: "inception_4b/3x3"
  bottom: "inception_4b/5x5"
  bottom: "inception_4b/pool_proj"
  top: "inception_4b/output"
}
layer {
  name: "inception_4c/1x1"
  type: "Convolution"
  bottom: "inception_4b/output"
  top: "inception_4c/1x1"
  param {
    lr_mult: 1
    decay_mult: 1
  }
  param {
    lr_mult: 2
    decay_mult: 0
  }
  convolution_param {
    num_output: 128
    kernel_size: 1
    weight_filler {
      type: "xavier"
      std: 0.03
    }
    bias_filler {
      type: "constant"
      value: 0.2
    }
  }
}
layer {
  name: "inception_4c/relu_1x1"
  type: "ReLU"
  bottom: "inception_4c/1x1"
  top: "inception_4c/1x1"
}
layer {
  name: "inception_4c/3x3_reduce"
  type: "Convolution"
  bottom: "inception_4b/output"
  top: "inception_4c/3x3_reduce"
  param {
    lr_mult: 1
    decay_mult: 1
  }
  param {
    lr_mult: 2
    decay_mult: 0
  }
  convolution_param {
    num_output: 128
    kernel_size: 1
    weight_filler {
      type: "xavier"
      std: 0.09
    }
    bias_filler {
      type: "constant"
      value: 0.2
    }
  }
}
layer {
  name: "inception_4c/relu_3x3_reduce"
  type: "ReLU"
  bottom: "inception_4c/3x3_reduce"
  top: "inception_4c/3x3_reduce"
}
layer {
  name: "inception_4c/3x3"
  type: "Convolution"
  bottom: "inception_4c/3x3_reduce"
  top: "inception_4c/3x3"
  param {
    lr_mult: 1
    decay_mult: 1
  }
  param {
    lr_mult: 2
    decay_mult: 0
  }
  convolution_param {
    num_output: 256
    pad: 1
    kernel_size: 3
    weight_filler {
      type: "xavier"
      std: 0.03
    }
    bias_filler {
      type: "constant"
      value: 0.2
    }
  }
}
layer {
  name: "inception_4c/relu_3x3"
  type: "ReLU"
  bottom: "inception_4c/3x3"
  top: "inception_4c/3x3"
}
layer {
  name: "inception_4c/5x5_reduce"
  type: "Convolution"
  bottom: "inception_4b/output"
  top: "inception_4c/5x5_reduce"
  param {
    lr_mult: 1
    decay_mult: 1
  }
  param {
    lr_mult: 2
    decay_mult: 0
  }
  convolution_param {
    num_output: 24
    kernel_size: 1
    weight_filler {
      type: "xavier"
      std: 0.2
    }
    bias_filler {
      type: "constant"
      value: 0.2
    }
  }
}
layer {
  name: "inception_4c/relu_5x5_reduce"
  type: "ReLU"
  bottom: "inception_4c/5x5_reduce"
  top: "inception_4c/5x5_reduce"
}
layer {
  name: "inception_4c/5x5"
  type: "Convolution"
  bottom: "inception_4c/5x5_reduce"
  top: "inception_4c/5x5"
  param {
    lr_mult: 1
    decay_mult: 1
  }
  param {
    lr_mult: 2
    decay_mult: 0
  }
  convolution_param {
    num_output: 64
    pad: 2
    kernel_size: 5
    weight_filler {
      type: "xavier"
      std: 0.03
    }
    bias_filler {
      type: "constant"
      value: 0.2
    }
  }
}
layer {
  name: "inception_4c/relu_5x5"
  type: "ReLU"
  bottom: "inception_4c/5x5"
  top: "inception_4c/5x5"
}
layer {
  name: "inception_4c/pool"
  type: "Pooling"
  bottom: "inception_4b/output"
  top: "inception_4c/pool"
  pooling_param {
    pool: MAX
    kernel_size: 3
    stride: 1
    pad: 1
  }
}
layer {
  name: "inception_4c/pool_proj"
  type: "Convolution"
  bottom: "inception_4c/pool"
  top: "inception_4c/pool_proj"
  param {
    lr_mult: 1
    decay_mult: 1
  }
  param {
    lr_mult: 2
    decay_mult: 0
  }
  convolution_param {
    num_output: 64
    kernel_size: 1
    weight_filler {
      type: "xavier"
      std: 0.1
    }
    bias_filler {
      type: "constant"
      value: 0.2
    }
  }
}
layer {
  name: "inception_4c/relu_pool_proj"
  type: "ReLU"
  bottom: "inception_4c/pool_proj"
  top: "inception_4c/pool_proj"
}
layer {
  name: "inception_4c/output"
  type: "Concat"
  bottom: "inception_4c/1x1"
  bottom: "inception_4c/3x3"
  bottom: "inception_4c/5x5"
  bottom: "inception_4c/pool_proj"
  top: "inception_4c/output"
}
layer {
  name: "inception_4d/1x1"
  type: "Convolution"
  bottom: "inception_4c/output"
  top: "inception_4d/1x1"
  param {
    lr_mult: 1
    decay_mult: 1
  }
  param {
    lr_mult: 2
    decay_mult: 0
  }
  convolution_param {
    num_output: 112
    kernel_size: 1
    weight_filler {
      type: "xavier"
      std: 0.03
    }
    bias_filler {
      type: "constant"
      value: 0.2
    }
  }
}
layer {
  name: "inception_4d/relu_1x1"
  type: "ReLU"
  bottom: "inception_4d/1x1"
  top: "inception_4d/1x1"
}
layer {
  name: "inception_4d/3x3_reduce"
  type: "Convolution"
  bottom: "inception_4c/output"
  top: "inception_4d/3x3_reduce"
  param {
    lr_mult: 1
    decay_mult: 1
  }
  param {
    lr_mult: 2
    decay_mult: 0
  }
  convolution_param {
    num_output: 144
    kernel_size: 1
    weight_filler {
      type: "xavier"
      std: 0.09
    }
    bias_filler {
      type: "constant"
      value: 0.2
    }
  }
}
layer {
  name: "inception_4d/relu_3x3_reduce"
  type: "ReLU"
  bottom: "inception_4d/3x3_reduce"
  top: "inception_4d/3x3_reduce"
}
layer {
  name: "inception_4d/3x3"
  type: "Convolution"
  bottom: "inception_4d/3x3_reduce"
  top: "inception_4d/3x3"
  param {
    lr_mult: 1
    decay_mult: 1
  }
  param {
    lr_mult: 2
    decay_mult: 0
  }
  convolution_param {
    num_output: 288
    pad: 1
    kernel_size: 3
    weight_filler {
      type: "xavier"
      std: 0.03
    }
    bias_filler {
      type: "constant"
      value: 0.2
    }
  }
}
layer {
  name: "inception_4d/relu_3x3"
  type: "ReLU"
  bottom: "inception_4d/3x3"
  top: "inception_4d/3x3"
}
layer {
  name: "inception_4d/5x5_reduce"
  type: "Convolution"
  bottom: "inception_4c/output"
  top: "inception_4d/5x5_reduce"
  param {
    lr_mult: 1
    decay_mult: 1
  }
  param {
    lr_mult: 2
    decay_mult: 0
  }
  convolution_param {
    num_output: 32
    kernel_size: 1
    weight_filler {
      type: "xavier"
      std: 0.2
    }
    bias_filler {
      type: "constant"
      value: 0.2
    }
  }
}
layer {
  name: "inception_4d/relu_5x5_reduce"
  type: "ReLU"
  bottom: "inception_4d/5x5_reduce"
  top: "inception_4d/5x5_reduce"
}
layer {
  name: "inception_4d/5x5"
  type: "Convolution"
  bottom: "inception_4d/5x5_reduce"
  top: "inception_4d/5x5"
  param {
    lr_mult: 1
    decay_mult: 1
  }
  param {
    lr_mult: 2
    decay_mult: 0
  }
  convolution_param {
    num_output: 64
    pad: 2
    kernel_size: 5
    weight_filler {
      type: "xavier"
      std: 0.03
    }
    bias_filler {
      type: "constant"
      value: 0.2
    }
  }
}
layer {
  name: "inception_4d/relu_5x5"
  type: "ReLU"
  bottom: "inception_4d/5x5"
  top: "inception_4d/5x5"
}
layer {
  name: "inception_4d/pool"
  type: "Pooling"
  bottom: "inception_4c/output"
  top: "inception_4d/pool"
  pooling_param {
    pool: MAX
    kernel_size: 3
    stride: 1
    pad: 1
  }
}
layer {
  name: "inception_4d/pool_proj"
  type: "Convolution"
  bottom: "inception_4d/pool"
  top: "inception_4d/pool_proj"
  param {
    lr_mult: 1
    decay_mult: 1
  }
  param {
    lr_mult: 2
    decay_mult: 0
  }
  convolution_param {
    num_output: 64
    kernel_size: 1
    weight_filler {
      type: "xavier"
      std: 0.1
    }
    bias_filler {
      type: "constant"
      value: 0.2
    }
  }
}
layer {
  name: "inception_4d/relu_pool_proj"
  type: "ReLU"
  bottom: "inception_4d/pool_proj"
  top: "inception_4d/pool_proj"
}
layer {
  name: "inception_4d/output"
  type: "Concat"
  bottom: "inception_4d/1x1"
  bottom: "inception_4d/3x3"
  bottom: "inception_4d/5x5"
  bottom: "inception_4d/pool_proj"
  top: "inception_4d/output"
}
layer {
  name: "loss2/ave_pool"
  type: "Pooling"
  bottom: "inception_4d/output"
  top: "loss2/ave_pool"
  pooling_param {
    pool: AVE
    kernel_size: 5
    stride: 3
  }
}
layer {
  name: "loss2/conv"
  type: "Convolution"
  bottom: "loss2/ave_pool"
  top: "loss2/conv"
  param {
    lr_mult: 1
    decay_mult: 1
  }
  param {
    lr_mult: 2
    decay_mult: 0
  }
  convolution_param {
    num_output: 128
    kernel_size: 1
    weight_filler {
      type: "xavier"
      std: 0.08
    }
    bias_filler {
      type: "constant"
      value: 0.2
    }
  }
}
layer {
  name: "loss2/relu_conv"
  type: "ReLU"
  bottom: "loss2/conv"
  top: "loss2/conv"
}
layer {
  name: "loss2/fc"
  type: "InnerProduct"
  bottom: "loss2/conv"
  top: "loss2/fc"
  param {
    lr_mult: 1
    decay_mult: 1
  }
  param {
    lr_mult: 2
    decay_mult: 0
  }
  inner_product_param {
    num_output: 1024
    weight_filler {
      type: "xavier"
      std: 0.02
    }
    bias_filler {
      type: "constant"
      value: 0.2
    }
  }
}
layer {
  name: "loss2/relu_fc"
  type: "ReLU"
  bottom: "loss2/fc"
  top: "loss2/fc"
}
layer {
  name: "loss2/drop_fc"
  type: "Dropout"
  bottom: "loss2/fc"
  top: "loss2/fc"
  dropout_param {
    dropout_ratio: 0.7
  }
}
layer {
  name: "loss2/classifier_plantvillage"
  type: "InnerProduct"
  bottom: "loss2/fc"
  top: "loss2/classifier_plantvillage"
  param {
    lr_mult: 1
    decay_mult: 1
  }
  param {
    lr_mult: 2
    decay_mult: 0
  }
  inner_product_param {
    num_output: 38
    weight_filler {
      type: "xavier"
      std: 0.0009765625
    }
    bias_filler {
      type: "constant"
      value: 0
    }
  }
}
layer {
  name: "inception_4e/1x1"
  type: "Convolution"
  bottom: "inception_4d/output"
  top: "inception_4e/1x1"
  param {
    lr_mult: 1
    decay_mult: 1
  }
  param {
    lr_mult: 2
    decay_mult: 0
  }
  convolution_param {
    num_output: 256
    kernel_size: 1
    weight_filler {
      type: "xavier"
      std: 0.03
    }
    bias_filler {
      type: "constant"
      value: 0.2
    }
  }
}
layer {
  name: "inception_4e/relu_1x1"
  type: "ReLU"
  bottom: "inception_4e/1x1"
  top: "inception_4e/1x1"
}
layer {
  name: "inception_4e/3x3_reduce"
  type: "Convolution"
  bottom: "inception_4d/output"
  top: "inception_4e/3x3_reduce"
  param {
    lr_mult: 1
    decay_mult: 1
  }
  param {
    lr_mult: 2
    decay_mult: 0
  }
  convolution_param {
    num_output: 160
    kernel_size: 1
    weight_filler {
      type: "xavier"
      std: 0.09
    }
    bias_filler {
      type: "constant"
      value: 0.2
    }
  }
}
layer {
  name: "inception_4e/relu_3x3_reduce"
  type: "ReLU"
  bottom: "inception_4e/3x3_reduce"
  top: "inception_4e/3x3_reduce"
}
layer {
  name: "inception_4e/3x3"
  type: "Convolution"
  bottom: "inception_4e/3x3_reduce"
  top: "inception_4e/3x3"
  param {
    lr_mult: 1
    decay_mult: 1
  }
  param {
    lr_mult: 2
    decay_mult: 0
  }
  convolution_param {
    num_output: 320
    pad: 1
    kernel_size: 3
    weight_filler {
      type: "xavier"
      std: 0.03
    }
    bias_filler {
      type: "constant"
      value: 0.2
    }
  }
}
layer {
  name: "inception_4e/relu_3x3"
  type: "ReLU"
  bottom: "inception_4e/3x3"
  top: "inception_4e/3x3"
}
layer {
  name: "inception_4e/5x5_reduce"
  type: "Convolution"
  bottom: "inception_4d/output"
  top: "inception_4e/5x5_reduce"
  param {
    lr_mult: 1
    decay_mult: 1
  }
  param {
    lr_mult: 2
    decay_mult: 0
  }
  convolution_param {
    num_output: 32
    kernel_size: 1
    weight_filler {
      type: "xavier"
      std: 0.2
    }
    bias_filler {
      type: "constant"
      value: 0.2
    }
  }
}
layer {
  name: "inception_4e/relu_5x5_reduce"
  type: "ReLU"
  bottom: "inception_4e/5x5_reduce"
  top: "inception_4e/5x5_reduce"
}
layer {
  name: "inception_4e/5x5"
  type: "Convolution"
  bottom: "inception_4e/5x5_reduce"
  top: "inception_4e/5x5"
  p
I0403 21:51:24.315922 13064 layer_factory.hpp:77] Creating layer data
I0403 21:51:24.316493 13064 net.cpp:91] Creating Layer data
I0403 21:51:24.316525 13064 net.cpp:399] data -> data
I0403 21:51:24.316576 13064 net.cpp:399] data -> label
I0403 21:51:24.316612 13064 data_transformer.cpp:25] Loading mean file from: /home/mohanty/data/final_dataset/lmdb/color-80-20/mean.binaryproto
I0403 21:51:24.317574 13066 db_lmdb.cpp:38] Opened lmdb /home/mohanty/data/final_dataset/lmdb/color-80-20/test_db
I0403 21:51:24.330391 13064 data_layer.cpp:41] output data size: 24,3,224,224
I0403 21:51:24.359035 13064 net.cpp:141] Setting up data
I0403 21:51:24.359136 13064 net.cpp:148] Top shape: 24 3 224 224 (3612672)
I0403 21:51:24.359158 13064 net.cpp:148] Top shape: 24 (24)
I0403 21:51:24.359172 13064 net.cpp:156] Memory required for data: 14450784
I0403 21:51:24.359205 13064 layer_factory.hpp:77] Creating layer label_data_1_split
I0403 21:51:24.359242 13064 net.cpp:91] Creating Layer label_data_1_split
I0403 21:51:24.359261 13064 net.cpp:425] label_data_1_split <- label
I0403 21:51:24.359290 13064 net.cpp:399] label_data_1_split -> label_data_1_split_0
I0403 21:51:24.359318 13064 net.cpp:399] label_data_1_split -> label_data_1_split_1
I0403 21:51:24.359338 13064 net.cpp:399] label_data_1_split -> label_data_1_split_2
I0403 21:51:24.359359 13064 net.cpp:399] label_data_1_split -> label_data_1_split_3
I0403 21:51:24.359377 13064 net.cpp:399] label_data_1_split -> label_data_1_split_4
I0403 21:51:24.359396 13064 net.cpp:399] label_data_1_split -> label_data_1_split_5
I0403 21:51:24.359414 13064 net.cpp:399] label_data_1_split -> label_data_1_split_6
I0403 21:51:24.359434 13064 net.cpp:399] label_data_1_split -> label_data_1_split_7
I0403 21:51:24.359453 13064 net.cpp:399] label_data_1_split -> label_data_1_split_8
I0403 21:51:24.359472 13064 net.cpp:399] label_data_1_split -> label_data_1_split_9
I0403 21:51:24.359593 13064 net.cpp:141] Setting up label_data_1_split
I0403 21:51:24.359616 13064 net.cpp:148] Top shape: 24 (24)
I0403 21:51:24.359632 13064 net.cpp:148] Top shape: 24 (24)
I0403 21:51:24.359648 13064 net.cpp:148] Top shape: 24 (24)
I0403 21:51:24.359664 13064 net.cpp:148] Top shape: 24 (24)
I0403 21:51:24.359678 13064 net.cpp:148] Top shape: 24 (24)
I0403 21:51:24.359694 13064 net.cpp:148] Top shape: 24 (24)
I0403 21:51:24.359709 13064 net.cpp:148] Top shape: 24 (24)
I0403 21:51:24.359724 13064 net.cpp:148] Top shape: 24 (24)
I0403 21:51:24.359738 13064 net.cpp:148] Top shape: 24 (24)
I0403 21:51:24.359755 13064 net.cpp:148] Top shape: 24 (24)
I0403 21:51:24.359799 13064 net.cpp:156] Memory required for data: 14451744
I0403 21:51:24.359815 13064 layer_factory.hpp:77] Creating layer conv1/7x7_s2
I0403 21:51:24.359848 13064 net.cpp:91] Creating Layer conv1/7x7_s2
I0403 21:51:24.359865 13064 net.cpp:425] conv1/7x7_s2 <- data
I0403 21:51:24.359884 13064 net.cpp:399] conv1/7x7_s2 -> conv1/7x7_s2
I0403 21:51:24.504999 13064 net.cpp:141] Setting up conv1/7x7_s2
I0403 21:51:24.505107 13064 net.cpp:148] Top shape: 24 64 112 112 (19267584)
I0403 21:51:24.505123 13064 net.cpp:156] Memory required for data: 91522080
I0403 21:51:24.505156 13064 layer_factory.hpp:77] Creating layer conv1/relu_7x7
I0403 21:51:24.505187 13064 net.cpp:91] Creating Layer conv1/relu_7x7
I0403 21:51:24.505205 13064 net.cpp:425] conv1/relu_7x7 <- conv1/7x7_s2
I0403 21:51:24.505236 13064 net.cpp:386] conv1/relu_7x7 -> conv1/7x7_s2 (in-place)
I0403 21:51:24.505491 13064 net.cpp:141] Setting up conv1/relu_7x7
I0403 21:51:24.505529 13064 net.cpp:148] Top shape: 24 64 112 112 (19267584)
I0403 21:51:24.505544 13064 net.cpp:156] Memory required for data: 168592416
I0403 21:51:24.505559 13064 layer_factory.hpp:77] Creating layer pool1/3x3_s2
I0403 21:51:24.505584 13064 net.cpp:91] Creating Layer pool1/3x3_s2
I0403 21:51:24.505600 13064 net.cpp:425] pool1/3x3_s2 <- conv1/7x7_s2
I0403 21:51:24.505619 13064 net.cpp:399] pool1/3x3_s2 -> pool1/3x3_s2
I0403 21:51:24.505691 13064 net.cpp:141] Setting up pool1/3x3_s2
I0403 21:51:24.505713 13064 net.cpp:148] Top shape: 24 64 56 56 (4816896)
I0403 21:51:24.505728 13064 net.cpp:156] Memory required for data: 187860000
I0403 21:51:24.505741 13064 layer_factory.hpp:77] Creating layer pool1/norm1
I0403 21:51:24.505765 13064 net.cpp:91] Creating Layer pool1/norm1
I0403 21:51:24.505782 13064 net.cpp:425] pool1/norm1 <- pool1/3x3_s2
I0403 21:51:24.505800 13064 net.cpp:399] pool1/norm1 -> pool1/norm1
I0403 21:51:24.506072 13064 net.cpp:141] Setting up pool1/norm1
I0403 21:51:24.506099 13064 net.cpp:148] Top shape: 24 64 56 56 (4816896)
I0403 21:51:24.506114 13064 net.cpp:156] Memory required for data: 207127584
I0403 21:51:24.506127 13064 layer_factory.hpp:77] Creating layer conv2/3x3_reduce
I0403 21:51:24.506151 13064 net.cpp:91] Creating Layer conv2/3x3_reduce
I0403 21:51:24.506167 13064 net.cpp:425] conv2/3x3_reduce <- pool1/norm1
I0403 21:51:24.506192 13064 net.cpp:399] conv2/3x3_reduce -> conv2/3x3_reduce
I0403 21:51:24.507495 13064 net.cpp:141] Setting up conv2/3x3_reduce
I0403 21:51:24.507525 13064 net.cpp:148] Top shape: 24 64 56 56 (4816896)
I0403 21:51:24.507540 13064 net.cpp:156] Memory required for data: 226395168
I0403 21:51:24.507561 13064 layer_factory.hpp:77] Creating layer conv2/relu_3x3_reduce
I0403 21:51:24.507580 13064 net.cpp:91] Creating Layer conv2/relu_3x3_reduce
I0403 21:51:24.507594 13064 net.cpp:425] conv2/relu_3x3_reduce <- conv2/3x3_reduce
I0403 21:51:24.507611 13064 net.cpp:386] conv2/relu_3x3_reduce -> conv2/3x3_reduce (in-place)
I0403 21:51:24.507850 13064 net.cpp:141] Setting up conv2/relu_3x3_reduce
I0403 21:51:24.507876 13064 net.cpp:148] Top shape: 24 64 56 56 (4816896)
I0403 21:51:24.507892 13064 net.cpp:156] Memory required for data: 245662752
I0403 21:51:24.507907 13064 layer_factory.hpp:77] Creating layer conv2/3x3
I0403 21:51:24.507928 13064 net.cpp:91] Creating Layer conv2/3x3
I0403 21:51:24.507946 13064 net.cpp:425] conv2/3x3 <- conv2/3x3_reduce
I0403 21:51:24.507962 13064 net.cpp:399] conv2/3x3 -> conv2/3x3
I0403 21:51:24.510141 13064 net.cpp:141] Setting up conv2/3x3
I0403 21:51:24.510170 13064 net.cpp:148] Top shape: 24 192 56 56 (14450688)
I0403 21:51:24.510191 13064 net.cpp:156] Memory required for data: 303465504
I0403 21:51:24.510212 13064 layer_factory.hpp:77] Creating layer conv2/relu_3x3
I0403 21:51:24.510231 13064 net.cpp:91] Creating Layer conv2/relu_3x3
I0403 21:51:24.510246 13064 net.cpp:425] conv2/relu_3x3 <- conv2/3x3
I0403 21:51:24.510262 13064 net.cpp:386] conv2/relu_3x3 -> conv2/3x3 (in-place)
I0403 21:51:24.510416 13064 net.cpp:141] Setting up conv2/relu_3x3
I0403 21:51:24.510440 13064 net.cpp:148] Top shape: 24 192 56 56 (14450688)
I0403 21:51:24.510493 13064 net.cpp:156] Memory required for data: 361268256
I0403 21:51:24.510509 13064 layer_factory.hpp:77] Creating layer conv2/norm2
I0403 21:51:24.510526 13064 net.cpp:91] Creating Layer conv2/norm2
I0403 21:51:24.510542 13064 net.cpp:425] conv2/norm2 <- conv2/3x3
I0403 21:51:24.510560 13064 net.cpp:399] conv2/norm2 -> conv2/norm2
I0403 21:51:24.510831 13064 net.cpp:141] Setting up conv2/norm2
I0403 21:51:24.510857 13064 net.cpp:148] Top shape: 24 192 56 56 (14450688)
I0403 21:51:24.510872 13064 net.cpp:156] Memory required for data: 419071008
I0403 21:51:24.510887 13064 layer_factory.hpp:77] Creating layer pool2/3x3_s2
I0403 21:51:24.510905 13064 net.cpp:91] Creating Layer pool2/3x3_s2
I0403 21:51:24.510921 13064 net.cpp:425] pool2/3x3_s2 <- conv2/norm2
I0403 21:51:24.510936 13064 net.cpp:399] pool2/3x3_s2 -> pool2/3x3_s2
I0403 21:51:24.510984 13064 net.cpp:141] Setting up pool2/3x3_s2
I0403 21:51:24.511008 13064 net.cpp:148] Top shape: 24 192 28 28 (3612672)
I0403 21:51:24.511021 13064 net.cpp:156] Memory required for data: 433521696
I0403 21:51:24.511035 13064 layer_factory.hpp:77] Creating layer pool2/3x3_s2_pool2/3x3_s2_0_split
I0403 21:51:24.511052 13064 net.cpp:91] Creating Layer pool2/3x3_s2_pool2/3x3_s2_0_split
I0403 21:51:24.511067 13064 net.cpp:425] pool2/3x3_s2_pool2/3x3_s2_0_split <- pool2/3x3_s2
I0403 21:51:24.511085 13064 net.cpp:399] pool2/3x3_s2_pool2/3x3_s2_0_split -> pool2/3x3_s2_pool2/3x3_s2_0_split_0
I0403 21:51:24.511102 13064 net.cpp:399] pool2/3x3_s2_pool2/3x3_s2_0_split -> pool2/3x3_s2_pool2/3x3_s2_0_split_1
I0403 21:51:24.511121 13064 net.cpp:399] pool2/3x3_s2_pool2/3x3_s2_0_split -> pool2/3x3_s2_pool2/3x3_s2_0_split_2
I0403 21:51:24.511140 13064 net.cpp:399] pool2/3x3_s2_pool2/3x3_s2_0_split -> pool2/3x3_s2_pool2/3x3_s2_0_split_3
I0403 21:51:24.511205 13064 net.cpp:141] Setting up pool2/3x3_s2_pool2/3x3_s2_0_split
I0403 21:51:24.511227 13064 net.cpp:148] Top shape: 24 192 28 28 (3612672)
I0403 21:51:24.511245 13064 net.cpp:148] Top shape: 24 192 28 28 (3612672)
I0403 21:51:24.511260 13064 net.cpp:148] Top shape: 24 192 28 28 (3612672)
I0403 21:51:24.511276 13064 net.cpp:148] Top shape: 24 192 28 28 (3612672)
I0403 21:51:24.511289 13064 net.cpp:156] Memory required for data: 491324448
I0403 21:51:24.511303 13064 layer_factory.hpp:77] Creating layer inception_3a/1x1
I0403 21:51:24.511322 13064 net.cpp:91] Creating Layer inception_3a/1x1
I0403 21:51:24.511339 13064 net.cpp:425] inception_3a/1x1 <- pool2/3x3_s2_pool2/3x3_s2_0_split_0
I0403 21:51:24.511358 13064 net.cpp:399] inception_3a/1x1 -> inception_3a/1x1
I0403 21:51:24.512923 13064 net.cpp:141] Setting up inception_3a/1x1
I0403 21:51:24.512951 13064 net.cpp:148] Top shape: 24 64 28 28 (1204224)
I0403 21:51:24.512966 13064 net.cpp:156] Memory required for data: 496141344
I0403 21:51:24.512984 13064 layer_factory.hpp:77] Creating layer inception_3a/relu_1x1
I0403 21:51:24.513005 13064 net.cpp:91] Creating Layer inception_3a/relu_1x1
I0403 21:51:24.513021 13064 net.cpp:425] inception_3a/relu_1x1 <- inception_3a/1x1
I0403 21:51:24.513039 13064 net.cpp:386] inception_3a/relu_1x1 -> inception_3a/1x1 (in-place)
I0403 21:51:24.513214 13064 net.cpp:141] Setting up inception_3a/relu_1x1
I0403 21:51:24.513239 13064 net.cpp:148] Top shape: 24 64 28 28 (1204224)
I0403 21:51:24.513253 13064 net.cpp:156] Memory required for data: 500958240
I0403 21:51:24.513267 13064 layer_factory.hpp:77] Creating layer inception_3a/3x3_reduce
I0403 21:51:24.513290 13064 net.cpp:91] Creating Layer inception_3a/3x3_reduce
I0403 21:51:24.513308 13064 net.cpp:425] inception_3a/3x3_reduce <- pool2/3x3_s2_pool2/3x3_s2_0_split_1
I0403 21:51:24.513326 13064 net.cpp:399] inception_3a/3x3_reduce -> inception_3a/3x3_reduce
I0403 21:51:24.514993 13064 net.cpp:141] Setting up inception_3a/3x3_reduce
I0403 21:51:24.515022 13064 net.cpp:148] Top shape: 24 96 28 28 (1806336)
I0403 21:51:24.515036 13064 net.cpp:156] Memory required for data: 508183584
I0403 21:51:24.515058 13064 layer_factory.hpp:77] Creating layer inception_3a/relu_3x3_reduce
I0403 21:51:24.515094 13064 net.cpp:91] Creating Layer inception_3a/relu_3x3_reduce
I0403 21:51:24.515110 13064 net.cpp:425] inception_3a/relu_3x3_reduce <- inception_3a/3x3_reduce
I0403 21:51:24.515128 13064 net.cpp:386] inception_3a/relu_3x3_reduce -> inception_3a/3x3_reduce (in-place)
I0403 21:51:24.515311 13064 net.cpp:141] Setting up inception_3a/relu_3x3_reduce
I0403 21:51:24.515334 13064 net.cpp:148] Top shape: 24 96 28 28 (1806336)
I0403 21:51:24.515348 13064 net.cpp:156] Memory required for data: 515408928
I0403 21:51:24.515363 13064 layer_factory.hpp:77] Creating layer inception_3a/3x3
I0403 21:51:24.515385 13064 net.cpp:91] Creating Layer inception_3a/3x3
I0403 21:51:24.515403 13064 net.cpp:425] inception_3a/3x3 <- inception_3a/3x3_reduce
I0403 21:51:24.515424 13064 net.cpp:399] inception_3a/3x3 -> inception_3a/3x3
I0403 21:51:24.517052 13064 net.cpp:141] Setting up inception_3a/3x3
I0403 21:51:24.517081 13064 net.cpp:148] Top shape: 24 128 28 28 (2408448)
I0403 21:51:24.517096 13064 net.cpp:156] Memory required for data: 525042720
I0403 21:51:24.517113 13064 layer_factory.hpp:77] Creating layer inception_3a/relu_3x3
I0403 21:51:24.517133 13064 net.cpp:91] Creating Layer inception_3a/relu_3x3
I0403 21:51:24.517150 13064 net.cpp:425] inception_3a/relu_3x3 <- inception_3a/3x3
I0403 21:51:24.517168 13064 net.cpp:386] inception_3a/relu_3x3 -> inception_3a/3x3 (in-place)
I0403 21:51:24.517437 13064 net.cpp:141] Setting up inception_3a/relu_3x3
I0403 21:51:24.517463 13064 net.cpp:148] Top shape: 24 128 28 28 (2408448)
I0403 21:51:24.517478 13064 net.cpp:156] Memory required for data: 534676512
I0403 21:51:24.517493 13064 layer_factory.hpp:77] Creating layer inception_3a/5x5_reduce
I0403 21:51:24.517518 13064 net.cpp:91] Creating Layer inception_3a/5x5_reduce
I0403 21:51:24.517536 13064 net.cpp:425] inception_3a/5x5_reduce <- pool2/3x3_s2_pool2/3x3_s2_0_split_2
I0403 21:51:24.517556 13064 net.cpp:399] inception_3a/5x5_reduce -> inception_3a/5x5_reduce
I0403 21:51:24.518493 13064 net.cpp:141] Setting up inception_3a/5x5_reduce
I0403 21:51:24.518520 13064 net.cpp:148] Top shape: 24 16 28 28 (301056)
I0403 21:51:24.518538 13064 net.cpp:156] Memory required for data: 535880736
I0403 21:51:24.518556 13064 layer_factory.hpp:77] Creating layer inception_3a/relu_5x5_reduce
I0403 21:51:24.518574 13064 net.cpp:91] Creating Layer inception_3a/relu_5x5_reduce
I0403 21:51:24.518591 13064 net.cpp:425] inception_3a/relu_5x5_reduce <- inception_3a/5x5_reduce
I0403 21:51:24.518607 13064 net.cpp:386] inception_3a/relu_5x5_reduce -> inception_3a/5x5_reduce (in-place)
I0403 21:51:24.518877 13064 net.cpp:141] Setting up inception_3a/relu_5x5_reduce
I0403 21:51:24.518905 13064 net.cpp:148] Top shape: 24 16 28 28 (301056)
I0403 21:51:24.518921 13064 net.cpp:156] Memory required for data: 537084960
I0403 21:51:24.518936 13064 layer_factory.hpp:77] Creating layer inception_3a/5x5
I0403 21:51:24.518957 13064 net.cpp:91] Creating Layer inception_3a/5x5
I0403 21:51:24.518975 13064 net.cpp:425] inception_3a/5x5 <- inception_3a/5x5_reduce
I0403 21:51:24.518993 13064 net.cpp:399] inception_3a/5x5 -> inception_3a/5x5
I0403 21:51:24.519999 13064 net.cpp:141] Setting up inception_3a/5x5
I0403 21:51:24.520025 13064 net.cpp:148] Top shape: 24 32 28 28 (602112)
I0403 21:51:24.520040 13064 net.cpp:156] Memory required for data: 539493408
I0403 21:51:24.520057 13064 layer_factory.hpp:77] Creating layer inception_3a/relu_5x5
I0403 21:51:24.520077 13064 net.cpp:91] Creating Layer inception_3a/relu_5x5
I0403 21:51:24.520093 13064 net.cpp:425] inception_3a/relu_5x5 <- inception_3a/5x5
I0403 21:51:24.520110 13064 net.cpp:386] inception_3a/relu_5x5 -> inception_3a/5x5 (in-place)
I0403 21:51:24.520299 13064 net.cpp:141] Setting up inception_3a/relu_5x5
I0403 21:51:24.520325 13064 net.cpp:148] Top shape: 24 32 28 28 (602112)
I0403 21:51:24.520340 13064 net.cpp:156] Memory required for data: 541901856
I0403 21:51:24.520355 13064 layer_factory.hpp:77] Creating layer inception_3a/pool
I0403 21:51:24.520376 13064 net.cpp:91] Creating Layer inception_3a/pool
I0403 21:51:24.520393 13064 net.cpp:425] inception_3a/pool <- pool2/3x3_s2_pool2/3x3_s2_0_split_3
I0403 21:51:24.520428 13064 net.cpp:399] inception_3a/pool -> inception_3a/pool
I0403 21:51:24.520489 13064 net.cpp:141] Setting up inception_3a/pool
I0403 21:51:24.520524 13064 net.cpp:148] Top shape: 24 192 28 28 (3612672)
I0403 21:51:24.520539 13064 net.cpp:156] Memory required for data: 556352544
I0403 21:51:24.520553 13064 layer_factory.hpp:77] Creating layer inception_3a/pool_proj
I0403 21:51:24.520576 13064 net.cpp:91] Creating Layer inception_3a/pool_proj
I0403 21:51:24.520591 13064 net.cpp:425] inception_3a/pool_proj <- inception_3a/pool
I0403 21:51:24.520613 13064 net.cpp:399] inception_3a/pool_proj -> inception_3a/pool_proj
I0403 21:51:24.521549 13064 net.cpp:141] Setting up inception_3a/pool_proj
I0403 21:51:24.521579 13064 net.cpp:148] Top shape: 24 32 28 28 (602112)
I0403 21:51:24.521595 13064 net.cpp:156] Memory required for data: 558760992
I0403 21:51:24.521618 13064 layer_factory.hpp:77] Creating layer inception_3a/relu_pool_proj
I0403 21:51:24.521638 13064 net.cpp:91] Creating Layer inception_3a/relu_pool_proj
I0403 21:51:24.521654 13064 net.cpp:425] inception_3a/relu_pool_proj <- inception_3a/pool_proj
I0403 21:51:24.521672 13064 net.cpp:386] inception_3a/relu_pool_proj -> inception_3a/pool_proj (in-place)
I0403 21:51:24.521934 13064 net.cpp:141] Setting up inception_3a/relu_pool_proj
I0403 21:51:24.521960 13064 net.cpp:148] Top shape: 24 32 28 28 (602112)
I0403 21:51:24.521975 13064 net.cpp:156] Memory required for data: 561169440
I0403 21:51:24.521988 13064 layer_factory.hpp:77] Creating layer inception_3a/output
I0403 21:51:24.522008 13064 net.cpp:91] Creating Layer inception_3a/output
I0403 21:51:24.522024 13064 net.cpp:425] inception_3a/output <- inception_3a/1x1
I0403 21:51:24.522040 13064 net.cpp:425] inception_3a/output <- inception_3a/3x3
I0403 21:51:24.522055 13064 net.cpp:425] inception_3a/output <- inception_3a/5x5
I0403 21:51:24.522071 13064 net.cpp:425] inception_3a/output <- inception_3a/pool_proj
I0403 21:51:24.522088 13064 net.cpp:399] inception_3a/output -> inception_3a/output
I0403 21:51:24.522133 13064 net.cpp:141] Setting up inception_3a/output
I0403 21:51:24.522157 13064 net.cpp:148] Top shape: 24 256 28 28 (4816896)
I0403 21:51:24.522171 13064 net.cpp:156] Memory required for data: 580437024
I0403 21:51:24.522197 13064 layer_factory.hpp:77] Creating layer inception_3a/output_inception_3a/output_0_split
I0403 21:51:24.522217 13064 net.cpp:91] Creating Layer inception_3a/output_inception_3a/output_0_split
I0403 21:51:24.522230 13064 net.cpp:425] inception_3a/output_inception_3a/output_0_split <- inception_3a/output
I0403 21:51:24.522250 13064 net.cpp:399] inception_3a/output_inception_3a/output_0_split -> inception_3a/output_inception_3a/output_0_split_0
I0403 21:51:24.522271 13064 net.cpp:399] inception_3a/output_inception_3a/output_0_split -> inception_3a/output_inception_3a/output_0_split_1
I0403 21:51:24.522292 13064 net.cpp:399] inception_3a/output_inception_3a/output_0_split -> inception_3a/output_inception_3a/output_0_split_2
I0403 21:51:24.522312 13064 net.cpp:399] inception_3a/output_inception_3a/output_0_split -> inception_3a/output_inception_3a/output_0_split_3
I0403 21:51:24.522385 13064 net.cpp:141] Setting up inception_3a/output_inception_3a/output_0_split
I0403 21:51:24.522408 13064 net.cpp:148] Top shape: 24 256 28 28 (4816896)
I0403 21:51:24.522424 13064 net.cpp:148] Top shape: 24 256 28 28 (4816896)
I0403 21:51:24.522439 13064 net.cpp:148] Top shape: 24 256 28 28 (4816896)
I0403 21:51:24.522455 13064 net.cpp:148] Top shape: 24 256 28 28 (4816896)
I0403 21:51:24.522469 13064 net.cpp:156] Memory required for data: 657507360
I0403 21:51:24.522482 13064 layer_factory.hpp:77] Creating layer inception_3b/1x1
I0403 21:51:24.522505 13064 net.cpp:91] Creating Layer inception_3b/1x1
I0403 21:51:24.522521 13064 net.cpp:425] inception_3b/1x1 <- inception_3a/output_inception_3a/output_0_split_0
I0403 21:51:24.522542 13064 net.cpp:399] inception_3b/1x1 -> inception_3b/1x1
I0403 21:51:24.523671 13064 net.cpp:141] Setting up inception_3b/1x1
I0403 21:51:24.523710 13064 net.cpp:148] Top shape: 24 128 28 28 (2408448)
I0403 21:51:24.523725 13064 net.cpp:156] Memory required for data: 667141152
I0403 21:51:24.523742 13064 layer_factory.hpp:77] Creating layer inception_3b/relu_1x1
I0403 21:51:24.523761 13064 net.cpp:91] Creating Layer inception_3b/relu_1x1
I0403 21:51:24.523775 13064 net.cpp:425] inception_3b/relu_1x1 <- inception_3b/1x1
I0403 21:51:24.523794 13064 net.cpp:386] inception_3b/relu_1x1 -> inception_3b/1x1 (in-place)
I0403 21:51:24.523968 13064 net.cpp:141] Setting up inception_3b/relu_1x1
I0403 21:51:24.523993 13064 net.cpp:148] Top shape: 24 128 28 28 (2408448)
I0403 21:51:24.524008 13064 net.cpp:156] Memory required for data: 676774944
I0403 21:51:24.524022 13064 layer_factory.hpp:77] Creating layer inception_3b/3x3_reduce
I0403 21:51:24.524044 13064 net.cpp:91] Creating Layer inception_3b/3x3_reduce
I0403 21:51:24.524060 13064 net.cpp:425] inception_3b/3x3_reduce <- inception_3a/output_inception_3a/output_0_split_1
I0403 21:51:24.524082 13064 net.cpp:399] inception_3b/3x3_reduce -> inception_3b/3x3_reduce
I0403 21:51:24.525213 13064 net.cpp:141] Setting up inception_3b/3x3_reduce
I0403 21:51:24.525239 13064 net.cpp:148] Top shape: 24 128 28 28 (2408448)
I0403 21:51:24.525254 13064 net.cpp:156] Memory required for data: 686408736
I0403 21:51:24.525272 13064 layer_factory.hpp:77] Creating layer inception_3b/relu_3x3_reduce
I0403 21:51:24.525291 13064 net.cpp:91] Creating Layer inception_3b/relu_3x3_reduce
I0403 21:51:24.525310 13064 net.cpp:425] inception_3b/relu_3x3_reduce <- inception_3b/3x3_reduce
I0403 21:51:24.525328 13064 net.cpp:386] inception_3b/relu_3x3_reduce -> inception_3b/3x3_reduce (in-place)
I0403 21:51:24.525496 13064 net.cpp:141] Setting up inception_3b/relu_3x3_reduce
I0403 21:51:24.525521 13064 net.cpp:148] Top shape: 24 128 28 28 (2408448)
I0403 21:51:24.525534 13064 net.cpp:156] Memory required for data: 696042528
I0403 21:51:24.525549 13064 layer_factory.hpp:77] Creating layer inception_3b/3x3
I0403 21:51:24.525574 13064 net.cpp:91] Creating Layer inception_3b/3x3
I0403 21:51:24.525593 13064 net.cpp:425] inception_3b/3x3 <- inception_3b/3x3_reduce
I0403 21:51:24.525611 13064 net.cpp:399] inception_3b/3x3 -> inception_3b/3x3
I0403 21:51:24.528520 13064 net.cpp:141] Setting up inception_3b/3x3
I0403 21:51:24.528548 13064 net.cpp:148] Top shape: 24 192 28 28 (3612672)
I0403 21:51:24.528563 13064 net.cpp:156] Memory required for data: 710493216
I0403 21:51:24.528581 13064 layer_factory.hpp:77] Creating layer inception_3b/relu_3x3
I0403 21:51:24.528606 13064 net.cpp:91] Creating Layer inception_3b/relu_3x3
I0403 21:51:24.528625 13064 net.cpp:425] inception_3b/relu_3x3 <- inception_3b/3x3
I0403 21:51:24.528641 13064 net.cpp:386] inception_3b/relu_3x3 -> inception_3b/3x3 (in-place)
I0403 21:51:24.528911 13064 net.cpp:141] Setting up inception_3b/relu_3x3
I0403 21:51:24.528937 13064 net.cpp:148] Top shape: 24 192 28 28 (3612672)
I0403 21:51:24.528952 13064 net.cpp:156] Memory required for data: 724943904
I0403 21:51:24.528967 13064 layer_factory.hpp:77] Creating layer inception_3b/5x5_reduce
I0403 21:51:24.528990 13064 net.cpp:91] Creating Layer inception_3b/5x5_reduce
I0403 21:51:24.529006 13064 net.cpp:425] inception_3b/5x5_reduce <- inception_3a/output_inception_3a/output_0_split_2
I0403 21:51:24.529028 13064 net.cpp:399] inception_3b/5x5_reduce -> inception_3b/5x5_reduce
I0403 21:51:24.530009 13064 net.cpp:141] Setting up inception_3b/5x5_reduce
I0403 21:51:24.530037 13064 net.cpp:148] Top shape: 24 32 28 28 (602112)
I0403 21:51:24.530052 13064 net.cpp:156] Memory required for data: 727352352
I0403 21:51:24.530069 13064 layer_factory.hpp:77] Creating layer inception_3b/relu_5x5_reduce
I0403 21:51:24.530091 13064 net.cpp:91] Creating Layer inception_3b/relu_5x5_reduce
I0403 21:51:24.530107 13064 net.cpp:425] inception_3b/relu_5x5_reduce <- inception_3b/5x5_reduce
I0403 21:51:24.530124 13064 net.cpp:386] inception_3b/relu_5x5_reduce -> inception_3b/5x5_reduce (in-place)
I0403 21:51:24.530304 13064 net.cpp:141] Setting up inception_3b/relu_5x5_reduce
I0403 21:51:24.530340 13064 net.cpp:148] Top shape: 24 32 28 28 (602112)
I0403 21:51:24.530355 13064 net.cpp:156] Memory required for data: 729760800
I0403 21:51:24.530371 13064 layer_factory.hpp:77] Creating layer inception_3b/5x5
I0403 21:51:24.530395 13064 net.cpp:91] Creating Layer inception_3b/5x5
I0403 21:51:24.530411 13064 net.cpp:425] inception_3b/5x5 <- inception_3b/5x5_reduce
I0403 21:51:24.530429 13064 net.cpp:399] inception_3b/5x5 -> inception_3b/5x5
I0403 21:51:24.532374 13064 net.cpp:141] Setting up inception_3b/5x5
I0403 21:51:24.532402 13064 net.cpp:148] Top shape: 24 96 28 28 (1806336)
I0403 21:51:24.532418 13064 net.cpp:156] Memory required for data: 736986144
I0403 21:51:24.532434 13064 layer_factory.hpp:77] Creating layer inception_3b/relu_5x5
I0403 21:51:24.532451 13064 net.cpp:91] Creating Layer inception_3b/relu_5x5
I0403 21:51:24.532466 13064 net.cpp:425] inception_3b/relu_5x5 <- inception_3b/5x5
I0403 21:51:24.532485 13064 net.cpp:386] inception_3b/relu_5x5 -> inception_3b/5x5 (in-place)
I0403 21:51:24.532667 13064 net.cpp:141] Setting up inception_3b/relu_5x5
I0403 21:51:24.532691 13064 net.cpp:148] Top shape: 24 96 28 28 (1806336)
I0403 21:51:24.532706 13064 net.cpp:156] Memory required for data: 744211488
I0403 21:51:24.532719 13064 layer_factory.hpp:77] Creating layer inception_3b/pool
I0403 21:51:24.532737 13064 net.cpp:91] Creating Layer inception_3b/pool
I0403 21:51:24.532752 13064 net.cpp:425] inception_3b/pool <- inception_3a/output_inception_3a/output_0_split_3
I0403 21:51:24.532768 13064 net.cpp:399] inception_3b/pool -> inception_3b/pool
I0403 21:51:24.532824 13064 net.cpp:141] Setting up inception_3b/pool
I0403 21:51:24.532845 13064 net.cpp:148] Top shape: 24 256 28 28 (4816896)
I0403 21:51:24.532858 13064 net.cpp:156] Memory required for data: 763479072
I0403 21:51:24.532872 13064 layer_factory.hpp:77] Creating layer inception_3b/pool_proj
I0403 21:51:24.532892 13064 net.cpp:91] Creating Layer inception_3b/pool_proj
I0403 21:51:24.532909 13064 net.cpp:425] inception_3b/pool_proj <- inception_3b/pool
I0403 21:51:24.532929 13064 net.cpp:399] inception_3b/pool_proj -> inception_3b/pool_proj
I0403 21:51:24.533917 13064 net.cpp:141] Setting up inception_3b/pool_proj
I0403 21:51:24.533946 13064 net.cpp:148] Top shape: 24 64 28 28 (1204224)
I0403 21:51:24.533962 13064 net.cpp:156] Memory required for data: 768295968
I0403 21:51:24.533978 13064 layer_factory.hpp:77] Creating layer inception_3b/relu_pool_proj
I0403 21:51:24.533996 13064 net.cpp:91] Creating Layer inception_3b/relu_pool_proj
I0403 21:51:24.534011 13064 net.cpp:425] inception_3b/relu_pool_proj <- inception_3b/pool_proj
I0403 21:51:24.534031 13064 net.cpp:386] inception_3b/relu_pool_proj -> inception_3b/pool_proj (in-place)
I0403 21:51:24.534395 13064 net.cpp:141] Setting up inception_3b/relu_pool_proj
I0403 21:51:24.534423 13064 net.cpp:148] Top shape: 24 64 28 28 (1204224)
I0403 21:51:24.534438 13064 net.cpp:156] Memory required for data: 773112864
I0403 21:51:24.534453 13064 layer_factory.hpp:77] Creating layer inception_3b/output
I0403 21:51:24.534469 13064 net.cpp:91] Creating Layer inception_3b/output
I0403 21:51:24.534484 13064 net.cpp:425] inception_3b/output <- inception_3b/1x1
I0403 21:51:24.534502 13064 net.cpp:425] inception_3b/output <- inception_3b/3x3
I0403 21:51:24.534517 13064 net.cpp:425] inception_3b/output <- inception_3b/5x5
I0403 21:51:24.534530 13064 net.cpp:425] inception_3b/output <- inception_3b/pool_proj
I0403 21:51:24.534546 13064 net.cpp:399] inception_3b/output -> inception_3b/output
I0403 21:51:24.534589 13064 net.cpp:141] Setting up inception_3b/output
I0403 21:51:24.534610 13064 net.cpp:148] Top shape: 24 480 28 28 (9031680)
I0403 21:51:24.534626 13064 net.cpp:156] Memory required for data: 809239584
I0403 21:51:24.534639 13064 layer_factory.hpp:77] Creating layer pool3/3x3_s2
I0403 21:51:24.534657 13064 net.cpp:91] Creating Layer pool3/3x3_s2
I0403 21:51:24.534672 13064 net.cpp:425] pool3/3x3_s2 <- inception_3b/output
I0403 21:51:24.534689 13064 net.cpp:399] pool3/3x3_s2 -> pool3/3x3_s2
I0403 21:51:24.534757 13064 net.cpp:141] Setting up pool3/3x3_s2
I0403 21:51:24.534780 13064 net.cpp:148] Top shape: 24 480 14 14 (2257920)
I0403 21:51:24.534793 13064 net.cpp:156] Memory required for data: 818271264
I0403 21:51:24.534808 13064 layer_factory.hpp:77] Creating layer pool3/3x3_s2_pool3/3x3_s2_0_split
I0403 21:51:24.534824 13064 net.cpp:91] Creating Layer pool3/3x3_s2_pool3/3x3_s2_0_split
I0403 21:51:24.534839 13064 net.cpp:425] pool3/3x3_s2_pool3/3x3_s2_0_split <- pool3/3x3_s2
I0403 21:51:24.534858 13064 net.cpp:399] pool3/3x3_s2_pool3/3x3_s2_0_split -> pool3/3x3_s2_pool3/3x3_s2_0_split_0
I0403 21:51:24.534878 13064 net.cpp:399] pool3/3x3_s2_pool3/3x3_s2_0_split -> pool3/3x3_s2_pool3/3x3_s2_0_split_1
I0403 21:51:24.534898 13064 net.cpp:399] pool3/3x3_s2_pool3/3x3_s2_0_split -> pool3/3x3_s2_pool3/3x3_s2_0_split_2
I0403 21:51:24.534915 13064 net.cpp:399] pool3/3x3_s2_pool3/3x3_s2_0_split -> pool3/3x3_s2_pool3/3x3_s2_0_split_3
I0403 21:51:24.534986 13064 net.cpp:141] Setting up pool3/3x3_s2_pool3/3x3_s2_0_split
I0403 21:51:24.535012 13064 net.cpp:148] Top shape: 24 480 14 14 (2257920)
I0403 21:51:24.535027 13064 net.cpp:148] Top shape: 24 480 14 14 (2257920)
I0403 21:51:24.535043 13064 net.cpp:148] Top shape: 24 480 14 14 (2257920)
I0403 21:51:24.535058 13064 net.cpp:148] Top shape: 24 480 14 14 (2257920)
I0403 21:51:24.535070 13064 net.cpp:156] Memory required for data: 854397984
I0403 21:51:24.535084 13064 layer_factory.hpp:77] Creating layer inception_4a/1x1
I0403 21:51:24.535104 13064 net.cpp:91] Creating Layer inception_4a/1x1
I0403 21:51:24.535122 13064 net.cpp:425] inception_4a/1x1 <- pool3/3x3_s2_pool3/3x3_s2_0_split_0
I0403 21:51:24.535140 13064 net.cpp:399] inception_4a/1x1 -> inception_4a/1x1
I0403 21:51:24.536617 13064 net.cpp:141] Setting up inception_4a/1x1
I0403 21:51:24.536644 13064 net.cpp:148] Top shape: 24 192 14 14 (903168)
I0403 21:51:24.536660 13064 net.cpp:156] Memory required for data: 858010656
I0403 21:51:24.536679 13064 layer_factory.hpp:77] Creating layer inception_4a/relu_1x1
I0403 21:51:24.536695 13064 net.cpp:91] Creating Layer inception_4a/relu_1x1
I0403 21:51:24.536710 13064 net.cpp:425] inception_4a/relu_1x1 <- inception_4a/1x1
I0403 21:51:24.536730 13064 net.cpp:386] inception_4a/relu_1x1 -> inception_4a/1x1 (in-place)
I0403 21:51:24.536897 13064 net.cpp:141] Setting up inception_4a/relu_1x1
I0403 21:51:24.536921 13064 net.cpp:148] Top shape: 24 192 14 14 (903168)
I0403 21:51:24.536934 13064 net.cpp:156] Memory required for data: 861623328
I0403 21:51:24.536947 13064 layer_factory.hpp:77] Creating layer inception_4a/3x3_reduce
I0403 21:51:24.536968 13064 net.cpp:91] Creating Layer inception_4a/3x3_reduce
I0403 21:51:24.536985 13064 net.cpp:425] inception_4a/3x3_reduce <- pool3/3x3_s2_pool3/3x3_s2_0_split_1
I0403 21:51:24.537005 13064 net.cpp:399] inception_4a/3x3_reduce -> inception_4a/3x3_reduce
I0403 21:51:24.538203 13064 net.cpp:141] Setting up inception_4a/3x3_reduce
I0403 21:51:24.538230 13064 net.cpp:148] Top shape: 24 96 14 14 (451584)
I0403 21:51:24.538246 13064 net.cpp:156] Memory required for data: 863429664
I0403 21:51:24.538267 13064 layer_factory.hpp:77] Creating layer inception_4a/relu_3x3_reduce
I0403 21:51:24.538288 13064 net.cpp:91] Creating Layer inception_4a/relu_3x3_reduce
I0403 21:51:24.538305 13064 net.cpp:425] inception_4a/relu_3x3_reduce <- inception_4a/3x3_reduce
I0403 21:51:24.538322 13064 net.cpp:386] inception_4a/relu_3x3_reduce -> inception_4a/3x3_reduce (in-place)
I0403 21:51:24.538493 13064 net.cpp:141] Setting up inception_4a/relu_3x3_reduce
I0403 21:51:24.538517 13064 net.cpp:148] Top shape: 24 96 14 14 (451584)
I0403 21:51:24.538532 13064 net.cpp:156] Memory required for data: 865236000
I0403 21:51:24.538545 13064 layer_factory.hpp:77] Creating layer inception_4a/3x3
I0403 21:51:24.538568 13064 net.cpp:91] Creating Layer inception_4a/3x3
I0403 21:51:24.538585 13064 net.cpp:425] inception_4a/3x3 <- inception_4a/3x3_reduce
I0403 21:51:24.538605 13064 net.cpp:399] inception_4a/3x3 -> inception_4a/3x3
I0403 21:51:24.541154 13064 net.cpp:141] Setting up inception_4a/3x3
I0403 21:51:24.541187 13064 net.cpp:148] Top shape: 24 208 14 14 (978432)
I0403 21:51:24.541203 13064 net.cpp:156] Memory required for data: 869149728
I0403 21:51:24.541220 13064 layer_factory.hpp:77] Creating layer inception_4a/relu_3x3
I0403 21:51:24.541241 13064 net.cpp:91] Creating Layer inception_4a/relu_3x3
I0403 21:51:24.541259 13064 net.cpp:425] inception_4a/relu_3x3 <- inception_4a/3x3
I0403 21:51:24.541275 13064 net.cpp:386] inception_4a/relu_3x3 -> inception_4a/3x3 (in-place)
I0403 21:51:24.541540 13064 net.cpp:141] Setting up inception_4a/relu_3x3
I0403 21:51:24.541566 13064 net.cpp:148] Top shape: 24 208 14 14 (978432)
I0403 21:51:24.541580 13064 net.cpp:156] Memory required for data: 873063456
I0403 21:51:24.541594 13064 layer_factory.hpp:77] Creating layer inception_4a/5x5_reduce
I0403 21:51:24.541616 13064 net.cpp:91] Creating Layer inception_4a/5x5_reduce
I0403 21:51:24.541633 13064 net.cpp:425] inception_4a/5x5_reduce <- pool3/3x3_s2_pool3/3x3_s2_0_split_2
I0403 21:51:24.541653 13064 net.cpp:399] inception_4a/5x5_reduce -> inception_4a/5x5_reduce
I0403 21:51:24.542621 13064 net.cpp:141] Setting up inception_4a/5x5_reduce
I0403 21:51:24.542647 13064 net.cpp:148] Top shape: 24 16 14 14 (75264)
I0403 21:51:24.542662 13064 net.cpp:156] Memory required for data: 873364512
I0403 21:51:24.542680 13064 layer_factory.hpp:77] Creating layer inception_4a/relu_5x5_reduce
I0403 21:51:24.542700 13064 net.cpp:91] Creating Layer inception_4a/relu_5x5_reduce
I0403 21:51:24.542716 13064 net.cpp:425] inception_4a/relu_5x5_reduce <- inception_4a/5x5_reduce
I0403 21:51:24.542733 13064 net.cpp:386] inception_4a/relu_5x5_reduce -> inception_4a/5x5_reduce (in-place)
I0403 21:51:24.542906 13064 net.cpp:141] Setting up inception_4a/relu_5x5_reduce
I0403 21:51:24.542929 13064 net.cpp:148] Top shape: 24 16 14 14 (75264)
I0403 21:51:24.542944 13064 net.cpp:156] Memory required for data: 873665568
I0403 21:51:24.542964 13064 layer_factory.hpp:77] Creating layer inception_4a/5x5
I0403 21:51:24.542986 13064 net.cpp:91] Creating Layer inception_4a/5x5
I0403 21:51:24.543004 13064 net.cpp:425] inception_4a/5x5 <- inception_4a/5x5_reduce
I0403 21:51:24.543020 13064 net.cpp:399] inception_4a/5x5 -> inception_4a/5x5
I0403 21:51:24.544050 13064 net.cpp:141] Setting up inception_4a/5x5
I0403 21:51:24.544080 13064 net.cpp:148] Top shape: 24 48 14 14 (225792)
I0403 21:51:24.544095 13064 net.cpp:156] Memory required for data: 874568736
I0403 21:51:24.544112 13064 layer_factory.hpp:77] Creating layer inception_4a/relu_5x5
I0403 21:51:24.544129 13064 net.cpp:91] Creating Layer inception_4a/relu_5x5
I0403 21:51:24.544145 13064 net.cpp:425] inception_4a/relu_5x5 <- inception_4a/5x5
I0403 21:51:24.544162 13064 net.cpp:386] inception_4a/relu_5x5 -> inception_4a/5x5 (in-place)
I0403 21:51:24.544355 13064 net.cpp:141] Setting up inception_4a/relu_5x5
I0403 21:51:24.544383 13064 net.cpp:148] Top shape: 24 48 14 14 (225792)
I0403 21:51:24.544397 13064 net.cpp:156] Memory required for data: 875471904
I0403 21:51:24.544411 13064 layer_factory.hpp:77] Creating layer inception_4a/pool
I0403 21:51:24.544428 13064 net.cpp:91] Creating Layer inception_4a/pool
I0403 21:51:24.544445 13064 net.cpp:425] inception_4a/pool <- pool3/3x3_s2_pool3/3x3_s2_0_split_3
I0403 21:51:24.544464 13064 net.cpp:399] inception_4a/pool -> inception_4a/pool
I0403 21:51:24.544523 13064 net.cpp:141] Setting up inception_4a/pool
I0403 21:51:24.544553 13064 net.cpp:148] Top shape: 24 480 14 14 (2257920)
I0403 21:51:24.544569 13064 net.cpp:156] Memory required for data: 884503584
I0403 21:51:24.544581 13064 layer_factory.hpp:77] Creating layer inception_4a/pool_proj
I0403 21:51:24.544602 13064 net.cpp:91] Creating Layer inception_4a/pool_proj
I0403 21:51:24.544620 13064 net.cpp:425] inception_4a/pool_proj <- inception_4a/pool
I0403 21:51:24.544638 13064 net.cpp:399] inception_4a/pool_proj -> inception_4a/pool_proj
I0403 21:51:24.545804 13064 net.cpp:141] Setting up inception_4a/pool_proj
I0403 21:51:24.545836 13064 net.cpp:148] Top shape: 24 64 14 14 (301056)
I0403 21:51:24.545866 13064 net.cpp:156] Memory required for data: 885707808
I0403 21:51:24.545884 13064 layer_factory.hpp:77] Creating layer inception_4a/relu_pool_proj
I0403 21:51:24.545902 13064 net.cpp:91] Creating Layer inception_4a/relu_pool_proj
I0403 21:51:24.545917 13064 net.cpp:425] inception_4a/relu_pool_proj <- inception_4a/pool_proj
I0403 21:51:24.545938 13064 net.cpp:386] inception_4a/relu_pool_proj -> inception_4a/pool_proj (in-place)
I0403 21:51:24.546221 13064 net.cpp:141] Setting up inception_4a/relu_pool_proj
I0403 21:51:24.546248 13064 net.cpp:148] Top shape: 24 64 14 14 (301056)
I0403 21:51:24.546264 13064 net.cpp:156] Memory required for data: 886912032
I0403 21:51:24.546278 13064 layer_factory.hpp:77] Creating layer inception_4a/output
I0403 21:51:24.546296 13064 net.cpp:91] Creating Layer inception_4a/output
I0403 21:51:24.546311 13064 net.cpp:425] inception_4a/output <- inception_4a/1x1
I0403 21:51:24.546327 13064 net.cpp:425] inception_4a/output <- inception_4a/3x3
I0403 21:51:24.546342 13064 net.cpp:425] inception_4a/output <- inception_4a/5x5
I0403 21:51:24.546357 13064 net.cpp:425] inception_4a/output <- inception_4a/pool_proj
I0403 21:51:24.546373 13064 net.cpp:399] inception_4a/output -> inception_4a/output
I0403 21:51:24.546418 13064 net.cpp:141] Setting up inception_4a/output
I0403 21:51:24.546440 13064 net.cpp:148] Top shape: 24 512 14 14 (2408448)
I0403 21:51:24.546454 13064 net.cpp:156] Memory required for data: 896545824
I0403 21:51:24.546469 13064 layer_factory.hpp:77] Creating layer inception_4a/output_inception_4a/output_0_split
I0403 21:51:24.546489 13064 net.cpp:91] Creating Layer inception_4a/output_inception_4a/output_0_split
I0403 21:51:24.546504 13064 net.cpp:425] inception_4a/output_inception_4a/output_0_split <- inception_4a/output
I0403 21:51:24.546521 13064 net.cpp:399] inception_4a/output_inception_4a/output_0_split -> inception_4a/output_inception_4a/output_0_split_0
I0403 21:51:24.546541 13064 net.cpp:399] inception_4a/output_inception_4a/output_0_split -> inception_4a/output_inception_4a/output_0_split_1
I0403 21:51:24.546561 13064 net.cpp:399] inception_4a/output_inception_4a/output_0_split -> inception_4a/output_inception_4a/output_0_split_2
I0403 21:51:24.546582 13064 net.cpp:399] inception_4a/output_inception_4a/output_0_split -> inception_4a/output_inception_4a/output_0_split_3
I0403 21:51:24.546602 13064 net.cpp:399] inception_4a/output_inception_4a/output_0_split -> inception_4a/output_inception_4a/output_0_split_4
I0403 21:51:24.546690 13064 net.cpp:141] Setting up inception_4a/output_inception_4a/output_0_split
I0403 21:51:24.546712 13064 net.cpp:148] Top shape: 24 512 14 14 (2408448)
I0403 21:51:24.546728 13064 net.cpp:148] Top shape: 24 512 14 14 (2408448)
I0403 21:51:24.546743 13064 net.cpp:148] Top shape: 24 512 14 14 (2408448)
I0403 21:51:24.546758 13064 net.cpp:148] Top shape: 24 512 14 14 (2408448)
I0403 21:51:24.546773 13064 net.cpp:148] Top shape: 24 512 14 14 (2408448)
I0403 21:51:24.546787 13064 net.cpp:156] Memory required for data: 944714784
I0403 21:51:24.546800 13064 layer_factory.hpp:77] Creating layer loss1/ave_pool
I0403 21:51:24.546820 13064 net.cpp:91] Creating Layer loss1/ave_pool
I0403 21:51:24.546836 13064 net.cpp:425] loss1/ave_pool <- inception_4a/output_inception_4a/output_0_split_0
I0403 21:51:24.546854 13064 net.cpp:399] loss1/ave_pool -> loss1/ave_pool
I0403 21:51:24.547057 13064 net.cpp:141] Setting up loss1/ave_pool
I0403 21:51:24.547086 13064 net.cpp:148] Top shape: 24 512 4 4 (196608)
I0403 21:51:24.547101 13064 net.cpp:156] Memory required for data: 945501216
I0403 21:51:24.547116 13064 layer_factory.hpp:77] Creating layer loss1/conv
I0403 21:51:24.547137 13064 net.cpp:91] Creating Layer loss1/conv
I0403 21:51:24.547154 13064 net.cpp:425] loss1/conv <- loss1/ave_pool
I0403 21:51:24.547173 13064 net.cpp:399] loss1/conv -> loss1/conv
I0403 21:51:24.548545 13064 net.cpp:141] Setting up loss1/conv
I0403 21:51:24.548573 13064 net.cpp:148] Top shape: 24 128 4 4 (49152)
I0403 21:51:24.548588 13064 net.cpp:156] Memory required for data: 945697824
I0403 21:51:24.548619 13064 layer_factory.hpp:77] Creating layer loss1/relu_conv
I0403 21:51:24.548640 13064 net.cpp:91] Creating Layer loss1/relu_conv
I0403 21:51:24.548658 13064 net.cpp:425] loss1/relu_conv <- loss1/conv
I0403 21:51:24.548674 13064 net.cpp:386] loss1/relu_conv -> loss1/conv (in-place)
I0403 21:51:24.548948 13064 net.cpp:141] Setting up loss1/relu_conv
I0403 21:51:24.548974 13064 net.cpp:148] Top shape: 24 128 4 4 (49152)
I0403 21:51:24.548988 13064 net.cpp:156] Memory required for data: 945894432
I0403 21:51:24.549003 13064 layer_factory.hpp:77] Creating layer loss1/fc
I0403 21:51:24.549028 13064 net.cpp:91] Creating Layer loss1/fc
I0403 21:51:24.549046 13064 net.cpp:425] loss1/fc <- loss1/conv
I0403 21:51:24.549064 13064 net.cpp:399] loss1/fc -> loss1/fc
I0403 21:51:24.566712 13064 net.cpp:141] Setting up loss1/fc
I0403 21:51:24.566752 13064 net.cpp:148] Top shape: 24 1024 (24576)
I0403 21:51:24.566766 13064 net.cpp:156] Memory required for data: 945992736
I0403 21:51:24.566784 13064 layer_factory.hpp:77] Creating layer loss1/relu_fc
I0403 21:51:24.566802 13064 net.cpp:91] Creating Layer loss1/relu_fc
I0403 21:51:24.566815 13064 net.cpp:425] loss1/relu_fc <- loss1/fc
I0403 21:51:24.566834 13064 net.cpp:386] loss1/relu_fc -> loss1/fc (in-place)
I0403 21:51:24.567018 13064 net.cpp:141] Setting up loss1/relu_fc
I0403 21:51:24.567042 13064 net.cpp:148] Top shape: 24 1024 (24576)
I0403 21:51:24.567057 13064 net.cpp:156] Memory required for data: 946091040
I0403 21:51:24.567071 13064 layer_factory.hpp:77] Creating layer loss1/drop_fc
I0403 21:51:24.567095 13064 net.cpp:91] Creating Layer loss1/drop_fc
I0403 21:51:24.567112 13064 net.cpp:425] loss1/drop_fc <- loss1/fc
I0403 21:51:24.567131 13064 net.cpp:386] loss1/drop_fc -> loss1/fc (in-place)
I0403 21:51:24.567184 13064 net.cpp:141] Setting up loss1/drop_fc
I0403 21:51:24.567208 13064 net.cpp:148] Top shape: 24 1024 (24576)
I0403 21:51:24.567221 13064 net.cpp:156] Memory required for data: 946189344
I0403 21:51:24.567236 13064 layer_factory.hpp:77] Creating layer loss1/classifier_plantvillage
I0403 21:51:24.567256 13064 net.cpp:91] Creating Layer loss1/classifier_plantvillage
I0403 21:51:24.567273 13064 net.cpp:425] loss1/classifier_plantvillage <- loss1/fc
I0403 21:51:24.567293 13064 net.cpp:399] loss1/classifier_plantvillage -> loss1/classifier_plantvillage
I0403 21:51:24.568191 13064 net.cpp:141] Setting up loss1/classifier_plantvillage
I0403 21:51:24.568217 13064 net.cpp:148] Top shape: 24 38 (912)
I0403 21:51:24.568233 13064 net.cpp:156] Memory required for data: 946192992
I0403 21:51:24.568249 13064 layer_factory.hpp:77] Creating layer loss1/classifier_plantvillage_loss1/classifier_plantvillage_0_split
I0403 21:51:24.568265 13064 net.cpp:91] Creating Layer loss1/classifier_plantvillage_loss1/classifier_plantvillage_0_split
I0403 21:51:24.568282 13064 net.cpp:425] loss1/classifier_plantvillage_loss1/classifier_plantvillage_0_split <- loss1/classifier_plantvillage
I0403 21:51:24.568301 13064 net.cpp:399] loss1/classifier_plantvillage_loss1/classifier_plantvillage_0_split -> loss1/classifier_plantvillage_loss1/classifier_plantvillage_0_split_0
I0403 21:51:24.568321 13064 net.cpp:399] loss1/classifier_plantvillage_loss1/classifier_plantvillage_0_split -> loss1/classifier_plantvillage_loss1/classifier_plantvillage_0_split_1
I0403 21:51:24.568341 13064 net.cpp:399] loss1/classifier_plantvillage_loss1/classifier_plantvillage_0_split -> loss1/classifier_plantvillage_loss1/classifier_plantvillage_0_split_2
I0403 21:51:24.568403 13064 net.cpp:141] Setting up loss1/classifier_plantvillage_loss1/classifier_plantvillage_0_split
I0403 21:51:24.568428 13064 net.cpp:148] Top shape: 24 38 (912)
I0403 21:51:24.568444 13064 net.cpp:148] Top shape: 24 38 (912)
I0403 21:51:24.568459 13064 net.cpp:148] Top shape: 24 38 (912)
I0403 21:51:24.568472 13064 net.cpp:156] Memory required for data: 946203936
I0403 21:51:24.568486 13064 layer_factory.hpp:77] Creating layer inception_4b/1x1
I0403 21:51:24.568506 13064 net.cpp:91] Creating Layer inception_4b/1x1
I0403 21:51:24.568538 13064 net.cpp:425] inception_4b/1x1 <- inception_4a/output_inception_4a/output_0_split_1
I0403 21:51:24.568557 13064 net.cpp:399] inception_4b/1x1 -> inception_4b/1x1
I0403 21:51:24.570096 13064 net.cpp:141] Setting up inception_4b/1x1
I0403 21:51:24.570124 13064 net.cpp:148] Top shape: 24 160 14 14 (752640)
I0403 21:51:24.570139 13064 net.cpp:156] Memory required for data: 949214496
I0403 21:51:24.570157 13064 layer_factory.hpp:77] Creating layer inception_4b/relu_1x1
I0403 21:51:24.570175 13064 net.cpp:91] Creating Layer inception_4b/relu_1x1
I0403 21:51:24.570197 13064 net.cpp:425] inception_4b/relu_1x1 <- inception_4b/1x1
I0403 21:51:24.570214 13064 net.cpp:386] inception_4b/relu_1x1 -> inception_4b/1x1 (in-place)
I0403 21:51:24.570389 13064 net.cpp:141] Setting up inception_4b/relu_1x1
I0403 21:51:24.570412 13064 net.cpp:148] Top shape: 24 160 14 14 (752640)
I0403 21:51:24.570426 13064 net.cpp:156] Memory required for data: 952225056
I0403 21:51:24.570441 13064 layer_factory.hpp:77] Creating layer inception_4b/3x3_reduce
I0403 21:51:24.570463 13064 net.cpp:91] Creating Layer inception_4b/3x3_reduce
I0403 21:51:24.570480 13064 net.cpp:425] inception_4b/3x3_reduce <- inception_4a/output_inception_4a/output_0_split_2
I0403 21:51:24.570498 13064 net.cpp:399] inception_4b/3x3_reduce -> inception_4b/3x3_reduce
I0403 21:51:24.571773 13064 net.cpp:141] Setting up inception_4b/3x3_reduce
I0403 21:51:24.571799 13064 net.cpp:148] Top shape: 24 112 14 14 (526848)
I0403 21:51:24.571813 13064 net.cpp:156] Memory required for data: 954332448
I0403 21:51:24.571830 13064 layer_factory.hpp:77] Creating layer inception_4b/relu_3x3_reduce
I0403 21:51:24.571851 13064 net.cpp:91] Creating Layer inception_4b/relu_3x3_reduce
I0403 21:51:24.571868 13064 net.cpp:425] inception_4b/relu_3x3_reduce <- inception_4b/3x3_reduce
I0403 21:51:24.571884 13064 net.cpp:386] inception_4b/relu_3x3_reduce -> inception_4b/3x3_reduce (in-place)
I0403 21:51:24.572157 13064 net.cpp:141] Setting up inception_4b/relu_3x3_reduce
I0403 21:51:24.572192 13064 net.cpp:148] Top shape: 24 112 14 14 (526848)
I0403 21:51:24.572209 13064 net.cpp:156] Memory required for data: 956439840
I0403 21:51:24.572223 13064 layer_factory.hpp:77] Creating layer inception_4b/3x3
I0403 21:51:24.572247 13064 net.cpp:91] Creating Layer inception_4b/3x3
I0403 21:51:24.572263 13064 net.cpp:425] inception_4b/3x3 <- inception_4b/3x3_reduce
I0403 21:51:24.572283 13064 net.cpp:399] inception_4b/3x3 -> inception_4b/3x3
I0403 21:51:24.575134 13064 net.cpp:141] Setting up inception_4b/3x3
I0403 21:51:24.575163 13064 net.cpp:148] Top shape: 24 224 14 14 (1053696)
I0403 21:51:24.575183 13064 net.cpp:156] Memory required for data: 960654624
I0403 21:51:24.575203 13064 layer_factory.hpp:77] Creating layer inception_4b/relu_3x3
I0403 21:51:24.575222 13064 net.cpp:91] Creating Layer inception_4b/relu_3x3
I0403 21:51:24.575237 13064 net.cpp:425] inception_4b/relu_3x3 <- inception_4b/3x3
I0403 21:51:24.575256 13064 net.cpp:386] inception_4b/relu_3x3 -> inception_4b/3x3 (in-place)
I0403 21:51:24.575431 13064 net.cpp:141] Setting up inception_4b/relu_3x3
I0403 21:51:24.575454 13064 net.cpp:148] Top shape: 24 224 14 14 (1053696)
I0403 21:51:24.575469 13064 net.cpp:156] Memory required for data: 964869408
I0403 21:51:24.575482 13064 layer_factory.hpp:77] Creating layer inception_4b/5x5_reduce
I0403 21:51:24.575506 13064 net.cpp:91] Creating Layer inception_4b/5x5_reduce
I0403 21:51:24.575525 13064 net.cpp:425] inception_4b/5x5_reduce <- inception_4a/output_inception_4a/output_0_split_3
I0403 21:51:24.575546 13064 net.cpp:399] inception_4b/5x5_reduce -> inception_4b/5x5_reduce
I0403 21:51:24.576576 13064 net.cpp:141] Setting up inception_4b/5x5_reduce
I0403 21:51:24.576602 13064 net.cpp:148] Top shape: 24 24 14 14 (112896)
I0403 21:51:24.576617 13064 net.cpp:156] Memory required for data: 965320992
I0403 21:51:24.576633 13064 layer_factory.hpp:77] Creating layer inception_4b/relu_5x5_reduce
I0403 21:51:24.576653 13064 net.cpp:91] Creating Layer inception_4b/relu_5x5_reduce
I0403 21:51:24.576681 13064 net.cpp:425] inception_4b/relu_5x5_reduce <- inception_4b/5x5_reduce
I0403 21:51:24.576699 13064 net.cpp:386] inception_4b/relu_5x5_reduce -> inception_4b/5x5_reduce (in-place)
I0403 21:51:24.576872 13064 net.cpp:141] Setting up inception_4b/relu_5x5_reduce
I0403 21:51:24.576899 13064 net.cpp:148] Top shape: 24 24 14 14 (112896)
I0403 21:51:24.576913 13064 net.cpp:156] Memory required for data: 965772576
I0403 21:51:24.576926 13064 layer_factory.hpp:77] Creating layer inception_4b/5x5
I0403 21:51:24.576947 13064 net.cpp:91] Creating Layer inception_4b/5x5
I0403 21:51:24.576964 13064 net.cpp:425] inception_4b/5x5 <- inception_4b/5x5_reduce
I0403 21:51:24.576982 13064 net.cpp:399] inception_4b/5x5 -> inception_4b/5x5
I0403 21:51:24.578141 13064 net.cpp:141] Setting up inception_4b/5x5
I0403 21:51:24.578168 13064 net.cpp:148] Top shape: 24 64 14 14 (301056)
I0403 21:51:24.578188 13064 net.cpp:156] Memory required for data: 966976800
I0403 21:51:24.578207 13064 layer_factory.hpp:77] Creating layer inception_4b/relu_5x5
I0403 21:51:24.578227 13064 net.cpp:91] Creating Layer inception_4b/relu_5x5
I0403 21:51:24.578243 13064 net.cpp:425] inception_4b/relu_5x5 <- inception_4b/5x5
I0403 21:51:24.578259 13064 net.cpp:386] inception_4b/relu_5x5 -> inception_4b/5x5 (in-place)
I0403 21:51:24.578531 13064 net.cpp:141] Setting up inception_4b/relu_5x5
I0403 21:51:24.578555 13064 net.cpp:148] Top shape: 24 64 14 14 (301056)
I0403 21:51:24.578569 13064 net.cpp:156] Memory required for data: 968181024
I0403 21:51:24.578584 13064 layer_factory.hpp:77] Creating layer inception_4b/pool
I0403 21:51:24.578603 13064 net.cpp:91] Creating Layer inception_4b/pool
I0403 21:51:24.578619 13064 net.cpp:425] inception_4b/pool <- inception_4a/output_inception_4a/output_0_split_4
I0403 21:51:24.578636 13064 net.cpp:399] inception_4b/pool -> inception_4b/pool
I0403 21:51:24.578698 13064 net.cpp:141] Setting up inception_4b/pool
I0403 21:51:24.578722 13064 net.cpp:148] Top shape: 24 512 14 14 (2408448)
I0403 21:51:24.578735 13064 net.cpp:156] Memory required for data: 977814816
I0403 21:51:24.578749 13064 layer_factory.hpp:77] Creating layer inception_4b/pool_proj
I0403 21:51:24.578774 13064 net.cpp:91] Creating Layer inception_4b/pool_proj
I0403 21:51:24.578791 13064 net.cpp:425] inception_4b/pool_proj <- inception_4b/pool
I0403 21:51:24.578811 13064 net.cpp:399] inception_4b/pool_proj -> inception_4b/pool_proj
I0403 21:51:24.579952 13064 net.cpp:141] Setting up inception_4b/pool_proj
I0403 21:51:24.579978 13064 net.cpp:148] Top shape: 24 64 14 14 (301056)
I0403 21:51:24.579993 13064 net.cpp:156] Memory required for data: 979019040
I0403 21:51:24.580010 13064 layer_factory.hpp:77] Creating layer inception_4b/relu_pool_proj
I0403 21:51:24.580031 13064 net.cpp:91] Creating Layer inception_4b/relu_pool_proj
I0403 21:51:24.580047 13064 net.cpp:425] inception_4b/relu_pool_proj <- inception_4b/pool_proj
I0403 21:51:24.580063 13064 net.cpp:386] inception_4b/relu_pool_proj -> inception_4b/pool_proj (in-place)
I0403 21:51:24.580243 13064 net.cpp:141] Setting up inception_4b/relu_pool_proj
I0403 21:51:24.580270 13064 net.cpp:148] Top shape: 24 64 14 14 (301056)
I0403 21:51:24.580284 13064 net.cpp:156] Memory required for data: 980223264
I0403 21:51:24.580297 13064 layer_factory.hpp:77] Creating layer inception_4b/output
I0403 21:51:24.580313 13064 net.cpp:91] Creating Layer inception_4b/output
I0403 21:51:24.580329 13064 net.cpp:425] inception_4b/output <- inception_4b/1x1
I0403 21:51:24.580344 13064 net.cpp:425] inception_4b/output <- inception_4b/3x3
I0403 21:51:24.580359 13064 net.cpp:425] inception_4b/output <- inception_4b/5x5
I0403 21:51:24.580374 13064 net.cpp:425] inception_4b/output <- inception_4b/pool_proj
I0403 21:51:24.580389 13064 net.cpp:399] inception_4b/output -> inception_4b/output
I0403 21:51:24.580433 13064 net.cpp:141] Setting up inception_4b/output
I0403 21:51:24.580454 13064 net.cpp:148] Top shape: 24 512 14 14 (2408448)
I0403 21:51:24.580468 13064 net.cpp:156] Memory required for data: 989857056
I0403 21:51:24.580495 13064 layer_factory.hpp:77] Creating layer inception_4b/output_inception_4b/output_0_split
I0403 21:51:24.580513 13064 net.cpp:91] Creating Layer inception_4b/output_inception_4b/output_0_split
I0403 21:51:24.580526 13064 net.cpp:425] inception_4b/output_inception_4b/output_0_split <- inception_4b/output
I0403 21:51:24.580545 13064 net.cpp:399] inception_4b/output_inception_4b/output_0_split -> inception_4b/output_inception_4b/output_0_split_0
I0403 21:51:24.580565 13064 net.cpp:399] inception_4b/output_inception_4b/output_0_split -> inception_4b/output_inception_4b/output_0_split_1
I0403 21:51:24.580585 13064 net.cpp:399] inception_4b/output_inception_4b/output_0_split -> inception_4b/output_inception_4b/output_0_split_2
I0403 21:51:24.580606 13064 net.cpp:399] inception_4b/output_inception_4b/output_0_split -> inception_4b/output_inception_4b/output_0_split_3
I0403 21:51:24.580685 13064 net.cpp:141] Setting up inception_4b/output_inception_4b/output_0_split
I0403 21:51:24.580708 13064 net.cpp:148] Top shape: 24 512 14 14 (2408448)
I0403 21:51:24.580723 13064 net.cpp:148] Top shape: 24 512 14 14 (2408448)
I0403 21:51:24.580737 13064 net.cpp:148] Top shape: 24 512 14 14 (2408448)
I0403 21:51:24.580751 13064 net.cpp:148] Top shape: 24 512 14 14 (2408448)
I0403 21:51:24.580765 13064 net.cpp:156] Memory required for data: 1028392224
I0403 21:51:24.580778 13064 layer_factory.hpp:77] Creating layer inception_4c/1x1
I0403 21:51:24.580798 13064 net.cpp:91] Creating Layer inception_4c/1x1
I0403 21:51:24.580814 13064 net.cpp:425] inception_4c/1x1 <- inception_4b/output_inception_4b/output_0_split_0
I0403 21:51:24.580834 13064 net.cpp:399] inception_4c/1x1 -> inception_4c/1x1
I0403 21:51:24.582196 13064 net.cpp:141] Setting up inception_4c/1x1
I0403 21:51:24.582226 13064 net.cpp:148] Top shape: 24 128 14 14 (602112)
I0403 21:51:24.582242 13064 net.cpp:156] Memory required for data: 1030800672
I0403 21:51:24.582260 13064 layer_factory.hpp:77] Creating layer inception_4c/relu_1x1
I0403 21:51:24.582278 13064 net.cpp:91] Creating Layer inception_4c/relu_1x1
I0403 21:51:24.582293 13064 net.cpp:425] inception_4c/relu_1x1 <- inception_4c/1x1
I0403 21:51:24.582315 13064 net.cpp:386] inception_4c/relu_1x1 -> inception_4c/1x1 (in-place)
I0403 21:51:24.582489 13064 net.cpp:141] Setting up inception_4c/relu_1x1
I0403 21:51:24.582512 13064 net.cpp:148] Top shape: 24 128 14 14 (602112)
I0403 21:51:24.582526 13064 net.cpp:156] Memory required for data: 1033209120
I0403 21:51:24.582540 13064 layer_factory.hpp:77] Creating layer inception_4c/3x3_reduce
I0403 21:51:24.582561 13064 net.cpp:91] Creating Layer inception_4c/3x3_reduce
I0403 21:51:24.582577 13064 net.cpp:425] inception_4c/3x3_reduce <- inception_4b/output_inception_4b/output_0_split_1
I0403 21:51:24.582599 13064 net.cpp:399] inception_4c/3x3_reduce -> inception_4c/3x3_reduce
I0403 21:51:24.584477 13064 net.cpp:141] Setting up inception_4c/3x3_reduce
I0403 21:51:24.584506 13064 net.cpp:148] Top shape: 24 128 14 14 (602112)
I0403 21:51:24.584522 13064 net.cpp:156] Memory required for data: 1035617568
I0403 21:51:24.584538 13064 layer_factory.hpp:77] Creating layer inception_4c/relu_3x3_reduce
I0403 21:51:24.584558 13064 net.cpp:91] Creating Layer inception_4c/relu_3x3_reduce
I0403 21:51:24.584575 13064 net.cpp:425] inception_4c/relu_3x3_reduce <- inception_4c/3x3_reduce
I0403 21:51:24.584592 13064 net.cpp:386] inception_4c/relu_3x3_reduce -> inception_4c/3x3_reduce (in-place)
I0403 21:51:24.584863 13064 net.cpp:141] Setting up inception_4c/relu_3x3_reduce
I0403 21:51:24.584888 13064 net.cpp:148] Top shape: 24 128 14 14 (602112)
I0403 21:51:24.584903 13064 net.cpp:156] Memory required for data: 1038026016
I0403 21:51:24.584916 13064 layer_factory.hpp:77] Creating layer inception_4c/3x3
I0403 21:51:24.584941 13064 net.cpp:91] Creating Layer inception_4c/3x3
I0403 21:51:24.584959 13064 net.cpp:425] inception_4c/3x3 <- inception_4c/3x3_reduce
I0403 21:51:24.584980 13064 net.cpp:399] inception_4c/3x3 -> inception_4c/3x3
I0403 21:51:24.588493 13064 net.cpp:141] Setting up inception_4c/3x3
I0403 21:51:24.588532 13064 net.cpp:148] Top shape: 24 256 14 14 (1204224)
I0403 21:51:24.588548 13064 net.cpp:156] Memory required for data: 1042842912
I0403 21:51:24.588579 13064 layer_factory.hpp:77] Creating layer inception_4c/relu_3x3
I0403 21:51:24.588601 13064 net.cpp:91] Creating Layer inception_4c/relu_3x3
I0403 21:51:24.588618 13064 net.cpp:425] inception_4c/relu_3x3 <- inception_4c/3x3
I0403 21:51:24.588634 13064 net.cpp:386] inception_4c/relu_3x3 -> inception_4c/3x3 (in-place)
I0403 21:51:24.588810 13064 net.cpp:141] Setting up inception_4c/relu_3x3
I0403 21:51:24.588835 13064 net.cpp:148] Top shape: 24 256 14 14 (1204224)
I0403 21:51:24.588848 13064 net.cpp:156] Memory required for data: 1047659808
I0403 21:51:24.588861 13064 layer_factory.hpp:77] Creating layer inception_4c/5x5_reduce
I0403 21:51:24.588883 13064 net.cpp:91] Creating Layer inception_4c/5x5_reduce
I0403 21:51:24.588901 13064 net.cpp:425] inception_4c/5x5_reduce <- inception_4b/output_inception_4b/output_0_split_2
I0403 21:51:24.588922 13064 net.cpp:399] inception_4c/5x5_reduce -> inception_4c/5x5_reduce
I0403 21:51:24.589963 13064 net.cpp:141] Setting up inception_4c/5x5_reduce
I0403 21:51:24.589989 13064 net.cpp:148] Top shape: 24 24 14 14 (112896)
I0403 21:51:24.590004 13064 net.cpp:156] Memory required for data: 1048111392
I0403 21:51:24.590021 13064 layer_factory.hpp:77] Creating layer inception_4c/relu_5x5_reduce
I0403 21:51:24.590040 13064 net.cpp:91] Creating Layer inception_4c/relu_5x5_reduce
I0403 21:51:24.590055 13064 net.cpp:425] inception_4c/relu_5x5_reduce <- inception_4c/5x5_reduce
I0403 21:51:24.590071 13064 net.cpp:386] inception_4c/relu_5x5_reduce -> inception_4c/5x5_reduce (in-place)
I0403 21:51:24.590258 13064 net.cpp:141] Setting up inception_4c/relu_5x5_reduce
I0403 21:51:24.590284 13064 net.cpp:148] Top shape: 24 24 14 14 (112896)
I0403 21:51:24.590299 13064 net.cpp:156] Memory required for data: 1048562976
I0403 21:51:24.590313 13064 layer_factory.hpp:77] Creating layer inception_4c/5x5
I0403 21:51:24.590334 13064 net.cpp:91] Creating Layer inception_4c/5x5
I0403 21:51:24.590350 13064 net.cpp:425] inception_4c/5x5 <- inception_4c/5x5_reduce
I0403 21:51:24.590368 13064 net.cpp:399] inception_4c/5x5 -> inception_4c/5x5
I0403 21:51:24.591558 13064 net.cpp:141] Setting up inception_4c/5x5
I0403 21:51:24.591588 13064 net.cpp:148] Top shape: 24 64 14 14 (301056)
I0403 21:51:24.591604 13064 net.cpp:156] Memory required for data: 1049767200
I0403 21:51:24.591621 13064 layer_factory.hpp:77] Creating layer inception_4c/relu_5x5
I0403 21:51:24.591639 13064 net.cpp:91] Creating Layer inception_4c/relu_5x5
I0403 21:51:24.591655 13064 net.cpp:425] inception_4c/relu_5x5 <- inception_4c/5x5
I0403 21:51:24.591672 13064 net.cpp:386] inception_4c/relu_5x5 -> inception_4c/5x5 (in-place)
I0403 21:51:24.591953 13064 net.cpp:141] Setting up inception_4c/relu_5x5
I0403 21:51:24.591980 13064 net.cpp:148] Top shape: 24 64 14 14 (301056)
I0403 21:51:24.591996 13064 net.cpp:156] Memory required for data: 1050971424
I0403 21:51:24.592010 13064 layer_factory.hpp:77] Creating layer inception_4c/pool
I0403 21:51:24.592027 13064 net.cpp:91] Creating Layer inception_4c/pool
I0403 21:51:24.592042 13064 net.cpp:425] inception_4c/pool <- inception_4b/output_inception_4b/output_0_split_3
I0403 21:51:24.592061 13064 net.cpp:399] inception_4c/pool -> inception_4c/pool
I0403 21:51:24.592124 13064 net.cpp:141] Setting up inception_4c/pool
I0403 21:51:24.592149 13064 net.cpp:148] Top shape: 24 512 14 14 (2408448)
I0403 21:51:24.592161 13064 net.cpp:156] Memory required for data: 1060605216
I0403 21:51:24.592175 13064 layer_factory.hpp:77] Creating layer inception_4c/pool_proj
I0403 21:51:24.592208 13064 net.cpp:91] Creating Layer inception_4c/pool_proj
I0403 21:51:24.592226 13064 net.cpp:425] inception_4c/pool_proj <- inception_4c/pool
I0403 21:51:24.592247 13064 net.cpp:399] inception_4c/pool_proj -> inception_4c/pool_proj
I0403 21:51:24.593428 13064 net.cpp:141] Setting up inception_4c/pool_proj
I0403 21:51:24.593456 13064 net.cpp:148] Top shape: 24 64 14 14 (301056)
I0403 21:51:24.593484 13064 net.cpp:156] Memory required for data: 1061809440
I0403 21:51:24.593503 13064 layer_factory.hpp:77] Creating layer inception_4c/relu_pool_proj
I0403 21:51:24.593525 13064 net.cpp:91] Creating Layer inception_4c/relu_pool_proj
I0403 21:51:24.593543 13064 net.cpp:425] inception_4c/relu_pool_proj <- inception_4c/pool_proj
I0403 21:51:24.593559 13064 net.cpp:386] inception_4c/relu_pool_proj -> inception_4c/pool_proj (in-place)
I0403 21:51:24.593745 13064 net.cpp:141] Setting up inception_4c/relu_pool_proj
I0403 21:51:24.593770 13064 net.cpp:148] Top shape: 24 64 14 14 (301056)
I0403 21:51:24.593783 13064 net.cpp:156] Memory required for data: 1063013664
I0403 21:51:24.593798 13064 layer_factory.hpp:77] Creating layer inception_4c/output
I0403 21:51:24.593817 13064 net.cpp:91] Creating Layer inception_4c/output
I0403 21:51:24.593833 13064 net.cpp:425] inception_4c/output <- inception_4c/1x1
I0403 21:51:24.593849 13064 net.cpp:425] inception_4c/output <- inception_4c/3x3
I0403 21:51:24.593864 13064 net.cpp:425] inception_4c/output <- inception_4c/5x5
I0403 21:51:24.593880 13064 net.cpp:425] inception_4c/output <- inception_4c/pool_proj
I0403 21:51:24.593896 13064 net.cpp:399] inception_4c/output -> inception_4c/output
I0403 21:51:24.593943 13064 net.cpp:141] Setting up inception_4c/output
I0403 21:51:24.593966 13064 net.cpp:148] Top shape: 24 512 14 14 (2408448)
I0403 21:51:24.593981 13064 net.cpp:156] Memory required for data: 1072647456
I0403 21:51:24.593993 13064 layer_factory.hpp:77] Creating layer inception_4c/output_inception_4c/output_0_split
I0403 21:51:24.594009 13064 net.cpp:91] Creating Layer inception_4c/output_inception_4c/output_0_split
I0403 21:51:24.594024 13064 net.cpp:425] inception_4c/output_inception_4c/output_0_split <- inception_4c/output
I0403 21:51:24.594043 13064 net.cpp:399] inception_4c/output_inception_4c/output_0_split -> inception_4c/output_inception_4c/output_0_split_0
I0403 21:51:24.594064 13064 net.cpp:399] inception_4c/output_inception_4c/output_0_split -> inception_4c/output_inception_4c/output_0_split_1
I0403 21:51:24.594084 13064 net.cpp:399] inception_4c/output_inception_4c/output_0_split -> inception_4c/output_inception_4c/output_0_split_2
I0403 21:51:24.594102 13064 net.cpp:399] inception_4c/output_inception_4c/output_0_split -> inception_4c/output_inception_4c/output_0_split_3
I0403 21:51:24.594193 13064 net.cpp:141] Setting up inception_4c/output_inception_4c/output_0_split
I0403 21:51:24.594229 13064 net.cpp:148] Top shape: 24 512 14 14 (2408448)
I0403 21:51:24.594246 13064 net.cpp:148] Top shape: 24 512 14 14 (2408448)
I0403 21:51:24.594262 13064 net.cpp:148] Top shape: 24 512 14 14 (2408448)
I0403 21:51:24.594277 13064 net.cpp:148] Top shape: 24 512 14 14 (2408448)
I0403 21:51:24.594291 13064 net.cpp:156] Memory required for data: 1111182624
I0403 21:51:24.594305 13064 layer_factory.hpp:77] Creating layer inception_4d/1x1
I0403 21:51:24.594328 13064 net.cpp:91] Creating Layer inception_4d/1x1
I0403 21:51:24.594346 13064 net.cpp:425] inception_4d/1x1 <- inception_4c/output_inception_4c/output_0_split_0
I0403 21:51:24.594367 13064 net.cpp:399] inception_4d/1x1 -> inception_4d/1x1
I0403 21:51:24.595736 13064 net.cpp:141] Setting up inception_4d/1x1
I0403 21:51:24.595764 13064 net.cpp:148] Top shape: 24 112 14 14 (526848)
I0403 21:51:24.595779 13064 net.cpp:156] Memory required for data: 1113290016
I0403 21:51:24.595798 13064 layer_factory.hpp:77] Creating layer inception_4d/relu_1x1
I0403 21:51:24.595815 13064 net.cpp:91] Creating Layer inception_4d/relu_1x1
I0403 21:51:24.595831 13064 net.cpp:425] inception_4d/relu_1x1 <- inception_4d/1x1
I0403 21:51:24.595851 13064 net.cpp:386] inception_4d/relu_1x1 -> inception_4d/1x1 (in-place)
I0403 21:51:24.596035 13064 net.cpp:141] Setting up inception_4d/relu_1x1
I0403 21:51:24.596058 13064 net.cpp:148] Top shape: 24 112 14 14 (526848)
I0403 21:51:24.596073 13064 net.cpp:156] Memory required for data: 1115397408
I0403 21:51:24.596087 13064 layer_factory.hpp:77] Creating layer inception_4d/3x3_reduce
I0403 21:51:24.596122 13064 net.cpp:91] Creating Layer inception_4d/3x3_reduce
I0403 21:51:24.596141 13064 net.cpp:425] inception_4d/3x3_reduce <- inception_4c/output_inception_4c/output_0_split_1
I0403 21:51:24.596163 13064 net.cpp:399] inception_4d/3x3_reduce -> inception_4d/3x3_reduce
I0403 21:51:24.597645 13064 net.cpp:141] Setting up inception_4d/3x3_reduce
I0403 21:51:24.597674 13064 net.cpp:148] Top shape: 24 144 14 14 (677376)
I0403 21:51:24.597690 13064 net.cpp:156] Memory required for data: 1118106912
I0403 21:51:24.597708 13064 layer_factory.hpp:77] Creating layer inception_4d/relu_3x3_reduce
I0403 21:51:24.597726 13064 net.cpp:91] Creating Layer inception_4d/relu_3x3_reduce
I0403 21:51:24.597743 13064 net.cpp:425] inception_4d/relu_3x3_reduce <- inception_4d/3x3_reduce
I0403 21:51:24.597759 13064 net.cpp:386] inception_4d/relu_3x3_reduce -> inception_4d/3x3_reduce (in-place)
I0403 21:51:24.598045 13064 net.cpp:141] Setting up inception_4d/relu_3x3_reduce
I0403 21:51:24.598073 13064 net.cpp:148] Top shape: 24 144 14 14 (677376)
I0403 21:51:24.598088 13064 net.cpp:156] Memory required for data: 1120816416
I0403 21:51:24.598104 13064 layer_factory.hpp:77] Creating layer inception_4d/3x3
I0403 21:51:24.598125 13064 net.cpp:91] Creating Layer inception_4d/3x3
I0403 21:51:24.598142 13064 net.cpp:425] inception_4d/3x3 <- inception_4d/3x3_reduce
I0403 21:51:24.598160 13064 net.cpp:399] inception_4d/3x3 -> inception_4d/3x3
I0403 21:51:24.602417 13064 net.cpp:141] Setting up inception_4d/3x3
I0403 21:51:24.602447 13064 net.cpp:148] Top shape: 24 288 14 14 (1354752)
I0403 21:51:24.602463 13064 net.cpp:156] Memory required for data: 1126235424
I0403 21:51:24.602481 13064 layer_factory.hpp:77] Creating layer inception_4d/relu_3x3
I0403 21:51:24.602500 13064 net.cpp:91] Creating Layer inception_4d/relu_3x3
I0403 21:51:24.602529 13064 net.cpp:425] inception_4d/relu_3x3 <- inception_4d/3x3
I0403 21:51:24.602547 13064 net.cpp:386] inception_4d/relu_3x3 -> inception_4d/3x3 (in-place)
I0403 21:51:24.602731 13064 net.cpp:141] Setting up inception_4d/relu_3x3
I0403 21:51:24.602756 13064 net.cpp:148] Top shape: 24 288 14 14 (1354752)
I0403 21:51:24.602771 13064 net.cpp:156] Memory required for data: 1131654432
I0403 21:51:24.602785 13064 layer_factory.hpp:77] Creating layer inception_4d/5x5_reduce
I0403 21:51:24.602807 13064 net.cpp:91] Creating Layer inception_4d/5x5_reduce
I0403 21:51:24.602824 13064 net.cpp:425] inception_4d/5x5_reduce <- inception_4c/output_inception_4c/output_0_split_2
I0403 21:51:24.602845 13064 net.cpp:399] inception_4d/5x5_reduce -> inception_4d/5x5_reduce
I0403 21:51:24.603970 13064 net.cpp:141] Setting up inception_4d/5x5_reduce
I0403 21:51:24.603996 13064 net.cpp:148] Top shape: 24 32 14 14 (150528)
I0403 21:51:24.604012 13064 net.cpp:156] Memory required for data: 1132256544
I0403 21:51:24.604029 13064 layer_factory.hpp:77] Creating layer inception_4d/relu_5x5_reduce
I0403 21:51:24.604046 13064 net.cpp:91] Creating Layer inception_4d/relu_5x5_reduce
I0403 21:51:24.604065 13064 net.cpp:425] inception_4d/relu_5x5_reduce <- inception_4d/5x5_reduce
I0403 21:51:24.604084 13064 net.cpp:386] inception_4d/relu_5x5_reduce -> inception_4d/5x5_reduce (in-place)
I0403 21:51:24.604275 13064 net.cpp:141] Setting up inception_4d/relu_5x5_reduce
I0403 21:51:24.604300 13064 net.cpp:148] Top shape: 24 32 14 14 (150528)
I0403 21:51:24.604315 13064 net.cpp:156] Memory required for data: 1132858656
I0403 21:51:24.604328 13064 layer_factory.hpp:77] Creating layer inception_4d/5x5
I0403 21:51:24.604349 13064 net.cpp:91] Creating Layer inception_4d/5x5
I0403 21:51:24.604367 13064 net.cpp:425] inception_4d/5x5 <- inception_4d/5x5_reduce
I0403 21:51:24.604393 13064 net.cpp:399] inception_4d/5x5 -> inception_4d/5x5
I0403 21:51:24.605824 13064 net.cpp:141] Setting up inception_4d/5x5
I0403 21:51:24.605851 13064 net.cpp:148] Top shape: 24 64 14 14 (301056)
I0403 21:51:24.605866 13064 net.cpp:156] Memory required for data: 1134062880
I0403 21:51:24.605887 13064 layer_factory.hpp:77] Creating layer inception_4d/relu_5x5
I0403 21:51:24.605921 13064 net.cpp:91] Creating Layer inception_4d/relu_5x5
I0403 21:51:24.605939 13064 net.cpp:425] inception_4d/relu_5x5 <- inception_4d/5x5
I0403 21:51:24.605957 13064 net.cpp:386] inception_4d/relu_5x5 -> inception_4d/5x5 (in-place)
I0403 21:51:24.606268 13064 net.cpp:141] Setting up inception_4d/relu_5x5
I0403 21:51:24.606295 13064 net.cpp:148] Top shape: 24 64 14 14 (301056)
I0403 21:51:24.606310 13064 net.cpp:156] Memory required for data: 1135267104
I0403 21:51:24.606325 13064 layer_factory.hpp:77] Creating layer inception_4d/pool
I0403 21:51:24.606345 13064 net.cpp:91] Creating Layer inception_4d/pool
I0403 21:51:24.606364 13064 net.cpp:425] inception_4d/pool <- inception_4c/output_inception_4c/output_0_split_3
I0403 21:51:24.606384 13064 net.cpp:399] inception_4d/pool -> inception_4d/pool
I0403 21:51:24.606452 13064 net.cpp:141] Setting up inception_4d/pool
I0403 21:51:24.606477 13064 net.cpp:148] Top shape: 24 512 14 14 (2408448)
I0403 21:51:24.606492 13064 net.cpp:156] Memory required for data: 1144900896
I0403 21:51:24.606518 13064 layer_factory.hpp:77] Creating layer inception_4d/pool_proj
I0403 21:51:24.606539 13064 net.cpp:91] Creating Layer inception_4d/pool_proj
I0403 21:51:24.606557 13064 net.cpp:425] inception_4d/pool_proj <- inception_4d/pool
I0403 21:51:24.606578 13064 net.cpp:399] inception_4d/pool_proj -> inception_4d/pool_proj
I0403 21:51:24.608348 13064 net.cpp:141] Setting up inception_4d/pool_proj
I0403 21:51:24.608377 13064 net.cpp:148] Top shape: 24 64 14 14 (301056)
I0403 21:51:24.608392 13064 net.cpp:156] Memory required for data: 1146105120
I0403 21:51:24.608410 13064 layer_factory.hpp:77] Creating layer inception_4d/relu_pool_proj
I0403 21:51:24.608428 13064 net.cpp:91] Creating Layer inception_4d/relu_pool_proj
I0403 21:51:24.608445 13064 net.cpp:425] inception_4d/relu_pool_proj <- inception_4d/pool_proj
I0403 21:51:24.608464 13064 net.cpp:386] inception_4d/relu_pool_proj -> inception_4d/pool_proj (in-place)
I0403 21:51:24.608652 13064 net.cpp:141] Setting up inception_4d/relu_pool_proj
I0403 21:51:24.608677 13064 net.cpp:148] Top shape: 24 64 14 14 (301056)
I0403 21:51:24.608691 13064 net.cpp:156] Memory required for data: 1147309344
I0403 21:51:24.608705 13064 layer_factory.hpp:77] Creating layer inception_4d/output
I0403 21:51:24.608726 13064 net.cpp:91] Creating Layer inception_4d/output
I0403 21:51:24.608741 13064 net.cpp:425] inception_4d/output <- inception_4d/1x1
I0403 21:51:24.608758 13064 net.cpp:425] inception_4d/output <- inception_4d/3x3
I0403 21:51:24.608774 13064 net.cpp:425] inception_4d/output <- inception_4d/5x5
I0403 21:51:24.608790 13064 net.cpp:425] inception_4d/output <- inception_4d/pool_proj
I0403 21:51:24.608808 13064 net.cpp:399] inception_4d/output -> inception_4d/output
I0403 21:51:24.608855 13064 net.cpp:141] Setting up inception_4d/output
I0403 21:51:24.608877 13064 net.cpp:148] Top shape: 24 528 14 14 (2483712)
I0403 21:51:24.608891 13064 net.cpp:156] Memory required for data: 1157244192
I0403 21:51:24.608906 13064 layer_factory.hpp:77] Creating layer inception_4d/output_inception_4d/output_0_split
I0403 21:51:24.608922 13064 net.cpp:91] Creating Layer inception_4d/output_inception_4d/output_0_split
I0403 21:51:24.608938 13064 net.cpp:425] inception_4d/output_inception_4d/output_0_split <- inception_4d/output
I0403 21:51:24.608958 13064 net.cpp:399] inception_4d/output_inception_4d/output_0_split -> inception_4d/output_inception_4d/output_0_split_0
I0403 21:51:24.608979 13064 net.cpp:399] inception_4d/output_inception_4d/output_0_split -> inception_4d/output_inception_4d/output_0_split_1
I0403 21:51:24.608999 13064 net.cpp:399] inception_4d/output_inception_4d/output_0_split -> inception_4d/output_inception_4d/output_0_split_2
I0403 21:51:24.609019 13064 net.cpp:399] inception_4d/output_inception_4d/output_0_split -> inception_4d/output_inception_4d/output_0_split_3
I0403 21:51:24.609037 13064 net.cpp:399] inception_4d/output_inception_4d/output_0_split -> inception_4d/output_inception_4d/output_0_split_4
I0403 21:51:24.609136 13064 net.cpp:141] Setting up inception_4d/output_inception_4d/output_0_split
I0403 21:51:24.609170 13064 net.cpp:148] Top shape: 24 528 14 14 (2483712)
I0403 21:51:24.609195 13064 net.cpp:148] Top shape: 24 528 14 14 (2483712)
I0403 21:51:24.609212 13064 net.cpp:148] Top shape: 24 528 14 14 (2483712)
I0403 21:51:24.609227 13064 net.cpp:148] Top shape: 24 528 14 14 (2483712)
I0403 21:51:24.609242 13064 net.cpp:148] Top shape: 24 528 14 14 (2483712)
I0403 21:51:24.609256 13064 net.cpp:156] Memory required for data: 1206918432
I0403 21:51:24.609271 13064 layer_factory.hpp:77] Creating layer loss2/ave_pool
I0403 21:51:24.609287 13064 net.cpp:91] Creating Layer loss2/ave_pool
I0403 21:51:24.609303 13064 net.cpp:425] loss2/ave_pool <- inception_4d/output_inception_4d/output_0_split_0
I0403 21:51:24.609323 13064 net.cpp:399] loss2/ave_pool -> loss2/ave_pool
I0403 21:51:24.609630 13064 net.cpp:141] Setting up loss2/ave_pool
I0403 21:51:24.609657 13064 net.cpp:148] Top shape: 24 528 4 4 (202752)
I0403 21:51:24.609671 13064 net.cpp:156] Memory required for data: 1207729440
I0403 21:51:24.609685 13064 layer_factory.hpp:77] Creating layer loss2/conv
I0403 21:51:24.609709 13064 net.cpp:91] Creating Layer loss2/conv
I0403 21:51:24.609725 13064 net.cpp:425] loss2/conv <- loss2/ave_pool
I0403 21:51:24.609746 13064 net.cpp:399] loss2/conv -> loss2/conv
I0403 21:51:24.611697 13064 net.cpp:141] Setting up loss2/conv
I0403 21:51:24.611726 13064 net.cpp:148] Top shape: 24 128 4 4 (49152)
I0403 21:51:24.611744 13064 net.cpp:156] Memory required for data: 1207926048
I0403 21:51:24.611763 13064 layer_factory.hpp:77] Creating layer loss2/relu_conv
I0403 21:51:24.611780 13064 net.cpp:91] Creating Layer loss2/relu_conv
I0403 21:51:24.611795 13064 net.cpp:425] loss2/relu_conv <- loss2/conv
I0403 21:51:24.611811 13064 net.cpp:386] loss2/relu_conv -> loss2/conv (in-place)
I0403 21:51:24.612083 13064 net.cpp:141] Setting up loss2/relu_conv
I0403 21:51:24.612109 13064 net.cpp:148] Top shape: 24 128 4 4 (49152)
I0403 21:51:24.612128 13064 net.cpp:156] Memory required for data: 1208122656
I0403 21:51:24.612141 13064 layer_factory.hpp:77] Creating layer loss2/fc
I0403 21:51:24.612159 13064 net.cpp:91] Creating Layer loss2/fc
I0403 21:51:24.612174 13064 net.cpp:425] loss2/fc <- loss2/conv
I0403 21:51:24.612210 13064 net.cpp:399] loss2/fc -> loss2/fc
I0403 21:51:24.629452 13064 net.cpp:141] Setting up loss2/fc
I0403 21:51:24.629485 13064 net.cpp:148] Top shape: 24 1024 (24576)
I0403 21:51:24.629499 13064 net.cpp:156] Memory required for data: 1208220960
I0403 21:51:24.629516 13064 layer_factory.hpp:77] Creating layer loss2/relu_fc
I0403 21:51:24.629535 13064 net.cpp:91] Creating Layer loss2/relu_fc
I0403 21:51:24.629551 13064 net.cpp:425] loss2/relu_fc <- loss2/fc
I0403 21:51:24.629568 13064 net.cpp:386] loss2/relu_fc -> loss2/fc (in-place)
I0403 21:51:24.629856 13064 net.cpp:141] Setting up loss2/relu_fc
I0403 21:51:24.629881 13064 net.cpp:148] Top shape: 24 1024 (24576)
I0403 21:51:24.629895 13064 net.cpp:156] Memory required for data: 1208319264
I0403 21:51:24.629909 13064 layer_factory.hpp:77] Creating layer loss2/drop_fc
I0403 21:51:24.629925 13064 net.cpp:91] Creating Layer loss2/drop_fc
I0403 21:51:24.629943 13064 net.cpp:425] loss2/drop_fc <- loss2/fc
I0403 21:51:24.629961 13064 net.cpp:386] loss2/drop_fc -> loss2/fc (in-place)
I0403 21:51:24.630005 13064 net.cpp:141] Setting up loss2/drop_fc
I0403 21:51:24.630029 13064 net.cpp:148] Top shape: 24 1024 (24576)
I0403 21:51:24.630044 13064 net.cpp:156] Memory required for data: 1208417568
I0403 21:51:24.630058 13064 layer_factory.hpp:77] Creating layer loss2/classifier_plantvillage
I0403 21:51:24.630075 13064 net.cpp:91] Creating Layer loss2/classifier_plantvillage
I0403 21:51:24.630090 13064 net.cpp:425] loss2/classifier_plantvillage <- loss2/fc
I0403 21:51:24.630110 13064 net.cpp:399] loss2/classifier_plantvillage -> loss2/classifier_plantvillage
I0403 21:51:24.630499 13064 net.cpp:141] Setting up loss2/classifier_plantvillage
I0403 21:51:24.630525 13064 net.cpp:148] Top shape: 24 38 (912)
I0403 21:51:24.630539 13064 net.cpp:156] Memory required for data: 1208421216
I0403 21:51:24.630573 13064 layer_factory.hpp:77] Creating layer loss2/classifier_plantvillage_loss2/classifier_plantvillage_0_split
I0403 21:51:24.630591 13064 net.cpp:91] Creating Layer loss2/classifier_plantvillage_loss2/classifier_plantvillage_0_split
I0403 21:51:24.630607 13064 net.cpp:425] loss2/classifier_plantvillage_loss2/classifier_plantvillage_0_split <- loss2/classifier_plantvillage
I0403 21:51:24.630625 13064 net.cpp:399] loss2/classifier_plantvillage_loss2/classifier_plantvillage_0_split -> loss2/classifier_plantvillage_loss2/classifier_plantvillage_0_split_0
I0403 21:51:24.630645 13064 net.cpp:399] loss2/classifier_plantvillage_loss2/classifier_plantvillage_0_split -> loss2/classifier_plantvillage_loss2/classifier_plantvillage_0_split_1
I0403 21:51:24.630666 13064 net.cpp:399] loss2/classifier_plantvillage_loss2/classifier_plantvillage_0_split -> loss2/classifier_plantvillage_loss2/classifier_plantvillage_0_split_2
I0403 21:51:24.630739 13064 net.cpp:141] Setting up loss2/classifier_plantvillage_loss2/classifier_plantvillage_0_split
I0403 21:51:24.630761 13064 net.cpp:148] Top shape: 24 38 (912)
I0403 21:51:24.630777 13064 net.cpp:148] Top shape: 24 38 (912)
I0403 21:51:24.630791 13064 net.cpp:148] Top shape: 24 38 (912)
I0403 21:51:24.630805 13064 net.cpp:156] Memory required for data: 1208432160
I0403 21:51:24.630817 13064 layer_factory.hpp:77] Creating layer inception_4e/1x1
I0403 21:51:24.630838 13064 net.cpp:91] Creating Layer inception_4e/1x1
I0403 21:51:24.630856 13064 net.cpp:425] inception_4e/1x1 <- inception_4d/output_inception_4d/output_0_split_1
I0403 21:51:24.630877 13064 net.cpp:399] inception_4e/1x1 -> inception_4e/1x1
I0403 21:51:24.632611 13064 net.cpp:141] Setting up inception_4e/1x1
I0403 21:51:24.632637 13064 net.cpp:148] Top shape: 24 256 14 14 (1204224)
I0403 21:51:24.632652 13064 net.cpp:156] Memory required for data: 1213249056
I0403 21:51:24.632670 13064 layer_factory.hpp:77] Creating layer inception_4e/relu_1x1
I0403 21:51:24.632689 13064 net.cpp:91] Creating Layer inception_4e/relu_1x1
I0403 21:51:24.632706 13064 net.cpp:425] inception_4e/relu_1x1 <- inception_4e/1x1
I0403 21:51:24.632724 13064 net.cpp:386] inception_4e/relu_1x1 -> inception_4e/1x1 (in-place)
I0403 21:51:24.633008 13064 net.cpp:141] Setting up inception_4e/relu_1x1
I0403 21:51:24.633033 13064 net.cpp:148] Top shape: 24 256 14 14 (1204224)
I0403 21:51:24.633046 13064 net.cpp:156] Memory required for data: 1218065952
I0403 21:51:24.633060 13064 layer_factory.hpp:77] Creating layer inception_4e/3x3_reduce
I0403 21:51:24.633083 13064 net.cpp:91] Creating Layer inception_4e/3x3_reduce
I0403 21:51:24.633100 13064 net.cpp:425] inception_4e/3x3_reduce <- inception_4d/output_inception_4d/output_0_split_2
I0403 21:51:24.633119 13064 net.cpp:399] inception_4e/3x3_reduce -> inception_4e/3x3_reduce
I0403 21:51:24.635185 13064 net.cpp:141] Setting up inception_4e/3x3_reduce
I0403 21:51:24.635212 13064 net.cpp:148] Top shape: 24 160 14 14 (752640)
I0403 21:51:24.635227 13064 net.cpp:156] Memory required for data: 1221076512
I0403 21:51:24.635246 13064 layer_factory.hpp:77] Creating layer inception_4e/relu_3x3_reduce
I0403 21:51:24.635265 13064 net.cpp:91] Creating Layer inception_4e/relu_3x3_reduce
I0403 21:51:24.635282 13064 net.cpp:425] inception_4e/relu_3x3_reduce <- inception_4e/3x3_reduce
I0403 21:51:24.635298 13064 net.cpp:386] inception_4e/relu_3x3_reduce -> inception_4e/3x3_reduce (in-place)
I0403 21:51:24.635483 13064 net.cpp:141] Setting up inception_4e/relu_3x3_reduce
I0403 21:51:24.635509 13064 net.cpp:148] Top shape: 24 160 14 14 (752640)
I0403 21:51:24.635524 13064 net.cpp:156] Memory required for data: 1224087072
I0403 21:51:24.635537 13064 layer_factory.hpp:77] Creating layer inception_4e/3x3
I0403 21:51:24.635558 13064 net.cpp:91] Creating Layer inception_4e/3x3
I0403 21:51:24.635576 13064 net.cpp:425] inception_4e/3x3 <- inception_4e/3x3_reduce
I0403 21:51:24.635592 13064 net.cpp:399] inception_4e/3x3 -> inception_4e/3x3
I0403 21:51:24.640414 13064 net.cpp:141] Setting up inception_4e/3x3
I0403 21:51:24.640460 13064 net.cpp:148] Top shape: 24 320 14 14 (1505280)
I0403 21:51:24.640476 13064 net.cpp:156] Memory required for data: 1230108192
I0403 21:51:24.640494 13064 layer_factory.hpp:77] Creating layer inception_4e/relu_3x3
I0403 21:51:24.640511 13064 net.cpp:91] Creating Layer inception_4e/relu_3x3
I0403 21:51:24.640527 13064 net.cpp:425] inception_4e/relu_3x3 <- inception_4e/3x3
I0403 21:51:24.640547 13064 net.cpp:386] inception_4e/relu_3x3 -> inception_4e/3x3 (in-place)
I0403 21:51:24.640836 13064 net.cpp:141] Setting up inception_4e/relu_3x3
I0403 21:51:24.640861 13064 net.cpp:148] Top shape: 24 320 14 14 (1505280)
I0403 21:51:24.640875 13064 net.cpp:156] Memory required for data: 1236129312
I0403 21:51:24.640889 13064 layer_factory.hpp:77] Creating layer inception_4e/5x5_reduce
I0403 21:51:24.640911 13064 net.cpp:91] Creating Layer inception_4e/5x5_reduce
I0403 21:51:24.640929 13064 net.cpp:425] inception_4e/5x5_reduce <- inception_4d/output_inception_4d/output_0_split_3
I0403 21:51:24.640950 13064 net.cpp:399] inception_4e/5x5_reduce -> inception_4e/5x5_reduce
I0403 21:51:24.641975 13064 net.cpp:141] Setting up inception_4e/5x5_reduce
I0403 21:51:24.642002 13064 net.cpp:148] Top shape: 24 32 14 14 (150528)
I0403 21:51:24.642019 13064 net.cpp:156] Memory required for data: 1236731424
I0403 21:51:24.642035 13064 layer_factory.hpp:77] Creating layer inception_4e/relu_5x5_reduce
I0403 21:51:24.642055 13064 net.cpp:91] Creating Layer inception_4e/relu_5x5_reduce
I0403 21:51:24.642071 13064 net.cpp:425] inception_4e/relu_5x5_reduce <- inception_4e/5x5_reduce
I0403 21:51:24.642088 13064 net.cpp:386] inception_4e/relu_5x5_reduce -> inception_4e/5x5_reduce (in-place)
I0403 21:51:24.642386 13064 net.cpp:141] Setting up inception_4e/relu_5x5_reduce
I0403 21:51:24.642411 13064 net.cpp:148] Top shape: 24 32 14 14 (150528)
I0403 21:51:24.642426 13064 net.cpp:156] Memory required for data: 1237333536
I0403 21:51:24.642439 13064 layer_factory.hpp:77] Creating layer inception_4e/5x5
I0403 21:51:24.642478 13064 net.cpp:91] Creating Layer inception_4e/5x5
I0403 21:51:24.642498 13064 net.cpp:425] inception_4e/5x5 <- inception_4e/5x5_reduce
I0403 21:51:24.642515 13064 net.cpp:399] inception_4e/5x5 -> inception_4e/5x5
I0403 21:51:24.644261 13064 net.cpp:141] Setting up inception_4e/5x5
I0403 21:51:24.644287 13064 net.cpp:148] Top shape: 24 128 14 14 (602112)
I0403 21:51:24.644302 13064 net.cpp:156] Memory required for data: 1239741984
I0403 21:51:24.644320 13064 layer_factory.hpp:77] Creating layer inception_4e/relu_5x5
I0403 21:51:24.644340 13064 net.cpp:91] Creating Layer inception_4e/relu_5x5
I0403 21:51:24.644356 13064 net.cpp:425] inception_4e/relu_5x5 <- inception_4e/5x5
I0403 21:51:24.644373 13064 net.cpp:386] inception_4e/relu_5x5 -> inception_4e/5x5 (in-place)
I0403 21:51:24.644565 13064 net.cpp:141] Setting up inception_4e/relu_5x5
I0403 21:51:24.644592 13064 net.cpp:148] Top shape: 24 128 14 14 (602112)
I0403 21:51:24.644606 13064 net.cpp:156] Memory required for data: 1242150432
I0403 21:51:24.644620 13064 layer_factory.hpp:77] Creating layer inception_4e/pool
I0403 21:51:24.644639 13064 net.cpp:91] Creating Layer inception_4e/pool
I0403 21:51:24.644654 13064 net.cpp:425] inception_4e/pool <- inception_4d/output_inception_4d/output_0_split_4
I0403 21:51:24.644671 13064 net.cpp:399] inception_4e/pool -> inception_4e/pool
I0403 21:51:24.644738 13064 net.cpp:141] Setting up inception_4e/pool
I0403 21:51:24.644762 13064 net.cpp:148] Top shape: 24 528 14 14 (2483712)
I0403 21:51:24.644775 13064 net.cpp:156] Memory required for data: 1252085280
I0403 21:51:24.644789 13064 layer_factory.hpp:77] Creating layer inception_4e/pool_proj
I0403 21:51:24.644810 13064 net.cpp:91] Creating Layer inception_4e/pool_proj
I0403 21:51:24.644826 13064 net.cpp:425] inception_4e/pool_proj <- inception_4e/pool
I0403 21:51:24.644846 13064 net.cpp:399] inception_4e/pool_proj -> inception_4e/pool_proj
I0403 21:51:24.646281 13064 net.cpp:141] Setting up inception_4e/pool_proj
I0403 21:51:24.646307 13064 net.cpp:148] Top shape: 24 128 14 14 (602112)
I0403 21:51:24.646335 13064 net.cpp:156] Memory required for data: 1254493728
I0403 21:51:24.646354 13064 layer_factory.hpp:77] Creating layer inception_4e/relu_pool_proj
I0403 21:51:24.646371 13064 net.cpp:91] Creating Layer inception_4e/relu_pool_proj
I0403 21:51:24.646387 13064 net.cpp:425] inception_4e/relu_pool_proj <- inception_4e/pool_proj
I0403 21:51:24.646405 13064 net.cpp:386] inception_4e/relu_pool_proj -> inception_4e/pool_proj (in-place)
I0403 21:51:24.646687 13064 net.cpp:141] Setting up inception_4e/relu_pool_proj
I0403 21:51:24.646711 13064 net.cpp:148] Top shape: 24 128 14 14 (602112)
I0403 21:51:24.646726 13064 net.cpp:156] Memory required for data: 1256902176
I0403 21:51:24.646740 13064 layer_factory.hpp:77] Creating layer inception_4e/output
I0403 21:51:24.646756 13064 net.cpp:91] Creating Layer inception_4e/output
I0403 21:51:24.646771 13064 net.cpp:425] inception_4e/output <- inception_4e/1x1
I0403 21:51:24.646787 13064 net.cpp:425] inception_4e/output <- inception_4e/3x3
I0403 21:51:24.646803 13064 net.cpp:425] inception_4e/output <- inception_4e/5x5
I0403 21:51:24.646819 13064 net.cpp:425] inception_4e/output <- inception_4e/pool_proj
I0403 21:51:24.646837 13064 net.cpp:399] inception_4e/output -> inception_4e/output
I0403 21:51:24.646884 13064 net.cpp:141] Setting up inception_4e/output
I0403 21:51:24.646909 13064 net.cpp:148] Top shape: 24 832 14 14 (3913728)
I0403 21:51:24.646924 13064 net.cpp:156] Memory required for data: 1272557088
I0403 21:51:24.646939 13064 layer_factory.hpp:77] Creating layer pool4/3x3_s2
I0403 21:51:24.646955 13064 net.cpp:91] Creating Layer pool4/3x3_s2
I0403 21:51:24.646970 13064 net.cpp:425] pool4/3x3_s2 <- inception_4e/output
I0403 21:51:24.646991 13064 net.cpp:399] pool4/3x3_s2 -> pool4/3x3_s2
I0403 21:51:24.647054 13064 net.cpp:141] Setting up pool4/3x3_s2
I0403 21:51:24.647078 13064 net.cpp:148] Top shape: 24 832 7 7 (978432)
I0403 21:51:24.647090 13064 net.cpp:156] Memory required for data: 1276470816
I0403 21:51:24.647104 13064 layer_factory.hpp:77] Creating layer pool4/3x3_s2_pool4/3x3_s2_0_split
I0403 21:51:24.647122 13064 net.cpp:91] Creating Layer pool4/3x3_s2_pool4/3x3_s2_0_split
I0403 21:51:24.647140 13064 net.cpp:425] pool4/3x3_s2_pool4/3x3_s2_0_split <- pool4/3x3_s2
I0403 21:51:24.647156 13064 net.cpp:399] pool4/3x3_s2_pool4/3x3_s2_0_split -> pool4/3x3_s2_pool4/3x3_s2_0_split_0
I0403 21:51:24.647174 13064 net.cpp:399] pool4/3x3_s2_pool4/3x3_s2_0_split -> pool4/3x3_s2_pool4/3x3_s2_0_split_1
I0403 21:51:24.647215 13064 net.cpp:399] pool4/3x3_s2_pool4/3x3_s2_0_split -> pool4/3x3_s2_pool4/3x3_s2_0_split_2
I0403 21:51:24.647238 13064 net.cpp:399] pool4/3x3_s2_pool4/3x3_s2_0_split -> pool4/3x3_s2_pool4/3x3_s2_0_split_3
I0403 21:51:24.647343 13064 net.cpp:141] Setting up pool4/3x3_s2_pool4/3x3_s2_0_split
I0403 21:51:24.647367 13064 net.cpp:148] Top shape: 24 832 7 7 (978432)
I0403 21:51:24.647384 13064 net.cpp:148] Top shape: 24 832 7 7 (978432)
I0403 21:51:24.647399 13064 net.cpp:148] Top shape: 24 832 7 7 (978432)
I0403 21:51:24.647415 13064 net.cpp:148] Top shape: 24 832 7 7 (978432)
I0403 21:51:24.647428 13064 net.cpp:156] Memory required for data: 1292125728
I0403 21:51:24.647444 13064 layer_factory.hpp:77] Creating layer inception_5a/1x1
I0403 21:51:24.647465 13064 net.cpp:91] Creating Layer inception_5a/1x1
I0403 21:51:24.647483 13064 net.cpp:425] inception_5a/1x1 <- pool4/3x3_s2_pool4/3x3_s2_0_split_0
I0403 21:51:24.647505 13064 net.cpp:399] inception_5a/1x1 -> inception_5a/1x1
I0403 21:51:24.650367 13064 net.cpp:141] Setting up inception_5a/1x1
I0403 21:51:24.650398 13064 net.cpp:148] Top shape: 24 256 7 7 (301056)
I0403 21:51:24.650413 13064 net.cpp:156] Memory required for data: 1293329952
I0403 21:51:24.650431 13064 layer_factory.hpp:77] Creating layer inception_5a/relu_1x1
I0403 21:51:24.650452 13064 net.cpp:91] Creating Layer inception_5a/relu_1x1
I0403 21:51:24.650470 13064 net.cpp:425] inception_5a/relu_1x1 <- inception_5a/1x1
I0403 21:51:24.650488 13064 net.cpp:386] inception_5a/relu_1x1 -> inception_5a/1x1 (in-place)
I0403 21:51:24.650813 13064 net.cpp:141] Setting up inception_5a/relu_1x1
I0403 21:51:24.650840 13064 net.cpp:148] Top shape: 24 256 7 7 (301056)
I0403 21:51:24.650853 13064 net.cpp:156] Memory required for data: 1294534176
I0403 21:51:24.650868 13064 layer_factory.hpp:77] Creating layer inception_5a/3x3_reduce
I0403 21:51:24.650890 13064 net.cpp:91] Creating Layer inception_5a/3x3_reduce
I0403 21:51:24.650907 13064 net.cpp:425] inception_5a/3x3_reduce <- pool4/3x3_s2_pool4/3x3_s2_0_split_1
I0403 21:51:24.650929 13064 net.cpp:399] inception_5a/3x3_reduce -> inception_5a/3x3_reduce
I0403 21:51:24.653420 13064 net.cpp:141] Setting up inception_5a/3x3_reduce
I0403 21:51:24.653450 13064 net.cpp:148] Top shape: 24 160 7 7 (188160)
I0403 21:51:24.653466 13064 net.cpp:156] Memory required for data: 1295286816
I0403 21:51:24.653484 13064 layer_factory.hpp:77] Creating layer inception_5a/relu_3x3_reduce
I0403 21:51:24.653501 13064 net.cpp:91] Creating Layer inception_5a/relu_3x3_reduce
I0403 21:51:24.653518 13064 net.cpp:425] inception_5a/relu_3x3_reduce <- inception_5a/3x3_reduce
I0403 21:51:24.653537 13064 net.cpp:386] inception_5a/relu_3x3_reduce -> inception_5a/3x3_reduce (in-place)
I0403 21:51:24.653728 13064 net.cpp:141] Setting up inception_5a/relu_3x3_reduce
I0403 21:51:24.653751 13064 net.cpp:148] Top shape: 24 160 7 7 (188160)
I0403 21:51:24.653766 13064 net.cpp:156] Memory required for data: 1296039456
I0403 21:51:24.653780 13064 layer_factory.hpp:77] Creating layer inception_5a/3x3
I0403 21:51:24.653802 13064 net.cpp:91] Creating Layer inception_5a/3x3
I0403 21:51:24.653820 13064 net.cpp:425] inception_5a/3x3 <- inception_5a/3x3_reduce
I0403 21:51:24.653841 13064 net.cpp:399] inception_5a/3x3 -> inception_5a/3x3
I0403 21:51:24.658898 13064 net.cpp:141] Setting up inception_5a/3x3
I0403 21:51:24.658928 13064 net.cpp:148] Top shape: 24 320 7 7 (376320)
I0403 21:51:24.658943 13064 net.cpp:156] Memory required for data: 1297544736
I0403 21:51:24.658960 13064 layer_factory.hpp:77] Creating layer inception_5a/relu_3x3
I0403 21:51:24.658980 13064 net.cpp:91] Creating Layer inception_5a/relu_3x3
I0403 21:51:24.658996 13064 net.cpp:425] inception_5a/relu_3x3 <- inception_5a/3x3
I0403 21:51:24.659013 13064 net.cpp:386] inception_5a/relu_3x3 -> inception_5a/3x3 (in-place)
I0403 21:51:24.659323 13064 net.cpp:141] Setting up inception_5a/relu_3x3
I0403 21:51:24.659349 13064 net.cpp:148] Top shape: 24 320 7 7 (376320)
I0403 21:51:24.659364 13064 net.cpp:156] Memory required for data: 1299050016
I0403 21:51:24.659379 13064 layer_factory.hpp:77] Creating layer inception_5a/5x5_reduce
I0403 21:51:24.659401 13064 net.cpp:91] Creating Layer inception_5a/5x5_reduce
I0403 21:51:24.659420 13064 net.cpp:425] inception_5a/5x5_reduce <- pool4/3x3_s2_pool4/3x3_s2_0_split_2
I0403 21:51:24.659443 13064 net.cpp:399] inception_5a/5x5_reduce -> inception_5a/5x5_reduce
I0403 21:51:24.660607 13064 net.cpp:141] Setting up inception_5a/5x5_reduce
I0403 21:51:24.660637 13064 net.cpp:148] Top shape: 24 32 7 7 (37632)
I0403 21:51:24.660653 13064 net.cpp:156] Memory required for data: 1299200544
I0403 21:51:24.660672 13064 layer_factory.hpp:77] Creating layer inception_5a/relu_5x5_reduce
I0403 21:51:24.660689 13064 net.cpp:91] Creating Layer inception_5a/relu_5x5_reduce
I0403 21:51:24.660706 13064 net.cpp:425] inception_5a/relu_5x5_reduce <- inception_5a/5x5_reduce
I0403 21:51:24.660722 13064 net.cpp:386] inception_5a/relu_5x5_reduce -> inception_5a/5x5_reduce (in-place)
I0403 21:51:24.661020 13064 net.cpp:141] Setting up inception_5a/relu_5x5_reduce
I0403 21:51:24.661044 13064 net.cpp:148] Top shape: 24 32 7 7 (37632)
I0403 21:51:24.661062 13064 net.cpp:156] Memory required for data: 1299351072
I0403 21:51:24.661077 13064 layer_factory.hpp:77] Creating layer inception_5a/5x5
I0403 21:51:24.661098 13064 net.cpp:91] Creating Layer inception_5a/5x5
I0403 21:51:24.661114 13064 net.cpp:425] inception_5a/5x5 <- inception_5a/5x5_reduce
I0403 21:51:24.661135 13064 net.cpp:399] inception_5a/5x5 -> inception_5a/5x5
I0403 21:51:24.662840 13064 net.cpp:141] Setting up inception_5a/5x5
I0403 21:51:24.662879 13064 net.cpp:148] Top shape: 24 128 7 7 (150528)
I0403 21:51:24.662895 13064 net.cpp:156] Memory required for data: 1299953184
I0403 21:51:24.662914 13064 layer_factory.hpp:77] Creating layer inception_5a/relu_5x5
I0403 21:51:24.662933 13064 net.cpp:91] Creating Layer inception_5a/relu_5x5
I0403 21:51:24.662951 13064 net.cpp:425] inception_5a/relu_5x5 <- inception_5a/5x5
I0403 21:51:24.662968 13064 net.cpp:386] inception_5a/relu_5x5 -> inception_5a/5x5 (in-place)
I0403 21:51:24.663158 13064 net.cpp:141] Setting up inception_5a/relu_5x5
I0403 21:51:24.663190 13064 net.cpp:148] Top shape: 24 128 7 7 (150528)
I0403 21:51:24.663206 13064 net.cpp:156] Memory required for data: 1300555296
I0403 21:51:24.663233 13064 layer_factory.hpp:77] Creating layer inception_5a/pool
I0403 21:51:24.663251 13064 net.cpp:91] Creating Layer inception_5a/pool
I0403 21:51:24.663267 13064 net.cpp:425] inception_5a/pool <- pool4/3x3_s2_pool4/3x3_s2_0_split_3
I0403 21:51:24.663285 13064 net.cpp:399] inception_5a/pool -> inception_5a/pool
I0403 21:51:24.663357 13064 net.cpp:141] Setting up inception_5a/pool
I0403 21:51:24.663381 13064 net.cpp:148] Top shape: 24 832 7 7 (978432)
I0403 21:51:24.663396 13064 net.cpp:156] Memory required for data: 1304469024
I0403 21:51:24.663411 13064 layer_factory.hpp:77] Creating layer inception_5a/pool_proj
I0403 21:51:24.663434 13064 net.cpp:91] Creating Layer inception_5a/pool_proj
I0403 21:51:24.663450 13064 net.cpp:425] inception_5a/pool_proj <- inception_5a/pool
I0403 21:51:24.663472 13064 net.cpp:399] inception_5a/pool_proj -> inception_5a/pool_proj
I0403 21:51:24.665765 13064 net.cpp:141] Setting up inception_5a/pool_proj
I0403 21:51:24.665792 13064 net.cpp:148] Top shape: 24 128 7 7 (150528)
I0403 21:51:24.665977 13064 net.cpp:156] Memory required for data: 1305071136
I0403 21:51:24.666002 13064 layer_factory.hpp:77] Creating layer inception_5a/relu_pool_proj
I0403 21:51:24.666021 13064 net.cpp:91] Creating Layer inception_5a/relu_pool_proj
I0403 21:51:24.666038 13064 net.cpp:425] inception_5a/relu_pool_proj <- inception_5a/pool_proj
I0403 21:51:24.666054 13064 net.cpp:386] inception_5a/relu_pool_proj -> inception_5a/pool_proj (in-place)
I0403 21:51:24.666354 13064 net.cpp:141] Setting up inception_5a/relu_pool_proj
I0403 21:51:24.666380 13064 net.cpp:148] Top shape: 24 128 7 7 (150528)
I0403 21:51:24.666394 13064 net.cpp:156] Memory required for data: 1305673248
I0403 21:51:24.666409 13064 layer_factory.hpp:77] Creating layer inception_5a/output
I0403 21:51:24.666425 13064 net.cpp:91] Creating Layer inception_5a/output
I0403 21:51:24.666440 13064 net.cpp:425] inception_5a/output <- inception_5a/1x1
I0403 21:51:24.666456 13064 net.cpp:425] inception_5a/output <- inception_5a/3x3
I0403 21:51:24.666471 13064 net.cpp:425] inception_5a/output <- inception_5a/5x5
I0403 21:51:24.666486 13064 net.cpp:425] inception_5a/output <- inception_5a/pool_proj
I0403 21:51:24.666507 13064 net.cpp:399] inception_5a/output -> inception_5a/output
I0403 21:51:24.666553 13064 net.cpp:141] Setting up inception_5a/output
I0403 21:51:24.666579 13064 net.cpp:148] Top shape: 24 832 7 7 (978432)
I0403 21:51:24.666592 13064 net.cpp:156] Memory required for data: 1309586976
I0403 21:51:24.666607 13064 layer_factory.hpp:77] Creating layer inception_5a/output_inception_5a/output_0_split
I0403 21:51:24.666623 13064 net.cpp:91] Creating Layer inception_5a/output_inception_5a/output_0_split
I0403 21:51:24.666637 13064 net.cpp:425] inception_5a/output_inception_5a/output_0_split <- inception_5a/output
I0403 21:51:24.666657 13064 net.cpp:399] inception_5a/output_inception_5a/output_0_split -> inception_5a/output_inception_5a/output_0_split_0
I0403 21:51:24.666677 13064 net.cpp:399] inception_5a/output_inception_5a/output_0_split -> inception_5a/output_inception_5a/output_0_split_1
I0403 21:51:24.666697 13064 net.cpp:399] inception_5a/output_inception_5a/output_0_split -> inception_5a/output_inception_5a/output_0_split_2
I0403 21:51:24.666717 13064 net.cpp:399] inception_5a/output_inception_5a/output_0_split -> inception_5a/output_inception_5a/output_0_split_3
I0403 21:51:24.666821 13064 net.cpp:141] Setting up inception_5a/output_inception_5a/output_0_split
I0403 21:51:24.666843 13064 net.cpp:148] Top shape: 24 832 7 7 (978432)
I0403 21:51:24.666858 13064 net.cpp:148] Top shape: 24 832 7 7 (978432)
I0403 21:51:24.666873 13064 net.cpp:148] Top shape: 24 832 7 7 (978432)
I0403 21:51:24.666887 13064 net.cpp:148] Top shape: 24 832 7 7 (978432)
I0403 21:51:24.666901 13064 net.cpp:156] Memory required for data: 1325241888
I0403 21:51:24.666914 13064 layer_factory.hpp:77] Creating layer inception_5b/1x1
I0403 21:51:24.666935 13064 net.cpp:91] Creating Layer inception_5b/1x1
I0403 21:51:24.666951 13064 net.cpp:425] inception_5b/1x1 <- inception_5a/output_inception_5a/output_0_split_0
I0403 21:51:24.666971 13064 net.cpp:399] inception_5b/1x1 -> inception_5b/1x1
I0403 21:51:24.670626 13064 net.cpp:141] Setting up inception_5b/1x1
I0403 21:51:24.670657 13064 net.cpp:148] Top shape: 24 384 7 7 (451584)
I0403 21:51:24.670672 13064 net.cpp:156] Memory required for data: 1327048224
I0403 21:51:24.670689 13064 layer_factory.hpp:77] Creating layer inception_5b/relu_1x1
I0403 21:51:24.670707 13064 net.cpp:91] Creating Layer inception_5b/relu_1x1
I0403 21:51:24.670722 13064 net.cpp:425] inception_5b/relu_1x1 <- inception_5b/1x1
I0403 21:51:24.670742 13064 net.cpp:386] inception_5b/relu_1x1 -> inception_5b/1x1 (in-place)
I0403 21:51:24.671037 13064 net.cpp:141] Setting up inception_5b/relu_1x1
I0403 21:51:24.671062 13064 net.cpp:148] Top shape: 24 384 7 7 (451584)
I0403 21:51:24.671077 13064 net.cpp:156] Memory required for data: 1328854560
I0403 21:51:24.671090 13064 layer_factory.hpp:77] Creating layer inception_5b/3x3_reduce
I0403 21:51:24.671113 13064 net.cpp:91] Creating Layer inception_5b/3x3_reduce
I0403 21:51:24.671129 13064 net.cpp:425] inception_5b/3x3_reduce <- inception_5a/output_inception_5a/output_0_split_1
I0403 21:51:24.671151 13064 net.cpp:399] inception_5b/3x3_reduce -> inception_5b/3x3_reduce
I0403 21:51:24.673746 13064 net.cpp:141] Setting up inception_5b/3x3_reduce
I0403 21:51:24.673774 13064 net.cpp:148] Top shape: 24 192 7 7 (225792)
I0403 21:51:24.673789 13064 net.cpp:156] Memory required for data: 1329757728
I0403 21:51:24.673807 13064 layer_factory.hpp:77] Creating layer inception_5b/relu_3x3_reduce
I0403 21:51:24.673825 13064 net.cpp:91] Creating Layer inception_5b/relu_3x3_reduce
I0403 21:51:24.673842 13064 net.cpp:425] inception_5b/relu_3x3_reduce <- inception_5b/3x3_reduce
I0403 21:51:24.673861 13064 net.cpp:386] inception_5b/relu_3x3_reduce -> inception_5b/3x3_reduce (in-place)
I0403 21:51:24.674046 13064 net.cpp:141] Setting up inception_5b/relu_3x3_reduce
I0403 21:51:24.674068 13064 net.cpp:148] Top shape: 24 192 7 7 (225792)
I0403 21:51:24.674082 13064 net.cpp:156] Memory required for data: 1330660896
I0403 21:51:24.674095 13064 layer_factory.hpp:77] Creating layer inception_5b/3x3
I0403 21:51:24.674116 13064 net.cpp:91] Creating Layer inception_5b/3x3
I0403 21:51:24.674134 13064 net.cpp:425] inception_5b/3x3 <- inception_5b/3x3_reduce
I0403 21:51:24.674155 13064 net.cpp:399] inception_5b/3x3 -> inception_5b/3x3
I0403 21:51:24.680661 13064 net.cpp:141] Setting up inception_5b/3x3
I0403 21:51:24.680690 13064 net.cpp:148] Top shape: 24 384 7 7 (451584)
I0403 21:51:24.680704 13064 net.cpp:156] Memory required for data: 1332467232
I0403 21:51:24.680722 13064 layer_factory.hpp:77] Creating layer inception_5b/relu_3x3
I0403 21:51:24.680742 13064 net.cpp:91] Creating Layer inception_5b/relu_3x3
I0403 21:51:24.680758 13064 net.cpp:425] inception_5b/relu_3x3 <- inception_5b/3x3
I0403 21:51:24.680775 13064 net.cpp:386] inception_5b/relu_3x3 -> inception_5b/3x3 (in-place)
I0403 21:51:24.681064 13064 net.cpp:141] Setting up inception_5b/relu_3x3
I0403 21:51:24.681089 13064 net.cpp:148] Top shape: 24 384 7 7 (451584)
I0403 21:51:24.681103 13064 net.cpp:156] Memory required for data: 1334273568
I0403 21:51:24.681118 13064 layer_factory.hpp:77] Creating layer inception_5b/5x5_reduce
I0403 21:51:24.681155 13064 net.cpp:91] Creating Layer inception_5b/5x5_reduce
I0403 21:51:24.681174 13064 net.cpp:425] inception_5b/5x5_reduce <- inception_5a/output_inception_5a/output_0_split_2
I0403 21:51:24.681201 13064 net.cpp:399] inception_5b/5x5_reduce -> inception_5b/5x5_reduce
I0403 21:51:24.682445 13064 net.cpp:141] Setting up inception_5b/5x5_reduce
I0403 21:51:24.682471 13064 net.cpp:148] Top shape: 24 48 7 7 (56448)
I0403 21:51:24.682485 13064 net.cpp:156] Memory required for data: 1334499360
I0403 21:51:24.682503 13064 layer_factory.hpp:77] Creating layer inception_5b/relu_5x5_reduce
I0403 21:51:24.682521 13064 net.cpp:91] Creating Layer inception_5b/relu_5x5_reduce
I0403 21:51:24.682538 13064 net.cpp:425] inception_5b/relu_5x5_reduce <- inception_5b/5x5_reduce
I0403 21:51:24.682555 13064 net.cpp:386] inception_5b/relu_5x5_reduce -> inception_5b/5x5_reduce (in-place)
I0403 21:51:24.682929 13064 net.cpp:141] Setting up inception_5b/relu_5x5_reduce
I0403 21:51:24.682955 13064 net.cpp:148] Top shape: 24 48 7 7 (56448)
I0403 21:51:24.682971 13064 net.cpp:156] Memory required for data: 1334725152
I0403 21:51:24.682984 13064 layer_factory.hpp:77] Creating layer inception_5b/5x5
I0403 21:51:24.683003 13064 net.cpp:91] Creating Layer inception_5b/5x5
I0403 21:51:24.683019 13064 net.cpp:425] inception_5b/5x5 <- inception_5b/5x5_reduce
I0403 21:51:24.683037 13064 net.cpp:399] inception_5b/5x5 -> inception_5b/5x5
I0403 21:51:24.684999 13064 net.cpp:141] Setting up inception_5b/5x5
I0403 21:51:24.685025 13064 net.cpp:148] Top shape: 24 128 7 7 (150528)
I0403 21:51:24.685040 13064 net.cpp:156] Memory required for data: 1335327264
I0403 21:51:24.685058 13064 layer_factory.hpp:77] Creating layer inception_5b/relu_5x5
I0403 21:51:24.685078 13064 net.cpp:91] Creating Layer inception_5b/relu_5x5
I0403 21:51:24.685096 13064 net.cpp:425] inception_5b/relu_5x5 <- inception_5b/5x5
I0403 21:51:24.685111 13064 net.cpp:386] inception_5b/relu_5x5 -> inception_5b/5x5 (in-place)
I0403 21:51:24.685305 13064 net.cpp:141] Setting up inception_5b/relu_5x5
I0403 21:51:24.685333 13064 net.cpp:148] Top shape: 24 128 7 7 (150528)
I0403 21:51:24.685348 13064 net.cpp:156] Memory required for data: 1335929376
I0403 21:51:24.685361 13064 layer_factory.hpp:77] Creating layer inception_5b/pool
I0403 21:51:24.685379 13064 net.cpp:91] Creating Layer inception_5b/pool
I0403 21:51:24.685394 13064 net.cpp:425] inception_5b/pool <- inception_5a/output_inception_5a/output_0_split_3
I0403 21:51:24.685413 13064 net.cpp:399] inception_5b/pool -> inception_5b/pool
I0403 21:51:24.685482 13064 net.cpp:141] Setting up inception_5b/pool
I0403 21:51:24.685506 13064 net.cpp:148] Top shape: 24 832 7 7 (978432)
I0403 21:51:24.685520 13064 net.cpp:156] Memory required for data: 1339843104
I0403 21:51:24.685534 13064 layer_factory.hpp:77] Creating layer inception_5b/pool_proj
I0403 21:51:24.685556 13064 net.cpp:91] Creating Layer inception_5b/pool_proj
I0403 21:51:24.685572 13064 net.cpp:425] inception_5b/pool_proj <- inception_5b/pool
I0403 21:51:24.685591 13064 net.cpp:399] inception_5b/pool_proj -> inception_5b/pool_proj
I0403 21:51:24.687839 13064 net.cpp:141] Setting up inception_5b/pool_proj
I0403 21:51:24.687868 13064 net.cpp:148] Top shape: 24 128 7 7 (150528)
I0403 21:51:24.687883 13064 net.cpp:156] Memory required for data: 1340445216
I0403 21:51:24.687901 13064 layer_factory.hpp:77] Creating layer inception_5b/relu_pool_proj
I0403 21:51:24.687919 13064 net.cpp:91] Creating Layer inception_5b/relu_pool_proj
I0403 21:51:24.687937 13064 net.cpp:425] inception_5b/relu_pool_proj <- inception_5b/pool_proj
I0403 21:51:24.687953 13064 net.cpp:386] inception_5b/relu_pool_proj -> inception_5b/pool_proj (in-place)
I0403 21:51:24.688247 13064 net.cpp:141] Setting up inception_5b/relu_pool_proj
I0403 21:51:24.688272 13064 net.cpp:148] Top shape: 24 128 7 7 (150528)
I0403 21:51:24.688287 13064 net.cpp:156] Memory required for data: 1341047328
I0403 21:51:24.688302 13064 layer_factory.hpp:77] Creating layer inception_5b/output
I0403 21:51:24.688318 13064 net.cpp:91] Creating Layer inception_5b/output
I0403 21:51:24.688346 13064 net.cpp:425] inception_5b/output <- inception_5b/1x1
I0403 21:51:24.688364 13064 net.cpp:425] inception_5b/output <- inception_5b/3x3
I0403 21:51:24.688380 13064 net.cpp:425] inception_5b/output <- inception_5b/5x5
I0403 21:51:24.688395 13064 net.cpp:425] inception_5b/output <- inception_5b/pool_proj
I0403 21:51:24.688413 13064 net.cpp:399] inception_5b/output -> inception_5b/output
I0403 21:51:24.688462 13064 net.cpp:141] Setting up inception_5b/output
I0403 21:51:24.688488 13064 net.cpp:148] Top shape: 24 1024 7 7 (1204224)
I0403 21:51:24.688503 13064 net.cpp:156] Memory required for data: 1345864224
I0403 21:51:24.688515 13064 layer_factory.hpp:77] Creating layer pool5/7x7_s1
I0403 21:51:24.688531 13064 net.cpp:91] Creating Layer pool5/7x7_s1
I0403 21:51:24.688546 13064 net.cpp:425] pool5/7x7_s1 <- inception_5b/output
I0403 21:51:24.688566 13064 net.cpp:399] pool5/7x7_s1 -> pool5/7x7_s1
I0403 21:51:24.688776 13064 net.cpp:141] Setting up pool5/7x7_s1
I0403 21:51:24.688802 13064 net.cpp:148] Top shape: 24 1024 1 1 (24576)
I0403 21:51:24.688815 13064 net.cpp:156] Memory required for data: 1345962528
I0403 21:51:24.688829 13064 layer_factory.hpp:77] Creating layer pool5/drop_7x7_s1
I0403 21:51:24.688846 13064 net.cpp:91] Creating Layer pool5/drop_7x7_s1
I0403 21:51:24.688861 13064 net.cpp:425] pool5/drop_7x7_s1 <- pool5/7x7_s1
I0403 21:51:24.688879 13064 net.cpp:386] pool5/drop_7x7_s1 -> pool5/7x7_s1 (in-place)
I0403 21:51:24.688930 13064 net.cpp:141] Setting up pool5/drop_7x7_s1
I0403 21:51:24.688952 13064 net.cpp:148] Top shape: 24 1024 1 1 (24576)
I0403 21:51:24.688966 13064 net.cpp:156] Memory required for data: 1346060832
I0403 21:51:24.688979 13064 layer_factory.hpp:77] Creating layer loss3/classifier_plantvillage
I0403 21:51:24.688997 13064 net.cpp:91] Creating Layer loss3/classifier_plantvillage
I0403 21:51:24.689013 13064 net.cpp:425] loss3/classifier_plantvillage <- pool5/7x7_s1
I0403 21:51:24.689033 13064 net.cpp:399] loss3/classifier_plantvillage -> loss3/classifier_plantvillage
I0403 21:51:24.689442 13064 net.cpp:141] Setting up loss3/classifier_plantvillage
I0403 21:51:24.689466 13064 net.cpp:148] Top shape: 24 38 (912)
I0403 21:51:24.689481 13064 net.cpp:156] Memory required for data: 1346064480
I0403 21:51:24.689497 13064 layer_factory.hpp:77] Creating layer loss3/classifier_plantvillage_loss3/classifier_plantvillage_0_split
I0403 21:51:24.689518 13064 net.cpp:91] Creating Layer loss3/classifier_plantvillage_loss3/classifier_plantvillage_0_split
I0403 21:51:24.689535 13064 net.cpp:425] loss3/classifier_plantvillage_loss3/classifier_plantvillage_0_split <- loss3/classifier_plantvillage
I0403 21:51:24.689554 13064 net.cpp:399] loss3/classifier_plantvillage_loss3/classifier_plantvillage_0_split -> loss3/classifier_plantvillage_loss3/classifier_plantvillage_0_split_0
I0403 21:51:24.689574 13064 net.cpp:399] loss3/classifier_plantvillage_loss3/classifier_plantvillage_0_split -> loss3/classifier_plantvillage_loss3/classifier_plantvillage_0_split_1
I0403 21:51:24.689592 13064 net.cpp:399] loss3/classifier_plantvillage_loss3/classifier_plantvillage_0_split -> loss3/classifier_plantvillage_loss3/classifier_plantvillage_0_split_2
I0403 21:51:24.689611 13064 net.cpp:399] loss3/classifier_plantvillage_loss3/classifier_plantvillage_0_split -> loss3/classifier_plantvillage_loss3/classifier_plantvillage_0_split_3
I0403 21:51:24.689708 13064 net.cpp:141] Setting up loss3/classifier_plantvillage_loss3/classifier_plantvillage_0_split
I0403 21:51:24.689730 13064 net.cpp:148] Top shape: 24 38 (912)
I0403 21:51:24.689746 13064 net.cpp:148] Top shape: 24 38 (912)
I0403 21:51:24.689761 13064 net.cpp:148] Top shape: 24 38 (912)
I0403 21:51:24.689775 13064 net.cpp:148] Top shape: 24 38 (912)
I0403 21:51:24.689788 13064 net.cpp:156] Memory required for data: 1346079072
I0403 21:51:24.689802 13064 layer_factory.hpp:77] Creating layer loss1/loss
I0403 21:51:24.689823 13064 net.cpp:91] Creating Layer loss1/loss
I0403 21:51:24.689841 13064 net.cpp:425] loss1/loss <- loss1/classifier_plantvillage_loss1/classifier_plantvillage_0_split_0
I0403 21:51:24.689870 13064 net.cpp:425] loss1/loss <- label_data_1_split_0
…
