…
I0403 21:48:33.303131 12900 net.cpp:313] The NetState phase (1) differed from the phase (0) specified by a rule in layer data
I0403 21:48:33.304273 12900 net.cpp:49] Initializing net from parameters: 
state {
  phase: TEST
}
layer {
  name: "data"
  type: "Data"
  top: "data"
  top: "label"
  include {
    phase: TEST
  }
  transform_param {
    mirror: false
    crop_size: 224
    mean_file: "/home/mohanty/data/final_dataset/lmdb/color-80-20/mean.binaryproto"
  }
  data_param {
    source: "/home/mohanty/data/final_dataset/lmdb/color-80-20/test_db"
    batch_size: 24
    backend: LMDB
  }
}
layer {
  name: "conv1/7x7_s2"
  type: "Convolution"
  bottom: "data"
  top: "conv1/7x7_s2"
  param {
    lr_mult: 1
    decay_mult: 1
  }
  param {
    lr_mult: 2
    decay_mult: 0
  }
  convolution_param {
    num_output: 64
    pad: 3
    kernel_size: 7
    stride: 2
    weight_filler {
      type: "xavier"
      std: 0.1
    }
    bias_filler {
      type: "constant"
      value: 0.2
    }
  }
}
layer {
  name: "conv1/relu_7x7"
  type: "ReLU"
  bottom: "conv1/7x7_s2"
  top: "conv1/7x7_s2"
}
layer {
  name: "pool1/3x3_s2"
  type: "Pooling"
  bottom: "conv1/7x7_s2"
  top: "pool1/3x3_s2"
  pooling_param {
    pool: MAX
    kernel_size: 3
    stride: 2
  }
}
layer {
  name: "pool1/norm1"
  type: "LRN"
  bottom: "pool1/3x3_s2"
  top: "pool1/norm1"
  lrn_param {
    local_size: 5
    alpha: 0.0001
    beta: 0.75
  }
}
layer {
  name: "conv2/3x3_reduce"
  type: "Convolution"
  bottom: "pool1/norm1"
  top: "conv2/3x3_reduce"
  param {
    lr_mult: 1
    decay_mult: 1
  }
  param {
    lr_mult: 2
    decay_mult: 0
  }
  convolution_param {
    num_output: 64
    kernel_size: 1
    weight_filler {
      type: "xavier"
      std: 0.1
    }
    bias_filler {
      type: "constant"
      value: 0.2
    }
  }
}
layer {
  name: "conv2/relu_3x3_reduce"
  type: "ReLU"
  bottom: "conv2/3x3_reduce"
  top: "conv2/3x3_reduce"
}
layer {
  name: "conv2/3x3"
  type: "Convolution"
  bottom: "conv2/3x3_reduce"
  top: "conv2/3x3"
  param {
    lr_mult: 1
    decay_mult: 1
  }
  param {
    lr_mult: 2
    decay_mult: 0
  }
  convolution_param {
    num_output: 192
    pad: 1
    kernel_size: 3
    weight_filler {
      type: "xavier"
      std: 0.03
    }
    bias_filler {
      type: "constant"
      value: 0.2
    }
  }
}
layer {
  name: "conv2/relu_3x3"
  type: "ReLU"
  bottom: "conv2/3x3"
  top: "conv2/3x3"
}
layer {
  name: "conv2/norm2"
  type: "LRN"
  bottom: "conv2/3x3"
  top: "conv2/norm2"
  lrn_param {
    local_size: 5
    alpha: 0.0001
    beta: 0.75
  }
}
layer {
  name: "pool2/3x3_s2"
  type: "Pooling"
  bottom: "conv2/norm2"
  top: "pool2/3x3_s2"
  pooling_param {
    pool: MAX
    kernel_size: 3
    stride: 2
  }
}
layer {
  name: "inception_3a/1x1"
  type: "Convolution"
  bottom: "pool2/3x3_s2"
  top: "inception_3a/1x1"
  param {
    lr_mult: 1
    decay_mult: 1
  }
  param {
    lr_mult: 2
    decay_mult: 0
  }
  convolution_param {
    num_output: 64
    kernel_size: 1
    weight_filler {
      type: "xavier"
      std: 0.03
    }
    bias_filler {
      type: "constant"
      value: 0.2
    }
  }
}
layer {
  name: "inception_3a/relu_1x1"
  type: "ReLU"
  bottom: "inception_3a/1x1"
  top: "inception_3a/1x1"
}
layer {
  name: "inception_3a/3x3_reduce"
  type: "Convolution"
  bottom: "pool2/3x3_s2"
  top: "inception_3a/3x3_reduce"
  param {
    lr_mult: 1
    decay_mult: 1
  }
  param {
    lr_mult: 2
    decay_mult: 0
  }
  convolution_param {
    num_output: 96
    kernel_size: 1
    weight_filler {
      type: "xavier"
      std: 0.09
    }
    bias_filler {
      type: "constant"
      value: 0.2
    }
  }
}
layer {
  name: "inception_3a/relu_3x3_reduce"
  type: "ReLU"
  bottom: "inception_3a/3x3_reduce"
  top: "inception_3a/3x3_reduce"
}
layer {
  name: "inception_3a/3x3"
  type: "Convolution"
  bottom: "inception_3a/3x3_reduce"
  top: "inception_3a/3x3"
  param {
    lr_mult: 1
    decay_mult: 1
  }
  param {
    lr_mult: 2
    decay_mult: 0
  }
  convolution_param {
    num_output: 128
    pad: 1
    kernel_size: 3
    weight_filler {
      type: "xavier"
      std: 0.03
    }
    bias_filler {
      type: "constant"
      value: 0.2
    }
  }
}
layer {
  name: "inception_3a/relu_3x3"
  type: "ReLU"
  bottom: "inception_3a/3x3"
  top: "inception_3a/3x3"
}
layer {
  name: "inception_3a/5x5_reduce"
  type: "Convolution"
  bottom: "pool2/3x3_s2"
  top: "inception_3a/5x5_reduce"
  param {
    lr_mult: 1
    decay_mult: 1
  }
  param {
    lr_mult: 2
    decay_mult: 0
  }
  convolution_param {
    num_output: 16
    kernel_size: 1
    weight_filler {
      type: "xavier"
      std: 0.2
    }
    bias_filler {
      type: "constant"
      value: 0.2
    }
  }
}
layer {
  name: "inception_3a/relu_5x5_reduce"
  type: "ReLU"
  bottom: "inception_3a/5x5_reduce"
  top: "inception_3a/5x5_reduce"
}
layer {
  name: "inception_3a/5x5"
  type: "Convolution"
  bottom: "inception_3a/5x5_reduce"
  top: "inception_3a/5x5"
  param {
    lr_mult: 1
    decay_mult: 1
  }
  param {
    lr_mult: 2
    decay_mult: 0
  }
  convolution_param {
    num_output: 32
    pad: 2
    kernel_size: 5
    weight_filler {
      type: "xavier"
      std: 0.03
    }
    bias_filler {
      type: "constant"
      value: 0.2
    }
  }
}
layer {
  name: "inception_3a/relu_5x5"
  type: "ReLU"
  bottom: "inception_3a/5x5"
  top: "inception_3a/5x5"
}
layer {
  name: "inception_3a/pool"
  type: "Pooling"
  bottom: "pool2/3x3_s2"
  top: "inception_3a/pool"
  pooling_param {
    pool: MAX
    kernel_size: 3
    stride: 1
    pad: 1
  }
}
layer {
  name: "inception_3a/pool_proj"
  type: "Convolution"
  bottom: "inception_3a/pool"
  top: "inception_3a/pool_proj"
  param {
    lr_mult: 1
    decay_mult: 1
  }
  param {
    lr_mult: 2
    decay_mult: 0
  }
  convolution_param {
    num_output: 32
    kernel_size: 1
    weight_filler {
      type: "xavier"
      std: 0.1
    }
    bias_filler {
      type: "constant"
      value: 0.2
    }
  }
}
layer {
  name: "inception_3a/relu_pool_proj"
  type: "ReLU"
  bottom: "inception_3a/pool_proj"
  top: "inception_3a/pool_proj"
}
layer {
  name: "inception_3a/output"
  type: "Concat"
  bottom: "inception_3a/1x1"
  bottom: "inception_3a/3x3"
  bottom: "inception_3a/5x5"
  bottom: "inception_3a/pool_proj"
  top: "inception_3a/output"
}
layer {
  name: "inception_3b/1x1"
  type: "Convolution"
  bottom: "inception_3a/output"
  top: "inception_3b/1x1"
  param {
    lr_mult: 1
    decay_mult: 1
  }
  param {
    lr_mult: 2
    decay_mult: 0
  }
  convolution_param {
    num_output: 128
    kernel_size: 1
    weight_filler {
      type: "xavier"
      std: 0.03
    }
    bias_filler {
      type: "constant"
      value: 0.2
    }
  }
}
layer {
  name: "inception_3b/relu_1x1"
  type: "ReLU"
  bottom: "inception_3b/1x1"
  top: "inception_3b/1x1"
}
layer {
  name: "inception_3b/3x3_reduce"
  type: "Convolution"
  bottom: "inception_3a/output"
  top: "inception_3b/3x3_reduce"
  param {
    lr_mult: 1
    decay_mult: 1
  }
  param {
    lr_mult: 2
    decay_mult: 0
  }
  convolution_param {
    num_output: 128
    kernel_size: 1
    weight_filler {
      type: "xavier"
      std: 0.09
    }
    bias_filler {
      type: "constant"
      value: 0.2
    }
  }
}
layer {
  name: "inception_3b/relu_3x3_reduce"
  type: "ReLU"
  bottom: "inception_3b/3x3_reduce"
  top: "inception_3b/3x3_reduce"
}
layer {
  name: "inception_3b/3x3"
  type: "Convolution"
  bottom: "inception_3b/3x3_reduce"
  top: "inception_3b/3x3"
  param {
    lr_mult: 1
    decay_mult: 1
  }
  param {
    lr_mult: 2
    decay_mult: 0
  }
  convolution_param {
    num_output: 192
    pad: 1
    kernel_size: 3
    weight_filler {
      type: "xavier"
      std: 0.03
    }
    bias_filler {
      type: "constant"
      value: 0.2
    }
  }
}
layer {
  name: "inception_3b/relu_3x3"
  type: "ReLU"
  bottom: "inception_3b/3x3"
  top: "inception_3b/3x3"
}
layer {
  name: "inception_3b/5x5_reduce"
  type: "Convolution"
  bottom: "inception_3a/output"
  top: "inception_3b/5x5_reduce"
  param {
    lr_mult: 1
    decay_mult: 1
  }
  param {
    lr_mult: 2
    decay_mult: 0
  }
  convolution_param {
    num_output: 32
    kernel_size: 1
    weight_filler {
      type: "xavier"
      std: 0.2
    }
    bias_filler {
      type: "constant"
      value: 0.2
    }
  }
}
layer {
  name: "inception_3b/relu_5x5_reduce"
  type: "ReLU"
  bottom: "inception_3b/5x5_reduce"
  top: "inception_3b/5x5_reduce"
}
layer {
  name: "inception_3b/5x5"
  type: "Convolution"
  bottom: "inception_3b/5x5_reduce"
  top: "inception_3b/5x5"
  param {
    lr_mult: 1
    decay_mult: 1
  }
  param {
    lr_mult: 2
    decay_mult: 0
  }
  convolution_param {
    num_output: 96
    pad: 2
    kernel_size: 5
    weight_filler {
      type: "xavier"
      std: 0.03
    }
    bias_filler {
      type: "constant"
      value: 0.2
    }
  }
}
layer {
  name: "inception_3b/relu_5x5"
  type: "ReLU"
  bottom: "inception_3b/5x5"
  top: "inception_3b/5x5"
}
layer {
  name: "inception_3b/pool"
  type: "Pooling"
  bottom: "inception_3a/output"
  top: "inception_3b/pool"
  pooling_param {
    pool: MAX
    kernel_size: 3
    stride: 1
    pad: 1
  }
}
layer {
  name: "inception_3b/pool_proj"
  type: "Convolution"
  bottom: "inception_3b/pool"
  top: "inception_3b/pool_proj"
  param {
    lr_mult: 1
    decay_mult: 1
  }
  param {
    lr_mult: 2
    decay_mult: 0
  }
  convolution_param {
    num_output: 64
    kernel_size: 1
    weight_filler {
      type: "xavier"
      std: 0.1
    }
    bias_filler {
      type: "constant"
      value: 0.2
    }
  }
}
layer {
  name: "inception_3b/relu_pool_proj"
  type: "ReLU"
  bottom: "inception_3b/pool_proj"
  top: "inception_3b/pool_proj"
}
layer {
  name: "inception_3b/output"
  type: "Concat"
  bottom: "inception_3b/1x1"
  bottom: "inception_3b/3x3"
  bottom: "inception_3b/5x5"
  bottom: "inception_3b/pool_proj"
  top: "inception_3b/output"
}
layer {
  name: "pool3/3x3_s2"
  type: "Pooling"
  bottom: "inception_3b/output"
  top: "pool3/3x3_s2"
  pooling_param {
    pool: MAX
    kernel_size: 3
    stride: 2
  }
}
layer {
  name: "inception_4a/1x1"
  type: "Convolution"
  bottom: "pool3/3x3_s2"
  top: "inception_4a/1x1"
  param {
    lr_mult: 1
    decay_mult: 1
  }
  param {
    lr_mult: 2
    decay_mult: 0
  }
  convolution_param {
    num_output: 192
    kernel_size: 1
    weight_filler {
      type: "xavier"
      std: 0.03
    }
    bias_filler {
      type: "constant"
      value: 0.2
    }
  }
}
layer {
  name: "inception_4a/relu_1x1"
  type: "ReLU"
  bottom: "inception_4a/1x1"
  top: "inception_4a/1x1"
}
layer {
  name: "inception_4a/3x3_reduce"
  type: "Convolution"
  bottom: "pool3/3x3_s2"
  top: "inception_4a/3x3_reduce"
  param {
    lr_mult: 1
    decay_mult: 1
  }
  param {
    lr_mult: 2
    decay_mult: 0
  }
  convolution_param {
    num_output: 96
    kernel_size: 1
    weight_filler {
      type: "xavier"
      std: 0.09
    }
    bias_filler {
      type: "constant"
      value: 0.2
    }
  }
}
layer {
  name: "inception_4a/relu_3x3_reduce"
  type: "ReLU"
  bottom: "inception_4a/3x3_reduce"
  top: "inception_4a/3x3_reduce"
}
layer {
  name: "inception_4a/3x3"
  type: "Convolution"
  bottom: "inception_4a/3x3_reduce"
  top: "inception_4a/3x3"
  param {
    lr_mult: 1
    decay_mult: 1
  }
  param {
    lr_mult: 2
    decay_mult: 0
  }
  convolution_param {
    num_output: 208
    pad: 1
    kernel_size: 3
    weight_filler {
      type: "xavier"
      std: 0.03
    }
    bias_filler {
      type: "constant"
      value: 0.2
    }
  }
}
layer {
  name: "inception_4a/relu_3x3"
  type: "ReLU"
  bottom: "inception_4a/3x3"
  top: "inception_4a/3x3"
}
layer {
  name: "inception_4a/5x5_reduce"
  type: "Convolution"
  bottom: "pool3/3x3_s2"
  top: "inception_4a/5x5_reduce"
  param {
    lr_mult: 1
    decay_mult: 1
  }
  param {
    lr_mult: 2
    decay_mult: 0
  }
  convolution_param {
    num_output: 16
    kernel_size: 1
    weight_filler {
      type: "xavier"
      std: 0.2
    }
    bias_filler {
      type: "constant"
      value: 0.2
    }
  }
}
layer {
  name: "inception_4a/relu_5x5_reduce"
  type: "ReLU"
  bottom: "inception_4a/5x5_reduce"
  top: "inception_4a/5x5_reduce"
}
layer {
  name: "inception_4a/5x5"
  type: "Convolution"
  bottom: "inception_4a/5x5_reduce"
  top: "inception_4a/5x5"
  param {
    lr_mult: 1
    decay_mult: 1
  }
  param {
    lr_mult: 2
    decay_mult: 0
  }
  convolution_param {
    num_output: 48
    pad: 2
    kernel_size: 5
    weight_filler {
      type: "xavier"
      std: 0.03
    }
    bias_filler {
      type: "constant"
      value: 0.2
    }
  }
}
layer {
  name: "inception_4a/relu_5x5"
  type: "ReLU"
  bottom: "inception_4a/5x5"
  top: "inception_4a/5x5"
}
layer {
  name: "inception_4a/pool"
  type: "Pooling"
  bottom: "pool3/3x3_s2"
  top: "inception_4a/pool"
  pooling_param {
    pool: MAX
    kernel_size: 3
    stride: 1
    pad: 1
  }
}
layer {
  name: "inception_4a/pool_proj"
  type: "Convolution"
  bottom: "inception_4a/pool"
  top: "inception_4a/pool_proj"
  param {
    lr_mult: 1
    decay_mult: 1
  }
  param {
    lr_mult: 2
    decay_mult: 0
  }
  convolution_param {
    num_output: 64
    kernel_size: 1
    weight_filler {
      type: "xavier"
      std: 0.1
    }
    bias_filler {
      type: "constant"
      value: 0.2
    }
  }
}
layer {
  name: "inception_4a/relu_pool_proj"
  type: "ReLU"
  bottom: "inception_4a/pool_proj"
  top: "inception_4a/pool_proj"
}
layer {
  name: "inception_4a/output"
  type: "Concat"
  bottom: "inception_4a/1x1"
  bottom: "inception_4a/3x3"
  bottom: "inception_4a/5x5"
  bottom: "inception_4a/pool_proj"
  top: "inception_4a/output"
}
layer {
  name: "loss1/ave_pool"
  type: "Pooling"
  bottom: "inception_4a/output"
  top: "loss1/ave_pool"
  pooling_param {
    pool: AVE
    kernel_size: 5
    stride: 3
  }
}
layer {
  name: "loss1/conv"
  type: "Convolution"
  bottom: "loss1/ave_pool"
  top: "loss1/conv"
  param {
    lr_mult: 1
    decay_mult: 1
  }
  param {
    lr_mult: 2
    decay_mult: 0
  }
  convolution_param {
    num_output: 128
    kernel_size: 1
    weight_filler {
      type: "xavier"
      std: 0.08
    }
    bias_filler {
      type: "constant"
      value: 0.2
    }
  }
}
layer {
  name: "loss1/relu_conv"
  type: "ReLU"
  bottom: "loss1/conv"
  top: "loss1/conv"
}
layer {
  name: "loss1/fc"
  type: "InnerProduct"
  bottom: "loss1/conv"
  top: "loss1/fc"
  param {
    lr_mult: 1
    decay_mult: 1
  }
  param {
    lr_mult: 2
    decay_mult: 0
  }
  inner_product_param {
    num_output: 1024
    weight_filler {
      type: "xavier"
      std: 0.02
    }
    bias_filler {
      type: "constant"
      value: 0.2
    }
  }
}
layer {
  name: "loss1/relu_fc"
  type: "ReLU"
  bottom: "loss1/fc"
  top: "loss1/fc"
}
layer {
  name: "loss1/drop_fc"
  type: "Dropout"
  bottom: "loss1/fc"
  top: "loss1/fc"
  dropout_param {
    dropout_ratio: 0.7
  }
}
layer {
  name: "loss1/classifier_plantvillage"
  type: "InnerProduct"
  bottom: "loss1/fc"
  top: "loss1/classifier_plantvillage"
  param {
    lr_mult: 1
    decay_mult: 1
  }
  param {
    lr_mult: 2
    decay_mult: 0
  }
  inner_product_param {
    num_output: 38
    weight_filler {
      type: "xavier"
      std: 0.0009765625
    }
    bias_filler {
      type: "constant"
      value: 0
    }
  }
}
layer {
  name: "inception_4b/1x1"
  type: "Convolution"
  bottom: "inception_4a/output"
  top: "inception_4b/1x1"
  param {
    lr_mult: 1
    decay_mult: 1
  }
  param {
    lr_mult: 2
    decay_mult: 0
  }
  convolution_param {
    num_output: 160
    kernel_size: 1
    weight_filler {
      type: "xavier"
      std: 0.03
    }
    bias_filler {
      type: "constant"
      value: 0.2
    }
  }
}
layer {
  name: "inception_4b/relu_1x1"
  type: "ReLU"
  bottom: "inception_4b/1x1"
  top: "inception_4b/1x1"
}
layer {
  name: "inception_4b/3x3_reduce"
  type: "Convolution"
  bottom: "inception_4a/output"
  top: "inception_4b/3x3_reduce"
  param {
    lr_mult: 1
    decay_mult: 1
  }
  param {
    lr_mult: 2
    decay_mult: 0
  }
  convolution_param {
    num_output: 112
    kernel_size: 1
    weight_filler {
      type: "xavier"
      std: 0.09
    }
    bias_filler {
      type: "constant"
      value: 0.2
    }
  }
}
layer {
  name: "inception_4b/relu_3x3_reduce"
  type: "ReLU"
  bottom: "inception_4b/3x3_reduce"
  top: "inception_4b/3x3_reduce"
}
layer {
  name: "inception_4b/3x3"
  type: "Convolution"
  bottom: "inception_4b/3x3_reduce"
  top: "inception_4b/3x3"
  param {
    lr_mult: 1
    decay_mult: 1
  }
  param {
    lr_mult: 2
    decay_mult: 0
  }
  convolution_param {
    num_output: 224
    pad: 1
    kernel_size: 3
    weight_filler {
      type: "xavier"
      std: 0.03
    }
    bias_filler {
      type: "constant"
      value: 0.2
    }
  }
}
layer {
  name: "inception_4b/relu_3x3"
  type: "ReLU"
  bottom: "inception_4b/3x3"
  top: "inception_4b/3x3"
}
layer {
  name: "inception_4b/5x5_reduce"
  type: "Convolution"
  bottom: "inception_4a/output"
  top: "inception_4b/5x5_reduce"
  param {
    lr_mult: 1
    decay_mult: 1
  }
  param {
    lr_mult: 2
    decay_mult: 0
  }
  convolution_param {
    num_output: 24
    kernel_size: 1
    weight_filler {
      type: "xavier"
      std: 0.2
    }
    bias_filler {
      type: "constant"
      value: 0.2
    }
  }
}
layer {
  name: "inception_4b/relu_5x5_reduce"
  type: "ReLU"
  bottom: "inception_4b/5x5_reduce"
  top: "inception_4b/5x5_reduce"
}
layer {
  name: "inception_4b/5x5"
  type: "Convolution"
  bottom: "inception_4b/5x5_reduce"
  top: "inception_4b/5x5"
  param {
    lr_mult: 1
    decay_mult: 1
  }
  param {
    lr_mult: 2
    decay_mult: 0
  }
  convolution_param {
    num_output: 64
    pad: 2
    kernel_size: 5
    weight_filler {
      type: "xavier"
      std: 0.03
    }
    bias_filler {
      type: "constant"
      value: 0.2
    }
  }
}
layer {
  name: "inception_4b/relu_5x5"
  type: "ReLU"
  bottom: "inception_4b/5x5"
  top: "inception_4b/5x5"
}
layer {
  name: "inception_4b/pool"
  type: "Pooling"
  bottom: "inception_4a/output"
  top: "inception_4b/pool"
  pooling_param {
    pool: MAX
    kernel_size: 3
    stride: 1
    pad: 1
  }
}
layer {
  name: "inception_4b/pool_proj"
  type: "Convolution"
  bottom: "inception_4b/pool"
  top: "inception_4b/pool_proj"
  param {
    lr_mult: 1
    decay_mult: 1
  }
  param {
    lr_mult: 2
    decay_mult: 0
  }
  convolution_param {
    num_output: 64
    kernel_size: 1
    weight_filler {
      type: "xavier"
      std: 0.1
    }
    bias_filler {
      type: "constant"
      value: 0.2
    }
  }
}
layer {
  name: "inception_4b/relu_pool_proj"
  type: "ReLU"
  bottom: "inception_4b/pool_proj"
  top: "inception_4b/pool_proj"
}
layer {
  name: "inception_4b/output"
  type: "Concat"
  bottom: "inception_4b/1x1"
  bottom: "inception_4b/3x3"
  bottom: "inception_4b/5x5"
  bottom: "inception_4b/pool_proj"
  top: "inception_4b/output"
}
layer {
  name: "inception_4c/1x1"
  type: "Convolution"
  bottom: "inception_4b/output"
  top: "inception_4c/1x1"
  param {
    lr_mult: 1
    decay_mult: 1
  }
  param {
    lr_mult: 2
    decay_mult: 0
  }
  convolution_param {
    num_output: 128
    kernel_size: 1
    weight_filler {
      type: "xavier"
      std: 0.03
    }
    bias_filler {
      type: "constant"
      value: 0.2
    }
  }
}
layer {
  name: "inception_4c/relu_1x1"
  type: "ReLU"
  bottom: "inception_4c/1x1"
  top: "inception_4c/1x1"
}
layer {
  name: "inception_4c/3x3_reduce"
  type: "Convolution"
  bottom: "inception_4b/output"
  top: "inception_4c/3x3_reduce"
  param {
    lr_mult: 1
    decay_mult: 1
  }
  param {
    lr_mult: 2
    decay_mult: 0
  }
  convolution_param {
    num_output: 128
    kernel_size: 1
    weight_filler {
      type: "xavier"
      std: 0.09
    }
    bias_filler {
      type: "constant"
      value: 0.2
    }
  }
}
layer {
  name: "inception_4c/relu_3x3_reduce"
  type: "ReLU"
  bottom: "inception_4c/3x3_reduce"
  top: "inception_4c/3x3_reduce"
}
layer {
  name: "inception_4c/3x3"
  type: "Convolution"
  bottom: "inception_4c/3x3_reduce"
  top: "inception_4c/3x3"
  param {
    lr_mult: 1
    decay_mult: 1
  }
  param {
    lr_mult: 2
    decay_mult: 0
  }
  convolution_param {
    num_output: 256
    pad: 1
    kernel_size: 3
    weight_filler {
      type: "xavier"
      std: 0.03
    }
    bias_filler {
      type: "constant"
      value: 0.2
    }
  }
}
layer {
  name: "inception_4c/relu_3x3"
  type: "ReLU"
  bottom: "inception_4c/3x3"
  top: "inception_4c/3x3"
}
layer {
  name: "inception_4c/5x5_reduce"
  type: "Convolution"
  bottom: "inception_4b/output"
  top: "inception_4c/5x5_reduce"
  param {
    lr_mult: 1
    decay_mult: 1
  }
  param {
    lr_mult: 2
    decay_mult: 0
  }
  convolution_param {
    num_output: 24
    kernel_size: 1
    weight_filler {
      type: "xavier"
      std: 0.2
    }
    bias_filler {
      type: "constant"
      value: 0.2
    }
  }
}
layer {
  name: "inception_4c/relu_5x5_reduce"
  type: "ReLU"
  bottom: "inception_4c/5x5_reduce"
  top: "inception_4c/5x5_reduce"
}
layer {
  name: "inception_4c/5x5"
  type: "Convolution"
  bottom: "inception_4c/5x5_reduce"
  top: "inception_4c/5x5"
  param {
    lr_mult: 1
    decay_mult: 1
  }
  param {
    lr_mult: 2
    decay_mult: 0
  }
  convolution_param {
    num_output: 64
    pad: 2
    kernel_size: 5
    weight_filler {
      type: "xavier"
      std: 0.03
    }
    bias_filler {
      type: "constant"
      value: 0.2
    }
  }
}
layer {
  name: "inception_4c/relu_5x5"
  type: "ReLU"
  bottom: "inception_4c/5x5"
  top: "inception_4c/5x5"
}
layer {
  name: "inception_4c/pool"
  type: "Pooling"
  bottom: "inception_4b/output"
  top: "inception_4c/pool"
  pooling_param {
    pool: MAX
    kernel_size: 3
    stride: 1
    pad: 1
  }
}
layer {
  name: "inception_4c/pool_proj"
  type: "Convolution"
  bottom: "inception_4c/pool"
  top: "inception_4c/pool_proj"
  param {
    lr_mult: 1
    decay_mult: 1
  }
  param {
    lr_mult: 2
    decay_mult: 0
  }
  convolution_param {
    num_output: 64
    kernel_size: 1
    weight_filler {
      type: "xavier"
      std: 0.1
    }
    bias_filler {
      type: "constant"
      value: 0.2
    }
  }
}
layer {
  name: "inception_4c/relu_pool_proj"
  type: "ReLU"
  bottom: "inception_4c/pool_proj"
  top: "inception_4c/pool_proj"
}
layer {
  name: "inception_4c/output"
  type: "Concat"
  bottom: "inception_4c/1x1"
  bottom: "inception_4c/3x3"
  bottom: "inception_4c/5x5"
  bottom: "inception_4c/pool_proj"
  top: "inception_4c/output"
}
layer {
  name: "inception_4d/1x1"
  type: "Convolution"
  bottom: "inception_4c/output"
  top: "inception_4d/1x1"
  param {
    lr_mult: 1
    decay_mult: 1
  }
  param {
    lr_mult: 2
    decay_mult: 0
  }
  convolution_param {
    num_output: 112
    kernel_size: 1
    weight_filler {
      type: "xavier"
      std: 0.03
    }
    bias_filler {
      type: "constant"
      value: 0.2
    }
  }
}
layer {
  name: "inception_4d/relu_1x1"
  type: "ReLU"
  bottom: "inception_4d/1x1"
  top: "inception_4d/1x1"
}
layer {
  name: "inception_4d/3x3_reduce"
  type: "Convolution"
  bottom: "inception_4c/output"
  top: "inception_4d/3x3_reduce"
  param {
    lr_mult: 1
    decay_mult: 1
  }
  param {
    lr_mult: 2
    decay_mult: 0
  }
  convolution_param {
    num_output: 144
    kernel_size: 1
    weight_filler {
      type: "xavier"
      std: 0.09
    }
    bias_filler {
      type: "constant"
      value: 0.2
    }
  }
}
layer {
  name: "inception_4d/relu_3x3_reduce"
  type: "ReLU"
  bottom: "inception_4d/3x3_reduce"
  top: "inception_4d/3x3_reduce"
}
layer {
  name: "inception_4d/3x3"
  type: "Convolution"
  bottom: "inception_4d/3x3_reduce"
  top: "inception_4d/3x3"
  param {
    lr_mult: 1
    decay_mult: 1
  }
  param {
    lr_mult: 2
    decay_mult: 0
  }
  convolution_param {
    num_output: 288
    pad: 1
    kernel_size: 3
    weight_filler {
      type: "xavier"
      std: 0.03
    }
    bias_filler {
      type: "constant"
      value: 0.2
    }
  }
}
layer {
  name: "inception_4d/relu_3x3"
  type: "ReLU"
  bottom: "inception_4d/3x3"
  top: "inception_4d/3x3"
}
layer {
  name: "inception_4d/5x5_reduce"
  type: "Convolution"
  bottom: "inception_4c/output"
  top: "inception_4d/5x5_reduce"
  param {
    lr_mult: 1
    decay_mult: 1
  }
  param {
    lr_mult: 2
    decay_mult: 0
  }
  convolution_param {
    num_output: 32
    kernel_size: 1
    weight_filler {
      type: "xavier"
      std: 0.2
    }
    bias_filler {
      type: "constant"
      value: 0.2
    }
  }
}
layer {
  name: "inception_4d/relu_5x5_reduce"
  type: "ReLU"
  bottom: "inception_4d/5x5_reduce"
  top: "inception_4d/5x5_reduce"
}
layer {
  name: "inception_4d/5x5"
  type: "Convolution"
  bottom: "inception_4d/5x5_reduce"
  top: "inception_4d/5x5"
  param {
    lr_mult: 1
    decay_mult: 1
  }
  param {
    lr_mult: 2
    decay_mult: 0
  }
  convolution_param {
    num_output: 64
    pad: 2
    kernel_size: 5
    weight_filler {
      type: "xavier"
      std: 0.03
    }
    bias_filler {
      type: "constant"
      value: 0.2
    }
  }
}
layer {
  name: "inception_4d/relu_5x5"
  type: "ReLU"
  bottom: "inception_4d/5x5"
  top: "inception_4d/5x5"
}
layer {
  name: "inception_4d/pool"
  type: "Pooling"
  bottom: "inception_4c/output"
  top: "inception_4d/pool"
  pooling_param {
    pool: MAX
    kernel_size: 3
    stride: 1
    pad: 1
  }
}
layer {
  name: "inception_4d/pool_proj"
  type: "Convolution"
  bottom: "inception_4d/pool"
  top: "inception_4d/pool_proj"
  param {
    lr_mult: 1
    decay_mult: 1
  }
  param {
    lr_mult: 2
    decay_mult: 0
  }
  convolution_param {
    num_output: 64
    kernel_size: 1
    weight_filler {
      type: "xavier"
      std: 0.1
    }
    bias_filler {
      type: "constant"
      value: 0.2
    }
  }
}
layer {
  name: "inception_4d/relu_pool_proj"
  type: "ReLU"
  bottom: "inception_4d/pool_proj"
  top: "inception_4d/pool_proj"
}
layer {
  name: "inception_4d/output"
  type: "Concat"
  bottom: "inception_4d/1x1"
  bottom: "inception_4d/3x3"
  bottom: "inception_4d/5x5"
  bottom: "inception_4d/pool_proj"
  top: "inception_4d/output"
}
layer {
  name: "loss2/ave_pool"
  type: "Pooling"
  bottom: "inception_4d/output"
  top: "loss2/ave_pool"
  pooling_param {
    pool: AVE
    kernel_size: 5
    stride: 3
  }
}
layer {
  name: "loss2/conv"
  type: "Convolution"
  bottom: "loss2/ave_pool"
  top: "loss2/conv"
  param {
    lr_mult: 1
    decay_mult: 1
  }
  param {
    lr_mult: 2
    decay_mult: 0
  }
  convolution_param {
    num_output: 128
    kernel_size: 1
    weight_filler {
      type: "xavier"
      std: 0.08
    }
    bias_filler {
      type: "constant"
      value: 0.2
    }
  }
}
layer {
  name: "loss2/relu_conv"
  type: "ReLU"
  bottom: "loss2/conv"
  top: "loss2/conv"
}
layer {
  name: "loss2/fc"
  type: "InnerProduct"
  bottom: "loss2/conv"
  top: "loss2/fc"
  param {
    lr_mult: 1
    decay_mult: 1
  }
  param {
    lr_mult: 2
    decay_mult: 0
  }
  inner_product_param {
    num_output: 1024
    weight_filler {
      type: "xavier"
      std: 0.02
    }
    bias_filler {
      type: "constant"
      value: 0.2
    }
  }
}
layer {
  name: "loss2/relu_fc"
  type: "ReLU"
  bottom: "loss2/fc"
  top: "loss2/fc"
}
layer {
  name: "loss2/drop_fc"
  type: "Dropout"
  bottom: "loss2/fc"
  top: "loss2/fc"
  dropout_param {
    dropout_ratio: 0.7
  }
}
layer {
  name: "loss2/classifier_plantvillage"
  type: "InnerProduct"
  bottom: "loss2/fc"
  top: "loss2/classifier_plantvillage"
  param {
    lr_mult: 1
    decay_mult: 1
  }
  param {
    lr_mult: 2
    decay_mult: 0
  }
  inner_product_param {
    num_output: 38
    weight_filler {
      type: "xavier"
      std: 0.0009765625
    }
    bias_filler {
      type: "constant"
      value: 0
    }
  }
}
layer {
  name: "inception_4e/1x1"
  type: "Convolution"
  bottom: "inception_4d/output"
  top: "inception_4e/1x1"
  param {
    lr_mult: 1
    decay_mult: 1
  }
  param {
    lr_mult: 2
    decay_mult: 0
  }
  convolution_param {
    num_output: 256
    kernel_size: 1
    weight_filler {
      type: "xavier"
      std: 0.03
    }
    bias_filler {
      type: "constant"
      value: 0.2
    }
  }
}
layer {
  name: "inception_4e/relu_1x1"
  type: "ReLU"
  bottom: "inception_4e/1x1"
  top: "inception_4e/1x1"
}
layer {
  name: "inception_4e/3x3_reduce"
  type: "Convolution"
  bottom: "inception_4d/output"
  top: "inception_4e/3x3_reduce"
  param {
    lr_mult: 1
    decay_mult: 1
  }
  param {
    lr_mult: 2
    decay_mult: 0
  }
  convolution_param {
    num_output: 160
    kernel_size: 1
    weight_filler {
      type: "xavier"
      std: 0.09
    }
    bias_filler {
      type: "constant"
      value: 0.2
    }
  }
}
layer {
  name: "inception_4e/relu_3x3_reduce"
  type: "ReLU"
  bottom: "inception_4e/3x3_reduce"
  top: "inception_4e/3x3_reduce"
}
layer {
  name: "inception_4e/3x3"
  type: "Convolution"
  bottom: "inception_4e/3x3_reduce"
  top: "inception_4e/3x3"
  param {
    lr_mult: 1
    decay_mult: 1
  }
  param {
    lr_mult: 2
    decay_mult: 0
  }
  convolution_param {
    num_output: 320
    pad: 1
    kernel_size: 3
    weight_filler {
      type: "xavier"
      std: 0.03
    }
    bias_filler {
      type: "constant"
      value: 0.2
    }
  }
}
layer {
  name: "inception_4e/relu_3x3"
  type: "ReLU"
  bottom: "inception_4e/3x3"
  top: "inception_4e/3x3"
}
layer {
  name: "inception_4e/5x5_reduce"
  type: "Convolution"
  bottom: "inception_4d/output"
  top: "inception_4e/5x5_reduce"
  param {
    lr_mult: 1
    decay_mult: 1
  }
  param {
    lr_mult: 2
    decay_mult: 0
  }
  convolution_param {
    num_output: 32
    kernel_size: 1
    weight_filler {
      type: "xavier"
      std: 0.2
    }
    bias_filler {
      type: "constant"
      value: 0.2
    }
  }
}
layer {
  name: "inception_4e/relu_5x5_reduce"
  type: "ReLU"
  bottom: "inception_4e/5x5_reduce"
  top: "inception_4e/5x5_reduce"
}
layer {
  name: "inception_4e/5x5"
  type: "Convolution"
  bottom: "inception_4e/5x5_reduce"
  top: "inception_4e/5x5"
  p
I0403 21:48:33.306561 12900 layer_factory.hpp:77] Creating layer data
I0403 21:48:33.307134 12900 net.cpp:91] Creating Layer data
I0403 21:48:33.307165 12900 net.cpp:399] data -> data
I0403 21:48:33.307220 12900 net.cpp:399] data -> label
I0403 21:48:33.307256 12900 data_transformer.cpp:25] Loading mean file from: /home/mohanty/data/final_dataset/lmdb/color-80-20/mean.binaryproto
I0403 21:48:33.308213 12902 db_lmdb.cpp:38] Opened lmdb /home/mohanty/data/final_dataset/lmdb/color-80-20/test_db
I0403 21:48:33.320112 12900 data_layer.cpp:41] output data size: 24,3,224,224
I0403 21:48:33.347062 12900 net.cpp:141] Setting up data
I0403 21:48:33.347152 12900 net.cpp:148] Top shape: 24 3 224 224 (3612672)
I0403 21:48:33.347177 12900 net.cpp:148] Top shape: 24 (24)
I0403 21:48:33.347192 12900 net.cpp:156] Memory required for data: 14450784
I0403 21:48:33.347223 12900 layer_factory.hpp:77] Creating layer label_data_1_split
I0403 21:48:33.347251 12900 net.cpp:91] Creating Layer label_data_1_split
I0403 21:48:33.347268 12900 net.cpp:425] label_data_1_split <- label
I0403 21:48:33.347301 12900 net.cpp:399] label_data_1_split -> label_data_1_split_0
I0403 21:48:33.347328 12900 net.cpp:399] label_data_1_split -> label_data_1_split_1
I0403 21:48:33.347350 12900 net.cpp:399] label_data_1_split -> label_data_1_split_2
I0403 21:48:33.347371 12900 net.cpp:399] label_data_1_split -> label_data_1_split_3
I0403 21:48:33.347389 12900 net.cpp:399] label_data_1_split -> label_data_1_split_4
I0403 21:48:33.347409 12900 net.cpp:399] label_data_1_split -> label_data_1_split_5
I0403 21:48:33.347427 12900 net.cpp:399] label_data_1_split -> label_data_1_split_6
I0403 21:48:33.347448 12900 net.cpp:399] label_data_1_split -> label_data_1_split_7
I0403 21:48:33.347468 12900 net.cpp:399] label_data_1_split -> label_data_1_split_8
I0403 21:48:33.347489 12900 net.cpp:399] label_data_1_split -> label_data_1_split_9
I0403 21:48:33.347597 12900 net.cpp:141] Setting up label_data_1_split
I0403 21:48:33.347621 12900 net.cpp:148] Top shape: 24 (24)
I0403 21:48:33.347638 12900 net.cpp:148] Top shape: 24 (24)
I0403 21:48:33.347653 12900 net.cpp:148] Top shape: 24 (24)
I0403 21:48:33.347668 12900 net.cpp:148] Top shape: 24 (24)
I0403 21:48:33.347684 12900 net.cpp:148] Top shape: 24 (24)
I0403 21:48:33.347699 12900 net.cpp:148] Top shape: 24 (24)
I0403 21:48:33.347714 12900 net.cpp:148] Top shape: 24 (24)
I0403 21:48:33.347728 12900 net.cpp:148] Top shape: 24 (24)
I0403 21:48:33.347743 12900 net.cpp:148] Top shape: 24 (24)
I0403 21:48:33.347760 12900 net.cpp:148] Top shape: 24 (24)
I0403 21:48:33.347805 12900 net.cpp:156] Memory required for data: 14451744
I0403 21:48:33.347821 12900 layer_factory.hpp:77] Creating layer conv1/7x7_s2
I0403 21:48:33.347853 12900 net.cpp:91] Creating Layer conv1/7x7_s2
I0403 21:48:33.347872 12900 net.cpp:425] conv1/7x7_s2 <- data
I0403 21:48:33.347890 12900 net.cpp:399] conv1/7x7_s2 -> conv1/7x7_s2
I0403 21:48:33.491585 12900 net.cpp:141] Setting up conv1/7x7_s2
I0403 21:48:33.491693 12900 net.cpp:148] Top shape: 24 64 112 112 (19267584)
I0403 21:48:33.491737 12900 net.cpp:156] Memory required for data: 91522080
I0403 21:48:33.491770 12900 layer_factory.hpp:77] Creating layer conv1/relu_7x7
I0403 21:48:33.491796 12900 net.cpp:91] Creating Layer conv1/relu_7x7
I0403 21:48:33.491814 12900 net.cpp:425] conv1/relu_7x7 <- conv1/7x7_s2
I0403 21:48:33.491835 12900 net.cpp:386] conv1/relu_7x7 -> conv1/7x7_s2 (in-place)
I0403 21:48:33.492100 12900 net.cpp:141] Setting up conv1/relu_7x7
I0403 21:48:33.492126 12900 net.cpp:148] Top shape: 24 64 112 112 (19267584)
I0403 21:48:33.492141 12900 net.cpp:156] Memory required for data: 168592416
I0403 21:48:33.492156 12900 layer_factory.hpp:77] Creating layer pool1/3x3_s2
I0403 21:48:33.492183 12900 net.cpp:91] Creating Layer pool1/3x3_s2
I0403 21:48:33.492202 12900 net.cpp:425] pool1/3x3_s2 <- conv1/7x7_s2
I0403 21:48:33.492231 12900 net.cpp:399] pool1/3x3_s2 -> pool1/3x3_s2
I0403 21:48:33.492313 12900 net.cpp:141] Setting up pool1/3x3_s2
I0403 21:48:33.492337 12900 net.cpp:148] Top shape: 24 64 56 56 (4816896)
I0403 21:48:33.492352 12900 net.cpp:156] Memory required for data: 187860000
I0403 21:48:33.492365 12900 layer_factory.hpp:77] Creating layer pool1/norm1
I0403 21:48:33.492391 12900 net.cpp:91] Creating Layer pool1/norm1
I0403 21:48:33.492408 12900 net.cpp:425] pool1/norm1 <- pool1/3x3_s2
I0403 21:48:33.492425 12900 net.cpp:399] pool1/norm1 -> pool1/norm1
I0403 21:48:33.492715 12900 net.cpp:141] Setting up pool1/norm1
I0403 21:48:33.492743 12900 net.cpp:148] Top shape: 24 64 56 56 (4816896)
I0403 21:48:33.492758 12900 net.cpp:156] Memory required for data: 207127584
I0403 21:48:33.492771 12900 layer_factory.hpp:77] Creating layer conv2/3x3_reduce
I0403 21:48:33.492799 12900 net.cpp:91] Creating Layer conv2/3x3_reduce
I0403 21:48:33.492815 12900 net.cpp:425] conv2/3x3_reduce <- pool1/norm1
I0403 21:48:33.492836 12900 net.cpp:399] conv2/3x3_reduce -> conv2/3x3_reduce
I0403 21:48:33.494289 12900 net.cpp:141] Setting up conv2/3x3_reduce
I0403 21:48:33.494320 12900 net.cpp:148] Top shape: 24 64 56 56 (4816896)
I0403 21:48:33.494336 12900 net.cpp:156] Memory required for data: 226395168
I0403 21:48:33.494357 12900 layer_factory.hpp:77] Creating layer conv2/relu_3x3_reduce
I0403 21:48:33.494375 12900 net.cpp:91] Creating Layer conv2/relu_3x3_reduce
I0403 21:48:33.494391 12900 net.cpp:425] conv2/relu_3x3_reduce <- conv2/3x3_reduce
I0403 21:48:33.494410 12900 net.cpp:386] conv2/relu_3x3_reduce -> conv2/3x3_reduce (in-place)
I0403 21:48:33.494678 12900 net.cpp:141] Setting up conv2/relu_3x3_reduce
I0403 21:48:33.494704 12900 net.cpp:148] Top shape: 24 64 56 56 (4816896)
I0403 21:48:33.494719 12900 net.cpp:156] Memory required for data: 245662752
I0403 21:48:33.494734 12900 layer_factory.hpp:77] Creating layer conv2/3x3
I0403 21:48:33.494756 12900 net.cpp:91] Creating Layer conv2/3x3
I0403 21:48:33.494773 12900 net.cpp:425] conv2/3x3 <- conv2/3x3_reduce
I0403 21:48:33.494796 12900 net.cpp:399] conv2/3x3 -> conv2/3x3
I0403 21:48:33.497206 12900 net.cpp:141] Setting up conv2/3x3
I0403 21:48:33.497241 12900 net.cpp:148] Top shape: 24 192 56 56 (14450688)
I0403 21:48:33.497259 12900 net.cpp:156] Memory required for data: 303465504
I0403 21:48:33.497282 12900 layer_factory.hpp:77] Creating layer conv2/relu_3x3
I0403 21:48:33.497301 12900 net.cpp:91] Creating Layer conv2/relu_3x3
I0403 21:48:33.497318 12900 net.cpp:425] conv2/relu_3x3 <- conv2/3x3
I0403 21:48:33.497339 12900 net.cpp:386] conv2/relu_3x3 -> conv2/3x3 (in-place)
I0403 21:48:33.497532 12900 net.cpp:141] Setting up conv2/relu_3x3
I0403 21:48:33.497560 12900 net.cpp:148] Top shape: 24 192 56 56 (14450688)
I0403 21:48:33.497607 12900 net.cpp:156] Memory required for data: 361268256
I0403 21:48:33.497624 12900 layer_factory.hpp:77] Creating layer conv2/norm2
I0403 21:48:33.497644 12900 net.cpp:91] Creating Layer conv2/norm2
I0403 21:48:33.497663 12900 net.cpp:425] conv2/norm2 <- conv2/3x3
I0403 21:48:33.497679 12900 net.cpp:399] conv2/norm2 -> conv2/norm2
I0403 21:48:33.497977 12900 net.cpp:141] Setting up conv2/norm2
I0403 21:48:33.498008 12900 net.cpp:148] Top shape: 24 192 56 56 (14450688)
I0403 21:48:33.498025 12900 net.cpp:156] Memory required for data: 419071008
I0403 21:48:33.498040 12900 layer_factory.hpp:77] Creating layer pool2/3x3_s2
I0403 21:48:33.498059 12900 net.cpp:91] Creating Layer pool2/3x3_s2
I0403 21:48:33.498073 12900 net.cpp:425] pool2/3x3_s2 <- conv2/norm2
I0403 21:48:33.498091 12900 net.cpp:399] pool2/3x3_s2 -> pool2/3x3_s2
I0403 21:48:33.498143 12900 net.cpp:141] Setting up pool2/3x3_s2
I0403 21:48:33.498168 12900 net.cpp:148] Top shape: 24 192 28 28 (3612672)
I0403 21:48:33.498183 12900 net.cpp:156] Memory required for data: 433521696
I0403 21:48:33.498198 12900 layer_factory.hpp:77] Creating layer pool2/3x3_s2_pool2/3x3_s2_0_split
I0403 21:48:33.498234 12900 net.cpp:91] Creating Layer pool2/3x3_s2_pool2/3x3_s2_0_split
I0403 21:48:33.498250 12900 net.cpp:425] pool2/3x3_s2_pool2/3x3_s2_0_split <- pool2/3x3_s2
I0403 21:48:33.498270 12900 net.cpp:399] pool2/3x3_s2_pool2/3x3_s2_0_split -> pool2/3x3_s2_pool2/3x3_s2_0_split_0
I0403 21:48:33.498292 12900 net.cpp:399] pool2/3x3_s2_pool2/3x3_s2_0_split -> pool2/3x3_s2_pool2/3x3_s2_0_split_1
I0403 21:48:33.498313 12900 net.cpp:399] pool2/3x3_s2_pool2/3x3_s2_0_split -> pool2/3x3_s2_pool2/3x3_s2_0_split_2
I0403 21:48:33.498335 12900 net.cpp:399] pool2/3x3_s2_pool2/3x3_s2_0_split -> pool2/3x3_s2_pool2/3x3_s2_0_split_3
I0403 21:48:33.498411 12900 net.cpp:141] Setting up pool2/3x3_s2_pool2/3x3_s2_0_split
I0403 21:48:33.498436 12900 net.cpp:148] Top shape: 24 192 28 28 (3612672)
I0403 21:48:33.498455 12900 net.cpp:148] Top shape: 24 192 28 28 (3612672)
I0403 21:48:33.498471 12900 net.cpp:148] Top shape: 24 192 28 28 (3612672)
I0403 21:48:33.498487 12900 net.cpp:148] Top shape: 24 192 28 28 (3612672)
I0403 21:48:33.498514 12900 net.cpp:156] Memory required for data: 491324448
I0403 21:48:33.498528 12900 layer_factory.hpp:77] Creating layer inception_3a/1x1
I0403 21:48:33.498550 12900 net.cpp:91] Creating Layer inception_3a/1x1
I0403 21:48:33.498569 12900 net.cpp:425] inception_3a/1x1 <- pool2/3x3_s2_pool2/3x3_s2_0_split_0
I0403 21:48:33.498590 12900 net.cpp:399] inception_3a/1x1 -> inception_3a/1x1
I0403 21:48:33.500100 12900 net.cpp:141] Setting up inception_3a/1x1
I0403 21:48:33.500131 12900 net.cpp:148] Top shape: 24 64 28 28 (1204224)
I0403 21:48:33.500149 12900 net.cpp:156] Memory required for data: 496141344
I0403 21:48:33.500167 12900 layer_factory.hpp:77] Creating layer inception_3a/relu_1x1
I0403 21:48:33.500185 12900 net.cpp:91] Creating Layer inception_3a/relu_1x1
I0403 21:48:33.500200 12900 net.cpp:425] inception_3a/relu_1x1 <- inception_3a/1x1
I0403 21:48:33.500228 12900 net.cpp:386] inception_3a/relu_1x1 -> inception_3a/1x1 (in-place)
I0403 21:48:33.500402 12900 net.cpp:141] Setting up inception_3a/relu_1x1
I0403 21:48:33.500427 12900 net.cpp:148] Top shape: 24 64 28 28 (1204224)
I0403 21:48:33.500453 12900 net.cpp:156] Memory required for data: 500958240
I0403 21:48:33.500468 12900 layer_factory.hpp:77] Creating layer inception_3a/3x3_reduce
I0403 21:48:33.500488 12900 net.cpp:91] Creating Layer inception_3a/3x3_reduce
I0403 21:48:33.500505 12900 net.cpp:425] inception_3a/3x3_reduce <- pool2/3x3_s2_pool2/3x3_s2_0_split_1
I0403 21:48:33.500525 12900 net.cpp:399] inception_3a/3x3_reduce -> inception_3a/3x3_reduce
I0403 21:48:33.502127 12900 net.cpp:141] Setting up inception_3a/3x3_reduce
I0403 21:48:33.502156 12900 net.cpp:148] Top shape: 24 96 28 28 (1806336)
I0403 21:48:33.502171 12900 net.cpp:156] Memory required for data: 508183584
I0403 21:48:33.502190 12900 layer_factory.hpp:77] Creating layer inception_3a/relu_3x3_reduce
I0403 21:48:33.502238 12900 net.cpp:91] Creating Layer inception_3a/relu_3x3_reduce
I0403 21:48:33.502255 12900 net.cpp:425] inception_3a/relu_3x3_reduce <- inception_3a/3x3_reduce
I0403 21:48:33.502274 12900 net.cpp:386] inception_3a/relu_3x3_reduce -> inception_3a/3x3_reduce (in-place)
I0403 21:48:33.502444 12900 net.cpp:141] Setting up inception_3a/relu_3x3_reduce
I0403 21:48:33.502470 12900 net.cpp:148] Top shape: 24 96 28 28 (1806336)
I0403 21:48:33.502485 12900 net.cpp:156] Memory required for data: 515408928
I0403 21:48:33.502499 12900 layer_factory.hpp:77] Creating layer inception_3a/3x3
I0403 21:48:33.502521 12900 net.cpp:91] Creating Layer inception_3a/3x3
I0403 21:48:33.502547 12900 net.cpp:425] inception_3a/3x3 <- inception_3a/3x3_reduce
I0403 21:48:33.502564 12900 net.cpp:399] inception_3a/3x3 -> inception_3a/3x3
I0403 21:48:33.504099 12900 net.cpp:141] Setting up inception_3a/3x3
I0403 21:48:33.504127 12900 net.cpp:148] Top shape: 24 128 28 28 (2408448)
I0403 21:48:33.504140 12900 net.cpp:156] Memory required for data: 525042720
I0403 21:48:33.504158 12900 layer_factory.hpp:77] Creating layer inception_3a/relu_3x3
I0403 21:48:33.504173 12900 net.cpp:91] Creating Layer inception_3a/relu_3x3
I0403 21:48:33.504192 12900 net.cpp:425] inception_3a/relu_3x3 <- inception_3a/3x3
I0403 21:48:33.504214 12900 net.cpp:386] inception_3a/relu_3x3 -> inception_3a/3x3 (in-place)
I0403 21:48:33.504469 12900 net.cpp:141] Setting up inception_3a/relu_3x3
I0403 21:48:33.504495 12900 net.cpp:148] Top shape: 24 128 28 28 (2408448)
I0403 21:48:33.504509 12900 net.cpp:156] Memory required for data: 534676512
I0403 21:48:33.504523 12900 layer_factory.hpp:77] Creating layer inception_3a/5x5_reduce
I0403 21:48:33.504545 12900 net.cpp:91] Creating Layer inception_3a/5x5_reduce
I0403 21:48:33.504561 12900 net.cpp:425] inception_3a/5x5_reduce <- pool2/3x3_s2_pool2/3x3_s2_0_split_2
I0403 21:48:33.504585 12900 net.cpp:399] inception_3a/5x5_reduce -> inception_3a/5x5_reduce
I0403 21:48:33.505483 12900 net.cpp:141] Setting up inception_3a/5x5_reduce
I0403 21:48:33.505509 12900 net.cpp:148] Top shape: 24 16 28 28 (301056)
I0403 21:48:33.505524 12900 net.cpp:156] Memory required for data: 535880736
I0403 21:48:33.505542 12900 layer_factory.hpp:77] Creating layer inception_3a/relu_5x5_reduce
I0403 21:48:33.505560 12900 net.cpp:91] Creating Layer inception_3a/relu_5x5_reduce
I0403 21:48:33.505576 12900 net.cpp:425] inception_3a/relu_5x5_reduce <- inception_3a/5x5_reduce
I0403 21:48:33.505592 12900 net.cpp:386] inception_3a/relu_5x5_reduce -> inception_3a/5x5_reduce (in-place)
I0403 21:48:33.505851 12900 net.cpp:141] Setting up inception_3a/relu_5x5_reduce
I0403 21:48:33.505877 12900 net.cpp:148] Top shape: 24 16 28 28 (301056)
I0403 21:48:33.505890 12900 net.cpp:156] Memory required for data: 537084960
I0403 21:48:33.505905 12900 layer_factory.hpp:77] Creating layer inception_3a/5x5
I0403 21:48:33.505925 12900 net.cpp:91] Creating Layer inception_3a/5x5
I0403 21:48:33.505941 12900 net.cpp:425] inception_3a/5x5 <- inception_3a/5x5_reduce
I0403 21:48:33.505960 12900 net.cpp:399] inception_3a/5x5 -> inception_3a/5x5
I0403 21:48:33.506912 12900 net.cpp:141] Setting up inception_3a/5x5
I0403 21:48:33.506940 12900 net.cpp:148] Top shape: 24 32 28 28 (602112)
I0403 21:48:33.506955 12900 net.cpp:156] Memory required for data: 539493408
I0403 21:48:33.506973 12900 layer_factory.hpp:77] Creating layer inception_3a/relu_5x5
I0403 21:48:33.506990 12900 net.cpp:91] Creating Layer inception_3a/relu_5x5
I0403 21:48:33.507004 12900 net.cpp:425] inception_3a/relu_5x5 <- inception_3a/5x5
I0403 21:48:33.507024 12900 net.cpp:386] inception_3a/relu_5x5 -> inception_3a/5x5 (in-place)
I0403 21:48:33.507184 12900 net.cpp:141] Setting up inception_3a/relu_5x5
I0403 21:48:33.507213 12900 net.cpp:148] Top shape: 24 32 28 28 (602112)
I0403 21:48:33.507228 12900 net.cpp:156] Memory required for data: 541901856
I0403 21:48:33.507242 12900 layer_factory.hpp:77] Creating layer inception_3a/pool
I0403 21:48:33.507259 12900 net.cpp:91] Creating Layer inception_3a/pool
I0403 21:48:33.507273 12900 net.cpp:425] inception_3a/pool <- pool2/3x3_s2_pool2/3x3_s2_0_split_3
I0403 21:48:33.507307 12900 net.cpp:399] inception_3a/pool -> inception_3a/pool
I0403 21:48:33.507364 12900 net.cpp:141] Setting up inception_3a/pool
I0403 21:48:33.507387 12900 net.cpp:148] Top shape: 24 192 28 28 (3612672)
I0403 21:48:33.507400 12900 net.cpp:156] Memory required for data: 556352544
I0403 21:48:33.507414 12900 layer_factory.hpp:77] Creating layer inception_3a/pool_proj
I0403 21:48:33.507436 12900 net.cpp:91] Creating Layer inception_3a/pool_proj
I0403 21:48:33.507452 12900 net.cpp:425] inception_3a/pool_proj <- inception_3a/pool
I0403 21:48:33.507472 12900 net.cpp:399] inception_3a/pool_proj -> inception_3a/pool_proj
I0403 21:48:33.508411 12900 net.cpp:141] Setting up inception_3a/pool_proj
I0403 21:48:33.508438 12900 net.cpp:148] Top shape: 24 32 28 28 (602112)
I0403 21:48:33.508453 12900 net.cpp:156] Memory required for data: 558760992
I0403 21:48:33.508476 12900 layer_factory.hpp:77] Creating layer inception_3a/relu_pool_proj
I0403 21:48:33.508496 12900 net.cpp:91] Creating Layer inception_3a/relu_pool_proj
I0403 21:48:33.508512 12900 net.cpp:425] inception_3a/relu_pool_proj <- inception_3a/pool_proj
I0403 21:48:33.508528 12900 net.cpp:386] inception_3a/relu_pool_proj -> inception_3a/pool_proj (in-place)
I0403 21:48:33.508790 12900 net.cpp:141] Setting up inception_3a/relu_pool_proj
I0403 21:48:33.508815 12900 net.cpp:148] Top shape: 24 32 28 28 (602112)
I0403 21:48:33.508827 12900 net.cpp:156] Memory required for data: 561169440
I0403 21:48:33.508841 12900 layer_factory.hpp:77] Creating layer inception_3a/output
I0403 21:48:33.508858 12900 net.cpp:91] Creating Layer inception_3a/output
I0403 21:48:33.508873 12900 net.cpp:425] inception_3a/output <- inception_3a/1x1
I0403 21:48:33.508889 12900 net.cpp:425] inception_3a/output <- inception_3a/3x3
I0403 21:48:33.508904 12900 net.cpp:425] inception_3a/output <- inception_3a/5x5
I0403 21:48:33.508919 12900 net.cpp:425] inception_3a/output <- inception_3a/pool_proj
I0403 21:48:33.508936 12900 net.cpp:399] inception_3a/output -> inception_3a/output
I0403 21:48:33.508980 12900 net.cpp:141] Setting up inception_3a/output
I0403 21:48:33.509004 12900 net.cpp:148] Top shape: 24 256 28 28 (4816896)
I0403 21:48:33.509019 12900 net.cpp:156] Memory required for data: 580437024
I0403 21:48:33.509033 12900 layer_factory.hpp:77] Creating layer inception_3a/output_inception_3a/output_0_split
I0403 21:48:33.509049 12900 net.cpp:91] Creating Layer inception_3a/output_inception_3a/output_0_split
I0403 21:48:33.509063 12900 net.cpp:425] inception_3a/output_inception_3a/output_0_split <- inception_3a/output
I0403 21:48:33.509079 12900 net.cpp:399] inception_3a/output_inception_3a/output_0_split -> inception_3a/output_inception_3a/output_0_split_0
I0403 21:48:33.509099 12900 net.cpp:399] inception_3a/output_inception_3a/output_0_split -> inception_3a/output_inception_3a/output_0_split_1
I0403 21:48:33.509121 12900 net.cpp:399] inception_3a/output_inception_3a/output_0_split -> inception_3a/output_inception_3a/output_0_split_2
I0403 21:48:33.509140 12900 net.cpp:399] inception_3a/output_inception_3a/output_0_split -> inception_3a/output_inception_3a/output_0_split_3
I0403 21:48:33.509212 12900 net.cpp:141] Setting up inception_3a/output_inception_3a/output_0_split
I0403 21:48:33.509238 12900 net.cpp:148] Top shape: 24 256 28 28 (4816896)
I0403 21:48:33.509253 12900 net.cpp:148] Top shape: 24 256 28 28 (4816896)
I0403 21:48:33.509268 12900 net.cpp:148] Top shape: 24 256 28 28 (4816896)
I0403 21:48:33.509284 12900 net.cpp:148] Top shape: 24 256 28 28 (4816896)
I0403 21:48:33.509296 12900 net.cpp:156] Memory required for data: 657507360
I0403 21:48:33.509310 12900 layer_factory.hpp:77] Creating layer inception_3b/1x1
I0403 21:48:33.509331 12900 net.cpp:91] Creating Layer inception_3b/1x1
I0403 21:48:33.509347 12900 net.cpp:425] inception_3b/1x1 <- inception_3a/output_inception_3a/output_0_split_0
I0403 21:48:33.509367 12900 net.cpp:399] inception_3b/1x1 -> inception_3b/1x1
I0403 21:48:33.510437 12900 net.cpp:141] Setting up inception_3b/1x1
I0403 21:48:33.510475 12900 net.cpp:148] Top shape: 24 128 28 28 (2408448)
I0403 21:48:33.510491 12900 net.cpp:156] Memory required for data: 667141152
I0403 21:48:33.510520 12900 layer_factory.hpp:77] Creating layer inception_3b/relu_1x1
I0403 21:48:33.510536 12900 net.cpp:91] Creating Layer inception_3b/relu_1x1
I0403 21:48:33.510552 12900 net.cpp:425] inception_3b/relu_1x1 <- inception_3b/1x1
I0403 21:48:33.510570 12900 net.cpp:386] inception_3b/relu_1x1 -> inception_3b/1x1 (in-place)
I0403 21:48:33.510741 12900 net.cpp:141] Setting up inception_3b/relu_1x1
I0403 21:48:33.510766 12900 net.cpp:148] Top shape: 24 128 28 28 (2408448)
I0403 21:48:33.510781 12900 net.cpp:156] Memory required for data: 676774944
I0403 21:48:33.510805 12900 layer_factory.hpp:77] Creating layer inception_3b/3x3_reduce
I0403 21:48:33.510828 12900 net.cpp:91] Creating Layer inception_3b/3x3_reduce
I0403 21:48:33.510843 12900 net.cpp:425] inception_3b/3x3_reduce <- inception_3a/output_inception_3a/output_0_split_1
I0403 21:48:33.510864 12900 net.cpp:399] inception_3b/3x3_reduce -> inception_3b/3x3_reduce
I0403 21:48:33.511952 12900 net.cpp:141] Setting up inception_3b/3x3_reduce
I0403 21:48:33.511982 12900 net.cpp:148] Top shape: 24 128 28 28 (2408448)
I0403 21:48:33.511997 12900 net.cpp:156] Memory required for data: 686408736
I0403 21:48:33.512014 12900 layer_factory.hpp:77] Creating layer inception_3b/relu_3x3_reduce
I0403 21:48:33.512032 12900 net.cpp:91] Creating Layer inception_3b/relu_3x3_reduce
I0403 21:48:33.512047 12900 net.cpp:425] inception_3b/relu_3x3_reduce <- inception_3b/3x3_reduce
I0403 21:48:33.512065 12900 net.cpp:386] inception_3b/relu_3x3_reduce -> inception_3b/3x3_reduce (in-place)
I0403 21:48:33.512253 12900 net.cpp:141] Setting up inception_3b/relu_3x3_reduce
I0403 21:48:33.512277 12900 net.cpp:148] Top shape: 24 128 28 28 (2408448)
I0403 21:48:33.512291 12900 net.cpp:156] Memory required for data: 696042528
I0403 21:48:33.512305 12900 layer_factory.hpp:77] Creating layer inception_3b/3x3
I0403 21:48:33.512331 12900 net.cpp:91] Creating Layer inception_3b/3x3
I0403 21:48:33.512348 12900 net.cpp:425] inception_3b/3x3 <- inception_3b/3x3_reduce
I0403 21:48:33.512367 12900 net.cpp:399] inception_3b/3x3 -> inception_3b/3x3
I0403 21:48:33.515095 12900 net.cpp:141] Setting up inception_3b/3x3
I0403 21:48:33.515122 12900 net.cpp:148] Top shape: 24 192 28 28 (3612672)
I0403 21:48:33.515137 12900 net.cpp:156] Memory required for data: 710493216
I0403 21:48:33.515154 12900 layer_factory.hpp:77] Creating layer inception_3b/relu_3x3
I0403 21:48:33.515171 12900 net.cpp:91] Creating Layer inception_3b/relu_3x3
I0403 21:48:33.515188 12900 net.cpp:425] inception_3b/relu_3x3 <- inception_3b/3x3
I0403 21:48:33.515205 12900 net.cpp:386] inception_3b/relu_3x3 -> inception_3b/3x3 (in-place)
I0403 21:48:33.515470 12900 net.cpp:141] Setting up inception_3b/relu_3x3
I0403 21:48:33.515496 12900 net.cpp:148] Top shape: 24 192 28 28 (3612672)
I0403 21:48:33.515522 12900 net.cpp:156] Memory required for data: 724943904
I0403 21:48:33.515535 12900 layer_factory.hpp:77] Creating layer inception_3b/5x5_reduce
I0403 21:48:33.515558 12900 net.cpp:91] Creating Layer inception_3b/5x5_reduce
I0403 21:48:33.515574 12900 net.cpp:425] inception_3b/5x5_reduce <- inception_3a/output_inception_3a/output_0_split_2
I0403 21:48:33.515595 12900 net.cpp:399] inception_3b/5x5_reduce -> inception_3b/5x5_reduce
I0403 21:48:33.516530 12900 net.cpp:141] Setting up inception_3b/5x5_reduce
I0403 21:48:33.516556 12900 net.cpp:148] Top shape: 24 32 28 28 (602112)
I0403 21:48:33.516571 12900 net.cpp:156] Memory required for data: 727352352
I0403 21:48:33.516588 12900 layer_factory.hpp:77] Creating layer inception_3b/relu_5x5_reduce
I0403 21:48:33.516605 12900 net.cpp:91] Creating Layer inception_3b/relu_5x5_reduce
I0403 21:48:33.516619 12900 net.cpp:425] inception_3b/relu_5x5_reduce <- inception_3b/5x5_reduce
I0403 21:48:33.516638 12900 net.cpp:386] inception_3b/relu_5x5_reduce -> inception_3b/5x5_reduce (in-place)
I0403 21:48:33.516800 12900 net.cpp:141] Setting up inception_3b/relu_5x5_reduce
I0403 21:48:33.516834 12900 net.cpp:148] Top shape: 24 32 28 28 (602112)
I0403 21:48:33.516849 12900 net.cpp:156] Memory required for data: 729760800
I0403 21:48:33.516863 12900 layer_factory.hpp:77] Creating layer inception_3b/5x5
I0403 21:48:33.516885 12900 net.cpp:91] Creating Layer inception_3b/5x5
I0403 21:48:33.516901 12900 net.cpp:425] inception_3b/5x5 <- inception_3b/5x5_reduce
I0403 21:48:33.516921 12900 net.cpp:399] inception_3b/5x5 -> inception_3b/5x5
I0403 21:48:33.518760 12900 net.cpp:141] Setting up inception_3b/5x5
I0403 21:48:33.518790 12900 net.cpp:148] Top shape: 24 96 28 28 (1806336)
I0403 21:48:33.518806 12900 net.cpp:156] Memory required for data: 736986144
I0403 21:48:33.518823 12900 layer_factory.hpp:77] Creating layer inception_3b/relu_5x5
I0403 21:48:33.518841 12900 net.cpp:91] Creating Layer inception_3b/relu_5x5
I0403 21:48:33.518856 12900 net.cpp:425] inception_3b/relu_5x5 <- inception_3b/5x5
I0403 21:48:33.518874 12900 net.cpp:386] inception_3b/relu_5x5 -> inception_3b/5x5 (in-place)
I0403 21:48:33.519053 12900 net.cpp:141] Setting up inception_3b/relu_5x5
I0403 21:48:33.519076 12900 net.cpp:148] Top shape: 24 96 28 28 (1806336)
I0403 21:48:33.519090 12900 net.cpp:156] Memory required for data: 744211488
I0403 21:48:33.519104 12900 layer_factory.hpp:77] Creating layer inception_3b/pool
I0403 21:48:33.519120 12900 net.cpp:91] Creating Layer inception_3b/pool
I0403 21:48:33.519135 12900 net.cpp:425] inception_3b/pool <- inception_3a/output_inception_3a/output_0_split_3
I0403 21:48:33.519152 12900 net.cpp:399] inception_3b/pool -> inception_3b/pool
I0403 21:48:33.519203 12900 net.cpp:141] Setting up inception_3b/pool
I0403 21:48:33.519230 12900 net.cpp:148] Top shape: 24 256 28 28 (4816896)
I0403 21:48:33.519244 12900 net.cpp:156] Memory required for data: 763479072
I0403 21:48:33.519258 12900 layer_factory.hpp:77] Creating layer inception_3b/pool_proj
I0403 21:48:33.519280 12900 net.cpp:91] Creating Layer inception_3b/pool_proj
I0403 21:48:33.519297 12900 net.cpp:425] inception_3b/pool_proj <- inception_3b/pool
I0403 21:48:33.519315 12900 net.cpp:399] inception_3b/pool_proj -> inception_3b/pool_proj
I0403 21:48:33.520325 12900 net.cpp:141] Setting up inception_3b/pool_proj
I0403 21:48:33.520351 12900 net.cpp:148] Top shape: 24 64 28 28 (1204224)
I0403 21:48:33.520366 12900 net.cpp:156] Memory required for data: 768295968
I0403 21:48:33.520385 12900 layer_factory.hpp:77] Creating layer inception_3b/relu_pool_proj
I0403 21:48:33.520403 12900 net.cpp:91] Creating Layer inception_3b/relu_pool_proj
I0403 21:48:33.520419 12900 net.cpp:425] inception_3b/relu_pool_proj <- inception_3b/pool_proj
I0403 21:48:33.520437 12900 net.cpp:386] inception_3b/relu_pool_proj -> inception_3b/pool_proj (in-place)
I0403 21:48:33.520794 12900 net.cpp:141] Setting up inception_3b/relu_pool_proj
I0403 21:48:33.520818 12900 net.cpp:148] Top shape: 24 64 28 28 (1204224)
I0403 21:48:33.520833 12900 net.cpp:156] Memory required for data: 773112864
I0403 21:48:33.520846 12900 layer_factory.hpp:77] Creating layer inception_3b/output
I0403 21:48:33.520862 12900 net.cpp:91] Creating Layer inception_3b/output
I0403 21:48:33.520880 12900 net.cpp:425] inception_3b/output <- inception_3b/1x1
I0403 21:48:33.520895 12900 net.cpp:425] inception_3b/output <- inception_3b/3x3
I0403 21:48:33.520910 12900 net.cpp:425] inception_3b/output <- inception_3b/5x5
I0403 21:48:33.520925 12900 net.cpp:425] inception_3b/output <- inception_3b/pool_proj
I0403 21:48:33.520941 12900 net.cpp:399] inception_3b/output -> inception_3b/output
I0403 21:48:33.520979 12900 net.cpp:141] Setting up inception_3b/output
I0403 21:48:33.521003 12900 net.cpp:148] Top shape: 24 480 28 28 (9031680)
I0403 21:48:33.521018 12900 net.cpp:156] Memory required for data: 809239584
I0403 21:48:33.521031 12900 layer_factory.hpp:77] Creating layer pool3/3x3_s2
I0403 21:48:33.521049 12900 net.cpp:91] Creating Layer pool3/3x3_s2
I0403 21:48:33.521062 12900 net.cpp:425] pool3/3x3_s2 <- inception_3b/output
I0403 21:48:33.521081 12900 net.cpp:399] pool3/3x3_s2 -> pool3/3x3_s2
I0403 21:48:33.521148 12900 net.cpp:141] Setting up pool3/3x3_s2
I0403 21:48:33.521173 12900 net.cpp:148] Top shape: 24 480 14 14 (2257920)
I0403 21:48:33.521188 12900 net.cpp:156] Memory required for data: 818271264
I0403 21:48:33.521201 12900 layer_factory.hpp:77] Creating layer pool3/3x3_s2_pool3/3x3_s2_0_split
I0403 21:48:33.521222 12900 net.cpp:91] Creating Layer pool3/3x3_s2_pool3/3x3_s2_0_split
I0403 21:48:33.521239 12900 net.cpp:425] pool3/3x3_s2_pool3/3x3_s2_0_split <- pool3/3x3_s2
I0403 21:48:33.521255 12900 net.cpp:399] pool3/3x3_s2_pool3/3x3_s2_0_split -> pool3/3x3_s2_pool3/3x3_s2_0_split_0
I0403 21:48:33.521272 12900 net.cpp:399] pool3/3x3_s2_pool3/3x3_s2_0_split -> pool3/3x3_s2_pool3/3x3_s2_0_split_1
I0403 21:48:33.521293 12900 net.cpp:399] pool3/3x3_s2_pool3/3x3_s2_0_split -> pool3/3x3_s2_pool3/3x3_s2_0_split_2
I0403 21:48:33.521312 12900 net.cpp:399] pool3/3x3_s2_pool3/3x3_s2_0_split -> pool3/3x3_s2_pool3/3x3_s2_0_split_3
I0403 21:48:33.521384 12900 net.cpp:141] Setting up pool3/3x3_s2_pool3/3x3_s2_0_split
I0403 21:48:33.521405 12900 net.cpp:148] Top shape: 24 480 14 14 (2257920)
I0403 21:48:33.521420 12900 net.cpp:148] Top shape: 24 480 14 14 (2257920)
I0403 21:48:33.521435 12900 net.cpp:148] Top shape: 24 480 14 14 (2257920)
I0403 21:48:33.521450 12900 net.cpp:148] Top shape: 24 480 14 14 (2257920)
I0403 21:48:33.521462 12900 net.cpp:156] Memory required for data: 854397984
I0403 21:48:33.521476 12900 layer_factory.hpp:77] Creating layer inception_4a/1x1
I0403 21:48:33.521497 12900 net.cpp:91] Creating Layer inception_4a/1x1
I0403 21:48:33.521512 12900 net.cpp:425] inception_4a/1x1 <- pool3/3x3_s2_pool3/3x3_s2_0_split_0
I0403 21:48:33.521531 12900 net.cpp:399] inception_4a/1x1 -> inception_4a/1x1
I0403 21:48:33.523005 12900 net.cpp:141] Setting up inception_4a/1x1
I0403 21:48:33.523030 12900 net.cpp:148] Top shape: 24 192 14 14 (903168)
I0403 21:48:33.523046 12900 net.cpp:156] Memory required for data: 858010656
I0403 21:48:33.523062 12900 layer_factory.hpp:77] Creating layer inception_4a/relu_1x1
I0403 21:48:33.523082 12900 net.cpp:91] Creating Layer inception_4a/relu_1x1
I0403 21:48:33.523097 12900 net.cpp:425] inception_4a/relu_1x1 <- inception_4a/1x1
I0403 21:48:33.523121 12900 net.cpp:386] inception_4a/relu_1x1 -> inception_4a/1x1 (in-place)
I0403 21:48:33.523305 12900 net.cpp:141] Setting up inception_4a/relu_1x1
I0403 21:48:33.523334 12900 net.cpp:148] Top shape: 24 192 14 14 (903168)
I0403 21:48:33.523350 12900 net.cpp:156] Memory required for data: 861623328
I0403 21:48:33.523365 12900 layer_factory.hpp:77] Creating layer inception_4a/3x3_reduce
I0403 21:48:33.523386 12900 net.cpp:91] Creating Layer inception_4a/3x3_reduce
I0403 21:48:33.523402 12900 net.cpp:425] inception_4a/3x3_reduce <- pool3/3x3_s2_pool3/3x3_s2_0_split_1
I0403 21:48:33.523423 12900 net.cpp:399] inception_4a/3x3_reduce -> inception_4a/3x3_reduce
I0403 21:48:33.524638 12900 net.cpp:141] Setting up inception_4a/3x3_reduce
I0403 21:48:33.524664 12900 net.cpp:148] Top shape: 24 96 14 14 (451584)
I0403 21:48:33.524679 12900 net.cpp:156] Memory required for data: 863429664
I0403 21:48:33.524703 12900 layer_factory.hpp:77] Creating layer inception_4a/relu_3x3_reduce
I0403 21:48:33.524724 12900 net.cpp:91] Creating Layer inception_4a/relu_3x3_reduce
I0403 21:48:33.524740 12900 net.cpp:425] inception_4a/relu_3x3_reduce <- inception_4a/3x3_reduce
I0403 21:48:33.524757 12900 net.cpp:386] inception_4a/relu_3x3_reduce -> inception_4a/3x3_reduce (in-place)
I0403 21:48:33.524924 12900 net.cpp:141] Setting up inception_4a/relu_3x3_reduce
I0403 21:48:33.524950 12900 net.cpp:148] Top shape: 24 96 14 14 (451584)
I0403 21:48:33.524966 12900 net.cpp:156] Memory required for data: 865236000
I0403 21:48:33.524979 12900 layer_factory.hpp:77] Creating layer inception_4a/3x3
I0403 21:48:33.525001 12900 net.cpp:91] Creating Layer inception_4a/3x3
I0403 21:48:33.525017 12900 net.cpp:425] inception_4a/3x3 <- inception_4a/3x3_reduce
I0403 21:48:33.525037 12900 net.cpp:399] inception_4a/3x3 -> inception_4a/3x3
I0403 21:48:33.527590 12900 net.cpp:141] Setting up inception_4a/3x3
I0403 21:48:33.527621 12900 net.cpp:148] Top shape: 24 208 14 14 (978432)
I0403 21:48:33.527637 12900 net.cpp:156] Memory required for data: 869149728
I0403 21:48:33.527654 12900 layer_factory.hpp:77] Creating layer inception_4a/relu_3x3
I0403 21:48:33.527672 12900 net.cpp:91] Creating Layer inception_4a/relu_3x3
I0403 21:48:33.527686 12900 net.cpp:425] inception_4a/relu_3x3 <- inception_4a/3x3
I0403 21:48:33.527705 12900 net.cpp:386] inception_4a/relu_3x3 -> inception_4a/3x3 (in-place)
I0403 21:48:33.527962 12900 net.cpp:141] Setting up inception_4a/relu_3x3
I0403 21:48:33.527990 12900 net.cpp:148] Top shape: 24 208 14 14 (978432)
I0403 21:48:33.528007 12900 net.cpp:156] Memory required for data: 873063456
I0403 21:48:33.528020 12900 layer_factory.hpp:77] Creating layer inception_4a/5x5_reduce
I0403 21:48:33.528043 12900 net.cpp:91] Creating Layer inception_4a/5x5_reduce
I0403 21:48:33.528059 12900 net.cpp:425] inception_4a/5x5_reduce <- pool3/3x3_s2_pool3/3x3_s2_0_split_2
I0403 21:48:33.528077 12900 net.cpp:399] inception_4a/5x5_reduce -> inception_4a/5x5_reduce
I0403 21:48:33.529042 12900 net.cpp:141] Setting up inception_4a/5x5_reduce
I0403 21:48:33.529070 12900 net.cpp:148] Top shape: 24 16 14 14 (75264)
I0403 21:48:33.529086 12900 net.cpp:156] Memory required for data: 873364512
I0403 21:48:33.529104 12900 layer_factory.hpp:77] Creating layer inception_4a/relu_5x5_reduce
I0403 21:48:33.529121 12900 net.cpp:91] Creating Layer inception_4a/relu_5x5_reduce
I0403 21:48:33.529135 12900 net.cpp:425] inception_4a/relu_5x5_reduce <- inception_4a/5x5_reduce
I0403 21:48:33.529153 12900 net.cpp:386] inception_4a/relu_5x5_reduce -> inception_4a/5x5_reduce (in-place)
I0403 21:48:33.529325 12900 net.cpp:141] Setting up inception_4a/relu_5x5_reduce
I0403 21:48:33.529350 12900 net.cpp:148] Top shape: 24 16 14 14 (75264)
I0403 21:48:33.529364 12900 net.cpp:156] Memory required for data: 873665568
I0403 21:48:33.529379 12900 layer_factory.hpp:77] Creating layer inception_4a/5x5
I0403 21:48:33.529399 12900 net.cpp:91] Creating Layer inception_4a/5x5
I0403 21:48:33.529417 12900 net.cpp:425] inception_4a/5x5 <- inception_4a/5x5_reduce
I0403 21:48:33.529436 12900 net.cpp:399] inception_4a/5x5 -> inception_4a/5x5
I0403 21:48:33.530450 12900 net.cpp:141] Setting up inception_4a/5x5
I0403 21:48:33.530478 12900 net.cpp:148] Top shape: 24 48 14 14 (225792)
I0403 21:48:33.530493 12900 net.cpp:156] Memory required for data: 874568736
I0403 21:48:33.530510 12900 layer_factory.hpp:77] Creating layer inception_4a/relu_5x5
I0403 21:48:33.530529 12900 net.cpp:91] Creating Layer inception_4a/relu_5x5
I0403 21:48:33.530545 12900 net.cpp:425] inception_4a/relu_5x5 <- inception_4a/5x5
I0403 21:48:33.530562 12900 net.cpp:386] inception_4a/relu_5x5 -> inception_4a/5x5 (in-place)
I0403 21:48:33.530730 12900 net.cpp:141] Setting up inception_4a/relu_5x5
I0403 21:48:33.530752 12900 net.cpp:148] Top shape: 24 48 14 14 (225792)
I0403 21:48:33.530766 12900 net.cpp:156] Memory required for data: 875471904
I0403 21:48:33.530779 12900 layer_factory.hpp:77] Creating layer inception_4a/pool
I0403 21:48:33.530799 12900 net.cpp:91] Creating Layer inception_4a/pool
I0403 21:48:33.530815 12900 net.cpp:425] inception_4a/pool <- pool3/3x3_s2_pool3/3x3_s2_0_split_3
I0403 21:48:33.530833 12900 net.cpp:399] inception_4a/pool -> inception_4a/pool
I0403 21:48:33.530890 12900 net.cpp:141] Setting up inception_4a/pool
I0403 21:48:33.530915 12900 net.cpp:148] Top shape: 24 480 14 14 (2257920)
I0403 21:48:33.530927 12900 net.cpp:156] Memory required for data: 884503584
I0403 21:48:33.530941 12900 layer_factory.hpp:77] Creating layer inception_4a/pool_proj
I0403 21:48:33.530962 12900 net.cpp:91] Creating Layer inception_4a/pool_proj
I0403 21:48:33.530978 12900 net.cpp:425] inception_4a/pool_proj <- inception_4a/pool
I0403 21:48:33.530999 12900 net.cpp:399] inception_4a/pool_proj -> inception_4a/pool_proj
I0403 21:48:33.532116 12900 net.cpp:141] Setting up inception_4a/pool_proj
I0403 21:48:33.532143 12900 net.cpp:148] Top shape: 24 64 14 14 (301056)
I0403 21:48:33.532173 12900 net.cpp:156] Memory required for data: 885707808
I0403 21:48:33.532191 12900 layer_factory.hpp:77] Creating layer inception_4a/relu_pool_proj
I0403 21:48:33.532222 12900 net.cpp:91] Creating Layer inception_4a/relu_pool_proj
I0403 21:48:33.532240 12900 net.cpp:425] inception_4a/relu_pool_proj <- inception_4a/pool_proj
I0403 21:48:33.532258 12900 net.cpp:386] inception_4a/relu_pool_proj -> inception_4a/pool_proj (in-place)
I0403 21:48:33.532521 12900 net.cpp:141] Setting up inception_4a/relu_pool_proj
I0403 21:48:33.532552 12900 net.cpp:148] Top shape: 24 64 14 14 (301056)
I0403 21:48:33.532567 12900 net.cpp:156] Memory required for data: 886912032
I0403 21:48:33.532582 12900 layer_factory.hpp:77] Creating layer inception_4a/output
I0403 21:48:33.532601 12900 net.cpp:91] Creating Layer inception_4a/output
I0403 21:48:33.532616 12900 net.cpp:425] inception_4a/output <- inception_4a/1x1
I0403 21:48:33.532632 12900 net.cpp:425] inception_4a/output <- inception_4a/3x3
I0403 21:48:33.532647 12900 net.cpp:425] inception_4a/output <- inception_4a/5x5
I0403 21:48:33.532662 12900 net.cpp:425] inception_4a/output <- inception_4a/pool_proj
I0403 21:48:33.532678 12900 net.cpp:399] inception_4a/output -> inception_4a/output
I0403 21:48:33.532721 12900 net.cpp:141] Setting up inception_4a/output
I0403 21:48:33.532743 12900 net.cpp:148] Top shape: 24 512 14 14 (2408448)
I0403 21:48:33.532757 12900 net.cpp:156] Memory required for data: 896545824
I0403 21:48:33.532770 12900 layer_factory.hpp:77] Creating layer inception_4a/output_inception_4a/output_0_split
I0403 21:48:33.532786 12900 net.cpp:91] Creating Layer inception_4a/output_inception_4a/output_0_split
I0403 21:48:33.532801 12900 net.cpp:425] inception_4a/output_inception_4a/output_0_split <- inception_4a/output
I0403 21:48:33.532820 12900 net.cpp:399] inception_4a/output_inception_4a/output_0_split -> inception_4a/output_inception_4a/output_0_split_0
I0403 21:48:33.532840 12900 net.cpp:399] inception_4a/output_inception_4a/output_0_split -> inception_4a/output_inception_4a/output_0_split_1
I0403 21:48:33.532860 12900 net.cpp:399] inception_4a/output_inception_4a/output_0_split -> inception_4a/output_inception_4a/output_0_split_2
I0403 21:48:33.532878 12900 net.cpp:399] inception_4a/output_inception_4a/output_0_split -> inception_4a/output_inception_4a/output_0_split_3
I0403 21:48:33.532896 12900 net.cpp:399] inception_4a/output_inception_4a/output_0_split -> inception_4a/output_inception_4a/output_0_split_4
I0403 21:48:33.532984 12900 net.cpp:141] Setting up inception_4a/output_inception_4a/output_0_split
I0403 21:48:33.533006 12900 net.cpp:148] Top shape: 24 512 14 14 (2408448)
I0403 21:48:33.533022 12900 net.cpp:148] Top shape: 24 512 14 14 (2408448)
I0403 21:48:33.533037 12900 net.cpp:148] Top shape: 24 512 14 14 (2408448)
I0403 21:48:33.533052 12900 net.cpp:148] Top shape: 24 512 14 14 (2408448)
I0403 21:48:33.533067 12900 net.cpp:148] Top shape: 24 512 14 14 (2408448)
I0403 21:48:33.533080 12900 net.cpp:156] Memory required for data: 944714784
I0403 21:48:33.533094 12900 layer_factory.hpp:77] Creating layer loss1/ave_pool
I0403 21:48:33.533110 12900 net.cpp:91] Creating Layer loss1/ave_pool
I0403 21:48:33.533125 12900 net.cpp:425] loss1/ave_pool <- inception_4a/output_inception_4a/output_0_split_0
I0403 21:48:33.533144 12900 net.cpp:399] loss1/ave_pool -> loss1/ave_pool
I0403 21:48:33.533341 12900 net.cpp:141] Setting up loss1/ave_pool
I0403 21:48:33.533366 12900 net.cpp:148] Top shape: 24 512 4 4 (196608)
I0403 21:48:33.533381 12900 net.cpp:156] Memory required for data: 945501216
I0403 21:48:33.533396 12900 layer_factory.hpp:77] Creating layer loss1/conv
I0403 21:48:33.533416 12900 net.cpp:91] Creating Layer loss1/conv
I0403 21:48:33.533432 12900 net.cpp:425] loss1/conv <- loss1/ave_pool
I0403 21:48:33.533453 12900 net.cpp:399] loss1/conv -> loss1/conv
I0403 21:48:33.534765 12900 net.cpp:141] Setting up loss1/conv
I0403 21:48:33.534793 12900 net.cpp:148] Top shape: 24 128 4 4 (49152)
I0403 21:48:33.534809 12900 net.cpp:156] Memory required for data: 945697824
I0403 21:48:33.534844 12900 layer_factory.hpp:77] Creating layer loss1/relu_conv
I0403 21:48:33.534862 12900 net.cpp:91] Creating Layer loss1/relu_conv
I0403 21:48:33.534878 12900 net.cpp:425] loss1/relu_conv <- loss1/conv
I0403 21:48:33.534895 12900 net.cpp:386] loss1/relu_conv -> loss1/conv (in-place)
I0403 21:48:33.535159 12900 net.cpp:141] Setting up loss1/relu_conv
I0403 21:48:33.535187 12900 net.cpp:148] Top shape: 24 128 4 4 (49152)
I0403 21:48:33.535202 12900 net.cpp:156] Memory required for data: 945894432
I0403 21:48:33.535223 12900 layer_factory.hpp:77] Creating layer loss1/fc
I0403 21:48:33.535246 12900 net.cpp:91] Creating Layer loss1/fc
I0403 21:48:33.535264 12900 net.cpp:425] loss1/fc <- loss1/conv
I0403 21:48:33.535284 12900 net.cpp:399] loss1/fc -> loss1/fc
I0403 21:48:33.552680 12900 net.cpp:141] Setting up loss1/fc
I0403 21:48:33.552716 12900 net.cpp:148] Top shape: 24 1024 (24576)
I0403 21:48:33.552731 12900 net.cpp:156] Memory required for data: 945992736
I0403 21:48:33.552749 12900 layer_factory.hpp:77] Creating layer loss1/relu_fc
I0403 21:48:33.552768 12900 net.cpp:91] Creating Layer loss1/relu_fc
I0403 21:48:33.552784 12900 net.cpp:425] loss1/relu_fc <- loss1/fc
I0403 21:48:33.552801 12900 net.cpp:386] loss1/relu_fc -> loss1/fc (in-place)
I0403 21:48:33.552971 12900 net.cpp:141] Setting up loss1/relu_fc
I0403 21:48:33.552995 12900 net.cpp:148] Top shape: 24 1024 (24576)
I0403 21:48:33.553010 12900 net.cpp:156] Memory required for data: 946091040
I0403 21:48:33.553025 12900 layer_factory.hpp:77] Creating layer loss1/drop_fc
I0403 21:48:33.553048 12900 net.cpp:91] Creating Layer loss1/drop_fc
I0403 21:48:33.553064 12900 net.cpp:425] loss1/drop_fc <- loss1/fc
I0403 21:48:33.553083 12900 net.cpp:386] loss1/drop_fc -> loss1/fc (in-place)
I0403 21:48:33.553130 12900 net.cpp:141] Setting up loss1/drop_fc
I0403 21:48:33.553153 12900 net.cpp:148] Top shape: 24 1024 (24576)
I0403 21:48:33.553166 12900 net.cpp:156] Memory required for data: 946189344
I0403 21:48:33.553180 12900 layer_factory.hpp:77] Creating layer loss1/classifier_plantvillage
I0403 21:48:33.553201 12900 net.cpp:91] Creating Layer loss1/classifier_plantvillage
I0403 21:48:33.553225 12900 net.cpp:425] loss1/classifier_plantvillage <- loss1/fc
I0403 21:48:33.553243 12900 net.cpp:399] loss1/classifier_plantvillage -> loss1/classifier_plantvillage
I0403 21:48:33.554108 12900 net.cpp:141] Setting up loss1/classifier_plantvillage
I0403 21:48:33.554134 12900 net.cpp:148] Top shape: 24 38 (912)
I0403 21:48:33.554148 12900 net.cpp:156] Memory required for data: 946192992
I0403 21:48:33.554165 12900 layer_factory.hpp:77] Creating layer loss1/classifier_plantvillage_loss1/classifier_plantvillage_0_split
I0403 21:48:33.554184 12900 net.cpp:91] Creating Layer loss1/classifier_plantvillage_loss1/classifier_plantvillage_0_split
I0403 21:48:33.554200 12900 net.cpp:425] loss1/classifier_plantvillage_loss1/classifier_plantvillage_0_split <- loss1/classifier_plantvillage
I0403 21:48:33.554222 12900 net.cpp:399] loss1/classifier_plantvillage_loss1/classifier_plantvillage_0_split -> loss1/classifier_plantvillage_loss1/classifier_plantvillage_0_split_0
I0403 21:48:33.554244 12900 net.cpp:399] loss1/classifier_plantvillage_loss1/classifier_plantvillage_0_split -> loss1/classifier_plantvillage_loss1/classifier_plantvillage_0_split_1
I0403 21:48:33.554265 12900 net.cpp:399] loss1/classifier_plantvillage_loss1/classifier_plantvillage_0_split -> loss1/classifier_plantvillage_loss1/classifier_plantvillage_0_split_2
I0403 21:48:33.554325 12900 net.cpp:141] Setting up loss1/classifier_plantvillage_loss1/classifier_plantvillage_0_split
I0403 21:48:33.554347 12900 net.cpp:148] Top shape: 24 38 (912)
I0403 21:48:33.554363 12900 net.cpp:148] Top shape: 24 38 (912)
I0403 21:48:33.554376 12900 net.cpp:148] Top shape: 24 38 (912)
I0403 21:48:33.554389 12900 net.cpp:156] Memory required for data: 946203936
I0403 21:48:33.554404 12900 layer_factory.hpp:77] Creating layer inception_4b/1x1
I0403 21:48:33.554424 12900 net.cpp:91] Creating Layer inception_4b/1x1
I0403 21:48:33.554455 12900 net.cpp:425] inception_4b/1x1 <- inception_4a/output_inception_4a/output_0_split_1
I0403 21:48:33.554473 12900 net.cpp:399] inception_4b/1x1 -> inception_4b/1x1
I0403 21:48:33.556025 12900 net.cpp:141] Setting up inception_4b/1x1
I0403 21:48:33.556056 12900 net.cpp:148] Top shape: 24 160 14 14 (752640)
I0403 21:48:33.556071 12900 net.cpp:156] Memory required for data: 949214496
I0403 21:48:33.556088 12900 layer_factory.hpp:77] Creating layer inception_4b/relu_1x1
I0403 21:48:33.556104 12900 net.cpp:91] Creating Layer inception_4b/relu_1x1
I0403 21:48:33.556119 12900 net.cpp:425] inception_4b/relu_1x1 <- inception_4b/1x1
I0403 21:48:33.556138 12900 net.cpp:386] inception_4b/relu_1x1 -> inception_4b/1x1 (in-place)
I0403 21:48:33.556308 12900 net.cpp:141] Setting up inception_4b/relu_1x1
I0403 21:48:33.556332 12900 net.cpp:148] Top shape: 24 160 14 14 (752640)
I0403 21:48:33.556346 12900 net.cpp:156] Memory required for data: 952225056
I0403 21:48:33.556360 12900 layer_factory.hpp:77] Creating layer inception_4b/3x3_reduce
I0403 21:48:33.556382 12900 net.cpp:91] Creating Layer inception_4b/3x3_reduce
I0403 21:48:33.556398 12900 net.cpp:425] inception_4b/3x3_reduce <- inception_4a/output_inception_4a/output_0_split_2
I0403 21:48:33.556419 12900 net.cpp:399] inception_4b/3x3_reduce -> inception_4b/3x3_reduce
I0403 21:48:33.557684 12900 net.cpp:141] Setting up inception_4b/3x3_reduce
I0403 21:48:33.557710 12900 net.cpp:148] Top shape: 24 112 14 14 (526848)
I0403 21:48:33.557725 12900 net.cpp:156] Memory required for data: 954332448
I0403 21:48:33.557742 12900 layer_factory.hpp:77] Creating layer inception_4b/relu_3x3_reduce
I0403 21:48:33.557759 12900 net.cpp:91] Creating Layer inception_4b/relu_3x3_reduce
I0403 21:48:33.557775 12900 net.cpp:425] inception_4b/relu_3x3_reduce <- inception_4b/3x3_reduce
I0403 21:48:33.557792 12900 net.cpp:386] inception_4b/relu_3x3_reduce -> inception_4b/3x3_reduce (in-place)
I0403 21:48:33.558063 12900 net.cpp:141] Setting up inception_4b/relu_3x3_reduce
I0403 21:48:33.558087 12900 net.cpp:148] Top shape: 24 112 14 14 (526848)
I0403 21:48:33.558101 12900 net.cpp:156] Memory required for data: 956439840
I0403 21:48:33.558115 12900 layer_factory.hpp:77] Creating layer inception_4b/3x3
I0403 21:48:33.558136 12900 net.cpp:91] Creating Layer inception_4b/3x3
I0403 21:48:33.558153 12900 net.cpp:425] inception_4b/3x3 <- inception_4b/3x3_reduce
I0403 21:48:33.558173 12900 net.cpp:399] inception_4b/3x3 -> inception_4b/3x3
I0403 21:48:33.560995 12900 net.cpp:141] Setting up inception_4b/3x3
I0403 21:48:33.561023 12900 net.cpp:148] Top shape: 24 224 14 14 (1053696)
I0403 21:48:33.561039 12900 net.cpp:156] Memory required for data: 960654624
I0403 21:48:33.561058 12900 layer_factory.hpp:77] Creating layer inception_4b/relu_3x3
I0403 21:48:33.561076 12900 net.cpp:91] Creating Layer inception_4b/relu_3x3
I0403 21:48:33.561094 12900 net.cpp:425] inception_4b/relu_3x3 <- inception_4b/3x3
I0403 21:48:33.561110 12900 net.cpp:386] inception_4b/relu_3x3 -> inception_4b/3x3 (in-place)
I0403 21:48:33.561283 12900 net.cpp:141] Setting up inception_4b/relu_3x3
I0403 21:48:33.561307 12900 net.cpp:148] Top shape: 24 224 14 14 (1053696)
I0403 21:48:33.561321 12900 net.cpp:156] Memory required for data: 964869408
I0403 21:48:33.561336 12900 layer_factory.hpp:77] Creating layer inception_4b/5x5_reduce
I0403 21:48:33.561357 12900 net.cpp:91] Creating Layer inception_4b/5x5_reduce
I0403 21:48:33.561372 12900 net.cpp:425] inception_4b/5x5_reduce <- inception_4a/output_inception_4a/output_0_split_3
I0403 21:48:33.561394 12900 net.cpp:399] inception_4b/5x5_reduce -> inception_4b/5x5_reduce
I0403 21:48:33.562418 12900 net.cpp:141] Setting up inception_4b/5x5_reduce
I0403 21:48:33.562445 12900 net.cpp:148] Top shape: 24 24 14 14 (112896)
I0403 21:48:33.562460 12900 net.cpp:156] Memory required for data: 965320992
I0403 21:48:33.562479 12900 layer_factory.hpp:77] Creating layer inception_4b/relu_5x5_reduce
I0403 21:48:33.562496 12900 net.cpp:91] Creating Layer inception_4b/relu_5x5_reduce
I0403 21:48:33.562526 12900 net.cpp:425] inception_4b/relu_5x5_reduce <- inception_4b/5x5_reduce
I0403 21:48:33.562546 12900 net.cpp:386] inception_4b/relu_5x5_reduce -> inception_4b/5x5_reduce (in-place)
I0403 21:48:33.562719 12900 net.cpp:141] Setting up inception_4b/relu_5x5_reduce
I0403 21:48:33.562743 12900 net.cpp:148] Top shape: 24 24 14 14 (112896)
I0403 21:48:33.562757 12900 net.cpp:156] Memory required for data: 965772576
I0403 21:48:33.562772 12900 layer_factory.hpp:77] Creating layer inception_4b/5x5
I0403 21:48:33.562793 12900 net.cpp:91] Creating Layer inception_4b/5x5
I0403 21:48:33.562809 12900 net.cpp:425] inception_4b/5x5 <- inception_4b/5x5_reduce
I0403 21:48:33.562829 12900 net.cpp:399] inception_4b/5x5 -> inception_4b/5x5
I0403 21:48:33.563977 12900 net.cpp:141] Setting up inception_4b/5x5
I0403 21:48:33.564005 12900 net.cpp:148] Top shape: 24 64 14 14 (301056)
I0403 21:48:33.564023 12900 net.cpp:156] Memory required for data: 966976800
I0403 21:48:33.564040 12900 layer_factory.hpp:77] Creating layer inception_4b/relu_5x5
I0403 21:48:33.564056 12900 net.cpp:91] Creating Layer inception_4b/relu_5x5
I0403 21:48:33.564071 12900 net.cpp:425] inception_4b/relu_5x5 <- inception_4b/5x5
I0403 21:48:33.564090 12900 net.cpp:386] inception_4b/relu_5x5 -> inception_4b/5x5 (in-place)
I0403 21:48:33.564359 12900 net.cpp:141] Setting up inception_4b/relu_5x5
I0403 21:48:33.564388 12900 net.cpp:148] Top shape: 24 64 14 14 (301056)
I0403 21:48:33.564404 12900 net.cpp:156] Memory required for data: 968181024
I0403 21:48:33.564417 12900 layer_factory.hpp:77] Creating layer inception_4b/pool
I0403 21:48:33.564435 12900 net.cpp:91] Creating Layer inception_4b/pool
I0403 21:48:33.564450 12900 net.cpp:425] inception_4b/pool <- inception_4a/output_inception_4a/output_0_split_4
I0403 21:48:33.564470 12900 net.cpp:399] inception_4b/pool -> inception_4b/pool
I0403 21:48:33.564529 12900 net.cpp:141] Setting up inception_4b/pool
I0403 21:48:33.564553 12900 net.cpp:148] Top shape: 24 512 14 14 (2408448)
I0403 21:48:33.564568 12900 net.cpp:156] Memory required for data: 977814816
I0403 21:48:33.564582 12900 layer_factory.hpp:77] Creating layer inception_4b/pool_proj
I0403 21:48:33.564601 12900 net.cpp:91] Creating Layer inception_4b/pool_proj
I0403 21:48:33.564616 12900 net.cpp:425] inception_4b/pool_proj <- inception_4b/pool
I0403 21:48:33.564636 12900 net.cpp:399] inception_4b/pool_proj -> inception_4b/pool_proj
I0403 21:48:33.565767 12900 net.cpp:141] Setting up inception_4b/pool_proj
I0403 21:48:33.565793 12900 net.cpp:148] Top shape: 24 64 14 14 (301056)
I0403 21:48:33.565809 12900 net.cpp:156] Memory required for data: 979019040
I0403 21:48:33.565826 12900 layer_factory.hpp:77] Creating layer inception_4b/relu_pool_proj
I0403 21:48:33.565842 12900 net.cpp:91] Creating Layer inception_4b/relu_pool_proj
I0403 21:48:33.565858 12900 net.cpp:425] inception_4b/relu_pool_proj <- inception_4b/pool_proj
I0403 21:48:33.565877 12900 net.cpp:386] inception_4b/relu_pool_proj -> inception_4b/pool_proj (in-place)
I0403 21:48:33.566048 12900 net.cpp:141] Setting up inception_4b/relu_pool_proj
I0403 21:48:33.566071 12900 net.cpp:148] Top shape: 24 64 14 14 (301056)
I0403 21:48:33.566085 12900 net.cpp:156] Memory required for data: 980223264
I0403 21:48:33.566099 12900 layer_factory.hpp:77] Creating layer inception_4b/output
I0403 21:48:33.566117 12900 net.cpp:91] Creating Layer inception_4b/output
I0403 21:48:33.566130 12900 net.cpp:425] inception_4b/output <- inception_4b/1x1
I0403 21:48:33.566148 12900 net.cpp:425] inception_4b/output <- inception_4b/3x3
I0403 21:48:33.566164 12900 net.cpp:425] inception_4b/output <- inception_4b/5x5
I0403 21:48:33.566179 12900 net.cpp:425] inception_4b/output <- inception_4b/pool_proj
I0403 21:48:33.566195 12900 net.cpp:399] inception_4b/output -> inception_4b/output
I0403 21:48:33.566241 12900 net.cpp:141] Setting up inception_4b/output
I0403 21:48:33.566265 12900 net.cpp:148] Top shape: 24 512 14 14 (2408448)
I0403 21:48:33.566278 12900 net.cpp:156] Memory required for data: 989857056
I0403 21:48:33.566305 12900 layer_factory.hpp:77] Creating layer inception_4b/output_inception_4b/output_0_split
I0403 21:48:33.566323 12900 net.cpp:91] Creating Layer inception_4b/output_inception_4b/output_0_split
I0403 21:48:33.566339 12900 net.cpp:425] inception_4b/output_inception_4b/output_0_split <- inception_4b/output
I0403 21:48:33.566357 12900 net.cpp:399] inception_4b/output_inception_4b/output_0_split -> inception_4b/output_inception_4b/output_0_split_0
I0403 21:48:33.566377 12900 net.cpp:399] inception_4b/output_inception_4b/output_0_split -> inception_4b/output_inception_4b/output_0_split_1
I0403 21:48:33.566397 12900 net.cpp:399] inception_4b/output_inception_4b/output_0_split -> inception_4b/output_inception_4b/output_0_split_2
I0403 21:48:33.566416 12900 net.cpp:399] inception_4b/output_inception_4b/output_0_split -> inception_4b/output_inception_4b/output_0_split_3
I0403 21:48:33.566495 12900 net.cpp:141] Setting up inception_4b/output_inception_4b/output_0_split
I0403 21:48:33.566519 12900 net.cpp:148] Top shape: 24 512 14 14 (2408448)
I0403 21:48:33.566535 12900 net.cpp:148] Top shape: 24 512 14 14 (2408448)
I0403 21:48:33.566550 12900 net.cpp:148] Top shape: 24 512 14 14 (2408448)
I0403 21:48:33.566565 12900 net.cpp:148] Top shape: 24 512 14 14 (2408448)
I0403 21:48:33.566578 12900 net.cpp:156] Memory required for data: 1028392224
I0403 21:48:33.566592 12900 layer_factory.hpp:77] Creating layer inception_4c/1x1
I0403 21:48:33.566612 12900 net.cpp:91] Creating Layer inception_4c/1x1
I0403 21:48:33.566628 12900 net.cpp:425] inception_4c/1x1 <- inception_4b/output_inception_4b/output_0_split_0
I0403 21:48:33.566647 12900 net.cpp:399] inception_4c/1x1 -> inception_4c/1x1
I0403 21:48:33.567987 12900 net.cpp:141] Setting up inception_4c/1x1
I0403 21:48:33.568013 12900 net.cpp:148] Top shape: 24 128 14 14 (602112)
I0403 21:48:33.568028 12900 net.cpp:156] Memory required for data: 1030800672
I0403 21:48:33.568045 12900 layer_factory.hpp:77] Creating layer inception_4c/relu_1x1
I0403 21:48:33.568065 12900 net.cpp:91] Creating Layer inception_4c/relu_1x1
I0403 21:48:33.568083 12900 net.cpp:425] inception_4c/relu_1x1 <- inception_4c/1x1
I0403 21:48:33.568099 12900 net.cpp:386] inception_4c/relu_1x1 -> inception_4c/1x1 (in-place)
I0403 21:48:33.568276 12900 net.cpp:141] Setting up inception_4c/relu_1x1
I0403 21:48:33.568302 12900 net.cpp:148] Top shape: 24 128 14 14 (602112)
I0403 21:48:33.568318 12900 net.cpp:156] Memory required for data: 1033209120
I0403 21:48:33.568331 12900 layer_factory.hpp:77] Creating layer inception_4c/3x3_reduce
I0403 21:48:33.568353 12900 net.cpp:91] Creating Layer inception_4c/3x3_reduce
I0403 21:48:33.568370 12900 net.cpp:425] inception_4c/3x3_reduce <- inception_4b/output_inception_4b/output_0_split_1
I0403 21:48:33.568388 12900 net.cpp:399] inception_4c/3x3_reduce -> inception_4c/3x3_reduce
I0403 21:48:33.570261 12900 net.cpp:141] Setting up inception_4c/3x3_reduce
I0403 21:48:33.570289 12900 net.cpp:148] Top shape: 24 128 14 14 (602112)
I0403 21:48:33.570303 12900 net.cpp:156] Memory required for data: 1035617568
I0403 21:48:33.570322 12900 layer_factory.hpp:77] Creating layer inception_4c/relu_3x3_reduce
I0403 21:48:33.570338 12900 net.cpp:91] Creating Layer inception_4c/relu_3x3_reduce
I0403 21:48:33.570353 12900 net.cpp:425] inception_4c/relu_3x3_reduce <- inception_4c/3x3_reduce
I0403 21:48:33.570374 12900 net.cpp:386] inception_4c/relu_3x3_reduce -> inception_4c/3x3_reduce (in-place)
I0403 21:48:33.570647 12900 net.cpp:141] Setting up inception_4c/relu_3x3_reduce
I0403 21:48:33.570673 12900 net.cpp:148] Top shape: 24 128 14 14 (602112)
I0403 21:48:33.570688 12900 net.cpp:156] Memory required for data: 1038026016
I0403 21:48:33.570703 12900 layer_factory.hpp:77] Creating layer inception_4c/3x3
I0403 21:48:33.570725 12900 net.cpp:91] Creating Layer inception_4c/3x3
I0403 21:48:33.570742 12900 net.cpp:425] inception_4c/3x3 <- inception_4c/3x3_reduce
I0403 21:48:33.570762 12900 net.cpp:399] inception_4c/3x3 -> inception_4c/3x3
I0403 21:48:33.574182 12900 net.cpp:141] Setting up inception_4c/3x3
I0403 21:48:33.574226 12900 net.cpp:148] Top shape: 24 256 14 14 (1204224)
I0403 21:48:33.574244 12900 net.cpp:156] Memory required for data: 1042842912
I0403 21:48:33.574275 12900 layer_factory.hpp:77] Creating layer inception_4c/relu_3x3
I0403 21:48:33.574293 12900 net.cpp:91] Creating Layer inception_4c/relu_3x3
I0403 21:48:33.574309 12900 net.cpp:425] inception_4c/relu_3x3 <- inception_4c/3x3
I0403 21:48:33.574327 12900 net.cpp:386] inception_4c/relu_3x3 -> inception_4c/3x3 (in-place)
I0403 21:48:33.574499 12900 net.cpp:141] Setting up inception_4c/relu_3x3
I0403 21:48:33.574523 12900 net.cpp:148] Top shape: 24 256 14 14 (1204224)
I0403 21:48:33.574537 12900 net.cpp:156] Memory required for data: 1047659808
I0403 21:48:33.574551 12900 layer_factory.hpp:77] Creating layer inception_4c/5x5_reduce
I0403 21:48:33.574573 12900 net.cpp:91] Creating Layer inception_4c/5x5_reduce
I0403 21:48:33.574589 12900 net.cpp:425] inception_4c/5x5_reduce <- inception_4b/output_inception_4b/output_0_split_2
I0403 21:48:33.574610 12900 net.cpp:399] inception_4c/5x5_reduce -> inception_4c/5x5_reduce
I0403 21:48:33.575626 12900 net.cpp:141] Setting up inception_4c/5x5_reduce
I0403 21:48:33.575654 12900 net.cpp:148] Top shape: 24 24 14 14 (112896)
I0403 21:48:33.575669 12900 net.cpp:156] Memory required for data: 1048111392
I0403 21:48:33.575685 12900 layer_factory.hpp:77] Creating layer inception_4c/relu_5x5_reduce
I0403 21:48:33.575702 12900 net.cpp:91] Creating Layer inception_4c/relu_5x5_reduce
I0403 21:48:33.575716 12900 net.cpp:425] inception_4c/relu_5x5_reduce <- inception_4c/5x5_reduce
I0403 21:48:33.575736 12900 net.cpp:386] inception_4c/relu_5x5_reduce -> inception_4c/5x5_reduce (in-place)
I0403 21:48:33.575911 12900 net.cpp:141] Setting up inception_4c/relu_5x5_reduce
I0403 21:48:33.575937 12900 net.cpp:148] Top shape: 24 24 14 14 (112896)
I0403 21:48:33.575950 12900 net.cpp:156] Memory required for data: 1048562976
I0403 21:48:33.575964 12900 layer_factory.hpp:77] Creating layer inception_4c/5x5
I0403 21:48:33.575985 12900 net.cpp:91] Creating Layer inception_4c/5x5
I0403 21:48:33.576002 12900 net.cpp:425] inception_4c/5x5 <- inception_4c/5x5_reduce
I0403 21:48:33.576022 12900 net.cpp:399] inception_4c/5x5 -> inception_4c/5x5
I0403 21:48:33.577191 12900 net.cpp:141] Setting up inception_4c/5x5
I0403 21:48:33.577221 12900 net.cpp:148] Top shape: 24 64 14 14 (301056)
I0403 21:48:33.577239 12900 net.cpp:156] Memory required for data: 1049767200
I0403 21:48:33.577255 12900 layer_factory.hpp:77] Creating layer inception_4c/relu_5x5
I0403 21:48:33.577275 12900 net.cpp:91] Creating Layer inception_4c/relu_5x5
I0403 21:48:33.577291 12900 net.cpp:425] inception_4c/relu_5x5 <- inception_4c/5x5
I0403 21:48:33.577308 12900 net.cpp:386] inception_4c/relu_5x5 -> inception_4c/5x5 (in-place)
I0403 21:48:33.577579 12900 net.cpp:141] Setting up inception_4c/relu_5x5
I0403 21:48:33.577603 12900 net.cpp:148] Top shape: 24 64 14 14 (301056)
I0403 21:48:33.577618 12900 net.cpp:156] Memory required for data: 1050971424
I0403 21:48:33.577632 12900 layer_factory.hpp:77] Creating layer inception_4c/pool
I0403 21:48:33.577651 12900 net.cpp:91] Creating Layer inception_4c/pool
I0403 21:48:33.577667 12900 net.cpp:425] inception_4c/pool <- inception_4b/output_inception_4b/output_0_split_3
I0403 21:48:33.577685 12900 net.cpp:399] inception_4c/pool -> inception_4c/pool
I0403 21:48:33.577749 12900 net.cpp:141] Setting up inception_4c/pool
I0403 21:48:33.577771 12900 net.cpp:148] Top shape: 24 512 14 14 (2408448)
I0403 21:48:33.577785 12900 net.cpp:156] Memory required for data: 1060605216
I0403 21:48:33.577800 12900 layer_factory.hpp:77] Creating layer inception_4c/pool_proj
I0403 21:48:33.577821 12900 net.cpp:91] Creating Layer inception_4c/pool_proj
I0403 21:48:33.577836 12900 net.cpp:425] inception_4c/pool_proj <- inception_4c/pool
I0403 21:48:33.577857 12900 net.cpp:399] inception_4c/pool_proj -> inception_4c/pool_proj
I0403 21:48:33.579002 12900 net.cpp:141] Setting up inception_4c/pool_proj
I0403 21:48:33.579031 12900 net.cpp:148] Top shape: 24 64 14 14 (301056)
I0403 21:48:33.579059 12900 net.cpp:156] Memory required for data: 1061809440
I0403 21:48:33.579077 12900 layer_factory.hpp:77] Creating layer inception_4c/relu_pool_proj
I0403 21:48:33.579093 12900 net.cpp:91] Creating Layer inception_4c/relu_pool_proj
I0403 21:48:33.579109 12900 net.cpp:425] inception_4c/relu_pool_proj <- inception_4c/pool_proj
I0403 21:48:33.579128 12900 net.cpp:386] inception_4c/relu_pool_proj -> inception_4c/pool_proj (in-place)
I0403 21:48:33.579308 12900 net.cpp:141] Setting up inception_4c/relu_pool_proj
I0403 21:48:33.579332 12900 net.cpp:148] Top shape: 24 64 14 14 (301056)
I0403 21:48:33.579349 12900 net.cpp:156] Memory required for data: 1063013664
I0403 21:48:33.579362 12900 layer_factory.hpp:77] Creating layer inception_4c/output
I0403 21:48:33.579380 12900 net.cpp:91] Creating Layer inception_4c/output
I0403 21:48:33.579393 12900 net.cpp:425] inception_4c/output <- inception_4c/1x1
I0403 21:48:33.579408 12900 net.cpp:425] inception_4c/output <- inception_4c/3x3
I0403 21:48:33.579423 12900 net.cpp:425] inception_4c/output <- inception_4c/5x5
I0403 21:48:33.579438 12900 net.cpp:425] inception_4c/output <- inception_4c/pool_proj
I0403 21:48:33.579457 12900 net.cpp:399] inception_4c/output -> inception_4c/output
I0403 21:48:33.579502 12900 net.cpp:141] Setting up inception_4c/output
I0403 21:48:33.579525 12900 net.cpp:148] Top shape: 24 512 14 14 (2408448)
I0403 21:48:33.579540 12900 net.cpp:156] Memory required for data: 1072647456
I0403 21:48:33.579552 12900 layer_factory.hpp:77] Creating layer inception_4c/output_inception_4c/output_0_split
I0403 21:48:33.579568 12900 net.cpp:91] Creating Layer inception_4c/output_inception_4c/output_0_split
I0403 21:48:33.579583 12900 net.cpp:425] inception_4c/output_inception_4c/output_0_split <- inception_4c/output
I0403 21:48:33.579602 12900 net.cpp:399] inception_4c/output_inception_4c/output_0_split -> inception_4c/output_inception_4c/output_0_split_0
I0403 21:48:33.579623 12900 net.cpp:399] inception_4c/output_inception_4c/output_0_split -> inception_4c/output_inception_4c/output_0_split_1
I0403 21:48:33.579641 12900 net.cpp:399] inception_4c/output_inception_4c/output_0_split -> inception_4c/output_inception_4c/output_0_split_2
I0403 21:48:33.579660 12900 net.cpp:399] inception_4c/output_inception_4c/output_0_split -> inception_4c/output_inception_4c/output_0_split_3
I0403 21:48:33.579741 12900 net.cpp:141] Setting up inception_4c/output_inception_4c/output_0_split
I0403 21:48:33.579766 12900 net.cpp:148] Top shape: 24 512 14 14 (2408448)
I0403 21:48:33.579782 12900 net.cpp:148] Top shape: 24 512 14 14 (2408448)
I0403 21:48:33.579797 12900 net.cpp:148] Top shape: 24 512 14 14 (2408448)
I0403 21:48:33.579813 12900 net.cpp:148] Top shape: 24 512 14 14 (2408448)
I0403 21:48:33.579824 12900 net.cpp:156] Memory required for data: 1111182624
I0403 21:48:33.579838 12900 layer_factory.hpp:77] Creating layer inception_4d/1x1
I0403 21:48:33.579859 12900 net.cpp:91] Creating Layer inception_4d/1x1
I0403 21:48:33.579875 12900 net.cpp:425] inception_4d/1x1 <- inception_4c/output_inception_4c/output_0_split_0
I0403 21:48:33.579895 12900 net.cpp:399] inception_4d/1x1 -> inception_4d/1x1
I0403 21:48:33.581240 12900 net.cpp:141] Setting up inception_4d/1x1
I0403 21:48:33.581267 12900 net.cpp:148] Top shape: 24 112 14 14 (526848)
I0403 21:48:33.581284 12900 net.cpp:156] Memory required for data: 1113290016
I0403 21:48:33.581300 12900 layer_factory.hpp:77] Creating layer inception_4d/relu_1x1
I0403 21:48:33.581321 12900 net.cpp:91] Creating Layer inception_4d/relu_1x1
I0403 21:48:33.581337 12900 net.cpp:425] inception_4d/relu_1x1 <- inception_4d/1x1
I0403 21:48:33.581356 12900 net.cpp:386] inception_4d/relu_1x1 -> inception_4d/1x1 (in-place)
I0403 21:48:33.581532 12900 net.cpp:141] Setting up inception_4d/relu_1x1
I0403 21:48:33.581557 12900 net.cpp:148] Top shape: 24 112 14 14 (526848)
I0403 21:48:33.581573 12900 net.cpp:156] Memory required for data: 1115397408
I0403 21:48:33.581586 12900 layer_factory.hpp:77] Creating layer inception_4d/3x3_reduce
I0403 21:48:33.581622 12900 net.cpp:91] Creating Layer inception_4d/3x3_reduce
I0403 21:48:33.581641 12900 net.cpp:425] inception_4d/3x3_reduce <- inception_4c/output_inception_4c/output_0_split_1
I0403 21:48:33.581662 12900 net.cpp:399] inception_4d/3x3_reduce -> inception_4d/3x3_reduce
I0403 21:48:33.583102 12900 net.cpp:141] Setting up inception_4d/3x3_reduce
I0403 21:48:33.583128 12900 net.cpp:148] Top shape: 24 144 14 14 (677376)
I0403 21:48:33.583143 12900 net.cpp:156] Memory required for data: 1118106912
I0403 21:48:33.583161 12900 layer_factory.hpp:77] Creating layer inception_4d/relu_3x3_reduce
I0403 21:48:33.583179 12900 net.cpp:91] Creating Layer inception_4d/relu_3x3_reduce
I0403 21:48:33.583195 12900 net.cpp:425] inception_4d/relu_3x3_reduce <- inception_4d/3x3_reduce
I0403 21:48:33.583216 12900 net.cpp:386] inception_4d/relu_3x3_reduce -> inception_4d/3x3_reduce (in-place)
I0403 21:48:33.583495 12900 net.cpp:141] Setting up inception_4d/relu_3x3_reduce
I0403 21:48:33.583520 12900 net.cpp:148] Top shape: 24 144 14 14 (677376)
I0403 21:48:33.583535 12900 net.cpp:156] Memory required for data: 1120816416
I0403 21:48:33.583550 12900 layer_factory.hpp:77] Creating layer inception_4d/3x3
I0403 21:48:33.583571 12900 net.cpp:91] Creating Layer inception_4d/3x3
I0403 21:48:33.583587 12900 net.cpp:425] inception_4d/3x3 <- inception_4d/3x3_reduce
I0403 21:48:33.583607 12900 net.cpp:399] inception_4d/3x3 -> inception_4d/3x3
I0403 21:48:33.587694 12900 net.cpp:141] Setting up inception_4d/3x3
I0403 21:48:33.587724 12900 net.cpp:148] Top shape: 24 288 14 14 (1354752)
I0403 21:48:33.587740 12900 net.cpp:156] Memory required for data: 1126235424
I0403 21:48:33.587759 12900 layer_factory.hpp:77] Creating layer inception_4d/relu_3x3
I0403 21:48:33.587775 12900 net.cpp:91] Creating Layer inception_4d/relu_3x3
I0403 21:48:33.587790 12900 net.cpp:425] inception_4d/relu_3x3 <- inception_4d/3x3
I0403 21:48:33.587806 12900 net.cpp:386] inception_4d/relu_3x3 -> inception_4d/3x3 (in-place)
I0403 21:48:33.587981 12900 net.cpp:141] Setting up inception_4d/relu_3x3
I0403 21:48:33.588006 12900 net.cpp:148] Top shape: 24 288 14 14 (1354752)
I0403 21:48:33.588019 12900 net.cpp:156] Memory required for data: 1131654432
I0403 21:48:33.588034 12900 layer_factory.hpp:77] Creating layer inception_4d/5x5_reduce
I0403 21:48:33.588055 12900 net.cpp:91] Creating Layer inception_4d/5x5_reduce
I0403 21:48:33.588071 12900 net.cpp:425] inception_4d/5x5_reduce <- inception_4c/output_inception_4c/output_0_split_2
I0403 21:48:33.588093 12900 net.cpp:399] inception_4d/5x5_reduce -> inception_4d/5x5_reduce
I0403 21:48:33.589212 12900 net.cpp:141] Setting up inception_4d/5x5_reduce
I0403 21:48:33.589241 12900 net.cpp:148] Top shape: 24 32 14 14 (150528)
I0403 21:48:33.589257 12900 net.cpp:156] Memory required for data: 1132256544
I0403 21:48:33.589275 12900 layer_factory.hpp:77] Creating layer inception_4d/relu_5x5_reduce
I0403 21:48:33.589293 12900 net.cpp:91] Creating Layer inception_4d/relu_5x5_reduce
I0403 21:48:33.589308 12900 net.cpp:425] inception_4d/relu_5x5_reduce <- inception_4d/5x5_reduce
I0403 21:48:33.589326 12900 net.cpp:386] inception_4d/relu_5x5_reduce -> inception_4d/5x5_reduce (in-place)
I0403 21:48:33.589504 12900 net.cpp:141] Setting up inception_4d/relu_5x5_reduce
I0403 21:48:33.589529 12900 net.cpp:148] Top shape: 24 32 14 14 (150528)
I0403 21:48:33.589542 12900 net.cpp:156] Memory required for data: 1132858656
I0403 21:48:33.589556 12900 layer_factory.hpp:77] Creating layer inception_4d/5x5
I0403 21:48:33.589576 12900 net.cpp:91] Creating Layer inception_4d/5x5
I0403 21:48:33.589593 12900 net.cpp:425] inception_4d/5x5 <- inception_4d/5x5_reduce
I0403 21:48:33.589613 12900 net.cpp:399] inception_4d/5x5 -> inception_4d/5x5
I0403 21:48:33.590986 12900 net.cpp:141] Setting up inception_4d/5x5
I0403 21:48:33.591013 12900 net.cpp:148] Top shape: 24 64 14 14 (301056)
I0403 21:48:33.591028 12900 net.cpp:156] Memory required for data: 1134062880
I0403 21:48:33.591048 12900 layer_factory.hpp:77] Creating layer inception_4d/relu_5x5
I0403 21:48:33.591078 12900 net.cpp:91] Creating Layer inception_4d/relu_5x5
I0403 21:48:33.591094 12900 net.cpp:425] inception_4d/relu_5x5 <- inception_4d/5x5
I0403 21:48:33.591114 12900 net.cpp:386] inception_4d/relu_5x5 -> inception_4d/5x5 (in-place)
I0403 21:48:33.591403 12900 net.cpp:141] Setting up inception_4d/relu_5x5
I0403 21:48:33.591428 12900 net.cpp:148] Top shape: 24 64 14 14 (301056)
I0403 21:48:33.591441 12900 net.cpp:156] Memory required for data: 1135267104
I0403 21:48:33.591456 12900 layer_factory.hpp:77] Creating layer inception_4d/pool
I0403 21:48:33.591472 12900 net.cpp:91] Creating Layer inception_4d/pool
I0403 21:48:33.591488 12900 net.cpp:425] inception_4d/pool <- inception_4c/output_inception_4c/output_0_split_3
I0403 21:48:33.591507 12900 net.cpp:399] inception_4d/pool -> inception_4d/pool
I0403 21:48:33.591569 12900 net.cpp:141] Setting up inception_4d/pool
I0403 21:48:33.591593 12900 net.cpp:148] Top shape: 24 512 14 14 (2408448)
I0403 21:48:33.591606 12900 net.cpp:156] Memory required for data: 1144900896
I0403 21:48:33.591620 12900 layer_factory.hpp:77] Creating layer inception_4d/pool_proj
I0403 21:48:33.591642 12900 net.cpp:91] Creating Layer inception_4d/pool_proj
I0403 21:48:33.591658 12900 net.cpp:425] inception_4d/pool_proj <- inception_4d/pool
I0403 21:48:33.591676 12900 net.cpp:399] inception_4d/pool_proj -> inception_4d/pool_proj
I0403 21:48:33.593376 12900 net.cpp:141] Setting up inception_4d/pool_proj
I0403 21:48:33.593406 12900 net.cpp:148] Top shape: 24 64 14 14 (301056)
I0403 21:48:33.593421 12900 net.cpp:156] Memory required for data: 1146105120
I0403 21:48:33.593439 12900 layer_factory.hpp:77] Creating layer inception_4d/relu_pool_proj
I0403 21:48:33.593457 12900 net.cpp:91] Creating Layer inception_4d/relu_pool_proj
I0403 21:48:33.593472 12900 net.cpp:425] inception_4d/relu_pool_proj <- inception_4d/pool_proj
I0403 21:48:33.593488 12900 net.cpp:386] inception_4d/relu_pool_proj -> inception_4d/pool_proj (in-place)
I0403 21:48:33.593669 12900 net.cpp:141] Setting up inception_4d/relu_pool_proj
I0403 21:48:33.593694 12900 net.cpp:148] Top shape: 24 64 14 14 (301056)
I0403 21:48:33.593708 12900 net.cpp:156] Memory required for data: 1147309344
I0403 21:48:33.593724 12900 layer_factory.hpp:77] Creating layer inception_4d/output
I0403 21:48:33.593739 12900 net.cpp:91] Creating Layer inception_4d/output
I0403 21:48:33.593755 12900 net.cpp:425] inception_4d/output <- inception_4d/1x1
I0403 21:48:33.593770 12900 net.cpp:425] inception_4d/output <- inception_4d/3x3
I0403 21:48:33.593785 12900 net.cpp:425] inception_4d/output <- inception_4d/5x5
I0403 21:48:33.593801 12900 net.cpp:425] inception_4d/output <- inception_4d/pool_proj
I0403 21:48:33.593818 12900 net.cpp:399] inception_4d/output -> inception_4d/output
I0403 21:48:33.593863 12900 net.cpp:141] Setting up inception_4d/output
I0403 21:48:33.593886 12900 net.cpp:148] Top shape: 24 528 14 14 (2483712)
I0403 21:48:33.593901 12900 net.cpp:156] Memory required for data: 1157244192
I0403 21:48:33.593915 12900 layer_factory.hpp:77] Creating layer inception_4d/output_inception_4d/output_0_split
I0403 21:48:33.593932 12900 net.cpp:91] Creating Layer inception_4d/output_inception_4d/output_0_split
I0403 21:48:33.593947 12900 net.cpp:425] inception_4d/output_inception_4d/output_0_split <- inception_4d/output
I0403 21:48:33.593967 12900 net.cpp:399] inception_4d/output_inception_4d/output_0_split -> inception_4d/output_inception_4d/output_0_split_0
I0403 21:48:33.593987 12900 net.cpp:399] inception_4d/output_inception_4d/output_0_split -> inception_4d/output_inception_4d/output_0_split_1
I0403 21:48:33.594007 12900 net.cpp:399] inception_4d/output_inception_4d/output_0_split -> inception_4d/output_inception_4d/output_0_split_2
I0403 21:48:33.594025 12900 net.cpp:399] inception_4d/output_inception_4d/output_0_split -> inception_4d/output_inception_4d/output_0_split_3
I0403 21:48:33.594043 12900 net.cpp:399] inception_4d/output_inception_4d/output_0_split -> inception_4d/output_inception_4d/output_0_split_4
I0403 21:48:33.594138 12900 net.cpp:141] Setting up inception_4d/output_inception_4d/output_0_split
I0403 21:48:33.594172 12900 net.cpp:148] Top shape: 24 528 14 14 (2483712)
I0403 21:48:33.594188 12900 net.cpp:148] Top shape: 24 528 14 14 (2483712)
I0403 21:48:33.594203 12900 net.cpp:148] Top shape: 24 528 14 14 (2483712)
I0403 21:48:33.594223 12900 net.cpp:148] Top shape: 24 528 14 14 (2483712)
I0403 21:48:33.594238 12900 net.cpp:148] Top shape: 24 528 14 14 (2483712)
I0403 21:48:33.594252 12900 net.cpp:156] Memory required for data: 1206918432
I0403 21:48:33.594266 12900 layer_factory.hpp:77] Creating layer loss2/ave_pool
I0403 21:48:33.594285 12900 net.cpp:91] Creating Layer loss2/ave_pool
I0403 21:48:33.594302 12900 net.cpp:425] loss2/ave_pool <- inception_4d/output_inception_4d/output_0_split_0
I0403 21:48:33.594319 12900 net.cpp:399] loss2/ave_pool -> loss2/ave_pool
I0403 21:48:33.594614 12900 net.cpp:141] Setting up loss2/ave_pool
I0403 21:48:33.594641 12900 net.cpp:148] Top shape: 24 528 4 4 (202752)
I0403 21:48:33.594656 12900 net.cpp:156] Memory required for data: 1207729440
I0403 21:48:33.594671 12900 layer_factory.hpp:77] Creating layer loss2/conv
I0403 21:48:33.594692 12900 net.cpp:91] Creating Layer loss2/conv
I0403 21:48:33.594708 12900 net.cpp:425] loss2/conv <- loss2/ave_pool
I0403 21:48:33.594727 12900 net.cpp:399] loss2/conv -> loss2/conv
I0403 21:48:33.596539 12900 net.cpp:141] Setting up loss2/conv
I0403 21:48:33.596566 12900 net.cpp:148] Top shape: 24 128 4 4 (49152)
I0403 21:48:33.596582 12900 net.cpp:156] Memory required for data: 1207926048
I0403 21:48:33.596601 12900 layer_factory.hpp:77] Creating layer loss2/relu_conv
I0403 21:48:33.596621 12900 net.cpp:91] Creating Layer loss2/relu_conv
I0403 21:48:33.596637 12900 net.cpp:425] loss2/relu_conv <- loss2/conv
I0403 21:48:33.596654 12900 net.cpp:386] loss2/relu_conv -> loss2/conv (in-place)
I0403 21:48:33.596938 12900 net.cpp:141] Setting up loss2/relu_conv
I0403 21:48:33.596963 12900 net.cpp:148] Top shape: 24 128 4 4 (49152)
I0403 21:48:33.596978 12900 net.cpp:156] Memory required for data: 1208122656
I0403 21:48:33.596992 12900 layer_factory.hpp:77] Creating layer loss2/fc
I0403 21:48:33.597012 12900 net.cpp:91] Creating Layer loss2/fc
I0403 21:48:33.597029 12900 net.cpp:425] loss2/fc <- loss2/conv
I0403 21:48:33.597048 12900 net.cpp:399] loss2/fc -> loss2/fc
I0403 21:48:33.613961 12900 net.cpp:141] Setting up loss2/fc
I0403 21:48:33.613997 12900 net.cpp:148] Top shape: 24 1024 (24576)
I0403 21:48:33.614014 12900 net.cpp:156] Memory required for data: 1208220960
I0403 21:48:33.614033 12900 layer_factory.hpp:77] Creating layer loss2/relu_fc
I0403 21:48:33.614050 12900 net.cpp:91] Creating Layer loss2/relu_fc
I0403 21:48:33.614065 12900 net.cpp:425] loss2/relu_fc <- loss2/fc
I0403 21:48:33.614084 12900 net.cpp:386] loss2/relu_fc -> loss2/fc (in-place)
I0403 21:48:33.614377 12900 net.cpp:141] Setting up loss2/relu_fc
I0403 21:48:33.614405 12900 net.cpp:148] Top shape: 24 1024 (24576)
I0403 21:48:33.614421 12900 net.cpp:156] Memory required for data: 1208319264
I0403 21:48:33.614435 12900 layer_factory.hpp:77] Creating layer loss2/drop_fc
I0403 21:48:33.614452 12900 net.cpp:91] Creating Layer loss2/drop_fc
I0403 21:48:33.614467 12900 net.cpp:425] loss2/drop_fc <- loss2/fc
I0403 21:48:33.614485 12900 net.cpp:386] loss2/drop_fc -> loss2/fc (in-place)
I0403 21:48:33.614531 12900 net.cpp:141] Setting up loss2/drop_fc
I0403 21:48:33.614553 12900 net.cpp:148] Top shape: 24 1024 (24576)
I0403 21:48:33.614567 12900 net.cpp:156] Memory required for data: 1208417568
I0403 21:48:33.614581 12900 layer_factory.hpp:77] Creating layer loss2/classifier_plantvillage
I0403 21:48:33.614603 12900 net.cpp:91] Creating Layer loss2/classifier_plantvillage
I0403 21:48:33.614619 12900 net.cpp:425] loss2/classifier_plantvillage <- loss2/fc
I0403 21:48:33.614639 12900 net.cpp:399] loss2/classifier_plantvillage -> loss2/classifier_plantvillage
I0403 21:48:33.615020 12900 net.cpp:141] Setting up loss2/classifier_plantvillage
I0403 21:48:33.615046 12900 net.cpp:148] Top shape: 24 38 (912)
I0403 21:48:33.615059 12900 net.cpp:156] Memory required for data: 1208421216
I0403 21:48:33.615093 12900 layer_factory.hpp:77] Creating layer loss2/classifier_plantvillage_loss2/classifier_plantvillage_0_split
I0403 21:48:33.615114 12900 net.cpp:91] Creating Layer loss2/classifier_plantvillage_loss2/classifier_plantvillage_0_split
I0403 21:48:33.615131 12900 net.cpp:425] loss2/classifier_plantvillage_loss2/classifier_plantvillage_0_split <- loss2/classifier_plantvillage
I0403 21:48:33.615147 12900 net.cpp:399] loss2/classifier_plantvillage_loss2/classifier_plantvillage_0_split -> loss2/classifier_plantvillage_loss2/classifier_plantvillage_0_split_0
I0403 21:48:33.615166 12900 net.cpp:399] loss2/classifier_plantvillage_loss2/classifier_plantvillage_0_split -> loss2/classifier_plantvillage_loss2/classifier_plantvillage_0_split_1
I0403 21:48:33.615185 12900 net.cpp:399] loss2/classifier_plantvillage_loss2/classifier_plantvillage_0_split -> loss2/classifier_plantvillage_loss2/classifier_plantvillage_0_split_2
I0403 21:48:33.615264 12900 net.cpp:141] Setting up loss2/classifier_plantvillage_loss2/classifier_plantvillage_0_split
I0403 21:48:33.615288 12900 net.cpp:148] Top shape: 24 38 (912)
I0403 21:48:33.615303 12900 net.cpp:148] Top shape: 24 38 (912)
I0403 21:48:33.615317 12900 net.cpp:148] Top shape: 24 38 (912)
I0403 21:48:33.615331 12900 net.cpp:156] Memory required for data: 1208432160
I0403 21:48:33.615345 12900 layer_factory.hpp:77] Creating layer inception_4e/1x1
I0403 21:48:33.615365 12900 net.cpp:91] Creating Layer inception_4e/1x1
I0403 21:48:33.615381 12900 net.cpp:425] inception_4e/1x1 <- inception_4d/output_inception_4d/output_0_split_1
I0403 21:48:33.615401 12900 net.cpp:399] inception_4e/1x1 -> inception_4e/1x1
I0403 21:48:33.617125 12900 net.cpp:141] Setting up inception_4e/1x1
I0403 21:48:33.617151 12900 net.cpp:148] Top shape: 24 256 14 14 (1204224)
I0403 21:48:33.617167 12900 net.cpp:156] Memory required for data: 1213249056
I0403 21:48:33.617185 12900 layer_factory.hpp:77] Creating layer inception_4e/relu_1x1
I0403 21:48:33.617204 12900 net.cpp:91] Creating Layer inception_4e/relu_1x1
I0403 21:48:33.617225 12900 net.cpp:425] inception_4e/relu_1x1 <- inception_4e/1x1
I0403 21:48:33.617243 12900 net.cpp:386] inception_4e/relu_1x1 -> inception_4e/1x1 (in-place)
I0403 21:48:33.617527 12900 net.cpp:141] Setting up inception_4e/relu_1x1
I0403 21:48:33.617552 12900 net.cpp:148] Top shape: 24 256 14 14 (1204224)
I0403 21:48:33.617566 12900 net.cpp:156] Memory required for data: 1218065952
I0403 21:48:33.617580 12900 layer_factory.hpp:77] Creating layer inception_4e/3x3_reduce
I0403 21:48:33.617602 12900 net.cpp:91] Creating Layer inception_4e/3x3_reduce
I0403 21:48:33.617619 12900 net.cpp:425] inception_4e/3x3_reduce <- inception_4d/output_inception_4d/output_0_split_2
I0403 21:48:33.617640 12900 net.cpp:399] inception_4e/3x3_reduce -> inception_4e/3x3_reduce
I0403 21:48:33.619683 12900 net.cpp:141] Setting up inception_4e/3x3_reduce
I0403 21:48:33.619710 12900 net.cpp:148] Top shape: 24 160 14 14 (752640)
I0403 21:48:33.619726 12900 net.cpp:156] Memory required for data: 1221076512
I0403 21:48:33.619745 12900 layer_factory.hpp:77] Creating layer inception_4e/relu_3x3_reduce
I0403 21:48:33.619763 12900 net.cpp:91] Creating Layer inception_4e/relu_3x3_reduce
I0403 21:48:33.619779 12900 net.cpp:425] inception_4e/relu_3x3_reduce <- inception_4e/3x3_reduce
I0403 21:48:33.619796 12900 net.cpp:386] inception_4e/relu_3x3_reduce -> inception_4e/3x3_reduce (in-place)
I0403 21:48:33.619976 12900 net.cpp:141] Setting up inception_4e/relu_3x3_reduce
I0403 21:48:33.619999 12900 net.cpp:148] Top shape: 24 160 14 14 (752640)
I0403 21:48:33.620014 12900 net.cpp:156] Memory required for data: 1224087072
I0403 21:48:33.620028 12900 layer_factory.hpp:77] Creating layer inception_4e/3x3
I0403 21:48:33.620049 12900 net.cpp:91] Creating Layer inception_4e/3x3
I0403 21:48:33.620065 12900 net.cpp:425] inception_4e/3x3 <- inception_4e/3x3_reduce
I0403 21:48:33.620086 12900 net.cpp:399] inception_4e/3x3 -> inception_4e/3x3
I0403 21:48:33.624903 12900 net.cpp:141] Setting up inception_4e/3x3
I0403 21:48:33.624943 12900 net.cpp:148] Top shape: 24 320 14 14 (1505280)
I0403 21:48:33.624959 12900 net.cpp:156] Memory required for data: 1230108192
I0403 21:48:33.624977 12900 layer_factory.hpp:77] Creating layer inception_4e/relu_3x3
I0403 21:48:33.624996 12900 net.cpp:91] Creating Layer inception_4e/relu_3x3
I0403 21:48:33.625012 12900 net.cpp:425] inception_4e/relu_3x3 <- inception_4e/3x3
I0403 21:48:33.625030 12900 net.cpp:386] inception_4e/relu_3x3 -> inception_4e/3x3 (in-place)
I0403 21:48:33.625324 12900 net.cpp:141] Setting up inception_4e/relu_3x3
I0403 21:48:33.625349 12900 net.cpp:148] Top shape: 24 320 14 14 (1505280)
I0403 21:48:33.625365 12900 net.cpp:156] Memory required for data: 1236129312
I0403 21:48:33.625380 12900 layer_factory.hpp:77] Creating layer inception_4e/5x5_reduce
I0403 21:48:33.625404 12900 net.cpp:91] Creating Layer inception_4e/5x5_reduce
I0403 21:48:33.625422 12900 net.cpp:425] inception_4e/5x5_reduce <- inception_4d/output_inception_4d/output_0_split_3
I0403 21:48:33.625439 12900 net.cpp:399] inception_4e/5x5_reduce -> inception_4e/5x5_reduce
I0403 21:48:33.626456 12900 net.cpp:141] Setting up inception_4e/5x5_reduce
I0403 21:48:33.626482 12900 net.cpp:148] Top shape: 24 32 14 14 (150528)
I0403 21:48:33.626497 12900 net.cpp:156] Memory required for data: 1236731424
I0403 21:48:33.626513 12900 layer_factory.hpp:77] Creating layer inception_4e/relu_5x5_reduce
I0403 21:48:33.626530 12900 net.cpp:91] Creating Layer inception_4e/relu_5x5_reduce
I0403 21:48:33.626546 12900 net.cpp:425] inception_4e/relu_5x5_reduce <- inception_4e/5x5_reduce
I0403 21:48:33.626564 12900 net.cpp:386] inception_4e/relu_5x5_reduce -> inception_4e/5x5_reduce (in-place)
I0403 21:48:33.626847 12900 net.cpp:141] Setting up inception_4e/relu_5x5_reduce
I0403 21:48:33.626873 12900 net.cpp:148] Top shape: 24 32 14 14 (150528)
I0403 21:48:33.626888 12900 net.cpp:156] Memory required for data: 1237333536
I0403 21:48:33.626901 12900 layer_factory.hpp:77] Creating layer inception_4e/5x5
I0403 21:48:33.626938 12900 net.cpp:91] Creating Layer inception_4e/5x5
I0403 21:48:33.626956 12900 net.cpp:425] inception_4e/5x5 <- inception_4e/5x5_reduce
I0403 21:48:33.626976 12900 net.cpp:399] inception_4e/5x5 -> inception_4e/5x5
I0403 21:48:33.628713 12900 net.cpp:141] Setting up inception_4e/5x5
I0403 21:48:33.628741 12900 net.cpp:148] Top shape: 24 128 14 14 (602112)
I0403 21:48:33.628756 12900 net.cpp:156] Memory required for data: 1239741984
I0403 21:48:33.628774 12900 layer_factory.hpp:77] Creating layer inception_4e/relu_5x5
I0403 21:48:33.628793 12900 net.cpp:91] Creating Layer inception_4e/relu_5x5
I0403 21:48:33.628808 12900 net.cpp:425] inception_4e/relu_5x5 <- inception_4e/5x5
I0403 21:48:33.628826 12900 net.cpp:386] inception_4e/relu_5x5 -> inception_4e/5x5 (in-place)
I0403 21:48:33.629019 12900 net.cpp:141] Setting up inception_4e/relu_5x5
I0403 21:48:33.629043 12900 net.cpp:148] Top shape: 24 128 14 14 (602112)
I0403 21:48:33.629057 12900 net.cpp:156] Memory required for data: 1242150432
I0403 21:48:33.629072 12900 layer_factory.hpp:77] Creating layer inception_4e/pool
I0403 21:48:33.629091 12900 net.cpp:91] Creating Layer inception_4e/pool
I0403 21:48:33.629107 12900 net.cpp:425] inception_4e/pool <- inception_4d/output_inception_4d/output_0_split_4
I0403 21:48:33.629124 12900 net.cpp:399] inception_4e/pool -> inception_4e/pool
I0403 21:48:33.629190 12900 net.cpp:141] Setting up inception_4e/pool
I0403 21:48:33.629217 12900 net.cpp:148] Top shape: 24 528 14 14 (2483712)
I0403 21:48:33.629232 12900 net.cpp:156] Memory required for data: 1252085280
I0403 21:48:33.629247 12900 layer_factory.hpp:77] Creating layer inception_4e/pool_proj
I0403 21:48:33.629268 12900 net.cpp:91] Creating Layer inception_4e/pool_proj
I0403 21:48:33.629286 12900 net.cpp:425] inception_4e/pool_proj <- inception_4e/pool
I0403 21:48:33.629305 12900 net.cpp:399] inception_4e/pool_proj -> inception_4e/pool_proj
I0403 21:48:33.630731 12900 net.cpp:141] Setting up inception_4e/pool_proj
I0403 21:48:33.630760 12900 net.cpp:148] Top shape: 24 128 14 14 (602112)
I0403 21:48:33.630789 12900 net.cpp:156] Memory required for data: 1254493728
I0403 21:48:33.630807 12900 layer_factory.hpp:77] Creating layer inception_4e/relu_pool_proj
I0403 21:48:33.630825 12900 net.cpp:91] Creating Layer inception_4e/relu_pool_proj
I0403 21:48:33.630838 12900 net.cpp:425] inception_4e/relu_pool_proj <- inception_4e/pool_proj
I0403 21:48:33.630854 12900 net.cpp:386] inception_4e/relu_pool_proj -> inception_4e/pool_proj (in-place)
I0403 21:48:33.631137 12900 net.cpp:141] Setting up inception_4e/relu_pool_proj
I0403 21:48:33.631165 12900 net.cpp:148] Top shape: 24 128 14 14 (602112)
I0403 21:48:33.631181 12900 net.cpp:156] Memory required for data: 1256902176
I0403 21:48:33.631194 12900 layer_factory.hpp:77] Creating layer inception_4e/output
I0403 21:48:33.631216 12900 net.cpp:91] Creating Layer inception_4e/output
I0403 21:48:33.631232 12900 net.cpp:425] inception_4e/output <- inception_4e/1x1
I0403 21:48:33.631248 12900 net.cpp:425] inception_4e/output <- inception_4e/3x3
I0403 21:48:33.631264 12900 net.cpp:425] inception_4e/output <- inception_4e/5x5
I0403 21:48:33.631278 12900 net.cpp:425] inception_4e/output <- inception_4e/pool_proj
I0403 21:48:33.631294 12900 net.cpp:399] inception_4e/output -> inception_4e/output
I0403 21:48:33.631342 12900 net.cpp:141] Setting up inception_4e/output
I0403 21:48:33.631366 12900 net.cpp:148] Top shape: 24 832 14 14 (3913728)
I0403 21:48:33.631379 12900 net.cpp:156] Memory required for data: 1272557088
I0403 21:48:33.631393 12900 layer_factory.hpp:77] Creating layer pool4/3x3_s2
I0403 21:48:33.631412 12900 net.cpp:91] Creating Layer pool4/3x3_s2
I0403 21:48:33.631428 12900 net.cpp:425] pool4/3x3_s2 <- inception_4e/output
I0403 21:48:33.631446 12900 net.cpp:399] pool4/3x3_s2 -> pool4/3x3_s2
I0403 21:48:33.631511 12900 net.cpp:141] Setting up pool4/3x3_s2
I0403 21:48:33.631534 12900 net.cpp:148] Top shape: 24 832 7 7 (978432)
I0403 21:48:33.631548 12900 net.cpp:156] Memory required for data: 1276470816
I0403 21:48:33.631562 12900 layer_factory.hpp:77] Creating layer pool4/3x3_s2_pool4/3x3_s2_0_split
I0403 21:48:33.631578 12900 net.cpp:91] Creating Layer pool4/3x3_s2_pool4/3x3_s2_0_split
I0403 21:48:33.631593 12900 net.cpp:425] pool4/3x3_s2_pool4/3x3_s2_0_split <- pool4/3x3_s2
I0403 21:48:33.631611 12900 net.cpp:399] pool4/3x3_s2_pool4/3x3_s2_0_split -> pool4/3x3_s2_pool4/3x3_s2_0_split_0
I0403 21:48:33.631631 12900 net.cpp:399] pool4/3x3_s2_pool4/3x3_s2_0_split -> pool4/3x3_s2_pool4/3x3_s2_0_split_1
I0403 21:48:33.631650 12900 net.cpp:399] pool4/3x3_s2_pool4/3x3_s2_0_split -> pool4/3x3_s2_pool4/3x3_s2_0_split_2
I0403 21:48:33.631669 12900 net.cpp:399] pool4/3x3_s2_pool4/3x3_s2_0_split -> pool4/3x3_s2_pool4/3x3_s2_0_split_3
I0403 21:48:33.631757 12900 net.cpp:141] Setting up pool4/3x3_s2_pool4/3x3_s2_0_split
I0403 21:48:33.631783 12900 net.cpp:148] Top shape: 24 832 7 7 (978432)
I0403 21:48:33.631798 12900 net.cpp:148] Top shape: 24 832 7 7 (978432)
I0403 21:48:33.631813 12900 net.cpp:148] Top shape: 24 832 7 7 (978432)
I0403 21:48:33.631827 12900 net.cpp:148] Top shape: 24 832 7 7 (978432)
I0403 21:48:33.631840 12900 net.cpp:156] Memory required for data: 1292125728
I0403 21:48:33.631855 12900 layer_factory.hpp:77] Creating layer inception_5a/1x1
I0403 21:48:33.631880 12900 net.cpp:91] Creating Layer inception_5a/1x1
I0403 21:48:33.631896 12900 net.cpp:425] inception_5a/1x1 <- pool4/3x3_s2_pool4/3x3_s2_0_split_0
I0403 21:48:33.631913 12900 net.cpp:399] inception_5a/1x1 -> inception_5a/1x1
I0403 21:48:33.634707 12900 net.cpp:141] Setting up inception_5a/1x1
I0403 21:48:33.634737 12900 net.cpp:148] Top shape: 24 256 7 7 (301056)
I0403 21:48:33.634753 12900 net.cpp:156] Memory required for data: 1293329952
I0403 21:48:33.634771 12900 layer_factory.hpp:77] Creating layer inception_5a/relu_1x1
I0403 21:48:33.634788 12900 net.cpp:91] Creating Layer inception_5a/relu_1x1
I0403 21:48:33.634802 12900 net.cpp:425] inception_5a/relu_1x1 <- inception_5a/1x1
I0403 21:48:33.634821 12900 net.cpp:386] inception_5a/relu_1x1 -> inception_5a/1x1 (in-place)
I0403 21:48:33.635119 12900 net.cpp:141] Setting up inception_5a/relu_1x1
I0403 21:48:33.635145 12900 net.cpp:148] Top shape: 24 256 7 7 (301056)
I0403 21:48:33.635160 12900 net.cpp:156] Memory required for data: 1294534176
I0403 21:48:33.635175 12900 layer_factory.hpp:77] Creating layer inception_5a/3x3_reduce
I0403 21:48:33.635197 12900 net.cpp:91] Creating Layer inception_5a/3x3_reduce
I0403 21:48:33.635220 12900 net.cpp:425] inception_5a/3x3_reduce <- pool4/3x3_s2_pool4/3x3_s2_0_split_1
I0403 21:48:33.635241 12900 net.cpp:399] inception_5a/3x3_reduce -> inception_5a/3x3_reduce
I0403 21:48:33.637670 12900 net.cpp:141] Setting up inception_5a/3x3_reduce
I0403 21:48:33.637701 12900 net.cpp:148] Top shape: 24 160 7 7 (188160)
I0403 21:48:33.637718 12900 net.cpp:156] Memory required for data: 1295286816
I0403 21:48:33.637737 12900 layer_factory.hpp:77] Creating layer inception_5a/relu_3x3_reduce
I0403 21:48:33.637754 12900 net.cpp:91] Creating Layer inception_5a/relu_3x3_reduce
I0403 21:48:33.637770 12900 net.cpp:425] inception_5a/relu_3x3_reduce <- inception_5a/3x3_reduce
I0403 21:48:33.637786 12900 net.cpp:386] inception_5a/relu_3x3_reduce -> inception_5a/3x3_reduce (in-place)
I0403 21:48:33.637967 12900 net.cpp:141] Setting up inception_5a/relu_3x3_reduce
I0403 21:48:33.637995 12900 net.cpp:148] Top shape: 24 160 7 7 (188160)
I0403 21:48:33.638011 12900 net.cpp:156] Memory required for data: 1296039456
I0403 21:48:33.638025 12900 layer_factory.hpp:77] Creating layer inception_5a/3x3
I0403 21:48:33.638047 12900 net.cpp:91] Creating Layer inception_5a/3x3
I0403 21:48:33.638064 12900 net.cpp:425] inception_5a/3x3 <- inception_5a/3x3_reduce
I0403 21:48:33.638085 12900 net.cpp:399] inception_5a/3x3 -> inception_5a/3x3
I0403 21:48:33.642961 12900 net.cpp:141] Setting up inception_5a/3x3
I0403 21:48:33.642993 12900 net.cpp:148] Top shape: 24 320 7 7 (376320)
I0403 21:48:33.643013 12900 net.cpp:156] Memory required for data: 1297544736
I0403 21:48:33.643029 12900 layer_factory.hpp:77] Creating layer inception_5a/relu_3x3
I0403 21:48:33.643048 12900 net.cpp:91] Creating Layer inception_5a/relu_3x3
I0403 21:48:33.643064 12900 net.cpp:425] inception_5a/relu_3x3 <- inception_5a/3x3
I0403 21:48:33.643084 12900 net.cpp:386] inception_5a/relu_3x3 -> inception_5a/3x3 (in-place)
I0403 21:48:33.643367 12900 net.cpp:141] Setting up inception_5a/relu_3x3
I0403 21:48:33.643393 12900 net.cpp:148] Top shape: 24 320 7 7 (376320)
I0403 21:48:33.643407 12900 net.cpp:156] Memory required for data: 1299050016
I0403 21:48:33.643421 12900 layer_factory.hpp:77] Creating layer inception_5a/5x5_reduce
I0403 21:48:33.643443 12900 net.cpp:91] Creating Layer inception_5a/5x5_reduce
I0403 21:48:33.643460 12900 net.cpp:425] inception_5a/5x5_reduce <- pool4/3x3_s2_pool4/3x3_s2_0_split_2
I0403 21:48:33.643481 12900 net.cpp:399] inception_5a/5x5_reduce -> inception_5a/5x5_reduce
I0403 21:48:33.644598 12900 net.cpp:141] Setting up inception_5a/5x5_reduce
I0403 21:48:33.644628 12900 net.cpp:148] Top shape: 24 32 7 7 (37632)
I0403 21:48:33.644644 12900 net.cpp:156] Memory required for data: 1299200544
I0403 21:48:33.644662 12900 layer_factory.hpp:77] Creating layer inception_5a/relu_5x5_reduce
I0403 21:48:33.644682 12900 net.cpp:91] Creating Layer inception_5a/relu_5x5_reduce
I0403 21:48:33.644700 12900 net.cpp:425] inception_5a/relu_5x5_reduce <- inception_5a/5x5_reduce
I0403 21:48:33.644716 12900 net.cpp:386] inception_5a/relu_5x5_reduce -> inception_5a/5x5_reduce (in-place)
I0403 21:48:33.645014 12900 net.cpp:141] Setting up inception_5a/relu_5x5_reduce
I0403 21:48:33.645038 12900 net.cpp:148] Top shape: 24 32 7 7 (37632)
I0403 21:48:33.645053 12900 net.cpp:156] Memory required for data: 1299351072
I0403 21:48:33.645067 12900 layer_factory.hpp:77] Creating layer inception_5a/5x5
I0403 21:48:33.645089 12900 net.cpp:91] Creating Layer inception_5a/5x5
I0403 21:48:33.645105 12900 net.cpp:425] inception_5a/5x5 <- inception_5a/5x5_reduce
I0403 21:48:33.645125 12900 net.cpp:399] inception_5a/5x5 -> inception_5a/5x5
I0403 21:48:33.646759 12900 net.cpp:141] Setting up inception_5a/5x5
I0403 21:48:33.646795 12900 net.cpp:148] Top shape: 24 128 7 7 (150528)
I0403 21:48:33.646811 12900 net.cpp:156] Memory required for data: 1299953184
I0403 21:48:33.646828 12900 layer_factory.hpp:77] Creating layer inception_5a/relu_5x5
I0403 21:48:33.646845 12900 net.cpp:91] Creating Layer inception_5a/relu_5x5
I0403 21:48:33.646859 12900 net.cpp:425] inception_5a/relu_5x5 <- inception_5a/5x5
I0403 21:48:33.646881 12900 net.cpp:386] inception_5a/relu_5x5 -> inception_5a/5x5 (in-place)
I0403 21:48:33.647064 12900 net.cpp:141] Setting up inception_5a/relu_5x5
I0403 21:48:33.647089 12900 net.cpp:148] Top shape: 24 128 7 7 (150528)
I0403 21:48:33.647102 12900 net.cpp:156] Memory required for data: 1300555296
I0403 21:48:33.647117 12900 layer_factory.hpp:77] Creating layer inception_5a/pool
I0403 21:48:33.647136 12900 net.cpp:91] Creating Layer inception_5a/pool
I0403 21:48:33.647152 12900 net.cpp:425] inception_5a/pool <- pool4/3x3_s2_pool4/3x3_s2_0_split_3
I0403 21:48:33.647169 12900 net.cpp:399] inception_5a/pool -> inception_5a/pool
I0403 21:48:33.647243 12900 net.cpp:141] Setting up inception_5a/pool
I0403 21:48:33.647265 12900 net.cpp:148] Top shape: 24 832 7 7 (978432)
I0403 21:48:33.647279 12900 net.cpp:156] Memory required for data: 1304469024
I0403 21:48:33.647294 12900 layer_factory.hpp:77] Creating layer inception_5a/pool_proj
I0403 21:48:33.647315 12900 net.cpp:91] Creating Layer inception_5a/pool_proj
I0403 21:48:33.647332 12900 net.cpp:425] inception_5a/pool_proj <- inception_5a/pool
I0403 21:48:33.647351 12900 net.cpp:399] inception_5a/pool_proj -> inception_5a/pool_proj
I0403 21:48:33.649554 12900 net.cpp:141] Setting up inception_5a/pool_proj
I0403 21:48:33.649585 12900 net.cpp:148] Top shape: 24 128 7 7 (150528)
I0403 21:48:33.649601 12900 net.cpp:156] Memory required for data: 1305071136
I0403 21:48:33.649619 12900 layer_factory.hpp:77] Creating layer inception_5a/relu_pool_proj
I0403 21:48:33.649636 12900 net.cpp:91] Creating Layer inception_5a/relu_pool_proj
I0403 21:48:33.649652 12900 net.cpp:425] inception_5a/relu_pool_proj <- inception_5a/pool_proj
I0403 21:48:33.649670 12900 net.cpp:386] inception_5a/relu_pool_proj -> inception_5a/pool_proj (in-place)
I0403 21:48:33.649950 12900 net.cpp:141] Setting up inception_5a/relu_pool_proj
I0403 21:48:33.649978 12900 net.cpp:148] Top shape: 24 128 7 7 (150528)
I0403 21:48:33.649993 12900 net.cpp:156] Memory required for data: 1305673248
I0403 21:48:33.650007 12900 layer_factory.hpp:77] Creating layer inception_5a/output
I0403 21:48:33.650023 12900 net.cpp:91] Creating Layer inception_5a/output
I0403 21:48:33.650038 12900 net.cpp:425] inception_5a/output <- inception_5a/1x1
I0403 21:48:33.650054 12900 net.cpp:425] inception_5a/output <- inception_5a/3x3
I0403 21:48:33.650069 12900 net.cpp:425] inception_5a/output <- inception_5a/5x5
I0403 21:48:33.650084 12900 net.cpp:425] inception_5a/output <- inception_5a/pool_proj
I0403 21:48:33.650102 12900 net.cpp:399] inception_5a/output -> inception_5a/output
I0403 21:48:33.650151 12900 net.cpp:141] Setting up inception_5a/output
I0403 21:48:33.650172 12900 net.cpp:148] Top shape: 24 832 7 7 (978432)
I0403 21:48:33.650187 12900 net.cpp:156] Memory required for data: 1309586976
I0403 21:48:33.650200 12900 layer_factory.hpp:77] Creating layer inception_5a/output_inception_5a/output_0_split
I0403 21:48:33.650225 12900 net.cpp:91] Creating Layer inception_5a/output_inception_5a/output_0_split
I0403 21:48:33.650243 12900 net.cpp:425] inception_5a/output_inception_5a/output_0_split <- inception_5a/output
I0403 21:48:33.650259 12900 net.cpp:399] inception_5a/output_inception_5a/output_0_split -> inception_5a/output_inception_5a/output_0_split_0
I0403 21:48:33.650279 12900 net.cpp:399] inception_5a/output_inception_5a/output_0_split -> inception_5a/output_inception_5a/output_0_split_1
I0403 21:48:33.650297 12900 net.cpp:399] inception_5a/output_inception_5a/output_0_split -> inception_5a/output_inception_5a/output_0_split_2
I0403 21:48:33.650333 12900 net.cpp:399] inception_5a/output_inception_5a/output_0_split -> inception_5a/output_inception_5a/output_0_split_3
I0403 21:48:33.650441 12900 net.cpp:141] Setting up inception_5a/output_inception_5a/output_0_split
I0403 21:48:33.650465 12900 net.cpp:148] Top shape: 24 832 7 7 (978432)
I0403 21:48:33.650481 12900 net.cpp:148] Top shape: 24 832 7 7 (978432)
I0403 21:48:33.650497 12900 net.cpp:148] Top shape: 24 832 7 7 (978432)
I0403 21:48:33.650512 12900 net.cpp:148] Top shape: 24 832 7 7 (978432)
I0403 21:48:33.650526 12900 net.cpp:156] Memory required for data: 1325241888
I0403 21:48:33.650539 12900 layer_factory.hpp:77] Creating layer inception_5b/1x1
I0403 21:48:33.650560 12900 net.cpp:91] Creating Layer inception_5b/1x1
I0403 21:48:33.650576 12900 net.cpp:425] inception_5b/1x1 <- inception_5a/output_inception_5a/output_0_split_0
I0403 21:48:33.650598 12900 net.cpp:399] inception_5b/1x1 -> inception_5b/1x1
I0403 21:48:33.654196 12900 net.cpp:141] Setting up inception_5b/1x1
I0403 21:48:33.654233 12900 net.cpp:148] Top shape: 24 384 7 7 (451584)
I0403 21:48:33.654250 12900 net.cpp:156] Memory required for data: 1327048224
I0403 21:48:33.654268 12900 layer_factory.hpp:77] Creating layer inception_5b/relu_1x1
I0403 21:48:33.654284 12900 net.cpp:91] Creating Layer inception_5b/relu_1x1
I0403 21:48:33.654299 12900 net.cpp:425] inception_5b/relu_1x1 <- inception_5b/1x1
I0403 21:48:33.654315 12900 net.cpp:386] inception_5b/relu_1x1 -> inception_5b/1x1 (in-place)
I0403 21:48:33.654608 12900 net.cpp:141] Setting up inception_5b/relu_1x1
I0403 21:48:33.654635 12900 net.cpp:148] Top shape: 24 384 7 7 (451584)
I0403 21:48:33.654651 12900 net.cpp:156] Memory required for data: 1328854560
I0403 21:48:33.654665 12900 layer_factory.hpp:77] Creating layer inception_5b/3x3_reduce
I0403 21:48:33.654686 12900 net.cpp:91] Creating Layer inception_5b/3x3_reduce
I0403 21:48:33.654703 12900 net.cpp:425] inception_5b/3x3_reduce <- inception_5a/output_inception_5a/output_0_split_1
I0403 21:48:33.654721 12900 net.cpp:399] inception_5b/3x3_reduce -> inception_5b/3x3_reduce
I0403 21:48:33.657287 12900 net.cpp:141] Setting up inception_5b/3x3_reduce
I0403 21:48:33.657317 12900 net.cpp:148] Top shape: 24 192 7 7 (225792)
I0403 21:48:33.657335 12900 net.cpp:156] Memory required for data: 1329757728
I0403 21:48:33.657351 12900 layer_factory.hpp:77] Creating layer inception_5b/relu_3x3_reduce
I0403 21:48:33.657369 12900 net.cpp:91] Creating Layer inception_5b/relu_3x3_reduce
I0403 21:48:33.657384 12900 net.cpp:425] inception_5b/relu_3x3_reduce <- inception_5b/3x3_reduce
I0403 21:48:33.657403 12900 net.cpp:386] inception_5b/relu_3x3_reduce -> inception_5b/3x3_reduce (in-place)
I0403 21:48:33.657583 12900 net.cpp:141] Setting up inception_5b/relu_3x3_reduce
I0403 21:48:33.657608 12900 net.cpp:148] Top shape: 24 192 7 7 (225792)
I0403 21:48:33.657623 12900 net.cpp:156] Memory required for data: 1330660896
I0403 21:48:33.657636 12900 layer_factory.hpp:77] Creating layer inception_5b/3x3
I0403 21:48:33.657657 12900 net.cpp:91] Creating Layer inception_5b/3x3
I0403 21:48:33.657675 12900 net.cpp:425] inception_5b/3x3 <- inception_5b/3x3_reduce
I0403 21:48:33.657696 12900 net.cpp:399] inception_5b/3x3 -> inception_5b/3x3
I0403 21:48:33.664199 12900 net.cpp:141] Setting up inception_5b/3x3
I0403 21:48:33.664245 12900 net.cpp:148] Top shape: 24 384 7 7 (451584)
I0403 21:48:33.664263 12900 net.cpp:156] Memory required for data: 1332467232
I0403 21:48:33.664280 12900 layer_factory.hpp:77] Creating layer inception_5b/relu_3x3
I0403 21:48:33.664297 12900 net.cpp:91] Creating Layer inception_5b/relu_3x3
I0403 21:48:33.664314 12900 net.cpp:425] inception_5b/relu_3x3 <- inception_5b/3x3
I0403 21:48:33.664333 12900 net.cpp:386] inception_5b/relu_3x3 -> inception_5b/3x3 (in-place)
I0403 21:48:33.664636 12900 net.cpp:141] Setting up inception_5b/relu_3x3
I0403 21:48:33.664664 12900 net.cpp:148] Top shape: 24 384 7 7 (451584)
I0403 21:48:33.664680 12900 net.cpp:156] Memory required for data: 1334273568
I0403 21:48:33.664695 12900 layer_factory.hpp:77] Creating layer inception_5b/5x5_reduce
I0403 21:48:33.664733 12900 net.cpp:91] Creating Layer inception_5b/5x5_reduce
I0403 21:48:33.664752 12900 net.cpp:425] inception_5b/5x5_reduce <- inception_5a/output_inception_5a/output_0_split_2
I0403 21:48:33.664770 12900 net.cpp:399] inception_5b/5x5_reduce -> inception_5b/5x5_reduce
I0403 21:48:33.665987 12900 net.cpp:141] Setting up inception_5b/5x5_reduce
I0403 21:48:33.666019 12900 net.cpp:148] Top shape: 24 48 7 7 (56448)
I0403 21:48:33.666035 12900 net.cpp:156] Memory required for data: 1334499360
I0403 21:48:33.666054 12900 layer_factory.hpp:77] Creating layer inception_5b/relu_5x5_reduce
I0403 21:48:33.666070 12900 net.cpp:91] Creating Layer inception_5b/relu_5x5_reduce
I0403 21:48:33.666086 12900 net.cpp:425] inception_5b/relu_5x5_reduce <- inception_5b/5x5_reduce
I0403 21:48:33.666102 12900 net.cpp:386] inception_5b/relu_5x5_reduce -> inception_5b/5x5_reduce (in-place)
I0403 21:48:33.666471 12900 net.cpp:141] Setting up inception_5b/relu_5x5_reduce
I0403 21:48:33.666496 12900 net.cpp:148] Top shape: 24 48 7 7 (56448)
I0403 21:48:33.666512 12900 net.cpp:156] Memory required for data: 1334725152
I0403 21:48:33.666527 12900 layer_factory.hpp:77] Creating layer inception_5b/5x5
I0403 21:48:33.666545 12900 net.cpp:91] Creating Layer inception_5b/5x5
I0403 21:48:33.666561 12900 net.cpp:425] inception_5b/5x5 <- inception_5b/5x5_reduce
I0403 21:48:33.666579 12900 net.cpp:399] inception_5b/5x5 -> inception_5b/5x5
I0403 21:48:33.668525 12900 net.cpp:141] Setting up inception_5b/5x5
I0403 21:48:33.668552 12900 net.cpp:148] Top shape: 24 128 7 7 (150528)
I0403 21:48:33.668568 12900 net.cpp:156] Memory required for data: 1335327264
I0403 21:48:33.668586 12900 layer_factory.hpp:77] Creating layer inception_5b/relu_5x5
I0403 21:48:33.668602 12900 net.cpp:91] Creating Layer inception_5b/relu_5x5
I0403 21:48:33.668617 12900 net.cpp:425] inception_5b/relu_5x5 <- inception_5b/5x5
I0403 21:48:33.668640 12900 net.cpp:386] inception_5b/relu_5x5 -> inception_5b/5x5 (in-place)
I0403 21:48:33.668828 12900 net.cpp:141] Setting up inception_5b/relu_5x5
I0403 21:48:33.668851 12900 net.cpp:148] Top shape: 24 128 7 7 (150528)
I0403 21:48:33.668865 12900 net.cpp:156] Memory required for data: 1335929376
I0403 21:48:33.668879 12900 layer_factory.hpp:77] Creating layer inception_5b/pool
I0403 21:48:33.668898 12900 net.cpp:91] Creating Layer inception_5b/pool
I0403 21:48:33.668915 12900 net.cpp:425] inception_5b/pool <- inception_5a/output_inception_5a/output_0_split_3
I0403 21:48:33.668932 12900 net.cpp:399] inception_5b/pool -> inception_5b/pool
I0403 21:48:33.669004 12900 net.cpp:141] Setting up inception_5b/pool
I0403 21:48:33.669028 12900 net.cpp:148] Top shape: 24 832 7 7 (978432)
I0403 21:48:33.669040 12900 net.cpp:156] Memory required for data: 1339843104
I0403 21:48:33.669055 12900 layer_factory.hpp:77] Creating layer inception_5b/pool_proj
I0403 21:48:33.669076 12900 net.cpp:91] Creating Layer inception_5b/pool_proj
I0403 21:48:33.669093 12900 net.cpp:425] inception_5b/pool_proj <- inception_5b/pool
I0403 21:48:33.669114 12900 net.cpp:399] inception_5b/pool_proj -> inception_5b/pool_proj
I0403 21:48:33.671360 12900 net.cpp:141] Setting up inception_5b/pool_proj
I0403 21:48:33.671391 12900 net.cpp:148] Top shape: 24 128 7 7 (150528)
I0403 21:48:33.671407 12900 net.cpp:156] Memory required for data: 1340445216
I0403 21:48:33.671424 12900 layer_factory.hpp:77] Creating layer inception_5b/relu_pool_proj
I0403 21:48:33.671442 12900 net.cpp:91] Creating Layer inception_5b/relu_pool_proj
I0403 21:48:33.671458 12900 net.cpp:425] inception_5b/relu_pool_proj <- inception_5b/pool_proj
I0403 21:48:33.671476 12900 net.cpp:386] inception_5b/relu_pool_proj -> inception_5b/pool_proj (in-place)
I0403 21:48:33.671759 12900 net.cpp:141] Setting up inception_5b/relu_pool_proj
I0403 21:48:33.671792 12900 net.cpp:148] Top shape: 24 128 7 7 (150528)
I0403 21:48:33.671807 12900 net.cpp:156] Memory required for data: 1341047328
I0403 21:48:33.671820 12900 layer_factory.hpp:77] Creating layer inception_5b/output
I0403 21:48:33.671838 12900 net.cpp:91] Creating Layer inception_5b/output
I0403 21:48:33.671869 12900 net.cpp:425] inception_5b/output <- inception_5b/1x1
I0403 21:48:33.671885 12900 net.cpp:425] inception_5b/output <- inception_5b/3x3
I0403 21:48:33.671900 12900 net.cpp:425] inception_5b/output <- inception_5b/5x5
I0403 21:48:33.671916 12900 net.cpp:425] inception_5b/output <- inception_5b/pool_proj
I0403 21:48:33.671933 12900 net.cpp:399] inception_5b/output -> inception_5b/output
I0403 21:48:33.671984 12900 net.cpp:141] Setting up inception_5b/output
I0403 21:48:33.672008 12900 net.cpp:148] Top shape: 24 1024 7 7 (1204224)
I0403 21:48:33.672022 12900 net.cpp:156] Memory required for data: 1345864224
I0403 21:48:33.672036 12900 layer_factory.hpp:77] Creating layer pool5/7x7_s1
I0403 21:48:33.672055 12900 net.cpp:91] Creating Layer pool5/7x7_s1
I0403 21:48:33.672071 12900 net.cpp:425] pool5/7x7_s1 <- inception_5b/output
I0403 21:48:33.672089 12900 net.cpp:399] pool5/7x7_s1 -> pool5/7x7_s1
I0403 21:48:33.672312 12900 net.cpp:141] Setting up pool5/7x7_s1
I0403 21:48:33.672338 12900 net.cpp:148] Top shape: 24 1024 1 1 (24576)
I0403 21:48:33.672353 12900 net.cpp:156] Memory required for data: 1345962528
I0403 21:48:33.672366 12900 layer_factory.hpp:77] Creating layer pool5/drop_7x7_s1
I0403 21:48:33.672384 12900 net.cpp:91] Creating Layer pool5/drop_7x7_s1
I0403 21:48:33.672399 12900 net.cpp:425] pool5/drop_7x7_s1 <- pool5/7x7_s1
I0403 21:48:33.672418 12900 net.cpp:386] pool5/drop_7x7_s1 -> pool5/7x7_s1 (in-place)
I0403 21:48:33.672466 12900 net.cpp:141] Setting up pool5/drop_7x7_s1
I0403 21:48:33.672490 12900 net.cpp:148] Top shape: 24 1024 1 1 (24576)
I0403 21:48:33.672505 12900 net.cpp:156] Memory required for data: 1346060832
I0403 21:48:33.672520 12900 layer_factory.hpp:77] Creating layer loss3/classifier_plantvillage
I0403 21:48:33.672538 12900 net.cpp:91] Creating Layer loss3/classifier_plantvillage
I0403 21:48:33.672554 12900 net.cpp:425] loss3/classifier_plantvillage <- pool5/7x7_s1
I0403 21:48:33.672574 12900 net.cpp:399] loss3/classifier_plantvillage -> loss3/classifier_plantvillage
I0403 21:48:33.672976 12900 net.cpp:141] Setting up loss3/classifier_plantvillage
I0403 21:48:33.673001 12900 net.cpp:148] Top shape: 24 38 (912)
I0403 21:48:33.673014 12900 net.cpp:156] Memory required for data: 1346064480
I0403 21:48:33.673032 12900 layer_factory.hpp:77] Creating layer loss3/classifier_plantvillage_loss3/classifier_plantvillage_0_split
I0403 21:48:33.673051 12900 net.cpp:91] Creating Layer loss3/classifier_plantvillage_loss3/classifier_plantvillage_0_split
I0403 21:48:33.673069 12900 net.cpp:425] loss3/classifier_plantvillage_loss3/classifier_plantvillage_0_split <- loss3/classifier_plantvillage
I0403 21:48:33.673086 12900 net.cpp:399] loss3/classifier_plantvillage_loss3/classifier_plantvillage_0_split -> loss3/classifier_plantvillage_loss3/classifier_plantvillage_0_split_0
I0403 21:48:33.673105 12900 net.cpp:399] loss3/classifier_plantvillage_loss3/classifier_plantvillage_0_split -> loss3/classifier_plantvillage_loss3/classifier_plantvillage_0_split_1
I0403 21:48:33.673126 12900 net.cpp:399] loss3/classifier_plantvillage_loss3/classifier_plantvillage_0_split -> loss3/classifier_plantvillage_loss3/classifier_plantvillage_0_split_2
I0403 21:48:33.673147 12900 net.cpp:399] loss3/classifier_plantvillage_loss3/classifier_plantvillage_0_split -> loss3/classifier_plantvillage_loss3/classifier_plantvillage_0_split_3
I0403 21:48:33.673250 12900 net.cpp:141] Setting up loss3/classifier_plantvillage_loss3/classifier_plantvillage_0_split
I0403 21:48:33.673274 12900 net.cpp:148] Top shape: 24 38 (912)
I0403 21:48:33.673290 12900 net.cpp:148] Top shape: 24 38 (912)
I0403 21:48:33.673305 12900 net.cpp:148] Top shape: 24 38 (912)
I0403 21:48:33.673319 12900 net.cpp:148] Top shape: 24 38 (912)
I0403 21:48:33.673332 12900 net.cpp:156] Memory required for data: 1346079072
I0403 21:48:33.673346 12900 layer_factory.hpp:77] Creating layer loss1/loss
I0403 21:48:33.673369 12900 net.cpp:91] Creating Layer loss1/loss
I0403 21:48:33.673387 12900 net.cpp:425] loss1/loss <- loss1/classifier_plantvillage_loss1/classifier_plantvillage_0_split_0
I0403 21:48:33.673415 12900 net.cpp:425] loss1/loss <- label_data_1_split_0
…
