…
I0403 21:54:15.944243 13231 net.cpp:313] The NetState phase (1) differed from the phase (0) specified by a rule in layer data
I0403 21:54:15.945677 13231 net.cpp:49] Initializing net from parameters: 
state {
  phase: TEST
}
layer {
  name: "data"
  type: "Data"
  top: "data"
  top: "label"
  include {
    phase: TEST
  }
  transform_param {
    mirror: false
    crop_size: 224
    mean_file: "/home/mohanty/data/final_dataset/lmdb/color-80-20/mean.binaryproto"
  }
  data_param {
    source: "/home/mohanty/data/final_dataset/lmdb/color-80-20/test_db"
    batch_size: 24
    backend: LMDB
  }
}
layer {
  name: "conv1/7x7_s2"
  type: "Convolution"
  bottom: "data"
  top: "conv1/7x7_s2"
  param {
    lr_mult: 1
    decay_mult: 1
  }
  param {
    lr_mult: 2
    decay_mult: 0
  }
  convolution_param {
    num_output: 64
    pad: 3
    kernel_size: 7
    stride: 2
    weight_filler {
      type: "xavier"
      std: 0.1
    }
    bias_filler {
      type: "constant"
      value: 0.2
    }
  }
}
layer {
  name: "conv1/relu_7x7"
  type: "ReLU"
  bottom: "conv1/7x7_s2"
  top: "conv1/7x7_s2"
}
layer {
  name: "pool1/3x3_s2"
  type: "Pooling"
  bottom: "conv1/7x7_s2"
  top: "pool1/3x3_s2"
  pooling_param {
    pool: MAX
    kernel_size: 3
    stride: 2
  }
}
layer {
  name: "pool1/norm1"
  type: "LRN"
  bottom: "pool1/3x3_s2"
  top: "pool1/norm1"
  lrn_param {
    local_size: 5
    alpha: 0.0001
    beta: 0.75
  }
}
layer {
  name: "conv2/3x3_reduce"
  type: "Convolution"
  bottom: "pool1/norm1"
  top: "conv2/3x3_reduce"
  param {
    lr_mult: 1
    decay_mult: 1
  }
  param {
    lr_mult: 2
    decay_mult: 0
  }
  convolution_param {
    num_output: 64
    kernel_size: 1
    weight_filler {
      type: "xavier"
      std: 0.1
    }
    bias_filler {
      type: "constant"
      value: 0.2
    }
  }
}
layer {
  name: "conv2/relu_3x3_reduce"
  type: "ReLU"
  bottom: "conv2/3x3_reduce"
  top: "conv2/3x3_reduce"
}
layer {
  name: "conv2/3x3"
  type: "Convolution"
  bottom: "conv2/3x3_reduce"
  top: "conv2/3x3"
  param {
    lr_mult: 1
    decay_mult: 1
  }
  param {
    lr_mult: 2
    decay_mult: 0
  }
  convolution_param {
    num_output: 192
    pad: 1
    kernel_size: 3
    weight_filler {
      type: "xavier"
      std: 0.03
    }
    bias_filler {
      type: "constant"
      value: 0.2
    }
  }
}
layer {
  name: "conv2/relu_3x3"
  type: "ReLU"
  bottom: "conv2/3x3"
  top: "conv2/3x3"
}
layer {
  name: "conv2/norm2"
  type: "LRN"
  bottom: "conv2/3x3"
  top: "conv2/norm2"
  lrn_param {
    local_size: 5
    alpha: 0.0001
    beta: 0.75
  }
}
layer {
  name: "pool2/3x3_s2"
  type: "Pooling"
  bottom: "conv2/norm2"
  top: "pool2/3x3_s2"
  pooling_param {
    pool: MAX
    kernel_size: 3
    stride: 2
  }
}
layer {
  name: "inception_3a/1x1"
  type: "Convolution"
  bottom: "pool2/3x3_s2"
  top: "inception_3a/1x1"
  param {
    lr_mult: 1
    decay_mult: 1
  }
  param {
    lr_mult: 2
    decay_mult: 0
  }
  convolution_param {
    num_output: 64
    kernel_size: 1
    weight_filler {
      type: "xavier"
      std: 0.03
    }
    bias_filler {
      type: "constant"
      value: 0.2
    }
  }
}
layer {
  name: "inception_3a/relu_1x1"
  type: "ReLU"
  bottom: "inception_3a/1x1"
  top: "inception_3a/1x1"
}
layer {
  name: "inception_3a/3x3_reduce"
  type: "Convolution"
  bottom: "pool2/3x3_s2"
  top: "inception_3a/3x3_reduce"
  param {
    lr_mult: 1
    decay_mult: 1
  }
  param {
    lr_mult: 2
    decay_mult: 0
  }
  convolution_param {
    num_output: 96
    kernel_size: 1
    weight_filler {
      type: "xavier"
      std: 0.09
    }
    bias_filler {
      type: "constant"
      value: 0.2
    }
  }
}
layer {
  name: "inception_3a/relu_3x3_reduce"
  type: "ReLU"
  bottom: "inception_3a/3x3_reduce"
  top: "inception_3a/3x3_reduce"
}
layer {
  name: "inception_3a/3x3"
  type: "Convolution"
  bottom: "inception_3a/3x3_reduce"
  top: "inception_3a/3x3"
  param {
    lr_mult: 1
    decay_mult: 1
  }
  param {
    lr_mult: 2
    decay_mult: 0
  }
  convolution_param {
    num_output: 128
    pad: 1
    kernel_size: 3
    weight_filler {
      type: "xavier"
      std: 0.03
    }
    bias_filler {
      type: "constant"
      value: 0.2
    }
  }
}
layer {
  name: "inception_3a/relu_3x3"
  type: "ReLU"
  bottom: "inception_3a/3x3"
  top: "inception_3a/3x3"
}
layer {
  name: "inception_3a/5x5_reduce"
  type: "Convolution"
  bottom: "pool2/3x3_s2"
  top: "inception_3a/5x5_reduce"
  param {
    lr_mult: 1
    decay_mult: 1
  }
  param {
    lr_mult: 2
    decay_mult: 0
  }
  convolution_param {
    num_output: 16
    kernel_size: 1
    weight_filler {
      type: "xavier"
      std: 0.2
    }
    bias_filler {
      type: "constant"
      value: 0.2
    }
  }
}
layer {
  name: "inception_3a/relu_5x5_reduce"
  type: "ReLU"
  bottom: "inception_3a/5x5_reduce"
  top: "inception_3a/5x5_reduce"
}
layer {
  name: "inception_3a/5x5"
  type: "Convolution"
  bottom: "inception_3a/5x5_reduce"
  top: "inception_3a/5x5"
  param {
    lr_mult: 1
    decay_mult: 1
  }
  param {
    lr_mult: 2
    decay_mult: 0
  }
  convolution_param {
    num_output: 32
    pad: 2
    kernel_size: 5
    weight_filler {
      type: "xavier"
      std: 0.03
    }
    bias_filler {
      type: "constant"
      value: 0.2
    }
  }
}
layer {
  name: "inception_3a/relu_5x5"
  type: "ReLU"
  bottom: "inception_3a/5x5"
  top: "inception_3a/5x5"
}
layer {
  name: "inception_3a/pool"
  type: "Pooling"
  bottom: "pool2/3x3_s2"
  top: "inception_3a/pool"
  pooling_param {
    pool: MAX
    kernel_size: 3
    stride: 1
    pad: 1
  }
}
layer {
  name: "inception_3a/pool_proj"
  type: "Convolution"
  bottom: "inception_3a/pool"
  top: "inception_3a/pool_proj"
  param {
    lr_mult: 1
    decay_mult: 1
  }
  param {
    lr_mult: 2
    decay_mult: 0
  }
  convolution_param {
    num_output: 32
    kernel_size: 1
    weight_filler {
      type: "xavier"
      std: 0.1
    }
    bias_filler {
      type: "constant"
      value: 0.2
    }
  }
}
layer {
  name: "inception_3a/relu_pool_proj"
  type: "ReLU"
  bottom: "inception_3a/pool_proj"
  top: "inception_3a/pool_proj"
}
layer {
  name: "inception_3a/output"
  type: "Concat"
  bottom: "inception_3a/1x1"
  bottom: "inception_3a/3x3"
  bottom: "inception_3a/5x5"
  bottom: "inception_3a/pool_proj"
  top: "inception_3a/output"
}
layer {
  name: "inception_3b/1x1"
  type: "Convolution"
  bottom: "inception_3a/output"
  top: "inception_3b/1x1"
  param {
    lr_mult: 1
    decay_mult: 1
  }
  param {
    lr_mult: 2
    decay_mult: 0
  }
  convolution_param {
    num_output: 128
    kernel_size: 1
    weight_filler {
      type: "xavier"
      std: 0.03
    }
    bias_filler {
      type: "constant"
      value: 0.2
    }
  }
}
layer {
  name: "inception_3b/relu_1x1"
  type: "ReLU"
  bottom: "inception_3b/1x1"
  top: "inception_3b/1x1"
}
layer {
  name: "inception_3b/3x3_reduce"
  type: "Convolution"
  bottom: "inception_3a/output"
  top: "inception_3b/3x3_reduce"
  param {
    lr_mult: 1
    decay_mult: 1
  }
  param {
    lr_mult: 2
    decay_mult: 0
  }
  convolution_param {
    num_output: 128
    kernel_size: 1
    weight_filler {
      type: "xavier"
      std: 0.09
    }
    bias_filler {
      type: "constant"
      value: 0.2
    }
  }
}
layer {
  name: "inception_3b/relu_3x3_reduce"
  type: "ReLU"
  bottom: "inception_3b/3x3_reduce"
  top: "inception_3b/3x3_reduce"
}
layer {
  name: "inception_3b/3x3"
  type: "Convolution"
  bottom: "inception_3b/3x3_reduce"
  top: "inception_3b/3x3"
  param {
    lr_mult: 1
    decay_mult: 1
  }
  param {
    lr_mult: 2
    decay_mult: 0
  }
  convolution_param {
    num_output: 192
    pad: 1
    kernel_size: 3
    weight_filler {
      type: "xavier"
      std: 0.03
    }
    bias_filler {
      type: "constant"
      value: 0.2
    }
  }
}
layer {
  name: "inception_3b/relu_3x3"
  type: "ReLU"
  bottom: "inception_3b/3x3"
  top: "inception_3b/3x3"
}
layer {
  name: "inception_3b/5x5_reduce"
  type: "Convolution"
  bottom: "inception_3a/output"
  top: "inception_3b/5x5_reduce"
  param {
    lr_mult: 1
    decay_mult: 1
  }
  param {
    lr_mult: 2
    decay_mult: 0
  }
  convolution_param {
    num_output: 32
    kernel_size: 1
    weight_filler {
      type: "xavier"
      std: 0.2
    }
    bias_filler {
      type: "constant"
      value: 0.2
    }
  }
}
layer {
  name: "inception_3b/relu_5x5_reduce"
  type: "ReLU"
  bottom: "inception_3b/5x5_reduce"
  top: "inception_3b/5x5_reduce"
}
layer {
  name: "inception_3b/5x5"
  type: "Convolution"
  bottom: "inception_3b/5x5_reduce"
  top: "inception_3b/5x5"
  param {
    lr_mult: 1
    decay_mult: 1
  }
  param {
    lr_mult: 2
    decay_mult: 0
  }
  convolution_param {
    num_output: 96
    pad: 2
    kernel_size: 5
    weight_filler {
      type: "xavier"
      std: 0.03
    }
    bias_filler {
      type: "constant"
      value: 0.2
    }
  }
}
layer {
  name: "inception_3b/relu_5x5"
  type: "ReLU"
  bottom: "inception_3b/5x5"
  top: "inception_3b/5x5"
}
layer {
  name: "inception_3b/pool"
  type: "Pooling"
  bottom: "inception_3a/output"
  top: "inception_3b/pool"
  pooling_param {
    pool: MAX
    kernel_size: 3
    stride: 1
    pad: 1
  }
}
layer {
  name: "inception_3b/pool_proj"
  type: "Convolution"
  bottom: "inception_3b/pool"
  top: "inception_3b/pool_proj"
  param {
    lr_mult: 1
    decay_mult: 1
  }
  param {
    lr_mult: 2
    decay_mult: 0
  }
  convolution_param {
    num_output: 64
    kernel_size: 1
    weight_filler {
      type: "xavier"
      std: 0.1
    }
    bias_filler {
      type: "constant"
      value: 0.2
    }
  }
}
layer {
  name: "inception_3b/relu_pool_proj"
  type: "ReLU"
  bottom: "inception_3b/pool_proj"
  top: "inception_3b/pool_proj"
}
layer {
  name: "inception_3b/output"
  type: "Concat"
  bottom: "inception_3b/1x1"
  bottom: "inception_3b/3x3"
  bottom: "inception_3b/5x5"
  bottom: "inception_3b/pool_proj"
  top: "inception_3b/output"
}
layer {
  name: "pool3/3x3_s2"
  type: "Pooling"
  bottom: "inception_3b/output"
  top: "pool3/3x3_s2"
  pooling_param {
    pool: MAX
    kernel_size: 3
    stride: 2
  }
}
layer {
  name: "inception_4a/1x1"
  type: "Convolution"
  bottom: "pool3/3x3_s2"
  top: "inception_4a/1x1"
  param {
    lr_mult: 1
    decay_mult: 1
  }
  param {
    lr_mult: 2
    decay_mult: 0
  }
  convolution_param {
    num_output: 192
    kernel_size: 1
    weight_filler {
      type: "xavier"
      std: 0.03
    }
    bias_filler {
      type: "constant"
      value: 0.2
    }
  }
}
layer {
  name: "inception_4a/relu_1x1"
  type: "ReLU"
  bottom: "inception_4a/1x1"
  top: "inception_4a/1x1"
}
layer {
  name: "inception_4a/3x3_reduce"
  type: "Convolution"
  bottom: "pool3/3x3_s2"
  top: "inception_4a/3x3_reduce"
  param {
    lr_mult: 1
    decay_mult: 1
  }
  param {
    lr_mult: 2
    decay_mult: 0
  }
  convolution_param {
    num_output: 96
    kernel_size: 1
    weight_filler {
      type: "xavier"
      std: 0.09
    }
    bias_filler {
      type: "constant"
      value: 0.2
    }
  }
}
layer {
  name: "inception_4a/relu_3x3_reduce"
  type: "ReLU"
  bottom: "inception_4a/3x3_reduce"
  top: "inception_4a/3x3_reduce"
}
layer {
  name: "inception_4a/3x3"
  type: "Convolution"
  bottom: "inception_4a/3x3_reduce"
  top: "inception_4a/3x3"
  param {
    lr_mult: 1
    decay_mult: 1
  }
  param {
    lr_mult: 2
    decay_mult: 0
  }
  convolution_param {
    num_output: 208
    pad: 1
    kernel_size: 3
    weight_filler {
      type: "xavier"
      std: 0.03
    }
    bias_filler {
      type: "constant"
      value: 0.2
    }
  }
}
layer {
  name: "inception_4a/relu_3x3"
  type: "ReLU"
  bottom: "inception_4a/3x3"
  top: "inception_4a/3x3"
}
layer {
  name: "inception_4a/5x5_reduce"
  type: "Convolution"
  bottom: "pool3/3x3_s2"
  top: "inception_4a/5x5_reduce"
  param {
    lr_mult: 1
    decay_mult: 1
  }
  param {
    lr_mult: 2
    decay_mult: 0
  }
  convolution_param {
    num_output: 16
    kernel_size: 1
    weight_filler {
      type: "xavier"
      std: 0.2
    }
    bias_filler {
      type: "constant"
      value: 0.2
    }
  }
}
layer {
  name: "inception_4a/relu_5x5_reduce"
  type: "ReLU"
  bottom: "inception_4a/5x5_reduce"
  top: "inception_4a/5x5_reduce"
}
layer {
  name: "inception_4a/5x5"
  type: "Convolution"
  bottom: "inception_4a/5x5_reduce"
  top: "inception_4a/5x5"
  param {
    lr_mult: 1
    decay_mult: 1
  }
  param {
    lr_mult: 2
    decay_mult: 0
  }
  convolution_param {
    num_output: 48
    pad: 2
    kernel_size: 5
    weight_filler {
      type: "xavier"
      std: 0.03
    }
    bias_filler {
      type: "constant"
      value: 0.2
    }
  }
}
layer {
  name: "inception_4a/relu_5x5"
  type: "ReLU"
  bottom: "inception_4a/5x5"
  top: "inception_4a/5x5"
}
layer {
  name: "inception_4a/pool"
  type: "Pooling"
  bottom: "pool3/3x3_s2"
  top: "inception_4a/pool"
  pooling_param {
    pool: MAX
    kernel_size: 3
    stride: 1
    pad: 1
  }
}
layer {
  name: "inception_4a/pool_proj"
  type: "Convolution"
  bottom: "inception_4a/pool"
  top: "inception_4a/pool_proj"
  param {
    lr_mult: 1
    decay_mult: 1
  }
  param {
    lr_mult: 2
    decay_mult: 0
  }
  convolution_param {
    num_output: 64
    kernel_size: 1
    weight_filler {
      type: "xavier"
      std: 0.1
    }
    bias_filler {
      type: "constant"
      value: 0.2
    }
  }
}
layer {
  name: "inception_4a/relu_pool_proj"
  type: "ReLU"
  bottom: "inception_4a/pool_proj"
  top: "inception_4a/pool_proj"
}
layer {
  name: "inception_4a/output"
  type: "Concat"
  bottom: "inception_4a/1x1"
  bottom: "inception_4a/3x3"
  bottom: "inception_4a/5x5"
  bottom: "inception_4a/pool_proj"
  top: "inception_4a/output"
}
layer {
  name: "loss1/ave_pool"
  type: "Pooling"
  bottom: "inception_4a/output"
  top: "loss1/ave_pool"
  pooling_param {
    pool: AVE
    kernel_size: 5
    stride: 3
  }
}
layer {
  name: "loss1/conv"
  type: "Convolution"
  bottom: "loss1/ave_pool"
  top: "loss1/conv"
  param {
    lr_mult: 1
    decay_mult: 1
  }
  param {
    lr_mult: 2
    decay_mult: 0
  }
  convolution_param {
    num_output: 128
    kernel_size: 1
    weight_filler {
      type: "xavier"
      std: 0.08
    }
    bias_filler {
      type: "constant"
      value: 0.2
    }
  }
}
layer {
  name: "loss1/relu_conv"
  type: "ReLU"
  bottom: "loss1/conv"
  top: "loss1/conv"
}
layer {
  name: "loss1/fc"
  type: "InnerProduct"
  bottom: "loss1/conv"
  top: "loss1/fc"
  param {
    lr_mult: 1
    decay_mult: 1
  }
  param {
    lr_mult: 2
    decay_mult: 0
  }
  inner_product_param {
    num_output: 1024
    weight_filler {
      type: "xavier"
      std: 0.02
    }
    bias_filler {
      type: "constant"
      value: 0.2
    }
  }
}
layer {
  name: "loss1/relu_fc"
  type: "ReLU"
  bottom: "loss1/fc"
  top: "loss1/fc"
}
layer {
  name: "loss1/drop_fc"
  type: "Dropout"
  bottom: "loss1/fc"
  top: "loss1/fc"
  dropout_param {
    dropout_ratio: 0.7
  }
}
layer {
  name: "loss1/classifier_plantvillage"
  type: "InnerProduct"
  bottom: "loss1/fc"
  top: "loss1/classifier_plantvillage"
  param {
    lr_mult: 1
    decay_mult: 1
  }
  param {
    lr_mult: 2
    decay_mult: 0
  }
  inner_product_param {
    num_output: 38
    weight_filler {
      type: "xavier"
      std: 0.0009765625
    }
    bias_filler {
      type: "constant"
      value: 0
    }
  }
}
layer {
  name: "inception_4b/1x1"
  type: "Convolution"
  bottom: "inception_4a/output"
  top: "inception_4b/1x1"
  param {
    lr_mult: 1
    decay_mult: 1
  }
  param {
    lr_mult: 2
    decay_mult: 0
  }
  convolution_param {
    num_output: 160
    kernel_size: 1
    weight_filler {
      type: "xavier"
      std: 0.03
    }
    bias_filler {
      type: "constant"
      value: 0.2
    }
  }
}
layer {
  name: "inception_4b/relu_1x1"
  type: "ReLU"
  bottom: "inception_4b/1x1"
  top: "inception_4b/1x1"
}
layer {
  name: "inception_4b/3x3_reduce"
  type: "Convolution"
  bottom: "inception_4a/output"
  top: "inception_4b/3x3_reduce"
  param {
    lr_mult: 1
    decay_mult: 1
  }
  param {
    lr_mult: 2
    decay_mult: 0
  }
  convolution_param {
    num_output: 112
    kernel_size: 1
    weight_filler {
      type: "xavier"
      std: 0.09
    }
    bias_filler {
      type: "constant"
      value: 0.2
    }
  }
}
layer {
  name: "inception_4b/relu_3x3_reduce"
  type: "ReLU"
  bottom: "inception_4b/3x3_reduce"
  top: "inception_4b/3x3_reduce"
}
layer {
  name: "inception_4b/3x3"
  type: "Convolution"
  bottom: "inception_4b/3x3_reduce"
  top: "inception_4b/3x3"
  param {
    lr_mult: 1
    decay_mult: 1
  }
  param {
    lr_mult: 2
    decay_mult: 0
  }
  convolution_param {
    num_output: 224
    pad: 1
    kernel_size: 3
    weight_filler {
      type: "xavier"
      std: 0.03
    }
    bias_filler {
      type: "constant"
      value: 0.2
    }
  }
}
layer {
  name: "inception_4b/relu_3x3"
  type: "ReLU"
  bottom: "inception_4b/3x3"
  top: "inception_4b/3x3"
}
layer {
  name: "inception_4b/5x5_reduce"
  type: "Convolution"
  bottom: "inception_4a/output"
  top: "inception_4b/5x5_reduce"
  param {
    lr_mult: 1
    decay_mult: 1
  }
  param {
    lr_mult: 2
    decay_mult: 0
  }
  convolution_param {
    num_output: 24
    kernel_size: 1
    weight_filler {
      type: "xavier"
      std: 0.2
    }
    bias_filler {
      type: "constant"
      value: 0.2
    }
  }
}
layer {
  name: "inception_4b/relu_5x5_reduce"
  type: "ReLU"
  bottom: "inception_4b/5x5_reduce"
  top: "inception_4b/5x5_reduce"
}
layer {
  name: "inception_4b/5x5"
  type: "Convolution"
  bottom: "inception_4b/5x5_reduce"
  top: "inception_4b/5x5"
  param {
    lr_mult: 1
    decay_mult: 1
  }
  param {
    lr_mult: 2
    decay_mult: 0
  }
  convolution_param {
    num_output: 64
    pad: 2
    kernel_size: 5
    weight_filler {
      type: "xavier"
      std: 0.03
    }
    bias_filler {
      type: "constant"
      value: 0.2
    }
  }
}
layer {
  name: "inception_4b/relu_5x5"
  type: "ReLU"
  bottom: "inception_4b/5x5"
  top: "inception_4b/5x5"
}
layer {
  name: "inception_4b/pool"
  type: "Pooling"
  bottom: "inception_4a/output"
  top: "inception_4b/pool"
  pooling_param {
    pool: MAX
    kernel_size: 3
    stride: 1
    pad: 1
  }
}
layer {
  name: "inception_4b/pool_proj"
  type: "Convolution"
  bottom: "inception_4b/pool"
  top: "inception_4b/pool_proj"
  param {
    lr_mult: 1
    decay_mult: 1
  }
  param {
    lr_mult: 2
    decay_mult: 0
  }
  convolution_param {
    num_output: 64
    kernel_size: 1
    weight_filler {
      type: "xavier"
      std: 0.1
    }
    bias_filler {
      type: "constant"
      value: 0.2
    }
  }
}
layer {
  name: "inception_4b/relu_pool_proj"
  type: "ReLU"
  bottom: "inception_4b/pool_proj"
  top: "inception_4b/pool_proj"
}
layer {
  name: "inception_4b/output"
  type: "Concat"
  bottom: "inception_4b/1x1"
  bottom: "inception_4b/3x3"
  bottom: "inception_4b/5x5"
  bottom: "inception_4b/pool_proj"
  top: "inception_4b/output"
}
layer {
  name: "inception_4c/1x1"
  type: "Convolution"
  bottom: "inception_4b/output"
  top: "inception_4c/1x1"
  param {
    lr_mult: 1
    decay_mult: 1
  }
  param {
    lr_mult: 2
    decay_mult: 0
  }
  convolution_param {
    num_output: 128
    kernel_size: 1
    weight_filler {
      type: "xavier"
      std: 0.03
    }
    bias_filler {
      type: "constant"
      value: 0.2
    }
  }
}
layer {
  name: "inception_4c/relu_1x1"
  type: "ReLU"
  bottom: "inception_4c/1x1"
  top: "inception_4c/1x1"
}
layer {
  name: "inception_4c/3x3_reduce"
  type: "Convolution"
  bottom: "inception_4b/output"
  top: "inception_4c/3x3_reduce"
  param {
    lr_mult: 1
    decay_mult: 1
  }
  param {
    lr_mult: 2
    decay_mult: 0
  }
  convolution_param {
    num_output: 128
    kernel_size: 1
    weight_filler {
      type: "xavier"
      std: 0.09
    }
    bias_filler {
      type: "constant"
      value: 0.2
    }
  }
}
layer {
  name: "inception_4c/relu_3x3_reduce"
  type: "ReLU"
  bottom: "inception_4c/3x3_reduce"
  top: "inception_4c/3x3_reduce"
}
layer {
  name: "inception_4c/3x3"
  type: "Convolution"
  bottom: "inception_4c/3x3_reduce"
  top: "inception_4c/3x3"
  param {
    lr_mult: 1
    decay_mult: 1
  }
  param {
    lr_mult: 2
    decay_mult: 0
  }
  convolution_param {
    num_output: 256
    pad: 1
    kernel_size: 3
    weight_filler {
      type: "xavier"
      std: 0.03
    }
    bias_filler {
      type: "constant"
      value: 0.2
    }
  }
}
layer {
  name: "inception_4c/relu_3x3"
  type: "ReLU"
  bottom: "inception_4c/3x3"
  top: "inception_4c/3x3"
}
layer {
  name: "inception_4c/5x5_reduce"
  type: "Convolution"
  bottom: "inception_4b/output"
  top: "inception_4c/5x5_reduce"
  param {
    lr_mult: 1
    decay_mult: 1
  }
  param {
    lr_mult: 2
    decay_mult: 0
  }
  convolution_param {
    num_output: 24
    kernel_size: 1
    weight_filler {
      type: "xavier"
      std: 0.2
    }
    bias_filler {
      type: "constant"
      value: 0.2
    }
  }
}
layer {
  name: "inception_4c/relu_5x5_reduce"
  type: "ReLU"
  bottom: "inception_4c/5x5_reduce"
  top: "inception_4c/5x5_reduce"
}
layer {
  name: "inception_4c/5x5"
  type: "Convolution"
  bottom: "inception_4c/5x5_reduce"
  top: "inception_4c/5x5"
  param {
    lr_mult: 1
    decay_mult: 1
  }
  param {
    lr_mult: 2
    decay_mult: 0
  }
  convolution_param {
    num_output: 64
    pad: 2
    kernel_size: 5
    weight_filler {
      type: "xavier"
      std: 0.03
    }
    bias_filler {
      type: "constant"
      value: 0.2
    }
  }
}
layer {
  name: "inception_4c/relu_5x5"
  type: "ReLU"
  bottom: "inception_4c/5x5"
  top: "inception_4c/5x5"
}
layer {
  name: "inception_4c/pool"
  type: "Pooling"
  bottom: "inception_4b/output"
  top: "inception_4c/pool"
  pooling_param {
    pool: MAX
    kernel_size: 3
    stride: 1
    pad: 1
  }
}
layer {
  name: "inception_4c/pool_proj"
  type: "Convolution"
  bottom: "inception_4c/pool"
  top: "inception_4c/pool_proj"
  param {
    lr_mult: 1
    decay_mult: 1
  }
  param {
    lr_mult: 2
    decay_mult: 0
  }
  convolution_param {
    num_output: 64
    kernel_size: 1
    weight_filler {
      type: "xavier"
      std: 0.1
    }
    bias_filler {
      type: "constant"
      value: 0.2
    }
  }
}
layer {
  name: "inception_4c/relu_pool_proj"
  type: "ReLU"
  bottom: "inception_4c/pool_proj"
  top: "inception_4c/pool_proj"
}
layer {
  name: "inception_4c/output"
  type: "Concat"
  bottom: "inception_4c/1x1"
  bottom: "inception_4c/3x3"
  bottom: "inception_4c/5x5"
  bottom: "inception_4c/pool_proj"
  top: "inception_4c/output"
}
layer {
  name: "inception_4d/1x1"
  type: "Convolution"
  bottom: "inception_4c/output"
  top: "inception_4d/1x1"
  param {
    lr_mult: 1
    decay_mult: 1
  }
  param {
    lr_mult: 2
    decay_mult: 0
  }
  convolution_param {
    num_output: 112
    kernel_size: 1
    weight_filler {
      type: "xavier"
      std: 0.03
    }
    bias_filler {
      type: "constant"
      value: 0.2
    }
  }
}
layer {
  name: "inception_4d/relu_1x1"
  type: "ReLU"
  bottom: "inception_4d/1x1"
  top: "inception_4d/1x1"
}
layer {
  name: "inception_4d/3x3_reduce"
  type: "Convolution"
  bottom: "inception_4c/output"
  top: "inception_4d/3x3_reduce"
  param {
    lr_mult: 1
    decay_mult: 1
  }
  param {
    lr_mult: 2
    decay_mult: 0
  }
  convolution_param {
    num_output: 144
    kernel_size: 1
    weight_filler {
      type: "xavier"
      std: 0.09
    }
    bias_filler {
      type: "constant"
      value: 0.2
    }
  }
}
layer {
  name: "inception_4d/relu_3x3_reduce"
  type: "ReLU"
  bottom: "inception_4d/3x3_reduce"
  top: "inception_4d/3x3_reduce"
}
layer {
  name: "inception_4d/3x3"
  type: "Convolution"
  bottom: "inception_4d/3x3_reduce"
  top: "inception_4d/3x3"
  param {
    lr_mult: 1
    decay_mult: 1
  }
  param {
    lr_mult: 2
    decay_mult: 0
  }
  convolution_param {
    num_output: 288
    pad: 1
    kernel_size: 3
    weight_filler {
      type: "xavier"
      std: 0.03
    }
    bias_filler {
      type: "constant"
      value: 0.2
    }
  }
}
layer {
  name: "inception_4d/relu_3x3"
  type: "ReLU"
  bottom: "inception_4d/3x3"
  top: "inception_4d/3x3"
}
layer {
  name: "inception_4d/5x5_reduce"
  type: "Convolution"
  bottom: "inception_4c/output"
  top: "inception_4d/5x5_reduce"
  param {
    lr_mult: 1
    decay_mult: 1
  }
  param {
    lr_mult: 2
    decay_mult: 0
  }
  convolution_param {
    num_output: 32
    kernel_size: 1
    weight_filler {
      type: "xavier"
      std: 0.2
    }
    bias_filler {
      type: "constant"
      value: 0.2
    }
  }
}
layer {
  name: "inception_4d/relu_5x5_reduce"
  type: "ReLU"
  bottom: "inception_4d/5x5_reduce"
  top: "inception_4d/5x5_reduce"
}
layer {
  name: "inception_4d/5x5"
  type: "Convolution"
  bottom: "inception_4d/5x5_reduce"
  top: "inception_4d/5x5"
  param {
    lr_mult: 1
    decay_mult: 1
  }
  param {
    lr_mult: 2
    decay_mult: 0
  }
  convolution_param {
    num_output: 64
    pad: 2
    kernel_size: 5
    weight_filler {
      type: "xavier"
      std: 0.03
    }
    bias_filler {
      type: "constant"
      value: 0.2
    }
  }
}
layer {
  name: "inception_4d/relu_5x5"
  type: "ReLU"
  bottom: "inception_4d/5x5"
  top: "inception_4d/5x5"
}
layer {
  name: "inception_4d/pool"
  type: "Pooling"
  bottom: "inception_4c/output"
  top: "inception_4d/pool"
  pooling_param {
    pool: MAX
    kernel_size: 3
    stride: 1
    pad: 1
  }
}
layer {
  name: "inception_4d/pool_proj"
  type: "Convolution"
  bottom: "inception_4d/pool"
  top: "inception_4d/pool_proj"
  param {
    lr_mult: 1
    decay_mult: 1
  }
  param {
    lr_mult: 2
    decay_mult: 0
  }
  convolution_param {
    num_output: 64
    kernel_size: 1
    weight_filler {
      type: "xavier"
      std: 0.1
    }
    bias_filler {
      type: "constant"
      value: 0.2
    }
  }
}
layer {
  name: "inception_4d/relu_pool_proj"
  type: "ReLU"
  bottom: "inception_4d/pool_proj"
  top: "inception_4d/pool_proj"
}
layer {
  name: "inception_4d/output"
  type: "Concat"
  bottom: "inception_4d/1x1"
  bottom: "inception_4d/3x3"
  bottom: "inception_4d/5x5"
  bottom: "inception_4d/pool_proj"
  top: "inception_4d/output"
}
layer {
  name: "loss2/ave_pool"
  type: "Pooling"
  bottom: "inception_4d/output"
  top: "loss2/ave_pool"
  pooling_param {
    pool: AVE
    kernel_size: 5
    stride: 3
  }
}
layer {
  name: "loss2/conv"
  type: "Convolution"
  bottom: "loss2/ave_pool"
  top: "loss2/conv"
  param {
    lr_mult: 1
    decay_mult: 1
  }
  param {
    lr_mult: 2
    decay_mult: 0
  }
  convolution_param {
    num_output: 128
    kernel_size: 1
    weight_filler {
      type: "xavier"
      std: 0.08
    }
    bias_filler {
      type: "constant"
      value: 0.2
    }
  }
}
layer {
  name: "loss2/relu_conv"
  type: "ReLU"
  bottom: "loss2/conv"
  top: "loss2/conv"
}
layer {
  name: "loss2/fc"
  type: "InnerProduct"
  bottom: "loss2/conv"
  top: "loss2/fc"
  param {
    lr_mult: 1
    decay_mult: 1
  }
  param {
    lr_mult: 2
    decay_mult: 0
  }
  inner_product_param {
    num_output: 1024
    weight_filler {
      type: "xavier"
      std: 0.02
    }
    bias_filler {
      type: "constant"
      value: 0.2
    }
  }
}
layer {
  name: "loss2/relu_fc"
  type: "ReLU"
  bottom: "loss2/fc"
  top: "loss2/fc"
}
layer {
  name: "loss2/drop_fc"
  type: "Dropout"
  bottom: "loss2/fc"
  top: "loss2/fc"
  dropout_param {
    dropout_ratio: 0.7
  }
}
layer {
  name: "loss2/classifier_plantvillage"
  type: "InnerProduct"
  bottom: "loss2/fc"
  top: "loss2/classifier_plantvillage"
  param {
    lr_mult: 1
    decay_mult: 1
  }
  param {
    lr_mult: 2
    decay_mult: 0
  }
  inner_product_param {
    num_output: 38
    weight_filler {
      type: "xavier"
      std: 0.0009765625
    }
    bias_filler {
      type: "constant"
      value: 0
    }
  }
}
layer {
  name: "inception_4e/1x1"
  type: "Convolution"
  bottom: "inception_4d/output"
  top: "inception_4e/1x1"
  param {
    lr_mult: 1
    decay_mult: 1
  }
  param {
    lr_mult: 2
    decay_mult: 0
  }
  convolution_param {
    num_output: 256
    kernel_size: 1
    weight_filler {
      type: "xavier"
      std: 0.03
    }
    bias_filler {
      type: "constant"
      value: 0.2
    }
  }
}
layer {
  name: "inception_4e/relu_1x1"
  type: "ReLU"
  bottom: "inception_4e/1x1"
  top: "inception_4e/1x1"
}
layer {
  name: "inception_4e/3x3_reduce"
  type: "Convolution"
  bottom: "inception_4d/output"
  top: "inception_4e/3x3_reduce"
  param {
    lr_mult: 1
    decay_mult: 1
  }
  param {
    lr_mult: 2
    decay_mult: 0
  }
  convolution_param {
    num_output: 160
    kernel_size: 1
    weight_filler {
      type: "xavier"
      std: 0.09
    }
    bias_filler {
      type: "constant"
      value: 0.2
    }
  }
}
layer {
  name: "inception_4e/relu_3x3_reduce"
  type: "ReLU"
  bottom: "inception_4e/3x3_reduce"
  top: "inception_4e/3x3_reduce"
}
layer {
  name: "inception_4e/3x3"
  type: "Convolution"
  bottom: "inception_4e/3x3_reduce"
  top: "inception_4e/3x3"
  param {
    lr_mult: 1
    decay_mult: 1
  }
  param {
    lr_mult: 2
    decay_mult: 0
  }
  convolution_param {
    num_output: 320
    pad: 1
    kernel_size: 3
    weight_filler {
      type: "xavier"
      std: 0.03
    }
    bias_filler {
      type: "constant"
      value: 0.2
    }
  }
}
layer {
  name: "inception_4e/relu_3x3"
  type: "ReLU"
  bottom: "inception_4e/3x3"
  top: "inception_4e/3x3"
}
layer {
  name: "inception_4e/5x5_reduce"
  type: "Convolution"
  bottom: "inception_4d/output"
  top: "inception_4e/5x5_reduce"
  param {
    lr_mult: 1
    decay_mult: 1
  }
  param {
    lr_mult: 2
    decay_mult: 0
  }
  convolution_param {
    num_output: 32
    kernel_size: 1
    weight_filler {
      type: "xavier"
      std: 0.2
    }
    bias_filler {
      type: "constant"
      value: 0.2
    }
  }
}
layer {
  name: "inception_4e/relu_5x5_reduce"
  type: "ReLU"
  bottom: "inception_4e/5x5_reduce"
  top: "inception_4e/5x5_reduce"
}
layer {
  name: "inception_4e/5x5"
  type: "Convolution"
  bottom: "inception_4e/5x5_reduce"
  top: "inception_4e/5x5"
  p
I0403 21:54:15.948074 13231 layer_factory.hpp:77] Creating layer data
I0403 21:54:15.948807 13231 net.cpp:91] Creating Layer data
I0403 21:54:15.948844 13231 net.cpp:399] data -> data
I0403 21:54:15.948909 13231 net.cpp:399] data -> label
I0403 21:54:15.948952 13231 data_transformer.cpp:25] Loading mean file from: /home/mohanty/data/final_dataset/lmdb/color-80-20/mean.binaryproto
I0403 21:54:15.950038 13233 db_lmdb.cpp:38] Opened lmdb /home/mohanty/data/final_dataset/lmdb/color-80-20/test_db
I0403 21:54:15.965396 13231 data_layer.cpp:41] output data size: 24,3,224,224
I0403 21:54:15.999125 13231 net.cpp:141] Setting up data
I0403 21:54:15.999239 13231 net.cpp:148] Top shape: 24 3 224 224 (3612672)
I0403 21:54:15.999270 13231 net.cpp:148] Top shape: 24 (24)
I0403 21:54:15.999289 13231 net.cpp:156] Memory required for data: 14450784
I0403 21:54:15.999323 13231 layer_factory.hpp:77] Creating layer label_data_1_split
I0403 21:54:15.999358 13231 net.cpp:91] Creating Layer label_data_1_split
I0403 21:54:15.999382 13231 net.cpp:425] label_data_1_split <- label
I0403 21:54:15.999423 13231 net.cpp:399] label_data_1_split -> label_data_1_split_0
I0403 21:54:15.999455 13231 net.cpp:399] label_data_1_split -> label_data_1_split_1
I0403 21:54:15.999482 13231 net.cpp:399] label_data_1_split -> label_data_1_split_2
I0403 21:54:15.999508 13231 net.cpp:399] label_data_1_split -> label_data_1_split_3
I0403 21:54:15.999531 13231 net.cpp:399] label_data_1_split -> label_data_1_split_4
I0403 21:54:15.999557 13231 net.cpp:399] label_data_1_split -> label_data_1_split_5
I0403 21:54:15.999580 13231 net.cpp:399] label_data_1_split -> label_data_1_split_6
I0403 21:54:15.999603 13231 net.cpp:399] label_data_1_split -> label_data_1_split_7
I0403 21:54:15.999627 13231 net.cpp:399] label_data_1_split -> label_data_1_split_8
I0403 21:54:15.999651 13231 net.cpp:399] label_data_1_split -> label_data_1_split_9
I0403 21:54:15.999789 13231 net.cpp:141] Setting up label_data_1_split
I0403 21:54:15.999819 13231 net.cpp:148] Top shape: 24 (24)
I0403 21:54:15.999840 13231 net.cpp:148] Top shape: 24 (24)
I0403 21:54:15.999861 13231 net.cpp:148] Top shape: 24 (24)
I0403 21:54:15.999878 13231 net.cpp:148] Top shape: 24 (24)
I0403 21:54:15.999897 13231 net.cpp:148] Top shape: 24 (24)
I0403 21:54:15.999914 13231 net.cpp:148] Top shape: 24 (24)
I0403 21:54:15.999933 13231 net.cpp:148] Top shape: 24 (24)
I0403 21:54:15.999953 13231 net.cpp:148] Top shape: 24 (24)
I0403 21:54:15.999971 13231 net.cpp:148] Top shape: 24 (24)
I0403 21:54:15.999992 13231 net.cpp:148] Top shape: 24 (24)
I0403 21:54:16.000049 13231 net.cpp:156] Memory required for data: 14451744
I0403 21:54:16.000072 13231 layer_factory.hpp:77] Creating layer conv1/7x7_s2
I0403 21:54:16.000111 13231 net.cpp:91] Creating Layer conv1/7x7_s2
I0403 21:54:16.000134 13231 net.cpp:425] conv1/7x7_s2 <- data
I0403 21:54:16.000157 13231 net.cpp:399] conv1/7x7_s2 -> conv1/7x7_s2
I0403 21:54:16.198997 13231 net.cpp:141] Setting up conv1/7x7_s2
I0403 21:54:16.199115 13231 net.cpp:148] Top shape: 24 64 112 112 (19267584)
I0403 21:54:16.199136 13231 net.cpp:156] Memory required for data: 91522080
I0403 21:54:16.199177 13231 layer_factory.hpp:77] Creating layer conv1/relu_7x7
I0403 21:54:16.199214 13231 net.cpp:91] Creating Layer conv1/relu_7x7
I0403 21:54:16.199240 13231 net.cpp:425] conv1/relu_7x7 <- conv1/7x7_s2
I0403 21:54:16.199265 13231 net.cpp:386] conv1/relu_7x7 -> conv1/7x7_s2 (in-place)
I0403 21:54:16.199569 13231 net.cpp:141] Setting up conv1/relu_7x7
I0403 21:54:16.199604 13231 net.cpp:148] Top shape: 24 64 112 112 (19267584)
I0403 21:54:16.199623 13231 net.cpp:156] Memory required for data: 168592416
I0403 21:54:16.199641 13231 layer_factory.hpp:77] Creating layer pool1/3x3_s2
I0403 21:54:16.199671 13231 net.cpp:91] Creating Layer pool1/3x3_s2
I0403 21:54:16.199692 13231 net.cpp:425] pool1/3x3_s2 <- conv1/7x7_s2
I0403 21:54:16.199715 13231 net.cpp:399] pool1/3x3_s2 -> pool1/3x3_s2
I0403 21:54:16.199805 13231 net.cpp:141] Setting up pool1/3x3_s2
I0403 21:54:16.199834 13231 net.cpp:148] Top shape: 24 64 56 56 (4816896)
I0403 21:54:16.199852 13231 net.cpp:156] Memory required for data: 187860000
I0403 21:54:16.199872 13231 layer_factory.hpp:77] Creating layer pool1/norm1
I0403 21:54:16.199899 13231 net.cpp:91] Creating Layer pool1/norm1
I0403 21:54:16.199921 13231 net.cpp:425] pool1/norm1 <- pool1/3x3_s2
I0403 21:54:16.199942 13231 net.cpp:399] pool1/norm1 -> pool1/norm1
I0403 21:54:16.200287 13231 net.cpp:141] Setting up pool1/norm1
I0403 21:54:16.200320 13231 net.cpp:148] Top shape: 24 64 56 56 (4816896)
I0403 21:54:16.200340 13231 net.cpp:156] Memory required for data: 207127584
I0403 21:54:16.200357 13231 layer_factory.hpp:77] Creating layer conv2/3x3_reduce
I0403 21:54:16.200387 13231 net.cpp:91] Creating Layer conv2/3x3_reduce
I0403 21:54:16.200408 13231 net.cpp:425] conv2/3x3_reduce <- pool1/norm1
I0403 21:54:16.200430 13231 net.cpp:399] conv2/3x3_reduce -> conv2/3x3_reduce
I0403 21:54:16.202029 13231 net.cpp:141] Setting up conv2/3x3_reduce
I0403 21:54:16.202065 13231 net.cpp:148] Top shape: 24 64 56 56 (4816896)
I0403 21:54:16.202085 13231 net.cpp:156] Memory required for data: 226395168
I0403 21:54:16.202111 13231 layer_factory.hpp:77] Creating layer conv2/relu_3x3_reduce
I0403 21:54:16.202133 13231 net.cpp:91] Creating Layer conv2/relu_3x3_reduce
I0403 21:54:16.202153 13231 net.cpp:425] conv2/relu_3x3_reduce <- conv2/3x3_reduce
I0403 21:54:16.202173 13231 net.cpp:386] conv2/relu_3x3_reduce -> conv2/3x3_reduce (in-place)
I0403 21:54:16.202481 13231 net.cpp:141] Setting up conv2/relu_3x3_reduce
I0403 21:54:16.202515 13231 net.cpp:148] Top shape: 24 64 56 56 (4816896)
I0403 21:54:16.202535 13231 net.cpp:156] Memory required for data: 245662752
I0403 21:54:16.202554 13231 layer_factory.hpp:77] Creating layer conv2/3x3
I0403 21:54:16.202581 13231 net.cpp:91] Creating Layer conv2/3x3
I0403 21:54:16.202601 13231 net.cpp:425] conv2/3x3 <- conv2/3x3_reduce
I0403 21:54:16.202623 13231 net.cpp:399] conv2/3x3 -> conv2/3x3
I0403 21:54:16.205304 13231 net.cpp:141] Setting up conv2/3x3
I0403 21:54:16.205344 13231 net.cpp:148] Top shape: 24 192 56 56 (14450688)
I0403 21:54:16.205365 13231 net.cpp:156] Memory required for data: 303465504
I0403 21:54:16.205392 13231 layer_factory.hpp:77] Creating layer conv2/relu_3x3
I0403 21:54:16.205416 13231 net.cpp:91] Creating Layer conv2/relu_3x3
I0403 21:54:16.205437 13231 net.cpp:425] conv2/relu_3x3 <- conv2/3x3
I0403 21:54:16.205462 13231 net.cpp:386] conv2/relu_3x3 -> conv2/3x3 (in-place)
I0403 21:54:16.205674 13231 net.cpp:141] Setting up conv2/relu_3x3
I0403 21:54:16.205705 13231 net.cpp:148] Top shape: 24 192 56 56 (14450688)
I0403 21:54:16.205760 13231 net.cpp:156] Memory required for data: 361268256
I0403 21:54:16.205780 13231 layer_factory.hpp:77] Creating layer conv2/norm2
I0403 21:54:16.205804 13231 net.cpp:91] Creating Layer conv2/norm2
I0403 21:54:16.205826 13231 net.cpp:425] conv2/norm2 <- conv2/3x3
I0403 21:54:16.205850 13231 net.cpp:399] conv2/norm2 -> conv2/norm2
I0403 21:54:16.206218 13231 net.cpp:141] Setting up conv2/norm2
I0403 21:54:16.206260 13231 net.cpp:148] Top shape: 24 192 56 56 (14450688)
I0403 21:54:16.206281 13231 net.cpp:156] Memory required for data: 419071008
I0403 21:54:16.206300 13231 layer_factory.hpp:77] Creating layer pool2/3x3_s2
I0403 21:54:16.206322 13231 net.cpp:91] Creating Layer pool2/3x3_s2
I0403 21:54:16.206341 13231 net.cpp:425] pool2/3x3_s2 <- conv2/norm2
I0403 21:54:16.206365 13231 net.cpp:399] pool2/3x3_s2 -> pool2/3x3_s2
I0403 21:54:16.206431 13231 net.cpp:141] Setting up pool2/3x3_s2
I0403 21:54:16.206461 13231 net.cpp:148] Top shape: 24 192 28 28 (3612672)
I0403 21:54:16.206480 13231 net.cpp:156] Memory required for data: 433521696
I0403 21:54:16.206497 13231 layer_factory.hpp:77] Creating layer pool2/3x3_s2_pool2/3x3_s2_0_split
I0403 21:54:16.206522 13231 net.cpp:91] Creating Layer pool2/3x3_s2_pool2/3x3_s2_0_split
I0403 21:54:16.206542 13231 net.cpp:425] pool2/3x3_s2_pool2/3x3_s2_0_split <- pool2/3x3_s2
I0403 21:54:16.206563 13231 net.cpp:399] pool2/3x3_s2_pool2/3x3_s2_0_split -> pool2/3x3_s2_pool2/3x3_s2_0_split_0
I0403 21:54:16.206588 13231 net.cpp:399] pool2/3x3_s2_pool2/3x3_s2_0_split -> pool2/3x3_s2_pool2/3x3_s2_0_split_1
I0403 21:54:16.206611 13231 net.cpp:399] pool2/3x3_s2_pool2/3x3_s2_0_split -> pool2/3x3_s2_pool2/3x3_s2_0_split_2
I0403 21:54:16.206636 13231 net.cpp:399] pool2/3x3_s2_pool2/3x3_s2_0_split -> pool2/3x3_s2_pool2/3x3_s2_0_split_3
I0403 21:54:16.206720 13231 net.cpp:141] Setting up pool2/3x3_s2_pool2/3x3_s2_0_split
I0403 21:54:16.206749 13231 net.cpp:148] Top shape: 24 192 28 28 (3612672)
I0403 21:54:16.206769 13231 net.cpp:148] Top shape: 24 192 28 28 (3612672)
I0403 21:54:16.206789 13231 net.cpp:148] Top shape: 24 192 28 28 (3612672)
I0403 21:54:16.206807 13231 net.cpp:148] Top shape: 24 192 28 28 (3612672)
I0403 21:54:16.206825 13231 net.cpp:156] Memory required for data: 491324448
I0403 21:54:16.206845 13231 layer_factory.hpp:77] Creating layer inception_3a/1x1
I0403 21:54:16.206872 13231 net.cpp:91] Creating Layer inception_3a/1x1
I0403 21:54:16.206893 13231 net.cpp:425] inception_3a/1x1 <- pool2/3x3_s2_pool2/3x3_s2_0_split_0
I0403 21:54:16.206920 13231 net.cpp:399] inception_3a/1x1 -> inception_3a/1x1
I0403 21:54:16.208773 13231 net.cpp:141] Setting up inception_3a/1x1
I0403 21:54:16.208811 13231 net.cpp:148] Top shape: 24 64 28 28 (1204224)
I0403 21:54:16.208832 13231 net.cpp:156] Memory required for data: 496141344
I0403 21:54:16.208855 13231 layer_factory.hpp:77] Creating layer inception_3a/relu_1x1
I0403 21:54:16.208879 13231 net.cpp:91] Creating Layer inception_3a/relu_1x1
I0403 21:54:16.208899 13231 net.cpp:425] inception_3a/relu_1x1 <- inception_3a/1x1
I0403 21:54:16.208922 13231 net.cpp:386] inception_3a/relu_1x1 -> inception_3a/1x1 (in-place)
I0403 21:54:16.209134 13231 net.cpp:141] Setting up inception_3a/relu_1x1
I0403 21:54:16.209167 13231 net.cpp:148] Top shape: 24 64 28 28 (1204224)
I0403 21:54:16.209183 13231 net.cpp:156] Memory required for data: 500958240
I0403 21:54:16.209202 13231 layer_factory.hpp:77] Creating layer inception_3a/3x3_reduce
I0403 21:54:16.209236 13231 net.cpp:91] Creating Layer inception_3a/3x3_reduce
I0403 21:54:16.209259 13231 net.cpp:425] inception_3a/3x3_reduce <- pool2/3x3_s2_pool2/3x3_s2_0_split_1
I0403 21:54:16.209285 13231 net.cpp:399] inception_3a/3x3_reduce -> inception_3a/3x3_reduce
I0403 21:54:16.211302 13231 net.cpp:141] Setting up inception_3a/3x3_reduce
I0403 21:54:16.211343 13231 net.cpp:148] Top shape: 24 96 28 28 (1806336)
I0403 21:54:16.211364 13231 net.cpp:156] Memory required for data: 508183584
I0403 21:54:16.211390 13231 layer_factory.hpp:77] Creating layer inception_3a/relu_3x3_reduce
I0403 21:54:16.211437 13231 net.cpp:91] Creating Layer inception_3a/relu_3x3_reduce
I0403 21:54:16.211460 13231 net.cpp:425] inception_3a/relu_3x3_reduce <- inception_3a/3x3_reduce
I0403 21:54:16.211483 13231 net.cpp:386] inception_3a/relu_3x3_reduce -> inception_3a/3x3_reduce (in-place)
I0403 21:54:16.211702 13231 net.cpp:141] Setting up inception_3a/relu_3x3_reduce
I0403 21:54:16.211736 13231 net.cpp:148] Top shape: 24 96 28 28 (1806336)
I0403 21:54:16.211755 13231 net.cpp:156] Memory required for data: 515408928
I0403 21:54:16.211773 13231 layer_factory.hpp:77] Creating layer inception_3a/3x3
I0403 21:54:16.211802 13231 net.cpp:91] Creating Layer inception_3a/3x3
I0403 21:54:16.211823 13231 net.cpp:425] inception_3a/3x3 <- inception_3a/3x3_reduce
I0403 21:54:16.211846 13231 net.cpp:399] inception_3a/3x3 -> inception_3a/3x3
I0403 21:54:16.213850 13231 net.cpp:141] Setting up inception_3a/3x3
I0403 21:54:16.213886 13231 net.cpp:148] Top shape: 24 128 28 28 (2408448)
I0403 21:54:16.213907 13231 net.cpp:156] Memory required for data: 525042720
I0403 21:54:16.213928 13231 layer_factory.hpp:77] Creating layer inception_3a/relu_3x3
I0403 21:54:16.213951 13231 net.cpp:91] Creating Layer inception_3a/relu_3x3
I0403 21:54:16.213971 13231 net.cpp:425] inception_3a/relu_3x3 <- inception_3a/3x3
I0403 21:54:16.213995 13231 net.cpp:386] inception_3a/relu_3x3 -> inception_3a/3x3 (in-place)
I0403 21:54:16.214344 13231 net.cpp:141] Setting up inception_3a/relu_3x3
I0403 21:54:16.214378 13231 net.cpp:148] Top shape: 24 128 28 28 (2408448)
I0403 21:54:16.214396 13231 net.cpp:156] Memory required for data: 534676512
I0403 21:54:16.214414 13231 layer_factory.hpp:77] Creating layer inception_3a/5x5_reduce
I0403 21:54:16.214442 13231 net.cpp:91] Creating Layer inception_3a/5x5_reduce
I0403 21:54:16.214464 13231 net.cpp:425] inception_3a/5x5_reduce <- pool2/3x3_s2_pool2/3x3_s2_0_split_2
I0403 21:54:16.214490 13231 net.cpp:399] inception_3a/5x5_reduce -> inception_3a/5x5_reduce
I0403 21:54:16.215651 13231 net.cpp:141] Setting up inception_3a/5x5_reduce
I0403 21:54:16.215685 13231 net.cpp:148] Top shape: 24 16 28 28 (301056)
I0403 21:54:16.215704 13231 net.cpp:156] Memory required for data: 535880736
I0403 21:54:16.215726 13231 layer_factory.hpp:77] Creating layer inception_3a/relu_5x5_reduce
I0403 21:54:16.215754 13231 net.cpp:91] Creating Layer inception_3a/relu_5x5_reduce
I0403 21:54:16.215775 13231 net.cpp:425] inception_3a/relu_5x5_reduce <- inception_3a/5x5_reduce
I0403 21:54:16.215795 13231 net.cpp:386] inception_3a/relu_5x5_reduce -> inception_3a/5x5_reduce (in-place)
I0403 21:54:16.216126 13231 net.cpp:141] Setting up inception_3a/relu_5x5_reduce
I0403 21:54:16.216158 13231 net.cpp:148] Top shape: 24 16 28 28 (301056)
I0403 21:54:16.216177 13231 net.cpp:156] Memory required for data: 537084960
I0403 21:54:16.216197 13231 layer_factory.hpp:77] Creating layer inception_3a/5x5
I0403 21:54:16.216230 13231 net.cpp:91] Creating Layer inception_3a/5x5
I0403 21:54:16.216254 13231 net.cpp:425] inception_3a/5x5 <- inception_3a/5x5_reduce
I0403 21:54:16.216281 13231 net.cpp:399] inception_3a/5x5 -> inception_3a/5x5
I0403 21:54:16.217509 13231 net.cpp:141] Setting up inception_3a/5x5
I0403 21:54:16.217545 13231 net.cpp:148] Top shape: 24 32 28 28 (602112)
I0403 21:54:16.217563 13231 net.cpp:156] Memory required for data: 539493408
I0403 21:54:16.217586 13231 layer_factory.hpp:77] Creating layer inception_3a/relu_5x5
I0403 21:54:16.217608 13231 net.cpp:91] Creating Layer inception_3a/relu_5x5
I0403 21:54:16.217628 13231 net.cpp:425] inception_3a/relu_5x5 <- inception_3a/5x5
I0403 21:54:16.217653 13231 net.cpp:386] inception_3a/relu_5x5 -> inception_3a/5x5 (in-place)
I0403 21:54:16.217869 13231 net.cpp:141] Setting up inception_3a/relu_5x5
I0403 21:54:16.217901 13231 net.cpp:148] Top shape: 24 32 28 28 (602112)
I0403 21:54:16.217919 13231 net.cpp:156] Memory required for data: 541901856
I0403 21:54:16.217939 13231 layer_factory.hpp:77] Creating layer inception_3a/pool
I0403 21:54:16.217964 13231 net.cpp:91] Creating Layer inception_3a/pool
I0403 21:54:16.217986 13231 net.cpp:425] inception_3a/pool <- pool2/3x3_s2_pool2/3x3_s2_0_split_3
I0403 21:54:16.218026 13231 net.cpp:399] inception_3a/pool -> inception_3a/pool
I0403 21:54:16.218098 13231 net.cpp:141] Setting up inception_3a/pool
I0403 21:54:16.218128 13231 net.cpp:148] Top shape: 24 192 28 28 (3612672)
I0403 21:54:16.218147 13231 net.cpp:156] Memory required for data: 556352544
I0403 21:54:16.218165 13231 layer_factory.hpp:77] Creating layer inception_3a/pool_proj
I0403 21:54:16.218192 13231 net.cpp:91] Creating Layer inception_3a/pool_proj
I0403 21:54:16.218220 13231 net.cpp:425] inception_3a/pool_proj <- inception_3a/pool
I0403 21:54:16.218248 13231 net.cpp:399] inception_3a/pool_proj -> inception_3a/pool_proj
I0403 21:54:16.219403 13231 net.cpp:141] Setting up inception_3a/pool_proj
I0403 21:54:16.219439 13231 net.cpp:148] Top shape: 24 32 28 28 (602112)
I0403 21:54:16.219460 13231 net.cpp:156] Memory required for data: 558760992
I0403 21:54:16.219486 13231 layer_factory.hpp:77] Creating layer inception_3a/relu_pool_proj
I0403 21:54:16.219512 13231 net.cpp:91] Creating Layer inception_3a/relu_pool_proj
I0403 21:54:16.219533 13231 net.cpp:425] inception_3a/relu_pool_proj <- inception_3a/pool_proj
I0403 21:54:16.219555 13231 net.cpp:386] inception_3a/relu_pool_proj -> inception_3a/pool_proj (in-place)
I0403 21:54:16.219883 13231 net.cpp:141] Setting up inception_3a/relu_pool_proj
I0403 21:54:16.219918 13231 net.cpp:148] Top shape: 24 32 28 28 (602112)
I0403 21:54:16.219936 13231 net.cpp:156] Memory required for data: 561169440
I0403 21:54:16.219955 13231 layer_factory.hpp:77] Creating layer inception_3a/output
I0403 21:54:16.219976 13231 net.cpp:91] Creating Layer inception_3a/output
I0403 21:54:16.219996 13231 net.cpp:425] inception_3a/output <- inception_3a/1x1
I0403 21:54:16.220016 13231 net.cpp:425] inception_3a/output <- inception_3a/3x3
I0403 21:54:16.220036 13231 net.cpp:425] inception_3a/output <- inception_3a/5x5
I0403 21:54:16.220054 13231 net.cpp:425] inception_3a/output <- inception_3a/pool_proj
I0403 21:54:16.220078 13231 net.cpp:399] inception_3a/output -> inception_3a/output
I0403 21:54:16.220134 13231 net.cpp:141] Setting up inception_3a/output
I0403 21:54:16.220166 13231 net.cpp:148] Top shape: 24 256 28 28 (4816896)
I0403 21:54:16.220186 13231 net.cpp:156] Memory required for data: 580437024
I0403 21:54:16.220206 13231 layer_factory.hpp:77] Creating layer inception_3a/output_inception_3a/output_0_split
I0403 21:54:16.220234 13231 net.cpp:91] Creating Layer inception_3a/output_inception_3a/output_0_split
I0403 21:54:16.220254 13231 net.cpp:425] inception_3a/output_inception_3a/output_0_split <- inception_3a/output
I0403 21:54:16.220275 13231 net.cpp:399] inception_3a/output_inception_3a/output_0_split -> inception_3a/output_inception_3a/output_0_split_0
I0403 21:54:16.220304 13231 net.cpp:399] inception_3a/output_inception_3a/output_0_split -> inception_3a/output_inception_3a/output_0_split_1
I0403 21:54:16.220332 13231 net.cpp:399] inception_3a/output_inception_3a/output_0_split -> inception_3a/output_inception_3a/output_0_split_2
I0403 21:54:16.220360 13231 net.cpp:399] inception_3a/output_inception_3a/output_0_split -> inception_3a/output_inception_3a/output_0_split_3
I0403 21:54:16.220453 13231 net.cpp:141] Setting up inception_3a/output_inception_3a/output_0_split
I0403 21:54:16.220482 13231 net.cpp:148] Top shape: 24 256 28 28 (4816896)
I0403 21:54:16.220505 13231 net.cpp:148] Top shape: 24 256 28 28 (4816896)
I0403 21:54:16.220525 13231 net.cpp:148] Top shape: 24 256 28 28 (4816896)
I0403 21:54:16.220544 13231 net.cpp:148] Top shape: 24 256 28 28 (4816896)
I0403 21:54:16.220562 13231 net.cpp:156] Memory required for data: 657507360
I0403 21:54:16.220580 13231 layer_factory.hpp:77] Creating layer inception_3b/1x1
I0403 21:54:16.220608 13231 net.cpp:91] Creating Layer inception_3b/1x1
I0403 21:54:16.220630 13231 net.cpp:425] inception_3b/1x1 <- inception_3a/output_inception_3a/output_0_split_0
I0403 21:54:16.220656 13231 net.cpp:399] inception_3b/1x1 -> inception_3b/1x1
I0403 21:54:16.222023 13231 net.cpp:141] Setting up inception_3b/1x1
I0403 21:54:16.222075 13231 net.cpp:148] Top shape: 24 128 28 28 (2408448)
I0403 21:54:16.222096 13231 net.cpp:156] Memory required for data: 667141152
I0403 21:54:16.222120 13231 layer_factory.hpp:77] Creating layer inception_3b/relu_1x1
I0403 21:54:16.222141 13231 net.cpp:91] Creating Layer inception_3b/relu_1x1
I0403 21:54:16.222162 13231 net.cpp:425] inception_3b/relu_1x1 <- inception_3b/1x1
I0403 21:54:16.222187 13231 net.cpp:386] inception_3b/relu_1x1 -> inception_3b/1x1 (in-place)
I0403 21:54:16.222416 13231 net.cpp:141] Setting up inception_3b/relu_1x1
I0403 21:54:16.222448 13231 net.cpp:148] Top shape: 24 128 28 28 (2408448)
I0403 21:54:16.222467 13231 net.cpp:156] Memory required for data: 676774944
I0403 21:54:16.222486 13231 layer_factory.hpp:77] Creating layer inception_3b/3x3_reduce
I0403 21:54:16.222513 13231 net.cpp:91] Creating Layer inception_3b/3x3_reduce
I0403 21:54:16.222537 13231 net.cpp:425] inception_3b/3x3_reduce <- inception_3a/output_inception_3a/output_0_split_1
I0403 21:54:16.222563 13231 net.cpp:399] inception_3b/3x3_reduce -> inception_3b/3x3_reduce
I0403 21:54:16.223932 13231 net.cpp:141] Setting up inception_3b/3x3_reduce
I0403 21:54:16.223970 13231 net.cpp:148] Top shape: 24 128 28 28 (2408448)
I0403 21:54:16.223992 13231 net.cpp:156] Memory required for data: 686408736
I0403 21:54:16.224016 13231 layer_factory.hpp:77] Creating layer inception_3b/relu_3x3_reduce
I0403 21:54:16.224040 13231 net.cpp:91] Creating Layer inception_3b/relu_3x3_reduce
I0403 21:54:16.224059 13231 net.cpp:425] inception_3b/relu_3x3_reduce <- inception_3b/3x3_reduce
I0403 21:54:16.224081 13231 net.cpp:386] inception_3b/relu_3x3_reduce -> inception_3b/3x3_reduce (in-place)
I0403 21:54:16.224301 13231 net.cpp:141] Setting up inception_3b/relu_3x3_reduce
I0403 21:54:16.224333 13231 net.cpp:148] Top shape: 24 128 28 28 (2408448)
I0403 21:54:16.224351 13231 net.cpp:156] Memory required for data: 696042528
I0403 21:54:16.224370 13231 layer_factory.hpp:77] Creating layer inception_3b/3x3
I0403 21:54:16.224400 13231 net.cpp:91] Creating Layer inception_3b/3x3
I0403 21:54:16.224422 13231 net.cpp:425] inception_3b/3x3 <- inception_3b/3x3_reduce
I0403 21:54:16.224447 13231 net.cpp:399] inception_3b/3x3 -> inception_3b/3x3
I0403 21:54:16.227974 13231 net.cpp:141] Setting up inception_3b/3x3
I0403 21:54:16.228009 13231 net.cpp:148] Top shape: 24 192 28 28 (3612672)
I0403 21:54:16.228029 13231 net.cpp:156] Memory required for data: 710493216
I0403 21:54:16.228052 13231 layer_factory.hpp:77] Creating layer inception_3b/relu_3x3
I0403 21:54:16.228075 13231 net.cpp:91] Creating Layer inception_3b/relu_3x3
I0403 21:54:16.228093 13231 net.cpp:425] inception_3b/relu_3x3 <- inception_3b/3x3
I0403 21:54:16.228118 13231 net.cpp:386] inception_3b/relu_3x3 -> inception_3b/3x3 (in-place)
I0403 21:54:16.228453 13231 net.cpp:141] Setting up inception_3b/relu_3x3
I0403 21:54:16.228487 13231 net.cpp:148] Top shape: 24 192 28 28 (3612672)
I0403 21:54:16.228507 13231 net.cpp:156] Memory required for data: 724943904
I0403 21:54:16.228524 13231 layer_factory.hpp:77] Creating layer inception_3b/5x5_reduce
I0403 21:54:16.228552 13231 net.cpp:91] Creating Layer inception_3b/5x5_reduce
I0403 21:54:16.228575 13231 net.cpp:425] inception_3b/5x5_reduce <- inception_3a/output_inception_3a/output_0_split_2
I0403 21:54:16.228603 13231 net.cpp:399] inception_3b/5x5_reduce -> inception_3b/5x5_reduce
I0403 21:54:16.229799 13231 net.cpp:141] Setting up inception_3b/5x5_reduce
I0403 21:54:16.229835 13231 net.cpp:148] Top shape: 24 32 28 28 (602112)
I0403 21:54:16.229853 13231 net.cpp:156] Memory required for data: 727352352
I0403 21:54:16.229876 13231 layer_factory.hpp:77] Creating layer inception_3b/relu_5x5_reduce
I0403 21:54:16.229898 13231 net.cpp:91] Creating Layer inception_3b/relu_5x5_reduce
I0403 21:54:16.229918 13231 net.cpp:425] inception_3b/relu_5x5_reduce <- inception_3b/5x5_reduce
I0403 21:54:16.229943 13231 net.cpp:386] inception_3b/relu_5x5_reduce -> inception_3b/5x5_reduce (in-place)
I0403 21:54:16.230159 13231 net.cpp:141] Setting up inception_3b/relu_5x5_reduce
I0403 21:54:16.230204 13231 net.cpp:148] Top shape: 24 32 28 28 (602112)
I0403 21:54:16.230231 13231 net.cpp:156] Memory required for data: 729760800
I0403 21:54:16.230250 13231 layer_factory.hpp:77] Creating layer inception_3b/5x5
I0403 21:54:16.230279 13231 net.cpp:91] Creating Layer inception_3b/5x5
I0403 21:54:16.230303 13231 net.cpp:425] inception_3b/5x5 <- inception_3b/5x5_reduce
I0403 21:54:16.230329 13231 net.cpp:399] inception_3b/5x5 -> inception_3b/5x5
I0403 21:54:16.232741 13231 net.cpp:141] Setting up inception_3b/5x5
I0403 21:54:16.232781 13231 net.cpp:148] Top shape: 24 96 28 28 (1806336)
I0403 21:54:16.232801 13231 net.cpp:156] Memory required for data: 736986144
I0403 21:54:16.232826 13231 layer_factory.hpp:77] Creating layer inception_3b/relu_5x5
I0403 21:54:16.232848 13231 net.cpp:91] Creating Layer inception_3b/relu_5x5
I0403 21:54:16.232868 13231 net.cpp:425] inception_3b/relu_5x5 <- inception_3b/5x5
I0403 21:54:16.232890 13231 net.cpp:386] inception_3b/relu_5x5 -> inception_3b/5x5 (in-place)
I0403 21:54:16.233125 13231 net.cpp:141] Setting up inception_3b/relu_5x5
I0403 21:54:16.233155 13231 net.cpp:148] Top shape: 24 96 28 28 (1806336)
I0403 21:54:16.233175 13231 net.cpp:156] Memory required for data: 744211488
I0403 21:54:16.233193 13231 layer_factory.hpp:77] Creating layer inception_3b/pool
I0403 21:54:16.233222 13231 net.cpp:91] Creating Layer inception_3b/pool
I0403 21:54:16.233243 13231 net.cpp:425] inception_3b/pool <- inception_3a/output_inception_3a/output_0_split_3
I0403 21:54:16.233265 13231 net.cpp:399] inception_3b/pool -> inception_3b/pool
I0403 21:54:16.233333 13231 net.cpp:141] Setting up inception_3b/pool
I0403 21:54:16.233366 13231 net.cpp:148] Top shape: 24 256 28 28 (4816896)
I0403 21:54:16.233386 13231 net.cpp:156] Memory required for data: 763479072
I0403 21:54:16.233405 13231 layer_factory.hpp:77] Creating layer inception_3b/pool_proj
I0403 21:54:16.233433 13231 net.cpp:91] Creating Layer inception_3b/pool_proj
I0403 21:54:16.233456 13231 net.cpp:425] inception_3b/pool_proj <- inception_3b/pool
I0403 21:54:16.233479 13231 net.cpp:399] inception_3b/pool_proj -> inception_3b/pool_proj
I0403 21:54:16.234748 13231 net.cpp:141] Setting up inception_3b/pool_proj
I0403 21:54:16.234783 13231 net.cpp:148] Top shape: 24 64 28 28 (1204224)
I0403 21:54:16.234804 13231 net.cpp:156] Memory required for data: 768295968
I0403 21:54:16.234827 13231 layer_factory.hpp:77] Creating layer inception_3b/relu_pool_proj
I0403 21:54:16.234853 13231 net.cpp:91] Creating Layer inception_3b/relu_pool_proj
I0403 21:54:16.234874 13231 net.cpp:425] inception_3b/relu_pool_proj <- inception_3b/pool_proj
I0403 21:54:16.234894 13231 net.cpp:386] inception_3b/relu_pool_proj -> inception_3b/pool_proj (in-place)
I0403 21:54:16.235345 13231 net.cpp:141] Setting up inception_3b/relu_pool_proj
I0403 21:54:16.235378 13231 net.cpp:148] Top shape: 24 64 28 28 (1204224)
I0403 21:54:16.235397 13231 net.cpp:156] Memory required for data: 773112864
I0403 21:54:16.235415 13231 layer_factory.hpp:77] Creating layer inception_3b/output
I0403 21:54:16.235437 13231 net.cpp:91] Creating Layer inception_3b/output
I0403 21:54:16.235456 13231 net.cpp:425] inception_3b/output <- inception_3b/1x1
I0403 21:54:16.235477 13231 net.cpp:425] inception_3b/output <- inception_3b/3x3
I0403 21:54:16.235499 13231 net.cpp:425] inception_3b/output <- inception_3b/5x5
I0403 21:54:16.235517 13231 net.cpp:425] inception_3b/output <- inception_3b/pool_proj
I0403 21:54:16.235541 13231 net.cpp:399] inception_3b/output -> inception_3b/output
I0403 21:54:16.235597 13231 net.cpp:141] Setting up inception_3b/output
I0403 21:54:16.235625 13231 net.cpp:148] Top shape: 24 480 28 28 (9031680)
I0403 21:54:16.235643 13231 net.cpp:156] Memory required for data: 809239584
I0403 21:54:16.235662 13231 layer_factory.hpp:77] Creating layer pool3/3x3_s2
I0403 21:54:16.235684 13231 net.cpp:91] Creating Layer pool3/3x3_s2
I0403 21:54:16.235702 13231 net.cpp:425] pool3/3x3_s2 <- inception_3b/output
I0403 21:54:16.235728 13231 net.cpp:399] pool3/3x3_s2 -> pool3/3x3_s2
I0403 21:54:16.235816 13231 net.cpp:141] Setting up pool3/3x3_s2
I0403 21:54:16.235846 13231 net.cpp:148] Top shape: 24 480 14 14 (2257920)
I0403 21:54:16.235864 13231 net.cpp:156] Memory required for data: 818271264
I0403 21:54:16.235883 13231 layer_factory.hpp:77] Creating layer pool3/3x3_s2_pool3/3x3_s2_0_split
I0403 21:54:16.235908 13231 net.cpp:91] Creating Layer pool3/3x3_s2_pool3/3x3_s2_0_split
I0403 21:54:16.235929 13231 net.cpp:425] pool3/3x3_s2_pool3/3x3_s2_0_split <- pool3/3x3_s2
I0403 21:54:16.235950 13231 net.cpp:399] pool3/3x3_s2_pool3/3x3_s2_0_split -> pool3/3x3_s2_pool3/3x3_s2_0_split_0
I0403 21:54:16.235976 13231 net.cpp:399] pool3/3x3_s2_pool3/3x3_s2_0_split -> pool3/3x3_s2_pool3/3x3_s2_0_split_1
I0403 21:54:16.236002 13231 net.cpp:399] pool3/3x3_s2_pool3/3x3_s2_0_split -> pool3/3x3_s2_pool3/3x3_s2_0_split_2
I0403 21:54:16.236028 13231 net.cpp:399] pool3/3x3_s2_pool3/3x3_s2_0_split -> pool3/3x3_s2_pool3/3x3_s2_0_split_3
I0403 21:54:16.236120 13231 net.cpp:141] Setting up pool3/3x3_s2_pool3/3x3_s2_0_split
I0403 21:54:16.236148 13231 net.cpp:148] Top shape: 24 480 14 14 (2257920)
I0403 21:54:16.236169 13231 net.cpp:148] Top shape: 24 480 14 14 (2257920)
I0403 21:54:16.236189 13231 net.cpp:148] Top shape: 24 480 14 14 (2257920)
I0403 21:54:16.236214 13231 net.cpp:148] Top shape: 24 480 14 14 (2257920)
I0403 21:54:16.236235 13231 net.cpp:156] Memory required for data: 854397984
I0403 21:54:16.236253 13231 layer_factory.hpp:77] Creating layer inception_4a/1x1
I0403 21:54:16.236281 13231 net.cpp:91] Creating Layer inception_4a/1x1
I0403 21:54:16.236302 13231 net.cpp:425] inception_4a/1x1 <- pool3/3x3_s2_pool3/3x3_s2_0_split_0
I0403 21:54:16.236328 13231 net.cpp:399] inception_4a/1x1 -> inception_4a/1x1
I0403 21:54:16.238243 13231 net.cpp:141] Setting up inception_4a/1x1
I0403 21:54:16.238278 13231 net.cpp:148] Top shape: 24 192 14 14 (903168)
I0403 21:54:16.238297 13231 net.cpp:156] Memory required for data: 858010656
I0403 21:54:16.238322 13231 layer_factory.hpp:77] Creating layer inception_4a/relu_1x1
I0403 21:54:16.238348 13231 net.cpp:91] Creating Layer inception_4a/relu_1x1
I0403 21:54:16.238368 13231 net.cpp:425] inception_4a/relu_1x1 <- inception_4a/1x1
I0403 21:54:16.238389 13231 net.cpp:386] inception_4a/relu_1x1 -> inception_4a/1x1 (in-place)
I0403 21:54:16.238605 13231 net.cpp:141] Setting up inception_4a/relu_1x1
I0403 21:54:16.238638 13231 net.cpp:148] Top shape: 24 192 14 14 (903168)
I0403 21:54:16.238657 13231 net.cpp:156] Memory required for data: 861623328
I0403 21:54:16.238677 13231 layer_factory.hpp:77] Creating layer inception_4a/3x3_reduce
I0403 21:54:16.238703 13231 net.cpp:91] Creating Layer inception_4a/3x3_reduce
I0403 21:54:16.238724 13231 net.cpp:425] inception_4a/3x3_reduce <- pool3/3x3_s2_pool3/3x3_s2_0_split_1
I0403 21:54:16.238749 13231 net.cpp:399] inception_4a/3x3_reduce -> inception_4a/3x3_reduce
I0403 21:54:16.240284 13231 net.cpp:141] Setting up inception_4a/3x3_reduce
I0403 21:54:16.240319 13231 net.cpp:148] Top shape: 24 96 14 14 (451584)
I0403 21:54:16.240339 13231 net.cpp:156] Memory required for data: 863429664
I0403 21:54:16.240370 13231 layer_factory.hpp:77] Creating layer inception_4a/relu_3x3_reduce
I0403 21:54:16.240398 13231 net.cpp:91] Creating Layer inception_4a/relu_3x3_reduce
I0403 21:54:16.240418 13231 net.cpp:425] inception_4a/relu_3x3_reduce <- inception_4a/3x3_reduce
I0403 21:54:16.240442 13231 net.cpp:386] inception_4a/relu_3x3_reduce -> inception_4a/3x3_reduce (in-place)
I0403 21:54:16.240658 13231 net.cpp:141] Setting up inception_4a/relu_3x3_reduce
I0403 21:54:16.240690 13231 net.cpp:148] Top shape: 24 96 14 14 (451584)
I0403 21:54:16.240710 13231 net.cpp:156] Memory required for data: 865236000
I0403 21:54:16.240728 13231 layer_factory.hpp:77] Creating layer inception_4a/3x3
I0403 21:54:16.240754 13231 net.cpp:91] Creating Layer inception_4a/3x3
I0403 21:54:16.240777 13231 net.cpp:425] inception_4a/3x3 <- inception_4a/3x3_reduce
I0403 21:54:16.240803 13231 net.cpp:399] inception_4a/3x3 -> inception_4a/3x3
I0403 21:54:16.244060 13231 net.cpp:141] Setting up inception_4a/3x3
I0403 21:54:16.244097 13231 net.cpp:148] Top shape: 24 208 14 14 (978432)
I0403 21:54:16.244117 13231 net.cpp:156] Memory required for data: 869149728
I0403 21:54:16.244140 13231 layer_factory.hpp:77] Creating layer inception_4a/relu_3x3
I0403 21:54:16.244163 13231 net.cpp:91] Creating Layer inception_4a/relu_3x3
I0403 21:54:16.244182 13231 net.cpp:425] inception_4a/relu_3x3 <- inception_4a/3x3
I0403 21:54:16.244206 13231 net.cpp:386] inception_4a/relu_3x3 -> inception_4a/3x3 (in-place)
I0403 21:54:16.244555 13231 net.cpp:141] Setting up inception_4a/relu_3x3
I0403 21:54:16.244591 13231 net.cpp:148] Top shape: 24 208 14 14 (978432)
I0403 21:54:16.244611 13231 net.cpp:156] Memory required for data: 873063456
I0403 21:54:16.244631 13231 layer_factory.hpp:77] Creating layer inception_4a/5x5_reduce
I0403 21:54:16.244659 13231 net.cpp:91] Creating Layer inception_4a/5x5_reduce
I0403 21:54:16.244683 13231 net.cpp:425] inception_4a/5x5_reduce <- pool3/3x3_s2_pool3/3x3_s2_0_split_2
I0403 21:54:16.244709 13231 net.cpp:399] inception_4a/5x5_reduce -> inception_4a/5x5_reduce
I0403 21:54:16.245939 13231 net.cpp:141] Setting up inception_4a/5x5_reduce
I0403 21:54:16.245975 13231 net.cpp:148] Top shape: 24 16 14 14 (75264)
I0403 21:54:16.245993 13231 net.cpp:156] Memory required for data: 873364512
I0403 21:54:16.246017 13231 layer_factory.hpp:77] Creating layer inception_4a/relu_5x5_reduce
I0403 21:54:16.246040 13231 net.cpp:91] Creating Layer inception_4a/relu_5x5_reduce
I0403 21:54:16.246059 13231 net.cpp:425] inception_4a/relu_5x5_reduce <- inception_4a/5x5_reduce
I0403 21:54:16.246083 13231 net.cpp:386] inception_4a/relu_5x5_reduce -> inception_4a/5x5_reduce (in-place)
I0403 21:54:16.246305 13231 net.cpp:141] Setting up inception_4a/relu_5x5_reduce
I0403 21:54:16.246336 13231 net.cpp:148] Top shape: 24 16 14 14 (75264)
I0403 21:54:16.246356 13231 net.cpp:156] Memory required for data: 873665568
I0403 21:54:16.246374 13231 layer_factory.hpp:77] Creating layer inception_4a/5x5
I0403 21:54:16.246402 13231 net.cpp:91] Creating Layer inception_4a/5x5
I0403 21:54:16.246424 13231 net.cpp:425] inception_4a/5x5 <- inception_4a/5x5_reduce
I0403 21:54:16.246450 13231 net.cpp:399] inception_4a/5x5 -> inception_4a/5x5
I0403 21:54:16.247763 13231 net.cpp:141] Setting up inception_4a/5x5
I0403 21:54:16.247797 13231 net.cpp:148] Top shape: 24 48 14 14 (225792)
I0403 21:54:16.247817 13231 net.cpp:156] Memory required for data: 874568736
I0403 21:54:16.247841 13231 layer_factory.hpp:77] Creating layer inception_4a/relu_5x5
I0403 21:54:16.247866 13231 net.cpp:91] Creating Layer inception_4a/relu_5x5
I0403 21:54:16.247885 13231 net.cpp:425] inception_4a/relu_5x5 <- inception_4a/5x5
I0403 21:54:16.247906 13231 net.cpp:386] inception_4a/relu_5x5 -> inception_4a/5x5 (in-place)
I0403 21:54:16.248122 13231 net.cpp:141] Setting up inception_4a/relu_5x5
I0403 21:54:16.248160 13231 net.cpp:148] Top shape: 24 48 14 14 (225792)
I0403 21:54:16.248179 13231 net.cpp:156] Memory required for data: 875471904
I0403 21:54:16.248198 13231 layer_factory.hpp:77] Creating layer inception_4a/pool
I0403 21:54:16.248227 13231 net.cpp:91] Creating Layer inception_4a/pool
I0403 21:54:16.248250 13231 net.cpp:425] inception_4a/pool <- pool3/3x3_s2_pool3/3x3_s2_0_split_3
I0403 21:54:16.248270 13231 net.cpp:399] inception_4a/pool -> inception_4a/pool
I0403 21:54:16.248347 13231 net.cpp:141] Setting up inception_4a/pool
I0403 21:54:16.248376 13231 net.cpp:148] Top shape: 24 480 14 14 (2257920)
I0403 21:54:16.248394 13231 net.cpp:156] Memory required for data: 884503584
I0403 21:54:16.248412 13231 layer_factory.hpp:77] Creating layer inception_4a/pool_proj
I0403 21:54:16.248440 13231 net.cpp:91] Creating Layer inception_4a/pool_proj
I0403 21:54:16.248462 13231 net.cpp:425] inception_4a/pool_proj <- inception_4a/pool
I0403 21:54:16.248488 13231 net.cpp:399] inception_4a/pool_proj -> inception_4a/pool_proj
I0403 21:54:16.249888 13231 net.cpp:141] Setting up inception_4a/pool_proj
I0403 21:54:16.249925 13231 net.cpp:148] Top shape: 24 64 14 14 (301056)
I0403 21:54:16.249963 13231 net.cpp:156] Memory required for data: 885707808
I0403 21:54:16.249986 13231 layer_factory.hpp:77] Creating layer inception_4a/relu_pool_proj
I0403 21:54:16.250015 13231 net.cpp:91] Creating Layer inception_4a/relu_pool_proj
I0403 21:54:16.250036 13231 net.cpp:425] inception_4a/relu_pool_proj <- inception_4a/pool_proj
I0403 21:54:16.250059 13231 net.cpp:386] inception_4a/relu_pool_proj -> inception_4a/pool_proj (in-place)
I0403 21:54:16.250398 13231 net.cpp:141] Setting up inception_4a/relu_pool_proj
I0403 21:54:16.250430 13231 net.cpp:148] Top shape: 24 64 14 14 (301056)
I0403 21:54:16.250450 13231 net.cpp:156] Memory required for data: 886912032
I0403 21:54:16.250469 13231 layer_factory.hpp:77] Creating layer inception_4a/output
I0403 21:54:16.250494 13231 net.cpp:91] Creating Layer inception_4a/output
I0403 21:54:16.250514 13231 net.cpp:425] inception_4a/output <- inception_4a/1x1
I0403 21:54:16.250535 13231 net.cpp:425] inception_4a/output <- inception_4a/3x3
I0403 21:54:16.250555 13231 net.cpp:425] inception_4a/output <- inception_4a/5x5
I0403 21:54:16.250573 13231 net.cpp:425] inception_4a/output <- inception_4a/pool_proj
I0403 21:54:16.250596 13231 net.cpp:399] inception_4a/output -> inception_4a/output
I0403 21:54:16.250651 13231 net.cpp:141] Setting up inception_4a/output
I0403 21:54:16.250679 13231 net.cpp:148] Top shape: 24 512 14 14 (2408448)
I0403 21:54:16.250699 13231 net.cpp:156] Memory required for data: 896545824
I0403 21:54:16.250716 13231 layer_factory.hpp:77] Creating layer inception_4a/output_inception_4a/output_0_split
I0403 21:54:16.250740 13231 net.cpp:91] Creating Layer inception_4a/output_inception_4a/output_0_split
I0403 21:54:16.250758 13231 net.cpp:425] inception_4a/output_inception_4a/output_0_split <- inception_4a/output
I0403 21:54:16.250784 13231 net.cpp:399] inception_4a/output_inception_4a/output_0_split -> inception_4a/output_inception_4a/output_0_split_0
I0403 21:54:16.250813 13231 net.cpp:399] inception_4a/output_inception_4a/output_0_split -> inception_4a/output_inception_4a/output_0_split_1
I0403 21:54:16.250838 13231 net.cpp:399] inception_4a/output_inception_4a/output_0_split -> inception_4a/output_inception_4a/output_0_split_2
I0403 21:54:16.250865 13231 net.cpp:399] inception_4a/output_inception_4a/output_0_split -> inception_4a/output_inception_4a/output_0_split_3
I0403 21:54:16.250895 13231 net.cpp:399] inception_4a/output_inception_4a/output_0_split -> inception_4a/output_inception_4a/output_0_split_4
I0403 21:54:16.251006 13231 net.cpp:141] Setting up inception_4a/output_inception_4a/output_0_split
I0403 21:54:16.251035 13231 net.cpp:148] Top shape: 24 512 14 14 (2408448)
I0403 21:54:16.251055 13231 net.cpp:148] Top shape: 24 512 14 14 (2408448)
I0403 21:54:16.251075 13231 net.cpp:148] Top shape: 24 512 14 14 (2408448)
I0403 21:54:16.251096 13231 net.cpp:148] Top shape: 24 512 14 14 (2408448)
I0403 21:54:16.251114 13231 net.cpp:148] Top shape: 24 512 14 14 (2408448)
I0403 21:54:16.251132 13231 net.cpp:156] Memory required for data: 944714784
I0403 21:54:16.251149 13231 layer_factory.hpp:77] Creating layer loss1/ave_pool
I0403 21:54:16.251171 13231 net.cpp:91] Creating Layer loss1/ave_pool
I0403 21:54:16.251191 13231 net.cpp:425] loss1/ave_pool <- inception_4a/output_inception_4a/output_0_split_0
I0403 21:54:16.251222 13231 net.cpp:399] loss1/ave_pool -> loss1/ave_pool
I0403 21:54:16.251473 13231 net.cpp:141] Setting up loss1/ave_pool
I0403 21:54:16.251505 13231 net.cpp:148] Top shape: 24 512 4 4 (196608)
I0403 21:54:16.251523 13231 net.cpp:156] Memory required for data: 945501216
I0403 21:54:16.251540 13231 layer_factory.hpp:77] Creating layer loss1/conv
I0403 21:54:16.251574 13231 net.cpp:91] Creating Layer loss1/conv
I0403 21:54:16.251596 13231 net.cpp:425] loss1/conv <- loss1/ave_pool
I0403 21:54:16.251619 13231 net.cpp:399] loss1/conv -> loss1/conv
I0403 21:54:16.253324 13231 net.cpp:141] Setting up loss1/conv
I0403 21:54:16.253357 13231 net.cpp:148] Top shape: 24 128 4 4 (49152)
I0403 21:54:16.253377 13231 net.cpp:156] Memory required for data: 945697824
I0403 21:54:16.253418 13231 layer_factory.hpp:77] Creating layer loss1/relu_conv
I0403 21:54:16.253443 13231 net.cpp:91] Creating Layer loss1/relu_conv
I0403 21:54:16.253464 13231 net.cpp:425] loss1/relu_conv <- loss1/conv
I0403 21:54:16.253487 13231 net.cpp:386] loss1/relu_conv -> loss1/conv (in-place)
I0403 21:54:16.253823 13231 net.cpp:141] Setting up loss1/relu_conv
I0403 21:54:16.253856 13231 net.cpp:148] Top shape: 24 128 4 4 (49152)
I0403 21:54:16.253875 13231 net.cpp:156] Memory required for data: 945894432
I0403 21:54:16.253895 13231 layer_factory.hpp:77] Creating layer loss1/fc
I0403 21:54:16.253923 13231 net.cpp:91] Creating Layer loss1/fc
I0403 21:54:16.253947 13231 net.cpp:425] loss1/fc <- loss1/conv
I0403 21:54:16.253973 13231 net.cpp:399] loss1/fc -> loss1/fc
I0403 21:54:16.276224 13231 net.cpp:141] Setting up loss1/fc
I0403 21:54:16.276276 13231 net.cpp:148] Top shape: 24 1024 (24576)
I0403 21:54:16.276298 13231 net.cpp:156] Memory required for data: 945992736
I0403 21:54:16.276322 13231 layer_factory.hpp:77] Creating layer loss1/relu_fc
I0403 21:54:16.276345 13231 net.cpp:91] Creating Layer loss1/relu_fc
I0403 21:54:16.276365 13231 net.cpp:425] loss1/relu_fc <- loss1/fc
I0403 21:54:16.276387 13231 net.cpp:386] loss1/relu_fc -> loss1/fc (in-place)
I0403 21:54:16.276618 13231 net.cpp:141] Setting up loss1/relu_fc
I0403 21:54:16.276651 13231 net.cpp:148] Top shape: 24 1024 (24576)
I0403 21:54:16.276671 13231 net.cpp:156] Memory required for data: 946091040
I0403 21:54:16.276690 13231 layer_factory.hpp:77] Creating layer loss1/drop_fc
I0403 21:54:16.276722 13231 net.cpp:91] Creating Layer loss1/drop_fc
I0403 21:54:16.276743 13231 net.cpp:425] loss1/drop_fc <- loss1/fc
I0403 21:54:16.276765 13231 net.cpp:386] loss1/drop_fc -> loss1/fc (in-place)
I0403 21:54:16.276836 13231 net.cpp:141] Setting up loss1/drop_fc
I0403 21:54:16.276865 13231 net.cpp:148] Top shape: 24 1024 (24576)
I0403 21:54:16.276882 13231 net.cpp:156] Memory required for data: 946189344
I0403 21:54:16.276903 13231 layer_factory.hpp:77] Creating layer loss1/classifier_plantvillage
I0403 21:54:16.276929 13231 net.cpp:91] Creating Layer loss1/classifier_plantvillage
I0403 21:54:16.276949 13231 net.cpp:425] loss1/classifier_plantvillage <- loss1/fc
I0403 21:54:16.276971 13231 net.cpp:399] loss1/classifier_plantvillage -> loss1/classifier_plantvillage
I0403 21:54:16.278089 13231 net.cpp:141] Setting up loss1/classifier_plantvillage
I0403 21:54:16.278126 13231 net.cpp:148] Top shape: 24 38 (912)
I0403 21:54:16.278147 13231 net.cpp:156] Memory required for data: 946192992
I0403 21:54:16.278170 13231 layer_factory.hpp:77] Creating layer loss1/classifier_plantvillage_loss1/classifier_plantvillage_0_split
I0403 21:54:16.278194 13231 net.cpp:91] Creating Layer loss1/classifier_plantvillage_loss1/classifier_plantvillage_0_split
I0403 21:54:16.278219 13231 net.cpp:425] loss1/classifier_plantvillage_loss1/classifier_plantvillage_0_split <- loss1/classifier_plantvillage
I0403 21:54:16.278242 13231 net.cpp:399] loss1/classifier_plantvillage_loss1/classifier_plantvillage_0_split -> loss1/classifier_plantvillage_loss1/classifier_plantvillage_0_split_0
I0403 21:54:16.278269 13231 net.cpp:399] loss1/classifier_plantvillage_loss1/classifier_plantvillage_0_split -> loss1/classifier_plantvillage_loss1/classifier_plantvillage_0_split_1
I0403 21:54:16.278300 13231 net.cpp:399] loss1/classifier_plantvillage_loss1/classifier_plantvillage_0_split -> loss1/classifier_plantvillage_loss1/classifier_plantvillage_0_split_2
I0403 21:54:16.278383 13231 net.cpp:141] Setting up loss1/classifier_plantvillage_loss1/classifier_plantvillage_0_split
I0403 21:54:16.278410 13231 net.cpp:148] Top shape: 24 38 (912)
I0403 21:54:16.278432 13231 net.cpp:148] Top shape: 24 38 (912)
I0403 21:54:16.278450 13231 net.cpp:148] Top shape: 24 38 (912)
I0403 21:54:16.278468 13231 net.cpp:156] Memory required for data: 946203936
I0403 21:54:16.278486 13231 layer_factory.hpp:77] Creating layer inception_4b/1x1
I0403 21:54:16.278512 13231 net.cpp:91] Creating Layer inception_4b/1x1
I0403 21:54:16.278553 13231 net.cpp:425] inception_4b/1x1 <- inception_4a/output_inception_4a/output_0_split_1
I0403 21:54:16.278580 13231 net.cpp:399] inception_4b/1x1 -> inception_4b/1x1
I0403 21:54:16.280550 13231 net.cpp:141] Setting up inception_4b/1x1
I0403 21:54:16.280583 13231 net.cpp:148] Top shape: 24 160 14 14 (752640)
I0403 21:54:16.280604 13231 net.cpp:156] Memory required for data: 949214496
I0403 21:54:16.280627 13231 layer_factory.hpp:77] Creating layer inception_4b/relu_1x1
I0403 21:54:16.280648 13231 net.cpp:91] Creating Layer inception_4b/relu_1x1
I0403 21:54:16.280668 13231 net.cpp:425] inception_4b/relu_1x1 <- inception_4b/1x1
I0403 21:54:16.280692 13231 net.cpp:386] inception_4b/relu_1x1 -> inception_4b/1x1 (in-place)
I0403 21:54:16.280908 13231 net.cpp:141] Setting up inception_4b/relu_1x1
I0403 21:54:16.280939 13231 net.cpp:148] Top shape: 24 160 14 14 (752640)
I0403 21:54:16.280958 13231 net.cpp:156] Memory required for data: 952225056
I0403 21:54:16.280975 13231 layer_factory.hpp:77] Creating layer inception_4b/3x3_reduce
I0403 21:54:16.281003 13231 net.cpp:91] Creating Layer inception_4b/3x3_reduce
I0403 21:54:16.281024 13231 net.cpp:425] inception_4b/3x3_reduce <- inception_4a/output_inception_4a/output_0_split_2
I0403 21:54:16.281054 13231 net.cpp:399] inception_4b/3x3_reduce -> inception_4b/3x3_reduce
I0403 21:54:16.282727 13231 net.cpp:141] Setting up inception_4b/3x3_reduce
I0403 21:54:16.282760 13231 net.cpp:148] Top shape: 24 112 14 14 (526848)
I0403 21:54:16.282779 13231 net.cpp:156] Memory required for data: 954332448
I0403 21:54:16.282802 13231 layer_factory.hpp:77] Creating layer inception_4b/relu_3x3_reduce
I0403 21:54:16.282827 13231 net.cpp:91] Creating Layer inception_4b/relu_3x3_reduce
I0403 21:54:16.282848 13231 net.cpp:425] inception_4b/relu_3x3_reduce <- inception_4b/3x3_reduce
I0403 21:54:16.282871 13231 net.cpp:386] inception_4b/relu_3x3_reduce -> inception_4b/3x3_reduce (in-place)
I0403 21:54:16.283206 13231 net.cpp:141] Setting up inception_4b/relu_3x3_reduce
I0403 21:54:16.283243 13231 net.cpp:148] Top shape: 24 112 14 14 (526848)
I0403 21:54:16.283262 13231 net.cpp:156] Memory required for data: 956439840
I0403 21:54:16.283280 13231 layer_factory.hpp:77] Creating layer inception_4b/3x3
I0403 21:54:16.283308 13231 net.cpp:91] Creating Layer inception_4b/3x3
I0403 21:54:16.283332 13231 net.cpp:425] inception_4b/3x3 <- inception_4b/3x3_reduce
I0403 21:54:16.283359 13231 net.cpp:399] inception_4b/3x3 -> inception_4b/3x3
I0403 21:54:16.287003 13231 net.cpp:141] Setting up inception_4b/3x3
I0403 21:54:16.287042 13231 net.cpp:148] Top shape: 24 224 14 14 (1053696)
I0403 21:54:16.287063 13231 net.cpp:156] Memory required for data: 960654624
I0403 21:54:16.287087 13231 layer_factory.hpp:77] Creating layer inception_4b/relu_3x3
I0403 21:54:16.287111 13231 net.cpp:91] Creating Layer inception_4b/relu_3x3
I0403 21:54:16.287129 13231 net.cpp:425] inception_4b/relu_3x3 <- inception_4b/3x3
I0403 21:54:16.287152 13231 net.cpp:386] inception_4b/relu_3x3 -> inception_4b/3x3 (in-place)
I0403 21:54:16.287387 13231 net.cpp:141] Setting up inception_4b/relu_3x3
I0403 21:54:16.287422 13231 net.cpp:148] Top shape: 24 224 14 14 (1053696)
I0403 21:54:16.287441 13231 net.cpp:156] Memory required for data: 964869408
I0403 21:54:16.287461 13231 layer_factory.hpp:77] Creating layer inception_4b/5x5_reduce
I0403 21:54:16.287487 13231 net.cpp:91] Creating Layer inception_4b/5x5_reduce
I0403 21:54:16.287511 13231 net.cpp:425] inception_4b/5x5_reduce <- inception_4a/output_inception_4a/output_0_split_3
I0403 21:54:16.287539 13231 net.cpp:399] inception_4b/5x5_reduce -> inception_4b/5x5_reduce
I0403 21:54:16.288861 13231 net.cpp:141] Setting up inception_4b/5x5_reduce
I0403 21:54:16.288895 13231 net.cpp:148] Top shape: 24 24 14 14 (112896)
I0403 21:54:16.288914 13231 net.cpp:156] Memory required for data: 965320992
I0403 21:54:16.288938 13231 layer_factory.hpp:77] Creating layer inception_4b/relu_5x5_reduce
I0403 21:54:16.288964 13231 net.cpp:91] Creating Layer inception_4b/relu_5x5_reduce
I0403 21:54:16.289003 13231 net.cpp:425] inception_4b/relu_5x5_reduce <- inception_4b/5x5_reduce
I0403 21:54:16.289026 13231 net.cpp:386] inception_4b/relu_5x5_reduce -> inception_4b/5x5_reduce (in-place)
I0403 21:54:16.289257 13231 net.cpp:141] Setting up inception_4b/relu_5x5_reduce
I0403 21:54:16.289286 13231 net.cpp:148] Top shape: 24 24 14 14 (112896)
I0403 21:54:16.289306 13231 net.cpp:156] Memory required for data: 965772576
I0403 21:54:16.289324 13231 layer_factory.hpp:77] Creating layer inception_4b/5x5
I0403 21:54:16.289352 13231 net.cpp:91] Creating Layer inception_4b/5x5
I0403 21:54:16.289376 13231 net.cpp:425] inception_4b/5x5 <- inception_4b/5x5_reduce
I0403 21:54:16.289402 13231 net.cpp:399] inception_4b/5x5 -> inception_4b/5x5
I0403 21:54:16.290905 13231 net.cpp:141] Setting up inception_4b/5x5
I0403 21:54:16.290940 13231 net.cpp:148] Top shape: 24 64 14 14 (301056)
I0403 21:54:16.290959 13231 net.cpp:156] Memory required for data: 966976800
I0403 21:54:16.290983 13231 layer_factory.hpp:77] Creating layer inception_4b/relu_5x5
I0403 21:54:16.291005 13231 net.cpp:91] Creating Layer inception_4b/relu_5x5
I0403 21:54:16.291025 13231 net.cpp:425] inception_4b/relu_5x5 <- inception_4b/5x5
I0403 21:54:16.291050 13231 net.cpp:386] inception_4b/relu_5x5 -> inception_4b/5x5 (in-place)
I0403 21:54:16.291404 13231 net.cpp:141] Setting up inception_4b/relu_5x5
I0403 21:54:16.291437 13231 net.cpp:148] Top shape: 24 64 14 14 (301056)
I0403 21:54:16.291456 13231 net.cpp:156] Memory required for data: 968181024
I0403 21:54:16.291476 13231 layer_factory.hpp:77] Creating layer inception_4b/pool
I0403 21:54:16.291497 13231 net.cpp:91] Creating Layer inception_4b/pool
I0403 21:54:16.291518 13231 net.cpp:425] inception_4b/pool <- inception_4a/output_inception_4a/output_0_split_4
I0403 21:54:16.291543 13231 net.cpp:399] inception_4b/pool -> inception_4b/pool
I0403 21:54:16.291625 13231 net.cpp:141] Setting up inception_4b/pool
I0403 21:54:16.291656 13231 net.cpp:148] Top shape: 24 512 14 14 (2408448)
I0403 21:54:16.291673 13231 net.cpp:156] Memory required for data: 977814816
I0403 21:54:16.291692 13231 layer_factory.hpp:77] Creating layer inception_4b/pool_proj
I0403 21:54:16.291721 13231 net.cpp:91] Creating Layer inception_4b/pool_proj
I0403 21:54:16.291744 13231 net.cpp:425] inception_4b/pool_proj <- inception_4b/pool
I0403 21:54:16.291765 13231 net.cpp:399] inception_4b/pool_proj -> inception_4b/pool_proj
I0403 21:54:16.293256 13231 net.cpp:141] Setting up inception_4b/pool_proj
I0403 21:54:16.293292 13231 net.cpp:148] Top shape: 24 64 14 14 (301056)
I0403 21:54:16.293310 13231 net.cpp:156] Memory required for data: 979019040
I0403 21:54:16.293334 13231 layer_factory.hpp:77] Creating layer inception_4b/relu_pool_proj
I0403 21:54:16.293357 13231 net.cpp:91] Creating Layer inception_4b/relu_pool_proj
I0403 21:54:16.293378 13231 net.cpp:425] inception_4b/relu_pool_proj <- inception_4b/pool_proj
I0403 21:54:16.293403 13231 net.cpp:386] inception_4b/relu_pool_proj -> inception_4b/pool_proj (in-place)
I0403 21:54:16.293625 13231 net.cpp:141] Setting up inception_4b/relu_pool_proj
I0403 21:54:16.293656 13231 net.cpp:148] Top shape: 24 64 14 14 (301056)
I0403 21:54:16.293674 13231 net.cpp:156] Memory required for data: 980223264
I0403 21:54:16.293692 13231 layer_factory.hpp:77] Creating layer inception_4b/output
I0403 21:54:16.293717 13231 net.cpp:91] Creating Layer inception_4b/output
I0403 21:54:16.293737 13231 net.cpp:425] inception_4b/output <- inception_4b/1x1
I0403 21:54:16.293758 13231 net.cpp:425] inception_4b/output <- inception_4b/3x3
I0403 21:54:16.293778 13231 net.cpp:425] inception_4b/output <- inception_4b/5x5
I0403 21:54:16.293797 13231 net.cpp:425] inception_4b/output <- inception_4b/pool_proj
I0403 21:54:16.293818 13231 net.cpp:399] inception_4b/output -> inception_4b/output
I0403 21:54:16.293875 13231 net.cpp:141] Setting up inception_4b/output
I0403 21:54:16.293905 13231 net.cpp:148] Top shape: 24 512 14 14 (2408448)
I0403 21:54:16.293925 13231 net.cpp:156] Memory required for data: 989857056
I0403 21:54:16.293962 13231 layer_factory.hpp:77] Creating layer inception_4b/output_inception_4b/output_0_split
I0403 21:54:16.293983 13231 net.cpp:91] Creating Layer inception_4b/output_inception_4b/output_0_split
I0403 21:54:16.294001 13231 net.cpp:425] inception_4b/output_inception_4b/output_0_split <- inception_4b/output
I0403 21:54:16.294028 13231 net.cpp:399] inception_4b/output_inception_4b/output_0_split -> inception_4b/output_inception_4b/output_0_split_0
I0403 21:54:16.294054 13231 net.cpp:399] inception_4b/output_inception_4b/output_0_split -> inception_4b/output_inception_4b/output_0_split_1
I0403 21:54:16.294078 13231 net.cpp:399] inception_4b/output_inception_4b/output_0_split -> inception_4b/output_inception_4b/output_0_split_2
I0403 21:54:16.294103 13231 net.cpp:399] inception_4b/output_inception_4b/output_0_split -> inception_4b/output_inception_4b/output_0_split_3
I0403 21:54:16.294205 13231 net.cpp:141] Setting up inception_4b/output_inception_4b/output_0_split
I0403 21:54:16.294244 13231 net.cpp:148] Top shape: 24 512 14 14 (2408448)
I0403 21:54:16.294265 13231 net.cpp:148] Top shape: 24 512 14 14 (2408448)
I0403 21:54:16.294284 13231 net.cpp:148] Top shape: 24 512 14 14 (2408448)
I0403 21:54:16.294304 13231 net.cpp:148] Top shape: 24 512 14 14 (2408448)
I0403 21:54:16.294322 13231 net.cpp:156] Memory required for data: 1028392224
I0403 21:54:16.294340 13231 layer_factory.hpp:77] Creating layer inception_4c/1x1
I0403 21:54:16.294368 13231 net.cpp:91] Creating Layer inception_4c/1x1
I0403 21:54:16.294391 13231 net.cpp:425] inception_4c/1x1 <- inception_4b/output_inception_4b/output_0_split_0
I0403 21:54:16.294414 13231 net.cpp:399] inception_4c/1x1 -> inception_4c/1x1
I0403 21:54:16.296177 13231 net.cpp:141] Setting up inception_4c/1x1
I0403 21:54:16.296218 13231 net.cpp:148] Top shape: 24 128 14 14 (602112)
I0403 21:54:16.296241 13231 net.cpp:156] Memory required for data: 1030800672
I0403 21:54:16.296264 13231 layer_factory.hpp:77] Creating layer inception_4c/relu_1x1
I0403 21:54:16.296291 13231 net.cpp:91] Creating Layer inception_4c/relu_1x1
I0403 21:54:16.296313 13231 net.cpp:425] inception_4c/relu_1x1 <- inception_4c/1x1
I0403 21:54:16.296334 13231 net.cpp:386] inception_4c/relu_1x1 -> inception_4c/1x1 (in-place)
I0403 21:54:16.296563 13231 net.cpp:141] Setting up inception_4c/relu_1x1
I0403 21:54:16.296597 13231 net.cpp:148] Top shape: 24 128 14 14 (602112)
I0403 21:54:16.296617 13231 net.cpp:156] Memory required for data: 1033209120
I0403 21:54:16.296636 13231 layer_factory.hpp:77] Creating layer inception_4c/3x3_reduce
I0403 21:54:16.296663 13231 net.cpp:91] Creating Layer inception_4c/3x3_reduce
I0403 21:54:16.296684 13231 net.cpp:425] inception_4c/3x3_reduce <- inception_4b/output_inception_4b/output_0_split_1
I0403 21:54:16.296708 13231 net.cpp:399] inception_4c/3x3_reduce -> inception_4c/3x3_reduce
I0403 21:54:16.299083 13231 net.cpp:141] Setting up inception_4c/3x3_reduce
I0403 21:54:16.299121 13231 net.cpp:148] Top shape: 24 128 14 14 (602112)
I0403 21:54:16.299142 13231 net.cpp:156] Memory required for data: 1035617568
I0403 21:54:16.299165 13231 layer_factory.hpp:77] Creating layer inception_4c/relu_3x3_reduce
I0403 21:54:16.299187 13231 net.cpp:91] Creating Layer inception_4c/relu_3x3_reduce
I0403 21:54:16.299212 13231 net.cpp:425] inception_4c/relu_3x3_reduce <- inception_4c/3x3_reduce
I0403 21:54:16.299242 13231 net.cpp:386] inception_4c/relu_3x3_reduce -> inception_4c/3x3_reduce (in-place)
I0403 21:54:16.299590 13231 net.cpp:141] Setting up inception_4c/relu_3x3_reduce
I0403 21:54:16.299626 13231 net.cpp:148] Top shape: 24 128 14 14 (602112)
I0403 21:54:16.299646 13231 net.cpp:156] Memory required for data: 1038026016
I0403 21:54:16.299664 13231 layer_factory.hpp:77] Creating layer inception_4c/3x3
I0403 21:54:16.299693 13231 net.cpp:91] Creating Layer inception_4c/3x3
I0403 21:54:16.299715 13231 net.cpp:425] inception_4c/3x3 <- inception_4c/3x3_reduce
I0403 21:54:16.299738 13231 net.cpp:399] inception_4c/3x3 -> inception_4c/3x3
I0403 21:54:16.304143 13231 net.cpp:141] Setting up inception_4c/3x3
I0403 21:54:16.304194 13231 net.cpp:148] Top shape: 24 256 14 14 (1204224)
I0403 21:54:16.304220 13231 net.cpp:156] Memory required for data: 1042842912
I0403 21:54:16.304262 13231 layer_factory.hpp:77] Creating layer inception_4c/relu_3x3
I0403 21:54:16.304288 13231 net.cpp:91] Creating Layer inception_4c/relu_3x3
I0403 21:54:16.304309 13231 net.cpp:425] inception_4c/relu_3x3 <- inception_4c/3x3
I0403 21:54:16.304333 13231 net.cpp:386] inception_4c/relu_3x3 -> inception_4c/3x3 (in-place)
I0403 21:54:16.304559 13231 net.cpp:141] Setting up inception_4c/relu_3x3
I0403 21:54:16.304590 13231 net.cpp:148] Top shape: 24 256 14 14 (1204224)
I0403 21:54:16.304608 13231 net.cpp:156] Memory required for data: 1047659808
I0403 21:54:16.304627 13231 layer_factory.hpp:77] Creating layer inception_4c/5x5_reduce
I0403 21:54:16.304657 13231 net.cpp:91] Creating Layer inception_4c/5x5_reduce
I0403 21:54:16.304680 13231 net.cpp:425] inception_4c/5x5_reduce <- inception_4b/output_inception_4b/output_0_split_2
I0403 21:54:16.304708 13231 net.cpp:399] inception_4c/5x5_reduce -> inception_4c/5x5_reduce
I0403 21:54:16.306061 13231 net.cpp:141] Setting up inception_4c/5x5_reduce
I0403 21:54:16.306095 13231 net.cpp:148] Top shape: 24 24 14 14 (112896)
I0403 21:54:16.306114 13231 net.cpp:156] Memory required for data: 1048111392
I0403 21:54:16.306138 13231 layer_factory.hpp:77] Creating layer inception_4c/relu_5x5_reduce
I0403 21:54:16.306160 13231 net.cpp:91] Creating Layer inception_4c/relu_5x5_reduce
I0403 21:54:16.306180 13231 net.cpp:425] inception_4c/relu_5x5_reduce <- inception_4c/5x5_reduce
I0403 21:54:16.306205 13231 net.cpp:386] inception_4c/relu_5x5_reduce -> inception_4c/5x5_reduce (in-place)
I0403 21:54:16.306437 13231 net.cpp:141] Setting up inception_4c/relu_5x5_reduce
I0403 21:54:16.306468 13231 net.cpp:148] Top shape: 24 24 14 14 (112896)
I0403 21:54:16.306488 13231 net.cpp:156] Memory required for data: 1048562976
I0403 21:54:16.306506 13231 layer_factory.hpp:77] Creating layer inception_4c/5x5
I0403 21:54:16.306535 13231 net.cpp:91] Creating Layer inception_4c/5x5
I0403 21:54:16.306556 13231 net.cpp:425] inception_4c/5x5 <- inception_4c/5x5_reduce
I0403 21:54:16.306581 13231 net.cpp:399] inception_4c/5x5 -> inception_4c/5x5
I0403 21:54:16.308107 13231 net.cpp:141] Setting up inception_4c/5x5
I0403 21:54:16.308142 13231 net.cpp:148] Top shape: 24 64 14 14 (301056)
I0403 21:54:16.308161 13231 net.cpp:156] Memory required for data: 1049767200
I0403 21:54:16.308185 13231 layer_factory.hpp:77] Creating layer inception_4c/relu_5x5
I0403 21:54:16.308215 13231 net.cpp:91] Creating Layer inception_4c/relu_5x5
I0403 21:54:16.308238 13231 net.cpp:425] inception_4c/relu_5x5 <- inception_4c/5x5
I0403 21:54:16.308259 13231 net.cpp:386] inception_4c/relu_5x5 -> inception_4c/5x5 (in-place)
I0403 21:54:16.308605 13231 net.cpp:141] Setting up inception_4c/relu_5x5
I0403 21:54:16.308639 13231 net.cpp:148] Top shape: 24 64 14 14 (301056)
I0403 21:54:16.308660 13231 net.cpp:156] Memory required for data: 1050971424
I0403 21:54:16.308678 13231 layer_factory.hpp:77] Creating layer inception_4c/pool
I0403 21:54:16.308703 13231 net.cpp:91] Creating Layer inception_4c/pool
I0403 21:54:16.308725 13231 net.cpp:425] inception_4c/pool <- inception_4b/output_inception_4b/output_0_split_3
I0403 21:54:16.308749 13231 net.cpp:399] inception_4c/pool -> inception_4c/pool
I0403 21:54:16.308831 13231 net.cpp:141] Setting up inception_4c/pool
I0403 21:54:16.308859 13231 net.cpp:148] Top shape: 24 512 14 14 (2408448)
I0403 21:54:16.308877 13231 net.cpp:156] Memory required for data: 1060605216
I0403 21:54:16.308894 13231 layer_factory.hpp:77] Creating layer inception_4c/pool_proj
I0403 21:54:16.308920 13231 net.cpp:91] Creating Layer inception_4c/pool_proj
I0403 21:54:16.308943 13231 net.cpp:425] inception_4c/pool_proj <- inception_4c/pool
I0403 21:54:16.308970 13231 net.cpp:399] inception_4c/pool_proj -> inception_4c/pool_proj
I0403 21:54:16.310469 13231 net.cpp:141] Setting up inception_4c/pool_proj
I0403 21:54:16.310504 13231 net.cpp:148] Top shape: 24 64 14 14 (301056)
I0403 21:54:16.310540 13231 net.cpp:156] Memory required for data: 1061809440
I0403 21:54:16.310564 13231 layer_factory.hpp:77] Creating layer inception_4c/relu_pool_proj
I0403 21:54:16.310587 13231 net.cpp:91] Creating Layer inception_4c/relu_pool_proj
I0403 21:54:16.310607 13231 net.cpp:425] inception_4c/relu_pool_proj <- inception_4c/pool_proj
I0403 21:54:16.310632 13231 net.cpp:386] inception_4c/relu_pool_proj -> inception_4c/pool_proj (in-place)
I0403 21:54:16.310854 13231 net.cpp:141] Setting up inception_4c/relu_pool_proj
I0403 21:54:16.310885 13231 net.cpp:148] Top shape: 24 64 14 14 (301056)
I0403 21:54:16.310904 13231 net.cpp:156] Memory required for data: 1063013664
I0403 21:54:16.310922 13231 layer_factory.hpp:77] Creating layer inception_4c/output
I0403 21:54:16.310946 13231 net.cpp:91] Creating Layer inception_4c/output
I0403 21:54:16.310967 13231 net.cpp:425] inception_4c/output <- inception_4c/1x1
I0403 21:54:16.310988 13231 net.cpp:425] inception_4c/output <- inception_4c/3x3
I0403 21:54:16.311007 13231 net.cpp:425] inception_4c/output <- inception_4c/5x5
I0403 21:54:16.311028 13231 net.cpp:425] inception_4c/output <- inception_4c/pool_proj
I0403 21:54:16.311048 13231 net.cpp:399] inception_4c/output -> inception_4c/output
I0403 21:54:16.311106 13231 net.cpp:141] Setting up inception_4c/output
I0403 21:54:16.311136 13231 net.cpp:148] Top shape: 24 512 14 14 (2408448)
I0403 21:54:16.311154 13231 net.cpp:156] Memory required for data: 1072647456
I0403 21:54:16.311174 13231 layer_factory.hpp:77] Creating layer inception_4c/output_inception_4c/output_0_split
I0403 21:54:16.311195 13231 net.cpp:91] Creating Layer inception_4c/output_inception_4c/output_0_split
I0403 21:54:16.311223 13231 net.cpp:425] inception_4c/output_inception_4c/output_0_split <- inception_4c/output
I0403 21:54:16.311249 13231 net.cpp:399] inception_4c/output_inception_4c/output_0_split -> inception_4c/output_inception_4c/output_0_split_0
I0403 21:54:16.311277 13231 net.cpp:399] inception_4c/output_inception_4c/output_0_split -> inception_4c/output_inception_4c/output_0_split_1
I0403 21:54:16.311305 13231 net.cpp:399] inception_4c/output_inception_4c/output_0_split -> inception_4c/output_inception_4c/output_0_split_2
I0403 21:54:16.311328 13231 net.cpp:399] inception_4c/output_inception_4c/output_0_split -> inception_4c/output_inception_4c/output_0_split_3
I0403 21:54:16.311434 13231 net.cpp:141] Setting up inception_4c/output_inception_4c/output_0_split
I0403 21:54:16.311466 13231 net.cpp:148] Top shape: 24 512 14 14 (2408448)
I0403 21:54:16.311488 13231 net.cpp:148] Top shape: 24 512 14 14 (2408448)
I0403 21:54:16.311508 13231 net.cpp:148] Top shape: 24 512 14 14 (2408448)
I0403 21:54:16.311528 13231 net.cpp:148] Top shape: 24 512 14 14 (2408448)
I0403 21:54:16.311547 13231 net.cpp:156] Memory required for data: 1111182624
I0403 21:54:16.311564 13231 layer_factory.hpp:77] Creating layer inception_4d/1x1
I0403 21:54:16.311591 13231 net.cpp:91] Creating Layer inception_4d/1x1
I0403 21:54:16.311614 13231 net.cpp:425] inception_4d/1x1 <- inception_4c/output_inception_4c/output_0_split_0
I0403 21:54:16.311637 13231 net.cpp:399] inception_4d/1x1 -> inception_4d/1x1
I0403 21:54:16.313351 13231 net.cpp:141] Setting up inception_4d/1x1
I0403 21:54:16.313390 13231 net.cpp:148] Top shape: 24 112 14 14 (526848)
I0403 21:54:16.313410 13231 net.cpp:156] Memory required for data: 1113290016
I0403 21:54:16.313432 13231 layer_factory.hpp:77] Creating layer inception_4d/relu_1x1
I0403 21:54:16.313455 13231 net.cpp:91] Creating Layer inception_4d/relu_1x1
I0403 21:54:16.313475 13231 net.cpp:425] inception_4d/relu_1x1 <- inception_4d/1x1
I0403 21:54:16.313496 13231 net.cpp:386] inception_4d/relu_1x1 -> inception_4d/1x1 (in-place)
I0403 21:54:16.313727 13231 net.cpp:141] Setting up inception_4d/relu_1x1
I0403 21:54:16.313760 13231 net.cpp:148] Top shape: 24 112 14 14 (526848)
I0403 21:54:16.313777 13231 net.cpp:156] Memory required for data: 1115397408
I0403 21:54:16.313796 13231 layer_factory.hpp:77] Creating layer inception_4d/3x3_reduce
I0403 21:54:16.313840 13231 net.cpp:91] Creating Layer inception_4d/3x3_reduce
I0403 21:54:16.313864 13231 net.cpp:425] inception_4d/3x3_reduce <- inception_4c/output_inception_4c/output_0_split_1
I0403 21:54:16.313891 13231 net.cpp:399] inception_4d/3x3_reduce -> inception_4d/3x3_reduce
I0403 21:54:16.315757 13231 net.cpp:141] Setting up inception_4d/3x3_reduce
I0403 21:54:16.315791 13231 net.cpp:148] Top shape: 24 144 14 14 (677376)
I0403 21:54:16.315810 13231 net.cpp:156] Memory required for data: 1118106912
I0403 21:54:16.315834 13231 layer_factory.hpp:77] Creating layer inception_4d/relu_3x3_reduce
I0403 21:54:16.315858 13231 net.cpp:91] Creating Layer inception_4d/relu_3x3_reduce
I0403 21:54:16.315881 13231 net.cpp:425] inception_4d/relu_3x3_reduce <- inception_4d/3x3_reduce
I0403 21:54:16.315901 13231 net.cpp:386] inception_4d/relu_3x3_reduce -> inception_4d/3x3_reduce (in-place)
I0403 21:54:16.316251 13231 net.cpp:141] Setting up inception_4d/relu_3x3_reduce
I0403 21:54:16.316283 13231 net.cpp:148] Top shape: 24 144 14 14 (677376)
I0403 21:54:16.316303 13231 net.cpp:156] Memory required for data: 1120816416
I0403 21:54:16.316321 13231 layer_factory.hpp:77] Creating layer inception_4d/3x3
I0403 21:54:16.316349 13231 net.cpp:91] Creating Layer inception_4d/3x3
I0403 21:54:16.316372 13231 net.cpp:425] inception_4d/3x3 <- inception_4d/3x3_reduce
I0403 21:54:16.316397 13231 net.cpp:399] inception_4d/3x3 -> inception_4d/3x3
I0403 21:54:16.321735 13231 net.cpp:141] Setting up inception_4d/3x3
I0403 21:54:16.321775 13231 net.cpp:148] Top shape: 24 288 14 14 (1354752)
I0403 21:54:16.321795 13231 net.cpp:156] Memory required for data: 1126235424
I0403 21:54:16.321817 13231 layer_factory.hpp:77] Creating layer inception_4d/relu_3x3
I0403 21:54:16.321841 13231 net.cpp:91] Creating Layer inception_4d/relu_3x3
I0403 21:54:16.321861 13231 net.cpp:425] inception_4d/relu_3x3 <- inception_4d/3x3
I0403 21:54:16.321884 13231 net.cpp:386] inception_4d/relu_3x3 -> inception_4d/3x3 (in-place)
I0403 21:54:16.322111 13231 net.cpp:141] Setting up inception_4d/relu_3x3
I0403 21:54:16.322141 13231 net.cpp:148] Top shape: 24 288 14 14 (1354752)
I0403 21:54:16.322160 13231 net.cpp:156] Memory required for data: 1131654432
I0403 21:54:16.322178 13231 layer_factory.hpp:77] Creating layer inception_4d/5x5_reduce
I0403 21:54:16.322206 13231 net.cpp:91] Creating Layer inception_4d/5x5_reduce
I0403 21:54:16.322243 13231 net.cpp:425] inception_4d/5x5_reduce <- inception_4c/output_inception_4c/output_0_split_2
I0403 21:54:16.322271 13231 net.cpp:399] inception_4d/5x5_reduce -> inception_4d/5x5_reduce
I0403 21:54:16.323683 13231 net.cpp:141] Setting up inception_4d/5x5_reduce
I0403 21:54:16.323719 13231 net.cpp:148] Top shape: 24 32 14 14 (150528)
I0403 21:54:16.323740 13231 net.cpp:156] Memory required for data: 1132256544
I0403 21:54:16.323765 13231 layer_factory.hpp:77] Creating layer inception_4d/relu_5x5_reduce
I0403 21:54:16.323787 13231 net.cpp:91] Creating Layer inception_4d/relu_5x5_reduce
I0403 21:54:16.323807 13231 net.cpp:425] inception_4d/relu_5x5_reduce <- inception_4d/5x5_reduce
I0403 21:54:16.323829 13231 net.cpp:386] inception_4d/relu_5x5_reduce -> inception_4d/5x5_reduce (in-place)
I0403 21:54:16.324067 13231 net.cpp:141] Setting up inception_4d/relu_5x5_reduce
I0403 21:54:16.324098 13231 net.cpp:148] Top shape: 24 32 14 14 (150528)
I0403 21:54:16.324116 13231 net.cpp:156] Memory required for data: 1132858656
I0403 21:54:16.324136 13231 layer_factory.hpp:77] Creating layer inception_4d/5x5
I0403 21:54:16.324163 13231 net.cpp:91] Creating Layer inception_4d/5x5
I0403 21:54:16.324187 13231 net.cpp:425] inception_4d/5x5 <- inception_4d/5x5_reduce
I0403 21:54:16.324216 13231 net.cpp:399] inception_4d/5x5 -> inception_4d/5x5
I0403 21:54:16.325994 13231 net.cpp:141] Setting up inception_4d/5x5
I0403 21:54:16.326028 13231 net.cpp:148] Top shape: 24 64 14 14 (301056)
I0403 21:54:16.326048 13231 net.cpp:156] Memory required for data: 1134062880
I0403 21:54:16.326073 13231 layer_factory.hpp:77] Creating layer inception_4d/relu_5x5
I0403 21:54:16.326117 13231 net.cpp:91] Creating Layer inception_4d/relu_5x5
I0403 21:54:16.326139 13231 net.cpp:425] inception_4d/relu_5x5 <- inception_4d/5x5
I0403 21:54:16.326161 13231 net.cpp:386] inception_4d/relu_5x5 -> inception_4d/5x5 (in-place)
I0403 21:54:16.326529 13231 net.cpp:141] Setting up inception_4d/relu_5x5
I0403 21:54:16.326561 13231 net.cpp:148] Top shape: 24 64 14 14 (301056)
I0403 21:54:16.326580 13231 net.cpp:156] Memory required for data: 1135267104
I0403 21:54:16.326598 13231 layer_factory.hpp:77] Creating layer inception_4d/pool
I0403 21:54:16.326624 13231 net.cpp:91] Creating Layer inception_4d/pool
I0403 21:54:16.326645 13231 net.cpp:425] inception_4d/pool <- inception_4c/output_inception_4c/output_0_split_3
I0403 21:54:16.326669 13231 net.cpp:399] inception_4d/pool -> inception_4d/pool
I0403 21:54:16.326755 13231 net.cpp:141] Setting up inception_4d/pool
I0403 21:54:16.326784 13231 net.cpp:148] Top shape: 24 512 14 14 (2408448)
I0403 21:54:16.326803 13231 net.cpp:156] Memory required for data: 1144900896
I0403 21:54:16.326820 13231 layer_factory.hpp:77] Creating layer inception_4d/pool_proj
I0403 21:54:16.326848 13231 net.cpp:91] Creating Layer inception_4d/pool_proj
I0403 21:54:16.326869 13231 net.cpp:425] inception_4d/pool_proj <- inception_4d/pool
I0403 21:54:16.326895 13231 net.cpp:399] inception_4d/pool_proj -> inception_4d/pool_proj
I0403 21:54:16.329067 13231 net.cpp:141] Setting up inception_4d/pool_proj
I0403 21:54:16.329107 13231 net.cpp:148] Top shape: 24 64 14 14 (301056)
I0403 21:54:16.329126 13231 net.cpp:156] Memory required for data: 1146105120
I0403 21:54:16.329149 13231 layer_factory.hpp:77] Creating layer inception_4d/relu_pool_proj
I0403 21:54:16.329172 13231 net.cpp:91] Creating Layer inception_4d/relu_pool_proj
I0403 21:54:16.329195 13231 net.cpp:425] inception_4d/relu_pool_proj <- inception_4d/pool_proj
I0403 21:54:16.329223 13231 net.cpp:386] inception_4d/relu_pool_proj -> inception_4d/pool_proj (in-place)
I0403 21:54:16.329454 13231 net.cpp:141] Setting up inception_4d/relu_pool_proj
I0403 21:54:16.329485 13231 net.cpp:148] Top shape: 24 64 14 14 (301056)
I0403 21:54:16.329504 13231 net.cpp:156] Memory required for data: 1147309344
I0403 21:54:16.329522 13231 layer_factory.hpp:77] Creating layer inception_4d/output
I0403 21:54:16.329543 13231 net.cpp:91] Creating Layer inception_4d/output
I0403 21:54:16.329562 13231 net.cpp:425] inception_4d/output <- inception_4d/1x1
I0403 21:54:16.329582 13231 net.cpp:425] inception_4d/output <- inception_4d/3x3
I0403 21:54:16.329603 13231 net.cpp:425] inception_4d/output <- inception_4d/5x5
I0403 21:54:16.329622 13231 net.cpp:425] inception_4d/output <- inception_4d/pool_proj
I0403 21:54:16.329644 13231 net.cpp:399] inception_4d/output -> inception_4d/output
I0403 21:54:16.329704 13231 net.cpp:141] Setting up inception_4d/output
I0403 21:54:16.329736 13231 net.cpp:148] Top shape: 24 528 14 14 (2483712)
I0403 21:54:16.329756 13231 net.cpp:156] Memory required for data: 1157244192
I0403 21:54:16.329772 13231 layer_factory.hpp:77] Creating layer inception_4d/output_inception_4d/output_0_split
I0403 21:54:16.329794 13231 net.cpp:91] Creating Layer inception_4d/output_inception_4d/output_0_split
I0403 21:54:16.329814 13231 net.cpp:425] inception_4d/output_inception_4d/output_0_split <- inception_4d/output
I0403 21:54:16.329839 13231 net.cpp:399] inception_4d/output_inception_4d/output_0_split -> inception_4d/output_inception_4d/output_0_split_0
I0403 21:54:16.329867 13231 net.cpp:399] inception_4d/output_inception_4d/output_0_split -> inception_4d/output_inception_4d/output_0_split_1
I0403 21:54:16.329893 13231 net.cpp:399] inception_4d/output_inception_4d/output_0_split -> inception_4d/output_inception_4d/output_0_split_2
I0403 21:54:16.329919 13231 net.cpp:399] inception_4d/output_inception_4d/output_0_split -> inception_4d/output_inception_4d/output_0_split_3
I0403 21:54:16.329944 13231 net.cpp:399] inception_4d/output_inception_4d/output_0_split -> inception_4d/output_inception_4d/output_0_split_4
I0403 21:54:16.330072 13231 net.cpp:141] Setting up inception_4d/output_inception_4d/output_0_split
I0403 21:54:16.330121 13231 net.cpp:148] Top shape: 24 528 14 14 (2483712)
I0403 21:54:16.330142 13231 net.cpp:148] Top shape: 24 528 14 14 (2483712)
I0403 21:54:16.330163 13231 net.cpp:148] Top shape: 24 528 14 14 (2483712)
I0403 21:54:16.330181 13231 net.cpp:148] Top shape: 24 528 14 14 (2483712)
I0403 21:54:16.330201 13231 net.cpp:148] Top shape: 24 528 14 14 (2483712)
I0403 21:54:16.330225 13231 net.cpp:156] Memory required for data: 1206918432
I0403 21:54:16.330243 13231 layer_factory.hpp:77] Creating layer loss2/ave_pool
I0403 21:54:16.330266 13231 net.cpp:91] Creating Layer loss2/ave_pool
I0403 21:54:16.330286 13231 net.cpp:425] loss2/ave_pool <- inception_4d/output_inception_4d/output_0_split_0
I0403 21:54:16.330308 13231 net.cpp:399] loss2/ave_pool -> loss2/ave_pool
I0403 21:54:16.330687 13231 net.cpp:141] Setting up loss2/ave_pool
I0403 21:54:16.330723 13231 net.cpp:148] Top shape: 24 528 4 4 (202752)
I0403 21:54:16.330744 13231 net.cpp:156] Memory required for data: 1207729440
I0403 21:54:16.330762 13231 layer_factory.hpp:77] Creating layer loss2/conv
I0403 21:54:16.330790 13231 net.cpp:91] Creating Layer loss2/conv
I0403 21:54:16.330812 13231 net.cpp:425] loss2/conv <- loss2/ave_pool
I0403 21:54:16.330837 13231 net.cpp:399] loss2/conv -> loss2/conv
I0403 21:54:16.333187 13231 net.cpp:141] Setting up loss2/conv
I0403 21:54:16.333230 13231 net.cpp:148] Top shape: 24 128 4 4 (49152)
I0403 21:54:16.333252 13231 net.cpp:156] Memory required for data: 1207926048
I0403 21:54:16.333276 13231 layer_factory.hpp:77] Creating layer loss2/relu_conv
I0403 21:54:16.333302 13231 net.cpp:91] Creating Layer loss2/relu_conv
I0403 21:54:16.333323 13231 net.cpp:425] loss2/relu_conv <- loss2/conv
I0403 21:54:16.333343 13231 net.cpp:386] loss2/relu_conv -> loss2/conv (in-place)
I0403 21:54:16.333689 13231 net.cpp:141] Setting up loss2/relu_conv
I0403 21:54:16.333721 13231 net.cpp:148] Top shape: 24 128 4 4 (49152)
I0403 21:54:16.333740 13231 net.cpp:156] Memory required for data: 1208122656
I0403 21:54:16.333760 13231 layer_factory.hpp:77] Creating layer loss2/fc
I0403 21:54:16.333786 13231 net.cpp:91] Creating Layer loss2/fc
I0403 21:54:16.333807 13231 net.cpp:425] loss2/fc <- loss2/conv
I0403 21:54:16.333830 13231 net.cpp:399] loss2/fc -> loss2/fc
I0403 21:54:16.356093 13231 net.cpp:141] Setting up loss2/fc
I0403 21:54:16.356139 13231 net.cpp:148] Top shape: 24 1024 (24576)
I0403 21:54:16.356158 13231 net.cpp:156] Memory required for data: 1208220960
I0403 21:54:16.356181 13231 layer_factory.hpp:77] Creating layer loss2/relu_fc
I0403 21:54:16.356204 13231 net.cpp:91] Creating Layer loss2/relu_fc
I0403 21:54:16.356230 13231 net.cpp:425] loss2/relu_fc <- loss2/fc
I0403 21:54:16.356256 13231 net.cpp:386] loss2/relu_fc -> loss2/fc (in-place)
I0403 21:54:16.356626 13231 net.cpp:141] Setting up loss2/relu_fc
I0403 21:54:16.356658 13231 net.cpp:148] Top shape: 24 1024 (24576)
I0403 21:54:16.356678 13231 net.cpp:156] Memory required for data: 1208319264
I0403 21:54:16.356696 13231 layer_factory.hpp:77] Creating layer loss2/drop_fc
I0403 21:54:16.356719 13231 net.cpp:91] Creating Layer loss2/drop_fc
I0403 21:54:16.356739 13231 net.cpp:425] loss2/drop_fc <- loss2/fc
I0403 21:54:16.356768 13231 net.cpp:386] loss2/drop_fc -> loss2/fc (in-place)
I0403 21:54:16.356830 13231 net.cpp:141] Setting up loss2/drop_fc
I0403 21:54:16.356860 13231 net.cpp:148] Top shape: 24 1024 (24576)
I0403 21:54:16.356881 13231 net.cpp:156] Memory required for data: 1208417568
I0403 21:54:16.356901 13231 layer_factory.hpp:77] Creating layer loss2/classifier_plantvillage
I0403 21:54:16.356923 13231 net.cpp:91] Creating Layer loss2/classifier_plantvillage
I0403 21:54:16.356943 13231 net.cpp:425] loss2/classifier_plantvillage <- loss2/fc
I0403 21:54:16.356972 13231 net.cpp:399] loss2/classifier_plantvillage -> loss2/classifier_plantvillage
I0403 21:54:16.357480 13231 net.cpp:141] Setting up loss2/classifier_plantvillage
I0403 21:54:16.357512 13231 net.cpp:148] Top shape: 24 38 (912)
I0403 21:54:16.357530 13231 net.cpp:156] Memory required for data: 1208421216
I0403 21:54:16.357573 13231 layer_factory.hpp:77] Creating layer loss2/classifier_plantvillage_loss2/classifier_plantvillage_0_split
I0403 21:54:16.357599 13231 net.cpp:91] Creating Layer loss2/classifier_plantvillage_loss2/classifier_plantvillage_0_split
I0403 21:54:16.357622 13231 net.cpp:425] loss2/classifier_plantvillage_loss2/classifier_plantvillage_0_split <- loss2/classifier_plantvillage
I0403 21:54:16.357646 13231 net.cpp:399] loss2/classifier_plantvillage_loss2/classifier_plantvillage_0_split -> loss2/classifier_plantvillage_loss2/classifier_plantvillage_0_split_0
I0403 21:54:16.357671 13231 net.cpp:399] loss2/classifier_plantvillage_loss2/classifier_plantvillage_0_split -> loss2/classifier_plantvillage_loss2/classifier_plantvillage_0_split_1
I0403 21:54:16.357697 13231 net.cpp:399] loss2/classifier_plantvillage_loss2/classifier_plantvillage_0_split -> loss2/classifier_plantvillage_loss2/classifier_plantvillage_0_split_2
I0403 21:54:16.357795 13231 net.cpp:141] Setting up loss2/classifier_plantvillage_loss2/classifier_plantvillage_0_split
I0403 21:54:16.357825 13231 net.cpp:148] Top shape: 24 38 (912)
I0403 21:54:16.357844 13231 net.cpp:148] Top shape: 24 38 (912)
I0403 21:54:16.357864 13231 net.cpp:148] Top shape: 24 38 (912)
I0403 21:54:16.357882 13231 net.cpp:156] Memory required for data: 1208432160
I0403 21:54:16.357899 13231 layer_factory.hpp:77] Creating layer inception_4e/1x1
I0403 21:54:16.357928 13231 net.cpp:91] Creating Layer inception_4e/1x1
I0403 21:54:16.357951 13231 net.cpp:425] inception_4e/1x1 <- inception_4d/output_inception_4d/output_0_split_1
I0403 21:54:16.357975 13231 net.cpp:399] inception_4e/1x1 -> inception_4e/1x1
I0403 21:54:16.360220 13231 net.cpp:141] Setting up inception_4e/1x1
I0403 21:54:16.360255 13231 net.cpp:148] Top shape: 24 256 14 14 (1204224)
I0403 21:54:16.360273 13231 net.cpp:156] Memory required for data: 1213249056
I0403 21:54:16.360296 13231 layer_factory.hpp:77] Creating layer inception_4e/relu_1x1
I0403 21:54:16.360321 13231 net.cpp:91] Creating Layer inception_4e/relu_1x1
I0403 21:54:16.360342 13231 net.cpp:425] inception_4e/relu_1x1 <- inception_4e/1x1
I0403 21:54:16.360363 13231 net.cpp:386] inception_4e/relu_1x1 -> inception_4e/1x1 (in-place)
I0403 21:54:16.360719 13231 net.cpp:141] Setting up inception_4e/relu_1x1
I0403 21:54:16.360752 13231 net.cpp:148] Top shape: 24 256 14 14 (1204224)
I0403 21:54:16.360770 13231 net.cpp:156] Memory required for data: 1218065952
I0403 21:54:16.360790 13231 layer_factory.hpp:77] Creating layer inception_4e/3x3_reduce
I0403 21:54:16.360818 13231 net.cpp:91] Creating Layer inception_4e/3x3_reduce
I0403 21:54:16.360841 13231 net.cpp:425] inception_4e/3x3_reduce <- inception_4d/output_inception_4d/output_0_split_2
I0403 21:54:16.360867 13231 net.cpp:399] inception_4e/3x3_reduce -> inception_4e/3x3_reduce
I0403 21:54:16.363502 13231 net.cpp:141] Setting up inception_4e/3x3_reduce
I0403 21:54:16.363540 13231 net.cpp:148] Top shape: 24 160 14 14 (752640)
I0403 21:54:16.363560 13231 net.cpp:156] Memory required for data: 1221076512
I0403 21:54:16.363584 13231 layer_factory.hpp:77] Creating layer inception_4e/relu_3x3_reduce
I0403 21:54:16.363605 13231 net.cpp:91] Creating Layer inception_4e/relu_3x3_reduce
I0403 21:54:16.363627 13231 net.cpp:425] inception_4e/relu_3x3_reduce <- inception_4e/3x3_reduce
I0403 21:54:16.363651 13231 net.cpp:386] inception_4e/relu_3x3_reduce -> inception_4e/3x3_reduce (in-place)
I0403 21:54:16.363883 13231 net.cpp:141] Setting up inception_4e/relu_3x3_reduce
I0403 21:54:16.363914 13231 net.cpp:148] Top shape: 24 160 14 14 (752640)
I0403 21:54:16.363932 13231 net.cpp:156] Memory required for data: 1224087072
I0403 21:54:16.363950 13231 layer_factory.hpp:77] Creating layer inception_4e/3x3
I0403 21:54:16.363979 13231 net.cpp:91] Creating Layer inception_4e/3x3
I0403 21:54:16.364002 13231 net.cpp:425] inception_4e/3x3 <- inception_4e/3x3_reduce
I0403 21:54:16.364027 13231 net.cpp:399] inception_4e/3x3 -> inception_4e/3x3
I0403 21:54:16.370285 13231 net.cpp:141] Setting up inception_4e/3x3
I0403 21:54:16.370335 13231 net.cpp:148] Top shape: 24 320 14 14 (1505280)
I0403 21:54:16.370355 13231 net.cpp:156] Memory required for data: 1230108192
I0403 21:54:16.370378 13231 layer_factory.hpp:77] Creating layer inception_4e/relu_3x3
I0403 21:54:16.370404 13231 net.cpp:91] Creating Layer inception_4e/relu_3x3
I0403 21:54:16.370424 13231 net.cpp:425] inception_4e/relu_3x3 <- inception_4e/3x3
I0403 21:54:16.370446 13231 net.cpp:386] inception_4e/relu_3x3 -> inception_4e/3x3 (in-place)
I0403 21:54:16.370813 13231 net.cpp:141] Setting up inception_4e/relu_3x3
I0403 21:54:16.370849 13231 net.cpp:148] Top shape: 24 320 14 14 (1505280)
I0403 21:54:16.370869 13231 net.cpp:156] Memory required for data: 1236129312
I0403 21:54:16.370888 13231 layer_factory.hpp:77] Creating layer inception_4e/5x5_reduce
I0403 21:54:16.370916 13231 net.cpp:91] Creating Layer inception_4e/5x5_reduce
I0403 21:54:16.370937 13231 net.cpp:425] inception_4e/5x5_reduce <- inception_4d/output_inception_4d/output_0_split_3
I0403 21:54:16.370961 13231 net.cpp:399] inception_4e/5x5_reduce -> inception_4e/5x5_reduce
I0403 21:54:16.372311 13231 net.cpp:141] Setting up inception_4e/5x5_reduce
I0403 21:54:16.372345 13231 net.cpp:148] Top shape: 24 32 14 14 (150528)
I0403 21:54:16.372365 13231 net.cpp:156] Memory required for data: 1236731424
I0403 21:54:16.372388 13231 layer_factory.hpp:77] Creating layer inception_4e/relu_5x5_reduce
I0403 21:54:16.372414 13231 net.cpp:91] Creating Layer inception_4e/relu_5x5_reduce
I0403 21:54:16.372436 13231 net.cpp:425] inception_4e/relu_5x5_reduce <- inception_4e/5x5_reduce
I0403 21:54:16.372457 13231 net.cpp:386] inception_4e/relu_5x5_reduce -> inception_4e/5x5_reduce (in-place)
I0403 21:54:16.372815 13231 net.cpp:141] Setting up inception_4e/relu_5x5_reduce
I0403 21:54:16.372848 13231 net.cpp:148] Top shape: 24 32 14 14 (150528)
I0403 21:54:16.372867 13231 net.cpp:156] Memory required for data: 1237333536
I0403 21:54:16.372885 13231 layer_factory.hpp:77] Creating layer inception_4e/5x5
I0403 21:54:16.372933 13231 net.cpp:91] Creating Layer inception_4e/5x5
I0403 21:54:16.372957 13231 net.cpp:425] inception_4e/5x5 <- inception_4e/5x5_reduce
I0403 21:54:16.372980 13231 net.cpp:399] inception_4e/5x5 -> inception_4e/5x5
I0403 21:54:16.375238 13231 net.cpp:141] Setting up inception_4e/5x5
I0403 21:54:16.375277 13231 net.cpp:148] Top shape: 24 128 14 14 (602112)
I0403 21:54:16.375298 13231 net.cpp:156] Memory required for data: 1239741984
I0403 21:54:16.375321 13231 layer_factory.hpp:77] Creating layer inception_4e/relu_5x5
I0403 21:54:16.375344 13231 net.cpp:91] Creating Layer inception_4e/relu_5x5
I0403 21:54:16.375363 13231 net.cpp:425] inception_4e/relu_5x5 <- inception_4e/5x5
I0403 21:54:16.375388 13231 net.cpp:386] inception_4e/relu_5x5 -> inception_4e/5x5 (in-place)
I0403 21:54:16.375634 13231 net.cpp:141] Setting up inception_4e/relu_5x5
I0403 21:54:16.375665 13231 net.cpp:148] Top shape: 24 128 14 14 (602112)
I0403 21:54:16.375684 13231 net.cpp:156] Memory required for data: 1242150432
I0403 21:54:16.375702 13231 layer_factory.hpp:77] Creating layer inception_4e/pool
I0403 21:54:16.375725 13231 net.cpp:91] Creating Layer inception_4e/pool
I0403 21:54:16.375746 13231 net.cpp:425] inception_4e/pool <- inception_4d/output_inception_4d/output_0_split_4
I0403 21:54:16.375771 13231 net.cpp:399] inception_4e/pool -> inception_4e/pool
I0403 21:54:16.375860 13231 net.cpp:141] Setting up inception_4e/pool
I0403 21:54:16.375890 13231 net.cpp:148] Top shape: 24 528 14 14 (2483712)
I0403 21:54:16.375908 13231 net.cpp:156] Memory required for data: 1252085280
I0403 21:54:16.375926 13231 layer_factory.hpp:77] Creating layer inception_4e/pool_proj
I0403 21:54:16.375953 13231 net.cpp:91] Creating Layer inception_4e/pool_proj
I0403 21:54:16.375975 13231 net.cpp:425] inception_4e/pool_proj <- inception_4e/pool
I0403 21:54:16.376001 13231 net.cpp:399] inception_4e/pool_proj -> inception_4e/pool_proj
I0403 21:54:16.377851 13231 net.cpp:141] Setting up inception_4e/pool_proj
I0403 21:54:16.377888 13231 net.cpp:148] Top shape: 24 128 14 14 (602112)
I0403 21:54:16.377925 13231 net.cpp:156] Memory required for data: 1254493728
I0403 21:54:16.377949 13231 layer_factory.hpp:77] Creating layer inception_4e/relu_pool_proj
I0403 21:54:16.377972 13231 net.cpp:91] Creating Layer inception_4e/relu_pool_proj
I0403 21:54:16.377993 13231 net.cpp:425] inception_4e/relu_pool_proj <- inception_4e/pool_proj
I0403 21:54:16.378017 13231 net.cpp:386] inception_4e/relu_pool_proj -> inception_4e/pool_proj (in-place)
I0403 21:54:16.378376 13231 net.cpp:141] Setting up inception_4e/relu_pool_proj
I0403 21:54:16.378412 13231 net.cpp:148] Top shape: 24 128 14 14 (602112)
I0403 21:54:16.378430 13231 net.cpp:156] Memory required for data: 1256902176
I0403 21:54:16.378450 13231 layer_factory.hpp:77] Creating layer inception_4e/output
I0403 21:54:16.378473 13231 net.cpp:91] Creating Layer inception_4e/output
I0403 21:54:16.378491 13231 net.cpp:425] inception_4e/output <- inception_4e/1x1
I0403 21:54:16.378512 13231 net.cpp:425] inception_4e/output <- inception_4e/3x3
I0403 21:54:16.378531 13231 net.cpp:425] inception_4e/output <- inception_4e/5x5
I0403 21:54:16.378551 13231 net.cpp:425] inception_4e/output <- inception_4e/pool_proj
I0403 21:54:16.378576 13231 net.cpp:399] inception_4e/output -> inception_4e/output
I0403 21:54:16.378636 13231 net.cpp:141] Setting up inception_4e/output
I0403 21:54:16.378665 13231 net.cpp:148] Top shape: 24 832 14 14 (3913728)
I0403 21:54:16.378684 13231 net.cpp:156] Memory required for data: 1272557088
I0403 21:54:16.378701 13231 layer_factory.hpp:77] Creating layer pool4/3x3_s2
I0403 21:54:16.378726 13231 net.cpp:91] Creating Layer pool4/3x3_s2
I0403 21:54:16.378746 13231 net.cpp:425] pool4/3x3_s2 <- inception_4e/output
I0403 21:54:16.378767 13231 net.cpp:399] pool4/3x3_s2 -> pool4/3x3_s2
I0403 21:54:16.378857 13231 net.cpp:141] Setting up pool4/3x3_s2
I0403 21:54:16.378887 13231 net.cpp:148] Top shape: 24 832 7 7 (978432)
I0403 21:54:16.378906 13231 net.cpp:156] Memory required for data: 1276470816
I0403 21:54:16.378923 13231 layer_factory.hpp:77] Creating layer pool4/3x3_s2_pool4/3x3_s2_0_split
I0403 21:54:16.378945 13231 net.cpp:91] Creating Layer pool4/3x3_s2_pool4/3x3_s2_0_split
I0403 21:54:16.378965 13231 net.cpp:425] pool4/3x3_s2_pool4/3x3_s2_0_split <- pool4/3x3_s2
I0403 21:54:16.378989 13231 net.cpp:399] pool4/3x3_s2_pool4/3x3_s2_0_split -> pool4/3x3_s2_pool4/3x3_s2_0_split_0
I0403 21:54:16.379014 13231 net.cpp:399] pool4/3x3_s2_pool4/3x3_s2_0_split -> pool4/3x3_s2_pool4/3x3_s2_0_split_1
I0403 21:54:16.379040 13231 net.cpp:399] pool4/3x3_s2_pool4/3x3_s2_0_split -> pool4/3x3_s2_pool4/3x3_s2_0_split_2
I0403 21:54:16.379063 13231 net.cpp:399] pool4/3x3_s2_pool4/3x3_s2_0_split -> pool4/3x3_s2_pool4/3x3_s2_0_split_3
I0403 21:54:16.379176 13231 net.cpp:141] Setting up pool4/3x3_s2_pool4/3x3_s2_0_split
I0403 21:54:16.379206 13231 net.cpp:148] Top shape: 24 832 7 7 (978432)
I0403 21:54:16.379233 13231 net.cpp:148] Top shape: 24 832 7 7 (978432)
I0403 21:54:16.379254 13231 net.cpp:148] Top shape: 24 832 7 7 (978432)
I0403 21:54:16.379273 13231 net.cpp:148] Top shape: 24 832 7 7 (978432)
I0403 21:54:16.379289 13231 net.cpp:156] Memory required for data: 1292125728
I0403 21:54:16.379307 13231 layer_factory.hpp:77] Creating layer inception_5a/1x1
I0403 21:54:16.379336 13231 net.cpp:91] Creating Layer inception_5a/1x1
I0403 21:54:16.379359 13231 net.cpp:425] inception_5a/1x1 <- pool4/3x3_s2_pool4/3x3_s2_0_split_0
I0403 21:54:16.379384 13231 net.cpp:399] inception_5a/1x1 -> inception_5a/1x1
I0403 21:54:16.382922 13231 net.cpp:141] Setting up inception_5a/1x1
I0403 21:54:16.382958 13231 net.cpp:148] Top shape: 24 256 7 7 (301056)
I0403 21:54:16.382977 13231 net.cpp:156] Memory required for data: 1293329952
I0403 21:54:16.383000 13231 layer_factory.hpp:77] Creating layer inception_5a/relu_1x1
I0403 21:54:16.383023 13231 net.cpp:91] Creating Layer inception_5a/relu_1x1
I0403 21:54:16.383044 13231 net.cpp:425] inception_5a/relu_1x1 <- inception_5a/1x1
I0403 21:54:16.383069 13231 net.cpp:386] inception_5a/relu_1x1 -> inception_5a/1x1 (in-place)
I0403 21:54:16.383462 13231 net.cpp:141] Setting up inception_5a/relu_1x1
I0403 21:54:16.383496 13231 net.cpp:148] Top shape: 24 256 7 7 (301056)
I0403 21:54:16.383514 13231 net.cpp:156] Memory required for data: 1294534176
I0403 21:54:16.383533 13231 layer_factory.hpp:77] Creating layer inception_5a/3x3_reduce
I0403 21:54:16.383560 13231 net.cpp:91] Creating Layer inception_5a/3x3_reduce
I0403 21:54:16.383582 13231 net.cpp:425] inception_5a/3x3_reduce <- pool4/3x3_s2_pool4/3x3_s2_0_split_1
I0403 21:54:16.383608 13231 net.cpp:399] inception_5a/3x3_reduce -> inception_5a/3x3_reduce
I0403 21:54:16.386648 13231 net.cpp:141] Setting up inception_5a/3x3_reduce
I0403 21:54:16.386685 13231 net.cpp:148] Top shape: 24 160 7 7 (188160)
I0403 21:54:16.386704 13231 net.cpp:156] Memory required for data: 1295286816
I0403 21:54:16.386729 13231 layer_factory.hpp:77] Creating layer inception_5a/relu_3x3_reduce
I0403 21:54:16.386754 13231 net.cpp:91] Creating Layer inception_5a/relu_3x3_reduce
I0403 21:54:16.386776 13231 net.cpp:425] inception_5a/relu_3x3_reduce <- inception_5a/3x3_reduce
I0403 21:54:16.386797 13231 net.cpp:386] inception_5a/relu_3x3_reduce -> inception_5a/3x3_reduce (in-place)
I0403 21:54:16.387030 13231 net.cpp:141] Setting up inception_5a/relu_3x3_reduce
I0403 21:54:16.387061 13231 net.cpp:148] Top shape: 24 160 7 7 (188160)
I0403 21:54:16.387079 13231 net.cpp:156] Memory required for data: 1296039456
I0403 21:54:16.387099 13231 layer_factory.hpp:77] Creating layer inception_5a/3x3
I0403 21:54:16.387127 13231 net.cpp:91] Creating Layer inception_5a/3x3
I0403 21:54:16.387150 13231 net.cpp:425] inception_5a/3x3 <- inception_5a/3x3_reduce
I0403 21:54:16.387174 13231 net.cpp:399] inception_5a/3x3 -> inception_5a/3x3
I0403 21:54:16.393491 13231 net.cpp:141] Setting up inception_5a/3x3
I0403 21:54:16.393529 13231 net.cpp:148] Top shape: 24 320 7 7 (376320)
I0403 21:54:16.393549 13231 net.cpp:156] Memory required for data: 1297544736
I0403 21:54:16.393573 13231 layer_factory.hpp:77] Creating layer inception_5a/relu_3x3
I0403 21:54:16.393594 13231 net.cpp:91] Creating Layer inception_5a/relu_3x3
I0403 21:54:16.393615 13231 net.cpp:425] inception_5a/relu_3x3 <- inception_5a/3x3
I0403 21:54:16.393638 13231 net.cpp:386] inception_5a/relu_3x3 -> inception_5a/3x3 (in-place)
I0403 21:54:16.393996 13231 net.cpp:141] Setting up inception_5a/relu_3x3
I0403 21:54:16.394027 13231 net.cpp:148] Top shape: 24 320 7 7 (376320)
I0403 21:54:16.394047 13231 net.cpp:156] Memory required for data: 1299050016
I0403 21:54:16.394067 13231 layer_factory.hpp:77] Creating layer inception_5a/5x5_reduce
I0403 21:54:16.394095 13231 net.cpp:91] Creating Layer inception_5a/5x5_reduce
I0403 21:54:16.394117 13231 net.cpp:425] inception_5a/5x5_reduce <- pool4/3x3_s2_pool4/3x3_s2_0_split_2
I0403 21:54:16.394145 13231 net.cpp:399] inception_5a/5x5_reduce -> inception_5a/5x5_reduce
I0403 21:54:16.395604 13231 net.cpp:141] Setting up inception_5a/5x5_reduce
I0403 21:54:16.395640 13231 net.cpp:148] Top shape: 24 32 7 7 (37632)
I0403 21:54:16.395660 13231 net.cpp:156] Memory required for data: 1299200544
I0403 21:54:16.395683 13231 layer_factory.hpp:77] Creating layer inception_5a/relu_5x5_reduce
I0403 21:54:16.395704 13231 net.cpp:91] Creating Layer inception_5a/relu_5x5_reduce
I0403 21:54:16.395725 13231 net.cpp:425] inception_5a/relu_5x5_reduce <- inception_5a/5x5_reduce
I0403 21:54:16.395750 13231 net.cpp:386] inception_5a/relu_5x5_reduce -> inception_5a/5x5_reduce (in-place)
I0403 21:54:16.396116 13231 net.cpp:141] Setting up inception_5a/relu_5x5_reduce
I0403 21:54:16.396148 13231 net.cpp:148] Top shape: 24 32 7 7 (37632)
I0403 21:54:16.396167 13231 net.cpp:156] Memory required for data: 1299351072
I0403 21:54:16.396184 13231 layer_factory.hpp:77] Creating layer inception_5a/5x5
I0403 21:54:16.396217 13231 net.cpp:91] Creating Layer inception_5a/5x5
I0403 21:54:16.396242 13231 net.cpp:425] inception_5a/5x5 <- inception_5a/5x5_reduce
I0403 21:54:16.396273 13231 net.cpp:399] inception_5a/5x5 -> inception_5a/5x5
I0403 21:54:16.398406 13231 net.cpp:141] Setting up inception_5a/5x5
I0403 21:54:16.398459 13231 net.cpp:148] Top shape: 24 128 7 7 (150528)
I0403 21:54:16.398481 13231 net.cpp:156] Memory required for data: 1299953184
I0403 21:54:16.398504 13231 layer_factory.hpp:77] Creating layer inception_5a/relu_5x5
I0403 21:54:16.398526 13231 net.cpp:91] Creating Layer inception_5a/relu_5x5
I0403 21:54:16.398547 13231 net.cpp:425] inception_5a/relu_5x5 <- inception_5a/5x5
I0403 21:54:16.398573 13231 net.cpp:386] inception_5a/relu_5x5 -> inception_5a/5x5 (in-place)
I0403 21:54:16.398813 13231 net.cpp:141] Setting up inception_5a/relu_5x5
I0403 21:54:16.398844 13231 net.cpp:148] Top shape: 24 128 7 7 (150528)
I0403 21:54:16.398860 13231 net.cpp:156] Memory required for data: 1300555296
I0403 21:54:16.398880 13231 layer_factory.hpp:77] Creating layer inception_5a/pool
I0403 21:54:16.398906 13231 net.cpp:91] Creating Layer inception_5a/pool
I0403 21:54:16.398928 13231 net.cpp:425] inception_5a/pool <- pool4/3x3_s2_pool4/3x3_s2_0_split_3
I0403 21:54:16.398952 13231 net.cpp:399] inception_5a/pool -> inception_5a/pool
I0403 21:54:16.399040 13231 net.cpp:141] Setting up inception_5a/pool
I0403 21:54:16.399070 13231 net.cpp:148] Top shape: 24 832 7 7 (978432)
I0403 21:54:16.399090 13231 net.cpp:156] Memory required for data: 1304469024
I0403 21:54:16.399107 13231 layer_factory.hpp:77] Creating layer inception_5a/pool_proj
I0403 21:54:16.399135 13231 net.cpp:91] Creating Layer inception_5a/pool_proj
I0403 21:54:16.399158 13231 net.cpp:425] inception_5a/pool_proj <- inception_5a/pool
I0403 21:54:16.399183 13231 net.cpp:399] inception_5a/pool_proj -> inception_5a/pool_proj
I0403 21:54:16.402010 13231 net.cpp:141] Setting up inception_5a/pool_proj
I0403 21:54:16.402050 13231 net.cpp:148] Top shape: 24 128 7 7 (150528)
I0403 21:54:16.402072 13231 net.cpp:156] Memory required for data: 1305071136
I0403 21:54:16.402097 13231 layer_factory.hpp:77] Creating layer inception_5a/relu_pool_proj
I0403 21:54:16.402120 13231 net.cpp:91] Creating Layer inception_5a/relu_pool_proj
I0403 21:54:16.402140 13231 net.cpp:425] inception_5a/relu_pool_proj <- inception_5a/pool_proj
I0403 21:54:16.402164 13231 net.cpp:386] inception_5a/relu_pool_proj -> inception_5a/pool_proj (in-place)
I0403 21:54:16.402539 13231 net.cpp:141] Setting up inception_5a/relu_pool_proj
I0403 21:54:16.402576 13231 net.cpp:148] Top shape: 24 128 7 7 (150528)
I0403 21:54:16.402597 13231 net.cpp:156] Memory required for data: 1305673248
I0403 21:54:16.402617 13231 layer_factory.hpp:77] Creating layer inception_5a/output
I0403 21:54:16.402639 13231 net.cpp:91] Creating Layer inception_5a/output
I0403 21:54:16.402658 13231 net.cpp:425] inception_5a/output <- inception_5a/1x1
I0403 21:54:16.402678 13231 net.cpp:425] inception_5a/output <- inception_5a/3x3
I0403 21:54:16.402699 13231 net.cpp:425] inception_5a/output <- inception_5a/5x5
I0403 21:54:16.402719 13231 net.cpp:425] inception_5a/output <- inception_5a/pool_proj
I0403 21:54:16.402740 13231 net.cpp:399] inception_5a/output -> inception_5a/output
I0403 21:54:16.402802 13231 net.cpp:141] Setting up inception_5a/output
I0403 21:54:16.402832 13231 net.cpp:148] Top shape: 24 832 7 7 (978432)
I0403 21:54:16.402849 13231 net.cpp:156] Memory required for data: 1309586976
I0403 21:54:16.402868 13231 layer_factory.hpp:77] Creating layer inception_5a/output_inception_5a/output_0_split
I0403 21:54:16.402894 13231 net.cpp:91] Creating Layer inception_5a/output_inception_5a/output_0_split
I0403 21:54:16.402914 13231 net.cpp:425] inception_5a/output_inception_5a/output_0_split <- inception_5a/output
I0403 21:54:16.402935 13231 net.cpp:399] inception_5a/output_inception_5a/output_0_split -> inception_5a/output_inception_5a/output_0_split_0
I0403 21:54:16.402961 13231 net.cpp:399] inception_5a/output_inception_5a/output_0_split -> inception_5a/output_inception_5a/output_0_split_1
I0403 21:54:16.402986 13231 net.cpp:399] inception_5a/output_inception_5a/output_0_split -> inception_5a/output_inception_5a/output_0_split_2
I0403 21:54:16.403014 13231 net.cpp:399] inception_5a/output_inception_5a/output_0_split -> inception_5a/output_inception_5a/output_0_split_3
I0403 21:54:16.403156 13231 net.cpp:141] Setting up inception_5a/output_inception_5a/output_0_split
I0403 21:54:16.403185 13231 net.cpp:148] Top shape: 24 832 7 7 (978432)
I0403 21:54:16.403205 13231 net.cpp:148] Top shape: 24 832 7 7 (978432)
I0403 21:54:16.403230 13231 net.cpp:148] Top shape: 24 832 7 7 (978432)
I0403 21:54:16.403249 13231 net.cpp:148] Top shape: 24 832 7 7 (978432)
I0403 21:54:16.403266 13231 net.cpp:156] Memory required for data: 1325241888
I0403 21:54:16.403285 13231 layer_factory.hpp:77] Creating layer inception_5b/1x1
I0403 21:54:16.403312 13231 net.cpp:91] Creating Layer inception_5b/1x1
I0403 21:54:16.403336 13231 net.cpp:425] inception_5b/1x1 <- inception_5a/output_inception_5a/output_0_split_0
I0403 21:54:16.403362 13231 net.cpp:399] inception_5b/1x1 -> inception_5b/1x1
I0403 21:54:16.408007 13231 net.cpp:141] Setting up inception_5b/1x1
I0403 21:54:16.408044 13231 net.cpp:148] Top shape: 24 384 7 7 (451584)
I0403 21:54:16.408064 13231 net.cpp:156] Memory required for data: 1327048224
I0403 21:54:16.408087 13231 layer_factory.hpp:77] Creating layer inception_5b/relu_1x1
I0403 21:54:16.408115 13231 net.cpp:91] Creating Layer inception_5b/relu_1x1
I0403 21:54:16.408136 13231 net.cpp:425] inception_5b/relu_1x1 <- inception_5b/1x1
I0403 21:54:16.408157 13231 net.cpp:386] inception_5b/relu_1x1 -> inception_5b/1x1 (in-place)
I0403 21:54:16.408535 13231 net.cpp:141] Setting up inception_5b/relu_1x1
I0403 21:54:16.408566 13231 net.cpp:148] Top shape: 24 384 7 7 (451584)
I0403 21:54:16.408586 13231 net.cpp:156] Memory required for data: 1328854560
I0403 21:54:16.408606 13231 layer_factory.hpp:77] Creating layer inception_5b/3x3_reduce
I0403 21:54:16.408635 13231 net.cpp:91] Creating Layer inception_5b/3x3_reduce
I0403 21:54:16.408656 13231 net.cpp:425] inception_5b/3x3_reduce <- inception_5a/output_inception_5a/output_0_split_1
I0403 21:54:16.408680 13231 net.cpp:399] inception_5b/3x3_reduce -> inception_5b/3x3_reduce
I0403 21:54:16.411991 13231 net.cpp:141] Setting up inception_5b/3x3_reduce
I0403 21:54:16.412032 13231 net.cpp:148] Top shape: 24 192 7 7 (225792)
I0403 21:54:16.412053 13231 net.cpp:156] Memory required for data: 1329757728
I0403 21:54:16.412076 13231 layer_factory.hpp:77] Creating layer inception_5b/relu_3x3_reduce
I0403 21:54:16.412099 13231 net.cpp:91] Creating Layer inception_5b/relu_3x3_reduce
I0403 21:54:16.412119 13231 net.cpp:425] inception_5b/relu_3x3_reduce <- inception_5b/3x3_reduce
I0403 21:54:16.412142 13231 net.cpp:386] inception_5b/relu_3x3_reduce -> inception_5b/3x3_reduce (in-place)
I0403 21:54:16.412398 13231 net.cpp:141] Setting up inception_5b/relu_3x3_reduce
I0403 21:54:16.412431 13231 net.cpp:148] Top shape: 24 192 7 7 (225792)
I0403 21:54:16.412448 13231 net.cpp:156] Memory required for data: 1330660896
I0403 21:54:16.412467 13231 layer_factory.hpp:77] Creating layer inception_5b/3x3
I0403 21:54:16.412494 13231 net.cpp:91] Creating Layer inception_5b/3x3
I0403 21:54:16.412518 13231 net.cpp:425] inception_5b/3x3 <- inception_5b/3x3_reduce
I0403 21:54:16.412544 13231 net.cpp:399] inception_5b/3x3 -> inception_5b/3x3
I0403 21:54:16.420979 13231 net.cpp:141] Setting up inception_5b/3x3
I0403 21:54:16.421017 13231 net.cpp:148] Top shape: 24 384 7 7 (451584)
I0403 21:54:16.421038 13231 net.cpp:156] Memory required for data: 1332467232
I0403 21:54:16.421061 13231 layer_factory.hpp:77] Creating layer inception_5b/relu_3x3
I0403 21:54:16.421084 13231 net.cpp:91] Creating Layer inception_5b/relu_3x3
I0403 21:54:16.421104 13231 net.cpp:425] inception_5b/relu_3x3 <- inception_5b/3x3
I0403 21:54:16.421129 13231 net.cpp:386] inception_5b/relu_3x3 -> inception_5b/3x3 (in-place)
I0403 21:54:16.421496 13231 net.cpp:141] Setting up inception_5b/relu_3x3
I0403 21:54:16.421533 13231 net.cpp:148] Top shape: 24 384 7 7 (451584)
I0403 21:54:16.421555 13231 net.cpp:156] Memory required for data: 1334273568
I0403 21:54:16.421572 13231 layer_factory.hpp:77] Creating layer inception_5b/5x5_reduce
I0403 21:54:16.421624 13231 net.cpp:91] Creating Layer inception_5b/5x5_reduce
I0403 21:54:16.421648 13231 net.cpp:425] inception_5b/5x5_reduce <- inception_5a/output_inception_5a/output_0_split_2
I0403 21:54:16.421676 13231 net.cpp:399] inception_5b/5x5_reduce -> inception_5b/5x5_reduce
I0403 21:54:16.423270 13231 net.cpp:141] Setting up inception_5b/5x5_reduce
I0403 21:54:16.423308 13231 net.cpp:148] Top shape: 24 48 7 7 (56448)
I0403 21:54:16.423329 13231 net.cpp:156] Memory required for data: 1334499360
I0403 21:54:16.423353 13231 layer_factory.hpp:77] Creating layer inception_5b/relu_5x5_reduce
I0403 21:54:16.423375 13231 net.cpp:91] Creating Layer inception_5b/relu_5x5_reduce
I0403 21:54:16.423395 13231 net.cpp:425] inception_5b/relu_5x5_reduce <- inception_5b/5x5_reduce
I0403 21:54:16.423419 13231 net.cpp:386] inception_5b/relu_5x5_reduce -> inception_5b/5x5_reduce (in-place)
I0403 21:54:16.423882 13231 net.cpp:141] Setting up inception_5b/relu_5x5_reduce
I0403 21:54:16.423915 13231 net.cpp:148] Top shape: 24 48 7 7 (56448)
I0403 21:54:16.423934 13231 net.cpp:156] Memory required for data: 1334725152
I0403 21:54:16.423952 13231 layer_factory.hpp:77] Creating layer inception_5b/5x5
I0403 21:54:16.423979 13231 net.cpp:91] Creating Layer inception_5b/5x5
I0403 21:54:16.424000 13231 net.cpp:425] inception_5b/5x5 <- inception_5b/5x5_reduce
I0403 21:54:16.424024 13231 net.cpp:399] inception_5b/5x5 -> inception_5b/5x5
I0403 21:54:16.426570 13231 net.cpp:141] Setting up inception_5b/5x5
I0403 21:54:16.426607 13231 net.cpp:148] Top shape: 24 128 7 7 (150528)
I0403 21:54:16.426626 13231 net.cpp:156] Memory required for data: 1335327264
I0403 21:54:16.426650 13231 layer_factory.hpp:77] Creating layer inception_5b/relu_5x5
I0403 21:54:16.426672 13231 net.cpp:91] Creating Layer inception_5b/relu_5x5
I0403 21:54:16.426692 13231 net.cpp:425] inception_5b/relu_5x5 <- inception_5b/5x5
I0403 21:54:16.426718 13231 net.cpp:386] inception_5b/relu_5x5 -> inception_5b/5x5 (in-place)
I0403 21:54:16.426960 13231 net.cpp:141] Setting up inception_5b/relu_5x5
I0403 21:54:16.426991 13231 net.cpp:148] Top shape: 24 128 7 7 (150528)
I0403 21:54:16.427009 13231 net.cpp:156] Memory required for data: 1335929376
I0403 21:54:16.427027 13231 layer_factory.hpp:77] Creating layer inception_5b/pool
I0403 21:54:16.427053 13231 net.cpp:91] Creating Layer inception_5b/pool
I0403 21:54:16.427075 13231 net.cpp:425] inception_5b/pool <- inception_5a/output_inception_5a/output_0_split_3
I0403 21:54:16.427098 13231 net.cpp:399] inception_5b/pool -> inception_5b/pool
I0403 21:54:16.427189 13231 net.cpp:141] Setting up inception_5b/pool
I0403 21:54:16.427223 13231 net.cpp:148] Top shape: 24 832 7 7 (978432)
I0403 21:54:16.427243 13231 net.cpp:156] Memory required for data: 1339843104
I0403 21:54:16.427261 13231 layer_factory.hpp:77] Creating layer inception_5b/pool_proj
I0403 21:54:16.427289 13231 net.cpp:91] Creating Layer inception_5b/pool_proj
I0403 21:54:16.427311 13231 net.cpp:425] inception_5b/pool_proj <- inception_5b/pool
I0403 21:54:16.427336 13231 net.cpp:399] inception_5b/pool_proj -> inception_5b/pool_proj
I0403 21:54:16.430193 13231 net.cpp:141] Setting up inception_5b/pool_proj
I0403 21:54:16.430238 13231 net.cpp:148] Top shape: 24 128 7 7 (150528)
I0403 21:54:16.430261 13231 net.cpp:156] Memory required for data: 1340445216
I0403 21:54:16.430284 13231 layer_factory.hpp:77] Creating layer inception_5b/relu_pool_proj
I0403 21:54:16.430306 13231 net.cpp:91] Creating Layer inception_5b/relu_pool_proj
I0403 21:54:16.430328 13231 net.cpp:425] inception_5b/relu_pool_proj <- inception_5b/pool_proj
I0403 21:54:16.430352 13231 net.cpp:386] inception_5b/relu_pool_proj -> inception_5b/pool_proj (in-place)
I0403 21:54:16.430719 13231 net.cpp:141] Setting up inception_5b/relu_pool_proj
I0403 21:54:16.430757 13231 net.cpp:148] Top shape: 24 128 7 7 (150528)
I0403 21:54:16.430776 13231 net.cpp:156] Memory required for data: 1341047328
I0403 21:54:16.430797 13231 layer_factory.hpp:77] Creating layer inception_5b/output
I0403 21:54:16.430819 13231 net.cpp:91] Creating Layer inception_5b/output
I0403 21:54:16.430858 13231 net.cpp:425] inception_5b/output <- inception_5b/1x1
I0403 21:54:16.430881 13231 net.cpp:425] inception_5b/output <- inception_5b/3x3
I0403 21:54:16.430902 13231 net.cpp:425] inception_5b/output <- inception_5b/5x5
I0403 21:54:16.430922 13231 net.cpp:425] inception_5b/output <- inception_5b/pool_proj
I0403 21:54:16.430946 13231 net.cpp:399] inception_5b/output -> inception_5b/output
I0403 21:54:16.431011 13231 net.cpp:141] Setting up inception_5b/output
I0403 21:54:16.431042 13231 net.cpp:148] Top shape: 24 1024 7 7 (1204224)
I0403 21:54:16.431061 13231 net.cpp:156] Memory required for data: 1345864224
I0403 21:54:16.431079 13231 layer_factory.hpp:77] Creating layer pool5/7x7_s1
I0403 21:54:16.431107 13231 net.cpp:91] Creating Layer pool5/7x7_s1
I0403 21:54:16.431128 13231 net.cpp:425] pool5/7x7_s1 <- inception_5b/output
I0403 21:54:16.431150 13231 net.cpp:399] pool5/7x7_s1 -> pool5/7x7_s1
I0403 21:54:16.431428 13231 net.cpp:141] Setting up pool5/7x7_s1
I0403 21:54:16.431459 13231 net.cpp:148] Top shape: 24 1024 1 1 (24576)
I0403 21:54:16.431478 13231 net.cpp:156] Memory required for data: 1345962528
I0403 21:54:16.431498 13231 layer_factory.hpp:77] Creating layer pool5/drop_7x7_s1
I0403 21:54:16.431520 13231 net.cpp:91] Creating Layer pool5/drop_7x7_s1
I0403 21:54:16.431540 13231 net.cpp:425] pool5/drop_7x7_s1 <- pool5/7x7_s1
I0403 21:54:16.431565 13231 net.cpp:386] pool5/drop_7x7_s1 -> pool5/7x7_s1 (in-place)
I0403 21:54:16.431628 13231 net.cpp:141] Setting up pool5/drop_7x7_s1
I0403 21:54:16.431658 13231 net.cpp:148] Top shape: 24 1024 1 1 (24576)
I0403 21:54:16.431675 13231 net.cpp:156] Memory required for data: 1346060832
I0403 21:54:16.431694 13231 layer_factory.hpp:77] Creating layer loss3/classifier_plantvillage
I0403 21:54:16.431721 13231 net.cpp:91] Creating Layer loss3/classifier_plantvillage
I0403 21:54:16.431742 13231 net.cpp:425] loss3/classifier_plantvillage <- pool5/7x7_s1
I0403 21:54:16.431768 13231 net.cpp:399] loss3/classifier_plantvillage -> loss3/classifier_plantvillage
I0403 21:54:16.432314 13231 net.cpp:141] Setting up loss3/classifier_plantvillage
I0403 21:54:16.432349 13231 net.cpp:148] Top shape: 24 38 (912)
I0403 21:54:16.432369 13231 net.cpp:156] Memory required for data: 1346064480
I0403 21:54:16.432394 13231 layer_factory.hpp:77] Creating layer loss3/classifier_plantvillage_loss3/classifier_plantvillage_0_split
I0403 21:54:16.432417 13231 net.cpp:91] Creating Layer loss3/classifier_plantvillage_loss3/classifier_plantvillage_0_split
I0403 21:54:16.432437 13231 net.cpp:425] loss3/classifier_plantvillage_loss3/classifier_plantvillage_0_split <- loss3/classifier_plantvillage
I0403 21:54:16.432459 13231 net.cpp:399] loss3/classifier_plantvillage_loss3/classifier_plantvillage_0_split -> loss3/classifier_plantvillage_loss3/classifier_plantvillage_0_split_0
I0403 21:54:16.432488 13231 net.cpp:399] loss3/classifier_plantvillage_loss3/classifier_plantvillage_0_split -> loss3/classifier_plantvillage_loss3/classifier_plantvillage_0_split_1
I0403 21:54:16.432513 13231 net.cpp:399] loss3/classifier_plantvillage_loss3/classifier_plantvillage_0_split -> loss3/classifier_plantvillage_loss3/classifier_plantvillage_0_split_2
I0403 21:54:16.432541 13231 net.cpp:399] loss3/classifier_plantvillage_loss3/classifier_plantvillage_0_split -> loss3/classifier_plantvillage_loss3/classifier_plantvillage_0_split_3
I0403 21:54:16.432670 13231 net.cpp:141] Setting up loss3/classifier_plantvillage_loss3/classifier_plantvillage_0_split
I0403 21:54:16.432699 13231 net.cpp:148] Top shape: 24 38 (912)
I0403 21:54:16.432720 13231 net.cpp:148] Top shape: 24 38 (912)
I0403 21:54:16.432739 13231 net.cpp:148] Top shape: 24 38 (912)
I0403 21:54:16.432759 13231 net.cpp:148] Top shape: 24 38 (912)
I0403 21:54:16.432775 13231 net.cpp:156] Memory required for data: 1346079072
I0403 21:54:16.432793 13231 layer_factory.hpp:77] Creating layer loss1/loss
I0403 21:54:16.432821 13231 net.cpp:91] Creating Layer loss1/loss
I0403 21:54:16.432843 13231 net.cpp:425] loss1/loss <- loss1/classifier_plantvillage_loss1/classifier_plantvillage_0_split_0
I0403 21:54:16.432883 13231 net.cpp:425] loss1/loss <- label_data_1_split_0
…
