…
I0403 21:40:02.723919 12404 net.cpp:313] The NetState phase (1) differed from the phase (0) specified by a rule in layer data
I0403 21:40:02.725055 12404 net.cpp:49] Initializing net from parameters: 
state {
  phase: TEST
}
layer {
  name: "data"
  type: "Data"
  top: "data"
  top: "label"
  include {
    phase: TEST
  }
  transform_param {
    mirror: false
    crop_size: 224
    mean_file: "/home/mohanty/data/final_dataset/lmdb/color-80-20/mean.binaryproto"
  }
  data_param {
    source: "/home/mohanty/data/final_dataset/lmdb/color-80-20/test_db"
    batch_size: 24
    backend: LMDB
  }
}
layer {
  name: "conv1/7x7_s2"
  type: "Convolution"
  bottom: "data"
  top: "conv1/7x7_s2"
  param {
    lr_mult: 1
    decay_mult: 1
  }
  param {
    lr_mult: 2
    decay_mult: 0
  }
  convolution_param {
    num_output: 64
    pad: 3
    kernel_size: 7
    stride: 2
    weight_filler {
      type: "xavier"
      std: 0.1
    }
    bias_filler {
      type: "constant"
      value: 0.2
    }
  }
}
layer {
  name: "conv1/relu_7x7"
  type: "ReLU"
  bottom: "conv1/7x7_s2"
  top: "conv1/7x7_s2"
}
layer {
  name: "pool1/3x3_s2"
  type: "Pooling"
  bottom: "conv1/7x7_s2"
  top: "pool1/3x3_s2"
  pooling_param {
    pool: MAX
    kernel_size: 3
    stride: 2
  }
}
layer {
  name: "pool1/norm1"
  type: "LRN"
  bottom: "pool1/3x3_s2"
  top: "pool1/norm1"
  lrn_param {
    local_size: 5
    alpha: 0.0001
    beta: 0.75
  }
}
layer {
  name: "conv2/3x3_reduce"
  type: "Convolution"
  bottom: "pool1/norm1"
  top: "conv2/3x3_reduce"
  param {
    lr_mult: 1
    decay_mult: 1
  }
  param {
    lr_mult: 2
    decay_mult: 0
  }
  convolution_param {
    num_output: 64
    kernel_size: 1
    weight_filler {
      type: "xavier"
      std: 0.1
    }
    bias_filler {
      type: "constant"
      value: 0.2
    }
  }
}
layer {
  name: "conv2/relu_3x3_reduce"
  type: "ReLU"
  bottom: "conv2/3x3_reduce"
  top: "conv2/3x3_reduce"
}
layer {
  name: "conv2/3x3"
  type: "Convolution"
  bottom: "conv2/3x3_reduce"
  top: "conv2/3x3"
  param {
    lr_mult: 1
    decay_mult: 1
  }
  param {
    lr_mult: 2
    decay_mult: 0
  }
  convolution_param {
    num_output: 192
    pad: 1
    kernel_size: 3
    weight_filler {
      type: "xavier"
      std: 0.03
    }
    bias_filler {
      type: "constant"
      value: 0.2
    }
  }
}
layer {
  name: "conv2/relu_3x3"
  type: "ReLU"
  bottom: "conv2/3x3"
  top: "conv2/3x3"
}
layer {
  name: "conv2/norm2"
  type: "LRN"
  bottom: "conv2/3x3"
  top: "conv2/norm2"
  lrn_param {
    local_size: 5
    alpha: 0.0001
    beta: 0.75
  }
}
layer {
  name: "pool2/3x3_s2"
  type: "Pooling"
  bottom: "conv2/norm2"
  top: "pool2/3x3_s2"
  pooling_param {
    pool: MAX
    kernel_size: 3
    stride: 2
  }
}
layer {
  name: "inception_3a/1x1"
  type: "Convolution"
  bottom: "pool2/3x3_s2"
  top: "inception_3a/1x1"
  param {
    lr_mult: 1
    decay_mult: 1
  }
  param {
    lr_mult: 2
    decay_mult: 0
  }
  convolution_param {
    num_output: 64
    kernel_size: 1
    weight_filler {
      type: "xavier"
      std: 0.03
    }
    bias_filler {
      type: "constant"
      value: 0.2
    }
  }
}
layer {
  name: "inception_3a/relu_1x1"
  type: "ReLU"
  bottom: "inception_3a/1x1"
  top: "inception_3a/1x1"
}
layer {
  name: "inception_3a/3x3_reduce"
  type: "Convolution"
  bottom: "pool2/3x3_s2"
  top: "inception_3a/3x3_reduce"
  param {
    lr_mult: 1
    decay_mult: 1
  }
  param {
    lr_mult: 2
    decay_mult: 0
  }
  convolution_param {
    num_output: 96
    kernel_size: 1
    weight_filler {
      type: "xavier"
      std: 0.09
    }
    bias_filler {
      type: "constant"
      value: 0.2
    }
  }
}
layer {
  name: "inception_3a/relu_3x3_reduce"
  type: "ReLU"
  bottom: "inception_3a/3x3_reduce"
  top: "inception_3a/3x3_reduce"
}
layer {
  name: "inception_3a/3x3"
  type: "Convolution"
  bottom: "inception_3a/3x3_reduce"
  top: "inception_3a/3x3"
  param {
    lr_mult: 1
    decay_mult: 1
  }
  param {
    lr_mult: 2
    decay_mult: 0
  }
  convolution_param {
    num_output: 128
    pad: 1
    kernel_size: 3
    weight_filler {
      type: "xavier"
      std: 0.03
    }
    bias_filler {
      type: "constant"
      value: 0.2
    }
  }
}
layer {
  name: "inception_3a/relu_3x3"
  type: "ReLU"
  bottom: "inception_3a/3x3"
  top: "inception_3a/3x3"
}
layer {
  name: "inception_3a/5x5_reduce"
  type: "Convolution"
  bottom: "pool2/3x3_s2"
  top: "inception_3a/5x5_reduce"
  param {
    lr_mult: 1
    decay_mult: 1
  }
  param {
    lr_mult: 2
    decay_mult: 0
  }
  convolution_param {
    num_output: 16
    kernel_size: 1
    weight_filler {
      type: "xavier"
      std: 0.2
    }
    bias_filler {
      type: "constant"
      value: 0.2
    }
  }
}
layer {
  name: "inception_3a/relu_5x5_reduce"
  type: "ReLU"
  bottom: "inception_3a/5x5_reduce"
  top: "inception_3a/5x5_reduce"
}
layer {
  name: "inception_3a/5x5"
  type: "Convolution"
  bottom: "inception_3a/5x5_reduce"
  top: "inception_3a/5x5"
  param {
    lr_mult: 1
    decay_mult: 1
  }
  param {
    lr_mult: 2
    decay_mult: 0
  }
  convolution_param {
    num_output: 32
    pad: 2
    kernel_size: 5
    weight_filler {
      type: "xavier"
      std: 0.03
    }
    bias_filler {
      type: "constant"
      value: 0.2
    }
  }
}
layer {
  name: "inception_3a/relu_5x5"
  type: "ReLU"
  bottom: "inception_3a/5x5"
  top: "inception_3a/5x5"
}
layer {
  name: "inception_3a/pool"
  type: "Pooling"
  bottom: "pool2/3x3_s2"
  top: "inception_3a/pool"
  pooling_param {
    pool: MAX
    kernel_size: 3
    stride: 1
    pad: 1
  }
}
layer {
  name: "inception_3a/pool_proj"
  type: "Convolution"
  bottom: "inception_3a/pool"
  top: "inception_3a/pool_proj"
  param {
    lr_mult: 1
    decay_mult: 1
  }
  param {
    lr_mult: 2
    decay_mult: 0
  }
  convolution_param {
    num_output: 32
    kernel_size: 1
    weight_filler {
      type: "xavier"
      std: 0.1
    }
    bias_filler {
      type: "constant"
      value: 0.2
    }
  }
}
layer {
  name: "inception_3a/relu_pool_proj"
  type: "ReLU"
  bottom: "inception_3a/pool_proj"
  top: "inception_3a/pool_proj"
}
layer {
  name: "inception_3a/output"
  type: "Concat"
  bottom: "inception_3a/1x1"
  bottom: "inception_3a/3x3"
  bottom: "inception_3a/5x5"
  bottom: "inception_3a/pool_proj"
  top: "inception_3a/output"
}
layer {
  name: "inception_3b/1x1"
  type: "Convolution"
  bottom: "inception_3a/output"
  top: "inception_3b/1x1"
  param {
    lr_mult: 1
    decay_mult: 1
  }
  param {
    lr_mult: 2
    decay_mult: 0
  }
  convolution_param {
    num_output: 128
    kernel_size: 1
    weight_filler {
      type: "xavier"
      std: 0.03
    }
    bias_filler {
      type: "constant"
      value: 0.2
    }
  }
}
layer {
  name: "inception_3b/relu_1x1"
  type: "ReLU"
  bottom: "inception_3b/1x1"
  top: "inception_3b/1x1"
}
layer {
  name: "inception_3b/3x3_reduce"
  type: "Convolution"
  bottom: "inception_3a/output"
  top: "inception_3b/3x3_reduce"
  param {
    lr_mult: 1
    decay_mult: 1
  }
  param {
    lr_mult: 2
    decay_mult: 0
  }
  convolution_param {
    num_output: 128
    kernel_size: 1
    weight_filler {
      type: "xavier"
      std: 0.09
    }
    bias_filler {
      type: "constant"
      value: 0.2
    }
  }
}
layer {
  name: "inception_3b/relu_3x3_reduce"
  type: "ReLU"
  bottom: "inception_3b/3x3_reduce"
  top: "inception_3b/3x3_reduce"
}
layer {
  name: "inception_3b/3x3"
  type: "Convolution"
  bottom: "inception_3b/3x3_reduce"
  top: "inception_3b/3x3"
  param {
    lr_mult: 1
    decay_mult: 1
  }
  param {
    lr_mult: 2
    decay_mult: 0
  }
  convolution_param {
    num_output: 192
    pad: 1
    kernel_size: 3
    weight_filler {
      type: "xavier"
      std: 0.03
    }
    bias_filler {
      type: "constant"
      value: 0.2
    }
  }
}
layer {
  name: "inception_3b/relu_3x3"
  type: "ReLU"
  bottom: "inception_3b/3x3"
  top: "inception_3b/3x3"
}
layer {
  name: "inception_3b/5x5_reduce"
  type: "Convolution"
  bottom: "inception_3a/output"
  top: "inception_3b/5x5_reduce"
  param {
    lr_mult: 1
    decay_mult: 1
  }
  param {
    lr_mult: 2
    decay_mult: 0
  }
  convolution_param {
    num_output: 32
    kernel_size: 1
    weight_filler {
      type: "xavier"
      std: 0.2
    }
    bias_filler {
      type: "constant"
      value: 0.2
    }
  }
}
layer {
  name: "inception_3b/relu_5x5_reduce"
  type: "ReLU"
  bottom: "inception_3b/5x5_reduce"
  top: "inception_3b/5x5_reduce"
}
layer {
  name: "inception_3b/5x5"
  type: "Convolution"
  bottom: "inception_3b/5x5_reduce"
  top: "inception_3b/5x5"
  param {
    lr_mult: 1
    decay_mult: 1
  }
  param {
    lr_mult: 2
    decay_mult: 0
  }
  convolution_param {
    num_output: 96
    pad: 2
    kernel_size: 5
    weight_filler {
      type: "xavier"
      std: 0.03
    }
    bias_filler {
      type: "constant"
      value: 0.2
    }
  }
}
layer {
  name: "inception_3b/relu_5x5"
  type: "ReLU"
  bottom: "inception_3b/5x5"
  top: "inception_3b/5x5"
}
layer {
  name: "inception_3b/pool"
  type: "Pooling"
  bottom: "inception_3a/output"
  top: "inception_3b/pool"
  pooling_param {
    pool: MAX
    kernel_size: 3
    stride: 1
    pad: 1
  }
}
layer {
  name: "inception_3b/pool_proj"
  type: "Convolution"
  bottom: "inception_3b/pool"
  top: "inception_3b/pool_proj"
  param {
    lr_mult: 1
    decay_mult: 1
  }
  param {
    lr_mult: 2
    decay_mult: 0
  }
  convolution_param {
    num_output: 64
    kernel_size: 1
    weight_filler {
      type: "xavier"
      std: 0.1
    }
    bias_filler {
      type: "constant"
      value: 0.2
    }
  }
}
layer {
  name: "inception_3b/relu_pool_proj"
  type: "ReLU"
  bottom: "inception_3b/pool_proj"
  top: "inception_3b/pool_proj"
}
layer {
  name: "inception_3b/output"
  type: "Concat"
  bottom: "inception_3b/1x1"
  bottom: "inception_3b/3x3"
  bottom: "inception_3b/5x5"
  bottom: "inception_3b/pool_proj"
  top: "inception_3b/output"
}
layer {
  name: "pool3/3x3_s2"
  type: "Pooling"
  bottom: "inception_3b/output"
  top: "pool3/3x3_s2"
  pooling_param {
    pool: MAX
    kernel_size: 3
    stride: 2
  }
}
layer {
  name: "inception_4a/1x1"
  type: "Convolution"
  bottom: "pool3/3x3_s2"
  top: "inception_4a/1x1"
  param {
    lr_mult: 1
    decay_mult: 1
  }
  param {
    lr_mult: 2
    decay_mult: 0
  }
  convolution_param {
    num_output: 192
    kernel_size: 1
    weight_filler {
      type: "xavier"
      std: 0.03
    }
    bias_filler {
      type: "constant"
      value: 0.2
    }
  }
}
layer {
  name: "inception_4a/relu_1x1"
  type: "ReLU"
  bottom: "inception_4a/1x1"
  top: "inception_4a/1x1"
}
layer {
  name: "inception_4a/3x3_reduce"
  type: "Convolution"
  bottom: "pool3/3x3_s2"
  top: "inception_4a/3x3_reduce"
  param {
    lr_mult: 1
    decay_mult: 1
  }
  param {
    lr_mult: 2
    decay_mult: 0
  }
  convolution_param {
    num_output: 96
    kernel_size: 1
    weight_filler {
      type: "xavier"
      std: 0.09
    }
    bias_filler {
      type: "constant"
      value: 0.2
    }
  }
}
layer {
  name: "inception_4a/relu_3x3_reduce"
  type: "ReLU"
  bottom: "inception_4a/3x3_reduce"
  top: "inception_4a/3x3_reduce"
}
layer {
  name: "inception_4a/3x3"
  type: "Convolution"
  bottom: "inception_4a/3x3_reduce"
  top: "inception_4a/3x3"
  param {
    lr_mult: 1
    decay_mult: 1
  }
  param {
    lr_mult: 2
    decay_mult: 0
  }
  convolution_param {
    num_output: 208
    pad: 1
    kernel_size: 3
    weight_filler {
      type: "xavier"
      std: 0.03
    }
    bias_filler {
      type: "constant"
      value: 0.2
    }
  }
}
layer {
  name: "inception_4a/relu_3x3"
  type: "ReLU"
  bottom: "inception_4a/3x3"
  top: "inception_4a/3x3"
}
layer {
  name: "inception_4a/5x5_reduce"
  type: "Convolution"
  bottom: "pool3/3x3_s2"
  top: "inception_4a/5x5_reduce"
  param {
    lr_mult: 1
    decay_mult: 1
  }
  param {
    lr_mult: 2
    decay_mult: 0
  }
  convolution_param {
    num_output: 16
    kernel_size: 1
    weight_filler {
      type: "xavier"
      std: 0.2
    }
    bias_filler {
      type: "constant"
      value: 0.2
    }
  }
}
layer {
  name: "inception_4a/relu_5x5_reduce"
  type: "ReLU"
  bottom: "inception_4a/5x5_reduce"
  top: "inception_4a/5x5_reduce"
}
layer {
  name: "inception_4a/5x5"
  type: "Convolution"
  bottom: "inception_4a/5x5_reduce"
  top: "inception_4a/5x5"
  param {
    lr_mult: 1
    decay_mult: 1
  }
  param {
    lr_mult: 2
    decay_mult: 0
  }
  convolution_param {
    num_output: 48
    pad: 2
    kernel_size: 5
    weight_filler {
      type: "xavier"
      std: 0.03
    }
    bias_filler {
      type: "constant"
      value: 0.2
    }
  }
}
layer {
  name: "inception_4a/relu_5x5"
  type: "ReLU"
  bottom: "inception_4a/5x5"
  top: "inception_4a/5x5"
}
layer {
  name: "inception_4a/pool"
  type: "Pooling"
  bottom: "pool3/3x3_s2"
  top: "inception_4a/pool"
  pooling_param {
    pool: MAX
    kernel_size: 3
    stride: 1
    pad: 1
  }
}
layer {
  name: "inception_4a/pool_proj"
  type: "Convolution"
  bottom: "inception_4a/pool"
  top: "inception_4a/pool_proj"
  param {
    lr_mult: 1
    decay_mult: 1
  }
  param {
    lr_mult: 2
    decay_mult: 0
  }
  convolution_param {
    num_output: 64
    kernel_size: 1
    weight_filler {
      type: "xavier"
      std: 0.1
    }
    bias_filler {
      type: "constant"
      value: 0.2
    }
  }
}
layer {
  name: "inception_4a/relu_pool_proj"
  type: "ReLU"
  bottom: "inception_4a/pool_proj"
  top: "inception_4a/pool_proj"
}
layer {
  name: "inception_4a/output"
  type: "Concat"
  bottom: "inception_4a/1x1"
  bottom: "inception_4a/3x3"
  bottom: "inception_4a/5x5"
  bottom: "inception_4a/pool_proj"
  top: "inception_4a/output"
}
layer {
  name: "loss1/ave_pool"
  type: "Pooling"
  bottom: "inception_4a/output"
  top: "loss1/ave_pool"
  pooling_param {
    pool: AVE
    kernel_size: 5
    stride: 3
  }
}
layer {
  name: "loss1/conv"
  type: "Convolution"
  bottom: "loss1/ave_pool"
  top: "loss1/conv"
  param {
    lr_mult: 1
    decay_mult: 1
  }
  param {
    lr_mult: 2
    decay_mult: 0
  }
  convolution_param {
    num_output: 128
    kernel_size: 1
    weight_filler {
      type: "xavier"
      std: 0.08
    }
    bias_filler {
      type: "constant"
      value: 0.2
    }
  }
}
layer {
  name: "loss1/relu_conv"
  type: "ReLU"
  bottom: "loss1/conv"
  top: "loss1/conv"
}
layer {
  name: "loss1/fc"
  type: "InnerProduct"
  bottom: "loss1/conv"
  top: "loss1/fc"
  param {
    lr_mult: 1
    decay_mult: 1
  }
  param {
    lr_mult: 2
    decay_mult: 0
  }
  inner_product_param {
    num_output: 1024
    weight_filler {
      type: "xavier"
      std: 0.02
    }
    bias_filler {
      type: "constant"
      value: 0.2
    }
  }
}
layer {
  name: "loss1/relu_fc"
  type: "ReLU"
  bottom: "loss1/fc"
  top: "loss1/fc"
}
layer {
  name: "loss1/drop_fc"
  type: "Dropout"
  bottom: "loss1/fc"
  top: "loss1/fc"
  dropout_param {
    dropout_ratio: 0.7
  }
}
layer {
  name: "loss1/classifier_plantvillage"
  type: "InnerProduct"
  bottom: "loss1/fc"
  top: "loss1/classifier_plantvillage"
  param {
    lr_mult: 1
    decay_mult: 1
  }
  param {
    lr_mult: 2
    decay_mult: 0
  }
  inner_product_param {
    num_output: 38
    weight_filler {
      type: "xavier"
      std: 0.0009765625
    }
    bias_filler {
      type: "constant"
      value: 0
    }
  }
}
layer {
  name: "inception_4b/1x1"
  type: "Convolution"
  bottom: "inception_4a/output"
  top: "inception_4b/1x1"
  param {
    lr_mult: 1
    decay_mult: 1
  }
  param {
    lr_mult: 2
    decay_mult: 0
  }
  convolution_param {
    num_output: 160
    kernel_size: 1
    weight_filler {
      type: "xavier"
      std: 0.03
    }
    bias_filler {
      type: "constant"
      value: 0.2
    }
  }
}
layer {
  name: "inception_4b/relu_1x1"
  type: "ReLU"
  bottom: "inception_4b/1x1"
  top: "inception_4b/1x1"
}
layer {
  name: "inception_4b/3x3_reduce"
  type: "Convolution"
  bottom: "inception_4a/output"
  top: "inception_4b/3x3_reduce"
  param {
    lr_mult: 1
    decay_mult: 1
  }
  param {
    lr_mult: 2
    decay_mult: 0
  }
  convolution_param {
    num_output: 112
    kernel_size: 1
    weight_filler {
      type: "xavier"
      std: 0.09
    }
    bias_filler {
      type: "constant"
      value: 0.2
    }
  }
}
layer {
  name: "inception_4b/relu_3x3_reduce"
  type: "ReLU"
  bottom: "inception_4b/3x3_reduce"
  top: "inception_4b/3x3_reduce"
}
layer {
  name: "inception_4b/3x3"
  type: "Convolution"
  bottom: "inception_4b/3x3_reduce"
  top: "inception_4b/3x3"
  param {
    lr_mult: 1
    decay_mult: 1
  }
  param {
    lr_mult: 2
    decay_mult: 0
  }
  convolution_param {
    num_output: 224
    pad: 1
    kernel_size: 3
    weight_filler {
      type: "xavier"
      std: 0.03
    }
    bias_filler {
      type: "constant"
      value: 0.2
    }
  }
}
layer {
  name: "inception_4b/relu_3x3"
  type: "ReLU"
  bottom: "inception_4b/3x3"
  top: "inception_4b/3x3"
}
layer {
  name: "inception_4b/5x5_reduce"
  type: "Convolution"
  bottom: "inception_4a/output"
  top: "inception_4b/5x5_reduce"
  param {
    lr_mult: 1
    decay_mult: 1
  }
  param {
    lr_mult: 2
    decay_mult: 0
  }
  convolution_param {
    num_output: 24
    kernel_size: 1
    weight_filler {
      type: "xavier"
      std: 0.2
    }
    bias_filler {
      type: "constant"
      value: 0.2
    }
  }
}
layer {
  name: "inception_4b/relu_5x5_reduce"
  type: "ReLU"
  bottom: "inception_4b/5x5_reduce"
  top: "inception_4b/5x5_reduce"
}
layer {
  name: "inception_4b/5x5"
  type: "Convolution"
  bottom: "inception_4b/5x5_reduce"
  top: "inception_4b/5x5"
  param {
    lr_mult: 1
    decay_mult: 1
  }
  param {
    lr_mult: 2
    decay_mult: 0
  }
  convolution_param {
    num_output: 64
    pad: 2
    kernel_size: 5
    weight_filler {
      type: "xavier"
      std: 0.03
    }
    bias_filler {
      type: "constant"
      value: 0.2
    }
  }
}
layer {
  name: "inception_4b/relu_5x5"
  type: "ReLU"
  bottom: "inception_4b/5x5"
  top: "inception_4b/5x5"
}
layer {
  name: "inception_4b/pool"
  type: "Pooling"
  bottom: "inception_4a/output"
  top: "inception_4b/pool"
  pooling_param {
    pool: MAX
    kernel_size: 3
    stride: 1
    pad: 1
  }
}
layer {
  name: "inception_4b/pool_proj"
  type: "Convolution"
  bottom: "inception_4b/pool"
  top: "inception_4b/pool_proj"
  param {
    lr_mult: 1
    decay_mult: 1
  }
  param {
    lr_mult: 2
    decay_mult: 0
  }
  convolution_param {
    num_output: 64
    kernel_size: 1
    weight_filler {
      type: "xavier"
      std: 0.1
    }
    bias_filler {
      type: "constant"
      value: 0.2
    }
  }
}
layer {
  name: "inception_4b/relu_pool_proj"
  type: "ReLU"
  bottom: "inception_4b/pool_proj"
  top: "inception_4b/pool_proj"
}
layer {
  name: "inception_4b/output"
  type: "Concat"
  bottom: "inception_4b/1x1"
  bottom: "inception_4b/3x3"
  bottom: "inception_4b/5x5"
  bottom: "inception_4b/pool_proj"
  top: "inception_4b/output"
}
layer {
  name: "inception_4c/1x1"
  type: "Convolution"
  bottom: "inception_4b/output"
  top: "inception_4c/1x1"
  param {
    lr_mult: 1
    decay_mult: 1
  }
  param {
    lr_mult: 2
    decay_mult: 0
  }
  convolution_param {
    num_output: 128
    kernel_size: 1
    weight_filler {
      type: "xavier"
      std: 0.03
    }
    bias_filler {
      type: "constant"
      value: 0.2
    }
  }
}
layer {
  name: "inception_4c/relu_1x1"
  type: "ReLU"
  bottom: "inception_4c/1x1"
  top: "inception_4c/1x1"
}
layer {
  name: "inception_4c/3x3_reduce"
  type: "Convolution"
  bottom: "inception_4b/output"
  top: "inception_4c/3x3_reduce"
  param {
    lr_mult: 1
    decay_mult: 1
  }
  param {
    lr_mult: 2
    decay_mult: 0
  }
  convolution_param {
    num_output: 128
    kernel_size: 1
    weight_filler {
      type: "xavier"
      std: 0.09
    }
    bias_filler {
      type: "constant"
      value: 0.2
    }
  }
}
layer {
  name: "inception_4c/relu_3x3_reduce"
  type: "ReLU"
  bottom: "inception_4c/3x3_reduce"
  top: "inception_4c/3x3_reduce"
}
layer {
  name: "inception_4c/3x3"
  type: "Convolution"
  bottom: "inception_4c/3x3_reduce"
  top: "inception_4c/3x3"
  param {
    lr_mult: 1
    decay_mult: 1
  }
  param {
    lr_mult: 2
    decay_mult: 0
  }
  convolution_param {
    num_output: 256
    pad: 1
    kernel_size: 3
    weight_filler {
      type: "xavier"
      std: 0.03
    }
    bias_filler {
      type: "constant"
      value: 0.2
    }
  }
}
layer {
  name: "inception_4c/relu_3x3"
  type: "ReLU"
  bottom: "inception_4c/3x3"
  top: "inception_4c/3x3"
}
layer {
  name: "inception_4c/5x5_reduce"
  type: "Convolution"
  bottom: "inception_4b/output"
  top: "inception_4c/5x5_reduce"
  param {
    lr_mult: 1
    decay_mult: 1
  }
  param {
    lr_mult: 2
    decay_mult: 0
  }
  convolution_param {
    num_output: 24
    kernel_size: 1
    weight_filler {
      type: "xavier"
      std: 0.2
    }
    bias_filler {
      type: "constant"
      value: 0.2
    }
  }
}
layer {
  name: "inception_4c/relu_5x5_reduce"
  type: "ReLU"
  bottom: "inception_4c/5x5_reduce"
  top: "inception_4c/5x5_reduce"
}
layer {
  name: "inception_4c/5x5"
  type: "Convolution"
  bottom: "inception_4c/5x5_reduce"
  top: "inception_4c/5x5"
  param {
    lr_mult: 1
    decay_mult: 1
  }
  param {
    lr_mult: 2
    decay_mult: 0
  }
  convolution_param {
    num_output: 64
    pad: 2
    kernel_size: 5
    weight_filler {
      type: "xavier"
      std: 0.03
    }
    bias_filler {
      type: "constant"
      value: 0.2
    }
  }
}
layer {
  name: "inception_4c/relu_5x5"
  type: "ReLU"
  bottom: "inception_4c/5x5"
  top: "inception_4c/5x5"
}
layer {
  name: "inception_4c/pool"
  type: "Pooling"
  bottom: "inception_4b/output"
  top: "inception_4c/pool"
  pooling_param {
    pool: MAX
    kernel_size: 3
    stride: 1
    pad: 1
  }
}
layer {
  name: "inception_4c/pool_proj"
  type: "Convolution"
  bottom: "inception_4c/pool"
  top: "inception_4c/pool_proj"
  param {
    lr_mult: 1
    decay_mult: 1
  }
  param {
    lr_mult: 2
    decay_mult: 0
  }
  convolution_param {
    num_output: 64
    kernel_size: 1
    weight_filler {
      type: "xavier"
      std: 0.1
    }
    bias_filler {
      type: "constant"
      value: 0.2
    }
  }
}
layer {
  name: "inception_4c/relu_pool_proj"
  type: "ReLU"
  bottom: "inception_4c/pool_proj"
  top: "inception_4c/pool_proj"
}
layer {
  name: "inception_4c/output"
  type: "Concat"
  bottom: "inception_4c/1x1"
  bottom: "inception_4c/3x3"
  bottom: "inception_4c/5x5"
  bottom: "inception_4c/pool_proj"
  top: "inception_4c/output"
}
layer {
  name: "inception_4d/1x1"
  type: "Convolution"
  bottom: "inception_4c/output"
  top: "inception_4d/1x1"
  param {
    lr_mult: 1
    decay_mult: 1
  }
  param {
    lr_mult: 2
    decay_mult: 0
  }
  convolution_param {
    num_output: 112
    kernel_size: 1
    weight_filler {
      type: "xavier"
      std: 0.03
    }
    bias_filler {
      type: "constant"
      value: 0.2
    }
  }
}
layer {
  name: "inception_4d/relu_1x1"
  type: "ReLU"
  bottom: "inception_4d/1x1"
  top: "inception_4d/1x1"
}
layer {
  name: "inception_4d/3x3_reduce"
  type: "Convolution"
  bottom: "inception_4c/output"
  top: "inception_4d/3x3_reduce"
  param {
    lr_mult: 1
    decay_mult: 1
  }
  param {
    lr_mult: 2
    decay_mult: 0
  }
  convolution_param {
    num_output: 144
    kernel_size: 1
    weight_filler {
      type: "xavier"
      std: 0.09
    }
    bias_filler {
      type: "constant"
      value: 0.2
    }
  }
}
layer {
  name: "inception_4d/relu_3x3_reduce"
  type: "ReLU"
  bottom: "inception_4d/3x3_reduce"
  top: "inception_4d/3x3_reduce"
}
layer {
  name: "inception_4d/3x3"
  type: "Convolution"
  bottom: "inception_4d/3x3_reduce"
  top: "inception_4d/3x3"
  param {
    lr_mult: 1
    decay_mult: 1
  }
  param {
    lr_mult: 2
    decay_mult: 0
  }
  convolution_param {
    num_output: 288
    pad: 1
    kernel_size: 3
    weight_filler {
      type: "xavier"
      std: 0.03
    }
    bias_filler {
      type: "constant"
      value: 0.2
    }
  }
}
layer {
  name: "inception_4d/relu_3x3"
  type: "ReLU"
  bottom: "inception_4d/3x3"
  top: "inception_4d/3x3"
}
layer {
  name: "inception_4d/5x5_reduce"
  type: "Convolution"
  bottom: "inception_4c/output"
  top: "inception_4d/5x5_reduce"
  param {
    lr_mult: 1
    decay_mult: 1
  }
  param {
    lr_mult: 2
    decay_mult: 0
  }
  convolution_param {
    num_output: 32
    kernel_size: 1
    weight_filler {
      type: "xavier"
      std: 0.2
    }
    bias_filler {
      type: "constant"
      value: 0.2
    }
  }
}
layer {
  name: "inception_4d/relu_5x5_reduce"
  type: "ReLU"
  bottom: "inception_4d/5x5_reduce"
  top: "inception_4d/5x5_reduce"
}
layer {
  name: "inception_4d/5x5"
  type: "Convolution"
  bottom: "inception_4d/5x5_reduce"
  top: "inception_4d/5x5"
  param {
    lr_mult: 1
    decay_mult: 1
  }
  param {
    lr_mult: 2
    decay_mult: 0
  }
  convolution_param {
    num_output: 64
    pad: 2
    kernel_size: 5
    weight_filler {
      type: "xavier"
      std: 0.03
    }
    bias_filler {
      type: "constant"
      value: 0.2
    }
  }
}
layer {
  name: "inception_4d/relu_5x5"
  type: "ReLU"
  bottom: "inception_4d/5x5"
  top: "inception_4d/5x5"
}
layer {
  name: "inception_4d/pool"
  type: "Pooling"
  bottom: "inception_4c/output"
  top: "inception_4d/pool"
  pooling_param {
    pool: MAX
    kernel_size: 3
    stride: 1
    pad: 1
  }
}
layer {
  name: "inception_4d/pool_proj"
  type: "Convolution"
  bottom: "inception_4d/pool"
  top: "inception_4d/pool_proj"
  param {
    lr_mult: 1
    decay_mult: 1
  }
  param {
    lr_mult: 2
    decay_mult: 0
  }
  convolution_param {
    num_output: 64
    kernel_size: 1
    weight_filler {
      type: "xavier"
      std: 0.1
    }
    bias_filler {
      type: "constant"
      value: 0.2
    }
  }
}
layer {
  name: "inception_4d/relu_pool_proj"
  type: "ReLU"
  bottom: "inception_4d/pool_proj"
  top: "inception_4d/pool_proj"
}
layer {
  name: "inception_4d/output"
  type: "Concat"
  bottom: "inception_4d/1x1"
  bottom: "inception_4d/3x3"
  bottom: "inception_4d/5x5"
  bottom: "inception_4d/pool_proj"
  top: "inception_4d/output"
}
layer {
  name: "loss2/ave_pool"
  type: "Pooling"
  bottom: "inception_4d/output"
  top: "loss2/ave_pool"
  pooling_param {
    pool: AVE
    kernel_size: 5
    stride: 3
  }
}
layer {
  name: "loss2/conv"
  type: "Convolution"
  bottom: "loss2/ave_pool"
  top: "loss2/conv"
  param {
    lr_mult: 1
    decay_mult: 1
  }
  param {
    lr_mult: 2
    decay_mult: 0
  }
  convolution_param {
    num_output: 128
    kernel_size: 1
    weight_filler {
      type: "xavier"
      std: 0.08
    }
    bias_filler {
      type: "constant"
      value: 0.2
    }
  }
}
layer {
  name: "loss2/relu_conv"
  type: "ReLU"
  bottom: "loss2/conv"
  top: "loss2/conv"
}
layer {
  name: "loss2/fc"
  type: "InnerProduct"
  bottom: "loss2/conv"
  top: "loss2/fc"
  param {
    lr_mult: 1
    decay_mult: 1
  }
  param {
    lr_mult: 2
    decay_mult: 0
  }
  inner_product_param {
    num_output: 1024
    weight_filler {
      type: "xavier"
      std: 0.02
    }
    bias_filler {
      type: "constant"
      value: 0.2
    }
  }
}
layer {
  name: "loss2/relu_fc"
  type: "ReLU"
  bottom: "loss2/fc"
  top: "loss2/fc"
}
layer {
  name: "loss2/drop_fc"
  type: "Dropout"
  bottom: "loss2/fc"
  top: "loss2/fc"
  dropout_param {
    dropout_ratio: 0.7
  }
}
layer {
  name: "loss2/classifier_plantvillage"
  type: "InnerProduct"
  bottom: "loss2/fc"
  top: "loss2/classifier_plantvillage"
  param {
    lr_mult: 1
    decay_mult: 1
  }
  param {
    lr_mult: 2
    decay_mult: 0
  }
  inner_product_param {
    num_output: 38
    weight_filler {
      type: "xavier"
      std: 0.0009765625
    }
    bias_filler {
      type: "constant"
      value: 0
    }
  }
}
layer {
  name: "inception_4e/1x1"
  type: "Convolution"
  bottom: "inception_4d/output"
  top: "inception_4e/1x1"
  param {
    lr_mult: 1
    decay_mult: 1
  }
  param {
    lr_mult: 2
    decay_mult: 0
  }
  convolution_param {
    num_output: 256
    kernel_size: 1
    weight_filler {
      type: "xavier"
      std: 0.03
    }
    bias_filler {
      type: "constant"
      value: 0.2
    }
  }
}
layer {
  name: "inception_4e/relu_1x1"
  type: "ReLU"
  bottom: "inception_4e/1x1"
  top: "inception_4e/1x1"
}
layer {
  name: "inception_4e/3x3_reduce"
  type: "Convolution"
  bottom: "inception_4d/output"
  top: "inception_4e/3x3_reduce"
  param {
    lr_mult: 1
    decay_mult: 1
  }
  param {
    lr_mult: 2
    decay_mult: 0
  }
  convolution_param {
    num_output: 160
    kernel_size: 1
    weight_filler {
      type: "xavier"
      std: 0.09
    }
    bias_filler {
      type: "constant"
      value: 0.2
    }
  }
}
layer {
  name: "inception_4e/relu_3x3_reduce"
  type: "ReLU"
  bottom: "inception_4e/3x3_reduce"
  top: "inception_4e/3x3_reduce"
}
layer {
  name: "inception_4e/3x3"
  type: "Convolution"
  bottom: "inception_4e/3x3_reduce"
  top: "inception_4e/3x3"
  param {
    lr_mult: 1
    decay_mult: 1
  }
  param {
    lr_mult: 2
    decay_mult: 0
  }
  convolution_param {
    num_output: 320
    pad: 1
    kernel_size: 3
    weight_filler {
      type: "xavier"
      std: 0.03
    }
    bias_filler {
      type: "constant"
      value: 0.2
    }
  }
}
layer {
  name: "inception_4e/relu_3x3"
  type: "ReLU"
  bottom: "inception_4e/3x3"
  top: "inception_4e/3x3"
}
layer {
  name: "inception_4e/5x5_reduce"
  type: "Convolution"
  bottom: "inception_4d/output"
  top: "inception_4e/5x5_reduce"
  param {
    lr_mult: 1
    decay_mult: 1
  }
  param {
    lr_mult: 2
    decay_mult: 0
  }
  convolution_param {
    num_output: 32
    kernel_size: 1
    weight_filler {
      type: "xavier"
      std: 0.2
    }
    bias_filler {
      type: "constant"
      value: 0.2
    }
  }
}
layer {
  name: "inception_4e/relu_5x5_reduce"
  type: "ReLU"
  bottom: "inception_4e/5x5_reduce"
  top: "inception_4e/5x5_reduce"
}
layer {
  name: "inception_4e/5x5"
  type: "Convolution"
  bottom: "inception_4e/5x5_reduce"
  top: "inception_4e/5x5"
  p
I0403 21:40:02.727126 12404 layer_factory.hpp:77] Creating layer data
I0403 21:40:02.727716 12404 net.cpp:91] Creating Layer data
I0403 21:40:02.727746 12404 net.cpp:399] data -> data
I0403 21:40:02.727798 12404 net.cpp:399] data -> label
I0403 21:40:02.727835 12404 data_transformer.cpp:25] Loading mean file from: /home/mohanty/data/final_dataset/lmdb/color-80-20/mean.binaryproto
I0403 21:40:02.728992 12411 db_lmdb.cpp:38] Opened lmdb /home/mohanty/data/final_dataset/lmdb/color-80-20/test_db
I0403 21:40:02.741381 12404 data_layer.cpp:41] output data size: 24,3,224,224
I0403 21:40:02.769728 12404 net.cpp:141] Setting up data
I0403 21:40:02.769824 12404 net.cpp:148] Top shape: 24 3 224 224 (3612672)
I0403 21:40:02.769846 12404 net.cpp:148] Top shape: 24 (24)
I0403 21:40:02.769862 12404 net.cpp:156] Memory required for data: 14450784
I0403 21:40:02.769889 12404 layer_factory.hpp:77] Creating layer label_data_1_split
I0403 21:40:02.769917 12404 net.cpp:91] Creating Layer label_data_1_split
I0403 21:40:02.769934 12404 net.cpp:425] label_data_1_split <- label
I0403 21:40:02.769968 12404 net.cpp:399] label_data_1_split -> label_data_1_split_0
I0403 21:40:02.769995 12404 net.cpp:399] label_data_1_split -> label_data_1_split_1
I0403 21:40:02.770016 12404 net.cpp:399] label_data_1_split -> label_data_1_split_2
I0403 21:40:02.770037 12404 net.cpp:399] label_data_1_split -> label_data_1_split_3
I0403 21:40:02.770057 12404 net.cpp:399] label_data_1_split -> label_data_1_split_4
I0403 21:40:02.770076 12404 net.cpp:399] label_data_1_split -> label_data_1_split_5
I0403 21:40:02.770097 12404 net.cpp:399] label_data_1_split -> label_data_1_split_6
I0403 21:40:02.770117 12404 net.cpp:399] label_data_1_split -> label_data_1_split_7
I0403 21:40:02.770135 12404 net.cpp:399] label_data_1_split -> label_data_1_split_8
I0403 21:40:02.770155 12404 net.cpp:399] label_data_1_split -> label_data_1_split_9
I0403 21:40:02.770288 12404 net.cpp:141] Setting up label_data_1_split
I0403 21:40:02.770313 12404 net.cpp:148] Top shape: 24 (24)
I0403 21:40:02.770330 12404 net.cpp:148] Top shape: 24 (24)
I0403 21:40:02.770347 12404 net.cpp:148] Top shape: 24 (24)
I0403 21:40:02.770364 12404 net.cpp:148] Top shape: 24 (24)
I0403 21:40:02.770381 12404 net.cpp:148] Top shape: 24 (24)
I0403 21:40:02.770397 12404 net.cpp:148] Top shape: 24 (24)
I0403 21:40:02.770413 12404 net.cpp:148] Top shape: 24 (24)
I0403 21:40:02.770431 12404 net.cpp:148] Top shape: 24 (24)
I0403 21:40:02.770447 12404 net.cpp:148] Top shape: 24 (24)
I0403 21:40:02.770464 12404 net.cpp:148] Top shape: 24 (24)
I0403 21:40:02.770522 12404 net.cpp:156] Memory required for data: 14451744
I0403 21:40:02.770539 12404 layer_factory.hpp:77] Creating layer conv1/7x7_s2
I0403 21:40:02.770571 12404 net.cpp:91] Creating Layer conv1/7x7_s2
I0403 21:40:02.770591 12404 net.cpp:425] conv1/7x7_s2 <- data
I0403 21:40:02.770612 12404 net.cpp:399] conv1/7x7_s2 -> conv1/7x7_s2
I0403 21:40:02.915348 12404 net.cpp:141] Setting up conv1/7x7_s2
I0403 21:40:02.915451 12404 net.cpp:148] Top shape: 24 64 112 112 (19267584)
I0403 21:40:02.915468 12404 net.cpp:156] Memory required for data: 91522080
I0403 21:40:02.915503 12404 layer_factory.hpp:77] Creating layer conv1/relu_7x7
I0403 21:40:02.915542 12404 net.cpp:91] Creating Layer conv1/relu_7x7
I0403 21:40:02.915562 12404 net.cpp:425] conv1/relu_7x7 <- conv1/7x7_s2
I0403 21:40:02.915582 12404 net.cpp:386] conv1/relu_7x7 -> conv1/7x7_s2 (in-place)
I0403 21:40:02.915833 12404 net.cpp:141] Setting up conv1/relu_7x7
I0403 21:40:02.915861 12404 net.cpp:148] Top shape: 24 64 112 112 (19267584)
I0403 21:40:02.915925 12404 net.cpp:156] Memory required for data: 168592416
I0403 21:40:02.915941 12404 layer_factory.hpp:77] Creating layer pool1/3x3_s2
I0403 21:40:02.915967 12404 net.cpp:91] Creating Layer pool1/3x3_s2
I0403 21:40:02.915985 12404 net.cpp:425] pool1/3x3_s2 <- conv1/7x7_s2
I0403 21:40:02.916004 12404 net.cpp:399] pool1/3x3_s2 -> pool1/3x3_s2
I0403 21:40:02.916079 12404 net.cpp:141] Setting up pool1/3x3_s2
I0403 21:40:02.916102 12404 net.cpp:148] Top shape: 24 64 56 56 (4816896)
I0403 21:40:02.916118 12404 net.cpp:156] Memory required for data: 187860000
I0403 21:40:02.916133 12404 layer_factory.hpp:77] Creating layer pool1/norm1
I0403 21:40:02.916158 12404 net.cpp:91] Creating Layer pool1/norm1
I0403 21:40:02.916177 12404 net.cpp:425] pool1/norm1 <- pool1/3x3_s2
I0403 21:40:02.916194 12404 net.cpp:399] pool1/norm1 -> pool1/norm1
I0403 21:40:02.916477 12404 net.cpp:141] Setting up pool1/norm1
I0403 21:40:02.916504 12404 net.cpp:148] Top shape: 24 64 56 56 (4816896)
I0403 21:40:02.916522 12404 net.cpp:156] Memory required for data: 207127584
I0403 21:40:02.916538 12404 layer_factory.hpp:77] Creating layer conv2/3x3_reduce
I0403 21:40:02.916563 12404 net.cpp:91] Creating Layer conv2/3x3_reduce
I0403 21:40:02.916580 12404 net.cpp:425] conv2/3x3_reduce <- pool1/norm1
I0403 21:40:02.916599 12404 net.cpp:399] conv2/3x3_reduce -> conv2/3x3_reduce
I0403 21:40:02.917968 12404 net.cpp:141] Setting up conv2/3x3_reduce
I0403 21:40:02.917997 12404 net.cpp:148] Top shape: 24 64 56 56 (4816896)
I0403 21:40:02.918014 12404 net.cpp:156] Memory required for data: 226395168
I0403 21:40:02.918035 12404 layer_factory.hpp:77] Creating layer conv2/relu_3x3_reduce
I0403 21:40:02.918056 12404 net.cpp:91] Creating Layer conv2/relu_3x3_reduce
I0403 21:40:02.918072 12404 net.cpp:425] conv2/relu_3x3_reduce <- conv2/3x3_reduce
I0403 21:40:02.918090 12404 net.cpp:386] conv2/relu_3x3_reduce -> conv2/3x3_reduce (in-place)
I0403 21:40:02.918339 12404 net.cpp:141] Setting up conv2/relu_3x3_reduce
I0403 21:40:02.918365 12404 net.cpp:148] Top shape: 24 64 56 56 (4816896)
I0403 21:40:02.918380 12404 net.cpp:156] Memory required for data: 245662752
I0403 21:40:02.918396 12404 layer_factory.hpp:77] Creating layer conv2/3x3
I0403 21:40:02.918418 12404 net.cpp:91] Creating Layer conv2/3x3
I0403 21:40:02.918437 12404 net.cpp:425] conv2/3x3 <- conv2/3x3_reduce
I0403 21:40:02.918454 12404 net.cpp:399] conv2/3x3 -> conv2/3x3
I0403 21:40:02.920812 12404 net.cpp:141] Setting up conv2/3x3
I0403 21:40:02.920845 12404 net.cpp:148] Top shape: 24 192 56 56 (14450688)
I0403 21:40:02.920862 12404 net.cpp:156] Memory required for data: 303465504
I0403 21:40:02.920884 12404 layer_factory.hpp:77] Creating layer conv2/relu_3x3
I0403 21:40:02.920902 12404 net.cpp:91] Creating Layer conv2/relu_3x3
I0403 21:40:02.920918 12404 net.cpp:425] conv2/relu_3x3 <- conv2/3x3
I0403 21:40:02.920936 12404 net.cpp:386] conv2/relu_3x3 -> conv2/3x3 (in-place)
I0403 21:40:02.921114 12404 net.cpp:141] Setting up conv2/relu_3x3
I0403 21:40:02.921140 12404 net.cpp:148] Top shape: 24 192 56 56 (14450688)
I0403 21:40:02.921190 12404 net.cpp:156] Memory required for data: 361268256
I0403 21:40:02.921258 12404 layer_factory.hpp:77] Creating layer conv2/norm2
I0403 21:40:02.921282 12404 net.cpp:91] Creating Layer conv2/norm2
I0403 21:40:02.921298 12404 net.cpp:425] conv2/norm2 <- conv2/3x3
I0403 21:40:02.921315 12404 net.cpp:399] conv2/norm2 -> conv2/norm2
I0403 21:40:02.921622 12404 net.cpp:141] Setting up conv2/norm2
I0403 21:40:02.921648 12404 net.cpp:148] Top shape: 24 192 56 56 (14450688)
I0403 21:40:02.921663 12404 net.cpp:156] Memory required for data: 419071008
I0403 21:40:02.921679 12404 layer_factory.hpp:77] Creating layer pool2/3x3_s2
I0403 21:40:02.921700 12404 net.cpp:91] Creating Layer pool2/3x3_s2
I0403 21:40:02.921716 12404 net.cpp:425] pool2/3x3_s2 <- conv2/norm2
I0403 21:40:02.921735 12404 net.cpp:399] pool2/3x3_s2 -> pool2/3x3_s2
I0403 21:40:02.921787 12404 net.cpp:141] Setting up pool2/3x3_s2
I0403 21:40:02.921810 12404 net.cpp:148] Top shape: 24 192 28 28 (3612672)
I0403 21:40:02.921825 12404 net.cpp:156] Memory required for data: 433521696
I0403 21:40:02.921840 12404 layer_factory.hpp:77] Creating layer pool2/3x3_s2_pool2/3x3_s2_0_split
I0403 21:40:02.921859 12404 net.cpp:91] Creating Layer pool2/3x3_s2_pool2/3x3_s2_0_split
I0403 21:40:02.921874 12404 net.cpp:425] pool2/3x3_s2_pool2/3x3_s2_0_split <- pool2/3x3_s2
I0403 21:40:02.921895 12404 net.cpp:399] pool2/3x3_s2_pool2/3x3_s2_0_split -> pool2/3x3_s2_pool2/3x3_s2_0_split_0
I0403 21:40:02.921914 12404 net.cpp:399] pool2/3x3_s2_pool2/3x3_s2_0_split -> pool2/3x3_s2_pool2/3x3_s2_0_split_1
I0403 21:40:02.921934 12404 net.cpp:399] pool2/3x3_s2_pool2/3x3_s2_0_split -> pool2/3x3_s2_pool2/3x3_s2_0_split_2
I0403 21:40:02.921953 12404 net.cpp:399] pool2/3x3_s2_pool2/3x3_s2_0_split -> pool2/3x3_s2_pool2/3x3_s2_0_split_3
I0403 21:40:02.922029 12404 net.cpp:141] Setting up pool2/3x3_s2_pool2/3x3_s2_0_split
I0403 21:40:02.922055 12404 net.cpp:148] Top shape: 24 192 28 28 (3612672)
I0403 21:40:02.922072 12404 net.cpp:148] Top shape: 24 192 28 28 (3612672)
I0403 21:40:02.922089 12404 net.cpp:148] Top shape: 24 192 28 28 (3612672)
I0403 21:40:02.922104 12404 net.cpp:148] Top shape: 24 192 28 28 (3612672)
I0403 21:40:02.922119 12404 net.cpp:156] Memory required for data: 491324448
I0403 21:40:02.922133 12404 layer_factory.hpp:77] Creating layer inception_3a/1x1
I0403 21:40:02.922157 12404 net.cpp:91] Creating Layer inception_3a/1x1
I0403 21:40:02.922174 12404 net.cpp:425] inception_3a/1x1 <- pool2/3x3_s2_pool2/3x3_s2_0_split_0
I0403 21:40:02.922196 12404 net.cpp:399] inception_3a/1x1 -> inception_3a/1x1
I0403 21:40:02.923877 12404 net.cpp:141] Setting up inception_3a/1x1
I0403 21:40:02.923907 12404 net.cpp:148] Top shape: 24 64 28 28 (1204224)
I0403 21:40:02.923924 12404 net.cpp:156] Memory required for data: 496141344
I0403 21:40:02.923944 12404 layer_factory.hpp:77] Creating layer inception_3a/relu_1x1
I0403 21:40:02.923966 12404 net.cpp:91] Creating Layer inception_3a/relu_1x1
I0403 21:40:02.923984 12404 net.cpp:425] inception_3a/relu_1x1 <- inception_3a/1x1
I0403 21:40:02.924002 12404 net.cpp:386] inception_3a/relu_1x1 -> inception_3a/1x1 (in-place)
I0403 21:40:02.924176 12404 net.cpp:141] Setting up inception_3a/relu_1x1
I0403 21:40:02.924203 12404 net.cpp:148] Top shape: 24 64 28 28 (1204224)
I0403 21:40:02.924226 12404 net.cpp:156] Memory required for data: 500958240
I0403 21:40:02.924242 12404 layer_factory.hpp:77] Creating layer inception_3a/3x3_reduce
I0403 21:40:02.924263 12404 net.cpp:91] Creating Layer inception_3a/3x3_reduce
I0403 21:40:02.924281 12404 net.cpp:425] inception_3a/3x3_reduce <- pool2/3x3_s2_pool2/3x3_s2_0_split_1
I0403 21:40:02.924302 12404 net.cpp:399] inception_3a/3x3_reduce -> inception_3a/3x3_reduce
I0403 21:40:02.925910 12404 net.cpp:141] Setting up inception_3a/3x3_reduce
I0403 21:40:02.925940 12404 net.cpp:148] Top shape: 24 96 28 28 (1806336)
I0403 21:40:02.925956 12404 net.cpp:156] Memory required for data: 508183584
I0403 21:40:02.925977 12404 layer_factory.hpp:77] Creating layer inception_3a/relu_3x3_reduce
I0403 21:40:02.926010 12404 net.cpp:91] Creating Layer inception_3a/relu_3x3_reduce
I0403 21:40:02.926028 12404 net.cpp:425] inception_3a/relu_3x3_reduce <- inception_3a/3x3_reduce
I0403 21:40:02.926046 12404 net.cpp:386] inception_3a/relu_3x3_reduce -> inception_3a/3x3_reduce (in-place)
I0403 21:40:02.926218 12404 net.cpp:141] Setting up inception_3a/relu_3x3_reduce
I0403 21:40:02.926242 12404 net.cpp:148] Top shape: 24 96 28 28 (1806336)
I0403 21:40:02.926257 12404 net.cpp:156] Memory required for data: 515408928
I0403 21:40:02.926272 12404 layer_factory.hpp:77] Creating layer inception_3a/3x3
I0403 21:40:02.926295 12404 net.cpp:91] Creating Layer inception_3a/3x3
I0403 21:40:02.926312 12404 net.cpp:425] inception_3a/3x3 <- inception_3a/3x3_reduce
I0403 21:40:02.926333 12404 net.cpp:399] inception_3a/3x3 -> inception_3a/3x3
I0403 21:40:02.927870 12404 net.cpp:141] Setting up inception_3a/3x3
I0403 21:40:02.927898 12404 net.cpp:148] Top shape: 24 128 28 28 (2408448)
I0403 21:40:02.927913 12404 net.cpp:156] Memory required for data: 525042720
I0403 21:40:02.927932 12404 layer_factory.hpp:77] Creating layer inception_3a/relu_3x3
I0403 21:40:02.927949 12404 net.cpp:91] Creating Layer inception_3a/relu_3x3
I0403 21:40:02.927964 12404 net.cpp:425] inception_3a/relu_3x3 <- inception_3a/3x3
I0403 21:40:02.927988 12404 net.cpp:386] inception_3a/relu_3x3 -> inception_3a/3x3 (in-place)
I0403 21:40:02.928248 12404 net.cpp:141] Setting up inception_3a/relu_3x3
I0403 21:40:02.928274 12404 net.cpp:148] Top shape: 24 128 28 28 (2408448)
I0403 21:40:02.928290 12404 net.cpp:156] Memory required for data: 534676512
I0403 21:40:02.928304 12404 layer_factory.hpp:77] Creating layer inception_3a/5x5_reduce
I0403 21:40:02.928326 12404 net.cpp:91] Creating Layer inception_3a/5x5_reduce
I0403 21:40:02.928344 12404 net.cpp:425] inception_3a/5x5_reduce <- pool2/3x3_s2_pool2/3x3_s2_0_split_2
I0403 21:40:02.928361 12404 net.cpp:399] inception_3a/5x5_reduce -> inception_3a/5x5_reduce
I0403 21:40:02.929257 12404 net.cpp:141] Setting up inception_3a/5x5_reduce
I0403 21:40:02.929283 12404 net.cpp:148] Top shape: 24 16 28 28 (301056)
I0403 21:40:02.929298 12404 net.cpp:156] Memory required for data: 535880736
I0403 21:40:02.929316 12404 layer_factory.hpp:77] Creating layer inception_3a/relu_5x5_reduce
I0403 21:40:02.929333 12404 net.cpp:91] Creating Layer inception_3a/relu_5x5_reduce
I0403 21:40:02.929348 12404 net.cpp:425] inception_3a/relu_5x5_reduce <- inception_3a/5x5_reduce
I0403 21:40:02.929369 12404 net.cpp:386] inception_3a/relu_5x5_reduce -> inception_3a/5x5_reduce (in-place)
I0403 21:40:02.929628 12404 net.cpp:141] Setting up inception_3a/relu_5x5_reduce
I0403 21:40:02.929652 12404 net.cpp:148] Top shape: 24 16 28 28 (301056)
I0403 21:40:02.929667 12404 net.cpp:156] Memory required for data: 537084960
I0403 21:40:02.929682 12404 layer_factory.hpp:77] Creating layer inception_3a/5x5
I0403 21:40:02.929704 12404 net.cpp:91] Creating Layer inception_3a/5x5
I0403 21:40:02.929721 12404 net.cpp:425] inception_3a/5x5 <- inception_3a/5x5_reduce
I0403 21:40:02.929741 12404 net.cpp:399] inception_3a/5x5 -> inception_3a/5x5
I0403 21:40:02.930688 12404 net.cpp:141] Setting up inception_3a/5x5
I0403 21:40:02.930716 12404 net.cpp:148] Top shape: 24 32 28 28 (602112)
I0403 21:40:02.930732 12404 net.cpp:156] Memory required for data: 539493408
I0403 21:40:02.930750 12404 layer_factory.hpp:77] Creating layer inception_3a/relu_5x5
I0403 21:40:02.930768 12404 net.cpp:91] Creating Layer inception_3a/relu_5x5
I0403 21:40:02.930783 12404 net.cpp:425] inception_3a/relu_5x5 <- inception_3a/5x5
I0403 21:40:02.930804 12404 net.cpp:386] inception_3a/relu_5x5 -> inception_3a/5x5 (in-place)
I0403 21:40:02.930968 12404 net.cpp:141] Setting up inception_3a/relu_5x5
I0403 21:40:02.930991 12404 net.cpp:148] Top shape: 24 32 28 28 (602112)
I0403 21:40:02.931006 12404 net.cpp:156] Memory required for data: 541901856
I0403 21:40:02.931020 12404 layer_factory.hpp:77] Creating layer inception_3a/pool
I0403 21:40:02.931037 12404 net.cpp:91] Creating Layer inception_3a/pool
I0403 21:40:02.931052 12404 net.cpp:425] inception_3a/pool <- pool2/3x3_s2_pool2/3x3_s2_0_split_3
I0403 21:40:02.931085 12404 net.cpp:399] inception_3a/pool -> inception_3a/pool
I0403 21:40:02.931139 12404 net.cpp:141] Setting up inception_3a/pool
I0403 21:40:02.931161 12404 net.cpp:148] Top shape: 24 192 28 28 (3612672)
I0403 21:40:02.931176 12404 net.cpp:156] Memory required for data: 556352544
I0403 21:40:02.931190 12404 layer_factory.hpp:77] Creating layer inception_3a/pool_proj
I0403 21:40:02.931219 12404 net.cpp:91] Creating Layer inception_3a/pool_proj
I0403 21:40:02.931238 12404 net.cpp:425] inception_3a/pool_proj <- inception_3a/pool
I0403 21:40:02.931257 12404 net.cpp:399] inception_3a/pool_proj -> inception_3a/pool_proj
I0403 21:40:02.932150 12404 net.cpp:141] Setting up inception_3a/pool_proj
I0403 21:40:02.932176 12404 net.cpp:148] Top shape: 24 32 28 28 (602112)
I0403 21:40:02.932191 12404 net.cpp:156] Memory required for data: 558760992
I0403 21:40:02.932225 12404 layer_factory.hpp:77] Creating layer inception_3a/relu_pool_proj
I0403 21:40:02.932246 12404 net.cpp:91] Creating Layer inception_3a/relu_pool_proj
I0403 21:40:02.932262 12404 net.cpp:425] inception_3a/relu_pool_proj <- inception_3a/pool_proj
I0403 21:40:02.932281 12404 net.cpp:386] inception_3a/relu_pool_proj -> inception_3a/pool_proj (in-place)
I0403 21:40:02.932538 12404 net.cpp:141] Setting up inception_3a/relu_pool_proj
I0403 21:40:02.932564 12404 net.cpp:148] Top shape: 24 32 28 28 (602112)
I0403 21:40:02.932580 12404 net.cpp:156] Memory required for data: 561169440
I0403 21:40:02.932595 12404 layer_factory.hpp:77] Creating layer inception_3a/output
I0403 21:40:02.932611 12404 net.cpp:91] Creating Layer inception_3a/output
I0403 21:40:02.932626 12404 net.cpp:425] inception_3a/output <- inception_3a/1x1
I0403 21:40:02.932642 12404 net.cpp:425] inception_3a/output <- inception_3a/3x3
I0403 21:40:02.932658 12404 net.cpp:425] inception_3a/output <- inception_3a/5x5
I0403 21:40:02.932673 12404 net.cpp:425] inception_3a/output <- inception_3a/pool_proj
I0403 21:40:02.932693 12404 net.cpp:399] inception_3a/output -> inception_3a/output
I0403 21:40:02.932735 12404 net.cpp:141] Setting up inception_3a/output
I0403 21:40:02.932757 12404 net.cpp:148] Top shape: 24 256 28 28 (4816896)
I0403 21:40:02.932771 12404 net.cpp:156] Memory required for data: 580437024
I0403 21:40:02.932786 12404 layer_factory.hpp:77] Creating layer inception_3a/output_inception_3a/output_0_split
I0403 21:40:02.932804 12404 net.cpp:91] Creating Layer inception_3a/output_inception_3a/output_0_split
I0403 21:40:02.932821 12404 net.cpp:425] inception_3a/output_inception_3a/output_0_split <- inception_3a/output
I0403 21:40:02.932837 12404 net.cpp:399] inception_3a/output_inception_3a/output_0_split -> inception_3a/output_inception_3a/output_0_split_0
I0403 21:40:02.932857 12404 net.cpp:399] inception_3a/output_inception_3a/output_0_split -> inception_3a/output_inception_3a/output_0_split_1
I0403 21:40:02.932880 12404 net.cpp:399] inception_3a/output_inception_3a/output_0_split -> inception_3a/output_inception_3a/output_0_split_2
I0403 21:40:02.932901 12404 net.cpp:399] inception_3a/output_inception_3a/output_0_split -> inception_3a/output_inception_3a/output_0_split_3
I0403 21:40:02.932971 12404 net.cpp:141] Setting up inception_3a/output_inception_3a/output_0_split
I0403 21:40:02.932996 12404 net.cpp:148] Top shape: 24 256 28 28 (4816896)
I0403 21:40:02.933012 12404 net.cpp:148] Top shape: 24 256 28 28 (4816896)
I0403 21:40:02.933027 12404 net.cpp:148] Top shape: 24 256 28 28 (4816896)
I0403 21:40:02.933043 12404 net.cpp:148] Top shape: 24 256 28 28 (4816896)
I0403 21:40:02.933055 12404 net.cpp:156] Memory required for data: 657507360
I0403 21:40:02.933069 12404 layer_factory.hpp:77] Creating layer inception_3b/1x1
I0403 21:40:02.933094 12404 net.cpp:91] Creating Layer inception_3b/1x1
I0403 21:40:02.933111 12404 net.cpp:425] inception_3b/1x1 <- inception_3a/output_inception_3a/output_0_split_0
I0403 21:40:02.933130 12404 net.cpp:399] inception_3b/1x1 -> inception_3b/1x1
I0403 21:40:02.934236 12404 net.cpp:141] Setting up inception_3b/1x1
I0403 21:40:02.934273 12404 net.cpp:148] Top shape: 24 128 28 28 (2408448)
I0403 21:40:02.934293 12404 net.cpp:156] Memory required for data: 667141152
I0403 21:40:02.934311 12404 layer_factory.hpp:77] Creating layer inception_3b/relu_1x1
I0403 21:40:02.934329 12404 net.cpp:91] Creating Layer inception_3b/relu_1x1
I0403 21:40:02.934345 12404 net.cpp:425] inception_3b/relu_1x1 <- inception_3b/1x1
I0403 21:40:02.934360 12404 net.cpp:386] inception_3b/relu_1x1 -> inception_3b/1x1 (in-place)
I0403 21:40:02.934540 12404 net.cpp:141] Setting up inception_3b/relu_1x1
I0403 21:40:02.934567 12404 net.cpp:148] Top shape: 24 128 28 28 (2408448)
I0403 21:40:02.934582 12404 net.cpp:156] Memory required for data: 676774944
I0403 21:40:02.934597 12404 layer_factory.hpp:77] Creating layer inception_3b/3x3_reduce
I0403 21:40:02.934619 12404 net.cpp:91] Creating Layer inception_3b/3x3_reduce
I0403 21:40:02.934636 12404 net.cpp:425] inception_3b/3x3_reduce <- inception_3a/output_inception_3a/output_0_split_1
I0403 21:40:02.934654 12404 net.cpp:399] inception_3b/3x3_reduce -> inception_3b/3x3_reduce
I0403 21:40:02.935758 12404 net.cpp:141] Setting up inception_3b/3x3_reduce
I0403 21:40:02.935786 12404 net.cpp:148] Top shape: 24 128 28 28 (2408448)
I0403 21:40:02.935801 12404 net.cpp:156] Memory required for data: 686408736
I0403 21:40:02.935819 12404 layer_factory.hpp:77] Creating layer inception_3b/relu_3x3_reduce
I0403 21:40:02.935839 12404 net.cpp:91] Creating Layer inception_3b/relu_3x3_reduce
I0403 21:40:02.935856 12404 net.cpp:425] inception_3b/relu_3x3_reduce <- inception_3b/3x3_reduce
I0403 21:40:02.935873 12404 net.cpp:386] inception_3b/relu_3x3_reduce -> inception_3b/3x3_reduce (in-place)
I0403 21:40:02.936039 12404 net.cpp:141] Setting up inception_3b/relu_3x3_reduce
I0403 21:40:02.936064 12404 net.cpp:148] Top shape: 24 128 28 28 (2408448)
I0403 21:40:02.936079 12404 net.cpp:156] Memory required for data: 696042528
I0403 21:40:02.936094 12404 layer_factory.hpp:77] Creating layer inception_3b/3x3
I0403 21:40:02.936118 12404 net.cpp:91] Creating Layer inception_3b/3x3
I0403 21:40:02.936136 12404 net.cpp:425] inception_3b/3x3 <- inception_3b/3x3_reduce
I0403 21:40:02.936157 12404 net.cpp:399] inception_3b/3x3 -> inception_3b/3x3
I0403 21:40:02.939033 12404 net.cpp:141] Setting up inception_3b/3x3
I0403 21:40:02.939064 12404 net.cpp:148] Top shape: 24 192 28 28 (3612672)
I0403 21:40:02.939079 12404 net.cpp:156] Memory required for data: 710493216
I0403 21:40:02.939097 12404 layer_factory.hpp:77] Creating layer inception_3b/relu_3x3
I0403 21:40:02.939115 12404 net.cpp:91] Creating Layer inception_3b/relu_3x3
I0403 21:40:02.939131 12404 net.cpp:425] inception_3b/relu_3x3 <- inception_3b/3x3
I0403 21:40:02.939151 12404 net.cpp:386] inception_3b/relu_3x3 -> inception_3b/3x3 (in-place)
I0403 21:40:02.939422 12404 net.cpp:141] Setting up inception_3b/relu_3x3
I0403 21:40:02.939450 12404 net.cpp:148] Top shape: 24 192 28 28 (3612672)
I0403 21:40:02.939466 12404 net.cpp:156] Memory required for data: 724943904
I0403 21:40:02.939481 12404 layer_factory.hpp:77] Creating layer inception_3b/5x5_reduce
I0403 21:40:02.939504 12404 net.cpp:91] Creating Layer inception_3b/5x5_reduce
I0403 21:40:02.939522 12404 net.cpp:425] inception_3b/5x5_reduce <- inception_3a/output_inception_3a/output_0_split_2
I0403 21:40:02.939541 12404 net.cpp:399] inception_3b/5x5_reduce -> inception_3b/5x5_reduce
I0403 21:40:02.940508 12404 net.cpp:141] Setting up inception_3b/5x5_reduce
I0403 21:40:02.940539 12404 net.cpp:148] Top shape: 24 32 28 28 (602112)
I0403 21:40:02.940557 12404 net.cpp:156] Memory required for data: 727352352
I0403 21:40:02.940574 12404 layer_factory.hpp:77] Creating layer inception_3b/relu_5x5_reduce
I0403 21:40:02.940593 12404 net.cpp:91] Creating Layer inception_3b/relu_5x5_reduce
I0403 21:40:02.940610 12404 net.cpp:425] inception_3b/relu_5x5_reduce <- inception_3b/5x5_reduce
I0403 21:40:02.940631 12404 net.cpp:386] inception_3b/relu_5x5_reduce -> inception_3b/5x5_reduce (in-place)
I0403 21:40:02.940814 12404 net.cpp:141] Setting up inception_3b/relu_5x5_reduce
I0403 21:40:02.940855 12404 net.cpp:148] Top shape: 24 32 28 28 (602112)
I0403 21:40:02.940870 12404 net.cpp:156] Memory required for data: 729760800
I0403 21:40:02.940884 12404 layer_factory.hpp:77] Creating layer inception_3b/5x5
I0403 21:40:02.940907 12404 net.cpp:91] Creating Layer inception_3b/5x5
I0403 21:40:02.940925 12404 net.cpp:425] inception_3b/5x5 <- inception_3b/5x5_reduce
I0403 21:40:02.940946 12404 net.cpp:399] inception_3b/5x5 -> inception_3b/5x5
I0403 21:40:02.942885 12404 net.cpp:141] Setting up inception_3b/5x5
I0403 21:40:02.942914 12404 net.cpp:148] Top shape: 24 96 28 28 (1806336)
I0403 21:40:02.942929 12404 net.cpp:156] Memory required for data: 736986144
I0403 21:40:02.942946 12404 layer_factory.hpp:77] Creating layer inception_3b/relu_5x5
I0403 21:40:02.942966 12404 net.cpp:91] Creating Layer inception_3b/relu_5x5
I0403 21:40:02.942983 12404 net.cpp:425] inception_3b/relu_5x5 <- inception_3b/5x5
I0403 21:40:02.943001 12404 net.cpp:386] inception_3b/relu_5x5 -> inception_3b/5x5 (in-place)
I0403 21:40:02.943184 12404 net.cpp:141] Setting up inception_3b/relu_5x5
I0403 21:40:02.943213 12404 net.cpp:148] Top shape: 24 96 28 28 (1806336)
I0403 21:40:02.943230 12404 net.cpp:156] Memory required for data: 744211488
I0403 21:40:02.943245 12404 layer_factory.hpp:77] Creating layer inception_3b/pool
I0403 21:40:02.943262 12404 net.cpp:91] Creating Layer inception_3b/pool
I0403 21:40:02.943279 12404 net.cpp:425] inception_3b/pool <- inception_3a/output_inception_3a/output_0_split_3
I0403 21:40:02.943296 12404 net.cpp:399] inception_3b/pool -> inception_3b/pool
I0403 21:40:02.943349 12404 net.cpp:141] Setting up inception_3b/pool
I0403 21:40:02.943372 12404 net.cpp:148] Top shape: 24 256 28 28 (4816896)
I0403 21:40:02.943387 12404 net.cpp:156] Memory required for data: 763479072
I0403 21:40:02.943402 12404 layer_factory.hpp:77] Creating layer inception_3b/pool_proj
I0403 21:40:02.943424 12404 net.cpp:91] Creating Layer inception_3b/pool_proj
I0403 21:40:02.943442 12404 net.cpp:425] inception_3b/pool_proj <- inception_3b/pool
I0403 21:40:02.943460 12404 net.cpp:399] inception_3b/pool_proj -> inception_3b/pool_proj
I0403 21:40:02.944489 12404 net.cpp:141] Setting up inception_3b/pool_proj
I0403 21:40:02.944515 12404 net.cpp:148] Top shape: 24 64 28 28 (1204224)
I0403 21:40:02.944531 12404 net.cpp:156] Memory required for data: 768295968
I0403 21:40:02.944550 12404 layer_factory.hpp:77] Creating layer inception_3b/relu_pool_proj
I0403 21:40:02.944571 12404 net.cpp:91] Creating Layer inception_3b/relu_pool_proj
I0403 21:40:02.944587 12404 net.cpp:425] inception_3b/relu_pool_proj <- inception_3b/pool_proj
I0403 21:40:02.944604 12404 net.cpp:386] inception_3b/relu_pool_proj -> inception_3b/pool_proj (in-place)
I0403 21:40:02.944978 12404 net.cpp:141] Setting up inception_3b/relu_pool_proj
I0403 21:40:02.945004 12404 net.cpp:148] Top shape: 24 64 28 28 (1204224)
I0403 21:40:02.945019 12404 net.cpp:156] Memory required for data: 773112864
I0403 21:40:02.945034 12404 layer_factory.hpp:77] Creating layer inception_3b/output
I0403 21:40:02.945050 12404 net.cpp:91] Creating Layer inception_3b/output
I0403 21:40:02.945066 12404 net.cpp:425] inception_3b/output <- inception_3b/1x1
I0403 21:40:02.945083 12404 net.cpp:425] inception_3b/output <- inception_3b/3x3
I0403 21:40:02.945098 12404 net.cpp:425] inception_3b/output <- inception_3b/5x5
I0403 21:40:02.945114 12404 net.cpp:425] inception_3b/output <- inception_3b/pool_proj
I0403 21:40:02.945133 12404 net.cpp:399] inception_3b/output -> inception_3b/output
I0403 21:40:02.945175 12404 net.cpp:141] Setting up inception_3b/output
I0403 21:40:02.945199 12404 net.cpp:148] Top shape: 24 480 28 28 (9031680)
I0403 21:40:02.945221 12404 net.cpp:156] Memory required for data: 809239584
I0403 21:40:02.945236 12404 layer_factory.hpp:77] Creating layer pool3/3x3_s2
I0403 21:40:02.945253 12404 net.cpp:91] Creating Layer pool3/3x3_s2
I0403 21:40:02.945268 12404 net.cpp:425] pool3/3x3_s2 <- inception_3b/output
I0403 21:40:02.945288 12404 net.cpp:399] pool3/3x3_s2 -> pool3/3x3_s2
I0403 21:40:02.945358 12404 net.cpp:141] Setting up pool3/3x3_s2
I0403 21:40:02.945380 12404 net.cpp:148] Top shape: 24 480 14 14 (2257920)
I0403 21:40:02.945395 12404 net.cpp:156] Memory required for data: 818271264
I0403 21:40:02.945410 12404 layer_factory.hpp:77] Creating layer pool3/3x3_s2_pool3/3x3_s2_0_split
I0403 21:40:02.945430 12404 net.cpp:91] Creating Layer pool3/3x3_s2_pool3/3x3_s2_0_split
I0403 21:40:02.945444 12404 net.cpp:425] pool3/3x3_s2_pool3/3x3_s2_0_split <- pool3/3x3_s2
I0403 21:40:02.945461 12404 net.cpp:399] pool3/3x3_s2_pool3/3x3_s2_0_split -> pool3/3x3_s2_pool3/3x3_s2_0_split_0
I0403 21:40:02.945479 12404 net.cpp:399] pool3/3x3_s2_pool3/3x3_s2_0_split -> pool3/3x3_s2_pool3/3x3_s2_0_split_1
I0403 21:40:02.945499 12404 net.cpp:399] pool3/3x3_s2_pool3/3x3_s2_0_split -> pool3/3x3_s2_pool3/3x3_s2_0_split_2
I0403 21:40:02.945518 12404 net.cpp:399] pool3/3x3_s2_pool3/3x3_s2_0_split -> pool3/3x3_s2_pool3/3x3_s2_0_split_3
I0403 21:40:02.945592 12404 net.cpp:141] Setting up pool3/3x3_s2_pool3/3x3_s2_0_split
I0403 21:40:02.945614 12404 net.cpp:148] Top shape: 24 480 14 14 (2257920)
I0403 21:40:02.945631 12404 net.cpp:148] Top shape: 24 480 14 14 (2257920)
I0403 21:40:02.945647 12404 net.cpp:148] Top shape: 24 480 14 14 (2257920)
I0403 21:40:02.945662 12404 net.cpp:148] Top shape: 24 480 14 14 (2257920)
I0403 21:40:02.945675 12404 net.cpp:156] Memory required for data: 854397984
I0403 21:40:02.945690 12404 layer_factory.hpp:77] Creating layer inception_4a/1x1
I0403 21:40:02.945711 12404 net.cpp:91] Creating Layer inception_4a/1x1
I0403 21:40:02.945727 12404 net.cpp:425] inception_4a/1x1 <- pool3/3x3_s2_pool3/3x3_s2_0_split_0
I0403 21:40:02.945747 12404 net.cpp:399] inception_4a/1x1 -> inception_4a/1x1
I0403 21:40:02.947290 12404 net.cpp:141] Setting up inception_4a/1x1
I0403 21:40:02.947319 12404 net.cpp:148] Top shape: 24 192 14 14 (903168)
I0403 21:40:02.947334 12404 net.cpp:156] Memory required for data: 858010656
I0403 21:40:02.947351 12404 layer_factory.hpp:77] Creating layer inception_4a/relu_1x1
I0403 21:40:02.947371 12404 net.cpp:91] Creating Layer inception_4a/relu_1x1
I0403 21:40:02.947387 12404 net.cpp:425] inception_4a/relu_1x1 <- inception_4a/1x1
I0403 21:40:02.947404 12404 net.cpp:386] inception_4a/relu_1x1 -> inception_4a/1x1 (in-place)
I0403 21:40:02.947571 12404 net.cpp:141] Setting up inception_4a/relu_1x1
I0403 21:40:02.947603 12404 net.cpp:148] Top shape: 24 192 14 14 (903168)
I0403 21:40:02.947619 12404 net.cpp:156] Memory required for data: 861623328
I0403 21:40:02.947635 12404 layer_factory.hpp:77] Creating layer inception_4a/3x3_reduce
I0403 21:40:02.947657 12404 net.cpp:91] Creating Layer inception_4a/3x3_reduce
I0403 21:40:02.947674 12404 net.cpp:425] inception_4a/3x3_reduce <- pool3/3x3_s2_pool3/3x3_s2_0_split_1
I0403 21:40:02.947693 12404 net.cpp:399] inception_4a/3x3_reduce -> inception_4a/3x3_reduce
I0403 21:40:02.948937 12404 net.cpp:141] Setting up inception_4a/3x3_reduce
I0403 21:40:02.948964 12404 net.cpp:148] Top shape: 24 96 14 14 (451584)
I0403 21:40:02.948979 12404 net.cpp:156] Memory required for data: 863429664
I0403 21:40:02.949003 12404 layer_factory.hpp:77] Creating layer inception_4a/relu_3x3_reduce
I0403 21:40:02.949023 12404 net.cpp:91] Creating Layer inception_4a/relu_3x3_reduce
I0403 21:40:02.949039 12404 net.cpp:425] inception_4a/relu_3x3_reduce <- inception_4a/3x3_reduce
I0403 21:40:02.949059 12404 net.cpp:386] inception_4a/relu_3x3_reduce -> inception_4a/3x3_reduce (in-place)
I0403 21:40:02.949232 12404 net.cpp:141] Setting up inception_4a/relu_3x3_reduce
I0403 21:40:02.949256 12404 net.cpp:148] Top shape: 24 96 14 14 (451584)
I0403 21:40:02.949271 12404 net.cpp:156] Memory required for data: 865236000
I0403 21:40:02.949285 12404 layer_factory.hpp:77] Creating layer inception_4a/3x3
I0403 21:40:02.949307 12404 net.cpp:91] Creating Layer inception_4a/3x3
I0403 21:40:02.949324 12404 net.cpp:425] inception_4a/3x3 <- inception_4a/3x3_reduce
I0403 21:40:02.949345 12404 net.cpp:399] inception_4a/3x3 -> inception_4a/3x3
I0403 21:40:02.951916 12404 net.cpp:141] Setting up inception_4a/3x3
I0403 21:40:02.951944 12404 net.cpp:148] Top shape: 24 208 14 14 (978432)
I0403 21:40:02.951959 12404 net.cpp:156] Memory required for data: 869149728
I0403 21:40:02.951977 12404 layer_factory.hpp:77] Creating layer inception_4a/relu_3x3
I0403 21:40:02.951998 12404 net.cpp:91] Creating Layer inception_4a/relu_3x3
I0403 21:40:02.952014 12404 net.cpp:425] inception_4a/relu_3x3 <- inception_4a/3x3
I0403 21:40:02.952033 12404 net.cpp:386] inception_4a/relu_3x3 -> inception_4a/3x3 (in-place)
I0403 21:40:02.952316 12404 net.cpp:141] Setting up inception_4a/relu_3x3
I0403 21:40:02.952342 12404 net.cpp:148] Top shape: 24 208 14 14 (978432)
I0403 21:40:02.952358 12404 net.cpp:156] Memory required for data: 873063456
I0403 21:40:02.952373 12404 layer_factory.hpp:77] Creating layer inception_4a/5x5_reduce
I0403 21:40:02.952396 12404 net.cpp:91] Creating Layer inception_4a/5x5_reduce
I0403 21:40:02.952414 12404 net.cpp:425] inception_4a/5x5_reduce <- pool3/3x3_s2_pool3/3x3_s2_0_split_2
I0403 21:40:02.952433 12404 net.cpp:399] inception_4a/5x5_reduce -> inception_4a/5x5_reduce
I0403 21:40:02.953436 12404 net.cpp:141] Setting up inception_4a/5x5_reduce
I0403 21:40:02.953464 12404 net.cpp:148] Top shape: 24 16 14 14 (75264)
I0403 21:40:02.953480 12404 net.cpp:156] Memory required for data: 873364512
I0403 21:40:02.953498 12404 layer_factory.hpp:77] Creating layer inception_4a/relu_5x5_reduce
I0403 21:40:02.953516 12404 net.cpp:91] Creating Layer inception_4a/relu_5x5_reduce
I0403 21:40:02.953532 12404 net.cpp:425] inception_4a/relu_5x5_reduce <- inception_4a/5x5_reduce
I0403 21:40:02.953552 12404 net.cpp:386] inception_4a/relu_5x5_reduce -> inception_4a/5x5_reduce (in-place)
I0403 21:40:02.953723 12404 net.cpp:141] Setting up inception_4a/relu_5x5_reduce
I0403 21:40:02.953747 12404 net.cpp:148] Top shape: 24 16 14 14 (75264)
I0403 21:40:02.953763 12404 net.cpp:156] Memory required for data: 873665568
I0403 21:40:02.953776 12404 layer_factory.hpp:77] Creating layer inception_4a/5x5
I0403 21:40:02.953797 12404 net.cpp:91] Creating Layer inception_4a/5x5
I0403 21:40:02.953815 12404 net.cpp:425] inception_4a/5x5 <- inception_4a/5x5_reduce
I0403 21:40:02.953836 12404 net.cpp:399] inception_4a/5x5 -> inception_4a/5x5
I0403 21:40:02.954880 12404 net.cpp:141] Setting up inception_4a/5x5
I0403 21:40:02.954906 12404 net.cpp:148] Top shape: 24 48 14 14 (225792)
I0403 21:40:02.954921 12404 net.cpp:156] Memory required for data: 874568736
I0403 21:40:02.954939 12404 layer_factory.hpp:77] Creating layer inception_4a/relu_5x5
I0403 21:40:02.954959 12404 net.cpp:91] Creating Layer inception_4a/relu_5x5
I0403 21:40:02.954977 12404 net.cpp:425] inception_4a/relu_5x5 <- inception_4a/5x5
I0403 21:40:02.954993 12404 net.cpp:386] inception_4a/relu_5x5 -> inception_4a/5x5 (in-place)
I0403 21:40:02.955163 12404 net.cpp:141] Setting up inception_4a/relu_5x5
I0403 21:40:02.955188 12404 net.cpp:148] Top shape: 24 48 14 14 (225792)
I0403 21:40:02.955202 12404 net.cpp:156] Memory required for data: 875471904
I0403 21:40:02.955222 12404 layer_factory.hpp:77] Creating layer inception_4a/pool
I0403 21:40:02.955245 12404 net.cpp:91] Creating Layer inception_4a/pool
I0403 21:40:02.955261 12404 net.cpp:425] inception_4a/pool <- pool3/3x3_s2_pool3/3x3_s2_0_split_3
I0403 21:40:02.955279 12404 net.cpp:399] inception_4a/pool -> inception_4a/pool
I0403 21:40:02.955339 12404 net.cpp:141] Setting up inception_4a/pool
I0403 21:40:02.955363 12404 net.cpp:148] Top shape: 24 480 14 14 (2257920)
I0403 21:40:02.955377 12404 net.cpp:156] Memory required for data: 884503584
I0403 21:40:02.955391 12404 layer_factory.hpp:77] Creating layer inception_4a/pool_proj
I0403 21:40:02.955415 12404 net.cpp:91] Creating Layer inception_4a/pool_proj
I0403 21:40:02.955431 12404 net.cpp:425] inception_4a/pool_proj <- inception_4a/pool
I0403 21:40:02.955451 12404 net.cpp:399] inception_4a/pool_proj -> inception_4a/pool_proj
I0403 21:40:02.956573 12404 net.cpp:141] Setting up inception_4a/pool_proj
I0403 21:40:02.956603 12404 net.cpp:148] Top shape: 24 64 14 14 (301056)
I0403 21:40:02.956632 12404 net.cpp:156] Memory required for data: 885707808
I0403 21:40:02.956651 12404 layer_factory.hpp:77] Creating layer inception_4a/relu_pool_proj
I0403 21:40:02.956672 12404 net.cpp:91] Creating Layer inception_4a/relu_pool_proj
I0403 21:40:02.956691 12404 net.cpp:425] inception_4a/relu_pool_proj <- inception_4a/pool_proj
I0403 21:40:02.956708 12404 net.cpp:386] inception_4a/relu_pool_proj -> inception_4a/pool_proj (in-place)
I0403 21:40:02.956989 12404 net.cpp:141] Setting up inception_4a/relu_pool_proj
I0403 21:40:02.957013 12404 net.cpp:148] Top shape: 24 64 14 14 (301056)
I0403 21:40:02.957028 12404 net.cpp:156] Memory required for data: 886912032
I0403 21:40:02.957043 12404 layer_factory.hpp:77] Creating layer inception_4a/output
I0403 21:40:02.957062 12404 net.cpp:91] Creating Layer inception_4a/output
I0403 21:40:02.957078 12404 net.cpp:425] inception_4a/output <- inception_4a/1x1
I0403 21:40:02.957095 12404 net.cpp:425] inception_4a/output <- inception_4a/3x3
I0403 21:40:02.957110 12404 net.cpp:425] inception_4a/output <- inception_4a/5x5
I0403 21:40:02.957126 12404 net.cpp:425] inception_4a/output <- inception_4a/pool_proj
I0403 21:40:02.957142 12404 net.cpp:399] inception_4a/output -> inception_4a/output
I0403 21:40:02.957185 12404 net.cpp:141] Setting up inception_4a/output
I0403 21:40:02.957214 12404 net.cpp:148] Top shape: 24 512 14 14 (2408448)
I0403 21:40:02.957231 12404 net.cpp:156] Memory required for data: 896545824
I0403 21:40:02.957245 12404 layer_factory.hpp:77] Creating layer inception_4a/output_inception_4a/output_0_split
I0403 21:40:02.957263 12404 net.cpp:91] Creating Layer inception_4a/output_inception_4a/output_0_split
I0403 21:40:02.957278 12404 net.cpp:425] inception_4a/output_inception_4a/output_0_split <- inception_4a/output
I0403 21:40:02.957296 12404 net.cpp:399] inception_4a/output_inception_4a/output_0_split -> inception_4a/output_inception_4a/output_0_split_0
I0403 21:40:02.957317 12404 net.cpp:399] inception_4a/output_inception_4a/output_0_split -> inception_4a/output_inception_4a/output_0_split_1
I0403 21:40:02.957336 12404 net.cpp:399] inception_4a/output_inception_4a/output_0_split -> inception_4a/output_inception_4a/output_0_split_2
I0403 21:40:02.957357 12404 net.cpp:399] inception_4a/output_inception_4a/output_0_split -> inception_4a/output_inception_4a/output_0_split_3
I0403 21:40:02.957376 12404 net.cpp:399] inception_4a/output_inception_4a/output_0_split -> inception_4a/output_inception_4a/output_0_split_4
I0403 21:40:02.957464 12404 net.cpp:141] Setting up inception_4a/output_inception_4a/output_0_split
I0403 21:40:02.957487 12404 net.cpp:148] Top shape: 24 512 14 14 (2408448)
I0403 21:40:02.957506 12404 net.cpp:148] Top shape: 24 512 14 14 (2408448)
I0403 21:40:02.957523 12404 net.cpp:148] Top shape: 24 512 14 14 (2408448)
I0403 21:40:02.957540 12404 net.cpp:148] Top shape: 24 512 14 14 (2408448)
I0403 21:40:02.957554 12404 net.cpp:148] Top shape: 24 512 14 14 (2408448)
I0403 21:40:02.957568 12404 net.cpp:156] Memory required for data: 944714784
I0403 21:40:02.957582 12404 layer_factory.hpp:77] Creating layer loss1/ave_pool
I0403 21:40:02.957599 12404 net.cpp:91] Creating Layer loss1/ave_pool
I0403 21:40:02.957615 12404 net.cpp:425] loss1/ave_pool <- inception_4a/output_inception_4a/output_0_split_0
I0403 21:40:02.957634 12404 net.cpp:399] loss1/ave_pool -> loss1/ave_pool
I0403 21:40:02.957834 12404 net.cpp:141] Setting up loss1/ave_pool
I0403 21:40:02.957859 12404 net.cpp:148] Top shape: 24 512 4 4 (196608)
I0403 21:40:02.957873 12404 net.cpp:156] Memory required for data: 945501216
I0403 21:40:02.957887 12404 layer_factory.hpp:77] Creating layer loss1/conv
I0403 21:40:02.957909 12404 net.cpp:91] Creating Layer loss1/conv
I0403 21:40:02.957926 12404 net.cpp:425] loss1/conv <- loss1/ave_pool
I0403 21:40:02.957947 12404 net.cpp:399] loss1/conv -> loss1/conv
I0403 21:40:02.959300 12404 net.cpp:141] Setting up loss1/conv
I0403 21:40:02.959326 12404 net.cpp:148] Top shape: 24 128 4 4 (49152)
I0403 21:40:02.959342 12404 net.cpp:156] Memory required for data: 945697824
I0403 21:40:02.959374 12404 layer_factory.hpp:77] Creating layer loss1/relu_conv
I0403 21:40:02.959395 12404 net.cpp:91] Creating Layer loss1/relu_conv
I0403 21:40:02.959413 12404 net.cpp:425] loss1/relu_conv <- loss1/conv
I0403 21:40:02.959429 12404 net.cpp:386] loss1/relu_conv -> loss1/conv (in-place)
I0403 21:40:02.959700 12404 net.cpp:141] Setting up loss1/relu_conv
I0403 21:40:02.959725 12404 net.cpp:148] Top shape: 24 128 4 4 (49152)
I0403 21:40:02.959741 12404 net.cpp:156] Memory required for data: 945894432
I0403 21:40:02.959756 12404 layer_factory.hpp:77] Creating layer loss1/fc
I0403 21:40:02.959780 12404 net.cpp:91] Creating Layer loss1/fc
I0403 21:40:02.959799 12404 net.cpp:425] loss1/fc <- loss1/conv
I0403 21:40:02.959820 12404 net.cpp:399] loss1/fc -> loss1/fc
I0403 21:40:02.976950 12404 net.cpp:141] Setting up loss1/fc
I0403 21:40:02.976985 12404 net.cpp:148] Top shape: 24 1024 (24576)
I0403 21:40:02.977002 12404 net.cpp:156] Memory required for data: 945992736
I0403 21:40:02.977020 12404 layer_factory.hpp:77] Creating layer loss1/relu_fc
I0403 21:40:02.977040 12404 net.cpp:91] Creating Layer loss1/relu_fc
I0403 21:40:02.977056 12404 net.cpp:425] loss1/relu_fc <- loss1/fc
I0403 21:40:02.977073 12404 net.cpp:386] loss1/relu_fc -> loss1/fc (in-place)
I0403 21:40:02.977258 12404 net.cpp:141] Setting up loss1/relu_fc
I0403 21:40:02.977285 12404 net.cpp:148] Top shape: 24 1024 (24576)
I0403 21:40:02.977301 12404 net.cpp:156] Memory required for data: 946091040
I0403 21:40:02.977315 12404 layer_factory.hpp:77] Creating layer loss1/drop_fc
I0403 21:40:02.977340 12404 net.cpp:91] Creating Layer loss1/drop_fc
I0403 21:40:02.977356 12404 net.cpp:425] loss1/drop_fc <- loss1/fc
I0403 21:40:02.977373 12404 net.cpp:386] loss1/drop_fc -> loss1/fc (in-place)
I0403 21:40:02.977424 12404 net.cpp:141] Setting up loss1/drop_fc
I0403 21:40:02.977447 12404 net.cpp:148] Top shape: 24 1024 (24576)
I0403 21:40:02.977461 12404 net.cpp:156] Memory required for data: 946189344
I0403 21:40:02.977476 12404 layer_factory.hpp:77] Creating layer loss1/classifier_plantvillage
I0403 21:40:02.977494 12404 net.cpp:91] Creating Layer loss1/classifier_plantvillage
I0403 21:40:02.977509 12404 net.cpp:425] loss1/classifier_plantvillage <- loss1/fc
I0403 21:40:02.977530 12404 net.cpp:399] loss1/classifier_plantvillage -> loss1/classifier_plantvillage
I0403 21:40:02.978423 12404 net.cpp:141] Setting up loss1/classifier_plantvillage
I0403 21:40:02.978449 12404 net.cpp:148] Top shape: 24 38 (912)
I0403 21:40:02.978464 12404 net.cpp:156] Memory required for data: 946192992
I0403 21:40:02.978482 12404 layer_factory.hpp:77] Creating layer loss1/classifier_plantvillage_loss1/classifier_plantvillage_0_split
I0403 21:40:02.978502 12404 net.cpp:91] Creating Layer loss1/classifier_plantvillage_loss1/classifier_plantvillage_0_split
I0403 21:40:02.978518 12404 net.cpp:425] loss1/classifier_plantvillage_loss1/classifier_plantvillage_0_split <- loss1/classifier_plantvillage
I0403 21:40:02.978535 12404 net.cpp:399] loss1/classifier_plantvillage_loss1/classifier_plantvillage_0_split -> loss1/classifier_plantvillage_loss1/classifier_plantvillage_0_split_0
I0403 21:40:02.978554 12404 net.cpp:399] loss1/classifier_plantvillage_loss1/classifier_plantvillage_0_split -> loss1/classifier_plantvillage_loss1/classifier_plantvillage_0_split_1
I0403 21:40:02.978574 12404 net.cpp:399] loss1/classifier_plantvillage_loss1/classifier_plantvillage_0_split -> loss1/classifier_plantvillage_loss1/classifier_plantvillage_0_split_2
I0403 21:40:02.978641 12404 net.cpp:141] Setting up loss1/classifier_plantvillage_loss1/classifier_plantvillage_0_split
I0403 21:40:02.978662 12404 net.cpp:148] Top shape: 24 38 (912)
I0403 21:40:02.978678 12404 net.cpp:148] Top shape: 24 38 (912)
I0403 21:40:02.978693 12404 net.cpp:148] Top shape: 24 38 (912)
I0403 21:40:02.978706 12404 net.cpp:156] Memory required for data: 946203936
I0403 21:40:02.978721 12404 layer_factory.hpp:77] Creating layer inception_4b/1x1
I0403 21:40:02.978744 12404 net.cpp:91] Creating Layer inception_4b/1x1
I0403 21:40:02.978776 12404 net.cpp:425] inception_4b/1x1 <- inception_4a/output_inception_4a/output_0_split_1
I0403 21:40:02.978796 12404 net.cpp:399] inception_4b/1x1 -> inception_4b/1x1
I0403 21:40:02.980348 12404 net.cpp:141] Setting up inception_4b/1x1
I0403 21:40:02.980378 12404 net.cpp:148] Top shape: 24 160 14 14 (752640)
I0403 21:40:02.980394 12404 net.cpp:156] Memory required for data: 949214496
I0403 21:40:02.980413 12404 layer_factory.hpp:77] Creating layer inception_4b/relu_1x1
I0403 21:40:02.980430 12404 net.cpp:91] Creating Layer inception_4b/relu_1x1
I0403 21:40:02.980445 12404 net.cpp:425] inception_4b/relu_1x1 <- inception_4b/1x1
I0403 21:40:02.980464 12404 net.cpp:386] inception_4b/relu_1x1 -> inception_4b/1x1 (in-place)
I0403 21:40:02.980638 12404 net.cpp:141] Setting up inception_4b/relu_1x1
I0403 21:40:02.980662 12404 net.cpp:148] Top shape: 24 160 14 14 (752640)
I0403 21:40:02.980676 12404 net.cpp:156] Memory required for data: 952225056
I0403 21:40:02.980691 12404 layer_factory.hpp:77] Creating layer inception_4b/3x3_reduce
I0403 21:40:02.980715 12404 net.cpp:91] Creating Layer inception_4b/3x3_reduce
I0403 21:40:02.980732 12404 net.cpp:425] inception_4b/3x3_reduce <- inception_4a/output_inception_4a/output_0_split_2
I0403 21:40:02.980753 12404 net.cpp:399] inception_4b/3x3_reduce -> inception_4b/3x3_reduce
I0403 21:40:02.982070 12404 net.cpp:141] Setting up inception_4b/3x3_reduce
I0403 21:40:02.982097 12404 net.cpp:148] Top shape: 24 112 14 14 (526848)
I0403 21:40:02.982112 12404 net.cpp:156] Memory required for data: 954332448
I0403 21:40:02.982131 12404 layer_factory.hpp:77] Creating layer inception_4b/relu_3x3_reduce
I0403 21:40:02.982148 12404 net.cpp:91] Creating Layer inception_4b/relu_3x3_reduce
I0403 21:40:02.982163 12404 net.cpp:425] inception_4b/relu_3x3_reduce <- inception_4b/3x3_reduce
I0403 21:40:02.982183 12404 net.cpp:386] inception_4b/relu_3x3_reduce -> inception_4b/3x3_reduce (in-place)
I0403 21:40:02.982462 12404 net.cpp:141] Setting up inception_4b/relu_3x3_reduce
I0403 21:40:02.982494 12404 net.cpp:148] Top shape: 24 112 14 14 (526848)
I0403 21:40:02.982509 12404 net.cpp:156] Memory required for data: 956439840
I0403 21:40:02.982524 12404 layer_factory.hpp:77] Creating layer inception_4b/3x3
I0403 21:40:02.982545 12404 net.cpp:91] Creating Layer inception_4b/3x3
I0403 21:40:02.982563 12404 net.cpp:425] inception_4b/3x3 <- inception_4b/3x3_reduce
I0403 21:40:02.982583 12404 net.cpp:399] inception_4b/3x3 -> inception_4b/3x3
I0403 21:40:02.985431 12404 net.cpp:141] Setting up inception_4b/3x3
I0403 21:40:02.985471 12404 net.cpp:148] Top shape: 24 224 14 14 (1053696)
I0403 21:40:02.985486 12404 net.cpp:156] Memory required for data: 960654624
I0403 21:40:02.985504 12404 layer_factory.hpp:77] Creating layer inception_4b/relu_3x3
I0403 21:40:02.985524 12404 net.cpp:91] Creating Layer inception_4b/relu_3x3
I0403 21:40:02.985543 12404 net.cpp:425] inception_4b/relu_3x3 <- inception_4b/3x3
I0403 21:40:02.985559 12404 net.cpp:386] inception_4b/relu_3x3 -> inception_4b/3x3 (in-place)
I0403 21:40:02.985749 12404 net.cpp:141] Setting up inception_4b/relu_3x3
I0403 21:40:02.985775 12404 net.cpp:148] Top shape: 24 224 14 14 (1053696)
I0403 21:40:02.985790 12404 net.cpp:156] Memory required for data: 964869408
I0403 21:40:02.985805 12404 layer_factory.hpp:77] Creating layer inception_4b/5x5_reduce
I0403 21:40:02.985827 12404 net.cpp:91] Creating Layer inception_4b/5x5_reduce
I0403 21:40:02.985846 12404 net.cpp:425] inception_4b/5x5_reduce <- inception_4a/output_inception_4a/output_0_split_3
I0403 21:40:02.985864 12404 net.cpp:399] inception_4b/5x5_reduce -> inception_4b/5x5_reduce
I0403 21:40:02.986879 12404 net.cpp:141] Setting up inception_4b/5x5_reduce
I0403 21:40:02.986907 12404 net.cpp:148] Top shape: 24 24 14 14 (112896)
I0403 21:40:02.986923 12404 net.cpp:156] Memory required for data: 965320992
I0403 21:40:02.986940 12404 layer_factory.hpp:77] Creating layer inception_4b/relu_5x5_reduce
I0403 21:40:02.986958 12404 net.cpp:91] Creating Layer inception_4b/relu_5x5_reduce
I0403 21:40:02.986987 12404 net.cpp:425] inception_4b/relu_5x5_reduce <- inception_4b/5x5_reduce
I0403 21:40:02.987007 12404 net.cpp:386] inception_4b/relu_5x5_reduce -> inception_4b/5x5_reduce (in-place)
I0403 21:40:02.987182 12404 net.cpp:141] Setting up inception_4b/relu_5x5_reduce
I0403 21:40:02.987206 12404 net.cpp:148] Top shape: 24 24 14 14 (112896)
I0403 21:40:02.987227 12404 net.cpp:156] Memory required for data: 965772576
I0403 21:40:02.987242 12404 layer_factory.hpp:77] Creating layer inception_4b/5x5
I0403 21:40:02.987263 12404 net.cpp:91] Creating Layer inception_4b/5x5
I0403 21:40:02.987280 12404 net.cpp:425] inception_4b/5x5 <- inception_4b/5x5_reduce
I0403 21:40:02.987300 12404 net.cpp:399] inception_4b/5x5 -> inception_4b/5x5
I0403 21:40:02.988451 12404 net.cpp:141] Setting up inception_4b/5x5
I0403 21:40:02.988478 12404 net.cpp:148] Top shape: 24 64 14 14 (301056)
I0403 21:40:02.988494 12404 net.cpp:156] Memory required for data: 966976800
I0403 21:40:02.988512 12404 layer_factory.hpp:77] Creating layer inception_4b/relu_5x5
I0403 21:40:02.988529 12404 net.cpp:91] Creating Layer inception_4b/relu_5x5
I0403 21:40:02.988546 12404 net.cpp:425] inception_4b/relu_5x5 <- inception_4b/5x5
I0403 21:40:02.988565 12404 net.cpp:386] inception_4b/relu_5x5 -> inception_4b/5x5 (in-place)
I0403 21:40:02.988834 12404 net.cpp:141] Setting up inception_4b/relu_5x5
I0403 21:40:02.988862 12404 net.cpp:148] Top shape: 24 64 14 14 (301056)
I0403 21:40:02.988876 12404 net.cpp:156] Memory required for data: 968181024
I0403 21:40:02.988891 12404 layer_factory.hpp:77] Creating layer inception_4b/pool
I0403 21:40:02.988909 12404 net.cpp:91] Creating Layer inception_4b/pool
I0403 21:40:02.988924 12404 net.cpp:425] inception_4b/pool <- inception_4a/output_inception_4a/output_0_split_4
I0403 21:40:02.988943 12404 net.cpp:399] inception_4b/pool -> inception_4b/pool
I0403 21:40:02.989002 12404 net.cpp:141] Setting up inception_4b/pool
I0403 21:40:02.989025 12404 net.cpp:148] Top shape: 24 512 14 14 (2408448)
I0403 21:40:02.989040 12404 net.cpp:156] Memory required for data: 977814816
I0403 21:40:02.989054 12404 layer_factory.hpp:77] Creating layer inception_4b/pool_proj
I0403 21:40:02.989075 12404 net.cpp:91] Creating Layer inception_4b/pool_proj
I0403 21:40:02.989092 12404 net.cpp:425] inception_4b/pool_proj <- inception_4b/pool
I0403 21:40:02.989112 12404 net.cpp:399] inception_4b/pool_proj -> inception_4b/pool_proj
I0403 21:40:02.990278 12404 net.cpp:141] Setting up inception_4b/pool_proj
I0403 21:40:02.990306 12404 net.cpp:148] Top shape: 24 64 14 14 (301056)
I0403 21:40:02.990322 12404 net.cpp:156] Memory required for data: 979019040
I0403 21:40:02.990339 12404 layer_factory.hpp:77] Creating layer inception_4b/relu_pool_proj
I0403 21:40:02.990356 12404 net.cpp:91] Creating Layer inception_4b/relu_pool_proj
I0403 21:40:02.990372 12404 net.cpp:425] inception_4b/relu_pool_proj <- inception_4b/pool_proj
I0403 21:40:02.990391 12404 net.cpp:386] inception_4b/relu_pool_proj -> inception_4b/pool_proj (in-place)
I0403 21:40:02.990561 12404 net.cpp:141] Setting up inception_4b/relu_pool_proj
I0403 21:40:02.990584 12404 net.cpp:148] Top shape: 24 64 14 14 (301056)
I0403 21:40:02.990598 12404 net.cpp:156] Memory required for data: 980223264
I0403 21:40:02.990613 12404 layer_factory.hpp:77] Creating layer inception_4b/output
I0403 21:40:02.990629 12404 net.cpp:91] Creating Layer inception_4b/output
I0403 21:40:02.990644 12404 net.cpp:425] inception_4b/output <- inception_4b/1x1
I0403 21:40:02.990660 12404 net.cpp:425] inception_4b/output <- inception_4b/3x3
I0403 21:40:02.990675 12404 net.cpp:425] inception_4b/output <- inception_4b/5x5
I0403 21:40:02.990691 12404 net.cpp:425] inception_4b/output <- inception_4b/pool_proj
I0403 21:40:02.990710 12404 net.cpp:399] inception_4b/output -> inception_4b/output
I0403 21:40:02.990752 12404 net.cpp:141] Setting up inception_4b/output
I0403 21:40:02.990777 12404 net.cpp:148] Top shape: 24 512 14 14 (2408448)
I0403 21:40:02.990792 12404 net.cpp:156] Memory required for data: 989857056
I0403 21:40:02.990819 12404 layer_factory.hpp:77] Creating layer inception_4b/output_inception_4b/output_0_split
I0403 21:40:02.990836 12404 net.cpp:91] Creating Layer inception_4b/output_inception_4b/output_0_split
I0403 21:40:02.990851 12404 net.cpp:425] inception_4b/output_inception_4b/output_0_split <- inception_4b/output
I0403 21:40:02.990869 12404 net.cpp:399] inception_4b/output_inception_4b/output_0_split -> inception_4b/output_inception_4b/output_0_split_0
I0403 21:40:02.990890 12404 net.cpp:399] inception_4b/output_inception_4b/output_0_split -> inception_4b/output_inception_4b/output_0_split_1
I0403 21:40:02.990911 12404 net.cpp:399] inception_4b/output_inception_4b/output_0_split -> inception_4b/output_inception_4b/output_0_split_2
I0403 21:40:02.990931 12404 net.cpp:399] inception_4b/output_inception_4b/output_0_split -> inception_4b/output_inception_4b/output_0_split_3
I0403 21:40:02.991011 12404 net.cpp:141] Setting up inception_4b/output_inception_4b/output_0_split
I0403 21:40:02.991034 12404 net.cpp:148] Top shape: 24 512 14 14 (2408448)
I0403 21:40:02.991050 12404 net.cpp:148] Top shape: 24 512 14 14 (2408448)
I0403 21:40:02.991065 12404 net.cpp:148] Top shape: 24 512 14 14 (2408448)
I0403 21:40:02.991080 12404 net.cpp:148] Top shape: 24 512 14 14 (2408448)
I0403 21:40:02.991093 12404 net.cpp:156] Memory required for data: 1028392224
I0403 21:40:02.991106 12404 layer_factory.hpp:77] Creating layer inception_4c/1x1
I0403 21:40:02.991129 12404 net.cpp:91] Creating Layer inception_4c/1x1
I0403 21:40:02.991147 12404 net.cpp:425] inception_4c/1x1 <- inception_4b/output_inception_4b/output_0_split_0
I0403 21:40:02.991164 12404 net.cpp:399] inception_4c/1x1 -> inception_4c/1x1
I0403 21:40:02.992583 12404 net.cpp:141] Setting up inception_4c/1x1
I0403 21:40:02.992610 12404 net.cpp:148] Top shape: 24 128 14 14 (602112)
I0403 21:40:02.992625 12404 net.cpp:156] Memory required for data: 1030800672
I0403 21:40:02.992643 12404 layer_factory.hpp:77] Creating layer inception_4c/relu_1x1
I0403 21:40:02.992662 12404 net.cpp:91] Creating Layer inception_4c/relu_1x1
I0403 21:40:02.992678 12404 net.cpp:425] inception_4c/relu_1x1 <- inception_4c/1x1
I0403 21:40:02.992696 12404 net.cpp:386] inception_4c/relu_1x1 -> inception_4c/1x1 (in-place)
I0403 21:40:02.992864 12404 net.cpp:141] Setting up inception_4c/relu_1x1
I0403 21:40:02.992888 12404 net.cpp:148] Top shape: 24 128 14 14 (602112)
I0403 21:40:02.992905 12404 net.cpp:156] Memory required for data: 1033209120
I0403 21:40:02.992920 12404 layer_factory.hpp:77] Creating layer inception_4c/3x3_reduce
I0403 21:40:02.992939 12404 net.cpp:91] Creating Layer inception_4c/3x3_reduce
I0403 21:40:02.992955 12404 net.cpp:425] inception_4c/3x3_reduce <- inception_4b/output_inception_4b/output_0_split_1
I0403 21:40:02.992975 12404 net.cpp:399] inception_4c/3x3_reduce -> inception_4c/3x3_reduce
I0403 21:40:02.994829 12404 net.cpp:141] Setting up inception_4c/3x3_reduce
I0403 21:40:02.994859 12404 net.cpp:148] Top shape: 24 128 14 14 (602112)
I0403 21:40:02.994874 12404 net.cpp:156] Memory required for data: 1035617568
I0403 21:40:02.994894 12404 layer_factory.hpp:77] Creating layer inception_4c/relu_3x3_reduce
I0403 21:40:02.994910 12404 net.cpp:91] Creating Layer inception_4c/relu_3x3_reduce
I0403 21:40:02.994925 12404 net.cpp:425] inception_4c/relu_3x3_reduce <- inception_4c/3x3_reduce
I0403 21:40:02.994942 12404 net.cpp:386] inception_4c/relu_3x3_reduce -> inception_4c/3x3_reduce (in-place)
I0403 21:40:02.995216 12404 net.cpp:141] Setting up inception_4c/relu_3x3_reduce
I0403 21:40:02.995244 12404 net.cpp:148] Top shape: 24 128 14 14 (602112)
I0403 21:40:02.995259 12404 net.cpp:156] Memory required for data: 1038026016
I0403 21:40:02.995272 12404 layer_factory.hpp:77] Creating layer inception_4c/3x3
I0403 21:40:02.995296 12404 net.cpp:91] Creating Layer inception_4c/3x3
I0403 21:40:02.995312 12404 net.cpp:425] inception_4c/3x3 <- inception_4c/3x3_reduce
I0403 21:40:02.995331 12404 net.cpp:399] inception_4c/3x3 -> inception_4c/3x3
I0403 21:40:02.998754 12404 net.cpp:141] Setting up inception_4c/3x3
I0403 21:40:02.998795 12404 net.cpp:148] Top shape: 24 256 14 14 (1204224)
I0403 21:40:02.998811 12404 net.cpp:156] Memory required for data: 1042842912
I0403 21:40:02.998842 12404 layer_factory.hpp:77] Creating layer inception_4c/relu_3x3
I0403 21:40:02.998862 12404 net.cpp:91] Creating Layer inception_4c/relu_3x3
I0403 21:40:02.998877 12404 net.cpp:425] inception_4c/relu_3x3 <- inception_4c/3x3
I0403 21:40:02.998895 12404 net.cpp:386] inception_4c/relu_3x3 -> inception_4c/3x3 (in-place)
I0403 21:40:02.999069 12404 net.cpp:141] Setting up inception_4c/relu_3x3
I0403 21:40:02.999094 12404 net.cpp:148] Top shape: 24 256 14 14 (1204224)
I0403 21:40:02.999109 12404 net.cpp:156] Memory required for data: 1047659808
I0403 21:40:02.999124 12404 layer_factory.hpp:77] Creating layer inception_4c/5x5_reduce
I0403 21:40:02.999146 12404 net.cpp:91] Creating Layer inception_4c/5x5_reduce
I0403 21:40:02.999163 12404 net.cpp:425] inception_4c/5x5_reduce <- inception_4b/output_inception_4b/output_0_split_2
I0403 21:40:02.999184 12404 net.cpp:399] inception_4c/5x5_reduce -> inception_4c/5x5_reduce
I0403 21:40:03.000217 12404 net.cpp:141] Setting up inception_4c/5x5_reduce
I0403 21:40:03.000247 12404 net.cpp:148] Top shape: 24 24 14 14 (112896)
I0403 21:40:03.000262 12404 net.cpp:156] Memory required for data: 1048111392
I0403 21:40:03.000280 12404 layer_factory.hpp:77] Creating layer inception_4c/relu_5x5_reduce
I0403 21:40:03.000298 12404 net.cpp:91] Creating Layer inception_4c/relu_5x5_reduce
I0403 21:40:03.000313 12404 net.cpp:425] inception_4c/relu_5x5_reduce <- inception_4c/5x5_reduce
I0403 21:40:03.000332 12404 net.cpp:386] inception_4c/relu_5x5_reduce -> inception_4c/5x5_reduce (in-place)
I0403 21:40:03.000509 12404 net.cpp:141] Setting up inception_4c/relu_5x5_reduce
I0403 21:40:03.000532 12404 net.cpp:148] Top shape: 24 24 14 14 (112896)
I0403 21:40:03.000546 12404 net.cpp:156] Memory required for data: 1048562976
I0403 21:40:03.000561 12404 layer_factory.hpp:77] Creating layer inception_4c/5x5
I0403 21:40:03.000582 12404 net.cpp:91] Creating Layer inception_4c/5x5
I0403 21:40:03.000600 12404 net.cpp:425] inception_4c/5x5 <- inception_4c/5x5_reduce
I0403 21:40:03.000620 12404 net.cpp:399] inception_4c/5x5 -> inception_4c/5x5
I0403 21:40:03.001822 12404 net.cpp:141] Setting up inception_4c/5x5
I0403 21:40:03.001848 12404 net.cpp:148] Top shape: 24 64 14 14 (301056)
I0403 21:40:03.001863 12404 net.cpp:156] Memory required for data: 1049767200
I0403 21:40:03.001881 12404 layer_factory.hpp:77] Creating layer inception_4c/relu_5x5
I0403 21:40:03.001899 12404 net.cpp:91] Creating Layer inception_4c/relu_5x5
I0403 21:40:03.001914 12404 net.cpp:425] inception_4c/relu_5x5 <- inception_4c/5x5
I0403 21:40:03.001932 12404 net.cpp:386] inception_4c/relu_5x5 -> inception_4c/5x5 (in-place)
I0403 21:40:03.002205 12404 net.cpp:141] Setting up inception_4c/relu_5x5
I0403 21:40:03.002240 12404 net.cpp:148] Top shape: 24 64 14 14 (301056)
I0403 21:40:03.002255 12404 net.cpp:156] Memory required for data: 1050971424
I0403 21:40:03.002270 12404 layer_factory.hpp:77] Creating layer inception_4c/pool
I0403 21:40:03.002287 12404 net.cpp:91] Creating Layer inception_4c/pool
I0403 21:40:03.002303 12404 net.cpp:425] inception_4c/pool <- inception_4b/output_inception_4b/output_0_split_3
I0403 21:40:03.002322 12404 net.cpp:399] inception_4c/pool -> inception_4c/pool
I0403 21:40:03.002389 12404 net.cpp:141] Setting up inception_4c/pool
I0403 21:40:03.002413 12404 net.cpp:148] Top shape: 24 512 14 14 (2408448)
I0403 21:40:03.002426 12404 net.cpp:156] Memory required for data: 1060605216
I0403 21:40:03.002440 12404 layer_factory.hpp:77] Creating layer inception_4c/pool_proj
I0403 21:40:03.002463 12404 net.cpp:91] Creating Layer inception_4c/pool_proj
I0403 21:40:03.002481 12404 net.cpp:425] inception_4c/pool_proj <- inception_4c/pool
I0403 21:40:03.002499 12404 net.cpp:399] inception_4c/pool_proj -> inception_4c/pool_proj
I0403 21:40:03.003650 12404 net.cpp:141] Setting up inception_4c/pool_proj
I0403 21:40:03.003679 12404 net.cpp:148] Top shape: 24 64 14 14 (301056)
I0403 21:40:03.003707 12404 net.cpp:156] Memory required for data: 1061809440
I0403 21:40:03.003733 12404 layer_factory.hpp:77] Creating layer inception_4c/relu_pool_proj
I0403 21:40:03.003751 12404 net.cpp:91] Creating Layer inception_4c/relu_pool_proj
I0403 21:40:03.003778 12404 net.cpp:425] inception_4c/relu_pool_proj <- inception_4c/pool_proj
I0403 21:40:03.003798 12404 net.cpp:386] inception_4c/relu_pool_proj -> inception_4c/pool_proj (in-place)
I0403 21:40:03.003980 12404 net.cpp:141] Setting up inception_4c/relu_pool_proj
I0403 21:40:03.004005 12404 net.cpp:148] Top shape: 24 64 14 14 (301056)
I0403 21:40:03.004020 12404 net.cpp:156] Memory required for data: 1063013664
I0403 21:40:03.004034 12404 layer_factory.hpp:77] Creating layer inception_4c/output
I0403 21:40:03.004051 12404 net.cpp:91] Creating Layer inception_4c/output
I0403 21:40:03.004078 12404 net.cpp:425] inception_4c/output <- inception_4c/1x1
I0403 21:40:03.004094 12404 net.cpp:425] inception_4c/output <- inception_4c/3x3
I0403 21:40:03.004112 12404 net.cpp:425] inception_4c/output <- inception_4c/5x5
I0403 21:40:03.004127 12404 net.cpp:425] inception_4c/output <- inception_4c/pool_proj
I0403 21:40:03.004145 12404 net.cpp:399] inception_4c/output -> inception_4c/output
I0403 21:40:03.004189 12404 net.cpp:141] Setting up inception_4c/output
I0403 21:40:03.004220 12404 net.cpp:148] Top shape: 24 512 14 14 (2408448)
I0403 21:40:03.004236 12404 net.cpp:156] Memory required for data: 1072647456
I0403 21:40:03.004251 12404 layer_factory.hpp:77] Creating layer inception_4c/output_inception_4c/output_0_split
I0403 21:40:03.004266 12404 net.cpp:91] Creating Layer inception_4c/output_inception_4c/output_0_split
I0403 21:40:03.004282 12404 net.cpp:425] inception_4c/output_inception_4c/output_0_split <- inception_4c/output
I0403 21:40:03.004299 12404 net.cpp:399] inception_4c/output_inception_4c/output_0_split -> inception_4c/output_inception_4c/output_0_split_0
I0403 21:40:03.004320 12404 net.cpp:399] inception_4c/output_inception_4c/output_0_split -> inception_4c/output_inception_4c/output_0_split_1
I0403 21:40:03.004343 12404 net.cpp:399] inception_4c/output_inception_4c/output_0_split -> inception_4c/output_inception_4c/output_0_split_2
I0403 21:40:03.004362 12404 net.cpp:399] inception_4c/output_inception_4c/output_0_split -> inception_4c/output_inception_4c/output_0_split_3
I0403 21:40:03.004446 12404 net.cpp:141] Setting up inception_4c/output_inception_4c/output_0_split
I0403 21:40:03.004467 12404 net.cpp:148] Top shape: 24 512 14 14 (2408448)
I0403 21:40:03.004484 12404 net.cpp:148] Top shape: 24 512 14 14 (2408448)
I0403 21:40:03.004498 12404 net.cpp:148] Top shape: 24 512 14 14 (2408448)
I0403 21:40:03.004513 12404 net.cpp:148] Top shape: 24 512 14 14 (2408448)
I0403 21:40:03.004528 12404 net.cpp:156] Memory required for data: 1111182624
I0403 21:40:03.004542 12404 layer_factory.hpp:77] Creating layer inception_4d/1x1
I0403 21:40:03.004565 12404 net.cpp:91] Creating Layer inception_4d/1x1
I0403 21:40:03.004583 12404 net.cpp:425] inception_4d/1x1 <- inception_4c/output_inception_4c/output_0_split_0
I0403 21:40:03.004601 12404 net.cpp:399] inception_4d/1x1 -> inception_4d/1x1
I0403 21:40:03.005903 12404 net.cpp:141] Setting up inception_4d/1x1
I0403 21:40:03.005928 12404 net.cpp:148] Top shape: 24 112 14 14 (526848)
I0403 21:40:03.005944 12404 net.cpp:156] Memory required for data: 1113290016
I0403 21:40:03.005960 12404 layer_factory.hpp:77] Creating layer inception_4d/relu_1x1
I0403 21:40:03.005980 12404 net.cpp:91] Creating Layer inception_4d/relu_1x1
I0403 21:40:03.005997 12404 net.cpp:425] inception_4d/relu_1x1 <- inception_4d/1x1
I0403 21:40:03.006014 12404 net.cpp:386] inception_4d/relu_1x1 -> inception_4d/1x1 (in-place)
I0403 21:40:03.006188 12404 net.cpp:141] Setting up inception_4d/relu_1x1
I0403 21:40:03.006222 12404 net.cpp:148] Top shape: 24 112 14 14 (526848)
I0403 21:40:03.006240 12404 net.cpp:156] Memory required for data: 1115397408
I0403 21:40:03.006255 12404 layer_factory.hpp:77] Creating layer inception_4d/3x3_reduce
I0403 21:40:03.006291 12404 net.cpp:91] Creating Layer inception_4d/3x3_reduce
I0403 21:40:03.006310 12404 net.cpp:425] inception_4d/3x3_reduce <- inception_4c/output_inception_4c/output_0_split_1
I0403 21:40:03.006330 12404 net.cpp:399] inception_4d/3x3_reduce -> inception_4d/3x3_reduce
I0403 21:40:03.007760 12404 net.cpp:141] Setting up inception_4d/3x3_reduce
I0403 21:40:03.007786 12404 net.cpp:148] Top shape: 24 144 14 14 (677376)
I0403 21:40:03.007802 12404 net.cpp:156] Memory required for data: 1118106912
I0403 21:40:03.007819 12404 layer_factory.hpp:77] Creating layer inception_4d/relu_3x3_reduce
I0403 21:40:03.007838 12404 net.cpp:91] Creating Layer inception_4d/relu_3x3_reduce
I0403 21:40:03.007855 12404 net.cpp:425] inception_4d/relu_3x3_reduce <- inception_4d/3x3_reduce
I0403 21:40:03.007874 12404 net.cpp:386] inception_4d/relu_3x3_reduce -> inception_4d/3x3_reduce (in-place)
I0403 21:40:03.008144 12404 net.cpp:141] Setting up inception_4d/relu_3x3_reduce
I0403 21:40:03.008169 12404 net.cpp:148] Top shape: 24 144 14 14 (677376)
I0403 21:40:03.008184 12404 net.cpp:156] Memory required for data: 1120816416
I0403 21:40:03.008198 12404 layer_factory.hpp:77] Creating layer inception_4d/3x3
I0403 21:40:03.008226 12404 net.cpp:91] Creating Layer inception_4d/3x3
I0403 21:40:03.008245 12404 net.cpp:425] inception_4d/3x3 <- inception_4d/3x3_reduce
I0403 21:40:03.008266 12404 net.cpp:399] inception_4d/3x3 -> inception_4d/3x3
I0403 21:40:03.012353 12404 net.cpp:141] Setting up inception_4d/3x3
I0403 21:40:03.012383 12404 net.cpp:148] Top shape: 24 288 14 14 (1354752)
I0403 21:40:03.012399 12404 net.cpp:156] Memory required for data: 1126235424
I0403 21:40:03.012418 12404 layer_factory.hpp:77] Creating layer inception_4d/relu_3x3
I0403 21:40:03.012440 12404 net.cpp:91] Creating Layer inception_4d/relu_3x3
I0403 21:40:03.012459 12404 net.cpp:425] inception_4d/relu_3x3 <- inception_4d/3x3
I0403 21:40:03.012476 12404 net.cpp:386] inception_4d/relu_3x3 -> inception_4d/3x3 (in-place)
I0403 21:40:03.012651 12404 net.cpp:141] Setting up inception_4d/relu_3x3
I0403 21:40:03.012678 12404 net.cpp:148] Top shape: 24 288 14 14 (1354752)
I0403 21:40:03.012694 12404 net.cpp:156] Memory required for data: 1131654432
I0403 21:40:03.012709 12404 layer_factory.hpp:77] Creating layer inception_4d/5x5_reduce
I0403 21:40:03.012730 12404 net.cpp:91] Creating Layer inception_4d/5x5_reduce
I0403 21:40:03.012748 12404 net.cpp:425] inception_4d/5x5_reduce <- inception_4c/output_inception_4c/output_0_split_2
I0403 21:40:03.012765 12404 net.cpp:399] inception_4d/5x5_reduce -> inception_4d/5x5_reduce
I0403 21:40:03.013855 12404 net.cpp:141] Setting up inception_4d/5x5_reduce
I0403 21:40:03.013881 12404 net.cpp:148] Top shape: 24 32 14 14 (150528)
I0403 21:40:03.013897 12404 net.cpp:156] Memory required for data: 1132256544
I0403 21:40:03.013916 12404 layer_factory.hpp:77] Creating layer inception_4d/relu_5x5_reduce
I0403 21:40:03.013936 12404 net.cpp:91] Creating Layer inception_4d/relu_5x5_reduce
I0403 21:40:03.013952 12404 net.cpp:425] inception_4d/relu_5x5_reduce <- inception_4d/5x5_reduce
I0403 21:40:03.013968 12404 net.cpp:386] inception_4d/relu_5x5_reduce -> inception_4d/5x5_reduce (in-place)
I0403 21:40:03.014148 12404 net.cpp:141] Setting up inception_4d/relu_5x5_reduce
I0403 21:40:03.014175 12404 net.cpp:148] Top shape: 24 32 14 14 (150528)
I0403 21:40:03.014190 12404 net.cpp:156] Memory required for data: 1132858656
I0403 21:40:03.014205 12404 layer_factory.hpp:77] Creating layer inception_4d/5x5
I0403 21:40:03.014232 12404 net.cpp:91] Creating Layer inception_4d/5x5
I0403 21:40:03.014251 12404 net.cpp:425] inception_4d/5x5 <- inception_4d/5x5_reduce
I0403 21:40:03.014272 12404 net.cpp:399] inception_4d/5x5 -> inception_4d/5x5
I0403 21:40:03.015653 12404 net.cpp:141] Setting up inception_4d/5x5
I0403 21:40:03.015679 12404 net.cpp:148] Top shape: 24 64 14 14 (301056)
I0403 21:40:03.015696 12404 net.cpp:156] Memory required for data: 1134062880
I0403 21:40:03.015715 12404 layer_factory.hpp:77] Creating layer inception_4d/relu_5x5
I0403 21:40:03.015748 12404 net.cpp:91] Creating Layer inception_4d/relu_5x5
I0403 21:40:03.015764 12404 net.cpp:425] inception_4d/relu_5x5 <- inception_4d/5x5
I0403 21:40:03.015784 12404 net.cpp:386] inception_4d/relu_5x5 -> inception_4d/5x5 (in-place)
I0403 21:40:03.016067 12404 net.cpp:141] Setting up inception_4d/relu_5x5
I0403 21:40:03.016093 12404 net.cpp:148] Top shape: 24 64 14 14 (301056)
I0403 21:40:03.016109 12404 net.cpp:156] Memory required for data: 1135267104
I0403 21:40:03.016124 12404 layer_factory.hpp:77] Creating layer inception_4d/pool
I0403 21:40:03.016140 12404 net.cpp:91] Creating Layer inception_4d/pool
I0403 21:40:03.016156 12404 net.cpp:425] inception_4d/pool <- inception_4c/output_inception_4c/output_0_split_3
I0403 21:40:03.016176 12404 net.cpp:399] inception_4d/pool -> inception_4d/pool
I0403 21:40:03.016245 12404 net.cpp:141] Setting up inception_4d/pool
I0403 21:40:03.016269 12404 net.cpp:148] Top shape: 24 512 14 14 (2408448)
I0403 21:40:03.016283 12404 net.cpp:156] Memory required for data: 1144900896
I0403 21:40:03.016297 12404 layer_factory.hpp:77] Creating layer inception_4d/pool_proj
I0403 21:40:03.016321 12404 net.cpp:91] Creating Layer inception_4d/pool_proj
I0403 21:40:03.016340 12404 net.cpp:425] inception_4d/pool_proj <- inception_4d/pool
I0403 21:40:03.016358 12404 net.cpp:399] inception_4d/pool_proj -> inception_4d/pool_proj
I0403 21:40:03.018128 12404 net.cpp:141] Setting up inception_4d/pool_proj
I0403 21:40:03.018157 12404 net.cpp:148] Top shape: 24 64 14 14 (301056)
I0403 21:40:03.018177 12404 net.cpp:156] Memory required for data: 1146105120
I0403 21:40:03.018195 12404 layer_factory.hpp:77] Creating layer inception_4d/relu_pool_proj
I0403 21:40:03.018216 12404 net.cpp:91] Creating Layer inception_4d/relu_pool_proj
I0403 21:40:03.018245 12404 net.cpp:425] inception_4d/relu_pool_proj <- inception_4d/pool_proj
I0403 21:40:03.018263 12404 net.cpp:386] inception_4d/relu_pool_proj -> inception_4d/pool_proj (in-place)
I0403 21:40:03.018440 12404 net.cpp:141] Setting up inception_4d/relu_pool_proj
I0403 21:40:03.018466 12404 net.cpp:148] Top shape: 24 64 14 14 (301056)
I0403 21:40:03.018481 12404 net.cpp:156] Memory required for data: 1147309344
I0403 21:40:03.018496 12404 layer_factory.hpp:77] Creating layer inception_4d/output
I0403 21:40:03.018513 12404 net.cpp:91] Creating Layer inception_4d/output
I0403 21:40:03.018528 12404 net.cpp:425] inception_4d/output <- inception_4d/1x1
I0403 21:40:03.018545 12404 net.cpp:425] inception_4d/output <- inception_4d/3x3
I0403 21:40:03.018561 12404 net.cpp:425] inception_4d/output <- inception_4d/5x5
I0403 21:40:03.018578 12404 net.cpp:425] inception_4d/output <- inception_4d/pool_proj
I0403 21:40:03.018595 12404 net.cpp:399] inception_4d/output -> inception_4d/output
I0403 21:40:03.018640 12404 net.cpp:141] Setting up inception_4d/output
I0403 21:40:03.018662 12404 net.cpp:148] Top shape: 24 528 14 14 (2483712)
I0403 21:40:03.018676 12404 net.cpp:156] Memory required for data: 1157244192
I0403 21:40:03.018690 12404 layer_factory.hpp:77] Creating layer inception_4d/output_inception_4d/output_0_split
I0403 21:40:03.018709 12404 net.cpp:91] Creating Layer inception_4d/output_inception_4d/output_0_split
I0403 21:40:03.018725 12404 net.cpp:425] inception_4d/output_inception_4d/output_0_split <- inception_4d/output
I0403 21:40:03.018743 12404 net.cpp:399] inception_4d/output_inception_4d/output_0_split -> inception_4d/output_inception_4d/output_0_split_0
I0403 21:40:03.018764 12404 net.cpp:399] inception_4d/output_inception_4d/output_0_split -> inception_4d/output_inception_4d/output_0_split_1
I0403 21:40:03.018786 12404 net.cpp:399] inception_4d/output_inception_4d/output_0_split -> inception_4d/output_inception_4d/output_0_split_2
I0403 21:40:03.018805 12404 net.cpp:399] inception_4d/output_inception_4d/output_0_split -> inception_4d/output_inception_4d/output_0_split_3
I0403 21:40:03.018826 12404 net.cpp:399] inception_4d/output_inception_4d/output_0_split -> inception_4d/output_inception_4d/output_0_split_4
I0403 21:40:03.018921 12404 net.cpp:141] Setting up inception_4d/output_inception_4d/output_0_split
I0403 21:40:03.018956 12404 net.cpp:148] Top shape: 24 528 14 14 (2483712)
I0403 21:40:03.018973 12404 net.cpp:148] Top shape: 24 528 14 14 (2483712)
I0403 21:40:03.018990 12404 net.cpp:148] Top shape: 24 528 14 14 (2483712)
I0403 21:40:03.019004 12404 net.cpp:148] Top shape: 24 528 14 14 (2483712)
I0403 21:40:03.019021 12404 net.cpp:148] Top shape: 24 528 14 14 (2483712)
I0403 21:40:03.019034 12404 net.cpp:156] Memory required for data: 1206918432
I0403 21:40:03.019048 12404 layer_factory.hpp:77] Creating layer loss2/ave_pool
I0403 21:40:03.019068 12404 net.cpp:91] Creating Layer loss2/ave_pool
I0403 21:40:03.019084 12404 net.cpp:425] loss2/ave_pool <- inception_4d/output_inception_4d/output_0_split_0
I0403 21:40:03.019103 12404 net.cpp:399] loss2/ave_pool -> loss2/ave_pool
I0403 21:40:03.019408 12404 net.cpp:141] Setting up loss2/ave_pool
I0403 21:40:03.019448 12404 net.cpp:148] Top shape: 24 528 4 4 (202752)
I0403 21:40:03.019464 12404 net.cpp:156] Memory required for data: 1207729440
I0403 21:40:03.019490 12404 layer_factory.hpp:77] Creating layer loss2/conv
I0403 21:40:03.019510 12404 net.cpp:91] Creating Layer loss2/conv
I0403 21:40:03.019528 12404 net.cpp:425] loss2/conv <- loss2/ave_pool
I0403 21:40:03.019551 12404 net.cpp:399] loss2/conv -> loss2/conv
I0403 21:40:03.021410 12404 net.cpp:141] Setting up loss2/conv
I0403 21:40:03.021437 12404 net.cpp:148] Top shape: 24 128 4 4 (49152)
I0403 21:40:03.021453 12404 net.cpp:156] Memory required for data: 1207926048
I0403 21:40:03.021471 12404 layer_factory.hpp:77] Creating layer loss2/relu_conv
I0403 21:40:03.021489 12404 net.cpp:91] Creating Layer loss2/relu_conv
I0403 21:40:03.021507 12404 net.cpp:425] loss2/relu_conv <- loss2/conv
I0403 21:40:03.021527 12404 net.cpp:386] loss2/relu_conv -> loss2/conv (in-place)
I0403 21:40:03.021797 12404 net.cpp:141] Setting up loss2/relu_conv
I0403 21:40:03.021824 12404 net.cpp:148] Top shape: 24 128 4 4 (49152)
I0403 21:40:03.021839 12404 net.cpp:156] Memory required for data: 1208122656
I0403 21:40:03.021853 12404 layer_factory.hpp:77] Creating layer loss2/fc
I0403 21:40:03.021872 12404 net.cpp:91] Creating Layer loss2/fc
I0403 21:40:03.021888 12404 net.cpp:425] loss2/fc <- loss2/conv
I0403 21:40:03.021910 12404 net.cpp:399] loss2/fc -> loss2/fc
I0403 21:40:03.038971 12404 net.cpp:141] Setting up loss2/fc
I0403 21:40:03.039005 12404 net.cpp:148] Top shape: 24 1024 (24576)
I0403 21:40:03.039021 12404 net.cpp:156] Memory required for data: 1208220960
I0403 21:40:03.039038 12404 layer_factory.hpp:77] Creating layer loss2/relu_fc
I0403 21:40:03.039059 12404 net.cpp:91] Creating Layer loss2/relu_fc
I0403 21:40:03.039077 12404 net.cpp:425] loss2/relu_fc <- loss2/fc
I0403 21:40:03.039093 12404 net.cpp:386] loss2/relu_fc -> loss2/fc (in-place)
I0403 21:40:03.039382 12404 net.cpp:141] Setting up loss2/relu_fc
I0403 21:40:03.039409 12404 net.cpp:148] Top shape: 24 1024 (24576)
I0403 21:40:03.039425 12404 net.cpp:156] Memory required for data: 1208319264
I0403 21:40:03.039453 12404 layer_factory.hpp:77] Creating layer loss2/drop_fc
I0403 21:40:03.039470 12404 net.cpp:91] Creating Layer loss2/drop_fc
I0403 21:40:03.039486 12404 net.cpp:425] loss2/drop_fc <- loss2/fc
I0403 21:40:03.039504 12404 net.cpp:386] loss2/drop_fc -> loss2/fc (in-place)
I0403 21:40:03.039552 12404 net.cpp:141] Setting up loss2/drop_fc
I0403 21:40:03.039574 12404 net.cpp:148] Top shape: 24 1024 (24576)
I0403 21:40:03.039589 12404 net.cpp:156] Memory required for data: 1208417568
I0403 21:40:03.039604 12404 layer_factory.hpp:77] Creating layer loss2/classifier_plantvillage
I0403 21:40:03.039625 12404 net.cpp:91] Creating Layer loss2/classifier_plantvillage
I0403 21:40:03.039644 12404 net.cpp:425] loss2/classifier_plantvillage <- loss2/fc
I0403 21:40:03.039661 12404 net.cpp:399] loss2/classifier_plantvillage -> loss2/classifier_plantvillage
I0403 21:40:03.040052 12404 net.cpp:141] Setting up loss2/classifier_plantvillage
I0403 21:40:03.040076 12404 net.cpp:148] Top shape: 24 38 (912)
I0403 21:40:03.040091 12404 net.cpp:156] Memory required for data: 1208421216
I0403 21:40:03.040124 12404 layer_factory.hpp:77] Creating layer loss2/classifier_plantvillage_loss2/classifier_plantvillage_0_split
I0403 21:40:03.040141 12404 net.cpp:91] Creating Layer loss2/classifier_plantvillage_loss2/classifier_plantvillage_0_split
I0403 21:40:03.040156 12404 net.cpp:425] loss2/classifier_plantvillage_loss2/classifier_plantvillage_0_split <- loss2/classifier_plantvillage
I0403 21:40:03.040176 12404 net.cpp:399] loss2/classifier_plantvillage_loss2/classifier_plantvillage_0_split -> loss2/classifier_plantvillage_loss2/classifier_plantvillage_0_split_0
I0403 21:40:03.040196 12404 net.cpp:399] loss2/classifier_plantvillage_loss2/classifier_plantvillage_0_split -> loss2/classifier_plantvillage_loss2/classifier_plantvillage_0_split_1
I0403 21:40:03.040221 12404 net.cpp:399] loss2/classifier_plantvillage_loss2/classifier_plantvillage_0_split -> loss2/classifier_plantvillage_loss2/classifier_plantvillage_0_split_2
I0403 21:40:03.040295 12404 net.cpp:141] Setting up loss2/classifier_plantvillage_loss2/classifier_plantvillage_0_split
I0403 21:40:03.040320 12404 net.cpp:148] Top shape: 24 38 (912)
I0403 21:40:03.040338 12404 net.cpp:148] Top shape: 24 38 (912)
I0403 21:40:03.040352 12404 net.cpp:148] Top shape: 24 38 (912)
I0403 21:40:03.040365 12404 net.cpp:156] Memory required for data: 1208432160
I0403 21:40:03.040380 12404 layer_factory.hpp:77] Creating layer inception_4e/1x1
I0403 21:40:03.040398 12404 net.cpp:91] Creating Layer inception_4e/1x1
I0403 21:40:03.040416 12404 net.cpp:425] inception_4e/1x1 <- inception_4d/output_inception_4d/output_0_split_1
I0403 21:40:03.040433 12404 net.cpp:399] inception_4e/1x1 -> inception_4e/1x1
I0403 21:40:03.042150 12404 net.cpp:141] Setting up inception_4e/1x1
I0403 21:40:03.042176 12404 net.cpp:148] Top shape: 24 256 14 14 (1204224)
I0403 21:40:03.042191 12404 net.cpp:156] Memory required for data: 1213249056
I0403 21:40:03.042219 12404 layer_factory.hpp:77] Creating layer inception_4e/relu_1x1
I0403 21:40:03.042240 12404 net.cpp:91] Creating Layer inception_4e/relu_1x1
I0403 21:40:03.042255 12404 net.cpp:425] inception_4e/relu_1x1 <- inception_4e/1x1
I0403 21:40:03.042274 12404 net.cpp:386] inception_4e/relu_1x1 -> inception_4e/1x1 (in-place)
I0403 21:40:03.042573 12404 net.cpp:141] Setting up inception_4e/relu_1x1
I0403 21:40:03.042598 12404 net.cpp:148] Top shape: 24 256 14 14 (1204224)
I0403 21:40:03.042613 12404 net.cpp:156] Memory required for data: 1218065952
I0403 21:40:03.042629 12404 layer_factory.hpp:77] Creating layer inception_4e/3x3_reduce
I0403 21:40:03.042662 12404 net.cpp:91] Creating Layer inception_4e/3x3_reduce
I0403 21:40:03.042681 12404 net.cpp:425] inception_4e/3x3_reduce <- inception_4d/output_inception_4d/output_0_split_2
I0403 21:40:03.042702 12404 net.cpp:399] inception_4e/3x3_reduce -> inception_4e/3x3_reduce
I0403 21:40:03.044788 12404 net.cpp:141] Setting up inception_4e/3x3_reduce
I0403 21:40:03.044818 12404 net.cpp:148] Top shape: 24 160 14 14 (752640)
I0403 21:40:03.044836 12404 net.cpp:156] Memory required for data: 1221076512
I0403 21:40:03.044853 12404 layer_factory.hpp:77] Creating layer inception_4e/relu_3x3_reduce
I0403 21:40:03.044872 12404 net.cpp:91] Creating Layer inception_4e/relu_3x3_reduce
I0403 21:40:03.044886 12404 net.cpp:425] inception_4e/relu_3x3_reduce <- inception_4e/3x3_reduce
I0403 21:40:03.044905 12404 net.cpp:386] inception_4e/relu_3x3_reduce -> inception_4e/3x3_reduce (in-place)
I0403 21:40:03.045083 12404 net.cpp:141] Setting up inception_4e/relu_3x3_reduce
I0403 21:40:03.045109 12404 net.cpp:148] Top shape: 24 160 14 14 (752640)
I0403 21:40:03.045123 12404 net.cpp:156] Memory required for data: 1224087072
I0403 21:40:03.045138 12404 layer_factory.hpp:77] Creating layer inception_4e/3x3
I0403 21:40:03.045161 12404 net.cpp:91] Creating Layer inception_4e/3x3
I0403 21:40:03.045177 12404 net.cpp:425] inception_4e/3x3 <- inception_4e/3x3_reduce
I0403 21:40:03.045198 12404 net.cpp:399] inception_4e/3x3 -> inception_4e/3x3
I0403 21:40:03.050010 12404 net.cpp:141] Setting up inception_4e/3x3
I0403 21:40:03.050051 12404 net.cpp:148] Top shape: 24 320 14 14 (1505280)
I0403 21:40:03.050067 12404 net.cpp:156] Memory required for data: 1230108192
I0403 21:40:03.050086 12404 layer_factory.hpp:77] Creating layer inception_4e/relu_3x3
I0403 21:40:03.050106 12404 net.cpp:91] Creating Layer inception_4e/relu_3x3
I0403 21:40:03.050122 12404 net.cpp:425] inception_4e/relu_3x3 <- inception_4e/3x3
I0403 21:40:03.050139 12404 net.cpp:386] inception_4e/relu_3x3 -> inception_4e/3x3 (in-place)
I0403 21:40:03.050427 12404 net.cpp:141] Setting up inception_4e/relu_3x3
I0403 21:40:03.050453 12404 net.cpp:148] Top shape: 24 320 14 14 (1505280)
I0403 21:40:03.050467 12404 net.cpp:156] Memory required for data: 1236129312
I0403 21:40:03.050482 12404 layer_factory.hpp:77] Creating layer inception_4e/5x5_reduce
I0403 21:40:03.050503 12404 net.cpp:91] Creating Layer inception_4e/5x5_reduce
I0403 21:40:03.050523 12404 net.cpp:425] inception_4e/5x5_reduce <- inception_4d/output_inception_4d/output_0_split_3
I0403 21:40:03.050542 12404 net.cpp:399] inception_4e/5x5_reduce -> inception_4e/5x5_reduce
I0403 21:40:03.051560 12404 net.cpp:141] Setting up inception_4e/5x5_reduce
I0403 21:40:03.051587 12404 net.cpp:148] Top shape: 24 32 14 14 (150528)
I0403 21:40:03.051602 12404 net.cpp:156] Memory required for data: 1236731424
I0403 21:40:03.051620 12404 layer_factory.hpp:77] Creating layer inception_4e/relu_5x5_reduce
I0403 21:40:03.051637 12404 net.cpp:91] Creating Layer inception_4e/relu_5x5_reduce
I0403 21:40:03.051653 12404 net.cpp:425] inception_4e/relu_5x5_reduce <- inception_4e/5x5_reduce
I0403 21:40:03.051673 12404 net.cpp:386] inception_4e/relu_5x5_reduce -> inception_4e/5x5_reduce (in-place)
I0403 21:40:03.051957 12404 net.cpp:141] Setting up inception_4e/relu_5x5_reduce
I0403 21:40:03.051982 12404 net.cpp:148] Top shape: 24 32 14 14 (150528)
I0403 21:40:03.051997 12404 net.cpp:156] Memory required for data: 1237333536
I0403 21:40:03.052012 12404 layer_factory.hpp:77] Creating layer inception_4e/5x5
I0403 21:40:03.052053 12404 net.cpp:91] Creating Layer inception_4e/5x5
I0403 21:40:03.052073 12404 net.cpp:425] inception_4e/5x5 <- inception_4e/5x5_reduce
I0403 21:40:03.052091 12404 net.cpp:399] inception_4e/5x5 -> inception_4e/5x5
I0403 21:40:03.053840 12404 net.cpp:141] Setting up inception_4e/5x5
I0403 21:40:03.053869 12404 net.cpp:148] Top shape: 24 128 14 14 (602112)
I0403 21:40:03.053885 12404 net.cpp:156] Memory required for data: 1239741984
I0403 21:40:03.053903 12404 layer_factory.hpp:77] Creating layer inception_4e/relu_5x5
I0403 21:40:03.053921 12404 net.cpp:91] Creating Layer inception_4e/relu_5x5
I0403 21:40:03.053938 12404 net.cpp:425] inception_4e/relu_5x5 <- inception_4e/5x5
I0403 21:40:03.053954 12404 net.cpp:386] inception_4e/relu_5x5 -> inception_4e/5x5 (in-place)
I0403 21:40:03.054146 12404 net.cpp:141] Setting up inception_4e/relu_5x5
I0403 21:40:03.054170 12404 net.cpp:148] Top shape: 24 128 14 14 (602112)
I0403 21:40:03.054184 12404 net.cpp:156] Memory required for data: 1242150432
I0403 21:40:03.054199 12404 layer_factory.hpp:77] Creating layer inception_4e/pool
I0403 21:40:03.054221 12404 net.cpp:91] Creating Layer inception_4e/pool
I0403 21:40:03.054239 12404 net.cpp:425] inception_4e/pool <- inception_4d/output_inception_4d/output_0_split_4
I0403 21:40:03.054260 12404 net.cpp:399] inception_4e/pool -> inception_4e/pool
I0403 21:40:03.054325 12404 net.cpp:141] Setting up inception_4e/pool
I0403 21:40:03.054352 12404 net.cpp:148] Top shape: 24 528 14 14 (2483712)
I0403 21:40:03.054366 12404 net.cpp:156] Memory required for data: 1252085280
I0403 21:40:03.054381 12404 layer_factory.hpp:77] Creating layer inception_4e/pool_proj
I0403 21:40:03.054404 12404 net.cpp:91] Creating Layer inception_4e/pool_proj
I0403 21:40:03.054421 12404 net.cpp:425] inception_4e/pool_proj <- inception_4e/pool
I0403 21:40:03.054440 12404 net.cpp:399] inception_4e/pool_proj -> inception_4e/pool_proj
I0403 21:40:03.055896 12404 net.cpp:141] Setting up inception_4e/pool_proj
I0403 21:40:03.055924 12404 net.cpp:148] Top shape: 24 128 14 14 (602112)
I0403 21:40:03.055953 12404 net.cpp:156] Memory required for data: 1254493728
I0403 21:40:03.055973 12404 layer_factory.hpp:77] Creating layer inception_4e/relu_pool_proj
I0403 21:40:03.055990 12404 net.cpp:91] Creating Layer inception_4e/relu_pool_proj
I0403 21:40:03.056005 12404 net.cpp:425] inception_4e/relu_pool_proj <- inception_4e/pool_proj
I0403 21:40:03.056022 12404 net.cpp:386] inception_4e/relu_pool_proj -> inception_4e/pool_proj (in-place)
I0403 21:40:03.056306 12404 net.cpp:141] Setting up inception_4e/relu_pool_proj
I0403 21:40:03.056337 12404 net.cpp:148] Top shape: 24 128 14 14 (602112)
I0403 21:40:03.056354 12404 net.cpp:156] Memory required for data: 1256902176
I0403 21:40:03.056368 12404 layer_factory.hpp:77] Creating layer inception_4e/output
I0403 21:40:03.056385 12404 net.cpp:91] Creating Layer inception_4e/output
I0403 21:40:03.056401 12404 net.cpp:425] inception_4e/output <- inception_4e/1x1
I0403 21:40:03.056416 12404 net.cpp:425] inception_4e/output <- inception_4e/3x3
I0403 21:40:03.056432 12404 net.cpp:425] inception_4e/output <- inception_4e/5x5
I0403 21:40:03.056447 12404 net.cpp:425] inception_4e/output <- inception_4e/pool_proj
I0403 21:40:03.056463 12404 net.cpp:399] inception_4e/output -> inception_4e/output
I0403 21:40:03.056510 12404 net.cpp:141] Setting up inception_4e/output
I0403 21:40:03.056535 12404 net.cpp:148] Top shape: 24 832 14 14 (3913728)
I0403 21:40:03.056548 12404 net.cpp:156] Memory required for data: 1272557088
I0403 21:40:03.056563 12404 layer_factory.hpp:77] Creating layer pool4/3x3_s2
I0403 21:40:03.056582 12404 net.cpp:91] Creating Layer pool4/3x3_s2
I0403 21:40:03.056598 12404 net.cpp:425] pool4/3x3_s2 <- inception_4e/output
I0403 21:40:03.056615 12404 net.cpp:399] pool4/3x3_s2 -> pool4/3x3_s2
I0403 21:40:03.056680 12404 net.cpp:141] Setting up pool4/3x3_s2
I0403 21:40:03.056704 12404 net.cpp:148] Top shape: 24 832 7 7 (978432)
I0403 21:40:03.056717 12404 net.cpp:156] Memory required for data: 1276470816
I0403 21:40:03.056732 12404 layer_factory.hpp:77] Creating layer pool4/3x3_s2_pool4/3x3_s2_0_split
I0403 21:40:03.056749 12404 net.cpp:91] Creating Layer pool4/3x3_s2_pool4/3x3_s2_0_split
I0403 21:40:03.056764 12404 net.cpp:425] pool4/3x3_s2_pool4/3x3_s2_0_split <- pool4/3x3_s2
I0403 21:40:03.056782 12404 net.cpp:399] pool4/3x3_s2_pool4/3x3_s2_0_split -> pool4/3x3_s2_pool4/3x3_s2_0_split_0
I0403 21:40:03.056802 12404 net.cpp:399] pool4/3x3_s2_pool4/3x3_s2_0_split -> pool4/3x3_s2_pool4/3x3_s2_0_split_1
I0403 21:40:03.056823 12404 net.cpp:399] pool4/3x3_s2_pool4/3x3_s2_0_split -> pool4/3x3_s2_pool4/3x3_s2_0_split_2
I0403 21:40:03.056841 12404 net.cpp:399] pool4/3x3_s2_pool4/3x3_s2_0_split -> pool4/3x3_s2_pool4/3x3_s2_0_split_3
I0403 21:40:03.056928 12404 net.cpp:141] Setting up pool4/3x3_s2_pool4/3x3_s2_0_split
I0403 21:40:03.056953 12404 net.cpp:148] Top shape: 24 832 7 7 (978432)
I0403 21:40:03.056970 12404 net.cpp:148] Top shape: 24 832 7 7 (978432)
I0403 21:40:03.056987 12404 net.cpp:148] Top shape: 24 832 7 7 (978432)
I0403 21:40:03.057001 12404 net.cpp:148] Top shape: 24 832 7 7 (978432)
I0403 21:40:03.057015 12404 net.cpp:156] Memory required for data: 1292125728
I0403 21:40:03.057030 12404 layer_factory.hpp:77] Creating layer inception_5a/1x1
I0403 21:40:03.057051 12404 net.cpp:91] Creating Layer inception_5a/1x1
I0403 21:40:03.057070 12404 net.cpp:425] inception_5a/1x1 <- pool4/3x3_s2_pool4/3x3_s2_0_split_0
I0403 21:40:03.057088 12404 net.cpp:399] inception_5a/1x1 -> inception_5a/1x1
I0403 21:40:03.059886 12404 net.cpp:141] Setting up inception_5a/1x1
I0403 21:40:03.059916 12404 net.cpp:148] Top shape: 24 256 7 7 (301056)
I0403 21:40:03.059932 12404 net.cpp:156] Memory required for data: 1293329952
I0403 21:40:03.059952 12404 layer_factory.hpp:77] Creating layer inception_5a/relu_1x1
I0403 21:40:03.059968 12404 net.cpp:91] Creating Layer inception_5a/relu_1x1
I0403 21:40:03.059983 12404 net.cpp:425] inception_5a/relu_1x1 <- inception_5a/1x1
I0403 21:40:03.060003 12404 net.cpp:386] inception_5a/relu_1x1 -> inception_5a/1x1 (in-place)
I0403 21:40:03.060307 12404 net.cpp:141] Setting up inception_5a/relu_1x1
I0403 21:40:03.060335 12404 net.cpp:148] Top shape: 24 256 7 7 (301056)
I0403 21:40:03.060351 12404 net.cpp:156] Memory required for data: 1294534176
I0403 21:40:03.060366 12404 layer_factory.hpp:77] Creating layer inception_5a/3x3_reduce
I0403 21:40:03.060387 12404 net.cpp:91] Creating Layer inception_5a/3x3_reduce
I0403 21:40:03.060405 12404 net.cpp:425] inception_5a/3x3_reduce <- pool4/3x3_s2_pool4/3x3_s2_0_split_1
I0403 21:40:03.060425 12404 net.cpp:399] inception_5a/3x3_reduce -> inception_5a/3x3_reduce
I0403 21:40:03.062809 12404 net.cpp:141] Setting up inception_5a/3x3_reduce
I0403 21:40:03.062837 12404 net.cpp:148] Top shape: 24 160 7 7 (188160)
I0403 21:40:03.062854 12404 net.cpp:156] Memory required for data: 1295286816
I0403 21:40:03.062870 12404 layer_factory.hpp:77] Creating layer inception_5a/relu_3x3_reduce
I0403 21:40:03.062891 12404 net.cpp:91] Creating Layer inception_5a/relu_3x3_reduce
I0403 21:40:03.062907 12404 net.cpp:425] inception_5a/relu_3x3_reduce <- inception_5a/3x3_reduce
I0403 21:40:03.062924 12404 net.cpp:386] inception_5a/relu_3x3_reduce -> inception_5a/3x3_reduce (in-place)
I0403 21:40:03.063107 12404 net.cpp:141] Setting up inception_5a/relu_3x3_reduce
I0403 21:40:03.063133 12404 net.cpp:148] Top shape: 24 160 7 7 (188160)
I0403 21:40:03.063148 12404 net.cpp:156] Memory required for data: 1296039456
I0403 21:40:03.063163 12404 layer_factory.hpp:77] Creating layer inception_5a/3x3
I0403 21:40:03.063184 12404 net.cpp:91] Creating Layer inception_5a/3x3
I0403 21:40:03.063201 12404 net.cpp:425] inception_5a/3x3 <- inception_5a/3x3_reduce
I0403 21:40:03.063226 12404 net.cpp:399] inception_5a/3x3 -> inception_5a/3x3
I0403 21:40:03.068070 12404 net.cpp:141] Setting up inception_5a/3x3
I0403 21:40:03.068104 12404 net.cpp:148] Top shape: 24 320 7 7 (376320)
I0403 21:40:03.068122 12404 net.cpp:156] Memory required for data: 1297544736
I0403 21:40:03.068140 12404 layer_factory.hpp:77] Creating layer inception_5a/relu_3x3
I0403 21:40:03.068158 12404 net.cpp:91] Creating Layer inception_5a/relu_3x3
I0403 21:40:03.068176 12404 net.cpp:425] inception_5a/relu_3x3 <- inception_5a/3x3
I0403 21:40:03.068194 12404 net.cpp:386] inception_5a/relu_3x3 -> inception_5a/3x3 (in-place)
I0403 21:40:03.068480 12404 net.cpp:141] Setting up inception_5a/relu_3x3
I0403 21:40:03.068506 12404 net.cpp:148] Top shape: 24 320 7 7 (376320)
I0403 21:40:03.068522 12404 net.cpp:156] Memory required for data: 1299050016
I0403 21:40:03.068537 12404 layer_factory.hpp:77] Creating layer inception_5a/5x5_reduce
I0403 21:40:03.068559 12404 net.cpp:91] Creating Layer inception_5a/5x5_reduce
I0403 21:40:03.068578 12404 net.cpp:425] inception_5a/5x5_reduce <- pool4/3x3_s2_pool4/3x3_s2_0_split_2
I0403 21:40:03.068596 12404 net.cpp:399] inception_5a/5x5_reduce -> inception_5a/5x5_reduce
I0403 21:40:03.069718 12404 net.cpp:141] Setting up inception_5a/5x5_reduce
I0403 21:40:03.069747 12404 net.cpp:148] Top shape: 24 32 7 7 (37632)
I0403 21:40:03.069764 12404 net.cpp:156] Memory required for data: 1299200544
I0403 21:40:03.069782 12404 layer_factory.hpp:77] Creating layer inception_5a/relu_5x5_reduce
I0403 21:40:03.069800 12404 net.cpp:91] Creating Layer inception_5a/relu_5x5_reduce
I0403 21:40:03.069816 12404 net.cpp:425] inception_5a/relu_5x5_reduce <- inception_5a/5x5_reduce
I0403 21:40:03.069835 12404 net.cpp:386] inception_5a/relu_5x5_reduce -> inception_5a/5x5_reduce (in-place)
I0403 21:40:03.070124 12404 net.cpp:141] Setting up inception_5a/relu_5x5_reduce
I0403 21:40:03.070149 12404 net.cpp:148] Top shape: 24 32 7 7 (37632)
I0403 21:40:03.070164 12404 net.cpp:156] Memory required for data: 1299351072
I0403 21:40:03.070179 12404 layer_factory.hpp:77] Creating layer inception_5a/5x5
I0403 21:40:03.070201 12404 net.cpp:91] Creating Layer inception_5a/5x5
I0403 21:40:03.070222 12404 net.cpp:425] inception_5a/5x5 <- inception_5a/5x5_reduce
I0403 21:40:03.070245 12404 net.cpp:399] inception_5a/5x5 -> inception_5a/5x5
I0403 21:40:03.071880 12404 net.cpp:141] Setting up inception_5a/5x5
I0403 21:40:03.071920 12404 net.cpp:148] Top shape: 24 128 7 7 (150528)
I0403 21:40:03.071938 12404 net.cpp:156] Memory required for data: 1299953184
I0403 21:40:03.071955 12404 layer_factory.hpp:77] Creating layer inception_5a/relu_5x5
I0403 21:40:03.071974 12404 net.cpp:91] Creating Layer inception_5a/relu_5x5
I0403 21:40:03.071990 12404 net.cpp:425] inception_5a/relu_5x5 <- inception_5a/5x5
I0403 21:40:03.072006 12404 net.cpp:386] inception_5a/relu_5x5 -> inception_5a/5x5 (in-place)
I0403 21:40:03.072217 12404 net.cpp:141] Setting up inception_5a/relu_5x5
I0403 21:40:03.072243 12404 net.cpp:148] Top shape: 24 128 7 7 (150528)
I0403 21:40:03.072258 12404 net.cpp:156] Memory required for data: 1300555296
I0403 21:40:03.072273 12404 layer_factory.hpp:77] Creating layer inception_5a/pool
I0403 21:40:03.072291 12404 net.cpp:91] Creating Layer inception_5a/pool
I0403 21:40:03.072307 12404 net.cpp:425] inception_5a/pool <- pool4/3x3_s2_pool4/3x3_s2_0_split_3
I0403 21:40:03.072329 12404 net.cpp:399] inception_5a/pool -> inception_5a/pool
I0403 21:40:03.072397 12404 net.cpp:141] Setting up inception_5a/pool
I0403 21:40:03.072424 12404 net.cpp:148] Top shape: 24 832 7 7 (978432)
I0403 21:40:03.072440 12404 net.cpp:156] Memory required for data: 1304469024
I0403 21:40:03.072455 12404 layer_factory.hpp:77] Creating layer inception_5a/pool_proj
I0403 21:40:03.072477 12404 net.cpp:91] Creating Layer inception_5a/pool_proj
I0403 21:40:03.072495 12404 net.cpp:425] inception_5a/pool_proj <- inception_5a/pool
I0403 21:40:03.072515 12404 net.cpp:399] inception_5a/pool_proj -> inception_5a/pool_proj
I0403 21:40:03.074761 12404 net.cpp:141] Setting up inception_5a/pool_proj
I0403 21:40:03.074790 12404 net.cpp:148] Top shape: 24 128 7 7 (150528)
I0403 21:40:03.074805 12404 net.cpp:156] Memory required for data: 1305071136
I0403 21:40:03.074823 12404 layer_factory.hpp:77] Creating layer inception_5a/relu_pool_proj
I0403 21:40:03.074843 12404 net.cpp:91] Creating Layer inception_5a/relu_pool_proj
I0403 21:40:03.074861 12404 net.cpp:425] inception_5a/relu_pool_proj <- inception_5a/pool_proj
I0403 21:40:03.074877 12404 net.cpp:386] inception_5a/relu_pool_proj -> inception_5a/pool_proj (in-place)
I0403 21:40:03.075165 12404 net.cpp:141] Setting up inception_5a/relu_pool_proj
I0403 21:40:03.075189 12404 net.cpp:148] Top shape: 24 128 7 7 (150528)
I0403 21:40:03.075204 12404 net.cpp:156] Memory required for data: 1305673248
I0403 21:40:03.075225 12404 layer_factory.hpp:77] Creating layer inception_5a/output
I0403 21:40:03.075245 12404 net.cpp:91] Creating Layer inception_5a/output
I0403 21:40:03.075263 12404 net.cpp:425] inception_5a/output <- inception_5a/1x1
I0403 21:40:03.075279 12404 net.cpp:425] inception_5a/output <- inception_5a/3x3
I0403 21:40:03.075294 12404 net.cpp:425] inception_5a/output <- inception_5a/5x5
I0403 21:40:03.075310 12404 net.cpp:425] inception_5a/output <- inception_5a/pool_proj
I0403 21:40:03.075326 12404 net.cpp:399] inception_5a/output -> inception_5a/output
I0403 21:40:03.075376 12404 net.cpp:141] Setting up inception_5a/output
I0403 21:40:03.075398 12404 net.cpp:148] Top shape: 24 832 7 7 (978432)
I0403 21:40:03.075413 12404 net.cpp:156] Memory required for data: 1309586976
I0403 21:40:03.075428 12404 layer_factory.hpp:77] Creating layer inception_5a/output_inception_5a/output_0_split
I0403 21:40:03.075444 12404 net.cpp:91] Creating Layer inception_5a/output_inception_5a/output_0_split
I0403 21:40:03.075459 12404 net.cpp:425] inception_5a/output_inception_5a/output_0_split <- inception_5a/output
I0403 21:40:03.075479 12404 net.cpp:399] inception_5a/output_inception_5a/output_0_split -> inception_5a/output_inception_5a/output_0_split_0
I0403 21:40:03.075500 12404 net.cpp:399] inception_5a/output_inception_5a/output_0_split -> inception_5a/output_inception_5a/output_0_split_1
I0403 21:40:03.075520 12404 net.cpp:399] inception_5a/output_inception_5a/output_0_split -> inception_5a/output_inception_5a/output_0_split_2
I0403 21:40:03.075541 12404 net.cpp:399] inception_5a/output_inception_5a/output_0_split -> inception_5a/output_inception_5a/output_0_split_3
I0403 21:40:03.075649 12404 net.cpp:141] Setting up inception_5a/output_inception_5a/output_0_split
I0403 21:40:03.075672 12404 net.cpp:148] Top shape: 24 832 7 7 (978432)
I0403 21:40:03.075688 12404 net.cpp:148] Top shape: 24 832 7 7 (978432)
I0403 21:40:03.075705 12404 net.cpp:148] Top shape: 24 832 7 7 (978432)
I0403 21:40:03.075721 12404 net.cpp:148] Top shape: 24 832 7 7 (978432)
I0403 21:40:03.075734 12404 net.cpp:156] Memory required for data: 1325241888
I0403 21:40:03.075748 12404 layer_factory.hpp:77] Creating layer inception_5b/1x1
I0403 21:40:03.075770 12404 net.cpp:91] Creating Layer inception_5b/1x1
I0403 21:40:03.075788 12404 net.cpp:425] inception_5b/1x1 <- inception_5a/output_inception_5a/output_0_split_0
I0403 21:40:03.075809 12404 net.cpp:399] inception_5b/1x1 -> inception_5b/1x1
I0403 21:40:03.079444 12404 net.cpp:141] Setting up inception_5b/1x1
I0403 21:40:03.079474 12404 net.cpp:148] Top shape: 24 384 7 7 (451584)
I0403 21:40:03.079490 12404 net.cpp:156] Memory required for data: 1327048224
I0403 21:40:03.079509 12404 layer_factory.hpp:77] Creating layer inception_5b/relu_1x1
I0403 21:40:03.079530 12404 net.cpp:91] Creating Layer inception_5b/relu_1x1
I0403 21:40:03.079560 12404 net.cpp:425] inception_5b/relu_1x1 <- inception_5b/1x1
I0403 21:40:03.079577 12404 net.cpp:386] inception_5b/relu_1x1 -> inception_5b/1x1 (in-place)
I0403 21:40:03.079874 12404 net.cpp:141] Setting up inception_5b/relu_1x1
I0403 21:40:03.079898 12404 net.cpp:148] Top shape: 24 384 7 7 (451584)
I0403 21:40:03.079912 12404 net.cpp:156] Memory required for data: 1328854560
I0403 21:40:03.079926 12404 layer_factory.hpp:77] Creating layer inception_5b/3x3_reduce
I0403 21:40:03.079948 12404 net.cpp:91] Creating Layer inception_5b/3x3_reduce
I0403 21:40:03.079967 12404 net.cpp:425] inception_5b/3x3_reduce <- inception_5a/output_inception_5a/output_0_split_1
I0403 21:40:03.079988 12404 net.cpp:399] inception_5b/3x3_reduce -> inception_5b/3x3_reduce
I0403 21:40:03.082593 12404 net.cpp:141] Setting up inception_5b/3x3_reduce
I0403 21:40:03.082623 12404 net.cpp:148] Top shape: 24 192 7 7 (225792)
I0403 21:40:03.082638 12404 net.cpp:156] Memory required for data: 1329757728
I0403 21:40:03.082655 12404 layer_factory.hpp:77] Creating layer inception_5b/relu_3x3_reduce
I0403 21:40:03.082674 12404 net.cpp:91] Creating Layer inception_5b/relu_3x3_reduce
I0403 21:40:03.082692 12404 net.cpp:425] inception_5b/relu_3x3_reduce <- inception_5b/3x3_reduce
I0403 21:40:03.082710 12404 net.cpp:386] inception_5b/relu_3x3_reduce -> inception_5b/3x3_reduce (in-place)
I0403 21:40:03.082891 12404 net.cpp:141] Setting up inception_5b/relu_3x3_reduce
I0403 21:40:03.082917 12404 net.cpp:148] Top shape: 24 192 7 7 (225792)
I0403 21:40:03.082932 12404 net.cpp:156] Memory required for data: 1330660896
I0403 21:40:03.082947 12404 layer_factory.hpp:77] Creating layer inception_5b/3x3
I0403 21:40:03.082967 12404 net.cpp:91] Creating Layer inception_5b/3x3
I0403 21:40:03.082985 12404 net.cpp:425] inception_5b/3x3 <- inception_5b/3x3_reduce
I0403 21:40:03.083008 12404 net.cpp:399] inception_5b/3x3 -> inception_5b/3x3
I0403 21:40:03.089469 12404 net.cpp:141] Setting up inception_5b/3x3
I0403 21:40:03.089498 12404 net.cpp:148] Top shape: 24 384 7 7 (451584)
I0403 21:40:03.089514 12404 net.cpp:156] Memory required for data: 1332467232
I0403 21:40:03.089531 12404 layer_factory.hpp:77] Creating layer inception_5b/relu_3x3
I0403 21:40:03.089551 12404 net.cpp:91] Creating Layer inception_5b/relu_3x3
I0403 21:40:03.089568 12404 net.cpp:425] inception_5b/relu_3x3 <- inception_5b/3x3
I0403 21:40:03.089586 12404 net.cpp:386] inception_5b/relu_3x3 -> inception_5b/3x3 (in-place)
I0403 21:40:03.089871 12404 net.cpp:141] Setting up inception_5b/relu_3x3
I0403 21:40:03.089896 12404 net.cpp:148] Top shape: 24 384 7 7 (451584)
I0403 21:40:03.089911 12404 net.cpp:156] Memory required for data: 1334273568
I0403 21:40:03.089926 12404 layer_factory.hpp:77] Creating layer inception_5b/5x5_reduce
I0403 21:40:03.089965 12404 net.cpp:91] Creating Layer inception_5b/5x5_reduce
I0403 21:40:03.089984 12404 net.cpp:425] inception_5b/5x5_reduce <- inception_5a/output_inception_5a/output_0_split_2
I0403 21:40:03.090003 12404 net.cpp:399] inception_5b/5x5_reduce -> inception_5b/5x5_reduce
I0403 21:40:03.091231 12404 net.cpp:141] Setting up inception_5b/5x5_reduce
I0403 21:40:03.091259 12404 net.cpp:148] Top shape: 24 48 7 7 (56448)
I0403 21:40:03.091276 12404 net.cpp:156] Memory required for data: 1334499360
I0403 21:40:03.091295 12404 layer_factory.hpp:77] Creating layer inception_5b/relu_5x5_reduce
I0403 21:40:03.091311 12404 net.cpp:91] Creating Layer inception_5b/relu_5x5_reduce
I0403 21:40:03.091326 12404 net.cpp:425] inception_5b/relu_5x5_reduce <- inception_5b/5x5_reduce
I0403 21:40:03.091344 12404 net.cpp:386] inception_5b/relu_5x5_reduce -> inception_5b/5x5_reduce (in-place)
I0403 21:40:03.091708 12404 net.cpp:141] Setting up inception_5b/relu_5x5_reduce
I0403 21:40:03.091734 12404 net.cpp:148] Top shape: 24 48 7 7 (56448)
I0403 21:40:03.091749 12404 net.cpp:156] Memory required for data: 1334725152
I0403 21:40:03.091763 12404 layer_factory.hpp:77] Creating layer inception_5b/5x5
I0403 21:40:03.091784 12404 net.cpp:91] Creating Layer inception_5b/5x5
I0403 21:40:03.091800 12404 net.cpp:425] inception_5b/5x5 <- inception_5b/5x5_reduce
I0403 21:40:03.091819 12404 net.cpp:399] inception_5b/5x5 -> inception_5b/5x5
I0403 21:40:03.093772 12404 net.cpp:141] Setting up inception_5b/5x5
I0403 21:40:03.093801 12404 net.cpp:148] Top shape: 24 128 7 7 (150528)
I0403 21:40:03.093817 12404 net.cpp:156] Memory required for data: 1335327264
I0403 21:40:03.093835 12404 layer_factory.hpp:77] Creating layer inception_5b/relu_5x5
I0403 21:40:03.093852 12404 net.cpp:91] Creating Layer inception_5b/relu_5x5
I0403 21:40:03.093868 12404 net.cpp:425] inception_5b/relu_5x5 <- inception_5b/5x5
I0403 21:40:03.093886 12404 net.cpp:386] inception_5b/relu_5x5 -> inception_5b/5x5 (in-place)
I0403 21:40:03.094074 12404 net.cpp:141] Setting up inception_5b/relu_5x5
I0403 21:40:03.094099 12404 net.cpp:148] Top shape: 24 128 7 7 (150528)
I0403 21:40:03.094112 12404 net.cpp:156] Memory required for data: 1335929376
I0403 21:40:03.094126 12404 layer_factory.hpp:77] Creating layer inception_5b/pool
I0403 21:40:03.094143 12404 net.cpp:91] Creating Layer inception_5b/pool
I0403 21:40:03.094159 12404 net.cpp:425] inception_5b/pool <- inception_5a/output_inception_5a/output_0_split_3
I0403 21:40:03.094178 12404 net.cpp:399] inception_5b/pool -> inception_5b/pool
I0403 21:40:03.094255 12404 net.cpp:141] Setting up inception_5b/pool
I0403 21:40:03.094279 12404 net.cpp:148] Top shape: 24 832 7 7 (978432)
I0403 21:40:03.094293 12404 net.cpp:156] Memory required for data: 1339843104
I0403 21:40:03.094307 12404 layer_factory.hpp:77] Creating layer inception_5b/pool_proj
I0403 21:40:03.094331 12404 net.cpp:91] Creating Layer inception_5b/pool_proj
I0403 21:40:03.094347 12404 net.cpp:425] inception_5b/pool_proj <- inception_5b/pool
I0403 21:40:03.094367 12404 net.cpp:399] inception_5b/pool_proj -> inception_5b/pool_proj
I0403 21:40:03.096560 12404 net.cpp:141] Setting up inception_5b/pool_proj
I0403 21:40:03.096590 12404 net.cpp:148] Top shape: 24 128 7 7 (150528)
I0403 21:40:03.096606 12404 net.cpp:156] Memory required for data: 1340445216
I0403 21:40:03.096624 12404 layer_factory.hpp:77] Creating layer inception_5b/relu_pool_proj
I0403 21:40:03.096642 12404 net.cpp:91] Creating Layer inception_5b/relu_pool_proj
I0403 21:40:03.096659 12404 net.cpp:425] inception_5b/relu_pool_proj <- inception_5b/pool_proj
I0403 21:40:03.096676 12404 net.cpp:386] inception_5b/relu_pool_proj -> inception_5b/pool_proj (in-place)
I0403 21:40:03.096959 12404 net.cpp:141] Setting up inception_5b/relu_pool_proj
I0403 21:40:03.096987 12404 net.cpp:148] Top shape: 24 128 7 7 (150528)
I0403 21:40:03.097003 12404 net.cpp:156] Memory required for data: 1341047328
I0403 21:40:03.097018 12404 layer_factory.hpp:77] Creating layer inception_5b/output
I0403 21:40:03.097034 12404 net.cpp:91] Creating Layer inception_5b/output
I0403 21:40:03.097064 12404 net.cpp:425] inception_5b/output <- inception_5b/1x1
I0403 21:40:03.097081 12404 net.cpp:425] inception_5b/output <- inception_5b/3x3
I0403 21:40:03.097097 12404 net.cpp:425] inception_5b/output <- inception_5b/5x5
I0403 21:40:03.097113 12404 net.cpp:425] inception_5b/output <- inception_5b/pool_proj
I0403 21:40:03.097131 12404 net.cpp:399] inception_5b/output -> inception_5b/output
I0403 21:40:03.097182 12404 net.cpp:141] Setting up inception_5b/output
I0403 21:40:03.097204 12404 net.cpp:148] Top shape: 24 1024 7 7 (1204224)
I0403 21:40:03.097225 12404 net.cpp:156] Memory required for data: 1345864224
I0403 21:40:03.097239 12404 layer_factory.hpp:77] Creating layer pool5/7x7_s1
I0403 21:40:03.097259 12404 net.cpp:91] Creating Layer pool5/7x7_s1
I0403 21:40:03.097275 12404 net.cpp:425] pool5/7x7_s1 <- inception_5b/output
I0403 21:40:03.097292 12404 net.cpp:399] pool5/7x7_s1 -> pool5/7x7_s1
I0403 21:40:03.097498 12404 net.cpp:141] Setting up pool5/7x7_s1
I0403 21:40:03.097525 12404 net.cpp:148] Top shape: 24 1024 1 1 (24576)
I0403 21:40:03.097542 12404 net.cpp:156] Memory required for data: 1345962528
I0403 21:40:03.097555 12404 layer_factory.hpp:77] Creating layer pool5/drop_7x7_s1
I0403 21:40:03.097573 12404 net.cpp:91] Creating Layer pool5/drop_7x7_s1
I0403 21:40:03.097589 12404 net.cpp:425] pool5/drop_7x7_s1 <- pool5/7x7_s1
I0403 21:40:03.097604 12404 net.cpp:386] pool5/drop_7x7_s1 -> pool5/7x7_s1 (in-place)
I0403 21:40:03.097653 12404 net.cpp:141] Setting up pool5/drop_7x7_s1
I0403 21:40:03.097676 12404 net.cpp:148] Top shape: 24 1024 1 1 (24576)
I0403 21:40:03.097689 12404 net.cpp:156] Memory required for data: 1346060832
I0403 21:40:03.097704 12404 layer_factory.hpp:77] Creating layer loss3/classifier_plantvillage
I0403 21:40:03.097724 12404 net.cpp:91] Creating Layer loss3/classifier_plantvillage
I0403 21:40:03.097740 12404 net.cpp:425] loss3/classifier_plantvillage <- pool5/7x7_s1
I0403 21:40:03.097759 12404 net.cpp:399] loss3/classifier_plantvillage -> loss3/classifier_plantvillage
I0403 21:40:03.098161 12404 net.cpp:141] Setting up loss3/classifier_plantvillage
I0403 21:40:03.098197 12404 net.cpp:148] Top shape: 24 38 (912)
I0403 21:40:03.098217 12404 net.cpp:156] Memory required for data: 1346064480
I0403 21:40:03.098235 12404 layer_factory.hpp:77] Creating layer loss3/classifier_plantvillage_loss3/classifier_plantvillage_0_split
I0403 21:40:03.098254 12404 net.cpp:91] Creating Layer loss3/classifier_plantvillage_loss3/classifier_plantvillage_0_split
I0403 21:40:03.098270 12404 net.cpp:425] loss3/classifier_plantvillage_loss3/classifier_plantvillage_0_split <- loss3/classifier_plantvillage
I0403 21:40:03.098292 12404 net.cpp:399] loss3/classifier_plantvillage_loss3/classifier_plantvillage_0_split -> loss3/classifier_plantvillage_loss3/classifier_plantvillage_0_split_0
I0403 21:40:03.098314 12404 net.cpp:399] loss3/classifier_plantvillage_loss3/classifier_plantvillage_0_split -> loss3/classifier_plantvillage_loss3/classifier_plantvillage_0_split_1
I0403 21:40:03.098333 12404 net.cpp:399] loss3/classifier_plantvillage_loss3/classifier_plantvillage_0_split -> loss3/classifier_plantvillage_loss3/classifier_plantvillage_0_split_2
I0403 21:40:03.098353 12404 net.cpp:399] loss3/classifier_plantvillage_loss3/classifier_plantvillage_0_split -> loss3/classifier_plantvillage_loss3/classifier_plantvillage_0_split_3
I0403 21:40:03.098460 12404 net.cpp:141] Setting up loss3/classifier_plantvillage_loss3/classifier_plantvillage_0_split
I0403 21:40:03.098495 12404 net.cpp:148] Top shape: 24 38 (912)
I0403 21:40:03.098511 12404 net.cpp:148] Top shape: 24 38 (912)
I0403 21:40:03.098526 12404 net.cpp:148] Top shape: 24 38 (912)
I0403 21:40:03.098541 12404 net.cpp:148] Top shape: 24 38 (912)
I0403 21:40:03.098554 12404 net.cpp:156] Memory required for data: 1346079072
I0403 21:40:03.098568 12404 layer_factory.hpp:77] Creating layer loss1/loss
I0403 21:40:03.098590 12404 net.cpp:91] Creating Layer loss1/loss
I0403 21:40:03.098608 12404 net.cpp:425] loss1/loss <- loss1/classifier_plantvillage_loss1/classifier_plantvillage_0_split_0
I0403 21:40:03.098636 12404 net.cpp:425] loss1/loss <- label_data_1_split_0
…
