…
I0403 21:47:50.733746 12859 net.cpp:313] The NetState phase (1) differed from the phase (0) specified by a rule in layer data
I0403 21:47:50.734992 12859 net.cpp:49] Initializing net from parameters: 
state {
  phase: TEST
}
layer {
  name: "data"
  type: "Data"
  top: "data"
  top: "label"
  include {
    phase: TEST
  }
  transform_param {
    mirror: false
    crop_size: 224
    mean_file: "/home/mohanty/data/final_dataset/lmdb/color-80-20/mean.binaryproto"
  }
  data_param {
    source: "/home/mohanty/data/final_dataset/lmdb/color-80-20/test_db"
    batch_size: 24
    backend: LMDB
  }
}
layer {
  name: "conv1/7x7_s2"
  type: "Convolution"
  bottom: "data"
  top: "conv1/7x7_s2"
  param {
    lr_mult: 1
    decay_mult: 1
  }
  param {
    lr_mult: 2
    decay_mult: 0
  }
  convolution_param {
    num_output: 64
    pad: 3
    kernel_size: 7
    stride: 2
    weight_filler {
      type: "xavier"
      std: 0.1
    }
    bias_filler {
      type: "constant"
      value: 0.2
    }
  }
}
layer {
  name: "conv1/relu_7x7"
  type: "ReLU"
  bottom: "conv1/7x7_s2"
  top: "conv1/7x7_s2"
}
layer {
  name: "pool1/3x3_s2"
  type: "Pooling"
  bottom: "conv1/7x7_s2"
  top: "pool1/3x3_s2"
  pooling_param {
    pool: MAX
    kernel_size: 3
    stride: 2
  }
}
layer {
  name: "pool1/norm1"
  type: "LRN"
  bottom: "pool1/3x3_s2"
  top: "pool1/norm1"
  lrn_param {
    local_size: 5
    alpha: 0.0001
    beta: 0.75
  }
}
layer {
  name: "conv2/3x3_reduce"
  type: "Convolution"
  bottom: "pool1/norm1"
  top: "conv2/3x3_reduce"
  param {
    lr_mult: 1
    decay_mult: 1
  }
  param {
    lr_mult: 2
    decay_mult: 0
  }
  convolution_param {
    num_output: 64
    kernel_size: 1
    weight_filler {
      type: "xavier"
      std: 0.1
    }
    bias_filler {
      type: "constant"
      value: 0.2
    }
  }
}
layer {
  name: "conv2/relu_3x3_reduce"
  type: "ReLU"
  bottom: "conv2/3x3_reduce"
  top: "conv2/3x3_reduce"
}
layer {
  name: "conv2/3x3"
  type: "Convolution"
  bottom: "conv2/3x3_reduce"
  top: "conv2/3x3"
  param {
    lr_mult: 1
    decay_mult: 1
  }
  param {
    lr_mult: 2
    decay_mult: 0
  }
  convolution_param {
    num_output: 192
    pad: 1
    kernel_size: 3
    weight_filler {
      type: "xavier"
      std: 0.03
    }
    bias_filler {
      type: "constant"
      value: 0.2
    }
  }
}
layer {
  name: "conv2/relu_3x3"
  type: "ReLU"
  bottom: "conv2/3x3"
  top: "conv2/3x3"
}
layer {
  name: "conv2/norm2"
  type: "LRN"
  bottom: "conv2/3x3"
  top: "conv2/norm2"
  lrn_param {
    local_size: 5
    alpha: 0.0001
    beta: 0.75
  }
}
layer {
  name: "pool2/3x3_s2"
  type: "Pooling"
  bottom: "conv2/norm2"
  top: "pool2/3x3_s2"
  pooling_param {
    pool: MAX
    kernel_size: 3
    stride: 2
  }
}
layer {
  name: "inception_3a/1x1"
  type: "Convolution"
  bottom: "pool2/3x3_s2"
  top: "inception_3a/1x1"
  param {
    lr_mult: 1
    decay_mult: 1
  }
  param {
    lr_mult: 2
    decay_mult: 0
  }
  convolution_param {
    num_output: 64
    kernel_size: 1
    weight_filler {
      type: "xavier"
      std: 0.03
    }
    bias_filler {
      type: "constant"
      value: 0.2
    }
  }
}
layer {
  name: "inception_3a/relu_1x1"
  type: "ReLU"
  bottom: "inception_3a/1x1"
  top: "inception_3a/1x1"
}
layer {
  name: "inception_3a/3x3_reduce"
  type: "Convolution"
  bottom: "pool2/3x3_s2"
  top: "inception_3a/3x3_reduce"
  param {
    lr_mult: 1
    decay_mult: 1
  }
  param {
    lr_mult: 2
    decay_mult: 0
  }
  convolution_param {
    num_output: 96
    kernel_size: 1
    weight_filler {
      type: "xavier"
      std: 0.09
    }
    bias_filler {
      type: "constant"
      value: 0.2
    }
  }
}
layer {
  name: "inception_3a/relu_3x3_reduce"
  type: "ReLU"
  bottom: "inception_3a/3x3_reduce"
  top: "inception_3a/3x3_reduce"
}
layer {
  name: "inception_3a/3x3"
  type: "Convolution"
  bottom: "inception_3a/3x3_reduce"
  top: "inception_3a/3x3"
  param {
    lr_mult: 1
    decay_mult: 1
  }
  param {
    lr_mult: 2
    decay_mult: 0
  }
  convolution_param {
    num_output: 128
    pad: 1
    kernel_size: 3
    weight_filler {
      type: "xavier"
      std: 0.03
    }
    bias_filler {
      type: "constant"
      value: 0.2
    }
  }
}
layer {
  name: "inception_3a/relu_3x3"
  type: "ReLU"
  bottom: "inception_3a/3x3"
  top: "inception_3a/3x3"
}
layer {
  name: "inception_3a/5x5_reduce"
  type: "Convolution"
  bottom: "pool2/3x3_s2"
  top: "inception_3a/5x5_reduce"
  param {
    lr_mult: 1
    decay_mult: 1
  }
  param {
    lr_mult: 2
    decay_mult: 0
  }
  convolution_param {
    num_output: 16
    kernel_size: 1
    weight_filler {
      type: "xavier"
      std: 0.2
    }
    bias_filler {
      type: "constant"
      value: 0.2
    }
  }
}
layer {
  name: "inception_3a/relu_5x5_reduce"
  type: "ReLU"
  bottom: "inception_3a/5x5_reduce"
  top: "inception_3a/5x5_reduce"
}
layer {
  name: "inception_3a/5x5"
  type: "Convolution"
  bottom: "inception_3a/5x5_reduce"
  top: "inception_3a/5x5"
  param {
    lr_mult: 1
    decay_mult: 1
  }
  param {
    lr_mult: 2
    decay_mult: 0
  }
  convolution_param {
    num_output: 32
    pad: 2
    kernel_size: 5
    weight_filler {
      type: "xavier"
      std: 0.03
    }
    bias_filler {
      type: "constant"
      value: 0.2
    }
  }
}
layer {
  name: "inception_3a/relu_5x5"
  type: "ReLU"
  bottom: "inception_3a/5x5"
  top: "inception_3a/5x5"
}
layer {
  name: "inception_3a/pool"
  type: "Pooling"
  bottom: "pool2/3x3_s2"
  top: "inception_3a/pool"
  pooling_param {
    pool: MAX
    kernel_size: 3
    stride: 1
    pad: 1
  }
}
layer {
  name: "inception_3a/pool_proj"
  type: "Convolution"
  bottom: "inception_3a/pool"
  top: "inception_3a/pool_proj"
  param {
    lr_mult: 1
    decay_mult: 1
  }
  param {
    lr_mult: 2
    decay_mult: 0
  }
  convolution_param {
    num_output: 32
    kernel_size: 1
    weight_filler {
      type: "xavier"
      std: 0.1
    }
    bias_filler {
      type: "constant"
      value: 0.2
    }
  }
}
layer {
  name: "inception_3a/relu_pool_proj"
  type: "ReLU"
  bottom: "inception_3a/pool_proj"
  top: "inception_3a/pool_proj"
}
layer {
  name: "inception_3a/output"
  type: "Concat"
  bottom: "inception_3a/1x1"
  bottom: "inception_3a/3x3"
  bottom: "inception_3a/5x5"
  bottom: "inception_3a/pool_proj"
  top: "inception_3a/output"
}
layer {
  name: "inception_3b/1x1"
  type: "Convolution"
  bottom: "inception_3a/output"
  top: "inception_3b/1x1"
  param {
    lr_mult: 1
    decay_mult: 1
  }
  param {
    lr_mult: 2
    decay_mult: 0
  }
  convolution_param {
    num_output: 128
    kernel_size: 1
    weight_filler {
      type: "xavier"
      std: 0.03
    }
    bias_filler {
      type: "constant"
      value: 0.2
    }
  }
}
layer {
  name: "inception_3b/relu_1x1"
  type: "ReLU"
  bottom: "inception_3b/1x1"
  top: "inception_3b/1x1"
}
layer {
  name: "inception_3b/3x3_reduce"
  type: "Convolution"
  bottom: "inception_3a/output"
  top: "inception_3b/3x3_reduce"
  param {
    lr_mult: 1
    decay_mult: 1
  }
  param {
    lr_mult: 2
    decay_mult: 0
  }
  convolution_param {
    num_output: 128
    kernel_size: 1
    weight_filler {
      type: "xavier"
      std: 0.09
    }
    bias_filler {
      type: "constant"
      value: 0.2
    }
  }
}
layer {
  name: "inception_3b/relu_3x3_reduce"
  type: "ReLU"
  bottom: "inception_3b/3x3_reduce"
  top: "inception_3b/3x3_reduce"
}
layer {
  name: "inception_3b/3x3"
  type: "Convolution"
  bottom: "inception_3b/3x3_reduce"
  top: "inception_3b/3x3"
  param {
    lr_mult: 1
    decay_mult: 1
  }
  param {
    lr_mult: 2
    decay_mult: 0
  }
  convolution_param {
    num_output: 192
    pad: 1
    kernel_size: 3
    weight_filler {
      type: "xavier"
      std: 0.03
    }
    bias_filler {
      type: "constant"
      value: 0.2
    }
  }
}
layer {
  name: "inception_3b/relu_3x3"
  type: "ReLU"
  bottom: "inception_3b/3x3"
  top: "inception_3b/3x3"
}
layer {
  name: "inception_3b/5x5_reduce"
  type: "Convolution"
  bottom: "inception_3a/output"
  top: "inception_3b/5x5_reduce"
  param {
    lr_mult: 1
    decay_mult: 1
  }
  param {
    lr_mult: 2
    decay_mult: 0
  }
  convolution_param {
    num_output: 32
    kernel_size: 1
    weight_filler {
      type: "xavier"
      std: 0.2
    }
    bias_filler {
      type: "constant"
      value: 0.2
    }
  }
}
layer {
  name: "inception_3b/relu_5x5_reduce"
  type: "ReLU"
  bottom: "inception_3b/5x5_reduce"
  top: "inception_3b/5x5_reduce"
}
layer {
  name: "inception_3b/5x5"
  type: "Convolution"
  bottom: "inception_3b/5x5_reduce"
  top: "inception_3b/5x5"
  param {
    lr_mult: 1
    decay_mult: 1
  }
  param {
    lr_mult: 2
    decay_mult: 0
  }
  convolution_param {
    num_output: 96
    pad: 2
    kernel_size: 5
    weight_filler {
      type: "xavier"
      std: 0.03
    }
    bias_filler {
      type: "constant"
      value: 0.2
    }
  }
}
layer {
  name: "inception_3b/relu_5x5"
  type: "ReLU"
  bottom: "inception_3b/5x5"
  top: "inception_3b/5x5"
}
layer {
  name: "inception_3b/pool"
  type: "Pooling"
  bottom: "inception_3a/output"
  top: "inception_3b/pool"
  pooling_param {
    pool: MAX
    kernel_size: 3
    stride: 1
    pad: 1
  }
}
layer {
  name: "inception_3b/pool_proj"
  type: "Convolution"
  bottom: "inception_3b/pool"
  top: "inception_3b/pool_proj"
  param {
    lr_mult: 1
    decay_mult: 1
  }
  param {
    lr_mult: 2
    decay_mult: 0
  }
  convolution_param {
    num_output: 64
    kernel_size: 1
    weight_filler {
      type: "xavier"
      std: 0.1
    }
    bias_filler {
      type: "constant"
      value: 0.2
    }
  }
}
layer {
  name: "inception_3b/relu_pool_proj"
  type: "ReLU"
  bottom: "inception_3b/pool_proj"
  top: "inception_3b/pool_proj"
}
layer {
  name: "inception_3b/output"
  type: "Concat"
  bottom: "inception_3b/1x1"
  bottom: "inception_3b/3x3"
  bottom: "inception_3b/5x5"
  bottom: "inception_3b/pool_proj"
  top: "inception_3b/output"
}
layer {
  name: "pool3/3x3_s2"
  type: "Pooling"
  bottom: "inception_3b/output"
  top: "pool3/3x3_s2"
  pooling_param {
    pool: MAX
    kernel_size: 3
    stride: 2
  }
}
layer {
  name: "inception_4a/1x1"
  type: "Convolution"
  bottom: "pool3/3x3_s2"
  top: "inception_4a/1x1"
  param {
    lr_mult: 1
    decay_mult: 1
  }
  param {
    lr_mult: 2
    decay_mult: 0
  }
  convolution_param {
    num_output: 192
    kernel_size: 1
    weight_filler {
      type: "xavier"
      std: 0.03
    }
    bias_filler {
      type: "constant"
      value: 0.2
    }
  }
}
layer {
  name: "inception_4a/relu_1x1"
  type: "ReLU"
  bottom: "inception_4a/1x1"
  top: "inception_4a/1x1"
}
layer {
  name: "inception_4a/3x3_reduce"
  type: "Convolution"
  bottom: "pool3/3x3_s2"
  top: "inception_4a/3x3_reduce"
  param {
    lr_mult: 1
    decay_mult: 1
  }
  param {
    lr_mult: 2
    decay_mult: 0
  }
  convolution_param {
    num_output: 96
    kernel_size: 1
    weight_filler {
      type: "xavier"
      std: 0.09
    }
    bias_filler {
      type: "constant"
      value: 0.2
    }
  }
}
layer {
  name: "inception_4a/relu_3x3_reduce"
  type: "ReLU"
  bottom: "inception_4a/3x3_reduce"
  top: "inception_4a/3x3_reduce"
}
layer {
  name: "inception_4a/3x3"
  type: "Convolution"
  bottom: "inception_4a/3x3_reduce"
  top: "inception_4a/3x3"
  param {
    lr_mult: 1
    decay_mult: 1
  }
  param {
    lr_mult: 2
    decay_mult: 0
  }
  convolution_param {
    num_output: 208
    pad: 1
    kernel_size: 3
    weight_filler {
      type: "xavier"
      std: 0.03
    }
    bias_filler {
      type: "constant"
      value: 0.2
    }
  }
}
layer {
  name: "inception_4a/relu_3x3"
  type: "ReLU"
  bottom: "inception_4a/3x3"
  top: "inception_4a/3x3"
}
layer {
  name: "inception_4a/5x5_reduce"
  type: "Convolution"
  bottom: "pool3/3x3_s2"
  top: "inception_4a/5x5_reduce"
  param {
    lr_mult: 1
    decay_mult: 1
  }
  param {
    lr_mult: 2
    decay_mult: 0
  }
  convolution_param {
    num_output: 16
    kernel_size: 1
    weight_filler {
      type: "xavier"
      std: 0.2
    }
    bias_filler {
      type: "constant"
      value: 0.2
    }
  }
}
layer {
  name: "inception_4a/relu_5x5_reduce"
  type: "ReLU"
  bottom: "inception_4a/5x5_reduce"
  top: "inception_4a/5x5_reduce"
}
layer {
  name: "inception_4a/5x5"
  type: "Convolution"
  bottom: "inception_4a/5x5_reduce"
  top: "inception_4a/5x5"
  param {
    lr_mult: 1
    decay_mult: 1
  }
  param {
    lr_mult: 2
    decay_mult: 0
  }
  convolution_param {
    num_output: 48
    pad: 2
    kernel_size: 5
    weight_filler {
      type: "xavier"
      std: 0.03
    }
    bias_filler {
      type: "constant"
      value: 0.2
    }
  }
}
layer {
  name: "inception_4a/relu_5x5"
  type: "ReLU"
  bottom: "inception_4a/5x5"
  top: "inception_4a/5x5"
}
layer {
  name: "inception_4a/pool"
  type: "Pooling"
  bottom: "pool3/3x3_s2"
  top: "inception_4a/pool"
  pooling_param {
    pool: MAX
    kernel_size: 3
    stride: 1
    pad: 1
  }
}
layer {
  name: "inception_4a/pool_proj"
  type: "Convolution"
  bottom: "inception_4a/pool"
  top: "inception_4a/pool_proj"
  param {
    lr_mult: 1
    decay_mult: 1
  }
  param {
    lr_mult: 2
    decay_mult: 0
  }
  convolution_param {
    num_output: 64
    kernel_size: 1
    weight_filler {
      type: "xavier"
      std: 0.1
    }
    bias_filler {
      type: "constant"
      value: 0.2
    }
  }
}
layer {
  name: "inception_4a/relu_pool_proj"
  type: "ReLU"
  bottom: "inception_4a/pool_proj"
  top: "inception_4a/pool_proj"
}
layer {
  name: "inception_4a/output"
  type: "Concat"
  bottom: "inception_4a/1x1"
  bottom: "inception_4a/3x3"
  bottom: "inception_4a/5x5"
  bottom: "inception_4a/pool_proj"
  top: "inception_4a/output"
}
layer {
  name: "loss1/ave_pool"
  type: "Pooling"
  bottom: "inception_4a/output"
  top: "loss1/ave_pool"
  pooling_param {
    pool: AVE
    kernel_size: 5
    stride: 3
  }
}
layer {
  name: "loss1/conv"
  type: "Convolution"
  bottom: "loss1/ave_pool"
  top: "loss1/conv"
  param {
    lr_mult: 1
    decay_mult: 1
  }
  param {
    lr_mult: 2
    decay_mult: 0
  }
  convolution_param {
    num_output: 128
    kernel_size: 1
    weight_filler {
      type: "xavier"
      std: 0.08
    }
    bias_filler {
      type: "constant"
      value: 0.2
    }
  }
}
layer {
  name: "loss1/relu_conv"
  type: "ReLU"
  bottom: "loss1/conv"
  top: "loss1/conv"
}
layer {
  name: "loss1/fc"
  type: "InnerProduct"
  bottom: "loss1/conv"
  top: "loss1/fc"
  param {
    lr_mult: 1
    decay_mult: 1
  }
  param {
    lr_mult: 2
    decay_mult: 0
  }
  inner_product_param {
    num_output: 1024
    weight_filler {
      type: "xavier"
      std: 0.02
    }
    bias_filler {
      type: "constant"
      value: 0.2
    }
  }
}
layer {
  name: "loss1/relu_fc"
  type: "ReLU"
  bottom: "loss1/fc"
  top: "loss1/fc"
}
layer {
  name: "loss1/drop_fc"
  type: "Dropout"
  bottom: "loss1/fc"
  top: "loss1/fc"
  dropout_param {
    dropout_ratio: 0.7
  }
}
layer {
  name: "loss1/classifier_plantvillage"
  type: "InnerProduct"
  bottom: "loss1/fc"
  top: "loss1/classifier_plantvillage"
  param {
    lr_mult: 1
    decay_mult: 1
  }
  param {
    lr_mult: 2
    decay_mult: 0
  }
  inner_product_param {
    num_output: 38
    weight_filler {
      type: "xavier"
      std: 0.0009765625
    }
    bias_filler {
      type: "constant"
      value: 0
    }
  }
}
layer {
  name: "inception_4b/1x1"
  type: "Convolution"
  bottom: "inception_4a/output"
  top: "inception_4b/1x1"
  param {
    lr_mult: 1
    decay_mult: 1
  }
  param {
    lr_mult: 2
    decay_mult: 0
  }
  convolution_param {
    num_output: 160
    kernel_size: 1
    weight_filler {
      type: "xavier"
      std: 0.03
    }
    bias_filler {
      type: "constant"
      value: 0.2
    }
  }
}
layer {
  name: "inception_4b/relu_1x1"
  type: "ReLU"
  bottom: "inception_4b/1x1"
  top: "inception_4b/1x1"
}
layer {
  name: "inception_4b/3x3_reduce"
  type: "Convolution"
  bottom: "inception_4a/output"
  top: "inception_4b/3x3_reduce"
  param {
    lr_mult: 1
    decay_mult: 1
  }
  param {
    lr_mult: 2
    decay_mult: 0
  }
  convolution_param {
    num_output: 112
    kernel_size: 1
    weight_filler {
      type: "xavier"
      std: 0.09
    }
    bias_filler {
      type: "constant"
      value: 0.2
    }
  }
}
layer {
  name: "inception_4b/relu_3x3_reduce"
  type: "ReLU"
  bottom: "inception_4b/3x3_reduce"
  top: "inception_4b/3x3_reduce"
}
layer {
  name: "inception_4b/3x3"
  type: "Convolution"
  bottom: "inception_4b/3x3_reduce"
  top: "inception_4b/3x3"
  param {
    lr_mult: 1
    decay_mult: 1
  }
  param {
    lr_mult: 2
    decay_mult: 0
  }
  convolution_param {
    num_output: 224
    pad: 1
    kernel_size: 3
    weight_filler {
      type: "xavier"
      std: 0.03
    }
    bias_filler {
      type: "constant"
      value: 0.2
    }
  }
}
layer {
  name: "inception_4b/relu_3x3"
  type: "ReLU"
  bottom: "inception_4b/3x3"
  top: "inception_4b/3x3"
}
layer {
  name: "inception_4b/5x5_reduce"
  type: "Convolution"
  bottom: "inception_4a/output"
  top: "inception_4b/5x5_reduce"
  param {
    lr_mult: 1
    decay_mult: 1
  }
  param {
    lr_mult: 2
    decay_mult: 0
  }
  convolution_param {
    num_output: 24
    kernel_size: 1
    weight_filler {
      type: "xavier"
      std: 0.2
    }
    bias_filler {
      type: "constant"
      value: 0.2
    }
  }
}
layer {
  name: "inception_4b/relu_5x5_reduce"
  type: "ReLU"
  bottom: "inception_4b/5x5_reduce"
  top: "inception_4b/5x5_reduce"
}
layer {
  name: "inception_4b/5x5"
  type: "Convolution"
  bottom: "inception_4b/5x5_reduce"
  top: "inception_4b/5x5"
  param {
    lr_mult: 1
    decay_mult: 1
  }
  param {
    lr_mult: 2
    decay_mult: 0
  }
  convolution_param {
    num_output: 64
    pad: 2
    kernel_size: 5
    weight_filler {
      type: "xavier"
      std: 0.03
    }
    bias_filler {
      type: "constant"
      value: 0.2
    }
  }
}
layer {
  name: "inception_4b/relu_5x5"
  type: "ReLU"
  bottom: "inception_4b/5x5"
  top: "inception_4b/5x5"
}
layer {
  name: "inception_4b/pool"
  type: "Pooling"
  bottom: "inception_4a/output"
  top: "inception_4b/pool"
  pooling_param {
    pool: MAX
    kernel_size: 3
    stride: 1
    pad: 1
  }
}
layer {
  name: "inception_4b/pool_proj"
  type: "Convolution"
  bottom: "inception_4b/pool"
  top: "inception_4b/pool_proj"
  param {
    lr_mult: 1
    decay_mult: 1
  }
  param {
    lr_mult: 2
    decay_mult: 0
  }
  convolution_param {
    num_output: 64
    kernel_size: 1
    weight_filler {
      type: "xavier"
      std: 0.1
    }
    bias_filler {
      type: "constant"
      value: 0.2
    }
  }
}
layer {
  name: "inception_4b/relu_pool_proj"
  type: "ReLU"
  bottom: "inception_4b/pool_proj"
  top: "inception_4b/pool_proj"
}
layer {
  name: "inception_4b/output"
  type: "Concat"
  bottom: "inception_4b/1x1"
  bottom: "inception_4b/3x3"
  bottom: "inception_4b/5x5"
  bottom: "inception_4b/pool_proj"
  top: "inception_4b/output"
}
layer {
  name: "inception_4c/1x1"
  type: "Convolution"
  bottom: "inception_4b/output"
  top: "inception_4c/1x1"
  param {
    lr_mult: 1
    decay_mult: 1
  }
  param {
    lr_mult: 2
    decay_mult: 0
  }
  convolution_param {
    num_output: 128
    kernel_size: 1
    weight_filler {
      type: "xavier"
      std: 0.03
    }
    bias_filler {
      type: "constant"
      value: 0.2
    }
  }
}
layer {
  name: "inception_4c/relu_1x1"
  type: "ReLU"
  bottom: "inception_4c/1x1"
  top: "inception_4c/1x1"
}
layer {
  name: "inception_4c/3x3_reduce"
  type: "Convolution"
  bottom: "inception_4b/output"
  top: "inception_4c/3x3_reduce"
  param {
    lr_mult: 1
    decay_mult: 1
  }
  param {
    lr_mult: 2
    decay_mult: 0
  }
  convolution_param {
    num_output: 128
    kernel_size: 1
    weight_filler {
      type: "xavier"
      std: 0.09
    }
    bias_filler {
      type: "constant"
      value: 0.2
    }
  }
}
layer {
  name: "inception_4c/relu_3x3_reduce"
  type: "ReLU"
  bottom: "inception_4c/3x3_reduce"
  top: "inception_4c/3x3_reduce"
}
layer {
  name: "inception_4c/3x3"
  type: "Convolution"
  bottom: "inception_4c/3x3_reduce"
  top: "inception_4c/3x3"
  param {
    lr_mult: 1
    decay_mult: 1
  }
  param {
    lr_mult: 2
    decay_mult: 0
  }
  convolution_param {
    num_output: 256
    pad: 1
    kernel_size: 3
    weight_filler {
      type: "xavier"
      std: 0.03
    }
    bias_filler {
      type: "constant"
      value: 0.2
    }
  }
}
layer {
  name: "inception_4c/relu_3x3"
  type: "ReLU"
  bottom: "inception_4c/3x3"
  top: "inception_4c/3x3"
}
layer {
  name: "inception_4c/5x5_reduce"
  type: "Convolution"
  bottom: "inception_4b/output"
  top: "inception_4c/5x5_reduce"
  param {
    lr_mult: 1
    decay_mult: 1
  }
  param {
    lr_mult: 2
    decay_mult: 0
  }
  convolution_param {
    num_output: 24
    kernel_size: 1
    weight_filler {
      type: "xavier"
      std: 0.2
    }
    bias_filler {
      type: "constant"
      value: 0.2
    }
  }
}
layer {
  name: "inception_4c/relu_5x5_reduce"
  type: "ReLU"
  bottom: "inception_4c/5x5_reduce"
  top: "inception_4c/5x5_reduce"
}
layer {
  name: "inception_4c/5x5"
  type: "Convolution"
  bottom: "inception_4c/5x5_reduce"
  top: "inception_4c/5x5"
  param {
    lr_mult: 1
    decay_mult: 1
  }
  param {
    lr_mult: 2
    decay_mult: 0
  }
  convolution_param {
    num_output: 64
    pad: 2
    kernel_size: 5
    weight_filler {
      type: "xavier"
      std: 0.03
    }
    bias_filler {
      type: "constant"
      value: 0.2
    }
  }
}
layer {
  name: "inception_4c/relu_5x5"
  type: "ReLU"
  bottom: "inception_4c/5x5"
  top: "inception_4c/5x5"
}
layer {
  name: "inception_4c/pool"
  type: "Pooling"
  bottom: "inception_4b/output"
  top: "inception_4c/pool"
  pooling_param {
    pool: MAX
    kernel_size: 3
    stride: 1
    pad: 1
  }
}
layer {
  name: "inception_4c/pool_proj"
  type: "Convolution"
  bottom: "inception_4c/pool"
  top: "inception_4c/pool_proj"
  param {
    lr_mult: 1
    decay_mult: 1
  }
  param {
    lr_mult: 2
    decay_mult: 0
  }
  convolution_param {
    num_output: 64
    kernel_size: 1
    weight_filler {
      type: "xavier"
      std: 0.1
    }
    bias_filler {
      type: "constant"
      value: 0.2
    }
  }
}
layer {
  name: "inception_4c/relu_pool_proj"
  type: "ReLU"
  bottom: "inception_4c/pool_proj"
  top: "inception_4c/pool_proj"
}
layer {
  name: "inception_4c/output"
  type: "Concat"
  bottom: "inception_4c/1x1"
  bottom: "inception_4c/3x3"
  bottom: "inception_4c/5x5"
  bottom: "inception_4c/pool_proj"
  top: "inception_4c/output"
}
layer {
  name: "inception_4d/1x1"
  type: "Convolution"
  bottom: "inception_4c/output"
  top: "inception_4d/1x1"
  param {
    lr_mult: 1
    decay_mult: 1
  }
  param {
    lr_mult: 2
    decay_mult: 0
  }
  convolution_param {
    num_output: 112
    kernel_size: 1
    weight_filler {
      type: "xavier"
      std: 0.03
    }
    bias_filler {
      type: "constant"
      value: 0.2
    }
  }
}
layer {
  name: "inception_4d/relu_1x1"
  type: "ReLU"
  bottom: "inception_4d/1x1"
  top: "inception_4d/1x1"
}
layer {
  name: "inception_4d/3x3_reduce"
  type: "Convolution"
  bottom: "inception_4c/output"
  top: "inception_4d/3x3_reduce"
  param {
    lr_mult: 1
    decay_mult: 1
  }
  param {
    lr_mult: 2
    decay_mult: 0
  }
  convolution_param {
    num_output: 144
    kernel_size: 1
    weight_filler {
      type: "xavier"
      std: 0.09
    }
    bias_filler {
      type: "constant"
      value: 0.2
    }
  }
}
layer {
  name: "inception_4d/relu_3x3_reduce"
  type: "ReLU"
  bottom: "inception_4d/3x3_reduce"
  top: "inception_4d/3x3_reduce"
}
layer {
  name: "inception_4d/3x3"
  type: "Convolution"
  bottom: "inception_4d/3x3_reduce"
  top: "inception_4d/3x3"
  param {
    lr_mult: 1
    decay_mult: 1
  }
  param {
    lr_mult: 2
    decay_mult: 0
  }
  convolution_param {
    num_output: 288
    pad: 1
    kernel_size: 3
    weight_filler {
      type: "xavier"
      std: 0.03
    }
    bias_filler {
      type: "constant"
      value: 0.2
    }
  }
}
layer {
  name: "inception_4d/relu_3x3"
  type: "ReLU"
  bottom: "inception_4d/3x3"
  top: "inception_4d/3x3"
}
layer {
  name: "inception_4d/5x5_reduce"
  type: "Convolution"
  bottom: "inception_4c/output"
  top: "inception_4d/5x5_reduce"
  param {
    lr_mult: 1
    decay_mult: 1
  }
  param {
    lr_mult: 2
    decay_mult: 0
  }
  convolution_param {
    num_output: 32
    kernel_size: 1
    weight_filler {
      type: "xavier"
      std: 0.2
    }
    bias_filler {
      type: "constant"
      value: 0.2
    }
  }
}
layer {
  name: "inception_4d/relu_5x5_reduce"
  type: "ReLU"
  bottom: "inception_4d/5x5_reduce"
  top: "inception_4d/5x5_reduce"
}
layer {
  name: "inception_4d/5x5"
  type: "Convolution"
  bottom: "inception_4d/5x5_reduce"
  top: "inception_4d/5x5"
  param {
    lr_mult: 1
    decay_mult: 1
  }
  param {
    lr_mult: 2
    decay_mult: 0
  }
  convolution_param {
    num_output: 64
    pad: 2
    kernel_size: 5
    weight_filler {
      type: "xavier"
      std: 0.03
    }
    bias_filler {
      type: "constant"
      value: 0.2
    }
  }
}
layer {
  name: "inception_4d/relu_5x5"
  type: "ReLU"
  bottom: "inception_4d/5x5"
  top: "inception_4d/5x5"
}
layer {
  name: "inception_4d/pool"
  type: "Pooling"
  bottom: "inception_4c/output"
  top: "inception_4d/pool"
  pooling_param {
    pool: MAX
    kernel_size: 3
    stride: 1
    pad: 1
  }
}
layer {
  name: "inception_4d/pool_proj"
  type: "Convolution"
  bottom: "inception_4d/pool"
  top: "inception_4d/pool_proj"
  param {
    lr_mult: 1
    decay_mult: 1
  }
  param {
    lr_mult: 2
    decay_mult: 0
  }
  convolution_param {
    num_output: 64
    kernel_size: 1
    weight_filler {
      type: "xavier"
      std: 0.1
    }
    bias_filler {
      type: "constant"
      value: 0.2
    }
  }
}
layer {
  name: "inception_4d/relu_pool_proj"
  type: "ReLU"
  bottom: "inception_4d/pool_proj"
  top: "inception_4d/pool_proj"
}
layer {
  name: "inception_4d/output"
  type: "Concat"
  bottom: "inception_4d/1x1"
  bottom: "inception_4d/3x3"
  bottom: "inception_4d/5x5"
  bottom: "inception_4d/pool_proj"
  top: "inception_4d/output"
}
layer {
  name: "loss2/ave_pool"
  type: "Pooling"
  bottom: "inception_4d/output"
  top: "loss2/ave_pool"
  pooling_param {
    pool: AVE
    kernel_size: 5
    stride: 3
  }
}
layer {
  name: "loss2/conv"
  type: "Convolution"
  bottom: "loss2/ave_pool"
  top: "loss2/conv"
  param {
    lr_mult: 1
    decay_mult: 1
  }
  param {
    lr_mult: 2
    decay_mult: 0
  }
  convolution_param {
    num_output: 128
    kernel_size: 1
    weight_filler {
      type: "xavier"
      std: 0.08
    }
    bias_filler {
      type: "constant"
      value: 0.2
    }
  }
}
layer {
  name: "loss2/relu_conv"
  type: "ReLU"
  bottom: "loss2/conv"
  top: "loss2/conv"
}
layer {
  name: "loss2/fc"
  type: "InnerProduct"
  bottom: "loss2/conv"
  top: "loss2/fc"
  param {
    lr_mult: 1
    decay_mult: 1
  }
  param {
    lr_mult: 2
    decay_mult: 0
  }
  inner_product_param {
    num_output: 1024
    weight_filler {
      type: "xavier"
      std: 0.02
    }
    bias_filler {
      type: "constant"
      value: 0.2
    }
  }
}
layer {
  name: "loss2/relu_fc"
  type: "ReLU"
  bottom: "loss2/fc"
  top: "loss2/fc"
}
layer {
  name: "loss2/drop_fc"
  type: "Dropout"
  bottom: "loss2/fc"
  top: "loss2/fc"
  dropout_param {
    dropout_ratio: 0.7
  }
}
layer {
  name: "loss2/classifier_plantvillage"
  type: "InnerProduct"
  bottom: "loss2/fc"
  top: "loss2/classifier_plantvillage"
  param {
    lr_mult: 1
    decay_mult: 1
  }
  param {
    lr_mult: 2
    decay_mult: 0
  }
  inner_product_param {
    num_output: 38
    weight_filler {
      type: "xavier"
      std: 0.0009765625
    }
    bias_filler {
      type: "constant"
      value: 0
    }
  }
}
layer {
  name: "inception_4e/1x1"
  type: "Convolution"
  bottom: "inception_4d/output"
  top: "inception_4e/1x1"
  param {
    lr_mult: 1
    decay_mult: 1
  }
  param {
    lr_mult: 2
    decay_mult: 0
  }
  convolution_param {
    num_output: 256
    kernel_size: 1
    weight_filler {
      type: "xavier"
      std: 0.03
    }
    bias_filler {
      type: "constant"
      value: 0.2
    }
  }
}
layer {
  name: "inception_4e/relu_1x1"
  type: "ReLU"
  bottom: "inception_4e/1x1"
  top: "inception_4e/1x1"
}
layer {
  name: "inception_4e/3x3_reduce"
  type: "Convolution"
  bottom: "inception_4d/output"
  top: "inception_4e/3x3_reduce"
  param {
    lr_mult: 1
    decay_mult: 1
  }
  param {
    lr_mult: 2
    decay_mult: 0
  }
  convolution_param {
    num_output: 160
    kernel_size: 1
    weight_filler {
      type: "xavier"
      std: 0.09
    }
    bias_filler {
      type: "constant"
      value: 0.2
    }
  }
}
layer {
  name: "inception_4e/relu_3x3_reduce"
  type: "ReLU"
  bottom: "inception_4e/3x3_reduce"
  top: "inception_4e/3x3_reduce"
}
layer {
  name: "inception_4e/3x3"
  type: "Convolution"
  bottom: "inception_4e/3x3_reduce"
  top: "inception_4e/3x3"
  param {
    lr_mult: 1
    decay_mult: 1
  }
  param {
    lr_mult: 2
    decay_mult: 0
  }
  convolution_param {
    num_output: 320
    pad: 1
    kernel_size: 3
    weight_filler {
      type: "xavier"
      std: 0.03
    }
    bias_filler {
      type: "constant"
      value: 0.2
    }
  }
}
layer {
  name: "inception_4e/relu_3x3"
  type: "ReLU"
  bottom: "inception_4e/3x3"
  top: "inception_4e/3x3"
}
layer {
  name: "inception_4e/5x5_reduce"
  type: "Convolution"
  bottom: "inception_4d/output"
  top: "inception_4e/5x5_reduce"
  param {
    lr_mult: 1
    decay_mult: 1
  }
  param {
    lr_mult: 2
    decay_mult: 0
  }
  convolution_param {
    num_output: 32
    kernel_size: 1
    weight_filler {
      type: "xavier"
      std: 0.2
    }
    bias_filler {
      type: "constant"
      value: 0.2
    }
  }
}
layer {
  name: "inception_4e/relu_5x5_reduce"
  type: "ReLU"
  bottom: "inception_4e/5x5_reduce"
  top: "inception_4e/5x5_reduce"
}
layer {
  name: "inception_4e/5x5"
  type: "Convolution"
  bottom: "inception_4e/5x5_reduce"
  top: "inception_4e/5x5"
  p
I0403 21:47:50.737210 12859 layer_factory.hpp:77] Creating layer data
I0403 21:47:50.737792 12859 net.cpp:91] Creating Layer data
I0403 21:47:50.737825 12859 net.cpp:399] data -> data
I0403 21:47:50.737876 12859 net.cpp:399] data -> label
I0403 21:47:50.737911 12859 data_transformer.cpp:25] Loading mean file from: /home/mohanty/data/final_dataset/lmdb/color-80-20/mean.binaryproto
I0403 21:47:50.738906 12861 db_lmdb.cpp:38] Opened lmdb /home/mohanty/data/final_dataset/lmdb/color-80-20/test_db
I0403 21:47:50.751314 12859 data_layer.cpp:41] output data size: 24,3,224,224
I0403 21:47:50.779244 12859 net.cpp:141] Setting up data
I0403 21:47:50.779340 12859 net.cpp:148] Top shape: 24 3 224 224 (3612672)
I0403 21:47:50.779361 12859 net.cpp:148] Top shape: 24 (24)
I0403 21:47:50.779376 12859 net.cpp:156] Memory required for data: 14450784
I0403 21:47:50.779402 12859 layer_factory.hpp:77] Creating layer label_data_1_split
I0403 21:47:50.779428 12859 net.cpp:91] Creating Layer label_data_1_split
I0403 21:47:50.779443 12859 net.cpp:425] label_data_1_split <- label
I0403 21:47:50.779474 12859 net.cpp:399] label_data_1_split -> label_data_1_split_0
I0403 21:47:50.779500 12859 net.cpp:399] label_data_1_split -> label_data_1_split_1
I0403 21:47:50.779520 12859 net.cpp:399] label_data_1_split -> label_data_1_split_2
I0403 21:47:50.779539 12859 net.cpp:399] label_data_1_split -> label_data_1_split_3
I0403 21:47:50.779557 12859 net.cpp:399] label_data_1_split -> label_data_1_split_4
I0403 21:47:50.779577 12859 net.cpp:399] label_data_1_split -> label_data_1_split_5
I0403 21:47:50.779594 12859 net.cpp:399] label_data_1_split -> label_data_1_split_6
I0403 21:47:50.779613 12859 net.cpp:399] label_data_1_split -> label_data_1_split_7
I0403 21:47:50.779630 12859 net.cpp:399] label_data_1_split -> label_data_1_split_8
I0403 21:47:50.779649 12859 net.cpp:399] label_data_1_split -> label_data_1_split_9
I0403 21:47:50.779757 12859 net.cpp:141] Setting up label_data_1_split
I0403 21:47:50.779780 12859 net.cpp:148] Top shape: 24 (24)
I0403 21:47:50.779796 12859 net.cpp:148] Top shape: 24 (24)
I0403 21:47:50.779813 12859 net.cpp:148] Top shape: 24 (24)
I0403 21:47:50.779826 12859 net.cpp:148] Top shape: 24 (24)
I0403 21:47:50.779841 12859 net.cpp:148] Top shape: 24 (24)
I0403 21:47:50.779856 12859 net.cpp:148] Top shape: 24 (24)
I0403 21:47:50.779872 12859 net.cpp:148] Top shape: 24 (24)
I0403 21:47:50.779887 12859 net.cpp:148] Top shape: 24 (24)
I0403 21:47:50.779902 12859 net.cpp:148] Top shape: 24 (24)
I0403 21:47:50.779919 12859 net.cpp:148] Top shape: 24 (24)
I0403 21:47:50.779966 12859 net.cpp:156] Memory required for data: 14451744
I0403 21:47:50.779984 12859 layer_factory.hpp:77] Creating layer conv1/7x7_s2
I0403 21:47:50.780016 12859 net.cpp:91] Creating Layer conv1/7x7_s2
I0403 21:47:50.780035 12859 net.cpp:425] conv1/7x7_s2 <- data
I0403 21:47:50.780055 12859 net.cpp:399] conv1/7x7_s2 -> conv1/7x7_s2
I0403 21:47:50.921442 12859 net.cpp:141] Setting up conv1/7x7_s2
I0403 21:47:50.921551 12859 net.cpp:148] Top shape: 24 64 112 112 (19267584)
I0403 21:47:50.921571 12859 net.cpp:156] Memory required for data: 91522080
I0403 21:47:50.921605 12859 layer_factory.hpp:77] Creating layer conv1/relu_7x7
I0403 21:47:50.921634 12859 net.cpp:91] Creating Layer conv1/relu_7x7
I0403 21:47:50.921653 12859 net.cpp:425] conv1/relu_7x7 <- conv1/7x7_s2
I0403 21:47:50.921671 12859 net.cpp:386] conv1/relu_7x7 -> conv1/7x7_s2 (in-place)
I0403 21:47:50.921969 12859 net.cpp:141] Setting up conv1/relu_7x7
I0403 21:47:50.921996 12859 net.cpp:148] Top shape: 24 64 112 112 (19267584)
I0403 21:47:50.922013 12859 net.cpp:156] Memory required for data: 168592416
I0403 21:47:50.922027 12859 layer_factory.hpp:77] Creating layer pool1/3x3_s2
I0403 21:47:50.922056 12859 net.cpp:91] Creating Layer pool1/3x3_s2
I0403 21:47:50.922075 12859 net.cpp:425] pool1/3x3_s2 <- conv1/7x7_s2
I0403 21:47:50.922094 12859 net.cpp:399] pool1/3x3_s2 -> pool1/3x3_s2
I0403 21:47:50.922176 12859 net.cpp:141] Setting up pool1/3x3_s2
I0403 21:47:50.922201 12859 net.cpp:148] Top shape: 24 64 56 56 (4816896)
I0403 21:47:50.922230 12859 net.cpp:156] Memory required for data: 187860000
I0403 21:47:50.922246 12859 layer_factory.hpp:77] Creating layer pool1/norm1
I0403 21:47:50.922273 12859 net.cpp:91] Creating Layer pool1/norm1
I0403 21:47:50.922292 12859 net.cpp:425] pool1/norm1 <- pool1/3x3_s2
I0403 21:47:50.922309 12859 net.cpp:399] pool1/norm1 -> pool1/norm1
I0403 21:47:50.922606 12859 net.cpp:141] Setting up pool1/norm1
I0403 21:47:50.922633 12859 net.cpp:148] Top shape: 24 64 56 56 (4816896)
I0403 21:47:50.922648 12859 net.cpp:156] Memory required for data: 207127584
I0403 21:47:50.922663 12859 layer_factory.hpp:77] Creating layer conv2/3x3_reduce
I0403 21:47:50.922693 12859 net.cpp:91] Creating Layer conv2/3x3_reduce
I0403 21:47:50.922710 12859 net.cpp:425] conv2/3x3_reduce <- pool1/norm1
I0403 21:47:50.922729 12859 net.cpp:399] conv2/3x3_reduce -> conv2/3x3_reduce
I0403 21:47:50.924198 12859 net.cpp:141] Setting up conv2/3x3_reduce
I0403 21:47:50.924232 12859 net.cpp:148] Top shape: 24 64 56 56 (4816896)
I0403 21:47:50.924248 12859 net.cpp:156] Memory required for data: 226395168
I0403 21:47:50.924269 12859 layer_factory.hpp:77] Creating layer conv2/relu_3x3_reduce
I0403 21:47:50.924290 12859 net.cpp:91] Creating Layer conv2/relu_3x3_reduce
I0403 21:47:50.924309 12859 net.cpp:425] conv2/relu_3x3_reduce <- conv2/3x3_reduce
I0403 21:47:50.924326 12859 net.cpp:386] conv2/relu_3x3_reduce -> conv2/3x3_reduce (in-place)
I0403 21:47:50.924593 12859 net.cpp:141] Setting up conv2/relu_3x3_reduce
I0403 21:47:50.924619 12859 net.cpp:148] Top shape: 24 64 56 56 (4816896)
I0403 21:47:50.924634 12859 net.cpp:156] Memory required for data: 245662752
I0403 21:47:50.924649 12859 layer_factory.hpp:77] Creating layer conv2/3x3
I0403 21:47:50.924674 12859 net.cpp:91] Creating Layer conv2/3x3
I0403 21:47:50.924691 12859 net.cpp:425] conv2/3x3 <- conv2/3x3_reduce
I0403 21:47:50.924715 12859 net.cpp:399] conv2/3x3 -> conv2/3x3
I0403 21:47:50.927052 12859 net.cpp:141] Setting up conv2/3x3
I0403 21:47:50.927130 12859 net.cpp:148] Top shape: 24 192 56 56 (14450688)
I0403 21:47:50.927151 12859 net.cpp:156] Memory required for data: 303465504
I0403 21:47:50.927173 12859 layer_factory.hpp:77] Creating layer conv2/relu_3x3
I0403 21:47:50.927196 12859 net.cpp:91] Creating Layer conv2/relu_3x3
I0403 21:47:50.927217 12859 net.cpp:425] conv2/relu_3x3 <- conv2/3x3
I0403 21:47:50.927237 12859 net.cpp:386] conv2/relu_3x3 -> conv2/3x3 (in-place)
I0403 21:47:50.927414 12859 net.cpp:141] Setting up conv2/relu_3x3
I0403 21:47:50.927440 12859 net.cpp:148] Top shape: 24 192 56 56 (14450688)
I0403 21:47:50.927489 12859 net.cpp:156] Memory required for data: 361268256
I0403 21:47:50.927505 12859 layer_factory.hpp:77] Creating layer conv2/norm2
I0403 21:47:50.927525 12859 net.cpp:91] Creating Layer conv2/norm2
I0403 21:47:50.927541 12859 net.cpp:425] conv2/norm2 <- conv2/3x3
I0403 21:47:50.927561 12859 net.cpp:399] conv2/norm2 -> conv2/norm2
I0403 21:47:50.927862 12859 net.cpp:141] Setting up conv2/norm2
I0403 21:47:50.927892 12859 net.cpp:148] Top shape: 24 192 56 56 (14450688)
I0403 21:47:50.927908 12859 net.cpp:156] Memory required for data: 419071008
I0403 21:47:50.927923 12859 layer_factory.hpp:77] Creating layer pool2/3x3_s2
I0403 21:47:50.927942 12859 net.cpp:91] Creating Layer pool2/3x3_s2
I0403 21:47:50.927956 12859 net.cpp:425] pool2/3x3_s2 <- conv2/norm2
I0403 21:47:50.927975 12859 net.cpp:399] pool2/3x3_s2 -> pool2/3x3_s2
I0403 21:47:50.928030 12859 net.cpp:141] Setting up pool2/3x3_s2
I0403 21:47:50.928055 12859 net.cpp:148] Top shape: 24 192 28 28 (3612672)
I0403 21:47:50.928069 12859 net.cpp:156] Memory required for data: 433521696
I0403 21:47:50.928084 12859 layer_factory.hpp:77] Creating layer pool2/3x3_s2_pool2/3x3_s2_0_split
I0403 21:47:50.928102 12859 net.cpp:91] Creating Layer pool2/3x3_s2_pool2/3x3_s2_0_split
I0403 21:47:50.928117 12859 net.cpp:425] pool2/3x3_s2_pool2/3x3_s2_0_split <- pool2/3x3_s2
I0403 21:47:50.928134 12859 net.cpp:399] pool2/3x3_s2_pool2/3x3_s2_0_split -> pool2/3x3_s2_pool2/3x3_s2_0_split_0
I0403 21:47:50.928153 12859 net.cpp:399] pool2/3x3_s2_pool2/3x3_s2_0_split -> pool2/3x3_s2_pool2/3x3_s2_0_split_1
I0403 21:47:50.928175 12859 net.cpp:399] pool2/3x3_s2_pool2/3x3_s2_0_split -> pool2/3x3_s2_pool2/3x3_s2_0_split_2
I0403 21:47:50.928195 12859 net.cpp:399] pool2/3x3_s2_pool2/3x3_s2_0_split -> pool2/3x3_s2_pool2/3x3_s2_0_split_3
I0403 21:47:50.928269 12859 net.cpp:141] Setting up pool2/3x3_s2_pool2/3x3_s2_0_split
I0403 21:47:50.928292 12859 net.cpp:148] Top shape: 24 192 28 28 (3612672)
I0403 21:47:50.928308 12859 net.cpp:148] Top shape: 24 192 28 28 (3612672)
I0403 21:47:50.928324 12859 net.cpp:148] Top shape: 24 192 28 28 (3612672)
I0403 21:47:50.928340 12859 net.cpp:148] Top shape: 24 192 28 28 (3612672)
I0403 21:47:50.928354 12859 net.cpp:156] Memory required for data: 491324448
I0403 21:47:50.928369 12859 layer_factory.hpp:77] Creating layer inception_3a/1x1
I0403 21:47:50.928391 12859 net.cpp:91] Creating Layer inception_3a/1x1
I0403 21:47:50.928408 12859 net.cpp:425] inception_3a/1x1 <- pool2/3x3_s2_pool2/3x3_s2_0_split_0
I0403 21:47:50.928429 12859 net.cpp:399] inception_3a/1x1 -> inception_3a/1x1
I0403 21:47:50.929960 12859 net.cpp:141] Setting up inception_3a/1x1
I0403 21:47:50.929989 12859 net.cpp:148] Top shape: 24 64 28 28 (1204224)
I0403 21:47:50.930006 12859 net.cpp:156] Memory required for data: 496141344
I0403 21:47:50.930023 12859 layer_factory.hpp:77] Creating layer inception_3a/relu_1x1
I0403 21:47:50.930042 12859 net.cpp:91] Creating Layer inception_3a/relu_1x1
I0403 21:47:50.930058 12859 net.cpp:425] inception_3a/relu_1x1 <- inception_3a/1x1
I0403 21:47:50.930083 12859 net.cpp:386] inception_3a/relu_1x1 -> inception_3a/1x1 (in-place)
I0403 21:47:50.930258 12859 net.cpp:141] Setting up inception_3a/relu_1x1
I0403 21:47:50.930282 12859 net.cpp:148] Top shape: 24 64 28 28 (1204224)
I0403 21:47:50.930297 12859 net.cpp:156] Memory required for data: 500958240
I0403 21:47:50.930312 12859 layer_factory.hpp:77] Creating layer inception_3a/3x3_reduce
I0403 21:47:50.930335 12859 net.cpp:91] Creating Layer inception_3a/3x3_reduce
I0403 21:47:50.930351 12859 net.cpp:425] inception_3a/3x3_reduce <- pool2/3x3_s2_pool2/3x3_s2_0_split_1
I0403 21:47:50.930373 12859 net.cpp:399] inception_3a/3x3_reduce -> inception_3a/3x3_reduce
I0403 21:47:50.932068 12859 net.cpp:141] Setting up inception_3a/3x3_reduce
I0403 21:47:50.932097 12859 net.cpp:148] Top shape: 24 96 28 28 (1806336)
I0403 21:47:50.932112 12859 net.cpp:156] Memory required for data: 508183584
I0403 21:47:50.932134 12859 layer_factory.hpp:77] Creating layer inception_3a/relu_3x3_reduce
I0403 21:47:50.932173 12859 net.cpp:91] Creating Layer inception_3a/relu_3x3_reduce
I0403 21:47:50.932193 12859 net.cpp:425] inception_3a/relu_3x3_reduce <- inception_3a/3x3_reduce
I0403 21:47:50.932221 12859 net.cpp:386] inception_3a/relu_3x3_reduce -> inception_3a/3x3_reduce (in-place)
I0403 21:47:50.932406 12859 net.cpp:141] Setting up inception_3a/relu_3x3_reduce
I0403 21:47:50.932433 12859 net.cpp:148] Top shape: 24 96 28 28 (1806336)
I0403 21:47:50.932449 12859 net.cpp:156] Memory required for data: 515408928
I0403 21:47:50.932464 12859 layer_factory.hpp:77] Creating layer inception_3a/3x3
I0403 21:47:50.932487 12859 net.cpp:91] Creating Layer inception_3a/3x3
I0403 21:47:50.932504 12859 net.cpp:425] inception_3a/3x3 <- inception_3a/3x3_reduce
I0403 21:47:50.932523 12859 net.cpp:399] inception_3a/3x3 -> inception_3a/3x3
I0403 21:47:50.934187 12859 net.cpp:141] Setting up inception_3a/3x3
I0403 21:47:50.934219 12859 net.cpp:148] Top shape: 24 128 28 28 (2408448)
I0403 21:47:50.934237 12859 net.cpp:156] Memory required for data: 525042720
I0403 21:47:50.934255 12859 layer_factory.hpp:77] Creating layer inception_3a/relu_3x3
I0403 21:47:50.934278 12859 net.cpp:91] Creating Layer inception_3a/relu_3x3
I0403 21:47:50.934296 12859 net.cpp:425] inception_3a/relu_3x3 <- inception_3a/3x3
I0403 21:47:50.934314 12859 net.cpp:386] inception_3a/relu_3x3 -> inception_3a/3x3 (in-place)
I0403 21:47:50.934588 12859 net.cpp:141] Setting up inception_3a/relu_3x3
I0403 21:47:50.934614 12859 net.cpp:148] Top shape: 24 128 28 28 (2408448)
I0403 21:47:50.934629 12859 net.cpp:156] Memory required for data: 534676512
I0403 21:47:50.934644 12859 layer_factory.hpp:77] Creating layer inception_3a/5x5_reduce
I0403 21:47:50.934667 12859 net.cpp:91] Creating Layer inception_3a/5x5_reduce
I0403 21:47:50.934684 12859 net.cpp:425] inception_3a/5x5_reduce <- pool2/3x3_s2_pool2/3x3_s2_0_split_2
I0403 21:47:50.934705 12859 net.cpp:399] inception_3a/5x5_reduce -> inception_3a/5x5_reduce
I0403 21:47:50.935654 12859 net.cpp:141] Setting up inception_3a/5x5_reduce
I0403 21:47:50.935681 12859 net.cpp:148] Top shape: 24 16 28 28 (301056)
I0403 21:47:50.935696 12859 net.cpp:156] Memory required for data: 535880736
I0403 21:47:50.935715 12859 layer_factory.hpp:77] Creating layer inception_3a/relu_5x5_reduce
I0403 21:47:50.935735 12859 net.cpp:91] Creating Layer inception_3a/relu_5x5_reduce
I0403 21:47:50.935752 12859 net.cpp:425] inception_3a/relu_5x5_reduce <- inception_3a/5x5_reduce
I0403 21:47:50.935770 12859 net.cpp:386] inception_3a/relu_5x5_reduce -> inception_3a/5x5_reduce (in-place)
I0403 21:47:50.936045 12859 net.cpp:141] Setting up inception_3a/relu_5x5_reduce
I0403 21:47:50.936070 12859 net.cpp:148] Top shape: 24 16 28 28 (301056)
I0403 21:47:50.936086 12859 net.cpp:156] Memory required for data: 537084960
I0403 21:47:50.936101 12859 layer_factory.hpp:77] Creating layer inception_3a/5x5
I0403 21:47:50.936125 12859 net.cpp:91] Creating Layer inception_3a/5x5
I0403 21:47:50.936142 12859 net.cpp:425] inception_3a/5x5 <- inception_3a/5x5_reduce
I0403 21:47:50.936161 12859 net.cpp:399] inception_3a/5x5 -> inception_3a/5x5
I0403 21:47:50.937157 12859 net.cpp:141] Setting up inception_3a/5x5
I0403 21:47:50.937186 12859 net.cpp:148] Top shape: 24 32 28 28 (602112)
I0403 21:47:50.937201 12859 net.cpp:156] Memory required for data: 539493408
I0403 21:47:50.937245 12859 layer_factory.hpp:77] Creating layer inception_3a/relu_5x5
I0403 21:47:50.937265 12859 net.cpp:91] Creating Layer inception_3a/relu_5x5
I0403 21:47:50.937281 12859 net.cpp:425] inception_3a/relu_5x5 <- inception_3a/5x5
I0403 21:47:50.937301 12859 net.cpp:386] inception_3a/relu_5x5 -> inception_3a/5x5 (in-place)
I0403 21:47:50.937472 12859 net.cpp:141] Setting up inception_3a/relu_5x5
I0403 21:47:50.937497 12859 net.cpp:148] Top shape: 24 32 28 28 (602112)
I0403 21:47:50.937513 12859 net.cpp:156] Memory required for data: 541901856
I0403 21:47:50.937528 12859 layer_factory.hpp:77] Creating layer inception_3a/pool
I0403 21:47:50.937549 12859 net.cpp:91] Creating Layer inception_3a/pool
I0403 21:47:50.937566 12859 net.cpp:425] inception_3a/pool <- pool2/3x3_s2_pool2/3x3_s2_0_split_3
I0403 21:47:50.937598 12859 net.cpp:399] inception_3a/pool -> inception_3a/pool
I0403 21:47:50.937657 12859 net.cpp:141] Setting up inception_3a/pool
I0403 21:47:50.937681 12859 net.cpp:148] Top shape: 24 192 28 28 (3612672)
I0403 21:47:50.937696 12859 net.cpp:156] Memory required for data: 556352544
I0403 21:47:50.937711 12859 layer_factory.hpp:77] Creating layer inception_3a/pool_proj
I0403 21:47:50.937733 12859 net.cpp:91] Creating Layer inception_3a/pool_proj
I0403 21:47:50.937752 12859 net.cpp:425] inception_3a/pool_proj <- inception_3a/pool
I0403 21:47:50.937773 12859 net.cpp:399] inception_3a/pool_proj -> inception_3a/pool_proj
I0403 21:47:50.938725 12859 net.cpp:141] Setting up inception_3a/pool_proj
I0403 21:47:50.938755 12859 net.cpp:148] Top shape: 24 32 28 28 (602112)
I0403 21:47:50.938772 12859 net.cpp:156] Memory required for data: 558760992
I0403 21:47:50.938793 12859 layer_factory.hpp:77] Creating layer inception_3a/relu_pool_proj
I0403 21:47:50.938815 12859 net.cpp:91] Creating Layer inception_3a/relu_pool_proj
I0403 21:47:50.938833 12859 net.cpp:425] inception_3a/relu_pool_proj <- inception_3a/pool_proj
I0403 21:47:50.938851 12859 net.cpp:386] inception_3a/relu_pool_proj -> inception_3a/pool_proj (in-place)
I0403 21:47:50.939126 12859 net.cpp:141] Setting up inception_3a/relu_pool_proj
I0403 21:47:50.939152 12859 net.cpp:148] Top shape: 24 32 28 28 (602112)
I0403 21:47:50.939167 12859 net.cpp:156] Memory required for data: 561169440
I0403 21:47:50.939182 12859 layer_factory.hpp:77] Creating layer inception_3a/output
I0403 21:47:50.939199 12859 net.cpp:91] Creating Layer inception_3a/output
I0403 21:47:50.939236 12859 net.cpp:425] inception_3a/output <- inception_3a/1x1
I0403 21:47:50.939255 12859 net.cpp:425] inception_3a/output <- inception_3a/3x3
I0403 21:47:50.939272 12859 net.cpp:425] inception_3a/output <- inception_3a/5x5
I0403 21:47:50.939290 12859 net.cpp:425] inception_3a/output <- inception_3a/pool_proj
I0403 21:47:50.939309 12859 net.cpp:399] inception_3a/output -> inception_3a/output
I0403 21:47:50.939360 12859 net.cpp:141] Setting up inception_3a/output
I0403 21:47:50.939384 12859 net.cpp:148] Top shape: 24 256 28 28 (4816896)
I0403 21:47:50.939400 12859 net.cpp:156] Memory required for data: 580437024
I0403 21:47:50.939415 12859 layer_factory.hpp:77] Creating layer inception_3a/output_inception_3a/output_0_split
I0403 21:47:50.939434 12859 net.cpp:91] Creating Layer inception_3a/output_inception_3a/output_0_split
I0403 21:47:50.939448 12859 net.cpp:425] inception_3a/output_inception_3a/output_0_split <- inception_3a/output
I0403 21:47:50.939468 12859 net.cpp:399] inception_3a/output_inception_3a/output_0_split -> inception_3a/output_inception_3a/output_0_split_0
I0403 21:47:50.939489 12859 net.cpp:399] inception_3a/output_inception_3a/output_0_split -> inception_3a/output_inception_3a/output_0_split_1
I0403 21:47:50.939512 12859 net.cpp:399] inception_3a/output_inception_3a/output_0_split -> inception_3a/output_inception_3a/output_0_split_2
I0403 21:47:50.939533 12859 net.cpp:399] inception_3a/output_inception_3a/output_0_split -> inception_3a/output_inception_3a/output_0_split_3
I0403 21:47:50.939613 12859 net.cpp:141] Setting up inception_3a/output_inception_3a/output_0_split
I0403 21:47:50.939637 12859 net.cpp:148] Top shape: 24 256 28 28 (4816896)
I0403 21:47:50.939656 12859 net.cpp:148] Top shape: 24 256 28 28 (4816896)
I0403 21:47:50.939671 12859 net.cpp:148] Top shape: 24 256 28 28 (4816896)
I0403 21:47:50.939687 12859 net.cpp:148] Top shape: 24 256 28 28 (4816896)
I0403 21:47:50.939702 12859 net.cpp:156] Memory required for data: 657507360
I0403 21:47:50.939716 12859 layer_factory.hpp:77] Creating layer inception_3b/1x1
I0403 21:47:50.939739 12859 net.cpp:91] Creating Layer inception_3b/1x1
I0403 21:47:50.939756 12859 net.cpp:425] inception_3b/1x1 <- inception_3a/output_inception_3a/output_0_split_0
I0403 21:47:50.939777 12859 net.cpp:399] inception_3b/1x1 -> inception_3b/1x1
I0403 21:47:50.940927 12859 net.cpp:141] Setting up inception_3b/1x1
I0403 21:47:50.940970 12859 net.cpp:148] Top shape: 24 128 28 28 (2408448)
I0403 21:47:50.940989 12859 net.cpp:156] Memory required for data: 667141152
I0403 21:47:50.941007 12859 layer_factory.hpp:77] Creating layer inception_3b/relu_1x1
I0403 21:47:50.941026 12859 net.cpp:91] Creating Layer inception_3b/relu_1x1
I0403 21:47:50.941042 12859 net.cpp:425] inception_3b/relu_1x1 <- inception_3b/1x1
I0403 21:47:50.941063 12859 net.cpp:386] inception_3b/relu_1x1 -> inception_3b/1x1 (in-place)
I0403 21:47:50.941247 12859 net.cpp:141] Setting up inception_3b/relu_1x1
I0403 21:47:50.941273 12859 net.cpp:148] Top shape: 24 128 28 28 (2408448)
I0403 21:47:50.941289 12859 net.cpp:156] Memory required for data: 676774944
I0403 21:47:50.941304 12859 layer_factory.hpp:77] Creating layer inception_3b/3x3_reduce
I0403 21:47:50.941328 12859 net.cpp:91] Creating Layer inception_3b/3x3_reduce
I0403 21:47:50.941345 12859 net.cpp:425] inception_3b/3x3_reduce <- inception_3a/output_inception_3a/output_0_split_1
I0403 21:47:50.941367 12859 net.cpp:399] inception_3b/3x3_reduce -> inception_3b/3x3_reduce
I0403 21:47:50.942531 12859 net.cpp:141] Setting up inception_3b/3x3_reduce
I0403 21:47:50.942560 12859 net.cpp:148] Top shape: 24 128 28 28 (2408448)
I0403 21:47:50.942576 12859 net.cpp:156] Memory required for data: 686408736
I0403 21:47:50.942595 12859 layer_factory.hpp:77] Creating layer inception_3b/relu_3x3_reduce
I0403 21:47:50.942615 12859 net.cpp:91] Creating Layer inception_3b/relu_3x3_reduce
I0403 21:47:50.942631 12859 net.cpp:425] inception_3b/relu_3x3_reduce <- inception_3b/3x3_reduce
I0403 21:47:50.942651 12859 net.cpp:386] inception_3b/relu_3x3_reduce -> inception_3b/3x3_reduce (in-place)
I0403 21:47:50.942831 12859 net.cpp:141] Setting up inception_3b/relu_3x3_reduce
I0403 21:47:50.942857 12859 net.cpp:148] Top shape: 24 128 28 28 (2408448)
I0403 21:47:50.942873 12859 net.cpp:156] Memory required for data: 696042528
I0403 21:47:50.942888 12859 layer_factory.hpp:77] Creating layer inception_3b/3x3
I0403 21:47:50.942914 12859 net.cpp:91] Creating Layer inception_3b/3x3
I0403 21:47:50.942934 12859 net.cpp:425] inception_3b/3x3 <- inception_3b/3x3_reduce
I0403 21:47:50.942953 12859 net.cpp:399] inception_3b/3x3 -> inception_3b/3x3
I0403 21:47:50.945945 12859 net.cpp:141] Setting up inception_3b/3x3
I0403 21:47:50.945974 12859 net.cpp:148] Top shape: 24 192 28 28 (3612672)
I0403 21:47:50.945991 12859 net.cpp:156] Memory required for data: 710493216
I0403 21:47:50.946010 12859 layer_factory.hpp:77] Creating layer inception_3b/relu_3x3
I0403 21:47:50.946032 12859 net.cpp:91] Creating Layer inception_3b/relu_3x3
I0403 21:47:50.946049 12859 net.cpp:425] inception_3b/relu_3x3 <- inception_3b/3x3
I0403 21:47:50.946068 12859 net.cpp:386] inception_3b/relu_3x3 -> inception_3b/3x3 (in-place)
I0403 21:47:50.946353 12859 net.cpp:141] Setting up inception_3b/relu_3x3
I0403 21:47:50.946380 12859 net.cpp:148] Top shape: 24 192 28 28 (3612672)
I0403 21:47:50.946396 12859 net.cpp:156] Memory required for data: 724943904
I0403 21:47:50.946413 12859 layer_factory.hpp:77] Creating layer inception_3b/5x5_reduce
I0403 21:47:50.946436 12859 net.cpp:91] Creating Layer inception_3b/5x5_reduce
I0403 21:47:50.946455 12859 net.cpp:425] inception_3b/5x5_reduce <- inception_3a/output_inception_3a/output_0_split_2
I0403 21:47:50.946477 12859 net.cpp:399] inception_3b/5x5_reduce -> inception_3b/5x5_reduce
I0403 21:47:50.947494 12859 net.cpp:141] Setting up inception_3b/5x5_reduce
I0403 21:47:50.947521 12859 net.cpp:148] Top shape: 24 32 28 28 (602112)
I0403 21:47:50.947537 12859 net.cpp:156] Memory required for data: 727352352
I0403 21:47:50.947557 12859 layer_factory.hpp:77] Creating layer inception_3b/relu_5x5_reduce
I0403 21:47:50.947577 12859 net.cpp:91] Creating Layer inception_3b/relu_5x5_reduce
I0403 21:47:50.947594 12859 net.cpp:425] inception_3b/relu_5x5_reduce <- inception_3b/5x5_reduce
I0403 21:47:50.947613 12859 net.cpp:386] inception_3b/relu_5x5_reduce -> inception_3b/5x5_reduce (in-place)
I0403 21:47:50.947790 12859 net.cpp:141] Setting up inception_3b/relu_5x5_reduce
I0403 21:47:50.947827 12859 net.cpp:148] Top shape: 24 32 28 28 (602112)
I0403 21:47:50.947846 12859 net.cpp:156] Memory required for data: 729760800
I0403 21:47:50.947862 12859 layer_factory.hpp:77] Creating layer inception_3b/5x5
I0403 21:47:50.947882 12859 net.cpp:91] Creating Layer inception_3b/5x5
I0403 21:47:50.947898 12859 net.cpp:425] inception_3b/5x5 <- inception_3b/5x5_reduce
I0403 21:47:50.947921 12859 net.cpp:399] inception_3b/5x5 -> inception_3b/5x5
I0403 21:47:50.949970 12859 net.cpp:141] Setting up inception_3b/5x5
I0403 21:47:50.950000 12859 net.cpp:148] Top shape: 24 96 28 28 (1806336)
I0403 21:47:50.950016 12859 net.cpp:156] Memory required for data: 736986144
I0403 21:47:50.950036 12859 layer_factory.hpp:77] Creating layer inception_3b/relu_5x5
I0403 21:47:50.950053 12859 net.cpp:91] Creating Layer inception_3b/relu_5x5
I0403 21:47:50.950069 12859 net.cpp:425] inception_3b/relu_5x5 <- inception_3b/5x5
I0403 21:47:50.950090 12859 net.cpp:386] inception_3b/relu_5x5 -> inception_3b/5x5 (in-place)
I0403 21:47:50.950297 12859 net.cpp:141] Setting up inception_3b/relu_5x5
I0403 21:47:50.950323 12859 net.cpp:148] Top shape: 24 96 28 28 (1806336)
I0403 21:47:50.950340 12859 net.cpp:156] Memory required for data: 744211488
I0403 21:47:50.950355 12859 layer_factory.hpp:77] Creating layer inception_3b/pool
I0403 21:47:50.950372 12859 net.cpp:91] Creating Layer inception_3b/pool
I0403 21:47:50.950389 12859 net.cpp:425] inception_3b/pool <- inception_3a/output_inception_3a/output_0_split_3
I0403 21:47:50.950408 12859 net.cpp:399] inception_3b/pool -> inception_3b/pool
I0403 21:47:50.950469 12859 net.cpp:141] Setting up inception_3b/pool
I0403 21:47:50.950492 12859 net.cpp:148] Top shape: 24 256 28 28 (4816896)
I0403 21:47:50.950506 12859 net.cpp:156] Memory required for data: 763479072
I0403 21:47:50.950521 12859 layer_factory.hpp:77] Creating layer inception_3b/pool_proj
I0403 21:47:50.950543 12859 net.cpp:91] Creating Layer inception_3b/pool_proj
I0403 21:47:50.950562 12859 net.cpp:425] inception_3b/pool_proj <- inception_3b/pool
I0403 21:47:50.950583 12859 net.cpp:399] inception_3b/pool_proj -> inception_3b/pool_proj
I0403 21:47:50.951658 12859 net.cpp:141] Setting up inception_3b/pool_proj
I0403 21:47:50.951688 12859 net.cpp:148] Top shape: 24 64 28 28 (1204224)
I0403 21:47:50.951704 12859 net.cpp:156] Memory required for data: 768295968
I0403 21:47:50.951722 12859 layer_factory.hpp:77] Creating layer inception_3b/relu_pool_proj
I0403 21:47:50.951741 12859 net.cpp:91] Creating Layer inception_3b/relu_pool_proj
I0403 21:47:50.951757 12859 net.cpp:425] inception_3b/relu_pool_proj <- inception_3b/pool_proj
I0403 21:47:50.951776 12859 net.cpp:386] inception_3b/relu_pool_proj -> inception_3b/pool_proj (in-place)
I0403 21:47:50.952153 12859 net.cpp:141] Setting up inception_3b/relu_pool_proj
I0403 21:47:50.952180 12859 net.cpp:148] Top shape: 24 64 28 28 (1204224)
I0403 21:47:50.952196 12859 net.cpp:156] Memory required for data: 773112864
I0403 21:47:50.952224 12859 layer_factory.hpp:77] Creating layer inception_3b/output
I0403 21:47:50.952247 12859 net.cpp:91] Creating Layer inception_3b/output
I0403 21:47:50.952265 12859 net.cpp:425] inception_3b/output <- inception_3b/1x1
I0403 21:47:50.952282 12859 net.cpp:425] inception_3b/output <- inception_3b/3x3
I0403 21:47:50.952299 12859 net.cpp:425] inception_3b/output <- inception_3b/5x5
I0403 21:47:50.952316 12859 net.cpp:425] inception_3b/output <- inception_3b/pool_proj
I0403 21:47:50.952332 12859 net.cpp:399] inception_3b/output -> inception_3b/output
I0403 21:47:50.952379 12859 net.cpp:141] Setting up inception_3b/output
I0403 21:47:50.952404 12859 net.cpp:148] Top shape: 24 480 28 28 (9031680)
I0403 21:47:50.952419 12859 net.cpp:156] Memory required for data: 809239584
I0403 21:47:50.952435 12859 layer_factory.hpp:77] Creating layer pool3/3x3_s2
I0403 21:47:50.952452 12859 net.cpp:91] Creating Layer pool3/3x3_s2
I0403 21:47:50.952468 12859 net.cpp:425] pool3/3x3_s2 <- inception_3b/output
I0403 21:47:50.952488 12859 net.cpp:399] pool3/3x3_s2 -> pool3/3x3_s2
I0403 21:47:50.952564 12859 net.cpp:141] Setting up pool3/3x3_s2
I0403 21:47:50.952589 12859 net.cpp:148] Top shape: 24 480 14 14 (2257920)
I0403 21:47:50.952603 12859 net.cpp:156] Memory required for data: 818271264
I0403 21:47:50.952618 12859 layer_factory.hpp:77] Creating layer pool3/3x3_s2_pool3/3x3_s2_0_split
I0403 21:47:50.952638 12859 net.cpp:91] Creating Layer pool3/3x3_s2_pool3/3x3_s2_0_split
I0403 21:47:50.952654 12859 net.cpp:425] pool3/3x3_s2_pool3/3x3_s2_0_split <- pool3/3x3_s2
I0403 21:47:50.952675 12859 net.cpp:399] pool3/3x3_s2_pool3/3x3_s2_0_split -> pool3/3x3_s2_pool3/3x3_s2_0_split_0
I0403 21:47:50.952695 12859 net.cpp:399] pool3/3x3_s2_pool3/3x3_s2_0_split -> pool3/3x3_s2_pool3/3x3_s2_0_split_1
I0403 21:47:50.952715 12859 net.cpp:399] pool3/3x3_s2_pool3/3x3_s2_0_split -> pool3/3x3_s2_pool3/3x3_s2_0_split_2
I0403 21:47:50.952734 12859 net.cpp:399] pool3/3x3_s2_pool3/3x3_s2_0_split -> pool3/3x3_s2_pool3/3x3_s2_0_split_3
I0403 21:47:50.952811 12859 net.cpp:141] Setting up pool3/3x3_s2_pool3/3x3_s2_0_split
I0403 21:47:50.952837 12859 net.cpp:148] Top shape: 24 480 14 14 (2257920)
I0403 21:47:50.952854 12859 net.cpp:148] Top shape: 24 480 14 14 (2257920)
I0403 21:47:50.952872 12859 net.cpp:148] Top shape: 24 480 14 14 (2257920)
I0403 21:47:50.952888 12859 net.cpp:148] Top shape: 24 480 14 14 (2257920)
I0403 21:47:50.952901 12859 net.cpp:156] Memory required for data: 854397984
I0403 21:47:50.952916 12859 layer_factory.hpp:77] Creating layer inception_4a/1x1
I0403 21:47:50.952936 12859 net.cpp:91] Creating Layer inception_4a/1x1
I0403 21:47:50.952953 12859 net.cpp:425] inception_4a/1x1 <- pool3/3x3_s2_pool3/3x3_s2_0_split_0
I0403 21:47:50.952975 12859 net.cpp:399] inception_4a/1x1 -> inception_4a/1x1
I0403 21:47:50.954583 12859 net.cpp:141] Setting up inception_4a/1x1
I0403 21:47:50.954614 12859 net.cpp:148] Top shape: 24 192 14 14 (903168)
I0403 21:47:50.954632 12859 net.cpp:156] Memory required for data: 858010656
I0403 21:47:50.954650 12859 layer_factory.hpp:77] Creating layer inception_4a/relu_1x1
I0403 21:47:50.954668 12859 net.cpp:91] Creating Layer inception_4a/relu_1x1
I0403 21:47:50.954684 12859 net.cpp:425] inception_4a/relu_1x1 <- inception_4a/1x1
I0403 21:47:50.954702 12859 net.cpp:386] inception_4a/relu_1x1 -> inception_4a/1x1 (in-place)
I0403 21:47:50.954890 12859 net.cpp:141] Setting up inception_4a/relu_1x1
I0403 21:47:50.954916 12859 net.cpp:148] Top shape: 24 192 14 14 (903168)
I0403 21:47:50.954931 12859 net.cpp:156] Memory required for data: 861623328
I0403 21:47:50.954946 12859 layer_factory.hpp:77] Creating layer inception_4a/3x3_reduce
I0403 21:47:50.954968 12859 net.cpp:91] Creating Layer inception_4a/3x3_reduce
I0403 21:47:50.954985 12859 net.cpp:425] inception_4a/3x3_reduce <- pool3/3x3_s2_pool3/3x3_s2_0_split_1
I0403 21:47:50.955008 12859 net.cpp:399] inception_4a/3x3_reduce -> inception_4a/3x3_reduce
I0403 21:47:50.956315 12859 net.cpp:141] Setting up inception_4a/3x3_reduce
I0403 21:47:50.956346 12859 net.cpp:148] Top shape: 24 96 14 14 (451584)
I0403 21:47:50.956363 12859 net.cpp:156] Memory required for data: 863429664
I0403 21:47:50.956388 12859 layer_factory.hpp:77] Creating layer inception_4a/relu_3x3_reduce
I0403 21:47:50.956409 12859 net.cpp:91] Creating Layer inception_4a/relu_3x3_reduce
I0403 21:47:50.956426 12859 net.cpp:425] inception_4a/relu_3x3_reduce <- inception_4a/3x3_reduce
I0403 21:47:50.956444 12859 net.cpp:386] inception_4a/relu_3x3_reduce -> inception_4a/3x3_reduce (in-place)
I0403 21:47:50.956626 12859 net.cpp:141] Setting up inception_4a/relu_3x3_reduce
I0403 21:47:50.956655 12859 net.cpp:148] Top shape: 24 96 14 14 (451584)
I0403 21:47:50.956670 12859 net.cpp:156] Memory required for data: 865236000
I0403 21:47:50.956686 12859 layer_factory.hpp:77] Creating layer inception_4a/3x3
I0403 21:47:50.956708 12859 net.cpp:91] Creating Layer inception_4a/3x3
I0403 21:47:50.956727 12859 net.cpp:425] inception_4a/3x3 <- inception_4a/3x3_reduce
I0403 21:47:50.956745 12859 net.cpp:399] inception_4a/3x3 -> inception_4a/3x3
I0403 21:47:50.959455 12859 net.cpp:141] Setting up inception_4a/3x3
I0403 21:47:50.959482 12859 net.cpp:148] Top shape: 24 208 14 14 (978432)
I0403 21:47:50.959497 12859 net.cpp:156] Memory required for data: 869149728
I0403 21:47:50.959517 12859 layer_factory.hpp:77] Creating layer inception_4a/relu_3x3
I0403 21:47:50.959533 12859 net.cpp:91] Creating Layer inception_4a/relu_3x3
I0403 21:47:50.959549 12859 net.cpp:425] inception_4a/relu_3x3 <- inception_4a/3x3
I0403 21:47:50.959568 12859 net.cpp:386] inception_4a/relu_3x3 -> inception_4a/3x3 (in-place)
I0403 21:47:50.959836 12859 net.cpp:141] Setting up inception_4a/relu_3x3
I0403 21:47:50.959861 12859 net.cpp:148] Top shape: 24 208 14 14 (978432)
I0403 21:47:50.959875 12859 net.cpp:156] Memory required for data: 873063456
I0403 21:47:50.959890 12859 layer_factory.hpp:77] Creating layer inception_4a/5x5_reduce
I0403 21:47:50.959913 12859 net.cpp:91] Creating Layer inception_4a/5x5_reduce
I0403 21:47:50.959930 12859 net.cpp:425] inception_4a/5x5_reduce <- pool3/3x3_s2_pool3/3x3_s2_0_split_2
I0403 21:47:50.959952 12859 net.cpp:399] inception_4a/5x5_reduce -> inception_4a/5x5_reduce
I0403 21:47:50.960937 12859 net.cpp:141] Setting up inception_4a/5x5_reduce
I0403 21:47:50.960964 12859 net.cpp:148] Top shape: 24 16 14 14 (75264)
I0403 21:47:50.960979 12859 net.cpp:156] Memory required for data: 873364512
I0403 21:47:50.960996 12859 layer_factory.hpp:77] Creating layer inception_4a/relu_5x5_reduce
I0403 21:47:50.961014 12859 net.cpp:91] Creating Layer inception_4a/relu_5x5_reduce
I0403 21:47:50.961030 12859 net.cpp:425] inception_4a/relu_5x5_reduce <- inception_4a/5x5_reduce
I0403 21:47:50.961048 12859 net.cpp:386] inception_4a/relu_5x5_reduce -> inception_4a/5x5_reduce (in-place)
I0403 21:47:50.961222 12859 net.cpp:141] Setting up inception_4a/relu_5x5_reduce
I0403 21:47:50.961247 12859 net.cpp:148] Top shape: 24 16 14 14 (75264)
I0403 21:47:50.961262 12859 net.cpp:156] Memory required for data: 873665568
I0403 21:47:50.961277 12859 layer_factory.hpp:77] Creating layer inception_4a/5x5
I0403 21:47:50.961298 12859 net.cpp:91] Creating Layer inception_4a/5x5
I0403 21:47:50.961314 12859 net.cpp:425] inception_4a/5x5 <- inception_4a/5x5_reduce
I0403 21:47:50.961335 12859 net.cpp:399] inception_4a/5x5 -> inception_4a/5x5
I0403 21:47:50.962399 12859 net.cpp:141] Setting up inception_4a/5x5
I0403 21:47:50.962425 12859 net.cpp:148] Top shape: 24 48 14 14 (225792)
I0403 21:47:50.962440 12859 net.cpp:156] Memory required for data: 874568736
I0403 21:47:50.962458 12859 layer_factory.hpp:77] Creating layer inception_4a/relu_5x5
I0403 21:47:50.962477 12859 net.cpp:91] Creating Layer inception_4a/relu_5x5
I0403 21:47:50.962492 12859 net.cpp:425] inception_4a/relu_5x5 <- inception_4a/5x5
I0403 21:47:50.962509 12859 net.cpp:386] inception_4a/relu_5x5 -> inception_4a/5x5 (in-place)
I0403 21:47:50.962682 12859 net.cpp:141] Setting up inception_4a/relu_5x5
I0403 21:47:50.962708 12859 net.cpp:148] Top shape: 24 48 14 14 (225792)
I0403 21:47:50.962723 12859 net.cpp:156] Memory required for data: 875471904
I0403 21:47:50.962738 12859 layer_factory.hpp:77] Creating layer inception_4a/pool
I0403 21:47:50.962754 12859 net.cpp:91] Creating Layer inception_4a/pool
I0403 21:47:50.962770 12859 net.cpp:425] inception_4a/pool <- pool3/3x3_s2_pool3/3x3_s2_0_split_3
I0403 21:47:50.962790 12859 net.cpp:399] inception_4a/pool -> inception_4a/pool
I0403 21:47:50.962851 12859 net.cpp:141] Setting up inception_4a/pool
I0403 21:47:50.962873 12859 net.cpp:148] Top shape: 24 480 14 14 (2257920)
I0403 21:47:50.962888 12859 net.cpp:156] Memory required for data: 884503584
I0403 21:47:50.962901 12859 layer_factory.hpp:77] Creating layer inception_4a/pool_proj
I0403 21:47:50.962924 12859 net.cpp:91] Creating Layer inception_4a/pool_proj
I0403 21:47:50.962941 12859 net.cpp:425] inception_4a/pool_proj <- inception_4a/pool
I0403 21:47:50.962960 12859 net.cpp:399] inception_4a/pool_proj -> inception_4a/pool_proj
I0403 21:47:50.964095 12859 net.cpp:141] Setting up inception_4a/pool_proj
I0403 21:47:50.964128 12859 net.cpp:148] Top shape: 24 64 14 14 (301056)
I0403 21:47:50.964159 12859 net.cpp:156] Memory required for data: 885707808
I0403 21:47:50.964177 12859 layer_factory.hpp:77] Creating layer inception_4a/relu_pool_proj
I0403 21:47:50.964195 12859 net.cpp:91] Creating Layer inception_4a/relu_pool_proj
I0403 21:47:50.964215 12859 net.cpp:425] inception_4a/relu_pool_proj <- inception_4a/pool_proj
I0403 21:47:50.964237 12859 net.cpp:386] inception_4a/relu_pool_proj -> inception_4a/pool_proj (in-place)
I0403 21:47:50.964510 12859 net.cpp:141] Setting up inception_4a/relu_pool_proj
I0403 21:47:50.964539 12859 net.cpp:148] Top shape: 24 64 14 14 (301056)
I0403 21:47:50.964555 12859 net.cpp:156] Memory required for data: 886912032
I0403 21:47:50.964568 12859 layer_factory.hpp:77] Creating layer inception_4a/output
I0403 21:47:50.964586 12859 net.cpp:91] Creating Layer inception_4a/output
I0403 21:47:50.964601 12859 net.cpp:425] inception_4a/output <- inception_4a/1x1
I0403 21:47:50.964618 12859 net.cpp:425] inception_4a/output <- inception_4a/3x3
I0403 21:47:50.964633 12859 net.cpp:425] inception_4a/output <- inception_4a/5x5
I0403 21:47:50.964648 12859 net.cpp:425] inception_4a/output <- inception_4a/pool_proj
I0403 21:47:50.964664 12859 net.cpp:399] inception_4a/output -> inception_4a/output
I0403 21:47:50.964709 12859 net.cpp:141] Setting up inception_4a/output
I0403 21:47:50.964732 12859 net.cpp:148] Top shape: 24 512 14 14 (2408448)
I0403 21:47:50.964747 12859 net.cpp:156] Memory required for data: 896545824
I0403 21:47:50.964761 12859 layer_factory.hpp:77] Creating layer inception_4a/output_inception_4a/output_0_split
I0403 21:47:50.964778 12859 net.cpp:91] Creating Layer inception_4a/output_inception_4a/output_0_split
I0403 21:47:50.964793 12859 net.cpp:425] inception_4a/output_inception_4a/output_0_split <- inception_4a/output
I0403 21:47:50.964817 12859 net.cpp:399] inception_4a/output_inception_4a/output_0_split -> inception_4a/output_inception_4a/output_0_split_0
I0403 21:47:50.964838 12859 net.cpp:399] inception_4a/output_inception_4a/output_0_split -> inception_4a/output_inception_4a/output_0_split_1
I0403 21:47:50.964859 12859 net.cpp:399] inception_4a/output_inception_4a/output_0_split -> inception_4a/output_inception_4a/output_0_split_2
I0403 21:47:50.964881 12859 net.cpp:399] inception_4a/output_inception_4a/output_0_split -> inception_4a/output_inception_4a/output_0_split_3
I0403 21:47:50.964901 12859 net.cpp:399] inception_4a/output_inception_4a/output_0_split -> inception_4a/output_inception_4a/output_0_split_4
I0403 21:47:50.964992 12859 net.cpp:141] Setting up inception_4a/output_inception_4a/output_0_split
I0403 21:47:50.965013 12859 net.cpp:148] Top shape: 24 512 14 14 (2408448)
I0403 21:47:50.965030 12859 net.cpp:148] Top shape: 24 512 14 14 (2408448)
I0403 21:47:50.965046 12859 net.cpp:148] Top shape: 24 512 14 14 (2408448)
I0403 21:47:50.965061 12859 net.cpp:148] Top shape: 24 512 14 14 (2408448)
I0403 21:47:50.965075 12859 net.cpp:148] Top shape: 24 512 14 14 (2408448)
I0403 21:47:50.965088 12859 net.cpp:156] Memory required for data: 944714784
I0403 21:47:50.965103 12859 layer_factory.hpp:77] Creating layer loss1/ave_pool
I0403 21:47:50.965121 12859 net.cpp:91] Creating Layer loss1/ave_pool
I0403 21:47:50.965136 12859 net.cpp:425] loss1/ave_pool <- inception_4a/output_inception_4a/output_0_split_0
I0403 21:47:50.965155 12859 net.cpp:399] loss1/ave_pool -> loss1/ave_pool
I0403 21:47:50.965360 12859 net.cpp:141] Setting up loss1/ave_pool
I0403 21:47:50.965387 12859 net.cpp:148] Top shape: 24 512 4 4 (196608)
I0403 21:47:50.965404 12859 net.cpp:156] Memory required for data: 945501216
I0403 21:47:50.965418 12859 layer_factory.hpp:77] Creating layer loss1/conv
I0403 21:47:50.965440 12859 net.cpp:91] Creating Layer loss1/conv
I0403 21:47:50.965457 12859 net.cpp:425] loss1/conv <- loss1/ave_pool
I0403 21:47:50.965476 12859 net.cpp:399] loss1/conv -> loss1/conv
I0403 21:47:50.966827 12859 net.cpp:141] Setting up loss1/conv
I0403 21:47:50.966855 12859 net.cpp:148] Top shape: 24 128 4 4 (49152)
I0403 21:47:50.966869 12859 net.cpp:156] Memory required for data: 945697824
I0403 21:47:50.966902 12859 layer_factory.hpp:77] Creating layer loss1/relu_conv
I0403 21:47:50.966922 12859 net.cpp:91] Creating Layer loss1/relu_conv
I0403 21:47:50.966936 12859 net.cpp:425] loss1/relu_conv <- loss1/conv
I0403 21:47:50.966955 12859 net.cpp:386] loss1/relu_conv -> loss1/conv (in-place)
I0403 21:47:50.967229 12859 net.cpp:141] Setting up loss1/relu_conv
I0403 21:47:50.967255 12859 net.cpp:148] Top shape: 24 128 4 4 (49152)
I0403 21:47:50.967269 12859 net.cpp:156] Memory required for data: 945894432
I0403 21:47:50.967284 12859 layer_factory.hpp:77] Creating layer loss1/fc
I0403 21:47:50.967308 12859 net.cpp:91] Creating Layer loss1/fc
I0403 21:47:50.967324 12859 net.cpp:425] loss1/fc <- loss1/conv
I0403 21:47:50.967344 12859 net.cpp:399] loss1/fc -> loss1/fc
I0403 21:47:50.984997 12859 net.cpp:141] Setting up loss1/fc
I0403 21:47:50.985030 12859 net.cpp:148] Top shape: 24 1024 (24576)
I0403 21:47:50.985045 12859 net.cpp:156] Memory required for data: 945992736
I0403 21:47:50.985064 12859 layer_factory.hpp:77] Creating layer loss1/relu_fc
I0403 21:47:50.985081 12859 net.cpp:91] Creating Layer loss1/relu_fc
I0403 21:47:50.985097 12859 net.cpp:425] loss1/relu_fc <- loss1/fc
I0403 21:47:50.985113 12859 net.cpp:386] loss1/relu_fc -> loss1/fc (in-place)
I0403 21:47:50.985298 12859 net.cpp:141] Setting up loss1/relu_fc
I0403 21:47:50.985322 12859 net.cpp:148] Top shape: 24 1024 (24576)
I0403 21:47:50.985337 12859 net.cpp:156] Memory required for data: 946091040
I0403 21:47:50.985352 12859 layer_factory.hpp:77] Creating layer loss1/drop_fc
I0403 21:47:50.985376 12859 net.cpp:91] Creating Layer loss1/drop_fc
I0403 21:47:50.985393 12859 net.cpp:425] loss1/drop_fc <- loss1/fc
I0403 21:47:50.985411 12859 net.cpp:386] loss1/drop_fc -> loss1/fc (in-place)
I0403 21:47:50.985462 12859 net.cpp:141] Setting up loss1/drop_fc
I0403 21:47:50.985484 12859 net.cpp:148] Top shape: 24 1024 (24576)
I0403 21:47:50.985499 12859 net.cpp:156] Memory required for data: 946189344
I0403 21:47:50.985514 12859 layer_factory.hpp:77] Creating layer loss1/classifier_plantvillage
I0403 21:47:50.985537 12859 net.cpp:91] Creating Layer loss1/classifier_plantvillage
I0403 21:47:50.985553 12859 net.cpp:425] loss1/classifier_plantvillage <- loss1/fc
I0403 21:47:50.985570 12859 net.cpp:399] loss1/classifier_plantvillage -> loss1/classifier_plantvillage
I0403 21:47:50.986505 12859 net.cpp:141] Setting up loss1/classifier_plantvillage
I0403 21:47:50.986534 12859 net.cpp:148] Top shape: 24 38 (912)
I0403 21:47:50.986551 12859 net.cpp:156] Memory required for data: 946192992
I0403 21:47:50.986568 12859 layer_factory.hpp:77] Creating layer loss1/classifier_plantvillage_loss1/classifier_plantvillage_0_split
I0403 21:47:50.986587 12859 net.cpp:91] Creating Layer loss1/classifier_plantvillage_loss1/classifier_plantvillage_0_split
I0403 21:47:50.986603 12859 net.cpp:425] loss1/classifier_plantvillage_loss1/classifier_plantvillage_0_split <- loss1/classifier_plantvillage
I0403 21:47:50.986623 12859 net.cpp:399] loss1/classifier_plantvillage_loss1/classifier_plantvillage_0_split -> loss1/classifier_plantvillage_loss1/classifier_plantvillage_0_split_0
I0403 21:47:50.986644 12859 net.cpp:399] loss1/classifier_plantvillage_loss1/classifier_plantvillage_0_split -> loss1/classifier_plantvillage_loss1/classifier_plantvillage_0_split_1
I0403 21:47:50.986665 12859 net.cpp:399] loss1/classifier_plantvillage_loss1/classifier_plantvillage_0_split -> loss1/classifier_plantvillage_loss1/classifier_plantvillage_0_split_2
I0403 21:47:50.986731 12859 net.cpp:141] Setting up loss1/classifier_plantvillage_loss1/classifier_plantvillage_0_split
I0403 21:47:50.986753 12859 net.cpp:148] Top shape: 24 38 (912)
I0403 21:47:50.986769 12859 net.cpp:148] Top shape: 24 38 (912)
I0403 21:47:50.986785 12859 net.cpp:148] Top shape: 24 38 (912)
I0403 21:47:50.986799 12859 net.cpp:156] Memory required for data: 946203936
I0403 21:47:50.986814 12859 layer_factory.hpp:77] Creating layer inception_4b/1x1
I0403 21:47:50.986834 12859 net.cpp:91] Creating Layer inception_4b/1x1
I0403 21:47:50.986866 12859 net.cpp:425] inception_4b/1x1 <- inception_4a/output_inception_4a/output_0_split_1
I0403 21:47:50.986889 12859 net.cpp:399] inception_4b/1x1 -> inception_4b/1x1
I0403 21:47:50.988515 12859 net.cpp:141] Setting up inception_4b/1x1
I0403 21:47:50.988544 12859 net.cpp:148] Top shape: 24 160 14 14 (752640)
I0403 21:47:50.988560 12859 net.cpp:156] Memory required for data: 949214496
I0403 21:47:50.988579 12859 layer_factory.hpp:77] Creating layer inception_4b/relu_1x1
I0403 21:47:50.988596 12859 net.cpp:91] Creating Layer inception_4b/relu_1x1
I0403 21:47:50.988612 12859 net.cpp:425] inception_4b/relu_1x1 <- inception_4b/1x1
I0403 21:47:50.988632 12859 net.cpp:386] inception_4b/relu_1x1 -> inception_4b/1x1 (in-place)
I0403 21:47:50.988811 12859 net.cpp:141] Setting up inception_4b/relu_1x1
I0403 21:47:50.988837 12859 net.cpp:148] Top shape: 24 160 14 14 (752640)
I0403 21:47:50.988852 12859 net.cpp:156] Memory required for data: 952225056
I0403 21:47:50.988867 12859 layer_factory.hpp:77] Creating layer inception_4b/3x3_reduce
I0403 21:47:50.988889 12859 net.cpp:91] Creating Layer inception_4b/3x3_reduce
I0403 21:47:50.988908 12859 net.cpp:425] inception_4b/3x3_reduce <- inception_4a/output_inception_4a/output_0_split_2
I0403 21:47:50.988931 12859 net.cpp:399] inception_4b/3x3_reduce -> inception_4b/3x3_reduce
I0403 21:47:50.990316 12859 net.cpp:141] Setting up inception_4b/3x3_reduce
I0403 21:47:50.990345 12859 net.cpp:148] Top shape: 24 112 14 14 (526848)
I0403 21:47:50.990362 12859 net.cpp:156] Memory required for data: 954332448
I0403 21:47:50.990381 12859 layer_factory.hpp:77] Creating layer inception_4b/relu_3x3_reduce
I0403 21:47:50.990403 12859 net.cpp:91] Creating Layer inception_4b/relu_3x3_reduce
I0403 21:47:50.990422 12859 net.cpp:425] inception_4b/relu_3x3_reduce <- inception_4b/3x3_reduce
I0403 21:47:50.990439 12859 net.cpp:386] inception_4b/relu_3x3_reduce -> inception_4b/3x3_reduce (in-place)
I0403 21:47:50.990725 12859 net.cpp:141] Setting up inception_4b/relu_3x3_reduce
I0403 21:47:50.990751 12859 net.cpp:148] Top shape: 24 112 14 14 (526848)
I0403 21:47:50.990768 12859 net.cpp:156] Memory required for data: 956439840
I0403 21:47:50.990783 12859 layer_factory.hpp:77] Creating layer inception_4b/3x3
I0403 21:47:50.990806 12859 net.cpp:91] Creating Layer inception_4b/3x3
I0403 21:47:50.990825 12859 net.cpp:425] inception_4b/3x3 <- inception_4b/3x3_reduce
I0403 21:47:50.990847 12859 net.cpp:399] inception_4b/3x3 -> inception_4b/3x3
I0403 21:47:50.993991 12859 net.cpp:141] Setting up inception_4b/3x3
I0403 21:47:50.994024 12859 net.cpp:148] Top shape: 24 224 14 14 (1053696)
I0403 21:47:50.994043 12859 net.cpp:156] Memory required for data: 960654624
I0403 21:47:50.994062 12859 layer_factory.hpp:77] Creating layer inception_4b/relu_3x3
I0403 21:47:50.994082 12859 net.cpp:91] Creating Layer inception_4b/relu_3x3
I0403 21:47:50.994101 12859 net.cpp:425] inception_4b/relu_3x3 <- inception_4b/3x3
I0403 21:47:50.994118 12859 net.cpp:386] inception_4b/relu_3x3 -> inception_4b/3x3 (in-place)
I0403 21:47:50.994318 12859 net.cpp:141] Setting up inception_4b/relu_3x3
I0403 21:47:50.994344 12859 net.cpp:148] Top shape: 24 224 14 14 (1053696)
I0403 21:47:50.994360 12859 net.cpp:156] Memory required for data: 964869408
I0403 21:47:50.994376 12859 layer_factory.hpp:77] Creating layer inception_4b/5x5_reduce
I0403 21:47:50.994401 12859 net.cpp:91] Creating Layer inception_4b/5x5_reduce
I0403 21:47:50.994421 12859 net.cpp:425] inception_4b/5x5_reduce <- inception_4a/output_inception_4a/output_0_split_3
I0403 21:47:50.994443 12859 net.cpp:399] inception_4b/5x5_reduce -> inception_4b/5x5_reduce
I0403 21:47:50.995602 12859 net.cpp:141] Setting up inception_4b/5x5_reduce
I0403 21:47:50.995631 12859 net.cpp:148] Top shape: 24 24 14 14 (112896)
I0403 21:47:50.995648 12859 net.cpp:156] Memory required for data: 965320992
I0403 21:47:50.995668 12859 layer_factory.hpp:77] Creating layer inception_4b/relu_5x5_reduce
I0403 21:47:50.995690 12859 net.cpp:91] Creating Layer inception_4b/relu_5x5_reduce
I0403 21:47:50.995723 12859 net.cpp:425] inception_4b/relu_5x5_reduce <- inception_4b/5x5_reduce
I0403 21:47:50.995743 12859 net.cpp:386] inception_4b/relu_5x5_reduce -> inception_4b/5x5_reduce (in-place)
I0403 21:47:50.995939 12859 net.cpp:141] Setting up inception_4b/relu_5x5_reduce
I0403 21:47:50.995966 12859 net.cpp:148] Top shape: 24 24 14 14 (112896)
I0403 21:47:50.995981 12859 net.cpp:156] Memory required for data: 965772576
I0403 21:47:50.995998 12859 layer_factory.hpp:77] Creating layer inception_4b/5x5
I0403 21:47:50.996028 12859 net.cpp:91] Creating Layer inception_4b/5x5
I0403 21:47:50.996047 12859 net.cpp:425] inception_4b/5x5 <- inception_4b/5x5_reduce
I0403 21:47:50.996067 12859 net.cpp:399] inception_4b/5x5 -> inception_4b/5x5
I0403 21:47:50.997373 12859 net.cpp:141] Setting up inception_4b/5x5
I0403 21:47:50.997403 12859 net.cpp:148] Top shape: 24 64 14 14 (301056)
I0403 21:47:50.997421 12859 net.cpp:156] Memory required for data: 966976800
I0403 21:47:50.997440 12859 layer_factory.hpp:77] Creating layer inception_4b/relu_5x5
I0403 21:47:50.997459 12859 net.cpp:91] Creating Layer inception_4b/relu_5x5
I0403 21:47:50.997476 12859 net.cpp:425] inception_4b/relu_5x5 <- inception_4b/5x5
I0403 21:47:50.997498 12859 net.cpp:386] inception_4b/relu_5x5 -> inception_4b/5x5 (in-place)
I0403 21:47:50.997799 12859 net.cpp:141] Setting up inception_4b/relu_5x5
I0403 21:47:50.997828 12859 net.cpp:148] Top shape: 24 64 14 14 (301056)
I0403 21:47:50.997843 12859 net.cpp:156] Memory required for data: 968181024
I0403 21:47:50.997859 12859 layer_factory.hpp:77] Creating layer inception_4b/pool
I0403 21:47:50.997879 12859 net.cpp:91] Creating Layer inception_4b/pool
I0403 21:47:50.997896 12859 net.cpp:425] inception_4b/pool <- inception_4a/output_inception_4a/output_0_split_4
I0403 21:47:50.997918 12859 net.cpp:399] inception_4b/pool -> inception_4b/pool
I0403 21:47:50.997987 12859 net.cpp:141] Setting up inception_4b/pool
I0403 21:47:50.998013 12859 net.cpp:148] Top shape: 24 512 14 14 (2408448)
I0403 21:47:50.998028 12859 net.cpp:156] Memory required for data: 977814816
I0403 21:47:50.998044 12859 layer_factory.hpp:77] Creating layer inception_4b/pool_proj
I0403 21:47:50.998070 12859 net.cpp:91] Creating Layer inception_4b/pool_proj
I0403 21:47:50.998090 12859 net.cpp:425] inception_4b/pool_proj <- inception_4b/pool
I0403 21:47:50.998109 12859 net.cpp:399] inception_4b/pool_proj -> inception_4b/pool_proj
I0403 21:47:50.999392 12859 net.cpp:141] Setting up inception_4b/pool_proj
I0403 21:47:50.999421 12859 net.cpp:148] Top shape: 24 64 14 14 (301056)
I0403 21:47:50.999439 12859 net.cpp:156] Memory required for data: 979019040
I0403 21:47:50.999456 12859 layer_factory.hpp:77] Creating layer inception_4b/relu_pool_proj
I0403 21:47:50.999478 12859 net.cpp:91] Creating Layer inception_4b/relu_pool_proj
I0403 21:47:50.999496 12859 net.cpp:425] inception_4b/relu_pool_proj <- inception_4b/pool_proj
I0403 21:47:50.999516 12859 net.cpp:386] inception_4b/relu_pool_proj -> inception_4b/pool_proj (in-place)
I0403 21:47:50.999707 12859 net.cpp:141] Setting up inception_4b/relu_pool_proj
I0403 21:47:50.999737 12859 net.cpp:148] Top shape: 24 64 14 14 (301056)
I0403 21:47:50.999753 12859 net.cpp:156] Memory required for data: 980223264
I0403 21:47:50.999769 12859 layer_factory.hpp:77] Creating layer inception_4b/output
I0403 21:47:50.999788 12859 net.cpp:91] Creating Layer inception_4b/output
I0403 21:47:50.999804 12859 net.cpp:425] inception_4b/output <- inception_4b/1x1
I0403 21:47:50.999822 12859 net.cpp:425] inception_4b/output <- inception_4b/3x3
I0403 21:47:50.999840 12859 net.cpp:425] inception_4b/output <- inception_4b/5x5
I0403 21:47:50.999856 12859 net.cpp:425] inception_4b/output <- inception_4b/pool_proj
I0403 21:47:50.999873 12859 net.cpp:399] inception_4b/output -> inception_4b/output
I0403 21:47:50.999923 12859 net.cpp:141] Setting up inception_4b/output
I0403 21:47:50.999948 12859 net.cpp:148] Top shape: 24 512 14 14 (2408448)
I0403 21:47:50.999963 12859 net.cpp:156] Memory required for data: 989857056
I0403 21:47:50.999994 12859 layer_factory.hpp:77] Creating layer inception_4b/output_inception_4b/output_0_split
I0403 21:47:51.000015 12859 net.cpp:91] Creating Layer inception_4b/output_inception_4b/output_0_split
I0403 21:47:51.000031 12859 net.cpp:425] inception_4b/output_inception_4b/output_0_split <- inception_4b/output
I0403 21:47:51.000057 12859 net.cpp:399] inception_4b/output_inception_4b/output_0_split -> inception_4b/output_inception_4b/output_0_split_0
I0403 21:47:51.000079 12859 net.cpp:399] inception_4b/output_inception_4b/output_0_split -> inception_4b/output_inception_4b/output_0_split_1
I0403 21:47:51.000102 12859 net.cpp:399] inception_4b/output_inception_4b/output_0_split -> inception_4b/output_inception_4b/output_0_split_2
I0403 21:47:51.000123 12859 net.cpp:399] inception_4b/output_inception_4b/output_0_split -> inception_4b/output_inception_4b/output_0_split_3
I0403 21:47:51.000218 12859 net.cpp:141] Setting up inception_4b/output_inception_4b/output_0_split
I0403 21:47:51.000243 12859 net.cpp:148] Top shape: 24 512 14 14 (2408448)
I0403 21:47:51.000262 12859 net.cpp:148] Top shape: 24 512 14 14 (2408448)
I0403 21:47:51.000279 12859 net.cpp:148] Top shape: 24 512 14 14 (2408448)
I0403 21:47:51.000295 12859 net.cpp:148] Top shape: 24 512 14 14 (2408448)
I0403 21:47:51.000310 12859 net.cpp:156] Memory required for data: 1028392224
I0403 21:47:51.000326 12859 layer_factory.hpp:77] Creating layer inception_4c/1x1
I0403 21:47:51.000350 12859 net.cpp:91] Creating Layer inception_4c/1x1
I0403 21:47:51.000370 12859 net.cpp:425] inception_4c/1x1 <- inception_4b/output_inception_4b/output_0_split_0
I0403 21:47:51.000391 12859 net.cpp:399] inception_4c/1x1 -> inception_4c/1x1
I0403 21:47:51.001915 12859 net.cpp:141] Setting up inception_4c/1x1
I0403 21:47:51.001950 12859 net.cpp:148] Top shape: 24 128 14 14 (602112)
I0403 21:47:51.001967 12859 net.cpp:156] Memory required for data: 1030800672
I0403 21:47:51.001986 12859 layer_factory.hpp:77] Creating layer inception_4c/relu_1x1
I0403 21:47:51.002005 12859 net.cpp:91] Creating Layer inception_4c/relu_1x1
I0403 21:47:51.002022 12859 net.cpp:425] inception_4c/relu_1x1 <- inception_4c/1x1
I0403 21:47:51.002040 12859 net.cpp:386] inception_4c/relu_1x1 -> inception_4c/1x1 (in-place)
I0403 21:47:51.002246 12859 net.cpp:141] Setting up inception_4c/relu_1x1
I0403 21:47:51.002276 12859 net.cpp:148] Top shape: 24 128 14 14 (602112)
I0403 21:47:51.002293 12859 net.cpp:156] Memory required for data: 1033209120
I0403 21:47:51.002308 12859 layer_factory.hpp:77] Creating layer inception_4c/3x3_reduce
I0403 21:47:51.002332 12859 net.cpp:91] Creating Layer inception_4c/3x3_reduce
I0403 21:47:51.002351 12859 net.cpp:425] inception_4c/3x3_reduce <- inception_4b/output_inception_4b/output_0_split_1
I0403 21:47:51.002374 12859 net.cpp:399] inception_4c/3x3_reduce -> inception_4c/3x3_reduce
I0403 21:47:51.004477 12859 net.cpp:141] Setting up inception_4c/3x3_reduce
I0403 21:47:51.004508 12859 net.cpp:148] Top shape: 24 128 14 14 (602112)
I0403 21:47:51.004524 12859 net.cpp:156] Memory required for data: 1035617568
I0403 21:47:51.004544 12859 layer_factory.hpp:77] Creating layer inception_4c/relu_3x3_reduce
I0403 21:47:51.004562 12859 net.cpp:91] Creating Layer inception_4c/relu_3x3_reduce
I0403 21:47:51.004583 12859 net.cpp:425] inception_4c/relu_3x3_reduce <- inception_4c/3x3_reduce
I0403 21:47:51.004602 12859 net.cpp:386] inception_4c/relu_3x3_reduce -> inception_4c/3x3_reduce (in-place)
I0403 21:47:51.004894 12859 net.cpp:141] Setting up inception_4c/relu_3x3_reduce
I0403 21:47:51.004920 12859 net.cpp:148] Top shape: 24 128 14 14 (602112)
I0403 21:47:51.004948 12859 net.cpp:156] Memory required for data: 1038026016
I0403 21:47:51.004963 12859 layer_factory.hpp:77] Creating layer inception_4c/3x3
I0403 21:47:51.004987 12859 net.cpp:91] Creating Layer inception_4c/3x3
I0403 21:47:51.005005 12859 net.cpp:425] inception_4c/3x3 <- inception_4c/3x3_reduce
I0403 21:47:51.005028 12859 net.cpp:399] inception_4c/3x3 -> inception_4c/3x3
I0403 21:47:51.008584 12859 net.cpp:141] Setting up inception_4c/3x3
I0403 21:47:51.008625 12859 net.cpp:148] Top shape: 24 256 14 14 (1204224)
I0403 21:47:51.008641 12859 net.cpp:156] Memory required for data: 1042842912
I0403 21:47:51.008677 12859 layer_factory.hpp:77] Creating layer inception_4c/relu_3x3
I0403 21:47:51.008700 12859 net.cpp:91] Creating Layer inception_4c/relu_3x3
I0403 21:47:51.008718 12859 net.cpp:425] inception_4c/relu_3x3 <- inception_4c/3x3
I0403 21:47:51.008734 12859 net.cpp:386] inception_4c/relu_3x3 -> inception_4c/3x3 (in-place)
I0403 21:47:51.008909 12859 net.cpp:141] Setting up inception_4c/relu_3x3
I0403 21:47:51.008934 12859 net.cpp:148] Top shape: 24 256 14 14 (1204224)
I0403 21:47:51.008949 12859 net.cpp:156] Memory required for data: 1047659808
I0403 21:47:51.008965 12859 layer_factory.hpp:77] Creating layer inception_4c/5x5_reduce
I0403 21:47:51.008986 12859 net.cpp:91] Creating Layer inception_4c/5x5_reduce
I0403 21:47:51.009003 12859 net.cpp:425] inception_4c/5x5_reduce <- inception_4b/output_inception_4b/output_0_split_2
I0403 21:47:51.009024 12859 net.cpp:399] inception_4c/5x5_reduce -> inception_4c/5x5_reduce
I0403 21:47:51.010109 12859 net.cpp:141] Setting up inception_4c/5x5_reduce
I0403 21:47:51.010136 12859 net.cpp:148] Top shape: 24 24 14 14 (112896)
I0403 21:47:51.010152 12859 net.cpp:156] Memory required for data: 1048111392
I0403 21:47:51.010170 12859 layer_factory.hpp:77] Creating layer inception_4c/relu_5x5_reduce
I0403 21:47:51.010190 12859 net.cpp:91] Creating Layer inception_4c/relu_5x5_reduce
I0403 21:47:51.010211 12859 net.cpp:425] inception_4c/relu_5x5_reduce <- inception_4c/5x5_reduce
I0403 21:47:51.010231 12859 net.cpp:386] inception_4c/relu_5x5_reduce -> inception_4c/5x5_reduce (in-place)
I0403 21:47:51.010411 12859 net.cpp:141] Setting up inception_4c/relu_5x5_reduce
I0403 21:47:51.010435 12859 net.cpp:148] Top shape: 24 24 14 14 (112896)
I0403 21:47:51.010449 12859 net.cpp:156] Memory required for data: 1048562976
I0403 21:47:51.010464 12859 layer_factory.hpp:77] Creating layer inception_4c/5x5
I0403 21:47:51.010488 12859 net.cpp:91] Creating Layer inception_4c/5x5
I0403 21:47:51.010505 12859 net.cpp:425] inception_4c/5x5 <- inception_4c/5x5_reduce
I0403 21:47:51.010524 12859 net.cpp:399] inception_4c/5x5 -> inception_4c/5x5
I0403 21:47:51.011737 12859 net.cpp:141] Setting up inception_4c/5x5
I0403 21:47:51.011765 12859 net.cpp:148] Top shape: 24 64 14 14 (301056)
I0403 21:47:51.011782 12859 net.cpp:156] Memory required for data: 1049767200
I0403 21:47:51.011801 12859 layer_factory.hpp:77] Creating layer inception_4c/relu_5x5
I0403 21:47:51.011817 12859 net.cpp:91] Creating Layer inception_4c/relu_5x5
I0403 21:47:51.011833 12859 net.cpp:425] inception_4c/relu_5x5 <- inception_4c/5x5
I0403 21:47:51.011850 12859 net.cpp:386] inception_4c/relu_5x5 -> inception_4c/5x5 (in-place)
I0403 21:47:51.012135 12859 net.cpp:141] Setting up inception_4c/relu_5x5
I0403 21:47:51.012159 12859 net.cpp:148] Top shape: 24 64 14 14 (301056)
I0403 21:47:51.012177 12859 net.cpp:156] Memory required for data: 1050971424
I0403 21:47:51.012192 12859 layer_factory.hpp:77] Creating layer inception_4c/pool
I0403 21:47:51.012219 12859 net.cpp:91] Creating Layer inception_4c/pool
I0403 21:47:51.012239 12859 net.cpp:425] inception_4c/pool <- inception_4b/output_inception_4b/output_0_split_3
I0403 21:47:51.012258 12859 net.cpp:399] inception_4c/pool -> inception_4c/pool
I0403 21:47:51.012322 12859 net.cpp:141] Setting up inception_4c/pool
I0403 21:47:51.012346 12859 net.cpp:148] Top shape: 24 512 14 14 (2408448)
I0403 21:47:51.012361 12859 net.cpp:156] Memory required for data: 1060605216
I0403 21:47:51.012374 12859 layer_factory.hpp:77] Creating layer inception_4c/pool_proj
I0403 21:47:51.012395 12859 net.cpp:91] Creating Layer inception_4c/pool_proj
I0403 21:47:51.012413 12859 net.cpp:425] inception_4c/pool_proj <- inception_4c/pool
I0403 21:47:51.012434 12859 net.cpp:399] inception_4c/pool_proj -> inception_4c/pool_proj
I0403 21:47:51.013644 12859 net.cpp:141] Setting up inception_4c/pool_proj
I0403 21:47:51.013671 12859 net.cpp:148] Top shape: 24 64 14 14 (301056)
I0403 21:47:51.013700 12859 net.cpp:156] Memory required for data: 1061809440
I0403 21:47:51.013720 12859 layer_factory.hpp:77] Creating layer inception_4c/relu_pool_proj
I0403 21:47:51.013741 12859 net.cpp:91] Creating Layer inception_4c/relu_pool_proj
I0403 21:47:51.013758 12859 net.cpp:425] inception_4c/relu_pool_proj <- inception_4c/pool_proj
I0403 21:47:51.013775 12859 net.cpp:386] inception_4c/relu_pool_proj -> inception_4c/pool_proj (in-place)
I0403 21:47:51.013952 12859 net.cpp:141] Setting up inception_4c/relu_pool_proj
I0403 21:47:51.013978 12859 net.cpp:148] Top shape: 24 64 14 14 (301056)
I0403 21:47:51.013991 12859 net.cpp:156] Memory required for data: 1063013664
I0403 21:47:51.014006 12859 layer_factory.hpp:77] Creating layer inception_4c/output
I0403 21:47:51.014026 12859 net.cpp:91] Creating Layer inception_4c/output
I0403 21:47:51.014041 12859 net.cpp:425] inception_4c/output <- inception_4c/1x1
I0403 21:47:51.014058 12859 net.cpp:425] inception_4c/output <- inception_4c/3x3
I0403 21:47:51.014073 12859 net.cpp:425] inception_4c/output <- inception_4c/5x5
I0403 21:47:51.014088 12859 net.cpp:425] inception_4c/output <- inception_4c/pool_proj
I0403 21:47:51.014104 12859 net.cpp:399] inception_4c/output -> inception_4c/output
I0403 21:47:51.014150 12859 net.cpp:141] Setting up inception_4c/output
I0403 21:47:51.014173 12859 net.cpp:148] Top shape: 24 512 14 14 (2408448)
I0403 21:47:51.014188 12859 net.cpp:156] Memory required for data: 1072647456
I0403 21:47:51.014201 12859 layer_factory.hpp:77] Creating layer inception_4c/output_inception_4c/output_0_split
I0403 21:47:51.014222 12859 net.cpp:91] Creating Layer inception_4c/output_inception_4c/output_0_split
I0403 21:47:51.014238 12859 net.cpp:425] inception_4c/output_inception_4c/output_0_split <- inception_4c/output
I0403 21:47:51.014258 12859 net.cpp:399] inception_4c/output_inception_4c/output_0_split -> inception_4c/output_inception_4c/output_0_split_0
I0403 21:47:51.014278 12859 net.cpp:399] inception_4c/output_inception_4c/output_0_split -> inception_4c/output_inception_4c/output_0_split_1
I0403 21:47:51.014297 12859 net.cpp:399] inception_4c/output_inception_4c/output_0_split -> inception_4c/output_inception_4c/output_0_split_2
I0403 21:47:51.014317 12859 net.cpp:399] inception_4c/output_inception_4c/output_0_split -> inception_4c/output_inception_4c/output_0_split_3
I0403 21:47:51.014400 12859 net.cpp:141] Setting up inception_4c/output_inception_4c/output_0_split
I0403 21:47:51.014421 12859 net.cpp:148] Top shape: 24 512 14 14 (2408448)
I0403 21:47:51.014437 12859 net.cpp:148] Top shape: 24 512 14 14 (2408448)
I0403 21:47:51.014453 12859 net.cpp:148] Top shape: 24 512 14 14 (2408448)
I0403 21:47:51.014468 12859 net.cpp:148] Top shape: 24 512 14 14 (2408448)
I0403 21:47:51.014482 12859 net.cpp:156] Memory required for data: 1111182624
I0403 21:47:51.014495 12859 layer_factory.hpp:77] Creating layer inception_4d/1x1
I0403 21:47:51.014518 12859 net.cpp:91] Creating Layer inception_4d/1x1
I0403 21:47:51.014534 12859 net.cpp:425] inception_4d/1x1 <- inception_4c/output_inception_4c/output_0_split_0
I0403 21:47:51.014555 12859 net.cpp:399] inception_4d/1x1 -> inception_4d/1x1
I0403 21:47:51.015903 12859 net.cpp:141] Setting up inception_4d/1x1
I0403 21:47:51.015933 12859 net.cpp:148] Top shape: 24 112 14 14 (526848)
I0403 21:47:51.015947 12859 net.cpp:156] Memory required for data: 1113290016
I0403 21:47:51.015965 12859 layer_factory.hpp:77] Creating layer inception_4d/relu_1x1
I0403 21:47:51.015983 12859 net.cpp:91] Creating Layer inception_4d/relu_1x1
I0403 21:47:51.016000 12859 net.cpp:425] inception_4d/relu_1x1 <- inception_4d/1x1
I0403 21:47:51.016023 12859 net.cpp:386] inception_4d/relu_1x1 -> inception_4d/1x1 (in-place)
I0403 21:47:51.016206 12859 net.cpp:141] Setting up inception_4d/relu_1x1
I0403 21:47:51.016233 12859 net.cpp:148] Top shape: 24 112 14 14 (526848)
I0403 21:47:51.016247 12859 net.cpp:156] Memory required for data: 1115397408
I0403 21:47:51.016263 12859 layer_factory.hpp:77] Creating layer inception_4d/3x3_reduce
I0403 21:47:51.016297 12859 net.cpp:91] Creating Layer inception_4d/3x3_reduce
I0403 21:47:51.016315 12859 net.cpp:425] inception_4d/3x3_reduce <- inception_4c/output_inception_4c/output_0_split_1
I0403 21:47:51.016337 12859 net.cpp:399] inception_4d/3x3_reduce -> inception_4d/3x3_reduce
I0403 21:47:51.017809 12859 net.cpp:141] Setting up inception_4d/3x3_reduce
I0403 21:47:51.017835 12859 net.cpp:148] Top shape: 24 144 14 14 (677376)
I0403 21:47:51.017851 12859 net.cpp:156] Memory required for data: 1118106912
I0403 21:47:51.017869 12859 layer_factory.hpp:77] Creating layer inception_4d/relu_3x3_reduce
I0403 21:47:51.017889 12859 net.cpp:91] Creating Layer inception_4d/relu_3x3_reduce
I0403 21:47:51.017905 12859 net.cpp:425] inception_4d/relu_3x3_reduce <- inception_4d/3x3_reduce
I0403 21:47:51.017922 12859 net.cpp:386] inception_4d/relu_3x3_reduce -> inception_4d/3x3_reduce (in-place)
I0403 21:47:51.018201 12859 net.cpp:141] Setting up inception_4d/relu_3x3_reduce
I0403 21:47:51.018231 12859 net.cpp:148] Top shape: 24 144 14 14 (677376)
I0403 21:47:51.018246 12859 net.cpp:156] Memory required for data: 1120816416
I0403 21:47:51.018262 12859 layer_factory.hpp:77] Creating layer inception_4d/3x3
I0403 21:47:51.018286 12859 net.cpp:91] Creating Layer inception_4d/3x3
I0403 21:47:51.018303 12859 net.cpp:425] inception_4d/3x3 <- inception_4d/3x3_reduce
I0403 21:47:51.018322 12859 net.cpp:399] inception_4d/3x3 -> inception_4d/3x3
I0403 21:47:51.022539 12859 net.cpp:141] Setting up inception_4d/3x3
I0403 21:47:51.022569 12859 net.cpp:148] Top shape: 24 288 14 14 (1354752)
I0403 21:47:51.022585 12859 net.cpp:156] Memory required for data: 1126235424
I0403 21:47:51.022604 12859 layer_factory.hpp:77] Creating layer inception_4d/relu_3x3
I0403 21:47:51.022621 12859 net.cpp:91] Creating Layer inception_4d/relu_3x3
I0403 21:47:51.022636 12859 net.cpp:425] inception_4d/relu_3x3 <- inception_4d/3x3
I0403 21:47:51.022655 12859 net.cpp:386] inception_4d/relu_3x3 -> inception_4d/3x3 (in-place)
I0403 21:47:51.022835 12859 net.cpp:141] Setting up inception_4d/relu_3x3
I0403 21:47:51.022861 12859 net.cpp:148] Top shape: 24 288 14 14 (1354752)
I0403 21:47:51.022874 12859 net.cpp:156] Memory required for data: 1131654432
I0403 21:47:51.022889 12859 layer_factory.hpp:77] Creating layer inception_4d/5x5_reduce
I0403 21:47:51.022914 12859 net.cpp:91] Creating Layer inception_4d/5x5_reduce
I0403 21:47:51.022933 12859 net.cpp:425] inception_4d/5x5_reduce <- inception_4c/output_inception_4c/output_0_split_2
I0403 21:47:51.022953 12859 net.cpp:399] inception_4d/5x5_reduce -> inception_4d/5x5_reduce
I0403 21:47:51.024090 12859 net.cpp:141] Setting up inception_4d/5x5_reduce
I0403 21:47:51.024117 12859 net.cpp:148] Top shape: 24 32 14 14 (150528)
I0403 21:47:51.024133 12859 net.cpp:156] Memory required for data: 1132256544
I0403 21:47:51.024152 12859 layer_factory.hpp:77] Creating layer inception_4d/relu_5x5_reduce
I0403 21:47:51.024168 12859 net.cpp:91] Creating Layer inception_4d/relu_5x5_reduce
I0403 21:47:51.024184 12859 net.cpp:425] inception_4d/relu_5x5_reduce <- inception_4d/5x5_reduce
I0403 21:47:51.024204 12859 net.cpp:386] inception_4d/relu_5x5_reduce -> inception_4d/5x5_reduce (in-place)
I0403 21:47:51.024394 12859 net.cpp:141] Setting up inception_4d/relu_5x5_reduce
I0403 21:47:51.024418 12859 net.cpp:148] Top shape: 24 32 14 14 (150528)
I0403 21:47:51.024435 12859 net.cpp:156] Memory required for data: 1132858656
I0403 21:47:51.024448 12859 layer_factory.hpp:77] Creating layer inception_4d/5x5
I0403 21:47:51.024471 12859 net.cpp:91] Creating Layer inception_4d/5x5
I0403 21:47:51.024488 12859 net.cpp:425] inception_4d/5x5 <- inception_4d/5x5_reduce
I0403 21:47:51.024509 12859 net.cpp:399] inception_4d/5x5 -> inception_4d/5x5
I0403 21:47:51.025981 12859 net.cpp:141] Setting up inception_4d/5x5
I0403 21:47:51.026010 12859 net.cpp:148] Top shape: 24 64 14 14 (301056)
I0403 21:47:51.026024 12859 net.cpp:156] Memory required for data: 1134062880
I0403 21:47:51.026042 12859 layer_factory.hpp:77] Creating layer inception_4d/relu_5x5
I0403 21:47:51.026078 12859 net.cpp:91] Creating Layer inception_4d/relu_5x5
I0403 21:47:51.026096 12859 net.cpp:425] inception_4d/relu_5x5 <- inception_4d/5x5
I0403 21:47:51.026114 12859 net.cpp:386] inception_4d/relu_5x5 -> inception_4d/5x5 (in-place)
I0403 21:47:51.026420 12859 net.cpp:141] Setting up inception_4d/relu_5x5
I0403 21:47:51.026446 12859 net.cpp:148] Top shape: 24 64 14 14 (301056)
I0403 21:47:51.026463 12859 net.cpp:156] Memory required for data: 1135267104
I0403 21:47:51.026478 12859 layer_factory.hpp:77] Creating layer inception_4d/pool
I0403 21:47:51.026497 12859 net.cpp:91] Creating Layer inception_4d/pool
I0403 21:47:51.026515 12859 net.cpp:425] inception_4d/pool <- inception_4c/output_inception_4c/output_0_split_3
I0403 21:47:51.026535 12859 net.cpp:399] inception_4d/pool -> inception_4d/pool
I0403 21:47:51.026605 12859 net.cpp:141] Setting up inception_4d/pool
I0403 21:47:51.026629 12859 net.cpp:148] Top shape: 24 512 14 14 (2408448)
I0403 21:47:51.026645 12859 net.cpp:156] Memory required for data: 1144900896
I0403 21:47:51.026660 12859 layer_factory.hpp:77] Creating layer inception_4d/pool_proj
I0403 21:47:51.026682 12859 net.cpp:91] Creating Layer inception_4d/pool_proj
I0403 21:47:51.026700 12859 net.cpp:425] inception_4d/pool_proj <- inception_4d/pool
I0403 21:47:51.026721 12859 net.cpp:399] inception_4d/pool_proj -> inception_4d/pool_proj
I0403 21:47:51.028532 12859 net.cpp:141] Setting up inception_4d/pool_proj
I0403 21:47:51.028563 12859 net.cpp:148] Top shape: 24 64 14 14 (301056)
I0403 21:47:51.028579 12859 net.cpp:156] Memory required for data: 1146105120
I0403 21:47:51.028599 12859 layer_factory.hpp:77] Creating layer inception_4d/relu_pool_proj
I0403 21:47:51.028616 12859 net.cpp:91] Creating Layer inception_4d/relu_pool_proj
I0403 21:47:51.028632 12859 net.cpp:425] inception_4d/relu_pool_proj <- inception_4d/pool_proj
I0403 21:47:51.028653 12859 net.cpp:386] inception_4d/relu_pool_proj -> inception_4d/pool_proj (in-place)
I0403 21:47:51.028839 12859 net.cpp:141] Setting up inception_4d/relu_pool_proj
I0403 21:47:51.028864 12859 net.cpp:148] Top shape: 24 64 14 14 (301056)
I0403 21:47:51.028879 12859 net.cpp:156] Memory required for data: 1147309344
I0403 21:47:51.028895 12859 layer_factory.hpp:77] Creating layer inception_4d/output
I0403 21:47:51.028913 12859 net.cpp:91] Creating Layer inception_4d/output
I0403 21:47:51.028928 12859 net.cpp:425] inception_4d/output <- inception_4d/1x1
I0403 21:47:51.028944 12859 net.cpp:425] inception_4d/output <- inception_4d/3x3
I0403 21:47:51.028960 12859 net.cpp:425] inception_4d/output <- inception_4d/5x5
I0403 21:47:51.028976 12859 net.cpp:425] inception_4d/output <- inception_4d/pool_proj
I0403 21:47:51.028995 12859 net.cpp:399] inception_4d/output -> inception_4d/output
I0403 21:47:51.029047 12859 net.cpp:141] Setting up inception_4d/output
I0403 21:47:51.029069 12859 net.cpp:148] Top shape: 24 528 14 14 (2483712)
I0403 21:47:51.029083 12859 net.cpp:156] Memory required for data: 1157244192
I0403 21:47:51.029098 12859 layer_factory.hpp:77] Creating layer inception_4d/output_inception_4d/output_0_split
I0403 21:47:51.029115 12859 net.cpp:91] Creating Layer inception_4d/output_inception_4d/output_0_split
I0403 21:47:51.029131 12859 net.cpp:425] inception_4d/output_inception_4d/output_0_split <- inception_4d/output
I0403 21:47:51.029152 12859 net.cpp:399] inception_4d/output_inception_4d/output_0_split -> inception_4d/output_inception_4d/output_0_split_0
I0403 21:47:51.029172 12859 net.cpp:399] inception_4d/output_inception_4d/output_0_split -> inception_4d/output_inception_4d/output_0_split_1
I0403 21:47:51.029192 12859 net.cpp:399] inception_4d/output_inception_4d/output_0_split -> inception_4d/output_inception_4d/output_0_split_2
I0403 21:47:51.029217 12859 net.cpp:399] inception_4d/output_inception_4d/output_0_split -> inception_4d/output_inception_4d/output_0_split_3
I0403 21:47:51.029238 12859 net.cpp:399] inception_4d/output_inception_4d/output_0_split -> inception_4d/output_inception_4d/output_0_split_4
I0403 21:47:51.029342 12859 net.cpp:141] Setting up inception_4d/output_inception_4d/output_0_split
I0403 21:47:51.029381 12859 net.cpp:148] Top shape: 24 528 14 14 (2483712)
I0403 21:47:51.029400 12859 net.cpp:148] Top shape: 24 528 14 14 (2483712)
I0403 21:47:51.029417 12859 net.cpp:148] Top shape: 24 528 14 14 (2483712)
I0403 21:47:51.029431 12859 net.cpp:148] Top shape: 24 528 14 14 (2483712)
I0403 21:47:51.029448 12859 net.cpp:148] Top shape: 24 528 14 14 (2483712)
I0403 21:47:51.029461 12859 net.cpp:156] Memory required for data: 1206918432
I0403 21:47:51.029475 12859 layer_factory.hpp:77] Creating layer loss2/ave_pool
I0403 21:47:51.029494 12859 net.cpp:91] Creating Layer loss2/ave_pool
I0403 21:47:51.029508 12859 net.cpp:425] loss2/ave_pool <- inception_4d/output_inception_4d/output_0_split_0
I0403 21:47:51.029530 12859 net.cpp:399] loss2/ave_pool -> loss2/ave_pool
I0403 21:47:51.029845 12859 net.cpp:141] Setting up loss2/ave_pool
I0403 21:47:51.029871 12859 net.cpp:148] Top shape: 24 528 4 4 (202752)
I0403 21:47:51.029887 12859 net.cpp:156] Memory required for data: 1207729440
I0403 21:47:51.029902 12859 layer_factory.hpp:77] Creating layer loss2/conv
I0403 21:47:51.029925 12859 net.cpp:91] Creating Layer loss2/conv
I0403 21:47:51.029943 12859 net.cpp:425] loss2/conv <- loss2/ave_pool
I0403 21:47:51.029964 12859 net.cpp:399] loss2/conv -> loss2/conv
I0403 21:47:51.031903 12859 net.cpp:141] Setting up loss2/conv
I0403 21:47:51.031932 12859 net.cpp:148] Top shape: 24 128 4 4 (49152)
I0403 21:47:51.031947 12859 net.cpp:156] Memory required for data: 1207926048
I0403 21:47:51.031966 12859 layer_factory.hpp:77] Creating layer loss2/relu_conv
I0403 21:47:51.031987 12859 net.cpp:91] Creating Layer loss2/relu_conv
I0403 21:47:51.032004 12859 net.cpp:425] loss2/relu_conv <- loss2/conv
I0403 21:47:51.032022 12859 net.cpp:386] loss2/relu_conv -> loss2/conv (in-place)
I0403 21:47:51.032322 12859 net.cpp:141] Setting up loss2/relu_conv
I0403 21:47:51.032348 12859 net.cpp:148] Top shape: 24 128 4 4 (49152)
I0403 21:47:51.032364 12859 net.cpp:156] Memory required for data: 1208122656
I0403 21:47:51.032379 12859 layer_factory.hpp:77] Creating layer loss2/fc
I0403 21:47:51.032400 12859 net.cpp:91] Creating Layer loss2/fc
I0403 21:47:51.032418 12859 net.cpp:425] loss2/fc <- loss2/conv
I0403 21:47:51.032440 12859 net.cpp:399] loss2/fc -> loss2/fc
I0403 21:47:51.050314 12859 net.cpp:141] Setting up loss2/fc
I0403 21:47:51.050354 12859 net.cpp:148] Top shape: 24 1024 (24576)
I0403 21:47:51.050369 12859 net.cpp:156] Memory required for data: 1208220960
I0403 21:47:51.050387 12859 layer_factory.hpp:77] Creating layer loss2/relu_fc
I0403 21:47:51.050405 12859 net.cpp:91] Creating Layer loss2/relu_fc
I0403 21:47:51.050420 12859 net.cpp:425] loss2/relu_fc <- loss2/fc
I0403 21:47:51.050439 12859 net.cpp:386] loss2/relu_fc -> loss2/fc (in-place)
I0403 21:47:51.050736 12859 net.cpp:141] Setting up loss2/relu_fc
I0403 21:47:51.050761 12859 net.cpp:148] Top shape: 24 1024 (24576)
I0403 21:47:51.050776 12859 net.cpp:156] Memory required for data: 1208319264
I0403 21:47:51.050791 12859 layer_factory.hpp:77] Creating layer loss2/drop_fc
I0403 21:47:51.050807 12859 net.cpp:91] Creating Layer loss2/drop_fc
I0403 21:47:51.050823 12859 net.cpp:425] loss2/drop_fc <- loss2/fc
I0403 21:47:51.050843 12859 net.cpp:386] loss2/drop_fc -> loss2/fc (in-place)
I0403 21:47:51.050890 12859 net.cpp:141] Setting up loss2/drop_fc
I0403 21:47:51.050915 12859 net.cpp:148] Top shape: 24 1024 (24576)
I0403 21:47:51.050930 12859 net.cpp:156] Memory required for data: 1208417568
I0403 21:47:51.050945 12859 layer_factory.hpp:77] Creating layer loss2/classifier_plantvillage
I0403 21:47:51.050962 12859 net.cpp:91] Creating Layer loss2/classifier_plantvillage
I0403 21:47:51.050978 12859 net.cpp:425] loss2/classifier_plantvillage <- loss2/fc
I0403 21:47:51.051000 12859 net.cpp:399] loss2/classifier_plantvillage -> loss2/classifier_plantvillage
I0403 21:47:51.051399 12859 net.cpp:141] Setting up loss2/classifier_plantvillage
I0403 21:47:51.051424 12859 net.cpp:148] Top shape: 24 38 (912)
I0403 21:47:51.051440 12859 net.cpp:156] Memory required for data: 1208421216
I0403 21:47:51.051475 12859 layer_factory.hpp:77] Creating layer loss2/classifier_plantvillage_loss2/classifier_plantvillage_0_split
I0403 21:47:51.051496 12859 net.cpp:91] Creating Layer loss2/classifier_plantvillage_loss2/classifier_plantvillage_0_split
I0403 21:47:51.051513 12859 net.cpp:425] loss2/classifier_plantvillage_loss2/classifier_plantvillage_0_split <- loss2/classifier_plantvillage
I0403 21:47:51.051532 12859 net.cpp:399] loss2/classifier_plantvillage_loss2/classifier_plantvillage_0_split -> loss2/classifier_plantvillage_loss2/classifier_plantvillage_0_split_0
I0403 21:47:51.051550 12859 net.cpp:399] loss2/classifier_plantvillage_loss2/classifier_plantvillage_0_split -> loss2/classifier_plantvillage_loss2/classifier_plantvillage_0_split_1
I0403 21:47:51.051574 12859 net.cpp:399] loss2/classifier_plantvillage_loss2/classifier_plantvillage_0_split -> loss2/classifier_plantvillage_loss2/classifier_plantvillage_0_split_2
I0403 21:47:51.051650 12859 net.cpp:141] Setting up loss2/classifier_plantvillage_loss2/classifier_plantvillage_0_split
I0403 21:47:51.051672 12859 net.cpp:148] Top shape: 24 38 (912)
I0403 21:47:51.051688 12859 net.cpp:148] Top shape: 24 38 (912)
I0403 21:47:51.051703 12859 net.cpp:148] Top shape: 24 38 (912)
I0403 21:47:51.051717 12859 net.cpp:156] Memory required for data: 1208432160
I0403 21:47:51.051731 12859 layer_factory.hpp:77] Creating layer inception_4e/1x1
I0403 21:47:51.051753 12859 net.cpp:91] Creating Layer inception_4e/1x1
I0403 21:47:51.051770 12859 net.cpp:425] inception_4e/1x1 <- inception_4d/output_inception_4d/output_0_split_1
I0403 21:47:51.051790 12859 net.cpp:399] inception_4e/1x1 -> inception_4e/1x1
I0403 21:47:51.053576 12859 net.cpp:141] Setting up inception_4e/1x1
I0403 21:47:51.053604 12859 net.cpp:148] Top shape: 24 256 14 14 (1204224)
I0403 21:47:51.053619 12859 net.cpp:156] Memory required for data: 1213249056
I0403 21:47:51.053637 12859 layer_factory.hpp:77] Creating layer inception_4e/relu_1x1
I0403 21:47:51.053658 12859 net.cpp:91] Creating Layer inception_4e/relu_1x1
I0403 21:47:51.053675 12859 net.cpp:425] inception_4e/relu_1x1 <- inception_4e/1x1
I0403 21:47:51.053692 12859 net.cpp:386] inception_4e/relu_1x1 -> inception_4e/1x1 (in-place)
I0403 21:47:51.053987 12859 net.cpp:141] Setting up inception_4e/relu_1x1
I0403 21:47:51.054013 12859 net.cpp:148] Top shape: 24 256 14 14 (1204224)
I0403 21:47:51.054028 12859 net.cpp:156] Memory required for data: 1218065952
I0403 21:47:51.054042 12859 layer_factory.hpp:77] Creating layer inception_4e/3x3_reduce
I0403 21:47:51.054064 12859 net.cpp:91] Creating Layer inception_4e/3x3_reduce
I0403 21:47:51.054082 12859 net.cpp:425] inception_4e/3x3_reduce <- inception_4d/output_inception_4d/output_0_split_2
I0403 21:47:51.054103 12859 net.cpp:399] inception_4e/3x3_reduce -> inception_4e/3x3_reduce
I0403 21:47:51.056226 12859 net.cpp:141] Setting up inception_4e/3x3_reduce
I0403 21:47:51.056255 12859 net.cpp:148] Top shape: 24 160 14 14 (752640)
I0403 21:47:51.056270 12859 net.cpp:156] Memory required for data: 1221076512
I0403 21:47:51.056288 12859 layer_factory.hpp:77] Creating layer inception_4e/relu_3x3_reduce
I0403 21:47:51.056308 12859 net.cpp:91] Creating Layer inception_4e/relu_3x3_reduce
I0403 21:47:51.056325 12859 net.cpp:425] inception_4e/relu_3x3_reduce <- inception_4e/3x3_reduce
I0403 21:47:51.056342 12859 net.cpp:386] inception_4e/relu_3x3_reduce -> inception_4e/3x3_reduce (in-place)
I0403 21:47:51.056522 12859 net.cpp:141] Setting up inception_4e/relu_3x3_reduce
I0403 21:47:51.056550 12859 net.cpp:148] Top shape: 24 160 14 14 (752640)
I0403 21:47:51.056565 12859 net.cpp:156] Memory required for data: 1224087072
I0403 21:47:51.056581 12859 layer_factory.hpp:77] Creating layer inception_4e/3x3
I0403 21:47:51.056602 12859 net.cpp:91] Creating Layer inception_4e/3x3
I0403 21:47:51.056619 12859 net.cpp:425] inception_4e/3x3 <- inception_4e/3x3_reduce
I0403 21:47:51.056638 12859 net.cpp:399] inception_4e/3x3 -> inception_4e/3x3
I0403 21:47:51.061621 12859 net.cpp:141] Setting up inception_4e/3x3
I0403 21:47:51.061664 12859 net.cpp:148] Top shape: 24 320 14 14 (1505280)
I0403 21:47:51.061681 12859 net.cpp:156] Memory required for data: 1230108192
I0403 21:47:51.061699 12859 layer_factory.hpp:77] Creating layer inception_4e/relu_3x3
I0403 21:47:51.061717 12859 net.cpp:91] Creating Layer inception_4e/relu_3x3
I0403 21:47:51.061733 12859 net.cpp:425] inception_4e/relu_3x3 <- inception_4e/3x3
I0403 21:47:51.061749 12859 net.cpp:386] inception_4e/relu_3x3 -> inception_4e/3x3 (in-place)
I0403 21:47:51.062042 12859 net.cpp:141] Setting up inception_4e/relu_3x3
I0403 21:47:51.062067 12859 net.cpp:148] Top shape: 24 320 14 14 (1505280)
I0403 21:47:51.062083 12859 net.cpp:156] Memory required for data: 1236129312
I0403 21:47:51.062098 12859 layer_factory.hpp:77] Creating layer inception_4e/5x5_reduce
I0403 21:47:51.062120 12859 net.cpp:91] Creating Layer inception_4e/5x5_reduce
I0403 21:47:51.062139 12859 net.cpp:425] inception_4e/5x5_reduce <- inception_4d/output_inception_4d/output_0_split_3
I0403 21:47:51.062160 12859 net.cpp:399] inception_4e/5x5_reduce -> inception_4e/5x5_reduce
I0403 21:47:51.063251 12859 net.cpp:141] Setting up inception_4e/5x5_reduce
I0403 21:47:51.063278 12859 net.cpp:148] Top shape: 24 32 14 14 (150528)
I0403 21:47:51.063293 12859 net.cpp:156] Memory required for data: 1236731424
I0403 21:47:51.063313 12859 layer_factory.hpp:77] Creating layer inception_4e/relu_5x5_reduce
I0403 21:47:51.063333 12859 net.cpp:91] Creating Layer inception_4e/relu_5x5_reduce
I0403 21:47:51.063349 12859 net.cpp:425] inception_4e/relu_5x5_reduce <- inception_4e/5x5_reduce
I0403 21:47:51.063366 12859 net.cpp:386] inception_4e/relu_5x5_reduce -> inception_4e/5x5_reduce (in-place)
I0403 21:47:51.063660 12859 net.cpp:141] Setting up inception_4e/relu_5x5_reduce
I0403 21:47:51.063686 12859 net.cpp:148] Top shape: 24 32 14 14 (150528)
I0403 21:47:51.063701 12859 net.cpp:156] Memory required for data: 1237333536
I0403 21:47:51.063715 12859 layer_factory.hpp:77] Creating layer inception_4e/5x5
I0403 21:47:51.063755 12859 net.cpp:91] Creating Layer inception_4e/5x5
I0403 21:47:51.063774 12859 net.cpp:425] inception_4e/5x5 <- inception_4e/5x5_reduce
I0403 21:47:51.063793 12859 net.cpp:399] inception_4e/5x5 -> inception_4e/5x5
I0403 21:47:51.065584 12859 net.cpp:141] Setting up inception_4e/5x5
I0403 21:47:51.065611 12859 net.cpp:148] Top shape: 24 128 14 14 (602112)
I0403 21:47:51.065628 12859 net.cpp:156] Memory required for data: 1239741984
I0403 21:47:51.065646 12859 layer_factory.hpp:77] Creating layer inception_4e/relu_5x5
I0403 21:47:51.065666 12859 net.cpp:91] Creating Layer inception_4e/relu_5x5
I0403 21:47:51.065683 12859 net.cpp:425] inception_4e/relu_5x5 <- inception_4e/5x5
I0403 21:47:51.065701 12859 net.cpp:386] inception_4e/relu_5x5 -> inception_4e/5x5 (in-place)
I0403 21:47:51.065891 12859 net.cpp:141] Setting up inception_4e/relu_5x5
I0403 21:47:51.065917 12859 net.cpp:148] Top shape: 24 128 14 14 (602112)
I0403 21:47:51.065930 12859 net.cpp:156] Memory required for data: 1242150432
I0403 21:47:51.065945 12859 layer_factory.hpp:77] Creating layer inception_4e/pool
I0403 21:47:51.065966 12859 net.cpp:91] Creating Layer inception_4e/pool
I0403 21:47:51.065984 12859 net.cpp:425] inception_4e/pool <- inception_4d/output_inception_4d/output_0_split_4
I0403 21:47:51.066001 12859 net.cpp:399] inception_4e/pool -> inception_4e/pool
I0403 21:47:51.066069 12859 net.cpp:141] Setting up inception_4e/pool
I0403 21:47:51.066092 12859 net.cpp:148] Top shape: 24 528 14 14 (2483712)
I0403 21:47:51.066107 12859 net.cpp:156] Memory required for data: 1252085280
I0403 21:47:51.066123 12859 layer_factory.hpp:77] Creating layer inception_4e/pool_proj
I0403 21:47:51.066144 12859 net.cpp:91] Creating Layer inception_4e/pool_proj
I0403 21:47:51.066161 12859 net.cpp:425] inception_4e/pool_proj <- inception_4e/pool
I0403 21:47:51.066181 12859 net.cpp:399] inception_4e/pool_proj -> inception_4e/pool_proj
I0403 21:47:51.067653 12859 net.cpp:141] Setting up inception_4e/pool_proj
I0403 21:47:51.067682 12859 net.cpp:148] Top shape: 24 128 14 14 (602112)
I0403 21:47:51.067710 12859 net.cpp:156] Memory required for data: 1254493728
I0403 21:47:51.067729 12859 layer_factory.hpp:77] Creating layer inception_4e/relu_pool_proj
I0403 21:47:51.067749 12859 net.cpp:91] Creating Layer inception_4e/relu_pool_proj
I0403 21:47:51.067764 12859 net.cpp:425] inception_4e/relu_pool_proj <- inception_4e/pool_proj
I0403 21:47:51.067788 12859 net.cpp:386] inception_4e/relu_pool_proj -> inception_4e/pool_proj (in-place)
I0403 21:47:51.068075 12859 net.cpp:141] Setting up inception_4e/relu_pool_proj
I0403 21:47:51.068101 12859 net.cpp:148] Top shape: 24 128 14 14 (602112)
I0403 21:47:51.068116 12859 net.cpp:156] Memory required for data: 1256902176
I0403 21:47:51.068131 12859 layer_factory.hpp:77] Creating layer inception_4e/output
I0403 21:47:51.068148 12859 net.cpp:91] Creating Layer inception_4e/output
I0403 21:47:51.068163 12859 net.cpp:425] inception_4e/output <- inception_4e/1x1
I0403 21:47:51.068179 12859 net.cpp:425] inception_4e/output <- inception_4e/3x3
I0403 21:47:51.068195 12859 net.cpp:425] inception_4e/output <- inception_4e/5x5
I0403 21:47:51.068215 12859 net.cpp:425] inception_4e/output <- inception_4e/pool_proj
I0403 21:47:51.068236 12859 net.cpp:399] inception_4e/output -> inception_4e/output
I0403 21:47:51.068284 12859 net.cpp:141] Setting up inception_4e/output
I0403 21:47:51.068307 12859 net.cpp:148] Top shape: 24 832 14 14 (3913728)
I0403 21:47:51.068322 12859 net.cpp:156] Memory required for data: 1272557088
I0403 21:47:51.068337 12859 layer_factory.hpp:77] Creating layer pool4/3x3_s2
I0403 21:47:51.068356 12859 net.cpp:91] Creating Layer pool4/3x3_s2
I0403 21:47:51.068373 12859 net.cpp:425] pool4/3x3_s2 <- inception_4e/output
I0403 21:47:51.068392 12859 net.cpp:399] pool4/3x3_s2 -> pool4/3x3_s2
I0403 21:47:51.068461 12859 net.cpp:141] Setting up pool4/3x3_s2
I0403 21:47:51.068485 12859 net.cpp:148] Top shape: 24 832 7 7 (978432)
I0403 21:47:51.068500 12859 net.cpp:156] Memory required for data: 1276470816
I0403 21:47:51.068514 12859 layer_factory.hpp:77] Creating layer pool4/3x3_s2_pool4/3x3_s2_0_split
I0403 21:47:51.068534 12859 net.cpp:91] Creating Layer pool4/3x3_s2_pool4/3x3_s2_0_split
I0403 21:47:51.068550 12859 net.cpp:425] pool4/3x3_s2_pool4/3x3_s2_0_split <- pool4/3x3_s2
I0403 21:47:51.068568 12859 net.cpp:399] pool4/3x3_s2_pool4/3x3_s2_0_split -> pool4/3x3_s2_pool4/3x3_s2_0_split_0
I0403 21:47:51.068588 12859 net.cpp:399] pool4/3x3_s2_pool4/3x3_s2_0_split -> pool4/3x3_s2_pool4/3x3_s2_0_split_1
I0403 21:47:51.068606 12859 net.cpp:399] pool4/3x3_s2_pool4/3x3_s2_0_split -> pool4/3x3_s2_pool4/3x3_s2_0_split_2
I0403 21:47:51.068625 12859 net.cpp:399] pool4/3x3_s2_pool4/3x3_s2_0_split -> pool4/3x3_s2_pool4/3x3_s2_0_split_3
I0403 21:47:51.068717 12859 net.cpp:141] Setting up pool4/3x3_s2_pool4/3x3_s2_0_split
I0403 21:47:51.068739 12859 net.cpp:148] Top shape: 24 832 7 7 (978432)
I0403 21:47:51.068755 12859 net.cpp:148] Top shape: 24 832 7 7 (978432)
I0403 21:47:51.068770 12859 net.cpp:148] Top shape: 24 832 7 7 (978432)
I0403 21:47:51.068785 12859 net.cpp:148] Top shape: 24 832 7 7 (978432)
I0403 21:47:51.068799 12859 net.cpp:156] Memory required for data: 1292125728
I0403 21:47:51.068814 12859 layer_factory.hpp:77] Creating layer inception_5a/1x1
I0403 21:47:51.068835 12859 net.cpp:91] Creating Layer inception_5a/1x1
I0403 21:47:51.068852 12859 net.cpp:425] inception_5a/1x1 <- pool4/3x3_s2_pool4/3x3_s2_0_split_0
I0403 21:47:51.068872 12859 net.cpp:399] inception_5a/1x1 -> inception_5a/1x1
I0403 21:47:51.071699 12859 net.cpp:141] Setting up inception_5a/1x1
I0403 21:47:51.071727 12859 net.cpp:148] Top shape: 24 256 7 7 (301056)
I0403 21:47:51.071743 12859 net.cpp:156] Memory required for data: 1293329952
I0403 21:47:51.071760 12859 layer_factory.hpp:77] Creating layer inception_5a/relu_1x1
I0403 21:47:51.071780 12859 net.cpp:91] Creating Layer inception_5a/relu_1x1
I0403 21:47:51.071797 12859 net.cpp:425] inception_5a/relu_1x1 <- inception_5a/1x1
I0403 21:47:51.071815 12859 net.cpp:386] inception_5a/relu_1x1 -> inception_5a/1x1 (in-place)
I0403 21:47:51.072121 12859 net.cpp:141] Setting up inception_5a/relu_1x1
I0403 21:47:51.072146 12859 net.cpp:148] Top shape: 24 256 7 7 (301056)
I0403 21:47:51.072161 12859 net.cpp:156] Memory required for data: 1294534176
I0403 21:47:51.072176 12859 layer_factory.hpp:77] Creating layer inception_5a/3x3_reduce
I0403 21:47:51.072198 12859 net.cpp:91] Creating Layer inception_5a/3x3_reduce
I0403 21:47:51.072227 12859 net.cpp:425] inception_5a/3x3_reduce <- pool4/3x3_s2_pool4/3x3_s2_0_split_1
I0403 21:47:51.072252 12859 net.cpp:399] inception_5a/3x3_reduce -> inception_5a/3x3_reduce
I0403 21:47:51.074683 12859 net.cpp:141] Setting up inception_5a/3x3_reduce
I0403 21:47:51.074713 12859 net.cpp:148] Top shape: 24 160 7 7 (188160)
I0403 21:47:51.074729 12859 net.cpp:156] Memory required for data: 1295286816
I0403 21:47:51.074748 12859 layer_factory.hpp:77] Creating layer inception_5a/relu_3x3_reduce
I0403 21:47:51.074766 12859 net.cpp:91] Creating Layer inception_5a/relu_3x3_reduce
I0403 21:47:51.074781 12859 net.cpp:425] inception_5a/relu_3x3_reduce <- inception_5a/3x3_reduce
I0403 21:47:51.074801 12859 net.cpp:386] inception_5a/relu_3x3_reduce -> inception_5a/3x3_reduce (in-place)
I0403 21:47:51.074985 12859 net.cpp:141] Setting up inception_5a/relu_3x3_reduce
I0403 21:47:51.075009 12859 net.cpp:148] Top shape: 24 160 7 7 (188160)
I0403 21:47:51.075024 12859 net.cpp:156] Memory required for data: 1296039456
I0403 21:47:51.075040 12859 layer_factory.hpp:77] Creating layer inception_5a/3x3
I0403 21:47:51.075062 12859 net.cpp:91] Creating Layer inception_5a/3x3
I0403 21:47:51.075078 12859 net.cpp:425] inception_5a/3x3 <- inception_5a/3x3_reduce
I0403 21:47:51.075100 12859 net.cpp:399] inception_5a/3x3 -> inception_5a/3x3
I0403 21:47:51.080111 12859 net.cpp:141] Setting up inception_5a/3x3
I0403 21:47:51.080138 12859 net.cpp:148] Top shape: 24 320 7 7 (376320)
I0403 21:47:51.080153 12859 net.cpp:156] Memory required for data: 1297544736
I0403 21:47:51.080171 12859 layer_factory.hpp:77] Creating layer inception_5a/relu_3x3
I0403 21:47:51.080191 12859 net.cpp:91] Creating Layer inception_5a/relu_3x3
I0403 21:47:51.080214 12859 net.cpp:425] inception_5a/relu_3x3 <- inception_5a/3x3
I0403 21:47:51.080246 12859 net.cpp:386] inception_5a/relu_3x3 -> inception_5a/3x3 (in-place)
I0403 21:47:51.080551 12859 net.cpp:141] Setting up inception_5a/relu_3x3
I0403 21:47:51.080576 12859 net.cpp:148] Top shape: 24 320 7 7 (376320)
I0403 21:47:51.080591 12859 net.cpp:156] Memory required for data: 1299050016
I0403 21:47:51.080606 12859 layer_factory.hpp:77] Creating layer inception_5a/5x5_reduce
I0403 21:47:51.080628 12859 net.cpp:91] Creating Layer inception_5a/5x5_reduce
I0403 21:47:51.080646 12859 net.cpp:425] inception_5a/5x5_reduce <- pool4/3x3_s2_pool4/3x3_s2_0_split_2
I0403 21:47:51.080668 12859 net.cpp:399] inception_5a/5x5_reduce -> inception_5a/5x5_reduce
I0403 21:47:51.082965 12859 net.cpp:141] Setting up inception_5a/5x5_reduce
I0403 21:47:51.083061 12859 net.cpp:148] Top shape: 24 32 7 7 (37632)
I0403 21:47:51.083103 12859 net.cpp:156] Memory required for data: 1299200544
I0403 21:47:51.083154 12859 layer_factory.hpp:77] Creating layer inception_5a/relu_5x5_reduce
I0403 21:47:51.083225 12859 net.cpp:91] Creating Layer inception_5a/relu_5x5_reduce
I0403 21:47:51.083273 12859 net.cpp:425] inception_5a/relu_5x5_reduce <- inception_5a/5x5_reduce
I0403 21:47:51.083320 12859 net.cpp:386] inception_5a/relu_5x5_reduce -> inception_5a/5x5_reduce (in-place)
I0403 21:47:51.084115 12859 net.cpp:141] Setting up inception_5a/relu_5x5_reduce
I0403 21:47:51.084195 12859 net.cpp:148] Top shape: 24 32 7 7 (37632)
I0403 21:47:51.084240 12859 net.cpp:156] Memory required for data: 1299351072
I0403 21:47:51.084280 12859 layer_factory.hpp:77] Creating layer inception_5a/5x5
I0403 21:47:51.084343 12859 net.cpp:91] Creating Layer inception_5a/5x5
I0403 21:47:51.084389 12859 net.cpp:425] inception_5a/5x5 <- inception_5a/5x5_reduce
I0403 21:47:51.084445 12859 net.cpp:399] inception_5a/5x5 -> inception_5a/5x5
I0403 21:47:51.089020 12859 net.cpp:141] Setting up inception_5a/5x5
I0403 21:47:51.089130 12859 net.cpp:148] Top shape: 24 128 7 7 (150528)
I0403 21:47:51.089172 12859 net.cpp:156] Memory required for data: 1299953184
I0403 21:47:51.089238 12859 layer_factory.hpp:77] Creating layer inception_5a/relu_5x5
I0403 21:47:51.089300 12859 net.cpp:91] Creating Layer inception_5a/relu_5x5
I0403 21:47:51.089346 12859 net.cpp:425] inception_5a/relu_5x5 <- inception_5a/5x5
I0403 21:47:51.089393 12859 net.cpp:386] inception_5a/relu_5x5 -> inception_5a/5x5 (in-place)
I0403 21:47:51.089751 12859 net.cpp:141] Setting up inception_5a/relu_5x5
I0403 21:47:51.089776 12859 net.cpp:148] Top shape: 24 128 7 7 (150528)
I0403 21:47:51.089792 12859 net.cpp:156] Memory required for data: 1300555296
I0403 21:47:51.089807 12859 layer_factory.hpp:77] Creating layer inception_5a/pool
I0403 21:47:51.089828 12859 net.cpp:91] Creating Layer inception_5a/pool
I0403 21:47:51.089844 12859 net.cpp:425] inception_5a/pool <- pool4/3x3_s2_pool4/3x3_s2_0_split_3
I0403 21:47:51.089864 12859 net.cpp:399] inception_5a/pool -> inception_5a/pool
I0403 21:47:51.090024 12859 net.cpp:141] Setting up inception_5a/pool
I0403 21:47:51.090086 12859 net.cpp:148] Top shape: 24 832 7 7 (978432)
I0403 21:47:51.090124 12859 net.cpp:156] Memory required for data: 1304469024
I0403 21:47:51.090162 12859 layer_factory.hpp:77] Creating layer inception_5a/pool_proj
I0403 21:47:51.090240 12859 net.cpp:91] Creating Layer inception_5a/pool_proj
I0403 21:47:51.090276 12859 net.cpp:425] inception_5a/pool_proj <- inception_5a/pool
I0403 21:47:51.090297 12859 net.cpp:399] inception_5a/pool_proj -> inception_5a/pool_proj
I0403 21:47:51.093709 12859 net.cpp:141] Setting up inception_5a/pool_proj
I0403 21:47:51.093739 12859 net.cpp:148] Top shape: 24 128 7 7 (150528)
I0403 21:47:51.093756 12859 net.cpp:156] Memory required for data: 1305071136
I0403 21:47:51.093775 12859 layer_factory.hpp:77] Creating layer inception_5a/relu_pool_proj
I0403 21:47:51.093793 12859 net.cpp:91] Creating Layer inception_5a/relu_pool_proj
I0403 21:47:51.093811 12859 net.cpp:425] inception_5a/relu_pool_proj <- inception_5a/pool_proj
I0403 21:47:51.093832 12859 net.cpp:386] inception_5a/relu_pool_proj -> inception_5a/pool_proj (in-place)
I0403 21:47:51.094133 12859 net.cpp:141] Setting up inception_5a/relu_pool_proj
I0403 21:47:51.094161 12859 net.cpp:148] Top shape: 24 128 7 7 (150528)
I0403 21:47:51.094175 12859 net.cpp:156] Memory required for data: 1305673248
I0403 21:47:51.094197 12859 layer_factory.hpp:77] Creating layer inception_5a/output
I0403 21:47:51.094214 12859 net.cpp:91] Creating Layer inception_5a/output
I0403 21:47:51.094230 12859 net.cpp:425] inception_5a/output <- inception_5a/1x1
I0403 21:47:51.094247 12859 net.cpp:425] inception_5a/output <- inception_5a/3x3
I0403 21:47:51.094264 12859 net.cpp:425] inception_5a/output <- inception_5a/5x5
I0403 21:47:51.094280 12859 net.cpp:425] inception_5a/output <- inception_5a/pool_proj
I0403 21:47:51.094300 12859 net.cpp:399] inception_5a/output -> inception_5a/output
I0403 21:47:51.094352 12859 net.cpp:141] Setting up inception_5a/output
I0403 21:47:51.094377 12859 net.cpp:148] Top shape: 24 832 7 7 (978432)
I0403 21:47:51.094393 12859 net.cpp:156] Memory required for data: 1309586976
I0403 21:47:51.094409 12859 layer_factory.hpp:77] Creating layer inception_5a/output_inception_5a/output_0_split
I0403 21:47:51.094426 12859 net.cpp:91] Creating Layer inception_5a/output_inception_5a/output_0_split
I0403 21:47:51.094442 12859 net.cpp:425] inception_5a/output_inception_5a/output_0_split <- inception_5a/output
I0403 21:47:51.094460 12859 net.cpp:399] inception_5a/output_inception_5a/output_0_split -> inception_5a/output_inception_5a/output_0_split_0
I0403 21:47:51.094480 12859 net.cpp:399] inception_5a/output_inception_5a/output_0_split -> inception_5a/output_inception_5a/output_0_split_1
I0403 21:47:51.094503 12859 net.cpp:399] inception_5a/output_inception_5a/output_0_split -> inception_5a/output_inception_5a/output_0_split_2
I0403 21:47:51.094526 12859 net.cpp:399] inception_5a/output_inception_5a/output_0_split -> inception_5a/output_inception_5a/output_0_split_3
I0403 21:47:51.094641 12859 net.cpp:141] Setting up inception_5a/output_inception_5a/output_0_split
I0403 21:47:51.094666 12859 net.cpp:148] Top shape: 24 832 7 7 (978432)
I0403 21:47:51.094681 12859 net.cpp:148] Top shape: 24 832 7 7 (978432)
I0403 21:47:51.094696 12859 net.cpp:148] Top shape: 24 832 7 7 (978432)
I0403 21:47:51.094712 12859 net.cpp:148] Top shape: 24 832 7 7 (978432)
I0403 21:47:51.094727 12859 net.cpp:156] Memory required for data: 1325241888
I0403 21:47:51.094740 12859 layer_factory.hpp:77] Creating layer inception_5b/1x1
I0403 21:47:51.094763 12859 net.cpp:91] Creating Layer inception_5b/1x1
I0403 21:47:51.094780 12859 net.cpp:425] inception_5b/1x1 <- inception_5a/output_inception_5a/output_0_split_0
I0403 21:47:51.094801 12859 net.cpp:399] inception_5b/1x1 -> inception_5b/1x1
I0403 21:47:51.098642 12859 net.cpp:141] Setting up inception_5b/1x1
I0403 21:47:51.098675 12859 net.cpp:148] Top shape: 24 384 7 7 (451584)
I0403 21:47:51.098692 12859 net.cpp:156] Memory required for data: 1327048224
I0403 21:47:51.098712 12859 layer_factory.hpp:77] Creating layer inception_5b/relu_1x1
I0403 21:47:51.098731 12859 net.cpp:91] Creating Layer inception_5b/relu_1x1
I0403 21:47:51.098747 12859 net.cpp:425] inception_5b/relu_1x1 <- inception_5b/1x1
I0403 21:47:51.098767 12859 net.cpp:386] inception_5b/relu_1x1 -> inception_5b/1x1 (in-place)
I0403 21:47:51.099077 12859 net.cpp:141] Setting up inception_5b/relu_1x1
I0403 21:47:51.099105 12859 net.cpp:148] Top shape: 24 384 7 7 (451584)
I0403 21:47:51.099123 12859 net.cpp:156] Memory required for data: 1328854560
I0403 21:47:51.099138 12859 layer_factory.hpp:77] Creating layer inception_5b/3x3_reduce
I0403 21:47:51.099160 12859 net.cpp:91] Creating Layer inception_5b/3x3_reduce
I0403 21:47:51.099182 12859 net.cpp:425] inception_5b/3x3_reduce <- inception_5a/output_inception_5a/output_0_split_1
I0403 21:47:51.099205 12859 net.cpp:399] inception_5b/3x3_reduce -> inception_5b/3x3_reduce
I0403 21:47:51.101939 12859 net.cpp:141] Setting up inception_5b/3x3_reduce
I0403 21:47:51.101969 12859 net.cpp:148] Top shape: 24 192 7 7 (225792)
I0403 21:47:51.101985 12859 net.cpp:156] Memory required for data: 1329757728
I0403 21:47:51.102004 12859 layer_factory.hpp:77] Creating layer inception_5b/relu_3x3_reduce
I0403 21:47:51.102022 12859 net.cpp:91] Creating Layer inception_5b/relu_3x3_reduce
I0403 21:47:51.102038 12859 net.cpp:425] inception_5b/relu_3x3_reduce <- inception_5b/3x3_reduce
I0403 21:47:51.102058 12859 net.cpp:386] inception_5b/relu_3x3_reduce -> inception_5b/3x3_reduce (in-place)
I0403 21:47:51.102265 12859 net.cpp:141] Setting up inception_5b/relu_3x3_reduce
I0403 21:47:51.102291 12859 net.cpp:148] Top shape: 24 192 7 7 (225792)
I0403 21:47:51.102306 12859 net.cpp:156] Memory required for data: 1330660896
I0403 21:47:51.102320 12859 layer_factory.hpp:77] Creating layer inception_5b/3x3
I0403 21:47:51.102344 12859 net.cpp:91] Creating Layer inception_5b/3x3
I0403 21:47:51.102361 12859 net.cpp:425] inception_5b/3x3 <- inception_5b/3x3_reduce
I0403 21:47:51.102382 12859 net.cpp:399] inception_5b/3x3 -> inception_5b/3x3
I0403 21:47:51.109298 12859 net.cpp:141] Setting up inception_5b/3x3
I0403 21:47:51.109329 12859 net.cpp:148] Top shape: 24 384 7 7 (451584)
I0403 21:47:51.109344 12859 net.cpp:156] Memory required for data: 1332467232
I0403 21:47:51.109362 12859 layer_factory.hpp:77] Creating layer inception_5b/relu_3x3
I0403 21:47:51.109380 12859 net.cpp:91] Creating Layer inception_5b/relu_3x3
I0403 21:47:51.109397 12859 net.cpp:425] inception_5b/relu_3x3 <- inception_5b/3x3
I0403 21:47:51.109417 12859 net.cpp:386] inception_5b/relu_3x3 -> inception_5b/3x3 (in-place)
I0403 21:47:51.109711 12859 net.cpp:141] Setting up inception_5b/relu_3x3
I0403 21:47:51.109736 12859 net.cpp:148] Top shape: 24 384 7 7 (451584)
I0403 21:47:51.109751 12859 net.cpp:156] Memory required for data: 1334273568
I0403 21:47:51.109766 12859 layer_factory.hpp:77] Creating layer inception_5b/5x5_reduce
I0403 21:47:51.109807 12859 net.cpp:91] Creating Layer inception_5b/5x5_reduce
I0403 21:47:51.109825 12859 net.cpp:425] inception_5b/5x5_reduce <- inception_5a/output_inception_5a/output_0_split_2
I0403 21:47:51.109848 12859 net.cpp:399] inception_5b/5x5_reduce -> inception_5b/5x5_reduce
I0403 21:47:51.111110 12859 net.cpp:141] Setting up inception_5b/5x5_reduce
I0403 21:47:51.111137 12859 net.cpp:148] Top shape: 24 48 7 7 (56448)
I0403 21:47:51.111151 12859 net.cpp:156] Memory required for data: 1334499360
I0403 21:47:51.111169 12859 layer_factory.hpp:77] Creating layer inception_5b/relu_5x5_reduce
I0403 21:47:51.111192 12859 net.cpp:91] Creating Layer inception_5b/relu_5x5_reduce
I0403 21:47:51.111207 12859 net.cpp:425] inception_5b/relu_5x5_reduce <- inception_5b/5x5_reduce
I0403 21:47:51.111227 12859 net.cpp:386] inception_5b/relu_5x5_reduce -> inception_5b/5x5_reduce (in-place)
I0403 21:47:51.111599 12859 net.cpp:141] Setting up inception_5b/relu_5x5_reduce
I0403 21:47:51.111625 12859 net.cpp:148] Top shape: 24 48 7 7 (56448)
I0403 21:47:51.111640 12859 net.cpp:156] Memory required for data: 1334725152
I0403 21:47:51.111656 12859 layer_factory.hpp:77] Creating layer inception_5b/5x5
I0403 21:47:51.111676 12859 net.cpp:91] Creating Layer inception_5b/5x5
I0403 21:47:51.111693 12859 net.cpp:425] inception_5b/5x5 <- inception_5b/5x5_reduce
I0403 21:47:51.111711 12859 net.cpp:399] inception_5b/5x5 -> inception_5b/5x5
I0403 21:47:51.113735 12859 net.cpp:141] Setting up inception_5b/5x5
I0403 21:47:51.113762 12859 net.cpp:148] Top shape: 24 128 7 7 (150528)
I0403 21:47:51.113778 12859 net.cpp:156] Memory required for data: 1335327264
I0403 21:47:51.113796 12859 layer_factory.hpp:77] Creating layer inception_5b/relu_5x5
I0403 21:47:51.113816 12859 net.cpp:91] Creating Layer inception_5b/relu_5x5
I0403 21:47:51.113832 12859 net.cpp:425] inception_5b/relu_5x5 <- inception_5b/5x5
I0403 21:47:51.113849 12859 net.cpp:386] inception_5b/relu_5x5 -> inception_5b/5x5 (in-place)
I0403 21:47:51.114044 12859 net.cpp:141] Setting up inception_5b/relu_5x5
I0403 21:47:51.114069 12859 net.cpp:148] Top shape: 24 128 7 7 (150528)
I0403 21:47:51.114087 12859 net.cpp:156] Memory required for data: 1335929376
I0403 21:47:51.114102 12859 layer_factory.hpp:77] Creating layer inception_5b/pool
I0403 21:47:51.114120 12859 net.cpp:91] Creating Layer inception_5b/pool
I0403 21:47:51.114135 12859 net.cpp:425] inception_5b/pool <- inception_5a/output_inception_5a/output_0_split_3
I0403 21:47:51.114152 12859 net.cpp:399] inception_5b/pool -> inception_5b/pool
I0403 21:47:51.114229 12859 net.cpp:141] Setting up inception_5b/pool
I0403 21:47:51.114253 12859 net.cpp:148] Top shape: 24 832 7 7 (978432)
I0403 21:47:51.114269 12859 net.cpp:156] Memory required for data: 1339843104
I0403 21:47:51.114282 12859 layer_factory.hpp:77] Creating layer inception_5b/pool_proj
I0403 21:47:51.114305 12859 net.cpp:91] Creating Layer inception_5b/pool_proj
I0403 21:47:51.114321 12859 net.cpp:425] inception_5b/pool_proj <- inception_5b/pool
I0403 21:47:51.114342 12859 net.cpp:399] inception_5b/pool_proj -> inception_5b/pool_proj
I0403 21:47:51.116662 12859 net.cpp:141] Setting up inception_5b/pool_proj
I0403 21:47:51.116690 12859 net.cpp:148] Top shape: 24 128 7 7 (150528)
I0403 21:47:51.116705 12859 net.cpp:156] Memory required for data: 1340445216
I0403 21:47:51.116724 12859 layer_factory.hpp:77] Creating layer inception_5b/relu_pool_proj
I0403 21:47:51.116741 12859 net.cpp:91] Creating Layer inception_5b/relu_pool_proj
I0403 21:47:51.116760 12859 net.cpp:425] inception_5b/relu_pool_proj <- inception_5b/pool_proj
I0403 21:47:51.116778 12859 net.cpp:386] inception_5b/relu_pool_proj -> inception_5b/pool_proj (in-place)
I0403 21:47:51.117074 12859 net.cpp:141] Setting up inception_5b/relu_pool_proj
I0403 21:47:51.117099 12859 net.cpp:148] Top shape: 24 128 7 7 (150528)
I0403 21:47:51.117113 12859 net.cpp:156] Memory required for data: 1341047328
I0403 21:47:51.117128 12859 layer_factory.hpp:77] Creating layer inception_5b/output
I0403 21:47:51.117146 12859 net.cpp:91] Creating Layer inception_5b/output
I0403 21:47:51.117175 12859 net.cpp:425] inception_5b/output <- inception_5b/1x1
I0403 21:47:51.117198 12859 net.cpp:425] inception_5b/output <- inception_5b/3x3
I0403 21:47:51.117215 12859 net.cpp:425] inception_5b/output <- inception_5b/5x5
I0403 21:47:51.117230 12859 net.cpp:425] inception_5b/output <- inception_5b/pool_proj
I0403 21:47:51.117249 12859 net.cpp:399] inception_5b/output -> inception_5b/output
I0403 21:47:51.117300 12859 net.cpp:141] Setting up inception_5b/output
I0403 21:47:51.117326 12859 net.cpp:148] Top shape: 24 1024 7 7 (1204224)
I0403 21:47:51.117342 12859 net.cpp:156] Memory required for data: 1345864224
I0403 21:47:51.117357 12859 layer_factory.hpp:77] Creating layer pool5/7x7_s1
I0403 21:47:51.117374 12859 net.cpp:91] Creating Layer pool5/7x7_s1
I0403 21:47:51.117389 12859 net.cpp:425] pool5/7x7_s1 <- inception_5b/output
I0403 21:47:51.117410 12859 net.cpp:399] pool5/7x7_s1 -> pool5/7x7_s1
I0403 21:47:51.117621 12859 net.cpp:141] Setting up pool5/7x7_s1
I0403 21:47:51.117646 12859 net.cpp:148] Top shape: 24 1024 1 1 (24576)
I0403 21:47:51.117661 12859 net.cpp:156] Memory required for data: 1345962528
I0403 21:47:51.117676 12859 layer_factory.hpp:77] Creating layer pool5/drop_7x7_s1
I0403 21:47:51.117694 12859 net.cpp:91] Creating Layer pool5/drop_7x7_s1
I0403 21:47:51.117710 12859 net.cpp:425] pool5/drop_7x7_s1 <- pool5/7x7_s1
I0403 21:47:51.117729 12859 net.cpp:386] pool5/drop_7x7_s1 -> pool5/7x7_s1 (in-place)
I0403 21:47:51.117779 12859 net.cpp:141] Setting up pool5/drop_7x7_s1
I0403 21:47:51.117805 12859 net.cpp:148] Top shape: 24 1024 1 1 (24576)
I0403 21:47:51.117820 12859 net.cpp:156] Memory required for data: 1346060832
I0403 21:47:51.117835 12859 layer_factory.hpp:77] Creating layer loss3/classifier_plantvillage
I0403 21:47:51.117853 12859 net.cpp:91] Creating Layer loss3/classifier_plantvillage
I0403 21:47:51.117868 12859 net.cpp:425] loss3/classifier_plantvillage <- pool5/7x7_s1
I0403 21:47:51.117889 12859 net.cpp:399] loss3/classifier_plantvillage -> loss3/classifier_plantvillage
I0403 21:47:51.118312 12859 net.cpp:141] Setting up loss3/classifier_plantvillage
I0403 21:47:51.118338 12859 net.cpp:148] Top shape: 24 38 (912)
I0403 21:47:51.118355 12859 net.cpp:156] Memory required for data: 1346064480
I0403 21:47:51.118371 12859 layer_factory.hpp:77] Creating layer loss3/classifier_plantvillage_loss3/classifier_plantvillage_0_split
I0403 21:47:51.118389 12859 net.cpp:91] Creating Layer loss3/classifier_plantvillage_loss3/classifier_plantvillage_0_split
I0403 21:47:51.118405 12859 net.cpp:425] loss3/classifier_plantvillage_loss3/classifier_plantvillage_0_split <- loss3/classifier_plantvillage
I0403 21:47:51.118422 12859 net.cpp:399] loss3/classifier_plantvillage_loss3/classifier_plantvillage_0_split -> loss3/classifier_plantvillage_loss3/classifier_plantvillage_0_split_0
I0403 21:47:51.118441 12859 net.cpp:399] loss3/classifier_plantvillage_loss3/classifier_plantvillage_0_split -> loss3/classifier_plantvillage_loss3/classifier_plantvillage_0_split_1
I0403 21:47:51.118463 12859 net.cpp:399] loss3/classifier_plantvillage_loss3/classifier_plantvillage_0_split -> loss3/classifier_plantvillage_loss3/classifier_plantvillage_0_split_2
I0403 21:47:51.118484 12859 net.cpp:399] loss3/classifier_plantvillage_loss3/classifier_plantvillage_0_split -> loss3/classifier_plantvillage_loss3/classifier_plantvillage_0_split_3
I0403 21:47:51.118583 12859 net.cpp:141] Setting up loss3/classifier_plantvillage_loss3/classifier_plantvillage_0_split
I0403 21:47:51.118607 12859 net.cpp:148] Top shape: 24 38 (912)
I0403 21:47:51.118623 12859 net.cpp:148] Top shape: 24 38 (912)
I0403 21:47:51.118638 12859 net.cpp:148] Top shape: 24 38 (912)
I0403 21:47:51.118654 12859 net.cpp:148] Top shape: 24 38 (912)
I0403 21:47:51.118666 12859 net.cpp:156] Memory required for data: 1346079072
I0403 21:47:51.118680 12859 layer_factory.hpp:77] Creating layer loss1/loss
I0403 21:47:51.118706 12859 net.cpp:91] Creating Layer loss1/loss
I0403 21:47:51.118724 12859 net.cpp:425] loss1/loss <- loss1/classifier_plantvillage_loss1/classifier_plantvillage_0_split_0
I0403 21:47:51.118754 12859 net.cpp:425] loss1/loss <- label_data_1_split_0
…
