…
I0403 21:37:12.944699 12246 net.cpp:313] The NetState phase (1) differed from the phase (0) specified by a rule in layer data
I0403 21:37:12.947710 12246 net.cpp:49] Initializing net from parameters: 
state {
  phase: TEST
}
layer {
  name: "data"
  type: "Data"
  top: "data"
  top: "label"
  include {
    phase: TEST
  }
  transform_param {
    mirror: false
    crop_size: 224
    mean_file: "/home/mohanty/data/final_dataset/lmdb/color-80-20/mean.binaryproto"
  }
  data_param {
    source: "/home/mohanty/data/final_dataset/lmdb/color-80-20/test_db"
    batch_size: 24
    backend: LMDB
  }
}
layer {
  name: "conv1/7x7_s2"
  type: "Convolution"
  bottom: "data"
  top: "conv1/7x7_s2"
  param {
    lr_mult: 1
    decay_mult: 1
  }
  param {
    lr_mult: 2
    decay_mult: 0
  }
  convolution_param {
    num_output: 64
    pad: 3
    kernel_size: 7
    stride: 2
    weight_filler {
      type: "xavier"
      std: 0.1
    }
    bias_filler {
      type: "constant"
      value: 0.2
    }
  }
}
layer {
  name: "conv1/relu_7x7"
  type: "ReLU"
  bottom: "conv1/7x7_s2"
  top: "conv1/7x7_s2"
}
layer {
  name: "pool1/3x3_s2"
  type: "Pooling"
  bottom: "conv1/7x7_s2"
  top: "pool1/3x3_s2"
  pooling_param {
    pool: MAX
    kernel_size: 3
    stride: 2
  }
}
layer {
  name: "pool1/norm1"
  type: "LRN"
  bottom: "pool1/3x3_s2"
  top: "pool1/norm1"
  lrn_param {
    local_size: 5
    alpha: 0.0001
    beta: 0.75
  }
}
layer {
  name: "conv2/3x3_reduce"
  type: "Convolution"
  bottom: "pool1/norm1"
  top: "conv2/3x3_reduce"
  param {
    lr_mult: 1
    decay_mult: 1
  }
  param {
    lr_mult: 2
    decay_mult: 0
  }
  convolution_param {
    num_output: 64
    kernel_size: 1
    weight_filler {
      type: "xavier"
      std: 0.1
    }
    bias_filler {
      type: "constant"
      value: 0.2
    }
  }
}
layer {
  name: "conv2/relu_3x3_reduce"
  type: "ReLU"
  bottom: "conv2/3x3_reduce"
  top: "conv2/3x3_reduce"
}
layer {
  name: "conv2/3x3"
  type: "Convolution"
  bottom: "conv2/3x3_reduce"
  top: "conv2/3x3"
  param {
    lr_mult: 1
    decay_mult: 1
  }
  param {
    lr_mult: 2
    decay_mult: 0
  }
  convolution_param {
    num_output: 192
    pad: 1
    kernel_size: 3
    weight_filler {
      type: "xavier"
      std: 0.03
    }
    bias_filler {
      type: "constant"
      value: 0.2
    }
  }
}
layer {
  name: "conv2/relu_3x3"
  type: "ReLU"
  bottom: "conv2/3x3"
  top: "conv2/3x3"
}
layer {
  name: "conv2/norm2"
  type: "LRN"
  bottom: "conv2/3x3"
  top: "conv2/norm2"
  lrn_param {
    local_size: 5
    alpha: 0.0001
    beta: 0.75
  }
}
layer {
  name: "pool2/3x3_s2"
  type: "Pooling"
  bottom: "conv2/norm2"
  top: "pool2/3x3_s2"
  pooling_param {
    pool: MAX
    kernel_size: 3
    stride: 2
  }
}
layer {
  name: "inception_3a/1x1"
  type: "Convolution"
  bottom: "pool2/3x3_s2"
  top: "inception_3a/1x1"
  param {
    lr_mult: 1
    decay_mult: 1
  }
  param {
    lr_mult: 2
    decay_mult: 0
  }
  convolution_param {
    num_output: 64
    kernel_size: 1
    weight_filler {
      type: "xavier"
      std: 0.03
    }
    bias_filler {
      type: "constant"
      value: 0.2
    }
  }
}
layer {
  name: "inception_3a/relu_1x1"
  type: "ReLU"
  bottom: "inception_3a/1x1"
  top: "inception_3a/1x1"
}
layer {
  name: "inception_3a/3x3_reduce"
  type: "Convolution"
  bottom: "pool2/3x3_s2"
  top: "inception_3a/3x3_reduce"
  param {
    lr_mult: 1
    decay_mult: 1
  }
  param {
    lr_mult: 2
    decay_mult: 0
  }
  convolution_param {
    num_output: 96
    kernel_size: 1
    weight_filler {
      type: "xavier"
      std: 0.09
    }
    bias_filler {
      type: "constant"
      value: 0.2
    }
  }
}
layer {
  name: "inception_3a/relu_3x3_reduce"
  type: "ReLU"
  bottom: "inception_3a/3x3_reduce"
  top: "inception_3a/3x3_reduce"
}
layer {
  name: "inception_3a/3x3"
  type: "Convolution"
  bottom: "inception_3a/3x3_reduce"
  top: "inception_3a/3x3"
  param {
    lr_mult: 1
    decay_mult: 1
  }
  param {
    lr_mult: 2
    decay_mult: 0
  }
  convolution_param {
    num_output: 128
    pad: 1
    kernel_size: 3
    weight_filler {
      type: "xavier"
      std: 0.03
    }
    bias_filler {
      type: "constant"
      value: 0.2
    }
  }
}
layer {
  name: "inception_3a/relu_3x3"
  type: "ReLU"
  bottom: "inception_3a/3x3"
  top: "inception_3a/3x3"
}
layer {
  name: "inception_3a/5x5_reduce"
  type: "Convolution"
  bottom: "pool2/3x3_s2"
  top: "inception_3a/5x5_reduce"
  param {
    lr_mult: 1
    decay_mult: 1
  }
  param {
    lr_mult: 2
    decay_mult: 0
  }
  convolution_param {
    num_output: 16
    kernel_size: 1
    weight_filler {
      type: "xavier"
      std: 0.2
    }
    bias_filler {
      type: "constant"
      value: 0.2
    }
  }
}
layer {
  name: "inception_3a/relu_5x5_reduce"
  type: "ReLU"
  bottom: "inception_3a/5x5_reduce"
  top: "inception_3a/5x5_reduce"
}
layer {
  name: "inception_3a/5x5"
  type: "Convolution"
  bottom: "inception_3a/5x5_reduce"
  top: "inception_3a/5x5"
  param {
    lr_mult: 1
    decay_mult: 1
  }
  param {
    lr_mult: 2
    decay_mult: 0
  }
  convolution_param {
    num_output: 32
    pad: 2
    kernel_size: 5
    weight_filler {
      type: "xavier"
      std: 0.03
    }
    bias_filler {
      type: "constant"
      value: 0.2
    }
  }
}
layer {
  name: "inception_3a/relu_5x5"
  type: "ReLU"
  bottom: "inception_3a/5x5"
  top: "inception_3a/5x5"
}
layer {
  name: "inception_3a/pool"
  type: "Pooling"
  bottom: "pool2/3x3_s2"
  top: "inception_3a/pool"
  pooling_param {
    pool: MAX
    kernel_size: 3
    stride: 1
    pad: 1
  }
}
layer {
  name: "inception_3a/pool_proj"
  type: "Convolution"
  bottom: "inception_3a/pool"
  top: "inception_3a/pool_proj"
  param {
    lr_mult: 1
    decay_mult: 1
  }
  param {
    lr_mult: 2
    decay_mult: 0
  }
  convolution_param {
    num_output: 32
    kernel_size: 1
    weight_filler {
      type: "xavier"
      std: 0.1
    }
    bias_filler {
      type: "constant"
      value: 0.2
    }
  }
}
layer {
  name: "inception_3a/relu_pool_proj"
  type: "ReLU"
  bottom: "inception_3a/pool_proj"
  top: "inception_3a/pool_proj"
}
layer {
  name: "inception_3a/output"
  type: "Concat"
  bottom: "inception_3a/1x1"
  bottom: "inception_3a/3x3"
  bottom: "inception_3a/5x5"
  bottom: "inception_3a/pool_proj"
  top: "inception_3a/output"
}
layer {
  name: "inception_3b/1x1"
  type: "Convolution"
  bottom: "inception_3a/output"
  top: "inception_3b/1x1"
  param {
    lr_mult: 1
    decay_mult: 1
  }
  param {
    lr_mult: 2
    decay_mult: 0
  }
  convolution_param {
    num_output: 128
    kernel_size: 1
    weight_filler {
      type: "xavier"
      std: 0.03
    }
    bias_filler {
      type: "constant"
      value: 0.2
    }
  }
}
layer {
  name: "inception_3b/relu_1x1"
  type: "ReLU"
  bottom: "inception_3b/1x1"
  top: "inception_3b/1x1"
}
layer {
  name: "inception_3b/3x3_reduce"
  type: "Convolution"
  bottom: "inception_3a/output"
  top: "inception_3b/3x3_reduce"
  param {
    lr_mult: 1
    decay_mult: 1
  }
  param {
    lr_mult: 2
    decay_mult: 0
  }
  convolution_param {
    num_output: 128
    kernel_size: 1
    weight_filler {
      type: "xavier"
      std: 0.09
    }
    bias_filler {
      type: "constant"
      value: 0.2
    }
  }
}
layer {
  name: "inception_3b/relu_3x3_reduce"
  type: "ReLU"
  bottom: "inception_3b/3x3_reduce"
  top: "inception_3b/3x3_reduce"
}
layer {
  name: "inception_3b/3x3"
  type: "Convolution"
  bottom: "inception_3b/3x3_reduce"
  top: "inception_3b/3x3"
  param {
    lr_mult: 1
    decay_mult: 1
  }
  param {
    lr_mult: 2
    decay_mult: 0
  }
  convolution_param {
    num_output: 192
    pad: 1
    kernel_size: 3
    weight_filler {
      type: "xavier"
      std: 0.03
    }
    bias_filler {
      type: "constant"
      value: 0.2
    }
  }
}
layer {
  name: "inception_3b/relu_3x3"
  type: "ReLU"
  bottom: "inception_3b/3x3"
  top: "inception_3b/3x3"
}
layer {
  name: "inception_3b/5x5_reduce"
  type: "Convolution"
  bottom: "inception_3a/output"
  top: "inception_3b/5x5_reduce"
  param {
    lr_mult: 1
    decay_mult: 1
  }
  param {
    lr_mult: 2
    decay_mult: 0
  }
  convolution_param {
    num_output: 32
    kernel_size: 1
    weight_filler {
      type: "xavier"
      std: 0.2
    }
    bias_filler {
      type: "constant"
      value: 0.2
    }
  }
}
layer {
  name: "inception_3b/relu_5x5_reduce"
  type: "ReLU"
  bottom: "inception_3b/5x5_reduce"
  top: "inception_3b/5x5_reduce"
}
layer {
  name: "inception_3b/5x5"
  type: "Convolution"
  bottom: "inception_3b/5x5_reduce"
  top: "inception_3b/5x5"
  param {
    lr_mult: 1
    decay_mult: 1
  }
  param {
    lr_mult: 2
    decay_mult: 0
  }
  convolution_param {
    num_output: 96
    pad: 2
    kernel_size: 5
    weight_filler {
      type: "xavier"
      std: 0.03
    }
    bias_filler {
      type: "constant"
      value: 0.2
    }
  }
}
layer {
  name: "inception_3b/relu_5x5"
  type: "ReLU"
  bottom: "inception_3b/5x5"
  top: "inception_3b/5x5"
}
layer {
  name: "inception_3b/pool"
  type: "Pooling"
  bottom: "inception_3a/output"
  top: "inception_3b/pool"
  pooling_param {
    pool: MAX
    kernel_size: 3
    stride: 1
    pad: 1
  }
}
layer {
  name: "inception_3b/pool_proj"
  type: "Convolution"
  bottom: "inception_3b/pool"
  top: "inception_3b/pool_proj"
  param {
    lr_mult: 1
    decay_mult: 1
  }
  param {
    lr_mult: 2
    decay_mult: 0
  }
  convolution_param {
    num_output: 64
    kernel_size: 1
    weight_filler {
      type: "xavier"
      std: 0.1
    }
    bias_filler {
      type: "constant"
      value: 0.2
    }
  }
}
layer {
  name: "inception_3b/relu_pool_proj"
  type: "ReLU"
  bottom: "inception_3b/pool_proj"
  top: "inception_3b/pool_proj"
}
layer {
  name: "inception_3b/output"
  type: "Concat"
  bottom: "inception_3b/1x1"
  bottom: "inception_3b/3x3"
  bottom: "inception_3b/5x5"
  bottom: "inception_3b/pool_proj"
  top: "inception_3b/output"
}
layer {
  name: "pool3/3x3_s2"
  type: "Pooling"
  bottom: "inception_3b/output"
  top: "pool3/3x3_s2"
  pooling_param {
    pool: MAX
    kernel_size: 3
    stride: 2
  }
}
layer {
  name: "inception_4a/1x1"
  type: "Convolution"
  bottom: "pool3/3x3_s2"
  top: "inception_4a/1x1"
  param {
    lr_mult: 1
    decay_mult: 1
  }
  param {
    lr_mult: 2
    decay_mult: 0
  }
  convolution_param {
    num_output: 192
    kernel_size: 1
    weight_filler {
      type: "xavier"
      std: 0.03
    }
    bias_filler {
      type: "constant"
      value: 0.2
    }
  }
}
layer {
  name: "inception_4a/relu_1x1"
  type: "ReLU"
  bottom: "inception_4a/1x1"
  top: "inception_4a/1x1"
}
layer {
  name: "inception_4a/3x3_reduce"
  type: "Convolution"
  bottom: "pool3/3x3_s2"
  top: "inception_4a/3x3_reduce"
  param {
    lr_mult: 1
    decay_mult: 1
  }
  param {
    lr_mult: 2
    decay_mult: 0
  }
  convolution_param {
    num_output: 96
    kernel_size: 1
    weight_filler {
      type: "xavier"
      std: 0.09
    }
    bias_filler {
      type: "constant"
      value: 0.2
    }
  }
}
layer {
  name: "inception_4a/relu_3x3_reduce"
  type: "ReLU"
  bottom: "inception_4a/3x3_reduce"
  top: "inception_4a/3x3_reduce"
}
layer {
  name: "inception_4a/3x3"
  type: "Convolution"
  bottom: "inception_4a/3x3_reduce"
  top: "inception_4a/3x3"
  param {
    lr_mult: 1
    decay_mult: 1
  }
  param {
    lr_mult: 2
    decay_mult: 0
  }
  convolution_param {
    num_output: 208
    pad: 1
    kernel_size: 3
    weight_filler {
      type: "xavier"
      std: 0.03
    }
    bias_filler {
      type: "constant"
      value: 0.2
    }
  }
}
layer {
  name: "inception_4a/relu_3x3"
  type: "ReLU"
  bottom: "inception_4a/3x3"
  top: "inception_4a/3x3"
}
layer {
  name: "inception_4a/5x5_reduce"
  type: "Convolution"
  bottom: "pool3/3x3_s2"
  top: "inception_4a/5x5_reduce"
  param {
    lr_mult: 1
    decay_mult: 1
  }
  param {
    lr_mult: 2
    decay_mult: 0
  }
  convolution_param {
    num_output: 16
    kernel_size: 1
    weight_filler {
      type: "xavier"
      std: 0.2
    }
    bias_filler {
      type: "constant"
      value: 0.2
    }
  }
}
layer {
  name: "inception_4a/relu_5x5_reduce"
  type: "ReLU"
  bottom: "inception_4a/5x5_reduce"
  top: "inception_4a/5x5_reduce"
}
layer {
  name: "inception_4a/5x5"
  type: "Convolution"
  bottom: "inception_4a/5x5_reduce"
  top: "inception_4a/5x5"
  param {
    lr_mult: 1
    decay_mult: 1
  }
  param {
    lr_mult: 2
    decay_mult: 0
  }
  convolution_param {
    num_output: 48
    pad: 2
    kernel_size: 5
    weight_filler {
      type: "xavier"
      std: 0.03
    }
    bias_filler {
      type: "constant"
      value: 0.2
    }
  }
}
layer {
  name: "inception_4a/relu_5x5"
  type: "ReLU"
  bottom: "inception_4a/5x5"
  top: "inception_4a/5x5"
}
layer {
  name: "inception_4a/pool"
  type: "Pooling"
  bottom: "pool3/3x3_s2"
  top: "inception_4a/pool"
  pooling_param {
    pool: MAX
    kernel_size: 3
    stride: 1
    pad: 1
  }
}
layer {
  name: "inception_4a/pool_proj"
  type: "Convolution"
  bottom: "inception_4a/pool"
  top: "inception_4a/pool_proj"
  param {
    lr_mult: 1
    decay_mult: 1
  }
  param {
    lr_mult: 2
    decay_mult: 0
  }
  convolution_param {
    num_output: 64
    kernel_size: 1
    weight_filler {
      type: "xavier"
      std: 0.1
    }
    bias_filler {
      type: "constant"
      value: 0.2
    }
  }
}
layer {
  name: "inception_4a/relu_pool_proj"
  type: "ReLU"
  bottom: "inception_4a/pool_proj"
  top: "inception_4a/pool_proj"
}
layer {
  name: "inception_4a/output"
  type: "Concat"
  bottom: "inception_4a/1x1"
  bottom: "inception_4a/3x3"
  bottom: "inception_4a/5x5"
  bottom: "inception_4a/pool_proj"
  top: "inception_4a/output"
}
layer {
  name: "loss1/ave_pool"
  type: "Pooling"
  bottom: "inception_4a/output"
  top: "loss1/ave_pool"
  pooling_param {
    pool: AVE
    kernel_size: 5
    stride: 3
  }
}
layer {
  name: "loss1/conv"
  type: "Convolution"
  bottom: "loss1/ave_pool"
  top: "loss1/conv"
  param {
    lr_mult: 1
    decay_mult: 1
  }
  param {
    lr_mult: 2
    decay_mult: 0
  }
  convolution_param {
    num_output: 128
    kernel_size: 1
    weight_filler {
      type: "xavier"
      std: 0.08
    }
    bias_filler {
      type: "constant"
      value: 0.2
    }
  }
}
layer {
  name: "loss1/relu_conv"
  type: "ReLU"
  bottom: "loss1/conv"
  top: "loss1/conv"
}
layer {
  name: "loss1/fc"
  type: "InnerProduct"
  bottom: "loss1/conv"
  top: "loss1/fc"
  param {
    lr_mult: 1
    decay_mult: 1
  }
  param {
    lr_mult: 2
    decay_mult: 0
  }
  inner_product_param {
    num_output: 1024
    weight_filler {
      type: "xavier"
      std: 0.02
    }
    bias_filler {
      type: "constant"
      value: 0.2
    }
  }
}
layer {
  name: "loss1/relu_fc"
  type: "ReLU"
  bottom: "loss1/fc"
  top: "loss1/fc"
}
layer {
  name: "loss1/drop_fc"
  type: "Dropout"
  bottom: "loss1/fc"
  top: "loss1/fc"
  dropout_param {
    dropout_ratio: 0.7
  }
}
layer {
  name: "loss1/classifier_plantvillage"
  type: "InnerProduct"
  bottom: "loss1/fc"
  top: "loss1/classifier_plantvillage"
  param {
    lr_mult: 1
    decay_mult: 1
  }
  param {
    lr_mult: 2
    decay_mult: 0
  }
  inner_product_param {
    num_output: 38
    weight_filler {
      type: "xavier"
      std: 0.0009765625
    }
    bias_filler {
      type: "constant"
      value: 0
    }
  }
}
layer {
  name: "inception_4b/1x1"
  type: "Convolution"
  bottom: "inception_4a/output"
  top: "inception_4b/1x1"
  param {
    lr_mult: 1
    decay_mult: 1
  }
  param {
    lr_mult: 2
    decay_mult: 0
  }
  convolution_param {
    num_output: 160
    kernel_size: 1
    weight_filler {
      type: "xavier"
      std: 0.03
    }
    bias_filler {
      type: "constant"
      value: 0.2
    }
  }
}
layer {
  name: "inception_4b/relu_1x1"
  type: "ReLU"
  bottom: "inception_4b/1x1"
  top: "inception_4b/1x1"
}
layer {
  name: "inception_4b/3x3_reduce"
  type: "Convolution"
  bottom: "inception_4a/output"
  top: "inception_4b/3x3_reduce"
  param {
    lr_mult: 1
    decay_mult: 1
  }
  param {
    lr_mult: 2
    decay_mult: 0
  }
  convolution_param {
    num_output: 112
    kernel_size: 1
    weight_filler {
      type: "xavier"
      std: 0.09
    }
    bias_filler {
      type: "constant"
      value: 0.2
    }
  }
}
layer {
  name: "inception_4b/relu_3x3_reduce"
  type: "ReLU"
  bottom: "inception_4b/3x3_reduce"
  top: "inception_4b/3x3_reduce"
}
layer {
  name: "inception_4b/3x3"
  type: "Convolution"
  bottom: "inception_4b/3x3_reduce"
  top: "inception_4b/3x3"
  param {
    lr_mult: 1
    decay_mult: 1
  }
  param {
    lr_mult: 2
    decay_mult: 0
  }
  convolution_param {
    num_output: 224
    pad: 1
    kernel_size: 3
    weight_filler {
      type: "xavier"
      std: 0.03
    }
    bias_filler {
      type: "constant"
      value: 0.2
    }
  }
}
layer {
  name: "inception_4b/relu_3x3"
  type: "ReLU"
  bottom: "inception_4b/3x3"
  top: "inception_4b/3x3"
}
layer {
  name: "inception_4b/5x5_reduce"
  type: "Convolution"
  bottom: "inception_4a/output"
  top: "inception_4b/5x5_reduce"
  param {
    lr_mult: 1
    decay_mult: 1
  }
  param {
    lr_mult: 2
    decay_mult: 0
  }
  convolution_param {
    num_output: 24
    kernel_size: 1
    weight_filler {
      type: "xavier"
      std: 0.2
    }
    bias_filler {
      type: "constant"
      value: 0.2
    }
  }
}
layer {
  name: "inception_4b/relu_5x5_reduce"
  type: "ReLU"
  bottom: "inception_4b/5x5_reduce"
  top: "inception_4b/5x5_reduce"
}
layer {
  name: "inception_4b/5x5"
  type: "Convolution"
  bottom: "inception_4b/5x5_reduce"
  top: "inception_4b/5x5"
  param {
    lr_mult: 1
    decay_mult: 1
  }
  param {
    lr_mult: 2
    decay_mult: 0
  }
  convolution_param {
    num_output: 64
    pad: 2
    kernel_size: 5
    weight_filler {
      type: "xavier"
      std: 0.03
    }
    bias_filler {
      type: "constant"
      value: 0.2
    }
  }
}
layer {
  name: "inception_4b/relu_5x5"
  type: "ReLU"
  bottom: "inception_4b/5x5"
  top: "inception_4b/5x5"
}
layer {
  name: "inception_4b/pool"
  type: "Pooling"
  bottom: "inception_4a/output"
  top: "inception_4b/pool"
  pooling_param {
    pool: MAX
    kernel_size: 3
    stride: 1
    pad: 1
  }
}
layer {
  name: "inception_4b/pool_proj"
  type: "Convolution"
  bottom: "inception_4b/pool"
  top: "inception_4b/pool_proj"
  param {
    lr_mult: 1
    decay_mult: 1
  }
  param {
    lr_mult: 2
    decay_mult: 0
  }
  convolution_param {
    num_output: 64
    kernel_size: 1
    weight_filler {
      type: "xavier"
      std: 0.1
    }
    bias_filler {
      type: "constant"
      value: 0.2
    }
  }
}
layer {
  name: "inception_4b/relu_pool_proj"
  type: "ReLU"
  bottom: "inception_4b/pool_proj"
  top: "inception_4b/pool_proj"
}
layer {
  name: "inception_4b/output"
  type: "Concat"
  bottom: "inception_4b/1x1"
  bottom: "inception_4b/3x3"
  bottom: "inception_4b/5x5"
  bottom: "inception_4b/pool_proj"
  top: "inception_4b/output"
}
layer {
  name: "inception_4c/1x1"
  type: "Convolution"
  bottom: "inception_4b/output"
  top: "inception_4c/1x1"
  param {
    lr_mult: 1
    decay_mult: 1
  }
  param {
    lr_mult: 2
    decay_mult: 0
  }
  convolution_param {
    num_output: 128
    kernel_size: 1
    weight_filler {
      type: "xavier"
      std: 0.03
    }
    bias_filler {
      type: "constant"
      value: 0.2
    }
  }
}
layer {
  name: "inception_4c/relu_1x1"
  type: "ReLU"
  bottom: "inception_4c/1x1"
  top: "inception_4c/1x1"
}
layer {
  name: "inception_4c/3x3_reduce"
  type: "Convolution"
  bottom: "inception_4b/output"
  top: "inception_4c/3x3_reduce"
  param {
    lr_mult: 1
    decay_mult: 1
  }
  param {
    lr_mult: 2
    decay_mult: 0
  }
  convolution_param {
    num_output: 128
    kernel_size: 1
    weight_filler {
      type: "xavier"
      std: 0.09
    }
    bias_filler {
      type: "constant"
      value: 0.2
    }
  }
}
layer {
  name: "inception_4c/relu_3x3_reduce"
  type: "ReLU"
  bottom: "inception_4c/3x3_reduce"
  top: "inception_4c/3x3_reduce"
}
layer {
  name: "inception_4c/3x3"
  type: "Convolution"
  bottom: "inception_4c/3x3_reduce"
  top: "inception_4c/3x3"
  param {
    lr_mult: 1
    decay_mult: 1
  }
  param {
    lr_mult: 2
    decay_mult: 0
  }
  convolution_param {
    num_output: 256
    pad: 1
    kernel_size: 3
    weight_filler {
      type: "xavier"
      std: 0.03
    }
    bias_filler {
      type: "constant"
      value: 0.2
    }
  }
}
layer {
  name: "inception_4c/relu_3x3"
  type: "ReLU"
  bottom: "inception_4c/3x3"
  top: "inception_4c/3x3"
}
layer {
  name: "inception_4c/5x5_reduce"
  type: "Convolution"
  bottom: "inception_4b/output"
  top: "inception_4c/5x5_reduce"
  param {
    lr_mult: 1
    decay_mult: 1
  }
  param {
    lr_mult: 2
    decay_mult: 0
  }
  convolution_param {
    num_output: 24
    kernel_size: 1
    weight_filler {
      type: "xavier"
      std: 0.2
    }
    bias_filler {
      type: "constant"
      value: 0.2
    }
  }
}
layer {
  name: "inception_4c/relu_5x5_reduce"
  type: "ReLU"
  bottom: "inception_4c/5x5_reduce"
  top: "inception_4c/5x5_reduce"
}
layer {
  name: "inception_4c/5x5"
  type: "Convolution"
  bottom: "inception_4c/5x5_reduce"
  top: "inception_4c/5x5"
  param {
    lr_mult: 1
    decay_mult: 1
  }
  param {
    lr_mult: 2
    decay_mult: 0
  }
  convolution_param {
    num_output: 64
    pad: 2
    kernel_size: 5
    weight_filler {
      type: "xavier"
      std: 0.03
    }
    bias_filler {
      type: "constant"
      value: 0.2
    }
  }
}
layer {
  name: "inception_4c/relu_5x5"
  type: "ReLU"
  bottom: "inception_4c/5x5"
  top: "inception_4c/5x5"
}
layer {
  name: "inception_4c/pool"
  type: "Pooling"
  bottom: "inception_4b/output"
  top: "inception_4c/pool"
  pooling_param {
    pool: MAX
    kernel_size: 3
    stride: 1
    pad: 1
  }
}
layer {
  name: "inception_4c/pool_proj"
  type: "Convolution"
  bottom: "inception_4c/pool"
  top: "inception_4c/pool_proj"
  param {
    lr_mult: 1
    decay_mult: 1
  }
  param {
    lr_mult: 2
    decay_mult: 0
  }
  convolution_param {
    num_output: 64
    kernel_size: 1
    weight_filler {
      type: "xavier"
      std: 0.1
    }
    bias_filler {
      type: "constant"
      value: 0.2
    }
  }
}
layer {
  name: "inception_4c/relu_pool_proj"
  type: "ReLU"
  bottom: "inception_4c/pool_proj"
  top: "inception_4c/pool_proj"
}
layer {
  name: "inception_4c/output"
  type: "Concat"
  bottom: "inception_4c/1x1"
  bottom: "inception_4c/3x3"
  bottom: "inception_4c/5x5"
  bottom: "inception_4c/pool_proj"
  top: "inception_4c/output"
}
layer {
  name: "inception_4d/1x1"
  type: "Convolution"
  bottom: "inception_4c/output"
  top: "inception_4d/1x1"
  param {
    lr_mult: 1
    decay_mult: 1
  }
  param {
    lr_mult: 2
    decay_mult: 0
  }
  convolution_param {
    num_output: 112
    kernel_size: 1
    weight_filler {
      type: "xavier"
      std: 0.03
    }
    bias_filler {
      type: "constant"
      value: 0.2
    }
  }
}
layer {
  name: "inception_4d/relu_1x1"
  type: "ReLU"
  bottom: "inception_4d/1x1"
  top: "inception_4d/1x1"
}
layer {
  name: "inception_4d/3x3_reduce"
  type: "Convolution"
  bottom: "inception_4c/output"
  top: "inception_4d/3x3_reduce"
  param {
    lr_mult: 1
    decay_mult: 1
  }
  param {
    lr_mult: 2
    decay_mult: 0
  }
  convolution_param {
    num_output: 144
    kernel_size: 1
    weight_filler {
      type: "xavier"
      std: 0.09
    }
    bias_filler {
      type: "constant"
      value: 0.2
    }
  }
}
layer {
  name: "inception_4d/relu_3x3_reduce"
  type: "ReLU"
  bottom: "inception_4d/3x3_reduce"
  top: "inception_4d/3x3_reduce"
}
layer {
  name: "inception_4d/3x3"
  type: "Convolution"
  bottom: "inception_4d/3x3_reduce"
  top: "inception_4d/3x3"
  param {
    lr_mult: 1
    decay_mult: 1
  }
  param {
    lr_mult: 2
    decay_mult: 0
  }
  convolution_param {
    num_output: 288
    pad: 1
    kernel_size: 3
    weight_filler {
      type: "xavier"
      std: 0.03
    }
    bias_filler {
      type: "constant"
      value: 0.2
    }
  }
}
layer {
  name: "inception_4d/relu_3x3"
  type: "ReLU"
  bottom: "inception_4d/3x3"
  top: "inception_4d/3x3"
}
layer {
  name: "inception_4d/5x5_reduce"
  type: "Convolution"
  bottom: "inception_4c/output"
  top: "inception_4d/5x5_reduce"
  param {
    lr_mult: 1
    decay_mult: 1
  }
  param {
    lr_mult: 2
    decay_mult: 0
  }
  convolution_param {
    num_output: 32
    kernel_size: 1
    weight_filler {
      type: "xavier"
      std: 0.2
    }
    bias_filler {
      type: "constant"
      value: 0.2
    }
  }
}
layer {
  name: "inception_4d/relu_5x5_reduce"
  type: "ReLU"
  bottom: "inception_4d/5x5_reduce"
  top: "inception_4d/5x5_reduce"
}
layer {
  name: "inception_4d/5x5"
  type: "Convolution"
  bottom: "inception_4d/5x5_reduce"
  top: "inception_4d/5x5"
  param {
    lr_mult: 1
    decay_mult: 1
  }
  param {
    lr_mult: 2
    decay_mult: 0
  }
  convolution_param {
    num_output: 64
    pad: 2
    kernel_size: 5
    weight_filler {
      type: "xavier"
      std: 0.03
    }
    bias_filler {
      type: "constant"
      value: 0.2
    }
  }
}
layer {
  name: "inception_4d/relu_5x5"
  type: "ReLU"
  bottom: "inception_4d/5x5"
  top: "inception_4d/5x5"
}
layer {
  name: "inception_4d/pool"
  type: "Pooling"
  bottom: "inception_4c/output"
  top: "inception_4d/pool"
  pooling_param {
    pool: MAX
    kernel_size: 3
    stride: 1
    pad: 1
  }
}
layer {
  name: "inception_4d/pool_proj"
  type: "Convolution"
  bottom: "inception_4d/pool"
  top: "inception_4d/pool_proj"
  param {
    lr_mult: 1
    decay_mult: 1
  }
  param {
    lr_mult: 2
    decay_mult: 0
  }
  convolution_param {
    num_output: 64
    kernel_size: 1
    weight_filler {
      type: "xavier"
      std: 0.1
    }
    bias_filler {
      type: "constant"
      value: 0.2
    }
  }
}
layer {
  name: "inception_4d/relu_pool_proj"
  type: "ReLU"
  bottom: "inception_4d/pool_proj"
  top: "inception_4d/pool_proj"
}
layer {
  name: "inception_4d/output"
  type: "Concat"
  bottom: "inception_4d/1x1"
  bottom: "inception_4d/3x3"
  bottom: "inception_4d/5x5"
  bottom: "inception_4d/pool_proj"
  top: "inception_4d/output"
}
layer {
  name: "loss2/ave_pool"
  type: "Pooling"
  bottom: "inception_4d/output"
  top: "loss2/ave_pool"
  pooling_param {
    pool: AVE
    kernel_size: 5
    stride: 3
  }
}
layer {
  name: "loss2/conv"
  type: "Convolution"
  bottom: "loss2/ave_pool"
  top: "loss2/conv"
  param {
    lr_mult: 1
    decay_mult: 1
  }
  param {
    lr_mult: 2
    decay_mult: 0
  }
  convolution_param {
    num_output: 128
    kernel_size: 1
    weight_filler {
      type: "xavier"
      std: 0.08
    }
    bias_filler {
      type: "constant"
      value: 0.2
    }
  }
}
layer {
  name: "loss2/relu_conv"
  type: "ReLU"
  bottom: "loss2/conv"
  top: "loss2/conv"
}
layer {
  name: "loss2/fc"
  type: "InnerProduct"
  bottom: "loss2/conv"
  top: "loss2/fc"
  param {
    lr_mult: 1
    decay_mult: 1
  }
  param {
    lr_mult: 2
    decay_mult: 0
  }
  inner_product_param {
    num_output: 1024
    weight_filler {
      type: "xavier"
      std: 0.02
    }
    bias_filler {
      type: "constant"
      value: 0.2
    }
  }
}
layer {
  name: "loss2/relu_fc"
  type: "ReLU"
  bottom: "loss2/fc"
  top: "loss2/fc"
}
layer {
  name: "loss2/drop_fc"
  type: "Dropout"
  bottom: "loss2/fc"
  top: "loss2/fc"
  dropout_param {
    dropout_ratio: 0.7
  }
}
layer {
  name: "loss2/classifier_plantvillage"
  type: "InnerProduct"
  bottom: "loss2/fc"
  top: "loss2/classifier_plantvillage"
  param {
    lr_mult: 1
    decay_mult: 1
  }
  param {
    lr_mult: 2
    decay_mult: 0
  }
  inner_product_param {
    num_output: 38
    weight_filler {
      type: "xavier"
      std: 0.0009765625
    }
    bias_filler {
      type: "constant"
      value: 0
    }
  }
}
layer {
  name: "inception_4e/1x1"
  type: "Convolution"
  bottom: "inception_4d/output"
  top: "inception_4e/1x1"
  param {
    lr_mult: 1
    decay_mult: 1
  }
  param {
    lr_mult: 2
    decay_mult: 0
  }
  convolution_param {
    num_output: 256
    kernel_size: 1
    weight_filler {
      type: "xavier"
      std: 0.03
    }
    bias_filler {
      type: "constant"
      value: 0.2
    }
  }
}
layer {
  name: "inception_4e/relu_1x1"
  type: "ReLU"
  bottom: "inception_4e/1x1"
  top: "inception_4e/1x1"
}
layer {
  name: "inception_4e/3x3_reduce"
  type: "Convolution"
  bottom: "inception_4d/output"
  top: "inception_4e/3x3_reduce"
  param {
    lr_mult: 1
    decay_mult: 1
  }
  param {
    lr_mult: 2
    decay_mult: 0
  }
  convolution_param {
    num_output: 160
    kernel_size: 1
    weight_filler {
      type: "xavier"
      std: 0.09
    }
    bias_filler {
      type: "constant"
      value: 0.2
    }
  }
}
layer {
  name: "inception_4e/relu_3x3_reduce"
  type: "ReLU"
  bottom: "inception_4e/3x3_reduce"
  top: "inception_4e/3x3_reduce"
}
layer {
  name: "inception_4e/3x3"
  type: "Convolution"
  bottom: "inception_4e/3x3_reduce"
  top: "inception_4e/3x3"
  param {
    lr_mult: 1
    decay_mult: 1
  }
  param {
    lr_mult: 2
    decay_mult: 0
  }
  convolution_param {
    num_output: 320
    pad: 1
    kernel_size: 3
    weight_filler {
      type: "xavier"
      std: 0.03
    }
    bias_filler {
      type: "constant"
      value: 0.2
    }
  }
}
layer {
  name: "inception_4e/relu_3x3"
  type: "ReLU"
  bottom: "inception_4e/3x3"
  top: "inception_4e/3x3"
}
layer {
  name: "inception_4e/5x5_reduce"
  type: "Convolution"
  bottom: "inception_4d/output"
  top: "inception_4e/5x5_reduce"
  param {
    lr_mult: 1
    decay_mult: 1
  }
  param {
    lr_mult: 2
    decay_mult: 0
  }
  convolution_param {
    num_output: 32
    kernel_size: 1
    weight_filler {
      type: "xavier"
      std: 0.2
    }
    bias_filler {
      type: "constant"
      value: 0.2
    }
  }
}
layer {
  name: "inception_4e/relu_5x5_reduce"
  type: "ReLU"
  bottom: "inception_4e/5x5_reduce"
  top: "inception_4e/5x5_reduce"
}
layer {
  name: "inception_4e/5x5"
  type: "Convolution"
  bottom: "inception_4e/5x5_reduce"
  top: "inception_4e/5x5"
  p
I0403 21:37:12.951249 12246 layer_factory.hpp:77] Creating layer data
I0403 21:37:12.952771 12246 net.cpp:91] Creating Layer data
I0403 21:37:12.952862 12246 net.cpp:399] data -> data
I0403 21:37:12.952985 12246 net.cpp:399] data -> label
I0403 21:37:12.953073 12246 data_transformer.cpp:25] Loading mean file from: /home/mohanty/data/final_dataset/lmdb/color-80-20/mean.binaryproto
I0403 21:37:12.955325 12248 db_lmdb.cpp:38] Opened lmdb /home/mohanty/data/final_dataset/lmdb/color-80-20/test_db
I0403 21:37:12.971503 12246 data_layer.cpp:41] output data size: 24,3,224,224
I0403 21:37:12.999307 12246 net.cpp:141] Setting up data
I0403 21:37:12.999402 12246 net.cpp:148] Top shape: 24 3 224 224 (3612672)
I0403 21:37:12.999424 12246 net.cpp:148] Top shape: 24 (24)
I0403 21:37:12.999439 12246 net.cpp:156] Memory required for data: 14450784
I0403 21:37:12.999467 12246 layer_factory.hpp:77] Creating layer label_data_1_split
I0403 21:37:12.999493 12246 net.cpp:91] Creating Layer label_data_1_split
I0403 21:37:12.999511 12246 net.cpp:425] label_data_1_split <- label
I0403 21:37:12.999539 12246 net.cpp:399] label_data_1_split -> label_data_1_split_0
I0403 21:37:12.999567 12246 net.cpp:399] label_data_1_split -> label_data_1_split_1
I0403 21:37:12.999588 12246 net.cpp:399] label_data_1_split -> label_data_1_split_2
I0403 21:37:12.999609 12246 net.cpp:399] label_data_1_split -> label_data_1_split_3
I0403 21:37:12.999629 12246 net.cpp:399] label_data_1_split -> label_data_1_split_4
I0403 21:37:12.999649 12246 net.cpp:399] label_data_1_split -> label_data_1_split_5
I0403 21:37:12.999666 12246 net.cpp:399] label_data_1_split -> label_data_1_split_6
I0403 21:37:12.999686 12246 net.cpp:399] label_data_1_split -> label_data_1_split_7
I0403 21:37:12.999704 12246 net.cpp:399] label_data_1_split -> label_data_1_split_8
I0403 21:37:12.999723 12246 net.cpp:399] label_data_1_split -> label_data_1_split_9
I0403 21:37:12.999831 12246 net.cpp:141] Setting up label_data_1_split
I0403 21:37:12.999855 12246 net.cpp:148] Top shape: 24 (24)
I0403 21:37:12.999871 12246 net.cpp:148] Top shape: 24 (24)
I0403 21:37:12.999886 12246 net.cpp:148] Top shape: 24 (24)
I0403 21:37:12.999902 12246 net.cpp:148] Top shape: 24 (24)
I0403 21:37:12.999917 12246 net.cpp:148] Top shape: 24 (24)
I0403 21:37:12.999933 12246 net.cpp:148] Top shape: 24 (24)
I0403 21:37:12.999948 12246 net.cpp:148] Top shape: 24 (24)
I0403 21:37:12.999963 12246 net.cpp:148] Top shape: 24 (24)
I0403 21:37:12.999979 12246 net.cpp:148] Top shape: 24 (24)
I0403 21:37:12.999994 12246 net.cpp:148] Top shape: 24 (24)
I0403 21:37:13.000043 12246 net.cpp:156] Memory required for data: 14451744
I0403 21:37:13.000061 12246 layer_factory.hpp:77] Creating layer conv1/7x7_s2
I0403 21:37:13.000092 12246 net.cpp:91] Creating Layer conv1/7x7_s2
I0403 21:37:13.000110 12246 net.cpp:425] conv1/7x7_s2 <- data
I0403 21:37:13.000129 12246 net.cpp:399] conv1/7x7_s2 -> conv1/7x7_s2
I0403 21:37:13.163949 12246 net.cpp:141] Setting up conv1/7x7_s2
I0403 21:37:13.164042 12246 net.cpp:148] Top shape: 24 64 112 112 (19267584)
I0403 21:37:13.164060 12246 net.cpp:156] Memory required for data: 91522080
I0403 21:37:13.164091 12246 layer_factory.hpp:77] Creating layer conv1/relu_7x7
I0403 21:37:13.164119 12246 net.cpp:91] Creating Layer conv1/relu_7x7
I0403 21:37:13.164139 12246 net.cpp:425] conv1/relu_7x7 <- conv1/7x7_s2
I0403 21:37:13.164158 12246 net.cpp:386] conv1/relu_7x7 -> conv1/7x7_s2 (in-place)
I0403 21:37:13.164425 12246 net.cpp:141] Setting up conv1/relu_7x7
I0403 21:37:13.164451 12246 net.cpp:148] Top shape: 24 64 112 112 (19267584)
I0403 21:37:13.164468 12246 net.cpp:156] Memory required for data: 168592416
I0403 21:37:13.164482 12246 layer_factory.hpp:77] Creating layer pool1/3x3_s2
I0403 21:37:13.164510 12246 net.cpp:91] Creating Layer pool1/3x3_s2
I0403 21:37:13.164527 12246 net.cpp:425] pool1/3x3_s2 <- conv1/7x7_s2
I0403 21:37:13.164546 12246 net.cpp:399] pool1/3x3_s2 -> pool1/3x3_s2
I0403 21:37:13.164621 12246 net.cpp:141] Setting up pool1/3x3_s2
I0403 21:37:13.164645 12246 net.cpp:148] Top shape: 24 64 56 56 (4816896)
I0403 21:37:13.164660 12246 net.cpp:156] Memory required for data: 187860000
I0403 21:37:13.164675 12246 layer_factory.hpp:77] Creating layer pool1/norm1
I0403 21:37:13.164701 12246 net.cpp:91] Creating Layer pool1/norm1
I0403 21:37:13.164719 12246 net.cpp:425] pool1/norm1 <- pool1/3x3_s2
I0403 21:37:13.164737 12246 net.cpp:399] pool1/norm1 -> pool1/norm1
I0403 21:37:13.165035 12246 net.cpp:141] Setting up pool1/norm1
I0403 21:37:13.165060 12246 net.cpp:148] Top shape: 24 64 56 56 (4816896)
I0403 21:37:13.165076 12246 net.cpp:156] Memory required for data: 207127584
I0403 21:37:13.165091 12246 layer_factory.hpp:77] Creating layer conv2/3x3_reduce
I0403 21:37:13.165118 12246 net.cpp:91] Creating Layer conv2/3x3_reduce
I0403 21:37:13.165134 12246 net.cpp:425] conv2/3x3_reduce <- pool1/norm1
I0403 21:37:13.165155 12246 net.cpp:399] conv2/3x3_reduce -> conv2/3x3_reduce
I0403 21:37:13.166544 12246 net.cpp:141] Setting up conv2/3x3_reduce
I0403 21:37:13.166573 12246 net.cpp:148] Top shape: 24 64 56 56 (4816896)
I0403 21:37:13.166589 12246 net.cpp:156] Memory required for data: 226395168
I0403 21:37:13.166610 12246 layer_factory.hpp:77] Creating layer conv2/relu_3x3_reduce
I0403 21:37:13.166627 12246 net.cpp:91] Creating Layer conv2/relu_3x3_reduce
I0403 21:37:13.166642 12246 net.cpp:425] conv2/relu_3x3_reduce <- conv2/3x3_reduce
I0403 21:37:13.166661 12246 net.cpp:386] conv2/relu_3x3_reduce -> conv2/3x3_reduce (in-place)
I0403 21:37:13.166923 12246 net.cpp:141] Setting up conv2/relu_3x3_reduce
I0403 21:37:13.166949 12246 net.cpp:148] Top shape: 24 64 56 56 (4816896)
I0403 21:37:13.166963 12246 net.cpp:156] Memory required for data: 245662752
I0403 21:37:13.166980 12246 layer_factory.hpp:77] Creating layer conv2/3x3
I0403 21:37:13.167003 12246 net.cpp:91] Creating Layer conv2/3x3
I0403 21:37:13.167021 12246 net.cpp:425] conv2/3x3 <- conv2/3x3_reduce
I0403 21:37:13.167042 12246 net.cpp:399] conv2/3x3 -> conv2/3x3
I0403 21:37:13.169281 12246 net.cpp:141] Setting up conv2/3x3
I0403 21:37:13.169312 12246 net.cpp:148] Top shape: 24 192 56 56 (14450688)
I0403 21:37:13.169327 12246 net.cpp:156] Memory required for data: 303465504
I0403 21:37:13.169348 12246 layer_factory.hpp:77] Creating layer conv2/relu_3x3
I0403 21:37:13.169366 12246 net.cpp:91] Creating Layer conv2/relu_3x3
I0403 21:37:13.169383 12246 net.cpp:425] conv2/relu_3x3 <- conv2/3x3
I0403 21:37:13.169401 12246 net.cpp:386] conv2/relu_3x3 -> conv2/3x3 (in-place)
I0403 21:37:13.169572 12246 net.cpp:141] Setting up conv2/relu_3x3
I0403 21:37:13.169600 12246 net.cpp:148] Top shape: 24 192 56 56 (14450688)
I0403 21:37:13.169646 12246 net.cpp:156] Memory required for data: 361268256
I0403 21:37:13.169662 12246 layer_factory.hpp:77] Creating layer conv2/norm2
I0403 21:37:13.169679 12246 net.cpp:91] Creating Layer conv2/norm2
I0403 21:37:13.169695 12246 net.cpp:425] conv2/norm2 <- conv2/3x3
I0403 21:37:13.169714 12246 net.cpp:399] conv2/norm2 -> conv2/norm2
I0403 21:37:13.170008 12246 net.cpp:141] Setting up conv2/norm2
I0403 21:37:13.170035 12246 net.cpp:148] Top shape: 24 192 56 56 (14450688)
I0403 21:37:13.170050 12246 net.cpp:156] Memory required for data: 419071008
I0403 21:37:13.170065 12246 layer_factory.hpp:77] Creating layer pool2/3x3_s2
I0403 21:37:13.170083 12246 net.cpp:91] Creating Layer pool2/3x3_s2
I0403 21:37:13.170097 12246 net.cpp:425] pool2/3x3_s2 <- conv2/norm2
I0403 21:37:13.170123 12246 net.cpp:399] pool2/3x3_s2 -> pool2/3x3_s2
I0403 21:37:13.170176 12246 net.cpp:141] Setting up pool2/3x3_s2
I0403 21:37:13.170203 12246 net.cpp:148] Top shape: 24 192 28 28 (3612672)
I0403 21:37:13.170218 12246 net.cpp:156] Memory required for data: 433521696
I0403 21:37:13.170233 12246 layer_factory.hpp:77] Creating layer pool2/3x3_s2_pool2/3x3_s2_0_split
I0403 21:37:13.170253 12246 net.cpp:91] Creating Layer pool2/3x3_s2_pool2/3x3_s2_0_split
I0403 21:37:13.170269 12246 net.cpp:425] pool2/3x3_s2_pool2/3x3_s2_0_split <- pool2/3x3_s2
I0403 21:37:13.170285 12246 net.cpp:399] pool2/3x3_s2_pool2/3x3_s2_0_split -> pool2/3x3_s2_pool2/3x3_s2_0_split_0
I0403 21:37:13.170305 12246 net.cpp:399] pool2/3x3_s2_pool2/3x3_s2_0_split -> pool2/3x3_s2_pool2/3x3_s2_0_split_1
I0403 21:37:13.170328 12246 net.cpp:399] pool2/3x3_s2_pool2/3x3_s2_0_split -> pool2/3x3_s2_pool2/3x3_s2_0_split_2
I0403 21:37:13.170347 12246 net.cpp:399] pool2/3x3_s2_pool2/3x3_s2_0_split -> pool2/3x3_s2_pool2/3x3_s2_0_split_3
I0403 21:37:13.170415 12246 net.cpp:141] Setting up pool2/3x3_s2_pool2/3x3_s2_0_split
I0403 21:37:13.170438 12246 net.cpp:148] Top shape: 24 192 28 28 (3612672)
I0403 21:37:13.170454 12246 net.cpp:148] Top shape: 24 192 28 28 (3612672)
I0403 21:37:13.170469 12246 net.cpp:148] Top shape: 24 192 28 28 (3612672)
I0403 21:37:13.170485 12246 net.cpp:148] Top shape: 24 192 28 28 (3612672)
I0403 21:37:13.170500 12246 net.cpp:156] Memory required for data: 491324448
I0403 21:37:13.170513 12246 layer_factory.hpp:77] Creating layer inception_3a/1x1
I0403 21:37:13.170536 12246 net.cpp:91] Creating Layer inception_3a/1x1
I0403 21:37:13.170553 12246 net.cpp:425] inception_3a/1x1 <- pool2/3x3_s2_pool2/3x3_s2_0_split_0
I0403 21:37:13.170574 12246 net.cpp:399] inception_3a/1x1 -> inception_3a/1x1
I0403 21:37:13.172092 12246 net.cpp:141] Setting up inception_3a/1x1
I0403 21:37:13.172122 12246 net.cpp:148] Top shape: 24 64 28 28 (1204224)
I0403 21:37:13.172138 12246 net.cpp:156] Memory required for data: 496141344
I0403 21:37:13.172157 12246 layer_factory.hpp:77] Creating layer inception_3a/relu_1x1
I0403 21:37:13.172174 12246 net.cpp:91] Creating Layer inception_3a/relu_1x1
I0403 21:37:13.172204 12246 net.cpp:425] inception_3a/relu_1x1 <- inception_3a/1x1
I0403 21:37:13.172224 12246 net.cpp:386] inception_3a/relu_1x1 -> inception_3a/1x1 (in-place)
I0403 21:37:13.172396 12246 net.cpp:141] Setting up inception_3a/relu_1x1
I0403 21:37:13.172420 12246 net.cpp:148] Top shape: 24 64 28 28 (1204224)
I0403 21:37:13.172435 12246 net.cpp:156] Memory required for data: 500958240
I0403 21:37:13.172449 12246 layer_factory.hpp:77] Creating layer inception_3a/3x3_reduce
I0403 21:37:13.172472 12246 net.cpp:91] Creating Layer inception_3a/3x3_reduce
I0403 21:37:13.172489 12246 net.cpp:425] inception_3a/3x3_reduce <- pool2/3x3_s2_pool2/3x3_s2_0_split_1
I0403 21:37:13.172510 12246 net.cpp:399] inception_3a/3x3_reduce -> inception_3a/3x3_reduce
I0403 21:37:13.174170 12246 net.cpp:141] Setting up inception_3a/3x3_reduce
I0403 21:37:13.174201 12246 net.cpp:148] Top shape: 24 96 28 28 (1806336)
I0403 21:37:13.174217 12246 net.cpp:156] Memory required for data: 508183584
I0403 21:37:13.174239 12246 layer_factory.hpp:77] Creating layer inception_3a/relu_3x3_reduce
I0403 21:37:13.174276 12246 net.cpp:91] Creating Layer inception_3a/relu_3x3_reduce
I0403 21:37:13.174294 12246 net.cpp:425] inception_3a/relu_3x3_reduce <- inception_3a/3x3_reduce
I0403 21:37:13.174312 12246 net.cpp:386] inception_3a/relu_3x3_reduce -> inception_3a/3x3_reduce (in-place)
I0403 21:37:13.174489 12246 net.cpp:141] Setting up inception_3a/relu_3x3_reduce
I0403 21:37:13.174515 12246 net.cpp:148] Top shape: 24 96 28 28 (1806336)
I0403 21:37:13.174528 12246 net.cpp:156] Memory required for data: 515408928
I0403 21:37:13.174543 12246 layer_factory.hpp:77] Creating layer inception_3a/3x3
I0403 21:37:13.174566 12246 net.cpp:91] Creating Layer inception_3a/3x3
I0403 21:37:13.174582 12246 net.cpp:425] inception_3a/3x3 <- inception_3a/3x3_reduce
I0403 21:37:13.174604 12246 net.cpp:399] inception_3a/3x3 -> inception_3a/3x3
I0403 21:37:13.176203 12246 net.cpp:141] Setting up inception_3a/3x3
I0403 21:37:13.176230 12246 net.cpp:148] Top shape: 24 128 28 28 (2408448)
I0403 21:37:13.176246 12246 net.cpp:156] Memory required for data: 525042720
I0403 21:37:13.176265 12246 layer_factory.hpp:77] Creating layer inception_3a/relu_3x3
I0403 21:37:13.176285 12246 net.cpp:91] Creating Layer inception_3a/relu_3x3
I0403 21:37:13.176301 12246 net.cpp:425] inception_3a/relu_3x3 <- inception_3a/3x3
I0403 21:37:13.176319 12246 net.cpp:386] inception_3a/relu_3x3 -> inception_3a/3x3 (in-place)
I0403 21:37:13.176587 12246 net.cpp:141] Setting up inception_3a/relu_3x3
I0403 21:37:13.176614 12246 net.cpp:148] Top shape: 24 128 28 28 (2408448)
I0403 21:37:13.176630 12246 net.cpp:156] Memory required for data: 534676512
I0403 21:37:13.176645 12246 layer_factory.hpp:77] Creating layer inception_3a/5x5_reduce
I0403 21:37:13.176668 12246 net.cpp:91] Creating Layer inception_3a/5x5_reduce
I0403 21:37:13.176686 12246 net.cpp:425] inception_3a/5x5_reduce <- pool2/3x3_s2_pool2/3x3_s2_0_split_2
I0403 21:37:13.176707 12246 net.cpp:399] inception_3a/5x5_reduce -> inception_3a/5x5_reduce
I0403 21:37:13.177644 12246 net.cpp:141] Setting up inception_3a/5x5_reduce
I0403 21:37:13.177671 12246 net.cpp:148] Top shape: 24 16 28 28 (301056)
I0403 21:37:13.177686 12246 net.cpp:156] Memory required for data: 535880736
I0403 21:37:13.177705 12246 layer_factory.hpp:77] Creating layer inception_3a/relu_5x5_reduce
I0403 21:37:13.177724 12246 net.cpp:91] Creating Layer inception_3a/relu_5x5_reduce
I0403 21:37:13.177742 12246 net.cpp:425] inception_3a/relu_5x5_reduce <- inception_3a/5x5_reduce
I0403 21:37:13.177759 12246 net.cpp:386] inception_3a/relu_5x5_reduce -> inception_3a/5x5_reduce (in-place)
I0403 21:37:13.178026 12246 net.cpp:141] Setting up inception_3a/relu_5x5_reduce
I0403 21:37:13.178055 12246 net.cpp:148] Top shape: 24 16 28 28 (301056)
I0403 21:37:13.178071 12246 net.cpp:156] Memory required for data: 537084960
I0403 21:37:13.178086 12246 layer_factory.hpp:77] Creating layer inception_3a/5x5
I0403 21:37:13.178105 12246 net.cpp:91] Creating Layer inception_3a/5x5
I0403 21:37:13.178122 12246 net.cpp:425] inception_3a/5x5 <- inception_3a/5x5_reduce
I0403 21:37:13.178143 12246 net.cpp:399] inception_3a/5x5 -> inception_3a/5x5
I0403 21:37:13.179119 12246 net.cpp:141] Setting up inception_3a/5x5
I0403 21:37:13.179147 12246 net.cpp:148] Top shape: 24 32 28 28 (602112)
I0403 21:37:13.179160 12246 net.cpp:156] Memory required for data: 539493408
I0403 21:37:13.179183 12246 layer_factory.hpp:77] Creating layer inception_3a/relu_5x5
I0403 21:37:13.179205 12246 net.cpp:91] Creating Layer inception_3a/relu_5x5
I0403 21:37:13.179221 12246 net.cpp:425] inception_3a/relu_5x5 <- inception_3a/5x5
I0403 21:37:13.179239 12246 net.cpp:386] inception_3a/relu_5x5 -> inception_3a/5x5 (in-place)
I0403 21:37:13.179409 12246 net.cpp:141] Setting up inception_3a/relu_5x5
I0403 21:37:13.179432 12246 net.cpp:148] Top shape: 24 32 28 28 (602112)
I0403 21:37:13.179447 12246 net.cpp:156] Memory required for data: 541901856
I0403 21:37:13.179462 12246 layer_factory.hpp:77] Creating layer inception_3a/pool
I0403 21:37:13.179482 12246 net.cpp:91] Creating Layer inception_3a/pool
I0403 21:37:13.179498 12246 net.cpp:425] inception_3a/pool <- pool2/3x3_s2_pool2/3x3_s2_0_split_3
I0403 21:37:13.179529 12246 net.cpp:399] inception_3a/pool -> inception_3a/pool
I0403 21:37:13.179587 12246 net.cpp:141] Setting up inception_3a/pool
I0403 21:37:13.179610 12246 net.cpp:148] Top shape: 24 192 28 28 (3612672)
I0403 21:37:13.179625 12246 net.cpp:156] Memory required for data: 556352544
I0403 21:37:13.179639 12246 layer_factory.hpp:77] Creating layer inception_3a/pool_proj
I0403 21:37:13.179662 12246 net.cpp:91] Creating Layer inception_3a/pool_proj
I0403 21:37:13.179679 12246 net.cpp:425] inception_3a/pool_proj <- inception_3a/pool
I0403 21:37:13.179702 12246 net.cpp:399] inception_3a/pool_proj -> inception_3a/pool_proj
I0403 21:37:13.180622 12246 net.cpp:141] Setting up inception_3a/pool_proj
I0403 21:37:13.180652 12246 net.cpp:148] Top shape: 24 32 28 28 (602112)
I0403 21:37:13.180670 12246 net.cpp:156] Memory required for data: 558760992
I0403 21:37:13.180691 12246 layer_factory.hpp:77] Creating layer inception_3a/relu_pool_proj
I0403 21:37:13.180711 12246 net.cpp:91] Creating Layer inception_3a/relu_pool_proj
I0403 21:37:13.180728 12246 net.cpp:425] inception_3a/relu_pool_proj <- inception_3a/pool_proj
I0403 21:37:13.180745 12246 net.cpp:386] inception_3a/relu_pool_proj -> inception_3a/pool_proj (in-place)
I0403 21:37:13.181005 12246 net.cpp:141] Setting up inception_3a/relu_pool_proj
I0403 21:37:13.181031 12246 net.cpp:148] Top shape: 24 32 28 28 (602112)
I0403 21:37:13.181046 12246 net.cpp:156] Memory required for data: 561169440
I0403 21:37:13.181061 12246 layer_factory.hpp:77] Creating layer inception_3a/output
I0403 21:37:13.181078 12246 net.cpp:91] Creating Layer inception_3a/output
I0403 21:37:13.181094 12246 net.cpp:425] inception_3a/output <- inception_3a/1x1
I0403 21:37:13.181113 12246 net.cpp:425] inception_3a/output <- inception_3a/3x3
I0403 21:37:13.181130 12246 net.cpp:425] inception_3a/output <- inception_3a/5x5
I0403 21:37:13.181146 12246 net.cpp:425] inception_3a/output <- inception_3a/pool_proj
I0403 21:37:13.181164 12246 net.cpp:399] inception_3a/output -> inception_3a/output
I0403 21:37:13.181211 12246 net.cpp:141] Setting up inception_3a/output
I0403 21:37:13.181237 12246 net.cpp:148] Top shape: 24 256 28 28 (4816896)
I0403 21:37:13.181253 12246 net.cpp:156] Memory required for data: 580437024
I0403 21:37:13.181268 12246 layer_factory.hpp:77] Creating layer inception_3a/output_inception_3a/output_0_split
I0403 21:37:13.181285 12246 net.cpp:91] Creating Layer inception_3a/output_inception_3a/output_0_split
I0403 21:37:13.181299 12246 net.cpp:425] inception_3a/output_inception_3a/output_0_split <- inception_3a/output
I0403 21:37:13.181318 12246 net.cpp:399] inception_3a/output_inception_3a/output_0_split -> inception_3a/output_inception_3a/output_0_split_0
I0403 21:37:13.181339 12246 net.cpp:399] inception_3a/output_inception_3a/output_0_split -> inception_3a/output_inception_3a/output_0_split_1
I0403 21:37:13.181360 12246 net.cpp:399] inception_3a/output_inception_3a/output_0_split -> inception_3a/output_inception_3a/output_0_split_2
I0403 21:37:13.181380 12246 net.cpp:399] inception_3a/output_inception_3a/output_0_split -> inception_3a/output_inception_3a/output_0_split_3
I0403 21:37:13.181453 12246 net.cpp:141] Setting up inception_3a/output_inception_3a/output_0_split
I0403 21:37:13.181476 12246 net.cpp:148] Top shape: 24 256 28 28 (4816896)
I0403 21:37:13.181493 12246 net.cpp:148] Top shape: 24 256 28 28 (4816896)
I0403 21:37:13.181509 12246 net.cpp:148] Top shape: 24 256 28 28 (4816896)
I0403 21:37:13.181524 12246 net.cpp:148] Top shape: 24 256 28 28 (4816896)
I0403 21:37:13.181538 12246 net.cpp:156] Memory required for data: 657507360
I0403 21:37:13.181553 12246 layer_factory.hpp:77] Creating layer inception_3b/1x1
I0403 21:37:13.181576 12246 net.cpp:91] Creating Layer inception_3b/1x1
I0403 21:37:13.181593 12246 net.cpp:425] inception_3b/1x1 <- inception_3a/output_inception_3a/output_0_split_0
I0403 21:37:13.181614 12246 net.cpp:399] inception_3b/1x1 -> inception_3b/1x1
I0403 21:37:13.182713 12246 net.cpp:141] Setting up inception_3b/1x1
I0403 21:37:13.182752 12246 net.cpp:148] Top shape: 24 128 28 28 (2408448)
I0403 21:37:13.182767 12246 net.cpp:156] Memory required for data: 667141152
I0403 21:37:13.182786 12246 layer_factory.hpp:77] Creating layer inception_3b/relu_1x1
I0403 21:37:13.182804 12246 net.cpp:91] Creating Layer inception_3b/relu_1x1
I0403 21:37:13.182821 12246 net.cpp:425] inception_3b/relu_1x1 <- inception_3b/1x1
I0403 21:37:13.182839 12246 net.cpp:386] inception_3b/relu_1x1 -> inception_3b/1x1 (in-place)
I0403 21:37:13.183012 12246 net.cpp:141] Setting up inception_3b/relu_1x1
I0403 21:37:13.183037 12246 net.cpp:148] Top shape: 24 128 28 28 (2408448)
I0403 21:37:13.183051 12246 net.cpp:156] Memory required for data: 676774944
I0403 21:37:13.183065 12246 layer_factory.hpp:77] Creating layer inception_3b/3x3_reduce
I0403 21:37:13.183087 12246 net.cpp:91] Creating Layer inception_3b/3x3_reduce
I0403 21:37:13.183105 12246 net.cpp:425] inception_3b/3x3_reduce <- inception_3a/output_inception_3a/output_0_split_1
I0403 21:37:13.183126 12246 net.cpp:399] inception_3b/3x3_reduce -> inception_3b/3x3_reduce
I0403 21:37:13.184223 12246 net.cpp:141] Setting up inception_3b/3x3_reduce
I0403 21:37:13.184253 12246 net.cpp:148] Top shape: 24 128 28 28 (2408448)
I0403 21:37:13.184269 12246 net.cpp:156] Memory required for data: 686408736
I0403 21:37:13.184286 12246 layer_factory.hpp:77] Creating layer inception_3b/relu_3x3_reduce
I0403 21:37:13.184304 12246 net.cpp:91] Creating Layer inception_3b/relu_3x3_reduce
I0403 21:37:13.184319 12246 net.cpp:425] inception_3b/relu_3x3_reduce <- inception_3b/3x3_reduce
I0403 21:37:13.184339 12246 net.cpp:386] inception_3b/relu_3x3_reduce -> inception_3b/3x3_reduce (in-place)
I0403 21:37:13.184507 12246 net.cpp:141] Setting up inception_3b/relu_3x3_reduce
I0403 21:37:13.184531 12246 net.cpp:148] Top shape: 24 128 28 28 (2408448)
I0403 21:37:13.184546 12246 net.cpp:156] Memory required for data: 696042528
I0403 21:37:13.184561 12246 layer_factory.hpp:77] Creating layer inception_3b/3x3
I0403 21:37:13.184586 12246 net.cpp:91] Creating Layer inception_3b/3x3
I0403 21:37:13.184603 12246 net.cpp:425] inception_3b/3x3 <- inception_3b/3x3_reduce
I0403 21:37:13.184622 12246 net.cpp:399] inception_3b/3x3 -> inception_3b/3x3
I0403 21:37:13.187513 12246 net.cpp:141] Setting up inception_3b/3x3
I0403 21:37:13.187541 12246 net.cpp:148] Top shape: 24 192 28 28 (3612672)
I0403 21:37:13.187557 12246 net.cpp:156] Memory required for data: 710493216
I0403 21:37:13.187575 12246 layer_factory.hpp:77] Creating layer inception_3b/relu_3x3
I0403 21:37:13.187595 12246 net.cpp:91] Creating Layer inception_3b/relu_3x3
I0403 21:37:13.187613 12246 net.cpp:425] inception_3b/relu_3x3 <- inception_3b/3x3
I0403 21:37:13.187629 12246 net.cpp:386] inception_3b/relu_3x3 -> inception_3b/3x3 (in-place)
I0403 21:37:13.187894 12246 net.cpp:141] Setting up inception_3b/relu_3x3
I0403 21:37:13.187919 12246 net.cpp:148] Top shape: 24 192 28 28 (3612672)
I0403 21:37:13.187934 12246 net.cpp:156] Memory required for data: 724943904
I0403 21:37:13.187949 12246 layer_factory.hpp:77] Creating layer inception_3b/5x5_reduce
I0403 21:37:13.187971 12246 net.cpp:91] Creating Layer inception_3b/5x5_reduce
I0403 21:37:13.187988 12246 net.cpp:425] inception_3b/5x5_reduce <- inception_3a/output_inception_3a/output_0_split_2
I0403 21:37:13.188010 12246 net.cpp:399] inception_3b/5x5_reduce -> inception_3b/5x5_reduce
I0403 21:37:13.188974 12246 net.cpp:141] Setting up inception_3b/5x5_reduce
I0403 21:37:13.189002 12246 net.cpp:148] Top shape: 24 32 28 28 (602112)
I0403 21:37:13.189018 12246 net.cpp:156] Memory required for data: 727352352
I0403 21:37:13.189036 12246 layer_factory.hpp:77] Creating layer inception_3b/relu_5x5_reduce
I0403 21:37:13.189055 12246 net.cpp:91] Creating Layer inception_3b/relu_5x5_reduce
I0403 21:37:13.189074 12246 net.cpp:425] inception_3b/relu_5x5_reduce <- inception_3b/5x5_reduce
I0403 21:37:13.189090 12246 net.cpp:386] inception_3b/relu_5x5_reduce -> inception_3b/5x5_reduce (in-place)
I0403 21:37:13.189262 12246 net.cpp:141] Setting up inception_3b/relu_5x5_reduce
I0403 21:37:13.189299 12246 net.cpp:148] Top shape: 24 32 28 28 (602112)
I0403 21:37:13.189314 12246 net.cpp:156] Memory required for data: 729760800
I0403 21:37:13.189330 12246 layer_factory.hpp:77] Creating layer inception_3b/5x5
I0403 21:37:13.189353 12246 net.cpp:91] Creating Layer inception_3b/5x5
I0403 21:37:13.189370 12246 net.cpp:425] inception_3b/5x5 <- inception_3b/5x5_reduce
I0403 21:37:13.189389 12246 net.cpp:399] inception_3b/5x5 -> inception_3b/5x5
I0403 21:37:13.191337 12246 net.cpp:141] Setting up inception_3b/5x5
I0403 21:37:13.191370 12246 net.cpp:148] Top shape: 24 96 28 28 (1806336)
I0403 21:37:13.191386 12246 net.cpp:156] Memory required for data: 736986144
I0403 21:37:13.191404 12246 layer_factory.hpp:77] Creating layer inception_3b/relu_5x5
I0403 21:37:13.191421 12246 net.cpp:91] Creating Layer inception_3b/relu_5x5
I0403 21:37:13.191437 12246 net.cpp:425] inception_3b/relu_5x5 <- inception_3b/5x5
I0403 21:37:13.191455 12246 net.cpp:386] inception_3b/relu_5x5 -> inception_3b/5x5 (in-place)
I0403 21:37:13.191643 12246 net.cpp:141] Setting up inception_3b/relu_5x5
I0403 21:37:13.191669 12246 net.cpp:148] Top shape: 24 96 28 28 (1806336)
I0403 21:37:13.191684 12246 net.cpp:156] Memory required for data: 744211488
I0403 21:37:13.191699 12246 layer_factory.hpp:77] Creating layer inception_3b/pool
I0403 21:37:13.191716 12246 net.cpp:91] Creating Layer inception_3b/pool
I0403 21:37:13.191732 12246 net.cpp:425] inception_3b/pool <- inception_3a/output_inception_3a/output_0_split_3
I0403 21:37:13.191751 12246 net.cpp:399] inception_3b/pool -> inception_3b/pool
I0403 21:37:13.191804 12246 net.cpp:141] Setting up inception_3b/pool
I0403 21:37:13.191828 12246 net.cpp:148] Top shape: 24 256 28 28 (4816896)
I0403 21:37:13.191843 12246 net.cpp:156] Memory required for data: 763479072
I0403 21:37:13.191857 12246 layer_factory.hpp:77] Creating layer inception_3b/pool_proj
I0403 21:37:13.191880 12246 net.cpp:91] Creating Layer inception_3b/pool_proj
I0403 21:37:13.191898 12246 net.cpp:425] inception_3b/pool_proj <- inception_3b/pool
I0403 21:37:13.191916 12246 net.cpp:399] inception_3b/pool_proj -> inception_3b/pool_proj
I0403 21:37:13.192940 12246 net.cpp:141] Setting up inception_3b/pool_proj
I0403 21:37:13.192967 12246 net.cpp:148] Top shape: 24 64 28 28 (1204224)
I0403 21:37:13.192983 12246 net.cpp:156] Memory required for data: 768295968
I0403 21:37:13.193001 12246 layer_factory.hpp:77] Creating layer inception_3b/relu_pool_proj
I0403 21:37:13.193022 12246 net.cpp:91] Creating Layer inception_3b/relu_pool_proj
I0403 21:37:13.193038 12246 net.cpp:425] inception_3b/relu_pool_proj <- inception_3b/pool_proj
I0403 21:37:13.193056 12246 net.cpp:386] inception_3b/relu_pool_proj -> inception_3b/pool_proj (in-place)
I0403 21:37:13.193442 12246 net.cpp:141] Setting up inception_3b/relu_pool_proj
I0403 21:37:13.193470 12246 net.cpp:148] Top shape: 24 64 28 28 (1204224)
I0403 21:37:13.193485 12246 net.cpp:156] Memory required for data: 773112864
I0403 21:37:13.193500 12246 layer_factory.hpp:77] Creating layer inception_3b/output
I0403 21:37:13.193519 12246 net.cpp:91] Creating Layer inception_3b/output
I0403 21:37:13.193547 12246 net.cpp:425] inception_3b/output <- inception_3b/1x1
I0403 21:37:13.193564 12246 net.cpp:425] inception_3b/output <- inception_3b/3x3
I0403 21:37:13.193580 12246 net.cpp:425] inception_3b/output <- inception_3b/5x5
I0403 21:37:13.193595 12246 net.cpp:425] inception_3b/output <- inception_3b/pool_proj
I0403 21:37:13.193613 12246 net.cpp:399] inception_3b/output -> inception_3b/output
I0403 21:37:13.193655 12246 net.cpp:141] Setting up inception_3b/output
I0403 21:37:13.193678 12246 net.cpp:148] Top shape: 24 480 28 28 (9031680)
I0403 21:37:13.193692 12246 net.cpp:156] Memory required for data: 809239584
I0403 21:37:13.193707 12246 layer_factory.hpp:77] Creating layer pool3/3x3_s2
I0403 21:37:13.193724 12246 net.cpp:91] Creating Layer pool3/3x3_s2
I0403 21:37:13.193739 12246 net.cpp:425] pool3/3x3_s2 <- inception_3b/output
I0403 21:37:13.193759 12246 net.cpp:399] pool3/3x3_s2 -> pool3/3x3_s2
I0403 21:37:13.193828 12246 net.cpp:141] Setting up pool3/3x3_s2
I0403 21:37:13.193855 12246 net.cpp:148] Top shape: 24 480 14 14 (2257920)
I0403 21:37:13.193869 12246 net.cpp:156] Memory required for data: 818271264
I0403 21:37:13.193883 12246 layer_factory.hpp:77] Creating layer pool3/3x3_s2_pool3/3x3_s2_0_split
I0403 21:37:13.193900 12246 net.cpp:91] Creating Layer pool3/3x3_s2_pool3/3x3_s2_0_split
I0403 21:37:13.193915 12246 net.cpp:425] pool3/3x3_s2_pool3/3x3_s2_0_split <- pool3/3x3_s2
I0403 21:37:13.193933 12246 net.cpp:399] pool3/3x3_s2_pool3/3x3_s2_0_split -> pool3/3x3_s2_pool3/3x3_s2_0_split_0
I0403 21:37:13.193953 12246 net.cpp:399] pool3/3x3_s2_pool3/3x3_s2_0_split -> pool3/3x3_s2_pool3/3x3_s2_0_split_1
I0403 21:37:13.193974 12246 net.cpp:399] pool3/3x3_s2_pool3/3x3_s2_0_split -> pool3/3x3_s2_pool3/3x3_s2_0_split_2
I0403 21:37:13.193994 12246 net.cpp:399] pool3/3x3_s2_pool3/3x3_s2_0_split -> pool3/3x3_s2_pool3/3x3_s2_0_split_3
I0403 21:37:13.194067 12246 net.cpp:141] Setting up pool3/3x3_s2_pool3/3x3_s2_0_split
I0403 21:37:13.194090 12246 net.cpp:148] Top shape: 24 480 14 14 (2257920)
I0403 21:37:13.194106 12246 net.cpp:148] Top shape: 24 480 14 14 (2257920)
I0403 21:37:13.194121 12246 net.cpp:148] Top shape: 24 480 14 14 (2257920)
I0403 21:37:13.194139 12246 net.cpp:148] Top shape: 24 480 14 14 (2257920)
I0403 21:37:13.194152 12246 net.cpp:156] Memory required for data: 854397984
I0403 21:37:13.194166 12246 layer_factory.hpp:77] Creating layer inception_4a/1x1
I0403 21:37:13.194193 12246 net.cpp:91] Creating Layer inception_4a/1x1
I0403 21:37:13.194211 12246 net.cpp:425] inception_4a/1x1 <- pool3/3x3_s2_pool3/3x3_s2_0_split_0
I0403 21:37:13.194231 12246 net.cpp:399] inception_4a/1x1 -> inception_4a/1x1
I0403 21:37:13.195736 12246 net.cpp:141] Setting up inception_4a/1x1
I0403 21:37:13.195763 12246 net.cpp:148] Top shape: 24 192 14 14 (903168)
I0403 21:37:13.195778 12246 net.cpp:156] Memory required for data: 858010656
I0403 21:37:13.195799 12246 layer_factory.hpp:77] Creating layer inception_4a/relu_1x1
I0403 21:37:13.195816 12246 net.cpp:91] Creating Layer inception_4a/relu_1x1
I0403 21:37:13.195832 12246 net.cpp:425] inception_4a/relu_1x1 <- inception_4a/1x1
I0403 21:37:13.195848 12246 net.cpp:386] inception_4a/relu_1x1 -> inception_4a/1x1 (in-place)
I0403 21:37:13.196014 12246 net.cpp:141] Setting up inception_4a/relu_1x1
I0403 21:37:13.196038 12246 net.cpp:148] Top shape: 24 192 14 14 (903168)
I0403 21:37:13.196053 12246 net.cpp:156] Memory required for data: 861623328
I0403 21:37:13.196066 12246 layer_factory.hpp:77] Creating layer inception_4a/3x3_reduce
I0403 21:37:13.196087 12246 net.cpp:91] Creating Layer inception_4a/3x3_reduce
I0403 21:37:13.196105 12246 net.cpp:425] inception_4a/3x3_reduce <- pool3/3x3_s2_pool3/3x3_s2_0_split_1
I0403 21:37:13.196125 12246 net.cpp:399] inception_4a/3x3_reduce -> inception_4a/3x3_reduce
I0403 21:37:13.197319 12246 net.cpp:141] Setting up inception_4a/3x3_reduce
I0403 21:37:13.197347 12246 net.cpp:148] Top shape: 24 96 14 14 (451584)
I0403 21:37:13.197363 12246 net.cpp:156] Memory required for data: 863429664
I0403 21:37:13.197384 12246 layer_factory.hpp:77] Creating layer inception_4a/relu_3x3_reduce
I0403 21:37:13.197404 12246 net.cpp:91] Creating Layer inception_4a/relu_3x3_reduce
I0403 21:37:13.197420 12246 net.cpp:425] inception_4a/relu_3x3_reduce <- inception_4a/3x3_reduce
I0403 21:37:13.197438 12246 net.cpp:386] inception_4a/relu_3x3_reduce -> inception_4a/3x3_reduce (in-place)
I0403 21:37:13.197605 12246 net.cpp:141] Setting up inception_4a/relu_3x3_reduce
I0403 21:37:13.197630 12246 net.cpp:148] Top shape: 24 96 14 14 (451584)
I0403 21:37:13.197644 12246 net.cpp:156] Memory required for data: 865236000
I0403 21:37:13.197659 12246 layer_factory.hpp:77] Creating layer inception_4a/3x3
I0403 21:37:13.197679 12246 net.cpp:91] Creating Layer inception_4a/3x3
I0403 21:37:13.197697 12246 net.cpp:425] inception_4a/3x3 <- inception_4a/3x3_reduce
I0403 21:37:13.197718 12246 net.cpp:399] inception_4a/3x3 -> inception_4a/3x3
I0403 21:37:13.200297 12246 net.cpp:141] Setting up inception_4a/3x3
I0403 21:37:13.200327 12246 net.cpp:148] Top shape: 24 208 14 14 (978432)
I0403 21:37:13.200342 12246 net.cpp:156] Memory required for data: 869149728
I0403 21:37:13.200361 12246 layer_factory.hpp:77] Creating layer inception_4a/relu_3x3
I0403 21:37:13.200378 12246 net.cpp:91] Creating Layer inception_4a/relu_3x3
I0403 21:37:13.200393 12246 net.cpp:425] inception_4a/relu_3x3 <- inception_4a/3x3
I0403 21:37:13.200413 12246 net.cpp:386] inception_4a/relu_3x3 -> inception_4a/3x3 (in-place)
I0403 21:37:13.200675 12246 net.cpp:141] Setting up inception_4a/relu_3x3
I0403 21:37:13.200701 12246 net.cpp:148] Top shape: 24 208 14 14 (978432)
I0403 21:37:13.200716 12246 net.cpp:156] Memory required for data: 873063456
I0403 21:37:13.200731 12246 layer_factory.hpp:77] Creating layer inception_4a/5x5_reduce
I0403 21:37:13.200754 12246 net.cpp:91] Creating Layer inception_4a/5x5_reduce
I0403 21:37:13.200772 12246 net.cpp:425] inception_4a/5x5_reduce <- pool3/3x3_s2_pool3/3x3_s2_0_split_2
I0403 21:37:13.200793 12246 net.cpp:399] inception_4a/5x5_reduce -> inception_4a/5x5_reduce
I0403 21:37:13.201756 12246 net.cpp:141] Setting up inception_4a/5x5_reduce
I0403 21:37:13.201781 12246 net.cpp:148] Top shape: 24 16 14 14 (75264)
I0403 21:37:13.201797 12246 net.cpp:156] Memory required for data: 873364512
I0403 21:37:13.201814 12246 layer_factory.hpp:77] Creating layer inception_4a/relu_5x5_reduce
I0403 21:37:13.201834 12246 net.cpp:91] Creating Layer inception_4a/relu_5x5_reduce
I0403 21:37:13.201850 12246 net.cpp:425] inception_4a/relu_5x5_reduce <- inception_4a/5x5_reduce
I0403 21:37:13.201867 12246 net.cpp:386] inception_4a/relu_5x5_reduce -> inception_4a/5x5_reduce (in-place)
I0403 21:37:13.202035 12246 net.cpp:141] Setting up inception_4a/relu_5x5_reduce
I0403 21:37:13.202059 12246 net.cpp:148] Top shape: 24 16 14 14 (75264)
I0403 21:37:13.202075 12246 net.cpp:156] Memory required for data: 873665568
I0403 21:37:13.202088 12246 layer_factory.hpp:77] Creating layer inception_4a/5x5
I0403 21:37:13.202111 12246 net.cpp:91] Creating Layer inception_4a/5x5
I0403 21:37:13.202127 12246 net.cpp:425] inception_4a/5x5 <- inception_4a/5x5_reduce
I0403 21:37:13.202147 12246 net.cpp:399] inception_4a/5x5 -> inception_4a/5x5
I0403 21:37:13.203181 12246 net.cpp:141] Setting up inception_4a/5x5
I0403 21:37:13.203207 12246 net.cpp:148] Top shape: 24 48 14 14 (225792)
I0403 21:37:13.203223 12246 net.cpp:156] Memory required for data: 874568736
I0403 21:37:13.203241 12246 layer_factory.hpp:77] Creating layer inception_4a/relu_5x5
I0403 21:37:13.203260 12246 net.cpp:91] Creating Layer inception_4a/relu_5x5
I0403 21:37:13.203275 12246 net.cpp:425] inception_4a/relu_5x5 <- inception_4a/5x5
I0403 21:37:13.203292 12246 net.cpp:386] inception_4a/relu_5x5 -> inception_4a/5x5 (in-place)
I0403 21:37:13.203462 12246 net.cpp:141] Setting up inception_4a/relu_5x5
I0403 21:37:13.203491 12246 net.cpp:148] Top shape: 24 48 14 14 (225792)
I0403 21:37:13.203507 12246 net.cpp:156] Memory required for data: 875471904
I0403 21:37:13.203522 12246 layer_factory.hpp:77] Creating layer inception_4a/pool
I0403 21:37:13.203538 12246 net.cpp:91] Creating Layer inception_4a/pool
I0403 21:37:13.203553 12246 net.cpp:425] inception_4a/pool <- pool3/3x3_s2_pool3/3x3_s2_0_split_3
I0403 21:37:13.203573 12246 net.cpp:399] inception_4a/pool -> inception_4a/pool
I0403 21:37:13.203629 12246 net.cpp:141] Setting up inception_4a/pool
I0403 21:37:13.203652 12246 net.cpp:148] Top shape: 24 480 14 14 (2257920)
I0403 21:37:13.203667 12246 net.cpp:156] Memory required for data: 884503584
I0403 21:37:13.203681 12246 layer_factory.hpp:77] Creating layer inception_4a/pool_proj
I0403 21:37:13.203702 12246 net.cpp:91] Creating Layer inception_4a/pool_proj
I0403 21:37:13.203719 12246 net.cpp:425] inception_4a/pool_proj <- inception_4a/pool
I0403 21:37:13.203738 12246 net.cpp:399] inception_4a/pool_proj -> inception_4a/pool_proj
I0403 21:37:13.204843 12246 net.cpp:141] Setting up inception_4a/pool_proj
I0403 21:37:13.204875 12246 net.cpp:148] Top shape: 24 64 14 14 (301056)
I0403 21:37:13.204905 12246 net.cpp:156] Memory required for data: 885707808
I0403 21:37:13.204923 12246 layer_factory.hpp:77] Creating layer inception_4a/relu_pool_proj
I0403 21:37:13.204941 12246 net.cpp:91] Creating Layer inception_4a/relu_pool_proj
I0403 21:37:13.204955 12246 net.cpp:425] inception_4a/relu_pool_proj <- inception_4a/pool_proj
I0403 21:37:13.204972 12246 net.cpp:386] inception_4a/relu_pool_proj -> inception_4a/pool_proj (in-place)
I0403 21:37:13.205250 12246 net.cpp:141] Setting up inception_4a/relu_pool_proj
I0403 21:37:13.205278 12246 net.cpp:148] Top shape: 24 64 14 14 (301056)
I0403 21:37:13.205293 12246 net.cpp:156] Memory required for data: 886912032
I0403 21:37:13.205308 12246 layer_factory.hpp:77] Creating layer inception_4a/output
I0403 21:37:13.205324 12246 net.cpp:91] Creating Layer inception_4a/output
I0403 21:37:13.205339 12246 net.cpp:425] inception_4a/output <- inception_4a/1x1
I0403 21:37:13.205355 12246 net.cpp:425] inception_4a/output <- inception_4a/3x3
I0403 21:37:13.205371 12246 net.cpp:425] inception_4a/output <- inception_4a/5x5
I0403 21:37:13.205386 12246 net.cpp:425] inception_4a/output <- inception_4a/pool_proj
I0403 21:37:13.205402 12246 net.cpp:399] inception_4a/output -> inception_4a/output
I0403 21:37:13.205446 12246 net.cpp:141] Setting up inception_4a/output
I0403 21:37:13.205468 12246 net.cpp:148] Top shape: 24 512 14 14 (2408448)
I0403 21:37:13.205482 12246 net.cpp:156] Memory required for data: 896545824
I0403 21:37:13.205497 12246 layer_factory.hpp:77] Creating layer inception_4a/output_inception_4a/output_0_split
I0403 21:37:13.205515 12246 net.cpp:91] Creating Layer inception_4a/output_inception_4a/output_0_split
I0403 21:37:13.205531 12246 net.cpp:425] inception_4a/output_inception_4a/output_0_split <- inception_4a/output
I0403 21:37:13.205549 12246 net.cpp:399] inception_4a/output_inception_4a/output_0_split -> inception_4a/output_inception_4a/output_0_split_0
I0403 21:37:13.205567 12246 net.cpp:399] inception_4a/output_inception_4a/output_0_split -> inception_4a/output_inception_4a/output_0_split_1
I0403 21:37:13.205586 12246 net.cpp:399] inception_4a/output_inception_4a/output_0_split -> inception_4a/output_inception_4a/output_0_split_2
I0403 21:37:13.205606 12246 net.cpp:399] inception_4a/output_inception_4a/output_0_split -> inception_4a/output_inception_4a/output_0_split_3
I0403 21:37:13.205627 12246 net.cpp:399] inception_4a/output_inception_4a/output_0_split -> inception_4a/output_inception_4a/output_0_split_4
I0403 21:37:13.205714 12246 net.cpp:141] Setting up inception_4a/output_inception_4a/output_0_split
I0403 21:37:13.205736 12246 net.cpp:148] Top shape: 24 512 14 14 (2408448)
I0403 21:37:13.205754 12246 net.cpp:148] Top shape: 24 512 14 14 (2408448)
I0403 21:37:13.205768 12246 net.cpp:148] Top shape: 24 512 14 14 (2408448)
I0403 21:37:13.205783 12246 net.cpp:148] Top shape: 24 512 14 14 (2408448)
I0403 21:37:13.205798 12246 net.cpp:148] Top shape: 24 512 14 14 (2408448)
I0403 21:37:13.205811 12246 net.cpp:156] Memory required for data: 944714784
I0403 21:37:13.205826 12246 layer_factory.hpp:77] Creating layer loss1/ave_pool
I0403 21:37:13.205842 12246 net.cpp:91] Creating Layer loss1/ave_pool
I0403 21:37:13.205862 12246 net.cpp:425] loss1/ave_pool <- inception_4a/output_inception_4a/output_0_split_0
I0403 21:37:13.205879 12246 net.cpp:399] loss1/ave_pool -> loss1/ave_pool
I0403 21:37:13.206073 12246 net.cpp:141] Setting up loss1/ave_pool
I0403 21:37:13.206099 12246 net.cpp:148] Top shape: 24 512 4 4 (196608)
I0403 21:37:13.206115 12246 net.cpp:156] Memory required for data: 945501216
I0403 21:37:13.206128 12246 layer_factory.hpp:77] Creating layer loss1/conv
I0403 21:37:13.206149 12246 net.cpp:91] Creating Layer loss1/conv
I0403 21:37:13.206166 12246 net.cpp:425] loss1/conv <- loss1/ave_pool
I0403 21:37:13.206203 12246 net.cpp:399] loss1/conv -> loss1/conv
I0403 21:37:13.207612 12246 net.cpp:141] Setting up loss1/conv
I0403 21:37:13.207639 12246 net.cpp:148] Top shape: 24 128 4 4 (49152)
I0403 21:37:13.207655 12246 net.cpp:156] Memory required for data: 945697824
I0403 21:37:13.207687 12246 layer_factory.hpp:77] Creating layer loss1/relu_conv
I0403 21:37:13.207706 12246 net.cpp:91] Creating Layer loss1/relu_conv
I0403 21:37:13.207722 12246 net.cpp:425] loss1/relu_conv <- loss1/conv
I0403 21:37:13.207741 12246 net.cpp:386] loss1/relu_conv -> loss1/conv (in-place)
I0403 21:37:13.208019 12246 net.cpp:141] Setting up loss1/relu_conv
I0403 21:37:13.208045 12246 net.cpp:148] Top shape: 24 128 4 4 (49152)
I0403 21:37:13.208058 12246 net.cpp:156] Memory required for data: 945894432
I0403 21:37:13.208073 12246 layer_factory.hpp:77] Creating layer loss1/fc
I0403 21:37:13.208096 12246 net.cpp:91] Creating Layer loss1/fc
I0403 21:37:13.208113 12246 net.cpp:425] loss1/fc <- loss1/conv
I0403 21:37:13.208133 12246 net.cpp:399] loss1/fc -> loss1/fc
I0403 21:37:13.225841 12246 net.cpp:141] Setting up loss1/fc
I0403 21:37:13.225878 12246 net.cpp:148] Top shape: 24 1024 (24576)
I0403 21:37:13.225893 12246 net.cpp:156] Memory required for data: 945992736
I0403 21:37:13.225910 12246 layer_factory.hpp:77] Creating layer loss1/relu_fc
I0403 21:37:13.225931 12246 net.cpp:91] Creating Layer loss1/relu_fc
I0403 21:37:13.225947 12246 net.cpp:425] loss1/relu_fc <- loss1/fc
I0403 21:37:13.225963 12246 net.cpp:386] loss1/relu_fc -> loss1/fc (in-place)
I0403 21:37:13.226147 12246 net.cpp:141] Setting up loss1/relu_fc
I0403 21:37:13.226171 12246 net.cpp:148] Top shape: 24 1024 (24576)
I0403 21:37:13.226191 12246 net.cpp:156] Memory required for data: 946091040
I0403 21:37:13.226207 12246 layer_factory.hpp:77] Creating layer loss1/drop_fc
I0403 21:37:13.226233 12246 net.cpp:91] Creating Layer loss1/drop_fc
I0403 21:37:13.226248 12246 net.cpp:425] loss1/drop_fc <- loss1/fc
I0403 21:37:13.226269 12246 net.cpp:386] loss1/drop_fc -> loss1/fc (in-place)
I0403 21:37:13.226316 12246 net.cpp:141] Setting up loss1/drop_fc
I0403 21:37:13.226338 12246 net.cpp:148] Top shape: 24 1024 (24576)
I0403 21:37:13.226352 12246 net.cpp:156] Memory required for data: 946189344
I0403 21:37:13.226367 12246 layer_factory.hpp:77] Creating layer loss1/classifier_plantvillage
I0403 21:37:13.226392 12246 net.cpp:91] Creating Layer loss1/classifier_plantvillage
I0403 21:37:13.226408 12246 net.cpp:425] loss1/classifier_plantvillage <- loss1/fc
I0403 21:37:13.226428 12246 net.cpp:399] loss1/classifier_plantvillage -> loss1/classifier_plantvillage
I0403 21:37:13.227326 12246 net.cpp:141] Setting up loss1/classifier_plantvillage
I0403 21:37:13.227355 12246 net.cpp:148] Top shape: 24 38 (912)
I0403 21:37:13.227371 12246 net.cpp:156] Memory required for data: 946192992
I0403 21:37:13.227390 12246 layer_factory.hpp:77] Creating layer loss1/classifier_plantvillage_loss1/classifier_plantvillage_0_split
I0403 21:37:13.227406 12246 net.cpp:91] Creating Layer loss1/classifier_plantvillage_loss1/classifier_plantvillage_0_split
I0403 21:37:13.227421 12246 net.cpp:425] loss1/classifier_plantvillage_loss1/classifier_plantvillage_0_split <- loss1/classifier_plantvillage
I0403 21:37:13.227440 12246 net.cpp:399] loss1/classifier_plantvillage_loss1/classifier_plantvillage_0_split -> loss1/classifier_plantvillage_loss1/classifier_plantvillage_0_split_0
I0403 21:37:13.227460 12246 net.cpp:399] loss1/classifier_plantvillage_loss1/classifier_plantvillage_0_split -> loss1/classifier_plantvillage_loss1/classifier_plantvillage_0_split_1
I0403 21:37:13.227480 12246 net.cpp:399] loss1/classifier_plantvillage_loss1/classifier_plantvillage_0_split -> loss1/classifier_plantvillage_loss1/classifier_plantvillage_0_split_2
I0403 21:37:13.227543 12246 net.cpp:141] Setting up loss1/classifier_plantvillage_loss1/classifier_plantvillage_0_split
I0403 21:37:13.227566 12246 net.cpp:148] Top shape: 24 38 (912)
I0403 21:37:13.227582 12246 net.cpp:148] Top shape: 24 38 (912)
I0403 21:37:13.227597 12246 net.cpp:148] Top shape: 24 38 (912)
I0403 21:37:13.227612 12246 net.cpp:156] Memory required for data: 946203936
I0403 21:37:13.227625 12246 layer_factory.hpp:77] Creating layer inception_4b/1x1
I0403 21:37:13.227646 12246 net.cpp:91] Creating Layer inception_4b/1x1
I0403 21:37:13.227679 12246 net.cpp:425] inception_4b/1x1 <- inception_4a/output_inception_4a/output_0_split_1
I0403 21:37:13.227699 12246 net.cpp:399] inception_4b/1x1 -> inception_4b/1x1
I0403 21:37:13.229238 12246 net.cpp:141] Setting up inception_4b/1x1
I0403 21:37:13.229265 12246 net.cpp:148] Top shape: 24 160 14 14 (752640)
I0403 21:37:13.229280 12246 net.cpp:156] Memory required for data: 949214496
I0403 21:37:13.229300 12246 layer_factory.hpp:77] Creating layer inception_4b/relu_1x1
I0403 21:37:13.229318 12246 net.cpp:91] Creating Layer inception_4b/relu_1x1
I0403 21:37:13.229334 12246 net.cpp:425] inception_4b/relu_1x1 <- inception_4b/1x1
I0403 21:37:13.229351 12246 net.cpp:386] inception_4b/relu_1x1 -> inception_4b/1x1 (in-place)
I0403 21:37:13.229519 12246 net.cpp:141] Setting up inception_4b/relu_1x1
I0403 21:37:13.229543 12246 net.cpp:148] Top shape: 24 160 14 14 (752640)
I0403 21:37:13.229558 12246 net.cpp:156] Memory required for data: 952225056
I0403 21:37:13.229573 12246 layer_factory.hpp:77] Creating layer inception_4b/3x3_reduce
I0403 21:37:13.229593 12246 net.cpp:91] Creating Layer inception_4b/3x3_reduce
I0403 21:37:13.229611 12246 net.cpp:425] inception_4b/3x3_reduce <- inception_4a/output_inception_4a/output_0_split_2
I0403 21:37:13.229632 12246 net.cpp:399] inception_4b/3x3_reduce -> inception_4b/3x3_reduce
I0403 21:37:13.230919 12246 net.cpp:141] Setting up inception_4b/3x3_reduce
I0403 21:37:13.230945 12246 net.cpp:148] Top shape: 24 112 14 14 (526848)
I0403 21:37:13.230960 12246 net.cpp:156] Memory required for data: 954332448
I0403 21:37:13.230978 12246 layer_factory.hpp:77] Creating layer inception_4b/relu_3x3_reduce
I0403 21:37:13.230998 12246 net.cpp:91] Creating Layer inception_4b/relu_3x3_reduce
I0403 21:37:13.231014 12246 net.cpp:425] inception_4b/relu_3x3_reduce <- inception_4b/3x3_reduce
I0403 21:37:13.231031 12246 net.cpp:386] inception_4b/relu_3x3_reduce -> inception_4b/3x3_reduce (in-place)
I0403 21:37:13.231302 12246 net.cpp:141] Setting up inception_4b/relu_3x3_reduce
I0403 21:37:13.231328 12246 net.cpp:148] Top shape: 24 112 14 14 (526848)
I0403 21:37:13.231343 12246 net.cpp:156] Memory required for data: 956439840
I0403 21:37:13.231356 12246 layer_factory.hpp:77] Creating layer inception_4b/3x3
I0403 21:37:13.231379 12246 net.cpp:91] Creating Layer inception_4b/3x3
I0403 21:37:13.231395 12246 net.cpp:425] inception_4b/3x3 <- inception_4b/3x3_reduce
I0403 21:37:13.231415 12246 net.cpp:399] inception_4b/3x3 -> inception_4b/3x3
I0403 21:37:13.234401 12246 net.cpp:141] Setting up inception_4b/3x3
I0403 21:37:13.234431 12246 net.cpp:148] Top shape: 24 224 14 14 (1053696)
I0403 21:37:13.234447 12246 net.cpp:156] Memory required for data: 960654624
I0403 21:37:13.234465 12246 layer_factory.hpp:77] Creating layer inception_4b/relu_3x3
I0403 21:37:13.234483 12246 net.cpp:91] Creating Layer inception_4b/relu_3x3
I0403 21:37:13.234498 12246 net.cpp:425] inception_4b/relu_3x3 <- inception_4b/3x3
I0403 21:37:13.234516 12246 net.cpp:386] inception_4b/relu_3x3 -> inception_4b/3x3 (in-place)
I0403 21:37:13.234691 12246 net.cpp:141] Setting up inception_4b/relu_3x3
I0403 21:37:13.234716 12246 net.cpp:148] Top shape: 24 224 14 14 (1053696)
I0403 21:37:13.234731 12246 net.cpp:156] Memory required for data: 964869408
I0403 21:37:13.234745 12246 layer_factory.hpp:77] Creating layer inception_4b/5x5_reduce
I0403 21:37:13.234766 12246 net.cpp:91] Creating Layer inception_4b/5x5_reduce
I0403 21:37:13.234784 12246 net.cpp:425] inception_4b/5x5_reduce <- inception_4a/output_inception_4a/output_0_split_3
I0403 21:37:13.234807 12246 net.cpp:399] inception_4b/5x5_reduce -> inception_4b/5x5_reduce
I0403 21:37:13.235841 12246 net.cpp:141] Setting up inception_4b/5x5_reduce
I0403 21:37:13.235867 12246 net.cpp:148] Top shape: 24 24 14 14 (112896)
I0403 21:37:13.235882 12246 net.cpp:156] Memory required for data: 965320992
I0403 21:37:13.235899 12246 layer_factory.hpp:77] Creating layer inception_4b/relu_5x5_reduce
I0403 21:37:13.235919 12246 net.cpp:91] Creating Layer inception_4b/relu_5x5_reduce
I0403 21:37:13.235949 12246 net.cpp:425] inception_4b/relu_5x5_reduce <- inception_4b/5x5_reduce
I0403 21:37:13.235966 12246 net.cpp:386] inception_4b/relu_5x5_reduce -> inception_4b/5x5_reduce (in-place)
I0403 21:37:13.236140 12246 net.cpp:141] Setting up inception_4b/relu_5x5_reduce
I0403 21:37:13.236163 12246 net.cpp:148] Top shape: 24 24 14 14 (112896)
I0403 21:37:13.236184 12246 net.cpp:156] Memory required for data: 965772576
I0403 21:37:13.236201 12246 layer_factory.hpp:77] Creating layer inception_4b/5x5
I0403 21:37:13.236219 12246 net.cpp:91] Creating Layer inception_4b/5x5
I0403 21:37:13.236237 12246 net.cpp:425] inception_4b/5x5 <- inception_4b/5x5_reduce
I0403 21:37:13.236258 12246 net.cpp:399] inception_4b/5x5 -> inception_4b/5x5
I0403 21:37:13.237426 12246 net.cpp:141] Setting up inception_4b/5x5
I0403 21:37:13.237452 12246 net.cpp:148] Top shape: 24 64 14 14 (301056)
I0403 21:37:13.237467 12246 net.cpp:156] Memory required for data: 966976800
I0403 21:37:13.237484 12246 layer_factory.hpp:77] Creating layer inception_4b/relu_5x5
I0403 21:37:13.237501 12246 net.cpp:91] Creating Layer inception_4b/relu_5x5
I0403 21:37:13.237520 12246 net.cpp:425] inception_4b/relu_5x5 <- inception_4b/5x5
I0403 21:37:13.237536 12246 net.cpp:386] inception_4b/relu_5x5 -> inception_4b/5x5 (in-place)
I0403 21:37:13.237808 12246 net.cpp:141] Setting up inception_4b/relu_5x5
I0403 21:37:13.237833 12246 net.cpp:148] Top shape: 24 64 14 14 (301056)
I0403 21:37:13.237848 12246 net.cpp:156] Memory required for data: 968181024
I0403 21:37:13.237862 12246 layer_factory.hpp:77] Creating layer inception_4b/pool
I0403 21:37:13.237879 12246 net.cpp:91] Creating Layer inception_4b/pool
I0403 21:37:13.237895 12246 net.cpp:425] inception_4b/pool <- inception_4a/output_inception_4a/output_0_split_4
I0403 21:37:13.237915 12246 net.cpp:399] inception_4b/pool -> inception_4b/pool
I0403 21:37:13.237975 12246 net.cpp:141] Setting up inception_4b/pool
I0403 21:37:13.238000 12246 net.cpp:148] Top shape: 24 512 14 14 (2408448)
I0403 21:37:13.238015 12246 net.cpp:156] Memory required for data: 977814816
I0403 21:37:13.238030 12246 layer_factory.hpp:77] Creating layer inception_4b/pool_proj
I0403 21:37:13.238051 12246 net.cpp:91] Creating Layer inception_4b/pool_proj
I0403 21:37:13.238068 12246 net.cpp:425] inception_4b/pool_proj <- inception_4b/pool
I0403 21:37:13.238086 12246 net.cpp:399] inception_4b/pool_proj -> inception_4b/pool_proj
I0403 21:37:13.239228 12246 net.cpp:141] Setting up inception_4b/pool_proj
I0403 21:37:13.239254 12246 net.cpp:148] Top shape: 24 64 14 14 (301056)
I0403 21:37:13.239269 12246 net.cpp:156] Memory required for data: 979019040
I0403 21:37:13.239287 12246 layer_factory.hpp:77] Creating layer inception_4b/relu_pool_proj
I0403 21:37:13.239306 12246 net.cpp:91] Creating Layer inception_4b/relu_pool_proj
I0403 21:37:13.239322 12246 net.cpp:425] inception_4b/relu_pool_proj <- inception_4b/pool_proj
I0403 21:37:13.239339 12246 net.cpp:386] inception_4b/relu_pool_proj -> inception_4b/pool_proj (in-place)
I0403 21:37:13.239508 12246 net.cpp:141] Setting up inception_4b/relu_pool_proj
I0403 21:37:13.239532 12246 net.cpp:148] Top shape: 24 64 14 14 (301056)
I0403 21:37:13.239547 12246 net.cpp:156] Memory required for data: 980223264
I0403 21:37:13.239560 12246 layer_factory.hpp:77] Creating layer inception_4b/output
I0403 21:37:13.239579 12246 net.cpp:91] Creating Layer inception_4b/output
I0403 21:37:13.239595 12246 net.cpp:425] inception_4b/output <- inception_4b/1x1
I0403 21:37:13.239611 12246 net.cpp:425] inception_4b/output <- inception_4b/3x3
I0403 21:37:13.239626 12246 net.cpp:425] inception_4b/output <- inception_4b/5x5
I0403 21:37:13.239642 12246 net.cpp:425] inception_4b/output <- inception_4b/pool_proj
I0403 21:37:13.239658 12246 net.cpp:399] inception_4b/output -> inception_4b/output
I0403 21:37:13.239703 12246 net.cpp:141] Setting up inception_4b/output
I0403 21:37:13.239725 12246 net.cpp:148] Top shape: 24 512 14 14 (2408448)
I0403 21:37:13.239739 12246 net.cpp:156] Memory required for data: 989857056
I0403 21:37:13.239766 12246 layer_factory.hpp:77] Creating layer inception_4b/output_inception_4b/output_0_split
I0403 21:37:13.239784 12246 net.cpp:91] Creating Layer inception_4b/output_inception_4b/output_0_split
I0403 21:37:13.239797 12246 net.cpp:425] inception_4b/output_inception_4b/output_0_split <- inception_4b/output
I0403 21:37:13.239816 12246 net.cpp:399] inception_4b/output_inception_4b/output_0_split -> inception_4b/output_inception_4b/output_0_split_0
I0403 21:37:13.239836 12246 net.cpp:399] inception_4b/output_inception_4b/output_0_split -> inception_4b/output_inception_4b/output_0_split_1
I0403 21:37:13.239855 12246 net.cpp:399] inception_4b/output_inception_4b/output_0_split -> inception_4b/output_inception_4b/output_0_split_2
I0403 21:37:13.239873 12246 net.cpp:399] inception_4b/output_inception_4b/output_0_split -> inception_4b/output_inception_4b/output_0_split_3
I0403 21:37:13.239953 12246 net.cpp:141] Setting up inception_4b/output_inception_4b/output_0_split
I0403 21:37:13.239976 12246 net.cpp:148] Top shape: 24 512 14 14 (2408448)
I0403 21:37:13.239992 12246 net.cpp:148] Top shape: 24 512 14 14 (2408448)
I0403 21:37:13.240008 12246 net.cpp:148] Top shape: 24 512 14 14 (2408448)
I0403 21:37:13.240022 12246 net.cpp:148] Top shape: 24 512 14 14 (2408448)
I0403 21:37:13.240036 12246 net.cpp:156] Memory required for data: 1028392224
I0403 21:37:13.240049 12246 layer_factory.hpp:77] Creating layer inception_4c/1x1
I0403 21:37:13.240072 12246 net.cpp:91] Creating Layer inception_4c/1x1
I0403 21:37:13.240087 12246 net.cpp:425] inception_4c/1x1 <- inception_4b/output_inception_4b/output_0_split_0
I0403 21:37:13.240108 12246 net.cpp:399] inception_4c/1x1 -> inception_4c/1x1
I0403 21:37:13.241463 12246 net.cpp:141] Setting up inception_4c/1x1
I0403 21:37:13.241490 12246 net.cpp:148] Top shape: 24 128 14 14 (602112)
I0403 21:37:13.241505 12246 net.cpp:156] Memory required for data: 1030800672
I0403 21:37:13.241523 12246 layer_factory.hpp:77] Creating layer inception_4c/relu_1x1
I0403 21:37:13.241544 12246 net.cpp:91] Creating Layer inception_4c/relu_1x1
I0403 21:37:13.241559 12246 net.cpp:425] inception_4c/relu_1x1 <- inception_4c/1x1
I0403 21:37:13.241575 12246 net.cpp:386] inception_4c/relu_1x1 -> inception_4c/1x1 (in-place)
I0403 21:37:13.241747 12246 net.cpp:141] Setting up inception_4c/relu_1x1
I0403 21:37:13.241771 12246 net.cpp:148] Top shape: 24 128 14 14 (602112)
I0403 21:37:13.241786 12246 net.cpp:156] Memory required for data: 1033209120
I0403 21:37:13.241799 12246 layer_factory.hpp:77] Creating layer inception_4c/3x3_reduce
I0403 21:37:13.241821 12246 net.cpp:91] Creating Layer inception_4c/3x3_reduce
I0403 21:37:13.241837 12246 net.cpp:425] inception_4c/3x3_reduce <- inception_4b/output_inception_4b/output_0_split_1
I0403 21:37:13.241858 12246 net.cpp:399] inception_4c/3x3_reduce -> inception_4c/3x3_reduce
I0403 21:37:13.243736 12246 net.cpp:141] Setting up inception_4c/3x3_reduce
I0403 21:37:13.243764 12246 net.cpp:148] Top shape: 24 128 14 14 (602112)
I0403 21:37:13.243778 12246 net.cpp:156] Memory required for data: 1035617568
I0403 21:37:13.243796 12246 layer_factory.hpp:77] Creating layer inception_4c/relu_3x3_reduce
I0403 21:37:13.243813 12246 net.cpp:91] Creating Layer inception_4c/relu_3x3_reduce
I0403 21:37:13.243829 12246 net.cpp:425] inception_4c/relu_3x3_reduce <- inception_4c/3x3_reduce
I0403 21:37:13.243847 12246 net.cpp:386] inception_4c/relu_3x3_reduce -> inception_4c/3x3_reduce (in-place)
I0403 21:37:13.244120 12246 net.cpp:141] Setting up inception_4c/relu_3x3_reduce
I0403 21:37:13.244146 12246 net.cpp:148] Top shape: 24 128 14 14 (602112)
I0403 21:37:13.244161 12246 net.cpp:156] Memory required for data: 1038026016
I0403 21:37:13.244175 12246 layer_factory.hpp:77] Creating layer inception_4c/3x3
I0403 21:37:13.244204 12246 net.cpp:91] Creating Layer inception_4c/3x3
I0403 21:37:13.244221 12246 net.cpp:425] inception_4c/3x3 <- inception_4c/3x3_reduce
I0403 21:37:13.244242 12246 net.cpp:399] inception_4c/3x3 -> inception_4c/3x3
I0403 21:37:13.247660 12246 net.cpp:141] Setting up inception_4c/3x3
I0403 21:37:13.247699 12246 net.cpp:148] Top shape: 24 256 14 14 (1204224)
I0403 21:37:13.247715 12246 net.cpp:156] Memory required for data: 1042842912
I0403 21:37:13.247746 12246 layer_factory.hpp:77] Creating layer inception_4c/relu_3x3
I0403 21:37:13.247767 12246 net.cpp:91] Creating Layer inception_4c/relu_3x3
I0403 21:37:13.247784 12246 net.cpp:425] inception_4c/relu_3x3 <- inception_4c/3x3
I0403 21:37:13.247802 12246 net.cpp:386] inception_4c/relu_3x3 -> inception_4c/3x3 (in-place)
I0403 21:37:13.247972 12246 net.cpp:141] Setting up inception_4c/relu_3x3
I0403 21:37:13.247995 12246 net.cpp:148] Top shape: 24 256 14 14 (1204224)
I0403 21:37:13.248009 12246 net.cpp:156] Memory required for data: 1047659808
I0403 21:37:13.248023 12246 layer_factory.hpp:77] Creating layer inception_4c/5x5_reduce
I0403 21:37:13.248046 12246 net.cpp:91] Creating Layer inception_4c/5x5_reduce
I0403 21:37:13.248064 12246 net.cpp:425] inception_4c/5x5_reduce <- inception_4b/output_inception_4b/output_0_split_2
I0403 21:37:13.248085 12246 net.cpp:399] inception_4c/5x5_reduce -> inception_4c/5x5_reduce
I0403 21:37:13.249128 12246 net.cpp:141] Setting up inception_4c/5x5_reduce
I0403 21:37:13.249155 12246 net.cpp:148] Top shape: 24 24 14 14 (112896)
I0403 21:37:13.249169 12246 net.cpp:156] Memory required for data: 1048111392
I0403 21:37:13.249191 12246 layer_factory.hpp:77] Creating layer inception_4c/relu_5x5_reduce
I0403 21:37:13.249209 12246 net.cpp:91] Creating Layer inception_4c/relu_5x5_reduce
I0403 21:37:13.249225 12246 net.cpp:425] inception_4c/relu_5x5_reduce <- inception_4c/5x5_reduce
I0403 21:37:13.249244 12246 net.cpp:386] inception_4c/relu_5x5_reduce -> inception_4c/5x5_reduce (in-place)
I0403 21:37:13.249421 12246 net.cpp:141] Setting up inception_4c/relu_5x5_reduce
I0403 21:37:13.249445 12246 net.cpp:148] Top shape: 24 24 14 14 (112896)
I0403 21:37:13.249459 12246 net.cpp:156] Memory required for data: 1048562976
I0403 21:37:13.249475 12246 layer_factory.hpp:77] Creating layer inception_4c/5x5
I0403 21:37:13.249495 12246 net.cpp:91] Creating Layer inception_4c/5x5
I0403 21:37:13.249511 12246 net.cpp:425] inception_4c/5x5 <- inception_4c/5x5_reduce
I0403 21:37:13.249531 12246 net.cpp:399] inception_4c/5x5 -> inception_4c/5x5
I0403 21:37:13.250718 12246 net.cpp:141] Setting up inception_4c/5x5
I0403 21:37:13.250746 12246 net.cpp:148] Top shape: 24 64 14 14 (301056)
I0403 21:37:13.250761 12246 net.cpp:156] Memory required for data: 1049767200
I0403 21:37:13.250778 12246 layer_factory.hpp:77] Creating layer inception_4c/relu_5x5
I0403 21:37:13.250797 12246 net.cpp:91] Creating Layer inception_4c/relu_5x5
I0403 21:37:13.250813 12246 net.cpp:425] inception_4c/relu_5x5 <- inception_4c/5x5
I0403 21:37:13.250829 12246 net.cpp:386] inception_4c/relu_5x5 -> inception_4c/5x5 (in-place)
I0403 21:37:13.251106 12246 net.cpp:141] Setting up inception_4c/relu_5x5
I0403 21:37:13.251132 12246 net.cpp:148] Top shape: 24 64 14 14 (301056)
I0403 21:37:13.251147 12246 net.cpp:156] Memory required for data: 1050971424
I0403 21:37:13.251160 12246 layer_factory.hpp:77] Creating layer inception_4c/pool
I0403 21:37:13.251183 12246 net.cpp:91] Creating Layer inception_4c/pool
I0403 21:37:13.251201 12246 net.cpp:425] inception_4c/pool <- inception_4b/output_inception_4b/output_0_split_3
I0403 21:37:13.251219 12246 net.cpp:399] inception_4c/pool -> inception_4c/pool
I0403 21:37:13.251283 12246 net.cpp:141] Setting up inception_4c/pool
I0403 21:37:13.251307 12246 net.cpp:148] Top shape: 24 512 14 14 (2408448)
I0403 21:37:13.251320 12246 net.cpp:156] Memory required for data: 1060605216
I0403 21:37:13.251334 12246 layer_factory.hpp:77] Creating layer inception_4c/pool_proj
I0403 21:37:13.251356 12246 net.cpp:91] Creating Layer inception_4c/pool_proj
I0403 21:37:13.251374 12246 net.cpp:425] inception_4c/pool_proj <- inception_4c/pool
I0403 21:37:13.251394 12246 net.cpp:399] inception_4c/pool_proj -> inception_4c/pool_proj
I0403 21:37:13.252574 12246 net.cpp:141] Setting up inception_4c/pool_proj
I0403 21:37:13.252601 12246 net.cpp:148] Top shape: 24 64 14 14 (301056)
I0403 21:37:13.252630 12246 net.cpp:156] Memory required for data: 1061809440
I0403 21:37:13.252650 12246 layer_factory.hpp:77] Creating layer inception_4c/relu_pool_proj
I0403 21:37:13.252670 12246 net.cpp:91] Creating Layer inception_4c/relu_pool_proj
I0403 21:37:13.252686 12246 net.cpp:425] inception_4c/relu_pool_proj <- inception_4c/pool_proj
I0403 21:37:13.252702 12246 net.cpp:386] inception_4c/relu_pool_proj -> inception_4c/pool_proj (in-place)
I0403 21:37:13.252874 12246 net.cpp:141] Setting up inception_4c/relu_pool_proj
I0403 21:37:13.252898 12246 net.cpp:148] Top shape: 24 64 14 14 (301056)
I0403 21:37:13.252913 12246 net.cpp:156] Memory required for data: 1063013664
I0403 21:37:13.252928 12246 layer_factory.hpp:77] Creating layer inception_4c/output
I0403 21:37:13.252946 12246 net.cpp:91] Creating Layer inception_4c/output
I0403 21:37:13.252962 12246 net.cpp:425] inception_4c/output <- inception_4c/1x1
I0403 21:37:13.252979 12246 net.cpp:425] inception_4c/output <- inception_4c/3x3
I0403 21:37:13.252993 12246 net.cpp:425] inception_4c/output <- inception_4c/5x5
I0403 21:37:13.253008 12246 net.cpp:425] inception_4c/output <- inception_4c/pool_proj
I0403 21:37:13.253026 12246 net.cpp:399] inception_4c/output -> inception_4c/output
I0403 21:37:13.253072 12246 net.cpp:141] Setting up inception_4c/output
I0403 21:37:13.253094 12246 net.cpp:148] Top shape: 24 512 14 14 (2408448)
I0403 21:37:13.253108 12246 net.cpp:156] Memory required for data: 1072647456
I0403 21:37:13.253123 12246 layer_factory.hpp:77] Creating layer inception_4c/output_inception_4c/output_0_split
I0403 21:37:13.253139 12246 net.cpp:91] Creating Layer inception_4c/output_inception_4c/output_0_split
I0403 21:37:13.253154 12246 net.cpp:425] inception_4c/output_inception_4c/output_0_split <- inception_4c/output
I0403 21:37:13.253171 12246 net.cpp:399] inception_4c/output_inception_4c/output_0_split -> inception_4c/output_inception_4c/output_0_split_0
I0403 21:37:13.253198 12246 net.cpp:399] inception_4c/output_inception_4c/output_0_split -> inception_4c/output_inception_4c/output_0_split_1
I0403 21:37:13.253218 12246 net.cpp:399] inception_4c/output_inception_4c/output_0_split -> inception_4c/output_inception_4c/output_0_split_2
I0403 21:37:13.253237 12246 net.cpp:399] inception_4c/output_inception_4c/output_0_split -> inception_4c/output_inception_4c/output_0_split_3
I0403 21:37:13.253320 12246 net.cpp:141] Setting up inception_4c/output_inception_4c/output_0_split
I0403 21:37:13.253345 12246 net.cpp:148] Top shape: 24 512 14 14 (2408448)
I0403 21:37:13.253360 12246 net.cpp:148] Top shape: 24 512 14 14 (2408448)
I0403 21:37:13.253376 12246 net.cpp:148] Top shape: 24 512 14 14 (2408448)
I0403 21:37:13.253391 12246 net.cpp:148] Top shape: 24 512 14 14 (2408448)
I0403 21:37:13.253403 12246 net.cpp:156] Memory required for data: 1111182624
I0403 21:37:13.253417 12246 layer_factory.hpp:77] Creating layer inception_4d/1x1
I0403 21:37:13.253438 12246 net.cpp:91] Creating Layer inception_4d/1x1
I0403 21:37:13.253454 12246 net.cpp:425] inception_4d/1x1 <- inception_4c/output_inception_4c/output_0_split_0
I0403 21:37:13.253473 12246 net.cpp:399] inception_4d/1x1 -> inception_4d/1x1
I0403 21:37:13.254772 12246 net.cpp:141] Setting up inception_4d/1x1
I0403 21:37:13.254801 12246 net.cpp:148] Top shape: 24 112 14 14 (526848)
I0403 21:37:13.254817 12246 net.cpp:156] Memory required for data: 1113290016
I0403 21:37:13.254834 12246 layer_factory.hpp:77] Creating layer inception_4d/relu_1x1
I0403 21:37:13.254853 12246 net.cpp:91] Creating Layer inception_4d/relu_1x1
I0403 21:37:13.254868 12246 net.cpp:425] inception_4d/relu_1x1 <- inception_4d/1x1
I0403 21:37:13.254886 12246 net.cpp:386] inception_4d/relu_1x1 -> inception_4d/1x1 (in-place)
I0403 21:37:13.255061 12246 net.cpp:141] Setting up inception_4d/relu_1x1
I0403 21:37:13.255085 12246 net.cpp:148] Top shape: 24 112 14 14 (526848)
I0403 21:37:13.255100 12246 net.cpp:156] Memory required for data: 1115397408
I0403 21:37:13.255115 12246 layer_factory.hpp:77] Creating layer inception_4d/3x3_reduce
I0403 21:37:13.255149 12246 net.cpp:91] Creating Layer inception_4d/3x3_reduce
I0403 21:37:13.255167 12246 net.cpp:425] inception_4d/3x3_reduce <- inception_4c/output_inception_4c/output_0_split_1
I0403 21:37:13.255208 12246 net.cpp:399] inception_4d/3x3_reduce -> inception_4d/3x3_reduce
I0403 21:37:13.256748 12246 net.cpp:141] Setting up inception_4d/3x3_reduce
I0403 21:37:13.256778 12246 net.cpp:148] Top shape: 24 144 14 14 (677376)
I0403 21:37:13.256794 12246 net.cpp:156] Memory required for data: 1118106912
I0403 21:37:13.256814 12246 layer_factory.hpp:77] Creating layer inception_4d/relu_3x3_reduce
I0403 21:37:13.256830 12246 net.cpp:91] Creating Layer inception_4d/relu_3x3_reduce
I0403 21:37:13.256847 12246 net.cpp:425] inception_4d/relu_3x3_reduce <- inception_4d/3x3_reduce
I0403 21:37:13.256865 12246 net.cpp:386] inception_4d/relu_3x3_reduce -> inception_4d/3x3_reduce (in-place)
I0403 21:37:13.257145 12246 net.cpp:141] Setting up inception_4d/relu_3x3_reduce
I0403 21:37:13.257174 12246 net.cpp:148] Top shape: 24 144 14 14 (677376)
I0403 21:37:13.257194 12246 net.cpp:156] Memory required for data: 1120816416
I0403 21:37:13.257210 12246 layer_factory.hpp:77] Creating layer inception_4d/3x3
I0403 21:37:13.257241 12246 net.cpp:91] Creating Layer inception_4d/3x3
I0403 21:37:13.257259 12246 net.cpp:425] inception_4d/3x3 <- inception_4d/3x3_reduce
I0403 21:37:13.257282 12246 net.cpp:399] inception_4d/3x3 -> inception_4d/3x3
I0403 21:37:13.261555 12246 net.cpp:141] Setting up inception_4d/3x3
I0403 21:37:13.261584 12246 net.cpp:148] Top shape: 24 288 14 14 (1354752)
I0403 21:37:13.261598 12246 net.cpp:156] Memory required for data: 1126235424
I0403 21:37:13.261616 12246 layer_factory.hpp:77] Creating layer inception_4d/relu_3x3
I0403 21:37:13.261634 12246 net.cpp:91] Creating Layer inception_4d/relu_3x3
I0403 21:37:13.261651 12246 net.cpp:425] inception_4d/relu_3x3 <- inception_4d/3x3
I0403 21:37:13.261669 12246 net.cpp:386] inception_4d/relu_3x3 -> inception_4d/3x3 (in-place)
I0403 21:37:13.261850 12246 net.cpp:141] Setting up inception_4d/relu_3x3
I0403 21:37:13.261875 12246 net.cpp:148] Top shape: 24 288 14 14 (1354752)
I0403 21:37:13.261889 12246 net.cpp:156] Memory required for data: 1131654432
I0403 21:37:13.261904 12246 layer_factory.hpp:77] Creating layer inception_4d/5x5_reduce
I0403 21:37:13.261926 12246 net.cpp:91] Creating Layer inception_4d/5x5_reduce
I0403 21:37:13.261945 12246 net.cpp:425] inception_4d/5x5_reduce <- inception_4c/output_inception_4c/output_0_split_2
I0403 21:37:13.261965 12246 net.cpp:399] inception_4d/5x5_reduce -> inception_4d/5x5_reduce
I0403 21:37:13.263093 12246 net.cpp:141] Setting up inception_4d/5x5_reduce
I0403 21:37:13.263123 12246 net.cpp:148] Top shape: 24 32 14 14 (150528)
I0403 21:37:13.263140 12246 net.cpp:156] Memory required for data: 1132256544
I0403 21:37:13.263159 12246 layer_factory.hpp:77] Creating layer inception_4d/relu_5x5_reduce
I0403 21:37:13.263181 12246 net.cpp:91] Creating Layer inception_4d/relu_5x5_reduce
I0403 21:37:13.263198 12246 net.cpp:425] inception_4d/relu_5x5_reduce <- inception_4d/5x5_reduce
I0403 21:37:13.263231 12246 net.cpp:386] inception_4d/relu_5x5_reduce -> inception_4d/5x5_reduce (in-place)
I0403 21:37:13.263427 12246 net.cpp:141] Setting up inception_4d/relu_5x5_reduce
I0403 21:37:13.263452 12246 net.cpp:148] Top shape: 24 32 14 14 (150528)
I0403 21:37:13.263468 12246 net.cpp:156] Memory required for data: 1132858656
I0403 21:37:13.263483 12246 layer_factory.hpp:77] Creating layer inception_4d/5x5
I0403 21:37:13.263516 12246 net.cpp:91] Creating Layer inception_4d/5x5
I0403 21:37:13.263535 12246 net.cpp:425] inception_4d/5x5 <- inception_4d/5x5_reduce
I0403 21:37:13.263555 12246 net.cpp:399] inception_4d/5x5 -> inception_4d/5x5
I0403 21:37:13.265010 12246 net.cpp:141] Setting up inception_4d/5x5
I0403 21:37:13.265038 12246 net.cpp:148] Top shape: 24 64 14 14 (301056)
I0403 21:37:13.265053 12246 net.cpp:156] Memory required for data: 1134062880
I0403 21:37:13.265074 12246 layer_factory.hpp:77] Creating layer inception_4d/relu_5x5
I0403 21:37:13.265108 12246 net.cpp:91] Creating Layer inception_4d/relu_5x5
I0403 21:37:13.265126 12246 net.cpp:425] inception_4d/relu_5x5 <- inception_4d/5x5
I0403 21:37:13.265143 12246 net.cpp:386] inception_4d/relu_5x5 -> inception_4d/5x5 (in-place)
I0403 21:37:13.265444 12246 net.cpp:141] Setting up inception_4d/relu_5x5
I0403 21:37:13.265470 12246 net.cpp:148] Top shape: 24 64 14 14 (301056)
I0403 21:37:13.265486 12246 net.cpp:156] Memory required for data: 1135267104
I0403 21:37:13.265501 12246 layer_factory.hpp:77] Creating layer inception_4d/pool
I0403 21:37:13.265521 12246 net.cpp:91] Creating Layer inception_4d/pool
I0403 21:37:13.265537 12246 net.cpp:425] inception_4d/pool <- inception_4c/output_inception_4c/output_0_split_3
I0403 21:37:13.265555 12246 net.cpp:399] inception_4d/pool -> inception_4d/pool
I0403 21:37:13.265621 12246 net.cpp:141] Setting up inception_4d/pool
I0403 21:37:13.265645 12246 net.cpp:148] Top shape: 24 512 14 14 (2408448)
I0403 21:37:13.265660 12246 net.cpp:156] Memory required for data: 1144900896
I0403 21:37:13.265674 12246 layer_factory.hpp:77] Creating layer inception_4d/pool_proj
I0403 21:37:13.265697 12246 net.cpp:91] Creating Layer inception_4d/pool_proj
I0403 21:37:13.265713 12246 net.cpp:425] inception_4d/pool_proj <- inception_4d/pool
I0403 21:37:13.265735 12246 net.cpp:399] inception_4d/pool_proj -> inception_4d/pool_proj
I0403 21:37:13.267542 12246 net.cpp:141] Setting up inception_4d/pool_proj
I0403 21:37:13.267571 12246 net.cpp:148] Top shape: 24 64 14 14 (301056)
I0403 21:37:13.267587 12246 net.cpp:156] Memory required for data: 1146105120
I0403 21:37:13.267604 12246 layer_factory.hpp:77] Creating layer inception_4d/relu_pool_proj
I0403 21:37:13.267622 12246 net.cpp:91] Creating Layer inception_4d/relu_pool_proj
I0403 21:37:13.267638 12246 net.cpp:425] inception_4d/relu_pool_proj <- inception_4d/pool_proj
I0403 21:37:13.267657 12246 net.cpp:386] inception_4d/relu_pool_proj -> inception_4d/pool_proj (in-place)
I0403 21:37:13.267838 12246 net.cpp:141] Setting up inception_4d/relu_pool_proj
I0403 21:37:13.267863 12246 net.cpp:148] Top shape: 24 64 14 14 (301056)
I0403 21:37:13.267879 12246 net.cpp:156] Memory required for data: 1147309344
I0403 21:37:13.267894 12246 layer_factory.hpp:77] Creating layer inception_4d/output
I0403 21:37:13.267910 12246 net.cpp:91] Creating Layer inception_4d/output
I0403 21:37:13.267928 12246 net.cpp:425] inception_4d/output <- inception_4d/1x1
I0403 21:37:13.267946 12246 net.cpp:425] inception_4d/output <- inception_4d/3x3
I0403 21:37:13.267961 12246 net.cpp:425] inception_4d/output <- inception_4d/5x5
I0403 21:37:13.267976 12246 net.cpp:425] inception_4d/output <- inception_4d/pool_proj
I0403 21:37:13.267992 12246 net.cpp:399] inception_4d/output -> inception_4d/output
I0403 21:37:13.268038 12246 net.cpp:141] Setting up inception_4d/output
I0403 21:37:13.268064 12246 net.cpp:148] Top shape: 24 528 14 14 (2483712)
I0403 21:37:13.268079 12246 net.cpp:156] Memory required for data: 1157244192
I0403 21:37:13.268092 12246 layer_factory.hpp:77] Creating layer inception_4d/output_inception_4d/output_0_split
I0403 21:37:13.268110 12246 net.cpp:91] Creating Layer inception_4d/output_inception_4d/output_0_split
I0403 21:37:13.268124 12246 net.cpp:425] inception_4d/output_inception_4d/output_0_split <- inception_4d/output
I0403 21:37:13.268144 12246 net.cpp:399] inception_4d/output_inception_4d/output_0_split -> inception_4d/output_inception_4d/output_0_split_0
I0403 21:37:13.268164 12246 net.cpp:399] inception_4d/output_inception_4d/output_0_split -> inception_4d/output_inception_4d/output_0_split_1
I0403 21:37:13.268189 12246 net.cpp:399] inception_4d/output_inception_4d/output_0_split -> inception_4d/output_inception_4d/output_0_split_2
I0403 21:37:13.268211 12246 net.cpp:399] inception_4d/output_inception_4d/output_0_split -> inception_4d/output_inception_4d/output_0_split_3
I0403 21:37:13.268242 12246 net.cpp:399] inception_4d/output_inception_4d/output_0_split -> inception_4d/output_inception_4d/output_0_split_4
I0403 21:37:13.268344 12246 net.cpp:141] Setting up inception_4d/output_inception_4d/output_0_split
I0403 21:37:13.268380 12246 net.cpp:148] Top shape: 24 528 14 14 (2483712)
I0403 21:37:13.268400 12246 net.cpp:148] Top shape: 24 528 14 14 (2483712)
I0403 21:37:13.268416 12246 net.cpp:148] Top shape: 24 528 14 14 (2483712)
I0403 21:37:13.268431 12246 net.cpp:148] Top shape: 24 528 14 14 (2483712)
I0403 21:37:13.268446 12246 net.cpp:148] Top shape: 24 528 14 14 (2483712)
I0403 21:37:13.268460 12246 net.cpp:156] Memory required for data: 1206918432
I0403 21:37:13.268476 12246 layer_factory.hpp:77] Creating layer loss2/ave_pool
I0403 21:37:13.268493 12246 net.cpp:91] Creating Layer loss2/ave_pool
I0403 21:37:13.268520 12246 net.cpp:425] loss2/ave_pool <- inception_4d/output_inception_4d/output_0_split_0
I0403 21:37:13.268540 12246 net.cpp:399] loss2/ave_pool -> loss2/ave_pool
I0403 21:37:13.268848 12246 net.cpp:141] Setting up loss2/ave_pool
I0403 21:37:13.268874 12246 net.cpp:148] Top shape: 24 528 4 4 (202752)
I0403 21:37:13.268889 12246 net.cpp:156] Memory required for data: 1207729440
I0403 21:37:13.268904 12246 layer_factory.hpp:77] Creating layer loss2/conv
I0403 21:37:13.268925 12246 net.cpp:91] Creating Layer loss2/conv
I0403 21:37:13.268942 12246 net.cpp:425] loss2/conv <- loss2/ave_pool
I0403 21:37:13.268964 12246 net.cpp:399] loss2/conv -> loss2/conv
I0403 21:37:13.270853 12246 net.cpp:141] Setting up loss2/conv
I0403 21:37:13.270881 12246 net.cpp:148] Top shape: 24 128 4 4 (49152)
I0403 21:37:13.270896 12246 net.cpp:156] Memory required for data: 1207926048
I0403 21:37:13.270915 12246 layer_factory.hpp:77] Creating layer loss2/relu_conv
I0403 21:37:13.270936 12246 net.cpp:91] Creating Layer loss2/relu_conv
I0403 21:37:13.270951 12246 net.cpp:425] loss2/relu_conv <- loss2/conv
I0403 21:37:13.270969 12246 net.cpp:386] loss2/relu_conv -> loss2/conv (in-place)
I0403 21:37:13.271267 12246 net.cpp:141] Setting up loss2/relu_conv
I0403 21:37:13.271294 12246 net.cpp:148] Top shape: 24 128 4 4 (49152)
I0403 21:37:13.271309 12246 net.cpp:156] Memory required for data: 1208122656
I0403 21:37:13.271325 12246 layer_factory.hpp:77] Creating layer loss2/fc
I0403 21:37:13.271347 12246 net.cpp:91] Creating Layer loss2/fc
I0403 21:37:13.271364 12246 net.cpp:425] loss2/fc <- loss2/conv
I0403 21:37:13.271384 12246 net.cpp:399] loss2/fc -> loss2/fc
I0403 21:37:13.288513 12246 net.cpp:141] Setting up loss2/fc
I0403 21:37:13.288552 12246 net.cpp:148] Top shape: 24 1024 (24576)
I0403 21:37:13.288566 12246 net.cpp:156] Memory required for data: 1208220960
I0403 21:37:13.288584 12246 layer_factory.hpp:77] Creating layer loss2/relu_fc
I0403 21:37:13.288601 12246 net.cpp:91] Creating Layer loss2/relu_fc
I0403 21:37:13.288616 12246 net.cpp:425] loss2/relu_fc <- loss2/fc
I0403 21:37:13.288635 12246 net.cpp:386] loss2/relu_fc -> loss2/fc (in-place)
I0403 21:37:13.288926 12246 net.cpp:141] Setting up loss2/relu_fc
I0403 21:37:13.288951 12246 net.cpp:148] Top shape: 24 1024 (24576)
I0403 21:37:13.288965 12246 net.cpp:156] Memory required for data: 1208319264
I0403 21:37:13.288980 12246 layer_factory.hpp:77] Creating layer loss2/drop_fc
I0403 21:37:13.288997 12246 net.cpp:91] Creating Layer loss2/drop_fc
I0403 21:37:13.289012 12246 net.cpp:425] loss2/drop_fc <- loss2/fc
I0403 21:37:13.289036 12246 net.cpp:386] loss2/drop_fc -> loss2/fc (in-place)
I0403 21:37:13.289082 12246 net.cpp:141] Setting up loss2/drop_fc
I0403 21:37:13.289108 12246 net.cpp:148] Top shape: 24 1024 (24576)
I0403 21:37:13.289122 12246 net.cpp:156] Memory required for data: 1208417568
I0403 21:37:13.289136 12246 layer_factory.hpp:77] Creating layer loss2/classifier_plantvillage
I0403 21:37:13.289154 12246 net.cpp:91] Creating Layer loss2/classifier_plantvillage
I0403 21:37:13.289170 12246 net.cpp:425] loss2/classifier_plantvillage <- loss2/fc
I0403 21:37:13.289194 12246 net.cpp:399] loss2/classifier_plantvillage -> loss2/classifier_plantvillage
I0403 21:37:13.289573 12246 net.cpp:141] Setting up loss2/classifier_plantvillage
I0403 21:37:13.289599 12246 net.cpp:148] Top shape: 24 38 (912)
I0403 21:37:13.289613 12246 net.cpp:156] Memory required for data: 1208421216
I0403 21:37:13.289647 12246 layer_factory.hpp:77] Creating layer loss2/classifier_plantvillage_loss2/classifier_plantvillage_0_split
I0403 21:37:13.289665 12246 net.cpp:91] Creating Layer loss2/classifier_plantvillage_loss2/classifier_plantvillage_0_split
I0403 21:37:13.289681 12246 net.cpp:425] loss2/classifier_plantvillage_loss2/classifier_plantvillage_0_split <- loss2/classifier_plantvillage
I0403 21:37:13.289698 12246 net.cpp:399] loss2/classifier_plantvillage_loss2/classifier_plantvillage_0_split -> loss2/classifier_plantvillage_loss2/classifier_plantvillage_0_split_0
I0403 21:37:13.289718 12246 net.cpp:399] loss2/classifier_plantvillage_loss2/classifier_plantvillage_0_split -> loss2/classifier_plantvillage_loss2/classifier_plantvillage_0_split_1
I0403 21:37:13.289736 12246 net.cpp:399] loss2/classifier_plantvillage_loss2/classifier_plantvillage_0_split -> loss2/classifier_plantvillage_loss2/classifier_plantvillage_0_split_2
I0403 21:37:13.289809 12246 net.cpp:141] Setting up loss2/classifier_plantvillage_loss2/classifier_plantvillage_0_split
I0403 21:37:13.289831 12246 net.cpp:148] Top shape: 24 38 (912)
I0403 21:37:13.289847 12246 net.cpp:148] Top shape: 24 38 (912)
I0403 21:37:13.289862 12246 net.cpp:148] Top shape: 24 38 (912)
I0403 21:37:13.289876 12246 net.cpp:156] Memory required for data: 1208432160
I0403 21:37:13.289891 12246 layer_factory.hpp:77] Creating layer inception_4e/1x1
I0403 21:37:13.289909 12246 net.cpp:91] Creating Layer inception_4e/1x1
I0403 21:37:13.289926 12246 net.cpp:425] inception_4e/1x1 <- inception_4d/output_inception_4d/output_0_split_1
I0403 21:37:13.289947 12246 net.cpp:399] inception_4e/1x1 -> inception_4e/1x1
I0403 21:37:13.291873 12246 net.cpp:141] Setting up inception_4e/1x1
I0403 21:37:13.291901 12246 net.cpp:148] Top shape: 24 256 14 14 (1204224)
I0403 21:37:13.291916 12246 net.cpp:156] Memory required for data: 1213249056
I0403 21:37:13.291934 12246 layer_factory.hpp:77] Creating layer inception_4e/relu_1x1
I0403 21:37:13.291954 12246 net.cpp:91] Creating Layer inception_4e/relu_1x1
I0403 21:37:13.291970 12246 net.cpp:425] inception_4e/relu_1x1 <- inception_4e/1x1
I0403 21:37:13.291987 12246 net.cpp:386] inception_4e/relu_1x1 -> inception_4e/1x1 (in-place)
I0403 21:37:13.292278 12246 net.cpp:141] Setting up inception_4e/relu_1x1
I0403 21:37:13.292304 12246 net.cpp:148] Top shape: 24 256 14 14 (1204224)
I0403 21:37:13.292317 12246 net.cpp:156] Memory required for data: 1218065952
I0403 21:37:13.292332 12246 layer_factory.hpp:77] Creating layer inception_4e/3x3_reduce
I0403 21:37:13.292354 12246 net.cpp:91] Creating Layer inception_4e/3x3_reduce
I0403 21:37:13.292371 12246 net.cpp:425] inception_4e/3x3_reduce <- inception_4d/output_inception_4d/output_0_split_2
I0403 21:37:13.292392 12246 net.cpp:399] inception_4e/3x3_reduce -> inception_4e/3x3_reduce
I0403 21:37:13.294445 12246 net.cpp:141] Setting up inception_4e/3x3_reduce
I0403 21:37:13.294473 12246 net.cpp:148] Top shape: 24 160 14 14 (752640)
I0403 21:37:13.294489 12246 net.cpp:156] Memory required for data: 1221076512
I0403 21:37:13.294507 12246 layer_factory.hpp:77] Creating layer inception_4e/relu_3x3_reduce
I0403 21:37:13.294525 12246 net.cpp:91] Creating Layer inception_4e/relu_3x3_reduce
I0403 21:37:13.294543 12246 net.cpp:425] inception_4e/relu_3x3_reduce <- inception_4e/3x3_reduce
I0403 21:37:13.294560 12246 net.cpp:386] inception_4e/relu_3x3_reduce -> inception_4e/3x3_reduce (in-place)
I0403 21:37:13.294736 12246 net.cpp:141] Setting up inception_4e/relu_3x3_reduce
I0403 21:37:13.294760 12246 net.cpp:148] Top shape: 24 160 14 14 (752640)
I0403 21:37:13.294775 12246 net.cpp:156] Memory required for data: 1224087072
I0403 21:37:13.294788 12246 layer_factory.hpp:77] Creating layer inception_4e/3x3
I0403 21:37:13.294811 12246 net.cpp:91] Creating Layer inception_4e/3x3
I0403 21:37:13.294828 12246 net.cpp:425] inception_4e/3x3 <- inception_4e/3x3_reduce
I0403 21:37:13.294847 12246 net.cpp:399] inception_4e/3x3 -> inception_4e/3x3
I0403 21:37:13.299672 12246 net.cpp:141] Setting up inception_4e/3x3
I0403 21:37:13.299713 12246 net.cpp:148] Top shape: 24 320 14 14 (1505280)
I0403 21:37:13.299729 12246 net.cpp:156] Memory required for data: 1230108192
I0403 21:37:13.299748 12246 layer_factory.hpp:77] Creating layer inception_4e/relu_3x3
I0403 21:37:13.299768 12246 net.cpp:91] Creating Layer inception_4e/relu_3x3
I0403 21:37:13.299784 12246 net.cpp:425] inception_4e/relu_3x3 <- inception_4e/3x3
I0403 21:37:13.299801 12246 net.cpp:386] inception_4e/relu_3x3 -> inception_4e/3x3 (in-place)
I0403 21:37:13.300098 12246 net.cpp:141] Setting up inception_4e/relu_3x3
I0403 21:37:13.300127 12246 net.cpp:148] Top shape: 24 320 14 14 (1505280)
I0403 21:37:13.300143 12246 net.cpp:156] Memory required for data: 1236129312
I0403 21:37:13.300156 12246 layer_factory.hpp:77] Creating layer inception_4e/5x5_reduce
I0403 21:37:13.300182 12246 net.cpp:91] Creating Layer inception_4e/5x5_reduce
I0403 21:37:13.300200 12246 net.cpp:425] inception_4e/5x5_reduce <- inception_4d/output_inception_4d/output_0_split_3
I0403 21:37:13.300218 12246 net.cpp:399] inception_4e/5x5_reduce -> inception_4e/5x5_reduce
I0403 21:37:13.301234 12246 net.cpp:141] Setting up inception_4e/5x5_reduce
I0403 21:37:13.301260 12246 net.cpp:148] Top shape: 24 32 14 14 (150528)
I0403 21:37:13.301275 12246 net.cpp:156] Memory required for data: 1236731424
I0403 21:37:13.301293 12246 layer_factory.hpp:77] Creating layer inception_4e/relu_5x5_reduce
I0403 21:37:13.301313 12246 net.cpp:91] Creating Layer inception_4e/relu_5x5_reduce
I0403 21:37:13.301328 12246 net.cpp:425] inception_4e/relu_5x5_reduce <- inception_4e/5x5_reduce
I0403 21:37:13.301345 12246 net.cpp:386] inception_4e/relu_5x5_reduce -> inception_4e/5x5_reduce (in-place)
I0403 21:37:13.301627 12246 net.cpp:141] Setting up inception_4e/relu_5x5_reduce
I0403 21:37:13.301653 12246 net.cpp:148] Top shape: 24 32 14 14 (150528)
I0403 21:37:13.301667 12246 net.cpp:156] Memory required for data: 1237333536
I0403 21:37:13.301682 12246 layer_factory.hpp:77] Creating layer inception_4e/5x5
I0403 21:37:13.301717 12246 net.cpp:91] Creating Layer inception_4e/5x5
I0403 21:37:13.301736 12246 net.cpp:425] inception_4e/5x5 <- inception_4e/5x5_reduce
I0403 21:37:13.301758 12246 net.cpp:399] inception_4e/5x5 -> inception_4e/5x5
I0403 21:37:13.303620 12246 net.cpp:141] Setting up inception_4e/5x5
I0403 21:37:13.303647 12246 net.cpp:148] Top shape: 24 128 14 14 (602112)
I0403 21:37:13.303661 12246 net.cpp:156] Memory required for data: 1239741984
I0403 21:37:13.303680 12246 layer_factory.hpp:77] Creating layer inception_4e/relu_5x5
I0403 21:37:13.303697 12246 net.cpp:91] Creating Layer inception_4e/relu_5x5
I0403 21:37:13.303712 12246 net.cpp:425] inception_4e/relu_5x5 <- inception_4e/5x5
I0403 21:37:13.303731 12246 net.cpp:386] inception_4e/relu_5x5 -> inception_4e/5x5 (in-place)
I0403 21:37:13.303918 12246 net.cpp:141] Setting up inception_4e/relu_5x5
I0403 21:37:13.303943 12246 net.cpp:148] Top shape: 24 128 14 14 (602112)
I0403 21:37:13.303957 12246 net.cpp:156] Memory required for data: 1242150432
I0403 21:37:13.303972 12246 layer_factory.hpp:77] Creating layer inception_4e/pool
I0403 21:37:13.303993 12246 net.cpp:91] Creating Layer inception_4e/pool
I0403 21:37:13.304009 12246 net.cpp:425] inception_4e/pool <- inception_4d/output_inception_4d/output_0_split_4
I0403 21:37:13.304026 12246 net.cpp:399] inception_4e/pool -> inception_4e/pool
I0403 21:37:13.304095 12246 net.cpp:141] Setting up inception_4e/pool
I0403 21:37:13.304116 12246 net.cpp:148] Top shape: 24 528 14 14 (2483712)
I0403 21:37:13.304131 12246 net.cpp:156] Memory required for data: 1252085280
I0403 21:37:13.304146 12246 layer_factory.hpp:77] Creating layer inception_4e/pool_proj
I0403 21:37:13.304167 12246 net.cpp:91] Creating Layer inception_4e/pool_proj
I0403 21:37:13.304189 12246 net.cpp:425] inception_4e/pool_proj <- inception_4e/pool
I0403 21:37:13.304211 12246 net.cpp:399] inception_4e/pool_proj -> inception_4e/pool_proj
I0403 21:37:13.305632 12246 net.cpp:141] Setting up inception_4e/pool_proj
I0403 21:37:13.305660 12246 net.cpp:148] Top shape: 24 128 14 14 (602112)
I0403 21:37:13.305688 12246 net.cpp:156] Memory required for data: 1254493728
I0403 21:37:13.305707 12246 layer_factory.hpp:77] Creating layer inception_4e/relu_pool_proj
I0403 21:37:13.305723 12246 net.cpp:91] Creating Layer inception_4e/relu_pool_proj
I0403 21:37:13.305739 12246 net.cpp:425] inception_4e/relu_pool_proj <- inception_4e/pool_proj
I0403 21:37:13.305758 12246 net.cpp:386] inception_4e/relu_pool_proj -> inception_4e/pool_proj (in-place)
I0403 21:37:13.306036 12246 net.cpp:141] Setting up inception_4e/relu_pool_proj
I0403 21:37:13.306061 12246 net.cpp:148] Top shape: 24 128 14 14 (602112)
I0403 21:37:13.306077 12246 net.cpp:156] Memory required for data: 1256902176
I0403 21:37:13.306090 12246 layer_factory.hpp:77] Creating layer inception_4e/output
I0403 21:37:13.306107 12246 net.cpp:91] Creating Layer inception_4e/output
I0403 21:37:13.306123 12246 net.cpp:425] inception_4e/output <- inception_4e/1x1
I0403 21:37:13.306138 12246 net.cpp:425] inception_4e/output <- inception_4e/3x3
I0403 21:37:13.306154 12246 net.cpp:425] inception_4e/output <- inception_4e/5x5
I0403 21:37:13.306169 12246 net.cpp:425] inception_4e/output <- inception_4e/pool_proj
I0403 21:37:13.306193 12246 net.cpp:399] inception_4e/output -> inception_4e/output
I0403 21:37:13.306241 12246 net.cpp:141] Setting up inception_4e/output
I0403 21:37:13.306267 12246 net.cpp:148] Top shape: 24 832 14 14 (3913728)
I0403 21:37:13.306282 12246 net.cpp:156] Memory required for data: 1272557088
I0403 21:37:13.306296 12246 layer_factory.hpp:77] Creating layer pool4/3x3_s2
I0403 21:37:13.306313 12246 net.cpp:91] Creating Layer pool4/3x3_s2
I0403 21:37:13.306329 12246 net.cpp:425] pool4/3x3_s2 <- inception_4e/output
I0403 21:37:13.306345 12246 net.cpp:399] pool4/3x3_s2 -> pool4/3x3_s2
I0403 21:37:13.306408 12246 net.cpp:141] Setting up pool4/3x3_s2
I0403 21:37:13.306432 12246 net.cpp:148] Top shape: 24 832 7 7 (978432)
I0403 21:37:13.306445 12246 net.cpp:156] Memory required for data: 1276470816
I0403 21:37:13.306459 12246 layer_factory.hpp:77] Creating layer pool4/3x3_s2_pool4/3x3_s2_0_split
I0403 21:37:13.306475 12246 net.cpp:91] Creating Layer pool4/3x3_s2_pool4/3x3_s2_0_split
I0403 21:37:13.306490 12246 net.cpp:425] pool4/3x3_s2_pool4/3x3_s2_0_split <- pool4/3x3_s2
I0403 21:37:13.306514 12246 net.cpp:399] pool4/3x3_s2_pool4/3x3_s2_0_split -> pool4/3x3_s2_pool4/3x3_s2_0_split_0
I0403 21:37:13.306534 12246 net.cpp:399] pool4/3x3_s2_pool4/3x3_s2_0_split -> pool4/3x3_s2_pool4/3x3_s2_0_split_1
I0403 21:37:13.306553 12246 net.cpp:399] pool4/3x3_s2_pool4/3x3_s2_0_split -> pool4/3x3_s2_pool4/3x3_s2_0_split_2
I0403 21:37:13.306572 12246 net.cpp:399] pool4/3x3_s2_pool4/3x3_s2_0_split -> pool4/3x3_s2_pool4/3x3_s2_0_split_3
I0403 21:37:13.306661 12246 net.cpp:141] Setting up pool4/3x3_s2_pool4/3x3_s2_0_split
I0403 21:37:13.306684 12246 net.cpp:148] Top shape: 24 832 7 7 (978432)
I0403 21:37:13.306699 12246 net.cpp:148] Top shape: 24 832 7 7 (978432)
I0403 21:37:13.306715 12246 net.cpp:148] Top shape: 24 832 7 7 (978432)
I0403 21:37:13.306730 12246 net.cpp:148] Top shape: 24 832 7 7 (978432)
I0403 21:37:13.306742 12246 net.cpp:156] Memory required for data: 1292125728
I0403 21:37:13.306757 12246 layer_factory.hpp:77] Creating layer inception_5a/1x1
I0403 21:37:13.306778 12246 net.cpp:91] Creating Layer inception_5a/1x1
I0403 21:37:13.306795 12246 net.cpp:425] inception_5a/1x1 <- pool4/3x3_s2_pool4/3x3_s2_0_split_0
I0403 21:37:13.306815 12246 net.cpp:399] inception_5a/1x1 -> inception_5a/1x1
I0403 21:37:13.309563 12246 net.cpp:141] Setting up inception_5a/1x1
I0403 21:37:13.309593 12246 net.cpp:148] Top shape: 24 256 7 7 (301056)
I0403 21:37:13.309608 12246 net.cpp:156] Memory required for data: 1293329952
I0403 21:37:13.309626 12246 layer_factory.hpp:77] Creating layer inception_5a/relu_1x1
I0403 21:37:13.309645 12246 net.cpp:91] Creating Layer inception_5a/relu_1x1
I0403 21:37:13.309661 12246 net.cpp:425] inception_5a/relu_1x1 <- inception_5a/1x1
I0403 21:37:13.309677 12246 net.cpp:386] inception_5a/relu_1x1 -> inception_5a/1x1 (in-place)
I0403 21:37:13.309978 12246 net.cpp:141] Setting up inception_5a/relu_1x1
I0403 21:37:13.310003 12246 net.cpp:148] Top shape: 24 256 7 7 (301056)
I0403 21:37:13.310017 12246 net.cpp:156] Memory required for data: 1294534176
I0403 21:37:13.310031 12246 layer_factory.hpp:77] Creating layer inception_5a/3x3_reduce
I0403 21:37:13.310053 12246 net.cpp:91] Creating Layer inception_5a/3x3_reduce
I0403 21:37:13.310070 12246 net.cpp:425] inception_5a/3x3_reduce <- pool4/3x3_s2_pool4/3x3_s2_0_split_1
I0403 21:37:13.310091 12246 net.cpp:399] inception_5a/3x3_reduce -> inception_5a/3x3_reduce
I0403 21:37:13.312597 12246 net.cpp:141] Setting up inception_5a/3x3_reduce
I0403 21:37:13.312628 12246 net.cpp:148] Top shape: 24 160 7 7 (188160)
I0403 21:37:13.312645 12246 net.cpp:156] Memory required for data: 1295286816
I0403 21:37:13.312664 12246 layer_factory.hpp:77] Creating layer inception_5a/relu_3x3_reduce
I0403 21:37:13.312680 12246 net.cpp:91] Creating Layer inception_5a/relu_3x3_reduce
I0403 21:37:13.312696 12246 net.cpp:425] inception_5a/relu_3x3_reduce <- inception_5a/3x3_reduce
I0403 21:37:13.312714 12246 net.cpp:386] inception_5a/relu_3x3_reduce -> inception_5a/3x3_reduce (in-place)
I0403 21:37:13.312901 12246 net.cpp:141] Setting up inception_5a/relu_3x3_reduce
I0403 21:37:13.312924 12246 net.cpp:148] Top shape: 24 160 7 7 (188160)
I0403 21:37:13.312939 12246 net.cpp:156] Memory required for data: 1296039456
I0403 21:37:13.312953 12246 layer_factory.hpp:77] Creating layer inception_5a/3x3
I0403 21:37:13.312975 12246 net.cpp:91] Creating Layer inception_5a/3x3
I0403 21:37:13.312993 12246 net.cpp:425] inception_5a/3x3 <- inception_5a/3x3_reduce
I0403 21:37:13.313015 12246 net.cpp:399] inception_5a/3x3 -> inception_5a/3x3
I0403 21:37:13.318037 12246 net.cpp:141] Setting up inception_5a/3x3
I0403 21:37:13.318066 12246 net.cpp:148] Top shape: 24 320 7 7 (376320)
I0403 21:37:13.318084 12246 net.cpp:156] Memory required for data: 1297544736
I0403 21:37:13.318101 12246 layer_factory.hpp:77] Creating layer inception_5a/relu_3x3
I0403 21:37:13.318120 12246 net.cpp:91] Creating Layer inception_5a/relu_3x3
I0403 21:37:13.318137 12246 net.cpp:425] inception_5a/relu_3x3 <- inception_5a/3x3
I0403 21:37:13.318157 12246 net.cpp:386] inception_5a/relu_3x3 -> inception_5a/3x3 (in-place)
I0403 21:37:13.318485 12246 net.cpp:141] Setting up inception_5a/relu_3x3
I0403 21:37:13.318523 12246 net.cpp:148] Top shape: 24 320 7 7 (376320)
I0403 21:37:13.318539 12246 net.cpp:156] Memory required for data: 1299050016
I0403 21:37:13.318553 12246 layer_factory.hpp:77] Creating layer inception_5a/5x5_reduce
I0403 21:37:13.318575 12246 net.cpp:91] Creating Layer inception_5a/5x5_reduce
I0403 21:37:13.318593 12246 net.cpp:425] inception_5a/5x5_reduce <- pool4/3x3_s2_pool4/3x3_s2_0_split_2
I0403 21:37:13.318614 12246 net.cpp:399] inception_5a/5x5_reduce -> inception_5a/5x5_reduce
I0403 21:37:13.319761 12246 net.cpp:141] Setting up inception_5a/5x5_reduce
I0403 21:37:13.319790 12246 net.cpp:148] Top shape: 24 32 7 7 (37632)
I0403 21:37:13.319807 12246 net.cpp:156] Memory required for data: 1299200544
I0403 21:37:13.319825 12246 layer_factory.hpp:77] Creating layer inception_5a/relu_5x5_reduce
I0403 21:37:13.319844 12246 net.cpp:91] Creating Layer inception_5a/relu_5x5_reduce
I0403 21:37:13.319859 12246 net.cpp:425] inception_5a/relu_5x5_reduce <- inception_5a/5x5_reduce
I0403 21:37:13.319875 12246 net.cpp:386] inception_5a/relu_5x5_reduce -> inception_5a/5x5_reduce (in-place)
I0403 21:37:13.320168 12246 net.cpp:141] Setting up inception_5a/relu_5x5_reduce
I0403 21:37:13.320199 12246 net.cpp:148] Top shape: 24 32 7 7 (37632)
I0403 21:37:13.320214 12246 net.cpp:156] Memory required for data: 1299351072
I0403 21:37:13.320230 12246 layer_factory.hpp:77] Creating layer inception_5a/5x5
I0403 21:37:13.320250 12246 net.cpp:91] Creating Layer inception_5a/5x5
I0403 21:37:13.320268 12246 net.cpp:425] inception_5a/5x5 <- inception_5a/5x5_reduce
I0403 21:37:13.320289 12246 net.cpp:399] inception_5a/5x5 -> inception_5a/5x5
I0403 21:37:13.322006 12246 net.cpp:141] Setting up inception_5a/5x5
I0403 21:37:13.322046 12246 net.cpp:148] Top shape: 24 128 7 7 (150528)
I0403 21:37:13.322062 12246 net.cpp:156] Memory required for data: 1299953184
I0403 21:37:13.322080 12246 layer_factory.hpp:77] Creating layer inception_5a/relu_5x5
I0403 21:37:13.322098 12246 net.cpp:91] Creating Layer inception_5a/relu_5x5
I0403 21:37:13.322113 12246 net.cpp:425] inception_5a/relu_5x5 <- inception_5a/5x5
I0403 21:37:13.322134 12246 net.cpp:386] inception_5a/relu_5x5 -> inception_5a/5x5 (in-place)
I0403 21:37:13.322350 12246 net.cpp:141] Setting up inception_5a/relu_5x5
I0403 21:37:13.322376 12246 net.cpp:148] Top shape: 24 128 7 7 (150528)
I0403 21:37:13.322391 12246 net.cpp:156] Memory required for data: 1300555296
I0403 21:37:13.322405 12246 layer_factory.hpp:77] Creating layer inception_5a/pool
I0403 21:37:13.322427 12246 net.cpp:91] Creating Layer inception_5a/pool
I0403 21:37:13.322444 12246 net.cpp:425] inception_5a/pool <- pool4/3x3_s2_pool4/3x3_s2_0_split_3
I0403 21:37:13.322463 12246 net.cpp:399] inception_5a/pool -> inception_5a/pool
I0403 21:37:13.322546 12246 net.cpp:141] Setting up inception_5a/pool
I0403 21:37:13.322569 12246 net.cpp:148] Top shape: 24 832 7 7 (978432)
I0403 21:37:13.322583 12246 net.cpp:156] Memory required for data: 1304469024
I0403 21:37:13.322598 12246 layer_factory.hpp:77] Creating layer inception_5a/pool_proj
I0403 21:37:13.322620 12246 net.cpp:91] Creating Layer inception_5a/pool_proj
I0403 21:37:13.322638 12246 net.cpp:425] inception_5a/pool_proj <- inception_5a/pool
I0403 21:37:13.322659 12246 net.cpp:399] inception_5a/pool_proj -> inception_5a/pool_proj
I0403 21:37:13.324935 12246 net.cpp:141] Setting up inception_5a/pool_proj
I0403 21:37:13.324967 12246 net.cpp:148] Top shape: 24 128 7 7 (150528)
I0403 21:37:13.324985 12246 net.cpp:156] Memory required for data: 1305071136
I0403 21:37:13.325002 12246 layer_factory.hpp:77] Creating layer inception_5a/relu_pool_proj
I0403 21:37:13.325019 12246 net.cpp:91] Creating Layer inception_5a/relu_pool_proj
I0403 21:37:13.325037 12246 net.cpp:425] inception_5a/relu_pool_proj <- inception_5a/pool_proj
I0403 21:37:13.325057 12246 net.cpp:386] inception_5a/relu_pool_proj -> inception_5a/pool_proj (in-place)
I0403 21:37:13.325357 12246 net.cpp:141] Setting up inception_5a/relu_pool_proj
I0403 21:37:13.325387 12246 net.cpp:148] Top shape: 24 128 7 7 (150528)
I0403 21:37:13.325402 12246 net.cpp:156] Memory required for data: 1305673248
I0403 21:37:13.325417 12246 layer_factory.hpp:77] Creating layer inception_5a/output
I0403 21:37:13.325433 12246 net.cpp:91] Creating Layer inception_5a/output
I0403 21:37:13.325448 12246 net.cpp:425] inception_5a/output <- inception_5a/1x1
I0403 21:37:13.325465 12246 net.cpp:425] inception_5a/output <- inception_5a/3x3
I0403 21:37:13.325480 12246 net.cpp:425] inception_5a/output <- inception_5a/5x5
I0403 21:37:13.325495 12246 net.cpp:425] inception_5a/output <- inception_5a/pool_proj
I0403 21:37:13.325515 12246 net.cpp:399] inception_5a/output -> inception_5a/output
I0403 21:37:13.325562 12246 net.cpp:141] Setting up inception_5a/output
I0403 21:37:13.325587 12246 net.cpp:148] Top shape: 24 832 7 7 (978432)
I0403 21:37:13.325600 12246 net.cpp:156] Memory required for data: 1309586976
I0403 21:37:13.325614 12246 layer_factory.hpp:77] Creating layer inception_5a/output_inception_5a/output_0_split
I0403 21:37:13.325634 12246 net.cpp:91] Creating Layer inception_5a/output_inception_5a/output_0_split
I0403 21:37:13.325650 12246 net.cpp:425] inception_5a/output_inception_5a/output_0_split <- inception_5a/output
I0403 21:37:13.325667 12246 net.cpp:399] inception_5a/output_inception_5a/output_0_split -> inception_5a/output_inception_5a/output_0_split_0
I0403 21:37:13.325691 12246 net.cpp:399] inception_5a/output_inception_5a/output_0_split -> inception_5a/output_inception_5a/output_0_split_1
I0403 21:37:13.325713 12246 net.cpp:399] inception_5a/output_inception_5a/output_0_split -> inception_5a/output_inception_5a/output_0_split_2
I0403 21:37:13.325732 12246 net.cpp:399] inception_5a/output_inception_5a/output_0_split -> inception_5a/output_inception_5a/output_0_split_3
I0403 21:37:13.325839 12246 net.cpp:141] Setting up inception_5a/output_inception_5a/output_0_split
I0403 21:37:13.325863 12246 net.cpp:148] Top shape: 24 832 7 7 (978432)
I0403 21:37:13.325878 12246 net.cpp:148] Top shape: 24 832 7 7 (978432)
I0403 21:37:13.325894 12246 net.cpp:148] Top shape: 24 832 7 7 (978432)
I0403 21:37:13.325909 12246 net.cpp:148] Top shape: 24 832 7 7 (978432)
I0403 21:37:13.325923 12246 net.cpp:156] Memory required for data: 1325241888
I0403 21:37:13.325937 12246 layer_factory.hpp:77] Creating layer inception_5b/1x1
I0403 21:37:13.325958 12246 net.cpp:91] Creating Layer inception_5b/1x1
I0403 21:37:13.325976 12246 net.cpp:425] inception_5b/1x1 <- inception_5a/output_inception_5a/output_0_split_0
I0403 21:37:13.325997 12246 net.cpp:399] inception_5b/1x1 -> inception_5b/1x1
I0403 21:37:13.329692 12246 net.cpp:141] Setting up inception_5b/1x1
I0403 21:37:13.329723 12246 net.cpp:148] Top shape: 24 384 7 7 (451584)
I0403 21:37:13.329740 12246 net.cpp:156] Memory required for data: 1327048224
I0403 21:37:13.329757 12246 layer_factory.hpp:77] Creating layer inception_5b/relu_1x1
I0403 21:37:13.329774 12246 net.cpp:91] Creating Layer inception_5b/relu_1x1
I0403 21:37:13.329790 12246 net.cpp:425] inception_5b/relu_1x1 <- inception_5b/1x1
I0403 21:37:13.329809 12246 net.cpp:386] inception_5b/relu_1x1 -> inception_5b/1x1 (in-place)
I0403 21:37:13.330097 12246 net.cpp:141] Setting up inception_5b/relu_1x1
I0403 21:37:13.330126 12246 net.cpp:148] Top shape: 24 384 7 7 (451584)
I0403 21:37:13.330142 12246 net.cpp:156] Memory required for data: 1328854560
I0403 21:37:13.330157 12246 layer_factory.hpp:77] Creating layer inception_5b/3x3_reduce
I0403 21:37:13.330180 12246 net.cpp:91] Creating Layer inception_5b/3x3_reduce
I0403 21:37:13.330200 12246 net.cpp:425] inception_5b/3x3_reduce <- inception_5a/output_inception_5a/output_0_split_1
I0403 21:37:13.330219 12246 net.cpp:399] inception_5b/3x3_reduce -> inception_5b/3x3_reduce
I0403 21:37:13.332890 12246 net.cpp:141] Setting up inception_5b/3x3_reduce
I0403 21:37:13.332921 12246 net.cpp:148] Top shape: 24 192 7 7 (225792)
I0403 21:37:13.332938 12246 net.cpp:156] Memory required for data: 1329757728
I0403 21:37:13.332957 12246 layer_factory.hpp:77] Creating layer inception_5b/relu_3x3_reduce
I0403 21:37:13.332973 12246 net.cpp:91] Creating Layer inception_5b/relu_3x3_reduce
I0403 21:37:13.332989 12246 net.cpp:425] inception_5b/relu_3x3_reduce <- inception_5b/3x3_reduce
I0403 21:37:13.333009 12246 net.cpp:386] inception_5b/relu_3x3_reduce -> inception_5b/3x3_reduce (in-place)
I0403 21:37:13.333195 12246 net.cpp:141] Setting up inception_5b/relu_3x3_reduce
I0403 21:37:13.333220 12246 net.cpp:148] Top shape: 24 192 7 7 (225792)
I0403 21:37:13.333235 12246 net.cpp:156] Memory required for data: 1330660896
I0403 21:37:13.333250 12246 layer_factory.hpp:77] Creating layer inception_5b/3x3
I0403 21:37:13.333271 12246 net.cpp:91] Creating Layer inception_5b/3x3
I0403 21:37:13.333299 12246 net.cpp:425] inception_5b/3x3 <- inception_5b/3x3_reduce
I0403 21:37:13.333323 12246 net.cpp:399] inception_5b/3x3 -> inception_5b/3x3
I0403 21:37:13.339977 12246 net.cpp:141] Setting up inception_5b/3x3
I0403 21:37:13.340008 12246 net.cpp:148] Top shape: 24 384 7 7 (451584)
I0403 21:37:13.340023 12246 net.cpp:156] Memory required for data: 1332467232
I0403 21:37:13.340041 12246 layer_factory.hpp:77] Creating layer inception_5b/relu_3x3
I0403 21:37:13.340059 12246 net.cpp:91] Creating Layer inception_5b/relu_3x3
I0403 21:37:13.340075 12246 net.cpp:425] inception_5b/relu_3x3 <- inception_5b/3x3
I0403 21:37:13.340095 12246 net.cpp:386] inception_5b/relu_3x3 -> inception_5b/3x3 (in-place)
I0403 21:37:13.340386 12246 net.cpp:141] Setting up inception_5b/relu_3x3
I0403 21:37:13.340414 12246 net.cpp:148] Top shape: 24 384 7 7 (451584)
I0403 21:37:13.340430 12246 net.cpp:156] Memory required for data: 1334273568
I0403 21:37:13.340445 12246 layer_factory.hpp:77] Creating layer inception_5b/5x5_reduce
I0403 21:37:13.340486 12246 net.cpp:91] Creating Layer inception_5b/5x5_reduce
I0403 21:37:13.340503 12246 net.cpp:425] inception_5b/5x5_reduce <- inception_5a/output_inception_5a/output_0_split_2
I0403 21:37:13.340524 12246 net.cpp:399] inception_5b/5x5_reduce -> inception_5b/5x5_reduce
I0403 21:37:13.341743 12246 net.cpp:141] Setting up inception_5b/5x5_reduce
I0403 21:37:13.341769 12246 net.cpp:148] Top shape: 24 48 7 7 (56448)
I0403 21:37:13.341785 12246 net.cpp:156] Memory required for data: 1334499360
I0403 21:37:13.341804 12246 layer_factory.hpp:77] Creating layer inception_5b/relu_5x5_reduce
I0403 21:37:13.341821 12246 net.cpp:91] Creating Layer inception_5b/relu_5x5_reduce
I0403 21:37:13.341837 12246 net.cpp:425] inception_5b/relu_5x5_reduce <- inception_5b/5x5_reduce
I0403 21:37:13.341857 12246 net.cpp:386] inception_5b/relu_5x5_reduce -> inception_5b/5x5_reduce (in-place)
I0403 21:37:13.342236 12246 net.cpp:141] Setting up inception_5b/relu_5x5_reduce
I0403 21:37:13.342262 12246 net.cpp:148] Top shape: 24 48 7 7 (56448)
I0403 21:37:13.342277 12246 net.cpp:156] Memory required for data: 1334725152
I0403 21:37:13.342290 12246 layer_factory.hpp:77] Creating layer inception_5b/5x5
I0403 21:37:13.342310 12246 net.cpp:91] Creating Layer inception_5b/5x5
I0403 21:37:13.342327 12246 net.cpp:425] inception_5b/5x5 <- inception_5b/5x5_reduce
I0403 21:37:13.342344 12246 net.cpp:399] inception_5b/5x5 -> inception_5b/5x5
I0403 21:37:13.344292 12246 net.cpp:141] Setting up inception_5b/5x5
I0403 21:37:13.344319 12246 net.cpp:148] Top shape: 24 128 7 7 (150528)
I0403 21:37:13.344334 12246 net.cpp:156] Memory required for data: 1335327264
I0403 21:37:13.344352 12246 layer_factory.hpp:77] Creating layer inception_5b/relu_5x5
I0403 21:37:13.344372 12246 net.cpp:91] Creating Layer inception_5b/relu_5x5
I0403 21:37:13.344388 12246 net.cpp:425] inception_5b/relu_5x5 <- inception_5b/5x5
I0403 21:37:13.344404 12246 net.cpp:386] inception_5b/relu_5x5 -> inception_5b/5x5 (in-place)
I0403 21:37:13.344589 12246 net.cpp:141] Setting up inception_5b/relu_5x5
I0403 21:37:13.344614 12246 net.cpp:148] Top shape: 24 128 7 7 (150528)
I0403 21:37:13.344627 12246 net.cpp:156] Memory required for data: 1335929376
I0403 21:37:13.344641 12246 layer_factory.hpp:77] Creating layer inception_5b/pool
I0403 21:37:13.344660 12246 net.cpp:91] Creating Layer inception_5b/pool
I0403 21:37:13.344676 12246 net.cpp:425] inception_5b/pool <- inception_5a/output_inception_5a/output_0_split_3
I0403 21:37:13.344694 12246 net.cpp:399] inception_5b/pool -> inception_5b/pool
I0403 21:37:13.344765 12246 net.cpp:141] Setting up inception_5b/pool
I0403 21:37:13.344789 12246 net.cpp:148] Top shape: 24 832 7 7 (978432)
I0403 21:37:13.344804 12246 net.cpp:156] Memory required for data: 1339843104
I0403 21:37:13.344817 12246 layer_factory.hpp:77] Creating layer inception_5b/pool_proj
I0403 21:37:13.344841 12246 net.cpp:91] Creating Layer inception_5b/pool_proj
I0403 21:37:13.344857 12246 net.cpp:425] inception_5b/pool_proj <- inception_5b/pool
I0403 21:37:13.344878 12246 net.cpp:399] inception_5b/pool_proj -> inception_5b/pool_proj
I0403 21:37:13.347112 12246 net.cpp:141] Setting up inception_5b/pool_proj
I0403 21:37:13.347141 12246 net.cpp:148] Top shape: 24 128 7 7 (150528)
I0403 21:37:13.347156 12246 net.cpp:156] Memory required for data: 1340445216
I0403 21:37:13.347173 12246 layer_factory.hpp:77] Creating layer inception_5b/relu_pool_proj
I0403 21:37:13.347196 12246 net.cpp:91] Creating Layer inception_5b/relu_pool_proj
I0403 21:37:13.347213 12246 net.cpp:425] inception_5b/relu_pool_proj <- inception_5b/pool_proj
I0403 21:37:13.347232 12246 net.cpp:386] inception_5b/relu_pool_proj -> inception_5b/pool_proj (in-place)
I0403 21:37:13.347520 12246 net.cpp:141] Setting up inception_5b/relu_pool_proj
I0403 21:37:13.347545 12246 net.cpp:148] Top shape: 24 128 7 7 (150528)
I0403 21:37:13.347559 12246 net.cpp:156] Memory required for data: 1341047328
I0403 21:37:13.347573 12246 layer_factory.hpp:77] Creating layer inception_5b/output
I0403 21:37:13.347589 12246 net.cpp:91] Creating Layer inception_5b/output
I0403 21:37:13.347618 12246 net.cpp:425] inception_5b/output <- inception_5b/1x1
I0403 21:37:13.347635 12246 net.cpp:425] inception_5b/output <- inception_5b/3x3
I0403 21:37:13.347651 12246 net.cpp:425] inception_5b/output <- inception_5b/5x5
I0403 21:37:13.347666 12246 net.cpp:425] inception_5b/output <- inception_5b/pool_proj
I0403 21:37:13.347686 12246 net.cpp:399] inception_5b/output -> inception_5b/output
I0403 21:37:13.347734 12246 net.cpp:141] Setting up inception_5b/output
I0403 21:37:13.347759 12246 net.cpp:148] Top shape: 24 1024 7 7 (1204224)
I0403 21:37:13.347774 12246 net.cpp:156] Memory required for data: 1345864224
I0403 21:37:13.347787 12246 layer_factory.hpp:77] Creating layer pool5/7x7_s1
I0403 21:37:13.347805 12246 net.cpp:91] Creating Layer pool5/7x7_s1
I0403 21:37:13.347820 12246 net.cpp:425] pool5/7x7_s1 <- inception_5b/output
I0403 21:37:13.347837 12246 net.cpp:399] pool5/7x7_s1 -> pool5/7x7_s1
I0403 21:37:13.348044 12246 net.cpp:141] Setting up pool5/7x7_s1
I0403 21:37:13.348069 12246 net.cpp:148] Top shape: 24 1024 1 1 (24576)
I0403 21:37:13.348084 12246 net.cpp:156] Memory required for data: 1345962528
I0403 21:37:13.348098 12246 layer_factory.hpp:77] Creating layer pool5/drop_7x7_s1
I0403 21:37:13.348115 12246 net.cpp:91] Creating Layer pool5/drop_7x7_s1
I0403 21:37:13.348130 12246 net.cpp:425] pool5/drop_7x7_s1 <- pool5/7x7_s1
I0403 21:37:13.348150 12246 net.cpp:386] pool5/drop_7x7_s1 -> pool5/7x7_s1 (in-place)
I0403 21:37:13.348201 12246 net.cpp:141] Setting up pool5/drop_7x7_s1
I0403 21:37:13.348225 12246 net.cpp:148] Top shape: 24 1024 1 1 (24576)
I0403 21:37:13.348240 12246 net.cpp:156] Memory required for data: 1346060832
I0403 21:37:13.348254 12246 layer_factory.hpp:77] Creating layer loss3/classifier_plantvillage
I0403 21:37:13.348273 12246 net.cpp:91] Creating Layer loss3/classifier_plantvillage
I0403 21:37:13.348289 12246 net.cpp:425] loss3/classifier_plantvillage <- pool5/7x7_s1
I0403 21:37:13.348309 12246 net.cpp:399] loss3/classifier_plantvillage -> loss3/classifier_plantvillage
I0403 21:37:13.348714 12246 net.cpp:141] Setting up loss3/classifier_plantvillage
I0403 21:37:13.348737 12246 net.cpp:148] Top shape: 24 38 (912)
I0403 21:37:13.348752 12246 net.cpp:156] Memory required for data: 1346064480
I0403 21:37:13.348768 12246 layer_factory.hpp:77] Creating layer loss3/classifier_plantvillage_loss3/classifier_plantvillage_0_split
I0403 21:37:13.348788 12246 net.cpp:91] Creating Layer loss3/classifier_plantvillage_loss3/classifier_plantvillage_0_split
I0403 21:37:13.348805 12246 net.cpp:425] loss3/classifier_plantvillage_loss3/classifier_plantvillage_0_split <- loss3/classifier_plantvillage
I0403 21:37:13.348822 12246 net.cpp:399] loss3/classifier_plantvillage_loss3/classifier_plantvillage_0_split -> loss3/classifier_plantvillage_loss3/classifier_plantvillage_0_split_0
I0403 21:37:13.348844 12246 net.cpp:399] loss3/classifier_plantvillage_loss3/classifier_plantvillage_0_split -> loss3/classifier_plantvillage_loss3/classifier_plantvillage_0_split_1
I0403 21:37:13.348862 12246 net.cpp:399] loss3/classifier_plantvillage_loss3/classifier_plantvillage_0_split -> loss3/classifier_plantvillage_loss3/classifier_plantvillage_0_split_2
I0403 21:37:13.348881 12246 net.cpp:399] loss3/classifier_plantvillage_loss3/classifier_plantvillage_0_split -> loss3/classifier_plantvillage_loss3/classifier_plantvillage_0_split_3
I0403 21:37:13.348978 12246 net.cpp:141] Setting up loss3/classifier_plantvillage_loss3/classifier_plantvillage_0_split
I0403 21:37:13.348999 12246 net.cpp:148] Top shape: 24 38 (912)
I0403 21:37:13.349014 12246 net.cpp:148] Top shape: 24 38 (912)
I0403 21:37:13.349030 12246 net.cpp:148] Top shape: 24 38 (912)
I0403 21:37:13.349045 12246 net.cpp:148] Top shape: 24 38 (912)
I0403 21:37:13.349057 12246 net.cpp:156] Memory required for data: 1346079072
I0403 21:37:13.349071 12246 layer_factory.hpp:77] Creating layer loss1/loss
I0403 21:37:13.349093 12246 net.cpp:91] Creating Layer loss1/loss
I0403 21:37:13.349109 12246 net.cpp:425] loss1/loss <- loss1/classifier_plantvillage_loss1/classifier_plantvillage_0_split_0
I0403 21:37:13.349138 12246 net.cpp:425] loss1/loss <- label_data_1_split_0
…
