…
I0403 21:57:08.071812 13403 net.cpp:313] The NetState phase (1) differed from the phase (0) specified by a rule in layer data
I0403 21:57:08.073518 13403 net.cpp:49] Initializing net from parameters: 
state {
  phase: TEST
}
layer {
  name: "data"
  type: "Data"
  top: "data"
  top: "label"
  include {
    phase: TEST
  }
  transform_param {
    mirror: false
    crop_size: 224
    mean_file: "/home/mohanty/data/final_dataset/lmdb/color-80-20/mean.binaryproto"
  }
  data_param {
    source: "/home/mohanty/data/final_dataset/lmdb/color-80-20/test_db"
    batch_size: 24
    backend: LMDB
  }
}
layer {
  name: "conv1/7x7_s2"
  type: "Convolution"
  bottom: "data"
  top: "conv1/7x7_s2"
  param {
    lr_mult: 1
    decay_mult: 1
  }
  param {
    lr_mult: 2
    decay_mult: 0
  }
  convolution_param {
    num_output: 64
    pad: 3
    kernel_size: 7
    stride: 2
    weight_filler {
      type: "xavier"
      std: 0.1
    }
    bias_filler {
      type: "constant"
      value: 0.2
    }
  }
}
layer {
  name: "conv1/relu_7x7"
  type: "ReLU"
  bottom: "conv1/7x7_s2"
  top: "conv1/7x7_s2"
}
layer {
  name: "pool1/3x3_s2"
  type: "Pooling"
  bottom: "conv1/7x7_s2"
  top: "pool1/3x3_s2"
  pooling_param {
    pool: MAX
    kernel_size: 3
    stride: 2
  }
}
layer {
  name: "pool1/norm1"
  type: "LRN"
  bottom: "pool1/3x3_s2"
  top: "pool1/norm1"
  lrn_param {
    local_size: 5
    alpha: 0.0001
    beta: 0.75
  }
}
layer {
  name: "conv2/3x3_reduce"
  type: "Convolution"
  bottom: "pool1/norm1"
  top: "conv2/3x3_reduce"
  param {
    lr_mult: 1
    decay_mult: 1
  }
  param {
    lr_mult: 2
    decay_mult: 0
  }
  convolution_param {
    num_output: 64
    kernel_size: 1
    weight_filler {
      type: "xavier"
      std: 0.1
    }
    bias_filler {
      type: "constant"
      value: 0.2
    }
  }
}
layer {
  name: "conv2/relu_3x3_reduce"
  type: "ReLU"
  bottom: "conv2/3x3_reduce"
  top: "conv2/3x3_reduce"
}
layer {
  name: "conv2/3x3"
  type: "Convolution"
  bottom: "conv2/3x3_reduce"
  top: "conv2/3x3"
  param {
    lr_mult: 1
    decay_mult: 1
  }
  param {
    lr_mult: 2
    decay_mult: 0
  }
  convolution_param {
    num_output: 192
    pad: 1
    kernel_size: 3
    weight_filler {
      type: "xavier"
      std: 0.03
    }
    bias_filler {
      type: "constant"
      value: 0.2
    }
  }
}
layer {
  name: "conv2/relu_3x3"
  type: "ReLU"
  bottom: "conv2/3x3"
  top: "conv2/3x3"
}
layer {
  name: "conv2/norm2"
  type: "LRN"
  bottom: "conv2/3x3"
  top: "conv2/norm2"
  lrn_param {
    local_size: 5
    alpha: 0.0001
    beta: 0.75
  }
}
layer {
  name: "pool2/3x3_s2"
  type: "Pooling"
  bottom: "conv2/norm2"
  top: "pool2/3x3_s2"
  pooling_param {
    pool: MAX
    kernel_size: 3
    stride: 2
  }
}
layer {
  name: "inception_3a/1x1"
  type: "Convolution"
  bottom: "pool2/3x3_s2"
  top: "inception_3a/1x1"
  param {
    lr_mult: 1
    decay_mult: 1
  }
  param {
    lr_mult: 2
    decay_mult: 0
  }
  convolution_param {
    num_output: 64
    kernel_size: 1
    weight_filler {
      type: "xavier"
      std: 0.03
    }
    bias_filler {
      type: "constant"
      value: 0.2
    }
  }
}
layer {
  name: "inception_3a/relu_1x1"
  type: "ReLU"
  bottom: "inception_3a/1x1"
  top: "inception_3a/1x1"
}
layer {
  name: "inception_3a/3x3_reduce"
  type: "Convolution"
  bottom: "pool2/3x3_s2"
  top: "inception_3a/3x3_reduce"
  param {
    lr_mult: 1
    decay_mult: 1
  }
  param {
    lr_mult: 2
    decay_mult: 0
  }
  convolution_param {
    num_output: 96
    kernel_size: 1
    weight_filler {
      type: "xavier"
      std: 0.09
    }
    bias_filler {
      type: "constant"
      value: 0.2
    }
  }
}
layer {
  name: "inception_3a/relu_3x3_reduce"
  type: "ReLU"
  bottom: "inception_3a/3x3_reduce"
  top: "inception_3a/3x3_reduce"
}
layer {
  name: "inception_3a/3x3"
  type: "Convolution"
  bottom: "inception_3a/3x3_reduce"
  top: "inception_3a/3x3"
  param {
    lr_mult: 1
    decay_mult: 1
  }
  param {
    lr_mult: 2
    decay_mult: 0
  }
  convolution_param {
    num_output: 128
    pad: 1
    kernel_size: 3
    weight_filler {
      type: "xavier"
      std: 0.03
    }
    bias_filler {
      type: "constant"
      value: 0.2
    }
  }
}
layer {
  name: "inception_3a/relu_3x3"
  type: "ReLU"
  bottom: "inception_3a/3x3"
  top: "inception_3a/3x3"
}
layer {
  name: "inception_3a/5x5_reduce"
  type: "Convolution"
  bottom: "pool2/3x3_s2"
  top: "inception_3a/5x5_reduce"
  param {
    lr_mult: 1
    decay_mult: 1
  }
  param {
    lr_mult: 2
    decay_mult: 0
  }
  convolution_param {
    num_output: 16
    kernel_size: 1
    weight_filler {
      type: "xavier"
      std: 0.2
    }
    bias_filler {
      type: "constant"
      value: 0.2
    }
  }
}
layer {
  name: "inception_3a/relu_5x5_reduce"
  type: "ReLU"
  bottom: "inception_3a/5x5_reduce"
  top: "inception_3a/5x5_reduce"
}
layer {
  name: "inception_3a/5x5"
  type: "Convolution"
  bottom: "inception_3a/5x5_reduce"
  top: "inception_3a/5x5"
  param {
    lr_mult: 1
    decay_mult: 1
  }
  param {
    lr_mult: 2
    decay_mult: 0
  }
  convolution_param {
    num_output: 32
    pad: 2
    kernel_size: 5
    weight_filler {
      type: "xavier"
      std: 0.03
    }
    bias_filler {
      type: "constant"
      value: 0.2
    }
  }
}
layer {
  name: "inception_3a/relu_5x5"
  type: "ReLU"
  bottom: "inception_3a/5x5"
  top: "inception_3a/5x5"
}
layer {
  name: "inception_3a/pool"
  type: "Pooling"
  bottom: "pool2/3x3_s2"
  top: "inception_3a/pool"
  pooling_param {
    pool: MAX
    kernel_size: 3
    stride: 1
    pad: 1
  }
}
layer {
  name: "inception_3a/pool_proj"
  type: "Convolution"
  bottom: "inception_3a/pool"
  top: "inception_3a/pool_proj"
  param {
    lr_mult: 1
    decay_mult: 1
  }
  param {
    lr_mult: 2
    decay_mult: 0
  }
  convolution_param {
    num_output: 32
    kernel_size: 1
    weight_filler {
      type: "xavier"
      std: 0.1
    }
    bias_filler {
      type: "constant"
      value: 0.2
    }
  }
}
layer {
  name: "inception_3a/relu_pool_proj"
  type: "ReLU"
  bottom: "inception_3a/pool_proj"
  top: "inception_3a/pool_proj"
}
layer {
  name: "inception_3a/output"
  type: "Concat"
  bottom: "inception_3a/1x1"
  bottom: "inception_3a/3x3"
  bottom: "inception_3a/5x5"
  bottom: "inception_3a/pool_proj"
  top: "inception_3a/output"
}
layer {
  name: "inception_3b/1x1"
  type: "Convolution"
  bottom: "inception_3a/output"
  top: "inception_3b/1x1"
  param {
    lr_mult: 1
    decay_mult: 1
  }
  param {
    lr_mult: 2
    decay_mult: 0
  }
  convolution_param {
    num_output: 128
    kernel_size: 1
    weight_filler {
      type: "xavier"
      std: 0.03
    }
    bias_filler {
      type: "constant"
      value: 0.2
    }
  }
}
layer {
  name: "inception_3b/relu_1x1"
  type: "ReLU"
  bottom: "inception_3b/1x1"
  top: "inception_3b/1x1"
}
layer {
  name: "inception_3b/3x3_reduce"
  type: "Convolution"
  bottom: "inception_3a/output"
  top: "inception_3b/3x3_reduce"
  param {
    lr_mult: 1
    decay_mult: 1
  }
  param {
    lr_mult: 2
    decay_mult: 0
  }
  convolution_param {
    num_output: 128
    kernel_size: 1
    weight_filler {
      type: "xavier"
      std: 0.09
    }
    bias_filler {
      type: "constant"
      value: 0.2
    }
  }
}
layer {
  name: "inception_3b/relu_3x3_reduce"
  type: "ReLU"
  bottom: "inception_3b/3x3_reduce"
  top: "inception_3b/3x3_reduce"
}
layer {
  name: "inception_3b/3x3"
  type: "Convolution"
  bottom: "inception_3b/3x3_reduce"
  top: "inception_3b/3x3"
  param {
    lr_mult: 1
    decay_mult: 1
  }
  param {
    lr_mult: 2
    decay_mult: 0
  }
  convolution_param {
    num_output: 192
    pad: 1
    kernel_size: 3
    weight_filler {
      type: "xavier"
      std: 0.03
    }
    bias_filler {
      type: "constant"
      value: 0.2
    }
  }
}
layer {
  name: "inception_3b/relu_3x3"
  type: "ReLU"
  bottom: "inception_3b/3x3"
  top: "inception_3b/3x3"
}
layer {
  name: "inception_3b/5x5_reduce"
  type: "Convolution"
  bottom: "inception_3a/output"
  top: "inception_3b/5x5_reduce"
  param {
    lr_mult: 1
    decay_mult: 1
  }
  param {
    lr_mult: 2
    decay_mult: 0
  }
  convolution_param {
    num_output: 32
    kernel_size: 1
    weight_filler {
      type: "xavier"
      std: 0.2
    }
    bias_filler {
      type: "constant"
      value: 0.2
    }
  }
}
layer {
  name: "inception_3b/relu_5x5_reduce"
  type: "ReLU"
  bottom: "inception_3b/5x5_reduce"
  top: "inception_3b/5x5_reduce"
}
layer {
  name: "inception_3b/5x5"
  type: "Convolution"
  bottom: "inception_3b/5x5_reduce"
  top: "inception_3b/5x5"
  param {
    lr_mult: 1
    decay_mult: 1
  }
  param {
    lr_mult: 2
    decay_mult: 0
  }
  convolution_param {
    num_output: 96
    pad: 2
    kernel_size: 5
    weight_filler {
      type: "xavier"
      std: 0.03
    }
    bias_filler {
      type: "constant"
      value: 0.2
    }
  }
}
layer {
  name: "inception_3b/relu_5x5"
  type: "ReLU"
  bottom: "inception_3b/5x5"
  top: "inception_3b/5x5"
}
layer {
  name: "inception_3b/pool"
  type: "Pooling"
  bottom: "inception_3a/output"
  top: "inception_3b/pool"
  pooling_param {
    pool: MAX
    kernel_size: 3
    stride: 1
    pad: 1
  }
}
layer {
  name: "inception_3b/pool_proj"
  type: "Convolution"
  bottom: "inception_3b/pool"
  top: "inception_3b/pool_proj"
  param {
    lr_mult: 1
    decay_mult: 1
  }
  param {
    lr_mult: 2
    decay_mult: 0
  }
  convolution_param {
    num_output: 64
    kernel_size: 1
    weight_filler {
      type: "xavier"
      std: 0.1
    }
    bias_filler {
      type: "constant"
      value: 0.2
    }
  }
}
layer {
  name: "inception_3b/relu_pool_proj"
  type: "ReLU"
  bottom: "inception_3b/pool_proj"
  top: "inception_3b/pool_proj"
}
layer {
  name: "inception_3b/output"
  type: "Concat"
  bottom: "inception_3b/1x1"
  bottom: "inception_3b/3x3"
  bottom: "inception_3b/5x5"
  bottom: "inception_3b/pool_proj"
  top: "inception_3b/output"
}
layer {
  name: "pool3/3x3_s2"
  type: "Pooling"
  bottom: "inception_3b/output"
  top: "pool3/3x3_s2"
  pooling_param {
    pool: MAX
    kernel_size: 3
    stride: 2
  }
}
layer {
  name: "inception_4a/1x1"
  type: "Convolution"
  bottom: "pool3/3x3_s2"
  top: "inception_4a/1x1"
  param {
    lr_mult: 1
    decay_mult: 1
  }
  param {
    lr_mult: 2
    decay_mult: 0
  }
  convolution_param {
    num_output: 192
    kernel_size: 1
    weight_filler {
      type: "xavier"
      std: 0.03
    }
    bias_filler {
      type: "constant"
      value: 0.2
    }
  }
}
layer {
  name: "inception_4a/relu_1x1"
  type: "ReLU"
  bottom: "inception_4a/1x1"
  top: "inception_4a/1x1"
}
layer {
  name: "inception_4a/3x3_reduce"
  type: "Convolution"
  bottom: "pool3/3x3_s2"
  top: "inception_4a/3x3_reduce"
  param {
    lr_mult: 1
    decay_mult: 1
  }
  param {
    lr_mult: 2
    decay_mult: 0
  }
  convolution_param {
    num_output: 96
    kernel_size: 1
    weight_filler {
      type: "xavier"
      std: 0.09
    }
    bias_filler {
      type: "constant"
      value: 0.2
    }
  }
}
layer {
  name: "inception_4a/relu_3x3_reduce"
  type: "ReLU"
  bottom: "inception_4a/3x3_reduce"
  top: "inception_4a/3x3_reduce"
}
layer {
  name: "inception_4a/3x3"
  type: "Convolution"
  bottom: "inception_4a/3x3_reduce"
  top: "inception_4a/3x3"
  param {
    lr_mult: 1
    decay_mult: 1
  }
  param {
    lr_mult: 2
    decay_mult: 0
  }
  convolution_param {
    num_output: 208
    pad: 1
    kernel_size: 3
    weight_filler {
      type: "xavier"
      std: 0.03
    }
    bias_filler {
      type: "constant"
      value: 0.2
    }
  }
}
layer {
  name: "inception_4a/relu_3x3"
  type: "ReLU"
  bottom: "inception_4a/3x3"
  top: "inception_4a/3x3"
}
layer {
  name: "inception_4a/5x5_reduce"
  type: "Convolution"
  bottom: "pool3/3x3_s2"
  top: "inception_4a/5x5_reduce"
  param {
    lr_mult: 1
    decay_mult: 1
  }
  param {
    lr_mult: 2
    decay_mult: 0
  }
  convolution_param {
    num_output: 16
    kernel_size: 1
    weight_filler {
      type: "xavier"
      std: 0.2
    }
    bias_filler {
      type: "constant"
      value: 0.2
    }
  }
}
layer {
  name: "inception_4a/relu_5x5_reduce"
  type: "ReLU"
  bottom: "inception_4a/5x5_reduce"
  top: "inception_4a/5x5_reduce"
}
layer {
  name: "inception_4a/5x5"
  type: "Convolution"
  bottom: "inception_4a/5x5_reduce"
  top: "inception_4a/5x5"
  param {
    lr_mult: 1
    decay_mult: 1
  }
  param {
    lr_mult: 2
    decay_mult: 0
  }
  convolution_param {
    num_output: 48
    pad: 2
    kernel_size: 5
    weight_filler {
      type: "xavier"
      std: 0.03
    }
    bias_filler {
      type: "constant"
      value: 0.2
    }
  }
}
layer {
  name: "inception_4a/relu_5x5"
  type: "ReLU"
  bottom: "inception_4a/5x5"
  top: "inception_4a/5x5"
}
layer {
  name: "inception_4a/pool"
  type: "Pooling"
  bottom: "pool3/3x3_s2"
  top: "inception_4a/pool"
  pooling_param {
    pool: MAX
    kernel_size: 3
    stride: 1
    pad: 1
  }
}
layer {
  name: "inception_4a/pool_proj"
  type: "Convolution"
  bottom: "inception_4a/pool"
  top: "inception_4a/pool_proj"
  param {
    lr_mult: 1
    decay_mult: 1
  }
  param {
    lr_mult: 2
    decay_mult: 0
  }
  convolution_param {
    num_output: 64
    kernel_size: 1
    weight_filler {
      type: "xavier"
      std: 0.1
    }
    bias_filler {
      type: "constant"
      value: 0.2
    }
  }
}
layer {
  name: "inception_4a/relu_pool_proj"
  type: "ReLU"
  bottom: "inception_4a/pool_proj"
  top: "inception_4a/pool_proj"
}
layer {
  name: "inception_4a/output"
  type: "Concat"
  bottom: "inception_4a/1x1"
  bottom: "inception_4a/3x3"
  bottom: "inception_4a/5x5"
  bottom: "inception_4a/pool_proj"
  top: "inception_4a/output"
}
layer {
  name: "loss1/ave_pool"
  type: "Pooling"
  bottom: "inception_4a/output"
  top: "loss1/ave_pool"
  pooling_param {
    pool: AVE
    kernel_size: 5
    stride: 3
  }
}
layer {
  name: "loss1/conv"
  type: "Convolution"
  bottom: "loss1/ave_pool"
  top: "loss1/conv"
  param {
    lr_mult: 1
    decay_mult: 1
  }
  param {
    lr_mult: 2
    decay_mult: 0
  }
  convolution_param {
    num_output: 128
    kernel_size: 1
    weight_filler {
      type: "xavier"
      std: 0.08
    }
    bias_filler {
      type: "constant"
      value: 0.2
    }
  }
}
layer {
  name: "loss1/relu_conv"
  type: "ReLU"
  bottom: "loss1/conv"
  top: "loss1/conv"
}
layer {
  name: "loss1/fc"
  type: "InnerProduct"
  bottom: "loss1/conv"
  top: "loss1/fc"
  param {
    lr_mult: 1
    decay_mult: 1
  }
  param {
    lr_mult: 2
    decay_mult: 0
  }
  inner_product_param {
    num_output: 1024
    weight_filler {
      type: "xavier"
      std: 0.02
    }
    bias_filler {
      type: "constant"
      value: 0.2
    }
  }
}
layer {
  name: "loss1/relu_fc"
  type: "ReLU"
  bottom: "loss1/fc"
  top: "loss1/fc"
}
layer {
  name: "loss1/drop_fc"
  type: "Dropout"
  bottom: "loss1/fc"
  top: "loss1/fc"
  dropout_param {
    dropout_ratio: 0.7
  }
}
layer {
  name: "loss1/classifier_plantvillage"
  type: "InnerProduct"
  bottom: "loss1/fc"
  top: "loss1/classifier_plantvillage"
  param {
    lr_mult: 1
    decay_mult: 1
  }
  param {
    lr_mult: 2
    decay_mult: 0
  }
  inner_product_param {
    num_output: 38
    weight_filler {
      type: "xavier"
      std: 0.0009765625
    }
    bias_filler {
      type: "constant"
      value: 0
    }
  }
}
layer {
  name: "inception_4b/1x1"
  type: "Convolution"
  bottom: "inception_4a/output"
  top: "inception_4b/1x1"
  param {
    lr_mult: 1
    decay_mult: 1
  }
  param {
    lr_mult: 2
    decay_mult: 0
  }
  convolution_param {
    num_output: 160
    kernel_size: 1
    weight_filler {
      type: "xavier"
      std: 0.03
    }
    bias_filler {
      type: "constant"
      value: 0.2
    }
  }
}
layer {
  name: "inception_4b/relu_1x1"
  type: "ReLU"
  bottom: "inception_4b/1x1"
  top: "inception_4b/1x1"
}
layer {
  name: "inception_4b/3x3_reduce"
  type: "Convolution"
  bottom: "inception_4a/output"
  top: "inception_4b/3x3_reduce"
  param {
    lr_mult: 1
    decay_mult: 1
  }
  param {
    lr_mult: 2
    decay_mult: 0
  }
  convolution_param {
    num_output: 112
    kernel_size: 1
    weight_filler {
      type: "xavier"
      std: 0.09
    }
    bias_filler {
      type: "constant"
      value: 0.2
    }
  }
}
layer {
  name: "inception_4b/relu_3x3_reduce"
  type: "ReLU"
  bottom: "inception_4b/3x3_reduce"
  top: "inception_4b/3x3_reduce"
}
layer {
  name: "inception_4b/3x3"
  type: "Convolution"
  bottom: "inception_4b/3x3_reduce"
  top: "inception_4b/3x3"
  param {
    lr_mult: 1
    decay_mult: 1
  }
  param {
    lr_mult: 2
    decay_mult: 0
  }
  convolution_param {
    num_output: 224
    pad: 1
    kernel_size: 3
    weight_filler {
      type: "xavier"
      std: 0.03
    }
    bias_filler {
      type: "constant"
      value: 0.2
    }
  }
}
layer {
  name: "inception_4b/relu_3x3"
  type: "ReLU"
  bottom: "inception_4b/3x3"
  top: "inception_4b/3x3"
}
layer {
  name: "inception_4b/5x5_reduce"
  type: "Convolution"
  bottom: "inception_4a/output"
  top: "inception_4b/5x5_reduce"
  param {
    lr_mult: 1
    decay_mult: 1
  }
  param {
    lr_mult: 2
    decay_mult: 0
  }
  convolution_param {
    num_output: 24
    kernel_size: 1
    weight_filler {
      type: "xavier"
      std: 0.2
    }
    bias_filler {
      type: "constant"
      value: 0.2
    }
  }
}
layer {
  name: "inception_4b/relu_5x5_reduce"
  type: "ReLU"
  bottom: "inception_4b/5x5_reduce"
  top: "inception_4b/5x5_reduce"
}
layer {
  name: "inception_4b/5x5"
  type: "Convolution"
  bottom: "inception_4b/5x5_reduce"
  top: "inception_4b/5x5"
  param {
    lr_mult: 1
    decay_mult: 1
  }
  param {
    lr_mult: 2
    decay_mult: 0
  }
  convolution_param {
    num_output: 64
    pad: 2
    kernel_size: 5
    weight_filler {
      type: "xavier"
      std: 0.03
    }
    bias_filler {
      type: "constant"
      value: 0.2
    }
  }
}
layer {
  name: "inception_4b/relu_5x5"
  type: "ReLU"
  bottom: "inception_4b/5x5"
  top: "inception_4b/5x5"
}
layer {
  name: "inception_4b/pool"
  type: "Pooling"
  bottom: "inception_4a/output"
  top: "inception_4b/pool"
  pooling_param {
    pool: MAX
    kernel_size: 3
    stride: 1
    pad: 1
  }
}
layer {
  name: "inception_4b/pool_proj"
  type: "Convolution"
  bottom: "inception_4b/pool"
  top: "inception_4b/pool_proj"
  param {
    lr_mult: 1
    decay_mult: 1
  }
  param {
    lr_mult: 2
    decay_mult: 0
  }
  convolution_param {
    num_output: 64
    kernel_size: 1
    weight_filler {
      type: "xavier"
      std: 0.1
    }
    bias_filler {
      type: "constant"
      value: 0.2
    }
  }
}
layer {
  name: "inception_4b/relu_pool_proj"
  type: "ReLU"
  bottom: "inception_4b/pool_proj"
  top: "inception_4b/pool_proj"
}
layer {
  name: "inception_4b/output"
  type: "Concat"
  bottom: "inception_4b/1x1"
  bottom: "inception_4b/3x3"
  bottom: "inception_4b/5x5"
  bottom: "inception_4b/pool_proj"
  top: "inception_4b/output"
}
layer {
  name: "inception_4c/1x1"
  type: "Convolution"
  bottom: "inception_4b/output"
  top: "inception_4c/1x1"
  param {
    lr_mult: 1
    decay_mult: 1
  }
  param {
    lr_mult: 2
    decay_mult: 0
  }
  convolution_param {
    num_output: 128
    kernel_size: 1
    weight_filler {
      type: "xavier"
      std: 0.03
    }
    bias_filler {
      type: "constant"
      value: 0.2
    }
  }
}
layer {
  name: "inception_4c/relu_1x1"
  type: "ReLU"
  bottom: "inception_4c/1x1"
  top: "inception_4c/1x1"
}
layer {
  name: "inception_4c/3x3_reduce"
  type: "Convolution"
  bottom: "inception_4b/output"
  top: "inception_4c/3x3_reduce"
  param {
    lr_mult: 1
    decay_mult: 1
  }
  param {
    lr_mult: 2
    decay_mult: 0
  }
  convolution_param {
    num_output: 128
    kernel_size: 1
    weight_filler {
      type: "xavier"
      std: 0.09
    }
    bias_filler {
      type: "constant"
      value: 0.2
    }
  }
}
layer {
  name: "inception_4c/relu_3x3_reduce"
  type: "ReLU"
  bottom: "inception_4c/3x3_reduce"
  top: "inception_4c/3x3_reduce"
}
layer {
  name: "inception_4c/3x3"
  type: "Convolution"
  bottom: "inception_4c/3x3_reduce"
  top: "inception_4c/3x3"
  param {
    lr_mult: 1
    decay_mult: 1
  }
  param {
    lr_mult: 2
    decay_mult: 0
  }
  convolution_param {
    num_output: 256
    pad: 1
    kernel_size: 3
    weight_filler {
      type: "xavier"
      std: 0.03
    }
    bias_filler {
      type: "constant"
      value: 0.2
    }
  }
}
layer {
  name: "inception_4c/relu_3x3"
  type: "ReLU"
  bottom: "inception_4c/3x3"
  top: "inception_4c/3x3"
}
layer {
  name: "inception_4c/5x5_reduce"
  type: "Convolution"
  bottom: "inception_4b/output"
  top: "inception_4c/5x5_reduce"
  param {
    lr_mult: 1
    decay_mult: 1
  }
  param {
    lr_mult: 2
    decay_mult: 0
  }
  convolution_param {
    num_output: 24
    kernel_size: 1
    weight_filler {
      type: "xavier"
      std: 0.2
    }
    bias_filler {
      type: "constant"
      value: 0.2
    }
  }
}
layer {
  name: "inception_4c/relu_5x5_reduce"
  type: "ReLU"
  bottom: "inception_4c/5x5_reduce"
  top: "inception_4c/5x5_reduce"
}
layer {
  name: "inception_4c/5x5"
  type: "Convolution"
  bottom: "inception_4c/5x5_reduce"
  top: "inception_4c/5x5"
  param {
    lr_mult: 1
    decay_mult: 1
  }
  param {
    lr_mult: 2
    decay_mult: 0
  }
  convolution_param {
    num_output: 64
    pad: 2
    kernel_size: 5
    weight_filler {
      type: "xavier"
      std: 0.03
    }
    bias_filler {
      type: "constant"
      value: 0.2
    }
  }
}
layer {
  name: "inception_4c/relu_5x5"
  type: "ReLU"
  bottom: "inception_4c/5x5"
  top: "inception_4c/5x5"
}
layer {
  name: "inception_4c/pool"
  type: "Pooling"
  bottom: "inception_4b/output"
  top: "inception_4c/pool"
  pooling_param {
    pool: MAX
    kernel_size: 3
    stride: 1
    pad: 1
  }
}
layer {
  name: "inception_4c/pool_proj"
  type: "Convolution"
  bottom: "inception_4c/pool"
  top: "inception_4c/pool_proj"
  param {
    lr_mult: 1
    decay_mult: 1
  }
  param {
    lr_mult: 2
    decay_mult: 0
  }
  convolution_param {
    num_output: 64
    kernel_size: 1
    weight_filler {
      type: "xavier"
      std: 0.1
    }
    bias_filler {
      type: "constant"
      value: 0.2
    }
  }
}
layer {
  name: "inception_4c/relu_pool_proj"
  type: "ReLU"
  bottom: "inception_4c/pool_proj"
  top: "inception_4c/pool_proj"
}
layer {
  name: "inception_4c/output"
  type: "Concat"
  bottom: "inception_4c/1x1"
  bottom: "inception_4c/3x3"
  bottom: "inception_4c/5x5"
  bottom: "inception_4c/pool_proj"
  top: "inception_4c/output"
}
layer {
  name: "inception_4d/1x1"
  type: "Convolution"
  bottom: "inception_4c/output"
  top: "inception_4d/1x1"
  param {
    lr_mult: 1
    decay_mult: 1
  }
  param {
    lr_mult: 2
    decay_mult: 0
  }
  convolution_param {
    num_output: 112
    kernel_size: 1
    weight_filler {
      type: "xavier"
      std: 0.03
    }
    bias_filler {
      type: "constant"
      value: 0.2
    }
  }
}
layer {
  name: "inception_4d/relu_1x1"
  type: "ReLU"
  bottom: "inception_4d/1x1"
  top: "inception_4d/1x1"
}
layer {
  name: "inception_4d/3x3_reduce"
  type: "Convolution"
  bottom: "inception_4c/output"
  top: "inception_4d/3x3_reduce"
  param {
    lr_mult: 1
    decay_mult: 1
  }
  param {
    lr_mult: 2
    decay_mult: 0
  }
  convolution_param {
    num_output: 144
    kernel_size: 1
    weight_filler {
      type: "xavier"
      std: 0.09
    }
    bias_filler {
      type: "constant"
      value: 0.2
    }
  }
}
layer {
  name: "inception_4d/relu_3x3_reduce"
  type: "ReLU"
  bottom: "inception_4d/3x3_reduce"
  top: "inception_4d/3x3_reduce"
}
layer {
  name: "inception_4d/3x3"
  type: "Convolution"
  bottom: "inception_4d/3x3_reduce"
  top: "inception_4d/3x3"
  param {
    lr_mult: 1
    decay_mult: 1
  }
  param {
    lr_mult: 2
    decay_mult: 0
  }
  convolution_param {
    num_output: 288
    pad: 1
    kernel_size: 3
    weight_filler {
      type: "xavier"
      std: 0.03
    }
    bias_filler {
      type: "constant"
      value: 0.2
    }
  }
}
layer {
  name: "inception_4d/relu_3x3"
  type: "ReLU"
  bottom: "inception_4d/3x3"
  top: "inception_4d/3x3"
}
layer {
  name: "inception_4d/5x5_reduce"
  type: "Convolution"
  bottom: "inception_4c/output"
  top: "inception_4d/5x5_reduce"
  param {
    lr_mult: 1
    decay_mult: 1
  }
  param {
    lr_mult: 2
    decay_mult: 0
  }
  convolution_param {
    num_output: 32
    kernel_size: 1
    weight_filler {
      type: "xavier"
      std: 0.2
    }
    bias_filler {
      type: "constant"
      value: 0.2
    }
  }
}
layer {
  name: "inception_4d/relu_5x5_reduce"
  type: "ReLU"
  bottom: "inception_4d/5x5_reduce"
  top: "inception_4d/5x5_reduce"
}
layer {
  name: "inception_4d/5x5"
  type: "Convolution"
  bottom: "inception_4d/5x5_reduce"
  top: "inception_4d/5x5"
  param {
    lr_mult: 1
    decay_mult: 1
  }
  param {
    lr_mult: 2
    decay_mult: 0
  }
  convolution_param {
    num_output: 64
    pad: 2
    kernel_size: 5
    weight_filler {
      type: "xavier"
      std: 0.03
    }
    bias_filler {
      type: "constant"
      value: 0.2
    }
  }
}
layer {
  name: "inception_4d/relu_5x5"
  type: "ReLU"
  bottom: "inception_4d/5x5"
  top: "inception_4d/5x5"
}
layer {
  name: "inception_4d/pool"
  type: "Pooling"
  bottom: "inception_4c/output"
  top: "inception_4d/pool"
  pooling_param {
    pool: MAX
    kernel_size: 3
    stride: 1
    pad: 1
  }
}
layer {
  name: "inception_4d/pool_proj"
  type: "Convolution"
  bottom: "inception_4d/pool"
  top: "inception_4d/pool_proj"
  param {
    lr_mult: 1
    decay_mult: 1
  }
  param {
    lr_mult: 2
    decay_mult: 0
  }
  convolution_param {
    num_output: 64
    kernel_size: 1
    weight_filler {
      type: "xavier"
      std: 0.1
    }
    bias_filler {
      type: "constant"
      value: 0.2
    }
  }
}
layer {
  name: "inception_4d/relu_pool_proj"
  type: "ReLU"
  bottom: "inception_4d/pool_proj"
  top: "inception_4d/pool_proj"
}
layer {
  name: "inception_4d/output"
  type: "Concat"
  bottom: "inception_4d/1x1"
  bottom: "inception_4d/3x3"
  bottom: "inception_4d/5x5"
  bottom: "inception_4d/pool_proj"
  top: "inception_4d/output"
}
layer {
  name: "loss2/ave_pool"
  type: "Pooling"
  bottom: "inception_4d/output"
  top: "loss2/ave_pool"
  pooling_param {
    pool: AVE
    kernel_size: 5
    stride: 3
  }
}
layer {
  name: "loss2/conv"
  type: "Convolution"
  bottom: "loss2/ave_pool"
  top: "loss2/conv"
  param {
    lr_mult: 1
    decay_mult: 1
  }
  param {
    lr_mult: 2
    decay_mult: 0
  }
  convolution_param {
    num_output: 128
    kernel_size: 1
    weight_filler {
      type: "xavier"
      std: 0.08
    }
    bias_filler {
      type: "constant"
      value: 0.2
    }
  }
}
layer {
  name: "loss2/relu_conv"
  type: "ReLU"
  bottom: "loss2/conv"
  top: "loss2/conv"
}
layer {
  name: "loss2/fc"
  type: "InnerProduct"
  bottom: "loss2/conv"
  top: "loss2/fc"
  param {
    lr_mult: 1
    decay_mult: 1
  }
  param {
    lr_mult: 2
    decay_mult: 0
  }
  inner_product_param {
    num_output: 1024
    weight_filler {
      type: "xavier"
      std: 0.02
    }
    bias_filler {
      type: "constant"
      value: 0.2
    }
  }
}
layer {
  name: "loss2/relu_fc"
  type: "ReLU"
  bottom: "loss2/fc"
  top: "loss2/fc"
}
layer {
  name: "loss2/drop_fc"
  type: "Dropout"
  bottom: "loss2/fc"
  top: "loss2/fc"
  dropout_param {
    dropout_ratio: 0.7
  }
}
layer {
  name: "loss2/classifier_plantvillage"
  type: "InnerProduct"
  bottom: "loss2/fc"
  top: "loss2/classifier_plantvillage"
  param {
    lr_mult: 1
    decay_mult: 1
  }
  param {
    lr_mult: 2
    decay_mult: 0
  }
  inner_product_param {
    num_output: 38
    weight_filler {
      type: "xavier"
      std: 0.0009765625
    }
    bias_filler {
      type: "constant"
      value: 0
    }
  }
}
layer {
  name: "inception_4e/1x1"
  type: "Convolution"
  bottom: "inception_4d/output"
  top: "inception_4e/1x1"
  param {
    lr_mult: 1
    decay_mult: 1
  }
  param {
    lr_mult: 2
    decay_mult: 0
  }
  convolution_param {
    num_output: 256
    kernel_size: 1
    weight_filler {
      type: "xavier"
      std: 0.03
    }
    bias_filler {
      type: "constant"
      value: 0.2
    }
  }
}
layer {
  name: "inception_4e/relu_1x1"
  type: "ReLU"
  bottom: "inception_4e/1x1"
  top: "inception_4e/1x1"
}
layer {
  name: "inception_4e/3x3_reduce"
  type: "Convolution"
  bottom: "inception_4d/output"
  top: "inception_4e/3x3_reduce"
  param {
    lr_mult: 1
    decay_mult: 1
  }
  param {
    lr_mult: 2
    decay_mult: 0
  }
  convolution_param {
    num_output: 160
    kernel_size: 1
    weight_filler {
      type: "xavier"
      std: 0.09
    }
    bias_filler {
      type: "constant"
      value: 0.2
    }
  }
}
layer {
  name: "inception_4e/relu_3x3_reduce"
  type: "ReLU"
  bottom: "inception_4e/3x3_reduce"
  top: "inception_4e/3x3_reduce"
}
layer {
  name: "inception_4e/3x3"
  type: "Convolution"
  bottom: "inception_4e/3x3_reduce"
  top: "inception_4e/3x3"
  param {
    lr_mult: 1
    decay_mult: 1
  }
  param {
    lr_mult: 2
    decay_mult: 0
  }
  convolution_param {
    num_output: 320
    pad: 1
    kernel_size: 3
    weight_filler {
      type: "xavier"
      std: 0.03
    }
    bias_filler {
      type: "constant"
      value: 0.2
    }
  }
}
layer {
  name: "inception_4e/relu_3x3"
  type: "ReLU"
  bottom: "inception_4e/3x3"
  top: "inception_4e/3x3"
}
layer {
  name: "inception_4e/5x5_reduce"
  type: "Convolution"
  bottom: "inception_4d/output"
  top: "inception_4e/5x5_reduce"
  param {
    lr_mult: 1
    decay_mult: 1
  }
  param {
    lr_mult: 2
    decay_mult: 0
  }
  convolution_param {
    num_output: 32
    kernel_size: 1
    weight_filler {
      type: "xavier"
      std: 0.2
    }
    bias_filler {
      type: "constant"
      value: 0.2
    }
  }
}
layer {
  name: "inception_4e/relu_5x5_reduce"
  type: "ReLU"
  bottom: "inception_4e/5x5_reduce"
  top: "inception_4e/5x5_reduce"
}
layer {
  name: "inception_4e/5x5"
  type: "Convolution"
  bottom: "inception_4e/5x5_reduce"
  top: "inception_4e/5x5"
  p
I0403 21:57:08.076134 13403 layer_factory.hpp:77] Creating layer data
I0403 21:57:08.076870 13403 net.cpp:91] Creating Layer data
I0403 21:57:08.076907 13403 net.cpp:399] data -> data
I0403 21:57:08.076969 13403 net.cpp:399] data -> label
I0403 21:57:08.077013 13403 data_transformer.cpp:25] Loading mean file from: /home/mohanty/data/final_dataset/lmdb/color-80-20/mean.binaryproto
I0403 21:57:08.078454 13406 db_lmdb.cpp:38] Opened lmdb /home/mohanty/data/final_dataset/lmdb/color-80-20/test_db
I0403 21:57:08.094480 13403 data_layer.cpp:41] output data size: 24,3,224,224
I0403 21:57:08.127750 13403 net.cpp:141] Setting up data
I0403 21:57:08.127862 13403 net.cpp:148] Top shape: 24 3 224 224 (3612672)
I0403 21:57:08.127889 13403 net.cpp:148] Top shape: 24 (24)
I0403 21:57:08.127907 13403 net.cpp:156] Memory required for data: 14450784
I0403 21:57:08.127938 13403 layer_factory.hpp:77] Creating layer label_data_1_split
I0403 21:57:08.127971 13403 net.cpp:91] Creating Layer label_data_1_split
I0403 21:57:08.127995 13403 net.cpp:425] label_data_1_split <- label
I0403 21:57:08.128033 13403 net.cpp:399] label_data_1_split -> label_data_1_split_0
I0403 21:57:08.128068 13403 net.cpp:399] label_data_1_split -> label_data_1_split_1
I0403 21:57:08.128095 13403 net.cpp:399] label_data_1_split -> label_data_1_split_2
I0403 21:57:08.128123 13403 net.cpp:399] label_data_1_split -> label_data_1_split_3
I0403 21:57:08.128146 13403 net.cpp:399] label_data_1_split -> label_data_1_split_4
I0403 21:57:08.128171 13403 net.cpp:399] label_data_1_split -> label_data_1_split_5
I0403 21:57:08.128202 13403 net.cpp:399] label_data_1_split -> label_data_1_split_6
I0403 21:57:08.128229 13403 net.cpp:399] label_data_1_split -> label_data_1_split_7
I0403 21:57:08.128253 13403 net.cpp:399] label_data_1_split -> label_data_1_split_8
I0403 21:57:08.128278 13403 net.cpp:399] label_data_1_split -> label_data_1_split_9
I0403 21:57:08.128422 13403 net.cpp:141] Setting up label_data_1_split
I0403 21:57:08.128451 13403 net.cpp:148] Top shape: 24 (24)
I0403 21:57:08.128473 13403 net.cpp:148] Top shape: 24 (24)
I0403 21:57:08.128494 13403 net.cpp:148] Top shape: 24 (24)
I0403 21:57:08.128512 13403 net.cpp:148] Top shape: 24 (24)
I0403 21:57:08.128531 13403 net.cpp:148] Top shape: 24 (24)
I0403 21:57:08.128551 13403 net.cpp:148] Top shape: 24 (24)
I0403 21:57:08.128571 13403 net.cpp:148] Top shape: 24 (24)
I0403 21:57:08.128590 13403 net.cpp:148] Top shape: 24 (24)
I0403 21:57:08.128608 13403 net.cpp:148] Top shape: 24 (24)
I0403 21:57:08.128630 13403 net.cpp:148] Top shape: 24 (24)
I0403 21:57:08.128686 13403 net.cpp:156] Memory required for data: 14451744
I0403 21:57:08.128707 13403 layer_factory.hpp:77] Creating layer conv1/7x7_s2
I0403 21:57:08.128747 13403 net.cpp:91] Creating Layer conv1/7x7_s2
I0403 21:57:08.128772 13403 net.cpp:425] conv1/7x7_s2 <- data
I0403 21:57:08.128795 13403 net.cpp:399] conv1/7x7_s2 -> conv1/7x7_s2
I0403 21:57:08.299782 13403 net.cpp:141] Setting up conv1/7x7_s2
I0403 21:57:08.299901 13403 net.cpp:148] Top shape: 24 64 112 112 (19267584)
I0403 21:57:08.299921 13403 net.cpp:156] Memory required for data: 91522080
I0403 21:57:08.299959 13403 layer_factory.hpp:77] Creating layer conv1/relu_7x7
I0403 21:57:08.300040 13403 net.cpp:91] Creating Layer conv1/relu_7x7
I0403 21:57:08.300070 13403 net.cpp:425] conv1/relu_7x7 <- conv1/7x7_s2
I0403 21:57:08.300093 13403 net.cpp:386] conv1/relu_7x7 -> conv1/7x7_s2 (in-place)
I0403 21:57:08.300415 13403 net.cpp:141] Setting up conv1/relu_7x7
I0403 21:57:08.300447 13403 net.cpp:148] Top shape: 24 64 112 112 (19267584)
I0403 21:57:08.300467 13403 net.cpp:156] Memory required for data: 168592416
I0403 21:57:08.300485 13403 layer_factory.hpp:77] Creating layer pool1/3x3_s2
I0403 21:57:08.300518 13403 net.cpp:91] Creating Layer pool1/3x3_s2
I0403 21:57:08.300540 13403 net.cpp:425] pool1/3x3_s2 <- conv1/7x7_s2
I0403 21:57:08.300562 13403 net.cpp:399] pool1/3x3_s2 -> pool1/3x3_s2
I0403 21:57:08.300654 13403 net.cpp:141] Setting up pool1/3x3_s2
I0403 21:57:08.300684 13403 net.cpp:148] Top shape: 24 64 56 56 (4816896)
I0403 21:57:08.300704 13403 net.cpp:156] Memory required for data: 187860000
I0403 21:57:08.300721 13403 layer_factory.hpp:77] Creating layer pool1/norm1
I0403 21:57:08.300752 13403 net.cpp:91] Creating Layer pool1/norm1
I0403 21:57:08.300776 13403 net.cpp:425] pool1/norm1 <- pool1/3x3_s2
I0403 21:57:08.300798 13403 net.cpp:399] pool1/norm1 -> pool1/norm1
I0403 21:57:08.301146 13403 net.cpp:141] Setting up pool1/norm1
I0403 21:57:08.301179 13403 net.cpp:148] Top shape: 24 64 56 56 (4816896)
I0403 21:57:08.301198 13403 net.cpp:156] Memory required for data: 207127584
I0403 21:57:08.301224 13403 layer_factory.hpp:77] Creating layer conv2/3x3_reduce
I0403 21:57:08.301255 13403 net.cpp:91] Creating Layer conv2/3x3_reduce
I0403 21:57:08.301277 13403 net.cpp:425] conv2/3x3_reduce <- pool1/norm1
I0403 21:57:08.301301 13403 net.cpp:399] conv2/3x3_reduce -> conv2/3x3_reduce
I0403 21:57:08.303076 13403 net.cpp:141] Setting up conv2/3x3_reduce
I0403 21:57:08.303112 13403 net.cpp:148] Top shape: 24 64 56 56 (4816896)
I0403 21:57:08.303131 13403 net.cpp:156] Memory required for data: 226395168
I0403 21:57:08.303158 13403 layer_factory.hpp:77] Creating layer conv2/relu_3x3_reduce
I0403 21:57:08.303186 13403 net.cpp:91] Creating Layer conv2/relu_3x3_reduce
I0403 21:57:08.303211 13403 net.cpp:425] conv2/relu_3x3_reduce <- conv2/3x3_reduce
I0403 21:57:08.303236 13403 net.cpp:386] conv2/relu_3x3_reduce -> conv2/3x3_reduce (in-place)
I0403 21:57:08.303556 13403 net.cpp:141] Setting up conv2/relu_3x3_reduce
I0403 21:57:08.303591 13403 net.cpp:148] Top shape: 24 64 56 56 (4816896)
I0403 21:57:08.303608 13403 net.cpp:156] Memory required for data: 245662752
I0403 21:57:08.303627 13403 layer_factory.hpp:77] Creating layer conv2/3x3
I0403 21:57:08.303656 13403 net.cpp:91] Creating Layer conv2/3x3
I0403 21:57:08.303679 13403 net.cpp:425] conv2/3x3 <- conv2/3x3_reduce
I0403 21:57:08.303705 13403 net.cpp:399] conv2/3x3 -> conv2/3x3
I0403 21:57:08.306543 13403 net.cpp:141] Setting up conv2/3x3
I0403 21:57:08.306581 13403 net.cpp:148] Top shape: 24 192 56 56 (14450688)
I0403 21:57:08.306602 13403 net.cpp:156] Memory required for data: 303465504
I0403 21:57:08.306627 13403 layer_factory.hpp:77] Creating layer conv2/relu_3x3
I0403 21:57:08.306659 13403 net.cpp:91] Creating Layer conv2/relu_3x3
I0403 21:57:08.306712 13403 net.cpp:425] conv2/relu_3x3 <- conv2/3x3
I0403 21:57:08.306741 13403 net.cpp:386] conv2/relu_3x3 -> conv2/3x3 (in-place)
I0403 21:57:08.306962 13403 net.cpp:141] Setting up conv2/relu_3x3
I0403 21:57:08.306996 13403 net.cpp:148] Top shape: 24 192 56 56 (14450688)
I0403 21:57:08.307054 13403 net.cpp:156] Memory required for data: 361268256
I0403 21:57:08.307073 13403 layer_factory.hpp:77] Creating layer conv2/norm2
I0403 21:57:08.307096 13403 net.cpp:91] Creating Layer conv2/norm2
I0403 21:57:08.307117 13403 net.cpp:425] conv2/norm2 <- conv2/3x3
I0403 21:57:08.307143 13403 net.cpp:399] conv2/norm2 -> conv2/norm2
I0403 21:57:08.307517 13403 net.cpp:141] Setting up conv2/norm2
I0403 21:57:08.307550 13403 net.cpp:148] Top shape: 24 192 56 56 (14450688)
I0403 21:57:08.307569 13403 net.cpp:156] Memory required for data: 419071008
I0403 21:57:08.307588 13403 layer_factory.hpp:77] Creating layer pool2/3x3_s2
I0403 21:57:08.307610 13403 net.cpp:91] Creating Layer pool2/3x3_s2
I0403 21:57:08.307631 13403 net.cpp:425] pool2/3x3_s2 <- conv2/norm2
I0403 21:57:08.307657 13403 net.cpp:399] pool2/3x3_s2 -> pool2/3x3_s2
I0403 21:57:08.307724 13403 net.cpp:141] Setting up pool2/3x3_s2
I0403 21:57:08.307754 13403 net.cpp:148] Top shape: 24 192 28 28 (3612672)
I0403 21:57:08.307771 13403 net.cpp:156] Memory required for data: 433521696
I0403 21:57:08.307790 13403 layer_factory.hpp:77] Creating layer pool2/3x3_s2_pool2/3x3_s2_0_split
I0403 21:57:08.307816 13403 net.cpp:91] Creating Layer pool2/3x3_s2_pool2/3x3_s2_0_split
I0403 21:57:08.307837 13403 net.cpp:425] pool2/3x3_s2_pool2/3x3_s2_0_split <- pool2/3x3_s2
I0403 21:57:08.307862 13403 net.cpp:399] pool2/3x3_s2_pool2/3x3_s2_0_split -> pool2/3x3_s2_pool2/3x3_s2_0_split_0
I0403 21:57:08.307888 13403 net.cpp:399] pool2/3x3_s2_pool2/3x3_s2_0_split -> pool2/3x3_s2_pool2/3x3_s2_0_split_1
I0403 21:57:08.307911 13403 net.cpp:399] pool2/3x3_s2_pool2/3x3_s2_0_split -> pool2/3x3_s2_pool2/3x3_s2_0_split_2
I0403 21:57:08.307935 13403 net.cpp:399] pool2/3x3_s2_pool2/3x3_s2_0_split -> pool2/3x3_s2_pool2/3x3_s2_0_split_3
I0403 21:57:08.308024 13403 net.cpp:141] Setting up pool2/3x3_s2_pool2/3x3_s2_0_split
I0403 21:57:08.308053 13403 net.cpp:148] Top shape: 24 192 28 28 (3612672)
I0403 21:57:08.308073 13403 net.cpp:148] Top shape: 24 192 28 28 (3612672)
I0403 21:57:08.308094 13403 net.cpp:148] Top shape: 24 192 28 28 (3612672)
I0403 21:57:08.308112 13403 net.cpp:148] Top shape: 24 192 28 28 (3612672)
I0403 21:57:08.308130 13403 net.cpp:156] Memory required for data: 491324448
I0403 21:57:08.308147 13403 layer_factory.hpp:77] Creating layer inception_3a/1x1
I0403 21:57:08.308176 13403 net.cpp:91] Creating Layer inception_3a/1x1
I0403 21:57:08.308197 13403 net.cpp:425] inception_3a/1x1 <- pool2/3x3_s2_pool2/3x3_s2_0_split_0
I0403 21:57:08.308230 13403 net.cpp:399] inception_3a/1x1 -> inception_3a/1x1
I0403 21:57:08.310158 13403 net.cpp:141] Setting up inception_3a/1x1
I0403 21:57:08.310194 13403 net.cpp:148] Top shape: 24 64 28 28 (1204224)
I0403 21:57:08.310220 13403 net.cpp:156] Memory required for data: 496141344
I0403 21:57:08.310245 13403 layer_factory.hpp:77] Creating layer inception_3a/relu_1x1
I0403 21:57:08.310271 13403 net.cpp:91] Creating Layer inception_3a/relu_1x1
I0403 21:57:08.310293 13403 net.cpp:425] inception_3a/relu_1x1 <- inception_3a/1x1
I0403 21:57:08.310315 13403 net.cpp:386] inception_3a/relu_1x1 -> inception_3a/1x1 (in-place)
I0403 21:57:08.310525 13403 net.cpp:141] Setting up inception_3a/relu_1x1
I0403 21:57:08.310556 13403 net.cpp:148] Top shape: 24 64 28 28 (1204224)
I0403 21:57:08.310575 13403 net.cpp:156] Memory required for data: 500958240
I0403 21:57:08.310593 13403 layer_factory.hpp:77] Creating layer inception_3a/3x3_reduce
I0403 21:57:08.310622 13403 net.cpp:91] Creating Layer inception_3a/3x3_reduce
I0403 21:57:08.310645 13403 net.cpp:425] inception_3a/3x3_reduce <- pool2/3x3_s2_pool2/3x3_s2_0_split_1
I0403 21:57:08.310668 13403 net.cpp:399] inception_3a/3x3_reduce -> inception_3a/3x3_reduce
I0403 21:57:08.312768 13403 net.cpp:141] Setting up inception_3a/3x3_reduce
I0403 21:57:08.312804 13403 net.cpp:148] Top shape: 24 96 28 28 (1806336)
I0403 21:57:08.312825 13403 net.cpp:156] Memory required for data: 508183584
I0403 21:57:08.312851 13403 layer_factory.hpp:77] Creating layer inception_3a/relu_3x3_reduce
I0403 21:57:08.312903 13403 net.cpp:91] Creating Layer inception_3a/relu_3x3_reduce
I0403 21:57:08.312925 13403 net.cpp:425] inception_3a/relu_3x3_reduce <- inception_3a/3x3_reduce
I0403 21:57:08.312947 13403 net.cpp:386] inception_3a/relu_3x3_reduce -> inception_3a/3x3_reduce (in-place)
I0403 21:57:08.313171 13403 net.cpp:141] Setting up inception_3a/relu_3x3_reduce
I0403 21:57:08.313202 13403 net.cpp:148] Top shape: 24 96 28 28 (1806336)
I0403 21:57:08.313228 13403 net.cpp:156] Memory required for data: 515408928
I0403 21:57:08.313246 13403 layer_factory.hpp:77] Creating layer inception_3a/3x3
I0403 21:57:08.313276 13403 net.cpp:91] Creating Layer inception_3a/3x3
I0403 21:57:08.313297 13403 net.cpp:425] inception_3a/3x3 <- inception_3a/3x3_reduce
I0403 21:57:08.313324 13403 net.cpp:399] inception_3a/3x3 -> inception_3a/3x3
I0403 21:57:08.315409 13403 net.cpp:141] Setting up inception_3a/3x3
I0403 21:57:08.315445 13403 net.cpp:148] Top shape: 24 128 28 28 (2408448)
I0403 21:57:08.315466 13403 net.cpp:156] Memory required for data: 525042720
I0403 21:57:08.315490 13403 layer_factory.hpp:77] Creating layer inception_3a/relu_3x3
I0403 21:57:08.315515 13403 net.cpp:91] Creating Layer inception_3a/relu_3x3
I0403 21:57:08.315537 13403 net.cpp:425] inception_3a/relu_3x3 <- inception_3a/3x3
I0403 21:57:08.315559 13403 net.cpp:386] inception_3a/relu_3x3 -> inception_3a/3x3 (in-place)
I0403 21:57:08.315891 13403 net.cpp:141] Setting up inception_3a/relu_3x3
I0403 21:57:08.315924 13403 net.cpp:148] Top shape: 24 128 28 28 (2408448)
I0403 21:57:08.315943 13403 net.cpp:156] Memory required for data: 534676512
I0403 21:57:08.315961 13403 layer_factory.hpp:77] Creating layer inception_3a/5x5_reduce
I0403 21:57:08.315994 13403 net.cpp:91] Creating Layer inception_3a/5x5_reduce
I0403 21:57:08.316016 13403 net.cpp:425] inception_3a/5x5_reduce <- pool2/3x3_s2_pool2/3x3_s2_0_split_2
I0403 21:57:08.316043 13403 net.cpp:399] inception_3a/5x5_reduce -> inception_3a/5x5_reduce
I0403 21:57:08.317229 13403 net.cpp:141] Setting up inception_3a/5x5_reduce
I0403 21:57:08.317265 13403 net.cpp:148] Top shape: 24 16 28 28 (301056)
I0403 21:57:08.317288 13403 net.cpp:156] Memory required for data: 535880736
I0403 21:57:08.317312 13403 layer_factory.hpp:77] Creating layer inception_3a/relu_5x5_reduce
I0403 21:57:08.317335 13403 net.cpp:91] Creating Layer inception_3a/relu_5x5_reduce
I0403 21:57:08.317354 13403 net.cpp:425] inception_3a/relu_5x5_reduce <- inception_3a/5x5_reduce
I0403 21:57:08.317376 13403 net.cpp:386] inception_3a/relu_5x5_reduce -> inception_3a/5x5_reduce (in-place)
I0403 21:57:08.317716 13403 net.cpp:141] Setting up inception_3a/relu_5x5_reduce
I0403 21:57:08.317752 13403 net.cpp:148] Top shape: 24 16 28 28 (301056)
I0403 21:57:08.317772 13403 net.cpp:156] Memory required for data: 537084960
I0403 21:57:08.317790 13403 layer_factory.hpp:77] Creating layer inception_3a/5x5
I0403 21:57:08.317818 13403 net.cpp:91] Creating Layer inception_3a/5x5
I0403 21:57:08.317842 13403 net.cpp:425] inception_3a/5x5 <- inception_3a/5x5_reduce
I0403 21:57:08.317867 13403 net.cpp:399] inception_3a/5x5 -> inception_3a/5x5
I0403 21:57:08.319088 13403 net.cpp:141] Setting up inception_3a/5x5
I0403 21:57:08.319123 13403 net.cpp:148] Top shape: 24 32 28 28 (602112)
I0403 21:57:08.319141 13403 net.cpp:156] Memory required for data: 539493408
I0403 21:57:08.319164 13403 layer_factory.hpp:77] Creating layer inception_3a/relu_5x5
I0403 21:57:08.319190 13403 net.cpp:91] Creating Layer inception_3a/relu_5x5
I0403 21:57:08.319218 13403 net.cpp:425] inception_3a/relu_5x5 <- inception_3a/5x5
I0403 21:57:08.319243 13403 net.cpp:386] inception_3a/relu_5x5 -> inception_3a/5x5 (in-place)
I0403 21:57:08.319458 13403 net.cpp:141] Setting up inception_3a/relu_5x5
I0403 21:57:08.319489 13403 net.cpp:148] Top shape: 24 32 28 28 (602112)
I0403 21:57:08.319507 13403 net.cpp:156] Memory required for data: 541901856
I0403 21:57:08.319525 13403 layer_factory.hpp:77] Creating layer inception_3a/pool
I0403 21:57:08.319550 13403 net.cpp:91] Creating Layer inception_3a/pool
I0403 21:57:08.319571 13403 net.cpp:425] inception_3a/pool <- pool2/3x3_s2_pool2/3x3_s2_0_split_3
I0403 21:57:08.319615 13403 net.cpp:399] inception_3a/pool -> inception_3a/pool
I0403 21:57:08.319689 13403 net.cpp:141] Setting up inception_3a/pool
I0403 21:57:08.319717 13403 net.cpp:148] Top shape: 24 192 28 28 (3612672)
I0403 21:57:08.319736 13403 net.cpp:156] Memory required for data: 556352544
I0403 21:57:08.319754 13403 layer_factory.hpp:77] Creating layer inception_3a/pool_proj
I0403 21:57:08.319783 13403 net.cpp:91] Creating Layer inception_3a/pool_proj
I0403 21:57:08.319805 13403 net.cpp:425] inception_3a/pool_proj <- inception_3a/pool
I0403 21:57:08.319831 13403 net.cpp:399] inception_3a/pool_proj -> inception_3a/pool_proj
I0403 21:57:08.320997 13403 net.cpp:141] Setting up inception_3a/pool_proj
I0403 21:57:08.321036 13403 net.cpp:148] Top shape: 24 32 28 28 (602112)
I0403 21:57:08.321058 13403 net.cpp:156] Memory required for data: 558760992
I0403 21:57:08.321087 13403 layer_factory.hpp:77] Creating layer inception_3a/relu_pool_proj
I0403 21:57:08.321112 13403 net.cpp:91] Creating Layer inception_3a/relu_pool_proj
I0403 21:57:08.321131 13403 net.cpp:425] inception_3a/relu_pool_proj <- inception_3a/pool_proj
I0403 21:57:08.321154 13403 net.cpp:386] inception_3a/relu_pool_proj -> inception_3a/pool_proj (in-place)
I0403 21:57:08.321481 13403 net.cpp:141] Setting up inception_3a/relu_pool_proj
I0403 21:57:08.321514 13403 net.cpp:148] Top shape: 24 32 28 28 (602112)
I0403 21:57:08.321534 13403 net.cpp:156] Memory required for data: 561169440
I0403 21:57:08.321552 13403 layer_factory.hpp:77] Creating layer inception_3a/output
I0403 21:57:08.321578 13403 net.cpp:91] Creating Layer inception_3a/output
I0403 21:57:08.321599 13403 net.cpp:425] inception_3a/output <- inception_3a/1x1
I0403 21:57:08.321619 13403 net.cpp:425] inception_3a/output <- inception_3a/3x3
I0403 21:57:08.321640 13403 net.cpp:425] inception_3a/output <- inception_3a/5x5
I0403 21:57:08.321660 13403 net.cpp:425] inception_3a/output <- inception_3a/pool_proj
I0403 21:57:08.321681 13403 net.cpp:399] inception_3a/output -> inception_3a/output
I0403 21:57:08.321741 13403 net.cpp:141] Setting up inception_3a/output
I0403 21:57:08.321770 13403 net.cpp:148] Top shape: 24 256 28 28 (4816896)
I0403 21:57:08.321789 13403 net.cpp:156] Memory required for data: 580437024
I0403 21:57:08.321807 13403 layer_factory.hpp:77] Creating layer inception_3a/output_inception_3a/output_0_split
I0403 21:57:08.321828 13403 net.cpp:91] Creating Layer inception_3a/output_inception_3a/output_0_split
I0403 21:57:08.321848 13403 net.cpp:425] inception_3a/output_inception_3a/output_0_split <- inception_3a/output
I0403 21:57:08.321873 13403 net.cpp:399] inception_3a/output_inception_3a/output_0_split -> inception_3a/output_inception_3a/output_0_split_0
I0403 21:57:08.321899 13403 net.cpp:399] inception_3a/output_inception_3a/output_0_split -> inception_3a/output_inception_3a/output_0_split_1
I0403 21:57:08.321928 13403 net.cpp:399] inception_3a/output_inception_3a/output_0_split -> inception_3a/output_inception_3a/output_0_split_2
I0403 21:57:08.321955 13403 net.cpp:399] inception_3a/output_inception_3a/output_0_split -> inception_3a/output_inception_3a/output_0_split_3
I0403 21:57:08.322048 13403 net.cpp:141] Setting up inception_3a/output_inception_3a/output_0_split
I0403 21:57:08.322078 13403 net.cpp:148] Top shape: 24 256 28 28 (4816896)
I0403 21:57:08.322099 13403 net.cpp:148] Top shape: 24 256 28 28 (4816896)
I0403 21:57:08.322118 13403 net.cpp:148] Top shape: 24 256 28 28 (4816896)
I0403 21:57:08.322139 13403 net.cpp:148] Top shape: 24 256 28 28 (4816896)
I0403 21:57:08.322159 13403 net.cpp:156] Memory required for data: 657507360
I0403 21:57:08.322176 13403 layer_factory.hpp:77] Creating layer inception_3b/1x1
I0403 21:57:08.322206 13403 net.cpp:91] Creating Layer inception_3b/1x1
I0403 21:57:08.322244 13403 net.cpp:425] inception_3b/1x1 <- inception_3a/output_inception_3a/output_0_split_0
I0403 21:57:08.322273 13403 net.cpp:399] inception_3b/1x1 -> inception_3b/1x1
I0403 21:57:08.323655 13403 net.cpp:141] Setting up inception_3b/1x1
I0403 21:57:08.323705 13403 net.cpp:148] Top shape: 24 128 28 28 (2408448)
I0403 21:57:08.323724 13403 net.cpp:156] Memory required for data: 667141152
I0403 21:57:08.323748 13403 layer_factory.hpp:77] Creating layer inception_3b/relu_1x1
I0403 21:57:08.323770 13403 net.cpp:91] Creating Layer inception_3b/relu_1x1
I0403 21:57:08.323791 13403 net.cpp:425] inception_3b/relu_1x1 <- inception_3b/1x1
I0403 21:57:08.323815 13403 net.cpp:386] inception_3b/relu_1x1 -> inception_3b/1x1 (in-place)
I0403 21:57:08.324036 13403 net.cpp:141] Setting up inception_3b/relu_1x1
I0403 21:57:08.324067 13403 net.cpp:148] Top shape: 24 128 28 28 (2408448)
I0403 21:57:08.324086 13403 net.cpp:156] Memory required for data: 676774944
I0403 21:57:08.324105 13403 layer_factory.hpp:77] Creating layer inception_3b/3x3_reduce
I0403 21:57:08.324133 13403 net.cpp:91] Creating Layer inception_3b/3x3_reduce
I0403 21:57:08.324156 13403 net.cpp:425] inception_3b/3x3_reduce <- inception_3a/output_inception_3a/output_0_split_1
I0403 21:57:08.324182 13403 net.cpp:399] inception_3b/3x3_reduce -> inception_3b/3x3_reduce
I0403 21:57:08.325569 13403 net.cpp:141] Setting up inception_3b/3x3_reduce
I0403 21:57:08.325603 13403 net.cpp:148] Top shape: 24 128 28 28 (2408448)
I0403 21:57:08.325623 13403 net.cpp:156] Memory required for data: 686408736
I0403 21:57:08.325646 13403 layer_factory.hpp:77] Creating layer inception_3b/relu_3x3_reduce
I0403 21:57:08.325672 13403 net.cpp:91] Creating Layer inception_3b/relu_3x3_reduce
I0403 21:57:08.325695 13403 net.cpp:425] inception_3b/relu_3x3_reduce <- inception_3b/3x3_reduce
I0403 21:57:08.325716 13403 net.cpp:386] inception_3b/relu_3x3_reduce -> inception_3b/3x3_reduce (in-place)
I0403 21:57:08.325927 13403 net.cpp:141] Setting up inception_3b/relu_3x3_reduce
I0403 21:57:08.325960 13403 net.cpp:148] Top shape: 24 128 28 28 (2408448)
I0403 21:57:08.325980 13403 net.cpp:156] Memory required for data: 696042528
I0403 21:57:08.325999 13403 layer_factory.hpp:77] Creating layer inception_3b/3x3
I0403 21:57:08.326031 13403 net.cpp:91] Creating Layer inception_3b/3x3
I0403 21:57:08.326055 13403 net.cpp:425] inception_3b/3x3 <- inception_3b/3x3_reduce
I0403 21:57:08.326077 13403 net.cpp:399] inception_3b/3x3 -> inception_3b/3x3
I0403 21:57:08.329638 13403 net.cpp:141] Setting up inception_3b/3x3
I0403 21:57:08.329674 13403 net.cpp:148] Top shape: 24 192 28 28 (3612672)
I0403 21:57:08.329694 13403 net.cpp:156] Memory required for data: 710493216
I0403 21:57:08.329717 13403 layer_factory.hpp:77] Creating layer inception_3b/relu_3x3
I0403 21:57:08.329747 13403 net.cpp:91] Creating Layer inception_3b/relu_3x3
I0403 21:57:08.329768 13403 net.cpp:425] inception_3b/relu_3x3 <- inception_3b/3x3
I0403 21:57:08.329790 13403 net.cpp:386] inception_3b/relu_3x3 -> inception_3b/3x3 (in-place)
I0403 21:57:08.330127 13403 net.cpp:141] Setting up inception_3b/relu_3x3
I0403 21:57:08.330160 13403 net.cpp:148] Top shape: 24 192 28 28 (3612672)
I0403 21:57:08.330178 13403 net.cpp:156] Memory required for data: 724943904
I0403 21:57:08.330196 13403 layer_factory.hpp:77] Creating layer inception_3b/5x5_reduce
I0403 21:57:08.330231 13403 net.cpp:91] Creating Layer inception_3b/5x5_reduce
I0403 21:57:08.330255 13403 net.cpp:425] inception_3b/5x5_reduce <- inception_3a/output_inception_3a/output_0_split_2
I0403 21:57:08.330283 13403 net.cpp:399] inception_3b/5x5_reduce -> inception_3b/5x5_reduce
I0403 21:57:08.331511 13403 net.cpp:141] Setting up inception_3b/5x5_reduce
I0403 21:57:08.331547 13403 net.cpp:148] Top shape: 24 32 28 28 (602112)
I0403 21:57:08.331567 13403 net.cpp:156] Memory required for data: 727352352
I0403 21:57:08.331589 13403 layer_factory.hpp:77] Creating layer inception_3b/relu_5x5_reduce
I0403 21:57:08.331616 13403 net.cpp:91] Creating Layer inception_3b/relu_5x5_reduce
I0403 21:57:08.331637 13403 net.cpp:425] inception_3b/relu_5x5_reduce <- inception_3b/5x5_reduce
I0403 21:57:08.331660 13403 net.cpp:386] inception_3b/relu_5x5_reduce -> inception_3b/5x5_reduce (in-place)
I0403 21:57:08.331881 13403 net.cpp:141] Setting up inception_3b/relu_5x5_reduce
I0403 21:57:08.331928 13403 net.cpp:148] Top shape: 24 32 28 28 (602112)
I0403 21:57:08.331946 13403 net.cpp:156] Memory required for data: 729760800
I0403 21:57:08.331965 13403 layer_factory.hpp:77] Creating layer inception_3b/5x5
I0403 21:57:08.331996 13403 net.cpp:91] Creating Layer inception_3b/5x5
I0403 21:57:08.332018 13403 net.cpp:425] inception_3b/5x5 <- inception_3b/5x5_reduce
I0403 21:57:08.332042 13403 net.cpp:399] inception_3b/5x5 -> inception_3b/5x5
I0403 21:57:08.334470 13403 net.cpp:141] Setting up inception_3b/5x5
I0403 21:57:08.334504 13403 net.cpp:148] Top shape: 24 96 28 28 (1806336)
I0403 21:57:08.334523 13403 net.cpp:156] Memory required for data: 736986144
I0403 21:57:08.334547 13403 layer_factory.hpp:77] Creating layer inception_3b/relu_5x5
I0403 21:57:08.334569 13403 net.cpp:91] Creating Layer inception_3b/relu_5x5
I0403 21:57:08.334597 13403 net.cpp:425] inception_3b/relu_5x5 <- inception_3b/5x5
I0403 21:57:08.334620 13403 net.cpp:386] inception_3b/relu_5x5 -> inception_3b/5x5 (in-place)
I0403 21:57:08.334856 13403 net.cpp:141] Setting up inception_3b/relu_5x5
I0403 21:57:08.334888 13403 net.cpp:148] Top shape: 24 96 28 28 (1806336)
I0403 21:57:08.334908 13403 net.cpp:156] Memory required for data: 744211488
I0403 21:57:08.334925 13403 layer_factory.hpp:77] Creating layer inception_3b/pool
I0403 21:57:08.334947 13403 net.cpp:91] Creating Layer inception_3b/pool
I0403 21:57:08.334967 13403 net.cpp:425] inception_3b/pool <- inception_3a/output_inception_3a/output_0_split_3
I0403 21:57:08.334990 13403 net.cpp:399] inception_3b/pool -> inception_3b/pool
I0403 21:57:08.335062 13403 net.cpp:141] Setting up inception_3b/pool
I0403 21:57:08.335093 13403 net.cpp:148] Top shape: 24 256 28 28 (4816896)
I0403 21:57:08.335110 13403 net.cpp:156] Memory required for data: 763479072
I0403 21:57:08.335129 13403 layer_factory.hpp:77] Creating layer inception_3b/pool_proj
I0403 21:57:08.335158 13403 net.cpp:91] Creating Layer inception_3b/pool_proj
I0403 21:57:08.335180 13403 net.cpp:425] inception_3b/pool_proj <- inception_3b/pool
I0403 21:57:08.335206 13403 net.cpp:399] inception_3b/pool_proj -> inception_3b/pool_proj
I0403 21:57:08.336500 13403 net.cpp:141] Setting up inception_3b/pool_proj
I0403 21:57:08.336539 13403 net.cpp:148] Top shape: 24 64 28 28 (1204224)
I0403 21:57:08.336558 13403 net.cpp:156] Memory required for data: 768295968
I0403 21:57:08.336582 13403 layer_factory.hpp:77] Creating layer inception_3b/relu_pool_proj
I0403 21:57:08.336604 13403 net.cpp:91] Creating Layer inception_3b/relu_pool_proj
I0403 21:57:08.336623 13403 net.cpp:425] inception_3b/relu_pool_proj <- inception_3b/pool_proj
I0403 21:57:08.336648 13403 net.cpp:386] inception_3b/relu_pool_proj -> inception_3b/pool_proj (in-place)
I0403 21:57:08.337098 13403 net.cpp:141] Setting up inception_3b/relu_pool_proj
I0403 21:57:08.337133 13403 net.cpp:148] Top shape: 24 64 28 28 (1204224)
I0403 21:57:08.337153 13403 net.cpp:156] Memory required for data: 773112864
I0403 21:57:08.337172 13403 layer_factory.hpp:77] Creating layer inception_3b/output
I0403 21:57:08.337193 13403 net.cpp:91] Creating Layer inception_3b/output
I0403 21:57:08.337218 13403 net.cpp:425] inception_3b/output <- inception_3b/1x1
I0403 21:57:08.337241 13403 net.cpp:425] inception_3b/output <- inception_3b/3x3
I0403 21:57:08.337261 13403 net.cpp:425] inception_3b/output <- inception_3b/5x5
I0403 21:57:08.337282 13403 net.cpp:425] inception_3b/output <- inception_3b/pool_proj
I0403 21:57:08.337304 13403 net.cpp:399] inception_3b/output -> inception_3b/output
I0403 21:57:08.337359 13403 net.cpp:141] Setting up inception_3b/output
I0403 21:57:08.337389 13403 net.cpp:148] Top shape: 24 480 28 28 (9031680)
I0403 21:57:08.337407 13403 net.cpp:156] Memory required for data: 809239584
I0403 21:57:08.337425 13403 layer_factory.hpp:77] Creating layer pool3/3x3_s2
I0403 21:57:08.337450 13403 net.cpp:91] Creating Layer pool3/3x3_s2
I0403 21:57:08.337471 13403 net.cpp:425] pool3/3x3_s2 <- inception_3b/output
I0403 21:57:08.337493 13403 net.cpp:399] pool3/3x3_s2 -> pool3/3x3_s2
I0403 21:57:08.337584 13403 net.cpp:141] Setting up pool3/3x3_s2
I0403 21:57:08.337612 13403 net.cpp:148] Top shape: 24 480 14 14 (2257920)
I0403 21:57:08.337630 13403 net.cpp:156] Memory required for data: 818271264
I0403 21:57:08.337648 13403 layer_factory.hpp:77] Creating layer pool3/3x3_s2_pool3/3x3_s2_0_split
I0403 21:57:08.337669 13403 net.cpp:91] Creating Layer pool3/3x3_s2_pool3/3x3_s2_0_split
I0403 21:57:08.337687 13403 net.cpp:425] pool3/3x3_s2_pool3/3x3_s2_0_split <- pool3/3x3_s2
I0403 21:57:08.337712 13403 net.cpp:399] pool3/3x3_s2_pool3/3x3_s2_0_split -> pool3/3x3_s2_pool3/3x3_s2_0_split_0
I0403 21:57:08.337736 13403 net.cpp:399] pool3/3x3_s2_pool3/3x3_s2_0_split -> pool3/3x3_s2_pool3/3x3_s2_0_split_1
I0403 21:57:08.337761 13403 net.cpp:399] pool3/3x3_s2_pool3/3x3_s2_0_split -> pool3/3x3_s2_pool3/3x3_s2_0_split_2
I0403 21:57:08.337785 13403 net.cpp:399] pool3/3x3_s2_pool3/3x3_s2_0_split -> pool3/3x3_s2_pool3/3x3_s2_0_split_3
I0403 21:57:08.337880 13403 net.cpp:141] Setting up pool3/3x3_s2_pool3/3x3_s2_0_split
I0403 21:57:08.337913 13403 net.cpp:148] Top shape: 24 480 14 14 (2257920)
I0403 21:57:08.337934 13403 net.cpp:148] Top shape: 24 480 14 14 (2257920)
I0403 21:57:08.337954 13403 net.cpp:148] Top shape: 24 480 14 14 (2257920)
I0403 21:57:08.337972 13403 net.cpp:148] Top shape: 24 480 14 14 (2257920)
I0403 21:57:08.337990 13403 net.cpp:156] Memory required for data: 854397984
I0403 21:57:08.338008 13403 layer_factory.hpp:77] Creating layer inception_4a/1x1
I0403 21:57:08.338037 13403 net.cpp:91] Creating Layer inception_4a/1x1
I0403 21:57:08.338058 13403 net.cpp:425] inception_4a/1x1 <- pool3/3x3_s2_pool3/3x3_s2_0_split_0
I0403 21:57:08.338081 13403 net.cpp:399] inception_4a/1x1 -> inception_4a/1x1
I0403 21:57:08.340006 13403 net.cpp:141] Setting up inception_4a/1x1
I0403 21:57:08.340044 13403 net.cpp:148] Top shape: 24 192 14 14 (903168)
I0403 21:57:08.340065 13403 net.cpp:156] Memory required for data: 858010656
I0403 21:57:08.340087 13403 layer_factory.hpp:77] Creating layer inception_4a/relu_1x1
I0403 21:57:08.340109 13403 net.cpp:91] Creating Layer inception_4a/relu_1x1
I0403 21:57:08.340129 13403 net.cpp:425] inception_4a/relu_1x1 <- inception_4a/1x1
I0403 21:57:08.340153 13403 net.cpp:386] inception_4a/relu_1x1 -> inception_4a/1x1 (in-place)
I0403 21:57:08.340378 13403 net.cpp:141] Setting up inception_4a/relu_1x1
I0403 21:57:08.340410 13403 net.cpp:148] Top shape: 24 192 14 14 (903168)
I0403 21:57:08.340430 13403 net.cpp:156] Memory required for data: 861623328
I0403 21:57:08.340448 13403 layer_factory.hpp:77] Creating layer inception_4a/3x3_reduce
I0403 21:57:08.340476 13403 net.cpp:91] Creating Layer inception_4a/3x3_reduce
I0403 21:57:08.340497 13403 net.cpp:425] inception_4a/3x3_reduce <- pool3/3x3_s2_pool3/3x3_s2_0_split_1
I0403 21:57:08.340524 13403 net.cpp:399] inception_4a/3x3_reduce -> inception_4a/3x3_reduce
I0403 21:57:08.342067 13403 net.cpp:141] Setting up inception_4a/3x3_reduce
I0403 21:57:08.342103 13403 net.cpp:148] Top shape: 24 96 14 14 (451584)
I0403 21:57:08.342123 13403 net.cpp:156] Memory required for data: 863429664
I0403 21:57:08.342151 13403 layer_factory.hpp:77] Creating layer inception_4a/relu_3x3_reduce
I0403 21:57:08.342177 13403 net.cpp:91] Creating Layer inception_4a/relu_3x3_reduce
I0403 21:57:08.342198 13403 net.cpp:425] inception_4a/relu_3x3_reduce <- inception_4a/3x3_reduce
I0403 21:57:08.342236 13403 net.cpp:386] inception_4a/relu_3x3_reduce -> inception_4a/3x3_reduce (in-place)
I0403 21:57:08.342458 13403 net.cpp:141] Setting up inception_4a/relu_3x3_reduce
I0403 21:57:08.342491 13403 net.cpp:148] Top shape: 24 96 14 14 (451584)
I0403 21:57:08.342509 13403 net.cpp:156] Memory required for data: 865236000
I0403 21:57:08.342527 13403 layer_factory.hpp:77] Creating layer inception_4a/3x3
I0403 21:57:08.342555 13403 net.cpp:91] Creating Layer inception_4a/3x3
I0403 21:57:08.342578 13403 net.cpp:425] inception_4a/3x3 <- inception_4a/3x3_reduce
I0403 21:57:08.342607 13403 net.cpp:399] inception_4a/3x3 -> inception_4a/3x3
I0403 21:57:08.345890 13403 net.cpp:141] Setting up inception_4a/3x3
I0403 21:57:08.345926 13403 net.cpp:148] Top shape: 24 208 14 14 (978432)
I0403 21:57:08.345944 13403 net.cpp:156] Memory required for data: 869149728
I0403 21:57:08.345968 13403 layer_factory.hpp:77] Creating layer inception_4a/relu_3x3
I0403 21:57:08.345993 13403 net.cpp:91] Creating Layer inception_4a/relu_3x3
I0403 21:57:08.346014 13403 net.cpp:425] inception_4a/relu_3x3 <- inception_4a/3x3
I0403 21:57:08.346036 13403 net.cpp:386] inception_4a/relu_3x3 -> inception_4a/3x3 (in-place)
I0403 21:57:08.346386 13403 net.cpp:141] Setting up inception_4a/relu_3x3
I0403 21:57:08.346420 13403 net.cpp:148] Top shape: 24 208 14 14 (978432)
I0403 21:57:08.346438 13403 net.cpp:156] Memory required for data: 873063456
I0403 21:57:08.346457 13403 layer_factory.hpp:77] Creating layer inception_4a/5x5_reduce
I0403 21:57:08.346487 13403 net.cpp:91] Creating Layer inception_4a/5x5_reduce
I0403 21:57:08.346508 13403 net.cpp:425] inception_4a/5x5_reduce <- pool3/3x3_s2_pool3/3x3_s2_0_split_2
I0403 21:57:08.346535 13403 net.cpp:399] inception_4a/5x5_reduce -> inception_4a/5x5_reduce
I0403 21:57:08.347780 13403 net.cpp:141] Setting up inception_4a/5x5_reduce
I0403 21:57:08.347815 13403 net.cpp:148] Top shape: 24 16 14 14 (75264)
I0403 21:57:08.347836 13403 net.cpp:156] Memory required for data: 873364512
I0403 21:57:08.347857 13403 layer_factory.hpp:77] Creating layer inception_4a/relu_5x5_reduce
I0403 21:57:08.347883 13403 net.cpp:91] Creating Layer inception_4a/relu_5x5_reduce
I0403 21:57:08.347904 13403 net.cpp:425] inception_4a/relu_5x5_reduce <- inception_4a/5x5_reduce
I0403 21:57:08.347928 13403 net.cpp:386] inception_4a/relu_5x5_reduce -> inception_4a/5x5_reduce (in-place)
I0403 21:57:08.348147 13403 net.cpp:141] Setting up inception_4a/relu_5x5_reduce
I0403 21:57:08.348179 13403 net.cpp:148] Top shape: 24 16 14 14 (75264)
I0403 21:57:08.348198 13403 net.cpp:156] Memory required for data: 873665568
I0403 21:57:08.348224 13403 layer_factory.hpp:77] Creating layer inception_4a/5x5
I0403 21:57:08.348255 13403 net.cpp:91] Creating Layer inception_4a/5x5
I0403 21:57:08.348278 13403 net.cpp:425] inception_4a/5x5 <- inception_4a/5x5_reduce
I0403 21:57:08.348301 13403 net.cpp:399] inception_4a/5x5 -> inception_4a/5x5
I0403 21:57:08.349617 13403 net.cpp:141] Setting up inception_4a/5x5
I0403 21:57:08.349653 13403 net.cpp:148] Top shape: 24 48 14 14 (225792)
I0403 21:57:08.349673 13403 net.cpp:156] Memory required for data: 874568736
I0403 21:57:08.349697 13403 layer_factory.hpp:77] Creating layer inception_4a/relu_5x5
I0403 21:57:08.349720 13403 net.cpp:91] Creating Layer inception_4a/relu_5x5
I0403 21:57:08.349741 13403 net.cpp:425] inception_4a/relu_5x5 <- inception_4a/5x5
I0403 21:57:08.349763 13403 net.cpp:386] inception_4a/relu_5x5 -> inception_4a/5x5 (in-place)
I0403 21:57:08.349982 13403 net.cpp:141] Setting up inception_4a/relu_5x5
I0403 21:57:08.350016 13403 net.cpp:148] Top shape: 24 48 14 14 (225792)
I0403 21:57:08.350035 13403 net.cpp:156] Memory required for data: 875471904
I0403 21:57:08.350054 13403 layer_factory.hpp:77] Creating layer inception_4a/pool
I0403 21:57:08.350076 13403 net.cpp:91] Creating Layer inception_4a/pool
I0403 21:57:08.350096 13403 net.cpp:425] inception_4a/pool <- pool3/3x3_s2_pool3/3x3_s2_0_split_3
I0403 21:57:08.350122 13403 net.cpp:399] inception_4a/pool -> inception_4a/pool
I0403 21:57:08.350198 13403 net.cpp:141] Setting up inception_4a/pool
I0403 21:57:08.350240 13403 net.cpp:148] Top shape: 24 480 14 14 (2257920)
I0403 21:57:08.350261 13403 net.cpp:156] Memory required for data: 884503584
I0403 21:57:08.350281 13403 layer_factory.hpp:77] Creating layer inception_4a/pool_proj
I0403 21:57:08.350308 13403 net.cpp:91] Creating Layer inception_4a/pool_proj
I0403 21:57:08.350330 13403 net.cpp:425] inception_4a/pool_proj <- inception_4a/pool
I0403 21:57:08.350354 13403 net.cpp:399] inception_4a/pool_proj -> inception_4a/pool_proj
I0403 21:57:08.351778 13403 net.cpp:141] Setting up inception_4a/pool_proj
I0403 21:57:08.351820 13403 net.cpp:148] Top shape: 24 64 14 14 (301056)
I0403 21:57:08.351858 13403 net.cpp:156] Memory required for data: 885707808
I0403 21:57:08.351882 13403 layer_factory.hpp:77] Creating layer inception_4a/relu_pool_proj
I0403 21:57:08.351905 13403 net.cpp:91] Creating Layer inception_4a/relu_pool_proj
I0403 21:57:08.351925 13403 net.cpp:425] inception_4a/relu_pool_proj <- inception_4a/pool_proj
I0403 21:57:08.351950 13403 net.cpp:386] inception_4a/relu_pool_proj -> inception_4a/pool_proj (in-place)
I0403 21:57:08.352304 13403 net.cpp:141] Setting up inception_4a/relu_pool_proj
I0403 21:57:08.352340 13403 net.cpp:148] Top shape: 24 64 14 14 (301056)
I0403 21:57:08.352360 13403 net.cpp:156] Memory required for data: 886912032
I0403 21:57:08.352380 13403 layer_factory.hpp:77] Creating layer inception_4a/output
I0403 21:57:08.352401 13403 net.cpp:91] Creating Layer inception_4a/output
I0403 21:57:08.352421 13403 net.cpp:425] inception_4a/output <- inception_4a/1x1
I0403 21:57:08.352442 13403 net.cpp:425] inception_4a/output <- inception_4a/3x3
I0403 21:57:08.352461 13403 net.cpp:425] inception_4a/output <- inception_4a/5x5
I0403 21:57:08.352481 13403 net.cpp:425] inception_4a/output <- inception_4a/pool_proj
I0403 21:57:08.352502 13403 net.cpp:399] inception_4a/output -> inception_4a/output
I0403 21:57:08.352560 13403 net.cpp:141] Setting up inception_4a/output
I0403 21:57:08.352588 13403 net.cpp:148] Top shape: 24 512 14 14 (2408448)
I0403 21:57:08.352607 13403 net.cpp:156] Memory required for data: 896545824
I0403 21:57:08.352624 13403 layer_factory.hpp:77] Creating layer inception_4a/output_inception_4a/output_0_split
I0403 21:57:08.352650 13403 net.cpp:91] Creating Layer inception_4a/output_inception_4a/output_0_split
I0403 21:57:08.352669 13403 net.cpp:425] inception_4a/output_inception_4a/output_0_split <- inception_4a/output
I0403 21:57:08.352690 13403 net.cpp:399] inception_4a/output_inception_4a/output_0_split -> inception_4a/output_inception_4a/output_0_split_0
I0403 21:57:08.352715 13403 net.cpp:399] inception_4a/output_inception_4a/output_0_split -> inception_4a/output_inception_4a/output_0_split_1
I0403 21:57:08.352742 13403 net.cpp:399] inception_4a/output_inception_4a/output_0_split -> inception_4a/output_inception_4a/output_0_split_2
I0403 21:57:08.352769 13403 net.cpp:399] inception_4a/output_inception_4a/output_0_split -> inception_4a/output_inception_4a/output_0_split_3
I0403 21:57:08.352797 13403 net.cpp:399] inception_4a/output_inception_4a/output_0_split -> inception_4a/output_inception_4a/output_0_split_4
I0403 21:57:08.352912 13403 net.cpp:141] Setting up inception_4a/output_inception_4a/output_0_split
I0403 21:57:08.352943 13403 net.cpp:148] Top shape: 24 512 14 14 (2408448)
I0403 21:57:08.352963 13403 net.cpp:148] Top shape: 24 512 14 14 (2408448)
I0403 21:57:08.352982 13403 net.cpp:148] Top shape: 24 512 14 14 (2408448)
I0403 21:57:08.353003 13403 net.cpp:148] Top shape: 24 512 14 14 (2408448)
I0403 21:57:08.353021 13403 net.cpp:148] Top shape: 24 512 14 14 (2408448)
I0403 21:57:08.353039 13403 net.cpp:156] Memory required for data: 944714784
I0403 21:57:08.353057 13403 layer_factory.hpp:77] Creating layer loss1/ave_pool
I0403 21:57:08.353081 13403 net.cpp:91] Creating Layer loss1/ave_pool
I0403 21:57:08.353102 13403 net.cpp:425] loss1/ave_pool <- inception_4a/output_inception_4a/output_0_split_0
I0403 21:57:08.353124 13403 net.cpp:399] loss1/ave_pool -> loss1/ave_pool
I0403 21:57:08.353384 13403 net.cpp:141] Setting up loss1/ave_pool
I0403 21:57:08.353420 13403 net.cpp:148] Top shape: 24 512 4 4 (196608)
I0403 21:57:08.353441 13403 net.cpp:156] Memory required for data: 945501216
I0403 21:57:08.353459 13403 layer_factory.hpp:77] Creating layer loss1/conv
I0403 21:57:08.353488 13403 net.cpp:91] Creating Layer loss1/conv
I0403 21:57:08.353510 13403 net.cpp:425] loss1/conv <- loss1/ave_pool
I0403 21:57:08.353533 13403 net.cpp:399] loss1/conv -> loss1/conv
I0403 21:57:08.355265 13403 net.cpp:141] Setting up loss1/conv
I0403 21:57:08.355301 13403 net.cpp:148] Top shape: 24 128 4 4 (49152)
I0403 21:57:08.355320 13403 net.cpp:156] Memory required for data: 945697824
I0403 21:57:08.355361 13403 layer_factory.hpp:77] Creating layer loss1/relu_conv
I0403 21:57:08.355388 13403 net.cpp:91] Creating Layer loss1/relu_conv
I0403 21:57:08.355409 13403 net.cpp:425] loss1/relu_conv <- loss1/conv
I0403 21:57:08.355432 13403 net.cpp:386] loss1/relu_conv -> loss1/conv (in-place)
I0403 21:57:08.355768 13403 net.cpp:141] Setting up loss1/relu_conv
I0403 21:57:08.355801 13403 net.cpp:148] Top shape: 24 128 4 4 (49152)
I0403 21:57:08.355820 13403 net.cpp:156] Memory required for data: 945894432
I0403 21:57:08.355839 13403 layer_factory.hpp:77] Creating layer loss1/fc
I0403 21:57:08.355871 13403 net.cpp:91] Creating Layer loss1/fc
I0403 21:57:08.355895 13403 net.cpp:425] loss1/fc <- loss1/conv
I0403 21:57:08.355917 13403 net.cpp:399] loss1/fc -> loss1/fc
I0403 21:57:08.378126 13403 net.cpp:141] Setting up loss1/fc
I0403 21:57:08.378170 13403 net.cpp:148] Top shape: 24 1024 (24576)
I0403 21:57:08.378190 13403 net.cpp:156] Memory required for data: 945992736
I0403 21:57:08.378216 13403 layer_factory.hpp:77] Creating layer loss1/relu_fc
I0403 21:57:08.378242 13403 net.cpp:91] Creating Layer loss1/relu_fc
I0403 21:57:08.378262 13403 net.cpp:425] loss1/relu_fc <- loss1/fc
I0403 21:57:08.378289 13403 net.cpp:386] loss1/relu_fc -> loss1/fc (in-place)
I0403 21:57:08.378521 13403 net.cpp:141] Setting up loss1/relu_fc
I0403 21:57:08.378556 13403 net.cpp:148] Top shape: 24 1024 (24576)
I0403 21:57:08.378574 13403 net.cpp:156] Memory required for data: 946091040
I0403 21:57:08.378594 13403 layer_factory.hpp:77] Creating layer loss1/drop_fc
I0403 21:57:08.378626 13403 net.cpp:91] Creating Layer loss1/drop_fc
I0403 21:57:08.378649 13403 net.cpp:425] loss1/drop_fc <- loss1/fc
I0403 21:57:08.378672 13403 net.cpp:386] loss1/drop_fc -> loss1/fc (in-place)
I0403 21:57:08.378736 13403 net.cpp:141] Setting up loss1/drop_fc
I0403 21:57:08.378765 13403 net.cpp:148] Top shape: 24 1024 (24576)
I0403 21:57:08.378782 13403 net.cpp:156] Memory required for data: 946189344
I0403 21:57:08.378801 13403 layer_factory.hpp:77] Creating layer loss1/classifier_plantvillage
I0403 21:57:08.378829 13403 net.cpp:91] Creating Layer loss1/classifier_plantvillage
I0403 21:57:08.378851 13403 net.cpp:425] loss1/classifier_plantvillage <- loss1/fc
I0403 21:57:08.378877 13403 net.cpp:399] loss1/classifier_plantvillage -> loss1/classifier_plantvillage
I0403 21:57:08.380000 13403 net.cpp:141] Setting up loss1/classifier_plantvillage
I0403 21:57:08.380036 13403 net.cpp:148] Top shape: 24 38 (912)
I0403 21:57:08.380056 13403 net.cpp:156] Memory required for data: 946192992
I0403 21:57:08.380079 13403 layer_factory.hpp:77] Creating layer loss1/classifier_plantvillage_loss1/classifier_plantvillage_0_split
I0403 21:57:08.380101 13403 net.cpp:91] Creating Layer loss1/classifier_plantvillage_loss1/classifier_plantvillage_0_split
I0403 21:57:08.380120 13403 net.cpp:425] loss1/classifier_plantvillage_loss1/classifier_plantvillage_0_split <- loss1/classifier_plantvillage
I0403 21:57:08.380146 13403 net.cpp:399] loss1/classifier_plantvillage_loss1/classifier_plantvillage_0_split -> loss1/classifier_plantvillage_loss1/classifier_plantvillage_0_split_0
I0403 21:57:08.380172 13403 net.cpp:399] loss1/classifier_plantvillage_loss1/classifier_plantvillage_0_split -> loss1/classifier_plantvillage_loss1/classifier_plantvillage_0_split_1
I0403 21:57:08.380198 13403 net.cpp:399] loss1/classifier_plantvillage_loss1/classifier_plantvillage_0_split -> loss1/classifier_plantvillage_loss1/classifier_plantvillage_0_split_2
I0403 21:57:08.380287 13403 net.cpp:141] Setting up loss1/classifier_plantvillage_loss1/classifier_plantvillage_0_split
I0403 21:57:08.380321 13403 net.cpp:148] Top shape: 24 38 (912)
I0403 21:57:08.380342 13403 net.cpp:148] Top shape: 24 38 (912)
I0403 21:57:08.380362 13403 net.cpp:148] Top shape: 24 38 (912)
I0403 21:57:08.380378 13403 net.cpp:156] Memory required for data: 946203936
I0403 21:57:08.380398 13403 layer_factory.hpp:77] Creating layer inception_4b/1x1
I0403 21:57:08.380422 13403 net.cpp:91] Creating Layer inception_4b/1x1
I0403 21:57:08.380462 13403 net.cpp:425] inception_4b/1x1 <- inception_4a/output_inception_4a/output_0_split_1
I0403 21:57:08.380487 13403 net.cpp:399] inception_4b/1x1 -> inception_4b/1x1
I0403 21:57:08.382472 13403 net.cpp:141] Setting up inception_4b/1x1
I0403 21:57:08.382508 13403 net.cpp:148] Top shape: 24 160 14 14 (752640)
I0403 21:57:08.382529 13403 net.cpp:156] Memory required for data: 949214496
I0403 21:57:08.382552 13403 layer_factory.hpp:77] Creating layer inception_4b/relu_1x1
I0403 21:57:08.382578 13403 net.cpp:91] Creating Layer inception_4b/relu_1x1
I0403 21:57:08.382599 13403 net.cpp:425] inception_4b/relu_1x1 <- inception_4b/1x1
I0403 21:57:08.382622 13403 net.cpp:386] inception_4b/relu_1x1 -> inception_4b/1x1 (in-place)
I0403 21:57:08.382843 13403 net.cpp:141] Setting up inception_4b/relu_1x1
I0403 21:57:08.382874 13403 net.cpp:148] Top shape: 24 160 14 14 (752640)
I0403 21:57:08.382891 13403 net.cpp:156] Memory required for data: 952225056
I0403 21:57:08.382910 13403 layer_factory.hpp:77] Creating layer inception_4b/3x3_reduce
I0403 21:57:08.382941 13403 net.cpp:91] Creating Layer inception_4b/3x3_reduce
I0403 21:57:08.382964 13403 net.cpp:425] inception_4b/3x3_reduce <- inception_4a/output_inception_4a/output_0_split_2
I0403 21:57:08.382988 13403 net.cpp:399] inception_4b/3x3_reduce -> inception_4b/3x3_reduce
I0403 21:57:08.384642 13403 net.cpp:141] Setting up inception_4b/3x3_reduce
I0403 21:57:08.384676 13403 net.cpp:148] Top shape: 24 112 14 14 (526848)
I0403 21:57:08.384696 13403 net.cpp:156] Memory required for data: 954332448
I0403 21:57:08.384719 13403 layer_factory.hpp:77] Creating layer inception_4b/relu_3x3_reduce
I0403 21:57:08.384745 13403 net.cpp:91] Creating Layer inception_4b/relu_3x3_reduce
I0403 21:57:08.384766 13403 net.cpp:425] inception_4b/relu_3x3_reduce <- inception_4b/3x3_reduce
I0403 21:57:08.384789 13403 net.cpp:386] inception_4b/relu_3x3_reduce -> inception_4b/3x3_reduce (in-place)
I0403 21:57:08.385130 13403 net.cpp:141] Setting up inception_4b/relu_3x3_reduce
I0403 21:57:08.385162 13403 net.cpp:148] Top shape: 24 112 14 14 (526848)
I0403 21:57:08.385182 13403 net.cpp:156] Memory required for data: 956439840
I0403 21:57:08.385201 13403 layer_factory.hpp:77] Creating layer inception_4b/3x3
I0403 21:57:08.385238 13403 net.cpp:91] Creating Layer inception_4b/3x3
I0403 21:57:08.385260 13403 net.cpp:425] inception_4b/3x3 <- inception_4b/3x3_reduce
I0403 21:57:08.385284 13403 net.cpp:399] inception_4b/3x3 -> inception_4b/3x3
I0403 21:57:08.388924 13403 net.cpp:141] Setting up inception_4b/3x3
I0403 21:57:08.388964 13403 net.cpp:148] Top shape: 24 224 14 14 (1053696)
I0403 21:57:08.388986 13403 net.cpp:156] Memory required for data: 960654624
I0403 21:57:08.389010 13403 layer_factory.hpp:77] Creating layer inception_4b/relu_3x3
I0403 21:57:08.389034 13403 net.cpp:91] Creating Layer inception_4b/relu_3x3
I0403 21:57:08.389053 13403 net.cpp:425] inception_4b/relu_3x3 <- inception_4b/3x3
I0403 21:57:08.389078 13403 net.cpp:386] inception_4b/relu_3x3 -> inception_4b/3x3 (in-place)
I0403 21:57:08.389307 13403 net.cpp:141] Setting up inception_4b/relu_3x3
I0403 21:57:08.389338 13403 net.cpp:148] Top shape: 24 224 14 14 (1053696)
I0403 21:57:08.389356 13403 net.cpp:156] Memory required for data: 964869408
I0403 21:57:08.389374 13403 layer_factory.hpp:77] Creating layer inception_4b/5x5_reduce
I0403 21:57:08.389407 13403 net.cpp:91] Creating Layer inception_4b/5x5_reduce
I0403 21:57:08.389430 13403 net.cpp:425] inception_4b/5x5_reduce <- inception_4a/output_inception_4a/output_0_split_3
I0403 21:57:08.389459 13403 net.cpp:399] inception_4b/5x5_reduce -> inception_4b/5x5_reduce
I0403 21:57:08.390797 13403 net.cpp:141] Setting up inception_4b/5x5_reduce
I0403 21:57:08.390831 13403 net.cpp:148] Top shape: 24 24 14 14 (112896)
I0403 21:57:08.390851 13403 net.cpp:156] Memory required for data: 965320992
I0403 21:57:08.390873 13403 layer_factory.hpp:77] Creating layer inception_4b/relu_5x5_reduce
I0403 21:57:08.390899 13403 net.cpp:91] Creating Layer inception_4b/relu_5x5_reduce
I0403 21:57:08.390936 13403 net.cpp:425] inception_4b/relu_5x5_reduce <- inception_4b/5x5_reduce
I0403 21:57:08.390960 13403 net.cpp:386] inception_4b/relu_5x5_reduce -> inception_4b/5x5_reduce (in-place)
I0403 21:57:08.391185 13403 net.cpp:141] Setting up inception_4b/relu_5x5_reduce
I0403 21:57:08.391225 13403 net.cpp:148] Top shape: 24 24 14 14 (112896)
I0403 21:57:08.391247 13403 net.cpp:156] Memory required for data: 965772576
I0403 21:57:08.391264 13403 layer_factory.hpp:77] Creating layer inception_4b/5x5
I0403 21:57:08.391293 13403 net.cpp:91] Creating Layer inception_4b/5x5
I0403 21:57:08.391315 13403 net.cpp:425] inception_4b/5x5 <- inception_4b/5x5_reduce
I0403 21:57:08.391340 13403 net.cpp:399] inception_4b/5x5 -> inception_4b/5x5
I0403 21:57:08.392858 13403 net.cpp:141] Setting up inception_4b/5x5
I0403 21:57:08.392892 13403 net.cpp:148] Top shape: 24 64 14 14 (301056)
I0403 21:57:08.392912 13403 net.cpp:156] Memory required for data: 966976800
I0403 21:57:08.392935 13403 layer_factory.hpp:77] Creating layer inception_4b/relu_5x5
I0403 21:57:08.392961 13403 net.cpp:91] Creating Layer inception_4b/relu_5x5
I0403 21:57:08.392982 13403 net.cpp:425] inception_4b/relu_5x5 <- inception_4b/5x5
I0403 21:57:08.393004 13403 net.cpp:386] inception_4b/relu_5x5 -> inception_4b/5x5 (in-place)
I0403 21:57:08.393359 13403 net.cpp:141] Setting up inception_4b/relu_5x5
I0403 21:57:08.393393 13403 net.cpp:148] Top shape: 24 64 14 14 (301056)
I0403 21:57:08.393412 13403 net.cpp:156] Memory required for data: 968181024
I0403 21:57:08.393430 13403 layer_factory.hpp:77] Creating layer inception_4b/pool
I0403 21:57:08.393456 13403 net.cpp:91] Creating Layer inception_4b/pool
I0403 21:57:08.393478 13403 net.cpp:425] inception_4b/pool <- inception_4a/output_inception_4a/output_0_split_4
I0403 21:57:08.393502 13403 net.cpp:399] inception_4b/pool -> inception_4b/pool
I0403 21:57:08.393581 13403 net.cpp:141] Setting up inception_4b/pool
I0403 21:57:08.393612 13403 net.cpp:148] Top shape: 24 512 14 14 (2408448)
I0403 21:57:08.393630 13403 net.cpp:156] Memory required for data: 977814816
I0403 21:57:08.393649 13403 layer_factory.hpp:77] Creating layer inception_4b/pool_proj
I0403 21:57:08.393682 13403 net.cpp:91] Creating Layer inception_4b/pool_proj
I0403 21:57:08.393705 13403 net.cpp:425] inception_4b/pool_proj <- inception_4b/pool
I0403 21:57:08.393733 13403 net.cpp:399] inception_4b/pool_proj -> inception_4b/pool_proj
I0403 21:57:08.395201 13403 net.cpp:141] Setting up inception_4b/pool_proj
I0403 21:57:08.395241 13403 net.cpp:148] Top shape: 24 64 14 14 (301056)
I0403 21:57:08.395261 13403 net.cpp:156] Memory required for data: 979019040
I0403 21:57:08.395284 13403 layer_factory.hpp:77] Creating layer inception_4b/relu_pool_proj
I0403 21:57:08.395311 13403 net.cpp:91] Creating Layer inception_4b/relu_pool_proj
I0403 21:57:08.395334 13403 net.cpp:425] inception_4b/relu_pool_proj <- inception_4b/pool_proj
I0403 21:57:08.395354 13403 net.cpp:386] inception_4b/relu_pool_proj -> inception_4b/pool_proj (in-place)
I0403 21:57:08.395578 13403 net.cpp:141] Setting up inception_4b/relu_pool_proj
I0403 21:57:08.395613 13403 net.cpp:148] Top shape: 24 64 14 14 (301056)
I0403 21:57:08.395633 13403 net.cpp:156] Memory required for data: 980223264
I0403 21:57:08.395653 13403 layer_factory.hpp:77] Creating layer inception_4b/output
I0403 21:57:08.395674 13403 net.cpp:91] Creating Layer inception_4b/output
I0403 21:57:08.395694 13403 net.cpp:425] inception_4b/output <- inception_4b/1x1
I0403 21:57:08.395715 13403 net.cpp:425] inception_4b/output <- inception_4b/3x3
I0403 21:57:08.395735 13403 net.cpp:425] inception_4b/output <- inception_4b/5x5
I0403 21:57:08.395756 13403 net.cpp:425] inception_4b/output <- inception_4b/pool_proj
I0403 21:57:08.395777 13403 net.cpp:399] inception_4b/output -> inception_4b/output
I0403 21:57:08.395836 13403 net.cpp:141] Setting up inception_4b/output
I0403 21:57:08.395865 13403 net.cpp:148] Top shape: 24 512 14 14 (2408448)
I0403 21:57:08.395884 13403 net.cpp:156] Memory required for data: 989857056
I0403 21:57:08.395920 13403 layer_factory.hpp:77] Creating layer inception_4b/output_inception_4b/output_0_split
I0403 21:57:08.395942 13403 net.cpp:91] Creating Layer inception_4b/output_inception_4b/output_0_split
I0403 21:57:08.395961 13403 net.cpp:425] inception_4b/output_inception_4b/output_0_split <- inception_4b/output
I0403 21:57:08.395987 13403 net.cpp:399] inception_4b/output_inception_4b/output_0_split -> inception_4b/output_inception_4b/output_0_split_0
I0403 21:57:08.396013 13403 net.cpp:399] inception_4b/output_inception_4b/output_0_split -> inception_4b/output_inception_4b/output_0_split_1
I0403 21:57:08.396039 13403 net.cpp:399] inception_4b/output_inception_4b/output_0_split -> inception_4b/output_inception_4b/output_0_split_2
I0403 21:57:08.396067 13403 net.cpp:399] inception_4b/output_inception_4b/output_0_split -> inception_4b/output_inception_4b/output_0_split_3
I0403 21:57:08.396173 13403 net.cpp:141] Setting up inception_4b/output_inception_4b/output_0_split
I0403 21:57:08.396203 13403 net.cpp:148] Top shape: 24 512 14 14 (2408448)
I0403 21:57:08.396231 13403 net.cpp:148] Top shape: 24 512 14 14 (2408448)
I0403 21:57:08.396251 13403 net.cpp:148] Top shape: 24 512 14 14 (2408448)
I0403 21:57:08.396270 13403 net.cpp:148] Top shape: 24 512 14 14 (2408448)
I0403 21:57:08.396287 13403 net.cpp:156] Memory required for data: 1028392224
I0403 21:57:08.396306 13403 layer_factory.hpp:77] Creating layer inception_4c/1x1
I0403 21:57:08.396334 13403 net.cpp:91] Creating Layer inception_4c/1x1
I0403 21:57:08.396356 13403 net.cpp:425] inception_4c/1x1 <- inception_4b/output_inception_4b/output_0_split_0
I0403 21:57:08.396383 13403 net.cpp:399] inception_4c/1x1 -> inception_4c/1x1
I0403 21:57:08.398138 13403 net.cpp:141] Setting up inception_4c/1x1
I0403 21:57:08.398176 13403 net.cpp:148] Top shape: 24 128 14 14 (602112)
I0403 21:57:08.398197 13403 net.cpp:156] Memory required for data: 1030800672
I0403 21:57:08.398226 13403 layer_factory.hpp:77] Creating layer inception_4c/relu_1x1
I0403 21:57:08.398252 13403 net.cpp:91] Creating Layer inception_4c/relu_1x1
I0403 21:57:08.398272 13403 net.cpp:425] inception_4c/relu_1x1 <- inception_4c/1x1
I0403 21:57:08.398300 13403 net.cpp:386] inception_4c/relu_1x1 -> inception_4c/1x1 (in-place)
I0403 21:57:08.398524 13403 net.cpp:141] Setting up inception_4c/relu_1x1
I0403 21:57:08.398557 13403 net.cpp:148] Top shape: 24 128 14 14 (602112)
I0403 21:57:08.398576 13403 net.cpp:156] Memory required for data: 1033209120
I0403 21:57:08.398594 13403 layer_factory.hpp:77] Creating layer inception_4c/3x3_reduce
I0403 21:57:08.398622 13403 net.cpp:91] Creating Layer inception_4c/3x3_reduce
I0403 21:57:08.398645 13403 net.cpp:425] inception_4c/3x3_reduce <- inception_4b/output_inception_4b/output_0_split_1
I0403 21:57:08.398674 13403 net.cpp:399] inception_4c/3x3_reduce -> inception_4c/3x3_reduce
I0403 21:57:08.401065 13403 net.cpp:141] Setting up inception_4c/3x3_reduce
I0403 21:57:08.401100 13403 net.cpp:148] Top shape: 24 128 14 14 (602112)
I0403 21:57:08.401119 13403 net.cpp:156] Memory required for data: 1035617568
I0403 21:57:08.401144 13403 layer_factory.hpp:77] Creating layer inception_4c/relu_3x3_reduce
I0403 21:57:08.401170 13403 net.cpp:91] Creating Layer inception_4c/relu_3x3_reduce
I0403 21:57:08.401191 13403 net.cpp:425] inception_4c/relu_3x3_reduce <- inception_4c/3x3_reduce
I0403 21:57:08.401219 13403 net.cpp:386] inception_4c/relu_3x3_reduce -> inception_4c/3x3_reduce (in-place)
I0403 21:57:08.401568 13403 net.cpp:141] Setting up inception_4c/relu_3x3_reduce
I0403 21:57:08.401602 13403 net.cpp:148] Top shape: 24 128 14 14 (602112)
I0403 21:57:08.401621 13403 net.cpp:156] Memory required for data: 1038026016
I0403 21:57:08.401639 13403 layer_factory.hpp:77] Creating layer inception_4c/3x3
I0403 21:57:08.401672 13403 net.cpp:91] Creating Layer inception_4c/3x3
I0403 21:57:08.401695 13403 net.cpp:425] inception_4c/3x3 <- inception_4c/3x3_reduce
I0403 21:57:08.401723 13403 net.cpp:399] inception_4c/3x3 -> inception_4c/3x3
I0403 21:57:08.406157 13403 net.cpp:141] Setting up inception_4c/3x3
I0403 21:57:08.406214 13403 net.cpp:148] Top shape: 24 256 14 14 (1204224)
I0403 21:57:08.406237 13403 net.cpp:156] Memory required for data: 1042842912
I0403 21:57:08.406277 13403 layer_factory.hpp:77] Creating layer inception_4c/relu_3x3
I0403 21:57:08.406306 13403 net.cpp:91] Creating Layer inception_4c/relu_3x3
I0403 21:57:08.406327 13403 net.cpp:425] inception_4c/relu_3x3 <- inception_4c/3x3
I0403 21:57:08.406350 13403 net.cpp:386] inception_4c/relu_3x3 -> inception_4c/3x3 (in-place)
I0403 21:57:08.406579 13403 net.cpp:141] Setting up inception_4c/relu_3x3
I0403 21:57:08.406610 13403 net.cpp:148] Top shape: 24 256 14 14 (1204224)
I0403 21:57:08.406628 13403 net.cpp:156] Memory required for data: 1047659808
I0403 21:57:08.406646 13403 layer_factory.hpp:77] Creating layer inception_4c/5x5_reduce
I0403 21:57:08.406674 13403 net.cpp:91] Creating Layer inception_4c/5x5_reduce
I0403 21:57:08.406698 13403 net.cpp:425] inception_4c/5x5_reduce <- inception_4b/output_inception_4b/output_0_split_2
I0403 21:57:08.406726 13403 net.cpp:399] inception_4c/5x5_reduce -> inception_4c/5x5_reduce
I0403 21:57:08.408105 13403 net.cpp:141] Setting up inception_4c/5x5_reduce
I0403 21:57:08.408140 13403 net.cpp:148] Top shape: 24 24 14 14 (112896)
I0403 21:57:08.408159 13403 net.cpp:156] Memory required for data: 1048111392
I0403 21:57:08.408182 13403 layer_factory.hpp:77] Creating layer inception_4c/relu_5x5_reduce
I0403 21:57:08.408212 13403 net.cpp:91] Creating Layer inception_4c/relu_5x5_reduce
I0403 21:57:08.408237 13403 net.cpp:425] inception_4c/relu_5x5_reduce <- inception_4c/5x5_reduce
I0403 21:57:08.408260 13403 net.cpp:386] inception_4c/relu_5x5_reduce -> inception_4c/5x5_reduce (in-place)
I0403 21:57:08.408494 13403 net.cpp:141] Setting up inception_4c/relu_5x5_reduce
I0403 21:57:08.408529 13403 net.cpp:148] Top shape: 24 24 14 14 (112896)
I0403 21:57:08.408548 13403 net.cpp:156] Memory required for data: 1048562976
I0403 21:57:08.408567 13403 layer_factory.hpp:77] Creating layer inception_4c/5x5
I0403 21:57:08.408596 13403 net.cpp:91] Creating Layer inception_4c/5x5
I0403 21:57:08.408618 13403 net.cpp:425] inception_4c/5x5 <- inception_4c/5x5_reduce
I0403 21:57:08.408643 13403 net.cpp:399] inception_4c/5x5 -> inception_4c/5x5
I0403 21:57:08.410186 13403 net.cpp:141] Setting up inception_4c/5x5
I0403 21:57:08.410228 13403 net.cpp:148] Top shape: 24 64 14 14 (301056)
I0403 21:57:08.410250 13403 net.cpp:156] Memory required for data: 1049767200
I0403 21:57:08.410274 13403 layer_factory.hpp:77] Creating layer inception_4c/relu_5x5
I0403 21:57:08.410295 13403 net.cpp:91] Creating Layer inception_4c/relu_5x5
I0403 21:57:08.410315 13403 net.cpp:425] inception_4c/relu_5x5 <- inception_4c/5x5
I0403 21:57:08.410339 13403 net.cpp:386] inception_4c/relu_5x5 -> inception_4c/5x5 (in-place)
I0403 21:57:08.410691 13403 net.cpp:141] Setting up inception_4c/relu_5x5
I0403 21:57:08.410727 13403 net.cpp:148] Top shape: 24 64 14 14 (301056)
I0403 21:57:08.410747 13403 net.cpp:156] Memory required for data: 1050971424
I0403 21:57:08.410765 13403 layer_factory.hpp:77] Creating layer inception_4c/pool
I0403 21:57:08.410787 13403 net.cpp:91] Creating Layer inception_4c/pool
I0403 21:57:08.410809 13403 net.cpp:425] inception_4c/pool <- inception_4b/output_inception_4b/output_0_split_3
I0403 21:57:08.410835 13403 net.cpp:399] inception_4c/pool -> inception_4c/pool
I0403 21:57:08.410917 13403 net.cpp:141] Setting up inception_4c/pool
I0403 21:57:08.410946 13403 net.cpp:148] Top shape: 24 512 14 14 (2408448)
I0403 21:57:08.410964 13403 net.cpp:156] Memory required for data: 1060605216
I0403 21:57:08.410984 13403 layer_factory.hpp:77] Creating layer inception_4c/pool_proj
I0403 21:57:08.411011 13403 net.cpp:91] Creating Layer inception_4c/pool_proj
I0403 21:57:08.411033 13403 net.cpp:425] inception_4c/pool_proj <- inception_4c/pool
I0403 21:57:08.411062 13403 net.cpp:399] inception_4c/pool_proj -> inception_4c/pool_proj
I0403 21:57:08.412585 13403 net.cpp:141] Setting up inception_4c/pool_proj
I0403 21:57:08.412621 13403 net.cpp:148] Top shape: 24 64 14 14 (301056)
I0403 21:57:08.412657 13403 net.cpp:156] Memory required for data: 1061809440
I0403 21:57:08.412681 13403 layer_factory.hpp:77] Creating layer inception_4c/relu_pool_proj
I0403 21:57:08.412709 13403 net.cpp:91] Creating Layer inception_4c/relu_pool_proj
I0403 21:57:08.412731 13403 net.cpp:425] inception_4c/relu_pool_proj <- inception_4c/pool_proj
I0403 21:57:08.412753 13403 net.cpp:386] inception_4c/relu_pool_proj -> inception_4c/pool_proj (in-place)
I0403 21:57:08.412986 13403 net.cpp:141] Setting up inception_4c/relu_pool_proj
I0403 21:57:08.413022 13403 net.cpp:148] Top shape: 24 64 14 14 (301056)
I0403 21:57:08.413041 13403 net.cpp:156] Memory required for data: 1063013664
I0403 21:57:08.413059 13403 layer_factory.hpp:77] Creating layer inception_4c/output
I0403 21:57:08.413082 13403 net.cpp:91] Creating Layer inception_4c/output
I0403 21:57:08.413101 13403 net.cpp:425] inception_4c/output <- inception_4c/1x1
I0403 21:57:08.413122 13403 net.cpp:425] inception_4c/output <- inception_4c/3x3
I0403 21:57:08.413143 13403 net.cpp:425] inception_4c/output <- inception_4c/5x5
I0403 21:57:08.413163 13403 net.cpp:425] inception_4c/output <- inception_4c/pool_proj
I0403 21:57:08.413184 13403 net.cpp:399] inception_4c/output -> inception_4c/output
I0403 21:57:08.413249 13403 net.cpp:141] Setting up inception_4c/output
I0403 21:57:08.413278 13403 net.cpp:148] Top shape: 24 512 14 14 (2408448)
I0403 21:57:08.413296 13403 net.cpp:156] Memory required for data: 1072647456
I0403 21:57:08.413316 13403 layer_factory.hpp:77] Creating layer inception_4c/output_inception_4c/output_0_split
I0403 21:57:08.413337 13403 net.cpp:91] Creating Layer inception_4c/output_inception_4c/output_0_split
I0403 21:57:08.413357 13403 net.cpp:425] inception_4c/output_inception_4c/output_0_split <- inception_4c/output
I0403 21:57:08.413383 13403 net.cpp:399] inception_4c/output_inception_4c/output_0_split -> inception_4c/output_inception_4c/output_0_split_0
I0403 21:57:08.413409 13403 net.cpp:399] inception_4c/output_inception_4c/output_0_split -> inception_4c/output_inception_4c/output_0_split_1
I0403 21:57:08.413434 13403 net.cpp:399] inception_4c/output_inception_4c/output_0_split -> inception_4c/output_inception_4c/output_0_split_2
I0403 21:57:08.413460 13403 net.cpp:399] inception_4c/output_inception_4c/output_0_split -> inception_4c/output_inception_4c/output_0_split_3
I0403 21:57:08.413571 13403 net.cpp:141] Setting up inception_4c/output_inception_4c/output_0_split
I0403 21:57:08.413601 13403 net.cpp:148] Top shape: 24 512 14 14 (2408448)
I0403 21:57:08.413621 13403 net.cpp:148] Top shape: 24 512 14 14 (2408448)
I0403 21:57:08.413641 13403 net.cpp:148] Top shape: 24 512 14 14 (2408448)
I0403 21:57:08.413661 13403 net.cpp:148] Top shape: 24 512 14 14 (2408448)
I0403 21:57:08.413678 13403 net.cpp:156] Memory required for data: 1111182624
I0403 21:57:08.413697 13403 layer_factory.hpp:77] Creating layer inception_4d/1x1
I0403 21:57:08.413727 13403 net.cpp:91] Creating Layer inception_4d/1x1
I0403 21:57:08.413748 13403 net.cpp:425] inception_4d/1x1 <- inception_4c/output_inception_4c/output_0_split_0
I0403 21:57:08.413775 13403 net.cpp:399] inception_4d/1x1 -> inception_4d/1x1
I0403 21:57:08.415472 13403 net.cpp:141] Setting up inception_4d/1x1
I0403 21:57:08.415508 13403 net.cpp:148] Top shape: 24 112 14 14 (526848)
I0403 21:57:08.415527 13403 net.cpp:156] Memory required for data: 1113290016
I0403 21:57:08.415550 13403 layer_factory.hpp:77] Creating layer inception_4d/relu_1x1
I0403 21:57:08.415573 13403 net.cpp:91] Creating Layer inception_4d/relu_1x1
I0403 21:57:08.415593 13403 net.cpp:425] inception_4d/relu_1x1 <- inception_4d/1x1
I0403 21:57:08.415618 13403 net.cpp:386] inception_4d/relu_1x1 -> inception_4d/1x1 (in-place)
I0403 21:57:08.415849 13403 net.cpp:141] Setting up inception_4d/relu_1x1
I0403 21:57:08.415881 13403 net.cpp:148] Top shape: 24 112 14 14 (526848)
I0403 21:57:08.415899 13403 net.cpp:156] Memory required for data: 1115397408
I0403 21:57:08.415917 13403 layer_factory.hpp:77] Creating layer inception_4d/3x3_reduce
I0403 21:57:08.415963 13403 net.cpp:91] Creating Layer inception_4d/3x3_reduce
I0403 21:57:08.415987 13403 net.cpp:425] inception_4d/3x3_reduce <- inception_4c/output_inception_4c/output_0_split_1
I0403 21:57:08.416014 13403 net.cpp:399] inception_4d/3x3_reduce -> inception_4d/3x3_reduce
I0403 21:57:08.417878 13403 net.cpp:141] Setting up inception_4d/3x3_reduce
I0403 21:57:08.417915 13403 net.cpp:148] Top shape: 24 144 14 14 (677376)
I0403 21:57:08.417935 13403 net.cpp:156] Memory required for data: 1118106912
I0403 21:57:08.417958 13403 layer_factory.hpp:77] Creating layer inception_4d/relu_3x3_reduce
I0403 21:57:08.417981 13403 net.cpp:91] Creating Layer inception_4d/relu_3x3_reduce
I0403 21:57:08.418001 13403 net.cpp:425] inception_4d/relu_3x3_reduce <- inception_4d/3x3_reduce
I0403 21:57:08.418023 13403 net.cpp:386] inception_4d/relu_3x3_reduce -> inception_4d/3x3_reduce (in-place)
I0403 21:57:08.418388 13403 net.cpp:141] Setting up inception_4d/relu_3x3_reduce
I0403 21:57:08.418424 13403 net.cpp:148] Top shape: 24 144 14 14 (677376)
I0403 21:57:08.418444 13403 net.cpp:156] Memory required for data: 1120816416
I0403 21:57:08.418463 13403 layer_factory.hpp:77] Creating layer inception_4d/3x3
I0403 21:57:08.418493 13403 net.cpp:91] Creating Layer inception_4d/3x3
I0403 21:57:08.418516 13403 net.cpp:425] inception_4d/3x3 <- inception_4d/3x3_reduce
I0403 21:57:08.418540 13403 net.cpp:399] inception_4d/3x3 -> inception_4d/3x3
I0403 21:57:08.423878 13403 net.cpp:141] Setting up inception_4d/3x3
I0403 21:57:08.423914 13403 net.cpp:148] Top shape: 24 288 14 14 (1354752)
I0403 21:57:08.423933 13403 net.cpp:156] Memory required for data: 1126235424
I0403 21:57:08.423956 13403 layer_factory.hpp:77] Creating layer inception_4d/relu_3x3
I0403 21:57:08.423979 13403 net.cpp:91] Creating Layer inception_4d/relu_3x3
I0403 21:57:08.424000 13403 net.cpp:425] inception_4d/relu_3x3 <- inception_4d/3x3
I0403 21:57:08.424026 13403 net.cpp:386] inception_4d/relu_3x3 -> inception_4d/3x3 (in-place)
I0403 21:57:08.424262 13403 net.cpp:141] Setting up inception_4d/relu_3x3
I0403 21:57:08.424293 13403 net.cpp:148] Top shape: 24 288 14 14 (1354752)
I0403 21:57:08.424312 13403 net.cpp:156] Memory required for data: 1131654432
I0403 21:57:08.424330 13403 layer_factory.hpp:77] Creating layer inception_4d/5x5_reduce
I0403 21:57:08.424360 13403 net.cpp:91] Creating Layer inception_4d/5x5_reduce
I0403 21:57:08.424382 13403 net.cpp:425] inception_4d/5x5_reduce <- inception_4c/output_inception_4c/output_0_split_2
I0403 21:57:08.424409 13403 net.cpp:399] inception_4d/5x5_reduce -> inception_4d/5x5_reduce
I0403 21:57:08.425833 13403 net.cpp:141] Setting up inception_4d/5x5_reduce
I0403 21:57:08.425868 13403 net.cpp:148] Top shape: 24 32 14 14 (150528)
I0403 21:57:08.425886 13403 net.cpp:156] Memory required for data: 1132256544
I0403 21:57:08.425910 13403 layer_factory.hpp:77] Creating layer inception_4d/relu_5x5_reduce
I0403 21:57:08.425932 13403 net.cpp:91] Creating Layer inception_4d/relu_5x5_reduce
I0403 21:57:08.425957 13403 net.cpp:425] inception_4d/relu_5x5_reduce <- inception_4d/5x5_reduce
I0403 21:57:08.425981 13403 net.cpp:386] inception_4d/relu_5x5_reduce -> inception_4d/5x5_reduce (in-place)
I0403 21:57:08.426218 13403 net.cpp:141] Setting up inception_4d/relu_5x5_reduce
I0403 21:57:08.426250 13403 net.cpp:148] Top shape: 24 32 14 14 (150528)
I0403 21:57:08.426270 13403 net.cpp:156] Memory required for data: 1132858656
I0403 21:57:08.426288 13403 layer_factory.hpp:77] Creating layer inception_4d/5x5
I0403 21:57:08.426316 13403 net.cpp:91] Creating Layer inception_4d/5x5
I0403 21:57:08.426339 13403 net.cpp:425] inception_4d/5x5 <- inception_4d/5x5_reduce
I0403 21:57:08.426370 13403 net.cpp:399] inception_4d/5x5 -> inception_4d/5x5
I0403 21:57:08.428160 13403 net.cpp:141] Setting up inception_4d/5x5
I0403 21:57:08.428195 13403 net.cpp:148] Top shape: 24 64 14 14 (301056)
I0403 21:57:08.428222 13403 net.cpp:156] Memory required for data: 1134062880
I0403 21:57:08.428251 13403 layer_factory.hpp:77] Creating layer inception_4d/relu_5x5
I0403 21:57:08.428295 13403 net.cpp:91] Creating Layer inception_4d/relu_5x5
I0403 21:57:08.428318 13403 net.cpp:425] inception_4d/relu_5x5 <- inception_4d/5x5
I0403 21:57:08.428340 13403 net.cpp:386] inception_4d/relu_5x5 -> inception_4d/5x5 (in-place)
I0403 21:57:08.428707 13403 net.cpp:141] Setting up inception_4d/relu_5x5
I0403 21:57:08.428740 13403 net.cpp:148] Top shape: 24 64 14 14 (301056)
I0403 21:57:08.428760 13403 net.cpp:156] Memory required for data: 1135267104
I0403 21:57:08.428778 13403 layer_factory.hpp:77] Creating layer inception_4d/pool
I0403 21:57:08.428802 13403 net.cpp:91] Creating Layer inception_4d/pool
I0403 21:57:08.428824 13403 net.cpp:425] inception_4d/pool <- inception_4c/output_inception_4c/output_0_split_3
I0403 21:57:08.428848 13403 net.cpp:399] inception_4d/pool -> inception_4d/pool
I0403 21:57:08.428935 13403 net.cpp:141] Setting up inception_4d/pool
I0403 21:57:08.428964 13403 net.cpp:148] Top shape: 24 512 14 14 (2408448)
I0403 21:57:08.428982 13403 net.cpp:156] Memory required for data: 1144900896
I0403 21:57:08.429000 13403 layer_factory.hpp:77] Creating layer inception_4d/pool_proj
I0403 21:57:08.429028 13403 net.cpp:91] Creating Layer inception_4d/pool_proj
I0403 21:57:08.429050 13403 net.cpp:425] inception_4d/pool_proj <- inception_4d/pool
I0403 21:57:08.429076 13403 net.cpp:399] inception_4d/pool_proj -> inception_4d/pool_proj
I0403 21:57:08.431270 13403 net.cpp:141] Setting up inception_4d/pool_proj
I0403 21:57:08.431306 13403 net.cpp:148] Top shape: 24 64 14 14 (301056)
I0403 21:57:08.431325 13403 net.cpp:156] Memory required for data: 1146105120
I0403 21:57:08.431347 13403 layer_factory.hpp:77] Creating layer inception_4d/relu_pool_proj
I0403 21:57:08.431371 13403 net.cpp:91] Creating Layer inception_4d/relu_pool_proj
I0403 21:57:08.431391 13403 net.cpp:425] inception_4d/relu_pool_proj <- inception_4d/pool_proj
I0403 21:57:08.431417 13403 net.cpp:386] inception_4d/relu_pool_proj -> inception_4d/pool_proj (in-place)
I0403 21:57:08.431655 13403 net.cpp:141] Setting up inception_4d/relu_pool_proj
I0403 21:57:08.431687 13403 net.cpp:148] Top shape: 24 64 14 14 (301056)
I0403 21:57:08.431705 13403 net.cpp:156] Memory required for data: 1147309344
I0403 21:57:08.431723 13403 layer_factory.hpp:77] Creating layer inception_4d/output
I0403 21:57:08.431748 13403 net.cpp:91] Creating Layer inception_4d/output
I0403 21:57:08.431771 13403 net.cpp:425] inception_4d/output <- inception_4d/1x1
I0403 21:57:08.431792 13403 net.cpp:425] inception_4d/output <- inception_4d/3x3
I0403 21:57:08.431812 13403 net.cpp:425] inception_4d/output <- inception_4d/5x5
I0403 21:57:08.431831 13403 net.cpp:425] inception_4d/output <- inception_4d/pool_proj
I0403 21:57:08.431854 13403 net.cpp:399] inception_4d/output -> inception_4d/output
I0403 21:57:08.431913 13403 net.cpp:141] Setting up inception_4d/output
I0403 21:57:08.431942 13403 net.cpp:148] Top shape: 24 528 14 14 (2483712)
I0403 21:57:08.431962 13403 net.cpp:156] Memory required for data: 1157244192
I0403 21:57:08.431980 13403 layer_factory.hpp:77] Creating layer inception_4d/output_inception_4d/output_0_split
I0403 21:57:08.432003 13403 net.cpp:91] Creating Layer inception_4d/output_inception_4d/output_0_split
I0403 21:57:08.432021 13403 net.cpp:425] inception_4d/output_inception_4d/output_0_split <- inception_4d/output
I0403 21:57:08.432046 13403 net.cpp:399] inception_4d/output_inception_4d/output_0_split -> inception_4d/output_inception_4d/output_0_split_0
I0403 21:57:08.432072 13403 net.cpp:399] inception_4d/output_inception_4d/output_0_split -> inception_4d/output_inception_4d/output_0_split_1
I0403 21:57:08.432099 13403 net.cpp:399] inception_4d/output_inception_4d/output_0_split -> inception_4d/output_inception_4d/output_0_split_2
I0403 21:57:08.432126 13403 net.cpp:399] inception_4d/output_inception_4d/output_0_split -> inception_4d/output_inception_4d/output_0_split_3
I0403 21:57:08.432152 13403 net.cpp:399] inception_4d/output_inception_4d/output_0_split -> inception_4d/output_inception_4d/output_0_split_4
I0403 21:57:08.432299 13403 net.cpp:141] Setting up inception_4d/output_inception_4d/output_0_split
I0403 21:57:08.432345 13403 net.cpp:148] Top shape: 24 528 14 14 (2483712)
I0403 21:57:08.432369 13403 net.cpp:148] Top shape: 24 528 14 14 (2483712)
I0403 21:57:08.432390 13403 net.cpp:148] Top shape: 24 528 14 14 (2483712)
I0403 21:57:08.432410 13403 net.cpp:148] Top shape: 24 528 14 14 (2483712)
I0403 21:57:08.432430 13403 net.cpp:148] Top shape: 24 528 14 14 (2483712)
I0403 21:57:08.432446 13403 net.cpp:156] Memory required for data: 1206918432
I0403 21:57:08.432464 13403 layer_factory.hpp:77] Creating layer loss2/ave_pool
I0403 21:57:08.432487 13403 net.cpp:91] Creating Layer loss2/ave_pool
I0403 21:57:08.432505 13403 net.cpp:425] loss2/ave_pool <- inception_4d/output_inception_4d/output_0_split_0
I0403 21:57:08.432531 13403 net.cpp:399] loss2/ave_pool -> loss2/ave_pool
I0403 21:57:08.432914 13403 net.cpp:141] Setting up loss2/ave_pool
I0403 21:57:08.432947 13403 net.cpp:148] Top shape: 24 528 4 4 (202752)
I0403 21:57:08.432966 13403 net.cpp:156] Memory required for data: 1207729440
I0403 21:57:08.432986 13403 layer_factory.hpp:77] Creating layer loss2/conv
I0403 21:57:08.433013 13403 net.cpp:91] Creating Layer loss2/conv
I0403 21:57:08.433037 13403 net.cpp:425] loss2/conv <- loss2/ave_pool
I0403 21:57:08.433063 13403 net.cpp:399] loss2/conv -> loss2/conv
I0403 21:57:08.435428 13403 net.cpp:141] Setting up loss2/conv
I0403 21:57:08.435464 13403 net.cpp:148] Top shape: 24 128 4 4 (49152)
I0403 21:57:08.435487 13403 net.cpp:156] Memory required for data: 1207926048
I0403 21:57:08.435510 13403 layer_factory.hpp:77] Creating layer loss2/relu_conv
I0403 21:57:08.435534 13403 net.cpp:91] Creating Layer loss2/relu_conv
I0403 21:57:08.435554 13403 net.cpp:425] loss2/relu_conv <- loss2/conv
I0403 21:57:08.435575 13403 net.cpp:386] loss2/relu_conv -> loss2/conv (in-place)
I0403 21:57:08.435930 13403 net.cpp:141] Setting up loss2/relu_conv
I0403 21:57:08.435963 13403 net.cpp:148] Top shape: 24 128 4 4 (49152)
I0403 21:57:08.435986 13403 net.cpp:156] Memory required for data: 1208122656
I0403 21:57:08.436005 13403 layer_factory.hpp:77] Creating layer loss2/fc
I0403 21:57:08.436029 13403 net.cpp:91] Creating Layer loss2/fc
I0403 21:57:08.436050 13403 net.cpp:425] loss2/fc <- loss2/conv
I0403 21:57:08.436075 13403 net.cpp:399] loss2/fc -> loss2/fc
I0403 21:57:08.458308 13403 net.cpp:141] Setting up loss2/fc
I0403 21:57:08.458350 13403 net.cpp:148] Top shape: 24 1024 (24576)
I0403 21:57:08.458369 13403 net.cpp:156] Memory required for data: 1208220960
I0403 21:57:08.458394 13403 layer_factory.hpp:77] Creating layer loss2/relu_fc
I0403 21:57:08.458417 13403 net.cpp:91] Creating Layer loss2/relu_fc
I0403 21:57:08.458437 13403 net.cpp:425] loss2/relu_fc <- loss2/fc
I0403 21:57:08.458461 13403 net.cpp:386] loss2/relu_fc -> loss2/fc (in-place)
I0403 21:57:08.458834 13403 net.cpp:141] Setting up loss2/relu_fc
I0403 21:57:08.458868 13403 net.cpp:148] Top shape: 24 1024 (24576)
I0403 21:57:08.458886 13403 net.cpp:156] Memory required for data: 1208319264
I0403 21:57:08.458906 13403 layer_factory.hpp:77] Creating layer loss2/drop_fc
I0403 21:57:08.458928 13403 net.cpp:91] Creating Layer loss2/drop_fc
I0403 21:57:08.458955 13403 net.cpp:425] loss2/drop_fc <- loss2/fc
I0403 21:57:08.458977 13403 net.cpp:386] loss2/drop_fc -> loss2/fc (in-place)
I0403 21:57:08.459038 13403 net.cpp:141] Setting up loss2/drop_fc
I0403 21:57:08.459071 13403 net.cpp:148] Top shape: 24 1024 (24576)
I0403 21:57:08.459091 13403 net.cpp:156] Memory required for data: 1208417568
I0403 21:57:08.459110 13403 layer_factory.hpp:77] Creating layer loss2/classifier_plantvillage
I0403 21:57:08.459133 13403 net.cpp:91] Creating Layer loss2/classifier_plantvillage
I0403 21:57:08.459152 13403 net.cpp:425] loss2/classifier_plantvillage <- loss2/fc
I0403 21:57:08.459179 13403 net.cpp:399] loss2/classifier_plantvillage -> loss2/classifier_plantvillage
I0403 21:57:08.459689 13403 net.cpp:141] Setting up loss2/classifier_plantvillage
I0403 21:57:08.459723 13403 net.cpp:148] Top shape: 24 38 (912)
I0403 21:57:08.459741 13403 net.cpp:156] Memory required for data: 1208421216
I0403 21:57:08.459785 13403 layer_factory.hpp:77] Creating layer loss2/classifier_plantvillage_loss2/classifier_plantvillage_0_split
I0403 21:57:08.459810 13403 net.cpp:91] Creating Layer loss2/classifier_plantvillage_loss2/classifier_plantvillage_0_split
I0403 21:57:08.459830 13403 net.cpp:425] loss2/classifier_plantvillage_loss2/classifier_plantvillage_0_split <- loss2/classifier_plantvillage
I0403 21:57:08.459852 13403 net.cpp:399] loss2/classifier_plantvillage_loss2/classifier_plantvillage_0_split -> loss2/classifier_plantvillage_loss2/classifier_plantvillage_0_split_0
I0403 21:57:08.459879 13403 net.cpp:399] loss2/classifier_plantvillage_loss2/classifier_plantvillage_0_split -> loss2/classifier_plantvillage_loss2/classifier_plantvillage_0_split_1
I0403 21:57:08.459908 13403 net.cpp:399] loss2/classifier_plantvillage_loss2/classifier_plantvillage_0_split -> loss2/classifier_plantvillage_loss2/classifier_plantvillage_0_split_2
I0403 21:57:08.460006 13403 net.cpp:141] Setting up loss2/classifier_plantvillage_loss2/classifier_plantvillage_0_split
I0403 21:57:08.460036 13403 net.cpp:148] Top shape: 24 38 (912)
I0403 21:57:08.460055 13403 net.cpp:148] Top shape: 24 38 (912)
I0403 21:57:08.460075 13403 net.cpp:148] Top shape: 24 38 (912)
I0403 21:57:08.460093 13403 net.cpp:156] Memory required for data: 1208432160
I0403 21:57:08.460110 13403 layer_factory.hpp:77] Creating layer inception_4e/1x1
I0403 21:57:08.460139 13403 net.cpp:91] Creating Layer inception_4e/1x1
I0403 21:57:08.460163 13403 net.cpp:425] inception_4e/1x1 <- inception_4d/output_inception_4d/output_0_split_1
I0403 21:57:08.460188 13403 net.cpp:399] inception_4e/1x1 -> inception_4e/1x1
I0403 21:57:08.462466 13403 net.cpp:141] Setting up inception_4e/1x1
I0403 21:57:08.462502 13403 net.cpp:148] Top shape: 24 256 14 14 (1204224)
I0403 21:57:08.462522 13403 net.cpp:156] Memory required for data: 1213249056
I0403 21:57:08.462543 13403 layer_factory.hpp:77] Creating layer inception_4e/relu_1x1
I0403 21:57:08.462569 13403 net.cpp:91] Creating Layer inception_4e/relu_1x1
I0403 21:57:08.462590 13403 net.cpp:425] inception_4e/relu_1x1 <- inception_4e/1x1
I0403 21:57:08.462613 13403 net.cpp:386] inception_4e/relu_1x1 -> inception_4e/1x1 (in-place)
I0403 21:57:08.462975 13403 net.cpp:141] Setting up inception_4e/relu_1x1
I0403 21:57:08.463007 13403 net.cpp:148] Top shape: 24 256 14 14 (1204224)
I0403 21:57:08.463027 13403 net.cpp:156] Memory required for data: 1218065952
I0403 21:57:08.463043 13403 layer_factory.hpp:77] Creating layer inception_4e/3x3_reduce
I0403 21:57:08.463073 13403 net.cpp:91] Creating Layer inception_4e/3x3_reduce
I0403 21:57:08.463096 13403 net.cpp:425] inception_4e/3x3_reduce <- inception_4d/output_inception_4d/output_0_split_2
I0403 21:57:08.463120 13403 net.cpp:399] inception_4e/3x3_reduce -> inception_4e/3x3_reduce
I0403 21:57:08.465747 13403 net.cpp:141] Setting up inception_4e/3x3_reduce
I0403 21:57:08.465785 13403 net.cpp:148] Top shape: 24 160 14 14 (752640)
I0403 21:57:08.465804 13403 net.cpp:156] Memory required for data: 1221076512
I0403 21:57:08.465827 13403 layer_factory.hpp:77] Creating layer inception_4e/relu_3x3_reduce
I0403 21:57:08.465853 13403 net.cpp:91] Creating Layer inception_4e/relu_3x3_reduce
I0403 21:57:08.465874 13403 net.cpp:425] inception_4e/relu_3x3_reduce <- inception_4e/3x3_reduce
I0403 21:57:08.465898 13403 net.cpp:386] inception_4e/relu_3x3_reduce -> inception_4e/3x3_reduce (in-place)
I0403 21:57:08.466136 13403 net.cpp:141] Setting up inception_4e/relu_3x3_reduce
I0403 21:57:08.466172 13403 net.cpp:148] Top shape: 24 160 14 14 (752640)
I0403 21:57:08.466192 13403 net.cpp:156] Memory required for data: 1224087072
I0403 21:57:08.466215 13403 layer_factory.hpp:77] Creating layer inception_4e/3x3
I0403 21:57:08.466246 13403 net.cpp:91] Creating Layer inception_4e/3x3
I0403 21:57:08.466269 13403 net.cpp:425] inception_4e/3x3 <- inception_4e/3x3_reduce
I0403 21:57:08.466295 13403 net.cpp:399] inception_4e/3x3 -> inception_4e/3x3
I0403 21:57:08.472560 13403 net.cpp:141] Setting up inception_4e/3x3
I0403 21:57:08.472620 13403 net.cpp:148] Top shape: 24 320 14 14 (1505280)
I0403 21:57:08.472642 13403 net.cpp:156] Memory required for data: 1230108192
I0403 21:57:08.472666 13403 layer_factory.hpp:77] Creating layer inception_4e/relu_3x3
I0403 21:57:08.472688 13403 net.cpp:91] Creating Layer inception_4e/relu_3x3
I0403 21:57:08.472709 13403 net.cpp:425] inception_4e/relu_3x3 <- inception_4e/3x3
I0403 21:57:08.472735 13403 net.cpp:386] inception_4e/relu_3x3 -> inception_4e/3x3 (in-place)
I0403 21:57:08.473101 13403 net.cpp:141] Setting up inception_4e/relu_3x3
I0403 21:57:08.473134 13403 net.cpp:148] Top shape: 24 320 14 14 (1505280)
I0403 21:57:08.473152 13403 net.cpp:156] Memory required for data: 1236129312
I0403 21:57:08.473171 13403 layer_factory.hpp:77] Creating layer inception_4e/5x5_reduce
I0403 21:57:08.473201 13403 net.cpp:91] Creating Layer inception_4e/5x5_reduce
I0403 21:57:08.473229 13403 net.cpp:425] inception_4e/5x5_reduce <- inception_4d/output_inception_4d/output_0_split_3
I0403 21:57:08.473258 13403 net.cpp:399] inception_4e/5x5_reduce -> inception_4e/5x5_reduce
I0403 21:57:08.474584 13403 net.cpp:141] Setting up inception_4e/5x5_reduce
I0403 21:57:08.474619 13403 net.cpp:148] Top shape: 24 32 14 14 (150528)
I0403 21:57:08.474638 13403 net.cpp:156] Memory required for data: 1236731424
I0403 21:57:08.474663 13403 layer_factory.hpp:77] Creating layer inception_4e/relu_5x5_reduce
I0403 21:57:08.474689 13403 net.cpp:91] Creating Layer inception_4e/relu_5x5_reduce
I0403 21:57:08.474710 13403 net.cpp:425] inception_4e/relu_5x5_reduce <- inception_4e/5x5_reduce
I0403 21:57:08.474732 13403 net.cpp:386] inception_4e/relu_5x5_reduce -> inception_4e/5x5_reduce (in-place)
I0403 21:57:08.475095 13403 net.cpp:141] Setting up inception_4e/relu_5x5_reduce
I0403 21:57:08.475127 13403 net.cpp:148] Top shape: 24 32 14 14 (150528)
I0403 21:57:08.475147 13403 net.cpp:156] Memory required for data: 1237333536
I0403 21:57:08.475167 13403 layer_factory.hpp:77] Creating layer inception_4e/5x5
I0403 21:57:08.475221 13403 net.cpp:91] Creating Layer inception_4e/5x5
I0403 21:57:08.475249 13403 net.cpp:425] inception_4e/5x5 <- inception_4e/5x5_reduce
I0403 21:57:08.475272 13403 net.cpp:399] inception_4e/5x5 -> inception_4e/5x5
I0403 21:57:08.477526 13403 net.cpp:141] Setting up inception_4e/5x5
I0403 21:57:08.477562 13403 net.cpp:148] Top shape: 24 128 14 14 (602112)
I0403 21:57:08.477581 13403 net.cpp:156] Memory required for data: 1239741984
I0403 21:57:08.477607 13403 layer_factory.hpp:77] Creating layer inception_4e/relu_5x5
I0403 21:57:08.477632 13403 net.cpp:91] Creating Layer inception_4e/relu_5x5
I0403 21:57:08.477653 13403 net.cpp:425] inception_4e/relu_5x5 <- inception_4e/5x5
I0403 21:57:08.477675 13403 net.cpp:386] inception_4e/relu_5x5 -> inception_4e/5x5 (in-place)
I0403 21:57:08.477927 13403 net.cpp:141] Setting up inception_4e/relu_5x5
I0403 21:57:08.477962 13403 net.cpp:148] Top shape: 24 128 14 14 (602112)
I0403 21:57:08.477983 13403 net.cpp:156] Memory required for data: 1242150432
I0403 21:57:08.478001 13403 layer_factory.hpp:77] Creating layer inception_4e/pool
I0403 21:57:08.478025 13403 net.cpp:91] Creating Layer inception_4e/pool
I0403 21:57:08.478045 13403 net.cpp:425] inception_4e/pool <- inception_4d/output_inception_4d/output_0_split_4
I0403 21:57:08.478067 13403 net.cpp:399] inception_4e/pool -> inception_4e/pool
I0403 21:57:08.478157 13403 net.cpp:141] Setting up inception_4e/pool
I0403 21:57:08.478186 13403 net.cpp:148] Top shape: 24 528 14 14 (2483712)
I0403 21:57:08.478204 13403 net.cpp:156] Memory required for data: 1252085280
I0403 21:57:08.478229 13403 layer_factory.hpp:77] Creating layer inception_4e/pool_proj
I0403 21:57:08.478257 13403 net.cpp:91] Creating Layer inception_4e/pool_proj
I0403 21:57:08.478281 13403 net.cpp:425] inception_4e/pool_proj <- inception_4e/pool
I0403 21:57:08.478308 13403 net.cpp:399] inception_4e/pool_proj -> inception_4e/pool_proj
I0403 21:57:08.480159 13403 net.cpp:141] Setting up inception_4e/pool_proj
I0403 21:57:08.480193 13403 net.cpp:148] Top shape: 24 128 14 14 (602112)
I0403 21:57:08.480237 13403 net.cpp:156] Memory required for data: 1254493728
I0403 21:57:08.480262 13403 layer_factory.hpp:77] Creating layer inception_4e/relu_pool_proj
I0403 21:57:08.480283 13403 net.cpp:91] Creating Layer inception_4e/relu_pool_proj
I0403 21:57:08.480304 13403 net.cpp:425] inception_4e/relu_pool_proj <- inception_4e/pool_proj
I0403 21:57:08.480329 13403 net.cpp:386] inception_4e/relu_pool_proj -> inception_4e/pool_proj (in-place)
I0403 21:57:08.480690 13403 net.cpp:141] Setting up inception_4e/relu_pool_proj
I0403 21:57:08.480723 13403 net.cpp:148] Top shape: 24 128 14 14 (602112)
I0403 21:57:08.480742 13403 net.cpp:156] Memory required for data: 1256902176
I0403 21:57:08.480761 13403 layer_factory.hpp:77] Creating layer inception_4e/output
I0403 21:57:08.480782 13403 net.cpp:91] Creating Layer inception_4e/output
I0403 21:57:08.480801 13403 net.cpp:425] inception_4e/output <- inception_4e/1x1
I0403 21:57:08.480823 13403 net.cpp:425] inception_4e/output <- inception_4e/3x3
I0403 21:57:08.480842 13403 net.cpp:425] inception_4e/output <- inception_4e/5x5
I0403 21:57:08.480861 13403 net.cpp:425] inception_4e/output <- inception_4e/pool_proj
I0403 21:57:08.480887 13403 net.cpp:399] inception_4e/output -> inception_4e/output
I0403 21:57:08.480950 13403 net.cpp:141] Setting up inception_4e/output
I0403 21:57:08.480983 13403 net.cpp:148] Top shape: 24 832 14 14 (3913728)
I0403 21:57:08.481003 13403 net.cpp:156] Memory required for data: 1272557088
I0403 21:57:08.481021 13403 layer_factory.hpp:77] Creating layer pool4/3x3_s2
I0403 21:57:08.481043 13403 net.cpp:91] Creating Layer pool4/3x3_s2
I0403 21:57:08.481063 13403 net.cpp:425] pool4/3x3_s2 <- inception_4e/output
I0403 21:57:08.481089 13403 net.cpp:399] pool4/3x3_s2 -> pool4/3x3_s2
I0403 21:57:08.481175 13403 net.cpp:141] Setting up pool4/3x3_s2
I0403 21:57:08.481206 13403 net.cpp:148] Top shape: 24 832 7 7 (978432)
I0403 21:57:08.481231 13403 net.cpp:156] Memory required for data: 1276470816
I0403 21:57:08.481250 13403 layer_factory.hpp:77] Creating layer pool4/3x3_s2_pool4/3x3_s2_0_split
I0403 21:57:08.481276 13403 net.cpp:91] Creating Layer pool4/3x3_s2_pool4/3x3_s2_0_split
I0403 21:57:08.481295 13403 net.cpp:425] pool4/3x3_s2_pool4/3x3_s2_0_split <- pool4/3x3_s2
I0403 21:57:08.481318 13403 net.cpp:399] pool4/3x3_s2_pool4/3x3_s2_0_split -> pool4/3x3_s2_pool4/3x3_s2_0_split_0
I0403 21:57:08.481343 13403 net.cpp:399] pool4/3x3_s2_pool4/3x3_s2_0_split -> pool4/3x3_s2_pool4/3x3_s2_0_split_1
I0403 21:57:08.481372 13403 net.cpp:399] pool4/3x3_s2_pool4/3x3_s2_0_split -> pool4/3x3_s2_pool4/3x3_s2_0_split_2
I0403 21:57:08.481400 13403 net.cpp:399] pool4/3x3_s2_pool4/3x3_s2_0_split -> pool4/3x3_s2_pool4/3x3_s2_0_split_3
I0403 21:57:08.481516 13403 net.cpp:141] Setting up pool4/3x3_s2_pool4/3x3_s2_0_split
I0403 21:57:08.481546 13403 net.cpp:148] Top shape: 24 832 7 7 (978432)
I0403 21:57:08.481567 13403 net.cpp:148] Top shape: 24 832 7 7 (978432)
I0403 21:57:08.481587 13403 net.cpp:148] Top shape: 24 832 7 7 (978432)
I0403 21:57:08.481607 13403 net.cpp:148] Top shape: 24 832 7 7 (978432)
I0403 21:57:08.481624 13403 net.cpp:156] Memory required for data: 1292125728
I0403 21:57:08.481642 13403 layer_factory.hpp:77] Creating layer inception_5a/1x1
I0403 21:57:08.481669 13403 net.cpp:91] Creating Layer inception_5a/1x1
I0403 21:57:08.481693 13403 net.cpp:425] inception_5a/1x1 <- pool4/3x3_s2_pool4/3x3_s2_0_split_0
I0403 21:57:08.481719 13403 net.cpp:399] inception_5a/1x1 -> inception_5a/1x1
I0403 21:57:08.485270 13403 net.cpp:141] Setting up inception_5a/1x1
I0403 21:57:08.485306 13403 net.cpp:148] Top shape: 24 256 7 7 (301056)
I0403 21:57:08.485327 13403 net.cpp:156] Memory required for data: 1293329952
I0403 21:57:08.485349 13403 layer_factory.hpp:77] Creating layer inception_5a/relu_1x1
I0403 21:57:08.485375 13403 net.cpp:91] Creating Layer inception_5a/relu_1x1
I0403 21:57:08.485396 13403 net.cpp:425] inception_5a/relu_1x1 <- inception_5a/1x1
I0403 21:57:08.485419 13403 net.cpp:386] inception_5a/relu_1x1 -> inception_5a/1x1 (in-place)
I0403 21:57:08.485800 13403 net.cpp:141] Setting up inception_5a/relu_1x1
I0403 21:57:08.485834 13403 net.cpp:148] Top shape: 24 256 7 7 (301056)
I0403 21:57:08.485853 13403 net.cpp:156] Memory required for data: 1294534176
I0403 21:57:08.485872 13403 layer_factory.hpp:77] Creating layer inception_5a/3x3_reduce
I0403 21:57:08.485900 13403 net.cpp:91] Creating Layer inception_5a/3x3_reduce
I0403 21:57:08.485924 13403 net.cpp:425] inception_5a/3x3_reduce <- pool4/3x3_s2_pool4/3x3_s2_0_split_1
I0403 21:57:08.485951 13403 net.cpp:399] inception_5a/3x3_reduce -> inception_5a/3x3_reduce
I0403 21:57:08.489001 13403 net.cpp:141] Setting up inception_5a/3x3_reduce
I0403 21:57:08.489035 13403 net.cpp:148] Top shape: 24 160 7 7 (188160)
I0403 21:57:08.489054 13403 net.cpp:156] Memory required for data: 1295286816
I0403 21:57:08.489078 13403 layer_factory.hpp:77] Creating layer inception_5a/relu_3x3_reduce
I0403 21:57:08.489100 13403 net.cpp:91] Creating Layer inception_5a/relu_3x3_reduce
I0403 21:57:08.489121 13403 net.cpp:425] inception_5a/relu_3x3_reduce <- inception_5a/3x3_reduce
I0403 21:57:08.489147 13403 net.cpp:386] inception_5a/relu_3x3_reduce -> inception_5a/3x3_reduce (in-place)
I0403 21:57:08.489389 13403 net.cpp:141] Setting up inception_5a/relu_3x3_reduce
I0403 21:57:08.489423 13403 net.cpp:148] Top shape: 24 160 7 7 (188160)
I0403 21:57:08.489440 13403 net.cpp:156] Memory required for data: 1296039456
I0403 21:57:08.489459 13403 layer_factory.hpp:77] Creating layer inception_5a/3x3
I0403 21:57:08.489488 13403 net.cpp:91] Creating Layer inception_5a/3x3
I0403 21:57:08.489511 13403 net.cpp:425] inception_5a/3x3 <- inception_5a/3x3_reduce
I0403 21:57:08.489538 13403 net.cpp:399] inception_5a/3x3 -> inception_5a/3x3
I0403 21:57:08.495880 13403 net.cpp:141] Setting up inception_5a/3x3
I0403 21:57:08.495918 13403 net.cpp:148] Top shape: 24 320 7 7 (376320)
I0403 21:57:08.495937 13403 net.cpp:156] Memory required for data: 1297544736
I0403 21:57:08.495960 13403 layer_factory.hpp:77] Creating layer inception_5a/relu_3x3
I0403 21:57:08.495986 13403 net.cpp:91] Creating Layer inception_5a/relu_3x3
I0403 21:57:08.496007 13403 net.cpp:425] inception_5a/relu_3x3 <- inception_5a/3x3
I0403 21:57:08.496031 13403 net.cpp:386] inception_5a/relu_3x3 -> inception_5a/3x3 (in-place)
I0403 21:57:08.496399 13403 net.cpp:141] Setting up inception_5a/relu_3x3
I0403 21:57:08.496433 13403 net.cpp:148] Top shape: 24 320 7 7 (376320)
I0403 21:57:08.496453 13403 net.cpp:156] Memory required for data: 1299050016
I0403 21:57:08.496471 13403 layer_factory.hpp:77] Creating layer inception_5a/5x5_reduce
I0403 21:57:08.496500 13403 net.cpp:91] Creating Layer inception_5a/5x5_reduce
I0403 21:57:08.496522 13403 net.cpp:425] inception_5a/5x5_reduce <- pool4/3x3_s2_pool4/3x3_s2_0_split_2
I0403 21:57:08.496551 13403 net.cpp:399] inception_5a/5x5_reduce -> inception_5a/5x5_reduce
I0403 21:57:08.498008 13403 net.cpp:141] Setting up inception_5a/5x5_reduce
I0403 21:57:08.498045 13403 net.cpp:148] Top shape: 24 32 7 7 (37632)
I0403 21:57:08.498065 13403 net.cpp:156] Memory required for data: 1299200544
I0403 21:57:08.498088 13403 layer_factory.hpp:77] Creating layer inception_5a/relu_5x5_reduce
I0403 21:57:08.498111 13403 net.cpp:91] Creating Layer inception_5a/relu_5x5_reduce
I0403 21:57:08.498131 13403 net.cpp:425] inception_5a/relu_5x5_reduce <- inception_5a/5x5_reduce
I0403 21:57:08.498153 13403 net.cpp:386] inception_5a/relu_5x5_reduce -> inception_5a/5x5_reduce (in-place)
I0403 21:57:08.498533 13403 net.cpp:141] Setting up inception_5a/relu_5x5_reduce
I0403 21:57:08.498565 13403 net.cpp:148] Top shape: 24 32 7 7 (37632)
I0403 21:57:08.498589 13403 net.cpp:156] Memory required for data: 1299351072
I0403 21:57:08.498607 13403 layer_factory.hpp:77] Creating layer inception_5a/5x5
I0403 21:57:08.498632 13403 net.cpp:91] Creating Layer inception_5a/5x5
I0403 21:57:08.498653 13403 net.cpp:425] inception_5a/5x5 <- inception_5a/5x5_reduce
I0403 21:57:08.498680 13403 net.cpp:399] inception_5a/5x5 -> inception_5a/5x5
I0403 21:57:08.500849 13403 net.cpp:141] Setting up inception_5a/5x5
I0403 21:57:08.500897 13403 net.cpp:148] Top shape: 24 128 7 7 (150528)
I0403 21:57:08.500917 13403 net.cpp:156] Memory required for data: 1299953184
I0403 21:57:08.500941 13403 layer_factory.hpp:77] Creating layer inception_5a/relu_5x5
I0403 21:57:08.500967 13403 net.cpp:91] Creating Layer inception_5a/relu_5x5
I0403 21:57:08.500988 13403 net.cpp:425] inception_5a/relu_5x5 <- inception_5a/5x5
I0403 21:57:08.501010 13403 net.cpp:386] inception_5a/relu_5x5 -> inception_5a/5x5 (in-place)
I0403 21:57:08.501257 13403 net.cpp:141] Setting up inception_5a/relu_5x5
I0403 21:57:08.501292 13403 net.cpp:148] Top shape: 24 128 7 7 (150528)
I0403 21:57:08.501312 13403 net.cpp:156] Memory required for data: 1300555296
I0403 21:57:08.501330 13403 layer_factory.hpp:77] Creating layer inception_5a/pool
I0403 21:57:08.501353 13403 net.cpp:91] Creating Layer inception_5a/pool
I0403 21:57:08.501374 13403 net.cpp:425] inception_5a/pool <- pool4/3x3_s2_pool4/3x3_s2_0_split_3
I0403 21:57:08.501395 13403 net.cpp:399] inception_5a/pool -> inception_5a/pool
I0403 21:57:08.501483 13403 net.cpp:141] Setting up inception_5a/pool
I0403 21:57:08.501513 13403 net.cpp:148] Top shape: 24 832 7 7 (978432)
I0403 21:57:08.501530 13403 net.cpp:156] Memory required for data: 1304469024
I0403 21:57:08.501549 13403 layer_factory.hpp:77] Creating layer inception_5a/pool_proj
I0403 21:57:08.501576 13403 net.cpp:91] Creating Layer inception_5a/pool_proj
I0403 21:57:08.501600 13403 net.cpp:425] inception_5a/pool_proj <- inception_5a/pool
I0403 21:57:08.501626 13403 net.cpp:399] inception_5a/pool_proj -> inception_5a/pool_proj
I0403 21:57:08.504468 13403 net.cpp:141] Setting up inception_5a/pool_proj
I0403 21:57:08.504504 13403 net.cpp:148] Top shape: 24 128 7 7 (150528)
I0403 21:57:08.504524 13403 net.cpp:156] Memory required for data: 1305071136
I0403 21:57:08.504547 13403 layer_factory.hpp:77] Creating layer inception_5a/relu_pool_proj
I0403 21:57:08.504572 13403 net.cpp:91] Creating Layer inception_5a/relu_pool_proj
I0403 21:57:08.504595 13403 net.cpp:425] inception_5a/relu_pool_proj <- inception_5a/pool_proj
I0403 21:57:08.504617 13403 net.cpp:386] inception_5a/relu_pool_proj -> inception_5a/pool_proj (in-place)
I0403 21:57:08.504977 13403 net.cpp:141] Setting up inception_5a/relu_pool_proj
I0403 21:57:08.505010 13403 net.cpp:148] Top shape: 24 128 7 7 (150528)
I0403 21:57:08.505030 13403 net.cpp:156] Memory required for data: 1305673248
I0403 21:57:08.505048 13403 layer_factory.hpp:77] Creating layer inception_5a/output
I0403 21:57:08.505070 13403 net.cpp:91] Creating Layer inception_5a/output
I0403 21:57:08.505090 13403 net.cpp:425] inception_5a/output <- inception_5a/1x1
I0403 21:57:08.505110 13403 net.cpp:425] inception_5a/output <- inception_5a/3x3
I0403 21:57:08.505131 13403 net.cpp:425] inception_5a/output <- inception_5a/5x5
I0403 21:57:08.505151 13403 net.cpp:425] inception_5a/output <- inception_5a/pool_proj
I0403 21:57:08.505177 13403 net.cpp:399] inception_5a/output -> inception_5a/output
I0403 21:57:08.505246 13403 net.cpp:141] Setting up inception_5a/output
I0403 21:57:08.505280 13403 net.cpp:148] Top shape: 24 832 7 7 (978432)
I0403 21:57:08.505300 13403 net.cpp:156] Memory required for data: 1309586976
I0403 21:57:08.505318 13403 layer_factory.hpp:77] Creating layer inception_5a/output_inception_5a/output_0_split
I0403 21:57:08.505338 13403 net.cpp:91] Creating Layer inception_5a/output_inception_5a/output_0_split
I0403 21:57:08.505358 13403 net.cpp:425] inception_5a/output_inception_5a/output_0_split <- inception_5a/output
I0403 21:57:08.505385 13403 net.cpp:399] inception_5a/output_inception_5a/output_0_split -> inception_5a/output_inception_5a/output_0_split_0
I0403 21:57:08.505411 13403 net.cpp:399] inception_5a/output_inception_5a/output_0_split -> inception_5a/output_inception_5a/output_0_split_1
I0403 21:57:08.505437 13403 net.cpp:399] inception_5a/output_inception_5a/output_0_split -> inception_5a/output_inception_5a/output_0_split_2
I0403 21:57:08.505463 13403 net.cpp:399] inception_5a/output_inception_5a/output_0_split -> inception_5a/output_inception_5a/output_0_split_3
I0403 21:57:08.505600 13403 net.cpp:141] Setting up inception_5a/output_inception_5a/output_0_split
I0403 21:57:08.505631 13403 net.cpp:148] Top shape: 24 832 7 7 (978432)
I0403 21:57:08.505656 13403 net.cpp:148] Top shape: 24 832 7 7 (978432)
I0403 21:57:08.505676 13403 net.cpp:148] Top shape: 24 832 7 7 (978432)
I0403 21:57:08.505695 13403 net.cpp:148] Top shape: 24 832 7 7 (978432)
I0403 21:57:08.505712 13403 net.cpp:156] Memory required for data: 1325241888
I0403 21:57:08.505730 13403 layer_factory.hpp:77] Creating layer inception_5b/1x1
I0403 21:57:08.505756 13403 net.cpp:91] Creating Layer inception_5b/1x1
I0403 21:57:08.505777 13403 net.cpp:425] inception_5b/1x1 <- inception_5a/output_inception_5a/output_0_split_0
I0403 21:57:08.505805 13403 net.cpp:399] inception_5b/1x1 -> inception_5b/1x1
I0403 21:57:08.510473 13403 net.cpp:141] Setting up inception_5b/1x1
I0403 21:57:08.510511 13403 net.cpp:148] Top shape: 24 384 7 7 (451584)
I0403 21:57:08.510530 13403 net.cpp:156] Memory required for data: 1327048224
I0403 21:57:08.510553 13403 layer_factory.hpp:77] Creating layer inception_5b/relu_1x1
I0403 21:57:08.510576 13403 net.cpp:91] Creating Layer inception_5b/relu_1x1
I0403 21:57:08.510597 13403 net.cpp:425] inception_5b/relu_1x1 <- inception_5b/1x1
I0403 21:57:08.510623 13403 net.cpp:386] inception_5b/relu_1x1 -> inception_5b/1x1 (in-place)
I0403 21:57:08.510998 13403 net.cpp:141] Setting up inception_5b/relu_1x1
I0403 21:57:08.511031 13403 net.cpp:148] Top shape: 24 384 7 7 (451584)
I0403 21:57:08.511049 13403 net.cpp:156] Memory required for data: 1328854560
I0403 21:57:08.511068 13403 layer_factory.hpp:77] Creating layer inception_5b/3x3_reduce
I0403 21:57:08.511097 13403 net.cpp:91] Creating Layer inception_5b/3x3_reduce
I0403 21:57:08.511121 13403 net.cpp:425] inception_5b/3x3_reduce <- inception_5a/output_inception_5a/output_0_split_1
I0403 21:57:08.511149 13403 net.cpp:399] inception_5b/3x3_reduce -> inception_5b/3x3_reduce
I0403 21:57:08.514490 13403 net.cpp:141] Setting up inception_5b/3x3_reduce
I0403 21:57:08.514528 13403 net.cpp:148] Top shape: 24 192 7 7 (225792)
I0403 21:57:08.514547 13403 net.cpp:156] Memory required for data: 1329757728
I0403 21:57:08.514570 13403 layer_factory.hpp:77] Creating layer inception_5b/relu_3x3_reduce
I0403 21:57:08.514593 13403 net.cpp:91] Creating Layer inception_5b/relu_3x3_reduce
I0403 21:57:08.514618 13403 net.cpp:425] inception_5b/relu_3x3_reduce <- inception_5b/3x3_reduce
I0403 21:57:08.514642 13403 net.cpp:386] inception_5b/relu_3x3_reduce -> inception_5b/3x3_reduce (in-place)
I0403 21:57:08.514880 13403 net.cpp:141] Setting up inception_5b/relu_3x3_reduce
I0403 21:57:08.514912 13403 net.cpp:148] Top shape: 24 192 7 7 (225792)
I0403 21:57:08.514932 13403 net.cpp:156] Memory required for data: 1330660896
I0403 21:57:08.514950 13403 layer_factory.hpp:77] Creating layer inception_5b/3x3
I0403 21:57:08.514978 13403 net.cpp:91] Creating Layer inception_5b/3x3
I0403 21:57:08.515002 13403 net.cpp:425] inception_5b/3x3 <- inception_5b/3x3_reduce
I0403 21:57:08.515029 13403 net.cpp:399] inception_5b/3x3 -> inception_5b/3x3
I0403 21:57:08.523490 13403 net.cpp:141] Setting up inception_5b/3x3
I0403 21:57:08.523526 13403 net.cpp:148] Top shape: 24 384 7 7 (451584)
I0403 21:57:08.523546 13403 net.cpp:156] Memory required for data: 1332467232
I0403 21:57:08.523571 13403 layer_factory.hpp:77] Creating layer inception_5b/relu_3x3
I0403 21:57:08.523597 13403 net.cpp:91] Creating Layer inception_5b/relu_3x3
I0403 21:57:08.523617 13403 net.cpp:425] inception_5b/relu_3x3 <- inception_5b/3x3
I0403 21:57:08.523639 13403 net.cpp:386] inception_5b/relu_3x3 -> inception_5b/3x3 (in-place)
I0403 21:57:08.524009 13403 net.cpp:141] Setting up inception_5b/relu_3x3
I0403 21:57:08.524042 13403 net.cpp:148] Top shape: 24 384 7 7 (451584)
I0403 21:57:08.524061 13403 net.cpp:156] Memory required for data: 1334273568
I0403 21:57:08.524080 13403 layer_factory.hpp:77] Creating layer inception_5b/5x5_reduce
I0403 21:57:08.524128 13403 net.cpp:91] Creating Layer inception_5b/5x5_reduce
I0403 21:57:08.524152 13403 net.cpp:425] inception_5b/5x5_reduce <- inception_5a/output_inception_5a/output_0_split_2
I0403 21:57:08.524181 13403 net.cpp:399] inception_5b/5x5_reduce -> inception_5b/5x5_reduce
I0403 21:57:08.525789 13403 net.cpp:141] Setting up inception_5b/5x5_reduce
I0403 21:57:08.525823 13403 net.cpp:148] Top shape: 24 48 7 7 (56448)
I0403 21:57:08.525842 13403 net.cpp:156] Memory required for data: 1334499360
I0403 21:57:08.525864 13403 layer_factory.hpp:77] Creating layer inception_5b/relu_5x5_reduce
I0403 21:57:08.525887 13403 net.cpp:91] Creating Layer inception_5b/relu_5x5_reduce
I0403 21:57:08.525908 13403 net.cpp:425] inception_5b/relu_5x5_reduce <- inception_5b/5x5_reduce
I0403 21:57:08.525933 13403 net.cpp:386] inception_5b/relu_5x5_reduce -> inception_5b/5x5_reduce (in-place)
I0403 21:57:08.526409 13403 net.cpp:141] Setting up inception_5b/relu_5x5_reduce
I0403 21:57:08.526443 13403 net.cpp:148] Top shape: 24 48 7 7 (56448)
I0403 21:57:08.526463 13403 net.cpp:156] Memory required for data: 1334725152
I0403 21:57:08.526480 13403 layer_factory.hpp:77] Creating layer inception_5b/5x5
I0403 21:57:08.526506 13403 net.cpp:91] Creating Layer inception_5b/5x5
I0403 21:57:08.526528 13403 net.cpp:425] inception_5b/5x5 <- inception_5b/5x5_reduce
I0403 21:57:08.526552 13403 net.cpp:399] inception_5b/5x5 -> inception_5b/5x5
I0403 21:57:08.529111 13403 net.cpp:141] Setting up inception_5b/5x5
I0403 21:57:08.529146 13403 net.cpp:148] Top shape: 24 128 7 7 (150528)
I0403 21:57:08.529165 13403 net.cpp:156] Memory required for data: 1335327264
I0403 21:57:08.529188 13403 layer_factory.hpp:77] Creating layer inception_5b/relu_5x5
I0403 21:57:08.529219 13403 net.cpp:91] Creating Layer inception_5b/relu_5x5
I0403 21:57:08.529243 13403 net.cpp:425] inception_5b/relu_5x5 <- inception_5b/5x5
I0403 21:57:08.529265 13403 net.cpp:386] inception_5b/relu_5x5 -> inception_5b/5x5 (in-place)
I0403 21:57:08.529510 13403 net.cpp:141] Setting up inception_5b/relu_5x5
I0403 21:57:08.529544 13403 net.cpp:148] Top shape: 24 128 7 7 (150528)
I0403 21:57:08.529563 13403 net.cpp:156] Memory required for data: 1335929376
I0403 21:57:08.529582 13403 layer_factory.hpp:77] Creating layer inception_5b/pool
I0403 21:57:08.529605 13403 net.cpp:91] Creating Layer inception_5b/pool
I0403 21:57:08.529625 13403 net.cpp:425] inception_5b/pool <- inception_5a/output_inception_5a/output_0_split_3
I0403 21:57:08.529651 13403 net.cpp:399] inception_5b/pool -> inception_5b/pool
I0403 21:57:08.529742 13403 net.cpp:141] Setting up inception_5b/pool
I0403 21:57:08.529772 13403 net.cpp:148] Top shape: 24 832 7 7 (978432)
I0403 21:57:08.529790 13403 net.cpp:156] Memory required for data: 1339843104
I0403 21:57:08.529808 13403 layer_factory.hpp:77] Creating layer inception_5b/pool_proj
I0403 21:57:08.529836 13403 net.cpp:91] Creating Layer inception_5b/pool_proj
I0403 21:57:08.529860 13403 net.cpp:425] inception_5b/pool_proj <- inception_5b/pool
I0403 21:57:08.529886 13403 net.cpp:399] inception_5b/pool_proj -> inception_5b/pool_proj
I0403 21:57:08.532773 13403 net.cpp:141] Setting up inception_5b/pool_proj
I0403 21:57:08.532809 13403 net.cpp:148] Top shape: 24 128 7 7 (150528)
I0403 21:57:08.532829 13403 net.cpp:156] Memory required for data: 1340445216
I0403 21:57:08.532855 13403 layer_factory.hpp:77] Creating layer inception_5b/relu_pool_proj
I0403 21:57:08.532879 13403 net.cpp:91] Creating Layer inception_5b/relu_pool_proj
I0403 21:57:08.532902 13403 net.cpp:425] inception_5b/relu_pool_proj <- inception_5b/pool_proj
I0403 21:57:08.532923 13403 net.cpp:386] inception_5b/relu_pool_proj -> inception_5b/pool_proj (in-place)
I0403 21:57:08.533299 13403 net.cpp:141] Setting up inception_5b/relu_pool_proj
I0403 21:57:08.533332 13403 net.cpp:148] Top shape: 24 128 7 7 (150528)
I0403 21:57:08.533352 13403 net.cpp:156] Memory required for data: 1341047328
I0403 21:57:08.533371 13403 layer_factory.hpp:77] Creating layer inception_5b/output
I0403 21:57:08.533392 13403 net.cpp:91] Creating Layer inception_5b/output
I0403 21:57:08.533430 13403 net.cpp:425] inception_5b/output <- inception_5b/1x1
I0403 21:57:08.533454 13403 net.cpp:425] inception_5b/output <- inception_5b/3x3
I0403 21:57:08.533476 13403 net.cpp:425] inception_5b/output <- inception_5b/5x5
I0403 21:57:08.533496 13403 net.cpp:425] inception_5b/output <- inception_5b/pool_proj
I0403 21:57:08.533522 13403 net.cpp:399] inception_5b/output -> inception_5b/output
I0403 21:57:08.533586 13403 net.cpp:141] Setting up inception_5b/output
I0403 21:57:08.533619 13403 net.cpp:148] Top shape: 24 1024 7 7 (1204224)
I0403 21:57:08.533638 13403 net.cpp:156] Memory required for data: 1345864224
I0403 21:57:08.533655 13403 layer_factory.hpp:77] Creating layer pool5/7x7_s1
I0403 21:57:08.533679 13403 net.cpp:91] Creating Layer pool5/7x7_s1
I0403 21:57:08.533697 13403 net.cpp:425] pool5/7x7_s1 <- inception_5b/output
I0403 21:57:08.533723 13403 net.cpp:399] pool5/7x7_s1 -> pool5/7x7_s1
I0403 21:57:08.533996 13403 net.cpp:141] Setting up pool5/7x7_s1
I0403 21:57:08.534029 13403 net.cpp:148] Top shape: 24 1024 1 1 (24576)
I0403 21:57:08.534047 13403 net.cpp:156] Memory required for data: 1345962528
I0403 21:57:08.534067 13403 layer_factory.hpp:77] Creating layer pool5/drop_7x7_s1
I0403 21:57:08.534090 13403 net.cpp:91] Creating Layer pool5/drop_7x7_s1
I0403 21:57:08.534109 13403 net.cpp:425] pool5/drop_7x7_s1 <- pool5/7x7_s1
I0403 21:57:08.534133 13403 net.cpp:386] pool5/drop_7x7_s1 -> pool5/7x7_s1 (in-place)
I0403 21:57:08.534198 13403 net.cpp:141] Setting up pool5/drop_7x7_s1
I0403 21:57:08.534234 13403 net.cpp:148] Top shape: 24 1024 1 1 (24576)
I0403 21:57:08.534253 13403 net.cpp:156] Memory required for data: 1346060832
I0403 21:57:08.534272 13403 layer_factory.hpp:77] Creating layer loss3/classifier_plantvillage
I0403 21:57:08.534296 13403 net.cpp:91] Creating Layer loss3/classifier_plantvillage
I0403 21:57:08.534317 13403 net.cpp:425] loss3/classifier_plantvillage <- pool5/7x7_s1
I0403 21:57:08.534344 13403 net.cpp:399] loss3/classifier_plantvillage -> loss3/classifier_plantvillage
I0403 21:57:08.534878 13403 net.cpp:141] Setting up loss3/classifier_plantvillage
I0403 21:57:08.534909 13403 net.cpp:148] Top shape: 24 38 (912)
I0403 21:57:08.534929 13403 net.cpp:156] Memory required for data: 1346064480
I0403 21:57:08.534951 13403 layer_factory.hpp:77] Creating layer loss3/classifier_plantvillage_loss3/classifier_plantvillage_0_split
I0403 21:57:08.534978 13403 net.cpp:91] Creating Layer loss3/classifier_plantvillage_loss3/classifier_plantvillage_0_split
I0403 21:57:08.535001 13403 net.cpp:425] loss3/classifier_plantvillage_loss3/classifier_plantvillage_0_split <- loss3/classifier_plantvillage
I0403 21:57:08.535025 13403 net.cpp:399] loss3/classifier_plantvillage_loss3/classifier_plantvillage_0_split -> loss3/classifier_plantvillage_loss3/classifier_plantvillage_0_split_0
I0403 21:57:08.535053 13403 net.cpp:399] loss3/classifier_plantvillage_loss3/classifier_plantvillage_0_split -> loss3/classifier_plantvillage_loss3/classifier_plantvillage_0_split_1
I0403 21:57:08.535079 13403 net.cpp:399] loss3/classifier_plantvillage_loss3/classifier_plantvillage_0_split -> loss3/classifier_plantvillage_loss3/classifier_plantvillage_0_split_2
I0403 21:57:08.535104 13403 net.cpp:399] loss3/classifier_plantvillage_loss3/classifier_plantvillage_0_split -> loss3/classifier_plantvillage_loss3/classifier_plantvillage_0_split_3
I0403 21:57:08.535238 13403 net.cpp:141] Setting up loss3/classifier_plantvillage_loss3/classifier_plantvillage_0_split
I0403 21:57:08.535269 13403 net.cpp:148] Top shape: 24 38 (912)
I0403 21:57:08.535290 13403 net.cpp:148] Top shape: 24 38 (912)
I0403 21:57:08.535308 13403 net.cpp:148] Top shape: 24 38 (912)
I0403 21:57:08.535327 13403 net.cpp:148] Top shape: 24 38 (912)
I0403 21:57:08.535346 13403 net.cpp:156] Memory required for data: 1346079072
I0403 21:57:08.535363 13403 layer_factory.hpp:77] Creating layer loss1/loss
I0403 21:57:08.535393 13403 net.cpp:91] Creating Layer loss1/loss
I0403 21:57:08.535414 13403 net.cpp:425] loss1/loss <- loss1/classifier_plantvillage_loss1/classifier_plantvillage_0_split_0
I0403 21:57:08.535452 13403 net.cpp:425] loss1/loss <- label_data_1_split_0
…
