…
I0403 21:49:58.469856 12981 net.cpp:313] The NetState phase (1) differed from the phase (0) specified by a rule in layer data
I0403 21:49:58.472542 12981 net.cpp:49] Initializing net from parameters: 
state {
  phase: TEST
}
layer {
  name: "data"
  type: "Data"
  top: "data"
  top: "label"
  include {
    phase: TEST
  }
  transform_param {
    mirror: false
    crop_size: 224
    mean_file: "/home/mohanty/data/final_dataset/lmdb/color-80-20/mean.binaryproto"
  }
  data_param {
    source: "/home/mohanty/data/final_dataset/lmdb/color-80-20/test_db"
    batch_size: 24
    backend: LMDB
  }
}
layer {
  name: "conv1/7x7_s2"
  type: "Convolution"
  bottom: "data"
  top: "conv1/7x7_s2"
  param {
    lr_mult: 1
    decay_mult: 1
  }
  param {
    lr_mult: 2
    decay_mult: 0
  }
  convolution_param {
    num_output: 64
    pad: 3
    kernel_size: 7
    stride: 2
    weight_filler {
      type: "xavier"
      std: 0.1
    }
    bias_filler {
      type: "constant"
      value: 0.2
    }
  }
}
layer {
  name: "conv1/relu_7x7"
  type: "ReLU"
  bottom: "conv1/7x7_s2"
  top: "conv1/7x7_s2"
}
layer {
  name: "pool1/3x3_s2"
  type: "Pooling"
  bottom: "conv1/7x7_s2"
  top: "pool1/3x3_s2"
  pooling_param {
    pool: MAX
    kernel_size: 3
    stride: 2
  }
}
layer {
  name: "pool1/norm1"
  type: "LRN"
  bottom: "pool1/3x3_s2"
  top: "pool1/norm1"
  lrn_param {
    local_size: 5
    alpha: 0.0001
    beta: 0.75
  }
}
layer {
  name: "conv2/3x3_reduce"
  type: "Convolution"
  bottom: "pool1/norm1"
  top: "conv2/3x3_reduce"
  param {
    lr_mult: 1
    decay_mult: 1
  }
  param {
    lr_mult: 2
    decay_mult: 0
  }
  convolution_param {
    num_output: 64
    kernel_size: 1
    weight_filler {
      type: "xavier"
      std: 0.1
    }
    bias_filler {
      type: "constant"
      value: 0.2
    }
  }
}
layer {
  name: "conv2/relu_3x3_reduce"
  type: "ReLU"
  bottom: "conv2/3x3_reduce"
  top: "conv2/3x3_reduce"
}
layer {
  name: "conv2/3x3"
  type: "Convolution"
  bottom: "conv2/3x3_reduce"
  top: "conv2/3x3"
  param {
    lr_mult: 1
    decay_mult: 1
  }
  param {
    lr_mult: 2
    decay_mult: 0
  }
  convolution_param {
    num_output: 192
    pad: 1
    kernel_size: 3
    weight_filler {
      type: "xavier"
      std: 0.03
    }
    bias_filler {
      type: "constant"
      value: 0.2
    }
  }
}
layer {
  name: "conv2/relu_3x3"
  type: "ReLU"
  bottom: "conv2/3x3"
  top: "conv2/3x3"
}
layer {
  name: "conv2/norm2"
  type: "LRN"
  bottom: "conv2/3x3"
  top: "conv2/norm2"
  lrn_param {
    local_size: 5
    alpha: 0.0001
    beta: 0.75
  }
}
layer {
  name: "pool2/3x3_s2"
  type: "Pooling"
  bottom: "conv2/norm2"
  top: "pool2/3x3_s2"
  pooling_param {
    pool: MAX
    kernel_size: 3
    stride: 2
  }
}
layer {
  name: "inception_3a/1x1"
  type: "Convolution"
  bottom: "pool2/3x3_s2"
  top: "inception_3a/1x1"
  param {
    lr_mult: 1
    decay_mult: 1
  }
  param {
    lr_mult: 2
    decay_mult: 0
  }
  convolution_param {
    num_output: 64
    kernel_size: 1
    weight_filler {
      type: "xavier"
      std: 0.03
    }
    bias_filler {
      type: "constant"
      value: 0.2
    }
  }
}
layer {
  name: "inception_3a/relu_1x1"
  type: "ReLU"
  bottom: "inception_3a/1x1"
  top: "inception_3a/1x1"
}
layer {
  name: "inception_3a/3x3_reduce"
  type: "Convolution"
  bottom: "pool2/3x3_s2"
  top: "inception_3a/3x3_reduce"
  param {
    lr_mult: 1
    decay_mult: 1
  }
  param {
    lr_mult: 2
    decay_mult: 0
  }
  convolution_param {
    num_output: 96
    kernel_size: 1
    weight_filler {
      type: "xavier"
      std: 0.09
    }
    bias_filler {
      type: "constant"
      value: 0.2
    }
  }
}
layer {
  name: "inception_3a/relu_3x3_reduce"
  type: "ReLU"
  bottom: "inception_3a/3x3_reduce"
  top: "inception_3a/3x3_reduce"
}
layer {
  name: "inception_3a/3x3"
  type: "Convolution"
  bottom: "inception_3a/3x3_reduce"
  top: "inception_3a/3x3"
  param {
    lr_mult: 1
    decay_mult: 1
  }
  param {
    lr_mult: 2
    decay_mult: 0
  }
  convolution_param {
    num_output: 128
    pad: 1
    kernel_size: 3
    weight_filler {
      type: "xavier"
      std: 0.03
    }
    bias_filler {
      type: "constant"
      value: 0.2
    }
  }
}
layer {
  name: "inception_3a/relu_3x3"
  type: "ReLU"
  bottom: "inception_3a/3x3"
  top: "inception_3a/3x3"
}
layer {
  name: "inception_3a/5x5_reduce"
  type: "Convolution"
  bottom: "pool2/3x3_s2"
  top: "inception_3a/5x5_reduce"
  param {
    lr_mult: 1
    decay_mult: 1
  }
  param {
    lr_mult: 2
    decay_mult: 0
  }
  convolution_param {
    num_output: 16
    kernel_size: 1
    weight_filler {
      type: "xavier"
      std: 0.2
    }
    bias_filler {
      type: "constant"
      value: 0.2
    }
  }
}
layer {
  name: "inception_3a/relu_5x5_reduce"
  type: "ReLU"
  bottom: "inception_3a/5x5_reduce"
  top: "inception_3a/5x5_reduce"
}
layer {
  name: "inception_3a/5x5"
  type: "Convolution"
  bottom: "inception_3a/5x5_reduce"
  top: "inception_3a/5x5"
  param {
    lr_mult: 1
    decay_mult: 1
  }
  param {
    lr_mult: 2
    decay_mult: 0
  }
  convolution_param {
    num_output: 32
    pad: 2
    kernel_size: 5
    weight_filler {
      type: "xavier"
      std: 0.03
    }
    bias_filler {
      type: "constant"
      value: 0.2
    }
  }
}
layer {
  name: "inception_3a/relu_5x5"
  type: "ReLU"
  bottom: "inception_3a/5x5"
  top: "inception_3a/5x5"
}
layer {
  name: "inception_3a/pool"
  type: "Pooling"
  bottom: "pool2/3x3_s2"
  top: "inception_3a/pool"
  pooling_param {
    pool: MAX
    kernel_size: 3
    stride: 1
    pad: 1
  }
}
layer {
  name: "inception_3a/pool_proj"
  type: "Convolution"
  bottom: "inception_3a/pool"
  top: "inception_3a/pool_proj"
  param {
    lr_mult: 1
    decay_mult: 1
  }
  param {
    lr_mult: 2
    decay_mult: 0
  }
  convolution_param {
    num_output: 32
    kernel_size: 1
    weight_filler {
      type: "xavier"
      std: 0.1
    }
    bias_filler {
      type: "constant"
      value: 0.2
    }
  }
}
layer {
  name: "inception_3a/relu_pool_proj"
  type: "ReLU"
  bottom: "inception_3a/pool_proj"
  top: "inception_3a/pool_proj"
}
layer {
  name: "inception_3a/output"
  type: "Concat"
  bottom: "inception_3a/1x1"
  bottom: "inception_3a/3x3"
  bottom: "inception_3a/5x5"
  bottom: "inception_3a/pool_proj"
  top: "inception_3a/output"
}
layer {
  name: "inception_3b/1x1"
  type: "Convolution"
  bottom: "inception_3a/output"
  top: "inception_3b/1x1"
  param {
    lr_mult: 1
    decay_mult: 1
  }
  param {
    lr_mult: 2
    decay_mult: 0
  }
  convolution_param {
    num_output: 128
    kernel_size: 1
    weight_filler {
      type: "xavier"
      std: 0.03
    }
    bias_filler {
      type: "constant"
      value: 0.2
    }
  }
}
layer {
  name: "inception_3b/relu_1x1"
  type: "ReLU"
  bottom: "inception_3b/1x1"
  top: "inception_3b/1x1"
}
layer {
  name: "inception_3b/3x3_reduce"
  type: "Convolution"
  bottom: "inception_3a/output"
  top: "inception_3b/3x3_reduce"
  param {
    lr_mult: 1
    decay_mult: 1
  }
  param {
    lr_mult: 2
    decay_mult: 0
  }
  convolution_param {
    num_output: 128
    kernel_size: 1
    weight_filler {
      type: "xavier"
      std: 0.09
    }
    bias_filler {
      type: "constant"
      value: 0.2
    }
  }
}
layer {
  name: "inception_3b/relu_3x3_reduce"
  type: "ReLU"
  bottom: "inception_3b/3x3_reduce"
  top: "inception_3b/3x3_reduce"
}
layer {
  name: "inception_3b/3x3"
  type: "Convolution"
  bottom: "inception_3b/3x3_reduce"
  top: "inception_3b/3x3"
  param {
    lr_mult: 1
    decay_mult: 1
  }
  param {
    lr_mult: 2
    decay_mult: 0
  }
  convolution_param {
    num_output: 192
    pad: 1
    kernel_size: 3
    weight_filler {
      type: "xavier"
      std: 0.03
    }
    bias_filler {
      type: "constant"
      value: 0.2
    }
  }
}
layer {
  name: "inception_3b/relu_3x3"
  type: "ReLU"
  bottom: "inception_3b/3x3"
  top: "inception_3b/3x3"
}
layer {
  name: "inception_3b/5x5_reduce"
  type: "Convolution"
  bottom: "inception_3a/output"
  top: "inception_3b/5x5_reduce"
  param {
    lr_mult: 1
    decay_mult: 1
  }
  param {
    lr_mult: 2
    decay_mult: 0
  }
  convolution_param {
    num_output: 32
    kernel_size: 1
    weight_filler {
      type: "xavier"
      std: 0.2
    }
    bias_filler {
      type: "constant"
      value: 0.2
    }
  }
}
layer {
  name: "inception_3b/relu_5x5_reduce"
  type: "ReLU"
  bottom: "inception_3b/5x5_reduce"
  top: "inception_3b/5x5_reduce"
}
layer {
  name: "inception_3b/5x5"
  type: "Convolution"
  bottom: "inception_3b/5x5_reduce"
  top: "inception_3b/5x5"
  param {
    lr_mult: 1
    decay_mult: 1
  }
  param {
    lr_mult: 2
    decay_mult: 0
  }
  convolution_param {
    num_output: 96
    pad: 2
    kernel_size: 5
    weight_filler {
      type: "xavier"
      std: 0.03
    }
    bias_filler {
      type: "constant"
      value: 0.2
    }
  }
}
layer {
  name: "inception_3b/relu_5x5"
  type: "ReLU"
  bottom: "inception_3b/5x5"
  top: "inception_3b/5x5"
}
layer {
  name: "inception_3b/pool"
  type: "Pooling"
  bottom: "inception_3a/output"
  top: "inception_3b/pool"
  pooling_param {
    pool: MAX
    kernel_size: 3
    stride: 1
    pad: 1
  }
}
layer {
  name: "inception_3b/pool_proj"
  type: "Convolution"
  bottom: "inception_3b/pool"
  top: "inception_3b/pool_proj"
  param {
    lr_mult: 1
    decay_mult: 1
  }
  param {
    lr_mult: 2
    decay_mult: 0
  }
  convolution_param {
    num_output: 64
    kernel_size: 1
    weight_filler {
      type: "xavier"
      std: 0.1
    }
    bias_filler {
      type: "constant"
      value: 0.2
    }
  }
}
layer {
  name: "inception_3b/relu_pool_proj"
  type: "ReLU"
  bottom: "inception_3b/pool_proj"
  top: "inception_3b/pool_proj"
}
layer {
  name: "inception_3b/output"
  type: "Concat"
  bottom: "inception_3b/1x1"
  bottom: "inception_3b/3x3"
  bottom: "inception_3b/5x5"
  bottom: "inception_3b/pool_proj"
  top: "inception_3b/output"
}
layer {
  name: "pool3/3x3_s2"
  type: "Pooling"
  bottom: "inception_3b/output"
  top: "pool3/3x3_s2"
  pooling_param {
    pool: MAX
    kernel_size: 3
    stride: 2
  }
}
layer {
  name: "inception_4a/1x1"
  type: "Convolution"
  bottom: "pool3/3x3_s2"
  top: "inception_4a/1x1"
  param {
    lr_mult: 1
    decay_mult: 1
  }
  param {
    lr_mult: 2
    decay_mult: 0
  }
  convolution_param {
    num_output: 192
    kernel_size: 1
    weight_filler {
      type: "xavier"
      std: 0.03
    }
    bias_filler {
      type: "constant"
      value: 0.2
    }
  }
}
layer {
  name: "inception_4a/relu_1x1"
  type: "ReLU"
  bottom: "inception_4a/1x1"
  top: "inception_4a/1x1"
}
layer {
  name: "inception_4a/3x3_reduce"
  type: "Convolution"
  bottom: "pool3/3x3_s2"
  top: "inception_4a/3x3_reduce"
  param {
    lr_mult: 1
    decay_mult: 1
  }
  param {
    lr_mult: 2
    decay_mult: 0
  }
  convolution_param {
    num_output: 96
    kernel_size: 1
    weight_filler {
      type: "xavier"
      std: 0.09
    }
    bias_filler {
      type: "constant"
      value: 0.2
    }
  }
}
layer {
  name: "inception_4a/relu_3x3_reduce"
  type: "ReLU"
  bottom: "inception_4a/3x3_reduce"
  top: "inception_4a/3x3_reduce"
}
layer {
  name: "inception_4a/3x3"
  type: "Convolution"
  bottom: "inception_4a/3x3_reduce"
  top: "inception_4a/3x3"
  param {
    lr_mult: 1
    decay_mult: 1
  }
  param {
    lr_mult: 2
    decay_mult: 0
  }
  convolution_param {
    num_output: 208
    pad: 1
    kernel_size: 3
    weight_filler {
      type: "xavier"
      std: 0.03
    }
    bias_filler {
      type: "constant"
      value: 0.2
    }
  }
}
layer {
  name: "inception_4a/relu_3x3"
  type: "ReLU"
  bottom: "inception_4a/3x3"
  top: "inception_4a/3x3"
}
layer {
  name: "inception_4a/5x5_reduce"
  type: "Convolution"
  bottom: "pool3/3x3_s2"
  top: "inception_4a/5x5_reduce"
  param {
    lr_mult: 1
    decay_mult: 1
  }
  param {
    lr_mult: 2
    decay_mult: 0
  }
  convolution_param {
    num_output: 16
    kernel_size: 1
    weight_filler {
      type: "xavier"
      std: 0.2
    }
    bias_filler {
      type: "constant"
      value: 0.2
    }
  }
}
layer {
  name: "inception_4a/relu_5x5_reduce"
  type: "ReLU"
  bottom: "inception_4a/5x5_reduce"
  top: "inception_4a/5x5_reduce"
}
layer {
  name: "inception_4a/5x5"
  type: "Convolution"
  bottom: "inception_4a/5x5_reduce"
  top: "inception_4a/5x5"
  param {
    lr_mult: 1
    decay_mult: 1
  }
  param {
    lr_mult: 2
    decay_mult: 0
  }
  convolution_param {
    num_output: 48
    pad: 2
    kernel_size: 5
    weight_filler {
      type: "xavier"
      std: 0.03
    }
    bias_filler {
      type: "constant"
      value: 0.2
    }
  }
}
layer {
  name: "inception_4a/relu_5x5"
  type: "ReLU"
  bottom: "inception_4a/5x5"
  top: "inception_4a/5x5"
}
layer {
  name: "inception_4a/pool"
  type: "Pooling"
  bottom: "pool3/3x3_s2"
  top: "inception_4a/pool"
  pooling_param {
    pool: MAX
    kernel_size: 3
    stride: 1
    pad: 1
  }
}
layer {
  name: "inception_4a/pool_proj"
  type: "Convolution"
  bottom: "inception_4a/pool"
  top: "inception_4a/pool_proj"
  param {
    lr_mult: 1
    decay_mult: 1
  }
  param {
    lr_mult: 2
    decay_mult: 0
  }
  convolution_param {
    num_output: 64
    kernel_size: 1
    weight_filler {
      type: "xavier"
      std: 0.1
    }
    bias_filler {
      type: "constant"
      value: 0.2
    }
  }
}
layer {
  name: "inception_4a/relu_pool_proj"
  type: "ReLU"
  bottom: "inception_4a/pool_proj"
  top: "inception_4a/pool_proj"
}
layer {
  name: "inception_4a/output"
  type: "Concat"
  bottom: "inception_4a/1x1"
  bottom: "inception_4a/3x3"
  bottom: "inception_4a/5x5"
  bottom: "inception_4a/pool_proj"
  top: "inception_4a/output"
}
layer {
  name: "loss1/ave_pool"
  type: "Pooling"
  bottom: "inception_4a/output"
  top: "loss1/ave_pool"
  pooling_param {
    pool: AVE
    kernel_size: 5
    stride: 3
  }
}
layer {
  name: "loss1/conv"
  type: "Convolution"
  bottom: "loss1/ave_pool"
  top: "loss1/conv"
  param {
    lr_mult: 1
    decay_mult: 1
  }
  param {
    lr_mult: 2
    decay_mult: 0
  }
  convolution_param {
    num_output: 128
    kernel_size: 1
    weight_filler {
      type: "xavier"
      std: 0.08
    }
    bias_filler {
      type: "constant"
      value: 0.2
    }
  }
}
layer {
  name: "loss1/relu_conv"
  type: "ReLU"
  bottom: "loss1/conv"
  top: "loss1/conv"
}
layer {
  name: "loss1/fc"
  type: "InnerProduct"
  bottom: "loss1/conv"
  top: "loss1/fc"
  param {
    lr_mult: 1
    decay_mult: 1
  }
  param {
    lr_mult: 2
    decay_mult: 0
  }
  inner_product_param {
    num_output: 1024
    weight_filler {
      type: "xavier"
      std: 0.02
    }
    bias_filler {
      type: "constant"
      value: 0.2
    }
  }
}
layer {
  name: "loss1/relu_fc"
  type: "ReLU"
  bottom: "loss1/fc"
  top: "loss1/fc"
}
layer {
  name: "loss1/drop_fc"
  type: "Dropout"
  bottom: "loss1/fc"
  top: "loss1/fc"
  dropout_param {
    dropout_ratio: 0.7
  }
}
layer {
  name: "loss1/classifier_plantvillage"
  type: "InnerProduct"
  bottom: "loss1/fc"
  top: "loss1/classifier_plantvillage"
  param {
    lr_mult: 1
    decay_mult: 1
  }
  param {
    lr_mult: 2
    decay_mult: 0
  }
  inner_product_param {
    num_output: 38
    weight_filler {
      type: "xavier"
      std: 0.0009765625
    }
    bias_filler {
      type: "constant"
      value: 0
    }
  }
}
layer {
  name: "inception_4b/1x1"
  type: "Convolution"
  bottom: "inception_4a/output"
  top: "inception_4b/1x1"
  param {
    lr_mult: 1
    decay_mult: 1
  }
  param {
    lr_mult: 2
    decay_mult: 0
  }
  convolution_param {
    num_output: 160
    kernel_size: 1
    weight_filler {
      type: "xavier"
      std: 0.03
    }
    bias_filler {
      type: "constant"
      value: 0.2
    }
  }
}
layer {
  name: "inception_4b/relu_1x1"
  type: "ReLU"
  bottom: "inception_4b/1x1"
  top: "inception_4b/1x1"
}
layer {
  name: "inception_4b/3x3_reduce"
  type: "Convolution"
  bottom: "inception_4a/output"
  top: "inception_4b/3x3_reduce"
  param {
    lr_mult: 1
    decay_mult: 1
  }
  param {
    lr_mult: 2
    decay_mult: 0
  }
  convolution_param {
    num_output: 112
    kernel_size: 1
    weight_filler {
      type: "xavier"
      std: 0.09
    }
    bias_filler {
      type: "constant"
      value: 0.2
    }
  }
}
layer {
  name: "inception_4b/relu_3x3_reduce"
  type: "ReLU"
  bottom: "inception_4b/3x3_reduce"
  top: "inception_4b/3x3_reduce"
}
layer {
  name: "inception_4b/3x3"
  type: "Convolution"
  bottom: "inception_4b/3x3_reduce"
  top: "inception_4b/3x3"
  param {
    lr_mult: 1
    decay_mult: 1
  }
  param {
    lr_mult: 2
    decay_mult: 0
  }
  convolution_param {
    num_output: 224
    pad: 1
    kernel_size: 3
    weight_filler {
      type: "xavier"
      std: 0.03
    }
    bias_filler {
      type: "constant"
      value: 0.2
    }
  }
}
layer {
  name: "inception_4b/relu_3x3"
  type: "ReLU"
  bottom: "inception_4b/3x3"
  top: "inception_4b/3x3"
}
layer {
  name: "inception_4b/5x5_reduce"
  type: "Convolution"
  bottom: "inception_4a/output"
  top: "inception_4b/5x5_reduce"
  param {
    lr_mult: 1
    decay_mult: 1
  }
  param {
    lr_mult: 2
    decay_mult: 0
  }
  convolution_param {
    num_output: 24
    kernel_size: 1
    weight_filler {
      type: "xavier"
      std: 0.2
    }
    bias_filler {
      type: "constant"
      value: 0.2
    }
  }
}
layer {
  name: "inception_4b/relu_5x5_reduce"
  type: "ReLU"
  bottom: "inception_4b/5x5_reduce"
  top: "inception_4b/5x5_reduce"
}
layer {
  name: "inception_4b/5x5"
  type: "Convolution"
  bottom: "inception_4b/5x5_reduce"
  top: "inception_4b/5x5"
  param {
    lr_mult: 1
    decay_mult: 1
  }
  param {
    lr_mult: 2
    decay_mult: 0
  }
  convolution_param {
    num_output: 64
    pad: 2
    kernel_size: 5
    weight_filler {
      type: "xavier"
      std: 0.03
    }
    bias_filler {
      type: "constant"
      value: 0.2
    }
  }
}
layer {
  name: "inception_4b/relu_5x5"
  type: "ReLU"
  bottom: "inception_4b/5x5"
  top: "inception_4b/5x5"
}
layer {
  name: "inception_4b/pool"
  type: "Pooling"
  bottom: "inception_4a/output"
  top: "inception_4b/pool"
  pooling_param {
    pool: MAX
    kernel_size: 3
    stride: 1
    pad: 1
  }
}
layer {
  name: "inception_4b/pool_proj"
  type: "Convolution"
  bottom: "inception_4b/pool"
  top: "inception_4b/pool_proj"
  param {
    lr_mult: 1
    decay_mult: 1
  }
  param {
    lr_mult: 2
    decay_mult: 0
  }
  convolution_param {
    num_output: 64
    kernel_size: 1
    weight_filler {
      type: "xavier"
      std: 0.1
    }
    bias_filler {
      type: "constant"
      value: 0.2
    }
  }
}
layer {
  name: "inception_4b/relu_pool_proj"
  type: "ReLU"
  bottom: "inception_4b/pool_proj"
  top: "inception_4b/pool_proj"
}
layer {
  name: "inception_4b/output"
  type: "Concat"
  bottom: "inception_4b/1x1"
  bottom: "inception_4b/3x3"
  bottom: "inception_4b/5x5"
  bottom: "inception_4b/pool_proj"
  top: "inception_4b/output"
}
layer {
  name: "inception_4c/1x1"
  type: "Convolution"
  bottom: "inception_4b/output"
  top: "inception_4c/1x1"
  param {
    lr_mult: 1
    decay_mult: 1
  }
  param {
    lr_mult: 2
    decay_mult: 0
  }
  convolution_param {
    num_output: 128
    kernel_size: 1
    weight_filler {
      type: "xavier"
      std: 0.03
    }
    bias_filler {
      type: "constant"
      value: 0.2
    }
  }
}
layer {
  name: "inception_4c/relu_1x1"
  type: "ReLU"
  bottom: "inception_4c/1x1"
  top: "inception_4c/1x1"
}
layer {
  name: "inception_4c/3x3_reduce"
  type: "Convolution"
  bottom: "inception_4b/output"
  top: "inception_4c/3x3_reduce"
  param {
    lr_mult: 1
    decay_mult: 1
  }
  param {
    lr_mult: 2
    decay_mult: 0
  }
  convolution_param {
    num_output: 128
    kernel_size: 1
    weight_filler {
      type: "xavier"
      std: 0.09
    }
    bias_filler {
      type: "constant"
      value: 0.2
    }
  }
}
layer {
  name: "inception_4c/relu_3x3_reduce"
  type: "ReLU"
  bottom: "inception_4c/3x3_reduce"
  top: "inception_4c/3x3_reduce"
}
layer {
  name: "inception_4c/3x3"
  type: "Convolution"
  bottom: "inception_4c/3x3_reduce"
  top: "inception_4c/3x3"
  param {
    lr_mult: 1
    decay_mult: 1
  }
  param {
    lr_mult: 2
    decay_mult: 0
  }
  convolution_param {
    num_output: 256
    pad: 1
    kernel_size: 3
    weight_filler {
      type: "xavier"
      std: 0.03
    }
    bias_filler {
      type: "constant"
      value: 0.2
    }
  }
}
layer {
  name: "inception_4c/relu_3x3"
  type: "ReLU"
  bottom: "inception_4c/3x3"
  top: "inception_4c/3x3"
}
layer {
  name: "inception_4c/5x5_reduce"
  type: "Convolution"
  bottom: "inception_4b/output"
  top: "inception_4c/5x5_reduce"
  param {
    lr_mult: 1
    decay_mult: 1
  }
  param {
    lr_mult: 2
    decay_mult: 0
  }
  convolution_param {
    num_output: 24
    kernel_size: 1
    weight_filler {
      type: "xavier"
      std: 0.2
    }
    bias_filler {
      type: "constant"
      value: 0.2
    }
  }
}
layer {
  name: "inception_4c/relu_5x5_reduce"
  type: "ReLU"
  bottom: "inception_4c/5x5_reduce"
  top: "inception_4c/5x5_reduce"
}
layer {
  name: "inception_4c/5x5"
  type: "Convolution"
  bottom: "inception_4c/5x5_reduce"
  top: "inception_4c/5x5"
  param {
    lr_mult: 1
    decay_mult: 1
  }
  param {
    lr_mult: 2
    decay_mult: 0
  }
  convolution_param {
    num_output: 64
    pad: 2
    kernel_size: 5
    weight_filler {
      type: "xavier"
      std: 0.03
    }
    bias_filler {
      type: "constant"
      value: 0.2
    }
  }
}
layer {
  name: "inception_4c/relu_5x5"
  type: "ReLU"
  bottom: "inception_4c/5x5"
  top: "inception_4c/5x5"
}
layer {
  name: "inception_4c/pool"
  type: "Pooling"
  bottom: "inception_4b/output"
  top: "inception_4c/pool"
  pooling_param {
    pool: MAX
    kernel_size: 3
    stride: 1
    pad: 1
  }
}
layer {
  name: "inception_4c/pool_proj"
  type: "Convolution"
  bottom: "inception_4c/pool"
  top: "inception_4c/pool_proj"
  param {
    lr_mult: 1
    decay_mult: 1
  }
  param {
    lr_mult: 2
    decay_mult: 0
  }
  convolution_param {
    num_output: 64
    kernel_size: 1
    weight_filler {
      type: "xavier"
      std: 0.1
    }
    bias_filler {
      type: "constant"
      value: 0.2
    }
  }
}
layer {
  name: "inception_4c/relu_pool_proj"
  type: "ReLU"
  bottom: "inception_4c/pool_proj"
  top: "inception_4c/pool_proj"
}
layer {
  name: "inception_4c/output"
  type: "Concat"
  bottom: "inception_4c/1x1"
  bottom: "inception_4c/3x3"
  bottom: "inception_4c/5x5"
  bottom: "inception_4c/pool_proj"
  top: "inception_4c/output"
}
layer {
  name: "inception_4d/1x1"
  type: "Convolution"
  bottom: "inception_4c/output"
  top: "inception_4d/1x1"
  param {
    lr_mult: 1
    decay_mult: 1
  }
  param {
    lr_mult: 2
    decay_mult: 0
  }
  convolution_param {
    num_output: 112
    kernel_size: 1
    weight_filler {
      type: "xavier"
      std: 0.03
    }
    bias_filler {
      type: "constant"
      value: 0.2
    }
  }
}
layer {
  name: "inception_4d/relu_1x1"
  type: "ReLU"
  bottom: "inception_4d/1x1"
  top: "inception_4d/1x1"
}
layer {
  name: "inception_4d/3x3_reduce"
  type: "Convolution"
  bottom: "inception_4c/output"
  top: "inception_4d/3x3_reduce"
  param {
    lr_mult: 1
    decay_mult: 1
  }
  param {
    lr_mult: 2
    decay_mult: 0
  }
  convolution_param {
    num_output: 144
    kernel_size: 1
    weight_filler {
      type: "xavier"
      std: 0.09
    }
    bias_filler {
      type: "constant"
      value: 0.2
    }
  }
}
layer {
  name: "inception_4d/relu_3x3_reduce"
  type: "ReLU"
  bottom: "inception_4d/3x3_reduce"
  top: "inception_4d/3x3_reduce"
}
layer {
  name: "inception_4d/3x3"
  type: "Convolution"
  bottom: "inception_4d/3x3_reduce"
  top: "inception_4d/3x3"
  param {
    lr_mult: 1
    decay_mult: 1
  }
  param {
    lr_mult: 2
    decay_mult: 0
  }
  convolution_param {
    num_output: 288
    pad: 1
    kernel_size: 3
    weight_filler {
      type: "xavier"
      std: 0.03
    }
    bias_filler {
      type: "constant"
      value: 0.2
    }
  }
}
layer {
  name: "inception_4d/relu_3x3"
  type: "ReLU"
  bottom: "inception_4d/3x3"
  top: "inception_4d/3x3"
}
layer {
  name: "inception_4d/5x5_reduce"
  type: "Convolution"
  bottom: "inception_4c/output"
  top: "inception_4d/5x5_reduce"
  param {
    lr_mult: 1
    decay_mult: 1
  }
  param {
    lr_mult: 2
    decay_mult: 0
  }
  convolution_param {
    num_output: 32
    kernel_size: 1
    weight_filler {
      type: "xavier"
      std: 0.2
    }
    bias_filler {
      type: "constant"
      value: 0.2
    }
  }
}
layer {
  name: "inception_4d/relu_5x5_reduce"
  type: "ReLU"
  bottom: "inception_4d/5x5_reduce"
  top: "inception_4d/5x5_reduce"
}
layer {
  name: "inception_4d/5x5"
  type: "Convolution"
  bottom: "inception_4d/5x5_reduce"
  top: "inception_4d/5x5"
  param {
    lr_mult: 1
    decay_mult: 1
  }
  param {
    lr_mult: 2
    decay_mult: 0
  }
  convolution_param {
    num_output: 64
    pad: 2
    kernel_size: 5
    weight_filler {
      type: "xavier"
      std: 0.03
    }
    bias_filler {
      type: "constant"
      value: 0.2
    }
  }
}
layer {
  name: "inception_4d/relu_5x5"
  type: "ReLU"
  bottom: "inception_4d/5x5"
  top: "inception_4d/5x5"
}
layer {
  name: "inception_4d/pool"
  type: "Pooling"
  bottom: "inception_4c/output"
  top: "inception_4d/pool"
  pooling_param {
    pool: MAX
    kernel_size: 3
    stride: 1
    pad: 1
  }
}
layer {
  name: "inception_4d/pool_proj"
  type: "Convolution"
  bottom: "inception_4d/pool"
  top: "inception_4d/pool_proj"
  param {
    lr_mult: 1
    decay_mult: 1
  }
  param {
    lr_mult: 2
    decay_mult: 0
  }
  convolution_param {
    num_output: 64
    kernel_size: 1
    weight_filler {
      type: "xavier"
      std: 0.1
    }
    bias_filler {
      type: "constant"
      value: 0.2
    }
  }
}
layer {
  name: "inception_4d/relu_pool_proj"
  type: "ReLU"
  bottom: "inception_4d/pool_proj"
  top: "inception_4d/pool_proj"
}
layer {
  name: "inception_4d/output"
  type: "Concat"
  bottom: "inception_4d/1x1"
  bottom: "inception_4d/3x3"
  bottom: "inception_4d/5x5"
  bottom: "inception_4d/pool_proj"
  top: "inception_4d/output"
}
layer {
  name: "loss2/ave_pool"
  type: "Pooling"
  bottom: "inception_4d/output"
  top: "loss2/ave_pool"
  pooling_param {
    pool: AVE
    kernel_size: 5
    stride: 3
  }
}
layer {
  name: "loss2/conv"
  type: "Convolution"
  bottom: "loss2/ave_pool"
  top: "loss2/conv"
  param {
    lr_mult: 1
    decay_mult: 1
  }
  param {
    lr_mult: 2
    decay_mult: 0
  }
  convolution_param {
    num_output: 128
    kernel_size: 1
    weight_filler {
      type: "xavier"
      std: 0.08
    }
    bias_filler {
      type: "constant"
      value: 0.2
    }
  }
}
layer {
  name: "loss2/relu_conv"
  type: "ReLU"
  bottom: "loss2/conv"
  top: "loss2/conv"
}
layer {
  name: "loss2/fc"
  type: "InnerProduct"
  bottom: "loss2/conv"
  top: "loss2/fc"
  param {
    lr_mult: 1
    decay_mult: 1
  }
  param {
    lr_mult: 2
    decay_mult: 0
  }
  inner_product_param {
    num_output: 1024
    weight_filler {
      type: "xavier"
      std: 0.02
    }
    bias_filler {
      type: "constant"
      value: 0.2
    }
  }
}
layer {
  name: "loss2/relu_fc"
  type: "ReLU"
  bottom: "loss2/fc"
  top: "loss2/fc"
}
layer {
  name: "loss2/drop_fc"
  type: "Dropout"
  bottom: "loss2/fc"
  top: "loss2/fc"
  dropout_param {
    dropout_ratio: 0.7
  }
}
layer {
  name: "loss2/classifier_plantvillage"
  type: "InnerProduct"
  bottom: "loss2/fc"
  top: "loss2/classifier_plantvillage"
  param {
    lr_mult: 1
    decay_mult: 1
  }
  param {
    lr_mult: 2
    decay_mult: 0
  }
  inner_product_param {
    num_output: 38
    weight_filler {
      type: "xavier"
      std: 0.0009765625
    }
    bias_filler {
      type: "constant"
      value: 0
    }
  }
}
layer {
  name: "inception_4e/1x1"
  type: "Convolution"
  bottom: "inception_4d/output"
  top: "inception_4e/1x1"
  param {
    lr_mult: 1
    decay_mult: 1
  }
  param {
    lr_mult: 2
    decay_mult: 0
  }
  convolution_param {
    num_output: 256
    kernel_size: 1
    weight_filler {
      type: "xavier"
      std: 0.03
    }
    bias_filler {
      type: "constant"
      value: 0.2
    }
  }
}
layer {
  name: "inception_4e/relu_1x1"
  type: "ReLU"
  bottom: "inception_4e/1x1"
  top: "inception_4e/1x1"
}
layer {
  name: "inception_4e/3x3_reduce"
  type: "Convolution"
  bottom: "inception_4d/output"
  top: "inception_4e/3x3_reduce"
  param {
    lr_mult: 1
    decay_mult: 1
  }
  param {
    lr_mult: 2
    decay_mult: 0
  }
  convolution_param {
    num_output: 160
    kernel_size: 1
    weight_filler {
      type: "xavier"
      std: 0.09
    }
    bias_filler {
      type: "constant"
      value: 0.2
    }
  }
}
layer {
  name: "inception_4e/relu_3x3_reduce"
  type: "ReLU"
  bottom: "inception_4e/3x3_reduce"
  top: "inception_4e/3x3_reduce"
}
layer {
  name: "inception_4e/3x3"
  type: "Convolution"
  bottom: "inception_4e/3x3_reduce"
  top: "inception_4e/3x3"
  param {
    lr_mult: 1
    decay_mult: 1
  }
  param {
    lr_mult: 2
    decay_mult: 0
  }
  convolution_param {
    num_output: 320
    pad: 1
    kernel_size: 3
    weight_filler {
      type: "xavier"
      std: 0.03
    }
    bias_filler {
      type: "constant"
      value: 0.2
    }
  }
}
layer {
  name: "inception_4e/relu_3x3"
  type: "ReLU"
  bottom: "inception_4e/3x3"
  top: "inception_4e/3x3"
}
layer {
  name: "inception_4e/5x5_reduce"
  type: "Convolution"
  bottom: "inception_4d/output"
  top: "inception_4e/5x5_reduce"
  param {
    lr_mult: 1
    decay_mult: 1
  }
  param {
    lr_mult: 2
    decay_mult: 0
  }
  convolution_param {
    num_output: 32
    kernel_size: 1
    weight_filler {
      type: "xavier"
      std: 0.2
    }
    bias_filler {
      type: "constant"
      value: 0.2
    }
  }
}
layer {
  name: "inception_4e/relu_5x5_reduce"
  type: "ReLU"
  bottom: "inception_4e/5x5_reduce"
  top: "inception_4e/5x5_reduce"
}
layer {
  name: "inception_4e/5x5"
  type: "Convolution"
  bottom: "inception_4e/5x5_reduce"
  top: "inception_4e/5x5"
  p
I0403 21:49:58.474869 12981 layer_factory.hpp:77] Creating layer data
I0403 21:49:58.475590 12981 net.cpp:91] Creating Layer data
I0403 21:49:58.475628 12981 net.cpp:399] data -> data
I0403 21:49:58.475690 12981 net.cpp:399] data -> label
I0403 21:49:58.475734 12981 data_transformer.cpp:25] Loading mean file from: /home/mohanty/data/final_dataset/lmdb/color-80-20/mean.binaryproto
I0403 21:49:58.476858 12983 db_lmdb.cpp:38] Opened lmdb /home/mohanty/data/final_dataset/lmdb/color-80-20/test_db
I0403 21:49:58.491642 12981 data_layer.cpp:41] output data size: 24,3,224,224
I0403 21:49:58.524130 12981 net.cpp:141] Setting up data
I0403 21:49:58.524248 12981 net.cpp:148] Top shape: 24 3 224 224 (3612672)
I0403 21:49:58.524276 12981 net.cpp:148] Top shape: 24 (24)
I0403 21:49:58.524293 12981 net.cpp:156] Memory required for data: 14450784
I0403 21:49:58.524328 12981 layer_factory.hpp:77] Creating layer label_data_1_split
I0403 21:49:58.524360 12981 net.cpp:91] Creating Layer label_data_1_split
I0403 21:49:58.524381 12981 net.cpp:425] label_data_1_split <- label
I0403 21:49:58.524420 12981 net.cpp:399] label_data_1_split -> label_data_1_split_0
I0403 21:49:58.524452 12981 net.cpp:399] label_data_1_split -> label_data_1_split_1
I0403 21:49:58.524479 12981 net.cpp:399] label_data_1_split -> label_data_1_split_2
I0403 21:49:58.524507 12981 net.cpp:399] label_data_1_split -> label_data_1_split_3
I0403 21:49:58.524530 12981 net.cpp:399] label_data_1_split -> label_data_1_split_4
I0403 21:49:58.524554 12981 net.cpp:399] label_data_1_split -> label_data_1_split_5
I0403 21:49:58.524576 12981 net.cpp:399] label_data_1_split -> label_data_1_split_6
I0403 21:49:58.524600 12981 net.cpp:399] label_data_1_split -> label_data_1_split_7
I0403 21:49:58.524626 12981 net.cpp:399] label_data_1_split -> label_data_1_split_8
I0403 21:49:58.524649 12981 net.cpp:399] label_data_1_split -> label_data_1_split_9
I0403 21:49:58.524791 12981 net.cpp:141] Setting up label_data_1_split
I0403 21:49:58.524821 12981 net.cpp:148] Top shape: 24 (24)
I0403 21:49:58.524842 12981 net.cpp:148] Top shape: 24 (24)
I0403 21:49:58.524860 12981 net.cpp:148] Top shape: 24 (24)
I0403 21:49:58.524879 12981 net.cpp:148] Top shape: 24 (24)
I0403 21:49:58.524899 12981 net.cpp:148] Top shape: 24 (24)
I0403 21:49:58.524919 12981 net.cpp:148] Top shape: 24 (24)
I0403 21:49:58.524938 12981 net.cpp:148] Top shape: 24 (24)
I0403 21:49:58.524958 12981 net.cpp:148] Top shape: 24 (24)
I0403 21:49:58.524977 12981 net.cpp:148] Top shape: 24 (24)
I0403 21:49:58.525001 12981 net.cpp:148] Top shape: 24 (24)
I0403 21:49:58.525056 12981 net.cpp:156] Memory required for data: 14451744
I0403 21:49:58.525077 12981 layer_factory.hpp:77] Creating layer conv1/7x7_s2
I0403 21:49:58.525115 12981 net.cpp:91] Creating Layer conv1/7x7_s2
I0403 21:49:58.525138 12981 net.cpp:425] conv1/7x7_s2 <- data
I0403 21:49:58.525161 12981 net.cpp:399] conv1/7x7_s2 -> conv1/7x7_s2
I0403 21:49:58.695502 12981 net.cpp:141] Setting up conv1/7x7_s2
I0403 21:49:58.695602 12981 net.cpp:148] Top shape: 24 64 112 112 (19267584)
I0403 21:49:58.695623 12981 net.cpp:156] Memory required for data: 91522080
I0403 21:49:58.695660 12981 layer_factory.hpp:77] Creating layer conv1/relu_7x7
I0403 21:49:58.695694 12981 net.cpp:91] Creating Layer conv1/relu_7x7
I0403 21:49:58.695718 12981 net.cpp:425] conv1/relu_7x7 <- conv1/7x7_s2
I0403 21:49:58.695739 12981 net.cpp:386] conv1/relu_7x7 -> conv1/7x7_s2 (in-place)
I0403 21:49:58.696040 12981 net.cpp:141] Setting up conv1/relu_7x7
I0403 21:49:58.696123 12981 net.cpp:148] Top shape: 24 64 112 112 (19267584)
I0403 21:49:58.696147 12981 net.cpp:156] Memory required for data: 168592416
I0403 21:49:58.696166 12981 layer_factory.hpp:77] Creating layer pool1/3x3_s2
I0403 21:49:58.696204 12981 net.cpp:91] Creating Layer pool1/3x3_s2
I0403 21:49:58.696228 12981 net.cpp:425] pool1/3x3_s2 <- conv1/7x7_s2
I0403 21:49:58.696254 12981 net.cpp:399] pool1/3x3_s2 -> pool1/3x3_s2
I0403 21:49:58.696347 12981 net.cpp:141] Setting up pool1/3x3_s2
I0403 21:49:58.696377 12981 net.cpp:148] Top shape: 24 64 56 56 (4816896)
I0403 21:49:58.696396 12981 net.cpp:156] Memory required for data: 187860000
I0403 21:49:58.696415 12981 layer_factory.hpp:77] Creating layer pool1/norm1
I0403 21:49:58.696445 12981 net.cpp:91] Creating Layer pool1/norm1
I0403 21:49:58.696466 12981 net.cpp:425] pool1/norm1 <- pool1/3x3_s2
I0403 21:49:58.696487 12981 net.cpp:399] pool1/norm1 -> pool1/norm1
I0403 21:49:58.696848 12981 net.cpp:141] Setting up pool1/norm1
I0403 21:49:58.696882 12981 net.cpp:148] Top shape: 24 64 56 56 (4816896)
I0403 21:49:58.696900 12981 net.cpp:156] Memory required for data: 207127584
I0403 21:49:58.696919 12981 layer_factory.hpp:77] Creating layer conv2/3x3_reduce
I0403 21:49:58.696952 12981 net.cpp:91] Creating Layer conv2/3x3_reduce
I0403 21:49:58.696979 12981 net.cpp:425] conv2/3x3_reduce <- pool1/norm1
I0403 21:49:58.697002 12981 net.cpp:399] conv2/3x3_reduce -> conv2/3x3_reduce
I0403 21:49:58.698742 12981 net.cpp:141] Setting up conv2/3x3_reduce
I0403 21:49:58.698778 12981 net.cpp:148] Top shape: 24 64 56 56 (4816896)
I0403 21:49:58.698798 12981 net.cpp:156] Memory required for data: 226395168
I0403 21:49:58.698825 12981 layer_factory.hpp:77] Creating layer conv2/relu_3x3_reduce
I0403 21:49:58.698849 12981 net.cpp:91] Creating Layer conv2/relu_3x3_reduce
I0403 21:49:58.698868 12981 net.cpp:425] conv2/relu_3x3_reduce <- conv2/3x3_reduce
I0403 21:49:58.698892 12981 net.cpp:386] conv2/relu_3x3_reduce -> conv2/3x3_reduce (in-place)
I0403 21:49:58.699218 12981 net.cpp:141] Setting up conv2/relu_3x3_reduce
I0403 21:49:58.699254 12981 net.cpp:148] Top shape: 24 64 56 56 (4816896)
I0403 21:49:58.699271 12981 net.cpp:156] Memory required for data: 245662752
I0403 21:49:58.699290 12981 layer_factory.hpp:77] Creating layer conv2/3x3
I0403 21:49:58.699321 12981 net.cpp:91] Creating Layer conv2/3x3
I0403 21:49:58.699342 12981 net.cpp:425] conv2/3x3 <- conv2/3x3_reduce
I0403 21:49:58.699369 12981 net.cpp:399] conv2/3x3 -> conv2/3x3
I0403 21:49:58.702216 12981 net.cpp:141] Setting up conv2/3x3
I0403 21:49:58.702255 12981 net.cpp:148] Top shape: 24 192 56 56 (14450688)
I0403 21:49:58.702273 12981 net.cpp:156] Memory required for data: 303465504
I0403 21:49:58.702299 12981 layer_factory.hpp:77] Creating layer conv2/relu_3x3
I0403 21:49:58.702325 12981 net.cpp:91] Creating Layer conv2/relu_3x3
I0403 21:49:58.702347 12981 net.cpp:425] conv2/relu_3x3 <- conv2/3x3
I0403 21:49:58.702368 12981 net.cpp:386] conv2/relu_3x3 -> conv2/3x3 (in-place)
I0403 21:49:58.702642 12981 net.cpp:141] Setting up conv2/relu_3x3
I0403 21:49:58.702674 12981 net.cpp:148] Top shape: 24 192 56 56 (14450688)
I0403 21:49:58.702731 12981 net.cpp:156] Memory required for data: 361268256
I0403 21:49:58.702752 12981 layer_factory.hpp:77] Creating layer conv2/norm2
I0403 21:49:58.702777 12981 net.cpp:91] Creating Layer conv2/norm2
I0403 21:49:58.702800 12981 net.cpp:425] conv2/norm2 <- conv2/3x3
I0403 21:49:58.702823 12981 net.cpp:399] conv2/norm2 -> conv2/norm2
I0403 21:49:58.703196 12981 net.cpp:141] Setting up conv2/norm2
I0403 21:49:58.703233 12981 net.cpp:148] Top shape: 24 192 56 56 (14450688)
I0403 21:49:58.703251 12981 net.cpp:156] Memory required for data: 419071008
I0403 21:49:58.703269 12981 layer_factory.hpp:77] Creating layer pool2/3x3_s2
I0403 21:49:58.703291 12981 net.cpp:91] Creating Layer pool2/3x3_s2
I0403 21:49:58.703311 12981 net.cpp:425] pool2/3x3_s2 <- conv2/norm2
I0403 21:49:58.703338 12981 net.cpp:399] pool2/3x3_s2 -> pool2/3x3_s2
I0403 21:49:58.703405 12981 net.cpp:141] Setting up pool2/3x3_s2
I0403 21:49:58.703434 12981 net.cpp:148] Top shape: 24 192 28 28 (3612672)
I0403 21:49:58.703454 12981 net.cpp:156] Memory required for data: 433521696
I0403 21:49:58.703471 12981 layer_factory.hpp:77] Creating layer pool2/3x3_s2_pool2/3x3_s2_0_split
I0403 21:49:58.703496 12981 net.cpp:91] Creating Layer pool2/3x3_s2_pool2/3x3_s2_0_split
I0403 21:49:58.703517 12981 net.cpp:425] pool2/3x3_s2_pool2/3x3_s2_0_split <- pool2/3x3_s2
I0403 21:49:58.703539 12981 net.cpp:399] pool2/3x3_s2_pool2/3x3_s2_0_split -> pool2/3x3_s2_pool2/3x3_s2_0_split_0
I0403 21:49:58.703563 12981 net.cpp:399] pool2/3x3_s2_pool2/3x3_s2_0_split -> pool2/3x3_s2_pool2/3x3_s2_0_split_1
I0403 21:49:58.703588 12981 net.cpp:399] pool2/3x3_s2_pool2/3x3_s2_0_split -> pool2/3x3_s2_pool2/3x3_s2_0_split_2
I0403 21:49:58.703614 12981 net.cpp:399] pool2/3x3_s2_pool2/3x3_s2_0_split -> pool2/3x3_s2_pool2/3x3_s2_0_split_3
I0403 21:49:58.703711 12981 net.cpp:141] Setting up pool2/3x3_s2_pool2/3x3_s2_0_split
I0403 21:49:58.703740 12981 net.cpp:148] Top shape: 24 192 28 28 (3612672)
I0403 21:49:58.703761 12981 net.cpp:148] Top shape: 24 192 28 28 (3612672)
I0403 21:49:58.703780 12981 net.cpp:148] Top shape: 24 192 28 28 (3612672)
I0403 21:49:58.703799 12981 net.cpp:148] Top shape: 24 192 28 28 (3612672)
I0403 21:49:58.703815 12981 net.cpp:156] Memory required for data: 491324448
I0403 21:49:58.703835 12981 layer_factory.hpp:77] Creating layer inception_3a/1x1
I0403 21:49:58.703863 12981 net.cpp:91] Creating Layer inception_3a/1x1
I0403 21:49:58.703886 12981 net.cpp:425] inception_3a/1x1 <- pool2/3x3_s2_pool2/3x3_s2_0_split_0
I0403 21:49:58.703912 12981 net.cpp:399] inception_3a/1x1 -> inception_3a/1x1
I0403 21:49:58.705899 12981 net.cpp:141] Setting up inception_3a/1x1
I0403 21:49:58.705937 12981 net.cpp:148] Top shape: 24 64 28 28 (1204224)
I0403 21:49:58.705958 12981 net.cpp:156] Memory required for data: 496141344
I0403 21:49:58.705981 12981 layer_factory.hpp:77] Creating layer inception_3a/relu_1x1
I0403 21:49:58.706006 12981 net.cpp:91] Creating Layer inception_3a/relu_1x1
I0403 21:49:58.706025 12981 net.cpp:425] inception_3a/relu_1x1 <- inception_3a/1x1
I0403 21:49:58.706050 12981 net.cpp:386] inception_3a/relu_1x1 -> inception_3a/1x1 (in-place)
I0403 21:49:58.706269 12981 net.cpp:141] Setting up inception_3a/relu_1x1
I0403 21:49:58.706302 12981 net.cpp:148] Top shape: 24 64 28 28 (1204224)
I0403 21:49:58.706322 12981 net.cpp:156] Memory required for data: 500958240
I0403 21:49:58.706341 12981 layer_factory.hpp:77] Creating layer inception_3a/3x3_reduce
I0403 21:49:58.706369 12981 net.cpp:91] Creating Layer inception_3a/3x3_reduce
I0403 21:49:58.706393 12981 net.cpp:425] inception_3a/3x3_reduce <- pool2/3x3_s2_pool2/3x3_s2_0_split_1
I0403 21:49:58.706419 12981 net.cpp:399] inception_3a/3x3_reduce -> inception_3a/3x3_reduce
I0403 21:49:58.708462 12981 net.cpp:141] Setting up inception_3a/3x3_reduce
I0403 21:49:58.708498 12981 net.cpp:148] Top shape: 24 96 28 28 (1806336)
I0403 21:49:58.708518 12981 net.cpp:156] Memory required for data: 508183584
I0403 21:49:58.708544 12981 layer_factory.hpp:77] Creating layer inception_3a/relu_3x3_reduce
I0403 21:49:58.708590 12981 net.cpp:91] Creating Layer inception_3a/relu_3x3_reduce
I0403 21:49:58.708612 12981 net.cpp:425] inception_3a/relu_3x3_reduce <- inception_3a/3x3_reduce
I0403 21:49:58.708633 12981 net.cpp:386] inception_3a/relu_3x3_reduce -> inception_3a/3x3_reduce (in-place)
I0403 21:49:58.708853 12981 net.cpp:141] Setting up inception_3a/relu_3x3_reduce
I0403 21:49:58.708887 12981 net.cpp:148] Top shape: 24 96 28 28 (1806336)
I0403 21:49:58.708906 12981 net.cpp:156] Memory required for data: 515408928
I0403 21:49:58.708925 12981 layer_factory.hpp:77] Creating layer inception_3a/3x3
I0403 21:49:58.708953 12981 net.cpp:91] Creating Layer inception_3a/3x3
I0403 21:49:58.708973 12981 net.cpp:425] inception_3a/3x3 <- inception_3a/3x3_reduce
I0403 21:49:58.708997 12981 net.cpp:399] inception_3a/3x3 -> inception_3a/3x3
I0403 21:49:58.711005 12981 net.cpp:141] Setting up inception_3a/3x3
I0403 21:49:58.711040 12981 net.cpp:148] Top shape: 24 128 28 28 (2408448)
I0403 21:49:58.711060 12981 net.cpp:156] Memory required for data: 525042720
I0403 21:49:58.711082 12981 layer_factory.hpp:77] Creating layer inception_3a/relu_3x3
I0403 21:49:58.711107 12981 net.cpp:91] Creating Layer inception_3a/relu_3x3
I0403 21:49:58.711128 12981 net.cpp:425] inception_3a/relu_3x3 <- inception_3a/3x3
I0403 21:49:58.711149 12981 net.cpp:386] inception_3a/relu_3x3 -> inception_3a/3x3 (in-place)
I0403 21:49:58.711493 12981 net.cpp:141] Setting up inception_3a/relu_3x3
I0403 21:49:58.711525 12981 net.cpp:148] Top shape: 24 128 28 28 (2408448)
I0403 21:49:58.711545 12981 net.cpp:156] Memory required for data: 534676512
I0403 21:49:58.711563 12981 layer_factory.hpp:77] Creating layer inception_3a/5x5_reduce
I0403 21:49:58.711591 12981 net.cpp:91] Creating Layer inception_3a/5x5_reduce
I0403 21:49:58.711613 12981 net.cpp:425] inception_3a/5x5_reduce <- pool2/3x3_s2_pool2/3x3_s2_0_split_2
I0403 21:49:58.711639 12981 net.cpp:399] inception_3a/5x5_reduce -> inception_3a/5x5_reduce
I0403 21:49:58.712818 12981 net.cpp:141] Setting up inception_3a/5x5_reduce
I0403 21:49:58.712852 12981 net.cpp:148] Top shape: 24 16 28 28 (301056)
I0403 21:49:58.712872 12981 net.cpp:156] Memory required for data: 535880736
I0403 21:49:58.712894 12981 layer_factory.hpp:77] Creating layer inception_3a/relu_5x5_reduce
I0403 21:49:58.712919 12981 net.cpp:91] Creating Layer inception_3a/relu_5x5_reduce
I0403 21:49:58.712939 12981 net.cpp:425] inception_3a/relu_5x5_reduce <- inception_3a/5x5_reduce
I0403 21:49:58.712960 12981 net.cpp:386] inception_3a/relu_5x5_reduce -> inception_3a/5x5_reduce (in-place)
I0403 21:49:58.713299 12981 net.cpp:141] Setting up inception_3a/relu_5x5_reduce
I0403 21:49:58.713332 12981 net.cpp:148] Top shape: 24 16 28 28 (301056)
I0403 21:49:58.713351 12981 net.cpp:156] Memory required for data: 537084960
I0403 21:49:58.713368 12981 layer_factory.hpp:77] Creating layer inception_3a/5x5
I0403 21:49:58.713399 12981 net.cpp:91] Creating Layer inception_3a/5x5
I0403 21:49:58.713421 12981 net.cpp:425] inception_3a/5x5 <- inception_3a/5x5_reduce
I0403 21:49:58.713444 12981 net.cpp:399] inception_3a/5x5 -> inception_3a/5x5
I0403 21:49:58.714665 12981 net.cpp:141] Setting up inception_3a/5x5
I0403 21:49:58.714699 12981 net.cpp:148] Top shape: 24 32 28 28 (602112)
I0403 21:49:58.714718 12981 net.cpp:156] Memory required for data: 539493408
I0403 21:49:58.714742 12981 layer_factory.hpp:77] Creating layer inception_3a/relu_5x5
I0403 21:49:58.714766 12981 net.cpp:91] Creating Layer inception_3a/relu_5x5
I0403 21:49:58.714787 12981 net.cpp:425] inception_3a/relu_5x5 <- inception_3a/5x5
I0403 21:49:58.714809 12981 net.cpp:386] inception_3a/relu_5x5 -> inception_3a/5x5 (in-place)
I0403 21:49:58.715024 12981 net.cpp:141] Setting up inception_3a/relu_5x5
I0403 21:49:58.715055 12981 net.cpp:148] Top shape: 24 32 28 28 (602112)
I0403 21:49:58.715073 12981 net.cpp:156] Memory required for data: 541901856
I0403 21:49:58.715092 12981 layer_factory.hpp:77] Creating layer inception_3a/pool
I0403 21:49:58.715116 12981 net.cpp:91] Creating Layer inception_3a/pool
I0403 21:49:58.715138 12981 net.cpp:425] inception_3a/pool <- pool2/3x3_s2_pool2/3x3_s2_0_split_3
I0403 21:49:58.715183 12981 net.cpp:399] inception_3a/pool -> inception_3a/pool
I0403 21:49:58.715258 12981 net.cpp:141] Setting up inception_3a/pool
I0403 21:49:58.715286 12981 net.cpp:148] Top shape: 24 192 28 28 (3612672)
I0403 21:49:58.715304 12981 net.cpp:156] Memory required for data: 556352544
I0403 21:49:58.715322 12981 layer_factory.hpp:77] Creating layer inception_3a/pool_proj
I0403 21:49:58.715350 12981 net.cpp:91] Creating Layer inception_3a/pool_proj
I0403 21:49:58.715371 12981 net.cpp:425] inception_3a/pool_proj <- inception_3a/pool
I0403 21:49:58.715399 12981 net.cpp:399] inception_3a/pool_proj -> inception_3a/pool_proj
I0403 21:49:58.716560 12981 net.cpp:141] Setting up inception_3a/pool_proj
I0403 21:49:58.716598 12981 net.cpp:148] Top shape: 24 32 28 28 (602112)
I0403 21:49:58.716616 12981 net.cpp:156] Memory required for data: 558760992
I0403 21:49:58.716645 12981 layer_factory.hpp:77] Creating layer inception_3a/relu_pool_proj
I0403 21:49:58.716670 12981 net.cpp:91] Creating Layer inception_3a/relu_pool_proj
I0403 21:49:58.716691 12981 net.cpp:425] inception_3a/relu_pool_proj <- inception_3a/pool_proj
I0403 21:49:58.716712 12981 net.cpp:386] inception_3a/relu_pool_proj -> inception_3a/pool_proj (in-place)
I0403 21:49:58.717039 12981 net.cpp:141] Setting up inception_3a/relu_pool_proj
I0403 21:49:58.717073 12981 net.cpp:148] Top shape: 24 32 28 28 (602112)
I0403 21:49:58.717092 12981 net.cpp:156] Memory required for data: 561169440
I0403 21:49:58.717110 12981 layer_factory.hpp:77] Creating layer inception_3a/output
I0403 21:49:58.717133 12981 net.cpp:91] Creating Layer inception_3a/output
I0403 21:49:58.717152 12981 net.cpp:425] inception_3a/output <- inception_3a/1x1
I0403 21:49:58.717172 12981 net.cpp:425] inception_3a/output <- inception_3a/3x3
I0403 21:49:58.717200 12981 net.cpp:425] inception_3a/output <- inception_3a/5x5
I0403 21:49:58.717221 12981 net.cpp:425] inception_3a/output <- inception_3a/pool_proj
I0403 21:49:58.717243 12981 net.cpp:399] inception_3a/output -> inception_3a/output
I0403 21:49:58.717299 12981 net.cpp:141] Setting up inception_3a/output
I0403 21:49:58.717332 12981 net.cpp:148] Top shape: 24 256 28 28 (4816896)
I0403 21:49:58.717350 12981 net.cpp:156] Memory required for data: 580437024
I0403 21:49:58.717370 12981 layer_factory.hpp:77] Creating layer inception_3a/output_inception_3a/output_0_split
I0403 21:49:58.717389 12981 net.cpp:91] Creating Layer inception_3a/output_inception_3a/output_0_split
I0403 21:49:58.717407 12981 net.cpp:425] inception_3a/output_inception_3a/output_0_split <- inception_3a/output
I0403 21:49:58.717432 12981 net.cpp:399] inception_3a/output_inception_3a/output_0_split -> inception_3a/output_inception_3a/output_0_split_0
I0403 21:49:58.717458 12981 net.cpp:399] inception_3a/output_inception_3a/output_0_split -> inception_3a/output_inception_3a/output_0_split_1
I0403 21:49:58.717486 12981 net.cpp:399] inception_3a/output_inception_3a/output_0_split -> inception_3a/output_inception_3a/output_0_split_2
I0403 21:49:58.717512 12981 net.cpp:399] inception_3a/output_inception_3a/output_0_split -> inception_3a/output_inception_3a/output_0_split_3
I0403 21:49:58.717604 12981 net.cpp:141] Setting up inception_3a/output_inception_3a/output_0_split
I0403 21:49:58.717635 12981 net.cpp:148] Top shape: 24 256 28 28 (4816896)
I0403 21:49:58.717658 12981 net.cpp:148] Top shape: 24 256 28 28 (4816896)
I0403 21:49:58.717676 12981 net.cpp:148] Top shape: 24 256 28 28 (4816896)
I0403 21:49:58.717696 12981 net.cpp:148] Top shape: 24 256 28 28 (4816896)
I0403 21:49:58.717713 12981 net.cpp:156] Memory required for data: 657507360
I0403 21:49:58.717731 12981 layer_factory.hpp:77] Creating layer inception_3b/1x1
I0403 21:49:58.717759 12981 net.cpp:91] Creating Layer inception_3b/1x1
I0403 21:49:58.717782 12981 net.cpp:425] inception_3b/1x1 <- inception_3a/output_inception_3a/output_0_split_0
I0403 21:49:58.717808 12981 net.cpp:399] inception_3b/1x1 -> inception_3b/1x1
I0403 21:49:58.719185 12981 net.cpp:141] Setting up inception_3b/1x1
I0403 21:49:58.719239 12981 net.cpp:148] Top shape: 24 128 28 28 (2408448)
I0403 21:49:58.719261 12981 net.cpp:156] Memory required for data: 667141152
I0403 21:49:58.719285 12981 layer_factory.hpp:77] Creating layer inception_3b/relu_1x1
I0403 21:49:58.719308 12981 net.cpp:91] Creating Layer inception_3b/relu_1x1
I0403 21:49:58.719328 12981 net.cpp:425] inception_3b/relu_1x1 <- inception_3b/1x1
I0403 21:49:58.719354 12981 net.cpp:386] inception_3b/relu_1x1 -> inception_3b/1x1 (in-place)
I0403 21:49:58.719568 12981 net.cpp:141] Setting up inception_3b/relu_1x1
I0403 21:49:58.719600 12981 net.cpp:148] Top shape: 24 128 28 28 (2408448)
I0403 21:49:58.719619 12981 net.cpp:156] Memory required for data: 676774944
I0403 21:49:58.719636 12981 layer_factory.hpp:77] Creating layer inception_3b/3x3_reduce
I0403 21:49:58.719662 12981 net.cpp:91] Creating Layer inception_3b/3x3_reduce
I0403 21:49:58.719684 12981 net.cpp:425] inception_3b/3x3_reduce <- inception_3a/output_inception_3a/output_0_split_1
I0403 21:49:58.719710 12981 net.cpp:399] inception_3b/3x3_reduce -> inception_3b/3x3_reduce
I0403 21:49:58.721086 12981 net.cpp:141] Setting up inception_3b/3x3_reduce
I0403 21:49:58.721119 12981 net.cpp:148] Top shape: 24 128 28 28 (2408448)
I0403 21:49:58.721138 12981 net.cpp:156] Memory required for data: 686408736
I0403 21:49:58.721161 12981 layer_factory.hpp:77] Creating layer inception_3b/relu_3x3_reduce
I0403 21:49:58.721191 12981 net.cpp:91] Creating Layer inception_3b/relu_3x3_reduce
I0403 21:49:58.721213 12981 net.cpp:425] inception_3b/relu_3x3_reduce <- inception_3b/3x3_reduce
I0403 21:49:58.721238 12981 net.cpp:386] inception_3b/relu_3x3_reduce -> inception_3b/3x3_reduce (in-place)
I0403 21:49:58.721451 12981 net.cpp:141] Setting up inception_3b/relu_3x3_reduce
I0403 21:49:58.721482 12981 net.cpp:148] Top shape: 24 128 28 28 (2408448)
I0403 21:49:58.721501 12981 net.cpp:156] Memory required for data: 696042528
I0403 21:49:58.721520 12981 layer_factory.hpp:77] Creating layer inception_3b/3x3
I0403 21:49:58.721552 12981 net.cpp:91] Creating Layer inception_3b/3x3
I0403 21:49:58.721575 12981 net.cpp:425] inception_3b/3x3 <- inception_3b/3x3_reduce
I0403 21:49:58.721598 12981 net.cpp:399] inception_3b/3x3 -> inception_3b/3x3
I0403 21:49:58.725126 12981 net.cpp:141] Setting up inception_3b/3x3
I0403 21:49:58.725162 12981 net.cpp:148] Top shape: 24 192 28 28 (3612672)
I0403 21:49:58.725188 12981 net.cpp:156] Memory required for data: 710493216
I0403 21:49:58.725214 12981 layer_factory.hpp:77] Creating layer inception_3b/relu_3x3
I0403 21:49:58.725240 12981 net.cpp:91] Creating Layer inception_3b/relu_3x3
I0403 21:49:58.725261 12981 net.cpp:425] inception_3b/relu_3x3 <- inception_3b/3x3
I0403 21:49:58.725282 12981 net.cpp:386] inception_3b/relu_3x3 -> inception_3b/3x3 (in-place)
I0403 21:49:58.725617 12981 net.cpp:141] Setting up inception_3b/relu_3x3
I0403 21:49:58.725649 12981 net.cpp:148] Top shape: 24 192 28 28 (3612672)
I0403 21:49:58.725669 12981 net.cpp:156] Memory required for data: 724943904
I0403 21:49:58.725688 12981 layer_factory.hpp:77] Creating layer inception_3b/5x5_reduce
I0403 21:49:58.725718 12981 net.cpp:91] Creating Layer inception_3b/5x5_reduce
I0403 21:49:58.725740 12981 net.cpp:425] inception_3b/5x5_reduce <- inception_3a/output_inception_3a/output_0_split_2
I0403 21:49:58.725767 12981 net.cpp:399] inception_3b/5x5_reduce -> inception_3b/5x5_reduce
I0403 21:49:58.726972 12981 net.cpp:141] Setting up inception_3b/5x5_reduce
I0403 21:49:58.727007 12981 net.cpp:148] Top shape: 24 32 28 28 (602112)
I0403 21:49:58.727026 12981 net.cpp:156] Memory required for data: 727352352
I0403 21:49:58.727049 12981 layer_factory.hpp:77] Creating layer inception_3b/relu_5x5_reduce
I0403 21:49:58.727072 12981 net.cpp:91] Creating Layer inception_3b/relu_5x5_reduce
I0403 21:49:58.727092 12981 net.cpp:425] inception_3b/relu_5x5_reduce <- inception_3b/5x5_reduce
I0403 21:49:58.727116 12981 net.cpp:386] inception_3b/relu_5x5_reduce -> inception_3b/5x5_reduce (in-place)
I0403 21:49:58.727344 12981 net.cpp:141] Setting up inception_3b/relu_5x5_reduce
I0403 21:49:58.727388 12981 net.cpp:148] Top shape: 24 32 28 28 (602112)
I0403 21:49:58.727407 12981 net.cpp:156] Memory required for data: 729760800
I0403 21:49:58.727427 12981 layer_factory.hpp:77] Creating layer inception_3b/5x5
I0403 21:49:58.727454 12981 net.cpp:91] Creating Layer inception_3b/5x5
I0403 21:49:58.727476 12981 net.cpp:425] inception_3b/5x5 <- inception_3b/5x5_reduce
I0403 21:49:58.727502 12981 net.cpp:399] inception_3b/5x5 -> inception_3b/5x5
I0403 21:49:58.729884 12981 net.cpp:141] Setting up inception_3b/5x5
I0403 21:49:58.729923 12981 net.cpp:148] Top shape: 24 96 28 28 (1806336)
I0403 21:49:58.729940 12981 net.cpp:156] Memory required for data: 736986144
I0403 21:49:58.729962 12981 layer_factory.hpp:77] Creating layer inception_3b/relu_5x5
I0403 21:49:58.729985 12981 net.cpp:91] Creating Layer inception_3b/relu_5x5
I0403 21:49:58.730005 12981 net.cpp:425] inception_3b/relu_5x5 <- inception_3b/5x5
I0403 21:49:58.730028 12981 net.cpp:386] inception_3b/relu_5x5 -> inception_3b/5x5 (in-place)
I0403 21:49:58.730269 12981 net.cpp:141] Setting up inception_3b/relu_5x5
I0403 21:49:58.730309 12981 net.cpp:148] Top shape: 24 96 28 28 (1806336)
I0403 21:49:58.730326 12981 net.cpp:156] Memory required for data: 744211488
I0403 21:49:58.730345 12981 layer_factory.hpp:77] Creating layer inception_3b/pool
I0403 21:49:58.730378 12981 net.cpp:91] Creating Layer inception_3b/pool
I0403 21:49:58.730401 12981 net.cpp:425] inception_3b/pool <- inception_3a/output_inception_3a/output_0_split_3
I0403 21:49:58.730422 12981 net.cpp:399] inception_3b/pool -> inception_3b/pool
I0403 21:49:58.730494 12981 net.cpp:141] Setting up inception_3b/pool
I0403 21:49:58.730523 12981 net.cpp:148] Top shape: 24 256 28 28 (4816896)
I0403 21:49:58.730541 12981 net.cpp:156] Memory required for data: 763479072
I0403 21:49:58.730558 12981 layer_factory.hpp:77] Creating layer inception_3b/pool_proj
I0403 21:49:58.730587 12981 net.cpp:91] Creating Layer inception_3b/pool_proj
I0403 21:49:58.730607 12981 net.cpp:425] inception_3b/pool_proj <- inception_3b/pool
I0403 21:49:58.730633 12981 net.cpp:399] inception_3b/pool_proj -> inception_3b/pool_proj
I0403 21:49:58.731917 12981 net.cpp:141] Setting up inception_3b/pool_proj
I0403 21:49:58.731951 12981 net.cpp:148] Top shape: 24 64 28 28 (1204224)
I0403 21:49:58.731979 12981 net.cpp:156] Memory required for data: 768295968
I0403 21:49:58.732002 12981 layer_factory.hpp:77] Creating layer inception_3b/relu_pool_proj
I0403 21:49:58.732026 12981 net.cpp:91] Creating Layer inception_3b/relu_pool_proj
I0403 21:49:58.732046 12981 net.cpp:425] inception_3b/relu_pool_proj <- inception_3b/pool_proj
I0403 21:49:58.732069 12981 net.cpp:386] inception_3b/relu_pool_proj -> inception_3b/pool_proj (in-place)
I0403 21:49:58.732530 12981 net.cpp:141] Setting up inception_3b/relu_pool_proj
I0403 21:49:58.732564 12981 net.cpp:148] Top shape: 24 64 28 28 (1204224)
I0403 21:49:58.732583 12981 net.cpp:156] Memory required for data: 773112864
I0403 21:49:58.732602 12981 layer_factory.hpp:77] Creating layer inception_3b/output
I0403 21:49:58.732626 12981 net.cpp:91] Creating Layer inception_3b/output
I0403 21:49:58.732645 12981 net.cpp:425] inception_3b/output <- inception_3b/1x1
I0403 21:49:58.732667 12981 net.cpp:425] inception_3b/output <- inception_3b/3x3
I0403 21:49:58.732688 12981 net.cpp:425] inception_3b/output <- inception_3b/5x5
I0403 21:49:58.732707 12981 net.cpp:425] inception_3b/output <- inception_3b/pool_proj
I0403 21:49:58.732728 12981 net.cpp:399] inception_3b/output -> inception_3b/output
I0403 21:49:58.732784 12981 net.cpp:141] Setting up inception_3b/output
I0403 21:49:58.732813 12981 net.cpp:148] Top shape: 24 480 28 28 (9031680)
I0403 21:49:58.732831 12981 net.cpp:156] Memory required for data: 809239584
I0403 21:49:58.732848 12981 layer_factory.hpp:77] Creating layer pool3/3x3_s2
I0403 21:49:58.732870 12981 net.cpp:91] Creating Layer pool3/3x3_s2
I0403 21:49:58.732889 12981 net.cpp:425] pool3/3x3_s2 <- inception_3b/output
I0403 21:49:58.732915 12981 net.cpp:399] pool3/3x3_s2 -> pool3/3x3_s2
I0403 21:49:58.733005 12981 net.cpp:141] Setting up pool3/3x3_s2
I0403 21:49:58.733033 12981 net.cpp:148] Top shape: 24 480 14 14 (2257920)
I0403 21:49:58.733052 12981 net.cpp:156] Memory required for data: 818271264
I0403 21:49:58.733069 12981 layer_factory.hpp:77] Creating layer pool3/3x3_s2_pool3/3x3_s2_0_split
I0403 21:49:58.733094 12981 net.cpp:91] Creating Layer pool3/3x3_s2_pool3/3x3_s2_0_split
I0403 21:49:58.733114 12981 net.cpp:425] pool3/3x3_s2_pool3/3x3_s2_0_split <- pool3/3x3_s2
I0403 21:49:58.733139 12981 net.cpp:399] pool3/3x3_s2_pool3/3x3_s2_0_split -> pool3/3x3_s2_pool3/3x3_s2_0_split_0
I0403 21:49:58.733162 12981 net.cpp:399] pool3/3x3_s2_pool3/3x3_s2_0_split -> pool3/3x3_s2_pool3/3x3_s2_0_split_1
I0403 21:49:58.733194 12981 net.cpp:399] pool3/3x3_s2_pool3/3x3_s2_0_split -> pool3/3x3_s2_pool3/3x3_s2_0_split_2
I0403 21:49:58.733222 12981 net.cpp:399] pool3/3x3_s2_pool3/3x3_s2_0_split -> pool3/3x3_s2_pool3/3x3_s2_0_split_3
I0403 21:49:58.733314 12981 net.cpp:141] Setting up pool3/3x3_s2_pool3/3x3_s2_0_split
I0403 21:49:58.733343 12981 net.cpp:148] Top shape: 24 480 14 14 (2257920)
I0403 21:49:58.733363 12981 net.cpp:148] Top shape: 24 480 14 14 (2257920)
I0403 21:49:58.733383 12981 net.cpp:148] Top shape: 24 480 14 14 (2257920)
I0403 21:49:58.733403 12981 net.cpp:148] Top shape: 24 480 14 14 (2257920)
I0403 21:49:58.733420 12981 net.cpp:156] Memory required for data: 854397984
I0403 21:49:58.733438 12981 layer_factory.hpp:77] Creating layer inception_4a/1x1
I0403 21:49:58.733465 12981 net.cpp:91] Creating Layer inception_4a/1x1
I0403 21:49:58.733487 12981 net.cpp:425] inception_4a/1x1 <- pool3/3x3_s2_pool3/3x3_s2_0_split_0
I0403 21:49:58.733513 12981 net.cpp:399] inception_4a/1x1 -> inception_4a/1x1
I0403 21:49:58.735432 12981 net.cpp:141] Setting up inception_4a/1x1
I0403 21:49:58.735469 12981 net.cpp:148] Top shape: 24 192 14 14 (903168)
I0403 21:49:58.735491 12981 net.cpp:156] Memory required for data: 858010656
I0403 21:49:58.735512 12981 layer_factory.hpp:77] Creating layer inception_4a/relu_1x1
I0403 21:49:58.735534 12981 net.cpp:91] Creating Layer inception_4a/relu_1x1
I0403 21:49:58.735554 12981 net.cpp:425] inception_4a/relu_1x1 <- inception_4a/1x1
I0403 21:49:58.735577 12981 net.cpp:386] inception_4a/relu_1x1 -> inception_4a/1x1 (in-place)
I0403 21:49:58.735800 12981 net.cpp:141] Setting up inception_4a/relu_1x1
I0403 21:49:58.735831 12981 net.cpp:148] Top shape: 24 192 14 14 (903168)
I0403 21:49:58.735851 12981 net.cpp:156] Memory required for data: 861623328
I0403 21:49:58.735869 12981 layer_factory.hpp:77] Creating layer inception_4a/3x3_reduce
I0403 21:49:58.735898 12981 net.cpp:91] Creating Layer inception_4a/3x3_reduce
I0403 21:49:58.735919 12981 net.cpp:425] inception_4a/3x3_reduce <- pool3/3x3_s2_pool3/3x3_s2_0_split_1
I0403 21:49:58.735949 12981 net.cpp:399] inception_4a/3x3_reduce -> inception_4a/3x3_reduce
I0403 21:49:58.737506 12981 net.cpp:141] Setting up inception_4a/3x3_reduce
I0403 21:49:58.737540 12981 net.cpp:148] Top shape: 24 96 14 14 (451584)
I0403 21:49:58.737560 12981 net.cpp:156] Memory required for data: 863429664
I0403 21:49:58.737592 12981 layer_factory.hpp:77] Creating layer inception_4a/relu_3x3_reduce
I0403 21:49:58.737619 12981 net.cpp:91] Creating Layer inception_4a/relu_3x3_reduce
I0403 21:49:58.737640 12981 net.cpp:425] inception_4a/relu_3x3_reduce <- inception_4a/3x3_reduce
I0403 21:49:58.737663 12981 net.cpp:386] inception_4a/relu_3x3_reduce -> inception_4a/3x3_reduce (in-place)
I0403 21:49:58.737879 12981 net.cpp:141] Setting up inception_4a/relu_3x3_reduce
I0403 21:49:58.737912 12981 net.cpp:148] Top shape: 24 96 14 14 (451584)
I0403 21:49:58.737931 12981 net.cpp:156] Memory required for data: 865236000
I0403 21:49:58.737951 12981 layer_factory.hpp:77] Creating layer inception_4a/3x3
I0403 21:49:58.737979 12981 net.cpp:91] Creating Layer inception_4a/3x3
I0403 21:49:58.738001 12981 net.cpp:425] inception_4a/3x3 <- inception_4a/3x3_reduce
I0403 21:49:58.738024 12981 net.cpp:399] inception_4a/3x3 -> inception_4a/3x3
I0403 21:49:58.741312 12981 net.cpp:141] Setting up inception_4a/3x3
I0403 21:49:58.741348 12981 net.cpp:148] Top shape: 24 208 14 14 (978432)
I0403 21:49:58.741367 12981 net.cpp:156] Memory required for data: 869149728
I0403 21:49:58.741391 12981 layer_factory.hpp:77] Creating layer inception_4a/relu_3x3
I0403 21:49:58.741413 12981 net.cpp:91] Creating Layer inception_4a/relu_3x3
I0403 21:49:58.741433 12981 net.cpp:425] inception_4a/relu_3x3 <- inception_4a/3x3
I0403 21:49:58.741457 12981 net.cpp:386] inception_4a/relu_3x3 -> inception_4a/3x3 (in-place)
I0403 21:49:58.741803 12981 net.cpp:141] Setting up inception_4a/relu_3x3
I0403 21:49:58.741837 12981 net.cpp:148] Top shape: 24 208 14 14 (978432)
I0403 21:49:58.741857 12981 net.cpp:156] Memory required for data: 873063456
I0403 21:49:58.741875 12981 layer_factory.hpp:77] Creating layer inception_4a/5x5_reduce
I0403 21:49:58.741904 12981 net.cpp:91] Creating Layer inception_4a/5x5_reduce
I0403 21:49:58.741925 12981 net.cpp:425] inception_4a/5x5_reduce <- pool3/3x3_s2_pool3/3x3_s2_0_split_2
I0403 21:49:58.741953 12981 net.cpp:399] inception_4a/5x5_reduce -> inception_4a/5x5_reduce
I0403 21:49:58.743212 12981 net.cpp:141] Setting up inception_4a/5x5_reduce
I0403 21:49:58.743248 12981 net.cpp:148] Top shape: 24 16 14 14 (75264)
I0403 21:49:58.743268 12981 net.cpp:156] Memory required for data: 873364512
I0403 21:49:58.743290 12981 layer_factory.hpp:77] Creating layer inception_4a/relu_5x5_reduce
I0403 21:49:58.743314 12981 net.cpp:91] Creating Layer inception_4a/relu_5x5_reduce
I0403 21:49:58.743333 12981 net.cpp:425] inception_4a/relu_5x5_reduce <- inception_4a/5x5_reduce
I0403 21:49:58.743356 12981 net.cpp:386] inception_4a/relu_5x5_reduce -> inception_4a/5x5_reduce (in-place)
I0403 21:49:58.743577 12981 net.cpp:141] Setting up inception_4a/relu_5x5_reduce
I0403 21:49:58.743610 12981 net.cpp:148] Top shape: 24 16 14 14 (75264)
I0403 21:49:58.743628 12981 net.cpp:156] Memory required for data: 873665568
I0403 21:49:58.743646 12981 layer_factory.hpp:77] Creating layer inception_4a/5x5
I0403 21:49:58.743674 12981 net.cpp:91] Creating Layer inception_4a/5x5
I0403 21:49:58.743697 12981 net.cpp:425] inception_4a/5x5 <- inception_4a/5x5_reduce
I0403 21:49:58.743724 12981 net.cpp:399] inception_4a/5x5 -> inception_4a/5x5
I0403 21:49:58.745051 12981 net.cpp:141] Setting up inception_4a/5x5
I0403 21:49:58.745086 12981 net.cpp:148] Top shape: 24 48 14 14 (225792)
I0403 21:49:58.745105 12981 net.cpp:156] Memory required for data: 874568736
I0403 21:49:58.745126 12981 layer_factory.hpp:77] Creating layer inception_4a/relu_5x5
I0403 21:49:58.745152 12981 net.cpp:91] Creating Layer inception_4a/relu_5x5
I0403 21:49:58.745173 12981 net.cpp:425] inception_4a/relu_5x5 <- inception_4a/5x5
I0403 21:49:58.745203 12981 net.cpp:386] inception_4a/relu_5x5 -> inception_4a/5x5 (in-place)
I0403 21:49:58.745427 12981 net.cpp:141] Setting up inception_4a/relu_5x5
I0403 21:49:58.745461 12981 net.cpp:148] Top shape: 24 48 14 14 (225792)
I0403 21:49:58.745481 12981 net.cpp:156] Memory required for data: 875471904
I0403 21:49:58.745499 12981 layer_factory.hpp:77] Creating layer inception_4a/pool
I0403 21:49:58.745520 12981 net.cpp:91] Creating Layer inception_4a/pool
I0403 21:49:58.745540 12981 net.cpp:425] inception_4a/pool <- pool3/3x3_s2_pool3/3x3_s2_0_split_3
I0403 21:49:58.745565 12981 net.cpp:399] inception_4a/pool -> inception_4a/pool
I0403 21:49:58.745641 12981 net.cpp:141] Setting up inception_4a/pool
I0403 21:49:58.745671 12981 net.cpp:148] Top shape: 24 480 14 14 (2257920)
I0403 21:49:58.745689 12981 net.cpp:156] Memory required for data: 884503584
I0403 21:49:58.745707 12981 layer_factory.hpp:77] Creating layer inception_4a/pool_proj
I0403 21:49:58.745734 12981 net.cpp:91] Creating Layer inception_4a/pool_proj
I0403 21:49:58.745759 12981 net.cpp:425] inception_4a/pool_proj <- inception_4a/pool
I0403 21:49:58.745782 12981 net.cpp:399] inception_4a/pool_proj -> inception_4a/pool_proj
I0403 21:49:58.747210 12981 net.cpp:141] Setting up inception_4a/pool_proj
I0403 21:49:58.747244 12981 net.cpp:148] Top shape: 24 64 14 14 (301056)
I0403 21:49:58.747282 12981 net.cpp:156] Memory required for data: 885707808
I0403 21:49:58.747304 12981 layer_factory.hpp:77] Creating layer inception_4a/relu_pool_proj
I0403 21:49:58.747331 12981 net.cpp:91] Creating Layer inception_4a/relu_pool_proj
I0403 21:49:58.747352 12981 net.cpp:425] inception_4a/relu_pool_proj <- inception_4a/pool_proj
I0403 21:49:58.747375 12981 net.cpp:386] inception_4a/relu_pool_proj -> inception_4a/pool_proj (in-place)
I0403 21:49:58.747712 12981 net.cpp:141] Setting up inception_4a/relu_pool_proj
I0403 21:49:58.747745 12981 net.cpp:148] Top shape: 24 64 14 14 (301056)
I0403 21:49:58.747763 12981 net.cpp:156] Memory required for data: 886912032
I0403 21:49:58.747782 12981 layer_factory.hpp:77] Creating layer inception_4a/output
I0403 21:49:58.747808 12981 net.cpp:91] Creating Layer inception_4a/output
I0403 21:49:58.747828 12981 net.cpp:425] inception_4a/output <- inception_4a/1x1
I0403 21:49:58.747850 12981 net.cpp:425] inception_4a/output <- inception_4a/3x3
I0403 21:49:58.747870 12981 net.cpp:425] inception_4a/output <- inception_4a/5x5
I0403 21:49:58.747889 12981 net.cpp:425] inception_4a/output <- inception_4a/pool_proj
I0403 21:49:58.747910 12981 net.cpp:399] inception_4a/output -> inception_4a/output
I0403 21:49:58.747967 12981 net.cpp:141] Setting up inception_4a/output
I0403 21:49:58.747997 12981 net.cpp:148] Top shape: 24 512 14 14 (2408448)
I0403 21:49:58.748014 12981 net.cpp:156] Memory required for data: 896545824
I0403 21:49:58.748031 12981 layer_factory.hpp:77] Creating layer inception_4a/output_inception_4a/output_0_split
I0403 21:49:58.748054 12981 net.cpp:91] Creating Layer inception_4a/output_inception_4a/output_0_split
I0403 21:49:58.748073 12981 net.cpp:425] inception_4a/output_inception_4a/output_0_split <- inception_4a/output
I0403 21:49:58.748098 12981 net.cpp:399] inception_4a/output_inception_4a/output_0_split -> inception_4a/output_inception_4a/output_0_split_0
I0403 21:49:58.748126 12981 net.cpp:399] inception_4a/output_inception_4a/output_0_split -> inception_4a/output_inception_4a/output_0_split_1
I0403 21:49:58.748150 12981 net.cpp:399] inception_4a/output_inception_4a/output_0_split -> inception_4a/output_inception_4a/output_0_split_2
I0403 21:49:58.748185 12981 net.cpp:399] inception_4a/output_inception_4a/output_0_split -> inception_4a/output_inception_4a/output_0_split_3
I0403 21:49:58.748214 12981 net.cpp:399] inception_4a/output_inception_4a/output_0_split -> inception_4a/output_inception_4a/output_0_split_4
I0403 21:49:58.748327 12981 net.cpp:141] Setting up inception_4a/output_inception_4a/output_0_split
I0403 21:49:58.748358 12981 net.cpp:148] Top shape: 24 512 14 14 (2408448)
I0403 21:49:58.748378 12981 net.cpp:148] Top shape: 24 512 14 14 (2408448)
I0403 21:49:58.748396 12981 net.cpp:148] Top shape: 24 512 14 14 (2408448)
I0403 21:49:58.748415 12981 net.cpp:148] Top shape: 24 512 14 14 (2408448)
I0403 21:49:58.748435 12981 net.cpp:148] Top shape: 24 512 14 14 (2408448)
I0403 21:49:58.748451 12981 net.cpp:156] Memory required for data: 944714784
I0403 21:49:58.748469 12981 layer_factory.hpp:77] Creating layer loss1/ave_pool
I0403 21:49:58.748491 12981 net.cpp:91] Creating Layer loss1/ave_pool
I0403 21:49:58.748510 12981 net.cpp:425] loss1/ave_pool <- inception_4a/output_inception_4a/output_0_split_0
I0403 21:49:58.748535 12981 net.cpp:399] loss1/ave_pool -> loss1/ave_pool
I0403 21:49:58.748790 12981 net.cpp:141] Setting up loss1/ave_pool
I0403 21:49:58.748822 12981 net.cpp:148] Top shape: 24 512 4 4 (196608)
I0403 21:49:58.748842 12981 net.cpp:156] Memory required for data: 945501216
I0403 21:49:58.748860 12981 layer_factory.hpp:77] Creating layer loss1/conv
I0403 21:49:58.748890 12981 net.cpp:91] Creating Layer loss1/conv
I0403 21:49:58.748913 12981 net.cpp:425] loss1/conv <- loss1/ave_pool
I0403 21:49:58.748935 12981 net.cpp:399] loss1/conv -> loss1/conv
I0403 21:49:58.750653 12981 net.cpp:141] Setting up loss1/conv
I0403 21:49:58.750689 12981 net.cpp:148] Top shape: 24 128 4 4 (49152)
I0403 21:49:58.750707 12981 net.cpp:156] Memory required for data: 945697824
I0403 21:49:58.750748 12981 layer_factory.hpp:77] Creating layer loss1/relu_conv
I0403 21:49:58.750772 12981 net.cpp:91] Creating Layer loss1/relu_conv
I0403 21:49:58.750790 12981 net.cpp:425] loss1/relu_conv <- loss1/conv
I0403 21:49:58.750814 12981 net.cpp:386] loss1/relu_conv -> loss1/conv (in-place)
I0403 21:49:58.751153 12981 net.cpp:141] Setting up loss1/relu_conv
I0403 21:49:58.751194 12981 net.cpp:148] Top shape: 24 128 4 4 (49152)
I0403 21:49:58.751214 12981 net.cpp:156] Memory required for data: 945894432
I0403 21:49:58.751233 12981 layer_factory.hpp:77] Creating layer loss1/fc
I0403 21:49:58.751262 12981 net.cpp:91] Creating Layer loss1/fc
I0403 21:49:58.751283 12981 net.cpp:425] loss1/fc <- loss1/conv
I0403 21:49:58.751309 12981 net.cpp:399] loss1/fc -> loss1/fc
I0403 21:49:58.773458 12981 net.cpp:141] Setting up loss1/fc
I0403 21:49:58.773505 12981 net.cpp:148] Top shape: 24 1024 (24576)
I0403 21:49:58.773526 12981 net.cpp:156] Memory required for data: 945992736
I0403 21:49:58.773550 12981 layer_factory.hpp:77] Creating layer loss1/relu_fc
I0403 21:49:58.773572 12981 net.cpp:91] Creating Layer loss1/relu_fc
I0403 21:49:58.773592 12981 net.cpp:425] loss1/relu_fc <- loss1/fc
I0403 21:49:58.773612 12981 net.cpp:386] loss1/relu_fc -> loss1/fc (in-place)
I0403 21:49:58.773852 12981 net.cpp:141] Setting up loss1/relu_fc
I0403 21:49:58.773883 12981 net.cpp:148] Top shape: 24 1024 (24576)
I0403 21:49:58.773902 12981 net.cpp:156] Memory required for data: 946091040
I0403 21:49:58.773921 12981 layer_factory.hpp:77] Creating layer loss1/drop_fc
I0403 21:49:58.773952 12981 net.cpp:91] Creating Layer loss1/drop_fc
I0403 21:49:58.773973 12981 net.cpp:425] loss1/drop_fc <- loss1/fc
I0403 21:49:58.773999 12981 net.cpp:386] loss1/drop_fc -> loss1/fc (in-place)
I0403 21:49:58.774065 12981 net.cpp:141] Setting up loss1/drop_fc
I0403 21:49:58.774094 12981 net.cpp:148] Top shape: 24 1024 (24576)
I0403 21:49:58.774111 12981 net.cpp:156] Memory required for data: 946189344
I0403 21:49:58.774129 12981 layer_factory.hpp:77] Creating layer loss1/classifier_plantvillage
I0403 21:49:58.774157 12981 net.cpp:91] Creating Layer loss1/classifier_plantvillage
I0403 21:49:58.774184 12981 net.cpp:425] loss1/classifier_plantvillage <- loss1/fc
I0403 21:49:58.774210 12981 net.cpp:399] loss1/classifier_plantvillage -> loss1/classifier_plantvillage
I0403 21:49:58.775326 12981 net.cpp:141] Setting up loss1/classifier_plantvillage
I0403 21:49:58.775364 12981 net.cpp:148] Top shape: 24 38 (912)
I0403 21:49:58.775385 12981 net.cpp:156] Memory required for data: 946192992
I0403 21:49:58.775408 12981 layer_factory.hpp:77] Creating layer loss1/classifier_plantvillage_loss1/classifier_plantvillage_0_split
I0403 21:49:58.775431 12981 net.cpp:91] Creating Layer loss1/classifier_plantvillage_loss1/classifier_plantvillage_0_split
I0403 21:49:58.775451 12981 net.cpp:425] loss1/classifier_plantvillage_loss1/classifier_plantvillage_0_split <- loss1/classifier_plantvillage
I0403 21:49:58.775472 12981 net.cpp:399] loss1/classifier_plantvillage_loss1/classifier_plantvillage_0_split -> loss1/classifier_plantvillage_loss1/classifier_plantvillage_0_split_0
I0403 21:49:58.775501 12981 net.cpp:399] loss1/classifier_plantvillage_loss1/classifier_plantvillage_0_split -> loss1/classifier_plantvillage_loss1/classifier_plantvillage_0_split_1
I0403 21:49:58.775528 12981 net.cpp:399] loss1/classifier_plantvillage_loss1/classifier_plantvillage_0_split -> loss1/classifier_plantvillage_loss1/classifier_plantvillage_0_split_2
I0403 21:49:58.775611 12981 net.cpp:141] Setting up loss1/classifier_plantvillage_loss1/classifier_plantvillage_0_split
I0403 21:49:58.775640 12981 net.cpp:148] Top shape: 24 38 (912)
I0403 21:49:58.775661 12981 net.cpp:148] Top shape: 24 38 (912)
I0403 21:49:58.775681 12981 net.cpp:148] Top shape: 24 38 (912)
I0403 21:49:58.775699 12981 net.cpp:156] Memory required for data: 946203936
I0403 21:49:58.775717 12981 layer_factory.hpp:77] Creating layer inception_4b/1x1
I0403 21:49:58.775743 12981 net.cpp:91] Creating Layer inception_4b/1x1
I0403 21:49:58.775784 12981 net.cpp:425] inception_4b/1x1 <- inception_4a/output_inception_4a/output_0_split_1
I0403 21:49:58.775810 12981 net.cpp:399] inception_4b/1x1 -> inception_4b/1x1
I0403 21:49:58.777799 12981 net.cpp:141] Setting up inception_4b/1x1
I0403 21:49:58.777835 12981 net.cpp:148] Top shape: 24 160 14 14 (752640)
I0403 21:49:58.777855 12981 net.cpp:156] Memory required for data: 949214496
I0403 21:49:58.777878 12981 layer_factory.hpp:77] Creating layer inception_4b/relu_1x1
I0403 21:49:58.777901 12981 net.cpp:91] Creating Layer inception_4b/relu_1x1
I0403 21:49:58.777920 12981 net.cpp:425] inception_4b/relu_1x1 <- inception_4b/1x1
I0403 21:49:58.777946 12981 net.cpp:386] inception_4b/relu_1x1 -> inception_4b/1x1 (in-place)
I0403 21:49:58.778170 12981 net.cpp:141] Setting up inception_4b/relu_1x1
I0403 21:49:58.778208 12981 net.cpp:148] Top shape: 24 160 14 14 (752640)
I0403 21:49:58.778228 12981 net.cpp:156] Memory required for data: 952225056
I0403 21:49:58.778246 12981 layer_factory.hpp:77] Creating layer inception_4b/3x3_reduce
I0403 21:49:58.778273 12981 net.cpp:91] Creating Layer inception_4b/3x3_reduce
I0403 21:49:58.778295 12981 net.cpp:425] inception_4b/3x3_reduce <- inception_4a/output_inception_4a/output_0_split_2
I0403 21:49:58.778326 12981 net.cpp:399] inception_4b/3x3_reduce -> inception_4b/3x3_reduce
I0403 21:49:58.779991 12981 net.cpp:141] Setting up inception_4b/3x3_reduce
I0403 21:49:58.780027 12981 net.cpp:148] Top shape: 24 112 14 14 (526848)
I0403 21:49:58.780046 12981 net.cpp:156] Memory required for data: 954332448
I0403 21:49:58.780068 12981 layer_factory.hpp:77] Creating layer inception_4b/relu_3x3_reduce
I0403 21:49:58.780097 12981 net.cpp:91] Creating Layer inception_4b/relu_3x3_reduce
I0403 21:49:58.780119 12981 net.cpp:425] inception_4b/relu_3x3_reduce <- inception_4b/3x3_reduce
I0403 21:49:58.780141 12981 net.cpp:386] inception_4b/relu_3x3_reduce -> inception_4b/3x3_reduce (in-place)
I0403 21:49:58.780490 12981 net.cpp:141] Setting up inception_4b/relu_3x3_reduce
I0403 21:49:58.780524 12981 net.cpp:148] Top shape: 24 112 14 14 (526848)
I0403 21:49:58.780542 12981 net.cpp:156] Memory required for data: 956439840
I0403 21:49:58.780560 12981 layer_factory.hpp:77] Creating layer inception_4b/3x3
I0403 21:49:58.780589 12981 net.cpp:91] Creating Layer inception_4b/3x3
I0403 21:49:58.780611 12981 net.cpp:425] inception_4b/3x3 <- inception_4b/3x3_reduce
I0403 21:49:58.780637 12981 net.cpp:399] inception_4b/3x3 -> inception_4b/3x3
I0403 21:49:58.784317 12981 net.cpp:141] Setting up inception_4b/3x3
I0403 21:49:58.784355 12981 net.cpp:148] Top shape: 24 224 14 14 (1053696)
I0403 21:49:58.784376 12981 net.cpp:156] Memory required for data: 960654624
I0403 21:49:58.784400 12981 layer_factory.hpp:77] Creating layer inception_4b/relu_3x3
I0403 21:49:58.784425 12981 net.cpp:91] Creating Layer inception_4b/relu_3x3
I0403 21:49:58.784445 12981 net.cpp:425] inception_4b/relu_3x3 <- inception_4b/3x3
I0403 21:49:58.784466 12981 net.cpp:386] inception_4b/relu_3x3 -> inception_4b/3x3 (in-place)
I0403 21:49:58.784696 12981 net.cpp:141] Setting up inception_4b/relu_3x3
I0403 21:49:58.784728 12981 net.cpp:148] Top shape: 24 224 14 14 (1053696)
I0403 21:49:58.784746 12981 net.cpp:156] Memory required for data: 964869408
I0403 21:49:58.784765 12981 layer_factory.hpp:77] Creating layer inception_4b/5x5_reduce
I0403 21:49:58.784795 12981 net.cpp:91] Creating Layer inception_4b/5x5_reduce
I0403 21:49:58.784818 12981 net.cpp:425] inception_4b/5x5_reduce <- inception_4a/output_inception_4a/output_0_split_3
I0403 21:49:58.784844 12981 net.cpp:399] inception_4b/5x5_reduce -> inception_4b/5x5_reduce
I0403 21:49:58.786196 12981 net.cpp:141] Setting up inception_4b/5x5_reduce
I0403 21:49:58.786231 12981 net.cpp:148] Top shape: 24 24 14 14 (112896)
I0403 21:49:58.786252 12981 net.cpp:156] Memory required for data: 965320992
I0403 21:49:58.786275 12981 layer_factory.hpp:77] Creating layer inception_4b/relu_5x5_reduce
I0403 21:49:58.786300 12981 net.cpp:91] Creating Layer inception_4b/relu_5x5_reduce
I0403 21:49:58.786337 12981 net.cpp:425] inception_4b/relu_5x5_reduce <- inception_4b/5x5_reduce
I0403 21:49:58.786360 12981 net.cpp:386] inception_4b/relu_5x5_reduce -> inception_4b/5x5_reduce (in-place)
I0403 21:49:58.786584 12981 net.cpp:141] Setting up inception_4b/relu_5x5_reduce
I0403 21:49:58.786617 12981 net.cpp:148] Top shape: 24 24 14 14 (112896)
I0403 21:49:58.786634 12981 net.cpp:156] Memory required for data: 965772576
I0403 21:49:58.786653 12981 layer_factory.hpp:77] Creating layer inception_4b/5x5
I0403 21:49:58.786684 12981 net.cpp:91] Creating Layer inception_4b/5x5
I0403 21:49:58.786705 12981 net.cpp:425] inception_4b/5x5 <- inception_4b/5x5_reduce
I0403 21:49:58.786728 12981 net.cpp:399] inception_4b/5x5 -> inception_4b/5x5
I0403 21:49:58.788240 12981 net.cpp:141] Setting up inception_4b/5x5
I0403 21:49:58.788275 12981 net.cpp:148] Top shape: 24 64 14 14 (301056)
I0403 21:49:58.788295 12981 net.cpp:156] Memory required for data: 966976800
I0403 21:49:58.788317 12981 layer_factory.hpp:77] Creating layer inception_4b/relu_5x5
I0403 21:49:58.788339 12981 net.cpp:91] Creating Layer inception_4b/relu_5x5
I0403 21:49:58.788360 12981 net.cpp:425] inception_4b/relu_5x5 <- inception_4b/5x5
I0403 21:49:58.788384 12981 net.cpp:386] inception_4b/relu_5x5 -> inception_4b/5x5 (in-place)
I0403 21:49:58.788733 12981 net.cpp:141] Setting up inception_4b/relu_5x5
I0403 21:49:58.788764 12981 net.cpp:148] Top shape: 24 64 14 14 (301056)
I0403 21:49:58.788782 12981 net.cpp:156] Memory required for data: 968181024
I0403 21:49:58.788800 12981 layer_factory.hpp:77] Creating layer inception_4b/pool
I0403 21:49:58.788822 12981 net.cpp:91] Creating Layer inception_4b/pool
I0403 21:49:58.788842 12981 net.cpp:425] inception_4b/pool <- inception_4a/output_inception_4a/output_0_split_4
I0403 21:49:58.788872 12981 net.cpp:399] inception_4b/pool -> inception_4b/pool
I0403 21:49:58.788954 12981 net.cpp:141] Setting up inception_4b/pool
I0403 21:49:58.788983 12981 net.cpp:148] Top shape: 24 512 14 14 (2408448)
I0403 21:49:58.789001 12981 net.cpp:156] Memory required for data: 977814816
I0403 21:49:58.789019 12981 layer_factory.hpp:77] Creating layer inception_4b/pool_proj
I0403 21:49:58.789048 12981 net.cpp:91] Creating Layer inception_4b/pool_proj
I0403 21:49:58.789072 12981 net.cpp:425] inception_4b/pool_proj <- inception_4b/pool
I0403 21:49:58.789095 12981 net.cpp:399] inception_4b/pool_proj -> inception_4b/pool_proj
I0403 21:49:58.790581 12981 net.cpp:141] Setting up inception_4b/pool_proj
I0403 21:49:58.790616 12981 net.cpp:148] Top shape: 24 64 14 14 (301056)
I0403 21:49:58.790635 12981 net.cpp:156] Memory required for data: 979019040
I0403 21:49:58.790657 12981 layer_factory.hpp:77] Creating layer inception_4b/relu_pool_proj
I0403 21:49:58.790683 12981 net.cpp:91] Creating Layer inception_4b/relu_pool_proj
I0403 21:49:58.790704 12981 net.cpp:425] inception_4b/relu_pool_proj <- inception_4b/pool_proj
I0403 21:49:58.790725 12981 net.cpp:386] inception_4b/relu_pool_proj -> inception_4b/pool_proj (in-place)
I0403 21:49:58.790947 12981 net.cpp:141] Setting up inception_4b/relu_pool_proj
I0403 21:49:58.790978 12981 net.cpp:148] Top shape: 24 64 14 14 (301056)
I0403 21:49:58.790997 12981 net.cpp:156] Memory required for data: 980223264
I0403 21:49:58.791016 12981 layer_factory.hpp:77] Creating layer inception_4b/output
I0403 21:49:58.791040 12981 net.cpp:91] Creating Layer inception_4b/output
I0403 21:49:58.791062 12981 net.cpp:425] inception_4b/output <- inception_4b/1x1
I0403 21:49:58.791084 12981 net.cpp:425] inception_4b/output <- inception_4b/3x3
I0403 21:49:58.791102 12981 net.cpp:425] inception_4b/output <- inception_4b/5x5
I0403 21:49:58.791121 12981 net.cpp:425] inception_4b/output <- inception_4b/pool_proj
I0403 21:49:58.791142 12981 net.cpp:399] inception_4b/output -> inception_4b/output
I0403 21:49:58.791208 12981 net.cpp:141] Setting up inception_4b/output
I0403 21:49:58.791239 12981 net.cpp:148] Top shape: 24 512 14 14 (2408448)
I0403 21:49:58.791257 12981 net.cpp:156] Memory required for data: 989857056
I0403 21:49:58.791292 12981 layer_factory.hpp:77] Creating layer inception_4b/output_inception_4b/output_0_split
I0403 21:49:58.791314 12981 net.cpp:91] Creating Layer inception_4b/output_inception_4b/output_0_split
I0403 21:49:58.791332 12981 net.cpp:425] inception_4b/output_inception_4b/output_0_split <- inception_4b/output
I0403 21:49:58.791358 12981 net.cpp:399] inception_4b/output_inception_4b/output_0_split -> inception_4b/output_inception_4b/output_0_split_0
I0403 21:49:58.791386 12981 net.cpp:399] inception_4b/output_inception_4b/output_0_split -> inception_4b/output_inception_4b/output_0_split_1
I0403 21:49:58.791411 12981 net.cpp:399] inception_4b/output_inception_4b/output_0_split -> inception_4b/output_inception_4b/output_0_split_2
I0403 21:49:58.791438 12981 net.cpp:399] inception_4b/output_inception_4b/output_0_split -> inception_4b/output_inception_4b/output_0_split_3
I0403 21:49:58.791543 12981 net.cpp:141] Setting up inception_4b/output_inception_4b/output_0_split
I0403 21:49:58.791571 12981 net.cpp:148] Top shape: 24 512 14 14 (2408448)
I0403 21:49:58.791591 12981 net.cpp:148] Top shape: 24 512 14 14 (2408448)
I0403 21:49:58.791610 12981 net.cpp:148] Top shape: 24 512 14 14 (2408448)
I0403 21:49:58.791631 12981 net.cpp:148] Top shape: 24 512 14 14 (2408448)
I0403 21:49:58.791648 12981 net.cpp:156] Memory required for data: 1028392224
I0403 21:49:58.791666 12981 layer_factory.hpp:77] Creating layer inception_4c/1x1
I0403 21:49:58.791694 12981 net.cpp:91] Creating Layer inception_4c/1x1
I0403 21:49:58.791715 12981 net.cpp:425] inception_4c/1x1 <- inception_4b/output_inception_4b/output_0_split_0
I0403 21:49:58.791740 12981 net.cpp:399] inception_4c/1x1 -> inception_4c/1x1
I0403 21:49:58.793515 12981 net.cpp:141] Setting up inception_4c/1x1
I0403 21:49:58.793555 12981 net.cpp:148] Top shape: 24 128 14 14 (602112)
I0403 21:49:58.793577 12981 net.cpp:156] Memory required for data: 1030800672
I0403 21:49:58.793601 12981 layer_factory.hpp:77] Creating layer inception_4c/relu_1x1
I0403 21:49:58.793622 12981 net.cpp:91] Creating Layer inception_4c/relu_1x1
I0403 21:49:58.793642 12981 net.cpp:425] inception_4c/relu_1x1 <- inception_4c/1x1
I0403 21:49:58.793663 12981 net.cpp:386] inception_4c/relu_1x1 -> inception_4c/1x1 (in-place)
I0403 21:49:58.793887 12981 net.cpp:141] Setting up inception_4c/relu_1x1
I0403 21:49:58.793922 12981 net.cpp:148] Top shape: 24 128 14 14 (602112)
I0403 21:49:58.793941 12981 net.cpp:156] Memory required for data: 1033209120
I0403 21:49:58.793961 12981 layer_factory.hpp:77] Creating layer inception_4c/3x3_reduce
I0403 21:49:58.793988 12981 net.cpp:91] Creating Layer inception_4c/3x3_reduce
I0403 21:49:58.794009 12981 net.cpp:425] inception_4c/3x3_reduce <- inception_4b/output_inception_4b/output_0_split_1
I0403 21:49:58.794034 12981 net.cpp:399] inception_4c/3x3_reduce -> inception_4c/3x3_reduce
I0403 21:49:58.796424 12981 net.cpp:141] Setting up inception_4c/3x3_reduce
I0403 21:49:58.796461 12981 net.cpp:148] Top shape: 24 128 14 14 (602112)
I0403 21:49:58.796480 12981 net.cpp:156] Memory required for data: 1035617568
I0403 21:49:58.796504 12981 layer_factory.hpp:77] Creating layer inception_4c/relu_3x3_reduce
I0403 21:49:58.796526 12981 net.cpp:91] Creating Layer inception_4c/relu_3x3_reduce
I0403 21:49:58.796546 12981 net.cpp:425] inception_4c/relu_3x3_reduce <- inception_4c/3x3_reduce
I0403 21:49:58.796572 12981 net.cpp:386] inception_4c/relu_3x3_reduce -> inception_4c/3x3_reduce (in-place)
I0403 21:49:58.796924 12981 net.cpp:141] Setting up inception_4c/relu_3x3_reduce
I0403 21:49:58.796958 12981 net.cpp:148] Top shape: 24 128 14 14 (602112)
I0403 21:49:58.796977 12981 net.cpp:156] Memory required for data: 1038026016
I0403 21:49:58.796995 12981 layer_factory.hpp:77] Creating layer inception_4c/3x3
I0403 21:49:58.797025 12981 net.cpp:91] Creating Layer inception_4c/3x3
I0403 21:49:58.797049 12981 net.cpp:425] inception_4c/3x3 <- inception_4c/3x3_reduce
I0403 21:49:58.797075 12981 net.cpp:399] inception_4c/3x3 -> inception_4c/3x3
I0403 21:49:58.801497 12981 net.cpp:141] Setting up inception_4c/3x3
I0403 21:49:58.801548 12981 net.cpp:148] Top shape: 24 256 14 14 (1204224)
I0403 21:49:58.801569 12981 net.cpp:156] Memory required for data: 1042842912
I0403 21:49:58.801609 12981 layer_factory.hpp:77] Creating layer inception_4c/relu_3x3
I0403 21:49:58.801635 12981 net.cpp:91] Creating Layer inception_4c/relu_3x3
I0403 21:49:58.801656 12981 net.cpp:425] inception_4c/relu_3x3 <- inception_4c/3x3
I0403 21:49:58.801679 12981 net.cpp:386] inception_4c/relu_3x3 -> inception_4c/3x3 (in-place)
I0403 21:49:58.801908 12981 net.cpp:141] Setting up inception_4c/relu_3x3
I0403 21:49:58.801939 12981 net.cpp:148] Top shape: 24 256 14 14 (1204224)
I0403 21:49:58.801956 12981 net.cpp:156] Memory required for data: 1047659808
I0403 21:49:58.801975 12981 layer_factory.hpp:77] Creating layer inception_4c/5x5_reduce
I0403 21:49:58.802003 12981 net.cpp:91] Creating Layer inception_4c/5x5_reduce
I0403 21:49:58.802024 12981 net.cpp:425] inception_4c/5x5_reduce <- inception_4b/output_inception_4b/output_0_split_2
I0403 21:49:58.802055 12981 net.cpp:399] inception_4c/5x5_reduce -> inception_4c/5x5_reduce
I0403 21:49:58.803418 12981 net.cpp:141] Setting up inception_4c/5x5_reduce
I0403 21:49:58.803453 12981 net.cpp:148] Top shape: 24 24 14 14 (112896)
I0403 21:49:58.803472 12981 net.cpp:156] Memory required for data: 1048111392
I0403 21:49:58.803496 12981 layer_factory.hpp:77] Creating layer inception_4c/relu_5x5_reduce
I0403 21:49:58.803521 12981 net.cpp:91] Creating Layer inception_4c/relu_5x5_reduce
I0403 21:49:58.803542 12981 net.cpp:425] inception_4c/relu_5x5_reduce <- inception_4c/5x5_reduce
I0403 21:49:58.803565 12981 net.cpp:386] inception_4c/relu_5x5_reduce -> inception_4c/5x5_reduce (in-place)
I0403 21:49:58.803793 12981 net.cpp:141] Setting up inception_4c/relu_5x5_reduce
I0403 21:49:58.803824 12981 net.cpp:148] Top shape: 24 24 14 14 (112896)
I0403 21:49:58.803843 12981 net.cpp:156] Memory required for data: 1048562976
I0403 21:49:58.803863 12981 layer_factory.hpp:77] Creating layer inception_4c/5x5
I0403 21:49:58.803889 12981 net.cpp:91] Creating Layer inception_4c/5x5
I0403 21:49:58.803912 12981 net.cpp:425] inception_4c/5x5 <- inception_4c/5x5_reduce
I0403 21:49:58.803936 12981 net.cpp:399] inception_4c/5x5 -> inception_4c/5x5
I0403 21:49:58.805469 12981 net.cpp:141] Setting up inception_4c/5x5
I0403 21:49:58.805505 12981 net.cpp:148] Top shape: 24 64 14 14 (301056)
I0403 21:49:58.805524 12981 net.cpp:156] Memory required for data: 1049767200
I0403 21:49:58.805548 12981 layer_factory.hpp:77] Creating layer inception_4c/relu_5x5
I0403 21:49:58.805577 12981 net.cpp:91] Creating Layer inception_4c/relu_5x5
I0403 21:49:58.805596 12981 net.cpp:425] inception_4c/relu_5x5 <- inception_4c/5x5
I0403 21:49:58.805619 12981 net.cpp:386] inception_4c/relu_5x5 -> inception_4c/5x5 (in-place)
I0403 21:49:58.805966 12981 net.cpp:141] Setting up inception_4c/relu_5x5
I0403 21:49:58.805999 12981 net.cpp:148] Top shape: 24 64 14 14 (301056)
I0403 21:49:58.806020 12981 net.cpp:156] Memory required for data: 1050971424
I0403 21:49:58.806038 12981 layer_factory.hpp:77] Creating layer inception_4c/pool
I0403 21:49:58.806063 12981 net.cpp:91] Creating Layer inception_4c/pool
I0403 21:49:58.806087 12981 net.cpp:425] inception_4c/pool <- inception_4b/output_inception_4b/output_0_split_3
I0403 21:49:58.806108 12981 net.cpp:399] inception_4c/pool -> inception_4c/pool
I0403 21:49:58.806200 12981 net.cpp:141] Setting up inception_4c/pool
I0403 21:49:58.806231 12981 net.cpp:148] Top shape: 24 512 14 14 (2408448)
I0403 21:49:58.806251 12981 net.cpp:156] Memory required for data: 1060605216
I0403 21:49:58.806269 12981 layer_factory.hpp:77] Creating layer inception_4c/pool_proj
I0403 21:49:58.806298 12981 net.cpp:91] Creating Layer inception_4c/pool_proj
I0403 21:49:58.806320 12981 net.cpp:425] inception_4c/pool_proj <- inception_4c/pool
I0403 21:49:58.806351 12981 net.cpp:399] inception_4c/pool_proj -> inception_4c/pool_proj
I0403 21:49:58.807848 12981 net.cpp:141] Setting up inception_4c/pool_proj
I0403 21:49:58.807883 12981 net.cpp:148] Top shape: 24 64 14 14 (301056)
I0403 21:49:58.807919 12981 net.cpp:156] Memory required for data: 1061809440
I0403 21:49:58.807945 12981 layer_factory.hpp:77] Creating layer inception_4c/relu_pool_proj
I0403 21:49:58.807968 12981 net.cpp:91] Creating Layer inception_4c/relu_pool_proj
I0403 21:49:58.807989 12981 net.cpp:425] inception_4c/relu_pool_proj <- inception_4c/pool_proj
I0403 21:49:58.808014 12981 net.cpp:386] inception_4c/relu_pool_proj -> inception_4c/pool_proj (in-place)
I0403 21:49:58.808248 12981 net.cpp:141] Setting up inception_4c/relu_pool_proj
I0403 21:49:58.808280 12981 net.cpp:148] Top shape: 24 64 14 14 (301056)
I0403 21:49:58.808300 12981 net.cpp:156] Memory required for data: 1063013664
I0403 21:49:58.808318 12981 layer_factory.hpp:77] Creating layer inception_4c/output
I0403 21:49:58.808342 12981 net.cpp:91] Creating Layer inception_4c/output
I0403 21:49:58.808362 12981 net.cpp:425] inception_4c/output <- inception_4c/1x1
I0403 21:49:58.808383 12981 net.cpp:425] inception_4c/output <- inception_4c/3x3
I0403 21:49:58.808403 12981 net.cpp:425] inception_4c/output <- inception_4c/5x5
I0403 21:49:58.808423 12981 net.cpp:425] inception_4c/output <- inception_4c/pool_proj
I0403 21:49:58.808445 12981 net.cpp:399] inception_4c/output -> inception_4c/output
I0403 21:49:58.808504 12981 net.cpp:141] Setting up inception_4c/output
I0403 21:49:58.808532 12981 net.cpp:148] Top shape: 24 512 14 14 (2408448)
I0403 21:49:58.808550 12981 net.cpp:156] Memory required for data: 1072647456
I0403 21:49:58.808568 12981 layer_factory.hpp:77] Creating layer inception_4c/output_inception_4c/output_0_split
I0403 21:49:58.808590 12981 net.cpp:91] Creating Layer inception_4c/output_inception_4c/output_0_split
I0403 21:49:58.808609 12981 net.cpp:425] inception_4c/output_inception_4c/output_0_split <- inception_4c/output
I0403 21:49:58.808634 12981 net.cpp:399] inception_4c/output_inception_4c/output_0_split -> inception_4c/output_inception_4c/output_0_split_0
I0403 21:49:58.808660 12981 net.cpp:399] inception_4c/output_inception_4c/output_0_split -> inception_4c/output_inception_4c/output_0_split_1
I0403 21:49:58.808686 12981 net.cpp:399] inception_4c/output_inception_4c/output_0_split -> inception_4c/output_inception_4c/output_0_split_2
I0403 21:49:58.808712 12981 net.cpp:399] inception_4c/output_inception_4c/output_0_split -> inception_4c/output_inception_4c/output_0_split_3
I0403 21:49:58.808818 12981 net.cpp:141] Setting up inception_4c/output_inception_4c/output_0_split
I0403 21:49:58.808846 12981 net.cpp:148] Top shape: 24 512 14 14 (2408448)
I0403 21:49:58.808867 12981 net.cpp:148] Top shape: 24 512 14 14 (2408448)
I0403 21:49:58.808887 12981 net.cpp:148] Top shape: 24 512 14 14 (2408448)
I0403 21:49:58.808907 12981 net.cpp:148] Top shape: 24 512 14 14 (2408448)
I0403 21:49:58.808923 12981 net.cpp:156] Memory required for data: 1111182624
I0403 21:49:58.808940 12981 layer_factory.hpp:77] Creating layer inception_4d/1x1
I0403 21:49:58.808969 12981 net.cpp:91] Creating Layer inception_4d/1x1
I0403 21:49:58.808991 12981 net.cpp:425] inception_4d/1x1 <- inception_4c/output_inception_4c/output_0_split_0
I0403 21:49:58.809017 12981 net.cpp:399] inception_4d/1x1 -> inception_4d/1x1
I0403 21:49:58.810727 12981 net.cpp:141] Setting up inception_4d/1x1
I0403 21:49:58.810765 12981 net.cpp:148] Top shape: 24 112 14 14 (526848)
I0403 21:49:58.810786 12981 net.cpp:156] Memory required for data: 1113290016
I0403 21:49:58.810809 12981 layer_factory.hpp:77] Creating layer inception_4d/relu_1x1
I0403 21:49:58.810832 12981 net.cpp:91] Creating Layer inception_4d/relu_1x1
I0403 21:49:58.810853 12981 net.cpp:425] inception_4d/relu_1x1 <- inception_4d/1x1
I0403 21:49:58.810878 12981 net.cpp:386] inception_4d/relu_1x1 -> inception_4d/1x1 (in-place)
I0403 21:49:58.811108 12981 net.cpp:141] Setting up inception_4d/relu_1x1
I0403 21:49:58.811139 12981 net.cpp:148] Top shape: 24 112 14 14 (526848)
I0403 21:49:58.811158 12981 net.cpp:156] Memory required for data: 1115397408
I0403 21:49:58.811184 12981 layer_factory.hpp:77] Creating layer inception_4d/3x3_reduce
I0403 21:49:58.811234 12981 net.cpp:91] Creating Layer inception_4d/3x3_reduce
I0403 21:49:58.811259 12981 net.cpp:425] inception_4d/3x3_reduce <- inception_4c/output_inception_4c/output_0_split_1
I0403 21:49:58.811286 12981 net.cpp:399] inception_4d/3x3_reduce -> inception_4d/3x3_reduce
I0403 21:49:58.813150 12981 net.cpp:141] Setting up inception_4d/3x3_reduce
I0403 21:49:58.813189 12981 net.cpp:148] Top shape: 24 144 14 14 (677376)
I0403 21:49:58.813210 12981 net.cpp:156] Memory required for data: 1118106912
I0403 21:49:58.813233 12981 layer_factory.hpp:77] Creating layer inception_4d/relu_3x3_reduce
I0403 21:49:58.813258 12981 net.cpp:91] Creating Layer inception_4d/relu_3x3_reduce
I0403 21:49:58.813278 12981 net.cpp:425] inception_4d/relu_3x3_reduce <- inception_4d/3x3_reduce
I0403 21:49:58.813299 12981 net.cpp:386] inception_4d/relu_3x3_reduce -> inception_4d/3x3_reduce (in-place)
I0403 21:49:58.813652 12981 net.cpp:141] Setting up inception_4d/relu_3x3_reduce
I0403 21:49:58.813684 12981 net.cpp:148] Top shape: 24 144 14 14 (677376)
I0403 21:49:58.813702 12981 net.cpp:156] Memory required for data: 1120816416
I0403 21:49:58.813720 12981 layer_factory.hpp:77] Creating layer inception_4d/3x3
I0403 21:49:58.813750 12981 net.cpp:91] Creating Layer inception_4d/3x3
I0403 21:49:58.813771 12981 net.cpp:425] inception_4d/3x3 <- inception_4d/3x3_reduce
I0403 21:49:58.813793 12981 net.cpp:399] inception_4d/3x3 -> inception_4d/3x3
I0403 21:49:58.819063 12981 net.cpp:141] Setting up inception_4d/3x3
I0403 21:49:58.819103 12981 net.cpp:148] Top shape: 24 288 14 14 (1354752)
I0403 21:49:58.819121 12981 net.cpp:156] Memory required for data: 1126235424
I0403 21:49:58.819144 12981 layer_factory.hpp:77] Creating layer inception_4d/relu_3x3
I0403 21:49:58.819166 12981 net.cpp:91] Creating Layer inception_4d/relu_3x3
I0403 21:49:58.819193 12981 net.cpp:425] inception_4d/relu_3x3 <- inception_4d/3x3
I0403 21:49:58.819219 12981 net.cpp:386] inception_4d/relu_3x3 -> inception_4d/3x3 (in-place)
I0403 21:49:58.819448 12981 net.cpp:141] Setting up inception_4d/relu_3x3
I0403 21:49:58.819479 12981 net.cpp:148] Top shape: 24 288 14 14 (1354752)
I0403 21:49:58.819496 12981 net.cpp:156] Memory required for data: 1131654432
I0403 21:49:58.819515 12981 layer_factory.hpp:77] Creating layer inception_4d/5x5_reduce
I0403 21:49:58.819542 12981 net.cpp:91] Creating Layer inception_4d/5x5_reduce
I0403 21:49:58.819566 12981 net.cpp:425] inception_4d/5x5_reduce <- inception_4c/output_inception_4c/output_0_split_2
I0403 21:49:58.819591 12981 net.cpp:399] inception_4d/5x5_reduce -> inception_4d/5x5_reduce
I0403 21:49:58.821001 12981 net.cpp:141] Setting up inception_4d/5x5_reduce
I0403 21:49:58.821034 12981 net.cpp:148] Top shape: 24 32 14 14 (150528)
I0403 21:49:58.821053 12981 net.cpp:156] Memory required for data: 1132256544
I0403 21:49:58.821075 12981 layer_factory.hpp:77] Creating layer inception_4d/relu_5x5_reduce
I0403 21:49:58.821097 12981 net.cpp:91] Creating Layer inception_4d/relu_5x5_reduce
I0403 21:49:58.821117 12981 net.cpp:425] inception_4d/relu_5x5_reduce <- inception_4d/5x5_reduce
I0403 21:49:58.821141 12981 net.cpp:386] inception_4d/relu_5x5_reduce -> inception_4d/5x5_reduce (in-place)
I0403 21:49:58.821391 12981 net.cpp:141] Setting up inception_4d/relu_5x5_reduce
I0403 21:49:58.821424 12981 net.cpp:148] Top shape: 24 32 14 14 (150528)
I0403 21:49:58.821440 12981 net.cpp:156] Memory required for data: 1132858656
I0403 21:49:58.821458 12981 layer_factory.hpp:77] Creating layer inception_4d/5x5
I0403 21:49:58.821486 12981 net.cpp:91] Creating Layer inception_4d/5x5
I0403 21:49:58.821507 12981 net.cpp:425] inception_4d/5x5 <- inception_4d/5x5_reduce
I0403 21:49:58.821532 12981 net.cpp:399] inception_4d/5x5 -> inception_4d/5x5
I0403 21:49:58.823350 12981 net.cpp:141] Setting up inception_4d/5x5
I0403 21:49:58.823385 12981 net.cpp:148] Top shape: 24 64 14 14 (301056)
I0403 21:49:58.823402 12981 net.cpp:156] Memory required for data: 1134062880
I0403 21:49:58.823426 12981 layer_factory.hpp:77] Creating layer inception_4d/relu_5x5
I0403 21:49:58.823468 12981 net.cpp:91] Creating Layer inception_4d/relu_5x5
I0403 21:49:58.823490 12981 net.cpp:425] inception_4d/relu_5x5 <- inception_4d/5x5
I0403 21:49:58.823511 12981 net.cpp:386] inception_4d/relu_5x5 -> inception_4d/5x5 (in-place)
I0403 21:49:58.823874 12981 net.cpp:141] Setting up inception_4d/relu_5x5
I0403 21:49:58.823907 12981 net.cpp:148] Top shape: 24 64 14 14 (301056)
I0403 21:49:58.823925 12981 net.cpp:156] Memory required for data: 1135267104
I0403 21:49:58.823945 12981 layer_factory.hpp:77] Creating layer inception_4d/pool
I0403 21:49:58.823969 12981 net.cpp:91] Creating Layer inception_4d/pool
I0403 21:49:58.823990 12981 net.cpp:425] inception_4d/pool <- inception_4c/output_inception_4c/output_0_split_3
I0403 21:49:58.824012 12981 net.cpp:399] inception_4d/pool -> inception_4d/pool
I0403 21:49:58.824096 12981 net.cpp:141] Setting up inception_4d/pool
I0403 21:49:58.824126 12981 net.cpp:148] Top shape: 24 512 14 14 (2408448)
I0403 21:49:58.824143 12981 net.cpp:156] Memory required for data: 1144900896
I0403 21:49:58.824162 12981 layer_factory.hpp:77] Creating layer inception_4d/pool_proj
I0403 21:49:58.824194 12981 net.cpp:91] Creating Layer inception_4d/pool_proj
I0403 21:49:58.824216 12981 net.cpp:425] inception_4d/pool_proj <- inception_4d/pool
I0403 21:49:58.824241 12981 net.cpp:399] inception_4d/pool_proj -> inception_4d/pool_proj
I0403 21:49:58.826417 12981 net.cpp:141] Setting up inception_4d/pool_proj
I0403 21:49:58.826455 12981 net.cpp:148] Top shape: 24 64 14 14 (301056)
I0403 21:49:58.826474 12981 net.cpp:156] Memory required for data: 1146105120
I0403 21:49:58.826496 12981 layer_factory.hpp:77] Creating layer inception_4d/relu_pool_proj
I0403 21:49:58.826519 12981 net.cpp:91] Creating Layer inception_4d/relu_pool_proj
I0403 21:49:58.826539 12981 net.cpp:425] inception_4d/relu_pool_proj <- inception_4d/pool_proj
I0403 21:49:58.826563 12981 net.cpp:386] inception_4d/relu_pool_proj -> inception_4d/pool_proj (in-place)
I0403 21:49:58.826792 12981 net.cpp:141] Setting up inception_4d/relu_pool_proj
I0403 21:49:58.826822 12981 net.cpp:148] Top shape: 24 64 14 14 (301056)
I0403 21:49:58.826840 12981 net.cpp:156] Memory required for data: 1147309344
I0403 21:49:58.826858 12981 layer_factory.hpp:77] Creating layer inception_4d/output
I0403 21:49:58.826879 12981 net.cpp:91] Creating Layer inception_4d/output
I0403 21:49:58.826899 12981 net.cpp:425] inception_4d/output <- inception_4d/1x1
I0403 21:49:58.826920 12981 net.cpp:425] inception_4d/output <- inception_4d/3x3
I0403 21:49:58.826938 12981 net.cpp:425] inception_4d/output <- inception_4d/5x5
I0403 21:49:58.826957 12981 net.cpp:425] inception_4d/output <- inception_4d/pool_proj
I0403 21:49:58.826980 12981 net.cpp:399] inception_4d/output -> inception_4d/output
I0403 21:49:58.827041 12981 net.cpp:141] Setting up inception_4d/output
I0403 21:49:58.827069 12981 net.cpp:148] Top shape: 24 528 14 14 (2483712)
I0403 21:49:58.827087 12981 net.cpp:156] Memory required for data: 1157244192
I0403 21:49:58.827105 12981 layer_factory.hpp:77] Creating layer inception_4d/output_inception_4d/output_0_split
I0403 21:49:58.827126 12981 net.cpp:91] Creating Layer inception_4d/output_inception_4d/output_0_split
I0403 21:49:58.827147 12981 net.cpp:425] inception_4d/output_inception_4d/output_0_split <- inception_4d/output
I0403 21:49:58.827172 12981 net.cpp:399] inception_4d/output_inception_4d/output_0_split -> inception_4d/output_inception_4d/output_0_split_0
I0403 21:49:58.827205 12981 net.cpp:399] inception_4d/output_inception_4d/output_0_split -> inception_4d/output_inception_4d/output_0_split_1
I0403 21:49:58.827234 12981 net.cpp:399] inception_4d/output_inception_4d/output_0_split -> inception_4d/output_inception_4d/output_0_split_2
I0403 21:49:58.827258 12981 net.cpp:399] inception_4d/output_inception_4d/output_0_split -> inception_4d/output_inception_4d/output_0_split_3
I0403 21:49:58.827283 12981 net.cpp:399] inception_4d/output_inception_4d/output_0_split -> inception_4d/output_inception_4d/output_0_split_4
I0403 21:49:58.827409 12981 net.cpp:141] Setting up inception_4d/output_inception_4d/output_0_split
I0403 21:49:58.827455 12981 net.cpp:148] Top shape: 24 528 14 14 (2483712)
I0403 21:49:58.827477 12981 net.cpp:148] Top shape: 24 528 14 14 (2483712)
I0403 21:49:58.827497 12981 net.cpp:148] Top shape: 24 528 14 14 (2483712)
I0403 21:49:58.827515 12981 net.cpp:148] Top shape: 24 528 14 14 (2483712)
I0403 21:49:58.827534 12981 net.cpp:148] Top shape: 24 528 14 14 (2483712)
I0403 21:49:58.827551 12981 net.cpp:156] Memory required for data: 1206918432
I0403 21:49:58.827569 12981 layer_factory.hpp:77] Creating layer loss2/ave_pool
I0403 21:49:58.827590 12981 net.cpp:91] Creating Layer loss2/ave_pool
I0403 21:49:58.827610 12981 net.cpp:425] loss2/ave_pool <- inception_4d/output_inception_4d/output_0_split_0
I0403 21:49:58.827636 12981 net.cpp:399] loss2/ave_pool -> loss2/ave_pool
I0403 21:49:58.828013 12981 net.cpp:141] Setting up loss2/ave_pool
I0403 21:49:58.828048 12981 net.cpp:148] Top shape: 24 528 4 4 (202752)
I0403 21:49:58.828068 12981 net.cpp:156] Memory required for data: 1207729440
I0403 21:49:58.828085 12981 layer_factory.hpp:77] Creating layer loss2/conv
I0403 21:49:58.828114 12981 net.cpp:91] Creating Layer loss2/conv
I0403 21:49:58.828135 12981 net.cpp:425] loss2/conv <- loss2/ave_pool
I0403 21:49:58.828157 12981 net.cpp:399] loss2/conv -> loss2/conv
I0403 21:49:58.830487 12981 net.cpp:141] Setting up loss2/conv
I0403 21:49:58.830523 12981 net.cpp:148] Top shape: 24 128 4 4 (49152)
I0403 21:49:58.830543 12981 net.cpp:156] Memory required for data: 1207926048
I0403 21:49:58.830565 12981 layer_factory.hpp:77] Creating layer loss2/relu_conv
I0403 21:49:58.830590 12981 net.cpp:91] Creating Layer loss2/relu_conv
I0403 21:49:58.830612 12981 net.cpp:425] loss2/relu_conv <- loss2/conv
I0403 21:49:58.830633 12981 net.cpp:386] loss2/relu_conv -> loss2/conv (in-place)
I0403 21:49:58.830986 12981 net.cpp:141] Setting up loss2/relu_conv
I0403 21:49:58.831019 12981 net.cpp:148] Top shape: 24 128 4 4 (49152)
I0403 21:49:58.831038 12981 net.cpp:156] Memory required for data: 1208122656
I0403 21:49:58.831056 12981 layer_factory.hpp:77] Creating layer loss2/fc
I0403 21:49:58.831082 12981 net.cpp:91] Creating Layer loss2/fc
I0403 21:49:58.831102 12981 net.cpp:425] loss2/fc <- loss2/conv
I0403 21:49:58.831128 12981 net.cpp:399] loss2/fc -> loss2/fc
I0403 21:49:58.853389 12981 net.cpp:141] Setting up loss2/fc
I0403 21:49:58.853435 12981 net.cpp:148] Top shape: 24 1024 (24576)
I0403 21:49:58.853457 12981 net.cpp:156] Memory required for data: 1208220960
I0403 21:49:58.853482 12981 layer_factory.hpp:77] Creating layer loss2/relu_fc
I0403 21:49:58.853507 12981 net.cpp:91] Creating Layer loss2/relu_fc
I0403 21:49:58.853528 12981 net.cpp:425] loss2/relu_fc <- loss2/fc
I0403 21:49:58.853551 12981 net.cpp:386] loss2/relu_fc -> loss2/fc (in-place)
I0403 21:49:58.853921 12981 net.cpp:141] Setting up loss2/relu_fc
I0403 21:49:58.853955 12981 net.cpp:148] Top shape: 24 1024 (24576)
I0403 21:49:58.853972 12981 net.cpp:156] Memory required for data: 1208319264
I0403 21:49:58.853991 12981 layer_factory.hpp:77] Creating layer loss2/drop_fc
I0403 21:49:58.854012 12981 net.cpp:91] Creating Layer loss2/drop_fc
I0403 21:49:58.854032 12981 net.cpp:425] loss2/drop_fc <- loss2/fc
I0403 21:49:58.854058 12981 net.cpp:386] loss2/drop_fc -> loss2/fc (in-place)
I0403 21:49:58.854120 12981 net.cpp:141] Setting up loss2/drop_fc
I0403 21:49:58.854151 12981 net.cpp:148] Top shape: 24 1024 (24576)
I0403 21:49:58.854168 12981 net.cpp:156] Memory required for data: 1208417568
I0403 21:49:58.854193 12981 layer_factory.hpp:77] Creating layer loss2/classifier_plantvillage
I0403 21:49:58.854217 12981 net.cpp:91] Creating Layer loss2/classifier_plantvillage
I0403 21:49:58.854236 12981 net.cpp:425] loss2/classifier_plantvillage <- loss2/fc
I0403 21:49:58.854264 12981 net.cpp:399] loss2/classifier_plantvillage -> loss2/classifier_plantvillage
I0403 21:49:58.854763 12981 net.cpp:141] Setting up loss2/classifier_plantvillage
I0403 21:49:58.854794 12981 net.cpp:148] Top shape: 24 38 (912)
I0403 21:49:58.854811 12981 net.cpp:156] Memory required for data: 1208421216
I0403 21:49:58.854856 12981 layer_factory.hpp:77] Creating layer loss2/classifier_plantvillage_loss2/classifier_plantvillage_0_split
I0403 21:49:58.854882 12981 net.cpp:91] Creating Layer loss2/classifier_plantvillage_loss2/classifier_plantvillage_0_split
I0403 21:49:58.854904 12981 net.cpp:425] loss2/classifier_plantvillage_loss2/classifier_plantvillage_0_split <- loss2/classifier_plantvillage
I0403 21:49:58.854925 12981 net.cpp:399] loss2/classifier_plantvillage_loss2/classifier_plantvillage_0_split -> loss2/classifier_plantvillage_loss2/classifier_plantvillage_0_split_0
I0403 21:49:58.854950 12981 net.cpp:399] loss2/classifier_plantvillage_loss2/classifier_plantvillage_0_split -> loss2/classifier_plantvillage_loss2/classifier_plantvillage_0_split_1
I0403 21:49:58.854977 12981 net.cpp:399] loss2/classifier_plantvillage_loss2/classifier_plantvillage_0_split -> loss2/classifier_plantvillage_loss2/classifier_plantvillage_0_split_2
I0403 21:49:58.855075 12981 net.cpp:141] Setting up loss2/classifier_plantvillage_loss2/classifier_plantvillage_0_split
I0403 21:49:58.855103 12981 net.cpp:148] Top shape: 24 38 (912)
I0403 21:49:58.855123 12981 net.cpp:148] Top shape: 24 38 (912)
I0403 21:49:58.855144 12981 net.cpp:148] Top shape: 24 38 (912)
I0403 21:49:58.855160 12981 net.cpp:156] Memory required for data: 1208432160
I0403 21:49:58.855183 12981 layer_factory.hpp:77] Creating layer inception_4e/1x1
I0403 21:49:58.855212 12981 net.cpp:91] Creating Layer inception_4e/1x1
I0403 21:49:58.855234 12981 net.cpp:425] inception_4e/1x1 <- inception_4d/output_inception_4d/output_0_split_1
I0403 21:49:58.855257 12981 net.cpp:399] inception_4e/1x1 -> inception_4e/1x1
I0403 21:49:58.857506 12981 net.cpp:141] Setting up inception_4e/1x1
I0403 21:49:58.857539 12981 net.cpp:148] Top shape: 24 256 14 14 (1204224)
I0403 21:49:58.857559 12981 net.cpp:156] Memory required for data: 1213249056
I0403 21:49:58.857581 12981 layer_factory.hpp:77] Creating layer inception_4e/relu_1x1
I0403 21:49:58.857606 12981 net.cpp:91] Creating Layer inception_4e/relu_1x1
I0403 21:49:58.857626 12981 net.cpp:425] inception_4e/relu_1x1 <- inception_4e/1x1
I0403 21:49:58.857648 12981 net.cpp:386] inception_4e/relu_1x1 -> inception_4e/1x1 (in-place)
I0403 21:49:58.858006 12981 net.cpp:141] Setting up inception_4e/relu_1x1
I0403 21:49:58.858038 12981 net.cpp:148] Top shape: 24 256 14 14 (1204224)
I0403 21:49:58.858057 12981 net.cpp:156] Memory required for data: 1218065952
I0403 21:49:58.858077 12981 layer_factory.hpp:77] Creating layer inception_4e/3x3_reduce
I0403 21:49:58.858104 12981 net.cpp:91] Creating Layer inception_4e/3x3_reduce
I0403 21:49:58.858125 12981 net.cpp:425] inception_4e/3x3_reduce <- inception_4d/output_inception_4d/output_0_split_2
I0403 21:49:58.858152 12981 net.cpp:399] inception_4e/3x3_reduce -> inception_4e/3x3_reduce
I0403 21:49:58.860776 12981 net.cpp:141] Setting up inception_4e/3x3_reduce
I0403 21:49:58.860813 12981 net.cpp:148] Top shape: 24 160 14 14 (752640)
I0403 21:49:58.860832 12981 net.cpp:156] Memory required for data: 1221076512
I0403 21:49:58.860854 12981 layer_factory.hpp:77] Creating layer inception_4e/relu_3x3_reduce
I0403 21:49:58.860879 12981 net.cpp:91] Creating Layer inception_4e/relu_3x3_reduce
I0403 21:49:58.860901 12981 net.cpp:425] inception_4e/relu_3x3_reduce <- inception_4e/3x3_reduce
I0403 21:49:58.860923 12981 net.cpp:386] inception_4e/relu_3x3_reduce -> inception_4e/3x3_reduce (in-place)
I0403 21:49:58.861151 12981 net.cpp:141] Setting up inception_4e/relu_3x3_reduce
I0403 21:49:58.861192 12981 net.cpp:148] Top shape: 24 160 14 14 (752640)
I0403 21:49:58.861213 12981 net.cpp:156] Memory required for data: 1224087072
I0403 21:49:58.861232 12981 layer_factory.hpp:77] Creating layer inception_4e/3x3
I0403 21:49:58.861256 12981 net.cpp:91] Creating Layer inception_4e/3x3
I0403 21:49:58.861276 12981 net.cpp:425] inception_4e/3x3 <- inception_4e/3x3_reduce
I0403 21:49:58.861301 12981 net.cpp:399] inception_4e/3x3 -> inception_4e/3x3
I0403 21:49:58.867574 12981 net.cpp:141] Setting up inception_4e/3x3
I0403 21:49:58.867629 12981 net.cpp:148] Top shape: 24 320 14 14 (1505280)
I0403 21:49:58.867650 12981 net.cpp:156] Memory required for data: 1230108192
I0403 21:49:58.867672 12981 layer_factory.hpp:77] Creating layer inception_4e/relu_3x3
I0403 21:49:58.867694 12981 net.cpp:91] Creating Layer inception_4e/relu_3x3
I0403 21:49:58.867714 12981 net.cpp:425] inception_4e/relu_3x3 <- inception_4e/3x3
I0403 21:49:58.867735 12981 net.cpp:386] inception_4e/relu_3x3 -> inception_4e/3x3 (in-place)
I0403 21:49:58.868096 12981 net.cpp:141] Setting up inception_4e/relu_3x3
I0403 21:49:58.868131 12981 net.cpp:148] Top shape: 24 320 14 14 (1505280)
I0403 21:49:58.868149 12981 net.cpp:156] Memory required for data: 1236129312
I0403 21:49:58.868168 12981 layer_factory.hpp:77] Creating layer inception_4e/5x5_reduce
I0403 21:49:58.868204 12981 net.cpp:91] Creating Layer inception_4e/5x5_reduce
I0403 21:49:58.868227 12981 net.cpp:425] inception_4e/5x5_reduce <- inception_4d/output_inception_4d/output_0_split_3
I0403 21:49:58.868254 12981 net.cpp:399] inception_4e/5x5_reduce -> inception_4e/5x5_reduce
I0403 21:49:58.869573 12981 net.cpp:141] Setting up inception_4e/5x5_reduce
I0403 21:49:58.869607 12981 net.cpp:148] Top shape: 24 32 14 14 (150528)
I0403 21:49:58.869626 12981 net.cpp:156] Memory required for data: 1236731424
I0403 21:49:58.869648 12981 layer_factory.hpp:77] Creating layer inception_4e/relu_5x5_reduce
I0403 21:49:58.869674 12981 net.cpp:91] Creating Layer inception_4e/relu_5x5_reduce
I0403 21:49:58.869695 12981 net.cpp:425] inception_4e/relu_5x5_reduce <- inception_4e/5x5_reduce
I0403 21:49:58.869716 12981 net.cpp:386] inception_4e/relu_5x5_reduce -> inception_4e/5x5_reduce (in-place)
I0403 21:49:58.870076 12981 net.cpp:141] Setting up inception_4e/relu_5x5_reduce
I0403 21:49:58.870108 12981 net.cpp:148] Top shape: 24 32 14 14 (150528)
I0403 21:49:58.870127 12981 net.cpp:156] Memory required for data: 1237333536
I0403 21:49:58.870146 12981 layer_factory.hpp:77] Creating layer inception_4e/5x5
I0403 21:49:58.870200 12981 net.cpp:91] Creating Layer inception_4e/5x5
I0403 21:49:58.870225 12981 net.cpp:425] inception_4e/5x5 <- inception_4e/5x5_reduce
I0403 21:49:58.870249 12981 net.cpp:399] inception_4e/5x5 -> inception_4e/5x5
I0403 21:49:58.872519 12981 net.cpp:141] Setting up inception_4e/5x5
I0403 21:49:58.872553 12981 net.cpp:148] Top shape: 24 128 14 14 (602112)
I0403 21:49:58.872572 12981 net.cpp:156] Memory required for data: 1239741984
I0403 21:49:58.872596 12981 layer_factory.hpp:77] Creating layer inception_4e/relu_5x5
I0403 21:49:58.872617 12981 net.cpp:91] Creating Layer inception_4e/relu_5x5
I0403 21:49:58.872642 12981 net.cpp:425] inception_4e/relu_5x5 <- inception_4e/5x5
I0403 21:49:58.872661 12981 net.cpp:386] inception_4e/relu_5x5 -> inception_4e/5x5 (in-place)
I0403 21:49:58.873129 12981 net.cpp:141] Setting up inception_4e/relu_5x5
I0403 21:49:58.873162 12981 net.cpp:148] Top shape: 24 128 14 14 (602112)
I0403 21:49:58.873186 12981 net.cpp:156] Memory required for data: 1242150432
I0403 21:49:58.873206 12981 layer_factory.hpp:77] Creating layer inception_4e/pool
I0403 21:49:58.873232 12981 net.cpp:91] Creating Layer inception_4e/pool
I0403 21:49:58.873253 12981 net.cpp:425] inception_4e/pool <- inception_4d/output_inception_4d/output_0_split_4
I0403 21:49:58.873276 12981 net.cpp:399] inception_4e/pool -> inception_4e/pool
I0403 21:49:58.873366 12981 net.cpp:141] Setting up inception_4e/pool
I0403 21:49:58.873396 12981 net.cpp:148] Top shape: 24 528 14 14 (2483712)
I0403 21:49:58.873414 12981 net.cpp:156] Memory required for data: 1252085280
I0403 21:49:58.873430 12981 layer_factory.hpp:77] Creating layer inception_4e/pool_proj
I0403 21:49:58.873458 12981 net.cpp:91] Creating Layer inception_4e/pool_proj
I0403 21:49:58.873479 12981 net.cpp:425] inception_4e/pool_proj <- inception_4e/pool
I0403 21:49:58.873505 12981 net.cpp:399] inception_4e/pool_proj -> inception_4e/pool_proj
I0403 21:49:58.875383 12981 net.cpp:141] Setting up inception_4e/pool_proj
I0403 21:49:58.875422 12981 net.cpp:148] Top shape: 24 128 14 14 (602112)
I0403 21:49:58.875458 12981 net.cpp:156] Memory required for data: 1254493728
I0403 21:49:58.875483 12981 layer_factory.hpp:77] Creating layer inception_4e/relu_pool_proj
I0403 21:49:58.875505 12981 net.cpp:91] Creating Layer inception_4e/relu_pool_proj
I0403 21:49:58.875526 12981 net.cpp:425] inception_4e/relu_pool_proj <- inception_4e/pool_proj
I0403 21:49:58.875550 12981 net.cpp:386] inception_4e/relu_pool_proj -> inception_4e/pool_proj (in-place)
I0403 21:49:58.875907 12981 net.cpp:141] Setting up inception_4e/relu_pool_proj
I0403 21:49:58.875943 12981 net.cpp:148] Top shape: 24 128 14 14 (602112)
I0403 21:49:58.875963 12981 net.cpp:156] Memory required for data: 1256902176
I0403 21:49:58.875982 12981 layer_factory.hpp:77] Creating layer inception_4e/output
I0403 21:49:58.876003 12981 net.cpp:91] Creating Layer inception_4e/output
I0403 21:49:58.876024 12981 net.cpp:425] inception_4e/output <- inception_4e/1x1
I0403 21:49:58.876044 12981 net.cpp:425] inception_4e/output <- inception_4e/3x3
I0403 21:49:58.876062 12981 net.cpp:425] inception_4e/output <- inception_4e/5x5
I0403 21:49:58.876081 12981 net.cpp:425] inception_4e/output <- inception_4e/pool_proj
I0403 21:49:58.876104 12981 net.cpp:399] inception_4e/output -> inception_4e/output
I0403 21:49:58.876166 12981 net.cpp:141] Setting up inception_4e/output
I0403 21:49:58.876202 12981 net.cpp:148] Top shape: 24 832 14 14 (3913728)
I0403 21:49:58.876221 12981 net.cpp:156] Memory required for data: 1272557088
I0403 21:49:58.876240 12981 layer_factory.hpp:77] Creating layer pool4/3x3_s2
I0403 21:49:58.876268 12981 net.cpp:91] Creating Layer pool4/3x3_s2
I0403 21:49:58.876291 12981 net.cpp:425] pool4/3x3_s2 <- inception_4e/output
I0403 21:49:58.876314 12981 net.cpp:399] pool4/3x3_s2 -> pool4/3x3_s2
I0403 21:49:58.876399 12981 net.cpp:141] Setting up pool4/3x3_s2
I0403 21:49:58.876428 12981 net.cpp:148] Top shape: 24 832 7 7 (978432)
I0403 21:49:58.876447 12981 net.cpp:156] Memory required for data: 1276470816
I0403 21:49:58.876466 12981 layer_factory.hpp:77] Creating layer pool4/3x3_s2_pool4/3x3_s2_0_split
I0403 21:49:58.876489 12981 net.cpp:91] Creating Layer pool4/3x3_s2_pool4/3x3_s2_0_split
I0403 21:49:58.876509 12981 net.cpp:425] pool4/3x3_s2_pool4/3x3_s2_0_split <- pool4/3x3_s2
I0403 21:49:58.876531 12981 net.cpp:399] pool4/3x3_s2_pool4/3x3_s2_0_split -> pool4/3x3_s2_pool4/3x3_s2_0_split_0
I0403 21:49:58.876554 12981 net.cpp:399] pool4/3x3_s2_pool4/3x3_s2_0_split -> pool4/3x3_s2_pool4/3x3_s2_0_split_1
I0403 21:49:58.876579 12981 net.cpp:399] pool4/3x3_s2_pool4/3x3_s2_0_split -> pool4/3x3_s2_pool4/3x3_s2_0_split_2
I0403 21:49:58.876603 12981 net.cpp:399] pool4/3x3_s2_pool4/3x3_s2_0_split -> pool4/3x3_s2_pool4/3x3_s2_0_split_3
I0403 21:49:58.876718 12981 net.cpp:141] Setting up pool4/3x3_s2_pool4/3x3_s2_0_split
I0403 21:49:58.876746 12981 net.cpp:148] Top shape: 24 832 7 7 (978432)
I0403 21:49:58.876767 12981 net.cpp:148] Top shape: 24 832 7 7 (978432)
I0403 21:49:58.876787 12981 net.cpp:148] Top shape: 24 832 7 7 (978432)
I0403 21:49:58.876806 12981 net.cpp:148] Top shape: 24 832 7 7 (978432)
I0403 21:49:58.876822 12981 net.cpp:156] Memory required for data: 1292125728
I0403 21:49:58.876839 12981 layer_factory.hpp:77] Creating layer inception_5a/1x1
I0403 21:49:58.876866 12981 net.cpp:91] Creating Layer inception_5a/1x1
I0403 21:49:58.876888 12981 net.cpp:425] inception_5a/1x1 <- pool4/3x3_s2_pool4/3x3_s2_0_split_0
I0403 21:49:58.876914 12981 net.cpp:399] inception_5a/1x1 -> inception_5a/1x1
I0403 21:49:58.880476 12981 net.cpp:141] Setting up inception_5a/1x1
I0403 21:49:58.880513 12981 net.cpp:148] Top shape: 24 256 7 7 (301056)
I0403 21:49:58.880533 12981 net.cpp:156] Memory required for data: 1293329952
I0403 21:49:58.880555 12981 layer_factory.hpp:77] Creating layer inception_5a/relu_1x1
I0403 21:49:58.880580 12981 net.cpp:91] Creating Layer inception_5a/relu_1x1
I0403 21:49:58.880602 12981 net.cpp:425] inception_5a/relu_1x1 <- inception_5a/1x1
I0403 21:49:58.880625 12981 net.cpp:386] inception_5a/relu_1x1 -> inception_5a/1x1 (in-place)
I0403 21:49:58.881007 12981 net.cpp:141] Setting up inception_5a/relu_1x1
I0403 21:49:58.881042 12981 net.cpp:148] Top shape: 24 256 7 7 (301056)
I0403 21:49:58.881060 12981 net.cpp:156] Memory required for data: 1294534176
I0403 21:49:58.881079 12981 layer_factory.hpp:77] Creating layer inception_5a/3x3_reduce
I0403 21:49:58.881106 12981 net.cpp:91] Creating Layer inception_5a/3x3_reduce
I0403 21:49:58.881134 12981 net.cpp:425] inception_5a/3x3_reduce <- pool4/3x3_s2_pool4/3x3_s2_0_split_1
I0403 21:49:58.881166 12981 net.cpp:399] inception_5a/3x3_reduce -> inception_5a/3x3_reduce
I0403 21:49:58.884289 12981 net.cpp:141] Setting up inception_5a/3x3_reduce
I0403 21:49:58.884330 12981 net.cpp:148] Top shape: 24 160 7 7 (188160)
I0403 21:49:58.884349 12981 net.cpp:156] Memory required for data: 1295286816
I0403 21:49:58.884376 12981 layer_factory.hpp:77] Creating layer inception_5a/relu_3x3_reduce
I0403 21:49:58.884403 12981 net.cpp:91] Creating Layer inception_5a/relu_3x3_reduce
I0403 21:49:58.884424 12981 net.cpp:425] inception_5a/relu_3x3_reduce <- inception_5a/3x3_reduce
I0403 21:49:58.884449 12981 net.cpp:386] inception_5a/relu_3x3_reduce -> inception_5a/3x3_reduce (in-place)
I0403 21:49:58.884699 12981 net.cpp:141] Setting up inception_5a/relu_3x3_reduce
I0403 21:49:58.884735 12981 net.cpp:148] Top shape: 24 160 7 7 (188160)
I0403 21:49:58.884755 12981 net.cpp:156] Memory required for data: 1296039456
I0403 21:49:58.884773 12981 layer_factory.hpp:77] Creating layer inception_5a/3x3
I0403 21:49:58.884800 12981 net.cpp:91] Creating Layer inception_5a/3x3
I0403 21:49:58.884826 12981 net.cpp:425] inception_5a/3x3 <- inception_5a/3x3_reduce
I0403 21:49:58.884858 12981 net.cpp:399] inception_5a/3x3 -> inception_5a/3x3
I0403 21:49:58.891124 12981 net.cpp:141] Setting up inception_5a/3x3
I0403 21:49:58.891161 12981 net.cpp:148] Top shape: 24 320 7 7 (376320)
I0403 21:49:58.891186 12981 net.cpp:156] Memory required for data: 1297544736
I0403 21:49:58.891211 12981 layer_factory.hpp:77] Creating layer inception_5a/relu_3x3
I0403 21:49:58.891237 12981 net.cpp:91] Creating Layer inception_5a/relu_3x3
I0403 21:49:58.891258 12981 net.cpp:425] inception_5a/relu_3x3 <- inception_5a/3x3
I0403 21:49:58.891278 12981 net.cpp:386] inception_5a/relu_3x3 -> inception_5a/3x3 (in-place)
I0403 21:49:58.891635 12981 net.cpp:141] Setting up inception_5a/relu_3x3
I0403 21:49:58.891669 12981 net.cpp:148] Top shape: 24 320 7 7 (376320)
I0403 21:49:58.891686 12981 net.cpp:156] Memory required for data: 1299050016
I0403 21:49:58.891705 12981 layer_factory.hpp:77] Creating layer inception_5a/5x5_reduce
I0403 21:49:58.891731 12981 net.cpp:91] Creating Layer inception_5a/5x5_reduce
I0403 21:49:58.891753 12981 net.cpp:425] inception_5a/5x5_reduce <- pool4/3x3_s2_pool4/3x3_s2_0_split_2
I0403 21:49:58.891779 12981 net.cpp:399] inception_5a/5x5_reduce -> inception_5a/5x5_reduce
I0403 21:49:58.893244 12981 net.cpp:141] Setting up inception_5a/5x5_reduce
I0403 21:49:58.893280 12981 net.cpp:148] Top shape: 24 32 7 7 (37632)
I0403 21:49:58.893299 12981 net.cpp:156] Memory required for data: 1299200544
I0403 21:49:58.893322 12981 layer_factory.hpp:77] Creating layer inception_5a/relu_5x5_reduce
I0403 21:49:58.893347 12981 net.cpp:91] Creating Layer inception_5a/relu_5x5_reduce
I0403 21:49:58.893368 12981 net.cpp:425] inception_5a/relu_5x5_reduce <- inception_5a/5x5_reduce
I0403 21:49:58.893388 12981 net.cpp:386] inception_5a/relu_5x5_reduce -> inception_5a/5x5_reduce (in-place)
I0403 21:49:58.893759 12981 net.cpp:141] Setting up inception_5a/relu_5x5_reduce
I0403 21:49:58.893792 12981 net.cpp:148] Top shape: 24 32 7 7 (37632)
I0403 21:49:58.893810 12981 net.cpp:156] Memory required for data: 1299351072
I0403 21:49:58.893828 12981 layer_factory.hpp:77] Creating layer inception_5a/5x5
I0403 21:49:58.893856 12981 net.cpp:91] Creating Layer inception_5a/5x5
I0403 21:49:58.893877 12981 net.cpp:425] inception_5a/5x5 <- inception_5a/5x5_reduce
I0403 21:49:58.893901 12981 net.cpp:399] inception_5a/5x5 -> inception_5a/5x5
I0403 21:49:58.896037 12981 net.cpp:141] Setting up inception_5a/5x5
I0403 21:49:58.896085 12981 net.cpp:148] Top shape: 24 128 7 7 (150528)
I0403 21:49:58.896106 12981 net.cpp:156] Memory required for data: 1299953184
I0403 21:49:58.896128 12981 layer_factory.hpp:77] Creating layer inception_5a/relu_5x5
I0403 21:49:58.896153 12981 net.cpp:91] Creating Layer inception_5a/relu_5x5
I0403 21:49:58.896174 12981 net.cpp:425] inception_5a/relu_5x5 <- inception_5a/5x5
I0403 21:49:58.896203 12981 net.cpp:386] inception_5a/relu_5x5 -> inception_5a/5x5 (in-place)
I0403 21:49:58.896440 12981 net.cpp:141] Setting up inception_5a/relu_5x5
I0403 21:49:58.896471 12981 net.cpp:148] Top shape: 24 128 7 7 (150528)
I0403 21:49:58.896489 12981 net.cpp:156] Memory required for data: 1300555296
I0403 21:49:58.896507 12981 layer_factory.hpp:77] Creating layer inception_5a/pool
I0403 21:49:58.896530 12981 net.cpp:91] Creating Layer inception_5a/pool
I0403 21:49:58.896551 12981 net.cpp:425] inception_5a/pool <- pool4/3x3_s2_pool4/3x3_s2_0_split_3
I0403 21:49:58.896574 12981 net.cpp:399] inception_5a/pool -> inception_5a/pool
I0403 21:49:58.896663 12981 net.cpp:141] Setting up inception_5a/pool
I0403 21:49:58.896692 12981 net.cpp:148] Top shape: 24 832 7 7 (978432)
I0403 21:49:58.896709 12981 net.cpp:156] Memory required for data: 1304469024
I0403 21:49:58.896726 12981 layer_factory.hpp:77] Creating layer inception_5a/pool_proj
I0403 21:49:58.896754 12981 net.cpp:91] Creating Layer inception_5a/pool_proj
I0403 21:49:58.896775 12981 net.cpp:425] inception_5a/pool_proj <- inception_5a/pool
I0403 21:49:58.896800 12981 net.cpp:399] inception_5a/pool_proj -> inception_5a/pool_proj
I0403 21:49:58.899600 12981 net.cpp:141] Setting up inception_5a/pool_proj
I0403 21:49:58.899636 12981 net.cpp:148] Top shape: 24 128 7 7 (150528)
I0403 21:49:58.899654 12981 net.cpp:156] Memory required for data: 1305071136
I0403 21:49:58.899677 12981 layer_factory.hpp:77] Creating layer inception_5a/relu_pool_proj
I0403 21:49:58.899699 12981 net.cpp:91] Creating Layer inception_5a/relu_pool_proj
I0403 21:49:58.899718 12981 net.cpp:425] inception_5a/relu_pool_proj <- inception_5a/pool_proj
I0403 21:49:58.899746 12981 net.cpp:386] inception_5a/relu_pool_proj -> inception_5a/pool_proj (in-place)
I0403 21:49:58.900106 12981 net.cpp:141] Setting up inception_5a/relu_pool_proj
I0403 21:49:58.900138 12981 net.cpp:148] Top shape: 24 128 7 7 (150528)
I0403 21:49:58.900157 12981 net.cpp:156] Memory required for data: 1305673248
I0403 21:49:58.900177 12981 layer_factory.hpp:77] Creating layer inception_5a/output
I0403 21:49:58.900204 12981 net.cpp:91] Creating Layer inception_5a/output
I0403 21:49:58.900225 12981 net.cpp:425] inception_5a/output <- inception_5a/1x1
I0403 21:49:58.900245 12981 net.cpp:425] inception_5a/output <- inception_5a/3x3
I0403 21:49:58.900265 12981 net.cpp:425] inception_5a/output <- inception_5a/5x5
I0403 21:49:58.900285 12981 net.cpp:425] inception_5a/output <- inception_5a/pool_proj
I0403 21:49:58.900307 12981 net.cpp:399] inception_5a/output -> inception_5a/output
I0403 21:49:58.900368 12981 net.cpp:141] Setting up inception_5a/output
I0403 21:49:58.900401 12981 net.cpp:148] Top shape: 24 832 7 7 (978432)
I0403 21:49:58.900420 12981 net.cpp:156] Memory required for data: 1309586976
I0403 21:49:58.900439 12981 layer_factory.hpp:77] Creating layer inception_5a/output_inception_5a/output_0_split
I0403 21:49:58.900459 12981 net.cpp:91] Creating Layer inception_5a/output_inception_5a/output_0_split
I0403 21:49:58.900477 12981 net.cpp:425] inception_5a/output_inception_5a/output_0_split <- inception_5a/output
I0403 21:49:58.900497 12981 net.cpp:399] inception_5a/output_inception_5a/output_0_split -> inception_5a/output_inception_5a/output_0_split_0
I0403 21:49:58.900521 12981 net.cpp:399] inception_5a/output_inception_5a/output_0_split -> inception_5a/output_inception_5a/output_0_split_1
I0403 21:49:58.900549 12981 net.cpp:399] inception_5a/output_inception_5a/output_0_split -> inception_5a/output_inception_5a/output_0_split_2
I0403 21:49:58.900575 12981 net.cpp:399] inception_5a/output_inception_5a/output_0_split -> inception_5a/output_inception_5a/output_0_split_3
I0403 21:49:58.900728 12981 net.cpp:141] Setting up inception_5a/output_inception_5a/output_0_split
I0403 21:49:58.900758 12981 net.cpp:148] Top shape: 24 832 7 7 (978432)
I0403 21:49:58.900777 12981 net.cpp:148] Top shape: 24 832 7 7 (978432)
I0403 21:49:58.900796 12981 net.cpp:148] Top shape: 24 832 7 7 (978432)
I0403 21:49:58.900815 12981 net.cpp:148] Top shape: 24 832 7 7 (978432)
I0403 21:49:58.900832 12981 net.cpp:156] Memory required for data: 1325241888
I0403 21:49:58.900849 12981 layer_factory.hpp:77] Creating layer inception_5b/1x1
I0403 21:49:58.900876 12981 net.cpp:91] Creating Layer inception_5b/1x1
I0403 21:49:58.900898 12981 net.cpp:425] inception_5b/1x1 <- inception_5a/output_inception_5a/output_0_split_0
I0403 21:49:58.900923 12981 net.cpp:399] inception_5b/1x1 -> inception_5b/1x1
I0403 21:49:58.905601 12981 net.cpp:141] Setting up inception_5b/1x1
I0403 21:49:58.905642 12981 net.cpp:148] Top shape: 24 384 7 7 (451584)
I0403 21:49:58.905661 12981 net.cpp:156] Memory required for data: 1327048224
I0403 21:49:58.905684 12981 layer_factory.hpp:77] Creating layer inception_5b/relu_1x1
I0403 21:49:58.905707 12981 net.cpp:91] Creating Layer inception_5b/relu_1x1
I0403 21:49:58.905726 12981 net.cpp:425] inception_5b/relu_1x1 <- inception_5b/1x1
I0403 21:49:58.905750 12981 net.cpp:386] inception_5b/relu_1x1 -> inception_5b/1x1 (in-place)
I0403 21:49:58.906126 12981 net.cpp:141] Setting up inception_5b/relu_1x1
I0403 21:49:58.906162 12981 net.cpp:148] Top shape: 24 384 7 7 (451584)
I0403 21:49:58.906186 12981 net.cpp:156] Memory required for data: 1328854560
I0403 21:49:58.906208 12981 layer_factory.hpp:77] Creating layer inception_5b/3x3_reduce
I0403 21:49:58.906241 12981 net.cpp:91] Creating Layer inception_5b/3x3_reduce
I0403 21:49:58.906263 12981 net.cpp:425] inception_5b/3x3_reduce <- inception_5a/output_inception_5a/output_0_split_1
I0403 21:49:58.906286 12981 net.cpp:399] inception_5b/3x3_reduce -> inception_5b/3x3_reduce
I0403 21:49:58.909596 12981 net.cpp:141] Setting up inception_5b/3x3_reduce
I0403 21:49:58.909634 12981 net.cpp:148] Top shape: 24 192 7 7 (225792)
I0403 21:49:58.909653 12981 net.cpp:156] Memory required for data: 1329757728
I0403 21:49:58.909677 12981 layer_factory.hpp:77] Creating layer inception_5b/relu_3x3_reduce
I0403 21:49:58.909700 12981 net.cpp:91] Creating Layer inception_5b/relu_3x3_reduce
I0403 21:49:58.909720 12981 net.cpp:425] inception_5b/relu_3x3_reduce <- inception_5b/3x3_reduce
I0403 21:49:58.909749 12981 net.cpp:386] inception_5b/relu_3x3_reduce -> inception_5b/3x3_reduce (in-place)
I0403 21:49:58.909986 12981 net.cpp:141] Setting up inception_5b/relu_3x3_reduce
I0403 21:49:58.910017 12981 net.cpp:148] Top shape: 24 192 7 7 (225792)
I0403 21:49:58.910034 12981 net.cpp:156] Memory required for data: 1330660896
I0403 21:49:58.910053 12981 layer_factory.hpp:77] Creating layer inception_5b/3x3
I0403 21:49:58.910081 12981 net.cpp:91] Creating Layer inception_5b/3x3
I0403 21:49:58.910104 12981 net.cpp:425] inception_5b/3x3 <- inception_5b/3x3_reduce
I0403 21:49:58.910130 12981 net.cpp:399] inception_5b/3x3 -> inception_5b/3x3
I0403 21:49:58.918584 12981 net.cpp:141] Setting up inception_5b/3x3
I0403 21:49:58.918622 12981 net.cpp:148] Top shape: 24 384 7 7 (451584)
I0403 21:49:58.918640 12981 net.cpp:156] Memory required for data: 1332467232
I0403 21:49:58.918663 12981 layer_factory.hpp:77] Creating layer inception_5b/relu_3x3
I0403 21:49:58.918686 12981 net.cpp:91] Creating Layer inception_5b/relu_3x3
I0403 21:49:58.918705 12981 net.cpp:425] inception_5b/relu_3x3 <- inception_5b/3x3
I0403 21:49:58.918730 12981 net.cpp:386] inception_5b/relu_3x3 -> inception_5b/3x3 (in-place)
I0403 21:49:58.919095 12981 net.cpp:141] Setting up inception_5b/relu_3x3
I0403 21:49:58.919127 12981 net.cpp:148] Top shape: 24 384 7 7 (451584)
I0403 21:49:58.919147 12981 net.cpp:156] Memory required for data: 1334273568
I0403 21:49:58.919167 12981 layer_factory.hpp:77] Creating layer inception_5b/5x5_reduce
I0403 21:49:58.919219 12981 net.cpp:91] Creating Layer inception_5b/5x5_reduce
I0403 21:49:58.919244 12981 net.cpp:425] inception_5b/5x5_reduce <- inception_5a/output_inception_5a/output_0_split_2
I0403 21:49:58.919272 12981 net.cpp:399] inception_5b/5x5_reduce -> inception_5b/5x5_reduce
I0403 21:49:58.920855 12981 net.cpp:141] Setting up inception_5b/5x5_reduce
I0403 21:49:58.920892 12981 net.cpp:148] Top shape: 24 48 7 7 (56448)
I0403 21:49:58.920912 12981 net.cpp:156] Memory required for data: 1334499360
I0403 21:49:58.920935 12981 layer_factory.hpp:77] Creating layer inception_5b/relu_5x5_reduce
I0403 21:49:58.920958 12981 net.cpp:91] Creating Layer inception_5b/relu_5x5_reduce
I0403 21:49:58.920979 12981 net.cpp:425] inception_5b/relu_5x5_reduce <- inception_5b/5x5_reduce
I0403 21:49:58.921003 12981 net.cpp:386] inception_5b/relu_5x5_reduce -> inception_5b/5x5_reduce (in-place)
I0403 21:49:58.921473 12981 net.cpp:141] Setting up inception_5b/relu_5x5_reduce
I0403 21:49:58.921506 12981 net.cpp:148] Top shape: 24 48 7 7 (56448)
I0403 21:49:58.921525 12981 net.cpp:156] Memory required for data: 1334725152
I0403 21:49:58.921542 12981 layer_factory.hpp:77] Creating layer inception_5b/5x5
I0403 21:49:58.921567 12981 net.cpp:91] Creating Layer inception_5b/5x5
I0403 21:49:58.921588 12981 net.cpp:425] inception_5b/5x5 <- inception_5b/5x5_reduce
I0403 21:49:58.921612 12981 net.cpp:399] inception_5b/5x5 -> inception_5b/5x5
I0403 21:49:58.924170 12981 net.cpp:141] Setting up inception_5b/5x5
I0403 21:49:58.924209 12981 net.cpp:148] Top shape: 24 128 7 7 (150528)
I0403 21:49:58.924229 12981 net.cpp:156] Memory required for data: 1335327264
I0403 21:49:58.924252 12981 layer_factory.hpp:77] Creating layer inception_5b/relu_5x5
I0403 21:49:58.924274 12981 net.cpp:91] Creating Layer inception_5b/relu_5x5
I0403 21:49:58.924294 12981 net.cpp:425] inception_5b/relu_5x5 <- inception_5b/5x5
I0403 21:49:58.924317 12981 net.cpp:386] inception_5b/relu_5x5 -> inception_5b/5x5 (in-place)
I0403 21:49:58.924561 12981 net.cpp:141] Setting up inception_5b/relu_5x5
I0403 21:49:58.924592 12981 net.cpp:148] Top shape: 24 128 7 7 (150528)
I0403 21:49:58.924609 12981 net.cpp:156] Memory required for data: 1335929376
I0403 21:49:58.924628 12981 layer_factory.hpp:77] Creating layer inception_5b/pool
I0403 21:49:58.924652 12981 net.cpp:91] Creating Layer inception_5b/pool
I0403 21:49:58.924674 12981 net.cpp:425] inception_5b/pool <- inception_5a/output_inception_5a/output_0_split_3
I0403 21:49:58.924695 12981 net.cpp:399] inception_5b/pool -> inception_5b/pool
I0403 21:49:58.924787 12981 net.cpp:141] Setting up inception_5b/pool
I0403 21:49:58.924815 12981 net.cpp:148] Top shape: 24 832 7 7 (978432)
I0403 21:49:58.924834 12981 net.cpp:156] Memory required for data: 1339843104
I0403 21:49:58.924854 12981 layer_factory.hpp:77] Creating layer inception_5b/pool_proj
I0403 21:49:58.924885 12981 net.cpp:91] Creating Layer inception_5b/pool_proj
I0403 21:49:58.924911 12981 net.cpp:425] inception_5b/pool_proj <- inception_5b/pool
I0403 21:49:58.924942 12981 net.cpp:399] inception_5b/pool_proj -> inception_5b/pool_proj
I0403 21:49:58.927801 12981 net.cpp:141] Setting up inception_5b/pool_proj
I0403 21:49:58.927837 12981 net.cpp:148] Top shape: 24 128 7 7 (150528)
I0403 21:49:58.927856 12981 net.cpp:156] Memory required for data: 1340445216
I0403 21:49:58.927880 12981 layer_factory.hpp:77] Creating layer inception_5b/relu_pool_proj
I0403 21:49:58.927902 12981 net.cpp:91] Creating Layer inception_5b/relu_pool_proj
I0403 21:49:58.927923 12981 net.cpp:425] inception_5b/relu_pool_proj <- inception_5b/pool_proj
I0403 21:49:58.927950 12981 net.cpp:386] inception_5b/relu_pool_proj -> inception_5b/pool_proj (in-place)
I0403 21:49:58.928316 12981 net.cpp:141] Setting up inception_5b/relu_pool_proj
I0403 21:49:58.928350 12981 net.cpp:148] Top shape: 24 128 7 7 (150528)
I0403 21:49:58.928369 12981 net.cpp:156] Memory required for data: 1341047328
I0403 21:49:58.928387 12981 layer_factory.hpp:77] Creating layer inception_5b/output
I0403 21:49:58.928411 12981 net.cpp:91] Creating Layer inception_5b/output
I0403 21:49:58.928448 12981 net.cpp:425] inception_5b/output <- inception_5b/1x1
I0403 21:49:58.928470 12981 net.cpp:425] inception_5b/output <- inception_5b/3x3
I0403 21:49:58.928490 12981 net.cpp:425] inception_5b/output <- inception_5b/5x5
I0403 21:49:58.928509 12981 net.cpp:425] inception_5b/output <- inception_5b/pool_proj
I0403 21:49:58.928534 12981 net.cpp:399] inception_5b/output -> inception_5b/output
I0403 21:49:58.928599 12981 net.cpp:141] Setting up inception_5b/output
I0403 21:49:58.928632 12981 net.cpp:148] Top shape: 24 1024 7 7 (1204224)
I0403 21:49:58.928650 12981 net.cpp:156] Memory required for data: 1345864224
I0403 21:49:58.928668 12981 layer_factory.hpp:77] Creating layer pool5/7x7_s1
I0403 21:49:58.928690 12981 net.cpp:91] Creating Layer pool5/7x7_s1
I0403 21:49:58.928709 12981 net.cpp:425] pool5/7x7_s1 <- inception_5b/output
I0403 21:49:58.928736 12981 net.cpp:399] pool5/7x7_s1 -> pool5/7x7_s1
I0403 21:49:58.929008 12981 net.cpp:141] Setting up pool5/7x7_s1
I0403 21:49:58.929039 12981 net.cpp:148] Top shape: 24 1024 1 1 (24576)
I0403 21:49:58.929059 12981 net.cpp:156] Memory required for data: 1345962528
I0403 21:49:58.929076 12981 layer_factory.hpp:77] Creating layer pool5/drop_7x7_s1
I0403 21:49:58.929098 12981 net.cpp:91] Creating Layer pool5/drop_7x7_s1
I0403 21:49:58.929117 12981 net.cpp:425] pool5/drop_7x7_s1 <- pool5/7x7_s1
I0403 21:49:58.929142 12981 net.cpp:386] pool5/drop_7x7_s1 -> pool5/7x7_s1 (in-place)
I0403 21:49:58.929214 12981 net.cpp:141] Setting up pool5/drop_7x7_s1
I0403 21:49:58.929256 12981 net.cpp:148] Top shape: 24 1024 1 1 (24576)
I0403 21:49:58.929275 12981 net.cpp:156] Memory required for data: 1346060832
I0403 21:49:58.929293 12981 layer_factory.hpp:77] Creating layer loss3/classifier_plantvillage
I0403 21:49:58.929317 12981 net.cpp:91] Creating Layer loss3/classifier_plantvillage
I0403 21:49:58.929337 12981 net.cpp:425] loss3/classifier_plantvillage <- pool5/7x7_s1
I0403 21:49:58.929361 12981 net.cpp:399] loss3/classifier_plantvillage -> loss3/classifier_plantvillage
I0403 21:49:58.929889 12981 net.cpp:141] Setting up loss3/classifier_plantvillage
I0403 21:49:58.929924 12981 net.cpp:148] Top shape: 24 38 (912)
I0403 21:49:58.929947 12981 net.cpp:156] Memory required for data: 1346064480
I0403 21:49:58.929975 12981 layer_factory.hpp:77] Creating layer loss3/classifier_plantvillage_loss3/classifier_plantvillage_0_split
I0403 21:49:58.929999 12981 net.cpp:91] Creating Layer loss3/classifier_plantvillage_loss3/classifier_plantvillage_0_split
I0403 21:49:58.930019 12981 net.cpp:425] loss3/classifier_plantvillage_loss3/classifier_plantvillage_0_split <- loss3/classifier_plantvillage
I0403 21:49:58.930045 12981 net.cpp:399] loss3/classifier_plantvillage_loss3/classifier_plantvillage_0_split -> loss3/classifier_plantvillage_loss3/classifier_plantvillage_0_split_0
I0403 21:49:58.930071 12981 net.cpp:399] loss3/classifier_plantvillage_loss3/classifier_plantvillage_0_split -> loss3/classifier_plantvillage_loss3/classifier_plantvillage_0_split_1
I0403 21:49:58.930100 12981 net.cpp:399] loss3/classifier_plantvillage_loss3/classifier_plantvillage_0_split -> loss3/classifier_plantvillage_loss3/classifier_plantvillage_0_split_2
I0403 21:49:58.930127 12981 net.cpp:399] loss3/classifier_plantvillage_loss3/classifier_plantvillage_0_split -> loss3/classifier_plantvillage_loss3/classifier_plantvillage_0_split_3
I0403 21:49:58.930263 12981 net.cpp:141] Setting up loss3/classifier_plantvillage_loss3/classifier_plantvillage_0_split
I0403 21:49:58.930292 12981 net.cpp:148] Top shape: 24 38 (912)
I0403 21:49:58.930312 12981 net.cpp:148] Top shape: 24 38 (912)
I0403 21:49:58.930332 12981 net.cpp:148] Top shape: 24 38 (912)
I0403 21:49:58.930351 12981 net.cpp:148] Top shape: 24 38 (912)
I0403 21:49:58.930367 12981 net.cpp:156] Memory required for data: 1346079072
I0403 21:49:58.930387 12981 layer_factory.hpp:77] Creating layer loss1/loss
I0403 21:49:58.930416 12981 net.cpp:91] Creating Layer loss1/loss
I0403 21:49:58.930440 12981 net.cpp:425] loss1/loss <- loss1/classifier_plantvillage_loss1/classifier_plantvillage_0_split_0
I0403 21:49:58.930485 12981 net.cpp:425] loss1/loss <- label_data_1_split_0
…
