…
I0403 21:37:55.450640 12284 net.cpp:313] The NetState phase (1) differed from the phase (0) specified by a rule in layer data
I0403 21:37:55.452776 12284 net.cpp:49] Initializing net from parameters: 
state {
  phase: TEST
}
layer {
  name: "data"
  type: "Data"
  top: "data"
  top: "label"
  include {
    phase: TEST
  }
  transform_param {
    mirror: false
    crop_size: 224
    mean_file: "/home/mohanty/data/final_dataset/lmdb/color-80-20/mean.binaryproto"
  }
  data_param {
    source: "/home/mohanty/data/final_dataset/lmdb/color-80-20/test_db"
    batch_size: 24
    backend: LMDB
  }
}
layer {
  name: "conv1/7x7_s2"
  type: "Convolution"
  bottom: "data"
  top: "conv1/7x7_s2"
  param {
    lr_mult: 1
    decay_mult: 1
  }
  param {
    lr_mult: 2
    decay_mult: 0
  }
  convolution_param {
    num_output: 64
    pad: 3
    kernel_size: 7
    stride: 2
    weight_filler {
      type: "xavier"
      std: 0.1
    }
    bias_filler {
      type: "constant"
      value: 0.2
    }
  }
}
layer {
  name: "conv1/relu_7x7"
  type: "ReLU"
  bottom: "conv1/7x7_s2"
  top: "conv1/7x7_s2"
}
layer {
  name: "pool1/3x3_s2"
  type: "Pooling"
  bottom: "conv1/7x7_s2"
  top: "pool1/3x3_s2"
  pooling_param {
    pool: MAX
    kernel_size: 3
    stride: 2
  }
}
layer {
  name: "pool1/norm1"
  type: "LRN"
  bottom: "pool1/3x3_s2"
  top: "pool1/norm1"
  lrn_param {
    local_size: 5
    alpha: 0.0001
    beta: 0.75
  }
}
layer {
  name: "conv2/3x3_reduce"
  type: "Convolution"
  bottom: "pool1/norm1"
  top: "conv2/3x3_reduce"
  param {
    lr_mult: 1
    decay_mult: 1
  }
  param {
    lr_mult: 2
    decay_mult: 0
  }
  convolution_param {
    num_output: 64
    kernel_size: 1
    weight_filler {
      type: "xavier"
      std: 0.1
    }
    bias_filler {
      type: "constant"
      value: 0.2
    }
  }
}
layer {
  name: "conv2/relu_3x3_reduce"
  type: "ReLU"
  bottom: "conv2/3x3_reduce"
  top: "conv2/3x3_reduce"
}
layer {
  name: "conv2/3x3"
  type: "Convolution"
  bottom: "conv2/3x3_reduce"
  top: "conv2/3x3"
  param {
    lr_mult: 1
    decay_mult: 1
  }
  param {
    lr_mult: 2
    decay_mult: 0
  }
  convolution_param {
    num_output: 192
    pad: 1
    kernel_size: 3
    weight_filler {
      type: "xavier"
      std: 0.03
    }
    bias_filler {
      type: "constant"
      value: 0.2
    }
  }
}
layer {
  name: "conv2/relu_3x3"
  type: "ReLU"
  bottom: "conv2/3x3"
  top: "conv2/3x3"
}
layer {
  name: "conv2/norm2"
  type: "LRN"
  bottom: "conv2/3x3"
  top: "conv2/norm2"
  lrn_param {
    local_size: 5
    alpha: 0.0001
    beta: 0.75
  }
}
layer {
  name: "pool2/3x3_s2"
  type: "Pooling"
  bottom: "conv2/norm2"
  top: "pool2/3x3_s2"
  pooling_param {
    pool: MAX
    kernel_size: 3
    stride: 2
  }
}
layer {
  name: "inception_3a/1x1"
  type: "Convolution"
  bottom: "pool2/3x3_s2"
  top: "inception_3a/1x1"
  param {
    lr_mult: 1
    decay_mult: 1
  }
  param {
    lr_mult: 2
    decay_mult: 0
  }
  convolution_param {
    num_output: 64
    kernel_size: 1
    weight_filler {
      type: "xavier"
      std: 0.03
    }
    bias_filler {
      type: "constant"
      value: 0.2
    }
  }
}
layer {
  name: "inception_3a/relu_1x1"
  type: "ReLU"
  bottom: "inception_3a/1x1"
  top: "inception_3a/1x1"
}
layer {
  name: "inception_3a/3x3_reduce"
  type: "Convolution"
  bottom: "pool2/3x3_s2"
  top: "inception_3a/3x3_reduce"
  param {
    lr_mult: 1
    decay_mult: 1
  }
  param {
    lr_mult: 2
    decay_mult: 0
  }
  convolution_param {
    num_output: 96
    kernel_size: 1
    weight_filler {
      type: "xavier"
      std: 0.09
    }
    bias_filler {
      type: "constant"
      value: 0.2
    }
  }
}
layer {
  name: "inception_3a/relu_3x3_reduce"
  type: "ReLU"
  bottom: "inception_3a/3x3_reduce"
  top: "inception_3a/3x3_reduce"
}
layer {
  name: "inception_3a/3x3"
  type: "Convolution"
  bottom: "inception_3a/3x3_reduce"
  top: "inception_3a/3x3"
  param {
    lr_mult: 1
    decay_mult: 1
  }
  param {
    lr_mult: 2
    decay_mult: 0
  }
  convolution_param {
    num_output: 128
    pad: 1
    kernel_size: 3
    weight_filler {
      type: "xavier"
      std: 0.03
    }
    bias_filler {
      type: "constant"
      value: 0.2
    }
  }
}
layer {
  name: "inception_3a/relu_3x3"
  type: "ReLU"
  bottom: "inception_3a/3x3"
  top: "inception_3a/3x3"
}
layer {
  name: "inception_3a/5x5_reduce"
  type: "Convolution"
  bottom: "pool2/3x3_s2"
  top: "inception_3a/5x5_reduce"
  param {
    lr_mult: 1
    decay_mult: 1
  }
  param {
    lr_mult: 2
    decay_mult: 0
  }
  convolution_param {
    num_output: 16
    kernel_size: 1
    weight_filler {
      type: "xavier"
      std: 0.2
    }
    bias_filler {
      type: "constant"
      value: 0.2
    }
  }
}
layer {
  name: "inception_3a/relu_5x5_reduce"
  type: "ReLU"
  bottom: "inception_3a/5x5_reduce"
  top: "inception_3a/5x5_reduce"
}
layer {
  name: "inception_3a/5x5"
  type: "Convolution"
  bottom: "inception_3a/5x5_reduce"
  top: "inception_3a/5x5"
  param {
    lr_mult: 1
    decay_mult: 1
  }
  param {
    lr_mult: 2
    decay_mult: 0
  }
  convolution_param {
    num_output: 32
    pad: 2
    kernel_size: 5
    weight_filler {
      type: "xavier"
      std: 0.03
    }
    bias_filler {
      type: "constant"
      value: 0.2
    }
  }
}
layer {
  name: "inception_3a/relu_5x5"
  type: "ReLU"
  bottom: "inception_3a/5x5"
  top: "inception_3a/5x5"
}
layer {
  name: "inception_3a/pool"
  type: "Pooling"
  bottom: "pool2/3x3_s2"
  top: "inception_3a/pool"
  pooling_param {
    pool: MAX
    kernel_size: 3
    stride: 1
    pad: 1
  }
}
layer {
  name: "inception_3a/pool_proj"
  type: "Convolution"
  bottom: "inception_3a/pool"
  top: "inception_3a/pool_proj"
  param {
    lr_mult: 1
    decay_mult: 1
  }
  param {
    lr_mult: 2
    decay_mult: 0
  }
  convolution_param {
    num_output: 32
    kernel_size: 1
    weight_filler {
      type: "xavier"
      std: 0.1
    }
    bias_filler {
      type: "constant"
      value: 0.2
    }
  }
}
layer {
  name: "inception_3a/relu_pool_proj"
  type: "ReLU"
  bottom: "inception_3a/pool_proj"
  top: "inception_3a/pool_proj"
}
layer {
  name: "inception_3a/output"
  type: "Concat"
  bottom: "inception_3a/1x1"
  bottom: "inception_3a/3x3"
  bottom: "inception_3a/5x5"
  bottom: "inception_3a/pool_proj"
  top: "inception_3a/output"
}
layer {
  name: "inception_3b/1x1"
  type: "Convolution"
  bottom: "inception_3a/output"
  top: "inception_3b/1x1"
  param {
    lr_mult: 1
    decay_mult: 1
  }
  param {
    lr_mult: 2
    decay_mult: 0
  }
  convolution_param {
    num_output: 128
    kernel_size: 1
    weight_filler {
      type: "xavier"
      std: 0.03
    }
    bias_filler {
      type: "constant"
      value: 0.2
    }
  }
}
layer {
  name: "inception_3b/relu_1x1"
  type: "ReLU"
  bottom: "inception_3b/1x1"
  top: "inception_3b/1x1"
}
layer {
  name: "inception_3b/3x3_reduce"
  type: "Convolution"
  bottom: "inception_3a/output"
  top: "inception_3b/3x3_reduce"
  param {
    lr_mult: 1
    decay_mult: 1
  }
  param {
    lr_mult: 2
    decay_mult: 0
  }
  convolution_param {
    num_output: 128
    kernel_size: 1
    weight_filler {
      type: "xavier"
      std: 0.09
    }
    bias_filler {
      type: "constant"
      value: 0.2
    }
  }
}
layer {
  name: "inception_3b/relu_3x3_reduce"
  type: "ReLU"
  bottom: "inception_3b/3x3_reduce"
  top: "inception_3b/3x3_reduce"
}
layer {
  name: "inception_3b/3x3"
  type: "Convolution"
  bottom: "inception_3b/3x3_reduce"
  top: "inception_3b/3x3"
  param {
    lr_mult: 1
    decay_mult: 1
  }
  param {
    lr_mult: 2
    decay_mult: 0
  }
  convolution_param {
    num_output: 192
    pad: 1
    kernel_size: 3
    weight_filler {
      type: "xavier"
      std: 0.03
    }
    bias_filler {
      type: "constant"
      value: 0.2
    }
  }
}
layer {
  name: "inception_3b/relu_3x3"
  type: "ReLU"
  bottom: "inception_3b/3x3"
  top: "inception_3b/3x3"
}
layer {
  name: "inception_3b/5x5_reduce"
  type: "Convolution"
  bottom: "inception_3a/output"
  top: "inception_3b/5x5_reduce"
  param {
    lr_mult: 1
    decay_mult: 1
  }
  param {
    lr_mult: 2
    decay_mult: 0
  }
  convolution_param {
    num_output: 32
    kernel_size: 1
    weight_filler {
      type: "xavier"
      std: 0.2
    }
    bias_filler {
      type: "constant"
      value: 0.2
    }
  }
}
layer {
  name: "inception_3b/relu_5x5_reduce"
  type: "ReLU"
  bottom: "inception_3b/5x5_reduce"
  top: "inception_3b/5x5_reduce"
}
layer {
  name: "inception_3b/5x5"
  type: "Convolution"
  bottom: "inception_3b/5x5_reduce"
  top: "inception_3b/5x5"
  param {
    lr_mult: 1
    decay_mult: 1
  }
  param {
    lr_mult: 2
    decay_mult: 0
  }
  convolution_param {
    num_output: 96
    pad: 2
    kernel_size: 5
    weight_filler {
      type: "xavier"
      std: 0.03
    }
    bias_filler {
      type: "constant"
      value: 0.2
    }
  }
}
layer {
  name: "inception_3b/relu_5x5"
  type: "ReLU"
  bottom: "inception_3b/5x5"
  top: "inception_3b/5x5"
}
layer {
  name: "inception_3b/pool"
  type: "Pooling"
  bottom: "inception_3a/output"
  top: "inception_3b/pool"
  pooling_param {
    pool: MAX
    kernel_size: 3
    stride: 1
    pad: 1
  }
}
layer {
  name: "inception_3b/pool_proj"
  type: "Convolution"
  bottom: "inception_3b/pool"
  top: "inception_3b/pool_proj"
  param {
    lr_mult: 1
    decay_mult: 1
  }
  param {
    lr_mult: 2
    decay_mult: 0
  }
  convolution_param {
    num_output: 64
    kernel_size: 1
    weight_filler {
      type: "xavier"
      std: 0.1
    }
    bias_filler {
      type: "constant"
      value: 0.2
    }
  }
}
layer {
  name: "inception_3b/relu_pool_proj"
  type: "ReLU"
  bottom: "inception_3b/pool_proj"
  top: "inception_3b/pool_proj"
}
layer {
  name: "inception_3b/output"
  type: "Concat"
  bottom: "inception_3b/1x1"
  bottom: "inception_3b/3x3"
  bottom: "inception_3b/5x5"
  bottom: "inception_3b/pool_proj"
  top: "inception_3b/output"
}
layer {
  name: "pool3/3x3_s2"
  type: "Pooling"
  bottom: "inception_3b/output"
  top: "pool3/3x3_s2"
  pooling_param {
    pool: MAX
    kernel_size: 3
    stride: 2
  }
}
layer {
  name: "inception_4a/1x1"
  type: "Convolution"
  bottom: "pool3/3x3_s2"
  top: "inception_4a/1x1"
  param {
    lr_mult: 1
    decay_mult: 1
  }
  param {
    lr_mult: 2
    decay_mult: 0
  }
  convolution_param {
    num_output: 192
    kernel_size: 1
    weight_filler {
      type: "xavier"
      std: 0.03
    }
    bias_filler {
      type: "constant"
      value: 0.2
    }
  }
}
layer {
  name: "inception_4a/relu_1x1"
  type: "ReLU"
  bottom: "inception_4a/1x1"
  top: "inception_4a/1x1"
}
layer {
  name: "inception_4a/3x3_reduce"
  type: "Convolution"
  bottom: "pool3/3x3_s2"
  top: "inception_4a/3x3_reduce"
  param {
    lr_mult: 1
    decay_mult: 1
  }
  param {
    lr_mult: 2
    decay_mult: 0
  }
  convolution_param {
    num_output: 96
    kernel_size: 1
    weight_filler {
      type: "xavier"
      std: 0.09
    }
    bias_filler {
      type: "constant"
      value: 0.2
    }
  }
}
layer {
  name: "inception_4a/relu_3x3_reduce"
  type: "ReLU"
  bottom: "inception_4a/3x3_reduce"
  top: "inception_4a/3x3_reduce"
}
layer {
  name: "inception_4a/3x3"
  type: "Convolution"
  bottom: "inception_4a/3x3_reduce"
  top: "inception_4a/3x3"
  param {
    lr_mult: 1
    decay_mult: 1
  }
  param {
    lr_mult: 2
    decay_mult: 0
  }
  convolution_param {
    num_output: 208
    pad: 1
    kernel_size: 3
    weight_filler {
      type: "xavier"
      std: 0.03
    }
    bias_filler {
      type: "constant"
      value: 0.2
    }
  }
}
layer {
  name: "inception_4a/relu_3x3"
  type: "ReLU"
  bottom: "inception_4a/3x3"
  top: "inception_4a/3x3"
}
layer {
  name: "inception_4a/5x5_reduce"
  type: "Convolution"
  bottom: "pool3/3x3_s2"
  top: "inception_4a/5x5_reduce"
  param {
    lr_mult: 1
    decay_mult: 1
  }
  param {
    lr_mult: 2
    decay_mult: 0
  }
  convolution_param {
    num_output: 16
    kernel_size: 1
    weight_filler {
      type: "xavier"
      std: 0.2
    }
    bias_filler {
      type: "constant"
      value: 0.2
    }
  }
}
layer {
  name: "inception_4a/relu_5x5_reduce"
  type: "ReLU"
  bottom: "inception_4a/5x5_reduce"
  top: "inception_4a/5x5_reduce"
}
layer {
  name: "inception_4a/5x5"
  type: "Convolution"
  bottom: "inception_4a/5x5_reduce"
  top: "inception_4a/5x5"
  param {
    lr_mult: 1
    decay_mult: 1
  }
  param {
    lr_mult: 2
    decay_mult: 0
  }
  convolution_param {
    num_output: 48
    pad: 2
    kernel_size: 5
    weight_filler {
      type: "xavier"
      std: 0.03
    }
    bias_filler {
      type: "constant"
      value: 0.2
    }
  }
}
layer {
  name: "inception_4a/relu_5x5"
  type: "ReLU"
  bottom: "inception_4a/5x5"
  top: "inception_4a/5x5"
}
layer {
  name: "inception_4a/pool"
  type: "Pooling"
  bottom: "pool3/3x3_s2"
  top: "inception_4a/pool"
  pooling_param {
    pool: MAX
    kernel_size: 3
    stride: 1
    pad: 1
  }
}
layer {
  name: "inception_4a/pool_proj"
  type: "Convolution"
  bottom: "inception_4a/pool"
  top: "inception_4a/pool_proj"
  param {
    lr_mult: 1
    decay_mult: 1
  }
  param {
    lr_mult: 2
    decay_mult: 0
  }
  convolution_param {
    num_output: 64
    kernel_size: 1
    weight_filler {
      type: "xavier"
      std: 0.1
    }
    bias_filler {
      type: "constant"
      value: 0.2
    }
  }
}
layer {
  name: "inception_4a/relu_pool_proj"
  type: "ReLU"
  bottom: "inception_4a/pool_proj"
  top: "inception_4a/pool_proj"
}
layer {
  name: "inception_4a/output"
  type: "Concat"
  bottom: "inception_4a/1x1"
  bottom: "inception_4a/3x3"
  bottom: "inception_4a/5x5"
  bottom: "inception_4a/pool_proj"
  top: "inception_4a/output"
}
layer {
  name: "loss1/ave_pool"
  type: "Pooling"
  bottom: "inception_4a/output"
  top: "loss1/ave_pool"
  pooling_param {
    pool: AVE
    kernel_size: 5
    stride: 3
  }
}
layer {
  name: "loss1/conv"
  type: "Convolution"
  bottom: "loss1/ave_pool"
  top: "loss1/conv"
  param {
    lr_mult: 1
    decay_mult: 1
  }
  param {
    lr_mult: 2
    decay_mult: 0
  }
  convolution_param {
    num_output: 128
    kernel_size: 1
    weight_filler {
      type: "xavier"
      std: 0.08
    }
    bias_filler {
      type: "constant"
      value: 0.2
    }
  }
}
layer {
  name: "loss1/relu_conv"
  type: "ReLU"
  bottom: "loss1/conv"
  top: "loss1/conv"
}
layer {
  name: "loss1/fc"
  type: "InnerProduct"
  bottom: "loss1/conv"
  top: "loss1/fc"
  param {
    lr_mult: 1
    decay_mult: 1
  }
  param {
    lr_mult: 2
    decay_mult: 0
  }
  inner_product_param {
    num_output: 1024
    weight_filler {
      type: "xavier"
      std: 0.02
    }
    bias_filler {
      type: "constant"
      value: 0.2
    }
  }
}
layer {
  name: "loss1/relu_fc"
  type: "ReLU"
  bottom: "loss1/fc"
  top: "loss1/fc"
}
layer {
  name: "loss1/drop_fc"
  type: "Dropout"
  bottom: "loss1/fc"
  top: "loss1/fc"
  dropout_param {
    dropout_ratio: 0.7
  }
}
layer {
  name: "loss1/classifier_plantvillage"
  type: "InnerProduct"
  bottom: "loss1/fc"
  top: "loss1/classifier_plantvillage"
  param {
    lr_mult: 1
    decay_mult: 1
  }
  param {
    lr_mult: 2
    decay_mult: 0
  }
  inner_product_param {
    num_output: 38
    weight_filler {
      type: "xavier"
      std: 0.0009765625
    }
    bias_filler {
      type: "constant"
      value: 0
    }
  }
}
layer {
  name: "inception_4b/1x1"
  type: "Convolution"
  bottom: "inception_4a/output"
  top: "inception_4b/1x1"
  param {
    lr_mult: 1
    decay_mult: 1
  }
  param {
    lr_mult: 2
    decay_mult: 0
  }
  convolution_param {
    num_output: 160
    kernel_size: 1
    weight_filler {
      type: "xavier"
      std: 0.03
    }
    bias_filler {
      type: "constant"
      value: 0.2
    }
  }
}
layer {
  name: "inception_4b/relu_1x1"
  type: "ReLU"
  bottom: "inception_4b/1x1"
  top: "inception_4b/1x1"
}
layer {
  name: "inception_4b/3x3_reduce"
  type: "Convolution"
  bottom: "inception_4a/output"
  top: "inception_4b/3x3_reduce"
  param {
    lr_mult: 1
    decay_mult: 1
  }
  param {
    lr_mult: 2
    decay_mult: 0
  }
  convolution_param {
    num_output: 112
    kernel_size: 1
    weight_filler {
      type: "xavier"
      std: 0.09
    }
    bias_filler {
      type: "constant"
      value: 0.2
    }
  }
}
layer {
  name: "inception_4b/relu_3x3_reduce"
  type: "ReLU"
  bottom: "inception_4b/3x3_reduce"
  top: "inception_4b/3x3_reduce"
}
layer {
  name: "inception_4b/3x3"
  type: "Convolution"
  bottom: "inception_4b/3x3_reduce"
  top: "inception_4b/3x3"
  param {
    lr_mult: 1
    decay_mult: 1
  }
  param {
    lr_mult: 2
    decay_mult: 0
  }
  convolution_param {
    num_output: 224
    pad: 1
    kernel_size: 3
    weight_filler {
      type: "xavier"
      std: 0.03
    }
    bias_filler {
      type: "constant"
      value: 0.2
    }
  }
}
layer {
  name: "inception_4b/relu_3x3"
  type: "ReLU"
  bottom: "inception_4b/3x3"
  top: "inception_4b/3x3"
}
layer {
  name: "inception_4b/5x5_reduce"
  type: "Convolution"
  bottom: "inception_4a/output"
  top: "inception_4b/5x5_reduce"
  param {
    lr_mult: 1
    decay_mult: 1
  }
  param {
    lr_mult: 2
    decay_mult: 0
  }
  convolution_param {
    num_output: 24
    kernel_size: 1
    weight_filler {
      type: "xavier"
      std: 0.2
    }
    bias_filler {
      type: "constant"
      value: 0.2
    }
  }
}
layer {
  name: "inception_4b/relu_5x5_reduce"
  type: "ReLU"
  bottom: "inception_4b/5x5_reduce"
  top: "inception_4b/5x5_reduce"
}
layer {
  name: "inception_4b/5x5"
  type: "Convolution"
  bottom: "inception_4b/5x5_reduce"
  top: "inception_4b/5x5"
  param {
    lr_mult: 1
    decay_mult: 1
  }
  param {
    lr_mult: 2
    decay_mult: 0
  }
  convolution_param {
    num_output: 64
    pad: 2
    kernel_size: 5
    weight_filler {
      type: "xavier"
      std: 0.03
    }
    bias_filler {
      type: "constant"
      value: 0.2
    }
  }
}
layer {
  name: "inception_4b/relu_5x5"
  type: "ReLU"
  bottom: "inception_4b/5x5"
  top: "inception_4b/5x5"
}
layer {
  name: "inception_4b/pool"
  type: "Pooling"
  bottom: "inception_4a/output"
  top: "inception_4b/pool"
  pooling_param {
    pool: MAX
    kernel_size: 3
    stride: 1
    pad: 1
  }
}
layer {
  name: "inception_4b/pool_proj"
  type: "Convolution"
  bottom: "inception_4b/pool"
  top: "inception_4b/pool_proj"
  param {
    lr_mult: 1
    decay_mult: 1
  }
  param {
    lr_mult: 2
    decay_mult: 0
  }
  convolution_param {
    num_output: 64
    kernel_size: 1
    weight_filler {
      type: "xavier"
      std: 0.1
    }
    bias_filler {
      type: "constant"
      value: 0.2
    }
  }
}
layer {
  name: "inception_4b/relu_pool_proj"
  type: "ReLU"
  bottom: "inception_4b/pool_proj"
  top: "inception_4b/pool_proj"
}
layer {
  name: "inception_4b/output"
  type: "Concat"
  bottom: "inception_4b/1x1"
  bottom: "inception_4b/3x3"
  bottom: "inception_4b/5x5"
  bottom: "inception_4b/pool_proj"
  top: "inception_4b/output"
}
layer {
  name: "inception_4c/1x1"
  type: "Convolution"
  bottom: "inception_4b/output"
  top: "inception_4c/1x1"
  param {
    lr_mult: 1
    decay_mult: 1
  }
  param {
    lr_mult: 2
    decay_mult: 0
  }
  convolution_param {
    num_output: 128
    kernel_size: 1
    weight_filler {
      type: "xavier"
      std: 0.03
    }
    bias_filler {
      type: "constant"
      value: 0.2
    }
  }
}
layer {
  name: "inception_4c/relu_1x1"
  type: "ReLU"
  bottom: "inception_4c/1x1"
  top: "inception_4c/1x1"
}
layer {
  name: "inception_4c/3x3_reduce"
  type: "Convolution"
  bottom: "inception_4b/output"
  top: "inception_4c/3x3_reduce"
  param {
    lr_mult: 1
    decay_mult: 1
  }
  param {
    lr_mult: 2
    decay_mult: 0
  }
  convolution_param {
    num_output: 128
    kernel_size: 1
    weight_filler {
      type: "xavier"
      std: 0.09
    }
    bias_filler {
      type: "constant"
      value: 0.2
    }
  }
}
layer {
  name: "inception_4c/relu_3x3_reduce"
  type: "ReLU"
  bottom: "inception_4c/3x3_reduce"
  top: "inception_4c/3x3_reduce"
}
layer {
  name: "inception_4c/3x3"
  type: "Convolution"
  bottom: "inception_4c/3x3_reduce"
  top: "inception_4c/3x3"
  param {
    lr_mult: 1
    decay_mult: 1
  }
  param {
    lr_mult: 2
    decay_mult: 0
  }
  convolution_param {
    num_output: 256
    pad: 1
    kernel_size: 3
    weight_filler {
      type: "xavier"
      std: 0.03
    }
    bias_filler {
      type: "constant"
      value: 0.2
    }
  }
}
layer {
  name: "inception_4c/relu_3x3"
  type: "ReLU"
  bottom: "inception_4c/3x3"
  top: "inception_4c/3x3"
}
layer {
  name: "inception_4c/5x5_reduce"
  type: "Convolution"
  bottom: "inception_4b/output"
  top: "inception_4c/5x5_reduce"
  param {
    lr_mult: 1
    decay_mult: 1
  }
  param {
    lr_mult: 2
    decay_mult: 0
  }
  convolution_param {
    num_output: 24
    kernel_size: 1
    weight_filler {
      type: "xavier"
      std: 0.2
    }
    bias_filler {
      type: "constant"
      value: 0.2
    }
  }
}
layer {
  name: "inception_4c/relu_5x5_reduce"
  type: "ReLU"
  bottom: "inception_4c/5x5_reduce"
  top: "inception_4c/5x5_reduce"
}
layer {
  name: "inception_4c/5x5"
  type: "Convolution"
  bottom: "inception_4c/5x5_reduce"
  top: "inception_4c/5x5"
  param {
    lr_mult: 1
    decay_mult: 1
  }
  param {
    lr_mult: 2
    decay_mult: 0
  }
  convolution_param {
    num_output: 64
    pad: 2
    kernel_size: 5
    weight_filler {
      type: "xavier"
      std: 0.03
    }
    bias_filler {
      type: "constant"
      value: 0.2
    }
  }
}
layer {
  name: "inception_4c/relu_5x5"
  type: "ReLU"
  bottom: "inception_4c/5x5"
  top: "inception_4c/5x5"
}
layer {
  name: "inception_4c/pool"
  type: "Pooling"
  bottom: "inception_4b/output"
  top: "inception_4c/pool"
  pooling_param {
    pool: MAX
    kernel_size: 3
    stride: 1
    pad: 1
  }
}
layer {
  name: "inception_4c/pool_proj"
  type: "Convolution"
  bottom: "inception_4c/pool"
  top: "inception_4c/pool_proj"
  param {
    lr_mult: 1
    decay_mult: 1
  }
  param {
    lr_mult: 2
    decay_mult: 0
  }
  convolution_param {
    num_output: 64
    kernel_size: 1
    weight_filler {
      type: "xavier"
      std: 0.1
    }
    bias_filler {
      type: "constant"
      value: 0.2
    }
  }
}
layer {
  name: "inception_4c/relu_pool_proj"
  type: "ReLU"
  bottom: "inception_4c/pool_proj"
  top: "inception_4c/pool_proj"
}
layer {
  name: "inception_4c/output"
  type: "Concat"
  bottom: "inception_4c/1x1"
  bottom: "inception_4c/3x3"
  bottom: "inception_4c/5x5"
  bottom: "inception_4c/pool_proj"
  top: "inception_4c/output"
}
layer {
  name: "inception_4d/1x1"
  type: "Convolution"
  bottom: "inception_4c/output"
  top: "inception_4d/1x1"
  param {
    lr_mult: 1
    decay_mult: 1
  }
  param {
    lr_mult: 2
    decay_mult: 0
  }
  convolution_param {
    num_output: 112
    kernel_size: 1
    weight_filler {
      type: "xavier"
      std: 0.03
    }
    bias_filler {
      type: "constant"
      value: 0.2
    }
  }
}
layer {
  name: "inception_4d/relu_1x1"
  type: "ReLU"
  bottom: "inception_4d/1x1"
  top: "inception_4d/1x1"
}
layer {
  name: "inception_4d/3x3_reduce"
  type: "Convolution"
  bottom: "inception_4c/output"
  top: "inception_4d/3x3_reduce"
  param {
    lr_mult: 1
    decay_mult: 1
  }
  param {
    lr_mult: 2
    decay_mult: 0
  }
  convolution_param {
    num_output: 144
    kernel_size: 1
    weight_filler {
      type: "xavier"
      std: 0.09
    }
    bias_filler {
      type: "constant"
      value: 0.2
    }
  }
}
layer {
  name: "inception_4d/relu_3x3_reduce"
  type: "ReLU"
  bottom: "inception_4d/3x3_reduce"
  top: "inception_4d/3x3_reduce"
}
layer {
  name: "inception_4d/3x3"
  type: "Convolution"
  bottom: "inception_4d/3x3_reduce"
  top: "inception_4d/3x3"
  param {
    lr_mult: 1
    decay_mult: 1
  }
  param {
    lr_mult: 2
    decay_mult: 0
  }
  convolution_param {
    num_output: 288
    pad: 1
    kernel_size: 3
    weight_filler {
      type: "xavier"
      std: 0.03
    }
    bias_filler {
      type: "constant"
      value: 0.2
    }
  }
}
layer {
  name: "inception_4d/relu_3x3"
  type: "ReLU"
  bottom: "inception_4d/3x3"
  top: "inception_4d/3x3"
}
layer {
  name: "inception_4d/5x5_reduce"
  type: "Convolution"
  bottom: "inception_4c/output"
  top: "inception_4d/5x5_reduce"
  param {
    lr_mult: 1
    decay_mult: 1
  }
  param {
    lr_mult: 2
    decay_mult: 0
  }
  convolution_param {
    num_output: 32
    kernel_size: 1
    weight_filler {
      type: "xavier"
      std: 0.2
    }
    bias_filler {
      type: "constant"
      value: 0.2
    }
  }
}
layer {
  name: "inception_4d/relu_5x5_reduce"
  type: "ReLU"
  bottom: "inception_4d/5x5_reduce"
  top: "inception_4d/5x5_reduce"
}
layer {
  name: "inception_4d/5x5"
  type: "Convolution"
  bottom: "inception_4d/5x5_reduce"
  top: "inception_4d/5x5"
  param {
    lr_mult: 1
    decay_mult: 1
  }
  param {
    lr_mult: 2
    decay_mult: 0
  }
  convolution_param {
    num_output: 64
    pad: 2
    kernel_size: 5
    weight_filler {
      type: "xavier"
      std: 0.03
    }
    bias_filler {
      type: "constant"
      value: 0.2
    }
  }
}
layer {
  name: "inception_4d/relu_5x5"
  type: "ReLU"
  bottom: "inception_4d/5x5"
  top: "inception_4d/5x5"
}
layer {
  name: "inception_4d/pool"
  type: "Pooling"
  bottom: "inception_4c/output"
  top: "inception_4d/pool"
  pooling_param {
    pool: MAX
    kernel_size: 3
    stride: 1
    pad: 1
  }
}
layer {
  name: "inception_4d/pool_proj"
  type: "Convolution"
  bottom: "inception_4d/pool"
  top: "inception_4d/pool_proj"
  param {
    lr_mult: 1
    decay_mult: 1
  }
  param {
    lr_mult: 2
    decay_mult: 0
  }
  convolution_param {
    num_output: 64
    kernel_size: 1
    weight_filler {
      type: "xavier"
      std: 0.1
    }
    bias_filler {
      type: "constant"
      value: 0.2
    }
  }
}
layer {
  name: "inception_4d/relu_pool_proj"
  type: "ReLU"
  bottom: "inception_4d/pool_proj"
  top: "inception_4d/pool_proj"
}
layer {
  name: "inception_4d/output"
  type: "Concat"
  bottom: "inception_4d/1x1"
  bottom: "inception_4d/3x3"
  bottom: "inception_4d/5x5"
  bottom: "inception_4d/pool_proj"
  top: "inception_4d/output"
}
layer {
  name: "loss2/ave_pool"
  type: "Pooling"
  bottom: "inception_4d/output"
  top: "loss2/ave_pool"
  pooling_param {
    pool: AVE
    kernel_size: 5
    stride: 3
  }
}
layer {
  name: "loss2/conv"
  type: "Convolution"
  bottom: "loss2/ave_pool"
  top: "loss2/conv"
  param {
    lr_mult: 1
    decay_mult: 1
  }
  param {
    lr_mult: 2
    decay_mult: 0
  }
  convolution_param {
    num_output: 128
    kernel_size: 1
    weight_filler {
      type: "xavier"
      std: 0.08
    }
    bias_filler {
      type: "constant"
      value: 0.2
    }
  }
}
layer {
  name: "loss2/relu_conv"
  type: "ReLU"
  bottom: "loss2/conv"
  top: "loss2/conv"
}
layer {
  name: "loss2/fc"
  type: "InnerProduct"
  bottom: "loss2/conv"
  top: "loss2/fc"
  param {
    lr_mult: 1
    decay_mult: 1
  }
  param {
    lr_mult: 2
    decay_mult: 0
  }
  inner_product_param {
    num_output: 1024
    weight_filler {
      type: "xavier"
      std: 0.02
    }
    bias_filler {
      type: "constant"
      value: 0.2
    }
  }
}
layer {
  name: "loss2/relu_fc"
  type: "ReLU"
  bottom: "loss2/fc"
  top: "loss2/fc"
}
layer {
  name: "loss2/drop_fc"
  type: "Dropout"
  bottom: "loss2/fc"
  top: "loss2/fc"
  dropout_param {
    dropout_ratio: 0.7
  }
}
layer {
  name: "loss2/classifier_plantvillage"
  type: "InnerProduct"
  bottom: "loss2/fc"
  top: "loss2/classifier_plantvillage"
  param {
    lr_mult: 1
    decay_mult: 1
  }
  param {
    lr_mult: 2
    decay_mult: 0
  }
  inner_product_param {
    num_output: 38
    weight_filler {
      type: "xavier"
      std: 0.0009765625
    }
    bias_filler {
      type: "constant"
      value: 0
    }
  }
}
layer {
  name: "inception_4e/1x1"
  type: "Convolution"
  bottom: "inception_4d/output"
  top: "inception_4e/1x1"
  param {
    lr_mult: 1
    decay_mult: 1
  }
  param {
    lr_mult: 2
    decay_mult: 0
  }
  convolution_param {
    num_output: 256
    kernel_size: 1
    weight_filler {
      type: "xavier"
      std: 0.03
    }
    bias_filler {
      type: "constant"
      value: 0.2
    }
  }
}
layer {
  name: "inception_4e/relu_1x1"
  type: "ReLU"
  bottom: "inception_4e/1x1"
  top: "inception_4e/1x1"
}
layer {
  name: "inception_4e/3x3_reduce"
  type: "Convolution"
  bottom: "inception_4d/output"
  top: "inception_4e/3x3_reduce"
  param {
    lr_mult: 1
    decay_mult: 1
  }
  param {
    lr_mult: 2
    decay_mult: 0
  }
  convolution_param {
    num_output: 160
    kernel_size: 1
    weight_filler {
      type: "xavier"
      std: 0.09
    }
    bias_filler {
      type: "constant"
      value: 0.2
    }
  }
}
layer {
  name: "inception_4e/relu_3x3_reduce"
  type: "ReLU"
  bottom: "inception_4e/3x3_reduce"
  top: "inception_4e/3x3_reduce"
}
layer {
  name: "inception_4e/3x3"
  type: "Convolution"
  bottom: "inception_4e/3x3_reduce"
  top: "inception_4e/3x3"
  param {
    lr_mult: 1
    decay_mult: 1
  }
  param {
    lr_mult: 2
    decay_mult: 0
  }
  convolution_param {
    num_output: 320
    pad: 1
    kernel_size: 3
    weight_filler {
      type: "xavier"
      std: 0.03
    }
    bias_filler {
      type: "constant"
      value: 0.2
    }
  }
}
layer {
  name: "inception_4e/relu_3x3"
  type: "ReLU"
  bottom: "inception_4e/3x3"
  top: "inception_4e/3x3"
}
layer {
  name: "inception_4e/5x5_reduce"
  type: "Convolution"
  bottom: "inception_4d/output"
  top: "inception_4e/5x5_reduce"
  param {
    lr_mult: 1
    decay_mult: 1
  }
  param {
    lr_mult: 2
    decay_mult: 0
  }
  convolution_param {
    num_output: 32
    kernel_size: 1
    weight_filler {
      type: "xavier"
      std: 0.2
    }
    bias_filler {
      type: "constant"
      value: 0.2
    }
  }
}
layer {
  name: "inception_4e/relu_5x5_reduce"
  type: "ReLU"
  bottom: "inception_4e/5x5_reduce"
  top: "inception_4e/5x5_reduce"
}
layer {
  name: "inception_4e/5x5"
  type: "Convolution"
  bottom: "inception_4e/5x5_reduce"
  top: "inception_4e/5x5"
  p
I0403 21:37:55.454779 12284 layer_factory.hpp:77] Creating layer data
I0403 21:37:55.455778 12284 net.cpp:91] Creating Layer data
I0403 21:37:55.455807 12284 net.cpp:399] data -> data
I0403 21:37:55.455858 12284 net.cpp:399] data -> label
I0403 21:37:55.455893 12284 data_transformer.cpp:25] Loading mean file from: /home/mohanty/data/final_dataset/lmdb/color-80-20/mean.binaryproto
I0403 21:37:55.456993 12289 db_lmdb.cpp:38] Opened lmdb /home/mohanty/data/final_dataset/lmdb/color-80-20/test_db
I0403 21:37:55.469307 12284 data_layer.cpp:41] output data size: 24,3,224,224
I0403 21:37:55.497670 12284 net.cpp:141] Setting up data
I0403 21:37:55.497766 12284 net.cpp:148] Top shape: 24 3 224 224 (3612672)
I0403 21:37:55.497789 12284 net.cpp:148] Top shape: 24 (24)
I0403 21:37:55.497805 12284 net.cpp:156] Memory required for data: 14450784
I0403 21:37:55.497833 12284 layer_factory.hpp:77] Creating layer label_data_1_split
I0403 21:37:55.497861 12284 net.cpp:91] Creating Layer label_data_1_split
I0403 21:37:55.497880 12284 net.cpp:425] label_data_1_split <- label
I0403 21:37:55.497910 12284 net.cpp:399] label_data_1_split -> label_data_1_split_0
I0403 21:37:55.497939 12284 net.cpp:399] label_data_1_split -> label_data_1_split_1
I0403 21:37:55.497961 12284 net.cpp:399] label_data_1_split -> label_data_1_split_2
I0403 21:37:55.497979 12284 net.cpp:399] label_data_1_split -> label_data_1_split_3
I0403 21:37:55.497998 12284 net.cpp:399] label_data_1_split -> label_data_1_split_4
I0403 21:37:55.498018 12284 net.cpp:399] label_data_1_split -> label_data_1_split_5
I0403 21:37:55.498035 12284 net.cpp:399] label_data_1_split -> label_data_1_split_6
I0403 21:37:55.498054 12284 net.cpp:399] label_data_1_split -> label_data_1_split_7
I0403 21:37:55.498073 12284 net.cpp:399] label_data_1_split -> label_data_1_split_8
I0403 21:37:55.498092 12284 net.cpp:399] label_data_1_split -> label_data_1_split_9
I0403 21:37:55.498220 12284 net.cpp:141] Setting up label_data_1_split
I0403 21:37:55.498245 12284 net.cpp:148] Top shape: 24 (24)
I0403 21:37:55.498261 12284 net.cpp:148] Top shape: 24 (24)
I0403 21:37:55.498277 12284 net.cpp:148] Top shape: 24 (24)
I0403 21:37:55.498293 12284 net.cpp:148] Top shape: 24 (24)
I0403 21:37:55.498308 12284 net.cpp:148] Top shape: 24 (24)
I0403 21:37:55.498325 12284 net.cpp:148] Top shape: 24 (24)
I0403 21:37:55.498340 12284 net.cpp:148] Top shape: 24 (24)
I0403 21:37:55.498356 12284 net.cpp:148] Top shape: 24 (24)
I0403 21:37:55.498371 12284 net.cpp:148] Top shape: 24 (24)
I0403 21:37:55.498389 12284 net.cpp:148] Top shape: 24 (24)
I0403 21:37:55.498435 12284 net.cpp:156] Memory required for data: 14451744
I0403 21:37:55.498452 12284 layer_factory.hpp:77] Creating layer conv1/7x7_s2
I0403 21:37:55.498484 12284 net.cpp:91] Creating Layer conv1/7x7_s2
I0403 21:37:55.498515 12284 net.cpp:425] conv1/7x7_s2 <- data
I0403 21:37:55.498534 12284 net.cpp:399] conv1/7x7_s2 -> conv1/7x7_s2
I0403 21:37:55.640549 12284 net.cpp:141] Setting up conv1/7x7_s2
I0403 21:37:55.640656 12284 net.cpp:148] Top shape: 24 64 112 112 (19267584)
I0403 21:37:55.640673 12284 net.cpp:156] Memory required for data: 91522080
I0403 21:37:55.640703 12284 layer_factory.hpp:77] Creating layer conv1/relu_7x7
I0403 21:37:55.640730 12284 net.cpp:91] Creating Layer conv1/relu_7x7
I0403 21:37:55.640749 12284 net.cpp:425] conv1/relu_7x7 <- conv1/7x7_s2
I0403 21:37:55.640769 12284 net.cpp:386] conv1/relu_7x7 -> conv1/7x7_s2 (in-place)
I0403 21:37:55.641022 12284 net.cpp:141] Setting up conv1/relu_7x7
I0403 21:37:55.641048 12284 net.cpp:148] Top shape: 24 64 112 112 (19267584)
I0403 21:37:55.641063 12284 net.cpp:156] Memory required for data: 168592416
I0403 21:37:55.641078 12284 layer_factory.hpp:77] Creating layer pool1/3x3_s2
I0403 21:37:55.641103 12284 net.cpp:91] Creating Layer pool1/3x3_s2
I0403 21:37:55.641119 12284 net.cpp:425] pool1/3x3_s2 <- conv1/7x7_s2
I0403 21:37:55.641141 12284 net.cpp:399] pool1/3x3_s2 -> pool1/3x3_s2
I0403 21:37:55.641237 12284 net.cpp:141] Setting up pool1/3x3_s2
I0403 21:37:55.641261 12284 net.cpp:148] Top shape: 24 64 56 56 (4816896)
I0403 21:37:55.641278 12284 net.cpp:156] Memory required for data: 187860000
I0403 21:37:55.641291 12284 layer_factory.hpp:77] Creating layer pool1/norm1
I0403 21:37:55.641319 12284 net.cpp:91] Creating Layer pool1/norm1
I0403 21:37:55.641337 12284 net.cpp:425] pool1/norm1 <- pool1/3x3_s2
I0403 21:37:55.641358 12284 net.cpp:399] pool1/norm1 -> pool1/norm1
I0403 21:37:55.641667 12284 net.cpp:141] Setting up pool1/norm1
I0403 21:37:55.641693 12284 net.cpp:148] Top shape: 24 64 56 56 (4816896)
I0403 21:37:55.641708 12284 net.cpp:156] Memory required for data: 207127584
I0403 21:37:55.641723 12284 layer_factory.hpp:77] Creating layer conv2/3x3_reduce
I0403 21:37:55.641751 12284 net.cpp:91] Creating Layer conv2/3x3_reduce
I0403 21:37:55.641767 12284 net.cpp:425] conv2/3x3_reduce <- pool1/norm1
I0403 21:37:55.641789 12284 net.cpp:399] conv2/3x3_reduce -> conv2/3x3_reduce
I0403 21:37:55.643211 12284 net.cpp:141] Setting up conv2/3x3_reduce
I0403 21:37:55.643244 12284 net.cpp:148] Top shape: 24 64 56 56 (4816896)
I0403 21:37:55.643262 12284 net.cpp:156] Memory required for data: 226395168
I0403 21:37:55.643285 12284 layer_factory.hpp:77] Creating layer conv2/relu_3x3_reduce
I0403 21:37:55.643304 12284 net.cpp:91] Creating Layer conv2/relu_3x3_reduce
I0403 21:37:55.643321 12284 net.cpp:425] conv2/relu_3x3_reduce <- conv2/3x3_reduce
I0403 21:37:55.643339 12284 net.cpp:386] conv2/relu_3x3_reduce -> conv2/3x3_reduce (in-place)
I0403 21:37:55.643615 12284 net.cpp:141] Setting up conv2/relu_3x3_reduce
I0403 21:37:55.643646 12284 net.cpp:148] Top shape: 24 64 56 56 (4816896)
I0403 21:37:55.643661 12284 net.cpp:156] Memory required for data: 245662752
I0403 21:37:55.643678 12284 layer_factory.hpp:77] Creating layer conv2/3x3
I0403 21:37:55.643702 12284 net.cpp:91] Creating Layer conv2/3x3
I0403 21:37:55.643720 12284 net.cpp:425] conv2/3x3 <- conv2/3x3_reduce
I0403 21:37:55.643740 12284 net.cpp:399] conv2/3x3 -> conv2/3x3
I0403 21:37:55.645983 12284 net.cpp:141] Setting up conv2/3x3
I0403 21:37:55.646014 12284 net.cpp:148] Top shape: 24 192 56 56 (14450688)
I0403 21:37:55.646030 12284 net.cpp:156] Memory required for data: 303465504
I0403 21:37:55.646052 12284 layer_factory.hpp:77] Creating layer conv2/relu_3x3
I0403 21:37:55.646070 12284 net.cpp:91] Creating Layer conv2/relu_3x3
I0403 21:37:55.646086 12284 net.cpp:425] conv2/relu_3x3 <- conv2/3x3
I0403 21:37:55.646105 12284 net.cpp:386] conv2/relu_3x3 -> conv2/3x3 (in-place)
I0403 21:37:55.646278 12284 net.cpp:141] Setting up conv2/relu_3x3
I0403 21:37:55.646303 12284 net.cpp:148] Top shape: 24 192 56 56 (14450688)
I0403 21:37:55.646349 12284 net.cpp:156] Memory required for data: 361268256
I0403 21:37:55.646365 12284 layer_factory.hpp:77] Creating layer conv2/norm2
I0403 21:37:55.646386 12284 net.cpp:91] Creating Layer conv2/norm2
I0403 21:37:55.646405 12284 net.cpp:425] conv2/norm2 <- conv2/3x3
I0403 21:37:55.646422 12284 net.cpp:399] conv2/norm2 -> conv2/norm2
I0403 21:37:55.646711 12284 net.cpp:141] Setting up conv2/norm2
I0403 21:37:55.646738 12284 net.cpp:148] Top shape: 24 192 56 56 (14450688)
I0403 21:37:55.646752 12284 net.cpp:156] Memory required for data: 419071008
I0403 21:37:55.646769 12284 layer_factory.hpp:77] Creating layer pool2/3x3_s2
I0403 21:37:55.646788 12284 net.cpp:91] Creating Layer pool2/3x3_s2
I0403 21:37:55.646806 12284 net.cpp:425] pool2/3x3_s2 <- conv2/norm2
I0403 21:37:55.646822 12284 net.cpp:399] pool2/3x3_s2 -> pool2/3x3_s2
I0403 21:37:55.646878 12284 net.cpp:141] Setting up pool2/3x3_s2
I0403 21:37:55.646899 12284 net.cpp:148] Top shape: 24 192 28 28 (3612672)
I0403 21:37:55.646914 12284 net.cpp:156] Memory required for data: 433521696
I0403 21:37:55.646929 12284 layer_factory.hpp:77] Creating layer pool2/3x3_s2_pool2/3x3_s2_0_split
I0403 21:37:55.646946 12284 net.cpp:91] Creating Layer pool2/3x3_s2_pool2/3x3_s2_0_split
I0403 21:37:55.646962 12284 net.cpp:425] pool2/3x3_s2_pool2/3x3_s2_0_split <- pool2/3x3_s2
I0403 21:37:55.646981 12284 net.cpp:399] pool2/3x3_s2_pool2/3x3_s2_0_split -> pool2/3x3_s2_pool2/3x3_s2_0_split_0
I0403 21:37:55.647002 12284 net.cpp:399] pool2/3x3_s2_pool2/3x3_s2_0_split -> pool2/3x3_s2_pool2/3x3_s2_0_split_1
I0403 21:37:55.647022 12284 net.cpp:399] pool2/3x3_s2_pool2/3x3_s2_0_split -> pool2/3x3_s2_pool2/3x3_s2_0_split_2
I0403 21:37:55.647042 12284 net.cpp:399] pool2/3x3_s2_pool2/3x3_s2_0_split -> pool2/3x3_s2_pool2/3x3_s2_0_split_3
I0403 21:37:55.647110 12284 net.cpp:141] Setting up pool2/3x3_s2_pool2/3x3_s2_0_split
I0403 21:37:55.647135 12284 net.cpp:148] Top shape: 24 192 28 28 (3612672)
I0403 21:37:55.647152 12284 net.cpp:148] Top shape: 24 192 28 28 (3612672)
I0403 21:37:55.647168 12284 net.cpp:148] Top shape: 24 192 28 28 (3612672)
I0403 21:37:55.647184 12284 net.cpp:148] Top shape: 24 192 28 28 (3612672)
I0403 21:37:55.647198 12284 net.cpp:156] Memory required for data: 491324448
I0403 21:37:55.647218 12284 layer_factory.hpp:77] Creating layer inception_3a/1x1
I0403 21:37:55.647241 12284 net.cpp:91] Creating Layer inception_3a/1x1
I0403 21:37:55.647258 12284 net.cpp:425] inception_3a/1x1 <- pool2/3x3_s2_pool2/3x3_s2_0_split_0
I0403 21:37:55.647284 12284 net.cpp:399] inception_3a/1x1 -> inception_3a/1x1
I0403 21:37:55.648840 12284 net.cpp:141] Setting up inception_3a/1x1
I0403 21:37:55.648869 12284 net.cpp:148] Top shape: 24 64 28 28 (1204224)
I0403 21:37:55.648886 12284 net.cpp:156] Memory required for data: 496141344
I0403 21:37:55.648905 12284 layer_factory.hpp:77] Creating layer inception_3a/relu_1x1
I0403 21:37:55.648926 12284 net.cpp:91] Creating Layer inception_3a/relu_1x1
I0403 21:37:55.648943 12284 net.cpp:425] inception_3a/relu_1x1 <- inception_3a/1x1
I0403 21:37:55.648960 12284 net.cpp:386] inception_3a/relu_1x1 -> inception_3a/1x1 (in-place)
I0403 21:37:55.649130 12284 net.cpp:141] Setting up inception_3a/relu_1x1
I0403 21:37:55.649155 12284 net.cpp:148] Top shape: 24 64 28 28 (1204224)
I0403 21:37:55.649169 12284 net.cpp:156] Memory required for data: 500958240
I0403 21:37:55.649183 12284 layer_factory.hpp:77] Creating layer inception_3a/3x3_reduce
I0403 21:37:55.649204 12284 net.cpp:91] Creating Layer inception_3a/3x3_reduce
I0403 21:37:55.649226 12284 net.cpp:425] inception_3a/3x3_reduce <- pool2/3x3_s2_pool2/3x3_s2_0_split_1
I0403 21:37:55.649250 12284 net.cpp:399] inception_3a/3x3_reduce -> inception_3a/3x3_reduce
I0403 21:37:55.650866 12284 net.cpp:141] Setting up inception_3a/3x3_reduce
I0403 21:37:55.650897 12284 net.cpp:148] Top shape: 24 96 28 28 (1806336)
I0403 21:37:55.650913 12284 net.cpp:156] Memory required for data: 508183584
I0403 21:37:55.650933 12284 layer_factory.hpp:77] Creating layer inception_3a/relu_3x3_reduce
I0403 21:37:55.650967 12284 net.cpp:91] Creating Layer inception_3a/relu_3x3_reduce
I0403 21:37:55.650985 12284 net.cpp:425] inception_3a/relu_3x3_reduce <- inception_3a/3x3_reduce
I0403 21:37:55.651005 12284 net.cpp:386] inception_3a/relu_3x3_reduce -> inception_3a/3x3_reduce (in-place)
I0403 21:37:55.651175 12284 net.cpp:141] Setting up inception_3a/relu_3x3_reduce
I0403 21:37:55.651198 12284 net.cpp:148] Top shape: 24 96 28 28 (1806336)
I0403 21:37:55.651218 12284 net.cpp:156] Memory required for data: 515408928
I0403 21:37:55.651232 12284 layer_factory.hpp:77] Creating layer inception_3a/3x3
I0403 21:37:55.651254 12284 net.cpp:91] Creating Layer inception_3a/3x3
I0403 21:37:55.651273 12284 net.cpp:425] inception_3a/3x3 <- inception_3a/3x3_reduce
I0403 21:37:55.651293 12284 net.cpp:399] inception_3a/3x3 -> inception_3a/3x3
I0403 21:37:55.652838 12284 net.cpp:141] Setting up inception_3a/3x3
I0403 21:37:55.652869 12284 net.cpp:148] Top shape: 24 128 28 28 (2408448)
I0403 21:37:55.652886 12284 net.cpp:156] Memory required for data: 525042720
I0403 21:37:55.652904 12284 layer_factory.hpp:77] Creating layer inception_3a/relu_3x3
I0403 21:37:55.652922 12284 net.cpp:91] Creating Layer inception_3a/relu_3x3
I0403 21:37:55.652938 12284 net.cpp:425] inception_3a/relu_3x3 <- inception_3a/3x3
I0403 21:37:55.652958 12284 net.cpp:386] inception_3a/relu_3x3 -> inception_3a/3x3 (in-place)
I0403 21:37:55.653218 12284 net.cpp:141] Setting up inception_3a/relu_3x3
I0403 21:37:55.653244 12284 net.cpp:148] Top shape: 24 128 28 28 (2408448)
I0403 21:37:55.653260 12284 net.cpp:156] Memory required for data: 534676512
I0403 21:37:55.653275 12284 layer_factory.hpp:77] Creating layer inception_3a/5x5_reduce
I0403 21:37:55.653297 12284 net.cpp:91] Creating Layer inception_3a/5x5_reduce
I0403 21:37:55.653316 12284 net.cpp:425] inception_3a/5x5_reduce <- pool2/3x3_s2_pool2/3x3_s2_0_split_2
I0403 21:37:55.653334 12284 net.cpp:399] inception_3a/5x5_reduce -> inception_3a/5x5_reduce
I0403 21:37:55.654237 12284 net.cpp:141] Setting up inception_3a/5x5_reduce
I0403 21:37:55.654263 12284 net.cpp:148] Top shape: 24 16 28 28 (301056)
I0403 21:37:55.654279 12284 net.cpp:156] Memory required for data: 535880736
I0403 21:37:55.654296 12284 layer_factory.hpp:77] Creating layer inception_3a/relu_5x5_reduce
I0403 21:37:55.654314 12284 net.cpp:91] Creating Layer inception_3a/relu_5x5_reduce
I0403 21:37:55.654330 12284 net.cpp:425] inception_3a/relu_5x5_reduce <- inception_3a/5x5_reduce
I0403 21:37:55.654350 12284 net.cpp:386] inception_3a/relu_5x5_reduce -> inception_3a/5x5_reduce (in-place)
I0403 21:37:55.654606 12284 net.cpp:141] Setting up inception_3a/relu_5x5_reduce
I0403 21:37:55.654633 12284 net.cpp:148] Top shape: 24 16 28 28 (301056)
I0403 21:37:55.654646 12284 net.cpp:156] Memory required for data: 537084960
I0403 21:37:55.654660 12284 layer_factory.hpp:77] Creating layer inception_3a/5x5
I0403 21:37:55.654683 12284 net.cpp:91] Creating Layer inception_3a/5x5
I0403 21:37:55.654700 12284 net.cpp:425] inception_3a/5x5 <- inception_3a/5x5_reduce
I0403 21:37:55.654719 12284 net.cpp:399] inception_3a/5x5 -> inception_3a/5x5
I0403 21:37:55.655673 12284 net.cpp:141] Setting up inception_3a/5x5
I0403 21:37:55.655702 12284 net.cpp:148] Top shape: 24 32 28 28 (602112)
I0403 21:37:55.655717 12284 net.cpp:156] Memory required for data: 539493408
I0403 21:37:55.655735 12284 layer_factory.hpp:77] Creating layer inception_3a/relu_5x5
I0403 21:37:55.655753 12284 net.cpp:91] Creating Layer inception_3a/relu_5x5
I0403 21:37:55.655769 12284 net.cpp:425] inception_3a/relu_5x5 <- inception_3a/5x5
I0403 21:37:55.655788 12284 net.cpp:386] inception_3a/relu_5x5 -> inception_3a/5x5 (in-place)
I0403 21:37:55.655951 12284 net.cpp:141] Setting up inception_3a/relu_5x5
I0403 21:37:55.655975 12284 net.cpp:148] Top shape: 24 32 28 28 (602112)
I0403 21:37:55.655990 12284 net.cpp:156] Memory required for data: 541901856
I0403 21:37:55.656005 12284 layer_factory.hpp:77] Creating layer inception_3a/pool
I0403 21:37:55.656023 12284 net.cpp:91] Creating Layer inception_3a/pool
I0403 21:37:55.656038 12284 net.cpp:425] inception_3a/pool <- pool2/3x3_s2_pool2/3x3_s2_0_split_3
I0403 21:37:55.656071 12284 net.cpp:399] inception_3a/pool -> inception_3a/pool
I0403 21:37:55.656128 12284 net.cpp:141] Setting up inception_3a/pool
I0403 21:37:55.656150 12284 net.cpp:148] Top shape: 24 192 28 28 (3612672)
I0403 21:37:55.656167 12284 net.cpp:156] Memory required for data: 556352544
I0403 21:37:55.656180 12284 layer_factory.hpp:77] Creating layer inception_3a/pool_proj
I0403 21:37:55.656204 12284 net.cpp:91] Creating Layer inception_3a/pool_proj
I0403 21:37:55.656226 12284 net.cpp:425] inception_3a/pool_proj <- inception_3a/pool
I0403 21:37:55.656246 12284 net.cpp:399] inception_3a/pool_proj -> inception_3a/pool_proj
I0403 21:37:55.657150 12284 net.cpp:141] Setting up inception_3a/pool_proj
I0403 21:37:55.657176 12284 net.cpp:148] Top shape: 24 32 28 28 (602112)
I0403 21:37:55.657191 12284 net.cpp:156] Memory required for data: 558760992
I0403 21:37:55.657219 12284 layer_factory.hpp:77] Creating layer inception_3a/relu_pool_proj
I0403 21:37:55.657239 12284 net.cpp:91] Creating Layer inception_3a/relu_pool_proj
I0403 21:37:55.657259 12284 net.cpp:425] inception_3a/relu_pool_proj <- inception_3a/pool_proj
I0403 21:37:55.657276 12284 net.cpp:386] inception_3a/relu_pool_proj -> inception_3a/pool_proj (in-place)
I0403 21:37:55.657529 12284 net.cpp:141] Setting up inception_3a/relu_pool_proj
I0403 21:37:55.657557 12284 net.cpp:148] Top shape: 24 32 28 28 (602112)
I0403 21:37:55.657572 12284 net.cpp:156] Memory required for data: 561169440
I0403 21:37:55.657588 12284 layer_factory.hpp:77] Creating layer inception_3a/output
I0403 21:37:55.657604 12284 net.cpp:91] Creating Layer inception_3a/output
I0403 21:37:55.657621 12284 net.cpp:425] inception_3a/output <- inception_3a/1x1
I0403 21:37:55.657636 12284 net.cpp:425] inception_3a/output <- inception_3a/3x3
I0403 21:37:55.657652 12284 net.cpp:425] inception_3a/output <- inception_3a/5x5
I0403 21:37:55.657667 12284 net.cpp:425] inception_3a/output <- inception_3a/pool_proj
I0403 21:37:55.657685 12284 net.cpp:399] inception_3a/output -> inception_3a/output
I0403 21:37:55.657729 12284 net.cpp:141] Setting up inception_3a/output
I0403 21:37:55.657750 12284 net.cpp:148] Top shape: 24 256 28 28 (4816896)
I0403 21:37:55.657764 12284 net.cpp:156] Memory required for data: 580437024
I0403 21:37:55.657779 12284 layer_factory.hpp:77] Creating layer inception_3a/output_inception_3a/output_0_split
I0403 21:37:55.657799 12284 net.cpp:91] Creating Layer inception_3a/output_inception_3a/output_0_split
I0403 21:37:55.657815 12284 net.cpp:425] inception_3a/output_inception_3a/output_0_split <- inception_3a/output
I0403 21:37:55.657831 12284 net.cpp:399] inception_3a/output_inception_3a/output_0_split -> inception_3a/output_inception_3a/output_0_split_0
I0403 21:37:55.657851 12284 net.cpp:399] inception_3a/output_inception_3a/output_0_split -> inception_3a/output_inception_3a/output_0_split_1
I0403 21:37:55.657874 12284 net.cpp:399] inception_3a/output_inception_3a/output_0_split -> inception_3a/output_inception_3a/output_0_split_2
I0403 21:37:55.657896 12284 net.cpp:399] inception_3a/output_inception_3a/output_0_split -> inception_3a/output_inception_3a/output_0_split_3
I0403 21:37:55.657964 12284 net.cpp:141] Setting up inception_3a/output_inception_3a/output_0_split
I0403 21:37:55.657989 12284 net.cpp:148] Top shape: 24 256 28 28 (4816896)
I0403 21:37:55.658006 12284 net.cpp:148] Top shape: 24 256 28 28 (4816896)
I0403 21:37:55.658021 12284 net.cpp:148] Top shape: 24 256 28 28 (4816896)
I0403 21:37:55.658036 12284 net.cpp:148] Top shape: 24 256 28 28 (4816896)
I0403 21:37:55.658051 12284 net.cpp:156] Memory required for data: 657507360
I0403 21:37:55.658064 12284 layer_factory.hpp:77] Creating layer inception_3b/1x1
I0403 21:37:55.658087 12284 net.cpp:91] Creating Layer inception_3b/1x1
I0403 21:37:55.658103 12284 net.cpp:425] inception_3b/1x1 <- inception_3a/output_inception_3a/output_0_split_0
I0403 21:37:55.658123 12284 net.cpp:399] inception_3b/1x1 -> inception_3b/1x1
I0403 21:37:55.659195 12284 net.cpp:141] Setting up inception_3b/1x1
I0403 21:37:55.659238 12284 net.cpp:148] Top shape: 24 128 28 28 (2408448)
I0403 21:37:55.659255 12284 net.cpp:156] Memory required for data: 667141152
I0403 21:37:55.659274 12284 layer_factory.hpp:77] Creating layer inception_3b/relu_1x1
I0403 21:37:55.659291 12284 net.cpp:91] Creating Layer inception_3b/relu_1x1
I0403 21:37:55.659307 12284 net.cpp:425] inception_3b/relu_1x1 <- inception_3b/1x1
I0403 21:37:55.659323 12284 net.cpp:386] inception_3b/relu_1x1 -> inception_3b/1x1 (in-place)
I0403 21:37:55.659487 12284 net.cpp:141] Setting up inception_3b/relu_1x1
I0403 21:37:55.659513 12284 net.cpp:148] Top shape: 24 128 28 28 (2408448)
I0403 21:37:55.659529 12284 net.cpp:156] Memory required for data: 676774944
I0403 21:37:55.659545 12284 layer_factory.hpp:77] Creating layer inception_3b/3x3_reduce
I0403 21:37:55.659566 12284 net.cpp:91] Creating Layer inception_3b/3x3_reduce
I0403 21:37:55.659584 12284 net.cpp:425] inception_3b/3x3_reduce <- inception_3a/output_inception_3a/output_0_split_1
I0403 21:37:55.659601 12284 net.cpp:399] inception_3b/3x3_reduce -> inception_3b/3x3_reduce
I0403 21:37:55.660683 12284 net.cpp:141] Setting up inception_3b/3x3_reduce
I0403 21:37:55.660711 12284 net.cpp:148] Top shape: 24 128 28 28 (2408448)
I0403 21:37:55.660725 12284 net.cpp:156] Memory required for data: 686408736
I0403 21:37:55.660743 12284 layer_factory.hpp:77] Creating layer inception_3b/relu_3x3_reduce
I0403 21:37:55.660763 12284 net.cpp:91] Creating Layer inception_3b/relu_3x3_reduce
I0403 21:37:55.660779 12284 net.cpp:425] inception_3b/relu_3x3_reduce <- inception_3b/3x3_reduce
I0403 21:37:55.660797 12284 net.cpp:386] inception_3b/relu_3x3_reduce -> inception_3b/3x3_reduce (in-place)
I0403 21:37:55.660961 12284 net.cpp:141] Setting up inception_3b/relu_3x3_reduce
I0403 21:37:55.660985 12284 net.cpp:148] Top shape: 24 128 28 28 (2408448)
I0403 21:37:55.661000 12284 net.cpp:156] Memory required for data: 696042528
I0403 21:37:55.661015 12284 layer_factory.hpp:77] Creating layer inception_3b/3x3
I0403 21:37:55.661037 12284 net.cpp:91] Creating Layer inception_3b/3x3
I0403 21:37:55.661054 12284 net.cpp:425] inception_3b/3x3 <- inception_3b/3x3_reduce
I0403 21:37:55.661077 12284 net.cpp:399] inception_3b/3x3 -> inception_3b/3x3
I0403 21:37:55.663847 12284 net.cpp:141] Setting up inception_3b/3x3
I0403 21:37:55.663877 12284 net.cpp:148] Top shape: 24 192 28 28 (3612672)
I0403 21:37:55.663894 12284 net.cpp:156] Memory required for data: 710493216
I0403 21:37:55.663913 12284 layer_factory.hpp:77] Creating layer inception_3b/relu_3x3
I0403 21:37:55.663930 12284 net.cpp:91] Creating Layer inception_3b/relu_3x3
I0403 21:37:55.663946 12284 net.cpp:425] inception_3b/relu_3x3 <- inception_3b/3x3
I0403 21:37:55.663965 12284 net.cpp:386] inception_3b/relu_3x3 -> inception_3b/3x3 (in-place)
I0403 21:37:55.664229 12284 net.cpp:141] Setting up inception_3b/relu_3x3
I0403 21:37:55.664258 12284 net.cpp:148] Top shape: 24 192 28 28 (3612672)
I0403 21:37:55.664273 12284 net.cpp:156] Memory required for data: 724943904
I0403 21:37:55.664288 12284 layer_factory.hpp:77] Creating layer inception_3b/5x5_reduce
I0403 21:37:55.664311 12284 net.cpp:91] Creating Layer inception_3b/5x5_reduce
I0403 21:37:55.664330 12284 net.cpp:425] inception_3b/5x5_reduce <- inception_3a/output_inception_3a/output_0_split_2
I0403 21:37:55.664348 12284 net.cpp:399] inception_3b/5x5_reduce -> inception_3b/5x5_reduce
I0403 21:37:55.665277 12284 net.cpp:141] Setting up inception_3b/5x5_reduce
I0403 21:37:55.665305 12284 net.cpp:148] Top shape: 24 32 28 28 (602112)
I0403 21:37:55.665321 12284 net.cpp:156] Memory required for data: 727352352
I0403 21:37:55.665340 12284 layer_factory.hpp:77] Creating layer inception_3b/relu_5x5_reduce
I0403 21:37:55.665357 12284 net.cpp:91] Creating Layer inception_3b/relu_5x5_reduce
I0403 21:37:55.665374 12284 net.cpp:425] inception_3b/relu_5x5_reduce <- inception_3b/5x5_reduce
I0403 21:37:55.665392 12284 net.cpp:386] inception_3b/relu_5x5_reduce -> inception_3b/5x5_reduce (in-place)
I0403 21:37:55.665555 12284 net.cpp:141] Setting up inception_3b/relu_5x5_reduce
I0403 21:37:55.665591 12284 net.cpp:148] Top shape: 24 32 28 28 (602112)
I0403 21:37:55.665604 12284 net.cpp:156] Memory required for data: 729760800
I0403 21:37:55.665619 12284 layer_factory.hpp:77] Creating layer inception_3b/5x5
I0403 21:37:55.665642 12284 net.cpp:91] Creating Layer inception_3b/5x5
I0403 21:37:55.665658 12284 net.cpp:425] inception_3b/5x5 <- inception_3b/5x5_reduce
I0403 21:37:55.665678 12284 net.cpp:399] inception_3b/5x5 -> inception_3b/5x5
I0403 21:37:55.667562 12284 net.cpp:141] Setting up inception_3b/5x5
I0403 21:37:55.667589 12284 net.cpp:148] Top shape: 24 96 28 28 (1806336)
I0403 21:37:55.667605 12284 net.cpp:156] Memory required for data: 736986144
I0403 21:37:55.667623 12284 layer_factory.hpp:77] Creating layer inception_3b/relu_5x5
I0403 21:37:55.667644 12284 net.cpp:91] Creating Layer inception_3b/relu_5x5
I0403 21:37:55.667661 12284 net.cpp:425] inception_3b/relu_5x5 <- inception_3b/5x5
I0403 21:37:55.667677 12284 net.cpp:386] inception_3b/relu_5x5 -> inception_3b/5x5 (in-place)
I0403 21:37:55.667858 12284 net.cpp:141] Setting up inception_3b/relu_5x5
I0403 21:37:55.667882 12284 net.cpp:148] Top shape: 24 96 28 28 (1806336)
I0403 21:37:55.667897 12284 net.cpp:156] Memory required for data: 744211488
I0403 21:37:55.667912 12284 layer_factory.hpp:77] Creating layer inception_3b/pool
I0403 21:37:55.667929 12284 net.cpp:91] Creating Layer inception_3b/pool
I0403 21:37:55.667945 12284 net.cpp:425] inception_3b/pool <- inception_3a/output_inception_3a/output_0_split_3
I0403 21:37:55.667963 12284 net.cpp:399] inception_3b/pool -> inception_3b/pool
I0403 21:37:55.668016 12284 net.cpp:141] Setting up inception_3b/pool
I0403 21:37:55.668038 12284 net.cpp:148] Top shape: 24 256 28 28 (4816896)
I0403 21:37:55.668053 12284 net.cpp:156] Memory required for data: 763479072
I0403 21:37:55.668067 12284 layer_factory.hpp:77] Creating layer inception_3b/pool_proj
I0403 21:37:55.668090 12284 net.cpp:91] Creating Layer inception_3b/pool_proj
I0403 21:37:55.668107 12284 net.cpp:425] inception_3b/pool_proj <- inception_3b/pool
I0403 21:37:55.668125 12284 net.cpp:399] inception_3b/pool_proj -> inception_3b/pool_proj
I0403 21:37:55.669153 12284 net.cpp:141] Setting up inception_3b/pool_proj
I0403 21:37:55.669180 12284 net.cpp:148] Top shape: 24 64 28 28 (1204224)
I0403 21:37:55.669196 12284 net.cpp:156] Memory required for data: 768295968
I0403 21:37:55.669219 12284 layer_factory.hpp:77] Creating layer inception_3b/relu_pool_proj
I0403 21:37:55.669241 12284 net.cpp:91] Creating Layer inception_3b/relu_pool_proj
I0403 21:37:55.669260 12284 net.cpp:425] inception_3b/relu_pool_proj <- inception_3b/pool_proj
I0403 21:37:55.669277 12284 net.cpp:386] inception_3b/relu_pool_proj -> inception_3b/pool_proj (in-place)
I0403 21:37:55.669638 12284 net.cpp:141] Setting up inception_3b/relu_pool_proj
I0403 21:37:55.669664 12284 net.cpp:148] Top shape: 24 64 28 28 (1204224)
I0403 21:37:55.669679 12284 net.cpp:156] Memory required for data: 773112864
I0403 21:37:55.669694 12284 layer_factory.hpp:77] Creating layer inception_3b/output
I0403 21:37:55.669713 12284 net.cpp:91] Creating Layer inception_3b/output
I0403 21:37:55.669728 12284 net.cpp:425] inception_3b/output <- inception_3b/1x1
I0403 21:37:55.669744 12284 net.cpp:425] inception_3b/output <- inception_3b/3x3
I0403 21:37:55.669761 12284 net.cpp:425] inception_3b/output <- inception_3b/5x5
I0403 21:37:55.669776 12284 net.cpp:425] inception_3b/output <- inception_3b/pool_proj
I0403 21:37:55.669800 12284 net.cpp:399] inception_3b/output -> inception_3b/output
I0403 21:37:55.669842 12284 net.cpp:141] Setting up inception_3b/output
I0403 21:37:55.669868 12284 net.cpp:148] Top shape: 24 480 28 28 (9031680)
I0403 21:37:55.669884 12284 net.cpp:156] Memory required for data: 809239584
I0403 21:37:55.669899 12284 layer_factory.hpp:77] Creating layer pool3/3x3_s2
I0403 21:37:55.669916 12284 net.cpp:91] Creating Layer pool3/3x3_s2
I0403 21:37:55.669932 12284 net.cpp:425] pool3/3x3_s2 <- inception_3b/output
I0403 21:37:55.669952 12284 net.cpp:399] pool3/3x3_s2 -> pool3/3x3_s2
I0403 21:37:55.670023 12284 net.cpp:141] Setting up pool3/3x3_s2
I0403 21:37:55.670047 12284 net.cpp:148] Top shape: 24 480 14 14 (2257920)
I0403 21:37:55.670063 12284 net.cpp:156] Memory required for data: 818271264
I0403 21:37:55.670078 12284 layer_factory.hpp:77] Creating layer pool3/3x3_s2_pool3/3x3_s2_0_split
I0403 21:37:55.670096 12284 net.cpp:91] Creating Layer pool3/3x3_s2_pool3/3x3_s2_0_split
I0403 21:37:55.670112 12284 net.cpp:425] pool3/3x3_s2_pool3/3x3_s2_0_split <- pool3/3x3_s2
I0403 21:37:55.670128 12284 net.cpp:399] pool3/3x3_s2_pool3/3x3_s2_0_split -> pool3/3x3_s2_pool3/3x3_s2_0_split_0
I0403 21:37:55.670147 12284 net.cpp:399] pool3/3x3_s2_pool3/3x3_s2_0_split -> pool3/3x3_s2_pool3/3x3_s2_0_split_1
I0403 21:37:55.670166 12284 net.cpp:399] pool3/3x3_s2_pool3/3x3_s2_0_split -> pool3/3x3_s2_pool3/3x3_s2_0_split_2
I0403 21:37:55.670186 12284 net.cpp:399] pool3/3x3_s2_pool3/3x3_s2_0_split -> pool3/3x3_s2_pool3/3x3_s2_0_split_3
I0403 21:37:55.670277 12284 net.cpp:141] Setting up pool3/3x3_s2_pool3/3x3_s2_0_split
I0403 21:37:55.670301 12284 net.cpp:148] Top shape: 24 480 14 14 (2257920)
I0403 21:37:55.670318 12284 net.cpp:148] Top shape: 24 480 14 14 (2257920)
I0403 21:37:55.670336 12284 net.cpp:148] Top shape: 24 480 14 14 (2257920)
I0403 21:37:55.670351 12284 net.cpp:148] Top shape: 24 480 14 14 (2257920)
I0403 21:37:55.670364 12284 net.cpp:156] Memory required for data: 854397984
I0403 21:37:55.670379 12284 layer_factory.hpp:77] Creating layer inception_4a/1x1
I0403 21:37:55.670402 12284 net.cpp:91] Creating Layer inception_4a/1x1
I0403 21:37:55.670419 12284 net.cpp:425] inception_4a/1x1 <- pool3/3x3_s2_pool3/3x3_s2_0_split_0
I0403 21:37:55.670442 12284 net.cpp:399] inception_4a/1x1 -> inception_4a/1x1
I0403 21:37:55.671964 12284 net.cpp:141] Setting up inception_4a/1x1
I0403 21:37:55.671993 12284 net.cpp:148] Top shape: 24 192 14 14 (903168)
I0403 21:37:55.672008 12284 net.cpp:156] Memory required for data: 858010656
I0403 21:37:55.672027 12284 layer_factory.hpp:77] Creating layer inception_4a/relu_1x1
I0403 21:37:55.672047 12284 net.cpp:91] Creating Layer inception_4a/relu_1x1
I0403 21:37:55.672063 12284 net.cpp:425] inception_4a/relu_1x1 <- inception_4a/1x1
I0403 21:37:55.672080 12284 net.cpp:386] inception_4a/relu_1x1 -> inception_4a/1x1 (in-place)
I0403 21:37:55.672260 12284 net.cpp:141] Setting up inception_4a/relu_1x1
I0403 21:37:55.672289 12284 net.cpp:148] Top shape: 24 192 14 14 (903168)
I0403 21:37:55.672305 12284 net.cpp:156] Memory required for data: 861623328
I0403 21:37:55.672319 12284 layer_factory.hpp:77] Creating layer inception_4a/3x3_reduce
I0403 21:37:55.672343 12284 net.cpp:91] Creating Layer inception_4a/3x3_reduce
I0403 21:37:55.672360 12284 net.cpp:425] inception_4a/3x3_reduce <- pool3/3x3_s2_pool3/3x3_s2_0_split_1
I0403 21:37:55.672379 12284 net.cpp:399] inception_4a/3x3_reduce -> inception_4a/3x3_reduce
I0403 21:37:55.673615 12284 net.cpp:141] Setting up inception_4a/3x3_reduce
I0403 21:37:55.673641 12284 net.cpp:148] Top shape: 24 96 14 14 (451584)
I0403 21:37:55.673657 12284 net.cpp:156] Memory required for data: 863429664
I0403 21:37:55.673682 12284 layer_factory.hpp:77] Creating layer inception_4a/relu_3x3_reduce
I0403 21:37:55.673702 12284 net.cpp:91] Creating Layer inception_4a/relu_3x3_reduce
I0403 21:37:55.673719 12284 net.cpp:425] inception_4a/relu_3x3_reduce <- inception_4a/3x3_reduce
I0403 21:37:55.673739 12284 net.cpp:386] inception_4a/relu_3x3_reduce -> inception_4a/3x3_reduce (in-place)
I0403 21:37:55.673915 12284 net.cpp:141] Setting up inception_4a/relu_3x3_reduce
I0403 21:37:55.673939 12284 net.cpp:148] Top shape: 24 96 14 14 (451584)
I0403 21:37:55.673954 12284 net.cpp:156] Memory required for data: 865236000
I0403 21:37:55.673969 12284 layer_factory.hpp:77] Creating layer inception_4a/3x3
I0403 21:37:55.673991 12284 net.cpp:91] Creating Layer inception_4a/3x3
I0403 21:37:55.674010 12284 net.cpp:425] inception_4a/3x3 <- inception_4a/3x3_reduce
I0403 21:37:55.674031 12284 net.cpp:399] inception_4a/3x3 -> inception_4a/3x3
I0403 21:37:55.676692 12284 net.cpp:141] Setting up inception_4a/3x3
I0403 21:37:55.676722 12284 net.cpp:148] Top shape: 24 208 14 14 (978432)
I0403 21:37:55.676738 12284 net.cpp:156] Memory required for data: 869149728
I0403 21:37:55.676755 12284 layer_factory.hpp:77] Creating layer inception_4a/relu_3x3
I0403 21:37:55.676776 12284 net.cpp:91] Creating Layer inception_4a/relu_3x3
I0403 21:37:55.676795 12284 net.cpp:425] inception_4a/relu_3x3 <- inception_4a/3x3
I0403 21:37:55.676811 12284 net.cpp:386] inception_4a/relu_3x3 -> inception_4a/3x3 (in-place)
I0403 21:37:55.677085 12284 net.cpp:141] Setting up inception_4a/relu_3x3
I0403 21:37:55.677111 12284 net.cpp:148] Top shape: 24 208 14 14 (978432)
I0403 21:37:55.677127 12284 net.cpp:156] Memory required for data: 873063456
I0403 21:37:55.677142 12284 layer_factory.hpp:77] Creating layer inception_4a/5x5_reduce
I0403 21:37:55.677168 12284 net.cpp:91] Creating Layer inception_4a/5x5_reduce
I0403 21:37:55.677186 12284 net.cpp:425] inception_4a/5x5_reduce <- pool3/3x3_s2_pool3/3x3_s2_0_split_2
I0403 21:37:55.677204 12284 net.cpp:399] inception_4a/5x5_reduce -> inception_4a/5x5_reduce
I0403 21:37:55.678186 12284 net.cpp:141] Setting up inception_4a/5x5_reduce
I0403 21:37:55.678223 12284 net.cpp:148] Top shape: 24 16 14 14 (75264)
I0403 21:37:55.678241 12284 net.cpp:156] Memory required for data: 873364512
I0403 21:37:55.678272 12284 layer_factory.hpp:77] Creating layer inception_4a/relu_5x5_reduce
I0403 21:37:55.678290 12284 net.cpp:91] Creating Layer inception_4a/relu_5x5_reduce
I0403 21:37:55.678308 12284 net.cpp:425] inception_4a/relu_5x5_reduce <- inception_4a/5x5_reduce
I0403 21:37:55.678328 12284 net.cpp:386] inception_4a/relu_5x5_reduce -> inception_4a/5x5_reduce (in-place)
I0403 21:37:55.678505 12284 net.cpp:141] Setting up inception_4a/relu_5x5_reduce
I0403 21:37:55.678530 12284 net.cpp:148] Top shape: 24 16 14 14 (75264)
I0403 21:37:55.678558 12284 net.cpp:156] Memory required for data: 873665568
I0403 21:37:55.678573 12284 layer_factory.hpp:77] Creating layer inception_4a/5x5
I0403 21:37:55.678596 12284 net.cpp:91] Creating Layer inception_4a/5x5
I0403 21:37:55.678613 12284 net.cpp:425] inception_4a/5x5 <- inception_4a/5x5_reduce
I0403 21:37:55.678634 12284 net.cpp:399] inception_4a/5x5 -> inception_4a/5x5
I0403 21:37:55.679680 12284 net.cpp:141] Setting up inception_4a/5x5
I0403 21:37:55.679708 12284 net.cpp:148] Top shape: 24 48 14 14 (225792)
I0403 21:37:55.679723 12284 net.cpp:156] Memory required for data: 874568736
I0403 21:37:55.679741 12284 layer_factory.hpp:77] Creating layer inception_4a/relu_5x5
I0403 21:37:55.679762 12284 net.cpp:91] Creating Layer inception_4a/relu_5x5
I0403 21:37:55.679780 12284 net.cpp:425] inception_4a/relu_5x5 <- inception_4a/5x5
I0403 21:37:55.679797 12284 net.cpp:386] inception_4a/relu_5x5 -> inception_4a/5x5 (in-place)
I0403 21:37:55.679967 12284 net.cpp:141] Setting up inception_4a/relu_5x5
I0403 21:37:55.679992 12284 net.cpp:148] Top shape: 24 48 14 14 (225792)
I0403 21:37:55.680006 12284 net.cpp:156] Memory required for data: 875471904
I0403 21:37:55.680022 12284 layer_factory.hpp:77] Creating layer inception_4a/pool
I0403 21:37:55.680042 12284 net.cpp:91] Creating Layer inception_4a/pool
I0403 21:37:55.680059 12284 net.cpp:425] inception_4a/pool <- pool3/3x3_s2_pool3/3x3_s2_0_split_3
I0403 21:37:55.680078 12284 net.cpp:399] inception_4a/pool -> inception_4a/pool
I0403 21:37:55.680140 12284 net.cpp:141] Setting up inception_4a/pool
I0403 21:37:55.680162 12284 net.cpp:148] Top shape: 24 480 14 14 (2257920)
I0403 21:37:55.680177 12284 net.cpp:156] Memory required for data: 884503584
I0403 21:37:55.680192 12284 layer_factory.hpp:77] Creating layer inception_4a/pool_proj
I0403 21:37:55.680218 12284 net.cpp:91] Creating Layer inception_4a/pool_proj
I0403 21:37:55.680238 12284 net.cpp:425] inception_4a/pool_proj <- inception_4a/pool
I0403 21:37:55.680259 12284 net.cpp:399] inception_4a/pool_proj -> inception_4a/pool_proj
I0403 21:37:55.681381 12284 net.cpp:141] Setting up inception_4a/pool_proj
I0403 21:37:55.681411 12284 net.cpp:148] Top shape: 24 64 14 14 (301056)
I0403 21:37:55.681442 12284 net.cpp:156] Memory required for data: 885707808
I0403 21:37:55.681462 12284 layer_factory.hpp:77] Creating layer inception_4a/relu_pool_proj
I0403 21:37:55.681483 12284 net.cpp:91] Creating Layer inception_4a/relu_pool_proj
I0403 21:37:55.681500 12284 net.cpp:425] inception_4a/relu_pool_proj <- inception_4a/pool_proj
I0403 21:37:55.681519 12284 net.cpp:386] inception_4a/relu_pool_proj -> inception_4a/pool_proj (in-place)
I0403 21:37:55.681792 12284 net.cpp:141] Setting up inception_4a/relu_pool_proj
I0403 21:37:55.681819 12284 net.cpp:148] Top shape: 24 64 14 14 (301056)
I0403 21:37:55.681834 12284 net.cpp:156] Memory required for data: 886912032
I0403 21:37:55.681849 12284 layer_factory.hpp:77] Creating layer inception_4a/output
I0403 21:37:55.681869 12284 net.cpp:91] Creating Layer inception_4a/output
I0403 21:37:55.681885 12284 net.cpp:425] inception_4a/output <- inception_4a/1x1
I0403 21:37:55.681902 12284 net.cpp:425] inception_4a/output <- inception_4a/3x3
I0403 21:37:55.681918 12284 net.cpp:425] inception_4a/output <- inception_4a/5x5
I0403 21:37:55.681934 12284 net.cpp:425] inception_4a/output <- inception_4a/pool_proj
I0403 21:37:55.681951 12284 net.cpp:399] inception_4a/output -> inception_4a/output
I0403 21:37:55.681993 12284 net.cpp:141] Setting up inception_4a/output
I0403 21:37:55.682019 12284 net.cpp:148] Top shape: 24 512 14 14 (2408448)
I0403 21:37:55.682035 12284 net.cpp:156] Memory required for data: 896545824
I0403 21:37:55.682050 12284 layer_factory.hpp:77] Creating layer inception_4a/output_inception_4a/output_0_split
I0403 21:37:55.682068 12284 net.cpp:91] Creating Layer inception_4a/output_inception_4a/output_0_split
I0403 21:37:55.682085 12284 net.cpp:425] inception_4a/output_inception_4a/output_0_split <- inception_4a/output
I0403 21:37:55.682106 12284 net.cpp:399] inception_4a/output_inception_4a/output_0_split -> inception_4a/output_inception_4a/output_0_split_0
I0403 21:37:55.682126 12284 net.cpp:399] inception_4a/output_inception_4a/output_0_split -> inception_4a/output_inception_4a/output_0_split_1
I0403 21:37:55.682147 12284 net.cpp:399] inception_4a/output_inception_4a/output_0_split -> inception_4a/output_inception_4a/output_0_split_2
I0403 21:37:55.682168 12284 net.cpp:399] inception_4a/output_inception_4a/output_0_split -> inception_4a/output_inception_4a/output_0_split_3
I0403 21:37:55.682188 12284 net.cpp:399] inception_4a/output_inception_4a/output_0_split -> inception_4a/output_inception_4a/output_0_split_4
I0403 21:37:55.682301 12284 net.cpp:141] Setting up inception_4a/output_inception_4a/output_0_split
I0403 21:37:55.682325 12284 net.cpp:148] Top shape: 24 512 14 14 (2408448)
I0403 21:37:55.682344 12284 net.cpp:148] Top shape: 24 512 14 14 (2408448)
I0403 21:37:55.682361 12284 net.cpp:148] Top shape: 24 512 14 14 (2408448)
I0403 21:37:55.682379 12284 net.cpp:148] Top shape: 24 512 14 14 (2408448)
I0403 21:37:55.682394 12284 net.cpp:148] Top shape: 24 512 14 14 (2408448)
I0403 21:37:55.682407 12284 net.cpp:156] Memory required for data: 944714784
I0403 21:37:55.682423 12284 layer_factory.hpp:77] Creating layer loss1/ave_pool
I0403 21:37:55.682440 12284 net.cpp:91] Creating Layer loss1/ave_pool
I0403 21:37:55.682457 12284 net.cpp:425] loss1/ave_pool <- inception_4a/output_inception_4a/output_0_split_0
I0403 21:37:55.682478 12284 net.cpp:399] loss1/ave_pool -> loss1/ave_pool
I0403 21:37:55.682694 12284 net.cpp:141] Setting up loss1/ave_pool
I0403 21:37:55.682719 12284 net.cpp:148] Top shape: 24 512 4 4 (196608)
I0403 21:37:55.682734 12284 net.cpp:156] Memory required for data: 945501216
I0403 21:37:55.682749 12284 layer_factory.hpp:77] Creating layer loss1/conv
I0403 21:37:55.682771 12284 net.cpp:91] Creating Layer loss1/conv
I0403 21:37:55.682790 12284 net.cpp:425] loss1/conv <- loss1/ave_pool
I0403 21:37:55.682811 12284 net.cpp:399] loss1/conv -> loss1/conv
I0403 21:37:55.684166 12284 net.cpp:141] Setting up loss1/conv
I0403 21:37:55.684195 12284 net.cpp:148] Top shape: 24 128 4 4 (49152)
I0403 21:37:55.684214 12284 net.cpp:156] Memory required for data: 945697824
I0403 21:37:55.684252 12284 layer_factory.hpp:77] Creating layer loss1/relu_conv
I0403 21:37:55.684272 12284 net.cpp:91] Creating Layer loss1/relu_conv
I0403 21:37:55.684288 12284 net.cpp:425] loss1/relu_conv <- loss1/conv
I0403 21:37:55.684305 12284 net.cpp:386] loss1/relu_conv -> loss1/conv (in-place)
I0403 21:37:55.684581 12284 net.cpp:141] Setting up loss1/relu_conv
I0403 21:37:55.684607 12284 net.cpp:148] Top shape: 24 128 4 4 (49152)
I0403 21:37:55.684622 12284 net.cpp:156] Memory required for data: 945894432
I0403 21:37:55.684638 12284 layer_factory.hpp:77] Creating layer loss1/fc
I0403 21:37:55.684662 12284 net.cpp:91] Creating Layer loss1/fc
I0403 21:37:55.684681 12284 net.cpp:425] loss1/fc <- loss1/conv
I0403 21:37:55.684701 12284 net.cpp:399] loss1/fc -> loss1/fc
I0403 21:37:55.701907 12284 net.cpp:141] Setting up loss1/fc
I0403 21:37:55.701944 12284 net.cpp:148] Top shape: 24 1024 (24576)
I0403 21:37:55.701959 12284 net.cpp:156] Memory required for data: 945992736
I0403 21:37:55.701977 12284 layer_factory.hpp:77] Creating layer loss1/relu_fc
I0403 21:37:55.701997 12284 net.cpp:91] Creating Layer loss1/relu_fc
I0403 21:37:55.702014 12284 net.cpp:425] loss1/relu_fc <- loss1/fc
I0403 21:37:55.702031 12284 net.cpp:386] loss1/relu_fc -> loss1/fc (in-place)
I0403 21:37:55.702217 12284 net.cpp:141] Setting up loss1/relu_fc
I0403 21:37:55.702244 12284 net.cpp:148] Top shape: 24 1024 (24576)
I0403 21:37:55.702260 12284 net.cpp:156] Memory required for data: 946091040
I0403 21:37:55.702275 12284 layer_factory.hpp:77] Creating layer loss1/drop_fc
I0403 21:37:55.702299 12284 net.cpp:91] Creating Layer loss1/drop_fc
I0403 21:37:55.702316 12284 net.cpp:425] loss1/drop_fc <- loss1/fc
I0403 21:37:55.702332 12284 net.cpp:386] loss1/drop_fc -> loss1/fc (in-place)
I0403 21:37:55.702386 12284 net.cpp:141] Setting up loss1/drop_fc
I0403 21:37:55.702409 12284 net.cpp:148] Top shape: 24 1024 (24576)
I0403 21:37:55.702422 12284 net.cpp:156] Memory required for data: 946189344
I0403 21:37:55.702437 12284 layer_factory.hpp:77] Creating layer loss1/classifier_plantvillage
I0403 21:37:55.702455 12284 net.cpp:91] Creating Layer loss1/classifier_plantvillage
I0403 21:37:55.702471 12284 net.cpp:425] loss1/classifier_plantvillage <- loss1/fc
I0403 21:37:55.702491 12284 net.cpp:399] loss1/classifier_plantvillage -> loss1/classifier_plantvillage
I0403 21:37:55.703387 12284 net.cpp:141] Setting up loss1/classifier_plantvillage
I0403 21:37:55.703413 12284 net.cpp:148] Top shape: 24 38 (912)
I0403 21:37:55.703428 12284 net.cpp:156] Memory required for data: 946192992
I0403 21:37:55.703445 12284 layer_factory.hpp:77] Creating layer loss1/classifier_plantvillage_loss1/classifier_plantvillage_0_split
I0403 21:37:55.703464 12284 net.cpp:91] Creating Layer loss1/classifier_plantvillage_loss1/classifier_plantvillage_0_split
I0403 21:37:55.703480 12284 net.cpp:425] loss1/classifier_plantvillage_loss1/classifier_plantvillage_0_split <- loss1/classifier_plantvillage
I0403 21:37:55.703500 12284 net.cpp:399] loss1/classifier_plantvillage_loss1/classifier_plantvillage_0_split -> loss1/classifier_plantvillage_loss1/classifier_plantvillage_0_split_0
I0403 21:37:55.703519 12284 net.cpp:399] loss1/classifier_plantvillage_loss1/classifier_plantvillage_0_split -> loss1/classifier_plantvillage_loss1/classifier_plantvillage_0_split_1
I0403 21:37:55.703539 12284 net.cpp:399] loss1/classifier_plantvillage_loss1/classifier_plantvillage_0_split -> loss1/classifier_plantvillage_loss1/classifier_plantvillage_0_split_2
I0403 21:37:55.703606 12284 net.cpp:141] Setting up loss1/classifier_plantvillage_loss1/classifier_plantvillage_0_split
I0403 21:37:55.703629 12284 net.cpp:148] Top shape: 24 38 (912)
I0403 21:37:55.703645 12284 net.cpp:148] Top shape: 24 38 (912)
I0403 21:37:55.703660 12284 net.cpp:148] Top shape: 24 38 (912)
I0403 21:37:55.703675 12284 net.cpp:156] Memory required for data: 946203936
I0403 21:37:55.703690 12284 layer_factory.hpp:77] Creating layer inception_4b/1x1
I0403 21:37:55.703709 12284 net.cpp:91] Creating Layer inception_4b/1x1
I0403 21:37:55.703742 12284 net.cpp:425] inception_4b/1x1 <- inception_4a/output_inception_4a/output_0_split_1
I0403 21:37:55.703763 12284 net.cpp:399] inception_4b/1x1 -> inception_4b/1x1
I0403 21:37:55.705304 12284 net.cpp:141] Setting up inception_4b/1x1
I0403 21:37:55.705334 12284 net.cpp:148] Top shape: 24 160 14 14 (752640)
I0403 21:37:55.705351 12284 net.cpp:156] Memory required for data: 949214496
I0403 21:37:55.705369 12284 layer_factory.hpp:77] Creating layer inception_4b/relu_1x1
I0403 21:37:55.705386 12284 net.cpp:91] Creating Layer inception_4b/relu_1x1
I0403 21:37:55.705401 12284 net.cpp:425] inception_4b/relu_1x1 <- inception_4b/1x1
I0403 21:37:55.705420 12284 net.cpp:386] inception_4b/relu_1x1 -> inception_4b/1x1 (in-place)
I0403 21:37:55.705590 12284 net.cpp:141] Setting up inception_4b/relu_1x1
I0403 21:37:55.705613 12284 net.cpp:148] Top shape: 24 160 14 14 (752640)
I0403 21:37:55.705628 12284 net.cpp:156] Memory required for data: 952225056
I0403 21:37:55.705643 12284 layer_factory.hpp:77] Creating layer inception_4b/3x3_reduce
I0403 21:37:55.705667 12284 net.cpp:91] Creating Layer inception_4b/3x3_reduce
I0403 21:37:55.705684 12284 net.cpp:425] inception_4b/3x3_reduce <- inception_4a/output_inception_4a/output_0_split_2
I0403 21:37:55.705704 12284 net.cpp:399] inception_4b/3x3_reduce -> inception_4b/3x3_reduce
I0403 21:37:55.706986 12284 net.cpp:141] Setting up inception_4b/3x3_reduce
I0403 21:37:55.707012 12284 net.cpp:148] Top shape: 24 112 14 14 (526848)
I0403 21:37:55.707027 12284 net.cpp:156] Memory required for data: 954332448
I0403 21:37:55.707046 12284 layer_factory.hpp:77] Creating layer inception_4b/relu_3x3_reduce
I0403 21:37:55.707063 12284 net.cpp:91] Creating Layer inception_4b/relu_3x3_reduce
I0403 21:37:55.707078 12284 net.cpp:425] inception_4b/relu_3x3_reduce <- inception_4b/3x3_reduce
I0403 21:37:55.707098 12284 net.cpp:386] inception_4b/relu_3x3_reduce -> inception_4b/3x3_reduce (in-place)
I0403 21:37:55.707375 12284 net.cpp:141] Setting up inception_4b/relu_3x3_reduce
I0403 21:37:55.707399 12284 net.cpp:148] Top shape: 24 112 14 14 (526848)
I0403 21:37:55.707415 12284 net.cpp:156] Memory required for data: 956439840
I0403 21:37:55.707429 12284 layer_factory.hpp:77] Creating layer inception_4b/3x3
I0403 21:37:55.707450 12284 net.cpp:91] Creating Layer inception_4b/3x3
I0403 21:37:55.707468 12284 net.cpp:425] inception_4b/3x3 <- inception_4b/3x3_reduce
I0403 21:37:55.707489 12284 net.cpp:399] inception_4b/3x3 -> inception_4b/3x3
I0403 21:37:55.710320 12284 net.cpp:141] Setting up inception_4b/3x3
I0403 21:37:55.710348 12284 net.cpp:148] Top shape: 24 224 14 14 (1053696)
I0403 21:37:55.710363 12284 net.cpp:156] Memory required for data: 960654624
I0403 21:37:55.710382 12284 layer_factory.hpp:77] Creating layer inception_4b/relu_3x3
I0403 21:37:55.710402 12284 net.cpp:91] Creating Layer inception_4b/relu_3x3
I0403 21:37:55.710419 12284 net.cpp:425] inception_4b/relu_3x3 <- inception_4b/3x3
I0403 21:37:55.710436 12284 net.cpp:386] inception_4b/relu_3x3 -> inception_4b/3x3 (in-place)
I0403 21:37:55.710608 12284 net.cpp:141] Setting up inception_4b/relu_3x3
I0403 21:37:55.710634 12284 net.cpp:148] Top shape: 24 224 14 14 (1053696)
I0403 21:37:55.710650 12284 net.cpp:156] Memory required for data: 964869408
I0403 21:37:55.710664 12284 layer_factory.hpp:77] Creating layer inception_4b/5x5_reduce
I0403 21:37:55.710688 12284 net.cpp:91] Creating Layer inception_4b/5x5_reduce
I0403 21:37:55.710706 12284 net.cpp:425] inception_4b/5x5_reduce <- inception_4a/output_inception_4a/output_0_split_3
I0403 21:37:55.710724 12284 net.cpp:399] inception_4b/5x5_reduce -> inception_4b/5x5_reduce
I0403 21:37:55.711747 12284 net.cpp:141] Setting up inception_4b/5x5_reduce
I0403 21:37:55.711776 12284 net.cpp:148] Top shape: 24 24 14 14 (112896)
I0403 21:37:55.711791 12284 net.cpp:156] Memory required for data: 965320992
I0403 21:37:55.711809 12284 layer_factory.hpp:77] Creating layer inception_4b/relu_5x5_reduce
I0403 21:37:55.711827 12284 net.cpp:91] Creating Layer inception_4b/relu_5x5_reduce
I0403 21:37:55.711859 12284 net.cpp:425] inception_4b/relu_5x5_reduce <- inception_4b/5x5_reduce
I0403 21:37:55.711881 12284 net.cpp:386] inception_4b/relu_5x5_reduce -> inception_4b/5x5_reduce (in-place)
I0403 21:37:55.712055 12284 net.cpp:141] Setting up inception_4b/relu_5x5_reduce
I0403 21:37:55.712080 12284 net.cpp:148] Top shape: 24 24 14 14 (112896)
I0403 21:37:55.712095 12284 net.cpp:156] Memory required for data: 965772576
I0403 21:37:55.712108 12284 layer_factory.hpp:77] Creating layer inception_4b/5x5
I0403 21:37:55.712129 12284 net.cpp:91] Creating Layer inception_4b/5x5
I0403 21:37:55.712146 12284 net.cpp:425] inception_4b/5x5 <- inception_4b/5x5_reduce
I0403 21:37:55.712182 12284 net.cpp:399] inception_4b/5x5 -> inception_4b/5x5
I0403 21:37:55.713357 12284 net.cpp:141] Setting up inception_4b/5x5
I0403 21:37:55.713387 12284 net.cpp:148] Top shape: 24 64 14 14 (301056)
I0403 21:37:55.713402 12284 net.cpp:156] Memory required for data: 966976800
I0403 21:37:55.713420 12284 layer_factory.hpp:77] Creating layer inception_4b/relu_5x5
I0403 21:37:55.713438 12284 net.cpp:91] Creating Layer inception_4b/relu_5x5
I0403 21:37:55.713454 12284 net.cpp:425] inception_4b/relu_5x5 <- inception_4b/5x5
I0403 21:37:55.713472 12284 net.cpp:386] inception_4b/relu_5x5 -> inception_4b/5x5 (in-place)
I0403 21:37:55.713739 12284 net.cpp:141] Setting up inception_4b/relu_5x5
I0403 21:37:55.713767 12284 net.cpp:148] Top shape: 24 64 14 14 (301056)
I0403 21:37:55.713783 12284 net.cpp:156] Memory required for data: 968181024
I0403 21:37:55.713798 12284 layer_factory.hpp:77] Creating layer inception_4b/pool
I0403 21:37:55.713816 12284 net.cpp:91] Creating Layer inception_4b/pool
I0403 21:37:55.713832 12284 net.cpp:425] inception_4b/pool <- inception_4a/output_inception_4a/output_0_split_4
I0403 21:37:55.713851 12284 net.cpp:399] inception_4b/pool -> inception_4b/pool
I0403 21:37:55.713912 12284 net.cpp:141] Setting up inception_4b/pool
I0403 21:37:55.713935 12284 net.cpp:148] Top shape: 24 512 14 14 (2408448)
I0403 21:37:55.713950 12284 net.cpp:156] Memory required for data: 977814816
I0403 21:37:55.713964 12284 layer_factory.hpp:77] Creating layer inception_4b/pool_proj
I0403 21:37:55.713986 12284 net.cpp:91] Creating Layer inception_4b/pool_proj
I0403 21:37:55.714004 12284 net.cpp:425] inception_4b/pool_proj <- inception_4b/pool
I0403 21:37:55.714023 12284 net.cpp:399] inception_4b/pool_proj -> inception_4b/pool_proj
I0403 21:37:55.715195 12284 net.cpp:141] Setting up inception_4b/pool_proj
I0403 21:37:55.715229 12284 net.cpp:148] Top shape: 24 64 14 14 (301056)
I0403 21:37:55.715260 12284 net.cpp:156] Memory required for data: 979019040
I0403 21:37:55.715278 12284 layer_factory.hpp:77] Creating layer inception_4b/relu_pool_proj
I0403 21:37:55.715296 12284 net.cpp:91] Creating Layer inception_4b/relu_pool_proj
I0403 21:37:55.715312 12284 net.cpp:425] inception_4b/relu_pool_proj <- inception_4b/pool_proj
I0403 21:37:55.715337 12284 net.cpp:386] inception_4b/relu_pool_proj -> inception_4b/pool_proj (in-place)
I0403 21:37:55.715515 12284 net.cpp:141] Setting up inception_4b/relu_pool_proj
I0403 21:37:55.715541 12284 net.cpp:148] Top shape: 24 64 14 14 (301056)
I0403 21:37:55.715569 12284 net.cpp:156] Memory required for data: 980223264
I0403 21:37:55.715584 12284 layer_factory.hpp:77] Creating layer inception_4b/output
I0403 21:37:55.715601 12284 net.cpp:91] Creating Layer inception_4b/output
I0403 21:37:55.715616 12284 net.cpp:425] inception_4b/output <- inception_4b/1x1
I0403 21:37:55.715632 12284 net.cpp:425] inception_4b/output <- inception_4b/3x3
I0403 21:37:55.715648 12284 net.cpp:425] inception_4b/output <- inception_4b/5x5
I0403 21:37:55.715664 12284 net.cpp:425] inception_4b/output <- inception_4b/pool_proj
I0403 21:37:55.715683 12284 net.cpp:399] inception_4b/output -> inception_4b/output
I0403 21:37:55.715728 12284 net.cpp:141] Setting up inception_4b/output
I0403 21:37:55.715754 12284 net.cpp:148] Top shape: 24 512 14 14 (2408448)
I0403 21:37:55.715769 12284 net.cpp:156] Memory required for data: 989857056
I0403 21:37:55.715797 12284 layer_factory.hpp:77] Creating layer inception_4b/output_inception_4b/output_0_split
I0403 21:37:55.715816 12284 net.cpp:91] Creating Layer inception_4b/output_inception_4b/output_0_split
I0403 21:37:55.715829 12284 net.cpp:425] inception_4b/output_inception_4b/output_0_split <- inception_4b/output
I0403 21:37:55.715847 12284 net.cpp:399] inception_4b/output_inception_4b/output_0_split -> inception_4b/output_inception_4b/output_0_split_0
I0403 21:37:55.715869 12284 net.cpp:399] inception_4b/output_inception_4b/output_0_split -> inception_4b/output_inception_4b/output_0_split_1
I0403 21:37:55.715890 12284 net.cpp:399] inception_4b/output_inception_4b/output_0_split -> inception_4b/output_inception_4b/output_0_split_2
I0403 21:37:55.715914 12284 net.cpp:399] inception_4b/output_inception_4b/output_0_split -> inception_4b/output_inception_4b/output_0_split_3
I0403 21:37:55.715994 12284 net.cpp:141] Setting up inception_4b/output_inception_4b/output_0_split
I0403 21:37:55.716017 12284 net.cpp:148] Top shape: 24 512 14 14 (2408448)
I0403 21:37:55.716034 12284 net.cpp:148] Top shape: 24 512 14 14 (2408448)
I0403 21:37:55.716049 12284 net.cpp:148] Top shape: 24 512 14 14 (2408448)
I0403 21:37:55.716064 12284 net.cpp:148] Top shape: 24 512 14 14 (2408448)
I0403 21:37:55.716078 12284 net.cpp:156] Memory required for data: 1028392224
I0403 21:37:55.716092 12284 layer_factory.hpp:77] Creating layer inception_4c/1x1
I0403 21:37:55.716116 12284 net.cpp:91] Creating Layer inception_4c/1x1
I0403 21:37:55.716133 12284 net.cpp:425] inception_4c/1x1 <- inception_4b/output_inception_4b/output_0_split_0
I0403 21:37:55.716152 12284 net.cpp:399] inception_4c/1x1 -> inception_4c/1x1
I0403 21:37:55.717574 12284 net.cpp:141] Setting up inception_4c/1x1
I0403 21:37:55.717602 12284 net.cpp:148] Top shape: 24 128 14 14 (602112)
I0403 21:37:55.717617 12284 net.cpp:156] Memory required for data: 1030800672
I0403 21:37:55.717634 12284 layer_factory.hpp:77] Creating layer inception_4c/relu_1x1
I0403 21:37:55.717654 12284 net.cpp:91] Creating Layer inception_4c/relu_1x1
I0403 21:37:55.717672 12284 net.cpp:425] inception_4c/relu_1x1 <- inception_4c/1x1
I0403 21:37:55.717689 12284 net.cpp:386] inception_4c/relu_1x1 -> inception_4c/1x1 (in-place)
I0403 21:37:55.717869 12284 net.cpp:141] Setting up inception_4c/relu_1x1
I0403 21:37:55.717895 12284 net.cpp:148] Top shape: 24 128 14 14 (602112)
I0403 21:37:55.717911 12284 net.cpp:156] Memory required for data: 1033209120
I0403 21:37:55.717926 12284 layer_factory.hpp:77] Creating layer inception_4c/3x3_reduce
I0403 21:37:55.717946 12284 net.cpp:91] Creating Layer inception_4c/3x3_reduce
I0403 21:37:55.717962 12284 net.cpp:425] inception_4c/3x3_reduce <- inception_4b/output_inception_4b/output_0_split_1
I0403 21:37:55.717983 12284 net.cpp:399] inception_4c/3x3_reduce -> inception_4c/3x3_reduce
I0403 21:37:55.719939 12284 net.cpp:141] Setting up inception_4c/3x3_reduce
I0403 21:37:55.719972 12284 net.cpp:148] Top shape: 24 128 14 14 (602112)
I0403 21:37:55.719990 12284 net.cpp:156] Memory required for data: 1035617568
I0403 21:37:55.720008 12284 layer_factory.hpp:77] Creating layer inception_4c/relu_3x3_reduce
I0403 21:37:55.720026 12284 net.cpp:91] Creating Layer inception_4c/relu_3x3_reduce
I0403 21:37:55.720043 12284 net.cpp:425] inception_4c/relu_3x3_reduce <- inception_4c/3x3_reduce
I0403 21:37:55.720060 12284 net.cpp:386] inception_4c/relu_3x3_reduce -> inception_4c/3x3_reduce (in-place)
I0403 21:37:55.720363 12284 net.cpp:141] Setting up inception_4c/relu_3x3_reduce
I0403 21:37:55.720392 12284 net.cpp:148] Top shape: 24 128 14 14 (602112)
I0403 21:37:55.720408 12284 net.cpp:156] Memory required for data: 1038026016
I0403 21:37:55.720424 12284 layer_factory.hpp:77] Creating layer inception_4c/3x3
I0403 21:37:55.720448 12284 net.cpp:91] Creating Layer inception_4c/3x3
I0403 21:37:55.720468 12284 net.cpp:425] inception_4c/3x3 <- inception_4c/3x3_reduce
I0403 21:37:55.720486 12284 net.cpp:399] inception_4c/3x3 -> inception_4c/3x3
I0403 21:37:55.724056 12284 net.cpp:141] Setting up inception_4c/3x3
I0403 21:37:55.724098 12284 net.cpp:148] Top shape: 24 256 14 14 (1204224)
I0403 21:37:55.724115 12284 net.cpp:156] Memory required for data: 1042842912
I0403 21:37:55.724146 12284 layer_factory.hpp:77] Creating layer inception_4c/relu_3x3
I0403 21:37:55.724166 12284 net.cpp:91] Creating Layer inception_4c/relu_3x3
I0403 21:37:55.724184 12284 net.cpp:425] inception_4c/relu_3x3 <- inception_4c/3x3
I0403 21:37:55.724202 12284 net.cpp:386] inception_4c/relu_3x3 -> inception_4c/3x3 (in-place)
I0403 21:37:55.724401 12284 net.cpp:141] Setting up inception_4c/relu_3x3
I0403 21:37:55.724427 12284 net.cpp:148] Top shape: 24 256 14 14 (1204224)
I0403 21:37:55.724442 12284 net.cpp:156] Memory required for data: 1047659808
I0403 21:37:55.724457 12284 layer_factory.hpp:77] Creating layer inception_4c/5x5_reduce
I0403 21:37:55.724481 12284 net.cpp:91] Creating Layer inception_4c/5x5_reduce
I0403 21:37:55.724499 12284 net.cpp:425] inception_4c/5x5_reduce <- inception_4b/output_inception_4b/output_0_split_2
I0403 21:37:55.724521 12284 net.cpp:399] inception_4c/5x5_reduce -> inception_4c/5x5_reduce
I0403 21:37:55.725590 12284 net.cpp:141] Setting up inception_4c/5x5_reduce
I0403 21:37:55.725620 12284 net.cpp:148] Top shape: 24 24 14 14 (112896)
I0403 21:37:55.725636 12284 net.cpp:156] Memory required for data: 1048111392
I0403 21:37:55.725656 12284 layer_factory.hpp:77] Creating layer inception_4c/relu_5x5_reduce
I0403 21:37:55.725673 12284 net.cpp:91] Creating Layer inception_4c/relu_5x5_reduce
I0403 21:37:55.725689 12284 net.cpp:425] inception_4c/relu_5x5_reduce <- inception_4c/5x5_reduce
I0403 21:37:55.725708 12284 net.cpp:386] inception_4c/relu_5x5_reduce -> inception_4c/5x5_reduce (in-place)
I0403 21:37:55.725893 12284 net.cpp:141] Setting up inception_4c/relu_5x5_reduce
I0403 21:37:55.725919 12284 net.cpp:148] Top shape: 24 24 14 14 (112896)
I0403 21:37:55.725934 12284 net.cpp:156] Memory required for data: 1048562976
I0403 21:37:55.725950 12284 layer_factory.hpp:77] Creating layer inception_4c/5x5
I0403 21:37:55.725971 12284 net.cpp:91] Creating Layer inception_4c/5x5
I0403 21:37:55.725989 12284 net.cpp:425] inception_4c/5x5 <- inception_4c/5x5_reduce
I0403 21:37:55.726011 12284 net.cpp:399] inception_4c/5x5 -> inception_4c/5x5
I0403 21:37:55.727219 12284 net.cpp:141] Setting up inception_4c/5x5
I0403 21:37:55.727246 12284 net.cpp:148] Top shape: 24 64 14 14 (301056)
I0403 21:37:55.727275 12284 net.cpp:156] Memory required for data: 1049767200
I0403 21:37:55.727294 12284 layer_factory.hpp:77] Creating layer inception_4c/relu_5x5
I0403 21:37:55.727311 12284 net.cpp:91] Creating Layer inception_4c/relu_5x5
I0403 21:37:55.727329 12284 net.cpp:425] inception_4c/relu_5x5 <- inception_4c/5x5
I0403 21:37:55.727349 12284 net.cpp:386] inception_4c/relu_5x5 -> inception_4c/5x5 (in-place)
I0403 21:37:55.727645 12284 net.cpp:141] Setting up inception_4c/relu_5x5
I0403 21:37:55.727672 12284 net.cpp:148] Top shape: 24 64 14 14 (301056)
I0403 21:37:55.727687 12284 net.cpp:156] Memory required for data: 1050971424
I0403 21:37:55.727702 12284 layer_factory.hpp:77] Creating layer inception_4c/pool
I0403 21:37:55.727720 12284 net.cpp:91] Creating Layer inception_4c/pool
I0403 21:37:55.727737 12284 net.cpp:425] inception_4c/pool <- inception_4b/output_inception_4b/output_0_split_3
I0403 21:37:55.727758 12284 net.cpp:399] inception_4c/pool -> inception_4c/pool
I0403 21:37:55.727824 12284 net.cpp:141] Setting up inception_4c/pool
I0403 21:37:55.727848 12284 net.cpp:148] Top shape: 24 512 14 14 (2408448)
I0403 21:37:55.727862 12284 net.cpp:156] Memory required for data: 1060605216
I0403 21:37:55.727876 12284 layer_factory.hpp:77] Creating layer inception_4c/pool_proj
I0403 21:37:55.727900 12284 net.cpp:91] Creating Layer inception_4c/pool_proj
I0403 21:37:55.727917 12284 net.cpp:425] inception_4c/pool_proj <- inception_4c/pool
I0403 21:37:55.727936 12284 net.cpp:399] inception_4c/pool_proj -> inception_4c/pool_proj
I0403 21:37:55.729161 12284 net.cpp:141] Setting up inception_4c/pool_proj
I0403 21:37:55.729189 12284 net.cpp:148] Top shape: 24 64 14 14 (301056)
I0403 21:37:55.729223 12284 net.cpp:156] Memory required for data: 1061809440
I0403 21:37:55.729243 12284 layer_factory.hpp:77] Creating layer inception_4c/relu_pool_proj
I0403 21:37:55.729262 12284 net.cpp:91] Creating Layer inception_4c/relu_pool_proj
I0403 21:37:55.729279 12284 net.cpp:425] inception_4c/relu_pool_proj <- inception_4c/pool_proj
I0403 21:37:55.729298 12284 net.cpp:386] inception_4c/relu_pool_proj -> inception_4c/pool_proj (in-place)
I0403 21:37:55.729480 12284 net.cpp:141] Setting up inception_4c/relu_pool_proj
I0403 21:37:55.729506 12284 net.cpp:148] Top shape: 24 64 14 14 (301056)
I0403 21:37:55.729521 12284 net.cpp:156] Memory required for data: 1063013664
I0403 21:37:55.729535 12284 layer_factory.hpp:77] Creating layer inception_4c/output
I0403 21:37:55.729552 12284 net.cpp:91] Creating Layer inception_4c/output
I0403 21:37:55.729568 12284 net.cpp:425] inception_4c/output <- inception_4c/1x1
I0403 21:37:55.729584 12284 net.cpp:425] inception_4c/output <- inception_4c/3x3
I0403 21:37:55.729599 12284 net.cpp:425] inception_4c/output <- inception_4c/5x5
I0403 21:37:55.729615 12284 net.cpp:425] inception_4c/output <- inception_4c/pool_proj
I0403 21:37:55.729635 12284 net.cpp:399] inception_4c/output -> inception_4c/output
I0403 21:37:55.729681 12284 net.cpp:141] Setting up inception_4c/output
I0403 21:37:55.729707 12284 net.cpp:148] Top shape: 24 512 14 14 (2408448)
I0403 21:37:55.729722 12284 net.cpp:156] Memory required for data: 1072647456
I0403 21:37:55.729737 12284 layer_factory.hpp:77] Creating layer inception_4c/output_inception_4c/output_0_split
I0403 21:37:55.729753 12284 net.cpp:91] Creating Layer inception_4c/output_inception_4c/output_0_split
I0403 21:37:55.729769 12284 net.cpp:425] inception_4c/output_inception_4c/output_0_split <- inception_4c/output
I0403 21:37:55.729786 12284 net.cpp:399] inception_4c/output_inception_4c/output_0_split -> inception_4c/output_inception_4c/output_0_split_0
I0403 21:37:55.729809 12284 net.cpp:399] inception_4c/output_inception_4c/output_0_split -> inception_4c/output_inception_4c/output_0_split_1
I0403 21:37:55.729831 12284 net.cpp:399] inception_4c/output_inception_4c/output_0_split -> inception_4c/output_inception_4c/output_0_split_2
I0403 21:37:55.729853 12284 net.cpp:399] inception_4c/output_inception_4c/output_0_split -> inception_4c/output_inception_4c/output_0_split_3
I0403 21:37:55.729938 12284 net.cpp:141] Setting up inception_4c/output_inception_4c/output_0_split
I0403 21:37:55.729961 12284 net.cpp:148] Top shape: 24 512 14 14 (2408448)
I0403 21:37:55.729977 12284 net.cpp:148] Top shape: 24 512 14 14 (2408448)
I0403 21:37:55.729993 12284 net.cpp:148] Top shape: 24 512 14 14 (2408448)
I0403 21:37:55.730010 12284 net.cpp:148] Top shape: 24 512 14 14 (2408448)
I0403 21:37:55.730023 12284 net.cpp:156] Memory required for data: 1111182624
I0403 21:37:55.730037 12284 layer_factory.hpp:77] Creating layer inception_4d/1x1
I0403 21:37:55.730060 12284 net.cpp:91] Creating Layer inception_4d/1x1
I0403 21:37:55.730077 12284 net.cpp:425] inception_4d/1x1 <- inception_4c/output_inception_4c/output_0_split_0
I0403 21:37:55.730096 12284 net.cpp:399] inception_4d/1x1 -> inception_4d/1x1
I0403 21:37:55.731457 12284 net.cpp:141] Setting up inception_4d/1x1
I0403 21:37:55.731485 12284 net.cpp:148] Top shape: 24 112 14 14 (526848)
I0403 21:37:55.731501 12284 net.cpp:156] Memory required for data: 1113290016
I0403 21:37:55.731519 12284 layer_factory.hpp:77] Creating layer inception_4d/relu_1x1
I0403 21:37:55.731551 12284 net.cpp:91] Creating Layer inception_4d/relu_1x1
I0403 21:37:55.731569 12284 net.cpp:425] inception_4d/relu_1x1 <- inception_4d/1x1
I0403 21:37:55.731586 12284 net.cpp:386] inception_4d/relu_1x1 -> inception_4d/1x1 (in-place)
I0403 21:37:55.731786 12284 net.cpp:141] Setting up inception_4d/relu_1x1
I0403 21:37:55.731812 12284 net.cpp:148] Top shape: 24 112 14 14 (526848)
I0403 21:37:55.731827 12284 net.cpp:156] Memory required for data: 1115397408
I0403 21:37:55.731842 12284 layer_factory.hpp:77] Creating layer inception_4d/3x3_reduce
I0403 21:37:55.731878 12284 net.cpp:91] Creating Layer inception_4d/3x3_reduce
I0403 21:37:55.731897 12284 net.cpp:425] inception_4d/3x3_reduce <- inception_4c/output_inception_4c/output_0_split_1
I0403 21:37:55.731916 12284 net.cpp:399] inception_4d/3x3_reduce -> inception_4d/3x3_reduce
I0403 21:37:55.733381 12284 net.cpp:141] Setting up inception_4d/3x3_reduce
I0403 21:37:55.733407 12284 net.cpp:148] Top shape: 24 144 14 14 (677376)
I0403 21:37:55.733422 12284 net.cpp:156] Memory required for data: 1118106912
I0403 21:37:55.733440 12284 layer_factory.hpp:77] Creating layer inception_4d/relu_3x3_reduce
I0403 21:37:55.733461 12284 net.cpp:91] Creating Layer inception_4d/relu_3x3_reduce
I0403 21:37:55.733479 12284 net.cpp:425] inception_4d/relu_3x3_reduce <- inception_4d/3x3_reduce
I0403 21:37:55.733495 12284 net.cpp:386] inception_4d/relu_3x3_reduce -> inception_4d/3x3_reduce (in-place)
I0403 21:37:55.733770 12284 net.cpp:141] Setting up inception_4d/relu_3x3_reduce
I0403 21:37:55.733795 12284 net.cpp:148] Top shape: 24 144 14 14 (677376)
I0403 21:37:55.733810 12284 net.cpp:156] Memory required for data: 1120816416
I0403 21:37:55.733825 12284 layer_factory.hpp:77] Creating layer inception_4d/3x3
I0403 21:37:55.733846 12284 net.cpp:91] Creating Layer inception_4d/3x3
I0403 21:37:55.733863 12284 net.cpp:425] inception_4d/3x3 <- inception_4d/3x3_reduce
I0403 21:37:55.733883 12284 net.cpp:399] inception_4d/3x3 -> inception_4d/3x3
I0403 21:37:55.737978 12284 net.cpp:141] Setting up inception_4d/3x3
I0403 21:37:55.738005 12284 net.cpp:148] Top shape: 24 288 14 14 (1354752)
I0403 21:37:55.738024 12284 net.cpp:156] Memory required for data: 1126235424
I0403 21:37:55.738042 12284 layer_factory.hpp:77] Creating layer inception_4d/relu_3x3
I0403 21:37:55.738060 12284 net.cpp:91] Creating Layer inception_4d/relu_3x3
I0403 21:37:55.738075 12284 net.cpp:425] inception_4d/relu_3x3 <- inception_4d/3x3
I0403 21:37:55.738091 12284 net.cpp:386] inception_4d/relu_3x3 -> inception_4d/3x3 (in-place)
I0403 21:37:55.738288 12284 net.cpp:141] Setting up inception_4d/relu_3x3
I0403 21:37:55.738315 12284 net.cpp:148] Top shape: 24 288 14 14 (1354752)
I0403 21:37:55.738332 12284 net.cpp:156] Memory required for data: 1131654432
I0403 21:37:55.738345 12284 layer_factory.hpp:77] Creating layer inception_4d/5x5_reduce
I0403 21:37:55.738368 12284 net.cpp:91] Creating Layer inception_4d/5x5_reduce
I0403 21:37:55.738385 12284 net.cpp:425] inception_4d/5x5_reduce <- inception_4c/output_inception_4c/output_0_split_2
I0403 21:37:55.738404 12284 net.cpp:399] inception_4d/5x5_reduce -> inception_4d/5x5_reduce
I0403 21:37:55.739502 12284 net.cpp:141] Setting up inception_4d/5x5_reduce
I0403 21:37:55.739529 12284 net.cpp:148] Top shape: 24 32 14 14 (150528)
I0403 21:37:55.739544 12284 net.cpp:156] Memory required for data: 1132256544
I0403 21:37:55.739563 12284 layer_factory.hpp:77] Creating layer inception_4d/relu_5x5_reduce
I0403 21:37:55.739583 12284 net.cpp:91] Creating Layer inception_4d/relu_5x5_reduce
I0403 21:37:55.739598 12284 net.cpp:425] inception_4d/relu_5x5_reduce <- inception_4d/5x5_reduce
I0403 21:37:55.739615 12284 net.cpp:386] inception_4d/relu_5x5_reduce -> inception_4d/5x5_reduce (in-place)
I0403 21:37:55.739791 12284 net.cpp:141] Setting up inception_4d/relu_5x5_reduce
I0403 21:37:55.739816 12284 net.cpp:148] Top shape: 24 32 14 14 (150528)
I0403 21:37:55.739830 12284 net.cpp:156] Memory required for data: 1132858656
I0403 21:37:55.739843 12284 layer_factory.hpp:77] Creating layer inception_4d/5x5
I0403 21:37:55.739864 12284 net.cpp:91] Creating Layer inception_4d/5x5
I0403 21:37:55.739881 12284 net.cpp:425] inception_4d/5x5 <- inception_4d/5x5_reduce
I0403 21:37:55.739902 12284 net.cpp:399] inception_4d/5x5 -> inception_4d/5x5
I0403 21:37:55.741286 12284 net.cpp:141] Setting up inception_4d/5x5
I0403 21:37:55.741312 12284 net.cpp:148] Top shape: 24 64 14 14 (301056)
I0403 21:37:55.741328 12284 net.cpp:156] Memory required for data: 1134062880
I0403 21:37:55.741348 12284 layer_factory.hpp:77] Creating layer inception_4d/relu_5x5
I0403 21:37:55.741379 12284 net.cpp:91] Creating Layer inception_4d/relu_5x5
I0403 21:37:55.741395 12284 net.cpp:425] inception_4d/relu_5x5 <- inception_4d/5x5
I0403 21:37:55.741418 12284 net.cpp:386] inception_4d/relu_5x5 -> inception_4d/5x5 (in-place)
I0403 21:37:55.741703 12284 net.cpp:141] Setting up inception_4d/relu_5x5
I0403 21:37:55.741729 12284 net.cpp:148] Top shape: 24 64 14 14 (301056)
I0403 21:37:55.741744 12284 net.cpp:156] Memory required for data: 1135267104
I0403 21:37:55.741757 12284 layer_factory.hpp:77] Creating layer inception_4d/pool
I0403 21:37:55.741775 12284 net.cpp:91] Creating Layer inception_4d/pool
I0403 21:37:55.741791 12284 net.cpp:425] inception_4d/pool <- inception_4c/output_inception_4c/output_0_split_3
I0403 21:37:55.741812 12284 net.cpp:399] inception_4d/pool -> inception_4d/pool
I0403 21:37:55.741876 12284 net.cpp:141] Setting up inception_4d/pool
I0403 21:37:55.741899 12284 net.cpp:148] Top shape: 24 512 14 14 (2408448)
I0403 21:37:55.741914 12284 net.cpp:156] Memory required for data: 1144900896
I0403 21:37:55.741926 12284 layer_factory.hpp:77] Creating layer inception_4d/pool_proj
I0403 21:37:55.741950 12284 net.cpp:91] Creating Layer inception_4d/pool_proj
I0403 21:37:55.741967 12284 net.cpp:425] inception_4d/pool_proj <- inception_4d/pool
I0403 21:37:55.741986 12284 net.cpp:399] inception_4d/pool_proj -> inception_4d/pool_proj
I0403 21:37:55.743700 12284 net.cpp:141] Setting up inception_4d/pool_proj
I0403 21:37:55.743728 12284 net.cpp:148] Top shape: 24 64 14 14 (301056)
I0403 21:37:55.743746 12284 net.cpp:156] Memory required for data: 1146105120
I0403 21:37:55.743764 12284 layer_factory.hpp:77] Creating layer inception_4d/relu_pool_proj
I0403 21:37:55.743782 12284 net.cpp:91] Creating Layer inception_4d/relu_pool_proj
I0403 21:37:55.743798 12284 net.cpp:425] inception_4d/relu_pool_proj <- inception_4d/pool_proj
I0403 21:37:55.743814 12284 net.cpp:386] inception_4d/relu_pool_proj -> inception_4d/pool_proj (in-place)
I0403 21:37:55.743993 12284 net.cpp:141] Setting up inception_4d/relu_pool_proj
I0403 21:37:55.744019 12284 net.cpp:148] Top shape: 24 64 14 14 (301056)
I0403 21:37:55.744034 12284 net.cpp:156] Memory required for data: 1147309344
I0403 21:37:55.744048 12284 layer_factory.hpp:77] Creating layer inception_4d/output
I0403 21:37:55.744065 12284 net.cpp:91] Creating Layer inception_4d/output
I0403 21:37:55.744081 12284 net.cpp:425] inception_4d/output <- inception_4d/1x1
I0403 21:37:55.744096 12284 net.cpp:425] inception_4d/output <- inception_4d/3x3
I0403 21:37:55.744110 12284 net.cpp:425] inception_4d/output <- inception_4d/5x5
I0403 21:37:55.744127 12284 net.cpp:425] inception_4d/output <- inception_4d/pool_proj
I0403 21:37:55.744145 12284 net.cpp:399] inception_4d/output -> inception_4d/output
I0403 21:37:55.744190 12284 net.cpp:141] Setting up inception_4d/output
I0403 21:37:55.744216 12284 net.cpp:148] Top shape: 24 528 14 14 (2483712)
I0403 21:37:55.744232 12284 net.cpp:156] Memory required for data: 1157244192
I0403 21:37:55.744246 12284 layer_factory.hpp:77] Creating layer inception_4d/output_inception_4d/output_0_split
I0403 21:37:55.744266 12284 net.cpp:91] Creating Layer inception_4d/output_inception_4d/output_0_split
I0403 21:37:55.744283 12284 net.cpp:425] inception_4d/output_inception_4d/output_0_split <- inception_4d/output
I0403 21:37:55.744300 12284 net.cpp:399] inception_4d/output_inception_4d/output_0_split -> inception_4d/output_inception_4d/output_0_split_0
I0403 21:37:55.744324 12284 net.cpp:399] inception_4d/output_inception_4d/output_0_split -> inception_4d/output_inception_4d/output_0_split_1
I0403 21:37:55.744345 12284 net.cpp:399] inception_4d/output_inception_4d/output_0_split -> inception_4d/output_inception_4d/output_0_split_2
I0403 21:37:55.744365 12284 net.cpp:399] inception_4d/output_inception_4d/output_0_split -> inception_4d/output_inception_4d/output_0_split_3
I0403 21:37:55.744385 12284 net.cpp:399] inception_4d/output_inception_4d/output_0_split -> inception_4d/output_inception_4d/output_0_split_4
I0403 21:37:55.744483 12284 net.cpp:141] Setting up inception_4d/output_inception_4d/output_0_split
I0403 21:37:55.744516 12284 net.cpp:148] Top shape: 24 528 14 14 (2483712)
I0403 21:37:55.744534 12284 net.cpp:148] Top shape: 24 528 14 14 (2483712)
I0403 21:37:55.744550 12284 net.cpp:148] Top shape: 24 528 14 14 (2483712)
I0403 21:37:55.744565 12284 net.cpp:148] Top shape: 24 528 14 14 (2483712)
I0403 21:37:55.744580 12284 net.cpp:148] Top shape: 24 528 14 14 (2483712)
I0403 21:37:55.744593 12284 net.cpp:156] Memory required for data: 1206918432
I0403 21:37:55.744607 12284 layer_factory.hpp:77] Creating layer loss2/ave_pool
I0403 21:37:55.744627 12284 net.cpp:91] Creating Layer loss2/ave_pool
I0403 21:37:55.744644 12284 net.cpp:425] loss2/ave_pool <- inception_4d/output_inception_4d/output_0_split_0
I0403 21:37:55.744663 12284 net.cpp:399] loss2/ave_pool -> loss2/ave_pool
I0403 21:37:55.744953 12284 net.cpp:141] Setting up loss2/ave_pool
I0403 21:37:55.744981 12284 net.cpp:148] Top shape: 24 528 4 4 (202752)
I0403 21:37:55.744997 12284 net.cpp:156] Memory required for data: 1207729440
I0403 21:37:55.745012 12284 layer_factory.hpp:77] Creating layer loss2/conv
I0403 21:37:55.745030 12284 net.cpp:91] Creating Layer loss2/conv
I0403 21:37:55.745048 12284 net.cpp:425] loss2/conv <- loss2/ave_pool
I0403 21:37:55.745067 12284 net.cpp:399] loss2/conv -> loss2/conv
I0403 21:37:55.746901 12284 net.cpp:141] Setting up loss2/conv
I0403 21:37:55.746929 12284 net.cpp:148] Top shape: 24 128 4 4 (49152)
I0403 21:37:55.746944 12284 net.cpp:156] Memory required for data: 1207926048
I0403 21:37:55.746963 12284 layer_factory.hpp:77] Creating layer loss2/relu_conv
I0403 21:37:55.746980 12284 net.cpp:91] Creating Layer loss2/relu_conv
I0403 21:37:55.746996 12284 net.cpp:425] loss2/relu_conv <- loss2/conv
I0403 21:37:55.747015 12284 net.cpp:386] loss2/relu_conv -> loss2/conv (in-place)
I0403 21:37:55.747294 12284 net.cpp:141] Setting up loss2/relu_conv
I0403 21:37:55.747320 12284 net.cpp:148] Top shape: 24 128 4 4 (49152)
I0403 21:37:55.747335 12284 net.cpp:156] Memory required for data: 1208122656
I0403 21:37:55.747350 12284 layer_factory.hpp:77] Creating layer loss2/fc
I0403 21:37:55.747370 12284 net.cpp:91] Creating Layer loss2/fc
I0403 21:37:55.747386 12284 net.cpp:425] loss2/fc <- loss2/conv
I0403 21:37:55.747407 12284 net.cpp:399] loss2/fc -> loss2/fc
I0403 21:37:55.764472 12284 net.cpp:141] Setting up loss2/fc
I0403 21:37:55.764508 12284 net.cpp:148] Top shape: 24 1024 (24576)
I0403 21:37:55.764536 12284 net.cpp:156] Memory required for data: 1208220960
I0403 21:37:55.764555 12284 layer_factory.hpp:77] Creating layer loss2/relu_fc
I0403 21:37:55.764575 12284 net.cpp:91] Creating Layer loss2/relu_fc
I0403 21:37:55.764593 12284 net.cpp:425] loss2/relu_fc <- loss2/fc
I0403 21:37:55.764611 12284 net.cpp:386] loss2/relu_fc -> loss2/fc (in-place)
I0403 21:37:55.764917 12284 net.cpp:141] Setting up loss2/relu_fc
I0403 21:37:55.764945 12284 net.cpp:148] Top shape: 24 1024 (24576)
I0403 21:37:55.764960 12284 net.cpp:156] Memory required for data: 1208319264
I0403 21:37:55.764973 12284 layer_factory.hpp:77] Creating layer loss2/drop_fc
I0403 21:37:55.764991 12284 net.cpp:91] Creating Layer loss2/drop_fc
I0403 21:37:55.765007 12284 net.cpp:425] loss2/drop_fc <- loss2/fc
I0403 21:37:55.765023 12284 net.cpp:386] loss2/drop_fc -> loss2/fc (in-place)
I0403 21:37:55.765071 12284 net.cpp:141] Setting up loss2/drop_fc
I0403 21:37:55.765094 12284 net.cpp:148] Top shape: 24 1024 (24576)
I0403 21:37:55.765107 12284 net.cpp:156] Memory required for data: 1208417568
I0403 21:37:55.765121 12284 layer_factory.hpp:77] Creating layer loss2/classifier_plantvillage
I0403 21:37:55.765142 12284 net.cpp:91] Creating Layer loss2/classifier_plantvillage
I0403 21:37:55.765159 12284 net.cpp:425] loss2/classifier_plantvillage <- loss2/fc
I0403 21:37:55.765178 12284 net.cpp:399] loss2/classifier_plantvillage -> loss2/classifier_plantvillage
I0403 21:37:55.765589 12284 net.cpp:141] Setting up loss2/classifier_plantvillage
I0403 21:37:55.765614 12284 net.cpp:148] Top shape: 24 38 (912)
I0403 21:37:55.765630 12284 net.cpp:156] Memory required for data: 1208421216
I0403 21:37:55.765664 12284 layer_factory.hpp:77] Creating layer loss2/classifier_plantvillage_loss2/classifier_plantvillage_0_split
I0403 21:37:55.765683 12284 net.cpp:91] Creating Layer loss2/classifier_plantvillage_loss2/classifier_plantvillage_0_split
I0403 21:37:55.765699 12284 net.cpp:425] loss2/classifier_plantvillage_loss2/classifier_plantvillage_0_split <- loss2/classifier_plantvillage
I0403 21:37:55.765719 12284 net.cpp:399] loss2/classifier_plantvillage_loss2/classifier_plantvillage_0_split -> loss2/classifier_plantvillage_loss2/classifier_plantvillage_0_split_0
I0403 21:37:55.765740 12284 net.cpp:399] loss2/classifier_plantvillage_loss2/classifier_plantvillage_0_split -> loss2/classifier_plantvillage_loss2/classifier_plantvillage_0_split_1
I0403 21:37:55.765760 12284 net.cpp:399] loss2/classifier_plantvillage_loss2/classifier_plantvillage_0_split -> loss2/classifier_plantvillage_loss2/classifier_plantvillage_0_split_2
I0403 21:37:55.765839 12284 net.cpp:141] Setting up loss2/classifier_plantvillage_loss2/classifier_plantvillage_0_split
I0403 21:37:55.765866 12284 net.cpp:148] Top shape: 24 38 (912)
I0403 21:37:55.765882 12284 net.cpp:148] Top shape: 24 38 (912)
I0403 21:37:55.765898 12284 net.cpp:148] Top shape: 24 38 (912)
I0403 21:37:55.765911 12284 net.cpp:156] Memory required for data: 1208432160
I0403 21:37:55.765925 12284 layer_factory.hpp:77] Creating layer inception_4e/1x1
I0403 21:37:55.765945 12284 net.cpp:91] Creating Layer inception_4e/1x1
I0403 21:37:55.765961 12284 net.cpp:425] inception_4e/1x1 <- inception_4d/output_inception_4d/output_0_split_1
I0403 21:37:55.765980 12284 net.cpp:399] inception_4e/1x1 -> inception_4e/1x1
I0403 21:37:55.767791 12284 net.cpp:141] Setting up inception_4e/1x1
I0403 21:37:55.767819 12284 net.cpp:148] Top shape: 24 256 14 14 (1204224)
I0403 21:37:55.767835 12284 net.cpp:156] Memory required for data: 1213249056
I0403 21:37:55.767853 12284 layer_factory.hpp:77] Creating layer inception_4e/relu_1x1
I0403 21:37:55.767871 12284 net.cpp:91] Creating Layer inception_4e/relu_1x1
I0403 21:37:55.767889 12284 net.cpp:425] inception_4e/relu_1x1 <- inception_4e/1x1
I0403 21:37:55.767907 12284 net.cpp:386] inception_4e/relu_1x1 -> inception_4e/1x1 (in-place)
I0403 21:37:55.768204 12284 net.cpp:141] Setting up inception_4e/relu_1x1
I0403 21:37:55.768234 12284 net.cpp:148] Top shape: 24 256 14 14 (1204224)
I0403 21:37:55.768250 12284 net.cpp:156] Memory required for data: 1218065952
I0403 21:37:55.768265 12284 layer_factory.hpp:77] Creating layer inception_4e/3x3_reduce
I0403 21:37:55.768287 12284 net.cpp:91] Creating Layer inception_4e/3x3_reduce
I0403 21:37:55.768306 12284 net.cpp:425] inception_4e/3x3_reduce <- inception_4d/output_inception_4d/output_0_split_2
I0403 21:37:55.768327 12284 net.cpp:399] inception_4e/3x3_reduce -> inception_4e/3x3_reduce
I0403 21:37:55.770447 12284 net.cpp:141] Setting up inception_4e/3x3_reduce
I0403 21:37:55.770479 12284 net.cpp:148] Top shape: 24 160 14 14 (752640)
I0403 21:37:55.770496 12284 net.cpp:156] Memory required for data: 1221076512
I0403 21:37:55.770515 12284 layer_factory.hpp:77] Creating layer inception_4e/relu_3x3_reduce
I0403 21:37:55.770534 12284 net.cpp:91] Creating Layer inception_4e/relu_3x3_reduce
I0403 21:37:55.770563 12284 net.cpp:425] inception_4e/relu_3x3_reduce <- inception_4e/3x3_reduce
I0403 21:37:55.770582 12284 net.cpp:386] inception_4e/relu_3x3_reduce -> inception_4e/3x3_reduce (in-place)
I0403 21:37:55.770766 12284 net.cpp:141] Setting up inception_4e/relu_3x3_reduce
I0403 21:37:55.770792 12284 net.cpp:148] Top shape: 24 160 14 14 (752640)
I0403 21:37:55.770807 12284 net.cpp:156] Memory required for data: 1224087072
I0403 21:37:55.770822 12284 layer_factory.hpp:77] Creating layer inception_4e/3x3
I0403 21:37:55.770843 12284 net.cpp:91] Creating Layer inception_4e/3x3
I0403 21:37:55.770861 12284 net.cpp:425] inception_4e/3x3 <- inception_4e/3x3_reduce
I0403 21:37:55.770884 12284 net.cpp:399] inception_4e/3x3 -> inception_4e/3x3
I0403 21:37:55.775871 12284 net.cpp:141] Setting up inception_4e/3x3
I0403 21:37:55.775912 12284 net.cpp:148] Top shape: 24 320 14 14 (1505280)
I0403 21:37:55.775928 12284 net.cpp:156] Memory required for data: 1230108192
I0403 21:37:55.775945 12284 layer_factory.hpp:77] Creating layer inception_4e/relu_3x3
I0403 21:37:55.775965 12284 net.cpp:91] Creating Layer inception_4e/relu_3x3
I0403 21:37:55.775982 12284 net.cpp:425] inception_4e/relu_3x3 <- inception_4e/3x3
I0403 21:37:55.776000 12284 net.cpp:386] inception_4e/relu_3x3 -> inception_4e/3x3 (in-place)
I0403 21:37:55.776298 12284 net.cpp:141] Setting up inception_4e/relu_3x3
I0403 21:37:55.776324 12284 net.cpp:148] Top shape: 24 320 14 14 (1505280)
I0403 21:37:55.776340 12284 net.cpp:156] Memory required for data: 1236129312
I0403 21:37:55.776356 12284 layer_factory.hpp:77] Creating layer inception_4e/5x5_reduce
I0403 21:37:55.776378 12284 net.cpp:91] Creating Layer inception_4e/5x5_reduce
I0403 21:37:55.776398 12284 net.cpp:425] inception_4e/5x5_reduce <- inception_4d/output_inception_4d/output_0_split_3
I0403 21:37:55.776418 12284 net.cpp:399] inception_4e/5x5_reduce -> inception_4e/5x5_reduce
I0403 21:37:55.777467 12284 net.cpp:141] Setting up inception_4e/5x5_reduce
I0403 21:37:55.777495 12284 net.cpp:148] Top shape: 24 32 14 14 (150528)
I0403 21:37:55.777511 12284 net.cpp:156] Memory required for data: 1236731424
I0403 21:37:55.777530 12284 layer_factory.hpp:77] Creating layer inception_4e/relu_5x5_reduce
I0403 21:37:55.777549 12284 net.cpp:91] Creating Layer inception_4e/relu_5x5_reduce
I0403 21:37:55.777565 12284 net.cpp:425] inception_4e/relu_5x5_reduce <- inception_4e/5x5_reduce
I0403 21:37:55.777585 12284 net.cpp:386] inception_4e/relu_5x5_reduce -> inception_4e/5x5_reduce (in-place)
I0403 21:37:55.777874 12284 net.cpp:141] Setting up inception_4e/relu_5x5_reduce
I0403 21:37:55.777900 12284 net.cpp:148] Top shape: 24 32 14 14 (150528)
I0403 21:37:55.777915 12284 net.cpp:156] Memory required for data: 1237333536
I0403 21:37:55.777930 12284 layer_factory.hpp:77] Creating layer inception_4e/5x5
I0403 21:37:55.777967 12284 net.cpp:91] Creating Layer inception_4e/5x5
I0403 21:37:55.777987 12284 net.cpp:425] inception_4e/5x5 <- inception_4e/5x5_reduce
I0403 21:37:55.778007 12284 net.cpp:399] inception_4e/5x5 -> inception_4e/5x5
I0403 21:37:55.779863 12284 net.cpp:141] Setting up inception_4e/5x5
I0403 21:37:55.779892 12284 net.cpp:148] Top shape: 24 128 14 14 (602112)
I0403 21:37:55.779909 12284 net.cpp:156] Memory required for data: 1239741984
I0403 21:37:55.779928 12284 layer_factory.hpp:77] Creating layer inception_4e/relu_5x5
I0403 21:37:55.779947 12284 net.cpp:91] Creating Layer inception_4e/relu_5x5
I0403 21:37:55.779963 12284 net.cpp:425] inception_4e/relu_5x5 <- inception_4e/5x5
I0403 21:37:55.779979 12284 net.cpp:386] inception_4e/relu_5x5 -> inception_4e/5x5 (in-place)
I0403 21:37:55.780177 12284 net.cpp:141] Setting up inception_4e/relu_5x5
I0403 21:37:55.780202 12284 net.cpp:148] Top shape: 24 128 14 14 (602112)
I0403 21:37:55.780222 12284 net.cpp:156] Memory required for data: 1242150432
I0403 21:37:55.780238 12284 layer_factory.hpp:77] Creating layer inception_4e/pool
I0403 21:37:55.780256 12284 net.cpp:91] Creating Layer inception_4e/pool
I0403 21:37:55.780273 12284 net.cpp:425] inception_4e/pool <- inception_4d/output_inception_4d/output_0_split_4
I0403 21:37:55.780294 12284 net.cpp:399] inception_4e/pool -> inception_4e/pool
I0403 21:37:55.780364 12284 net.cpp:141] Setting up inception_4e/pool
I0403 21:37:55.780390 12284 net.cpp:148] Top shape: 24 528 14 14 (2483712)
I0403 21:37:55.780405 12284 net.cpp:156] Memory required for data: 1252085280
I0403 21:37:55.780421 12284 layer_factory.hpp:77] Creating layer inception_4e/pool_proj
I0403 21:37:55.780442 12284 net.cpp:91] Creating Layer inception_4e/pool_proj
I0403 21:37:55.780459 12284 net.cpp:425] inception_4e/pool_proj <- inception_4e/pool
I0403 21:37:55.780479 12284 net.cpp:399] inception_4e/pool_proj -> inception_4e/pool_proj
I0403 21:37:55.781945 12284 net.cpp:141] Setting up inception_4e/pool_proj
I0403 21:37:55.781975 12284 net.cpp:148] Top shape: 24 128 14 14 (602112)
I0403 21:37:55.782004 12284 net.cpp:156] Memory required for data: 1254493728
I0403 21:37:55.782023 12284 layer_factory.hpp:77] Creating layer inception_4e/relu_pool_proj
I0403 21:37:55.782042 12284 net.cpp:91] Creating Layer inception_4e/relu_pool_proj
I0403 21:37:55.782059 12284 net.cpp:425] inception_4e/relu_pool_proj <- inception_4e/pool_proj
I0403 21:37:55.782075 12284 net.cpp:386] inception_4e/relu_pool_proj -> inception_4e/pool_proj (in-place)
I0403 21:37:55.782394 12284 net.cpp:141] Setting up inception_4e/relu_pool_proj
I0403 21:37:55.782423 12284 net.cpp:148] Top shape: 24 128 14 14 (602112)
I0403 21:37:55.782438 12284 net.cpp:156] Memory required for data: 1256902176
I0403 21:37:55.782466 12284 layer_factory.hpp:77] Creating layer inception_4e/output
I0403 21:37:55.782483 12284 net.cpp:91] Creating Layer inception_4e/output
I0403 21:37:55.782500 12284 net.cpp:425] inception_4e/output <- inception_4e/1x1
I0403 21:37:55.782515 12284 net.cpp:425] inception_4e/output <- inception_4e/3x3
I0403 21:37:55.782529 12284 net.cpp:425] inception_4e/output <- inception_4e/5x5
I0403 21:37:55.782546 12284 net.cpp:425] inception_4e/output <- inception_4e/pool_proj
I0403 21:37:55.782563 12284 net.cpp:399] inception_4e/output -> inception_4e/output
I0403 21:37:55.782613 12284 net.cpp:141] Setting up inception_4e/output
I0403 21:37:55.782634 12284 net.cpp:148] Top shape: 24 832 14 14 (3913728)
I0403 21:37:55.782649 12284 net.cpp:156] Memory required for data: 1272557088
I0403 21:37:55.782662 12284 layer_factory.hpp:77] Creating layer pool4/3x3_s2
I0403 21:37:55.782680 12284 net.cpp:91] Creating Layer pool4/3x3_s2
I0403 21:37:55.782696 12284 net.cpp:425] pool4/3x3_s2 <- inception_4e/output
I0403 21:37:55.782714 12284 net.cpp:399] pool4/3x3_s2 -> pool4/3x3_s2
I0403 21:37:55.782780 12284 net.cpp:141] Setting up pool4/3x3_s2
I0403 21:37:55.782804 12284 net.cpp:148] Top shape: 24 832 7 7 (978432)
I0403 21:37:55.782817 12284 net.cpp:156] Memory required for data: 1276470816
I0403 21:37:55.782831 12284 layer_factory.hpp:77] Creating layer pool4/3x3_s2_pool4/3x3_s2_0_split
I0403 21:37:55.782847 12284 net.cpp:91] Creating Layer pool4/3x3_s2_pool4/3x3_s2_0_split
I0403 21:37:55.782863 12284 net.cpp:425] pool4/3x3_s2_pool4/3x3_s2_0_split <- pool4/3x3_s2
I0403 21:37:55.782882 12284 net.cpp:399] pool4/3x3_s2_pool4/3x3_s2_0_split -> pool4/3x3_s2_pool4/3x3_s2_0_split_0
I0403 21:37:55.782902 12284 net.cpp:399] pool4/3x3_s2_pool4/3x3_s2_0_split -> pool4/3x3_s2_pool4/3x3_s2_0_split_1
I0403 21:37:55.782920 12284 net.cpp:399] pool4/3x3_s2_pool4/3x3_s2_0_split -> pool4/3x3_s2_pool4/3x3_s2_0_split_2
I0403 21:37:55.782938 12284 net.cpp:399] pool4/3x3_s2_pool4/3x3_s2_0_split -> pool4/3x3_s2_pool4/3x3_s2_0_split_3
I0403 21:37:55.783025 12284 net.cpp:141] Setting up pool4/3x3_s2_pool4/3x3_s2_0_split
I0403 21:37:55.783049 12284 net.cpp:148] Top shape: 24 832 7 7 (978432)
I0403 21:37:55.783066 12284 net.cpp:148] Top shape: 24 832 7 7 (978432)
I0403 21:37:55.783082 12284 net.cpp:148] Top shape: 24 832 7 7 (978432)
I0403 21:37:55.783095 12284 net.cpp:148] Top shape: 24 832 7 7 (978432)
I0403 21:37:55.783109 12284 net.cpp:156] Memory required for data: 1292125728
I0403 21:37:55.783123 12284 layer_factory.hpp:77] Creating layer inception_5a/1x1
I0403 21:37:55.783145 12284 net.cpp:91] Creating Layer inception_5a/1x1
I0403 21:37:55.783164 12284 net.cpp:425] inception_5a/1x1 <- pool4/3x3_s2_pool4/3x3_s2_0_split_0
I0403 21:37:55.783181 12284 net.cpp:399] inception_5a/1x1 -> inception_5a/1x1
I0403 21:37:55.785925 12284 net.cpp:141] Setting up inception_5a/1x1
I0403 21:37:55.785956 12284 net.cpp:148] Top shape: 24 256 7 7 (301056)
I0403 21:37:55.785974 12284 net.cpp:156] Memory required for data: 1293329952
I0403 21:37:55.785992 12284 layer_factory.hpp:77] Creating layer inception_5a/relu_1x1
I0403 21:37:55.786010 12284 net.cpp:91] Creating Layer inception_5a/relu_1x1
I0403 21:37:55.786027 12284 net.cpp:425] inception_5a/relu_1x1 <- inception_5a/1x1
I0403 21:37:55.786046 12284 net.cpp:386] inception_5a/relu_1x1 -> inception_5a/1x1 (in-place)
I0403 21:37:55.786345 12284 net.cpp:141] Setting up inception_5a/relu_1x1
I0403 21:37:55.786372 12284 net.cpp:148] Top shape: 24 256 7 7 (301056)
I0403 21:37:55.786388 12284 net.cpp:156] Memory required for data: 1294534176
I0403 21:37:55.786403 12284 layer_factory.hpp:77] Creating layer inception_5a/3x3_reduce
I0403 21:37:55.786424 12284 net.cpp:91] Creating Layer inception_5a/3x3_reduce
I0403 21:37:55.786442 12284 net.cpp:425] inception_5a/3x3_reduce <- pool4/3x3_s2_pool4/3x3_s2_0_split_1
I0403 21:37:55.786459 12284 net.cpp:399] inception_5a/3x3_reduce -> inception_5a/3x3_reduce
I0403 21:37:55.788858 12284 net.cpp:141] Setting up inception_5a/3x3_reduce
I0403 21:37:55.788887 12284 net.cpp:148] Top shape: 24 160 7 7 (188160)
I0403 21:37:55.788902 12284 net.cpp:156] Memory required for data: 1295286816
I0403 21:37:55.788920 12284 layer_factory.hpp:77] Creating layer inception_5a/relu_3x3_reduce
I0403 21:37:55.788941 12284 net.cpp:91] Creating Layer inception_5a/relu_3x3_reduce
I0403 21:37:55.788959 12284 net.cpp:425] inception_5a/relu_3x3_reduce <- inception_5a/3x3_reduce
I0403 21:37:55.788975 12284 net.cpp:386] inception_5a/relu_3x3_reduce -> inception_5a/3x3_reduce (in-place)
I0403 21:37:55.789160 12284 net.cpp:141] Setting up inception_5a/relu_3x3_reduce
I0403 21:37:55.789186 12284 net.cpp:148] Top shape: 24 160 7 7 (188160)
I0403 21:37:55.789202 12284 net.cpp:156] Memory required for data: 1296039456
I0403 21:37:55.789222 12284 layer_factory.hpp:77] Creating layer inception_5a/3x3
I0403 21:37:55.789247 12284 net.cpp:91] Creating Layer inception_5a/3x3
I0403 21:37:55.789263 12284 net.cpp:425] inception_5a/3x3 <- inception_5a/3x3_reduce
I0403 21:37:55.789281 12284 net.cpp:399] inception_5a/3x3 -> inception_5a/3x3
I0403 21:37:55.794133 12284 net.cpp:141] Setting up inception_5a/3x3
I0403 21:37:55.794163 12284 net.cpp:148] Top shape: 24 320 7 7 (376320)
I0403 21:37:55.794179 12284 net.cpp:156] Memory required for data: 1297544736
I0403 21:37:55.794198 12284 layer_factory.hpp:77] Creating layer inception_5a/relu_3x3
I0403 21:37:55.794219 12284 net.cpp:91] Creating Layer inception_5a/relu_3x3
I0403 21:37:55.794237 12284 net.cpp:425] inception_5a/relu_3x3 <- inception_5a/3x3
I0403 21:37:55.794255 12284 net.cpp:386] inception_5a/relu_3x3 -> inception_5a/3x3 (in-place)
I0403 21:37:55.794538 12284 net.cpp:141] Setting up inception_5a/relu_3x3
I0403 21:37:55.794566 12284 net.cpp:148] Top shape: 24 320 7 7 (376320)
I0403 21:37:55.794581 12284 net.cpp:156] Memory required for data: 1299050016
I0403 21:37:55.794595 12284 layer_factory.hpp:77] Creating layer inception_5a/5x5_reduce
I0403 21:37:55.794617 12284 net.cpp:91] Creating Layer inception_5a/5x5_reduce
I0403 21:37:55.794634 12284 net.cpp:425] inception_5a/5x5_reduce <- pool4/3x3_s2_pool4/3x3_s2_0_split_2
I0403 21:37:55.794652 12284 net.cpp:399] inception_5a/5x5_reduce -> inception_5a/5x5_reduce
I0403 21:37:55.795773 12284 net.cpp:141] Setting up inception_5a/5x5_reduce
I0403 21:37:55.795800 12284 net.cpp:148] Top shape: 24 32 7 7 (37632)
I0403 21:37:55.795816 12284 net.cpp:156] Memory required for data: 1299200544
I0403 21:37:55.795835 12284 layer_factory.hpp:77] Creating layer inception_5a/relu_5x5_reduce
I0403 21:37:55.795851 12284 net.cpp:91] Creating Layer inception_5a/relu_5x5_reduce
I0403 21:37:55.795866 12284 net.cpp:425] inception_5a/relu_5x5_reduce <- inception_5a/5x5_reduce
I0403 21:37:55.795886 12284 net.cpp:386] inception_5a/relu_5x5_reduce -> inception_5a/5x5_reduce (in-place)
I0403 21:37:55.796172 12284 net.cpp:141] Setting up inception_5a/relu_5x5_reduce
I0403 21:37:55.796197 12284 net.cpp:148] Top shape: 24 32 7 7 (37632)
I0403 21:37:55.796217 12284 net.cpp:156] Memory required for data: 1299351072
I0403 21:37:55.796233 12284 layer_factory.hpp:77] Creating layer inception_5a/5x5
I0403 21:37:55.796257 12284 net.cpp:91] Creating Layer inception_5a/5x5
I0403 21:37:55.796274 12284 net.cpp:425] inception_5a/5x5 <- inception_5a/5x5_reduce
I0403 21:37:55.796295 12284 net.cpp:399] inception_5a/5x5 -> inception_5a/5x5
I0403 21:37:55.797940 12284 net.cpp:141] Setting up inception_5a/5x5
I0403 21:37:55.797978 12284 net.cpp:148] Top shape: 24 128 7 7 (150528)
I0403 21:37:55.797996 12284 net.cpp:156] Memory required for data: 1299953184
I0403 21:37:55.798013 12284 layer_factory.hpp:77] Creating layer inception_5a/relu_5x5
I0403 21:37:55.798030 12284 net.cpp:91] Creating Layer inception_5a/relu_5x5
I0403 21:37:55.798048 12284 net.cpp:425] inception_5a/relu_5x5 <- inception_5a/5x5
I0403 21:37:55.798063 12284 net.cpp:386] inception_5a/relu_5x5 -> inception_5a/5x5 (in-place)
I0403 21:37:55.798256 12284 net.cpp:141] Setting up inception_5a/relu_5x5
I0403 21:37:55.798281 12284 net.cpp:148] Top shape: 24 128 7 7 (150528)
I0403 21:37:55.798295 12284 net.cpp:156] Memory required for data: 1300555296
I0403 21:37:55.798310 12284 layer_factory.hpp:77] Creating layer inception_5a/pool
I0403 21:37:55.798326 12284 net.cpp:91] Creating Layer inception_5a/pool
I0403 21:37:55.798341 12284 net.cpp:425] inception_5a/pool <- pool4/3x3_s2_pool4/3x3_s2_0_split_3
I0403 21:37:55.798360 12284 net.cpp:399] inception_5a/pool -> inception_5a/pool
I0403 21:37:55.798426 12284 net.cpp:141] Setting up inception_5a/pool
I0403 21:37:55.798452 12284 net.cpp:148] Top shape: 24 832 7 7 (978432)
I0403 21:37:55.798467 12284 net.cpp:156] Memory required for data: 1304469024
I0403 21:37:55.798482 12284 layer_factory.hpp:77] Creating layer inception_5a/pool_proj
I0403 21:37:55.798504 12284 net.cpp:91] Creating Layer inception_5a/pool_proj
I0403 21:37:55.798521 12284 net.cpp:425] inception_5a/pool_proj <- inception_5a/pool
I0403 21:37:55.798538 12284 net.cpp:399] inception_5a/pool_proj -> inception_5a/pool_proj
I0403 21:37:55.800745 12284 net.cpp:141] Setting up inception_5a/pool_proj
I0403 21:37:55.800772 12284 net.cpp:148] Top shape: 24 128 7 7 (150528)
I0403 21:37:55.800787 12284 net.cpp:156] Memory required for data: 1305071136
I0403 21:37:55.800806 12284 layer_factory.hpp:77] Creating layer inception_5a/relu_pool_proj
I0403 21:37:55.800824 12284 net.cpp:91] Creating Layer inception_5a/relu_pool_proj
I0403 21:37:55.800840 12284 net.cpp:425] inception_5a/relu_pool_proj <- inception_5a/pool_proj
I0403 21:37:55.800858 12284 net.cpp:386] inception_5a/relu_pool_proj -> inception_5a/pool_proj (in-place)
I0403 21:37:55.801136 12284 net.cpp:141] Setting up inception_5a/relu_pool_proj
I0403 21:37:55.801162 12284 net.cpp:148] Top shape: 24 128 7 7 (150528)
I0403 21:37:55.801177 12284 net.cpp:156] Memory required for data: 1305673248
I0403 21:37:55.801192 12284 layer_factory.hpp:77] Creating layer inception_5a/output
I0403 21:37:55.801213 12284 net.cpp:91] Creating Layer inception_5a/output
I0403 21:37:55.801231 12284 net.cpp:425] inception_5a/output <- inception_5a/1x1
I0403 21:37:55.801247 12284 net.cpp:425] inception_5a/output <- inception_5a/3x3
I0403 21:37:55.801264 12284 net.cpp:425] inception_5a/output <- inception_5a/5x5
I0403 21:37:55.801280 12284 net.cpp:425] inception_5a/output <- inception_5a/pool_proj
I0403 21:37:55.801295 12284 net.cpp:399] inception_5a/output -> inception_5a/output
I0403 21:37:55.801345 12284 net.cpp:141] Setting up inception_5a/output
I0403 21:37:55.801367 12284 net.cpp:148] Top shape: 24 832 7 7 (978432)
I0403 21:37:55.801381 12284 net.cpp:156] Memory required for data: 1309586976
I0403 21:37:55.801396 12284 layer_factory.hpp:77] Creating layer inception_5a/output_inception_5a/output_0_split
I0403 21:37:55.801414 12284 net.cpp:91] Creating Layer inception_5a/output_inception_5a/output_0_split
I0403 21:37:55.801429 12284 net.cpp:425] inception_5a/output_inception_5a/output_0_split <- inception_5a/output
I0403 21:37:55.801451 12284 net.cpp:399] inception_5a/output_inception_5a/output_0_split -> inception_5a/output_inception_5a/output_0_split_0
I0403 21:37:55.801471 12284 net.cpp:399] inception_5a/output_inception_5a/output_0_split -> inception_5a/output_inception_5a/output_0_split_1
I0403 21:37:55.801492 12284 net.cpp:399] inception_5a/output_inception_5a/output_0_split -> inception_5a/output_inception_5a/output_0_split_2
I0403 21:37:55.801512 12284 net.cpp:399] inception_5a/output_inception_5a/output_0_split -> inception_5a/output_inception_5a/output_0_split_3
I0403 21:37:55.801620 12284 net.cpp:141] Setting up inception_5a/output_inception_5a/output_0_split
I0403 21:37:55.801643 12284 net.cpp:148] Top shape: 24 832 7 7 (978432)
I0403 21:37:55.801659 12284 net.cpp:148] Top shape: 24 832 7 7 (978432)
I0403 21:37:55.801673 12284 net.cpp:148] Top shape: 24 832 7 7 (978432)
I0403 21:37:55.801688 12284 net.cpp:148] Top shape: 24 832 7 7 (978432)
I0403 21:37:55.801702 12284 net.cpp:156] Memory required for data: 1325241888
I0403 21:37:55.801715 12284 layer_factory.hpp:77] Creating layer inception_5b/1x1
I0403 21:37:55.801735 12284 net.cpp:91] Creating Layer inception_5b/1x1
I0403 21:37:55.801753 12284 net.cpp:425] inception_5b/1x1 <- inception_5a/output_inception_5a/output_0_split_0
I0403 21:37:55.801774 12284 net.cpp:399] inception_5b/1x1 -> inception_5b/1x1
I0403 21:37:55.805378 12284 net.cpp:141] Setting up inception_5b/1x1
I0403 21:37:55.805408 12284 net.cpp:148] Top shape: 24 384 7 7 (451584)
I0403 21:37:55.805423 12284 net.cpp:156] Memory required for data: 1327048224
I0403 21:37:55.805440 12284 layer_factory.hpp:77] Creating layer inception_5b/relu_1x1
I0403 21:37:55.805461 12284 net.cpp:91] Creating Layer inception_5b/relu_1x1
I0403 21:37:55.805480 12284 net.cpp:425] inception_5b/relu_1x1 <- inception_5b/1x1
I0403 21:37:55.805495 12284 net.cpp:386] inception_5b/relu_1x1 -> inception_5b/1x1 (in-place)
I0403 21:37:55.805783 12284 net.cpp:141] Setting up inception_5b/relu_1x1
I0403 21:37:55.805809 12284 net.cpp:148] Top shape: 24 384 7 7 (451584)
I0403 21:37:55.805824 12284 net.cpp:156] Memory required for data: 1328854560
I0403 21:37:55.805837 12284 layer_factory.hpp:77] Creating layer inception_5b/3x3_reduce
I0403 21:37:55.805860 12284 net.cpp:91] Creating Layer inception_5b/3x3_reduce
I0403 21:37:55.805876 12284 net.cpp:425] inception_5b/3x3_reduce <- inception_5a/output_inception_5a/output_0_split_1
I0403 21:37:55.805896 12284 net.cpp:399] inception_5b/3x3_reduce -> inception_5b/3x3_reduce
I0403 21:37:55.808470 12284 net.cpp:141] Setting up inception_5b/3x3_reduce
I0403 21:37:55.808501 12284 net.cpp:148] Top shape: 24 192 7 7 (225792)
I0403 21:37:55.808516 12284 net.cpp:156] Memory required for data: 1329757728
I0403 21:37:55.808534 12284 layer_factory.hpp:77] Creating layer inception_5b/relu_3x3_reduce
I0403 21:37:55.808555 12284 net.cpp:91] Creating Layer inception_5b/relu_3x3_reduce
I0403 21:37:55.808573 12284 net.cpp:425] inception_5b/relu_3x3_reduce <- inception_5b/3x3_reduce
I0403 21:37:55.808589 12284 net.cpp:386] inception_5b/relu_3x3_reduce -> inception_5b/3x3_reduce (in-place)
I0403 21:37:55.808770 12284 net.cpp:141] Setting up inception_5b/relu_3x3_reduce
I0403 21:37:55.808797 12284 net.cpp:148] Top shape: 24 192 7 7 (225792)
I0403 21:37:55.808811 12284 net.cpp:156] Memory required for data: 1330660896
I0403 21:37:55.808825 12284 layer_factory.hpp:77] Creating layer inception_5b/3x3
I0403 21:37:55.808846 12284 net.cpp:91] Creating Layer inception_5b/3x3
I0403 21:37:55.808863 12284 net.cpp:425] inception_5b/3x3 <- inception_5b/3x3_reduce
I0403 21:37:55.808887 12284 net.cpp:399] inception_5b/3x3 -> inception_5b/3x3
I0403 21:37:55.815443 12284 net.cpp:141] Setting up inception_5b/3x3
I0403 21:37:55.815471 12284 net.cpp:148] Top shape: 24 384 7 7 (451584)
I0403 21:37:55.815486 12284 net.cpp:156] Memory required for data: 1332467232
I0403 21:37:55.815505 12284 layer_factory.hpp:77] Creating layer inception_5b/relu_3x3
I0403 21:37:55.815523 12284 net.cpp:91] Creating Layer inception_5b/relu_3x3
I0403 21:37:55.815541 12284 net.cpp:425] inception_5b/relu_3x3 <- inception_5b/3x3
I0403 21:37:55.815557 12284 net.cpp:386] inception_5b/relu_3x3 -> inception_5b/3x3 (in-place)
I0403 21:37:55.815841 12284 net.cpp:141] Setting up inception_5b/relu_3x3
I0403 21:37:55.815867 12284 net.cpp:148] Top shape: 24 384 7 7 (451584)
I0403 21:37:55.815882 12284 net.cpp:156] Memory required for data: 1334273568
I0403 21:37:55.815896 12284 layer_factory.hpp:77] Creating layer inception_5b/5x5_reduce
I0403 21:37:55.815937 12284 net.cpp:91] Creating Layer inception_5b/5x5_reduce
I0403 21:37:55.815956 12284 net.cpp:425] inception_5b/5x5_reduce <- inception_5a/output_inception_5a/output_0_split_2
I0403 21:37:55.815976 12284 net.cpp:399] inception_5b/5x5_reduce -> inception_5b/5x5_reduce
I0403 21:37:55.817236 12284 net.cpp:141] Setting up inception_5b/5x5_reduce
I0403 21:37:55.817278 12284 net.cpp:148] Top shape: 24 48 7 7 (56448)
I0403 21:37:55.817296 12284 net.cpp:156] Memory required for data: 1334499360
I0403 21:37:55.817313 12284 layer_factory.hpp:77] Creating layer inception_5b/relu_5x5_reduce
I0403 21:37:55.817333 12284 net.cpp:91] Creating Layer inception_5b/relu_5x5_reduce
I0403 21:37:55.817350 12284 net.cpp:425] inception_5b/relu_5x5_reduce <- inception_5b/5x5_reduce
I0403 21:37:55.817368 12284 net.cpp:386] inception_5b/relu_5x5_reduce -> inception_5b/5x5_reduce (in-place)
I0403 21:37:55.817762 12284 net.cpp:141] Setting up inception_5b/relu_5x5_reduce
I0403 21:37:55.817788 12284 net.cpp:148] Top shape: 24 48 7 7 (56448)
I0403 21:37:55.817803 12284 net.cpp:156] Memory required for data: 1334725152
I0403 21:37:55.817819 12284 layer_factory.hpp:77] Creating layer inception_5b/5x5
I0403 21:37:55.817839 12284 net.cpp:91] Creating Layer inception_5b/5x5
I0403 21:37:55.817857 12284 net.cpp:425] inception_5b/5x5 <- inception_5b/5x5_reduce
I0403 21:37:55.817875 12284 net.cpp:399] inception_5b/5x5 -> inception_5b/5x5
I0403 21:37:55.819871 12284 net.cpp:141] Setting up inception_5b/5x5
I0403 21:37:55.819900 12284 net.cpp:148] Top shape: 24 128 7 7 (150528)
I0403 21:37:55.819916 12284 net.cpp:156] Memory required for data: 1335327264
I0403 21:37:55.819936 12284 layer_factory.hpp:77] Creating layer inception_5b/relu_5x5
I0403 21:37:55.819955 12284 net.cpp:91] Creating Layer inception_5b/relu_5x5
I0403 21:37:55.819970 12284 net.cpp:425] inception_5b/relu_5x5 <- inception_5b/5x5
I0403 21:37:55.819990 12284 net.cpp:386] inception_5b/relu_5x5 -> inception_5b/5x5 (in-place)
I0403 21:37:55.820183 12284 net.cpp:141] Setting up inception_5b/relu_5x5
I0403 21:37:55.820225 12284 net.cpp:148] Top shape: 24 128 7 7 (150528)
I0403 21:37:55.820241 12284 net.cpp:156] Memory required for data: 1335929376
I0403 21:37:55.820256 12284 layer_factory.hpp:77] Creating layer inception_5b/pool
I0403 21:37:55.820274 12284 net.cpp:91] Creating Layer inception_5b/pool
I0403 21:37:55.820291 12284 net.cpp:425] inception_5b/pool <- inception_5a/output_inception_5a/output_0_split_3
I0403 21:37:55.820312 12284 net.cpp:399] inception_5b/pool -> inception_5b/pool
I0403 21:37:55.820386 12284 net.cpp:141] Setting up inception_5b/pool
I0403 21:37:55.820410 12284 net.cpp:148] Top shape: 24 832 7 7 (978432)
I0403 21:37:55.820425 12284 net.cpp:156] Memory required for data: 1339843104
I0403 21:37:55.820441 12284 layer_factory.hpp:77] Creating layer inception_5b/pool_proj
I0403 21:37:55.820466 12284 net.cpp:91] Creating Layer inception_5b/pool_proj
I0403 21:37:55.820484 12284 net.cpp:425] inception_5b/pool_proj <- inception_5b/pool
I0403 21:37:55.820503 12284 net.cpp:399] inception_5b/pool_proj -> inception_5b/pool_proj
I0403 21:37:55.822841 12284 net.cpp:141] Setting up inception_5b/pool_proj
I0403 21:37:55.822871 12284 net.cpp:148] Top shape: 24 128 7 7 (150528)
I0403 21:37:55.822887 12284 net.cpp:156] Memory required for data: 1340445216
I0403 21:37:55.822906 12284 layer_factory.hpp:77] Creating layer inception_5b/relu_pool_proj
I0403 21:37:55.822923 12284 net.cpp:91] Creating Layer inception_5b/relu_pool_proj
I0403 21:37:55.822939 12284 net.cpp:425] inception_5b/relu_pool_proj <- inception_5b/pool_proj
I0403 21:37:55.822957 12284 net.cpp:386] inception_5b/relu_pool_proj -> inception_5b/pool_proj (in-place)
I0403 21:37:55.823252 12284 net.cpp:141] Setting up inception_5b/relu_pool_proj
I0403 21:37:55.823281 12284 net.cpp:148] Top shape: 24 128 7 7 (150528)
I0403 21:37:55.823297 12284 net.cpp:156] Memory required for data: 1341047328
I0403 21:37:55.823312 12284 layer_factory.hpp:77] Creating layer inception_5b/output
I0403 21:37:55.823329 12284 net.cpp:91] Creating Layer inception_5b/output
I0403 21:37:55.823359 12284 net.cpp:425] inception_5b/output <- inception_5b/1x1
I0403 21:37:55.823379 12284 net.cpp:425] inception_5b/output <- inception_5b/3x3
I0403 21:37:55.823395 12284 net.cpp:425] inception_5b/output <- inception_5b/5x5
I0403 21:37:55.823410 12284 net.cpp:425] inception_5b/output <- inception_5b/pool_proj
I0403 21:37:55.823427 12284 net.cpp:399] inception_5b/output -> inception_5b/output
I0403 21:37:55.823479 12284 net.cpp:141] Setting up inception_5b/output
I0403 21:37:55.823503 12284 net.cpp:148] Top shape: 24 1024 7 7 (1204224)
I0403 21:37:55.823518 12284 net.cpp:156] Memory required for data: 1345864224
I0403 21:37:55.823534 12284 layer_factory.hpp:77] Creating layer pool5/7x7_s1
I0403 21:37:55.823557 12284 net.cpp:91] Creating Layer pool5/7x7_s1
I0403 21:37:55.823575 12284 net.cpp:425] pool5/7x7_s1 <- inception_5b/output
I0403 21:37:55.823595 12284 net.cpp:399] pool5/7x7_s1 -> pool5/7x7_s1
I0403 21:37:55.823806 12284 net.cpp:141] Setting up pool5/7x7_s1
I0403 21:37:55.823832 12284 net.cpp:148] Top shape: 24 1024 1 1 (24576)
I0403 21:37:55.823849 12284 net.cpp:156] Memory required for data: 1345962528
I0403 21:37:55.823865 12284 layer_factory.hpp:77] Creating layer pool5/drop_7x7_s1
I0403 21:37:55.823882 12284 net.cpp:91] Creating Layer pool5/drop_7x7_s1
I0403 21:37:55.823899 12284 net.cpp:425] pool5/drop_7x7_s1 <- pool5/7x7_s1
I0403 21:37:55.823917 12284 net.cpp:386] pool5/drop_7x7_s1 -> pool5/7x7_s1 (in-place)
I0403 21:37:55.823967 12284 net.cpp:141] Setting up pool5/drop_7x7_s1
I0403 21:37:55.823990 12284 net.cpp:148] Top shape: 24 1024 1 1 (24576)
I0403 21:37:55.824007 12284 net.cpp:156] Memory required for data: 1346060832
I0403 21:37:55.824020 12284 layer_factory.hpp:77] Creating layer loss3/classifier_plantvillage
I0403 21:37:55.824043 12284 net.cpp:91] Creating Layer loss3/classifier_plantvillage
I0403 21:37:55.824060 12284 net.cpp:425] loss3/classifier_plantvillage <- pool5/7x7_s1
I0403 21:37:55.824079 12284 net.cpp:399] loss3/classifier_plantvillage -> loss3/classifier_plantvillage
I0403 21:37:55.824522 12284 net.cpp:141] Setting up loss3/classifier_plantvillage
I0403 21:37:55.824559 12284 net.cpp:148] Top shape: 24 38 (912)
I0403 21:37:55.824574 12284 net.cpp:156] Memory required for data: 1346064480
I0403 21:37:55.824592 12284 layer_factory.hpp:77] Creating layer loss3/classifier_plantvillage_loss3/classifier_plantvillage_0_split
I0403 21:37:55.824611 12284 net.cpp:91] Creating Layer loss3/classifier_plantvillage_loss3/classifier_plantvillage_0_split
I0403 21:37:55.824627 12284 net.cpp:425] loss3/classifier_plantvillage_loss3/classifier_plantvillage_0_split <- loss3/classifier_plantvillage
I0403 21:37:55.824648 12284 net.cpp:399] loss3/classifier_plantvillage_loss3/classifier_plantvillage_0_split -> loss3/classifier_plantvillage_loss3/classifier_plantvillage_0_split_0
I0403 21:37:55.824671 12284 net.cpp:399] loss3/classifier_plantvillage_loss3/classifier_plantvillage_0_split -> loss3/classifier_plantvillage_loss3/classifier_plantvillage_0_split_1
I0403 21:37:55.824689 12284 net.cpp:399] loss3/classifier_plantvillage_loss3/classifier_plantvillage_0_split -> loss3/classifier_plantvillage_loss3/classifier_plantvillage_0_split_2
I0403 21:37:55.824709 12284 net.cpp:399] loss3/classifier_plantvillage_loss3/classifier_plantvillage_0_split -> loss3/classifier_plantvillage_loss3/classifier_plantvillage_0_split_3
I0403 21:37:55.824813 12284 net.cpp:141] Setting up loss3/classifier_plantvillage_loss3/classifier_plantvillage_0_split
I0403 21:37:55.824836 12284 net.cpp:148] Top shape: 24 38 (912)
I0403 21:37:55.824852 12284 net.cpp:148] Top shape: 24 38 (912)
I0403 21:37:55.824869 12284 net.cpp:148] Top shape: 24 38 (912)
I0403 21:37:55.824884 12284 net.cpp:148] Top shape: 24 38 (912)
I0403 21:37:55.824898 12284 net.cpp:156] Memory required for data: 1346079072
I0403 21:37:55.824913 12284 layer_factory.hpp:77] Creating layer loss1/loss
I0403 21:37:55.824934 12284 net.cpp:91] Creating Layer loss1/loss
I0403 21:37:55.824951 12284 net.cpp:425] loss1/loss <- loss1/classifier_plantvillage_loss1/classifier_plantvillage_0_split_0
I0403 21:37:55.824982 12284 net.cpp:425] loss1/loss <- label_data_1_split_0
…
