…
I0403 21:42:52.663338 12573 net.cpp:313] The NetState phase (1) differed from the phase (0) specified by a rule in layer data
I0403 21:42:52.664484 12573 net.cpp:49] Initializing net from parameters: 
state {
  phase: TEST
}
layer {
  name: "data"
  type: "Data"
  top: "data"
  top: "label"
  include {
    phase: TEST
  }
  transform_param {
    mirror: false
    crop_size: 224
    mean_file: "/home/mohanty/data/final_dataset/lmdb/color-80-20/mean.binaryproto"
  }
  data_param {
    source: "/home/mohanty/data/final_dataset/lmdb/color-80-20/test_db"
    batch_size: 24
    backend: LMDB
  }
}
layer {
  name: "conv1/7x7_s2"
  type: "Convolution"
  bottom: "data"
  top: "conv1/7x7_s2"
  param {
    lr_mult: 1
    decay_mult: 1
  }
  param {
    lr_mult: 2
    decay_mult: 0
  }
  convolution_param {
    num_output: 64
    pad: 3
    kernel_size: 7
    stride: 2
    weight_filler {
      type: "xavier"
      std: 0.1
    }
    bias_filler {
      type: "constant"
      value: 0.2
    }
  }
}
layer {
  name: "conv1/relu_7x7"
  type: "ReLU"
  bottom: "conv1/7x7_s2"
  top: "conv1/7x7_s2"
}
layer {
  name: "pool1/3x3_s2"
  type: "Pooling"
  bottom: "conv1/7x7_s2"
  top: "pool1/3x3_s2"
  pooling_param {
    pool: MAX
    kernel_size: 3
    stride: 2
  }
}
layer {
  name: "pool1/norm1"
  type: "LRN"
  bottom: "pool1/3x3_s2"
  top: "pool1/norm1"
  lrn_param {
    local_size: 5
    alpha: 0.0001
    beta: 0.75
  }
}
layer {
  name: "conv2/3x3_reduce"
  type: "Convolution"
  bottom: "pool1/norm1"
  top: "conv2/3x3_reduce"
  param {
    lr_mult: 1
    decay_mult: 1
  }
  param {
    lr_mult: 2
    decay_mult: 0
  }
  convolution_param {
    num_output: 64
    kernel_size: 1
    weight_filler {
      type: "xavier"
      std: 0.1
    }
    bias_filler {
      type: "constant"
      value: 0.2
    }
  }
}
layer {
  name: "conv2/relu_3x3_reduce"
  type: "ReLU"
  bottom: "conv2/3x3_reduce"
  top: "conv2/3x3_reduce"
}
layer {
  name: "conv2/3x3"
  type: "Convolution"
  bottom: "conv2/3x3_reduce"
  top: "conv2/3x3"
  param {
    lr_mult: 1
    decay_mult: 1
  }
  param {
    lr_mult: 2
    decay_mult: 0
  }
  convolution_param {
    num_output: 192
    pad: 1
    kernel_size: 3
    weight_filler {
      type: "xavier"
      std: 0.03
    }
    bias_filler {
      type: "constant"
      value: 0.2
    }
  }
}
layer {
  name: "conv2/relu_3x3"
  type: "ReLU"
  bottom: "conv2/3x3"
  top: "conv2/3x3"
}
layer {
  name: "conv2/norm2"
  type: "LRN"
  bottom: "conv2/3x3"
  top: "conv2/norm2"
  lrn_param {
    local_size: 5
    alpha: 0.0001
    beta: 0.75
  }
}
layer {
  name: "pool2/3x3_s2"
  type: "Pooling"
  bottom: "conv2/norm2"
  top: "pool2/3x3_s2"
  pooling_param {
    pool: MAX
    kernel_size: 3
    stride: 2
  }
}
layer {
  name: "inception_3a/1x1"
  type: "Convolution"
  bottom: "pool2/3x3_s2"
  top: "inception_3a/1x1"
  param {
    lr_mult: 1
    decay_mult: 1
  }
  param {
    lr_mult: 2
    decay_mult: 0
  }
  convolution_param {
    num_output: 64
    kernel_size: 1
    weight_filler {
      type: "xavier"
      std: 0.03
    }
    bias_filler {
      type: "constant"
      value: 0.2
    }
  }
}
layer {
  name: "inception_3a/relu_1x1"
  type: "ReLU"
  bottom: "inception_3a/1x1"
  top: "inception_3a/1x1"
}
layer {
  name: "inception_3a/3x3_reduce"
  type: "Convolution"
  bottom: "pool2/3x3_s2"
  top: "inception_3a/3x3_reduce"
  param {
    lr_mult: 1
    decay_mult: 1
  }
  param {
    lr_mult: 2
    decay_mult: 0
  }
  convolution_param {
    num_output: 96
    kernel_size: 1
    weight_filler {
      type: "xavier"
      std: 0.09
    }
    bias_filler {
      type: "constant"
      value: 0.2
    }
  }
}
layer {
  name: "inception_3a/relu_3x3_reduce"
  type: "ReLU"
  bottom: "inception_3a/3x3_reduce"
  top: "inception_3a/3x3_reduce"
}
layer {
  name: "inception_3a/3x3"
  type: "Convolution"
  bottom: "inception_3a/3x3_reduce"
  top: "inception_3a/3x3"
  param {
    lr_mult: 1
    decay_mult: 1
  }
  param {
    lr_mult: 2
    decay_mult: 0
  }
  convolution_param {
    num_output: 128
    pad: 1
    kernel_size: 3
    weight_filler {
      type: "xavier"
      std: 0.03
    }
    bias_filler {
      type: "constant"
      value: 0.2
    }
  }
}
layer {
  name: "inception_3a/relu_3x3"
  type: "ReLU"
  bottom: "inception_3a/3x3"
  top: "inception_3a/3x3"
}
layer {
  name: "inception_3a/5x5_reduce"
  type: "Convolution"
  bottom: "pool2/3x3_s2"
  top: "inception_3a/5x5_reduce"
  param {
    lr_mult: 1
    decay_mult: 1
  }
  param {
    lr_mult: 2
    decay_mult: 0
  }
  convolution_param {
    num_output: 16
    kernel_size: 1
    weight_filler {
      type: "xavier"
      std: 0.2
    }
    bias_filler {
      type: "constant"
      value: 0.2
    }
  }
}
layer {
  name: "inception_3a/relu_5x5_reduce"
  type: "ReLU"
  bottom: "inception_3a/5x5_reduce"
  top: "inception_3a/5x5_reduce"
}
layer {
  name: "inception_3a/5x5"
  type: "Convolution"
  bottom: "inception_3a/5x5_reduce"
  top: "inception_3a/5x5"
  param {
    lr_mult: 1
    decay_mult: 1
  }
  param {
    lr_mult: 2
    decay_mult: 0
  }
  convolution_param {
    num_output: 32
    pad: 2
    kernel_size: 5
    weight_filler {
      type: "xavier"
      std: 0.03
    }
    bias_filler {
      type: "constant"
      value: 0.2
    }
  }
}
layer {
  name: "inception_3a/relu_5x5"
  type: "ReLU"
  bottom: "inception_3a/5x5"
  top: "inception_3a/5x5"
}
layer {
  name: "inception_3a/pool"
  type: "Pooling"
  bottom: "pool2/3x3_s2"
  top: "inception_3a/pool"
  pooling_param {
    pool: MAX
    kernel_size: 3
    stride: 1
    pad: 1
  }
}
layer {
  name: "inception_3a/pool_proj"
  type: "Convolution"
  bottom: "inception_3a/pool"
  top: "inception_3a/pool_proj"
  param {
    lr_mult: 1
    decay_mult: 1
  }
  param {
    lr_mult: 2
    decay_mult: 0
  }
  convolution_param {
    num_output: 32
    kernel_size: 1
    weight_filler {
      type: "xavier"
      std: 0.1
    }
    bias_filler {
      type: "constant"
      value: 0.2
    }
  }
}
layer {
  name: "inception_3a/relu_pool_proj"
  type: "ReLU"
  bottom: "inception_3a/pool_proj"
  top: "inception_3a/pool_proj"
}
layer {
  name: "inception_3a/output"
  type: "Concat"
  bottom: "inception_3a/1x1"
  bottom: "inception_3a/3x3"
  bottom: "inception_3a/5x5"
  bottom: "inception_3a/pool_proj"
  top: "inception_3a/output"
}
layer {
  name: "inception_3b/1x1"
  type: "Convolution"
  bottom: "inception_3a/output"
  top: "inception_3b/1x1"
  param {
    lr_mult: 1
    decay_mult: 1
  }
  param {
    lr_mult: 2
    decay_mult: 0
  }
  convolution_param {
    num_output: 128
    kernel_size: 1
    weight_filler {
      type: "xavier"
      std: 0.03
    }
    bias_filler {
      type: "constant"
      value: 0.2
    }
  }
}
layer {
  name: "inception_3b/relu_1x1"
  type: "ReLU"
  bottom: "inception_3b/1x1"
  top: "inception_3b/1x1"
}
layer {
  name: "inception_3b/3x3_reduce"
  type: "Convolution"
  bottom: "inception_3a/output"
  top: "inception_3b/3x3_reduce"
  param {
    lr_mult: 1
    decay_mult: 1
  }
  param {
    lr_mult: 2
    decay_mult: 0
  }
  convolution_param {
    num_output: 128
    kernel_size: 1
    weight_filler {
      type: "xavier"
      std: 0.09
    }
    bias_filler {
      type: "constant"
      value: 0.2
    }
  }
}
layer {
  name: "inception_3b/relu_3x3_reduce"
  type: "ReLU"
  bottom: "inception_3b/3x3_reduce"
  top: "inception_3b/3x3_reduce"
}
layer {
  name: "inception_3b/3x3"
  type: "Convolution"
  bottom: "inception_3b/3x3_reduce"
  top: "inception_3b/3x3"
  param {
    lr_mult: 1
    decay_mult: 1
  }
  param {
    lr_mult: 2
    decay_mult: 0
  }
  convolution_param {
    num_output: 192
    pad: 1
    kernel_size: 3
    weight_filler {
      type: "xavier"
      std: 0.03
    }
    bias_filler {
      type: "constant"
      value: 0.2
    }
  }
}
layer {
  name: "inception_3b/relu_3x3"
  type: "ReLU"
  bottom: "inception_3b/3x3"
  top: "inception_3b/3x3"
}
layer {
  name: "inception_3b/5x5_reduce"
  type: "Convolution"
  bottom: "inception_3a/output"
  top: "inception_3b/5x5_reduce"
  param {
    lr_mult: 1
    decay_mult: 1
  }
  param {
    lr_mult: 2
    decay_mult: 0
  }
  convolution_param {
    num_output: 32
    kernel_size: 1
    weight_filler {
      type: "xavier"
      std: 0.2
    }
    bias_filler {
      type: "constant"
      value: 0.2
    }
  }
}
layer {
  name: "inception_3b/relu_5x5_reduce"
  type: "ReLU"
  bottom: "inception_3b/5x5_reduce"
  top: "inception_3b/5x5_reduce"
}
layer {
  name: "inception_3b/5x5"
  type: "Convolution"
  bottom: "inception_3b/5x5_reduce"
  top: "inception_3b/5x5"
  param {
    lr_mult: 1
    decay_mult: 1
  }
  param {
    lr_mult: 2
    decay_mult: 0
  }
  convolution_param {
    num_output: 96
    pad: 2
    kernel_size: 5
    weight_filler {
      type: "xavier"
      std: 0.03
    }
    bias_filler {
      type: "constant"
      value: 0.2
    }
  }
}
layer {
  name: "inception_3b/relu_5x5"
  type: "ReLU"
  bottom: "inception_3b/5x5"
  top: "inception_3b/5x5"
}
layer {
  name: "inception_3b/pool"
  type: "Pooling"
  bottom: "inception_3a/output"
  top: "inception_3b/pool"
  pooling_param {
    pool: MAX
    kernel_size: 3
    stride: 1
    pad: 1
  }
}
layer {
  name: "inception_3b/pool_proj"
  type: "Convolution"
  bottom: "inception_3b/pool"
  top: "inception_3b/pool_proj"
  param {
    lr_mult: 1
    decay_mult: 1
  }
  param {
    lr_mult: 2
    decay_mult: 0
  }
  convolution_param {
    num_output: 64
    kernel_size: 1
    weight_filler {
      type: "xavier"
      std: 0.1
    }
    bias_filler {
      type: "constant"
      value: 0.2
    }
  }
}
layer {
  name: "inception_3b/relu_pool_proj"
  type: "ReLU"
  bottom: "inception_3b/pool_proj"
  top: "inception_3b/pool_proj"
}
layer {
  name: "inception_3b/output"
  type: "Concat"
  bottom: "inception_3b/1x1"
  bottom: "inception_3b/3x3"
  bottom: "inception_3b/5x5"
  bottom: "inception_3b/pool_proj"
  top: "inception_3b/output"
}
layer {
  name: "pool3/3x3_s2"
  type: "Pooling"
  bottom: "inception_3b/output"
  top: "pool3/3x3_s2"
  pooling_param {
    pool: MAX
    kernel_size: 3
    stride: 2
  }
}
layer {
  name: "inception_4a/1x1"
  type: "Convolution"
  bottom: "pool3/3x3_s2"
  top: "inception_4a/1x1"
  param {
    lr_mult: 1
    decay_mult: 1
  }
  param {
    lr_mult: 2
    decay_mult: 0
  }
  convolution_param {
    num_output: 192
    kernel_size: 1
    weight_filler {
      type: "xavier"
      std: 0.03
    }
    bias_filler {
      type: "constant"
      value: 0.2
    }
  }
}
layer {
  name: "inception_4a/relu_1x1"
  type: "ReLU"
  bottom: "inception_4a/1x1"
  top: "inception_4a/1x1"
}
layer {
  name: "inception_4a/3x3_reduce"
  type: "Convolution"
  bottom: "pool3/3x3_s2"
  top: "inception_4a/3x3_reduce"
  param {
    lr_mult: 1
    decay_mult: 1
  }
  param {
    lr_mult: 2
    decay_mult: 0
  }
  convolution_param {
    num_output: 96
    kernel_size: 1
    weight_filler {
      type: "xavier"
      std: 0.09
    }
    bias_filler {
      type: "constant"
      value: 0.2
    }
  }
}
layer {
  name: "inception_4a/relu_3x3_reduce"
  type: "ReLU"
  bottom: "inception_4a/3x3_reduce"
  top: "inception_4a/3x3_reduce"
}
layer {
  name: "inception_4a/3x3"
  type: "Convolution"
  bottom: "inception_4a/3x3_reduce"
  top: "inception_4a/3x3"
  param {
    lr_mult: 1
    decay_mult: 1
  }
  param {
    lr_mult: 2
    decay_mult: 0
  }
  convolution_param {
    num_output: 208
    pad: 1
    kernel_size: 3
    weight_filler {
      type: "xavier"
      std: 0.03
    }
    bias_filler {
      type: "constant"
      value: 0.2
    }
  }
}
layer {
  name: "inception_4a/relu_3x3"
  type: "ReLU"
  bottom: "inception_4a/3x3"
  top: "inception_4a/3x3"
}
layer {
  name: "inception_4a/5x5_reduce"
  type: "Convolution"
  bottom: "pool3/3x3_s2"
  top: "inception_4a/5x5_reduce"
  param {
    lr_mult: 1
    decay_mult: 1
  }
  param {
    lr_mult: 2
    decay_mult: 0
  }
  convolution_param {
    num_output: 16
    kernel_size: 1
    weight_filler {
      type: "xavier"
      std: 0.2
    }
    bias_filler {
      type: "constant"
      value: 0.2
    }
  }
}
layer {
  name: "inception_4a/relu_5x5_reduce"
  type: "ReLU"
  bottom: "inception_4a/5x5_reduce"
  top: "inception_4a/5x5_reduce"
}
layer {
  name: "inception_4a/5x5"
  type: "Convolution"
  bottom: "inception_4a/5x5_reduce"
  top: "inception_4a/5x5"
  param {
    lr_mult: 1
    decay_mult: 1
  }
  param {
    lr_mult: 2
    decay_mult: 0
  }
  convolution_param {
    num_output: 48
    pad: 2
    kernel_size: 5
    weight_filler {
      type: "xavier"
      std: 0.03
    }
    bias_filler {
      type: "constant"
      value: 0.2
    }
  }
}
layer {
  name: "inception_4a/relu_5x5"
  type: "ReLU"
  bottom: "inception_4a/5x5"
  top: "inception_4a/5x5"
}
layer {
  name: "inception_4a/pool"
  type: "Pooling"
  bottom: "pool3/3x3_s2"
  top: "inception_4a/pool"
  pooling_param {
    pool: MAX
    kernel_size: 3
    stride: 1
    pad: 1
  }
}
layer {
  name: "inception_4a/pool_proj"
  type: "Convolution"
  bottom: "inception_4a/pool"
  top: "inception_4a/pool_proj"
  param {
    lr_mult: 1
    decay_mult: 1
  }
  param {
    lr_mult: 2
    decay_mult: 0
  }
  convolution_param {
    num_output: 64
    kernel_size: 1
    weight_filler {
      type: "xavier"
      std: 0.1
    }
    bias_filler {
      type: "constant"
      value: 0.2
    }
  }
}
layer {
  name: "inception_4a/relu_pool_proj"
  type: "ReLU"
  bottom: "inception_4a/pool_proj"
  top: "inception_4a/pool_proj"
}
layer {
  name: "inception_4a/output"
  type: "Concat"
  bottom: "inception_4a/1x1"
  bottom: "inception_4a/3x3"
  bottom: "inception_4a/5x5"
  bottom: "inception_4a/pool_proj"
  top: "inception_4a/output"
}
layer {
  name: "loss1/ave_pool"
  type: "Pooling"
  bottom: "inception_4a/output"
  top: "loss1/ave_pool"
  pooling_param {
    pool: AVE
    kernel_size: 5
    stride: 3
  }
}
layer {
  name: "loss1/conv"
  type: "Convolution"
  bottom: "loss1/ave_pool"
  top: "loss1/conv"
  param {
    lr_mult: 1
    decay_mult: 1
  }
  param {
    lr_mult: 2
    decay_mult: 0
  }
  convolution_param {
    num_output: 128
    kernel_size: 1
    weight_filler {
      type: "xavier"
      std: 0.08
    }
    bias_filler {
      type: "constant"
      value: 0.2
    }
  }
}
layer {
  name: "loss1/relu_conv"
  type: "ReLU"
  bottom: "loss1/conv"
  top: "loss1/conv"
}
layer {
  name: "loss1/fc"
  type: "InnerProduct"
  bottom: "loss1/conv"
  top: "loss1/fc"
  param {
    lr_mult: 1
    decay_mult: 1
  }
  param {
    lr_mult: 2
    decay_mult: 0
  }
  inner_product_param {
    num_output: 1024
    weight_filler {
      type: "xavier"
      std: 0.02
    }
    bias_filler {
      type: "constant"
      value: 0.2
    }
  }
}
layer {
  name: "loss1/relu_fc"
  type: "ReLU"
  bottom: "loss1/fc"
  top: "loss1/fc"
}
layer {
  name: "loss1/drop_fc"
  type: "Dropout"
  bottom: "loss1/fc"
  top: "loss1/fc"
  dropout_param {
    dropout_ratio: 0.7
  }
}
layer {
  name: "loss1/classifier_plantvillage"
  type: "InnerProduct"
  bottom: "loss1/fc"
  top: "loss1/classifier_plantvillage"
  param {
    lr_mult: 1
    decay_mult: 1
  }
  param {
    lr_mult: 2
    decay_mult: 0
  }
  inner_product_param {
    num_output: 38
    weight_filler {
      type: "xavier"
      std: 0.0009765625
    }
    bias_filler {
      type: "constant"
      value: 0
    }
  }
}
layer {
  name: "inception_4b/1x1"
  type: "Convolution"
  bottom: "inception_4a/output"
  top: "inception_4b/1x1"
  param {
    lr_mult: 1
    decay_mult: 1
  }
  param {
    lr_mult: 2
    decay_mult: 0
  }
  convolution_param {
    num_output: 160
    kernel_size: 1
    weight_filler {
      type: "xavier"
      std: 0.03
    }
    bias_filler {
      type: "constant"
      value: 0.2
    }
  }
}
layer {
  name: "inception_4b/relu_1x1"
  type: "ReLU"
  bottom: "inception_4b/1x1"
  top: "inception_4b/1x1"
}
layer {
  name: "inception_4b/3x3_reduce"
  type: "Convolution"
  bottom: "inception_4a/output"
  top: "inception_4b/3x3_reduce"
  param {
    lr_mult: 1
    decay_mult: 1
  }
  param {
    lr_mult: 2
    decay_mult: 0
  }
  convolution_param {
    num_output: 112
    kernel_size: 1
    weight_filler {
      type: "xavier"
      std: 0.09
    }
    bias_filler {
      type: "constant"
      value: 0.2
    }
  }
}
layer {
  name: "inception_4b/relu_3x3_reduce"
  type: "ReLU"
  bottom: "inception_4b/3x3_reduce"
  top: "inception_4b/3x3_reduce"
}
layer {
  name: "inception_4b/3x3"
  type: "Convolution"
  bottom: "inception_4b/3x3_reduce"
  top: "inception_4b/3x3"
  param {
    lr_mult: 1
    decay_mult: 1
  }
  param {
    lr_mult: 2
    decay_mult: 0
  }
  convolution_param {
    num_output: 224
    pad: 1
    kernel_size: 3
    weight_filler {
      type: "xavier"
      std: 0.03
    }
    bias_filler {
      type: "constant"
      value: 0.2
    }
  }
}
layer {
  name: "inception_4b/relu_3x3"
  type: "ReLU"
  bottom: "inception_4b/3x3"
  top: "inception_4b/3x3"
}
layer {
  name: "inception_4b/5x5_reduce"
  type: "Convolution"
  bottom: "inception_4a/output"
  top: "inception_4b/5x5_reduce"
  param {
    lr_mult: 1
    decay_mult: 1
  }
  param {
    lr_mult: 2
    decay_mult: 0
  }
  convolution_param {
    num_output: 24
    kernel_size: 1
    weight_filler {
      type: "xavier"
      std: 0.2
    }
    bias_filler {
      type: "constant"
      value: 0.2
    }
  }
}
layer {
  name: "inception_4b/relu_5x5_reduce"
  type: "ReLU"
  bottom: "inception_4b/5x5_reduce"
  top: "inception_4b/5x5_reduce"
}
layer {
  name: "inception_4b/5x5"
  type: "Convolution"
  bottom: "inception_4b/5x5_reduce"
  top: "inception_4b/5x5"
  param {
    lr_mult: 1
    decay_mult: 1
  }
  param {
    lr_mult: 2
    decay_mult: 0
  }
  convolution_param {
    num_output: 64
    pad: 2
    kernel_size: 5
    weight_filler {
      type: "xavier"
      std: 0.03
    }
    bias_filler {
      type: "constant"
      value: 0.2
    }
  }
}
layer {
  name: "inception_4b/relu_5x5"
  type: "ReLU"
  bottom: "inception_4b/5x5"
  top: "inception_4b/5x5"
}
layer {
  name: "inception_4b/pool"
  type: "Pooling"
  bottom: "inception_4a/output"
  top: "inception_4b/pool"
  pooling_param {
    pool: MAX
    kernel_size: 3
    stride: 1
    pad: 1
  }
}
layer {
  name: "inception_4b/pool_proj"
  type: "Convolution"
  bottom: "inception_4b/pool"
  top: "inception_4b/pool_proj"
  param {
    lr_mult: 1
    decay_mult: 1
  }
  param {
    lr_mult: 2
    decay_mult: 0
  }
  convolution_param {
    num_output: 64
    kernel_size: 1
    weight_filler {
      type: "xavier"
      std: 0.1
    }
    bias_filler {
      type: "constant"
      value: 0.2
    }
  }
}
layer {
  name: "inception_4b/relu_pool_proj"
  type: "ReLU"
  bottom: "inception_4b/pool_proj"
  top: "inception_4b/pool_proj"
}
layer {
  name: "inception_4b/output"
  type: "Concat"
  bottom: "inception_4b/1x1"
  bottom: "inception_4b/3x3"
  bottom: "inception_4b/5x5"
  bottom: "inception_4b/pool_proj"
  top: "inception_4b/output"
}
layer {
  name: "inception_4c/1x1"
  type: "Convolution"
  bottom: "inception_4b/output"
  top: "inception_4c/1x1"
  param {
    lr_mult: 1
    decay_mult: 1
  }
  param {
    lr_mult: 2
    decay_mult: 0
  }
  convolution_param {
    num_output: 128
    kernel_size: 1
    weight_filler {
      type: "xavier"
      std: 0.03
    }
    bias_filler {
      type: "constant"
      value: 0.2
    }
  }
}
layer {
  name: "inception_4c/relu_1x1"
  type: "ReLU"
  bottom: "inception_4c/1x1"
  top: "inception_4c/1x1"
}
layer {
  name: "inception_4c/3x3_reduce"
  type: "Convolution"
  bottom: "inception_4b/output"
  top: "inception_4c/3x3_reduce"
  param {
    lr_mult: 1
    decay_mult: 1
  }
  param {
    lr_mult: 2
    decay_mult: 0
  }
  convolution_param {
    num_output: 128
    kernel_size: 1
    weight_filler {
      type: "xavier"
      std: 0.09
    }
    bias_filler {
      type: "constant"
      value: 0.2
    }
  }
}
layer {
  name: "inception_4c/relu_3x3_reduce"
  type: "ReLU"
  bottom: "inception_4c/3x3_reduce"
  top: "inception_4c/3x3_reduce"
}
layer {
  name: "inception_4c/3x3"
  type: "Convolution"
  bottom: "inception_4c/3x3_reduce"
  top: "inception_4c/3x3"
  param {
    lr_mult: 1
    decay_mult: 1
  }
  param {
    lr_mult: 2
    decay_mult: 0
  }
  convolution_param {
    num_output: 256
    pad: 1
    kernel_size: 3
    weight_filler {
      type: "xavier"
      std: 0.03
    }
    bias_filler {
      type: "constant"
      value: 0.2
    }
  }
}
layer {
  name: "inception_4c/relu_3x3"
  type: "ReLU"
  bottom: "inception_4c/3x3"
  top: "inception_4c/3x3"
}
layer {
  name: "inception_4c/5x5_reduce"
  type: "Convolution"
  bottom: "inception_4b/output"
  top: "inception_4c/5x5_reduce"
  param {
    lr_mult: 1
    decay_mult: 1
  }
  param {
    lr_mult: 2
    decay_mult: 0
  }
  convolution_param {
    num_output: 24
    kernel_size: 1
    weight_filler {
      type: "xavier"
      std: 0.2
    }
    bias_filler {
      type: "constant"
      value: 0.2
    }
  }
}
layer {
  name: "inception_4c/relu_5x5_reduce"
  type: "ReLU"
  bottom: "inception_4c/5x5_reduce"
  top: "inception_4c/5x5_reduce"
}
layer {
  name: "inception_4c/5x5"
  type: "Convolution"
  bottom: "inception_4c/5x5_reduce"
  top: "inception_4c/5x5"
  param {
    lr_mult: 1
    decay_mult: 1
  }
  param {
    lr_mult: 2
    decay_mult: 0
  }
  convolution_param {
    num_output: 64
    pad: 2
    kernel_size: 5
    weight_filler {
      type: "xavier"
      std: 0.03
    }
    bias_filler {
      type: "constant"
      value: 0.2
    }
  }
}
layer {
  name: "inception_4c/relu_5x5"
  type: "ReLU"
  bottom: "inception_4c/5x5"
  top: "inception_4c/5x5"
}
layer {
  name: "inception_4c/pool"
  type: "Pooling"
  bottom: "inception_4b/output"
  top: "inception_4c/pool"
  pooling_param {
    pool: MAX
    kernel_size: 3
    stride: 1
    pad: 1
  }
}
layer {
  name: "inception_4c/pool_proj"
  type: "Convolution"
  bottom: "inception_4c/pool"
  top: "inception_4c/pool_proj"
  param {
    lr_mult: 1
    decay_mult: 1
  }
  param {
    lr_mult: 2
    decay_mult: 0
  }
  convolution_param {
    num_output: 64
    kernel_size: 1
    weight_filler {
      type: "xavier"
      std: 0.1
    }
    bias_filler {
      type: "constant"
      value: 0.2
    }
  }
}
layer {
  name: "inception_4c/relu_pool_proj"
  type: "ReLU"
  bottom: "inception_4c/pool_proj"
  top: "inception_4c/pool_proj"
}
layer {
  name: "inception_4c/output"
  type: "Concat"
  bottom: "inception_4c/1x1"
  bottom: "inception_4c/3x3"
  bottom: "inception_4c/5x5"
  bottom: "inception_4c/pool_proj"
  top: "inception_4c/output"
}
layer {
  name: "inception_4d/1x1"
  type: "Convolution"
  bottom: "inception_4c/output"
  top: "inception_4d/1x1"
  param {
    lr_mult: 1
    decay_mult: 1
  }
  param {
    lr_mult: 2
    decay_mult: 0
  }
  convolution_param {
    num_output: 112
    kernel_size: 1
    weight_filler {
      type: "xavier"
      std: 0.03
    }
    bias_filler {
      type: "constant"
      value: 0.2
    }
  }
}
layer {
  name: "inception_4d/relu_1x1"
  type: "ReLU"
  bottom: "inception_4d/1x1"
  top: "inception_4d/1x1"
}
layer {
  name: "inception_4d/3x3_reduce"
  type: "Convolution"
  bottom: "inception_4c/output"
  top: "inception_4d/3x3_reduce"
  param {
    lr_mult: 1
    decay_mult: 1
  }
  param {
    lr_mult: 2
    decay_mult: 0
  }
  convolution_param {
    num_output: 144
    kernel_size: 1
    weight_filler {
      type: "xavier"
      std: 0.09
    }
    bias_filler {
      type: "constant"
      value: 0.2
    }
  }
}
layer {
  name: "inception_4d/relu_3x3_reduce"
  type: "ReLU"
  bottom: "inception_4d/3x3_reduce"
  top: "inception_4d/3x3_reduce"
}
layer {
  name: "inception_4d/3x3"
  type: "Convolution"
  bottom: "inception_4d/3x3_reduce"
  top: "inception_4d/3x3"
  param {
    lr_mult: 1
    decay_mult: 1
  }
  param {
    lr_mult: 2
    decay_mult: 0
  }
  convolution_param {
    num_output: 288
    pad: 1
    kernel_size: 3
    weight_filler {
      type: "xavier"
      std: 0.03
    }
    bias_filler {
      type: "constant"
      value: 0.2
    }
  }
}
layer {
  name: "inception_4d/relu_3x3"
  type: "ReLU"
  bottom: "inception_4d/3x3"
  top: "inception_4d/3x3"
}
layer {
  name: "inception_4d/5x5_reduce"
  type: "Convolution"
  bottom: "inception_4c/output"
  top: "inception_4d/5x5_reduce"
  param {
    lr_mult: 1
    decay_mult: 1
  }
  param {
    lr_mult: 2
    decay_mult: 0
  }
  convolution_param {
    num_output: 32
    kernel_size: 1
    weight_filler {
      type: "xavier"
      std: 0.2
    }
    bias_filler {
      type: "constant"
      value: 0.2
    }
  }
}
layer {
  name: "inception_4d/relu_5x5_reduce"
  type: "ReLU"
  bottom: "inception_4d/5x5_reduce"
  top: "inception_4d/5x5_reduce"
}
layer {
  name: "inception_4d/5x5"
  type: "Convolution"
  bottom: "inception_4d/5x5_reduce"
  top: "inception_4d/5x5"
  param {
    lr_mult: 1
    decay_mult: 1
  }
  param {
    lr_mult: 2
    decay_mult: 0
  }
  convolution_param {
    num_output: 64
    pad: 2
    kernel_size: 5
    weight_filler {
      type: "xavier"
      std: 0.03
    }
    bias_filler {
      type: "constant"
      value: 0.2
    }
  }
}
layer {
  name: "inception_4d/relu_5x5"
  type: "ReLU"
  bottom: "inception_4d/5x5"
  top: "inception_4d/5x5"
}
layer {
  name: "inception_4d/pool"
  type: "Pooling"
  bottom: "inception_4c/output"
  top: "inception_4d/pool"
  pooling_param {
    pool: MAX
    kernel_size: 3
    stride: 1
    pad: 1
  }
}
layer {
  name: "inception_4d/pool_proj"
  type: "Convolution"
  bottom: "inception_4d/pool"
  top: "inception_4d/pool_proj"
  param {
    lr_mult: 1
    decay_mult: 1
  }
  param {
    lr_mult: 2
    decay_mult: 0
  }
  convolution_param {
    num_output: 64
    kernel_size: 1
    weight_filler {
      type: "xavier"
      std: 0.1
    }
    bias_filler {
      type: "constant"
      value: 0.2
    }
  }
}
layer {
  name: "inception_4d/relu_pool_proj"
  type: "ReLU"
  bottom: "inception_4d/pool_proj"
  top: "inception_4d/pool_proj"
}
layer {
  name: "inception_4d/output"
  type: "Concat"
  bottom: "inception_4d/1x1"
  bottom: "inception_4d/3x3"
  bottom: "inception_4d/5x5"
  bottom: "inception_4d/pool_proj"
  top: "inception_4d/output"
}
layer {
  name: "loss2/ave_pool"
  type: "Pooling"
  bottom: "inception_4d/output"
  top: "loss2/ave_pool"
  pooling_param {
    pool: AVE
    kernel_size: 5
    stride: 3
  }
}
layer {
  name: "loss2/conv"
  type: "Convolution"
  bottom: "loss2/ave_pool"
  top: "loss2/conv"
  param {
    lr_mult: 1
    decay_mult: 1
  }
  param {
    lr_mult: 2
    decay_mult: 0
  }
  convolution_param {
    num_output: 128
    kernel_size: 1
    weight_filler {
      type: "xavier"
      std: 0.08
    }
    bias_filler {
      type: "constant"
      value: 0.2
    }
  }
}
layer {
  name: "loss2/relu_conv"
  type: "ReLU"
  bottom: "loss2/conv"
  top: "loss2/conv"
}
layer {
  name: "loss2/fc"
  type: "InnerProduct"
  bottom: "loss2/conv"
  top: "loss2/fc"
  param {
    lr_mult: 1
    decay_mult: 1
  }
  param {
    lr_mult: 2
    decay_mult: 0
  }
  inner_product_param {
    num_output: 1024
    weight_filler {
      type: "xavier"
      std: 0.02
    }
    bias_filler {
      type: "constant"
      value: 0.2
    }
  }
}
layer {
  name: "loss2/relu_fc"
  type: "ReLU"
  bottom: "loss2/fc"
  top: "loss2/fc"
}
layer {
  name: "loss2/drop_fc"
  type: "Dropout"
  bottom: "loss2/fc"
  top: "loss2/fc"
  dropout_param {
    dropout_ratio: 0.7
  }
}
layer {
  name: "loss2/classifier_plantvillage"
  type: "InnerProduct"
  bottom: "loss2/fc"
  top: "loss2/classifier_plantvillage"
  param {
    lr_mult: 1
    decay_mult: 1
  }
  param {
    lr_mult: 2
    decay_mult: 0
  }
  inner_product_param {
    num_output: 38
    weight_filler {
      type: "xavier"
      std: 0.0009765625
    }
    bias_filler {
      type: "constant"
      value: 0
    }
  }
}
layer {
  name: "inception_4e/1x1"
  type: "Convolution"
  bottom: "inception_4d/output"
  top: "inception_4e/1x1"
  param {
    lr_mult: 1
    decay_mult: 1
  }
  param {
    lr_mult: 2
    decay_mult: 0
  }
  convolution_param {
    num_output: 256
    kernel_size: 1
    weight_filler {
      type: "xavier"
      std: 0.03
    }
    bias_filler {
      type: "constant"
      value: 0.2
    }
  }
}
layer {
  name: "inception_4e/relu_1x1"
  type: "ReLU"
  bottom: "inception_4e/1x1"
  top: "inception_4e/1x1"
}
layer {
  name: "inception_4e/3x3_reduce"
  type: "Convolution"
  bottom: "inception_4d/output"
  top: "inception_4e/3x3_reduce"
  param {
    lr_mult: 1
    decay_mult: 1
  }
  param {
    lr_mult: 2
    decay_mult: 0
  }
  convolution_param {
    num_output: 160
    kernel_size: 1
    weight_filler {
      type: "xavier"
      std: 0.09
    }
    bias_filler {
      type: "constant"
      value: 0.2
    }
  }
}
layer {
  name: "inception_4e/relu_3x3_reduce"
  type: "ReLU"
  bottom: "inception_4e/3x3_reduce"
  top: "inception_4e/3x3_reduce"
}
layer {
  name: "inception_4e/3x3"
  type: "Convolution"
  bottom: "inception_4e/3x3_reduce"
  top: "inception_4e/3x3"
  param {
    lr_mult: 1
    decay_mult: 1
  }
  param {
    lr_mult: 2
    decay_mult: 0
  }
  convolution_param {
    num_output: 320
    pad: 1
    kernel_size: 3
    weight_filler {
      type: "xavier"
      std: 0.03
    }
    bias_filler {
      type: "constant"
      value: 0.2
    }
  }
}
layer {
  name: "inception_4e/relu_3x3"
  type: "ReLU"
  bottom: "inception_4e/3x3"
  top: "inception_4e/3x3"
}
layer {
  name: "inception_4e/5x5_reduce"
  type: "Convolution"
  bottom: "inception_4d/output"
  top: "inception_4e/5x5_reduce"
  param {
    lr_mult: 1
    decay_mult: 1
  }
  param {
    lr_mult: 2
    decay_mult: 0
  }
  convolution_param {
    num_output: 32
    kernel_size: 1
    weight_filler {
      type: "xavier"
      std: 0.2
    }
    bias_filler {
      type: "constant"
      value: 0.2
    }
  }
}
layer {
  name: "inception_4e/relu_5x5_reduce"
  type: "ReLU"
  bottom: "inception_4e/5x5_reduce"
  top: "inception_4e/5x5_reduce"
}
layer {
  name: "inception_4e/5x5"
  type: "Convolution"
  bottom: "inception_4e/5x5_reduce"
  top: "inception_4e/5x5"
  p
I0403 21:42:52.666620 12573 layer_factory.hpp:77] Creating layer data
I0403 21:42:52.667215 12573 net.cpp:91] Creating Layer data
I0403 21:42:52.667248 12573 net.cpp:399] data -> data
I0403 21:42:52.667299 12573 net.cpp:399] data -> label
I0403 21:42:52.667336 12573 data_transformer.cpp:25] Loading mean file from: /home/mohanty/data/final_dataset/lmdb/color-80-20/mean.binaryproto
I0403 21:42:52.668370 12576 db_lmdb.cpp:38] Opened lmdb /home/mohanty/data/final_dataset/lmdb/color-80-20/test_db
I0403 21:42:52.680744 12573 data_layer.cpp:41] output data size: 24,3,224,224
I0403 21:42:52.708492 12573 net.cpp:141] Setting up data
I0403 21:42:52.708585 12573 net.cpp:148] Top shape: 24 3 224 224 (3612672)
I0403 21:42:52.708606 12573 net.cpp:148] Top shape: 24 (24)
I0403 21:42:52.708621 12573 net.cpp:156] Memory required for data: 14450784
I0403 21:42:52.708647 12573 layer_factory.hpp:77] Creating layer label_data_1_split
I0403 21:42:52.708670 12573 net.cpp:91] Creating Layer label_data_1_split
I0403 21:42:52.708688 12573 net.cpp:425] label_data_1_split <- label
I0403 21:42:52.708717 12573 net.cpp:399] label_data_1_split -> label_data_1_split_0
I0403 21:42:52.708744 12573 net.cpp:399] label_data_1_split -> label_data_1_split_1
I0403 21:42:52.708763 12573 net.cpp:399] label_data_1_split -> label_data_1_split_2
I0403 21:42:52.708784 12573 net.cpp:399] label_data_1_split -> label_data_1_split_3
I0403 21:42:52.708802 12573 net.cpp:399] label_data_1_split -> label_data_1_split_4
I0403 21:42:52.708822 12573 net.cpp:399] label_data_1_split -> label_data_1_split_5
I0403 21:42:52.708839 12573 net.cpp:399] label_data_1_split -> label_data_1_split_6
I0403 21:42:52.708860 12573 net.cpp:399] label_data_1_split -> label_data_1_split_7
I0403 21:42:52.708880 12573 net.cpp:399] label_data_1_split -> label_data_1_split_8
I0403 21:42:52.708900 12573 net.cpp:399] label_data_1_split -> label_data_1_split_9
I0403 21:42:52.709012 12573 net.cpp:141] Setting up label_data_1_split
I0403 21:42:52.709034 12573 net.cpp:148] Top shape: 24 (24)
I0403 21:42:52.709051 12573 net.cpp:148] Top shape: 24 (24)
I0403 21:42:52.709067 12573 net.cpp:148] Top shape: 24 (24)
I0403 21:42:52.709084 12573 net.cpp:148] Top shape: 24 (24)
I0403 21:42:52.709100 12573 net.cpp:148] Top shape: 24 (24)
I0403 21:42:52.709115 12573 net.cpp:148] Top shape: 24 (24)
I0403 21:42:52.709130 12573 net.cpp:148] Top shape: 24 (24)
I0403 21:42:52.709146 12573 net.cpp:148] Top shape: 24 (24)
I0403 21:42:52.709161 12573 net.cpp:148] Top shape: 24 (24)
I0403 21:42:52.709182 12573 net.cpp:148] Top shape: 24 (24)
I0403 21:42:52.709241 12573 net.cpp:156] Memory required for data: 14451744
I0403 21:42:52.709259 12573 layer_factory.hpp:77] Creating layer conv1/7x7_s2
I0403 21:42:52.709292 12573 net.cpp:91] Creating Layer conv1/7x7_s2
I0403 21:42:52.709311 12573 net.cpp:425] conv1/7x7_s2 <- data
I0403 21:42:52.709331 12573 net.cpp:399] conv1/7x7_s2 -> conv1/7x7_s2
I0403 21:42:52.858014 12573 net.cpp:141] Setting up conv1/7x7_s2
I0403 21:42:52.858120 12573 net.cpp:148] Top shape: 24 64 112 112 (19267584)
I0403 21:42:52.858137 12573 net.cpp:156] Memory required for data: 91522080
I0403 21:42:52.858170 12573 layer_factory.hpp:77] Creating layer conv1/relu_7x7
I0403 21:42:52.858206 12573 net.cpp:91] Creating Layer conv1/relu_7x7
I0403 21:42:52.858227 12573 net.cpp:425] conv1/relu_7x7 <- conv1/7x7_s2
I0403 21:42:52.858247 12573 net.cpp:386] conv1/relu_7x7 -> conv1/7x7_s2 (in-place)
I0403 21:42:52.858525 12573 net.cpp:141] Setting up conv1/relu_7x7
I0403 21:42:52.858551 12573 net.cpp:148] Top shape: 24 64 112 112 (19267584)
I0403 21:42:52.858567 12573 net.cpp:156] Memory required for data: 168592416
I0403 21:42:52.858582 12573 layer_factory.hpp:77] Creating layer pool1/3x3_s2
I0403 21:42:52.858609 12573 net.cpp:91] Creating Layer pool1/3x3_s2
I0403 21:42:52.858628 12573 net.cpp:425] pool1/3x3_s2 <- conv1/7x7_s2
I0403 21:42:52.858646 12573 net.cpp:399] pool1/3x3_s2 -> pool1/3x3_s2
I0403 21:42:52.858723 12573 net.cpp:141] Setting up pool1/3x3_s2
I0403 21:42:52.858748 12573 net.cpp:148] Top shape: 24 64 56 56 (4816896)
I0403 21:42:52.858763 12573 net.cpp:156] Memory required for data: 187860000
I0403 21:42:52.858778 12573 layer_factory.hpp:77] Creating layer pool1/norm1
I0403 21:42:52.858805 12573 net.cpp:91] Creating Layer pool1/norm1
I0403 21:42:52.858824 12573 net.cpp:425] pool1/norm1 <- pool1/3x3_s2
I0403 21:42:52.858842 12573 net.cpp:399] pool1/norm1 -> pool1/norm1
I0403 21:42:52.859143 12573 net.cpp:141] Setting up pool1/norm1
I0403 21:42:52.859170 12573 net.cpp:148] Top shape: 24 64 56 56 (4816896)
I0403 21:42:52.859191 12573 net.cpp:156] Memory required for data: 207127584
I0403 21:42:52.859208 12573 layer_factory.hpp:77] Creating layer conv2/3x3_reduce
I0403 21:42:52.859236 12573 net.cpp:91] Creating Layer conv2/3x3_reduce
I0403 21:42:52.859256 12573 net.cpp:425] conv2/3x3_reduce <- pool1/norm1
I0403 21:42:52.859277 12573 net.cpp:399] conv2/3x3_reduce -> conv2/3x3_reduce
I0403 21:42:52.860692 12573 net.cpp:141] Setting up conv2/3x3_reduce
I0403 21:42:52.860723 12573 net.cpp:148] Top shape: 24 64 56 56 (4816896)
I0403 21:42:52.860740 12573 net.cpp:156] Memory required for data: 226395168
I0403 21:42:52.860762 12573 layer_factory.hpp:77] Creating layer conv2/relu_3x3_reduce
I0403 21:42:52.860780 12573 net.cpp:91] Creating Layer conv2/relu_3x3_reduce
I0403 21:42:52.860796 12573 net.cpp:425] conv2/relu_3x3_reduce <- conv2/3x3_reduce
I0403 21:42:52.860816 12573 net.cpp:386] conv2/relu_3x3_reduce -> conv2/3x3_reduce (in-place)
I0403 21:42:52.861083 12573 net.cpp:141] Setting up conv2/relu_3x3_reduce
I0403 21:42:52.861112 12573 net.cpp:148] Top shape: 24 64 56 56 (4816896)
I0403 21:42:52.861129 12573 net.cpp:156] Memory required for data: 245662752
I0403 21:42:52.861146 12573 layer_factory.hpp:77] Creating layer conv2/3x3
I0403 21:42:52.861171 12573 net.cpp:91] Creating Layer conv2/3x3
I0403 21:42:52.861196 12573 net.cpp:425] conv2/3x3 <- conv2/3x3_reduce
I0403 21:42:52.861220 12573 net.cpp:399] conv2/3x3 -> conv2/3x3
I0403 21:42:52.863536 12573 net.cpp:141] Setting up conv2/3x3
I0403 21:42:52.863569 12573 net.cpp:148] Top shape: 24 192 56 56 (14450688)
I0403 21:42:52.863600 12573 net.cpp:156] Memory required for data: 303465504
I0403 21:42:52.863621 12573 layer_factory.hpp:77] Creating layer conv2/relu_3x3
I0403 21:42:52.863641 12573 net.cpp:91] Creating Layer conv2/relu_3x3
I0403 21:42:52.863656 12573 net.cpp:425] conv2/relu_3x3 <- conv2/3x3
I0403 21:42:52.863677 12573 net.cpp:386] conv2/relu_3x3 -> conv2/3x3 (in-place)
I0403 21:42:52.863854 12573 net.cpp:141] Setting up conv2/relu_3x3
I0403 21:42:52.863879 12573 net.cpp:148] Top shape: 24 192 56 56 (14450688)
I0403 21:42:52.863926 12573 net.cpp:156] Memory required for data: 361268256
I0403 21:42:52.863942 12573 layer_factory.hpp:77] Creating layer conv2/norm2
I0403 21:42:52.863963 12573 net.cpp:91] Creating Layer conv2/norm2
I0403 21:42:52.863981 12573 net.cpp:425] conv2/norm2 <- conv2/3x3
I0403 21:42:52.864004 12573 net.cpp:399] conv2/norm2 -> conv2/norm2
I0403 21:42:52.864312 12573 net.cpp:141] Setting up conv2/norm2
I0403 21:42:52.864342 12573 net.cpp:148] Top shape: 24 192 56 56 (14450688)
I0403 21:42:52.864358 12573 net.cpp:156] Memory required for data: 419071008
I0403 21:42:52.864373 12573 layer_factory.hpp:77] Creating layer pool2/3x3_s2
I0403 21:42:52.864392 12573 net.cpp:91] Creating Layer pool2/3x3_s2
I0403 21:42:52.864408 12573 net.cpp:425] pool2/3x3_s2 <- conv2/norm2
I0403 21:42:52.864428 12573 net.cpp:399] pool2/3x3_s2 -> pool2/3x3_s2
I0403 21:42:52.864480 12573 net.cpp:141] Setting up pool2/3x3_s2
I0403 21:42:52.864505 12573 net.cpp:148] Top shape: 24 192 28 28 (3612672)
I0403 21:42:52.864519 12573 net.cpp:156] Memory required for data: 433521696
I0403 21:42:52.864534 12573 layer_factory.hpp:77] Creating layer pool2/3x3_s2_pool2/3x3_s2_0_split
I0403 21:42:52.864554 12573 net.cpp:91] Creating Layer pool2/3x3_s2_pool2/3x3_s2_0_split
I0403 21:42:52.864572 12573 net.cpp:425] pool2/3x3_s2_pool2/3x3_s2_0_split <- pool2/3x3_s2
I0403 21:42:52.864590 12573 net.cpp:399] pool2/3x3_s2_pool2/3x3_s2_0_split -> pool2/3x3_s2_pool2/3x3_s2_0_split_0
I0403 21:42:52.864610 12573 net.cpp:399] pool2/3x3_s2_pool2/3x3_s2_0_split -> pool2/3x3_s2_pool2/3x3_s2_0_split_1
I0403 21:42:52.864630 12573 net.cpp:399] pool2/3x3_s2_pool2/3x3_s2_0_split -> pool2/3x3_s2_pool2/3x3_s2_0_split_2
I0403 21:42:52.864650 12573 net.cpp:399] pool2/3x3_s2_pool2/3x3_s2_0_split -> pool2/3x3_s2_pool2/3x3_s2_0_split_3
I0403 21:42:52.864720 12573 net.cpp:141] Setting up pool2/3x3_s2_pool2/3x3_s2_0_split
I0403 21:42:52.864743 12573 net.cpp:148] Top shape: 24 192 28 28 (3612672)
I0403 21:42:52.864760 12573 net.cpp:148] Top shape: 24 192 28 28 (3612672)
I0403 21:42:52.864778 12573 net.cpp:148] Top shape: 24 192 28 28 (3612672)
I0403 21:42:52.864794 12573 net.cpp:148] Top shape: 24 192 28 28 (3612672)
I0403 21:42:52.864809 12573 net.cpp:156] Memory required for data: 491324448
I0403 21:42:52.864825 12573 layer_factory.hpp:77] Creating layer inception_3a/1x1
I0403 21:42:52.864848 12573 net.cpp:91] Creating Layer inception_3a/1x1
I0403 21:42:52.864866 12573 net.cpp:425] inception_3a/1x1 <- pool2/3x3_s2_pool2/3x3_s2_0_split_0
I0403 21:42:52.864887 12573 net.cpp:399] inception_3a/1x1 -> inception_3a/1x1
I0403 21:42:52.866480 12573 net.cpp:141] Setting up inception_3a/1x1
I0403 21:42:52.866513 12573 net.cpp:148] Top shape: 24 64 28 28 (1204224)
I0403 21:42:52.866531 12573 net.cpp:156] Memory required for data: 496141344
I0403 21:42:52.866552 12573 layer_factory.hpp:77] Creating layer inception_3a/relu_1x1
I0403 21:42:52.866583 12573 net.cpp:91] Creating Layer inception_3a/relu_1x1
I0403 21:42:52.866600 12573 net.cpp:425] inception_3a/relu_1x1 <- inception_3a/1x1
I0403 21:42:52.866619 12573 net.cpp:386] inception_3a/relu_1x1 -> inception_3a/1x1 (in-place)
I0403 21:42:52.866832 12573 net.cpp:141] Setting up inception_3a/relu_1x1
I0403 21:42:52.866861 12573 net.cpp:148] Top shape: 24 64 28 28 (1204224)
I0403 21:42:52.866879 12573 net.cpp:156] Memory required for data: 500958240
I0403 21:42:52.866901 12573 layer_factory.hpp:77] Creating layer inception_3a/3x3_reduce
I0403 21:42:52.866927 12573 net.cpp:91] Creating Layer inception_3a/3x3_reduce
I0403 21:42:52.866946 12573 net.cpp:425] inception_3a/3x3_reduce <- pool2/3x3_s2_pool2/3x3_s2_0_split_1
I0403 21:42:52.866971 12573 net.cpp:399] inception_3a/3x3_reduce -> inception_3a/3x3_reduce
I0403 21:42:52.868922 12573 net.cpp:141] Setting up inception_3a/3x3_reduce
I0403 21:42:52.868959 12573 net.cpp:148] Top shape: 24 96 28 28 (1806336)
I0403 21:42:52.868978 12573 net.cpp:156] Memory required for data: 508183584
I0403 21:42:52.869001 12573 layer_factory.hpp:77] Creating layer inception_3a/relu_3x3_reduce
I0403 21:42:52.869041 12573 net.cpp:91] Creating Layer inception_3a/relu_3x3_reduce
I0403 21:42:52.869061 12573 net.cpp:425] inception_3a/relu_3x3_reduce <- inception_3a/3x3_reduce
I0403 21:42:52.869081 12573 net.cpp:386] inception_3a/relu_3x3_reduce -> inception_3a/3x3_reduce (in-place)
I0403 21:42:52.869292 12573 net.cpp:141] Setting up inception_3a/relu_3x3_reduce
I0403 21:42:52.869324 12573 net.cpp:148] Top shape: 24 96 28 28 (1806336)
I0403 21:42:52.869343 12573 net.cpp:156] Memory required for data: 515408928
I0403 21:42:52.869362 12573 layer_factory.hpp:77] Creating layer inception_3a/3x3
I0403 21:42:52.869387 12573 net.cpp:91] Creating Layer inception_3a/3x3
I0403 21:42:52.869406 12573 net.cpp:425] inception_3a/3x3 <- inception_3a/3x3_reduce
I0403 21:42:52.869426 12573 net.cpp:399] inception_3a/3x3 -> inception_3a/3x3
I0403 21:42:52.871253 12573 net.cpp:141] Setting up inception_3a/3x3
I0403 21:42:52.871284 12573 net.cpp:148] Top shape: 24 128 28 28 (2408448)
I0403 21:42:52.871301 12573 net.cpp:156] Memory required for data: 525042720
I0403 21:42:52.871325 12573 layer_factory.hpp:77] Creating layer inception_3a/relu_3x3
I0403 21:42:52.871345 12573 net.cpp:91] Creating Layer inception_3a/relu_3x3
I0403 21:42:52.871361 12573 net.cpp:425] inception_3a/relu_3x3 <- inception_3a/3x3
I0403 21:42:52.871382 12573 net.cpp:386] inception_3a/relu_3x3 -> inception_3a/3x3 (in-place)
I0403 21:42:52.871677 12573 net.cpp:141] Setting up inception_3a/relu_3x3
I0403 21:42:52.871709 12573 net.cpp:148] Top shape: 24 128 28 28 (2408448)
I0403 21:42:52.871726 12573 net.cpp:156] Memory required for data: 534676512
I0403 21:42:52.871743 12573 layer_factory.hpp:77] Creating layer inception_3a/5x5_reduce
I0403 21:42:52.871767 12573 net.cpp:91] Creating Layer inception_3a/5x5_reduce
I0403 21:42:52.871788 12573 net.cpp:425] inception_3a/5x5_reduce <- pool2/3x3_s2_pool2/3x3_s2_0_split_2
I0403 21:42:52.871810 12573 net.cpp:399] inception_3a/5x5_reduce -> inception_3a/5x5_reduce
I0403 21:42:52.872838 12573 net.cpp:141] Setting up inception_3a/5x5_reduce
I0403 21:42:52.872869 12573 net.cpp:148] Top shape: 24 16 28 28 (301056)
I0403 21:42:52.872885 12573 net.cpp:156] Memory required for data: 535880736
I0403 21:42:52.872905 12573 layer_factory.hpp:77] Creating layer inception_3a/relu_5x5_reduce
I0403 21:42:52.872926 12573 net.cpp:91] Creating Layer inception_3a/relu_5x5_reduce
I0403 21:42:52.872946 12573 net.cpp:425] inception_3a/relu_5x5_reduce <- inception_3a/5x5_reduce
I0403 21:42:52.872964 12573 net.cpp:386] inception_3a/relu_5x5_reduce -> inception_3a/5x5_reduce (in-place)
I0403 21:42:52.873262 12573 net.cpp:141] Setting up inception_3a/relu_5x5_reduce
I0403 21:42:52.873291 12573 net.cpp:148] Top shape: 24 16 28 28 (301056)
I0403 21:42:52.873307 12573 net.cpp:156] Memory required for data: 537084960
I0403 21:42:52.873323 12573 layer_factory.hpp:77] Creating layer inception_3a/5x5
I0403 21:42:52.873347 12573 net.cpp:91] Creating Layer inception_3a/5x5
I0403 21:42:52.873368 12573 net.cpp:425] inception_3a/5x5 <- inception_3a/5x5_reduce
I0403 21:42:52.873390 12573 net.cpp:399] inception_3a/5x5 -> inception_3a/5x5
I0403 21:42:52.874454 12573 net.cpp:141] Setting up inception_3a/5x5
I0403 21:42:52.874485 12573 net.cpp:148] Top shape: 24 32 28 28 (602112)
I0403 21:42:52.874503 12573 net.cpp:156] Memory required for data: 539493408
I0403 21:42:52.874522 12573 layer_factory.hpp:77] Creating layer inception_3a/relu_5x5
I0403 21:42:52.874542 12573 net.cpp:91] Creating Layer inception_3a/relu_5x5
I0403 21:42:52.874560 12573 net.cpp:425] inception_3a/relu_5x5 <- inception_3a/5x5
I0403 21:42:52.874582 12573 net.cpp:386] inception_3a/relu_5x5 -> inception_3a/5x5 (in-place)
I0403 21:42:52.874765 12573 net.cpp:141] Setting up inception_3a/relu_5x5
I0403 21:42:52.874793 12573 net.cpp:148] Top shape: 24 32 28 28 (602112)
I0403 21:42:52.874809 12573 net.cpp:156] Memory required for data: 541901856
I0403 21:42:52.874825 12573 layer_factory.hpp:77] Creating layer inception_3a/pool
I0403 21:42:52.874847 12573 net.cpp:91] Creating Layer inception_3a/pool
I0403 21:42:52.874866 12573 net.cpp:425] inception_3a/pool <- pool2/3x3_s2_pool2/3x3_s2_0_split_3
I0403 21:42:52.874902 12573 net.cpp:399] inception_3a/pool -> inception_3a/pool
I0403 21:42:52.874964 12573 net.cpp:141] Setting up inception_3a/pool
I0403 21:42:52.874990 12573 net.cpp:148] Top shape: 24 192 28 28 (3612672)
I0403 21:42:52.875007 12573 net.cpp:156] Memory required for data: 556352544
I0403 21:42:52.875023 12573 layer_factory.hpp:77] Creating layer inception_3a/pool_proj
I0403 21:42:52.875047 12573 net.cpp:91] Creating Layer inception_3a/pool_proj
I0403 21:42:52.875066 12573 net.cpp:425] inception_3a/pool_proj <- inception_3a/pool
I0403 21:42:52.875090 12573 net.cpp:399] inception_3a/pool_proj -> inception_3a/pool_proj
I0403 21:42:52.876099 12573 net.cpp:141] Setting up inception_3a/pool_proj
I0403 21:42:52.876132 12573 net.cpp:148] Top shape: 24 32 28 28 (602112)
I0403 21:42:52.876150 12573 net.cpp:156] Memory required for data: 558760992
I0403 21:42:52.876174 12573 layer_factory.hpp:77] Creating layer inception_3a/relu_pool_proj
I0403 21:42:52.876204 12573 net.cpp:91] Creating Layer inception_3a/relu_pool_proj
I0403 21:42:52.876222 12573 net.cpp:425] inception_3a/relu_pool_proj <- inception_3a/pool_proj
I0403 21:42:52.876241 12573 net.cpp:386] inception_3a/relu_pool_proj -> inception_3a/pool_proj (in-place)
I0403 21:42:52.876528 12573 net.cpp:141] Setting up inception_3a/relu_pool_proj
I0403 21:42:52.876555 12573 net.cpp:148] Top shape: 24 32 28 28 (602112)
I0403 21:42:52.876572 12573 net.cpp:156] Memory required for data: 561169440
I0403 21:42:52.876588 12573 layer_factory.hpp:77] Creating layer inception_3a/output
I0403 21:42:52.876607 12573 net.cpp:91] Creating Layer inception_3a/output
I0403 21:42:52.876624 12573 net.cpp:425] inception_3a/output <- inception_3a/1x1
I0403 21:42:52.876642 12573 net.cpp:425] inception_3a/output <- inception_3a/3x3
I0403 21:42:52.876659 12573 net.cpp:425] inception_3a/output <- inception_3a/5x5
I0403 21:42:52.876677 12573 net.cpp:425] inception_3a/output <- inception_3a/pool_proj
I0403 21:42:52.876698 12573 net.cpp:399] inception_3a/output -> inception_3a/output
I0403 21:42:52.876747 12573 net.cpp:141] Setting up inception_3a/output
I0403 21:42:52.876775 12573 net.cpp:148] Top shape: 24 256 28 28 (4816896)
I0403 21:42:52.876793 12573 net.cpp:156] Memory required for data: 580437024
I0403 21:42:52.876811 12573 layer_factory.hpp:77] Creating layer inception_3a/output_inception_3a/output_0_split
I0403 21:42:52.876829 12573 net.cpp:91] Creating Layer inception_3a/output_inception_3a/output_0_split
I0403 21:42:52.876845 12573 net.cpp:425] inception_3a/output_inception_3a/output_0_split <- inception_3a/output
I0403 21:42:52.876865 12573 net.cpp:399] inception_3a/output_inception_3a/output_0_split -> inception_3a/output_inception_3a/output_0_split_0
I0403 21:42:52.876888 12573 net.cpp:399] inception_3a/output_inception_3a/output_0_split -> inception_3a/output_inception_3a/output_0_split_1
I0403 21:42:52.876917 12573 net.cpp:399] inception_3a/output_inception_3a/output_0_split -> inception_3a/output_inception_3a/output_0_split_2
I0403 21:42:52.876942 12573 net.cpp:399] inception_3a/output_inception_3a/output_0_split -> inception_3a/output_inception_3a/output_0_split_3
I0403 21:42:52.877024 12573 net.cpp:141] Setting up inception_3a/output_inception_3a/output_0_split
I0403 21:42:52.877053 12573 net.cpp:148] Top shape: 24 256 28 28 (4816896)
I0403 21:42:52.877071 12573 net.cpp:148] Top shape: 24 256 28 28 (4816896)
I0403 21:42:52.877089 12573 net.cpp:148] Top shape: 24 256 28 28 (4816896)
I0403 21:42:52.877106 12573 net.cpp:148] Top shape: 24 256 28 28 (4816896)
I0403 21:42:52.877120 12573 net.cpp:156] Memory required for data: 657507360
I0403 21:42:52.877136 12573 layer_factory.hpp:77] Creating layer inception_3b/1x1
I0403 21:42:52.877161 12573 net.cpp:91] Creating Layer inception_3b/1x1
I0403 21:42:52.877185 12573 net.cpp:425] inception_3b/1x1 <- inception_3a/output_inception_3a/output_0_split_0
I0403 21:42:52.877207 12573 net.cpp:399] inception_3b/1x1 -> inception_3b/1x1
I0403 21:42:52.878396 12573 net.cpp:141] Setting up inception_3b/1x1
I0403 21:42:52.878442 12573 net.cpp:148] Top shape: 24 128 28 28 (2408448)
I0403 21:42:52.878460 12573 net.cpp:156] Memory required for data: 667141152
I0403 21:42:52.878480 12573 layer_factory.hpp:77] Creating layer inception_3b/relu_1x1
I0403 21:42:52.878500 12573 net.cpp:91] Creating Layer inception_3b/relu_1x1
I0403 21:42:52.878517 12573 net.cpp:425] inception_3b/relu_1x1 <- inception_3b/1x1
I0403 21:42:52.878537 12573 net.cpp:386] inception_3b/relu_1x1 -> inception_3b/1x1 (in-place)
I0403 21:42:52.878726 12573 net.cpp:141] Setting up inception_3b/relu_1x1
I0403 21:42:52.878753 12573 net.cpp:148] Top shape: 24 128 28 28 (2408448)
I0403 21:42:52.878770 12573 net.cpp:156] Memory required for data: 676774944
I0403 21:42:52.878787 12573 layer_factory.hpp:77] Creating layer inception_3b/3x3_reduce
I0403 21:42:52.878810 12573 net.cpp:91] Creating Layer inception_3b/3x3_reduce
I0403 21:42:52.878829 12573 net.cpp:425] inception_3b/3x3_reduce <- inception_3a/output_inception_3a/output_0_split_1
I0403 21:42:52.878852 12573 net.cpp:399] inception_3b/3x3_reduce -> inception_3b/3x3_reduce
I0403 21:42:52.880056 12573 net.cpp:141] Setting up inception_3b/3x3_reduce
I0403 21:42:52.880090 12573 net.cpp:148] Top shape: 24 128 28 28 (2408448)
I0403 21:42:52.880108 12573 net.cpp:156] Memory required for data: 686408736
I0403 21:42:52.880130 12573 layer_factory.hpp:77] Creating layer inception_3b/relu_3x3_reduce
I0403 21:42:52.880148 12573 net.cpp:91] Creating Layer inception_3b/relu_3x3_reduce
I0403 21:42:52.880165 12573 net.cpp:425] inception_3b/relu_3x3_reduce <- inception_3b/3x3_reduce
I0403 21:42:52.880189 12573 net.cpp:386] inception_3b/relu_3x3_reduce -> inception_3b/3x3_reduce (in-place)
I0403 21:42:52.880373 12573 net.cpp:141] Setting up inception_3b/relu_3x3_reduce
I0403 21:42:52.880401 12573 net.cpp:148] Top shape: 24 128 28 28 (2408448)
I0403 21:42:52.880419 12573 net.cpp:156] Memory required for data: 696042528
I0403 21:42:52.880434 12573 layer_factory.hpp:77] Creating layer inception_3b/3x3
I0403 21:42:52.880460 12573 net.cpp:91] Creating Layer inception_3b/3x3
I0403 21:42:52.880481 12573 net.cpp:425] inception_3b/3x3 <- inception_3b/3x3_reduce
I0403 21:42:52.880508 12573 net.cpp:399] inception_3b/3x3 -> inception_3b/3x3
I0403 21:42:52.883607 12573 net.cpp:141] Setting up inception_3b/3x3
I0403 21:42:52.883638 12573 net.cpp:148] Top shape: 24 192 28 28 (3612672)
I0403 21:42:52.883656 12573 net.cpp:156] Memory required for data: 710493216
I0403 21:42:52.883676 12573 layer_factory.hpp:77] Creating layer inception_3b/relu_3x3
I0403 21:42:52.883697 12573 net.cpp:91] Creating Layer inception_3b/relu_3x3
I0403 21:42:52.883714 12573 net.cpp:425] inception_3b/relu_3x3 <- inception_3b/3x3
I0403 21:42:52.883736 12573 net.cpp:386] inception_3b/relu_3x3 -> inception_3b/3x3 (in-place)
I0403 21:42:52.884023 12573 net.cpp:141] Setting up inception_3b/relu_3x3
I0403 21:42:52.884052 12573 net.cpp:148] Top shape: 24 192 28 28 (3612672)
I0403 21:42:52.884068 12573 net.cpp:156] Memory required for data: 724943904
I0403 21:42:52.884083 12573 layer_factory.hpp:77] Creating layer inception_3b/5x5_reduce
I0403 21:42:52.884109 12573 net.cpp:91] Creating Layer inception_3b/5x5_reduce
I0403 21:42:52.884129 12573 net.cpp:425] inception_3b/5x5_reduce <- inception_3a/output_inception_3a/output_0_split_2
I0403 21:42:52.884153 12573 net.cpp:399] inception_3b/5x5_reduce -> inception_3b/5x5_reduce
I0403 21:42:52.885210 12573 net.cpp:141] Setting up inception_3b/5x5_reduce
I0403 21:42:52.885239 12573 net.cpp:148] Top shape: 24 32 28 28 (602112)
I0403 21:42:52.885257 12573 net.cpp:156] Memory required for data: 727352352
I0403 21:42:52.885277 12573 layer_factory.hpp:77] Creating layer inception_3b/relu_5x5_reduce
I0403 21:42:52.885295 12573 net.cpp:91] Creating Layer inception_3b/relu_5x5_reduce
I0403 21:42:52.885313 12573 net.cpp:425] inception_3b/relu_5x5_reduce <- inception_3b/5x5_reduce
I0403 21:42:52.885335 12573 net.cpp:386] inception_3b/relu_5x5_reduce -> inception_3b/5x5_reduce (in-place)
I0403 21:42:52.885529 12573 net.cpp:141] Setting up inception_3b/relu_5x5_reduce
I0403 21:42:52.885567 12573 net.cpp:148] Top shape: 24 32 28 28 (602112)
I0403 21:42:52.885584 12573 net.cpp:156] Memory required for data: 729760800
I0403 21:42:52.885601 12573 layer_factory.hpp:77] Creating layer inception_3b/5x5
I0403 21:42:52.885625 12573 net.cpp:91] Creating Layer inception_3b/5x5
I0403 21:42:52.885644 12573 net.cpp:425] inception_3b/5x5 <- inception_3b/5x5_reduce
I0403 21:42:52.885668 12573 net.cpp:399] inception_3b/5x5 -> inception_3b/5x5
I0403 21:42:52.887765 12573 net.cpp:141] Setting up inception_3b/5x5
I0403 21:42:52.887799 12573 net.cpp:148] Top shape: 24 96 28 28 (1806336)
I0403 21:42:52.887817 12573 net.cpp:156] Memory required for data: 736986144
I0403 21:42:52.887837 12573 layer_factory.hpp:77] Creating layer inception_3b/relu_5x5
I0403 21:42:52.887857 12573 net.cpp:91] Creating Layer inception_3b/relu_5x5
I0403 21:42:52.887874 12573 net.cpp:425] inception_3b/relu_5x5 <- inception_3b/5x5
I0403 21:42:52.887892 12573 net.cpp:386] inception_3b/relu_5x5 -> inception_3b/5x5 (in-place)
I0403 21:42:52.888100 12573 net.cpp:141] Setting up inception_3b/relu_5x5
I0403 21:42:52.888128 12573 net.cpp:148] Top shape: 24 96 28 28 (1806336)
I0403 21:42:52.888144 12573 net.cpp:156] Memory required for data: 744211488
I0403 21:42:52.888160 12573 layer_factory.hpp:77] Creating layer inception_3b/pool
I0403 21:42:52.888185 12573 net.cpp:91] Creating Layer inception_3b/pool
I0403 21:42:52.888206 12573 net.cpp:425] inception_3b/pool <- inception_3a/output_inception_3a/output_0_split_3
I0403 21:42:52.888224 12573 net.cpp:399] inception_3b/pool -> inception_3b/pool
I0403 21:42:52.888284 12573 net.cpp:141] Setting up inception_3b/pool
I0403 21:42:52.888312 12573 net.cpp:148] Top shape: 24 256 28 28 (4816896)
I0403 21:42:52.888329 12573 net.cpp:156] Memory required for data: 763479072
I0403 21:42:52.888345 12573 layer_factory.hpp:77] Creating layer inception_3b/pool_proj
I0403 21:42:52.888370 12573 net.cpp:91] Creating Layer inception_3b/pool_proj
I0403 21:42:52.888389 12573 net.cpp:425] inception_3b/pool_proj <- inception_3b/pool
I0403 21:42:52.888409 12573 net.cpp:399] inception_3b/pool_proj -> inception_3b/pool_proj
I0403 21:42:52.889519 12573 net.cpp:141] Setting up inception_3b/pool_proj
I0403 21:42:52.889549 12573 net.cpp:148] Top shape: 24 64 28 28 (1204224)
I0403 21:42:52.889566 12573 net.cpp:156] Memory required for data: 768295968
I0403 21:42:52.889586 12573 layer_factory.hpp:77] Creating layer inception_3b/relu_pool_proj
I0403 21:42:52.889607 12573 net.cpp:91] Creating Layer inception_3b/relu_pool_proj
I0403 21:42:52.889626 12573 net.cpp:425] inception_3b/relu_pool_proj <- inception_3b/pool_proj
I0403 21:42:52.889644 12573 net.cpp:386] inception_3b/relu_pool_proj -> inception_3b/pool_proj (in-place)
I0403 21:42:52.890033 12573 net.cpp:141] Setting up inception_3b/relu_pool_proj
I0403 21:42:52.890061 12573 net.cpp:148] Top shape: 24 64 28 28 (1204224)
I0403 21:42:52.890079 12573 net.cpp:156] Memory required for data: 773112864
I0403 21:42:52.890095 12573 layer_factory.hpp:77] Creating layer inception_3b/output
I0403 21:42:52.890115 12573 net.cpp:91] Creating Layer inception_3b/output
I0403 21:42:52.890130 12573 net.cpp:425] inception_3b/output <- inception_3b/1x1
I0403 21:42:52.890148 12573 net.cpp:425] inception_3b/output <- inception_3b/3x3
I0403 21:42:52.890167 12573 net.cpp:425] inception_3b/output <- inception_3b/5x5
I0403 21:42:52.890190 12573 net.cpp:425] inception_3b/output <- inception_3b/pool_proj
I0403 21:42:52.890213 12573 net.cpp:399] inception_3b/output -> inception_3b/output
I0403 21:42:52.890264 12573 net.cpp:141] Setting up inception_3b/output
I0403 21:42:52.890290 12573 net.cpp:148] Top shape: 24 480 28 28 (9031680)
I0403 21:42:52.890306 12573 net.cpp:156] Memory required for data: 809239584
I0403 21:42:52.890322 12573 layer_factory.hpp:77] Creating layer pool3/3x3_s2
I0403 21:42:52.890341 12573 net.cpp:91] Creating Layer pool3/3x3_s2
I0403 21:42:52.890358 12573 net.cpp:425] pool3/3x3_s2 <- inception_3b/output
I0403 21:42:52.890380 12573 net.cpp:399] pool3/3x3_s2 -> pool3/3x3_s2
I0403 21:42:52.890457 12573 net.cpp:141] Setting up pool3/3x3_s2
I0403 21:42:52.890483 12573 net.cpp:148] Top shape: 24 480 14 14 (2257920)
I0403 21:42:52.890501 12573 net.cpp:156] Memory required for data: 818271264
I0403 21:42:52.890516 12573 layer_factory.hpp:77] Creating layer pool3/3x3_s2_pool3/3x3_s2_0_split
I0403 21:42:52.890538 12573 net.cpp:91] Creating Layer pool3/3x3_s2_pool3/3x3_s2_0_split
I0403 21:42:52.890555 12573 net.cpp:425] pool3/3x3_s2_pool3/3x3_s2_0_split <- pool3/3x3_s2
I0403 21:42:52.890573 12573 net.cpp:399] pool3/3x3_s2_pool3/3x3_s2_0_split -> pool3/3x3_s2_pool3/3x3_s2_0_split_0
I0403 21:42:52.890594 12573 net.cpp:399] pool3/3x3_s2_pool3/3x3_s2_0_split -> pool3/3x3_s2_pool3/3x3_s2_0_split_1
I0403 21:42:52.890620 12573 net.cpp:399] pool3/3x3_s2_pool3/3x3_s2_0_split -> pool3/3x3_s2_pool3/3x3_s2_0_split_2
I0403 21:42:52.890641 12573 net.cpp:399] pool3/3x3_s2_pool3/3x3_s2_0_split -> pool3/3x3_s2_pool3/3x3_s2_0_split_3
I0403 21:42:52.890722 12573 net.cpp:141] Setting up pool3/3x3_s2_pool3/3x3_s2_0_split
I0403 21:42:52.890748 12573 net.cpp:148] Top shape: 24 480 14 14 (2257920)
I0403 21:42:52.890764 12573 net.cpp:148] Top shape: 24 480 14 14 (2257920)
I0403 21:42:52.890782 12573 net.cpp:148] Top shape: 24 480 14 14 (2257920)
I0403 21:42:52.890799 12573 net.cpp:148] Top shape: 24 480 14 14 (2257920)
I0403 21:42:52.890815 12573 net.cpp:156] Memory required for data: 854397984
I0403 21:42:52.890830 12573 layer_factory.hpp:77] Creating layer inception_4a/1x1
I0403 21:42:52.890853 12573 net.cpp:91] Creating Layer inception_4a/1x1
I0403 21:42:52.890872 12573 net.cpp:425] inception_4a/1x1 <- pool3/3x3_s2_pool3/3x3_s2_0_split_0
I0403 21:42:52.890895 12573 net.cpp:399] inception_4a/1x1 -> inception_4a/1x1
I0403 21:42:52.892560 12573 net.cpp:141] Setting up inception_4a/1x1
I0403 21:42:52.892590 12573 net.cpp:148] Top shape: 24 192 14 14 (903168)
I0403 21:42:52.892606 12573 net.cpp:156] Memory required for data: 858010656
I0403 21:42:52.892627 12573 layer_factory.hpp:77] Creating layer inception_4a/relu_1x1
I0403 21:42:52.892648 12573 net.cpp:91] Creating Layer inception_4a/relu_1x1
I0403 21:42:52.892666 12573 net.cpp:425] inception_4a/relu_1x1 <- inception_4a/1x1
I0403 21:42:52.892685 12573 net.cpp:386] inception_4a/relu_1x1 -> inception_4a/1x1 (in-place)
I0403 21:42:52.892874 12573 net.cpp:141] Setting up inception_4a/relu_1x1
I0403 21:42:52.892904 12573 net.cpp:148] Top shape: 24 192 14 14 (903168)
I0403 21:42:52.892921 12573 net.cpp:156] Memory required for data: 861623328
I0403 21:42:52.892937 12573 layer_factory.hpp:77] Creating layer inception_4a/3x3_reduce
I0403 21:42:52.892962 12573 net.cpp:91] Creating Layer inception_4a/3x3_reduce
I0403 21:42:52.892981 12573 net.cpp:425] inception_4a/3x3_reduce <- pool3/3x3_s2_pool3/3x3_s2_0_split_1
I0403 21:42:52.893002 12573 net.cpp:399] inception_4a/3x3_reduce -> inception_4a/3x3_reduce
I0403 21:42:52.894358 12573 net.cpp:141] Setting up inception_4a/3x3_reduce
I0403 21:42:52.894388 12573 net.cpp:148] Top shape: 24 96 14 14 (451584)
I0403 21:42:52.894405 12573 net.cpp:156] Memory required for data: 863429664
I0403 21:42:52.894433 12573 layer_factory.hpp:77] Creating layer inception_4a/relu_3x3_reduce
I0403 21:42:52.894456 12573 net.cpp:91] Creating Layer inception_4a/relu_3x3_reduce
I0403 21:42:52.894474 12573 net.cpp:425] inception_4a/relu_3x3_reduce <- inception_4a/3x3_reduce
I0403 21:42:52.894493 12573 net.cpp:386] inception_4a/relu_3x3_reduce -> inception_4a/3x3_reduce (in-place)
I0403 21:42:52.894682 12573 net.cpp:141] Setting up inception_4a/relu_3x3_reduce
I0403 21:42:52.894712 12573 net.cpp:148] Top shape: 24 96 14 14 (451584)
I0403 21:42:52.894729 12573 net.cpp:156] Memory required for data: 865236000
I0403 21:42:52.894747 12573 layer_factory.hpp:77] Creating layer inception_4a/3x3
I0403 21:42:52.894770 12573 net.cpp:91] Creating Layer inception_4a/3x3
I0403 21:42:52.894790 12573 net.cpp:425] inception_4a/3x3 <- inception_4a/3x3_reduce
I0403 21:42:52.894810 12573 net.cpp:399] inception_4a/3x3 -> inception_4a/3x3
I0403 21:42:52.897675 12573 net.cpp:141] Setting up inception_4a/3x3
I0403 21:42:52.897709 12573 net.cpp:148] Top shape: 24 208 14 14 (978432)
I0403 21:42:52.897727 12573 net.cpp:156] Memory required for data: 869149728
I0403 21:42:52.897748 12573 layer_factory.hpp:77] Creating layer inception_4a/relu_3x3
I0403 21:42:52.897768 12573 net.cpp:91] Creating Layer inception_4a/relu_3x3
I0403 21:42:52.897785 12573 net.cpp:425] inception_4a/relu_3x3 <- inception_4a/3x3
I0403 21:42:52.897804 12573 net.cpp:386] inception_4a/relu_3x3 -> inception_4a/3x3 (in-place)
I0403 21:42:52.898102 12573 net.cpp:141] Setting up inception_4a/relu_3x3
I0403 21:42:52.898133 12573 net.cpp:148] Top shape: 24 208 14 14 (978432)
I0403 21:42:52.898151 12573 net.cpp:156] Memory required for data: 873063456
I0403 21:42:52.898169 12573 layer_factory.hpp:77] Creating layer inception_4a/5x5_reduce
I0403 21:42:52.898200 12573 net.cpp:91] Creating Layer inception_4a/5x5_reduce
I0403 21:42:52.898219 12573 net.cpp:425] inception_4a/5x5_reduce <- pool3/3x3_s2_pool3/3x3_s2_0_split_2
I0403 21:42:52.898239 12573 net.cpp:399] inception_4a/5x5_reduce -> inception_4a/5x5_reduce
I0403 21:42:52.899323 12573 net.cpp:141] Setting up inception_4a/5x5_reduce
I0403 21:42:52.899353 12573 net.cpp:148] Top shape: 24 16 14 14 (75264)
I0403 21:42:52.899370 12573 net.cpp:156] Memory required for data: 873364512
I0403 21:42:52.899389 12573 layer_factory.hpp:77] Creating layer inception_4a/relu_5x5_reduce
I0403 21:42:52.899408 12573 net.cpp:91] Creating Layer inception_4a/relu_5x5_reduce
I0403 21:42:52.899426 12573 net.cpp:425] inception_4a/relu_5x5_reduce <- inception_4a/5x5_reduce
I0403 21:42:52.899447 12573 net.cpp:386] inception_4a/relu_5x5_reduce -> inception_4a/5x5_reduce (in-place)
I0403 21:42:52.899638 12573 net.cpp:141] Setting up inception_4a/relu_5x5_reduce
I0403 21:42:52.899665 12573 net.cpp:148] Top shape: 24 16 14 14 (75264)
I0403 21:42:52.899682 12573 net.cpp:156] Memory required for data: 873665568
I0403 21:42:52.899698 12573 layer_factory.hpp:77] Creating layer inception_4a/5x5
I0403 21:42:52.899723 12573 net.cpp:91] Creating Layer inception_4a/5x5
I0403 21:42:52.899741 12573 net.cpp:425] inception_4a/5x5 <- inception_4a/5x5_reduce
I0403 21:42:52.899763 12573 net.cpp:399] inception_4a/5x5 -> inception_4a/5x5
I0403 21:42:52.900923 12573 net.cpp:141] Setting up inception_4a/5x5
I0403 21:42:52.900952 12573 net.cpp:148] Top shape: 24 48 14 14 (225792)
I0403 21:42:52.900969 12573 net.cpp:156] Memory required for data: 874568736
I0403 21:42:52.900990 12573 layer_factory.hpp:77] Creating layer inception_4a/relu_5x5
I0403 21:42:52.901011 12573 net.cpp:91] Creating Layer inception_4a/relu_5x5
I0403 21:42:52.901031 12573 net.cpp:425] inception_4a/relu_5x5 <- inception_4a/5x5
I0403 21:42:52.901049 12573 net.cpp:386] inception_4a/relu_5x5 -> inception_4a/5x5 (in-place)
I0403 21:42:52.901243 12573 net.cpp:141] Setting up inception_4a/relu_5x5
I0403 21:42:52.901273 12573 net.cpp:148] Top shape: 24 48 14 14 (225792)
I0403 21:42:52.901290 12573 net.cpp:156] Memory required for data: 875471904
I0403 21:42:52.901306 12573 layer_factory.hpp:77] Creating layer inception_4a/pool
I0403 21:42:52.901326 12573 net.cpp:91] Creating Layer inception_4a/pool
I0403 21:42:52.901343 12573 net.cpp:425] inception_4a/pool <- pool3/3x3_s2_pool3/3x3_s2_0_split_3
I0403 21:42:52.901362 12573 net.cpp:399] inception_4a/pool -> inception_4a/pool
I0403 21:42:52.901429 12573 net.cpp:141] Setting up inception_4a/pool
I0403 21:42:52.901455 12573 net.cpp:148] Top shape: 24 480 14 14 (2257920)
I0403 21:42:52.901473 12573 net.cpp:156] Memory required for data: 884503584
I0403 21:42:52.901489 12573 layer_factory.hpp:77] Creating layer inception_4a/pool_proj
I0403 21:42:52.901512 12573 net.cpp:91] Creating Layer inception_4a/pool_proj
I0403 21:42:52.901532 12573 net.cpp:425] inception_4a/pool_proj <- inception_4a/pool
I0403 21:42:52.901556 12573 net.cpp:399] inception_4a/pool_proj -> inception_4a/pool_proj
I0403 21:42:52.902804 12573 net.cpp:141] Setting up inception_4a/pool_proj
I0403 21:42:52.902837 12573 net.cpp:148] Top shape: 24 64 14 14 (301056)
I0403 21:42:52.902869 12573 net.cpp:156] Memory required for data: 885707808
I0403 21:42:52.902891 12573 layer_factory.hpp:77] Creating layer inception_4a/relu_pool_proj
I0403 21:42:52.902915 12573 net.cpp:91] Creating Layer inception_4a/relu_pool_proj
I0403 21:42:52.902932 12573 net.cpp:425] inception_4a/relu_pool_proj <- inception_4a/pool_proj
I0403 21:42:52.902951 12573 net.cpp:386] inception_4a/relu_pool_proj -> inception_4a/pool_proj (in-place)
I0403 21:42:52.903254 12573 net.cpp:141] Setting up inception_4a/relu_pool_proj
I0403 21:42:52.903281 12573 net.cpp:148] Top shape: 24 64 14 14 (301056)
I0403 21:42:52.903298 12573 net.cpp:156] Memory required for data: 886912032
I0403 21:42:52.903316 12573 layer_factory.hpp:77] Creating layer inception_4a/output
I0403 21:42:52.903337 12573 net.cpp:91] Creating Layer inception_4a/output
I0403 21:42:52.903355 12573 net.cpp:425] inception_4a/output <- inception_4a/1x1
I0403 21:42:52.903373 12573 net.cpp:425] inception_4a/output <- inception_4a/3x3
I0403 21:42:52.903390 12573 net.cpp:425] inception_4a/output <- inception_4a/5x5
I0403 21:42:52.903409 12573 net.cpp:425] inception_4a/output <- inception_4a/pool_proj
I0403 21:42:52.903427 12573 net.cpp:399] inception_4a/output -> inception_4a/output
I0403 21:42:52.903476 12573 net.cpp:141] Setting up inception_4a/output
I0403 21:42:52.903501 12573 net.cpp:148] Top shape: 24 512 14 14 (2408448)
I0403 21:42:52.903517 12573 net.cpp:156] Memory required for data: 896545824
I0403 21:42:52.903532 12573 layer_factory.hpp:77] Creating layer inception_4a/output_inception_4a/output_0_split
I0403 21:42:52.903553 12573 net.cpp:91] Creating Layer inception_4a/output_inception_4a/output_0_split
I0403 21:42:52.903569 12573 net.cpp:425] inception_4a/output_inception_4a/output_0_split <- inception_4a/output
I0403 21:42:52.903590 12573 net.cpp:399] inception_4a/output_inception_4a/output_0_split -> inception_4a/output_inception_4a/output_0_split_0
I0403 21:42:52.903612 12573 net.cpp:399] inception_4a/output_inception_4a/output_0_split -> inception_4a/output_inception_4a/output_0_split_1
I0403 21:42:52.903635 12573 net.cpp:399] inception_4a/output_inception_4a/output_0_split -> inception_4a/output_inception_4a/output_0_split_2
I0403 21:42:52.903656 12573 net.cpp:399] inception_4a/output_inception_4a/output_0_split -> inception_4a/output_inception_4a/output_0_split_3
I0403 21:42:52.903679 12573 net.cpp:399] inception_4a/output_inception_4a/output_0_split -> inception_4a/output_inception_4a/output_0_split_4
I0403 21:42:52.903784 12573 net.cpp:141] Setting up inception_4a/output_inception_4a/output_0_split
I0403 21:42:52.903810 12573 net.cpp:148] Top shape: 24 512 14 14 (2408448)
I0403 21:42:52.903828 12573 net.cpp:148] Top shape: 24 512 14 14 (2408448)
I0403 21:42:52.903846 12573 net.cpp:148] Top shape: 24 512 14 14 (2408448)
I0403 21:42:52.903862 12573 net.cpp:148] Top shape: 24 512 14 14 (2408448)
I0403 21:42:52.903878 12573 net.cpp:148] Top shape: 24 512 14 14 (2408448)
I0403 21:42:52.903894 12573 net.cpp:156] Memory required for data: 944714784
I0403 21:42:52.903910 12573 layer_factory.hpp:77] Creating layer loss1/ave_pool
I0403 21:42:52.903929 12573 net.cpp:91] Creating Layer loss1/ave_pool
I0403 21:42:52.903946 12573 net.cpp:425] loss1/ave_pool <- inception_4a/output_inception_4a/output_0_split_0
I0403 21:42:52.903969 12573 net.cpp:399] loss1/ave_pool -> loss1/ave_pool
I0403 21:42:52.904196 12573 net.cpp:141] Setting up loss1/ave_pool
I0403 21:42:52.904224 12573 net.cpp:148] Top shape: 24 512 4 4 (196608)
I0403 21:42:52.904242 12573 net.cpp:156] Memory required for data: 945501216
I0403 21:42:52.904258 12573 layer_factory.hpp:77] Creating layer loss1/conv
I0403 21:42:52.904283 12573 net.cpp:91] Creating Layer loss1/conv
I0403 21:42:52.904302 12573 net.cpp:425] loss1/conv <- loss1/ave_pool
I0403 21:42:52.904325 12573 net.cpp:399] loss1/conv -> loss1/conv
I0403 21:42:52.905812 12573 net.cpp:141] Setting up loss1/conv
I0403 21:42:52.905844 12573 net.cpp:148] Top shape: 24 128 4 4 (49152)
I0403 21:42:52.905863 12573 net.cpp:156] Memory required for data: 945697824
I0403 21:42:52.905896 12573 layer_factory.hpp:77] Creating layer loss1/relu_conv
I0403 21:42:52.905916 12573 net.cpp:91] Creating Layer loss1/relu_conv
I0403 21:42:52.905933 12573 net.cpp:425] loss1/relu_conv <- loss1/conv
I0403 21:42:52.905956 12573 net.cpp:386] loss1/relu_conv -> loss1/conv (in-place)
I0403 21:42:52.906255 12573 net.cpp:141] Setting up loss1/relu_conv
I0403 21:42:52.906285 12573 net.cpp:148] Top shape: 24 128 4 4 (49152)
I0403 21:42:52.906303 12573 net.cpp:156] Memory required for data: 945894432
I0403 21:42:52.906321 12573 layer_factory.hpp:77] Creating layer loss1/fc
I0403 21:42:52.906347 12573 net.cpp:91] Creating Layer loss1/fc
I0403 21:42:52.906366 12573 net.cpp:425] loss1/fc <- loss1/conv
I0403 21:42:52.906389 12573 net.cpp:399] loss1/fc -> loss1/fc
I0403 21:42:52.925848 12573 net.cpp:141] Setting up loss1/fc
I0403 21:42:52.925899 12573 net.cpp:148] Top shape: 24 1024 (24576)
I0403 21:42:52.925917 12573 net.cpp:156] Memory required for data: 945992736
I0403 21:42:52.925937 12573 layer_factory.hpp:77] Creating layer loss1/relu_fc
I0403 21:42:52.925959 12573 net.cpp:91] Creating Layer loss1/relu_fc
I0403 21:42:52.925981 12573 net.cpp:425] loss1/relu_fc <- loss1/fc
I0403 21:42:52.926002 12573 net.cpp:386] loss1/relu_fc -> loss1/fc (in-place)
I0403 21:42:52.926223 12573 net.cpp:141] Setting up loss1/relu_fc
I0403 21:42:52.926255 12573 net.cpp:148] Top shape: 24 1024 (24576)
I0403 21:42:52.926277 12573 net.cpp:156] Memory required for data: 946091040
I0403 21:42:52.926295 12573 layer_factory.hpp:77] Creating layer loss1/drop_fc
I0403 21:42:52.926327 12573 net.cpp:91] Creating Layer loss1/drop_fc
I0403 21:42:52.926348 12573 net.cpp:425] loss1/drop_fc <- loss1/fc
I0403 21:42:52.926370 12573 net.cpp:386] loss1/drop_fc -> loss1/fc (in-place)
I0403 21:42:52.926429 12573 net.cpp:141] Setting up loss1/drop_fc
I0403 21:42:52.926455 12573 net.cpp:148] Top shape: 24 1024 (24576)
I0403 21:42:52.926471 12573 net.cpp:156] Memory required for data: 946189344
I0403 21:42:52.926491 12573 layer_factory.hpp:77] Creating layer loss1/classifier_plantvillage
I0403 21:42:52.926520 12573 net.cpp:91] Creating Layer loss1/classifier_plantvillage
I0403 21:42:52.926540 12573 net.cpp:425] loss1/classifier_plantvillage <- loss1/fc
I0403 21:42:52.926560 12573 net.cpp:399] loss1/classifier_plantvillage -> loss1/classifier_plantvillage
I0403 21:42:52.927570 12573 net.cpp:141] Setting up loss1/classifier_plantvillage
I0403 21:42:52.927603 12573 net.cpp:148] Top shape: 24 38 (912)
I0403 21:42:52.927620 12573 net.cpp:156] Memory required for data: 946192992
I0403 21:42:52.927640 12573 layer_factory.hpp:77] Creating layer loss1/classifier_plantvillage_loss1/classifier_plantvillage_0_split
I0403 21:42:52.927659 12573 net.cpp:91] Creating Layer loss1/classifier_plantvillage_loss1/classifier_plantvillage_0_split
I0403 21:42:52.927677 12573 net.cpp:425] loss1/classifier_plantvillage_loss1/classifier_plantvillage_0_split <- loss1/classifier_plantvillage
I0403 21:42:52.927696 12573 net.cpp:399] loss1/classifier_plantvillage_loss1/classifier_plantvillage_0_split -> loss1/classifier_plantvillage_loss1/classifier_plantvillage_0_split_0
I0403 21:42:52.927717 12573 net.cpp:399] loss1/classifier_plantvillage_loss1/classifier_plantvillage_0_split -> loss1/classifier_plantvillage_loss1/classifier_plantvillage_0_split_1
I0403 21:42:52.927742 12573 net.cpp:399] loss1/classifier_plantvillage_loss1/classifier_plantvillage_0_split -> loss1/classifier_plantvillage_loss1/classifier_plantvillage_0_split_2
I0403 21:42:52.927815 12573 net.cpp:141] Setting up loss1/classifier_plantvillage_loss1/classifier_plantvillage_0_split
I0403 21:42:52.927840 12573 net.cpp:148] Top shape: 24 38 (912)
I0403 21:42:52.927858 12573 net.cpp:148] Top shape: 24 38 (912)
I0403 21:42:52.927875 12573 net.cpp:148] Top shape: 24 38 (912)
I0403 21:42:52.927891 12573 net.cpp:156] Memory required for data: 946203936
I0403 21:42:52.927907 12573 layer_factory.hpp:77] Creating layer inception_4b/1x1
I0403 21:42:52.927929 12573 net.cpp:91] Creating Layer inception_4b/1x1
I0403 21:42:52.927973 12573 net.cpp:425] inception_4b/1x1 <- inception_4a/output_inception_4a/output_0_split_1
I0403 21:42:52.927997 12573 net.cpp:399] inception_4b/1x1 -> inception_4b/1x1
I0403 21:42:52.929756 12573 net.cpp:141] Setting up inception_4b/1x1
I0403 21:42:52.929790 12573 net.cpp:148] Top shape: 24 160 14 14 (752640)
I0403 21:42:52.929805 12573 net.cpp:156] Memory required for data: 949214496
I0403 21:42:52.929826 12573 layer_factory.hpp:77] Creating layer inception_4b/relu_1x1
I0403 21:42:52.929844 12573 net.cpp:91] Creating Layer inception_4b/relu_1x1
I0403 21:42:52.929862 12573 net.cpp:425] inception_4b/relu_1x1 <- inception_4b/1x1
I0403 21:42:52.929884 12573 net.cpp:386] inception_4b/relu_1x1 -> inception_4b/1x1 (in-place)
I0403 21:42:52.930081 12573 net.cpp:141] Setting up inception_4b/relu_1x1
I0403 21:42:52.930109 12573 net.cpp:148] Top shape: 24 160 14 14 (752640)
I0403 21:42:52.930125 12573 net.cpp:156] Memory required for data: 952225056
I0403 21:42:52.930142 12573 layer_factory.hpp:77] Creating layer inception_4b/3x3_reduce
I0403 21:42:52.930167 12573 net.cpp:91] Creating Layer inception_4b/3x3_reduce
I0403 21:42:52.930191 12573 net.cpp:425] inception_4b/3x3_reduce <- inception_4a/output_inception_4a/output_0_split_2
I0403 21:42:52.930215 12573 net.cpp:399] inception_4b/3x3_reduce -> inception_4b/3x3_reduce
I0403 21:42:52.931653 12573 net.cpp:141] Setting up inception_4b/3x3_reduce
I0403 21:42:52.931682 12573 net.cpp:148] Top shape: 24 112 14 14 (526848)
I0403 21:42:52.931700 12573 net.cpp:156] Memory required for data: 954332448
I0403 21:42:52.931720 12573 layer_factory.hpp:77] Creating layer inception_4b/relu_3x3_reduce
I0403 21:42:52.931742 12573 net.cpp:91] Creating Layer inception_4b/relu_3x3_reduce
I0403 21:42:52.931761 12573 net.cpp:425] inception_4b/relu_3x3_reduce <- inception_4b/3x3_reduce
I0403 21:42:52.931780 12573 net.cpp:386] inception_4b/relu_3x3_reduce -> inception_4b/3x3_reduce (in-place)
I0403 21:42:52.932076 12573 net.cpp:141] Setting up inception_4b/relu_3x3_reduce
I0403 21:42:52.932104 12573 net.cpp:148] Top shape: 24 112 14 14 (526848)
I0403 21:42:52.932121 12573 net.cpp:156] Memory required for data: 956439840
I0403 21:42:52.932137 12573 layer_factory.hpp:77] Creating layer inception_4b/3x3
I0403 21:42:52.932162 12573 net.cpp:91] Creating Layer inception_4b/3x3
I0403 21:42:52.932193 12573 net.cpp:425] inception_4b/3x3 <- inception_4b/3x3_reduce
I0403 21:42:52.932221 12573 net.cpp:399] inception_4b/3x3 -> inception_4b/3x3
I0403 21:42:52.935417 12573 net.cpp:141] Setting up inception_4b/3x3
I0403 21:42:52.935448 12573 net.cpp:148] Top shape: 24 224 14 14 (1053696)
I0403 21:42:52.935467 12573 net.cpp:156] Memory required for data: 960654624
I0403 21:42:52.935487 12573 layer_factory.hpp:77] Creating layer inception_4b/relu_3x3
I0403 21:42:52.935509 12573 net.cpp:91] Creating Layer inception_4b/relu_3x3
I0403 21:42:52.935528 12573 net.cpp:425] inception_4b/relu_3x3 <- inception_4b/3x3
I0403 21:42:52.935546 12573 net.cpp:386] inception_4b/relu_3x3 -> inception_4b/3x3 (in-place)
I0403 21:42:52.935742 12573 net.cpp:141] Setting up inception_4b/relu_3x3
I0403 21:42:52.935772 12573 net.cpp:148] Top shape: 24 224 14 14 (1053696)
I0403 21:42:52.935791 12573 net.cpp:156] Memory required for data: 964869408
I0403 21:42:52.935806 12573 layer_factory.hpp:77] Creating layer inception_4b/5x5_reduce
I0403 21:42:52.935830 12573 net.cpp:91] Creating Layer inception_4b/5x5_reduce
I0403 21:42:52.935849 12573 net.cpp:425] inception_4b/5x5_reduce <- inception_4a/output_inception_4a/output_0_split_3
I0403 21:42:52.935869 12573 net.cpp:399] inception_4b/5x5_reduce -> inception_4b/5x5_reduce
I0403 21:42:52.937024 12573 net.cpp:141] Setting up inception_4b/5x5_reduce
I0403 21:42:52.937053 12573 net.cpp:148] Top shape: 24 24 14 14 (112896)
I0403 21:42:52.937072 12573 net.cpp:156] Memory required for data: 965320992
I0403 21:42:52.937090 12573 layer_factory.hpp:77] Creating layer inception_4b/relu_5x5_reduce
I0403 21:42:52.937109 12573 net.cpp:91] Creating Layer inception_4b/relu_5x5_reduce
I0403 21:42:52.937142 12573 net.cpp:425] inception_4b/relu_5x5_reduce <- inception_4b/5x5_reduce
I0403 21:42:52.937165 12573 net.cpp:386] inception_4b/relu_5x5_reduce -> inception_4b/5x5_reduce (in-place)
I0403 21:42:52.937371 12573 net.cpp:141] Setting up inception_4b/relu_5x5_reduce
I0403 21:42:52.937397 12573 net.cpp:148] Top shape: 24 24 14 14 (112896)
I0403 21:42:52.937413 12573 net.cpp:156] Memory required for data: 965772576
I0403 21:42:52.937430 12573 layer_factory.hpp:77] Creating layer inception_4b/5x5
I0403 21:42:52.937454 12573 net.cpp:91] Creating Layer inception_4b/5x5
I0403 21:42:52.937474 12573 net.cpp:425] inception_4b/5x5 <- inception_4b/5x5_reduce
I0403 21:42:52.937497 12573 net.cpp:399] inception_4b/5x5 -> inception_4b/5x5
I0403 21:42:52.938801 12573 net.cpp:141] Setting up inception_4b/5x5
I0403 21:42:52.938837 12573 net.cpp:148] Top shape: 24 64 14 14 (301056)
I0403 21:42:52.938853 12573 net.cpp:156] Memory required for data: 966976800
I0403 21:42:52.938873 12573 layer_factory.hpp:77] Creating layer inception_4b/relu_5x5
I0403 21:42:52.938892 12573 net.cpp:91] Creating Layer inception_4b/relu_5x5
I0403 21:42:52.938910 12573 net.cpp:425] inception_4b/relu_5x5 <- inception_4b/5x5
I0403 21:42:52.938930 12573 net.cpp:386] inception_4b/relu_5x5 -> inception_4b/5x5 (in-place)
I0403 21:42:52.939235 12573 net.cpp:141] Setting up inception_4b/relu_5x5
I0403 21:42:52.939265 12573 net.cpp:148] Top shape: 24 64 14 14 (301056)
I0403 21:42:52.939281 12573 net.cpp:156] Memory required for data: 968181024
I0403 21:42:52.939297 12573 layer_factory.hpp:77] Creating layer inception_4b/pool
I0403 21:42:52.939317 12573 net.cpp:91] Creating Layer inception_4b/pool
I0403 21:42:52.939335 12573 net.cpp:425] inception_4b/pool <- inception_4a/output_inception_4a/output_0_split_4
I0403 21:42:52.939360 12573 net.cpp:399] inception_4b/pool -> inception_4b/pool
I0403 21:42:52.939429 12573 net.cpp:141] Setting up inception_4b/pool
I0403 21:42:52.939455 12573 net.cpp:148] Top shape: 24 512 14 14 (2408448)
I0403 21:42:52.939471 12573 net.cpp:156] Memory required for data: 977814816
I0403 21:42:52.939486 12573 layer_factory.hpp:77] Creating layer inception_4b/pool_proj
I0403 21:42:52.939512 12573 net.cpp:91] Creating Layer inception_4b/pool_proj
I0403 21:42:52.939530 12573 net.cpp:425] inception_4b/pool_proj <- inception_4b/pool
I0403 21:42:52.939550 12573 net.cpp:399] inception_4b/pool_proj -> inception_4b/pool_proj
I0403 21:42:52.940832 12573 net.cpp:141] Setting up inception_4b/pool_proj
I0403 21:42:52.940861 12573 net.cpp:148] Top shape: 24 64 14 14 (301056)
I0403 21:42:52.940879 12573 net.cpp:156] Memory required for data: 979019040
I0403 21:42:52.940899 12573 layer_factory.hpp:77] Creating layer inception_4b/relu_pool_proj
I0403 21:42:52.940918 12573 net.cpp:91] Creating Layer inception_4b/relu_pool_proj
I0403 21:42:52.940935 12573 net.cpp:425] inception_4b/relu_pool_proj <- inception_4b/pool_proj
I0403 21:42:52.940958 12573 net.cpp:386] inception_4b/relu_pool_proj -> inception_4b/pool_proj (in-place)
I0403 21:42:52.941151 12573 net.cpp:141] Setting up inception_4b/relu_pool_proj
I0403 21:42:52.941182 12573 net.cpp:148] Top shape: 24 64 14 14 (301056)
I0403 21:42:52.941200 12573 net.cpp:156] Memory required for data: 980223264
I0403 21:42:52.941217 12573 layer_factory.hpp:77] Creating layer inception_4b/output
I0403 21:42:52.941239 12573 net.cpp:91] Creating Layer inception_4b/output
I0403 21:42:52.941256 12573 net.cpp:425] inception_4b/output <- inception_4b/1x1
I0403 21:42:52.941274 12573 net.cpp:425] inception_4b/output <- inception_4b/3x3
I0403 21:42:52.941293 12573 net.cpp:425] inception_4b/output <- inception_4b/5x5
I0403 21:42:52.941309 12573 net.cpp:425] inception_4b/output <- inception_4b/pool_proj
I0403 21:42:52.941328 12573 net.cpp:399] inception_4b/output -> inception_4b/output
I0403 21:42:52.941378 12573 net.cpp:141] Setting up inception_4b/output
I0403 21:42:52.941404 12573 net.cpp:148] Top shape: 24 512 14 14 (2408448)
I0403 21:42:52.941421 12573 net.cpp:156] Memory required for data: 989857056
I0403 21:42:52.941450 12573 layer_factory.hpp:77] Creating layer inception_4b/output_inception_4b/output_0_split
I0403 21:42:52.941470 12573 net.cpp:91] Creating Layer inception_4b/output_inception_4b/output_0_split
I0403 21:42:52.941488 12573 net.cpp:425] inception_4b/output_inception_4b/output_0_split <- inception_4b/output
I0403 21:42:52.941509 12573 net.cpp:399] inception_4b/output_inception_4b/output_0_split -> inception_4b/output_inception_4b/output_0_split_0
I0403 21:42:52.941532 12573 net.cpp:399] inception_4b/output_inception_4b/output_0_split -> inception_4b/output_inception_4b/output_0_split_1
I0403 21:42:52.941555 12573 net.cpp:399] inception_4b/output_inception_4b/output_0_split -> inception_4b/output_inception_4b/output_0_split_2
I0403 21:42:52.941576 12573 net.cpp:399] inception_4b/output_inception_4b/output_0_split -> inception_4b/output_inception_4b/output_0_split_3
I0403 21:42:52.941663 12573 net.cpp:141] Setting up inception_4b/output_inception_4b/output_0_split
I0403 21:42:52.941695 12573 net.cpp:148] Top shape: 24 512 14 14 (2408448)
I0403 21:42:52.941715 12573 net.cpp:148] Top shape: 24 512 14 14 (2408448)
I0403 21:42:52.941731 12573 net.cpp:148] Top shape: 24 512 14 14 (2408448)
I0403 21:42:52.941750 12573 net.cpp:148] Top shape: 24 512 14 14 (2408448)
I0403 21:42:52.941763 12573 net.cpp:156] Memory required for data: 1028392224
I0403 21:42:52.941779 12573 layer_factory.hpp:77] Creating layer inception_4c/1x1
I0403 21:42:52.941804 12573 net.cpp:91] Creating Layer inception_4c/1x1
I0403 21:42:52.941824 12573 net.cpp:425] inception_4c/1x1 <- inception_4b/output_inception_4b/output_0_split_0
I0403 21:42:52.941846 12573 net.cpp:399] inception_4c/1x1 -> inception_4c/1x1
I0403 21:42:52.943385 12573 net.cpp:141] Setting up inception_4c/1x1
I0403 21:42:52.943415 12573 net.cpp:148] Top shape: 24 128 14 14 (602112)
I0403 21:42:52.943433 12573 net.cpp:156] Memory required for data: 1030800672
I0403 21:42:52.943454 12573 layer_factory.hpp:77] Creating layer inception_4c/relu_1x1
I0403 21:42:52.943475 12573 net.cpp:91] Creating Layer inception_4c/relu_1x1
I0403 21:42:52.943493 12573 net.cpp:425] inception_4c/relu_1x1 <- inception_4c/1x1
I0403 21:42:52.943512 12573 net.cpp:386] inception_4c/relu_1x1 -> inception_4c/1x1 (in-place)
I0403 21:42:52.943708 12573 net.cpp:141] Setting up inception_4c/relu_1x1
I0403 21:42:52.943738 12573 net.cpp:148] Top shape: 24 128 14 14 (602112)
I0403 21:42:52.943754 12573 net.cpp:156] Memory required for data: 1033209120
I0403 21:42:52.943771 12573 layer_factory.hpp:77] Creating layer inception_4c/3x3_reduce
I0403 21:42:52.943795 12573 net.cpp:91] Creating Layer inception_4c/3x3_reduce
I0403 21:42:52.943815 12573 net.cpp:425] inception_4c/3x3_reduce <- inception_4b/output_inception_4b/output_0_split_1
I0403 21:42:52.943836 12573 net.cpp:399] inception_4c/3x3_reduce -> inception_4c/3x3_reduce
I0403 21:42:52.945926 12573 net.cpp:141] Setting up inception_4c/3x3_reduce
I0403 21:42:52.945960 12573 net.cpp:148] Top shape: 24 128 14 14 (602112)
I0403 21:42:52.945978 12573 net.cpp:156] Memory required for data: 1035617568
I0403 21:42:52.945998 12573 layer_factory.hpp:77] Creating layer inception_4c/relu_3x3_reduce
I0403 21:42:52.946018 12573 net.cpp:91] Creating Layer inception_4c/relu_3x3_reduce
I0403 21:42:52.946035 12573 net.cpp:425] inception_4c/relu_3x3_reduce <- inception_4c/3x3_reduce
I0403 21:42:52.946058 12573 net.cpp:386] inception_4c/relu_3x3_reduce -> inception_4c/3x3_reduce (in-place)
I0403 21:42:52.946373 12573 net.cpp:141] Setting up inception_4c/relu_3x3_reduce
I0403 21:42:52.946404 12573 net.cpp:148] Top shape: 24 128 14 14 (602112)
I0403 21:42:52.946421 12573 net.cpp:156] Memory required for data: 1038026016
I0403 21:42:52.946439 12573 layer_factory.hpp:77] Creating layer inception_4c/3x3
I0403 21:42:52.946463 12573 net.cpp:91] Creating Layer inception_4c/3x3
I0403 21:42:52.946485 12573 net.cpp:425] inception_4c/3x3 <- inception_4c/3x3_reduce
I0403 21:42:52.946504 12573 net.cpp:399] inception_4c/3x3 -> inception_4c/3x3
I0403 21:42:52.950341 12573 net.cpp:141] Setting up inception_4c/3x3
I0403 21:42:52.950387 12573 net.cpp:148] Top shape: 24 256 14 14 (1204224)
I0403 21:42:52.950404 12573 net.cpp:156] Memory required for data: 1042842912
I0403 21:42:52.950439 12573 layer_factory.hpp:77] Creating layer inception_4c/relu_3x3
I0403 21:42:52.950462 12573 net.cpp:91] Creating Layer inception_4c/relu_3x3
I0403 21:42:52.950480 12573 net.cpp:425] inception_4c/relu_3x3 <- inception_4c/3x3
I0403 21:42:52.950501 12573 net.cpp:386] inception_4c/relu_3x3 -> inception_4c/3x3 (in-place)
I0403 21:42:52.950701 12573 net.cpp:141] Setting up inception_4c/relu_3x3
I0403 21:42:52.950728 12573 net.cpp:148] Top shape: 24 256 14 14 (1204224)
I0403 21:42:52.950744 12573 net.cpp:156] Memory required for data: 1047659808
I0403 21:42:52.950760 12573 layer_factory.hpp:77] Creating layer inception_4c/5x5_reduce
I0403 21:42:52.950786 12573 net.cpp:91] Creating Layer inception_4c/5x5_reduce
I0403 21:42:52.950806 12573 net.cpp:425] inception_4c/5x5_reduce <- inception_4b/output_inception_4b/output_0_split_2
I0403 21:42:52.950829 12573 net.cpp:399] inception_4c/5x5_reduce -> inception_4c/5x5_reduce
I0403 21:42:52.951987 12573 net.cpp:141] Setting up inception_4c/5x5_reduce
I0403 21:42:52.952019 12573 net.cpp:148] Top shape: 24 24 14 14 (112896)
I0403 21:42:52.952038 12573 net.cpp:156] Memory required for data: 1048111392
I0403 21:42:52.952057 12573 layer_factory.hpp:77] Creating layer inception_4c/relu_5x5_reduce
I0403 21:42:52.952076 12573 net.cpp:91] Creating Layer inception_4c/relu_5x5_reduce
I0403 21:42:52.952093 12573 net.cpp:425] inception_4c/relu_5x5_reduce <- inception_4c/5x5_reduce
I0403 21:42:52.952114 12573 net.cpp:386] inception_4c/relu_5x5_reduce -> inception_4c/5x5_reduce (in-place)
I0403 21:42:52.952325 12573 net.cpp:141] Setting up inception_4c/relu_5x5_reduce
I0403 21:42:52.952353 12573 net.cpp:148] Top shape: 24 24 14 14 (112896)
I0403 21:42:52.952369 12573 net.cpp:156] Memory required for data: 1048562976
I0403 21:42:52.952384 12573 layer_factory.hpp:77] Creating layer inception_4c/5x5
I0403 21:42:52.952409 12573 net.cpp:91] Creating Layer inception_4c/5x5
I0403 21:42:52.952427 12573 net.cpp:425] inception_4c/5x5 <- inception_4c/5x5_reduce
I0403 21:42:52.952450 12573 net.cpp:399] inception_4c/5x5 -> inception_4c/5x5
I0403 21:42:52.953768 12573 net.cpp:141] Setting up inception_4c/5x5
I0403 21:42:52.953799 12573 net.cpp:148] Top shape: 24 64 14 14 (301056)
I0403 21:42:52.953815 12573 net.cpp:156] Memory required for data: 1049767200
I0403 21:42:52.953835 12573 layer_factory.hpp:77] Creating layer inception_4c/relu_5x5
I0403 21:42:52.953856 12573 net.cpp:91] Creating Layer inception_4c/relu_5x5
I0403 21:42:52.953876 12573 net.cpp:425] inception_4c/relu_5x5 <- inception_4c/5x5
I0403 21:42:52.953896 12573 net.cpp:386] inception_4c/relu_5x5 -> inception_4c/5x5 (in-place)
I0403 21:42:52.954206 12573 net.cpp:141] Setting up inception_4c/relu_5x5
I0403 21:42:52.954236 12573 net.cpp:148] Top shape: 24 64 14 14 (301056)
I0403 21:42:52.954252 12573 net.cpp:156] Memory required for data: 1050971424
I0403 21:42:52.954268 12573 layer_factory.hpp:77] Creating layer inception_4c/pool
I0403 21:42:52.954290 12573 net.cpp:91] Creating Layer inception_4c/pool
I0403 21:42:52.954309 12573 net.cpp:425] inception_4c/pool <- inception_4b/output_inception_4b/output_0_split_3
I0403 21:42:52.954329 12573 net.cpp:399] inception_4c/pool -> inception_4c/pool
I0403 21:42:52.954401 12573 net.cpp:141] Setting up inception_4c/pool
I0403 21:42:52.954427 12573 net.cpp:148] Top shape: 24 512 14 14 (2408448)
I0403 21:42:52.954442 12573 net.cpp:156] Memory required for data: 1060605216
I0403 21:42:52.954459 12573 layer_factory.hpp:77] Creating layer inception_4c/pool_proj
I0403 21:42:52.954483 12573 net.cpp:91] Creating Layer inception_4c/pool_proj
I0403 21:42:52.954504 12573 net.cpp:425] inception_4c/pool_proj <- inception_4c/pool
I0403 21:42:52.954526 12573 net.cpp:399] inception_4c/pool_proj -> inception_4c/pool_proj
I0403 21:42:52.955837 12573 net.cpp:141] Setting up inception_4c/pool_proj
I0403 21:42:52.955865 12573 net.cpp:148] Top shape: 24 64 14 14 (301056)
I0403 21:42:52.955898 12573 net.cpp:156] Memory required for data: 1061809440
I0403 21:42:52.955919 12573 layer_factory.hpp:77] Creating layer inception_4c/relu_pool_proj
I0403 21:42:52.955938 12573 net.cpp:91] Creating Layer inception_4c/relu_pool_proj
I0403 21:42:52.955955 12573 net.cpp:425] inception_4c/relu_pool_proj <- inception_4c/pool_proj
I0403 21:42:52.955977 12573 net.cpp:386] inception_4c/relu_pool_proj -> inception_4c/pool_proj (in-place)
I0403 21:42:52.956171 12573 net.cpp:141] Setting up inception_4c/relu_pool_proj
I0403 21:42:52.956203 12573 net.cpp:148] Top shape: 24 64 14 14 (301056)
I0403 21:42:52.956219 12573 net.cpp:156] Memory required for data: 1063013664
I0403 21:42:52.956238 12573 layer_factory.hpp:77] Creating layer inception_4c/output
I0403 21:42:52.956259 12573 net.cpp:91] Creating Layer inception_4c/output
I0403 21:42:52.956275 12573 net.cpp:425] inception_4c/output <- inception_4c/1x1
I0403 21:42:52.956293 12573 net.cpp:425] inception_4c/output <- inception_4c/3x3
I0403 21:42:52.956310 12573 net.cpp:425] inception_4c/output <- inception_4c/5x5
I0403 21:42:52.956329 12573 net.cpp:425] inception_4c/output <- inception_4c/pool_proj
I0403 21:42:52.956347 12573 net.cpp:399] inception_4c/output -> inception_4c/output
I0403 21:42:52.956396 12573 net.cpp:141] Setting up inception_4c/output
I0403 21:42:52.956423 12573 net.cpp:148] Top shape: 24 512 14 14 (2408448)
I0403 21:42:52.956441 12573 net.cpp:156] Memory required for data: 1072647456
I0403 21:42:52.956457 12573 layer_factory.hpp:77] Creating layer inception_4c/output_inception_4c/output_0_split
I0403 21:42:52.956475 12573 net.cpp:91] Creating Layer inception_4c/output_inception_4c/output_0_split
I0403 21:42:52.956492 12573 net.cpp:425] inception_4c/output_inception_4c/output_0_split <- inception_4c/output
I0403 21:42:52.956513 12573 net.cpp:399] inception_4c/output_inception_4c/output_0_split -> inception_4c/output_inception_4c/output_0_split_0
I0403 21:42:52.956535 12573 net.cpp:399] inception_4c/output_inception_4c/output_0_split -> inception_4c/output_inception_4c/output_0_split_1
I0403 21:42:52.956557 12573 net.cpp:399] inception_4c/output_inception_4c/output_0_split -> inception_4c/output_inception_4c/output_0_split_2
I0403 21:42:52.956579 12573 net.cpp:399] inception_4c/output_inception_4c/output_0_split -> inception_4c/output_inception_4c/output_0_split_3
I0403 21:42:52.956670 12573 net.cpp:141] Setting up inception_4c/output_inception_4c/output_0_split
I0403 21:42:52.956698 12573 net.cpp:148] Top shape: 24 512 14 14 (2408448)
I0403 21:42:52.956717 12573 net.cpp:148] Top shape: 24 512 14 14 (2408448)
I0403 21:42:52.956733 12573 net.cpp:148] Top shape: 24 512 14 14 (2408448)
I0403 21:42:52.956751 12573 net.cpp:148] Top shape: 24 512 14 14 (2408448)
I0403 21:42:52.956766 12573 net.cpp:156] Memory required for data: 1111182624
I0403 21:42:52.956784 12573 layer_factory.hpp:77] Creating layer inception_4d/1x1
I0403 21:42:52.956806 12573 net.cpp:91] Creating Layer inception_4d/1x1
I0403 21:42:52.956825 12573 net.cpp:425] inception_4d/1x1 <- inception_4c/output_inception_4c/output_0_split_0
I0403 21:42:52.956845 12573 net.cpp:399] inception_4d/1x1 -> inception_4d/1x1
I0403 21:42:52.958331 12573 net.cpp:141] Setting up inception_4d/1x1
I0403 21:42:52.958364 12573 net.cpp:148] Top shape: 24 112 14 14 (526848)
I0403 21:42:52.958381 12573 net.cpp:156] Memory required for data: 1113290016
I0403 21:42:52.958401 12573 layer_factory.hpp:77] Creating layer inception_4d/relu_1x1
I0403 21:42:52.958421 12573 net.cpp:91] Creating Layer inception_4d/relu_1x1
I0403 21:42:52.958438 12573 net.cpp:425] inception_4d/relu_1x1 <- inception_4d/1x1
I0403 21:42:52.958456 12573 net.cpp:386] inception_4d/relu_1x1 -> inception_4d/1x1 (in-place)
I0403 21:42:52.958658 12573 net.cpp:141] Setting up inception_4d/relu_1x1
I0403 21:42:52.958688 12573 net.cpp:148] Top shape: 24 112 14 14 (526848)
I0403 21:42:52.958705 12573 net.cpp:156] Memory required for data: 1115397408
I0403 21:42:52.958722 12573 layer_factory.hpp:77] Creating layer inception_4d/3x3_reduce
I0403 21:42:52.958760 12573 net.cpp:91] Creating Layer inception_4d/3x3_reduce
I0403 21:42:52.958781 12573 net.cpp:425] inception_4d/3x3_reduce <- inception_4c/output_inception_4c/output_0_split_1
I0403 21:42:52.958804 12573 net.cpp:399] inception_4d/3x3_reduce -> inception_4d/3x3_reduce
I0403 21:42:52.960412 12573 net.cpp:141] Setting up inception_4d/3x3_reduce
I0403 21:42:52.960443 12573 net.cpp:148] Top shape: 24 144 14 14 (677376)
I0403 21:42:52.960459 12573 net.cpp:156] Memory required for data: 1118106912
I0403 21:42:52.960479 12573 layer_factory.hpp:77] Creating layer inception_4d/relu_3x3_reduce
I0403 21:42:52.960501 12573 net.cpp:91] Creating Layer inception_4d/relu_3x3_reduce
I0403 21:42:52.960520 12573 net.cpp:425] inception_4d/relu_3x3_reduce <- inception_4d/3x3_reduce
I0403 21:42:52.960538 12573 net.cpp:386] inception_4d/relu_3x3_reduce -> inception_4d/3x3_reduce (in-place)
I0403 21:42:52.960841 12573 net.cpp:141] Setting up inception_4d/relu_3x3_reduce
I0403 21:42:52.960870 12573 net.cpp:148] Top shape: 24 144 14 14 (677376)
I0403 21:42:52.960886 12573 net.cpp:156] Memory required for data: 1120816416
I0403 21:42:52.960902 12573 layer_factory.hpp:77] Creating layer inception_4d/3x3
I0403 21:42:52.960927 12573 net.cpp:91] Creating Layer inception_4d/3x3
I0403 21:42:52.960947 12573 net.cpp:425] inception_4d/3x3 <- inception_4d/3x3_reduce
I0403 21:42:52.960970 12573 net.cpp:399] inception_4d/3x3 -> inception_4d/3x3
I0403 21:42:52.965562 12573 net.cpp:141] Setting up inception_4d/3x3
I0403 21:42:52.965596 12573 net.cpp:148] Top shape: 24 288 14 14 (1354752)
I0403 21:42:52.965615 12573 net.cpp:156] Memory required for data: 1126235424
I0403 21:42:52.965634 12573 layer_factory.hpp:77] Creating layer inception_4d/relu_3x3
I0403 21:42:52.965654 12573 net.cpp:91] Creating Layer inception_4d/relu_3x3
I0403 21:42:52.965672 12573 net.cpp:425] inception_4d/relu_3x3 <- inception_4d/3x3
I0403 21:42:52.965693 12573 net.cpp:386] inception_4d/relu_3x3 -> inception_4d/3x3 (in-place)
I0403 21:42:52.965888 12573 net.cpp:141] Setting up inception_4d/relu_3x3
I0403 21:42:52.965915 12573 net.cpp:148] Top shape: 24 288 14 14 (1354752)
I0403 21:42:52.965931 12573 net.cpp:156] Memory required for data: 1131654432
I0403 21:42:52.965948 12573 layer_factory.hpp:77] Creating layer inception_4d/5x5_reduce
I0403 21:42:52.965972 12573 net.cpp:91] Creating Layer inception_4d/5x5_reduce
I0403 21:42:52.965991 12573 net.cpp:425] inception_4d/5x5_reduce <- inception_4c/output_inception_4c/output_0_split_2
I0403 21:42:52.966017 12573 net.cpp:399] inception_4d/5x5_reduce -> inception_4d/5x5_reduce
I0403 21:42:52.967257 12573 net.cpp:141] Setting up inception_4d/5x5_reduce
I0403 21:42:52.967289 12573 net.cpp:148] Top shape: 24 32 14 14 (150528)
I0403 21:42:52.967308 12573 net.cpp:156] Memory required for data: 1132256544
I0403 21:42:52.967327 12573 layer_factory.hpp:77] Creating layer inception_4d/relu_5x5_reduce
I0403 21:42:52.967347 12573 net.cpp:91] Creating Layer inception_4d/relu_5x5_reduce
I0403 21:42:52.967365 12573 net.cpp:425] inception_4d/relu_5x5_reduce <- inception_4d/5x5_reduce
I0403 21:42:52.967384 12573 net.cpp:386] inception_4d/relu_5x5_reduce -> inception_4d/5x5_reduce (in-place)
I0403 21:42:52.967587 12573 net.cpp:141] Setting up inception_4d/relu_5x5_reduce
I0403 21:42:52.967614 12573 net.cpp:148] Top shape: 24 32 14 14 (150528)
I0403 21:42:52.967631 12573 net.cpp:156] Memory required for data: 1132858656
I0403 21:42:52.967648 12573 layer_factory.hpp:77] Creating layer inception_4d/5x5
I0403 21:42:52.967672 12573 net.cpp:91] Creating Layer inception_4d/5x5
I0403 21:42:52.967691 12573 net.cpp:425] inception_4d/5x5 <- inception_4d/5x5_reduce
I0403 21:42:52.967715 12573 net.cpp:399] inception_4d/5x5 -> inception_4d/5x5
I0403 21:42:52.969264 12573 net.cpp:141] Setting up inception_4d/5x5
I0403 21:42:52.969295 12573 net.cpp:148] Top shape: 24 64 14 14 (301056)
I0403 21:42:52.969311 12573 net.cpp:156] Memory required for data: 1134062880
I0403 21:42:52.969333 12573 layer_factory.hpp:77] Creating layer inception_4d/relu_5x5
I0403 21:42:52.969372 12573 net.cpp:91] Creating Layer inception_4d/relu_5x5
I0403 21:42:52.969389 12573 net.cpp:425] inception_4d/relu_5x5 <- inception_4d/5x5
I0403 21:42:52.969408 12573 net.cpp:386] inception_4d/relu_5x5 -> inception_4d/5x5 (in-place)
I0403 21:42:52.969723 12573 net.cpp:141] Setting up inception_4d/relu_5x5
I0403 21:42:52.969751 12573 net.cpp:148] Top shape: 24 64 14 14 (301056)
I0403 21:42:52.969769 12573 net.cpp:156] Memory required for data: 1135267104
I0403 21:42:52.969785 12573 layer_factory.hpp:77] Creating layer inception_4d/pool
I0403 21:42:52.969805 12573 net.cpp:91] Creating Layer inception_4d/pool
I0403 21:42:52.969821 12573 net.cpp:425] inception_4d/pool <- inception_4c/output_inception_4c/output_0_split_3
I0403 21:42:52.969844 12573 net.cpp:399] inception_4d/pool -> inception_4d/pool
I0403 21:42:52.969915 12573 net.cpp:141] Setting up inception_4d/pool
I0403 21:42:52.969943 12573 net.cpp:148] Top shape: 24 512 14 14 (2408448)
I0403 21:42:52.969959 12573 net.cpp:156] Memory required for data: 1144900896
I0403 21:42:52.969975 12573 layer_factory.hpp:77] Creating layer inception_4d/pool_proj
I0403 21:42:52.970000 12573 net.cpp:91] Creating Layer inception_4d/pool_proj
I0403 21:42:52.970018 12573 net.cpp:425] inception_4d/pool_proj <- inception_4d/pool
I0403 21:42:52.970046 12573 net.cpp:399] inception_4d/pool_proj -> inception_4d/pool_proj
I0403 21:42:52.971956 12573 net.cpp:141] Setting up inception_4d/pool_proj
I0403 21:42:52.971989 12573 net.cpp:148] Top shape: 24 64 14 14 (301056)
I0403 21:42:52.972007 12573 net.cpp:156] Memory required for data: 1146105120
I0403 21:42:52.972028 12573 layer_factory.hpp:77] Creating layer inception_4d/relu_pool_proj
I0403 21:42:52.972048 12573 net.cpp:91] Creating Layer inception_4d/relu_pool_proj
I0403 21:42:52.972065 12573 net.cpp:425] inception_4d/relu_pool_proj <- inception_4d/pool_proj
I0403 21:42:52.972087 12573 net.cpp:386] inception_4d/relu_pool_proj -> inception_4d/pool_proj (in-place)
I0403 21:42:52.972298 12573 net.cpp:141] Setting up inception_4d/relu_pool_proj
I0403 21:42:52.972326 12573 net.cpp:148] Top shape: 24 64 14 14 (301056)
I0403 21:42:52.972342 12573 net.cpp:156] Memory required for data: 1147309344
I0403 21:42:52.972359 12573 layer_factory.hpp:77] Creating layer inception_4d/output
I0403 21:42:52.972378 12573 net.cpp:91] Creating Layer inception_4d/output
I0403 21:42:52.972396 12573 net.cpp:425] inception_4d/output <- inception_4d/1x1
I0403 21:42:52.972414 12573 net.cpp:425] inception_4d/output <- inception_4d/3x3
I0403 21:42:52.972432 12573 net.cpp:425] inception_4d/output <- inception_4d/5x5
I0403 21:42:52.972450 12573 net.cpp:425] inception_4d/output <- inception_4d/pool_proj
I0403 21:42:52.972471 12573 net.cpp:399] inception_4d/output -> inception_4d/output
I0403 21:42:52.972522 12573 net.cpp:141] Setting up inception_4d/output
I0403 21:42:52.972550 12573 net.cpp:148] Top shape: 24 528 14 14 (2483712)
I0403 21:42:52.972568 12573 net.cpp:156] Memory required for data: 1157244192
I0403 21:42:52.972584 12573 layer_factory.hpp:77] Creating layer inception_4d/output_inception_4d/output_0_split
I0403 21:42:52.972604 12573 net.cpp:91] Creating Layer inception_4d/output_inception_4d/output_0_split
I0403 21:42:52.972621 12573 net.cpp:425] inception_4d/output_inception_4d/output_0_split <- inception_4d/output
I0403 21:42:52.972640 12573 net.cpp:399] inception_4d/output_inception_4d/output_0_split -> inception_4d/output_inception_4d/output_0_split_0
I0403 21:42:52.972666 12573 net.cpp:399] inception_4d/output_inception_4d/output_0_split -> inception_4d/output_inception_4d/output_0_split_1
I0403 21:42:52.972690 12573 net.cpp:399] inception_4d/output_inception_4d/output_0_split -> inception_4d/output_inception_4d/output_0_split_2
I0403 21:42:52.972715 12573 net.cpp:399] inception_4d/output_inception_4d/output_0_split -> inception_4d/output_inception_4d/output_0_split_3
I0403 21:42:52.972738 12573 net.cpp:399] inception_4d/output_inception_4d/output_0_split -> inception_4d/output_inception_4d/output_0_split_4
I0403 21:42:52.972846 12573 net.cpp:141] Setting up inception_4d/output_inception_4d/output_0_split
I0403 21:42:52.972884 12573 net.cpp:148] Top shape: 24 528 14 14 (2483712)
I0403 21:42:52.972905 12573 net.cpp:148] Top shape: 24 528 14 14 (2483712)
I0403 21:42:52.972924 12573 net.cpp:148] Top shape: 24 528 14 14 (2483712)
I0403 21:42:52.972941 12573 net.cpp:148] Top shape: 24 528 14 14 (2483712)
I0403 21:42:52.972959 12573 net.cpp:148] Top shape: 24 528 14 14 (2483712)
I0403 21:42:52.972975 12573 net.cpp:156] Memory required for data: 1206918432
I0403 21:42:52.972990 12573 layer_factory.hpp:77] Creating layer loss2/ave_pool
I0403 21:42:52.973011 12573 net.cpp:91] Creating Layer loss2/ave_pool
I0403 21:42:52.973028 12573 net.cpp:425] loss2/ave_pool <- inception_4d/output_inception_4d/output_0_split_0
I0403 21:42:52.973048 12573 net.cpp:399] loss2/ave_pool -> loss2/ave_pool
I0403 21:42:52.973393 12573 net.cpp:141] Setting up loss2/ave_pool
I0403 21:42:52.973425 12573 net.cpp:148] Top shape: 24 528 4 4 (202752)
I0403 21:42:52.973443 12573 net.cpp:156] Memory required for data: 1207729440
I0403 21:42:52.973459 12573 layer_factory.hpp:77] Creating layer loss2/conv
I0403 21:42:52.973484 12573 net.cpp:91] Creating Layer loss2/conv
I0403 21:42:52.973503 12573 net.cpp:425] loss2/conv <- loss2/ave_pool
I0403 21:42:52.973523 12573 net.cpp:399] loss2/conv -> loss2/conv
I0403 21:42:52.975561 12573 net.cpp:141] Setting up loss2/conv
I0403 21:42:52.975594 12573 net.cpp:148] Top shape: 24 128 4 4 (49152)
I0403 21:42:52.975610 12573 net.cpp:156] Memory required for data: 1207926048
I0403 21:42:52.975631 12573 layer_factory.hpp:77] Creating layer loss2/relu_conv
I0403 21:42:52.975651 12573 net.cpp:91] Creating Layer loss2/relu_conv
I0403 21:42:52.975668 12573 net.cpp:425] loss2/relu_conv <- loss2/conv
I0403 21:42:52.975689 12573 net.cpp:386] loss2/relu_conv -> loss2/conv (in-place)
I0403 21:42:52.975993 12573 net.cpp:141] Setting up loss2/relu_conv
I0403 21:42:52.976022 12573 net.cpp:148] Top shape: 24 128 4 4 (49152)
I0403 21:42:52.976038 12573 net.cpp:156] Memory required for data: 1208122656
I0403 21:42:52.976054 12573 layer_factory.hpp:77] Creating layer loss2/fc
I0403 21:42:52.976075 12573 net.cpp:91] Creating Layer loss2/fc
I0403 21:42:52.976092 12573 net.cpp:425] loss2/fc <- loss2/conv
I0403 21:42:52.976115 12573 net.cpp:399] loss2/fc -> loss2/fc
I0403 21:42:52.995012 12573 net.cpp:141] Setting up loss2/fc
I0403 21:42:52.995049 12573 net.cpp:148] Top shape: 24 1024 (24576)
I0403 21:42:52.995066 12573 net.cpp:156] Memory required for data: 1208220960
I0403 21:42:52.995085 12573 layer_factory.hpp:77] Creating layer loss2/relu_fc
I0403 21:42:52.995105 12573 net.cpp:91] Creating Layer loss2/relu_fc
I0403 21:42:52.995122 12573 net.cpp:425] loss2/relu_fc <- loss2/fc
I0403 21:42:52.995139 12573 net.cpp:386] loss2/relu_fc -> loss2/fc (in-place)
I0403 21:42:52.995460 12573 net.cpp:141] Setting up loss2/relu_fc
I0403 21:42:52.995487 12573 net.cpp:148] Top shape: 24 1024 (24576)
I0403 21:42:52.995504 12573 net.cpp:156] Memory required for data: 1208319264
I0403 21:42:52.995520 12573 layer_factory.hpp:77] Creating layer loss2/drop_fc
I0403 21:42:52.995540 12573 net.cpp:91] Creating Layer loss2/drop_fc
I0403 21:42:52.995556 12573 net.cpp:425] loss2/drop_fc <- loss2/fc
I0403 21:42:52.995578 12573 net.cpp:386] loss2/drop_fc -> loss2/fc (in-place)
I0403 21:42:52.995630 12573 net.cpp:141] Setting up loss2/drop_fc
I0403 21:42:52.995653 12573 net.cpp:148] Top shape: 24 1024 (24576)
I0403 21:42:52.995669 12573 net.cpp:156] Memory required for data: 1208417568
I0403 21:42:52.995685 12573 layer_factory.hpp:77] Creating layer loss2/classifier_plantvillage
I0403 21:42:52.995707 12573 net.cpp:91] Creating Layer loss2/classifier_plantvillage
I0403 21:42:52.995724 12573 net.cpp:425] loss2/classifier_plantvillage <- loss2/fc
I0403 21:42:52.995748 12573 net.cpp:399] loss2/classifier_plantvillage -> loss2/classifier_plantvillage
I0403 21:42:52.996165 12573 net.cpp:141] Setting up loss2/classifier_plantvillage
I0403 21:42:52.996196 12573 net.cpp:148] Top shape: 24 38 (912)
I0403 21:42:52.996212 12573 net.cpp:156] Memory required for data: 1208421216
I0403 21:42:52.996249 12573 layer_factory.hpp:77] Creating layer loss2/classifier_plantvillage_loss2/classifier_plantvillage_0_split
I0403 21:42:52.996269 12573 net.cpp:91] Creating Layer loss2/classifier_plantvillage_loss2/classifier_plantvillage_0_split
I0403 21:42:52.996286 12573 net.cpp:425] loss2/classifier_plantvillage_loss2/classifier_plantvillage_0_split <- loss2/classifier_plantvillage
I0403 21:42:52.996309 12573 net.cpp:399] loss2/classifier_plantvillage_loss2/classifier_plantvillage_0_split -> loss2/classifier_plantvillage_loss2/classifier_plantvillage_0_split_0
I0403 21:42:52.996332 12573 net.cpp:399] loss2/classifier_plantvillage_loss2/classifier_plantvillage_0_split -> loss2/classifier_plantvillage_loss2/classifier_plantvillage_0_split_1
I0403 21:42:52.996356 12573 net.cpp:399] loss2/classifier_plantvillage_loss2/classifier_plantvillage_0_split -> loss2/classifier_plantvillage_loss2/classifier_plantvillage_0_split_2
I0403 21:42:52.996438 12573 net.cpp:141] Setting up loss2/classifier_plantvillage_loss2/classifier_plantvillage_0_split
I0403 21:42:52.996462 12573 net.cpp:148] Top shape: 24 38 (912)
I0403 21:42:52.996479 12573 net.cpp:148] Top shape: 24 38 (912)
I0403 21:42:52.996496 12573 net.cpp:148] Top shape: 24 38 (912)
I0403 21:42:52.996511 12573 net.cpp:156] Memory required for data: 1208432160
I0403 21:42:52.996527 12573 layer_factory.hpp:77] Creating layer inception_4e/1x1
I0403 21:42:52.996551 12573 net.cpp:91] Creating Layer inception_4e/1x1
I0403 21:42:52.996569 12573 net.cpp:425] inception_4e/1x1 <- inception_4d/output_inception_4d/output_0_split_1
I0403 21:42:52.996589 12573 net.cpp:399] inception_4e/1x1 -> inception_4e/1x1
I0403 21:42:52.998466 12573 net.cpp:141] Setting up inception_4e/1x1
I0403 21:42:52.998495 12573 net.cpp:148] Top shape: 24 256 14 14 (1204224)
I0403 21:42:52.998512 12573 net.cpp:156] Memory required for data: 1213249056
I0403 21:42:52.998531 12573 layer_factory.hpp:77] Creating layer inception_4e/relu_1x1
I0403 21:42:52.998553 12573 net.cpp:91] Creating Layer inception_4e/relu_1x1
I0403 21:42:52.998569 12573 net.cpp:425] inception_4e/relu_1x1 <- inception_4e/1x1
I0403 21:42:52.998587 12573 net.cpp:386] inception_4e/relu_1x1 -> inception_4e/1x1 (in-place)
I0403 21:42:52.998891 12573 net.cpp:141] Setting up inception_4e/relu_1x1
I0403 21:42:52.998919 12573 net.cpp:148] Top shape: 24 256 14 14 (1204224)
I0403 21:42:52.998935 12573 net.cpp:156] Memory required for data: 1218065952
I0403 21:42:52.998950 12573 layer_factory.hpp:77] Creating layer inception_4e/3x3_reduce
I0403 21:42:52.998975 12573 net.cpp:91] Creating Layer inception_4e/3x3_reduce
I0403 21:42:52.998993 12573 net.cpp:425] inception_4e/3x3_reduce <- inception_4d/output_inception_4d/output_0_split_2
I0403 21:42:52.999017 12573 net.cpp:399] inception_4e/3x3_reduce -> inception_4e/3x3_reduce
I0403 21:42:53.001252 12573 net.cpp:141] Setting up inception_4e/3x3_reduce
I0403 21:42:53.001283 12573 net.cpp:148] Top shape: 24 160 14 14 (752640)
I0403 21:42:53.001301 12573 net.cpp:156] Memory required for data: 1221076512
I0403 21:42:53.001319 12573 layer_factory.hpp:77] Creating layer inception_4e/relu_3x3_reduce
I0403 21:42:53.001338 12573 net.cpp:91] Creating Layer inception_4e/relu_3x3_reduce
I0403 21:42:53.001355 12573 net.cpp:425] inception_4e/relu_3x3_reduce <- inception_4e/3x3_reduce
I0403 21:42:53.001376 12573 net.cpp:386] inception_4e/relu_3x3_reduce -> inception_4e/3x3_reduce (in-place)
I0403 21:42:53.001569 12573 net.cpp:141] Setting up inception_4e/relu_3x3_reduce
I0403 21:42:53.001596 12573 net.cpp:148] Top shape: 24 160 14 14 (752640)
I0403 21:42:53.001612 12573 net.cpp:156] Memory required for data: 1224087072
I0403 21:42:53.001627 12573 layer_factory.hpp:77] Creating layer inception_4e/3x3
I0403 21:42:53.001652 12573 net.cpp:91] Creating Layer inception_4e/3x3
I0403 21:42:53.001669 12573 net.cpp:425] inception_4e/3x3 <- inception_4e/3x3_reduce
I0403 21:42:53.001691 12573 net.cpp:399] inception_4e/3x3 -> inception_4e/3x3
I0403 21:42:53.006932 12573 net.cpp:141] Setting up inception_4e/3x3
I0403 21:42:53.006974 12573 net.cpp:148] Top shape: 24 320 14 14 (1505280)
I0403 21:42:53.006994 12573 net.cpp:156] Memory required for data: 1230108192
I0403 21:42:53.007012 12573 layer_factory.hpp:77] Creating layer inception_4e/relu_3x3
I0403 21:42:53.007035 12573 net.cpp:91] Creating Layer inception_4e/relu_3x3
I0403 21:42:53.007052 12573 net.cpp:425] inception_4e/relu_3x3 <- inception_4e/3x3
I0403 21:42:53.007071 12573 net.cpp:386] inception_4e/relu_3x3 -> inception_4e/3x3 (in-place)
I0403 21:42:53.007383 12573 net.cpp:141] Setting up inception_4e/relu_3x3
I0403 21:42:53.007413 12573 net.cpp:148] Top shape: 24 320 14 14 (1505280)
I0403 21:42:53.007431 12573 net.cpp:156] Memory required for data: 1236129312
I0403 21:42:53.007446 12573 layer_factory.hpp:77] Creating layer inception_4e/5x5_reduce
I0403 21:42:53.007470 12573 net.cpp:91] Creating Layer inception_4e/5x5_reduce
I0403 21:42:53.007489 12573 net.cpp:425] inception_4e/5x5_reduce <- inception_4d/output_inception_4d/output_0_split_3
I0403 21:42:53.007510 12573 net.cpp:399] inception_4e/5x5_reduce -> inception_4e/5x5_reduce
I0403 21:42:53.008615 12573 net.cpp:141] Setting up inception_4e/5x5_reduce
I0403 21:42:53.008643 12573 net.cpp:148] Top shape: 24 32 14 14 (150528)
I0403 21:42:53.008661 12573 net.cpp:156] Memory required for data: 1236731424
I0403 21:42:53.008679 12573 layer_factory.hpp:77] Creating layer inception_4e/relu_5x5_reduce
I0403 21:42:53.008702 12573 net.cpp:91] Creating Layer inception_4e/relu_5x5_reduce
I0403 21:42:53.008719 12573 net.cpp:425] inception_4e/relu_5x5_reduce <- inception_4e/5x5_reduce
I0403 21:42:53.008738 12573 net.cpp:386] inception_4e/relu_5x5_reduce -> inception_4e/5x5_reduce (in-place)
I0403 21:42:53.009047 12573 net.cpp:141] Setting up inception_4e/relu_5x5_reduce
I0403 21:42:53.009075 12573 net.cpp:148] Top shape: 24 32 14 14 (150528)
I0403 21:42:53.009091 12573 net.cpp:156] Memory required for data: 1237333536
I0403 21:42:53.009107 12573 layer_factory.hpp:77] Creating layer inception_4e/5x5
I0403 21:42:53.009150 12573 net.cpp:91] Creating Layer inception_4e/5x5
I0403 21:42:53.009169 12573 net.cpp:425] inception_4e/5x5 <- inception_4e/5x5_reduce
I0403 21:42:53.009196 12573 net.cpp:399] inception_4e/5x5 -> inception_4e/5x5
I0403 21:42:53.011106 12573 net.cpp:141] Setting up inception_4e/5x5
I0403 21:42:53.011137 12573 net.cpp:148] Top shape: 24 128 14 14 (602112)
I0403 21:42:53.011155 12573 net.cpp:156] Memory required for data: 1239741984
I0403 21:42:53.011175 12573 layer_factory.hpp:77] Creating layer inception_4e/relu_5x5
I0403 21:42:53.011201 12573 net.cpp:91] Creating Layer inception_4e/relu_5x5
I0403 21:42:53.011219 12573 net.cpp:425] inception_4e/relu_5x5 <- inception_4e/5x5
I0403 21:42:53.011240 12573 net.cpp:386] inception_4e/relu_5x5 -> inception_4e/5x5 (in-place)
I0403 21:42:53.011445 12573 net.cpp:141] Setting up inception_4e/relu_5x5
I0403 21:42:53.011471 12573 net.cpp:148] Top shape: 24 128 14 14 (602112)
I0403 21:42:53.011487 12573 net.cpp:156] Memory required for data: 1242150432
I0403 21:42:53.011502 12573 layer_factory.hpp:77] Creating layer inception_4e/pool
I0403 21:42:53.011520 12573 net.cpp:91] Creating Layer inception_4e/pool
I0403 21:42:53.011536 12573 net.cpp:425] inception_4e/pool <- inception_4d/output_inception_4d/output_0_split_4
I0403 21:42:53.011559 12573 net.cpp:399] inception_4e/pool -> inception_4e/pool
I0403 21:42:53.011631 12573 net.cpp:141] Setting up inception_4e/pool
I0403 21:42:53.011656 12573 net.cpp:148] Top shape: 24 528 14 14 (2483712)
I0403 21:42:53.011672 12573 net.cpp:156] Memory required for data: 1252085280
I0403 21:42:53.011689 12573 layer_factory.hpp:77] Creating layer inception_4e/pool_proj
I0403 21:42:53.011714 12573 net.cpp:91] Creating Layer inception_4e/pool_proj
I0403 21:42:53.011734 12573 net.cpp:425] inception_4e/pool_proj <- inception_4e/pool
I0403 21:42:53.011754 12573 net.cpp:399] inception_4e/pool_proj -> inception_4e/pool_proj
I0403 21:42:53.013314 12573 net.cpp:141] Setting up inception_4e/pool_proj
I0403 21:42:53.013345 12573 net.cpp:148] Top shape: 24 128 14 14 (602112)
I0403 21:42:53.013376 12573 net.cpp:156] Memory required for data: 1254493728
I0403 21:42:53.013397 12573 layer_factory.hpp:77] Creating layer inception_4e/relu_pool_proj
I0403 21:42:53.013417 12573 net.cpp:91] Creating Layer inception_4e/relu_pool_proj
I0403 21:42:53.013435 12573 net.cpp:425] inception_4e/relu_pool_proj <- inception_4e/pool_proj
I0403 21:42:53.013455 12573 net.cpp:386] inception_4e/relu_pool_proj -> inception_4e/pool_proj (in-place)
I0403 21:42:53.013756 12573 net.cpp:141] Setting up inception_4e/relu_pool_proj
I0403 21:42:53.013787 12573 net.cpp:148] Top shape: 24 128 14 14 (602112)
I0403 21:42:53.013803 12573 net.cpp:156] Memory required for data: 1256902176
I0403 21:42:53.013819 12573 layer_factory.hpp:77] Creating layer inception_4e/output
I0403 21:42:53.013838 12573 net.cpp:91] Creating Layer inception_4e/output
I0403 21:42:53.013854 12573 net.cpp:425] inception_4e/output <- inception_4e/1x1
I0403 21:42:53.013872 12573 net.cpp:425] inception_4e/output <- inception_4e/3x3
I0403 21:42:53.013890 12573 net.cpp:425] inception_4e/output <- inception_4e/5x5
I0403 21:42:53.013906 12573 net.cpp:425] inception_4e/output <- inception_4e/pool_proj
I0403 21:42:53.013928 12573 net.cpp:399] inception_4e/output -> inception_4e/output
I0403 21:42:53.013978 12573 net.cpp:141] Setting up inception_4e/output
I0403 21:42:53.014003 12573 net.cpp:148] Top shape: 24 832 14 14 (3913728)
I0403 21:42:53.014019 12573 net.cpp:156] Memory required for data: 1272557088
I0403 21:42:53.014035 12573 layer_factory.hpp:77] Creating layer pool4/3x3_s2
I0403 21:42:53.014055 12573 net.cpp:91] Creating Layer pool4/3x3_s2
I0403 21:42:53.014073 12573 net.cpp:425] pool4/3x3_s2 <- inception_4e/output
I0403 21:42:53.014094 12573 net.cpp:399] pool4/3x3_s2 -> pool4/3x3_s2
I0403 21:42:53.014166 12573 net.cpp:141] Setting up pool4/3x3_s2
I0403 21:42:53.014196 12573 net.cpp:148] Top shape: 24 832 7 7 (978432)
I0403 21:42:53.014212 12573 net.cpp:156] Memory required for data: 1276470816
I0403 21:42:53.014227 12573 layer_factory.hpp:77] Creating layer pool4/3x3_s2_pool4/3x3_s2_0_split
I0403 21:42:53.014245 12573 net.cpp:91] Creating Layer pool4/3x3_s2_pool4/3x3_s2_0_split
I0403 21:42:53.014261 12573 net.cpp:425] pool4/3x3_s2_pool4/3x3_s2_0_split <- pool4/3x3_s2
I0403 21:42:53.014281 12573 net.cpp:399] pool4/3x3_s2_pool4/3x3_s2_0_split -> pool4/3x3_s2_pool4/3x3_s2_0_split_0
I0403 21:42:53.014304 12573 net.cpp:399] pool4/3x3_s2_pool4/3x3_s2_0_split -> pool4/3x3_s2_pool4/3x3_s2_0_split_1
I0403 21:42:53.014325 12573 net.cpp:399] pool4/3x3_s2_pool4/3x3_s2_0_split -> pool4/3x3_s2_pool4/3x3_s2_0_split_2
I0403 21:42:53.014346 12573 net.cpp:399] pool4/3x3_s2_pool4/3x3_s2_0_split -> pool4/3x3_s2_pool4/3x3_s2_0_split_3
I0403 21:42:53.014439 12573 net.cpp:141] Setting up pool4/3x3_s2_pool4/3x3_s2_0_split
I0403 21:42:53.014467 12573 net.cpp:148] Top shape: 24 832 7 7 (978432)
I0403 21:42:53.014484 12573 net.cpp:148] Top shape: 24 832 7 7 (978432)
I0403 21:42:53.014500 12573 net.cpp:148] Top shape: 24 832 7 7 (978432)
I0403 21:42:53.014518 12573 net.cpp:148] Top shape: 24 832 7 7 (978432)
I0403 21:42:53.014533 12573 net.cpp:156] Memory required for data: 1292125728
I0403 21:42:53.014547 12573 layer_factory.hpp:77] Creating layer inception_5a/1x1
I0403 21:42:53.014571 12573 net.cpp:91] Creating Layer inception_5a/1x1
I0403 21:42:53.014590 12573 net.cpp:425] inception_5a/1x1 <- pool4/3x3_s2_pool4/3x3_s2_0_split_0
I0403 21:42:53.014613 12573 net.cpp:399] inception_5a/1x1 -> inception_5a/1x1
I0403 21:42:53.017689 12573 net.cpp:141] Setting up inception_5a/1x1
I0403 21:42:53.017722 12573 net.cpp:148] Top shape: 24 256 7 7 (301056)
I0403 21:42:53.017740 12573 net.cpp:156] Memory required for data: 1293329952
I0403 21:42:53.017760 12573 layer_factory.hpp:77] Creating layer inception_5a/relu_1x1
I0403 21:42:53.017779 12573 net.cpp:91] Creating Layer inception_5a/relu_1x1
I0403 21:42:53.017796 12573 net.cpp:425] inception_5a/relu_1x1 <- inception_5a/1x1
I0403 21:42:53.017818 12573 net.cpp:386] inception_5a/relu_1x1 -> inception_5a/1x1 (in-place)
I0403 21:42:53.018151 12573 net.cpp:141] Setting up inception_5a/relu_1x1
I0403 21:42:53.018185 12573 net.cpp:148] Top shape: 24 256 7 7 (301056)
I0403 21:42:53.018204 12573 net.cpp:156] Memory required for data: 1294534176
I0403 21:42:53.018220 12573 layer_factory.hpp:77] Creating layer inception_5a/3x3_reduce
I0403 21:42:53.018244 12573 net.cpp:91] Creating Layer inception_5a/3x3_reduce
I0403 21:42:53.018265 12573 net.cpp:425] inception_5a/3x3_reduce <- pool4/3x3_s2_pool4/3x3_s2_0_split_1
I0403 21:42:53.018287 12573 net.cpp:399] inception_5a/3x3_reduce -> inception_5a/3x3_reduce
I0403 21:42:53.020934 12573 net.cpp:141] Setting up inception_5a/3x3_reduce
I0403 21:42:53.020967 12573 net.cpp:148] Top shape: 24 160 7 7 (188160)
I0403 21:42:53.020983 12573 net.cpp:156] Memory required for data: 1295286816
I0403 21:42:53.021003 12573 layer_factory.hpp:77] Creating layer inception_5a/relu_3x3_reduce
I0403 21:42:53.021025 12573 net.cpp:91] Creating Layer inception_5a/relu_3x3_reduce
I0403 21:42:53.021044 12573 net.cpp:425] inception_5a/relu_3x3_reduce <- inception_5a/3x3_reduce
I0403 21:42:53.021064 12573 net.cpp:386] inception_5a/relu_3x3_reduce -> inception_5a/3x3_reduce (in-place)
I0403 21:42:53.021271 12573 net.cpp:141] Setting up inception_5a/relu_3x3_reduce
I0403 21:42:53.021299 12573 net.cpp:148] Top shape: 24 160 7 7 (188160)
I0403 21:42:53.021316 12573 net.cpp:156] Memory required for data: 1296039456
I0403 21:42:53.021332 12573 layer_factory.hpp:77] Creating layer inception_5a/3x3
I0403 21:42:53.021358 12573 net.cpp:91] Creating Layer inception_5a/3x3
I0403 21:42:53.021378 12573 net.cpp:425] inception_5a/3x3 <- inception_5a/3x3_reduce
I0403 21:42:53.021401 12573 net.cpp:399] inception_5a/3x3 -> inception_5a/3x3
I0403 21:42:53.026849 12573 net.cpp:141] Setting up inception_5a/3x3
I0403 21:42:53.026883 12573 net.cpp:148] Top shape: 24 320 7 7 (376320)
I0403 21:42:53.026903 12573 net.cpp:156] Memory required for data: 1297544736
I0403 21:42:53.026923 12573 layer_factory.hpp:77] Creating layer inception_5a/relu_3x3
I0403 21:42:53.026943 12573 net.cpp:91] Creating Layer inception_5a/relu_3x3
I0403 21:42:53.026962 12573 net.cpp:425] inception_5a/relu_3x3 <- inception_5a/3x3
I0403 21:42:53.026983 12573 net.cpp:386] inception_5a/relu_3x3 -> inception_5a/3x3 (in-place)
I0403 21:42:53.027299 12573 net.cpp:141] Setting up inception_5a/relu_3x3
I0403 21:42:53.027331 12573 net.cpp:148] Top shape: 24 320 7 7 (376320)
I0403 21:42:53.027348 12573 net.cpp:156] Memory required for data: 1299050016
I0403 21:42:53.027365 12573 layer_factory.hpp:77] Creating layer inception_5a/5x5_reduce
I0403 21:42:53.027391 12573 net.cpp:91] Creating Layer inception_5a/5x5_reduce
I0403 21:42:53.027412 12573 net.cpp:425] inception_5a/5x5_reduce <- pool4/3x3_s2_pool4/3x3_s2_0_split_2
I0403 21:42:53.027436 12573 net.cpp:399] inception_5a/5x5_reduce -> inception_5a/5x5_reduce
I0403 21:42:53.028687 12573 net.cpp:141] Setting up inception_5a/5x5_reduce
I0403 21:42:53.028717 12573 net.cpp:148] Top shape: 24 32 7 7 (37632)
I0403 21:42:53.028734 12573 net.cpp:156] Memory required for data: 1299200544
I0403 21:42:53.028755 12573 layer_factory.hpp:77] Creating layer inception_5a/relu_5x5_reduce
I0403 21:42:53.028774 12573 net.cpp:91] Creating Layer inception_5a/relu_5x5_reduce
I0403 21:42:53.028792 12573 net.cpp:425] inception_5a/relu_5x5_reduce <- inception_5a/5x5_reduce
I0403 21:42:53.028813 12573 net.cpp:386] inception_5a/relu_5x5_reduce -> inception_5a/5x5_reduce (in-place)
I0403 21:42:53.029132 12573 net.cpp:141] Setting up inception_5a/relu_5x5_reduce
I0403 21:42:53.029161 12573 net.cpp:148] Top shape: 24 32 7 7 (37632)
I0403 21:42:53.029183 12573 net.cpp:156] Memory required for data: 1299351072
I0403 21:42:53.029201 12573 layer_factory.hpp:77] Creating layer inception_5a/5x5
I0403 21:42:53.029227 12573 net.cpp:91] Creating Layer inception_5a/5x5
I0403 21:42:53.029247 12573 net.cpp:425] inception_5a/5x5 <- inception_5a/5x5_reduce
I0403 21:42:53.029269 12573 net.cpp:399] inception_5a/5x5 -> inception_5a/5x5
I0403 21:42:53.031107 12573 net.cpp:141] Setting up inception_5a/5x5
I0403 21:42:53.031153 12573 net.cpp:148] Top shape: 24 128 7 7 (150528)
I0403 21:42:53.031172 12573 net.cpp:156] Memory required for data: 1299953184
I0403 21:42:53.031198 12573 layer_factory.hpp:77] Creating layer inception_5a/relu_5x5
I0403 21:42:53.031219 12573 net.cpp:91] Creating Layer inception_5a/relu_5x5
I0403 21:42:53.031237 12573 net.cpp:425] inception_5a/relu_5x5 <- inception_5a/5x5
I0403 21:42:53.031260 12573 net.cpp:386] inception_5a/relu_5x5 -> inception_5a/5x5 (in-place)
I0403 21:42:53.031462 12573 net.cpp:141] Setting up inception_5a/relu_5x5
I0403 21:42:53.031489 12573 net.cpp:148] Top shape: 24 128 7 7 (150528)
I0403 21:42:53.031505 12573 net.cpp:156] Memory required for data: 1300555296
I0403 21:42:53.031522 12573 layer_factory.hpp:77] Creating layer inception_5a/pool
I0403 21:42:53.031540 12573 net.cpp:91] Creating Layer inception_5a/pool
I0403 21:42:53.031558 12573 net.cpp:425] inception_5a/pool <- pool4/3x3_s2_pool4/3x3_s2_0_split_3
I0403 21:42:53.031579 12573 net.cpp:399] inception_5a/pool -> inception_5a/pool
I0403 21:42:53.031658 12573 net.cpp:141] Setting up inception_5a/pool
I0403 21:42:53.031684 12573 net.cpp:148] Top shape: 24 832 7 7 (978432)
I0403 21:42:53.031700 12573 net.cpp:156] Memory required for data: 1304469024
I0403 21:42:53.031715 12573 layer_factory.hpp:77] Creating layer inception_5a/pool_proj
I0403 21:42:53.031739 12573 net.cpp:91] Creating Layer inception_5a/pool_proj
I0403 21:42:53.031759 12573 net.cpp:425] inception_5a/pool_proj <- inception_5a/pool
I0403 21:42:53.031781 12573 net.cpp:399] inception_5a/pool_proj -> inception_5a/pool_proj
I0403 21:42:53.034273 12573 net.cpp:141] Setting up inception_5a/pool_proj
I0403 21:42:53.034307 12573 net.cpp:148] Top shape: 24 128 7 7 (150528)
I0403 21:42:53.034324 12573 net.cpp:156] Memory required for data: 1305071136
I0403 21:42:53.034343 12573 layer_factory.hpp:77] Creating layer inception_5a/relu_pool_proj
I0403 21:42:53.034363 12573 net.cpp:91] Creating Layer inception_5a/relu_pool_proj
I0403 21:42:53.034380 12573 net.cpp:425] inception_5a/relu_pool_proj <- inception_5a/pool_proj
I0403 21:42:53.034399 12573 net.cpp:386] inception_5a/relu_pool_proj -> inception_5a/pool_proj (in-place)
I0403 21:42:53.034709 12573 net.cpp:141] Setting up inception_5a/relu_pool_proj
I0403 21:42:53.034739 12573 net.cpp:148] Top shape: 24 128 7 7 (150528)
I0403 21:42:53.034756 12573 net.cpp:156] Memory required for data: 1305673248
I0403 21:42:53.034772 12573 layer_factory.hpp:77] Creating layer inception_5a/output
I0403 21:42:53.034790 12573 net.cpp:91] Creating Layer inception_5a/output
I0403 21:42:53.034807 12573 net.cpp:425] inception_5a/output <- inception_5a/1x1
I0403 21:42:53.034826 12573 net.cpp:425] inception_5a/output <- inception_5a/3x3
I0403 21:42:53.034842 12573 net.cpp:425] inception_5a/output <- inception_5a/5x5
I0403 21:42:53.034859 12573 net.cpp:425] inception_5a/output <- inception_5a/pool_proj
I0403 21:42:53.034878 12573 net.cpp:399] inception_5a/output -> inception_5a/output
I0403 21:42:53.034932 12573 net.cpp:141] Setting up inception_5a/output
I0403 21:42:53.034957 12573 net.cpp:148] Top shape: 24 832 7 7 (978432)
I0403 21:42:53.034972 12573 net.cpp:156] Memory required for data: 1309586976
I0403 21:42:53.034988 12573 layer_factory.hpp:77] Creating layer inception_5a/output_inception_5a/output_0_split
I0403 21:42:53.035009 12573 net.cpp:91] Creating Layer inception_5a/output_inception_5a/output_0_split
I0403 21:42:53.035027 12573 net.cpp:425] inception_5a/output_inception_5a/output_0_split <- inception_5a/output
I0403 21:42:53.035045 12573 net.cpp:399] inception_5a/output_inception_5a/output_0_split -> inception_5a/output_inception_5a/output_0_split_0
I0403 21:42:53.035068 12573 net.cpp:399] inception_5a/output_inception_5a/output_0_split -> inception_5a/output_inception_5a/output_0_split_1
I0403 21:42:53.035091 12573 net.cpp:399] inception_5a/output_inception_5a/output_0_split -> inception_5a/output_inception_5a/output_0_split_2
I0403 21:42:53.035112 12573 net.cpp:399] inception_5a/output_inception_5a/output_0_split -> inception_5a/output_inception_5a/output_0_split_3
I0403 21:42:53.035234 12573 net.cpp:141] Setting up inception_5a/output_inception_5a/output_0_split
I0403 21:42:53.035260 12573 net.cpp:148] Top shape: 24 832 7 7 (978432)
I0403 21:42:53.035279 12573 net.cpp:148] Top shape: 24 832 7 7 (978432)
I0403 21:42:53.035295 12573 net.cpp:148] Top shape: 24 832 7 7 (978432)
I0403 21:42:53.035311 12573 net.cpp:148] Top shape: 24 832 7 7 (978432)
I0403 21:42:53.035326 12573 net.cpp:156] Memory required for data: 1325241888
I0403 21:42:53.035341 12573 layer_factory.hpp:77] Creating layer inception_5b/1x1
I0403 21:42:53.035365 12573 net.cpp:91] Creating Layer inception_5b/1x1
I0403 21:42:53.035383 12573 net.cpp:425] inception_5b/1x1 <- inception_5a/output_inception_5a/output_0_split_0
I0403 21:42:53.035406 12573 net.cpp:399] inception_5b/1x1 -> inception_5b/1x1
I0403 21:42:53.039325 12573 net.cpp:141] Setting up inception_5b/1x1
I0403 21:42:53.039357 12573 net.cpp:148] Top shape: 24 384 7 7 (451584)
I0403 21:42:53.039373 12573 net.cpp:156] Memory required for data: 1327048224
I0403 21:42:53.039393 12573 layer_factory.hpp:77] Creating layer inception_5b/relu_1x1
I0403 21:42:53.039415 12573 net.cpp:91] Creating Layer inception_5b/relu_1x1
I0403 21:42:53.039434 12573 net.cpp:425] inception_5b/relu_1x1 <- inception_5b/1x1
I0403 21:42:53.039453 12573 net.cpp:386] inception_5b/relu_1x1 -> inception_5b/1x1 (in-place)
I0403 21:42:53.039768 12573 net.cpp:141] Setting up inception_5b/relu_1x1
I0403 21:42:53.039795 12573 net.cpp:148] Top shape: 24 384 7 7 (451584)
I0403 21:42:53.039813 12573 net.cpp:156] Memory required for data: 1328854560
I0403 21:42:53.039829 12573 layer_factory.hpp:77] Creating layer inception_5b/3x3_reduce
I0403 21:42:53.039855 12573 net.cpp:91] Creating Layer inception_5b/3x3_reduce
I0403 21:42:53.039875 12573 net.cpp:425] inception_5b/3x3_reduce <- inception_5a/output_inception_5a/output_0_split_1
I0403 21:42:53.039896 12573 net.cpp:399] inception_5b/3x3_reduce -> inception_5b/3x3_reduce
I0403 21:42:53.042686 12573 net.cpp:141] Setting up inception_5b/3x3_reduce
I0403 21:42:53.042721 12573 net.cpp:148] Top shape: 24 192 7 7 (225792)
I0403 21:42:53.042737 12573 net.cpp:156] Memory required for data: 1329757728
I0403 21:42:53.042758 12573 layer_factory.hpp:77] Creating layer inception_5b/relu_3x3_reduce
I0403 21:42:53.042778 12573 net.cpp:91] Creating Layer inception_5b/relu_3x3_reduce
I0403 21:42:53.042796 12573 net.cpp:425] inception_5b/relu_3x3_reduce <- inception_5b/3x3_reduce
I0403 21:42:53.042814 12573 net.cpp:386] inception_5b/relu_3x3_reduce -> inception_5b/3x3_reduce (in-place)
I0403 21:42:53.043015 12573 net.cpp:141] Setting up inception_5b/relu_3x3_reduce
I0403 21:42:53.043040 12573 net.cpp:148] Top shape: 24 192 7 7 (225792)
I0403 21:42:53.043056 12573 net.cpp:156] Memory required for data: 1330660896
I0403 21:42:53.043073 12573 layer_factory.hpp:77] Creating layer inception_5b/3x3
I0403 21:42:53.043097 12573 net.cpp:91] Creating Layer inception_5b/3x3
I0403 21:42:53.043115 12573 net.cpp:425] inception_5b/3x3 <- inception_5b/3x3_reduce
I0403 21:42:53.043138 12573 net.cpp:399] inception_5b/3x3 -> inception_5b/3x3
I0403 21:42:53.050254 12573 net.cpp:141] Setting up inception_5b/3x3
I0403 21:42:53.050287 12573 net.cpp:148] Top shape: 24 384 7 7 (451584)
I0403 21:42:53.050304 12573 net.cpp:156] Memory required for data: 1332467232
I0403 21:42:53.050325 12573 layer_factory.hpp:77] Creating layer inception_5b/relu_3x3
I0403 21:42:53.050343 12573 net.cpp:91] Creating Layer inception_5b/relu_3x3
I0403 21:42:53.050360 12573 net.cpp:425] inception_5b/relu_3x3 <- inception_5b/3x3
I0403 21:42:53.050377 12573 net.cpp:386] inception_5b/relu_3x3 -> inception_5b/3x3 (in-place)
I0403 21:42:53.050688 12573 net.cpp:141] Setting up inception_5b/relu_3x3
I0403 21:42:53.050719 12573 net.cpp:148] Top shape: 24 384 7 7 (451584)
I0403 21:42:53.050736 12573 net.cpp:156] Memory required for data: 1334273568
I0403 21:42:53.050752 12573 layer_factory.hpp:77] Creating layer inception_5b/5x5_reduce
I0403 21:42:53.050796 12573 net.cpp:91] Creating Layer inception_5b/5x5_reduce
I0403 21:42:53.050817 12573 net.cpp:425] inception_5b/5x5_reduce <- inception_5a/output_inception_5a/output_0_split_2
I0403 21:42:53.050837 12573 net.cpp:399] inception_5b/5x5_reduce -> inception_5b/5x5_reduce
I0403 21:42:53.052148 12573 net.cpp:141] Setting up inception_5b/5x5_reduce
I0403 21:42:53.052191 12573 net.cpp:148] Top shape: 24 48 7 7 (56448)
I0403 21:42:53.052209 12573 net.cpp:156] Memory required for data: 1334499360
I0403 21:42:53.052229 12573 layer_factory.hpp:77] Creating layer inception_5b/relu_5x5_reduce
I0403 21:42:53.052248 12573 net.cpp:91] Creating Layer inception_5b/relu_5x5_reduce
I0403 21:42:53.052266 12573 net.cpp:425] inception_5b/relu_5x5_reduce <- inception_5b/5x5_reduce
I0403 21:42:53.052286 12573 net.cpp:386] inception_5b/relu_5x5_reduce -> inception_5b/5x5_reduce (in-place)
I0403 21:42:53.052675 12573 net.cpp:141] Setting up inception_5b/relu_5x5_reduce
I0403 21:42:53.052703 12573 net.cpp:148] Top shape: 24 48 7 7 (56448)
I0403 21:42:53.052719 12573 net.cpp:156] Memory required for data: 1334725152
I0403 21:42:53.052736 12573 layer_factory.hpp:77] Creating layer inception_5b/5x5
I0403 21:42:53.052757 12573 net.cpp:91] Creating Layer inception_5b/5x5
I0403 21:42:53.052775 12573 net.cpp:425] inception_5b/5x5 <- inception_5b/5x5_reduce
I0403 21:42:53.052795 12573 net.cpp:399] inception_5b/5x5 -> inception_5b/5x5
I0403 21:42:53.054918 12573 net.cpp:141] Setting up inception_5b/5x5
I0403 21:42:53.054946 12573 net.cpp:148] Top shape: 24 128 7 7 (150528)
I0403 21:42:53.054962 12573 net.cpp:156] Memory required for data: 1335327264
I0403 21:42:53.054982 12573 layer_factory.hpp:77] Creating layer inception_5b/relu_5x5
I0403 21:42:53.055003 12573 net.cpp:91] Creating Layer inception_5b/relu_5x5
I0403 21:42:53.055021 12573 net.cpp:425] inception_5b/relu_5x5 <- inception_5b/5x5
I0403 21:42:53.055042 12573 net.cpp:386] inception_5b/relu_5x5 -> inception_5b/5x5 (in-place)
I0403 21:42:53.055248 12573 net.cpp:141] Setting up inception_5b/relu_5x5
I0403 21:42:53.055274 12573 net.cpp:148] Top shape: 24 128 7 7 (150528)
I0403 21:42:53.055290 12573 net.cpp:156] Memory required for data: 1335929376
I0403 21:42:53.055306 12573 layer_factory.hpp:77] Creating layer inception_5b/pool
I0403 21:42:53.055330 12573 net.cpp:91] Creating Layer inception_5b/pool
I0403 21:42:53.055348 12573 net.cpp:425] inception_5b/pool <- inception_5a/output_inception_5a/output_0_split_3
I0403 21:42:53.055368 12573 net.cpp:399] inception_5b/pool -> inception_5b/pool
I0403 21:42:53.055445 12573 net.cpp:141] Setting up inception_5b/pool
I0403 21:42:53.055471 12573 net.cpp:148] Top shape: 24 832 7 7 (978432)
I0403 21:42:53.055487 12573 net.cpp:156] Memory required for data: 1339843104
I0403 21:42:53.055503 12573 layer_factory.hpp:77] Creating layer inception_5b/pool_proj
I0403 21:42:53.055526 12573 net.cpp:91] Creating Layer inception_5b/pool_proj
I0403 21:42:53.055546 12573 net.cpp:425] inception_5b/pool_proj <- inception_5b/pool
I0403 21:42:53.055567 12573 net.cpp:399] inception_5b/pool_proj -> inception_5b/pool_proj
I0403 21:42:53.057972 12573 net.cpp:141] Setting up inception_5b/pool_proj
I0403 21:42:53.058006 12573 net.cpp:148] Top shape: 24 128 7 7 (150528)
I0403 21:42:53.058022 12573 net.cpp:156] Memory required for data: 1340445216
I0403 21:42:53.058042 12573 layer_factory.hpp:77] Creating layer inception_5b/relu_pool_proj
I0403 21:42:53.058061 12573 net.cpp:91] Creating Layer inception_5b/relu_pool_proj
I0403 21:42:53.058079 12573 net.cpp:425] inception_5b/relu_pool_proj <- inception_5b/pool_proj
I0403 21:42:53.058099 12573 net.cpp:386] inception_5b/relu_pool_proj -> inception_5b/pool_proj (in-place)
I0403 21:42:53.058403 12573 net.cpp:141] Setting up inception_5b/relu_pool_proj
I0403 21:42:53.058432 12573 net.cpp:148] Top shape: 24 128 7 7 (150528)
I0403 21:42:53.058449 12573 net.cpp:156] Memory required for data: 1341047328
I0403 21:42:53.058466 12573 layer_factory.hpp:77] Creating layer inception_5b/output
I0403 21:42:53.058485 12573 net.cpp:91] Creating Layer inception_5b/output
I0403 21:42:53.058516 12573 net.cpp:425] inception_5b/output <- inception_5b/1x1
I0403 21:42:53.058533 12573 net.cpp:425] inception_5b/output <- inception_5b/3x3
I0403 21:42:53.058552 12573 net.cpp:425] inception_5b/output <- inception_5b/5x5
I0403 21:42:53.058568 12573 net.cpp:425] inception_5b/output <- inception_5b/pool_proj
I0403 21:42:53.058589 12573 net.cpp:399] inception_5b/output -> inception_5b/output
I0403 21:42:53.058642 12573 net.cpp:141] Setting up inception_5b/output
I0403 21:42:53.058666 12573 net.cpp:148] Top shape: 24 1024 7 7 (1204224)
I0403 21:42:53.058682 12573 net.cpp:156] Memory required for data: 1345864224
I0403 21:42:53.058697 12573 layer_factory.hpp:77] Creating layer pool5/7x7_s1
I0403 21:42:53.058719 12573 net.cpp:91] Creating Layer pool5/7x7_s1
I0403 21:42:53.058737 12573 net.cpp:425] pool5/7x7_s1 <- inception_5b/output
I0403 21:42:53.058758 12573 net.cpp:399] pool5/7x7_s1 -> pool5/7x7_s1
I0403 21:42:53.058979 12573 net.cpp:141] Setting up pool5/7x7_s1
I0403 21:42:53.059003 12573 net.cpp:148] Top shape: 24 1024 1 1 (24576)
I0403 21:42:53.059020 12573 net.cpp:156] Memory required for data: 1345962528
I0403 21:42:53.059036 12573 layer_factory.hpp:77] Creating layer pool5/drop_7x7_s1
I0403 21:42:53.059053 12573 net.cpp:91] Creating Layer pool5/drop_7x7_s1
I0403 21:42:53.059070 12573 net.cpp:425] pool5/drop_7x7_s1 <- pool5/7x7_s1
I0403 21:42:53.059092 12573 net.cpp:386] pool5/drop_7x7_s1 -> pool5/7x7_s1 (in-place)
I0403 21:42:53.059141 12573 net.cpp:141] Setting up pool5/drop_7x7_s1
I0403 21:42:53.059165 12573 net.cpp:148] Top shape: 24 1024 1 1 (24576)
I0403 21:42:53.059185 12573 net.cpp:156] Memory required for data: 1346060832
I0403 21:42:53.059202 12573 layer_factory.hpp:77] Creating layer loss3/classifier_plantvillage
I0403 21:42:53.059226 12573 net.cpp:91] Creating Layer loss3/classifier_plantvillage
I0403 21:42:53.059243 12573 net.cpp:425] loss3/classifier_plantvillage <- pool5/7x7_s1
I0403 21:42:53.059264 12573 net.cpp:399] loss3/classifier_plantvillage -> loss3/classifier_plantvillage
I0403 21:42:53.059695 12573 net.cpp:141] Setting up loss3/classifier_plantvillage
I0403 21:42:53.059721 12573 net.cpp:148] Top shape: 24 38 (912)
I0403 21:42:53.059736 12573 net.cpp:156] Memory required for data: 1346064480
I0403 21:42:53.059756 12573 layer_factory.hpp:77] Creating layer loss3/classifier_plantvillage_loss3/classifier_plantvillage_0_split
I0403 21:42:53.059777 12573 net.cpp:91] Creating Layer loss3/classifier_plantvillage_loss3/classifier_plantvillage_0_split
I0403 21:42:53.059794 12573 net.cpp:425] loss3/classifier_plantvillage_loss3/classifier_plantvillage_0_split <- loss3/classifier_plantvillage
I0403 21:42:53.059814 12573 net.cpp:399] loss3/classifier_plantvillage_loss3/classifier_plantvillage_0_split -> loss3/classifier_plantvillage_loss3/classifier_plantvillage_0_split_0
I0403 21:42:53.059836 12573 net.cpp:399] loss3/classifier_plantvillage_loss3/classifier_plantvillage_0_split -> loss3/classifier_plantvillage_loss3/classifier_plantvillage_0_split_1
I0403 21:42:53.059857 12573 net.cpp:399] loss3/classifier_plantvillage_loss3/classifier_plantvillage_0_split -> loss3/classifier_plantvillage_loss3/classifier_plantvillage_0_split_2
I0403 21:42:53.059880 12573 net.cpp:399] loss3/classifier_plantvillage_loss3/classifier_plantvillage_0_split -> loss3/classifier_plantvillage_loss3/classifier_plantvillage_0_split_3
I0403 21:42:53.059984 12573 net.cpp:141] Setting up loss3/classifier_plantvillage_loss3/classifier_plantvillage_0_split
I0403 21:42:53.060009 12573 net.cpp:148] Top shape: 24 38 (912)
I0403 21:42:53.060025 12573 net.cpp:148] Top shape: 24 38 (912)
I0403 21:42:53.060042 12573 net.cpp:148] Top shape: 24 38 (912)
I0403 21:42:53.060058 12573 net.cpp:148] Top shape: 24 38 (912)
I0403 21:42:53.060073 12573 net.cpp:156] Memory required for data: 1346079072
I0403 21:42:53.060088 12573 layer_factory.hpp:77] Creating layer loss1/loss
I0403 21:42:53.060112 12573 net.cpp:91] Creating Layer loss1/loss
I0403 21:42:53.060130 12573 net.cpp:425] loss1/loss <- loss1/classifier_plantvillage_loss1/classifier_plantvillage_0_split_0
I0403 21:42:53.060163 12573 net.cpp:425] loss1/loss <- label_data_1_split_0
…
