…
I0403 21:50:41.430126 13024 net.cpp:313] The NetState phase (1) differed from the phase (0) specified by a rule in layer data
I0403 21:50:41.432693 13024 net.cpp:49] Initializing net from parameters: 
state {
  phase: TEST
}
layer {
  name: "data"
  type: "Data"
  top: "data"
  top: "label"
  include {
    phase: TEST
  }
  transform_param {
    mirror: false
    crop_size: 224
    mean_file: "/home/mohanty/data/final_dataset/lmdb/color-80-20/mean.binaryproto"
  }
  data_param {
    source: "/home/mohanty/data/final_dataset/lmdb/color-80-20/test_db"
    batch_size: 24
    backend: LMDB
  }
}
layer {
  name: "conv1/7x7_s2"
  type: "Convolution"
  bottom: "data"
  top: "conv1/7x7_s2"
  param {
    lr_mult: 1
    decay_mult: 1
  }
  param {
    lr_mult: 2
    decay_mult: 0
  }
  convolution_param {
    num_output: 64
    pad: 3
    kernel_size: 7
    stride: 2
    weight_filler {
      type: "xavier"
      std: 0.1
    }
    bias_filler {
      type: "constant"
      value: 0.2
    }
  }
}
layer {
  name: "conv1/relu_7x7"
  type: "ReLU"
  bottom: "conv1/7x7_s2"
  top: "conv1/7x7_s2"
}
layer {
  name: "pool1/3x3_s2"
  type: "Pooling"
  bottom: "conv1/7x7_s2"
  top: "pool1/3x3_s2"
  pooling_param {
    pool: MAX
    kernel_size: 3
    stride: 2
  }
}
layer {
  name: "pool1/norm1"
  type: "LRN"
  bottom: "pool1/3x3_s2"
  top: "pool1/norm1"
  lrn_param {
    local_size: 5
    alpha: 0.0001
    beta: 0.75
  }
}
layer {
  name: "conv2/3x3_reduce"
  type: "Convolution"
  bottom: "pool1/norm1"
  top: "conv2/3x3_reduce"
  param {
    lr_mult: 1
    decay_mult: 1
  }
  param {
    lr_mult: 2
    decay_mult: 0
  }
  convolution_param {
    num_output: 64
    kernel_size: 1
    weight_filler {
      type: "xavier"
      std: 0.1
    }
    bias_filler {
      type: "constant"
      value: 0.2
    }
  }
}
layer {
  name: "conv2/relu_3x3_reduce"
  type: "ReLU"
  bottom: "conv2/3x3_reduce"
  top: "conv2/3x3_reduce"
}
layer {
  name: "conv2/3x3"
  type: "Convolution"
  bottom: "conv2/3x3_reduce"
  top: "conv2/3x3"
  param {
    lr_mult: 1
    decay_mult: 1
  }
  param {
    lr_mult: 2
    decay_mult: 0
  }
  convolution_param {
    num_output: 192
    pad: 1
    kernel_size: 3
    weight_filler {
      type: "xavier"
      std: 0.03
    }
    bias_filler {
      type: "constant"
      value: 0.2
    }
  }
}
layer {
  name: "conv2/relu_3x3"
  type: "ReLU"
  bottom: "conv2/3x3"
  top: "conv2/3x3"
}
layer {
  name: "conv2/norm2"
  type: "LRN"
  bottom: "conv2/3x3"
  top: "conv2/norm2"
  lrn_param {
    local_size: 5
    alpha: 0.0001
    beta: 0.75
  }
}
layer {
  name: "pool2/3x3_s2"
  type: "Pooling"
  bottom: "conv2/norm2"
  top: "pool2/3x3_s2"
  pooling_param {
    pool: MAX
    kernel_size: 3
    stride: 2
  }
}
layer {
  name: "inception_3a/1x1"
  type: "Convolution"
  bottom: "pool2/3x3_s2"
  top: "inception_3a/1x1"
  param {
    lr_mult: 1
    decay_mult: 1
  }
  param {
    lr_mult: 2
    decay_mult: 0
  }
  convolution_param {
    num_output: 64
    kernel_size: 1
    weight_filler {
      type: "xavier"
      std: 0.03
    }
    bias_filler {
      type: "constant"
      value: 0.2
    }
  }
}
layer {
  name: "inception_3a/relu_1x1"
  type: "ReLU"
  bottom: "inception_3a/1x1"
  top: "inception_3a/1x1"
}
layer {
  name: "inception_3a/3x3_reduce"
  type: "Convolution"
  bottom: "pool2/3x3_s2"
  top: "inception_3a/3x3_reduce"
  param {
    lr_mult: 1
    decay_mult: 1
  }
  param {
    lr_mult: 2
    decay_mult: 0
  }
  convolution_param {
    num_output: 96
    kernel_size: 1
    weight_filler {
      type: "xavier"
      std: 0.09
    }
    bias_filler {
      type: "constant"
      value: 0.2
    }
  }
}
layer {
  name: "inception_3a/relu_3x3_reduce"
  type: "ReLU"
  bottom: "inception_3a/3x3_reduce"
  top: "inception_3a/3x3_reduce"
}
layer {
  name: "inception_3a/3x3"
  type: "Convolution"
  bottom: "inception_3a/3x3_reduce"
  top: "inception_3a/3x3"
  param {
    lr_mult: 1
    decay_mult: 1
  }
  param {
    lr_mult: 2
    decay_mult: 0
  }
  convolution_param {
    num_output: 128
    pad: 1
    kernel_size: 3
    weight_filler {
      type: "xavier"
      std: 0.03
    }
    bias_filler {
      type: "constant"
      value: 0.2
    }
  }
}
layer {
  name: "inception_3a/relu_3x3"
  type: "ReLU"
  bottom: "inception_3a/3x3"
  top: "inception_3a/3x3"
}
layer {
  name: "inception_3a/5x5_reduce"
  type: "Convolution"
  bottom: "pool2/3x3_s2"
  top: "inception_3a/5x5_reduce"
  param {
    lr_mult: 1
    decay_mult: 1
  }
  param {
    lr_mult: 2
    decay_mult: 0
  }
  convolution_param {
    num_output: 16
    kernel_size: 1
    weight_filler {
      type: "xavier"
      std: 0.2
    }
    bias_filler {
      type: "constant"
      value: 0.2
    }
  }
}
layer {
  name: "inception_3a/relu_5x5_reduce"
  type: "ReLU"
  bottom: "inception_3a/5x5_reduce"
  top: "inception_3a/5x5_reduce"
}
layer {
  name: "inception_3a/5x5"
  type: "Convolution"
  bottom: "inception_3a/5x5_reduce"
  top: "inception_3a/5x5"
  param {
    lr_mult: 1
    decay_mult: 1
  }
  param {
    lr_mult: 2
    decay_mult: 0
  }
  convolution_param {
    num_output: 32
    pad: 2
    kernel_size: 5
    weight_filler {
      type: "xavier"
      std: 0.03
    }
    bias_filler {
      type: "constant"
      value: 0.2
    }
  }
}
layer {
  name: "inception_3a/relu_5x5"
  type: "ReLU"
  bottom: "inception_3a/5x5"
  top: "inception_3a/5x5"
}
layer {
  name: "inception_3a/pool"
  type: "Pooling"
  bottom: "pool2/3x3_s2"
  top: "inception_3a/pool"
  pooling_param {
    pool: MAX
    kernel_size: 3
    stride: 1
    pad: 1
  }
}
layer {
  name: "inception_3a/pool_proj"
  type: "Convolution"
  bottom: "inception_3a/pool"
  top: "inception_3a/pool_proj"
  param {
    lr_mult: 1
    decay_mult: 1
  }
  param {
    lr_mult: 2
    decay_mult: 0
  }
  convolution_param {
    num_output: 32
    kernel_size: 1
    weight_filler {
      type: "xavier"
      std: 0.1
    }
    bias_filler {
      type: "constant"
      value: 0.2
    }
  }
}
layer {
  name: "inception_3a/relu_pool_proj"
  type: "ReLU"
  bottom: "inception_3a/pool_proj"
  top: "inception_3a/pool_proj"
}
layer {
  name: "inception_3a/output"
  type: "Concat"
  bottom: "inception_3a/1x1"
  bottom: "inception_3a/3x3"
  bottom: "inception_3a/5x5"
  bottom: "inception_3a/pool_proj"
  top: "inception_3a/output"
}
layer {
  name: "inception_3b/1x1"
  type: "Convolution"
  bottom: "inception_3a/output"
  top: "inception_3b/1x1"
  param {
    lr_mult: 1
    decay_mult: 1
  }
  param {
    lr_mult: 2
    decay_mult: 0
  }
  convolution_param {
    num_output: 128
    kernel_size: 1
    weight_filler {
      type: "xavier"
      std: 0.03
    }
    bias_filler {
      type: "constant"
      value: 0.2
    }
  }
}
layer {
  name: "inception_3b/relu_1x1"
  type: "ReLU"
  bottom: "inception_3b/1x1"
  top: "inception_3b/1x1"
}
layer {
  name: "inception_3b/3x3_reduce"
  type: "Convolution"
  bottom: "inception_3a/output"
  top: "inception_3b/3x3_reduce"
  param {
    lr_mult: 1
    decay_mult: 1
  }
  param {
    lr_mult: 2
    decay_mult: 0
  }
  convolution_param {
    num_output: 128
    kernel_size: 1
    weight_filler {
      type: "xavier"
      std: 0.09
    }
    bias_filler {
      type: "constant"
      value: 0.2
    }
  }
}
layer {
  name: "inception_3b/relu_3x3_reduce"
  type: "ReLU"
  bottom: "inception_3b/3x3_reduce"
  top: "inception_3b/3x3_reduce"
}
layer {
  name: "inception_3b/3x3"
  type: "Convolution"
  bottom: "inception_3b/3x3_reduce"
  top: "inception_3b/3x3"
  param {
    lr_mult: 1
    decay_mult: 1
  }
  param {
    lr_mult: 2
    decay_mult: 0
  }
  convolution_param {
    num_output: 192
    pad: 1
    kernel_size: 3
    weight_filler {
      type: "xavier"
      std: 0.03
    }
    bias_filler {
      type: "constant"
      value: 0.2
    }
  }
}
layer {
  name: "inception_3b/relu_3x3"
  type: "ReLU"
  bottom: "inception_3b/3x3"
  top: "inception_3b/3x3"
}
layer {
  name: "inception_3b/5x5_reduce"
  type: "Convolution"
  bottom: "inception_3a/output"
  top: "inception_3b/5x5_reduce"
  param {
    lr_mult: 1
    decay_mult: 1
  }
  param {
    lr_mult: 2
    decay_mult: 0
  }
  convolution_param {
    num_output: 32
    kernel_size: 1
    weight_filler {
      type: "xavier"
      std: 0.2
    }
    bias_filler {
      type: "constant"
      value: 0.2
    }
  }
}
layer {
  name: "inception_3b/relu_5x5_reduce"
  type: "ReLU"
  bottom: "inception_3b/5x5_reduce"
  top: "inception_3b/5x5_reduce"
}
layer {
  name: "inception_3b/5x5"
  type: "Convolution"
  bottom: "inception_3b/5x5_reduce"
  top: "inception_3b/5x5"
  param {
    lr_mult: 1
    decay_mult: 1
  }
  param {
    lr_mult: 2
    decay_mult: 0
  }
  convolution_param {
    num_output: 96
    pad: 2
    kernel_size: 5
    weight_filler {
      type: "xavier"
      std: 0.03
    }
    bias_filler {
      type: "constant"
      value: 0.2
    }
  }
}
layer {
  name: "inception_3b/relu_5x5"
  type: "ReLU"
  bottom: "inception_3b/5x5"
  top: "inception_3b/5x5"
}
layer {
  name: "inception_3b/pool"
  type: "Pooling"
  bottom: "inception_3a/output"
  top: "inception_3b/pool"
  pooling_param {
    pool: MAX
    kernel_size: 3
    stride: 1
    pad: 1
  }
}
layer {
  name: "inception_3b/pool_proj"
  type: "Convolution"
  bottom: "inception_3b/pool"
  top: "inception_3b/pool_proj"
  param {
    lr_mult: 1
    decay_mult: 1
  }
  param {
    lr_mult: 2
    decay_mult: 0
  }
  convolution_param {
    num_output: 64
    kernel_size: 1
    weight_filler {
      type: "xavier"
      std: 0.1
    }
    bias_filler {
      type: "constant"
      value: 0.2
    }
  }
}
layer {
  name: "inception_3b/relu_pool_proj"
  type: "ReLU"
  bottom: "inception_3b/pool_proj"
  top: "inception_3b/pool_proj"
}
layer {
  name: "inception_3b/output"
  type: "Concat"
  bottom: "inception_3b/1x1"
  bottom: "inception_3b/3x3"
  bottom: "inception_3b/5x5"
  bottom: "inception_3b/pool_proj"
  top: "inception_3b/output"
}
layer {
  name: "pool3/3x3_s2"
  type: "Pooling"
  bottom: "inception_3b/output"
  top: "pool3/3x3_s2"
  pooling_param {
    pool: MAX
    kernel_size: 3
    stride: 2
  }
}
layer {
  name: "inception_4a/1x1"
  type: "Convolution"
  bottom: "pool3/3x3_s2"
  top: "inception_4a/1x1"
  param {
    lr_mult: 1
    decay_mult: 1
  }
  param {
    lr_mult: 2
    decay_mult: 0
  }
  convolution_param {
    num_output: 192
    kernel_size: 1
    weight_filler {
      type: "xavier"
      std: 0.03
    }
    bias_filler {
      type: "constant"
      value: 0.2
    }
  }
}
layer {
  name: "inception_4a/relu_1x1"
  type: "ReLU"
  bottom: "inception_4a/1x1"
  top: "inception_4a/1x1"
}
layer {
  name: "inception_4a/3x3_reduce"
  type: "Convolution"
  bottom: "pool3/3x3_s2"
  top: "inception_4a/3x3_reduce"
  param {
    lr_mult: 1
    decay_mult: 1
  }
  param {
    lr_mult: 2
    decay_mult: 0
  }
  convolution_param {
    num_output: 96
    kernel_size: 1
    weight_filler {
      type: "xavier"
      std: 0.09
    }
    bias_filler {
      type: "constant"
      value: 0.2
    }
  }
}
layer {
  name: "inception_4a/relu_3x3_reduce"
  type: "ReLU"
  bottom: "inception_4a/3x3_reduce"
  top: "inception_4a/3x3_reduce"
}
layer {
  name: "inception_4a/3x3"
  type: "Convolution"
  bottom: "inception_4a/3x3_reduce"
  top: "inception_4a/3x3"
  param {
    lr_mult: 1
    decay_mult: 1
  }
  param {
    lr_mult: 2
    decay_mult: 0
  }
  convolution_param {
    num_output: 208
    pad: 1
    kernel_size: 3
    weight_filler {
      type: "xavier"
      std: 0.03
    }
    bias_filler {
      type: "constant"
      value: 0.2
    }
  }
}
layer {
  name: "inception_4a/relu_3x3"
  type: "ReLU"
  bottom: "inception_4a/3x3"
  top: "inception_4a/3x3"
}
layer {
  name: "inception_4a/5x5_reduce"
  type: "Convolution"
  bottom: "pool3/3x3_s2"
  top: "inception_4a/5x5_reduce"
  param {
    lr_mult: 1
    decay_mult: 1
  }
  param {
    lr_mult: 2
    decay_mult: 0
  }
  convolution_param {
    num_output: 16
    kernel_size: 1
    weight_filler {
      type: "xavier"
      std: 0.2
    }
    bias_filler {
      type: "constant"
      value: 0.2
    }
  }
}
layer {
  name: "inception_4a/relu_5x5_reduce"
  type: "ReLU"
  bottom: "inception_4a/5x5_reduce"
  top: "inception_4a/5x5_reduce"
}
layer {
  name: "inception_4a/5x5"
  type: "Convolution"
  bottom: "inception_4a/5x5_reduce"
  top: "inception_4a/5x5"
  param {
    lr_mult: 1
    decay_mult: 1
  }
  param {
    lr_mult: 2
    decay_mult: 0
  }
  convolution_param {
    num_output: 48
    pad: 2
    kernel_size: 5
    weight_filler {
      type: "xavier"
      std: 0.03
    }
    bias_filler {
      type: "constant"
      value: 0.2
    }
  }
}
layer {
  name: "inception_4a/relu_5x5"
  type: "ReLU"
  bottom: "inception_4a/5x5"
  top: "inception_4a/5x5"
}
layer {
  name: "inception_4a/pool"
  type: "Pooling"
  bottom: "pool3/3x3_s2"
  top: "inception_4a/pool"
  pooling_param {
    pool: MAX
    kernel_size: 3
    stride: 1
    pad: 1
  }
}
layer {
  name: "inception_4a/pool_proj"
  type: "Convolution"
  bottom: "inception_4a/pool"
  top: "inception_4a/pool_proj"
  param {
    lr_mult: 1
    decay_mult: 1
  }
  param {
    lr_mult: 2
    decay_mult: 0
  }
  convolution_param {
    num_output: 64
    kernel_size: 1
    weight_filler {
      type: "xavier"
      std: 0.1
    }
    bias_filler {
      type: "constant"
      value: 0.2
    }
  }
}
layer {
  name: "inception_4a/relu_pool_proj"
  type: "ReLU"
  bottom: "inception_4a/pool_proj"
  top: "inception_4a/pool_proj"
}
layer {
  name: "inception_4a/output"
  type: "Concat"
  bottom: "inception_4a/1x1"
  bottom: "inception_4a/3x3"
  bottom: "inception_4a/5x5"
  bottom: "inception_4a/pool_proj"
  top: "inception_4a/output"
}
layer {
  name: "loss1/ave_pool"
  type: "Pooling"
  bottom: "inception_4a/output"
  top: "loss1/ave_pool"
  pooling_param {
    pool: AVE
    kernel_size: 5
    stride: 3
  }
}
layer {
  name: "loss1/conv"
  type: "Convolution"
  bottom: "loss1/ave_pool"
  top: "loss1/conv"
  param {
    lr_mult: 1
    decay_mult: 1
  }
  param {
    lr_mult: 2
    decay_mult: 0
  }
  convolution_param {
    num_output: 128
    kernel_size: 1
    weight_filler {
      type: "xavier"
      std: 0.08
    }
    bias_filler {
      type: "constant"
      value: 0.2
    }
  }
}
layer {
  name: "loss1/relu_conv"
  type: "ReLU"
  bottom: "loss1/conv"
  top: "loss1/conv"
}
layer {
  name: "loss1/fc"
  type: "InnerProduct"
  bottom: "loss1/conv"
  top: "loss1/fc"
  param {
    lr_mult: 1
    decay_mult: 1
  }
  param {
    lr_mult: 2
    decay_mult: 0
  }
  inner_product_param {
    num_output: 1024
    weight_filler {
      type: "xavier"
      std: 0.02
    }
    bias_filler {
      type: "constant"
      value: 0.2
    }
  }
}
layer {
  name: "loss1/relu_fc"
  type: "ReLU"
  bottom: "loss1/fc"
  top: "loss1/fc"
}
layer {
  name: "loss1/drop_fc"
  type: "Dropout"
  bottom: "loss1/fc"
  top: "loss1/fc"
  dropout_param {
    dropout_ratio: 0.7
  }
}
layer {
  name: "loss1/classifier_plantvillage"
  type: "InnerProduct"
  bottom: "loss1/fc"
  top: "loss1/classifier_plantvillage"
  param {
    lr_mult: 1
    decay_mult: 1
  }
  param {
    lr_mult: 2
    decay_mult: 0
  }
  inner_product_param {
    num_output: 38
    weight_filler {
      type: "xavier"
      std: 0.0009765625
    }
    bias_filler {
      type: "constant"
      value: 0
    }
  }
}
layer {
  name: "inception_4b/1x1"
  type: "Convolution"
  bottom: "inception_4a/output"
  top: "inception_4b/1x1"
  param {
    lr_mult: 1
    decay_mult: 1
  }
  param {
    lr_mult: 2
    decay_mult: 0
  }
  convolution_param {
    num_output: 160
    kernel_size: 1
    weight_filler {
      type: "xavier"
      std: 0.03
    }
    bias_filler {
      type: "constant"
      value: 0.2
    }
  }
}
layer {
  name: "inception_4b/relu_1x1"
  type: "ReLU"
  bottom: "inception_4b/1x1"
  top: "inception_4b/1x1"
}
layer {
  name: "inception_4b/3x3_reduce"
  type: "Convolution"
  bottom: "inception_4a/output"
  top: "inception_4b/3x3_reduce"
  param {
    lr_mult: 1
    decay_mult: 1
  }
  param {
    lr_mult: 2
    decay_mult: 0
  }
  convolution_param {
    num_output: 112
    kernel_size: 1
    weight_filler {
      type: "xavier"
      std: 0.09
    }
    bias_filler {
      type: "constant"
      value: 0.2
    }
  }
}
layer {
  name: "inception_4b/relu_3x3_reduce"
  type: "ReLU"
  bottom: "inception_4b/3x3_reduce"
  top: "inception_4b/3x3_reduce"
}
layer {
  name: "inception_4b/3x3"
  type: "Convolution"
  bottom: "inception_4b/3x3_reduce"
  top: "inception_4b/3x3"
  param {
    lr_mult: 1
    decay_mult: 1
  }
  param {
    lr_mult: 2
    decay_mult: 0
  }
  convolution_param {
    num_output: 224
    pad: 1
    kernel_size: 3
    weight_filler {
      type: "xavier"
      std: 0.03
    }
    bias_filler {
      type: "constant"
      value: 0.2
    }
  }
}
layer {
  name: "inception_4b/relu_3x3"
  type: "ReLU"
  bottom: "inception_4b/3x3"
  top: "inception_4b/3x3"
}
layer {
  name: "inception_4b/5x5_reduce"
  type: "Convolution"
  bottom: "inception_4a/output"
  top: "inception_4b/5x5_reduce"
  param {
    lr_mult: 1
    decay_mult: 1
  }
  param {
    lr_mult: 2
    decay_mult: 0
  }
  convolution_param {
    num_output: 24
    kernel_size: 1
    weight_filler {
      type: "xavier"
      std: 0.2
    }
    bias_filler {
      type: "constant"
      value: 0.2
    }
  }
}
layer {
  name: "inception_4b/relu_5x5_reduce"
  type: "ReLU"
  bottom: "inception_4b/5x5_reduce"
  top: "inception_4b/5x5_reduce"
}
layer {
  name: "inception_4b/5x5"
  type: "Convolution"
  bottom: "inception_4b/5x5_reduce"
  top: "inception_4b/5x5"
  param {
    lr_mult: 1
    decay_mult: 1
  }
  param {
    lr_mult: 2
    decay_mult: 0
  }
  convolution_param {
    num_output: 64
    pad: 2
    kernel_size: 5
    weight_filler {
      type: "xavier"
      std: 0.03
    }
    bias_filler {
      type: "constant"
      value: 0.2
    }
  }
}
layer {
  name: "inception_4b/relu_5x5"
  type: "ReLU"
  bottom: "inception_4b/5x5"
  top: "inception_4b/5x5"
}
layer {
  name: "inception_4b/pool"
  type: "Pooling"
  bottom: "inception_4a/output"
  top: "inception_4b/pool"
  pooling_param {
    pool: MAX
    kernel_size: 3
    stride: 1
    pad: 1
  }
}
layer {
  name: "inception_4b/pool_proj"
  type: "Convolution"
  bottom: "inception_4b/pool"
  top: "inception_4b/pool_proj"
  param {
    lr_mult: 1
    decay_mult: 1
  }
  param {
    lr_mult: 2
    decay_mult: 0
  }
  convolution_param {
    num_output: 64
    kernel_size: 1
    weight_filler {
      type: "xavier"
      std: 0.1
    }
    bias_filler {
      type: "constant"
      value: 0.2
    }
  }
}
layer {
  name: "inception_4b/relu_pool_proj"
  type: "ReLU"
  bottom: "inception_4b/pool_proj"
  top: "inception_4b/pool_proj"
}
layer {
  name: "inception_4b/output"
  type: "Concat"
  bottom: "inception_4b/1x1"
  bottom: "inception_4b/3x3"
  bottom: "inception_4b/5x5"
  bottom: "inception_4b/pool_proj"
  top: "inception_4b/output"
}
layer {
  name: "inception_4c/1x1"
  type: "Convolution"
  bottom: "inception_4b/output"
  top: "inception_4c/1x1"
  param {
    lr_mult: 1
    decay_mult: 1
  }
  param {
    lr_mult: 2
    decay_mult: 0
  }
  convolution_param {
    num_output: 128
    kernel_size: 1
    weight_filler {
      type: "xavier"
      std: 0.03
    }
    bias_filler {
      type: "constant"
      value: 0.2
    }
  }
}
layer {
  name: "inception_4c/relu_1x1"
  type: "ReLU"
  bottom: "inception_4c/1x1"
  top: "inception_4c/1x1"
}
layer {
  name: "inception_4c/3x3_reduce"
  type: "Convolution"
  bottom: "inception_4b/output"
  top: "inception_4c/3x3_reduce"
  param {
    lr_mult: 1
    decay_mult: 1
  }
  param {
    lr_mult: 2
    decay_mult: 0
  }
  convolution_param {
    num_output: 128
    kernel_size: 1
    weight_filler {
      type: "xavier"
      std: 0.09
    }
    bias_filler {
      type: "constant"
      value: 0.2
    }
  }
}
layer {
  name: "inception_4c/relu_3x3_reduce"
  type: "ReLU"
  bottom: "inception_4c/3x3_reduce"
  top: "inception_4c/3x3_reduce"
}
layer {
  name: "inception_4c/3x3"
  type: "Convolution"
  bottom: "inception_4c/3x3_reduce"
  top: "inception_4c/3x3"
  param {
    lr_mult: 1
    decay_mult: 1
  }
  param {
    lr_mult: 2
    decay_mult: 0
  }
  convolution_param {
    num_output: 256
    pad: 1
    kernel_size: 3
    weight_filler {
      type: "xavier"
      std: 0.03
    }
    bias_filler {
      type: "constant"
      value: 0.2
    }
  }
}
layer {
  name: "inception_4c/relu_3x3"
  type: "ReLU"
  bottom: "inception_4c/3x3"
  top: "inception_4c/3x3"
}
layer {
  name: "inception_4c/5x5_reduce"
  type: "Convolution"
  bottom: "inception_4b/output"
  top: "inception_4c/5x5_reduce"
  param {
    lr_mult: 1
    decay_mult: 1
  }
  param {
    lr_mult: 2
    decay_mult: 0
  }
  convolution_param {
    num_output: 24
    kernel_size: 1
    weight_filler {
      type: "xavier"
      std: 0.2
    }
    bias_filler {
      type: "constant"
      value: 0.2
    }
  }
}
layer {
  name: "inception_4c/relu_5x5_reduce"
  type: "ReLU"
  bottom: "inception_4c/5x5_reduce"
  top: "inception_4c/5x5_reduce"
}
layer {
  name: "inception_4c/5x5"
  type: "Convolution"
  bottom: "inception_4c/5x5_reduce"
  top: "inception_4c/5x5"
  param {
    lr_mult: 1
    decay_mult: 1
  }
  param {
    lr_mult: 2
    decay_mult: 0
  }
  convolution_param {
    num_output: 64
    pad: 2
    kernel_size: 5
    weight_filler {
      type: "xavier"
      std: 0.03
    }
    bias_filler {
      type: "constant"
      value: 0.2
    }
  }
}
layer {
  name: "inception_4c/relu_5x5"
  type: "ReLU"
  bottom: "inception_4c/5x5"
  top: "inception_4c/5x5"
}
layer {
  name: "inception_4c/pool"
  type: "Pooling"
  bottom: "inception_4b/output"
  top: "inception_4c/pool"
  pooling_param {
    pool: MAX
    kernel_size: 3
    stride: 1
    pad: 1
  }
}
layer {
  name: "inception_4c/pool_proj"
  type: "Convolution"
  bottom: "inception_4c/pool"
  top: "inception_4c/pool_proj"
  param {
    lr_mult: 1
    decay_mult: 1
  }
  param {
    lr_mult: 2
    decay_mult: 0
  }
  convolution_param {
    num_output: 64
    kernel_size: 1
    weight_filler {
      type: "xavier"
      std: 0.1
    }
    bias_filler {
      type: "constant"
      value: 0.2
    }
  }
}
layer {
  name: "inception_4c/relu_pool_proj"
  type: "ReLU"
  bottom: "inception_4c/pool_proj"
  top: "inception_4c/pool_proj"
}
layer {
  name: "inception_4c/output"
  type: "Concat"
  bottom: "inception_4c/1x1"
  bottom: "inception_4c/3x3"
  bottom: "inception_4c/5x5"
  bottom: "inception_4c/pool_proj"
  top: "inception_4c/output"
}
layer {
  name: "inception_4d/1x1"
  type: "Convolution"
  bottom: "inception_4c/output"
  top: "inception_4d/1x1"
  param {
    lr_mult: 1
    decay_mult: 1
  }
  param {
    lr_mult: 2
    decay_mult: 0
  }
  convolution_param {
    num_output: 112
    kernel_size: 1
    weight_filler {
      type: "xavier"
      std: 0.03
    }
    bias_filler {
      type: "constant"
      value: 0.2
    }
  }
}
layer {
  name: "inception_4d/relu_1x1"
  type: "ReLU"
  bottom: "inception_4d/1x1"
  top: "inception_4d/1x1"
}
layer {
  name: "inception_4d/3x3_reduce"
  type: "Convolution"
  bottom: "inception_4c/output"
  top: "inception_4d/3x3_reduce"
  param {
    lr_mult: 1
    decay_mult: 1
  }
  param {
    lr_mult: 2
    decay_mult: 0
  }
  convolution_param {
    num_output: 144
    kernel_size: 1
    weight_filler {
      type: "xavier"
      std: 0.09
    }
    bias_filler {
      type: "constant"
      value: 0.2
    }
  }
}
layer {
  name: "inception_4d/relu_3x3_reduce"
  type: "ReLU"
  bottom: "inception_4d/3x3_reduce"
  top: "inception_4d/3x3_reduce"
}
layer {
  name: "inception_4d/3x3"
  type: "Convolution"
  bottom: "inception_4d/3x3_reduce"
  top: "inception_4d/3x3"
  param {
    lr_mult: 1
    decay_mult: 1
  }
  param {
    lr_mult: 2
    decay_mult: 0
  }
  convolution_param {
    num_output: 288
    pad: 1
    kernel_size: 3
    weight_filler {
      type: "xavier"
      std: 0.03
    }
    bias_filler {
      type: "constant"
      value: 0.2
    }
  }
}
layer {
  name: "inception_4d/relu_3x3"
  type: "ReLU"
  bottom: "inception_4d/3x3"
  top: "inception_4d/3x3"
}
layer {
  name: "inception_4d/5x5_reduce"
  type: "Convolution"
  bottom: "inception_4c/output"
  top: "inception_4d/5x5_reduce"
  param {
    lr_mult: 1
    decay_mult: 1
  }
  param {
    lr_mult: 2
    decay_mult: 0
  }
  convolution_param {
    num_output: 32
    kernel_size: 1
    weight_filler {
      type: "xavier"
      std: 0.2
    }
    bias_filler {
      type: "constant"
      value: 0.2
    }
  }
}
layer {
  name: "inception_4d/relu_5x5_reduce"
  type: "ReLU"
  bottom: "inception_4d/5x5_reduce"
  top: "inception_4d/5x5_reduce"
}
layer {
  name: "inception_4d/5x5"
  type: "Convolution"
  bottom: "inception_4d/5x5_reduce"
  top: "inception_4d/5x5"
  param {
    lr_mult: 1
    decay_mult: 1
  }
  param {
    lr_mult: 2
    decay_mult: 0
  }
  convolution_param {
    num_output: 64
    pad: 2
    kernel_size: 5
    weight_filler {
      type: "xavier"
      std: 0.03
    }
    bias_filler {
      type: "constant"
      value: 0.2
    }
  }
}
layer {
  name: "inception_4d/relu_5x5"
  type: "ReLU"
  bottom: "inception_4d/5x5"
  top: "inception_4d/5x5"
}
layer {
  name: "inception_4d/pool"
  type: "Pooling"
  bottom: "inception_4c/output"
  top: "inception_4d/pool"
  pooling_param {
    pool: MAX
    kernel_size: 3
    stride: 1
    pad: 1
  }
}
layer {
  name: "inception_4d/pool_proj"
  type: "Convolution"
  bottom: "inception_4d/pool"
  top: "inception_4d/pool_proj"
  param {
    lr_mult: 1
    decay_mult: 1
  }
  param {
    lr_mult: 2
    decay_mult: 0
  }
  convolution_param {
    num_output: 64
    kernel_size: 1
    weight_filler {
      type: "xavier"
      std: 0.1
    }
    bias_filler {
      type: "constant"
      value: 0.2
    }
  }
}
layer {
  name: "inception_4d/relu_pool_proj"
  type: "ReLU"
  bottom: "inception_4d/pool_proj"
  top: "inception_4d/pool_proj"
}
layer {
  name: "inception_4d/output"
  type: "Concat"
  bottom: "inception_4d/1x1"
  bottom: "inception_4d/3x3"
  bottom: "inception_4d/5x5"
  bottom: "inception_4d/pool_proj"
  top: "inception_4d/output"
}
layer {
  name: "loss2/ave_pool"
  type: "Pooling"
  bottom: "inception_4d/output"
  top: "loss2/ave_pool"
  pooling_param {
    pool: AVE
    kernel_size: 5
    stride: 3
  }
}
layer {
  name: "loss2/conv"
  type: "Convolution"
  bottom: "loss2/ave_pool"
  top: "loss2/conv"
  param {
    lr_mult: 1
    decay_mult: 1
  }
  param {
    lr_mult: 2
    decay_mult: 0
  }
  convolution_param {
    num_output: 128
    kernel_size: 1
    weight_filler {
      type: "xavier"
      std: 0.08
    }
    bias_filler {
      type: "constant"
      value: 0.2
    }
  }
}
layer {
  name: "loss2/relu_conv"
  type: "ReLU"
  bottom: "loss2/conv"
  top: "loss2/conv"
}
layer {
  name: "loss2/fc"
  type: "InnerProduct"
  bottom: "loss2/conv"
  top: "loss2/fc"
  param {
    lr_mult: 1
    decay_mult: 1
  }
  param {
    lr_mult: 2
    decay_mult: 0
  }
  inner_product_param {
    num_output: 1024
    weight_filler {
      type: "xavier"
      std: 0.02
    }
    bias_filler {
      type: "constant"
      value: 0.2
    }
  }
}
layer {
  name: "loss2/relu_fc"
  type: "ReLU"
  bottom: "loss2/fc"
  top: "loss2/fc"
}
layer {
  name: "loss2/drop_fc"
  type: "Dropout"
  bottom: "loss2/fc"
  top: "loss2/fc"
  dropout_param {
    dropout_ratio: 0.7
  }
}
layer {
  name: "loss2/classifier_plantvillage"
  type: "InnerProduct"
  bottom: "loss2/fc"
  top: "loss2/classifier_plantvillage"
  param {
    lr_mult: 1
    decay_mult: 1
  }
  param {
    lr_mult: 2
    decay_mult: 0
  }
  inner_product_param {
    num_output: 38
    weight_filler {
      type: "xavier"
      std: 0.0009765625
    }
    bias_filler {
      type: "constant"
      value: 0
    }
  }
}
layer {
  name: "inception_4e/1x1"
  type: "Convolution"
  bottom: "inception_4d/output"
  top: "inception_4e/1x1"
  param {
    lr_mult: 1
    decay_mult: 1
  }
  param {
    lr_mult: 2
    decay_mult: 0
  }
  convolution_param {
    num_output: 256
    kernel_size: 1
    weight_filler {
      type: "xavier"
      std: 0.03
    }
    bias_filler {
      type: "constant"
      value: 0.2
    }
  }
}
layer {
  name: "inception_4e/relu_1x1"
  type: "ReLU"
  bottom: "inception_4e/1x1"
  top: "inception_4e/1x1"
}
layer {
  name: "inception_4e/3x3_reduce"
  type: "Convolution"
  bottom: "inception_4d/output"
  top: "inception_4e/3x3_reduce"
  param {
    lr_mult: 1
    decay_mult: 1
  }
  param {
    lr_mult: 2
    decay_mult: 0
  }
  convolution_param {
    num_output: 160
    kernel_size: 1
    weight_filler {
      type: "xavier"
      std: 0.09
    }
    bias_filler {
      type: "constant"
      value: 0.2
    }
  }
}
layer {
  name: "inception_4e/relu_3x3_reduce"
  type: "ReLU"
  bottom: "inception_4e/3x3_reduce"
  top: "inception_4e/3x3_reduce"
}
layer {
  name: "inception_4e/3x3"
  type: "Convolution"
  bottom: "inception_4e/3x3_reduce"
  top: "inception_4e/3x3"
  param {
    lr_mult: 1
    decay_mult: 1
  }
  param {
    lr_mult: 2
    decay_mult: 0
  }
  convolution_param {
    num_output: 320
    pad: 1
    kernel_size: 3
    weight_filler {
      type: "xavier"
      std: 0.03
    }
    bias_filler {
      type: "constant"
      value: 0.2
    }
  }
}
layer {
  name: "inception_4e/relu_3x3"
  type: "ReLU"
  bottom: "inception_4e/3x3"
  top: "inception_4e/3x3"
}
layer {
  name: "inception_4e/5x5_reduce"
  type: "Convolution"
  bottom: "inception_4d/output"
  top: "inception_4e/5x5_reduce"
  param {
    lr_mult: 1
    decay_mult: 1
  }
  param {
    lr_mult: 2
    decay_mult: 0
  }
  convolution_param {
    num_output: 32
    kernel_size: 1
    weight_filler {
      type: "xavier"
      std: 0.2
    }
    bias_filler {
      type: "constant"
      value: 0.2
    }
  }
}
layer {
  name: "inception_4e/relu_5x5_reduce"
  type: "ReLU"
  bottom: "inception_4e/5x5_reduce"
  top: "inception_4e/5x5_reduce"
}
layer {
  name: "inception_4e/5x5"
  type: "Convolution"
  bottom: "inception_4e/5x5_reduce"
  top: "inception_4e/5x5"
  p
I0403 21:50:41.435180 13024 layer_factory.hpp:77] Creating layer data
I0403 21:50:41.435909 13024 net.cpp:91] Creating Layer data
I0403 21:50:41.435945 13024 net.cpp:399] data -> data
I0403 21:50:41.436007 13024 net.cpp:399] data -> label
I0403 21:50:41.436050 13024 data_transformer.cpp:25] Loading mean file from: /home/mohanty/data/final_dataset/lmdb/color-80-20/mean.binaryproto
I0403 21:50:41.437459 13029 db_lmdb.cpp:38] Opened lmdb /home/mohanty/data/final_dataset/lmdb/color-80-20/test_db
I0403 21:50:41.452468 13024 data_layer.cpp:41] output data size: 24,3,224,224
I0403 21:50:41.485723 13024 net.cpp:141] Setting up data
I0403 21:50:41.485838 13024 net.cpp:148] Top shape: 24 3 224 224 (3612672)
I0403 21:50:41.485865 13024 net.cpp:148] Top shape: 24 (24)
I0403 21:50:41.485883 13024 net.cpp:156] Memory required for data: 14450784
I0403 21:50:41.485916 13024 layer_factory.hpp:77] Creating layer label_data_1_split
I0403 21:50:41.485949 13024 net.cpp:91] Creating Layer label_data_1_split
I0403 21:50:41.485971 13024 net.cpp:425] label_data_1_split <- label
I0403 21:50:41.486009 13024 net.cpp:399] label_data_1_split -> label_data_1_split_0
I0403 21:50:41.486042 13024 net.cpp:399] label_data_1_split -> label_data_1_split_1
I0403 21:50:41.486068 13024 net.cpp:399] label_data_1_split -> label_data_1_split_2
I0403 21:50:41.486094 13024 net.cpp:399] label_data_1_split -> label_data_1_split_3
I0403 21:50:41.486117 13024 net.cpp:399] label_data_1_split -> label_data_1_split_4
I0403 21:50:41.486140 13024 net.cpp:399] label_data_1_split -> label_data_1_split_5
I0403 21:50:41.486163 13024 net.cpp:399] label_data_1_split -> label_data_1_split_6
I0403 21:50:41.486187 13024 net.cpp:399] label_data_1_split -> label_data_1_split_7
I0403 21:50:41.486217 13024 net.cpp:399] label_data_1_split -> label_data_1_split_8
I0403 21:50:41.486243 13024 net.cpp:399] label_data_1_split -> label_data_1_split_9
I0403 21:50:41.486385 13024 net.cpp:141] Setting up label_data_1_split
I0403 21:50:41.486413 13024 net.cpp:148] Top shape: 24 (24)
I0403 21:50:41.486434 13024 net.cpp:148] Top shape: 24 (24)
I0403 21:50:41.486454 13024 net.cpp:148] Top shape: 24 (24)
I0403 21:50:41.486474 13024 net.cpp:148] Top shape: 24 (24)
I0403 21:50:41.486492 13024 net.cpp:148] Top shape: 24 (24)
I0403 21:50:41.486512 13024 net.cpp:148] Top shape: 24 (24)
I0403 21:50:41.486532 13024 net.cpp:148] Top shape: 24 (24)
I0403 21:50:41.486552 13024 net.cpp:148] Top shape: 24 (24)
I0403 21:50:41.486570 13024 net.cpp:148] Top shape: 24 (24)
I0403 21:50:41.486591 13024 net.cpp:148] Top shape: 24 (24)
I0403 21:50:41.486645 13024 net.cpp:156] Memory required for data: 14451744
I0403 21:50:41.486665 13024 layer_factory.hpp:77] Creating layer conv1/7x7_s2
I0403 21:50:41.486714 13024 net.cpp:91] Creating Layer conv1/7x7_s2
I0403 21:50:41.486738 13024 net.cpp:425] conv1/7x7_s2 <- data
I0403 21:50:41.486762 13024 net.cpp:399] conv1/7x7_s2 -> conv1/7x7_s2
I0403 21:50:41.657497 13024 net.cpp:141] Setting up conv1/7x7_s2
I0403 21:50:41.657580 13024 net.cpp:148] Top shape: 24 64 112 112 (19267584)
I0403 21:50:41.657601 13024 net.cpp:156] Memory required for data: 91522080
I0403 21:50:41.657639 13024 layer_factory.hpp:77] Creating layer conv1/relu_7x7
I0403 21:50:41.657671 13024 net.cpp:91] Creating Layer conv1/relu_7x7
I0403 21:50:41.657693 13024 net.cpp:425] conv1/relu_7x7 <- conv1/7x7_s2
I0403 21:50:41.657716 13024 net.cpp:386] conv1/relu_7x7 -> conv1/7x7_s2 (in-place)
I0403 21:50:41.658084 13024 net.cpp:141] Setting up conv1/relu_7x7
I0403 21:50:41.658118 13024 net.cpp:148] Top shape: 24 64 112 112 (19267584)
I0403 21:50:41.658138 13024 net.cpp:156] Memory required for data: 168592416
I0403 21:50:41.658157 13024 layer_factory.hpp:77] Creating layer pool1/3x3_s2
I0403 21:50:41.658187 13024 net.cpp:91] Creating Layer pool1/3x3_s2
I0403 21:50:41.658213 13024 net.cpp:425] pool1/3x3_s2 <- conv1/7x7_s2
I0403 21:50:41.658238 13024 net.cpp:399] pool1/3x3_s2 -> pool1/3x3_s2
I0403 21:50:41.658329 13024 net.cpp:141] Setting up pool1/3x3_s2
I0403 21:50:41.658360 13024 net.cpp:148] Top shape: 24 64 56 56 (4816896)
I0403 21:50:41.658380 13024 net.cpp:156] Memory required for data: 187860000
I0403 21:50:41.658397 13024 layer_factory.hpp:77] Creating layer pool1/norm1
I0403 21:50:41.658427 13024 net.cpp:91] Creating Layer pool1/norm1
I0403 21:50:41.658450 13024 net.cpp:425] pool1/norm1 <- pool1/3x3_s2
I0403 21:50:41.658471 13024 net.cpp:399] pool1/norm1 -> pool1/norm1
I0403 21:50:41.658815 13024 net.cpp:141] Setting up pool1/norm1
I0403 21:50:41.658849 13024 net.cpp:148] Top shape: 24 64 56 56 (4816896)
I0403 21:50:41.658867 13024 net.cpp:156] Memory required for data: 207127584
I0403 21:50:41.658886 13024 layer_factory.hpp:77] Creating layer conv2/3x3_reduce
I0403 21:50:41.658916 13024 net.cpp:91] Creating Layer conv2/3x3_reduce
I0403 21:50:41.658937 13024 net.cpp:425] conv2/3x3_reduce <- pool1/norm1
I0403 21:50:41.658960 13024 net.cpp:399] conv2/3x3_reduce -> conv2/3x3_reduce
I0403 21:50:41.660748 13024 net.cpp:141] Setting up conv2/3x3_reduce
I0403 21:50:41.660785 13024 net.cpp:148] Top shape: 24 64 56 56 (4816896)
I0403 21:50:41.660805 13024 net.cpp:156] Memory required for data: 226395168
I0403 21:50:41.660830 13024 layer_factory.hpp:77] Creating layer conv2/relu_3x3_reduce
I0403 21:50:41.660854 13024 net.cpp:91] Creating Layer conv2/relu_3x3_reduce
I0403 21:50:41.660873 13024 net.cpp:425] conv2/relu_3x3_reduce <- conv2/3x3_reduce
I0403 21:50:41.660898 13024 net.cpp:386] conv2/relu_3x3_reduce -> conv2/3x3_reduce (in-place)
I0403 21:50:41.661234 13024 net.cpp:141] Setting up conv2/relu_3x3_reduce
I0403 21:50:41.661267 13024 net.cpp:148] Top shape: 24 64 56 56 (4816896)
I0403 21:50:41.661285 13024 net.cpp:156] Memory required for data: 245662752
I0403 21:50:41.661304 13024 layer_factory.hpp:77] Creating layer conv2/3x3
I0403 21:50:41.661334 13024 net.cpp:91] Creating Layer conv2/3x3
I0403 21:50:41.661356 13024 net.cpp:425] conv2/3x3 <- conv2/3x3_reduce
I0403 21:50:41.661383 13024 net.cpp:399] conv2/3x3 -> conv2/3x3
I0403 21:50:41.664350 13024 net.cpp:141] Setting up conv2/3x3
I0403 21:50:41.664389 13024 net.cpp:148] Top shape: 24 192 56 56 (14450688)
I0403 21:50:41.664412 13024 net.cpp:156] Memory required for data: 303465504
I0403 21:50:41.664438 13024 layer_factory.hpp:77] Creating layer conv2/relu_3x3
I0403 21:50:41.664460 13024 net.cpp:91] Creating Layer conv2/relu_3x3
I0403 21:50:41.664480 13024 net.cpp:425] conv2/relu_3x3 <- conv2/3x3
I0403 21:50:41.664505 13024 net.cpp:386] conv2/relu_3x3 -> conv2/3x3 (in-place)
I0403 21:50:41.664777 13024 net.cpp:141] Setting up conv2/relu_3x3
I0403 21:50:41.664809 13024 net.cpp:148] Top shape: 24 192 56 56 (14450688)
I0403 21:50:41.664866 13024 net.cpp:156] Memory required for data: 361268256
I0403 21:50:41.664886 13024 layer_factory.hpp:77] Creating layer conv2/norm2
I0403 21:50:41.664912 13024 net.cpp:91] Creating Layer conv2/norm2
I0403 21:50:41.664932 13024 net.cpp:425] conv2/norm2 <- conv2/3x3
I0403 21:50:41.664957 13024 net.cpp:399] conv2/norm2 -> conv2/norm2
I0403 21:50:41.665331 13024 net.cpp:141] Setting up conv2/norm2
I0403 21:50:41.665367 13024 net.cpp:148] Top shape: 24 192 56 56 (14450688)
I0403 21:50:41.665387 13024 net.cpp:156] Memory required for data: 419071008
I0403 21:50:41.665405 13024 layer_factory.hpp:77] Creating layer pool2/3x3_s2
I0403 21:50:41.665426 13024 net.cpp:91] Creating Layer pool2/3x3_s2
I0403 21:50:41.665447 13024 net.cpp:425] pool2/3x3_s2 <- conv2/norm2
I0403 21:50:41.665472 13024 net.cpp:399] pool2/3x3_s2 -> pool2/3x3_s2
I0403 21:50:41.665539 13024 net.cpp:141] Setting up pool2/3x3_s2
I0403 21:50:41.665566 13024 net.cpp:148] Top shape: 24 192 28 28 (3612672)
I0403 21:50:41.665585 13024 net.cpp:156] Memory required for data: 433521696
I0403 21:50:41.665601 13024 layer_factory.hpp:77] Creating layer pool2/3x3_s2_pool2/3x3_s2_0_split
I0403 21:50:41.665626 13024 net.cpp:91] Creating Layer pool2/3x3_s2_pool2/3x3_s2_0_split
I0403 21:50:41.665645 13024 net.cpp:425] pool2/3x3_s2_pool2/3x3_s2_0_split <- pool2/3x3_s2
I0403 21:50:41.665668 13024 net.cpp:399] pool2/3x3_s2_pool2/3x3_s2_0_split -> pool2/3x3_s2_pool2/3x3_s2_0_split_0
I0403 21:50:41.665691 13024 net.cpp:399] pool2/3x3_s2_pool2/3x3_s2_0_split -> pool2/3x3_s2_pool2/3x3_s2_0_split_1
I0403 21:50:41.665719 13024 net.cpp:399] pool2/3x3_s2_pool2/3x3_s2_0_split -> pool2/3x3_s2_pool2/3x3_s2_0_split_2
I0403 21:50:41.665742 13024 net.cpp:399] pool2/3x3_s2_pool2/3x3_s2_0_split -> pool2/3x3_s2_pool2/3x3_s2_0_split_3
I0403 21:50:41.665832 13024 net.cpp:141] Setting up pool2/3x3_s2_pool2/3x3_s2_0_split
I0403 21:50:41.665858 13024 net.cpp:148] Top shape: 24 192 28 28 (3612672)
I0403 21:50:41.665879 13024 net.cpp:148] Top shape: 24 192 28 28 (3612672)
I0403 21:50:41.665899 13024 net.cpp:148] Top shape: 24 192 28 28 (3612672)
I0403 21:50:41.665916 13024 net.cpp:148] Top shape: 24 192 28 28 (3612672)
I0403 21:50:41.665933 13024 net.cpp:156] Memory required for data: 491324448
I0403 21:50:41.665951 13024 layer_factory.hpp:77] Creating layer inception_3a/1x1
I0403 21:50:41.665979 13024 net.cpp:91] Creating Layer inception_3a/1x1
I0403 21:50:41.666002 13024 net.cpp:425] inception_3a/1x1 <- pool2/3x3_s2_pool2/3x3_s2_0_split_0
I0403 21:50:41.666028 13024 net.cpp:399] inception_3a/1x1 -> inception_3a/1x1
I0403 21:50:41.667987 13024 net.cpp:141] Setting up inception_3a/1x1
I0403 21:50:41.668026 13024 net.cpp:148] Top shape: 24 64 28 28 (1204224)
I0403 21:50:41.668047 13024 net.cpp:156] Memory required for data: 496141344
I0403 21:50:41.668071 13024 layer_factory.hpp:77] Creating layer inception_3a/relu_1x1
I0403 21:50:41.668093 13024 net.cpp:91] Creating Layer inception_3a/relu_1x1
I0403 21:50:41.668113 13024 net.cpp:425] inception_3a/relu_1x1 <- inception_3a/1x1
I0403 21:50:41.668138 13024 net.cpp:386] inception_3a/relu_1x1 -> inception_3a/1x1 (in-place)
I0403 21:50:41.668361 13024 net.cpp:141] Setting up inception_3a/relu_1x1
I0403 21:50:41.668392 13024 net.cpp:148] Top shape: 24 64 28 28 (1204224)
I0403 21:50:41.668411 13024 net.cpp:156] Memory required for data: 500958240
I0403 21:50:41.668429 13024 layer_factory.hpp:77] Creating layer inception_3a/3x3_reduce
I0403 21:50:41.668457 13024 net.cpp:91] Creating Layer inception_3a/3x3_reduce
I0403 21:50:41.668478 13024 net.cpp:425] inception_3a/3x3_reduce <- pool2/3x3_s2_pool2/3x3_s2_0_split_1
I0403 21:50:41.668503 13024 net.cpp:399] inception_3a/3x3_reduce -> inception_3a/3x3_reduce
I0403 21:50:41.670609 13024 net.cpp:141] Setting up inception_3a/3x3_reduce
I0403 21:50:41.670647 13024 net.cpp:148] Top shape: 24 96 28 28 (1806336)
I0403 21:50:41.670666 13024 net.cpp:156] Memory required for data: 508183584
I0403 21:50:41.670693 13024 layer_factory.hpp:77] Creating layer inception_3a/relu_3x3_reduce
I0403 21:50:41.670739 13024 net.cpp:91] Creating Layer inception_3a/relu_3x3_reduce
I0403 21:50:41.670763 13024 net.cpp:425] inception_3a/relu_3x3_reduce <- inception_3a/3x3_reduce
I0403 21:50:41.670784 13024 net.cpp:386] inception_3a/relu_3x3_reduce -> inception_3a/3x3_reduce (in-place)
I0403 21:50:41.671005 13024 net.cpp:141] Setting up inception_3a/relu_3x3_reduce
I0403 21:50:41.671037 13024 net.cpp:148] Top shape: 24 96 28 28 (1806336)
I0403 21:50:41.671056 13024 net.cpp:156] Memory required for data: 515408928
I0403 21:50:41.671075 13024 layer_factory.hpp:77] Creating layer inception_3a/3x3
I0403 21:50:41.671103 13024 net.cpp:91] Creating Layer inception_3a/3x3
I0403 21:50:41.671124 13024 net.cpp:425] inception_3a/3x3 <- inception_3a/3x3_reduce
I0403 21:50:41.671147 13024 net.cpp:399] inception_3a/3x3 -> inception_3a/3x3
I0403 21:50:41.673244 13024 net.cpp:141] Setting up inception_3a/3x3
I0403 21:50:41.673280 13024 net.cpp:148] Top shape: 24 128 28 28 (2408448)
I0403 21:50:41.673300 13024 net.cpp:156] Memory required for data: 525042720
I0403 21:50:41.673321 13024 layer_factory.hpp:77] Creating layer inception_3a/relu_3x3
I0403 21:50:41.673346 13024 net.cpp:91] Creating Layer inception_3a/relu_3x3
I0403 21:50:41.673367 13024 net.cpp:425] inception_3a/relu_3x3 <- inception_3a/3x3
I0403 21:50:41.673389 13024 net.cpp:386] inception_3a/relu_3x3 -> inception_3a/3x3 (in-place)
I0403 21:50:41.673724 13024 net.cpp:141] Setting up inception_3a/relu_3x3
I0403 21:50:41.673758 13024 net.cpp:148] Top shape: 24 128 28 28 (2408448)
I0403 21:50:41.673776 13024 net.cpp:156] Memory required for data: 534676512
I0403 21:50:41.673795 13024 layer_factory.hpp:77] Creating layer inception_3a/5x5_reduce
I0403 21:50:41.673823 13024 net.cpp:91] Creating Layer inception_3a/5x5_reduce
I0403 21:50:41.673846 13024 net.cpp:425] inception_3a/5x5_reduce <- pool2/3x3_s2_pool2/3x3_s2_0_split_2
I0403 21:50:41.673873 13024 net.cpp:399] inception_3a/5x5_reduce -> inception_3a/5x5_reduce
I0403 21:50:41.675045 13024 net.cpp:141] Setting up inception_3a/5x5_reduce
I0403 21:50:41.675079 13024 net.cpp:148] Top shape: 24 16 28 28 (301056)
I0403 21:50:41.675099 13024 net.cpp:156] Memory required for data: 535880736
I0403 21:50:41.675122 13024 layer_factory.hpp:77] Creating layer inception_3a/relu_5x5_reduce
I0403 21:50:41.675148 13024 net.cpp:91] Creating Layer inception_3a/relu_5x5_reduce
I0403 21:50:41.675168 13024 net.cpp:425] inception_3a/relu_5x5_reduce <- inception_3a/5x5_reduce
I0403 21:50:41.675190 13024 net.cpp:386] inception_3a/relu_5x5_reduce -> inception_3a/5x5_reduce (in-place)
I0403 21:50:41.675531 13024 net.cpp:141] Setting up inception_3a/relu_5x5_reduce
I0403 21:50:41.675562 13024 net.cpp:148] Top shape: 24 16 28 28 (301056)
I0403 21:50:41.675582 13024 net.cpp:156] Memory required for data: 537084960
I0403 21:50:41.675601 13024 layer_factory.hpp:77] Creating layer inception_3a/5x5
I0403 21:50:41.675631 13024 net.cpp:91] Creating Layer inception_3a/5x5
I0403 21:50:41.675652 13024 net.cpp:425] inception_3a/5x5 <- inception_3a/5x5_reduce
I0403 21:50:41.675679 13024 net.cpp:399] inception_3a/5x5 -> inception_3a/5x5
I0403 21:50:41.676914 13024 net.cpp:141] Setting up inception_3a/5x5
I0403 21:50:41.676949 13024 net.cpp:148] Top shape: 24 32 28 28 (602112)
I0403 21:50:41.676969 13024 net.cpp:156] Memory required for data: 539493408
I0403 21:50:41.676990 13024 layer_factory.hpp:77] Creating layer inception_3a/relu_5x5
I0403 21:50:41.677014 13024 net.cpp:91] Creating Layer inception_3a/relu_5x5
I0403 21:50:41.677034 13024 net.cpp:425] inception_3a/relu_5x5 <- inception_3a/5x5
I0403 21:50:41.677058 13024 net.cpp:386] inception_3a/relu_5x5 -> inception_3a/5x5 (in-place)
I0403 21:50:41.677285 13024 net.cpp:141] Setting up inception_3a/relu_5x5
I0403 21:50:41.677316 13024 net.cpp:148] Top shape: 24 32 28 28 (602112)
I0403 21:50:41.677335 13024 net.cpp:156] Memory required for data: 541901856
I0403 21:50:41.677355 13024 layer_factory.hpp:77] Creating layer inception_3a/pool
I0403 21:50:41.677379 13024 net.cpp:91] Creating Layer inception_3a/pool
I0403 21:50:41.677399 13024 net.cpp:425] inception_3a/pool <- pool2/3x3_s2_pool2/3x3_s2_0_split_3
I0403 21:50:41.677440 13024 net.cpp:399] inception_3a/pool -> inception_3a/pool
I0403 21:50:41.677513 13024 net.cpp:141] Setting up inception_3a/pool
I0403 21:50:41.677542 13024 net.cpp:148] Top shape: 24 192 28 28 (3612672)
I0403 21:50:41.677561 13024 net.cpp:156] Memory required for data: 556352544
I0403 21:50:41.677578 13024 layer_factory.hpp:77] Creating layer inception_3a/pool_proj
I0403 21:50:41.677605 13024 net.cpp:91] Creating Layer inception_3a/pool_proj
I0403 21:50:41.677628 13024 net.cpp:425] inception_3a/pool_proj <- inception_3a/pool
I0403 21:50:41.677654 13024 net.cpp:399] inception_3a/pool_proj -> inception_3a/pool_proj
I0403 21:50:41.678829 13024 net.cpp:141] Setting up inception_3a/pool_proj
I0403 21:50:41.678869 13024 net.cpp:148] Top shape: 24 32 28 28 (602112)
I0403 21:50:41.678890 13024 net.cpp:156] Memory required for data: 558760992
I0403 21:50:41.678917 13024 layer_factory.hpp:77] Creating layer inception_3a/relu_pool_proj
I0403 21:50:41.678943 13024 net.cpp:91] Creating Layer inception_3a/relu_pool_proj
I0403 21:50:41.678964 13024 net.cpp:425] inception_3a/relu_pool_proj <- inception_3a/pool_proj
I0403 21:50:41.678987 13024 net.cpp:386] inception_3a/relu_pool_proj -> inception_3a/pool_proj (in-place)
I0403 21:50:41.679322 13024 net.cpp:141] Setting up inception_3a/relu_pool_proj
I0403 21:50:41.679354 13024 net.cpp:148] Top shape: 24 32 28 28 (602112)
I0403 21:50:41.679374 13024 net.cpp:156] Memory required for data: 561169440
I0403 21:50:41.679393 13024 layer_factory.hpp:77] Creating layer inception_3a/output
I0403 21:50:41.679414 13024 net.cpp:91] Creating Layer inception_3a/output
I0403 21:50:41.679435 13024 net.cpp:425] inception_3a/output <- inception_3a/1x1
I0403 21:50:41.679455 13024 net.cpp:425] inception_3a/output <- inception_3a/3x3
I0403 21:50:41.679476 13024 net.cpp:425] inception_3a/output <- inception_3a/5x5
I0403 21:50:41.679494 13024 net.cpp:425] inception_3a/output <- inception_3a/pool_proj
I0403 21:50:41.679518 13024 net.cpp:399] inception_3a/output -> inception_3a/output
I0403 21:50:41.679579 13024 net.cpp:141] Setting up inception_3a/output
I0403 21:50:41.679610 13024 net.cpp:148] Top shape: 24 256 28 28 (4816896)
I0403 21:50:41.679630 13024 net.cpp:156] Memory required for data: 580437024
I0403 21:50:41.679648 13024 layer_factory.hpp:77] Creating layer inception_3a/output_inception_3a/output_0_split
I0403 21:50:41.679669 13024 net.cpp:91] Creating Layer inception_3a/output_inception_3a/output_0_split
I0403 21:50:41.679689 13024 net.cpp:425] inception_3a/output_inception_3a/output_0_split <- inception_3a/output
I0403 21:50:41.679714 13024 net.cpp:399] inception_3a/output_inception_3a/output_0_split -> inception_3a/output_inception_3a/output_0_split_0
I0403 21:50:41.679740 13024 net.cpp:399] inception_3a/output_inception_3a/output_0_split -> inception_3a/output_inception_3a/output_0_split_1
I0403 21:50:41.679769 13024 net.cpp:399] inception_3a/output_inception_3a/output_0_split -> inception_3a/output_inception_3a/output_0_split_2
I0403 21:50:41.679795 13024 net.cpp:399] inception_3a/output_inception_3a/output_0_split -> inception_3a/output_inception_3a/output_0_split_3
I0403 21:50:41.679888 13024 net.cpp:141] Setting up inception_3a/output_inception_3a/output_0_split
I0403 21:50:41.679916 13024 net.cpp:148] Top shape: 24 256 28 28 (4816896)
I0403 21:50:41.679937 13024 net.cpp:148] Top shape: 24 256 28 28 (4816896)
I0403 21:50:41.679956 13024 net.cpp:148] Top shape: 24 256 28 28 (4816896)
I0403 21:50:41.679976 13024 net.cpp:148] Top shape: 24 256 28 28 (4816896)
I0403 21:50:41.679994 13024 net.cpp:156] Memory required for data: 657507360
I0403 21:50:41.680012 13024 layer_factory.hpp:77] Creating layer inception_3b/1x1
I0403 21:50:41.680040 13024 net.cpp:91] Creating Layer inception_3b/1x1
I0403 21:50:41.680063 13024 net.cpp:425] inception_3b/1x1 <- inception_3a/output_inception_3a/output_0_split_0
I0403 21:50:41.680088 13024 net.cpp:399] inception_3b/1x1 -> inception_3b/1x1
I0403 21:50:41.681489 13024 net.cpp:141] Setting up inception_3b/1x1
I0403 21:50:41.681540 13024 net.cpp:148] Top shape: 24 128 28 28 (2408448)
I0403 21:50:41.681561 13024 net.cpp:156] Memory required for data: 667141152
I0403 21:50:41.681583 13024 layer_factory.hpp:77] Creating layer inception_3b/relu_1x1
I0403 21:50:41.681605 13024 net.cpp:91] Creating Layer inception_3b/relu_1x1
I0403 21:50:41.681625 13024 net.cpp:425] inception_3b/relu_1x1 <- inception_3b/1x1
I0403 21:50:41.681650 13024 net.cpp:386] inception_3b/relu_1x1 -> inception_3b/1x1 (in-place)
I0403 21:50:41.681874 13024 net.cpp:141] Setting up inception_3b/relu_1x1
I0403 21:50:41.681905 13024 net.cpp:148] Top shape: 24 128 28 28 (2408448)
I0403 21:50:41.681926 13024 net.cpp:156] Memory required for data: 676774944
I0403 21:50:41.681943 13024 layer_factory.hpp:77] Creating layer inception_3b/3x3_reduce
I0403 21:50:41.681972 13024 net.cpp:91] Creating Layer inception_3b/3x3_reduce
I0403 21:50:41.681994 13024 net.cpp:425] inception_3b/3x3_reduce <- inception_3a/output_inception_3a/output_0_split_1
I0403 21:50:41.682021 13024 net.cpp:399] inception_3b/3x3_reduce -> inception_3b/3x3_reduce
I0403 21:50:41.683428 13024 net.cpp:141] Setting up inception_3b/3x3_reduce
I0403 21:50:41.683465 13024 net.cpp:148] Top shape: 24 128 28 28 (2408448)
I0403 21:50:41.683485 13024 net.cpp:156] Memory required for data: 686408736
I0403 21:50:41.683509 13024 layer_factory.hpp:77] Creating layer inception_3b/relu_3x3_reduce
I0403 21:50:41.683531 13024 net.cpp:91] Creating Layer inception_3b/relu_3x3_reduce
I0403 21:50:41.683552 13024 net.cpp:425] inception_3b/relu_3x3_reduce <- inception_3b/3x3_reduce
I0403 21:50:41.683576 13024 net.cpp:386] inception_3b/relu_3x3_reduce -> inception_3b/3x3_reduce (in-place)
I0403 21:50:41.683796 13024 net.cpp:141] Setting up inception_3b/relu_3x3_reduce
I0403 21:50:41.683826 13024 net.cpp:148] Top shape: 24 128 28 28 (2408448)
I0403 21:50:41.683846 13024 net.cpp:156] Memory required for data: 696042528
I0403 21:50:41.683866 13024 layer_factory.hpp:77] Creating layer inception_3b/3x3
I0403 21:50:41.683897 13024 net.cpp:91] Creating Layer inception_3b/3x3
I0403 21:50:41.683920 13024 net.cpp:425] inception_3b/3x3 <- inception_3b/3x3_reduce
I0403 21:50:41.683943 13024 net.cpp:399] inception_3b/3x3 -> inception_3b/3x3
I0403 21:50:41.687520 13024 net.cpp:141] Setting up inception_3b/3x3
I0403 21:50:41.687556 13024 net.cpp:148] Top shape: 24 192 28 28 (3612672)
I0403 21:50:41.687574 13024 net.cpp:156] Memory required for data: 710493216
I0403 21:50:41.687597 13024 layer_factory.hpp:77] Creating layer inception_3b/relu_3x3
I0403 21:50:41.687621 13024 net.cpp:91] Creating Layer inception_3b/relu_3x3
I0403 21:50:41.687643 13024 net.cpp:425] inception_3b/relu_3x3 <- inception_3b/3x3
I0403 21:50:41.687664 13024 net.cpp:386] inception_3b/relu_3x3 -> inception_3b/3x3 (in-place)
I0403 21:50:41.688000 13024 net.cpp:141] Setting up inception_3b/relu_3x3
I0403 21:50:41.688033 13024 net.cpp:148] Top shape: 24 192 28 28 (3612672)
I0403 21:50:41.688052 13024 net.cpp:156] Memory required for data: 724943904
I0403 21:50:41.688072 13024 layer_factory.hpp:77] Creating layer inception_3b/5x5_reduce
I0403 21:50:41.688102 13024 net.cpp:91] Creating Layer inception_3b/5x5_reduce
I0403 21:50:41.688123 13024 net.cpp:425] inception_3b/5x5_reduce <- inception_3a/output_inception_3a/output_0_split_2
I0403 21:50:41.688150 13024 net.cpp:399] inception_3b/5x5_reduce -> inception_3b/5x5_reduce
I0403 21:50:41.689381 13024 net.cpp:141] Setting up inception_3b/5x5_reduce
I0403 21:50:41.689416 13024 net.cpp:148] Top shape: 24 32 28 28 (602112)
I0403 21:50:41.689435 13024 net.cpp:156] Memory required for data: 727352352
I0403 21:50:41.689458 13024 layer_factory.hpp:77] Creating layer inception_3b/relu_5x5_reduce
I0403 21:50:41.689484 13024 net.cpp:91] Creating Layer inception_3b/relu_5x5_reduce
I0403 21:50:41.689504 13024 net.cpp:425] inception_3b/relu_5x5_reduce <- inception_3b/5x5_reduce
I0403 21:50:41.689527 13024 net.cpp:386] inception_3b/relu_5x5_reduce -> inception_3b/5x5_reduce (in-place)
I0403 21:50:41.689744 13024 net.cpp:141] Setting up inception_3b/relu_5x5_reduce
I0403 21:50:41.689791 13024 net.cpp:148] Top shape: 24 32 28 28 (602112)
I0403 21:50:41.689810 13024 net.cpp:156] Memory required for data: 729760800
I0403 21:50:41.689831 13024 layer_factory.hpp:77] Creating layer inception_3b/5x5
I0403 21:50:41.689857 13024 net.cpp:91] Creating Layer inception_3b/5x5
I0403 21:50:41.689879 13024 net.cpp:425] inception_3b/5x5 <- inception_3b/5x5_reduce
I0403 21:50:41.689906 13024 net.cpp:399] inception_3b/5x5 -> inception_3b/5x5
I0403 21:50:41.692332 13024 net.cpp:141] Setting up inception_3b/5x5
I0403 21:50:41.692373 13024 net.cpp:148] Top shape: 24 96 28 28 (1806336)
I0403 21:50:41.692392 13024 net.cpp:156] Memory required for data: 736986144
I0403 21:50:41.692416 13024 layer_factory.hpp:77] Creating layer inception_3b/relu_5x5
I0403 21:50:41.692438 13024 net.cpp:91] Creating Layer inception_3b/relu_5x5
I0403 21:50:41.692457 13024 net.cpp:425] inception_3b/relu_5x5 <- inception_3b/5x5
I0403 21:50:41.692483 13024 net.cpp:386] inception_3b/relu_5x5 -> inception_3b/5x5 (in-place)
I0403 21:50:41.692720 13024 net.cpp:141] Setting up inception_3b/relu_5x5
I0403 21:50:41.692750 13024 net.cpp:148] Top shape: 24 96 28 28 (1806336)
I0403 21:50:41.692770 13024 net.cpp:156] Memory required for data: 744211488
I0403 21:50:41.692788 13024 layer_factory.hpp:77] Creating layer inception_3b/pool
I0403 21:50:41.692811 13024 net.cpp:91] Creating Layer inception_3b/pool
I0403 21:50:41.692831 13024 net.cpp:425] inception_3b/pool <- inception_3a/output_inception_3a/output_0_split_3
I0403 21:50:41.692854 13024 net.cpp:399] inception_3b/pool -> inception_3b/pool
I0403 21:50:41.692922 13024 net.cpp:141] Setting up inception_3b/pool
I0403 21:50:41.692952 13024 net.cpp:148] Top shape: 24 256 28 28 (4816896)
I0403 21:50:41.692970 13024 net.cpp:156] Memory required for data: 763479072
I0403 21:50:41.692988 13024 layer_factory.hpp:77] Creating layer inception_3b/pool_proj
I0403 21:50:41.693018 13024 net.cpp:91] Creating Layer inception_3b/pool_proj
I0403 21:50:41.693042 13024 net.cpp:425] inception_3b/pool_proj <- inception_3b/pool
I0403 21:50:41.693064 13024 net.cpp:399] inception_3b/pool_proj -> inception_3b/pool_proj
I0403 21:50:41.694375 13024 net.cpp:141] Setting up inception_3b/pool_proj
I0403 21:50:41.694409 13024 net.cpp:148] Top shape: 24 64 28 28 (1204224)
I0403 21:50:41.694429 13024 net.cpp:156] Memory required for data: 768295968
I0403 21:50:41.694452 13024 layer_factory.hpp:77] Creating layer inception_3b/relu_pool_proj
I0403 21:50:41.694478 13024 net.cpp:91] Creating Layer inception_3b/relu_pool_proj
I0403 21:50:41.694499 13024 net.cpp:425] inception_3b/relu_pool_proj <- inception_3b/pool_proj
I0403 21:50:41.694520 13024 net.cpp:386] inception_3b/relu_pool_proj -> inception_3b/pool_proj (in-place)
I0403 21:50:41.694975 13024 net.cpp:141] Setting up inception_3b/relu_pool_proj
I0403 21:50:41.695008 13024 net.cpp:148] Top shape: 24 64 28 28 (1204224)
I0403 21:50:41.695027 13024 net.cpp:156] Memory required for data: 773112864
I0403 21:50:41.695046 13024 layer_factory.hpp:77] Creating layer inception_3b/output
I0403 21:50:41.695071 13024 net.cpp:91] Creating Layer inception_3b/output
I0403 21:50:41.695092 13024 net.cpp:425] inception_3b/output <- inception_3b/1x1
I0403 21:50:41.695116 13024 net.cpp:425] inception_3b/output <- inception_3b/3x3
I0403 21:50:41.695137 13024 net.cpp:425] inception_3b/output <- inception_3b/5x5
I0403 21:50:41.695157 13024 net.cpp:425] inception_3b/output <- inception_3b/pool_proj
I0403 21:50:41.695178 13024 net.cpp:399] inception_3b/output -> inception_3b/output
I0403 21:50:41.695238 13024 net.cpp:141] Setting up inception_3b/output
I0403 21:50:41.695269 13024 net.cpp:148] Top shape: 24 480 28 28 (9031680)
I0403 21:50:41.695287 13024 net.cpp:156] Memory required for data: 809239584
I0403 21:50:41.695307 13024 layer_factory.hpp:77] Creating layer pool3/3x3_s2
I0403 21:50:41.695328 13024 net.cpp:91] Creating Layer pool3/3x3_s2
I0403 21:50:41.695348 13024 net.cpp:425] pool3/3x3_s2 <- inception_3b/output
I0403 21:50:41.695374 13024 net.cpp:399] pool3/3x3_s2 -> pool3/3x3_s2
I0403 21:50:41.695461 13024 net.cpp:141] Setting up pool3/3x3_s2
I0403 21:50:41.695492 13024 net.cpp:148] Top shape: 24 480 14 14 (2257920)
I0403 21:50:41.695513 13024 net.cpp:156] Memory required for data: 818271264
I0403 21:50:41.695530 13024 layer_factory.hpp:77] Creating layer pool3/3x3_s2_pool3/3x3_s2_0_split
I0403 21:50:41.695551 13024 net.cpp:91] Creating Layer pool3/3x3_s2_pool3/3x3_s2_0_split
I0403 21:50:41.695571 13024 net.cpp:425] pool3/3x3_s2_pool3/3x3_s2_0_split <- pool3/3x3_s2
I0403 21:50:41.695592 13024 net.cpp:399] pool3/3x3_s2_pool3/3x3_s2_0_split -> pool3/3x3_s2_pool3/3x3_s2_0_split_0
I0403 21:50:41.695616 13024 net.cpp:399] pool3/3x3_s2_pool3/3x3_s2_0_split -> pool3/3x3_s2_pool3/3x3_s2_0_split_1
I0403 21:50:41.695642 13024 net.cpp:399] pool3/3x3_s2_pool3/3x3_s2_0_split -> pool3/3x3_s2_pool3/3x3_s2_0_split_2
I0403 21:50:41.695667 13024 net.cpp:399] pool3/3x3_s2_pool3/3x3_s2_0_split -> pool3/3x3_s2_pool3/3x3_s2_0_split_3
I0403 21:50:41.695761 13024 net.cpp:141] Setting up pool3/3x3_s2_pool3/3x3_s2_0_split
I0403 21:50:41.695790 13024 net.cpp:148] Top shape: 24 480 14 14 (2257920)
I0403 21:50:41.695809 13024 net.cpp:148] Top shape: 24 480 14 14 (2257920)
I0403 21:50:41.695830 13024 net.cpp:148] Top shape: 24 480 14 14 (2257920)
I0403 21:50:41.695849 13024 net.cpp:148] Top shape: 24 480 14 14 (2257920)
I0403 21:50:41.695868 13024 net.cpp:156] Memory required for data: 854397984
I0403 21:50:41.695885 13024 layer_factory.hpp:77] Creating layer inception_4a/1x1
I0403 21:50:41.695914 13024 net.cpp:91] Creating Layer inception_4a/1x1
I0403 21:50:41.695935 13024 net.cpp:425] inception_4a/1x1 <- pool3/3x3_s2_pool3/3x3_s2_0_split_0
I0403 21:50:41.695962 13024 net.cpp:399] inception_4a/1x1 -> inception_4a/1x1
I0403 21:50:41.697908 13024 net.cpp:141] Setting up inception_4a/1x1
I0403 21:50:41.697943 13024 net.cpp:148] Top shape: 24 192 14 14 (903168)
I0403 21:50:41.697963 13024 net.cpp:156] Memory required for data: 858010656
I0403 21:50:41.697986 13024 layer_factory.hpp:77] Creating layer inception_4a/relu_1x1
I0403 21:50:41.698010 13024 net.cpp:91] Creating Layer inception_4a/relu_1x1
I0403 21:50:41.698031 13024 net.cpp:425] inception_4a/relu_1x1 <- inception_4a/1x1
I0403 21:50:41.698055 13024 net.cpp:386] inception_4a/relu_1x1 -> inception_4a/1x1 (in-place)
I0403 21:50:41.698282 13024 net.cpp:141] Setting up inception_4a/relu_1x1
I0403 21:50:41.698312 13024 net.cpp:148] Top shape: 24 192 14 14 (903168)
I0403 21:50:41.698331 13024 net.cpp:156] Memory required for data: 861623328
I0403 21:50:41.698350 13024 layer_factory.hpp:77] Creating layer inception_4a/3x3_reduce
I0403 21:50:41.698379 13024 net.cpp:91] Creating Layer inception_4a/3x3_reduce
I0403 21:50:41.698400 13024 net.cpp:425] inception_4a/3x3_reduce <- pool3/3x3_s2_pool3/3x3_s2_0_split_1
I0403 21:50:41.698427 13024 net.cpp:399] inception_4a/3x3_reduce -> inception_4a/3x3_reduce
I0403 21:50:41.699998 13024 net.cpp:141] Setting up inception_4a/3x3_reduce
I0403 21:50:41.700039 13024 net.cpp:148] Top shape: 24 96 14 14 (451584)
I0403 21:50:41.700060 13024 net.cpp:156] Memory required for data: 863429664
I0403 21:50:41.700089 13024 layer_factory.hpp:77] Creating layer inception_4a/relu_3x3_reduce
I0403 21:50:41.700116 13024 net.cpp:91] Creating Layer inception_4a/relu_3x3_reduce
I0403 21:50:41.700137 13024 net.cpp:425] inception_4a/relu_3x3_reduce <- inception_4a/3x3_reduce
I0403 21:50:41.700160 13024 net.cpp:386] inception_4a/relu_3x3_reduce -> inception_4a/3x3_reduce (in-place)
I0403 21:50:41.700387 13024 net.cpp:141] Setting up inception_4a/relu_3x3_reduce
I0403 21:50:41.700420 13024 net.cpp:148] Top shape: 24 96 14 14 (451584)
I0403 21:50:41.700439 13024 net.cpp:156] Memory required for data: 865236000
I0403 21:50:41.700459 13024 layer_factory.hpp:77] Creating layer inception_4a/3x3
I0403 21:50:41.700486 13024 net.cpp:91] Creating Layer inception_4a/3x3
I0403 21:50:41.700508 13024 net.cpp:425] inception_4a/3x3 <- inception_4a/3x3_reduce
I0403 21:50:41.700534 13024 net.cpp:399] inception_4a/3x3 -> inception_4a/3x3
I0403 21:50:41.703827 13024 net.cpp:141] Setting up inception_4a/3x3
I0403 21:50:41.703868 13024 net.cpp:148] Top shape: 24 208 14 14 (978432)
I0403 21:50:41.703891 13024 net.cpp:156] Memory required for data: 869149728
I0403 21:50:41.703914 13024 layer_factory.hpp:77] Creating layer inception_4a/relu_3x3
I0403 21:50:41.703938 13024 net.cpp:91] Creating Layer inception_4a/relu_3x3
I0403 21:50:41.703958 13024 net.cpp:425] inception_4a/relu_3x3 <- inception_4a/3x3
I0403 21:50:41.703982 13024 net.cpp:386] inception_4a/relu_3x3 -> inception_4a/3x3 (in-place)
I0403 21:50:41.704330 13024 net.cpp:141] Setting up inception_4a/relu_3x3
I0403 21:50:41.704366 13024 net.cpp:148] Top shape: 24 208 14 14 (978432)
I0403 21:50:41.704387 13024 net.cpp:156] Memory required for data: 873063456
I0403 21:50:41.704406 13024 layer_factory.hpp:77] Creating layer inception_4a/5x5_reduce
I0403 21:50:41.704437 13024 net.cpp:91] Creating Layer inception_4a/5x5_reduce
I0403 21:50:41.704459 13024 net.cpp:425] inception_4a/5x5_reduce <- pool3/3x3_s2_pool3/3x3_s2_0_split_2
I0403 21:50:41.704483 13024 net.cpp:399] inception_4a/5x5_reduce -> inception_4a/5x5_reduce
I0403 21:50:41.705739 13024 net.cpp:141] Setting up inception_4a/5x5_reduce
I0403 21:50:41.705775 13024 net.cpp:148] Top shape: 24 16 14 14 (75264)
I0403 21:50:41.705796 13024 net.cpp:156] Memory required for data: 873364512
I0403 21:50:41.705819 13024 layer_factory.hpp:77] Creating layer inception_4a/relu_5x5_reduce
I0403 21:50:41.705842 13024 net.cpp:91] Creating Layer inception_4a/relu_5x5_reduce
I0403 21:50:41.705862 13024 net.cpp:425] inception_4a/relu_5x5_reduce <- inception_4a/5x5_reduce
I0403 21:50:41.705888 13024 net.cpp:386] inception_4a/relu_5x5_reduce -> inception_4a/5x5_reduce (in-place)
I0403 21:50:41.706110 13024 net.cpp:141] Setting up inception_4a/relu_5x5_reduce
I0403 21:50:41.706142 13024 net.cpp:148] Top shape: 24 16 14 14 (75264)
I0403 21:50:41.706161 13024 net.cpp:156] Memory required for data: 873665568
I0403 21:50:41.706178 13024 layer_factory.hpp:77] Creating layer inception_4a/5x5
I0403 21:50:41.706207 13024 net.cpp:91] Creating Layer inception_4a/5x5
I0403 21:50:41.706234 13024 net.cpp:425] inception_4a/5x5 <- inception_4a/5x5_reduce
I0403 21:50:41.706264 13024 net.cpp:399] inception_4a/5x5 -> inception_4a/5x5
I0403 21:50:41.707600 13024 net.cpp:141] Setting up inception_4a/5x5
I0403 21:50:41.707635 13024 net.cpp:148] Top shape: 24 48 14 14 (225792)
I0403 21:50:41.707655 13024 net.cpp:156] Memory required for data: 874568736
I0403 21:50:41.707679 13024 layer_factory.hpp:77] Creating layer inception_4a/relu_5x5
I0403 21:50:41.707705 13024 net.cpp:91] Creating Layer inception_4a/relu_5x5
I0403 21:50:41.707726 13024 net.cpp:425] inception_4a/relu_5x5 <- inception_4a/5x5
I0403 21:50:41.707748 13024 net.cpp:386] inception_4a/relu_5x5 -> inception_4a/5x5 (in-place)
I0403 21:50:41.707970 13024 net.cpp:141] Setting up inception_4a/relu_5x5
I0403 21:50:41.708005 13024 net.cpp:148] Top shape: 24 48 14 14 (225792)
I0403 21:50:41.708025 13024 net.cpp:156] Memory required for data: 875471904
I0403 21:50:41.708044 13024 layer_factory.hpp:77] Creating layer inception_4a/pool
I0403 21:50:41.708065 13024 net.cpp:91] Creating Layer inception_4a/pool
I0403 21:50:41.708086 13024 net.cpp:425] inception_4a/pool <- pool3/3x3_s2_pool3/3x3_s2_0_split_3
I0403 21:50:41.708117 13024 net.cpp:399] inception_4a/pool -> inception_4a/pool
I0403 21:50:41.708194 13024 net.cpp:141] Setting up inception_4a/pool
I0403 21:50:41.708230 13024 net.cpp:148] Top shape: 24 480 14 14 (2257920)
I0403 21:50:41.708248 13024 net.cpp:156] Memory required for data: 884503584
I0403 21:50:41.708266 13024 layer_factory.hpp:77] Creating layer inception_4a/pool_proj
I0403 21:50:41.708295 13024 net.cpp:91] Creating Layer inception_4a/pool_proj
I0403 21:50:41.708317 13024 net.cpp:425] inception_4a/pool_proj <- inception_4a/pool
I0403 21:50:41.708344 13024 net.cpp:399] inception_4a/pool_proj -> inception_4a/pool_proj
I0403 21:50:41.709774 13024 net.cpp:141] Setting up inception_4a/pool_proj
I0403 21:50:41.709811 13024 net.cpp:148] Top shape: 24 64 14 14 (301056)
I0403 21:50:41.709856 13024 net.cpp:156] Memory required for data: 885707808
I0403 21:50:41.709879 13024 layer_factory.hpp:77] Creating layer inception_4a/relu_pool_proj
I0403 21:50:41.709904 13024 net.cpp:91] Creating Layer inception_4a/relu_pool_proj
I0403 21:50:41.709924 13024 net.cpp:425] inception_4a/relu_pool_proj <- inception_4a/pool_proj
I0403 21:50:41.709946 13024 net.cpp:386] inception_4a/relu_pool_proj -> inception_4a/pool_proj (in-place)
I0403 21:50:41.710291 13024 net.cpp:141] Setting up inception_4a/relu_pool_proj
I0403 21:50:41.710325 13024 net.cpp:148] Top shape: 24 64 14 14 (301056)
I0403 21:50:41.710346 13024 net.cpp:156] Memory required for data: 886912032
I0403 21:50:41.710366 13024 layer_factory.hpp:77] Creating layer inception_4a/output
I0403 21:50:41.710388 13024 net.cpp:91] Creating Layer inception_4a/output
I0403 21:50:41.710407 13024 net.cpp:425] inception_4a/output <- inception_4a/1x1
I0403 21:50:41.710428 13024 net.cpp:425] inception_4a/output <- inception_4a/3x3
I0403 21:50:41.710448 13024 net.cpp:425] inception_4a/output <- inception_4a/5x5
I0403 21:50:41.710467 13024 net.cpp:425] inception_4a/output <- inception_4a/pool_proj
I0403 21:50:41.710489 13024 net.cpp:399] inception_4a/output -> inception_4a/output
I0403 21:50:41.710546 13024 net.cpp:141] Setting up inception_4a/output
I0403 21:50:41.710575 13024 net.cpp:148] Top shape: 24 512 14 14 (2408448)
I0403 21:50:41.710593 13024 net.cpp:156] Memory required for data: 896545824
I0403 21:50:41.710611 13024 layer_factory.hpp:77] Creating layer inception_4a/output_inception_4a/output_0_split
I0403 21:50:41.710634 13024 net.cpp:91] Creating Layer inception_4a/output_inception_4a/output_0_split
I0403 21:50:41.710657 13024 net.cpp:425] inception_4a/output_inception_4a/output_0_split <- inception_4a/output
I0403 21:50:41.710680 13024 net.cpp:399] inception_4a/output_inception_4a/output_0_split -> inception_4a/output_inception_4a/output_0_split_0
I0403 21:50:41.710705 13024 net.cpp:399] inception_4a/output_inception_4a/output_0_split -> inception_4a/output_inception_4a/output_0_split_1
I0403 21:50:41.710731 13024 net.cpp:399] inception_4a/output_inception_4a/output_0_split -> inception_4a/output_inception_4a/output_0_split_2
I0403 21:50:41.710755 13024 net.cpp:399] inception_4a/output_inception_4a/output_0_split -> inception_4a/output_inception_4a/output_0_split_3
I0403 21:50:41.710779 13024 net.cpp:399] inception_4a/output_inception_4a/output_0_split -> inception_4a/output_inception_4a/output_0_split_4
I0403 21:50:41.710896 13024 net.cpp:141] Setting up inception_4a/output_inception_4a/output_0_split
I0403 21:50:41.710925 13024 net.cpp:148] Top shape: 24 512 14 14 (2408448)
I0403 21:50:41.710947 13024 net.cpp:148] Top shape: 24 512 14 14 (2408448)
I0403 21:50:41.710965 13024 net.cpp:148] Top shape: 24 512 14 14 (2408448)
I0403 21:50:41.710985 13024 net.cpp:148] Top shape: 24 512 14 14 (2408448)
I0403 21:50:41.711004 13024 net.cpp:148] Top shape: 24 512 14 14 (2408448)
I0403 21:50:41.711020 13024 net.cpp:156] Memory required for data: 944714784
I0403 21:50:41.711040 13024 layer_factory.hpp:77] Creating layer loss1/ave_pool
I0403 21:50:41.711061 13024 net.cpp:91] Creating Layer loss1/ave_pool
I0403 21:50:41.711081 13024 net.cpp:425] loss1/ave_pool <- inception_4a/output_inception_4a/output_0_split_0
I0403 21:50:41.711107 13024 net.cpp:399] loss1/ave_pool -> loss1/ave_pool
I0403 21:50:41.711369 13024 net.cpp:141] Setting up loss1/ave_pool
I0403 21:50:41.711405 13024 net.cpp:148] Top shape: 24 512 4 4 (196608)
I0403 21:50:41.711423 13024 net.cpp:156] Memory required for data: 945501216
I0403 21:50:41.711442 13024 layer_factory.hpp:77] Creating layer loss1/conv
I0403 21:50:41.711467 13024 net.cpp:91] Creating Layer loss1/conv
I0403 21:50:41.711488 13024 net.cpp:425] loss1/conv <- loss1/ave_pool
I0403 21:50:41.711513 13024 net.cpp:399] loss1/conv -> loss1/conv
I0403 21:50:41.713274 13024 net.cpp:141] Setting up loss1/conv
I0403 21:50:41.713312 13024 net.cpp:148] Top shape: 24 128 4 4 (49152)
I0403 21:50:41.713335 13024 net.cpp:156] Memory required for data: 945697824
I0403 21:50:41.713374 13024 layer_factory.hpp:77] Creating layer loss1/relu_conv
I0403 21:50:41.713398 13024 net.cpp:91] Creating Layer loss1/relu_conv
I0403 21:50:41.713418 13024 net.cpp:425] loss1/relu_conv <- loss1/conv
I0403 21:50:41.713441 13024 net.cpp:386] loss1/relu_conv -> loss1/conv (in-place)
I0403 21:50:41.713788 13024 net.cpp:141] Setting up loss1/relu_conv
I0403 21:50:41.713824 13024 net.cpp:148] Top shape: 24 128 4 4 (49152)
I0403 21:50:41.713845 13024 net.cpp:156] Memory required for data: 945894432
I0403 21:50:41.713865 13024 layer_factory.hpp:77] Creating layer loss1/fc
I0403 21:50:41.713894 13024 net.cpp:91] Creating Layer loss1/fc
I0403 21:50:41.713917 13024 net.cpp:425] loss1/fc <- loss1/conv
I0403 21:50:41.713943 13024 net.cpp:399] loss1/fc -> loss1/fc
I0403 21:50:41.736157 13024 net.cpp:141] Setting up loss1/fc
I0403 21:50:41.736202 13024 net.cpp:148] Top shape: 24 1024 (24576)
I0403 21:50:41.736227 13024 net.cpp:156] Memory required for data: 945992736
I0403 21:50:41.736253 13024 layer_factory.hpp:77] Creating layer loss1/relu_fc
I0403 21:50:41.736277 13024 net.cpp:91] Creating Layer loss1/relu_fc
I0403 21:50:41.736299 13024 net.cpp:425] loss1/relu_fc <- loss1/fc
I0403 21:50:41.736321 13024 net.cpp:386] loss1/relu_fc -> loss1/fc (in-place)
I0403 21:50:41.736552 13024 net.cpp:141] Setting up loss1/relu_fc
I0403 21:50:41.736584 13024 net.cpp:148] Top shape: 24 1024 (24576)
I0403 21:50:41.736604 13024 net.cpp:156] Memory required for data: 946091040
I0403 21:50:41.736624 13024 layer_factory.hpp:77] Creating layer loss1/drop_fc
I0403 21:50:41.736654 13024 net.cpp:91] Creating Layer loss1/drop_fc
I0403 21:50:41.736676 13024 net.cpp:425] loss1/drop_fc <- loss1/fc
I0403 21:50:41.736701 13024 net.cpp:386] loss1/drop_fc -> loss1/fc (in-place)
I0403 21:50:41.736765 13024 net.cpp:141] Setting up loss1/drop_fc
I0403 21:50:41.736794 13024 net.cpp:148] Top shape: 24 1024 (24576)
I0403 21:50:41.736812 13024 net.cpp:156] Memory required for data: 946189344
I0403 21:50:41.736831 13024 layer_factory.hpp:77] Creating layer loss1/classifier_plantvillage
I0403 21:50:41.736860 13024 net.cpp:91] Creating Layer loss1/classifier_plantvillage
I0403 21:50:41.736882 13024 net.cpp:425] loss1/classifier_plantvillage <- loss1/fc
I0403 21:50:41.736906 13024 net.cpp:399] loss1/classifier_plantvillage -> loss1/classifier_plantvillage
I0403 21:50:41.738036 13024 net.cpp:141] Setting up loss1/classifier_plantvillage
I0403 21:50:41.738075 13024 net.cpp:148] Top shape: 24 38 (912)
I0403 21:50:41.738095 13024 net.cpp:156] Memory required for data: 946192992
I0403 21:50:41.738116 13024 layer_factory.hpp:77] Creating layer loss1/classifier_plantvillage_loss1/classifier_plantvillage_0_split
I0403 21:50:41.738139 13024 net.cpp:91] Creating Layer loss1/classifier_plantvillage_loss1/classifier_plantvillage_0_split
I0403 21:50:41.738160 13024 net.cpp:425] loss1/classifier_plantvillage_loss1/classifier_plantvillage_0_split <- loss1/classifier_plantvillage
I0403 21:50:41.738183 13024 net.cpp:399] loss1/classifier_plantvillage_loss1/classifier_plantvillage_0_split -> loss1/classifier_plantvillage_loss1/classifier_plantvillage_0_split_0
I0403 21:50:41.738216 13024 net.cpp:399] loss1/classifier_plantvillage_loss1/classifier_plantvillage_0_split -> loss1/classifier_plantvillage_loss1/classifier_plantvillage_0_split_1
I0403 21:50:41.738245 13024 net.cpp:399] loss1/classifier_plantvillage_loss1/classifier_plantvillage_0_split -> loss1/classifier_plantvillage_loss1/classifier_plantvillage_0_split_2
I0403 21:50:41.738327 13024 net.cpp:141] Setting up loss1/classifier_plantvillage_loss1/classifier_plantvillage_0_split
I0403 21:50:41.738355 13024 net.cpp:148] Top shape: 24 38 (912)
I0403 21:50:41.738374 13024 net.cpp:148] Top shape: 24 38 (912)
I0403 21:50:41.738394 13024 net.cpp:148] Top shape: 24 38 (912)
I0403 21:50:41.738414 13024 net.cpp:156] Memory required for data: 946203936
I0403 21:50:41.738432 13024 layer_factory.hpp:77] Creating layer inception_4b/1x1
I0403 21:50:41.738461 13024 net.cpp:91] Creating Layer inception_4b/1x1
I0403 21:50:41.738502 13024 net.cpp:425] inception_4b/1x1 <- inception_4a/output_inception_4a/output_0_split_1
I0403 21:50:41.738528 13024 net.cpp:399] inception_4b/1x1 -> inception_4b/1x1
I0403 21:50:41.740525 13024 net.cpp:141] Setting up inception_4b/1x1
I0403 21:50:41.740558 13024 net.cpp:148] Top shape: 24 160 14 14 (752640)
I0403 21:50:41.740578 13024 net.cpp:156] Memory required for data: 949214496
I0403 21:50:41.740600 13024 layer_factory.hpp:77] Creating layer inception_4b/relu_1x1
I0403 21:50:41.740623 13024 net.cpp:91] Creating Layer inception_4b/relu_1x1
I0403 21:50:41.740643 13024 net.cpp:425] inception_4b/relu_1x1 <- inception_4b/1x1
I0403 21:50:41.740669 13024 net.cpp:386] inception_4b/relu_1x1 -> inception_4b/1x1 (in-place)
I0403 21:50:41.740892 13024 net.cpp:141] Setting up inception_4b/relu_1x1
I0403 21:50:41.740924 13024 net.cpp:148] Top shape: 24 160 14 14 (752640)
I0403 21:50:41.740942 13024 net.cpp:156] Memory required for data: 952225056
I0403 21:50:41.740960 13024 layer_factory.hpp:77] Creating layer inception_4b/3x3_reduce
I0403 21:50:41.740989 13024 net.cpp:91] Creating Layer inception_4b/3x3_reduce
I0403 21:50:41.741013 13024 net.cpp:425] inception_4b/3x3_reduce <- inception_4a/output_inception_4a/output_0_split_2
I0403 21:50:41.741039 13024 net.cpp:399] inception_4b/3x3_reduce -> inception_4b/3x3_reduce
I0403 21:50:41.742724 13024 net.cpp:141] Setting up inception_4b/3x3_reduce
I0403 21:50:41.742758 13024 net.cpp:148] Top shape: 24 112 14 14 (526848)
I0403 21:50:41.742777 13024 net.cpp:156] Memory required for data: 954332448
I0403 21:50:41.742800 13024 layer_factory.hpp:77] Creating layer inception_4b/relu_3x3_reduce
I0403 21:50:41.742826 13024 net.cpp:91] Creating Layer inception_4b/relu_3x3_reduce
I0403 21:50:41.742847 13024 net.cpp:425] inception_4b/relu_3x3_reduce <- inception_4b/3x3_reduce
I0403 21:50:41.742871 13024 net.cpp:386] inception_4b/relu_3x3_reduce -> inception_4b/3x3_reduce (in-place)
I0403 21:50:41.743218 13024 net.cpp:141] Setting up inception_4b/relu_3x3_reduce
I0403 21:50:41.743252 13024 net.cpp:148] Top shape: 24 112 14 14 (526848)
I0403 21:50:41.743271 13024 net.cpp:156] Memory required for data: 956439840
I0403 21:50:41.743290 13024 layer_factory.hpp:77] Creating layer inception_4b/3x3
I0403 21:50:41.743319 13024 net.cpp:91] Creating Layer inception_4b/3x3
I0403 21:50:41.743341 13024 net.cpp:425] inception_4b/3x3 <- inception_4b/3x3_reduce
I0403 21:50:41.743367 13024 net.cpp:399] inception_4b/3x3 -> inception_4b/3x3
I0403 21:50:41.747022 13024 net.cpp:141] Setting up inception_4b/3x3
I0403 21:50:41.747058 13024 net.cpp:148] Top shape: 24 224 14 14 (1053696)
I0403 21:50:41.747077 13024 net.cpp:156] Memory required for data: 960654624
I0403 21:50:41.747100 13024 layer_factory.hpp:77] Creating layer inception_4b/relu_3x3
I0403 21:50:41.747126 13024 net.cpp:91] Creating Layer inception_4b/relu_3x3
I0403 21:50:41.747148 13024 net.cpp:425] inception_4b/relu_3x3 <- inception_4b/3x3
I0403 21:50:41.747170 13024 net.cpp:386] inception_4b/relu_3x3 -> inception_4b/3x3 (in-place)
I0403 21:50:41.747411 13024 net.cpp:141] Setting up inception_4b/relu_3x3
I0403 21:50:41.747442 13024 net.cpp:148] Top shape: 24 224 14 14 (1053696)
I0403 21:50:41.747460 13024 net.cpp:156] Memory required for data: 964869408
I0403 21:50:41.747479 13024 layer_factory.hpp:77] Creating layer inception_4b/5x5_reduce
I0403 21:50:41.747508 13024 net.cpp:91] Creating Layer inception_4b/5x5_reduce
I0403 21:50:41.747531 13024 net.cpp:425] inception_4b/5x5_reduce <- inception_4a/output_inception_4a/output_0_split_3
I0403 21:50:41.747558 13024 net.cpp:399] inception_4b/5x5_reduce -> inception_4b/5x5_reduce
I0403 21:50:41.748893 13024 net.cpp:141] Setting up inception_4b/5x5_reduce
I0403 21:50:41.748929 13024 net.cpp:148] Top shape: 24 24 14 14 (112896)
I0403 21:50:41.748949 13024 net.cpp:156] Memory required for data: 965320992
I0403 21:50:41.748972 13024 layer_factory.hpp:77] Creating layer inception_4b/relu_5x5_reduce
I0403 21:50:41.748996 13024 net.cpp:91] Creating Layer inception_4b/relu_5x5_reduce
I0403 21:50:41.749032 13024 net.cpp:425] inception_4b/relu_5x5_reduce <- inception_4b/5x5_reduce
I0403 21:50:41.749058 13024 net.cpp:386] inception_4b/relu_5x5_reduce -> inception_4b/5x5_reduce (in-place)
I0403 21:50:41.749292 13024 net.cpp:141] Setting up inception_4b/relu_5x5_reduce
I0403 21:50:41.749323 13024 net.cpp:148] Top shape: 24 24 14 14 (112896)
I0403 21:50:41.749342 13024 net.cpp:156] Memory required for data: 965772576
I0403 21:50:41.749362 13024 layer_factory.hpp:77] Creating layer inception_4b/5x5
I0403 21:50:41.749390 13024 net.cpp:91] Creating Layer inception_4b/5x5
I0403 21:50:41.749413 13024 net.cpp:425] inception_4b/5x5 <- inception_4b/5x5_reduce
I0403 21:50:41.749439 13024 net.cpp:399] inception_4b/5x5 -> inception_4b/5x5
I0403 21:50:41.750951 13024 net.cpp:141] Setting up inception_4b/5x5
I0403 21:50:41.750984 13024 net.cpp:148] Top shape: 24 64 14 14 (301056)
I0403 21:50:41.751003 13024 net.cpp:156] Memory required for data: 966976800
I0403 21:50:41.751026 13024 layer_factory.hpp:77] Creating layer inception_4b/relu_5x5
I0403 21:50:41.751049 13024 net.cpp:91] Creating Layer inception_4b/relu_5x5
I0403 21:50:41.751068 13024 net.cpp:425] inception_4b/relu_5x5 <- inception_4b/5x5
I0403 21:50:41.751094 13024 net.cpp:386] inception_4b/relu_5x5 -> inception_4b/5x5 (in-place)
I0403 21:50:41.751448 13024 net.cpp:141] Setting up inception_4b/relu_5x5
I0403 21:50:41.751482 13024 net.cpp:148] Top shape: 24 64 14 14 (301056)
I0403 21:50:41.751500 13024 net.cpp:156] Memory required for data: 968181024
I0403 21:50:41.751518 13024 layer_factory.hpp:77] Creating layer inception_4b/pool
I0403 21:50:41.751539 13024 net.cpp:91] Creating Layer inception_4b/pool
I0403 21:50:41.751560 13024 net.cpp:425] inception_4b/pool <- inception_4a/output_inception_4a/output_0_split_4
I0403 21:50:41.751591 13024 net.cpp:399] inception_4b/pool -> inception_4b/pool
I0403 21:50:41.751672 13024 net.cpp:141] Setting up inception_4b/pool
I0403 21:50:41.751705 13024 net.cpp:148] Top shape: 24 512 14 14 (2408448)
I0403 21:50:41.751724 13024 net.cpp:156] Memory required for data: 977814816
I0403 21:50:41.751741 13024 layer_factory.hpp:77] Creating layer inception_4b/pool_proj
I0403 21:50:41.751770 13024 net.cpp:91] Creating Layer inception_4b/pool_proj
I0403 21:50:41.751791 13024 net.cpp:425] inception_4b/pool_proj <- inception_4b/pool
I0403 21:50:41.751814 13024 net.cpp:399] inception_4b/pool_proj -> inception_4b/pool_proj
I0403 21:50:41.753316 13024 net.cpp:141] Setting up inception_4b/pool_proj
I0403 21:50:41.753351 13024 net.cpp:148] Top shape: 24 64 14 14 (301056)
I0403 21:50:41.753371 13024 net.cpp:156] Memory required for data: 979019040
I0403 21:50:41.753393 13024 layer_factory.hpp:77] Creating layer inception_4b/relu_pool_proj
I0403 21:50:41.753418 13024 net.cpp:91] Creating Layer inception_4b/relu_pool_proj
I0403 21:50:41.753442 13024 net.cpp:425] inception_4b/relu_pool_proj <- inception_4b/pool_proj
I0403 21:50:41.753463 13024 net.cpp:386] inception_4b/relu_pool_proj -> inception_4b/pool_proj (in-place)
I0403 21:50:41.753689 13024 net.cpp:141] Setting up inception_4b/relu_pool_proj
I0403 21:50:41.753720 13024 net.cpp:148] Top shape: 24 64 14 14 (301056)
I0403 21:50:41.753737 13024 net.cpp:156] Memory required for data: 980223264
I0403 21:50:41.753756 13024 layer_factory.hpp:77] Creating layer inception_4b/output
I0403 21:50:41.753782 13024 net.cpp:91] Creating Layer inception_4b/output
I0403 21:50:41.753801 13024 net.cpp:425] inception_4b/output <- inception_4b/1x1
I0403 21:50:41.753821 13024 net.cpp:425] inception_4b/output <- inception_4b/3x3
I0403 21:50:41.753841 13024 net.cpp:425] inception_4b/output <- inception_4b/5x5
I0403 21:50:41.753860 13024 net.cpp:425] inception_4b/output <- inception_4b/pool_proj
I0403 21:50:41.753881 13024 net.cpp:399] inception_4b/output -> inception_4b/output
I0403 21:50:41.753940 13024 net.cpp:141] Setting up inception_4b/output
I0403 21:50:41.753969 13024 net.cpp:148] Top shape: 24 512 14 14 (2408448)
I0403 21:50:41.753988 13024 net.cpp:156] Memory required for data: 989857056
I0403 21:50:41.754022 13024 layer_factory.hpp:77] Creating layer inception_4b/output_inception_4b/output_0_split
I0403 21:50:41.754045 13024 net.cpp:91] Creating Layer inception_4b/output_inception_4b/output_0_split
I0403 21:50:41.754065 13024 net.cpp:425] inception_4b/output_inception_4b/output_0_split <- inception_4b/output
I0403 21:50:41.754091 13024 net.cpp:399] inception_4b/output_inception_4b/output_0_split -> inception_4b/output_inception_4b/output_0_split_0
I0403 21:50:41.754118 13024 net.cpp:399] inception_4b/output_inception_4b/output_0_split -> inception_4b/output_inception_4b/output_0_split_1
I0403 21:50:41.754143 13024 net.cpp:399] inception_4b/output_inception_4b/output_0_split -> inception_4b/output_inception_4b/output_0_split_2
I0403 21:50:41.754168 13024 net.cpp:399] inception_4b/output_inception_4b/output_0_split -> inception_4b/output_inception_4b/output_0_split_3
I0403 21:50:41.754279 13024 net.cpp:141] Setting up inception_4b/output_inception_4b/output_0_split
I0403 21:50:41.754312 13024 net.cpp:148] Top shape: 24 512 14 14 (2408448)
I0403 21:50:41.754333 13024 net.cpp:148] Top shape: 24 512 14 14 (2408448)
I0403 21:50:41.754353 13024 net.cpp:148] Top shape: 24 512 14 14 (2408448)
I0403 21:50:41.754372 13024 net.cpp:148] Top shape: 24 512 14 14 (2408448)
I0403 21:50:41.754390 13024 net.cpp:156] Memory required for data: 1028392224
I0403 21:50:41.754410 13024 layer_factory.hpp:77] Creating layer inception_4c/1x1
I0403 21:50:41.754436 13024 net.cpp:91] Creating Layer inception_4c/1x1
I0403 21:50:41.754459 13024 net.cpp:425] inception_4c/1x1 <- inception_4b/output_inception_4b/output_0_split_0
I0403 21:50:41.754482 13024 net.cpp:399] inception_4c/1x1 -> inception_4c/1x1
I0403 21:50:41.756252 13024 net.cpp:141] Setting up inception_4c/1x1
I0403 21:50:41.756286 13024 net.cpp:148] Top shape: 24 128 14 14 (602112)
I0403 21:50:41.756305 13024 net.cpp:156] Memory required for data: 1030800672
I0403 21:50:41.756327 13024 layer_factory.hpp:77] Creating layer inception_4c/relu_1x1
I0403 21:50:41.756356 13024 net.cpp:91] Creating Layer inception_4c/relu_1x1
I0403 21:50:41.756376 13024 net.cpp:425] inception_4c/relu_1x1 <- inception_4c/1x1
I0403 21:50:41.756398 13024 net.cpp:386] inception_4c/relu_1x1 -> inception_4c/1x1 (in-place)
I0403 21:50:41.756623 13024 net.cpp:141] Setting up inception_4c/relu_1x1
I0403 21:50:41.756656 13024 net.cpp:148] Top shape: 24 128 14 14 (602112)
I0403 21:50:41.756675 13024 net.cpp:156] Memory required for data: 1033209120
I0403 21:50:41.756693 13024 layer_factory.hpp:77] Creating layer inception_4c/3x3_reduce
I0403 21:50:41.756721 13024 net.cpp:91] Creating Layer inception_4c/3x3_reduce
I0403 21:50:41.756743 13024 net.cpp:425] inception_4c/3x3_reduce <- inception_4b/output_inception_4b/output_0_split_1
I0403 21:50:41.756770 13024 net.cpp:399] inception_4c/3x3_reduce -> inception_4c/3x3_reduce
I0403 21:50:41.759163 13024 net.cpp:141] Setting up inception_4c/3x3_reduce
I0403 21:50:41.759201 13024 net.cpp:148] Top shape: 24 128 14 14 (602112)
I0403 21:50:41.759227 13024 net.cpp:156] Memory required for data: 1035617568
I0403 21:50:41.759251 13024 layer_factory.hpp:77] Creating layer inception_4c/relu_3x3_reduce
I0403 21:50:41.759274 13024 net.cpp:91] Creating Layer inception_4c/relu_3x3_reduce
I0403 21:50:41.759296 13024 net.cpp:425] inception_4c/relu_3x3_reduce <- inception_4c/3x3_reduce
I0403 21:50:41.759322 13024 net.cpp:386] inception_4c/relu_3x3_reduce -> inception_4c/3x3_reduce (in-place)
I0403 21:50:41.759680 13024 net.cpp:141] Setting up inception_4c/relu_3x3_reduce
I0403 21:50:41.759712 13024 net.cpp:148] Top shape: 24 128 14 14 (602112)
I0403 21:50:41.759730 13024 net.cpp:156] Memory required for data: 1038026016
I0403 21:50:41.759749 13024 layer_factory.hpp:77] Creating layer inception_4c/3x3
I0403 21:50:41.759778 13024 net.cpp:91] Creating Layer inception_4c/3x3
I0403 21:50:41.759800 13024 net.cpp:425] inception_4c/3x3 <- inception_4c/3x3_reduce
I0403 21:50:41.759827 13024 net.cpp:399] inception_4c/3x3 -> inception_4c/3x3
I0403 21:50:41.764246 13024 net.cpp:141] Setting up inception_4c/3x3
I0403 21:50:41.764298 13024 net.cpp:148] Top shape: 24 256 14 14 (1204224)
I0403 21:50:41.764319 13024 net.cpp:156] Memory required for data: 1042842912
I0403 21:50:41.764359 13024 layer_factory.hpp:77] Creating layer inception_4c/relu_3x3
I0403 21:50:41.764384 13024 net.cpp:91] Creating Layer inception_4c/relu_3x3
I0403 21:50:41.764408 13024 net.cpp:425] inception_4c/relu_3x3 <- inception_4c/3x3
I0403 21:50:41.764430 13024 net.cpp:386] inception_4c/relu_3x3 -> inception_4c/3x3 (in-place)
I0403 21:50:41.764660 13024 net.cpp:141] Setting up inception_4c/relu_3x3
I0403 21:50:41.764691 13024 net.cpp:148] Top shape: 24 256 14 14 (1204224)
I0403 21:50:41.764710 13024 net.cpp:156] Memory required for data: 1047659808
I0403 21:50:41.764729 13024 layer_factory.hpp:77] Creating layer inception_4c/5x5_reduce
I0403 21:50:41.764760 13024 net.cpp:91] Creating Layer inception_4c/5x5_reduce
I0403 21:50:41.764781 13024 net.cpp:425] inception_4c/5x5_reduce <- inception_4b/output_inception_4b/output_0_split_2
I0403 21:50:41.764808 13024 net.cpp:399] inception_4c/5x5_reduce -> inception_4c/5x5_reduce
I0403 21:50:41.766162 13024 net.cpp:141] Setting up inception_4c/5x5_reduce
I0403 21:50:41.766198 13024 net.cpp:148] Top shape: 24 24 14 14 (112896)
I0403 21:50:41.766225 13024 net.cpp:156] Memory required for data: 1048111392
I0403 21:50:41.766248 13024 layer_factory.hpp:77] Creating layer inception_4c/relu_5x5_reduce
I0403 21:50:41.766271 13024 net.cpp:91] Creating Layer inception_4c/relu_5x5_reduce
I0403 21:50:41.766293 13024 net.cpp:425] inception_4c/relu_5x5_reduce <- inception_4c/5x5_reduce
I0403 21:50:41.766317 13024 net.cpp:386] inception_4c/relu_5x5_reduce -> inception_4c/5x5_reduce (in-place)
I0403 21:50:41.766552 13024 net.cpp:141] Setting up inception_4c/relu_5x5_reduce
I0403 21:50:41.766583 13024 net.cpp:148] Top shape: 24 24 14 14 (112896)
I0403 21:50:41.766602 13024 net.cpp:156] Memory required for data: 1048562976
I0403 21:50:41.766621 13024 layer_factory.hpp:77] Creating layer inception_4c/5x5
I0403 21:50:41.766649 13024 net.cpp:91] Creating Layer inception_4c/5x5
I0403 21:50:41.766670 13024 net.cpp:425] inception_4c/5x5 <- inception_4c/5x5_reduce
I0403 21:50:41.766696 13024 net.cpp:399] inception_4c/5x5 -> inception_4c/5x5
I0403 21:50:41.768232 13024 net.cpp:141] Setting up inception_4c/5x5
I0403 21:50:41.768266 13024 net.cpp:148] Top shape: 24 64 14 14 (301056)
I0403 21:50:41.768285 13024 net.cpp:156] Memory required for data: 1049767200
I0403 21:50:41.768308 13024 layer_factory.hpp:77] Creating layer inception_4c/relu_5x5
I0403 21:50:41.768333 13024 net.cpp:91] Creating Layer inception_4c/relu_5x5
I0403 21:50:41.768354 13024 net.cpp:425] inception_4c/relu_5x5 <- inception_4c/5x5
I0403 21:50:41.768378 13024 net.cpp:386] inception_4c/relu_5x5 -> inception_4c/5x5 (in-place)
I0403 21:50:41.768726 13024 net.cpp:141] Setting up inception_4c/relu_5x5
I0403 21:50:41.768759 13024 net.cpp:148] Top shape: 24 64 14 14 (301056)
I0403 21:50:41.768779 13024 net.cpp:156] Memory required for data: 1050971424
I0403 21:50:41.768797 13024 layer_factory.hpp:77] Creating layer inception_4c/pool
I0403 21:50:41.768822 13024 net.cpp:91] Creating Layer inception_4c/pool
I0403 21:50:41.768843 13024 net.cpp:425] inception_4c/pool <- inception_4b/output_inception_4b/output_0_split_3
I0403 21:50:41.768867 13024 net.cpp:399] inception_4c/pool -> inception_4c/pool
I0403 21:50:41.768951 13024 net.cpp:141] Setting up inception_4c/pool
I0403 21:50:41.768981 13024 net.cpp:148] Top shape: 24 512 14 14 (2408448)
I0403 21:50:41.769001 13024 net.cpp:156] Memory required for data: 1060605216
I0403 21:50:41.769018 13024 layer_factory.hpp:77] Creating layer inception_4c/pool_proj
I0403 21:50:41.769047 13024 net.cpp:91] Creating Layer inception_4c/pool_proj
I0403 21:50:41.769069 13024 net.cpp:425] inception_4c/pool_proj <- inception_4c/pool
I0403 21:50:41.769098 13024 net.cpp:399] inception_4c/pool_proj -> inception_4c/pool_proj
I0403 21:50:41.770613 13024 net.cpp:141] Setting up inception_4c/pool_proj
I0403 21:50:41.770648 13024 net.cpp:148] Top shape: 24 64 14 14 (301056)
I0403 21:50:41.770690 13024 net.cpp:156] Memory required for data: 1061809440
I0403 21:50:41.770714 13024 layer_factory.hpp:77] Creating layer inception_4c/relu_pool_proj
I0403 21:50:41.770737 13024 net.cpp:91] Creating Layer inception_4c/relu_pool_proj
I0403 21:50:41.770761 13024 net.cpp:425] inception_4c/relu_pool_proj <- inception_4c/pool_proj
I0403 21:50:41.770783 13024 net.cpp:386] inception_4c/relu_pool_proj -> inception_4c/pool_proj (in-place)
I0403 21:50:41.771013 13024 net.cpp:141] Setting up inception_4c/relu_pool_proj
I0403 21:50:41.771044 13024 net.cpp:148] Top shape: 24 64 14 14 (301056)
I0403 21:50:41.771062 13024 net.cpp:156] Memory required for data: 1063013664
I0403 21:50:41.771081 13024 layer_factory.hpp:77] Creating layer inception_4c/output
I0403 21:50:41.771106 13024 net.cpp:91] Creating Layer inception_4c/output
I0403 21:50:41.771126 13024 net.cpp:425] inception_4c/output <- inception_4c/1x1
I0403 21:50:41.771148 13024 net.cpp:425] inception_4c/output <- inception_4c/3x3
I0403 21:50:41.771168 13024 net.cpp:425] inception_4c/output <- inception_4c/5x5
I0403 21:50:41.771188 13024 net.cpp:425] inception_4c/output <- inception_4c/pool_proj
I0403 21:50:41.771216 13024 net.cpp:399] inception_4c/output -> inception_4c/output
I0403 21:50:41.771280 13024 net.cpp:141] Setting up inception_4c/output
I0403 21:50:41.771309 13024 net.cpp:148] Top shape: 24 512 14 14 (2408448)
I0403 21:50:41.771327 13024 net.cpp:156] Memory required for data: 1072647456
I0403 21:50:41.771345 13024 layer_factory.hpp:77] Creating layer inception_4c/output_inception_4c/output_0_split
I0403 21:50:41.771366 13024 net.cpp:91] Creating Layer inception_4c/output_inception_4c/output_0_split
I0403 21:50:41.771386 13024 net.cpp:425] inception_4c/output_inception_4c/output_0_split <- inception_4c/output
I0403 21:50:41.771412 13024 net.cpp:399] inception_4c/output_inception_4c/output_0_split -> inception_4c/output_inception_4c/output_0_split_0
I0403 21:50:41.771440 13024 net.cpp:399] inception_4c/output_inception_4c/output_0_split -> inception_4c/output_inception_4c/output_0_split_1
I0403 21:50:41.771466 13024 net.cpp:399] inception_4c/output_inception_4c/output_0_split -> inception_4c/output_inception_4c/output_0_split_2
I0403 21:50:41.771491 13024 net.cpp:399] inception_4c/output_inception_4c/output_0_split -> inception_4c/output_inception_4c/output_0_split_3
I0403 21:50:41.771598 13024 net.cpp:141] Setting up inception_4c/output_inception_4c/output_0_split
I0403 21:50:41.771631 13024 net.cpp:148] Top shape: 24 512 14 14 (2408448)
I0403 21:50:41.771652 13024 net.cpp:148] Top shape: 24 512 14 14 (2408448)
I0403 21:50:41.771672 13024 net.cpp:148] Top shape: 24 512 14 14 (2408448)
I0403 21:50:41.771692 13024 net.cpp:148] Top shape: 24 512 14 14 (2408448)
I0403 21:50:41.771708 13024 net.cpp:156] Memory required for data: 1111182624
I0403 21:50:41.771726 13024 layer_factory.hpp:77] Creating layer inception_4d/1x1
I0403 21:50:41.771754 13024 net.cpp:91] Creating Layer inception_4d/1x1
I0403 21:50:41.771776 13024 net.cpp:425] inception_4d/1x1 <- inception_4c/output_inception_4c/output_0_split_0
I0403 21:50:41.771800 13024 net.cpp:399] inception_4d/1x1 -> inception_4d/1x1
I0403 21:50:41.773516 13024 net.cpp:141] Setting up inception_4d/1x1
I0403 21:50:41.773553 13024 net.cpp:148] Top shape: 24 112 14 14 (526848)
I0403 21:50:41.773574 13024 net.cpp:156] Memory required for data: 1113290016
I0403 21:50:41.773597 13024 layer_factory.hpp:77] Creating layer inception_4d/relu_1x1
I0403 21:50:41.773620 13024 net.cpp:91] Creating Layer inception_4d/relu_1x1
I0403 21:50:41.773641 13024 net.cpp:425] inception_4d/relu_1x1 <- inception_4d/1x1
I0403 21:50:41.773665 13024 net.cpp:386] inception_4d/relu_1x1 -> inception_4d/1x1 (in-place)
I0403 21:50:41.773897 13024 net.cpp:141] Setting up inception_4d/relu_1x1
I0403 21:50:41.773928 13024 net.cpp:148] Top shape: 24 112 14 14 (526848)
I0403 21:50:41.773947 13024 net.cpp:156] Memory required for data: 1115397408
I0403 21:50:41.773967 13024 layer_factory.hpp:77] Creating layer inception_4d/3x3_reduce
I0403 21:50:41.774013 13024 net.cpp:91] Creating Layer inception_4d/3x3_reduce
I0403 21:50:41.774036 13024 net.cpp:425] inception_4d/3x3_reduce <- inception_4c/output_inception_4c/output_0_split_1
I0403 21:50:41.774062 13024 net.cpp:399] inception_4d/3x3_reduce -> inception_4d/3x3_reduce
I0403 21:50:41.775948 13024 net.cpp:141] Setting up inception_4d/3x3_reduce
I0403 21:50:41.775981 13024 net.cpp:148] Top shape: 24 144 14 14 (677376)
I0403 21:50:41.776000 13024 net.cpp:156] Memory required for data: 1118106912
I0403 21:50:41.776026 13024 layer_factory.hpp:77] Creating layer inception_4d/relu_3x3_reduce
I0403 21:50:41.776051 13024 net.cpp:91] Creating Layer inception_4d/relu_3x3_reduce
I0403 21:50:41.776072 13024 net.cpp:425] inception_4d/relu_3x3_reduce <- inception_4d/3x3_reduce
I0403 21:50:41.776093 13024 net.cpp:386] inception_4d/relu_3x3_reduce -> inception_4d/3x3_reduce (in-place)
I0403 21:50:41.776454 13024 net.cpp:141] Setting up inception_4d/relu_3x3_reduce
I0403 21:50:41.776487 13024 net.cpp:148] Top shape: 24 144 14 14 (677376)
I0403 21:50:41.776505 13024 net.cpp:156] Memory required for data: 1120816416
I0403 21:50:41.776525 13024 layer_factory.hpp:77] Creating layer inception_4d/3x3
I0403 21:50:41.776553 13024 net.cpp:91] Creating Layer inception_4d/3x3
I0403 21:50:41.776574 13024 net.cpp:425] inception_4d/3x3 <- inception_4d/3x3_reduce
I0403 21:50:41.776602 13024 net.cpp:399] inception_4d/3x3 -> inception_4d/3x3
I0403 21:50:41.781926 13024 net.cpp:141] Setting up inception_4d/3x3
I0403 21:50:41.781967 13024 net.cpp:148] Top shape: 24 288 14 14 (1354752)
I0403 21:50:41.781988 13024 net.cpp:156] Memory required for data: 1126235424
I0403 21:50:41.782012 13024 layer_factory.hpp:77] Creating layer inception_4d/relu_3x3
I0403 21:50:41.782037 13024 net.cpp:91] Creating Layer inception_4d/relu_3x3
I0403 21:50:41.782057 13024 net.cpp:425] inception_4d/relu_3x3 <- inception_4d/3x3
I0403 21:50:41.782080 13024 net.cpp:386] inception_4d/relu_3x3 -> inception_4d/3x3 (in-place)
I0403 21:50:41.782330 13024 net.cpp:141] Setting up inception_4d/relu_3x3
I0403 21:50:41.782362 13024 net.cpp:148] Top shape: 24 288 14 14 (1354752)
I0403 21:50:41.782380 13024 net.cpp:156] Memory required for data: 1131654432
I0403 21:50:41.782397 13024 layer_factory.hpp:77] Creating layer inception_4d/5x5_reduce
I0403 21:50:41.782424 13024 net.cpp:91] Creating Layer inception_4d/5x5_reduce
I0403 21:50:41.782447 13024 net.cpp:425] inception_4d/5x5_reduce <- inception_4c/output_inception_4c/output_0_split_2
I0403 21:50:41.782475 13024 net.cpp:399] inception_4d/5x5_reduce -> inception_4d/5x5_reduce
I0403 21:50:41.783888 13024 net.cpp:141] Setting up inception_4d/5x5_reduce
I0403 21:50:41.783926 13024 net.cpp:148] Top shape: 24 32 14 14 (150528)
I0403 21:50:41.783946 13024 net.cpp:156] Memory required for data: 1132256544
I0403 21:50:41.783968 13024 layer_factory.hpp:77] Creating layer inception_4d/relu_5x5_reduce
I0403 21:50:41.783993 13024 net.cpp:91] Creating Layer inception_4d/relu_5x5_reduce
I0403 21:50:41.784013 13024 net.cpp:425] inception_4d/relu_5x5_reduce <- inception_4d/5x5_reduce
I0403 21:50:41.784039 13024 net.cpp:386] inception_4d/relu_5x5_reduce -> inception_4d/5x5_reduce (in-place)
I0403 21:50:41.784287 13024 net.cpp:141] Setting up inception_4d/relu_5x5_reduce
I0403 21:50:41.784318 13024 net.cpp:148] Top shape: 24 32 14 14 (150528)
I0403 21:50:41.784337 13024 net.cpp:156] Memory required for data: 1132858656
I0403 21:50:41.784355 13024 layer_factory.hpp:77] Creating layer inception_4d/5x5
I0403 21:50:41.784382 13024 net.cpp:91] Creating Layer inception_4d/5x5
I0403 21:50:41.784405 13024 net.cpp:425] inception_4d/5x5 <- inception_4d/5x5_reduce
I0403 21:50:41.784432 13024 net.cpp:399] inception_4d/5x5 -> inception_4d/5x5
I0403 21:50:41.786217 13024 net.cpp:141] Setting up inception_4d/5x5
I0403 21:50:41.786252 13024 net.cpp:148] Top shape: 24 64 14 14 (301056)
I0403 21:50:41.786273 13024 net.cpp:156] Memory required for data: 1134062880
I0403 21:50:41.786299 13024 layer_factory.hpp:77] Creating layer inception_4d/relu_5x5
I0403 21:50:41.786341 13024 net.cpp:91] Creating Layer inception_4d/relu_5x5
I0403 21:50:41.786365 13024 net.cpp:425] inception_4d/relu_5x5 <- inception_4d/5x5
I0403 21:50:41.786386 13024 net.cpp:386] inception_4d/relu_5x5 -> inception_4d/5x5 (in-place)
I0403 21:50:41.786756 13024 net.cpp:141] Setting up inception_4d/relu_5x5
I0403 21:50:41.786788 13024 net.cpp:148] Top shape: 24 64 14 14 (301056)
I0403 21:50:41.786806 13024 net.cpp:156] Memory required for data: 1135267104
I0403 21:50:41.786824 13024 layer_factory.hpp:77] Creating layer inception_4d/pool
I0403 21:50:41.786847 13024 net.cpp:91] Creating Layer inception_4d/pool
I0403 21:50:41.786866 13024 net.cpp:425] inception_4d/pool <- inception_4c/output_inception_4c/output_0_split_3
I0403 21:50:41.786893 13024 net.cpp:399] inception_4d/pool -> inception_4d/pool
I0403 21:50:41.786981 13024 net.cpp:141] Setting up inception_4d/pool
I0403 21:50:41.787011 13024 net.cpp:148] Top shape: 24 512 14 14 (2408448)
I0403 21:50:41.787030 13024 net.cpp:156] Memory required for data: 1144900896
I0403 21:50:41.787050 13024 layer_factory.hpp:77] Creating layer inception_4d/pool_proj
I0403 21:50:41.787077 13024 net.cpp:91] Creating Layer inception_4d/pool_proj
I0403 21:50:41.787099 13024 net.cpp:425] inception_4d/pool_proj <- inception_4d/pool
I0403 21:50:41.787124 13024 net.cpp:399] inception_4d/pool_proj -> inception_4d/pool_proj
I0403 21:50:41.789330 13024 net.cpp:141] Setting up inception_4d/pool_proj
I0403 21:50:41.789369 13024 net.cpp:148] Top shape: 24 64 14 14 (301056)
I0403 21:50:41.789391 13024 net.cpp:156] Memory required for data: 1146105120
I0403 21:50:41.789414 13024 layer_factory.hpp:77] Creating layer inception_4d/relu_pool_proj
I0403 21:50:41.789438 13024 net.cpp:91] Creating Layer inception_4d/relu_pool_proj
I0403 21:50:41.789458 13024 net.cpp:425] inception_4d/relu_pool_proj <- inception_4d/pool_proj
I0403 21:50:41.789486 13024 net.cpp:386] inception_4d/relu_pool_proj -> inception_4d/pool_proj (in-place)
I0403 21:50:41.789721 13024 net.cpp:141] Setting up inception_4d/relu_pool_proj
I0403 21:50:41.789752 13024 net.cpp:148] Top shape: 24 64 14 14 (301056)
I0403 21:50:41.789770 13024 net.cpp:156] Memory required for data: 1147309344
I0403 21:50:41.789790 13024 layer_factory.hpp:77] Creating layer inception_4d/output
I0403 21:50:41.789813 13024 net.cpp:91] Creating Layer inception_4d/output
I0403 21:50:41.789834 13024 net.cpp:425] inception_4d/output <- inception_4d/1x1
I0403 21:50:41.789854 13024 net.cpp:425] inception_4d/output <- inception_4d/3x3
I0403 21:50:41.789875 13024 net.cpp:425] inception_4d/output <- inception_4d/5x5
I0403 21:50:41.789894 13024 net.cpp:425] inception_4d/output <- inception_4d/pool_proj
I0403 21:50:41.789918 13024 net.cpp:399] inception_4d/output -> inception_4d/output
I0403 21:50:41.789978 13024 net.cpp:141] Setting up inception_4d/output
I0403 21:50:41.790009 13024 net.cpp:148] Top shape: 24 528 14 14 (2483712)
I0403 21:50:41.790029 13024 net.cpp:156] Memory required for data: 1157244192
I0403 21:50:41.790046 13024 layer_factory.hpp:77] Creating layer inception_4d/output_inception_4d/output_0_split
I0403 21:50:41.790068 13024 net.cpp:91] Creating Layer inception_4d/output_inception_4d/output_0_split
I0403 21:50:41.790088 13024 net.cpp:425] inception_4d/output_inception_4d/output_0_split <- inception_4d/output
I0403 21:50:41.790113 13024 net.cpp:399] inception_4d/output_inception_4d/output_0_split -> inception_4d/output_inception_4d/output_0_split_0
I0403 21:50:41.790140 13024 net.cpp:399] inception_4d/output_inception_4d/output_0_split -> inception_4d/output_inception_4d/output_0_split_1
I0403 21:50:41.790166 13024 net.cpp:399] inception_4d/output_inception_4d/output_0_split -> inception_4d/output_inception_4d/output_0_split_2
I0403 21:50:41.790191 13024 net.cpp:399] inception_4d/output_inception_4d/output_0_split -> inception_4d/output_inception_4d/output_0_split_3
I0403 21:50:41.790220 13024 net.cpp:399] inception_4d/output_inception_4d/output_0_split -> inception_4d/output_inception_4d/output_0_split_4
I0403 21:50:41.790352 13024 net.cpp:141] Setting up inception_4d/output_inception_4d/output_0_split
I0403 21:50:41.790396 13024 net.cpp:148] Top shape: 24 528 14 14 (2483712)
I0403 21:50:41.790421 13024 net.cpp:148] Top shape: 24 528 14 14 (2483712)
I0403 21:50:41.790441 13024 net.cpp:148] Top shape: 24 528 14 14 (2483712)
I0403 21:50:41.790460 13024 net.cpp:148] Top shape: 24 528 14 14 (2483712)
I0403 21:50:41.790480 13024 net.cpp:148] Top shape: 24 528 14 14 (2483712)
I0403 21:50:41.790498 13024 net.cpp:156] Memory required for data: 1206918432
I0403 21:50:41.790516 13024 layer_factory.hpp:77] Creating layer loss2/ave_pool
I0403 21:50:41.790539 13024 net.cpp:91] Creating Layer loss2/ave_pool
I0403 21:50:41.790560 13024 net.cpp:425] loss2/ave_pool <- inception_4d/output_inception_4d/output_0_split_0
I0403 21:50:41.790585 13024 net.cpp:399] loss2/ave_pool -> loss2/ave_pool
I0403 21:50:41.790964 13024 net.cpp:141] Setting up loss2/ave_pool
I0403 21:50:41.791000 13024 net.cpp:148] Top shape: 24 528 4 4 (202752)
I0403 21:50:41.791020 13024 net.cpp:156] Memory required for data: 1207729440
I0403 21:50:41.791039 13024 layer_factory.hpp:77] Creating layer loss2/conv
I0403 21:50:41.791066 13024 net.cpp:91] Creating Layer loss2/conv
I0403 21:50:41.791088 13024 net.cpp:425] loss2/conv <- loss2/ave_pool
I0403 21:50:41.791115 13024 net.cpp:399] loss2/conv -> loss2/conv
I0403 21:50:41.793498 13024 net.cpp:141] Setting up loss2/conv
I0403 21:50:41.793534 13024 net.cpp:148] Top shape: 24 128 4 4 (49152)
I0403 21:50:41.793553 13024 net.cpp:156] Memory required for data: 1207926048
I0403 21:50:41.793576 13024 layer_factory.hpp:77] Creating layer loss2/relu_conv
I0403 21:50:41.793601 13024 net.cpp:91] Creating Layer loss2/relu_conv
I0403 21:50:41.793622 13024 net.cpp:425] loss2/relu_conv <- loss2/conv
I0403 21:50:41.793644 13024 net.cpp:386] loss2/relu_conv -> loss2/conv (in-place)
I0403 21:50:41.793993 13024 net.cpp:141] Setting up loss2/relu_conv
I0403 21:50:41.794026 13024 net.cpp:148] Top shape: 24 128 4 4 (49152)
I0403 21:50:41.794046 13024 net.cpp:156] Memory required for data: 1208122656
I0403 21:50:41.794064 13024 layer_factory.hpp:77] Creating layer loss2/fc
I0403 21:50:41.794090 13024 net.cpp:91] Creating Layer loss2/fc
I0403 21:50:41.794112 13024 net.cpp:425] loss2/fc <- loss2/conv
I0403 21:50:41.794136 13024 net.cpp:399] loss2/fc -> loss2/fc
I0403 21:50:41.816342 13024 net.cpp:141] Setting up loss2/fc
I0403 21:50:41.816388 13024 net.cpp:148] Top shape: 24 1024 (24576)
I0403 21:50:41.816408 13024 net.cpp:156] Memory required for data: 1208220960
I0403 21:50:41.816431 13024 layer_factory.hpp:77] Creating layer loss2/relu_fc
I0403 21:50:41.816452 13024 net.cpp:91] Creating Layer loss2/relu_fc
I0403 21:50:41.816473 13024 net.cpp:425] loss2/relu_fc <- loss2/fc
I0403 21:50:41.816498 13024 net.cpp:386] loss2/relu_fc -> loss2/fc (in-place)
I0403 21:50:41.816871 13024 net.cpp:141] Setting up loss2/relu_fc
I0403 21:50:41.816905 13024 net.cpp:148] Top shape: 24 1024 (24576)
I0403 21:50:41.816923 13024 net.cpp:156] Memory required for data: 1208319264
I0403 21:50:41.816943 13024 layer_factory.hpp:77] Creating layer loss2/drop_fc
I0403 21:50:41.816967 13024 net.cpp:91] Creating Layer loss2/drop_fc
I0403 21:50:41.816987 13024 net.cpp:425] loss2/drop_fc <- loss2/fc
I0403 21:50:41.817013 13024 net.cpp:386] loss2/drop_fc -> loss2/fc (in-place)
I0403 21:50:41.817075 13024 net.cpp:141] Setting up loss2/drop_fc
I0403 21:50:41.817104 13024 net.cpp:148] Top shape: 24 1024 (24576)
I0403 21:50:41.817121 13024 net.cpp:156] Memory required for data: 1208417568
I0403 21:50:41.817142 13024 layer_factory.hpp:77] Creating layer loss2/classifier_plantvillage
I0403 21:50:41.817172 13024 net.cpp:91] Creating Layer loss2/classifier_plantvillage
I0403 21:50:41.817193 13024 net.cpp:425] loss2/classifier_plantvillage <- loss2/fc
I0403 21:50:41.817226 13024 net.cpp:399] loss2/classifier_plantvillage -> loss2/classifier_plantvillage
I0403 21:50:41.817725 13024 net.cpp:141] Setting up loss2/classifier_plantvillage
I0403 21:50:41.817757 13024 net.cpp:148] Top shape: 24 38 (912)
I0403 21:50:41.817775 13024 net.cpp:156] Memory required for data: 1208421216
I0403 21:50:41.817817 13024 layer_factory.hpp:77] Creating layer loss2/classifier_plantvillage_loss2/classifier_plantvillage_0_split
I0403 21:50:41.817845 13024 net.cpp:91] Creating Layer loss2/classifier_plantvillage_loss2/classifier_plantvillage_0_split
I0403 21:50:41.817868 13024 net.cpp:425] loss2/classifier_plantvillage_loss2/classifier_plantvillage_0_split <- loss2/classifier_plantvillage
I0403 21:50:41.817890 13024 net.cpp:399] loss2/classifier_plantvillage_loss2/classifier_plantvillage_0_split -> loss2/classifier_plantvillage_loss2/classifier_plantvillage_0_split_0
I0403 21:50:41.817916 13024 net.cpp:399] loss2/classifier_plantvillage_loss2/classifier_plantvillage_0_split -> loss2/classifier_plantvillage_loss2/classifier_plantvillage_0_split_1
I0403 21:50:41.817942 13024 net.cpp:399] loss2/classifier_plantvillage_loss2/classifier_plantvillage_0_split -> loss2/classifier_plantvillage_loss2/classifier_plantvillage_0_split_2
I0403 21:50:41.818042 13024 net.cpp:141] Setting up loss2/classifier_plantvillage_loss2/classifier_plantvillage_0_split
I0403 21:50:41.818071 13024 net.cpp:148] Top shape: 24 38 (912)
I0403 21:50:41.818090 13024 net.cpp:148] Top shape: 24 38 (912)
I0403 21:50:41.818110 13024 net.cpp:148] Top shape: 24 38 (912)
I0403 21:50:41.818127 13024 net.cpp:156] Memory required for data: 1208432160
I0403 21:50:41.818146 13024 layer_factory.hpp:77] Creating layer inception_4e/1x1
I0403 21:50:41.818171 13024 net.cpp:91] Creating Layer inception_4e/1x1
I0403 21:50:41.818192 13024 net.cpp:425] inception_4e/1x1 <- inception_4d/output_inception_4d/output_0_split_1
I0403 21:50:41.818222 13024 net.cpp:399] inception_4e/1x1 -> inception_4e/1x1
I0403 21:50:41.820492 13024 net.cpp:141] Setting up inception_4e/1x1
I0403 21:50:41.820528 13024 net.cpp:148] Top shape: 24 256 14 14 (1204224)
I0403 21:50:41.820547 13024 net.cpp:156] Memory required for data: 1213249056
I0403 21:50:41.820569 13024 layer_factory.hpp:77] Creating layer inception_4e/relu_1x1
I0403 21:50:41.820596 13024 net.cpp:91] Creating Layer inception_4e/relu_1x1
I0403 21:50:41.820617 13024 net.cpp:425] inception_4e/relu_1x1 <- inception_4e/1x1
I0403 21:50:41.820639 13024 net.cpp:386] inception_4e/relu_1x1 -> inception_4e/1x1 (in-place)
I0403 21:50:41.821007 13024 net.cpp:141] Setting up inception_4e/relu_1x1
I0403 21:50:41.821039 13024 net.cpp:148] Top shape: 24 256 14 14 (1204224)
I0403 21:50:41.821058 13024 net.cpp:156] Memory required for data: 1218065952
I0403 21:50:41.821077 13024 layer_factory.hpp:77] Creating layer inception_4e/3x3_reduce
I0403 21:50:41.821105 13024 net.cpp:91] Creating Layer inception_4e/3x3_reduce
I0403 21:50:41.821127 13024 net.cpp:425] inception_4e/3x3_reduce <- inception_4d/output_inception_4d/output_0_split_2
I0403 21:50:41.821156 13024 net.cpp:399] inception_4e/3x3_reduce -> inception_4e/3x3_reduce
I0403 21:50:41.823796 13024 net.cpp:141] Setting up inception_4e/3x3_reduce
I0403 21:50:41.823833 13024 net.cpp:148] Top shape: 24 160 14 14 (752640)
I0403 21:50:41.823854 13024 net.cpp:156] Memory required for data: 1221076512
I0403 21:50:41.823878 13024 layer_factory.hpp:77] Creating layer inception_4e/relu_3x3_reduce
I0403 21:50:41.823902 13024 net.cpp:91] Creating Layer inception_4e/relu_3x3_reduce
I0403 21:50:41.823923 13024 net.cpp:425] inception_4e/relu_3x3_reduce <- inception_4e/3x3_reduce
I0403 21:50:41.823945 13024 net.cpp:386] inception_4e/relu_3x3_reduce -> inception_4e/3x3_reduce (in-place)
I0403 21:50:41.824179 13024 net.cpp:141] Setting up inception_4e/relu_3x3_reduce
I0403 21:50:41.824215 13024 net.cpp:148] Top shape: 24 160 14 14 (752640)
I0403 21:50:41.824236 13024 net.cpp:156] Memory required for data: 1224087072
I0403 21:50:41.824254 13024 layer_factory.hpp:77] Creating layer inception_4e/3x3
I0403 21:50:41.824285 13024 net.cpp:91] Creating Layer inception_4e/3x3
I0403 21:50:41.824308 13024 net.cpp:425] inception_4e/3x3 <- inception_4e/3x3_reduce
I0403 21:50:41.824331 13024 net.cpp:399] inception_4e/3x3 -> inception_4e/3x3
I0403 21:50:41.830626 13024 net.cpp:141] Setting up inception_4e/3x3
I0403 21:50:41.830678 13024 net.cpp:148] Top shape: 24 320 14 14 (1505280)
I0403 21:50:41.830699 13024 net.cpp:156] Memory required for data: 1230108192
I0403 21:50:41.830721 13024 layer_factory.hpp:77] Creating layer inception_4e/relu_3x3
I0403 21:50:41.830747 13024 net.cpp:91] Creating Layer inception_4e/relu_3x3
I0403 21:50:41.830768 13024 net.cpp:425] inception_4e/relu_3x3 <- inception_4e/3x3
I0403 21:50:41.830790 13024 net.cpp:386] inception_4e/relu_3x3 -> inception_4e/3x3 (in-place)
I0403 21:50:41.831159 13024 net.cpp:141] Setting up inception_4e/relu_3x3
I0403 21:50:41.831195 13024 net.cpp:148] Top shape: 24 320 14 14 (1505280)
I0403 21:50:41.831221 13024 net.cpp:156] Memory required for data: 1236129312
I0403 21:50:41.831243 13024 layer_factory.hpp:77] Creating layer inception_4e/5x5_reduce
I0403 21:50:41.831274 13024 net.cpp:91] Creating Layer inception_4e/5x5_reduce
I0403 21:50:41.831295 13024 net.cpp:425] inception_4e/5x5_reduce <- inception_4d/output_inception_4d/output_0_split_3
I0403 21:50:41.831321 13024 net.cpp:399] inception_4e/5x5_reduce -> inception_4e/5x5_reduce
I0403 21:50:41.832670 13024 net.cpp:141] Setting up inception_4e/5x5_reduce
I0403 21:50:41.832705 13024 net.cpp:148] Top shape: 24 32 14 14 (150528)
I0403 21:50:41.832725 13024 net.cpp:156] Memory required for data: 1236731424
I0403 21:50:41.832746 13024 layer_factory.hpp:77] Creating layer inception_4e/relu_5x5_reduce
I0403 21:50:41.832772 13024 net.cpp:91] Creating Layer inception_4e/relu_5x5_reduce
I0403 21:50:41.832795 13024 net.cpp:425] inception_4e/relu_5x5_reduce <- inception_4e/5x5_reduce
I0403 21:50:41.832818 13024 net.cpp:386] inception_4e/relu_5x5_reduce -> inception_4e/5x5_reduce (in-place)
I0403 21:50:41.833184 13024 net.cpp:141] Setting up inception_4e/relu_5x5_reduce
I0403 21:50:41.833222 13024 net.cpp:148] Top shape: 24 32 14 14 (150528)
I0403 21:50:41.833245 13024 net.cpp:156] Memory required for data: 1237333536
I0403 21:50:41.833263 13024 layer_factory.hpp:77] Creating layer inception_4e/5x5
I0403 21:50:41.833308 13024 net.cpp:91] Creating Layer inception_4e/5x5
I0403 21:50:41.833333 13024 net.cpp:425] inception_4e/5x5 <- inception_4e/5x5_reduce
I0403 21:50:41.833359 13024 net.cpp:399] inception_4e/5x5 -> inception_4e/5x5
I0403 21:50:41.835655 13024 net.cpp:141] Setting up inception_4e/5x5
I0403 21:50:41.835690 13024 net.cpp:148] Top shape: 24 128 14 14 (602112)
I0403 21:50:41.835711 13024 net.cpp:156] Memory required for data: 1239741984
I0403 21:50:41.835734 13024 layer_factory.hpp:77] Creating layer inception_4e/relu_5x5
I0403 21:50:41.835757 13024 net.cpp:91] Creating Layer inception_4e/relu_5x5
I0403 21:50:41.835778 13024 net.cpp:425] inception_4e/relu_5x5 <- inception_4e/5x5
I0403 21:50:41.835803 13024 net.cpp:386] inception_4e/relu_5x5 -> inception_4e/5x5 (in-place)
I0403 21:50:41.836052 13024 net.cpp:141] Setting up inception_4e/relu_5x5
I0403 21:50:41.836083 13024 net.cpp:148] Top shape: 24 128 14 14 (602112)
I0403 21:50:41.836103 13024 net.cpp:156] Memory required for data: 1242150432
I0403 21:50:41.836122 13024 layer_factory.hpp:77] Creating layer inception_4e/pool
I0403 21:50:41.836148 13024 net.cpp:91] Creating Layer inception_4e/pool
I0403 21:50:41.836169 13024 net.cpp:425] inception_4e/pool <- inception_4d/output_inception_4d/output_0_split_4
I0403 21:50:41.836190 13024 net.cpp:399] inception_4e/pool -> inception_4e/pool
I0403 21:50:41.836287 13024 net.cpp:141] Setting up inception_4e/pool
I0403 21:50:41.836318 13024 net.cpp:148] Top shape: 24 528 14 14 (2483712)
I0403 21:50:41.836335 13024 net.cpp:156] Memory required for data: 1252085280
I0403 21:50:41.836354 13024 layer_factory.hpp:77] Creating layer inception_4e/pool_proj
I0403 21:50:41.836381 13024 net.cpp:91] Creating Layer inception_4e/pool_proj
I0403 21:50:41.836405 13024 net.cpp:425] inception_4e/pool_proj <- inception_4e/pool
I0403 21:50:41.836431 13024 net.cpp:399] inception_4e/pool_proj -> inception_4e/pool_proj
I0403 21:50:41.838306 13024 net.cpp:141] Setting up inception_4e/pool_proj
I0403 21:50:41.838343 13024 net.cpp:148] Top shape: 24 128 14 14 (602112)
I0403 21:50:41.838381 13024 net.cpp:156] Memory required for data: 1254493728
I0403 21:50:41.838405 13024 layer_factory.hpp:77] Creating layer inception_4e/relu_pool_proj
I0403 21:50:41.838428 13024 net.cpp:91] Creating Layer inception_4e/relu_pool_proj
I0403 21:50:41.838449 13024 net.cpp:425] inception_4e/relu_pool_proj <- inception_4e/pool_proj
I0403 21:50:41.838472 13024 net.cpp:386] inception_4e/relu_pool_proj -> inception_4e/pool_proj (in-place)
I0403 21:50:41.838832 13024 net.cpp:141] Setting up inception_4e/relu_pool_proj
I0403 21:50:41.838865 13024 net.cpp:148] Top shape: 24 128 14 14 (602112)
I0403 21:50:41.838883 13024 net.cpp:156] Memory required for data: 1256902176
I0403 21:50:41.838904 13024 layer_factory.hpp:77] Creating layer inception_4e/output
I0403 21:50:41.838927 13024 net.cpp:91] Creating Layer inception_4e/output
I0403 21:50:41.838948 13024 net.cpp:425] inception_4e/output <- inception_4e/1x1
I0403 21:50:41.838968 13024 net.cpp:425] inception_4e/output <- inception_4e/3x3
I0403 21:50:41.838989 13024 net.cpp:425] inception_4e/output <- inception_4e/5x5
I0403 21:50:41.839009 13024 net.cpp:425] inception_4e/output <- inception_4e/pool_proj
I0403 21:50:41.839030 13024 net.cpp:399] inception_4e/output -> inception_4e/output
I0403 21:50:41.839094 13024 net.cpp:141] Setting up inception_4e/output
I0403 21:50:41.839124 13024 net.cpp:148] Top shape: 24 832 14 14 (3913728)
I0403 21:50:41.839143 13024 net.cpp:156] Memory required for data: 1272557088
I0403 21:50:41.839162 13024 layer_factory.hpp:77] Creating layer pool4/3x3_s2
I0403 21:50:41.839187 13024 net.cpp:91] Creating Layer pool4/3x3_s2
I0403 21:50:41.839213 13024 net.cpp:425] pool4/3x3_s2 <- inception_4e/output
I0403 21:50:41.839238 13024 net.cpp:399] pool4/3x3_s2 -> pool4/3x3_s2
I0403 21:50:41.839325 13024 net.cpp:141] Setting up pool4/3x3_s2
I0403 21:50:41.839355 13024 net.cpp:148] Top shape: 24 832 7 7 (978432)
I0403 21:50:41.839375 13024 net.cpp:156] Memory required for data: 1276470816
I0403 21:50:41.839392 13024 layer_factory.hpp:77] Creating layer pool4/3x3_s2_pool4/3x3_s2_0_split
I0403 21:50:41.839414 13024 net.cpp:91] Creating Layer pool4/3x3_s2_pool4/3x3_s2_0_split
I0403 21:50:41.839435 13024 net.cpp:425] pool4/3x3_s2_pool4/3x3_s2_0_split <- pool4/3x3_s2
I0403 21:50:41.839460 13024 net.cpp:399] pool4/3x3_s2_pool4/3x3_s2_0_split -> pool4/3x3_s2_pool4/3x3_s2_0_split_0
I0403 21:50:41.839486 13024 net.cpp:399] pool4/3x3_s2_pool4/3x3_s2_0_split -> pool4/3x3_s2_pool4/3x3_s2_0_split_1
I0403 21:50:41.839511 13024 net.cpp:399] pool4/3x3_s2_pool4/3x3_s2_0_split -> pool4/3x3_s2_pool4/3x3_s2_0_split_2
I0403 21:50:41.839536 13024 net.cpp:399] pool4/3x3_s2_pool4/3x3_s2_0_split -> pool4/3x3_s2_pool4/3x3_s2_0_split_3
I0403 21:50:41.839659 13024 net.cpp:141] Setting up pool4/3x3_s2_pool4/3x3_s2_0_split
I0403 21:50:41.839690 13024 net.cpp:148] Top shape: 24 832 7 7 (978432)
I0403 21:50:41.839714 13024 net.cpp:148] Top shape: 24 832 7 7 (978432)
I0403 21:50:41.839733 13024 net.cpp:148] Top shape: 24 832 7 7 (978432)
I0403 21:50:41.839752 13024 net.cpp:148] Top shape: 24 832 7 7 (978432)
I0403 21:50:41.839771 13024 net.cpp:156] Memory required for data: 1292125728
I0403 21:50:41.839788 13024 layer_factory.hpp:77] Creating layer inception_5a/1x1
I0403 21:50:41.839818 13024 net.cpp:91] Creating Layer inception_5a/1x1
I0403 21:50:41.839841 13024 net.cpp:425] inception_5a/1x1 <- pool4/3x3_s2_pool4/3x3_s2_0_split_0
I0403 21:50:41.839867 13024 net.cpp:399] inception_5a/1x1 -> inception_5a/1x1
I0403 21:50:41.843426 13024 net.cpp:141] Setting up inception_5a/1x1
I0403 21:50:41.843462 13024 net.cpp:148] Top shape: 24 256 7 7 (301056)
I0403 21:50:41.843482 13024 net.cpp:156] Memory required for data: 1293329952
I0403 21:50:41.843507 13024 layer_factory.hpp:77] Creating layer inception_5a/relu_1x1
I0403 21:50:41.843531 13024 net.cpp:91] Creating Layer inception_5a/relu_1x1
I0403 21:50:41.843552 13024 net.cpp:425] inception_5a/relu_1x1 <- inception_5a/1x1
I0403 21:50:41.843575 13024 net.cpp:386] inception_5a/relu_1x1 -> inception_5a/1x1 (in-place)
I0403 21:50:41.843957 13024 net.cpp:141] Setting up inception_5a/relu_1x1
I0403 21:50:41.843991 13024 net.cpp:148] Top shape: 24 256 7 7 (301056)
I0403 21:50:41.844009 13024 net.cpp:156] Memory required for data: 1294534176
I0403 21:50:41.844029 13024 layer_factory.hpp:77] Creating layer inception_5a/3x3_reduce
I0403 21:50:41.844058 13024 net.cpp:91] Creating Layer inception_5a/3x3_reduce
I0403 21:50:41.844081 13024 net.cpp:425] inception_5a/3x3_reduce <- pool4/3x3_s2_pool4/3x3_s2_0_split_1
I0403 21:50:41.844107 13024 net.cpp:399] inception_5a/3x3_reduce -> inception_5a/3x3_reduce
I0403 21:50:41.847160 13024 net.cpp:141] Setting up inception_5a/3x3_reduce
I0403 21:50:41.847201 13024 net.cpp:148] Top shape: 24 160 7 7 (188160)
I0403 21:50:41.847229 13024 net.cpp:156] Memory required for data: 1295286816
I0403 21:50:41.847254 13024 layer_factory.hpp:77] Creating layer inception_5a/relu_3x3_reduce
I0403 21:50:41.847277 13024 net.cpp:91] Creating Layer inception_5a/relu_3x3_reduce
I0403 21:50:41.847300 13024 net.cpp:425] inception_5a/relu_3x3_reduce <- inception_5a/3x3_reduce
I0403 21:50:41.847321 13024 net.cpp:386] inception_5a/relu_3x3_reduce -> inception_5a/3x3_reduce (in-place)
I0403 21:50:41.847558 13024 net.cpp:141] Setting up inception_5a/relu_3x3_reduce
I0403 21:50:41.847589 13024 net.cpp:148] Top shape: 24 160 7 7 (188160)
I0403 21:50:41.847609 13024 net.cpp:156] Memory required for data: 1296039456
I0403 21:50:41.847627 13024 layer_factory.hpp:77] Creating layer inception_5a/3x3
I0403 21:50:41.847654 13024 net.cpp:91] Creating Layer inception_5a/3x3
I0403 21:50:41.847677 13024 net.cpp:425] inception_5a/3x3 <- inception_5a/3x3_reduce
I0403 21:50:41.847705 13024 net.cpp:399] inception_5a/3x3 -> inception_5a/3x3
I0403 21:50:41.854018 13024 net.cpp:141] Setting up inception_5a/3x3
I0403 21:50:41.854061 13024 net.cpp:148] Top shape: 24 320 7 7 (376320)
I0403 21:50:41.854081 13024 net.cpp:156] Memory required for data: 1297544736
I0403 21:50:41.854105 13024 layer_factory.hpp:77] Creating layer inception_5a/relu_3x3
I0403 21:50:41.854127 13024 net.cpp:91] Creating Layer inception_5a/relu_3x3
I0403 21:50:41.854147 13024 net.cpp:425] inception_5a/relu_3x3 <- inception_5a/3x3
I0403 21:50:41.854174 13024 net.cpp:386] inception_5a/relu_3x3 -> inception_5a/3x3 (in-place)
I0403 21:50:41.854542 13024 net.cpp:141] Setting up inception_5a/relu_3x3
I0403 21:50:41.854574 13024 net.cpp:148] Top shape: 24 320 7 7 (376320)
I0403 21:50:41.854594 13024 net.cpp:156] Memory required for data: 1299050016
I0403 21:50:41.854612 13024 layer_factory.hpp:77] Creating layer inception_5a/5x5_reduce
I0403 21:50:41.854640 13024 net.cpp:91] Creating Layer inception_5a/5x5_reduce
I0403 21:50:41.854662 13024 net.cpp:425] inception_5a/5x5_reduce <- pool4/3x3_s2_pool4/3x3_s2_0_split_2
I0403 21:50:41.854691 13024 net.cpp:399] inception_5a/5x5_reduce -> inception_5a/5x5_reduce
I0403 21:50:41.856154 13024 net.cpp:141] Setting up inception_5a/5x5_reduce
I0403 21:50:41.856190 13024 net.cpp:148] Top shape: 24 32 7 7 (37632)
I0403 21:50:41.856216 13024 net.cpp:156] Memory required for data: 1299200544
I0403 21:50:41.856240 13024 layer_factory.hpp:77] Creating layer inception_5a/relu_5x5_reduce
I0403 21:50:41.856267 13024 net.cpp:91] Creating Layer inception_5a/relu_5x5_reduce
I0403 21:50:41.856290 13024 net.cpp:425] inception_5a/relu_5x5_reduce <- inception_5a/5x5_reduce
I0403 21:50:41.856313 13024 net.cpp:386] inception_5a/relu_5x5_reduce -> inception_5a/5x5_reduce (in-place)
I0403 21:50:41.856683 13024 net.cpp:141] Setting up inception_5a/relu_5x5_reduce
I0403 21:50:41.856716 13024 net.cpp:148] Top shape: 24 32 7 7 (37632)
I0403 21:50:41.856735 13024 net.cpp:156] Memory required for data: 1299351072
I0403 21:50:41.856755 13024 layer_factory.hpp:77] Creating layer inception_5a/5x5
I0403 21:50:41.856782 13024 net.cpp:91] Creating Layer inception_5a/5x5
I0403 21:50:41.856806 13024 net.cpp:425] inception_5a/5x5 <- inception_5a/5x5_reduce
I0403 21:50:41.856832 13024 net.cpp:399] inception_5a/5x5 -> inception_5a/5x5
I0403 21:50:41.858983 13024 net.cpp:141] Setting up inception_5a/5x5
I0403 21:50:41.859031 13024 net.cpp:148] Top shape: 24 128 7 7 (150528)
I0403 21:50:41.859052 13024 net.cpp:156] Memory required for data: 1299953184
I0403 21:50:41.859076 13024 layer_factory.hpp:77] Creating layer inception_5a/relu_5x5
I0403 21:50:41.859097 13024 net.cpp:91] Creating Layer inception_5a/relu_5x5
I0403 21:50:41.859117 13024 net.cpp:425] inception_5a/relu_5x5 <- inception_5a/5x5
I0403 21:50:41.859143 13024 net.cpp:386] inception_5a/relu_5x5 -> inception_5a/5x5 (in-place)
I0403 21:50:41.859390 13024 net.cpp:141] Setting up inception_5a/relu_5x5
I0403 21:50:41.859421 13024 net.cpp:148] Top shape: 24 128 7 7 (150528)
I0403 21:50:41.859441 13024 net.cpp:156] Memory required for data: 1300555296
I0403 21:50:41.859458 13024 layer_factory.hpp:77] Creating layer inception_5a/pool
I0403 21:50:41.859484 13024 net.cpp:91] Creating Layer inception_5a/pool
I0403 21:50:41.859505 13024 net.cpp:425] inception_5a/pool <- pool4/3x3_s2_pool4/3x3_s2_0_split_3
I0403 21:50:41.859529 13024 net.cpp:399] inception_5a/pool -> inception_5a/pool
I0403 21:50:41.859617 13024 net.cpp:141] Setting up inception_5a/pool
I0403 21:50:41.859647 13024 net.cpp:148] Top shape: 24 832 7 7 (978432)
I0403 21:50:41.859668 13024 net.cpp:156] Memory required for data: 1304469024
I0403 21:50:41.859685 13024 layer_factory.hpp:77] Creating layer inception_5a/pool_proj
I0403 21:50:41.859714 13024 net.cpp:91] Creating Layer inception_5a/pool_proj
I0403 21:50:41.859737 13024 net.cpp:425] inception_5a/pool_proj <- inception_5a/pool
I0403 21:50:41.859765 13024 net.cpp:399] inception_5a/pool_proj -> inception_5a/pool_proj
I0403 21:50:41.862623 13024 net.cpp:141] Setting up inception_5a/pool_proj
I0403 21:50:41.862663 13024 net.cpp:148] Top shape: 24 128 7 7 (150528)
I0403 21:50:41.862684 13024 net.cpp:156] Memory required for data: 1305071136
I0403 21:50:41.862709 13024 layer_factory.hpp:77] Creating layer inception_5a/relu_pool_proj
I0403 21:50:41.862731 13024 net.cpp:91] Creating Layer inception_5a/relu_pool_proj
I0403 21:50:41.862752 13024 net.cpp:425] inception_5a/relu_pool_proj <- inception_5a/pool_proj
I0403 21:50:41.862777 13024 net.cpp:386] inception_5a/relu_pool_proj -> inception_5a/pool_proj (in-place)
I0403 21:50:41.863152 13024 net.cpp:141] Setting up inception_5a/relu_pool_proj
I0403 21:50:41.863188 13024 net.cpp:148] Top shape: 24 128 7 7 (150528)
I0403 21:50:41.863206 13024 net.cpp:156] Memory required for data: 1305673248
I0403 21:50:41.863232 13024 layer_factory.hpp:77] Creating layer inception_5a/output
I0403 21:50:41.863255 13024 net.cpp:91] Creating Layer inception_5a/output
I0403 21:50:41.863275 13024 net.cpp:425] inception_5a/output <- inception_5a/1x1
I0403 21:50:41.863296 13024 net.cpp:425] inception_5a/output <- inception_5a/3x3
I0403 21:50:41.863317 13024 net.cpp:425] inception_5a/output <- inception_5a/5x5
I0403 21:50:41.863338 13024 net.cpp:425] inception_5a/output <- inception_5a/pool_proj
I0403 21:50:41.863363 13024 net.cpp:399] inception_5a/output -> inception_5a/output
I0403 21:50:41.863425 13024 net.cpp:141] Setting up inception_5a/output
I0403 21:50:41.863454 13024 net.cpp:148] Top shape: 24 832 7 7 (978432)
I0403 21:50:41.863473 13024 net.cpp:156] Memory required for data: 1309586976
I0403 21:50:41.863492 13024 layer_factory.hpp:77] Creating layer inception_5a/output_inception_5a/output_0_split
I0403 21:50:41.863519 13024 net.cpp:91] Creating Layer inception_5a/output_inception_5a/output_0_split
I0403 21:50:41.863539 13024 net.cpp:425] inception_5a/output_inception_5a/output_0_split <- inception_5a/output
I0403 21:50:41.863562 13024 net.cpp:399] inception_5a/output_inception_5a/output_0_split -> inception_5a/output_inception_5a/output_0_split_0
I0403 21:50:41.863586 13024 net.cpp:399] inception_5a/output_inception_5a/output_0_split -> inception_5a/output_inception_5a/output_0_split_1
I0403 21:50:41.863618 13024 net.cpp:399] inception_5a/output_inception_5a/output_0_split -> inception_5a/output_inception_5a/output_0_split_2
I0403 21:50:41.863646 13024 net.cpp:399] inception_5a/output_inception_5a/output_0_split -> inception_5a/output_inception_5a/output_0_split_3
I0403 21:50:41.863785 13024 net.cpp:141] Setting up inception_5a/output_inception_5a/output_0_split
I0403 21:50:41.863813 13024 net.cpp:148] Top shape: 24 832 7 7 (978432)
I0403 21:50:41.863834 13024 net.cpp:148] Top shape: 24 832 7 7 (978432)
I0403 21:50:41.863853 13024 net.cpp:148] Top shape: 24 832 7 7 (978432)
I0403 21:50:41.863873 13024 net.cpp:148] Top shape: 24 832 7 7 (978432)
I0403 21:50:41.863891 13024 net.cpp:156] Memory required for data: 1325241888
I0403 21:50:41.863910 13024 layer_factory.hpp:77] Creating layer inception_5b/1x1
I0403 21:50:41.863939 13024 net.cpp:91] Creating Layer inception_5b/1x1
I0403 21:50:41.863960 13024 net.cpp:425] inception_5b/1x1 <- inception_5a/output_inception_5a/output_0_split_0
I0403 21:50:41.863986 13024 net.cpp:399] inception_5b/1x1 -> inception_5b/1x1
I0403 21:50:41.868657 13024 net.cpp:141] Setting up inception_5b/1x1
I0403 21:50:41.868698 13024 net.cpp:148] Top shape: 24 384 7 7 (451584)
I0403 21:50:41.868719 13024 net.cpp:156] Memory required for data: 1327048224
I0403 21:50:41.868742 13024 layer_factory.hpp:77] Creating layer inception_5b/relu_1x1
I0403 21:50:41.868765 13024 net.cpp:91] Creating Layer inception_5b/relu_1x1
I0403 21:50:41.868788 13024 net.cpp:425] inception_5b/relu_1x1 <- inception_5b/1x1
I0403 21:50:41.868809 13024 net.cpp:386] inception_5b/relu_1x1 -> inception_5b/1x1 (in-place)
I0403 21:50:41.869187 13024 net.cpp:141] Setting up inception_5b/relu_1x1
I0403 21:50:41.869227 13024 net.cpp:148] Top shape: 24 384 7 7 (451584)
I0403 21:50:41.869249 13024 net.cpp:156] Memory required for data: 1328854560
I0403 21:50:41.869268 13024 layer_factory.hpp:77] Creating layer inception_5b/3x3_reduce
I0403 21:50:41.869297 13024 net.cpp:91] Creating Layer inception_5b/3x3_reduce
I0403 21:50:41.869320 13024 net.cpp:425] inception_5b/3x3_reduce <- inception_5a/output_inception_5a/output_0_split_1
I0403 21:50:41.869344 13024 net.cpp:399] inception_5b/3x3_reduce -> inception_5b/3x3_reduce
I0403 21:50:41.872680 13024 net.cpp:141] Setting up inception_5b/3x3_reduce
I0403 21:50:41.872720 13024 net.cpp:148] Top shape: 24 192 7 7 (225792)
I0403 21:50:41.872740 13024 net.cpp:156] Memory required for data: 1329757728
I0403 21:50:41.872766 13024 layer_factory.hpp:77] Creating layer inception_5b/relu_3x3_reduce
I0403 21:50:41.872788 13024 net.cpp:91] Creating Layer inception_5b/relu_3x3_reduce
I0403 21:50:41.872809 13024 net.cpp:425] inception_5b/relu_3x3_reduce <- inception_5b/3x3_reduce
I0403 21:50:41.872835 13024 net.cpp:386] inception_5b/relu_3x3_reduce -> inception_5b/3x3_reduce (in-place)
I0403 21:50:41.873076 13024 net.cpp:141] Setting up inception_5b/relu_3x3_reduce
I0403 21:50:41.873108 13024 net.cpp:148] Top shape: 24 192 7 7 (225792)
I0403 21:50:41.873126 13024 net.cpp:156] Memory required for data: 1330660896
I0403 21:50:41.873145 13024 layer_factory.hpp:77] Creating layer inception_5b/3x3
I0403 21:50:41.873173 13024 net.cpp:91] Creating Layer inception_5b/3x3
I0403 21:50:41.873195 13024 net.cpp:425] inception_5b/3x3 <- inception_5b/3x3_reduce
I0403 21:50:41.873229 13024 net.cpp:399] inception_5b/3x3 -> inception_5b/3x3
I0403 21:50:41.881674 13024 net.cpp:141] Setting up inception_5b/3x3
I0403 21:50:41.881716 13024 net.cpp:148] Top shape: 24 384 7 7 (451584)
I0403 21:50:41.881736 13024 net.cpp:156] Memory required for data: 1332467232
I0403 21:50:41.881758 13024 layer_factory.hpp:77] Creating layer inception_5b/relu_3x3
I0403 21:50:41.881780 13024 net.cpp:91] Creating Layer inception_5b/relu_3x3
I0403 21:50:41.881801 13024 net.cpp:425] inception_5b/relu_3x3 <- inception_5b/3x3
I0403 21:50:41.881825 13024 net.cpp:386] inception_5b/relu_3x3 -> inception_5b/3x3 (in-place)
I0403 21:50:41.882187 13024 net.cpp:141] Setting up inception_5b/relu_3x3
I0403 21:50:41.882236 13024 net.cpp:148] Top shape: 24 384 7 7 (451584)
I0403 21:50:41.882259 13024 net.cpp:156] Memory required for data: 1334273568
I0403 21:50:41.882278 13024 layer_factory.hpp:77] Creating layer inception_5b/5x5_reduce
I0403 21:50:41.882330 13024 net.cpp:91] Creating Layer inception_5b/5x5_reduce
I0403 21:50:41.882354 13024 net.cpp:425] inception_5b/5x5_reduce <- inception_5a/output_inception_5a/output_0_split_2
I0403 21:50:41.882380 13024 net.cpp:399] inception_5b/5x5_reduce -> inception_5b/5x5_reduce
I0403 21:50:41.883975 13024 net.cpp:141] Setting up inception_5b/5x5_reduce
I0403 21:50:41.884011 13024 net.cpp:148] Top shape: 24 48 7 7 (56448)
I0403 21:50:41.884029 13024 net.cpp:156] Memory required for data: 1334499360
I0403 21:50:41.884053 13024 layer_factory.hpp:77] Creating layer inception_5b/relu_5x5_reduce
I0403 21:50:41.884075 13024 net.cpp:91] Creating Layer inception_5b/relu_5x5_reduce
I0403 21:50:41.884095 13024 net.cpp:425] inception_5b/relu_5x5_reduce <- inception_5b/5x5_reduce
I0403 21:50:41.884120 13024 net.cpp:386] inception_5b/relu_5x5_reduce -> inception_5b/5x5_reduce (in-place)
I0403 21:50:41.884591 13024 net.cpp:141] Setting up inception_5b/relu_5x5_reduce
I0403 21:50:41.884624 13024 net.cpp:148] Top shape: 24 48 7 7 (56448)
I0403 21:50:41.884644 13024 net.cpp:156] Memory required for data: 1334725152
I0403 21:50:41.884663 13024 layer_factory.hpp:77] Creating layer inception_5b/5x5
I0403 21:50:41.884690 13024 net.cpp:91] Creating Layer inception_5b/5x5
I0403 21:50:41.884711 13024 net.cpp:425] inception_5b/5x5 <- inception_5b/5x5_reduce
I0403 21:50:41.884735 13024 net.cpp:399] inception_5b/5x5 -> inception_5b/5x5
I0403 21:50:41.887302 13024 net.cpp:141] Setting up inception_5b/5x5
I0403 21:50:41.887337 13024 net.cpp:148] Top shape: 24 128 7 7 (150528)
I0403 21:50:41.887358 13024 net.cpp:156] Memory required for data: 1335327264
I0403 21:50:41.887382 13024 layer_factory.hpp:77] Creating layer inception_5b/relu_5x5
I0403 21:50:41.887408 13024 net.cpp:91] Creating Layer inception_5b/relu_5x5
I0403 21:50:41.887429 13024 net.cpp:425] inception_5b/relu_5x5 <- inception_5b/5x5
I0403 21:50:41.887451 13024 net.cpp:386] inception_5b/relu_5x5 -> inception_5b/5x5 (in-place)
I0403 21:50:41.887698 13024 net.cpp:141] Setting up inception_5b/relu_5x5
I0403 21:50:41.887728 13024 net.cpp:148] Top shape: 24 128 7 7 (150528)
I0403 21:50:41.887747 13024 net.cpp:156] Memory required for data: 1335929376
I0403 21:50:41.887763 13024 layer_factory.hpp:77] Creating layer inception_5b/pool
I0403 21:50:41.887789 13024 net.cpp:91] Creating Layer inception_5b/pool
I0403 21:50:41.887810 13024 net.cpp:425] inception_5b/pool <- inception_5a/output_inception_5a/output_0_split_3
I0403 21:50:41.887833 13024 net.cpp:399] inception_5b/pool -> inception_5b/pool
I0403 21:50:41.887928 13024 net.cpp:141] Setting up inception_5b/pool
I0403 21:50:41.887959 13024 net.cpp:148] Top shape: 24 832 7 7 (978432)
I0403 21:50:41.887976 13024 net.cpp:156] Memory required for data: 1339843104
I0403 21:50:41.887995 13024 layer_factory.hpp:77] Creating layer inception_5b/pool_proj
I0403 21:50:41.888022 13024 net.cpp:91] Creating Layer inception_5b/pool_proj
I0403 21:50:41.888046 13024 net.cpp:425] inception_5b/pool_proj <- inception_5b/pool
I0403 21:50:41.888072 13024 net.cpp:399] inception_5b/pool_proj -> inception_5b/pool_proj
I0403 21:50:41.890960 13024 net.cpp:141] Setting up inception_5b/pool_proj
I0403 21:50:41.890997 13024 net.cpp:148] Top shape: 24 128 7 7 (150528)
I0403 21:50:41.891016 13024 net.cpp:156] Memory required for data: 1340445216
I0403 21:50:41.891039 13024 layer_factory.hpp:77] Creating layer inception_5b/relu_pool_proj
I0403 21:50:41.891063 13024 net.cpp:91] Creating Layer inception_5b/relu_pool_proj
I0403 21:50:41.891084 13024 net.cpp:425] inception_5b/relu_pool_proj <- inception_5b/pool_proj
I0403 21:50:41.891109 13024 net.cpp:386] inception_5b/relu_pool_proj -> inception_5b/pool_proj (in-place)
I0403 21:50:41.891489 13024 net.cpp:141] Setting up inception_5b/relu_pool_proj
I0403 21:50:41.891521 13024 net.cpp:148] Top shape: 24 128 7 7 (150528)
I0403 21:50:41.891541 13024 net.cpp:156] Memory required for data: 1341047328
I0403 21:50:41.891561 13024 layer_factory.hpp:77] Creating layer inception_5b/output
I0403 21:50:41.891583 13024 net.cpp:91] Creating Layer inception_5b/output
I0403 21:50:41.891623 13024 net.cpp:425] inception_5b/output <- inception_5b/1x1
I0403 21:50:41.891644 13024 net.cpp:425] inception_5b/output <- inception_5b/3x3
I0403 21:50:41.891664 13024 net.cpp:425] inception_5b/output <- inception_5b/5x5
I0403 21:50:41.891685 13024 net.cpp:425] inception_5b/output <- inception_5b/pool_proj
I0403 21:50:41.891708 13024 net.cpp:399] inception_5b/output -> inception_5b/output
I0403 21:50:41.891773 13024 net.cpp:141] Setting up inception_5b/output
I0403 21:50:41.891806 13024 net.cpp:148] Top shape: 24 1024 7 7 (1204224)
I0403 21:50:41.891825 13024 net.cpp:156] Memory required for data: 1345864224
I0403 21:50:41.891844 13024 layer_factory.hpp:77] Creating layer pool5/7x7_s1
I0403 21:50:41.891866 13024 net.cpp:91] Creating Layer pool5/7x7_s1
I0403 21:50:41.891886 13024 net.cpp:425] pool5/7x7_s1 <- inception_5b/output
I0403 21:50:41.891909 13024 net.cpp:399] pool5/7x7_s1 -> pool5/7x7_s1
I0403 21:50:41.892184 13024 net.cpp:141] Setting up pool5/7x7_s1
I0403 21:50:41.892230 13024 net.cpp:148] Top shape: 24 1024 1 1 (24576)
I0403 21:50:41.892252 13024 net.cpp:156] Memory required for data: 1345962528
I0403 21:50:41.892271 13024 layer_factory.hpp:77] Creating layer pool5/drop_7x7_s1
I0403 21:50:41.892293 13024 net.cpp:91] Creating Layer pool5/drop_7x7_s1
I0403 21:50:41.892314 13024 net.cpp:425] pool5/drop_7x7_s1 <- pool5/7x7_s1
I0403 21:50:41.892339 13024 net.cpp:386] pool5/drop_7x7_s1 -> pool5/7x7_s1 (in-place)
I0403 21:50:41.892405 13024 net.cpp:141] Setting up pool5/drop_7x7_s1
I0403 21:50:41.892437 13024 net.cpp:148] Top shape: 24 1024 1 1 (24576)
I0403 21:50:41.892455 13024 net.cpp:156] Memory required for data: 1346060832
I0403 21:50:41.892473 13024 layer_factory.hpp:77] Creating layer loss3/classifier_plantvillage
I0403 21:50:41.892498 13024 net.cpp:91] Creating Layer loss3/classifier_plantvillage
I0403 21:50:41.892518 13024 net.cpp:425] loss3/classifier_plantvillage <- pool5/7x7_s1
I0403 21:50:41.892545 13024 net.cpp:399] loss3/classifier_plantvillage -> loss3/classifier_plantvillage
I0403 21:50:41.893076 13024 net.cpp:141] Setting up loss3/classifier_plantvillage
I0403 21:50:41.893107 13024 net.cpp:148] Top shape: 24 38 (912)
I0403 21:50:41.893126 13024 net.cpp:156] Memory required for data: 1346064480
I0403 21:50:41.893148 13024 layer_factory.hpp:77] Creating layer loss3/classifier_plantvillage_loss3/classifier_plantvillage_0_split
I0403 21:50:41.893177 13024 net.cpp:91] Creating Layer loss3/classifier_plantvillage_loss3/classifier_plantvillage_0_split
I0403 21:50:41.893198 13024 net.cpp:425] loss3/classifier_plantvillage_loss3/classifier_plantvillage_0_split <- loss3/classifier_plantvillage
I0403 21:50:41.893227 13024 net.cpp:399] loss3/classifier_plantvillage_loss3/classifier_plantvillage_0_split -> loss3/classifier_plantvillage_loss3/classifier_plantvillage_0_split_0
I0403 21:50:41.893255 13024 net.cpp:399] loss3/classifier_plantvillage_loss3/classifier_plantvillage_0_split -> loss3/classifier_plantvillage_loss3/classifier_plantvillage_0_split_1
I0403 21:50:41.893287 13024 net.cpp:399] loss3/classifier_plantvillage_loss3/classifier_plantvillage_0_split -> loss3/classifier_plantvillage_loss3/classifier_plantvillage_0_split_2
I0403 21:50:41.893311 13024 net.cpp:399] loss3/classifier_plantvillage_loss3/classifier_plantvillage_0_split -> loss3/classifier_plantvillage_loss3/classifier_plantvillage_0_split_3
I0403 21:50:41.893440 13024 net.cpp:141] Setting up loss3/classifier_plantvillage_loss3/classifier_plantvillage_0_split
I0403 21:50:41.893471 13024 net.cpp:148] Top shape: 24 38 (912)
I0403 21:50:41.893491 13024 net.cpp:148] Top shape: 24 38 (912)
I0403 21:50:41.893509 13024 net.cpp:148] Top shape: 24 38 (912)
I0403 21:50:41.893528 13024 net.cpp:148] Top shape: 24 38 (912)
I0403 21:50:41.893546 13024 net.cpp:156] Memory required for data: 1346079072
I0403 21:50:41.893564 13024 layer_factory.hpp:77] Creating layer loss1/loss
I0403 21:50:41.893594 13024 net.cpp:91] Creating Layer loss1/loss
I0403 21:50:41.893615 13024 net.cpp:425] loss1/loss <- loss1/classifier_plantvillage_loss1/classifier_plantvillage_0_split_0
I0403 21:50:41.893653 13024 net.cpp:425] loss1/loss <- label_data_1_split_0
…
