…
I0403 21:55:42.134857 13311 net.cpp:313] The NetState phase (1) differed from the phase (0) specified by a rule in layer data
I0403 21:55:42.136286 13311 net.cpp:49] Initializing net from parameters: 
state {
  phase: TEST
}
layer {
  name: "data"
  type: "Data"
  top: "data"
  top: "label"
  include {
    phase: TEST
  }
  transform_param {
    mirror: false
    crop_size: 224
    mean_file: "/home/mohanty/data/final_dataset/lmdb/color-80-20/mean.binaryproto"
  }
  data_param {
    source: "/home/mohanty/data/final_dataset/lmdb/color-80-20/test_db"
    batch_size: 24
    backend: LMDB
  }
}
layer {
  name: "conv1/7x7_s2"
  type: "Convolution"
  bottom: "data"
  top: "conv1/7x7_s2"
  param {
    lr_mult: 1
    decay_mult: 1
  }
  param {
    lr_mult: 2
    decay_mult: 0
  }
  convolution_param {
    num_output: 64
    pad: 3
    kernel_size: 7
    stride: 2
    weight_filler {
      type: "xavier"
      std: 0.1
    }
    bias_filler {
      type: "constant"
      value: 0.2
    }
  }
}
layer {
  name: "conv1/relu_7x7"
  type: "ReLU"
  bottom: "conv1/7x7_s2"
  top: "conv1/7x7_s2"
}
layer {
  name: "pool1/3x3_s2"
  type: "Pooling"
  bottom: "conv1/7x7_s2"
  top: "pool1/3x3_s2"
  pooling_param {
    pool: MAX
    kernel_size: 3
    stride: 2
  }
}
layer {
  name: "pool1/norm1"
  type: "LRN"
  bottom: "pool1/3x3_s2"
  top: "pool1/norm1"
  lrn_param {
    local_size: 5
    alpha: 0.0001
    beta: 0.75
  }
}
layer {
  name: "conv2/3x3_reduce"
  type: "Convolution"
  bottom: "pool1/norm1"
  top: "conv2/3x3_reduce"
  param {
    lr_mult: 1
    decay_mult: 1
  }
  param {
    lr_mult: 2
    decay_mult: 0
  }
  convolution_param {
    num_output: 64
    kernel_size: 1
    weight_filler {
      type: "xavier"
      std: 0.1
    }
    bias_filler {
      type: "constant"
      value: 0.2
    }
  }
}
layer {
  name: "conv2/relu_3x3_reduce"
  type: "ReLU"
  bottom: "conv2/3x3_reduce"
  top: "conv2/3x3_reduce"
}
layer {
  name: "conv2/3x3"
  type: "Convolution"
  bottom: "conv2/3x3_reduce"
  top: "conv2/3x3"
  param {
    lr_mult: 1
    decay_mult: 1
  }
  param {
    lr_mult: 2
    decay_mult: 0
  }
  convolution_param {
    num_output: 192
    pad: 1
    kernel_size: 3
    weight_filler {
      type: "xavier"
      std: 0.03
    }
    bias_filler {
      type: "constant"
      value: 0.2
    }
  }
}
layer {
  name: "conv2/relu_3x3"
  type: "ReLU"
  bottom: "conv2/3x3"
  top: "conv2/3x3"
}
layer {
  name: "conv2/norm2"
  type: "LRN"
  bottom: "conv2/3x3"
  top: "conv2/norm2"
  lrn_param {
    local_size: 5
    alpha: 0.0001
    beta: 0.75
  }
}
layer {
  name: "pool2/3x3_s2"
  type: "Pooling"
  bottom: "conv2/norm2"
  top: "pool2/3x3_s2"
  pooling_param {
    pool: MAX
    kernel_size: 3
    stride: 2
  }
}
layer {
  name: "inception_3a/1x1"
  type: "Convolution"
  bottom: "pool2/3x3_s2"
  top: "inception_3a/1x1"
  param {
    lr_mult: 1
    decay_mult: 1
  }
  param {
    lr_mult: 2
    decay_mult: 0
  }
  convolution_param {
    num_output: 64
    kernel_size: 1
    weight_filler {
      type: "xavier"
      std: 0.03
    }
    bias_filler {
      type: "constant"
      value: 0.2
    }
  }
}
layer {
  name: "inception_3a/relu_1x1"
  type: "ReLU"
  bottom: "inception_3a/1x1"
  top: "inception_3a/1x1"
}
layer {
  name: "inception_3a/3x3_reduce"
  type: "Convolution"
  bottom: "pool2/3x3_s2"
  top: "inception_3a/3x3_reduce"
  param {
    lr_mult: 1
    decay_mult: 1
  }
  param {
    lr_mult: 2
    decay_mult: 0
  }
  convolution_param {
    num_output: 96
    kernel_size: 1
    weight_filler {
      type: "xavier"
      std: 0.09
    }
    bias_filler {
      type: "constant"
      value: 0.2
    }
  }
}
layer {
  name: "inception_3a/relu_3x3_reduce"
  type: "ReLU"
  bottom: "inception_3a/3x3_reduce"
  top: "inception_3a/3x3_reduce"
}
layer {
  name: "inception_3a/3x3"
  type: "Convolution"
  bottom: "inception_3a/3x3_reduce"
  top: "inception_3a/3x3"
  param {
    lr_mult: 1
    decay_mult: 1
  }
  param {
    lr_mult: 2
    decay_mult: 0
  }
  convolution_param {
    num_output: 128
    pad: 1
    kernel_size: 3
    weight_filler {
      type: "xavier"
      std: 0.03
    }
    bias_filler {
      type: "constant"
      value: 0.2
    }
  }
}
layer {
  name: "inception_3a/relu_3x3"
  type: "ReLU"
  bottom: "inception_3a/3x3"
  top: "inception_3a/3x3"
}
layer {
  name: "inception_3a/5x5_reduce"
  type: "Convolution"
  bottom: "pool2/3x3_s2"
  top: "inception_3a/5x5_reduce"
  param {
    lr_mult: 1
    decay_mult: 1
  }
  param {
    lr_mult: 2
    decay_mult: 0
  }
  convolution_param {
    num_output: 16
    kernel_size: 1
    weight_filler {
      type: "xavier"
      std: 0.2
    }
    bias_filler {
      type: "constant"
      value: 0.2
    }
  }
}
layer {
  name: "inception_3a/relu_5x5_reduce"
  type: "ReLU"
  bottom: "inception_3a/5x5_reduce"
  top: "inception_3a/5x5_reduce"
}
layer {
  name: "inception_3a/5x5"
  type: "Convolution"
  bottom: "inception_3a/5x5_reduce"
  top: "inception_3a/5x5"
  param {
    lr_mult: 1
    decay_mult: 1
  }
  param {
    lr_mult: 2
    decay_mult: 0
  }
  convolution_param {
    num_output: 32
    pad: 2
    kernel_size: 5
    weight_filler {
      type: "xavier"
      std: 0.03
    }
    bias_filler {
      type: "constant"
      value: 0.2
    }
  }
}
layer {
  name: "inception_3a/relu_5x5"
  type: "ReLU"
  bottom: "inception_3a/5x5"
  top: "inception_3a/5x5"
}
layer {
  name: "inception_3a/pool"
  type: "Pooling"
  bottom: "pool2/3x3_s2"
  top: "inception_3a/pool"
  pooling_param {
    pool: MAX
    kernel_size: 3
    stride: 1
    pad: 1
  }
}
layer {
  name: "inception_3a/pool_proj"
  type: "Convolution"
  bottom: "inception_3a/pool"
  top: "inception_3a/pool_proj"
  param {
    lr_mult: 1
    decay_mult: 1
  }
  param {
    lr_mult: 2
    decay_mult: 0
  }
  convolution_param {
    num_output: 32
    kernel_size: 1
    weight_filler {
      type: "xavier"
      std: 0.1
    }
    bias_filler {
      type: "constant"
      value: 0.2
    }
  }
}
layer {
  name: "inception_3a/relu_pool_proj"
  type: "ReLU"
  bottom: "inception_3a/pool_proj"
  top: "inception_3a/pool_proj"
}
layer {
  name: "inception_3a/output"
  type: "Concat"
  bottom: "inception_3a/1x1"
  bottom: "inception_3a/3x3"
  bottom: "inception_3a/5x5"
  bottom: "inception_3a/pool_proj"
  top: "inception_3a/output"
}
layer {
  name: "inception_3b/1x1"
  type: "Convolution"
  bottom: "inception_3a/output"
  top: "inception_3b/1x1"
  param {
    lr_mult: 1
    decay_mult: 1
  }
  param {
    lr_mult: 2
    decay_mult: 0
  }
  convolution_param {
    num_output: 128
    kernel_size: 1
    weight_filler {
      type: "xavier"
      std: 0.03
    }
    bias_filler {
      type: "constant"
      value: 0.2
    }
  }
}
layer {
  name: "inception_3b/relu_1x1"
  type: "ReLU"
  bottom: "inception_3b/1x1"
  top: "inception_3b/1x1"
}
layer {
  name: "inception_3b/3x3_reduce"
  type: "Convolution"
  bottom: "inception_3a/output"
  top: "inception_3b/3x3_reduce"
  param {
    lr_mult: 1
    decay_mult: 1
  }
  param {
    lr_mult: 2
    decay_mult: 0
  }
  convolution_param {
    num_output: 128
    kernel_size: 1
    weight_filler {
      type: "xavier"
      std: 0.09
    }
    bias_filler {
      type: "constant"
      value: 0.2
    }
  }
}
layer {
  name: "inception_3b/relu_3x3_reduce"
  type: "ReLU"
  bottom: "inception_3b/3x3_reduce"
  top: "inception_3b/3x3_reduce"
}
layer {
  name: "inception_3b/3x3"
  type: "Convolution"
  bottom: "inception_3b/3x3_reduce"
  top: "inception_3b/3x3"
  param {
    lr_mult: 1
    decay_mult: 1
  }
  param {
    lr_mult: 2
    decay_mult: 0
  }
  convolution_param {
    num_output: 192
    pad: 1
    kernel_size: 3
    weight_filler {
      type: "xavier"
      std: 0.03
    }
    bias_filler {
      type: "constant"
      value: 0.2
    }
  }
}
layer {
  name: "inception_3b/relu_3x3"
  type: "ReLU"
  bottom: "inception_3b/3x3"
  top: "inception_3b/3x3"
}
layer {
  name: "inception_3b/5x5_reduce"
  type: "Convolution"
  bottom: "inception_3a/output"
  top: "inception_3b/5x5_reduce"
  param {
    lr_mult: 1
    decay_mult: 1
  }
  param {
    lr_mult: 2
    decay_mult: 0
  }
  convolution_param {
    num_output: 32
    kernel_size: 1
    weight_filler {
      type: "xavier"
      std: 0.2
    }
    bias_filler {
      type: "constant"
      value: 0.2
    }
  }
}
layer {
  name: "inception_3b/relu_5x5_reduce"
  type: "ReLU"
  bottom: "inception_3b/5x5_reduce"
  top: "inception_3b/5x5_reduce"
}
layer {
  name: "inception_3b/5x5"
  type: "Convolution"
  bottom: "inception_3b/5x5_reduce"
  top: "inception_3b/5x5"
  param {
    lr_mult: 1
    decay_mult: 1
  }
  param {
    lr_mult: 2
    decay_mult: 0
  }
  convolution_param {
    num_output: 96
    pad: 2
    kernel_size: 5
    weight_filler {
      type: "xavier"
      std: 0.03
    }
    bias_filler {
      type: "constant"
      value: 0.2
    }
  }
}
layer {
  name: "inception_3b/relu_5x5"
  type: "ReLU"
  bottom: "inception_3b/5x5"
  top: "inception_3b/5x5"
}
layer {
  name: "inception_3b/pool"
  type: "Pooling"
  bottom: "inception_3a/output"
  top: "inception_3b/pool"
  pooling_param {
    pool: MAX
    kernel_size: 3
    stride: 1
    pad: 1
  }
}
layer {
  name: "inception_3b/pool_proj"
  type: "Convolution"
  bottom: "inception_3b/pool"
  top: "inception_3b/pool_proj"
  param {
    lr_mult: 1
    decay_mult: 1
  }
  param {
    lr_mult: 2
    decay_mult: 0
  }
  convolution_param {
    num_output: 64
    kernel_size: 1
    weight_filler {
      type: "xavier"
      std: 0.1
    }
    bias_filler {
      type: "constant"
      value: 0.2
    }
  }
}
layer {
  name: "inception_3b/relu_pool_proj"
  type: "ReLU"
  bottom: "inception_3b/pool_proj"
  top: "inception_3b/pool_proj"
}
layer {
  name: "inception_3b/output"
  type: "Concat"
  bottom: "inception_3b/1x1"
  bottom: "inception_3b/3x3"
  bottom: "inception_3b/5x5"
  bottom: "inception_3b/pool_proj"
  top: "inception_3b/output"
}
layer {
  name: "pool3/3x3_s2"
  type: "Pooling"
  bottom: "inception_3b/output"
  top: "pool3/3x3_s2"
  pooling_param {
    pool: MAX
    kernel_size: 3
    stride: 2
  }
}
layer {
  name: "inception_4a/1x1"
  type: "Convolution"
  bottom: "pool3/3x3_s2"
  top: "inception_4a/1x1"
  param {
    lr_mult: 1
    decay_mult: 1
  }
  param {
    lr_mult: 2
    decay_mult: 0
  }
  convolution_param {
    num_output: 192
    kernel_size: 1
    weight_filler {
      type: "xavier"
      std: 0.03
    }
    bias_filler {
      type: "constant"
      value: 0.2
    }
  }
}
layer {
  name: "inception_4a/relu_1x1"
  type: "ReLU"
  bottom: "inception_4a/1x1"
  top: "inception_4a/1x1"
}
layer {
  name: "inception_4a/3x3_reduce"
  type: "Convolution"
  bottom: "pool3/3x3_s2"
  top: "inception_4a/3x3_reduce"
  param {
    lr_mult: 1
    decay_mult: 1
  }
  param {
    lr_mult: 2
    decay_mult: 0
  }
  convolution_param {
    num_output: 96
    kernel_size: 1
    weight_filler {
      type: "xavier"
      std: 0.09
    }
    bias_filler {
      type: "constant"
      value: 0.2
    }
  }
}
layer {
  name: "inception_4a/relu_3x3_reduce"
  type: "ReLU"
  bottom: "inception_4a/3x3_reduce"
  top: "inception_4a/3x3_reduce"
}
layer {
  name: "inception_4a/3x3"
  type: "Convolution"
  bottom: "inception_4a/3x3_reduce"
  top: "inception_4a/3x3"
  param {
    lr_mult: 1
    decay_mult: 1
  }
  param {
    lr_mult: 2
    decay_mult: 0
  }
  convolution_param {
    num_output: 208
    pad: 1
    kernel_size: 3
    weight_filler {
      type: "xavier"
      std: 0.03
    }
    bias_filler {
      type: "constant"
      value: 0.2
    }
  }
}
layer {
  name: "inception_4a/relu_3x3"
  type: "ReLU"
  bottom: "inception_4a/3x3"
  top: "inception_4a/3x3"
}
layer {
  name: "inception_4a/5x5_reduce"
  type: "Convolution"
  bottom: "pool3/3x3_s2"
  top: "inception_4a/5x5_reduce"
  param {
    lr_mult: 1
    decay_mult: 1
  }
  param {
    lr_mult: 2
    decay_mult: 0
  }
  convolution_param {
    num_output: 16
    kernel_size: 1
    weight_filler {
      type: "xavier"
      std: 0.2
    }
    bias_filler {
      type: "constant"
      value: 0.2
    }
  }
}
layer {
  name: "inception_4a/relu_5x5_reduce"
  type: "ReLU"
  bottom: "inception_4a/5x5_reduce"
  top: "inception_4a/5x5_reduce"
}
layer {
  name: "inception_4a/5x5"
  type: "Convolution"
  bottom: "inception_4a/5x5_reduce"
  top: "inception_4a/5x5"
  param {
    lr_mult: 1
    decay_mult: 1
  }
  param {
    lr_mult: 2
    decay_mult: 0
  }
  convolution_param {
    num_output: 48
    pad: 2
    kernel_size: 5
    weight_filler {
      type: "xavier"
      std: 0.03
    }
    bias_filler {
      type: "constant"
      value: 0.2
    }
  }
}
layer {
  name: "inception_4a/relu_5x5"
  type: "ReLU"
  bottom: "inception_4a/5x5"
  top: "inception_4a/5x5"
}
layer {
  name: "inception_4a/pool"
  type: "Pooling"
  bottom: "pool3/3x3_s2"
  top: "inception_4a/pool"
  pooling_param {
    pool: MAX
    kernel_size: 3
    stride: 1
    pad: 1
  }
}
layer {
  name: "inception_4a/pool_proj"
  type: "Convolution"
  bottom: "inception_4a/pool"
  top: "inception_4a/pool_proj"
  param {
    lr_mult: 1
    decay_mult: 1
  }
  param {
    lr_mult: 2
    decay_mult: 0
  }
  convolution_param {
    num_output: 64
    kernel_size: 1
    weight_filler {
      type: "xavier"
      std: 0.1
    }
    bias_filler {
      type: "constant"
      value: 0.2
    }
  }
}
layer {
  name: "inception_4a/relu_pool_proj"
  type: "ReLU"
  bottom: "inception_4a/pool_proj"
  top: "inception_4a/pool_proj"
}
layer {
  name: "inception_4a/output"
  type: "Concat"
  bottom: "inception_4a/1x1"
  bottom: "inception_4a/3x3"
  bottom: "inception_4a/5x5"
  bottom: "inception_4a/pool_proj"
  top: "inception_4a/output"
}
layer {
  name: "loss1/ave_pool"
  type: "Pooling"
  bottom: "inception_4a/output"
  top: "loss1/ave_pool"
  pooling_param {
    pool: AVE
    kernel_size: 5
    stride: 3
  }
}
layer {
  name: "loss1/conv"
  type: "Convolution"
  bottom: "loss1/ave_pool"
  top: "loss1/conv"
  param {
    lr_mult: 1
    decay_mult: 1
  }
  param {
    lr_mult: 2
    decay_mult: 0
  }
  convolution_param {
    num_output: 128
    kernel_size: 1
    weight_filler {
      type: "xavier"
      std: 0.08
    }
    bias_filler {
      type: "constant"
      value: 0.2
    }
  }
}
layer {
  name: "loss1/relu_conv"
  type: "ReLU"
  bottom: "loss1/conv"
  top: "loss1/conv"
}
layer {
  name: "loss1/fc"
  type: "InnerProduct"
  bottom: "loss1/conv"
  top: "loss1/fc"
  param {
    lr_mult: 1
    decay_mult: 1
  }
  param {
    lr_mult: 2
    decay_mult: 0
  }
  inner_product_param {
    num_output: 1024
    weight_filler {
      type: "xavier"
      std: 0.02
    }
    bias_filler {
      type: "constant"
      value: 0.2
    }
  }
}
layer {
  name: "loss1/relu_fc"
  type: "ReLU"
  bottom: "loss1/fc"
  top: "loss1/fc"
}
layer {
  name: "loss1/drop_fc"
  type: "Dropout"
  bottom: "loss1/fc"
  top: "loss1/fc"
  dropout_param {
    dropout_ratio: 0.7
  }
}
layer {
  name: "loss1/classifier_plantvillage"
  type: "InnerProduct"
  bottom: "loss1/fc"
  top: "loss1/classifier_plantvillage"
  param {
    lr_mult: 1
    decay_mult: 1
  }
  param {
    lr_mult: 2
    decay_mult: 0
  }
  inner_product_param {
    num_output: 38
    weight_filler {
      type: "xavier"
      std: 0.0009765625
    }
    bias_filler {
      type: "constant"
      value: 0
    }
  }
}
layer {
  name: "inception_4b/1x1"
  type: "Convolution"
  bottom: "inception_4a/output"
  top: "inception_4b/1x1"
  param {
    lr_mult: 1
    decay_mult: 1
  }
  param {
    lr_mult: 2
    decay_mult: 0
  }
  convolution_param {
    num_output: 160
    kernel_size: 1
    weight_filler {
      type: "xavier"
      std: 0.03
    }
    bias_filler {
      type: "constant"
      value: 0.2
    }
  }
}
layer {
  name: "inception_4b/relu_1x1"
  type: "ReLU"
  bottom: "inception_4b/1x1"
  top: "inception_4b/1x1"
}
layer {
  name: "inception_4b/3x3_reduce"
  type: "Convolution"
  bottom: "inception_4a/output"
  top: "inception_4b/3x3_reduce"
  param {
    lr_mult: 1
    decay_mult: 1
  }
  param {
    lr_mult: 2
    decay_mult: 0
  }
  convolution_param {
    num_output: 112
    kernel_size: 1
    weight_filler {
      type: "xavier"
      std: 0.09
    }
    bias_filler {
      type: "constant"
      value: 0.2
    }
  }
}
layer {
  name: "inception_4b/relu_3x3_reduce"
  type: "ReLU"
  bottom: "inception_4b/3x3_reduce"
  top: "inception_4b/3x3_reduce"
}
layer {
  name: "inception_4b/3x3"
  type: "Convolution"
  bottom: "inception_4b/3x3_reduce"
  top: "inception_4b/3x3"
  param {
    lr_mult: 1
    decay_mult: 1
  }
  param {
    lr_mult: 2
    decay_mult: 0
  }
  convolution_param {
    num_output: 224
    pad: 1
    kernel_size: 3
    weight_filler {
      type: "xavier"
      std: 0.03
    }
    bias_filler {
      type: "constant"
      value: 0.2
    }
  }
}
layer {
  name: "inception_4b/relu_3x3"
  type: "ReLU"
  bottom: "inception_4b/3x3"
  top: "inception_4b/3x3"
}
layer {
  name: "inception_4b/5x5_reduce"
  type: "Convolution"
  bottom: "inception_4a/output"
  top: "inception_4b/5x5_reduce"
  param {
    lr_mult: 1
    decay_mult: 1
  }
  param {
    lr_mult: 2
    decay_mult: 0
  }
  convolution_param {
    num_output: 24
    kernel_size: 1
    weight_filler {
      type: "xavier"
      std: 0.2
    }
    bias_filler {
      type: "constant"
      value: 0.2
    }
  }
}
layer {
  name: "inception_4b/relu_5x5_reduce"
  type: "ReLU"
  bottom: "inception_4b/5x5_reduce"
  top: "inception_4b/5x5_reduce"
}
layer {
  name: "inception_4b/5x5"
  type: "Convolution"
  bottom: "inception_4b/5x5_reduce"
  top: "inception_4b/5x5"
  param {
    lr_mult: 1
    decay_mult: 1
  }
  param {
    lr_mult: 2
    decay_mult: 0
  }
  convolution_param {
    num_output: 64
    pad: 2
    kernel_size: 5
    weight_filler {
      type: "xavier"
      std: 0.03
    }
    bias_filler {
      type: "constant"
      value: 0.2
    }
  }
}
layer {
  name: "inception_4b/relu_5x5"
  type: "ReLU"
  bottom: "inception_4b/5x5"
  top: "inception_4b/5x5"
}
layer {
  name: "inception_4b/pool"
  type: "Pooling"
  bottom: "inception_4a/output"
  top: "inception_4b/pool"
  pooling_param {
    pool: MAX
    kernel_size: 3
    stride: 1
    pad: 1
  }
}
layer {
  name: "inception_4b/pool_proj"
  type: "Convolution"
  bottom: "inception_4b/pool"
  top: "inception_4b/pool_proj"
  param {
    lr_mult: 1
    decay_mult: 1
  }
  param {
    lr_mult: 2
    decay_mult: 0
  }
  convolution_param {
    num_output: 64
    kernel_size: 1
    weight_filler {
      type: "xavier"
      std: 0.1
    }
    bias_filler {
      type: "constant"
      value: 0.2
    }
  }
}
layer {
  name: "inception_4b/relu_pool_proj"
  type: "ReLU"
  bottom: "inception_4b/pool_proj"
  top: "inception_4b/pool_proj"
}
layer {
  name: "inception_4b/output"
  type: "Concat"
  bottom: "inception_4b/1x1"
  bottom: "inception_4b/3x3"
  bottom: "inception_4b/5x5"
  bottom: "inception_4b/pool_proj"
  top: "inception_4b/output"
}
layer {
  name: "inception_4c/1x1"
  type: "Convolution"
  bottom: "inception_4b/output"
  top: "inception_4c/1x1"
  param {
    lr_mult: 1
    decay_mult: 1
  }
  param {
    lr_mult: 2
    decay_mult: 0
  }
  convolution_param {
    num_output: 128
    kernel_size: 1
    weight_filler {
      type: "xavier"
      std: 0.03
    }
    bias_filler {
      type: "constant"
      value: 0.2
    }
  }
}
layer {
  name: "inception_4c/relu_1x1"
  type: "ReLU"
  bottom: "inception_4c/1x1"
  top: "inception_4c/1x1"
}
layer {
  name: "inception_4c/3x3_reduce"
  type: "Convolution"
  bottom: "inception_4b/output"
  top: "inception_4c/3x3_reduce"
  param {
    lr_mult: 1
    decay_mult: 1
  }
  param {
    lr_mult: 2
    decay_mult: 0
  }
  convolution_param {
    num_output: 128
    kernel_size: 1
    weight_filler {
      type: "xavier"
      std: 0.09
    }
    bias_filler {
      type: "constant"
      value: 0.2
    }
  }
}
layer {
  name: "inception_4c/relu_3x3_reduce"
  type: "ReLU"
  bottom: "inception_4c/3x3_reduce"
  top: "inception_4c/3x3_reduce"
}
layer {
  name: "inception_4c/3x3"
  type: "Convolution"
  bottom: "inception_4c/3x3_reduce"
  top: "inception_4c/3x3"
  param {
    lr_mult: 1
    decay_mult: 1
  }
  param {
    lr_mult: 2
    decay_mult: 0
  }
  convolution_param {
    num_output: 256
    pad: 1
    kernel_size: 3
    weight_filler {
      type: "xavier"
      std: 0.03
    }
    bias_filler {
      type: "constant"
      value: 0.2
    }
  }
}
layer {
  name: "inception_4c/relu_3x3"
  type: "ReLU"
  bottom: "inception_4c/3x3"
  top: "inception_4c/3x3"
}
layer {
  name: "inception_4c/5x5_reduce"
  type: "Convolution"
  bottom: "inception_4b/output"
  top: "inception_4c/5x5_reduce"
  param {
    lr_mult: 1
    decay_mult: 1
  }
  param {
    lr_mult: 2
    decay_mult: 0
  }
  convolution_param {
    num_output: 24
    kernel_size: 1
    weight_filler {
      type: "xavier"
      std: 0.2
    }
    bias_filler {
      type: "constant"
      value: 0.2
    }
  }
}
layer {
  name: "inception_4c/relu_5x5_reduce"
  type: "ReLU"
  bottom: "inception_4c/5x5_reduce"
  top: "inception_4c/5x5_reduce"
}
layer {
  name: "inception_4c/5x5"
  type: "Convolution"
  bottom: "inception_4c/5x5_reduce"
  top: "inception_4c/5x5"
  param {
    lr_mult: 1
    decay_mult: 1
  }
  param {
    lr_mult: 2
    decay_mult: 0
  }
  convolution_param {
    num_output: 64
    pad: 2
    kernel_size: 5
    weight_filler {
      type: "xavier"
      std: 0.03
    }
    bias_filler {
      type: "constant"
      value: 0.2
    }
  }
}
layer {
  name: "inception_4c/relu_5x5"
  type: "ReLU"
  bottom: "inception_4c/5x5"
  top: "inception_4c/5x5"
}
layer {
  name: "inception_4c/pool"
  type: "Pooling"
  bottom: "inception_4b/output"
  top: "inception_4c/pool"
  pooling_param {
    pool: MAX
    kernel_size: 3
    stride: 1
    pad: 1
  }
}
layer {
  name: "inception_4c/pool_proj"
  type: "Convolution"
  bottom: "inception_4c/pool"
  top: "inception_4c/pool_proj"
  param {
    lr_mult: 1
    decay_mult: 1
  }
  param {
    lr_mult: 2
    decay_mult: 0
  }
  convolution_param {
    num_output: 64
    kernel_size: 1
    weight_filler {
      type: "xavier"
      std: 0.1
    }
    bias_filler {
      type: "constant"
      value: 0.2
    }
  }
}
layer {
  name: "inception_4c/relu_pool_proj"
  type: "ReLU"
  bottom: "inception_4c/pool_proj"
  top: "inception_4c/pool_proj"
}
layer {
  name: "inception_4c/output"
  type: "Concat"
  bottom: "inception_4c/1x1"
  bottom: "inception_4c/3x3"
  bottom: "inception_4c/5x5"
  bottom: "inception_4c/pool_proj"
  top: "inception_4c/output"
}
layer {
  name: "inception_4d/1x1"
  type: "Convolution"
  bottom: "inception_4c/output"
  top: "inception_4d/1x1"
  param {
    lr_mult: 1
    decay_mult: 1
  }
  param {
    lr_mult: 2
    decay_mult: 0
  }
  convolution_param {
    num_output: 112
    kernel_size: 1
    weight_filler {
      type: "xavier"
      std: 0.03
    }
    bias_filler {
      type: "constant"
      value: 0.2
    }
  }
}
layer {
  name: "inception_4d/relu_1x1"
  type: "ReLU"
  bottom: "inception_4d/1x1"
  top: "inception_4d/1x1"
}
layer {
  name: "inception_4d/3x3_reduce"
  type: "Convolution"
  bottom: "inception_4c/output"
  top: "inception_4d/3x3_reduce"
  param {
    lr_mult: 1
    decay_mult: 1
  }
  param {
    lr_mult: 2
    decay_mult: 0
  }
  convolution_param {
    num_output: 144
    kernel_size: 1
    weight_filler {
      type: "xavier"
      std: 0.09
    }
    bias_filler {
      type: "constant"
      value: 0.2
    }
  }
}
layer {
  name: "inception_4d/relu_3x3_reduce"
  type: "ReLU"
  bottom: "inception_4d/3x3_reduce"
  top: "inception_4d/3x3_reduce"
}
layer {
  name: "inception_4d/3x3"
  type: "Convolution"
  bottom: "inception_4d/3x3_reduce"
  top: "inception_4d/3x3"
  param {
    lr_mult: 1
    decay_mult: 1
  }
  param {
    lr_mult: 2
    decay_mult: 0
  }
  convolution_param {
    num_output: 288
    pad: 1
    kernel_size: 3
    weight_filler {
      type: "xavier"
      std: 0.03
    }
    bias_filler {
      type: "constant"
      value: 0.2
    }
  }
}
layer {
  name: "inception_4d/relu_3x3"
  type: "ReLU"
  bottom: "inception_4d/3x3"
  top: "inception_4d/3x3"
}
layer {
  name: "inception_4d/5x5_reduce"
  type: "Convolution"
  bottom: "inception_4c/output"
  top: "inception_4d/5x5_reduce"
  param {
    lr_mult: 1
    decay_mult: 1
  }
  param {
    lr_mult: 2
    decay_mult: 0
  }
  convolution_param {
    num_output: 32
    kernel_size: 1
    weight_filler {
      type: "xavier"
      std: 0.2
    }
    bias_filler {
      type: "constant"
      value: 0.2
    }
  }
}
layer {
  name: "inception_4d/relu_5x5_reduce"
  type: "ReLU"
  bottom: "inception_4d/5x5_reduce"
  top: "inception_4d/5x5_reduce"
}
layer {
  name: "inception_4d/5x5"
  type: "Convolution"
  bottom: "inception_4d/5x5_reduce"
  top: "inception_4d/5x5"
  param {
    lr_mult: 1
    decay_mult: 1
  }
  param {
    lr_mult: 2
    decay_mult: 0
  }
  convolution_param {
    num_output: 64
    pad: 2
    kernel_size: 5
    weight_filler {
      type: "xavier"
      std: 0.03
    }
    bias_filler {
      type: "constant"
      value: 0.2
    }
  }
}
layer {
  name: "inception_4d/relu_5x5"
  type: "ReLU"
  bottom: "inception_4d/5x5"
  top: "inception_4d/5x5"
}
layer {
  name: "inception_4d/pool"
  type: "Pooling"
  bottom: "inception_4c/output"
  top: "inception_4d/pool"
  pooling_param {
    pool: MAX
    kernel_size: 3
    stride: 1
    pad: 1
  }
}
layer {
  name: "inception_4d/pool_proj"
  type: "Convolution"
  bottom: "inception_4d/pool"
  top: "inception_4d/pool_proj"
  param {
    lr_mult: 1
    decay_mult: 1
  }
  param {
    lr_mult: 2
    decay_mult: 0
  }
  convolution_param {
    num_output: 64
    kernel_size: 1
    weight_filler {
      type: "xavier"
      std: 0.1
    }
    bias_filler {
      type: "constant"
      value: 0.2
    }
  }
}
layer {
  name: "inception_4d/relu_pool_proj"
  type: "ReLU"
  bottom: "inception_4d/pool_proj"
  top: "inception_4d/pool_proj"
}
layer {
  name: "inception_4d/output"
  type: "Concat"
  bottom: "inception_4d/1x1"
  bottom: "inception_4d/3x3"
  bottom: "inception_4d/5x5"
  bottom: "inception_4d/pool_proj"
  top: "inception_4d/output"
}
layer {
  name: "loss2/ave_pool"
  type: "Pooling"
  bottom: "inception_4d/output"
  top: "loss2/ave_pool"
  pooling_param {
    pool: AVE
    kernel_size: 5
    stride: 3
  }
}
layer {
  name: "loss2/conv"
  type: "Convolution"
  bottom: "loss2/ave_pool"
  top: "loss2/conv"
  param {
    lr_mult: 1
    decay_mult: 1
  }
  param {
    lr_mult: 2
    decay_mult: 0
  }
  convolution_param {
    num_output: 128
    kernel_size: 1
    weight_filler {
      type: "xavier"
      std: 0.08
    }
    bias_filler {
      type: "constant"
      value: 0.2
    }
  }
}
layer {
  name: "loss2/relu_conv"
  type: "ReLU"
  bottom: "loss2/conv"
  top: "loss2/conv"
}
layer {
  name: "loss2/fc"
  type: "InnerProduct"
  bottom: "loss2/conv"
  top: "loss2/fc"
  param {
    lr_mult: 1
    decay_mult: 1
  }
  param {
    lr_mult: 2
    decay_mult: 0
  }
  inner_product_param {
    num_output: 1024
    weight_filler {
      type: "xavier"
      std: 0.02
    }
    bias_filler {
      type: "constant"
      value: 0.2
    }
  }
}
layer {
  name: "loss2/relu_fc"
  type: "ReLU"
  bottom: "loss2/fc"
  top: "loss2/fc"
}
layer {
  name: "loss2/drop_fc"
  type: "Dropout"
  bottom: "loss2/fc"
  top: "loss2/fc"
  dropout_param {
    dropout_ratio: 0.7
  }
}
layer {
  name: "loss2/classifier_plantvillage"
  type: "InnerProduct"
  bottom: "loss2/fc"
  top: "loss2/classifier_plantvillage"
  param {
    lr_mult: 1
    decay_mult: 1
  }
  param {
    lr_mult: 2
    decay_mult: 0
  }
  inner_product_param {
    num_output: 38
    weight_filler {
      type: "xavier"
      std: 0.0009765625
    }
    bias_filler {
      type: "constant"
      value: 0
    }
  }
}
layer {
  name: "inception_4e/1x1"
  type: "Convolution"
  bottom: "inception_4d/output"
  top: "inception_4e/1x1"
  param {
    lr_mult: 1
    decay_mult: 1
  }
  param {
    lr_mult: 2
    decay_mult: 0
  }
  convolution_param {
    num_output: 256
    kernel_size: 1
    weight_filler {
      type: "xavier"
      std: 0.03
    }
    bias_filler {
      type: "constant"
      value: 0.2
    }
  }
}
layer {
  name: "inception_4e/relu_1x1"
  type: "ReLU"
  bottom: "inception_4e/1x1"
  top: "inception_4e/1x1"
}
layer {
  name: "inception_4e/3x3_reduce"
  type: "Convolution"
  bottom: "inception_4d/output"
  top: "inception_4e/3x3_reduce"
  param {
    lr_mult: 1
    decay_mult: 1
  }
  param {
    lr_mult: 2
    decay_mult: 0
  }
  convolution_param {
    num_output: 160
    kernel_size: 1
    weight_filler {
      type: "xavier"
      std: 0.09
    }
    bias_filler {
      type: "constant"
      value: 0.2
    }
  }
}
layer {
  name: "inception_4e/relu_3x3_reduce"
  type: "ReLU"
  bottom: "inception_4e/3x3_reduce"
  top: "inception_4e/3x3_reduce"
}
layer {
  name: "inception_4e/3x3"
  type: "Convolution"
  bottom: "inception_4e/3x3_reduce"
  top: "inception_4e/3x3"
  param {
    lr_mult: 1
    decay_mult: 1
  }
  param {
    lr_mult: 2
    decay_mult: 0
  }
  convolution_param {
    num_output: 320
    pad: 1
    kernel_size: 3
    weight_filler {
      type: "xavier"
      std: 0.03
    }
    bias_filler {
      type: "constant"
      value: 0.2
    }
  }
}
layer {
  name: "inception_4e/relu_3x3"
  type: "ReLU"
  bottom: "inception_4e/3x3"
  top: "inception_4e/3x3"
}
layer {
  name: "inception_4e/5x5_reduce"
  type: "Convolution"
  bottom: "inception_4d/output"
  top: "inception_4e/5x5_reduce"
  param {
    lr_mult: 1
    decay_mult: 1
  }
  param {
    lr_mult: 2
    decay_mult: 0
  }
  convolution_param {
    num_output: 32
    kernel_size: 1
    weight_filler {
      type: "xavier"
      std: 0.2
    }
    bias_filler {
      type: "constant"
      value: 0.2
    }
  }
}
layer {
  name: "inception_4e/relu_5x5_reduce"
  type: "ReLU"
  bottom: "inception_4e/5x5_reduce"
  top: "inception_4e/5x5_reduce"
}
layer {
  name: "inception_4e/5x5"
  type: "Convolution"
  bottom: "inception_4e/5x5_reduce"
  top: "inception_4e/5x5"
  p
I0403 21:55:42.138743 13311 layer_factory.hpp:77] Creating layer data
I0403 21:55:42.139487 13311 net.cpp:91] Creating Layer data
I0403 21:55:42.139524 13311 net.cpp:399] data -> data
I0403 21:55:42.139590 13311 net.cpp:399] data -> label
I0403 21:55:42.139636 13311 data_transformer.cpp:25] Loading mean file from: /home/mohanty/data/final_dataset/lmdb/color-80-20/mean.binaryproto
I0403 21:55:42.141028 13317 db_lmdb.cpp:38] Opened lmdb /home/mohanty/data/final_dataset/lmdb/color-80-20/test_db
I0403 21:55:42.156635 13311 data_layer.cpp:41] output data size: 24,3,224,224
I0403 21:55:42.188753 13311 net.cpp:141] Setting up data
I0403 21:55:42.188866 13311 net.cpp:148] Top shape: 24 3 224 224 (3612672)
I0403 21:55:42.188896 13311 net.cpp:148] Top shape: 24 (24)
I0403 21:55:42.188916 13311 net.cpp:156] Memory required for data: 14450784
I0403 21:55:42.188951 13311 layer_factory.hpp:77] Creating layer label_data_1_split
I0403 21:55:42.188987 13311 net.cpp:91] Creating Layer label_data_1_split
I0403 21:55:42.189010 13311 net.cpp:425] label_data_1_split <- label
I0403 21:55:42.189049 13311 net.cpp:399] label_data_1_split -> label_data_1_split_0
I0403 21:55:42.189086 13311 net.cpp:399] label_data_1_split -> label_data_1_split_1
I0403 21:55:42.189113 13311 net.cpp:399] label_data_1_split -> label_data_1_split_2
I0403 21:55:42.189139 13311 net.cpp:399] label_data_1_split -> label_data_1_split_3
I0403 21:55:42.189164 13311 net.cpp:399] label_data_1_split -> label_data_1_split_4
I0403 21:55:42.189191 13311 net.cpp:399] label_data_1_split -> label_data_1_split_5
I0403 21:55:42.189224 13311 net.cpp:399] label_data_1_split -> label_data_1_split_6
I0403 21:55:42.189254 13311 net.cpp:399] label_data_1_split -> label_data_1_split_7
I0403 21:55:42.189280 13311 net.cpp:399] label_data_1_split -> label_data_1_split_8
I0403 21:55:42.189306 13311 net.cpp:399] label_data_1_split -> label_data_1_split_9
I0403 21:55:42.189451 13311 net.cpp:141] Setting up label_data_1_split
I0403 21:55:42.189484 13311 net.cpp:148] Top shape: 24 (24)
I0403 21:55:42.189507 13311 net.cpp:148] Top shape: 24 (24)
I0403 21:55:42.189528 13311 net.cpp:148] Top shape: 24 (24)
I0403 21:55:42.189550 13311 net.cpp:148] Top shape: 24 (24)
I0403 21:55:42.189570 13311 net.cpp:148] Top shape: 24 (24)
I0403 21:55:42.189592 13311 net.cpp:148] Top shape: 24 (24)
I0403 21:55:42.189613 13311 net.cpp:148] Top shape: 24 (24)
I0403 21:55:42.189633 13311 net.cpp:148] Top shape: 24 (24)
I0403 21:55:42.189654 13311 net.cpp:148] Top shape: 24 (24)
I0403 21:55:42.189677 13311 net.cpp:148] Top shape: 24 (24)
I0403 21:55:42.189735 13311 net.cpp:156] Memory required for data: 14451744
I0403 21:55:42.189755 13311 layer_factory.hpp:77] Creating layer conv1/7x7_s2
I0403 21:55:42.189795 13311 net.cpp:91] Creating Layer conv1/7x7_s2
I0403 21:55:42.189818 13311 net.cpp:425] conv1/7x7_s2 <- data
I0403 21:55:42.189842 13311 net.cpp:399] conv1/7x7_s2 -> conv1/7x7_s2
I0403 21:55:42.361909 13311 net.cpp:141] Setting up conv1/7x7_s2
I0403 21:55:42.362017 13311 net.cpp:148] Top shape: 24 64 112 112 (19267584)
I0403 21:55:42.362037 13311 net.cpp:156] Memory required for data: 91522080
I0403 21:55:42.362076 13311 layer_factory.hpp:77] Creating layer conv1/relu_7x7
I0403 21:55:42.362108 13311 net.cpp:91] Creating Layer conv1/relu_7x7
I0403 21:55:42.362133 13311 net.cpp:425] conv1/relu_7x7 <- conv1/7x7_s2
I0403 21:55:42.362156 13311 net.cpp:386] conv1/relu_7x7 -> conv1/7x7_s2 (in-place)
I0403 21:55:42.362587 13311 net.cpp:141] Setting up conv1/relu_7x7
I0403 21:55:42.362622 13311 net.cpp:148] Top shape: 24 64 112 112 (19267584)
I0403 21:55:42.362640 13311 net.cpp:156] Memory required for data: 168592416
I0403 21:55:42.362660 13311 layer_factory.hpp:77] Creating layer pool1/3x3_s2
I0403 21:55:42.362690 13311 net.cpp:91] Creating Layer pool1/3x3_s2
I0403 21:55:42.362712 13311 net.cpp:425] pool1/3x3_s2 <- conv1/7x7_s2
I0403 21:55:42.362735 13311 net.cpp:399] pool1/3x3_s2 -> pool1/3x3_s2
I0403 21:55:42.362826 13311 net.cpp:141] Setting up pool1/3x3_s2
I0403 21:55:42.362856 13311 net.cpp:148] Top shape: 24 64 56 56 (4816896)
I0403 21:55:42.362875 13311 net.cpp:156] Memory required for data: 187860000
I0403 21:55:42.362895 13311 layer_factory.hpp:77] Creating layer pool1/norm1
I0403 21:55:42.362925 13311 net.cpp:91] Creating Layer pool1/norm1
I0403 21:55:42.362946 13311 net.cpp:425] pool1/norm1 <- pool1/3x3_s2
I0403 21:55:42.362968 13311 net.cpp:399] pool1/norm1 -> pool1/norm1
I0403 21:55:42.363317 13311 net.cpp:141] Setting up pool1/norm1
I0403 21:55:42.363351 13311 net.cpp:148] Top shape: 24 64 56 56 (4816896)
I0403 21:55:42.363371 13311 net.cpp:156] Memory required for data: 207127584
I0403 21:55:42.363394 13311 layer_factory.hpp:77] Creating layer conv2/3x3_reduce
I0403 21:55:42.363425 13311 net.cpp:91] Creating Layer conv2/3x3_reduce
I0403 21:55:42.363448 13311 net.cpp:425] conv2/3x3_reduce <- pool1/norm1
I0403 21:55:42.363471 13311 net.cpp:399] conv2/3x3_reduce -> conv2/3x3_reduce
I0403 21:55:42.365102 13311 net.cpp:141] Setting up conv2/3x3_reduce
I0403 21:55:42.365139 13311 net.cpp:148] Top shape: 24 64 56 56 (4816896)
I0403 21:55:42.365159 13311 net.cpp:156] Memory required for data: 226395168
I0403 21:55:42.365190 13311 layer_factory.hpp:77] Creating layer conv2/relu_3x3_reduce
I0403 21:55:42.365219 13311 net.cpp:91] Creating Layer conv2/relu_3x3_reduce
I0403 21:55:42.365242 13311 net.cpp:425] conv2/relu_3x3_reduce <- conv2/3x3_reduce
I0403 21:55:42.365264 13311 net.cpp:386] conv2/relu_3x3_reduce -> conv2/3x3_reduce (in-place)
I0403 21:55:42.365588 13311 net.cpp:141] Setting up conv2/relu_3x3_reduce
I0403 21:55:42.365622 13311 net.cpp:148] Top shape: 24 64 56 56 (4816896)
I0403 21:55:42.365641 13311 net.cpp:156] Memory required for data: 245662752
I0403 21:55:42.365661 13311 layer_factory.hpp:77] Creating layer conv2/3x3
I0403 21:55:42.365692 13311 net.cpp:91] Creating Layer conv2/3x3
I0403 21:55:42.365715 13311 net.cpp:425] conv2/3x3 <- conv2/3x3_reduce
I0403 21:55:42.365742 13311 net.cpp:399] conv2/3x3 -> conv2/3x3
I0403 21:55:42.368535 13311 net.cpp:141] Setting up conv2/3x3
I0403 21:55:42.368572 13311 net.cpp:148] Top shape: 24 192 56 56 (14450688)
I0403 21:55:42.368593 13311 net.cpp:156] Memory required for data: 303465504
I0403 21:55:42.368623 13311 layer_factory.hpp:77] Creating layer conv2/relu_3x3
I0403 21:55:42.368649 13311 net.cpp:91] Creating Layer conv2/relu_3x3
I0403 21:55:42.368669 13311 net.cpp:425] conv2/relu_3x3 <- conv2/3x3
I0403 21:55:42.368690 13311 net.cpp:386] conv2/relu_3x3 -> conv2/3x3 (in-place)
I0403 21:55:42.368908 13311 net.cpp:141] Setting up conv2/relu_3x3
I0403 21:55:42.368942 13311 net.cpp:148] Top shape: 24 192 56 56 (14450688)
I0403 21:55:42.369000 13311 net.cpp:156] Memory required for data: 361268256
I0403 21:55:42.369020 13311 layer_factory.hpp:77] Creating layer conv2/norm2
I0403 21:55:42.369042 13311 net.cpp:91] Creating Layer conv2/norm2
I0403 21:55:42.369070 13311 net.cpp:425] conv2/norm2 <- conv2/3x3
I0403 21:55:42.369092 13311 net.cpp:399] conv2/norm2 -> conv2/norm2
I0403 21:55:42.369469 13311 net.cpp:141] Setting up conv2/norm2
I0403 21:55:42.369503 13311 net.cpp:148] Top shape: 24 192 56 56 (14450688)
I0403 21:55:42.369523 13311 net.cpp:156] Memory required for data: 419071008
I0403 21:55:42.369542 13311 layer_factory.hpp:77] Creating layer pool2/3x3_s2
I0403 21:55:42.369568 13311 net.cpp:91] Creating Layer pool2/3x3_s2
I0403 21:55:42.369590 13311 net.cpp:425] pool2/3x3_s2 <- conv2/norm2
I0403 21:55:42.369612 13311 net.cpp:399] pool2/3x3_s2 -> pool2/3x3_s2
I0403 21:55:42.369678 13311 net.cpp:141] Setting up pool2/3x3_s2
I0403 21:55:42.369706 13311 net.cpp:148] Top shape: 24 192 28 28 (3612672)
I0403 21:55:42.369725 13311 net.cpp:156] Memory required for data: 433521696
I0403 21:55:42.369745 13311 layer_factory.hpp:77] Creating layer pool2/3x3_s2_pool2/3x3_s2_0_split
I0403 21:55:42.369767 13311 net.cpp:91] Creating Layer pool2/3x3_s2_pool2/3x3_s2_0_split
I0403 21:55:42.369788 13311 net.cpp:425] pool2/3x3_s2_pool2/3x3_s2_0_split <- pool2/3x3_s2
I0403 21:55:42.369812 13311 net.cpp:399] pool2/3x3_s2_pool2/3x3_s2_0_split -> pool2/3x3_s2_pool2/3x3_s2_0_split_0
I0403 21:55:42.369839 13311 net.cpp:399] pool2/3x3_s2_pool2/3x3_s2_0_split -> pool2/3x3_s2_pool2/3x3_s2_0_split_1
I0403 21:55:42.369864 13311 net.cpp:399] pool2/3x3_s2_pool2/3x3_s2_0_split -> pool2/3x3_s2_pool2/3x3_s2_0_split_2
I0403 21:55:42.369889 13311 net.cpp:399] pool2/3x3_s2_pool2/3x3_s2_0_split -> pool2/3x3_s2_pool2/3x3_s2_0_split_3
I0403 21:55:42.369982 13311 net.cpp:141] Setting up pool2/3x3_s2_pool2/3x3_s2_0_split
I0403 21:55:42.370009 13311 net.cpp:148] Top shape: 24 192 28 28 (3612672)
I0403 21:55:42.370031 13311 net.cpp:148] Top shape: 24 192 28 28 (3612672)
I0403 21:55:42.370051 13311 net.cpp:148] Top shape: 24 192 28 28 (3612672)
I0403 21:55:42.370071 13311 net.cpp:148] Top shape: 24 192 28 28 (3612672)
I0403 21:55:42.370090 13311 net.cpp:156] Memory required for data: 491324448
I0403 21:55:42.370110 13311 layer_factory.hpp:77] Creating layer inception_3a/1x1
I0403 21:55:42.370139 13311 net.cpp:91] Creating Layer inception_3a/1x1
I0403 21:55:42.370162 13311 net.cpp:425] inception_3a/1x1 <- pool2/3x3_s2_pool2/3x3_s2_0_split_0
I0403 21:55:42.370187 13311 net.cpp:399] inception_3a/1x1 -> inception_3a/1x1
I0403 21:55:42.372048 13311 net.cpp:141] Setting up inception_3a/1x1
I0403 21:55:42.372087 13311 net.cpp:148] Top shape: 24 64 28 28 (1204224)
I0403 21:55:42.372107 13311 net.cpp:156] Memory required for data: 496141344
I0403 21:55:42.372131 13311 layer_factory.hpp:77] Creating layer inception_3a/relu_1x1
I0403 21:55:42.372159 13311 net.cpp:91] Creating Layer inception_3a/relu_1x1
I0403 21:55:42.372180 13311 net.cpp:425] inception_3a/relu_1x1 <- inception_3a/1x1
I0403 21:55:42.372201 13311 net.cpp:386] inception_3a/relu_1x1 -> inception_3a/1x1 (in-place)
I0403 21:55:42.372431 13311 net.cpp:141] Setting up inception_3a/relu_1x1
I0403 21:55:42.372464 13311 net.cpp:148] Top shape: 24 64 28 28 (1204224)
I0403 21:55:42.372484 13311 net.cpp:156] Memory required for data: 500958240
I0403 21:55:42.372503 13311 layer_factory.hpp:77] Creating layer inception_3a/3x3_reduce
I0403 21:55:42.372531 13311 net.cpp:91] Creating Layer inception_3a/3x3_reduce
I0403 21:55:42.372553 13311 net.cpp:425] inception_3a/3x3_reduce <- pool2/3x3_s2_pool2/3x3_s2_0_split_1
I0403 21:55:42.372577 13311 net.cpp:399] inception_3a/3x3_reduce -> inception_3a/3x3_reduce
I0403 21:55:42.374599 13311 net.cpp:141] Setting up inception_3a/3x3_reduce
I0403 21:55:42.374635 13311 net.cpp:148] Top shape: 24 96 28 28 (1806336)
I0403 21:55:42.374656 13311 net.cpp:156] Memory required for data: 508183584
I0403 21:55:42.374689 13311 layer_factory.hpp:77] Creating layer inception_3a/relu_3x3_reduce
I0403 21:55:42.374734 13311 net.cpp:91] Creating Layer inception_3a/relu_3x3_reduce
I0403 21:55:42.374755 13311 net.cpp:425] inception_3a/relu_3x3_reduce <- inception_3a/3x3_reduce
I0403 21:55:42.374778 13311 net.cpp:386] inception_3a/relu_3x3_reduce -> inception_3a/3x3_reduce (in-place)
I0403 21:55:42.375002 13311 net.cpp:141] Setting up inception_3a/relu_3x3_reduce
I0403 21:55:42.375032 13311 net.cpp:148] Top shape: 24 96 28 28 (1806336)
I0403 21:55:42.375053 13311 net.cpp:156] Memory required for data: 515408928
I0403 21:55:42.375072 13311 layer_factory.hpp:77] Creating layer inception_3a/3x3
I0403 21:55:42.375102 13311 net.cpp:91] Creating Layer inception_3a/3x3
I0403 21:55:42.375124 13311 net.cpp:425] inception_3a/3x3 <- inception_3a/3x3_reduce
I0403 21:55:42.375150 13311 net.cpp:399] inception_3a/3x3 -> inception_3a/3x3
I0403 21:55:42.377157 13311 net.cpp:141] Setting up inception_3a/3x3
I0403 21:55:42.377192 13311 net.cpp:148] Top shape: 24 128 28 28 (2408448)
I0403 21:55:42.377219 13311 net.cpp:156] Memory required for data: 525042720
I0403 21:55:42.377244 13311 layer_factory.hpp:77] Creating layer inception_3a/relu_3x3
I0403 21:55:42.377271 13311 net.cpp:91] Creating Layer inception_3a/relu_3x3
I0403 21:55:42.377292 13311 net.cpp:425] inception_3a/relu_3x3 <- inception_3a/3x3
I0403 21:55:42.377315 13311 net.cpp:386] inception_3a/relu_3x3 -> inception_3a/3x3 (in-place)
I0403 21:55:42.377641 13311 net.cpp:141] Setting up inception_3a/relu_3x3
I0403 21:55:42.377674 13311 net.cpp:148] Top shape: 24 128 28 28 (2408448)
I0403 21:55:42.377693 13311 net.cpp:156] Memory required for data: 534676512
I0403 21:55:42.377712 13311 layer_factory.hpp:77] Creating layer inception_3a/5x5_reduce
I0403 21:55:42.377748 13311 net.cpp:91] Creating Layer inception_3a/5x5_reduce
I0403 21:55:42.377773 13311 net.cpp:425] inception_3a/5x5_reduce <- pool2/3x3_s2_pool2/3x3_s2_0_split_2
I0403 21:55:42.377799 13311 net.cpp:399] inception_3a/5x5_reduce -> inception_3a/5x5_reduce
I0403 21:55:42.378967 13311 net.cpp:141] Setting up inception_3a/5x5_reduce
I0403 21:55:42.379004 13311 net.cpp:148] Top shape: 24 16 28 28 (301056)
I0403 21:55:42.379024 13311 net.cpp:156] Memory required for data: 535880736
I0403 21:55:42.379048 13311 layer_factory.hpp:77] Creating layer inception_3a/relu_5x5_reduce
I0403 21:55:42.379070 13311 net.cpp:91] Creating Layer inception_3a/relu_5x5_reduce
I0403 21:55:42.379091 13311 net.cpp:425] inception_3a/relu_5x5_reduce <- inception_3a/5x5_reduce
I0403 21:55:42.379117 13311 net.cpp:386] inception_3a/relu_5x5_reduce -> inception_3a/5x5_reduce (in-place)
I0403 21:55:42.379456 13311 net.cpp:141] Setting up inception_3a/relu_5x5_reduce
I0403 21:55:42.379492 13311 net.cpp:148] Top shape: 24 16 28 28 (301056)
I0403 21:55:42.379511 13311 net.cpp:156] Memory required for data: 537084960
I0403 21:55:42.379530 13311 layer_factory.hpp:77] Creating layer inception_3a/5x5
I0403 21:55:42.379559 13311 net.cpp:91] Creating Layer inception_3a/5x5
I0403 21:55:42.379583 13311 net.cpp:425] inception_3a/5x5 <- inception_3a/5x5_reduce
I0403 21:55:42.379607 13311 net.cpp:399] inception_3a/5x5 -> inception_3a/5x5
I0403 21:55:42.380846 13311 net.cpp:141] Setting up inception_3a/5x5
I0403 21:55:42.380879 13311 net.cpp:148] Top shape: 24 32 28 28 (602112)
I0403 21:55:42.380899 13311 net.cpp:156] Memory required for data: 539493408
I0403 21:55:42.380923 13311 layer_factory.hpp:77] Creating layer inception_3a/relu_5x5
I0403 21:55:42.380949 13311 net.cpp:91] Creating Layer inception_3a/relu_5x5
I0403 21:55:42.380970 13311 net.cpp:425] inception_3a/relu_5x5 <- inception_3a/5x5
I0403 21:55:42.380991 13311 net.cpp:386] inception_3a/relu_5x5 -> inception_3a/5x5 (in-place)
I0403 21:55:42.381198 13311 net.cpp:141] Setting up inception_3a/relu_5x5
I0403 21:55:42.381247 13311 net.cpp:148] Top shape: 24 32 28 28 (602112)
I0403 21:55:42.381268 13311 net.cpp:156] Memory required for data: 541901856
I0403 21:55:42.381285 13311 layer_factory.hpp:77] Creating layer inception_3a/pool
I0403 21:55:42.381307 13311 net.cpp:91] Creating Layer inception_3a/pool
I0403 21:55:42.381327 13311 net.cpp:425] inception_3a/pool <- pool2/3x3_s2_pool2/3x3_s2_0_split_3
I0403 21:55:42.381371 13311 net.cpp:399] inception_3a/pool -> inception_3a/pool
I0403 21:55:42.381448 13311 net.cpp:141] Setting up inception_3a/pool
I0403 21:55:42.381479 13311 net.cpp:148] Top shape: 24 192 28 28 (3612672)
I0403 21:55:42.381497 13311 net.cpp:156] Memory required for data: 556352544
I0403 21:55:42.381516 13311 layer_factory.hpp:77] Creating layer inception_3a/pool_proj
I0403 21:55:42.381543 13311 net.cpp:91] Creating Layer inception_3a/pool_proj
I0403 21:55:42.381566 13311 net.cpp:425] inception_3a/pool_proj <- inception_3a/pool
I0403 21:55:42.381593 13311 net.cpp:399] inception_3a/pool_proj -> inception_3a/pool_proj
I0403 21:55:42.382792 13311 net.cpp:141] Setting up inception_3a/pool_proj
I0403 21:55:42.382827 13311 net.cpp:148] Top shape: 24 32 28 28 (602112)
I0403 21:55:42.382848 13311 net.cpp:156] Memory required for data: 558760992
I0403 21:55:42.382879 13311 layer_factory.hpp:77] Creating layer inception_3a/relu_pool_proj
I0403 21:55:42.382904 13311 net.cpp:91] Creating Layer inception_3a/relu_pool_proj
I0403 21:55:42.382922 13311 net.cpp:425] inception_3a/relu_pool_proj <- inception_3a/pool_proj
I0403 21:55:42.382947 13311 net.cpp:386] inception_3a/relu_pool_proj -> inception_3a/pool_proj (in-place)
I0403 21:55:42.383285 13311 net.cpp:141] Setting up inception_3a/relu_pool_proj
I0403 21:55:42.383319 13311 net.cpp:148] Top shape: 24 32 28 28 (602112)
I0403 21:55:42.383337 13311 net.cpp:156] Memory required for data: 561169440
I0403 21:55:42.383358 13311 layer_factory.hpp:77] Creating layer inception_3a/output
I0403 21:55:42.383383 13311 net.cpp:91] Creating Layer inception_3a/output
I0403 21:55:42.383404 13311 net.cpp:425] inception_3a/output <- inception_3a/1x1
I0403 21:55:42.383424 13311 net.cpp:425] inception_3a/output <- inception_3a/3x3
I0403 21:55:42.383445 13311 net.cpp:425] inception_3a/output <- inception_3a/5x5
I0403 21:55:42.383466 13311 net.cpp:425] inception_3a/output <- inception_3a/pool_proj
I0403 21:55:42.383486 13311 net.cpp:399] inception_3a/output -> inception_3a/output
I0403 21:55:42.383546 13311 net.cpp:141] Setting up inception_3a/output
I0403 21:55:42.383574 13311 net.cpp:148] Top shape: 24 256 28 28 (4816896)
I0403 21:55:42.383594 13311 net.cpp:156] Memory required for data: 580437024
I0403 21:55:42.383611 13311 layer_factory.hpp:77] Creating layer inception_3a/output_inception_3a/output_0_split
I0403 21:55:42.383632 13311 net.cpp:91] Creating Layer inception_3a/output_inception_3a/output_0_split
I0403 21:55:42.383651 13311 net.cpp:425] inception_3a/output_inception_3a/output_0_split <- inception_3a/output
I0403 21:55:42.383677 13311 net.cpp:399] inception_3a/output_inception_3a/output_0_split -> inception_3a/output_inception_3a/output_0_split_0
I0403 21:55:42.383704 13311 net.cpp:399] inception_3a/output_inception_3a/output_0_split -> inception_3a/output_inception_3a/output_0_split_1
I0403 21:55:42.383734 13311 net.cpp:399] inception_3a/output_inception_3a/output_0_split -> inception_3a/output_inception_3a/output_0_split_2
I0403 21:55:42.383761 13311 net.cpp:399] inception_3a/output_inception_3a/output_0_split -> inception_3a/output_inception_3a/output_0_split_3
I0403 21:55:42.383852 13311 net.cpp:141] Setting up inception_3a/output_inception_3a/output_0_split
I0403 21:55:42.383882 13311 net.cpp:148] Top shape: 24 256 28 28 (4816896)
I0403 21:55:42.383905 13311 net.cpp:148] Top shape: 24 256 28 28 (4816896)
I0403 21:55:42.383926 13311 net.cpp:148] Top shape: 24 256 28 28 (4816896)
I0403 21:55:42.383946 13311 net.cpp:148] Top shape: 24 256 28 28 (4816896)
I0403 21:55:42.383963 13311 net.cpp:156] Memory required for data: 657507360
I0403 21:55:42.383983 13311 layer_factory.hpp:77] Creating layer inception_3b/1x1
I0403 21:55:42.384008 13311 net.cpp:91] Creating Layer inception_3b/1x1
I0403 21:55:42.384028 13311 net.cpp:425] inception_3b/1x1 <- inception_3a/output_inception_3a/output_0_split_0
I0403 21:55:42.384054 13311 net.cpp:399] inception_3b/1x1 -> inception_3b/1x1
I0403 21:55:42.385437 13311 net.cpp:141] Setting up inception_3b/1x1
I0403 21:55:42.385486 13311 net.cpp:148] Top shape: 24 128 28 28 (2408448)
I0403 21:55:42.385506 13311 net.cpp:156] Memory required for data: 667141152
I0403 21:55:42.385531 13311 layer_factory.hpp:77] Creating layer inception_3b/relu_1x1
I0403 21:55:42.385557 13311 net.cpp:91] Creating Layer inception_3b/relu_1x1
I0403 21:55:42.385578 13311 net.cpp:425] inception_3b/relu_1x1 <- inception_3b/1x1
I0403 21:55:42.385601 13311 net.cpp:386] inception_3b/relu_1x1 -> inception_3b/1x1 (in-place)
I0403 21:55:42.385823 13311 net.cpp:141] Setting up inception_3b/relu_1x1
I0403 21:55:42.385854 13311 net.cpp:148] Top shape: 24 128 28 28 (2408448)
I0403 21:55:42.385872 13311 net.cpp:156] Memory required for data: 676774944
I0403 21:55:42.385892 13311 layer_factory.hpp:77] Creating layer inception_3b/3x3_reduce
I0403 21:55:42.385922 13311 net.cpp:91] Creating Layer inception_3b/3x3_reduce
I0403 21:55:42.385943 13311 net.cpp:425] inception_3b/3x3_reduce <- inception_3a/output_inception_3a/output_0_split_1
I0403 21:55:42.385967 13311 net.cpp:399] inception_3b/3x3_reduce -> inception_3b/3x3_reduce
I0403 21:55:42.387343 13311 net.cpp:141] Setting up inception_3b/3x3_reduce
I0403 21:55:42.387379 13311 net.cpp:148] Top shape: 24 128 28 28 (2408448)
I0403 21:55:42.387399 13311 net.cpp:156] Memory required for data: 686408736
I0403 21:55:42.387423 13311 layer_factory.hpp:77] Creating layer inception_3b/relu_3x3_reduce
I0403 21:55:42.387449 13311 net.cpp:91] Creating Layer inception_3b/relu_3x3_reduce
I0403 21:55:42.387470 13311 net.cpp:425] inception_3b/relu_3x3_reduce <- inception_3b/3x3_reduce
I0403 21:55:42.387491 13311 net.cpp:386] inception_3b/relu_3x3_reduce -> inception_3b/3x3_reduce (in-place)
I0403 21:55:42.387699 13311 net.cpp:141] Setting up inception_3b/relu_3x3_reduce
I0403 21:55:42.387732 13311 net.cpp:148] Top shape: 24 128 28 28 (2408448)
I0403 21:55:42.387753 13311 net.cpp:156] Memory required for data: 696042528
I0403 21:55:42.387770 13311 layer_factory.hpp:77] Creating layer inception_3b/3x3
I0403 21:55:42.387800 13311 net.cpp:91] Creating Layer inception_3b/3x3
I0403 21:55:42.387823 13311 net.cpp:425] inception_3b/3x3 <- inception_3b/3x3_reduce
I0403 21:55:42.387850 13311 net.cpp:399] inception_3b/3x3 -> inception_3b/3x3
I0403 21:55:42.391356 13311 net.cpp:141] Setting up inception_3b/3x3
I0403 21:55:42.391392 13311 net.cpp:148] Top shape: 24 192 28 28 (3612672)
I0403 21:55:42.391412 13311 net.cpp:156] Memory required for data: 710493216
I0403 21:55:42.391435 13311 layer_factory.hpp:77] Creating layer inception_3b/relu_3x3
I0403 21:55:42.391460 13311 net.cpp:91] Creating Layer inception_3b/relu_3x3
I0403 21:55:42.391481 13311 net.cpp:425] inception_3b/relu_3x3 <- inception_3b/3x3
I0403 21:55:42.391505 13311 net.cpp:386] inception_3b/relu_3x3 -> inception_3b/3x3 (in-place)
I0403 21:55:42.391834 13311 net.cpp:141] Setting up inception_3b/relu_3x3
I0403 21:55:42.391867 13311 net.cpp:148] Top shape: 24 192 28 28 (3612672)
I0403 21:55:42.391886 13311 net.cpp:156] Memory required for data: 724943904
I0403 21:55:42.391906 13311 layer_factory.hpp:77] Creating layer inception_3b/5x5_reduce
I0403 21:55:42.391937 13311 net.cpp:91] Creating Layer inception_3b/5x5_reduce
I0403 21:55:42.391959 13311 net.cpp:425] inception_3b/5x5_reduce <- inception_3a/output_inception_3a/output_0_split_2
I0403 21:55:42.391983 13311 net.cpp:399] inception_3b/5x5_reduce -> inception_3b/5x5_reduce
I0403 21:55:42.393187 13311 net.cpp:141] Setting up inception_3b/5x5_reduce
I0403 21:55:42.393229 13311 net.cpp:148] Top shape: 24 32 28 28 (602112)
I0403 21:55:42.393250 13311 net.cpp:156] Memory required for data: 727352352
I0403 21:55:42.393275 13311 layer_factory.hpp:77] Creating layer inception_3b/relu_5x5_reduce
I0403 21:55:42.393301 13311 net.cpp:91] Creating Layer inception_3b/relu_5x5_reduce
I0403 21:55:42.393324 13311 net.cpp:425] inception_3b/relu_5x5_reduce <- inception_3b/5x5_reduce
I0403 21:55:42.393347 13311 net.cpp:386] inception_3b/relu_5x5_reduce -> inception_3b/5x5_reduce (in-place)
I0403 21:55:42.393561 13311 net.cpp:141] Setting up inception_3b/relu_5x5_reduce
I0403 21:55:42.393611 13311 net.cpp:148] Top shape: 24 32 28 28 (602112)
I0403 21:55:42.393632 13311 net.cpp:156] Memory required for data: 729760800
I0403 21:55:42.393652 13311 layer_factory.hpp:77] Creating layer inception_3b/5x5
I0403 21:55:42.393682 13311 net.cpp:91] Creating Layer inception_3b/5x5
I0403 21:55:42.393702 13311 net.cpp:425] inception_3b/5x5 <- inception_3b/5x5_reduce
I0403 21:55:42.393726 13311 net.cpp:399] inception_3b/5x5 -> inception_3b/5x5
I0403 21:55:42.396107 13311 net.cpp:141] Setting up inception_3b/5x5
I0403 21:55:42.396144 13311 net.cpp:148] Top shape: 24 96 28 28 (1806336)
I0403 21:55:42.396164 13311 net.cpp:156] Memory required for data: 736986144
I0403 21:55:42.396189 13311 layer_factory.hpp:77] Creating layer inception_3b/relu_5x5
I0403 21:55:42.396221 13311 net.cpp:91] Creating Layer inception_3b/relu_5x5
I0403 21:55:42.396244 13311 net.cpp:425] inception_3b/relu_5x5 <- inception_3b/5x5
I0403 21:55:42.396266 13311 net.cpp:386] inception_3b/relu_5x5 -> inception_3b/5x5 (in-place)
I0403 21:55:42.396500 13311 net.cpp:141] Setting up inception_3b/relu_5x5
I0403 21:55:42.396533 13311 net.cpp:148] Top shape: 24 96 28 28 (1806336)
I0403 21:55:42.396553 13311 net.cpp:156] Memory required for data: 744211488
I0403 21:55:42.396571 13311 layer_factory.hpp:77] Creating layer inception_3b/pool
I0403 21:55:42.396595 13311 net.cpp:91] Creating Layer inception_3b/pool
I0403 21:55:42.396615 13311 net.cpp:425] inception_3b/pool <- inception_3a/output_inception_3a/output_0_split_3
I0403 21:55:42.396637 13311 net.cpp:399] inception_3b/pool -> inception_3b/pool
I0403 21:55:42.396708 13311 net.cpp:141] Setting up inception_3b/pool
I0403 21:55:42.396736 13311 net.cpp:148] Top shape: 24 256 28 28 (4816896)
I0403 21:55:42.396755 13311 net.cpp:156] Memory required for data: 763479072
I0403 21:55:42.396773 13311 layer_factory.hpp:77] Creating layer inception_3b/pool_proj
I0403 21:55:42.396802 13311 net.cpp:91] Creating Layer inception_3b/pool_proj
I0403 21:55:42.396824 13311 net.cpp:425] inception_3b/pool_proj <- inception_3b/pool
I0403 21:55:42.396850 13311 net.cpp:399] inception_3b/pool_proj -> inception_3b/pool_proj
I0403 21:55:42.398136 13311 net.cpp:141] Setting up inception_3b/pool_proj
I0403 21:55:42.398172 13311 net.cpp:148] Top shape: 24 64 28 28 (1204224)
I0403 21:55:42.398193 13311 net.cpp:156] Memory required for data: 768295968
I0403 21:55:42.398222 13311 layer_factory.hpp:77] Creating layer inception_3b/relu_pool_proj
I0403 21:55:42.398248 13311 net.cpp:91] Creating Layer inception_3b/relu_pool_proj
I0403 21:55:42.398269 13311 net.cpp:425] inception_3b/relu_pool_proj <- inception_3b/pool_proj
I0403 21:55:42.398294 13311 net.cpp:386] inception_3b/relu_pool_proj -> inception_3b/pool_proj (in-place)
I0403 21:55:42.398757 13311 net.cpp:141] Setting up inception_3b/relu_pool_proj
I0403 21:55:42.398793 13311 net.cpp:148] Top shape: 24 64 28 28 (1204224)
I0403 21:55:42.398814 13311 net.cpp:156] Memory required for data: 773112864
I0403 21:55:42.398834 13311 layer_factory.hpp:77] Creating layer inception_3b/output
I0403 21:55:42.398856 13311 net.cpp:91] Creating Layer inception_3b/output
I0403 21:55:42.398876 13311 net.cpp:425] inception_3b/output <- inception_3b/1x1
I0403 21:55:42.398897 13311 net.cpp:425] inception_3b/output <- inception_3b/3x3
I0403 21:55:42.398917 13311 net.cpp:425] inception_3b/output <- inception_3b/5x5
I0403 21:55:42.398937 13311 net.cpp:425] inception_3b/output <- inception_3b/pool_proj
I0403 21:55:42.398957 13311 net.cpp:399] inception_3b/output -> inception_3b/output
I0403 21:55:42.399014 13311 net.cpp:141] Setting up inception_3b/output
I0403 21:55:42.399042 13311 net.cpp:148] Top shape: 24 480 28 28 (9031680)
I0403 21:55:42.399061 13311 net.cpp:156] Memory required for data: 809239584
I0403 21:55:42.399080 13311 layer_factory.hpp:77] Creating layer pool3/3x3_s2
I0403 21:55:42.399104 13311 net.cpp:91] Creating Layer pool3/3x3_s2
I0403 21:55:42.399126 13311 net.cpp:425] pool3/3x3_s2 <- inception_3b/output
I0403 21:55:42.399149 13311 net.cpp:399] pool3/3x3_s2 -> pool3/3x3_s2
I0403 21:55:42.399246 13311 net.cpp:141] Setting up pool3/3x3_s2
I0403 21:55:42.399276 13311 net.cpp:148] Top shape: 24 480 14 14 (2257920)
I0403 21:55:42.399296 13311 net.cpp:156] Memory required for data: 818271264
I0403 21:55:42.399314 13311 layer_factory.hpp:77] Creating layer pool3/3x3_s2_pool3/3x3_s2_0_split
I0403 21:55:42.399336 13311 net.cpp:91] Creating Layer pool3/3x3_s2_pool3/3x3_s2_0_split
I0403 21:55:42.399355 13311 net.cpp:425] pool3/3x3_s2_pool3/3x3_s2_0_split <- pool3/3x3_s2
I0403 21:55:42.399380 13311 net.cpp:399] pool3/3x3_s2_pool3/3x3_s2_0_split -> pool3/3x3_s2_pool3/3x3_s2_0_split_0
I0403 21:55:42.399405 13311 net.cpp:399] pool3/3x3_s2_pool3/3x3_s2_0_split -> pool3/3x3_s2_pool3/3x3_s2_0_split_1
I0403 21:55:42.399431 13311 net.cpp:399] pool3/3x3_s2_pool3/3x3_s2_0_split -> pool3/3x3_s2_pool3/3x3_s2_0_split_2
I0403 21:55:42.399456 13311 net.cpp:399] pool3/3x3_s2_pool3/3x3_s2_0_split -> pool3/3x3_s2_pool3/3x3_s2_0_split_3
I0403 21:55:42.399549 13311 net.cpp:141] Setting up pool3/3x3_s2_pool3/3x3_s2_0_split
I0403 21:55:42.399580 13311 net.cpp:148] Top shape: 24 480 14 14 (2257920)
I0403 21:55:42.399601 13311 net.cpp:148] Top shape: 24 480 14 14 (2257920)
I0403 21:55:42.399621 13311 net.cpp:148] Top shape: 24 480 14 14 (2257920)
I0403 21:55:42.399641 13311 net.cpp:148] Top shape: 24 480 14 14 (2257920)
I0403 21:55:42.399659 13311 net.cpp:156] Memory required for data: 854397984
I0403 21:55:42.399679 13311 layer_factory.hpp:77] Creating layer inception_4a/1x1
I0403 21:55:42.399708 13311 net.cpp:91] Creating Layer inception_4a/1x1
I0403 21:55:42.399729 13311 net.cpp:425] inception_4a/1x1 <- pool3/3x3_s2_pool3/3x3_s2_0_split_0
I0403 21:55:42.399755 13311 net.cpp:399] inception_4a/1x1 -> inception_4a/1x1
I0403 21:55:42.401666 13311 net.cpp:141] Setting up inception_4a/1x1
I0403 21:55:42.401700 13311 net.cpp:148] Top shape: 24 192 14 14 (903168)
I0403 21:55:42.401721 13311 net.cpp:156] Memory required for data: 858010656
I0403 21:55:42.401744 13311 layer_factory.hpp:77] Creating layer inception_4a/relu_1x1
I0403 21:55:42.401767 13311 net.cpp:91] Creating Layer inception_4a/relu_1x1
I0403 21:55:42.401796 13311 net.cpp:425] inception_4a/relu_1x1 <- inception_4a/1x1
I0403 21:55:42.401820 13311 net.cpp:386] inception_4a/relu_1x1 -> inception_4a/1x1 (in-place)
I0403 21:55:42.402040 13311 net.cpp:141] Setting up inception_4a/relu_1x1
I0403 21:55:42.402071 13311 net.cpp:148] Top shape: 24 192 14 14 (903168)
I0403 21:55:42.402091 13311 net.cpp:156] Memory required for data: 861623328
I0403 21:55:42.402109 13311 layer_factory.hpp:77] Creating layer inception_4a/3x3_reduce
I0403 21:55:42.402137 13311 net.cpp:91] Creating Layer inception_4a/3x3_reduce
I0403 21:55:42.402160 13311 net.cpp:425] inception_4a/3x3_reduce <- pool3/3x3_s2_pool3/3x3_s2_0_split_1
I0403 21:55:42.402189 13311 net.cpp:399] inception_4a/3x3_reduce -> inception_4a/3x3_reduce
I0403 21:55:42.403748 13311 net.cpp:141] Setting up inception_4a/3x3_reduce
I0403 21:55:42.403786 13311 net.cpp:148] Top shape: 24 96 14 14 (451584)
I0403 21:55:42.403808 13311 net.cpp:156] Memory required for data: 863429664
I0403 21:55:42.403841 13311 layer_factory.hpp:77] Creating layer inception_4a/relu_3x3_reduce
I0403 21:55:42.403867 13311 net.cpp:91] Creating Layer inception_4a/relu_3x3_reduce
I0403 21:55:42.403887 13311 net.cpp:425] inception_4a/relu_3x3_reduce <- inception_4a/3x3_reduce
I0403 21:55:42.403910 13311 net.cpp:386] inception_4a/relu_3x3_reduce -> inception_4a/3x3_reduce (in-place)
I0403 21:55:42.404131 13311 net.cpp:141] Setting up inception_4a/relu_3x3_reduce
I0403 21:55:42.404163 13311 net.cpp:148] Top shape: 24 96 14 14 (451584)
I0403 21:55:42.404182 13311 net.cpp:156] Memory required for data: 865236000
I0403 21:55:42.404202 13311 layer_factory.hpp:77] Creating layer inception_4a/3x3
I0403 21:55:42.404238 13311 net.cpp:91] Creating Layer inception_4a/3x3
I0403 21:55:42.404263 13311 net.cpp:425] inception_4a/3x3 <- inception_4a/3x3_reduce
I0403 21:55:42.404290 13311 net.cpp:399] inception_4a/3x3 -> inception_4a/3x3
I0403 21:55:42.407554 13311 net.cpp:141] Setting up inception_4a/3x3
I0403 21:55:42.407591 13311 net.cpp:148] Top shape: 24 208 14 14 (978432)
I0403 21:55:42.407610 13311 net.cpp:156] Memory required for data: 869149728
I0403 21:55:42.407634 13311 layer_factory.hpp:77] Creating layer inception_4a/relu_3x3
I0403 21:55:42.407660 13311 net.cpp:91] Creating Layer inception_4a/relu_3x3
I0403 21:55:42.407682 13311 net.cpp:425] inception_4a/relu_3x3 <- inception_4a/3x3
I0403 21:55:42.407706 13311 net.cpp:386] inception_4a/relu_3x3 -> inception_4a/3x3 (in-place)
I0403 21:55:42.408041 13311 net.cpp:141] Setting up inception_4a/relu_3x3
I0403 21:55:42.408072 13311 net.cpp:148] Top shape: 24 208 14 14 (978432)
I0403 21:55:42.408092 13311 net.cpp:156] Memory required for data: 873063456
I0403 21:55:42.408113 13311 layer_factory.hpp:77] Creating layer inception_4a/5x5_reduce
I0403 21:55:42.408141 13311 net.cpp:91] Creating Layer inception_4a/5x5_reduce
I0403 21:55:42.408165 13311 net.cpp:425] inception_4a/5x5_reduce <- pool3/3x3_s2_pool3/3x3_s2_0_split_2
I0403 21:55:42.408196 13311 net.cpp:399] inception_4a/5x5_reduce -> inception_4a/5x5_reduce
I0403 21:55:42.409449 13311 net.cpp:141] Setting up inception_4a/5x5_reduce
I0403 21:55:42.409484 13311 net.cpp:148] Top shape: 24 16 14 14 (75264)
I0403 21:55:42.409503 13311 net.cpp:156] Memory required for data: 873364512
I0403 21:55:42.409528 13311 layer_factory.hpp:77] Creating layer inception_4a/relu_5x5_reduce
I0403 21:55:42.409554 13311 net.cpp:91] Creating Layer inception_4a/relu_5x5_reduce
I0403 21:55:42.409574 13311 net.cpp:425] inception_4a/relu_5x5_reduce <- inception_4a/5x5_reduce
I0403 21:55:42.409597 13311 net.cpp:386] inception_4a/relu_5x5_reduce -> inception_4a/5x5_reduce (in-place)
I0403 21:55:42.409818 13311 net.cpp:141] Setting up inception_4a/relu_5x5_reduce
I0403 21:55:42.409853 13311 net.cpp:148] Top shape: 24 16 14 14 (75264)
I0403 21:55:42.409873 13311 net.cpp:156] Memory required for data: 873665568
I0403 21:55:42.409893 13311 layer_factory.hpp:77] Creating layer inception_4a/5x5
I0403 21:55:42.409920 13311 net.cpp:91] Creating Layer inception_4a/5x5
I0403 21:55:42.409942 13311 net.cpp:425] inception_4a/5x5 <- inception_4a/5x5_reduce
I0403 21:55:42.409966 13311 net.cpp:399] inception_4a/5x5 -> inception_4a/5x5
I0403 21:55:42.411309 13311 net.cpp:141] Setting up inception_4a/5x5
I0403 21:55:42.411345 13311 net.cpp:148] Top shape: 24 48 14 14 (225792)
I0403 21:55:42.411366 13311 net.cpp:156] Memory required for data: 874568736
I0403 21:55:42.411391 13311 layer_factory.hpp:77] Creating layer inception_4a/relu_5x5
I0403 21:55:42.411414 13311 net.cpp:91] Creating Layer inception_4a/relu_5x5
I0403 21:55:42.411433 13311 net.cpp:425] inception_4a/relu_5x5 <- inception_4a/5x5
I0403 21:55:42.411458 13311 net.cpp:386] inception_4a/relu_5x5 -> inception_4a/5x5 (in-place)
I0403 21:55:42.411679 13311 net.cpp:141] Setting up inception_4a/relu_5x5
I0403 21:55:42.411710 13311 net.cpp:148] Top shape: 24 48 14 14 (225792)
I0403 21:55:42.411730 13311 net.cpp:156] Memory required for data: 875471904
I0403 21:55:42.411749 13311 layer_factory.hpp:77] Creating layer inception_4a/pool
I0403 21:55:42.411772 13311 net.cpp:91] Creating Layer inception_4a/pool
I0403 21:55:42.411792 13311 net.cpp:425] inception_4a/pool <- pool3/3x3_s2_pool3/3x3_s2_0_split_3
I0403 21:55:42.411818 13311 net.cpp:399] inception_4a/pool -> inception_4a/pool
I0403 21:55:42.411893 13311 net.cpp:141] Setting up inception_4a/pool
I0403 21:55:42.411923 13311 net.cpp:148] Top shape: 24 480 14 14 (2257920)
I0403 21:55:42.411942 13311 net.cpp:156] Memory required for data: 884503584
I0403 21:55:42.411962 13311 layer_factory.hpp:77] Creating layer inception_4a/pool_proj
I0403 21:55:42.411991 13311 net.cpp:91] Creating Layer inception_4a/pool_proj
I0403 21:55:42.412014 13311 net.cpp:425] inception_4a/pool_proj <- inception_4a/pool
I0403 21:55:42.412039 13311 net.cpp:399] inception_4a/pool_proj -> inception_4a/pool_proj
I0403 21:55:42.413487 13311 net.cpp:141] Setting up inception_4a/pool_proj
I0403 21:55:42.413529 13311 net.cpp:148] Top shape: 24 64 14 14 (301056)
I0403 21:55:42.413571 13311 net.cpp:156] Memory required for data: 885707808
I0403 21:55:42.413595 13311 layer_factory.hpp:77] Creating layer inception_4a/relu_pool_proj
I0403 21:55:42.413620 13311 net.cpp:91] Creating Layer inception_4a/relu_pool_proj
I0403 21:55:42.413640 13311 net.cpp:425] inception_4a/relu_pool_proj <- inception_4a/pool_proj
I0403 21:55:42.413668 13311 net.cpp:386] inception_4a/relu_pool_proj -> inception_4a/pool_proj (in-place)
I0403 21:55:42.414013 13311 net.cpp:141] Setting up inception_4a/relu_pool_proj
I0403 21:55:42.414049 13311 net.cpp:148] Top shape: 24 64 14 14 (301056)
I0403 21:55:42.414070 13311 net.cpp:156] Memory required for data: 886912032
I0403 21:55:42.414090 13311 layer_factory.hpp:77] Creating layer inception_4a/output
I0403 21:55:42.414113 13311 net.cpp:91] Creating Layer inception_4a/output
I0403 21:55:42.414134 13311 net.cpp:425] inception_4a/output <- inception_4a/1x1
I0403 21:55:42.414155 13311 net.cpp:425] inception_4a/output <- inception_4a/3x3
I0403 21:55:42.414176 13311 net.cpp:425] inception_4a/output <- inception_4a/5x5
I0403 21:55:42.414196 13311 net.cpp:425] inception_4a/output <- inception_4a/pool_proj
I0403 21:55:42.414229 13311 net.cpp:399] inception_4a/output -> inception_4a/output
I0403 21:55:42.414288 13311 net.cpp:141] Setting up inception_4a/output
I0403 21:55:42.414317 13311 net.cpp:148] Top shape: 24 512 14 14 (2408448)
I0403 21:55:42.414335 13311 net.cpp:156] Memory required for data: 896545824
I0403 21:55:42.414355 13311 layer_factory.hpp:77] Creating layer inception_4a/output_inception_4a/output_0_split
I0403 21:55:42.414379 13311 net.cpp:91] Creating Layer inception_4a/output_inception_4a/output_0_split
I0403 21:55:42.414400 13311 net.cpp:425] inception_4a/output_inception_4a/output_0_split <- inception_4a/output
I0403 21:55:42.414423 13311 net.cpp:399] inception_4a/output_inception_4a/output_0_split -> inception_4a/output_inception_4a/output_0_split_0
I0403 21:55:42.414453 13311 net.cpp:399] inception_4a/output_inception_4a/output_0_split -> inception_4a/output_inception_4a/output_0_split_1
I0403 21:55:42.414489 13311 net.cpp:399] inception_4a/output_inception_4a/output_0_split -> inception_4a/output_inception_4a/output_0_split_2
I0403 21:55:42.414516 13311 net.cpp:399] inception_4a/output_inception_4a/output_0_split -> inception_4a/output_inception_4a/output_0_split_3
I0403 21:55:42.414541 13311 net.cpp:399] inception_4a/output_inception_4a/output_0_split -> inception_4a/output_inception_4a/output_0_split_4
I0403 21:55:42.414654 13311 net.cpp:141] Setting up inception_4a/output_inception_4a/output_0_split
I0403 21:55:42.414683 13311 net.cpp:148] Top shape: 24 512 14 14 (2408448)
I0403 21:55:42.414705 13311 net.cpp:148] Top shape: 24 512 14 14 (2408448)
I0403 21:55:42.414724 13311 net.cpp:148] Top shape: 24 512 14 14 (2408448)
I0403 21:55:42.414746 13311 net.cpp:148] Top shape: 24 512 14 14 (2408448)
I0403 21:55:42.414764 13311 net.cpp:148] Top shape: 24 512 14 14 (2408448)
I0403 21:55:42.414783 13311 net.cpp:156] Memory required for data: 944714784
I0403 21:55:42.414801 13311 layer_factory.hpp:77] Creating layer loss1/ave_pool
I0403 21:55:42.414825 13311 net.cpp:91] Creating Layer loss1/ave_pool
I0403 21:55:42.414849 13311 net.cpp:425] loss1/ave_pool <- inception_4a/output_inception_4a/output_0_split_0
I0403 21:55:42.414872 13311 net.cpp:399] loss1/ave_pool -> loss1/ave_pool
I0403 21:55:42.415129 13311 net.cpp:141] Setting up loss1/ave_pool
I0403 21:55:42.415161 13311 net.cpp:148] Top shape: 24 512 4 4 (196608)
I0403 21:55:42.415181 13311 net.cpp:156] Memory required for data: 945501216
I0403 21:55:42.415200 13311 layer_factory.hpp:77] Creating layer loss1/conv
I0403 21:55:42.415236 13311 net.cpp:91] Creating Layer loss1/conv
I0403 21:55:42.415259 13311 net.cpp:425] loss1/conv <- loss1/ave_pool
I0403 21:55:42.415287 13311 net.cpp:399] loss1/conv -> loss1/conv
I0403 21:55:42.416999 13311 net.cpp:141] Setting up loss1/conv
I0403 21:55:42.417034 13311 net.cpp:148] Top shape: 24 128 4 4 (49152)
I0403 21:55:42.417054 13311 net.cpp:156] Memory required for data: 945697824
I0403 21:55:42.417099 13311 layer_factory.hpp:77] Creating layer loss1/relu_conv
I0403 21:55:42.417127 13311 net.cpp:91] Creating Layer loss1/relu_conv
I0403 21:55:42.417150 13311 net.cpp:425] loss1/relu_conv <- loss1/conv
I0403 21:55:42.417172 13311 net.cpp:386] loss1/relu_conv -> loss1/conv (in-place)
I0403 21:55:42.417520 13311 net.cpp:141] Setting up loss1/relu_conv
I0403 21:55:42.417553 13311 net.cpp:148] Top shape: 24 128 4 4 (49152)
I0403 21:55:42.417573 13311 net.cpp:156] Memory required for data: 945894432
I0403 21:55:42.417593 13311 layer_factory.hpp:77] Creating layer loss1/fc
I0403 21:55:42.417625 13311 net.cpp:91] Creating Layer loss1/fc
I0403 21:55:42.417649 13311 net.cpp:425] loss1/fc <- loss1/conv
I0403 21:55:42.417672 13311 net.cpp:399] loss1/fc -> loss1/fc
I0403 21:55:42.439924 13311 net.cpp:141] Setting up loss1/fc
I0403 21:55:42.439967 13311 net.cpp:148] Top shape: 24 1024 (24576)
I0403 21:55:42.439990 13311 net.cpp:156] Memory required for data: 945992736
I0403 21:55:42.440013 13311 layer_factory.hpp:77] Creating layer loss1/relu_fc
I0403 21:55:42.440037 13311 net.cpp:91] Creating Layer loss1/relu_fc
I0403 21:55:42.440057 13311 net.cpp:425] loss1/relu_fc <- loss1/fc
I0403 21:55:42.440081 13311 net.cpp:386] loss1/relu_fc -> loss1/fc (in-place)
I0403 21:55:42.440318 13311 net.cpp:141] Setting up loss1/relu_fc
I0403 21:55:42.440351 13311 net.cpp:148] Top shape: 24 1024 (24576)
I0403 21:55:42.440369 13311 net.cpp:156] Memory required for data: 946091040
I0403 21:55:42.440389 13311 layer_factory.hpp:77] Creating layer loss1/drop_fc
I0403 21:55:42.440423 13311 net.cpp:91] Creating Layer loss1/drop_fc
I0403 21:55:42.440446 13311 net.cpp:425] loss1/drop_fc <- loss1/fc
I0403 21:55:42.440469 13311 net.cpp:386] loss1/drop_fc -> loss1/fc (in-place)
I0403 21:55:42.440533 13311 net.cpp:141] Setting up loss1/drop_fc
I0403 21:55:42.440567 13311 net.cpp:148] Top shape: 24 1024 (24576)
I0403 21:55:42.440588 13311 net.cpp:156] Memory required for data: 946189344
I0403 21:55:42.440609 13311 layer_factory.hpp:77] Creating layer loss1/classifier_plantvillage
I0403 21:55:42.440634 13311 net.cpp:91] Creating Layer loss1/classifier_plantvillage
I0403 21:55:42.440654 13311 net.cpp:425] loss1/classifier_plantvillage <- loss1/fc
I0403 21:55:42.440680 13311 net.cpp:399] loss1/classifier_plantvillage -> loss1/classifier_plantvillage
I0403 21:55:42.441779 13311 net.cpp:141] Setting up loss1/classifier_plantvillage
I0403 21:55:42.441824 13311 net.cpp:148] Top shape: 24 38 (912)
I0403 21:55:42.441844 13311 net.cpp:156] Memory required for data: 946192992
I0403 21:55:42.441867 13311 layer_factory.hpp:77] Creating layer loss1/classifier_plantvillage_loss1/classifier_plantvillage_0_split
I0403 21:55:42.441890 13311 net.cpp:91] Creating Layer loss1/classifier_plantvillage_loss1/classifier_plantvillage_0_split
I0403 21:55:42.441910 13311 net.cpp:425] loss1/classifier_plantvillage_loss1/classifier_plantvillage_0_split <- loss1/classifier_plantvillage
I0403 21:55:42.441934 13311 net.cpp:399] loss1/classifier_plantvillage_loss1/classifier_plantvillage_0_split -> loss1/classifier_plantvillage_loss1/classifier_plantvillage_0_split_0
I0403 21:55:42.441962 13311 net.cpp:399] loss1/classifier_plantvillage_loss1/classifier_plantvillage_0_split -> loss1/classifier_plantvillage_loss1/classifier_plantvillage_0_split_1
I0403 21:55:42.441987 13311 net.cpp:399] loss1/classifier_plantvillage_loss1/classifier_plantvillage_0_split -> loss1/classifier_plantvillage_loss1/classifier_plantvillage_0_split_2
I0403 21:55:42.442071 13311 net.cpp:141] Setting up loss1/classifier_plantvillage_loss1/classifier_plantvillage_0_split
I0403 21:55:42.442101 13311 net.cpp:148] Top shape: 24 38 (912)
I0403 21:55:42.442121 13311 net.cpp:148] Top shape: 24 38 (912)
I0403 21:55:42.442140 13311 net.cpp:148] Top shape: 24 38 (912)
I0403 21:55:42.442159 13311 net.cpp:156] Memory required for data: 946203936
I0403 21:55:42.442178 13311 layer_factory.hpp:77] Creating layer inception_4b/1x1
I0403 21:55:42.442208 13311 net.cpp:91] Creating Layer inception_4b/1x1
I0403 21:55:42.442261 13311 net.cpp:425] inception_4b/1x1 <- inception_4a/output_inception_4a/output_0_split_1
I0403 21:55:42.442287 13311 net.cpp:399] inception_4b/1x1 -> inception_4b/1x1
I0403 21:55:42.444294 13311 net.cpp:141] Setting up inception_4b/1x1
I0403 21:55:42.444330 13311 net.cpp:148] Top shape: 24 160 14 14 (752640)
I0403 21:55:42.444350 13311 net.cpp:156] Memory required for data: 949214496
I0403 21:55:42.444375 13311 layer_factory.hpp:77] Creating layer inception_4b/relu_1x1
I0403 21:55:42.444399 13311 net.cpp:91] Creating Layer inception_4b/relu_1x1
I0403 21:55:42.444421 13311 net.cpp:425] inception_4b/relu_1x1 <- inception_4b/1x1
I0403 21:55:42.444442 13311 net.cpp:386] inception_4b/relu_1x1 -> inception_4b/1x1 (in-place)
I0403 21:55:42.444665 13311 net.cpp:141] Setting up inception_4b/relu_1x1
I0403 21:55:42.444700 13311 net.cpp:148] Top shape: 24 160 14 14 (752640)
I0403 21:55:42.444720 13311 net.cpp:156] Memory required for data: 952225056
I0403 21:55:42.444741 13311 layer_factory.hpp:77] Creating layer inception_4b/3x3_reduce
I0403 21:55:42.444769 13311 net.cpp:91] Creating Layer inception_4b/3x3_reduce
I0403 21:55:42.444792 13311 net.cpp:425] inception_4b/3x3_reduce <- inception_4a/output_inception_4a/output_0_split_2
I0403 21:55:42.444815 13311 net.cpp:399] inception_4b/3x3_reduce -> inception_4b/3x3_reduce
I0403 21:55:42.446475 13311 net.cpp:141] Setting up inception_4b/3x3_reduce
I0403 21:55:42.446516 13311 net.cpp:148] Top shape: 24 112 14 14 (526848)
I0403 21:55:42.446537 13311 net.cpp:156] Memory required for data: 954332448
I0403 21:55:42.446560 13311 layer_factory.hpp:77] Creating layer inception_4b/relu_3x3_reduce
I0403 21:55:42.446584 13311 net.cpp:91] Creating Layer inception_4b/relu_3x3_reduce
I0403 21:55:42.446604 13311 net.cpp:425] inception_4b/relu_3x3_reduce <- inception_4b/3x3_reduce
I0403 21:55:42.446626 13311 net.cpp:386] inception_4b/relu_3x3_reduce -> inception_4b/3x3_reduce (in-place)
I0403 21:55:42.446974 13311 net.cpp:141] Setting up inception_4b/relu_3x3_reduce
I0403 21:55:42.447011 13311 net.cpp:148] Top shape: 24 112 14 14 (526848)
I0403 21:55:42.447031 13311 net.cpp:156] Memory required for data: 956439840
I0403 21:55:42.447051 13311 layer_factory.hpp:77] Creating layer inception_4b/3x3
I0403 21:55:42.447077 13311 net.cpp:91] Creating Layer inception_4b/3x3
I0403 21:55:42.447101 13311 net.cpp:425] inception_4b/3x3 <- inception_4b/3x3_reduce
I0403 21:55:42.447126 13311 net.cpp:399] inception_4b/3x3 -> inception_4b/3x3
I0403 21:55:42.450796 13311 net.cpp:141] Setting up inception_4b/3x3
I0403 21:55:42.450832 13311 net.cpp:148] Top shape: 24 224 14 14 (1053696)
I0403 21:55:42.450853 13311 net.cpp:156] Memory required for data: 960654624
I0403 21:55:42.450877 13311 layer_factory.hpp:77] Creating layer inception_4b/relu_3x3
I0403 21:55:42.450901 13311 net.cpp:91] Creating Layer inception_4b/relu_3x3
I0403 21:55:42.450922 13311 net.cpp:425] inception_4b/relu_3x3 <- inception_4b/3x3
I0403 21:55:42.450947 13311 net.cpp:386] inception_4b/relu_3x3 -> inception_4b/3x3 (in-place)
I0403 21:55:42.451170 13311 net.cpp:141] Setting up inception_4b/relu_3x3
I0403 21:55:42.451202 13311 net.cpp:148] Top shape: 24 224 14 14 (1053696)
I0403 21:55:42.451228 13311 net.cpp:156] Memory required for data: 964869408
I0403 21:55:42.451247 13311 layer_factory.hpp:77] Creating layer inception_4b/5x5_reduce
I0403 21:55:42.451277 13311 net.cpp:91] Creating Layer inception_4b/5x5_reduce
I0403 21:55:42.451298 13311 net.cpp:425] inception_4b/5x5_reduce <- inception_4a/output_inception_4a/output_0_split_3
I0403 21:55:42.451326 13311 net.cpp:399] inception_4b/5x5_reduce -> inception_4b/5x5_reduce
I0403 21:55:42.452683 13311 net.cpp:141] Setting up inception_4b/5x5_reduce
I0403 21:55:42.452718 13311 net.cpp:148] Top shape: 24 24 14 14 (112896)
I0403 21:55:42.452742 13311 net.cpp:156] Memory required for data: 965320992
I0403 21:55:42.452767 13311 layer_factory.hpp:77] Creating layer inception_4b/relu_5x5_reduce
I0403 21:55:42.452790 13311 net.cpp:91] Creating Layer inception_4b/relu_5x5_reduce
I0403 21:55:42.452829 13311 net.cpp:425] inception_4b/relu_5x5_reduce <- inception_4b/5x5_reduce
I0403 21:55:42.452853 13311 net.cpp:386] inception_4b/relu_5x5_reduce -> inception_4b/5x5_reduce (in-place)
I0403 21:55:42.453083 13311 net.cpp:141] Setting up inception_4b/relu_5x5_reduce
I0403 21:55:42.453117 13311 net.cpp:148] Top shape: 24 24 14 14 (112896)
I0403 21:55:42.453138 13311 net.cpp:156] Memory required for data: 965772576
I0403 21:55:42.453158 13311 layer_factory.hpp:77] Creating layer inception_4b/5x5
I0403 21:55:42.453186 13311 net.cpp:91] Creating Layer inception_4b/5x5
I0403 21:55:42.453215 13311 net.cpp:425] inception_4b/5x5 <- inception_4b/5x5_reduce
I0403 21:55:42.453243 13311 net.cpp:399] inception_4b/5x5 -> inception_4b/5x5
I0403 21:55:42.454747 13311 net.cpp:141] Setting up inception_4b/5x5
I0403 21:55:42.454783 13311 net.cpp:148] Top shape: 24 64 14 14 (301056)
I0403 21:55:42.454803 13311 net.cpp:156] Memory required for data: 966976800
I0403 21:55:42.454828 13311 layer_factory.hpp:77] Creating layer inception_4b/relu_5x5
I0403 21:55:42.454854 13311 net.cpp:91] Creating Layer inception_4b/relu_5x5
I0403 21:55:42.454874 13311 net.cpp:425] inception_4b/relu_5x5 <- inception_4b/5x5
I0403 21:55:42.454896 13311 net.cpp:386] inception_4b/relu_5x5 -> inception_4b/5x5 (in-place)
I0403 21:55:42.455246 13311 net.cpp:141] Setting up inception_4b/relu_5x5
I0403 21:55:42.455281 13311 net.cpp:148] Top shape: 24 64 14 14 (301056)
I0403 21:55:42.455299 13311 net.cpp:156] Memory required for data: 968181024
I0403 21:55:42.455320 13311 layer_factory.hpp:77] Creating layer inception_4b/pool
I0403 21:55:42.455348 13311 net.cpp:91] Creating Layer inception_4b/pool
I0403 21:55:42.455371 13311 net.cpp:425] inception_4b/pool <- inception_4a/output_inception_4a/output_0_split_4
I0403 21:55:42.455394 13311 net.cpp:399] inception_4b/pool -> inception_4b/pool
I0403 21:55:42.455477 13311 net.cpp:141] Setting up inception_4b/pool
I0403 21:55:42.455507 13311 net.cpp:148] Top shape: 24 512 14 14 (2408448)
I0403 21:55:42.455526 13311 net.cpp:156] Memory required for data: 977814816
I0403 21:55:42.455546 13311 layer_factory.hpp:77] Creating layer inception_4b/pool_proj
I0403 21:55:42.455575 13311 net.cpp:91] Creating Layer inception_4b/pool_proj
I0403 21:55:42.455598 13311 net.cpp:425] inception_4b/pool_proj <- inception_4b/pool
I0403 21:55:42.455629 13311 net.cpp:399] inception_4b/pool_proj -> inception_4b/pool_proj
I0403 21:55:42.457118 13311 net.cpp:141] Setting up inception_4b/pool_proj
I0403 21:55:42.457154 13311 net.cpp:148] Top shape: 24 64 14 14 (301056)
I0403 21:55:42.457175 13311 net.cpp:156] Memory required for data: 979019040
I0403 21:55:42.457200 13311 layer_factory.hpp:77] Creating layer inception_4b/relu_pool_proj
I0403 21:55:42.457234 13311 net.cpp:91] Creating Layer inception_4b/relu_pool_proj
I0403 21:55:42.457258 13311 net.cpp:425] inception_4b/relu_pool_proj <- inception_4b/pool_proj
I0403 21:55:42.457281 13311 net.cpp:386] inception_4b/relu_pool_proj -> inception_4b/pool_proj (in-place)
I0403 21:55:42.457509 13311 net.cpp:141] Setting up inception_4b/relu_pool_proj
I0403 21:55:42.457540 13311 net.cpp:148] Top shape: 24 64 14 14 (301056)
I0403 21:55:42.457559 13311 net.cpp:156] Memory required for data: 980223264
I0403 21:55:42.457577 13311 layer_factory.hpp:77] Creating layer inception_4b/output
I0403 21:55:42.457600 13311 net.cpp:91] Creating Layer inception_4b/output
I0403 21:55:42.457620 13311 net.cpp:425] inception_4b/output <- inception_4b/1x1
I0403 21:55:42.457643 13311 net.cpp:425] inception_4b/output <- inception_4b/3x3
I0403 21:55:42.457662 13311 net.cpp:425] inception_4b/output <- inception_4b/5x5
I0403 21:55:42.457682 13311 net.cpp:425] inception_4b/output <- inception_4b/pool_proj
I0403 21:55:42.457705 13311 net.cpp:399] inception_4b/output -> inception_4b/output
I0403 21:55:42.457762 13311 net.cpp:141] Setting up inception_4b/output
I0403 21:55:42.457792 13311 net.cpp:148] Top shape: 24 512 14 14 (2408448)
I0403 21:55:42.457813 13311 net.cpp:156] Memory required for data: 989857056
I0403 21:55:42.457849 13311 layer_factory.hpp:77] Creating layer inception_4b/output_inception_4b/output_0_split
I0403 21:55:42.457873 13311 net.cpp:91] Creating Layer inception_4b/output_inception_4b/output_0_split
I0403 21:55:42.457895 13311 net.cpp:425] inception_4b/output_inception_4b/output_0_split <- inception_4b/output
I0403 21:55:42.457917 13311 net.cpp:399] inception_4b/output_inception_4b/output_0_split -> inception_4b/output_inception_4b/output_0_split_0
I0403 21:55:42.457944 13311 net.cpp:399] inception_4b/output_inception_4b/output_0_split -> inception_4b/output_inception_4b/output_0_split_1
I0403 21:55:42.457969 13311 net.cpp:399] inception_4b/output_inception_4b/output_0_split -> inception_4b/output_inception_4b/output_0_split_2
I0403 21:55:42.458000 13311 net.cpp:399] inception_4b/output_inception_4b/output_0_split -> inception_4b/output_inception_4b/output_0_split_3
I0403 21:55:42.458109 13311 net.cpp:141] Setting up inception_4b/output_inception_4b/output_0_split
I0403 21:55:42.458139 13311 net.cpp:148] Top shape: 24 512 14 14 (2408448)
I0403 21:55:42.458159 13311 net.cpp:148] Top shape: 24 512 14 14 (2408448)
I0403 21:55:42.458178 13311 net.cpp:148] Top shape: 24 512 14 14 (2408448)
I0403 21:55:42.458199 13311 net.cpp:148] Top shape: 24 512 14 14 (2408448)
I0403 21:55:42.458225 13311 net.cpp:156] Memory required for data: 1028392224
I0403 21:55:42.458245 13311 layer_factory.hpp:77] Creating layer inception_4c/1x1
I0403 21:55:42.458274 13311 net.cpp:91] Creating Layer inception_4c/1x1
I0403 21:55:42.458298 13311 net.cpp:425] inception_4c/1x1 <- inception_4b/output_inception_4b/output_0_split_0
I0403 21:55:42.458324 13311 net.cpp:399] inception_4c/1x1 -> inception_4c/1x1
I0403 21:55:42.460099 13311 net.cpp:141] Setting up inception_4c/1x1
I0403 21:55:42.460134 13311 net.cpp:148] Top shape: 24 128 14 14 (602112)
I0403 21:55:42.460155 13311 net.cpp:156] Memory required for data: 1030800672
I0403 21:55:42.460180 13311 layer_factory.hpp:77] Creating layer inception_4c/relu_1x1
I0403 21:55:42.460202 13311 net.cpp:91] Creating Layer inception_4c/relu_1x1
I0403 21:55:42.460229 13311 net.cpp:425] inception_4c/relu_1x1 <- inception_4c/1x1
I0403 21:55:42.460255 13311 net.cpp:386] inception_4c/relu_1x1 -> inception_4c/1x1 (in-place)
I0403 21:55:42.460485 13311 net.cpp:141] Setting up inception_4c/relu_1x1
I0403 21:55:42.460516 13311 net.cpp:148] Top shape: 24 128 14 14 (602112)
I0403 21:55:42.460536 13311 net.cpp:156] Memory required for data: 1033209120
I0403 21:55:42.460556 13311 layer_factory.hpp:77] Creating layer inception_4c/3x3_reduce
I0403 21:55:42.460583 13311 net.cpp:91] Creating Layer inception_4c/3x3_reduce
I0403 21:55:42.460605 13311 net.cpp:425] inception_4c/3x3_reduce <- inception_4b/output_inception_4b/output_0_split_1
I0403 21:55:42.460635 13311 net.cpp:399] inception_4c/3x3_reduce -> inception_4c/3x3_reduce
I0403 21:55:42.463037 13311 net.cpp:141] Setting up inception_4c/3x3_reduce
I0403 21:55:42.463074 13311 net.cpp:148] Top shape: 24 128 14 14 (602112)
I0403 21:55:42.463094 13311 net.cpp:156] Memory required for data: 1035617568
I0403 21:55:42.463119 13311 layer_factory.hpp:77] Creating layer inception_4c/relu_3x3_reduce
I0403 21:55:42.463145 13311 net.cpp:91] Creating Layer inception_4c/relu_3x3_reduce
I0403 21:55:42.463167 13311 net.cpp:425] inception_4c/relu_3x3_reduce <- inception_4c/3x3_reduce
I0403 21:55:42.463188 13311 net.cpp:386] inception_4c/relu_3x3_reduce -> inception_4c/3x3_reduce (in-place)
I0403 21:55:42.463541 13311 net.cpp:141] Setting up inception_4c/relu_3x3_reduce
I0403 21:55:42.463574 13311 net.cpp:148] Top shape: 24 128 14 14 (602112)
I0403 21:55:42.463593 13311 net.cpp:156] Memory required for data: 1038026016
I0403 21:55:42.463613 13311 layer_factory.hpp:77] Creating layer inception_4c/3x3
I0403 21:55:42.463641 13311 net.cpp:91] Creating Layer inception_4c/3x3
I0403 21:55:42.463665 13311 net.cpp:425] inception_4c/3x3 <- inception_4c/3x3_reduce
I0403 21:55:42.463693 13311 net.cpp:399] inception_4c/3x3 -> inception_4c/3x3
I0403 21:55:42.468111 13311 net.cpp:141] Setting up inception_4c/3x3
I0403 21:55:42.468161 13311 net.cpp:148] Top shape: 24 256 14 14 (1204224)
I0403 21:55:42.468183 13311 net.cpp:156] Memory required for data: 1042842912
I0403 21:55:42.468230 13311 layer_factory.hpp:77] Creating layer inception_4c/relu_3x3
I0403 21:55:42.468261 13311 net.cpp:91] Creating Layer inception_4c/relu_3x3
I0403 21:55:42.468283 13311 net.cpp:425] inception_4c/relu_3x3 <- inception_4c/3x3
I0403 21:55:42.468307 13311 net.cpp:386] inception_4c/relu_3x3 -> inception_4c/3x3 (in-place)
I0403 21:55:42.468530 13311 net.cpp:141] Setting up inception_4c/relu_3x3
I0403 21:55:42.468564 13311 net.cpp:148] Top shape: 24 256 14 14 (1204224)
I0403 21:55:42.468585 13311 net.cpp:156] Memory required for data: 1047659808
I0403 21:55:42.468605 13311 layer_factory.hpp:77] Creating layer inception_4c/5x5_reduce
I0403 21:55:42.468631 13311 net.cpp:91] Creating Layer inception_4c/5x5_reduce
I0403 21:55:42.468652 13311 net.cpp:425] inception_4c/5x5_reduce <- inception_4b/output_inception_4b/output_0_split_2
I0403 21:55:42.468680 13311 net.cpp:399] inception_4c/5x5_reduce -> inception_4c/5x5_reduce
I0403 21:55:42.470027 13311 net.cpp:141] Setting up inception_4c/5x5_reduce
I0403 21:55:42.470062 13311 net.cpp:148] Top shape: 24 24 14 14 (112896)
I0403 21:55:42.470082 13311 net.cpp:156] Memory required for data: 1048111392
I0403 21:55:42.470106 13311 layer_factory.hpp:77] Creating layer inception_4c/relu_5x5_reduce
I0403 21:55:42.470132 13311 net.cpp:91] Creating Layer inception_4c/relu_5x5_reduce
I0403 21:55:42.470155 13311 net.cpp:425] inception_4c/relu_5x5_reduce <- inception_4c/5x5_reduce
I0403 21:55:42.470176 13311 net.cpp:386] inception_4c/relu_5x5_reduce -> inception_4c/5x5_reduce (in-place)
I0403 21:55:42.470419 13311 net.cpp:141] Setting up inception_4c/relu_5x5_reduce
I0403 21:55:42.470453 13311 net.cpp:148] Top shape: 24 24 14 14 (112896)
I0403 21:55:42.470474 13311 net.cpp:156] Memory required for data: 1048562976
I0403 21:55:42.470494 13311 layer_factory.hpp:77] Creating layer inception_4c/5x5
I0403 21:55:42.470523 13311 net.cpp:91] Creating Layer inception_4c/5x5
I0403 21:55:42.470544 13311 net.cpp:425] inception_4c/5x5 <- inception_4c/5x5_reduce
I0403 21:55:42.470568 13311 net.cpp:399] inception_4c/5x5 -> inception_4c/5x5
I0403 21:55:42.472101 13311 net.cpp:141] Setting up inception_4c/5x5
I0403 21:55:42.472138 13311 net.cpp:148] Top shape: 24 64 14 14 (301056)
I0403 21:55:42.472158 13311 net.cpp:156] Memory required for data: 1049767200
I0403 21:55:42.472182 13311 layer_factory.hpp:77] Creating layer inception_4c/relu_5x5
I0403 21:55:42.472204 13311 net.cpp:91] Creating Layer inception_4c/relu_5x5
I0403 21:55:42.472240 13311 net.cpp:425] inception_4c/relu_5x5 <- inception_4c/5x5
I0403 21:55:42.472266 13311 net.cpp:386] inception_4c/relu_5x5 -> inception_4c/5x5 (in-place)
I0403 21:55:42.472620 13311 net.cpp:141] Setting up inception_4c/relu_5x5
I0403 21:55:42.472656 13311 net.cpp:148] Top shape: 24 64 14 14 (301056)
I0403 21:55:42.472676 13311 net.cpp:156] Memory required for data: 1050971424
I0403 21:55:42.472695 13311 layer_factory.hpp:77] Creating layer inception_4c/pool
I0403 21:55:42.472719 13311 net.cpp:91] Creating Layer inception_4c/pool
I0403 21:55:42.472739 13311 net.cpp:425] inception_4c/pool <- inception_4b/output_inception_4b/output_0_split_3
I0403 21:55:42.472765 13311 net.cpp:399] inception_4c/pool -> inception_4c/pool
I0403 21:55:42.472847 13311 net.cpp:141] Setting up inception_4c/pool
I0403 21:55:42.472877 13311 net.cpp:148] Top shape: 24 512 14 14 (2408448)
I0403 21:55:42.472897 13311 net.cpp:156] Memory required for data: 1060605216
I0403 21:55:42.472915 13311 layer_factory.hpp:77] Creating layer inception_4c/pool_proj
I0403 21:55:42.472945 13311 net.cpp:91] Creating Layer inception_4c/pool_proj
I0403 21:55:42.472970 13311 net.cpp:425] inception_4c/pool_proj <- inception_4c/pool
I0403 21:55:42.472993 13311 net.cpp:399] inception_4c/pool_proj -> inception_4c/pool_proj
I0403 21:55:42.474509 13311 net.cpp:141] Setting up inception_4c/pool_proj
I0403 21:55:42.474545 13311 net.cpp:148] Top shape: 24 64 14 14 (301056)
I0403 21:55:42.474582 13311 net.cpp:156] Memory required for data: 1061809440
I0403 21:55:42.474606 13311 layer_factory.hpp:77] Creating layer inception_4c/relu_pool_proj
I0403 21:55:42.474632 13311 net.cpp:91] Creating Layer inception_4c/relu_pool_proj
I0403 21:55:42.474653 13311 net.cpp:425] inception_4c/relu_pool_proj <- inception_4c/pool_proj
I0403 21:55:42.474676 13311 net.cpp:386] inception_4c/relu_pool_proj -> inception_4c/pool_proj (in-place)
I0403 21:55:42.474907 13311 net.cpp:141] Setting up inception_4c/relu_pool_proj
I0403 21:55:42.474943 13311 net.cpp:148] Top shape: 24 64 14 14 (301056)
I0403 21:55:42.474962 13311 net.cpp:156] Memory required for data: 1063013664
I0403 21:55:42.474982 13311 layer_factory.hpp:77] Creating layer inception_4c/output
I0403 21:55:42.475004 13311 net.cpp:91] Creating Layer inception_4c/output
I0403 21:55:42.475024 13311 net.cpp:425] inception_4c/output <- inception_4c/1x1
I0403 21:55:42.475046 13311 net.cpp:425] inception_4c/output <- inception_4c/3x3
I0403 21:55:42.475067 13311 net.cpp:425] inception_4c/output <- inception_4c/5x5
I0403 21:55:42.475086 13311 net.cpp:425] inception_4c/output <- inception_4c/pool_proj
I0403 21:55:42.475108 13311 net.cpp:399] inception_4c/output -> inception_4c/output
I0403 21:55:42.475167 13311 net.cpp:141] Setting up inception_4c/output
I0403 21:55:42.475198 13311 net.cpp:148] Top shape: 24 512 14 14 (2408448)
I0403 21:55:42.475224 13311 net.cpp:156] Memory required for data: 1072647456
I0403 21:55:42.475244 13311 layer_factory.hpp:77] Creating layer inception_4c/output_inception_4c/output_0_split
I0403 21:55:42.475268 13311 net.cpp:91] Creating Layer inception_4c/output_inception_4c/output_0_split
I0403 21:55:42.475289 13311 net.cpp:425] inception_4c/output_inception_4c/output_0_split <- inception_4c/output
I0403 21:55:42.475312 13311 net.cpp:399] inception_4c/output_inception_4c/output_0_split -> inception_4c/output_inception_4c/output_0_split_0
I0403 21:55:42.475337 13311 net.cpp:399] inception_4c/output_inception_4c/output_0_split -> inception_4c/output_inception_4c/output_0_split_1
I0403 21:55:42.475363 13311 net.cpp:399] inception_4c/output_inception_4c/output_0_split -> inception_4c/output_inception_4c/output_0_split_2
I0403 21:55:42.475392 13311 net.cpp:399] inception_4c/output_inception_4c/output_0_split -> inception_4c/output_inception_4c/output_0_split_3
I0403 21:55:42.475504 13311 net.cpp:141] Setting up inception_4c/output_inception_4c/output_0_split
I0403 21:55:42.475534 13311 net.cpp:148] Top shape: 24 512 14 14 (2408448)
I0403 21:55:42.475554 13311 net.cpp:148] Top shape: 24 512 14 14 (2408448)
I0403 21:55:42.475574 13311 net.cpp:148] Top shape: 24 512 14 14 (2408448)
I0403 21:55:42.475594 13311 net.cpp:148] Top shape: 24 512 14 14 (2408448)
I0403 21:55:42.475610 13311 net.cpp:156] Memory required for data: 1111182624
I0403 21:55:42.475630 13311 layer_factory.hpp:77] Creating layer inception_4d/1x1
I0403 21:55:42.475656 13311 net.cpp:91] Creating Layer inception_4d/1x1
I0403 21:55:42.475680 13311 net.cpp:425] inception_4d/1x1 <- inception_4c/output_inception_4c/output_0_split_0
I0403 21:55:42.475705 13311 net.cpp:399] inception_4d/1x1 -> inception_4d/1x1
I0403 21:55:42.477417 13311 net.cpp:141] Setting up inception_4d/1x1
I0403 21:55:42.477452 13311 net.cpp:148] Top shape: 24 112 14 14 (526848)
I0403 21:55:42.477473 13311 net.cpp:156] Memory required for data: 1113290016
I0403 21:55:42.477495 13311 layer_factory.hpp:77] Creating layer inception_4d/relu_1x1
I0403 21:55:42.477519 13311 net.cpp:91] Creating Layer inception_4d/relu_1x1
I0403 21:55:42.477540 13311 net.cpp:425] inception_4d/relu_1x1 <- inception_4d/1x1
I0403 21:55:42.477565 13311 net.cpp:386] inception_4d/relu_1x1 -> inception_4d/1x1 (in-place)
I0403 21:55:42.477792 13311 net.cpp:141] Setting up inception_4d/relu_1x1
I0403 21:55:42.477823 13311 net.cpp:148] Top shape: 24 112 14 14 (526848)
I0403 21:55:42.477843 13311 net.cpp:156] Memory required for data: 1115397408
I0403 21:55:42.477861 13311 layer_factory.hpp:77] Creating layer inception_4d/3x3_reduce
I0403 21:55:42.477906 13311 net.cpp:91] Creating Layer inception_4d/3x3_reduce
I0403 21:55:42.477931 13311 net.cpp:425] inception_4d/3x3_reduce <- inception_4c/output_inception_4c/output_0_split_1
I0403 21:55:42.477958 13311 net.cpp:399] inception_4d/3x3_reduce -> inception_4d/3x3_reduce
I0403 21:55:42.479821 13311 net.cpp:141] Setting up inception_4d/3x3_reduce
I0403 21:55:42.479859 13311 net.cpp:148] Top shape: 24 144 14 14 (677376)
I0403 21:55:42.479879 13311 net.cpp:156] Memory required for data: 1118106912
I0403 21:55:42.479903 13311 layer_factory.hpp:77] Creating layer inception_4d/relu_3x3_reduce
I0403 21:55:42.479926 13311 net.cpp:91] Creating Layer inception_4d/relu_3x3_reduce
I0403 21:55:42.479946 13311 net.cpp:425] inception_4d/relu_3x3_reduce <- inception_4d/3x3_reduce
I0403 21:55:42.479972 13311 net.cpp:386] inception_4d/relu_3x3_reduce -> inception_4d/3x3_reduce (in-place)
I0403 21:55:42.480334 13311 net.cpp:141] Setting up inception_4d/relu_3x3_reduce
I0403 21:55:42.480370 13311 net.cpp:148] Top shape: 24 144 14 14 (677376)
I0403 21:55:42.480391 13311 net.cpp:156] Memory required for data: 1120816416
I0403 21:55:42.480409 13311 layer_factory.hpp:77] Creating layer inception_4d/3x3
I0403 21:55:42.480437 13311 net.cpp:91] Creating Layer inception_4d/3x3
I0403 21:55:42.480460 13311 net.cpp:425] inception_4d/3x3 <- inception_4d/3x3_reduce
I0403 21:55:42.480484 13311 net.cpp:399] inception_4d/3x3 -> inception_4d/3x3
I0403 21:55:42.485812 13311 net.cpp:141] Setting up inception_4d/3x3
I0403 21:55:42.485851 13311 net.cpp:148] Top shape: 24 288 14 14 (1354752)
I0403 21:55:42.485870 13311 net.cpp:156] Memory required for data: 1126235424
I0403 21:55:42.485893 13311 layer_factory.hpp:77] Creating layer inception_4d/relu_3x3
I0403 21:55:42.485918 13311 net.cpp:91] Creating Layer inception_4d/relu_3x3
I0403 21:55:42.485940 13311 net.cpp:425] inception_4d/relu_3x3 <- inception_4d/3x3
I0403 21:55:42.485962 13311 net.cpp:386] inception_4d/relu_3x3 -> inception_4d/3x3 (in-place)
I0403 21:55:42.486191 13311 net.cpp:141] Setting up inception_4d/relu_3x3
I0403 21:55:42.486228 13311 net.cpp:148] Top shape: 24 288 14 14 (1354752)
I0403 21:55:42.486248 13311 net.cpp:156] Memory required for data: 1131654432
I0403 21:55:42.486268 13311 layer_factory.hpp:77] Creating layer inception_4d/5x5_reduce
I0403 21:55:42.486296 13311 net.cpp:91] Creating Layer inception_4d/5x5_reduce
I0403 21:55:42.486320 13311 net.cpp:425] inception_4d/5x5_reduce <- inception_4c/output_inception_4c/output_0_split_2
I0403 21:55:42.486342 13311 net.cpp:399] inception_4d/5x5_reduce -> inception_4d/5x5_reduce
I0403 21:55:42.487766 13311 net.cpp:141] Setting up inception_4d/5x5_reduce
I0403 21:55:42.487799 13311 net.cpp:148] Top shape: 24 32 14 14 (150528)
I0403 21:55:42.487818 13311 net.cpp:156] Memory required for data: 1132256544
I0403 21:55:42.487841 13311 layer_factory.hpp:77] Creating layer inception_4d/relu_5x5_reduce
I0403 21:55:42.487867 13311 net.cpp:91] Creating Layer inception_4d/relu_5x5_reduce
I0403 21:55:42.487890 13311 net.cpp:425] inception_4d/relu_5x5_reduce <- inception_4d/5x5_reduce
I0403 21:55:42.487911 13311 net.cpp:386] inception_4d/relu_5x5_reduce -> inception_4d/5x5_reduce (in-place)
I0403 21:55:42.488142 13311 net.cpp:141] Setting up inception_4d/relu_5x5_reduce
I0403 21:55:42.488173 13311 net.cpp:148] Top shape: 24 32 14 14 (150528)
I0403 21:55:42.488195 13311 net.cpp:156] Memory required for data: 1132858656
I0403 21:55:42.488221 13311 layer_factory.hpp:77] Creating layer inception_4d/5x5
I0403 21:55:42.488248 13311 net.cpp:91] Creating Layer inception_4d/5x5
I0403 21:55:42.488270 13311 net.cpp:425] inception_4d/5x5 <- inception_4d/5x5_reduce
I0403 21:55:42.488296 13311 net.cpp:399] inception_4d/5x5 -> inception_4d/5x5
I0403 21:55:42.490082 13311 net.cpp:141] Setting up inception_4d/5x5
I0403 21:55:42.490118 13311 net.cpp:148] Top shape: 24 64 14 14 (301056)
I0403 21:55:42.490139 13311 net.cpp:156] Memory required for data: 1134062880
I0403 21:55:42.490164 13311 layer_factory.hpp:77] Creating layer inception_4d/relu_5x5
I0403 21:55:42.490205 13311 net.cpp:91] Creating Layer inception_4d/relu_5x5
I0403 21:55:42.490232 13311 net.cpp:425] inception_4d/relu_5x5 <- inception_4d/5x5
I0403 21:55:42.490254 13311 net.cpp:386] inception_4d/relu_5x5 -> inception_4d/5x5 (in-place)
I0403 21:55:42.490617 13311 net.cpp:141] Setting up inception_4d/relu_5x5
I0403 21:55:42.490653 13311 net.cpp:148] Top shape: 24 64 14 14 (301056)
I0403 21:55:42.490672 13311 net.cpp:156] Memory required for data: 1135267104
I0403 21:55:42.490691 13311 layer_factory.hpp:77] Creating layer inception_4d/pool
I0403 21:55:42.490715 13311 net.cpp:91] Creating Layer inception_4d/pool
I0403 21:55:42.490733 13311 net.cpp:425] inception_4d/pool <- inception_4c/output_inception_4c/output_0_split_3
I0403 21:55:42.490756 13311 net.cpp:399] inception_4d/pool -> inception_4d/pool
I0403 21:55:42.490839 13311 net.cpp:141] Setting up inception_4d/pool
I0403 21:55:42.490867 13311 net.cpp:148] Top shape: 24 512 14 14 (2408448)
I0403 21:55:42.490885 13311 net.cpp:156] Memory required for data: 1144900896
I0403 21:55:42.490903 13311 layer_factory.hpp:77] Creating layer inception_4d/pool_proj
I0403 21:55:42.490931 13311 net.cpp:91] Creating Layer inception_4d/pool_proj
I0403 21:55:42.490953 13311 net.cpp:425] inception_4d/pool_proj <- inception_4d/pool
I0403 21:55:42.490979 13311 net.cpp:399] inception_4d/pool_proj -> inception_4d/pool_proj
I0403 21:55:42.493124 13311 net.cpp:141] Setting up inception_4d/pool_proj
I0403 21:55:42.493161 13311 net.cpp:148] Top shape: 24 64 14 14 (301056)
I0403 21:55:42.493181 13311 net.cpp:156] Memory required for data: 1146105120
I0403 21:55:42.493203 13311 layer_factory.hpp:77] Creating layer inception_4d/relu_pool_proj
I0403 21:55:42.493237 13311 net.cpp:91] Creating Layer inception_4d/relu_pool_proj
I0403 21:55:42.493259 13311 net.cpp:425] inception_4d/relu_pool_proj <- inception_4d/pool_proj
I0403 21:55:42.493281 13311 net.cpp:386] inception_4d/relu_pool_proj -> inception_4d/pool_proj (in-place)
I0403 21:55:42.493515 13311 net.cpp:141] Setting up inception_4d/relu_pool_proj
I0403 21:55:42.493546 13311 net.cpp:148] Top shape: 24 64 14 14 (301056)
I0403 21:55:42.493563 13311 net.cpp:156] Memory required for data: 1147309344
I0403 21:55:42.493582 13311 layer_factory.hpp:77] Creating layer inception_4d/output
I0403 21:55:42.493605 13311 net.cpp:91] Creating Layer inception_4d/output
I0403 21:55:42.493626 13311 net.cpp:425] inception_4d/output <- inception_4d/1x1
I0403 21:55:42.493649 13311 net.cpp:425] inception_4d/output <- inception_4d/3x3
I0403 21:55:42.493669 13311 net.cpp:425] inception_4d/output <- inception_4d/5x5
I0403 21:55:42.493688 13311 net.cpp:425] inception_4d/output <- inception_4d/pool_proj
I0403 21:55:42.493710 13311 net.cpp:399] inception_4d/output -> inception_4d/output
I0403 21:55:42.493769 13311 net.cpp:141] Setting up inception_4d/output
I0403 21:55:42.493798 13311 net.cpp:148] Top shape: 24 528 14 14 (2483712)
I0403 21:55:42.493816 13311 net.cpp:156] Memory required for data: 1157244192
I0403 21:55:42.493834 13311 layer_factory.hpp:77] Creating layer inception_4d/output_inception_4d/output_0_split
I0403 21:55:42.493856 13311 net.cpp:91] Creating Layer inception_4d/output_inception_4d/output_0_split
I0403 21:55:42.493875 13311 net.cpp:425] inception_4d/output_inception_4d/output_0_split <- inception_4d/output
I0403 21:55:42.493901 13311 net.cpp:399] inception_4d/output_inception_4d/output_0_split -> inception_4d/output_inception_4d/output_0_split_0
I0403 21:55:42.493927 13311 net.cpp:399] inception_4d/output_inception_4d/output_0_split -> inception_4d/output_inception_4d/output_0_split_1
I0403 21:55:42.493953 13311 net.cpp:399] inception_4d/output_inception_4d/output_0_split -> inception_4d/output_inception_4d/output_0_split_2
I0403 21:55:42.493983 13311 net.cpp:399] inception_4d/output_inception_4d/output_0_split -> inception_4d/output_inception_4d/output_0_split_3
I0403 21:55:42.494007 13311 net.cpp:399] inception_4d/output_inception_4d/output_0_split -> inception_4d/output_inception_4d/output_0_split_4
I0403 21:55:42.494129 13311 net.cpp:141] Setting up inception_4d/output_inception_4d/output_0_split
I0403 21:55:42.494174 13311 net.cpp:148] Top shape: 24 528 14 14 (2483712)
I0403 21:55:42.494195 13311 net.cpp:148] Top shape: 24 528 14 14 (2483712)
I0403 21:55:42.494222 13311 net.cpp:148] Top shape: 24 528 14 14 (2483712)
I0403 21:55:42.494243 13311 net.cpp:148] Top shape: 24 528 14 14 (2483712)
I0403 21:55:42.494263 13311 net.cpp:148] Top shape: 24 528 14 14 (2483712)
I0403 21:55:42.494282 13311 net.cpp:156] Memory required for data: 1206918432
I0403 21:55:42.494299 13311 layer_factory.hpp:77] Creating layer loss2/ave_pool
I0403 21:55:42.494321 13311 net.cpp:91] Creating Layer loss2/ave_pool
I0403 21:55:42.494341 13311 net.cpp:425] loss2/ave_pool <- inception_4d/output_inception_4d/output_0_split_0
I0403 21:55:42.494367 13311 net.cpp:399] loss2/ave_pool -> loss2/ave_pool
I0403 21:55:42.494743 13311 net.cpp:141] Setting up loss2/ave_pool
I0403 21:55:42.494776 13311 net.cpp:148] Top shape: 24 528 4 4 (202752)
I0403 21:55:42.494796 13311 net.cpp:156] Memory required for data: 1207729440
I0403 21:55:42.494815 13311 layer_factory.hpp:77] Creating layer loss2/conv
I0403 21:55:42.494843 13311 net.cpp:91] Creating Layer loss2/conv
I0403 21:55:42.494865 13311 net.cpp:425] loss2/conv <- loss2/ave_pool
I0403 21:55:42.494891 13311 net.cpp:399] loss2/conv -> loss2/conv
I0403 21:55:42.497207 13311 net.cpp:141] Setting up loss2/conv
I0403 21:55:42.497252 13311 net.cpp:148] Top shape: 24 128 4 4 (49152)
I0403 21:55:42.497273 13311 net.cpp:156] Memory required for data: 1207926048
I0403 21:55:42.497298 13311 layer_factory.hpp:77] Creating layer loss2/relu_conv
I0403 21:55:42.497320 13311 net.cpp:91] Creating Layer loss2/relu_conv
I0403 21:55:42.497340 13311 net.cpp:425] loss2/relu_conv <- loss2/conv
I0403 21:55:42.497364 13311 net.cpp:386] loss2/relu_conv -> loss2/conv (in-place)
I0403 21:55:42.497706 13311 net.cpp:141] Setting up loss2/relu_conv
I0403 21:55:42.497742 13311 net.cpp:148] Top shape: 24 128 4 4 (49152)
I0403 21:55:42.497763 13311 net.cpp:156] Memory required for data: 1208122656
I0403 21:55:42.497782 13311 layer_factory.hpp:77] Creating layer loss2/fc
I0403 21:55:42.497807 13311 net.cpp:91] Creating Layer loss2/fc
I0403 21:55:42.497827 13311 net.cpp:425] loss2/fc <- loss2/conv
I0403 21:55:42.497853 13311 net.cpp:399] loss2/fc -> loss2/fc
I0403 21:55:42.519915 13311 net.cpp:141] Setting up loss2/fc
I0403 21:55:42.519958 13311 net.cpp:148] Top shape: 24 1024 (24576)
I0403 21:55:42.519978 13311 net.cpp:156] Memory required for data: 1208220960
I0403 21:55:42.520001 13311 layer_factory.hpp:77] Creating layer loss2/relu_fc
I0403 21:55:42.520026 13311 net.cpp:91] Creating Layer loss2/relu_fc
I0403 21:55:42.520048 13311 net.cpp:425] loss2/relu_fc <- loss2/fc
I0403 21:55:42.520071 13311 net.cpp:386] loss2/relu_fc -> loss2/fc (in-place)
I0403 21:55:42.520449 13311 net.cpp:141] Setting up loss2/relu_fc
I0403 21:55:42.520483 13311 net.cpp:148] Top shape: 24 1024 (24576)
I0403 21:55:42.520503 13311 net.cpp:156] Memory required for data: 1208319264
I0403 21:55:42.520521 13311 layer_factory.hpp:77] Creating layer loss2/drop_fc
I0403 21:55:42.520546 13311 net.cpp:91] Creating Layer loss2/drop_fc
I0403 21:55:42.520568 13311 net.cpp:425] loss2/drop_fc <- loss2/fc
I0403 21:55:42.520591 13311 net.cpp:386] loss2/drop_fc -> loss2/fc (in-place)
I0403 21:55:42.520653 13311 net.cpp:141] Setting up loss2/drop_fc
I0403 21:55:42.520683 13311 net.cpp:148] Top shape: 24 1024 (24576)
I0403 21:55:42.520700 13311 net.cpp:156] Memory required for data: 1208417568
I0403 21:55:42.520720 13311 layer_factory.hpp:77] Creating layer loss2/classifier_plantvillage
I0403 21:55:42.520741 13311 net.cpp:91] Creating Layer loss2/classifier_plantvillage
I0403 21:55:42.520762 13311 net.cpp:425] loss2/classifier_plantvillage <- loss2/fc
I0403 21:55:42.520789 13311 net.cpp:399] loss2/classifier_plantvillage -> loss2/classifier_plantvillage
I0403 21:55:42.521303 13311 net.cpp:141] Setting up loss2/classifier_plantvillage
I0403 21:55:42.521335 13311 net.cpp:148] Top shape: 24 38 (912)
I0403 21:55:42.521353 13311 net.cpp:156] Memory required for data: 1208421216
I0403 21:55:42.521395 13311 layer_factory.hpp:77] Creating layer loss2/classifier_plantvillage_loss2/classifier_plantvillage_0_split
I0403 21:55:42.521420 13311 net.cpp:91] Creating Layer loss2/classifier_plantvillage_loss2/classifier_plantvillage_0_split
I0403 21:55:42.521440 13311 net.cpp:425] loss2/classifier_plantvillage_loss2/classifier_plantvillage_0_split <- loss2/classifier_plantvillage
I0403 21:55:42.521466 13311 net.cpp:399] loss2/classifier_plantvillage_loss2/classifier_plantvillage_0_split -> loss2/classifier_plantvillage_loss2/classifier_plantvillage_0_split_0
I0403 21:55:42.521492 13311 net.cpp:399] loss2/classifier_plantvillage_loss2/classifier_plantvillage_0_split -> loss2/classifier_plantvillage_loss2/classifier_plantvillage_0_split_1
I0403 21:55:42.521519 13311 net.cpp:399] loss2/classifier_plantvillage_loss2/classifier_plantvillage_0_split -> loss2/classifier_plantvillage_loss2/classifier_plantvillage_0_split_2
I0403 21:55:42.521613 13311 net.cpp:141] Setting up loss2/classifier_plantvillage_loss2/classifier_plantvillage_0_split
I0403 21:55:42.521642 13311 net.cpp:148] Top shape: 24 38 (912)
I0403 21:55:42.521662 13311 net.cpp:148] Top shape: 24 38 (912)
I0403 21:55:42.521682 13311 net.cpp:148] Top shape: 24 38 (912)
I0403 21:55:42.521702 13311 net.cpp:156] Memory required for data: 1208432160
I0403 21:55:42.521720 13311 layer_factory.hpp:77] Creating layer inception_4e/1x1
I0403 21:55:42.521749 13311 net.cpp:91] Creating Layer inception_4e/1x1
I0403 21:55:42.521771 13311 net.cpp:425] inception_4e/1x1 <- inception_4d/output_inception_4d/output_0_split_1
I0403 21:55:42.521795 13311 net.cpp:399] inception_4e/1x1 -> inception_4e/1x1
I0403 21:55:42.524044 13311 net.cpp:141] Setting up inception_4e/1x1
I0403 21:55:42.524081 13311 net.cpp:148] Top shape: 24 256 14 14 (1204224)
I0403 21:55:42.524101 13311 net.cpp:156] Memory required for data: 1213249056
I0403 21:55:42.524126 13311 layer_factory.hpp:77] Creating layer inception_4e/relu_1x1
I0403 21:55:42.524148 13311 net.cpp:91] Creating Layer inception_4e/relu_1x1
I0403 21:55:42.524168 13311 net.cpp:425] inception_4e/relu_1x1 <- inception_4e/1x1
I0403 21:55:42.524194 13311 net.cpp:386] inception_4e/relu_1x1 -> inception_4e/1x1 (in-place)
I0403 21:55:42.524557 13311 net.cpp:141] Setting up inception_4e/relu_1x1
I0403 21:55:42.524593 13311 net.cpp:148] Top shape: 24 256 14 14 (1204224)
I0403 21:55:42.524613 13311 net.cpp:156] Memory required for data: 1218065952
I0403 21:55:42.524633 13311 layer_factory.hpp:77] Creating layer inception_4e/3x3_reduce
I0403 21:55:42.524662 13311 net.cpp:91] Creating Layer inception_4e/3x3_reduce
I0403 21:55:42.524683 13311 net.cpp:425] inception_4e/3x3_reduce <- inception_4d/output_inception_4d/output_0_split_2
I0403 21:55:42.524708 13311 net.cpp:399] inception_4e/3x3_reduce -> inception_4e/3x3_reduce
I0403 21:55:42.527331 13311 net.cpp:141] Setting up inception_4e/3x3_reduce
I0403 21:55:42.527369 13311 net.cpp:148] Top shape: 24 160 14 14 (752640)
I0403 21:55:42.527390 13311 net.cpp:156] Memory required for data: 1221076512
I0403 21:55:42.527411 13311 layer_factory.hpp:77] Creating layer inception_4e/relu_3x3_reduce
I0403 21:55:42.527437 13311 net.cpp:91] Creating Layer inception_4e/relu_3x3_reduce
I0403 21:55:42.527459 13311 net.cpp:425] inception_4e/relu_3x3_reduce <- inception_4e/3x3_reduce
I0403 21:55:42.527482 13311 net.cpp:386] inception_4e/relu_3x3_reduce -> inception_4e/3x3_reduce (in-place)
I0403 21:55:42.527719 13311 net.cpp:141] Setting up inception_4e/relu_3x3_reduce
I0403 21:55:42.527750 13311 net.cpp:148] Top shape: 24 160 14 14 (752640)
I0403 21:55:42.527768 13311 net.cpp:156] Memory required for data: 1224087072
I0403 21:55:42.527787 13311 layer_factory.hpp:77] Creating layer inception_4e/3x3
I0403 21:55:42.527815 13311 net.cpp:91] Creating Layer inception_4e/3x3
I0403 21:55:42.527838 13311 net.cpp:425] inception_4e/3x3 <- inception_4e/3x3_reduce
I0403 21:55:42.527865 13311 net.cpp:399] inception_4e/3x3 -> inception_4e/3x3
I0403 21:55:42.534132 13311 net.cpp:141] Setting up inception_4e/3x3
I0403 21:55:42.534188 13311 net.cpp:148] Top shape: 24 320 14 14 (1505280)
I0403 21:55:42.534214 13311 net.cpp:156] Memory required for data: 1230108192
I0403 21:55:42.534240 13311 layer_factory.hpp:77] Creating layer inception_4e/relu_3x3
I0403 21:55:42.534265 13311 net.cpp:91] Creating Layer inception_4e/relu_3x3
I0403 21:55:42.534286 13311 net.cpp:425] inception_4e/relu_3x3 <- inception_4e/3x3
I0403 21:55:42.534312 13311 net.cpp:386] inception_4e/relu_3x3 -> inception_4e/3x3 (in-place)
I0403 21:55:42.534687 13311 net.cpp:141] Setting up inception_4e/relu_3x3
I0403 21:55:42.534719 13311 net.cpp:148] Top shape: 24 320 14 14 (1505280)
I0403 21:55:42.534739 13311 net.cpp:156] Memory required for data: 1236129312
I0403 21:55:42.534757 13311 layer_factory.hpp:77] Creating layer inception_4e/5x5_reduce
I0403 21:55:42.534788 13311 net.cpp:91] Creating Layer inception_4e/5x5_reduce
I0403 21:55:42.534811 13311 net.cpp:425] inception_4e/5x5_reduce <- inception_4d/output_inception_4d/output_0_split_3
I0403 21:55:42.534838 13311 net.cpp:399] inception_4e/5x5_reduce -> inception_4e/5x5_reduce
I0403 21:55:42.536173 13311 net.cpp:141] Setting up inception_4e/5x5_reduce
I0403 21:55:42.536216 13311 net.cpp:148] Top shape: 24 32 14 14 (150528)
I0403 21:55:42.536238 13311 net.cpp:156] Memory required for data: 1236731424
I0403 21:55:42.536262 13311 layer_factory.hpp:77] Creating layer inception_4e/relu_5x5_reduce
I0403 21:55:42.536284 13311 net.cpp:91] Creating Layer inception_4e/relu_5x5_reduce
I0403 21:55:42.536303 13311 net.cpp:425] inception_4e/relu_5x5_reduce <- inception_4e/5x5_reduce
I0403 21:55:42.536324 13311 net.cpp:386] inception_4e/relu_5x5_reduce -> inception_4e/5x5_reduce (in-place)
I0403 21:55:42.536686 13311 net.cpp:141] Setting up inception_4e/relu_5x5_reduce
I0403 21:55:42.536721 13311 net.cpp:148] Top shape: 24 32 14 14 (150528)
I0403 21:55:42.536743 13311 net.cpp:156] Memory required for data: 1237333536
I0403 21:55:42.536763 13311 layer_factory.hpp:77] Creating layer inception_4e/5x5
I0403 21:55:42.536811 13311 net.cpp:91] Creating Layer inception_4e/5x5
I0403 21:55:42.536834 13311 net.cpp:425] inception_4e/5x5 <- inception_4e/5x5_reduce
I0403 21:55:42.536859 13311 net.cpp:399] inception_4e/5x5 -> inception_4e/5x5
I0403 21:55:42.539105 13311 net.cpp:141] Setting up inception_4e/5x5
I0403 21:55:42.539140 13311 net.cpp:148] Top shape: 24 128 14 14 (602112)
I0403 21:55:42.539160 13311 net.cpp:156] Memory required for data: 1239741984
I0403 21:55:42.539183 13311 layer_factory.hpp:77] Creating layer inception_4e/relu_5x5
I0403 21:55:42.539213 13311 net.cpp:91] Creating Layer inception_4e/relu_5x5
I0403 21:55:42.539237 13311 net.cpp:425] inception_4e/relu_5x5 <- inception_4e/5x5
I0403 21:55:42.539258 13311 net.cpp:386] inception_4e/relu_5x5 -> inception_4e/5x5 (in-place)
I0403 21:55:42.539510 13311 net.cpp:141] Setting up inception_4e/relu_5x5
I0403 21:55:42.539544 13311 net.cpp:148] Top shape: 24 128 14 14 (602112)
I0403 21:55:42.539566 13311 net.cpp:156] Memory required for data: 1242150432
I0403 21:55:42.539584 13311 layer_factory.hpp:77] Creating layer inception_4e/pool
I0403 21:55:42.539607 13311 net.cpp:91] Creating Layer inception_4e/pool
I0403 21:55:42.539626 13311 net.cpp:425] inception_4e/pool <- inception_4d/output_inception_4d/output_0_split_4
I0403 21:55:42.539654 13311 net.cpp:399] inception_4e/pool -> inception_4e/pool
I0403 21:55:42.539741 13311 net.cpp:141] Setting up inception_4e/pool
I0403 21:55:42.539770 13311 net.cpp:148] Top shape: 24 528 14 14 (2483712)
I0403 21:55:42.539788 13311 net.cpp:156] Memory required for data: 1252085280
I0403 21:55:42.539806 13311 layer_factory.hpp:77] Creating layer inception_4e/pool_proj
I0403 21:55:42.539834 13311 net.cpp:91] Creating Layer inception_4e/pool_proj
I0403 21:55:42.539855 13311 net.cpp:425] inception_4e/pool_proj <- inception_4e/pool
I0403 21:55:42.539882 13311 net.cpp:399] inception_4e/pool_proj -> inception_4e/pool_proj
I0403 21:55:42.541733 13311 net.cpp:141] Setting up inception_4e/pool_proj
I0403 21:55:42.541767 13311 net.cpp:148] Top shape: 24 128 14 14 (602112)
I0403 21:55:42.541805 13311 net.cpp:156] Memory required for data: 1254493728
I0403 21:55:42.541829 13311 layer_factory.hpp:77] Creating layer inception_4e/relu_pool_proj
I0403 21:55:42.541857 13311 net.cpp:91] Creating Layer inception_4e/relu_pool_proj
I0403 21:55:42.541878 13311 net.cpp:425] inception_4e/relu_pool_proj <- inception_4e/pool_proj
I0403 21:55:42.541900 13311 net.cpp:386] inception_4e/relu_pool_proj -> inception_4e/pool_proj (in-place)
I0403 21:55:42.542271 13311 net.cpp:141] Setting up inception_4e/relu_pool_proj
I0403 21:55:42.542304 13311 net.cpp:148] Top shape: 24 128 14 14 (602112)
I0403 21:55:42.542323 13311 net.cpp:156] Memory required for data: 1256902176
I0403 21:55:42.542342 13311 layer_factory.hpp:77] Creating layer inception_4e/output
I0403 21:55:42.542368 13311 net.cpp:91] Creating Layer inception_4e/output
I0403 21:55:42.542388 13311 net.cpp:425] inception_4e/output <- inception_4e/1x1
I0403 21:55:42.542412 13311 net.cpp:425] inception_4e/output <- inception_4e/3x3
I0403 21:55:42.542431 13311 net.cpp:425] inception_4e/output <- inception_4e/5x5
I0403 21:55:42.542450 13311 net.cpp:425] inception_4e/output <- inception_4e/pool_proj
I0403 21:55:42.542472 13311 net.cpp:399] inception_4e/output -> inception_4e/output
I0403 21:55:42.542533 13311 net.cpp:141] Setting up inception_4e/output
I0403 21:55:42.542565 13311 net.cpp:148] Top shape: 24 832 14 14 (3913728)
I0403 21:55:42.542585 13311 net.cpp:156] Memory required for data: 1272557088
I0403 21:55:42.542604 13311 layer_factory.hpp:77] Creating layer pool4/3x3_s2
I0403 21:55:42.542626 13311 net.cpp:91] Creating Layer pool4/3x3_s2
I0403 21:55:42.542646 13311 net.cpp:425] pool4/3x3_s2 <- inception_4e/output
I0403 21:55:42.542672 13311 net.cpp:399] pool4/3x3_s2 -> pool4/3x3_s2
I0403 21:55:42.542755 13311 net.cpp:141] Setting up pool4/3x3_s2
I0403 21:55:42.542788 13311 net.cpp:148] Top shape: 24 832 7 7 (978432)
I0403 21:55:42.542807 13311 net.cpp:156] Memory required for data: 1276470816
I0403 21:55:42.542825 13311 layer_factory.hpp:77] Creating layer pool4/3x3_s2_pool4/3x3_s2_0_split
I0403 21:55:42.542848 13311 net.cpp:91] Creating Layer pool4/3x3_s2_pool4/3x3_s2_0_split
I0403 21:55:42.542868 13311 net.cpp:425] pool4/3x3_s2_pool4/3x3_s2_0_split <- pool4/3x3_s2
I0403 21:55:42.542891 13311 net.cpp:399] pool4/3x3_s2_pool4/3x3_s2_0_split -> pool4/3x3_s2_pool4/3x3_s2_0_split_0
I0403 21:55:42.542915 13311 net.cpp:399] pool4/3x3_s2_pool4/3x3_s2_0_split -> pool4/3x3_s2_pool4/3x3_s2_0_split_1
I0403 21:55:42.542944 13311 net.cpp:399] pool4/3x3_s2_pool4/3x3_s2_0_split -> pool4/3x3_s2_pool4/3x3_s2_0_split_2
I0403 21:55:42.542970 13311 net.cpp:399] pool4/3x3_s2_pool4/3x3_s2_0_split -> pool4/3x3_s2_pool4/3x3_s2_0_split_3
I0403 21:55:42.543086 13311 net.cpp:141] Setting up pool4/3x3_s2_pool4/3x3_s2_0_split
I0403 21:55:42.543114 13311 net.cpp:148] Top shape: 24 832 7 7 (978432)
I0403 21:55:42.543135 13311 net.cpp:148] Top shape: 24 832 7 7 (978432)
I0403 21:55:42.543156 13311 net.cpp:148] Top shape: 24 832 7 7 (978432)
I0403 21:55:42.543176 13311 net.cpp:148] Top shape: 24 832 7 7 (978432)
I0403 21:55:42.543193 13311 net.cpp:156] Memory required for data: 1292125728
I0403 21:55:42.543220 13311 layer_factory.hpp:77] Creating layer inception_5a/1x1
I0403 21:55:42.543254 13311 net.cpp:91] Creating Layer inception_5a/1x1
I0403 21:55:42.543279 13311 net.cpp:425] inception_5a/1x1 <- pool4/3x3_s2_pool4/3x3_s2_0_split_0
I0403 21:55:42.543308 13311 net.cpp:399] inception_5a/1x1 -> inception_5a/1x1
I0403 21:55:42.546849 13311 net.cpp:141] Setting up inception_5a/1x1
I0403 21:55:42.546885 13311 net.cpp:148] Top shape: 24 256 7 7 (301056)
I0403 21:55:42.546905 13311 net.cpp:156] Memory required for data: 1293329952
I0403 21:55:42.546927 13311 layer_factory.hpp:77] Creating layer inception_5a/relu_1x1
I0403 21:55:42.546953 13311 net.cpp:91] Creating Layer inception_5a/relu_1x1
I0403 21:55:42.546975 13311 net.cpp:425] inception_5a/relu_1x1 <- inception_5a/1x1
I0403 21:55:42.546999 13311 net.cpp:386] inception_5a/relu_1x1 -> inception_5a/1x1 (in-place)
I0403 21:55:42.547389 13311 net.cpp:141] Setting up inception_5a/relu_1x1
I0403 21:55:42.547423 13311 net.cpp:148] Top shape: 24 256 7 7 (301056)
I0403 21:55:42.547442 13311 net.cpp:156] Memory required for data: 1294534176
I0403 21:55:42.547461 13311 layer_factory.hpp:77] Creating layer inception_5a/3x3_reduce
I0403 21:55:42.547492 13311 net.cpp:91] Creating Layer inception_5a/3x3_reduce
I0403 21:55:42.547514 13311 net.cpp:425] inception_5a/3x3_reduce <- pool4/3x3_s2_pool4/3x3_s2_0_split_1
I0403 21:55:42.547539 13311 net.cpp:399] inception_5a/3x3_reduce -> inception_5a/3x3_reduce
I0403 21:55:42.550606 13311 net.cpp:141] Setting up inception_5a/3x3_reduce
I0403 21:55:42.550643 13311 net.cpp:148] Top shape: 24 160 7 7 (188160)
I0403 21:55:42.550663 13311 net.cpp:156] Memory required for data: 1295286816
I0403 21:55:42.550686 13311 layer_factory.hpp:77] Creating layer inception_5a/relu_3x3_reduce
I0403 21:55:42.550712 13311 net.cpp:91] Creating Layer inception_5a/relu_3x3_reduce
I0403 21:55:42.550734 13311 net.cpp:425] inception_5a/relu_3x3_reduce <- inception_5a/3x3_reduce
I0403 21:55:42.550757 13311 net.cpp:386] inception_5a/relu_3x3_reduce -> inception_5a/3x3_reduce (in-place)
I0403 21:55:42.550988 13311 net.cpp:141] Setting up inception_5a/relu_3x3_reduce
I0403 21:55:42.551020 13311 net.cpp:148] Top shape: 24 160 7 7 (188160)
I0403 21:55:42.551040 13311 net.cpp:156] Memory required for data: 1296039456
I0403 21:55:42.551060 13311 layer_factory.hpp:77] Creating layer inception_5a/3x3
I0403 21:55:42.551089 13311 net.cpp:91] Creating Layer inception_5a/3x3
I0403 21:55:42.551111 13311 net.cpp:425] inception_5a/3x3 <- inception_5a/3x3_reduce
I0403 21:55:42.551138 13311 net.cpp:399] inception_5a/3x3 -> inception_5a/3x3
I0403 21:55:42.557467 13311 net.cpp:141] Setting up inception_5a/3x3
I0403 21:55:42.557504 13311 net.cpp:148] Top shape: 24 320 7 7 (376320)
I0403 21:55:42.557524 13311 net.cpp:156] Memory required for data: 1297544736
I0403 21:55:42.557548 13311 layer_factory.hpp:77] Creating layer inception_5a/relu_3x3
I0403 21:55:42.557574 13311 net.cpp:91] Creating Layer inception_5a/relu_3x3
I0403 21:55:42.557595 13311 net.cpp:425] inception_5a/relu_3x3 <- inception_5a/3x3
I0403 21:55:42.557617 13311 net.cpp:386] inception_5a/relu_3x3 -> inception_5a/3x3 (in-place)
I0403 21:55:42.557971 13311 net.cpp:141] Setting up inception_5a/relu_3x3
I0403 21:55:42.558003 13311 net.cpp:148] Top shape: 24 320 7 7 (376320)
I0403 21:55:42.558022 13311 net.cpp:156] Memory required for data: 1299050016
I0403 21:55:42.558042 13311 layer_factory.hpp:77] Creating layer inception_5a/5x5_reduce
I0403 21:55:42.558069 13311 net.cpp:91] Creating Layer inception_5a/5x5_reduce
I0403 21:55:42.558092 13311 net.cpp:425] inception_5a/5x5_reduce <- pool4/3x3_s2_pool4/3x3_s2_0_split_2
I0403 21:55:42.558118 13311 net.cpp:399] inception_5a/5x5_reduce -> inception_5a/5x5_reduce
I0403 21:55:42.559581 13311 net.cpp:141] Setting up inception_5a/5x5_reduce
I0403 21:55:42.559617 13311 net.cpp:148] Top shape: 24 32 7 7 (37632)
I0403 21:55:42.559635 13311 net.cpp:156] Memory required for data: 1299200544
I0403 21:55:42.559659 13311 layer_factory.hpp:77] Creating layer inception_5a/relu_5x5_reduce
I0403 21:55:42.559684 13311 net.cpp:91] Creating Layer inception_5a/relu_5x5_reduce
I0403 21:55:42.559705 13311 net.cpp:425] inception_5a/relu_5x5_reduce <- inception_5a/5x5_reduce
I0403 21:55:42.559727 13311 net.cpp:386] inception_5a/relu_5x5_reduce -> inception_5a/5x5_reduce (in-place)
I0403 21:55:42.560092 13311 net.cpp:141] Setting up inception_5a/relu_5x5_reduce
I0403 21:55:42.560127 13311 net.cpp:148] Top shape: 24 32 7 7 (37632)
I0403 21:55:42.560148 13311 net.cpp:156] Memory required for data: 1299351072
I0403 21:55:42.560165 13311 layer_factory.hpp:77] Creating layer inception_5a/5x5
I0403 21:55:42.560192 13311 net.cpp:91] Creating Layer inception_5a/5x5
I0403 21:55:42.560221 13311 net.cpp:425] inception_5a/5x5 <- inception_5a/5x5_reduce
I0403 21:55:42.560247 13311 net.cpp:399] inception_5a/5x5 -> inception_5a/5x5
I0403 21:55:42.562384 13311 net.cpp:141] Setting up inception_5a/5x5
I0403 21:55:42.562433 13311 net.cpp:148] Top shape: 24 128 7 7 (150528)
I0403 21:55:42.562453 13311 net.cpp:156] Memory required for data: 1299953184
I0403 21:55:42.562477 13311 layer_factory.hpp:77] Creating layer inception_5a/relu_5x5
I0403 21:55:42.562506 13311 net.cpp:91] Creating Layer inception_5a/relu_5x5
I0403 21:55:42.562530 13311 net.cpp:425] inception_5a/relu_5x5 <- inception_5a/5x5
I0403 21:55:42.562551 13311 net.cpp:386] inception_5a/relu_5x5 -> inception_5a/5x5 (in-place)
I0403 21:55:42.562788 13311 net.cpp:141] Setting up inception_5a/relu_5x5
I0403 21:55:42.562820 13311 net.cpp:148] Top shape: 24 128 7 7 (150528)
I0403 21:55:42.562839 13311 net.cpp:156] Memory required for data: 1300555296
I0403 21:55:42.562858 13311 layer_factory.hpp:77] Creating layer inception_5a/pool
I0403 21:55:42.562881 13311 net.cpp:91] Creating Layer inception_5a/pool
I0403 21:55:42.562901 13311 net.cpp:425] inception_5a/pool <- pool4/3x3_s2_pool4/3x3_s2_0_split_3
I0403 21:55:42.562927 13311 net.cpp:399] inception_5a/pool -> inception_5a/pool
I0403 21:55:42.563014 13311 net.cpp:141] Setting up inception_5a/pool
I0403 21:55:42.563043 13311 net.cpp:148] Top shape: 24 832 7 7 (978432)
I0403 21:55:42.563061 13311 net.cpp:156] Memory required for data: 1304469024
I0403 21:55:42.563081 13311 layer_factory.hpp:77] Creating layer inception_5a/pool_proj
I0403 21:55:42.563107 13311 net.cpp:91] Creating Layer inception_5a/pool_proj
I0403 21:55:42.563128 13311 net.cpp:425] inception_5a/pool_proj <- inception_5a/pool
I0403 21:55:42.563153 13311 net.cpp:399] inception_5a/pool_proj -> inception_5a/pool_proj
I0403 21:55:42.565958 13311 net.cpp:141] Setting up inception_5a/pool_proj
I0403 21:55:42.565995 13311 net.cpp:148] Top shape: 24 128 7 7 (150528)
I0403 21:55:42.566015 13311 net.cpp:156] Memory required for data: 1305071136
I0403 21:55:42.566037 13311 layer_factory.hpp:77] Creating layer inception_5a/relu_pool_proj
I0403 21:55:42.566063 13311 net.cpp:91] Creating Layer inception_5a/relu_pool_proj
I0403 21:55:42.566084 13311 net.cpp:425] inception_5a/relu_pool_proj <- inception_5a/pool_proj
I0403 21:55:42.566107 13311 net.cpp:386] inception_5a/relu_pool_proj -> inception_5a/pool_proj (in-place)
I0403 21:55:42.566476 13311 net.cpp:141] Setting up inception_5a/relu_pool_proj
I0403 21:55:42.566509 13311 net.cpp:148] Top shape: 24 128 7 7 (150528)
I0403 21:55:42.566527 13311 net.cpp:156] Memory required for data: 1305673248
I0403 21:55:42.566545 13311 layer_factory.hpp:77] Creating layer inception_5a/output
I0403 21:55:42.566568 13311 net.cpp:91] Creating Layer inception_5a/output
I0403 21:55:42.566587 13311 net.cpp:425] inception_5a/output <- inception_5a/1x1
I0403 21:55:42.566608 13311 net.cpp:425] inception_5a/output <- inception_5a/3x3
I0403 21:55:42.566628 13311 net.cpp:425] inception_5a/output <- inception_5a/5x5
I0403 21:55:42.566648 13311 net.cpp:425] inception_5a/output <- inception_5a/pool_proj
I0403 21:55:42.566673 13311 net.cpp:399] inception_5a/output -> inception_5a/output
I0403 21:55:42.566738 13311 net.cpp:141] Setting up inception_5a/output
I0403 21:55:42.566767 13311 net.cpp:148] Top shape: 24 832 7 7 (978432)
I0403 21:55:42.566786 13311 net.cpp:156] Memory required for data: 1309586976
I0403 21:55:42.566804 13311 layer_factory.hpp:77] Creating layer inception_5a/output_inception_5a/output_0_split
I0403 21:55:42.566826 13311 net.cpp:91] Creating Layer inception_5a/output_inception_5a/output_0_split
I0403 21:55:42.566845 13311 net.cpp:425] inception_5a/output_inception_5a/output_0_split <- inception_5a/output
I0403 21:55:42.566870 13311 net.cpp:399] inception_5a/output_inception_5a/output_0_split -> inception_5a/output_inception_5a/output_0_split_0
I0403 21:55:42.566896 13311 net.cpp:399] inception_5a/output_inception_5a/output_0_split -> inception_5a/output_inception_5a/output_0_split_1
I0403 21:55:42.566922 13311 net.cpp:399] inception_5a/output_inception_5a/output_0_split -> inception_5a/output_inception_5a/output_0_split_2
I0403 21:55:42.566947 13311 net.cpp:399] inception_5a/output_inception_5a/output_0_split -> inception_5a/output_inception_5a/output_0_split_3
I0403 21:55:42.567088 13311 net.cpp:141] Setting up inception_5a/output_inception_5a/output_0_split
I0403 21:55:42.567121 13311 net.cpp:148] Top shape: 24 832 7 7 (978432)
I0403 21:55:42.567142 13311 net.cpp:148] Top shape: 24 832 7 7 (978432)
I0403 21:55:42.567162 13311 net.cpp:148] Top shape: 24 832 7 7 (978432)
I0403 21:55:42.567181 13311 net.cpp:148] Top shape: 24 832 7 7 (978432)
I0403 21:55:42.567198 13311 net.cpp:156] Memory required for data: 1325241888
I0403 21:55:42.567224 13311 layer_factory.hpp:77] Creating layer inception_5b/1x1
I0403 21:55:42.567253 13311 net.cpp:91] Creating Layer inception_5b/1x1
I0403 21:55:42.567276 13311 net.cpp:425] inception_5b/1x1 <- inception_5a/output_inception_5a/output_0_split_0
I0403 21:55:42.567299 13311 net.cpp:399] inception_5b/1x1 -> inception_5b/1x1
I0403 21:55:42.571907 13311 net.cpp:141] Setting up inception_5b/1x1
I0403 21:55:42.571949 13311 net.cpp:148] Top shape: 24 384 7 7 (451584)
I0403 21:55:42.571970 13311 net.cpp:156] Memory required for data: 1327048224
I0403 21:55:42.571993 13311 layer_factory.hpp:77] Creating layer inception_5b/relu_1x1
I0403 21:55:42.572021 13311 net.cpp:91] Creating Layer inception_5b/relu_1x1
I0403 21:55:42.572041 13311 net.cpp:425] inception_5b/relu_1x1 <- inception_5b/1x1
I0403 21:55:42.572063 13311 net.cpp:386] inception_5b/relu_1x1 -> inception_5b/1x1 (in-place)
I0403 21:55:42.572448 13311 net.cpp:141] Setting up inception_5b/relu_1x1
I0403 21:55:42.572480 13311 net.cpp:148] Top shape: 24 384 7 7 (451584)
I0403 21:55:42.572499 13311 net.cpp:156] Memory required for data: 1328854560
I0403 21:55:42.572520 13311 layer_factory.hpp:77] Creating layer inception_5b/3x3_reduce
I0403 21:55:42.572547 13311 net.cpp:91] Creating Layer inception_5b/3x3_reduce
I0403 21:55:42.572571 13311 net.cpp:425] inception_5b/3x3_reduce <- inception_5a/output_inception_5a/output_0_split_1
I0403 21:55:42.572599 13311 net.cpp:399] inception_5b/3x3_reduce -> inception_5b/3x3_reduce
I0403 21:55:42.575906 13311 net.cpp:141] Setting up inception_5b/3x3_reduce
I0403 21:55:42.575943 13311 net.cpp:148] Top shape: 24 192 7 7 (225792)
I0403 21:55:42.575963 13311 net.cpp:156] Memory required for data: 1329757728
I0403 21:55:42.575987 13311 layer_factory.hpp:77] Creating layer inception_5b/relu_3x3_reduce
I0403 21:55:42.576014 13311 net.cpp:91] Creating Layer inception_5b/relu_3x3_reduce
I0403 21:55:42.576035 13311 net.cpp:425] inception_5b/relu_3x3_reduce <- inception_5b/3x3_reduce
I0403 21:55:42.576057 13311 net.cpp:386] inception_5b/relu_3x3_reduce -> inception_5b/3x3_reduce (in-place)
I0403 21:55:42.576299 13311 net.cpp:141] Setting up inception_5b/relu_3x3_reduce
I0403 21:55:42.576331 13311 net.cpp:148] Top shape: 24 192 7 7 (225792)
I0403 21:55:42.576354 13311 net.cpp:156] Memory required for data: 1330660896
I0403 21:55:42.576373 13311 layer_factory.hpp:77] Creating layer inception_5b/3x3
I0403 21:55:42.576397 13311 net.cpp:91] Creating Layer inception_5b/3x3
I0403 21:55:42.576418 13311 net.cpp:425] inception_5b/3x3 <- inception_5b/3x3_reduce
I0403 21:55:42.576444 13311 net.cpp:399] inception_5b/3x3 -> inception_5b/3x3
I0403 21:55:42.584900 13311 net.cpp:141] Setting up inception_5b/3x3
I0403 21:55:42.584936 13311 net.cpp:148] Top shape: 24 384 7 7 (451584)
I0403 21:55:42.584957 13311 net.cpp:156] Memory required for data: 1332467232
I0403 21:55:42.584980 13311 layer_factory.hpp:77] Creating layer inception_5b/relu_3x3
I0403 21:55:42.585007 13311 net.cpp:91] Creating Layer inception_5b/relu_3x3
I0403 21:55:42.585028 13311 net.cpp:425] inception_5b/relu_3x3 <- inception_5b/3x3
I0403 21:55:42.585052 13311 net.cpp:386] inception_5b/relu_3x3 -> inception_5b/3x3 (in-place)
I0403 21:55:42.585420 13311 net.cpp:141] Setting up inception_5b/relu_3x3
I0403 21:55:42.585453 13311 net.cpp:148] Top shape: 24 384 7 7 (451584)
I0403 21:55:42.585472 13311 net.cpp:156] Memory required for data: 1334273568
I0403 21:55:42.585490 13311 layer_factory.hpp:77] Creating layer inception_5b/5x5_reduce
I0403 21:55:42.585541 13311 net.cpp:91] Creating Layer inception_5b/5x5_reduce
I0403 21:55:42.585564 13311 net.cpp:425] inception_5b/5x5_reduce <- inception_5a/output_inception_5a/output_0_split_2
I0403 21:55:42.585593 13311 net.cpp:399] inception_5b/5x5_reduce -> inception_5b/5x5_reduce
I0403 21:55:42.587180 13311 net.cpp:141] Setting up inception_5b/5x5_reduce
I0403 21:55:42.587219 13311 net.cpp:148] Top shape: 24 48 7 7 (56448)
I0403 21:55:42.587241 13311 net.cpp:156] Memory required for data: 1334499360
I0403 21:55:42.587265 13311 layer_factory.hpp:77] Creating layer inception_5b/relu_5x5_reduce
I0403 21:55:42.587291 13311 net.cpp:91] Creating Layer inception_5b/relu_5x5_reduce
I0403 21:55:42.587313 13311 net.cpp:425] inception_5b/relu_5x5_reduce <- inception_5b/5x5_reduce
I0403 21:55:42.587337 13311 net.cpp:386] inception_5b/relu_5x5_reduce -> inception_5b/5x5_reduce (in-place)
I0403 21:55:42.587800 13311 net.cpp:141] Setting up inception_5b/relu_5x5_reduce
I0403 21:55:42.587832 13311 net.cpp:148] Top shape: 24 48 7 7 (56448)
I0403 21:55:42.587852 13311 net.cpp:156] Memory required for data: 1334725152
I0403 21:55:42.587872 13311 layer_factory.hpp:77] Creating layer inception_5b/5x5
I0403 21:55:42.587896 13311 net.cpp:91] Creating Layer inception_5b/5x5
I0403 21:55:42.587919 13311 net.cpp:425] inception_5b/5x5 <- inception_5b/5x5_reduce
I0403 21:55:42.587944 13311 net.cpp:399] inception_5b/5x5 -> inception_5b/5x5
I0403 21:55:42.590487 13311 net.cpp:141] Setting up inception_5b/5x5
I0403 21:55:42.590522 13311 net.cpp:148] Top shape: 24 128 7 7 (150528)
I0403 21:55:42.590541 13311 net.cpp:156] Memory required for data: 1335327264
I0403 21:55:42.590564 13311 layer_factory.hpp:77] Creating layer inception_5b/relu_5x5
I0403 21:55:42.590595 13311 net.cpp:91] Creating Layer inception_5b/relu_5x5
I0403 21:55:42.590616 13311 net.cpp:425] inception_5b/relu_5x5 <- inception_5b/5x5
I0403 21:55:42.590639 13311 net.cpp:386] inception_5b/relu_5x5 -> inception_5b/5x5 (in-place)
I0403 21:55:42.590880 13311 net.cpp:141] Setting up inception_5b/relu_5x5
I0403 21:55:42.590914 13311 net.cpp:148] Top shape: 24 128 7 7 (150528)
I0403 21:55:42.590932 13311 net.cpp:156] Memory required for data: 1335929376
I0403 21:55:42.590951 13311 layer_factory.hpp:77] Creating layer inception_5b/pool
I0403 21:55:42.590975 13311 net.cpp:91] Creating Layer inception_5b/pool
I0403 21:55:42.590996 13311 net.cpp:425] inception_5b/pool <- inception_5a/output_inception_5a/output_0_split_3
I0403 21:55:42.591022 13311 net.cpp:399] inception_5b/pool -> inception_5b/pool
I0403 21:55:42.591114 13311 net.cpp:141] Setting up inception_5b/pool
I0403 21:55:42.591142 13311 net.cpp:148] Top shape: 24 832 7 7 (978432)
I0403 21:55:42.591161 13311 net.cpp:156] Memory required for data: 1339843104
I0403 21:55:42.591181 13311 layer_factory.hpp:77] Creating layer inception_5b/pool_proj
I0403 21:55:42.591217 13311 net.cpp:91] Creating Layer inception_5b/pool_proj
I0403 21:55:42.591241 13311 net.cpp:425] inception_5b/pool_proj <- inception_5b/pool
I0403 21:55:42.591265 13311 net.cpp:399] inception_5b/pool_proj -> inception_5b/pool_proj
I0403 21:55:42.594142 13311 net.cpp:141] Setting up inception_5b/pool_proj
I0403 21:55:42.594178 13311 net.cpp:148] Top shape: 24 128 7 7 (150528)
I0403 21:55:42.594198 13311 net.cpp:156] Memory required for data: 1340445216
I0403 21:55:42.594229 13311 layer_factory.hpp:77] Creating layer inception_5b/relu_pool_proj
I0403 21:55:42.594257 13311 net.cpp:91] Creating Layer inception_5b/relu_pool_proj
I0403 21:55:42.594280 13311 net.cpp:425] inception_5b/relu_pool_proj <- inception_5b/pool_proj
I0403 21:55:42.594301 13311 net.cpp:386] inception_5b/relu_pool_proj -> inception_5b/pool_proj (in-place)
I0403 21:55:42.594673 13311 net.cpp:141] Setting up inception_5b/relu_pool_proj
I0403 21:55:42.594707 13311 net.cpp:148] Top shape: 24 128 7 7 (150528)
I0403 21:55:42.594727 13311 net.cpp:156] Memory required for data: 1341047328
I0403 21:55:42.594746 13311 layer_factory.hpp:77] Creating layer inception_5b/output
I0403 21:55:42.594772 13311 net.cpp:91] Creating Layer inception_5b/output
I0403 21:55:42.594811 13311 net.cpp:425] inception_5b/output <- inception_5b/1x1
I0403 21:55:42.594833 13311 net.cpp:425] inception_5b/output <- inception_5b/3x3
I0403 21:55:42.594854 13311 net.cpp:425] inception_5b/output <- inception_5b/5x5
I0403 21:55:42.594876 13311 net.cpp:425] inception_5b/output <- inception_5b/pool_proj
I0403 21:55:42.594897 13311 net.cpp:399] inception_5b/output -> inception_5b/output
I0403 21:55:42.594964 13311 net.cpp:141] Setting up inception_5b/output
I0403 21:55:42.594993 13311 net.cpp:148] Top shape: 24 1024 7 7 (1204224)
I0403 21:55:42.595011 13311 net.cpp:156] Memory required for data: 1345864224
I0403 21:55:42.595031 13311 layer_factory.hpp:77] Creating layer pool5/7x7_s1
I0403 21:55:42.595054 13311 net.cpp:91] Creating Layer pool5/7x7_s1
I0403 21:55:42.595073 13311 net.cpp:425] pool5/7x7_s1 <- inception_5b/output
I0403 21:55:42.595099 13311 net.cpp:399] pool5/7x7_s1 -> pool5/7x7_s1
I0403 21:55:42.595379 13311 net.cpp:141] Setting up pool5/7x7_s1
I0403 21:55:42.595412 13311 net.cpp:148] Top shape: 24 1024 1 1 (24576)
I0403 21:55:42.595432 13311 net.cpp:156] Memory required for data: 1345962528
I0403 21:55:42.595450 13311 layer_factory.hpp:77] Creating layer pool5/drop_7x7_s1
I0403 21:55:42.595476 13311 net.cpp:91] Creating Layer pool5/drop_7x7_s1
I0403 21:55:42.595497 13311 net.cpp:425] pool5/drop_7x7_s1 <- pool5/7x7_s1
I0403 21:55:42.595521 13311 net.cpp:386] pool5/drop_7x7_s1 -> pool5/7x7_s1 (in-place)
I0403 21:55:42.595587 13311 net.cpp:141] Setting up pool5/drop_7x7_s1
I0403 21:55:42.595615 13311 net.cpp:148] Top shape: 24 1024 1 1 (24576)
I0403 21:55:42.595634 13311 net.cpp:156] Memory required for data: 1346060832
I0403 21:55:42.595654 13311 layer_factory.hpp:77] Creating layer loss3/classifier_plantvillage
I0403 21:55:42.595681 13311 net.cpp:91] Creating Layer loss3/classifier_plantvillage
I0403 21:55:42.595703 13311 net.cpp:425] loss3/classifier_plantvillage <- pool5/7x7_s1
I0403 21:55:42.595727 13311 net.cpp:399] loss3/classifier_plantvillage -> loss3/classifier_plantvillage
I0403 21:55:42.596263 13311 net.cpp:141] Setting up loss3/classifier_plantvillage
I0403 21:55:42.596293 13311 net.cpp:148] Top shape: 24 38 (912)
I0403 21:55:42.596312 13311 net.cpp:156] Memory required for data: 1346064480
I0403 21:55:42.596336 13311 layer_factory.hpp:77] Creating layer loss3/classifier_plantvillage_loss3/classifier_plantvillage_0_split
I0403 21:55:42.596359 13311 net.cpp:91] Creating Layer loss3/classifier_plantvillage_loss3/classifier_plantvillage_0_split
I0403 21:55:42.596379 13311 net.cpp:425] loss3/classifier_plantvillage_loss3/classifier_plantvillage_0_split <- loss3/classifier_plantvillage
I0403 21:55:42.596406 13311 net.cpp:399] loss3/classifier_plantvillage_loss3/classifier_plantvillage_0_split -> loss3/classifier_plantvillage_loss3/classifier_plantvillage_0_split_0
I0403 21:55:42.596436 13311 net.cpp:399] loss3/classifier_plantvillage_loss3/classifier_plantvillage_0_split -> loss3/classifier_plantvillage_loss3/classifier_plantvillage_0_split_1
I0403 21:55:42.596462 13311 net.cpp:399] loss3/classifier_plantvillage_loss3/classifier_plantvillage_0_split -> loss3/classifier_plantvillage_loss3/classifier_plantvillage_0_split_2
I0403 21:55:42.596487 13311 net.cpp:399] loss3/classifier_plantvillage_loss3/classifier_plantvillage_0_split -> loss3/classifier_plantvillage_loss3/classifier_plantvillage_0_split_3
I0403 21:55:42.596617 13311 net.cpp:141] Setting up loss3/classifier_plantvillage_loss3/classifier_plantvillage_0_split
I0403 21:55:42.596649 13311 net.cpp:148] Top shape: 24 38 (912)
I0403 21:55:42.596671 13311 net.cpp:148] Top shape: 24 38 (912)
I0403 21:55:42.596690 13311 net.cpp:148] Top shape: 24 38 (912)
I0403 21:55:42.596710 13311 net.cpp:148] Top shape: 24 38 (912)
I0403 21:55:42.596729 13311 net.cpp:156] Memory required for data: 1346079072
I0403 21:55:42.596747 13311 layer_factory.hpp:77] Creating layer loss1/loss
I0403 21:55:42.596776 13311 net.cpp:91] Creating Layer loss1/loss
I0403 21:55:42.596797 13311 net.cpp:425] loss1/loss <- loss1/classifier_plantvillage_loss1/classifier_plantvillage_0_split_0
I0403 21:55:42.596835 13311 net.cpp:425] loss1/loss <- label_data_1_split_0
…
