…
I0403 21:36:30.424203 12197 net.cpp:313] The NetState phase (1) differed from the phase (0) specified by a rule in layer data
I0403 21:36:30.425343 12197 net.cpp:49] Initializing net from parameters: 
state {
  phase: TEST
}
layer {
  name: "data"
  type: "Data"
  top: "data"
  top: "label"
  include {
    phase: TEST
  }
  transform_param {
    mirror: false
    crop_size: 224
    mean_file: "/home/mohanty/data/final_dataset/lmdb/color-80-20/mean.binaryproto"
  }
  data_param {
    source: "/home/mohanty/data/final_dataset/lmdb/color-80-20/test_db"
    batch_size: 24
    backend: LMDB
  }
}
layer {
  name: "conv1/7x7_s2"
  type: "Convolution"
  bottom: "data"
  top: "conv1/7x7_s2"
  param {
    lr_mult: 1
    decay_mult: 1
  }
  param {
    lr_mult: 2
    decay_mult: 0
  }
  convolution_param {
    num_output: 64
    pad: 3
    kernel_size: 7
    stride: 2
    weight_filler {
      type: "xavier"
      std: 0.1
    }
    bias_filler {
      type: "constant"
      value: 0.2
    }
  }
}
layer {
  name: "conv1/relu_7x7"
  type: "ReLU"
  bottom: "conv1/7x7_s2"
  top: "conv1/7x7_s2"
}
layer {
  name: "pool1/3x3_s2"
  type: "Pooling"
  bottom: "conv1/7x7_s2"
  top: "pool1/3x3_s2"
  pooling_param {
    pool: MAX
    kernel_size: 3
    stride: 2
  }
}
layer {
  name: "pool1/norm1"
  type: "LRN"
  bottom: "pool1/3x3_s2"
  top: "pool1/norm1"
  lrn_param {
    local_size: 5
    alpha: 0.0001
    beta: 0.75
  }
}
layer {
  name: "conv2/3x3_reduce"
  type: "Convolution"
  bottom: "pool1/norm1"
  top: "conv2/3x3_reduce"
  param {
    lr_mult: 1
    decay_mult: 1
  }
  param {
    lr_mult: 2
    decay_mult: 0
  }
  convolution_param {
    num_output: 64
    kernel_size: 1
    weight_filler {
      type: "xavier"
      std: 0.1
    }
    bias_filler {
      type: "constant"
      value: 0.2
    }
  }
}
layer {
  name: "conv2/relu_3x3_reduce"
  type: "ReLU"
  bottom: "conv2/3x3_reduce"
  top: "conv2/3x3_reduce"
}
layer {
  name: "conv2/3x3"
  type: "Convolution"
  bottom: "conv2/3x3_reduce"
  top: "conv2/3x3"
  param {
    lr_mult: 1
    decay_mult: 1
  }
  param {
    lr_mult: 2
    decay_mult: 0
  }
  convolution_param {
    num_output: 192
    pad: 1
    kernel_size: 3
    weight_filler {
      type: "xavier"
      std: 0.03
    }
    bias_filler {
      type: "constant"
      value: 0.2
    }
  }
}
layer {
  name: "conv2/relu_3x3"
  type: "ReLU"
  bottom: "conv2/3x3"
  top: "conv2/3x3"
}
layer {
  name: "conv2/norm2"
  type: "LRN"
  bottom: "conv2/3x3"
  top: "conv2/norm2"
  lrn_param {
    local_size: 5
    alpha: 0.0001
    beta: 0.75
  }
}
layer {
  name: "pool2/3x3_s2"
  type: "Pooling"
  bottom: "conv2/norm2"
  top: "pool2/3x3_s2"
  pooling_param {
    pool: MAX
    kernel_size: 3
    stride: 2
  }
}
layer {
  name: "inception_3a/1x1"
  type: "Convolution"
  bottom: "pool2/3x3_s2"
  top: "inception_3a/1x1"
  param {
    lr_mult: 1
    decay_mult: 1
  }
  param {
    lr_mult: 2
    decay_mult: 0
  }
  convolution_param {
    num_output: 64
    kernel_size: 1
    weight_filler {
      type: "xavier"
      std: 0.03
    }
    bias_filler {
      type: "constant"
      value: 0.2
    }
  }
}
layer {
  name: "inception_3a/relu_1x1"
  type: "ReLU"
  bottom: "inception_3a/1x1"
  top: "inception_3a/1x1"
}
layer {
  name: "inception_3a/3x3_reduce"
  type: "Convolution"
  bottom: "pool2/3x3_s2"
  top: "inception_3a/3x3_reduce"
  param {
    lr_mult: 1
    decay_mult: 1
  }
  param {
    lr_mult: 2
    decay_mult: 0
  }
  convolution_param {
    num_output: 96
    kernel_size: 1
    weight_filler {
      type: "xavier"
      std: 0.09
    }
    bias_filler {
      type: "constant"
      value: 0.2
    }
  }
}
layer {
  name: "inception_3a/relu_3x3_reduce"
  type: "ReLU"
  bottom: "inception_3a/3x3_reduce"
  top: "inception_3a/3x3_reduce"
}
layer {
  name: "inception_3a/3x3"
  type: "Convolution"
  bottom: "inception_3a/3x3_reduce"
  top: "inception_3a/3x3"
  param {
    lr_mult: 1
    decay_mult: 1
  }
  param {
    lr_mult: 2
    decay_mult: 0
  }
  convolution_param {
    num_output: 128
    pad: 1
    kernel_size: 3
    weight_filler {
      type: "xavier"
      std: 0.03
    }
    bias_filler {
      type: "constant"
      value: 0.2
    }
  }
}
layer {
  name: "inception_3a/relu_3x3"
  type: "ReLU"
  bottom: "inception_3a/3x3"
  top: "inception_3a/3x3"
}
layer {
  name: "inception_3a/5x5_reduce"
  type: "Convolution"
  bottom: "pool2/3x3_s2"
  top: "inception_3a/5x5_reduce"
  param {
    lr_mult: 1
    decay_mult: 1
  }
  param {
    lr_mult: 2
    decay_mult: 0
  }
  convolution_param {
    num_output: 16
    kernel_size: 1
    weight_filler {
      type: "xavier"
      std: 0.2
    }
    bias_filler {
      type: "constant"
      value: 0.2
    }
  }
}
layer {
  name: "inception_3a/relu_5x5_reduce"
  type: "ReLU"
  bottom: "inception_3a/5x5_reduce"
  top: "inception_3a/5x5_reduce"
}
layer {
  name: "inception_3a/5x5"
  type: "Convolution"
  bottom: "inception_3a/5x5_reduce"
  top: "inception_3a/5x5"
  param {
    lr_mult: 1
    decay_mult: 1
  }
  param {
    lr_mult: 2
    decay_mult: 0
  }
  convolution_param {
    num_output: 32
    pad: 2
    kernel_size: 5
    weight_filler {
      type: "xavier"
      std: 0.03
    }
    bias_filler {
      type: "constant"
      value: 0.2
    }
  }
}
layer {
  name: "inception_3a/relu_5x5"
  type: "ReLU"
  bottom: "inception_3a/5x5"
  top: "inception_3a/5x5"
}
layer {
  name: "inception_3a/pool"
  type: "Pooling"
  bottom: "pool2/3x3_s2"
  top: "inception_3a/pool"
  pooling_param {
    pool: MAX
    kernel_size: 3
    stride: 1
    pad: 1
  }
}
layer {
  name: "inception_3a/pool_proj"
  type: "Convolution"
  bottom: "inception_3a/pool"
  top: "inception_3a/pool_proj"
  param {
    lr_mult: 1
    decay_mult: 1
  }
  param {
    lr_mult: 2
    decay_mult: 0
  }
  convolution_param {
    num_output: 32
    kernel_size: 1
    weight_filler {
      type: "xavier"
      std: 0.1
    }
    bias_filler {
      type: "constant"
      value: 0.2
    }
  }
}
layer {
  name: "inception_3a/relu_pool_proj"
  type: "ReLU"
  bottom: "inception_3a/pool_proj"
  top: "inception_3a/pool_proj"
}
layer {
  name: "inception_3a/output"
  type: "Concat"
  bottom: "inception_3a/1x1"
  bottom: "inception_3a/3x3"
  bottom: "inception_3a/5x5"
  bottom: "inception_3a/pool_proj"
  top: "inception_3a/output"
}
layer {
  name: "inception_3b/1x1"
  type: "Convolution"
  bottom: "inception_3a/output"
  top: "inception_3b/1x1"
  param {
    lr_mult: 1
    decay_mult: 1
  }
  param {
    lr_mult: 2
    decay_mult: 0
  }
  convolution_param {
    num_output: 128
    kernel_size: 1
    weight_filler {
      type: "xavier"
      std: 0.03
    }
    bias_filler {
      type: "constant"
      value: 0.2
    }
  }
}
layer {
  name: "inception_3b/relu_1x1"
  type: "ReLU"
  bottom: "inception_3b/1x1"
  top: "inception_3b/1x1"
}
layer {
  name: "inception_3b/3x3_reduce"
  type: "Convolution"
  bottom: "inception_3a/output"
  top: "inception_3b/3x3_reduce"
  param {
    lr_mult: 1
    decay_mult: 1
  }
  param {
    lr_mult: 2
    decay_mult: 0
  }
  convolution_param {
    num_output: 128
    kernel_size: 1
    weight_filler {
      type: "xavier"
      std: 0.09
    }
    bias_filler {
      type: "constant"
      value: 0.2
    }
  }
}
layer {
  name: "inception_3b/relu_3x3_reduce"
  type: "ReLU"
  bottom: "inception_3b/3x3_reduce"
  top: "inception_3b/3x3_reduce"
}
layer {
  name: "inception_3b/3x3"
  type: "Convolution"
  bottom: "inception_3b/3x3_reduce"
  top: "inception_3b/3x3"
  param {
    lr_mult: 1
    decay_mult: 1
  }
  param {
    lr_mult: 2
    decay_mult: 0
  }
  convolution_param {
    num_output: 192
    pad: 1
    kernel_size: 3
    weight_filler {
      type: "xavier"
      std: 0.03
    }
    bias_filler {
      type: "constant"
      value: 0.2
    }
  }
}
layer {
  name: "inception_3b/relu_3x3"
  type: "ReLU"
  bottom: "inception_3b/3x3"
  top: "inception_3b/3x3"
}
layer {
  name: "inception_3b/5x5_reduce"
  type: "Convolution"
  bottom: "inception_3a/output"
  top: "inception_3b/5x5_reduce"
  param {
    lr_mult: 1
    decay_mult: 1
  }
  param {
    lr_mult: 2
    decay_mult: 0
  }
  convolution_param {
    num_output: 32
    kernel_size: 1
    weight_filler {
      type: "xavier"
      std: 0.2
    }
    bias_filler {
      type: "constant"
      value: 0.2
    }
  }
}
layer {
  name: "inception_3b/relu_5x5_reduce"
  type: "ReLU"
  bottom: "inception_3b/5x5_reduce"
  top: "inception_3b/5x5_reduce"
}
layer {
  name: "inception_3b/5x5"
  type: "Convolution"
  bottom: "inception_3b/5x5_reduce"
  top: "inception_3b/5x5"
  param {
    lr_mult: 1
    decay_mult: 1
  }
  param {
    lr_mult: 2
    decay_mult: 0
  }
  convolution_param {
    num_output: 96
    pad: 2
    kernel_size: 5
    weight_filler {
      type: "xavier"
      std: 0.03
    }
    bias_filler {
      type: "constant"
      value: 0.2
    }
  }
}
layer {
  name: "inception_3b/relu_5x5"
  type: "ReLU"
  bottom: "inception_3b/5x5"
  top: "inception_3b/5x5"
}
layer {
  name: "inception_3b/pool"
  type: "Pooling"
  bottom: "inception_3a/output"
  top: "inception_3b/pool"
  pooling_param {
    pool: MAX
    kernel_size: 3
    stride: 1
    pad: 1
  }
}
layer {
  name: "inception_3b/pool_proj"
  type: "Convolution"
  bottom: "inception_3b/pool"
  top: "inception_3b/pool_proj"
  param {
    lr_mult: 1
    decay_mult: 1
  }
  param {
    lr_mult: 2
    decay_mult: 0
  }
  convolution_param {
    num_output: 64
    kernel_size: 1
    weight_filler {
      type: "xavier"
      std: 0.1
    }
    bias_filler {
      type: "constant"
      value: 0.2
    }
  }
}
layer {
  name: "inception_3b/relu_pool_proj"
  type: "ReLU"
  bottom: "inception_3b/pool_proj"
  top: "inception_3b/pool_proj"
}
layer {
  name: "inception_3b/output"
  type: "Concat"
  bottom: "inception_3b/1x1"
  bottom: "inception_3b/3x3"
  bottom: "inception_3b/5x5"
  bottom: "inception_3b/pool_proj"
  top: "inception_3b/output"
}
layer {
  name: "pool3/3x3_s2"
  type: "Pooling"
  bottom: "inception_3b/output"
  top: "pool3/3x3_s2"
  pooling_param {
    pool: MAX
    kernel_size: 3
    stride: 2
  }
}
layer {
  name: "inception_4a/1x1"
  type: "Convolution"
  bottom: "pool3/3x3_s2"
  top: "inception_4a/1x1"
  param {
    lr_mult: 1
    decay_mult: 1
  }
  param {
    lr_mult: 2
    decay_mult: 0
  }
  convolution_param {
    num_output: 192
    kernel_size: 1
    weight_filler {
      type: "xavier"
      std: 0.03
    }
    bias_filler {
      type: "constant"
      value: 0.2
    }
  }
}
layer {
  name: "inception_4a/relu_1x1"
  type: "ReLU"
  bottom: "inception_4a/1x1"
  top: "inception_4a/1x1"
}
layer {
  name: "inception_4a/3x3_reduce"
  type: "Convolution"
  bottom: "pool3/3x3_s2"
  top: "inception_4a/3x3_reduce"
  param {
    lr_mult: 1
    decay_mult: 1
  }
  param {
    lr_mult: 2
    decay_mult: 0
  }
  convolution_param {
    num_output: 96
    kernel_size: 1
    weight_filler {
      type: "xavier"
      std: 0.09
    }
    bias_filler {
      type: "constant"
      value: 0.2
    }
  }
}
layer {
  name: "inception_4a/relu_3x3_reduce"
  type: "ReLU"
  bottom: "inception_4a/3x3_reduce"
  top: "inception_4a/3x3_reduce"
}
layer {
  name: "inception_4a/3x3"
  type: "Convolution"
  bottom: "inception_4a/3x3_reduce"
  top: "inception_4a/3x3"
  param {
    lr_mult: 1
    decay_mult: 1
  }
  param {
    lr_mult: 2
    decay_mult: 0
  }
  convolution_param {
    num_output: 208
    pad: 1
    kernel_size: 3
    weight_filler {
      type: "xavier"
      std: 0.03
    }
    bias_filler {
      type: "constant"
      value: 0.2
    }
  }
}
layer {
  name: "inception_4a/relu_3x3"
  type: "ReLU"
  bottom: "inception_4a/3x3"
  top: "inception_4a/3x3"
}
layer {
  name: "inception_4a/5x5_reduce"
  type: "Convolution"
  bottom: "pool3/3x3_s2"
  top: "inception_4a/5x5_reduce"
  param {
    lr_mult: 1
    decay_mult: 1
  }
  param {
    lr_mult: 2
    decay_mult: 0
  }
  convolution_param {
    num_output: 16
    kernel_size: 1
    weight_filler {
      type: "xavier"
      std: 0.2
    }
    bias_filler {
      type: "constant"
      value: 0.2
    }
  }
}
layer {
  name: "inception_4a/relu_5x5_reduce"
  type: "ReLU"
  bottom: "inception_4a/5x5_reduce"
  top: "inception_4a/5x5_reduce"
}
layer {
  name: "inception_4a/5x5"
  type: "Convolution"
  bottom: "inception_4a/5x5_reduce"
  top: "inception_4a/5x5"
  param {
    lr_mult: 1
    decay_mult: 1
  }
  param {
    lr_mult: 2
    decay_mult: 0
  }
  convolution_param {
    num_output: 48
    pad: 2
    kernel_size: 5
    weight_filler {
      type: "xavier"
      std: 0.03
    }
    bias_filler {
      type: "constant"
      value: 0.2
    }
  }
}
layer {
  name: "inception_4a/relu_5x5"
  type: "ReLU"
  bottom: "inception_4a/5x5"
  top: "inception_4a/5x5"
}
layer {
  name: "inception_4a/pool"
  type: "Pooling"
  bottom: "pool3/3x3_s2"
  top: "inception_4a/pool"
  pooling_param {
    pool: MAX
    kernel_size: 3
    stride: 1
    pad: 1
  }
}
layer {
  name: "inception_4a/pool_proj"
  type: "Convolution"
  bottom: "inception_4a/pool"
  top: "inception_4a/pool_proj"
  param {
    lr_mult: 1
    decay_mult: 1
  }
  param {
    lr_mult: 2
    decay_mult: 0
  }
  convolution_param {
    num_output: 64
    kernel_size: 1
    weight_filler {
      type: "xavier"
      std: 0.1
    }
    bias_filler {
      type: "constant"
      value: 0.2
    }
  }
}
layer {
  name: "inception_4a/relu_pool_proj"
  type: "ReLU"
  bottom: "inception_4a/pool_proj"
  top: "inception_4a/pool_proj"
}
layer {
  name: "inception_4a/output"
  type: "Concat"
  bottom: "inception_4a/1x1"
  bottom: "inception_4a/3x3"
  bottom: "inception_4a/5x5"
  bottom: "inception_4a/pool_proj"
  top: "inception_4a/output"
}
layer {
  name: "loss1/ave_pool"
  type: "Pooling"
  bottom: "inception_4a/output"
  top: "loss1/ave_pool"
  pooling_param {
    pool: AVE
    kernel_size: 5
    stride: 3
  }
}
layer {
  name: "loss1/conv"
  type: "Convolution"
  bottom: "loss1/ave_pool"
  top: "loss1/conv"
  param {
    lr_mult: 1
    decay_mult: 1
  }
  param {
    lr_mult: 2
    decay_mult: 0
  }
  convolution_param {
    num_output: 128
    kernel_size: 1
    weight_filler {
      type: "xavier"
      std: 0.08
    }
    bias_filler {
      type: "constant"
      value: 0.2
    }
  }
}
layer {
  name: "loss1/relu_conv"
  type: "ReLU"
  bottom: "loss1/conv"
  top: "loss1/conv"
}
layer {
  name: "loss1/fc"
  type: "InnerProduct"
  bottom: "loss1/conv"
  top: "loss1/fc"
  param {
    lr_mult: 1
    decay_mult: 1
  }
  param {
    lr_mult: 2
    decay_mult: 0
  }
  inner_product_param {
    num_output: 1024
    weight_filler {
      type: "xavier"
      std: 0.02
    }
    bias_filler {
      type: "constant"
      value: 0.2
    }
  }
}
layer {
  name: "loss1/relu_fc"
  type: "ReLU"
  bottom: "loss1/fc"
  top: "loss1/fc"
}
layer {
  name: "loss1/drop_fc"
  type: "Dropout"
  bottom: "loss1/fc"
  top: "loss1/fc"
  dropout_param {
    dropout_ratio: 0.7
  }
}
layer {
  name: "loss1/classifier_plantvillage"
  type: "InnerProduct"
  bottom: "loss1/fc"
  top: "loss1/classifier_plantvillage"
  param {
    lr_mult: 1
    decay_mult: 1
  }
  param {
    lr_mult: 2
    decay_mult: 0
  }
  inner_product_param {
    num_output: 38
    weight_filler {
      type: "xavier"
      std: 0.0009765625
    }
    bias_filler {
      type: "constant"
      value: 0
    }
  }
}
layer {
  name: "inception_4b/1x1"
  type: "Convolution"
  bottom: "inception_4a/output"
  top: "inception_4b/1x1"
  param {
    lr_mult: 1
    decay_mult: 1
  }
  param {
    lr_mult: 2
    decay_mult: 0
  }
  convolution_param {
    num_output: 160
    kernel_size: 1
    weight_filler {
      type: "xavier"
      std: 0.03
    }
    bias_filler {
      type: "constant"
      value: 0.2
    }
  }
}
layer {
  name: "inception_4b/relu_1x1"
  type: "ReLU"
  bottom: "inception_4b/1x1"
  top: "inception_4b/1x1"
}
layer {
  name: "inception_4b/3x3_reduce"
  type: "Convolution"
  bottom: "inception_4a/output"
  top: "inception_4b/3x3_reduce"
  param {
    lr_mult: 1
    decay_mult: 1
  }
  param {
    lr_mult: 2
    decay_mult: 0
  }
  convolution_param {
    num_output: 112
    kernel_size: 1
    weight_filler {
      type: "xavier"
      std: 0.09
    }
    bias_filler {
      type: "constant"
      value: 0.2
    }
  }
}
layer {
  name: "inception_4b/relu_3x3_reduce"
  type: "ReLU"
  bottom: "inception_4b/3x3_reduce"
  top: "inception_4b/3x3_reduce"
}
layer {
  name: "inception_4b/3x3"
  type: "Convolution"
  bottom: "inception_4b/3x3_reduce"
  top: "inception_4b/3x3"
  param {
    lr_mult: 1
    decay_mult: 1
  }
  param {
    lr_mult: 2
    decay_mult: 0
  }
  convolution_param {
    num_output: 224
    pad: 1
    kernel_size: 3
    weight_filler {
      type: "xavier"
      std: 0.03
    }
    bias_filler {
      type: "constant"
      value: 0.2
    }
  }
}
layer {
  name: "inception_4b/relu_3x3"
  type: "ReLU"
  bottom: "inception_4b/3x3"
  top: "inception_4b/3x3"
}
layer {
  name: "inception_4b/5x5_reduce"
  type: "Convolution"
  bottom: "inception_4a/output"
  top: "inception_4b/5x5_reduce"
  param {
    lr_mult: 1
    decay_mult: 1
  }
  param {
    lr_mult: 2
    decay_mult: 0
  }
  convolution_param {
    num_output: 24
    kernel_size: 1
    weight_filler {
      type: "xavier"
      std: 0.2
    }
    bias_filler {
      type: "constant"
      value: 0.2
    }
  }
}
layer {
  name: "inception_4b/relu_5x5_reduce"
  type: "ReLU"
  bottom: "inception_4b/5x5_reduce"
  top: "inception_4b/5x5_reduce"
}
layer {
  name: "inception_4b/5x5"
  type: "Convolution"
  bottom: "inception_4b/5x5_reduce"
  top: "inception_4b/5x5"
  param {
    lr_mult: 1
    decay_mult: 1
  }
  param {
    lr_mult: 2
    decay_mult: 0
  }
  convolution_param {
    num_output: 64
    pad: 2
    kernel_size: 5
    weight_filler {
      type: "xavier"
      std: 0.03
    }
    bias_filler {
      type: "constant"
      value: 0.2
    }
  }
}
layer {
  name: "inception_4b/relu_5x5"
  type: "ReLU"
  bottom: "inception_4b/5x5"
  top: "inception_4b/5x5"
}
layer {
  name: "inception_4b/pool"
  type: "Pooling"
  bottom: "inception_4a/output"
  top: "inception_4b/pool"
  pooling_param {
    pool: MAX
    kernel_size: 3
    stride: 1
    pad: 1
  }
}
layer {
  name: "inception_4b/pool_proj"
  type: "Convolution"
  bottom: "inception_4b/pool"
  top: "inception_4b/pool_proj"
  param {
    lr_mult: 1
    decay_mult: 1
  }
  param {
    lr_mult: 2
    decay_mult: 0
  }
  convolution_param {
    num_output: 64
    kernel_size: 1
    weight_filler {
      type: "xavier"
      std: 0.1
    }
    bias_filler {
      type: "constant"
      value: 0.2
    }
  }
}
layer {
  name: "inception_4b/relu_pool_proj"
  type: "ReLU"
  bottom: "inception_4b/pool_proj"
  top: "inception_4b/pool_proj"
}
layer {
  name: "inception_4b/output"
  type: "Concat"
  bottom: "inception_4b/1x1"
  bottom: "inception_4b/3x3"
  bottom: "inception_4b/5x5"
  bottom: "inception_4b/pool_proj"
  top: "inception_4b/output"
}
layer {
  name: "inception_4c/1x1"
  type: "Convolution"
  bottom: "inception_4b/output"
  top: "inception_4c/1x1"
  param {
    lr_mult: 1
    decay_mult: 1
  }
  param {
    lr_mult: 2
    decay_mult: 0
  }
  convolution_param {
    num_output: 128
    kernel_size: 1
    weight_filler {
      type: "xavier"
      std: 0.03
    }
    bias_filler {
      type: "constant"
      value: 0.2
    }
  }
}
layer {
  name: "inception_4c/relu_1x1"
  type: "ReLU"
  bottom: "inception_4c/1x1"
  top: "inception_4c/1x1"
}
layer {
  name: "inception_4c/3x3_reduce"
  type: "Convolution"
  bottom: "inception_4b/output"
  top: "inception_4c/3x3_reduce"
  param {
    lr_mult: 1
    decay_mult: 1
  }
  param {
    lr_mult: 2
    decay_mult: 0
  }
  convolution_param {
    num_output: 128
    kernel_size: 1
    weight_filler {
      type: "xavier"
      std: 0.09
    }
    bias_filler {
      type: "constant"
      value: 0.2
    }
  }
}
layer {
  name: "inception_4c/relu_3x3_reduce"
  type: "ReLU"
  bottom: "inception_4c/3x3_reduce"
  top: "inception_4c/3x3_reduce"
}
layer {
  name: "inception_4c/3x3"
  type: "Convolution"
  bottom: "inception_4c/3x3_reduce"
  top: "inception_4c/3x3"
  param {
    lr_mult: 1
    decay_mult: 1
  }
  param {
    lr_mult: 2
    decay_mult: 0
  }
  convolution_param {
    num_output: 256
    pad: 1
    kernel_size: 3
    weight_filler {
      type: "xavier"
      std: 0.03
    }
    bias_filler {
      type: "constant"
      value: 0.2
    }
  }
}
layer {
  name: "inception_4c/relu_3x3"
  type: "ReLU"
  bottom: "inception_4c/3x3"
  top: "inception_4c/3x3"
}
layer {
  name: "inception_4c/5x5_reduce"
  type: "Convolution"
  bottom: "inception_4b/output"
  top: "inception_4c/5x5_reduce"
  param {
    lr_mult: 1
    decay_mult: 1
  }
  param {
    lr_mult: 2
    decay_mult: 0
  }
  convolution_param {
    num_output: 24
    kernel_size: 1
    weight_filler {
      type: "xavier"
      std: 0.2
    }
    bias_filler {
      type: "constant"
      value: 0.2
    }
  }
}
layer {
  name: "inception_4c/relu_5x5_reduce"
  type: "ReLU"
  bottom: "inception_4c/5x5_reduce"
  top: "inception_4c/5x5_reduce"
}
layer {
  name: "inception_4c/5x5"
  type: "Convolution"
  bottom: "inception_4c/5x5_reduce"
  top: "inception_4c/5x5"
  param {
    lr_mult: 1
    decay_mult: 1
  }
  param {
    lr_mult: 2
    decay_mult: 0
  }
  convolution_param {
    num_output: 64
    pad: 2
    kernel_size: 5
    weight_filler {
      type: "xavier"
      std: 0.03
    }
    bias_filler {
      type: "constant"
      value: 0.2
    }
  }
}
layer {
  name: "inception_4c/relu_5x5"
  type: "ReLU"
  bottom: "inception_4c/5x5"
  top: "inception_4c/5x5"
}
layer {
  name: "inception_4c/pool"
  type: "Pooling"
  bottom: "inception_4b/output"
  top: "inception_4c/pool"
  pooling_param {
    pool: MAX
    kernel_size: 3
    stride: 1
    pad: 1
  }
}
layer {
  name: "inception_4c/pool_proj"
  type: "Convolution"
  bottom: "inception_4c/pool"
  top: "inception_4c/pool_proj"
  param {
    lr_mult: 1
    decay_mult: 1
  }
  param {
    lr_mult: 2
    decay_mult: 0
  }
  convolution_param {
    num_output: 64
    kernel_size: 1
    weight_filler {
      type: "xavier"
      std: 0.1
    }
    bias_filler {
      type: "constant"
      value: 0.2
    }
  }
}
layer {
  name: "inception_4c/relu_pool_proj"
  type: "ReLU"
  bottom: "inception_4c/pool_proj"
  top: "inception_4c/pool_proj"
}
layer {
  name: "inception_4c/output"
  type: "Concat"
  bottom: "inception_4c/1x1"
  bottom: "inception_4c/3x3"
  bottom: "inception_4c/5x5"
  bottom: "inception_4c/pool_proj"
  top: "inception_4c/output"
}
layer {
  name: "inception_4d/1x1"
  type: "Convolution"
  bottom: "inception_4c/output"
  top: "inception_4d/1x1"
  param {
    lr_mult: 1
    decay_mult: 1
  }
  param {
    lr_mult: 2
    decay_mult: 0
  }
  convolution_param {
    num_output: 112
    kernel_size: 1
    weight_filler {
      type: "xavier"
      std: 0.03
    }
    bias_filler {
      type: "constant"
      value: 0.2
    }
  }
}
layer {
  name: "inception_4d/relu_1x1"
  type: "ReLU"
  bottom: "inception_4d/1x1"
  top: "inception_4d/1x1"
}
layer {
  name: "inception_4d/3x3_reduce"
  type: "Convolution"
  bottom: "inception_4c/output"
  top: "inception_4d/3x3_reduce"
  param {
    lr_mult: 1
    decay_mult: 1
  }
  param {
    lr_mult: 2
    decay_mult: 0
  }
  convolution_param {
    num_output: 144
    kernel_size: 1
    weight_filler {
      type: "xavier"
      std: 0.09
    }
    bias_filler {
      type: "constant"
      value: 0.2
    }
  }
}
layer {
  name: "inception_4d/relu_3x3_reduce"
  type: "ReLU"
  bottom: "inception_4d/3x3_reduce"
  top: "inception_4d/3x3_reduce"
}
layer {
  name: "inception_4d/3x3"
  type: "Convolution"
  bottom: "inception_4d/3x3_reduce"
  top: "inception_4d/3x3"
  param {
    lr_mult: 1
    decay_mult: 1
  }
  param {
    lr_mult: 2
    decay_mult: 0
  }
  convolution_param {
    num_output: 288
    pad: 1
    kernel_size: 3
    weight_filler {
      type: "xavier"
      std: 0.03
    }
    bias_filler {
      type: "constant"
      value: 0.2
    }
  }
}
layer {
  name: "inception_4d/relu_3x3"
  type: "ReLU"
  bottom: "inception_4d/3x3"
  top: "inception_4d/3x3"
}
layer {
  name: "inception_4d/5x5_reduce"
  type: "Convolution"
  bottom: "inception_4c/output"
  top: "inception_4d/5x5_reduce"
  param {
    lr_mult: 1
    decay_mult: 1
  }
  param {
    lr_mult: 2
    decay_mult: 0
  }
  convolution_param {
    num_output: 32
    kernel_size: 1
    weight_filler {
      type: "xavier"
      std: 0.2
    }
    bias_filler {
      type: "constant"
      value: 0.2
    }
  }
}
layer {
  name: "inception_4d/relu_5x5_reduce"
  type: "ReLU"
  bottom: "inception_4d/5x5_reduce"
  top: "inception_4d/5x5_reduce"
}
layer {
  name: "inception_4d/5x5"
  type: "Convolution"
  bottom: "inception_4d/5x5_reduce"
  top: "inception_4d/5x5"
  param {
    lr_mult: 1
    decay_mult: 1
  }
  param {
    lr_mult: 2
    decay_mult: 0
  }
  convolution_param {
    num_output: 64
    pad: 2
    kernel_size: 5
    weight_filler {
      type: "xavier"
      std: 0.03
    }
    bias_filler {
      type: "constant"
      value: 0.2
    }
  }
}
layer {
  name: "inception_4d/relu_5x5"
  type: "ReLU"
  bottom: "inception_4d/5x5"
  top: "inception_4d/5x5"
}
layer {
  name: "inception_4d/pool"
  type: "Pooling"
  bottom: "inception_4c/output"
  top: "inception_4d/pool"
  pooling_param {
    pool: MAX
    kernel_size: 3
    stride: 1
    pad: 1
  }
}
layer {
  name: "inception_4d/pool_proj"
  type: "Convolution"
  bottom: "inception_4d/pool"
  top: "inception_4d/pool_proj"
  param {
    lr_mult: 1
    decay_mult: 1
  }
  param {
    lr_mult: 2
    decay_mult: 0
  }
  convolution_param {
    num_output: 64
    kernel_size: 1
    weight_filler {
      type: "xavier"
      std: 0.1
    }
    bias_filler {
      type: "constant"
      value: 0.2
    }
  }
}
layer {
  name: "inception_4d/relu_pool_proj"
  type: "ReLU"
  bottom: "inception_4d/pool_proj"
  top: "inception_4d/pool_proj"
}
layer {
  name: "inception_4d/output"
  type: "Concat"
  bottom: "inception_4d/1x1"
  bottom: "inception_4d/3x3"
  bottom: "inception_4d/5x5"
  bottom: "inception_4d/pool_proj"
  top: "inception_4d/output"
}
layer {
  name: "loss2/ave_pool"
  type: "Pooling"
  bottom: "inception_4d/output"
  top: "loss2/ave_pool"
  pooling_param {
    pool: AVE
    kernel_size: 5
    stride: 3
  }
}
layer {
  name: "loss2/conv"
  type: "Convolution"
  bottom: "loss2/ave_pool"
  top: "loss2/conv"
  param {
    lr_mult: 1
    decay_mult: 1
  }
  param {
    lr_mult: 2
    decay_mult: 0
  }
  convolution_param {
    num_output: 128
    kernel_size: 1
    weight_filler {
      type: "xavier"
      std: 0.08
    }
    bias_filler {
      type: "constant"
      value: 0.2
    }
  }
}
layer {
  name: "loss2/relu_conv"
  type: "ReLU"
  bottom: "loss2/conv"
  top: "loss2/conv"
}
layer {
  name: "loss2/fc"
  type: "InnerProduct"
  bottom: "loss2/conv"
  top: "loss2/fc"
  param {
    lr_mult: 1
    decay_mult: 1
  }
  param {
    lr_mult: 2
    decay_mult: 0
  }
  inner_product_param {
    num_output: 1024
    weight_filler {
      type: "xavier"
      std: 0.02
    }
    bias_filler {
      type: "constant"
      value: 0.2
    }
  }
}
layer {
  name: "loss2/relu_fc"
  type: "ReLU"
  bottom: "loss2/fc"
  top: "loss2/fc"
}
layer {
  name: "loss2/drop_fc"
  type: "Dropout"
  bottom: "loss2/fc"
  top: "loss2/fc"
  dropout_param {
    dropout_ratio: 0.7
  }
}
layer {
  name: "loss2/classifier_plantvillage"
  type: "InnerProduct"
  bottom: "loss2/fc"
  top: "loss2/classifier_plantvillage"
  param {
    lr_mult: 1
    decay_mult: 1
  }
  param {
    lr_mult: 2
    decay_mult: 0
  }
  inner_product_param {
    num_output: 38
    weight_filler {
      type: "xavier"
      std: 0.0009765625
    }
    bias_filler {
      type: "constant"
      value: 0
    }
  }
}
layer {
  name: "inception_4e/1x1"
  type: "Convolution"
  bottom: "inception_4d/output"
  top: "inception_4e/1x1"
  param {
    lr_mult: 1
    decay_mult: 1
  }
  param {
    lr_mult: 2
    decay_mult: 0
  }
  convolution_param {
    num_output: 256
    kernel_size: 1
    weight_filler {
      type: "xavier"
      std: 0.03
    }
    bias_filler {
      type: "constant"
      value: 0.2
    }
  }
}
layer {
  name: "inception_4e/relu_1x1"
  type: "ReLU"
  bottom: "inception_4e/1x1"
  top: "inception_4e/1x1"
}
layer {
  name: "inception_4e/3x3_reduce"
  type: "Convolution"
  bottom: "inception_4d/output"
  top: "inception_4e/3x3_reduce"
  param {
    lr_mult: 1
    decay_mult: 1
  }
  param {
    lr_mult: 2
    decay_mult: 0
  }
  convolution_param {
    num_output: 160
    kernel_size: 1
    weight_filler {
      type: "xavier"
      std: 0.09
    }
    bias_filler {
      type: "constant"
      value: 0.2
    }
  }
}
layer {
  name: "inception_4e/relu_3x3_reduce"
  type: "ReLU"
  bottom: "inception_4e/3x3_reduce"
  top: "inception_4e/3x3_reduce"
}
layer {
  name: "inception_4e/3x3"
  type: "Convolution"
  bottom: "inception_4e/3x3_reduce"
  top: "inception_4e/3x3"
  param {
    lr_mult: 1
    decay_mult: 1
  }
  param {
    lr_mult: 2
    decay_mult: 0
  }
  convolution_param {
    num_output: 320
    pad: 1
    kernel_size: 3
    weight_filler {
      type: "xavier"
      std: 0.03
    }
    bias_filler {
      type: "constant"
      value: 0.2
    }
  }
}
layer {
  name: "inception_4e/relu_3x3"
  type: "ReLU"
  bottom: "inception_4e/3x3"
  top: "inception_4e/3x3"
}
layer {
  name: "inception_4e/5x5_reduce"
  type: "Convolution"
  bottom: "inception_4d/output"
  top: "inception_4e/5x5_reduce"
  param {
    lr_mult: 1
    decay_mult: 1
  }
  param {
    lr_mult: 2
    decay_mult: 0
  }
  convolution_param {
    num_output: 32
    kernel_size: 1
    weight_filler {
      type: "xavier"
      std: 0.2
    }
    bias_filler {
      type: "constant"
      value: 0.2
    }
  }
}
layer {
  name: "inception_4e/relu_5x5_reduce"
  type: "ReLU"
  bottom: "inception_4e/5x5_reduce"
  top: "inception_4e/5x5_reduce"
}
layer {
  name: "inception_4e/5x5"
  type: "Convolution"
  bottom: "inception_4e/5x5_reduce"
  top: "inception_4e/5x5"
  p
I0403 21:36:30.427505 12197 layer_factory.hpp:77] Creating layer data
I0403 21:36:30.428091 12197 net.cpp:91] Creating Layer data
I0403 21:36:30.428125 12197 net.cpp:399] data -> data
I0403 21:36:30.428182 12197 net.cpp:399] data -> label
I0403 21:36:30.428220 12197 data_transformer.cpp:25] Loading mean file from: /home/mohanty/data/final_dataset/lmdb/color-80-20/mean.binaryproto
I0403 21:36:30.436004 12200 db_lmdb.cpp:38] Opened lmdb /home/mohanty/data/final_dataset/lmdb/color-80-20/test_db
I0403 21:36:30.442551 12197 data_layer.cpp:41] output data size: 24,3,224,224
I0403 21:36:30.471387 12197 net.cpp:141] Setting up data
I0403 21:36:30.471482 12197 net.cpp:148] Top shape: 24 3 224 224 (3612672)
I0403 21:36:30.471505 12197 net.cpp:148] Top shape: 24 (24)
I0403 21:36:30.471520 12197 net.cpp:156] Memory required for data: 14450784
I0403 21:36:30.471547 12197 layer_factory.hpp:77] Creating layer label_data_1_split
I0403 21:36:30.471573 12197 net.cpp:91] Creating Layer label_data_1_split
I0403 21:36:30.471591 12197 net.cpp:425] label_data_1_split <- label
I0403 21:36:30.471622 12197 net.cpp:399] label_data_1_split -> label_data_1_split_0
I0403 21:36:30.471649 12197 net.cpp:399] label_data_1_split -> label_data_1_split_1
I0403 21:36:30.471670 12197 net.cpp:399] label_data_1_split -> label_data_1_split_2
I0403 21:36:30.471691 12197 net.cpp:399] label_data_1_split -> label_data_1_split_3
I0403 21:36:30.471710 12197 net.cpp:399] label_data_1_split -> label_data_1_split_4
I0403 21:36:30.471729 12197 net.cpp:399] label_data_1_split -> label_data_1_split_5
I0403 21:36:30.471748 12197 net.cpp:399] label_data_1_split -> label_data_1_split_6
I0403 21:36:30.471767 12197 net.cpp:399] label_data_1_split -> label_data_1_split_7
I0403 21:36:30.471787 12197 net.cpp:399] label_data_1_split -> label_data_1_split_8
I0403 21:36:30.471807 12197 net.cpp:399] label_data_1_split -> label_data_1_split_9
I0403 21:36:30.471920 12197 net.cpp:141] Setting up label_data_1_split
I0403 21:36:30.471943 12197 net.cpp:148] Top shape: 24 (24)
I0403 21:36:30.471961 12197 net.cpp:148] Top shape: 24 (24)
I0403 21:36:30.471976 12197 net.cpp:148] Top shape: 24 (24)
I0403 21:36:30.471992 12197 net.cpp:148] Top shape: 24 (24)
I0403 21:36:30.472008 12197 net.cpp:148] Top shape: 24 (24)
I0403 21:36:30.472024 12197 net.cpp:148] Top shape: 24 (24)
I0403 21:36:30.472040 12197 net.cpp:148] Top shape: 24 (24)
I0403 21:36:30.472056 12197 net.cpp:148] Top shape: 24 (24)
I0403 21:36:30.472071 12197 net.cpp:148] Top shape: 24 (24)
I0403 21:36:30.472090 12197 net.cpp:148] Top shape: 24 (24)
I0403 21:36:30.472138 12197 net.cpp:156] Memory required for data: 14451744
I0403 21:36:30.472156 12197 layer_factory.hpp:77] Creating layer conv1/7x7_s2
I0403 21:36:30.472203 12197 net.cpp:91] Creating Layer conv1/7x7_s2
I0403 21:36:30.472223 12197 net.cpp:425] conv1/7x7_s2 <- data
I0403 21:36:30.472244 12197 net.cpp:399] conv1/7x7_s2 -> conv1/7x7_s2
I0403 21:36:30.614789 12197 net.cpp:141] Setting up conv1/7x7_s2
I0403 21:36:30.614895 12197 net.cpp:148] Top shape: 24 64 112 112 (19267584)
I0403 21:36:30.614912 12197 net.cpp:156] Memory required for data: 91522080
I0403 21:36:30.614943 12197 layer_factory.hpp:77] Creating layer conv1/relu_7x7
I0403 21:36:30.614969 12197 net.cpp:91] Creating Layer conv1/relu_7x7
I0403 21:36:30.614987 12197 net.cpp:425] conv1/relu_7x7 <- conv1/7x7_s2
I0403 21:36:30.615006 12197 net.cpp:386] conv1/relu_7x7 -> conv1/7x7_s2 (in-place)
I0403 21:36:30.615255 12197 net.cpp:141] Setting up conv1/relu_7x7
I0403 21:36:30.615281 12197 net.cpp:148] Top shape: 24 64 112 112 (19267584)
I0403 21:36:30.615296 12197 net.cpp:156] Memory required for data: 168592416
I0403 21:36:30.615311 12197 layer_factory.hpp:77] Creating layer pool1/3x3_s2
I0403 21:36:30.615335 12197 net.cpp:91] Creating Layer pool1/3x3_s2
I0403 21:36:30.615352 12197 net.cpp:425] pool1/3x3_s2 <- conv1/7x7_s2
I0403 21:36:30.615370 12197 net.cpp:399] pool1/3x3_s2 -> pool1/3x3_s2
I0403 21:36:30.615443 12197 net.cpp:141] Setting up pool1/3x3_s2
I0403 21:36:30.615466 12197 net.cpp:148] Top shape: 24 64 56 56 (4816896)
I0403 21:36:30.615481 12197 net.cpp:156] Memory required for data: 187860000
I0403 21:36:30.615494 12197 layer_factory.hpp:77] Creating layer pool1/norm1
I0403 21:36:30.615520 12197 net.cpp:91] Creating Layer pool1/norm1
I0403 21:36:30.615537 12197 net.cpp:425] pool1/norm1 <- pool1/3x3_s2
I0403 21:36:30.615556 12197 net.cpp:399] pool1/norm1 -> pool1/norm1
I0403 21:36:30.615826 12197 net.cpp:141] Setting up pool1/norm1
I0403 21:36:30.615854 12197 net.cpp:148] Top shape: 24 64 56 56 (4816896)
I0403 21:36:30.615871 12197 net.cpp:156] Memory required for data: 207127584
I0403 21:36:30.615886 12197 layer_factory.hpp:77] Creating layer conv2/3x3_reduce
I0403 21:36:30.615912 12197 net.cpp:91] Creating Layer conv2/3x3_reduce
I0403 21:36:30.615929 12197 net.cpp:425] conv2/3x3_reduce <- pool1/norm1
I0403 21:36:30.615947 12197 net.cpp:399] conv2/3x3_reduce -> conv2/3x3_reduce
I0403 21:36:30.617255 12197 net.cpp:141] Setting up conv2/3x3_reduce
I0403 21:36:30.617285 12197 net.cpp:148] Top shape: 24 64 56 56 (4816896)
I0403 21:36:30.617300 12197 net.cpp:156] Memory required for data: 226395168
I0403 21:36:30.617321 12197 layer_factory.hpp:77] Creating layer conv2/relu_3x3_reduce
I0403 21:36:30.617338 12197 net.cpp:91] Creating Layer conv2/relu_3x3_reduce
I0403 21:36:30.617353 12197 net.cpp:425] conv2/relu_3x3_reduce <- conv2/3x3_reduce
I0403 21:36:30.617369 12197 net.cpp:386] conv2/relu_3x3_reduce -> conv2/3x3_reduce (in-place)
I0403 21:36:30.617633 12197 net.cpp:141] Setting up conv2/relu_3x3_reduce
I0403 21:36:30.617663 12197 net.cpp:148] Top shape: 24 64 56 56 (4816896)
I0403 21:36:30.617683 12197 net.cpp:156] Memory required for data: 245662752
I0403 21:36:30.617700 12197 layer_factory.hpp:77] Creating layer conv2/3x3
I0403 21:36:30.617727 12197 net.cpp:91] Creating Layer conv2/3x3
I0403 21:36:30.617743 12197 net.cpp:425] conv2/3x3 <- conv2/3x3_reduce
I0403 21:36:30.617763 12197 net.cpp:399] conv2/3x3 -> conv2/3x3
I0403 21:36:30.620019 12197 net.cpp:141] Setting up conv2/3x3
I0403 21:36:30.620050 12197 net.cpp:148] Top shape: 24 192 56 56 (14450688)
I0403 21:36:30.620067 12197 net.cpp:156] Memory required for data: 303465504
I0403 21:36:30.620087 12197 layer_factory.hpp:77] Creating layer conv2/relu_3x3
I0403 21:36:30.620105 12197 net.cpp:91] Creating Layer conv2/relu_3x3
I0403 21:36:30.620121 12197 net.cpp:425] conv2/relu_3x3 <- conv2/3x3
I0403 21:36:30.620139 12197 net.cpp:386] conv2/relu_3x3 -> conv2/3x3 (in-place)
I0403 21:36:30.620318 12197 net.cpp:141] Setting up conv2/relu_3x3
I0403 21:36:30.620343 12197 net.cpp:148] Top shape: 24 192 56 56 (14450688)
I0403 21:36:30.620390 12197 net.cpp:156] Memory required for data: 361268256
I0403 21:36:30.620406 12197 layer_factory.hpp:77] Creating layer conv2/norm2
I0403 21:36:30.620426 12197 net.cpp:91] Creating Layer conv2/norm2
I0403 21:36:30.620442 12197 net.cpp:425] conv2/norm2 <- conv2/3x3
I0403 21:36:30.620460 12197 net.cpp:399] conv2/norm2 -> conv2/norm2
I0403 21:36:30.620764 12197 net.cpp:141] Setting up conv2/norm2
I0403 21:36:30.620792 12197 net.cpp:148] Top shape: 24 192 56 56 (14450688)
I0403 21:36:30.620808 12197 net.cpp:156] Memory required for data: 419071008
I0403 21:36:30.620822 12197 layer_factory.hpp:77] Creating layer pool2/3x3_s2
I0403 21:36:30.620841 12197 net.cpp:91] Creating Layer pool2/3x3_s2
I0403 21:36:30.620856 12197 net.cpp:425] pool2/3x3_s2 <- conv2/norm2
I0403 21:36:30.620872 12197 net.cpp:399] pool2/3x3_s2 -> pool2/3x3_s2
I0403 21:36:30.620924 12197 net.cpp:141] Setting up pool2/3x3_s2
I0403 21:36:30.620946 12197 net.cpp:148] Top shape: 24 192 28 28 (3612672)
I0403 21:36:30.620962 12197 net.cpp:156] Memory required for data: 433521696
I0403 21:36:30.620980 12197 layer_factory.hpp:77] Creating layer pool2/3x3_s2_pool2/3x3_s2_0_split
I0403 21:36:30.621000 12197 net.cpp:91] Creating Layer pool2/3x3_s2_pool2/3x3_s2_0_split
I0403 21:36:30.621013 12197 net.cpp:425] pool2/3x3_s2_pool2/3x3_s2_0_split <- pool2/3x3_s2
I0403 21:36:30.621033 12197 net.cpp:399] pool2/3x3_s2_pool2/3x3_s2_0_split -> pool2/3x3_s2_pool2/3x3_s2_0_split_0
I0403 21:36:30.621054 12197 net.cpp:399] pool2/3x3_s2_pool2/3x3_s2_0_split -> pool2/3x3_s2_pool2/3x3_s2_0_split_1
I0403 21:36:30.621073 12197 net.cpp:399] pool2/3x3_s2_pool2/3x3_s2_0_split -> pool2/3x3_s2_pool2/3x3_s2_0_split_2
I0403 21:36:30.621091 12197 net.cpp:399] pool2/3x3_s2_pool2/3x3_s2_0_split -> pool2/3x3_s2_pool2/3x3_s2_0_split_3
I0403 21:36:30.621166 12197 net.cpp:141] Setting up pool2/3x3_s2_pool2/3x3_s2_0_split
I0403 21:36:30.621189 12197 net.cpp:148] Top shape: 24 192 28 28 (3612672)
I0403 21:36:30.621206 12197 net.cpp:148] Top shape: 24 192 28 28 (3612672)
I0403 21:36:30.621227 12197 net.cpp:148] Top shape: 24 192 28 28 (3612672)
I0403 21:36:30.621243 12197 net.cpp:148] Top shape: 24 192 28 28 (3612672)
I0403 21:36:30.621258 12197 net.cpp:156] Memory required for data: 491324448
I0403 21:36:30.621270 12197 layer_factory.hpp:77] Creating layer inception_3a/1x1
I0403 21:36:30.621294 12197 net.cpp:91] Creating Layer inception_3a/1x1
I0403 21:36:30.621310 12197 net.cpp:425] inception_3a/1x1 <- pool2/3x3_s2_pool2/3x3_s2_0_split_0
I0403 21:36:30.621330 12197 net.cpp:399] inception_3a/1x1 -> inception_3a/1x1
I0403 21:36:30.622850 12197 net.cpp:141] Setting up inception_3a/1x1
I0403 21:36:30.622881 12197 net.cpp:148] Top shape: 24 64 28 28 (1204224)
I0403 21:36:30.622898 12197 net.cpp:156] Memory required for data: 496141344
I0403 21:36:30.622916 12197 layer_factory.hpp:77] Creating layer inception_3a/relu_1x1
I0403 21:36:30.622933 12197 net.cpp:91] Creating Layer inception_3a/relu_1x1
I0403 21:36:30.622949 12197 net.cpp:425] inception_3a/relu_1x1 <- inception_3a/1x1
I0403 21:36:30.622968 12197 net.cpp:386] inception_3a/relu_1x1 -> inception_3a/1x1 (in-place)
I0403 21:36:30.623136 12197 net.cpp:141] Setting up inception_3a/relu_1x1
I0403 21:36:30.623160 12197 net.cpp:148] Top shape: 24 64 28 28 (1204224)
I0403 21:36:30.623186 12197 net.cpp:156] Memory required for data: 500958240
I0403 21:36:30.623203 12197 layer_factory.hpp:77] Creating layer inception_3a/3x3_reduce
I0403 21:36:30.623230 12197 net.cpp:91] Creating Layer inception_3a/3x3_reduce
I0403 21:36:30.623250 12197 net.cpp:425] inception_3a/3x3_reduce <- pool2/3x3_s2_pool2/3x3_s2_0_split_1
I0403 21:36:30.623270 12197 net.cpp:399] inception_3a/3x3_reduce -> inception_3a/3x3_reduce
I0403 21:36:30.624930 12197 net.cpp:141] Setting up inception_3a/3x3_reduce
I0403 21:36:30.624961 12197 net.cpp:148] Top shape: 24 96 28 28 (1806336)
I0403 21:36:30.624979 12197 net.cpp:156] Memory required for data: 508183584
I0403 21:36:30.624999 12197 layer_factory.hpp:77] Creating layer inception_3a/relu_3x3_reduce
I0403 21:36:30.625032 12197 net.cpp:91] Creating Layer inception_3a/relu_3x3_reduce
I0403 21:36:30.625049 12197 net.cpp:425] inception_3a/relu_3x3_reduce <- inception_3a/3x3_reduce
I0403 21:36:30.625069 12197 net.cpp:386] inception_3a/relu_3x3_reduce -> inception_3a/3x3_reduce (in-place)
I0403 21:36:30.625250 12197 net.cpp:141] Setting up inception_3a/relu_3x3_reduce
I0403 21:36:30.625277 12197 net.cpp:148] Top shape: 24 96 28 28 (1806336)
I0403 21:36:30.625293 12197 net.cpp:156] Memory required for data: 515408928
I0403 21:36:30.625306 12197 layer_factory.hpp:77] Creating layer inception_3a/3x3
I0403 21:36:30.625326 12197 net.cpp:91] Creating Layer inception_3a/3x3
I0403 21:36:30.625342 12197 net.cpp:425] inception_3a/3x3 <- inception_3a/3x3_reduce
I0403 21:36:30.625365 12197 net.cpp:399] inception_3a/3x3 -> inception_3a/3x3
I0403 21:36:30.626950 12197 net.cpp:141] Setting up inception_3a/3x3
I0403 21:36:30.626979 12197 net.cpp:148] Top shape: 24 128 28 28 (2408448)
I0403 21:36:30.626996 12197 net.cpp:156] Memory required for data: 525042720
I0403 21:36:30.627014 12197 layer_factory.hpp:77] Creating layer inception_3a/relu_3x3
I0403 21:36:30.627032 12197 net.cpp:91] Creating Layer inception_3a/relu_3x3
I0403 21:36:30.627046 12197 net.cpp:425] inception_3a/relu_3x3 <- inception_3a/3x3
I0403 21:36:30.627065 12197 net.cpp:386] inception_3a/relu_3x3 -> inception_3a/3x3 (in-place)
I0403 21:36:30.627336 12197 net.cpp:141] Setting up inception_3a/relu_3x3
I0403 21:36:30.627363 12197 net.cpp:148] Top shape: 24 128 28 28 (2408448)
I0403 21:36:30.627378 12197 net.cpp:156] Memory required for data: 534676512
I0403 21:36:30.627394 12197 layer_factory.hpp:77] Creating layer inception_3a/5x5_reduce
I0403 21:36:30.627415 12197 net.cpp:91] Creating Layer inception_3a/5x5_reduce
I0403 21:36:30.627432 12197 net.cpp:425] inception_3a/5x5_reduce <- pool2/3x3_s2_pool2/3x3_s2_0_split_2
I0403 21:36:30.627454 12197 net.cpp:399] inception_3a/5x5_reduce -> inception_3a/5x5_reduce
I0403 21:36:30.628379 12197 net.cpp:141] Setting up inception_3a/5x5_reduce
I0403 21:36:30.628407 12197 net.cpp:148] Top shape: 24 16 28 28 (301056)
I0403 21:36:30.628422 12197 net.cpp:156] Memory required for data: 535880736
I0403 21:36:30.628440 12197 layer_factory.hpp:77] Creating layer inception_3a/relu_5x5_reduce
I0403 21:36:30.628460 12197 net.cpp:91] Creating Layer inception_3a/relu_5x5_reduce
I0403 21:36:30.628478 12197 net.cpp:425] inception_3a/relu_5x5_reduce <- inception_3a/5x5_reduce
I0403 21:36:30.628494 12197 net.cpp:386] inception_3a/relu_5x5_reduce -> inception_3a/5x5_reduce (in-place)
I0403 21:36:30.628757 12197 net.cpp:141] Setting up inception_3a/relu_5x5_reduce
I0403 21:36:30.628782 12197 net.cpp:148] Top shape: 24 16 28 28 (301056)
I0403 21:36:30.628798 12197 net.cpp:156] Memory required for data: 537084960
I0403 21:36:30.628813 12197 layer_factory.hpp:77] Creating layer inception_3a/5x5
I0403 21:36:30.628835 12197 net.cpp:91] Creating Layer inception_3a/5x5
I0403 21:36:30.628852 12197 net.cpp:425] inception_3a/5x5 <- inception_3a/5x5_reduce
I0403 21:36:30.628872 12197 net.cpp:399] inception_3a/5x5 -> inception_3a/5x5
I0403 21:36:30.629848 12197 net.cpp:141] Setting up inception_3a/5x5
I0403 21:36:30.629878 12197 net.cpp:148] Top shape: 24 32 28 28 (602112)
I0403 21:36:30.629894 12197 net.cpp:156] Memory required for data: 539493408
I0403 21:36:30.629912 12197 layer_factory.hpp:77] Creating layer inception_3a/relu_5x5
I0403 21:36:30.629930 12197 net.cpp:91] Creating Layer inception_3a/relu_5x5
I0403 21:36:30.629945 12197 net.cpp:425] inception_3a/relu_5x5 <- inception_3a/5x5
I0403 21:36:30.629963 12197 net.cpp:386] inception_3a/relu_5x5 -> inception_3a/5x5 (in-place)
I0403 21:36:30.630134 12197 net.cpp:141] Setting up inception_3a/relu_5x5
I0403 21:36:30.630158 12197 net.cpp:148] Top shape: 24 32 28 28 (602112)
I0403 21:36:30.630173 12197 net.cpp:156] Memory required for data: 541901856
I0403 21:36:30.630187 12197 layer_factory.hpp:77] Creating layer inception_3a/pool
I0403 21:36:30.630204 12197 net.cpp:91] Creating Layer inception_3a/pool
I0403 21:36:30.630225 12197 net.cpp:425] inception_3a/pool <- pool2/3x3_s2_pool2/3x3_s2_0_split_3
I0403 21:36:30.630259 12197 net.cpp:399] inception_3a/pool -> inception_3a/pool
I0403 21:36:30.630317 12197 net.cpp:141] Setting up inception_3a/pool
I0403 21:36:30.630341 12197 net.cpp:148] Top shape: 24 192 28 28 (3612672)
I0403 21:36:30.630354 12197 net.cpp:156] Memory required for data: 556352544
I0403 21:36:30.630368 12197 layer_factory.hpp:77] Creating layer inception_3a/pool_proj
I0403 21:36:30.630393 12197 net.cpp:91] Creating Layer inception_3a/pool_proj
I0403 21:36:30.630411 12197 net.cpp:425] inception_3a/pool_proj <- inception_3a/pool
I0403 21:36:30.630429 12197 net.cpp:399] inception_3a/pool_proj -> inception_3a/pool_proj
I0403 21:36:30.631357 12197 net.cpp:141] Setting up inception_3a/pool_proj
I0403 21:36:30.631384 12197 net.cpp:148] Top shape: 24 32 28 28 (602112)
I0403 21:36:30.631399 12197 net.cpp:156] Memory required for data: 558760992
I0403 21:36:30.631422 12197 layer_factory.hpp:77] Creating layer inception_3a/relu_pool_proj
I0403 21:36:30.631444 12197 net.cpp:91] Creating Layer inception_3a/relu_pool_proj
I0403 21:36:30.631461 12197 net.cpp:425] inception_3a/relu_pool_proj <- inception_3a/pool_proj
I0403 21:36:30.631477 12197 net.cpp:386] inception_3a/relu_pool_proj -> inception_3a/pool_proj (in-place)
I0403 21:36:30.631739 12197 net.cpp:141] Setting up inception_3a/relu_pool_proj
I0403 21:36:30.631767 12197 net.cpp:148] Top shape: 24 32 28 28 (602112)
I0403 21:36:30.631783 12197 net.cpp:156] Memory required for data: 561169440
I0403 21:36:30.631796 12197 layer_factory.hpp:77] Creating layer inception_3a/output
I0403 21:36:30.631814 12197 net.cpp:91] Creating Layer inception_3a/output
I0403 21:36:30.631829 12197 net.cpp:425] inception_3a/output <- inception_3a/1x1
I0403 21:36:30.631845 12197 net.cpp:425] inception_3a/output <- inception_3a/3x3
I0403 21:36:30.631860 12197 net.cpp:425] inception_3a/output <- inception_3a/5x5
I0403 21:36:30.631875 12197 net.cpp:425] inception_3a/output <- inception_3a/pool_proj
I0403 21:36:30.631893 12197 net.cpp:399] inception_3a/output -> inception_3a/output
I0403 21:36:30.631938 12197 net.cpp:141] Setting up inception_3a/output
I0403 21:36:30.631960 12197 net.cpp:148] Top shape: 24 256 28 28 (4816896)
I0403 21:36:30.631975 12197 net.cpp:156] Memory required for data: 580437024
I0403 21:36:30.631989 12197 layer_factory.hpp:77] Creating layer inception_3a/output_inception_3a/output_0_split
I0403 21:36:30.632009 12197 net.cpp:91] Creating Layer inception_3a/output_inception_3a/output_0_split
I0403 21:36:30.632025 12197 net.cpp:425] inception_3a/output_inception_3a/output_0_split <- inception_3a/output
I0403 21:36:30.632041 12197 net.cpp:399] inception_3a/output_inception_3a/output_0_split -> inception_3a/output_inception_3a/output_0_split_0
I0403 21:36:30.632061 12197 net.cpp:399] inception_3a/output_inception_3a/output_0_split -> inception_3a/output_inception_3a/output_0_split_1
I0403 21:36:30.632087 12197 net.cpp:399] inception_3a/output_inception_3a/output_0_split -> inception_3a/output_inception_3a/output_0_split_2
I0403 21:36:30.632108 12197 net.cpp:399] inception_3a/output_inception_3a/output_0_split -> inception_3a/output_inception_3a/output_0_split_3
I0403 21:36:30.632179 12197 net.cpp:141] Setting up inception_3a/output_inception_3a/output_0_split
I0403 21:36:30.632202 12197 net.cpp:148] Top shape: 24 256 28 28 (4816896)
I0403 21:36:30.632246 12197 net.cpp:148] Top shape: 24 256 28 28 (4816896)
I0403 21:36:30.632264 12197 net.cpp:148] Top shape: 24 256 28 28 (4816896)
I0403 21:36:30.632280 12197 net.cpp:148] Top shape: 24 256 28 28 (4816896)
I0403 21:36:30.632293 12197 net.cpp:156] Memory required for data: 657507360
I0403 21:36:30.632309 12197 layer_factory.hpp:77] Creating layer inception_3b/1x1
I0403 21:36:30.632331 12197 net.cpp:91] Creating Layer inception_3b/1x1
I0403 21:36:30.632349 12197 net.cpp:425] inception_3b/1x1 <- inception_3a/output_inception_3a/output_0_split_0
I0403 21:36:30.632369 12197 net.cpp:399] inception_3b/1x1 -> inception_3b/1x1
I0403 21:36:30.633498 12197 net.cpp:141] Setting up inception_3b/1x1
I0403 21:36:30.633540 12197 net.cpp:148] Top shape: 24 128 28 28 (2408448)
I0403 21:36:30.633558 12197 net.cpp:156] Memory required for data: 667141152
I0403 21:36:30.633576 12197 layer_factory.hpp:77] Creating layer inception_3b/relu_1x1
I0403 21:36:30.633594 12197 net.cpp:91] Creating Layer inception_3b/relu_1x1
I0403 21:36:30.633610 12197 net.cpp:425] inception_3b/relu_1x1 <- inception_3b/1x1
I0403 21:36:30.633627 12197 net.cpp:386] inception_3b/relu_1x1 -> inception_3b/1x1 (in-place)
I0403 21:36:30.633805 12197 net.cpp:141] Setting up inception_3b/relu_1x1
I0403 21:36:30.633832 12197 net.cpp:148] Top shape: 24 128 28 28 (2408448)
I0403 21:36:30.633848 12197 net.cpp:156] Memory required for data: 676774944
I0403 21:36:30.633863 12197 layer_factory.hpp:77] Creating layer inception_3b/3x3_reduce
I0403 21:36:30.633885 12197 net.cpp:91] Creating Layer inception_3b/3x3_reduce
I0403 21:36:30.633903 12197 net.cpp:425] inception_3b/3x3_reduce <- inception_3a/output_inception_3a/output_0_split_1
I0403 21:36:30.633924 12197 net.cpp:399] inception_3b/3x3_reduce -> inception_3b/3x3_reduce
I0403 21:36:30.635066 12197 net.cpp:141] Setting up inception_3b/3x3_reduce
I0403 21:36:30.635093 12197 net.cpp:148] Top shape: 24 128 28 28 (2408448)
I0403 21:36:30.635109 12197 net.cpp:156] Memory required for data: 686408736
I0403 21:36:30.635128 12197 layer_factory.hpp:77] Creating layer inception_3b/relu_3x3_reduce
I0403 21:36:30.635148 12197 net.cpp:91] Creating Layer inception_3b/relu_3x3_reduce
I0403 21:36:30.635165 12197 net.cpp:425] inception_3b/relu_3x3_reduce <- inception_3b/3x3_reduce
I0403 21:36:30.635184 12197 net.cpp:386] inception_3b/relu_3x3_reduce -> inception_3b/3x3_reduce (in-place)
I0403 21:36:30.635365 12197 net.cpp:141] Setting up inception_3b/relu_3x3_reduce
I0403 21:36:30.635388 12197 net.cpp:148] Top shape: 24 128 28 28 (2408448)
I0403 21:36:30.635403 12197 net.cpp:156] Memory required for data: 696042528
I0403 21:36:30.635417 12197 layer_factory.hpp:77] Creating layer inception_3b/3x3
I0403 21:36:30.635442 12197 net.cpp:91] Creating Layer inception_3b/3x3
I0403 21:36:30.635460 12197 net.cpp:425] inception_3b/3x3 <- inception_3b/3x3_reduce
I0403 21:36:30.635483 12197 net.cpp:399] inception_3b/3x3 -> inception_3b/3x3
I0403 21:36:30.638411 12197 net.cpp:141] Setting up inception_3b/3x3
I0403 21:36:30.638442 12197 net.cpp:148] Top shape: 24 192 28 28 (3612672)
I0403 21:36:30.638459 12197 net.cpp:156] Memory required for data: 710493216
I0403 21:36:30.638478 12197 layer_factory.hpp:77] Creating layer inception_3b/relu_3x3
I0403 21:36:30.638496 12197 net.cpp:91] Creating Layer inception_3b/relu_3x3
I0403 21:36:30.638511 12197 net.cpp:425] inception_3b/relu_3x3 <- inception_3b/3x3
I0403 21:36:30.638531 12197 net.cpp:386] inception_3b/relu_3x3 -> inception_3b/3x3 (in-place)
I0403 21:36:30.638804 12197 net.cpp:141] Setting up inception_3b/relu_3x3
I0403 21:36:30.638833 12197 net.cpp:148] Top shape: 24 192 28 28 (3612672)
I0403 21:36:30.638849 12197 net.cpp:156] Memory required for data: 724943904
I0403 21:36:30.638864 12197 layer_factory.hpp:77] Creating layer inception_3b/5x5_reduce
I0403 21:36:30.638887 12197 net.cpp:91] Creating Layer inception_3b/5x5_reduce
I0403 21:36:30.638906 12197 net.cpp:425] inception_3b/5x5_reduce <- inception_3a/output_inception_3a/output_0_split_2
I0403 21:36:30.638926 12197 net.cpp:399] inception_3b/5x5_reduce -> inception_3b/5x5_reduce
I0403 21:36:30.639909 12197 net.cpp:141] Setting up inception_3b/5x5_reduce
I0403 21:36:30.639940 12197 net.cpp:148] Top shape: 24 32 28 28 (602112)
I0403 21:36:30.639957 12197 net.cpp:156] Memory required for data: 727352352
I0403 21:36:30.639976 12197 layer_factory.hpp:77] Creating layer inception_3b/relu_5x5_reduce
I0403 21:36:30.639993 12197 net.cpp:91] Creating Layer inception_3b/relu_5x5_reduce
I0403 21:36:30.640009 12197 net.cpp:425] inception_3b/relu_5x5_reduce <- inception_3b/5x5_reduce
I0403 21:36:30.640028 12197 net.cpp:386] inception_3b/relu_5x5_reduce -> inception_3b/5x5_reduce (in-place)
I0403 21:36:30.640205 12197 net.cpp:141] Setting up inception_3b/relu_5x5_reduce
I0403 21:36:30.640246 12197 net.cpp:148] Top shape: 24 32 28 28 (602112)
I0403 21:36:30.640261 12197 net.cpp:156] Memory required for data: 729760800
I0403 21:36:30.640276 12197 layer_factory.hpp:77] Creating layer inception_3b/5x5
I0403 21:36:30.640300 12197 net.cpp:91] Creating Layer inception_3b/5x5
I0403 21:36:30.640318 12197 net.cpp:425] inception_3b/5x5 <- inception_3b/5x5_reduce
I0403 21:36:30.640339 12197 net.cpp:399] inception_3b/5x5 -> inception_3b/5x5
I0403 21:36:30.642338 12197 net.cpp:141] Setting up inception_3b/5x5
I0403 21:36:30.642369 12197 net.cpp:148] Top shape: 24 96 28 28 (1806336)
I0403 21:36:30.642385 12197 net.cpp:156] Memory required for data: 736986144
I0403 21:36:30.642402 12197 layer_factory.hpp:77] Creating layer inception_3b/relu_5x5
I0403 21:36:30.642422 12197 net.cpp:91] Creating Layer inception_3b/relu_5x5
I0403 21:36:30.642441 12197 net.cpp:425] inception_3b/relu_5x5 <- inception_3b/5x5
I0403 21:36:30.642457 12197 net.cpp:386] inception_3b/relu_5x5 -> inception_3b/5x5 (in-place)
I0403 21:36:30.642652 12197 net.cpp:141] Setting up inception_3b/relu_5x5
I0403 21:36:30.642675 12197 net.cpp:148] Top shape: 24 96 28 28 (1806336)
I0403 21:36:30.642690 12197 net.cpp:156] Memory required for data: 744211488
I0403 21:36:30.642705 12197 layer_factory.hpp:77] Creating layer inception_3b/pool
I0403 21:36:30.642722 12197 net.cpp:91] Creating Layer inception_3b/pool
I0403 21:36:30.642738 12197 net.cpp:425] inception_3b/pool <- inception_3a/output_inception_3a/output_0_split_3
I0403 21:36:30.642756 12197 net.cpp:399] inception_3b/pool -> inception_3b/pool
I0403 21:36:30.642812 12197 net.cpp:141] Setting up inception_3b/pool
I0403 21:36:30.642834 12197 net.cpp:148] Top shape: 24 256 28 28 (4816896)
I0403 21:36:30.642848 12197 net.cpp:156] Memory required for data: 763479072
I0403 21:36:30.642863 12197 layer_factory.hpp:77] Creating layer inception_3b/pool_proj
I0403 21:36:30.642886 12197 net.cpp:91] Creating Layer inception_3b/pool_proj
I0403 21:36:30.642904 12197 net.cpp:425] inception_3b/pool_proj <- inception_3b/pool
I0403 21:36:30.642922 12197 net.cpp:399] inception_3b/pool_proj -> inception_3b/pool_proj
I0403 21:36:30.643970 12197 net.cpp:141] Setting up inception_3b/pool_proj
I0403 21:36:30.643998 12197 net.cpp:148] Top shape: 24 64 28 28 (1204224)
I0403 21:36:30.644013 12197 net.cpp:156] Memory required for data: 768295968
I0403 21:36:30.644032 12197 layer_factory.hpp:77] Creating layer inception_3b/relu_pool_proj
I0403 21:36:30.644057 12197 net.cpp:91] Creating Layer inception_3b/relu_pool_proj
I0403 21:36:30.644074 12197 net.cpp:425] inception_3b/relu_pool_proj <- inception_3b/pool_proj
I0403 21:36:30.644091 12197 net.cpp:386] inception_3b/relu_pool_proj -> inception_3b/pool_proj (in-place)
I0403 21:36:30.644467 12197 net.cpp:141] Setting up inception_3b/relu_pool_proj
I0403 21:36:30.644493 12197 net.cpp:148] Top shape: 24 64 28 28 (1204224)
I0403 21:36:30.644510 12197 net.cpp:156] Memory required for data: 773112864
I0403 21:36:30.644525 12197 layer_factory.hpp:77] Creating layer inception_3b/output
I0403 21:36:30.644541 12197 net.cpp:91] Creating Layer inception_3b/output
I0403 21:36:30.644557 12197 net.cpp:425] inception_3b/output <- inception_3b/1x1
I0403 21:36:30.644573 12197 net.cpp:425] inception_3b/output <- inception_3b/3x3
I0403 21:36:30.644589 12197 net.cpp:425] inception_3b/output <- inception_3b/5x5
I0403 21:36:30.644604 12197 net.cpp:425] inception_3b/output <- inception_3b/pool_proj
I0403 21:36:30.644624 12197 net.cpp:399] inception_3b/output -> inception_3b/output
I0403 21:36:30.644668 12197 net.cpp:141] Setting up inception_3b/output
I0403 21:36:30.644695 12197 net.cpp:148] Top shape: 24 480 28 28 (9031680)
I0403 21:36:30.644711 12197 net.cpp:156] Memory required for data: 809239584
I0403 21:36:30.644726 12197 layer_factory.hpp:77] Creating layer pool3/3x3_s2
I0403 21:36:30.644742 12197 net.cpp:91] Creating Layer pool3/3x3_s2
I0403 21:36:30.644758 12197 net.cpp:425] pool3/3x3_s2 <- inception_3b/output
I0403 21:36:30.644778 12197 net.cpp:399] pool3/3x3_s2 -> pool3/3x3_s2
I0403 21:36:30.644850 12197 net.cpp:141] Setting up pool3/3x3_s2
I0403 21:36:30.644873 12197 net.cpp:148] Top shape: 24 480 14 14 (2257920)
I0403 21:36:30.644888 12197 net.cpp:156] Memory required for data: 818271264
I0403 21:36:30.644903 12197 layer_factory.hpp:77] Creating layer pool3/3x3_s2_pool3/3x3_s2_0_split
I0403 21:36:30.644922 12197 net.cpp:91] Creating Layer pool3/3x3_s2_pool3/3x3_s2_0_split
I0403 21:36:30.644938 12197 net.cpp:425] pool3/3x3_s2_pool3/3x3_s2_0_split <- pool3/3x3_s2
I0403 21:36:30.644955 12197 net.cpp:399] pool3/3x3_s2_pool3/3x3_s2_0_split -> pool3/3x3_s2_pool3/3x3_s2_0_split_0
I0403 21:36:30.644974 12197 net.cpp:399] pool3/3x3_s2_pool3/3x3_s2_0_split -> pool3/3x3_s2_pool3/3x3_s2_0_split_1
I0403 21:36:30.644994 12197 net.cpp:399] pool3/3x3_s2_pool3/3x3_s2_0_split -> pool3/3x3_s2_pool3/3x3_s2_0_split_2
I0403 21:36:30.645015 12197 net.cpp:399] pool3/3x3_s2_pool3/3x3_s2_0_split -> pool3/3x3_s2_pool3/3x3_s2_0_split_3
I0403 21:36:30.645093 12197 net.cpp:141] Setting up pool3/3x3_s2_pool3/3x3_s2_0_split
I0403 21:36:30.645117 12197 net.cpp:148] Top shape: 24 480 14 14 (2257920)
I0403 21:36:30.645133 12197 net.cpp:148] Top shape: 24 480 14 14 (2257920)
I0403 21:36:30.645148 12197 net.cpp:148] Top shape: 24 480 14 14 (2257920)
I0403 21:36:30.645164 12197 net.cpp:148] Top shape: 24 480 14 14 (2257920)
I0403 21:36:30.645177 12197 net.cpp:156] Memory required for data: 854397984
I0403 21:36:30.645191 12197 layer_factory.hpp:77] Creating layer inception_4a/1x1
I0403 21:36:30.645218 12197 net.cpp:91] Creating Layer inception_4a/1x1
I0403 21:36:30.645237 12197 net.cpp:425] inception_4a/1x1 <- pool3/3x3_s2_pool3/3x3_s2_0_split_0
I0403 21:36:30.645259 12197 net.cpp:399] inception_4a/1x1 -> inception_4a/1x1
I0403 21:36:30.646809 12197 net.cpp:141] Setting up inception_4a/1x1
I0403 21:36:30.646837 12197 net.cpp:148] Top shape: 24 192 14 14 (903168)
I0403 21:36:30.646852 12197 net.cpp:156] Memory required for data: 858010656
I0403 21:36:30.646870 12197 layer_factory.hpp:77] Creating layer inception_4a/relu_1x1
I0403 21:36:30.646890 12197 net.cpp:91] Creating Layer inception_4a/relu_1x1
I0403 21:36:30.646908 12197 net.cpp:425] inception_4a/relu_1x1 <- inception_4a/1x1
I0403 21:36:30.646925 12197 net.cpp:386] inception_4a/relu_1x1 -> inception_4a/1x1 (in-place)
I0403 21:36:30.647099 12197 net.cpp:141] Setting up inception_4a/relu_1x1
I0403 21:36:30.647126 12197 net.cpp:148] Top shape: 24 192 14 14 (903168)
I0403 21:36:30.647142 12197 net.cpp:156] Memory required for data: 861623328
I0403 21:36:30.647157 12197 layer_factory.hpp:77] Creating layer inception_4a/3x3_reduce
I0403 21:36:30.647179 12197 net.cpp:91] Creating Layer inception_4a/3x3_reduce
I0403 21:36:30.647197 12197 net.cpp:425] inception_4a/3x3_reduce <- pool3/3x3_s2_pool3/3x3_s2_0_split_1
I0403 21:36:30.647220 12197 net.cpp:399] inception_4a/3x3_reduce -> inception_4a/3x3_reduce
I0403 21:36:30.648489 12197 net.cpp:141] Setting up inception_4a/3x3_reduce
I0403 21:36:30.648516 12197 net.cpp:148] Top shape: 24 96 14 14 (451584)
I0403 21:36:30.648532 12197 net.cpp:156] Memory required for data: 863429664
I0403 21:36:30.648556 12197 layer_factory.hpp:77] Creating layer inception_4a/relu_3x3_reduce
I0403 21:36:30.648576 12197 net.cpp:91] Creating Layer inception_4a/relu_3x3_reduce
I0403 21:36:30.648593 12197 net.cpp:425] inception_4a/relu_3x3_reduce <- inception_4a/3x3_reduce
I0403 21:36:30.648612 12197 net.cpp:386] inception_4a/relu_3x3_reduce -> inception_4a/3x3_reduce (in-place)
I0403 21:36:30.648788 12197 net.cpp:141] Setting up inception_4a/relu_3x3_reduce
I0403 21:36:30.648816 12197 net.cpp:148] Top shape: 24 96 14 14 (451584)
I0403 21:36:30.648831 12197 net.cpp:156] Memory required for data: 865236000
I0403 21:36:30.648846 12197 layer_factory.hpp:77] Creating layer inception_4a/3x3
I0403 21:36:30.648867 12197 net.cpp:91] Creating Layer inception_4a/3x3
I0403 21:36:30.648883 12197 net.cpp:425] inception_4a/3x3 <- inception_4a/3x3_reduce
I0403 21:36:30.648905 12197 net.cpp:399] inception_4a/3x3 -> inception_4a/3x3
I0403 21:36:30.651589 12197 net.cpp:141] Setting up inception_4a/3x3
I0403 21:36:30.651618 12197 net.cpp:148] Top shape: 24 208 14 14 (978432)
I0403 21:36:30.651631 12197 net.cpp:156] Memory required for data: 869149728
I0403 21:36:30.651653 12197 layer_factory.hpp:77] Creating layer inception_4a/relu_3x3
I0403 21:36:30.651670 12197 net.cpp:91] Creating Layer inception_4a/relu_3x3
I0403 21:36:30.651685 12197 net.cpp:425] inception_4a/relu_3x3 <- inception_4a/3x3
I0403 21:36:30.651701 12197 net.cpp:386] inception_4a/relu_3x3 -> inception_4a/3x3 (in-place)
I0403 21:36:30.651969 12197 net.cpp:141] Setting up inception_4a/relu_3x3
I0403 21:36:30.651994 12197 net.cpp:148] Top shape: 24 208 14 14 (978432)
I0403 21:36:30.652009 12197 net.cpp:156] Memory required for data: 873063456
I0403 21:36:30.652024 12197 layer_factory.hpp:77] Creating layer inception_4a/5x5_reduce
I0403 21:36:30.652046 12197 net.cpp:91] Creating Layer inception_4a/5x5_reduce
I0403 21:36:30.652062 12197 net.cpp:425] inception_4a/5x5_reduce <- pool3/3x3_s2_pool3/3x3_s2_0_split_2
I0403 21:36:30.652081 12197 net.cpp:399] inception_4a/5x5_reduce -> inception_4a/5x5_reduce
I0403 21:36:30.653048 12197 net.cpp:141] Setting up inception_4a/5x5_reduce
I0403 21:36:30.653076 12197 net.cpp:148] Top shape: 24 16 14 14 (75264)
I0403 21:36:30.653091 12197 net.cpp:156] Memory required for data: 873364512
I0403 21:36:30.653110 12197 layer_factory.hpp:77] Creating layer inception_4a/relu_5x5_reduce
I0403 21:36:30.653126 12197 net.cpp:91] Creating Layer inception_4a/relu_5x5_reduce
I0403 21:36:30.653141 12197 net.cpp:425] inception_4a/relu_5x5_reduce <- inception_4a/5x5_reduce
I0403 21:36:30.653159 12197 net.cpp:386] inception_4a/relu_5x5_reduce -> inception_4a/5x5_reduce (in-place)
I0403 21:36:30.653332 12197 net.cpp:141] Setting up inception_4a/relu_5x5_reduce
I0403 21:36:30.653355 12197 net.cpp:148] Top shape: 24 16 14 14 (75264)
I0403 21:36:30.653369 12197 net.cpp:156] Memory required for data: 873665568
I0403 21:36:30.653383 12197 layer_factory.hpp:77] Creating layer inception_4a/5x5
I0403 21:36:30.653404 12197 net.cpp:91] Creating Layer inception_4a/5x5
I0403 21:36:30.653420 12197 net.cpp:425] inception_4a/5x5 <- inception_4a/5x5_reduce
I0403 21:36:30.653440 12197 net.cpp:399] inception_4a/5x5 -> inception_4a/5x5
I0403 21:36:30.654463 12197 net.cpp:141] Setting up inception_4a/5x5
I0403 21:36:30.654489 12197 net.cpp:148] Top shape: 24 48 14 14 (225792)
I0403 21:36:30.654503 12197 net.cpp:156] Memory required for data: 874568736
I0403 21:36:30.654520 12197 layer_factory.hpp:77] Creating layer inception_4a/relu_5x5
I0403 21:36:30.654538 12197 net.cpp:91] Creating Layer inception_4a/relu_5x5
I0403 21:36:30.654556 12197 net.cpp:425] inception_4a/relu_5x5 <- inception_4a/5x5
I0403 21:36:30.654572 12197 net.cpp:386] inception_4a/relu_5x5 -> inception_4a/5x5 (in-place)
I0403 21:36:30.654742 12197 net.cpp:141] Setting up inception_4a/relu_5x5
I0403 21:36:30.654764 12197 net.cpp:148] Top shape: 24 48 14 14 (225792)
I0403 21:36:30.654778 12197 net.cpp:156] Memory required for data: 875471904
I0403 21:36:30.654791 12197 layer_factory.hpp:77] Creating layer inception_4a/pool
I0403 21:36:30.654811 12197 net.cpp:91] Creating Layer inception_4a/pool
I0403 21:36:30.654826 12197 net.cpp:425] inception_4a/pool <- pool3/3x3_s2_pool3/3x3_s2_0_split_3
I0403 21:36:30.654844 12197 net.cpp:399] inception_4a/pool -> inception_4a/pool
I0403 21:36:30.654902 12197 net.cpp:141] Setting up inception_4a/pool
I0403 21:36:30.654924 12197 net.cpp:148] Top shape: 24 480 14 14 (2257920)
I0403 21:36:30.654937 12197 net.cpp:156] Memory required for data: 884503584
I0403 21:36:30.654950 12197 layer_factory.hpp:77] Creating layer inception_4a/pool_proj
I0403 21:36:30.654971 12197 net.cpp:91] Creating Layer inception_4a/pool_proj
I0403 21:36:30.654988 12197 net.cpp:425] inception_4a/pool_proj <- inception_4a/pool
I0403 21:36:30.655007 12197 net.cpp:399] inception_4a/pool_proj -> inception_4a/pool_proj
I0403 21:36:30.656095 12197 net.cpp:141] Setting up inception_4a/pool_proj
I0403 21:36:30.656122 12197 net.cpp:148] Top shape: 24 64 14 14 (301056)
I0403 21:36:30.656152 12197 net.cpp:156] Memory required for data: 885707808
I0403 21:36:30.656170 12197 layer_factory.hpp:77] Creating layer inception_4a/relu_pool_proj
I0403 21:36:30.656191 12197 net.cpp:91] Creating Layer inception_4a/relu_pool_proj
I0403 21:36:30.656211 12197 net.cpp:425] inception_4a/relu_pool_proj <- inception_4a/pool_proj
I0403 21:36:30.656230 12197 net.cpp:386] inception_4a/relu_pool_proj -> inception_4a/pool_proj (in-place)
I0403 21:36:30.656491 12197 net.cpp:141] Setting up inception_4a/relu_pool_proj
I0403 21:36:30.656514 12197 net.cpp:148] Top shape: 24 64 14 14 (301056)
I0403 21:36:30.656528 12197 net.cpp:156] Memory required for data: 886912032
I0403 21:36:30.656543 12197 layer_factory.hpp:77] Creating layer inception_4a/output
I0403 21:36:30.656561 12197 net.cpp:91] Creating Layer inception_4a/output
I0403 21:36:30.656577 12197 net.cpp:425] inception_4a/output <- inception_4a/1x1
I0403 21:36:30.656592 12197 net.cpp:425] inception_4a/output <- inception_4a/3x3
I0403 21:36:30.656607 12197 net.cpp:425] inception_4a/output <- inception_4a/5x5
I0403 21:36:30.656622 12197 net.cpp:425] inception_4a/output <- inception_4a/pool_proj
I0403 21:36:30.656638 12197 net.cpp:399] inception_4a/output -> inception_4a/output
I0403 21:36:30.656682 12197 net.cpp:141] Setting up inception_4a/output
I0403 21:36:30.656703 12197 net.cpp:148] Top shape: 24 512 14 14 (2408448)
I0403 21:36:30.656718 12197 net.cpp:156] Memory required for data: 896545824
I0403 21:36:30.656731 12197 layer_factory.hpp:77] Creating layer inception_4a/output_inception_4a/output_0_split
I0403 21:36:30.656747 12197 net.cpp:91] Creating Layer inception_4a/output_inception_4a/output_0_split
I0403 21:36:30.656762 12197 net.cpp:425] inception_4a/output_inception_4a/output_0_split <- inception_4a/output
I0403 21:36:30.656781 12197 net.cpp:399] inception_4a/output_inception_4a/output_0_split -> inception_4a/output_inception_4a/output_0_split_0
I0403 21:36:30.656801 12197 net.cpp:399] inception_4a/output_inception_4a/output_0_split -> inception_4a/output_inception_4a/output_0_split_1
I0403 21:36:30.656821 12197 net.cpp:399] inception_4a/output_inception_4a/output_0_split -> inception_4a/output_inception_4a/output_0_split_2
I0403 21:36:30.656839 12197 net.cpp:399] inception_4a/output_inception_4a/output_0_split -> inception_4a/output_inception_4a/output_0_split_3
I0403 21:36:30.656858 12197 net.cpp:399] inception_4a/output_inception_4a/output_0_split -> inception_4a/output_inception_4a/output_0_split_4
I0403 21:36:30.656945 12197 net.cpp:141] Setting up inception_4a/output_inception_4a/output_0_split
I0403 21:36:30.656967 12197 net.cpp:148] Top shape: 24 512 14 14 (2408448)
I0403 21:36:30.656985 12197 net.cpp:148] Top shape: 24 512 14 14 (2408448)
I0403 21:36:30.657002 12197 net.cpp:148] Top shape: 24 512 14 14 (2408448)
I0403 21:36:30.657016 12197 net.cpp:148] Top shape: 24 512 14 14 (2408448)
I0403 21:36:30.657030 12197 net.cpp:148] Top shape: 24 512 14 14 (2408448)
I0403 21:36:30.657043 12197 net.cpp:156] Memory required for data: 944714784
I0403 21:36:30.657058 12197 layer_factory.hpp:77] Creating layer loss1/ave_pool
I0403 21:36:30.657074 12197 net.cpp:91] Creating Layer loss1/ave_pool
I0403 21:36:30.657088 12197 net.cpp:425] loss1/ave_pool <- inception_4a/output_inception_4a/output_0_split_0
I0403 21:36:30.657107 12197 net.cpp:399] loss1/ave_pool -> loss1/ave_pool
I0403 21:36:30.657305 12197 net.cpp:141] Setting up loss1/ave_pool
I0403 21:36:30.657330 12197 net.cpp:148] Top shape: 24 512 4 4 (196608)
I0403 21:36:30.657343 12197 net.cpp:156] Memory required for data: 945501216
I0403 21:36:30.657357 12197 layer_factory.hpp:77] Creating layer loss1/conv
I0403 21:36:30.657382 12197 net.cpp:91] Creating Layer loss1/conv
I0403 21:36:30.657398 12197 net.cpp:425] loss1/conv <- loss1/ave_pool
I0403 21:36:30.657418 12197 net.cpp:399] loss1/conv -> loss1/conv
I0403 21:36:30.658738 12197 net.cpp:141] Setting up loss1/conv
I0403 21:36:30.658767 12197 net.cpp:148] Top shape: 24 128 4 4 (49152)
I0403 21:36:30.658783 12197 net.cpp:156] Memory required for data: 945697824
I0403 21:36:30.658814 12197 layer_factory.hpp:77] Creating layer loss1/relu_conv
I0403 21:36:30.658833 12197 net.cpp:91] Creating Layer loss1/relu_conv
I0403 21:36:30.658846 12197 net.cpp:425] loss1/relu_conv <- loss1/conv
I0403 21:36:30.658865 12197 net.cpp:386] loss1/relu_conv -> loss1/conv (in-place)
I0403 21:36:30.659127 12197 net.cpp:141] Setting up loss1/relu_conv
I0403 21:36:30.659154 12197 net.cpp:148] Top shape: 24 128 4 4 (49152)
I0403 21:36:30.659170 12197 net.cpp:156] Memory required for data: 945894432
I0403 21:36:30.659185 12197 layer_factory.hpp:77] Creating layer loss1/fc
I0403 21:36:30.659211 12197 net.cpp:91] Creating Layer loss1/fc
I0403 21:36:30.659229 12197 net.cpp:425] loss1/fc <- loss1/conv
I0403 21:36:30.659250 12197 net.cpp:399] loss1/fc -> loss1/fc
I0403 21:36:30.676360 12197 net.cpp:141] Setting up loss1/fc
I0403 21:36:30.676394 12197 net.cpp:148] Top shape: 24 1024 (24576)
I0403 21:36:30.676409 12197 net.cpp:156] Memory required for data: 945992736
I0403 21:36:30.676427 12197 layer_factory.hpp:77] Creating layer loss1/relu_fc
I0403 21:36:30.676446 12197 net.cpp:91] Creating Layer loss1/relu_fc
I0403 21:36:30.676461 12197 net.cpp:425] loss1/relu_fc <- loss1/fc
I0403 21:36:30.676477 12197 net.cpp:386] loss1/relu_fc -> loss1/fc (in-place)
I0403 21:36:30.676653 12197 net.cpp:141] Setting up loss1/relu_fc
I0403 21:36:30.676681 12197 net.cpp:148] Top shape: 24 1024 (24576)
I0403 21:36:30.676695 12197 net.cpp:156] Memory required for data: 946091040
I0403 21:36:30.676710 12197 layer_factory.hpp:77] Creating layer loss1/drop_fc
I0403 21:36:30.676739 12197 net.cpp:91] Creating Layer loss1/drop_fc
I0403 21:36:30.676756 12197 net.cpp:425] loss1/drop_fc <- loss1/fc
I0403 21:36:30.676774 12197 net.cpp:386] loss1/drop_fc -> loss1/fc (in-place)
I0403 21:36:30.676822 12197 net.cpp:141] Setting up loss1/drop_fc
I0403 21:36:30.676844 12197 net.cpp:148] Top shape: 24 1024 (24576)
I0403 21:36:30.676858 12197 net.cpp:156] Memory required for data: 946189344
I0403 21:36:30.676872 12197 layer_factory.hpp:77] Creating layer loss1/classifier_plantvillage
I0403 21:36:30.676889 12197 net.cpp:91] Creating Layer loss1/classifier_plantvillage
I0403 21:36:30.676903 12197 net.cpp:425] loss1/classifier_plantvillage <- loss1/fc
I0403 21:36:30.676924 12197 net.cpp:399] loss1/classifier_plantvillage -> loss1/classifier_plantvillage
I0403 21:36:30.677817 12197 net.cpp:141] Setting up loss1/classifier_plantvillage
I0403 21:36:30.677845 12197 net.cpp:148] Top shape: 24 38 (912)
I0403 21:36:30.677860 12197 net.cpp:156] Memory required for data: 946192992
I0403 21:36:30.677875 12197 layer_factory.hpp:77] Creating layer loss1/classifier_plantvillage_loss1/classifier_plantvillage_0_split
I0403 21:36:30.677894 12197 net.cpp:91] Creating Layer loss1/classifier_plantvillage_loss1/classifier_plantvillage_0_split
I0403 21:36:30.677911 12197 net.cpp:425] loss1/classifier_plantvillage_loss1/classifier_plantvillage_0_split <- loss1/classifier_plantvillage
I0403 21:36:30.677927 12197 net.cpp:399] loss1/classifier_plantvillage_loss1/classifier_plantvillage_0_split -> loss1/classifier_plantvillage_loss1/classifier_plantvillage_0_split_0
I0403 21:36:30.677947 12197 net.cpp:399] loss1/classifier_plantvillage_loss1/classifier_plantvillage_0_split -> loss1/classifier_plantvillage_loss1/classifier_plantvillage_0_split_1
I0403 21:36:30.677968 12197 net.cpp:399] loss1/classifier_plantvillage_loss1/classifier_plantvillage_0_split -> loss1/classifier_plantvillage_loss1/classifier_plantvillage_0_split_2
I0403 21:36:30.678031 12197 net.cpp:141] Setting up loss1/classifier_plantvillage_loss1/classifier_plantvillage_0_split
I0403 21:36:30.678053 12197 net.cpp:148] Top shape: 24 38 (912)
I0403 21:36:30.678068 12197 net.cpp:148] Top shape: 24 38 (912)
I0403 21:36:30.678083 12197 net.cpp:148] Top shape: 24 38 (912)
I0403 21:36:30.678097 12197 net.cpp:156] Memory required for data: 946203936
I0403 21:36:30.678112 12197 layer_factory.hpp:77] Creating layer inception_4b/1x1
I0403 21:36:30.678133 12197 net.cpp:91] Creating Layer inception_4b/1x1
I0403 21:36:30.678164 12197 net.cpp:425] inception_4b/1x1 <- inception_4a/output_inception_4a/output_0_split_1
I0403 21:36:30.678184 12197 net.cpp:399] inception_4b/1x1 -> inception_4b/1x1
I0403 21:36:30.679788 12197 net.cpp:141] Setting up inception_4b/1x1
I0403 21:36:30.679818 12197 net.cpp:148] Top shape: 24 160 14 14 (752640)
I0403 21:36:30.679836 12197 net.cpp:156] Memory required for data: 949214496
I0403 21:36:30.679853 12197 layer_factory.hpp:77] Creating layer inception_4b/relu_1x1
I0403 21:36:30.679870 12197 net.cpp:91] Creating Layer inception_4b/relu_1x1
I0403 21:36:30.679886 12197 net.cpp:425] inception_4b/relu_1x1 <- inception_4b/1x1
I0403 21:36:30.679905 12197 net.cpp:386] inception_4b/relu_1x1 -> inception_4b/1x1 (in-place)
I0403 21:36:30.680079 12197 net.cpp:141] Setting up inception_4b/relu_1x1
I0403 21:36:30.680104 12197 net.cpp:148] Top shape: 24 160 14 14 (752640)
I0403 21:36:30.680117 12197 net.cpp:156] Memory required for data: 952225056
I0403 21:36:30.680131 12197 layer_factory.hpp:77] Creating layer inception_4b/3x3_reduce
I0403 21:36:30.680155 12197 net.cpp:91] Creating Layer inception_4b/3x3_reduce
I0403 21:36:30.680172 12197 net.cpp:425] inception_4b/3x3_reduce <- inception_4a/output_inception_4a/output_0_split_2
I0403 21:36:30.680197 12197 net.cpp:399] inception_4b/3x3_reduce -> inception_4b/3x3_reduce
I0403 21:36:30.681526 12197 net.cpp:141] Setting up inception_4b/3x3_reduce
I0403 21:36:30.681553 12197 net.cpp:148] Top shape: 24 112 14 14 (526848)
I0403 21:36:30.681568 12197 net.cpp:156] Memory required for data: 954332448
I0403 21:36:30.681586 12197 layer_factory.hpp:77] Creating layer inception_4b/relu_3x3_reduce
I0403 21:36:30.681602 12197 net.cpp:91] Creating Layer inception_4b/relu_3x3_reduce
I0403 21:36:30.681618 12197 net.cpp:425] inception_4b/relu_3x3_reduce <- inception_4b/3x3_reduce
I0403 21:36:30.681638 12197 net.cpp:386] inception_4b/relu_3x3_reduce -> inception_4b/3x3_reduce (in-place)
I0403 21:36:30.681918 12197 net.cpp:141] Setting up inception_4b/relu_3x3_reduce
I0403 21:36:30.681944 12197 net.cpp:148] Top shape: 24 112 14 14 (526848)
I0403 21:36:30.681958 12197 net.cpp:156] Memory required for data: 956439840
I0403 21:36:30.681973 12197 layer_factory.hpp:77] Creating layer inception_4b/3x3
I0403 21:36:30.681995 12197 net.cpp:91] Creating Layer inception_4b/3x3
I0403 21:36:30.682013 12197 net.cpp:425] inception_4b/3x3 <- inception_4b/3x3_reduce
I0403 21:36:30.682034 12197 net.cpp:399] inception_4b/3x3 -> inception_4b/3x3
I0403 21:36:30.684958 12197 net.cpp:141] Setting up inception_4b/3x3
I0403 21:36:30.684988 12197 net.cpp:148] Top shape: 24 224 14 14 (1053696)
I0403 21:36:30.685003 12197 net.cpp:156] Memory required for data: 960654624
I0403 21:36:30.685020 12197 layer_factory.hpp:77] Creating layer inception_4b/relu_3x3
I0403 21:36:30.685040 12197 net.cpp:91] Creating Layer inception_4b/relu_3x3
I0403 21:36:30.685057 12197 net.cpp:425] inception_4b/relu_3x3 <- inception_4b/3x3
I0403 21:36:30.685075 12197 net.cpp:386] inception_4b/relu_3x3 -> inception_4b/3x3 (in-place)
I0403 21:36:30.685261 12197 net.cpp:141] Setting up inception_4b/relu_3x3
I0403 21:36:30.685288 12197 net.cpp:148] Top shape: 24 224 14 14 (1053696)
I0403 21:36:30.685303 12197 net.cpp:156] Memory required for data: 964869408
I0403 21:36:30.685317 12197 layer_factory.hpp:77] Creating layer inception_4b/5x5_reduce
I0403 21:36:30.685340 12197 net.cpp:91] Creating Layer inception_4b/5x5_reduce
I0403 21:36:30.685358 12197 net.cpp:425] inception_4b/5x5_reduce <- inception_4a/output_inception_4a/output_0_split_3
I0403 21:36:30.685376 12197 net.cpp:399] inception_4b/5x5_reduce -> inception_4b/5x5_reduce
I0403 21:36:30.686434 12197 net.cpp:141] Setting up inception_4b/5x5_reduce
I0403 21:36:30.686461 12197 net.cpp:148] Top shape: 24 24 14 14 (112896)
I0403 21:36:30.686476 12197 net.cpp:156] Memory required for data: 965320992
I0403 21:36:30.686494 12197 layer_factory.hpp:77] Creating layer inception_4b/relu_5x5_reduce
I0403 21:36:30.686511 12197 net.cpp:91] Creating Layer inception_4b/relu_5x5_reduce
I0403 21:36:30.686542 12197 net.cpp:425] inception_4b/relu_5x5_reduce <- inception_4b/5x5_reduce
I0403 21:36:30.686561 12197 net.cpp:386] inception_4b/relu_5x5_reduce -> inception_4b/5x5_reduce (in-place)
I0403 21:36:30.686743 12197 net.cpp:141] Setting up inception_4b/relu_5x5_reduce
I0403 21:36:30.686766 12197 net.cpp:148] Top shape: 24 24 14 14 (112896)
I0403 21:36:30.686781 12197 net.cpp:156] Memory required for data: 965772576
I0403 21:36:30.686795 12197 layer_factory.hpp:77] Creating layer inception_4b/5x5
I0403 21:36:30.686817 12197 net.cpp:91] Creating Layer inception_4b/5x5
I0403 21:36:30.686833 12197 net.cpp:425] inception_4b/5x5 <- inception_4b/5x5_reduce
I0403 21:36:30.686854 12197 net.cpp:399] inception_4b/5x5 -> inception_4b/5x5
I0403 21:36:30.688050 12197 net.cpp:141] Setting up inception_4b/5x5
I0403 21:36:30.688078 12197 net.cpp:148] Top shape: 24 64 14 14 (301056)
I0403 21:36:30.688096 12197 net.cpp:156] Memory required for data: 966976800
I0403 21:36:30.688113 12197 layer_factory.hpp:77] Creating layer inception_4b/relu_5x5
I0403 21:36:30.688130 12197 net.cpp:91] Creating Layer inception_4b/relu_5x5
I0403 21:36:30.688145 12197 net.cpp:425] inception_4b/relu_5x5 <- inception_4b/5x5
I0403 21:36:30.688164 12197 net.cpp:386] inception_4b/relu_5x5 -> inception_4b/5x5 (in-place)
I0403 21:36:30.688448 12197 net.cpp:141] Setting up inception_4b/relu_5x5
I0403 21:36:30.688477 12197 net.cpp:148] Top shape: 24 64 14 14 (301056)
I0403 21:36:30.688493 12197 net.cpp:156] Memory required for data: 968181024
I0403 21:36:30.688508 12197 layer_factory.hpp:77] Creating layer inception_4b/pool
I0403 21:36:30.688524 12197 net.cpp:91] Creating Layer inception_4b/pool
I0403 21:36:30.688539 12197 net.cpp:425] inception_4b/pool <- inception_4a/output_inception_4a/output_0_split_4
I0403 21:36:30.688560 12197 net.cpp:399] inception_4b/pool -> inception_4b/pool
I0403 21:36:30.688621 12197 net.cpp:141] Setting up inception_4b/pool
I0403 21:36:30.688644 12197 net.cpp:148] Top shape: 24 512 14 14 (2408448)
I0403 21:36:30.688658 12197 net.cpp:156] Memory required for data: 977814816
I0403 21:36:30.688673 12197 layer_factory.hpp:77] Creating layer inception_4b/pool_proj
I0403 21:36:30.688694 12197 net.cpp:91] Creating Layer inception_4b/pool_proj
I0403 21:36:30.688711 12197 net.cpp:425] inception_4b/pool_proj <- inception_4b/pool
I0403 21:36:30.688731 12197 net.cpp:399] inception_4b/pool_proj -> inception_4b/pool_proj
I0403 21:36:30.689903 12197 net.cpp:141] Setting up inception_4b/pool_proj
I0403 21:36:30.689934 12197 net.cpp:148] Top shape: 24 64 14 14 (301056)
I0403 21:36:30.689949 12197 net.cpp:156] Memory required for data: 979019040
I0403 21:36:30.689967 12197 layer_factory.hpp:77] Creating layer inception_4b/relu_pool_proj
I0403 21:36:30.689983 12197 net.cpp:91] Creating Layer inception_4b/relu_pool_proj
I0403 21:36:30.689999 12197 net.cpp:425] inception_4b/relu_pool_proj <- inception_4b/pool_proj
I0403 21:36:30.690018 12197 net.cpp:386] inception_4b/relu_pool_proj -> inception_4b/pool_proj (in-place)
I0403 21:36:30.690196 12197 net.cpp:141] Setting up inception_4b/relu_pool_proj
I0403 21:36:30.690224 12197 net.cpp:148] Top shape: 24 64 14 14 (301056)
I0403 21:36:30.690239 12197 net.cpp:156] Memory required for data: 980223264
I0403 21:36:30.690254 12197 layer_factory.hpp:77] Creating layer inception_4b/output
I0403 21:36:30.690271 12197 net.cpp:91] Creating Layer inception_4b/output
I0403 21:36:30.690286 12197 net.cpp:425] inception_4b/output <- inception_4b/1x1
I0403 21:36:30.690302 12197 net.cpp:425] inception_4b/output <- inception_4b/3x3
I0403 21:36:30.690318 12197 net.cpp:425] inception_4b/output <- inception_4b/5x5
I0403 21:36:30.690332 12197 net.cpp:425] inception_4b/output <- inception_4b/pool_proj
I0403 21:36:30.690351 12197 net.cpp:399] inception_4b/output -> inception_4b/output
I0403 21:36:30.690398 12197 net.cpp:141] Setting up inception_4b/output
I0403 21:36:30.690421 12197 net.cpp:148] Top shape: 24 512 14 14 (2408448)
I0403 21:36:30.690436 12197 net.cpp:156] Memory required for data: 989857056
I0403 21:36:30.690464 12197 layer_factory.hpp:77] Creating layer inception_4b/output_inception_4b/output_0_split
I0403 21:36:30.690481 12197 net.cpp:91] Creating Layer inception_4b/output_inception_4b/output_0_split
I0403 21:36:30.690496 12197 net.cpp:425] inception_4b/output_inception_4b/output_0_split <- inception_4b/output
I0403 21:36:30.690516 12197 net.cpp:399] inception_4b/output_inception_4b/output_0_split -> inception_4b/output_inception_4b/output_0_split_0
I0403 21:36:30.690537 12197 net.cpp:399] inception_4b/output_inception_4b/output_0_split -> inception_4b/output_inception_4b/output_0_split_1
I0403 21:36:30.690557 12197 net.cpp:399] inception_4b/output_inception_4b/output_0_split -> inception_4b/output_inception_4b/output_0_split_2
I0403 21:36:30.690577 12197 net.cpp:399] inception_4b/output_inception_4b/output_0_split -> inception_4b/output_inception_4b/output_0_split_3
I0403 21:36:30.690659 12197 net.cpp:141] Setting up inception_4b/output_inception_4b/output_0_split
I0403 21:36:30.690680 12197 net.cpp:148] Top shape: 24 512 14 14 (2408448)
I0403 21:36:30.690696 12197 net.cpp:148] Top shape: 24 512 14 14 (2408448)
I0403 21:36:30.690711 12197 net.cpp:148] Top shape: 24 512 14 14 (2408448)
I0403 21:36:30.690726 12197 net.cpp:148] Top shape: 24 512 14 14 (2408448)
I0403 21:36:30.690738 12197 net.cpp:156] Memory required for data: 1028392224
I0403 21:36:30.690753 12197 layer_factory.hpp:77] Creating layer inception_4c/1x1
I0403 21:36:30.690776 12197 net.cpp:91] Creating Layer inception_4c/1x1
I0403 21:36:30.690793 12197 net.cpp:425] inception_4c/1x1 <- inception_4b/output_inception_4b/output_0_split_0
I0403 21:36:30.690810 12197 net.cpp:399] inception_4c/1x1 -> inception_4c/1x1
I0403 21:36:30.692217 12197 net.cpp:141] Setting up inception_4c/1x1
I0403 21:36:30.692245 12197 net.cpp:148] Top shape: 24 128 14 14 (602112)
I0403 21:36:30.692261 12197 net.cpp:156] Memory required for data: 1030800672
I0403 21:36:30.692278 12197 layer_factory.hpp:77] Creating layer inception_4c/relu_1x1
I0403 21:36:30.692298 12197 net.cpp:91] Creating Layer inception_4c/relu_1x1
I0403 21:36:30.692314 12197 net.cpp:425] inception_4c/relu_1x1 <- inception_4c/1x1
I0403 21:36:30.692332 12197 net.cpp:386] inception_4c/relu_1x1 -> inception_4c/1x1 (in-place)
I0403 21:36:30.692512 12197 net.cpp:141] Setting up inception_4c/relu_1x1
I0403 21:36:30.692538 12197 net.cpp:148] Top shape: 24 128 14 14 (602112)
I0403 21:36:30.692553 12197 net.cpp:156] Memory required for data: 1033209120
I0403 21:36:30.692567 12197 layer_factory.hpp:77] Creating layer inception_4c/3x3_reduce
I0403 21:36:30.692589 12197 net.cpp:91] Creating Layer inception_4c/3x3_reduce
I0403 21:36:30.692606 12197 net.cpp:425] inception_4c/3x3_reduce <- inception_4b/output_inception_4b/output_0_split_1
I0403 21:36:30.692625 12197 net.cpp:399] inception_4c/3x3_reduce -> inception_4c/3x3_reduce
I0403 21:36:30.694548 12197 net.cpp:141] Setting up inception_4c/3x3_reduce
I0403 21:36:30.694581 12197 net.cpp:148] Top shape: 24 128 14 14 (602112)
I0403 21:36:30.694597 12197 net.cpp:156] Memory required for data: 1035617568
I0403 21:36:30.694615 12197 layer_factory.hpp:77] Creating layer inception_4c/relu_3x3_reduce
I0403 21:36:30.694634 12197 net.cpp:91] Creating Layer inception_4c/relu_3x3_reduce
I0403 21:36:30.694650 12197 net.cpp:425] inception_4c/relu_3x3_reduce <- inception_4c/3x3_reduce
I0403 21:36:30.694666 12197 net.cpp:386] inception_4c/relu_3x3_reduce -> inception_4c/3x3_reduce (in-place)
I0403 21:36:30.694947 12197 net.cpp:141] Setting up inception_4c/relu_3x3_reduce
I0403 21:36:30.694975 12197 net.cpp:148] Top shape: 24 128 14 14 (602112)
I0403 21:36:30.694990 12197 net.cpp:156] Memory required for data: 1038026016
I0403 21:36:30.695005 12197 layer_factory.hpp:77] Creating layer inception_4c/3x3
I0403 21:36:30.695029 12197 net.cpp:91] Creating Layer inception_4c/3x3
I0403 21:36:30.695045 12197 net.cpp:425] inception_4c/3x3 <- inception_4c/3x3_reduce
I0403 21:36:30.695065 12197 net.cpp:399] inception_4c/3x3 -> inception_4c/3x3
I0403 21:36:30.698554 12197 net.cpp:141] Setting up inception_4c/3x3
I0403 21:36:30.698596 12197 net.cpp:148] Top shape: 24 256 14 14 (1204224)
I0403 21:36:30.698611 12197 net.cpp:156] Memory required for data: 1042842912
I0403 21:36:30.698643 12197 layer_factory.hpp:77] Creating layer inception_4c/relu_3x3
I0403 21:36:30.698662 12197 net.cpp:91] Creating Layer inception_4c/relu_3x3
I0403 21:36:30.698678 12197 net.cpp:425] inception_4c/relu_3x3 <- inception_4c/3x3
I0403 21:36:30.698696 12197 net.cpp:386] inception_4c/relu_3x3 -> inception_4c/3x3 (in-place)
I0403 21:36:30.698870 12197 net.cpp:141] Setting up inception_4c/relu_3x3
I0403 21:36:30.698894 12197 net.cpp:148] Top shape: 24 256 14 14 (1204224)
I0403 21:36:30.698909 12197 net.cpp:156] Memory required for data: 1047659808
I0403 21:36:30.698922 12197 layer_factory.hpp:77] Creating layer inception_4c/5x5_reduce
I0403 21:36:30.698945 12197 net.cpp:91] Creating Layer inception_4c/5x5_reduce
I0403 21:36:30.698962 12197 net.cpp:425] inception_4c/5x5_reduce <- inception_4b/output_inception_4b/output_0_split_2
I0403 21:36:30.698987 12197 net.cpp:399] inception_4c/5x5_reduce -> inception_4c/5x5_reduce
I0403 21:36:30.700026 12197 net.cpp:141] Setting up inception_4c/5x5_reduce
I0403 21:36:30.700054 12197 net.cpp:148] Top shape: 24 24 14 14 (112896)
I0403 21:36:30.700069 12197 net.cpp:156] Memory required for data: 1048111392
I0403 21:36:30.700088 12197 layer_factory.hpp:77] Creating layer inception_4c/relu_5x5_reduce
I0403 21:36:30.700104 12197 net.cpp:91] Creating Layer inception_4c/relu_5x5_reduce
I0403 21:36:30.700119 12197 net.cpp:425] inception_4c/relu_5x5_reduce <- inception_4c/5x5_reduce
I0403 21:36:30.700137 12197 net.cpp:386] inception_4c/relu_5x5_reduce -> inception_4c/5x5_reduce (in-place)
I0403 21:36:30.700321 12197 net.cpp:141] Setting up inception_4c/relu_5x5_reduce
I0403 21:36:30.700345 12197 net.cpp:148] Top shape: 24 24 14 14 (112896)
I0403 21:36:30.700358 12197 net.cpp:156] Memory required for data: 1048562976
I0403 21:36:30.700372 12197 layer_factory.hpp:77] Creating layer inception_4c/5x5
I0403 21:36:30.700393 12197 net.cpp:91] Creating Layer inception_4c/5x5
I0403 21:36:30.700410 12197 net.cpp:425] inception_4c/5x5 <- inception_4c/5x5_reduce
I0403 21:36:30.700431 12197 net.cpp:399] inception_4c/5x5 -> inception_4c/5x5
I0403 21:36:30.701616 12197 net.cpp:141] Setting up inception_4c/5x5
I0403 21:36:30.701642 12197 net.cpp:148] Top shape: 24 64 14 14 (301056)
I0403 21:36:30.701655 12197 net.cpp:156] Memory required for data: 1049767200
I0403 21:36:30.701673 12197 layer_factory.hpp:77] Creating layer inception_4c/relu_5x5
I0403 21:36:30.701692 12197 net.cpp:91] Creating Layer inception_4c/relu_5x5
I0403 21:36:30.701709 12197 net.cpp:425] inception_4c/relu_5x5 <- inception_4c/5x5
I0403 21:36:30.701725 12197 net.cpp:386] inception_4c/relu_5x5 -> inception_4c/5x5 (in-place)
I0403 21:36:30.702000 12197 net.cpp:141] Setting up inception_4c/relu_5x5
I0403 21:36:30.702025 12197 net.cpp:148] Top shape: 24 64 14 14 (301056)
I0403 21:36:30.702039 12197 net.cpp:156] Memory required for data: 1050971424
I0403 21:36:30.702052 12197 layer_factory.hpp:77] Creating layer inception_4c/pool
I0403 21:36:30.702069 12197 net.cpp:91] Creating Layer inception_4c/pool
I0403 21:36:30.702085 12197 net.cpp:425] inception_4c/pool <- inception_4b/output_inception_4b/output_0_split_3
I0403 21:36:30.702105 12197 net.cpp:399] inception_4c/pool -> inception_4c/pool
I0403 21:36:30.702167 12197 net.cpp:141] Setting up inception_4c/pool
I0403 21:36:30.702189 12197 net.cpp:148] Top shape: 24 512 14 14 (2408448)
I0403 21:36:30.702204 12197 net.cpp:156] Memory required for data: 1060605216
I0403 21:36:30.702230 12197 layer_factory.hpp:77] Creating layer inception_4c/pool_proj
I0403 21:36:30.702255 12197 net.cpp:91] Creating Layer inception_4c/pool_proj
I0403 21:36:30.702272 12197 net.cpp:425] inception_4c/pool_proj <- inception_4c/pool
I0403 21:36:30.702289 12197 net.cpp:399] inception_4c/pool_proj -> inception_4c/pool_proj
I0403 21:36:30.703454 12197 net.cpp:141] Setting up inception_4c/pool_proj
I0403 21:36:30.703482 12197 net.cpp:148] Top shape: 24 64 14 14 (301056)
I0403 21:36:30.703510 12197 net.cpp:156] Memory required for data: 1061809440
I0403 21:36:30.703529 12197 layer_factory.hpp:77] Creating layer inception_4c/relu_pool_proj
I0403 21:36:30.703547 12197 net.cpp:91] Creating Layer inception_4c/relu_pool_proj
I0403 21:36:30.703562 12197 net.cpp:425] inception_4c/relu_pool_proj <- inception_4c/pool_proj
I0403 21:36:30.703579 12197 net.cpp:386] inception_4c/relu_pool_proj -> inception_4c/pool_proj (in-place)
I0403 21:36:30.703755 12197 net.cpp:141] Setting up inception_4c/relu_pool_proj
I0403 21:36:30.703779 12197 net.cpp:148] Top shape: 24 64 14 14 (301056)
I0403 21:36:30.703793 12197 net.cpp:156] Memory required for data: 1063013664
I0403 21:36:30.703806 12197 layer_factory.hpp:77] Creating layer inception_4c/output
I0403 21:36:30.703822 12197 net.cpp:91] Creating Layer inception_4c/output
I0403 21:36:30.703837 12197 net.cpp:425] inception_4c/output <- inception_4c/1x1
I0403 21:36:30.703852 12197 net.cpp:425] inception_4c/output <- inception_4c/3x3
I0403 21:36:30.703866 12197 net.cpp:425] inception_4c/output <- inception_4c/5x5
I0403 21:36:30.703881 12197 net.cpp:425] inception_4c/output <- inception_4c/pool_proj
I0403 21:36:30.703899 12197 net.cpp:399] inception_4c/output -> inception_4c/output
I0403 21:36:30.703943 12197 net.cpp:141] Setting up inception_4c/output
I0403 21:36:30.703968 12197 net.cpp:148] Top shape: 24 512 14 14 (2408448)
I0403 21:36:30.703981 12197 net.cpp:156] Memory required for data: 1072647456
I0403 21:36:30.703994 12197 layer_factory.hpp:77] Creating layer inception_4c/output_inception_4c/output_0_split
I0403 21:36:30.704010 12197 net.cpp:91] Creating Layer inception_4c/output_inception_4c/output_0_split
I0403 21:36:30.704023 12197 net.cpp:425] inception_4c/output_inception_4c/output_0_split <- inception_4c/output
I0403 21:36:30.704040 12197 net.cpp:399] inception_4c/output_inception_4c/output_0_split -> inception_4c/output_inception_4c/output_0_split_0
I0403 21:36:30.704061 12197 net.cpp:399] inception_4c/output_inception_4c/output_0_split -> inception_4c/output_inception_4c/output_0_split_1
I0403 21:36:30.704080 12197 net.cpp:399] inception_4c/output_inception_4c/output_0_split -> inception_4c/output_inception_4c/output_0_split_2
I0403 21:36:30.704098 12197 net.cpp:399] inception_4c/output_inception_4c/output_0_split -> inception_4c/output_inception_4c/output_0_split_3
I0403 21:36:30.704180 12197 net.cpp:141] Setting up inception_4c/output_inception_4c/output_0_split
I0403 21:36:30.704201 12197 net.cpp:148] Top shape: 24 512 14 14 (2408448)
I0403 21:36:30.704222 12197 net.cpp:148] Top shape: 24 512 14 14 (2408448)
I0403 21:36:30.704237 12197 net.cpp:148] Top shape: 24 512 14 14 (2408448)
I0403 21:36:30.704252 12197 net.cpp:148] Top shape: 24 512 14 14 (2408448)
I0403 21:36:30.704264 12197 net.cpp:156] Memory required for data: 1111182624
I0403 21:36:30.704277 12197 layer_factory.hpp:77] Creating layer inception_4d/1x1
I0403 21:36:30.704300 12197 net.cpp:91] Creating Layer inception_4d/1x1
I0403 21:36:30.704318 12197 net.cpp:425] inception_4d/1x1 <- inception_4c/output_inception_4c/output_0_split_0
I0403 21:36:30.704334 12197 net.cpp:399] inception_4d/1x1 -> inception_4d/1x1
I0403 21:36:30.705641 12197 net.cpp:141] Setting up inception_4d/1x1
I0403 21:36:30.705667 12197 net.cpp:148] Top shape: 24 112 14 14 (526848)
I0403 21:36:30.705682 12197 net.cpp:156] Memory required for data: 1113290016
I0403 21:36:30.705699 12197 layer_factory.hpp:77] Creating layer inception_4d/relu_1x1
I0403 21:36:30.705719 12197 net.cpp:91] Creating Layer inception_4d/relu_1x1
I0403 21:36:30.705736 12197 net.cpp:425] inception_4d/relu_1x1 <- inception_4d/1x1
I0403 21:36:30.705752 12197 net.cpp:386] inception_4d/relu_1x1 -> inception_4d/1x1 (in-place)
I0403 21:36:30.705926 12197 net.cpp:141] Setting up inception_4d/relu_1x1
I0403 21:36:30.705951 12197 net.cpp:148] Top shape: 24 112 14 14 (526848)
I0403 21:36:30.705965 12197 net.cpp:156] Memory required for data: 1115397408
I0403 21:36:30.705979 12197 layer_factory.hpp:77] Creating layer inception_4d/3x3_reduce
I0403 21:36:30.706013 12197 net.cpp:91] Creating Layer inception_4d/3x3_reduce
I0403 21:36:30.706032 12197 net.cpp:425] inception_4d/3x3_reduce <- inception_4c/output_inception_4c/output_0_split_1
I0403 21:36:30.706055 12197 net.cpp:399] inception_4d/3x3_reduce -> inception_4d/3x3_reduce
I0403 21:36:30.707492 12197 net.cpp:141] Setting up inception_4d/3x3_reduce
I0403 21:36:30.707518 12197 net.cpp:148] Top shape: 24 144 14 14 (677376)
I0403 21:36:30.707533 12197 net.cpp:156] Memory required for data: 1118106912
I0403 21:36:30.707551 12197 layer_factory.hpp:77] Creating layer inception_4d/relu_3x3_reduce
I0403 21:36:30.707571 12197 net.cpp:91] Creating Layer inception_4d/relu_3x3_reduce
I0403 21:36:30.707587 12197 net.cpp:425] inception_4d/relu_3x3_reduce <- inception_4d/3x3_reduce
I0403 21:36:30.707603 12197 net.cpp:386] inception_4d/relu_3x3_reduce -> inception_4d/3x3_reduce (in-place)
I0403 21:36:30.707876 12197 net.cpp:141] Setting up inception_4d/relu_3x3_reduce
I0403 21:36:30.707901 12197 net.cpp:148] Top shape: 24 144 14 14 (677376)
I0403 21:36:30.707914 12197 net.cpp:156] Memory required for data: 1120816416
I0403 21:36:30.707929 12197 layer_factory.hpp:77] Creating layer inception_4d/3x3
I0403 21:36:30.707952 12197 net.cpp:91] Creating Layer inception_4d/3x3
I0403 21:36:30.707968 12197 net.cpp:425] inception_4d/3x3 <- inception_4d/3x3_reduce
I0403 21:36:30.707988 12197 net.cpp:399] inception_4d/3x3 -> inception_4d/3x3
I0403 21:36:30.712090 12197 net.cpp:141] Setting up inception_4d/3x3
I0403 21:36:30.712121 12197 net.cpp:148] Top shape: 24 288 14 14 (1354752)
I0403 21:36:30.712136 12197 net.cpp:156] Memory required for data: 1126235424
I0403 21:36:30.712153 12197 layer_factory.hpp:77] Creating layer inception_4d/relu_3x3
I0403 21:36:30.712169 12197 net.cpp:91] Creating Layer inception_4d/relu_3x3
I0403 21:36:30.712183 12197 net.cpp:425] inception_4d/relu_3x3 <- inception_4d/3x3
I0403 21:36:30.712199 12197 net.cpp:386] inception_4d/relu_3x3 -> inception_4d/3x3 (in-place)
I0403 21:36:30.712388 12197 net.cpp:141] Setting up inception_4d/relu_3x3
I0403 21:36:30.712414 12197 net.cpp:148] Top shape: 24 288 14 14 (1354752)
I0403 21:36:30.712430 12197 net.cpp:156] Memory required for data: 1131654432
I0403 21:36:30.712443 12197 layer_factory.hpp:77] Creating layer inception_4d/5x5_reduce
I0403 21:36:30.712465 12197 net.cpp:91] Creating Layer inception_4d/5x5_reduce
I0403 21:36:30.712481 12197 net.cpp:425] inception_4d/5x5_reduce <- inception_4c/output_inception_4c/output_0_split_2
I0403 21:36:30.712503 12197 net.cpp:399] inception_4d/5x5_reduce -> inception_4d/5x5_reduce
I0403 21:36:30.713596 12197 net.cpp:141] Setting up inception_4d/5x5_reduce
I0403 21:36:30.713623 12197 net.cpp:148] Top shape: 24 32 14 14 (150528)
I0403 21:36:30.713637 12197 net.cpp:156] Memory required for data: 1132256544
I0403 21:36:30.713654 12197 layer_factory.hpp:77] Creating layer inception_4d/relu_5x5_reduce
I0403 21:36:30.713675 12197 net.cpp:91] Creating Layer inception_4d/relu_5x5_reduce
I0403 21:36:30.713691 12197 net.cpp:425] inception_4d/relu_5x5_reduce <- inception_4d/5x5_reduce
I0403 21:36:30.713707 12197 net.cpp:386] inception_4d/relu_5x5_reduce -> inception_4d/5x5_reduce (in-place)
I0403 21:36:30.713888 12197 net.cpp:141] Setting up inception_4d/relu_5x5_reduce
I0403 21:36:30.713912 12197 net.cpp:148] Top shape: 24 32 14 14 (150528)
I0403 21:36:30.713927 12197 net.cpp:156] Memory required for data: 1132858656
I0403 21:36:30.713940 12197 layer_factory.hpp:77] Creating layer inception_4d/5x5
I0403 21:36:30.713961 12197 net.cpp:91] Creating Layer inception_4d/5x5
I0403 21:36:30.713978 12197 net.cpp:425] inception_4d/5x5 <- inception_4d/5x5_reduce
I0403 21:36:30.713999 12197 net.cpp:399] inception_4d/5x5 -> inception_4d/5x5
I0403 21:36:30.715386 12197 net.cpp:141] Setting up inception_4d/5x5
I0403 21:36:30.715414 12197 net.cpp:148] Top shape: 24 64 14 14 (301056)
I0403 21:36:30.715428 12197 net.cpp:156] Memory required for data: 1134062880
I0403 21:36:30.715447 12197 layer_factory.hpp:77] Creating layer inception_4d/relu_5x5
I0403 21:36:30.715481 12197 net.cpp:91] Creating Layer inception_4d/relu_5x5
I0403 21:36:30.715497 12197 net.cpp:425] inception_4d/relu_5x5 <- inception_4d/5x5
I0403 21:36:30.715515 12197 net.cpp:386] inception_4d/relu_5x5 -> inception_4d/5x5 (in-place)
I0403 21:36:30.715801 12197 net.cpp:141] Setting up inception_4d/relu_5x5
I0403 21:36:30.715826 12197 net.cpp:148] Top shape: 24 64 14 14 (301056)
I0403 21:36:30.715840 12197 net.cpp:156] Memory required for data: 1135267104
I0403 21:36:30.715854 12197 layer_factory.hpp:77] Creating layer inception_4d/pool
I0403 21:36:30.715872 12197 net.cpp:91] Creating Layer inception_4d/pool
I0403 21:36:30.715886 12197 net.cpp:425] inception_4d/pool <- inception_4c/output_inception_4c/output_0_split_3
I0403 21:36:30.715906 12197 net.cpp:399] inception_4d/pool -> inception_4d/pool
I0403 21:36:30.715968 12197 net.cpp:141] Setting up inception_4d/pool
I0403 21:36:30.715991 12197 net.cpp:148] Top shape: 24 512 14 14 (2408448)
I0403 21:36:30.716004 12197 net.cpp:156] Memory required for data: 1144900896
I0403 21:36:30.716018 12197 layer_factory.hpp:77] Creating layer inception_4d/pool_proj
I0403 21:36:30.716042 12197 net.cpp:91] Creating Layer inception_4d/pool_proj
I0403 21:36:30.716058 12197 net.cpp:425] inception_4d/pool_proj <- inception_4d/pool
I0403 21:36:30.716074 12197 net.cpp:399] inception_4d/pool_proj -> inception_4d/pool_proj
I0403 21:36:30.717839 12197 net.cpp:141] Setting up inception_4d/pool_proj
I0403 21:36:30.717870 12197 net.cpp:148] Top shape: 24 64 14 14 (301056)
I0403 21:36:30.717886 12197 net.cpp:156] Memory required for data: 1146105120
I0403 21:36:30.717905 12197 layer_factory.hpp:77] Creating layer inception_4d/relu_pool_proj
I0403 21:36:30.717922 12197 net.cpp:91] Creating Layer inception_4d/relu_pool_proj
I0403 21:36:30.717937 12197 net.cpp:425] inception_4d/relu_pool_proj <- inception_4d/pool_proj
I0403 21:36:30.717954 12197 net.cpp:386] inception_4d/relu_pool_proj -> inception_4d/pool_proj (in-place)
I0403 21:36:30.718135 12197 net.cpp:141] Setting up inception_4d/relu_pool_proj
I0403 21:36:30.718163 12197 net.cpp:148] Top shape: 24 64 14 14 (301056)
I0403 21:36:30.718178 12197 net.cpp:156] Memory required for data: 1147309344
I0403 21:36:30.718192 12197 layer_factory.hpp:77] Creating layer inception_4d/output
I0403 21:36:30.718214 12197 net.cpp:91] Creating Layer inception_4d/output
I0403 21:36:30.718230 12197 net.cpp:425] inception_4d/output <- inception_4d/1x1
I0403 21:36:30.718246 12197 net.cpp:425] inception_4d/output <- inception_4d/3x3
I0403 21:36:30.718261 12197 net.cpp:425] inception_4d/output <- inception_4d/5x5
I0403 21:36:30.718277 12197 net.cpp:425] inception_4d/output <- inception_4d/pool_proj
I0403 21:36:30.718297 12197 net.cpp:399] inception_4d/output -> inception_4d/output
I0403 21:36:30.718343 12197 net.cpp:141] Setting up inception_4d/output
I0403 21:36:30.718365 12197 net.cpp:148] Top shape: 24 528 14 14 (2483712)
I0403 21:36:30.718379 12197 net.cpp:156] Memory required for data: 1157244192
I0403 21:36:30.718394 12197 layer_factory.hpp:77] Creating layer inception_4d/output_inception_4d/output_0_split
I0403 21:36:30.718413 12197 net.cpp:91] Creating Layer inception_4d/output_inception_4d/output_0_split
I0403 21:36:30.718430 12197 net.cpp:425] inception_4d/output_inception_4d/output_0_split <- inception_4d/output
I0403 21:36:30.718447 12197 net.cpp:399] inception_4d/output_inception_4d/output_0_split -> inception_4d/output_inception_4d/output_0_split_0
I0403 21:36:30.718471 12197 net.cpp:399] inception_4d/output_inception_4d/output_0_split -> inception_4d/output_inception_4d/output_0_split_1
I0403 21:36:30.718490 12197 net.cpp:399] inception_4d/output_inception_4d/output_0_split -> inception_4d/output_inception_4d/output_0_split_2
I0403 21:36:30.718510 12197 net.cpp:399] inception_4d/output_inception_4d/output_0_split -> inception_4d/output_inception_4d/output_0_split_3
I0403 21:36:30.718529 12197 net.cpp:399] inception_4d/output_inception_4d/output_0_split -> inception_4d/output_inception_4d/output_0_split_4
I0403 21:36:30.718629 12197 net.cpp:141] Setting up inception_4d/output_inception_4d/output_0_split
I0403 21:36:30.718663 12197 net.cpp:148] Top shape: 24 528 14 14 (2483712)
I0403 21:36:30.718678 12197 net.cpp:148] Top shape: 24 528 14 14 (2483712)
I0403 21:36:30.718693 12197 net.cpp:148] Top shape: 24 528 14 14 (2483712)
I0403 21:36:30.718708 12197 net.cpp:148] Top shape: 24 528 14 14 (2483712)
I0403 21:36:30.718722 12197 net.cpp:148] Top shape: 24 528 14 14 (2483712)
I0403 21:36:30.718735 12197 net.cpp:156] Memory required for data: 1206918432
I0403 21:36:30.718750 12197 layer_factory.hpp:77] Creating layer loss2/ave_pool
I0403 21:36:30.718768 12197 net.cpp:91] Creating Layer loss2/ave_pool
I0403 21:36:30.718785 12197 net.cpp:425] loss2/ave_pool <- inception_4d/output_inception_4d/output_0_split_0
I0403 21:36:30.718802 12197 net.cpp:399] loss2/ave_pool -> loss2/ave_pool
I0403 21:36:30.719102 12197 net.cpp:141] Setting up loss2/ave_pool
I0403 21:36:30.719130 12197 net.cpp:148] Top shape: 24 528 4 4 (202752)
I0403 21:36:30.719146 12197 net.cpp:156] Memory required for data: 1207729440
I0403 21:36:30.719161 12197 layer_factory.hpp:77] Creating layer loss2/conv
I0403 21:36:30.719182 12197 net.cpp:91] Creating Layer loss2/conv
I0403 21:36:30.719199 12197 net.cpp:425] loss2/conv <- loss2/ave_pool
I0403 21:36:30.719224 12197 net.cpp:399] loss2/conv -> loss2/conv
I0403 21:36:30.721112 12197 net.cpp:141] Setting up loss2/conv
I0403 21:36:30.721140 12197 net.cpp:148] Top shape: 24 128 4 4 (49152)
I0403 21:36:30.721156 12197 net.cpp:156] Memory required for data: 1207926048
I0403 21:36:30.721175 12197 layer_factory.hpp:77] Creating layer loss2/relu_conv
I0403 21:36:30.721192 12197 net.cpp:91] Creating Layer loss2/relu_conv
I0403 21:36:30.721216 12197 net.cpp:425] loss2/relu_conv <- loss2/conv
I0403 21:36:30.721235 12197 net.cpp:386] loss2/relu_conv -> loss2/conv (in-place)
I0403 21:36:30.721513 12197 net.cpp:141] Setting up loss2/relu_conv
I0403 21:36:30.721537 12197 net.cpp:148] Top shape: 24 128 4 4 (49152)
I0403 21:36:30.721552 12197 net.cpp:156] Memory required for data: 1208122656
I0403 21:36:30.721566 12197 layer_factory.hpp:77] Creating layer loss2/fc
I0403 21:36:30.721583 12197 net.cpp:91] Creating Layer loss2/fc
I0403 21:36:30.721606 12197 net.cpp:425] loss2/fc <- loss2/conv
I0403 21:36:30.721623 12197 net.cpp:399] loss2/fc -> loss2/fc
I0403 21:36:30.739048 12197 net.cpp:141] Setting up loss2/fc
I0403 21:36:30.739084 12197 net.cpp:148] Top shape: 24 1024 (24576)
I0403 21:36:30.739099 12197 net.cpp:156] Memory required for data: 1208220960
I0403 21:36:30.739115 12197 layer_factory.hpp:77] Creating layer loss2/relu_fc
I0403 21:36:30.739135 12197 net.cpp:91] Creating Layer loss2/relu_fc
I0403 21:36:30.739151 12197 net.cpp:425] loss2/relu_fc <- loss2/fc
I0403 21:36:30.739167 12197 net.cpp:386] loss2/relu_fc -> loss2/fc (in-place)
I0403 21:36:30.739470 12197 net.cpp:141] Setting up loss2/relu_fc
I0403 21:36:30.739498 12197 net.cpp:148] Top shape: 24 1024 (24576)
I0403 21:36:30.739512 12197 net.cpp:156] Memory required for data: 1208319264
I0403 21:36:30.739527 12197 layer_factory.hpp:77] Creating layer loss2/drop_fc
I0403 21:36:30.739544 12197 net.cpp:91] Creating Layer loss2/drop_fc
I0403 21:36:30.739559 12197 net.cpp:425] loss2/drop_fc <- loss2/fc
I0403 21:36:30.739578 12197 net.cpp:386] loss2/drop_fc -> loss2/fc (in-place)
I0403 21:36:30.739625 12197 net.cpp:141] Setting up loss2/drop_fc
I0403 21:36:30.739647 12197 net.cpp:148] Top shape: 24 1024 (24576)
I0403 21:36:30.739661 12197 net.cpp:156] Memory required for data: 1208417568
I0403 21:36:30.739675 12197 layer_factory.hpp:77] Creating layer loss2/classifier_plantvillage
I0403 21:36:30.739696 12197 net.cpp:91] Creating Layer loss2/classifier_plantvillage
I0403 21:36:30.739711 12197 net.cpp:425] loss2/classifier_plantvillage <- loss2/fc
I0403 21:36:30.739732 12197 net.cpp:399] loss2/classifier_plantvillage -> loss2/classifier_plantvillage
I0403 21:36:30.740108 12197 net.cpp:141] Setting up loss2/classifier_plantvillage
I0403 21:36:30.740133 12197 net.cpp:148] Top shape: 24 38 (912)
I0403 21:36:30.740146 12197 net.cpp:156] Memory required for data: 1208421216
I0403 21:36:30.740180 12197 layer_factory.hpp:77] Creating layer loss2/classifier_plantvillage_loss2/classifier_plantvillage_0_split
I0403 21:36:30.740197 12197 net.cpp:91] Creating Layer loss2/classifier_plantvillage_loss2/classifier_plantvillage_0_split
I0403 21:36:30.740223 12197 net.cpp:425] loss2/classifier_plantvillage_loss2/classifier_plantvillage_0_split <- loss2/classifier_plantvillage
I0403 21:36:30.740242 12197 net.cpp:399] loss2/classifier_plantvillage_loss2/classifier_plantvillage_0_split -> loss2/classifier_plantvillage_loss2/classifier_plantvillage_0_split_0
I0403 21:36:30.740260 12197 net.cpp:399] loss2/classifier_plantvillage_loss2/classifier_plantvillage_0_split -> loss2/classifier_plantvillage_loss2/classifier_plantvillage_0_split_1
I0403 21:36:30.740280 12197 net.cpp:399] loss2/classifier_plantvillage_loss2/classifier_plantvillage_0_split -> loss2/classifier_plantvillage_loss2/classifier_plantvillage_0_split_2
I0403 21:36:30.740355 12197 net.cpp:141] Setting up loss2/classifier_plantvillage_loss2/classifier_plantvillage_0_split
I0403 21:36:30.740380 12197 net.cpp:148] Top shape: 24 38 (912)
I0403 21:36:30.740396 12197 net.cpp:148] Top shape: 24 38 (912)
I0403 21:36:30.740409 12197 net.cpp:148] Top shape: 24 38 (912)
I0403 21:36:30.740422 12197 net.cpp:156] Memory required for data: 1208432160
I0403 21:36:30.740437 12197 layer_factory.hpp:77] Creating layer inception_4e/1x1
I0403 21:36:30.740455 12197 net.cpp:91] Creating Layer inception_4e/1x1
I0403 21:36:30.740471 12197 net.cpp:425] inception_4e/1x1 <- inception_4d/output_inception_4d/output_0_split_1
I0403 21:36:30.740492 12197 net.cpp:399] inception_4e/1x1 -> inception_4e/1x1
I0403 21:36:30.742236 12197 net.cpp:141] Setting up inception_4e/1x1
I0403 21:36:30.742264 12197 net.cpp:148] Top shape: 24 256 14 14 (1204224)
I0403 21:36:30.742279 12197 net.cpp:156] Memory required for data: 1213249056
I0403 21:36:30.742296 12197 layer_factory.hpp:77] Creating layer inception_4e/relu_1x1
I0403 21:36:30.742312 12197 net.cpp:91] Creating Layer inception_4e/relu_1x1
I0403 21:36:30.742327 12197 net.cpp:425] inception_4e/relu_1x1 <- inception_4e/1x1
I0403 21:36:30.742346 12197 net.cpp:386] inception_4e/relu_1x1 -> inception_4e/1x1 (in-place)
I0403 21:36:30.742633 12197 net.cpp:141] Setting up inception_4e/relu_1x1
I0403 21:36:30.742658 12197 net.cpp:148] Top shape: 24 256 14 14 (1204224)
I0403 21:36:30.742672 12197 net.cpp:156] Memory required for data: 1218065952
I0403 21:36:30.742687 12197 layer_factory.hpp:77] Creating layer inception_4e/3x3_reduce
I0403 21:36:30.742708 12197 net.cpp:91] Creating Layer inception_4e/3x3_reduce
I0403 21:36:30.742725 12197 net.cpp:425] inception_4e/3x3_reduce <- inception_4d/output_inception_4d/output_0_split_2
I0403 21:36:30.742745 12197 net.cpp:399] inception_4e/3x3_reduce -> inception_4e/3x3_reduce
I0403 21:36:30.744791 12197 net.cpp:141] Setting up inception_4e/3x3_reduce
I0403 21:36:30.744820 12197 net.cpp:148] Top shape: 24 160 14 14 (752640)
I0403 21:36:30.744837 12197 net.cpp:156] Memory required for data: 1221076512
I0403 21:36:30.744854 12197 layer_factory.hpp:77] Creating layer inception_4e/relu_3x3_reduce
I0403 21:36:30.744871 12197 net.cpp:91] Creating Layer inception_4e/relu_3x3_reduce
I0403 21:36:30.744885 12197 net.cpp:425] inception_4e/relu_3x3_reduce <- inception_4e/3x3_reduce
I0403 21:36:30.744904 12197 net.cpp:386] inception_4e/relu_3x3_reduce -> inception_4e/3x3_reduce (in-place)
I0403 21:36:30.745079 12197 net.cpp:141] Setting up inception_4e/relu_3x3_reduce
I0403 21:36:30.745103 12197 net.cpp:148] Top shape: 24 160 14 14 (752640)
I0403 21:36:30.745116 12197 net.cpp:156] Memory required for data: 1224087072
I0403 21:36:30.745131 12197 layer_factory.hpp:77] Creating layer inception_4e/3x3
I0403 21:36:30.745152 12197 net.cpp:91] Creating Layer inception_4e/3x3
I0403 21:36:30.745169 12197 net.cpp:425] inception_4e/3x3 <- inception_4e/3x3_reduce
I0403 21:36:30.745190 12197 net.cpp:399] inception_4e/3x3 -> inception_4e/3x3
I0403 21:36:30.750015 12197 net.cpp:141] Setting up inception_4e/3x3
I0403 21:36:30.750054 12197 net.cpp:148] Top shape: 24 320 14 14 (1505280)
I0403 21:36:30.750072 12197 net.cpp:156] Memory required for data: 1230108192
I0403 21:36:30.750089 12197 layer_factory.hpp:77] Creating layer inception_4e/relu_3x3
I0403 21:36:30.750108 12197 net.cpp:91] Creating Layer inception_4e/relu_3x3
I0403 21:36:30.750124 12197 net.cpp:425] inception_4e/relu_3x3 <- inception_4e/3x3
I0403 21:36:30.750141 12197 net.cpp:386] inception_4e/relu_3x3 -> inception_4e/3x3 (in-place)
I0403 21:36:30.750432 12197 net.cpp:141] Setting up inception_4e/relu_3x3
I0403 21:36:30.750458 12197 net.cpp:148] Top shape: 24 320 14 14 (1505280)
I0403 21:36:30.750471 12197 net.cpp:156] Memory required for data: 1236129312
I0403 21:36:30.750485 12197 layer_factory.hpp:77] Creating layer inception_4e/5x5_reduce
I0403 21:36:30.750509 12197 net.cpp:91] Creating Layer inception_4e/5x5_reduce
I0403 21:36:30.750525 12197 net.cpp:425] inception_4e/5x5_reduce <- inception_4d/output_inception_4d/output_0_split_3
I0403 21:36:30.750545 12197 net.cpp:399] inception_4e/5x5_reduce -> inception_4e/5x5_reduce
I0403 21:36:30.751564 12197 net.cpp:141] Setting up inception_4e/5x5_reduce
I0403 21:36:30.751590 12197 net.cpp:148] Top shape: 24 32 14 14 (150528)
I0403 21:36:30.751605 12197 net.cpp:156] Memory required for data: 1236731424
I0403 21:36:30.751621 12197 layer_factory.hpp:77] Creating layer inception_4e/relu_5x5_reduce
I0403 21:36:30.751638 12197 net.cpp:91] Creating Layer inception_4e/relu_5x5_reduce
I0403 21:36:30.751653 12197 net.cpp:425] inception_4e/relu_5x5_reduce <- inception_4e/5x5_reduce
I0403 21:36:30.751672 12197 net.cpp:386] inception_4e/relu_5x5_reduce -> inception_4e/5x5_reduce (in-place)
I0403 21:36:30.751955 12197 net.cpp:141] Setting up inception_4e/relu_5x5_reduce
I0403 21:36:30.751981 12197 net.cpp:148] Top shape: 24 32 14 14 (150528)
I0403 21:36:30.751994 12197 net.cpp:156] Memory required for data: 1237333536
I0403 21:36:30.752008 12197 layer_factory.hpp:77] Creating layer inception_4e/5x5
I0403 21:36:30.752046 12197 net.cpp:91] Creating Layer inception_4e/5x5
I0403 21:36:30.752064 12197 net.cpp:425] inception_4e/5x5 <- inception_4e/5x5_reduce
I0403 21:36:30.752084 12197 net.cpp:399] inception_4e/5x5 -> inception_4e/5x5
I0403 21:36:30.753836 12197 net.cpp:141] Setting up inception_4e/5x5
I0403 21:36:30.753865 12197 net.cpp:148] Top shape: 24 128 14 14 (602112)
I0403 21:36:30.753880 12197 net.cpp:156] Memory required for data: 1239741984
I0403 21:36:30.753898 12197 layer_factory.hpp:77] Creating layer inception_4e/relu_5x5
I0403 21:36:30.753916 12197 net.cpp:91] Creating Layer inception_4e/relu_5x5
I0403 21:36:30.753932 12197 net.cpp:425] inception_4e/relu_5x5 <- inception_4e/5x5
I0403 21:36:30.753948 12197 net.cpp:386] inception_4e/relu_5x5 -> inception_4e/5x5 (in-place)
I0403 21:36:30.754137 12197 net.cpp:141] Setting up inception_4e/relu_5x5
I0403 21:36:30.754161 12197 net.cpp:148] Top shape: 24 128 14 14 (602112)
I0403 21:36:30.754174 12197 net.cpp:156] Memory required for data: 1242150432
I0403 21:36:30.754189 12197 layer_factory.hpp:77] Creating layer inception_4e/pool
I0403 21:36:30.754205 12197 net.cpp:91] Creating Layer inception_4e/pool
I0403 21:36:30.754226 12197 net.cpp:425] inception_4e/pool <- inception_4d/output_inception_4d/output_0_split_4
I0403 21:36:30.754246 12197 net.cpp:399] inception_4e/pool -> inception_4e/pool
I0403 21:36:30.754312 12197 net.cpp:141] Setting up inception_4e/pool
I0403 21:36:30.754336 12197 net.cpp:148] Top shape: 24 528 14 14 (2483712)
I0403 21:36:30.754350 12197 net.cpp:156] Memory required for data: 1252085280
I0403 21:36:30.754364 12197 layer_factory.hpp:77] Creating layer inception_4e/pool_proj
I0403 21:36:30.754384 12197 net.cpp:91] Creating Layer inception_4e/pool_proj
I0403 21:36:30.754401 12197 net.cpp:425] inception_4e/pool_proj <- inception_4e/pool
I0403 21:36:30.754418 12197 net.cpp:399] inception_4e/pool_proj -> inception_4e/pool_proj
I0403 21:36:30.755848 12197 net.cpp:141] Setting up inception_4e/pool_proj
I0403 21:36:30.755877 12197 net.cpp:148] Top shape: 24 128 14 14 (602112)
I0403 21:36:30.755906 12197 net.cpp:156] Memory required for data: 1254493728
I0403 21:36:30.755925 12197 layer_factory.hpp:77] Creating layer inception_4e/relu_pool_proj
I0403 21:36:30.755941 12197 net.cpp:91] Creating Layer inception_4e/relu_pool_proj
I0403 21:36:30.755956 12197 net.cpp:425] inception_4e/relu_pool_proj <- inception_4e/pool_proj
I0403 21:36:30.755972 12197 net.cpp:386] inception_4e/relu_pool_proj -> inception_4e/pool_proj (in-place)
I0403 21:36:30.756260 12197 net.cpp:141] Setting up inception_4e/relu_pool_proj
I0403 21:36:30.756289 12197 net.cpp:148] Top shape: 24 128 14 14 (602112)
I0403 21:36:30.756304 12197 net.cpp:156] Memory required for data: 1256902176
I0403 21:36:30.756319 12197 layer_factory.hpp:77] Creating layer inception_4e/output
I0403 21:36:30.756335 12197 net.cpp:91] Creating Layer inception_4e/output
I0403 21:36:30.756350 12197 net.cpp:425] inception_4e/output <- inception_4e/1x1
I0403 21:36:30.756366 12197 net.cpp:425] inception_4e/output <- inception_4e/3x3
I0403 21:36:30.756381 12197 net.cpp:425] inception_4e/output <- inception_4e/5x5
I0403 21:36:30.756394 12197 net.cpp:425] inception_4e/output <- inception_4e/pool_proj
I0403 21:36:30.756410 12197 net.cpp:399] inception_4e/output -> inception_4e/output
I0403 21:36:30.756458 12197 net.cpp:141] Setting up inception_4e/output
I0403 21:36:30.756480 12197 net.cpp:148] Top shape: 24 832 14 14 (3913728)
I0403 21:36:30.756494 12197 net.cpp:156] Memory required for data: 1272557088
I0403 21:36:30.756508 12197 layer_factory.hpp:77] Creating layer pool4/3x3_s2
I0403 21:36:30.756527 12197 net.cpp:91] Creating Layer pool4/3x3_s2
I0403 21:36:30.756543 12197 net.cpp:425] pool4/3x3_s2 <- inception_4e/output
I0403 21:36:30.756561 12197 net.cpp:399] pool4/3x3_s2 -> pool4/3x3_s2
I0403 21:36:30.756628 12197 net.cpp:141] Setting up pool4/3x3_s2
I0403 21:36:30.756650 12197 net.cpp:148] Top shape: 24 832 7 7 (978432)
I0403 21:36:30.756664 12197 net.cpp:156] Memory required for data: 1276470816
I0403 21:36:30.756677 12197 layer_factory.hpp:77] Creating layer pool4/3x3_s2_pool4/3x3_s2_0_split
I0403 21:36:30.756693 12197 net.cpp:91] Creating Layer pool4/3x3_s2_pool4/3x3_s2_0_split
I0403 21:36:30.756708 12197 net.cpp:425] pool4/3x3_s2_pool4/3x3_s2_0_split <- pool4/3x3_s2
I0403 21:36:30.756726 12197 net.cpp:399] pool4/3x3_s2_pool4/3x3_s2_0_split -> pool4/3x3_s2_pool4/3x3_s2_0_split_0
I0403 21:36:30.756745 12197 net.cpp:399] pool4/3x3_s2_pool4/3x3_s2_0_split -> pool4/3x3_s2_pool4/3x3_s2_0_split_1
I0403 21:36:30.756764 12197 net.cpp:399] pool4/3x3_s2_pool4/3x3_s2_0_split -> pool4/3x3_s2_pool4/3x3_s2_0_split_2
I0403 21:36:30.756783 12197 net.cpp:399] pool4/3x3_s2_pool4/3x3_s2_0_split -> pool4/3x3_s2_pool4/3x3_s2_0_split_3
I0403 21:36:30.756870 12197 net.cpp:141] Setting up pool4/3x3_s2_pool4/3x3_s2_0_split
I0403 21:36:30.756894 12197 net.cpp:148] Top shape: 24 832 7 7 (978432)
I0403 21:36:30.756911 12197 net.cpp:148] Top shape: 24 832 7 7 (978432)
I0403 21:36:30.756925 12197 net.cpp:148] Top shape: 24 832 7 7 (978432)
I0403 21:36:30.756939 12197 net.cpp:148] Top shape: 24 832 7 7 (978432)
I0403 21:36:30.756953 12197 net.cpp:156] Memory required for data: 1292125728
I0403 21:36:30.756966 12197 layer_factory.hpp:77] Creating layer inception_5a/1x1
I0403 21:36:30.756988 12197 net.cpp:91] Creating Layer inception_5a/1x1
I0403 21:36:30.757004 12197 net.cpp:425] inception_5a/1x1 <- pool4/3x3_s2_pool4/3x3_s2_0_split_0
I0403 21:36:30.757021 12197 net.cpp:399] inception_5a/1x1 -> inception_5a/1x1
I0403 21:36:30.759763 12197 net.cpp:141] Setting up inception_5a/1x1
I0403 21:36:30.759794 12197 net.cpp:148] Top shape: 24 256 7 7 (301056)
I0403 21:36:30.759809 12197 net.cpp:156] Memory required for data: 1293329952
I0403 21:36:30.759827 12197 layer_factory.hpp:77] Creating layer inception_5a/relu_1x1
I0403 21:36:30.759845 12197 net.cpp:91] Creating Layer inception_5a/relu_1x1
I0403 21:36:30.759858 12197 net.cpp:425] inception_5a/relu_1x1 <- inception_5a/1x1
I0403 21:36:30.759876 12197 net.cpp:386] inception_5a/relu_1x1 -> inception_5a/1x1 (in-place)
I0403 21:36:30.760172 12197 net.cpp:141] Setting up inception_5a/relu_1x1
I0403 21:36:30.760198 12197 net.cpp:148] Top shape: 24 256 7 7 (301056)
I0403 21:36:30.760220 12197 net.cpp:156] Memory required for data: 1294534176
I0403 21:36:30.760234 12197 layer_factory.hpp:77] Creating layer inception_5a/3x3_reduce
I0403 21:36:30.760257 12197 net.cpp:91] Creating Layer inception_5a/3x3_reduce
I0403 21:36:30.760273 12197 net.cpp:425] inception_5a/3x3_reduce <- pool4/3x3_s2_pool4/3x3_s2_0_split_1
I0403 21:36:30.760291 12197 net.cpp:399] inception_5a/3x3_reduce -> inception_5a/3x3_reduce
I0403 21:36:30.762665 12197 net.cpp:141] Setting up inception_5a/3x3_reduce
I0403 21:36:30.762693 12197 net.cpp:148] Top shape: 24 160 7 7 (188160)
I0403 21:36:30.762708 12197 net.cpp:156] Memory required for data: 1295286816
I0403 21:36:30.762727 12197 layer_factory.hpp:77] Creating layer inception_5a/relu_3x3_reduce
I0403 21:36:30.762747 12197 net.cpp:91] Creating Layer inception_5a/relu_3x3_reduce
I0403 21:36:30.762763 12197 net.cpp:425] inception_5a/relu_3x3_reduce <- inception_5a/3x3_reduce
I0403 21:36:30.762779 12197 net.cpp:386] inception_5a/relu_3x3_reduce -> inception_5a/3x3_reduce (in-place)
I0403 21:36:30.762958 12197 net.cpp:141] Setting up inception_5a/relu_3x3_reduce
I0403 21:36:30.762984 12197 net.cpp:148] Top shape: 24 160 7 7 (188160)
I0403 21:36:30.762998 12197 net.cpp:156] Memory required for data: 1296039456
I0403 21:36:30.763011 12197 layer_factory.hpp:77] Creating layer inception_5a/3x3
I0403 21:36:30.763033 12197 net.cpp:91] Creating Layer inception_5a/3x3
I0403 21:36:30.763051 12197 net.cpp:425] inception_5a/3x3 <- inception_5a/3x3_reduce
I0403 21:36:30.763069 12197 net.cpp:399] inception_5a/3x3 -> inception_5a/3x3
I0403 21:36:30.767982 12197 net.cpp:141] Setting up inception_5a/3x3
I0403 21:36:30.768013 12197 net.cpp:148] Top shape: 24 320 7 7 (376320)
I0403 21:36:30.768029 12197 net.cpp:156] Memory required for data: 1297544736
I0403 21:36:30.768046 12197 layer_factory.hpp:77] Creating layer inception_5a/relu_3x3
I0403 21:36:30.768064 12197 net.cpp:91] Creating Layer inception_5a/relu_3x3
I0403 21:36:30.768079 12197 net.cpp:425] inception_5a/relu_3x3 <- inception_5a/3x3
I0403 21:36:30.768097 12197 net.cpp:386] inception_5a/relu_3x3 -> inception_5a/3x3 (in-place)
I0403 21:36:30.768379 12197 net.cpp:141] Setting up inception_5a/relu_3x3
I0403 21:36:30.768406 12197 net.cpp:148] Top shape: 24 320 7 7 (376320)
I0403 21:36:30.768420 12197 net.cpp:156] Memory required for data: 1299050016
I0403 21:36:30.768434 12197 layer_factory.hpp:77] Creating layer inception_5a/5x5_reduce
I0403 21:36:30.768455 12197 net.cpp:91] Creating Layer inception_5a/5x5_reduce
I0403 21:36:30.768471 12197 net.cpp:425] inception_5a/5x5_reduce <- pool4/3x3_s2_pool4/3x3_s2_0_split_2
I0403 21:36:30.768493 12197 net.cpp:399] inception_5a/5x5_reduce -> inception_5a/5x5_reduce
I0403 21:36:30.769651 12197 net.cpp:141] Setting up inception_5a/5x5_reduce
I0403 21:36:30.769681 12197 net.cpp:148] Top shape: 24 32 7 7 (37632)
I0403 21:36:30.769697 12197 net.cpp:156] Memory required for data: 1299200544
I0403 21:36:30.769716 12197 layer_factory.hpp:77] Creating layer inception_5a/relu_5x5_reduce
I0403 21:36:30.769733 12197 net.cpp:91] Creating Layer inception_5a/relu_5x5_reduce
I0403 21:36:30.769749 12197 net.cpp:425] inception_5a/relu_5x5_reduce <- inception_5a/5x5_reduce
I0403 21:36:30.769781 12197 net.cpp:386] inception_5a/relu_5x5_reduce -> inception_5a/5x5_reduce (in-place)
I0403 21:36:30.770124 12197 net.cpp:141] Setting up inception_5a/relu_5x5_reduce
I0403 21:36:30.770149 12197 net.cpp:148] Top shape: 24 32 7 7 (37632)
I0403 21:36:30.770164 12197 net.cpp:156] Memory required for data: 1299351072
I0403 21:36:30.770179 12197 layer_factory.hpp:77] Creating layer inception_5a/5x5
I0403 21:36:30.770200 12197 net.cpp:91] Creating Layer inception_5a/5x5
I0403 21:36:30.770223 12197 net.cpp:425] inception_5a/5x5 <- inception_5a/5x5_reduce
I0403 21:36:30.770246 12197 net.cpp:399] inception_5a/5x5 -> inception_5a/5x5
I0403 21:36:30.771934 12197 net.cpp:141] Setting up inception_5a/5x5
I0403 21:36:30.771975 12197 net.cpp:148] Top shape: 24 128 7 7 (150528)
I0403 21:36:30.771991 12197 net.cpp:156] Memory required for data: 1299953184
I0403 21:36:30.772009 12197 layer_factory.hpp:77] Creating layer inception_5a/relu_5x5
I0403 21:36:30.772027 12197 net.cpp:91] Creating Layer inception_5a/relu_5x5
I0403 21:36:30.772043 12197 net.cpp:425] inception_5a/relu_5x5 <- inception_5a/5x5
I0403 21:36:30.772063 12197 net.cpp:386] inception_5a/relu_5x5 -> inception_5a/5x5 (in-place)
I0403 21:36:30.772264 12197 net.cpp:141] Setting up inception_5a/relu_5x5
I0403 21:36:30.772289 12197 net.cpp:148] Top shape: 24 128 7 7 (150528)
I0403 21:36:30.772302 12197 net.cpp:156] Memory required for data: 1300555296
I0403 21:36:30.772316 12197 layer_factory.hpp:77] Creating layer inception_5a/pool
I0403 21:36:30.772333 12197 net.cpp:91] Creating Layer inception_5a/pool
I0403 21:36:30.772348 12197 net.cpp:425] inception_5a/pool <- pool4/3x3_s2_pool4/3x3_s2_0_split_3
I0403 21:36:30.772369 12197 net.cpp:399] inception_5a/pool -> inception_5a/pool
I0403 21:36:30.772438 12197 net.cpp:141] Setting up inception_5a/pool
I0403 21:36:30.772460 12197 net.cpp:148] Top shape: 24 832 7 7 (978432)
I0403 21:36:30.772475 12197 net.cpp:156] Memory required for data: 1304469024
I0403 21:36:30.772490 12197 layer_factory.hpp:77] Creating layer inception_5a/pool_proj
I0403 21:36:30.772511 12197 net.cpp:91] Creating Layer inception_5a/pool_proj
I0403 21:36:30.772528 12197 net.cpp:425] inception_5a/pool_proj <- inception_5a/pool
I0403 21:36:30.772548 12197 net.cpp:399] inception_5a/pool_proj -> inception_5a/pool_proj
I0403 21:36:30.774816 12197 net.cpp:141] Setting up inception_5a/pool_proj
I0403 21:36:30.774845 12197 net.cpp:148] Top shape: 24 128 7 7 (150528)
I0403 21:36:30.774862 12197 net.cpp:156] Memory required for data: 1305071136
I0403 21:36:30.774879 12197 layer_factory.hpp:77] Creating layer inception_5a/relu_pool_proj
I0403 21:36:30.774899 12197 net.cpp:91] Creating Layer inception_5a/relu_pool_proj
I0403 21:36:30.774915 12197 net.cpp:425] inception_5a/relu_pool_proj <- inception_5a/pool_proj
I0403 21:36:30.774932 12197 net.cpp:386] inception_5a/relu_pool_proj -> inception_5a/pool_proj (in-place)
I0403 21:36:30.775243 12197 net.cpp:141] Setting up inception_5a/relu_pool_proj
I0403 21:36:30.775269 12197 net.cpp:148] Top shape: 24 128 7 7 (150528)
I0403 21:36:30.775284 12197 net.cpp:156] Memory required for data: 1305673248
I0403 21:36:30.775300 12197 layer_factory.hpp:77] Creating layer inception_5a/output
I0403 21:36:30.775318 12197 net.cpp:91] Creating Layer inception_5a/output
I0403 21:36:30.775336 12197 net.cpp:425] inception_5a/output <- inception_5a/1x1
I0403 21:36:30.775352 12197 net.cpp:425] inception_5a/output <- inception_5a/3x3
I0403 21:36:30.775369 12197 net.cpp:425] inception_5a/output <- inception_5a/5x5
I0403 21:36:30.775385 12197 net.cpp:425] inception_5a/output <- inception_5a/pool_proj
I0403 21:36:30.775403 12197 net.cpp:399] inception_5a/output -> inception_5a/output
I0403 21:36:30.775454 12197 net.cpp:141] Setting up inception_5a/output
I0403 21:36:30.775477 12197 net.cpp:148] Top shape: 24 832 7 7 (978432)
I0403 21:36:30.775492 12197 net.cpp:156] Memory required for data: 1309586976
I0403 21:36:30.775506 12197 layer_factory.hpp:77] Creating layer inception_5a/output_inception_5a/output_0_split
I0403 21:36:30.775522 12197 net.cpp:91] Creating Layer inception_5a/output_inception_5a/output_0_split
I0403 21:36:30.775537 12197 net.cpp:425] inception_5a/output_inception_5a/output_0_split <- inception_5a/output
I0403 21:36:30.775557 12197 net.cpp:399] inception_5a/output_inception_5a/output_0_split -> inception_5a/output_inception_5a/output_0_split_0
I0403 21:36:30.775578 12197 net.cpp:399] inception_5a/output_inception_5a/output_0_split -> inception_5a/output_inception_5a/output_0_split_1
I0403 21:36:30.775599 12197 net.cpp:399] inception_5a/output_inception_5a/output_0_split -> inception_5a/output_inception_5a/output_0_split_2
I0403 21:36:30.775619 12197 net.cpp:399] inception_5a/output_inception_5a/output_0_split -> inception_5a/output_inception_5a/output_0_split_3
I0403 21:36:30.775734 12197 net.cpp:141] Setting up inception_5a/output_inception_5a/output_0_split
I0403 21:36:30.775758 12197 net.cpp:148] Top shape: 24 832 7 7 (978432)
I0403 21:36:30.775774 12197 net.cpp:148] Top shape: 24 832 7 7 (978432)
I0403 21:36:30.775790 12197 net.cpp:148] Top shape: 24 832 7 7 (978432)
I0403 21:36:30.775806 12197 net.cpp:148] Top shape: 24 832 7 7 (978432)
I0403 21:36:30.775820 12197 net.cpp:156] Memory required for data: 1325241888
I0403 21:36:30.775835 12197 layer_factory.hpp:77] Creating layer inception_5b/1x1
I0403 21:36:30.775856 12197 net.cpp:91] Creating Layer inception_5b/1x1
I0403 21:36:30.775874 12197 net.cpp:425] inception_5b/1x1 <- inception_5a/output_inception_5a/output_0_split_0
I0403 21:36:30.775895 12197 net.cpp:399] inception_5b/1x1 -> inception_5b/1x1
I0403 21:36:30.779625 12197 net.cpp:141] Setting up inception_5b/1x1
I0403 21:36:30.779655 12197 net.cpp:148] Top shape: 24 384 7 7 (451584)
I0403 21:36:30.779671 12197 net.cpp:156] Memory required for data: 1327048224
I0403 21:36:30.779690 12197 layer_factory.hpp:77] Creating layer inception_5b/relu_1x1
I0403 21:36:30.779711 12197 net.cpp:91] Creating Layer inception_5b/relu_1x1
I0403 21:36:30.779727 12197 net.cpp:425] inception_5b/relu_1x1 <- inception_5b/1x1
I0403 21:36:30.779743 12197 net.cpp:386] inception_5b/relu_1x1 -> inception_5b/1x1 (in-place)
I0403 21:36:30.780045 12197 net.cpp:141] Setting up inception_5b/relu_1x1
I0403 21:36:30.780069 12197 net.cpp:148] Top shape: 24 384 7 7 (451584)
I0403 21:36:30.780084 12197 net.cpp:156] Memory required for data: 1328854560
I0403 21:36:30.780099 12197 layer_factory.hpp:77] Creating layer inception_5b/3x3_reduce
I0403 21:36:30.780120 12197 net.cpp:91] Creating Layer inception_5b/3x3_reduce
I0403 21:36:30.780138 12197 net.cpp:425] inception_5b/3x3_reduce <- inception_5a/output_inception_5a/output_0_split_1
I0403 21:36:30.780158 12197 net.cpp:399] inception_5b/3x3_reduce -> inception_5b/3x3_reduce
I0403 21:36:30.782820 12197 net.cpp:141] Setting up inception_5b/3x3_reduce
I0403 21:36:30.782850 12197 net.cpp:148] Top shape: 24 192 7 7 (225792)
I0403 21:36:30.782866 12197 net.cpp:156] Memory required for data: 1329757728
I0403 21:36:30.782883 12197 layer_factory.hpp:77] Creating layer inception_5b/relu_3x3_reduce
I0403 21:36:30.782902 12197 net.cpp:91] Creating Layer inception_5b/relu_3x3_reduce
I0403 21:36:30.782919 12197 net.cpp:425] inception_5b/relu_3x3_reduce <- inception_5b/3x3_reduce
I0403 21:36:30.782937 12197 net.cpp:386] inception_5b/relu_3x3_reduce -> inception_5b/3x3_reduce (in-place)
I0403 21:36:30.783123 12197 net.cpp:141] Setting up inception_5b/relu_3x3_reduce
I0403 21:36:30.783146 12197 net.cpp:148] Top shape: 24 192 7 7 (225792)
I0403 21:36:30.783160 12197 net.cpp:156] Memory required for data: 1330660896
I0403 21:36:30.783175 12197 layer_factory.hpp:77] Creating layer inception_5b/3x3
I0403 21:36:30.783196 12197 net.cpp:91] Creating Layer inception_5b/3x3
I0403 21:36:30.783218 12197 net.cpp:425] inception_5b/3x3 <- inception_5b/3x3_reduce
I0403 21:36:30.783242 12197 net.cpp:399] inception_5b/3x3 -> inception_5b/3x3
I0403 21:36:30.789901 12197 net.cpp:141] Setting up inception_5b/3x3
I0403 21:36:30.789927 12197 net.cpp:148] Top shape: 24 384 7 7 (451584)
I0403 21:36:30.789942 12197 net.cpp:156] Memory required for data: 1332467232
I0403 21:36:30.789963 12197 layer_factory.hpp:77] Creating layer inception_5b/relu_3x3
I0403 21:36:30.789981 12197 net.cpp:91] Creating Layer inception_5b/relu_3x3
I0403 21:36:30.789997 12197 net.cpp:425] inception_5b/relu_3x3 <- inception_5b/3x3
I0403 21:36:30.790015 12197 net.cpp:386] inception_5b/relu_3x3 -> inception_5b/3x3 (in-place)
I0403 21:36:30.790316 12197 net.cpp:141] Setting up inception_5b/relu_3x3
I0403 21:36:30.790343 12197 net.cpp:148] Top shape: 24 384 7 7 (451584)
I0403 21:36:30.790357 12197 net.cpp:156] Memory required for data: 1334273568
I0403 21:36:30.790371 12197 layer_factory.hpp:77] Creating layer inception_5b/5x5_reduce
I0403 21:36:30.790410 12197 net.cpp:91] Creating Layer inception_5b/5x5_reduce
I0403 21:36:30.790429 12197 net.cpp:425] inception_5b/5x5_reduce <- inception_5a/output_inception_5a/output_0_split_2
I0403 21:36:30.790448 12197 net.cpp:399] inception_5b/5x5_reduce -> inception_5b/5x5_reduce
I0403 21:36:30.791689 12197 net.cpp:141] Setting up inception_5b/5x5_reduce
I0403 21:36:30.791719 12197 net.cpp:148] Top shape: 24 48 7 7 (56448)
I0403 21:36:30.791735 12197 net.cpp:156] Memory required for data: 1334499360
I0403 21:36:30.791754 12197 layer_factory.hpp:77] Creating layer inception_5b/relu_5x5_reduce
I0403 21:36:30.791772 12197 net.cpp:91] Creating Layer inception_5b/relu_5x5_reduce
I0403 21:36:30.791788 12197 net.cpp:425] inception_5b/relu_5x5_reduce <- inception_5b/5x5_reduce
I0403 21:36:30.791805 12197 net.cpp:386] inception_5b/relu_5x5_reduce -> inception_5b/5x5_reduce (in-place)
I0403 21:36:30.792197 12197 net.cpp:141] Setting up inception_5b/relu_5x5_reduce
I0403 21:36:30.792233 12197 net.cpp:148] Top shape: 24 48 7 7 (56448)
I0403 21:36:30.792250 12197 net.cpp:156] Memory required for data: 1334725152
I0403 21:36:30.792265 12197 layer_factory.hpp:77] Creating layer inception_5b/5x5
I0403 21:36:30.792284 12197 net.cpp:91] Creating Layer inception_5b/5x5
I0403 21:36:30.792300 12197 net.cpp:425] inception_5b/5x5 <- inception_5b/5x5_reduce
I0403 21:36:30.792318 12197 net.cpp:399] inception_5b/5x5 -> inception_5b/5x5
I0403 21:36:30.794286 12197 net.cpp:141] Setting up inception_5b/5x5
I0403 21:36:30.794313 12197 net.cpp:148] Top shape: 24 128 7 7 (150528)
I0403 21:36:30.794329 12197 net.cpp:156] Memory required for data: 1335327264
I0403 21:36:30.794348 12197 layer_factory.hpp:77] Creating layer inception_5b/relu_5x5
I0403 21:36:30.794364 12197 net.cpp:91] Creating Layer inception_5b/relu_5x5
I0403 21:36:30.794379 12197 net.cpp:425] inception_5b/relu_5x5 <- inception_5b/5x5
I0403 21:36:30.794399 12197 net.cpp:386] inception_5b/relu_5x5 -> inception_5b/5x5 (in-place)
I0403 21:36:30.794584 12197 net.cpp:141] Setting up inception_5b/relu_5x5
I0403 21:36:30.794607 12197 net.cpp:148] Top shape: 24 128 7 7 (150528)
I0403 21:36:30.794621 12197 net.cpp:156] Memory required for data: 1335929376
I0403 21:36:30.794636 12197 layer_factory.hpp:77] Creating layer inception_5b/pool
I0403 21:36:30.794652 12197 net.cpp:91] Creating Layer inception_5b/pool
I0403 21:36:30.794667 12197 net.cpp:425] inception_5b/pool <- inception_5a/output_inception_5a/output_0_split_3
I0403 21:36:30.794687 12197 net.cpp:399] inception_5b/pool -> inception_5b/pool
I0403 21:36:30.794757 12197 net.cpp:141] Setting up inception_5b/pool
I0403 21:36:30.794780 12197 net.cpp:148] Top shape: 24 832 7 7 (978432)
I0403 21:36:30.794793 12197 net.cpp:156] Memory required for data: 1339843104
I0403 21:36:30.794806 12197 layer_factory.hpp:77] Creating layer inception_5b/pool_proj
I0403 21:36:30.794829 12197 net.cpp:91] Creating Layer inception_5b/pool_proj
I0403 21:36:30.794847 12197 net.cpp:425] inception_5b/pool_proj <- inception_5b/pool
I0403 21:36:30.794864 12197 net.cpp:399] inception_5b/pool_proj -> inception_5b/pool_proj
I0403 21:36:30.797096 12197 net.cpp:141] Setting up inception_5b/pool_proj
I0403 21:36:30.797127 12197 net.cpp:148] Top shape: 24 128 7 7 (150528)
I0403 21:36:30.797142 12197 net.cpp:156] Memory required for data: 1340445216
I0403 21:36:30.797161 12197 layer_factory.hpp:77] Creating layer inception_5b/relu_pool_proj
I0403 21:36:30.797178 12197 net.cpp:91] Creating Layer inception_5b/relu_pool_proj
I0403 21:36:30.797194 12197 net.cpp:425] inception_5b/relu_pool_proj <- inception_5b/pool_proj
I0403 21:36:30.797214 12197 net.cpp:386] inception_5b/relu_pool_proj -> inception_5b/pool_proj (in-place)
I0403 21:36:30.797505 12197 net.cpp:141] Setting up inception_5b/relu_pool_proj
I0403 21:36:30.797533 12197 net.cpp:148] Top shape: 24 128 7 7 (150528)
I0403 21:36:30.797549 12197 net.cpp:156] Memory required for data: 1341047328
I0403 21:36:30.797562 12197 layer_factory.hpp:77] Creating layer inception_5b/output
I0403 21:36:30.797580 12197 net.cpp:91] Creating Layer inception_5b/output
I0403 21:36:30.797608 12197 net.cpp:425] inception_5b/output <- inception_5b/1x1
I0403 21:36:30.797626 12197 net.cpp:425] inception_5b/output <- inception_5b/3x3
I0403 21:36:30.797641 12197 net.cpp:425] inception_5b/output <- inception_5b/5x5
I0403 21:36:30.797657 12197 net.cpp:425] inception_5b/output <- inception_5b/pool_proj
I0403 21:36:30.797672 12197 net.cpp:399] inception_5b/output -> inception_5b/output
I0403 21:36:30.797722 12197 net.cpp:141] Setting up inception_5b/output
I0403 21:36:30.797744 12197 net.cpp:148] Top shape: 24 1024 7 7 (1204224)
I0403 21:36:30.797758 12197 net.cpp:156] Memory required for data: 1345864224
I0403 21:36:30.797773 12197 layer_factory.hpp:77] Creating layer pool5/7x7_s1
I0403 21:36:30.797791 12197 net.cpp:91] Creating Layer pool5/7x7_s1
I0403 21:36:30.797807 12197 net.cpp:425] pool5/7x7_s1 <- inception_5b/output
I0403 21:36:30.797824 12197 net.cpp:399] pool5/7x7_s1 -> pool5/7x7_s1
I0403 21:36:30.798032 12197 net.cpp:141] Setting up pool5/7x7_s1
I0403 21:36:30.798055 12197 net.cpp:148] Top shape: 24 1024 1 1 (24576)
I0403 21:36:30.798069 12197 net.cpp:156] Memory required for data: 1345962528
I0403 21:36:30.798084 12197 layer_factory.hpp:77] Creating layer pool5/drop_7x7_s1
I0403 21:36:30.798100 12197 net.cpp:91] Creating Layer pool5/drop_7x7_s1
I0403 21:36:30.798115 12197 net.cpp:425] pool5/drop_7x7_s1 <- pool5/7x7_s1
I0403 21:36:30.798135 12197 net.cpp:386] pool5/drop_7x7_s1 -> pool5/7x7_s1 (in-place)
I0403 21:36:30.798182 12197 net.cpp:141] Setting up pool5/drop_7x7_s1
I0403 21:36:30.798203 12197 net.cpp:148] Top shape: 24 1024 1 1 (24576)
I0403 21:36:30.798223 12197 net.cpp:156] Memory required for data: 1346060832
I0403 21:36:30.798238 12197 layer_factory.hpp:77] Creating layer loss3/classifier_plantvillage
I0403 21:36:30.798257 12197 net.cpp:91] Creating Layer loss3/classifier_plantvillage
I0403 21:36:30.798274 12197 net.cpp:425] loss3/classifier_plantvillage <- pool5/7x7_s1
I0403 21:36:30.798295 12197 net.cpp:399] loss3/classifier_plantvillage -> loss3/classifier_plantvillage
I0403 21:36:30.798701 12197 net.cpp:141] Setting up loss3/classifier_plantvillage
I0403 21:36:30.798722 12197 net.cpp:148] Top shape: 24 38 (912)
I0403 21:36:30.798737 12197 net.cpp:156] Memory required for data: 1346064480
I0403 21:36:30.798753 12197 layer_factory.hpp:77] Creating layer loss3/classifier_plantvillage_loss3/classifier_plantvillage_0_split
I0403 21:36:30.798769 12197 net.cpp:91] Creating Layer loss3/classifier_plantvillage_loss3/classifier_plantvillage_0_split
I0403 21:36:30.798784 12197 net.cpp:425] loss3/classifier_plantvillage_loss3/classifier_plantvillage_0_split <- loss3/classifier_plantvillage
I0403 21:36:30.798802 12197 net.cpp:399] loss3/classifier_plantvillage_loss3/classifier_plantvillage_0_split -> loss3/classifier_plantvillage_loss3/classifier_plantvillage_0_split_0
I0403 21:36:30.798822 12197 net.cpp:399] loss3/classifier_plantvillage_loss3/classifier_plantvillage_0_split -> loss3/classifier_plantvillage_loss3/classifier_plantvillage_0_split_1
I0403 21:36:30.798841 12197 net.cpp:399] loss3/classifier_plantvillage_loss3/classifier_plantvillage_0_split -> loss3/classifier_plantvillage_loss3/classifier_plantvillage_0_split_2
I0403 21:36:30.798862 12197 net.cpp:399] loss3/classifier_plantvillage_loss3/classifier_plantvillage_0_split -> loss3/classifier_plantvillage_loss3/classifier_plantvillage_0_split_3
I0403 21:36:30.798960 12197 net.cpp:141] Setting up loss3/classifier_plantvillage_loss3/classifier_plantvillage_0_split
I0403 21:36:30.798982 12197 net.cpp:148] Top shape: 24 38 (912)
I0403 21:36:30.798997 12197 net.cpp:148] Top shape: 24 38 (912)
I0403 21:36:30.799012 12197 net.cpp:148] Top shape: 24 38 (912)
I0403 21:36:30.799026 12197 net.cpp:148] Top shape: 24 38 (912)
I0403 21:36:30.799038 12197 net.cpp:156] Memory required for data: 1346079072
I0403 21:36:30.799052 12197 layer_factory.hpp:77] Creating layer loss1/loss
I0403 21:36:30.799073 12197 net.cpp:91] Creating Layer loss1/loss
I0403 21:36:30.799089 12197 net.cpp:425] loss1/loss <- loss1/classifier_plantvillage_loss1/classifier_plantvillage_0_split_0
I0403 21:36:30.799121 12197 net.cpp:425] loss1/loss <- label_data_1_split_0
…
