…
I0403 21:42:10.085412 12535 net.cpp:313] The NetState phase (1) differed from the phase (0) specified by a rule in layer data
I0403 21:42:10.086812 12535 net.cpp:49] Initializing net from parameters: 
state {
  phase: TEST
}
layer {
  name: "data"
  type: "Data"
  top: "data"
  top: "label"
  include {
    phase: TEST
  }
  transform_param {
    mirror: false
    crop_size: 224
    mean_file: "/home/mohanty/data/final_dataset/lmdb/color-80-20/mean.binaryproto"
  }
  data_param {
    source: "/home/mohanty/data/final_dataset/lmdb/color-80-20/test_db"
    batch_size: 24
    backend: LMDB
  }
}
layer {
  name: "conv1/7x7_s2"
  type: "Convolution"
  bottom: "data"
  top: "conv1/7x7_s2"
  param {
    lr_mult: 1
    decay_mult: 1
  }
  param {
    lr_mult: 2
    decay_mult: 0
  }
  convolution_param {
    num_output: 64
    pad: 3
    kernel_size: 7
    stride: 2
    weight_filler {
      type: "xavier"
      std: 0.1
    }
    bias_filler {
      type: "constant"
      value: 0.2
    }
  }
}
layer {
  name: "conv1/relu_7x7"
  type: "ReLU"
  bottom: "conv1/7x7_s2"
  top: "conv1/7x7_s2"
}
layer {
  name: "pool1/3x3_s2"
  type: "Pooling"
  bottom: "conv1/7x7_s2"
  top: "pool1/3x3_s2"
  pooling_param {
    pool: MAX
    kernel_size: 3
    stride: 2
  }
}
layer {
  name: "pool1/norm1"
  type: "LRN"
  bottom: "pool1/3x3_s2"
  top: "pool1/norm1"
  lrn_param {
    local_size: 5
    alpha: 0.0001
    beta: 0.75
  }
}
layer {
  name: "conv2/3x3_reduce"
  type: "Convolution"
  bottom: "pool1/norm1"
  top: "conv2/3x3_reduce"
  param {
    lr_mult: 1
    decay_mult: 1
  }
  param {
    lr_mult: 2
    decay_mult: 0
  }
  convolution_param {
    num_output: 64
    kernel_size: 1
    weight_filler {
      type: "xavier"
      std: 0.1
    }
    bias_filler {
      type: "constant"
      value: 0.2
    }
  }
}
layer {
  name: "conv2/relu_3x3_reduce"
  type: "ReLU"
  bottom: "conv2/3x3_reduce"
  top: "conv2/3x3_reduce"
}
layer {
  name: "conv2/3x3"
  type: "Convolution"
  bottom: "conv2/3x3_reduce"
  top: "conv2/3x3"
  param {
    lr_mult: 1
    decay_mult: 1
  }
  param {
    lr_mult: 2
    decay_mult: 0
  }
  convolution_param {
    num_output: 192
    pad: 1
    kernel_size: 3
    weight_filler {
      type: "xavier"
      std: 0.03
    }
    bias_filler {
      type: "constant"
      value: 0.2
    }
  }
}
layer {
  name: "conv2/relu_3x3"
  type: "ReLU"
  bottom: "conv2/3x3"
  top: "conv2/3x3"
}
layer {
  name: "conv2/norm2"
  type: "LRN"
  bottom: "conv2/3x3"
  top: "conv2/norm2"
  lrn_param {
    local_size: 5
    alpha: 0.0001
    beta: 0.75
  }
}
layer {
  name: "pool2/3x3_s2"
  type: "Pooling"
  bottom: "conv2/norm2"
  top: "pool2/3x3_s2"
  pooling_param {
    pool: MAX
    kernel_size: 3
    stride: 2
  }
}
layer {
  name: "inception_3a/1x1"
  type: "Convolution"
  bottom: "pool2/3x3_s2"
  top: "inception_3a/1x1"
  param {
    lr_mult: 1
    decay_mult: 1
  }
  param {
    lr_mult: 2
    decay_mult: 0
  }
  convolution_param {
    num_output: 64
    kernel_size: 1
    weight_filler {
      type: "xavier"
      std: 0.03
    }
    bias_filler {
      type: "constant"
      value: 0.2
    }
  }
}
layer {
  name: "inception_3a/relu_1x1"
  type: "ReLU"
  bottom: "inception_3a/1x1"
  top: "inception_3a/1x1"
}
layer {
  name: "inception_3a/3x3_reduce"
  type: "Convolution"
  bottom: "pool2/3x3_s2"
  top: "inception_3a/3x3_reduce"
  param {
    lr_mult: 1
    decay_mult: 1
  }
  param {
    lr_mult: 2
    decay_mult: 0
  }
  convolution_param {
    num_output: 96
    kernel_size: 1
    weight_filler {
      type: "xavier"
      std: 0.09
    }
    bias_filler {
      type: "constant"
      value: 0.2
    }
  }
}
layer {
  name: "inception_3a/relu_3x3_reduce"
  type: "ReLU"
  bottom: "inception_3a/3x3_reduce"
  top: "inception_3a/3x3_reduce"
}
layer {
  name: "inception_3a/3x3"
  type: "Convolution"
  bottom: "inception_3a/3x3_reduce"
  top: "inception_3a/3x3"
  param {
    lr_mult: 1
    decay_mult: 1
  }
  param {
    lr_mult: 2
    decay_mult: 0
  }
  convolution_param {
    num_output: 128
    pad: 1
    kernel_size: 3
    weight_filler {
      type: "xavier"
      std: 0.03
    }
    bias_filler {
      type: "constant"
      value: 0.2
    }
  }
}
layer {
  name: "inception_3a/relu_3x3"
  type: "ReLU"
  bottom: "inception_3a/3x3"
  top: "inception_3a/3x3"
}
layer {
  name: "inception_3a/5x5_reduce"
  type: "Convolution"
  bottom: "pool2/3x3_s2"
  top: "inception_3a/5x5_reduce"
  param {
    lr_mult: 1
    decay_mult: 1
  }
  param {
    lr_mult: 2
    decay_mult: 0
  }
  convolution_param {
    num_output: 16
    kernel_size: 1
    weight_filler {
      type: "xavier"
      std: 0.2
    }
    bias_filler {
      type: "constant"
      value: 0.2
    }
  }
}
layer {
  name: "inception_3a/relu_5x5_reduce"
  type: "ReLU"
  bottom: "inception_3a/5x5_reduce"
  top: "inception_3a/5x5_reduce"
}
layer {
  name: "inception_3a/5x5"
  type: "Convolution"
  bottom: "inception_3a/5x5_reduce"
  top: "inception_3a/5x5"
  param {
    lr_mult: 1
    decay_mult: 1
  }
  param {
    lr_mult: 2
    decay_mult: 0
  }
  convolution_param {
    num_output: 32
    pad: 2
    kernel_size: 5
    weight_filler {
      type: "xavier"
      std: 0.03
    }
    bias_filler {
      type: "constant"
      value: 0.2
    }
  }
}
layer {
  name: "inception_3a/relu_5x5"
  type: "ReLU"
  bottom: "inception_3a/5x5"
  top: "inception_3a/5x5"
}
layer {
  name: "inception_3a/pool"
  type: "Pooling"
  bottom: "pool2/3x3_s2"
  top: "inception_3a/pool"
  pooling_param {
    pool: MAX
    kernel_size: 3
    stride: 1
    pad: 1
  }
}
layer {
  name: "inception_3a/pool_proj"
  type: "Convolution"
  bottom: "inception_3a/pool"
  top: "inception_3a/pool_proj"
  param {
    lr_mult: 1
    decay_mult: 1
  }
  param {
    lr_mult: 2
    decay_mult: 0
  }
  convolution_param {
    num_output: 32
    kernel_size: 1
    weight_filler {
      type: "xavier"
      std: 0.1
    }
    bias_filler {
      type: "constant"
      value: 0.2
    }
  }
}
layer {
  name: "inception_3a/relu_pool_proj"
  type: "ReLU"
  bottom: "inception_3a/pool_proj"
  top: "inception_3a/pool_proj"
}
layer {
  name: "inception_3a/output"
  type: "Concat"
  bottom: "inception_3a/1x1"
  bottom: "inception_3a/3x3"
  bottom: "inception_3a/5x5"
  bottom: "inception_3a/pool_proj"
  top: "inception_3a/output"
}
layer {
  name: "inception_3b/1x1"
  type: "Convolution"
  bottom: "inception_3a/output"
  top: "inception_3b/1x1"
  param {
    lr_mult: 1
    decay_mult: 1
  }
  param {
    lr_mult: 2
    decay_mult: 0
  }
  convolution_param {
    num_output: 128
    kernel_size: 1
    weight_filler {
      type: "xavier"
      std: 0.03
    }
    bias_filler {
      type: "constant"
      value: 0.2
    }
  }
}
layer {
  name: "inception_3b/relu_1x1"
  type: "ReLU"
  bottom: "inception_3b/1x1"
  top: "inception_3b/1x1"
}
layer {
  name: "inception_3b/3x3_reduce"
  type: "Convolution"
  bottom: "inception_3a/output"
  top: "inception_3b/3x3_reduce"
  param {
    lr_mult: 1
    decay_mult: 1
  }
  param {
    lr_mult: 2
    decay_mult: 0
  }
  convolution_param {
    num_output: 128
    kernel_size: 1
    weight_filler {
      type: "xavier"
      std: 0.09
    }
    bias_filler {
      type: "constant"
      value: 0.2
    }
  }
}
layer {
  name: "inception_3b/relu_3x3_reduce"
  type: "ReLU"
  bottom: "inception_3b/3x3_reduce"
  top: "inception_3b/3x3_reduce"
}
layer {
  name: "inception_3b/3x3"
  type: "Convolution"
  bottom: "inception_3b/3x3_reduce"
  top: "inception_3b/3x3"
  param {
    lr_mult: 1
    decay_mult: 1
  }
  param {
    lr_mult: 2
    decay_mult: 0
  }
  convolution_param {
    num_output: 192
    pad: 1
    kernel_size: 3
    weight_filler {
      type: "xavier"
      std: 0.03
    }
    bias_filler {
      type: "constant"
      value: 0.2
    }
  }
}
layer {
  name: "inception_3b/relu_3x3"
  type: "ReLU"
  bottom: "inception_3b/3x3"
  top: "inception_3b/3x3"
}
layer {
  name: "inception_3b/5x5_reduce"
  type: "Convolution"
  bottom: "inception_3a/output"
  top: "inception_3b/5x5_reduce"
  param {
    lr_mult: 1
    decay_mult: 1
  }
  param {
    lr_mult: 2
    decay_mult: 0
  }
  convolution_param {
    num_output: 32
    kernel_size: 1
    weight_filler {
      type: "xavier"
      std: 0.2
    }
    bias_filler {
      type: "constant"
      value: 0.2
    }
  }
}
layer {
  name: "inception_3b/relu_5x5_reduce"
  type: "ReLU"
  bottom: "inception_3b/5x5_reduce"
  top: "inception_3b/5x5_reduce"
}
layer {
  name: "inception_3b/5x5"
  type: "Convolution"
  bottom: "inception_3b/5x5_reduce"
  top: "inception_3b/5x5"
  param {
    lr_mult: 1
    decay_mult: 1
  }
  param {
    lr_mult: 2
    decay_mult: 0
  }
  convolution_param {
    num_output: 96
    pad: 2
    kernel_size: 5
    weight_filler {
      type: "xavier"
      std: 0.03
    }
    bias_filler {
      type: "constant"
      value: 0.2
    }
  }
}
layer {
  name: "inception_3b/relu_5x5"
  type: "ReLU"
  bottom: "inception_3b/5x5"
  top: "inception_3b/5x5"
}
layer {
  name: "inception_3b/pool"
  type: "Pooling"
  bottom: "inception_3a/output"
  top: "inception_3b/pool"
  pooling_param {
    pool: MAX
    kernel_size: 3
    stride: 1
    pad: 1
  }
}
layer {
  name: "inception_3b/pool_proj"
  type: "Convolution"
  bottom: "inception_3b/pool"
  top: "inception_3b/pool_proj"
  param {
    lr_mult: 1
    decay_mult: 1
  }
  param {
    lr_mult: 2
    decay_mult: 0
  }
  convolution_param {
    num_output: 64
    kernel_size: 1
    weight_filler {
      type: "xavier"
      std: 0.1
    }
    bias_filler {
      type: "constant"
      value: 0.2
    }
  }
}
layer {
  name: "inception_3b/relu_pool_proj"
  type: "ReLU"
  bottom: "inception_3b/pool_proj"
  top: "inception_3b/pool_proj"
}
layer {
  name: "inception_3b/output"
  type: "Concat"
  bottom: "inception_3b/1x1"
  bottom: "inception_3b/3x3"
  bottom: "inception_3b/5x5"
  bottom: "inception_3b/pool_proj"
  top: "inception_3b/output"
}
layer {
  name: "pool3/3x3_s2"
  type: "Pooling"
  bottom: "inception_3b/output"
  top: "pool3/3x3_s2"
  pooling_param {
    pool: MAX
    kernel_size: 3
    stride: 2
  }
}
layer {
  name: "inception_4a/1x1"
  type: "Convolution"
  bottom: "pool3/3x3_s2"
  top: "inception_4a/1x1"
  param {
    lr_mult: 1
    decay_mult: 1
  }
  param {
    lr_mult: 2
    decay_mult: 0
  }
  convolution_param {
    num_output: 192
    kernel_size: 1
    weight_filler {
      type: "xavier"
      std: 0.03
    }
    bias_filler {
      type: "constant"
      value: 0.2
    }
  }
}
layer {
  name: "inception_4a/relu_1x1"
  type: "ReLU"
  bottom: "inception_4a/1x1"
  top: "inception_4a/1x1"
}
layer {
  name: "inception_4a/3x3_reduce"
  type: "Convolution"
  bottom: "pool3/3x3_s2"
  top: "inception_4a/3x3_reduce"
  param {
    lr_mult: 1
    decay_mult: 1
  }
  param {
    lr_mult: 2
    decay_mult: 0
  }
  convolution_param {
    num_output: 96
    kernel_size: 1
    weight_filler {
      type: "xavier"
      std: 0.09
    }
    bias_filler {
      type: "constant"
      value: 0.2
    }
  }
}
layer {
  name: "inception_4a/relu_3x3_reduce"
  type: "ReLU"
  bottom: "inception_4a/3x3_reduce"
  top: "inception_4a/3x3_reduce"
}
layer {
  name: "inception_4a/3x3"
  type: "Convolution"
  bottom: "inception_4a/3x3_reduce"
  top: "inception_4a/3x3"
  param {
    lr_mult: 1
    decay_mult: 1
  }
  param {
    lr_mult: 2
    decay_mult: 0
  }
  convolution_param {
    num_output: 208
    pad: 1
    kernel_size: 3
    weight_filler {
      type: "xavier"
      std: 0.03
    }
    bias_filler {
      type: "constant"
      value: 0.2
    }
  }
}
layer {
  name: "inception_4a/relu_3x3"
  type: "ReLU"
  bottom: "inception_4a/3x3"
  top: "inception_4a/3x3"
}
layer {
  name: "inception_4a/5x5_reduce"
  type: "Convolution"
  bottom: "pool3/3x3_s2"
  top: "inception_4a/5x5_reduce"
  param {
    lr_mult: 1
    decay_mult: 1
  }
  param {
    lr_mult: 2
    decay_mult: 0
  }
  convolution_param {
    num_output: 16
    kernel_size: 1
    weight_filler {
      type: "xavier"
      std: 0.2
    }
    bias_filler {
      type: "constant"
      value: 0.2
    }
  }
}
layer {
  name: "inception_4a/relu_5x5_reduce"
  type: "ReLU"
  bottom: "inception_4a/5x5_reduce"
  top: "inception_4a/5x5_reduce"
}
layer {
  name: "inception_4a/5x5"
  type: "Convolution"
  bottom: "inception_4a/5x5_reduce"
  top: "inception_4a/5x5"
  param {
    lr_mult: 1
    decay_mult: 1
  }
  param {
    lr_mult: 2
    decay_mult: 0
  }
  convolution_param {
    num_output: 48
    pad: 2
    kernel_size: 5
    weight_filler {
      type: "xavier"
      std: 0.03
    }
    bias_filler {
      type: "constant"
      value: 0.2
    }
  }
}
layer {
  name: "inception_4a/relu_5x5"
  type: "ReLU"
  bottom: "inception_4a/5x5"
  top: "inception_4a/5x5"
}
layer {
  name: "inception_4a/pool"
  type: "Pooling"
  bottom: "pool3/3x3_s2"
  top: "inception_4a/pool"
  pooling_param {
    pool: MAX
    kernel_size: 3
    stride: 1
    pad: 1
  }
}
layer {
  name: "inception_4a/pool_proj"
  type: "Convolution"
  bottom: "inception_4a/pool"
  top: "inception_4a/pool_proj"
  param {
    lr_mult: 1
    decay_mult: 1
  }
  param {
    lr_mult: 2
    decay_mult: 0
  }
  convolution_param {
    num_output: 64
    kernel_size: 1
    weight_filler {
      type: "xavier"
      std: 0.1
    }
    bias_filler {
      type: "constant"
      value: 0.2
    }
  }
}
layer {
  name: "inception_4a/relu_pool_proj"
  type: "ReLU"
  bottom: "inception_4a/pool_proj"
  top: "inception_4a/pool_proj"
}
layer {
  name: "inception_4a/output"
  type: "Concat"
  bottom: "inception_4a/1x1"
  bottom: "inception_4a/3x3"
  bottom: "inception_4a/5x5"
  bottom: "inception_4a/pool_proj"
  top: "inception_4a/output"
}
layer {
  name: "loss1/ave_pool"
  type: "Pooling"
  bottom: "inception_4a/output"
  top: "loss1/ave_pool"
  pooling_param {
    pool: AVE
    kernel_size: 5
    stride: 3
  }
}
layer {
  name: "loss1/conv"
  type: "Convolution"
  bottom: "loss1/ave_pool"
  top: "loss1/conv"
  param {
    lr_mult: 1
    decay_mult: 1
  }
  param {
    lr_mult: 2
    decay_mult: 0
  }
  convolution_param {
    num_output: 128
    kernel_size: 1
    weight_filler {
      type: "xavier"
      std: 0.08
    }
    bias_filler {
      type: "constant"
      value: 0.2
    }
  }
}
layer {
  name: "loss1/relu_conv"
  type: "ReLU"
  bottom: "loss1/conv"
  top: "loss1/conv"
}
layer {
  name: "loss1/fc"
  type: "InnerProduct"
  bottom: "loss1/conv"
  top: "loss1/fc"
  param {
    lr_mult: 1
    decay_mult: 1
  }
  param {
    lr_mult: 2
    decay_mult: 0
  }
  inner_product_param {
    num_output: 1024
    weight_filler {
      type: "xavier"
      std: 0.02
    }
    bias_filler {
      type: "constant"
      value: 0.2
    }
  }
}
layer {
  name: "loss1/relu_fc"
  type: "ReLU"
  bottom: "loss1/fc"
  top: "loss1/fc"
}
layer {
  name: "loss1/drop_fc"
  type: "Dropout"
  bottom: "loss1/fc"
  top: "loss1/fc"
  dropout_param {
    dropout_ratio: 0.7
  }
}
layer {
  name: "loss1/classifier_plantvillage"
  type: "InnerProduct"
  bottom: "loss1/fc"
  top: "loss1/classifier_plantvillage"
  param {
    lr_mult: 1
    decay_mult: 1
  }
  param {
    lr_mult: 2
    decay_mult: 0
  }
  inner_product_param {
    num_output: 38
    weight_filler {
      type: "xavier"
      std: 0.0009765625
    }
    bias_filler {
      type: "constant"
      value: 0
    }
  }
}
layer {
  name: "inception_4b/1x1"
  type: "Convolution"
  bottom: "inception_4a/output"
  top: "inception_4b/1x1"
  param {
    lr_mult: 1
    decay_mult: 1
  }
  param {
    lr_mult: 2
    decay_mult: 0
  }
  convolution_param {
    num_output: 160
    kernel_size: 1
    weight_filler {
      type: "xavier"
      std: 0.03
    }
    bias_filler {
      type: "constant"
      value: 0.2
    }
  }
}
layer {
  name: "inception_4b/relu_1x1"
  type: "ReLU"
  bottom: "inception_4b/1x1"
  top: "inception_4b/1x1"
}
layer {
  name: "inception_4b/3x3_reduce"
  type: "Convolution"
  bottom: "inception_4a/output"
  top: "inception_4b/3x3_reduce"
  param {
    lr_mult: 1
    decay_mult: 1
  }
  param {
    lr_mult: 2
    decay_mult: 0
  }
  convolution_param {
    num_output: 112
    kernel_size: 1
    weight_filler {
      type: "xavier"
      std: 0.09
    }
    bias_filler {
      type: "constant"
      value: 0.2
    }
  }
}
layer {
  name: "inception_4b/relu_3x3_reduce"
  type: "ReLU"
  bottom: "inception_4b/3x3_reduce"
  top: "inception_4b/3x3_reduce"
}
layer {
  name: "inception_4b/3x3"
  type: "Convolution"
  bottom: "inception_4b/3x3_reduce"
  top: "inception_4b/3x3"
  param {
    lr_mult: 1
    decay_mult: 1
  }
  param {
    lr_mult: 2
    decay_mult: 0
  }
  convolution_param {
    num_output: 224
    pad: 1
    kernel_size: 3
    weight_filler {
      type: "xavier"
      std: 0.03
    }
    bias_filler {
      type: "constant"
      value: 0.2
    }
  }
}
layer {
  name: "inception_4b/relu_3x3"
  type: "ReLU"
  bottom: "inception_4b/3x3"
  top: "inception_4b/3x3"
}
layer {
  name: "inception_4b/5x5_reduce"
  type: "Convolution"
  bottom: "inception_4a/output"
  top: "inception_4b/5x5_reduce"
  param {
    lr_mult: 1
    decay_mult: 1
  }
  param {
    lr_mult: 2
    decay_mult: 0
  }
  convolution_param {
    num_output: 24
    kernel_size: 1
    weight_filler {
      type: "xavier"
      std: 0.2
    }
    bias_filler {
      type: "constant"
      value: 0.2
    }
  }
}
layer {
  name: "inception_4b/relu_5x5_reduce"
  type: "ReLU"
  bottom: "inception_4b/5x5_reduce"
  top: "inception_4b/5x5_reduce"
}
layer {
  name: "inception_4b/5x5"
  type: "Convolution"
  bottom: "inception_4b/5x5_reduce"
  top: "inception_4b/5x5"
  param {
    lr_mult: 1
    decay_mult: 1
  }
  param {
    lr_mult: 2
    decay_mult: 0
  }
  convolution_param {
    num_output: 64
    pad: 2
    kernel_size: 5
    weight_filler {
      type: "xavier"
      std: 0.03
    }
    bias_filler {
      type: "constant"
      value: 0.2
    }
  }
}
layer {
  name: "inception_4b/relu_5x5"
  type: "ReLU"
  bottom: "inception_4b/5x5"
  top: "inception_4b/5x5"
}
layer {
  name: "inception_4b/pool"
  type: "Pooling"
  bottom: "inception_4a/output"
  top: "inception_4b/pool"
  pooling_param {
    pool: MAX
    kernel_size: 3
    stride: 1
    pad: 1
  }
}
layer {
  name: "inception_4b/pool_proj"
  type: "Convolution"
  bottom: "inception_4b/pool"
  top: "inception_4b/pool_proj"
  param {
    lr_mult: 1
    decay_mult: 1
  }
  param {
    lr_mult: 2
    decay_mult: 0
  }
  convolution_param {
    num_output: 64
    kernel_size: 1
    weight_filler {
      type: "xavier"
      std: 0.1
    }
    bias_filler {
      type: "constant"
      value: 0.2
    }
  }
}
layer {
  name: "inception_4b/relu_pool_proj"
  type: "ReLU"
  bottom: "inception_4b/pool_proj"
  top: "inception_4b/pool_proj"
}
layer {
  name: "inception_4b/output"
  type: "Concat"
  bottom: "inception_4b/1x1"
  bottom: "inception_4b/3x3"
  bottom: "inception_4b/5x5"
  bottom: "inception_4b/pool_proj"
  top: "inception_4b/output"
}
layer {
  name: "inception_4c/1x1"
  type: "Convolution"
  bottom: "inception_4b/output"
  top: "inception_4c/1x1"
  param {
    lr_mult: 1
    decay_mult: 1
  }
  param {
    lr_mult: 2
    decay_mult: 0
  }
  convolution_param {
    num_output: 128
    kernel_size: 1
    weight_filler {
      type: "xavier"
      std: 0.03
    }
    bias_filler {
      type: "constant"
      value: 0.2
    }
  }
}
layer {
  name: "inception_4c/relu_1x1"
  type: "ReLU"
  bottom: "inception_4c/1x1"
  top: "inception_4c/1x1"
}
layer {
  name: "inception_4c/3x3_reduce"
  type: "Convolution"
  bottom: "inception_4b/output"
  top: "inception_4c/3x3_reduce"
  param {
    lr_mult: 1
    decay_mult: 1
  }
  param {
    lr_mult: 2
    decay_mult: 0
  }
  convolution_param {
    num_output: 128
    kernel_size: 1
    weight_filler {
      type: "xavier"
      std: 0.09
    }
    bias_filler {
      type: "constant"
      value: 0.2
    }
  }
}
layer {
  name: "inception_4c/relu_3x3_reduce"
  type: "ReLU"
  bottom: "inception_4c/3x3_reduce"
  top: "inception_4c/3x3_reduce"
}
layer {
  name: "inception_4c/3x3"
  type: "Convolution"
  bottom: "inception_4c/3x3_reduce"
  top: "inception_4c/3x3"
  param {
    lr_mult: 1
    decay_mult: 1
  }
  param {
    lr_mult: 2
    decay_mult: 0
  }
  convolution_param {
    num_output: 256
    pad: 1
    kernel_size: 3
    weight_filler {
      type: "xavier"
      std: 0.03
    }
    bias_filler {
      type: "constant"
      value: 0.2
    }
  }
}
layer {
  name: "inception_4c/relu_3x3"
  type: "ReLU"
  bottom: "inception_4c/3x3"
  top: "inception_4c/3x3"
}
layer {
  name: "inception_4c/5x5_reduce"
  type: "Convolution"
  bottom: "inception_4b/output"
  top: "inception_4c/5x5_reduce"
  param {
    lr_mult: 1
    decay_mult: 1
  }
  param {
    lr_mult: 2
    decay_mult: 0
  }
  convolution_param {
    num_output: 24
    kernel_size: 1
    weight_filler {
      type: "xavier"
      std: 0.2
    }
    bias_filler {
      type: "constant"
      value: 0.2
    }
  }
}
layer {
  name: "inception_4c/relu_5x5_reduce"
  type: "ReLU"
  bottom: "inception_4c/5x5_reduce"
  top: "inception_4c/5x5_reduce"
}
layer {
  name: "inception_4c/5x5"
  type: "Convolution"
  bottom: "inception_4c/5x5_reduce"
  top: "inception_4c/5x5"
  param {
    lr_mult: 1
    decay_mult: 1
  }
  param {
    lr_mult: 2
    decay_mult: 0
  }
  convolution_param {
    num_output: 64
    pad: 2
    kernel_size: 5
    weight_filler {
      type: "xavier"
      std: 0.03
    }
    bias_filler {
      type: "constant"
      value: 0.2
    }
  }
}
layer {
  name: "inception_4c/relu_5x5"
  type: "ReLU"
  bottom: "inception_4c/5x5"
  top: "inception_4c/5x5"
}
layer {
  name: "inception_4c/pool"
  type: "Pooling"
  bottom: "inception_4b/output"
  top: "inception_4c/pool"
  pooling_param {
    pool: MAX
    kernel_size: 3
    stride: 1
    pad: 1
  }
}
layer {
  name: "inception_4c/pool_proj"
  type: "Convolution"
  bottom: "inception_4c/pool"
  top: "inception_4c/pool_proj"
  param {
    lr_mult: 1
    decay_mult: 1
  }
  param {
    lr_mult: 2
    decay_mult: 0
  }
  convolution_param {
    num_output: 64
    kernel_size: 1
    weight_filler {
      type: "xavier"
      std: 0.1
    }
    bias_filler {
      type: "constant"
      value: 0.2
    }
  }
}
layer {
  name: "inception_4c/relu_pool_proj"
  type: "ReLU"
  bottom: "inception_4c/pool_proj"
  top: "inception_4c/pool_proj"
}
layer {
  name: "inception_4c/output"
  type: "Concat"
  bottom: "inception_4c/1x1"
  bottom: "inception_4c/3x3"
  bottom: "inception_4c/5x5"
  bottom: "inception_4c/pool_proj"
  top: "inception_4c/output"
}
layer {
  name: "inception_4d/1x1"
  type: "Convolution"
  bottom: "inception_4c/output"
  top: "inception_4d/1x1"
  param {
    lr_mult: 1
    decay_mult: 1
  }
  param {
    lr_mult: 2
    decay_mult: 0
  }
  convolution_param {
    num_output: 112
    kernel_size: 1
    weight_filler {
      type: "xavier"
      std: 0.03
    }
    bias_filler {
      type: "constant"
      value: 0.2
    }
  }
}
layer {
  name: "inception_4d/relu_1x1"
  type: "ReLU"
  bottom: "inception_4d/1x1"
  top: "inception_4d/1x1"
}
layer {
  name: "inception_4d/3x3_reduce"
  type: "Convolution"
  bottom: "inception_4c/output"
  top: "inception_4d/3x3_reduce"
  param {
    lr_mult: 1
    decay_mult: 1
  }
  param {
    lr_mult: 2
    decay_mult: 0
  }
  convolution_param {
    num_output: 144
    kernel_size: 1
    weight_filler {
      type: "xavier"
      std: 0.09
    }
    bias_filler {
      type: "constant"
      value: 0.2
    }
  }
}
layer {
  name: "inception_4d/relu_3x3_reduce"
  type: "ReLU"
  bottom: "inception_4d/3x3_reduce"
  top: "inception_4d/3x3_reduce"
}
layer {
  name: "inception_4d/3x3"
  type: "Convolution"
  bottom: "inception_4d/3x3_reduce"
  top: "inception_4d/3x3"
  param {
    lr_mult: 1
    decay_mult: 1
  }
  param {
    lr_mult: 2
    decay_mult: 0
  }
  convolution_param {
    num_output: 288
    pad: 1
    kernel_size: 3
    weight_filler {
      type: "xavier"
      std: 0.03
    }
    bias_filler {
      type: "constant"
      value: 0.2
    }
  }
}
layer {
  name: "inception_4d/relu_3x3"
  type: "ReLU"
  bottom: "inception_4d/3x3"
  top: "inception_4d/3x3"
}
layer {
  name: "inception_4d/5x5_reduce"
  type: "Convolution"
  bottom: "inception_4c/output"
  top: "inception_4d/5x5_reduce"
  param {
    lr_mult: 1
    decay_mult: 1
  }
  param {
    lr_mult: 2
    decay_mult: 0
  }
  convolution_param {
    num_output: 32
    kernel_size: 1
    weight_filler {
      type: "xavier"
      std: 0.2
    }
    bias_filler {
      type: "constant"
      value: 0.2
    }
  }
}
layer {
  name: "inception_4d/relu_5x5_reduce"
  type: "ReLU"
  bottom: "inception_4d/5x5_reduce"
  top: "inception_4d/5x5_reduce"
}
layer {
  name: "inception_4d/5x5"
  type: "Convolution"
  bottom: "inception_4d/5x5_reduce"
  top: "inception_4d/5x5"
  param {
    lr_mult: 1
    decay_mult: 1
  }
  param {
    lr_mult: 2
    decay_mult: 0
  }
  convolution_param {
    num_output: 64
    pad: 2
    kernel_size: 5
    weight_filler {
      type: "xavier"
      std: 0.03
    }
    bias_filler {
      type: "constant"
      value: 0.2
    }
  }
}
layer {
  name: "inception_4d/relu_5x5"
  type: "ReLU"
  bottom: "inception_4d/5x5"
  top: "inception_4d/5x5"
}
layer {
  name: "inception_4d/pool"
  type: "Pooling"
  bottom: "inception_4c/output"
  top: "inception_4d/pool"
  pooling_param {
    pool: MAX
    kernel_size: 3
    stride: 1
    pad: 1
  }
}
layer {
  name: "inception_4d/pool_proj"
  type: "Convolution"
  bottom: "inception_4d/pool"
  top: "inception_4d/pool_proj"
  param {
    lr_mult: 1
    decay_mult: 1
  }
  param {
    lr_mult: 2
    decay_mult: 0
  }
  convolution_param {
    num_output: 64
    kernel_size: 1
    weight_filler {
      type: "xavier"
      std: 0.1
    }
    bias_filler {
      type: "constant"
      value: 0.2
    }
  }
}
layer {
  name: "inception_4d/relu_pool_proj"
  type: "ReLU"
  bottom: "inception_4d/pool_proj"
  top: "inception_4d/pool_proj"
}
layer {
  name: "inception_4d/output"
  type: "Concat"
  bottom: "inception_4d/1x1"
  bottom: "inception_4d/3x3"
  bottom: "inception_4d/5x5"
  bottom: "inception_4d/pool_proj"
  top: "inception_4d/output"
}
layer {
  name: "loss2/ave_pool"
  type: "Pooling"
  bottom: "inception_4d/output"
  top: "loss2/ave_pool"
  pooling_param {
    pool: AVE
    kernel_size: 5
    stride: 3
  }
}
layer {
  name: "loss2/conv"
  type: "Convolution"
  bottom: "loss2/ave_pool"
  top: "loss2/conv"
  param {
    lr_mult: 1
    decay_mult: 1
  }
  param {
    lr_mult: 2
    decay_mult: 0
  }
  convolution_param {
    num_output: 128
    kernel_size: 1
    weight_filler {
      type: "xavier"
      std: 0.08
    }
    bias_filler {
      type: "constant"
      value: 0.2
    }
  }
}
layer {
  name: "loss2/relu_conv"
  type: "ReLU"
  bottom: "loss2/conv"
  top: "loss2/conv"
}
layer {
  name: "loss2/fc"
  type: "InnerProduct"
  bottom: "loss2/conv"
  top: "loss2/fc"
  param {
    lr_mult: 1
    decay_mult: 1
  }
  param {
    lr_mult: 2
    decay_mult: 0
  }
  inner_product_param {
    num_output: 1024
    weight_filler {
      type: "xavier"
      std: 0.02
    }
    bias_filler {
      type: "constant"
      value: 0.2
    }
  }
}
layer {
  name: "loss2/relu_fc"
  type: "ReLU"
  bottom: "loss2/fc"
  top: "loss2/fc"
}
layer {
  name: "loss2/drop_fc"
  type: "Dropout"
  bottom: "loss2/fc"
  top: "loss2/fc"
  dropout_param {
    dropout_ratio: 0.7
  }
}
layer {
  name: "loss2/classifier_plantvillage"
  type: "InnerProduct"
  bottom: "loss2/fc"
  top: "loss2/classifier_plantvillage"
  param {
    lr_mult: 1
    decay_mult: 1
  }
  param {
    lr_mult: 2
    decay_mult: 0
  }
  inner_product_param {
    num_output: 38
    weight_filler {
      type: "xavier"
      std: 0.0009765625
    }
    bias_filler {
      type: "constant"
      value: 0
    }
  }
}
layer {
  name: "inception_4e/1x1"
  type: "Convolution"
  bottom: "inception_4d/output"
  top: "inception_4e/1x1"
  param {
    lr_mult: 1
    decay_mult: 1
  }
  param {
    lr_mult: 2
    decay_mult: 0
  }
  convolution_param {
    num_output: 256
    kernel_size: 1
    weight_filler {
      type: "xavier"
      std: 0.03
    }
    bias_filler {
      type: "constant"
      value: 0.2
    }
  }
}
layer {
  name: "inception_4e/relu_1x1"
  type: "ReLU"
  bottom: "inception_4e/1x1"
  top: "inception_4e/1x1"
}
layer {
  name: "inception_4e/3x3_reduce"
  type: "Convolution"
  bottom: "inception_4d/output"
  top: "inception_4e/3x3_reduce"
  param {
    lr_mult: 1
    decay_mult: 1
  }
  param {
    lr_mult: 2
    decay_mult: 0
  }
  convolution_param {
    num_output: 160
    kernel_size: 1
    weight_filler {
      type: "xavier"
      std: 0.09
    }
    bias_filler {
      type: "constant"
      value: 0.2
    }
  }
}
layer {
  name: "inception_4e/relu_3x3_reduce"
  type: "ReLU"
  bottom: "inception_4e/3x3_reduce"
  top: "inception_4e/3x3_reduce"
}
layer {
  name: "inception_4e/3x3"
  type: "Convolution"
  bottom: "inception_4e/3x3_reduce"
  top: "inception_4e/3x3"
  param {
    lr_mult: 1
    decay_mult: 1
  }
  param {
    lr_mult: 2
    decay_mult: 0
  }
  convolution_param {
    num_output: 320
    pad: 1
    kernel_size: 3
    weight_filler {
      type: "xavier"
      std: 0.03
    }
    bias_filler {
      type: "constant"
      value: 0.2
    }
  }
}
layer {
  name: "inception_4e/relu_3x3"
  type: "ReLU"
  bottom: "inception_4e/3x3"
  top: "inception_4e/3x3"
}
layer {
  name: "inception_4e/5x5_reduce"
  type: "Convolution"
  bottom: "inception_4d/output"
  top: "inception_4e/5x5_reduce"
  param {
    lr_mult: 1
    decay_mult: 1
  }
  param {
    lr_mult: 2
    decay_mult: 0
  }
  convolution_param {
    num_output: 32
    kernel_size: 1
    weight_filler {
      type: "xavier"
      std: 0.2
    }
    bias_filler {
      type: "constant"
      value: 0.2
    }
  }
}
layer {
  name: "inception_4e/relu_5x5_reduce"
  type: "ReLU"
  bottom: "inception_4e/5x5_reduce"
  top: "inception_4e/5x5_reduce"
}
layer {
  name: "inception_4e/5x5"
  type: "Convolution"
  bottom: "inception_4e/5x5_reduce"
  top: "inception_4e/5x5"
  p
I0403 21:42:10.089336 12535 layer_factory.hpp:77] Creating layer data
I0403 21:42:10.090080 12535 net.cpp:91] Creating Layer data
I0403 21:42:10.090117 12535 net.cpp:399] data -> data
I0403 21:42:10.090178 12535 net.cpp:399] data -> label
I0403 21:42:10.090229 12535 data_transformer.cpp:25] Loading mean file from: /home/mohanty/data/final_dataset/lmdb/color-80-20/mean.binaryproto
I0403 21:42:10.091419 12540 db_lmdb.cpp:38] Opened lmdb /home/mohanty/data/final_dataset/lmdb/color-80-20/test_db
I0403 21:42:10.107010 12535 data_layer.cpp:41] output data size: 24,3,224,224
I0403 21:42:10.140146 12535 net.cpp:141] Setting up data
I0403 21:42:10.140259 12535 net.cpp:148] Top shape: 24 3 224 224 (3612672)
I0403 21:42:10.140290 12535 net.cpp:148] Top shape: 24 (24)
I0403 21:42:10.140308 12535 net.cpp:156] Memory required for data: 14450784
I0403 21:42:10.140341 12535 layer_factory.hpp:77] Creating layer label_data_1_split
I0403 21:42:10.140374 12535 net.cpp:91] Creating Layer label_data_1_split
I0403 21:42:10.140396 12535 net.cpp:425] label_data_1_split <- label
I0403 21:42:10.140434 12535 net.cpp:399] label_data_1_split -> label_data_1_split_0
I0403 21:42:10.140467 12535 net.cpp:399] label_data_1_split -> label_data_1_split_1
I0403 21:42:10.140492 12535 net.cpp:399] label_data_1_split -> label_data_1_split_2
I0403 21:42:10.140517 12535 net.cpp:399] label_data_1_split -> label_data_1_split_3
I0403 21:42:10.140542 12535 net.cpp:399] label_data_1_split -> label_data_1_split_4
I0403 21:42:10.140564 12535 net.cpp:399] label_data_1_split -> label_data_1_split_5
I0403 21:42:10.140588 12535 net.cpp:399] label_data_1_split -> label_data_1_split_6
I0403 21:42:10.140614 12535 net.cpp:399] label_data_1_split -> label_data_1_split_7
I0403 21:42:10.140637 12535 net.cpp:399] label_data_1_split -> label_data_1_split_8
I0403 21:42:10.140662 12535 net.cpp:399] label_data_1_split -> label_data_1_split_9
I0403 21:42:10.140802 12535 net.cpp:141] Setting up label_data_1_split
I0403 21:42:10.140830 12535 net.cpp:148] Top shape: 24 (24)
I0403 21:42:10.140852 12535 net.cpp:148] Top shape: 24 (24)
I0403 21:42:10.140872 12535 net.cpp:148] Top shape: 24 (24)
I0403 21:42:10.140892 12535 net.cpp:148] Top shape: 24 (24)
I0403 21:42:10.140911 12535 net.cpp:148] Top shape: 24 (24)
I0403 21:42:10.140929 12535 net.cpp:148] Top shape: 24 (24)
I0403 21:42:10.140949 12535 net.cpp:148] Top shape: 24 (24)
I0403 21:42:10.140967 12535 net.cpp:148] Top shape: 24 (24)
I0403 21:42:10.140987 12535 net.cpp:148] Top shape: 24 (24)
I0403 21:42:10.141007 12535 net.cpp:148] Top shape: 24 (24)
I0403 21:42:10.141062 12535 net.cpp:156] Memory required for data: 14451744
I0403 21:42:10.141083 12535 layer_factory.hpp:77] Creating layer conv1/7x7_s2
I0403 21:42:10.141122 12535 net.cpp:91] Creating Layer conv1/7x7_s2
I0403 21:42:10.141145 12535 net.cpp:425] conv1/7x7_s2 <- data
I0403 21:42:10.141170 12535 net.cpp:399] conv1/7x7_s2 -> conv1/7x7_s2
I0403 21:42:10.313308 12535 net.cpp:141] Setting up conv1/7x7_s2
I0403 21:42:10.313424 12535 net.cpp:148] Top shape: 24 64 112 112 (19267584)
I0403 21:42:10.313444 12535 net.cpp:156] Memory required for data: 91522080
I0403 21:42:10.313482 12535 layer_factory.hpp:77] Creating layer conv1/relu_7x7
I0403 21:42:10.313514 12535 net.cpp:91] Creating Layer conv1/relu_7x7
I0403 21:42:10.313537 12535 net.cpp:425] conv1/relu_7x7 <- conv1/7x7_s2
I0403 21:42:10.313560 12535 net.cpp:386] conv1/relu_7x7 -> conv1/7x7_s2 (in-place)
I0403 21:42:10.313869 12535 net.cpp:141] Setting up conv1/relu_7x7
I0403 21:42:10.313902 12535 net.cpp:148] Top shape: 24 64 112 112 (19267584)
I0403 21:42:10.313921 12535 net.cpp:156] Memory required for data: 168592416
I0403 21:42:10.313940 12535 layer_factory.hpp:77] Creating layer pool1/3x3_s2
I0403 21:42:10.314043 12535 net.cpp:91] Creating Layer pool1/3x3_s2
I0403 21:42:10.314071 12535 net.cpp:425] pool1/3x3_s2 <- conv1/7x7_s2
I0403 21:42:10.314095 12535 net.cpp:399] pool1/3x3_s2 -> pool1/3x3_s2
I0403 21:42:10.314187 12535 net.cpp:141] Setting up pool1/3x3_s2
I0403 21:42:10.314221 12535 net.cpp:148] Top shape: 24 64 56 56 (4816896)
I0403 21:42:10.314241 12535 net.cpp:156] Memory required for data: 187860000
I0403 21:42:10.314260 12535 layer_factory.hpp:77] Creating layer pool1/norm1
I0403 21:42:10.314291 12535 net.cpp:91] Creating Layer pool1/norm1
I0403 21:42:10.314312 12535 net.cpp:425] pool1/norm1 <- pool1/3x3_s2
I0403 21:42:10.314333 12535 net.cpp:399] pool1/norm1 -> pool1/norm1
I0403 21:42:10.314677 12535 net.cpp:141] Setting up pool1/norm1
I0403 21:42:10.314709 12535 net.cpp:148] Top shape: 24 64 56 56 (4816896)
I0403 21:42:10.314728 12535 net.cpp:156] Memory required for data: 207127584
I0403 21:42:10.314746 12535 layer_factory.hpp:77] Creating layer conv2/3x3_reduce
I0403 21:42:10.314776 12535 net.cpp:91] Creating Layer conv2/3x3_reduce
I0403 21:42:10.314797 12535 net.cpp:425] conv2/3x3_reduce <- pool1/norm1
I0403 21:42:10.314821 12535 net.cpp:399] conv2/3x3_reduce -> conv2/3x3_reduce
I0403 21:42:10.316412 12535 net.cpp:141] Setting up conv2/3x3_reduce
I0403 21:42:10.316452 12535 net.cpp:148] Top shape: 24 64 56 56 (4816896)
I0403 21:42:10.316471 12535 net.cpp:156] Memory required for data: 226395168
I0403 21:42:10.316498 12535 layer_factory.hpp:77] Creating layer conv2/relu_3x3_reduce
I0403 21:42:10.316521 12535 net.cpp:91] Creating Layer conv2/relu_3x3_reduce
I0403 21:42:10.316543 12535 net.cpp:425] conv2/relu_3x3_reduce <- conv2/3x3_reduce
I0403 21:42:10.316566 12535 net.cpp:386] conv2/relu_3x3_reduce -> conv2/3x3_reduce (in-place)
I0403 21:42:10.316857 12535 net.cpp:141] Setting up conv2/relu_3x3_reduce
I0403 21:42:10.316890 12535 net.cpp:148] Top shape: 24 64 56 56 (4816896)
I0403 21:42:10.316908 12535 net.cpp:156] Memory required for data: 245662752
I0403 21:42:10.316928 12535 layer_factory.hpp:77] Creating layer conv2/3x3
I0403 21:42:10.316956 12535 net.cpp:91] Creating Layer conv2/3x3
I0403 21:42:10.316975 12535 net.cpp:425] conv2/3x3 <- conv2/3x3_reduce
I0403 21:42:10.316998 12535 net.cpp:399] conv2/3x3 -> conv2/3x3
I0403 21:42:10.319653 12535 net.cpp:141] Setting up conv2/3x3
I0403 21:42:10.319691 12535 net.cpp:148] Top shape: 24 192 56 56 (14450688)
I0403 21:42:10.319711 12535 net.cpp:156] Memory required for data: 303465504
I0403 21:42:10.319737 12535 layer_factory.hpp:77] Creating layer conv2/relu_3x3
I0403 21:42:10.319761 12535 net.cpp:91] Creating Layer conv2/relu_3x3
I0403 21:42:10.319780 12535 net.cpp:425] conv2/relu_3x3 <- conv2/3x3
I0403 21:42:10.319802 12535 net.cpp:386] conv2/relu_3x3 -> conv2/3x3 (in-place)
I0403 21:42:10.320008 12535 net.cpp:141] Setting up conv2/relu_3x3
I0403 21:42:10.320041 12535 net.cpp:148] Top shape: 24 192 56 56 (14450688)
I0403 21:42:10.320096 12535 net.cpp:156] Memory required for data: 361268256
I0403 21:42:10.320116 12535 layer_factory.hpp:77] Creating layer conv2/norm2
I0403 21:42:10.320139 12535 net.cpp:91] Creating Layer conv2/norm2
I0403 21:42:10.320159 12535 net.cpp:425] conv2/norm2 <- conv2/3x3
I0403 21:42:10.320183 12535 net.cpp:399] conv2/norm2 -> conv2/norm2
I0403 21:42:10.320549 12535 net.cpp:141] Setting up conv2/norm2
I0403 21:42:10.320581 12535 net.cpp:148] Top shape: 24 192 56 56 (14450688)
I0403 21:42:10.320601 12535 net.cpp:156] Memory required for data: 419071008
I0403 21:42:10.320619 12535 layer_factory.hpp:77] Creating layer pool2/3x3_s2
I0403 21:42:10.320642 12535 net.cpp:91] Creating Layer pool2/3x3_s2
I0403 21:42:10.320662 12535 net.cpp:425] pool2/3x3_s2 <- conv2/norm2
I0403 21:42:10.320694 12535 net.cpp:399] pool2/3x3_s2 -> pool2/3x3_s2
I0403 21:42:10.320760 12535 net.cpp:141] Setting up pool2/3x3_s2
I0403 21:42:10.320788 12535 net.cpp:148] Top shape: 24 192 28 28 (3612672)
I0403 21:42:10.320806 12535 net.cpp:156] Memory required for data: 433521696
I0403 21:42:10.320825 12535 layer_factory.hpp:77] Creating layer pool2/3x3_s2_pool2/3x3_s2_0_split
I0403 21:42:10.320850 12535 net.cpp:91] Creating Layer pool2/3x3_s2_pool2/3x3_s2_0_split
I0403 21:42:10.320869 12535 net.cpp:425] pool2/3x3_s2_pool2/3x3_s2_0_split <- pool2/3x3_s2
I0403 21:42:10.320890 12535 net.cpp:399] pool2/3x3_s2_pool2/3x3_s2_0_split -> pool2/3x3_s2_pool2/3x3_s2_0_split_0
I0403 21:42:10.320914 12535 net.cpp:399] pool2/3x3_s2_pool2/3x3_s2_0_split -> pool2/3x3_s2_pool2/3x3_s2_0_split_1
I0403 21:42:10.320941 12535 net.cpp:399] pool2/3x3_s2_pool2/3x3_s2_0_split -> pool2/3x3_s2_pool2/3x3_s2_0_split_2
I0403 21:42:10.320966 12535 net.cpp:399] pool2/3x3_s2_pool2/3x3_s2_0_split -> pool2/3x3_s2_pool2/3x3_s2_0_split_3
I0403 21:42:10.321049 12535 net.cpp:141] Setting up pool2/3x3_s2_pool2/3x3_s2_0_split
I0403 21:42:10.321077 12535 net.cpp:148] Top shape: 24 192 28 28 (3612672)
I0403 21:42:10.321097 12535 net.cpp:148] Top shape: 24 192 28 28 (3612672)
I0403 21:42:10.321116 12535 net.cpp:148] Top shape: 24 192 28 28 (3612672)
I0403 21:42:10.321135 12535 net.cpp:148] Top shape: 24 192 28 28 (3612672)
I0403 21:42:10.321153 12535 net.cpp:156] Memory required for data: 491324448
I0403 21:42:10.321171 12535 layer_factory.hpp:77] Creating layer inception_3a/1x1
I0403 21:42:10.321202 12535 net.cpp:91] Creating Layer inception_3a/1x1
I0403 21:42:10.321228 12535 net.cpp:425] inception_3a/1x1 <- pool2/3x3_s2_pool2/3x3_s2_0_split_0
I0403 21:42:10.321255 12535 net.cpp:399] inception_3a/1x1 -> inception_3a/1x1
I0403 21:42:10.323110 12535 net.cpp:141] Setting up inception_3a/1x1
I0403 21:42:10.323148 12535 net.cpp:148] Top shape: 24 64 28 28 (1204224)
I0403 21:42:10.323168 12535 net.cpp:156] Memory required for data: 496141344
I0403 21:42:10.323190 12535 layer_factory.hpp:77] Creating layer inception_3a/relu_1x1
I0403 21:42:10.323220 12535 net.cpp:91] Creating Layer inception_3a/relu_1x1
I0403 21:42:10.323241 12535 net.cpp:425] inception_3a/relu_1x1 <- inception_3a/1x1
I0403 21:42:10.323266 12535 net.cpp:386] inception_3a/relu_1x1 -> inception_3a/1x1 (in-place)
I0403 21:42:10.323477 12535 net.cpp:141] Setting up inception_3a/relu_1x1
I0403 21:42:10.323509 12535 net.cpp:148] Top shape: 24 64 28 28 (1204224)
I0403 21:42:10.323528 12535 net.cpp:156] Memory required for data: 500958240
I0403 21:42:10.323545 12535 layer_factory.hpp:77] Creating layer inception_3a/3x3_reduce
I0403 21:42:10.323573 12535 net.cpp:91] Creating Layer inception_3a/3x3_reduce
I0403 21:42:10.323595 12535 net.cpp:425] inception_3a/3x3_reduce <- pool2/3x3_s2_pool2/3x3_s2_0_split_1
I0403 21:42:10.323621 12535 net.cpp:399] inception_3a/3x3_reduce -> inception_3a/3x3_reduce
I0403 21:42:10.325631 12535 net.cpp:141] Setting up inception_3a/3x3_reduce
I0403 21:42:10.325667 12535 net.cpp:148] Top shape: 24 96 28 28 (1806336)
I0403 21:42:10.325687 12535 net.cpp:156] Memory required for data: 508183584
I0403 21:42:10.325714 12535 layer_factory.hpp:77] Creating layer inception_3a/relu_3x3_reduce
I0403 21:42:10.325760 12535 net.cpp:91] Creating Layer inception_3a/relu_3x3_reduce
I0403 21:42:10.325783 12535 net.cpp:425] inception_3a/relu_3x3_reduce <- inception_3a/3x3_reduce
I0403 21:42:10.325805 12535 net.cpp:386] inception_3a/relu_3x3_reduce -> inception_3a/3x3_reduce (in-place)
I0403 21:42:10.326022 12535 net.cpp:141] Setting up inception_3a/relu_3x3_reduce
I0403 21:42:10.326055 12535 net.cpp:148] Top shape: 24 96 28 28 (1806336)
I0403 21:42:10.326072 12535 net.cpp:156] Memory required for data: 515408928
I0403 21:42:10.326092 12535 layer_factory.hpp:77] Creating layer inception_3a/3x3
I0403 21:42:10.326122 12535 net.cpp:91] Creating Layer inception_3a/3x3
I0403 21:42:10.326143 12535 net.cpp:425] inception_3a/3x3 <- inception_3a/3x3_reduce
I0403 21:42:10.326170 12535 net.cpp:399] inception_3a/3x3 -> inception_3a/3x3
I0403 21:42:10.328166 12535 net.cpp:141] Setting up inception_3a/3x3
I0403 21:42:10.328200 12535 net.cpp:148] Top shape: 24 128 28 28 (2408448)
I0403 21:42:10.328227 12535 net.cpp:156] Memory required for data: 525042720
I0403 21:42:10.328251 12535 layer_factory.hpp:77] Creating layer inception_3a/relu_3x3
I0403 21:42:10.328277 12535 net.cpp:91] Creating Layer inception_3a/relu_3x3
I0403 21:42:10.328299 12535 net.cpp:425] inception_3a/relu_3x3 <- inception_3a/3x3
I0403 21:42:10.328320 12535 net.cpp:386] inception_3a/relu_3x3 -> inception_3a/3x3 (in-place)
I0403 21:42:10.328649 12535 net.cpp:141] Setting up inception_3a/relu_3x3
I0403 21:42:10.328682 12535 net.cpp:148] Top shape: 24 128 28 28 (2408448)
I0403 21:42:10.328701 12535 net.cpp:156] Memory required for data: 534676512
I0403 21:42:10.328722 12535 layer_factory.hpp:77] Creating layer inception_3a/5x5_reduce
I0403 21:42:10.328749 12535 net.cpp:91] Creating Layer inception_3a/5x5_reduce
I0403 21:42:10.328771 12535 net.cpp:425] inception_3a/5x5_reduce <- pool2/3x3_s2_pool2/3x3_s2_0_split_2
I0403 21:42:10.328799 12535 net.cpp:399] inception_3a/5x5_reduce -> inception_3a/5x5_reduce
I0403 21:42:10.329963 12535 net.cpp:141] Setting up inception_3a/5x5_reduce
I0403 21:42:10.329998 12535 net.cpp:148] Top shape: 24 16 28 28 (301056)
I0403 21:42:10.330016 12535 net.cpp:156] Memory required for data: 535880736
I0403 21:42:10.330039 12535 layer_factory.hpp:77] Creating layer inception_3a/relu_5x5_reduce
I0403 21:42:10.330063 12535 net.cpp:91] Creating Layer inception_3a/relu_5x5_reduce
I0403 21:42:10.330085 12535 net.cpp:425] inception_3a/relu_5x5_reduce <- inception_3a/5x5_reduce
I0403 21:42:10.330106 12535 net.cpp:386] inception_3a/relu_5x5_reduce -> inception_3a/5x5_reduce (in-place)
I0403 21:42:10.330446 12535 net.cpp:141] Setting up inception_3a/relu_5x5_reduce
I0403 21:42:10.330482 12535 net.cpp:148] Top shape: 24 16 28 28 (301056)
I0403 21:42:10.330502 12535 net.cpp:156] Memory required for data: 537084960
I0403 21:42:10.330521 12535 layer_factory.hpp:77] Creating layer inception_3a/5x5
I0403 21:42:10.330549 12535 net.cpp:91] Creating Layer inception_3a/5x5
I0403 21:42:10.330571 12535 net.cpp:425] inception_3a/5x5 <- inception_3a/5x5_reduce
I0403 21:42:10.330595 12535 net.cpp:399] inception_3a/5x5 -> inception_3a/5x5
I0403 21:42:10.331815 12535 net.cpp:141] Setting up inception_3a/5x5
I0403 21:42:10.331847 12535 net.cpp:148] Top shape: 24 32 28 28 (602112)
I0403 21:42:10.331866 12535 net.cpp:156] Memory required for data: 539493408
I0403 21:42:10.331888 12535 layer_factory.hpp:77] Creating layer inception_3a/relu_5x5
I0403 21:42:10.331913 12535 net.cpp:91] Creating Layer inception_3a/relu_5x5
I0403 21:42:10.331935 12535 net.cpp:425] inception_3a/relu_5x5 <- inception_3a/5x5
I0403 21:42:10.331957 12535 net.cpp:386] inception_3a/relu_5x5 -> inception_3a/5x5 (in-place)
I0403 21:42:10.332172 12535 net.cpp:141] Setting up inception_3a/relu_5x5
I0403 21:42:10.332202 12535 net.cpp:148] Top shape: 24 32 28 28 (602112)
I0403 21:42:10.332237 12535 net.cpp:156] Memory required for data: 541901856
I0403 21:42:10.332257 12535 layer_factory.hpp:77] Creating layer inception_3a/pool
I0403 21:42:10.332283 12535 net.cpp:91] Creating Layer inception_3a/pool
I0403 21:42:10.332304 12535 net.cpp:425] inception_3a/pool <- pool2/3x3_s2_pool2/3x3_s2_0_split_3
I0403 21:42:10.332345 12535 net.cpp:399] inception_3a/pool -> inception_3a/pool
I0403 21:42:10.332418 12535 net.cpp:141] Setting up inception_3a/pool
I0403 21:42:10.332447 12535 net.cpp:148] Top shape: 24 192 28 28 (3612672)
I0403 21:42:10.332465 12535 net.cpp:156] Memory required for data: 556352544
I0403 21:42:10.332484 12535 layer_factory.hpp:77] Creating layer inception_3a/pool_proj
I0403 21:42:10.332512 12535 net.cpp:91] Creating Layer inception_3a/pool_proj
I0403 21:42:10.332533 12535 net.cpp:425] inception_3a/pool_proj <- inception_3a/pool
I0403 21:42:10.332561 12535 net.cpp:399] inception_3a/pool_proj -> inception_3a/pool_proj
I0403 21:42:10.333715 12535 net.cpp:141] Setting up inception_3a/pool_proj
I0403 21:42:10.333752 12535 net.cpp:148] Top shape: 24 32 28 28 (602112)
I0403 21:42:10.333772 12535 net.cpp:156] Memory required for data: 558760992
I0403 21:42:10.333799 12535 layer_factory.hpp:77] Creating layer inception_3a/relu_pool_proj
I0403 21:42:10.333827 12535 net.cpp:91] Creating Layer inception_3a/relu_pool_proj
I0403 21:42:10.333848 12535 net.cpp:425] inception_3a/relu_pool_proj <- inception_3a/pool_proj
I0403 21:42:10.333871 12535 net.cpp:386] inception_3a/relu_pool_proj -> inception_3a/pool_proj (in-place)
I0403 21:42:10.334192 12535 net.cpp:141] Setting up inception_3a/relu_pool_proj
I0403 21:42:10.334229 12535 net.cpp:148] Top shape: 24 32 28 28 (602112)
I0403 21:42:10.334249 12535 net.cpp:156] Memory required for data: 561169440
I0403 21:42:10.334270 12535 layer_factory.hpp:77] Creating layer inception_3a/output
I0403 21:42:10.334291 12535 net.cpp:91] Creating Layer inception_3a/output
I0403 21:42:10.334316 12535 net.cpp:425] inception_3a/output <- inception_3a/1x1
I0403 21:42:10.334336 12535 net.cpp:425] inception_3a/output <- inception_3a/3x3
I0403 21:42:10.334357 12535 net.cpp:425] inception_3a/output <- inception_3a/5x5
I0403 21:42:10.334377 12535 net.cpp:425] inception_3a/output <- inception_3a/pool_proj
I0403 21:42:10.334398 12535 net.cpp:399] inception_3a/output -> inception_3a/output
I0403 21:42:10.334455 12535 net.cpp:141] Setting up inception_3a/output
I0403 21:42:10.334487 12535 net.cpp:148] Top shape: 24 256 28 28 (4816896)
I0403 21:42:10.334506 12535 net.cpp:156] Memory required for data: 580437024
I0403 21:42:10.334523 12535 layer_factory.hpp:77] Creating layer inception_3a/output_inception_3a/output_0_split
I0403 21:42:10.334545 12535 net.cpp:91] Creating Layer inception_3a/output_inception_3a/output_0_split
I0403 21:42:10.334564 12535 net.cpp:425] inception_3a/output_inception_3a/output_0_split <- inception_3a/output
I0403 21:42:10.334589 12535 net.cpp:399] inception_3a/output_inception_3a/output_0_split -> inception_3a/output_inception_3a/output_0_split_0
I0403 21:42:10.334614 12535 net.cpp:399] inception_3a/output_inception_3a/output_0_split -> inception_3a/output_inception_3a/output_0_split_1
I0403 21:42:10.334640 12535 net.cpp:399] inception_3a/output_inception_3a/output_0_split -> inception_3a/output_inception_3a/output_0_split_2
I0403 21:42:10.334666 12535 net.cpp:399] inception_3a/output_inception_3a/output_0_split -> inception_3a/output_inception_3a/output_0_split_3
I0403 21:42:10.334755 12535 net.cpp:141] Setting up inception_3a/output_inception_3a/output_0_split
I0403 21:42:10.334784 12535 net.cpp:148] Top shape: 24 256 28 28 (4816896)
I0403 21:42:10.334805 12535 net.cpp:148] Top shape: 24 256 28 28 (4816896)
I0403 21:42:10.334825 12535 net.cpp:148] Top shape: 24 256 28 28 (4816896)
I0403 21:42:10.334843 12535 net.cpp:148] Top shape: 24 256 28 28 (4816896)
I0403 21:42:10.334861 12535 net.cpp:156] Memory required for data: 657507360
I0403 21:42:10.334878 12535 layer_factory.hpp:77] Creating layer inception_3b/1x1
I0403 21:42:10.334906 12535 net.cpp:91] Creating Layer inception_3b/1x1
I0403 21:42:10.334928 12535 net.cpp:425] inception_3b/1x1 <- inception_3a/output_inception_3a/output_0_split_0
I0403 21:42:10.334954 12535 net.cpp:399] inception_3b/1x1 -> inception_3b/1x1
I0403 21:42:10.336330 12535 net.cpp:141] Setting up inception_3b/1x1
I0403 21:42:10.336377 12535 net.cpp:148] Top shape: 24 128 28 28 (2408448)
I0403 21:42:10.336397 12535 net.cpp:156] Memory required for data: 667141152
I0403 21:42:10.336421 12535 layer_factory.hpp:77] Creating layer inception_3b/relu_1x1
I0403 21:42:10.336443 12535 net.cpp:91] Creating Layer inception_3b/relu_1x1
I0403 21:42:10.336462 12535 net.cpp:425] inception_3b/relu_1x1 <- inception_3b/1x1
I0403 21:42:10.336486 12535 net.cpp:386] inception_3b/relu_1x1 -> inception_3b/1x1 (in-place)
I0403 21:42:10.336705 12535 net.cpp:141] Setting up inception_3b/relu_1x1
I0403 21:42:10.336735 12535 net.cpp:148] Top shape: 24 128 28 28 (2408448)
I0403 21:42:10.336755 12535 net.cpp:156] Memory required for data: 676774944
I0403 21:42:10.336772 12535 layer_factory.hpp:77] Creating layer inception_3b/3x3_reduce
I0403 21:42:10.336802 12535 net.cpp:91] Creating Layer inception_3b/3x3_reduce
I0403 21:42:10.336822 12535 net.cpp:425] inception_3b/3x3_reduce <- inception_3a/output_inception_3a/output_0_split_1
I0403 21:42:10.336848 12535 net.cpp:399] inception_3b/3x3_reduce -> inception_3b/3x3_reduce
I0403 21:42:10.338223 12535 net.cpp:141] Setting up inception_3b/3x3_reduce
I0403 21:42:10.338260 12535 net.cpp:148] Top shape: 24 128 28 28 (2408448)
I0403 21:42:10.338280 12535 net.cpp:156] Memory required for data: 686408736
I0403 21:42:10.338304 12535 layer_factory.hpp:77] Creating layer inception_3b/relu_3x3_reduce
I0403 21:42:10.338326 12535 net.cpp:91] Creating Layer inception_3b/relu_3x3_reduce
I0403 21:42:10.338345 12535 net.cpp:425] inception_3b/relu_3x3_reduce <- inception_3b/3x3_reduce
I0403 21:42:10.338368 12535 net.cpp:386] inception_3b/relu_3x3_reduce -> inception_3b/3x3_reduce (in-place)
I0403 21:42:10.338579 12535 net.cpp:141] Setting up inception_3b/relu_3x3_reduce
I0403 21:42:10.338610 12535 net.cpp:148] Top shape: 24 128 28 28 (2408448)
I0403 21:42:10.338629 12535 net.cpp:156] Memory required for data: 696042528
I0403 21:42:10.338649 12535 layer_factory.hpp:77] Creating layer inception_3b/3x3
I0403 21:42:10.338680 12535 net.cpp:91] Creating Layer inception_3b/3x3
I0403 21:42:10.338703 12535 net.cpp:425] inception_3b/3x3 <- inception_3b/3x3_reduce
I0403 21:42:10.338726 12535 net.cpp:399] inception_3b/3x3 -> inception_3b/3x3
I0403 21:42:10.342283 12535 net.cpp:141] Setting up inception_3b/3x3
I0403 21:42:10.342319 12535 net.cpp:148] Top shape: 24 192 28 28 (3612672)
I0403 21:42:10.342339 12535 net.cpp:156] Memory required for data: 710493216
I0403 21:42:10.342361 12535 layer_factory.hpp:77] Creating layer inception_3b/relu_3x3
I0403 21:42:10.342387 12535 net.cpp:91] Creating Layer inception_3b/relu_3x3
I0403 21:42:10.342407 12535 net.cpp:425] inception_3b/relu_3x3 <- inception_3b/3x3
I0403 21:42:10.342429 12535 net.cpp:386] inception_3b/relu_3x3 -> inception_3b/3x3 (in-place)
I0403 21:42:10.342761 12535 net.cpp:141] Setting up inception_3b/relu_3x3
I0403 21:42:10.342793 12535 net.cpp:148] Top shape: 24 192 28 28 (3612672)
I0403 21:42:10.342813 12535 net.cpp:156] Memory required for data: 724943904
I0403 21:42:10.342830 12535 layer_factory.hpp:77] Creating layer inception_3b/5x5_reduce
I0403 21:42:10.342859 12535 net.cpp:91] Creating Layer inception_3b/5x5_reduce
I0403 21:42:10.342882 12535 net.cpp:425] inception_3b/5x5_reduce <- inception_3a/output_inception_3a/output_0_split_2
I0403 21:42:10.342911 12535 net.cpp:399] inception_3b/5x5_reduce -> inception_3b/5x5_reduce
I0403 21:42:10.344122 12535 net.cpp:141] Setting up inception_3b/5x5_reduce
I0403 21:42:10.344156 12535 net.cpp:148] Top shape: 24 32 28 28 (602112)
I0403 21:42:10.344175 12535 net.cpp:156] Memory required for data: 727352352
I0403 21:42:10.344197 12535 layer_factory.hpp:77] Creating layer inception_3b/relu_5x5_reduce
I0403 21:42:10.344230 12535 net.cpp:91] Creating Layer inception_3b/relu_5x5_reduce
I0403 21:42:10.344252 12535 net.cpp:425] inception_3b/relu_5x5_reduce <- inception_3b/5x5_reduce
I0403 21:42:10.344274 12535 net.cpp:386] inception_3b/relu_5x5_reduce -> inception_3b/5x5_reduce (in-place)
I0403 21:42:10.344485 12535 net.cpp:141] Setting up inception_3b/relu_5x5_reduce
I0403 21:42:10.344530 12535 net.cpp:148] Top shape: 24 32 28 28 (602112)
I0403 21:42:10.344549 12535 net.cpp:156] Memory required for data: 729760800
I0403 21:42:10.344568 12535 layer_factory.hpp:77] Creating layer inception_3b/5x5
I0403 21:42:10.344599 12535 net.cpp:91] Creating Layer inception_3b/5x5
I0403 21:42:10.344620 12535 net.cpp:425] inception_3b/5x5 <- inception_3b/5x5_reduce
I0403 21:42:10.344645 12535 net.cpp:399] inception_3b/5x5 -> inception_3b/5x5
I0403 21:42:10.347034 12535 net.cpp:141] Setting up inception_3b/5x5
I0403 21:42:10.347072 12535 net.cpp:148] Top shape: 24 96 28 28 (1806336)
I0403 21:42:10.347093 12535 net.cpp:156] Memory required for data: 736986144
I0403 21:42:10.347116 12535 layer_factory.hpp:77] Creating layer inception_3b/relu_5x5
I0403 21:42:10.347139 12535 net.cpp:91] Creating Layer inception_3b/relu_5x5
I0403 21:42:10.347160 12535 net.cpp:425] inception_3b/relu_5x5 <- inception_3b/5x5
I0403 21:42:10.347185 12535 net.cpp:386] inception_3b/relu_5x5 -> inception_3b/5x5 (in-place)
I0403 21:42:10.347424 12535 net.cpp:141] Setting up inception_3b/relu_5x5
I0403 21:42:10.347455 12535 net.cpp:148] Top shape: 24 96 28 28 (1806336)
I0403 21:42:10.347473 12535 net.cpp:156] Memory required for data: 744211488
I0403 21:42:10.347493 12535 layer_factory.hpp:77] Creating layer inception_3b/pool
I0403 21:42:10.347515 12535 net.cpp:91] Creating Layer inception_3b/pool
I0403 21:42:10.347537 12535 net.cpp:425] inception_3b/pool <- inception_3a/output_inception_3a/output_0_split_3
I0403 21:42:10.347558 12535 net.cpp:399] inception_3b/pool -> inception_3b/pool
I0403 21:42:10.347626 12535 net.cpp:141] Setting up inception_3b/pool
I0403 21:42:10.347654 12535 net.cpp:148] Top shape: 24 256 28 28 (4816896)
I0403 21:42:10.347672 12535 net.cpp:156] Memory required for data: 763479072
I0403 21:42:10.347692 12535 layer_factory.hpp:77] Creating layer inception_3b/pool_proj
I0403 21:42:10.347721 12535 net.cpp:91] Creating Layer inception_3b/pool_proj
I0403 21:42:10.347743 12535 net.cpp:425] inception_3b/pool_proj <- inception_3b/pool
I0403 21:42:10.347769 12535 net.cpp:399] inception_3b/pool_proj -> inception_3b/pool_proj
I0403 21:42:10.349040 12535 net.cpp:141] Setting up inception_3b/pool_proj
I0403 21:42:10.349074 12535 net.cpp:148] Top shape: 24 64 28 28 (1204224)
I0403 21:42:10.349093 12535 net.cpp:156] Memory required for data: 768295968
I0403 21:42:10.349117 12535 layer_factory.hpp:77] Creating layer inception_3b/relu_pool_proj
I0403 21:42:10.349144 12535 net.cpp:91] Creating Layer inception_3b/relu_pool_proj
I0403 21:42:10.349166 12535 net.cpp:425] inception_3b/relu_pool_proj <- inception_3b/pool_proj
I0403 21:42:10.349189 12535 net.cpp:386] inception_3b/relu_pool_proj -> inception_3b/pool_proj (in-place)
I0403 21:42:10.349643 12535 net.cpp:141] Setting up inception_3b/relu_pool_proj
I0403 21:42:10.349675 12535 net.cpp:148] Top shape: 24 64 28 28 (1204224)
I0403 21:42:10.349694 12535 net.cpp:156] Memory required for data: 773112864
I0403 21:42:10.349714 12535 layer_factory.hpp:77] Creating layer inception_3b/output
I0403 21:42:10.349740 12535 net.cpp:91] Creating Layer inception_3b/output
I0403 21:42:10.349761 12535 net.cpp:425] inception_3b/output <- inception_3b/1x1
I0403 21:42:10.349782 12535 net.cpp:425] inception_3b/output <- inception_3b/3x3
I0403 21:42:10.349802 12535 net.cpp:425] inception_3b/output <- inception_3b/5x5
I0403 21:42:10.349823 12535 net.cpp:425] inception_3b/output <- inception_3b/pool_proj
I0403 21:42:10.349844 12535 net.cpp:399] inception_3b/output -> inception_3b/output
I0403 21:42:10.349900 12535 net.cpp:141] Setting up inception_3b/output
I0403 21:42:10.349928 12535 net.cpp:148] Top shape: 24 480 28 28 (9031680)
I0403 21:42:10.349946 12535 net.cpp:156] Memory required for data: 809239584
I0403 21:42:10.349966 12535 layer_factory.hpp:77] Creating layer pool3/3x3_s2
I0403 21:42:10.349987 12535 net.cpp:91] Creating Layer pool3/3x3_s2
I0403 21:42:10.350006 12535 net.cpp:425] pool3/3x3_s2 <- inception_3b/output
I0403 21:42:10.350033 12535 net.cpp:399] pool3/3x3_s2 -> pool3/3x3_s2
I0403 21:42:10.350121 12535 net.cpp:141] Setting up pool3/3x3_s2
I0403 21:42:10.350152 12535 net.cpp:148] Top shape: 24 480 14 14 (2257920)
I0403 21:42:10.350169 12535 net.cpp:156] Memory required for data: 818271264
I0403 21:42:10.350188 12535 layer_factory.hpp:77] Creating layer pool3/3x3_s2_pool3/3x3_s2_0_split
I0403 21:42:10.350216 12535 net.cpp:91] Creating Layer pool3/3x3_s2_pool3/3x3_s2_0_split
I0403 21:42:10.350236 12535 net.cpp:425] pool3/3x3_s2_pool3/3x3_s2_0_split <- pool3/3x3_s2
I0403 21:42:10.350258 12535 net.cpp:399] pool3/3x3_s2_pool3/3x3_s2_0_split -> pool3/3x3_s2_pool3/3x3_s2_0_split_0
I0403 21:42:10.350286 12535 net.cpp:399] pool3/3x3_s2_pool3/3x3_s2_0_split -> pool3/3x3_s2_pool3/3x3_s2_0_split_1
I0403 21:42:10.350311 12535 net.cpp:399] pool3/3x3_s2_pool3/3x3_s2_0_split -> pool3/3x3_s2_pool3/3x3_s2_0_split_2
I0403 21:42:10.350334 12535 net.cpp:399] pool3/3x3_s2_pool3/3x3_s2_0_split -> pool3/3x3_s2_pool3/3x3_s2_0_split_3
I0403 21:42:10.350430 12535 net.cpp:141] Setting up pool3/3x3_s2_pool3/3x3_s2_0_split
I0403 21:42:10.350458 12535 net.cpp:148] Top shape: 24 480 14 14 (2257920)
I0403 21:42:10.350478 12535 net.cpp:148] Top shape: 24 480 14 14 (2257920)
I0403 21:42:10.350498 12535 net.cpp:148] Top shape: 24 480 14 14 (2257920)
I0403 21:42:10.350517 12535 net.cpp:148] Top shape: 24 480 14 14 (2257920)
I0403 21:42:10.350534 12535 net.cpp:156] Memory required for data: 854397984
I0403 21:42:10.350553 12535 layer_factory.hpp:77] Creating layer inception_4a/1x1
I0403 21:42:10.350582 12535 net.cpp:91] Creating Layer inception_4a/1x1
I0403 21:42:10.350605 12535 net.cpp:425] inception_4a/1x1 <- pool3/3x3_s2_pool3/3x3_s2_0_split_0
I0403 21:42:10.350628 12535 net.cpp:399] inception_4a/1x1 -> inception_4a/1x1
I0403 21:42:10.352550 12535 net.cpp:141] Setting up inception_4a/1x1
I0403 21:42:10.352586 12535 net.cpp:148] Top shape: 24 192 14 14 (903168)
I0403 21:42:10.352607 12535 net.cpp:156] Memory required for data: 858010656
I0403 21:42:10.352630 12535 layer_factory.hpp:77] Creating layer inception_4a/relu_1x1
I0403 21:42:10.352653 12535 net.cpp:91] Creating Layer inception_4a/relu_1x1
I0403 21:42:10.352674 12535 net.cpp:425] inception_4a/relu_1x1 <- inception_4a/1x1
I0403 21:42:10.352697 12535 net.cpp:386] inception_4a/relu_1x1 -> inception_4a/1x1 (in-place)
I0403 21:42:10.352910 12535 net.cpp:141] Setting up inception_4a/relu_1x1
I0403 21:42:10.352941 12535 net.cpp:148] Top shape: 24 192 14 14 (903168)
I0403 21:42:10.352960 12535 net.cpp:156] Memory required for data: 861623328
I0403 21:42:10.352979 12535 layer_factory.hpp:77] Creating layer inception_4a/3x3_reduce
I0403 21:42:10.353008 12535 net.cpp:91] Creating Layer inception_4a/3x3_reduce
I0403 21:42:10.353029 12535 net.cpp:425] inception_4a/3x3_reduce <- pool3/3x3_s2_pool3/3x3_s2_0_split_1
I0403 21:42:10.353056 12535 net.cpp:399] inception_4a/3x3_reduce -> inception_4a/3x3_reduce
I0403 21:42:10.354595 12535 net.cpp:141] Setting up inception_4a/3x3_reduce
I0403 21:42:10.354632 12535 net.cpp:148] Top shape: 24 96 14 14 (451584)
I0403 21:42:10.354655 12535 net.cpp:156] Memory required for data: 863429664
I0403 21:42:10.354682 12535 layer_factory.hpp:77] Creating layer inception_4a/relu_3x3_reduce
I0403 21:42:10.354709 12535 net.cpp:91] Creating Layer inception_4a/relu_3x3_reduce
I0403 21:42:10.354730 12535 net.cpp:425] inception_4a/relu_3x3_reduce <- inception_4a/3x3_reduce
I0403 21:42:10.354751 12535 net.cpp:386] inception_4a/relu_3x3_reduce -> inception_4a/3x3_reduce (in-place)
I0403 21:42:10.354966 12535 net.cpp:141] Setting up inception_4a/relu_3x3_reduce
I0403 21:42:10.354997 12535 net.cpp:148] Top shape: 24 96 14 14 (451584)
I0403 21:42:10.355015 12535 net.cpp:156] Memory required for data: 865236000
I0403 21:42:10.355036 12535 layer_factory.hpp:77] Creating layer inception_4a/3x3
I0403 21:42:10.355062 12535 net.cpp:91] Creating Layer inception_4a/3x3
I0403 21:42:10.355084 12535 net.cpp:425] inception_4a/3x3 <- inception_4a/3x3_reduce
I0403 21:42:10.355110 12535 net.cpp:399] inception_4a/3x3 -> inception_4a/3x3
I0403 21:42:10.358353 12535 net.cpp:141] Setting up inception_4a/3x3
I0403 21:42:10.358392 12535 net.cpp:148] Top shape: 24 208 14 14 (978432)
I0403 21:42:10.358412 12535 net.cpp:156] Memory required for data: 869149728
I0403 21:42:10.358434 12535 layer_factory.hpp:77] Creating layer inception_4a/relu_3x3
I0403 21:42:10.358458 12535 net.cpp:91] Creating Layer inception_4a/relu_3x3
I0403 21:42:10.358477 12535 net.cpp:425] inception_4a/relu_3x3 <- inception_4a/3x3
I0403 21:42:10.358500 12535 net.cpp:386] inception_4a/relu_3x3 -> inception_4a/3x3 (in-place)
I0403 21:42:10.358844 12535 net.cpp:141] Setting up inception_4a/relu_3x3
I0403 21:42:10.358876 12535 net.cpp:148] Top shape: 24 208 14 14 (978432)
I0403 21:42:10.358896 12535 net.cpp:156] Memory required for data: 873063456
I0403 21:42:10.358914 12535 layer_factory.hpp:77] Creating layer inception_4a/5x5_reduce
I0403 21:42:10.358944 12535 net.cpp:91] Creating Layer inception_4a/5x5_reduce
I0403 21:42:10.358968 12535 net.cpp:425] inception_4a/5x5_reduce <- pool3/3x3_s2_pool3/3x3_s2_0_split_2
I0403 21:42:10.358994 12535 net.cpp:399] inception_4a/5x5_reduce -> inception_4a/5x5_reduce
I0403 21:42:10.360242 12535 net.cpp:141] Setting up inception_4a/5x5_reduce
I0403 21:42:10.360276 12535 net.cpp:148] Top shape: 24 16 14 14 (75264)
I0403 21:42:10.360294 12535 net.cpp:156] Memory required for data: 873364512
I0403 21:42:10.360316 12535 layer_factory.hpp:77] Creating layer inception_4a/relu_5x5_reduce
I0403 21:42:10.360342 12535 net.cpp:91] Creating Layer inception_4a/relu_5x5_reduce
I0403 21:42:10.360363 12535 net.cpp:425] inception_4a/relu_5x5_reduce <- inception_4a/5x5_reduce
I0403 21:42:10.360385 12535 net.cpp:386] inception_4a/relu_5x5_reduce -> inception_4a/5x5_reduce (in-place)
I0403 21:42:10.360599 12535 net.cpp:141] Setting up inception_4a/relu_5x5_reduce
I0403 21:42:10.360630 12535 net.cpp:148] Top shape: 24 16 14 14 (75264)
I0403 21:42:10.360648 12535 net.cpp:156] Memory required for data: 873665568
I0403 21:42:10.360666 12535 layer_factory.hpp:77] Creating layer inception_4a/5x5
I0403 21:42:10.360694 12535 net.cpp:91] Creating Layer inception_4a/5x5
I0403 21:42:10.360718 12535 net.cpp:425] inception_4a/5x5 <- inception_4a/5x5_reduce
I0403 21:42:10.360743 12535 net.cpp:399] inception_4a/5x5 -> inception_4a/5x5
I0403 21:42:10.362052 12535 net.cpp:141] Setting up inception_4a/5x5
I0403 21:42:10.362084 12535 net.cpp:148] Top shape: 24 48 14 14 (225792)
I0403 21:42:10.362104 12535 net.cpp:156] Memory required for data: 874568736
I0403 21:42:10.362126 12535 layer_factory.hpp:77] Creating layer inception_4a/relu_5x5
I0403 21:42:10.362152 12535 net.cpp:91] Creating Layer inception_4a/relu_5x5
I0403 21:42:10.362174 12535 net.cpp:425] inception_4a/relu_5x5 <- inception_4a/5x5
I0403 21:42:10.362195 12535 net.cpp:386] inception_4a/relu_5x5 -> inception_4a/5x5 (in-place)
I0403 21:42:10.362429 12535 net.cpp:141] Setting up inception_4a/relu_5x5
I0403 21:42:10.362470 12535 net.cpp:148] Top shape: 24 48 14 14 (225792)
I0403 21:42:10.362491 12535 net.cpp:156] Memory required for data: 875471904
I0403 21:42:10.362510 12535 layer_factory.hpp:77] Creating layer inception_4a/pool
I0403 21:42:10.362534 12535 net.cpp:91] Creating Layer inception_4a/pool
I0403 21:42:10.362553 12535 net.cpp:425] inception_4a/pool <- pool3/3x3_s2_pool3/3x3_s2_0_split_3
I0403 21:42:10.362578 12535 net.cpp:399] inception_4a/pool -> inception_4a/pool
I0403 21:42:10.362653 12535 net.cpp:141] Setting up inception_4a/pool
I0403 21:42:10.362681 12535 net.cpp:148] Top shape: 24 480 14 14 (2257920)
I0403 21:42:10.362699 12535 net.cpp:156] Memory required for data: 884503584
I0403 21:42:10.362718 12535 layer_factory.hpp:77] Creating layer inception_4a/pool_proj
I0403 21:42:10.362746 12535 net.cpp:91] Creating Layer inception_4a/pool_proj
I0403 21:42:10.362767 12535 net.cpp:425] inception_4a/pool_proj <- inception_4a/pool
I0403 21:42:10.362793 12535 net.cpp:399] inception_4a/pool_proj -> inception_4a/pool_proj
I0403 21:42:10.364202 12535 net.cpp:141] Setting up inception_4a/pool_proj
I0403 21:42:10.364248 12535 net.cpp:148] Top shape: 24 64 14 14 (301056)
I0403 21:42:10.364286 12535 net.cpp:156] Memory required for data: 885707808
I0403 21:42:10.364311 12535 layer_factory.hpp:77] Creating layer inception_4a/relu_pool_proj
I0403 21:42:10.364334 12535 net.cpp:91] Creating Layer inception_4a/relu_pool_proj
I0403 21:42:10.364354 12535 net.cpp:425] inception_4a/relu_pool_proj <- inception_4a/pool_proj
I0403 21:42:10.364375 12535 net.cpp:386] inception_4a/relu_pool_proj -> inception_4a/pool_proj (in-place)
I0403 21:42:10.364712 12535 net.cpp:141] Setting up inception_4a/relu_pool_proj
I0403 21:42:10.364748 12535 net.cpp:148] Top shape: 24 64 14 14 (301056)
I0403 21:42:10.364769 12535 net.cpp:156] Memory required for data: 886912032
I0403 21:42:10.364787 12535 layer_factory.hpp:77] Creating layer inception_4a/output
I0403 21:42:10.364810 12535 net.cpp:91] Creating Layer inception_4a/output
I0403 21:42:10.364830 12535 net.cpp:425] inception_4a/output <- inception_4a/1x1
I0403 21:42:10.364850 12535 net.cpp:425] inception_4a/output <- inception_4a/3x3
I0403 21:42:10.364871 12535 net.cpp:425] inception_4a/output <- inception_4a/5x5
I0403 21:42:10.364889 12535 net.cpp:425] inception_4a/output <- inception_4a/pool_proj
I0403 21:42:10.364910 12535 net.cpp:399] inception_4a/output -> inception_4a/output
I0403 21:42:10.364967 12535 net.cpp:141] Setting up inception_4a/output
I0403 21:42:10.364995 12535 net.cpp:148] Top shape: 24 512 14 14 (2408448)
I0403 21:42:10.365013 12535 net.cpp:156] Memory required for data: 896545824
I0403 21:42:10.365032 12535 layer_factory.hpp:77] Creating layer inception_4a/output_inception_4a/output_0_split
I0403 21:42:10.365056 12535 net.cpp:91] Creating Layer inception_4a/output_inception_4a/output_0_split
I0403 21:42:10.365077 12535 net.cpp:425] inception_4a/output_inception_4a/output_0_split <- inception_4a/output
I0403 21:42:10.365098 12535 net.cpp:399] inception_4a/output_inception_4a/output_0_split -> inception_4a/output_inception_4a/output_0_split_0
I0403 21:42:10.365121 12535 net.cpp:399] inception_4a/output_inception_4a/output_0_split -> inception_4a/output_inception_4a/output_0_split_1
I0403 21:42:10.365146 12535 net.cpp:399] inception_4a/output_inception_4a/output_0_split -> inception_4a/output_inception_4a/output_0_split_2
I0403 21:42:10.365171 12535 net.cpp:399] inception_4a/output_inception_4a/output_0_split -> inception_4a/output_inception_4a/output_0_split_3
I0403 21:42:10.365198 12535 net.cpp:399] inception_4a/output_inception_4a/output_0_split -> inception_4a/output_inception_4a/output_0_split_4
I0403 21:42:10.365324 12535 net.cpp:141] Setting up inception_4a/output_inception_4a/output_0_split
I0403 21:42:10.365352 12535 net.cpp:148] Top shape: 24 512 14 14 (2408448)
I0403 21:42:10.365373 12535 net.cpp:148] Top shape: 24 512 14 14 (2408448)
I0403 21:42:10.365392 12535 net.cpp:148] Top shape: 24 512 14 14 (2408448)
I0403 21:42:10.365412 12535 net.cpp:148] Top shape: 24 512 14 14 (2408448)
I0403 21:42:10.365432 12535 net.cpp:148] Top shape: 24 512 14 14 (2408448)
I0403 21:42:10.365449 12535 net.cpp:156] Memory required for data: 944714784
I0403 21:42:10.365468 12535 layer_factory.hpp:77] Creating layer loss1/ave_pool
I0403 21:42:10.365490 12535 net.cpp:91] Creating Layer loss1/ave_pool
I0403 21:42:10.365514 12535 net.cpp:425] loss1/ave_pool <- inception_4a/output_inception_4a/output_0_split_0
I0403 21:42:10.365535 12535 net.cpp:399] loss1/ave_pool -> loss1/ave_pool
I0403 21:42:10.365782 12535 net.cpp:141] Setting up loss1/ave_pool
I0403 21:42:10.365818 12535 net.cpp:148] Top shape: 24 512 4 4 (196608)
I0403 21:42:10.365839 12535 net.cpp:156] Memory required for data: 945501216
I0403 21:42:10.365857 12535 layer_factory.hpp:77] Creating layer loss1/conv
I0403 21:42:10.365885 12535 net.cpp:91] Creating Layer loss1/conv
I0403 21:42:10.365906 12535 net.cpp:425] loss1/conv <- loss1/ave_pool
I0403 21:42:10.365931 12535 net.cpp:399] loss1/conv -> loss1/conv
I0403 21:42:10.367650 12535 net.cpp:141] Setting up loss1/conv
I0403 21:42:10.367684 12535 net.cpp:148] Top shape: 24 128 4 4 (49152)
I0403 21:42:10.367705 12535 net.cpp:156] Memory required for data: 945697824
I0403 21:42:10.367744 12535 layer_factory.hpp:77] Creating layer loss1/relu_conv
I0403 21:42:10.367768 12535 net.cpp:91] Creating Layer loss1/relu_conv
I0403 21:42:10.367787 12535 net.cpp:425] loss1/relu_conv <- loss1/conv
I0403 21:42:10.367811 12535 net.cpp:386] loss1/relu_conv -> loss1/conv (in-place)
I0403 21:42:10.368150 12535 net.cpp:141] Setting up loss1/relu_conv
I0403 21:42:10.368182 12535 net.cpp:148] Top shape: 24 128 4 4 (49152)
I0403 21:42:10.368201 12535 net.cpp:156] Memory required for data: 945894432
I0403 21:42:10.368227 12535 layer_factory.hpp:77] Creating layer loss1/fc
I0403 21:42:10.368255 12535 net.cpp:91] Creating Layer loss1/fc
I0403 21:42:10.368278 12535 net.cpp:425] loss1/fc <- loss1/conv
I0403 21:42:10.368302 12535 net.cpp:399] loss1/fc -> loss1/fc
I0403 21:42:10.390316 12535 net.cpp:141] Setting up loss1/fc
I0403 21:42:10.390362 12535 net.cpp:148] Top shape: 24 1024 (24576)
I0403 21:42:10.390383 12535 net.cpp:156] Memory required for data: 945992736
I0403 21:42:10.390406 12535 layer_factory.hpp:77] Creating layer loss1/relu_fc
I0403 21:42:10.390432 12535 net.cpp:91] Creating Layer loss1/relu_fc
I0403 21:42:10.390455 12535 net.cpp:425] loss1/relu_fc <- loss1/fc
I0403 21:42:10.390476 12535 net.cpp:386] loss1/relu_fc -> loss1/fc (in-place)
I0403 21:42:10.390710 12535 net.cpp:141] Setting up loss1/relu_fc
I0403 21:42:10.390740 12535 net.cpp:148] Top shape: 24 1024 (24576)
I0403 21:42:10.390758 12535 net.cpp:156] Memory required for data: 946091040
I0403 21:42:10.390777 12535 layer_factory.hpp:77] Creating layer loss1/drop_fc
I0403 21:42:10.390807 12535 net.cpp:91] Creating Layer loss1/drop_fc
I0403 21:42:10.390830 12535 net.cpp:425] loss1/drop_fc <- loss1/fc
I0403 21:42:10.390854 12535 net.cpp:386] loss1/drop_fc -> loss1/fc (in-place)
I0403 21:42:10.390918 12535 net.cpp:141] Setting up loss1/drop_fc
I0403 21:42:10.390945 12535 net.cpp:148] Top shape: 24 1024 (24576)
I0403 21:42:10.390964 12535 net.cpp:156] Memory required for data: 946189344
I0403 21:42:10.390982 12535 layer_factory.hpp:77] Creating layer loss1/classifier_plantvillage
I0403 21:42:10.391016 12535 net.cpp:91] Creating Layer loss1/classifier_plantvillage
I0403 21:42:10.391037 12535 net.cpp:425] loss1/classifier_plantvillage <- loss1/fc
I0403 21:42:10.391062 12535 net.cpp:399] loss1/classifier_plantvillage -> loss1/classifier_plantvillage
I0403 21:42:10.392174 12535 net.cpp:141] Setting up loss1/classifier_plantvillage
I0403 21:42:10.392221 12535 net.cpp:148] Top shape: 24 38 (912)
I0403 21:42:10.392246 12535 net.cpp:156] Memory required for data: 946192992
I0403 21:42:10.392269 12535 layer_factory.hpp:77] Creating layer loss1/classifier_plantvillage_loss1/classifier_plantvillage_0_split
I0403 21:42:10.392292 12535 net.cpp:91] Creating Layer loss1/classifier_plantvillage_loss1/classifier_plantvillage_0_split
I0403 21:42:10.392313 12535 net.cpp:425] loss1/classifier_plantvillage_loss1/classifier_plantvillage_0_split <- loss1/classifier_plantvillage
I0403 21:42:10.392338 12535 net.cpp:399] loss1/classifier_plantvillage_loss1/classifier_plantvillage_0_split -> loss1/classifier_plantvillage_loss1/classifier_plantvillage_0_split_0
I0403 21:42:10.392364 12535 net.cpp:399] loss1/classifier_plantvillage_loss1/classifier_plantvillage_0_split -> loss1/classifier_plantvillage_loss1/classifier_plantvillage_0_split_1
I0403 21:42:10.392390 12535 net.cpp:399] loss1/classifier_plantvillage_loss1/classifier_plantvillage_0_split -> loss1/classifier_plantvillage_loss1/classifier_plantvillage_0_split_2
I0403 21:42:10.392470 12535 net.cpp:141] Setting up loss1/classifier_plantvillage_loss1/classifier_plantvillage_0_split
I0403 21:42:10.392499 12535 net.cpp:148] Top shape: 24 38 (912)
I0403 21:42:10.392520 12535 net.cpp:148] Top shape: 24 38 (912)
I0403 21:42:10.392540 12535 net.cpp:148] Top shape: 24 38 (912)
I0403 21:42:10.392557 12535 net.cpp:156] Memory required for data: 946203936
I0403 21:42:10.392576 12535 layer_factory.hpp:77] Creating layer inception_4b/1x1
I0403 21:42:10.392604 12535 net.cpp:91] Creating Layer inception_4b/1x1
I0403 21:42:10.392645 12535 net.cpp:425] inception_4b/1x1 <- inception_4a/output_inception_4a/output_0_split_1
I0403 21:42:10.392671 12535 net.cpp:399] inception_4b/1x1 -> inception_4b/1x1
I0403 21:42:10.394657 12535 net.cpp:141] Setting up inception_4b/1x1
I0403 21:42:10.394692 12535 net.cpp:148] Top shape: 24 160 14 14 (752640)
I0403 21:42:10.394711 12535 net.cpp:156] Memory required for data: 949214496
I0403 21:42:10.394734 12535 layer_factory.hpp:77] Creating layer inception_4b/relu_1x1
I0403 21:42:10.394759 12535 net.cpp:91] Creating Layer inception_4b/relu_1x1
I0403 21:42:10.394780 12535 net.cpp:425] inception_4b/relu_1x1 <- inception_4b/1x1
I0403 21:42:10.394803 12535 net.cpp:386] inception_4b/relu_1x1 -> inception_4b/1x1 (in-place)
I0403 21:42:10.395025 12535 net.cpp:141] Setting up inception_4b/relu_1x1
I0403 21:42:10.395056 12535 net.cpp:148] Top shape: 24 160 14 14 (752640)
I0403 21:42:10.395074 12535 net.cpp:156] Memory required for data: 952225056
I0403 21:42:10.395092 12535 layer_factory.hpp:77] Creating layer inception_4b/3x3_reduce
I0403 21:42:10.395119 12535 net.cpp:91] Creating Layer inception_4b/3x3_reduce
I0403 21:42:10.395140 12535 net.cpp:425] inception_4b/3x3_reduce <- inception_4a/output_inception_4a/output_0_split_2
I0403 21:42:10.395166 12535 net.cpp:399] inception_4b/3x3_reduce -> inception_4b/3x3_reduce
I0403 21:42:10.396832 12535 net.cpp:141] Setting up inception_4b/3x3_reduce
I0403 21:42:10.396867 12535 net.cpp:148] Top shape: 24 112 14 14 (526848)
I0403 21:42:10.396886 12535 net.cpp:156] Memory required for data: 954332448
I0403 21:42:10.396909 12535 layer_factory.hpp:77] Creating layer inception_4b/relu_3x3_reduce
I0403 21:42:10.396935 12535 net.cpp:91] Creating Layer inception_4b/relu_3x3_reduce
I0403 21:42:10.396957 12535 net.cpp:425] inception_4b/relu_3x3_reduce <- inception_4b/3x3_reduce
I0403 21:42:10.396980 12535 net.cpp:386] inception_4b/relu_3x3_reduce -> inception_4b/3x3_reduce (in-place)
I0403 21:42:10.397325 12535 net.cpp:141] Setting up inception_4b/relu_3x3_reduce
I0403 21:42:10.397357 12535 net.cpp:148] Top shape: 24 112 14 14 (526848)
I0403 21:42:10.397377 12535 net.cpp:156] Memory required for data: 956439840
I0403 21:42:10.397395 12535 layer_factory.hpp:77] Creating layer inception_4b/3x3
I0403 21:42:10.397424 12535 net.cpp:91] Creating Layer inception_4b/3x3
I0403 21:42:10.397447 12535 net.cpp:425] inception_4b/3x3 <- inception_4b/3x3_reduce
I0403 21:42:10.397474 12535 net.cpp:399] inception_4b/3x3 -> inception_4b/3x3
I0403 21:42:10.401113 12535 net.cpp:141] Setting up inception_4b/3x3
I0403 21:42:10.401152 12535 net.cpp:148] Top shape: 24 224 14 14 (1053696)
I0403 21:42:10.401175 12535 net.cpp:156] Memory required for data: 960654624
I0403 21:42:10.401198 12535 layer_factory.hpp:77] Creating layer inception_4b/relu_3x3
I0403 21:42:10.401227 12535 net.cpp:91] Creating Layer inception_4b/relu_3x3
I0403 21:42:10.401249 12535 net.cpp:425] inception_4b/relu_3x3 <- inception_4b/3x3
I0403 21:42:10.401273 12535 net.cpp:386] inception_4b/relu_3x3 -> inception_4b/3x3 (in-place)
I0403 21:42:10.401500 12535 net.cpp:141] Setting up inception_4b/relu_3x3
I0403 21:42:10.401531 12535 net.cpp:148] Top shape: 24 224 14 14 (1053696)
I0403 21:42:10.401549 12535 net.cpp:156] Memory required for data: 964869408
I0403 21:42:10.401568 12535 layer_factory.hpp:77] Creating layer inception_4b/5x5_reduce
I0403 21:42:10.401595 12535 net.cpp:91] Creating Layer inception_4b/5x5_reduce
I0403 21:42:10.401618 12535 net.cpp:425] inception_4b/5x5_reduce <- inception_4a/output_inception_4a/output_0_split_3
I0403 21:42:10.401646 12535 net.cpp:399] inception_4b/5x5_reduce -> inception_4b/5x5_reduce
I0403 21:42:10.402984 12535 net.cpp:141] Setting up inception_4b/5x5_reduce
I0403 21:42:10.403017 12535 net.cpp:148] Top shape: 24 24 14 14 (112896)
I0403 21:42:10.403038 12535 net.cpp:156] Memory required for data: 965320992
I0403 21:42:10.403060 12535 layer_factory.hpp:77] Creating layer inception_4b/relu_5x5_reduce
I0403 21:42:10.403086 12535 net.cpp:91] Creating Layer inception_4b/relu_5x5_reduce
I0403 21:42:10.403123 12535 net.cpp:425] inception_4b/relu_5x5_reduce <- inception_4b/5x5_reduce
I0403 21:42:10.403146 12535 net.cpp:386] inception_4b/relu_5x5_reduce -> inception_4b/5x5_reduce (in-place)
I0403 21:42:10.403381 12535 net.cpp:141] Setting up inception_4b/relu_5x5_reduce
I0403 21:42:10.403414 12535 net.cpp:148] Top shape: 24 24 14 14 (112896)
I0403 21:42:10.403435 12535 net.cpp:156] Memory required for data: 965772576
I0403 21:42:10.403455 12535 layer_factory.hpp:77] Creating layer inception_4b/5x5
I0403 21:42:10.403480 12535 net.cpp:91] Creating Layer inception_4b/5x5
I0403 21:42:10.403501 12535 net.cpp:425] inception_4b/5x5 <- inception_4b/5x5_reduce
I0403 21:42:10.403527 12535 net.cpp:399] inception_4b/5x5 -> inception_4b/5x5
I0403 21:42:10.405035 12535 net.cpp:141] Setting up inception_4b/5x5
I0403 21:42:10.405068 12535 net.cpp:148] Top shape: 24 64 14 14 (301056)
I0403 21:42:10.405087 12535 net.cpp:156] Memory required for data: 966976800
I0403 21:42:10.405109 12535 layer_factory.hpp:77] Creating layer inception_4b/relu_5x5
I0403 21:42:10.405135 12535 net.cpp:91] Creating Layer inception_4b/relu_5x5
I0403 21:42:10.405158 12535 net.cpp:425] inception_4b/relu_5x5 <- inception_4b/5x5
I0403 21:42:10.405179 12535 net.cpp:386] inception_4b/relu_5x5 -> inception_4b/5x5 (in-place)
I0403 21:42:10.405537 12535 net.cpp:141] Setting up inception_4b/relu_5x5
I0403 21:42:10.405568 12535 net.cpp:148] Top shape: 24 64 14 14 (301056)
I0403 21:42:10.405587 12535 net.cpp:156] Memory required for data: 968181024
I0403 21:42:10.405606 12535 layer_factory.hpp:77] Creating layer inception_4b/pool
I0403 21:42:10.405628 12535 net.cpp:91] Creating Layer inception_4b/pool
I0403 21:42:10.405648 12535 net.cpp:425] inception_4b/pool <- inception_4a/output_inception_4a/output_0_split_4
I0403 21:42:10.405675 12535 net.cpp:399] inception_4b/pool -> inception_4b/pool
I0403 21:42:10.405752 12535 net.cpp:141] Setting up inception_4b/pool
I0403 21:42:10.405784 12535 net.cpp:148] Top shape: 24 512 14 14 (2408448)
I0403 21:42:10.405802 12535 net.cpp:156] Memory required for data: 977814816
I0403 21:42:10.405822 12535 layer_factory.hpp:77] Creating layer inception_4b/pool_proj
I0403 21:42:10.405849 12535 net.cpp:91] Creating Layer inception_4b/pool_proj
I0403 21:42:10.405871 12535 net.cpp:425] inception_4b/pool_proj <- inception_4b/pool
I0403 21:42:10.405896 12535 net.cpp:399] inception_4b/pool_proj -> inception_4b/pool_proj
I0403 21:42:10.407366 12535 net.cpp:141] Setting up inception_4b/pool_proj
I0403 21:42:10.407400 12535 net.cpp:148] Top shape: 24 64 14 14 (301056)
I0403 21:42:10.407420 12535 net.cpp:156] Memory required for data: 979019040
I0403 21:42:10.407444 12535 layer_factory.hpp:77] Creating layer inception_4b/relu_pool_proj
I0403 21:42:10.407469 12535 net.cpp:91] Creating Layer inception_4b/relu_pool_proj
I0403 21:42:10.407488 12535 net.cpp:425] inception_4b/relu_pool_proj <- inception_4b/pool_proj
I0403 21:42:10.407510 12535 net.cpp:386] inception_4b/relu_pool_proj -> inception_4b/pool_proj (in-place)
I0403 21:42:10.407732 12535 net.cpp:141] Setting up inception_4b/relu_pool_proj
I0403 21:42:10.407763 12535 net.cpp:148] Top shape: 24 64 14 14 (301056)
I0403 21:42:10.407781 12535 net.cpp:156] Memory required for data: 980223264
I0403 21:42:10.407800 12535 layer_factory.hpp:77] Creating layer inception_4b/output
I0403 21:42:10.407826 12535 net.cpp:91] Creating Layer inception_4b/output
I0403 21:42:10.407846 12535 net.cpp:425] inception_4b/output <- inception_4b/1x1
I0403 21:42:10.407867 12535 net.cpp:425] inception_4b/output <- inception_4b/3x3
I0403 21:42:10.407886 12535 net.cpp:425] inception_4b/output <- inception_4b/5x5
I0403 21:42:10.407907 12535 net.cpp:425] inception_4b/output <- inception_4b/pool_proj
I0403 21:42:10.407927 12535 net.cpp:399] inception_4b/output -> inception_4b/output
I0403 21:42:10.407984 12535 net.cpp:141] Setting up inception_4b/output
I0403 21:42:10.408012 12535 net.cpp:148] Top shape: 24 512 14 14 (2408448)
I0403 21:42:10.408030 12535 net.cpp:156] Memory required for data: 989857056
I0403 21:42:10.408066 12535 layer_factory.hpp:77] Creating layer inception_4b/output_inception_4b/output_0_split
I0403 21:42:10.408088 12535 net.cpp:91] Creating Layer inception_4b/output_inception_4b/output_0_split
I0403 21:42:10.408107 12535 net.cpp:425] inception_4b/output_inception_4b/output_0_split <- inception_4b/output
I0403 21:42:10.408131 12535 net.cpp:399] inception_4b/output_inception_4b/output_0_split -> inception_4b/output_inception_4b/output_0_split_0
I0403 21:42:10.408159 12535 net.cpp:399] inception_4b/output_inception_4b/output_0_split -> inception_4b/output_inception_4b/output_0_split_1
I0403 21:42:10.408184 12535 net.cpp:399] inception_4b/output_inception_4b/output_0_split -> inception_4b/output_inception_4b/output_0_split_2
I0403 21:42:10.408215 12535 net.cpp:399] inception_4b/output_inception_4b/output_0_split -> inception_4b/output_inception_4b/output_0_split_3
I0403 21:42:10.408324 12535 net.cpp:141] Setting up inception_4b/output_inception_4b/output_0_split
I0403 21:42:10.408356 12535 net.cpp:148] Top shape: 24 512 14 14 (2408448)
I0403 21:42:10.408377 12535 net.cpp:148] Top shape: 24 512 14 14 (2408448)
I0403 21:42:10.408397 12535 net.cpp:148] Top shape: 24 512 14 14 (2408448)
I0403 21:42:10.408416 12535 net.cpp:148] Top shape: 24 512 14 14 (2408448)
I0403 21:42:10.408433 12535 net.cpp:156] Memory required for data: 1028392224
I0403 21:42:10.408452 12535 layer_factory.hpp:77] Creating layer inception_4c/1x1
I0403 21:42:10.408485 12535 net.cpp:91] Creating Layer inception_4c/1x1
I0403 21:42:10.408507 12535 net.cpp:425] inception_4c/1x1 <- inception_4b/output_inception_4b/output_0_split_0
I0403 21:42:10.408534 12535 net.cpp:399] inception_4c/1x1 -> inception_4c/1x1
I0403 21:42:10.410297 12535 net.cpp:141] Setting up inception_4c/1x1
I0403 21:42:10.410331 12535 net.cpp:148] Top shape: 24 128 14 14 (602112)
I0403 21:42:10.410351 12535 net.cpp:156] Memory required for data: 1030800672
I0403 21:42:10.410373 12535 layer_factory.hpp:77] Creating layer inception_4c/relu_1x1
I0403 21:42:10.410399 12535 net.cpp:91] Creating Layer inception_4c/relu_1x1
I0403 21:42:10.410420 12535 net.cpp:425] inception_4c/relu_1x1 <- inception_4c/1x1
I0403 21:42:10.410442 12535 net.cpp:386] inception_4c/relu_1x1 -> inception_4c/1x1 (in-place)
I0403 21:42:10.410665 12535 net.cpp:141] Setting up inception_4c/relu_1x1
I0403 21:42:10.410696 12535 net.cpp:148] Top shape: 24 128 14 14 (602112)
I0403 21:42:10.410714 12535 net.cpp:156] Memory required for data: 1033209120
I0403 21:42:10.410734 12535 layer_factory.hpp:77] Creating layer inception_4c/3x3_reduce
I0403 21:42:10.410761 12535 net.cpp:91] Creating Layer inception_4c/3x3_reduce
I0403 21:42:10.410784 12535 net.cpp:425] inception_4c/3x3_reduce <- inception_4b/output_inception_4b/output_0_split_1
I0403 21:42:10.410810 12535 net.cpp:399] inception_4c/3x3_reduce -> inception_4c/3x3_reduce
I0403 21:42:10.413193 12535 net.cpp:141] Setting up inception_4c/3x3_reduce
I0403 21:42:10.413234 12535 net.cpp:148] Top shape: 24 128 14 14 (602112)
I0403 21:42:10.413254 12535 net.cpp:156] Memory required for data: 1035617568
I0403 21:42:10.413276 12535 layer_factory.hpp:77] Creating layer inception_4c/relu_3x3_reduce
I0403 21:42:10.413298 12535 net.cpp:91] Creating Layer inception_4c/relu_3x3_reduce
I0403 21:42:10.413317 12535 net.cpp:425] inception_4c/relu_3x3_reduce <- inception_4c/3x3_reduce
I0403 21:42:10.413342 12535 net.cpp:386] inception_4c/relu_3x3_reduce -> inception_4c/3x3_reduce (in-place)
I0403 21:42:10.413687 12535 net.cpp:141] Setting up inception_4c/relu_3x3_reduce
I0403 21:42:10.413719 12535 net.cpp:148] Top shape: 24 128 14 14 (602112)
I0403 21:42:10.413738 12535 net.cpp:156] Memory required for data: 1038026016
I0403 21:42:10.413756 12535 layer_factory.hpp:77] Creating layer inception_4c/3x3
I0403 21:42:10.413785 12535 net.cpp:91] Creating Layer inception_4c/3x3
I0403 21:42:10.413808 12535 net.cpp:425] inception_4c/3x3 <- inception_4c/3x3_reduce
I0403 21:42:10.413835 12535 net.cpp:399] inception_4c/3x3 -> inception_4c/3x3
I0403 21:42:10.418226 12535 net.cpp:141] Setting up inception_4c/3x3
I0403 21:42:10.418274 12535 net.cpp:148] Top shape: 24 256 14 14 (1204224)
I0403 21:42:10.418294 12535 net.cpp:156] Memory required for data: 1042842912
I0403 21:42:10.418332 12535 layer_factory.hpp:77] Creating layer inception_4c/relu_3x3
I0403 21:42:10.418360 12535 net.cpp:91] Creating Layer inception_4c/relu_3x3
I0403 21:42:10.418381 12535 net.cpp:425] inception_4c/relu_3x3 <- inception_4c/3x3
I0403 21:42:10.418402 12535 net.cpp:386] inception_4c/relu_3x3 -> inception_4c/3x3 (in-place)
I0403 21:42:10.418624 12535 net.cpp:141] Setting up inception_4c/relu_3x3
I0403 21:42:10.418654 12535 net.cpp:148] Top shape: 24 256 14 14 (1204224)
I0403 21:42:10.418673 12535 net.cpp:156] Memory required for data: 1047659808
I0403 21:42:10.418690 12535 layer_factory.hpp:77] Creating layer inception_4c/5x5_reduce
I0403 21:42:10.418718 12535 net.cpp:91] Creating Layer inception_4c/5x5_reduce
I0403 21:42:10.418741 12535 net.cpp:425] inception_4c/5x5_reduce <- inception_4b/output_inception_4b/output_0_split_2
I0403 21:42:10.418767 12535 net.cpp:399] inception_4c/5x5_reduce -> inception_4c/5x5_reduce
I0403 21:42:10.420097 12535 net.cpp:141] Setting up inception_4c/5x5_reduce
I0403 21:42:10.420131 12535 net.cpp:148] Top shape: 24 24 14 14 (112896)
I0403 21:42:10.420150 12535 net.cpp:156] Memory required for data: 1048111392
I0403 21:42:10.420172 12535 layer_factory.hpp:77] Creating layer inception_4c/relu_5x5_reduce
I0403 21:42:10.420194 12535 net.cpp:91] Creating Layer inception_4c/relu_5x5_reduce
I0403 21:42:10.420220 12535 net.cpp:425] inception_4c/relu_5x5_reduce <- inception_4c/5x5_reduce
I0403 21:42:10.420245 12535 net.cpp:386] inception_4c/relu_5x5_reduce -> inception_4c/5x5_reduce (in-place)
I0403 21:42:10.420474 12535 net.cpp:141] Setting up inception_4c/relu_5x5_reduce
I0403 21:42:10.420503 12535 net.cpp:148] Top shape: 24 24 14 14 (112896)
I0403 21:42:10.420522 12535 net.cpp:156] Memory required for data: 1048562976
I0403 21:42:10.420541 12535 layer_factory.hpp:77] Creating layer inception_4c/5x5
I0403 21:42:10.420568 12535 net.cpp:91] Creating Layer inception_4c/5x5
I0403 21:42:10.420590 12535 net.cpp:425] inception_4c/5x5 <- inception_4c/5x5_reduce
I0403 21:42:10.420616 12535 net.cpp:399] inception_4c/5x5 -> inception_4c/5x5
I0403 21:42:10.422132 12535 net.cpp:141] Setting up inception_4c/5x5
I0403 21:42:10.422165 12535 net.cpp:148] Top shape: 24 64 14 14 (301056)
I0403 21:42:10.422184 12535 net.cpp:156] Memory required for data: 1049767200
I0403 21:42:10.422206 12535 layer_factory.hpp:77] Creating layer inception_4c/relu_5x5
I0403 21:42:10.422247 12535 net.cpp:91] Creating Layer inception_4c/relu_5x5
I0403 21:42:10.422269 12535 net.cpp:425] inception_4c/relu_5x5 <- inception_4c/5x5
I0403 21:42:10.422291 12535 net.cpp:386] inception_4c/relu_5x5 -> inception_4c/5x5 (in-place)
I0403 21:42:10.422639 12535 net.cpp:141] Setting up inception_4c/relu_5x5
I0403 21:42:10.422670 12535 net.cpp:148] Top shape: 24 64 14 14 (301056)
I0403 21:42:10.422689 12535 net.cpp:156] Memory required for data: 1050971424
I0403 21:42:10.422708 12535 layer_factory.hpp:77] Creating layer inception_4c/pool
I0403 21:42:10.422731 12535 net.cpp:91] Creating Layer inception_4c/pool
I0403 21:42:10.422754 12535 net.cpp:425] inception_4c/pool <- inception_4b/output_inception_4b/output_0_split_3
I0403 21:42:10.422776 12535 net.cpp:399] inception_4c/pool -> inception_4c/pool
I0403 21:42:10.422857 12535 net.cpp:141] Setting up inception_4c/pool
I0403 21:42:10.422885 12535 net.cpp:148] Top shape: 24 512 14 14 (2408448)
I0403 21:42:10.422904 12535 net.cpp:156] Memory required for data: 1060605216
I0403 21:42:10.422921 12535 layer_factory.hpp:77] Creating layer inception_4c/pool_proj
I0403 21:42:10.422948 12535 net.cpp:91] Creating Layer inception_4c/pool_proj
I0403 21:42:10.422969 12535 net.cpp:425] inception_4c/pool_proj <- inception_4c/pool
I0403 21:42:10.422996 12535 net.cpp:399] inception_4c/pool_proj -> inception_4c/pool_proj
I0403 21:42:10.424496 12535 net.cpp:141] Setting up inception_4c/pool_proj
I0403 21:42:10.424530 12535 net.cpp:148] Top shape: 24 64 14 14 (301056)
I0403 21:42:10.424566 12535 net.cpp:156] Memory required for data: 1061809440
I0403 21:42:10.424589 12535 layer_factory.hpp:77] Creating layer inception_4c/relu_pool_proj
I0403 21:42:10.424613 12535 net.cpp:91] Creating Layer inception_4c/relu_pool_proj
I0403 21:42:10.424634 12535 net.cpp:425] inception_4c/relu_pool_proj <- inception_4c/pool_proj
I0403 21:42:10.424655 12535 net.cpp:386] inception_4c/relu_pool_proj -> inception_4c/pool_proj (in-place)
I0403 21:42:10.424878 12535 net.cpp:141] Setting up inception_4c/relu_pool_proj
I0403 21:42:10.424908 12535 net.cpp:148] Top shape: 24 64 14 14 (301056)
I0403 21:42:10.424926 12535 net.cpp:156] Memory required for data: 1063013664
I0403 21:42:10.424943 12535 layer_factory.hpp:77] Creating layer inception_4c/output
I0403 21:42:10.424968 12535 net.cpp:91] Creating Layer inception_4c/output
I0403 21:42:10.424988 12535 net.cpp:425] inception_4c/output <- inception_4c/1x1
I0403 21:42:10.425009 12535 net.cpp:425] inception_4c/output <- inception_4c/3x3
I0403 21:42:10.425029 12535 net.cpp:425] inception_4c/output <- inception_4c/5x5
I0403 21:42:10.425047 12535 net.cpp:425] inception_4c/output <- inception_4c/pool_proj
I0403 21:42:10.425067 12535 net.cpp:399] inception_4c/output -> inception_4c/output
I0403 21:42:10.425127 12535 net.cpp:141] Setting up inception_4c/output
I0403 21:42:10.425154 12535 net.cpp:148] Top shape: 24 512 14 14 (2408448)
I0403 21:42:10.425173 12535 net.cpp:156] Memory required for data: 1072647456
I0403 21:42:10.425191 12535 layer_factory.hpp:77] Creating layer inception_4c/output_inception_4c/output_0_split
I0403 21:42:10.425217 12535 net.cpp:91] Creating Layer inception_4c/output_inception_4c/output_0_split
I0403 21:42:10.425237 12535 net.cpp:425] inception_4c/output_inception_4c/output_0_split <- inception_4c/output
I0403 21:42:10.425261 12535 net.cpp:399] inception_4c/output_inception_4c/output_0_split -> inception_4c/output_inception_4c/output_0_split_0
I0403 21:42:10.425287 12535 net.cpp:399] inception_4c/output_inception_4c/output_0_split -> inception_4c/output_inception_4c/output_0_split_1
I0403 21:42:10.425312 12535 net.cpp:399] inception_4c/output_inception_4c/output_0_split -> inception_4c/output_inception_4c/output_0_split_2
I0403 21:42:10.425335 12535 net.cpp:399] inception_4c/output_inception_4c/output_0_split -> inception_4c/output_inception_4c/output_0_split_3
I0403 21:42:10.425443 12535 net.cpp:141] Setting up inception_4c/output_inception_4c/output_0_split
I0403 21:42:10.425474 12535 net.cpp:148] Top shape: 24 512 14 14 (2408448)
I0403 21:42:10.425494 12535 net.cpp:148] Top shape: 24 512 14 14 (2408448)
I0403 21:42:10.425514 12535 net.cpp:148] Top shape: 24 512 14 14 (2408448)
I0403 21:42:10.425534 12535 net.cpp:148] Top shape: 24 512 14 14 (2408448)
I0403 21:42:10.425550 12535 net.cpp:156] Memory required for data: 1111182624
I0403 21:42:10.425568 12535 layer_factory.hpp:77] Creating layer inception_4d/1x1
I0403 21:42:10.425595 12535 net.cpp:91] Creating Layer inception_4d/1x1
I0403 21:42:10.425616 12535 net.cpp:425] inception_4d/1x1 <- inception_4c/output_inception_4c/output_0_split_0
I0403 21:42:10.425639 12535 net.cpp:399] inception_4d/1x1 -> inception_4d/1x1
I0403 21:42:10.427330 12535 net.cpp:141] Setting up inception_4d/1x1
I0403 21:42:10.427366 12535 net.cpp:148] Top shape: 24 112 14 14 (526848)
I0403 21:42:10.427387 12535 net.cpp:156] Memory required for data: 1113290016
I0403 21:42:10.427410 12535 layer_factory.hpp:77] Creating layer inception_4d/relu_1x1
I0403 21:42:10.427433 12535 net.cpp:91] Creating Layer inception_4d/relu_1x1
I0403 21:42:10.427451 12535 net.cpp:425] inception_4d/relu_1x1 <- inception_4d/1x1
I0403 21:42:10.427475 12535 net.cpp:386] inception_4d/relu_1x1 -> inception_4d/1x1 (in-place)
I0403 21:42:10.427701 12535 net.cpp:141] Setting up inception_4d/relu_1x1
I0403 21:42:10.427731 12535 net.cpp:148] Top shape: 24 112 14 14 (526848)
I0403 21:42:10.427749 12535 net.cpp:156] Memory required for data: 1115397408
I0403 21:42:10.427767 12535 layer_factory.hpp:77] Creating layer inception_4d/3x3_reduce
I0403 21:42:10.427811 12535 net.cpp:91] Creating Layer inception_4d/3x3_reduce
I0403 21:42:10.427834 12535 net.cpp:425] inception_4d/3x3_reduce <- inception_4c/output_inception_4c/output_0_split_1
I0403 21:42:10.427860 12535 net.cpp:399] inception_4d/3x3_reduce -> inception_4d/3x3_reduce
I0403 21:42:10.429713 12535 net.cpp:141] Setting up inception_4d/3x3_reduce
I0403 21:42:10.429749 12535 net.cpp:148] Top shape: 24 144 14 14 (677376)
I0403 21:42:10.429769 12535 net.cpp:156] Memory required for data: 1118106912
I0403 21:42:10.429790 12535 layer_factory.hpp:77] Creating layer inception_4d/relu_3x3_reduce
I0403 21:42:10.429812 12535 net.cpp:91] Creating Layer inception_4d/relu_3x3_reduce
I0403 21:42:10.429832 12535 net.cpp:425] inception_4d/relu_3x3_reduce <- inception_4d/3x3_reduce
I0403 21:42:10.429853 12535 net.cpp:386] inception_4d/relu_3x3_reduce -> inception_4d/3x3_reduce (in-place)
I0403 21:42:10.430197 12535 net.cpp:141] Setting up inception_4d/relu_3x3_reduce
I0403 21:42:10.430238 12535 net.cpp:148] Top shape: 24 144 14 14 (677376)
I0403 21:42:10.430258 12535 net.cpp:156] Memory required for data: 1120816416
I0403 21:42:10.430277 12535 layer_factory.hpp:77] Creating layer inception_4d/3x3
I0403 21:42:10.430302 12535 net.cpp:91] Creating Layer inception_4d/3x3
I0403 21:42:10.430323 12535 net.cpp:425] inception_4d/3x3 <- inception_4d/3x3_reduce
I0403 21:42:10.430349 12535 net.cpp:399] inception_4d/3x3 -> inception_4d/3x3
I0403 21:42:10.435659 12535 net.cpp:141] Setting up inception_4d/3x3
I0403 21:42:10.435694 12535 net.cpp:148] Top shape: 24 288 14 14 (1354752)
I0403 21:42:10.435714 12535 net.cpp:156] Memory required for data: 1126235424
I0403 21:42:10.435736 12535 layer_factory.hpp:77] Creating layer inception_4d/relu_3x3
I0403 21:42:10.435758 12535 net.cpp:91] Creating Layer inception_4d/relu_3x3
I0403 21:42:10.435778 12535 net.cpp:425] inception_4d/relu_3x3 <- inception_4d/3x3
I0403 21:42:10.435803 12535 net.cpp:386] inception_4d/relu_3x3 -> inception_4d/3x3 (in-place)
I0403 21:42:10.436030 12535 net.cpp:141] Setting up inception_4d/relu_3x3
I0403 21:42:10.436060 12535 net.cpp:148] Top shape: 24 288 14 14 (1354752)
I0403 21:42:10.436079 12535 net.cpp:156] Memory required for data: 1131654432
I0403 21:42:10.436096 12535 layer_factory.hpp:77] Creating layer inception_4d/5x5_reduce
I0403 21:42:10.436125 12535 net.cpp:91] Creating Layer inception_4d/5x5_reduce
I0403 21:42:10.436146 12535 net.cpp:425] inception_4d/5x5_reduce <- inception_4c/output_inception_4c/output_0_split_2
I0403 21:42:10.436172 12535 net.cpp:399] inception_4d/5x5_reduce -> inception_4d/5x5_reduce
I0403 21:42:10.437595 12535 net.cpp:141] Setting up inception_4d/5x5_reduce
I0403 21:42:10.437633 12535 net.cpp:148] Top shape: 24 32 14 14 (150528)
I0403 21:42:10.437652 12535 net.cpp:156] Memory required for data: 1132256544
I0403 21:42:10.437674 12535 layer_factory.hpp:77] Creating layer inception_4d/relu_5x5_reduce
I0403 21:42:10.437696 12535 net.cpp:91] Creating Layer inception_4d/relu_5x5_reduce
I0403 21:42:10.437717 12535 net.cpp:425] inception_4d/relu_5x5_reduce <- inception_4d/5x5_reduce
I0403 21:42:10.437741 12535 net.cpp:386] inception_4d/relu_5x5_reduce -> inception_4d/5x5_reduce (in-place)
I0403 21:42:10.437978 12535 net.cpp:141] Setting up inception_4d/relu_5x5_reduce
I0403 21:42:10.438009 12535 net.cpp:148] Top shape: 24 32 14 14 (150528)
I0403 21:42:10.438026 12535 net.cpp:156] Memory required for data: 1132858656
I0403 21:42:10.438045 12535 layer_factory.hpp:77] Creating layer inception_4d/5x5
I0403 21:42:10.438073 12535 net.cpp:91] Creating Layer inception_4d/5x5
I0403 21:42:10.438094 12535 net.cpp:425] inception_4d/5x5 <- inception_4d/5x5_reduce
I0403 21:42:10.438120 12535 net.cpp:399] inception_4d/5x5 -> inception_4d/5x5
I0403 21:42:10.439900 12535 net.cpp:141] Setting up inception_4d/5x5
I0403 21:42:10.439934 12535 net.cpp:148] Top shape: 24 64 14 14 (301056)
I0403 21:42:10.439954 12535 net.cpp:156] Memory required for data: 1134062880
I0403 21:42:10.439978 12535 layer_factory.hpp:77] Creating layer inception_4d/relu_5x5
I0403 21:42:10.440021 12535 net.cpp:91] Creating Layer inception_4d/relu_5x5
I0403 21:42:10.440043 12535 net.cpp:425] inception_4d/relu_5x5 <- inception_4d/5x5
I0403 21:42:10.440065 12535 net.cpp:386] inception_4d/relu_5x5 -> inception_4d/5x5 (in-place)
I0403 21:42:10.440435 12535 net.cpp:141] Setting up inception_4d/relu_5x5
I0403 21:42:10.440469 12535 net.cpp:148] Top shape: 24 64 14 14 (301056)
I0403 21:42:10.440486 12535 net.cpp:156] Memory required for data: 1135267104
I0403 21:42:10.440505 12535 layer_factory.hpp:77] Creating layer inception_4d/pool
I0403 21:42:10.440529 12535 net.cpp:91] Creating Layer inception_4d/pool
I0403 21:42:10.440551 12535 net.cpp:425] inception_4d/pool <- inception_4c/output_inception_4c/output_0_split_3
I0403 21:42:10.440573 12535 net.cpp:399] inception_4d/pool -> inception_4d/pool
I0403 21:42:10.440657 12535 net.cpp:141] Setting up inception_4d/pool
I0403 21:42:10.440687 12535 net.cpp:148] Top shape: 24 512 14 14 (2408448)
I0403 21:42:10.440706 12535 net.cpp:156] Memory required for data: 1144900896
I0403 21:42:10.440723 12535 layer_factory.hpp:77] Creating layer inception_4d/pool_proj
I0403 21:42:10.440752 12535 net.cpp:91] Creating Layer inception_4d/pool_proj
I0403 21:42:10.440773 12535 net.cpp:425] inception_4d/pool_proj <- inception_4d/pool
I0403 21:42:10.440799 12535 net.cpp:399] inception_4d/pool_proj -> inception_4d/pool_proj
I0403 21:42:10.442975 12535 net.cpp:141] Setting up inception_4d/pool_proj
I0403 21:42:10.443011 12535 net.cpp:148] Top shape: 24 64 14 14 (301056)
I0403 21:42:10.443028 12535 net.cpp:156] Memory required for data: 1146105120
I0403 21:42:10.443051 12535 layer_factory.hpp:77] Creating layer inception_4d/relu_pool_proj
I0403 21:42:10.443073 12535 net.cpp:91] Creating Layer inception_4d/relu_pool_proj
I0403 21:42:10.443092 12535 net.cpp:425] inception_4d/relu_pool_proj <- inception_4d/pool_proj
I0403 21:42:10.443117 12535 net.cpp:386] inception_4d/relu_pool_proj -> inception_4d/pool_proj (in-place)
I0403 21:42:10.443354 12535 net.cpp:141] Setting up inception_4d/relu_pool_proj
I0403 21:42:10.443387 12535 net.cpp:148] Top shape: 24 64 14 14 (301056)
I0403 21:42:10.443403 12535 net.cpp:156] Memory required for data: 1147309344
I0403 21:42:10.443421 12535 layer_factory.hpp:77] Creating layer inception_4d/output
I0403 21:42:10.443444 12535 net.cpp:91] Creating Layer inception_4d/output
I0403 21:42:10.443466 12535 net.cpp:425] inception_4d/output <- inception_4d/1x1
I0403 21:42:10.443487 12535 net.cpp:425] inception_4d/output <- inception_4d/3x3
I0403 21:42:10.443507 12535 net.cpp:425] inception_4d/output <- inception_4d/5x5
I0403 21:42:10.443526 12535 net.cpp:425] inception_4d/output <- inception_4d/pool_proj
I0403 21:42:10.443547 12535 net.cpp:399] inception_4d/output -> inception_4d/output
I0403 21:42:10.443603 12535 net.cpp:141] Setting up inception_4d/output
I0403 21:42:10.443635 12535 net.cpp:148] Top shape: 24 528 14 14 (2483712)
I0403 21:42:10.443655 12535 net.cpp:156] Memory required for data: 1157244192
I0403 21:42:10.443673 12535 layer_factory.hpp:77] Creating layer inception_4d/output_inception_4d/output_0_split
I0403 21:42:10.443696 12535 net.cpp:91] Creating Layer inception_4d/output_inception_4d/output_0_split
I0403 21:42:10.443714 12535 net.cpp:425] inception_4d/output_inception_4d/output_0_split <- inception_4d/output
I0403 21:42:10.443738 12535 net.cpp:399] inception_4d/output_inception_4d/output_0_split -> inception_4d/output_inception_4d/output_0_split_0
I0403 21:42:10.443764 12535 net.cpp:399] inception_4d/output_inception_4d/output_0_split -> inception_4d/output_inception_4d/output_0_split_1
I0403 21:42:10.443790 12535 net.cpp:399] inception_4d/output_inception_4d/output_0_split -> inception_4d/output_inception_4d/output_0_split_2
I0403 21:42:10.443815 12535 net.cpp:399] inception_4d/output_inception_4d/output_0_split -> inception_4d/output_inception_4d/output_0_split_3
I0403 21:42:10.443840 12535 net.cpp:399] inception_4d/output_inception_4d/output_0_split -> inception_4d/output_inception_4d/output_0_split_4
I0403 21:42:10.443969 12535 net.cpp:141] Setting up inception_4d/output_inception_4d/output_0_split
I0403 21:42:10.444011 12535 net.cpp:148] Top shape: 24 528 14 14 (2483712)
I0403 21:42:10.444034 12535 net.cpp:148] Top shape: 24 528 14 14 (2483712)
I0403 21:42:10.444056 12535 net.cpp:148] Top shape: 24 528 14 14 (2483712)
I0403 21:42:10.444074 12535 net.cpp:148] Top shape: 24 528 14 14 (2483712)
I0403 21:42:10.444093 12535 net.cpp:148] Top shape: 24 528 14 14 (2483712)
I0403 21:42:10.444110 12535 net.cpp:156] Memory required for data: 1206918432
I0403 21:42:10.444128 12535 layer_factory.hpp:77] Creating layer loss2/ave_pool
I0403 21:42:10.444150 12535 net.cpp:91] Creating Layer loss2/ave_pool
I0403 21:42:10.444169 12535 net.cpp:425] loss2/ave_pool <- inception_4d/output_inception_4d/output_0_split_0
I0403 21:42:10.444196 12535 net.cpp:399] loss2/ave_pool -> loss2/ave_pool
I0403 21:42:10.444578 12535 net.cpp:141] Setting up loss2/ave_pool
I0403 21:42:10.444609 12535 net.cpp:148] Top shape: 24 528 4 4 (202752)
I0403 21:42:10.444628 12535 net.cpp:156] Memory required for data: 1207729440
I0403 21:42:10.444646 12535 layer_factory.hpp:77] Creating layer loss2/conv
I0403 21:42:10.444674 12535 net.cpp:91] Creating Layer loss2/conv
I0403 21:42:10.444696 12535 net.cpp:425] loss2/conv <- loss2/ave_pool
I0403 21:42:10.444722 12535 net.cpp:399] loss2/conv -> loss2/conv
I0403 21:42:10.447062 12535 net.cpp:141] Setting up loss2/conv
I0403 21:42:10.447096 12535 net.cpp:148] Top shape: 24 128 4 4 (49152)
I0403 21:42:10.447115 12535 net.cpp:156] Memory required for data: 1207926048
I0403 21:42:10.447137 12535 layer_factory.hpp:77] Creating layer loss2/relu_conv
I0403 21:42:10.447162 12535 net.cpp:91] Creating Layer loss2/relu_conv
I0403 21:42:10.447185 12535 net.cpp:425] loss2/relu_conv <- loss2/conv
I0403 21:42:10.447206 12535 net.cpp:386] loss2/relu_conv -> loss2/conv (in-place)
I0403 21:42:10.447561 12535 net.cpp:141] Setting up loss2/relu_conv
I0403 21:42:10.447592 12535 net.cpp:148] Top shape: 24 128 4 4 (49152)
I0403 21:42:10.447610 12535 net.cpp:156] Memory required for data: 1208122656
I0403 21:42:10.447629 12535 layer_factory.hpp:77] Creating layer loss2/fc
I0403 21:42:10.447655 12535 net.cpp:91] Creating Layer loss2/fc
I0403 21:42:10.447675 12535 net.cpp:425] loss2/fc <- loss2/conv
I0403 21:42:10.447698 12535 net.cpp:399] loss2/fc -> loss2/fc
I0403 21:42:10.469903 12535 net.cpp:141] Setting up loss2/fc
I0403 21:42:10.469947 12535 net.cpp:148] Top shape: 24 1024 (24576)
I0403 21:42:10.469965 12535 net.cpp:156] Memory required for data: 1208220960
I0403 21:42:10.469990 12535 layer_factory.hpp:77] Creating layer loss2/relu_fc
I0403 21:42:10.470011 12535 net.cpp:91] Creating Layer loss2/relu_fc
I0403 21:42:10.470031 12535 net.cpp:425] loss2/relu_fc <- loss2/fc
I0403 21:42:10.470054 12535 net.cpp:386] loss2/relu_fc -> loss2/fc (in-place)
I0403 21:42:10.470427 12535 net.cpp:141] Setting up loss2/relu_fc
I0403 21:42:10.470458 12535 net.cpp:148] Top shape: 24 1024 (24576)
I0403 21:42:10.470476 12535 net.cpp:156] Memory required for data: 1208319264
I0403 21:42:10.470494 12535 layer_factory.hpp:77] Creating layer loss2/drop_fc
I0403 21:42:10.470516 12535 net.cpp:91] Creating Layer loss2/drop_fc
I0403 21:42:10.470535 12535 net.cpp:425] loss2/drop_fc <- loss2/fc
I0403 21:42:10.470564 12535 net.cpp:386] loss2/drop_fc -> loss2/fc (in-place)
I0403 21:42:10.470624 12535 net.cpp:141] Setting up loss2/drop_fc
I0403 21:42:10.470656 12535 net.cpp:148] Top shape: 24 1024 (24576)
I0403 21:42:10.470675 12535 net.cpp:156] Memory required for data: 1208417568
I0403 21:42:10.470693 12535 layer_factory.hpp:77] Creating layer loss2/classifier_plantvillage
I0403 21:42:10.470715 12535 net.cpp:91] Creating Layer loss2/classifier_plantvillage
I0403 21:42:10.470736 12535 net.cpp:425] loss2/classifier_plantvillage <- loss2/fc
I0403 21:42:10.470760 12535 net.cpp:399] loss2/classifier_plantvillage -> loss2/classifier_plantvillage
I0403 21:42:10.471261 12535 net.cpp:141] Setting up loss2/classifier_plantvillage
I0403 21:42:10.471295 12535 net.cpp:148] Top shape: 24 38 (912)
I0403 21:42:10.471315 12535 net.cpp:156] Memory required for data: 1208421216
I0403 21:42:10.471356 12535 layer_factory.hpp:77] Creating layer loss2/classifier_plantvillage_loss2/classifier_plantvillage_0_split
I0403 21:42:10.471379 12535 net.cpp:91] Creating Layer loss2/classifier_plantvillage_loss2/classifier_plantvillage_0_split
I0403 21:42:10.471400 12535 net.cpp:425] loss2/classifier_plantvillage_loss2/classifier_plantvillage_0_split <- loss2/classifier_plantvillage
I0403 21:42:10.471421 12535 net.cpp:399] loss2/classifier_plantvillage_loss2/classifier_plantvillage_0_split -> loss2/classifier_plantvillage_loss2/classifier_plantvillage_0_split_0
I0403 21:42:10.471447 12535 net.cpp:399] loss2/classifier_plantvillage_loss2/classifier_plantvillage_0_split -> loss2/classifier_plantvillage_loss2/classifier_plantvillage_0_split_1
I0403 21:42:10.471473 12535 net.cpp:399] loss2/classifier_plantvillage_loss2/classifier_plantvillage_0_split -> loss2/classifier_plantvillage_loss2/classifier_plantvillage_0_split_2
I0403 21:42:10.471570 12535 net.cpp:141] Setting up loss2/classifier_plantvillage_loss2/classifier_plantvillage_0_split
I0403 21:42:10.471598 12535 net.cpp:148] Top shape: 24 38 (912)
I0403 21:42:10.471618 12535 net.cpp:148] Top shape: 24 38 (912)
I0403 21:42:10.471637 12535 net.cpp:148] Top shape: 24 38 (912)
I0403 21:42:10.471653 12535 net.cpp:156] Memory required for data: 1208432160
I0403 21:42:10.471673 12535 layer_factory.hpp:77] Creating layer inception_4e/1x1
I0403 21:42:10.471696 12535 net.cpp:91] Creating Layer inception_4e/1x1
I0403 21:42:10.471717 12535 net.cpp:425] inception_4e/1x1 <- inception_4d/output_inception_4d/output_0_split_1
I0403 21:42:10.471742 12535 net.cpp:399] inception_4e/1x1 -> inception_4e/1x1
I0403 21:42:10.473999 12535 net.cpp:141] Setting up inception_4e/1x1
I0403 21:42:10.474033 12535 net.cpp:148] Top shape: 24 256 14 14 (1204224)
I0403 21:42:10.474053 12535 net.cpp:156] Memory required for data: 1213249056
I0403 21:42:10.474076 12535 layer_factory.hpp:77] Creating layer inception_4e/relu_1x1
I0403 21:42:10.474102 12535 net.cpp:91] Creating Layer inception_4e/relu_1x1
I0403 21:42:10.474123 12535 net.cpp:425] inception_4e/relu_1x1 <- inception_4e/1x1
I0403 21:42:10.474145 12535 net.cpp:386] inception_4e/relu_1x1 -> inception_4e/1x1 (in-place)
I0403 21:42:10.474509 12535 net.cpp:141] Setting up inception_4e/relu_1x1
I0403 21:42:10.474540 12535 net.cpp:148] Top shape: 24 256 14 14 (1204224)
I0403 21:42:10.474560 12535 net.cpp:156] Memory required for data: 1218065952
I0403 21:42:10.474577 12535 layer_factory.hpp:77] Creating layer inception_4e/3x3_reduce
I0403 21:42:10.474606 12535 net.cpp:91] Creating Layer inception_4e/3x3_reduce
I0403 21:42:10.474632 12535 net.cpp:425] inception_4e/3x3_reduce <- inception_4d/output_inception_4d/output_0_split_2
I0403 21:42:10.474655 12535 net.cpp:399] inception_4e/3x3_reduce -> inception_4e/3x3_reduce
I0403 21:42:10.477280 12535 net.cpp:141] Setting up inception_4e/3x3_reduce
I0403 21:42:10.477315 12535 net.cpp:148] Top shape: 24 160 14 14 (752640)
I0403 21:42:10.477335 12535 net.cpp:156] Memory required for data: 1221076512
I0403 21:42:10.477357 12535 layer_factory.hpp:77] Creating layer inception_4e/relu_3x3_reduce
I0403 21:42:10.477383 12535 net.cpp:91] Creating Layer inception_4e/relu_3x3_reduce
I0403 21:42:10.477406 12535 net.cpp:425] inception_4e/relu_3x3_reduce <- inception_4e/3x3_reduce
I0403 21:42:10.477427 12535 net.cpp:386] inception_4e/relu_3x3_reduce -> inception_4e/3x3_reduce (in-place)
I0403 21:42:10.477659 12535 net.cpp:141] Setting up inception_4e/relu_3x3_reduce
I0403 21:42:10.477691 12535 net.cpp:148] Top shape: 24 160 14 14 (752640)
I0403 21:42:10.477710 12535 net.cpp:156] Memory required for data: 1224087072
I0403 21:42:10.477727 12535 layer_factory.hpp:77] Creating layer inception_4e/3x3
I0403 21:42:10.477756 12535 net.cpp:91] Creating Layer inception_4e/3x3
I0403 21:42:10.477777 12535 net.cpp:425] inception_4e/3x3 <- inception_4e/3x3_reduce
I0403 21:42:10.477802 12535 net.cpp:399] inception_4e/3x3 -> inception_4e/3x3
I0403 21:42:10.484069 12535 net.cpp:141] Setting up inception_4e/3x3
I0403 21:42:10.484122 12535 net.cpp:148] Top shape: 24 320 14 14 (1505280)
I0403 21:42:10.484141 12535 net.cpp:156] Memory required for data: 1230108192
I0403 21:42:10.484165 12535 layer_factory.hpp:77] Creating layer inception_4e/relu_3x3
I0403 21:42:10.484191 12535 net.cpp:91] Creating Layer inception_4e/relu_3x3
I0403 21:42:10.484223 12535 net.cpp:425] inception_4e/relu_3x3 <- inception_4e/3x3
I0403 21:42:10.484248 12535 net.cpp:386] inception_4e/relu_3x3 -> inception_4e/3x3 (in-place)
I0403 21:42:10.484614 12535 net.cpp:141] Setting up inception_4e/relu_3x3
I0403 21:42:10.484648 12535 net.cpp:148] Top shape: 24 320 14 14 (1505280)
I0403 21:42:10.484668 12535 net.cpp:156] Memory required for data: 1236129312
I0403 21:42:10.484685 12535 layer_factory.hpp:77] Creating layer inception_4e/5x5_reduce
I0403 21:42:10.484715 12535 net.cpp:91] Creating Layer inception_4e/5x5_reduce
I0403 21:42:10.484737 12535 net.cpp:425] inception_4e/5x5_reduce <- inception_4d/output_inception_4d/output_0_split_3
I0403 21:42:10.484760 12535 net.cpp:399] inception_4e/5x5_reduce -> inception_4e/5x5_reduce
I0403 21:42:10.486080 12535 net.cpp:141] Setting up inception_4e/5x5_reduce
I0403 21:42:10.486114 12535 net.cpp:148] Top shape: 24 32 14 14 (150528)
I0403 21:42:10.486131 12535 net.cpp:156] Memory required for data: 1236731424
I0403 21:42:10.486155 12535 layer_factory.hpp:77] Creating layer inception_4e/relu_5x5_reduce
I0403 21:42:10.486179 12535 net.cpp:91] Creating Layer inception_4e/relu_5x5_reduce
I0403 21:42:10.486199 12535 net.cpp:425] inception_4e/relu_5x5_reduce <- inception_4e/5x5_reduce
I0403 21:42:10.486228 12535 net.cpp:386] inception_4e/relu_5x5_reduce -> inception_4e/5x5_reduce (in-place)
I0403 21:42:10.486591 12535 net.cpp:141] Setting up inception_4e/relu_5x5_reduce
I0403 21:42:10.486623 12535 net.cpp:148] Top shape: 24 32 14 14 (150528)
I0403 21:42:10.486640 12535 net.cpp:156] Memory required for data: 1237333536
I0403 21:42:10.486660 12535 layer_factory.hpp:77] Creating layer inception_4e/5x5
I0403 21:42:10.486702 12535 net.cpp:91] Creating Layer inception_4e/5x5
I0403 21:42:10.486726 12535 net.cpp:425] inception_4e/5x5 <- inception_4e/5x5_reduce
I0403 21:42:10.486752 12535 net.cpp:399] inception_4e/5x5 -> inception_4e/5x5
I0403 21:42:10.488996 12535 net.cpp:141] Setting up inception_4e/5x5
I0403 21:42:10.489028 12535 net.cpp:148] Top shape: 24 128 14 14 (602112)
I0403 21:42:10.489048 12535 net.cpp:156] Memory required for data: 1239741984
I0403 21:42:10.489070 12535 layer_factory.hpp:77] Creating layer inception_4e/relu_5x5
I0403 21:42:10.489092 12535 net.cpp:91] Creating Layer inception_4e/relu_5x5
I0403 21:42:10.489111 12535 net.cpp:425] inception_4e/relu_5x5 <- inception_4e/5x5
I0403 21:42:10.489135 12535 net.cpp:386] inception_4e/relu_5x5 -> inception_4e/5x5 (in-place)
I0403 21:42:10.489383 12535 net.cpp:141] Setting up inception_4e/relu_5x5
I0403 21:42:10.489414 12535 net.cpp:148] Top shape: 24 128 14 14 (602112)
I0403 21:42:10.489433 12535 net.cpp:156] Memory required for data: 1242150432
I0403 21:42:10.489450 12535 layer_factory.hpp:77] Creating layer inception_4e/pool
I0403 21:42:10.489475 12535 net.cpp:91] Creating Layer inception_4e/pool
I0403 21:42:10.489495 12535 net.cpp:425] inception_4e/pool <- inception_4d/output_inception_4d/output_0_split_4
I0403 21:42:10.489517 12535 net.cpp:399] inception_4e/pool -> inception_4e/pool
I0403 21:42:10.489604 12535 net.cpp:141] Setting up inception_4e/pool
I0403 21:42:10.489634 12535 net.cpp:148] Top shape: 24 528 14 14 (2483712)
I0403 21:42:10.489650 12535 net.cpp:156] Memory required for data: 1252085280
I0403 21:42:10.489668 12535 layer_factory.hpp:77] Creating layer inception_4e/pool_proj
I0403 21:42:10.489696 12535 net.cpp:91] Creating Layer inception_4e/pool_proj
I0403 21:42:10.489717 12535 net.cpp:425] inception_4e/pool_proj <- inception_4e/pool
I0403 21:42:10.489743 12535 net.cpp:399] inception_4e/pool_proj -> inception_4e/pool_proj
I0403 21:42:10.491588 12535 net.cpp:141] Setting up inception_4e/pool_proj
I0403 21:42:10.491622 12535 net.cpp:148] Top shape: 24 128 14 14 (602112)
I0403 21:42:10.491658 12535 net.cpp:156] Memory required for data: 1254493728
I0403 21:42:10.491683 12535 layer_factory.hpp:77] Creating layer inception_4e/relu_pool_proj
I0403 21:42:10.491704 12535 net.cpp:91] Creating Layer inception_4e/relu_pool_proj
I0403 21:42:10.491724 12535 net.cpp:425] inception_4e/relu_pool_proj <- inception_4e/pool_proj
I0403 21:42:10.491747 12535 net.cpp:386] inception_4e/relu_pool_proj -> inception_4e/pool_proj (in-place)
I0403 21:42:10.492100 12535 net.cpp:141] Setting up inception_4e/relu_pool_proj
I0403 21:42:10.492132 12535 net.cpp:148] Top shape: 24 128 14 14 (602112)
I0403 21:42:10.492151 12535 net.cpp:156] Memory required for data: 1256902176
I0403 21:42:10.492169 12535 layer_factory.hpp:77] Creating layer inception_4e/output
I0403 21:42:10.492190 12535 net.cpp:91] Creating Layer inception_4e/output
I0403 21:42:10.492221 12535 net.cpp:425] inception_4e/output <- inception_4e/1x1
I0403 21:42:10.492246 12535 net.cpp:425] inception_4e/output <- inception_4e/3x3
I0403 21:42:10.492265 12535 net.cpp:425] inception_4e/output <- inception_4e/5x5
I0403 21:42:10.492285 12535 net.cpp:425] inception_4e/output <- inception_4e/pool_proj
I0403 21:42:10.492310 12535 net.cpp:399] inception_4e/output -> inception_4e/output
I0403 21:42:10.492369 12535 net.cpp:141] Setting up inception_4e/output
I0403 21:42:10.492401 12535 net.cpp:148] Top shape: 24 832 14 14 (3913728)
I0403 21:42:10.492419 12535 net.cpp:156] Memory required for data: 1272557088
I0403 21:42:10.492439 12535 layer_factory.hpp:77] Creating layer pool4/3x3_s2
I0403 21:42:10.492460 12535 net.cpp:91] Creating Layer pool4/3x3_s2
I0403 21:42:10.492480 12535 net.cpp:425] pool4/3x3_s2 <- inception_4e/output
I0403 21:42:10.492501 12535 net.cpp:399] pool4/3x3_s2 -> pool4/3x3_s2
I0403 21:42:10.492584 12535 net.cpp:141] Setting up pool4/3x3_s2
I0403 21:42:10.492612 12535 net.cpp:148] Top shape: 24 832 7 7 (978432)
I0403 21:42:10.492630 12535 net.cpp:156] Memory required for data: 1276470816
I0403 21:42:10.492648 12535 layer_factory.hpp:77] Creating layer pool4/3x3_s2_pool4/3x3_s2_0_split
I0403 21:42:10.492669 12535 net.cpp:91] Creating Layer pool4/3x3_s2_pool4/3x3_s2_0_split
I0403 21:42:10.492689 12535 net.cpp:425] pool4/3x3_s2_pool4/3x3_s2_0_split <- pool4/3x3_s2
I0403 21:42:10.492717 12535 net.cpp:399] pool4/3x3_s2_pool4/3x3_s2_0_split -> pool4/3x3_s2_pool4/3x3_s2_0_split_0
I0403 21:42:10.492743 12535 net.cpp:399] pool4/3x3_s2_pool4/3x3_s2_0_split -> pool4/3x3_s2_pool4/3x3_s2_0_split_1
I0403 21:42:10.492769 12535 net.cpp:399] pool4/3x3_s2_pool4/3x3_s2_0_split -> pool4/3x3_s2_pool4/3x3_s2_0_split_2
I0403 21:42:10.492792 12535 net.cpp:399] pool4/3x3_s2_pool4/3x3_s2_0_split -> pool4/3x3_s2_pool4/3x3_s2_0_split_3
I0403 21:42:10.492908 12535 net.cpp:141] Setting up pool4/3x3_s2_pool4/3x3_s2_0_split
I0403 21:42:10.492936 12535 net.cpp:148] Top shape: 24 832 7 7 (978432)
I0403 21:42:10.492956 12535 net.cpp:148] Top shape: 24 832 7 7 (978432)
I0403 21:42:10.492975 12535 net.cpp:148] Top shape: 24 832 7 7 (978432)
I0403 21:42:10.492995 12535 net.cpp:148] Top shape: 24 832 7 7 (978432)
I0403 21:42:10.493011 12535 net.cpp:156] Memory required for data: 1292125728
I0403 21:42:10.493029 12535 layer_factory.hpp:77] Creating layer inception_5a/1x1
I0403 21:42:10.493057 12535 net.cpp:91] Creating Layer inception_5a/1x1
I0403 21:42:10.493077 12535 net.cpp:425] inception_5a/1x1 <- pool4/3x3_s2_pool4/3x3_s2_0_split_0
I0403 21:42:10.493103 12535 net.cpp:399] inception_5a/1x1 -> inception_5a/1x1
I0403 21:42:10.496608 12535 net.cpp:141] Setting up inception_5a/1x1
I0403 21:42:10.496644 12535 net.cpp:148] Top shape: 24 256 7 7 (301056)
I0403 21:42:10.496661 12535 net.cpp:156] Memory required for data: 1293329952
I0403 21:42:10.496683 12535 layer_factory.hpp:77] Creating layer inception_5a/relu_1x1
I0403 21:42:10.496708 12535 net.cpp:91] Creating Layer inception_5a/relu_1x1
I0403 21:42:10.496729 12535 net.cpp:425] inception_5a/relu_1x1 <- inception_5a/1x1
I0403 21:42:10.496750 12535 net.cpp:386] inception_5a/relu_1x1 -> inception_5a/1x1 (in-place)
I0403 21:42:10.497134 12535 net.cpp:141] Setting up inception_5a/relu_1x1
I0403 21:42:10.497165 12535 net.cpp:148] Top shape: 24 256 7 7 (301056)
I0403 21:42:10.497184 12535 net.cpp:156] Memory required for data: 1294534176
I0403 21:42:10.497202 12535 layer_factory.hpp:77] Creating layer inception_5a/3x3_reduce
I0403 21:42:10.497236 12535 net.cpp:91] Creating Layer inception_5a/3x3_reduce
I0403 21:42:10.497258 12535 net.cpp:425] inception_5a/3x3_reduce <- pool4/3x3_s2_pool4/3x3_s2_0_split_1
I0403 21:42:10.497285 12535 net.cpp:399] inception_5a/3x3_reduce -> inception_5a/3x3_reduce
I0403 21:42:10.500294 12535 net.cpp:141] Setting up inception_5a/3x3_reduce
I0403 21:42:10.500332 12535 net.cpp:148] Top shape: 24 160 7 7 (188160)
I0403 21:42:10.500352 12535 net.cpp:156] Memory required for data: 1295286816
I0403 21:42:10.500375 12535 layer_factory.hpp:77] Creating layer inception_5a/relu_3x3_reduce
I0403 21:42:10.500397 12535 net.cpp:91] Creating Layer inception_5a/relu_3x3_reduce
I0403 21:42:10.500418 12535 net.cpp:425] inception_5a/relu_3x3_reduce <- inception_5a/3x3_reduce
I0403 21:42:10.500442 12535 net.cpp:386] inception_5a/relu_3x3_reduce -> inception_5a/3x3_reduce (in-place)
I0403 21:42:10.500676 12535 net.cpp:141] Setting up inception_5a/relu_3x3_reduce
I0403 21:42:10.500706 12535 net.cpp:148] Top shape: 24 160 7 7 (188160)
I0403 21:42:10.500725 12535 net.cpp:156] Memory required for data: 1296039456
I0403 21:42:10.500742 12535 layer_factory.hpp:77] Creating layer inception_5a/3x3
I0403 21:42:10.500769 12535 net.cpp:91] Creating Layer inception_5a/3x3
I0403 21:42:10.500792 12535 net.cpp:425] inception_5a/3x3 <- inception_5a/3x3_reduce
I0403 21:42:10.500818 12535 net.cpp:399] inception_5a/3x3 -> inception_5a/3x3
I0403 21:42:10.507123 12535 net.cpp:141] Setting up inception_5a/3x3
I0403 21:42:10.507160 12535 net.cpp:148] Top shape: 24 320 7 7 (376320)
I0403 21:42:10.507179 12535 net.cpp:156] Memory required for data: 1297544736
I0403 21:42:10.507202 12535 layer_factory.hpp:77] Creating layer inception_5a/relu_3x3
I0403 21:42:10.507231 12535 net.cpp:91] Creating Layer inception_5a/relu_3x3
I0403 21:42:10.507251 12535 net.cpp:425] inception_5a/relu_3x3 <- inception_5a/3x3
I0403 21:42:10.507275 12535 net.cpp:386] inception_5a/relu_3x3 -> inception_5a/3x3 (in-place)
I0403 21:42:10.507633 12535 net.cpp:141] Setting up inception_5a/relu_3x3
I0403 21:42:10.507664 12535 net.cpp:148] Top shape: 24 320 7 7 (376320)
I0403 21:42:10.507683 12535 net.cpp:156] Memory required for data: 1299050016
I0403 21:42:10.507701 12535 layer_factory.hpp:77] Creating layer inception_5a/5x5_reduce
I0403 21:42:10.507730 12535 net.cpp:91] Creating Layer inception_5a/5x5_reduce
I0403 21:42:10.507751 12535 net.cpp:425] inception_5a/5x5_reduce <- pool4/3x3_s2_pool4/3x3_s2_0_split_2
I0403 21:42:10.507778 12535 net.cpp:399] inception_5a/5x5_reduce -> inception_5a/5x5_reduce
I0403 21:42:10.509238 12535 net.cpp:141] Setting up inception_5a/5x5_reduce
I0403 21:42:10.509275 12535 net.cpp:148] Top shape: 24 32 7 7 (37632)
I0403 21:42:10.509295 12535 net.cpp:156] Memory required for data: 1299200544
I0403 21:42:10.509317 12535 layer_factory.hpp:77] Creating layer inception_5a/relu_5x5_reduce
I0403 21:42:10.509340 12535 net.cpp:91] Creating Layer inception_5a/relu_5x5_reduce
I0403 21:42:10.509359 12535 net.cpp:425] inception_5a/relu_5x5_reduce <- inception_5a/5x5_reduce
I0403 21:42:10.509382 12535 net.cpp:386] inception_5a/relu_5x5_reduce -> inception_5a/5x5_reduce (in-place)
I0403 21:42:10.509747 12535 net.cpp:141] Setting up inception_5a/relu_5x5_reduce
I0403 21:42:10.509778 12535 net.cpp:148] Top shape: 24 32 7 7 (37632)
I0403 21:42:10.509796 12535 net.cpp:156] Memory required for data: 1299351072
I0403 21:42:10.509814 12535 layer_factory.hpp:77] Creating layer inception_5a/5x5
I0403 21:42:10.509842 12535 net.cpp:91] Creating Layer inception_5a/5x5
I0403 21:42:10.509865 12535 net.cpp:425] inception_5a/5x5 <- inception_5a/5x5_reduce
I0403 21:42:10.509891 12535 net.cpp:399] inception_5a/5x5 -> inception_5a/5x5
I0403 21:42:10.512030 12535 net.cpp:141] Setting up inception_5a/5x5
I0403 21:42:10.512079 12535 net.cpp:148] Top shape: 24 128 7 7 (150528)
I0403 21:42:10.512099 12535 net.cpp:156] Memory required for data: 1299953184
I0403 21:42:10.512121 12535 layer_factory.hpp:77] Creating layer inception_5a/relu_5x5
I0403 21:42:10.512143 12535 net.cpp:91] Creating Layer inception_5a/relu_5x5
I0403 21:42:10.512163 12535 net.cpp:425] inception_5a/relu_5x5 <- inception_5a/5x5
I0403 21:42:10.512188 12535 net.cpp:386] inception_5a/relu_5x5 -> inception_5a/5x5 (in-place)
I0403 21:42:10.512439 12535 net.cpp:141] Setting up inception_5a/relu_5x5
I0403 21:42:10.512470 12535 net.cpp:148] Top shape: 24 128 7 7 (150528)
I0403 21:42:10.512488 12535 net.cpp:156] Memory required for data: 1300555296
I0403 21:42:10.512506 12535 layer_factory.hpp:77] Creating layer inception_5a/pool
I0403 21:42:10.512531 12535 net.cpp:91] Creating Layer inception_5a/pool
I0403 21:42:10.512552 12535 net.cpp:425] inception_5a/pool <- pool4/3x3_s2_pool4/3x3_s2_0_split_3
I0403 21:42:10.512575 12535 net.cpp:399] inception_5a/pool -> inception_5a/pool
I0403 21:42:10.512663 12535 net.cpp:141] Setting up inception_5a/pool
I0403 21:42:10.512692 12535 net.cpp:148] Top shape: 24 832 7 7 (978432)
I0403 21:42:10.512711 12535 net.cpp:156] Memory required for data: 1304469024
I0403 21:42:10.512728 12535 layer_factory.hpp:77] Creating layer inception_5a/pool_proj
I0403 21:42:10.512755 12535 net.cpp:91] Creating Layer inception_5a/pool_proj
I0403 21:42:10.512778 12535 net.cpp:425] inception_5a/pool_proj <- inception_5a/pool
I0403 21:42:10.512804 12535 net.cpp:399] inception_5a/pool_proj -> inception_5a/pool_proj
I0403 21:42:10.515625 12535 net.cpp:141] Setting up inception_5a/pool_proj
I0403 21:42:10.515662 12535 net.cpp:148] Top shape: 24 128 7 7 (150528)
I0403 21:42:10.515682 12535 net.cpp:156] Memory required for data: 1305071136
I0403 21:42:10.515707 12535 layer_factory.hpp:77] Creating layer inception_5a/relu_pool_proj
I0403 21:42:10.515728 12535 net.cpp:91] Creating Layer inception_5a/relu_pool_proj
I0403 21:42:10.515749 12535 net.cpp:425] inception_5a/relu_pool_proj <- inception_5a/pool_proj
I0403 21:42:10.515774 12535 net.cpp:386] inception_5a/relu_pool_proj -> inception_5a/pool_proj (in-place)
I0403 21:42:10.516132 12535 net.cpp:141] Setting up inception_5a/relu_pool_proj
I0403 21:42:10.516167 12535 net.cpp:148] Top shape: 24 128 7 7 (150528)
I0403 21:42:10.516186 12535 net.cpp:156] Memory required for data: 1305673248
I0403 21:42:10.516206 12535 layer_factory.hpp:77] Creating layer inception_5a/output
I0403 21:42:10.516234 12535 net.cpp:91] Creating Layer inception_5a/output
I0403 21:42:10.516254 12535 net.cpp:425] inception_5a/output <- inception_5a/1x1
I0403 21:42:10.516274 12535 net.cpp:425] inception_5a/output <- inception_5a/3x3
I0403 21:42:10.516294 12535 net.cpp:425] inception_5a/output <- inception_5a/5x5
I0403 21:42:10.516314 12535 net.cpp:425] inception_5a/output <- inception_5a/pool_proj
I0403 21:42:10.516338 12535 net.cpp:399] inception_5a/output -> inception_5a/output
I0403 21:42:10.516401 12535 net.cpp:141] Setting up inception_5a/output
I0403 21:42:10.516429 12535 net.cpp:148] Top shape: 24 832 7 7 (978432)
I0403 21:42:10.516448 12535 net.cpp:156] Memory required for data: 1309586976
I0403 21:42:10.516465 12535 layer_factory.hpp:77] Creating layer inception_5a/output_inception_5a/output_0_split
I0403 21:42:10.516489 12535 net.cpp:91] Creating Layer inception_5a/output_inception_5a/output_0_split
I0403 21:42:10.516510 12535 net.cpp:425] inception_5a/output_inception_5a/output_0_split <- inception_5a/output
I0403 21:42:10.516531 12535 net.cpp:399] inception_5a/output_inception_5a/output_0_split -> inception_5a/output_inception_5a/output_0_split_0
I0403 21:42:10.516561 12535 net.cpp:399] inception_5a/output_inception_5a/output_0_split -> inception_5a/output_inception_5a/output_0_split_1
I0403 21:42:10.516587 12535 net.cpp:399] inception_5a/output_inception_5a/output_0_split -> inception_5a/output_inception_5a/output_0_split_2
I0403 21:42:10.516612 12535 net.cpp:399] inception_5a/output_inception_5a/output_0_split -> inception_5a/output_inception_5a/output_0_split_3
I0403 21:42:10.516747 12535 net.cpp:141] Setting up inception_5a/output_inception_5a/output_0_split
I0403 21:42:10.516777 12535 net.cpp:148] Top shape: 24 832 7 7 (978432)
I0403 21:42:10.516798 12535 net.cpp:148] Top shape: 24 832 7 7 (978432)
I0403 21:42:10.516816 12535 net.cpp:148] Top shape: 24 832 7 7 (978432)
I0403 21:42:10.516834 12535 net.cpp:148] Top shape: 24 832 7 7 (978432)
I0403 21:42:10.516851 12535 net.cpp:156] Memory required for data: 1325241888
I0403 21:42:10.516870 12535 layer_factory.hpp:77] Creating layer inception_5b/1x1
I0403 21:42:10.516896 12535 net.cpp:91] Creating Layer inception_5b/1x1
I0403 21:42:10.516917 12535 net.cpp:425] inception_5b/1x1 <- inception_5a/output_inception_5a/output_0_split_0
I0403 21:42:10.516943 12535 net.cpp:399] inception_5b/1x1 -> inception_5b/1x1
I0403 21:42:10.521577 12535 net.cpp:141] Setting up inception_5b/1x1
I0403 21:42:10.521615 12535 net.cpp:148] Top shape: 24 384 7 7 (451584)
I0403 21:42:10.521636 12535 net.cpp:156] Memory required for data: 1327048224
I0403 21:42:10.521658 12535 layer_factory.hpp:77] Creating layer inception_5b/relu_1x1
I0403 21:42:10.521682 12535 net.cpp:91] Creating Layer inception_5b/relu_1x1
I0403 21:42:10.521703 12535 net.cpp:425] inception_5b/relu_1x1 <- inception_5b/1x1
I0403 21:42:10.521728 12535 net.cpp:386] inception_5b/relu_1x1 -> inception_5b/1x1 (in-place)
I0403 21:42:10.522095 12535 net.cpp:141] Setting up inception_5b/relu_1x1
I0403 21:42:10.522130 12535 net.cpp:148] Top shape: 24 384 7 7 (451584)
I0403 21:42:10.522150 12535 net.cpp:156] Memory required for data: 1328854560
I0403 21:42:10.522168 12535 layer_factory.hpp:77] Creating layer inception_5b/3x3_reduce
I0403 21:42:10.522197 12535 net.cpp:91] Creating Layer inception_5b/3x3_reduce
I0403 21:42:10.522233 12535 net.cpp:425] inception_5b/3x3_reduce <- inception_5a/output_inception_5a/output_0_split_1
I0403 21:42:10.522259 12535 net.cpp:399] inception_5b/3x3_reduce -> inception_5b/3x3_reduce
I0403 21:42:10.525566 12535 net.cpp:141] Setting up inception_5b/3x3_reduce
I0403 21:42:10.525604 12535 net.cpp:148] Top shape: 24 192 7 7 (225792)
I0403 21:42:10.525624 12535 net.cpp:156] Memory required for data: 1329757728
I0403 21:42:10.525647 12535 layer_factory.hpp:77] Creating layer inception_5b/relu_3x3_reduce
I0403 21:42:10.525670 12535 net.cpp:91] Creating Layer inception_5b/relu_3x3_reduce
I0403 21:42:10.525689 12535 net.cpp:425] inception_5b/relu_3x3_reduce <- inception_5b/3x3_reduce
I0403 21:42:10.525713 12535 net.cpp:386] inception_5b/relu_3x3_reduce -> inception_5b/3x3_reduce (in-place)
I0403 21:42:10.525949 12535 net.cpp:141] Setting up inception_5b/relu_3x3_reduce
I0403 21:42:10.525980 12535 net.cpp:148] Top shape: 24 192 7 7 (225792)
I0403 21:42:10.526000 12535 net.cpp:156] Memory required for data: 1330660896
I0403 21:42:10.526017 12535 layer_factory.hpp:77] Creating layer inception_5b/3x3
I0403 21:42:10.526046 12535 net.cpp:91] Creating Layer inception_5b/3x3
I0403 21:42:10.526068 12535 net.cpp:425] inception_5b/3x3 <- inception_5b/3x3_reduce
I0403 21:42:10.526095 12535 net.cpp:399] inception_5b/3x3 -> inception_5b/3x3
I0403 21:42:10.534525 12535 net.cpp:141] Setting up inception_5b/3x3
I0403 21:42:10.534564 12535 net.cpp:148] Top shape: 24 384 7 7 (451584)
I0403 21:42:10.534584 12535 net.cpp:156] Memory required for data: 1332467232
I0403 21:42:10.534607 12535 layer_factory.hpp:77] Creating layer inception_5b/relu_3x3
I0403 21:42:10.534631 12535 net.cpp:91] Creating Layer inception_5b/relu_3x3
I0403 21:42:10.534649 12535 net.cpp:425] inception_5b/relu_3x3 <- inception_5b/3x3
I0403 21:42:10.534673 12535 net.cpp:386] inception_5b/relu_3x3 -> inception_5b/3x3 (in-place)
I0403 21:42:10.535032 12535 net.cpp:141] Setting up inception_5b/relu_3x3
I0403 21:42:10.535064 12535 net.cpp:148] Top shape: 24 384 7 7 (451584)
I0403 21:42:10.535082 12535 net.cpp:156] Memory required for data: 1334273568
I0403 21:42:10.535101 12535 layer_factory.hpp:77] Creating layer inception_5b/5x5_reduce
I0403 21:42:10.535152 12535 net.cpp:91] Creating Layer inception_5b/5x5_reduce
I0403 21:42:10.535176 12535 net.cpp:425] inception_5b/5x5_reduce <- inception_5a/output_inception_5a/output_0_split_2
I0403 21:42:10.535204 12535 net.cpp:399] inception_5b/5x5_reduce -> inception_5b/5x5_reduce
I0403 21:42:10.536784 12535 net.cpp:141] Setting up inception_5b/5x5_reduce
I0403 21:42:10.536818 12535 net.cpp:148] Top shape: 24 48 7 7 (56448)
I0403 21:42:10.536837 12535 net.cpp:156] Memory required for data: 1334499360
I0403 21:42:10.536859 12535 layer_factory.hpp:77] Creating layer inception_5b/relu_5x5_reduce
I0403 21:42:10.536880 12535 net.cpp:91] Creating Layer inception_5b/relu_5x5_reduce
I0403 21:42:10.536900 12535 net.cpp:425] inception_5b/relu_5x5_reduce <- inception_5b/5x5_reduce
I0403 21:42:10.536926 12535 net.cpp:386] inception_5b/relu_5x5_reduce -> inception_5b/5x5_reduce (in-place)
I0403 21:42:10.537390 12535 net.cpp:141] Setting up inception_5b/relu_5x5_reduce
I0403 21:42:10.537423 12535 net.cpp:148] Top shape: 24 48 7 7 (56448)
I0403 21:42:10.537441 12535 net.cpp:156] Memory required for data: 1334725152
I0403 21:42:10.537459 12535 layer_factory.hpp:77] Creating layer inception_5b/5x5
I0403 21:42:10.537484 12535 net.cpp:91] Creating Layer inception_5b/5x5
I0403 21:42:10.537506 12535 net.cpp:425] inception_5b/5x5 <- inception_5b/5x5_reduce
I0403 21:42:10.537529 12535 net.cpp:399] inception_5b/5x5 -> inception_5b/5x5
I0403 21:42:10.540069 12535 net.cpp:141] Setting up inception_5b/5x5
I0403 21:42:10.540102 12535 net.cpp:148] Top shape: 24 128 7 7 (150528)
I0403 21:42:10.540122 12535 net.cpp:156] Memory required for data: 1335327264
I0403 21:42:10.540145 12535 layer_factory.hpp:77] Creating layer inception_5b/relu_5x5
I0403 21:42:10.540171 12535 net.cpp:91] Creating Layer inception_5b/relu_5x5
I0403 21:42:10.540192 12535 net.cpp:425] inception_5b/relu_5x5 <- inception_5b/5x5
I0403 21:42:10.540222 12535 net.cpp:386] inception_5b/relu_5x5 -> inception_5b/5x5 (in-place)
I0403 21:42:10.540464 12535 net.cpp:141] Setting up inception_5b/relu_5x5
I0403 21:42:10.540496 12535 net.cpp:148] Top shape: 24 128 7 7 (150528)
I0403 21:42:10.540514 12535 net.cpp:156] Memory required for data: 1335929376
I0403 21:42:10.540534 12535 layer_factory.hpp:77] Creating layer inception_5b/pool
I0403 21:42:10.540557 12535 net.cpp:91] Creating Layer inception_5b/pool
I0403 21:42:10.540580 12535 net.cpp:425] inception_5b/pool <- inception_5a/output_inception_5a/output_0_split_3
I0403 21:42:10.540602 12535 net.cpp:399] inception_5b/pool -> inception_5b/pool
I0403 21:42:10.540693 12535 net.cpp:141] Setting up inception_5b/pool
I0403 21:42:10.540724 12535 net.cpp:148] Top shape: 24 832 7 7 (978432)
I0403 21:42:10.540742 12535 net.cpp:156] Memory required for data: 1339843104
I0403 21:42:10.540761 12535 layer_factory.hpp:77] Creating layer inception_5b/pool_proj
I0403 21:42:10.540788 12535 net.cpp:91] Creating Layer inception_5b/pool_proj
I0403 21:42:10.540810 12535 net.cpp:425] inception_5b/pool_proj <- inception_5b/pool
I0403 21:42:10.540838 12535 net.cpp:399] inception_5b/pool_proj -> inception_5b/pool_proj
I0403 21:42:10.543715 12535 net.cpp:141] Setting up inception_5b/pool_proj
I0403 21:42:10.543750 12535 net.cpp:148] Top shape: 24 128 7 7 (150528)
I0403 21:42:10.543768 12535 net.cpp:156] Memory required for data: 1340445216
I0403 21:42:10.543792 12535 layer_factory.hpp:77] Creating layer inception_5b/relu_pool_proj
I0403 21:42:10.543813 12535 net.cpp:91] Creating Layer inception_5b/relu_pool_proj
I0403 21:42:10.543833 12535 net.cpp:425] inception_5b/relu_pool_proj <- inception_5b/pool_proj
I0403 21:42:10.543856 12535 net.cpp:386] inception_5b/relu_pool_proj -> inception_5b/pool_proj (in-place)
I0403 21:42:10.544229 12535 net.cpp:141] Setting up inception_5b/relu_pool_proj
I0403 21:42:10.544261 12535 net.cpp:148] Top shape: 24 128 7 7 (150528)
I0403 21:42:10.544280 12535 net.cpp:156] Memory required for data: 1341047328
I0403 21:42:10.544298 12535 layer_factory.hpp:77] Creating layer inception_5b/output
I0403 21:42:10.544320 12535 net.cpp:91] Creating Layer inception_5b/output
I0403 21:42:10.544358 12535 net.cpp:425] inception_5b/output <- inception_5b/1x1
I0403 21:42:10.544379 12535 net.cpp:425] inception_5b/output <- inception_5b/3x3
I0403 21:42:10.544400 12535 net.cpp:425] inception_5b/output <- inception_5b/5x5
I0403 21:42:10.544420 12535 net.cpp:425] inception_5b/output <- inception_5b/pool_proj
I0403 21:42:10.544445 12535 net.cpp:399] inception_5b/output -> inception_5b/output
I0403 21:42:10.544507 12535 net.cpp:141] Setting up inception_5b/output
I0403 21:42:10.544539 12535 net.cpp:148] Top shape: 24 1024 7 7 (1204224)
I0403 21:42:10.544559 12535 net.cpp:156] Memory required for data: 1345864224
I0403 21:42:10.544576 12535 layer_factory.hpp:77] Creating layer pool5/7x7_s1
I0403 21:42:10.544597 12535 net.cpp:91] Creating Layer pool5/7x7_s1
I0403 21:42:10.544617 12535 net.cpp:425] pool5/7x7_s1 <- inception_5b/output
I0403 21:42:10.544638 12535 net.cpp:399] pool5/7x7_s1 -> pool5/7x7_s1
I0403 21:42:10.544906 12535 net.cpp:141] Setting up pool5/7x7_s1
I0403 21:42:10.544936 12535 net.cpp:148] Top shape: 24 1024 1 1 (24576)
I0403 21:42:10.544955 12535 net.cpp:156] Memory required for data: 1345962528
I0403 21:42:10.544973 12535 layer_factory.hpp:77] Creating layer pool5/drop_7x7_s1
I0403 21:42:10.544994 12535 net.cpp:91] Creating Layer pool5/drop_7x7_s1
I0403 21:42:10.545013 12535 net.cpp:425] pool5/drop_7x7_s1 <- pool5/7x7_s1
I0403 21:42:10.545037 12535 net.cpp:386] pool5/drop_7x7_s1 -> pool5/7x7_s1 (in-place)
I0403 21:42:10.545099 12535 net.cpp:141] Setting up pool5/drop_7x7_s1
I0403 21:42:10.545130 12535 net.cpp:148] Top shape: 24 1024 1 1 (24576)
I0403 21:42:10.545147 12535 net.cpp:156] Memory required for data: 1346060832
I0403 21:42:10.545166 12535 layer_factory.hpp:77] Creating layer loss3/classifier_plantvillage
I0403 21:42:10.545189 12535 net.cpp:91] Creating Layer loss3/classifier_plantvillage
I0403 21:42:10.545214 12535 net.cpp:425] loss3/classifier_plantvillage <- pool5/7x7_s1
I0403 21:42:10.545241 12535 net.cpp:399] loss3/classifier_plantvillage -> loss3/classifier_plantvillage
I0403 21:42:10.545768 12535 net.cpp:141] Setting up loss3/classifier_plantvillage
I0403 21:42:10.545801 12535 net.cpp:148] Top shape: 24 38 (912)
I0403 21:42:10.545819 12535 net.cpp:156] Memory required for data: 1346064480
I0403 21:42:10.545842 12535 layer_factory.hpp:77] Creating layer loss3/classifier_plantvillage_loss3/classifier_plantvillage_0_split
I0403 21:42:10.545867 12535 net.cpp:91] Creating Layer loss3/classifier_plantvillage_loss3/classifier_plantvillage_0_split
I0403 21:42:10.545888 12535 net.cpp:425] loss3/classifier_plantvillage_loss3/classifier_plantvillage_0_split <- loss3/classifier_plantvillage
I0403 21:42:10.545909 12535 net.cpp:399] loss3/classifier_plantvillage_loss3/classifier_plantvillage_0_split -> loss3/classifier_plantvillage_loss3/classifier_plantvillage_0_split_0
I0403 21:42:10.545938 12535 net.cpp:399] loss3/classifier_plantvillage_loss3/classifier_plantvillage_0_split -> loss3/classifier_plantvillage_loss3/classifier_plantvillage_0_split_1
I0403 21:42:10.545964 12535 net.cpp:399] loss3/classifier_plantvillage_loss3/classifier_plantvillage_0_split -> loss3/classifier_plantvillage_loss3/classifier_plantvillage_0_split_2
I0403 21:42:10.545989 12535 net.cpp:399] loss3/classifier_plantvillage_loss3/classifier_plantvillage_0_split -> loss3/classifier_plantvillage_loss3/classifier_plantvillage_0_split_3
I0403 21:42:10.546113 12535 net.cpp:141] Setting up loss3/classifier_plantvillage_loss3/classifier_plantvillage_0_split
I0403 21:42:10.546141 12535 net.cpp:148] Top shape: 24 38 (912)
I0403 21:42:10.546160 12535 net.cpp:148] Top shape: 24 38 (912)
I0403 21:42:10.546180 12535 net.cpp:148] Top shape: 24 38 (912)
I0403 21:42:10.546200 12535 net.cpp:148] Top shape: 24 38 (912)
I0403 21:42:10.546222 12535 net.cpp:156] Memory required for data: 1346079072
I0403 21:42:10.546241 12535 layer_factory.hpp:77] Creating layer loss1/loss
I0403 21:42:10.546268 12535 net.cpp:91] Creating Layer loss1/loss
I0403 21:42:10.546288 12535 net.cpp:425] loss1/loss <- loss1/classifier_plantvillage_loss1/classifier_plantvillage_0_split_0
I0403 21:42:10.546326 12535 net.cpp:425] loss1/loss <- label_data_1_split_0
…
