…
I0403 21:56:25.053609 13352 net.cpp:313] The NetState phase (1) differed from the phase (0) specified by a rule in layer data
I0403 21:56:25.054735 13352 net.cpp:49] Initializing net from parameters: 
state {
  phase: TEST
}
layer {
  name: "data"
  type: "Data"
  top: "data"
  top: "label"
  include {
    phase: TEST
  }
  transform_param {
    mirror: false
    crop_size: 224
    mean_file: "/home/mohanty/data/final_dataset/lmdb/color-80-20/mean.binaryproto"
  }
  data_param {
    source: "/home/mohanty/data/final_dataset/lmdb/color-80-20/test_db"
    batch_size: 24
    backend: LMDB
  }
}
layer {
  name: "conv1/7x7_s2"
  type: "Convolution"
  bottom: "data"
  top: "conv1/7x7_s2"
  param {
    lr_mult: 1
    decay_mult: 1
  }
  param {
    lr_mult: 2
    decay_mult: 0
  }
  convolution_param {
    num_output: 64
    pad: 3
    kernel_size: 7
    stride: 2
    weight_filler {
      type: "xavier"
      std: 0.1
    }
    bias_filler {
      type: "constant"
      value: 0.2
    }
  }
}
layer {
  name: "conv1/relu_7x7"
  type: "ReLU"
  bottom: "conv1/7x7_s2"
  top: "conv1/7x7_s2"
}
layer {
  name: "pool1/3x3_s2"
  type: "Pooling"
  bottom: "conv1/7x7_s2"
  top: "pool1/3x3_s2"
  pooling_param {
    pool: MAX
    kernel_size: 3
    stride: 2
  }
}
layer {
  name: "pool1/norm1"
  type: "LRN"
  bottom: "pool1/3x3_s2"
  top: "pool1/norm1"
  lrn_param {
    local_size: 5
    alpha: 0.0001
    beta: 0.75
  }
}
layer {
  name: "conv2/3x3_reduce"
  type: "Convolution"
  bottom: "pool1/norm1"
  top: "conv2/3x3_reduce"
  param {
    lr_mult: 1
    decay_mult: 1
  }
  param {
    lr_mult: 2
    decay_mult: 0
  }
  convolution_param {
    num_output: 64
    kernel_size: 1
    weight_filler {
      type: "xavier"
      std: 0.1
    }
    bias_filler {
      type: "constant"
      value: 0.2
    }
  }
}
layer {
  name: "conv2/relu_3x3_reduce"
  type: "ReLU"
  bottom: "conv2/3x3_reduce"
  top: "conv2/3x3_reduce"
}
layer {
  name: "conv2/3x3"
  type: "Convolution"
  bottom: "conv2/3x3_reduce"
  top: "conv2/3x3"
  param {
    lr_mult: 1
    decay_mult: 1
  }
  param {
    lr_mult: 2
    decay_mult: 0
  }
  convolution_param {
    num_output: 192
    pad: 1
    kernel_size: 3
    weight_filler {
      type: "xavier"
      std: 0.03
    }
    bias_filler {
      type: "constant"
      value: 0.2
    }
  }
}
layer {
  name: "conv2/relu_3x3"
  type: "ReLU"
  bottom: "conv2/3x3"
  top: "conv2/3x3"
}
layer {
  name: "conv2/norm2"
  type: "LRN"
  bottom: "conv2/3x3"
  top: "conv2/norm2"
  lrn_param {
    local_size: 5
    alpha: 0.0001
    beta: 0.75
  }
}
layer {
  name: "pool2/3x3_s2"
  type: "Pooling"
  bottom: "conv2/norm2"
  top: "pool2/3x3_s2"
  pooling_param {
    pool: MAX
    kernel_size: 3
    stride: 2
  }
}
layer {
  name: "inception_3a/1x1"
  type: "Convolution"
  bottom: "pool2/3x3_s2"
  top: "inception_3a/1x1"
  param {
    lr_mult: 1
    decay_mult: 1
  }
  param {
    lr_mult: 2
    decay_mult: 0
  }
  convolution_param {
    num_output: 64
    kernel_size: 1
    weight_filler {
      type: "xavier"
      std: 0.03
    }
    bias_filler {
      type: "constant"
      value: 0.2
    }
  }
}
layer {
  name: "inception_3a/relu_1x1"
  type: "ReLU"
  bottom: "inception_3a/1x1"
  top: "inception_3a/1x1"
}
layer {
  name: "inception_3a/3x3_reduce"
  type: "Convolution"
  bottom: "pool2/3x3_s2"
  top: "inception_3a/3x3_reduce"
  param {
    lr_mult: 1
    decay_mult: 1
  }
  param {
    lr_mult: 2
    decay_mult: 0
  }
  convolution_param {
    num_output: 96
    kernel_size: 1
    weight_filler {
      type: "xavier"
      std: 0.09
    }
    bias_filler {
      type: "constant"
      value: 0.2
    }
  }
}
layer {
  name: "inception_3a/relu_3x3_reduce"
  type: "ReLU"
  bottom: "inception_3a/3x3_reduce"
  top: "inception_3a/3x3_reduce"
}
layer {
  name: "inception_3a/3x3"
  type: "Convolution"
  bottom: "inception_3a/3x3_reduce"
  top: "inception_3a/3x3"
  param {
    lr_mult: 1
    decay_mult: 1
  }
  param {
    lr_mult: 2
    decay_mult: 0
  }
  convolution_param {
    num_output: 128
    pad: 1
    kernel_size: 3
    weight_filler {
      type: "xavier"
      std: 0.03
    }
    bias_filler {
      type: "constant"
      value: 0.2
    }
  }
}
layer {
  name: "inception_3a/relu_3x3"
  type: "ReLU"
  bottom: "inception_3a/3x3"
  top: "inception_3a/3x3"
}
layer {
  name: "inception_3a/5x5_reduce"
  type: "Convolution"
  bottom: "pool2/3x3_s2"
  top: "inception_3a/5x5_reduce"
  param {
    lr_mult: 1
    decay_mult: 1
  }
  param {
    lr_mult: 2
    decay_mult: 0
  }
  convolution_param {
    num_output: 16
    kernel_size: 1
    weight_filler {
      type: "xavier"
      std: 0.2
    }
    bias_filler {
      type: "constant"
      value: 0.2
    }
  }
}
layer {
  name: "inception_3a/relu_5x5_reduce"
  type: "ReLU"
  bottom: "inception_3a/5x5_reduce"
  top: "inception_3a/5x5_reduce"
}
layer {
  name: "inception_3a/5x5"
  type: "Convolution"
  bottom: "inception_3a/5x5_reduce"
  top: "inception_3a/5x5"
  param {
    lr_mult: 1
    decay_mult: 1
  }
  param {
    lr_mult: 2
    decay_mult: 0
  }
  convolution_param {
    num_output: 32
    pad: 2
    kernel_size: 5
    weight_filler {
      type: "xavier"
      std: 0.03
    }
    bias_filler {
      type: "constant"
      value: 0.2
    }
  }
}
layer {
  name: "inception_3a/relu_5x5"
  type: "ReLU"
  bottom: "inception_3a/5x5"
  top: "inception_3a/5x5"
}
layer {
  name: "inception_3a/pool"
  type: "Pooling"
  bottom: "pool2/3x3_s2"
  top: "inception_3a/pool"
  pooling_param {
    pool: MAX
    kernel_size: 3
    stride: 1
    pad: 1
  }
}
layer {
  name: "inception_3a/pool_proj"
  type: "Convolution"
  bottom: "inception_3a/pool"
  top: "inception_3a/pool_proj"
  param {
    lr_mult: 1
    decay_mult: 1
  }
  param {
    lr_mult: 2
    decay_mult: 0
  }
  convolution_param {
    num_output: 32
    kernel_size: 1
    weight_filler {
      type: "xavier"
      std: 0.1
    }
    bias_filler {
      type: "constant"
      value: 0.2
    }
  }
}
layer {
  name: "inception_3a/relu_pool_proj"
  type: "ReLU"
  bottom: "inception_3a/pool_proj"
  top: "inception_3a/pool_proj"
}
layer {
  name: "inception_3a/output"
  type: "Concat"
  bottom: "inception_3a/1x1"
  bottom: "inception_3a/3x3"
  bottom: "inception_3a/5x5"
  bottom: "inception_3a/pool_proj"
  top: "inception_3a/output"
}
layer {
  name: "inception_3b/1x1"
  type: "Convolution"
  bottom: "inception_3a/output"
  top: "inception_3b/1x1"
  param {
    lr_mult: 1
    decay_mult: 1
  }
  param {
    lr_mult: 2
    decay_mult: 0
  }
  convolution_param {
    num_output: 128
    kernel_size: 1
    weight_filler {
      type: "xavier"
      std: 0.03
    }
    bias_filler {
      type: "constant"
      value: 0.2
    }
  }
}
layer {
  name: "inception_3b/relu_1x1"
  type: "ReLU"
  bottom: "inception_3b/1x1"
  top: "inception_3b/1x1"
}
layer {
  name: "inception_3b/3x3_reduce"
  type: "Convolution"
  bottom: "inception_3a/output"
  top: "inception_3b/3x3_reduce"
  param {
    lr_mult: 1
    decay_mult: 1
  }
  param {
    lr_mult: 2
    decay_mult: 0
  }
  convolution_param {
    num_output: 128
    kernel_size: 1
    weight_filler {
      type: "xavier"
      std: 0.09
    }
    bias_filler {
      type: "constant"
      value: 0.2
    }
  }
}
layer {
  name: "inception_3b/relu_3x3_reduce"
  type: "ReLU"
  bottom: "inception_3b/3x3_reduce"
  top: "inception_3b/3x3_reduce"
}
layer {
  name: "inception_3b/3x3"
  type: "Convolution"
  bottom: "inception_3b/3x3_reduce"
  top: "inception_3b/3x3"
  param {
    lr_mult: 1
    decay_mult: 1
  }
  param {
    lr_mult: 2
    decay_mult: 0
  }
  convolution_param {
    num_output: 192
    pad: 1
    kernel_size: 3
    weight_filler {
      type: "xavier"
      std: 0.03
    }
    bias_filler {
      type: "constant"
      value: 0.2
    }
  }
}
layer {
  name: "inception_3b/relu_3x3"
  type: "ReLU"
  bottom: "inception_3b/3x3"
  top: "inception_3b/3x3"
}
layer {
  name: "inception_3b/5x5_reduce"
  type: "Convolution"
  bottom: "inception_3a/output"
  top: "inception_3b/5x5_reduce"
  param {
    lr_mult: 1
    decay_mult: 1
  }
  param {
    lr_mult: 2
    decay_mult: 0
  }
  convolution_param {
    num_output: 32
    kernel_size: 1
    weight_filler {
      type: "xavier"
      std: 0.2
    }
    bias_filler {
      type: "constant"
      value: 0.2
    }
  }
}
layer {
  name: "inception_3b/relu_5x5_reduce"
  type: "ReLU"
  bottom: "inception_3b/5x5_reduce"
  top: "inception_3b/5x5_reduce"
}
layer {
  name: "inception_3b/5x5"
  type: "Convolution"
  bottom: "inception_3b/5x5_reduce"
  top: "inception_3b/5x5"
  param {
    lr_mult: 1
    decay_mult: 1
  }
  param {
    lr_mult: 2
    decay_mult: 0
  }
  convolution_param {
    num_output: 96
    pad: 2
    kernel_size: 5
    weight_filler {
      type: "xavier"
      std: 0.03
    }
    bias_filler {
      type: "constant"
      value: 0.2
    }
  }
}
layer {
  name: "inception_3b/relu_5x5"
  type: "ReLU"
  bottom: "inception_3b/5x5"
  top: "inception_3b/5x5"
}
layer {
  name: "inception_3b/pool"
  type: "Pooling"
  bottom: "inception_3a/output"
  top: "inception_3b/pool"
  pooling_param {
    pool: MAX
    kernel_size: 3
    stride: 1
    pad: 1
  }
}
layer {
  name: "inception_3b/pool_proj"
  type: "Convolution"
  bottom: "inception_3b/pool"
  top: "inception_3b/pool_proj"
  param {
    lr_mult: 1
    decay_mult: 1
  }
  param {
    lr_mult: 2
    decay_mult: 0
  }
  convolution_param {
    num_output: 64
    kernel_size: 1
    weight_filler {
      type: "xavier"
      std: 0.1
    }
    bias_filler {
      type: "constant"
      value: 0.2
    }
  }
}
layer {
  name: "inception_3b/relu_pool_proj"
  type: "ReLU"
  bottom: "inception_3b/pool_proj"
  top: "inception_3b/pool_proj"
}
layer {
  name: "inception_3b/output"
  type: "Concat"
  bottom: "inception_3b/1x1"
  bottom: "inception_3b/3x3"
  bottom: "inception_3b/5x5"
  bottom: "inception_3b/pool_proj"
  top: "inception_3b/output"
}
layer {
  name: "pool3/3x3_s2"
  type: "Pooling"
  bottom: "inception_3b/output"
  top: "pool3/3x3_s2"
  pooling_param {
    pool: MAX
    kernel_size: 3
    stride: 2
  }
}
layer {
  name: "inception_4a/1x1"
  type: "Convolution"
  bottom: "pool3/3x3_s2"
  top: "inception_4a/1x1"
  param {
    lr_mult: 1
    decay_mult: 1
  }
  param {
    lr_mult: 2
    decay_mult: 0
  }
  convolution_param {
    num_output: 192
    kernel_size: 1
    weight_filler {
      type: "xavier"
      std: 0.03
    }
    bias_filler {
      type: "constant"
      value: 0.2
    }
  }
}
layer {
  name: "inception_4a/relu_1x1"
  type: "ReLU"
  bottom: "inception_4a/1x1"
  top: "inception_4a/1x1"
}
layer {
  name: "inception_4a/3x3_reduce"
  type: "Convolution"
  bottom: "pool3/3x3_s2"
  top: "inception_4a/3x3_reduce"
  param {
    lr_mult: 1
    decay_mult: 1
  }
  param {
    lr_mult: 2
    decay_mult: 0
  }
  convolution_param {
    num_output: 96
    kernel_size: 1
    weight_filler {
      type: "xavier"
      std: 0.09
    }
    bias_filler {
      type: "constant"
      value: 0.2
    }
  }
}
layer {
  name: "inception_4a/relu_3x3_reduce"
  type: "ReLU"
  bottom: "inception_4a/3x3_reduce"
  top: "inception_4a/3x3_reduce"
}
layer {
  name: "inception_4a/3x3"
  type: "Convolution"
  bottom: "inception_4a/3x3_reduce"
  top: "inception_4a/3x3"
  param {
    lr_mult: 1
    decay_mult: 1
  }
  param {
    lr_mult: 2
    decay_mult: 0
  }
  convolution_param {
    num_output: 208
    pad: 1
    kernel_size: 3
    weight_filler {
      type: "xavier"
      std: 0.03
    }
    bias_filler {
      type: "constant"
      value: 0.2
    }
  }
}
layer {
  name: "inception_4a/relu_3x3"
  type: "ReLU"
  bottom: "inception_4a/3x3"
  top: "inception_4a/3x3"
}
layer {
  name: "inception_4a/5x5_reduce"
  type: "Convolution"
  bottom: "pool3/3x3_s2"
  top: "inception_4a/5x5_reduce"
  param {
    lr_mult: 1
    decay_mult: 1
  }
  param {
    lr_mult: 2
    decay_mult: 0
  }
  convolution_param {
    num_output: 16
    kernel_size: 1
    weight_filler {
      type: "xavier"
      std: 0.2
    }
    bias_filler {
      type: "constant"
      value: 0.2
    }
  }
}
layer {
  name: "inception_4a/relu_5x5_reduce"
  type: "ReLU"
  bottom: "inception_4a/5x5_reduce"
  top: "inception_4a/5x5_reduce"
}
layer {
  name: "inception_4a/5x5"
  type: "Convolution"
  bottom: "inception_4a/5x5_reduce"
  top: "inception_4a/5x5"
  param {
    lr_mult: 1
    decay_mult: 1
  }
  param {
    lr_mult: 2
    decay_mult: 0
  }
  convolution_param {
    num_output: 48
    pad: 2
    kernel_size: 5
    weight_filler {
      type: "xavier"
      std: 0.03
    }
    bias_filler {
      type: "constant"
      value: 0.2
    }
  }
}
layer {
  name: "inception_4a/relu_5x5"
  type: "ReLU"
  bottom: "inception_4a/5x5"
  top: "inception_4a/5x5"
}
layer {
  name: "inception_4a/pool"
  type: "Pooling"
  bottom: "pool3/3x3_s2"
  top: "inception_4a/pool"
  pooling_param {
    pool: MAX
    kernel_size: 3
    stride: 1
    pad: 1
  }
}
layer {
  name: "inception_4a/pool_proj"
  type: "Convolution"
  bottom: "inception_4a/pool"
  top: "inception_4a/pool_proj"
  param {
    lr_mult: 1
    decay_mult: 1
  }
  param {
    lr_mult: 2
    decay_mult: 0
  }
  convolution_param {
    num_output: 64
    kernel_size: 1
    weight_filler {
      type: "xavier"
      std: 0.1
    }
    bias_filler {
      type: "constant"
      value: 0.2
    }
  }
}
layer {
  name: "inception_4a/relu_pool_proj"
  type: "ReLU"
  bottom: "inception_4a/pool_proj"
  top: "inception_4a/pool_proj"
}
layer {
  name: "inception_4a/output"
  type: "Concat"
  bottom: "inception_4a/1x1"
  bottom: "inception_4a/3x3"
  bottom: "inception_4a/5x5"
  bottom: "inception_4a/pool_proj"
  top: "inception_4a/output"
}
layer {
  name: "loss1/ave_pool"
  type: "Pooling"
  bottom: "inception_4a/output"
  top: "loss1/ave_pool"
  pooling_param {
    pool: AVE
    kernel_size: 5
    stride: 3
  }
}
layer {
  name: "loss1/conv"
  type: "Convolution"
  bottom: "loss1/ave_pool"
  top: "loss1/conv"
  param {
    lr_mult: 1
    decay_mult: 1
  }
  param {
    lr_mult: 2
    decay_mult: 0
  }
  convolution_param {
    num_output: 128
    kernel_size: 1
    weight_filler {
      type: "xavier"
      std: 0.08
    }
    bias_filler {
      type: "constant"
      value: 0.2
    }
  }
}
layer {
  name: "loss1/relu_conv"
  type: "ReLU"
  bottom: "loss1/conv"
  top: "loss1/conv"
}
layer {
  name: "loss1/fc"
  type: "InnerProduct"
  bottom: "loss1/conv"
  top: "loss1/fc"
  param {
    lr_mult: 1
    decay_mult: 1
  }
  param {
    lr_mult: 2
    decay_mult: 0
  }
  inner_product_param {
    num_output: 1024
    weight_filler {
      type: "xavier"
      std: 0.02
    }
    bias_filler {
      type: "constant"
      value: 0.2
    }
  }
}
layer {
  name: "loss1/relu_fc"
  type: "ReLU"
  bottom: "loss1/fc"
  top: "loss1/fc"
}
layer {
  name: "loss1/drop_fc"
  type: "Dropout"
  bottom: "loss1/fc"
  top: "loss1/fc"
  dropout_param {
    dropout_ratio: 0.7
  }
}
layer {
  name: "loss1/classifier_plantvillage"
  type: "InnerProduct"
  bottom: "loss1/fc"
  top: "loss1/classifier_plantvillage"
  param {
    lr_mult: 1
    decay_mult: 1
  }
  param {
    lr_mult: 2
    decay_mult: 0
  }
  inner_product_param {
    num_output: 38
    weight_filler {
      type: "xavier"
      std: 0.0009765625
    }
    bias_filler {
      type: "constant"
      value: 0
    }
  }
}
layer {
  name: "inception_4b/1x1"
  type: "Convolution"
  bottom: "inception_4a/output"
  top: "inception_4b/1x1"
  param {
    lr_mult: 1
    decay_mult: 1
  }
  param {
    lr_mult: 2
    decay_mult: 0
  }
  convolution_param {
    num_output: 160
    kernel_size: 1
    weight_filler {
      type: "xavier"
      std: 0.03
    }
    bias_filler {
      type: "constant"
      value: 0.2
    }
  }
}
layer {
  name: "inception_4b/relu_1x1"
  type: "ReLU"
  bottom: "inception_4b/1x1"
  top: "inception_4b/1x1"
}
layer {
  name: "inception_4b/3x3_reduce"
  type: "Convolution"
  bottom: "inception_4a/output"
  top: "inception_4b/3x3_reduce"
  param {
    lr_mult: 1
    decay_mult: 1
  }
  param {
    lr_mult: 2
    decay_mult: 0
  }
  convolution_param {
    num_output: 112
    kernel_size: 1
    weight_filler {
      type: "xavier"
      std: 0.09
    }
    bias_filler {
      type: "constant"
      value: 0.2
    }
  }
}
layer {
  name: "inception_4b/relu_3x3_reduce"
  type: "ReLU"
  bottom: "inception_4b/3x3_reduce"
  top: "inception_4b/3x3_reduce"
}
layer {
  name: "inception_4b/3x3"
  type: "Convolution"
  bottom: "inception_4b/3x3_reduce"
  top: "inception_4b/3x3"
  param {
    lr_mult: 1
    decay_mult: 1
  }
  param {
    lr_mult: 2
    decay_mult: 0
  }
  convolution_param {
    num_output: 224
    pad: 1
    kernel_size: 3
    weight_filler {
      type: "xavier"
      std: 0.03
    }
    bias_filler {
      type: "constant"
      value: 0.2
    }
  }
}
layer {
  name: "inception_4b/relu_3x3"
  type: "ReLU"
  bottom: "inception_4b/3x3"
  top: "inception_4b/3x3"
}
layer {
  name: "inception_4b/5x5_reduce"
  type: "Convolution"
  bottom: "inception_4a/output"
  top: "inception_4b/5x5_reduce"
  param {
    lr_mult: 1
    decay_mult: 1
  }
  param {
    lr_mult: 2
    decay_mult: 0
  }
  convolution_param {
    num_output: 24
    kernel_size: 1
    weight_filler {
      type: "xavier"
      std: 0.2
    }
    bias_filler {
      type: "constant"
      value: 0.2
    }
  }
}
layer {
  name: "inception_4b/relu_5x5_reduce"
  type: "ReLU"
  bottom: "inception_4b/5x5_reduce"
  top: "inception_4b/5x5_reduce"
}
layer {
  name: "inception_4b/5x5"
  type: "Convolution"
  bottom: "inception_4b/5x5_reduce"
  top: "inception_4b/5x5"
  param {
    lr_mult: 1
    decay_mult: 1
  }
  param {
    lr_mult: 2
    decay_mult: 0
  }
  convolution_param {
    num_output: 64
    pad: 2
    kernel_size: 5
    weight_filler {
      type: "xavier"
      std: 0.03
    }
    bias_filler {
      type: "constant"
      value: 0.2
    }
  }
}
layer {
  name: "inception_4b/relu_5x5"
  type: "ReLU"
  bottom: "inception_4b/5x5"
  top: "inception_4b/5x5"
}
layer {
  name: "inception_4b/pool"
  type: "Pooling"
  bottom: "inception_4a/output"
  top: "inception_4b/pool"
  pooling_param {
    pool: MAX
    kernel_size: 3
    stride: 1
    pad: 1
  }
}
layer {
  name: "inception_4b/pool_proj"
  type: "Convolution"
  bottom: "inception_4b/pool"
  top: "inception_4b/pool_proj"
  param {
    lr_mult: 1
    decay_mult: 1
  }
  param {
    lr_mult: 2
    decay_mult: 0
  }
  convolution_param {
    num_output: 64
    kernel_size: 1
    weight_filler {
      type: "xavier"
      std: 0.1
    }
    bias_filler {
      type: "constant"
      value: 0.2
    }
  }
}
layer {
  name: "inception_4b/relu_pool_proj"
  type: "ReLU"
  bottom: "inception_4b/pool_proj"
  top: "inception_4b/pool_proj"
}
layer {
  name: "inception_4b/output"
  type: "Concat"
  bottom: "inception_4b/1x1"
  bottom: "inception_4b/3x3"
  bottom: "inception_4b/5x5"
  bottom: "inception_4b/pool_proj"
  top: "inception_4b/output"
}
layer {
  name: "inception_4c/1x1"
  type: "Convolution"
  bottom: "inception_4b/output"
  top: "inception_4c/1x1"
  param {
    lr_mult: 1
    decay_mult: 1
  }
  param {
    lr_mult: 2
    decay_mult: 0
  }
  convolution_param {
    num_output: 128
    kernel_size: 1
    weight_filler {
      type: "xavier"
      std: 0.03
    }
    bias_filler {
      type: "constant"
      value: 0.2
    }
  }
}
layer {
  name: "inception_4c/relu_1x1"
  type: "ReLU"
  bottom: "inception_4c/1x1"
  top: "inception_4c/1x1"
}
layer {
  name: "inception_4c/3x3_reduce"
  type: "Convolution"
  bottom: "inception_4b/output"
  top: "inception_4c/3x3_reduce"
  param {
    lr_mult: 1
    decay_mult: 1
  }
  param {
    lr_mult: 2
    decay_mult: 0
  }
  convolution_param {
    num_output: 128
    kernel_size: 1
    weight_filler {
      type: "xavier"
      std: 0.09
    }
    bias_filler {
      type: "constant"
      value: 0.2
    }
  }
}
layer {
  name: "inception_4c/relu_3x3_reduce"
  type: "ReLU"
  bottom: "inception_4c/3x3_reduce"
  top: "inception_4c/3x3_reduce"
}
layer {
  name: "inception_4c/3x3"
  type: "Convolution"
  bottom: "inception_4c/3x3_reduce"
  top: "inception_4c/3x3"
  param {
    lr_mult: 1
    decay_mult: 1
  }
  param {
    lr_mult: 2
    decay_mult: 0
  }
  convolution_param {
    num_output: 256
    pad: 1
    kernel_size: 3
    weight_filler {
      type: "xavier"
      std: 0.03
    }
    bias_filler {
      type: "constant"
      value: 0.2
    }
  }
}
layer {
  name: "inception_4c/relu_3x3"
  type: "ReLU"
  bottom: "inception_4c/3x3"
  top: "inception_4c/3x3"
}
layer {
  name: "inception_4c/5x5_reduce"
  type: "Convolution"
  bottom: "inception_4b/output"
  top: "inception_4c/5x5_reduce"
  param {
    lr_mult: 1
    decay_mult: 1
  }
  param {
    lr_mult: 2
    decay_mult: 0
  }
  convolution_param {
    num_output: 24
    kernel_size: 1
    weight_filler {
      type: "xavier"
      std: 0.2
    }
    bias_filler {
      type: "constant"
      value: 0.2
    }
  }
}
layer {
  name: "inception_4c/relu_5x5_reduce"
  type: "ReLU"
  bottom: "inception_4c/5x5_reduce"
  top: "inception_4c/5x5_reduce"
}
layer {
  name: "inception_4c/5x5"
  type: "Convolution"
  bottom: "inception_4c/5x5_reduce"
  top: "inception_4c/5x5"
  param {
    lr_mult: 1
    decay_mult: 1
  }
  param {
    lr_mult: 2
    decay_mult: 0
  }
  convolution_param {
    num_output: 64
    pad: 2
    kernel_size: 5
    weight_filler {
      type: "xavier"
      std: 0.03
    }
    bias_filler {
      type: "constant"
      value: 0.2
    }
  }
}
layer {
  name: "inception_4c/relu_5x5"
  type: "ReLU"
  bottom: "inception_4c/5x5"
  top: "inception_4c/5x5"
}
layer {
  name: "inception_4c/pool"
  type: "Pooling"
  bottom: "inception_4b/output"
  top: "inception_4c/pool"
  pooling_param {
    pool: MAX
    kernel_size: 3
    stride: 1
    pad: 1
  }
}
layer {
  name: "inception_4c/pool_proj"
  type: "Convolution"
  bottom: "inception_4c/pool"
  top: "inception_4c/pool_proj"
  param {
    lr_mult: 1
    decay_mult: 1
  }
  param {
    lr_mult: 2
    decay_mult: 0
  }
  convolution_param {
    num_output: 64
    kernel_size: 1
    weight_filler {
      type: "xavier"
      std: 0.1
    }
    bias_filler {
      type: "constant"
      value: 0.2
    }
  }
}
layer {
  name: "inception_4c/relu_pool_proj"
  type: "ReLU"
  bottom: "inception_4c/pool_proj"
  top: "inception_4c/pool_proj"
}
layer {
  name: "inception_4c/output"
  type: "Concat"
  bottom: "inception_4c/1x1"
  bottom: "inception_4c/3x3"
  bottom: "inception_4c/5x5"
  bottom: "inception_4c/pool_proj"
  top: "inception_4c/output"
}
layer {
  name: "inception_4d/1x1"
  type: "Convolution"
  bottom: "inception_4c/output"
  top: "inception_4d/1x1"
  param {
    lr_mult: 1
    decay_mult: 1
  }
  param {
    lr_mult: 2
    decay_mult: 0
  }
  convolution_param {
    num_output: 112
    kernel_size: 1
    weight_filler {
      type: "xavier"
      std: 0.03
    }
    bias_filler {
      type: "constant"
      value: 0.2
    }
  }
}
layer {
  name: "inception_4d/relu_1x1"
  type: "ReLU"
  bottom: "inception_4d/1x1"
  top: "inception_4d/1x1"
}
layer {
  name: "inception_4d/3x3_reduce"
  type: "Convolution"
  bottom: "inception_4c/output"
  top: "inception_4d/3x3_reduce"
  param {
    lr_mult: 1
    decay_mult: 1
  }
  param {
    lr_mult: 2
    decay_mult: 0
  }
  convolution_param {
    num_output: 144
    kernel_size: 1
    weight_filler {
      type: "xavier"
      std: 0.09
    }
    bias_filler {
      type: "constant"
      value: 0.2
    }
  }
}
layer {
  name: "inception_4d/relu_3x3_reduce"
  type: "ReLU"
  bottom: "inception_4d/3x3_reduce"
  top: "inception_4d/3x3_reduce"
}
layer {
  name: "inception_4d/3x3"
  type: "Convolution"
  bottom: "inception_4d/3x3_reduce"
  top: "inception_4d/3x3"
  param {
    lr_mult: 1
    decay_mult: 1
  }
  param {
    lr_mult: 2
    decay_mult: 0
  }
  convolution_param {
    num_output: 288
    pad: 1
    kernel_size: 3
    weight_filler {
      type: "xavier"
      std: 0.03
    }
    bias_filler {
      type: "constant"
      value: 0.2
    }
  }
}
layer {
  name: "inception_4d/relu_3x3"
  type: "ReLU"
  bottom: "inception_4d/3x3"
  top: "inception_4d/3x3"
}
layer {
  name: "inception_4d/5x5_reduce"
  type: "Convolution"
  bottom: "inception_4c/output"
  top: "inception_4d/5x5_reduce"
  param {
    lr_mult: 1
    decay_mult: 1
  }
  param {
    lr_mult: 2
    decay_mult: 0
  }
  convolution_param {
    num_output: 32
    kernel_size: 1
    weight_filler {
      type: "xavier"
      std: 0.2
    }
    bias_filler {
      type: "constant"
      value: 0.2
    }
  }
}
layer {
  name: "inception_4d/relu_5x5_reduce"
  type: "ReLU"
  bottom: "inception_4d/5x5_reduce"
  top: "inception_4d/5x5_reduce"
}
layer {
  name: "inception_4d/5x5"
  type: "Convolution"
  bottom: "inception_4d/5x5_reduce"
  top: "inception_4d/5x5"
  param {
    lr_mult: 1
    decay_mult: 1
  }
  param {
    lr_mult: 2
    decay_mult: 0
  }
  convolution_param {
    num_output: 64
    pad: 2
    kernel_size: 5
    weight_filler {
      type: "xavier"
      std: 0.03
    }
    bias_filler {
      type: "constant"
      value: 0.2
    }
  }
}
layer {
  name: "inception_4d/relu_5x5"
  type: "ReLU"
  bottom: "inception_4d/5x5"
  top: "inception_4d/5x5"
}
layer {
  name: "inception_4d/pool"
  type: "Pooling"
  bottom: "inception_4c/output"
  top: "inception_4d/pool"
  pooling_param {
    pool: MAX
    kernel_size: 3
    stride: 1
    pad: 1
  }
}
layer {
  name: "inception_4d/pool_proj"
  type: "Convolution"
  bottom: "inception_4d/pool"
  top: "inception_4d/pool_proj"
  param {
    lr_mult: 1
    decay_mult: 1
  }
  param {
    lr_mult: 2
    decay_mult: 0
  }
  convolution_param {
    num_output: 64
    kernel_size: 1
    weight_filler {
      type: "xavier"
      std: 0.1
    }
    bias_filler {
      type: "constant"
      value: 0.2
    }
  }
}
layer {
  name: "inception_4d/relu_pool_proj"
  type: "ReLU"
  bottom: "inception_4d/pool_proj"
  top: "inception_4d/pool_proj"
}
layer {
  name: "inception_4d/output"
  type: "Concat"
  bottom: "inception_4d/1x1"
  bottom: "inception_4d/3x3"
  bottom: "inception_4d/5x5"
  bottom: "inception_4d/pool_proj"
  top: "inception_4d/output"
}
layer {
  name: "loss2/ave_pool"
  type: "Pooling"
  bottom: "inception_4d/output"
  top: "loss2/ave_pool"
  pooling_param {
    pool: AVE
    kernel_size: 5
    stride: 3
  }
}
layer {
  name: "loss2/conv"
  type: "Convolution"
  bottom: "loss2/ave_pool"
  top: "loss2/conv"
  param {
    lr_mult: 1
    decay_mult: 1
  }
  param {
    lr_mult: 2
    decay_mult: 0
  }
  convolution_param {
    num_output: 128
    kernel_size: 1
    weight_filler {
      type: "xavier"
      std: 0.08
    }
    bias_filler {
      type: "constant"
      value: 0.2
    }
  }
}
layer {
  name: "loss2/relu_conv"
  type: "ReLU"
  bottom: "loss2/conv"
  top: "loss2/conv"
}
layer {
  name: "loss2/fc"
  type: "InnerProduct"
  bottom: "loss2/conv"
  top: "loss2/fc"
  param {
    lr_mult: 1
    decay_mult: 1
  }
  param {
    lr_mult: 2
    decay_mult: 0
  }
  inner_product_param {
    num_output: 1024
    weight_filler {
      type: "xavier"
      std: 0.02
    }
    bias_filler {
      type: "constant"
      value: 0.2
    }
  }
}
layer {
  name: "loss2/relu_fc"
  type: "ReLU"
  bottom: "loss2/fc"
  top: "loss2/fc"
}
layer {
  name: "loss2/drop_fc"
  type: "Dropout"
  bottom: "loss2/fc"
  top: "loss2/fc"
  dropout_param {
    dropout_ratio: 0.7
  }
}
layer {
  name: "loss2/classifier_plantvillage"
  type: "InnerProduct"
  bottom: "loss2/fc"
  top: "loss2/classifier_plantvillage"
  param {
    lr_mult: 1
    decay_mult: 1
  }
  param {
    lr_mult: 2
    decay_mult: 0
  }
  inner_product_param {
    num_output: 38
    weight_filler {
      type: "xavier"
      std: 0.0009765625
    }
    bias_filler {
      type: "constant"
      value: 0
    }
  }
}
layer {
  name: "inception_4e/1x1"
  type: "Convolution"
  bottom: "inception_4d/output"
  top: "inception_4e/1x1"
  param {
    lr_mult: 1
    decay_mult: 1
  }
  param {
    lr_mult: 2
    decay_mult: 0
  }
  convolution_param {
    num_output: 256
    kernel_size: 1
    weight_filler {
      type: "xavier"
      std: 0.03
    }
    bias_filler {
      type: "constant"
      value: 0.2
    }
  }
}
layer {
  name: "inception_4e/relu_1x1"
  type: "ReLU"
  bottom: "inception_4e/1x1"
  top: "inception_4e/1x1"
}
layer {
  name: "inception_4e/3x3_reduce"
  type: "Convolution"
  bottom: "inception_4d/output"
  top: "inception_4e/3x3_reduce"
  param {
    lr_mult: 1
    decay_mult: 1
  }
  param {
    lr_mult: 2
    decay_mult: 0
  }
  convolution_param {
    num_output: 160
    kernel_size: 1
    weight_filler {
      type: "xavier"
      std: 0.09
    }
    bias_filler {
      type: "constant"
      value: 0.2
    }
  }
}
layer {
  name: "inception_4e/relu_3x3_reduce"
  type: "ReLU"
  bottom: "inception_4e/3x3_reduce"
  top: "inception_4e/3x3_reduce"
}
layer {
  name: "inception_4e/3x3"
  type: "Convolution"
  bottom: "inception_4e/3x3_reduce"
  top: "inception_4e/3x3"
  param {
    lr_mult: 1
    decay_mult: 1
  }
  param {
    lr_mult: 2
    decay_mult: 0
  }
  convolution_param {
    num_output: 320
    pad: 1
    kernel_size: 3
    weight_filler {
      type: "xavier"
      std: 0.03
    }
    bias_filler {
      type: "constant"
      value: 0.2
    }
  }
}
layer {
  name: "inception_4e/relu_3x3"
  type: "ReLU"
  bottom: "inception_4e/3x3"
  top: "inception_4e/3x3"
}
layer {
  name: "inception_4e/5x5_reduce"
  type: "Convolution"
  bottom: "inception_4d/output"
  top: "inception_4e/5x5_reduce"
  param {
    lr_mult: 1
    decay_mult: 1
  }
  param {
    lr_mult: 2
    decay_mult: 0
  }
  convolution_param {
    num_output: 32
    kernel_size: 1
    weight_filler {
      type: "xavier"
      std: 0.2
    }
    bias_filler {
      type: "constant"
      value: 0.2
    }
  }
}
layer {
  name: "inception_4e/relu_5x5_reduce"
  type: "ReLU"
  bottom: "inception_4e/5x5_reduce"
  top: "inception_4e/5x5_reduce"
}
layer {
  name: "inception_4e/5x5"
  type: "Convolution"
  bottom: "inception_4e/5x5_reduce"
  top: "inception_4e/5x5"
  p
I0403 21:56:25.057013 13352 layer_factory.hpp:77] Creating layer data
I0403 21:56:25.057622 13352 net.cpp:91] Creating Layer data
I0403 21:56:25.057653 13352 net.cpp:399] data -> data
I0403 21:56:25.057706 13352 net.cpp:399] data -> label
I0403 21:56:25.057742 13352 data_transformer.cpp:25] Loading mean file from: /home/mohanty/data/final_dataset/lmdb/color-80-20/mean.binaryproto
I0403 21:56:25.058871 13354 db_lmdb.cpp:38] Opened lmdb /home/mohanty/data/final_dataset/lmdb/color-80-20/test_db
I0403 21:56:25.070863 13352 data_layer.cpp:41] output data size: 24,3,224,224
I0403 21:56:25.097363 13352 net.cpp:141] Setting up data
I0403 21:56:25.097455 13352 net.cpp:148] Top shape: 24 3 224 224 (3612672)
I0403 21:56:25.097477 13352 net.cpp:148] Top shape: 24 (24)
I0403 21:56:25.097492 13352 net.cpp:156] Memory required for data: 14450784
I0403 21:56:25.097519 13352 layer_factory.hpp:77] Creating layer label_data_1_split
I0403 21:56:25.097545 13352 net.cpp:91] Creating Layer label_data_1_split
I0403 21:56:25.097563 13352 net.cpp:425] label_data_1_split <- label
I0403 21:56:25.097594 13352 net.cpp:399] label_data_1_split -> label_data_1_split_0
I0403 21:56:25.097621 13352 net.cpp:399] label_data_1_split -> label_data_1_split_1
I0403 21:56:25.097640 13352 net.cpp:399] label_data_1_split -> label_data_1_split_2
I0403 21:56:25.097661 13352 net.cpp:399] label_data_1_split -> label_data_1_split_3
I0403 21:56:25.097679 13352 net.cpp:399] label_data_1_split -> label_data_1_split_4
I0403 21:56:25.097697 13352 net.cpp:399] label_data_1_split -> label_data_1_split_5
I0403 21:56:25.097717 13352 net.cpp:399] label_data_1_split -> label_data_1_split_6
I0403 21:56:25.097735 13352 net.cpp:399] label_data_1_split -> label_data_1_split_7
I0403 21:56:25.097754 13352 net.cpp:399] label_data_1_split -> label_data_1_split_8
I0403 21:56:25.097771 13352 net.cpp:399] label_data_1_split -> label_data_1_split_9
I0403 21:56:25.097882 13352 net.cpp:141] Setting up label_data_1_split
I0403 21:56:25.097904 13352 net.cpp:148] Top shape: 24 (24)
I0403 21:56:25.097921 13352 net.cpp:148] Top shape: 24 (24)
I0403 21:56:25.097937 13352 net.cpp:148] Top shape: 24 (24)
I0403 21:56:25.097952 13352 net.cpp:148] Top shape: 24 (24)
I0403 21:56:25.097967 13352 net.cpp:148] Top shape: 24 (24)
I0403 21:56:25.097982 13352 net.cpp:148] Top shape: 24 (24)
I0403 21:56:25.097998 13352 net.cpp:148] Top shape: 24 (24)
I0403 21:56:25.098013 13352 net.cpp:148] Top shape: 24 (24)
I0403 21:56:25.098029 13352 net.cpp:148] Top shape: 24 (24)
I0403 21:56:25.098047 13352 net.cpp:148] Top shape: 24 (24)
I0403 21:56:25.098090 13352 net.cpp:156] Memory required for data: 14451744
I0403 21:56:25.098109 13352 layer_factory.hpp:77] Creating layer conv1/7x7_s2
I0403 21:56:25.098140 13352 net.cpp:91] Creating Layer conv1/7x7_s2
I0403 21:56:25.098158 13352 net.cpp:425] conv1/7x7_s2 <- data
I0403 21:56:25.098177 13352 net.cpp:399] conv1/7x7_s2 -> conv1/7x7_s2
I0403 21:56:25.242873 13352 net.cpp:141] Setting up conv1/7x7_s2
I0403 21:56:25.242980 13352 net.cpp:148] Top shape: 24 64 112 112 (19267584)
I0403 21:56:25.242995 13352 net.cpp:156] Memory required for data: 91522080
I0403 21:56:25.243026 13352 layer_factory.hpp:77] Creating layer conv1/relu_7x7
I0403 21:56:25.243052 13352 net.cpp:91] Creating Layer conv1/relu_7x7
I0403 21:56:25.243072 13352 net.cpp:425] conv1/relu_7x7 <- conv1/7x7_s2
I0403 21:56:25.243089 13352 net.cpp:386] conv1/relu_7x7 -> conv1/7x7_s2 (in-place)
I0403 21:56:25.243336 13352 net.cpp:141] Setting up conv1/relu_7x7
I0403 21:56:25.243362 13352 net.cpp:148] Top shape: 24 64 112 112 (19267584)
I0403 21:56:25.243377 13352 net.cpp:156] Memory required for data: 168592416
I0403 21:56:25.243392 13352 layer_factory.hpp:77] Creating layer pool1/3x3_s2
I0403 21:56:25.243417 13352 net.cpp:91] Creating Layer pool1/3x3_s2
I0403 21:56:25.243435 13352 net.cpp:425] pool1/3x3_s2 <- conv1/7x7_s2
I0403 21:56:25.243453 13352 net.cpp:399] pool1/3x3_s2 -> pool1/3x3_s2
I0403 21:56:25.243523 13352 net.cpp:141] Setting up pool1/3x3_s2
I0403 21:56:25.243547 13352 net.cpp:148] Top shape: 24 64 56 56 (4816896)
I0403 21:56:25.243561 13352 net.cpp:156] Memory required for data: 187860000
I0403 21:56:25.243576 13352 layer_factory.hpp:77] Creating layer pool1/norm1
I0403 21:56:25.243599 13352 net.cpp:91] Creating Layer pool1/norm1
I0403 21:56:25.243618 13352 net.cpp:425] pool1/norm1 <- pool1/3x3_s2
I0403 21:56:25.243633 13352 net.cpp:399] pool1/norm1 -> pool1/norm1
I0403 21:56:25.243903 13352 net.cpp:141] Setting up pool1/norm1
I0403 21:56:25.243929 13352 net.cpp:148] Top shape: 24 64 56 56 (4816896)
I0403 21:56:25.243944 13352 net.cpp:156] Memory required for data: 207127584
I0403 21:56:25.243959 13352 layer_factory.hpp:77] Creating layer conv2/3x3_reduce
I0403 21:56:25.243983 13352 net.cpp:91] Creating Layer conv2/3x3_reduce
I0403 21:56:25.243999 13352 net.cpp:425] conv2/3x3_reduce <- pool1/norm1
I0403 21:56:25.244017 13352 net.cpp:399] conv2/3x3_reduce -> conv2/3x3_reduce
I0403 21:56:25.245316 13352 net.cpp:141] Setting up conv2/3x3_reduce
I0403 21:56:25.245344 13352 net.cpp:148] Top shape: 24 64 56 56 (4816896)
I0403 21:56:25.245360 13352 net.cpp:156] Memory required for data: 226395168
I0403 21:56:25.245381 13352 layer_factory.hpp:77] Creating layer conv2/relu_3x3_reduce
I0403 21:56:25.245399 13352 net.cpp:91] Creating Layer conv2/relu_3x3_reduce
I0403 21:56:25.245415 13352 net.cpp:425] conv2/relu_3x3_reduce <- conv2/3x3_reduce
I0403 21:56:25.245432 13352 net.cpp:386] conv2/relu_3x3_reduce -> conv2/3x3_reduce (in-place)
I0403 21:56:25.245676 13352 net.cpp:141] Setting up conv2/relu_3x3_reduce
I0403 21:56:25.245702 13352 net.cpp:148] Top shape: 24 64 56 56 (4816896)
I0403 21:56:25.245715 13352 net.cpp:156] Memory required for data: 245662752
I0403 21:56:25.245731 13352 layer_factory.hpp:77] Creating layer conv2/3x3
I0403 21:56:25.245753 13352 net.cpp:91] Creating Layer conv2/3x3
I0403 21:56:25.245769 13352 net.cpp:425] conv2/3x3 <- conv2/3x3_reduce
I0403 21:56:25.245786 13352 net.cpp:399] conv2/3x3 -> conv2/3x3
I0403 21:56:25.248008 13352 net.cpp:141] Setting up conv2/3x3
I0403 21:56:25.248039 13352 net.cpp:148] Top shape: 24 192 56 56 (14450688)
I0403 21:56:25.248056 13352 net.cpp:156] Memory required for data: 303465504
I0403 21:56:25.248077 13352 layer_factory.hpp:77] Creating layer conv2/relu_3x3
I0403 21:56:25.248095 13352 net.cpp:91] Creating Layer conv2/relu_3x3
I0403 21:56:25.248111 13352 net.cpp:425] conv2/relu_3x3 <- conv2/3x3
I0403 21:56:25.248129 13352 net.cpp:386] conv2/relu_3x3 -> conv2/3x3 (in-place)
I0403 21:56:25.248306 13352 net.cpp:141] Setting up conv2/relu_3x3
I0403 21:56:25.248330 13352 net.cpp:148] Top shape: 24 192 56 56 (14450688)
I0403 21:56:25.248378 13352 net.cpp:156] Memory required for data: 361268256
I0403 21:56:25.248392 13352 layer_factory.hpp:77] Creating layer conv2/norm2
I0403 21:56:25.248412 13352 net.cpp:91] Creating Layer conv2/norm2
I0403 21:56:25.248430 13352 net.cpp:425] conv2/norm2 <- conv2/3x3
I0403 21:56:25.248447 13352 net.cpp:399] conv2/norm2 -> conv2/norm2
I0403 21:56:25.248744 13352 net.cpp:141] Setting up conv2/norm2
I0403 21:56:25.248769 13352 net.cpp:148] Top shape: 24 192 56 56 (14450688)
I0403 21:56:25.248785 13352 net.cpp:156] Memory required for data: 419071008
I0403 21:56:25.248800 13352 layer_factory.hpp:77] Creating layer pool2/3x3_s2
I0403 21:56:25.248821 13352 net.cpp:91] Creating Layer pool2/3x3_s2
I0403 21:56:25.248836 13352 net.cpp:425] pool2/3x3_s2 <- conv2/norm2
I0403 21:56:25.248853 13352 net.cpp:399] pool2/3x3_s2 -> pool2/3x3_s2
I0403 21:56:25.248904 13352 net.cpp:141] Setting up pool2/3x3_s2
I0403 21:56:25.248927 13352 net.cpp:148] Top shape: 24 192 28 28 (3612672)
I0403 21:56:25.248941 13352 net.cpp:156] Memory required for data: 433521696
I0403 21:56:25.248957 13352 layer_factory.hpp:77] Creating layer pool2/3x3_s2_pool2/3x3_s2_0_split
I0403 21:56:25.248975 13352 net.cpp:91] Creating Layer pool2/3x3_s2_pool2/3x3_s2_0_split
I0403 21:56:25.248991 13352 net.cpp:425] pool2/3x3_s2_pool2/3x3_s2_0_split <- pool2/3x3_s2
I0403 21:56:25.249011 13352 net.cpp:399] pool2/3x3_s2_pool2/3x3_s2_0_split -> pool2/3x3_s2_pool2/3x3_s2_0_split_0
I0403 21:56:25.249029 13352 net.cpp:399] pool2/3x3_s2_pool2/3x3_s2_0_split -> pool2/3x3_s2_pool2/3x3_s2_0_split_1
I0403 21:56:25.249048 13352 net.cpp:399] pool2/3x3_s2_pool2/3x3_s2_0_split -> pool2/3x3_s2_pool2/3x3_s2_0_split_2
I0403 21:56:25.249068 13352 net.cpp:399] pool2/3x3_s2_pool2/3x3_s2_0_split -> pool2/3x3_s2_pool2/3x3_s2_0_split_3
I0403 21:56:25.249137 13352 net.cpp:141] Setting up pool2/3x3_s2_pool2/3x3_s2_0_split
I0403 21:56:25.249162 13352 net.cpp:148] Top shape: 24 192 28 28 (3612672)
I0403 21:56:25.249179 13352 net.cpp:148] Top shape: 24 192 28 28 (3612672)
I0403 21:56:25.249196 13352 net.cpp:148] Top shape: 24 192 28 28 (3612672)
I0403 21:56:25.249217 13352 net.cpp:148] Top shape: 24 192 28 28 (3612672)
I0403 21:56:25.249233 13352 net.cpp:156] Memory required for data: 491324448
I0403 21:56:25.249248 13352 layer_factory.hpp:77] Creating layer inception_3a/1x1
I0403 21:56:25.249272 13352 net.cpp:91] Creating Layer inception_3a/1x1
I0403 21:56:25.249294 13352 net.cpp:425] inception_3a/1x1 <- pool2/3x3_s2_pool2/3x3_s2_0_split_0
I0403 21:56:25.249312 13352 net.cpp:399] inception_3a/1x1 -> inception_3a/1x1
I0403 21:56:25.250846 13352 net.cpp:141] Setting up inception_3a/1x1
I0403 21:56:25.250875 13352 net.cpp:148] Top shape: 24 64 28 28 (1204224)
I0403 21:56:25.250891 13352 net.cpp:156] Memory required for data: 496141344
I0403 21:56:25.250910 13352 layer_factory.hpp:77] Creating layer inception_3a/relu_1x1
I0403 21:56:25.250929 13352 net.cpp:91] Creating Layer inception_3a/relu_1x1
I0403 21:56:25.250946 13352 net.cpp:425] inception_3a/relu_1x1 <- inception_3a/1x1
I0403 21:56:25.250963 13352 net.cpp:386] inception_3a/relu_1x1 -> inception_3a/1x1 (in-place)
I0403 21:56:25.251133 13352 net.cpp:141] Setting up inception_3a/relu_1x1
I0403 21:56:25.251157 13352 net.cpp:148] Top shape: 24 64 28 28 (1204224)
I0403 21:56:25.251173 13352 net.cpp:156] Memory required for data: 500958240
I0403 21:56:25.251188 13352 layer_factory.hpp:77] Creating layer inception_3a/3x3_reduce
I0403 21:56:25.251214 13352 net.cpp:91] Creating Layer inception_3a/3x3_reduce
I0403 21:56:25.251232 13352 net.cpp:425] inception_3a/3x3_reduce <- pool2/3x3_s2_pool2/3x3_s2_0_split_1
I0403 21:56:25.251253 13352 net.cpp:399] inception_3a/3x3_reduce -> inception_3a/3x3_reduce
I0403 21:56:25.252893 13352 net.cpp:141] Setting up inception_3a/3x3_reduce
I0403 21:56:25.252923 13352 net.cpp:148] Top shape: 24 96 28 28 (1806336)
I0403 21:56:25.252939 13352 net.cpp:156] Memory required for data: 508183584
I0403 21:56:25.252960 13352 layer_factory.hpp:77] Creating layer inception_3a/relu_3x3_reduce
I0403 21:56:25.252993 13352 net.cpp:91] Creating Layer inception_3a/relu_3x3_reduce
I0403 21:56:25.253010 13352 net.cpp:425] inception_3a/relu_3x3_reduce <- inception_3a/3x3_reduce
I0403 21:56:25.253031 13352 net.cpp:386] inception_3a/relu_3x3_reduce -> inception_3a/3x3_reduce (in-place)
I0403 21:56:25.253201 13352 net.cpp:141] Setting up inception_3a/relu_3x3_reduce
I0403 21:56:25.253231 13352 net.cpp:148] Top shape: 24 96 28 28 (1806336)
I0403 21:56:25.253245 13352 net.cpp:156] Memory required for data: 515408928
I0403 21:56:25.253262 13352 layer_factory.hpp:77] Creating layer inception_3a/3x3
I0403 21:56:25.253283 13352 net.cpp:91] Creating Layer inception_3a/3x3
I0403 21:56:25.253299 13352 net.cpp:425] inception_3a/3x3 <- inception_3a/3x3_reduce
I0403 21:56:25.253320 13352 net.cpp:399] inception_3a/3x3 -> inception_3a/3x3
I0403 21:56:25.254942 13352 net.cpp:141] Setting up inception_3a/3x3
I0403 21:56:25.254972 13352 net.cpp:148] Top shape: 24 128 28 28 (2408448)
I0403 21:56:25.254989 13352 net.cpp:156] Memory required for data: 525042720
I0403 21:56:25.255007 13352 layer_factory.hpp:77] Creating layer inception_3a/relu_3x3
I0403 21:56:25.255025 13352 net.cpp:91] Creating Layer inception_3a/relu_3x3
I0403 21:56:25.255040 13352 net.cpp:425] inception_3a/relu_3x3 <- inception_3a/3x3
I0403 21:56:25.255060 13352 net.cpp:386] inception_3a/relu_3x3 -> inception_3a/3x3 (in-place)
I0403 21:56:25.255326 13352 net.cpp:141] Setting up inception_3a/relu_3x3
I0403 21:56:25.255353 13352 net.cpp:148] Top shape: 24 128 28 28 (2408448)
I0403 21:56:25.255369 13352 net.cpp:156] Memory required for data: 534676512
I0403 21:56:25.255384 13352 layer_factory.hpp:77] Creating layer inception_3a/5x5_reduce
I0403 21:56:25.255406 13352 net.cpp:91] Creating Layer inception_3a/5x5_reduce
I0403 21:56:25.255424 13352 net.cpp:425] inception_3a/5x5_reduce <- pool2/3x3_s2_pool2/3x3_s2_0_split_2
I0403 21:56:25.255441 13352 net.cpp:399] inception_3a/5x5_reduce -> inception_3a/5x5_reduce
I0403 21:56:25.256361 13352 net.cpp:141] Setting up inception_3a/5x5_reduce
I0403 21:56:25.256389 13352 net.cpp:148] Top shape: 24 16 28 28 (301056)
I0403 21:56:25.256404 13352 net.cpp:156] Memory required for data: 535880736
I0403 21:56:25.256422 13352 layer_factory.hpp:77] Creating layer inception_3a/relu_5x5_reduce
I0403 21:56:25.256439 13352 net.cpp:91] Creating Layer inception_3a/relu_5x5_reduce
I0403 21:56:25.256455 13352 net.cpp:425] inception_3a/relu_5x5_reduce <- inception_3a/5x5_reduce
I0403 21:56:25.256476 13352 net.cpp:386] inception_3a/relu_5x5_reduce -> inception_3a/5x5_reduce (in-place)
I0403 21:56:25.256747 13352 net.cpp:141] Setting up inception_3a/relu_5x5_reduce
I0403 21:56:25.256772 13352 net.cpp:148] Top shape: 24 16 28 28 (301056)
I0403 21:56:25.256788 13352 net.cpp:156] Memory required for data: 537084960
I0403 21:56:25.256801 13352 layer_factory.hpp:77] Creating layer inception_3a/5x5
I0403 21:56:25.256824 13352 net.cpp:91] Creating Layer inception_3a/5x5
I0403 21:56:25.256840 13352 net.cpp:425] inception_3a/5x5 <- inception_3a/5x5_reduce
I0403 21:56:25.256860 13352 net.cpp:399] inception_3a/5x5 -> inception_3a/5x5
I0403 21:56:25.257827 13352 net.cpp:141] Setting up inception_3a/5x5
I0403 21:56:25.257859 13352 net.cpp:148] Top shape: 24 32 28 28 (602112)
I0403 21:56:25.257875 13352 net.cpp:156] Memory required for data: 539493408
I0403 21:56:25.257894 13352 layer_factory.hpp:77] Creating layer inception_3a/relu_5x5
I0403 21:56:25.257910 13352 net.cpp:91] Creating Layer inception_3a/relu_5x5
I0403 21:56:25.257926 13352 net.cpp:425] inception_3a/relu_5x5 <- inception_3a/5x5
I0403 21:56:25.257946 13352 net.cpp:386] inception_3a/relu_5x5 -> inception_3a/5x5 (in-place)
I0403 21:56:25.258111 13352 net.cpp:141] Setting up inception_3a/relu_5x5
I0403 21:56:25.258134 13352 net.cpp:148] Top shape: 24 32 28 28 (602112)
I0403 21:56:25.258148 13352 net.cpp:156] Memory required for data: 541901856
I0403 21:56:25.258162 13352 layer_factory.hpp:77] Creating layer inception_3a/pool
I0403 21:56:25.258179 13352 net.cpp:91] Creating Layer inception_3a/pool
I0403 21:56:25.258194 13352 net.cpp:425] inception_3a/pool <- pool2/3x3_s2_pool2/3x3_s2_0_split_3
I0403 21:56:25.258234 13352 net.cpp:399] inception_3a/pool -> inception_3a/pool
I0403 21:56:25.258291 13352 net.cpp:141] Setting up inception_3a/pool
I0403 21:56:25.258312 13352 net.cpp:148] Top shape: 24 192 28 28 (3612672)
I0403 21:56:25.258327 13352 net.cpp:156] Memory required for data: 556352544
I0403 21:56:25.258342 13352 layer_factory.hpp:77] Creating layer inception_3a/pool_proj
I0403 21:56:25.258365 13352 net.cpp:91] Creating Layer inception_3a/pool_proj
I0403 21:56:25.258383 13352 net.cpp:425] inception_3a/pool_proj <- inception_3a/pool
I0403 21:56:25.258400 13352 net.cpp:399] inception_3a/pool_proj -> inception_3a/pool_proj
I0403 21:56:25.259348 13352 net.cpp:141] Setting up inception_3a/pool_proj
I0403 21:56:25.259374 13352 net.cpp:148] Top shape: 24 32 28 28 (602112)
I0403 21:56:25.259389 13352 net.cpp:156] Memory required for data: 558760992
I0403 21:56:25.259413 13352 layer_factory.hpp:77] Creating layer inception_3a/relu_pool_proj
I0403 21:56:25.259433 13352 net.cpp:91] Creating Layer inception_3a/relu_pool_proj
I0403 21:56:25.259448 13352 net.cpp:425] inception_3a/relu_pool_proj <- inception_3a/pool_proj
I0403 21:56:25.259466 13352 net.cpp:386] inception_3a/relu_pool_proj -> inception_3a/pool_proj (in-place)
I0403 21:56:25.259724 13352 net.cpp:141] Setting up inception_3a/relu_pool_proj
I0403 21:56:25.259752 13352 net.cpp:148] Top shape: 24 32 28 28 (602112)
I0403 21:56:25.259766 13352 net.cpp:156] Memory required for data: 561169440
I0403 21:56:25.259781 13352 layer_factory.hpp:77] Creating layer inception_3a/output
I0403 21:56:25.259799 13352 net.cpp:91] Creating Layer inception_3a/output
I0403 21:56:25.259814 13352 net.cpp:425] inception_3a/output <- inception_3a/1x1
I0403 21:56:25.259830 13352 net.cpp:425] inception_3a/output <- inception_3a/3x3
I0403 21:56:25.259845 13352 net.cpp:425] inception_3a/output <- inception_3a/5x5
I0403 21:56:25.259860 13352 net.cpp:425] inception_3a/output <- inception_3a/pool_proj
I0403 21:56:25.259879 13352 net.cpp:399] inception_3a/output -> inception_3a/output
I0403 21:56:25.259922 13352 net.cpp:141] Setting up inception_3a/output
I0403 21:56:25.259944 13352 net.cpp:148] Top shape: 24 256 28 28 (4816896)
I0403 21:56:25.259958 13352 net.cpp:156] Memory required for data: 580437024
I0403 21:56:25.259973 13352 layer_factory.hpp:77] Creating layer inception_3a/output_inception_3a/output_0_split
I0403 21:56:25.259992 13352 net.cpp:91] Creating Layer inception_3a/output_inception_3a/output_0_split
I0403 21:56:25.260010 13352 net.cpp:425] inception_3a/output_inception_3a/output_0_split <- inception_3a/output
I0403 21:56:25.260025 13352 net.cpp:399] inception_3a/output_inception_3a/output_0_split -> inception_3a/output_inception_3a/output_0_split_0
I0403 21:56:25.260045 13352 net.cpp:399] inception_3a/output_inception_3a/output_0_split -> inception_3a/output_inception_3a/output_0_split_1
I0403 21:56:25.260067 13352 net.cpp:399] inception_3a/output_inception_3a/output_0_split -> inception_3a/output_inception_3a/output_0_split_2
I0403 21:56:25.260087 13352 net.cpp:399] inception_3a/output_inception_3a/output_0_split -> inception_3a/output_inception_3a/output_0_split_3
I0403 21:56:25.260159 13352 net.cpp:141] Setting up inception_3a/output_inception_3a/output_0_split
I0403 21:56:25.260181 13352 net.cpp:148] Top shape: 24 256 28 28 (4816896)
I0403 21:56:25.260201 13352 net.cpp:148] Top shape: 24 256 28 28 (4816896)
I0403 21:56:25.260222 13352 net.cpp:148] Top shape: 24 256 28 28 (4816896)
I0403 21:56:25.260238 13352 net.cpp:148] Top shape: 24 256 28 28 (4816896)
I0403 21:56:25.260252 13352 net.cpp:156] Memory required for data: 657507360
I0403 21:56:25.260267 13352 layer_factory.hpp:77] Creating layer inception_3b/1x1
I0403 21:56:25.260288 13352 net.cpp:91] Creating Layer inception_3b/1x1
I0403 21:56:25.260305 13352 net.cpp:425] inception_3b/1x1 <- inception_3a/output_inception_3a/output_0_split_0
I0403 21:56:25.260324 13352 net.cpp:399] inception_3b/1x1 -> inception_3b/1x1
I0403 21:56:25.261405 13352 net.cpp:141] Setting up inception_3b/1x1
I0403 21:56:25.261442 13352 net.cpp:148] Top shape: 24 128 28 28 (2408448)
I0403 21:56:25.261457 13352 net.cpp:156] Memory required for data: 667141152
I0403 21:56:25.261476 13352 layer_factory.hpp:77] Creating layer inception_3b/relu_1x1
I0403 21:56:25.261497 13352 net.cpp:91] Creating Layer inception_3b/relu_1x1
I0403 21:56:25.261513 13352 net.cpp:425] inception_3b/relu_1x1 <- inception_3b/1x1
I0403 21:56:25.261529 13352 net.cpp:386] inception_3b/relu_1x1 -> inception_3b/1x1 (in-place)
I0403 21:56:25.261694 13352 net.cpp:141] Setting up inception_3b/relu_1x1
I0403 21:56:25.261720 13352 net.cpp:148] Top shape: 24 128 28 28 (2408448)
I0403 21:56:25.261735 13352 net.cpp:156] Memory required for data: 676774944
I0403 21:56:25.261750 13352 layer_factory.hpp:77] Creating layer inception_3b/3x3_reduce
I0403 21:56:25.261771 13352 net.cpp:91] Creating Layer inception_3b/3x3_reduce
I0403 21:56:25.261788 13352 net.cpp:425] inception_3b/3x3_reduce <- inception_3a/output_inception_3a/output_0_split_1
I0403 21:56:25.261807 13352 net.cpp:399] inception_3b/3x3_reduce -> inception_3b/3x3_reduce
I0403 21:56:25.262924 13352 net.cpp:141] Setting up inception_3b/3x3_reduce
I0403 21:56:25.262950 13352 net.cpp:148] Top shape: 24 128 28 28 (2408448)
I0403 21:56:25.262965 13352 net.cpp:156] Memory required for data: 686408736
I0403 21:56:25.262984 13352 layer_factory.hpp:77] Creating layer inception_3b/relu_3x3_reduce
I0403 21:56:25.263003 13352 net.cpp:91] Creating Layer inception_3b/relu_3x3_reduce
I0403 21:56:25.263020 13352 net.cpp:425] inception_3b/relu_3x3_reduce <- inception_3b/3x3_reduce
I0403 21:56:25.263036 13352 net.cpp:386] inception_3b/relu_3x3_reduce -> inception_3b/3x3_reduce (in-place)
I0403 21:56:25.263200 13352 net.cpp:141] Setting up inception_3b/relu_3x3_reduce
I0403 21:56:25.263231 13352 net.cpp:148] Top shape: 24 128 28 28 (2408448)
I0403 21:56:25.263247 13352 net.cpp:156] Memory required for data: 696042528
I0403 21:56:25.263262 13352 layer_factory.hpp:77] Creating layer inception_3b/3x3
I0403 21:56:25.263286 13352 net.cpp:91] Creating Layer inception_3b/3x3
I0403 21:56:25.263304 13352 net.cpp:425] inception_3b/3x3 <- inception_3b/3x3_reduce
I0403 21:56:25.263324 13352 net.cpp:399] inception_3b/3x3 -> inception_3b/3x3
I0403 21:56:25.266105 13352 net.cpp:141] Setting up inception_3b/3x3
I0403 21:56:25.266135 13352 net.cpp:148] Top shape: 24 192 28 28 (3612672)
I0403 21:56:25.266151 13352 net.cpp:156] Memory required for data: 710493216
I0403 21:56:25.266170 13352 layer_factory.hpp:77] Creating layer inception_3b/relu_3x3
I0403 21:56:25.266187 13352 net.cpp:91] Creating Layer inception_3b/relu_3x3
I0403 21:56:25.266203 13352 net.cpp:425] inception_3b/relu_3x3 <- inception_3b/3x3
I0403 21:56:25.266229 13352 net.cpp:386] inception_3b/relu_3x3 -> inception_3b/3x3 (in-place)
I0403 21:56:25.266491 13352 net.cpp:141] Setting up inception_3b/relu_3x3
I0403 21:56:25.266518 13352 net.cpp:148] Top shape: 24 192 28 28 (3612672)
I0403 21:56:25.266546 13352 net.cpp:156] Memory required for data: 724943904
I0403 21:56:25.266561 13352 layer_factory.hpp:77] Creating layer inception_3b/5x5_reduce
I0403 21:56:25.266585 13352 net.cpp:91] Creating Layer inception_3b/5x5_reduce
I0403 21:56:25.266602 13352 net.cpp:425] inception_3b/5x5_reduce <- inception_3a/output_inception_3a/output_0_split_2
I0403 21:56:25.266623 13352 net.cpp:399] inception_3b/5x5_reduce -> inception_3b/5x5_reduce
I0403 21:56:25.267595 13352 net.cpp:141] Setting up inception_3b/5x5_reduce
I0403 21:56:25.267623 13352 net.cpp:148] Top shape: 24 32 28 28 (602112)
I0403 21:56:25.267638 13352 net.cpp:156] Memory required for data: 727352352
I0403 21:56:25.267655 13352 layer_factory.hpp:77] Creating layer inception_3b/relu_5x5_reduce
I0403 21:56:25.267673 13352 net.cpp:91] Creating Layer inception_3b/relu_5x5_reduce
I0403 21:56:25.267688 13352 net.cpp:425] inception_3b/relu_5x5_reduce <- inception_3b/5x5_reduce
I0403 21:56:25.267707 13352 net.cpp:386] inception_3b/relu_5x5_reduce -> inception_3b/5x5_reduce (in-place)
I0403 21:56:25.267870 13352 net.cpp:141] Setting up inception_3b/relu_5x5_reduce
I0403 21:56:25.267904 13352 net.cpp:148] Top shape: 24 32 28 28 (602112)
I0403 21:56:25.267920 13352 net.cpp:156] Memory required for data: 729760800
I0403 21:56:25.267933 13352 layer_factory.hpp:77] Creating layer inception_3b/5x5
I0403 21:56:25.267956 13352 net.cpp:91] Creating Layer inception_3b/5x5
I0403 21:56:25.267972 13352 net.cpp:425] inception_3b/5x5 <- inception_3b/5x5_reduce
I0403 21:56:25.267992 13352 net.cpp:399] inception_3b/5x5 -> inception_3b/5x5
I0403 21:56:25.269850 13352 net.cpp:141] Setting up inception_3b/5x5
I0403 21:56:25.269877 13352 net.cpp:148] Top shape: 24 96 28 28 (1806336)
I0403 21:56:25.269892 13352 net.cpp:156] Memory required for data: 736986144
I0403 21:56:25.269911 13352 layer_factory.hpp:77] Creating layer inception_3b/relu_5x5
I0403 21:56:25.269929 13352 net.cpp:91] Creating Layer inception_3b/relu_5x5
I0403 21:56:25.269945 13352 net.cpp:425] inception_3b/relu_5x5 <- inception_3b/5x5
I0403 21:56:25.269963 13352 net.cpp:386] inception_3b/relu_5x5 -> inception_3b/5x5 (in-place)
I0403 21:56:25.270140 13352 net.cpp:141] Setting up inception_3b/relu_5x5
I0403 21:56:25.270164 13352 net.cpp:148] Top shape: 24 96 28 28 (1806336)
I0403 21:56:25.270177 13352 net.cpp:156] Memory required for data: 744211488
I0403 21:56:25.270192 13352 layer_factory.hpp:77] Creating layer inception_3b/pool
I0403 21:56:25.270213 13352 net.cpp:91] Creating Layer inception_3b/pool
I0403 21:56:25.270231 13352 net.cpp:425] inception_3b/pool <- inception_3a/output_inception_3a/output_0_split_3
I0403 21:56:25.270247 13352 net.cpp:399] inception_3b/pool -> inception_3b/pool
I0403 21:56:25.270299 13352 net.cpp:141] Setting up inception_3b/pool
I0403 21:56:25.270321 13352 net.cpp:148] Top shape: 24 256 28 28 (4816896)
I0403 21:56:25.270335 13352 net.cpp:156] Memory required for data: 763479072
I0403 21:56:25.270349 13352 layer_factory.hpp:77] Creating layer inception_3b/pool_proj
I0403 21:56:25.270375 13352 net.cpp:91] Creating Layer inception_3b/pool_proj
I0403 21:56:25.270393 13352 net.cpp:425] inception_3b/pool_proj <- inception_3b/pool
I0403 21:56:25.270411 13352 net.cpp:399] inception_3b/pool_proj -> inception_3b/pool_proj
I0403 21:56:25.271431 13352 net.cpp:141] Setting up inception_3b/pool_proj
I0403 21:56:25.271458 13352 net.cpp:148] Top shape: 24 64 28 28 (1204224)
I0403 21:56:25.271472 13352 net.cpp:156] Memory required for data: 768295968
I0403 21:56:25.271491 13352 layer_factory.hpp:77] Creating layer inception_3b/relu_pool_proj
I0403 21:56:25.271508 13352 net.cpp:91] Creating Layer inception_3b/relu_pool_proj
I0403 21:56:25.271523 13352 net.cpp:425] inception_3b/relu_pool_proj <- inception_3b/pool_proj
I0403 21:56:25.271541 13352 net.cpp:386] inception_3b/relu_pool_proj -> inception_3b/pool_proj (in-place)
I0403 21:56:25.271899 13352 net.cpp:141] Setting up inception_3b/relu_pool_proj
I0403 21:56:25.271924 13352 net.cpp:148] Top shape: 24 64 28 28 (1204224)
I0403 21:56:25.271939 13352 net.cpp:156] Memory required for data: 773112864
I0403 21:56:25.271952 13352 layer_factory.hpp:77] Creating layer inception_3b/output
I0403 21:56:25.271968 13352 net.cpp:91] Creating Layer inception_3b/output
I0403 21:56:25.271983 13352 net.cpp:425] inception_3b/output <- inception_3b/1x1
I0403 21:56:25.271999 13352 net.cpp:425] inception_3b/output <- inception_3b/3x3
I0403 21:56:25.272014 13352 net.cpp:425] inception_3b/output <- inception_3b/5x5
I0403 21:56:25.272029 13352 net.cpp:425] inception_3b/output <- inception_3b/pool_proj
I0403 21:56:25.272048 13352 net.cpp:399] inception_3b/output -> inception_3b/output
I0403 21:56:25.272089 13352 net.cpp:141] Setting up inception_3b/output
I0403 21:56:25.272109 13352 net.cpp:148] Top shape: 24 480 28 28 (9031680)
I0403 21:56:25.272124 13352 net.cpp:156] Memory required for data: 809239584
I0403 21:56:25.272137 13352 layer_factory.hpp:77] Creating layer pool3/3x3_s2
I0403 21:56:25.272156 13352 net.cpp:91] Creating Layer pool3/3x3_s2
I0403 21:56:25.272171 13352 net.cpp:425] pool3/3x3_s2 <- inception_3b/output
I0403 21:56:25.272191 13352 net.cpp:399] pool3/3x3_s2 -> pool3/3x3_s2
I0403 21:56:25.272266 13352 net.cpp:141] Setting up pool3/3x3_s2
I0403 21:56:25.272289 13352 net.cpp:148] Top shape: 24 480 14 14 (2257920)
I0403 21:56:25.272303 13352 net.cpp:156] Memory required for data: 818271264
I0403 21:56:25.272317 13352 layer_factory.hpp:77] Creating layer pool3/3x3_s2_pool3/3x3_s2_0_split
I0403 21:56:25.272336 13352 net.cpp:91] Creating Layer pool3/3x3_s2_pool3/3x3_s2_0_split
I0403 21:56:25.272351 13352 net.cpp:425] pool3/3x3_s2_pool3/3x3_s2_0_split <- pool3/3x3_s2
I0403 21:56:25.272367 13352 net.cpp:399] pool3/3x3_s2_pool3/3x3_s2_0_split -> pool3/3x3_s2_pool3/3x3_s2_0_split_0
I0403 21:56:25.272385 13352 net.cpp:399] pool3/3x3_s2_pool3/3x3_s2_0_split -> pool3/3x3_s2_pool3/3x3_s2_0_split_1
I0403 21:56:25.272403 13352 net.cpp:399] pool3/3x3_s2_pool3/3x3_s2_0_split -> pool3/3x3_s2_pool3/3x3_s2_0_split_2
I0403 21:56:25.272421 13352 net.cpp:399] pool3/3x3_s2_pool3/3x3_s2_0_split -> pool3/3x3_s2_pool3/3x3_s2_0_split_3
I0403 21:56:25.272493 13352 net.cpp:141] Setting up pool3/3x3_s2_pool3/3x3_s2_0_split
I0403 21:56:25.272514 13352 net.cpp:148] Top shape: 24 480 14 14 (2257920)
I0403 21:56:25.272531 13352 net.cpp:148] Top shape: 24 480 14 14 (2257920)
I0403 21:56:25.272546 13352 net.cpp:148] Top shape: 24 480 14 14 (2257920)
I0403 21:56:25.272560 13352 net.cpp:148] Top shape: 24 480 14 14 (2257920)
I0403 21:56:25.272573 13352 net.cpp:156] Memory required for data: 854397984
I0403 21:56:25.272588 13352 layer_factory.hpp:77] Creating layer inception_4a/1x1
I0403 21:56:25.272609 13352 net.cpp:91] Creating Layer inception_4a/1x1
I0403 21:56:25.272625 13352 net.cpp:425] inception_4a/1x1 <- pool3/3x3_s2_pool3/3x3_s2_0_split_0
I0403 21:56:25.272645 13352 net.cpp:399] inception_4a/1x1 -> inception_4a/1x1
I0403 21:56:25.274137 13352 net.cpp:141] Setting up inception_4a/1x1
I0403 21:56:25.274163 13352 net.cpp:148] Top shape: 24 192 14 14 (903168)
I0403 21:56:25.274178 13352 net.cpp:156] Memory required for data: 858010656
I0403 21:56:25.274196 13352 layer_factory.hpp:77] Creating layer inception_4a/relu_1x1
I0403 21:56:25.274221 13352 net.cpp:91] Creating Layer inception_4a/relu_1x1
I0403 21:56:25.274240 13352 net.cpp:425] inception_4a/relu_1x1 <- inception_4a/1x1
I0403 21:56:25.274256 13352 net.cpp:386] inception_4a/relu_1x1 -> inception_4a/1x1 (in-place)
I0403 21:56:25.274423 13352 net.cpp:141] Setting up inception_4a/relu_1x1
I0403 21:56:25.274449 13352 net.cpp:148] Top shape: 24 192 14 14 (903168)
I0403 21:56:25.274464 13352 net.cpp:156] Memory required for data: 861623328
I0403 21:56:25.274479 13352 layer_factory.hpp:77] Creating layer inception_4a/3x3_reduce
I0403 21:56:25.274498 13352 net.cpp:91] Creating Layer inception_4a/3x3_reduce
I0403 21:56:25.274513 13352 net.cpp:425] inception_4a/3x3_reduce <- pool3/3x3_s2_pool3/3x3_s2_0_split_1
I0403 21:56:25.274533 13352 net.cpp:399] inception_4a/3x3_reduce -> inception_4a/3x3_reduce
I0403 21:56:25.275720 13352 net.cpp:141] Setting up inception_4a/3x3_reduce
I0403 21:56:25.275746 13352 net.cpp:148] Top shape: 24 96 14 14 (451584)
I0403 21:56:25.275761 13352 net.cpp:156] Memory required for data: 863429664
I0403 21:56:25.275784 13352 layer_factory.hpp:77] Creating layer inception_4a/relu_3x3_reduce
I0403 21:56:25.275804 13352 net.cpp:91] Creating Layer inception_4a/relu_3x3_reduce
I0403 21:56:25.275820 13352 net.cpp:425] inception_4a/relu_3x3_reduce <- inception_4a/3x3_reduce
I0403 21:56:25.275837 13352 net.cpp:386] inception_4a/relu_3x3_reduce -> inception_4a/3x3_reduce (in-place)
I0403 21:56:25.276013 13352 net.cpp:141] Setting up inception_4a/relu_3x3_reduce
I0403 21:56:25.276037 13352 net.cpp:148] Top shape: 24 96 14 14 (451584)
I0403 21:56:25.276052 13352 net.cpp:156] Memory required for data: 865236000
I0403 21:56:25.276067 13352 layer_factory.hpp:77] Creating layer inception_4a/3x3
I0403 21:56:25.276088 13352 net.cpp:91] Creating Layer inception_4a/3x3
I0403 21:56:25.276105 13352 net.cpp:425] inception_4a/3x3 <- inception_4a/3x3_reduce
I0403 21:56:25.276126 13352 net.cpp:399] inception_4a/3x3 -> inception_4a/3x3
I0403 21:56:25.278748 13352 net.cpp:141] Setting up inception_4a/3x3
I0403 21:56:25.278775 13352 net.cpp:148] Top shape: 24 208 14 14 (978432)
I0403 21:56:25.278790 13352 net.cpp:156] Memory required for data: 869149728
I0403 21:56:25.278807 13352 layer_factory.hpp:77] Creating layer inception_4a/relu_3x3
I0403 21:56:25.278826 13352 net.cpp:91] Creating Layer inception_4a/relu_3x3
I0403 21:56:25.278843 13352 net.cpp:425] inception_4a/relu_3x3 <- inception_4a/3x3
I0403 21:56:25.278861 13352 net.cpp:386] inception_4a/relu_3x3 -> inception_4a/3x3 (in-place)
I0403 21:56:25.279153 13352 net.cpp:141] Setting up inception_4a/relu_3x3
I0403 21:56:25.279180 13352 net.cpp:148] Top shape: 24 208 14 14 (978432)
I0403 21:56:25.279194 13352 net.cpp:156] Memory required for data: 873063456
I0403 21:56:25.279219 13352 layer_factory.hpp:77] Creating layer inception_4a/5x5_reduce
I0403 21:56:25.279247 13352 net.cpp:91] Creating Layer inception_4a/5x5_reduce
I0403 21:56:25.279264 13352 net.cpp:425] inception_4a/5x5_reduce <- pool3/3x3_s2_pool3/3x3_s2_0_split_2
I0403 21:56:25.279284 13352 net.cpp:399] inception_4a/5x5_reduce -> inception_4a/5x5_reduce
I0403 21:56:25.280257 13352 net.cpp:141] Setting up inception_4a/5x5_reduce
I0403 21:56:25.280283 13352 net.cpp:148] Top shape: 24 16 14 14 (75264)
I0403 21:56:25.280298 13352 net.cpp:156] Memory required for data: 873364512
I0403 21:56:25.280318 13352 layer_factory.hpp:77] Creating layer inception_4a/relu_5x5_reduce
I0403 21:56:25.280336 13352 net.cpp:91] Creating Layer inception_4a/relu_5x5_reduce
I0403 21:56:25.280352 13352 net.cpp:425] inception_4a/relu_5x5_reduce <- inception_4a/5x5_reduce
I0403 21:56:25.280369 13352 net.cpp:386] inception_4a/relu_5x5_reduce -> inception_4a/5x5_reduce (in-place)
I0403 21:56:25.280553 13352 net.cpp:141] Setting up inception_4a/relu_5x5_reduce
I0403 21:56:25.280578 13352 net.cpp:148] Top shape: 24 16 14 14 (75264)
I0403 21:56:25.280592 13352 net.cpp:156] Memory required for data: 873665568
I0403 21:56:25.280608 13352 layer_factory.hpp:77] Creating layer inception_4a/5x5
I0403 21:56:25.280630 13352 net.cpp:91] Creating Layer inception_4a/5x5
I0403 21:56:25.280648 13352 net.cpp:425] inception_4a/5x5 <- inception_4a/5x5_reduce
I0403 21:56:25.280680 13352 net.cpp:399] inception_4a/5x5 -> inception_4a/5x5
I0403 21:56:25.281743 13352 net.cpp:141] Setting up inception_4a/5x5
I0403 21:56:25.281769 13352 net.cpp:148] Top shape: 24 48 14 14 (225792)
I0403 21:56:25.281785 13352 net.cpp:156] Memory required for data: 874568736
I0403 21:56:25.281802 13352 layer_factory.hpp:77] Creating layer inception_4a/relu_5x5
I0403 21:56:25.281821 13352 net.cpp:91] Creating Layer inception_4a/relu_5x5
I0403 21:56:25.281848 13352 net.cpp:425] inception_4a/relu_5x5 <- inception_4a/5x5
I0403 21:56:25.281867 13352 net.cpp:386] inception_4a/relu_5x5 -> inception_4a/5x5 (in-place)
I0403 21:56:25.282033 13352 net.cpp:141] Setting up inception_4a/relu_5x5
I0403 21:56:25.282057 13352 net.cpp:148] Top shape: 24 48 14 14 (225792)
I0403 21:56:25.282070 13352 net.cpp:156] Memory required for data: 875471904
I0403 21:56:25.282084 13352 layer_factory.hpp:77] Creating layer inception_4a/pool
I0403 21:56:25.282104 13352 net.cpp:91] Creating Layer inception_4a/pool
I0403 21:56:25.282119 13352 net.cpp:425] inception_4a/pool <- pool3/3x3_s2_pool3/3x3_s2_0_split_3
I0403 21:56:25.282135 13352 net.cpp:399] inception_4a/pool -> inception_4a/pool
I0403 21:56:25.282192 13352 net.cpp:141] Setting up inception_4a/pool
I0403 21:56:25.282224 13352 net.cpp:148] Top shape: 24 480 14 14 (2257920)
I0403 21:56:25.282241 13352 net.cpp:156] Memory required for data: 884503584
I0403 21:56:25.282256 13352 layer_factory.hpp:77] Creating layer inception_4a/pool_proj
I0403 21:56:25.282277 13352 net.cpp:91] Creating Layer inception_4a/pool_proj
I0403 21:56:25.282294 13352 net.cpp:425] inception_4a/pool_proj <- inception_4a/pool
I0403 21:56:25.282313 13352 net.cpp:399] inception_4a/pool_proj -> inception_4a/pool_proj
I0403 21:56:25.283475 13352 net.cpp:141] Setting up inception_4a/pool_proj
I0403 21:56:25.283504 13352 net.cpp:148] Top shape: 24 64 14 14 (301056)
I0403 21:56:25.283535 13352 net.cpp:156] Memory required for data: 885707808
I0403 21:56:25.283553 13352 layer_factory.hpp:77] Creating layer inception_4a/relu_pool_proj
I0403 21:56:25.283573 13352 net.cpp:91] Creating Layer inception_4a/relu_pool_proj
I0403 21:56:25.283591 13352 net.cpp:425] inception_4a/relu_pool_proj <- inception_4a/pool_proj
I0403 21:56:25.283608 13352 net.cpp:386] inception_4a/relu_pool_proj -> inception_4a/pool_proj (in-place)
I0403 21:56:25.283888 13352 net.cpp:141] Setting up inception_4a/relu_pool_proj
I0403 21:56:25.283913 13352 net.cpp:148] Top shape: 24 64 14 14 (301056)
I0403 21:56:25.283928 13352 net.cpp:156] Memory required for data: 886912032
I0403 21:56:25.283943 13352 layer_factory.hpp:77] Creating layer inception_4a/output
I0403 21:56:25.283959 13352 net.cpp:91] Creating Layer inception_4a/output
I0403 21:56:25.283974 13352 net.cpp:425] inception_4a/output <- inception_4a/1x1
I0403 21:56:25.283990 13352 net.cpp:425] inception_4a/output <- inception_4a/3x3
I0403 21:56:25.284009 13352 net.cpp:425] inception_4a/output <- inception_4a/5x5
I0403 21:56:25.284025 13352 net.cpp:425] inception_4a/output <- inception_4a/pool_proj
I0403 21:56:25.284042 13352 net.cpp:399] inception_4a/output -> inception_4a/output
I0403 21:56:25.284082 13352 net.cpp:141] Setting up inception_4a/output
I0403 21:56:25.284107 13352 net.cpp:148] Top shape: 24 512 14 14 (2408448)
I0403 21:56:25.284121 13352 net.cpp:156] Memory required for data: 896545824
I0403 21:56:25.284137 13352 layer_factory.hpp:77] Creating layer inception_4a/output_inception_4a/output_0_split
I0403 21:56:25.284154 13352 net.cpp:91] Creating Layer inception_4a/output_inception_4a/output_0_split
I0403 21:56:25.284169 13352 net.cpp:425] inception_4a/output_inception_4a/output_0_split <- inception_4a/output
I0403 21:56:25.284188 13352 net.cpp:399] inception_4a/output_inception_4a/output_0_split -> inception_4a/output_inception_4a/output_0_split_0
I0403 21:56:25.284212 13352 net.cpp:399] inception_4a/output_inception_4a/output_0_split -> inception_4a/output_inception_4a/output_0_split_1
I0403 21:56:25.284235 13352 net.cpp:399] inception_4a/output_inception_4a/output_0_split -> inception_4a/output_inception_4a/output_0_split_2
I0403 21:56:25.284253 13352 net.cpp:399] inception_4a/output_inception_4a/output_0_split -> inception_4a/output_inception_4a/output_0_split_3
I0403 21:56:25.284272 13352 net.cpp:399] inception_4a/output_inception_4a/output_0_split -> inception_4a/output_inception_4a/output_0_split_4
I0403 21:56:25.284358 13352 net.cpp:141] Setting up inception_4a/output_inception_4a/output_0_split
I0403 21:56:25.284380 13352 net.cpp:148] Top shape: 24 512 14 14 (2408448)
I0403 21:56:25.284399 13352 net.cpp:148] Top shape: 24 512 14 14 (2408448)
I0403 21:56:25.284415 13352 net.cpp:148] Top shape: 24 512 14 14 (2408448)
I0403 21:56:25.284430 13352 net.cpp:148] Top shape: 24 512 14 14 (2408448)
I0403 21:56:25.284446 13352 net.cpp:148] Top shape: 24 512 14 14 (2408448)
I0403 21:56:25.284459 13352 net.cpp:156] Memory required for data: 944714784
I0403 21:56:25.284473 13352 layer_factory.hpp:77] Creating layer loss1/ave_pool
I0403 21:56:25.284492 13352 net.cpp:91] Creating Layer loss1/ave_pool
I0403 21:56:25.284507 13352 net.cpp:425] loss1/ave_pool <- inception_4a/output_inception_4a/output_0_split_0
I0403 21:56:25.284530 13352 net.cpp:399] loss1/ave_pool -> loss1/ave_pool
I0403 21:56:25.284718 13352 net.cpp:141] Setting up loss1/ave_pool
I0403 21:56:25.284744 13352 net.cpp:148] Top shape: 24 512 4 4 (196608)
I0403 21:56:25.284757 13352 net.cpp:156] Memory required for data: 945501216
I0403 21:56:25.284771 13352 layer_factory.hpp:77] Creating layer loss1/conv
I0403 21:56:25.284792 13352 net.cpp:91] Creating Layer loss1/conv
I0403 21:56:25.284811 13352 net.cpp:425] loss1/conv <- loss1/ave_pool
I0403 21:56:25.284831 13352 net.cpp:399] loss1/conv -> loss1/conv
I0403 21:56:25.286175 13352 net.cpp:141] Setting up loss1/conv
I0403 21:56:25.286201 13352 net.cpp:148] Top shape: 24 128 4 4 (49152)
I0403 21:56:25.286222 13352 net.cpp:156] Memory required for data: 945697824
I0403 21:56:25.286254 13352 layer_factory.hpp:77] Creating layer loss1/relu_conv
I0403 21:56:25.286275 13352 net.cpp:91] Creating Layer loss1/relu_conv
I0403 21:56:25.286291 13352 net.cpp:425] loss1/relu_conv <- loss1/conv
I0403 21:56:25.286309 13352 net.cpp:386] loss1/relu_conv -> loss1/conv (in-place)
I0403 21:56:25.286577 13352 net.cpp:141] Setting up loss1/relu_conv
I0403 21:56:25.286602 13352 net.cpp:148] Top shape: 24 128 4 4 (49152)
I0403 21:56:25.286617 13352 net.cpp:156] Memory required for data: 945894432
I0403 21:56:25.286630 13352 layer_factory.hpp:77] Creating layer loss1/fc
I0403 21:56:25.286655 13352 net.cpp:91] Creating Layer loss1/fc
I0403 21:56:25.286674 13352 net.cpp:425] loss1/fc <- loss1/conv
I0403 21:56:25.286695 13352 net.cpp:399] loss1/fc -> loss1/fc
I0403 21:56:25.303952 13352 net.cpp:141] Setting up loss1/fc
I0403 21:56:25.303989 13352 net.cpp:148] Top shape: 24 1024 (24576)
I0403 21:56:25.304004 13352 net.cpp:156] Memory required for data: 945992736
I0403 21:56:25.304023 13352 layer_factory.hpp:77] Creating layer loss1/relu_fc
I0403 21:56:25.304040 13352 net.cpp:91] Creating Layer loss1/relu_fc
I0403 21:56:25.304056 13352 net.cpp:425] loss1/relu_fc <- loss1/fc
I0403 21:56:25.304075 13352 net.cpp:386] loss1/relu_fc -> loss1/fc (in-place)
I0403 21:56:25.304257 13352 net.cpp:141] Setting up loss1/relu_fc
I0403 21:56:25.304283 13352 net.cpp:148] Top shape: 24 1024 (24576)
I0403 21:56:25.304298 13352 net.cpp:156] Memory required for data: 946091040
I0403 21:56:25.304312 13352 layer_factory.hpp:77] Creating layer loss1/drop_fc
I0403 21:56:25.304337 13352 net.cpp:91] Creating Layer loss1/drop_fc
I0403 21:56:25.304354 13352 net.cpp:425] loss1/drop_fc <- loss1/fc
I0403 21:56:25.304371 13352 net.cpp:386] loss1/drop_fc -> loss1/fc (in-place)
I0403 21:56:25.304420 13352 net.cpp:141] Setting up loss1/drop_fc
I0403 21:56:25.304442 13352 net.cpp:148] Top shape: 24 1024 (24576)
I0403 21:56:25.304455 13352 net.cpp:156] Memory required for data: 946189344
I0403 21:56:25.304471 13352 layer_factory.hpp:77] Creating layer loss1/classifier_plantvillage
I0403 21:56:25.304487 13352 net.cpp:91] Creating Layer loss1/classifier_plantvillage
I0403 21:56:25.304502 13352 net.cpp:425] loss1/classifier_plantvillage <- loss1/fc
I0403 21:56:25.304522 13352 net.cpp:399] loss1/classifier_plantvillage -> loss1/classifier_plantvillage
I0403 21:56:25.305382 13352 net.cpp:141] Setting up loss1/classifier_plantvillage
I0403 21:56:25.305407 13352 net.cpp:148] Top shape: 24 38 (912)
I0403 21:56:25.305421 13352 net.cpp:156] Memory required for data: 946192992
I0403 21:56:25.305439 13352 layer_factory.hpp:77] Creating layer loss1/classifier_plantvillage_loss1/classifier_plantvillage_0_split
I0403 21:56:25.305459 13352 net.cpp:91] Creating Layer loss1/classifier_plantvillage_loss1/classifier_plantvillage_0_split
I0403 21:56:25.305474 13352 net.cpp:425] loss1/classifier_plantvillage_loss1/classifier_plantvillage_0_split <- loss1/classifier_plantvillage
I0403 21:56:25.305491 13352 net.cpp:399] loss1/classifier_plantvillage_loss1/classifier_plantvillage_0_split -> loss1/classifier_plantvillage_loss1/classifier_plantvillage_0_split_0
I0403 21:56:25.305510 13352 net.cpp:399] loss1/classifier_plantvillage_loss1/classifier_plantvillage_0_split -> loss1/classifier_plantvillage_loss1/classifier_plantvillage_0_split_1
I0403 21:56:25.305541 13352 net.cpp:399] loss1/classifier_plantvillage_loss1/classifier_plantvillage_0_split -> loss1/classifier_plantvillage_loss1/classifier_plantvillage_0_split_2
I0403 21:56:25.305606 13352 net.cpp:141] Setting up loss1/classifier_plantvillage_loss1/classifier_plantvillage_0_split
I0403 21:56:25.305629 13352 net.cpp:148] Top shape: 24 38 (912)
I0403 21:56:25.305645 13352 net.cpp:148] Top shape: 24 38 (912)
I0403 21:56:25.305661 13352 net.cpp:148] Top shape: 24 38 (912)
I0403 21:56:25.305675 13352 net.cpp:156] Memory required for data: 946203936
I0403 21:56:25.305688 13352 layer_factory.hpp:77] Creating layer inception_4b/1x1
I0403 21:56:25.305711 13352 net.cpp:91] Creating Layer inception_4b/1x1
I0403 21:56:25.305742 13352 net.cpp:425] inception_4b/1x1 <- inception_4a/output_inception_4a/output_0_split_1
I0403 21:56:25.305762 13352 net.cpp:399] inception_4b/1x1 -> inception_4b/1x1
I0403 21:56:25.307291 13352 net.cpp:141] Setting up inception_4b/1x1
I0403 21:56:25.307318 13352 net.cpp:148] Top shape: 24 160 14 14 (752640)
I0403 21:56:25.307332 13352 net.cpp:156] Memory required for data: 949214496
I0403 21:56:25.307350 13352 layer_factory.hpp:77] Creating layer inception_4b/relu_1x1
I0403 21:56:25.307369 13352 net.cpp:91] Creating Layer inception_4b/relu_1x1
I0403 21:56:25.307385 13352 net.cpp:425] inception_4b/relu_1x1 <- inception_4b/1x1
I0403 21:56:25.307402 13352 net.cpp:386] inception_4b/relu_1x1 -> inception_4b/1x1 (in-place)
I0403 21:56:25.307574 13352 net.cpp:141] Setting up inception_4b/relu_1x1
I0403 21:56:25.307598 13352 net.cpp:148] Top shape: 24 160 14 14 (752640)
I0403 21:56:25.307612 13352 net.cpp:156] Memory required for data: 952225056
I0403 21:56:25.307626 13352 layer_factory.hpp:77] Creating layer inception_4b/3x3_reduce
I0403 21:56:25.307649 13352 net.cpp:91] Creating Layer inception_4b/3x3_reduce
I0403 21:56:25.307667 13352 net.cpp:425] inception_4b/3x3_reduce <- inception_4a/output_inception_4a/output_0_split_2
I0403 21:56:25.307687 13352 net.cpp:399] inception_4b/3x3_reduce -> inception_4b/3x3_reduce
I0403 21:56:25.308950 13352 net.cpp:141] Setting up inception_4b/3x3_reduce
I0403 21:56:25.308975 13352 net.cpp:148] Top shape: 24 112 14 14 (526848)
I0403 21:56:25.308990 13352 net.cpp:156] Memory required for data: 954332448
I0403 21:56:25.309008 13352 layer_factory.hpp:77] Creating layer inception_4b/relu_3x3_reduce
I0403 21:56:25.309026 13352 net.cpp:91] Creating Layer inception_4b/relu_3x3_reduce
I0403 21:56:25.309041 13352 net.cpp:425] inception_4b/relu_3x3_reduce <- inception_4b/3x3_reduce
I0403 21:56:25.309059 13352 net.cpp:386] inception_4b/relu_3x3_reduce -> inception_4b/3x3_reduce (in-place)
I0403 21:56:25.309355 13352 net.cpp:141] Setting up inception_4b/relu_3x3_reduce
I0403 21:56:25.309381 13352 net.cpp:148] Top shape: 24 112 14 14 (526848)
I0403 21:56:25.309407 13352 net.cpp:156] Memory required for data: 956439840
I0403 21:56:25.309422 13352 layer_factory.hpp:77] Creating layer inception_4b/3x3
I0403 21:56:25.309443 13352 net.cpp:91] Creating Layer inception_4b/3x3
I0403 21:56:25.309460 13352 net.cpp:425] inception_4b/3x3 <- inception_4b/3x3_reduce
I0403 21:56:25.309480 13352 net.cpp:399] inception_4b/3x3 -> inception_4b/3x3
I0403 21:56:25.312322 13352 net.cpp:141] Setting up inception_4b/3x3
I0403 21:56:25.312350 13352 net.cpp:148] Top shape: 24 224 14 14 (1053696)
I0403 21:56:25.312366 13352 net.cpp:156] Memory required for data: 960654624
I0403 21:56:25.312382 13352 layer_factory.hpp:77] Creating layer inception_4b/relu_3x3
I0403 21:56:25.312402 13352 net.cpp:91] Creating Layer inception_4b/relu_3x3
I0403 21:56:25.312419 13352 net.cpp:425] inception_4b/relu_3x3 <- inception_4b/3x3
I0403 21:56:25.312436 13352 net.cpp:386] inception_4b/relu_3x3 -> inception_4b/3x3 (in-place)
I0403 21:56:25.312607 13352 net.cpp:141] Setting up inception_4b/relu_3x3
I0403 21:56:25.312633 13352 net.cpp:148] Top shape: 24 224 14 14 (1053696)
I0403 21:56:25.312646 13352 net.cpp:156] Memory required for data: 964869408
I0403 21:56:25.312660 13352 layer_factory.hpp:77] Creating layer inception_4b/5x5_reduce
I0403 21:56:25.312683 13352 net.cpp:91] Creating Layer inception_4b/5x5_reduce
I0403 21:56:25.312700 13352 net.cpp:425] inception_4b/5x5_reduce <- inception_4a/output_inception_4a/output_0_split_3
I0403 21:56:25.312719 13352 net.cpp:399] inception_4b/5x5_reduce -> inception_4b/5x5_reduce
I0403 21:56:25.313740 13352 net.cpp:141] Setting up inception_4b/5x5_reduce
I0403 21:56:25.313768 13352 net.cpp:148] Top shape: 24 24 14 14 (112896)
I0403 21:56:25.313784 13352 net.cpp:156] Memory required for data: 965320992
I0403 21:56:25.313802 13352 layer_factory.hpp:77] Creating layer inception_4b/relu_5x5_reduce
I0403 21:56:25.313820 13352 net.cpp:91] Creating Layer inception_4b/relu_5x5_reduce
I0403 21:56:25.313849 13352 net.cpp:425] inception_4b/relu_5x5_reduce <- inception_4b/5x5_reduce
I0403 21:56:25.313868 13352 net.cpp:386] inception_4b/relu_5x5_reduce -> inception_4b/5x5_reduce (in-place)
I0403 21:56:25.314044 13352 net.cpp:141] Setting up inception_4b/relu_5x5_reduce
I0403 21:56:25.314069 13352 net.cpp:148] Top shape: 24 24 14 14 (112896)
I0403 21:56:25.314082 13352 net.cpp:156] Memory required for data: 965772576
I0403 21:56:25.314096 13352 layer_factory.hpp:77] Creating layer inception_4b/5x5
I0403 21:56:25.314118 13352 net.cpp:91] Creating Layer inception_4b/5x5
I0403 21:56:25.314136 13352 net.cpp:425] inception_4b/5x5 <- inception_4b/5x5_reduce
I0403 21:56:25.314155 13352 net.cpp:399] inception_4b/5x5 -> inception_4b/5x5
I0403 21:56:25.315322 13352 net.cpp:141] Setting up inception_4b/5x5
I0403 21:56:25.315348 13352 net.cpp:148] Top shape: 24 64 14 14 (301056)
I0403 21:56:25.315363 13352 net.cpp:156] Memory required for data: 966976800
I0403 21:56:25.315382 13352 layer_factory.hpp:77] Creating layer inception_4b/relu_5x5
I0403 21:56:25.315400 13352 net.cpp:91] Creating Layer inception_4b/relu_5x5
I0403 21:56:25.315418 13352 net.cpp:425] inception_4b/relu_5x5 <- inception_4b/5x5
I0403 21:56:25.315435 13352 net.cpp:386] inception_4b/relu_5x5 -> inception_4b/5x5 (in-place)
I0403 21:56:25.315707 13352 net.cpp:141] Setting up inception_4b/relu_5x5
I0403 21:56:25.315732 13352 net.cpp:148] Top shape: 24 64 14 14 (301056)
I0403 21:56:25.315747 13352 net.cpp:156] Memory required for data: 968181024
I0403 21:56:25.315762 13352 layer_factory.hpp:77] Creating layer inception_4b/pool
I0403 21:56:25.315781 13352 net.cpp:91] Creating Layer inception_4b/pool
I0403 21:56:25.315798 13352 net.cpp:425] inception_4b/pool <- inception_4a/output_inception_4a/output_0_split_4
I0403 21:56:25.315815 13352 net.cpp:399] inception_4b/pool -> inception_4b/pool
I0403 21:56:25.315876 13352 net.cpp:141] Setting up inception_4b/pool
I0403 21:56:25.315898 13352 net.cpp:148] Top shape: 24 512 14 14 (2408448)
I0403 21:56:25.315913 13352 net.cpp:156] Memory required for data: 977814816
I0403 21:56:25.315927 13352 layer_factory.hpp:77] Creating layer inception_4b/pool_proj
I0403 21:56:25.315948 13352 net.cpp:91] Creating Layer inception_4b/pool_proj
I0403 21:56:25.315965 13352 net.cpp:425] inception_4b/pool_proj <- inception_4b/pool
I0403 21:56:25.315985 13352 net.cpp:399] inception_4b/pool_proj -> inception_4b/pool_proj
I0403 21:56:25.317123 13352 net.cpp:141] Setting up inception_4b/pool_proj
I0403 21:56:25.317152 13352 net.cpp:148] Top shape: 24 64 14 14 (301056)
I0403 21:56:25.317167 13352 net.cpp:156] Memory required for data: 979019040
I0403 21:56:25.317186 13352 layer_factory.hpp:77] Creating layer inception_4b/relu_pool_proj
I0403 21:56:25.317203 13352 net.cpp:91] Creating Layer inception_4b/relu_pool_proj
I0403 21:56:25.317224 13352 net.cpp:425] inception_4b/relu_pool_proj <- inception_4b/pool_proj
I0403 21:56:25.317244 13352 net.cpp:386] inception_4b/relu_pool_proj -> inception_4b/pool_proj (in-place)
I0403 21:56:25.317414 13352 net.cpp:141] Setting up inception_4b/relu_pool_proj
I0403 21:56:25.317437 13352 net.cpp:148] Top shape: 24 64 14 14 (301056)
I0403 21:56:25.317452 13352 net.cpp:156] Memory required for data: 980223264
I0403 21:56:25.317467 13352 layer_factory.hpp:77] Creating layer inception_4b/output
I0403 21:56:25.317483 13352 net.cpp:91] Creating Layer inception_4b/output
I0403 21:56:25.317498 13352 net.cpp:425] inception_4b/output <- inception_4b/1x1
I0403 21:56:25.317514 13352 net.cpp:425] inception_4b/output <- inception_4b/3x3
I0403 21:56:25.317529 13352 net.cpp:425] inception_4b/output <- inception_4b/5x5
I0403 21:56:25.317544 13352 net.cpp:425] inception_4b/output <- inception_4b/pool_proj
I0403 21:56:25.317564 13352 net.cpp:399] inception_4b/output -> inception_4b/output
I0403 21:56:25.317605 13352 net.cpp:141] Setting up inception_4b/output
I0403 21:56:25.317631 13352 net.cpp:148] Top shape: 24 512 14 14 (2408448)
I0403 21:56:25.317644 13352 net.cpp:156] Memory required for data: 989857056
I0403 21:56:25.317672 13352 layer_factory.hpp:77] Creating layer inception_4b/output_inception_4b/output_0_split
I0403 21:56:25.317690 13352 net.cpp:91] Creating Layer inception_4b/output_inception_4b/output_0_split
I0403 21:56:25.317705 13352 net.cpp:425] inception_4b/output_inception_4b/output_0_split <- inception_4b/output
I0403 21:56:25.317723 13352 net.cpp:399] inception_4b/output_inception_4b/output_0_split -> inception_4b/output_inception_4b/output_0_split_0
I0403 21:56:25.317744 13352 net.cpp:399] inception_4b/output_inception_4b/output_0_split -> inception_4b/output_inception_4b/output_0_split_1
I0403 21:56:25.317764 13352 net.cpp:399] inception_4b/output_inception_4b/output_0_split -> inception_4b/output_inception_4b/output_0_split_2
I0403 21:56:25.317783 13352 net.cpp:399] inception_4b/output_inception_4b/output_0_split -> inception_4b/output_inception_4b/output_0_split_3
I0403 21:56:25.317864 13352 net.cpp:141] Setting up inception_4b/output_inception_4b/output_0_split
I0403 21:56:25.317886 13352 net.cpp:148] Top shape: 24 512 14 14 (2408448)
I0403 21:56:25.317903 13352 net.cpp:148] Top shape: 24 512 14 14 (2408448)
I0403 21:56:25.317916 13352 net.cpp:148] Top shape: 24 512 14 14 (2408448)
I0403 21:56:25.317931 13352 net.cpp:148] Top shape: 24 512 14 14 (2408448)
I0403 21:56:25.317945 13352 net.cpp:156] Memory required for data: 1028392224
I0403 21:56:25.317960 13352 layer_factory.hpp:77] Creating layer inception_4c/1x1
I0403 21:56:25.317981 13352 net.cpp:91] Creating Layer inception_4c/1x1
I0403 21:56:25.318002 13352 net.cpp:425] inception_4c/1x1 <- inception_4b/output_inception_4b/output_0_split_0
I0403 21:56:25.318020 13352 net.cpp:399] inception_4c/1x1 -> inception_4c/1x1
I0403 21:56:25.319373 13352 net.cpp:141] Setting up inception_4c/1x1
I0403 21:56:25.319399 13352 net.cpp:148] Top shape: 24 128 14 14 (602112)
I0403 21:56:25.319414 13352 net.cpp:156] Memory required for data: 1030800672
I0403 21:56:25.319432 13352 layer_factory.hpp:77] Creating layer inception_4c/relu_1x1
I0403 21:56:25.319449 13352 net.cpp:91] Creating Layer inception_4c/relu_1x1
I0403 21:56:25.319464 13352 net.cpp:425] inception_4c/relu_1x1 <- inception_4c/1x1
I0403 21:56:25.319483 13352 net.cpp:386] inception_4c/relu_1x1 -> inception_4c/1x1 (in-place)
I0403 21:56:25.319655 13352 net.cpp:141] Setting up inception_4c/relu_1x1
I0403 21:56:25.319679 13352 net.cpp:148] Top shape: 24 128 14 14 (602112)
I0403 21:56:25.319694 13352 net.cpp:156] Memory required for data: 1033209120
I0403 21:56:25.319708 13352 layer_factory.hpp:77] Creating layer inception_4c/3x3_reduce
I0403 21:56:25.319730 13352 net.cpp:91] Creating Layer inception_4c/3x3_reduce
I0403 21:56:25.319746 13352 net.cpp:425] inception_4c/3x3_reduce <- inception_4b/output_inception_4b/output_0_split_1
I0403 21:56:25.319766 13352 net.cpp:399] inception_4c/3x3_reduce -> inception_4c/3x3_reduce
I0403 21:56:25.321630 13352 net.cpp:141] Setting up inception_4c/3x3_reduce
I0403 21:56:25.321663 13352 net.cpp:148] Top shape: 24 128 14 14 (602112)
I0403 21:56:25.321681 13352 net.cpp:156] Memory required for data: 1035617568
I0403 21:56:25.321698 13352 layer_factory.hpp:77] Creating layer inception_4c/relu_3x3_reduce
I0403 21:56:25.321717 13352 net.cpp:91] Creating Layer inception_4c/relu_3x3_reduce
I0403 21:56:25.321732 13352 net.cpp:425] inception_4c/relu_3x3_reduce <- inception_4c/3x3_reduce
I0403 21:56:25.321748 13352 net.cpp:386] inception_4c/relu_3x3_reduce -> inception_4c/3x3_reduce (in-place)
I0403 21:56:25.322016 13352 net.cpp:141] Setting up inception_4c/relu_3x3_reduce
I0403 21:56:25.322044 13352 net.cpp:148] Top shape: 24 128 14 14 (602112)
I0403 21:56:25.322059 13352 net.cpp:156] Memory required for data: 1038026016
I0403 21:56:25.322073 13352 layer_factory.hpp:77] Creating layer inception_4c/3x3
I0403 21:56:25.322093 13352 net.cpp:91] Creating Layer inception_4c/3x3
I0403 21:56:25.322109 13352 net.cpp:425] inception_4c/3x3 <- inception_4c/3x3_reduce
I0403 21:56:25.322130 13352 net.cpp:399] inception_4c/3x3 -> inception_4c/3x3
I0403 21:56:25.325603 13352 net.cpp:141] Setting up inception_4c/3x3
I0403 21:56:25.325646 13352 net.cpp:148] Top shape: 24 256 14 14 (1204224)
I0403 21:56:25.325662 13352 net.cpp:156] Memory required for data: 1042842912
I0403 21:56:25.325692 13352 layer_factory.hpp:77] Creating layer inception_4c/relu_3x3
I0403 21:56:25.325713 13352 net.cpp:91] Creating Layer inception_4c/relu_3x3
I0403 21:56:25.325728 13352 net.cpp:425] inception_4c/relu_3x3 <- inception_4c/3x3
I0403 21:56:25.325747 13352 net.cpp:386] inception_4c/relu_3x3 -> inception_4c/3x3 (in-place)
I0403 21:56:25.325920 13352 net.cpp:141] Setting up inception_4c/relu_3x3
I0403 21:56:25.325947 13352 net.cpp:148] Top shape: 24 256 14 14 (1204224)
I0403 21:56:25.325963 13352 net.cpp:156] Memory required for data: 1047659808
I0403 21:56:25.325978 13352 layer_factory.hpp:77] Creating layer inception_4c/5x5_reduce
I0403 21:56:25.326000 13352 net.cpp:91] Creating Layer inception_4c/5x5_reduce
I0403 21:56:25.326019 13352 net.cpp:425] inception_4c/5x5_reduce <- inception_4b/output_inception_4b/output_0_split_2
I0403 21:56:25.326037 13352 net.cpp:399] inception_4c/5x5_reduce -> inception_4c/5x5_reduce
I0403 21:56:25.327070 13352 net.cpp:141] Setting up inception_4c/5x5_reduce
I0403 21:56:25.327100 13352 net.cpp:148] Top shape: 24 24 14 14 (112896)
I0403 21:56:25.327116 13352 net.cpp:156] Memory required for data: 1048111392
I0403 21:56:25.327133 13352 layer_factory.hpp:77] Creating layer inception_4c/relu_5x5_reduce
I0403 21:56:25.327152 13352 net.cpp:91] Creating Layer inception_4c/relu_5x5_reduce
I0403 21:56:25.327168 13352 net.cpp:425] inception_4c/relu_5x5_reduce <- inception_4c/5x5_reduce
I0403 21:56:25.327184 13352 net.cpp:386] inception_4c/relu_5x5_reduce -> inception_4c/5x5_reduce (in-place)
I0403 21:56:25.327366 13352 net.cpp:141] Setting up inception_4c/relu_5x5_reduce
I0403 21:56:25.327390 13352 net.cpp:148] Top shape: 24 24 14 14 (112896)
I0403 21:56:25.327404 13352 net.cpp:156] Memory required for data: 1048562976
I0403 21:56:25.327419 13352 layer_factory.hpp:77] Creating layer inception_4c/5x5
I0403 21:56:25.327440 13352 net.cpp:91] Creating Layer inception_4c/5x5
I0403 21:56:25.327457 13352 net.cpp:425] inception_4c/5x5 <- inception_4c/5x5_reduce
I0403 21:56:25.327477 13352 net.cpp:399] inception_4c/5x5 -> inception_4c/5x5
I0403 21:56:25.328652 13352 net.cpp:141] Setting up inception_4c/5x5
I0403 21:56:25.328680 13352 net.cpp:148] Top shape: 24 64 14 14 (301056)
I0403 21:56:25.328694 13352 net.cpp:156] Memory required for data: 1049767200
I0403 21:56:25.328712 13352 layer_factory.hpp:77] Creating layer inception_4c/relu_5x5
I0403 21:56:25.328729 13352 net.cpp:91] Creating Layer inception_4c/relu_5x5
I0403 21:56:25.328744 13352 net.cpp:425] inception_4c/relu_5x5 <- inception_4c/5x5
I0403 21:56:25.328763 13352 net.cpp:386] inception_4c/relu_5x5 -> inception_4c/5x5 (in-place)
I0403 21:56:25.329042 13352 net.cpp:141] Setting up inception_4c/relu_5x5
I0403 21:56:25.329067 13352 net.cpp:148] Top shape: 24 64 14 14 (301056)
I0403 21:56:25.329082 13352 net.cpp:156] Memory required for data: 1050971424
I0403 21:56:25.329098 13352 layer_factory.hpp:77] Creating layer inception_4c/pool
I0403 21:56:25.329115 13352 net.cpp:91] Creating Layer inception_4c/pool
I0403 21:56:25.329131 13352 net.cpp:425] inception_4c/pool <- inception_4b/output_inception_4b/output_0_split_3
I0403 21:56:25.329150 13352 net.cpp:399] inception_4c/pool -> inception_4c/pool
I0403 21:56:25.329221 13352 net.cpp:141] Setting up inception_4c/pool
I0403 21:56:25.329246 13352 net.cpp:148] Top shape: 24 512 14 14 (2408448)
I0403 21:56:25.329262 13352 net.cpp:156] Memory required for data: 1060605216
I0403 21:56:25.329283 13352 layer_factory.hpp:77] Creating layer inception_4c/pool_proj
I0403 21:56:25.329306 13352 net.cpp:91] Creating Layer inception_4c/pool_proj
I0403 21:56:25.329324 13352 net.cpp:425] inception_4c/pool_proj <- inception_4c/pool
I0403 21:56:25.329341 13352 net.cpp:399] inception_4c/pool_proj -> inception_4c/pool_proj
I0403 21:56:25.330509 13352 net.cpp:141] Setting up inception_4c/pool_proj
I0403 21:56:25.330552 13352 net.cpp:148] Top shape: 24 64 14 14 (301056)
I0403 21:56:25.330581 13352 net.cpp:156] Memory required for data: 1061809440
I0403 21:56:25.330601 13352 layer_factory.hpp:77] Creating layer inception_4c/relu_pool_proj
I0403 21:56:25.330618 13352 net.cpp:91] Creating Layer inception_4c/relu_pool_proj
I0403 21:56:25.330634 13352 net.cpp:425] inception_4c/relu_pool_proj <- inception_4c/pool_proj
I0403 21:56:25.330654 13352 net.cpp:386] inception_4c/relu_pool_proj -> inception_4c/pool_proj (in-place)
I0403 21:56:25.330845 13352 net.cpp:141] Setting up inception_4c/relu_pool_proj
I0403 21:56:25.330869 13352 net.cpp:148] Top shape: 24 64 14 14 (301056)
I0403 21:56:25.330883 13352 net.cpp:156] Memory required for data: 1063013664
I0403 21:56:25.330898 13352 layer_factory.hpp:77] Creating layer inception_4c/output
I0403 21:56:25.330914 13352 net.cpp:91] Creating Layer inception_4c/output
I0403 21:56:25.330929 13352 net.cpp:425] inception_4c/output <- inception_4c/1x1
I0403 21:56:25.330946 13352 net.cpp:425] inception_4c/output <- inception_4c/3x3
I0403 21:56:25.330962 13352 net.cpp:425] inception_4c/output <- inception_4c/5x5
I0403 21:56:25.330978 13352 net.cpp:425] inception_4c/output <- inception_4c/pool_proj
I0403 21:56:25.330997 13352 net.cpp:399] inception_4c/output -> inception_4c/output
I0403 21:56:25.331040 13352 net.cpp:141] Setting up inception_4c/output
I0403 21:56:25.331068 13352 net.cpp:148] Top shape: 24 512 14 14 (2408448)
I0403 21:56:25.331082 13352 net.cpp:156] Memory required for data: 1072647456
I0403 21:56:25.331099 13352 layer_factory.hpp:77] Creating layer inception_4c/output_inception_4c/output_0_split
I0403 21:56:25.331115 13352 net.cpp:91] Creating Layer inception_4c/output_inception_4c/output_0_split
I0403 21:56:25.331130 13352 net.cpp:425] inception_4c/output_inception_4c/output_0_split <- inception_4c/output
I0403 21:56:25.331146 13352 net.cpp:399] inception_4c/output_inception_4c/output_0_split -> inception_4c/output_inception_4c/output_0_split_0
I0403 21:56:25.331164 13352 net.cpp:399] inception_4c/output_inception_4c/output_0_split -> inception_4c/output_inception_4c/output_0_split_1
I0403 21:56:25.331187 13352 net.cpp:399] inception_4c/output_inception_4c/output_0_split -> inception_4c/output_inception_4c/output_0_split_2
I0403 21:56:25.331212 13352 net.cpp:399] inception_4c/output_inception_4c/output_0_split -> inception_4c/output_inception_4c/output_0_split_3
I0403 21:56:25.331297 13352 net.cpp:141] Setting up inception_4c/output_inception_4c/output_0_split
I0403 21:56:25.331321 13352 net.cpp:148] Top shape: 24 512 14 14 (2408448)
I0403 21:56:25.331338 13352 net.cpp:148] Top shape: 24 512 14 14 (2408448)
I0403 21:56:25.331354 13352 net.cpp:148] Top shape: 24 512 14 14 (2408448)
I0403 21:56:25.331370 13352 net.cpp:148] Top shape: 24 512 14 14 (2408448)
I0403 21:56:25.331383 13352 net.cpp:156] Memory required for data: 1111182624
I0403 21:56:25.331399 13352 layer_factory.hpp:77] Creating layer inception_4d/1x1
I0403 21:56:25.331420 13352 net.cpp:91] Creating Layer inception_4d/1x1
I0403 21:56:25.331439 13352 net.cpp:425] inception_4d/1x1 <- inception_4c/output_inception_4c/output_0_split_0
I0403 21:56:25.331459 13352 net.cpp:399] inception_4d/1x1 -> inception_4d/1x1
I0403 21:56:25.332845 13352 net.cpp:141] Setting up inception_4d/1x1
I0403 21:56:25.332871 13352 net.cpp:148] Top shape: 24 112 14 14 (526848)
I0403 21:56:25.332886 13352 net.cpp:156] Memory required for data: 1113290016
I0403 21:56:25.332904 13352 layer_factory.hpp:77] Creating layer inception_4d/relu_1x1
I0403 21:56:25.332923 13352 net.cpp:91] Creating Layer inception_4d/relu_1x1
I0403 21:56:25.332939 13352 net.cpp:425] inception_4d/relu_1x1 <- inception_4d/1x1
I0403 21:56:25.332957 13352 net.cpp:386] inception_4d/relu_1x1 -> inception_4d/1x1 (in-place)
I0403 21:56:25.333132 13352 net.cpp:141] Setting up inception_4d/relu_1x1
I0403 21:56:25.333158 13352 net.cpp:148] Top shape: 24 112 14 14 (526848)
I0403 21:56:25.333173 13352 net.cpp:156] Memory required for data: 1115397408
I0403 21:56:25.333187 13352 layer_factory.hpp:77] Creating layer inception_4d/3x3_reduce
I0403 21:56:25.333225 13352 net.cpp:91] Creating Layer inception_4d/3x3_reduce
I0403 21:56:25.333245 13352 net.cpp:425] inception_4d/3x3_reduce <- inception_4c/output_inception_4c/output_0_split_1
I0403 21:56:25.333262 13352 net.cpp:399] inception_4d/3x3_reduce -> inception_4d/3x3_reduce
I0403 21:56:25.334707 13352 net.cpp:141] Setting up inception_4d/3x3_reduce
I0403 21:56:25.334733 13352 net.cpp:148] Top shape: 24 144 14 14 (677376)
I0403 21:56:25.334748 13352 net.cpp:156] Memory required for data: 1118106912
I0403 21:56:25.334766 13352 layer_factory.hpp:77] Creating layer inception_4d/relu_3x3_reduce
I0403 21:56:25.334787 13352 net.cpp:91] Creating Layer inception_4d/relu_3x3_reduce
I0403 21:56:25.334805 13352 net.cpp:425] inception_4d/relu_3x3_reduce <- inception_4d/3x3_reduce
I0403 21:56:25.334833 13352 net.cpp:386] inception_4d/relu_3x3_reduce -> inception_4d/3x3_reduce (in-place)
I0403 21:56:25.335103 13352 net.cpp:141] Setting up inception_4d/relu_3x3_reduce
I0403 21:56:25.335129 13352 net.cpp:148] Top shape: 24 144 14 14 (677376)
I0403 21:56:25.335144 13352 net.cpp:156] Memory required for data: 1120816416
I0403 21:56:25.335157 13352 layer_factory.hpp:77] Creating layer inception_4d/3x3
I0403 21:56:25.335178 13352 net.cpp:91] Creating Layer inception_4d/3x3
I0403 21:56:25.335196 13352 net.cpp:425] inception_4d/3x3 <- inception_4d/3x3_reduce
I0403 21:56:25.335221 13352 net.cpp:399] inception_4d/3x3 -> inception_4d/3x3
I0403 21:56:25.339318 13352 net.cpp:141] Setting up inception_4d/3x3
I0403 21:56:25.339345 13352 net.cpp:148] Top shape: 24 288 14 14 (1354752)
I0403 21:56:25.339360 13352 net.cpp:156] Memory required for data: 1126235424
I0403 21:56:25.339378 13352 layer_factory.hpp:77] Creating layer inception_4d/relu_3x3
I0403 21:56:25.339398 13352 net.cpp:91] Creating Layer inception_4d/relu_3x3
I0403 21:56:25.339416 13352 net.cpp:425] inception_4d/relu_3x3 <- inception_4d/3x3
I0403 21:56:25.339432 13352 net.cpp:386] inception_4d/relu_3x3 -> inception_4d/3x3 (in-place)
I0403 21:56:25.339606 13352 net.cpp:141] Setting up inception_4d/relu_3x3
I0403 21:56:25.339630 13352 net.cpp:148] Top shape: 24 288 14 14 (1354752)
I0403 21:56:25.339645 13352 net.cpp:156] Memory required for data: 1131654432
I0403 21:56:25.339660 13352 layer_factory.hpp:77] Creating layer inception_4d/5x5_reduce
I0403 21:56:25.339681 13352 net.cpp:91] Creating Layer inception_4d/5x5_reduce
I0403 21:56:25.339699 13352 net.cpp:425] inception_4d/5x5_reduce <- inception_4c/output_inception_4c/output_0_split_2
I0403 21:56:25.339718 13352 net.cpp:399] inception_4d/5x5_reduce -> inception_4d/5x5_reduce
I0403 21:56:25.340816 13352 net.cpp:141] Setting up inception_4d/5x5_reduce
I0403 21:56:25.340854 13352 net.cpp:148] Top shape: 24 32 14 14 (150528)
I0403 21:56:25.340868 13352 net.cpp:156] Memory required for data: 1132256544
I0403 21:56:25.340886 13352 layer_factory.hpp:77] Creating layer inception_4d/relu_5x5_reduce
I0403 21:56:25.340909 13352 net.cpp:91] Creating Layer inception_4d/relu_5x5_reduce
I0403 21:56:25.340927 13352 net.cpp:425] inception_4d/relu_5x5_reduce <- inception_4d/5x5_reduce
I0403 21:56:25.340944 13352 net.cpp:386] inception_4d/relu_5x5_reduce -> inception_4d/5x5_reduce (in-place)
I0403 21:56:25.341119 13352 net.cpp:141] Setting up inception_4d/relu_5x5_reduce
I0403 21:56:25.341145 13352 net.cpp:148] Top shape: 24 32 14 14 (150528)
I0403 21:56:25.341161 13352 net.cpp:156] Memory required for data: 1132858656
I0403 21:56:25.341176 13352 layer_factory.hpp:77] Creating layer inception_4d/5x5
I0403 21:56:25.341197 13352 net.cpp:91] Creating Layer inception_4d/5x5
I0403 21:56:25.341218 13352 net.cpp:425] inception_4d/5x5 <- inception_4d/5x5_reduce
I0403 21:56:25.341238 13352 net.cpp:399] inception_4d/5x5 -> inception_4d/5x5
I0403 21:56:25.342638 13352 net.cpp:141] Setting up inception_4d/5x5
I0403 21:56:25.342664 13352 net.cpp:148] Top shape: 24 64 14 14 (301056)
I0403 21:56:25.342680 13352 net.cpp:156] Memory required for data: 1134062880
I0403 21:56:25.342700 13352 layer_factory.hpp:77] Creating layer inception_4d/relu_5x5
I0403 21:56:25.342733 13352 net.cpp:91] Creating Layer inception_4d/relu_5x5
I0403 21:56:25.342751 13352 net.cpp:425] inception_4d/relu_5x5 <- inception_4d/5x5
I0403 21:56:25.342770 13352 net.cpp:386] inception_4d/relu_5x5 -> inception_4d/5x5 (in-place)
I0403 21:56:25.343067 13352 net.cpp:141] Setting up inception_4d/relu_5x5
I0403 21:56:25.343092 13352 net.cpp:148] Top shape: 24 64 14 14 (301056)
I0403 21:56:25.343107 13352 net.cpp:156] Memory required for data: 1135267104
I0403 21:56:25.343122 13352 layer_factory.hpp:77] Creating layer inception_4d/pool
I0403 21:56:25.343138 13352 net.cpp:91] Creating Layer inception_4d/pool
I0403 21:56:25.343154 13352 net.cpp:425] inception_4d/pool <- inception_4c/output_inception_4c/output_0_split_3
I0403 21:56:25.343174 13352 net.cpp:399] inception_4d/pool -> inception_4d/pool
I0403 21:56:25.343242 13352 net.cpp:141] Setting up inception_4d/pool
I0403 21:56:25.343266 13352 net.cpp:148] Top shape: 24 512 14 14 (2408448)
I0403 21:56:25.343279 13352 net.cpp:156] Memory required for data: 1144900896
I0403 21:56:25.343294 13352 layer_factory.hpp:77] Creating layer inception_4d/pool_proj
I0403 21:56:25.343317 13352 net.cpp:91] Creating Layer inception_4d/pool_proj
I0403 21:56:25.343334 13352 net.cpp:425] inception_4d/pool_proj <- inception_4d/pool
I0403 21:56:25.343353 13352 net.cpp:399] inception_4d/pool_proj -> inception_4d/pool_proj
I0403 21:56:25.345057 13352 net.cpp:141] Setting up inception_4d/pool_proj
I0403 21:56:25.345085 13352 net.cpp:148] Top shape: 24 64 14 14 (301056)
I0403 21:56:25.345099 13352 net.cpp:156] Memory required for data: 1146105120
I0403 21:56:25.345118 13352 layer_factory.hpp:77] Creating layer inception_4d/relu_pool_proj
I0403 21:56:25.345137 13352 net.cpp:91] Creating Layer inception_4d/relu_pool_proj
I0403 21:56:25.345155 13352 net.cpp:425] inception_4d/relu_pool_proj <- inception_4d/pool_proj
I0403 21:56:25.345171 13352 net.cpp:386] inception_4d/relu_pool_proj -> inception_4d/pool_proj (in-place)
I0403 21:56:25.345350 13352 net.cpp:141] Setting up inception_4d/relu_pool_proj
I0403 21:56:25.345376 13352 net.cpp:148] Top shape: 24 64 14 14 (301056)
I0403 21:56:25.345391 13352 net.cpp:156] Memory required for data: 1147309344
I0403 21:56:25.345405 13352 layer_factory.hpp:77] Creating layer inception_4d/output
I0403 21:56:25.345422 13352 net.cpp:91] Creating Layer inception_4d/output
I0403 21:56:25.345438 13352 net.cpp:425] inception_4d/output <- inception_4d/1x1
I0403 21:56:25.345454 13352 net.cpp:425] inception_4d/output <- inception_4d/3x3
I0403 21:56:25.345469 13352 net.cpp:425] inception_4d/output <- inception_4d/5x5
I0403 21:56:25.345484 13352 net.cpp:425] inception_4d/output <- inception_4d/pool_proj
I0403 21:56:25.345501 13352 net.cpp:399] inception_4d/output -> inception_4d/output
I0403 21:56:25.345546 13352 net.cpp:141] Setting up inception_4d/output
I0403 21:56:25.345567 13352 net.cpp:148] Top shape: 24 528 14 14 (2483712)
I0403 21:56:25.345582 13352 net.cpp:156] Memory required for data: 1157244192
I0403 21:56:25.345597 13352 layer_factory.hpp:77] Creating layer inception_4d/output_inception_4d/output_0_split
I0403 21:56:25.345615 13352 net.cpp:91] Creating Layer inception_4d/output_inception_4d/output_0_split
I0403 21:56:25.345631 13352 net.cpp:425] inception_4d/output_inception_4d/output_0_split <- inception_4d/output
I0403 21:56:25.345649 13352 net.cpp:399] inception_4d/output_inception_4d/output_0_split -> inception_4d/output_inception_4d/output_0_split_0
I0403 21:56:25.345667 13352 net.cpp:399] inception_4d/output_inception_4d/output_0_split -> inception_4d/output_inception_4d/output_0_split_1
I0403 21:56:25.345691 13352 net.cpp:399] inception_4d/output_inception_4d/output_0_split -> inception_4d/output_inception_4d/output_0_split_2
I0403 21:56:25.345711 13352 net.cpp:399] inception_4d/output_inception_4d/output_0_split -> inception_4d/output_inception_4d/output_0_split_3
I0403 21:56:25.345731 13352 net.cpp:399] inception_4d/output_inception_4d/output_0_split -> inception_4d/output_inception_4d/output_0_split_4
I0403 21:56:25.345825 13352 net.cpp:141] Setting up inception_4d/output_inception_4d/output_0_split
I0403 21:56:25.345860 13352 net.cpp:148] Top shape: 24 528 14 14 (2483712)
I0403 21:56:25.345875 13352 net.cpp:148] Top shape: 24 528 14 14 (2483712)
I0403 21:56:25.345890 13352 net.cpp:148] Top shape: 24 528 14 14 (2483712)
I0403 21:56:25.345906 13352 net.cpp:148] Top shape: 24 528 14 14 (2483712)
I0403 21:56:25.345919 13352 net.cpp:148] Top shape: 24 528 14 14 (2483712)
I0403 21:56:25.345932 13352 net.cpp:156] Memory required for data: 1206918432
I0403 21:56:25.345945 13352 layer_factory.hpp:77] Creating layer loss2/ave_pool
I0403 21:56:25.345965 13352 net.cpp:91] Creating Layer loss2/ave_pool
I0403 21:56:25.345983 13352 net.cpp:425] loss2/ave_pool <- inception_4d/output_inception_4d/output_0_split_0
I0403 21:56:25.345999 13352 net.cpp:399] loss2/ave_pool -> loss2/ave_pool
I0403 21:56:25.346302 13352 net.cpp:141] Setting up loss2/ave_pool
I0403 21:56:25.346326 13352 net.cpp:148] Top shape: 24 528 4 4 (202752)
I0403 21:56:25.346341 13352 net.cpp:156] Memory required for data: 1207729440
I0403 21:56:25.346355 13352 layer_factory.hpp:77] Creating layer loss2/conv
I0403 21:56:25.346376 13352 net.cpp:91] Creating Layer loss2/conv
I0403 21:56:25.346393 13352 net.cpp:425] loss2/conv <- loss2/ave_pool
I0403 21:56:25.346417 13352 net.cpp:399] loss2/conv -> loss2/conv
I0403 21:56:25.348284 13352 net.cpp:141] Setting up loss2/conv
I0403 21:56:25.348312 13352 net.cpp:148] Top shape: 24 128 4 4 (49152)
I0403 21:56:25.348328 13352 net.cpp:156] Memory required for data: 1207926048
I0403 21:56:25.348346 13352 layer_factory.hpp:77] Creating layer loss2/relu_conv
I0403 21:56:25.348364 13352 net.cpp:91] Creating Layer loss2/relu_conv
I0403 21:56:25.348381 13352 net.cpp:425] loss2/relu_conv <- loss2/conv
I0403 21:56:25.348400 13352 net.cpp:386] loss2/relu_conv -> loss2/conv (in-place)
I0403 21:56:25.348682 13352 net.cpp:141] Setting up loss2/relu_conv
I0403 21:56:25.348711 13352 net.cpp:148] Top shape: 24 128 4 4 (49152)
I0403 21:56:25.348726 13352 net.cpp:156] Memory required for data: 1208122656
I0403 21:56:25.348740 13352 layer_factory.hpp:77] Creating layer loss2/fc
I0403 21:56:25.348759 13352 net.cpp:91] Creating Layer loss2/fc
I0403 21:56:25.348776 13352 net.cpp:425] loss2/fc <- loss2/conv
I0403 21:56:25.348798 13352 net.cpp:399] loss2/fc -> loss2/fc
I0403 21:56:25.365672 13352 net.cpp:141] Setting up loss2/fc
I0403 21:56:25.365708 13352 net.cpp:148] Top shape: 24 1024 (24576)
I0403 21:56:25.365725 13352 net.cpp:156] Memory required for data: 1208220960
I0403 21:56:25.365742 13352 layer_factory.hpp:77] Creating layer loss2/relu_fc
I0403 21:56:25.365761 13352 net.cpp:91] Creating Layer loss2/relu_fc
I0403 21:56:25.365777 13352 net.cpp:425] loss2/relu_fc <- loss2/fc
I0403 21:56:25.365794 13352 net.cpp:386] loss2/relu_fc -> loss2/fc (in-place)
I0403 21:56:25.366085 13352 net.cpp:141] Setting up loss2/relu_fc
I0403 21:56:25.366111 13352 net.cpp:148] Top shape: 24 1024 (24576)
I0403 21:56:25.366125 13352 net.cpp:156] Memory required for data: 1208319264
I0403 21:56:25.366140 13352 layer_factory.hpp:77] Creating layer loss2/drop_fc
I0403 21:56:25.366159 13352 net.cpp:91] Creating Layer loss2/drop_fc
I0403 21:56:25.366175 13352 net.cpp:425] loss2/drop_fc <- loss2/fc
I0403 21:56:25.366191 13352 net.cpp:386] loss2/drop_fc -> loss2/fc (in-place)
I0403 21:56:25.366243 13352 net.cpp:141] Setting up loss2/drop_fc
I0403 21:56:25.366266 13352 net.cpp:148] Top shape: 24 1024 (24576)
I0403 21:56:25.366281 13352 net.cpp:156] Memory required for data: 1208417568
I0403 21:56:25.366296 13352 layer_factory.hpp:77] Creating layer loss2/classifier_plantvillage
I0403 21:56:25.366317 13352 net.cpp:91] Creating Layer loss2/classifier_plantvillage
I0403 21:56:25.366333 13352 net.cpp:425] loss2/classifier_plantvillage <- loss2/fc
I0403 21:56:25.366351 13352 net.cpp:399] loss2/classifier_plantvillage -> loss2/classifier_plantvillage
I0403 21:56:25.366731 13352 net.cpp:141] Setting up loss2/classifier_plantvillage
I0403 21:56:25.366755 13352 net.cpp:148] Top shape: 24 38 (912)
I0403 21:56:25.366768 13352 net.cpp:156] Memory required for data: 1208421216
I0403 21:56:25.366801 13352 layer_factory.hpp:77] Creating layer loss2/classifier_plantvillage_loss2/classifier_plantvillage_0_split
I0403 21:56:25.366821 13352 net.cpp:91] Creating Layer loss2/classifier_plantvillage_loss2/classifier_plantvillage_0_split
I0403 21:56:25.366835 13352 net.cpp:425] loss2/classifier_plantvillage_loss2/classifier_plantvillage_0_split <- loss2/classifier_plantvillage
I0403 21:56:25.366855 13352 net.cpp:399] loss2/classifier_plantvillage_loss2/classifier_plantvillage_0_split -> loss2/classifier_plantvillage_loss2/classifier_plantvillage_0_split_0
I0403 21:56:25.366875 13352 net.cpp:399] loss2/classifier_plantvillage_loss2/classifier_plantvillage_0_split -> loss2/classifier_plantvillage_loss2/classifier_plantvillage_0_split_1
I0403 21:56:25.366895 13352 net.cpp:399] loss2/classifier_plantvillage_loss2/classifier_plantvillage_0_split -> loss2/classifier_plantvillage_loss2/classifier_plantvillage_0_split_2
I0403 21:56:25.366967 13352 net.cpp:141] Setting up loss2/classifier_plantvillage_loss2/classifier_plantvillage_0_split
I0403 21:56:25.366992 13352 net.cpp:148] Top shape: 24 38 (912)
I0403 21:56:25.367008 13352 net.cpp:148] Top shape: 24 38 (912)
I0403 21:56:25.367023 13352 net.cpp:148] Top shape: 24 38 (912)
I0403 21:56:25.367038 13352 net.cpp:156] Memory required for data: 1208432160
I0403 21:56:25.367051 13352 layer_factory.hpp:77] Creating layer inception_4e/1x1
I0403 21:56:25.367071 13352 net.cpp:91] Creating Layer inception_4e/1x1
I0403 21:56:25.367087 13352 net.cpp:425] inception_4e/1x1 <- inception_4d/output_inception_4d/output_0_split_1
I0403 21:56:25.367106 13352 net.cpp:399] inception_4e/1x1 -> inception_4e/1x1
I0403 21:56:25.368834 13352 net.cpp:141] Setting up inception_4e/1x1
I0403 21:56:25.368860 13352 net.cpp:148] Top shape: 24 256 14 14 (1204224)
I0403 21:56:25.368875 13352 net.cpp:156] Memory required for data: 1213249056
I0403 21:56:25.368893 13352 layer_factory.hpp:77] Creating layer inception_4e/relu_1x1
I0403 21:56:25.368911 13352 net.cpp:91] Creating Layer inception_4e/relu_1x1
I0403 21:56:25.368926 13352 net.cpp:425] inception_4e/relu_1x1 <- inception_4e/1x1
I0403 21:56:25.368945 13352 net.cpp:386] inception_4e/relu_1x1 -> inception_4e/1x1 (in-place)
I0403 21:56:25.369231 13352 net.cpp:141] Setting up inception_4e/relu_1x1
I0403 21:56:25.369256 13352 net.cpp:148] Top shape: 24 256 14 14 (1204224)
I0403 21:56:25.369271 13352 net.cpp:156] Memory required for data: 1218065952
I0403 21:56:25.369284 13352 layer_factory.hpp:77] Creating layer inception_4e/3x3_reduce
I0403 21:56:25.369307 13352 net.cpp:91] Creating Layer inception_4e/3x3_reduce
I0403 21:56:25.369323 13352 net.cpp:425] inception_4e/3x3_reduce <- inception_4d/output_inception_4d/output_0_split_2
I0403 21:56:25.369344 13352 net.cpp:399] inception_4e/3x3_reduce -> inception_4e/3x3_reduce
I0403 21:56:25.371398 13352 net.cpp:141] Setting up inception_4e/3x3_reduce
I0403 21:56:25.371428 13352 net.cpp:148] Top shape: 24 160 14 14 (752640)
I0403 21:56:25.371444 13352 net.cpp:156] Memory required for data: 1221076512
I0403 21:56:25.371462 13352 layer_factory.hpp:77] Creating layer inception_4e/relu_3x3_reduce
I0403 21:56:25.371479 13352 net.cpp:91] Creating Layer inception_4e/relu_3x3_reduce
I0403 21:56:25.371495 13352 net.cpp:425] inception_4e/relu_3x3_reduce <- inception_4e/3x3_reduce
I0403 21:56:25.371515 13352 net.cpp:386] inception_4e/relu_3x3_reduce -> inception_4e/3x3_reduce (in-place)
I0403 21:56:25.371692 13352 net.cpp:141] Setting up inception_4e/relu_3x3_reduce
I0403 21:56:25.371716 13352 net.cpp:148] Top shape: 24 160 14 14 (752640)
I0403 21:56:25.371731 13352 net.cpp:156] Memory required for data: 1224087072
I0403 21:56:25.371744 13352 layer_factory.hpp:77] Creating layer inception_4e/3x3
I0403 21:56:25.371767 13352 net.cpp:91] Creating Layer inception_4e/3x3
I0403 21:56:25.371783 13352 net.cpp:425] inception_4e/3x3 <- inception_4e/3x3_reduce
I0403 21:56:25.371805 13352 net.cpp:399] inception_4e/3x3 -> inception_4e/3x3
I0403 21:56:25.376637 13352 net.cpp:141] Setting up inception_4e/3x3
I0403 21:56:25.376678 13352 net.cpp:148] Top shape: 24 320 14 14 (1505280)
I0403 21:56:25.376694 13352 net.cpp:156] Memory required for data: 1230108192
I0403 21:56:25.376713 13352 layer_factory.hpp:77] Creating layer inception_4e/relu_3x3
I0403 21:56:25.376732 13352 net.cpp:91] Creating Layer inception_4e/relu_3x3
I0403 21:56:25.376749 13352 net.cpp:425] inception_4e/relu_3x3 <- inception_4e/3x3
I0403 21:56:25.376767 13352 net.cpp:386] inception_4e/relu_3x3 -> inception_4e/3x3 (in-place)
I0403 21:56:25.377059 13352 net.cpp:141] Setting up inception_4e/relu_3x3
I0403 21:56:25.377084 13352 net.cpp:148] Top shape: 24 320 14 14 (1505280)
I0403 21:56:25.377099 13352 net.cpp:156] Memory required for data: 1236129312
I0403 21:56:25.377115 13352 layer_factory.hpp:77] Creating layer inception_4e/5x5_reduce
I0403 21:56:25.377137 13352 net.cpp:91] Creating Layer inception_4e/5x5_reduce
I0403 21:56:25.377156 13352 net.cpp:425] inception_4e/5x5_reduce <- inception_4d/output_inception_4d/output_0_split_3
I0403 21:56:25.377177 13352 net.cpp:399] inception_4e/5x5_reduce -> inception_4e/5x5_reduce
I0403 21:56:25.378202 13352 net.cpp:141] Setting up inception_4e/5x5_reduce
I0403 21:56:25.378232 13352 net.cpp:148] Top shape: 24 32 14 14 (150528)
I0403 21:56:25.378247 13352 net.cpp:156] Memory required for data: 1236731424
I0403 21:56:25.378265 13352 layer_factory.hpp:77] Creating layer inception_4e/relu_5x5_reduce
I0403 21:56:25.378281 13352 net.cpp:91] Creating Layer inception_4e/relu_5x5_reduce
I0403 21:56:25.378298 13352 net.cpp:425] inception_4e/relu_5x5_reduce <- inception_4e/5x5_reduce
I0403 21:56:25.378316 13352 net.cpp:386] inception_4e/relu_5x5_reduce -> inception_4e/5x5_reduce (in-place)
I0403 21:56:25.378605 13352 net.cpp:141] Setting up inception_4e/relu_5x5_reduce
I0403 21:56:25.378630 13352 net.cpp:148] Top shape: 24 32 14 14 (150528)
I0403 21:56:25.378646 13352 net.cpp:156] Memory required for data: 1237333536
I0403 21:56:25.378661 13352 layer_factory.hpp:77] Creating layer inception_4e/5x5
I0403 21:56:25.378698 13352 net.cpp:91] Creating Layer inception_4e/5x5
I0403 21:56:25.378717 13352 net.cpp:425] inception_4e/5x5 <- inception_4e/5x5_reduce
I0403 21:56:25.378736 13352 net.cpp:399] inception_4e/5x5 -> inception_4e/5x5
I0403 21:56:25.380466 13352 net.cpp:141] Setting up inception_4e/5x5
I0403 21:56:25.380496 13352 net.cpp:148] Top shape: 24 128 14 14 (602112)
I0403 21:56:25.380512 13352 net.cpp:156] Memory required for data: 1239741984
I0403 21:56:25.380532 13352 layer_factory.hpp:77] Creating layer inception_4e/relu_5x5
I0403 21:56:25.380548 13352 net.cpp:91] Creating Layer inception_4e/relu_5x5
I0403 21:56:25.380563 13352 net.cpp:425] inception_4e/relu_5x5 <- inception_4e/5x5
I0403 21:56:25.380580 13352 net.cpp:386] inception_4e/relu_5x5 -> inception_4e/5x5 (in-place)
I0403 21:56:25.380769 13352 net.cpp:141] Setting up inception_4e/relu_5x5
I0403 21:56:25.380795 13352 net.cpp:148] Top shape: 24 128 14 14 (602112)
I0403 21:56:25.380810 13352 net.cpp:156] Memory required for data: 1242150432
I0403 21:56:25.380825 13352 layer_factory.hpp:77] Creating layer inception_4e/pool
I0403 21:56:25.380841 13352 net.cpp:91] Creating Layer inception_4e/pool
I0403 21:56:25.380857 13352 net.cpp:425] inception_4e/pool <- inception_4d/output_inception_4d/output_0_split_4
I0403 21:56:25.380877 13352 net.cpp:399] inception_4e/pool -> inception_4e/pool
I0403 21:56:25.380944 13352 net.cpp:141] Setting up inception_4e/pool
I0403 21:56:25.380970 13352 net.cpp:148] Top shape: 24 528 14 14 (2483712)
I0403 21:56:25.380985 13352 net.cpp:156] Memory required for data: 1252085280
I0403 21:56:25.380998 13352 layer_factory.hpp:77] Creating layer inception_4e/pool_proj
I0403 21:56:25.381021 13352 net.cpp:91] Creating Layer inception_4e/pool_proj
I0403 21:56:25.381036 13352 net.cpp:425] inception_4e/pool_proj <- inception_4e/pool
I0403 21:56:25.381054 13352 net.cpp:399] inception_4e/pool_proj -> inception_4e/pool_proj
I0403 21:56:25.382482 13352 net.cpp:141] Setting up inception_4e/pool_proj
I0403 21:56:25.382508 13352 net.cpp:148] Top shape: 24 128 14 14 (602112)
I0403 21:56:25.382536 13352 net.cpp:156] Memory required for data: 1254493728
I0403 21:56:25.382555 13352 layer_factory.hpp:77] Creating layer inception_4e/relu_pool_proj
I0403 21:56:25.382577 13352 net.cpp:91] Creating Layer inception_4e/relu_pool_proj
I0403 21:56:25.382593 13352 net.cpp:425] inception_4e/relu_pool_proj <- inception_4e/pool_proj
I0403 21:56:25.382611 13352 net.cpp:386] inception_4e/relu_pool_proj -> inception_4e/pool_proj (in-place)
I0403 21:56:25.382891 13352 net.cpp:141] Setting up inception_4e/relu_pool_proj
I0403 21:56:25.382916 13352 net.cpp:148] Top shape: 24 128 14 14 (602112)
I0403 21:56:25.382930 13352 net.cpp:156] Memory required for data: 1256902176
I0403 21:56:25.382946 13352 layer_factory.hpp:77] Creating layer inception_4e/output
I0403 21:56:25.382966 13352 net.cpp:91] Creating Layer inception_4e/output
I0403 21:56:25.382982 13352 net.cpp:425] inception_4e/output <- inception_4e/1x1
I0403 21:56:25.382998 13352 net.cpp:425] inception_4e/output <- inception_4e/3x3
I0403 21:56:25.383013 13352 net.cpp:425] inception_4e/output <- inception_4e/5x5
I0403 21:56:25.383028 13352 net.cpp:425] inception_4e/output <- inception_4e/pool_proj
I0403 21:56:25.383044 13352 net.cpp:399] inception_4e/output -> inception_4e/output
I0403 21:56:25.383092 13352 net.cpp:141] Setting up inception_4e/output
I0403 21:56:25.383116 13352 net.cpp:148] Top shape: 24 832 14 14 (3913728)
I0403 21:56:25.383131 13352 net.cpp:156] Memory required for data: 1272557088
I0403 21:56:25.383144 13352 layer_factory.hpp:77] Creating layer pool4/3x3_s2
I0403 21:56:25.383162 13352 net.cpp:91] Creating Layer pool4/3x3_s2
I0403 21:56:25.383179 13352 net.cpp:425] pool4/3x3_s2 <- inception_4e/output
I0403 21:56:25.383196 13352 net.cpp:399] pool4/3x3_s2 -> pool4/3x3_s2
I0403 21:56:25.383276 13352 net.cpp:141] Setting up pool4/3x3_s2
I0403 21:56:25.383299 13352 net.cpp:148] Top shape: 24 832 7 7 (978432)
I0403 21:56:25.383313 13352 net.cpp:156] Memory required for data: 1276470816
I0403 21:56:25.383327 13352 layer_factory.hpp:77] Creating layer pool4/3x3_s2_pool4/3x3_s2_0_split
I0403 21:56:25.383344 13352 net.cpp:91] Creating Layer pool4/3x3_s2_pool4/3x3_s2_0_split
I0403 21:56:25.383359 13352 net.cpp:425] pool4/3x3_s2_pool4/3x3_s2_0_split <- pool4/3x3_s2
I0403 21:56:25.383378 13352 net.cpp:399] pool4/3x3_s2_pool4/3x3_s2_0_split -> pool4/3x3_s2_pool4/3x3_s2_0_split_0
I0403 21:56:25.383399 13352 net.cpp:399] pool4/3x3_s2_pool4/3x3_s2_0_split -> pool4/3x3_s2_pool4/3x3_s2_0_split_1
I0403 21:56:25.383417 13352 net.cpp:399] pool4/3x3_s2_pool4/3x3_s2_0_split -> pool4/3x3_s2_pool4/3x3_s2_0_split_2
I0403 21:56:25.383436 13352 net.cpp:399] pool4/3x3_s2_pool4/3x3_s2_0_split -> pool4/3x3_s2_pool4/3x3_s2_0_split_3
I0403 21:56:25.383522 13352 net.cpp:141] Setting up pool4/3x3_s2_pool4/3x3_s2_0_split
I0403 21:56:25.383555 13352 net.cpp:148] Top shape: 24 832 7 7 (978432)
I0403 21:56:25.383577 13352 net.cpp:148] Top shape: 24 832 7 7 (978432)
I0403 21:56:25.383594 13352 net.cpp:148] Top shape: 24 832 7 7 (978432)
I0403 21:56:25.383610 13352 net.cpp:148] Top shape: 24 832 7 7 (978432)
I0403 21:56:25.383625 13352 net.cpp:156] Memory required for data: 1292125728
I0403 21:56:25.383638 13352 layer_factory.hpp:77] Creating layer inception_5a/1x1
I0403 21:56:25.383663 13352 net.cpp:91] Creating Layer inception_5a/1x1
I0403 21:56:25.383680 13352 net.cpp:425] inception_5a/1x1 <- pool4/3x3_s2_pool4/3x3_s2_0_split_0
I0403 21:56:25.383702 13352 net.cpp:399] inception_5a/1x1 -> inception_5a/1x1
I0403 21:56:25.386456 13352 net.cpp:141] Setting up inception_5a/1x1
I0403 21:56:25.386487 13352 net.cpp:148] Top shape: 24 256 7 7 (301056)
I0403 21:56:25.386502 13352 net.cpp:156] Memory required for data: 1293329952
I0403 21:56:25.386520 13352 layer_factory.hpp:77] Creating layer inception_5a/relu_1x1
I0403 21:56:25.386539 13352 net.cpp:91] Creating Layer inception_5a/relu_1x1
I0403 21:56:25.386555 13352 net.cpp:425] inception_5a/relu_1x1 <- inception_5a/1x1
I0403 21:56:25.386576 13352 net.cpp:386] inception_5a/relu_1x1 -> inception_5a/1x1 (in-place)
I0403 21:56:25.386872 13352 net.cpp:141] Setting up inception_5a/relu_1x1
I0403 21:56:25.386899 13352 net.cpp:148] Top shape: 24 256 7 7 (301056)
I0403 21:56:25.386915 13352 net.cpp:156] Memory required for data: 1294534176
I0403 21:56:25.386931 13352 layer_factory.hpp:77] Creating layer inception_5a/3x3_reduce
I0403 21:56:25.386956 13352 net.cpp:91] Creating Layer inception_5a/3x3_reduce
I0403 21:56:25.386976 13352 net.cpp:425] inception_5a/3x3_reduce <- pool4/3x3_s2_pool4/3x3_s2_0_split_1
I0403 21:56:25.386994 13352 net.cpp:399] inception_5a/3x3_reduce -> inception_5a/3x3_reduce
I0403 21:56:25.389400 13352 net.cpp:141] Setting up inception_5a/3x3_reduce
I0403 21:56:25.389430 13352 net.cpp:148] Top shape: 24 160 7 7 (188160)
I0403 21:56:25.389446 13352 net.cpp:156] Memory required for data: 1295286816
I0403 21:56:25.389463 13352 layer_factory.hpp:77] Creating layer inception_5a/relu_3x3_reduce
I0403 21:56:25.389484 13352 net.cpp:91] Creating Layer inception_5a/relu_3x3_reduce
I0403 21:56:25.389503 13352 net.cpp:425] inception_5a/relu_3x3_reduce <- inception_5a/3x3_reduce
I0403 21:56:25.389520 13352 net.cpp:386] inception_5a/relu_3x3_reduce -> inception_5a/3x3_reduce (in-place)
I0403 21:56:25.389715 13352 net.cpp:141] Setting up inception_5a/relu_3x3_reduce
I0403 21:56:25.389744 13352 net.cpp:148] Top shape: 24 160 7 7 (188160)
I0403 21:56:25.389760 13352 net.cpp:156] Memory required for data: 1296039456
I0403 21:56:25.389775 13352 layer_factory.hpp:77] Creating layer inception_5a/3x3
I0403 21:56:25.389798 13352 net.cpp:91] Creating Layer inception_5a/3x3
I0403 21:56:25.389816 13352 net.cpp:425] inception_5a/3x3 <- inception_5a/3x3_reduce
I0403 21:56:25.389834 13352 net.cpp:399] inception_5a/3x3 -> inception_5a/3x3
I0403 21:56:25.394769 13352 net.cpp:141] Setting up inception_5a/3x3
I0403 21:56:25.394801 13352 net.cpp:148] Top shape: 24 320 7 7 (376320)
I0403 21:56:25.394819 13352 net.cpp:156] Memory required for data: 1297544736
I0403 21:56:25.394837 13352 layer_factory.hpp:77] Creating layer inception_5a/relu_3x3
I0403 21:56:25.394855 13352 net.cpp:91] Creating Layer inception_5a/relu_3x3
I0403 21:56:25.394871 13352 net.cpp:425] inception_5a/relu_3x3 <- inception_5a/3x3
I0403 21:56:25.394888 13352 net.cpp:386] inception_5a/relu_3x3 -> inception_5a/3x3 (in-place)
I0403 21:56:25.395170 13352 net.cpp:141] Setting up inception_5a/relu_3x3
I0403 21:56:25.395197 13352 net.cpp:148] Top shape: 24 320 7 7 (376320)
I0403 21:56:25.395218 13352 net.cpp:156] Memory required for data: 1299050016
I0403 21:56:25.395234 13352 layer_factory.hpp:77] Creating layer inception_5a/5x5_reduce
I0403 21:56:25.395256 13352 net.cpp:91] Creating Layer inception_5a/5x5_reduce
I0403 21:56:25.395273 13352 net.cpp:425] inception_5a/5x5_reduce <- pool4/3x3_s2_pool4/3x3_s2_0_split_2
I0403 21:56:25.395292 13352 net.cpp:399] inception_5a/5x5_reduce -> inception_5a/5x5_reduce
I0403 21:56:25.396397 13352 net.cpp:141] Setting up inception_5a/5x5_reduce
I0403 21:56:25.396426 13352 net.cpp:148] Top shape: 24 32 7 7 (37632)
I0403 21:56:25.396442 13352 net.cpp:156] Memory required for data: 1299200544
I0403 21:56:25.396461 13352 layer_factory.hpp:77] Creating layer inception_5a/relu_5x5_reduce
I0403 21:56:25.396477 13352 net.cpp:91] Creating Layer inception_5a/relu_5x5_reduce
I0403 21:56:25.396493 13352 net.cpp:425] inception_5a/relu_5x5_reduce <- inception_5a/5x5_reduce
I0403 21:56:25.396512 13352 net.cpp:386] inception_5a/relu_5x5_reduce -> inception_5a/5x5_reduce (in-place)
I0403 21:56:25.396828 13352 net.cpp:141] Setting up inception_5a/relu_5x5_reduce
I0403 21:56:25.396855 13352 net.cpp:148] Top shape: 24 32 7 7 (37632)
I0403 21:56:25.396870 13352 net.cpp:156] Memory required for data: 1299351072
I0403 21:56:25.396896 13352 layer_factory.hpp:77] Creating layer inception_5a/5x5
I0403 21:56:25.396919 13352 net.cpp:91] Creating Layer inception_5a/5x5
I0403 21:56:25.396935 13352 net.cpp:425] inception_5a/5x5 <- inception_5a/5x5_reduce
I0403 21:56:25.396956 13352 net.cpp:399] inception_5a/5x5 -> inception_5a/5x5
I0403 21:56:25.398603 13352 net.cpp:141] Setting up inception_5a/5x5
I0403 21:56:25.398643 13352 net.cpp:148] Top shape: 24 128 7 7 (150528)
I0403 21:56:25.398659 13352 net.cpp:156] Memory required for data: 1299953184
I0403 21:56:25.398677 13352 layer_factory.hpp:77] Creating layer inception_5a/relu_5x5
I0403 21:56:25.398694 13352 net.cpp:91] Creating Layer inception_5a/relu_5x5
I0403 21:56:25.398710 13352 net.cpp:425] inception_5a/relu_5x5 <- inception_5a/5x5
I0403 21:56:25.398727 13352 net.cpp:386] inception_5a/relu_5x5 -> inception_5a/5x5 (in-place)
I0403 21:56:25.398912 13352 net.cpp:141] Setting up inception_5a/relu_5x5
I0403 21:56:25.398936 13352 net.cpp:148] Top shape: 24 128 7 7 (150528)
I0403 21:56:25.398950 13352 net.cpp:156] Memory required for data: 1300555296
I0403 21:56:25.398965 13352 layer_factory.hpp:77] Creating layer inception_5a/pool
I0403 21:56:25.398983 13352 net.cpp:91] Creating Layer inception_5a/pool
I0403 21:56:25.398998 13352 net.cpp:425] inception_5a/pool <- pool4/3x3_s2_pool4/3x3_s2_0_split_3
I0403 21:56:25.399019 13352 net.cpp:399] inception_5a/pool -> inception_5a/pool
I0403 21:56:25.399082 13352 net.cpp:141] Setting up inception_5a/pool
I0403 21:56:25.399107 13352 net.cpp:148] Top shape: 24 832 7 7 (978432)
I0403 21:56:25.399122 13352 net.cpp:156] Memory required for data: 1304469024
I0403 21:56:25.399135 13352 layer_factory.hpp:77] Creating layer inception_5a/pool_proj
I0403 21:56:25.399158 13352 net.cpp:91] Creating Layer inception_5a/pool_proj
I0403 21:56:25.399174 13352 net.cpp:425] inception_5a/pool_proj <- inception_5a/pool
I0403 21:56:25.399191 13352 net.cpp:399] inception_5a/pool_proj -> inception_5a/pool_proj
I0403 21:56:25.401420 13352 net.cpp:141] Setting up inception_5a/pool_proj
I0403 21:56:25.401448 13352 net.cpp:148] Top shape: 24 128 7 7 (150528)
I0403 21:56:25.401463 13352 net.cpp:156] Memory required for data: 1305071136
I0403 21:56:25.401481 13352 layer_factory.hpp:77] Creating layer inception_5a/relu_pool_proj
I0403 21:56:25.401501 13352 net.cpp:91] Creating Layer inception_5a/relu_pool_proj
I0403 21:56:25.401517 13352 net.cpp:425] inception_5a/relu_pool_proj <- inception_5a/pool_proj
I0403 21:56:25.401533 13352 net.cpp:386] inception_5a/relu_pool_proj -> inception_5a/pool_proj (in-place)
I0403 21:56:25.401813 13352 net.cpp:141] Setting up inception_5a/relu_pool_proj
I0403 21:56:25.401837 13352 net.cpp:148] Top shape: 24 128 7 7 (150528)
I0403 21:56:25.401851 13352 net.cpp:156] Memory required for data: 1305673248
I0403 21:56:25.401866 13352 layer_factory.hpp:77] Creating layer inception_5a/output
I0403 21:56:25.401885 13352 net.cpp:91] Creating Layer inception_5a/output
I0403 21:56:25.401901 13352 net.cpp:425] inception_5a/output <- inception_5a/1x1
I0403 21:56:25.401917 13352 net.cpp:425] inception_5a/output <- inception_5a/3x3
I0403 21:56:25.401933 13352 net.cpp:425] inception_5a/output <- inception_5a/5x5
I0403 21:56:25.401948 13352 net.cpp:425] inception_5a/output <- inception_5a/pool_proj
I0403 21:56:25.401965 13352 net.cpp:399] inception_5a/output -> inception_5a/output
I0403 21:56:25.402014 13352 net.cpp:141] Setting up inception_5a/output
I0403 21:56:25.402036 13352 net.cpp:148] Top shape: 24 832 7 7 (978432)
I0403 21:56:25.402050 13352 net.cpp:156] Memory required for data: 1309586976
I0403 21:56:25.402063 13352 layer_factory.hpp:77] Creating layer inception_5a/output_inception_5a/output_0_split
I0403 21:56:25.402081 13352 net.cpp:91] Creating Layer inception_5a/output_inception_5a/output_0_split
I0403 21:56:25.402096 13352 net.cpp:425] inception_5a/output_inception_5a/output_0_split <- inception_5a/output
I0403 21:56:25.402114 13352 net.cpp:399] inception_5a/output_inception_5a/output_0_split -> inception_5a/output_inception_5a/output_0_split_0
I0403 21:56:25.402134 13352 net.cpp:399] inception_5a/output_inception_5a/output_0_split -> inception_5a/output_inception_5a/output_0_split_1
I0403 21:56:25.402153 13352 net.cpp:399] inception_5a/output_inception_5a/output_0_split -> inception_5a/output_inception_5a/output_0_split_2
I0403 21:56:25.402171 13352 net.cpp:399] inception_5a/output_inception_5a/output_0_split -> inception_5a/output_inception_5a/output_0_split_3
I0403 21:56:25.402289 13352 net.cpp:141] Setting up inception_5a/output_inception_5a/output_0_split
I0403 21:56:25.402314 13352 net.cpp:148] Top shape: 24 832 7 7 (978432)
I0403 21:56:25.402331 13352 net.cpp:148] Top shape: 24 832 7 7 (978432)
I0403 21:56:25.402348 13352 net.cpp:148] Top shape: 24 832 7 7 (978432)
I0403 21:56:25.402361 13352 net.cpp:148] Top shape: 24 832 7 7 (978432)
I0403 21:56:25.402374 13352 net.cpp:156] Memory required for data: 1325241888
I0403 21:56:25.402390 13352 layer_factory.hpp:77] Creating layer inception_5b/1x1
I0403 21:56:25.402410 13352 net.cpp:91] Creating Layer inception_5b/1x1
I0403 21:56:25.402428 13352 net.cpp:425] inception_5b/1x1 <- inception_5a/output_inception_5a/output_0_split_0
I0403 21:56:25.402446 13352 net.cpp:399] inception_5b/1x1 -> inception_5b/1x1
I0403 21:56:25.406043 13352 net.cpp:141] Setting up inception_5b/1x1
I0403 21:56:25.406070 13352 net.cpp:148] Top shape: 24 384 7 7 (451584)
I0403 21:56:25.406085 13352 net.cpp:156] Memory required for data: 1327048224
I0403 21:56:25.406103 13352 layer_factory.hpp:77] Creating layer inception_5b/relu_1x1
I0403 21:56:25.406123 13352 net.cpp:91] Creating Layer inception_5b/relu_1x1
I0403 21:56:25.406141 13352 net.cpp:425] inception_5b/relu_1x1 <- inception_5b/1x1
I0403 21:56:25.406157 13352 net.cpp:386] inception_5b/relu_1x1 -> inception_5b/1x1 (in-place)
I0403 21:56:25.406458 13352 net.cpp:141] Setting up inception_5b/relu_1x1
I0403 21:56:25.406483 13352 net.cpp:148] Top shape: 24 384 7 7 (451584)
I0403 21:56:25.406498 13352 net.cpp:156] Memory required for data: 1328854560
I0403 21:56:25.406512 13352 layer_factory.hpp:77] Creating layer inception_5b/3x3_reduce
I0403 21:56:25.406534 13352 net.cpp:91] Creating Layer inception_5b/3x3_reduce
I0403 21:56:25.406551 13352 net.cpp:425] inception_5b/3x3_reduce <- inception_5a/output_inception_5a/output_0_split_1
I0403 21:56:25.406572 13352 net.cpp:399] inception_5b/3x3_reduce -> inception_5b/3x3_reduce
I0403 21:56:25.409171 13352 net.cpp:141] Setting up inception_5b/3x3_reduce
I0403 21:56:25.409199 13352 net.cpp:148] Top shape: 24 192 7 7 (225792)
I0403 21:56:25.409220 13352 net.cpp:156] Memory required for data: 1329757728
I0403 21:56:25.409240 13352 layer_factory.hpp:77] Creating layer inception_5b/relu_3x3_reduce
I0403 21:56:25.409260 13352 net.cpp:91] Creating Layer inception_5b/relu_3x3_reduce
I0403 21:56:25.409277 13352 net.cpp:425] inception_5b/relu_3x3_reduce <- inception_5b/3x3_reduce
I0403 21:56:25.409294 13352 net.cpp:386] inception_5b/relu_3x3_reduce -> inception_5b/3x3_reduce (in-place)
I0403 21:56:25.409477 13352 net.cpp:141] Setting up inception_5b/relu_3x3_reduce
I0403 21:56:25.409503 13352 net.cpp:148] Top shape: 24 192 7 7 (225792)
I0403 21:56:25.409518 13352 net.cpp:156] Memory required for data: 1330660896
I0403 21:56:25.409533 13352 layer_factory.hpp:77] Creating layer inception_5b/3x3
I0403 21:56:25.409560 13352 net.cpp:91] Creating Layer inception_5b/3x3
I0403 21:56:25.409590 13352 net.cpp:425] inception_5b/3x3 <- inception_5b/3x3_reduce
I0403 21:56:25.409610 13352 net.cpp:399] inception_5b/3x3 -> inception_5b/3x3
I0403 21:56:25.416107 13352 net.cpp:141] Setting up inception_5b/3x3
I0403 21:56:25.416137 13352 net.cpp:148] Top shape: 24 384 7 7 (451584)
I0403 21:56:25.416154 13352 net.cpp:156] Memory required for data: 1332467232
I0403 21:56:25.416173 13352 layer_factory.hpp:77] Creating layer inception_5b/relu_3x3
I0403 21:56:25.416193 13352 net.cpp:91] Creating Layer inception_5b/relu_3x3
I0403 21:56:25.416214 13352 net.cpp:425] inception_5b/relu_3x3 <- inception_5b/3x3
I0403 21:56:25.416234 13352 net.cpp:386] inception_5b/relu_3x3 -> inception_5b/3x3 (in-place)
I0403 21:56:25.416522 13352 net.cpp:141] Setting up inception_5b/relu_3x3
I0403 21:56:25.416546 13352 net.cpp:148] Top shape: 24 384 7 7 (451584)
I0403 21:56:25.416561 13352 net.cpp:156] Memory required for data: 1334273568
I0403 21:56:25.416575 13352 layer_factory.hpp:77] Creating layer inception_5b/5x5_reduce
I0403 21:56:25.416616 13352 net.cpp:91] Creating Layer inception_5b/5x5_reduce
I0403 21:56:25.416635 13352 net.cpp:425] inception_5b/5x5_reduce <- inception_5a/output_inception_5a/output_0_split_2
I0403 21:56:25.416653 13352 net.cpp:399] inception_5b/5x5_reduce -> inception_5b/5x5_reduce
I0403 21:56:25.417863 13352 net.cpp:141] Setting up inception_5b/5x5_reduce
I0403 21:56:25.417891 13352 net.cpp:148] Top shape: 24 48 7 7 (56448)
I0403 21:56:25.417906 13352 net.cpp:156] Memory required for data: 1334499360
I0403 21:56:25.417923 13352 layer_factory.hpp:77] Creating layer inception_5b/relu_5x5_reduce
I0403 21:56:25.417944 13352 net.cpp:91] Creating Layer inception_5b/relu_5x5_reduce
I0403 21:56:25.417960 13352 net.cpp:425] inception_5b/relu_5x5_reduce <- inception_5b/5x5_reduce
I0403 21:56:25.417979 13352 net.cpp:386] inception_5b/relu_5x5_reduce -> inception_5b/5x5_reduce (in-place)
I0403 21:56:25.418346 13352 net.cpp:141] Setting up inception_5b/relu_5x5_reduce
I0403 21:56:25.418371 13352 net.cpp:148] Top shape: 24 48 7 7 (56448)
I0403 21:56:25.418386 13352 net.cpp:156] Memory required for data: 1334725152
I0403 21:56:25.418401 13352 layer_factory.hpp:77] Creating layer inception_5b/5x5
I0403 21:56:25.418421 13352 net.cpp:91] Creating Layer inception_5b/5x5
I0403 21:56:25.418437 13352 net.cpp:425] inception_5b/5x5 <- inception_5b/5x5_reduce
I0403 21:56:25.418457 13352 net.cpp:399] inception_5b/5x5 -> inception_5b/5x5
I0403 21:56:25.420413 13352 net.cpp:141] Setting up inception_5b/5x5
I0403 21:56:25.420441 13352 net.cpp:148] Top shape: 24 128 7 7 (150528)
I0403 21:56:25.420457 13352 net.cpp:156] Memory required for data: 1335327264
I0403 21:56:25.420475 13352 layer_factory.hpp:77] Creating layer inception_5b/relu_5x5
I0403 21:56:25.420493 13352 net.cpp:91] Creating Layer inception_5b/relu_5x5
I0403 21:56:25.420509 13352 net.cpp:425] inception_5b/relu_5x5 <- inception_5b/5x5
I0403 21:56:25.420528 13352 net.cpp:386] inception_5b/relu_5x5 -> inception_5b/5x5 (in-place)
I0403 21:56:25.420714 13352 net.cpp:141] Setting up inception_5b/relu_5x5
I0403 21:56:25.420738 13352 net.cpp:148] Top shape: 24 128 7 7 (150528)
I0403 21:56:25.420753 13352 net.cpp:156] Memory required for data: 1335929376
I0403 21:56:25.420768 13352 layer_factory.hpp:77] Creating layer inception_5b/pool
I0403 21:56:25.420784 13352 net.cpp:91] Creating Layer inception_5b/pool
I0403 21:56:25.420799 13352 net.cpp:425] inception_5b/pool <- inception_5a/output_inception_5a/output_0_split_3
I0403 21:56:25.420819 13352 net.cpp:399] inception_5b/pool -> inception_5b/pool
I0403 21:56:25.420889 13352 net.cpp:141] Setting up inception_5b/pool
I0403 21:56:25.420912 13352 net.cpp:148] Top shape: 24 832 7 7 (978432)
I0403 21:56:25.420927 13352 net.cpp:156] Memory required for data: 1339843104
I0403 21:56:25.420940 13352 layer_factory.hpp:77] Creating layer inception_5b/pool_proj
I0403 21:56:25.420964 13352 net.cpp:91] Creating Layer inception_5b/pool_proj
I0403 21:56:25.420981 13352 net.cpp:425] inception_5b/pool_proj <- inception_5b/pool
I0403 21:56:25.421000 13352 net.cpp:399] inception_5b/pool_proj -> inception_5b/pool_proj
I0403 21:56:25.423264 13352 net.cpp:141] Setting up inception_5b/pool_proj
I0403 21:56:25.423295 13352 net.cpp:148] Top shape: 24 128 7 7 (150528)
I0403 21:56:25.423311 13352 net.cpp:156] Memory required for data: 1340445216
I0403 21:56:25.423331 13352 layer_factory.hpp:77] Creating layer inception_5b/relu_pool_proj
I0403 21:56:25.423348 13352 net.cpp:91] Creating Layer inception_5b/relu_pool_proj
I0403 21:56:25.423364 13352 net.cpp:425] inception_5b/relu_pool_proj <- inception_5b/pool_proj
I0403 21:56:25.423382 13352 net.cpp:386] inception_5b/relu_pool_proj -> inception_5b/pool_proj (in-place)
I0403 21:56:25.423667 13352 net.cpp:141] Setting up inception_5b/relu_pool_proj
I0403 21:56:25.423694 13352 net.cpp:148] Top shape: 24 128 7 7 (150528)
I0403 21:56:25.423712 13352 net.cpp:156] Memory required for data: 1341047328
I0403 21:56:25.423727 13352 layer_factory.hpp:77] Creating layer inception_5b/output
I0403 21:56:25.423743 13352 net.cpp:91] Creating Layer inception_5b/output
I0403 21:56:25.423773 13352 net.cpp:425] inception_5b/output <- inception_5b/1x1
I0403 21:56:25.423789 13352 net.cpp:425] inception_5b/output <- inception_5b/3x3
I0403 21:56:25.423805 13352 net.cpp:425] inception_5b/output <- inception_5b/5x5
I0403 21:56:25.423820 13352 net.cpp:425] inception_5b/output <- inception_5b/pool_proj
I0403 21:56:25.423837 13352 net.cpp:399] inception_5b/output -> inception_5b/output
I0403 21:56:25.423887 13352 net.cpp:141] Setting up inception_5b/output
I0403 21:56:25.423908 13352 net.cpp:148] Top shape: 24 1024 7 7 (1204224)
I0403 21:56:25.423923 13352 net.cpp:156] Memory required for data: 1345864224
I0403 21:56:25.423938 13352 layer_factory.hpp:77] Creating layer pool5/7x7_s1
I0403 21:56:25.423957 13352 net.cpp:91] Creating Layer pool5/7x7_s1
I0403 21:56:25.423974 13352 net.cpp:425] pool5/7x7_s1 <- inception_5b/output
I0403 21:56:25.423991 13352 net.cpp:399] pool5/7x7_s1 -> pool5/7x7_s1
I0403 21:56:25.424196 13352 net.cpp:141] Setting up pool5/7x7_s1
I0403 21:56:25.424227 13352 net.cpp:148] Top shape: 24 1024 1 1 (24576)
I0403 21:56:25.424242 13352 net.cpp:156] Memory required for data: 1345962528
I0403 21:56:25.424257 13352 layer_factory.hpp:77] Creating layer pool5/drop_7x7_s1
I0403 21:56:25.424274 13352 net.cpp:91] Creating Layer pool5/drop_7x7_s1
I0403 21:56:25.424289 13352 net.cpp:425] pool5/drop_7x7_s1 <- pool5/7x7_s1
I0403 21:56:25.424306 13352 net.cpp:386] pool5/drop_7x7_s1 -> pool5/7x7_s1 (in-place)
I0403 21:56:25.424355 13352 net.cpp:141] Setting up pool5/drop_7x7_s1
I0403 21:56:25.424376 13352 net.cpp:148] Top shape: 24 1024 1 1 (24576)
I0403 21:56:25.424391 13352 net.cpp:156] Memory required for data: 1346060832
I0403 21:56:25.424404 13352 layer_factory.hpp:77] Creating layer loss3/classifier_plantvillage
I0403 21:56:25.424425 13352 net.cpp:91] Creating Layer loss3/classifier_plantvillage
I0403 21:56:25.424442 13352 net.cpp:425] loss3/classifier_plantvillage <- pool5/7x7_s1
I0403 21:56:25.424459 13352 net.cpp:399] loss3/classifier_plantvillage -> loss3/classifier_plantvillage
I0403 21:56:25.424862 13352 net.cpp:141] Setting up loss3/classifier_plantvillage
I0403 21:56:25.424887 13352 net.cpp:148] Top shape: 24 38 (912)
I0403 21:56:25.424902 13352 net.cpp:156] Memory required for data: 1346064480
I0403 21:56:25.424919 13352 layer_factory.hpp:77] Creating layer loss3/classifier_plantvillage_loss3/classifier_plantvillage_0_split
I0403 21:56:25.424937 13352 net.cpp:91] Creating Layer loss3/classifier_plantvillage_loss3/classifier_plantvillage_0_split
I0403 21:56:25.424952 13352 net.cpp:425] loss3/classifier_plantvillage_loss3/classifier_plantvillage_0_split <- loss3/classifier_plantvillage
I0403 21:56:25.424973 13352 net.cpp:399] loss3/classifier_plantvillage_loss3/classifier_plantvillage_0_split -> loss3/classifier_plantvillage_loss3/classifier_plantvillage_0_split_0
I0403 21:56:25.424993 13352 net.cpp:399] loss3/classifier_plantvillage_loss3/classifier_plantvillage_0_split -> loss3/classifier_plantvillage_loss3/classifier_plantvillage_0_split_1
I0403 21:56:25.425012 13352 net.cpp:399] loss3/classifier_plantvillage_loss3/classifier_plantvillage_0_split -> loss3/classifier_plantvillage_loss3/classifier_plantvillage_0_split_2
I0403 21:56:25.425031 13352 net.cpp:399] loss3/classifier_plantvillage_loss3/classifier_plantvillage_0_split -> loss3/classifier_plantvillage_loss3/classifier_plantvillage_0_split_3
I0403 21:56:25.425132 13352 net.cpp:141] Setting up loss3/classifier_plantvillage_loss3/classifier_plantvillage_0_split
I0403 21:56:25.425156 13352 net.cpp:148] Top shape: 24 38 (912)
I0403 21:56:25.425173 13352 net.cpp:148] Top shape: 24 38 (912)
I0403 21:56:25.425187 13352 net.cpp:148] Top shape: 24 38 (912)
I0403 21:56:25.425202 13352 net.cpp:148] Top shape: 24 38 (912)
I0403 21:56:25.425221 13352 net.cpp:156] Memory required for data: 1346079072
I0403 21:56:25.425236 13352 layer_factory.hpp:77] Creating layer loss1/loss
I0403 21:56:25.425257 13352 net.cpp:91] Creating Layer loss1/loss
I0403 21:56:25.425274 13352 net.cpp:425] loss1/loss <- loss1/classifier_plantvillage_loss1/classifier_plantvillage_0_split_0
I0403 21:56:25.425303 13352 net.cpp:425] loss1/loss <- label_data_1_split_0
…
