…
I0403 21:52:07.193084 13115 net.cpp:313] The NetState phase (1) differed from the phase (0) specified by a rule in layer data
I0403 21:52:07.194205 13115 net.cpp:49] Initializing net from parameters: 
state {
  phase: TEST
}
layer {
  name: "data"
  type: "Data"
  top: "data"
  top: "label"
  include {
    phase: TEST
  }
  transform_param {
    mirror: false
    crop_size: 224
    mean_file: "/home/mohanty/data/final_dataset/lmdb/color-80-20/mean.binaryproto"
  }
  data_param {
    source: "/home/mohanty/data/final_dataset/lmdb/color-80-20/test_db"
    batch_size: 24
    backend: LMDB
  }
}
layer {
  name: "conv1/7x7_s2"
  type: "Convolution"
  bottom: "data"
  top: "conv1/7x7_s2"
  param {
    lr_mult: 1
    decay_mult: 1
  }
  param {
    lr_mult: 2
    decay_mult: 0
  }
  convolution_param {
    num_output: 64
    pad: 3
    kernel_size: 7
    stride: 2
    weight_filler {
      type: "xavier"
      std: 0.1
    }
    bias_filler {
      type: "constant"
      value: 0.2
    }
  }
}
layer {
  name: "conv1/relu_7x7"
  type: "ReLU"
  bottom: "conv1/7x7_s2"
  top: "conv1/7x7_s2"
}
layer {
  name: "pool1/3x3_s2"
  type: "Pooling"
  bottom: "conv1/7x7_s2"
  top: "pool1/3x3_s2"
  pooling_param {
    pool: MAX
    kernel_size: 3
    stride: 2
  }
}
layer {
  name: "pool1/norm1"
  type: "LRN"
  bottom: "pool1/3x3_s2"
  top: "pool1/norm1"
  lrn_param {
    local_size: 5
    alpha: 0.0001
    beta: 0.75
  }
}
layer {
  name: "conv2/3x3_reduce"
  type: "Convolution"
  bottom: "pool1/norm1"
  top: "conv2/3x3_reduce"
  param {
    lr_mult: 1
    decay_mult: 1
  }
  param {
    lr_mult: 2
    decay_mult: 0
  }
  convolution_param {
    num_output: 64
    kernel_size: 1
    weight_filler {
      type: "xavier"
      std: 0.1
    }
    bias_filler {
      type: "constant"
      value: 0.2
    }
  }
}
layer {
  name: "conv2/relu_3x3_reduce"
  type: "ReLU"
  bottom: "conv2/3x3_reduce"
  top: "conv2/3x3_reduce"
}
layer {
  name: "conv2/3x3"
  type: "Convolution"
  bottom: "conv2/3x3_reduce"
  top: "conv2/3x3"
  param {
    lr_mult: 1
    decay_mult: 1
  }
  param {
    lr_mult: 2
    decay_mult: 0
  }
  convolution_param {
    num_output: 192
    pad: 1
    kernel_size: 3
    weight_filler {
      type: "xavier"
      std: 0.03
    }
    bias_filler {
      type: "constant"
      value: 0.2
    }
  }
}
layer {
  name: "conv2/relu_3x3"
  type: "ReLU"
  bottom: "conv2/3x3"
  top: "conv2/3x3"
}
layer {
  name: "conv2/norm2"
  type: "LRN"
  bottom: "conv2/3x3"
  top: "conv2/norm2"
  lrn_param {
    local_size: 5
    alpha: 0.0001
    beta: 0.75
  }
}
layer {
  name: "pool2/3x3_s2"
  type: "Pooling"
  bottom: "conv2/norm2"
  top: "pool2/3x3_s2"
  pooling_param {
    pool: MAX
    kernel_size: 3
    stride: 2
  }
}
layer {
  name: "inception_3a/1x1"
  type: "Convolution"
  bottom: "pool2/3x3_s2"
  top: "inception_3a/1x1"
  param {
    lr_mult: 1
    decay_mult: 1
  }
  param {
    lr_mult: 2
    decay_mult: 0
  }
  convolution_param {
    num_output: 64
    kernel_size: 1
    weight_filler {
      type: "xavier"
      std: 0.03
    }
    bias_filler {
      type: "constant"
      value: 0.2
    }
  }
}
layer {
  name: "inception_3a/relu_1x1"
  type: "ReLU"
  bottom: "inception_3a/1x1"
  top: "inception_3a/1x1"
}
layer {
  name: "inception_3a/3x3_reduce"
  type: "Convolution"
  bottom: "pool2/3x3_s2"
  top: "inception_3a/3x3_reduce"
  param {
    lr_mult: 1
    decay_mult: 1
  }
  param {
    lr_mult: 2
    decay_mult: 0
  }
  convolution_param {
    num_output: 96
    kernel_size: 1
    weight_filler {
      type: "xavier"
      std: 0.09
    }
    bias_filler {
      type: "constant"
      value: 0.2
    }
  }
}
layer {
  name: "inception_3a/relu_3x3_reduce"
  type: "ReLU"
  bottom: "inception_3a/3x3_reduce"
  top: "inception_3a/3x3_reduce"
}
layer {
  name: "inception_3a/3x3"
  type: "Convolution"
  bottom: "inception_3a/3x3_reduce"
  top: "inception_3a/3x3"
  param {
    lr_mult: 1
    decay_mult: 1
  }
  param {
    lr_mult: 2
    decay_mult: 0
  }
  convolution_param {
    num_output: 128
    pad: 1
    kernel_size: 3
    weight_filler {
      type: "xavier"
      std: 0.03
    }
    bias_filler {
      type: "constant"
      value: 0.2
    }
  }
}
layer {
  name: "inception_3a/relu_3x3"
  type: "ReLU"
  bottom: "inception_3a/3x3"
  top: "inception_3a/3x3"
}
layer {
  name: "inception_3a/5x5_reduce"
  type: "Convolution"
  bottom: "pool2/3x3_s2"
  top: "inception_3a/5x5_reduce"
  param {
    lr_mult: 1
    decay_mult: 1
  }
  param {
    lr_mult: 2
    decay_mult: 0
  }
  convolution_param {
    num_output: 16
    kernel_size: 1
    weight_filler {
      type: "xavier"
      std: 0.2
    }
    bias_filler {
      type: "constant"
      value: 0.2
    }
  }
}
layer {
  name: "inception_3a/relu_5x5_reduce"
  type: "ReLU"
  bottom: "inception_3a/5x5_reduce"
  top: "inception_3a/5x5_reduce"
}
layer {
  name: "inception_3a/5x5"
  type: "Convolution"
  bottom: "inception_3a/5x5_reduce"
  top: "inception_3a/5x5"
  param {
    lr_mult: 1
    decay_mult: 1
  }
  param {
    lr_mult: 2
    decay_mult: 0
  }
  convolution_param {
    num_output: 32
    pad: 2
    kernel_size: 5
    weight_filler {
      type: "xavier"
      std: 0.03
    }
    bias_filler {
      type: "constant"
      value: 0.2
    }
  }
}
layer {
  name: "inception_3a/relu_5x5"
  type: "ReLU"
  bottom: "inception_3a/5x5"
  top: "inception_3a/5x5"
}
layer {
  name: "inception_3a/pool"
  type: "Pooling"
  bottom: "pool2/3x3_s2"
  top: "inception_3a/pool"
  pooling_param {
    pool: MAX
    kernel_size: 3
    stride: 1
    pad: 1
  }
}
layer {
  name: "inception_3a/pool_proj"
  type: "Convolution"
  bottom: "inception_3a/pool"
  top: "inception_3a/pool_proj"
  param {
    lr_mult: 1
    decay_mult: 1
  }
  param {
    lr_mult: 2
    decay_mult: 0
  }
  convolution_param {
    num_output: 32
    kernel_size: 1
    weight_filler {
      type: "xavier"
      std: 0.1
    }
    bias_filler {
      type: "constant"
      value: 0.2
    }
  }
}
layer {
  name: "inception_3a/relu_pool_proj"
  type: "ReLU"
  bottom: "inception_3a/pool_proj"
  top: "inception_3a/pool_proj"
}
layer {
  name: "inception_3a/output"
  type: "Concat"
  bottom: "inception_3a/1x1"
  bottom: "inception_3a/3x3"
  bottom: "inception_3a/5x5"
  bottom: "inception_3a/pool_proj"
  top: "inception_3a/output"
}
layer {
  name: "inception_3b/1x1"
  type: "Convolution"
  bottom: "inception_3a/output"
  top: "inception_3b/1x1"
  param {
    lr_mult: 1
    decay_mult: 1
  }
  param {
    lr_mult: 2
    decay_mult: 0
  }
  convolution_param {
    num_output: 128
    kernel_size: 1
    weight_filler {
      type: "xavier"
      std: 0.03
    }
    bias_filler {
      type: "constant"
      value: 0.2
    }
  }
}
layer {
  name: "inception_3b/relu_1x1"
  type: "ReLU"
  bottom: "inception_3b/1x1"
  top: "inception_3b/1x1"
}
layer {
  name: "inception_3b/3x3_reduce"
  type: "Convolution"
  bottom: "inception_3a/output"
  top: "inception_3b/3x3_reduce"
  param {
    lr_mult: 1
    decay_mult: 1
  }
  param {
    lr_mult: 2
    decay_mult: 0
  }
  convolution_param {
    num_output: 128
    kernel_size: 1
    weight_filler {
      type: "xavier"
      std: 0.09
    }
    bias_filler {
      type: "constant"
      value: 0.2
    }
  }
}
layer {
  name: "inception_3b/relu_3x3_reduce"
  type: "ReLU"
  bottom: "inception_3b/3x3_reduce"
  top: "inception_3b/3x3_reduce"
}
layer {
  name: "inception_3b/3x3"
  type: "Convolution"
  bottom: "inception_3b/3x3_reduce"
  top: "inception_3b/3x3"
  param {
    lr_mult: 1
    decay_mult: 1
  }
  param {
    lr_mult: 2
    decay_mult: 0
  }
  convolution_param {
    num_output: 192
    pad: 1
    kernel_size: 3
    weight_filler {
      type: "xavier"
      std: 0.03
    }
    bias_filler {
      type: "constant"
      value: 0.2
    }
  }
}
layer {
  name: "inception_3b/relu_3x3"
  type: "ReLU"
  bottom: "inception_3b/3x3"
  top: "inception_3b/3x3"
}
layer {
  name: "inception_3b/5x5_reduce"
  type: "Convolution"
  bottom: "inception_3a/output"
  top: "inception_3b/5x5_reduce"
  param {
    lr_mult: 1
    decay_mult: 1
  }
  param {
    lr_mult: 2
    decay_mult: 0
  }
  convolution_param {
    num_output: 32
    kernel_size: 1
    weight_filler {
      type: "xavier"
      std: 0.2
    }
    bias_filler {
      type: "constant"
      value: 0.2
    }
  }
}
layer {
  name: "inception_3b/relu_5x5_reduce"
  type: "ReLU"
  bottom: "inception_3b/5x5_reduce"
  top: "inception_3b/5x5_reduce"
}
layer {
  name: "inception_3b/5x5"
  type: "Convolution"
  bottom: "inception_3b/5x5_reduce"
  top: "inception_3b/5x5"
  param {
    lr_mult: 1
    decay_mult: 1
  }
  param {
    lr_mult: 2
    decay_mult: 0
  }
  convolution_param {
    num_output: 96
    pad: 2
    kernel_size: 5
    weight_filler {
      type: "xavier"
      std: 0.03
    }
    bias_filler {
      type: "constant"
      value: 0.2
    }
  }
}
layer {
  name: "inception_3b/relu_5x5"
  type: "ReLU"
  bottom: "inception_3b/5x5"
  top: "inception_3b/5x5"
}
layer {
  name: "inception_3b/pool"
  type: "Pooling"
  bottom: "inception_3a/output"
  top: "inception_3b/pool"
  pooling_param {
    pool: MAX
    kernel_size: 3
    stride: 1
    pad: 1
  }
}
layer {
  name: "inception_3b/pool_proj"
  type: "Convolution"
  bottom: "inception_3b/pool"
  top: "inception_3b/pool_proj"
  param {
    lr_mult: 1
    decay_mult: 1
  }
  param {
    lr_mult: 2
    decay_mult: 0
  }
  convolution_param {
    num_output: 64
    kernel_size: 1
    weight_filler {
      type: "xavier"
      std: 0.1
    }
    bias_filler {
      type: "constant"
      value: 0.2
    }
  }
}
layer {
  name: "inception_3b/relu_pool_proj"
  type: "ReLU"
  bottom: "inception_3b/pool_proj"
  top: "inception_3b/pool_proj"
}
layer {
  name: "inception_3b/output"
  type: "Concat"
  bottom: "inception_3b/1x1"
  bottom: "inception_3b/3x3"
  bottom: "inception_3b/5x5"
  bottom: "inception_3b/pool_proj"
  top: "inception_3b/output"
}
layer {
  name: "pool3/3x3_s2"
  type: "Pooling"
  bottom: "inception_3b/output"
  top: "pool3/3x3_s2"
  pooling_param {
    pool: MAX
    kernel_size: 3
    stride: 2
  }
}
layer {
  name: "inception_4a/1x1"
  type: "Convolution"
  bottom: "pool3/3x3_s2"
  top: "inception_4a/1x1"
  param {
    lr_mult: 1
    decay_mult: 1
  }
  param {
    lr_mult: 2
    decay_mult: 0
  }
  convolution_param {
    num_output: 192
    kernel_size: 1
    weight_filler {
      type: "xavier"
      std: 0.03
    }
    bias_filler {
      type: "constant"
      value: 0.2
    }
  }
}
layer {
  name: "inception_4a/relu_1x1"
  type: "ReLU"
  bottom: "inception_4a/1x1"
  top: "inception_4a/1x1"
}
layer {
  name: "inception_4a/3x3_reduce"
  type: "Convolution"
  bottom: "pool3/3x3_s2"
  top: "inception_4a/3x3_reduce"
  param {
    lr_mult: 1
    decay_mult: 1
  }
  param {
    lr_mult: 2
    decay_mult: 0
  }
  convolution_param {
    num_output: 96
    kernel_size: 1
    weight_filler {
      type: "xavier"
      std: 0.09
    }
    bias_filler {
      type: "constant"
      value: 0.2
    }
  }
}
layer {
  name: "inception_4a/relu_3x3_reduce"
  type: "ReLU"
  bottom: "inception_4a/3x3_reduce"
  top: "inception_4a/3x3_reduce"
}
layer {
  name: "inception_4a/3x3"
  type: "Convolution"
  bottom: "inception_4a/3x3_reduce"
  top: "inception_4a/3x3"
  param {
    lr_mult: 1
    decay_mult: 1
  }
  param {
    lr_mult: 2
    decay_mult: 0
  }
  convolution_param {
    num_output: 208
    pad: 1
    kernel_size: 3
    weight_filler {
      type: "xavier"
      std: 0.03
    }
    bias_filler {
      type: "constant"
      value: 0.2
    }
  }
}
layer {
  name: "inception_4a/relu_3x3"
  type: "ReLU"
  bottom: "inception_4a/3x3"
  top: "inception_4a/3x3"
}
layer {
  name: "inception_4a/5x5_reduce"
  type: "Convolution"
  bottom: "pool3/3x3_s2"
  top: "inception_4a/5x5_reduce"
  param {
    lr_mult: 1
    decay_mult: 1
  }
  param {
    lr_mult: 2
    decay_mult: 0
  }
  convolution_param {
    num_output: 16
    kernel_size: 1
    weight_filler {
      type: "xavier"
      std: 0.2
    }
    bias_filler {
      type: "constant"
      value: 0.2
    }
  }
}
layer {
  name: "inception_4a/relu_5x5_reduce"
  type: "ReLU"
  bottom: "inception_4a/5x5_reduce"
  top: "inception_4a/5x5_reduce"
}
layer {
  name: "inception_4a/5x5"
  type: "Convolution"
  bottom: "inception_4a/5x5_reduce"
  top: "inception_4a/5x5"
  param {
    lr_mult: 1
    decay_mult: 1
  }
  param {
    lr_mult: 2
    decay_mult: 0
  }
  convolution_param {
    num_output: 48
    pad: 2
    kernel_size: 5
    weight_filler {
      type: "xavier"
      std: 0.03
    }
    bias_filler {
      type: "constant"
      value: 0.2
    }
  }
}
layer {
  name: "inception_4a/relu_5x5"
  type: "ReLU"
  bottom: "inception_4a/5x5"
  top: "inception_4a/5x5"
}
layer {
  name: "inception_4a/pool"
  type: "Pooling"
  bottom: "pool3/3x3_s2"
  top: "inception_4a/pool"
  pooling_param {
    pool: MAX
    kernel_size: 3
    stride: 1
    pad: 1
  }
}
layer {
  name: "inception_4a/pool_proj"
  type: "Convolution"
  bottom: "inception_4a/pool"
  top: "inception_4a/pool_proj"
  param {
    lr_mult: 1
    decay_mult: 1
  }
  param {
    lr_mult: 2
    decay_mult: 0
  }
  convolution_param {
    num_output: 64
    kernel_size: 1
    weight_filler {
      type: "xavier"
      std: 0.1
    }
    bias_filler {
      type: "constant"
      value: 0.2
    }
  }
}
layer {
  name: "inception_4a/relu_pool_proj"
  type: "ReLU"
  bottom: "inception_4a/pool_proj"
  top: "inception_4a/pool_proj"
}
layer {
  name: "inception_4a/output"
  type: "Concat"
  bottom: "inception_4a/1x1"
  bottom: "inception_4a/3x3"
  bottom: "inception_4a/5x5"
  bottom: "inception_4a/pool_proj"
  top: "inception_4a/output"
}
layer {
  name: "loss1/ave_pool"
  type: "Pooling"
  bottom: "inception_4a/output"
  top: "loss1/ave_pool"
  pooling_param {
    pool: AVE
    kernel_size: 5
    stride: 3
  }
}
layer {
  name: "loss1/conv"
  type: "Convolution"
  bottom: "loss1/ave_pool"
  top: "loss1/conv"
  param {
    lr_mult: 1
    decay_mult: 1
  }
  param {
    lr_mult: 2
    decay_mult: 0
  }
  convolution_param {
    num_output: 128
    kernel_size: 1
    weight_filler {
      type: "xavier"
      std: 0.08
    }
    bias_filler {
      type: "constant"
      value: 0.2
    }
  }
}
layer {
  name: "loss1/relu_conv"
  type: "ReLU"
  bottom: "loss1/conv"
  top: "loss1/conv"
}
layer {
  name: "loss1/fc"
  type: "InnerProduct"
  bottom: "loss1/conv"
  top: "loss1/fc"
  param {
    lr_mult: 1
    decay_mult: 1
  }
  param {
    lr_mult: 2
    decay_mult: 0
  }
  inner_product_param {
    num_output: 1024
    weight_filler {
      type: "xavier"
      std: 0.02
    }
    bias_filler {
      type: "constant"
      value: 0.2
    }
  }
}
layer {
  name: "loss1/relu_fc"
  type: "ReLU"
  bottom: "loss1/fc"
  top: "loss1/fc"
}
layer {
  name: "loss1/drop_fc"
  type: "Dropout"
  bottom: "loss1/fc"
  top: "loss1/fc"
  dropout_param {
    dropout_ratio: 0.7
  }
}
layer {
  name: "loss1/classifier_plantvillage"
  type: "InnerProduct"
  bottom: "loss1/fc"
  top: "loss1/classifier_plantvillage"
  param {
    lr_mult: 1
    decay_mult: 1
  }
  param {
    lr_mult: 2
    decay_mult: 0
  }
  inner_product_param {
    num_output: 38
    weight_filler {
      type: "xavier"
      std: 0.0009765625
    }
    bias_filler {
      type: "constant"
      value: 0
    }
  }
}
layer {
  name: "inception_4b/1x1"
  type: "Convolution"
  bottom: "inception_4a/output"
  top: "inception_4b/1x1"
  param {
    lr_mult: 1
    decay_mult: 1
  }
  param {
    lr_mult: 2
    decay_mult: 0
  }
  convolution_param {
    num_output: 160
    kernel_size: 1
    weight_filler {
      type: "xavier"
      std: 0.03
    }
    bias_filler {
      type: "constant"
      value: 0.2
    }
  }
}
layer {
  name: "inception_4b/relu_1x1"
  type: "ReLU"
  bottom: "inception_4b/1x1"
  top: "inception_4b/1x1"
}
layer {
  name: "inception_4b/3x3_reduce"
  type: "Convolution"
  bottom: "inception_4a/output"
  top: "inception_4b/3x3_reduce"
  param {
    lr_mult: 1
    decay_mult: 1
  }
  param {
    lr_mult: 2
    decay_mult: 0
  }
  convolution_param {
    num_output: 112
    kernel_size: 1
    weight_filler {
      type: "xavier"
      std: 0.09
    }
    bias_filler {
      type: "constant"
      value: 0.2
    }
  }
}
layer {
  name: "inception_4b/relu_3x3_reduce"
  type: "ReLU"
  bottom: "inception_4b/3x3_reduce"
  top: "inception_4b/3x3_reduce"
}
layer {
  name: "inception_4b/3x3"
  type: "Convolution"
  bottom: "inception_4b/3x3_reduce"
  top: "inception_4b/3x3"
  param {
    lr_mult: 1
    decay_mult: 1
  }
  param {
    lr_mult: 2
    decay_mult: 0
  }
  convolution_param {
    num_output: 224
    pad: 1
    kernel_size: 3
    weight_filler {
      type: "xavier"
      std: 0.03
    }
    bias_filler {
      type: "constant"
      value: 0.2
    }
  }
}
layer {
  name: "inception_4b/relu_3x3"
  type: "ReLU"
  bottom: "inception_4b/3x3"
  top: "inception_4b/3x3"
}
layer {
  name: "inception_4b/5x5_reduce"
  type: "Convolution"
  bottom: "inception_4a/output"
  top: "inception_4b/5x5_reduce"
  param {
    lr_mult: 1
    decay_mult: 1
  }
  param {
    lr_mult: 2
    decay_mult: 0
  }
  convolution_param {
    num_output: 24
    kernel_size: 1
    weight_filler {
      type: "xavier"
      std: 0.2
    }
    bias_filler {
      type: "constant"
      value: 0.2
    }
  }
}
layer {
  name: "inception_4b/relu_5x5_reduce"
  type: "ReLU"
  bottom: "inception_4b/5x5_reduce"
  top: "inception_4b/5x5_reduce"
}
layer {
  name: "inception_4b/5x5"
  type: "Convolution"
  bottom: "inception_4b/5x5_reduce"
  top: "inception_4b/5x5"
  param {
    lr_mult: 1
    decay_mult: 1
  }
  param {
    lr_mult: 2
    decay_mult: 0
  }
  convolution_param {
    num_output: 64
    pad: 2
    kernel_size: 5
    weight_filler {
      type: "xavier"
      std: 0.03
    }
    bias_filler {
      type: "constant"
      value: 0.2
    }
  }
}
layer {
  name: "inception_4b/relu_5x5"
  type: "ReLU"
  bottom: "inception_4b/5x5"
  top: "inception_4b/5x5"
}
layer {
  name: "inception_4b/pool"
  type: "Pooling"
  bottom: "inception_4a/output"
  top: "inception_4b/pool"
  pooling_param {
    pool: MAX
    kernel_size: 3
    stride: 1
    pad: 1
  }
}
layer {
  name: "inception_4b/pool_proj"
  type: "Convolution"
  bottom: "inception_4b/pool"
  top: "inception_4b/pool_proj"
  param {
    lr_mult: 1
    decay_mult: 1
  }
  param {
    lr_mult: 2
    decay_mult: 0
  }
  convolution_param {
    num_output: 64
    kernel_size: 1
    weight_filler {
      type: "xavier"
      std: 0.1
    }
    bias_filler {
      type: "constant"
      value: 0.2
    }
  }
}
layer {
  name: "inception_4b/relu_pool_proj"
  type: "ReLU"
  bottom: "inception_4b/pool_proj"
  top: "inception_4b/pool_proj"
}
layer {
  name: "inception_4b/output"
  type: "Concat"
  bottom: "inception_4b/1x1"
  bottom: "inception_4b/3x3"
  bottom: "inception_4b/5x5"
  bottom: "inception_4b/pool_proj"
  top: "inception_4b/output"
}
layer {
  name: "inception_4c/1x1"
  type: "Convolution"
  bottom: "inception_4b/output"
  top: "inception_4c/1x1"
  param {
    lr_mult: 1
    decay_mult: 1
  }
  param {
    lr_mult: 2
    decay_mult: 0
  }
  convolution_param {
    num_output: 128
    kernel_size: 1
    weight_filler {
      type: "xavier"
      std: 0.03
    }
    bias_filler {
      type: "constant"
      value: 0.2
    }
  }
}
layer {
  name: "inception_4c/relu_1x1"
  type: "ReLU"
  bottom: "inception_4c/1x1"
  top: "inception_4c/1x1"
}
layer {
  name: "inception_4c/3x3_reduce"
  type: "Convolution"
  bottom: "inception_4b/output"
  top: "inception_4c/3x3_reduce"
  param {
    lr_mult: 1
    decay_mult: 1
  }
  param {
    lr_mult: 2
    decay_mult: 0
  }
  convolution_param {
    num_output: 128
    kernel_size: 1
    weight_filler {
      type: "xavier"
      std: 0.09
    }
    bias_filler {
      type: "constant"
      value: 0.2
    }
  }
}
layer {
  name: "inception_4c/relu_3x3_reduce"
  type: "ReLU"
  bottom: "inception_4c/3x3_reduce"
  top: "inception_4c/3x3_reduce"
}
layer {
  name: "inception_4c/3x3"
  type: "Convolution"
  bottom: "inception_4c/3x3_reduce"
  top: "inception_4c/3x3"
  param {
    lr_mult: 1
    decay_mult: 1
  }
  param {
    lr_mult: 2
    decay_mult: 0
  }
  convolution_param {
    num_output: 256
    pad: 1
    kernel_size: 3
    weight_filler {
      type: "xavier"
      std: 0.03
    }
    bias_filler {
      type: "constant"
      value: 0.2
    }
  }
}
layer {
  name: "inception_4c/relu_3x3"
  type: "ReLU"
  bottom: "inception_4c/3x3"
  top: "inception_4c/3x3"
}
layer {
  name: "inception_4c/5x5_reduce"
  type: "Convolution"
  bottom: "inception_4b/output"
  top: "inception_4c/5x5_reduce"
  param {
    lr_mult: 1
    decay_mult: 1
  }
  param {
    lr_mult: 2
    decay_mult: 0
  }
  convolution_param {
    num_output: 24
    kernel_size: 1
    weight_filler {
      type: "xavier"
      std: 0.2
    }
    bias_filler {
      type: "constant"
      value: 0.2
    }
  }
}
layer {
  name: "inception_4c/relu_5x5_reduce"
  type: "ReLU"
  bottom: "inception_4c/5x5_reduce"
  top: "inception_4c/5x5_reduce"
}
layer {
  name: "inception_4c/5x5"
  type: "Convolution"
  bottom: "inception_4c/5x5_reduce"
  top: "inception_4c/5x5"
  param {
    lr_mult: 1
    decay_mult: 1
  }
  param {
    lr_mult: 2
    decay_mult: 0
  }
  convolution_param {
    num_output: 64
    pad: 2
    kernel_size: 5
    weight_filler {
      type: "xavier"
      std: 0.03
    }
    bias_filler {
      type: "constant"
      value: 0.2
    }
  }
}
layer {
  name: "inception_4c/relu_5x5"
  type: "ReLU"
  bottom: "inception_4c/5x5"
  top: "inception_4c/5x5"
}
layer {
  name: "inception_4c/pool"
  type: "Pooling"
  bottom: "inception_4b/output"
  top: "inception_4c/pool"
  pooling_param {
    pool: MAX
    kernel_size: 3
    stride: 1
    pad: 1
  }
}
layer {
  name: "inception_4c/pool_proj"
  type: "Convolution"
  bottom: "inception_4c/pool"
  top: "inception_4c/pool_proj"
  param {
    lr_mult: 1
    decay_mult: 1
  }
  param {
    lr_mult: 2
    decay_mult: 0
  }
  convolution_param {
    num_output: 64
    kernel_size: 1
    weight_filler {
      type: "xavier"
      std: 0.1
    }
    bias_filler {
      type: "constant"
      value: 0.2
    }
  }
}
layer {
  name: "inception_4c/relu_pool_proj"
  type: "ReLU"
  bottom: "inception_4c/pool_proj"
  top: "inception_4c/pool_proj"
}
layer {
  name: "inception_4c/output"
  type: "Concat"
  bottom: "inception_4c/1x1"
  bottom: "inception_4c/3x3"
  bottom: "inception_4c/5x5"
  bottom: "inception_4c/pool_proj"
  top: "inception_4c/output"
}
layer {
  name: "inception_4d/1x1"
  type: "Convolution"
  bottom: "inception_4c/output"
  top: "inception_4d/1x1"
  param {
    lr_mult: 1
    decay_mult: 1
  }
  param {
    lr_mult: 2
    decay_mult: 0
  }
  convolution_param {
    num_output: 112
    kernel_size: 1
    weight_filler {
      type: "xavier"
      std: 0.03
    }
    bias_filler {
      type: "constant"
      value: 0.2
    }
  }
}
layer {
  name: "inception_4d/relu_1x1"
  type: "ReLU"
  bottom: "inception_4d/1x1"
  top: "inception_4d/1x1"
}
layer {
  name: "inception_4d/3x3_reduce"
  type: "Convolution"
  bottom: "inception_4c/output"
  top: "inception_4d/3x3_reduce"
  param {
    lr_mult: 1
    decay_mult: 1
  }
  param {
    lr_mult: 2
    decay_mult: 0
  }
  convolution_param {
    num_output: 144
    kernel_size: 1
    weight_filler {
      type: "xavier"
      std: 0.09
    }
    bias_filler {
      type: "constant"
      value: 0.2
    }
  }
}
layer {
  name: "inception_4d/relu_3x3_reduce"
  type: "ReLU"
  bottom: "inception_4d/3x3_reduce"
  top: "inception_4d/3x3_reduce"
}
layer {
  name: "inception_4d/3x3"
  type: "Convolution"
  bottom: "inception_4d/3x3_reduce"
  top: "inception_4d/3x3"
  param {
    lr_mult: 1
    decay_mult: 1
  }
  param {
    lr_mult: 2
    decay_mult: 0
  }
  convolution_param {
    num_output: 288
    pad: 1
    kernel_size: 3
    weight_filler {
      type: "xavier"
      std: 0.03
    }
    bias_filler {
      type: "constant"
      value: 0.2
    }
  }
}
layer {
  name: "inception_4d/relu_3x3"
  type: "ReLU"
  bottom: "inception_4d/3x3"
  top: "inception_4d/3x3"
}
layer {
  name: "inception_4d/5x5_reduce"
  type: "Convolution"
  bottom: "inception_4c/output"
  top: "inception_4d/5x5_reduce"
  param {
    lr_mult: 1
    decay_mult: 1
  }
  param {
    lr_mult: 2
    decay_mult: 0
  }
  convolution_param {
    num_output: 32
    kernel_size: 1
    weight_filler {
      type: "xavier"
      std: 0.2
    }
    bias_filler {
      type: "constant"
      value: 0.2
    }
  }
}
layer {
  name: "inception_4d/relu_5x5_reduce"
  type: "ReLU"
  bottom: "inception_4d/5x5_reduce"
  top: "inception_4d/5x5_reduce"
}
layer {
  name: "inception_4d/5x5"
  type: "Convolution"
  bottom: "inception_4d/5x5_reduce"
  top: "inception_4d/5x5"
  param {
    lr_mult: 1
    decay_mult: 1
  }
  param {
    lr_mult: 2
    decay_mult: 0
  }
  convolution_param {
    num_output: 64
    pad: 2
    kernel_size: 5
    weight_filler {
      type: "xavier"
      std: 0.03
    }
    bias_filler {
      type: "constant"
      value: 0.2
    }
  }
}
layer {
  name: "inception_4d/relu_5x5"
  type: "ReLU"
  bottom: "inception_4d/5x5"
  top: "inception_4d/5x5"
}
layer {
  name: "inception_4d/pool"
  type: "Pooling"
  bottom: "inception_4c/output"
  top: "inception_4d/pool"
  pooling_param {
    pool: MAX
    kernel_size: 3
    stride: 1
    pad: 1
  }
}
layer {
  name: "inception_4d/pool_proj"
  type: "Convolution"
  bottom: "inception_4d/pool"
  top: "inception_4d/pool_proj"
  param {
    lr_mult: 1
    decay_mult: 1
  }
  param {
    lr_mult: 2
    decay_mult: 0
  }
  convolution_param {
    num_output: 64
    kernel_size: 1
    weight_filler {
      type: "xavier"
      std: 0.1
    }
    bias_filler {
      type: "constant"
      value: 0.2
    }
  }
}
layer {
  name: "inception_4d/relu_pool_proj"
  type: "ReLU"
  bottom: "inception_4d/pool_proj"
  top: "inception_4d/pool_proj"
}
layer {
  name: "inception_4d/output"
  type: "Concat"
  bottom: "inception_4d/1x1"
  bottom: "inception_4d/3x3"
  bottom: "inception_4d/5x5"
  bottom: "inception_4d/pool_proj"
  top: "inception_4d/output"
}
layer {
  name: "loss2/ave_pool"
  type: "Pooling"
  bottom: "inception_4d/output"
  top: "loss2/ave_pool"
  pooling_param {
    pool: AVE
    kernel_size: 5
    stride: 3
  }
}
layer {
  name: "loss2/conv"
  type: "Convolution"
  bottom: "loss2/ave_pool"
  top: "loss2/conv"
  param {
    lr_mult: 1
    decay_mult: 1
  }
  param {
    lr_mult: 2
    decay_mult: 0
  }
  convolution_param {
    num_output: 128
    kernel_size: 1
    weight_filler {
      type: "xavier"
      std: 0.08
    }
    bias_filler {
      type: "constant"
      value: 0.2
    }
  }
}
layer {
  name: "loss2/relu_conv"
  type: "ReLU"
  bottom: "loss2/conv"
  top: "loss2/conv"
}
layer {
  name: "loss2/fc"
  type: "InnerProduct"
  bottom: "loss2/conv"
  top: "loss2/fc"
  param {
    lr_mult: 1
    decay_mult: 1
  }
  param {
    lr_mult: 2
    decay_mult: 0
  }
  inner_product_param {
    num_output: 1024
    weight_filler {
      type: "xavier"
      std: 0.02
    }
    bias_filler {
      type: "constant"
      value: 0.2
    }
  }
}
layer {
  name: "loss2/relu_fc"
  type: "ReLU"
  bottom: "loss2/fc"
  top: "loss2/fc"
}
layer {
  name: "loss2/drop_fc"
  type: "Dropout"
  bottom: "loss2/fc"
  top: "loss2/fc"
  dropout_param {
    dropout_ratio: 0.7
  }
}
layer {
  name: "loss2/classifier_plantvillage"
  type: "InnerProduct"
  bottom: "loss2/fc"
  top: "loss2/classifier_plantvillage"
  param {
    lr_mult: 1
    decay_mult: 1
  }
  param {
    lr_mult: 2
    decay_mult: 0
  }
  inner_product_param {
    num_output: 38
    weight_filler {
      type: "xavier"
      std: 0.0009765625
    }
    bias_filler {
      type: "constant"
      value: 0
    }
  }
}
layer {
  name: "inception_4e/1x1"
  type: "Convolution"
  bottom: "inception_4d/output"
  top: "inception_4e/1x1"
  param {
    lr_mult: 1
    decay_mult: 1
  }
  param {
    lr_mult: 2
    decay_mult: 0
  }
  convolution_param {
    num_output: 256
    kernel_size: 1
    weight_filler {
      type: "xavier"
      std: 0.03
    }
    bias_filler {
      type: "constant"
      value: 0.2
    }
  }
}
layer {
  name: "inception_4e/relu_1x1"
  type: "ReLU"
  bottom: "inception_4e/1x1"
  top: "inception_4e/1x1"
}
layer {
  name: "inception_4e/3x3_reduce"
  type: "Convolution"
  bottom: "inception_4d/output"
  top: "inception_4e/3x3_reduce"
  param {
    lr_mult: 1
    decay_mult: 1
  }
  param {
    lr_mult: 2
    decay_mult: 0
  }
  convolution_param {
    num_output: 160
    kernel_size: 1
    weight_filler {
      type: "xavier"
      std: 0.09
    }
    bias_filler {
      type: "constant"
      value: 0.2
    }
  }
}
layer {
  name: "inception_4e/relu_3x3_reduce"
  type: "ReLU"
  bottom: "inception_4e/3x3_reduce"
  top: "inception_4e/3x3_reduce"
}
layer {
  name: "inception_4e/3x3"
  type: "Convolution"
  bottom: "inception_4e/3x3_reduce"
  top: "inception_4e/3x3"
  param {
    lr_mult: 1
    decay_mult: 1
  }
  param {
    lr_mult: 2
    decay_mult: 0
  }
  convolution_param {
    num_output: 320
    pad: 1
    kernel_size: 3
    weight_filler {
      type: "xavier"
      std: 0.03
    }
    bias_filler {
      type: "constant"
      value: 0.2
    }
  }
}
layer {
  name: "inception_4e/relu_3x3"
  type: "ReLU"
  bottom: "inception_4e/3x3"
  top: "inception_4e/3x3"
}
layer {
  name: "inception_4e/5x5_reduce"
  type: "Convolution"
  bottom: "inception_4d/output"
  top: "inception_4e/5x5_reduce"
  param {
    lr_mult: 1
    decay_mult: 1
  }
  param {
    lr_mult: 2
    decay_mult: 0
  }
  convolution_param {
    num_output: 32
    kernel_size: 1
    weight_filler {
      type: "xavier"
      std: 0.2
    }
    bias_filler {
      type: "constant"
      value: 0.2
    }
  }
}
layer {
  name: "inception_4e/relu_5x5_reduce"
  type: "ReLU"
  bottom: "inception_4e/5x5_reduce"
  top: "inception_4e/5x5_reduce"
}
layer {
  name: "inception_4e/5x5"
  type: "Convolution"
  bottom: "inception_4e/5x5_reduce"
  top: "inception_4e/5x5"
  p
I0403 21:52:07.196624 13115 layer_factory.hpp:77] Creating layer data
I0403 21:52:07.197216 13115 net.cpp:91] Creating Layer data
I0403 21:52:07.197244 13115 net.cpp:399] data -> data
I0403 21:52:07.197293 13115 net.cpp:399] data -> label
I0403 21:52:07.197327 13115 data_transformer.cpp:25] Loading mean file from: /home/mohanty/data/final_dataset/lmdb/color-80-20/mean.binaryproto
I0403 21:52:07.198376 13117 db_lmdb.cpp:38] Opened lmdb /home/mohanty/data/final_dataset/lmdb/color-80-20/test_db
I0403 21:52:07.210701 13115 data_layer.cpp:41] output data size: 24,3,224,224
I0403 21:52:07.239148 13115 net.cpp:141] Setting up data
I0403 21:52:07.239291 13115 net.cpp:148] Top shape: 24 3 224 224 (3612672)
I0403 21:52:07.239315 13115 net.cpp:148] Top shape: 24 (24)
I0403 21:52:07.239329 13115 net.cpp:156] Memory required for data: 14450784
I0403 21:52:07.239356 13115 layer_factory.hpp:77] Creating layer label_data_1_split
I0403 21:52:07.239383 13115 net.cpp:91] Creating Layer label_data_1_split
I0403 21:52:07.239401 13115 net.cpp:425] label_data_1_split <- label
I0403 21:52:07.239433 13115 net.cpp:399] label_data_1_split -> label_data_1_split_0
I0403 21:52:07.239459 13115 net.cpp:399] label_data_1_split -> label_data_1_split_1
I0403 21:52:07.239491 13115 net.cpp:399] label_data_1_split -> label_data_1_split_2
I0403 21:52:07.239511 13115 net.cpp:399] label_data_1_split -> label_data_1_split_3
I0403 21:52:07.239531 13115 net.cpp:399] label_data_1_split -> label_data_1_split_4
I0403 21:52:07.239562 13115 net.cpp:399] label_data_1_split -> label_data_1_split_5
I0403 21:52:07.239579 13115 net.cpp:399] label_data_1_split -> label_data_1_split_6
I0403 21:52:07.239598 13115 net.cpp:399] label_data_1_split -> label_data_1_split_7
I0403 21:52:07.239616 13115 net.cpp:399] label_data_1_split -> label_data_1_split_8
I0403 21:52:07.239634 13115 net.cpp:399] label_data_1_split -> label_data_1_split_9
I0403 21:52:07.239742 13115 net.cpp:141] Setting up label_data_1_split
I0403 21:52:07.239764 13115 net.cpp:148] Top shape: 24 (24)
I0403 21:52:07.239780 13115 net.cpp:148] Top shape: 24 (24)
I0403 21:52:07.239796 13115 net.cpp:148] Top shape: 24 (24)
I0403 21:52:07.239810 13115 net.cpp:148] Top shape: 24 (24)
I0403 21:52:07.239825 13115 net.cpp:148] Top shape: 24 (24)
I0403 21:52:07.239840 13115 net.cpp:148] Top shape: 24 (24)
I0403 21:52:07.239855 13115 net.cpp:148] Top shape: 24 (24)
I0403 21:52:07.239868 13115 net.cpp:148] Top shape: 24 (24)
I0403 21:52:07.239883 13115 net.cpp:148] Top shape: 24 (24)
I0403 21:52:07.239899 13115 net.cpp:148] Top shape: 24 (24)
I0403 21:52:07.239943 13115 net.cpp:156] Memory required for data: 14451744
I0403 21:52:07.239960 13115 layer_factory.hpp:77] Creating layer conv1/7x7_s2
I0403 21:52:07.239991 13115 net.cpp:91] Creating Layer conv1/7x7_s2
I0403 21:52:07.240010 13115 net.cpp:425] conv1/7x7_s2 <- data
I0403 21:52:07.240028 13115 net.cpp:399] conv1/7x7_s2 -> conv1/7x7_s2
I0403 21:52:07.382576 13115 net.cpp:141] Setting up conv1/7x7_s2
I0403 21:52:07.382683 13115 net.cpp:148] Top shape: 24 64 112 112 (19267584)
I0403 21:52:07.382700 13115 net.cpp:156] Memory required for data: 91522080
I0403 21:52:07.382732 13115 layer_factory.hpp:77] Creating layer conv1/relu_7x7
I0403 21:52:07.382761 13115 net.cpp:91] Creating Layer conv1/relu_7x7
I0403 21:52:07.382779 13115 net.cpp:425] conv1/relu_7x7 <- conv1/7x7_s2
I0403 21:52:07.382799 13115 net.cpp:386] conv1/relu_7x7 -> conv1/7x7_s2 (in-place)
I0403 21:52:07.383105 13115 net.cpp:141] Setting up conv1/relu_7x7
I0403 21:52:07.383131 13115 net.cpp:148] Top shape: 24 64 112 112 (19267584)
I0403 21:52:07.383147 13115 net.cpp:156] Memory required for data: 168592416
I0403 21:52:07.383162 13115 layer_factory.hpp:77] Creating layer pool1/3x3_s2
I0403 21:52:07.383188 13115 net.cpp:91] Creating Layer pool1/3x3_s2
I0403 21:52:07.383204 13115 net.cpp:425] pool1/3x3_s2 <- conv1/7x7_s2
I0403 21:52:07.383229 13115 net.cpp:399] pool1/3x3_s2 -> pool1/3x3_s2
I0403 21:52:07.383303 13115 net.cpp:141] Setting up pool1/3x3_s2
I0403 21:52:07.383327 13115 net.cpp:148] Top shape: 24 64 56 56 (4816896)
I0403 21:52:07.383340 13115 net.cpp:156] Memory required for data: 187860000
I0403 21:52:07.383355 13115 layer_factory.hpp:77] Creating layer pool1/norm1
I0403 21:52:07.383379 13115 net.cpp:91] Creating Layer pool1/norm1
I0403 21:52:07.383396 13115 net.cpp:425] pool1/norm1 <- pool1/3x3_s2
I0403 21:52:07.383414 13115 net.cpp:399] pool1/norm1 -> pool1/norm1
I0403 21:52:07.383695 13115 net.cpp:141] Setting up pool1/norm1
I0403 21:52:07.383723 13115 net.cpp:148] Top shape: 24 64 56 56 (4816896)
I0403 21:52:07.383738 13115 net.cpp:156] Memory required for data: 207127584
I0403 21:52:07.383752 13115 layer_factory.hpp:77] Creating layer conv2/3x3_reduce
I0403 21:52:07.383776 13115 net.cpp:91] Creating Layer conv2/3x3_reduce
I0403 21:52:07.383792 13115 net.cpp:425] conv2/3x3_reduce <- pool1/norm1
I0403 21:52:07.383811 13115 net.cpp:399] conv2/3x3_reduce -> conv2/3x3_reduce
I0403 21:52:07.385124 13115 net.cpp:141] Setting up conv2/3x3_reduce
I0403 21:52:07.385154 13115 net.cpp:148] Top shape: 24 64 56 56 (4816896)
I0403 21:52:07.385169 13115 net.cpp:156] Memory required for data: 226395168
I0403 21:52:07.385187 13115 layer_factory.hpp:77] Creating layer conv2/relu_3x3_reduce
I0403 21:52:07.385206 13115 net.cpp:91] Creating Layer conv2/relu_3x3_reduce
I0403 21:52:07.385227 13115 net.cpp:425] conv2/relu_3x3_reduce <- conv2/3x3_reduce
I0403 21:52:07.385244 13115 net.cpp:386] conv2/relu_3x3_reduce -> conv2/3x3_reduce (in-place)
I0403 21:52:07.385488 13115 net.cpp:141] Setting up conv2/relu_3x3_reduce
I0403 21:52:07.385514 13115 net.cpp:148] Top shape: 24 64 56 56 (4816896)
I0403 21:52:07.385529 13115 net.cpp:156] Memory required for data: 245662752
I0403 21:52:07.385543 13115 layer_factory.hpp:77] Creating layer conv2/3x3
I0403 21:52:07.385565 13115 net.cpp:91] Creating Layer conv2/3x3
I0403 21:52:07.385581 13115 net.cpp:425] conv2/3x3 <- conv2/3x3_reduce
I0403 21:52:07.385598 13115 net.cpp:399] conv2/3x3 -> conv2/3x3
I0403 21:52:07.387744 13115 net.cpp:141] Setting up conv2/3x3
I0403 21:52:07.387773 13115 net.cpp:148] Top shape: 24 192 56 56 (14450688)
I0403 21:52:07.387789 13115 net.cpp:156] Memory required for data: 303465504
I0403 21:52:07.387809 13115 layer_factory.hpp:77] Creating layer conv2/relu_3x3
I0403 21:52:07.387826 13115 net.cpp:91] Creating Layer conv2/relu_3x3
I0403 21:52:07.387841 13115 net.cpp:425] conv2/relu_3x3 <- conv2/3x3
I0403 21:52:07.387858 13115 net.cpp:386] conv2/relu_3x3 -> conv2/3x3 (in-place)
I0403 21:52:07.388011 13115 net.cpp:141] Setting up conv2/relu_3x3
I0403 21:52:07.388036 13115 net.cpp:148] Top shape: 24 192 56 56 (14450688)
I0403 21:52:07.388082 13115 net.cpp:156] Memory required for data: 361268256
I0403 21:52:07.388098 13115 layer_factory.hpp:77] Creating layer conv2/norm2
I0403 21:52:07.388115 13115 net.cpp:91] Creating Layer conv2/norm2
I0403 21:52:07.388131 13115 net.cpp:425] conv2/norm2 <- conv2/3x3
I0403 21:52:07.388149 13115 net.cpp:399] conv2/norm2 -> conv2/norm2
I0403 21:52:07.388448 13115 net.cpp:141] Setting up conv2/norm2
I0403 21:52:07.388475 13115 net.cpp:148] Top shape: 24 192 56 56 (14450688)
I0403 21:52:07.388490 13115 net.cpp:156] Memory required for data: 419071008
I0403 21:52:07.388505 13115 layer_factory.hpp:77] Creating layer pool2/3x3_s2
I0403 21:52:07.388523 13115 net.cpp:91] Creating Layer pool2/3x3_s2
I0403 21:52:07.388540 13115 net.cpp:425] pool2/3x3_s2 <- conv2/norm2
I0403 21:52:07.388556 13115 net.cpp:399] pool2/3x3_s2 -> pool2/3x3_s2
I0403 21:52:07.388604 13115 net.cpp:141] Setting up pool2/3x3_s2
I0403 21:52:07.388627 13115 net.cpp:148] Top shape: 24 192 28 28 (3612672)
I0403 21:52:07.388641 13115 net.cpp:156] Memory required for data: 433521696
I0403 21:52:07.388655 13115 layer_factory.hpp:77] Creating layer pool2/3x3_s2_pool2/3x3_s2_0_split
I0403 21:52:07.388672 13115 net.cpp:91] Creating Layer pool2/3x3_s2_pool2/3x3_s2_0_split
I0403 21:52:07.388687 13115 net.cpp:425] pool2/3x3_s2_pool2/3x3_s2_0_split <- pool2/3x3_s2
I0403 21:52:07.388705 13115 net.cpp:399] pool2/3x3_s2_pool2/3x3_s2_0_split -> pool2/3x3_s2_pool2/3x3_s2_0_split_0
I0403 21:52:07.388723 13115 net.cpp:399] pool2/3x3_s2_pool2/3x3_s2_0_split -> pool2/3x3_s2_pool2/3x3_s2_0_split_1
I0403 21:52:07.388743 13115 net.cpp:399] pool2/3x3_s2_pool2/3x3_s2_0_split -> pool2/3x3_s2_pool2/3x3_s2_0_split_2
I0403 21:52:07.388762 13115 net.cpp:399] pool2/3x3_s2_pool2/3x3_s2_0_split -> pool2/3x3_s2_pool2/3x3_s2_0_split_3
I0403 21:52:07.388825 13115 net.cpp:141] Setting up pool2/3x3_s2_pool2/3x3_s2_0_split
I0403 21:52:07.388847 13115 net.cpp:148] Top shape: 24 192 28 28 (3612672)
I0403 21:52:07.388865 13115 net.cpp:148] Top shape: 24 192 28 28 (3612672)
I0403 21:52:07.388880 13115 net.cpp:148] Top shape: 24 192 28 28 (3612672)
I0403 21:52:07.388895 13115 net.cpp:148] Top shape: 24 192 28 28 (3612672)
I0403 21:52:07.388909 13115 net.cpp:156] Memory required for data: 491324448
I0403 21:52:07.388924 13115 layer_factory.hpp:77] Creating layer inception_3a/1x1
I0403 21:52:07.388944 13115 net.cpp:91] Creating Layer inception_3a/1x1
I0403 21:52:07.388960 13115 net.cpp:425] inception_3a/1x1 <- pool2/3x3_s2_pool2/3x3_s2_0_split_0
I0403 21:52:07.388979 13115 net.cpp:399] inception_3a/1x1 -> inception_3a/1x1
I0403 21:52:07.390486 13115 net.cpp:141] Setting up inception_3a/1x1
I0403 21:52:07.390514 13115 net.cpp:148] Top shape: 24 64 28 28 (1204224)
I0403 21:52:07.390530 13115 net.cpp:156] Memory required for data: 496141344
I0403 21:52:07.390549 13115 layer_factory.hpp:77] Creating layer inception_3a/relu_1x1
I0403 21:52:07.390570 13115 net.cpp:91] Creating Layer inception_3a/relu_1x1
I0403 21:52:07.390586 13115 net.cpp:425] inception_3a/relu_1x1 <- inception_3a/1x1
I0403 21:52:07.390604 13115 net.cpp:386] inception_3a/relu_1x1 -> inception_3a/1x1 (in-place)
I0403 21:52:07.390775 13115 net.cpp:141] Setting up inception_3a/relu_1x1
I0403 21:52:07.390804 13115 net.cpp:148] Top shape: 24 64 28 28 (1204224)
I0403 21:52:07.390820 13115 net.cpp:156] Memory required for data: 500958240
I0403 21:52:07.390835 13115 layer_factory.hpp:77] Creating layer inception_3a/3x3_reduce
I0403 21:52:07.390856 13115 net.cpp:91] Creating Layer inception_3a/3x3_reduce
I0403 21:52:07.390873 13115 net.cpp:425] inception_3a/3x3_reduce <- pool2/3x3_s2_pool2/3x3_s2_0_split_1
I0403 21:52:07.390892 13115 net.cpp:399] inception_3a/3x3_reduce -> inception_3a/3x3_reduce
I0403 21:52:07.392588 13115 net.cpp:141] Setting up inception_3a/3x3_reduce
I0403 21:52:07.392618 13115 net.cpp:148] Top shape: 24 96 28 28 (1806336)
I0403 21:52:07.392633 13115 net.cpp:156] Memory required for data: 508183584
I0403 21:52:07.392654 13115 layer_factory.hpp:77] Creating layer inception_3a/relu_3x3_reduce
I0403 21:52:07.392691 13115 net.cpp:91] Creating Layer inception_3a/relu_3x3_reduce
I0403 21:52:07.392709 13115 net.cpp:425] inception_3a/relu_3x3_reduce <- inception_3a/3x3_reduce
I0403 21:52:07.392730 13115 net.cpp:386] inception_3a/relu_3x3_reduce -> inception_3a/3x3_reduce (in-place)
I0403 21:52:07.392927 13115 net.cpp:141] Setting up inception_3a/relu_3x3_reduce
I0403 21:52:07.392953 13115 net.cpp:148] Top shape: 24 96 28 28 (1806336)
I0403 21:52:07.392968 13115 net.cpp:156] Memory required for data: 515408928
I0403 21:52:07.392983 13115 layer_factory.hpp:77] Creating layer inception_3a/3x3
I0403 21:52:07.393008 13115 net.cpp:91] Creating Layer inception_3a/3x3
I0403 21:52:07.393028 13115 net.cpp:425] inception_3a/3x3 <- inception_3a/3x3_reduce
I0403 21:52:07.393049 13115 net.cpp:399] inception_3a/3x3 -> inception_3a/3x3
I0403 21:52:07.394688 13115 net.cpp:141] Setting up inception_3a/3x3
I0403 21:52:07.394719 13115 net.cpp:148] Top shape: 24 128 28 28 (2408448)
I0403 21:52:07.394736 13115 net.cpp:156] Memory required for data: 525042720
I0403 21:52:07.394754 13115 layer_factory.hpp:77] Creating layer inception_3a/relu_3x3
I0403 21:52:07.394773 13115 net.cpp:91] Creating Layer inception_3a/relu_3x3
I0403 21:52:07.394788 13115 net.cpp:425] inception_3a/relu_3x3 <- inception_3a/3x3
I0403 21:52:07.394804 13115 net.cpp:386] inception_3a/relu_3x3 -> inception_3a/3x3 (in-place)
I0403 21:52:07.395081 13115 net.cpp:141] Setting up inception_3a/relu_3x3
I0403 21:52:07.395109 13115 net.cpp:148] Top shape: 24 128 28 28 (2408448)
I0403 21:52:07.395125 13115 net.cpp:156] Memory required for data: 534676512
I0403 21:52:07.395141 13115 layer_factory.hpp:77] Creating layer inception_3a/5x5_reduce
I0403 21:52:07.395164 13115 net.cpp:91] Creating Layer inception_3a/5x5_reduce
I0403 21:52:07.395180 13115 net.cpp:425] inception_3a/5x5_reduce <- pool2/3x3_s2_pool2/3x3_s2_0_split_2
I0403 21:52:07.395200 13115 net.cpp:399] inception_3a/5x5_reduce -> inception_3a/5x5_reduce
I0403 21:52:07.396147 13115 net.cpp:141] Setting up inception_3a/5x5_reduce
I0403 21:52:07.396178 13115 net.cpp:148] Top shape: 24 16 28 28 (301056)
I0403 21:52:07.396193 13115 net.cpp:156] Memory required for data: 535880736
I0403 21:52:07.396216 13115 layer_factory.hpp:77] Creating layer inception_3a/relu_5x5_reduce
I0403 21:52:07.396237 13115 net.cpp:91] Creating Layer inception_3a/relu_5x5_reduce
I0403 21:52:07.396253 13115 net.cpp:425] inception_3a/relu_5x5_reduce <- inception_3a/5x5_reduce
I0403 21:52:07.396271 13115 net.cpp:386] inception_3a/relu_5x5_reduce -> inception_3a/5x5_reduce (in-place)
I0403 21:52:07.396565 13115 net.cpp:141] Setting up inception_3a/relu_5x5_reduce
I0403 21:52:07.396592 13115 net.cpp:148] Top shape: 24 16 28 28 (301056)
I0403 21:52:07.396607 13115 net.cpp:156] Memory required for data: 537084960
I0403 21:52:07.396622 13115 layer_factory.hpp:77] Creating layer inception_3a/5x5
I0403 21:52:07.396657 13115 net.cpp:91] Creating Layer inception_3a/5x5
I0403 21:52:07.396675 13115 net.cpp:425] inception_3a/5x5 <- inception_3a/5x5_reduce
I0403 21:52:07.396697 13115 net.cpp:399] inception_3a/5x5 -> inception_3a/5x5
I0403 21:52:07.397714 13115 net.cpp:141] Setting up inception_3a/5x5
I0403 21:52:07.397742 13115 net.cpp:148] Top shape: 24 32 28 28 (602112)
I0403 21:52:07.397770 13115 net.cpp:156] Memory required for data: 539493408
I0403 21:52:07.397789 13115 layer_factory.hpp:77] Creating layer inception_3a/relu_5x5
I0403 21:52:07.397809 13115 net.cpp:91] Creating Layer inception_3a/relu_5x5
I0403 21:52:07.397825 13115 net.cpp:425] inception_3a/relu_5x5 <- inception_3a/5x5
I0403 21:52:07.397842 13115 net.cpp:386] inception_3a/relu_5x5 -> inception_3a/5x5 (in-place)
I0403 21:52:07.398017 13115 net.cpp:141] Setting up inception_3a/relu_5x5
I0403 21:52:07.398046 13115 net.cpp:148] Top shape: 24 32 28 28 (602112)
I0403 21:52:07.398061 13115 net.cpp:156] Memory required for data: 541901856
I0403 21:52:07.398077 13115 layer_factory.hpp:77] Creating layer inception_3a/pool
I0403 21:52:07.398093 13115 net.cpp:91] Creating Layer inception_3a/pool
I0403 21:52:07.398109 13115 net.cpp:425] inception_3a/pool <- pool2/3x3_s2_pool2/3x3_s2_0_split_3
I0403 21:52:07.398144 13115 net.cpp:399] inception_3a/pool -> inception_3a/pool
I0403 21:52:07.398200 13115 net.cpp:141] Setting up inception_3a/pool
I0403 21:52:07.398242 13115 net.cpp:148] Top shape: 24 192 28 28 (3612672)
I0403 21:52:07.398257 13115 net.cpp:156] Memory required for data: 556352544
I0403 21:52:07.398272 13115 layer_factory.hpp:77] Creating layer inception_3a/pool_proj
I0403 21:52:07.398296 13115 net.cpp:91] Creating Layer inception_3a/pool_proj
I0403 21:52:07.398313 13115 net.cpp:425] inception_3a/pool_proj <- inception_3a/pool
I0403 21:52:07.398336 13115 net.cpp:399] inception_3a/pool_proj -> inception_3a/pool_proj
I0403 21:52:07.399313 13115 net.cpp:141] Setting up inception_3a/pool_proj
I0403 21:52:07.399341 13115 net.cpp:148] Top shape: 24 32 28 28 (602112)
I0403 21:52:07.399356 13115 net.cpp:156] Memory required for data: 558760992
I0403 21:52:07.399381 13115 layer_factory.hpp:77] Creating layer inception_3a/relu_pool_proj
I0403 21:52:07.399401 13115 net.cpp:91] Creating Layer inception_3a/relu_pool_proj
I0403 21:52:07.399418 13115 net.cpp:425] inception_3a/relu_pool_proj <- inception_3a/pool_proj
I0403 21:52:07.399438 13115 net.cpp:386] inception_3a/relu_pool_proj -> inception_3a/pool_proj (in-place)
I0403 21:52:07.399713 13115 net.cpp:141] Setting up inception_3a/relu_pool_proj
I0403 21:52:07.399742 13115 net.cpp:148] Top shape: 24 32 28 28 (602112)
I0403 21:52:07.399757 13115 net.cpp:156] Memory required for data: 561169440
I0403 21:52:07.399772 13115 layer_factory.hpp:77] Creating layer inception_3a/output
I0403 21:52:07.399791 13115 net.cpp:91] Creating Layer inception_3a/output
I0403 21:52:07.399806 13115 net.cpp:425] inception_3a/output <- inception_3a/1x1
I0403 21:52:07.399821 13115 net.cpp:425] inception_3a/output <- inception_3a/3x3
I0403 21:52:07.399837 13115 net.cpp:425] inception_3a/output <- inception_3a/5x5
I0403 21:52:07.399853 13115 net.cpp:425] inception_3a/output <- inception_3a/pool_proj
I0403 21:52:07.399870 13115 net.cpp:399] inception_3a/output -> inception_3a/output
I0403 21:52:07.399919 13115 net.cpp:141] Setting up inception_3a/output
I0403 21:52:07.399942 13115 net.cpp:148] Top shape: 24 256 28 28 (4816896)
I0403 21:52:07.399956 13115 net.cpp:156] Memory required for data: 580437024
I0403 21:52:07.399971 13115 layer_factory.hpp:77] Creating layer inception_3a/output_inception_3a/output_0_split
I0403 21:52:07.399987 13115 net.cpp:91] Creating Layer inception_3a/output_inception_3a/output_0_split
I0403 21:52:07.400007 13115 net.cpp:425] inception_3a/output_inception_3a/output_0_split <- inception_3a/output
I0403 21:52:07.400024 13115 net.cpp:399] inception_3a/output_inception_3a/output_0_split -> inception_3a/output_inception_3a/output_0_split_0
I0403 21:52:07.400043 13115 net.cpp:399] inception_3a/output_inception_3a/output_0_split -> inception_3a/output_inception_3a/output_0_split_1
I0403 21:52:07.400068 13115 net.cpp:399] inception_3a/output_inception_3a/output_0_split -> inception_3a/output_inception_3a/output_0_split_2
I0403 21:52:07.400089 13115 net.cpp:399] inception_3a/output_inception_3a/output_0_split -> inception_3a/output_inception_3a/output_0_split_3
I0403 21:52:07.400176 13115 net.cpp:141] Setting up inception_3a/output_inception_3a/output_0_split
I0403 21:52:07.400198 13115 net.cpp:148] Top shape: 24 256 28 28 (4816896)
I0403 21:52:07.400221 13115 net.cpp:148] Top shape: 24 256 28 28 (4816896)
I0403 21:52:07.400238 13115 net.cpp:148] Top shape: 24 256 28 28 (4816896)
I0403 21:52:07.400254 13115 net.cpp:148] Top shape: 24 256 28 28 (4816896)
I0403 21:52:07.400269 13115 net.cpp:156] Memory required for data: 657507360
I0403 21:52:07.400284 13115 layer_factory.hpp:77] Creating layer inception_3b/1x1
I0403 21:52:07.400306 13115 net.cpp:91] Creating Layer inception_3b/1x1
I0403 21:52:07.400323 13115 net.cpp:425] inception_3b/1x1 <- inception_3a/output_inception_3a/output_0_split_0
I0403 21:52:07.400346 13115 net.cpp:399] inception_3b/1x1 -> inception_3b/1x1
I0403 21:52:07.401495 13115 net.cpp:141] Setting up inception_3b/1x1
I0403 21:52:07.401535 13115 net.cpp:148] Top shape: 24 128 28 28 (2408448)
I0403 21:52:07.401551 13115 net.cpp:156] Memory required for data: 667141152
I0403 21:52:07.401568 13115 layer_factory.hpp:77] Creating layer inception_3b/relu_1x1
I0403 21:52:07.401588 13115 net.cpp:91] Creating Layer inception_3b/relu_1x1
I0403 21:52:07.401607 13115 net.cpp:425] inception_3b/relu_1x1 <- inception_3b/1x1
I0403 21:52:07.401623 13115 net.cpp:386] inception_3b/relu_1x1 -> inception_3b/1x1 (in-place)
I0403 21:52:07.401798 13115 net.cpp:141] Setting up inception_3b/relu_1x1
I0403 21:52:07.401825 13115 net.cpp:148] Top shape: 24 128 28 28 (2408448)
I0403 21:52:07.401840 13115 net.cpp:156] Memory required for data: 676774944
I0403 21:52:07.401855 13115 layer_factory.hpp:77] Creating layer inception_3b/3x3_reduce
I0403 21:52:07.401877 13115 net.cpp:91] Creating Layer inception_3b/3x3_reduce
I0403 21:52:07.401895 13115 net.cpp:425] inception_3b/3x3_reduce <- inception_3a/output_inception_3a/output_0_split_1
I0403 21:52:07.401913 13115 net.cpp:399] inception_3b/3x3_reduce -> inception_3b/3x3_reduce
I0403 21:52:07.403048 13115 net.cpp:141] Setting up inception_3b/3x3_reduce
I0403 21:52:07.403076 13115 net.cpp:148] Top shape: 24 128 28 28 (2408448)
I0403 21:52:07.403091 13115 net.cpp:156] Memory required for data: 686408736
I0403 21:52:07.403110 13115 layer_factory.hpp:77] Creating layer inception_3b/relu_3x3_reduce
I0403 21:52:07.403131 13115 net.cpp:91] Creating Layer inception_3b/relu_3x3_reduce
I0403 21:52:07.403146 13115 net.cpp:425] inception_3b/relu_3x3_reduce <- inception_3b/3x3_reduce
I0403 21:52:07.403162 13115 net.cpp:386] inception_3b/relu_3x3_reduce -> inception_3b/3x3_reduce (in-place)
I0403 21:52:07.403342 13115 net.cpp:141] Setting up inception_3b/relu_3x3_reduce
I0403 21:52:07.403367 13115 net.cpp:148] Top shape: 24 128 28 28 (2408448)
I0403 21:52:07.403381 13115 net.cpp:156] Memory required for data: 696042528
I0403 21:52:07.403396 13115 layer_factory.hpp:77] Creating layer inception_3b/3x3
I0403 21:52:07.403422 13115 net.cpp:91] Creating Layer inception_3b/3x3
I0403 21:52:07.403440 13115 net.cpp:425] inception_3b/3x3 <- inception_3b/3x3_reduce
I0403 21:52:07.403462 13115 net.cpp:399] inception_3b/3x3 -> inception_3b/3x3
I0403 21:52:07.406411 13115 net.cpp:141] Setting up inception_3b/3x3
I0403 21:52:07.406442 13115 net.cpp:148] Top shape: 24 192 28 28 (3612672)
I0403 21:52:07.406460 13115 net.cpp:156] Memory required for data: 710493216
I0403 21:52:07.406478 13115 layer_factory.hpp:77] Creating layer inception_3b/relu_3x3
I0403 21:52:07.406496 13115 net.cpp:91] Creating Layer inception_3b/relu_3x3
I0403 21:52:07.406512 13115 net.cpp:425] inception_3b/relu_3x3 <- inception_3b/3x3
I0403 21:52:07.406527 13115 net.cpp:386] inception_3b/relu_3x3 -> inception_3b/3x3 (in-place)
I0403 21:52:07.406800 13115 net.cpp:141] Setting up inception_3b/relu_3x3
I0403 21:52:07.406829 13115 net.cpp:148] Top shape: 24 192 28 28 (3612672)
I0403 21:52:07.406846 13115 net.cpp:156] Memory required for data: 724943904
I0403 21:52:07.406862 13115 layer_factory.hpp:77] Creating layer inception_3b/5x5_reduce
I0403 21:52:07.406883 13115 net.cpp:91] Creating Layer inception_3b/5x5_reduce
I0403 21:52:07.406900 13115 net.cpp:425] inception_3b/5x5_reduce <- inception_3a/output_inception_3a/output_0_split_2
I0403 21:52:07.406919 13115 net.cpp:399] inception_3b/5x5_reduce -> inception_3b/5x5_reduce
I0403 21:52:07.407932 13115 net.cpp:141] Setting up inception_3b/5x5_reduce
I0403 21:52:07.407960 13115 net.cpp:148] Top shape: 24 32 28 28 (602112)
I0403 21:52:07.407979 13115 net.cpp:156] Memory required for data: 727352352
I0403 21:52:07.407999 13115 layer_factory.hpp:77] Creating layer inception_3b/relu_5x5_reduce
I0403 21:52:07.408016 13115 net.cpp:91] Creating Layer inception_3b/relu_5x5_reduce
I0403 21:52:07.408032 13115 net.cpp:425] inception_3b/relu_5x5_reduce <- inception_3b/5x5_reduce
I0403 21:52:07.408049 13115 net.cpp:386] inception_3b/relu_5x5_reduce -> inception_3b/5x5_reduce (in-place)
I0403 21:52:07.408229 13115 net.cpp:141] Setting up inception_3b/relu_5x5_reduce
I0403 21:52:07.408269 13115 net.cpp:148] Top shape: 24 32 28 28 (602112)
I0403 21:52:07.408285 13115 net.cpp:156] Memory required for data: 729760800
I0403 21:52:07.408300 13115 layer_factory.hpp:77] Creating layer inception_3b/5x5
I0403 21:52:07.408323 13115 net.cpp:91] Creating Layer inception_3b/5x5
I0403 21:52:07.408339 13115 net.cpp:425] inception_3b/5x5 <- inception_3b/5x5_reduce
I0403 21:52:07.408359 13115 net.cpp:399] inception_3b/5x5 -> inception_3b/5x5
I0403 21:52:07.410347 13115 net.cpp:141] Setting up inception_3b/5x5
I0403 21:52:07.410377 13115 net.cpp:148] Top shape: 24 96 28 28 (1806336)
I0403 21:52:07.410392 13115 net.cpp:156] Memory required for data: 736986144
I0403 21:52:07.410409 13115 layer_factory.hpp:77] Creating layer inception_3b/relu_5x5
I0403 21:52:07.410429 13115 net.cpp:91] Creating Layer inception_3b/relu_5x5
I0403 21:52:07.410447 13115 net.cpp:425] inception_3b/relu_5x5 <- inception_3b/5x5
I0403 21:52:07.410465 13115 net.cpp:386] inception_3b/relu_5x5 -> inception_3b/5x5 (in-place)
I0403 21:52:07.410661 13115 net.cpp:141] Setting up inception_3b/relu_5x5
I0403 21:52:07.410686 13115 net.cpp:148] Top shape: 24 96 28 28 (1806336)
I0403 21:52:07.410701 13115 net.cpp:156] Memory required for data: 744211488
I0403 21:52:07.410717 13115 layer_factory.hpp:77] Creating layer inception_3b/pool
I0403 21:52:07.410734 13115 net.cpp:91] Creating Layer inception_3b/pool
I0403 21:52:07.410750 13115 net.cpp:425] inception_3b/pool <- inception_3a/output_inception_3a/output_0_split_3
I0403 21:52:07.410768 13115 net.cpp:399] inception_3b/pool -> inception_3b/pool
I0403 21:52:07.410822 13115 net.cpp:141] Setting up inception_3b/pool
I0403 21:52:07.410845 13115 net.cpp:148] Top shape: 24 256 28 28 (4816896)
I0403 21:52:07.410858 13115 net.cpp:156] Memory required for data: 763479072
I0403 21:52:07.410873 13115 layer_factory.hpp:77] Creating layer inception_3b/pool_proj
I0403 21:52:07.410895 13115 net.cpp:91] Creating Layer inception_3b/pool_proj
I0403 21:52:07.410912 13115 net.cpp:425] inception_3b/pool_proj <- inception_3b/pool
I0403 21:52:07.410933 13115 net.cpp:399] inception_3b/pool_proj -> inception_3b/pool_proj
I0403 21:52:07.411979 13115 net.cpp:141] Setting up inception_3b/pool_proj
I0403 21:52:07.412009 13115 net.cpp:148] Top shape: 24 64 28 28 (1204224)
I0403 21:52:07.412024 13115 net.cpp:156] Memory required for data: 768295968
I0403 21:52:07.412042 13115 layer_factory.hpp:77] Creating layer inception_3b/relu_pool_proj
I0403 21:52:07.412060 13115 net.cpp:91] Creating Layer inception_3b/relu_pool_proj
I0403 21:52:07.412075 13115 net.cpp:425] inception_3b/relu_pool_proj <- inception_3b/pool_proj
I0403 21:52:07.412096 13115 net.cpp:386] inception_3b/relu_pool_proj -> inception_3b/pool_proj (in-place)
I0403 21:52:07.412485 13115 net.cpp:141] Setting up inception_3b/relu_pool_proj
I0403 21:52:07.412514 13115 net.cpp:148] Top shape: 24 64 28 28 (1204224)
I0403 21:52:07.412529 13115 net.cpp:156] Memory required for data: 773112864
I0403 21:52:07.412545 13115 layer_factory.hpp:77] Creating layer inception_3b/output
I0403 21:52:07.412562 13115 net.cpp:91] Creating Layer inception_3b/output
I0403 21:52:07.412577 13115 net.cpp:425] inception_3b/output <- inception_3b/1x1
I0403 21:52:07.412593 13115 net.cpp:425] inception_3b/output <- inception_3b/3x3
I0403 21:52:07.412609 13115 net.cpp:425] inception_3b/output <- inception_3b/5x5
I0403 21:52:07.412626 13115 net.cpp:425] inception_3b/output <- inception_3b/pool_proj
I0403 21:52:07.412642 13115 net.cpp:399] inception_3b/output -> inception_3b/output
I0403 21:52:07.412686 13115 net.cpp:141] Setting up inception_3b/output
I0403 21:52:07.412710 13115 net.cpp:148] Top shape: 24 480 28 28 (9031680)
I0403 21:52:07.412724 13115 net.cpp:156] Memory required for data: 809239584
I0403 21:52:07.412739 13115 layer_factory.hpp:77] Creating layer pool3/3x3_s2
I0403 21:52:07.412758 13115 net.cpp:91] Creating Layer pool3/3x3_s2
I0403 21:52:07.412775 13115 net.cpp:425] pool3/3x3_s2 <- inception_3b/output
I0403 21:52:07.412792 13115 net.cpp:399] pool3/3x3_s2 -> pool3/3x3_s2
I0403 21:52:07.412864 13115 net.cpp:141] Setting up pool3/3x3_s2
I0403 21:52:07.412889 13115 net.cpp:148] Top shape: 24 480 14 14 (2257920)
I0403 21:52:07.412902 13115 net.cpp:156] Memory required for data: 818271264
I0403 21:52:07.412917 13115 layer_factory.hpp:77] Creating layer pool3/3x3_s2_pool3/3x3_s2_0_split
I0403 21:52:07.412935 13115 net.cpp:91] Creating Layer pool3/3x3_s2_pool3/3x3_s2_0_split
I0403 21:52:07.412950 13115 net.cpp:425] pool3/3x3_s2_pool3/3x3_s2_0_split <- pool3/3x3_s2
I0403 21:52:07.412968 13115 net.cpp:399] pool3/3x3_s2_pool3/3x3_s2_0_split -> pool3/3x3_s2_pool3/3x3_s2_0_split_0
I0403 21:52:07.412988 13115 net.cpp:399] pool3/3x3_s2_pool3/3x3_s2_0_split -> pool3/3x3_s2_pool3/3x3_s2_0_split_1
I0403 21:52:07.413007 13115 net.cpp:399] pool3/3x3_s2_pool3/3x3_s2_0_split -> pool3/3x3_s2_pool3/3x3_s2_0_split_2
I0403 21:52:07.413027 13115 net.cpp:399] pool3/3x3_s2_pool3/3x3_s2_0_split -> pool3/3x3_s2_pool3/3x3_s2_0_split_3
I0403 21:52:07.413101 13115 net.cpp:141] Setting up pool3/3x3_s2_pool3/3x3_s2_0_split
I0403 21:52:07.413127 13115 net.cpp:148] Top shape: 24 480 14 14 (2257920)
I0403 21:52:07.413144 13115 net.cpp:148] Top shape: 24 480 14 14 (2257920)
I0403 21:52:07.413161 13115 net.cpp:148] Top shape: 24 480 14 14 (2257920)
I0403 21:52:07.413177 13115 net.cpp:148] Top shape: 24 480 14 14 (2257920)
I0403 21:52:07.413190 13115 net.cpp:156] Memory required for data: 854397984
I0403 21:52:07.413205 13115 layer_factory.hpp:77] Creating layer inception_4a/1x1
I0403 21:52:07.413233 13115 net.cpp:91] Creating Layer inception_4a/1x1
I0403 21:52:07.413252 13115 net.cpp:425] inception_4a/1x1 <- pool3/3x3_s2_pool3/3x3_s2_0_split_0
I0403 21:52:07.413271 13115 net.cpp:399] inception_4a/1x1 -> inception_4a/1x1
I0403 21:52:07.414832 13115 net.cpp:141] Setting up inception_4a/1x1
I0403 21:52:07.414860 13115 net.cpp:148] Top shape: 24 192 14 14 (903168)
I0403 21:52:07.414876 13115 net.cpp:156] Memory required for data: 858010656
I0403 21:52:07.414894 13115 layer_factory.hpp:77] Creating layer inception_4a/relu_1x1
I0403 21:52:07.414912 13115 net.cpp:91] Creating Layer inception_4a/relu_1x1
I0403 21:52:07.414932 13115 net.cpp:425] inception_4a/relu_1x1 <- inception_4a/1x1
I0403 21:52:07.414949 13115 net.cpp:386] inception_4a/relu_1x1 -> inception_4a/1x1 (in-place)
I0403 21:52:07.415123 13115 net.cpp:141] Setting up inception_4a/relu_1x1
I0403 21:52:07.415148 13115 net.cpp:148] Top shape: 24 192 14 14 (903168)
I0403 21:52:07.415163 13115 net.cpp:156] Memory required for data: 861623328
I0403 21:52:07.415177 13115 layer_factory.hpp:77] Creating layer inception_4a/3x3_reduce
I0403 21:52:07.415200 13115 net.cpp:91] Creating Layer inception_4a/3x3_reduce
I0403 21:52:07.415222 13115 net.cpp:425] inception_4a/3x3_reduce <- pool3/3x3_s2_pool3/3x3_s2_0_split_1
I0403 21:52:07.415244 13115 net.cpp:399] inception_4a/3x3_reduce -> inception_4a/3x3_reduce
I0403 21:52:07.416559 13115 net.cpp:141] Setting up inception_4a/3x3_reduce
I0403 21:52:07.416587 13115 net.cpp:148] Top shape: 24 96 14 14 (451584)
I0403 21:52:07.416602 13115 net.cpp:156] Memory required for data: 863429664
I0403 21:52:07.416627 13115 layer_factory.hpp:77] Creating layer inception_4a/relu_3x3_reduce
I0403 21:52:07.416647 13115 net.cpp:91] Creating Layer inception_4a/relu_3x3_reduce
I0403 21:52:07.416663 13115 net.cpp:425] inception_4a/relu_3x3_reduce <- inception_4a/3x3_reduce
I0403 21:52:07.416682 13115 net.cpp:386] inception_4a/relu_3x3_reduce -> inception_4a/3x3_reduce (in-place)
I0403 21:52:07.416862 13115 net.cpp:141] Setting up inception_4a/relu_3x3_reduce
I0403 21:52:07.416887 13115 net.cpp:148] Top shape: 24 96 14 14 (451584)
I0403 21:52:07.416901 13115 net.cpp:156] Memory required for data: 865236000
I0403 21:52:07.416916 13115 layer_factory.hpp:77] Creating layer inception_4a/3x3
I0403 21:52:07.416939 13115 net.cpp:91] Creating Layer inception_4a/3x3
I0403 21:52:07.416957 13115 net.cpp:425] inception_4a/3x3 <- inception_4a/3x3_reduce
I0403 21:52:07.416980 13115 net.cpp:399] inception_4a/3x3 -> inception_4a/3x3
I0403 21:52:07.419692 13115 net.cpp:141] Setting up inception_4a/3x3
I0403 21:52:07.419721 13115 net.cpp:148] Top shape: 24 208 14 14 (978432)
I0403 21:52:07.419737 13115 net.cpp:156] Memory required for data: 869149728
I0403 21:52:07.419755 13115 layer_factory.hpp:77] Creating layer inception_4a/relu_3x3
I0403 21:52:07.419776 13115 net.cpp:91] Creating Layer inception_4a/relu_3x3
I0403 21:52:07.419793 13115 net.cpp:425] inception_4a/relu_3x3 <- inception_4a/3x3
I0403 21:52:07.419811 13115 net.cpp:386] inception_4a/relu_3x3 -> inception_4a/3x3 (in-place)
I0403 21:52:07.420088 13115 net.cpp:141] Setting up inception_4a/relu_3x3
I0403 21:52:07.420114 13115 net.cpp:148] Top shape: 24 208 14 14 (978432)
I0403 21:52:07.420128 13115 net.cpp:156] Memory required for data: 873063456
I0403 21:52:07.420143 13115 layer_factory.hpp:77] Creating layer inception_4a/5x5_reduce
I0403 21:52:07.420166 13115 net.cpp:91] Creating Layer inception_4a/5x5_reduce
I0403 21:52:07.420182 13115 net.cpp:425] inception_4a/5x5_reduce <- pool3/3x3_s2_pool3/3x3_s2_0_split_2
I0403 21:52:07.420203 13115 net.cpp:399] inception_4a/5x5_reduce -> inception_4a/5x5_reduce
I0403 21:52:07.421218 13115 net.cpp:141] Setting up inception_4a/5x5_reduce
I0403 21:52:07.421247 13115 net.cpp:148] Top shape: 24 16 14 14 (75264)
I0403 21:52:07.421262 13115 net.cpp:156] Memory required for data: 873364512
I0403 21:52:07.421280 13115 layer_factory.hpp:77] Creating layer inception_4a/relu_5x5_reduce
I0403 21:52:07.421300 13115 net.cpp:91] Creating Layer inception_4a/relu_5x5_reduce
I0403 21:52:07.421316 13115 net.cpp:425] inception_4a/relu_5x5_reduce <- inception_4a/5x5_reduce
I0403 21:52:07.421334 13115 net.cpp:386] inception_4a/relu_5x5_reduce -> inception_4a/5x5_reduce (in-place)
I0403 21:52:07.421512 13115 net.cpp:141] Setting up inception_4a/relu_5x5_reduce
I0403 21:52:07.421540 13115 net.cpp:148] Top shape: 24 16 14 14 (75264)
I0403 21:52:07.421555 13115 net.cpp:156] Memory required for data: 873665568
I0403 21:52:07.421569 13115 layer_factory.hpp:77] Creating layer inception_4a/5x5
I0403 21:52:07.421591 13115 net.cpp:91] Creating Layer inception_4a/5x5
I0403 21:52:07.421609 13115 net.cpp:425] inception_4a/5x5 <- inception_4a/5x5_reduce
I0403 21:52:07.421628 13115 net.cpp:399] inception_4a/5x5 -> inception_4a/5x5
I0403 21:52:07.422742 13115 net.cpp:141] Setting up inception_4a/5x5
I0403 21:52:07.422772 13115 net.cpp:148] Top shape: 24 48 14 14 (225792)
I0403 21:52:07.422787 13115 net.cpp:156] Memory required for data: 874568736
I0403 21:52:07.422806 13115 layer_factory.hpp:77] Creating layer inception_4a/relu_5x5
I0403 21:52:07.422824 13115 net.cpp:91] Creating Layer inception_4a/relu_5x5
I0403 21:52:07.422842 13115 net.cpp:425] inception_4a/relu_5x5 <- inception_4a/5x5
I0403 21:52:07.422862 13115 net.cpp:386] inception_4a/relu_5x5 -> inception_4a/5x5 (in-place)
I0403 21:52:07.423043 13115 net.cpp:141] Setting up inception_4a/relu_5x5
I0403 21:52:07.423069 13115 net.cpp:148] Top shape: 24 48 14 14 (225792)
I0403 21:52:07.423082 13115 net.cpp:156] Memory required for data: 875471904
I0403 21:52:07.423097 13115 layer_factory.hpp:77] Creating layer inception_4a/pool
I0403 21:52:07.423117 13115 net.cpp:91] Creating Layer inception_4a/pool
I0403 21:52:07.423135 13115 net.cpp:425] inception_4a/pool <- pool3/3x3_s2_pool3/3x3_s2_0_split_3
I0403 21:52:07.423152 13115 net.cpp:399] inception_4a/pool -> inception_4a/pool
I0403 21:52:07.423219 13115 net.cpp:141] Setting up inception_4a/pool
I0403 21:52:07.423243 13115 net.cpp:148] Top shape: 24 480 14 14 (2257920)
I0403 21:52:07.423259 13115 net.cpp:156] Memory required for data: 884503584
I0403 21:52:07.423272 13115 layer_factory.hpp:77] Creating layer inception_4a/pool_proj
I0403 21:52:07.423295 13115 net.cpp:91] Creating Layer inception_4a/pool_proj
I0403 21:52:07.423311 13115 net.cpp:425] inception_4a/pool_proj <- inception_4a/pool
I0403 21:52:07.423332 13115 net.cpp:399] inception_4a/pool_proj -> inception_4a/pool_proj
I0403 21:52:07.424486 13115 net.cpp:141] Setting up inception_4a/pool_proj
I0403 21:52:07.424516 13115 net.cpp:148] Top shape: 24 64 14 14 (301056)
I0403 21:52:07.424546 13115 net.cpp:156] Memory required for data: 885707808
I0403 21:52:07.424566 13115 layer_factory.hpp:77] Creating layer inception_4a/relu_pool_proj
I0403 21:52:07.424584 13115 net.cpp:91] Creating Layer inception_4a/relu_pool_proj
I0403 21:52:07.424600 13115 net.cpp:425] inception_4a/relu_pool_proj <- inception_4a/pool_proj
I0403 21:52:07.424621 13115 net.cpp:386] inception_4a/relu_pool_proj -> inception_4a/pool_proj (in-place)
I0403 21:52:07.424901 13115 net.cpp:141] Setting up inception_4a/relu_pool_proj
I0403 21:52:07.424927 13115 net.cpp:148] Top shape: 24 64 14 14 (301056)
I0403 21:52:07.424942 13115 net.cpp:156] Memory required for data: 886912032
I0403 21:52:07.424958 13115 layer_factory.hpp:77] Creating layer inception_4a/output
I0403 21:52:07.424975 13115 net.cpp:91] Creating Layer inception_4a/output
I0403 21:52:07.424990 13115 net.cpp:425] inception_4a/output <- inception_4a/1x1
I0403 21:52:07.425006 13115 net.cpp:425] inception_4a/output <- inception_4a/3x3
I0403 21:52:07.425022 13115 net.cpp:425] inception_4a/output <- inception_4a/5x5
I0403 21:52:07.425039 13115 net.cpp:425] inception_4a/output <- inception_4a/pool_proj
I0403 21:52:07.425058 13115 net.cpp:399] inception_4a/output -> inception_4a/output
I0403 21:52:07.425101 13115 net.cpp:141] Setting up inception_4a/output
I0403 21:52:07.425127 13115 net.cpp:148] Top shape: 24 512 14 14 (2408448)
I0403 21:52:07.425143 13115 net.cpp:156] Memory required for data: 896545824
I0403 21:52:07.425158 13115 layer_factory.hpp:77] Creating layer inception_4a/output_inception_4a/output_0_split
I0403 21:52:07.425174 13115 net.cpp:91] Creating Layer inception_4a/output_inception_4a/output_0_split
I0403 21:52:07.425190 13115 net.cpp:425] inception_4a/output_inception_4a/output_0_split <- inception_4a/output
I0403 21:52:07.425212 13115 net.cpp:399] inception_4a/output_inception_4a/output_0_split -> inception_4a/output_inception_4a/output_0_split_0
I0403 21:52:07.425237 13115 net.cpp:399] inception_4a/output_inception_4a/output_0_split -> inception_4a/output_inception_4a/output_0_split_1
I0403 21:52:07.425259 13115 net.cpp:399] inception_4a/output_inception_4a/output_0_split -> inception_4a/output_inception_4a/output_0_split_2
I0403 21:52:07.425279 13115 net.cpp:399] inception_4a/output_inception_4a/output_0_split -> inception_4a/output_inception_4a/output_0_split_3
I0403 21:52:07.425299 13115 net.cpp:399] inception_4a/output_inception_4a/output_0_split -> inception_4a/output_inception_4a/output_0_split_4
I0403 21:52:07.425391 13115 net.cpp:141] Setting up inception_4a/output_inception_4a/output_0_split
I0403 21:52:07.425415 13115 net.cpp:148] Top shape: 24 512 14 14 (2408448)
I0403 21:52:07.425431 13115 net.cpp:148] Top shape: 24 512 14 14 (2408448)
I0403 21:52:07.425449 13115 net.cpp:148] Top shape: 24 512 14 14 (2408448)
I0403 21:52:07.425465 13115 net.cpp:148] Top shape: 24 512 14 14 (2408448)
I0403 21:52:07.425480 13115 net.cpp:148] Top shape: 24 512 14 14 (2408448)
I0403 21:52:07.425495 13115 net.cpp:156] Memory required for data: 944714784
I0403 21:52:07.425510 13115 layer_factory.hpp:77] Creating layer loss1/ave_pool
I0403 21:52:07.425529 13115 net.cpp:91] Creating Layer loss1/ave_pool
I0403 21:52:07.425544 13115 net.cpp:425] loss1/ave_pool <- inception_4a/output_inception_4a/output_0_split_0
I0403 21:52:07.425561 13115 net.cpp:399] loss1/ave_pool -> loss1/ave_pool
I0403 21:52:07.425766 13115 net.cpp:141] Setting up loss1/ave_pool
I0403 21:52:07.425792 13115 net.cpp:148] Top shape: 24 512 4 4 (196608)
I0403 21:52:07.425808 13115 net.cpp:156] Memory required for data: 945501216
I0403 21:52:07.425824 13115 layer_factory.hpp:77] Creating layer loss1/conv
I0403 21:52:07.425846 13115 net.cpp:91] Creating Layer loss1/conv
I0403 21:52:07.425864 13115 net.cpp:425] loss1/conv <- loss1/ave_pool
I0403 21:52:07.425889 13115 net.cpp:399] loss1/conv -> loss1/conv
I0403 21:52:07.427286 13115 net.cpp:141] Setting up loss1/conv
I0403 21:52:07.427314 13115 net.cpp:148] Top shape: 24 128 4 4 (49152)
I0403 21:52:07.427330 13115 net.cpp:156] Memory required for data: 945697824
I0403 21:52:07.427362 13115 layer_factory.hpp:77] Creating layer loss1/relu_conv
I0403 21:52:07.427383 13115 net.cpp:91] Creating Layer loss1/relu_conv
I0403 21:52:07.427400 13115 net.cpp:425] loss1/relu_conv <- loss1/conv
I0403 21:52:07.427417 13115 net.cpp:386] loss1/relu_conv -> loss1/conv (in-place)
I0403 21:52:07.427696 13115 net.cpp:141] Setting up loss1/relu_conv
I0403 21:52:07.427722 13115 net.cpp:148] Top shape: 24 128 4 4 (49152)
I0403 21:52:07.427737 13115 net.cpp:156] Memory required for data: 945894432
I0403 21:52:07.427752 13115 layer_factory.hpp:77] Creating layer loss1/fc
I0403 21:52:07.427778 13115 net.cpp:91] Creating Layer loss1/fc
I0403 21:52:07.427796 13115 net.cpp:425] loss1/fc <- loss1/conv
I0403 21:52:07.427814 13115 net.cpp:399] loss1/fc -> loss1/fc
I0403 21:52:07.445924 13115 net.cpp:141] Setting up loss1/fc
I0403 21:52:07.445960 13115 net.cpp:148] Top shape: 24 1024 (24576)
I0403 21:52:07.445973 13115 net.cpp:156] Memory required for data: 945992736
I0403 21:52:07.445991 13115 layer_factory.hpp:77] Creating layer loss1/relu_fc
I0403 21:52:07.446008 13115 net.cpp:91] Creating Layer loss1/relu_fc
I0403 21:52:07.446023 13115 net.cpp:425] loss1/relu_fc <- loss1/fc
I0403 21:52:07.446043 13115 net.cpp:386] loss1/relu_fc -> loss1/fc (in-place)
I0403 21:52:07.446236 13115 net.cpp:141] Setting up loss1/relu_fc
I0403 21:52:07.446260 13115 net.cpp:148] Top shape: 24 1024 (24576)
I0403 21:52:07.446274 13115 net.cpp:156] Memory required for data: 946091040
I0403 21:52:07.446288 13115 layer_factory.hpp:77] Creating layer loss1/drop_fc
I0403 21:52:07.446316 13115 net.cpp:91] Creating Layer loss1/drop_fc
I0403 21:52:07.446332 13115 net.cpp:425] loss1/drop_fc <- loss1/fc
I0403 21:52:07.446349 13115 net.cpp:386] loss1/drop_fc -> loss1/fc (in-place)
I0403 21:52:07.446398 13115 net.cpp:141] Setting up loss1/drop_fc
I0403 21:52:07.446427 13115 net.cpp:148] Top shape: 24 1024 (24576)
I0403 21:52:07.446444 13115 net.cpp:156] Memory required for data: 946189344
I0403 21:52:07.446457 13115 layer_factory.hpp:77] Creating layer loss1/classifier_plantvillage
I0403 21:52:07.446475 13115 net.cpp:91] Creating Layer loss1/classifier_plantvillage
I0403 21:52:07.446491 13115 net.cpp:425] loss1/classifier_plantvillage <- loss1/fc
I0403 21:52:07.446511 13115 net.cpp:399] loss1/classifier_plantvillage -> loss1/classifier_plantvillage
I0403 21:52:07.447433 13115 net.cpp:141] Setting up loss1/classifier_plantvillage
I0403 21:52:07.447461 13115 net.cpp:148] Top shape: 24 38 (912)
I0403 21:52:07.447476 13115 net.cpp:156] Memory required for data: 946192992
I0403 21:52:07.447494 13115 layer_factory.hpp:77] Creating layer loss1/classifier_plantvillage_loss1/classifier_plantvillage_0_split
I0403 21:52:07.447515 13115 net.cpp:91] Creating Layer loss1/classifier_plantvillage_loss1/classifier_plantvillage_0_split
I0403 21:52:07.447530 13115 net.cpp:425] loss1/classifier_plantvillage_loss1/classifier_plantvillage_0_split <- loss1/classifier_plantvillage
I0403 21:52:07.447549 13115 net.cpp:399] loss1/classifier_plantvillage_loss1/classifier_plantvillage_0_split -> loss1/classifier_plantvillage_loss1/classifier_plantvillage_0_split_0
I0403 21:52:07.447568 13115 net.cpp:399] loss1/classifier_plantvillage_loss1/classifier_plantvillage_0_split -> loss1/classifier_plantvillage_loss1/classifier_plantvillage_0_split_1
I0403 21:52:07.447588 13115 net.cpp:399] loss1/classifier_plantvillage_loss1/classifier_plantvillage_0_split -> loss1/classifier_plantvillage_loss1/classifier_plantvillage_0_split_2
I0403 21:52:07.447651 13115 net.cpp:141] Setting up loss1/classifier_plantvillage_loss1/classifier_plantvillage_0_split
I0403 21:52:07.447675 13115 net.cpp:148] Top shape: 24 38 (912)
I0403 21:52:07.447692 13115 net.cpp:148] Top shape: 24 38 (912)
I0403 21:52:07.447707 13115 net.cpp:148] Top shape: 24 38 (912)
I0403 21:52:07.447721 13115 net.cpp:156] Memory required for data: 946203936
I0403 21:52:07.447736 13115 layer_factory.hpp:77] Creating layer inception_4b/1x1
I0403 21:52:07.447754 13115 net.cpp:91] Creating Layer inception_4b/1x1
I0403 21:52:07.447787 13115 net.cpp:425] inception_4b/1x1 <- inception_4a/output_inception_4a/output_0_split_1
I0403 21:52:07.447809 13115 net.cpp:399] inception_4b/1x1 -> inception_4b/1x1
I0403 21:52:07.449416 13115 net.cpp:141] Setting up inception_4b/1x1
I0403 21:52:07.449445 13115 net.cpp:148] Top shape: 24 160 14 14 (752640)
I0403 21:52:07.449460 13115 net.cpp:156] Memory required for data: 949214496
I0403 21:52:07.449477 13115 layer_factory.hpp:77] Creating layer inception_4b/relu_1x1
I0403 21:52:07.449497 13115 net.cpp:91] Creating Layer inception_4b/relu_1x1
I0403 21:52:07.449514 13115 net.cpp:425] inception_4b/relu_1x1 <- inception_4b/1x1
I0403 21:52:07.449532 13115 net.cpp:386] inception_4b/relu_1x1 -> inception_4b/1x1 (in-place)
I0403 21:52:07.449704 13115 net.cpp:141] Setting up inception_4b/relu_1x1
I0403 21:52:07.449731 13115 net.cpp:148] Top shape: 24 160 14 14 (752640)
I0403 21:52:07.449759 13115 net.cpp:156] Memory required for data: 952225056
I0403 21:52:07.449774 13115 layer_factory.hpp:77] Creating layer inception_4b/3x3_reduce
I0403 21:52:07.449795 13115 net.cpp:91] Creating Layer inception_4b/3x3_reduce
I0403 21:52:07.449813 13115 net.cpp:425] inception_4b/3x3_reduce <- inception_4a/output_inception_4a/output_0_split_2
I0403 21:52:07.449832 13115 net.cpp:399] inception_4b/3x3_reduce -> inception_4b/3x3_reduce
I0403 21:52:07.451194 13115 net.cpp:141] Setting up inception_4b/3x3_reduce
I0403 21:52:07.451232 13115 net.cpp:148] Top shape: 24 112 14 14 (526848)
I0403 21:52:07.451249 13115 net.cpp:156] Memory required for data: 954332448
I0403 21:52:07.451267 13115 layer_factory.hpp:77] Creating layer inception_4b/relu_3x3_reduce
I0403 21:52:07.451284 13115 net.cpp:91] Creating Layer inception_4b/relu_3x3_reduce
I0403 21:52:07.451300 13115 net.cpp:425] inception_4b/relu_3x3_reduce <- inception_4b/3x3_reduce
I0403 21:52:07.451319 13115 net.cpp:386] inception_4b/relu_3x3_reduce -> inception_4b/3x3_reduce (in-place)
I0403 21:52:07.451591 13115 net.cpp:141] Setting up inception_4b/relu_3x3_reduce
I0403 21:52:07.451618 13115 net.cpp:148] Top shape: 24 112 14 14 (526848)
I0403 21:52:07.451633 13115 net.cpp:156] Memory required for data: 956439840
I0403 21:52:07.451648 13115 layer_factory.hpp:77] Creating layer inception_4b/3x3
I0403 21:52:07.451670 13115 net.cpp:91] Creating Layer inception_4b/3x3
I0403 21:52:07.451686 13115 net.cpp:425] inception_4b/3x3 <- inception_4b/3x3_reduce
I0403 21:52:07.451705 13115 net.cpp:399] inception_4b/3x3 -> inception_4b/3x3
I0403 21:52:07.454625 13115 net.cpp:141] Setting up inception_4b/3x3
I0403 21:52:07.454654 13115 net.cpp:148] Top shape: 24 224 14 14 (1053696)
I0403 21:52:07.454669 13115 net.cpp:156] Memory required for data: 960654624
I0403 21:52:07.454687 13115 layer_factory.hpp:77] Creating layer inception_4b/relu_3x3
I0403 21:52:07.454707 13115 net.cpp:91] Creating Layer inception_4b/relu_3x3
I0403 21:52:07.454723 13115 net.cpp:425] inception_4b/relu_3x3 <- inception_4b/3x3
I0403 21:52:07.454741 13115 net.cpp:386] inception_4b/relu_3x3 -> inception_4b/3x3 (in-place)
I0403 21:52:07.454929 13115 net.cpp:141] Setting up inception_4b/relu_3x3
I0403 21:52:07.454954 13115 net.cpp:148] Top shape: 24 224 14 14 (1053696)
I0403 21:52:07.454969 13115 net.cpp:156] Memory required for data: 964869408
I0403 21:52:07.454984 13115 layer_factory.hpp:77] Creating layer inception_4b/5x5_reduce
I0403 21:52:07.455006 13115 net.cpp:91] Creating Layer inception_4b/5x5_reduce
I0403 21:52:07.455029 13115 net.cpp:425] inception_4b/5x5_reduce <- inception_4a/output_inception_4a/output_0_split_3
I0403 21:52:07.455047 13115 net.cpp:399] inception_4b/5x5_reduce -> inception_4b/5x5_reduce
I0403 21:52:07.456112 13115 net.cpp:141] Setting up inception_4b/5x5_reduce
I0403 21:52:07.456140 13115 net.cpp:148] Top shape: 24 24 14 14 (112896)
I0403 21:52:07.456156 13115 net.cpp:156] Memory required for data: 965320992
I0403 21:52:07.456173 13115 layer_factory.hpp:77] Creating layer inception_4b/relu_5x5_reduce
I0403 21:52:07.456193 13115 net.cpp:91] Creating Layer inception_4b/relu_5x5_reduce
I0403 21:52:07.456226 13115 net.cpp:425] inception_4b/relu_5x5_reduce <- inception_4b/5x5_reduce
I0403 21:52:07.456246 13115 net.cpp:386] inception_4b/relu_5x5_reduce -> inception_4b/5x5_reduce (in-place)
I0403 21:52:07.456425 13115 net.cpp:141] Setting up inception_4b/relu_5x5_reduce
I0403 21:52:07.456450 13115 net.cpp:148] Top shape: 24 24 14 14 (112896)
I0403 21:52:07.456465 13115 net.cpp:156] Memory required for data: 965772576
I0403 21:52:07.456478 13115 layer_factory.hpp:77] Creating layer inception_4b/5x5
I0403 21:52:07.456501 13115 net.cpp:91] Creating Layer inception_4b/5x5
I0403 21:52:07.456517 13115 net.cpp:425] inception_4b/5x5 <- inception_4b/5x5_reduce
I0403 21:52:07.456538 13115 net.cpp:399] inception_4b/5x5 -> inception_4b/5x5
I0403 21:52:07.457716 13115 net.cpp:141] Setting up inception_4b/5x5
I0403 21:52:07.457743 13115 net.cpp:148] Top shape: 24 64 14 14 (301056)
I0403 21:52:07.457758 13115 net.cpp:156] Memory required for data: 966976800
I0403 21:52:07.457775 13115 layer_factory.hpp:77] Creating layer inception_4b/relu_5x5
I0403 21:52:07.457795 13115 net.cpp:91] Creating Layer inception_4b/relu_5x5
I0403 21:52:07.457811 13115 net.cpp:425] inception_4b/relu_5x5 <- inception_4b/5x5
I0403 21:52:07.457828 13115 net.cpp:386] inception_4b/relu_5x5 -> inception_4b/5x5 (in-place)
I0403 21:52:07.458101 13115 net.cpp:141] Setting up inception_4b/relu_5x5
I0403 21:52:07.458127 13115 net.cpp:148] Top shape: 24 64 14 14 (301056)
I0403 21:52:07.458140 13115 net.cpp:156] Memory required for data: 968181024
I0403 21:52:07.458155 13115 layer_factory.hpp:77] Creating layer inception_4b/pool
I0403 21:52:07.458179 13115 net.cpp:91] Creating Layer inception_4b/pool
I0403 21:52:07.458196 13115 net.cpp:425] inception_4b/pool <- inception_4a/output_inception_4a/output_0_split_4
I0403 21:52:07.458220 13115 net.cpp:399] inception_4b/pool -> inception_4b/pool
I0403 21:52:07.458286 13115 net.cpp:141] Setting up inception_4b/pool
I0403 21:52:07.458307 13115 net.cpp:148] Top shape: 24 512 14 14 (2408448)
I0403 21:52:07.458323 13115 net.cpp:156] Memory required for data: 977814816
I0403 21:52:07.458336 13115 layer_factory.hpp:77] Creating layer inception_4b/pool_proj
I0403 21:52:07.458358 13115 net.cpp:91] Creating Layer inception_4b/pool_proj
I0403 21:52:07.458374 13115 net.cpp:425] inception_4b/pool_proj <- inception_4b/pool
I0403 21:52:07.458395 13115 net.cpp:399] inception_4b/pool_proj -> inception_4b/pool_proj
I0403 21:52:07.459568 13115 net.cpp:141] Setting up inception_4b/pool_proj
I0403 21:52:07.459599 13115 net.cpp:148] Top shape: 24 64 14 14 (301056)
I0403 21:52:07.459615 13115 net.cpp:156] Memory required for data: 979019040
I0403 21:52:07.459633 13115 layer_factory.hpp:77] Creating layer inception_4b/relu_pool_proj
I0403 21:52:07.459651 13115 net.cpp:91] Creating Layer inception_4b/relu_pool_proj
I0403 21:52:07.459667 13115 net.cpp:425] inception_4b/relu_pool_proj <- inception_4b/pool_proj
I0403 21:52:07.459683 13115 net.cpp:386] inception_4b/relu_pool_proj -> inception_4b/pool_proj (in-place)
I0403 21:52:07.459858 13115 net.cpp:141] Setting up inception_4b/relu_pool_proj
I0403 21:52:07.459885 13115 net.cpp:148] Top shape: 24 64 14 14 (301056)
I0403 21:52:07.459899 13115 net.cpp:156] Memory required for data: 980223264
I0403 21:52:07.459914 13115 layer_factory.hpp:77] Creating layer inception_4b/output
I0403 21:52:07.459931 13115 net.cpp:91] Creating Layer inception_4b/output
I0403 21:52:07.459946 13115 net.cpp:425] inception_4b/output <- inception_4b/1x1
I0403 21:52:07.459961 13115 net.cpp:425] inception_4b/output <- inception_4b/3x3
I0403 21:52:07.459977 13115 net.cpp:425] inception_4b/output <- inception_4b/5x5
I0403 21:52:07.459992 13115 net.cpp:425] inception_4b/output <- inception_4b/pool_proj
I0403 21:52:07.460011 13115 net.cpp:399] inception_4b/output -> inception_4b/output
I0403 21:52:07.460054 13115 net.cpp:141] Setting up inception_4b/output
I0403 21:52:07.460078 13115 net.cpp:148] Top shape: 24 512 14 14 (2408448)
I0403 21:52:07.460091 13115 net.cpp:156] Memory required for data: 989857056
I0403 21:52:07.460119 13115 layer_factory.hpp:77] Creating layer inception_4b/output_inception_4b/output_0_split
I0403 21:52:07.460139 13115 net.cpp:91] Creating Layer inception_4b/output_inception_4b/output_0_split
I0403 21:52:07.460155 13115 net.cpp:425] inception_4b/output_inception_4b/output_0_split <- inception_4b/output
I0403 21:52:07.460173 13115 net.cpp:399] inception_4b/output_inception_4b/output_0_split -> inception_4b/output_inception_4b/output_0_split_0
I0403 21:52:07.460192 13115 net.cpp:399] inception_4b/output_inception_4b/output_0_split -> inception_4b/output_inception_4b/output_0_split_1
I0403 21:52:07.460221 13115 net.cpp:399] inception_4b/output_inception_4b/output_0_split -> inception_4b/output_inception_4b/output_0_split_2
I0403 21:52:07.460242 13115 net.cpp:399] inception_4b/output_inception_4b/output_0_split -> inception_4b/output_inception_4b/output_0_split_3
I0403 21:52:07.460321 13115 net.cpp:141] Setting up inception_4b/output_inception_4b/output_0_split
I0403 21:52:07.460345 13115 net.cpp:148] Top shape: 24 512 14 14 (2408448)
I0403 21:52:07.460361 13115 net.cpp:148] Top shape: 24 512 14 14 (2408448)
I0403 21:52:07.460376 13115 net.cpp:148] Top shape: 24 512 14 14 (2408448)
I0403 21:52:07.460391 13115 net.cpp:148] Top shape: 24 512 14 14 (2408448)
I0403 21:52:07.460404 13115 net.cpp:156] Memory required for data: 1028392224
I0403 21:52:07.460418 13115 layer_factory.hpp:77] Creating layer inception_4c/1x1
I0403 21:52:07.460440 13115 net.cpp:91] Creating Layer inception_4c/1x1
I0403 21:52:07.460458 13115 net.cpp:425] inception_4c/1x1 <- inception_4b/output_inception_4b/output_0_split_0
I0403 21:52:07.460479 13115 net.cpp:399] inception_4c/1x1 -> inception_4c/1x1
I0403 21:52:07.461908 13115 net.cpp:141] Setting up inception_4c/1x1
I0403 21:52:07.461935 13115 net.cpp:148] Top shape: 24 128 14 14 (602112)
I0403 21:52:07.461951 13115 net.cpp:156] Memory required for data: 1030800672
I0403 21:52:07.461969 13115 layer_factory.hpp:77] Creating layer inception_4c/relu_1x1
I0403 21:52:07.461985 13115 net.cpp:91] Creating Layer inception_4c/relu_1x1
I0403 21:52:07.462002 13115 net.cpp:425] inception_4c/relu_1x1 <- inception_4c/1x1
I0403 21:52:07.462020 13115 net.cpp:386] inception_4c/relu_1x1 -> inception_4c/1x1 (in-place)
I0403 21:52:07.462199 13115 net.cpp:141] Setting up inception_4c/relu_1x1
I0403 21:52:07.462234 13115 net.cpp:148] Top shape: 24 128 14 14 (602112)
I0403 21:52:07.462249 13115 net.cpp:156] Memory required for data: 1033209120
I0403 21:52:07.462265 13115 layer_factory.hpp:77] Creating layer inception_4c/3x3_reduce
I0403 21:52:07.462286 13115 net.cpp:91] Creating Layer inception_4c/3x3_reduce
I0403 21:52:07.462303 13115 net.cpp:425] inception_4c/3x3_reduce <- inception_4b/output_inception_4b/output_0_split_1
I0403 21:52:07.462324 13115 net.cpp:399] inception_4c/3x3_reduce -> inception_4c/3x3_reduce
I0403 21:52:07.464237 13115 net.cpp:141] Setting up inception_4c/3x3_reduce
I0403 21:52:07.464264 13115 net.cpp:148] Top shape: 24 128 14 14 (602112)
I0403 21:52:07.464280 13115 net.cpp:156] Memory required for data: 1035617568
I0403 21:52:07.464298 13115 layer_factory.hpp:77] Creating layer inception_4c/relu_3x3_reduce
I0403 21:52:07.464318 13115 net.cpp:91] Creating Layer inception_4c/relu_3x3_reduce
I0403 21:52:07.464334 13115 net.cpp:425] inception_4c/relu_3x3_reduce <- inception_4c/3x3_reduce
I0403 21:52:07.464351 13115 net.cpp:386] inception_4c/relu_3x3_reduce -> inception_4c/3x3_reduce (in-place)
I0403 21:52:07.464632 13115 net.cpp:141] Setting up inception_4c/relu_3x3_reduce
I0403 21:52:07.464658 13115 net.cpp:148] Top shape: 24 128 14 14 (602112)
I0403 21:52:07.464673 13115 net.cpp:156] Memory required for data: 1038026016
I0403 21:52:07.464687 13115 layer_factory.hpp:77] Creating layer inception_4c/3x3
I0403 21:52:07.464709 13115 net.cpp:91] Creating Layer inception_4c/3x3
I0403 21:52:07.464726 13115 net.cpp:425] inception_4c/3x3 <- inception_4c/3x3_reduce
I0403 21:52:07.464747 13115 net.cpp:399] inception_4c/3x3 -> inception_4c/3x3
I0403 21:52:07.468291 13115 net.cpp:141] Setting up inception_4c/3x3
I0403 21:52:07.468330 13115 net.cpp:148] Top shape: 24 256 14 14 (1204224)
I0403 21:52:07.468350 13115 net.cpp:156] Memory required for data: 1042842912
I0403 21:52:07.468379 13115 layer_factory.hpp:77] Creating layer inception_4c/relu_3x3
I0403 21:52:07.468401 13115 net.cpp:91] Creating Layer inception_4c/relu_3x3
I0403 21:52:07.468416 13115 net.cpp:425] inception_4c/relu_3x3 <- inception_4c/3x3
I0403 21:52:07.468433 13115 net.cpp:386] inception_4c/relu_3x3 -> inception_4c/3x3 (in-place)
I0403 21:52:07.468612 13115 net.cpp:141] Setting up inception_4c/relu_3x3
I0403 21:52:07.468636 13115 net.cpp:148] Top shape: 24 256 14 14 (1204224)
I0403 21:52:07.468650 13115 net.cpp:156] Memory required for data: 1047659808
I0403 21:52:07.468664 13115 layer_factory.hpp:77] Creating layer inception_4c/5x5_reduce
I0403 21:52:07.468688 13115 net.cpp:91] Creating Layer inception_4c/5x5_reduce
I0403 21:52:07.468706 13115 net.cpp:425] inception_4c/5x5_reduce <- inception_4b/output_inception_4b/output_0_split_2
I0403 21:52:07.468725 13115 net.cpp:399] inception_4c/5x5_reduce -> inception_4c/5x5_reduce
I0403 21:52:07.469784 13115 net.cpp:141] Setting up inception_4c/5x5_reduce
I0403 21:52:07.469810 13115 net.cpp:148] Top shape: 24 24 14 14 (112896)
I0403 21:52:07.469825 13115 net.cpp:156] Memory required for data: 1048111392
I0403 21:52:07.469842 13115 layer_factory.hpp:77] Creating layer inception_4c/relu_5x5_reduce
I0403 21:52:07.469861 13115 net.cpp:91] Creating Layer inception_4c/relu_5x5_reduce
I0403 21:52:07.469877 13115 net.cpp:425] inception_4c/relu_5x5_reduce <- inception_4c/5x5_reduce
I0403 21:52:07.469894 13115 net.cpp:386] inception_4c/relu_5x5_reduce -> inception_4c/5x5_reduce (in-place)
I0403 21:52:07.470075 13115 net.cpp:141] Setting up inception_4c/relu_5x5_reduce
I0403 21:52:07.470099 13115 net.cpp:148] Top shape: 24 24 14 14 (112896)
I0403 21:52:07.470114 13115 net.cpp:156] Memory required for data: 1048562976
I0403 21:52:07.470129 13115 layer_factory.hpp:77] Creating layer inception_4c/5x5
I0403 21:52:07.470150 13115 net.cpp:91] Creating Layer inception_4c/5x5
I0403 21:52:07.470167 13115 net.cpp:425] inception_4c/5x5 <- inception_4c/5x5_reduce
I0403 21:52:07.470188 13115 net.cpp:399] inception_4c/5x5 -> inception_4c/5x5
I0403 21:52:07.471400 13115 net.cpp:141] Setting up inception_4c/5x5
I0403 21:52:07.471429 13115 net.cpp:148] Top shape: 24 64 14 14 (301056)
I0403 21:52:07.471444 13115 net.cpp:156] Memory required for data: 1049767200
I0403 21:52:07.471463 13115 layer_factory.hpp:77] Creating layer inception_4c/relu_5x5
I0403 21:52:07.471482 13115 net.cpp:91] Creating Layer inception_4c/relu_5x5
I0403 21:52:07.471498 13115 net.cpp:425] inception_4c/relu_5x5 <- inception_4c/5x5
I0403 21:52:07.471516 13115 net.cpp:386] inception_4c/relu_5x5 -> inception_4c/5x5 (in-place)
I0403 21:52:07.471794 13115 net.cpp:141] Setting up inception_4c/relu_5x5
I0403 21:52:07.471822 13115 net.cpp:148] Top shape: 24 64 14 14 (301056)
I0403 21:52:07.471837 13115 net.cpp:156] Memory required for data: 1050971424
I0403 21:52:07.471851 13115 layer_factory.hpp:77] Creating layer inception_4c/pool
I0403 21:52:07.471868 13115 net.cpp:91] Creating Layer inception_4c/pool
I0403 21:52:07.471884 13115 net.cpp:425] inception_4c/pool <- inception_4b/output_inception_4b/output_0_split_3
I0403 21:52:07.471902 13115 net.cpp:399] inception_4c/pool -> inception_4c/pool
I0403 21:52:07.471966 13115 net.cpp:141] Setting up inception_4c/pool
I0403 21:52:07.471989 13115 net.cpp:148] Top shape: 24 512 14 14 (2408448)
I0403 21:52:07.472004 13115 net.cpp:156] Memory required for data: 1060605216
I0403 21:52:07.472018 13115 layer_factory.hpp:77] Creating layer inception_4c/pool_proj
I0403 21:52:07.472036 13115 net.cpp:91] Creating Layer inception_4c/pool_proj
I0403 21:52:07.472054 13115 net.cpp:425] inception_4c/pool_proj <- inception_4c/pool
I0403 21:52:07.472074 13115 net.cpp:399] inception_4c/pool_proj -> inception_4c/pool_proj
I0403 21:52:07.473316 13115 net.cpp:141] Setting up inception_4c/pool_proj
I0403 21:52:07.473345 13115 net.cpp:148] Top shape: 24 64 14 14 (301056)
I0403 21:52:07.473382 13115 net.cpp:156] Memory required for data: 1061809440
I0403 21:52:07.473402 13115 layer_factory.hpp:77] Creating layer inception_4c/relu_pool_proj
I0403 21:52:07.473419 13115 net.cpp:91] Creating Layer inception_4c/relu_pool_proj
I0403 21:52:07.473434 13115 net.cpp:425] inception_4c/relu_pool_proj <- inception_4c/pool_proj
I0403 21:52:07.473451 13115 net.cpp:386] inception_4c/relu_pool_proj -> inception_4c/pool_proj (in-place)
I0403 21:52:07.473635 13115 net.cpp:141] Setting up inception_4c/relu_pool_proj
I0403 21:52:07.473662 13115 net.cpp:148] Top shape: 24 64 14 14 (301056)
I0403 21:52:07.473678 13115 net.cpp:156] Memory required for data: 1063013664
I0403 21:52:07.473695 13115 layer_factory.hpp:77] Creating layer inception_4c/output
I0403 21:52:07.473711 13115 net.cpp:91] Creating Layer inception_4c/output
I0403 21:52:07.473726 13115 net.cpp:425] inception_4c/output <- inception_4c/1x1
I0403 21:52:07.473742 13115 net.cpp:425] inception_4c/output <- inception_4c/3x3
I0403 21:52:07.473757 13115 net.cpp:425] inception_4c/output <- inception_4c/5x5
I0403 21:52:07.473773 13115 net.cpp:425] inception_4c/output <- inception_4c/pool_proj
I0403 21:52:07.473791 13115 net.cpp:399] inception_4c/output -> inception_4c/output
I0403 21:52:07.473837 13115 net.cpp:141] Setting up inception_4c/output
I0403 21:52:07.473860 13115 net.cpp:148] Top shape: 24 512 14 14 (2408448)
I0403 21:52:07.473875 13115 net.cpp:156] Memory required for data: 1072647456
I0403 21:52:07.473889 13115 layer_factory.hpp:77] Creating layer inception_4c/output_inception_4c/output_0_split
I0403 21:52:07.473908 13115 net.cpp:91] Creating Layer inception_4c/output_inception_4c/output_0_split
I0403 21:52:07.473925 13115 net.cpp:425] inception_4c/output_inception_4c/output_0_split <- inception_4c/output
I0403 21:52:07.473942 13115 net.cpp:399] inception_4c/output_inception_4c/output_0_split -> inception_4c/output_inception_4c/output_0_split_0
I0403 21:52:07.473963 13115 net.cpp:399] inception_4c/output_inception_4c/output_0_split -> inception_4c/output_inception_4c/output_0_split_1
I0403 21:52:07.473986 13115 net.cpp:399] inception_4c/output_inception_4c/output_0_split -> inception_4c/output_inception_4c/output_0_split_2
I0403 21:52:07.474007 13115 net.cpp:399] inception_4c/output_inception_4c/output_0_split -> inception_4c/output_inception_4c/output_0_split_3
I0403 21:52:07.474093 13115 net.cpp:141] Setting up inception_4c/output_inception_4c/output_0_split
I0403 21:52:07.474117 13115 net.cpp:148] Top shape: 24 512 14 14 (2408448)
I0403 21:52:07.474133 13115 net.cpp:148] Top shape: 24 512 14 14 (2408448)
I0403 21:52:07.474149 13115 net.cpp:148] Top shape: 24 512 14 14 (2408448)
I0403 21:52:07.474164 13115 net.cpp:148] Top shape: 24 512 14 14 (2408448)
I0403 21:52:07.474177 13115 net.cpp:156] Memory required for data: 1111182624
I0403 21:52:07.474192 13115 layer_factory.hpp:77] Creating layer inception_4d/1x1
I0403 21:52:07.474220 13115 net.cpp:91] Creating Layer inception_4d/1x1
I0403 21:52:07.474238 13115 net.cpp:425] inception_4d/1x1 <- inception_4c/output_inception_4c/output_0_split_0
I0403 21:52:07.474259 13115 net.cpp:399] inception_4d/1x1 -> inception_4d/1x1
I0403 21:52:07.475646 13115 net.cpp:141] Setting up inception_4d/1x1
I0403 21:52:07.475674 13115 net.cpp:148] Top shape: 24 112 14 14 (526848)
I0403 21:52:07.475690 13115 net.cpp:156] Memory required for data: 1113290016
I0403 21:52:07.475708 13115 layer_factory.hpp:77] Creating layer inception_4d/relu_1x1
I0403 21:52:07.475728 13115 net.cpp:91] Creating Layer inception_4d/relu_1x1
I0403 21:52:07.475744 13115 net.cpp:425] inception_4d/relu_1x1 <- inception_4d/1x1
I0403 21:52:07.475761 13115 net.cpp:386] inception_4d/relu_1x1 -> inception_4d/1x1 (in-place)
I0403 21:52:07.475944 13115 net.cpp:141] Setting up inception_4d/relu_1x1
I0403 21:52:07.475968 13115 net.cpp:148] Top shape: 24 112 14 14 (526848)
I0403 21:52:07.475982 13115 net.cpp:156] Memory required for data: 1115397408
I0403 21:52:07.475997 13115 layer_factory.hpp:77] Creating layer inception_4d/3x3_reduce
I0403 21:52:07.476034 13115 net.cpp:91] Creating Layer inception_4d/3x3_reduce
I0403 21:52:07.476052 13115 net.cpp:425] inception_4d/3x3_reduce <- inception_4c/output_inception_4c/output_0_split_1
I0403 21:52:07.476071 13115 net.cpp:399] inception_4d/3x3_reduce -> inception_4d/3x3_reduce
I0403 21:52:07.477609 13115 net.cpp:141] Setting up inception_4d/3x3_reduce
I0403 21:52:07.477638 13115 net.cpp:148] Top shape: 24 144 14 14 (677376)
I0403 21:52:07.477654 13115 net.cpp:156] Memory required for data: 1118106912
I0403 21:52:07.477674 13115 layer_factory.hpp:77] Creating layer inception_4d/relu_3x3_reduce
I0403 21:52:07.477691 13115 net.cpp:91] Creating Layer inception_4d/relu_3x3_reduce
I0403 21:52:07.477708 13115 net.cpp:425] inception_4d/relu_3x3_reduce <- inception_4d/3x3_reduce
I0403 21:52:07.477728 13115 net.cpp:386] inception_4d/relu_3x3_reduce -> inception_4d/3x3_reduce (in-place)
I0403 21:52:07.478035 13115 net.cpp:141] Setting up inception_4d/relu_3x3_reduce
I0403 21:52:07.478062 13115 net.cpp:148] Top shape: 24 144 14 14 (677376)
I0403 21:52:07.478077 13115 net.cpp:156] Memory required for data: 1120816416
I0403 21:52:07.478091 13115 layer_factory.hpp:77] Creating layer inception_4d/3x3
I0403 21:52:07.478114 13115 net.cpp:91] Creating Layer inception_4d/3x3
I0403 21:52:07.478132 13115 net.cpp:425] inception_4d/3x3 <- inception_4d/3x3_reduce
I0403 21:52:07.478154 13115 net.cpp:399] inception_4d/3x3 -> inception_4d/3x3
I0403 21:52:07.482487 13115 net.cpp:141] Setting up inception_4d/3x3
I0403 21:52:07.482517 13115 net.cpp:148] Top shape: 24 288 14 14 (1354752)
I0403 21:52:07.482533 13115 net.cpp:156] Memory required for data: 1126235424
I0403 21:52:07.482552 13115 layer_factory.hpp:77] Creating layer inception_4d/relu_3x3
I0403 21:52:07.482571 13115 net.cpp:91] Creating Layer inception_4d/relu_3x3
I0403 21:52:07.482589 13115 net.cpp:425] inception_4d/relu_3x3 <- inception_4d/3x3
I0403 21:52:07.482606 13115 net.cpp:386] inception_4d/relu_3x3 -> inception_4d/3x3 (in-place)
I0403 21:52:07.482789 13115 net.cpp:141] Setting up inception_4d/relu_3x3
I0403 21:52:07.482816 13115 net.cpp:148] Top shape: 24 288 14 14 (1354752)
I0403 21:52:07.482832 13115 net.cpp:156] Memory required for data: 1131654432
I0403 21:52:07.482847 13115 layer_factory.hpp:77] Creating layer inception_4d/5x5_reduce
I0403 21:52:07.482869 13115 net.cpp:91] Creating Layer inception_4d/5x5_reduce
I0403 21:52:07.482887 13115 net.cpp:425] inception_4d/5x5_reduce <- inception_4c/output_inception_4c/output_0_split_2
I0403 21:52:07.482908 13115 net.cpp:399] inception_4d/5x5_reduce -> inception_4d/5x5_reduce
I0403 21:52:07.484053 13115 net.cpp:141] Setting up inception_4d/5x5_reduce
I0403 21:52:07.484081 13115 net.cpp:148] Top shape: 24 32 14 14 (150528)
I0403 21:52:07.484097 13115 net.cpp:156] Memory required for data: 1132256544
I0403 21:52:07.484114 13115 layer_factory.hpp:77] Creating layer inception_4d/relu_5x5_reduce
I0403 21:52:07.484134 13115 net.cpp:91] Creating Layer inception_4d/relu_5x5_reduce
I0403 21:52:07.484153 13115 net.cpp:425] inception_4d/relu_5x5_reduce <- inception_4d/5x5_reduce
I0403 21:52:07.484169 13115 net.cpp:386] inception_4d/relu_5x5_reduce -> inception_4d/5x5_reduce (in-place)
I0403 21:52:07.484367 13115 net.cpp:141] Setting up inception_4d/relu_5x5_reduce
I0403 21:52:07.484392 13115 net.cpp:148] Top shape: 24 32 14 14 (150528)
I0403 21:52:07.484407 13115 net.cpp:156] Memory required for data: 1132858656
I0403 21:52:07.484422 13115 layer_factory.hpp:77] Creating layer inception_4d/5x5
I0403 21:52:07.484447 13115 net.cpp:91] Creating Layer inception_4d/5x5
I0403 21:52:07.484463 13115 net.cpp:425] inception_4d/5x5 <- inception_4d/5x5_reduce
I0403 21:52:07.484483 13115 net.cpp:399] inception_4d/5x5 -> inception_4d/5x5
I0403 21:52:07.485971 13115 net.cpp:141] Setting up inception_4d/5x5
I0403 21:52:07.486002 13115 net.cpp:148] Top shape: 24 64 14 14 (301056)
I0403 21:52:07.486018 13115 net.cpp:156] Memory required for data: 1134062880
I0403 21:52:07.486038 13115 layer_factory.hpp:77] Creating layer inception_4d/relu_5x5
I0403 21:52:07.486071 13115 net.cpp:91] Creating Layer inception_4d/relu_5x5
I0403 21:52:07.486088 13115 net.cpp:425] inception_4d/relu_5x5 <- inception_4d/5x5
I0403 21:52:07.486109 13115 net.cpp:386] inception_4d/relu_5x5 -> inception_4d/5x5 (in-place)
I0403 21:52:07.486410 13115 net.cpp:141] Setting up inception_4d/relu_5x5
I0403 21:52:07.486439 13115 net.cpp:148] Top shape: 24 64 14 14 (301056)
I0403 21:52:07.486455 13115 net.cpp:156] Memory required for data: 1135267104
I0403 21:52:07.486471 13115 layer_factory.hpp:77] Creating layer inception_4d/pool
I0403 21:52:07.486488 13115 net.cpp:91] Creating Layer inception_4d/pool
I0403 21:52:07.486505 13115 net.cpp:425] inception_4d/pool <- inception_4c/output_inception_4c/output_0_split_3
I0403 21:52:07.486526 13115 net.cpp:399] inception_4d/pool -> inception_4d/pool
I0403 21:52:07.486591 13115 net.cpp:141] Setting up inception_4d/pool
I0403 21:52:07.486614 13115 net.cpp:148] Top shape: 24 512 14 14 (2408448)
I0403 21:52:07.486629 13115 net.cpp:156] Memory required for data: 1144900896
I0403 21:52:07.486644 13115 layer_factory.hpp:77] Creating layer inception_4d/pool_proj
I0403 21:52:07.486665 13115 net.cpp:91] Creating Layer inception_4d/pool_proj
I0403 21:52:07.486682 13115 net.cpp:425] inception_4d/pool_proj <- inception_4d/pool
I0403 21:52:07.486703 13115 net.cpp:399] inception_4d/pool_proj -> inception_4d/pool_proj
I0403 21:52:07.488498 13115 net.cpp:141] Setting up inception_4d/pool_proj
I0403 21:52:07.488528 13115 net.cpp:148] Top shape: 24 64 14 14 (301056)
I0403 21:52:07.488544 13115 net.cpp:156] Memory required for data: 1146105120
I0403 21:52:07.488562 13115 layer_factory.hpp:77] Creating layer inception_4d/relu_pool_proj
I0403 21:52:07.488582 13115 net.cpp:91] Creating Layer inception_4d/relu_pool_proj
I0403 21:52:07.488600 13115 net.cpp:425] inception_4d/relu_pool_proj <- inception_4d/pool_proj
I0403 21:52:07.488617 13115 net.cpp:386] inception_4d/relu_pool_proj -> inception_4d/pool_proj (in-place)
I0403 21:52:07.488802 13115 net.cpp:141] Setting up inception_4d/relu_pool_proj
I0403 21:52:07.488829 13115 net.cpp:148] Top shape: 24 64 14 14 (301056)
I0403 21:52:07.488844 13115 net.cpp:156] Memory required for data: 1147309344
I0403 21:52:07.488858 13115 layer_factory.hpp:77] Creating layer inception_4d/output
I0403 21:52:07.488875 13115 net.cpp:91] Creating Layer inception_4d/output
I0403 21:52:07.488890 13115 net.cpp:425] inception_4d/output <- inception_4d/1x1
I0403 21:52:07.488908 13115 net.cpp:425] inception_4d/output <- inception_4d/3x3
I0403 21:52:07.488922 13115 net.cpp:425] inception_4d/output <- inception_4d/5x5
I0403 21:52:07.488939 13115 net.cpp:425] inception_4d/output <- inception_4d/pool_proj
I0403 21:52:07.488955 13115 net.cpp:399] inception_4d/output -> inception_4d/output
I0403 21:52:07.489003 13115 net.cpp:141] Setting up inception_4d/output
I0403 21:52:07.489025 13115 net.cpp:148] Top shape: 24 528 14 14 (2483712)
I0403 21:52:07.489040 13115 net.cpp:156] Memory required for data: 1157244192
I0403 21:52:07.489054 13115 layer_factory.hpp:77] Creating layer inception_4d/output_inception_4d/output_0_split
I0403 21:52:07.489074 13115 net.cpp:91] Creating Layer inception_4d/output_inception_4d/output_0_split
I0403 21:52:07.489091 13115 net.cpp:425] inception_4d/output_inception_4d/output_0_split <- inception_4d/output
I0403 21:52:07.489109 13115 net.cpp:399] inception_4d/output_inception_4d/output_0_split -> inception_4d/output_inception_4d/output_0_split_0
I0403 21:52:07.489128 13115 net.cpp:399] inception_4d/output_inception_4d/output_0_split -> inception_4d/output_inception_4d/output_0_split_1
I0403 21:52:07.489148 13115 net.cpp:399] inception_4d/output_inception_4d/output_0_split -> inception_4d/output_inception_4d/output_0_split_2
I0403 21:52:07.489181 13115 net.cpp:399] inception_4d/output_inception_4d/output_0_split -> inception_4d/output_inception_4d/output_0_split_3
I0403 21:52:07.489204 13115 net.cpp:399] inception_4d/output_inception_4d/output_0_split -> inception_4d/output_inception_4d/output_0_split_4
I0403 21:52:07.489318 13115 net.cpp:141] Setting up inception_4d/output_inception_4d/output_0_split
I0403 21:52:07.489356 13115 net.cpp:148] Top shape: 24 528 14 14 (2483712)
I0403 21:52:07.489373 13115 net.cpp:148] Top shape: 24 528 14 14 (2483712)
I0403 21:52:07.489389 13115 net.cpp:148] Top shape: 24 528 14 14 (2483712)
I0403 21:52:07.489406 13115 net.cpp:148] Top shape: 24 528 14 14 (2483712)
I0403 21:52:07.489423 13115 net.cpp:148] Top shape: 24 528 14 14 (2483712)
I0403 21:52:07.489436 13115 net.cpp:156] Memory required for data: 1206918432
I0403 21:52:07.489451 13115 layer_factory.hpp:77] Creating layer loss2/ave_pool
I0403 21:52:07.489470 13115 net.cpp:91] Creating Layer loss2/ave_pool
I0403 21:52:07.489497 13115 net.cpp:425] loss2/ave_pool <- inception_4d/output_inception_4d/output_0_split_0
I0403 21:52:07.489519 13115 net.cpp:399] loss2/ave_pool -> loss2/ave_pool
I0403 21:52:07.489857 13115 net.cpp:141] Setting up loss2/ave_pool
I0403 21:52:07.489883 13115 net.cpp:148] Top shape: 24 528 4 4 (202752)
I0403 21:52:07.489898 13115 net.cpp:156] Memory required for data: 1207729440
I0403 21:52:07.489913 13115 layer_factory.hpp:77] Creating layer loss2/conv
I0403 21:52:07.489935 13115 net.cpp:91] Creating Layer loss2/conv
I0403 21:52:07.489953 13115 net.cpp:425] loss2/conv <- loss2/ave_pool
I0403 21:52:07.489975 13115 net.cpp:399] loss2/conv -> loss2/conv
I0403 21:52:07.491875 13115 net.cpp:141] Setting up loss2/conv
I0403 21:52:07.491905 13115 net.cpp:148] Top shape: 24 128 4 4 (49152)
I0403 21:52:07.491921 13115 net.cpp:156] Memory required for data: 1207926048
I0403 21:52:07.491940 13115 layer_factory.hpp:77] Creating layer loss2/relu_conv
I0403 21:52:07.491956 13115 net.cpp:91] Creating Layer loss2/relu_conv
I0403 21:52:07.491972 13115 net.cpp:425] loss2/relu_conv <- loss2/conv
I0403 21:52:07.491989 13115 net.cpp:386] loss2/relu_conv -> loss2/conv (in-place)
I0403 21:52:07.492282 13115 net.cpp:141] Setting up loss2/relu_conv
I0403 21:52:07.492311 13115 net.cpp:148] Top shape: 24 128 4 4 (49152)
I0403 21:52:07.492326 13115 net.cpp:156] Memory required for data: 1208122656
I0403 21:52:07.492341 13115 layer_factory.hpp:77] Creating layer loss2/fc
I0403 21:52:07.492360 13115 net.cpp:91] Creating Layer loss2/fc
I0403 21:52:07.492377 13115 net.cpp:425] loss2/fc <- loss2/conv
I0403 21:52:07.492398 13115 net.cpp:399] loss2/fc -> loss2/fc
I0403 21:52:07.510040 13115 net.cpp:141] Setting up loss2/fc
I0403 21:52:07.510079 13115 net.cpp:148] Top shape: 24 1024 (24576)
I0403 21:52:07.510095 13115 net.cpp:156] Memory required for data: 1208220960
I0403 21:52:07.510113 13115 layer_factory.hpp:77] Creating layer loss2/relu_fc
I0403 21:52:07.510130 13115 net.cpp:91] Creating Layer loss2/relu_fc
I0403 21:52:07.510145 13115 net.cpp:425] loss2/relu_fc <- loss2/fc
I0403 21:52:07.510162 13115 net.cpp:386] loss2/relu_fc -> loss2/fc (in-place)
I0403 21:52:07.510457 13115 net.cpp:141] Setting up loss2/relu_fc
I0403 21:52:07.510481 13115 net.cpp:148] Top shape: 24 1024 (24576)
I0403 21:52:07.510496 13115 net.cpp:156] Memory required for data: 1208319264
I0403 21:52:07.510510 13115 layer_factory.hpp:77] Creating layer loss2/drop_fc
I0403 21:52:07.510531 13115 net.cpp:91] Creating Layer loss2/drop_fc
I0403 21:52:07.510547 13115 net.cpp:425] loss2/drop_fc <- loss2/fc
I0403 21:52:07.510565 13115 net.cpp:386] loss2/drop_fc -> loss2/fc (in-place)
I0403 21:52:07.510617 13115 net.cpp:141] Setting up loss2/drop_fc
I0403 21:52:07.510639 13115 net.cpp:148] Top shape: 24 1024 (24576)
I0403 21:52:07.510654 13115 net.cpp:156] Memory required for data: 1208417568
I0403 21:52:07.510668 13115 layer_factory.hpp:77] Creating layer loss2/classifier_plantvillage
I0403 21:52:07.510686 13115 net.cpp:91] Creating Layer loss2/classifier_plantvillage
I0403 21:52:07.510705 13115 net.cpp:425] loss2/classifier_plantvillage <- loss2/fc
I0403 21:52:07.510723 13115 net.cpp:399] loss2/classifier_plantvillage -> loss2/classifier_plantvillage
I0403 21:52:07.511112 13115 net.cpp:141] Setting up loss2/classifier_plantvillage
I0403 21:52:07.511137 13115 net.cpp:148] Top shape: 24 38 (912)
I0403 21:52:07.511152 13115 net.cpp:156] Memory required for data: 1208421216
I0403 21:52:07.511186 13115 layer_factory.hpp:77] Creating layer loss2/classifier_plantvillage_loss2/classifier_plantvillage_0_split
I0403 21:52:07.511205 13115 net.cpp:91] Creating Layer loss2/classifier_plantvillage_loss2/classifier_plantvillage_0_split
I0403 21:52:07.511227 13115 net.cpp:425] loss2/classifier_plantvillage_loss2/classifier_plantvillage_0_split <- loss2/classifier_plantvillage
I0403 21:52:07.511247 13115 net.cpp:399] loss2/classifier_plantvillage_loss2/classifier_plantvillage_0_split -> loss2/classifier_plantvillage_loss2/classifier_plantvillage_0_split_0
I0403 21:52:07.511268 13115 net.cpp:399] loss2/classifier_plantvillage_loss2/classifier_plantvillage_0_split -> loss2/classifier_plantvillage_loss2/classifier_plantvillage_0_split_1
I0403 21:52:07.511288 13115 net.cpp:399] loss2/classifier_plantvillage_loss2/classifier_plantvillage_0_split -> loss2/classifier_plantvillage_loss2/classifier_plantvillage_0_split_2
I0403 21:52:07.511363 13115 net.cpp:141] Setting up loss2/classifier_plantvillage_loss2/classifier_plantvillage_0_split
I0403 21:52:07.511389 13115 net.cpp:148] Top shape: 24 38 (912)
I0403 21:52:07.511405 13115 net.cpp:148] Top shape: 24 38 (912)
I0403 21:52:07.511420 13115 net.cpp:148] Top shape: 24 38 (912)
I0403 21:52:07.511435 13115 net.cpp:156] Memory required for data: 1208432160
I0403 21:52:07.511448 13115 layer_factory.hpp:77] Creating layer inception_4e/1x1
I0403 21:52:07.511471 13115 net.cpp:91] Creating Layer inception_4e/1x1
I0403 21:52:07.511487 13115 net.cpp:425] inception_4e/1x1 <- inception_4d/output_inception_4d/output_0_split_1
I0403 21:52:07.511505 13115 net.cpp:399] inception_4e/1x1 -> inception_4e/1x1
I0403 21:52:07.513299 13115 net.cpp:141] Setting up inception_4e/1x1
I0403 21:52:07.513330 13115 net.cpp:148] Top shape: 24 256 14 14 (1204224)
I0403 21:52:07.513347 13115 net.cpp:156] Memory required for data: 1213249056
I0403 21:52:07.513366 13115 layer_factory.hpp:77] Creating layer inception_4e/relu_1x1
I0403 21:52:07.513383 13115 net.cpp:91] Creating Layer inception_4e/relu_1x1
I0403 21:52:07.513399 13115 net.cpp:425] inception_4e/relu_1x1 <- inception_4e/1x1
I0403 21:52:07.513417 13115 net.cpp:386] inception_4e/relu_1x1 -> inception_4e/1x1 (in-place)
I0403 21:52:07.513702 13115 net.cpp:141] Setting up inception_4e/relu_1x1
I0403 21:52:07.513731 13115 net.cpp:148] Top shape: 24 256 14 14 (1204224)
I0403 21:52:07.513746 13115 net.cpp:156] Memory required for data: 1218065952
I0403 21:52:07.513762 13115 layer_factory.hpp:77] Creating layer inception_4e/3x3_reduce
I0403 21:52:07.513783 13115 net.cpp:91] Creating Layer inception_4e/3x3_reduce
I0403 21:52:07.513800 13115 net.cpp:425] inception_4e/3x3_reduce <- inception_4d/output_inception_4d/output_0_split_2
I0403 21:52:07.513819 13115 net.cpp:399] inception_4e/3x3_reduce -> inception_4e/3x3_reduce
I0403 21:52:07.515918 13115 net.cpp:141] Setting up inception_4e/3x3_reduce
I0403 21:52:07.515949 13115 net.cpp:148] Top shape: 24 160 14 14 (752640)
I0403 21:52:07.515965 13115 net.cpp:156] Memory required for data: 1221076512
I0403 21:52:07.515985 13115 layer_factory.hpp:77] Creating layer inception_4e/relu_3x3_reduce
I0403 21:52:07.516001 13115 net.cpp:91] Creating Layer inception_4e/relu_3x3_reduce
I0403 21:52:07.516016 13115 net.cpp:425] inception_4e/relu_3x3_reduce <- inception_4e/3x3_reduce
I0403 21:52:07.516033 13115 net.cpp:386] inception_4e/relu_3x3_reduce -> inception_4e/3x3_reduce (in-place)
I0403 21:52:07.516221 13115 net.cpp:141] Setting up inception_4e/relu_3x3_reduce
I0403 21:52:07.516244 13115 net.cpp:148] Top shape: 24 160 14 14 (752640)
I0403 21:52:07.516259 13115 net.cpp:156] Memory required for data: 1224087072
I0403 21:52:07.516273 13115 layer_factory.hpp:77] Creating layer inception_4e/3x3
I0403 21:52:07.516294 13115 net.cpp:91] Creating Layer inception_4e/3x3
I0403 21:52:07.516311 13115 net.cpp:425] inception_4e/3x3 <- inception_4e/3x3_reduce
I0403 21:52:07.516333 13115 net.cpp:399] inception_4e/3x3 -> inception_4e/3x3
I0403 21:52:07.521287 13115 net.cpp:141] Setting up inception_4e/3x3
I0403 21:52:07.521329 13115 net.cpp:148] Top shape: 24 320 14 14 (1505280)
I0403 21:52:07.521345 13115 net.cpp:156] Memory required for data: 1230108192
I0403 21:52:07.521363 13115 layer_factory.hpp:77] Creating layer inception_4e/relu_3x3
I0403 21:52:07.521380 13115 net.cpp:91] Creating Layer inception_4e/relu_3x3
I0403 21:52:07.521396 13115 net.cpp:425] inception_4e/relu_3x3 <- inception_4e/3x3
I0403 21:52:07.521415 13115 net.cpp:386] inception_4e/relu_3x3 -> inception_4e/3x3 (in-place)
I0403 21:52:07.521708 13115 net.cpp:141] Setting up inception_4e/relu_3x3
I0403 21:52:07.521733 13115 net.cpp:148] Top shape: 24 320 14 14 (1505280)
I0403 21:52:07.521747 13115 net.cpp:156] Memory required for data: 1236129312
I0403 21:52:07.521761 13115 layer_factory.hpp:77] Creating layer inception_4e/5x5_reduce
I0403 21:52:07.521783 13115 net.cpp:91] Creating Layer inception_4e/5x5_reduce
I0403 21:52:07.521800 13115 net.cpp:425] inception_4e/5x5_reduce <- inception_4d/output_inception_4d/output_0_split_3
I0403 21:52:07.521821 13115 net.cpp:399] inception_4e/5x5_reduce -> inception_4e/5x5_reduce
I0403 21:52:07.522872 13115 net.cpp:141] Setting up inception_4e/5x5_reduce
I0403 21:52:07.522902 13115 net.cpp:148] Top shape: 24 32 14 14 (150528)
I0403 21:52:07.522918 13115 net.cpp:156] Memory required for data: 1236731424
I0403 21:52:07.522936 13115 layer_factory.hpp:77] Creating layer inception_4e/relu_5x5_reduce
I0403 21:52:07.522953 13115 net.cpp:91] Creating Layer inception_4e/relu_5x5_reduce
I0403 21:52:07.522969 13115 net.cpp:425] inception_4e/relu_5x5_reduce <- inception_4e/5x5_reduce
I0403 21:52:07.522989 13115 net.cpp:386] inception_4e/relu_5x5_reduce -> inception_4e/5x5_reduce (in-place)
I0403 21:52:07.523283 13115 net.cpp:141] Setting up inception_4e/relu_5x5_reduce
I0403 21:52:07.523313 13115 net.cpp:148] Top shape: 24 32 14 14 (150528)
I0403 21:52:07.523327 13115 net.cpp:156] Memory required for data: 1237333536
I0403 21:52:07.523342 13115 layer_factory.hpp:77] Creating layer inception_4e/5x5
I0403 21:52:07.523381 13115 net.cpp:91] Creating Layer inception_4e/5x5
I0403 21:52:07.523399 13115 net.cpp:425] inception_4e/5x5 <- inception_4e/5x5_reduce
I0403 21:52:07.523418 13115 net.cpp:399] inception_4e/5x5 -> inception_4e/5x5
I0403 21:52:07.525198 13115 net.cpp:141] Setting up inception_4e/5x5
I0403 21:52:07.525230 13115 net.cpp:148] Top shape: 24 128 14 14 (602112)
I0403 21:52:07.525246 13115 net.cpp:156] Memory required for data: 1239741984
I0403 21:52:07.525265 13115 layer_factory.hpp:77] Creating layer inception_4e/relu_5x5
I0403 21:52:07.525285 13115 net.cpp:91] Creating Layer inception_4e/relu_5x5
I0403 21:52:07.525300 13115 net.cpp:425] inception_4e/relu_5x5 <- inception_4e/5x5
I0403 21:52:07.525317 13115 net.cpp:386] inception_4e/relu_5x5 -> inception_4e/5x5 (in-place)
I0403 21:52:07.525509 13115 net.cpp:141] Setting up inception_4e/relu_5x5
I0403 21:52:07.525537 13115 net.cpp:148] Top shape: 24 128 14 14 (602112)
I0403 21:52:07.525552 13115 net.cpp:156] Memory required for data: 1242150432
I0403 21:52:07.525566 13115 layer_factory.hpp:77] Creating layer inception_4e/pool
I0403 21:52:07.525584 13115 net.cpp:91] Creating Layer inception_4e/pool
I0403 21:52:07.525600 13115 net.cpp:425] inception_4e/pool <- inception_4d/output_inception_4d/output_0_split_4
I0403 21:52:07.525619 13115 net.cpp:399] inception_4e/pool -> inception_4e/pool
I0403 21:52:07.525687 13115 net.cpp:141] Setting up inception_4e/pool
I0403 21:52:07.525710 13115 net.cpp:148] Top shape: 24 528 14 14 (2483712)
I0403 21:52:07.525724 13115 net.cpp:156] Memory required for data: 1252085280
I0403 21:52:07.525739 13115 layer_factory.hpp:77] Creating layer inception_4e/pool_proj
I0403 21:52:07.525761 13115 net.cpp:91] Creating Layer inception_4e/pool_proj
I0403 21:52:07.525781 13115 net.cpp:425] inception_4e/pool_proj <- inception_4e/pool
I0403 21:52:07.525799 13115 net.cpp:399] inception_4e/pool_proj -> inception_4e/pool_proj
I0403 21:52:07.527328 13115 net.cpp:141] Setting up inception_4e/pool_proj
I0403 21:52:07.527356 13115 net.cpp:148] Top shape: 24 128 14 14 (602112)
I0403 21:52:07.527385 13115 net.cpp:156] Memory required for data: 1254493728
I0403 21:52:07.527405 13115 layer_factory.hpp:77] Creating layer inception_4e/relu_pool_proj
I0403 21:52:07.527425 13115 net.cpp:91] Creating Layer inception_4e/relu_pool_proj
I0403 21:52:07.527441 13115 net.cpp:425] inception_4e/relu_pool_proj <- inception_4e/pool_proj
I0403 21:52:07.527458 13115 net.cpp:386] inception_4e/relu_pool_proj -> inception_4e/pool_proj (in-place)
I0403 21:52:07.527743 13115 net.cpp:141] Setting up inception_4e/relu_pool_proj
I0403 21:52:07.527768 13115 net.cpp:148] Top shape: 24 128 14 14 (602112)
I0403 21:52:07.527782 13115 net.cpp:156] Memory required for data: 1256902176
I0403 21:52:07.527796 13115 layer_factory.hpp:77] Creating layer inception_4e/output
I0403 21:52:07.527813 13115 net.cpp:91] Creating Layer inception_4e/output
I0403 21:52:07.527828 13115 net.cpp:425] inception_4e/output <- inception_4e/1x1
I0403 21:52:07.527848 13115 net.cpp:425] inception_4e/output <- inception_4e/3x3
I0403 21:52:07.527864 13115 net.cpp:425] inception_4e/output <- inception_4e/5x5
I0403 21:52:07.527879 13115 net.cpp:425] inception_4e/output <- inception_4e/pool_proj
I0403 21:52:07.527895 13115 net.cpp:399] inception_4e/output -> inception_4e/output
I0403 21:52:07.527945 13115 net.cpp:141] Setting up inception_4e/output
I0403 21:52:07.527968 13115 net.cpp:148] Top shape: 24 832 14 14 (3913728)
I0403 21:52:07.527982 13115 net.cpp:156] Memory required for data: 1272557088
I0403 21:52:07.527997 13115 layer_factory.hpp:77] Creating layer pool4/3x3_s2
I0403 21:52:07.528013 13115 net.cpp:91] Creating Layer pool4/3x3_s2
I0403 21:52:07.528028 13115 net.cpp:425] pool4/3x3_s2 <- inception_4e/output
I0403 21:52:07.528048 13115 net.cpp:399] pool4/3x3_s2 -> pool4/3x3_s2
I0403 21:52:07.528113 13115 net.cpp:141] Setting up pool4/3x3_s2
I0403 21:52:07.528136 13115 net.cpp:148] Top shape: 24 832 7 7 (978432)
I0403 21:52:07.528151 13115 net.cpp:156] Memory required for data: 1276470816
I0403 21:52:07.528165 13115 layer_factory.hpp:77] Creating layer pool4/3x3_s2_pool4/3x3_s2_0_split
I0403 21:52:07.528190 13115 net.cpp:91] Creating Layer pool4/3x3_s2_pool4/3x3_s2_0_split
I0403 21:52:07.528206 13115 net.cpp:425] pool4/3x3_s2_pool4/3x3_s2_0_split <- pool4/3x3_s2
I0403 21:52:07.528245 13115 net.cpp:399] pool4/3x3_s2_pool4/3x3_s2_0_split -> pool4/3x3_s2_pool4/3x3_s2_0_split_0
I0403 21:52:07.528270 13115 net.cpp:399] pool4/3x3_s2_pool4/3x3_s2_0_split -> pool4/3x3_s2_pool4/3x3_s2_0_split_1
I0403 21:52:07.528290 13115 net.cpp:399] pool4/3x3_s2_pool4/3x3_s2_0_split -> pool4/3x3_s2_pool4/3x3_s2_0_split_2
I0403 21:52:07.528311 13115 net.cpp:399] pool4/3x3_s2_pool4/3x3_s2_0_split -> pool4/3x3_s2_pool4/3x3_s2_0_split_3
I0403 21:52:07.528399 13115 net.cpp:141] Setting up pool4/3x3_s2_pool4/3x3_s2_0_split
I0403 21:52:07.528422 13115 net.cpp:148] Top shape: 24 832 7 7 (978432)
I0403 21:52:07.528439 13115 net.cpp:148] Top shape: 24 832 7 7 (978432)
I0403 21:52:07.528455 13115 net.cpp:148] Top shape: 24 832 7 7 (978432)
I0403 21:52:07.528470 13115 net.cpp:148] Top shape: 24 832 7 7 (978432)
I0403 21:52:07.528484 13115 net.cpp:156] Memory required for data: 1292125728
I0403 21:52:07.528499 13115 layer_factory.hpp:77] Creating layer inception_5a/1x1
I0403 21:52:07.528522 13115 net.cpp:91] Creating Layer inception_5a/1x1
I0403 21:52:07.528539 13115 net.cpp:425] inception_5a/1x1 <- pool4/3x3_s2_pool4/3x3_s2_0_split_0
I0403 21:52:07.528560 13115 net.cpp:399] inception_5a/1x1 -> inception_5a/1x1
I0403 21:52:07.531507 13115 net.cpp:141] Setting up inception_5a/1x1
I0403 21:52:07.531539 13115 net.cpp:148] Top shape: 24 256 7 7 (301056)
I0403 21:52:07.531556 13115 net.cpp:156] Memory required for data: 1293329952
I0403 21:52:07.531575 13115 layer_factory.hpp:77] Creating layer inception_5a/relu_1x1
I0403 21:52:07.531594 13115 net.cpp:91] Creating Layer inception_5a/relu_1x1
I0403 21:52:07.531610 13115 net.cpp:425] inception_5a/relu_1x1 <- inception_5a/1x1
I0403 21:52:07.531627 13115 net.cpp:386] inception_5a/relu_1x1 -> inception_5a/1x1 (in-place)
I0403 21:52:07.531939 13115 net.cpp:141] Setting up inception_5a/relu_1x1
I0403 21:52:07.531967 13115 net.cpp:148] Top shape: 24 256 7 7 (301056)
I0403 21:52:07.531983 13115 net.cpp:156] Memory required for data: 1294534176
I0403 21:52:07.531997 13115 layer_factory.hpp:77] Creating layer inception_5a/3x3_reduce
I0403 21:52:07.532017 13115 net.cpp:91] Creating Layer inception_5a/3x3_reduce
I0403 21:52:07.532034 13115 net.cpp:425] inception_5a/3x3_reduce <- pool4/3x3_s2_pool4/3x3_s2_0_split_1
I0403 21:52:07.532057 13115 net.cpp:399] inception_5a/3x3_reduce -> inception_5a/3x3_reduce
I0403 21:52:07.534574 13115 net.cpp:141] Setting up inception_5a/3x3_reduce
I0403 21:52:07.534605 13115 net.cpp:148] Top shape: 24 160 7 7 (188160)
I0403 21:52:07.534621 13115 net.cpp:156] Memory required for data: 1295286816
I0403 21:52:07.534639 13115 layer_factory.hpp:77] Creating layer inception_5a/relu_3x3_reduce
I0403 21:52:07.534657 13115 net.cpp:91] Creating Layer inception_5a/relu_3x3_reduce
I0403 21:52:07.534674 13115 net.cpp:425] inception_5a/relu_3x3_reduce <- inception_5a/3x3_reduce
I0403 21:52:07.534694 13115 net.cpp:386] inception_5a/relu_3x3_reduce -> inception_5a/3x3_reduce (in-place)
I0403 21:52:07.534888 13115 net.cpp:141] Setting up inception_5a/relu_3x3_reduce
I0403 21:52:07.534914 13115 net.cpp:148] Top shape: 24 160 7 7 (188160)
I0403 21:52:07.534927 13115 net.cpp:156] Memory required for data: 1296039456
I0403 21:52:07.534942 13115 layer_factory.hpp:77] Creating layer inception_5a/3x3
I0403 21:52:07.534965 13115 net.cpp:91] Creating Layer inception_5a/3x3
I0403 21:52:07.534982 13115 net.cpp:425] inception_5a/3x3 <- inception_5a/3x3_reduce
I0403 21:52:07.535006 13115 net.cpp:399] inception_5a/3x3 -> inception_5a/3x3
I0403 21:52:07.540094 13115 net.cpp:141] Setting up inception_5a/3x3
I0403 21:52:07.540124 13115 net.cpp:148] Top shape: 24 320 7 7 (376320)
I0403 21:52:07.540139 13115 net.cpp:156] Memory required for data: 1297544736
I0403 21:52:07.540158 13115 layer_factory.hpp:77] Creating layer inception_5a/relu_3x3
I0403 21:52:07.540177 13115 net.cpp:91] Creating Layer inception_5a/relu_3x3
I0403 21:52:07.540195 13115 net.cpp:425] inception_5a/relu_3x3 <- inception_5a/3x3
I0403 21:52:07.540216 13115 net.cpp:386] inception_5a/relu_3x3 -> inception_5a/3x3 (in-place)
I0403 21:52:07.540505 13115 net.cpp:141] Setting up inception_5a/relu_3x3
I0403 21:52:07.540531 13115 net.cpp:148] Top shape: 24 320 7 7 (376320)
I0403 21:52:07.540545 13115 net.cpp:156] Memory required for data: 1299050016
I0403 21:52:07.540560 13115 layer_factory.hpp:77] Creating layer inception_5a/5x5_reduce
I0403 21:52:07.540585 13115 net.cpp:91] Creating Layer inception_5a/5x5_reduce
I0403 21:52:07.540602 13115 net.cpp:425] inception_5a/5x5_reduce <- pool4/3x3_s2_pool4/3x3_s2_0_split_2
I0403 21:52:07.540621 13115 net.cpp:399] inception_5a/5x5_reduce -> inception_5a/5x5_reduce
I0403 21:52:07.541764 13115 net.cpp:141] Setting up inception_5a/5x5_reduce
I0403 21:52:07.541795 13115 net.cpp:148] Top shape: 24 32 7 7 (37632)
I0403 21:52:07.541811 13115 net.cpp:156] Memory required for data: 1299200544
I0403 21:52:07.541831 13115 layer_factory.hpp:77] Creating layer inception_5a/relu_5x5_reduce
I0403 21:52:07.541847 13115 net.cpp:91] Creating Layer inception_5a/relu_5x5_reduce
I0403 21:52:07.541862 13115 net.cpp:425] inception_5a/relu_5x5_reduce <- inception_5a/5x5_reduce
I0403 21:52:07.541879 13115 net.cpp:386] inception_5a/relu_5x5_reduce -> inception_5a/5x5_reduce (in-place)
I0403 21:52:07.542171 13115 net.cpp:141] Setting up inception_5a/relu_5x5_reduce
I0403 21:52:07.542198 13115 net.cpp:148] Top shape: 24 32 7 7 (37632)
I0403 21:52:07.542227 13115 net.cpp:156] Memory required for data: 1299351072
I0403 21:52:07.542244 13115 layer_factory.hpp:77] Creating layer inception_5a/5x5
I0403 21:52:07.542268 13115 net.cpp:91] Creating Layer inception_5a/5x5
I0403 21:52:07.542285 13115 net.cpp:425] inception_5a/5x5 <- inception_5a/5x5_reduce
I0403 21:52:07.542304 13115 net.cpp:399] inception_5a/5x5 -> inception_5a/5x5
I0403 21:52:07.543987 13115 net.cpp:141] Setting up inception_5a/5x5
I0403 21:52:07.544026 13115 net.cpp:148] Top shape: 24 128 7 7 (150528)
I0403 21:52:07.544042 13115 net.cpp:156] Memory required for data: 1299953184
I0403 21:52:07.544060 13115 layer_factory.hpp:77] Creating layer inception_5a/relu_5x5
I0403 21:52:07.544080 13115 net.cpp:91] Creating Layer inception_5a/relu_5x5
I0403 21:52:07.544096 13115 net.cpp:425] inception_5a/relu_5x5 <- inception_5a/5x5
I0403 21:52:07.544113 13115 net.cpp:386] inception_5a/relu_5x5 -> inception_5a/5x5 (in-place)
I0403 21:52:07.544307 13115 net.cpp:141] Setting up inception_5a/relu_5x5
I0403 21:52:07.544333 13115 net.cpp:148] Top shape: 24 128 7 7 (150528)
I0403 21:52:07.544348 13115 net.cpp:156] Memory required for data: 1300555296
I0403 21:52:07.544363 13115 layer_factory.hpp:77] Creating layer inception_5a/pool
I0403 21:52:07.544379 13115 net.cpp:91] Creating Layer inception_5a/pool
I0403 21:52:07.544394 13115 net.cpp:425] inception_5a/pool <- pool4/3x3_s2_pool4/3x3_s2_0_split_3
I0403 21:52:07.544414 13115 net.cpp:399] inception_5a/pool -> inception_5a/pool
I0403 21:52:07.544483 13115 net.cpp:141] Setting up inception_5a/pool
I0403 21:52:07.544505 13115 net.cpp:148] Top shape: 24 832 7 7 (978432)
I0403 21:52:07.544519 13115 net.cpp:156] Memory required for data: 1304469024
I0403 21:52:07.544533 13115 layer_factory.hpp:77] Creating layer inception_5a/pool_proj
I0403 21:52:07.544569 13115 net.cpp:91] Creating Layer inception_5a/pool_proj
I0403 21:52:07.544587 13115 net.cpp:425] inception_5a/pool_proj <- inception_5a/pool
I0403 21:52:07.544606 13115 net.cpp:399] inception_5a/pool_proj -> inception_5a/pool_proj
I0403 21:52:07.546972 13115 net.cpp:141] Setting up inception_5a/pool_proj
I0403 21:52:07.547001 13115 net.cpp:148] Top shape: 24 128 7 7 (150528)
I0403 21:52:07.547016 13115 net.cpp:156] Memory required for data: 1305071136
I0403 21:52:07.547034 13115 layer_factory.hpp:77] Creating layer inception_5a/relu_pool_proj
I0403 21:52:07.547055 13115 net.cpp:91] Creating Layer inception_5a/relu_pool_proj
I0403 21:52:07.547072 13115 net.cpp:425] inception_5a/relu_pool_proj <- inception_5a/pool_proj
I0403 21:52:07.547089 13115 net.cpp:386] inception_5a/relu_pool_proj -> inception_5a/pool_proj (in-place)
I0403 21:52:07.547384 13115 net.cpp:141] Setting up inception_5a/relu_pool_proj
I0403 21:52:07.547410 13115 net.cpp:148] Top shape: 24 128 7 7 (150528)
I0403 21:52:07.547425 13115 net.cpp:156] Memory required for data: 1305673248
I0403 21:52:07.547440 13115 layer_factory.hpp:77] Creating layer inception_5a/output
I0403 21:52:07.547458 13115 net.cpp:91] Creating Layer inception_5a/output
I0403 21:52:07.547474 13115 net.cpp:425] inception_5a/output <- inception_5a/1x1
I0403 21:52:07.547490 13115 net.cpp:425] inception_5a/output <- inception_5a/3x3
I0403 21:52:07.547507 13115 net.cpp:425] inception_5a/output <- inception_5a/5x5
I0403 21:52:07.547521 13115 net.cpp:425] inception_5a/output <- inception_5a/pool_proj
I0403 21:52:07.547538 13115 net.cpp:399] inception_5a/output -> inception_5a/output
I0403 21:52:07.547587 13115 net.cpp:141] Setting up inception_5a/output
I0403 21:52:07.547610 13115 net.cpp:148] Top shape: 24 832 7 7 (978432)
I0403 21:52:07.547624 13115 net.cpp:156] Memory required for data: 1309586976
I0403 21:52:07.547638 13115 layer_factory.hpp:77] Creating layer inception_5a/output_inception_5a/output_0_split
I0403 21:52:07.547654 13115 net.cpp:91] Creating Layer inception_5a/output_inception_5a/output_0_split
I0403 21:52:07.547669 13115 net.cpp:425] inception_5a/output_inception_5a/output_0_split <- inception_5a/output
I0403 21:52:07.547689 13115 net.cpp:399] inception_5a/output_inception_5a/output_0_split -> inception_5a/output_inception_5a/output_0_split_0
I0403 21:52:07.547710 13115 net.cpp:399] inception_5a/output_inception_5a/output_0_split -> inception_5a/output_inception_5a/output_0_split_1
I0403 21:52:07.547730 13115 net.cpp:399] inception_5a/output_inception_5a/output_0_split -> inception_5a/output_inception_5a/output_0_split_2
I0403 21:52:07.547751 13115 net.cpp:399] inception_5a/output_inception_5a/output_0_split -> inception_5a/output_inception_5a/output_0_split_3
I0403 21:52:07.547860 13115 net.cpp:141] Setting up inception_5a/output_inception_5a/output_0_split
I0403 21:52:07.547886 13115 net.cpp:148] Top shape: 24 832 7 7 (978432)
I0403 21:52:07.547902 13115 net.cpp:148] Top shape: 24 832 7 7 (978432)
I0403 21:52:07.547917 13115 net.cpp:148] Top shape: 24 832 7 7 (978432)
I0403 21:52:07.547932 13115 net.cpp:148] Top shape: 24 832 7 7 (978432)
I0403 21:52:07.547945 13115 net.cpp:156] Memory required for data: 1325241888
I0403 21:52:07.547960 13115 layer_factory.hpp:77] Creating layer inception_5b/1x1
I0403 21:52:07.547981 13115 net.cpp:91] Creating Layer inception_5b/1x1
I0403 21:52:07.547999 13115 net.cpp:425] inception_5b/1x1 <- inception_5a/output_inception_5a/output_0_split_0
I0403 21:52:07.548017 13115 net.cpp:399] inception_5b/1x1 -> inception_5b/1x1
I0403 21:52:07.551762 13115 net.cpp:141] Setting up inception_5b/1x1
I0403 21:52:07.551792 13115 net.cpp:148] Top shape: 24 384 7 7 (451584)
I0403 21:52:07.551807 13115 net.cpp:156] Memory required for data: 1327048224
I0403 21:52:07.551826 13115 layer_factory.hpp:77] Creating layer inception_5b/relu_1x1
I0403 21:52:07.551846 13115 net.cpp:91] Creating Layer inception_5b/relu_1x1
I0403 21:52:07.551862 13115 net.cpp:425] inception_5b/relu_1x1 <- inception_5b/1x1
I0403 21:52:07.551880 13115 net.cpp:386] inception_5b/relu_1x1 -> inception_5b/1x1 (in-place)
I0403 21:52:07.552181 13115 net.cpp:141] Setting up inception_5b/relu_1x1
I0403 21:52:07.552207 13115 net.cpp:148] Top shape: 24 384 7 7 (451584)
I0403 21:52:07.552235 13115 net.cpp:156] Memory required for data: 1328854560
I0403 21:52:07.552250 13115 layer_factory.hpp:77] Creating layer inception_5b/3x3_reduce
I0403 21:52:07.552273 13115 net.cpp:91] Creating Layer inception_5b/3x3_reduce
I0403 21:52:07.552291 13115 net.cpp:425] inception_5b/3x3_reduce <- inception_5a/output_inception_5a/output_0_split_1
I0403 21:52:07.552314 13115 net.cpp:399] inception_5b/3x3_reduce -> inception_5b/3x3_reduce
I0403 21:52:07.554956 13115 net.cpp:141] Setting up inception_5b/3x3_reduce
I0403 21:52:07.554986 13115 net.cpp:148] Top shape: 24 192 7 7 (225792)
I0403 21:52:07.555001 13115 net.cpp:156] Memory required for data: 1329757728
I0403 21:52:07.555019 13115 layer_factory.hpp:77] Creating layer inception_5b/relu_3x3_reduce
I0403 21:52:07.555039 13115 net.cpp:91] Creating Layer inception_5b/relu_3x3_reduce
I0403 21:52:07.555057 13115 net.cpp:425] inception_5b/relu_3x3_reduce <- inception_5b/3x3_reduce
I0403 21:52:07.555074 13115 net.cpp:386] inception_5b/relu_3x3_reduce -> inception_5b/3x3_reduce (in-place)
I0403 21:52:07.555265 13115 net.cpp:141] Setting up inception_5b/relu_3x3_reduce
I0403 21:52:07.555289 13115 net.cpp:148] Top shape: 24 192 7 7 (225792)
I0403 21:52:07.555304 13115 net.cpp:156] Memory required for data: 1330660896
I0403 21:52:07.555318 13115 layer_factory.hpp:77] Creating layer inception_5b/3x3
I0403 21:52:07.555341 13115 net.cpp:91] Creating Layer inception_5b/3x3
I0403 21:52:07.555358 13115 net.cpp:425] inception_5b/3x3 <- inception_5b/3x3_reduce
I0403 21:52:07.555377 13115 net.cpp:399] inception_5b/3x3 -> inception_5b/3x3
I0403 21:52:07.562073 13115 net.cpp:141] Setting up inception_5b/3x3
I0403 21:52:07.562103 13115 net.cpp:148] Top shape: 24 384 7 7 (451584)
I0403 21:52:07.562117 13115 net.cpp:156] Memory required for data: 1332467232
I0403 21:52:07.562135 13115 layer_factory.hpp:77] Creating layer inception_5b/relu_3x3
I0403 21:52:07.562155 13115 net.cpp:91] Creating Layer inception_5b/relu_3x3
I0403 21:52:07.562172 13115 net.cpp:425] inception_5b/relu_3x3 <- inception_5b/3x3
I0403 21:52:07.562189 13115 net.cpp:386] inception_5b/relu_3x3 -> inception_5b/3x3 (in-place)
I0403 21:52:07.562489 13115 net.cpp:141] Setting up inception_5b/relu_3x3
I0403 21:52:07.562515 13115 net.cpp:148] Top shape: 24 384 7 7 (451584)
I0403 21:52:07.562530 13115 net.cpp:156] Memory required for data: 1334273568
I0403 21:52:07.562544 13115 layer_factory.hpp:77] Creating layer inception_5b/5x5_reduce
I0403 21:52:07.562587 13115 net.cpp:91] Creating Layer inception_5b/5x5_reduce
I0403 21:52:07.562607 13115 net.cpp:425] inception_5b/5x5_reduce <- inception_5a/output_inception_5a/output_0_split_2
I0403 21:52:07.562628 13115 net.cpp:399] inception_5b/5x5_reduce -> inception_5b/5x5_reduce
I0403 21:52:07.563886 13115 net.cpp:141] Setting up inception_5b/5x5_reduce
I0403 21:52:07.563913 13115 net.cpp:148] Top shape: 24 48 7 7 (56448)
I0403 21:52:07.563930 13115 net.cpp:156] Memory required for data: 1334499360
I0403 21:52:07.563947 13115 layer_factory.hpp:77] Creating layer inception_5b/relu_5x5_reduce
I0403 21:52:07.563967 13115 net.cpp:91] Creating Layer inception_5b/relu_5x5_reduce
I0403 21:52:07.563984 13115 net.cpp:425] inception_5b/relu_5x5_reduce <- inception_5b/5x5_reduce
I0403 21:52:07.564002 13115 net.cpp:386] inception_5b/relu_5x5_reduce -> inception_5b/5x5_reduce (in-place)
I0403 21:52:07.564383 13115 net.cpp:141] Setting up inception_5b/relu_5x5_reduce
I0403 21:52:07.564409 13115 net.cpp:148] Top shape: 24 48 7 7 (56448)
I0403 21:52:07.564424 13115 net.cpp:156] Memory required for data: 1334725152
I0403 21:52:07.564440 13115 layer_factory.hpp:77] Creating layer inception_5b/5x5
I0403 21:52:07.564460 13115 net.cpp:91] Creating Layer inception_5b/5x5
I0403 21:52:07.564476 13115 net.cpp:425] inception_5b/5x5 <- inception_5b/5x5_reduce
I0403 21:52:07.564494 13115 net.cpp:399] inception_5b/5x5 -> inception_5b/5x5
I0403 21:52:07.566501 13115 net.cpp:141] Setting up inception_5b/5x5
I0403 21:52:07.566531 13115 net.cpp:148] Top shape: 24 128 7 7 (150528)
I0403 21:52:07.566548 13115 net.cpp:156] Memory required for data: 1335327264
I0403 21:52:07.566566 13115 layer_factory.hpp:77] Creating layer inception_5b/relu_5x5
I0403 21:52:07.566583 13115 net.cpp:91] Creating Layer inception_5b/relu_5x5
I0403 21:52:07.566599 13115 net.cpp:425] inception_5b/relu_5x5 <- inception_5b/5x5
I0403 21:52:07.566617 13115 net.cpp:386] inception_5b/relu_5x5 -> inception_5b/5x5 (in-place)
I0403 21:52:07.566807 13115 net.cpp:141] Setting up inception_5b/relu_5x5
I0403 21:52:07.566833 13115 net.cpp:148] Top shape: 24 128 7 7 (150528)
I0403 21:52:07.566849 13115 net.cpp:156] Memory required for data: 1335929376
I0403 21:52:07.566864 13115 layer_factory.hpp:77] Creating layer inception_5b/pool
I0403 21:52:07.566881 13115 net.cpp:91] Creating Layer inception_5b/pool
I0403 21:52:07.566896 13115 net.cpp:425] inception_5b/pool <- inception_5a/output_inception_5a/output_0_split_3
I0403 21:52:07.566916 13115 net.cpp:399] inception_5b/pool -> inception_5b/pool
I0403 21:52:07.566985 13115 net.cpp:141] Setting up inception_5b/pool
I0403 21:52:07.567010 13115 net.cpp:148] Top shape: 24 832 7 7 (978432)
I0403 21:52:07.567024 13115 net.cpp:156] Memory required for data: 1339843104
I0403 21:52:07.567039 13115 layer_factory.hpp:77] Creating layer inception_5b/pool_proj
I0403 21:52:07.567057 13115 net.cpp:91] Creating Layer inception_5b/pool_proj
I0403 21:52:07.567072 13115 net.cpp:425] inception_5b/pool_proj <- inception_5b/pool
I0403 21:52:07.567092 13115 net.cpp:399] inception_5b/pool_proj -> inception_5b/pool_proj
I0403 21:52:07.569396 13115 net.cpp:141] Setting up inception_5b/pool_proj
I0403 21:52:07.569424 13115 net.cpp:148] Top shape: 24 128 7 7 (150528)
I0403 21:52:07.569439 13115 net.cpp:156] Memory required for data: 1340445216
I0403 21:52:07.569458 13115 layer_factory.hpp:77] Creating layer inception_5b/relu_pool_proj
I0403 21:52:07.569478 13115 net.cpp:91] Creating Layer inception_5b/relu_pool_proj
I0403 21:52:07.569494 13115 net.cpp:425] inception_5b/relu_pool_proj <- inception_5b/pool_proj
I0403 21:52:07.569510 13115 net.cpp:386] inception_5b/relu_pool_proj -> inception_5b/pool_proj (in-place)
I0403 21:52:07.569826 13115 net.cpp:141] Setting up inception_5b/relu_pool_proj
I0403 21:52:07.569864 13115 net.cpp:148] Top shape: 24 128 7 7 (150528)
I0403 21:52:07.569880 13115 net.cpp:156] Memory required for data: 1341047328
I0403 21:52:07.569895 13115 layer_factory.hpp:77] Creating layer inception_5b/output
I0403 21:52:07.569913 13115 net.cpp:91] Creating Layer inception_5b/output
I0403 21:52:07.569942 13115 net.cpp:425] inception_5b/output <- inception_5b/1x1
I0403 21:52:07.569960 13115 net.cpp:425] inception_5b/output <- inception_5b/3x3
I0403 21:52:07.569977 13115 net.cpp:425] inception_5b/output <- inception_5b/5x5
I0403 21:52:07.569993 13115 net.cpp:425] inception_5b/output <- inception_5b/pool_proj
I0403 21:52:07.570008 13115 net.cpp:399] inception_5b/output -> inception_5b/output
I0403 21:52:07.570060 13115 net.cpp:141] Setting up inception_5b/output
I0403 21:52:07.570083 13115 net.cpp:148] Top shape: 24 1024 7 7 (1204224)
I0403 21:52:07.570097 13115 net.cpp:156] Memory required for data: 1345864224
I0403 21:52:07.570111 13115 layer_factory.hpp:77] Creating layer pool5/7x7_s1
I0403 21:52:07.570129 13115 net.cpp:91] Creating Layer pool5/7x7_s1
I0403 21:52:07.570144 13115 net.cpp:425] pool5/7x7_s1 <- inception_5b/output
I0403 21:52:07.570164 13115 net.cpp:399] pool5/7x7_s1 -> pool5/7x7_s1
I0403 21:52:07.570382 13115 net.cpp:141] Setting up pool5/7x7_s1
I0403 21:52:07.570407 13115 net.cpp:148] Top shape: 24 1024 1 1 (24576)
I0403 21:52:07.570422 13115 net.cpp:156] Memory required for data: 1345962528
I0403 21:52:07.570436 13115 layer_factory.hpp:77] Creating layer pool5/drop_7x7_s1
I0403 21:52:07.570456 13115 net.cpp:91] Creating Layer pool5/drop_7x7_s1
I0403 21:52:07.570472 13115 net.cpp:425] pool5/drop_7x7_s1 <- pool5/7x7_s1
I0403 21:52:07.570490 13115 net.cpp:386] pool5/drop_7x7_s1 -> pool5/7x7_s1 (in-place)
I0403 21:52:07.570540 13115 net.cpp:141] Setting up pool5/drop_7x7_s1
I0403 21:52:07.570564 13115 net.cpp:148] Top shape: 24 1024 1 1 (24576)
I0403 21:52:07.570576 13115 net.cpp:156] Memory required for data: 1346060832
I0403 21:52:07.570591 13115 layer_factory.hpp:77] Creating layer loss3/classifier_plantvillage
I0403 21:52:07.570611 13115 net.cpp:91] Creating Layer loss3/classifier_plantvillage
I0403 21:52:07.570626 13115 net.cpp:425] loss3/classifier_plantvillage <- pool5/7x7_s1
I0403 21:52:07.570647 13115 net.cpp:399] loss3/classifier_plantvillage -> loss3/classifier_plantvillage
I0403 21:52:07.571068 13115 net.cpp:141] Setting up loss3/classifier_plantvillage
I0403 21:52:07.571091 13115 net.cpp:148] Top shape: 24 38 (912)
I0403 21:52:07.571105 13115 net.cpp:156] Memory required for data: 1346064480
I0403 21:52:07.571123 13115 layer_factory.hpp:77] Creating layer loss3/classifier_plantvillage_loss3/classifier_plantvillage_0_split
I0403 21:52:07.571141 13115 net.cpp:91] Creating Layer loss3/classifier_plantvillage_loss3/classifier_plantvillage_0_split
I0403 21:52:07.571156 13115 net.cpp:425] loss3/classifier_plantvillage_loss3/classifier_plantvillage_0_split <- loss3/classifier_plantvillage
I0403 21:52:07.571176 13115 net.cpp:399] loss3/classifier_plantvillage_loss3/classifier_plantvillage_0_split -> loss3/classifier_plantvillage_loss3/classifier_plantvillage_0_split_0
I0403 21:52:07.571195 13115 net.cpp:399] loss3/classifier_plantvillage_loss3/classifier_plantvillage_0_split -> loss3/classifier_plantvillage_loss3/classifier_plantvillage_0_split_1
I0403 21:52:07.571220 13115 net.cpp:399] loss3/classifier_plantvillage_loss3/classifier_plantvillage_0_split -> loss3/classifier_plantvillage_loss3/classifier_plantvillage_0_split_2
I0403 21:52:07.571241 13115 net.cpp:399] loss3/classifier_plantvillage_loss3/classifier_plantvillage_0_split -> loss3/classifier_plantvillage_loss3/classifier_plantvillage_0_split_3
I0403 21:52:07.571339 13115 net.cpp:141] Setting up loss3/classifier_plantvillage_loss3/classifier_plantvillage_0_split
I0403 21:52:07.571362 13115 net.cpp:148] Top shape: 24 38 (912)
I0403 21:52:07.571377 13115 net.cpp:148] Top shape: 24 38 (912)
I0403 21:52:07.571393 13115 net.cpp:148] Top shape: 24 38 (912)
I0403 21:52:07.571408 13115 net.cpp:148] Top shape: 24 38 (912)
I0403 21:52:07.571421 13115 net.cpp:156] Memory required for data: 1346079072
I0403 21:52:07.571435 13115 layer_factory.hpp:77] Creating layer loss1/loss
I0403 21:52:07.571458 13115 net.cpp:91] Creating Layer loss1/loss
I0403 21:52:07.571475 13115 net.cpp:425] loss1/loss <- loss1/classifier_plantvillage_loss1/classifier_plantvillage_0_split_0
I0403 21:52:07.571506 13115 net.cpp:425] loss1/loss <- label_data_1_split_0
…
