…
I0403 21:47:08.414391 12820 net.cpp:313] The NetState phase (1) differed from the phase (0) specified by a rule in layer data
I0403 21:47:08.415596 12820 net.cpp:49] Initializing net from parameters: 
state {
  phase: TEST
}
layer {
  name: "data"
  type: "Data"
  top: "data"
  top: "label"
  include {
    phase: TEST
  }
  transform_param {
    mirror: false
    crop_size: 224
    mean_file: "/home/mohanty/data/final_dataset/lmdb/color-80-20/mean.binaryproto"
  }
  data_param {
    source: "/home/mohanty/data/final_dataset/lmdb/color-80-20/test_db"
    batch_size: 24
    backend: LMDB
  }
}
layer {
  name: "conv1/7x7_s2"
  type: "Convolution"
  bottom: "data"
  top: "conv1/7x7_s2"
  param {
    lr_mult: 1
    decay_mult: 1
  }
  param {
    lr_mult: 2
    decay_mult: 0
  }
  convolution_param {
    num_output: 64
    pad: 3
    kernel_size: 7
    stride: 2
    weight_filler {
      type: "xavier"
      std: 0.1
    }
    bias_filler {
      type: "constant"
      value: 0.2
    }
  }
}
layer {
  name: "conv1/relu_7x7"
  type: "ReLU"
  bottom: "conv1/7x7_s2"
  top: "conv1/7x7_s2"
}
layer {
  name: "pool1/3x3_s2"
  type: "Pooling"
  bottom: "conv1/7x7_s2"
  top: "pool1/3x3_s2"
  pooling_param {
    pool: MAX
    kernel_size: 3
    stride: 2
  }
}
layer {
  name: "pool1/norm1"
  type: "LRN"
  bottom: "pool1/3x3_s2"
  top: "pool1/norm1"
  lrn_param {
    local_size: 5
    alpha: 0.0001
    beta: 0.75
  }
}
layer {
  name: "conv2/3x3_reduce"
  type: "Convolution"
  bottom: "pool1/norm1"
  top: "conv2/3x3_reduce"
  param {
    lr_mult: 1
    decay_mult: 1
  }
  param {
    lr_mult: 2
    decay_mult: 0
  }
  convolution_param {
    num_output: 64
    kernel_size: 1
    weight_filler {
      type: "xavier"
      std: 0.1
    }
    bias_filler {
      type: "constant"
      value: 0.2
    }
  }
}
layer {
  name: "conv2/relu_3x3_reduce"
  type: "ReLU"
  bottom: "conv2/3x3_reduce"
  top: "conv2/3x3_reduce"
}
layer {
  name: "conv2/3x3"
  type: "Convolution"
  bottom: "conv2/3x3_reduce"
  top: "conv2/3x3"
  param {
    lr_mult: 1
    decay_mult: 1
  }
  param {
    lr_mult: 2
    decay_mult: 0
  }
  convolution_param {
    num_output: 192
    pad: 1
    kernel_size: 3
    weight_filler {
      type: "xavier"
      std: 0.03
    }
    bias_filler {
      type: "constant"
      value: 0.2
    }
  }
}
layer {
  name: "conv2/relu_3x3"
  type: "ReLU"
  bottom: "conv2/3x3"
  top: "conv2/3x3"
}
layer {
  name: "conv2/norm2"
  type: "LRN"
  bottom: "conv2/3x3"
  top: "conv2/norm2"
  lrn_param {
    local_size: 5
    alpha: 0.0001
    beta: 0.75
  }
}
layer {
  name: "pool2/3x3_s2"
  type: "Pooling"
  bottom: "conv2/norm2"
  top: "pool2/3x3_s2"
  pooling_param {
    pool: MAX
    kernel_size: 3
    stride: 2
  }
}
layer {
  name: "inception_3a/1x1"
  type: "Convolution"
  bottom: "pool2/3x3_s2"
  top: "inception_3a/1x1"
  param {
    lr_mult: 1
    decay_mult: 1
  }
  param {
    lr_mult: 2
    decay_mult: 0
  }
  convolution_param {
    num_output: 64
    kernel_size: 1
    weight_filler {
      type: "xavier"
      std: 0.03
    }
    bias_filler {
      type: "constant"
      value: 0.2
    }
  }
}
layer {
  name: "inception_3a/relu_1x1"
  type: "ReLU"
  bottom: "inception_3a/1x1"
  top: "inception_3a/1x1"
}
layer {
  name: "inception_3a/3x3_reduce"
  type: "Convolution"
  bottom: "pool2/3x3_s2"
  top: "inception_3a/3x3_reduce"
  param {
    lr_mult: 1
    decay_mult: 1
  }
  param {
    lr_mult: 2
    decay_mult: 0
  }
  convolution_param {
    num_output: 96
    kernel_size: 1
    weight_filler {
      type: "xavier"
      std: 0.09
    }
    bias_filler {
      type: "constant"
      value: 0.2
    }
  }
}
layer {
  name: "inception_3a/relu_3x3_reduce"
  type: "ReLU"
  bottom: "inception_3a/3x3_reduce"
  top: "inception_3a/3x3_reduce"
}
layer {
  name: "inception_3a/3x3"
  type: "Convolution"
  bottom: "inception_3a/3x3_reduce"
  top: "inception_3a/3x3"
  param {
    lr_mult: 1
    decay_mult: 1
  }
  param {
    lr_mult: 2
    decay_mult: 0
  }
  convolution_param {
    num_output: 128
    pad: 1
    kernel_size: 3
    weight_filler {
      type: "xavier"
      std: 0.03
    }
    bias_filler {
      type: "constant"
      value: 0.2
    }
  }
}
layer {
  name: "inception_3a/relu_3x3"
  type: "ReLU"
  bottom: "inception_3a/3x3"
  top: "inception_3a/3x3"
}
layer {
  name: "inception_3a/5x5_reduce"
  type: "Convolution"
  bottom: "pool2/3x3_s2"
  top: "inception_3a/5x5_reduce"
  param {
    lr_mult: 1
    decay_mult: 1
  }
  param {
    lr_mult: 2
    decay_mult: 0
  }
  convolution_param {
    num_output: 16
    kernel_size: 1
    weight_filler {
      type: "xavier"
      std: 0.2
    }
    bias_filler {
      type: "constant"
      value: 0.2
    }
  }
}
layer {
  name: "inception_3a/relu_5x5_reduce"
  type: "ReLU"
  bottom: "inception_3a/5x5_reduce"
  top: "inception_3a/5x5_reduce"
}
layer {
  name: "inception_3a/5x5"
  type: "Convolution"
  bottom: "inception_3a/5x5_reduce"
  top: "inception_3a/5x5"
  param {
    lr_mult: 1
    decay_mult: 1
  }
  param {
    lr_mult: 2
    decay_mult: 0
  }
  convolution_param {
    num_output: 32
    pad: 2
    kernel_size: 5
    weight_filler {
      type: "xavier"
      std: 0.03
    }
    bias_filler {
      type: "constant"
      value: 0.2
    }
  }
}
layer {
  name: "inception_3a/relu_5x5"
  type: "ReLU"
  bottom: "inception_3a/5x5"
  top: "inception_3a/5x5"
}
layer {
  name: "inception_3a/pool"
  type: "Pooling"
  bottom: "pool2/3x3_s2"
  top: "inception_3a/pool"
  pooling_param {
    pool: MAX
    kernel_size: 3
    stride: 1
    pad: 1
  }
}
layer {
  name: "inception_3a/pool_proj"
  type: "Convolution"
  bottom: "inception_3a/pool"
  top: "inception_3a/pool_proj"
  param {
    lr_mult: 1
    decay_mult: 1
  }
  param {
    lr_mult: 2
    decay_mult: 0
  }
  convolution_param {
    num_output: 32
    kernel_size: 1
    weight_filler {
      type: "xavier"
      std: 0.1
    }
    bias_filler {
      type: "constant"
      value: 0.2
    }
  }
}
layer {
  name: "inception_3a/relu_pool_proj"
  type: "ReLU"
  bottom: "inception_3a/pool_proj"
  top: "inception_3a/pool_proj"
}
layer {
  name: "inception_3a/output"
  type: "Concat"
  bottom: "inception_3a/1x1"
  bottom: "inception_3a/3x3"
  bottom: "inception_3a/5x5"
  bottom: "inception_3a/pool_proj"
  top: "inception_3a/output"
}
layer {
  name: "inception_3b/1x1"
  type: "Convolution"
  bottom: "inception_3a/output"
  top: "inception_3b/1x1"
  param {
    lr_mult: 1
    decay_mult: 1
  }
  param {
    lr_mult: 2
    decay_mult: 0
  }
  convolution_param {
    num_output: 128
    kernel_size: 1
    weight_filler {
      type: "xavier"
      std: 0.03
    }
    bias_filler {
      type: "constant"
      value: 0.2
    }
  }
}
layer {
  name: "inception_3b/relu_1x1"
  type: "ReLU"
  bottom: "inception_3b/1x1"
  top: "inception_3b/1x1"
}
layer {
  name: "inception_3b/3x3_reduce"
  type: "Convolution"
  bottom: "inception_3a/output"
  top: "inception_3b/3x3_reduce"
  param {
    lr_mult: 1
    decay_mult: 1
  }
  param {
    lr_mult: 2
    decay_mult: 0
  }
  convolution_param {
    num_output: 128
    kernel_size: 1
    weight_filler {
      type: "xavier"
      std: 0.09
    }
    bias_filler {
      type: "constant"
      value: 0.2
    }
  }
}
layer {
  name: "inception_3b/relu_3x3_reduce"
  type: "ReLU"
  bottom: "inception_3b/3x3_reduce"
  top: "inception_3b/3x3_reduce"
}
layer {
  name: "inception_3b/3x3"
  type: "Convolution"
  bottom: "inception_3b/3x3_reduce"
  top: "inception_3b/3x3"
  param {
    lr_mult: 1
    decay_mult: 1
  }
  param {
    lr_mult: 2
    decay_mult: 0
  }
  convolution_param {
    num_output: 192
    pad: 1
    kernel_size: 3
    weight_filler {
      type: "xavier"
      std: 0.03
    }
    bias_filler {
      type: "constant"
      value: 0.2
    }
  }
}
layer {
  name: "inception_3b/relu_3x3"
  type: "ReLU"
  bottom: "inception_3b/3x3"
  top: "inception_3b/3x3"
}
layer {
  name: "inception_3b/5x5_reduce"
  type: "Convolution"
  bottom: "inception_3a/output"
  top: "inception_3b/5x5_reduce"
  param {
    lr_mult: 1
    decay_mult: 1
  }
  param {
    lr_mult: 2
    decay_mult: 0
  }
  convolution_param {
    num_output: 32
    kernel_size: 1
    weight_filler {
      type: "xavier"
      std: 0.2
    }
    bias_filler {
      type: "constant"
      value: 0.2
    }
  }
}
layer {
  name: "inception_3b/relu_5x5_reduce"
  type: "ReLU"
  bottom: "inception_3b/5x5_reduce"
  top: "inception_3b/5x5_reduce"
}
layer {
  name: "inception_3b/5x5"
  type: "Convolution"
  bottom: "inception_3b/5x5_reduce"
  top: "inception_3b/5x5"
  param {
    lr_mult: 1
    decay_mult: 1
  }
  param {
    lr_mult: 2
    decay_mult: 0
  }
  convolution_param {
    num_output: 96
    pad: 2
    kernel_size: 5
    weight_filler {
      type: "xavier"
      std: 0.03
    }
    bias_filler {
      type: "constant"
      value: 0.2
    }
  }
}
layer {
  name: "inception_3b/relu_5x5"
  type: "ReLU"
  bottom: "inception_3b/5x5"
  top: "inception_3b/5x5"
}
layer {
  name: "inception_3b/pool"
  type: "Pooling"
  bottom: "inception_3a/output"
  top: "inception_3b/pool"
  pooling_param {
    pool: MAX
    kernel_size: 3
    stride: 1
    pad: 1
  }
}
layer {
  name: "inception_3b/pool_proj"
  type: "Convolution"
  bottom: "inception_3b/pool"
  top: "inception_3b/pool_proj"
  param {
    lr_mult: 1
    decay_mult: 1
  }
  param {
    lr_mult: 2
    decay_mult: 0
  }
  convolution_param {
    num_output: 64
    kernel_size: 1
    weight_filler {
      type: "xavier"
      std: 0.1
    }
    bias_filler {
      type: "constant"
      value: 0.2
    }
  }
}
layer {
  name: "inception_3b/relu_pool_proj"
  type: "ReLU"
  bottom: "inception_3b/pool_proj"
  top: "inception_3b/pool_proj"
}
layer {
  name: "inception_3b/output"
  type: "Concat"
  bottom: "inception_3b/1x1"
  bottom: "inception_3b/3x3"
  bottom: "inception_3b/5x5"
  bottom: "inception_3b/pool_proj"
  top: "inception_3b/output"
}
layer {
  name: "pool3/3x3_s2"
  type: "Pooling"
  bottom: "inception_3b/output"
  top: "pool3/3x3_s2"
  pooling_param {
    pool: MAX
    kernel_size: 3
    stride: 2
  }
}
layer {
  name: "inception_4a/1x1"
  type: "Convolution"
  bottom: "pool3/3x3_s2"
  top: "inception_4a/1x1"
  param {
    lr_mult: 1
    decay_mult: 1
  }
  param {
    lr_mult: 2
    decay_mult: 0
  }
  convolution_param {
    num_output: 192
    kernel_size: 1
    weight_filler {
      type: "xavier"
      std: 0.03
    }
    bias_filler {
      type: "constant"
      value: 0.2
    }
  }
}
layer {
  name: "inception_4a/relu_1x1"
  type: "ReLU"
  bottom: "inception_4a/1x1"
  top: "inception_4a/1x1"
}
layer {
  name: "inception_4a/3x3_reduce"
  type: "Convolution"
  bottom: "pool3/3x3_s2"
  top: "inception_4a/3x3_reduce"
  param {
    lr_mult: 1
    decay_mult: 1
  }
  param {
    lr_mult: 2
    decay_mult: 0
  }
  convolution_param {
    num_output: 96
    kernel_size: 1
    weight_filler {
      type: "xavier"
      std: 0.09
    }
    bias_filler {
      type: "constant"
      value: 0.2
    }
  }
}
layer {
  name: "inception_4a/relu_3x3_reduce"
  type: "ReLU"
  bottom: "inception_4a/3x3_reduce"
  top: "inception_4a/3x3_reduce"
}
layer {
  name: "inception_4a/3x3"
  type: "Convolution"
  bottom: "inception_4a/3x3_reduce"
  top: "inception_4a/3x3"
  param {
    lr_mult: 1
    decay_mult: 1
  }
  param {
    lr_mult: 2
    decay_mult: 0
  }
  convolution_param {
    num_output: 208
    pad: 1
    kernel_size: 3
    weight_filler {
      type: "xavier"
      std: 0.03
    }
    bias_filler {
      type: "constant"
      value: 0.2
    }
  }
}
layer {
  name: "inception_4a/relu_3x3"
  type: "ReLU"
  bottom: "inception_4a/3x3"
  top: "inception_4a/3x3"
}
layer {
  name: "inception_4a/5x5_reduce"
  type: "Convolution"
  bottom: "pool3/3x3_s2"
  top: "inception_4a/5x5_reduce"
  param {
    lr_mult: 1
    decay_mult: 1
  }
  param {
    lr_mult: 2
    decay_mult: 0
  }
  convolution_param {
    num_output: 16
    kernel_size: 1
    weight_filler {
      type: "xavier"
      std: 0.2
    }
    bias_filler {
      type: "constant"
      value: 0.2
    }
  }
}
layer {
  name: "inception_4a/relu_5x5_reduce"
  type: "ReLU"
  bottom: "inception_4a/5x5_reduce"
  top: "inception_4a/5x5_reduce"
}
layer {
  name: "inception_4a/5x5"
  type: "Convolution"
  bottom: "inception_4a/5x5_reduce"
  top: "inception_4a/5x5"
  param {
    lr_mult: 1
    decay_mult: 1
  }
  param {
    lr_mult: 2
    decay_mult: 0
  }
  convolution_param {
    num_output: 48
    pad: 2
    kernel_size: 5
    weight_filler {
      type: "xavier"
      std: 0.03
    }
    bias_filler {
      type: "constant"
      value: 0.2
    }
  }
}
layer {
  name: "inception_4a/relu_5x5"
  type: "ReLU"
  bottom: "inception_4a/5x5"
  top: "inception_4a/5x5"
}
layer {
  name: "inception_4a/pool"
  type: "Pooling"
  bottom: "pool3/3x3_s2"
  top: "inception_4a/pool"
  pooling_param {
    pool: MAX
    kernel_size: 3
    stride: 1
    pad: 1
  }
}
layer {
  name: "inception_4a/pool_proj"
  type: "Convolution"
  bottom: "inception_4a/pool"
  top: "inception_4a/pool_proj"
  param {
    lr_mult: 1
    decay_mult: 1
  }
  param {
    lr_mult: 2
    decay_mult: 0
  }
  convolution_param {
    num_output: 64
    kernel_size: 1
    weight_filler {
      type: "xavier"
      std: 0.1
    }
    bias_filler {
      type: "constant"
      value: 0.2
    }
  }
}
layer {
  name: "inception_4a/relu_pool_proj"
  type: "ReLU"
  bottom: "inception_4a/pool_proj"
  top: "inception_4a/pool_proj"
}
layer {
  name: "inception_4a/output"
  type: "Concat"
  bottom: "inception_4a/1x1"
  bottom: "inception_4a/3x3"
  bottom: "inception_4a/5x5"
  bottom: "inception_4a/pool_proj"
  top: "inception_4a/output"
}
layer {
  name: "loss1/ave_pool"
  type: "Pooling"
  bottom: "inception_4a/output"
  top: "loss1/ave_pool"
  pooling_param {
    pool: AVE
    kernel_size: 5
    stride: 3
  }
}
layer {
  name: "loss1/conv"
  type: "Convolution"
  bottom: "loss1/ave_pool"
  top: "loss1/conv"
  param {
    lr_mult: 1
    decay_mult: 1
  }
  param {
    lr_mult: 2
    decay_mult: 0
  }
  convolution_param {
    num_output: 128
    kernel_size: 1
    weight_filler {
      type: "xavier"
      std: 0.08
    }
    bias_filler {
      type: "constant"
      value: 0.2
    }
  }
}
layer {
  name: "loss1/relu_conv"
  type: "ReLU"
  bottom: "loss1/conv"
  top: "loss1/conv"
}
layer {
  name: "loss1/fc"
  type: "InnerProduct"
  bottom: "loss1/conv"
  top: "loss1/fc"
  param {
    lr_mult: 1
    decay_mult: 1
  }
  param {
    lr_mult: 2
    decay_mult: 0
  }
  inner_product_param {
    num_output: 1024
    weight_filler {
      type: "xavier"
      std: 0.02
    }
    bias_filler {
      type: "constant"
      value: 0.2
    }
  }
}
layer {
  name: "loss1/relu_fc"
  type: "ReLU"
  bottom: "loss1/fc"
  top: "loss1/fc"
}
layer {
  name: "loss1/drop_fc"
  type: "Dropout"
  bottom: "loss1/fc"
  top: "loss1/fc"
  dropout_param {
    dropout_ratio: 0.7
  }
}
layer {
  name: "loss1/classifier_plantvillage"
  type: "InnerProduct"
  bottom: "loss1/fc"
  top: "loss1/classifier_plantvillage"
  param {
    lr_mult: 1
    decay_mult: 1
  }
  param {
    lr_mult: 2
    decay_mult: 0
  }
  inner_product_param {
    num_output: 38
    weight_filler {
      type: "xavier"
      std: 0.0009765625
    }
    bias_filler {
      type: "constant"
      value: 0
    }
  }
}
layer {
  name: "inception_4b/1x1"
  type: "Convolution"
  bottom: "inception_4a/output"
  top: "inception_4b/1x1"
  param {
    lr_mult: 1
    decay_mult: 1
  }
  param {
    lr_mult: 2
    decay_mult: 0
  }
  convolution_param {
    num_output: 160
    kernel_size: 1
    weight_filler {
      type: "xavier"
      std: 0.03
    }
    bias_filler {
      type: "constant"
      value: 0.2
    }
  }
}
layer {
  name: "inception_4b/relu_1x1"
  type: "ReLU"
  bottom: "inception_4b/1x1"
  top: "inception_4b/1x1"
}
layer {
  name: "inception_4b/3x3_reduce"
  type: "Convolution"
  bottom: "inception_4a/output"
  top: "inception_4b/3x3_reduce"
  param {
    lr_mult: 1
    decay_mult: 1
  }
  param {
    lr_mult: 2
    decay_mult: 0
  }
  convolution_param {
    num_output: 112
    kernel_size: 1
    weight_filler {
      type: "xavier"
      std: 0.09
    }
    bias_filler {
      type: "constant"
      value: 0.2
    }
  }
}
layer {
  name: "inception_4b/relu_3x3_reduce"
  type: "ReLU"
  bottom: "inception_4b/3x3_reduce"
  top: "inception_4b/3x3_reduce"
}
layer {
  name: "inception_4b/3x3"
  type: "Convolution"
  bottom: "inception_4b/3x3_reduce"
  top: "inception_4b/3x3"
  param {
    lr_mult: 1
    decay_mult: 1
  }
  param {
    lr_mult: 2
    decay_mult: 0
  }
  convolution_param {
    num_output: 224
    pad: 1
    kernel_size: 3
    weight_filler {
      type: "xavier"
      std: 0.03
    }
    bias_filler {
      type: "constant"
      value: 0.2
    }
  }
}
layer {
  name: "inception_4b/relu_3x3"
  type: "ReLU"
  bottom: "inception_4b/3x3"
  top: "inception_4b/3x3"
}
layer {
  name: "inception_4b/5x5_reduce"
  type: "Convolution"
  bottom: "inception_4a/output"
  top: "inception_4b/5x5_reduce"
  param {
    lr_mult: 1
    decay_mult: 1
  }
  param {
    lr_mult: 2
    decay_mult: 0
  }
  convolution_param {
    num_output: 24
    kernel_size: 1
    weight_filler {
      type: "xavier"
      std: 0.2
    }
    bias_filler {
      type: "constant"
      value: 0.2
    }
  }
}
layer {
  name: "inception_4b/relu_5x5_reduce"
  type: "ReLU"
  bottom: "inception_4b/5x5_reduce"
  top: "inception_4b/5x5_reduce"
}
layer {
  name: "inception_4b/5x5"
  type: "Convolution"
  bottom: "inception_4b/5x5_reduce"
  top: "inception_4b/5x5"
  param {
    lr_mult: 1
    decay_mult: 1
  }
  param {
    lr_mult: 2
    decay_mult: 0
  }
  convolution_param {
    num_output: 64
    pad: 2
    kernel_size: 5
    weight_filler {
      type: "xavier"
      std: 0.03
    }
    bias_filler {
      type: "constant"
      value: 0.2
    }
  }
}
layer {
  name: "inception_4b/relu_5x5"
  type: "ReLU"
  bottom: "inception_4b/5x5"
  top: "inception_4b/5x5"
}
layer {
  name: "inception_4b/pool"
  type: "Pooling"
  bottom: "inception_4a/output"
  top: "inception_4b/pool"
  pooling_param {
    pool: MAX
    kernel_size: 3
    stride: 1
    pad: 1
  }
}
layer {
  name: "inception_4b/pool_proj"
  type: "Convolution"
  bottom: "inception_4b/pool"
  top: "inception_4b/pool_proj"
  param {
    lr_mult: 1
    decay_mult: 1
  }
  param {
    lr_mult: 2
    decay_mult: 0
  }
  convolution_param {
    num_output: 64
    kernel_size: 1
    weight_filler {
      type: "xavier"
      std: 0.1
    }
    bias_filler {
      type: "constant"
      value: 0.2
    }
  }
}
layer {
  name: "inception_4b/relu_pool_proj"
  type: "ReLU"
  bottom: "inception_4b/pool_proj"
  top: "inception_4b/pool_proj"
}
layer {
  name: "inception_4b/output"
  type: "Concat"
  bottom: "inception_4b/1x1"
  bottom: "inception_4b/3x3"
  bottom: "inception_4b/5x5"
  bottom: "inception_4b/pool_proj"
  top: "inception_4b/output"
}
layer {
  name: "inception_4c/1x1"
  type: "Convolution"
  bottom: "inception_4b/output"
  top: "inception_4c/1x1"
  param {
    lr_mult: 1
    decay_mult: 1
  }
  param {
    lr_mult: 2
    decay_mult: 0
  }
  convolution_param {
    num_output: 128
    kernel_size: 1
    weight_filler {
      type: "xavier"
      std: 0.03
    }
    bias_filler {
      type: "constant"
      value: 0.2
    }
  }
}
layer {
  name: "inception_4c/relu_1x1"
  type: "ReLU"
  bottom: "inception_4c/1x1"
  top: "inception_4c/1x1"
}
layer {
  name: "inception_4c/3x3_reduce"
  type: "Convolution"
  bottom: "inception_4b/output"
  top: "inception_4c/3x3_reduce"
  param {
    lr_mult: 1
    decay_mult: 1
  }
  param {
    lr_mult: 2
    decay_mult: 0
  }
  convolution_param {
    num_output: 128
    kernel_size: 1
    weight_filler {
      type: "xavier"
      std: 0.09
    }
    bias_filler {
      type: "constant"
      value: 0.2
    }
  }
}
layer {
  name: "inception_4c/relu_3x3_reduce"
  type: "ReLU"
  bottom: "inception_4c/3x3_reduce"
  top: "inception_4c/3x3_reduce"
}
layer {
  name: "inception_4c/3x3"
  type: "Convolution"
  bottom: "inception_4c/3x3_reduce"
  top: "inception_4c/3x3"
  param {
    lr_mult: 1
    decay_mult: 1
  }
  param {
    lr_mult: 2
    decay_mult: 0
  }
  convolution_param {
    num_output: 256
    pad: 1
    kernel_size: 3
    weight_filler {
      type: "xavier"
      std: 0.03
    }
    bias_filler {
      type: "constant"
      value: 0.2
    }
  }
}
layer {
  name: "inception_4c/relu_3x3"
  type: "ReLU"
  bottom: "inception_4c/3x3"
  top: "inception_4c/3x3"
}
layer {
  name: "inception_4c/5x5_reduce"
  type: "Convolution"
  bottom: "inception_4b/output"
  top: "inception_4c/5x5_reduce"
  param {
    lr_mult: 1
    decay_mult: 1
  }
  param {
    lr_mult: 2
    decay_mult: 0
  }
  convolution_param {
    num_output: 24
    kernel_size: 1
    weight_filler {
      type: "xavier"
      std: 0.2
    }
    bias_filler {
      type: "constant"
      value: 0.2
    }
  }
}
layer {
  name: "inception_4c/relu_5x5_reduce"
  type: "ReLU"
  bottom: "inception_4c/5x5_reduce"
  top: "inception_4c/5x5_reduce"
}
layer {
  name: "inception_4c/5x5"
  type: "Convolution"
  bottom: "inception_4c/5x5_reduce"
  top: "inception_4c/5x5"
  param {
    lr_mult: 1
    decay_mult: 1
  }
  param {
    lr_mult: 2
    decay_mult: 0
  }
  convolution_param {
    num_output: 64
    pad: 2
    kernel_size: 5
    weight_filler {
      type: "xavier"
      std: 0.03
    }
    bias_filler {
      type: "constant"
      value: 0.2
    }
  }
}
layer {
  name: "inception_4c/relu_5x5"
  type: "ReLU"
  bottom: "inception_4c/5x5"
  top: "inception_4c/5x5"
}
layer {
  name: "inception_4c/pool"
  type: "Pooling"
  bottom: "inception_4b/output"
  top: "inception_4c/pool"
  pooling_param {
    pool: MAX
    kernel_size: 3
    stride: 1
    pad: 1
  }
}
layer {
  name: "inception_4c/pool_proj"
  type: "Convolution"
  bottom: "inception_4c/pool"
  top: "inception_4c/pool_proj"
  param {
    lr_mult: 1
    decay_mult: 1
  }
  param {
    lr_mult: 2
    decay_mult: 0
  }
  convolution_param {
    num_output: 64
    kernel_size: 1
    weight_filler {
      type: "xavier"
      std: 0.1
    }
    bias_filler {
      type: "constant"
      value: 0.2
    }
  }
}
layer {
  name: "inception_4c/relu_pool_proj"
  type: "ReLU"
  bottom: "inception_4c/pool_proj"
  top: "inception_4c/pool_proj"
}
layer {
  name: "inception_4c/output"
  type: "Concat"
  bottom: "inception_4c/1x1"
  bottom: "inception_4c/3x3"
  bottom: "inception_4c/5x5"
  bottom: "inception_4c/pool_proj"
  top: "inception_4c/output"
}
layer {
  name: "inception_4d/1x1"
  type: "Convolution"
  bottom: "inception_4c/output"
  top: "inception_4d/1x1"
  param {
    lr_mult: 1
    decay_mult: 1
  }
  param {
    lr_mult: 2
    decay_mult: 0
  }
  convolution_param {
    num_output: 112
    kernel_size: 1
    weight_filler {
      type: "xavier"
      std: 0.03
    }
    bias_filler {
      type: "constant"
      value: 0.2
    }
  }
}
layer {
  name: "inception_4d/relu_1x1"
  type: "ReLU"
  bottom: "inception_4d/1x1"
  top: "inception_4d/1x1"
}
layer {
  name: "inception_4d/3x3_reduce"
  type: "Convolution"
  bottom: "inception_4c/output"
  top: "inception_4d/3x3_reduce"
  param {
    lr_mult: 1
    decay_mult: 1
  }
  param {
    lr_mult: 2
    decay_mult: 0
  }
  convolution_param {
    num_output: 144
    kernel_size: 1
    weight_filler {
      type: "xavier"
      std: 0.09
    }
    bias_filler {
      type: "constant"
      value: 0.2
    }
  }
}
layer {
  name: "inception_4d/relu_3x3_reduce"
  type: "ReLU"
  bottom: "inception_4d/3x3_reduce"
  top: "inception_4d/3x3_reduce"
}
layer {
  name: "inception_4d/3x3"
  type: "Convolution"
  bottom: "inception_4d/3x3_reduce"
  top: "inception_4d/3x3"
  param {
    lr_mult: 1
    decay_mult: 1
  }
  param {
    lr_mult: 2
    decay_mult: 0
  }
  convolution_param {
    num_output: 288
    pad: 1
    kernel_size: 3
    weight_filler {
      type: "xavier"
      std: 0.03
    }
    bias_filler {
      type: "constant"
      value: 0.2
    }
  }
}
layer {
  name: "inception_4d/relu_3x3"
  type: "ReLU"
  bottom: "inception_4d/3x3"
  top: "inception_4d/3x3"
}
layer {
  name: "inception_4d/5x5_reduce"
  type: "Convolution"
  bottom: "inception_4c/output"
  top: "inception_4d/5x5_reduce"
  param {
    lr_mult: 1
    decay_mult: 1
  }
  param {
    lr_mult: 2
    decay_mult: 0
  }
  convolution_param {
    num_output: 32
    kernel_size: 1
    weight_filler {
      type: "xavier"
      std: 0.2
    }
    bias_filler {
      type: "constant"
      value: 0.2
    }
  }
}
layer {
  name: "inception_4d/relu_5x5_reduce"
  type: "ReLU"
  bottom: "inception_4d/5x5_reduce"
  top: "inception_4d/5x5_reduce"
}
layer {
  name: "inception_4d/5x5"
  type: "Convolution"
  bottom: "inception_4d/5x5_reduce"
  top: "inception_4d/5x5"
  param {
    lr_mult: 1
    decay_mult: 1
  }
  param {
    lr_mult: 2
    decay_mult: 0
  }
  convolution_param {
    num_output: 64
    pad: 2
    kernel_size: 5
    weight_filler {
      type: "xavier"
      std: 0.03
    }
    bias_filler {
      type: "constant"
      value: 0.2
    }
  }
}
layer {
  name: "inception_4d/relu_5x5"
  type: "ReLU"
  bottom: "inception_4d/5x5"
  top: "inception_4d/5x5"
}
layer {
  name: "inception_4d/pool"
  type: "Pooling"
  bottom: "inception_4c/output"
  top: "inception_4d/pool"
  pooling_param {
    pool: MAX
    kernel_size: 3
    stride: 1
    pad: 1
  }
}
layer {
  name: "inception_4d/pool_proj"
  type: "Convolution"
  bottom: "inception_4d/pool"
  top: "inception_4d/pool_proj"
  param {
    lr_mult: 1
    decay_mult: 1
  }
  param {
    lr_mult: 2
    decay_mult: 0
  }
  convolution_param {
    num_output: 64
    kernel_size: 1
    weight_filler {
      type: "xavier"
      std: 0.1
    }
    bias_filler {
      type: "constant"
      value: 0.2
    }
  }
}
layer {
  name: "inception_4d/relu_pool_proj"
  type: "ReLU"
  bottom: "inception_4d/pool_proj"
  top: "inception_4d/pool_proj"
}
layer {
  name: "inception_4d/output"
  type: "Concat"
  bottom: "inception_4d/1x1"
  bottom: "inception_4d/3x3"
  bottom: "inception_4d/5x5"
  bottom: "inception_4d/pool_proj"
  top: "inception_4d/output"
}
layer {
  name: "loss2/ave_pool"
  type: "Pooling"
  bottom: "inception_4d/output"
  top: "loss2/ave_pool"
  pooling_param {
    pool: AVE
    kernel_size: 5
    stride: 3
  }
}
layer {
  name: "loss2/conv"
  type: "Convolution"
  bottom: "loss2/ave_pool"
  top: "loss2/conv"
  param {
    lr_mult: 1
    decay_mult: 1
  }
  param {
    lr_mult: 2
    decay_mult: 0
  }
  convolution_param {
    num_output: 128
    kernel_size: 1
    weight_filler {
      type: "xavier"
      std: 0.08
    }
    bias_filler {
      type: "constant"
      value: 0.2
    }
  }
}
layer {
  name: "loss2/relu_conv"
  type: "ReLU"
  bottom: "loss2/conv"
  top: "loss2/conv"
}
layer {
  name: "loss2/fc"
  type: "InnerProduct"
  bottom: "loss2/conv"
  top: "loss2/fc"
  param {
    lr_mult: 1
    decay_mult: 1
  }
  param {
    lr_mult: 2
    decay_mult: 0
  }
  inner_product_param {
    num_output: 1024
    weight_filler {
      type: "xavier"
      std: 0.02
    }
    bias_filler {
      type: "constant"
      value: 0.2
    }
  }
}
layer {
  name: "loss2/relu_fc"
  type: "ReLU"
  bottom: "loss2/fc"
  top: "loss2/fc"
}
layer {
  name: "loss2/drop_fc"
  type: "Dropout"
  bottom: "loss2/fc"
  top: "loss2/fc"
  dropout_param {
    dropout_ratio: 0.7
  }
}
layer {
  name: "loss2/classifier_plantvillage"
  type: "InnerProduct"
  bottom: "loss2/fc"
  top: "loss2/classifier_plantvillage"
  param {
    lr_mult: 1
    decay_mult: 1
  }
  param {
    lr_mult: 2
    decay_mult: 0
  }
  inner_product_param {
    num_output: 38
    weight_filler {
      type: "xavier"
      std: 0.0009765625
    }
    bias_filler {
      type: "constant"
      value: 0
    }
  }
}
layer {
  name: "inception_4e/1x1"
  type: "Convolution"
  bottom: "inception_4d/output"
  top: "inception_4e/1x1"
  param {
    lr_mult: 1
    decay_mult: 1
  }
  param {
    lr_mult: 2
    decay_mult: 0
  }
  convolution_param {
    num_output: 256
    kernel_size: 1
    weight_filler {
      type: "xavier"
      std: 0.03
    }
    bias_filler {
      type: "constant"
      value: 0.2
    }
  }
}
layer {
  name: "inception_4e/relu_1x1"
  type: "ReLU"
  bottom: "inception_4e/1x1"
  top: "inception_4e/1x1"
}
layer {
  name: "inception_4e/3x3_reduce"
  type: "Convolution"
  bottom: "inception_4d/output"
  top: "inception_4e/3x3_reduce"
  param {
    lr_mult: 1
    decay_mult: 1
  }
  param {
    lr_mult: 2
    decay_mult: 0
  }
  convolution_param {
    num_output: 160
    kernel_size: 1
    weight_filler {
      type: "xavier"
      std: 0.09
    }
    bias_filler {
      type: "constant"
      value: 0.2
    }
  }
}
layer {
  name: "inception_4e/relu_3x3_reduce"
  type: "ReLU"
  bottom: "inception_4e/3x3_reduce"
  top: "inception_4e/3x3_reduce"
}
layer {
  name: "inception_4e/3x3"
  type: "Convolution"
  bottom: "inception_4e/3x3_reduce"
  top: "inception_4e/3x3"
  param {
    lr_mult: 1
    decay_mult: 1
  }
  param {
    lr_mult: 2
    decay_mult: 0
  }
  convolution_param {
    num_output: 320
    pad: 1
    kernel_size: 3
    weight_filler {
      type: "xavier"
      std: 0.03
    }
    bias_filler {
      type: "constant"
      value: 0.2
    }
  }
}
layer {
  name: "inception_4e/relu_3x3"
  type: "ReLU"
  bottom: "inception_4e/3x3"
  top: "inception_4e/3x3"
}
layer {
  name: "inception_4e/5x5_reduce"
  type: "Convolution"
  bottom: "inception_4d/output"
  top: "inception_4e/5x5_reduce"
  param {
    lr_mult: 1
    decay_mult: 1
  }
  param {
    lr_mult: 2
    decay_mult: 0
  }
  convolution_param {
    num_output: 32
    kernel_size: 1
    weight_filler {
      type: "xavier"
      std: 0.2
    }
    bias_filler {
      type: "constant"
      value: 0.2
    }
  }
}
layer {
  name: "inception_4e/relu_5x5_reduce"
  type: "ReLU"
  bottom: "inception_4e/5x5_reduce"
  top: "inception_4e/5x5_reduce"
}
layer {
  name: "inception_4e/5x5"
  type: "Convolution"
  bottom: "inception_4e/5x5_reduce"
  top: "inception_4e/5x5"
  p
I0403 21:47:08.417785 12820 layer_factory.hpp:77] Creating layer data
I0403 21:47:08.418393 12820 net.cpp:91] Creating Layer data
I0403 21:47:08.418423 12820 net.cpp:399] data -> data
I0403 21:47:08.418475 12820 net.cpp:399] data -> label
I0403 21:47:08.418512 12820 data_transformer.cpp:25] Loading mean file from: /home/mohanty/data/final_dataset/lmdb/color-80-20/mean.binaryproto
I0403 21:47:08.419852 12822 db_lmdb.cpp:38] Opened lmdb /home/mohanty/data/final_dataset/lmdb/color-80-20/test_db
I0403 21:47:08.432600 12820 data_layer.cpp:41] output data size: 24,3,224,224
I0403 21:47:08.461416 12820 net.cpp:141] Setting up data
I0403 21:47:08.461518 12820 net.cpp:148] Top shape: 24 3 224 224 (3612672)
I0403 21:47:08.461539 12820 net.cpp:148] Top shape: 24 (24)
I0403 21:47:08.461554 12820 net.cpp:156] Memory required for data: 14450784
I0403 21:47:08.461580 12820 layer_factory.hpp:77] Creating layer label_data_1_split
I0403 21:47:08.461606 12820 net.cpp:91] Creating Layer label_data_1_split
I0403 21:47:08.461624 12820 net.cpp:425] label_data_1_split <- label
I0403 21:47:08.461655 12820 net.cpp:399] label_data_1_split -> label_data_1_split_0
I0403 21:47:08.461683 12820 net.cpp:399] label_data_1_split -> label_data_1_split_1
I0403 21:47:08.461702 12820 net.cpp:399] label_data_1_split -> label_data_1_split_2
I0403 21:47:08.461722 12820 net.cpp:399] label_data_1_split -> label_data_1_split_3
I0403 21:47:08.461741 12820 net.cpp:399] label_data_1_split -> label_data_1_split_4
I0403 21:47:08.461760 12820 net.cpp:399] label_data_1_split -> label_data_1_split_5
I0403 21:47:08.461779 12820 net.cpp:399] label_data_1_split -> label_data_1_split_6
I0403 21:47:08.461798 12820 net.cpp:399] label_data_1_split -> label_data_1_split_7
I0403 21:47:08.461817 12820 net.cpp:399] label_data_1_split -> label_data_1_split_8
I0403 21:47:08.461838 12820 net.cpp:399] label_data_1_split -> label_data_1_split_9
I0403 21:47:08.461952 12820 net.cpp:141] Setting up label_data_1_split
I0403 21:47:08.461976 12820 net.cpp:148] Top shape: 24 (24)
I0403 21:47:08.461993 12820 net.cpp:148] Top shape: 24 (24)
I0403 21:47:08.462009 12820 net.cpp:148] Top shape: 24 (24)
I0403 21:47:08.462024 12820 net.cpp:148] Top shape: 24 (24)
I0403 21:47:08.462039 12820 net.cpp:148] Top shape: 24 (24)
I0403 21:47:08.462054 12820 net.cpp:148] Top shape: 24 (24)
I0403 21:47:08.462070 12820 net.cpp:148] Top shape: 24 (24)
I0403 21:47:08.462085 12820 net.cpp:148] Top shape: 24 (24)
I0403 21:47:08.462100 12820 net.cpp:148] Top shape: 24 (24)
I0403 21:47:08.462118 12820 net.cpp:148] Top shape: 24 (24)
I0403 21:47:08.462163 12820 net.cpp:156] Memory required for data: 14451744
I0403 21:47:08.462179 12820 layer_factory.hpp:77] Creating layer conv1/7x7_s2
I0403 21:47:08.462224 12820 net.cpp:91] Creating Layer conv1/7x7_s2
I0403 21:47:08.462244 12820 net.cpp:425] conv1/7x7_s2 <- data
I0403 21:47:08.462265 12820 net.cpp:399] conv1/7x7_s2 -> conv1/7x7_s2
I0403 21:47:08.608764 12820 net.cpp:141] Setting up conv1/7x7_s2
I0403 21:47:08.608875 12820 net.cpp:148] Top shape: 24 64 112 112 (19267584)
I0403 21:47:08.608892 12820 net.cpp:156] Memory required for data: 91522080
I0403 21:47:08.608923 12820 layer_factory.hpp:77] Creating layer conv1/relu_7x7
I0403 21:47:08.608952 12820 net.cpp:91] Creating Layer conv1/relu_7x7
I0403 21:47:08.608970 12820 net.cpp:425] conv1/relu_7x7 <- conv1/7x7_s2
I0403 21:47:08.608989 12820 net.cpp:386] conv1/relu_7x7 -> conv1/7x7_s2 (in-place)
I0403 21:47:08.609242 12820 net.cpp:141] Setting up conv1/relu_7x7
I0403 21:47:08.609269 12820 net.cpp:148] Top shape: 24 64 112 112 (19267584)
I0403 21:47:08.609285 12820 net.cpp:156] Memory required for data: 168592416
I0403 21:47:08.609300 12820 layer_factory.hpp:77] Creating layer pool1/3x3_s2
I0403 21:47:08.609324 12820 net.cpp:91] Creating Layer pool1/3x3_s2
I0403 21:47:08.609343 12820 net.cpp:425] pool1/3x3_s2 <- conv1/7x7_s2
I0403 21:47:08.609360 12820 net.cpp:399] pool1/3x3_s2 -> pool1/3x3_s2
I0403 21:47:08.609488 12820 net.cpp:141] Setting up pool1/3x3_s2
I0403 21:47:08.609513 12820 net.cpp:148] Top shape: 24 64 56 56 (4816896)
I0403 21:47:08.609529 12820 net.cpp:156] Memory required for data: 187860000
I0403 21:47:08.609544 12820 layer_factory.hpp:77] Creating layer pool1/norm1
I0403 21:47:08.609568 12820 net.cpp:91] Creating Layer pool1/norm1
I0403 21:47:08.609588 12820 net.cpp:425] pool1/norm1 <- pool1/3x3_s2
I0403 21:47:08.609606 12820 net.cpp:399] pool1/norm1 -> pool1/norm1
I0403 21:47:08.609887 12820 net.cpp:141] Setting up pool1/norm1
I0403 21:47:08.609915 12820 net.cpp:148] Top shape: 24 64 56 56 (4816896)
I0403 21:47:08.609931 12820 net.cpp:156] Memory required for data: 207127584
I0403 21:47:08.609946 12820 layer_factory.hpp:77] Creating layer conv2/3x3_reduce
I0403 21:47:08.609972 12820 net.cpp:91] Creating Layer conv2/3x3_reduce
I0403 21:47:08.609987 12820 net.cpp:425] conv2/3x3_reduce <- pool1/norm1
I0403 21:47:08.610007 12820 net.cpp:399] conv2/3x3_reduce -> conv2/3x3_reduce
I0403 21:47:08.611332 12820 net.cpp:141] Setting up conv2/3x3_reduce
I0403 21:47:08.611361 12820 net.cpp:148] Top shape: 24 64 56 56 (4816896)
I0403 21:47:08.611377 12820 net.cpp:156] Memory required for data: 226395168
I0403 21:47:08.611397 12820 layer_factory.hpp:77] Creating layer conv2/relu_3x3_reduce
I0403 21:47:08.611415 12820 net.cpp:91] Creating Layer conv2/relu_3x3_reduce
I0403 21:47:08.611430 12820 net.cpp:425] conv2/relu_3x3_reduce <- conv2/3x3_reduce
I0403 21:47:08.611448 12820 net.cpp:386] conv2/relu_3x3_reduce -> conv2/3x3_reduce (in-place)
I0403 21:47:08.611690 12820 net.cpp:141] Setting up conv2/relu_3x3_reduce
I0403 21:47:08.611717 12820 net.cpp:148] Top shape: 24 64 56 56 (4816896)
I0403 21:47:08.611733 12820 net.cpp:156] Memory required for data: 245662752
I0403 21:47:08.611748 12820 layer_factory.hpp:77] Creating layer conv2/3x3
I0403 21:47:08.611771 12820 net.cpp:91] Creating Layer conv2/3x3
I0403 21:47:08.611788 12820 net.cpp:425] conv2/3x3 <- conv2/3x3_reduce
I0403 21:47:08.611806 12820 net.cpp:399] conv2/3x3 -> conv2/3x3
I0403 21:47:08.614027 12820 net.cpp:141] Setting up conv2/3x3
I0403 21:47:08.614058 12820 net.cpp:148] Top shape: 24 192 56 56 (14450688)
I0403 21:47:08.614075 12820 net.cpp:156] Memory required for data: 303465504
I0403 21:47:08.614096 12820 layer_factory.hpp:77] Creating layer conv2/relu_3x3
I0403 21:47:08.614115 12820 net.cpp:91] Creating Layer conv2/relu_3x3
I0403 21:47:08.614132 12820 net.cpp:425] conv2/relu_3x3 <- conv2/3x3
I0403 21:47:08.614151 12820 net.cpp:386] conv2/relu_3x3 -> conv2/3x3 (in-place)
I0403 21:47:08.614331 12820 net.cpp:141] Setting up conv2/relu_3x3
I0403 21:47:08.614356 12820 net.cpp:148] Top shape: 24 192 56 56 (14450688)
I0403 21:47:08.614403 12820 net.cpp:156] Memory required for data: 361268256
I0403 21:47:08.614419 12820 layer_factory.hpp:77] Creating layer conv2/norm2
I0403 21:47:08.614441 12820 net.cpp:91] Creating Layer conv2/norm2
I0403 21:47:08.614459 12820 net.cpp:425] conv2/norm2 <- conv2/3x3
I0403 21:47:08.614476 12820 net.cpp:399] conv2/norm2 -> conv2/norm2
I0403 21:47:08.614779 12820 net.cpp:141] Setting up conv2/norm2
I0403 21:47:08.614806 12820 net.cpp:148] Top shape: 24 192 56 56 (14450688)
I0403 21:47:08.614822 12820 net.cpp:156] Memory required for data: 419071008
I0403 21:47:08.614837 12820 layer_factory.hpp:77] Creating layer pool2/3x3_s2
I0403 21:47:08.614857 12820 net.cpp:91] Creating Layer pool2/3x3_s2
I0403 21:47:08.614873 12820 net.cpp:425] pool2/3x3_s2 <- conv2/norm2
I0403 21:47:08.614892 12820 net.cpp:399] pool2/3x3_s2 -> pool2/3x3_s2
I0403 21:47:08.614945 12820 net.cpp:141] Setting up pool2/3x3_s2
I0403 21:47:08.614969 12820 net.cpp:148] Top shape: 24 192 28 28 (3612672)
I0403 21:47:08.614982 12820 net.cpp:156] Memory required for data: 433521696
I0403 21:47:08.614997 12820 layer_factory.hpp:77] Creating layer pool2/3x3_s2_pool2/3x3_s2_0_split
I0403 21:47:08.615015 12820 net.cpp:91] Creating Layer pool2/3x3_s2_pool2/3x3_s2_0_split
I0403 21:47:08.615031 12820 net.cpp:425] pool2/3x3_s2_pool2/3x3_s2_0_split <- pool2/3x3_s2
I0403 21:47:08.615051 12820 net.cpp:399] pool2/3x3_s2_pool2/3x3_s2_0_split -> pool2/3x3_s2_pool2/3x3_s2_0_split_0
I0403 21:47:08.615072 12820 net.cpp:399] pool2/3x3_s2_pool2/3x3_s2_0_split -> pool2/3x3_s2_pool2/3x3_s2_0_split_1
I0403 21:47:08.615093 12820 net.cpp:399] pool2/3x3_s2_pool2/3x3_s2_0_split -> pool2/3x3_s2_pool2/3x3_s2_0_split_2
I0403 21:47:08.615113 12820 net.cpp:399] pool2/3x3_s2_pool2/3x3_s2_0_split -> pool2/3x3_s2_pool2/3x3_s2_0_split_3
I0403 21:47:08.615201 12820 net.cpp:141] Setting up pool2/3x3_s2_pool2/3x3_s2_0_split
I0403 21:47:08.615247 12820 net.cpp:148] Top shape: 24 192 28 28 (3612672)
I0403 21:47:08.615267 12820 net.cpp:148] Top shape: 24 192 28 28 (3612672)
I0403 21:47:08.615284 12820 net.cpp:148] Top shape: 24 192 28 28 (3612672)
I0403 21:47:08.615301 12820 net.cpp:148] Top shape: 24 192 28 28 (3612672)
I0403 21:47:08.615316 12820 net.cpp:156] Memory required for data: 491324448
I0403 21:47:08.615331 12820 layer_factory.hpp:77] Creating layer inception_3a/1x1
I0403 21:47:08.615356 12820 net.cpp:91] Creating Layer inception_3a/1x1
I0403 21:47:08.615375 12820 net.cpp:425] inception_3a/1x1 <- pool2/3x3_s2_pool2/3x3_s2_0_split_0
I0403 21:47:08.615396 12820 net.cpp:399] inception_3a/1x1 -> inception_3a/1x1
I0403 21:47:08.617002 12820 net.cpp:141] Setting up inception_3a/1x1
I0403 21:47:08.617033 12820 net.cpp:148] Top shape: 24 64 28 28 (1204224)
I0403 21:47:08.617049 12820 net.cpp:156] Memory required for data: 496141344
I0403 21:47:08.617069 12820 layer_factory.hpp:77] Creating layer inception_3a/relu_1x1
I0403 21:47:08.617091 12820 net.cpp:91] Creating Layer inception_3a/relu_1x1
I0403 21:47:08.617108 12820 net.cpp:425] inception_3a/relu_1x1 <- inception_3a/1x1
I0403 21:47:08.617126 12820 net.cpp:386] inception_3a/relu_1x1 -> inception_3a/1x1 (in-place)
I0403 21:47:08.617311 12820 net.cpp:141] Setting up inception_3a/relu_1x1
I0403 21:47:08.617339 12820 net.cpp:148] Top shape: 24 64 28 28 (1204224)
I0403 21:47:08.617355 12820 net.cpp:156] Memory required for data: 500958240
I0403 21:47:08.617372 12820 layer_factory.hpp:77] Creating layer inception_3a/3x3_reduce
I0403 21:47:08.617394 12820 net.cpp:91] Creating Layer inception_3a/3x3_reduce
I0403 21:47:08.617413 12820 net.cpp:425] inception_3a/3x3_reduce <- pool2/3x3_s2_pool2/3x3_s2_0_split_1
I0403 21:47:08.617435 12820 net.cpp:399] inception_3a/3x3_reduce -> inception_3a/3x3_reduce
I0403 21:47:08.619164 12820 net.cpp:141] Setting up inception_3a/3x3_reduce
I0403 21:47:08.619194 12820 net.cpp:148] Top shape: 24 96 28 28 (1806336)
I0403 21:47:08.619220 12820 net.cpp:156] Memory required for data: 508183584
I0403 21:47:08.619243 12820 layer_factory.hpp:77] Creating layer inception_3a/relu_3x3_reduce
I0403 21:47:08.619282 12820 net.cpp:91] Creating Layer inception_3a/relu_3x3_reduce
I0403 21:47:08.619299 12820 net.cpp:425] inception_3a/relu_3x3_reduce <- inception_3a/3x3_reduce
I0403 21:47:08.619320 12820 net.cpp:386] inception_3a/relu_3x3_reduce -> inception_3a/3x3_reduce (in-place)
I0403 21:47:08.619503 12820 net.cpp:141] Setting up inception_3a/relu_3x3_reduce
I0403 21:47:08.619530 12820 net.cpp:148] Top shape: 24 96 28 28 (1806336)
I0403 21:47:08.619545 12820 net.cpp:156] Memory required for data: 515408928
I0403 21:47:08.619560 12820 layer_factory.hpp:77] Creating layer inception_3a/3x3
I0403 21:47:08.619583 12820 net.cpp:91] Creating Layer inception_3a/3x3
I0403 21:47:08.619601 12820 net.cpp:425] inception_3a/3x3 <- inception_3a/3x3_reduce
I0403 21:47:08.619626 12820 net.cpp:399] inception_3a/3x3 -> inception_3a/3x3
I0403 21:47:08.621315 12820 net.cpp:141] Setting up inception_3a/3x3
I0403 21:47:08.621347 12820 net.cpp:148] Top shape: 24 128 28 28 (2408448)
I0403 21:47:08.621366 12820 net.cpp:156] Memory required for data: 525042720
I0403 21:47:08.621383 12820 layer_factory.hpp:77] Creating layer inception_3a/relu_3x3
I0403 21:47:08.621403 12820 net.cpp:91] Creating Layer inception_3a/relu_3x3
I0403 21:47:08.621419 12820 net.cpp:425] inception_3a/relu_3x3 <- inception_3a/3x3
I0403 21:47:08.621440 12820 net.cpp:386] inception_3a/relu_3x3 -> inception_3a/3x3 (in-place)
I0403 21:47:08.621716 12820 net.cpp:141] Setting up inception_3a/relu_3x3
I0403 21:47:08.621747 12820 net.cpp:148] Top shape: 24 128 28 28 (2408448)
I0403 21:47:08.621763 12820 net.cpp:156] Memory required for data: 534676512
I0403 21:47:08.621778 12820 layer_factory.hpp:77] Creating layer inception_3a/5x5_reduce
I0403 21:47:08.621803 12820 net.cpp:91] Creating Layer inception_3a/5x5_reduce
I0403 21:47:08.621820 12820 net.cpp:425] inception_3a/5x5_reduce <- pool2/3x3_s2_pool2/3x3_s2_0_split_2
I0403 21:47:08.621841 12820 net.cpp:399] inception_3a/5x5_reduce -> inception_3a/5x5_reduce
I0403 21:47:08.622836 12820 net.cpp:141] Setting up inception_3a/5x5_reduce
I0403 21:47:08.622867 12820 net.cpp:148] Top shape: 24 16 28 28 (301056)
I0403 21:47:08.622884 12820 net.cpp:156] Memory required for data: 535880736
I0403 21:47:08.622903 12820 layer_factory.hpp:77] Creating layer inception_3a/relu_5x5_reduce
I0403 21:47:08.622922 12820 net.cpp:91] Creating Layer inception_3a/relu_5x5_reduce
I0403 21:47:08.622939 12820 net.cpp:425] inception_3a/relu_5x5_reduce <- inception_3a/5x5_reduce
I0403 21:47:08.622962 12820 net.cpp:386] inception_3a/relu_5x5_reduce -> inception_3a/5x5_reduce (in-place)
I0403 21:47:08.623250 12820 net.cpp:141] Setting up inception_3a/relu_5x5_reduce
I0403 21:47:08.623276 12820 net.cpp:148] Top shape: 24 16 28 28 (301056)
I0403 21:47:08.623293 12820 net.cpp:156] Memory required for data: 537084960
I0403 21:47:08.623309 12820 layer_factory.hpp:77] Creating layer inception_3a/5x5
I0403 21:47:08.623333 12820 net.cpp:91] Creating Layer inception_3a/5x5
I0403 21:47:08.623352 12820 net.cpp:425] inception_3a/5x5 <- inception_3a/5x5_reduce
I0403 21:47:08.623374 12820 net.cpp:399] inception_3a/5x5 -> inception_3a/5x5
I0403 21:47:08.624405 12820 net.cpp:141] Setting up inception_3a/5x5
I0403 21:47:08.624433 12820 net.cpp:148] Top shape: 24 32 28 28 (602112)
I0403 21:47:08.624449 12820 net.cpp:156] Memory required for data: 539493408
I0403 21:47:08.624469 12820 layer_factory.hpp:77] Creating layer inception_3a/relu_5x5
I0403 21:47:08.624492 12820 net.cpp:91] Creating Layer inception_3a/relu_5x5
I0403 21:47:08.624511 12820 net.cpp:425] inception_3a/relu_5x5 <- inception_3a/5x5
I0403 21:47:08.624528 12820 net.cpp:386] inception_3a/relu_5x5 -> inception_3a/5x5 (in-place)
I0403 21:47:08.624707 12820 net.cpp:141] Setting up inception_3a/relu_5x5
I0403 21:47:08.624733 12820 net.cpp:148] Top shape: 24 32 28 28 (602112)
I0403 21:47:08.624748 12820 net.cpp:156] Memory required for data: 541901856
I0403 21:47:08.624764 12820 layer_factory.hpp:77] Creating layer inception_3a/pool
I0403 21:47:08.624783 12820 net.cpp:91] Creating Layer inception_3a/pool
I0403 21:47:08.624799 12820 net.cpp:425] inception_3a/pool <- pool2/3x3_s2_pool2/3x3_s2_0_split_3
I0403 21:47:08.624835 12820 net.cpp:399] inception_3a/pool -> inception_3a/pool
I0403 21:47:08.624896 12820 net.cpp:141] Setting up inception_3a/pool
I0403 21:47:08.624920 12820 net.cpp:148] Top shape: 24 192 28 28 (3612672)
I0403 21:47:08.624936 12820 net.cpp:156] Memory required for data: 556352544
I0403 21:47:08.624951 12820 layer_factory.hpp:77] Creating layer inception_3a/pool_proj
I0403 21:47:08.624981 12820 net.cpp:91] Creating Layer inception_3a/pool_proj
I0403 21:47:08.625000 12820 net.cpp:425] inception_3a/pool_proj <- inception_3a/pool
I0403 21:47:08.625020 12820 net.cpp:399] inception_3a/pool_proj -> inception_3a/pool_proj
I0403 21:47:08.626003 12820 net.cpp:141] Setting up inception_3a/pool_proj
I0403 21:47:08.626032 12820 net.cpp:148] Top shape: 24 32 28 28 (602112)
I0403 21:47:08.626049 12820 net.cpp:156] Memory required for data: 558760992
I0403 21:47:08.626075 12820 layer_factory.hpp:77] Creating layer inception_3a/relu_pool_proj
I0403 21:47:08.626096 12820 net.cpp:91] Creating Layer inception_3a/relu_pool_proj
I0403 21:47:08.626112 12820 net.cpp:425] inception_3a/relu_pool_proj <- inception_3a/pool_proj
I0403 21:47:08.626133 12820 net.cpp:386] inception_3a/relu_pool_proj -> inception_3a/pool_proj (in-place)
I0403 21:47:08.626417 12820 net.cpp:141] Setting up inception_3a/relu_pool_proj
I0403 21:47:08.626447 12820 net.cpp:148] Top shape: 24 32 28 28 (602112)
I0403 21:47:08.626464 12820 net.cpp:156] Memory required for data: 561169440
I0403 21:47:08.626480 12820 layer_factory.hpp:77] Creating layer inception_3a/output
I0403 21:47:08.626497 12820 net.cpp:91] Creating Layer inception_3a/output
I0403 21:47:08.626514 12820 net.cpp:425] inception_3a/output <- inception_3a/1x1
I0403 21:47:08.626531 12820 net.cpp:425] inception_3a/output <- inception_3a/3x3
I0403 21:47:08.626548 12820 net.cpp:425] inception_3a/output <- inception_3a/5x5
I0403 21:47:08.626564 12820 net.cpp:425] inception_3a/output <- inception_3a/pool_proj
I0403 21:47:08.626581 12820 net.cpp:399] inception_3a/output -> inception_3a/output
I0403 21:47:08.626631 12820 net.cpp:141] Setting up inception_3a/output
I0403 21:47:08.626654 12820 net.cpp:148] Top shape: 24 256 28 28 (4816896)
I0403 21:47:08.626669 12820 net.cpp:156] Memory required for data: 580437024
I0403 21:47:08.626685 12820 layer_factory.hpp:77] Creating layer inception_3a/output_inception_3a/output_0_split
I0403 21:47:08.626703 12820 net.cpp:91] Creating Layer inception_3a/output_inception_3a/output_0_split
I0403 21:47:08.626719 12820 net.cpp:425] inception_3a/output_inception_3a/output_0_split <- inception_3a/output
I0403 21:47:08.626739 12820 net.cpp:399] inception_3a/output_inception_3a/output_0_split -> inception_3a/output_inception_3a/output_0_split_0
I0403 21:47:08.626760 12820 net.cpp:399] inception_3a/output_inception_3a/output_0_split -> inception_3a/output_inception_3a/output_0_split_1
I0403 21:47:08.626786 12820 net.cpp:399] inception_3a/output_inception_3a/output_0_split -> inception_3a/output_inception_3a/output_0_split_2
I0403 21:47:08.626809 12820 net.cpp:399] inception_3a/output_inception_3a/output_0_split -> inception_3a/output_inception_3a/output_0_split_3
I0403 21:47:08.626884 12820 net.cpp:141] Setting up inception_3a/output_inception_3a/output_0_split
I0403 21:47:08.626909 12820 net.cpp:148] Top shape: 24 256 28 28 (4816896)
I0403 21:47:08.626927 12820 net.cpp:148] Top shape: 24 256 28 28 (4816896)
I0403 21:47:08.626945 12820 net.cpp:148] Top shape: 24 256 28 28 (4816896)
I0403 21:47:08.626961 12820 net.cpp:148] Top shape: 24 256 28 28 (4816896)
I0403 21:47:08.626976 12820 net.cpp:156] Memory required for data: 657507360
I0403 21:47:08.626991 12820 layer_factory.hpp:77] Creating layer inception_3b/1x1
I0403 21:47:08.627012 12820 net.cpp:91] Creating Layer inception_3b/1x1
I0403 21:47:08.627029 12820 net.cpp:425] inception_3b/1x1 <- inception_3a/output_inception_3a/output_0_split_0
I0403 21:47:08.627051 12820 net.cpp:399] inception_3b/1x1 -> inception_3b/1x1
I0403 21:47:08.628213 12820 net.cpp:141] Setting up inception_3b/1x1
I0403 21:47:08.628254 12820 net.cpp:148] Top shape: 24 128 28 28 (2408448)
I0403 21:47:08.628273 12820 net.cpp:156] Memory required for data: 667141152
I0403 21:47:08.628293 12820 layer_factory.hpp:77] Creating layer inception_3b/relu_1x1
I0403 21:47:08.628314 12820 net.cpp:91] Creating Layer inception_3b/relu_1x1
I0403 21:47:08.628331 12820 net.cpp:425] inception_3b/relu_1x1 <- inception_3b/1x1
I0403 21:47:08.628350 12820 net.cpp:386] inception_3b/relu_1x1 -> inception_3b/1x1 (in-place)
I0403 21:47:08.628533 12820 net.cpp:141] Setting up inception_3b/relu_1x1
I0403 21:47:08.628562 12820 net.cpp:148] Top shape: 24 128 28 28 (2408448)
I0403 21:47:08.628579 12820 net.cpp:156] Memory required for data: 676774944
I0403 21:47:08.628594 12820 layer_factory.hpp:77] Creating layer inception_3b/3x3_reduce
I0403 21:47:08.628618 12820 net.cpp:91] Creating Layer inception_3b/3x3_reduce
I0403 21:47:08.628638 12820 net.cpp:425] inception_3b/3x3_reduce <- inception_3a/output_inception_3a/output_0_split_1
I0403 21:47:08.628656 12820 net.cpp:399] inception_3b/3x3_reduce -> inception_3b/3x3_reduce
I0403 21:47:08.629817 12820 net.cpp:141] Setting up inception_3b/3x3_reduce
I0403 21:47:08.629845 12820 net.cpp:148] Top shape: 24 128 28 28 (2408448)
I0403 21:47:08.629861 12820 net.cpp:156] Memory required for data: 686408736
I0403 21:47:08.629880 12820 layer_factory.hpp:77] Creating layer inception_3b/relu_3x3_reduce
I0403 21:47:08.629904 12820 net.cpp:91] Creating Layer inception_3b/relu_3x3_reduce
I0403 21:47:08.629920 12820 net.cpp:425] inception_3b/relu_3x3_reduce <- inception_3b/3x3_reduce
I0403 21:47:08.629938 12820 net.cpp:386] inception_3b/relu_3x3_reduce -> inception_3b/3x3_reduce (in-place)
I0403 21:47:08.630115 12820 net.cpp:141] Setting up inception_3b/relu_3x3_reduce
I0403 21:47:08.630143 12820 net.cpp:148] Top shape: 24 128 28 28 (2408448)
I0403 21:47:08.630161 12820 net.cpp:156] Memory required for data: 696042528
I0403 21:47:08.630177 12820 layer_factory.hpp:77] Creating layer inception_3b/3x3
I0403 21:47:08.630201 12820 net.cpp:91] Creating Layer inception_3b/3x3
I0403 21:47:08.630225 12820 net.cpp:425] inception_3b/3x3 <- inception_3b/3x3_reduce
I0403 21:47:08.630249 12820 net.cpp:399] inception_3b/3x3 -> inception_3b/3x3
I0403 21:47:08.633268 12820 net.cpp:141] Setting up inception_3b/3x3
I0403 21:47:08.633301 12820 net.cpp:148] Top shape: 24 192 28 28 (3612672)
I0403 21:47:08.633318 12820 net.cpp:156] Memory required for data: 710493216
I0403 21:47:08.633337 12820 layer_factory.hpp:77] Creating layer inception_3b/relu_3x3
I0403 21:47:08.633357 12820 net.cpp:91] Creating Layer inception_3b/relu_3x3
I0403 21:47:08.633373 12820 net.cpp:425] inception_3b/relu_3x3 <- inception_3b/3x3
I0403 21:47:08.633394 12820 net.cpp:386] inception_3b/relu_3x3 -> inception_3b/3x3 (in-place)
I0403 21:47:08.633692 12820 net.cpp:141] Setting up inception_3b/relu_3x3
I0403 21:47:08.633721 12820 net.cpp:148] Top shape: 24 192 28 28 (3612672)
I0403 21:47:08.633738 12820 net.cpp:156] Memory required for data: 724943904
I0403 21:47:08.633754 12820 layer_factory.hpp:77] Creating layer inception_3b/5x5_reduce
I0403 21:47:08.633776 12820 net.cpp:91] Creating Layer inception_3b/5x5_reduce
I0403 21:47:08.633796 12820 net.cpp:425] inception_3b/5x5_reduce <- inception_3a/output_inception_3a/output_0_split_2
I0403 21:47:08.633816 12820 net.cpp:399] inception_3b/5x5_reduce -> inception_3b/5x5_reduce
I0403 21:47:08.634783 12820 net.cpp:141] Setting up inception_3b/5x5_reduce
I0403 21:47:08.634810 12820 net.cpp:148] Top shape: 24 32 28 28 (602112)
I0403 21:47:08.634825 12820 net.cpp:156] Memory required for data: 727352352
I0403 21:47:08.634843 12820 layer_factory.hpp:77] Creating layer inception_3b/relu_5x5_reduce
I0403 21:47:08.634863 12820 net.cpp:91] Creating Layer inception_3b/relu_5x5_reduce
I0403 21:47:08.634881 12820 net.cpp:425] inception_3b/relu_5x5_reduce <- inception_3b/5x5_reduce
I0403 21:47:08.634897 12820 net.cpp:386] inception_3b/relu_5x5_reduce -> inception_3b/5x5_reduce (in-place)
I0403 21:47:08.635067 12820 net.cpp:141] Setting up inception_3b/relu_5x5_reduce
I0403 21:47:08.635104 12820 net.cpp:148] Top shape: 24 32 28 28 (602112)
I0403 21:47:08.635119 12820 net.cpp:156] Memory required for data: 729760800
I0403 21:47:08.635134 12820 layer_factory.hpp:77] Creating layer inception_3b/5x5
I0403 21:47:08.635155 12820 net.cpp:91] Creating Layer inception_3b/5x5
I0403 21:47:08.635174 12820 net.cpp:425] inception_3b/5x5 <- inception_3b/5x5_reduce
I0403 21:47:08.635195 12820 net.cpp:399] inception_3b/5x5 -> inception_3b/5x5
I0403 21:47:08.637132 12820 net.cpp:141] Setting up inception_3b/5x5
I0403 21:47:08.637161 12820 net.cpp:148] Top shape: 24 96 28 28 (1806336)
I0403 21:47:08.637176 12820 net.cpp:156] Memory required for data: 736986144
I0403 21:47:08.637194 12820 layer_factory.hpp:77] Creating layer inception_3b/relu_5x5
I0403 21:47:08.637219 12820 net.cpp:91] Creating Layer inception_3b/relu_5x5
I0403 21:47:08.637238 12820 net.cpp:425] inception_3b/relu_5x5 <- inception_3b/5x5
I0403 21:47:08.637255 12820 net.cpp:386] inception_3b/relu_5x5 -> inception_3b/5x5 (in-place)
I0403 21:47:08.637441 12820 net.cpp:141] Setting up inception_3b/relu_5x5
I0403 21:47:08.637465 12820 net.cpp:148] Top shape: 24 96 28 28 (1806336)
I0403 21:47:08.637481 12820 net.cpp:156] Memory required for data: 744211488
I0403 21:47:08.637495 12820 layer_factory.hpp:77] Creating layer inception_3b/pool
I0403 21:47:08.637514 12820 net.cpp:91] Creating Layer inception_3b/pool
I0403 21:47:08.637531 12820 net.cpp:425] inception_3b/pool <- inception_3a/output_inception_3a/output_0_split_3
I0403 21:47:08.637547 12820 net.cpp:399] inception_3b/pool -> inception_3b/pool
I0403 21:47:08.637600 12820 net.cpp:141] Setting up inception_3b/pool
I0403 21:47:08.637624 12820 net.cpp:148] Top shape: 24 256 28 28 (4816896)
I0403 21:47:08.637639 12820 net.cpp:156] Memory required for data: 763479072
I0403 21:47:08.637655 12820 layer_factory.hpp:77] Creating layer inception_3b/pool_proj
I0403 21:47:08.637676 12820 net.cpp:91] Creating Layer inception_3b/pool_proj
I0403 21:47:08.637694 12820 net.cpp:425] inception_3b/pool_proj <- inception_3b/pool
I0403 21:47:08.637714 12820 net.cpp:399] inception_3b/pool_proj -> inception_3b/pool_proj
I0403 21:47:08.638766 12820 net.cpp:141] Setting up inception_3b/pool_proj
I0403 21:47:08.638792 12820 net.cpp:148] Top shape: 24 64 28 28 (1204224)
I0403 21:47:08.638808 12820 net.cpp:156] Memory required for data: 768295968
I0403 21:47:08.638826 12820 layer_factory.hpp:77] Creating layer inception_3b/relu_pool_proj
I0403 21:47:08.638844 12820 net.cpp:91] Creating Layer inception_3b/relu_pool_proj
I0403 21:47:08.638859 12820 net.cpp:425] inception_3b/relu_pool_proj <- inception_3b/pool_proj
I0403 21:47:08.638878 12820 net.cpp:386] inception_3b/relu_pool_proj -> inception_3b/pool_proj (in-place)
I0403 21:47:08.639251 12820 net.cpp:141] Setting up inception_3b/relu_pool_proj
I0403 21:47:08.639281 12820 net.cpp:148] Top shape: 24 64 28 28 (1204224)
I0403 21:47:08.639297 12820 net.cpp:156] Memory required for data: 773112864
I0403 21:47:08.639312 12820 layer_factory.hpp:77] Creating layer inception_3b/output
I0403 21:47:08.639328 12820 net.cpp:91] Creating Layer inception_3b/output
I0403 21:47:08.639343 12820 net.cpp:425] inception_3b/output <- inception_3b/1x1
I0403 21:47:08.639359 12820 net.cpp:425] inception_3b/output <- inception_3b/3x3
I0403 21:47:08.639375 12820 net.cpp:425] inception_3b/output <- inception_3b/5x5
I0403 21:47:08.639390 12820 net.cpp:425] inception_3b/output <- inception_3b/pool_proj
I0403 21:47:08.639410 12820 net.cpp:399] inception_3b/output -> inception_3b/output
I0403 21:47:08.639452 12820 net.cpp:141] Setting up inception_3b/output
I0403 21:47:08.639473 12820 net.cpp:148] Top shape: 24 480 28 28 (9031680)
I0403 21:47:08.639488 12820 net.cpp:156] Memory required for data: 809239584
I0403 21:47:08.639503 12820 layer_factory.hpp:77] Creating layer pool3/3x3_s2
I0403 21:47:08.639523 12820 net.cpp:91] Creating Layer pool3/3x3_s2
I0403 21:47:08.639538 12820 net.cpp:425] pool3/3x3_s2 <- inception_3b/output
I0403 21:47:08.639555 12820 net.cpp:399] pool3/3x3_s2 -> pool3/3x3_s2
I0403 21:47:08.639628 12820 net.cpp:141] Setting up pool3/3x3_s2
I0403 21:47:08.639652 12820 net.cpp:148] Top shape: 24 480 14 14 (2257920)
I0403 21:47:08.639667 12820 net.cpp:156] Memory required for data: 818271264
I0403 21:47:08.639680 12820 layer_factory.hpp:77] Creating layer pool3/3x3_s2_pool3/3x3_s2_0_split
I0403 21:47:08.639698 12820 net.cpp:91] Creating Layer pool3/3x3_s2_pool3/3x3_s2_0_split
I0403 21:47:08.639715 12820 net.cpp:425] pool3/3x3_s2_pool3/3x3_s2_0_split <- pool3/3x3_s2
I0403 21:47:08.639731 12820 net.cpp:399] pool3/3x3_s2_pool3/3x3_s2_0_split -> pool3/3x3_s2_pool3/3x3_s2_0_split_0
I0403 21:47:08.639750 12820 net.cpp:399] pool3/3x3_s2_pool3/3x3_s2_0_split -> pool3/3x3_s2_pool3/3x3_s2_0_split_1
I0403 21:47:08.639770 12820 net.cpp:399] pool3/3x3_s2_pool3/3x3_s2_0_split -> pool3/3x3_s2_pool3/3x3_s2_0_split_2
I0403 21:47:08.639787 12820 net.cpp:399] pool3/3x3_s2_pool3/3x3_s2_0_split -> pool3/3x3_s2_pool3/3x3_s2_0_split_3
I0403 21:47:08.639863 12820 net.cpp:141] Setting up pool3/3x3_s2_pool3/3x3_s2_0_split
I0403 21:47:08.639883 12820 net.cpp:148] Top shape: 24 480 14 14 (2257920)
I0403 21:47:08.639899 12820 net.cpp:148] Top shape: 24 480 14 14 (2257920)
I0403 21:47:08.639915 12820 net.cpp:148] Top shape: 24 480 14 14 (2257920)
I0403 21:47:08.639931 12820 net.cpp:148] Top shape: 24 480 14 14 (2257920)
I0403 21:47:08.639945 12820 net.cpp:156] Memory required for data: 854397984
I0403 21:47:08.639961 12820 layer_factory.hpp:77] Creating layer inception_4a/1x1
I0403 21:47:08.639981 12820 net.cpp:91] Creating Layer inception_4a/1x1
I0403 21:47:08.639998 12820 net.cpp:425] inception_4a/1x1 <- pool3/3x3_s2_pool3/3x3_s2_0_split_0
I0403 21:47:08.640018 12820 net.cpp:399] inception_4a/1x1 -> inception_4a/1x1
I0403 21:47:08.641526 12820 net.cpp:141] Setting up inception_4a/1x1
I0403 21:47:08.641553 12820 net.cpp:148] Top shape: 24 192 14 14 (903168)
I0403 21:47:08.641568 12820 net.cpp:156] Memory required for data: 858010656
I0403 21:47:08.641587 12820 layer_factory.hpp:77] Creating layer inception_4a/relu_1x1
I0403 21:47:08.641604 12820 net.cpp:91] Creating Layer inception_4a/relu_1x1
I0403 21:47:08.641619 12820 net.cpp:425] inception_4a/relu_1x1 <- inception_4a/1x1
I0403 21:47:08.641638 12820 net.cpp:386] inception_4a/relu_1x1 -> inception_4a/1x1 (in-place)
I0403 21:47:08.641808 12820 net.cpp:141] Setting up inception_4a/relu_1x1
I0403 21:47:08.641832 12820 net.cpp:148] Top shape: 24 192 14 14 (903168)
I0403 21:47:08.641847 12820 net.cpp:156] Memory required for data: 861623328
I0403 21:47:08.641862 12820 layer_factory.hpp:77] Creating layer inception_4a/3x3_reduce
I0403 21:47:08.641883 12820 net.cpp:91] Creating Layer inception_4a/3x3_reduce
I0403 21:47:08.641902 12820 net.cpp:425] inception_4a/3x3_reduce <- pool3/3x3_s2_pool3/3x3_s2_0_split_1
I0403 21:47:08.641923 12820 net.cpp:399] inception_4a/3x3_reduce -> inception_4a/3x3_reduce
I0403 21:47:08.643144 12820 net.cpp:141] Setting up inception_4a/3x3_reduce
I0403 21:47:08.643172 12820 net.cpp:148] Top shape: 24 96 14 14 (451584)
I0403 21:47:08.643187 12820 net.cpp:156] Memory required for data: 863429664
I0403 21:47:08.643214 12820 layer_factory.hpp:77] Creating layer inception_4a/relu_3x3_reduce
I0403 21:47:08.643235 12820 net.cpp:91] Creating Layer inception_4a/relu_3x3_reduce
I0403 21:47:08.643250 12820 net.cpp:425] inception_4a/relu_3x3_reduce <- inception_4a/3x3_reduce
I0403 21:47:08.643270 12820 net.cpp:386] inception_4a/relu_3x3_reduce -> inception_4a/3x3_reduce (in-place)
I0403 21:47:08.643443 12820 net.cpp:141] Setting up inception_4a/relu_3x3_reduce
I0403 21:47:08.643467 12820 net.cpp:148] Top shape: 24 96 14 14 (451584)
I0403 21:47:08.643481 12820 net.cpp:156] Memory required for data: 865236000
I0403 21:47:08.643496 12820 layer_factory.hpp:77] Creating layer inception_4a/3x3
I0403 21:47:08.643518 12820 net.cpp:91] Creating Layer inception_4a/3x3
I0403 21:47:08.643535 12820 net.cpp:425] inception_4a/3x3 <- inception_4a/3x3_reduce
I0403 21:47:08.643555 12820 net.cpp:399] inception_4a/3x3 -> inception_4a/3x3
I0403 21:47:08.646173 12820 net.cpp:141] Setting up inception_4a/3x3
I0403 21:47:08.646200 12820 net.cpp:148] Top shape: 24 208 14 14 (978432)
I0403 21:47:08.646221 12820 net.cpp:156] Memory required for data: 869149728
I0403 21:47:08.646240 12820 layer_factory.hpp:77] Creating layer inception_4a/relu_3x3
I0403 21:47:08.646261 12820 net.cpp:91] Creating Layer inception_4a/relu_3x3
I0403 21:47:08.646278 12820 net.cpp:425] inception_4a/relu_3x3 <- inception_4a/3x3
I0403 21:47:08.646297 12820 net.cpp:386] inception_4a/relu_3x3 -> inception_4a/3x3 (in-place)
I0403 21:47:08.646567 12820 net.cpp:141] Setting up inception_4a/relu_3x3
I0403 21:47:08.646594 12820 net.cpp:148] Top shape: 24 208 14 14 (978432)
I0403 21:47:08.646608 12820 net.cpp:156] Memory required for data: 873063456
I0403 21:47:08.646623 12820 layer_factory.hpp:77] Creating layer inception_4a/5x5_reduce
I0403 21:47:08.646646 12820 net.cpp:91] Creating Layer inception_4a/5x5_reduce
I0403 21:47:08.646664 12820 net.cpp:425] inception_4a/5x5_reduce <- pool3/3x3_s2_pool3/3x3_s2_0_split_2
I0403 21:47:08.646685 12820 net.cpp:399] inception_4a/5x5_reduce -> inception_4a/5x5_reduce
I0403 21:47:08.647687 12820 net.cpp:141] Setting up inception_4a/5x5_reduce
I0403 21:47:08.647714 12820 net.cpp:148] Top shape: 24 16 14 14 (75264)
I0403 21:47:08.647730 12820 net.cpp:156] Memory required for data: 873364512
I0403 21:47:08.647749 12820 layer_factory.hpp:77] Creating layer inception_4a/relu_5x5_reduce
I0403 21:47:08.647770 12820 net.cpp:91] Creating Layer inception_4a/relu_5x5_reduce
I0403 21:47:08.647786 12820 net.cpp:425] inception_4a/relu_5x5_reduce <- inception_4a/5x5_reduce
I0403 21:47:08.647804 12820 net.cpp:386] inception_4a/relu_5x5_reduce -> inception_4a/5x5_reduce (in-place)
I0403 21:47:08.647979 12820 net.cpp:141] Setting up inception_4a/relu_5x5_reduce
I0403 21:47:08.648005 12820 net.cpp:148] Top shape: 24 16 14 14 (75264)
I0403 21:47:08.648017 12820 net.cpp:156] Memory required for data: 873665568
I0403 21:47:08.648033 12820 layer_factory.hpp:77] Creating layer inception_4a/5x5
I0403 21:47:08.648056 12820 net.cpp:91] Creating Layer inception_4a/5x5
I0403 21:47:08.648072 12820 net.cpp:425] inception_4a/5x5 <- inception_4a/5x5_reduce
I0403 21:47:08.648093 12820 net.cpp:399] inception_4a/5x5 -> inception_4a/5x5
I0403 21:47:08.649153 12820 net.cpp:141] Setting up inception_4a/5x5
I0403 21:47:08.649184 12820 net.cpp:148] Top shape: 24 48 14 14 (225792)
I0403 21:47:08.649200 12820 net.cpp:156] Memory required for data: 874568736
I0403 21:47:08.649238 12820 layer_factory.hpp:77] Creating layer inception_4a/relu_5x5
I0403 21:47:08.649260 12820 net.cpp:91] Creating Layer inception_4a/relu_5x5
I0403 21:47:08.649274 12820 net.cpp:425] inception_4a/relu_5x5 <- inception_4a/5x5
I0403 21:47:08.649296 12820 net.cpp:386] inception_4a/relu_5x5 -> inception_4a/5x5 (in-place)
I0403 21:47:08.649474 12820 net.cpp:141] Setting up inception_4a/relu_5x5
I0403 21:47:08.649499 12820 net.cpp:148] Top shape: 24 48 14 14 (225792)
I0403 21:47:08.649514 12820 net.cpp:156] Memory required for data: 875471904
I0403 21:47:08.649529 12820 layer_factory.hpp:77] Creating layer inception_4a/pool
I0403 21:47:08.649547 12820 net.cpp:91] Creating Layer inception_4a/pool
I0403 21:47:08.649564 12820 net.cpp:425] inception_4a/pool <- pool3/3x3_s2_pool3/3x3_s2_0_split_3
I0403 21:47:08.649583 12820 net.cpp:399] inception_4a/pool -> inception_4a/pool
I0403 21:47:08.649646 12820 net.cpp:141] Setting up inception_4a/pool
I0403 21:47:08.649672 12820 net.cpp:148] Top shape: 24 480 14 14 (2257920)
I0403 21:47:08.649687 12820 net.cpp:156] Memory required for data: 884503584
I0403 21:47:08.649700 12820 layer_factory.hpp:77] Creating layer inception_4a/pool_proj
I0403 21:47:08.649723 12820 net.cpp:91] Creating Layer inception_4a/pool_proj
I0403 21:47:08.649740 12820 net.cpp:425] inception_4a/pool_proj <- inception_4a/pool
I0403 21:47:08.649761 12820 net.cpp:399] inception_4a/pool_proj -> inception_4a/pool_proj
I0403 21:47:08.650926 12820 net.cpp:141] Setting up inception_4a/pool_proj
I0403 21:47:08.650957 12820 net.cpp:148] Top shape: 24 64 14 14 (301056)
I0403 21:47:08.650988 12820 net.cpp:156] Memory required for data: 885707808
I0403 21:47:08.651007 12820 layer_factory.hpp:77] Creating layer inception_4a/relu_pool_proj
I0403 21:47:08.651029 12820 net.cpp:91] Creating Layer inception_4a/relu_pool_proj
I0403 21:47:08.651046 12820 net.cpp:425] inception_4a/relu_pool_proj <- inception_4a/pool_proj
I0403 21:47:08.651064 12820 net.cpp:386] inception_4a/relu_pool_proj -> inception_4a/pool_proj (in-place)
I0403 21:47:08.651352 12820 net.cpp:141] Setting up inception_4a/relu_pool_proj
I0403 21:47:08.651378 12820 net.cpp:148] Top shape: 24 64 14 14 (301056)
I0403 21:47:08.651394 12820 net.cpp:156] Memory required for data: 886912032
I0403 21:47:08.651409 12820 layer_factory.hpp:77] Creating layer inception_4a/output
I0403 21:47:08.651428 12820 net.cpp:91] Creating Layer inception_4a/output
I0403 21:47:08.651444 12820 net.cpp:425] inception_4a/output <- inception_4a/1x1
I0403 21:47:08.651460 12820 net.cpp:425] inception_4a/output <- inception_4a/3x3
I0403 21:47:08.651478 12820 net.cpp:425] inception_4a/output <- inception_4a/5x5
I0403 21:47:08.651494 12820 net.cpp:425] inception_4a/output <- inception_4a/pool_proj
I0403 21:47:08.651515 12820 net.cpp:399] inception_4a/output -> inception_4a/output
I0403 21:47:08.651557 12820 net.cpp:141] Setting up inception_4a/output
I0403 21:47:08.651583 12820 net.cpp:148] Top shape: 24 512 14 14 (2408448)
I0403 21:47:08.651600 12820 net.cpp:156] Memory required for data: 896545824
I0403 21:47:08.651617 12820 layer_factory.hpp:77] Creating layer inception_4a/output_inception_4a/output_0_split
I0403 21:47:08.651633 12820 net.cpp:91] Creating Layer inception_4a/output_inception_4a/output_0_split
I0403 21:47:08.651648 12820 net.cpp:425] inception_4a/output_inception_4a/output_0_split <- inception_4a/output
I0403 21:47:08.651669 12820 net.cpp:399] inception_4a/output_inception_4a/output_0_split -> inception_4a/output_inception_4a/output_0_split_0
I0403 21:47:08.651690 12820 net.cpp:399] inception_4a/output_inception_4a/output_0_split -> inception_4a/output_inception_4a/output_0_split_1
I0403 21:47:08.651711 12820 net.cpp:399] inception_4a/output_inception_4a/output_0_split -> inception_4a/output_inception_4a/output_0_split_2
I0403 21:47:08.651733 12820 net.cpp:399] inception_4a/output_inception_4a/output_0_split -> inception_4a/output_inception_4a/output_0_split_3
I0403 21:47:08.651753 12820 net.cpp:399] inception_4a/output_inception_4a/output_0_split -> inception_4a/output_inception_4a/output_0_split_4
I0403 21:47:08.651844 12820 net.cpp:141] Setting up inception_4a/output_inception_4a/output_0_split
I0403 21:47:08.651868 12820 net.cpp:148] Top shape: 24 512 14 14 (2408448)
I0403 21:47:08.651886 12820 net.cpp:148] Top shape: 24 512 14 14 (2408448)
I0403 21:47:08.651902 12820 net.cpp:148] Top shape: 24 512 14 14 (2408448)
I0403 21:47:08.651918 12820 net.cpp:148] Top shape: 24 512 14 14 (2408448)
I0403 21:47:08.651933 12820 net.cpp:148] Top shape: 24 512 14 14 (2408448)
I0403 21:47:08.651947 12820 net.cpp:156] Memory required for data: 944714784
I0403 21:47:08.651962 12820 layer_factory.hpp:77] Creating layer loss1/ave_pool
I0403 21:47:08.651981 12820 net.cpp:91] Creating Layer loss1/ave_pool
I0403 21:47:08.651999 12820 net.cpp:425] loss1/ave_pool <- inception_4a/output_inception_4a/output_0_split_0
I0403 21:47:08.652019 12820 net.cpp:399] loss1/ave_pool -> loss1/ave_pool
I0403 21:47:08.652240 12820 net.cpp:141] Setting up loss1/ave_pool
I0403 21:47:08.652266 12820 net.cpp:148] Top shape: 24 512 4 4 (196608)
I0403 21:47:08.652281 12820 net.cpp:156] Memory required for data: 945501216
I0403 21:47:08.652295 12820 layer_factory.hpp:77] Creating layer loss1/conv
I0403 21:47:08.652318 12820 net.cpp:91] Creating Layer loss1/conv
I0403 21:47:08.652335 12820 net.cpp:425] loss1/conv <- loss1/ave_pool
I0403 21:47:08.652356 12820 net.cpp:399] loss1/conv -> loss1/conv
I0403 21:47:08.653760 12820 net.cpp:141] Setting up loss1/conv
I0403 21:47:08.653789 12820 net.cpp:148] Top shape: 24 128 4 4 (49152)
I0403 21:47:08.653805 12820 net.cpp:156] Memory required for data: 945697824
I0403 21:47:08.653838 12820 layer_factory.hpp:77] Creating layer loss1/relu_conv
I0403 21:47:08.653864 12820 net.cpp:91] Creating Layer loss1/relu_conv
I0403 21:47:08.653882 12820 net.cpp:425] loss1/relu_conv <- loss1/conv
I0403 21:47:08.653900 12820 net.cpp:386] loss1/relu_conv -> loss1/conv (in-place)
I0403 21:47:08.654181 12820 net.cpp:141] Setting up loss1/relu_conv
I0403 21:47:08.654211 12820 net.cpp:148] Top shape: 24 128 4 4 (49152)
I0403 21:47:08.654229 12820 net.cpp:156] Memory required for data: 945894432
I0403 21:47:08.654244 12820 layer_factory.hpp:77] Creating layer loss1/fc
I0403 21:47:08.654269 12820 net.cpp:91] Creating Layer loss1/fc
I0403 21:47:08.654289 12820 net.cpp:425] loss1/fc <- loss1/conv
I0403 21:47:08.654310 12820 net.cpp:399] loss1/fc -> loss1/fc
I0403 21:47:08.672430 12820 net.cpp:141] Setting up loss1/fc
I0403 21:47:08.672464 12820 net.cpp:148] Top shape: 24 1024 (24576)
I0403 21:47:08.672480 12820 net.cpp:156] Memory required for data: 945992736
I0403 21:47:08.672498 12820 layer_factory.hpp:77] Creating layer loss1/relu_fc
I0403 21:47:08.672516 12820 net.cpp:91] Creating Layer loss1/relu_fc
I0403 21:47:08.672533 12820 net.cpp:425] loss1/relu_fc <- loss1/fc
I0403 21:47:08.672552 12820 net.cpp:386] loss1/relu_fc -> loss1/fc (in-place)
I0403 21:47:08.672741 12820 net.cpp:141] Setting up loss1/relu_fc
I0403 21:47:08.672766 12820 net.cpp:148] Top shape: 24 1024 (24576)
I0403 21:47:08.672781 12820 net.cpp:156] Memory required for data: 946091040
I0403 21:47:08.672796 12820 layer_factory.hpp:77] Creating layer loss1/drop_fc
I0403 21:47:08.672822 12820 net.cpp:91] Creating Layer loss1/drop_fc
I0403 21:47:08.672840 12820 net.cpp:425] loss1/drop_fc <- loss1/fc
I0403 21:47:08.672857 12820 net.cpp:386] loss1/drop_fc -> loss1/fc (in-place)
I0403 21:47:08.672910 12820 net.cpp:141] Setting up loss1/drop_fc
I0403 21:47:08.672935 12820 net.cpp:148] Top shape: 24 1024 (24576)
I0403 21:47:08.672950 12820 net.cpp:156] Memory required for data: 946189344
I0403 21:47:08.672966 12820 layer_factory.hpp:77] Creating layer loss1/classifier_plantvillage
I0403 21:47:08.672983 12820 net.cpp:91] Creating Layer loss1/classifier_plantvillage
I0403 21:47:08.672999 12820 net.cpp:425] loss1/classifier_plantvillage <- loss1/fc
I0403 21:47:08.673022 12820 net.cpp:399] loss1/classifier_plantvillage -> loss1/classifier_plantvillage
I0403 21:47:08.673964 12820 net.cpp:141] Setting up loss1/classifier_plantvillage
I0403 21:47:08.673992 12820 net.cpp:148] Top shape: 24 38 (912)
I0403 21:47:08.674008 12820 net.cpp:156] Memory required for data: 946192992
I0403 21:47:08.674026 12820 layer_factory.hpp:77] Creating layer loss1/classifier_plantvillage_loss1/classifier_plantvillage_0_split
I0403 21:47:08.674048 12820 net.cpp:91] Creating Layer loss1/classifier_plantvillage_loss1/classifier_plantvillage_0_split
I0403 21:47:08.674065 12820 net.cpp:425] loss1/classifier_plantvillage_loss1/classifier_plantvillage_0_split <- loss1/classifier_plantvillage
I0403 21:47:08.674083 12820 net.cpp:399] loss1/classifier_plantvillage_loss1/classifier_plantvillage_0_split -> loss1/classifier_plantvillage_loss1/classifier_plantvillage_0_split_0
I0403 21:47:08.674104 12820 net.cpp:399] loss1/classifier_plantvillage_loss1/classifier_plantvillage_0_split -> loss1/classifier_plantvillage_loss1/classifier_plantvillage_0_split_1
I0403 21:47:08.674127 12820 net.cpp:399] loss1/classifier_plantvillage_loss1/classifier_plantvillage_0_split -> loss1/classifier_plantvillage_loss1/classifier_plantvillage_0_split_2
I0403 21:47:08.674197 12820 net.cpp:141] Setting up loss1/classifier_plantvillage_loss1/classifier_plantvillage_0_split
I0403 21:47:08.674224 12820 net.cpp:148] Top shape: 24 38 (912)
I0403 21:47:08.674243 12820 net.cpp:148] Top shape: 24 38 (912)
I0403 21:47:08.674259 12820 net.cpp:148] Top shape: 24 38 (912)
I0403 21:47:08.674274 12820 net.cpp:156] Memory required for data: 946203936
I0403 21:47:08.674288 12820 layer_factory.hpp:77] Creating layer inception_4b/1x1
I0403 21:47:08.674312 12820 net.cpp:91] Creating Layer inception_4b/1x1
I0403 21:47:08.674347 12820 net.cpp:425] inception_4b/1x1 <- inception_4a/output_inception_4a/output_0_split_1
I0403 21:47:08.674368 12820 net.cpp:399] inception_4b/1x1 -> inception_4b/1x1
I0403 21:47:08.676000 12820 net.cpp:141] Setting up inception_4b/1x1
I0403 21:47:08.676028 12820 net.cpp:148] Top shape: 24 160 14 14 (752640)
I0403 21:47:08.676044 12820 net.cpp:156] Memory required for data: 949214496
I0403 21:47:08.676064 12820 layer_factory.hpp:77] Creating layer inception_4b/relu_1x1
I0403 21:47:08.676084 12820 net.cpp:91] Creating Layer inception_4b/relu_1x1
I0403 21:47:08.676101 12820 net.cpp:425] inception_4b/relu_1x1 <- inception_4b/1x1
I0403 21:47:08.676120 12820 net.cpp:386] inception_4b/relu_1x1 -> inception_4b/1x1 (in-place)
I0403 21:47:08.676306 12820 net.cpp:141] Setting up inception_4b/relu_1x1
I0403 21:47:08.676332 12820 net.cpp:148] Top shape: 24 160 14 14 (752640)
I0403 21:47:08.676348 12820 net.cpp:156] Memory required for data: 952225056
I0403 21:47:08.676364 12820 layer_factory.hpp:77] Creating layer inception_4b/3x3_reduce
I0403 21:47:08.676388 12820 net.cpp:91] Creating Layer inception_4b/3x3_reduce
I0403 21:47:08.676406 12820 net.cpp:425] inception_4b/3x3_reduce <- inception_4a/output_inception_4a/output_0_split_2
I0403 21:47:08.676429 12820 net.cpp:399] inception_4b/3x3_reduce -> inception_4b/3x3_reduce
I0403 21:47:08.677793 12820 net.cpp:141] Setting up inception_4b/3x3_reduce
I0403 21:47:08.677825 12820 net.cpp:148] Top shape: 24 112 14 14 (526848)
I0403 21:47:08.677842 12820 net.cpp:156] Memory required for data: 954332448
I0403 21:47:08.677860 12820 layer_factory.hpp:77] Creating layer inception_4b/relu_3x3_reduce
I0403 21:47:08.677878 12820 net.cpp:91] Creating Layer inception_4b/relu_3x3_reduce
I0403 21:47:08.677894 12820 net.cpp:425] inception_4b/relu_3x3_reduce <- inception_4b/3x3_reduce
I0403 21:47:08.677916 12820 net.cpp:386] inception_4b/relu_3x3_reduce -> inception_4b/3x3_reduce (in-place)
I0403 21:47:08.678205 12820 net.cpp:141] Setting up inception_4b/relu_3x3_reduce
I0403 21:47:08.678238 12820 net.cpp:148] Top shape: 24 112 14 14 (526848)
I0403 21:47:08.678253 12820 net.cpp:156] Memory required for data: 956439840
I0403 21:47:08.678268 12820 layer_factory.hpp:77] Creating layer inception_4b/3x3
I0403 21:47:08.678290 12820 net.cpp:91] Creating Layer inception_4b/3x3
I0403 21:47:08.678308 12820 net.cpp:425] inception_4b/3x3 <- inception_4b/3x3_reduce
I0403 21:47:08.678331 12820 net.cpp:399] inception_4b/3x3 -> inception_4b/3x3
I0403 21:47:08.681339 12820 net.cpp:141] Setting up inception_4b/3x3
I0403 21:47:08.681370 12820 net.cpp:148] Top shape: 24 224 14 14 (1053696)
I0403 21:47:08.681385 12820 net.cpp:156] Memory required for data: 960654624
I0403 21:47:08.681403 12820 layer_factory.hpp:77] Creating layer inception_4b/relu_3x3
I0403 21:47:08.681426 12820 net.cpp:91] Creating Layer inception_4b/relu_3x3
I0403 21:47:08.681442 12820 net.cpp:425] inception_4b/relu_3x3 <- inception_4b/3x3
I0403 21:47:08.681459 12820 net.cpp:386] inception_4b/relu_3x3 -> inception_4b/3x3 (in-place)
I0403 21:47:08.681640 12820 net.cpp:141] Setting up inception_4b/relu_3x3
I0403 21:47:08.681665 12820 net.cpp:148] Top shape: 24 224 14 14 (1053696)
I0403 21:47:08.681684 12820 net.cpp:156] Memory required for data: 964869408
I0403 21:47:08.681699 12820 layer_factory.hpp:77] Creating layer inception_4b/5x5_reduce
I0403 21:47:08.681720 12820 net.cpp:91] Creating Layer inception_4b/5x5_reduce
I0403 21:47:08.681738 12820 net.cpp:425] inception_4b/5x5_reduce <- inception_4a/output_inception_4a/output_0_split_3
I0403 21:47:08.681761 12820 net.cpp:399] inception_4b/5x5_reduce -> inception_4b/5x5_reduce
I0403 21:47:08.682862 12820 net.cpp:141] Setting up inception_4b/5x5_reduce
I0403 21:47:08.682893 12820 net.cpp:148] Top shape: 24 24 14 14 (112896)
I0403 21:47:08.682909 12820 net.cpp:156] Memory required for data: 965320992
I0403 21:47:08.682927 12820 layer_factory.hpp:77] Creating layer inception_4b/relu_5x5_reduce
I0403 21:47:08.682947 12820 net.cpp:91] Creating Layer inception_4b/relu_5x5_reduce
I0403 21:47:08.682978 12820 net.cpp:425] inception_4b/relu_5x5_reduce <- inception_4b/5x5_reduce
I0403 21:47:08.682997 12820 net.cpp:386] inception_4b/relu_5x5_reduce -> inception_4b/5x5_reduce (in-place)
I0403 21:47:08.683184 12820 net.cpp:141] Setting up inception_4b/relu_5x5_reduce
I0403 21:47:08.683213 12820 net.cpp:148] Top shape: 24 24 14 14 (112896)
I0403 21:47:08.683230 12820 net.cpp:156] Memory required for data: 965772576
I0403 21:47:08.683245 12820 layer_factory.hpp:77] Creating layer inception_4b/5x5
I0403 21:47:08.683269 12820 net.cpp:91] Creating Layer inception_4b/5x5
I0403 21:47:08.683287 12820 net.cpp:425] inception_4b/5x5 <- inception_4b/5x5_reduce
I0403 21:47:08.683310 12820 net.cpp:399] inception_4b/5x5 -> inception_4b/5x5
I0403 21:47:08.684533 12820 net.cpp:141] Setting up inception_4b/5x5
I0403 21:47:08.684561 12820 net.cpp:148] Top shape: 24 64 14 14 (301056)
I0403 21:47:08.684576 12820 net.cpp:156] Memory required for data: 966976800
I0403 21:47:08.684595 12820 layer_factory.hpp:77] Creating layer inception_4b/relu_5x5
I0403 21:47:08.684615 12820 net.cpp:91] Creating Layer inception_4b/relu_5x5
I0403 21:47:08.684633 12820 net.cpp:425] inception_4b/relu_5x5 <- inception_4b/5x5
I0403 21:47:08.684649 12820 net.cpp:386] inception_4b/relu_5x5 -> inception_4b/5x5 (in-place)
I0403 21:47:08.684931 12820 net.cpp:141] Setting up inception_4b/relu_5x5
I0403 21:47:08.684957 12820 net.cpp:148] Top shape: 24 64 14 14 (301056)
I0403 21:47:08.684973 12820 net.cpp:156] Memory required for data: 968181024
I0403 21:47:08.684988 12820 layer_factory.hpp:77] Creating layer inception_4b/pool
I0403 21:47:08.685009 12820 net.cpp:91] Creating Layer inception_4b/pool
I0403 21:47:08.685025 12820 net.cpp:425] inception_4b/pool <- inception_4a/output_inception_4a/output_0_split_4
I0403 21:47:08.685044 12820 net.cpp:399] inception_4b/pool -> inception_4b/pool
I0403 21:47:08.685108 12820 net.cpp:141] Setting up inception_4b/pool
I0403 21:47:08.685133 12820 net.cpp:148] Top shape: 24 512 14 14 (2408448)
I0403 21:47:08.685148 12820 net.cpp:156] Memory required for data: 977814816
I0403 21:47:08.685163 12820 layer_factory.hpp:77] Creating layer inception_4b/pool_proj
I0403 21:47:08.685184 12820 net.cpp:91] Creating Layer inception_4b/pool_proj
I0403 21:47:08.685201 12820 net.cpp:425] inception_4b/pool_proj <- inception_4b/pool
I0403 21:47:08.685230 12820 net.cpp:399] inception_4b/pool_proj -> inception_4b/pool_proj
I0403 21:47:08.686442 12820 net.cpp:141] Setting up inception_4b/pool_proj
I0403 21:47:08.686473 12820 net.cpp:148] Top shape: 24 64 14 14 (301056)
I0403 21:47:08.686491 12820 net.cpp:156] Memory required for data: 979019040
I0403 21:47:08.686508 12820 layer_factory.hpp:77] Creating layer inception_4b/relu_pool_proj
I0403 21:47:08.686527 12820 net.cpp:91] Creating Layer inception_4b/relu_pool_proj
I0403 21:47:08.686543 12820 net.cpp:425] inception_4b/relu_pool_proj <- inception_4b/pool_proj
I0403 21:47:08.686563 12820 net.cpp:386] inception_4b/relu_pool_proj -> inception_4b/pool_proj (in-place)
I0403 21:47:08.686743 12820 net.cpp:141] Setting up inception_4b/relu_pool_proj
I0403 21:47:08.686767 12820 net.cpp:148] Top shape: 24 64 14 14 (301056)
I0403 21:47:08.686784 12820 net.cpp:156] Memory required for data: 980223264
I0403 21:47:08.686797 12820 layer_factory.hpp:77] Creating layer inception_4b/output
I0403 21:47:08.686815 12820 net.cpp:91] Creating Layer inception_4b/output
I0403 21:47:08.686830 12820 net.cpp:425] inception_4b/output <- inception_4b/1x1
I0403 21:47:08.686847 12820 net.cpp:425] inception_4b/output <- inception_4b/3x3
I0403 21:47:08.686863 12820 net.cpp:425] inception_4b/output <- inception_4b/5x5
I0403 21:47:08.686879 12820 net.cpp:425] inception_4b/output <- inception_4b/pool_proj
I0403 21:47:08.686898 12820 net.cpp:399] inception_4b/output -> inception_4b/output
I0403 21:47:08.686944 12820 net.cpp:141] Setting up inception_4b/output
I0403 21:47:08.686970 12820 net.cpp:148] Top shape: 24 512 14 14 (2408448)
I0403 21:47:08.686985 12820 net.cpp:156] Memory required for data: 989857056
I0403 21:47:08.687014 12820 layer_factory.hpp:77] Creating layer inception_4b/output_inception_4b/output_0_split
I0403 21:47:08.687033 12820 net.cpp:91] Creating Layer inception_4b/output_inception_4b/output_0_split
I0403 21:47:08.687049 12820 net.cpp:425] inception_4b/output_inception_4b/output_0_split <- inception_4b/output
I0403 21:47:08.687067 12820 net.cpp:399] inception_4b/output_inception_4b/output_0_split -> inception_4b/output_inception_4b/output_0_split_0
I0403 21:47:08.687088 12820 net.cpp:399] inception_4b/output_inception_4b/output_0_split -> inception_4b/output_inception_4b/output_0_split_1
I0403 21:47:08.687111 12820 net.cpp:399] inception_4b/output_inception_4b/output_0_split -> inception_4b/output_inception_4b/output_0_split_2
I0403 21:47:08.687134 12820 net.cpp:399] inception_4b/output_inception_4b/output_0_split -> inception_4b/output_inception_4b/output_0_split_3
I0403 21:47:08.687228 12820 net.cpp:141] Setting up inception_4b/output_inception_4b/output_0_split
I0403 21:47:08.687253 12820 net.cpp:148] Top shape: 24 512 14 14 (2408448)
I0403 21:47:08.687269 12820 net.cpp:148] Top shape: 24 512 14 14 (2408448)
I0403 21:47:08.687284 12820 net.cpp:148] Top shape: 24 512 14 14 (2408448)
I0403 21:47:08.687300 12820 net.cpp:148] Top shape: 24 512 14 14 (2408448)
I0403 21:47:08.687314 12820 net.cpp:156] Memory required for data: 1028392224
I0403 21:47:08.687330 12820 layer_factory.hpp:77] Creating layer inception_4c/1x1
I0403 21:47:08.687351 12820 net.cpp:91] Creating Layer inception_4c/1x1
I0403 21:47:08.687368 12820 net.cpp:425] inception_4c/1x1 <- inception_4b/output_inception_4b/output_0_split_0
I0403 21:47:08.687389 12820 net.cpp:399] inception_4c/1x1 -> inception_4c/1x1
I0403 21:47:08.688827 12820 net.cpp:141] Setting up inception_4c/1x1
I0403 21:47:08.688855 12820 net.cpp:148] Top shape: 24 128 14 14 (602112)
I0403 21:47:08.688873 12820 net.cpp:156] Memory required for data: 1030800672
I0403 21:47:08.688890 12820 layer_factory.hpp:77] Creating layer inception_4c/relu_1x1
I0403 21:47:08.688910 12820 net.cpp:91] Creating Layer inception_4c/relu_1x1
I0403 21:47:08.688925 12820 net.cpp:425] inception_4c/relu_1x1 <- inception_4c/1x1
I0403 21:47:08.688946 12820 net.cpp:386] inception_4c/relu_1x1 -> inception_4c/1x1 (in-place)
I0403 21:47:08.689132 12820 net.cpp:141] Setting up inception_4c/relu_1x1
I0403 21:47:08.689157 12820 net.cpp:148] Top shape: 24 128 14 14 (602112)
I0403 21:47:08.689172 12820 net.cpp:156] Memory required for data: 1033209120
I0403 21:47:08.689187 12820 layer_factory.hpp:77] Creating layer inception_4c/3x3_reduce
I0403 21:47:08.689213 12820 net.cpp:91] Creating Layer inception_4c/3x3_reduce
I0403 21:47:08.689232 12820 net.cpp:425] inception_4c/3x3_reduce <- inception_4b/output_inception_4b/output_0_split_1
I0403 21:47:08.689254 12820 net.cpp:399] inception_4c/3x3_reduce -> inception_4c/3x3_reduce
I0403 21:47:08.691262 12820 net.cpp:141] Setting up inception_4c/3x3_reduce
I0403 21:47:08.691292 12820 net.cpp:148] Top shape: 24 128 14 14 (602112)
I0403 21:47:08.691308 12820 net.cpp:156] Memory required for data: 1035617568
I0403 21:47:08.691325 12820 layer_factory.hpp:77] Creating layer inception_4c/relu_3x3_reduce
I0403 21:47:08.691346 12820 net.cpp:91] Creating Layer inception_4c/relu_3x3_reduce
I0403 21:47:08.691364 12820 net.cpp:425] inception_4c/relu_3x3_reduce <- inception_4c/3x3_reduce
I0403 21:47:08.691382 12820 net.cpp:386] inception_4c/relu_3x3_reduce -> inception_4c/3x3_reduce (in-place)
I0403 21:47:08.691673 12820 net.cpp:141] Setting up inception_4c/relu_3x3_reduce
I0403 21:47:08.691700 12820 net.cpp:148] Top shape: 24 128 14 14 (602112)
I0403 21:47:08.691716 12820 net.cpp:156] Memory required for data: 1038026016
I0403 21:47:08.691731 12820 layer_factory.hpp:77] Creating layer inception_4c/3x3
I0403 21:47:08.691754 12820 net.cpp:91] Creating Layer inception_4c/3x3
I0403 21:47:08.691773 12820 net.cpp:425] inception_4c/3x3 <- inception_4c/3x3_reduce
I0403 21:47:08.691797 12820 net.cpp:399] inception_4c/3x3 -> inception_4c/3x3
I0403 21:47:08.695443 12820 net.cpp:141] Setting up inception_4c/3x3
I0403 21:47:08.695485 12820 net.cpp:148] Top shape: 24 256 14 14 (1204224)
I0403 21:47:08.695502 12820 net.cpp:156] Memory required for data: 1042842912
I0403 21:47:08.695535 12820 layer_factory.hpp:77] Creating layer inception_4c/relu_3x3
I0403 21:47:08.695559 12820 net.cpp:91] Creating Layer inception_4c/relu_3x3
I0403 21:47:08.695576 12820 net.cpp:425] inception_4c/relu_3x3 <- inception_4c/3x3
I0403 21:47:08.695595 12820 net.cpp:386] inception_4c/relu_3x3 -> inception_4c/3x3 (in-place)
I0403 21:47:08.695777 12820 net.cpp:141] Setting up inception_4c/relu_3x3
I0403 21:47:08.695804 12820 net.cpp:148] Top shape: 24 256 14 14 (1204224)
I0403 21:47:08.695821 12820 net.cpp:156] Memory required for data: 1047659808
I0403 21:47:08.695835 12820 layer_factory.hpp:77] Creating layer inception_4c/5x5_reduce
I0403 21:47:08.695860 12820 net.cpp:91] Creating Layer inception_4c/5x5_reduce
I0403 21:47:08.695878 12820 net.cpp:425] inception_4c/5x5_reduce <- inception_4b/output_inception_4b/output_0_split_2
I0403 21:47:08.695897 12820 net.cpp:399] inception_4c/5x5_reduce -> inception_4c/5x5_reduce
I0403 21:47:08.697031 12820 net.cpp:141] Setting up inception_4c/5x5_reduce
I0403 21:47:08.697062 12820 net.cpp:148] Top shape: 24 24 14 14 (112896)
I0403 21:47:08.697077 12820 net.cpp:156] Memory required for data: 1048111392
I0403 21:47:08.697098 12820 layer_factory.hpp:77] Creating layer inception_4c/relu_5x5_reduce
I0403 21:47:08.697115 12820 net.cpp:91] Creating Layer inception_4c/relu_5x5_reduce
I0403 21:47:08.697132 12820 net.cpp:425] inception_4c/relu_5x5_reduce <- inception_4c/5x5_reduce
I0403 21:47:08.697149 12820 net.cpp:386] inception_4c/relu_5x5_reduce -> inception_4c/5x5_reduce (in-place)
I0403 21:47:08.697345 12820 net.cpp:141] Setting up inception_4c/relu_5x5_reduce
I0403 21:47:08.697373 12820 net.cpp:148] Top shape: 24 24 14 14 (112896)
I0403 21:47:08.697389 12820 net.cpp:156] Memory required for data: 1048562976
I0403 21:47:08.697405 12820 layer_factory.hpp:77] Creating layer inception_4c/5x5
I0403 21:47:08.697427 12820 net.cpp:91] Creating Layer inception_4c/5x5
I0403 21:47:08.697443 12820 net.cpp:425] inception_4c/5x5 <- inception_4c/5x5_reduce
I0403 21:47:08.697464 12820 net.cpp:399] inception_4c/5x5 -> inception_4c/5x5
I0403 21:47:08.698746 12820 net.cpp:141] Setting up inception_4c/5x5
I0403 21:47:08.698775 12820 net.cpp:148] Top shape: 24 64 14 14 (301056)
I0403 21:47:08.698791 12820 net.cpp:156] Memory required for data: 1049767200
I0403 21:47:08.698809 12820 layer_factory.hpp:77] Creating layer inception_4c/relu_5x5
I0403 21:47:08.698827 12820 net.cpp:91] Creating Layer inception_4c/relu_5x5
I0403 21:47:08.698843 12820 net.cpp:425] inception_4c/relu_5x5 <- inception_4c/5x5
I0403 21:47:08.698864 12820 net.cpp:386] inception_4c/relu_5x5 -> inception_4c/5x5 (in-place)
I0403 21:47:08.699152 12820 net.cpp:141] Setting up inception_4c/relu_5x5
I0403 21:47:08.699179 12820 net.cpp:148] Top shape: 24 64 14 14 (301056)
I0403 21:47:08.699194 12820 net.cpp:156] Memory required for data: 1050971424
I0403 21:47:08.699213 12820 layer_factory.hpp:77] Creating layer inception_4c/pool
I0403 21:47:08.699232 12820 net.cpp:91] Creating Layer inception_4c/pool
I0403 21:47:08.699249 12820 net.cpp:425] inception_4c/pool <- inception_4b/output_inception_4b/output_0_split_3
I0403 21:47:08.699270 12820 net.cpp:399] inception_4c/pool -> inception_4c/pool
I0403 21:47:08.699337 12820 net.cpp:141] Setting up inception_4c/pool
I0403 21:47:08.699362 12820 net.cpp:148] Top shape: 24 512 14 14 (2408448)
I0403 21:47:08.699378 12820 net.cpp:156] Memory required for data: 1060605216
I0403 21:47:08.699391 12820 layer_factory.hpp:77] Creating layer inception_4c/pool_proj
I0403 21:47:08.699415 12820 net.cpp:91] Creating Layer inception_4c/pool_proj
I0403 21:47:08.699434 12820 net.cpp:425] inception_4c/pool_proj <- inception_4c/pool
I0403 21:47:08.699453 12820 net.cpp:399] inception_4c/pool_proj -> inception_4c/pool_proj
I0403 21:47:08.700711 12820 net.cpp:141] Setting up inception_4c/pool_proj
I0403 21:47:08.700742 12820 net.cpp:148] Top shape: 24 64 14 14 (301056)
I0403 21:47:08.700772 12820 net.cpp:156] Memory required for data: 1061809440
I0403 21:47:08.700791 12820 layer_factory.hpp:77] Creating layer inception_4c/relu_pool_proj
I0403 21:47:08.700814 12820 net.cpp:91] Creating Layer inception_4c/relu_pool_proj
I0403 21:47:08.700830 12820 net.cpp:425] inception_4c/relu_pool_proj <- inception_4c/pool_proj
I0403 21:47:08.700850 12820 net.cpp:386] inception_4c/relu_pool_proj -> inception_4c/pool_proj (in-place)
I0403 21:47:08.701045 12820 net.cpp:141] Setting up inception_4c/relu_pool_proj
I0403 21:47:08.701071 12820 net.cpp:148] Top shape: 24 64 14 14 (301056)
I0403 21:47:08.701087 12820 net.cpp:156] Memory required for data: 1063013664
I0403 21:47:08.701102 12820 layer_factory.hpp:77] Creating layer inception_4c/output
I0403 21:47:08.701120 12820 net.cpp:91] Creating Layer inception_4c/output
I0403 21:47:08.701138 12820 net.cpp:425] inception_4c/output <- inception_4c/1x1
I0403 21:47:08.701155 12820 net.cpp:425] inception_4c/output <- inception_4c/3x3
I0403 21:47:08.701171 12820 net.cpp:425] inception_4c/output <- inception_4c/5x5
I0403 21:47:08.701187 12820 net.cpp:425] inception_4c/output <- inception_4c/pool_proj
I0403 21:47:08.701207 12820 net.cpp:399] inception_4c/output -> inception_4c/output
I0403 21:47:08.701262 12820 net.cpp:141] Setting up inception_4c/output
I0403 21:47:08.701290 12820 net.cpp:148] Top shape: 24 512 14 14 (2408448)
I0403 21:47:08.701306 12820 net.cpp:156] Memory required for data: 1072647456
I0403 21:47:08.701323 12820 layer_factory.hpp:77] Creating layer inception_4c/output_inception_4c/output_0_split
I0403 21:47:08.701340 12820 net.cpp:91] Creating Layer inception_4c/output_inception_4c/output_0_split
I0403 21:47:08.701356 12820 net.cpp:425] inception_4c/output_inception_4c/output_0_split <- inception_4c/output
I0403 21:47:08.701375 12820 net.cpp:399] inception_4c/output_inception_4c/output_0_split -> inception_4c/output_inception_4c/output_0_split_0
I0403 21:47:08.701396 12820 net.cpp:399] inception_4c/output_inception_4c/output_0_split -> inception_4c/output_inception_4c/output_0_split_1
I0403 21:47:08.701421 12820 net.cpp:399] inception_4c/output_inception_4c/output_0_split -> inception_4c/output_inception_4c/output_0_split_2
I0403 21:47:08.701442 12820 net.cpp:399] inception_4c/output_inception_4c/output_0_split -> inception_4c/output_inception_4c/output_0_split_3
I0403 21:47:08.701535 12820 net.cpp:141] Setting up inception_4c/output_inception_4c/output_0_split
I0403 21:47:08.701560 12820 net.cpp:148] Top shape: 24 512 14 14 (2408448)
I0403 21:47:08.701576 12820 net.cpp:148] Top shape: 24 512 14 14 (2408448)
I0403 21:47:08.701592 12820 net.cpp:148] Top shape: 24 512 14 14 (2408448)
I0403 21:47:08.701609 12820 net.cpp:148] Top shape: 24 512 14 14 (2408448)
I0403 21:47:08.701623 12820 net.cpp:156] Memory required for data: 1111182624
I0403 21:47:08.701639 12820 layer_factory.hpp:77] Creating layer inception_4d/1x1
I0403 21:47:08.701663 12820 net.cpp:91] Creating Layer inception_4d/1x1
I0403 21:47:08.701681 12820 net.cpp:425] inception_4d/1x1 <- inception_4c/output_inception_4c/output_0_split_0
I0403 21:47:08.701704 12820 net.cpp:399] inception_4d/1x1 -> inception_4d/1x1
I0403 21:47:08.703198 12820 net.cpp:141] Setting up inception_4d/1x1
I0403 21:47:08.703233 12820 net.cpp:148] Top shape: 24 112 14 14 (526848)
I0403 21:47:08.703251 12820 net.cpp:156] Memory required for data: 1113290016
I0403 21:47:08.703269 12820 layer_factory.hpp:77] Creating layer inception_4d/relu_1x1
I0403 21:47:08.703291 12820 net.cpp:91] Creating Layer inception_4d/relu_1x1
I0403 21:47:08.703310 12820 net.cpp:425] inception_4d/relu_1x1 <- inception_4d/1x1
I0403 21:47:08.703328 12820 net.cpp:386] inception_4d/relu_1x1 -> inception_4d/1x1 (in-place)
I0403 21:47:08.703536 12820 net.cpp:141] Setting up inception_4d/relu_1x1
I0403 21:47:08.703565 12820 net.cpp:148] Top shape: 24 112 14 14 (526848)
I0403 21:47:08.703583 12820 net.cpp:156] Memory required for data: 1115397408
I0403 21:47:08.703598 12820 layer_factory.hpp:77] Creating layer inception_4d/3x3_reduce
I0403 21:47:08.703636 12820 net.cpp:91] Creating Layer inception_4d/3x3_reduce
I0403 21:47:08.703655 12820 net.cpp:425] inception_4d/3x3_reduce <- inception_4c/output_inception_4c/output_0_split_1
I0403 21:47:08.703675 12820 net.cpp:399] inception_4d/3x3_reduce -> inception_4d/3x3_reduce
I0403 21:47:08.705237 12820 net.cpp:141] Setting up inception_4d/3x3_reduce
I0403 21:47:08.705267 12820 net.cpp:148] Top shape: 24 144 14 14 (677376)
I0403 21:47:08.705283 12820 net.cpp:156] Memory required for data: 1118106912
I0403 21:47:08.705302 12820 layer_factory.hpp:77] Creating layer inception_4d/relu_3x3_reduce
I0403 21:47:08.705322 12820 net.cpp:91] Creating Layer inception_4d/relu_3x3_reduce
I0403 21:47:08.705341 12820 net.cpp:425] inception_4d/relu_3x3_reduce <- inception_4d/3x3_reduce
I0403 21:47:08.705360 12820 net.cpp:386] inception_4d/relu_3x3_reduce -> inception_4d/3x3_reduce (in-place)
I0403 21:47:08.705667 12820 net.cpp:141] Setting up inception_4d/relu_3x3_reduce
I0403 21:47:08.705694 12820 net.cpp:148] Top shape: 24 144 14 14 (677376)
I0403 21:47:08.705710 12820 net.cpp:156] Memory required for data: 1120816416
I0403 21:47:08.705726 12820 layer_factory.hpp:77] Creating layer inception_4d/3x3
I0403 21:47:08.705749 12820 net.cpp:91] Creating Layer inception_4d/3x3
I0403 21:47:08.705767 12820 net.cpp:425] inception_4d/3x3 <- inception_4d/3x3_reduce
I0403 21:47:08.705790 12820 net.cpp:399] inception_4d/3x3 -> inception_4d/3x3
I0403 21:47:08.710247 12820 net.cpp:141] Setting up inception_4d/3x3
I0403 21:47:08.710276 12820 net.cpp:148] Top shape: 24 288 14 14 (1354752)
I0403 21:47:08.710292 12820 net.cpp:156] Memory required for data: 1126235424
I0403 21:47:08.710311 12820 layer_factory.hpp:77] Creating layer inception_4d/relu_3x3
I0403 21:47:08.710333 12820 net.cpp:91] Creating Layer inception_4d/relu_3x3
I0403 21:47:08.710352 12820 net.cpp:425] inception_4d/relu_3x3 <- inception_4d/3x3
I0403 21:47:08.710371 12820 net.cpp:386] inception_4d/relu_3x3 -> inception_4d/3x3 (in-place)
I0403 21:47:08.710563 12820 net.cpp:141] Setting up inception_4d/relu_3x3
I0403 21:47:08.710592 12820 net.cpp:148] Top shape: 24 288 14 14 (1354752)
I0403 21:47:08.710608 12820 net.cpp:156] Memory required for data: 1131654432
I0403 21:47:08.710623 12820 layer_factory.hpp:77] Creating layer inception_4d/5x5_reduce
I0403 21:47:08.710646 12820 net.cpp:91] Creating Layer inception_4d/5x5_reduce
I0403 21:47:08.710665 12820 net.cpp:425] inception_4d/5x5_reduce <- inception_4c/output_inception_4c/output_0_split_2
I0403 21:47:08.710685 12820 net.cpp:399] inception_4d/5x5_reduce -> inception_4d/5x5_reduce
I0403 21:47:08.711915 12820 net.cpp:141] Setting up inception_4d/5x5_reduce
I0403 21:47:08.711944 12820 net.cpp:148] Top shape: 24 32 14 14 (150528)
I0403 21:47:08.711961 12820 net.cpp:156] Memory required for data: 1132256544
I0403 21:47:08.711980 12820 layer_factory.hpp:77] Creating layer inception_4d/relu_5x5_reduce
I0403 21:47:08.712000 12820 net.cpp:91] Creating Layer inception_4d/relu_5x5_reduce
I0403 21:47:08.712019 12820 net.cpp:425] inception_4d/relu_5x5_reduce <- inception_4d/5x5_reduce
I0403 21:47:08.712038 12820 net.cpp:386] inception_4d/relu_5x5_reduce -> inception_4d/5x5_reduce (in-place)
I0403 21:47:08.712244 12820 net.cpp:141] Setting up inception_4d/relu_5x5_reduce
I0403 21:47:08.712273 12820 net.cpp:148] Top shape: 24 32 14 14 (150528)
I0403 21:47:08.712291 12820 net.cpp:156] Memory required for data: 1132858656
I0403 21:47:08.712306 12820 layer_factory.hpp:77] Creating layer inception_4d/5x5
I0403 21:47:08.712328 12820 net.cpp:91] Creating Layer inception_4d/5x5
I0403 21:47:08.712347 12820 net.cpp:425] inception_4d/5x5 <- inception_4d/5x5_reduce
I0403 21:47:08.712365 12820 net.cpp:399] inception_4d/5x5 -> inception_4d/5x5
I0403 21:47:08.713876 12820 net.cpp:141] Setting up inception_4d/5x5
I0403 21:47:08.713908 12820 net.cpp:148] Top shape: 24 64 14 14 (301056)
I0403 21:47:08.713927 12820 net.cpp:156] Memory required for data: 1134062880
I0403 21:47:08.713948 12820 layer_factory.hpp:77] Creating layer inception_4d/relu_5x5
I0403 21:47:08.713984 12820 net.cpp:91] Creating Layer inception_4d/relu_5x5
I0403 21:47:08.714001 12820 net.cpp:425] inception_4d/relu_5x5 <- inception_4d/5x5
I0403 21:47:08.714022 12820 net.cpp:386] inception_4d/relu_5x5 -> inception_4d/5x5 (in-place)
I0403 21:47:08.714335 12820 net.cpp:141] Setting up inception_4d/relu_5x5
I0403 21:47:08.714365 12820 net.cpp:148] Top shape: 24 64 14 14 (301056)
I0403 21:47:08.714381 12820 net.cpp:156] Memory required for data: 1135267104
I0403 21:47:08.714397 12820 layer_factory.hpp:77] Creating layer inception_4d/pool
I0403 21:47:08.714416 12820 net.cpp:91] Creating Layer inception_4d/pool
I0403 21:47:08.714432 12820 net.cpp:425] inception_4d/pool <- inception_4c/output_inception_4c/output_0_split_3
I0403 21:47:08.714453 12820 net.cpp:399] inception_4d/pool -> inception_4d/pool
I0403 21:47:08.714522 12820 net.cpp:141] Setting up inception_4d/pool
I0403 21:47:08.714547 12820 net.cpp:148] Top shape: 24 512 14 14 (2408448)
I0403 21:47:08.714562 12820 net.cpp:156] Memory required for data: 1144900896
I0403 21:47:08.714577 12820 layer_factory.hpp:77] Creating layer inception_4d/pool_proj
I0403 21:47:08.714599 12820 net.cpp:91] Creating Layer inception_4d/pool_proj
I0403 21:47:08.714620 12820 net.cpp:425] inception_4d/pool_proj <- inception_4d/pool
I0403 21:47:08.714639 12820 net.cpp:399] inception_4d/pool_proj -> inception_4d/pool_proj
I0403 21:47:08.716495 12820 net.cpp:141] Setting up inception_4d/pool_proj
I0403 21:47:08.716526 12820 net.cpp:148] Top shape: 24 64 14 14 (301056)
I0403 21:47:08.716542 12820 net.cpp:156] Memory required for data: 1146105120
I0403 21:47:08.716559 12820 layer_factory.hpp:77] Creating layer inception_4d/relu_pool_proj
I0403 21:47:08.716583 12820 net.cpp:91] Creating Layer inception_4d/relu_pool_proj
I0403 21:47:08.716600 12820 net.cpp:425] inception_4d/relu_pool_proj <- inception_4d/pool_proj
I0403 21:47:08.716619 12820 net.cpp:386] inception_4d/relu_pool_proj -> inception_4d/pool_proj (in-place)
I0403 21:47:08.716816 12820 net.cpp:141] Setting up inception_4d/relu_pool_proj
I0403 21:47:08.716843 12820 net.cpp:148] Top shape: 24 64 14 14 (301056)
I0403 21:47:08.716859 12820 net.cpp:156] Memory required for data: 1147309344
I0403 21:47:08.716876 12820 layer_factory.hpp:77] Creating layer inception_4d/output
I0403 21:47:08.716893 12820 net.cpp:91] Creating Layer inception_4d/output
I0403 21:47:08.716912 12820 net.cpp:425] inception_4d/output <- inception_4d/1x1
I0403 21:47:08.716928 12820 net.cpp:425] inception_4d/output <- inception_4d/3x3
I0403 21:47:08.716945 12820 net.cpp:425] inception_4d/output <- inception_4d/5x5
I0403 21:47:08.716961 12820 net.cpp:425] inception_4d/output <- inception_4d/pool_proj
I0403 21:47:08.716979 12820 net.cpp:399] inception_4d/output -> inception_4d/output
I0403 21:47:08.717030 12820 net.cpp:141] Setting up inception_4d/output
I0403 21:47:08.717054 12820 net.cpp:148] Top shape: 24 528 14 14 (2483712)
I0403 21:47:08.717070 12820 net.cpp:156] Memory required for data: 1157244192
I0403 21:47:08.717085 12820 layer_factory.hpp:77] Creating layer inception_4d/output_inception_4d/output_0_split
I0403 21:47:08.717106 12820 net.cpp:91] Creating Layer inception_4d/output_inception_4d/output_0_split
I0403 21:47:08.717124 12820 net.cpp:425] inception_4d/output_inception_4d/output_0_split <- inception_4d/output
I0403 21:47:08.717142 12820 net.cpp:399] inception_4d/output_inception_4d/output_0_split -> inception_4d/output_inception_4d/output_0_split_0
I0403 21:47:08.717164 12820 net.cpp:399] inception_4d/output_inception_4d/output_0_split -> inception_4d/output_inception_4d/output_0_split_1
I0403 21:47:08.717190 12820 net.cpp:399] inception_4d/output_inception_4d/output_0_split -> inception_4d/output_inception_4d/output_0_split_2
I0403 21:47:08.717217 12820 net.cpp:399] inception_4d/output_inception_4d/output_0_split -> inception_4d/output_inception_4d/output_0_split_3
I0403 21:47:08.717242 12820 net.cpp:399] inception_4d/output_inception_4d/output_0_split -> inception_4d/output_inception_4d/output_0_split_4
I0403 21:47:08.717346 12820 net.cpp:141] Setting up inception_4d/output_inception_4d/output_0_split
I0403 21:47:08.717383 12820 net.cpp:148] Top shape: 24 528 14 14 (2483712)
I0403 21:47:08.717401 12820 net.cpp:148] Top shape: 24 528 14 14 (2483712)
I0403 21:47:08.717417 12820 net.cpp:148] Top shape: 24 528 14 14 (2483712)
I0403 21:47:08.717433 12820 net.cpp:148] Top shape: 24 528 14 14 (2483712)
I0403 21:47:08.717449 12820 net.cpp:148] Top shape: 24 528 14 14 (2483712)
I0403 21:47:08.717464 12820 net.cpp:156] Memory required for data: 1206918432
I0403 21:47:08.717479 12820 layer_factory.hpp:77] Creating layer loss2/ave_pool
I0403 21:47:08.717497 12820 net.cpp:91] Creating Layer loss2/ave_pool
I0403 21:47:08.717514 12820 net.cpp:425] loss2/ave_pool <- inception_4d/output_inception_4d/output_0_split_0
I0403 21:47:08.717535 12820 net.cpp:399] loss2/ave_pool -> loss2/ave_pool
I0403 21:47:08.717857 12820 net.cpp:141] Setting up loss2/ave_pool
I0403 21:47:08.717886 12820 net.cpp:148] Top shape: 24 528 4 4 (202752)
I0403 21:47:08.717903 12820 net.cpp:156] Memory required for data: 1207729440
I0403 21:47:08.717918 12820 layer_factory.hpp:77] Creating layer loss2/conv
I0403 21:47:08.717942 12820 net.cpp:91] Creating Layer loss2/conv
I0403 21:47:08.717960 12820 net.cpp:425] loss2/conv <- loss2/ave_pool
I0403 21:47:08.717983 12820 net.cpp:399] loss2/conv -> loss2/conv
I0403 21:47:08.719921 12820 net.cpp:141] Setting up loss2/conv
I0403 21:47:08.719951 12820 net.cpp:148] Top shape: 24 128 4 4 (49152)
I0403 21:47:08.719969 12820 net.cpp:156] Memory required for data: 1207926048
I0403 21:47:08.719987 12820 layer_factory.hpp:77] Creating layer loss2/relu_conv
I0403 21:47:08.720005 12820 net.cpp:91] Creating Layer loss2/relu_conv
I0403 21:47:08.720021 12820 net.cpp:425] loss2/relu_conv <- loss2/conv
I0403 21:47:08.720041 12820 net.cpp:386] loss2/relu_conv -> loss2/conv (in-place)
I0403 21:47:08.720324 12820 net.cpp:141] Setting up loss2/relu_conv
I0403 21:47:08.720352 12820 net.cpp:148] Top shape: 24 128 4 4 (49152)
I0403 21:47:08.720369 12820 net.cpp:156] Memory required for data: 1208122656
I0403 21:47:08.720384 12820 layer_factory.hpp:77] Creating layer loss2/fc
I0403 21:47:08.720402 12820 net.cpp:91] Creating Layer loss2/fc
I0403 21:47:08.720419 12820 net.cpp:425] loss2/fc <- loss2/conv
I0403 21:47:08.720440 12820 net.cpp:399] loss2/fc -> loss2/fc
I0403 21:47:08.738021 12820 net.cpp:141] Setting up loss2/fc
I0403 21:47:08.738059 12820 net.cpp:148] Top shape: 24 1024 (24576)
I0403 21:47:08.738073 12820 net.cpp:156] Memory required for data: 1208220960
I0403 21:47:08.738091 12820 layer_factory.hpp:77] Creating layer loss2/relu_fc
I0403 21:47:08.738111 12820 net.cpp:91] Creating Layer loss2/relu_fc
I0403 21:47:08.738127 12820 net.cpp:425] loss2/relu_fc <- loss2/fc
I0403 21:47:08.738144 12820 net.cpp:386] loss2/relu_fc -> loss2/fc (in-place)
I0403 21:47:08.738448 12820 net.cpp:141] Setting up loss2/relu_fc
I0403 21:47:08.738476 12820 net.cpp:148] Top shape: 24 1024 (24576)
I0403 21:47:08.738489 12820 net.cpp:156] Memory required for data: 1208319264
I0403 21:47:08.738504 12820 layer_factory.hpp:77] Creating layer loss2/drop_fc
I0403 21:47:08.738523 12820 net.cpp:91] Creating Layer loss2/drop_fc
I0403 21:47:08.738539 12820 net.cpp:425] loss2/drop_fc <- loss2/fc
I0403 21:47:08.738557 12820 net.cpp:386] loss2/drop_fc -> loss2/fc (in-place)
I0403 21:47:08.738606 12820 net.cpp:141] Setting up loss2/drop_fc
I0403 21:47:08.738629 12820 net.cpp:148] Top shape: 24 1024 (24576)
I0403 21:47:08.738642 12820 net.cpp:156] Memory required for data: 1208417568
I0403 21:47:08.738657 12820 layer_factory.hpp:77] Creating layer loss2/classifier_plantvillage
I0403 21:47:08.738674 12820 net.cpp:91] Creating Layer loss2/classifier_plantvillage
I0403 21:47:08.738690 12820 net.cpp:425] loss2/classifier_plantvillage <- loss2/fc
I0403 21:47:08.738713 12820 net.cpp:399] loss2/classifier_plantvillage -> loss2/classifier_plantvillage
I0403 21:47:08.739109 12820 net.cpp:141] Setting up loss2/classifier_plantvillage
I0403 21:47:08.739135 12820 net.cpp:148] Top shape: 24 38 (912)
I0403 21:47:08.739150 12820 net.cpp:156] Memory required for data: 1208421216
I0403 21:47:08.739186 12820 layer_factory.hpp:77] Creating layer loss2/classifier_plantvillage_loss2/classifier_plantvillage_0_split
I0403 21:47:08.739203 12820 net.cpp:91] Creating Layer loss2/classifier_plantvillage_loss2/classifier_plantvillage_0_split
I0403 21:47:08.739224 12820 net.cpp:425] loss2/classifier_plantvillage_loss2/classifier_plantvillage_0_split <- loss2/classifier_plantvillage
I0403 21:47:08.739245 12820 net.cpp:399] loss2/classifier_plantvillage_loss2/classifier_plantvillage_0_split -> loss2/classifier_plantvillage_loss2/classifier_plantvillage_0_split_0
I0403 21:47:08.739267 12820 net.cpp:399] loss2/classifier_plantvillage_loss2/classifier_plantvillage_0_split -> loss2/classifier_plantvillage_loss2/classifier_plantvillage_0_split_1
I0403 21:47:08.739287 12820 net.cpp:399] loss2/classifier_plantvillage_loss2/classifier_plantvillage_0_split -> loss2/classifier_plantvillage_loss2/classifier_plantvillage_0_split_2
I0403 21:47:08.739364 12820 net.cpp:141] Setting up loss2/classifier_plantvillage_loss2/classifier_plantvillage_0_split
I0403 21:47:08.739389 12820 net.cpp:148] Top shape: 24 38 (912)
I0403 21:47:08.739406 12820 net.cpp:148] Top shape: 24 38 (912)
I0403 21:47:08.739423 12820 net.cpp:148] Top shape: 24 38 (912)
I0403 21:47:08.739435 12820 net.cpp:156] Memory required for data: 1208432160
I0403 21:47:08.739449 12820 layer_factory.hpp:77] Creating layer inception_4e/1x1
I0403 21:47:08.739469 12820 net.cpp:91] Creating Layer inception_4e/1x1
I0403 21:47:08.739485 12820 net.cpp:425] inception_4e/1x1 <- inception_4d/output_inception_4d/output_0_split_1
I0403 21:47:08.739503 12820 net.cpp:399] inception_4e/1x1 -> inception_4e/1x1
I0403 21:47:08.741281 12820 net.cpp:141] Setting up inception_4e/1x1
I0403 21:47:08.741307 12820 net.cpp:148] Top shape: 24 256 14 14 (1204224)
I0403 21:47:08.741323 12820 net.cpp:156] Memory required for data: 1213249056
I0403 21:47:08.741341 12820 layer_factory.hpp:77] Creating layer inception_4e/relu_1x1
I0403 21:47:08.741360 12820 net.cpp:91] Creating Layer inception_4e/relu_1x1
I0403 21:47:08.741375 12820 net.cpp:425] inception_4e/relu_1x1 <- inception_4e/1x1
I0403 21:47:08.741394 12820 net.cpp:386] inception_4e/relu_1x1 -> inception_4e/1x1 (in-place)
I0403 21:47:08.741683 12820 net.cpp:141] Setting up inception_4e/relu_1x1
I0403 21:47:08.741709 12820 net.cpp:148] Top shape: 24 256 14 14 (1204224)
I0403 21:47:08.741724 12820 net.cpp:156] Memory required for data: 1218065952
I0403 21:47:08.741739 12820 layer_factory.hpp:77] Creating layer inception_4e/3x3_reduce
I0403 21:47:08.741761 12820 net.cpp:91] Creating Layer inception_4e/3x3_reduce
I0403 21:47:08.741780 12820 net.cpp:425] inception_4e/3x3_reduce <- inception_4d/output_inception_4d/output_0_split_2
I0403 21:47:08.741802 12820 net.cpp:399] inception_4e/3x3_reduce -> inception_4e/3x3_reduce
I0403 21:47:08.743909 12820 net.cpp:141] Setting up inception_4e/3x3_reduce
I0403 21:47:08.743940 12820 net.cpp:148] Top shape: 24 160 14 14 (752640)
I0403 21:47:08.743957 12820 net.cpp:156] Memory required for data: 1221076512
I0403 21:47:08.743975 12820 layer_factory.hpp:77] Creating layer inception_4e/relu_3x3_reduce
I0403 21:47:08.743993 12820 net.cpp:91] Creating Layer inception_4e/relu_3x3_reduce
I0403 21:47:08.744010 12820 net.cpp:425] inception_4e/relu_3x3_reduce <- inception_4e/3x3_reduce
I0403 21:47:08.744030 12820 net.cpp:386] inception_4e/relu_3x3_reduce -> inception_4e/3x3_reduce (in-place)
I0403 21:47:08.744220 12820 net.cpp:141] Setting up inception_4e/relu_3x3_reduce
I0403 21:47:08.744246 12820 net.cpp:148] Top shape: 24 160 14 14 (752640)
I0403 21:47:08.744261 12820 net.cpp:156] Memory required for data: 1224087072
I0403 21:47:08.744274 12820 layer_factory.hpp:77] Creating layer inception_4e/3x3
I0403 21:47:08.744297 12820 net.cpp:91] Creating Layer inception_4e/3x3
I0403 21:47:08.744314 12820 net.cpp:425] inception_4e/3x3 <- inception_4e/3x3_reduce
I0403 21:47:08.744335 12820 net.cpp:399] inception_4e/3x3 -> inception_4e/3x3
I0403 21:47:08.749286 12820 net.cpp:141] Setting up inception_4e/3x3
I0403 21:47:08.749327 12820 net.cpp:148] Top shape: 24 320 14 14 (1505280)
I0403 21:47:08.749343 12820 net.cpp:156] Memory required for data: 1230108192
I0403 21:47:08.749361 12820 layer_factory.hpp:77] Creating layer inception_4e/relu_3x3
I0403 21:47:08.749378 12820 net.cpp:91] Creating Layer inception_4e/relu_3x3
I0403 21:47:08.749394 12820 net.cpp:425] inception_4e/relu_3x3 <- inception_4e/3x3
I0403 21:47:08.749414 12820 net.cpp:386] inception_4e/relu_3x3 -> inception_4e/3x3 (in-place)
I0403 21:47:08.749712 12820 net.cpp:141] Setting up inception_4e/relu_3x3
I0403 21:47:08.749738 12820 net.cpp:148] Top shape: 24 320 14 14 (1505280)
I0403 21:47:08.749753 12820 net.cpp:156] Memory required for data: 1236129312
I0403 21:47:08.749768 12820 layer_factory.hpp:77] Creating layer inception_4e/5x5_reduce
I0403 21:47:08.749793 12820 net.cpp:91] Creating Layer inception_4e/5x5_reduce
I0403 21:47:08.749811 12820 net.cpp:425] inception_4e/5x5_reduce <- inception_4d/output_inception_4d/output_0_split_3
I0403 21:47:08.749833 12820 net.cpp:399] inception_4e/5x5_reduce -> inception_4e/5x5_reduce
I0403 21:47:08.750876 12820 net.cpp:141] Setting up inception_4e/5x5_reduce
I0403 21:47:08.750906 12820 net.cpp:148] Top shape: 24 32 14 14 (150528)
I0403 21:47:08.750923 12820 net.cpp:156] Memory required for data: 1236731424
I0403 21:47:08.750941 12820 layer_factory.hpp:77] Creating layer inception_4e/relu_5x5_reduce
I0403 21:47:08.750959 12820 net.cpp:91] Creating Layer inception_4e/relu_5x5_reduce
I0403 21:47:08.750974 12820 net.cpp:425] inception_4e/relu_5x5_reduce <- inception_4e/5x5_reduce
I0403 21:47:08.750993 12820 net.cpp:386] inception_4e/relu_5x5_reduce -> inception_4e/5x5_reduce (in-place)
I0403 21:47:08.751292 12820 net.cpp:141] Setting up inception_4e/relu_5x5_reduce
I0403 21:47:08.751322 12820 net.cpp:148] Top shape: 24 32 14 14 (150528)
I0403 21:47:08.751338 12820 net.cpp:156] Memory required for data: 1237333536
I0403 21:47:08.751351 12820 layer_factory.hpp:77] Creating layer inception_4e/5x5
I0403 21:47:08.751391 12820 net.cpp:91] Creating Layer inception_4e/5x5
I0403 21:47:08.751410 12820 net.cpp:425] inception_4e/5x5 <- inception_4e/5x5_reduce
I0403 21:47:08.751430 12820 net.cpp:399] inception_4e/5x5 -> inception_4e/5x5
I0403 21:47:08.753238 12820 net.cpp:141] Setting up inception_4e/5x5
I0403 21:47:08.753267 12820 net.cpp:148] Top shape: 24 128 14 14 (602112)
I0403 21:47:08.753284 12820 net.cpp:156] Memory required for data: 1239741984
I0403 21:47:08.753304 12820 layer_factory.hpp:77] Creating layer inception_4e/relu_5x5
I0403 21:47:08.753321 12820 net.cpp:91] Creating Layer inception_4e/relu_5x5
I0403 21:47:08.753337 12820 net.cpp:425] inception_4e/relu_5x5 <- inception_4e/5x5
I0403 21:47:08.753353 12820 net.cpp:386] inception_4e/relu_5x5 -> inception_4e/5x5 (in-place)
I0403 21:47:08.753551 12820 net.cpp:141] Setting up inception_4e/relu_5x5
I0403 21:47:08.753577 12820 net.cpp:148] Top shape: 24 128 14 14 (602112)
I0403 21:47:08.753593 12820 net.cpp:156] Memory required for data: 1242150432
I0403 21:47:08.753608 12820 layer_factory.hpp:77] Creating layer inception_4e/pool
I0403 21:47:08.753626 12820 net.cpp:91] Creating Layer inception_4e/pool
I0403 21:47:08.753641 12820 net.cpp:425] inception_4e/pool <- inception_4d/output_inception_4d/output_0_split_4
I0403 21:47:08.753662 12820 net.cpp:399] inception_4e/pool -> inception_4e/pool
I0403 21:47:08.753731 12820 net.cpp:141] Setting up inception_4e/pool
I0403 21:47:08.753757 12820 net.cpp:148] Top shape: 24 528 14 14 (2483712)
I0403 21:47:08.753773 12820 net.cpp:156] Memory required for data: 1252085280
I0403 21:47:08.753787 12820 layer_factory.hpp:77] Creating layer inception_4e/pool_proj
I0403 21:47:08.753806 12820 net.cpp:91] Creating Layer inception_4e/pool_proj
I0403 21:47:08.753823 12820 net.cpp:425] inception_4e/pool_proj <- inception_4e/pool
I0403 21:47:08.753845 12820 net.cpp:399] inception_4e/pool_proj -> inception_4e/pool_proj
I0403 21:47:08.755321 12820 net.cpp:141] Setting up inception_4e/pool_proj
I0403 21:47:08.755348 12820 net.cpp:148] Top shape: 24 128 14 14 (602112)
I0403 21:47:08.755378 12820 net.cpp:156] Memory required for data: 1254493728
I0403 21:47:08.755396 12820 layer_factory.hpp:77] Creating layer inception_4e/relu_pool_proj
I0403 21:47:08.755417 12820 net.cpp:91] Creating Layer inception_4e/relu_pool_proj
I0403 21:47:08.755435 12820 net.cpp:425] inception_4e/relu_pool_proj <- inception_4e/pool_proj
I0403 21:47:08.755452 12820 net.cpp:386] inception_4e/relu_pool_proj -> inception_4e/pool_proj (in-place)
I0403 21:47:08.755740 12820 net.cpp:141] Setting up inception_4e/relu_pool_proj
I0403 21:47:08.755765 12820 net.cpp:148] Top shape: 24 128 14 14 (602112)
I0403 21:47:08.755781 12820 net.cpp:156] Memory required for data: 1256902176
I0403 21:47:08.755797 12820 layer_factory.hpp:77] Creating layer inception_4e/output
I0403 21:47:08.755817 12820 net.cpp:91] Creating Layer inception_4e/output
I0403 21:47:08.755836 12820 net.cpp:425] inception_4e/output <- inception_4e/1x1
I0403 21:47:08.755851 12820 net.cpp:425] inception_4e/output <- inception_4e/3x3
I0403 21:47:08.755868 12820 net.cpp:425] inception_4e/output <- inception_4e/5x5
I0403 21:47:08.755883 12820 net.cpp:425] inception_4e/output <- inception_4e/pool_proj
I0403 21:47:08.755900 12820 net.cpp:399] inception_4e/output -> inception_4e/output
I0403 21:47:08.755950 12820 net.cpp:141] Setting up inception_4e/output
I0403 21:47:08.755975 12820 net.cpp:148] Top shape: 24 832 14 14 (3913728)
I0403 21:47:08.755990 12820 net.cpp:156] Memory required for data: 1272557088
I0403 21:47:08.756003 12820 layer_factory.hpp:77] Creating layer pool4/3x3_s2
I0403 21:47:08.756021 12820 net.cpp:91] Creating Layer pool4/3x3_s2
I0403 21:47:08.756036 12820 net.cpp:425] pool4/3x3_s2 <- inception_4e/output
I0403 21:47:08.756057 12820 net.cpp:399] pool4/3x3_s2 -> pool4/3x3_s2
I0403 21:47:08.756122 12820 net.cpp:141] Setting up pool4/3x3_s2
I0403 21:47:08.756148 12820 net.cpp:148] Top shape: 24 832 7 7 (978432)
I0403 21:47:08.756165 12820 net.cpp:156] Memory required for data: 1276470816
I0403 21:47:08.756180 12820 layer_factory.hpp:77] Creating layer pool4/3x3_s2_pool4/3x3_s2_0_split
I0403 21:47:08.756196 12820 net.cpp:91] Creating Layer pool4/3x3_s2_pool4/3x3_s2_0_split
I0403 21:47:08.756230 12820 net.cpp:425] pool4/3x3_s2_pool4/3x3_s2_0_split <- pool4/3x3_s2
I0403 21:47:08.756252 12820 net.cpp:399] pool4/3x3_s2_pool4/3x3_s2_0_split -> pool4/3x3_s2_pool4/3x3_s2_0_split_0
I0403 21:47:08.756273 12820 net.cpp:399] pool4/3x3_s2_pool4/3x3_s2_0_split -> pool4/3x3_s2_pool4/3x3_s2_0_split_1
I0403 21:47:08.756296 12820 net.cpp:399] pool4/3x3_s2_pool4/3x3_s2_0_split -> pool4/3x3_s2_pool4/3x3_s2_0_split_2
I0403 21:47:08.756316 12820 net.cpp:399] pool4/3x3_s2_pool4/3x3_s2_0_split -> pool4/3x3_s2_pool4/3x3_s2_0_split_3
I0403 21:47:08.756409 12820 net.cpp:141] Setting up pool4/3x3_s2_pool4/3x3_s2_0_split
I0403 21:47:08.756433 12820 net.cpp:148] Top shape: 24 832 7 7 (978432)
I0403 21:47:08.756449 12820 net.cpp:148] Top shape: 24 832 7 7 (978432)
I0403 21:47:08.756465 12820 net.cpp:148] Top shape: 24 832 7 7 (978432)
I0403 21:47:08.756481 12820 net.cpp:148] Top shape: 24 832 7 7 (978432)
I0403 21:47:08.756495 12820 net.cpp:156] Memory required for data: 1292125728
I0403 21:47:08.756510 12820 layer_factory.hpp:77] Creating layer inception_5a/1x1
I0403 21:47:08.756538 12820 net.cpp:91] Creating Layer inception_5a/1x1
I0403 21:47:08.756557 12820 net.cpp:425] inception_5a/1x1 <- pool4/3x3_s2_pool4/3x3_s2_0_split_0
I0403 21:47:08.756577 12820 net.cpp:399] inception_5a/1x1 -> inception_5a/1x1
I0403 21:47:08.759482 12820 net.cpp:141] Setting up inception_5a/1x1
I0403 21:47:08.759512 12820 net.cpp:148] Top shape: 24 256 7 7 (301056)
I0403 21:47:08.759529 12820 net.cpp:156] Memory required for data: 1293329952
I0403 21:47:08.759552 12820 layer_factory.hpp:77] Creating layer inception_5a/relu_1x1
I0403 21:47:08.759570 12820 net.cpp:91] Creating Layer inception_5a/relu_1x1
I0403 21:47:08.759588 12820 net.cpp:425] inception_5a/relu_1x1 <- inception_5a/1x1
I0403 21:47:08.759606 12820 net.cpp:386] inception_5a/relu_1x1 -> inception_5a/1x1 (in-place)
I0403 21:47:08.759920 12820 net.cpp:141] Setting up inception_5a/relu_1x1
I0403 21:47:08.759948 12820 net.cpp:148] Top shape: 24 256 7 7 (301056)
I0403 21:47:08.759963 12820 net.cpp:156] Memory required for data: 1294534176
I0403 21:47:08.759979 12820 layer_factory.hpp:77] Creating layer inception_5a/3x3_reduce
I0403 21:47:08.760004 12820 net.cpp:91] Creating Layer inception_5a/3x3_reduce
I0403 21:47:08.760022 12820 net.cpp:425] inception_5a/3x3_reduce <- pool4/3x3_s2_pool4/3x3_s2_0_split_1
I0403 21:47:08.760042 12820 net.cpp:399] inception_5a/3x3_reduce -> inception_5a/3x3_reduce
I0403 21:47:08.762542 12820 net.cpp:141] Setting up inception_5a/3x3_reduce
I0403 21:47:08.762572 12820 net.cpp:148] Top shape: 24 160 7 7 (188160)
I0403 21:47:08.762586 12820 net.cpp:156] Memory required for data: 1295286816
I0403 21:47:08.762605 12820 layer_factory.hpp:77] Creating layer inception_5a/relu_3x3_reduce
I0403 21:47:08.762626 12820 net.cpp:91] Creating Layer inception_5a/relu_3x3_reduce
I0403 21:47:08.762645 12820 net.cpp:425] inception_5a/relu_3x3_reduce <- inception_5a/3x3_reduce
I0403 21:47:08.762661 12820 net.cpp:386] inception_5a/relu_3x3_reduce -> inception_5a/3x3_reduce (in-place)
I0403 21:47:08.762847 12820 net.cpp:141] Setting up inception_5a/relu_3x3_reduce
I0403 21:47:08.762872 12820 net.cpp:148] Top shape: 24 160 7 7 (188160)
I0403 21:47:08.762888 12820 net.cpp:156] Memory required for data: 1296039456
I0403 21:47:08.762904 12820 layer_factory.hpp:77] Creating layer inception_5a/3x3
I0403 21:47:08.762928 12820 net.cpp:91] Creating Layer inception_5a/3x3
I0403 21:47:08.762945 12820 net.cpp:425] inception_5a/3x3 <- inception_5a/3x3_reduce
I0403 21:47:08.762964 12820 net.cpp:399] inception_5a/3x3 -> inception_5a/3x3
I0403 21:47:08.768024 12820 net.cpp:141] Setting up inception_5a/3x3
I0403 21:47:08.768059 12820 net.cpp:148] Top shape: 24 320 7 7 (376320)
I0403 21:47:08.768076 12820 net.cpp:156] Memory required for data: 1297544736
I0403 21:47:08.768095 12820 layer_factory.hpp:77] Creating layer inception_5a/relu_3x3
I0403 21:47:08.768112 12820 net.cpp:91] Creating Layer inception_5a/relu_3x3
I0403 21:47:08.768127 12820 net.cpp:425] inception_5a/relu_3x3 <- inception_5a/3x3
I0403 21:47:08.768146 12820 net.cpp:386] inception_5a/relu_3x3 -> inception_5a/3x3 (in-place)
I0403 21:47:08.768445 12820 net.cpp:141] Setting up inception_5a/relu_3x3
I0403 21:47:08.768473 12820 net.cpp:148] Top shape: 24 320 7 7 (376320)
I0403 21:47:08.768491 12820 net.cpp:156] Memory required for data: 1299050016
I0403 21:47:08.768504 12820 layer_factory.hpp:77] Creating layer inception_5a/5x5_reduce
I0403 21:47:08.768527 12820 net.cpp:91] Creating Layer inception_5a/5x5_reduce
I0403 21:47:08.768544 12820 net.cpp:425] inception_5a/5x5_reduce <- pool4/3x3_s2_pool4/3x3_s2_0_split_2
I0403 21:47:08.768564 12820 net.cpp:399] inception_5a/5x5_reduce -> inception_5a/5x5_reduce
I0403 21:47:08.769718 12820 net.cpp:141] Setting up inception_5a/5x5_reduce
I0403 21:47:08.769749 12820 net.cpp:148] Top shape: 24 32 7 7 (37632)
I0403 21:47:08.769767 12820 net.cpp:156] Memory required for data: 1299200544
I0403 21:47:08.769783 12820 layer_factory.hpp:77] Creating layer inception_5a/relu_5x5_reduce
I0403 21:47:08.769801 12820 net.cpp:91] Creating Layer inception_5a/relu_5x5_reduce
I0403 21:47:08.769819 12820 net.cpp:425] inception_5a/relu_5x5_reduce <- inception_5a/5x5_reduce
I0403 21:47:08.769839 12820 net.cpp:386] inception_5a/relu_5x5_reduce -> inception_5a/5x5_reduce (in-place)
I0403 21:47:08.770133 12820 net.cpp:141] Setting up inception_5a/relu_5x5_reduce
I0403 21:47:08.770161 12820 net.cpp:148] Top shape: 24 32 7 7 (37632)
I0403 21:47:08.770177 12820 net.cpp:156] Memory required for data: 1299351072
I0403 21:47:08.770192 12820 layer_factory.hpp:77] Creating layer inception_5a/5x5
I0403 21:47:08.770220 12820 net.cpp:91] Creating Layer inception_5a/5x5
I0403 21:47:08.770238 12820 net.cpp:425] inception_5a/5x5 <- inception_5a/5x5_reduce
I0403 21:47:08.770257 12820 net.cpp:399] inception_5a/5x5 -> inception_5a/5x5
I0403 21:47:08.771941 12820 net.cpp:141] Setting up inception_5a/5x5
I0403 21:47:08.771984 12820 net.cpp:148] Top shape: 24 128 7 7 (150528)
I0403 21:47:08.772001 12820 net.cpp:156] Memory required for data: 1299953184
I0403 21:47:08.772019 12820 layer_factory.hpp:77] Creating layer inception_5a/relu_5x5
I0403 21:47:08.772037 12820 net.cpp:91] Creating Layer inception_5a/relu_5x5
I0403 21:47:08.772053 12820 net.cpp:425] inception_5a/relu_5x5 <- inception_5a/5x5
I0403 21:47:08.772070 12820 net.cpp:386] inception_5a/relu_5x5 -> inception_5a/5x5 (in-place)
I0403 21:47:08.772277 12820 net.cpp:141] Setting up inception_5a/relu_5x5
I0403 21:47:08.772303 12820 net.cpp:148] Top shape: 24 128 7 7 (150528)
I0403 21:47:08.772320 12820 net.cpp:156] Memory required for data: 1300555296
I0403 21:47:08.772336 12820 layer_factory.hpp:77] Creating layer inception_5a/pool
I0403 21:47:08.772353 12820 net.cpp:91] Creating Layer inception_5a/pool
I0403 21:47:08.772369 12820 net.cpp:425] inception_5a/pool <- pool4/3x3_s2_pool4/3x3_s2_0_split_3
I0403 21:47:08.772389 12820 net.cpp:399] inception_5a/pool -> inception_5a/pool
I0403 21:47:08.772457 12820 net.cpp:141] Setting up inception_5a/pool
I0403 21:47:08.772483 12820 net.cpp:148] Top shape: 24 832 7 7 (978432)
I0403 21:47:08.772500 12820 net.cpp:156] Memory required for data: 1304469024
I0403 21:47:08.772514 12820 layer_factory.hpp:77] Creating layer inception_5a/pool_proj
I0403 21:47:08.772536 12820 net.cpp:91] Creating Layer inception_5a/pool_proj
I0403 21:47:08.772555 12820 net.cpp:425] inception_5a/pool_proj <- inception_5a/pool
I0403 21:47:08.772573 12820 net.cpp:399] inception_5a/pool_proj -> inception_5a/pool_proj
I0403 21:47:08.774834 12820 net.cpp:141] Setting up inception_5a/pool_proj
I0403 21:47:08.774863 12820 net.cpp:148] Top shape: 24 128 7 7 (150528)
I0403 21:47:08.774878 12820 net.cpp:156] Memory required for data: 1305071136
I0403 21:47:08.774896 12820 layer_factory.hpp:77] Creating layer inception_5a/relu_pool_proj
I0403 21:47:08.774917 12820 net.cpp:91] Creating Layer inception_5a/relu_pool_proj
I0403 21:47:08.774933 12820 net.cpp:425] inception_5a/relu_pool_proj <- inception_5a/pool_proj
I0403 21:47:08.774950 12820 net.cpp:386] inception_5a/relu_pool_proj -> inception_5a/pool_proj (in-place)
I0403 21:47:08.775240 12820 net.cpp:141] Setting up inception_5a/relu_pool_proj
I0403 21:47:08.775266 12820 net.cpp:148] Top shape: 24 128 7 7 (150528)
I0403 21:47:08.775281 12820 net.cpp:156] Memory required for data: 1305673248
I0403 21:47:08.775296 12820 layer_factory.hpp:77] Creating layer inception_5a/output
I0403 21:47:08.775315 12820 net.cpp:91] Creating Layer inception_5a/output
I0403 21:47:08.775331 12820 net.cpp:425] inception_5a/output <- inception_5a/1x1
I0403 21:47:08.775347 12820 net.cpp:425] inception_5a/output <- inception_5a/3x3
I0403 21:47:08.775362 12820 net.cpp:425] inception_5a/output <- inception_5a/5x5
I0403 21:47:08.775378 12820 net.cpp:425] inception_5a/output <- inception_5a/pool_proj
I0403 21:47:08.775394 12820 net.cpp:399] inception_5a/output -> inception_5a/output
I0403 21:47:08.775444 12820 net.cpp:141] Setting up inception_5a/output
I0403 21:47:08.775465 12820 net.cpp:148] Top shape: 24 832 7 7 (978432)
I0403 21:47:08.775480 12820 net.cpp:156] Memory required for data: 1309586976
I0403 21:47:08.775495 12820 layer_factory.hpp:77] Creating layer inception_5a/output_inception_5a/output_0_split
I0403 21:47:08.775511 12820 net.cpp:91] Creating Layer inception_5a/output_inception_5a/output_0_split
I0403 21:47:08.775527 12820 net.cpp:425] inception_5a/output_inception_5a/output_0_split <- inception_5a/output
I0403 21:47:08.775547 12820 net.cpp:399] inception_5a/output_inception_5a/output_0_split -> inception_5a/output_inception_5a/output_0_split_0
I0403 21:47:08.775565 12820 net.cpp:399] inception_5a/output_inception_5a/output_0_split -> inception_5a/output_inception_5a/output_0_split_1
I0403 21:47:08.775585 12820 net.cpp:399] inception_5a/output_inception_5a/output_0_split -> inception_5a/output_inception_5a/output_0_split_2
I0403 21:47:08.775605 12820 net.cpp:399] inception_5a/output_inception_5a/output_0_split -> inception_5a/output_inception_5a/output_0_split_3
I0403 21:47:08.775713 12820 net.cpp:141] Setting up inception_5a/output_inception_5a/output_0_split
I0403 21:47:08.775738 12820 net.cpp:148] Top shape: 24 832 7 7 (978432)
I0403 21:47:08.775754 12820 net.cpp:148] Top shape: 24 832 7 7 (978432)
I0403 21:47:08.775769 12820 net.cpp:148] Top shape: 24 832 7 7 (978432)
I0403 21:47:08.775785 12820 net.cpp:148] Top shape: 24 832 7 7 (978432)
I0403 21:47:08.775799 12820 net.cpp:156] Memory required for data: 1325241888
I0403 21:47:08.775812 12820 layer_factory.hpp:77] Creating layer inception_5b/1x1
I0403 21:47:08.775833 12820 net.cpp:91] Creating Layer inception_5b/1x1
I0403 21:47:08.775851 12820 net.cpp:425] inception_5b/1x1 <- inception_5a/output_inception_5a/output_0_split_0
I0403 21:47:08.775869 12820 net.cpp:399] inception_5b/1x1 -> inception_5b/1x1
I0403 21:47:08.779479 12820 net.cpp:141] Setting up inception_5b/1x1
I0403 21:47:08.779507 12820 net.cpp:148] Top shape: 24 384 7 7 (451584)
I0403 21:47:08.779522 12820 net.cpp:156] Memory required for data: 1327048224
I0403 21:47:08.779541 12820 layer_factory.hpp:77] Creating layer inception_5b/relu_1x1
I0403 21:47:08.779561 12820 net.cpp:91] Creating Layer inception_5b/relu_1x1
I0403 21:47:08.779578 12820 net.cpp:425] inception_5b/relu_1x1 <- inception_5b/1x1
I0403 21:47:08.779594 12820 net.cpp:386] inception_5b/relu_1x1 -> inception_5b/1x1 (in-place)
I0403 21:47:08.779886 12820 net.cpp:141] Setting up inception_5b/relu_1x1
I0403 21:47:08.779911 12820 net.cpp:148] Top shape: 24 384 7 7 (451584)
I0403 21:47:08.779924 12820 net.cpp:156] Memory required for data: 1328854560
I0403 21:47:08.779939 12820 layer_factory.hpp:77] Creating layer inception_5b/3x3_reduce
I0403 21:47:08.779961 12820 net.cpp:91] Creating Layer inception_5b/3x3_reduce
I0403 21:47:08.779978 12820 net.cpp:425] inception_5b/3x3_reduce <- inception_5a/output_inception_5a/output_0_split_1
I0403 21:47:08.779999 12820 net.cpp:399] inception_5b/3x3_reduce -> inception_5b/3x3_reduce
I0403 21:47:08.782596 12820 net.cpp:141] Setting up inception_5b/3x3_reduce
I0403 21:47:08.782625 12820 net.cpp:148] Top shape: 24 192 7 7 (225792)
I0403 21:47:08.782640 12820 net.cpp:156] Memory required for data: 1329757728
I0403 21:47:08.782660 12820 layer_factory.hpp:77] Creating layer inception_5b/relu_3x3_reduce
I0403 21:47:08.782680 12820 net.cpp:91] Creating Layer inception_5b/relu_3x3_reduce
I0403 21:47:08.782696 12820 net.cpp:425] inception_5b/relu_3x3_reduce <- inception_5b/3x3_reduce
I0403 21:47:08.782713 12820 net.cpp:386] inception_5b/relu_3x3_reduce -> inception_5b/3x3_reduce (in-place)
I0403 21:47:08.782896 12820 net.cpp:141] Setting up inception_5b/relu_3x3_reduce
I0403 21:47:08.782922 12820 net.cpp:148] Top shape: 24 192 7 7 (225792)
I0403 21:47:08.782938 12820 net.cpp:156] Memory required for data: 1330660896
I0403 21:47:08.782953 12820 layer_factory.hpp:77] Creating layer inception_5b/3x3
I0403 21:47:08.782974 12820 net.cpp:91] Creating Layer inception_5b/3x3
I0403 21:47:08.782990 12820 net.cpp:425] inception_5b/3x3 <- inception_5b/3x3_reduce
I0403 21:47:08.783009 12820 net.cpp:399] inception_5b/3x3 -> inception_5b/3x3
I0403 21:47:08.789567 12820 net.cpp:141] Setting up inception_5b/3x3
I0403 21:47:08.789597 12820 net.cpp:148] Top shape: 24 384 7 7 (451584)
I0403 21:47:08.789611 12820 net.cpp:156] Memory required for data: 1332467232
I0403 21:47:08.789629 12820 layer_factory.hpp:77] Creating layer inception_5b/relu_3x3
I0403 21:47:08.789649 12820 net.cpp:91] Creating Layer inception_5b/relu_3x3
I0403 21:47:08.789666 12820 net.cpp:425] inception_5b/relu_3x3 <- inception_5b/3x3
I0403 21:47:08.789683 12820 net.cpp:386] inception_5b/relu_3x3 -> inception_5b/3x3 (in-place)
I0403 21:47:08.789968 12820 net.cpp:141] Setting up inception_5b/relu_3x3
I0403 21:47:08.789993 12820 net.cpp:148] Top shape: 24 384 7 7 (451584)
I0403 21:47:08.790007 12820 net.cpp:156] Memory required for data: 1334273568
I0403 21:47:08.790021 12820 layer_factory.hpp:77] Creating layer inception_5b/5x5_reduce
I0403 21:47:08.790058 12820 net.cpp:91] Creating Layer inception_5b/5x5_reduce
I0403 21:47:08.790076 12820 net.cpp:425] inception_5b/5x5_reduce <- inception_5a/output_inception_5a/output_0_split_2
I0403 21:47:08.790101 12820 net.cpp:399] inception_5b/5x5_reduce -> inception_5b/5x5_reduce
I0403 21:47:08.791327 12820 net.cpp:141] Setting up inception_5b/5x5_reduce
I0403 21:47:08.791354 12820 net.cpp:148] Top shape: 24 48 7 7 (56448)
I0403 21:47:08.791370 12820 net.cpp:156] Memory required for data: 1334499360
I0403 21:47:08.791388 12820 layer_factory.hpp:77] Creating layer inception_5b/relu_5x5_reduce
I0403 21:47:08.791411 12820 net.cpp:91] Creating Layer inception_5b/relu_5x5_reduce
I0403 21:47:08.791429 12820 net.cpp:425] inception_5b/relu_5x5_reduce <- inception_5b/5x5_reduce
I0403 21:47:08.791445 12820 net.cpp:386] inception_5b/relu_5x5_reduce -> inception_5b/5x5_reduce (in-place)
I0403 21:47:08.791810 12820 net.cpp:141] Setting up inception_5b/relu_5x5_reduce
I0403 21:47:08.791833 12820 net.cpp:148] Top shape: 24 48 7 7 (56448)
I0403 21:47:08.791848 12820 net.cpp:156] Memory required for data: 1334725152
I0403 21:47:08.791862 12820 layer_factory.hpp:77] Creating layer inception_5b/5x5
I0403 21:47:08.791882 12820 net.cpp:91] Creating Layer inception_5b/5x5
I0403 21:47:08.791900 12820 net.cpp:425] inception_5b/5x5 <- inception_5b/5x5_reduce
I0403 21:47:08.791918 12820 net.cpp:399] inception_5b/5x5 -> inception_5b/5x5
I0403 21:47:08.793872 12820 net.cpp:141] Setting up inception_5b/5x5
I0403 21:47:08.793900 12820 net.cpp:148] Top shape: 24 128 7 7 (150528)
I0403 21:47:08.793915 12820 net.cpp:156] Memory required for data: 1335327264
I0403 21:47:08.793934 12820 layer_factory.hpp:77] Creating layer inception_5b/relu_5x5
I0403 21:47:08.793953 12820 net.cpp:91] Creating Layer inception_5b/relu_5x5
I0403 21:47:08.793969 12820 net.cpp:425] inception_5b/relu_5x5 <- inception_5b/5x5
I0403 21:47:08.793985 12820 net.cpp:386] inception_5b/relu_5x5 -> inception_5b/5x5 (in-place)
I0403 21:47:08.794176 12820 net.cpp:141] Setting up inception_5b/relu_5x5
I0403 21:47:08.794199 12820 net.cpp:148] Top shape: 24 128 7 7 (150528)
I0403 21:47:08.794220 12820 net.cpp:156] Memory required for data: 1335929376
I0403 21:47:08.794235 12820 layer_factory.hpp:77] Creating layer inception_5b/pool
I0403 21:47:08.794253 12820 net.cpp:91] Creating Layer inception_5b/pool
I0403 21:47:08.794268 12820 net.cpp:425] inception_5b/pool <- inception_5a/output_inception_5a/output_0_split_3
I0403 21:47:08.794289 12820 net.cpp:399] inception_5b/pool -> inception_5b/pool
I0403 21:47:08.794358 12820 net.cpp:141] Setting up inception_5b/pool
I0403 21:47:08.794381 12820 net.cpp:148] Top shape: 24 832 7 7 (978432)
I0403 21:47:08.794395 12820 net.cpp:156] Memory required for data: 1339843104
I0403 21:47:08.794410 12820 layer_factory.hpp:77] Creating layer inception_5b/pool_proj
I0403 21:47:08.794433 12820 net.cpp:91] Creating Layer inception_5b/pool_proj
I0403 21:47:08.794450 12820 net.cpp:425] inception_5b/pool_proj <- inception_5b/pool
I0403 21:47:08.794467 12820 net.cpp:399] inception_5b/pool_proj -> inception_5b/pool_proj
I0403 21:47:08.796700 12820 net.cpp:141] Setting up inception_5b/pool_proj
I0403 21:47:08.796727 12820 net.cpp:148] Top shape: 24 128 7 7 (150528)
I0403 21:47:08.796743 12820 net.cpp:156] Memory required for data: 1340445216
I0403 21:47:08.796761 12820 layer_factory.hpp:77] Creating layer inception_5b/relu_pool_proj
I0403 21:47:08.796814 12820 net.cpp:91] Creating Layer inception_5b/relu_pool_proj
I0403 21:47:08.796831 12820 net.cpp:425] inception_5b/relu_pool_proj <- inception_5b/pool_proj
I0403 21:47:08.796849 12820 net.cpp:386] inception_5b/relu_pool_proj -> inception_5b/pool_proj (in-place)
I0403 21:47:08.797150 12820 net.cpp:141] Setting up inception_5b/relu_pool_proj
I0403 21:47:08.797175 12820 net.cpp:148] Top shape: 24 128 7 7 (150528)
I0403 21:47:08.797189 12820 net.cpp:156] Memory required for data: 1341047328
I0403 21:47:08.797204 12820 layer_factory.hpp:77] Creating layer inception_5b/output
I0403 21:47:08.797231 12820 net.cpp:91] Creating Layer inception_5b/output
I0403 21:47:08.797261 12820 net.cpp:425] inception_5b/output <- inception_5b/1x1
I0403 21:47:08.797279 12820 net.cpp:425] inception_5b/output <- inception_5b/3x3
I0403 21:47:08.797296 12820 net.cpp:425] inception_5b/output <- inception_5b/5x5
I0403 21:47:08.797310 12820 net.cpp:425] inception_5b/output <- inception_5b/pool_proj
I0403 21:47:08.797327 12820 net.cpp:399] inception_5b/output -> inception_5b/output
I0403 21:47:08.797377 12820 net.cpp:141] Setting up inception_5b/output
I0403 21:47:08.797400 12820 net.cpp:148] Top shape: 24 1024 7 7 (1204224)
I0403 21:47:08.797413 12820 net.cpp:156] Memory required for data: 1345864224
I0403 21:47:08.797428 12820 layer_factory.hpp:77] Creating layer pool5/7x7_s1
I0403 21:47:08.797446 12820 net.cpp:91] Creating Layer pool5/7x7_s1
I0403 21:47:08.797464 12820 net.cpp:425] pool5/7x7_s1 <- inception_5b/output
I0403 21:47:08.797482 12820 net.cpp:399] pool5/7x7_s1 -> pool5/7x7_s1
I0403 21:47:08.797688 12820 net.cpp:141] Setting up pool5/7x7_s1
I0403 21:47:08.797714 12820 net.cpp:148] Top shape: 24 1024 1 1 (24576)
I0403 21:47:08.797729 12820 net.cpp:156] Memory required for data: 1345962528
I0403 21:47:08.797744 12820 layer_factory.hpp:77] Creating layer pool5/drop_7x7_s1
I0403 21:47:08.797761 12820 net.cpp:91] Creating Layer pool5/drop_7x7_s1
I0403 21:47:08.797776 12820 net.cpp:425] pool5/drop_7x7_s1 <- pool5/7x7_s1
I0403 21:47:08.797793 12820 net.cpp:386] pool5/drop_7x7_s1 -> pool5/7x7_s1 (in-place)
I0403 21:47:08.797843 12820 net.cpp:141] Setting up pool5/drop_7x7_s1
I0403 21:47:08.797866 12820 net.cpp:148] Top shape: 24 1024 1 1 (24576)
I0403 21:47:08.797880 12820 net.cpp:156] Memory required for data: 1346060832
I0403 21:47:08.797895 12820 layer_factory.hpp:77] Creating layer loss3/classifier_plantvillage
I0403 21:47:08.797916 12820 net.cpp:91] Creating Layer loss3/classifier_plantvillage
I0403 21:47:08.797932 12820 net.cpp:425] loss3/classifier_plantvillage <- pool5/7x7_s1
I0403 21:47:08.797950 12820 net.cpp:399] loss3/classifier_plantvillage -> loss3/classifier_plantvillage
I0403 21:47:08.798360 12820 net.cpp:141] Setting up loss3/classifier_plantvillage
I0403 21:47:08.798383 12820 net.cpp:148] Top shape: 24 38 (912)
I0403 21:47:08.798398 12820 net.cpp:156] Memory required for data: 1346064480
I0403 21:47:08.798413 12820 layer_factory.hpp:77] Creating layer loss3/classifier_plantvillage_loss3/classifier_plantvillage_0_split
I0403 21:47:08.798431 12820 net.cpp:91] Creating Layer loss3/classifier_plantvillage_loss3/classifier_plantvillage_0_split
I0403 21:47:08.798446 12820 net.cpp:425] loss3/classifier_plantvillage_loss3/classifier_plantvillage_0_split <- loss3/classifier_plantvillage
I0403 21:47:08.798466 12820 net.cpp:399] loss3/classifier_plantvillage_loss3/classifier_plantvillage_0_split -> loss3/classifier_plantvillage_loss3/classifier_plantvillage_0_split_0
I0403 21:47:08.798487 12820 net.cpp:399] loss3/classifier_plantvillage_loss3/classifier_plantvillage_0_split -> loss3/classifier_plantvillage_loss3/classifier_plantvillage_0_split_1
I0403 21:47:08.798506 12820 net.cpp:399] loss3/classifier_plantvillage_loss3/classifier_plantvillage_0_split -> loss3/classifier_plantvillage_loss3/classifier_plantvillage_0_split_2
I0403 21:47:08.798526 12820 net.cpp:399] loss3/classifier_plantvillage_loss3/classifier_plantvillage_0_split -> loss3/classifier_plantvillage_loss3/classifier_plantvillage_0_split_3
I0403 21:47:08.798622 12820 net.cpp:141] Setting up loss3/classifier_plantvillage_loss3/classifier_plantvillage_0_split
I0403 21:47:08.798647 12820 net.cpp:148] Top shape: 24 38 (912)
I0403 21:47:08.798663 12820 net.cpp:148] Top shape: 24 38 (912)
I0403 21:47:08.798678 12820 net.cpp:148] Top shape: 24 38 (912)
I0403 21:47:08.798692 12820 net.cpp:148] Top shape: 24 38 (912)
I0403 21:47:08.798707 12820 net.cpp:156] Memory required for data: 1346079072
I0403 21:47:08.798719 12820 layer_factory.hpp:77] Creating layer loss1/loss
I0403 21:47:08.798740 12820 net.cpp:91] Creating Layer loss1/loss
I0403 21:47:08.798756 12820 net.cpp:425] loss1/loss <- loss1/classifier_plantvillage_loss1/classifier_plantvillage_0_split_0
I0403 21:47:08.798785 12820 net.cpp:425] loss1/loss <- label_data_1_split_0
…
