…
I0403 21:54:59.072861 13273 net.cpp:313] The NetState phase (1) differed from the phase (0) specified by a rule in layer data
I0403 21:54:59.074129 13273 net.cpp:49] Initializing net from parameters: 
state {
  phase: TEST
}
layer {
  name: "data"
  type: "Data"
  top: "data"
  top: "label"
  include {
    phase: TEST
  }
  transform_param {
    mirror: false
    crop_size: 224
    mean_file: "/home/mohanty/data/final_dataset/lmdb/color-80-20/mean.binaryproto"
  }
  data_param {
    source: "/home/mohanty/data/final_dataset/lmdb/color-80-20/test_db"
    batch_size: 24
    backend: LMDB
  }
}
layer {
  name: "conv1/7x7_s2"
  type: "Convolution"
  bottom: "data"
  top: "conv1/7x7_s2"
  param {
    lr_mult: 1
    decay_mult: 1
  }
  param {
    lr_mult: 2
    decay_mult: 0
  }
  convolution_param {
    num_output: 64
    pad: 3
    kernel_size: 7
    stride: 2
    weight_filler {
      type: "xavier"
      std: 0.1
    }
    bias_filler {
      type: "constant"
      value: 0.2
    }
  }
}
layer {
  name: "conv1/relu_7x7"
  type: "ReLU"
  bottom: "conv1/7x7_s2"
  top: "conv1/7x7_s2"
}
layer {
  name: "pool1/3x3_s2"
  type: "Pooling"
  bottom: "conv1/7x7_s2"
  top: "pool1/3x3_s2"
  pooling_param {
    pool: MAX
    kernel_size: 3
    stride: 2
  }
}
layer {
  name: "pool1/norm1"
  type: "LRN"
  bottom: "pool1/3x3_s2"
  top: "pool1/norm1"
  lrn_param {
    local_size: 5
    alpha: 0.0001
    beta: 0.75
  }
}
layer {
  name: "conv2/3x3_reduce"
  type: "Convolution"
  bottom: "pool1/norm1"
  top: "conv2/3x3_reduce"
  param {
    lr_mult: 1
    decay_mult: 1
  }
  param {
    lr_mult: 2
    decay_mult: 0
  }
  convolution_param {
    num_output: 64
    kernel_size: 1
    weight_filler {
      type: "xavier"
      std: 0.1
    }
    bias_filler {
      type: "constant"
      value: 0.2
    }
  }
}
layer {
  name: "conv2/relu_3x3_reduce"
  type: "ReLU"
  bottom: "conv2/3x3_reduce"
  top: "conv2/3x3_reduce"
}
layer {
  name: "conv2/3x3"
  type: "Convolution"
  bottom: "conv2/3x3_reduce"
  top: "conv2/3x3"
  param {
    lr_mult: 1
    decay_mult: 1
  }
  param {
    lr_mult: 2
    decay_mult: 0
  }
  convolution_param {
    num_output: 192
    pad: 1
    kernel_size: 3
    weight_filler {
      type: "xavier"
      std: 0.03
    }
    bias_filler {
      type: "constant"
      value: 0.2
    }
  }
}
layer {
  name: "conv2/relu_3x3"
  type: "ReLU"
  bottom: "conv2/3x3"
  top: "conv2/3x3"
}
layer {
  name: "conv2/norm2"
  type: "LRN"
  bottom: "conv2/3x3"
  top: "conv2/norm2"
  lrn_param {
    local_size: 5
    alpha: 0.0001
    beta: 0.75
  }
}
layer {
  name: "pool2/3x3_s2"
  type: "Pooling"
  bottom: "conv2/norm2"
  top: "pool2/3x3_s2"
  pooling_param {
    pool: MAX
    kernel_size: 3
    stride: 2
  }
}
layer {
  name: "inception_3a/1x1"
  type: "Convolution"
  bottom: "pool2/3x3_s2"
  top: "inception_3a/1x1"
  param {
    lr_mult: 1
    decay_mult: 1
  }
  param {
    lr_mult: 2
    decay_mult: 0
  }
  convolution_param {
    num_output: 64
    kernel_size: 1
    weight_filler {
      type: "xavier"
      std: 0.03
    }
    bias_filler {
      type: "constant"
      value: 0.2
    }
  }
}
layer {
  name: "inception_3a/relu_1x1"
  type: "ReLU"
  bottom: "inception_3a/1x1"
  top: "inception_3a/1x1"
}
layer {
  name: "inception_3a/3x3_reduce"
  type: "Convolution"
  bottom: "pool2/3x3_s2"
  top: "inception_3a/3x3_reduce"
  param {
    lr_mult: 1
    decay_mult: 1
  }
  param {
    lr_mult: 2
    decay_mult: 0
  }
  convolution_param {
    num_output: 96
    kernel_size: 1
    weight_filler {
      type: "xavier"
      std: 0.09
    }
    bias_filler {
      type: "constant"
      value: 0.2
    }
  }
}
layer {
  name: "inception_3a/relu_3x3_reduce"
  type: "ReLU"
  bottom: "inception_3a/3x3_reduce"
  top: "inception_3a/3x3_reduce"
}
layer {
  name: "inception_3a/3x3"
  type: "Convolution"
  bottom: "inception_3a/3x3_reduce"
  top: "inception_3a/3x3"
  param {
    lr_mult: 1
    decay_mult: 1
  }
  param {
    lr_mult: 2
    decay_mult: 0
  }
  convolution_param {
    num_output: 128
    pad: 1
    kernel_size: 3
    weight_filler {
      type: "xavier"
      std: 0.03
    }
    bias_filler {
      type: "constant"
      value: 0.2
    }
  }
}
layer {
  name: "inception_3a/relu_3x3"
  type: "ReLU"
  bottom: "inception_3a/3x3"
  top: "inception_3a/3x3"
}
layer {
  name: "inception_3a/5x5_reduce"
  type: "Convolution"
  bottom: "pool2/3x3_s2"
  top: "inception_3a/5x5_reduce"
  param {
    lr_mult: 1
    decay_mult: 1
  }
  param {
    lr_mult: 2
    decay_mult: 0
  }
  convolution_param {
    num_output: 16
    kernel_size: 1
    weight_filler {
      type: "xavier"
      std: 0.2
    }
    bias_filler {
      type: "constant"
      value: 0.2
    }
  }
}
layer {
  name: "inception_3a/relu_5x5_reduce"
  type: "ReLU"
  bottom: "inception_3a/5x5_reduce"
  top: "inception_3a/5x5_reduce"
}
layer {
  name: "inception_3a/5x5"
  type: "Convolution"
  bottom: "inception_3a/5x5_reduce"
  top: "inception_3a/5x5"
  param {
    lr_mult: 1
    decay_mult: 1
  }
  param {
    lr_mult: 2
    decay_mult: 0
  }
  convolution_param {
    num_output: 32
    pad: 2
    kernel_size: 5
    weight_filler {
      type: "xavier"
      std: 0.03
    }
    bias_filler {
      type: "constant"
      value: 0.2
    }
  }
}
layer {
  name: "inception_3a/relu_5x5"
  type: "ReLU"
  bottom: "inception_3a/5x5"
  top: "inception_3a/5x5"
}
layer {
  name: "inception_3a/pool"
  type: "Pooling"
  bottom: "pool2/3x3_s2"
  top: "inception_3a/pool"
  pooling_param {
    pool: MAX
    kernel_size: 3
    stride: 1
    pad: 1
  }
}
layer {
  name: "inception_3a/pool_proj"
  type: "Convolution"
  bottom: "inception_3a/pool"
  top: "inception_3a/pool_proj"
  param {
    lr_mult: 1
    decay_mult: 1
  }
  param {
    lr_mult: 2
    decay_mult: 0
  }
  convolution_param {
    num_output: 32
    kernel_size: 1
    weight_filler {
      type: "xavier"
      std: 0.1
    }
    bias_filler {
      type: "constant"
      value: 0.2
    }
  }
}
layer {
  name: "inception_3a/relu_pool_proj"
  type: "ReLU"
  bottom: "inception_3a/pool_proj"
  top: "inception_3a/pool_proj"
}
layer {
  name: "inception_3a/output"
  type: "Concat"
  bottom: "inception_3a/1x1"
  bottom: "inception_3a/3x3"
  bottom: "inception_3a/5x5"
  bottom: "inception_3a/pool_proj"
  top: "inception_3a/output"
}
layer {
  name: "inception_3b/1x1"
  type: "Convolution"
  bottom: "inception_3a/output"
  top: "inception_3b/1x1"
  param {
    lr_mult: 1
    decay_mult: 1
  }
  param {
    lr_mult: 2
    decay_mult: 0
  }
  convolution_param {
    num_output: 128
    kernel_size: 1
    weight_filler {
      type: "xavier"
      std: 0.03
    }
    bias_filler {
      type: "constant"
      value: 0.2
    }
  }
}
layer {
  name: "inception_3b/relu_1x1"
  type: "ReLU"
  bottom: "inception_3b/1x1"
  top: "inception_3b/1x1"
}
layer {
  name: "inception_3b/3x3_reduce"
  type: "Convolution"
  bottom: "inception_3a/output"
  top: "inception_3b/3x3_reduce"
  param {
    lr_mult: 1
    decay_mult: 1
  }
  param {
    lr_mult: 2
    decay_mult: 0
  }
  convolution_param {
    num_output: 128
    kernel_size: 1
    weight_filler {
      type: "xavier"
      std: 0.09
    }
    bias_filler {
      type: "constant"
      value: 0.2
    }
  }
}
layer {
  name: "inception_3b/relu_3x3_reduce"
  type: "ReLU"
  bottom: "inception_3b/3x3_reduce"
  top: "inception_3b/3x3_reduce"
}
layer {
  name: "inception_3b/3x3"
  type: "Convolution"
  bottom: "inception_3b/3x3_reduce"
  top: "inception_3b/3x3"
  param {
    lr_mult: 1
    decay_mult: 1
  }
  param {
    lr_mult: 2
    decay_mult: 0
  }
  convolution_param {
    num_output: 192
    pad: 1
    kernel_size: 3
    weight_filler {
      type: "xavier"
      std: 0.03
    }
    bias_filler {
      type: "constant"
      value: 0.2
    }
  }
}
layer {
  name: "inception_3b/relu_3x3"
  type: "ReLU"
  bottom: "inception_3b/3x3"
  top: "inception_3b/3x3"
}
layer {
  name: "inception_3b/5x5_reduce"
  type: "Convolution"
  bottom: "inception_3a/output"
  top: "inception_3b/5x5_reduce"
  param {
    lr_mult: 1
    decay_mult: 1
  }
  param {
    lr_mult: 2
    decay_mult: 0
  }
  convolution_param {
    num_output: 32
    kernel_size: 1
    weight_filler {
      type: "xavier"
      std: 0.2
    }
    bias_filler {
      type: "constant"
      value: 0.2
    }
  }
}
layer {
  name: "inception_3b/relu_5x5_reduce"
  type: "ReLU"
  bottom: "inception_3b/5x5_reduce"
  top: "inception_3b/5x5_reduce"
}
layer {
  name: "inception_3b/5x5"
  type: "Convolution"
  bottom: "inception_3b/5x5_reduce"
  top: "inception_3b/5x5"
  param {
    lr_mult: 1
    decay_mult: 1
  }
  param {
    lr_mult: 2
    decay_mult: 0
  }
  convolution_param {
    num_output: 96
    pad: 2
    kernel_size: 5
    weight_filler {
      type: "xavier"
      std: 0.03
    }
    bias_filler {
      type: "constant"
      value: 0.2
    }
  }
}
layer {
  name: "inception_3b/relu_5x5"
  type: "ReLU"
  bottom: "inception_3b/5x5"
  top: "inception_3b/5x5"
}
layer {
  name: "inception_3b/pool"
  type: "Pooling"
  bottom: "inception_3a/output"
  top: "inception_3b/pool"
  pooling_param {
    pool: MAX
    kernel_size: 3
    stride: 1
    pad: 1
  }
}
layer {
  name: "inception_3b/pool_proj"
  type: "Convolution"
  bottom: "inception_3b/pool"
  top: "inception_3b/pool_proj"
  param {
    lr_mult: 1
    decay_mult: 1
  }
  param {
    lr_mult: 2
    decay_mult: 0
  }
  convolution_param {
    num_output: 64
    kernel_size: 1
    weight_filler {
      type: "xavier"
      std: 0.1
    }
    bias_filler {
      type: "constant"
      value: 0.2
    }
  }
}
layer {
  name: "inception_3b/relu_pool_proj"
  type: "ReLU"
  bottom: "inception_3b/pool_proj"
  top: "inception_3b/pool_proj"
}
layer {
  name: "inception_3b/output"
  type: "Concat"
  bottom: "inception_3b/1x1"
  bottom: "inception_3b/3x3"
  bottom: "inception_3b/5x5"
  bottom: "inception_3b/pool_proj"
  top: "inception_3b/output"
}
layer {
  name: "pool3/3x3_s2"
  type: "Pooling"
  bottom: "inception_3b/output"
  top: "pool3/3x3_s2"
  pooling_param {
    pool: MAX
    kernel_size: 3
    stride: 2
  }
}
layer {
  name: "inception_4a/1x1"
  type: "Convolution"
  bottom: "pool3/3x3_s2"
  top: "inception_4a/1x1"
  param {
    lr_mult: 1
    decay_mult: 1
  }
  param {
    lr_mult: 2
    decay_mult: 0
  }
  convolution_param {
    num_output: 192
    kernel_size: 1
    weight_filler {
      type: "xavier"
      std: 0.03
    }
    bias_filler {
      type: "constant"
      value: 0.2
    }
  }
}
layer {
  name: "inception_4a/relu_1x1"
  type: "ReLU"
  bottom: "inception_4a/1x1"
  top: "inception_4a/1x1"
}
layer {
  name: "inception_4a/3x3_reduce"
  type: "Convolution"
  bottom: "pool3/3x3_s2"
  top: "inception_4a/3x3_reduce"
  param {
    lr_mult: 1
    decay_mult: 1
  }
  param {
    lr_mult: 2
    decay_mult: 0
  }
  convolution_param {
    num_output: 96
    kernel_size: 1
    weight_filler {
      type: "xavier"
      std: 0.09
    }
    bias_filler {
      type: "constant"
      value: 0.2
    }
  }
}
layer {
  name: "inception_4a/relu_3x3_reduce"
  type: "ReLU"
  bottom: "inception_4a/3x3_reduce"
  top: "inception_4a/3x3_reduce"
}
layer {
  name: "inception_4a/3x3"
  type: "Convolution"
  bottom: "inception_4a/3x3_reduce"
  top: "inception_4a/3x3"
  param {
    lr_mult: 1
    decay_mult: 1
  }
  param {
    lr_mult: 2
    decay_mult: 0
  }
  convolution_param {
    num_output: 208
    pad: 1
    kernel_size: 3
    weight_filler {
      type: "xavier"
      std: 0.03
    }
    bias_filler {
      type: "constant"
      value: 0.2
    }
  }
}
layer {
  name: "inception_4a/relu_3x3"
  type: "ReLU"
  bottom: "inception_4a/3x3"
  top: "inception_4a/3x3"
}
layer {
  name: "inception_4a/5x5_reduce"
  type: "Convolution"
  bottom: "pool3/3x3_s2"
  top: "inception_4a/5x5_reduce"
  param {
    lr_mult: 1
    decay_mult: 1
  }
  param {
    lr_mult: 2
    decay_mult: 0
  }
  convolution_param {
    num_output: 16
    kernel_size: 1
    weight_filler {
      type: "xavier"
      std: 0.2
    }
    bias_filler {
      type: "constant"
      value: 0.2
    }
  }
}
layer {
  name: "inception_4a/relu_5x5_reduce"
  type: "ReLU"
  bottom: "inception_4a/5x5_reduce"
  top: "inception_4a/5x5_reduce"
}
layer {
  name: "inception_4a/5x5"
  type: "Convolution"
  bottom: "inception_4a/5x5_reduce"
  top: "inception_4a/5x5"
  param {
    lr_mult: 1
    decay_mult: 1
  }
  param {
    lr_mult: 2
    decay_mult: 0
  }
  convolution_param {
    num_output: 48
    pad: 2
    kernel_size: 5
    weight_filler {
      type: "xavier"
      std: 0.03
    }
    bias_filler {
      type: "constant"
      value: 0.2
    }
  }
}
layer {
  name: "inception_4a/relu_5x5"
  type: "ReLU"
  bottom: "inception_4a/5x5"
  top: "inception_4a/5x5"
}
layer {
  name: "inception_4a/pool"
  type: "Pooling"
  bottom: "pool3/3x3_s2"
  top: "inception_4a/pool"
  pooling_param {
    pool: MAX
    kernel_size: 3
    stride: 1
    pad: 1
  }
}
layer {
  name: "inception_4a/pool_proj"
  type: "Convolution"
  bottom: "inception_4a/pool"
  top: "inception_4a/pool_proj"
  param {
    lr_mult: 1
    decay_mult: 1
  }
  param {
    lr_mult: 2
    decay_mult: 0
  }
  convolution_param {
    num_output: 64
    kernel_size: 1
    weight_filler {
      type: "xavier"
      std: 0.1
    }
    bias_filler {
      type: "constant"
      value: 0.2
    }
  }
}
layer {
  name: "inception_4a/relu_pool_proj"
  type: "ReLU"
  bottom: "inception_4a/pool_proj"
  top: "inception_4a/pool_proj"
}
layer {
  name: "inception_4a/output"
  type: "Concat"
  bottom: "inception_4a/1x1"
  bottom: "inception_4a/3x3"
  bottom: "inception_4a/5x5"
  bottom: "inception_4a/pool_proj"
  top: "inception_4a/output"
}
layer {
  name: "loss1/ave_pool"
  type: "Pooling"
  bottom: "inception_4a/output"
  top: "loss1/ave_pool"
  pooling_param {
    pool: AVE
    kernel_size: 5
    stride: 3
  }
}
layer {
  name: "loss1/conv"
  type: "Convolution"
  bottom: "loss1/ave_pool"
  top: "loss1/conv"
  param {
    lr_mult: 1
    decay_mult: 1
  }
  param {
    lr_mult: 2
    decay_mult: 0
  }
  convolution_param {
    num_output: 128
    kernel_size: 1
    weight_filler {
      type: "xavier"
      std: 0.08
    }
    bias_filler {
      type: "constant"
      value: 0.2
    }
  }
}
layer {
  name: "loss1/relu_conv"
  type: "ReLU"
  bottom: "loss1/conv"
  top: "loss1/conv"
}
layer {
  name: "loss1/fc"
  type: "InnerProduct"
  bottom: "loss1/conv"
  top: "loss1/fc"
  param {
    lr_mult: 1
    decay_mult: 1
  }
  param {
    lr_mult: 2
    decay_mult: 0
  }
  inner_product_param {
    num_output: 1024
    weight_filler {
      type: "xavier"
      std: 0.02
    }
    bias_filler {
      type: "constant"
      value: 0.2
    }
  }
}
layer {
  name: "loss1/relu_fc"
  type: "ReLU"
  bottom: "loss1/fc"
  top: "loss1/fc"
}
layer {
  name: "loss1/drop_fc"
  type: "Dropout"
  bottom: "loss1/fc"
  top: "loss1/fc"
  dropout_param {
    dropout_ratio: 0.7
  }
}
layer {
  name: "loss1/classifier_plantvillage"
  type: "InnerProduct"
  bottom: "loss1/fc"
  top: "loss1/classifier_plantvillage"
  param {
    lr_mult: 1
    decay_mult: 1
  }
  param {
    lr_mult: 2
    decay_mult: 0
  }
  inner_product_param {
    num_output: 38
    weight_filler {
      type: "xavier"
      std: 0.0009765625
    }
    bias_filler {
      type: "constant"
      value: 0
    }
  }
}
layer {
  name: "inception_4b/1x1"
  type: "Convolution"
  bottom: "inception_4a/output"
  top: "inception_4b/1x1"
  param {
    lr_mult: 1
    decay_mult: 1
  }
  param {
    lr_mult: 2
    decay_mult: 0
  }
  convolution_param {
    num_output: 160
    kernel_size: 1
    weight_filler {
      type: "xavier"
      std: 0.03
    }
    bias_filler {
      type: "constant"
      value: 0.2
    }
  }
}
layer {
  name: "inception_4b/relu_1x1"
  type: "ReLU"
  bottom: "inception_4b/1x1"
  top: "inception_4b/1x1"
}
layer {
  name: "inception_4b/3x3_reduce"
  type: "Convolution"
  bottom: "inception_4a/output"
  top: "inception_4b/3x3_reduce"
  param {
    lr_mult: 1
    decay_mult: 1
  }
  param {
    lr_mult: 2
    decay_mult: 0
  }
  convolution_param {
    num_output: 112
    kernel_size: 1
    weight_filler {
      type: "xavier"
      std: 0.09
    }
    bias_filler {
      type: "constant"
      value: 0.2
    }
  }
}
layer {
  name: "inception_4b/relu_3x3_reduce"
  type: "ReLU"
  bottom: "inception_4b/3x3_reduce"
  top: "inception_4b/3x3_reduce"
}
layer {
  name: "inception_4b/3x3"
  type: "Convolution"
  bottom: "inception_4b/3x3_reduce"
  top: "inception_4b/3x3"
  param {
    lr_mult: 1
    decay_mult: 1
  }
  param {
    lr_mult: 2
    decay_mult: 0
  }
  convolution_param {
    num_output: 224
    pad: 1
    kernel_size: 3
    weight_filler {
      type: "xavier"
      std: 0.03
    }
    bias_filler {
      type: "constant"
      value: 0.2
    }
  }
}
layer {
  name: "inception_4b/relu_3x3"
  type: "ReLU"
  bottom: "inception_4b/3x3"
  top: "inception_4b/3x3"
}
layer {
  name: "inception_4b/5x5_reduce"
  type: "Convolution"
  bottom: "inception_4a/output"
  top: "inception_4b/5x5_reduce"
  param {
    lr_mult: 1
    decay_mult: 1
  }
  param {
    lr_mult: 2
    decay_mult: 0
  }
  convolution_param {
    num_output: 24
    kernel_size: 1
    weight_filler {
      type: "xavier"
      std: 0.2
    }
    bias_filler {
      type: "constant"
      value: 0.2
    }
  }
}
layer {
  name: "inception_4b/relu_5x5_reduce"
  type: "ReLU"
  bottom: "inception_4b/5x5_reduce"
  top: "inception_4b/5x5_reduce"
}
layer {
  name: "inception_4b/5x5"
  type: "Convolution"
  bottom: "inception_4b/5x5_reduce"
  top: "inception_4b/5x5"
  param {
    lr_mult: 1
    decay_mult: 1
  }
  param {
    lr_mult: 2
    decay_mult: 0
  }
  convolution_param {
    num_output: 64
    pad: 2
    kernel_size: 5
    weight_filler {
      type: "xavier"
      std: 0.03
    }
    bias_filler {
      type: "constant"
      value: 0.2
    }
  }
}
layer {
  name: "inception_4b/relu_5x5"
  type: "ReLU"
  bottom: "inception_4b/5x5"
  top: "inception_4b/5x5"
}
layer {
  name: "inception_4b/pool"
  type: "Pooling"
  bottom: "inception_4a/output"
  top: "inception_4b/pool"
  pooling_param {
    pool: MAX
    kernel_size: 3
    stride: 1
    pad: 1
  }
}
layer {
  name: "inception_4b/pool_proj"
  type: "Convolution"
  bottom: "inception_4b/pool"
  top: "inception_4b/pool_proj"
  param {
    lr_mult: 1
    decay_mult: 1
  }
  param {
    lr_mult: 2
    decay_mult: 0
  }
  convolution_param {
    num_output: 64
    kernel_size: 1
    weight_filler {
      type: "xavier"
      std: 0.1
    }
    bias_filler {
      type: "constant"
      value: 0.2
    }
  }
}
layer {
  name: "inception_4b/relu_pool_proj"
  type: "ReLU"
  bottom: "inception_4b/pool_proj"
  top: "inception_4b/pool_proj"
}
layer {
  name: "inception_4b/output"
  type: "Concat"
  bottom: "inception_4b/1x1"
  bottom: "inception_4b/3x3"
  bottom: "inception_4b/5x5"
  bottom: "inception_4b/pool_proj"
  top: "inception_4b/output"
}
layer {
  name: "inception_4c/1x1"
  type: "Convolution"
  bottom: "inception_4b/output"
  top: "inception_4c/1x1"
  param {
    lr_mult: 1
    decay_mult: 1
  }
  param {
    lr_mult: 2
    decay_mult: 0
  }
  convolution_param {
    num_output: 128
    kernel_size: 1
    weight_filler {
      type: "xavier"
      std: 0.03
    }
    bias_filler {
      type: "constant"
      value: 0.2
    }
  }
}
layer {
  name: "inception_4c/relu_1x1"
  type: "ReLU"
  bottom: "inception_4c/1x1"
  top: "inception_4c/1x1"
}
layer {
  name: "inception_4c/3x3_reduce"
  type: "Convolution"
  bottom: "inception_4b/output"
  top: "inception_4c/3x3_reduce"
  param {
    lr_mult: 1
    decay_mult: 1
  }
  param {
    lr_mult: 2
    decay_mult: 0
  }
  convolution_param {
    num_output: 128
    kernel_size: 1
    weight_filler {
      type: "xavier"
      std: 0.09
    }
    bias_filler {
      type: "constant"
      value: 0.2
    }
  }
}
layer {
  name: "inception_4c/relu_3x3_reduce"
  type: "ReLU"
  bottom: "inception_4c/3x3_reduce"
  top: "inception_4c/3x3_reduce"
}
layer {
  name: "inception_4c/3x3"
  type: "Convolution"
  bottom: "inception_4c/3x3_reduce"
  top: "inception_4c/3x3"
  param {
    lr_mult: 1
    decay_mult: 1
  }
  param {
    lr_mult: 2
    decay_mult: 0
  }
  convolution_param {
    num_output: 256
    pad: 1
    kernel_size: 3
    weight_filler {
      type: "xavier"
      std: 0.03
    }
    bias_filler {
      type: "constant"
      value: 0.2
    }
  }
}
layer {
  name: "inception_4c/relu_3x3"
  type: "ReLU"
  bottom: "inception_4c/3x3"
  top: "inception_4c/3x3"
}
layer {
  name: "inception_4c/5x5_reduce"
  type: "Convolution"
  bottom: "inception_4b/output"
  top: "inception_4c/5x5_reduce"
  param {
    lr_mult: 1
    decay_mult: 1
  }
  param {
    lr_mult: 2
    decay_mult: 0
  }
  convolution_param {
    num_output: 24
    kernel_size: 1
    weight_filler {
      type: "xavier"
      std: 0.2
    }
    bias_filler {
      type: "constant"
      value: 0.2
    }
  }
}
layer {
  name: "inception_4c/relu_5x5_reduce"
  type: "ReLU"
  bottom: "inception_4c/5x5_reduce"
  top: "inception_4c/5x5_reduce"
}
layer {
  name: "inception_4c/5x5"
  type: "Convolution"
  bottom: "inception_4c/5x5_reduce"
  top: "inception_4c/5x5"
  param {
    lr_mult: 1
    decay_mult: 1
  }
  param {
    lr_mult: 2
    decay_mult: 0
  }
  convolution_param {
    num_output: 64
    pad: 2
    kernel_size: 5
    weight_filler {
      type: "xavier"
      std: 0.03
    }
    bias_filler {
      type: "constant"
      value: 0.2
    }
  }
}
layer {
  name: "inception_4c/relu_5x5"
  type: "ReLU"
  bottom: "inception_4c/5x5"
  top: "inception_4c/5x5"
}
layer {
  name: "inception_4c/pool"
  type: "Pooling"
  bottom: "inception_4b/output"
  top: "inception_4c/pool"
  pooling_param {
    pool: MAX
    kernel_size: 3
    stride: 1
    pad: 1
  }
}
layer {
  name: "inception_4c/pool_proj"
  type: "Convolution"
  bottom: "inception_4c/pool"
  top: "inception_4c/pool_proj"
  param {
    lr_mult: 1
    decay_mult: 1
  }
  param {
    lr_mult: 2
    decay_mult: 0
  }
  convolution_param {
    num_output: 64
    kernel_size: 1
    weight_filler {
      type: "xavier"
      std: 0.1
    }
    bias_filler {
      type: "constant"
      value: 0.2
    }
  }
}
layer {
  name: "inception_4c/relu_pool_proj"
  type: "ReLU"
  bottom: "inception_4c/pool_proj"
  top: "inception_4c/pool_proj"
}
layer {
  name: "inception_4c/output"
  type: "Concat"
  bottom: "inception_4c/1x1"
  bottom: "inception_4c/3x3"
  bottom: "inception_4c/5x5"
  bottom: "inception_4c/pool_proj"
  top: "inception_4c/output"
}
layer {
  name: "inception_4d/1x1"
  type: "Convolution"
  bottom: "inception_4c/output"
  top: "inception_4d/1x1"
  param {
    lr_mult: 1
    decay_mult: 1
  }
  param {
    lr_mult: 2
    decay_mult: 0
  }
  convolution_param {
    num_output: 112
    kernel_size: 1
    weight_filler {
      type: "xavier"
      std: 0.03
    }
    bias_filler {
      type: "constant"
      value: 0.2
    }
  }
}
layer {
  name: "inception_4d/relu_1x1"
  type: "ReLU"
  bottom: "inception_4d/1x1"
  top: "inception_4d/1x1"
}
layer {
  name: "inception_4d/3x3_reduce"
  type: "Convolution"
  bottom: "inception_4c/output"
  top: "inception_4d/3x3_reduce"
  param {
    lr_mult: 1
    decay_mult: 1
  }
  param {
    lr_mult: 2
    decay_mult: 0
  }
  convolution_param {
    num_output: 144
    kernel_size: 1
    weight_filler {
      type: "xavier"
      std: 0.09
    }
    bias_filler {
      type: "constant"
      value: 0.2
    }
  }
}
layer {
  name: "inception_4d/relu_3x3_reduce"
  type: "ReLU"
  bottom: "inception_4d/3x3_reduce"
  top: "inception_4d/3x3_reduce"
}
layer {
  name: "inception_4d/3x3"
  type: "Convolution"
  bottom: "inception_4d/3x3_reduce"
  top: "inception_4d/3x3"
  param {
    lr_mult: 1
    decay_mult: 1
  }
  param {
    lr_mult: 2
    decay_mult: 0
  }
  convolution_param {
    num_output: 288
    pad: 1
    kernel_size: 3
    weight_filler {
      type: "xavier"
      std: 0.03
    }
    bias_filler {
      type: "constant"
      value: 0.2
    }
  }
}
layer {
  name: "inception_4d/relu_3x3"
  type: "ReLU"
  bottom: "inception_4d/3x3"
  top: "inception_4d/3x3"
}
layer {
  name: "inception_4d/5x5_reduce"
  type: "Convolution"
  bottom: "inception_4c/output"
  top: "inception_4d/5x5_reduce"
  param {
    lr_mult: 1
    decay_mult: 1
  }
  param {
    lr_mult: 2
    decay_mult: 0
  }
  convolution_param {
    num_output: 32
    kernel_size: 1
    weight_filler {
      type: "xavier"
      std: 0.2
    }
    bias_filler {
      type: "constant"
      value: 0.2
    }
  }
}
layer {
  name: "inception_4d/relu_5x5_reduce"
  type: "ReLU"
  bottom: "inception_4d/5x5_reduce"
  top: "inception_4d/5x5_reduce"
}
layer {
  name: "inception_4d/5x5"
  type: "Convolution"
  bottom: "inception_4d/5x5_reduce"
  top: "inception_4d/5x5"
  param {
    lr_mult: 1
    decay_mult: 1
  }
  param {
    lr_mult: 2
    decay_mult: 0
  }
  convolution_param {
    num_output: 64
    pad: 2
    kernel_size: 5
    weight_filler {
      type: "xavier"
      std: 0.03
    }
    bias_filler {
      type: "constant"
      value: 0.2
    }
  }
}
layer {
  name: "inception_4d/relu_5x5"
  type: "ReLU"
  bottom: "inception_4d/5x5"
  top: "inception_4d/5x5"
}
layer {
  name: "inception_4d/pool"
  type: "Pooling"
  bottom: "inception_4c/output"
  top: "inception_4d/pool"
  pooling_param {
    pool: MAX
    kernel_size: 3
    stride: 1
    pad: 1
  }
}
layer {
  name: "inception_4d/pool_proj"
  type: "Convolution"
  bottom: "inception_4d/pool"
  top: "inception_4d/pool_proj"
  param {
    lr_mult: 1
    decay_mult: 1
  }
  param {
    lr_mult: 2
    decay_mult: 0
  }
  convolution_param {
    num_output: 64
    kernel_size: 1
    weight_filler {
      type: "xavier"
      std: 0.1
    }
    bias_filler {
      type: "constant"
      value: 0.2
    }
  }
}
layer {
  name: "inception_4d/relu_pool_proj"
  type: "ReLU"
  bottom: "inception_4d/pool_proj"
  top: "inception_4d/pool_proj"
}
layer {
  name: "inception_4d/output"
  type: "Concat"
  bottom: "inception_4d/1x1"
  bottom: "inception_4d/3x3"
  bottom: "inception_4d/5x5"
  bottom: "inception_4d/pool_proj"
  top: "inception_4d/output"
}
layer {
  name: "loss2/ave_pool"
  type: "Pooling"
  bottom: "inception_4d/output"
  top: "loss2/ave_pool"
  pooling_param {
    pool: AVE
    kernel_size: 5
    stride: 3
  }
}
layer {
  name: "loss2/conv"
  type: "Convolution"
  bottom: "loss2/ave_pool"
  top: "loss2/conv"
  param {
    lr_mult: 1
    decay_mult: 1
  }
  param {
    lr_mult: 2
    decay_mult: 0
  }
  convolution_param {
    num_output: 128
    kernel_size: 1
    weight_filler {
      type: "xavier"
      std: 0.08
    }
    bias_filler {
      type: "constant"
      value: 0.2
    }
  }
}
layer {
  name: "loss2/relu_conv"
  type: "ReLU"
  bottom: "loss2/conv"
  top: "loss2/conv"
}
layer {
  name: "loss2/fc"
  type: "InnerProduct"
  bottom: "loss2/conv"
  top: "loss2/fc"
  param {
    lr_mult: 1
    decay_mult: 1
  }
  param {
    lr_mult: 2
    decay_mult: 0
  }
  inner_product_param {
    num_output: 1024
    weight_filler {
      type: "xavier"
      std: 0.02
    }
    bias_filler {
      type: "constant"
      value: 0.2
    }
  }
}
layer {
  name: "loss2/relu_fc"
  type: "ReLU"
  bottom: "loss2/fc"
  top: "loss2/fc"
}
layer {
  name: "loss2/drop_fc"
  type: "Dropout"
  bottom: "loss2/fc"
  top: "loss2/fc"
  dropout_param {
    dropout_ratio: 0.7
  }
}
layer {
  name: "loss2/classifier_plantvillage"
  type: "InnerProduct"
  bottom: "loss2/fc"
  top: "loss2/classifier_plantvillage"
  param {
    lr_mult: 1
    decay_mult: 1
  }
  param {
    lr_mult: 2
    decay_mult: 0
  }
  inner_product_param {
    num_output: 38
    weight_filler {
      type: "xavier"
      std: 0.0009765625
    }
    bias_filler {
      type: "constant"
      value: 0
    }
  }
}
layer {
  name: "inception_4e/1x1"
  type: "Convolution"
  bottom: "inception_4d/output"
  top: "inception_4e/1x1"
  param {
    lr_mult: 1
    decay_mult: 1
  }
  param {
    lr_mult: 2
    decay_mult: 0
  }
  convolution_param {
    num_output: 256
    kernel_size: 1
    weight_filler {
      type: "xavier"
      std: 0.03
    }
    bias_filler {
      type: "constant"
      value: 0.2
    }
  }
}
layer {
  name: "inception_4e/relu_1x1"
  type: "ReLU"
  bottom: "inception_4e/1x1"
  top: "inception_4e/1x1"
}
layer {
  name: "inception_4e/3x3_reduce"
  type: "Convolution"
  bottom: "inception_4d/output"
  top: "inception_4e/3x3_reduce"
  param {
    lr_mult: 1
    decay_mult: 1
  }
  param {
    lr_mult: 2
    decay_mult: 0
  }
  convolution_param {
    num_output: 160
    kernel_size: 1
    weight_filler {
      type: "xavier"
      std: 0.09
    }
    bias_filler {
      type: "constant"
      value: 0.2
    }
  }
}
layer {
  name: "inception_4e/relu_3x3_reduce"
  type: "ReLU"
  bottom: "inception_4e/3x3_reduce"
  top: "inception_4e/3x3_reduce"
}
layer {
  name: "inception_4e/3x3"
  type: "Convolution"
  bottom: "inception_4e/3x3_reduce"
  top: "inception_4e/3x3"
  param {
    lr_mult: 1
    decay_mult: 1
  }
  param {
    lr_mult: 2
    decay_mult: 0
  }
  convolution_param {
    num_output: 320
    pad: 1
    kernel_size: 3
    weight_filler {
      type: "xavier"
      std: 0.03
    }
    bias_filler {
      type: "constant"
      value: 0.2
    }
  }
}
layer {
  name: "inception_4e/relu_3x3"
  type: "ReLU"
  bottom: "inception_4e/3x3"
  top: "inception_4e/3x3"
}
layer {
  name: "inception_4e/5x5_reduce"
  type: "Convolution"
  bottom: "inception_4d/output"
  top: "inception_4e/5x5_reduce"
  param {
    lr_mult: 1
    decay_mult: 1
  }
  param {
    lr_mult: 2
    decay_mult: 0
  }
  convolution_param {
    num_output: 32
    kernel_size: 1
    weight_filler {
      type: "xavier"
      std: 0.2
    }
    bias_filler {
      type: "constant"
      value: 0.2
    }
  }
}
layer {
  name: "inception_4e/relu_5x5_reduce"
  type: "ReLU"
  bottom: "inception_4e/5x5_reduce"
  top: "inception_4e/5x5_reduce"
}
layer {
  name: "inception_4e/5x5"
  type: "Convolution"
  bottom: "inception_4e/5x5_reduce"
  top: "inception_4e/5x5"
  p
I0403 21:54:59.076393 13273 layer_factory.hpp:77] Creating layer data
I0403 21:54:59.077025 13273 net.cpp:91] Creating Layer data
I0403 21:54:59.077059 13273 net.cpp:399] data -> data
I0403 21:54:59.077117 13273 net.cpp:399] data -> label
I0403 21:54:59.077157 13273 data_transformer.cpp:25] Loading mean file from: /home/mohanty/data/final_dataset/lmdb/color-80-20/mean.binaryproto
I0403 21:54:59.078238 13276 db_lmdb.cpp:38] Opened lmdb /home/mohanty/data/final_dataset/lmdb/color-80-20/test_db
I0403 21:54:59.091253 13273 data_layer.cpp:41] output data size: 24,3,224,224
I0403 21:54:59.120810 13273 net.cpp:141] Setting up data
I0403 21:54:59.120909 13273 net.cpp:148] Top shape: 24 3 224 224 (3612672)
I0403 21:54:59.120934 13273 net.cpp:148] Top shape: 24 (24)
I0403 21:54:59.120954 13273 net.cpp:156] Memory required for data: 14450784
I0403 21:54:59.120981 13273 layer_factory.hpp:77] Creating layer label_data_1_split
I0403 21:54:59.121009 13273 net.cpp:91] Creating Layer label_data_1_split
I0403 21:54:59.121028 13273 net.cpp:425] label_data_1_split <- label
I0403 21:54:59.121062 13273 net.cpp:399] label_data_1_split -> label_data_1_split_0
I0403 21:54:59.121091 13273 net.cpp:399] label_data_1_split -> label_data_1_split_1
I0403 21:54:59.121114 13273 net.cpp:399] label_data_1_split -> label_data_1_split_2
I0403 21:54:59.121137 13273 net.cpp:399] label_data_1_split -> label_data_1_split_3
I0403 21:54:59.121157 13273 net.cpp:399] label_data_1_split -> label_data_1_split_4
I0403 21:54:59.121183 13273 net.cpp:399] label_data_1_split -> label_data_1_split_5
I0403 21:54:59.121207 13273 net.cpp:399] label_data_1_split -> label_data_1_split_6
I0403 21:54:59.121230 13273 net.cpp:399] label_data_1_split -> label_data_1_split_7
I0403 21:54:59.121251 13273 net.cpp:399] label_data_1_split -> label_data_1_split_8
I0403 21:54:59.121273 13273 net.cpp:399] label_data_1_split -> label_data_1_split_9
I0403 21:54:59.121393 13273 net.cpp:141] Setting up label_data_1_split
I0403 21:54:59.121418 13273 net.cpp:148] Top shape: 24 (24)
I0403 21:54:59.121438 13273 net.cpp:148] Top shape: 24 (24)
I0403 21:54:59.121455 13273 net.cpp:148] Top shape: 24 (24)
I0403 21:54:59.121471 13273 net.cpp:148] Top shape: 24 (24)
I0403 21:54:59.121489 13273 net.cpp:148] Top shape: 24 (24)
I0403 21:54:59.121505 13273 net.cpp:148] Top shape: 24 (24)
I0403 21:54:59.121521 13273 net.cpp:148] Top shape: 24 (24)
I0403 21:54:59.121538 13273 net.cpp:148] Top shape: 24 (24)
I0403 21:54:59.121556 13273 net.cpp:148] Top shape: 24 (24)
I0403 21:54:59.121573 13273 net.cpp:148] Top shape: 24 (24)
I0403 21:54:59.121623 13273 net.cpp:156] Memory required for data: 14451744
I0403 21:54:59.121641 13273 layer_factory.hpp:77] Creating layer conv1/7x7_s2
I0403 21:54:59.121676 13273 net.cpp:91] Creating Layer conv1/7x7_s2
I0403 21:54:59.121696 13273 net.cpp:425] conv1/7x7_s2 <- data
I0403 21:54:59.121717 13273 net.cpp:399] conv1/7x7_s2 -> conv1/7x7_s2
I0403 21:54:59.269310 13273 net.cpp:141] Setting up conv1/7x7_s2
I0403 21:54:59.269423 13273 net.cpp:148] Top shape: 24 64 112 112 (19267584)
I0403 21:54:59.269441 13273 net.cpp:156] Memory required for data: 91522080
I0403 21:54:59.269486 13273 layer_factory.hpp:77] Creating layer conv1/relu_7x7
I0403 21:54:59.269515 13273 net.cpp:91] Creating Layer conv1/relu_7x7
I0403 21:54:59.269534 13273 net.cpp:425] conv1/relu_7x7 <- conv1/7x7_s2
I0403 21:54:59.269553 13273 net.cpp:386] conv1/relu_7x7 -> conv1/7x7_s2 (in-place)
I0403 21:54:59.269865 13273 net.cpp:141] Setting up conv1/relu_7x7
I0403 21:54:59.269892 13273 net.cpp:148] Top shape: 24 64 112 112 (19267584)
I0403 21:54:59.269909 13273 net.cpp:156] Memory required for data: 168592416
I0403 21:54:59.269923 13273 layer_factory.hpp:77] Creating layer pool1/3x3_s2
I0403 21:54:59.269948 13273 net.cpp:91] Creating Layer pool1/3x3_s2
I0403 21:54:59.269968 13273 net.cpp:425] pool1/3x3_s2 <- conv1/7x7_s2
I0403 21:54:59.269986 13273 net.cpp:399] pool1/3x3_s2 -> pool1/3x3_s2
I0403 21:54:59.270061 13273 net.cpp:141] Setting up pool1/3x3_s2
I0403 21:54:59.270087 13273 net.cpp:148] Top shape: 24 64 56 56 (4816896)
I0403 21:54:59.270102 13273 net.cpp:156] Memory required for data: 187860000
I0403 21:54:59.270117 13273 layer_factory.hpp:77] Creating layer pool1/norm1
I0403 21:54:59.270140 13273 net.cpp:91] Creating Layer pool1/norm1
I0403 21:54:59.270159 13273 net.cpp:425] pool1/norm1 <- pool1/3x3_s2
I0403 21:54:59.270177 13273 net.cpp:399] pool1/norm1 -> pool1/norm1
I0403 21:54:59.270468 13273 net.cpp:141] Setting up pool1/norm1
I0403 21:54:59.270496 13273 net.cpp:148] Top shape: 24 64 56 56 (4816896)
I0403 21:54:59.270512 13273 net.cpp:156] Memory required for data: 207127584
I0403 21:54:59.270526 13273 layer_factory.hpp:77] Creating layer conv2/3x3_reduce
I0403 21:54:59.270551 13273 net.cpp:91] Creating Layer conv2/3x3_reduce
I0403 21:54:59.270568 13273 net.cpp:425] conv2/3x3_reduce <- pool1/norm1
I0403 21:54:59.270587 13273 net.cpp:399] conv2/3x3_reduce -> conv2/3x3_reduce
I0403 21:54:59.271973 13273 net.cpp:141] Setting up conv2/3x3_reduce
I0403 21:54:59.272002 13273 net.cpp:148] Top shape: 24 64 56 56 (4816896)
I0403 21:54:59.272019 13273 net.cpp:156] Memory required for data: 226395168
I0403 21:54:59.272040 13273 layer_factory.hpp:77] Creating layer conv2/relu_3x3_reduce
I0403 21:54:59.272059 13273 net.cpp:91] Creating Layer conv2/relu_3x3_reduce
I0403 21:54:59.272076 13273 net.cpp:425] conv2/relu_3x3_reduce <- conv2/3x3_reduce
I0403 21:54:59.272094 13273 net.cpp:386] conv2/relu_3x3_reduce -> conv2/3x3_reduce (in-place)
I0403 21:54:59.272375 13273 net.cpp:141] Setting up conv2/relu_3x3_reduce
I0403 21:54:59.272403 13273 net.cpp:148] Top shape: 24 64 56 56 (4816896)
I0403 21:54:59.272419 13273 net.cpp:156] Memory required for data: 245662752
I0403 21:54:59.272435 13273 layer_factory.hpp:77] Creating layer conv2/3x3
I0403 21:54:59.272456 13273 net.cpp:91] Creating Layer conv2/3x3
I0403 21:54:59.272475 13273 net.cpp:425] conv2/3x3 <- conv2/3x3_reduce
I0403 21:54:59.272493 13273 net.cpp:399] conv2/3x3 -> conv2/3x3
I0403 21:54:59.274726 13273 net.cpp:141] Setting up conv2/3x3
I0403 21:54:59.274756 13273 net.cpp:148] Top shape: 24 192 56 56 (14450688)
I0403 21:54:59.274773 13273 net.cpp:156] Memory required for data: 303465504
I0403 21:54:59.274796 13273 layer_factory.hpp:77] Creating layer conv2/relu_3x3
I0403 21:54:59.274814 13273 net.cpp:91] Creating Layer conv2/relu_3x3
I0403 21:54:59.274830 13273 net.cpp:425] conv2/relu_3x3 <- conv2/3x3
I0403 21:54:59.274848 13273 net.cpp:386] conv2/relu_3x3 -> conv2/3x3 (in-place)
I0403 21:54:59.275009 13273 net.cpp:141] Setting up conv2/relu_3x3
I0403 21:54:59.275035 13273 net.cpp:148] Top shape: 24 192 56 56 (14450688)
I0403 21:54:59.275089 13273 net.cpp:156] Memory required for data: 361268256
I0403 21:54:59.275105 13273 layer_factory.hpp:77] Creating layer conv2/norm2
I0403 21:54:59.275123 13273 net.cpp:91] Creating Layer conv2/norm2
I0403 21:54:59.275141 13273 net.cpp:425] conv2/norm2 <- conv2/3x3
I0403 21:54:59.275158 13273 net.cpp:399] conv2/norm2 -> conv2/norm2
I0403 21:54:59.275445 13273 net.cpp:141] Setting up conv2/norm2
I0403 21:54:59.275473 13273 net.cpp:148] Top shape: 24 192 56 56 (14450688)
I0403 21:54:59.275490 13273 net.cpp:156] Memory required for data: 419071008
I0403 21:54:59.275503 13273 layer_factory.hpp:77] Creating layer pool2/3x3_s2
I0403 21:54:59.275522 13273 net.cpp:91] Creating Layer pool2/3x3_s2
I0403 21:54:59.275539 13273 net.cpp:425] pool2/3x3_s2 <- conv2/norm2
I0403 21:54:59.275557 13273 net.cpp:399] pool2/3x3_s2 -> pool2/3x3_s2
I0403 21:54:59.275607 13273 net.cpp:141] Setting up pool2/3x3_s2
I0403 21:54:59.275630 13273 net.cpp:148] Top shape: 24 192 28 28 (3612672)
I0403 21:54:59.275645 13273 net.cpp:156] Memory required for data: 433521696
I0403 21:54:59.275660 13273 layer_factory.hpp:77] Creating layer pool2/3x3_s2_pool2/3x3_s2_0_split
I0403 21:54:59.275678 13273 net.cpp:91] Creating Layer pool2/3x3_s2_pool2/3x3_s2_0_split
I0403 21:54:59.275694 13273 net.cpp:425] pool2/3x3_s2_pool2/3x3_s2_0_split <- pool2/3x3_s2
I0403 21:54:59.275712 13273 net.cpp:399] pool2/3x3_s2_pool2/3x3_s2_0_split -> pool2/3x3_s2_pool2/3x3_s2_0_split_0
I0403 21:54:59.275732 13273 net.cpp:399] pool2/3x3_s2_pool2/3x3_s2_0_split -> pool2/3x3_s2_pool2/3x3_s2_0_split_1
I0403 21:54:59.275753 13273 net.cpp:399] pool2/3x3_s2_pool2/3x3_s2_0_split -> pool2/3x3_s2_pool2/3x3_s2_0_split_2
I0403 21:54:59.275773 13273 net.cpp:399] pool2/3x3_s2_pool2/3x3_s2_0_split -> pool2/3x3_s2_pool2/3x3_s2_0_split_3
I0403 21:54:59.275837 13273 net.cpp:141] Setting up pool2/3x3_s2_pool2/3x3_s2_0_split
I0403 21:54:59.275861 13273 net.cpp:148] Top shape: 24 192 28 28 (3612672)
I0403 21:54:59.275878 13273 net.cpp:148] Top shape: 24 192 28 28 (3612672)
I0403 21:54:59.275894 13273 net.cpp:148] Top shape: 24 192 28 28 (3612672)
I0403 21:54:59.275910 13273 net.cpp:148] Top shape: 24 192 28 28 (3612672)
I0403 21:54:59.275924 13273 net.cpp:156] Memory required for data: 491324448
I0403 21:54:59.275940 13273 layer_factory.hpp:77] Creating layer inception_3a/1x1
I0403 21:54:59.275961 13273 net.cpp:91] Creating Layer inception_3a/1x1
I0403 21:54:59.275977 13273 net.cpp:425] inception_3a/1x1 <- pool2/3x3_s2_pool2/3x3_s2_0_split_0
I0403 21:54:59.275997 13273 net.cpp:399] inception_3a/1x1 -> inception_3a/1x1
I0403 21:54:59.277551 13273 net.cpp:141] Setting up inception_3a/1x1
I0403 21:54:59.277580 13273 net.cpp:148] Top shape: 24 64 28 28 (1204224)
I0403 21:54:59.277597 13273 net.cpp:156] Memory required for data: 496141344
I0403 21:54:59.277616 13273 layer_factory.hpp:77] Creating layer inception_3a/relu_1x1
I0403 21:54:59.277636 13273 net.cpp:91] Creating Layer inception_3a/relu_1x1
I0403 21:54:59.277652 13273 net.cpp:425] inception_3a/relu_1x1 <- inception_3a/1x1
I0403 21:54:59.277672 13273 net.cpp:386] inception_3a/relu_1x1 -> inception_3a/1x1 (in-place)
I0403 21:54:59.277845 13273 net.cpp:141] Setting up inception_3a/relu_1x1
I0403 21:54:59.277873 13273 net.cpp:148] Top shape: 24 64 28 28 (1204224)
I0403 21:54:59.277887 13273 net.cpp:156] Memory required for data: 500958240
I0403 21:54:59.277904 13273 layer_factory.hpp:77] Creating layer inception_3a/3x3_reduce
I0403 21:54:59.277925 13273 net.cpp:91] Creating Layer inception_3a/3x3_reduce
I0403 21:54:59.277945 13273 net.cpp:425] inception_3a/3x3_reduce <- pool2/3x3_s2_pool2/3x3_s2_0_split_1
I0403 21:54:59.277966 13273 net.cpp:399] inception_3a/3x3_reduce -> inception_3a/3x3_reduce
I0403 21:54:59.279692 13273 net.cpp:141] Setting up inception_3a/3x3_reduce
I0403 21:54:59.279722 13273 net.cpp:148] Top shape: 24 96 28 28 (1806336)
I0403 21:54:59.279738 13273 net.cpp:156] Memory required for data: 508183584
I0403 21:54:59.279760 13273 layer_factory.hpp:77] Creating layer inception_3a/relu_3x3_reduce
I0403 21:54:59.279799 13273 net.cpp:91] Creating Layer inception_3a/relu_3x3_reduce
I0403 21:54:59.279817 13273 net.cpp:425] inception_3a/relu_3x3_reduce <- inception_3a/3x3_reduce
I0403 21:54:59.279835 13273 net.cpp:386] inception_3a/relu_3x3_reduce -> inception_3a/3x3_reduce (in-place)
I0403 21:54:59.280025 13273 net.cpp:141] Setting up inception_3a/relu_3x3_reduce
I0403 21:54:59.280050 13273 net.cpp:148] Top shape: 24 96 28 28 (1806336)
I0403 21:54:59.280066 13273 net.cpp:156] Memory required for data: 515408928
I0403 21:54:59.280081 13273 layer_factory.hpp:77] Creating layer inception_3a/3x3
I0403 21:54:59.280103 13273 net.cpp:91] Creating Layer inception_3a/3x3
I0403 21:54:59.280122 13273 net.cpp:425] inception_3a/3x3 <- inception_3a/3x3_reduce
I0403 21:54:59.280144 13273 net.cpp:399] inception_3a/3x3 -> inception_3a/3x3
I0403 21:54:59.281797 13273 net.cpp:141] Setting up inception_3a/3x3
I0403 21:54:59.281826 13273 net.cpp:148] Top shape: 24 128 28 28 (2408448)
I0403 21:54:59.281842 13273 net.cpp:156] Memory required for data: 525042720
I0403 21:54:59.281862 13273 layer_factory.hpp:77] Creating layer inception_3a/relu_3x3
I0403 21:54:59.281882 13273 net.cpp:91] Creating Layer inception_3a/relu_3x3
I0403 21:54:59.281898 13273 net.cpp:425] inception_3a/relu_3x3 <- inception_3a/3x3
I0403 21:54:59.281915 13273 net.cpp:386] inception_3a/relu_3x3 -> inception_3a/3x3 (in-place)
I0403 21:54:59.282186 13273 net.cpp:141] Setting up inception_3a/relu_3x3
I0403 21:54:59.282223 13273 net.cpp:148] Top shape: 24 128 28 28 (2408448)
I0403 21:54:59.282241 13273 net.cpp:156] Memory required for data: 534676512
I0403 21:54:59.282258 13273 layer_factory.hpp:77] Creating layer inception_3a/5x5_reduce
I0403 21:54:59.282280 13273 net.cpp:91] Creating Layer inception_3a/5x5_reduce
I0403 21:54:59.282299 13273 net.cpp:425] inception_3a/5x5_reduce <- pool2/3x3_s2_pool2/3x3_s2_0_split_2
I0403 21:54:59.282320 13273 net.cpp:399] inception_3a/5x5_reduce -> inception_3a/5x5_reduce
I0403 21:54:59.283284 13273 net.cpp:141] Setting up inception_3a/5x5_reduce
I0403 21:54:59.283313 13273 net.cpp:148] Top shape: 24 16 28 28 (301056)
I0403 21:54:59.283329 13273 net.cpp:156] Memory required for data: 535880736
I0403 21:54:59.283347 13273 layer_factory.hpp:77] Creating layer inception_3a/relu_5x5_reduce
I0403 21:54:59.283367 13273 net.cpp:91] Creating Layer inception_3a/relu_5x5_reduce
I0403 21:54:59.283385 13273 net.cpp:425] inception_3a/relu_5x5_reduce <- inception_3a/5x5_reduce
I0403 21:54:59.283402 13273 net.cpp:386] inception_3a/relu_5x5_reduce -> inception_3a/5x5_reduce (in-place)
I0403 21:54:59.283681 13273 net.cpp:141] Setting up inception_3a/relu_5x5_reduce
I0403 21:54:59.283710 13273 net.cpp:148] Top shape: 24 16 28 28 (301056)
I0403 21:54:59.283728 13273 net.cpp:156] Memory required for data: 537084960
I0403 21:54:59.283743 13273 layer_factory.hpp:77] Creating layer inception_3a/5x5
I0403 21:54:59.283764 13273 net.cpp:91] Creating Layer inception_3a/5x5
I0403 21:54:59.283782 13273 net.cpp:425] inception_3a/5x5 <- inception_3a/5x5_reduce
I0403 21:54:59.283803 13273 net.cpp:399] inception_3a/5x5 -> inception_3a/5x5
I0403 21:54:59.284819 13273 net.cpp:141] Setting up inception_3a/5x5
I0403 21:54:59.284847 13273 net.cpp:148] Top shape: 24 32 28 28 (602112)
I0403 21:54:59.284865 13273 net.cpp:156] Memory required for data: 539493408
I0403 21:54:59.284883 13273 layer_factory.hpp:77] Creating layer inception_3a/relu_5x5
I0403 21:54:59.284904 13273 net.cpp:91] Creating Layer inception_3a/relu_5x5
I0403 21:54:59.284921 13273 net.cpp:425] inception_3a/relu_5x5 <- inception_3a/5x5
I0403 21:54:59.284940 13273 net.cpp:386] inception_3a/relu_5x5 -> inception_3a/5x5 (in-place)
I0403 21:54:59.285115 13273 net.cpp:141] Setting up inception_3a/relu_5x5
I0403 21:54:59.285140 13273 net.cpp:148] Top shape: 24 32 28 28 (602112)
I0403 21:54:59.285156 13273 net.cpp:156] Memory required for data: 541901856
I0403 21:54:59.285172 13273 layer_factory.hpp:77] Creating layer inception_3a/pool
I0403 21:54:59.285192 13273 net.cpp:91] Creating Layer inception_3a/pool
I0403 21:54:59.285214 13273 net.cpp:425] inception_3a/pool <- pool2/3x3_s2_pool2/3x3_s2_0_split_3
I0403 21:54:59.285249 13273 net.cpp:399] inception_3a/pool -> inception_3a/pool
I0403 21:54:59.285310 13273 net.cpp:141] Setting up inception_3a/pool
I0403 21:54:59.285333 13273 net.cpp:148] Top shape: 24 192 28 28 (3612672)
I0403 21:54:59.285349 13273 net.cpp:156] Memory required for data: 556352544
I0403 21:54:59.285363 13273 layer_factory.hpp:77] Creating layer inception_3a/pool_proj
I0403 21:54:59.285387 13273 net.cpp:91] Creating Layer inception_3a/pool_proj
I0403 21:54:59.285404 13273 net.cpp:425] inception_3a/pool_proj <- inception_3a/pool
I0403 21:54:59.285426 13273 net.cpp:399] inception_3a/pool_proj -> inception_3a/pool_proj
I0403 21:54:59.286396 13273 net.cpp:141] Setting up inception_3a/pool_proj
I0403 21:54:59.286427 13273 net.cpp:148] Top shape: 24 32 28 28 (602112)
I0403 21:54:59.286444 13273 net.cpp:156] Memory required for data: 558760992
I0403 21:54:59.286466 13273 layer_factory.hpp:77] Creating layer inception_3a/relu_pool_proj
I0403 21:54:59.286489 13273 net.cpp:91] Creating Layer inception_3a/relu_pool_proj
I0403 21:54:59.286506 13273 net.cpp:425] inception_3a/relu_pool_proj <- inception_3a/pool_proj
I0403 21:54:59.286525 13273 net.cpp:386] inception_3a/relu_pool_proj -> inception_3a/pool_proj (in-place)
I0403 21:54:59.286800 13273 net.cpp:141] Setting up inception_3a/relu_pool_proj
I0403 21:54:59.286826 13273 net.cpp:148] Top shape: 24 32 28 28 (602112)
I0403 21:54:59.286844 13273 net.cpp:156] Memory required for data: 561169440
I0403 21:54:59.286859 13273 layer_factory.hpp:77] Creating layer inception_3a/output
I0403 21:54:59.286875 13273 net.cpp:91] Creating Layer inception_3a/output
I0403 21:54:59.286891 13273 net.cpp:425] inception_3a/output <- inception_3a/1x1
I0403 21:54:59.286912 13273 net.cpp:425] inception_3a/output <- inception_3a/3x3
I0403 21:54:59.286929 13273 net.cpp:425] inception_3a/output <- inception_3a/5x5
I0403 21:54:59.286944 13273 net.cpp:425] inception_3a/output <- inception_3a/pool_proj
I0403 21:54:59.286962 13273 net.cpp:399] inception_3a/output -> inception_3a/output
I0403 21:54:59.287008 13273 net.cpp:141] Setting up inception_3a/output
I0403 21:54:59.287034 13273 net.cpp:148] Top shape: 24 256 28 28 (4816896)
I0403 21:54:59.287050 13273 net.cpp:156] Memory required for data: 580437024
I0403 21:54:59.287065 13273 layer_factory.hpp:77] Creating layer inception_3a/output_inception_3a/output_0_split
I0403 21:54:59.287083 13273 net.cpp:91] Creating Layer inception_3a/output_inception_3a/output_0_split
I0403 21:54:59.287101 13273 net.cpp:425] inception_3a/output_inception_3a/output_0_split <- inception_3a/output
I0403 21:54:59.287119 13273 net.cpp:399] inception_3a/output_inception_3a/output_0_split -> inception_3a/output_inception_3a/output_0_split_0
I0403 21:54:59.287142 13273 net.cpp:399] inception_3a/output_inception_3a/output_0_split -> inception_3a/output_inception_3a/output_0_split_1
I0403 21:54:59.287165 13273 net.cpp:399] inception_3a/output_inception_3a/output_0_split -> inception_3a/output_inception_3a/output_0_split_2
I0403 21:54:59.287189 13273 net.cpp:399] inception_3a/output_inception_3a/output_0_split -> inception_3a/output_inception_3a/output_0_split_3
I0403 21:54:59.287267 13273 net.cpp:141] Setting up inception_3a/output_inception_3a/output_0_split
I0403 21:54:59.287292 13273 net.cpp:148] Top shape: 24 256 28 28 (4816896)
I0403 21:54:59.287308 13273 net.cpp:148] Top shape: 24 256 28 28 (4816896)
I0403 21:54:59.287324 13273 net.cpp:148] Top shape: 24 256 28 28 (4816896)
I0403 21:54:59.287341 13273 net.cpp:148] Top shape: 24 256 28 28 (4816896)
I0403 21:54:59.287355 13273 net.cpp:156] Memory required for data: 657507360
I0403 21:54:59.287370 13273 layer_factory.hpp:77] Creating layer inception_3b/1x1
I0403 21:54:59.287394 13273 net.cpp:91] Creating Layer inception_3b/1x1
I0403 21:54:59.287412 13273 net.cpp:425] inception_3b/1x1 <- inception_3a/output_inception_3a/output_0_split_0
I0403 21:54:59.287434 13273 net.cpp:399] inception_3b/1x1 -> inception_3b/1x1
I0403 21:54:59.288565 13273 net.cpp:141] Setting up inception_3b/1x1
I0403 21:54:59.288605 13273 net.cpp:148] Top shape: 24 128 28 28 (2408448)
I0403 21:54:59.288621 13273 net.cpp:156] Memory required for data: 667141152
I0403 21:54:59.288640 13273 layer_factory.hpp:77] Creating layer inception_3b/relu_1x1
I0403 21:54:59.288658 13273 net.cpp:91] Creating Layer inception_3b/relu_1x1
I0403 21:54:59.288674 13273 net.cpp:425] inception_3b/relu_1x1 <- inception_3b/1x1
I0403 21:54:59.288696 13273 net.cpp:386] inception_3b/relu_1x1 -> inception_3b/1x1 (in-place)
I0403 21:54:59.288869 13273 net.cpp:141] Setting up inception_3b/relu_1x1
I0403 21:54:59.288895 13273 net.cpp:148] Top shape: 24 128 28 28 (2408448)
I0403 21:54:59.288911 13273 net.cpp:156] Memory required for data: 676774944
I0403 21:54:59.288926 13273 layer_factory.hpp:77] Creating layer inception_3b/3x3_reduce
I0403 21:54:59.288949 13273 net.cpp:91] Creating Layer inception_3b/3x3_reduce
I0403 21:54:59.288967 13273 net.cpp:425] inception_3b/3x3_reduce <- inception_3a/output_inception_3a/output_0_split_1
I0403 21:54:59.288990 13273 net.cpp:399] inception_3b/3x3_reduce -> inception_3b/3x3_reduce
I0403 21:54:59.290119 13273 net.cpp:141] Setting up inception_3b/3x3_reduce
I0403 21:54:59.290149 13273 net.cpp:148] Top shape: 24 128 28 28 (2408448)
I0403 21:54:59.290166 13273 net.cpp:156] Memory required for data: 686408736
I0403 21:54:59.290184 13273 layer_factory.hpp:77] Creating layer inception_3b/relu_3x3_reduce
I0403 21:54:59.290204 13273 net.cpp:91] Creating Layer inception_3b/relu_3x3_reduce
I0403 21:54:59.290226 13273 net.cpp:425] inception_3b/relu_3x3_reduce <- inception_3b/3x3_reduce
I0403 21:54:59.290251 13273 net.cpp:386] inception_3b/relu_3x3_reduce -> inception_3b/3x3_reduce (in-place)
I0403 21:54:59.290426 13273 net.cpp:141] Setting up inception_3b/relu_3x3_reduce
I0403 21:54:59.290452 13273 net.cpp:148] Top shape: 24 128 28 28 (2408448)
I0403 21:54:59.290468 13273 net.cpp:156] Memory required for data: 696042528
I0403 21:54:59.290483 13273 layer_factory.hpp:77] Creating layer inception_3b/3x3
I0403 21:54:59.290509 13273 net.cpp:91] Creating Layer inception_3b/3x3
I0403 21:54:59.290529 13273 net.cpp:425] inception_3b/3x3 <- inception_3b/3x3_reduce
I0403 21:54:59.290549 13273 net.cpp:399] inception_3b/3x3 -> inception_3b/3x3
I0403 21:54:59.293475 13273 net.cpp:141] Setting up inception_3b/3x3
I0403 21:54:59.293505 13273 net.cpp:148] Top shape: 24 192 28 28 (3612672)
I0403 21:54:59.293520 13273 net.cpp:156] Memory required for data: 710493216
I0403 21:54:59.293540 13273 layer_factory.hpp:77] Creating layer inception_3b/relu_3x3
I0403 21:54:59.293560 13273 net.cpp:91] Creating Layer inception_3b/relu_3x3
I0403 21:54:59.293577 13273 net.cpp:425] inception_3b/relu_3x3 <- inception_3b/3x3
I0403 21:54:59.293596 13273 net.cpp:386] inception_3b/relu_3x3 -> inception_3b/3x3 (in-place)
I0403 21:54:59.293872 13273 net.cpp:141] Setting up inception_3b/relu_3x3
I0403 21:54:59.293900 13273 net.cpp:148] Top shape: 24 192 28 28 (3612672)
I0403 21:54:59.293915 13273 net.cpp:156] Memory required for data: 724943904
I0403 21:54:59.293931 13273 layer_factory.hpp:77] Creating layer inception_3b/5x5_reduce
I0403 21:54:59.293957 13273 net.cpp:91] Creating Layer inception_3b/5x5_reduce
I0403 21:54:59.293977 13273 net.cpp:425] inception_3b/5x5_reduce <- inception_3a/output_inception_3a/output_0_split_2
I0403 21:54:59.294000 13273 net.cpp:399] inception_3b/5x5_reduce -> inception_3b/5x5_reduce
I0403 21:54:59.294996 13273 net.cpp:141] Setting up inception_3b/5x5_reduce
I0403 21:54:59.295027 13273 net.cpp:148] Top shape: 24 32 28 28 (602112)
I0403 21:54:59.295042 13273 net.cpp:156] Memory required for data: 727352352
I0403 21:54:59.295060 13273 layer_factory.hpp:77] Creating layer inception_3b/relu_5x5_reduce
I0403 21:54:59.295081 13273 net.cpp:91] Creating Layer inception_3b/relu_5x5_reduce
I0403 21:54:59.295099 13273 net.cpp:425] inception_3b/relu_5x5_reduce <- inception_3b/5x5_reduce
I0403 21:54:59.295115 13273 net.cpp:386] inception_3b/relu_5x5_reduce -> inception_3b/5x5_reduce (in-place)
I0403 21:54:59.295300 13273 net.cpp:141] Setting up inception_3b/relu_5x5_reduce
I0403 21:54:59.295337 13273 net.cpp:148] Top shape: 24 32 28 28 (602112)
I0403 21:54:59.295353 13273 net.cpp:156] Memory required for data: 729760800
I0403 21:54:59.295368 13273 layer_factory.hpp:77] Creating layer inception_3b/5x5
I0403 21:54:59.295392 13273 net.cpp:91] Creating Layer inception_3b/5x5
I0403 21:54:59.295411 13273 net.cpp:425] inception_3b/5x5 <- inception_3b/5x5_reduce
I0403 21:54:59.295430 13273 net.cpp:399] inception_3b/5x5 -> inception_3b/5x5
I0403 21:54:59.297430 13273 net.cpp:141] Setting up inception_3b/5x5
I0403 21:54:59.297461 13273 net.cpp:148] Top shape: 24 96 28 28 (1806336)
I0403 21:54:59.297478 13273 net.cpp:156] Memory required for data: 736986144
I0403 21:54:59.297498 13273 layer_factory.hpp:77] Creating layer inception_3b/relu_5x5
I0403 21:54:59.297516 13273 net.cpp:91] Creating Layer inception_3b/relu_5x5
I0403 21:54:59.297533 13273 net.cpp:425] inception_3b/relu_5x5 <- inception_3b/5x5
I0403 21:54:59.297552 13273 net.cpp:386] inception_3b/relu_5x5 -> inception_3b/5x5 (in-place)
I0403 21:54:59.297749 13273 net.cpp:141] Setting up inception_3b/relu_5x5
I0403 21:54:59.297775 13273 net.cpp:148] Top shape: 24 96 28 28 (1806336)
I0403 21:54:59.297790 13273 net.cpp:156] Memory required for data: 744211488
I0403 21:54:59.297804 13273 layer_factory.hpp:77] Creating layer inception_3b/pool
I0403 21:54:59.297822 13273 net.cpp:91] Creating Layer inception_3b/pool
I0403 21:54:59.297839 13273 net.cpp:425] inception_3b/pool <- inception_3a/output_inception_3a/output_0_split_3
I0403 21:54:59.297857 13273 net.cpp:399] inception_3b/pool -> inception_3b/pool
I0403 21:54:59.297914 13273 net.cpp:141] Setting up inception_3b/pool
I0403 21:54:59.297936 13273 net.cpp:148] Top shape: 24 256 28 28 (4816896)
I0403 21:54:59.297951 13273 net.cpp:156] Memory required for data: 763479072
I0403 21:54:59.297966 13273 layer_factory.hpp:77] Creating layer inception_3b/pool_proj
I0403 21:54:59.297989 13273 net.cpp:91] Creating Layer inception_3b/pool_proj
I0403 21:54:59.298007 13273 net.cpp:425] inception_3b/pool_proj <- inception_3b/pool
I0403 21:54:59.298027 13273 net.cpp:399] inception_3b/pool_proj -> inception_3b/pool_proj
I0403 21:54:59.299079 13273 net.cpp:141] Setting up inception_3b/pool_proj
I0403 21:54:59.299106 13273 net.cpp:148] Top shape: 24 64 28 28 (1204224)
I0403 21:54:59.299123 13273 net.cpp:156] Memory required for data: 768295968
I0403 21:54:59.299141 13273 layer_factory.hpp:77] Creating layer inception_3b/relu_pool_proj
I0403 21:54:59.299162 13273 net.cpp:91] Creating Layer inception_3b/relu_pool_proj
I0403 21:54:59.299180 13273 net.cpp:425] inception_3b/relu_pool_proj <- inception_3b/pool_proj
I0403 21:54:59.299197 13273 net.cpp:386] inception_3b/relu_pool_proj -> inception_3b/pool_proj (in-place)
I0403 21:54:59.299572 13273 net.cpp:141] Setting up inception_3b/relu_pool_proj
I0403 21:54:59.299599 13273 net.cpp:148] Top shape: 24 64 28 28 (1204224)
I0403 21:54:59.299615 13273 net.cpp:156] Memory required for data: 773112864
I0403 21:54:59.299631 13273 layer_factory.hpp:77] Creating layer inception_3b/output
I0403 21:54:59.299650 13273 net.cpp:91] Creating Layer inception_3b/output
I0403 21:54:59.299667 13273 net.cpp:425] inception_3b/output <- inception_3b/1x1
I0403 21:54:59.299685 13273 net.cpp:425] inception_3b/output <- inception_3b/3x3
I0403 21:54:59.299701 13273 net.cpp:425] inception_3b/output <- inception_3b/5x5
I0403 21:54:59.299717 13273 net.cpp:425] inception_3b/output <- inception_3b/pool_proj
I0403 21:54:59.299734 13273 net.cpp:399] inception_3b/output -> inception_3b/output
I0403 21:54:59.299780 13273 net.cpp:141] Setting up inception_3b/output
I0403 21:54:59.299804 13273 net.cpp:148] Top shape: 24 480 28 28 (9031680)
I0403 21:54:59.299818 13273 net.cpp:156] Memory required for data: 809239584
I0403 21:54:59.299834 13273 layer_factory.hpp:77] Creating layer pool3/3x3_s2
I0403 21:54:59.299850 13273 net.cpp:91] Creating Layer pool3/3x3_s2
I0403 21:54:59.299866 13273 net.cpp:425] pool3/3x3_s2 <- inception_3b/output
I0403 21:54:59.299886 13273 net.cpp:399] pool3/3x3_s2 -> pool3/3x3_s2
I0403 21:54:59.299957 13273 net.cpp:141] Setting up pool3/3x3_s2
I0403 21:54:59.299988 13273 net.cpp:148] Top shape: 24 480 14 14 (2257920)
I0403 21:54:59.300004 13273 net.cpp:156] Memory required for data: 818271264
I0403 21:54:59.300019 13273 layer_factory.hpp:77] Creating layer pool3/3x3_s2_pool3/3x3_s2_0_split
I0403 21:54:59.300036 13273 net.cpp:91] Creating Layer pool3/3x3_s2_pool3/3x3_s2_0_split
I0403 21:54:59.300052 13273 net.cpp:425] pool3/3x3_s2_pool3/3x3_s2_0_split <- pool3/3x3_s2
I0403 21:54:59.300070 13273 net.cpp:399] pool3/3x3_s2_pool3/3x3_s2_0_split -> pool3/3x3_s2_pool3/3x3_s2_0_split_0
I0403 21:54:59.300091 13273 net.cpp:399] pool3/3x3_s2_pool3/3x3_s2_0_split -> pool3/3x3_s2_pool3/3x3_s2_0_split_1
I0403 21:54:59.300112 13273 net.cpp:399] pool3/3x3_s2_pool3/3x3_s2_0_split -> pool3/3x3_s2_pool3/3x3_s2_0_split_2
I0403 21:54:59.300132 13273 net.cpp:399] pool3/3x3_s2_pool3/3x3_s2_0_split -> pool3/3x3_s2_pool3/3x3_s2_0_split_3
I0403 21:54:59.300215 13273 net.cpp:141] Setting up pool3/3x3_s2_pool3/3x3_s2_0_split
I0403 21:54:59.300240 13273 net.cpp:148] Top shape: 24 480 14 14 (2257920)
I0403 21:54:59.300256 13273 net.cpp:148] Top shape: 24 480 14 14 (2257920)
I0403 21:54:59.300272 13273 net.cpp:148] Top shape: 24 480 14 14 (2257920)
I0403 21:54:59.300288 13273 net.cpp:148] Top shape: 24 480 14 14 (2257920)
I0403 21:54:59.300302 13273 net.cpp:156] Memory required for data: 854397984
I0403 21:54:59.300317 13273 layer_factory.hpp:77] Creating layer inception_4a/1x1
I0403 21:54:59.300340 13273 net.cpp:91] Creating Layer inception_4a/1x1
I0403 21:54:59.300357 13273 net.cpp:425] inception_4a/1x1 <- pool3/3x3_s2_pool3/3x3_s2_0_split_0
I0403 21:54:59.300377 13273 net.cpp:399] inception_4a/1x1 -> inception_4a/1x1
I0403 21:54:59.301936 13273 net.cpp:141] Setting up inception_4a/1x1
I0403 21:54:59.301969 13273 net.cpp:148] Top shape: 24 192 14 14 (903168)
I0403 21:54:59.301985 13273 net.cpp:156] Memory required for data: 858010656
I0403 21:54:59.302003 13273 layer_factory.hpp:77] Creating layer inception_4a/relu_1x1
I0403 21:54:59.302021 13273 net.cpp:91] Creating Layer inception_4a/relu_1x1
I0403 21:54:59.302037 13273 net.cpp:425] inception_4a/relu_1x1 <- inception_4a/1x1
I0403 21:54:59.302057 13273 net.cpp:386] inception_4a/relu_1x1 -> inception_4a/1x1 (in-place)
I0403 21:54:59.302248 13273 net.cpp:141] Setting up inception_4a/relu_1x1
I0403 21:54:59.302273 13273 net.cpp:148] Top shape: 24 192 14 14 (903168)
I0403 21:54:59.302289 13273 net.cpp:156] Memory required for data: 861623328
I0403 21:54:59.302304 13273 layer_factory.hpp:77] Creating layer inception_4a/3x3_reduce
I0403 21:54:59.302326 13273 net.cpp:91] Creating Layer inception_4a/3x3_reduce
I0403 21:54:59.302345 13273 net.cpp:425] inception_4a/3x3_reduce <- pool3/3x3_s2_pool3/3x3_s2_0_split_1
I0403 21:54:59.302366 13273 net.cpp:399] inception_4a/3x3_reduce -> inception_4a/3x3_reduce
I0403 21:54:59.303633 13273 net.cpp:141] Setting up inception_4a/3x3_reduce
I0403 21:54:59.303663 13273 net.cpp:148] Top shape: 24 96 14 14 (451584)
I0403 21:54:59.303679 13273 net.cpp:156] Memory required for data: 863429664
I0403 21:54:59.303702 13273 layer_factory.hpp:77] Creating layer inception_4a/relu_3x3_reduce
I0403 21:54:59.303724 13273 net.cpp:91] Creating Layer inception_4a/relu_3x3_reduce
I0403 21:54:59.303740 13273 net.cpp:425] inception_4a/relu_3x3_reduce <- inception_4a/3x3_reduce
I0403 21:54:59.303758 13273 net.cpp:386] inception_4a/relu_3x3_reduce -> inception_4a/3x3_reduce (in-place)
I0403 21:54:59.303938 13273 net.cpp:141] Setting up inception_4a/relu_3x3_reduce
I0403 21:54:59.303963 13273 net.cpp:148] Top shape: 24 96 14 14 (451584)
I0403 21:54:59.303978 13273 net.cpp:156] Memory required for data: 865236000
I0403 21:54:59.303993 13273 layer_factory.hpp:77] Creating layer inception_4a/3x3
I0403 21:54:59.304015 13273 net.cpp:91] Creating Layer inception_4a/3x3
I0403 21:54:59.304033 13273 net.cpp:425] inception_4a/3x3 <- inception_4a/3x3_reduce
I0403 21:54:59.304057 13273 net.cpp:399] inception_4a/3x3 -> inception_4a/3x3
I0403 21:54:59.306716 13273 net.cpp:141] Setting up inception_4a/3x3
I0403 21:54:59.306747 13273 net.cpp:148] Top shape: 24 208 14 14 (978432)
I0403 21:54:59.306763 13273 net.cpp:156] Memory required for data: 869149728
I0403 21:54:59.306782 13273 layer_factory.hpp:77] Creating layer inception_4a/relu_3x3
I0403 21:54:59.306800 13273 net.cpp:91] Creating Layer inception_4a/relu_3x3
I0403 21:54:59.306818 13273 net.cpp:425] inception_4a/relu_3x3 <- inception_4a/3x3
I0403 21:54:59.306836 13273 net.cpp:386] inception_4a/relu_3x3 -> inception_4a/3x3 (in-place)
I0403 21:54:59.307111 13273 net.cpp:141] Setting up inception_4a/relu_3x3
I0403 21:54:59.307139 13273 net.cpp:148] Top shape: 24 208 14 14 (978432)
I0403 21:54:59.307155 13273 net.cpp:156] Memory required for data: 873063456
I0403 21:54:59.307173 13273 layer_factory.hpp:77] Creating layer inception_4a/5x5_reduce
I0403 21:54:59.307196 13273 net.cpp:91] Creating Layer inception_4a/5x5_reduce
I0403 21:54:59.307220 13273 net.cpp:425] inception_4a/5x5_reduce <- pool3/3x3_s2_pool3/3x3_s2_0_split_2
I0403 21:54:59.307245 13273 net.cpp:399] inception_4a/5x5_reduce -> inception_4a/5x5_reduce
I0403 21:54:59.308275 13273 net.cpp:141] Setting up inception_4a/5x5_reduce
I0403 21:54:59.308305 13273 net.cpp:148] Top shape: 24 16 14 14 (75264)
I0403 21:54:59.308320 13273 net.cpp:156] Memory required for data: 873364512
I0403 21:54:59.308339 13273 layer_factory.hpp:77] Creating layer inception_4a/relu_5x5_reduce
I0403 21:54:59.308360 13273 net.cpp:91] Creating Layer inception_4a/relu_5x5_reduce
I0403 21:54:59.308377 13273 net.cpp:425] inception_4a/relu_5x5_reduce <- inception_4a/5x5_reduce
I0403 21:54:59.308395 13273 net.cpp:386] inception_4a/relu_5x5_reduce -> inception_4a/5x5_reduce (in-place)
I0403 21:54:59.308578 13273 net.cpp:141] Setting up inception_4a/relu_5x5_reduce
I0403 21:54:59.308604 13273 net.cpp:148] Top shape: 24 16 14 14 (75264)
I0403 21:54:59.308619 13273 net.cpp:156] Memory required for data: 873665568
I0403 21:54:59.308634 13273 layer_factory.hpp:77] Creating layer inception_4a/5x5
I0403 21:54:59.308656 13273 net.cpp:91] Creating Layer inception_4a/5x5
I0403 21:54:59.308673 13273 net.cpp:425] inception_4a/5x5 <- inception_4a/5x5_reduce
I0403 21:54:59.308694 13273 net.cpp:399] inception_4a/5x5 -> inception_4a/5x5
I0403 21:54:59.309785 13273 net.cpp:141] Setting up inception_4a/5x5
I0403 21:54:59.309813 13273 net.cpp:148] Top shape: 24 48 14 14 (225792)
I0403 21:54:59.309828 13273 net.cpp:156] Memory required for data: 874568736
I0403 21:54:59.309847 13273 layer_factory.hpp:77] Creating layer inception_4a/relu_5x5
I0403 21:54:59.309867 13273 net.cpp:91] Creating Layer inception_4a/relu_5x5
I0403 21:54:59.309885 13273 net.cpp:425] inception_4a/relu_5x5 <- inception_4a/5x5
I0403 21:54:59.309902 13273 net.cpp:386] inception_4a/relu_5x5 -> inception_4a/5x5 (in-place)
I0403 21:54:59.310083 13273 net.cpp:141] Setting up inception_4a/relu_5x5
I0403 21:54:59.310111 13273 net.cpp:148] Top shape: 24 48 14 14 (225792)
I0403 21:54:59.310127 13273 net.cpp:156] Memory required for data: 875471904
I0403 21:54:59.310142 13273 layer_factory.hpp:77] Creating layer inception_4a/pool
I0403 21:54:59.310159 13273 net.cpp:91] Creating Layer inception_4a/pool
I0403 21:54:59.310175 13273 net.cpp:425] inception_4a/pool <- pool3/3x3_s2_pool3/3x3_s2_0_split_3
I0403 21:54:59.310195 13273 net.cpp:399] inception_4a/pool -> inception_4a/pool
I0403 21:54:59.310261 13273 net.cpp:141] Setting up inception_4a/pool
I0403 21:54:59.310286 13273 net.cpp:148] Top shape: 24 480 14 14 (2257920)
I0403 21:54:59.310302 13273 net.cpp:156] Memory required for data: 884503584
I0403 21:54:59.310315 13273 layer_factory.hpp:77] Creating layer inception_4a/pool_proj
I0403 21:54:59.310338 13273 net.cpp:91] Creating Layer inception_4a/pool_proj
I0403 21:54:59.310354 13273 net.cpp:425] inception_4a/pool_proj <- inception_4a/pool
I0403 21:54:59.310375 13273 net.cpp:399] inception_4a/pool_proj -> inception_4a/pool_proj
I0403 21:54:59.311539 13273 net.cpp:141] Setting up inception_4a/pool_proj
I0403 21:54:59.311573 13273 net.cpp:148] Top shape: 24 64 14 14 (301056)
I0403 21:54:59.311602 13273 net.cpp:156] Memory required for data: 885707808
I0403 21:54:59.311621 13273 layer_factory.hpp:77] Creating layer inception_4a/relu_pool_proj
I0403 21:54:59.311640 13273 net.cpp:91] Creating Layer inception_4a/relu_pool_proj
I0403 21:54:59.311657 13273 net.cpp:425] inception_4a/relu_pool_proj <- inception_4a/pool_proj
I0403 21:54:59.311674 13273 net.cpp:386] inception_4a/relu_pool_proj -> inception_4a/pool_proj (in-place)
I0403 21:54:59.311959 13273 net.cpp:141] Setting up inception_4a/relu_pool_proj
I0403 21:54:59.311987 13273 net.cpp:148] Top shape: 24 64 14 14 (301056)
I0403 21:54:59.312003 13273 net.cpp:156] Memory required for data: 886912032
I0403 21:54:59.312018 13273 layer_factory.hpp:77] Creating layer inception_4a/output
I0403 21:54:59.312036 13273 net.cpp:91] Creating Layer inception_4a/output
I0403 21:54:59.312052 13273 net.cpp:425] inception_4a/output <- inception_4a/1x1
I0403 21:54:59.312068 13273 net.cpp:425] inception_4a/output <- inception_4a/3x3
I0403 21:54:59.312084 13273 net.cpp:425] inception_4a/output <- inception_4a/5x5
I0403 21:54:59.312099 13273 net.cpp:425] inception_4a/output <- inception_4a/pool_proj
I0403 21:54:59.312116 13273 net.cpp:399] inception_4a/output -> inception_4a/output
I0403 21:54:59.312161 13273 net.cpp:141] Setting up inception_4a/output
I0403 21:54:59.312185 13273 net.cpp:148] Top shape: 24 512 14 14 (2408448)
I0403 21:54:59.312199 13273 net.cpp:156] Memory required for data: 896545824
I0403 21:54:59.312227 13273 layer_factory.hpp:77] Creating layer inception_4a/output_inception_4a/output_0_split
I0403 21:54:59.312248 13273 net.cpp:91] Creating Layer inception_4a/output_inception_4a/output_0_split
I0403 21:54:59.312265 13273 net.cpp:425] inception_4a/output_inception_4a/output_0_split <- inception_4a/output
I0403 21:54:59.312283 13273 net.cpp:399] inception_4a/output_inception_4a/output_0_split -> inception_4a/output_inception_4a/output_0_split_0
I0403 21:54:59.312304 13273 net.cpp:399] inception_4a/output_inception_4a/output_0_split -> inception_4a/output_inception_4a/output_0_split_1
I0403 21:54:59.312325 13273 net.cpp:399] inception_4a/output_inception_4a/output_0_split -> inception_4a/output_inception_4a/output_0_split_2
I0403 21:54:59.312345 13273 net.cpp:399] inception_4a/output_inception_4a/output_0_split -> inception_4a/output_inception_4a/output_0_split_3
I0403 21:54:59.312367 13273 net.cpp:399] inception_4a/output_inception_4a/output_0_split -> inception_4a/output_inception_4a/output_0_split_4
I0403 21:54:59.312463 13273 net.cpp:141] Setting up inception_4a/output_inception_4a/output_0_split
I0403 21:54:59.312486 13273 net.cpp:148] Top shape: 24 512 14 14 (2408448)
I0403 21:54:59.312504 13273 net.cpp:148] Top shape: 24 512 14 14 (2408448)
I0403 21:54:59.312520 13273 net.cpp:148] Top shape: 24 512 14 14 (2408448)
I0403 21:54:59.312535 13273 net.cpp:148] Top shape: 24 512 14 14 (2408448)
I0403 21:54:59.312549 13273 net.cpp:148] Top shape: 24 512 14 14 (2408448)
I0403 21:54:59.312563 13273 net.cpp:156] Memory required for data: 944714784
I0403 21:54:59.312577 13273 layer_factory.hpp:77] Creating layer loss1/ave_pool
I0403 21:54:59.312594 13273 net.cpp:91] Creating Layer loss1/ave_pool
I0403 21:54:59.312613 13273 net.cpp:425] loss1/ave_pool <- inception_4a/output_inception_4a/output_0_split_0
I0403 21:54:59.312631 13273 net.cpp:399] loss1/ave_pool -> loss1/ave_pool
I0403 21:54:59.312834 13273 net.cpp:141] Setting up loss1/ave_pool
I0403 21:54:59.312863 13273 net.cpp:148] Top shape: 24 512 4 4 (196608)
I0403 21:54:59.312878 13273 net.cpp:156] Memory required for data: 945501216
I0403 21:54:59.312893 13273 layer_factory.hpp:77] Creating layer loss1/conv
I0403 21:54:59.312916 13273 net.cpp:91] Creating Layer loss1/conv
I0403 21:54:59.312932 13273 net.cpp:425] loss1/conv <- loss1/ave_pool
I0403 21:54:59.312950 13273 net.cpp:399] loss1/conv -> loss1/conv
I0403 21:54:59.314357 13273 net.cpp:141] Setting up loss1/conv
I0403 21:54:59.314386 13273 net.cpp:148] Top shape: 24 128 4 4 (49152)
I0403 21:54:59.314402 13273 net.cpp:156] Memory required for data: 945697824
I0403 21:54:59.314435 13273 layer_factory.hpp:77] Creating layer loss1/relu_conv
I0403 21:54:59.314455 13273 net.cpp:91] Creating Layer loss1/relu_conv
I0403 21:54:59.314471 13273 net.cpp:425] loss1/relu_conv <- loss1/conv
I0403 21:54:59.314489 13273 net.cpp:386] loss1/relu_conv -> loss1/conv (in-place)
I0403 21:54:59.314771 13273 net.cpp:141] Setting up loss1/relu_conv
I0403 21:54:59.314798 13273 net.cpp:148] Top shape: 24 128 4 4 (49152)
I0403 21:54:59.314815 13273 net.cpp:156] Memory required for data: 945894432
I0403 21:54:59.314831 13273 layer_factory.hpp:77] Creating layer loss1/fc
I0403 21:54:59.314854 13273 net.cpp:91] Creating Layer loss1/fc
I0403 21:54:59.314872 13273 net.cpp:425] loss1/fc <- loss1/conv
I0403 21:54:59.314893 13273 net.cpp:399] loss1/fc -> loss1/fc
I0403 21:54:59.332691 13273 net.cpp:141] Setting up loss1/fc
I0403 21:54:59.332726 13273 net.cpp:148] Top shape: 24 1024 (24576)
I0403 21:54:59.332743 13273 net.cpp:156] Memory required for data: 945992736
I0403 21:54:59.332762 13273 layer_factory.hpp:77] Creating layer loss1/relu_fc
I0403 21:54:59.332782 13273 net.cpp:91] Creating Layer loss1/relu_fc
I0403 21:54:59.332799 13273 net.cpp:425] loss1/relu_fc <- loss1/fc
I0403 21:54:59.332818 13273 net.cpp:386] loss1/relu_fc -> loss1/fc (in-place)
I0403 21:54:59.333009 13273 net.cpp:141] Setting up loss1/relu_fc
I0403 21:54:59.333035 13273 net.cpp:148] Top shape: 24 1024 (24576)
I0403 21:54:59.333051 13273 net.cpp:156] Memory required for data: 946091040
I0403 21:54:59.333066 13273 layer_factory.hpp:77] Creating layer loss1/drop_fc
I0403 21:54:59.333093 13273 net.cpp:91] Creating Layer loss1/drop_fc
I0403 21:54:59.333112 13273 net.cpp:425] loss1/drop_fc <- loss1/fc
I0403 21:54:59.333132 13273 net.cpp:386] loss1/drop_fc -> loss1/fc (in-place)
I0403 21:54:59.333185 13273 net.cpp:141] Setting up loss1/drop_fc
I0403 21:54:59.333214 13273 net.cpp:148] Top shape: 24 1024 (24576)
I0403 21:54:59.333230 13273 net.cpp:156] Memory required for data: 946189344
I0403 21:54:59.333245 13273 layer_factory.hpp:77] Creating layer loss1/classifier_plantvillage
I0403 21:54:59.333268 13273 net.cpp:91] Creating Layer loss1/classifier_plantvillage
I0403 21:54:59.333287 13273 net.cpp:425] loss1/classifier_plantvillage <- loss1/fc
I0403 21:54:59.333307 13273 net.cpp:399] loss1/classifier_plantvillage -> loss1/classifier_plantvillage
I0403 21:54:59.334259 13273 net.cpp:141] Setting up loss1/classifier_plantvillage
I0403 21:54:59.334290 13273 net.cpp:148] Top shape: 24 38 (912)
I0403 21:54:59.334306 13273 net.cpp:156] Memory required for data: 946192992
I0403 21:54:59.334326 13273 layer_factory.hpp:77] Creating layer loss1/classifier_plantvillage_loss1/classifier_plantvillage_0_split
I0403 21:54:59.334344 13273 net.cpp:91] Creating Layer loss1/classifier_plantvillage_loss1/classifier_plantvillage_0_split
I0403 21:54:59.334360 13273 net.cpp:425] loss1/classifier_plantvillage_loss1/classifier_plantvillage_0_split <- loss1/classifier_plantvillage
I0403 21:54:59.334381 13273 net.cpp:399] loss1/classifier_plantvillage_loss1/classifier_plantvillage_0_split -> loss1/classifier_plantvillage_loss1/classifier_plantvillage_0_split_0
I0403 21:54:59.334403 13273 net.cpp:399] loss1/classifier_plantvillage_loss1/classifier_plantvillage_0_split -> loss1/classifier_plantvillage_loss1/classifier_plantvillage_0_split_1
I0403 21:54:59.334424 13273 net.cpp:399] loss1/classifier_plantvillage_loss1/classifier_plantvillage_0_split -> loss1/classifier_plantvillage_loss1/classifier_plantvillage_0_split_2
I0403 21:54:59.334491 13273 net.cpp:141] Setting up loss1/classifier_plantvillage_loss1/classifier_plantvillage_0_split
I0403 21:54:59.334516 13273 net.cpp:148] Top shape: 24 38 (912)
I0403 21:54:59.334533 13273 net.cpp:148] Top shape: 24 38 (912)
I0403 21:54:59.334548 13273 net.cpp:148] Top shape: 24 38 (912)
I0403 21:54:59.334564 13273 net.cpp:156] Memory required for data: 946203936
I0403 21:54:59.334578 13273 layer_factory.hpp:77] Creating layer inception_4b/1x1
I0403 21:54:59.334602 13273 net.cpp:91] Creating Layer inception_4b/1x1
I0403 21:54:59.334635 13273 net.cpp:425] inception_4b/1x1 <- inception_4a/output_inception_4a/output_0_split_1
I0403 21:54:59.334656 13273 net.cpp:399] inception_4b/1x1 -> inception_4b/1x1
I0403 21:54:59.336282 13273 net.cpp:141] Setting up inception_4b/1x1
I0403 21:54:59.336313 13273 net.cpp:148] Top shape: 24 160 14 14 (752640)
I0403 21:54:59.336328 13273 net.cpp:156] Memory required for data: 949214496
I0403 21:54:59.336346 13273 layer_factory.hpp:77] Creating layer inception_4b/relu_1x1
I0403 21:54:59.336366 13273 net.cpp:91] Creating Layer inception_4b/relu_1x1
I0403 21:54:59.336385 13273 net.cpp:425] inception_4b/relu_1x1 <- inception_4b/1x1
I0403 21:54:59.336403 13273 net.cpp:386] inception_4b/relu_1x1 -> inception_4b/1x1 (in-place)
I0403 21:54:59.336582 13273 net.cpp:141] Setting up inception_4b/relu_1x1
I0403 21:54:59.336609 13273 net.cpp:148] Top shape: 24 160 14 14 (752640)
I0403 21:54:59.336624 13273 net.cpp:156] Memory required for data: 952225056
I0403 21:54:59.336640 13273 layer_factory.hpp:77] Creating layer inception_4b/3x3_reduce
I0403 21:54:59.336663 13273 net.cpp:91] Creating Layer inception_4b/3x3_reduce
I0403 21:54:59.336680 13273 net.cpp:425] inception_4b/3x3_reduce <- inception_4a/output_inception_4a/output_0_split_2
I0403 21:54:59.336704 13273 net.cpp:399] inception_4b/3x3_reduce -> inception_4b/3x3_reduce
I0403 21:54:59.338055 13273 net.cpp:141] Setting up inception_4b/3x3_reduce
I0403 21:54:59.338083 13273 net.cpp:148] Top shape: 24 112 14 14 (526848)
I0403 21:54:59.338099 13273 net.cpp:156] Memory required for data: 954332448
I0403 21:54:59.338117 13273 layer_factory.hpp:77] Creating layer inception_4b/relu_3x3_reduce
I0403 21:54:59.338138 13273 net.cpp:91] Creating Layer inception_4b/relu_3x3_reduce
I0403 21:54:59.338156 13273 net.cpp:425] inception_4b/relu_3x3_reduce <- inception_4b/3x3_reduce
I0403 21:54:59.338176 13273 net.cpp:386] inception_4b/relu_3x3_reduce -> inception_4b/3x3_reduce (in-place)
I0403 21:54:59.338464 13273 net.cpp:141] Setting up inception_4b/relu_3x3_reduce
I0403 21:54:59.338491 13273 net.cpp:148] Top shape: 24 112 14 14 (526848)
I0403 21:54:59.338506 13273 net.cpp:156] Memory required for data: 956439840
I0403 21:54:59.338522 13273 layer_factory.hpp:77] Creating layer inception_4b/3x3
I0403 21:54:59.338546 13273 net.cpp:91] Creating Layer inception_4b/3x3
I0403 21:54:59.338563 13273 net.cpp:425] inception_4b/3x3 <- inception_4b/3x3_reduce
I0403 21:54:59.338589 13273 net.cpp:399] inception_4b/3x3 -> inception_4b/3x3
I0403 21:54:59.341608 13273 net.cpp:141] Setting up inception_4b/3x3
I0403 21:54:59.341639 13273 net.cpp:148] Top shape: 24 224 14 14 (1053696)
I0403 21:54:59.341656 13273 net.cpp:156] Memory required for data: 960654624
I0403 21:54:59.341676 13273 layer_factory.hpp:77] Creating layer inception_4b/relu_3x3
I0403 21:54:59.341696 13273 net.cpp:91] Creating Layer inception_4b/relu_3x3
I0403 21:54:59.341713 13273 net.cpp:425] inception_4b/relu_3x3 <- inception_4b/3x3
I0403 21:54:59.341732 13273 net.cpp:386] inception_4b/relu_3x3 -> inception_4b/3x3 (in-place)
I0403 21:54:59.341917 13273 net.cpp:141] Setting up inception_4b/relu_3x3
I0403 21:54:59.341943 13273 net.cpp:148] Top shape: 24 224 14 14 (1053696)
I0403 21:54:59.341959 13273 net.cpp:156] Memory required for data: 964869408
I0403 21:54:59.341974 13273 layer_factory.hpp:77] Creating layer inception_4b/5x5_reduce
I0403 21:54:59.341998 13273 net.cpp:91] Creating Layer inception_4b/5x5_reduce
I0403 21:54:59.342016 13273 net.cpp:425] inception_4b/5x5_reduce <- inception_4a/output_inception_4a/output_0_split_3
I0403 21:54:59.342039 13273 net.cpp:399] inception_4b/5x5_reduce -> inception_4b/5x5_reduce
I0403 21:54:59.343144 13273 net.cpp:141] Setting up inception_4b/5x5_reduce
I0403 21:54:59.343173 13273 net.cpp:148] Top shape: 24 24 14 14 (112896)
I0403 21:54:59.343190 13273 net.cpp:156] Memory required for data: 965320992
I0403 21:54:59.343214 13273 layer_factory.hpp:77] Creating layer inception_4b/relu_5x5_reduce
I0403 21:54:59.343237 13273 net.cpp:91] Creating Layer inception_4b/relu_5x5_reduce
I0403 21:54:59.343269 13273 net.cpp:425] inception_4b/relu_5x5_reduce <- inception_4b/5x5_reduce
I0403 21:54:59.343288 13273 net.cpp:386] inception_4b/relu_5x5_reduce -> inception_4b/5x5_reduce (in-place)
I0403 21:54:59.343478 13273 net.cpp:141] Setting up inception_4b/relu_5x5_reduce
I0403 21:54:59.343505 13273 net.cpp:148] Top shape: 24 24 14 14 (112896)
I0403 21:54:59.343524 13273 net.cpp:156] Memory required for data: 965772576
I0403 21:54:59.343540 13273 layer_factory.hpp:77] Creating layer inception_4b/5x5
I0403 21:54:59.343560 13273 net.cpp:91] Creating Layer inception_4b/5x5
I0403 21:54:59.343578 13273 net.cpp:425] inception_4b/5x5 <- inception_4b/5x5_reduce
I0403 21:54:59.343600 13273 net.cpp:399] inception_4b/5x5 -> inception_4b/5x5
I0403 21:54:59.344848 13273 net.cpp:141] Setting up inception_4b/5x5
I0403 21:54:59.344877 13273 net.cpp:148] Top shape: 24 64 14 14 (301056)
I0403 21:54:59.344894 13273 net.cpp:156] Memory required for data: 966976800
I0403 21:54:59.344914 13273 layer_factory.hpp:77] Creating layer inception_4b/relu_5x5
I0403 21:54:59.344934 13273 net.cpp:91] Creating Layer inception_4b/relu_5x5
I0403 21:54:59.344951 13273 net.cpp:425] inception_4b/relu_5x5 <- inception_4b/5x5
I0403 21:54:59.344969 13273 net.cpp:386] inception_4b/relu_5x5 -> inception_4b/5x5 (in-place)
I0403 21:54:59.345253 13273 net.cpp:141] Setting up inception_4b/relu_5x5
I0403 21:54:59.345280 13273 net.cpp:148] Top shape: 24 64 14 14 (301056)
I0403 21:54:59.345296 13273 net.cpp:156] Memory required for data: 968181024
I0403 21:54:59.345311 13273 layer_factory.hpp:77] Creating layer inception_4b/pool
I0403 21:54:59.345329 13273 net.cpp:91] Creating Layer inception_4b/pool
I0403 21:54:59.345346 13273 net.cpp:425] inception_4b/pool <- inception_4a/output_inception_4a/output_0_split_4
I0403 21:54:59.345366 13273 net.cpp:399] inception_4b/pool -> inception_4b/pool
I0403 21:54:59.345430 13273 net.cpp:141] Setting up inception_4b/pool
I0403 21:54:59.345458 13273 net.cpp:148] Top shape: 24 512 14 14 (2408448)
I0403 21:54:59.345474 13273 net.cpp:156] Memory required for data: 977814816
I0403 21:54:59.345489 13273 layer_factory.hpp:77] Creating layer inception_4b/pool_proj
I0403 21:54:59.345510 13273 net.cpp:91] Creating Layer inception_4b/pool_proj
I0403 21:54:59.345527 13273 net.cpp:425] inception_4b/pool_proj <- inception_4b/pool
I0403 21:54:59.345546 13273 net.cpp:399] inception_4b/pool_proj -> inception_4b/pool_proj
I0403 21:54:59.346725 13273 net.cpp:141] Setting up inception_4b/pool_proj
I0403 21:54:59.346755 13273 net.cpp:148] Top shape: 24 64 14 14 (301056)
I0403 21:54:59.346770 13273 net.cpp:156] Memory required for data: 979019040
I0403 21:54:59.346787 13273 layer_factory.hpp:77] Creating layer inception_4b/relu_pool_proj
I0403 21:54:59.346808 13273 net.cpp:91] Creating Layer inception_4b/relu_pool_proj
I0403 21:54:59.346827 13273 net.cpp:425] inception_4b/relu_pool_proj <- inception_4b/pool_proj
I0403 21:54:59.346844 13273 net.cpp:386] inception_4b/relu_pool_proj -> inception_4b/pool_proj (in-place)
I0403 21:54:59.347023 13273 net.cpp:141] Setting up inception_4b/relu_pool_proj
I0403 21:54:59.347050 13273 net.cpp:148] Top shape: 24 64 14 14 (301056)
I0403 21:54:59.347065 13273 net.cpp:156] Memory required for data: 980223264
I0403 21:54:59.347080 13273 layer_factory.hpp:77] Creating layer inception_4b/output
I0403 21:54:59.347100 13273 net.cpp:91] Creating Layer inception_4b/output
I0403 21:54:59.347117 13273 net.cpp:425] inception_4b/output <- inception_4b/1x1
I0403 21:54:59.347134 13273 net.cpp:425] inception_4b/output <- inception_4b/3x3
I0403 21:54:59.347149 13273 net.cpp:425] inception_4b/output <- inception_4b/5x5
I0403 21:54:59.347165 13273 net.cpp:425] inception_4b/output <- inception_4b/pool_proj
I0403 21:54:59.347182 13273 net.cpp:399] inception_4b/output -> inception_4b/output
I0403 21:54:59.347232 13273 net.cpp:141] Setting up inception_4b/output
I0403 21:54:59.347257 13273 net.cpp:148] Top shape: 24 512 14 14 (2408448)
I0403 21:54:59.347272 13273 net.cpp:156] Memory required for data: 989857056
I0403 21:54:59.347302 13273 layer_factory.hpp:77] Creating layer inception_4b/output_inception_4b/output_0_split
I0403 21:54:59.347321 13273 net.cpp:91] Creating Layer inception_4b/output_inception_4b/output_0_split
I0403 21:54:59.347337 13273 net.cpp:425] inception_4b/output_inception_4b/output_0_split <- inception_4b/output
I0403 21:54:59.347357 13273 net.cpp:399] inception_4b/output_inception_4b/output_0_split -> inception_4b/output_inception_4b/output_0_split_0
I0403 21:54:59.347378 13273 net.cpp:399] inception_4b/output_inception_4b/output_0_split -> inception_4b/output_inception_4b/output_0_split_1
I0403 21:54:59.347399 13273 net.cpp:399] inception_4b/output_inception_4b/output_0_split -> inception_4b/output_inception_4b/output_0_split_2
I0403 21:54:59.347420 13273 net.cpp:399] inception_4b/output_inception_4b/output_0_split -> inception_4b/output_inception_4b/output_0_split_3
I0403 21:54:59.347504 13273 net.cpp:141] Setting up inception_4b/output_inception_4b/output_0_split
I0403 21:54:59.347532 13273 net.cpp:148] Top shape: 24 512 14 14 (2408448)
I0403 21:54:59.347549 13273 net.cpp:148] Top shape: 24 512 14 14 (2408448)
I0403 21:54:59.347565 13273 net.cpp:148] Top shape: 24 512 14 14 (2408448)
I0403 21:54:59.347580 13273 net.cpp:148] Top shape: 24 512 14 14 (2408448)
I0403 21:54:59.347594 13273 net.cpp:156] Memory required for data: 1028392224
I0403 21:54:59.347609 13273 layer_factory.hpp:77] Creating layer inception_4c/1x1
I0403 21:54:59.347631 13273 net.cpp:91] Creating Layer inception_4c/1x1
I0403 21:54:59.347648 13273 net.cpp:425] inception_4c/1x1 <- inception_4b/output_inception_4b/output_0_split_0
I0403 21:54:59.347669 13273 net.cpp:399] inception_4c/1x1 -> inception_4c/1x1
I0403 21:54:59.349068 13273 net.cpp:141] Setting up inception_4c/1x1
I0403 21:54:59.349097 13273 net.cpp:148] Top shape: 24 128 14 14 (602112)
I0403 21:54:59.349113 13273 net.cpp:156] Memory required for data: 1030800672
I0403 21:54:59.349133 13273 layer_factory.hpp:77] Creating layer inception_4c/relu_1x1
I0403 21:54:59.349155 13273 net.cpp:91] Creating Layer inception_4c/relu_1x1
I0403 21:54:59.349174 13273 net.cpp:425] inception_4c/relu_1x1 <- inception_4c/1x1
I0403 21:54:59.349191 13273 net.cpp:386] inception_4c/relu_1x1 -> inception_4c/1x1 (in-place)
I0403 21:54:59.349378 13273 net.cpp:141] Setting up inception_4c/relu_1x1
I0403 21:54:59.349405 13273 net.cpp:148] Top shape: 24 128 14 14 (602112)
I0403 21:54:59.349421 13273 net.cpp:156] Memory required for data: 1033209120
I0403 21:54:59.349436 13273 layer_factory.hpp:77] Creating layer inception_4c/3x3_reduce
I0403 21:54:59.349458 13273 net.cpp:91] Creating Layer inception_4c/3x3_reduce
I0403 21:54:59.349478 13273 net.cpp:425] inception_4c/3x3_reduce <- inception_4b/output_inception_4b/output_0_split_1
I0403 21:54:59.349503 13273 net.cpp:399] inception_4c/3x3_reduce -> inception_4c/3x3_reduce
I0403 21:54:59.351433 13273 net.cpp:141] Setting up inception_4c/3x3_reduce
I0403 21:54:59.351461 13273 net.cpp:148] Top shape: 24 128 14 14 (602112)
I0403 21:54:59.351477 13273 net.cpp:156] Memory required for data: 1035617568
I0403 21:54:59.351497 13273 layer_factory.hpp:77] Creating layer inception_4c/relu_3x3_reduce
I0403 21:54:59.351516 13273 net.cpp:91] Creating Layer inception_4c/relu_3x3_reduce
I0403 21:54:59.351532 13273 net.cpp:425] inception_4c/relu_3x3_reduce <- inception_4c/3x3_reduce
I0403 21:54:59.351552 13273 net.cpp:386] inception_4c/relu_3x3_reduce -> inception_4c/3x3_reduce (in-place)
I0403 21:54:59.351831 13273 net.cpp:141] Setting up inception_4c/relu_3x3_reduce
I0403 21:54:59.351860 13273 net.cpp:148] Top shape: 24 128 14 14 (602112)
I0403 21:54:59.351874 13273 net.cpp:156] Memory required for data: 1038026016
I0403 21:54:59.351891 13273 layer_factory.hpp:77] Creating layer inception_4c/3x3
I0403 21:54:59.351914 13273 net.cpp:91] Creating Layer inception_4c/3x3
I0403 21:54:59.351933 13273 net.cpp:425] inception_4c/3x3 <- inception_4c/3x3_reduce
I0403 21:54:59.351954 13273 net.cpp:399] inception_4c/3x3 -> inception_4c/3x3
I0403 21:54:59.355506 13273 net.cpp:141] Setting up inception_4c/3x3
I0403 21:54:59.355547 13273 net.cpp:148] Top shape: 24 256 14 14 (1204224)
I0403 21:54:59.355563 13273 net.cpp:156] Memory required for data: 1042842912
I0403 21:54:59.355595 13273 layer_factory.hpp:77] Creating layer inception_4c/relu_3x3
I0403 21:54:59.355618 13273 net.cpp:91] Creating Layer inception_4c/relu_3x3
I0403 21:54:59.355634 13273 net.cpp:425] inception_4c/relu_3x3 <- inception_4c/3x3
I0403 21:54:59.355651 13273 net.cpp:386] inception_4c/relu_3x3 -> inception_4c/3x3 (in-place)
I0403 21:54:59.355829 13273 net.cpp:141] Setting up inception_4c/relu_3x3
I0403 21:54:59.355854 13273 net.cpp:148] Top shape: 24 256 14 14 (1204224)
I0403 21:54:59.355870 13273 net.cpp:156] Memory required for data: 1047659808
I0403 21:54:59.355885 13273 layer_factory.hpp:77] Creating layer inception_4c/5x5_reduce
I0403 21:54:59.355906 13273 net.cpp:91] Creating Layer inception_4c/5x5_reduce
I0403 21:54:59.355926 13273 net.cpp:425] inception_4c/5x5_reduce <- inception_4b/output_inception_4b/output_0_split_2
I0403 21:54:59.355947 13273 net.cpp:399] inception_4c/5x5_reduce -> inception_4c/5x5_reduce
I0403 21:54:59.357020 13273 net.cpp:141] Setting up inception_4c/5x5_reduce
I0403 21:54:59.357048 13273 net.cpp:148] Top shape: 24 24 14 14 (112896)
I0403 21:54:59.357064 13273 net.cpp:156] Memory required for data: 1048111392
I0403 21:54:59.357084 13273 layer_factory.hpp:77] Creating layer inception_4c/relu_5x5_reduce
I0403 21:54:59.357101 13273 net.cpp:91] Creating Layer inception_4c/relu_5x5_reduce
I0403 21:54:59.357118 13273 net.cpp:425] inception_4c/relu_5x5_reduce <- inception_4c/5x5_reduce
I0403 21:54:59.357137 13273 net.cpp:386] inception_4c/relu_5x5_reduce -> inception_4c/5x5_reduce (in-place)
I0403 21:54:59.357326 13273 net.cpp:141] Setting up inception_4c/relu_5x5_reduce
I0403 21:54:59.357352 13273 net.cpp:148] Top shape: 24 24 14 14 (112896)
I0403 21:54:59.357365 13273 net.cpp:156] Memory required for data: 1048562976
I0403 21:54:59.357379 13273 layer_factory.hpp:77] Creating layer inception_4c/5x5
I0403 21:54:59.357403 13273 net.cpp:91] Creating Layer inception_4c/5x5
I0403 21:54:59.357419 13273 net.cpp:425] inception_4c/5x5 <- inception_4c/5x5_reduce
I0403 21:54:59.357440 13273 net.cpp:399] inception_4c/5x5 -> inception_4c/5x5
I0403 21:54:59.358667 13273 net.cpp:141] Setting up inception_4c/5x5
I0403 21:54:59.358695 13273 net.cpp:148] Top shape: 24 64 14 14 (301056)
I0403 21:54:59.358711 13273 net.cpp:156] Memory required for data: 1049767200
I0403 21:54:59.358728 13273 layer_factory.hpp:77] Creating layer inception_4c/relu_5x5
I0403 21:54:59.358748 13273 net.cpp:91] Creating Layer inception_4c/relu_5x5
I0403 21:54:59.358765 13273 net.cpp:425] inception_4c/relu_5x5 <- inception_4c/5x5
I0403 21:54:59.358783 13273 net.cpp:386] inception_4c/relu_5x5 -> inception_4c/5x5 (in-place)
I0403 21:54:59.359066 13273 net.cpp:141] Setting up inception_4c/relu_5x5
I0403 21:54:59.359092 13273 net.cpp:148] Top shape: 24 64 14 14 (301056)
I0403 21:54:59.359107 13273 net.cpp:156] Memory required for data: 1050971424
I0403 21:54:59.359122 13273 layer_factory.hpp:77] Creating layer inception_4c/pool
I0403 21:54:59.359143 13273 net.cpp:91] Creating Layer inception_4c/pool
I0403 21:54:59.359159 13273 net.cpp:425] inception_4c/pool <- inception_4b/output_inception_4b/output_0_split_3
I0403 21:54:59.359177 13273 net.cpp:399] inception_4c/pool -> inception_4c/pool
I0403 21:54:59.359248 13273 net.cpp:141] Setting up inception_4c/pool
I0403 21:54:59.359272 13273 net.cpp:148] Top shape: 24 512 14 14 (2408448)
I0403 21:54:59.359287 13273 net.cpp:156] Memory required for data: 1060605216
I0403 21:54:59.359300 13273 layer_factory.hpp:77] Creating layer inception_4c/pool_proj
I0403 21:54:59.359323 13273 net.cpp:91] Creating Layer inception_4c/pool_proj
I0403 21:54:59.359339 13273 net.cpp:425] inception_4c/pool_proj <- inception_4c/pool
I0403 21:54:59.359360 13273 net.cpp:399] inception_4c/pool_proj -> inception_4c/pool_proj
I0403 21:54:59.360554 13273 net.cpp:141] Setting up inception_4c/pool_proj
I0403 21:54:59.360582 13273 net.cpp:148] Top shape: 24 64 14 14 (301056)
I0403 21:54:59.360611 13273 net.cpp:156] Memory required for data: 1061809440
I0403 21:54:59.360630 13273 layer_factory.hpp:77] Creating layer inception_4c/relu_pool_proj
I0403 21:54:59.360651 13273 net.cpp:91] Creating Layer inception_4c/relu_pool_proj
I0403 21:54:59.360669 13273 net.cpp:425] inception_4c/relu_pool_proj <- inception_4c/pool_proj
I0403 21:54:59.360687 13273 net.cpp:386] inception_4c/relu_pool_proj -> inception_4c/pool_proj (in-place)
I0403 21:54:59.360867 13273 net.cpp:141] Setting up inception_4c/relu_pool_proj
I0403 21:54:59.360891 13273 net.cpp:148] Top shape: 24 64 14 14 (301056)
I0403 21:54:59.360906 13273 net.cpp:156] Memory required for data: 1063013664
I0403 21:54:59.360921 13273 layer_factory.hpp:77] Creating layer inception_4c/output
I0403 21:54:59.360940 13273 net.cpp:91] Creating Layer inception_4c/output
I0403 21:54:59.360957 13273 net.cpp:425] inception_4c/output <- inception_4c/1x1
I0403 21:54:59.360973 13273 net.cpp:425] inception_4c/output <- inception_4c/3x3
I0403 21:54:59.360990 13273 net.cpp:425] inception_4c/output <- inception_4c/5x5
I0403 21:54:59.361004 13273 net.cpp:425] inception_4c/output <- inception_4c/pool_proj
I0403 21:54:59.361021 13273 net.cpp:399] inception_4c/output -> inception_4c/output
I0403 21:54:59.361068 13273 net.cpp:141] Setting up inception_4c/output
I0403 21:54:59.361093 13273 net.cpp:148] Top shape: 24 512 14 14 (2408448)
I0403 21:54:59.361106 13273 net.cpp:156] Memory required for data: 1072647456
I0403 21:54:59.361120 13273 layer_factory.hpp:77] Creating layer inception_4c/output_inception_4c/output_0_split
I0403 21:54:59.361137 13273 net.cpp:91] Creating Layer inception_4c/output_inception_4c/output_0_split
I0403 21:54:59.361152 13273 net.cpp:425] inception_4c/output_inception_4c/output_0_split <- inception_4c/output
I0403 21:54:59.361176 13273 net.cpp:399] inception_4c/output_inception_4c/output_0_split -> inception_4c/output_inception_4c/output_0_split_0
I0403 21:54:59.361197 13273 net.cpp:399] inception_4c/output_inception_4c/output_0_split -> inception_4c/output_inception_4c/output_0_split_1
I0403 21:54:59.361222 13273 net.cpp:399] inception_4c/output_inception_4c/output_0_split -> inception_4c/output_inception_4c/output_0_split_2
I0403 21:54:59.361244 13273 net.cpp:399] inception_4c/output_inception_4c/output_0_split -> inception_4c/output_inception_4c/output_0_split_3
I0403 21:54:59.361330 13273 net.cpp:141] Setting up inception_4c/output_inception_4c/output_0_split
I0403 21:54:59.361356 13273 net.cpp:148] Top shape: 24 512 14 14 (2408448)
I0403 21:54:59.361372 13273 net.cpp:148] Top shape: 24 512 14 14 (2408448)
I0403 21:54:59.361388 13273 net.cpp:148] Top shape: 24 512 14 14 (2408448)
I0403 21:54:59.361403 13273 net.cpp:148] Top shape: 24 512 14 14 (2408448)
I0403 21:54:59.361418 13273 net.cpp:156] Memory required for data: 1111182624
I0403 21:54:59.361431 13273 layer_factory.hpp:77] Creating layer inception_4d/1x1
I0403 21:54:59.361452 13273 net.cpp:91] Creating Layer inception_4d/1x1
I0403 21:54:59.361470 13273 net.cpp:425] inception_4d/1x1 <- inception_4c/output_inception_4c/output_0_split_0
I0403 21:54:59.361490 13273 net.cpp:399] inception_4d/1x1 -> inception_4d/1x1
I0403 21:54:59.362843 13273 net.cpp:141] Setting up inception_4d/1x1
I0403 21:54:59.362872 13273 net.cpp:148] Top shape: 24 112 14 14 (526848)
I0403 21:54:59.362890 13273 net.cpp:156] Memory required for data: 1113290016
I0403 21:54:59.362908 13273 layer_factory.hpp:77] Creating layer inception_4d/relu_1x1
I0403 21:54:59.362926 13273 net.cpp:91] Creating Layer inception_4d/relu_1x1
I0403 21:54:59.362942 13273 net.cpp:425] inception_4d/relu_1x1 <- inception_4d/1x1
I0403 21:54:59.362962 13273 net.cpp:386] inception_4d/relu_1x1 -> inception_4d/1x1 (in-place)
I0403 21:54:59.363143 13273 net.cpp:141] Setting up inception_4d/relu_1x1
I0403 21:54:59.363168 13273 net.cpp:148] Top shape: 24 112 14 14 (526848)
I0403 21:54:59.363183 13273 net.cpp:156] Memory required for data: 1115397408
I0403 21:54:59.363199 13273 layer_factory.hpp:77] Creating layer inception_4d/3x3_reduce
I0403 21:54:59.363240 13273 net.cpp:91] Creating Layer inception_4d/3x3_reduce
I0403 21:54:59.363258 13273 net.cpp:425] inception_4d/3x3_reduce <- inception_4c/output_inception_4c/output_0_split_1
I0403 21:54:59.363279 13273 net.cpp:399] inception_4d/3x3_reduce -> inception_4d/3x3_reduce
I0403 21:54:59.364751 13273 net.cpp:141] Setting up inception_4d/3x3_reduce
I0403 21:54:59.364781 13273 net.cpp:148] Top shape: 24 144 14 14 (677376)
I0403 21:54:59.364797 13273 net.cpp:156] Memory required for data: 1118106912
I0403 21:54:59.364815 13273 layer_factory.hpp:77] Creating layer inception_4d/relu_3x3_reduce
I0403 21:54:59.364832 13273 net.cpp:91] Creating Layer inception_4d/relu_3x3_reduce
I0403 21:54:59.364847 13273 net.cpp:425] inception_4d/relu_3x3_reduce <- inception_4d/3x3_reduce
I0403 21:54:59.364863 13273 net.cpp:386] inception_4d/relu_3x3_reduce -> inception_4d/3x3_reduce (in-place)
I0403 21:54:59.365146 13273 net.cpp:141] Setting up inception_4d/relu_3x3_reduce
I0403 21:54:59.365175 13273 net.cpp:148] Top shape: 24 144 14 14 (677376)
I0403 21:54:59.365190 13273 net.cpp:156] Memory required for data: 1120816416
I0403 21:54:59.365206 13273 layer_factory.hpp:77] Creating layer inception_4d/3x3
I0403 21:54:59.365231 13273 net.cpp:91] Creating Layer inception_4d/3x3
I0403 21:54:59.365248 13273 net.cpp:425] inception_4d/3x3 <- inception_4d/3x3_reduce
I0403 21:54:59.365273 13273 net.cpp:399] inception_4d/3x3 -> inception_4d/3x3
I0403 21:54:59.369420 13273 net.cpp:141] Setting up inception_4d/3x3
I0403 21:54:59.369449 13273 net.cpp:148] Top shape: 24 288 14 14 (1354752)
I0403 21:54:59.369467 13273 net.cpp:156] Memory required for data: 1126235424
I0403 21:54:59.369485 13273 layer_factory.hpp:77] Creating layer inception_4d/relu_3x3
I0403 21:54:59.369505 13273 net.cpp:91] Creating Layer inception_4d/relu_3x3
I0403 21:54:59.369523 13273 net.cpp:425] inception_4d/relu_3x3 <- inception_4d/3x3
I0403 21:54:59.369542 13273 net.cpp:386] inception_4d/relu_3x3 -> inception_4d/3x3 (in-place)
I0403 21:54:59.369729 13273 net.cpp:141] Setting up inception_4d/relu_3x3
I0403 21:54:59.369755 13273 net.cpp:148] Top shape: 24 288 14 14 (1354752)
I0403 21:54:59.369770 13273 net.cpp:156] Memory required for data: 1131654432
I0403 21:54:59.369784 13273 layer_factory.hpp:77] Creating layer inception_4d/5x5_reduce
I0403 21:54:59.369807 13273 net.cpp:91] Creating Layer inception_4d/5x5_reduce
I0403 21:54:59.369824 13273 net.cpp:425] inception_4d/5x5_reduce <- inception_4c/output_inception_4c/output_0_split_2
I0403 21:54:59.369846 13273 net.cpp:399] inception_4d/5x5_reduce -> inception_4d/5x5_reduce
I0403 21:54:59.371014 13273 net.cpp:141] Setting up inception_4d/5x5_reduce
I0403 21:54:59.371043 13273 net.cpp:148] Top shape: 24 32 14 14 (150528)
I0403 21:54:59.371062 13273 net.cpp:156] Memory required for data: 1132256544
I0403 21:54:59.371080 13273 layer_factory.hpp:77] Creating layer inception_4d/relu_5x5_reduce
I0403 21:54:59.371098 13273 net.cpp:91] Creating Layer inception_4d/relu_5x5_reduce
I0403 21:54:59.371114 13273 net.cpp:425] inception_4d/relu_5x5_reduce <- inception_4d/5x5_reduce
I0403 21:54:59.371134 13273 net.cpp:386] inception_4d/relu_5x5_reduce -> inception_4d/5x5_reduce (in-place)
I0403 21:54:59.371325 13273 net.cpp:141] Setting up inception_4d/relu_5x5_reduce
I0403 21:54:59.371351 13273 net.cpp:148] Top shape: 24 32 14 14 (150528)
I0403 21:54:59.371366 13273 net.cpp:156] Memory required for data: 1132858656
I0403 21:54:59.371379 13273 layer_factory.hpp:77] Creating layer inception_4d/5x5
I0403 21:54:59.371402 13273 net.cpp:91] Creating Layer inception_4d/5x5
I0403 21:54:59.371419 13273 net.cpp:425] inception_4d/5x5 <- inception_4d/5x5_reduce
I0403 21:54:59.371440 13273 net.cpp:399] inception_4d/5x5 -> inception_4d/5x5
I0403 21:54:59.372869 13273 net.cpp:141] Setting up inception_4d/5x5
I0403 21:54:59.372897 13273 net.cpp:148] Top shape: 24 64 14 14 (301056)
I0403 21:54:59.372913 13273 net.cpp:156] Memory required for data: 1134062880
I0403 21:54:59.372933 13273 layer_factory.hpp:77] Creating layer inception_4d/relu_5x5
I0403 21:54:59.372968 13273 net.cpp:91] Creating Layer inception_4d/relu_5x5
I0403 21:54:59.372987 13273 net.cpp:425] inception_4d/relu_5x5 <- inception_4d/5x5
I0403 21:54:59.373004 13273 net.cpp:386] inception_4d/relu_5x5 -> inception_4d/5x5 (in-place)
I0403 21:54:59.373306 13273 net.cpp:141] Setting up inception_4d/relu_5x5
I0403 21:54:59.373332 13273 net.cpp:148] Top shape: 24 64 14 14 (301056)
I0403 21:54:59.373347 13273 net.cpp:156] Memory required for data: 1135267104
I0403 21:54:59.373363 13273 layer_factory.hpp:77] Creating layer inception_4d/pool
I0403 21:54:59.373383 13273 net.cpp:91] Creating Layer inception_4d/pool
I0403 21:54:59.373400 13273 net.cpp:425] inception_4d/pool <- inception_4c/output_inception_4c/output_0_split_3
I0403 21:54:59.373419 13273 net.cpp:399] inception_4d/pool -> inception_4d/pool
I0403 21:54:59.373486 13273 net.cpp:141] Setting up inception_4d/pool
I0403 21:54:59.373512 13273 net.cpp:148] Top shape: 24 512 14 14 (2408448)
I0403 21:54:59.373527 13273 net.cpp:156] Memory required for data: 1144900896
I0403 21:54:59.373541 13273 layer_factory.hpp:77] Creating layer inception_4d/pool_proj
I0403 21:54:59.373564 13273 net.cpp:91] Creating Layer inception_4d/pool_proj
I0403 21:54:59.373581 13273 net.cpp:425] inception_4d/pool_proj <- inception_4d/pool
I0403 21:54:59.373601 13273 net.cpp:399] inception_4d/pool_proj -> inception_4d/pool_proj
I0403 21:54:59.375365 13273 net.cpp:141] Setting up inception_4d/pool_proj
I0403 21:54:59.375393 13273 net.cpp:148] Top shape: 24 64 14 14 (301056)
I0403 21:54:59.375409 13273 net.cpp:156] Memory required for data: 1146105120
I0403 21:54:59.375427 13273 layer_factory.hpp:77] Creating layer inception_4d/relu_pool_proj
I0403 21:54:59.375447 13273 net.cpp:91] Creating Layer inception_4d/relu_pool_proj
I0403 21:54:59.375461 13273 net.cpp:425] inception_4d/relu_pool_proj <- inception_4d/pool_proj
I0403 21:54:59.375483 13273 net.cpp:386] inception_4d/relu_pool_proj -> inception_4d/pool_proj (in-place)
I0403 21:54:59.375665 13273 net.cpp:141] Setting up inception_4d/relu_pool_proj
I0403 21:54:59.375690 13273 net.cpp:148] Top shape: 24 64 14 14 (301056)
I0403 21:54:59.375705 13273 net.cpp:156] Memory required for data: 1147309344
I0403 21:54:59.375720 13273 layer_factory.hpp:77] Creating layer inception_4d/output
I0403 21:54:59.375738 13273 net.cpp:91] Creating Layer inception_4d/output
I0403 21:54:59.375757 13273 net.cpp:425] inception_4d/output <- inception_4d/1x1
I0403 21:54:59.375774 13273 net.cpp:425] inception_4d/output <- inception_4d/3x3
I0403 21:54:59.375790 13273 net.cpp:425] inception_4d/output <- inception_4d/5x5
I0403 21:54:59.375807 13273 net.cpp:425] inception_4d/output <- inception_4d/pool_proj
I0403 21:54:59.375823 13273 net.cpp:399] inception_4d/output -> inception_4d/output
I0403 21:54:59.375869 13273 net.cpp:141] Setting up inception_4d/output
I0403 21:54:59.375896 13273 net.cpp:148] Top shape: 24 528 14 14 (2483712)
I0403 21:54:59.375911 13273 net.cpp:156] Memory required for data: 1157244192
I0403 21:54:59.375926 13273 layer_factory.hpp:77] Creating layer inception_4d/output_inception_4d/output_0_split
I0403 21:54:59.375944 13273 net.cpp:91] Creating Layer inception_4d/output_inception_4d/output_0_split
I0403 21:54:59.375960 13273 net.cpp:425] inception_4d/output_inception_4d/output_0_split <- inception_4d/output
I0403 21:54:59.375979 13273 net.cpp:399] inception_4d/output_inception_4d/output_0_split -> inception_4d/output_inception_4d/output_0_split_0
I0403 21:54:59.376003 13273 net.cpp:399] inception_4d/output_inception_4d/output_0_split -> inception_4d/output_inception_4d/output_0_split_1
I0403 21:54:59.376024 13273 net.cpp:399] inception_4d/output_inception_4d/output_0_split -> inception_4d/output_inception_4d/output_0_split_2
I0403 21:54:59.376044 13273 net.cpp:399] inception_4d/output_inception_4d/output_0_split -> inception_4d/output_inception_4d/output_0_split_3
I0403 21:54:59.376063 13273 net.cpp:399] inception_4d/output_inception_4d/output_0_split -> inception_4d/output_inception_4d/output_0_split_4
I0403 21:54:59.376168 13273 net.cpp:141] Setting up inception_4d/output_inception_4d/output_0_split
I0403 21:54:59.376204 13273 net.cpp:148] Top shape: 24 528 14 14 (2483712)
I0403 21:54:59.376229 13273 net.cpp:148] Top shape: 24 528 14 14 (2483712)
I0403 21:54:59.376245 13273 net.cpp:148] Top shape: 24 528 14 14 (2483712)
I0403 21:54:59.376261 13273 net.cpp:148] Top shape: 24 528 14 14 (2483712)
I0403 21:54:59.376277 13273 net.cpp:148] Top shape: 24 528 14 14 (2483712)
I0403 21:54:59.376291 13273 net.cpp:156] Memory required for data: 1206918432
I0403 21:54:59.376307 13273 layer_factory.hpp:77] Creating layer loss2/ave_pool
I0403 21:54:59.376323 13273 net.cpp:91] Creating Layer loss2/ave_pool
I0403 21:54:59.376339 13273 net.cpp:425] loss2/ave_pool <- inception_4d/output_inception_4d/output_0_split_0
I0403 21:54:59.376360 13273 net.cpp:399] loss2/ave_pool -> loss2/ave_pool
I0403 21:54:59.376667 13273 net.cpp:141] Setting up loss2/ave_pool
I0403 21:54:59.376693 13273 net.cpp:148] Top shape: 24 528 4 4 (202752)
I0403 21:54:59.376709 13273 net.cpp:156] Memory required for data: 1207729440
I0403 21:54:59.376724 13273 layer_factory.hpp:77] Creating layer loss2/conv
I0403 21:54:59.376745 13273 net.cpp:91] Creating Layer loss2/conv
I0403 21:54:59.376765 13273 net.cpp:425] loss2/conv <- loss2/ave_pool
I0403 21:54:59.376785 13273 net.cpp:399] loss2/conv -> loss2/conv
I0403 21:54:59.378674 13273 net.cpp:141] Setting up loss2/conv
I0403 21:54:59.378703 13273 net.cpp:148] Top shape: 24 128 4 4 (49152)
I0403 21:54:59.378720 13273 net.cpp:156] Memory required for data: 1207926048
I0403 21:54:59.378738 13273 layer_factory.hpp:77] Creating layer loss2/relu_conv
I0403 21:54:59.378758 13273 net.cpp:91] Creating Layer loss2/relu_conv
I0403 21:54:59.378775 13273 net.cpp:425] loss2/relu_conv <- loss2/conv
I0403 21:54:59.378793 13273 net.cpp:386] loss2/relu_conv -> loss2/conv (in-place)
I0403 21:54:59.379078 13273 net.cpp:141] Setting up loss2/relu_conv
I0403 21:54:59.379106 13273 net.cpp:148] Top shape: 24 128 4 4 (49152)
I0403 21:54:59.379122 13273 net.cpp:156] Memory required for data: 1208122656
I0403 21:54:59.379135 13273 layer_factory.hpp:77] Creating layer loss2/fc
I0403 21:54:59.379155 13273 net.cpp:91] Creating Layer loss2/fc
I0403 21:54:59.379173 13273 net.cpp:425] loss2/fc <- loss2/conv
I0403 21:54:59.379191 13273 net.cpp:399] loss2/fc -> loss2/fc
I0403 21:54:59.396845 13273 net.cpp:141] Setting up loss2/fc
I0403 21:54:59.396881 13273 net.cpp:148] Top shape: 24 1024 (24576)
I0403 21:54:59.396898 13273 net.cpp:156] Memory required for data: 1208220960
I0403 21:54:59.396915 13273 layer_factory.hpp:77] Creating layer loss2/relu_fc
I0403 21:54:59.396932 13273 net.cpp:91] Creating Layer loss2/relu_fc
I0403 21:54:59.396949 13273 net.cpp:425] loss2/relu_fc <- loss2/fc
I0403 21:54:59.396967 13273 net.cpp:386] loss2/relu_fc -> loss2/fc (in-place)
I0403 21:54:59.397264 13273 net.cpp:141] Setting up loss2/relu_fc
I0403 21:54:59.397289 13273 net.cpp:148] Top shape: 24 1024 (24576)
I0403 21:54:59.397305 13273 net.cpp:156] Memory required for data: 1208319264
I0403 21:54:59.397320 13273 layer_factory.hpp:77] Creating layer loss2/drop_fc
I0403 21:54:59.397336 13273 net.cpp:91] Creating Layer loss2/drop_fc
I0403 21:54:59.397352 13273 net.cpp:425] loss2/drop_fc <- loss2/fc
I0403 21:54:59.397372 13273 net.cpp:386] loss2/drop_fc -> loss2/fc (in-place)
I0403 21:54:59.397419 13273 net.cpp:141] Setting up loss2/drop_fc
I0403 21:54:59.397445 13273 net.cpp:148] Top shape: 24 1024 (24576)
I0403 21:54:59.397461 13273 net.cpp:156] Memory required for data: 1208417568
I0403 21:54:59.397475 13273 layer_factory.hpp:77] Creating layer loss2/classifier_plantvillage
I0403 21:54:59.397493 13273 net.cpp:91] Creating Layer loss2/classifier_plantvillage
I0403 21:54:59.397508 13273 net.cpp:425] loss2/classifier_plantvillage <- loss2/fc
I0403 21:54:59.397528 13273 net.cpp:399] loss2/classifier_plantvillage -> loss2/classifier_plantvillage
I0403 21:54:59.397915 13273 net.cpp:141] Setting up loss2/classifier_plantvillage
I0403 21:54:59.397943 13273 net.cpp:148] Top shape: 24 38 (912)
I0403 21:54:59.397958 13273 net.cpp:156] Memory required for data: 1208421216
I0403 21:54:59.397991 13273 layer_factory.hpp:77] Creating layer loss2/classifier_plantvillage_loss2/classifier_plantvillage_0_split
I0403 21:54:59.398010 13273 net.cpp:91] Creating Layer loss2/classifier_plantvillage_loss2/classifier_plantvillage_0_split
I0403 21:54:59.398025 13273 net.cpp:425] loss2/classifier_plantvillage_loss2/classifier_plantvillage_0_split <- loss2/classifier_plantvillage
I0403 21:54:59.398042 13273 net.cpp:399] loss2/classifier_plantvillage_loss2/classifier_plantvillage_0_split -> loss2/classifier_plantvillage_loss2/classifier_plantvillage_0_split_0
I0403 21:54:59.398061 13273 net.cpp:399] loss2/classifier_plantvillage_loss2/classifier_plantvillage_0_split -> loss2/classifier_plantvillage_loss2/classifier_plantvillage_0_split_1
I0403 21:54:59.398082 13273 net.cpp:399] loss2/classifier_plantvillage_loss2/classifier_plantvillage_0_split -> loss2/classifier_plantvillage_loss2/classifier_plantvillage_0_split_2
I0403 21:54:59.398159 13273 net.cpp:141] Setting up loss2/classifier_plantvillage_loss2/classifier_plantvillage_0_split
I0403 21:54:59.398181 13273 net.cpp:148] Top shape: 24 38 (912)
I0403 21:54:59.398198 13273 net.cpp:148] Top shape: 24 38 (912)
I0403 21:54:59.398218 13273 net.cpp:148] Top shape: 24 38 (912)
I0403 21:54:59.398232 13273 net.cpp:156] Memory required for data: 1208432160
I0403 21:54:59.398247 13273 layer_factory.hpp:77] Creating layer inception_4e/1x1
I0403 21:54:59.398267 13273 net.cpp:91] Creating Layer inception_4e/1x1
I0403 21:54:59.398283 13273 net.cpp:425] inception_4e/1x1 <- inception_4d/output_inception_4d/output_0_split_1
I0403 21:54:59.398303 13273 net.cpp:399] inception_4e/1x1 -> inception_4e/1x1
I0403 21:54:59.400080 13273 net.cpp:141] Setting up inception_4e/1x1
I0403 21:54:59.400109 13273 net.cpp:148] Top shape: 24 256 14 14 (1204224)
I0403 21:54:59.400123 13273 net.cpp:156] Memory required for data: 1213249056
I0403 21:54:59.400141 13273 layer_factory.hpp:77] Creating layer inception_4e/relu_1x1
I0403 21:54:59.400161 13273 net.cpp:91] Creating Layer inception_4e/relu_1x1
I0403 21:54:59.400177 13273 net.cpp:425] inception_4e/relu_1x1 <- inception_4e/1x1
I0403 21:54:59.400195 13273 net.cpp:386] inception_4e/relu_1x1 -> inception_4e/1x1 (in-place)
I0403 21:54:59.400493 13273 net.cpp:141] Setting up inception_4e/relu_1x1
I0403 21:54:59.400519 13273 net.cpp:148] Top shape: 24 256 14 14 (1204224)
I0403 21:54:59.400534 13273 net.cpp:156] Memory required for data: 1218065952
I0403 21:54:59.400549 13273 layer_factory.hpp:77] Creating layer inception_4e/3x3_reduce
I0403 21:54:59.400571 13273 net.cpp:91] Creating Layer inception_4e/3x3_reduce
I0403 21:54:59.400589 13273 net.cpp:425] inception_4e/3x3_reduce <- inception_4d/output_inception_4d/output_0_split_2
I0403 21:54:59.400611 13273 net.cpp:399] inception_4e/3x3_reduce -> inception_4e/3x3_reduce
I0403 21:54:59.402740 13273 net.cpp:141] Setting up inception_4e/3x3_reduce
I0403 21:54:59.402770 13273 net.cpp:148] Top shape: 24 160 14 14 (752640)
I0403 21:54:59.402786 13273 net.cpp:156] Memory required for data: 1221076512
I0403 21:54:59.402804 13273 layer_factory.hpp:77] Creating layer inception_4e/relu_3x3_reduce
I0403 21:54:59.402824 13273 net.cpp:91] Creating Layer inception_4e/relu_3x3_reduce
I0403 21:54:59.402842 13273 net.cpp:425] inception_4e/relu_3x3_reduce <- inception_4e/3x3_reduce
I0403 21:54:59.402858 13273 net.cpp:386] inception_4e/relu_3x3_reduce -> inception_4e/3x3_reduce (in-place)
I0403 21:54:59.403044 13273 net.cpp:141] Setting up inception_4e/relu_3x3_reduce
I0403 21:54:59.403069 13273 net.cpp:148] Top shape: 24 160 14 14 (752640)
I0403 21:54:59.403084 13273 net.cpp:156] Memory required for data: 1224087072
I0403 21:54:59.403100 13273 layer_factory.hpp:77] Creating layer inception_4e/3x3
I0403 21:54:59.403127 13273 net.cpp:91] Creating Layer inception_4e/3x3
I0403 21:54:59.403146 13273 net.cpp:425] inception_4e/3x3 <- inception_4e/3x3_reduce
I0403 21:54:59.403164 13273 net.cpp:399] inception_4e/3x3 -> inception_4e/3x3
I0403 21:54:59.408110 13273 net.cpp:141] Setting up inception_4e/3x3
I0403 21:54:59.408151 13273 net.cpp:148] Top shape: 24 320 14 14 (1505280)
I0403 21:54:59.408169 13273 net.cpp:156] Memory required for data: 1230108192
I0403 21:54:59.408186 13273 layer_factory.hpp:77] Creating layer inception_4e/relu_3x3
I0403 21:54:59.408206 13273 net.cpp:91] Creating Layer inception_4e/relu_3x3
I0403 21:54:59.408229 13273 net.cpp:425] inception_4e/relu_3x3 <- inception_4e/3x3
I0403 21:54:59.408248 13273 net.cpp:386] inception_4e/relu_3x3 -> inception_4e/3x3 (in-place)
I0403 21:54:59.408543 13273 net.cpp:141] Setting up inception_4e/relu_3x3
I0403 21:54:59.408576 13273 net.cpp:148] Top shape: 24 320 14 14 (1505280)
I0403 21:54:59.408591 13273 net.cpp:156] Memory required for data: 1236129312
I0403 21:54:59.408606 13273 layer_factory.hpp:77] Creating layer inception_4e/5x5_reduce
I0403 21:54:59.408629 13273 net.cpp:91] Creating Layer inception_4e/5x5_reduce
I0403 21:54:59.408648 13273 net.cpp:425] inception_4e/5x5_reduce <- inception_4d/output_inception_4d/output_0_split_3
I0403 21:54:59.408666 13273 net.cpp:399] inception_4e/5x5_reduce -> inception_4e/5x5_reduce
I0403 21:54:59.409723 13273 net.cpp:141] Setting up inception_4e/5x5_reduce
I0403 21:54:59.409751 13273 net.cpp:148] Top shape: 24 32 14 14 (150528)
I0403 21:54:59.409767 13273 net.cpp:156] Memory required for data: 1236731424
I0403 21:54:59.409786 13273 layer_factory.hpp:77] Creating layer inception_4e/relu_5x5_reduce
I0403 21:54:59.409807 13273 net.cpp:91] Creating Layer inception_4e/relu_5x5_reduce
I0403 21:54:59.409823 13273 net.cpp:425] inception_4e/relu_5x5_reduce <- inception_4e/5x5_reduce
I0403 21:54:59.409842 13273 net.cpp:386] inception_4e/relu_5x5_reduce -> inception_4e/5x5_reduce (in-place)
I0403 21:54:59.410133 13273 net.cpp:141] Setting up inception_4e/relu_5x5_reduce
I0403 21:54:59.410159 13273 net.cpp:148] Top shape: 24 32 14 14 (150528)
I0403 21:54:59.410176 13273 net.cpp:156] Memory required for data: 1237333536
I0403 21:54:59.410190 13273 layer_factory.hpp:77] Creating layer inception_4e/5x5
I0403 21:54:59.410233 13273 net.cpp:91] Creating Layer inception_4e/5x5
I0403 21:54:59.410254 13273 net.cpp:425] inception_4e/5x5 <- inception_4e/5x5_reduce
I0403 21:54:59.410277 13273 net.cpp:399] inception_4e/5x5 -> inception_4e/5x5
I0403 21:54:59.412107 13273 net.cpp:141] Setting up inception_4e/5x5
I0403 21:54:59.412135 13273 net.cpp:148] Top shape: 24 128 14 14 (602112)
I0403 21:54:59.412150 13273 net.cpp:156] Memory required for data: 1239741984
I0403 21:54:59.412169 13273 layer_factory.hpp:77] Creating layer inception_4e/relu_5x5
I0403 21:54:59.412186 13273 net.cpp:91] Creating Layer inception_4e/relu_5x5
I0403 21:54:59.412202 13273 net.cpp:425] inception_4e/relu_5x5 <- inception_4e/5x5
I0403 21:54:59.412235 13273 net.cpp:386] inception_4e/relu_5x5 -> inception_4e/5x5 (in-place)
I0403 21:54:59.412433 13273 net.cpp:141] Setting up inception_4e/relu_5x5
I0403 21:54:59.412459 13273 net.cpp:148] Top shape: 24 128 14 14 (602112)
I0403 21:54:59.412475 13273 net.cpp:156] Memory required for data: 1242150432
I0403 21:54:59.412490 13273 layer_factory.hpp:77] Creating layer inception_4e/pool
I0403 21:54:59.412510 13273 net.cpp:91] Creating Layer inception_4e/pool
I0403 21:54:59.412528 13273 net.cpp:425] inception_4e/pool <- inception_4d/output_inception_4d/output_0_split_4
I0403 21:54:59.412545 13273 net.cpp:399] inception_4e/pool -> inception_4e/pool
I0403 21:54:59.412619 13273 net.cpp:141] Setting up inception_4e/pool
I0403 21:54:59.412642 13273 net.cpp:148] Top shape: 24 528 14 14 (2483712)
I0403 21:54:59.412658 13273 net.cpp:156] Memory required for data: 1252085280
I0403 21:54:59.412672 13273 layer_factory.hpp:77] Creating layer inception_4e/pool_proj
I0403 21:54:59.412694 13273 net.cpp:91] Creating Layer inception_4e/pool_proj
I0403 21:54:59.412713 13273 net.cpp:425] inception_4e/pool_proj <- inception_4e/pool
I0403 21:54:59.412734 13273 net.cpp:399] inception_4e/pool_proj -> inception_4e/pool_proj
I0403 21:54:59.414224 13273 net.cpp:141] Setting up inception_4e/pool_proj
I0403 21:54:59.414252 13273 net.cpp:148] Top shape: 24 128 14 14 (602112)
I0403 21:54:59.414283 13273 net.cpp:156] Memory required for data: 1254493728
I0403 21:54:59.414301 13273 layer_factory.hpp:77] Creating layer inception_4e/relu_pool_proj
I0403 21:54:59.414319 13273 net.cpp:91] Creating Layer inception_4e/relu_pool_proj
I0403 21:54:59.414335 13273 net.cpp:425] inception_4e/relu_pool_proj <- inception_4e/pool_proj
I0403 21:54:59.414353 13273 net.cpp:386] inception_4e/relu_pool_proj -> inception_4e/pool_proj (in-place)
I0403 21:54:59.414647 13273 net.cpp:141] Setting up inception_4e/relu_pool_proj
I0403 21:54:59.414674 13273 net.cpp:148] Top shape: 24 128 14 14 (602112)
I0403 21:54:59.414688 13273 net.cpp:156] Memory required for data: 1256902176
I0403 21:54:59.414703 13273 layer_factory.hpp:77] Creating layer inception_4e/output
I0403 21:54:59.414721 13273 net.cpp:91] Creating Layer inception_4e/output
I0403 21:54:59.414736 13273 net.cpp:425] inception_4e/output <- inception_4e/1x1
I0403 21:54:59.414753 13273 net.cpp:425] inception_4e/output <- inception_4e/3x3
I0403 21:54:59.414769 13273 net.cpp:425] inception_4e/output <- inception_4e/5x5
I0403 21:54:59.414784 13273 net.cpp:425] inception_4e/output <- inception_4e/pool_proj
I0403 21:54:59.414805 13273 net.cpp:399] inception_4e/output -> inception_4e/output
I0403 21:54:59.414854 13273 net.cpp:141] Setting up inception_4e/output
I0403 21:54:59.414880 13273 net.cpp:148] Top shape: 24 832 14 14 (3913728)
I0403 21:54:59.414896 13273 net.cpp:156] Memory required for data: 1272557088
I0403 21:54:59.414911 13273 layer_factory.hpp:77] Creating layer pool4/3x3_s2
I0403 21:54:59.414928 13273 net.cpp:91] Creating Layer pool4/3x3_s2
I0403 21:54:59.414943 13273 net.cpp:425] pool4/3x3_s2 <- inception_4e/output
I0403 21:54:59.414963 13273 net.cpp:399] pool4/3x3_s2 -> pool4/3x3_s2
I0403 21:54:59.415030 13273 net.cpp:141] Setting up pool4/3x3_s2
I0403 21:54:59.415055 13273 net.cpp:148] Top shape: 24 832 7 7 (978432)
I0403 21:54:59.415069 13273 net.cpp:156] Memory required for data: 1276470816
I0403 21:54:59.415083 13273 layer_factory.hpp:77] Creating layer pool4/3x3_s2_pool4/3x3_s2_0_split
I0403 21:54:59.415101 13273 net.cpp:91] Creating Layer pool4/3x3_s2_pool4/3x3_s2_0_split
I0403 21:54:59.415117 13273 net.cpp:425] pool4/3x3_s2_pool4/3x3_s2_0_split <- pool4/3x3_s2
I0403 21:54:59.415135 13273 net.cpp:399] pool4/3x3_s2_pool4/3x3_s2_0_split -> pool4/3x3_s2_pool4/3x3_s2_0_split_0
I0403 21:54:59.415156 13273 net.cpp:399] pool4/3x3_s2_pool4/3x3_s2_0_split -> pool4/3x3_s2_pool4/3x3_s2_0_split_1
I0403 21:54:59.415176 13273 net.cpp:399] pool4/3x3_s2_pool4/3x3_s2_0_split -> pool4/3x3_s2_pool4/3x3_s2_0_split_2
I0403 21:54:59.415196 13273 net.cpp:399] pool4/3x3_s2_pool4/3x3_s2_0_split -> pool4/3x3_s2_pool4/3x3_s2_0_split_3
I0403 21:54:59.415297 13273 net.cpp:141] Setting up pool4/3x3_s2_pool4/3x3_s2_0_split
I0403 21:54:59.415320 13273 net.cpp:148] Top shape: 24 832 7 7 (978432)
I0403 21:54:59.415338 13273 net.cpp:148] Top shape: 24 832 7 7 (978432)
I0403 21:54:59.415354 13273 net.cpp:148] Top shape: 24 832 7 7 (978432)
I0403 21:54:59.415369 13273 net.cpp:148] Top shape: 24 832 7 7 (978432)
I0403 21:54:59.415382 13273 net.cpp:156] Memory required for data: 1292125728
I0403 21:54:59.415397 13273 layer_factory.hpp:77] Creating layer inception_5a/1x1
I0403 21:54:59.415421 13273 net.cpp:91] Creating Layer inception_5a/1x1
I0403 21:54:59.415438 13273 net.cpp:425] inception_5a/1x1 <- pool4/3x3_s2_pool4/3x3_s2_0_split_0
I0403 21:54:59.415459 13273 net.cpp:399] inception_5a/1x1 -> inception_5a/1x1
I0403 21:54:59.418298 13273 net.cpp:141] Setting up inception_5a/1x1
I0403 21:54:59.418329 13273 net.cpp:148] Top shape: 24 256 7 7 (301056)
I0403 21:54:59.418344 13273 net.cpp:156] Memory required for data: 1293329952
I0403 21:54:59.418365 13273 layer_factory.hpp:77] Creating layer inception_5a/relu_1x1
I0403 21:54:59.418385 13273 net.cpp:91] Creating Layer inception_5a/relu_1x1
I0403 21:54:59.418402 13273 net.cpp:425] inception_5a/relu_1x1 <- inception_5a/1x1
I0403 21:54:59.418421 13273 net.cpp:386] inception_5a/relu_1x1 -> inception_5a/1x1 (in-place)
I0403 21:54:59.418727 13273 net.cpp:141] Setting up inception_5a/relu_1x1
I0403 21:54:59.418753 13273 net.cpp:148] Top shape: 24 256 7 7 (301056)
I0403 21:54:59.418768 13273 net.cpp:156] Memory required for data: 1294534176
I0403 21:54:59.418784 13273 layer_factory.hpp:77] Creating layer inception_5a/3x3_reduce
I0403 21:54:59.418807 13273 net.cpp:91] Creating Layer inception_5a/3x3_reduce
I0403 21:54:59.418825 13273 net.cpp:425] inception_5a/3x3_reduce <- pool4/3x3_s2_pool4/3x3_s2_0_split_1
I0403 21:54:59.418846 13273 net.cpp:399] inception_5a/3x3_reduce -> inception_5a/3x3_reduce
I0403 21:54:59.421290 13273 net.cpp:141] Setting up inception_5a/3x3_reduce
I0403 21:54:59.421322 13273 net.cpp:148] Top shape: 24 160 7 7 (188160)
I0403 21:54:59.421339 13273 net.cpp:156] Memory required for data: 1295286816
I0403 21:54:59.421358 13273 layer_factory.hpp:77] Creating layer inception_5a/relu_3x3_reduce
I0403 21:54:59.421375 13273 net.cpp:91] Creating Layer inception_5a/relu_3x3_reduce
I0403 21:54:59.421391 13273 net.cpp:425] inception_5a/relu_3x3_reduce <- inception_5a/3x3_reduce
I0403 21:54:59.421408 13273 net.cpp:386] inception_5a/relu_3x3_reduce -> inception_5a/3x3_reduce (in-place)
I0403 21:54:59.421602 13273 net.cpp:141] Setting up inception_5a/relu_3x3_reduce
I0403 21:54:59.421628 13273 net.cpp:148] Top shape: 24 160 7 7 (188160)
I0403 21:54:59.421645 13273 net.cpp:156] Memory required for data: 1296039456
I0403 21:54:59.421660 13273 layer_factory.hpp:77] Creating layer inception_5a/3x3
I0403 21:54:59.421682 13273 net.cpp:91] Creating Layer inception_5a/3x3
I0403 21:54:59.421700 13273 net.cpp:425] inception_5a/3x3 <- inception_5a/3x3_reduce
I0403 21:54:59.421721 13273 net.cpp:399] inception_5a/3x3 -> inception_5a/3x3
I0403 21:54:59.426748 13273 net.cpp:141] Setting up inception_5a/3x3
I0403 21:54:59.426777 13273 net.cpp:148] Top shape: 24 320 7 7 (376320)
I0403 21:54:59.426792 13273 net.cpp:156] Memory required for data: 1297544736
I0403 21:54:59.426811 13273 layer_factory.hpp:77] Creating layer inception_5a/relu_3x3
I0403 21:54:59.426829 13273 net.cpp:91] Creating Layer inception_5a/relu_3x3
I0403 21:54:59.426846 13273 net.cpp:425] inception_5a/relu_3x3 <- inception_5a/3x3
I0403 21:54:59.426867 13273 net.cpp:386] inception_5a/relu_3x3 -> inception_5a/3x3 (in-place)
I0403 21:54:59.427160 13273 net.cpp:141] Setting up inception_5a/relu_3x3
I0403 21:54:59.427186 13273 net.cpp:148] Top shape: 24 320 7 7 (376320)
I0403 21:54:59.427201 13273 net.cpp:156] Memory required for data: 1299050016
I0403 21:54:59.427220 13273 layer_factory.hpp:77] Creating layer inception_5a/5x5_reduce
I0403 21:54:59.427244 13273 net.cpp:91] Creating Layer inception_5a/5x5_reduce
I0403 21:54:59.427263 13273 net.cpp:425] inception_5a/5x5_reduce <- pool4/3x3_s2_pool4/3x3_s2_0_split_2
I0403 21:54:59.427285 13273 net.cpp:399] inception_5a/5x5_reduce -> inception_5a/5x5_reduce
I0403 21:54:59.428448 13273 net.cpp:141] Setting up inception_5a/5x5_reduce
I0403 21:54:59.428479 13273 net.cpp:148] Top shape: 24 32 7 7 (37632)
I0403 21:54:59.428496 13273 net.cpp:156] Memory required for data: 1299200544
I0403 21:54:59.428514 13273 layer_factory.hpp:77] Creating layer inception_5a/relu_5x5_reduce
I0403 21:54:59.428532 13273 net.cpp:91] Creating Layer inception_5a/relu_5x5_reduce
I0403 21:54:59.428550 13273 net.cpp:425] inception_5a/relu_5x5_reduce <- inception_5a/5x5_reduce
I0403 21:54:59.428567 13273 net.cpp:386] inception_5a/relu_5x5_reduce -> inception_5a/5x5_reduce (in-place)
I0403 21:54:59.428864 13273 net.cpp:141] Setting up inception_5a/relu_5x5_reduce
I0403 21:54:59.428891 13273 net.cpp:148] Top shape: 24 32 7 7 (37632)
I0403 21:54:59.428907 13273 net.cpp:156] Memory required for data: 1299351072
I0403 21:54:59.428922 13273 layer_factory.hpp:77] Creating layer inception_5a/5x5
I0403 21:54:59.428946 13273 net.cpp:91] Creating Layer inception_5a/5x5
I0403 21:54:59.428963 13273 net.cpp:425] inception_5a/5x5 <- inception_5a/5x5_reduce
I0403 21:54:59.428984 13273 net.cpp:399] inception_5a/5x5 -> inception_5a/5x5
I0403 21:54:59.430698 13273 net.cpp:141] Setting up inception_5a/5x5
I0403 21:54:59.430738 13273 net.cpp:148] Top shape: 24 128 7 7 (150528)
I0403 21:54:59.430753 13273 net.cpp:156] Memory required for data: 1299953184
I0403 21:54:59.430773 13273 layer_factory.hpp:77] Creating layer inception_5a/relu_5x5
I0403 21:54:59.430789 13273 net.cpp:91] Creating Layer inception_5a/relu_5x5
I0403 21:54:59.430806 13273 net.cpp:425] inception_5a/relu_5x5 <- inception_5a/5x5
I0403 21:54:59.430827 13273 net.cpp:386] inception_5a/relu_5x5 -> inception_5a/5x5 (in-place)
I0403 21:54:59.431022 13273 net.cpp:141] Setting up inception_5a/relu_5x5
I0403 21:54:59.431048 13273 net.cpp:148] Top shape: 24 128 7 7 (150528)
I0403 21:54:59.431063 13273 net.cpp:156] Memory required for data: 1300555296
I0403 21:54:59.431078 13273 layer_factory.hpp:77] Creating layer inception_5a/pool
I0403 21:54:59.431099 13273 net.cpp:91] Creating Layer inception_5a/pool
I0403 21:54:59.431118 13273 net.cpp:425] inception_5a/pool <- pool4/3x3_s2_pool4/3x3_s2_0_split_3
I0403 21:54:59.431136 13273 net.cpp:399] inception_5a/pool -> inception_5a/pool
I0403 21:54:59.431206 13273 net.cpp:141] Setting up inception_5a/pool
I0403 21:54:59.431234 13273 net.cpp:148] Top shape: 24 832 7 7 (978432)
I0403 21:54:59.431249 13273 net.cpp:156] Memory required for data: 1304469024
I0403 21:54:59.431264 13273 layer_factory.hpp:77] Creating layer inception_5a/pool_proj
I0403 21:54:59.431287 13273 net.cpp:91] Creating Layer inception_5a/pool_proj
I0403 21:54:59.431304 13273 net.cpp:425] inception_5a/pool_proj <- inception_5a/pool
I0403 21:54:59.431325 13273 net.cpp:399] inception_5a/pool_proj -> inception_5a/pool_proj
I0403 21:54:59.433620 13273 net.cpp:141] Setting up inception_5a/pool_proj
I0403 21:54:59.433651 13273 net.cpp:148] Top shape: 24 128 7 7 (150528)
I0403 21:54:59.433668 13273 net.cpp:156] Memory required for data: 1305071136
I0403 21:54:59.433687 13273 layer_factory.hpp:77] Creating layer inception_5a/relu_pool_proj
I0403 21:54:59.433706 13273 net.cpp:91] Creating Layer inception_5a/relu_pool_proj
I0403 21:54:59.433722 13273 net.cpp:425] inception_5a/relu_pool_proj <- inception_5a/pool_proj
I0403 21:54:59.433742 13273 net.cpp:386] inception_5a/relu_pool_proj -> inception_5a/pool_proj (in-place)
I0403 21:54:59.434031 13273 net.cpp:141] Setting up inception_5a/relu_pool_proj
I0403 21:54:59.434059 13273 net.cpp:148] Top shape: 24 128 7 7 (150528)
I0403 21:54:59.434077 13273 net.cpp:156] Memory required for data: 1305673248
I0403 21:54:59.434092 13273 layer_factory.hpp:77] Creating layer inception_5a/output
I0403 21:54:59.434108 13273 net.cpp:91] Creating Layer inception_5a/output
I0403 21:54:59.434124 13273 net.cpp:425] inception_5a/output <- inception_5a/1x1
I0403 21:54:59.434140 13273 net.cpp:425] inception_5a/output <- inception_5a/3x3
I0403 21:54:59.434157 13273 net.cpp:425] inception_5a/output <- inception_5a/5x5
I0403 21:54:59.434175 13273 net.cpp:425] inception_5a/output <- inception_5a/pool_proj
I0403 21:54:59.434193 13273 net.cpp:399] inception_5a/output -> inception_5a/output
I0403 21:54:59.434248 13273 net.cpp:141] Setting up inception_5a/output
I0403 21:54:59.434273 13273 net.cpp:148] Top shape: 24 832 7 7 (978432)
I0403 21:54:59.434286 13273 net.cpp:156] Memory required for data: 1309586976
I0403 21:54:59.434303 13273 layer_factory.hpp:77] Creating layer inception_5a/output_inception_5a/output_0_split
I0403 21:54:59.434324 13273 net.cpp:91] Creating Layer inception_5a/output_inception_5a/output_0_split
I0403 21:54:59.434340 13273 net.cpp:425] inception_5a/output_inception_5a/output_0_split <- inception_5a/output
I0403 21:54:59.434358 13273 net.cpp:399] inception_5a/output_inception_5a/output_0_split -> inception_5a/output_inception_5a/output_0_split_0
I0403 21:54:59.434381 13273 net.cpp:399] inception_5a/output_inception_5a/output_0_split -> inception_5a/output_inception_5a/output_0_split_1
I0403 21:54:59.434406 13273 net.cpp:399] inception_5a/output_inception_5a/output_0_split -> inception_5a/output_inception_5a/output_0_split_2
I0403 21:54:59.434427 13273 net.cpp:399] inception_5a/output_inception_5a/output_0_split -> inception_5a/output_inception_5a/output_0_split_3
I0403 21:54:59.434540 13273 net.cpp:141] Setting up inception_5a/output_inception_5a/output_0_split
I0403 21:54:59.434566 13273 net.cpp:148] Top shape: 24 832 7 7 (978432)
I0403 21:54:59.434581 13273 net.cpp:148] Top shape: 24 832 7 7 (978432)
I0403 21:54:59.434597 13273 net.cpp:148] Top shape: 24 832 7 7 (978432)
I0403 21:54:59.434612 13273 net.cpp:148] Top shape: 24 832 7 7 (978432)
I0403 21:54:59.434628 13273 net.cpp:156] Memory required for data: 1325241888
I0403 21:54:59.434641 13273 layer_factory.hpp:77] Creating layer inception_5b/1x1
I0403 21:54:59.434664 13273 net.cpp:91] Creating Layer inception_5b/1x1
I0403 21:54:59.434681 13273 net.cpp:425] inception_5b/1x1 <- inception_5a/output_inception_5a/output_0_split_0
I0403 21:54:59.434703 13273 net.cpp:399] inception_5b/1x1 -> inception_5b/1x1
I0403 21:54:59.438351 13273 net.cpp:141] Setting up inception_5b/1x1
I0403 21:54:59.438381 13273 net.cpp:148] Top shape: 24 384 7 7 (451584)
I0403 21:54:59.438397 13273 net.cpp:156] Memory required for data: 1327048224
I0403 21:54:59.438416 13273 layer_factory.hpp:77] Creating layer inception_5b/relu_1x1
I0403 21:54:59.438433 13273 net.cpp:91] Creating Layer inception_5b/relu_1x1
I0403 21:54:59.438448 13273 net.cpp:425] inception_5b/relu_1x1 <- inception_5b/1x1
I0403 21:54:59.438467 13273 net.cpp:386] inception_5b/relu_1x1 -> inception_5b/1x1 (in-place)
I0403 21:54:59.438758 13273 net.cpp:141] Setting up inception_5b/relu_1x1
I0403 21:54:59.438786 13273 net.cpp:148] Top shape: 24 384 7 7 (451584)
I0403 21:54:59.438802 13273 net.cpp:156] Memory required for data: 1328854560
I0403 21:54:59.438817 13273 layer_factory.hpp:77] Creating layer inception_5b/3x3_reduce
I0403 21:54:59.438839 13273 net.cpp:91] Creating Layer inception_5b/3x3_reduce
I0403 21:54:59.438858 13273 net.cpp:425] inception_5b/3x3_reduce <- inception_5a/output_inception_5a/output_0_split_1
I0403 21:54:59.438876 13273 net.cpp:399] inception_5b/3x3_reduce -> inception_5b/3x3_reduce
I0403 21:54:59.441462 13273 net.cpp:141] Setting up inception_5b/3x3_reduce
I0403 21:54:59.441491 13273 net.cpp:148] Top shape: 24 192 7 7 (225792)
I0403 21:54:59.441509 13273 net.cpp:156] Memory required for data: 1329757728
I0403 21:54:59.441526 13273 layer_factory.hpp:77] Creating layer inception_5b/relu_3x3_reduce
I0403 21:54:59.441545 13273 net.cpp:91] Creating Layer inception_5b/relu_3x3_reduce
I0403 21:54:59.441560 13273 net.cpp:425] inception_5b/relu_3x3_reduce <- inception_5b/3x3_reduce
I0403 21:54:59.441582 13273 net.cpp:386] inception_5b/relu_3x3_reduce -> inception_5b/3x3_reduce (in-place)
I0403 21:54:59.441771 13273 net.cpp:141] Setting up inception_5b/relu_3x3_reduce
I0403 21:54:59.441797 13273 net.cpp:148] Top shape: 24 192 7 7 (225792)
I0403 21:54:59.441812 13273 net.cpp:156] Memory required for data: 1330660896
I0403 21:54:59.441825 13273 layer_factory.hpp:77] Creating layer inception_5b/3x3
I0403 21:54:59.441848 13273 net.cpp:91] Creating Layer inception_5b/3x3
I0403 21:54:59.441865 13273 net.cpp:425] inception_5b/3x3 <- inception_5b/3x3_reduce
I0403 21:54:59.441887 13273 net.cpp:399] inception_5b/3x3 -> inception_5b/3x3
I0403 21:54:59.448592 13273 net.cpp:141] Setting up inception_5b/3x3
I0403 21:54:59.448624 13273 net.cpp:148] Top shape: 24 384 7 7 (451584)
I0403 21:54:59.448640 13273 net.cpp:156] Memory required for data: 1332467232
I0403 21:54:59.448660 13273 layer_factory.hpp:77] Creating layer inception_5b/relu_3x3
I0403 21:54:59.448678 13273 net.cpp:91] Creating Layer inception_5b/relu_3x3
I0403 21:54:59.448694 13273 net.cpp:425] inception_5b/relu_3x3 <- inception_5b/3x3
I0403 21:54:59.448714 13273 net.cpp:386] inception_5b/relu_3x3 -> inception_5b/3x3 (in-place)
I0403 21:54:59.448998 13273 net.cpp:141] Setting up inception_5b/relu_3x3
I0403 21:54:59.449026 13273 net.cpp:148] Top shape: 24 384 7 7 (451584)
I0403 21:54:59.449043 13273 net.cpp:156] Memory required for data: 1334273568
I0403 21:54:59.449057 13273 layer_factory.hpp:77] Creating layer inception_5b/5x5_reduce
I0403 21:54:59.449095 13273 net.cpp:91] Creating Layer inception_5b/5x5_reduce
I0403 21:54:59.449113 13273 net.cpp:425] inception_5b/5x5_reduce <- inception_5a/output_inception_5a/output_0_split_2
I0403 21:54:59.449136 13273 net.cpp:399] inception_5b/5x5_reduce -> inception_5b/5x5_reduce
I0403 21:54:59.450371 13273 net.cpp:141] Setting up inception_5b/5x5_reduce
I0403 21:54:59.450398 13273 net.cpp:148] Top shape: 24 48 7 7 (56448)
I0403 21:54:59.450413 13273 net.cpp:156] Memory required for data: 1334499360
I0403 21:54:59.450433 13273 layer_factory.hpp:77] Creating layer inception_5b/relu_5x5_reduce
I0403 21:54:59.450449 13273 net.cpp:91] Creating Layer inception_5b/relu_5x5_reduce
I0403 21:54:59.450466 13273 net.cpp:425] inception_5b/relu_5x5_reduce <- inception_5b/5x5_reduce
I0403 21:54:59.450485 13273 net.cpp:386] inception_5b/relu_5x5_reduce -> inception_5b/5x5_reduce (in-place)
I0403 21:54:59.450850 13273 net.cpp:141] Setting up inception_5b/relu_5x5_reduce
I0403 21:54:59.450877 13273 net.cpp:148] Top shape: 24 48 7 7 (56448)
I0403 21:54:59.450892 13273 net.cpp:156] Memory required for data: 1334725152
I0403 21:54:59.450908 13273 layer_factory.hpp:77] Creating layer inception_5b/5x5
I0403 21:54:59.450928 13273 net.cpp:91] Creating Layer inception_5b/5x5
I0403 21:54:59.450944 13273 net.cpp:425] inception_5b/5x5 <- inception_5b/5x5_reduce
I0403 21:54:59.450963 13273 net.cpp:399] inception_5b/5x5 -> inception_5b/5x5
I0403 21:54:59.452967 13273 net.cpp:141] Setting up inception_5b/5x5
I0403 21:54:59.452994 13273 net.cpp:148] Top shape: 24 128 7 7 (150528)
I0403 21:54:59.453009 13273 net.cpp:156] Memory required for data: 1335327264
I0403 21:54:59.453027 13273 layer_factory.hpp:77] Creating layer inception_5b/relu_5x5
I0403 21:54:59.453047 13273 net.cpp:91] Creating Layer inception_5b/relu_5x5
I0403 21:54:59.453063 13273 net.cpp:425] inception_5b/relu_5x5 <- inception_5b/5x5
I0403 21:54:59.453078 13273 net.cpp:386] inception_5b/relu_5x5 -> inception_5b/5x5 (in-place)
I0403 21:54:59.453275 13273 net.cpp:141] Setting up inception_5b/relu_5x5
I0403 21:54:59.453299 13273 net.cpp:148] Top shape: 24 128 7 7 (150528)
I0403 21:54:59.453315 13273 net.cpp:156] Memory required for data: 1335929376
I0403 21:54:59.453328 13273 layer_factory.hpp:77] Creating layer inception_5b/pool
I0403 21:54:59.453347 13273 net.cpp:91] Creating Layer inception_5b/pool
I0403 21:54:59.453363 13273 net.cpp:425] inception_5b/pool <- inception_5a/output_inception_5a/output_0_split_3
I0403 21:54:59.453382 13273 net.cpp:399] inception_5b/pool -> inception_5b/pool
I0403 21:54:59.453451 13273 net.cpp:141] Setting up inception_5b/pool
I0403 21:54:59.453474 13273 net.cpp:148] Top shape: 24 832 7 7 (978432)
I0403 21:54:59.453488 13273 net.cpp:156] Memory required for data: 1339843104
I0403 21:54:59.453502 13273 layer_factory.hpp:77] Creating layer inception_5b/pool_proj
I0403 21:54:59.453523 13273 net.cpp:91] Creating Layer inception_5b/pool_proj
I0403 21:54:59.453541 13273 net.cpp:425] inception_5b/pool_proj <- inception_5b/pool
I0403 21:54:59.453560 13273 net.cpp:399] inception_5b/pool_proj -> inception_5b/pool_proj
I0403 21:54:59.455801 13273 net.cpp:141] Setting up inception_5b/pool_proj
I0403 21:54:59.455827 13273 net.cpp:148] Top shape: 24 128 7 7 (150528)
I0403 21:54:59.455843 13273 net.cpp:156] Memory required for data: 1340445216
I0403 21:54:59.455860 13273 layer_factory.hpp:77] Creating layer inception_5b/relu_pool_proj
I0403 21:54:59.455878 13273 net.cpp:91] Creating Layer inception_5b/relu_pool_proj
I0403 21:54:59.455893 13273 net.cpp:425] inception_5b/relu_pool_proj <- inception_5b/pool_proj
I0403 21:54:59.455914 13273 net.cpp:386] inception_5b/relu_pool_proj -> inception_5b/pool_proj (in-place)
I0403 21:54:59.456197 13273 net.cpp:141] Setting up inception_5b/relu_pool_proj
I0403 21:54:59.456228 13273 net.cpp:148] Top shape: 24 128 7 7 (150528)
I0403 21:54:59.456243 13273 net.cpp:156] Memory required for data: 1341047328
I0403 21:54:59.456257 13273 layer_factory.hpp:77] Creating layer inception_5b/output
I0403 21:54:59.456274 13273 net.cpp:91] Creating Layer inception_5b/output
I0403 21:54:59.456303 13273 net.cpp:425] inception_5b/output <- inception_5b/1x1
I0403 21:54:59.456321 13273 net.cpp:425] inception_5b/output <- inception_5b/3x3
I0403 21:54:59.456337 13273 net.cpp:425] inception_5b/output <- inception_5b/5x5
I0403 21:54:59.456352 13273 net.cpp:425] inception_5b/output <- inception_5b/pool_proj
I0403 21:54:59.456372 13273 net.cpp:399] inception_5b/output -> inception_5b/output
I0403 21:54:59.456419 13273 net.cpp:141] Setting up inception_5b/output
I0403 21:54:59.456445 13273 net.cpp:148] Top shape: 24 1024 7 7 (1204224)
I0403 21:54:59.456460 13273 net.cpp:156] Memory required for data: 1345864224
I0403 21:54:59.456475 13273 layer_factory.hpp:77] Creating layer pool5/7x7_s1
I0403 21:54:59.456491 13273 net.cpp:91] Creating Layer pool5/7x7_s1
I0403 21:54:59.456506 13273 net.cpp:425] pool5/7x7_s1 <- inception_5b/output
I0403 21:54:59.456523 13273 net.cpp:399] pool5/7x7_s1 -> pool5/7x7_s1
I0403 21:54:59.456737 13273 net.cpp:141] Setting up pool5/7x7_s1
I0403 21:54:59.456763 13273 net.cpp:148] Top shape: 24 1024 1 1 (24576)
I0403 21:54:59.456778 13273 net.cpp:156] Memory required for data: 1345962528
I0403 21:54:59.456791 13273 layer_factory.hpp:77] Creating layer pool5/drop_7x7_s1
I0403 21:54:59.456809 13273 net.cpp:91] Creating Layer pool5/drop_7x7_s1
I0403 21:54:59.456822 13273 net.cpp:425] pool5/drop_7x7_s1 <- pool5/7x7_s1
I0403 21:54:59.456841 13273 net.cpp:386] pool5/drop_7x7_s1 -> pool5/7x7_s1 (in-place)
I0403 21:54:59.456889 13273 net.cpp:141] Setting up pool5/drop_7x7_s1
I0403 21:54:59.456914 13273 net.cpp:148] Top shape: 24 1024 1 1 (24576)
I0403 21:54:59.456930 13273 net.cpp:156] Memory required for data: 1346060832
I0403 21:54:59.456943 13273 layer_factory.hpp:77] Creating layer loss3/classifier_plantvillage
I0403 21:54:59.456961 13273 net.cpp:91] Creating Layer loss3/classifier_plantvillage
I0403 21:54:59.456976 13273 net.cpp:425] loss3/classifier_plantvillage <- pool5/7x7_s1
I0403 21:54:59.456996 13273 net.cpp:399] loss3/classifier_plantvillage -> loss3/classifier_plantvillage
I0403 21:54:59.457407 13273 net.cpp:141] Setting up loss3/classifier_plantvillage
I0403 21:54:59.457432 13273 net.cpp:148] Top shape: 24 38 (912)
I0403 21:54:59.457445 13273 net.cpp:156] Memory required for data: 1346064480
I0403 21:54:59.457463 13273 layer_factory.hpp:77] Creating layer loss3/classifier_plantvillage_loss3/classifier_plantvillage_0_split
I0403 21:54:59.457484 13273 net.cpp:91] Creating Layer loss3/classifier_plantvillage_loss3/classifier_plantvillage_0_split
I0403 21:54:59.457500 13273 net.cpp:425] loss3/classifier_plantvillage_loss3/classifier_plantvillage_0_split <- loss3/classifier_plantvillage
I0403 21:54:59.457518 13273 net.cpp:399] loss3/classifier_plantvillage_loss3/classifier_plantvillage_0_split -> loss3/classifier_plantvillage_loss3/classifier_plantvillage_0_split_0
I0403 21:54:59.457540 13273 net.cpp:399] loss3/classifier_plantvillage_loss3/classifier_plantvillage_0_split -> loss3/classifier_plantvillage_loss3/classifier_plantvillage_0_split_1
I0403 21:54:59.457561 13273 net.cpp:399] loss3/classifier_plantvillage_loss3/classifier_plantvillage_0_split -> loss3/classifier_plantvillage_loss3/classifier_plantvillage_0_split_2
I0403 21:54:59.457581 13273 net.cpp:399] loss3/classifier_plantvillage_loss3/classifier_plantvillage_0_split -> loss3/classifier_plantvillage_loss3/classifier_plantvillage_0_split_3
I0403 21:54:59.457676 13273 net.cpp:141] Setting up loss3/classifier_plantvillage_loss3/classifier_plantvillage_0_split
I0403 21:54:59.457700 13273 net.cpp:148] Top shape: 24 38 (912)
I0403 21:54:59.457715 13273 net.cpp:148] Top shape: 24 38 (912)
I0403 21:54:59.457731 13273 net.cpp:148] Top shape: 24 38 (912)
I0403 21:54:59.457744 13273 net.cpp:148] Top shape: 24 38 (912)
I0403 21:54:59.457757 13273 net.cpp:156] Memory required for data: 1346079072
I0403 21:54:59.457772 13273 layer_factory.hpp:77] Creating layer loss1/loss
I0403 21:54:59.457792 13273 net.cpp:91] Creating Layer loss1/loss
I0403 21:54:59.457808 13273 net.cpp:425] loss1/loss <- loss1/classifier_plantvillage_loss1/classifier_plantvillage_0_split_0
I0403 21:54:59.457837 13273 net.cpp:425] loss1/loss <- label_data_1_split_0
…
