…
I0403 21:39:20.313400 12364 net.cpp:313] The NetState phase (1) differed from the phase (0) specified by a rule in layer data
I0403 21:39:20.314534 12364 net.cpp:49] Initializing net from parameters: 
state {
  phase: TEST
}
layer {
  name: "data"
  type: "Data"
  top: "data"
  top: "label"
  include {
    phase: TEST
  }
  transform_param {
    mirror: false
    crop_size: 224
    mean_file: "/home/mohanty/data/final_dataset/lmdb/color-80-20/mean.binaryproto"
  }
  data_param {
    source: "/home/mohanty/data/final_dataset/lmdb/color-80-20/test_db"
    batch_size: 24
    backend: LMDB
  }
}
layer {
  name: "conv1/7x7_s2"
  type: "Convolution"
  bottom: "data"
  top: "conv1/7x7_s2"
  param {
    lr_mult: 1
    decay_mult: 1
  }
  param {
    lr_mult: 2
    decay_mult: 0
  }
  convolution_param {
    num_output: 64
    pad: 3
    kernel_size: 7
    stride: 2
    weight_filler {
      type: "xavier"
      std: 0.1
    }
    bias_filler {
      type: "constant"
      value: 0.2
    }
  }
}
layer {
  name: "conv1/relu_7x7"
  type: "ReLU"
  bottom: "conv1/7x7_s2"
  top: "conv1/7x7_s2"
}
layer {
  name: "pool1/3x3_s2"
  type: "Pooling"
  bottom: "conv1/7x7_s2"
  top: "pool1/3x3_s2"
  pooling_param {
    pool: MAX
    kernel_size: 3
    stride: 2
  }
}
layer {
  name: "pool1/norm1"
  type: "LRN"
  bottom: "pool1/3x3_s2"
  top: "pool1/norm1"
  lrn_param {
    local_size: 5
    alpha: 0.0001
    beta: 0.75
  }
}
layer {
  name: "conv2/3x3_reduce"
  type: "Convolution"
  bottom: "pool1/norm1"
  top: "conv2/3x3_reduce"
  param {
    lr_mult: 1
    decay_mult: 1
  }
  param {
    lr_mult: 2
    decay_mult: 0
  }
  convolution_param {
    num_output: 64
    kernel_size: 1
    weight_filler {
      type: "xavier"
      std: 0.1
    }
    bias_filler {
      type: "constant"
      value: 0.2
    }
  }
}
layer {
  name: "conv2/relu_3x3_reduce"
  type: "ReLU"
  bottom: "conv2/3x3_reduce"
  top: "conv2/3x3_reduce"
}
layer {
  name: "conv2/3x3"
  type: "Convolution"
  bottom: "conv2/3x3_reduce"
  top: "conv2/3x3"
  param {
    lr_mult: 1
    decay_mult: 1
  }
  param {
    lr_mult: 2
    decay_mult: 0
  }
  convolution_param {
    num_output: 192
    pad: 1
    kernel_size: 3
    weight_filler {
      type: "xavier"
      std: 0.03
    }
    bias_filler {
      type: "constant"
      value: 0.2
    }
  }
}
layer {
  name: "conv2/relu_3x3"
  type: "ReLU"
  bottom: "conv2/3x3"
  top: "conv2/3x3"
}
layer {
  name: "conv2/norm2"
  type: "LRN"
  bottom: "conv2/3x3"
  top: "conv2/norm2"
  lrn_param {
    local_size: 5
    alpha: 0.0001
    beta: 0.75
  }
}
layer {
  name: "pool2/3x3_s2"
  type: "Pooling"
  bottom: "conv2/norm2"
  top: "pool2/3x3_s2"
  pooling_param {
    pool: MAX
    kernel_size: 3
    stride: 2
  }
}
layer {
  name: "inception_3a/1x1"
  type: "Convolution"
  bottom: "pool2/3x3_s2"
  top: "inception_3a/1x1"
  param {
    lr_mult: 1
    decay_mult: 1
  }
  param {
    lr_mult: 2
    decay_mult: 0
  }
  convolution_param {
    num_output: 64
    kernel_size: 1
    weight_filler {
      type: "xavier"
      std: 0.03
    }
    bias_filler {
      type: "constant"
      value: 0.2
    }
  }
}
layer {
  name: "inception_3a/relu_1x1"
  type: "ReLU"
  bottom: "inception_3a/1x1"
  top: "inception_3a/1x1"
}
layer {
  name: "inception_3a/3x3_reduce"
  type: "Convolution"
  bottom: "pool2/3x3_s2"
  top: "inception_3a/3x3_reduce"
  param {
    lr_mult: 1
    decay_mult: 1
  }
  param {
    lr_mult: 2
    decay_mult: 0
  }
  convolution_param {
    num_output: 96
    kernel_size: 1
    weight_filler {
      type: "xavier"
      std: 0.09
    }
    bias_filler {
      type: "constant"
      value: 0.2
    }
  }
}
layer {
  name: "inception_3a/relu_3x3_reduce"
  type: "ReLU"
  bottom: "inception_3a/3x3_reduce"
  top: "inception_3a/3x3_reduce"
}
layer {
  name: "inception_3a/3x3"
  type: "Convolution"
  bottom: "inception_3a/3x3_reduce"
  top: "inception_3a/3x3"
  param {
    lr_mult: 1
    decay_mult: 1
  }
  param {
    lr_mult: 2
    decay_mult: 0
  }
  convolution_param {
    num_output: 128
    pad: 1
    kernel_size: 3
    weight_filler {
      type: "xavier"
      std: 0.03
    }
    bias_filler {
      type: "constant"
      value: 0.2
    }
  }
}
layer {
  name: "inception_3a/relu_3x3"
  type: "ReLU"
  bottom: "inception_3a/3x3"
  top: "inception_3a/3x3"
}
layer {
  name: "inception_3a/5x5_reduce"
  type: "Convolution"
  bottom: "pool2/3x3_s2"
  top: "inception_3a/5x5_reduce"
  param {
    lr_mult: 1
    decay_mult: 1
  }
  param {
    lr_mult: 2
    decay_mult: 0
  }
  convolution_param {
    num_output: 16
    kernel_size: 1
    weight_filler {
      type: "xavier"
      std: 0.2
    }
    bias_filler {
      type: "constant"
      value: 0.2
    }
  }
}
layer {
  name: "inception_3a/relu_5x5_reduce"
  type: "ReLU"
  bottom: "inception_3a/5x5_reduce"
  top: "inception_3a/5x5_reduce"
}
layer {
  name: "inception_3a/5x5"
  type: "Convolution"
  bottom: "inception_3a/5x5_reduce"
  top: "inception_3a/5x5"
  param {
    lr_mult: 1
    decay_mult: 1
  }
  param {
    lr_mult: 2
    decay_mult: 0
  }
  convolution_param {
    num_output: 32
    pad: 2
    kernel_size: 5
    weight_filler {
      type: "xavier"
      std: 0.03
    }
    bias_filler {
      type: "constant"
      value: 0.2
    }
  }
}
layer {
  name: "inception_3a/relu_5x5"
  type: "ReLU"
  bottom: "inception_3a/5x5"
  top: "inception_3a/5x5"
}
layer {
  name: "inception_3a/pool"
  type: "Pooling"
  bottom: "pool2/3x3_s2"
  top: "inception_3a/pool"
  pooling_param {
    pool: MAX
    kernel_size: 3
    stride: 1
    pad: 1
  }
}
layer {
  name: "inception_3a/pool_proj"
  type: "Convolution"
  bottom: "inception_3a/pool"
  top: "inception_3a/pool_proj"
  param {
    lr_mult: 1
    decay_mult: 1
  }
  param {
    lr_mult: 2
    decay_mult: 0
  }
  convolution_param {
    num_output: 32
    kernel_size: 1
    weight_filler {
      type: "xavier"
      std: 0.1
    }
    bias_filler {
      type: "constant"
      value: 0.2
    }
  }
}
layer {
  name: "inception_3a/relu_pool_proj"
  type: "ReLU"
  bottom: "inception_3a/pool_proj"
  top: "inception_3a/pool_proj"
}
layer {
  name: "inception_3a/output"
  type: "Concat"
  bottom: "inception_3a/1x1"
  bottom: "inception_3a/3x3"
  bottom: "inception_3a/5x5"
  bottom: "inception_3a/pool_proj"
  top: "inception_3a/output"
}
layer {
  name: "inception_3b/1x1"
  type: "Convolution"
  bottom: "inception_3a/output"
  top: "inception_3b/1x1"
  param {
    lr_mult: 1
    decay_mult: 1
  }
  param {
    lr_mult: 2
    decay_mult: 0
  }
  convolution_param {
    num_output: 128
    kernel_size: 1
    weight_filler {
      type: "xavier"
      std: 0.03
    }
    bias_filler {
      type: "constant"
      value: 0.2
    }
  }
}
layer {
  name: "inception_3b/relu_1x1"
  type: "ReLU"
  bottom: "inception_3b/1x1"
  top: "inception_3b/1x1"
}
layer {
  name: "inception_3b/3x3_reduce"
  type: "Convolution"
  bottom: "inception_3a/output"
  top: "inception_3b/3x3_reduce"
  param {
    lr_mult: 1
    decay_mult: 1
  }
  param {
    lr_mult: 2
    decay_mult: 0
  }
  convolution_param {
    num_output: 128
    kernel_size: 1
    weight_filler {
      type: "xavier"
      std: 0.09
    }
    bias_filler {
      type: "constant"
      value: 0.2
    }
  }
}
layer {
  name: "inception_3b/relu_3x3_reduce"
  type: "ReLU"
  bottom: "inception_3b/3x3_reduce"
  top: "inception_3b/3x3_reduce"
}
layer {
  name: "inception_3b/3x3"
  type: "Convolution"
  bottom: "inception_3b/3x3_reduce"
  top: "inception_3b/3x3"
  param {
    lr_mult: 1
    decay_mult: 1
  }
  param {
    lr_mult: 2
    decay_mult: 0
  }
  convolution_param {
    num_output: 192
    pad: 1
    kernel_size: 3
    weight_filler {
      type: "xavier"
      std: 0.03
    }
    bias_filler {
      type: "constant"
      value: 0.2
    }
  }
}
layer {
  name: "inception_3b/relu_3x3"
  type: "ReLU"
  bottom: "inception_3b/3x3"
  top: "inception_3b/3x3"
}
layer {
  name: "inception_3b/5x5_reduce"
  type: "Convolution"
  bottom: "inception_3a/output"
  top: "inception_3b/5x5_reduce"
  param {
    lr_mult: 1
    decay_mult: 1
  }
  param {
    lr_mult: 2
    decay_mult: 0
  }
  convolution_param {
    num_output: 32
    kernel_size: 1
    weight_filler {
      type: "xavier"
      std: 0.2
    }
    bias_filler {
      type: "constant"
      value: 0.2
    }
  }
}
layer {
  name: "inception_3b/relu_5x5_reduce"
  type: "ReLU"
  bottom: "inception_3b/5x5_reduce"
  top: "inception_3b/5x5_reduce"
}
layer {
  name: "inception_3b/5x5"
  type: "Convolution"
  bottom: "inception_3b/5x5_reduce"
  top: "inception_3b/5x5"
  param {
    lr_mult: 1
    decay_mult: 1
  }
  param {
    lr_mult: 2
    decay_mult: 0
  }
  convolution_param {
    num_output: 96
    pad: 2
    kernel_size: 5
    weight_filler {
      type: "xavier"
      std: 0.03
    }
    bias_filler {
      type: "constant"
      value: 0.2
    }
  }
}
layer {
  name: "inception_3b/relu_5x5"
  type: "ReLU"
  bottom: "inception_3b/5x5"
  top: "inception_3b/5x5"
}
layer {
  name: "inception_3b/pool"
  type: "Pooling"
  bottom: "inception_3a/output"
  top: "inception_3b/pool"
  pooling_param {
    pool: MAX
    kernel_size: 3
    stride: 1
    pad: 1
  }
}
layer {
  name: "inception_3b/pool_proj"
  type: "Convolution"
  bottom: "inception_3b/pool"
  top: "inception_3b/pool_proj"
  param {
    lr_mult: 1
    decay_mult: 1
  }
  param {
    lr_mult: 2
    decay_mult: 0
  }
  convolution_param {
    num_output: 64
    kernel_size: 1
    weight_filler {
      type: "xavier"
      std: 0.1
    }
    bias_filler {
      type: "constant"
      value: 0.2
    }
  }
}
layer {
  name: "inception_3b/relu_pool_proj"
  type: "ReLU"
  bottom: "inception_3b/pool_proj"
  top: "inception_3b/pool_proj"
}
layer {
  name: "inception_3b/output"
  type: "Concat"
  bottom: "inception_3b/1x1"
  bottom: "inception_3b/3x3"
  bottom: "inception_3b/5x5"
  bottom: "inception_3b/pool_proj"
  top: "inception_3b/output"
}
layer {
  name: "pool3/3x3_s2"
  type: "Pooling"
  bottom: "inception_3b/output"
  top: "pool3/3x3_s2"
  pooling_param {
    pool: MAX
    kernel_size: 3
    stride: 2
  }
}
layer {
  name: "inception_4a/1x1"
  type: "Convolution"
  bottom: "pool3/3x3_s2"
  top: "inception_4a/1x1"
  param {
    lr_mult: 1
    decay_mult: 1
  }
  param {
    lr_mult: 2
    decay_mult: 0
  }
  convolution_param {
    num_output: 192
    kernel_size: 1
    weight_filler {
      type: "xavier"
      std: 0.03
    }
    bias_filler {
      type: "constant"
      value: 0.2
    }
  }
}
layer {
  name: "inception_4a/relu_1x1"
  type: "ReLU"
  bottom: "inception_4a/1x1"
  top: "inception_4a/1x1"
}
layer {
  name: "inception_4a/3x3_reduce"
  type: "Convolution"
  bottom: "pool3/3x3_s2"
  top: "inception_4a/3x3_reduce"
  param {
    lr_mult: 1
    decay_mult: 1
  }
  param {
    lr_mult: 2
    decay_mult: 0
  }
  convolution_param {
    num_output: 96
    kernel_size: 1
    weight_filler {
      type: "xavier"
      std: 0.09
    }
    bias_filler {
      type: "constant"
      value: 0.2
    }
  }
}
layer {
  name: "inception_4a/relu_3x3_reduce"
  type: "ReLU"
  bottom: "inception_4a/3x3_reduce"
  top: "inception_4a/3x3_reduce"
}
layer {
  name: "inception_4a/3x3"
  type: "Convolution"
  bottom: "inception_4a/3x3_reduce"
  top: "inception_4a/3x3"
  param {
    lr_mult: 1
    decay_mult: 1
  }
  param {
    lr_mult: 2
    decay_mult: 0
  }
  convolution_param {
    num_output: 208
    pad: 1
    kernel_size: 3
    weight_filler {
      type: "xavier"
      std: 0.03
    }
    bias_filler {
      type: "constant"
      value: 0.2
    }
  }
}
layer {
  name: "inception_4a/relu_3x3"
  type: "ReLU"
  bottom: "inception_4a/3x3"
  top: "inception_4a/3x3"
}
layer {
  name: "inception_4a/5x5_reduce"
  type: "Convolution"
  bottom: "pool3/3x3_s2"
  top: "inception_4a/5x5_reduce"
  param {
    lr_mult: 1
    decay_mult: 1
  }
  param {
    lr_mult: 2
    decay_mult: 0
  }
  convolution_param {
    num_output: 16
    kernel_size: 1
    weight_filler {
      type: "xavier"
      std: 0.2
    }
    bias_filler {
      type: "constant"
      value: 0.2
    }
  }
}
layer {
  name: "inception_4a/relu_5x5_reduce"
  type: "ReLU"
  bottom: "inception_4a/5x5_reduce"
  top: "inception_4a/5x5_reduce"
}
layer {
  name: "inception_4a/5x5"
  type: "Convolution"
  bottom: "inception_4a/5x5_reduce"
  top: "inception_4a/5x5"
  param {
    lr_mult: 1
    decay_mult: 1
  }
  param {
    lr_mult: 2
    decay_mult: 0
  }
  convolution_param {
    num_output: 48
    pad: 2
    kernel_size: 5
    weight_filler {
      type: "xavier"
      std: 0.03
    }
    bias_filler {
      type: "constant"
      value: 0.2
    }
  }
}
layer {
  name: "inception_4a/relu_5x5"
  type: "ReLU"
  bottom: "inception_4a/5x5"
  top: "inception_4a/5x5"
}
layer {
  name: "inception_4a/pool"
  type: "Pooling"
  bottom: "pool3/3x3_s2"
  top: "inception_4a/pool"
  pooling_param {
    pool: MAX
    kernel_size: 3
    stride: 1
    pad: 1
  }
}
layer {
  name: "inception_4a/pool_proj"
  type: "Convolution"
  bottom: "inception_4a/pool"
  top: "inception_4a/pool_proj"
  param {
    lr_mult: 1
    decay_mult: 1
  }
  param {
    lr_mult: 2
    decay_mult: 0
  }
  convolution_param {
    num_output: 64
    kernel_size: 1
    weight_filler {
      type: "xavier"
      std: 0.1
    }
    bias_filler {
      type: "constant"
      value: 0.2
    }
  }
}
layer {
  name: "inception_4a/relu_pool_proj"
  type: "ReLU"
  bottom: "inception_4a/pool_proj"
  top: "inception_4a/pool_proj"
}
layer {
  name: "inception_4a/output"
  type: "Concat"
  bottom: "inception_4a/1x1"
  bottom: "inception_4a/3x3"
  bottom: "inception_4a/5x5"
  bottom: "inception_4a/pool_proj"
  top: "inception_4a/output"
}
layer {
  name: "loss1/ave_pool"
  type: "Pooling"
  bottom: "inception_4a/output"
  top: "loss1/ave_pool"
  pooling_param {
    pool: AVE
    kernel_size: 5
    stride: 3
  }
}
layer {
  name: "loss1/conv"
  type: "Convolution"
  bottom: "loss1/ave_pool"
  top: "loss1/conv"
  param {
    lr_mult: 1
    decay_mult: 1
  }
  param {
    lr_mult: 2
    decay_mult: 0
  }
  convolution_param {
    num_output: 128
    kernel_size: 1
    weight_filler {
      type: "xavier"
      std: 0.08
    }
    bias_filler {
      type: "constant"
      value: 0.2
    }
  }
}
layer {
  name: "loss1/relu_conv"
  type: "ReLU"
  bottom: "loss1/conv"
  top: "loss1/conv"
}
layer {
  name: "loss1/fc"
  type: "InnerProduct"
  bottom: "loss1/conv"
  top: "loss1/fc"
  param {
    lr_mult: 1
    decay_mult: 1
  }
  param {
    lr_mult: 2
    decay_mult: 0
  }
  inner_product_param {
    num_output: 1024
    weight_filler {
      type: "xavier"
      std: 0.02
    }
    bias_filler {
      type: "constant"
      value: 0.2
    }
  }
}
layer {
  name: "loss1/relu_fc"
  type: "ReLU"
  bottom: "loss1/fc"
  top: "loss1/fc"
}
layer {
  name: "loss1/drop_fc"
  type: "Dropout"
  bottom: "loss1/fc"
  top: "loss1/fc"
  dropout_param {
    dropout_ratio: 0.7
  }
}
layer {
  name: "loss1/classifier_plantvillage"
  type: "InnerProduct"
  bottom: "loss1/fc"
  top: "loss1/classifier_plantvillage"
  param {
    lr_mult: 1
    decay_mult: 1
  }
  param {
    lr_mult: 2
    decay_mult: 0
  }
  inner_product_param {
    num_output: 38
    weight_filler {
      type: "xavier"
      std: 0.0009765625
    }
    bias_filler {
      type: "constant"
      value: 0
    }
  }
}
layer {
  name: "inception_4b/1x1"
  type: "Convolution"
  bottom: "inception_4a/output"
  top: "inception_4b/1x1"
  param {
    lr_mult: 1
    decay_mult: 1
  }
  param {
    lr_mult: 2
    decay_mult: 0
  }
  convolution_param {
    num_output: 160
    kernel_size: 1
    weight_filler {
      type: "xavier"
      std: 0.03
    }
    bias_filler {
      type: "constant"
      value: 0.2
    }
  }
}
layer {
  name: "inception_4b/relu_1x1"
  type: "ReLU"
  bottom: "inception_4b/1x1"
  top: "inception_4b/1x1"
}
layer {
  name: "inception_4b/3x3_reduce"
  type: "Convolution"
  bottom: "inception_4a/output"
  top: "inception_4b/3x3_reduce"
  param {
    lr_mult: 1
    decay_mult: 1
  }
  param {
    lr_mult: 2
    decay_mult: 0
  }
  convolution_param {
    num_output: 112
    kernel_size: 1
    weight_filler {
      type: "xavier"
      std: 0.09
    }
    bias_filler {
      type: "constant"
      value: 0.2
    }
  }
}
layer {
  name: "inception_4b/relu_3x3_reduce"
  type: "ReLU"
  bottom: "inception_4b/3x3_reduce"
  top: "inception_4b/3x3_reduce"
}
layer {
  name: "inception_4b/3x3"
  type: "Convolution"
  bottom: "inception_4b/3x3_reduce"
  top: "inception_4b/3x3"
  param {
    lr_mult: 1
    decay_mult: 1
  }
  param {
    lr_mult: 2
    decay_mult: 0
  }
  convolution_param {
    num_output: 224
    pad: 1
    kernel_size: 3
    weight_filler {
      type: "xavier"
      std: 0.03
    }
    bias_filler {
      type: "constant"
      value: 0.2
    }
  }
}
layer {
  name: "inception_4b/relu_3x3"
  type: "ReLU"
  bottom: "inception_4b/3x3"
  top: "inception_4b/3x3"
}
layer {
  name: "inception_4b/5x5_reduce"
  type: "Convolution"
  bottom: "inception_4a/output"
  top: "inception_4b/5x5_reduce"
  param {
    lr_mult: 1
    decay_mult: 1
  }
  param {
    lr_mult: 2
    decay_mult: 0
  }
  convolution_param {
    num_output: 24
    kernel_size: 1
    weight_filler {
      type: "xavier"
      std: 0.2
    }
    bias_filler {
      type: "constant"
      value: 0.2
    }
  }
}
layer {
  name: "inception_4b/relu_5x5_reduce"
  type: "ReLU"
  bottom: "inception_4b/5x5_reduce"
  top: "inception_4b/5x5_reduce"
}
layer {
  name: "inception_4b/5x5"
  type: "Convolution"
  bottom: "inception_4b/5x5_reduce"
  top: "inception_4b/5x5"
  param {
    lr_mult: 1
    decay_mult: 1
  }
  param {
    lr_mult: 2
    decay_mult: 0
  }
  convolution_param {
    num_output: 64
    pad: 2
    kernel_size: 5
    weight_filler {
      type: "xavier"
      std: 0.03
    }
    bias_filler {
      type: "constant"
      value: 0.2
    }
  }
}
layer {
  name: "inception_4b/relu_5x5"
  type: "ReLU"
  bottom: "inception_4b/5x5"
  top: "inception_4b/5x5"
}
layer {
  name: "inception_4b/pool"
  type: "Pooling"
  bottom: "inception_4a/output"
  top: "inception_4b/pool"
  pooling_param {
    pool: MAX
    kernel_size: 3
    stride: 1
    pad: 1
  }
}
layer {
  name: "inception_4b/pool_proj"
  type: "Convolution"
  bottom: "inception_4b/pool"
  top: "inception_4b/pool_proj"
  param {
    lr_mult: 1
    decay_mult: 1
  }
  param {
    lr_mult: 2
    decay_mult: 0
  }
  convolution_param {
    num_output: 64
    kernel_size: 1
    weight_filler {
      type: "xavier"
      std: 0.1
    }
    bias_filler {
      type: "constant"
      value: 0.2
    }
  }
}
layer {
  name: "inception_4b/relu_pool_proj"
  type: "ReLU"
  bottom: "inception_4b/pool_proj"
  top: "inception_4b/pool_proj"
}
layer {
  name: "inception_4b/output"
  type: "Concat"
  bottom: "inception_4b/1x1"
  bottom: "inception_4b/3x3"
  bottom: "inception_4b/5x5"
  bottom: "inception_4b/pool_proj"
  top: "inception_4b/output"
}
layer {
  name: "inception_4c/1x1"
  type: "Convolution"
  bottom: "inception_4b/output"
  top: "inception_4c/1x1"
  param {
    lr_mult: 1
    decay_mult: 1
  }
  param {
    lr_mult: 2
    decay_mult: 0
  }
  convolution_param {
    num_output: 128
    kernel_size: 1
    weight_filler {
      type: "xavier"
      std: 0.03
    }
    bias_filler {
      type: "constant"
      value: 0.2
    }
  }
}
layer {
  name: "inception_4c/relu_1x1"
  type: "ReLU"
  bottom: "inception_4c/1x1"
  top: "inception_4c/1x1"
}
layer {
  name: "inception_4c/3x3_reduce"
  type: "Convolution"
  bottom: "inception_4b/output"
  top: "inception_4c/3x3_reduce"
  param {
    lr_mult: 1
    decay_mult: 1
  }
  param {
    lr_mult: 2
    decay_mult: 0
  }
  convolution_param {
    num_output: 128
    kernel_size: 1
    weight_filler {
      type: "xavier"
      std: 0.09
    }
    bias_filler {
      type: "constant"
      value: 0.2
    }
  }
}
layer {
  name: "inception_4c/relu_3x3_reduce"
  type: "ReLU"
  bottom: "inception_4c/3x3_reduce"
  top: "inception_4c/3x3_reduce"
}
layer {
  name: "inception_4c/3x3"
  type: "Convolution"
  bottom: "inception_4c/3x3_reduce"
  top: "inception_4c/3x3"
  param {
    lr_mult: 1
    decay_mult: 1
  }
  param {
    lr_mult: 2
    decay_mult: 0
  }
  convolution_param {
    num_output: 256
    pad: 1
    kernel_size: 3
    weight_filler {
      type: "xavier"
      std: 0.03
    }
    bias_filler {
      type: "constant"
      value: 0.2
    }
  }
}
layer {
  name: "inception_4c/relu_3x3"
  type: "ReLU"
  bottom: "inception_4c/3x3"
  top: "inception_4c/3x3"
}
layer {
  name: "inception_4c/5x5_reduce"
  type: "Convolution"
  bottom: "inception_4b/output"
  top: "inception_4c/5x5_reduce"
  param {
    lr_mult: 1
    decay_mult: 1
  }
  param {
    lr_mult: 2
    decay_mult: 0
  }
  convolution_param {
    num_output: 24
    kernel_size: 1
    weight_filler {
      type: "xavier"
      std: 0.2
    }
    bias_filler {
      type: "constant"
      value: 0.2
    }
  }
}
layer {
  name: "inception_4c/relu_5x5_reduce"
  type: "ReLU"
  bottom: "inception_4c/5x5_reduce"
  top: "inception_4c/5x5_reduce"
}
layer {
  name: "inception_4c/5x5"
  type: "Convolution"
  bottom: "inception_4c/5x5_reduce"
  top: "inception_4c/5x5"
  param {
    lr_mult: 1
    decay_mult: 1
  }
  param {
    lr_mult: 2
    decay_mult: 0
  }
  convolution_param {
    num_output: 64
    pad: 2
    kernel_size: 5
    weight_filler {
      type: "xavier"
      std: 0.03
    }
    bias_filler {
      type: "constant"
      value: 0.2
    }
  }
}
layer {
  name: "inception_4c/relu_5x5"
  type: "ReLU"
  bottom: "inception_4c/5x5"
  top: "inception_4c/5x5"
}
layer {
  name: "inception_4c/pool"
  type: "Pooling"
  bottom: "inception_4b/output"
  top: "inception_4c/pool"
  pooling_param {
    pool: MAX
    kernel_size: 3
    stride: 1
    pad: 1
  }
}
layer {
  name: "inception_4c/pool_proj"
  type: "Convolution"
  bottom: "inception_4c/pool"
  top: "inception_4c/pool_proj"
  param {
    lr_mult: 1
    decay_mult: 1
  }
  param {
    lr_mult: 2
    decay_mult: 0
  }
  convolution_param {
    num_output: 64
    kernel_size: 1
    weight_filler {
      type: "xavier"
      std: 0.1
    }
    bias_filler {
      type: "constant"
      value: 0.2
    }
  }
}
layer {
  name: "inception_4c/relu_pool_proj"
  type: "ReLU"
  bottom: "inception_4c/pool_proj"
  top: "inception_4c/pool_proj"
}
layer {
  name: "inception_4c/output"
  type: "Concat"
  bottom: "inception_4c/1x1"
  bottom: "inception_4c/3x3"
  bottom: "inception_4c/5x5"
  bottom: "inception_4c/pool_proj"
  top: "inception_4c/output"
}
layer {
  name: "inception_4d/1x1"
  type: "Convolution"
  bottom: "inception_4c/output"
  top: "inception_4d/1x1"
  param {
    lr_mult: 1
    decay_mult: 1
  }
  param {
    lr_mult: 2
    decay_mult: 0
  }
  convolution_param {
    num_output: 112
    kernel_size: 1
    weight_filler {
      type: "xavier"
      std: 0.03
    }
    bias_filler {
      type: "constant"
      value: 0.2
    }
  }
}
layer {
  name: "inception_4d/relu_1x1"
  type: "ReLU"
  bottom: "inception_4d/1x1"
  top: "inception_4d/1x1"
}
layer {
  name: "inception_4d/3x3_reduce"
  type: "Convolution"
  bottom: "inception_4c/output"
  top: "inception_4d/3x3_reduce"
  param {
    lr_mult: 1
    decay_mult: 1
  }
  param {
    lr_mult: 2
    decay_mult: 0
  }
  convolution_param {
    num_output: 144
    kernel_size: 1
    weight_filler {
      type: "xavier"
      std: 0.09
    }
    bias_filler {
      type: "constant"
      value: 0.2
    }
  }
}
layer {
  name: "inception_4d/relu_3x3_reduce"
  type: "ReLU"
  bottom: "inception_4d/3x3_reduce"
  top: "inception_4d/3x3_reduce"
}
layer {
  name: "inception_4d/3x3"
  type: "Convolution"
  bottom: "inception_4d/3x3_reduce"
  top: "inception_4d/3x3"
  param {
    lr_mult: 1
    decay_mult: 1
  }
  param {
    lr_mult: 2
    decay_mult: 0
  }
  convolution_param {
    num_output: 288
    pad: 1
    kernel_size: 3
    weight_filler {
      type: "xavier"
      std: 0.03
    }
    bias_filler {
      type: "constant"
      value: 0.2
    }
  }
}
layer {
  name: "inception_4d/relu_3x3"
  type: "ReLU"
  bottom: "inception_4d/3x3"
  top: "inception_4d/3x3"
}
layer {
  name: "inception_4d/5x5_reduce"
  type: "Convolution"
  bottom: "inception_4c/output"
  top: "inception_4d/5x5_reduce"
  param {
    lr_mult: 1
    decay_mult: 1
  }
  param {
    lr_mult: 2
    decay_mult: 0
  }
  convolution_param {
    num_output: 32
    kernel_size: 1
    weight_filler {
      type: "xavier"
      std: 0.2
    }
    bias_filler {
      type: "constant"
      value: 0.2
    }
  }
}
layer {
  name: "inception_4d/relu_5x5_reduce"
  type: "ReLU"
  bottom: "inception_4d/5x5_reduce"
  top: "inception_4d/5x5_reduce"
}
layer {
  name: "inception_4d/5x5"
  type: "Convolution"
  bottom: "inception_4d/5x5_reduce"
  top: "inception_4d/5x5"
  param {
    lr_mult: 1
    decay_mult: 1
  }
  param {
    lr_mult: 2
    decay_mult: 0
  }
  convolution_param {
    num_output: 64
    pad: 2
    kernel_size: 5
    weight_filler {
      type: "xavier"
      std: 0.03
    }
    bias_filler {
      type: "constant"
      value: 0.2
    }
  }
}
layer {
  name: "inception_4d/relu_5x5"
  type: "ReLU"
  bottom: "inception_4d/5x5"
  top: "inception_4d/5x5"
}
layer {
  name: "inception_4d/pool"
  type: "Pooling"
  bottom: "inception_4c/output"
  top: "inception_4d/pool"
  pooling_param {
    pool: MAX
    kernel_size: 3
    stride: 1
    pad: 1
  }
}
layer {
  name: "inception_4d/pool_proj"
  type: "Convolution"
  bottom: "inception_4d/pool"
  top: "inception_4d/pool_proj"
  param {
    lr_mult: 1
    decay_mult: 1
  }
  param {
    lr_mult: 2
    decay_mult: 0
  }
  convolution_param {
    num_output: 64
    kernel_size: 1
    weight_filler {
      type: "xavier"
      std: 0.1
    }
    bias_filler {
      type: "constant"
      value: 0.2
    }
  }
}
layer {
  name: "inception_4d/relu_pool_proj"
  type: "ReLU"
  bottom: "inception_4d/pool_proj"
  top: "inception_4d/pool_proj"
}
layer {
  name: "inception_4d/output"
  type: "Concat"
  bottom: "inception_4d/1x1"
  bottom: "inception_4d/3x3"
  bottom: "inception_4d/5x5"
  bottom: "inception_4d/pool_proj"
  top: "inception_4d/output"
}
layer {
  name: "loss2/ave_pool"
  type: "Pooling"
  bottom: "inception_4d/output"
  top: "loss2/ave_pool"
  pooling_param {
    pool: AVE
    kernel_size: 5
    stride: 3
  }
}
layer {
  name: "loss2/conv"
  type: "Convolution"
  bottom: "loss2/ave_pool"
  top: "loss2/conv"
  param {
    lr_mult: 1
    decay_mult: 1
  }
  param {
    lr_mult: 2
    decay_mult: 0
  }
  convolution_param {
    num_output: 128
    kernel_size: 1
    weight_filler {
      type: "xavier"
      std: 0.08
    }
    bias_filler {
      type: "constant"
      value: 0.2
    }
  }
}
layer {
  name: "loss2/relu_conv"
  type: "ReLU"
  bottom: "loss2/conv"
  top: "loss2/conv"
}
layer {
  name: "loss2/fc"
  type: "InnerProduct"
  bottom: "loss2/conv"
  top: "loss2/fc"
  param {
    lr_mult: 1
    decay_mult: 1
  }
  param {
    lr_mult: 2
    decay_mult: 0
  }
  inner_product_param {
    num_output: 1024
    weight_filler {
      type: "xavier"
      std: 0.02
    }
    bias_filler {
      type: "constant"
      value: 0.2
    }
  }
}
layer {
  name: "loss2/relu_fc"
  type: "ReLU"
  bottom: "loss2/fc"
  top: "loss2/fc"
}
layer {
  name: "loss2/drop_fc"
  type: "Dropout"
  bottom: "loss2/fc"
  top: "loss2/fc"
  dropout_param {
    dropout_ratio: 0.7
  }
}
layer {
  name: "loss2/classifier_plantvillage"
  type: "InnerProduct"
  bottom: "loss2/fc"
  top: "loss2/classifier_plantvillage"
  param {
    lr_mult: 1
    decay_mult: 1
  }
  param {
    lr_mult: 2
    decay_mult: 0
  }
  inner_product_param {
    num_output: 38
    weight_filler {
      type: "xavier"
      std: 0.0009765625
    }
    bias_filler {
      type: "constant"
      value: 0
    }
  }
}
layer {
  name: "inception_4e/1x1"
  type: "Convolution"
  bottom: "inception_4d/output"
  top: "inception_4e/1x1"
  param {
    lr_mult: 1
    decay_mult: 1
  }
  param {
    lr_mult: 2
    decay_mult: 0
  }
  convolution_param {
    num_output: 256
    kernel_size: 1
    weight_filler {
      type: "xavier"
      std: 0.03
    }
    bias_filler {
      type: "constant"
      value: 0.2
    }
  }
}
layer {
  name: "inception_4e/relu_1x1"
  type: "ReLU"
  bottom: "inception_4e/1x1"
  top: "inception_4e/1x1"
}
layer {
  name: "inception_4e/3x3_reduce"
  type: "Convolution"
  bottom: "inception_4d/output"
  top: "inception_4e/3x3_reduce"
  param {
    lr_mult: 1
    decay_mult: 1
  }
  param {
    lr_mult: 2
    decay_mult: 0
  }
  convolution_param {
    num_output: 160
    kernel_size: 1
    weight_filler {
      type: "xavier"
      std: 0.09
    }
    bias_filler {
      type: "constant"
      value: 0.2
    }
  }
}
layer {
  name: "inception_4e/relu_3x3_reduce"
  type: "ReLU"
  bottom: "inception_4e/3x3_reduce"
  top: "inception_4e/3x3_reduce"
}
layer {
  name: "inception_4e/3x3"
  type: "Convolution"
  bottom: "inception_4e/3x3_reduce"
  top: "inception_4e/3x3"
  param {
    lr_mult: 1
    decay_mult: 1
  }
  param {
    lr_mult: 2
    decay_mult: 0
  }
  convolution_param {
    num_output: 320
    pad: 1
    kernel_size: 3
    weight_filler {
      type: "xavier"
      std: 0.03
    }
    bias_filler {
      type: "constant"
      value: 0.2
    }
  }
}
layer {
  name: "inception_4e/relu_3x3"
  type: "ReLU"
  bottom: "inception_4e/3x3"
  top: "inception_4e/3x3"
}
layer {
  name: "inception_4e/5x5_reduce"
  type: "Convolution"
  bottom: "inception_4d/output"
  top: "inception_4e/5x5_reduce"
  param {
    lr_mult: 1
    decay_mult: 1
  }
  param {
    lr_mult: 2
    decay_mult: 0
  }
  convolution_param {
    num_output: 32
    kernel_size: 1
    weight_filler {
      type: "xavier"
      std: 0.2
    }
    bias_filler {
      type: "constant"
      value: 0.2
    }
  }
}
layer {
  name: "inception_4e/relu_5x5_reduce"
  type: "ReLU"
  bottom: "inception_4e/5x5_reduce"
  top: "inception_4e/5x5_reduce"
}
layer {
  name: "inception_4e/5x5"
  type: "Convolution"
  bottom: "inception_4e/5x5_reduce"
  top: "inception_4e/5x5"
  p
I0403 21:39:20.316557 12364 layer_factory.hpp:77] Creating layer data
I0403 21:39:20.317128 12364 net.cpp:91] Creating Layer data
I0403 21:39:20.317164 12364 net.cpp:399] data -> data
I0403 21:39:20.317234 12364 net.cpp:399] data -> label
I0403 21:39:20.317272 12364 data_transformer.cpp:25] Loading mean file from: /home/mohanty/data/final_dataset/lmdb/color-80-20/mean.binaryproto
I0403 21:39:20.318377 12366 db_lmdb.cpp:38] Opened lmdb /home/mohanty/data/final_dataset/lmdb/color-80-20/test_db
I0403 21:39:20.331223 12364 data_layer.cpp:41] output data size: 24,3,224,224
I0403 21:39:20.359855 12364 net.cpp:141] Setting up data
I0403 21:39:20.359953 12364 net.cpp:148] Top shape: 24 3 224 224 (3612672)
I0403 21:39:20.359975 12364 net.cpp:148] Top shape: 24 (24)
I0403 21:39:20.359992 12364 net.cpp:156] Memory required for data: 14450784
I0403 21:39:20.360018 12364 layer_factory.hpp:77] Creating layer label_data_1_split
I0403 21:39:20.360044 12364 net.cpp:91] Creating Layer label_data_1_split
I0403 21:39:20.360062 12364 net.cpp:425] label_data_1_split <- label
I0403 21:39:20.360092 12364 net.cpp:399] label_data_1_split -> label_data_1_split_0
I0403 21:39:20.360119 12364 net.cpp:399] label_data_1_split -> label_data_1_split_1
I0403 21:39:20.360139 12364 net.cpp:399] label_data_1_split -> label_data_1_split_2
I0403 21:39:20.360160 12364 net.cpp:399] label_data_1_split -> label_data_1_split_3
I0403 21:39:20.360179 12364 net.cpp:399] label_data_1_split -> label_data_1_split_4
I0403 21:39:20.360198 12364 net.cpp:399] label_data_1_split -> label_data_1_split_5
I0403 21:39:20.360221 12364 net.cpp:399] label_data_1_split -> label_data_1_split_6
I0403 21:39:20.360242 12364 net.cpp:399] label_data_1_split -> label_data_1_split_7
I0403 21:39:20.360262 12364 net.cpp:399] label_data_1_split -> label_data_1_split_8
I0403 21:39:20.360283 12364 net.cpp:399] label_data_1_split -> label_data_1_split_9
I0403 21:39:20.360394 12364 net.cpp:141] Setting up label_data_1_split
I0403 21:39:20.360419 12364 net.cpp:148] Top shape: 24 (24)
I0403 21:39:20.360435 12364 net.cpp:148] Top shape: 24 (24)
I0403 21:39:20.360451 12364 net.cpp:148] Top shape: 24 (24)
I0403 21:39:20.360467 12364 net.cpp:148] Top shape: 24 (24)
I0403 21:39:20.360483 12364 net.cpp:148] Top shape: 24 (24)
I0403 21:39:20.360498 12364 net.cpp:148] Top shape: 24 (24)
I0403 21:39:20.360514 12364 net.cpp:148] Top shape: 24 (24)
I0403 21:39:20.360529 12364 net.cpp:148] Top shape: 24 (24)
I0403 21:39:20.360545 12364 net.cpp:148] Top shape: 24 (24)
I0403 21:39:20.360561 12364 net.cpp:148] Top shape: 24 (24)
I0403 21:39:20.360607 12364 net.cpp:156] Memory required for data: 14451744
I0403 21:39:20.360625 12364 layer_factory.hpp:77] Creating layer conv1/7x7_s2
I0403 21:39:20.360656 12364 net.cpp:91] Creating Layer conv1/7x7_s2
I0403 21:39:20.360677 12364 net.cpp:425] conv1/7x7_s2 <- data
I0403 21:39:20.360695 12364 net.cpp:399] conv1/7x7_s2 -> conv1/7x7_s2
I0403 21:39:20.503022 12364 net.cpp:141] Setting up conv1/7x7_s2
I0403 21:39:20.503132 12364 net.cpp:148] Top shape: 24 64 112 112 (19267584)
I0403 21:39:20.503150 12364 net.cpp:156] Memory required for data: 91522080
I0403 21:39:20.503181 12364 layer_factory.hpp:77] Creating layer conv1/relu_7x7
I0403 21:39:20.503212 12364 net.cpp:91] Creating Layer conv1/relu_7x7
I0403 21:39:20.503232 12364 net.cpp:425] conv1/relu_7x7 <- conv1/7x7_s2
I0403 21:39:20.503252 12364 net.cpp:386] conv1/relu_7x7 -> conv1/7x7_s2 (in-place)
I0403 21:39:20.503504 12364 net.cpp:141] Setting up conv1/relu_7x7
I0403 21:39:20.503530 12364 net.cpp:148] Top shape: 24 64 112 112 (19267584)
I0403 21:39:20.503546 12364 net.cpp:156] Memory required for data: 168592416
I0403 21:39:20.503561 12364 layer_factory.hpp:77] Creating layer pool1/3x3_s2
I0403 21:39:20.503587 12364 net.cpp:91] Creating Layer pool1/3x3_s2
I0403 21:39:20.503605 12364 net.cpp:425] pool1/3x3_s2 <- conv1/7x7_s2
I0403 21:39:20.503624 12364 net.cpp:399] pool1/3x3_s2 -> pool1/3x3_s2
I0403 21:39:20.503698 12364 net.cpp:141] Setting up pool1/3x3_s2
I0403 21:39:20.503722 12364 net.cpp:148] Top shape: 24 64 56 56 (4816896)
I0403 21:39:20.503737 12364 net.cpp:156] Memory required for data: 187860000
I0403 21:39:20.503752 12364 layer_factory.hpp:77] Creating layer pool1/norm1
I0403 21:39:20.503777 12364 net.cpp:91] Creating Layer pool1/norm1
I0403 21:39:20.503795 12364 net.cpp:425] pool1/norm1 <- pool1/3x3_s2
I0403 21:39:20.503813 12364 net.cpp:399] pool1/norm1 -> pool1/norm1
I0403 21:39:20.504092 12364 net.cpp:141] Setting up pool1/norm1
I0403 21:39:20.504120 12364 net.cpp:148] Top shape: 24 64 56 56 (4816896)
I0403 21:39:20.504135 12364 net.cpp:156] Memory required for data: 207127584
I0403 21:39:20.504151 12364 layer_factory.hpp:77] Creating layer conv2/3x3_reduce
I0403 21:39:20.504178 12364 net.cpp:91] Creating Layer conv2/3x3_reduce
I0403 21:39:20.504195 12364 net.cpp:425] conv2/3x3_reduce <- pool1/norm1
I0403 21:39:20.504233 12364 net.cpp:399] conv2/3x3_reduce -> conv2/3x3_reduce
I0403 21:39:20.505671 12364 net.cpp:141] Setting up conv2/3x3_reduce
I0403 21:39:20.505703 12364 net.cpp:148] Top shape: 24 64 56 56 (4816896)
I0403 21:39:20.505720 12364 net.cpp:156] Memory required for data: 226395168
I0403 21:39:20.505743 12364 layer_factory.hpp:77] Creating layer conv2/relu_3x3_reduce
I0403 21:39:20.505764 12364 net.cpp:91] Creating Layer conv2/relu_3x3_reduce
I0403 21:39:20.505779 12364 net.cpp:425] conv2/relu_3x3_reduce <- conv2/3x3_reduce
I0403 21:39:20.505796 12364 net.cpp:386] conv2/relu_3x3_reduce -> conv2/3x3_reduce (in-place)
I0403 21:39:20.506072 12364 net.cpp:141] Setting up conv2/relu_3x3_reduce
I0403 21:39:20.506103 12364 net.cpp:148] Top shape: 24 64 56 56 (4816896)
I0403 21:39:20.506119 12364 net.cpp:156] Memory required for data: 245662752
I0403 21:39:20.506134 12364 layer_factory.hpp:77] Creating layer conv2/3x3
I0403 21:39:20.506158 12364 net.cpp:91] Creating Layer conv2/3x3
I0403 21:39:20.506175 12364 net.cpp:425] conv2/3x3 <- conv2/3x3_reduce
I0403 21:39:20.506196 12364 net.cpp:399] conv2/3x3 -> conv2/3x3
I0403 21:39:20.508554 12364 net.cpp:141] Setting up conv2/3x3
I0403 21:39:20.508586 12364 net.cpp:148] Top shape: 24 192 56 56 (14450688)
I0403 21:39:20.508605 12364 net.cpp:156] Memory required for data: 303465504
I0403 21:39:20.508630 12364 layer_factory.hpp:77] Creating layer conv2/relu_3x3
I0403 21:39:20.508651 12364 net.cpp:91] Creating Layer conv2/relu_3x3
I0403 21:39:20.508671 12364 net.cpp:425] conv2/relu_3x3 <- conv2/3x3
I0403 21:39:20.508690 12364 net.cpp:386] conv2/relu_3x3 -> conv2/3x3 (in-place)
I0403 21:39:20.508877 12364 net.cpp:141] Setting up conv2/relu_3x3
I0403 21:39:20.508903 12364 net.cpp:148] Top shape: 24 192 56 56 (14450688)
I0403 21:39:20.508952 12364 net.cpp:156] Memory required for data: 361268256
I0403 21:39:20.508970 12364 layer_factory.hpp:77] Creating layer conv2/norm2
I0403 21:39:20.508992 12364 net.cpp:91] Creating Layer conv2/norm2
I0403 21:39:20.509011 12364 net.cpp:425] conv2/norm2 <- conv2/3x3
I0403 21:39:20.509028 12364 net.cpp:399] conv2/norm2 -> conv2/norm2
I0403 21:39:20.509338 12364 net.cpp:141] Setting up conv2/norm2
I0403 21:39:20.509366 12364 net.cpp:148] Top shape: 24 192 56 56 (14450688)
I0403 21:39:20.509382 12364 net.cpp:156] Memory required for data: 419071008
I0403 21:39:20.509397 12364 layer_factory.hpp:77] Creating layer pool2/3x3_s2
I0403 21:39:20.509418 12364 net.cpp:91] Creating Layer pool2/3x3_s2
I0403 21:39:20.509438 12364 net.cpp:425] pool2/3x3_s2 <- conv2/norm2
I0403 21:39:20.509455 12364 net.cpp:399] pool2/3x3_s2 -> pool2/3x3_s2
I0403 21:39:20.509510 12364 net.cpp:141] Setting up pool2/3x3_s2
I0403 21:39:20.509534 12364 net.cpp:148] Top shape: 24 192 28 28 (3612672)
I0403 21:39:20.509549 12364 net.cpp:156] Memory required for data: 433521696
I0403 21:39:20.509565 12364 layer_factory.hpp:77] Creating layer pool2/3x3_s2_pool2/3x3_s2_0_split
I0403 21:39:20.509583 12364 net.cpp:91] Creating Layer pool2/3x3_s2_pool2/3x3_s2_0_split
I0403 21:39:20.509599 12364 net.cpp:425] pool2/3x3_s2_pool2/3x3_s2_0_split <- pool2/3x3_s2
I0403 21:39:20.509619 12364 net.cpp:399] pool2/3x3_s2_pool2/3x3_s2_0_split -> pool2/3x3_s2_pool2/3x3_s2_0_split_0
I0403 21:39:20.509640 12364 net.cpp:399] pool2/3x3_s2_pool2/3x3_s2_0_split -> pool2/3x3_s2_pool2/3x3_s2_0_split_1
I0403 21:39:20.509661 12364 net.cpp:399] pool2/3x3_s2_pool2/3x3_s2_0_split -> pool2/3x3_s2_pool2/3x3_s2_0_split_2
I0403 21:39:20.509682 12364 net.cpp:399] pool2/3x3_s2_pool2/3x3_s2_0_split -> pool2/3x3_s2_pool2/3x3_s2_0_split_3
I0403 21:39:20.509757 12364 net.cpp:141] Setting up pool2/3x3_s2_pool2/3x3_s2_0_split
I0403 21:39:20.509783 12364 net.cpp:148] Top shape: 24 192 28 28 (3612672)
I0403 21:39:20.509801 12364 net.cpp:148] Top shape: 24 192 28 28 (3612672)
I0403 21:39:20.509817 12364 net.cpp:148] Top shape: 24 192 28 28 (3612672)
I0403 21:39:20.509835 12364 net.cpp:148] Top shape: 24 192 28 28 (3612672)
I0403 21:39:20.509848 12364 net.cpp:156] Memory required for data: 491324448
I0403 21:39:20.509865 12364 layer_factory.hpp:77] Creating layer inception_3a/1x1
I0403 21:39:20.509887 12364 net.cpp:91] Creating Layer inception_3a/1x1
I0403 21:39:20.509905 12364 net.cpp:425] inception_3a/1x1 <- pool2/3x3_s2_pool2/3x3_s2_0_split_0
I0403 21:39:20.509924 12364 net.cpp:399] inception_3a/1x1 -> inception_3a/1x1
I0403 21:39:20.511534 12364 net.cpp:141] Setting up inception_3a/1x1
I0403 21:39:20.511564 12364 net.cpp:148] Top shape: 24 64 28 28 (1204224)
I0403 21:39:20.511579 12364 net.cpp:156] Memory required for data: 496141344
I0403 21:39:20.511598 12364 layer_factory.hpp:77] Creating layer inception_3a/relu_1x1
I0403 21:39:20.511621 12364 net.cpp:91] Creating Layer inception_3a/relu_1x1
I0403 21:39:20.511638 12364 net.cpp:425] inception_3a/relu_1x1 <- inception_3a/1x1
I0403 21:39:20.511657 12364 net.cpp:386] inception_3a/relu_1x1 -> inception_3a/1x1 (in-place)
I0403 21:39:20.511838 12364 net.cpp:141] Setting up inception_3a/relu_1x1
I0403 21:39:20.511865 12364 net.cpp:148] Top shape: 24 64 28 28 (1204224)
I0403 21:39:20.511880 12364 net.cpp:156] Memory required for data: 500958240
I0403 21:39:20.511896 12364 layer_factory.hpp:77] Creating layer inception_3a/3x3_reduce
I0403 21:39:20.511920 12364 net.cpp:91] Creating Layer inception_3a/3x3_reduce
I0403 21:39:20.511937 12364 net.cpp:425] inception_3a/3x3_reduce <- pool2/3x3_s2_pool2/3x3_s2_0_split_1
I0403 21:39:20.511960 12364 net.cpp:399] inception_3a/3x3_reduce -> inception_3a/3x3_reduce
I0403 21:39:20.513736 12364 net.cpp:141] Setting up inception_3a/3x3_reduce
I0403 21:39:20.513768 12364 net.cpp:148] Top shape: 24 96 28 28 (1806336)
I0403 21:39:20.513787 12364 net.cpp:156] Memory required for data: 508183584
I0403 21:39:20.513808 12364 layer_factory.hpp:77] Creating layer inception_3a/relu_3x3_reduce
I0403 21:39:20.513844 12364 net.cpp:91] Creating Layer inception_3a/relu_3x3_reduce
I0403 21:39:20.513864 12364 net.cpp:425] inception_3a/relu_3x3_reduce <- inception_3a/3x3_reduce
I0403 21:39:20.513885 12364 net.cpp:386] inception_3a/relu_3x3_reduce -> inception_3a/3x3_reduce (in-place)
I0403 21:39:20.514073 12364 net.cpp:141] Setting up inception_3a/relu_3x3_reduce
I0403 21:39:20.514101 12364 net.cpp:148] Top shape: 24 96 28 28 (1806336)
I0403 21:39:20.514117 12364 net.cpp:156] Memory required for data: 515408928
I0403 21:39:20.514132 12364 layer_factory.hpp:77] Creating layer inception_3a/3x3
I0403 21:39:20.514156 12364 net.cpp:91] Creating Layer inception_3a/3x3
I0403 21:39:20.514173 12364 net.cpp:425] inception_3a/3x3 <- inception_3a/3x3_reduce
I0403 21:39:20.514196 12364 net.cpp:399] inception_3a/3x3 -> inception_3a/3x3
I0403 21:39:20.515902 12364 net.cpp:141] Setting up inception_3a/3x3
I0403 21:39:20.515931 12364 net.cpp:148] Top shape: 24 128 28 28 (2408448)
I0403 21:39:20.515947 12364 net.cpp:156] Memory required for data: 525042720
I0403 21:39:20.515966 12364 layer_factory.hpp:77] Creating layer inception_3a/relu_3x3
I0403 21:39:20.515986 12364 net.cpp:91] Creating Layer inception_3a/relu_3x3
I0403 21:39:20.516003 12364 net.cpp:425] inception_3a/relu_3x3 <- inception_3a/3x3
I0403 21:39:20.516023 12364 net.cpp:386] inception_3a/relu_3x3 -> inception_3a/3x3 (in-place)
I0403 21:39:20.516320 12364 net.cpp:141] Setting up inception_3a/relu_3x3
I0403 21:39:20.516350 12364 net.cpp:148] Top shape: 24 128 28 28 (2408448)
I0403 21:39:20.516366 12364 net.cpp:156] Memory required for data: 534676512
I0403 21:39:20.516381 12364 layer_factory.hpp:77] Creating layer inception_3a/5x5_reduce
I0403 21:39:20.516404 12364 net.cpp:91] Creating Layer inception_3a/5x5_reduce
I0403 21:39:20.516422 12364 net.cpp:425] inception_3a/5x5_reduce <- pool2/3x3_s2_pool2/3x3_s2_0_split_2
I0403 21:39:20.516443 12364 net.cpp:399] inception_3a/5x5_reduce -> inception_3a/5x5_reduce
I0403 21:39:20.517429 12364 net.cpp:141] Setting up inception_3a/5x5_reduce
I0403 21:39:20.517460 12364 net.cpp:148] Top shape: 24 16 28 28 (301056)
I0403 21:39:20.517477 12364 net.cpp:156] Memory required for data: 535880736
I0403 21:39:20.517496 12364 layer_factory.hpp:77] Creating layer inception_3a/relu_5x5_reduce
I0403 21:39:20.517515 12364 net.cpp:91] Creating Layer inception_3a/relu_5x5_reduce
I0403 21:39:20.517531 12364 net.cpp:425] inception_3a/relu_5x5_reduce <- inception_3a/5x5_reduce
I0403 21:39:20.517552 12364 net.cpp:386] inception_3a/relu_5x5_reduce -> inception_3a/5x5_reduce (in-place)
I0403 21:39:20.517839 12364 net.cpp:141] Setting up inception_3a/relu_5x5_reduce
I0403 21:39:20.517866 12364 net.cpp:148] Top shape: 24 16 28 28 (301056)
I0403 21:39:20.517882 12364 net.cpp:156] Memory required for data: 537084960
I0403 21:39:20.517897 12364 layer_factory.hpp:77] Creating layer inception_3a/5x5
I0403 21:39:20.517921 12364 net.cpp:91] Creating Layer inception_3a/5x5
I0403 21:39:20.517938 12364 net.cpp:425] inception_3a/5x5 <- inception_3a/5x5_reduce
I0403 21:39:20.517961 12364 net.cpp:399] inception_3a/5x5 -> inception_3a/5x5
I0403 21:39:20.519032 12364 net.cpp:141] Setting up inception_3a/5x5
I0403 21:39:20.519059 12364 net.cpp:148] Top shape: 24 32 28 28 (602112)
I0403 21:39:20.519076 12364 net.cpp:156] Memory required for data: 539493408
I0403 21:39:20.519095 12364 layer_factory.hpp:77] Creating layer inception_3a/relu_5x5
I0403 21:39:20.519117 12364 net.cpp:91] Creating Layer inception_3a/relu_5x5
I0403 21:39:20.519134 12364 net.cpp:425] inception_3a/relu_5x5 <- inception_3a/5x5
I0403 21:39:20.519151 12364 net.cpp:386] inception_3a/relu_5x5 -> inception_3a/5x5 (in-place)
I0403 21:39:20.519338 12364 net.cpp:141] Setting up inception_3a/relu_5x5
I0403 21:39:20.519366 12364 net.cpp:148] Top shape: 24 32 28 28 (602112)
I0403 21:39:20.519381 12364 net.cpp:156] Memory required for data: 541901856
I0403 21:39:20.519395 12364 layer_factory.hpp:77] Creating layer inception_3a/pool
I0403 21:39:20.519413 12364 net.cpp:91] Creating Layer inception_3a/pool
I0403 21:39:20.519429 12364 net.cpp:425] inception_3a/pool <- pool2/3x3_s2_pool2/3x3_s2_0_split_3
I0403 21:39:20.519466 12364 net.cpp:399] inception_3a/pool -> inception_3a/pool
I0403 21:39:20.519526 12364 net.cpp:141] Setting up inception_3a/pool
I0403 21:39:20.519551 12364 net.cpp:148] Top shape: 24 192 28 28 (3612672)
I0403 21:39:20.519564 12364 net.cpp:156] Memory required for data: 556352544
I0403 21:39:20.519579 12364 layer_factory.hpp:77] Creating layer inception_3a/pool_proj
I0403 21:39:20.519605 12364 net.cpp:91] Creating Layer inception_3a/pool_proj
I0403 21:39:20.519623 12364 net.cpp:425] inception_3a/pool_proj <- inception_3a/pool
I0403 21:39:20.519642 12364 net.cpp:399] inception_3a/pool_proj -> inception_3a/pool_proj
I0403 21:39:20.520620 12364 net.cpp:141] Setting up inception_3a/pool_proj
I0403 21:39:20.520648 12364 net.cpp:148] Top shape: 24 32 28 28 (602112)
I0403 21:39:20.520664 12364 net.cpp:156] Memory required for data: 558760992
I0403 21:39:20.520689 12364 layer_factory.hpp:77] Creating layer inception_3a/relu_pool_proj
I0403 21:39:20.520709 12364 net.cpp:91] Creating Layer inception_3a/relu_pool_proj
I0403 21:39:20.520725 12364 net.cpp:425] inception_3a/relu_pool_proj <- inception_3a/pool_proj
I0403 21:39:20.520747 12364 net.cpp:386] inception_3a/relu_pool_proj -> inception_3a/pool_proj (in-place)
I0403 21:39:20.521021 12364 net.cpp:141] Setting up inception_3a/relu_pool_proj
I0403 21:39:20.521049 12364 net.cpp:148] Top shape: 24 32 28 28 (602112)
I0403 21:39:20.521065 12364 net.cpp:156] Memory required for data: 561169440
I0403 21:39:20.521080 12364 layer_factory.hpp:77] Creating layer inception_3a/output
I0403 21:39:20.521098 12364 net.cpp:91] Creating Layer inception_3a/output
I0403 21:39:20.521114 12364 net.cpp:425] inception_3a/output <- inception_3a/1x1
I0403 21:39:20.521131 12364 net.cpp:425] inception_3a/output <- inception_3a/3x3
I0403 21:39:20.521147 12364 net.cpp:425] inception_3a/output <- inception_3a/5x5
I0403 21:39:20.521163 12364 net.cpp:425] inception_3a/output <- inception_3a/pool_proj
I0403 21:39:20.521180 12364 net.cpp:399] inception_3a/output -> inception_3a/output
I0403 21:39:20.521234 12364 net.cpp:141] Setting up inception_3a/output
I0403 21:39:20.521257 12364 net.cpp:148] Top shape: 24 256 28 28 (4816896)
I0403 21:39:20.521273 12364 net.cpp:156] Memory required for data: 580437024
I0403 21:39:20.521289 12364 layer_factory.hpp:77] Creating layer inception_3a/output_inception_3a/output_0_split
I0403 21:39:20.521309 12364 net.cpp:91] Creating Layer inception_3a/output_inception_3a/output_0_split
I0403 21:39:20.521325 12364 net.cpp:425] inception_3a/output_inception_3a/output_0_split <- inception_3a/output
I0403 21:39:20.521343 12364 net.cpp:399] inception_3a/output_inception_3a/output_0_split -> inception_3a/output_inception_3a/output_0_split_0
I0403 21:39:20.521364 12364 net.cpp:399] inception_3a/output_inception_3a/output_0_split -> inception_3a/output_inception_3a/output_0_split_1
I0403 21:39:20.521389 12364 net.cpp:399] inception_3a/output_inception_3a/output_0_split -> inception_3a/output_inception_3a/output_0_split_2
I0403 21:39:20.521411 12364 net.cpp:399] inception_3a/output_inception_3a/output_0_split -> inception_3a/output_inception_3a/output_0_split_3
I0403 21:39:20.521484 12364 net.cpp:141] Setting up inception_3a/output_inception_3a/output_0_split
I0403 21:39:20.521507 12364 net.cpp:148] Top shape: 24 256 28 28 (4816896)
I0403 21:39:20.521527 12364 net.cpp:148] Top shape: 24 256 28 28 (4816896)
I0403 21:39:20.521543 12364 net.cpp:148] Top shape: 24 256 28 28 (4816896)
I0403 21:39:20.521559 12364 net.cpp:148] Top shape: 24 256 28 28 (4816896)
I0403 21:39:20.521574 12364 net.cpp:156] Memory required for data: 657507360
I0403 21:39:20.521589 12364 layer_factory.hpp:77] Creating layer inception_3b/1x1
I0403 21:39:20.521610 12364 net.cpp:91] Creating Layer inception_3b/1x1
I0403 21:39:20.521627 12364 net.cpp:425] inception_3b/1x1 <- inception_3a/output_inception_3a/output_0_split_0
I0403 21:39:20.521649 12364 net.cpp:399] inception_3b/1x1 -> inception_3b/1x1
I0403 21:39:20.522780 12364 net.cpp:141] Setting up inception_3b/1x1
I0403 21:39:20.522820 12364 net.cpp:148] Top shape: 24 128 28 28 (2408448)
I0403 21:39:20.522836 12364 net.cpp:156] Memory required for data: 667141152
I0403 21:39:20.522855 12364 layer_factory.hpp:77] Creating layer inception_3b/relu_1x1
I0403 21:39:20.522876 12364 net.cpp:91] Creating Layer inception_3b/relu_1x1
I0403 21:39:20.522892 12364 net.cpp:425] inception_3b/relu_1x1 <- inception_3b/1x1
I0403 21:39:20.522910 12364 net.cpp:386] inception_3b/relu_1x1 -> inception_3b/1x1 (in-place)
I0403 21:39:20.523087 12364 net.cpp:141] Setting up inception_3b/relu_1x1
I0403 21:39:20.523115 12364 net.cpp:148] Top shape: 24 128 28 28 (2408448)
I0403 21:39:20.523131 12364 net.cpp:156] Memory required for data: 676774944
I0403 21:39:20.523145 12364 layer_factory.hpp:77] Creating layer inception_3b/3x3_reduce
I0403 21:39:20.523169 12364 net.cpp:91] Creating Layer inception_3b/3x3_reduce
I0403 21:39:20.523186 12364 net.cpp:425] inception_3b/3x3_reduce <- inception_3a/output_inception_3a/output_0_split_1
I0403 21:39:20.523206 12364 net.cpp:399] inception_3b/3x3_reduce -> inception_3b/3x3_reduce
I0403 21:39:20.524370 12364 net.cpp:141] Setting up inception_3b/3x3_reduce
I0403 21:39:20.524397 12364 net.cpp:148] Top shape: 24 128 28 28 (2408448)
I0403 21:39:20.524412 12364 net.cpp:156] Memory required for data: 686408736
I0403 21:39:20.524430 12364 layer_factory.hpp:77] Creating layer inception_3b/relu_3x3_reduce
I0403 21:39:20.524451 12364 net.cpp:91] Creating Layer inception_3b/relu_3x3_reduce
I0403 21:39:20.524467 12364 net.cpp:425] inception_3b/relu_3x3_reduce <- inception_3b/3x3_reduce
I0403 21:39:20.524484 12364 net.cpp:386] inception_3b/relu_3x3_reduce -> inception_3b/3x3_reduce (in-place)
I0403 21:39:20.524653 12364 net.cpp:141] Setting up inception_3b/relu_3x3_reduce
I0403 21:39:20.524682 12364 net.cpp:148] Top shape: 24 128 28 28 (2408448)
I0403 21:39:20.524696 12364 net.cpp:156] Memory required for data: 696042528
I0403 21:39:20.524711 12364 layer_factory.hpp:77] Creating layer inception_3b/3x3
I0403 21:39:20.524735 12364 net.cpp:91] Creating Layer inception_3b/3x3
I0403 21:39:20.524755 12364 net.cpp:425] inception_3b/3x3 <- inception_3b/3x3_reduce
I0403 21:39:20.524776 12364 net.cpp:399] inception_3b/3x3 -> inception_3b/3x3
I0403 21:39:20.527616 12364 net.cpp:141] Setting up inception_3b/3x3
I0403 21:39:20.527648 12364 net.cpp:148] Top shape: 24 192 28 28 (3612672)
I0403 21:39:20.527663 12364 net.cpp:156] Memory required for data: 710493216
I0403 21:39:20.527683 12364 layer_factory.hpp:77] Creating layer inception_3b/relu_3x3
I0403 21:39:20.527700 12364 net.cpp:91] Creating Layer inception_3b/relu_3x3
I0403 21:39:20.527716 12364 net.cpp:425] inception_3b/relu_3x3 <- inception_3b/3x3
I0403 21:39:20.527735 12364 net.cpp:386] inception_3b/relu_3x3 -> inception_3b/3x3 (in-place)
I0403 21:39:20.528000 12364 net.cpp:141] Setting up inception_3b/relu_3x3
I0403 21:39:20.528028 12364 net.cpp:148] Top shape: 24 192 28 28 (3612672)
I0403 21:39:20.528043 12364 net.cpp:156] Memory required for data: 724943904
I0403 21:39:20.528059 12364 layer_factory.hpp:77] Creating layer inception_3b/5x5_reduce
I0403 21:39:20.528082 12364 net.cpp:91] Creating Layer inception_3b/5x5_reduce
I0403 21:39:20.528100 12364 net.cpp:425] inception_3b/5x5_reduce <- inception_3a/output_inception_3a/output_0_split_2
I0403 21:39:20.528120 12364 net.cpp:399] inception_3b/5x5_reduce -> inception_3b/5x5_reduce
I0403 21:39:20.529080 12364 net.cpp:141] Setting up inception_3b/5x5_reduce
I0403 21:39:20.529114 12364 net.cpp:148] Top shape: 24 32 28 28 (602112)
I0403 21:39:20.529129 12364 net.cpp:156] Memory required for data: 727352352
I0403 21:39:20.529148 12364 layer_factory.hpp:77] Creating layer inception_3b/relu_5x5_reduce
I0403 21:39:20.529167 12364 net.cpp:91] Creating Layer inception_3b/relu_5x5_reduce
I0403 21:39:20.529182 12364 net.cpp:425] inception_3b/relu_5x5_reduce <- inception_3b/5x5_reduce
I0403 21:39:20.529201 12364 net.cpp:386] inception_3b/relu_5x5_reduce -> inception_3b/5x5_reduce (in-place)
I0403 21:39:20.529377 12364 net.cpp:141] Setting up inception_3b/relu_5x5_reduce
I0403 21:39:20.529415 12364 net.cpp:148] Top shape: 24 32 28 28 (602112)
I0403 21:39:20.529430 12364 net.cpp:156] Memory required for data: 729760800
I0403 21:39:20.529446 12364 layer_factory.hpp:77] Creating layer inception_3b/5x5
I0403 21:39:20.529469 12364 net.cpp:91] Creating Layer inception_3b/5x5
I0403 21:39:20.529486 12364 net.cpp:425] inception_3b/5x5 <- inception_3b/5x5_reduce
I0403 21:39:20.529507 12364 net.cpp:399] inception_3b/5x5 -> inception_3b/5x5
I0403 21:39:20.531448 12364 net.cpp:141] Setting up inception_3b/5x5
I0403 21:39:20.531477 12364 net.cpp:148] Top shape: 24 96 28 28 (1806336)
I0403 21:39:20.531491 12364 net.cpp:156] Memory required for data: 736986144
I0403 21:39:20.531509 12364 layer_factory.hpp:77] Creating layer inception_3b/relu_5x5
I0403 21:39:20.531529 12364 net.cpp:91] Creating Layer inception_3b/relu_5x5
I0403 21:39:20.531546 12364 net.cpp:425] inception_3b/relu_5x5 <- inception_3b/5x5
I0403 21:39:20.531564 12364 net.cpp:386] inception_3b/relu_5x5 -> inception_3b/5x5 (in-place)
I0403 21:39:20.531754 12364 net.cpp:141] Setting up inception_3b/relu_5x5
I0403 21:39:20.531780 12364 net.cpp:148] Top shape: 24 96 28 28 (1806336)
I0403 21:39:20.531795 12364 net.cpp:156] Memory required for data: 744211488
I0403 21:39:20.531810 12364 layer_factory.hpp:77] Creating layer inception_3b/pool
I0403 21:39:20.531827 12364 net.cpp:91] Creating Layer inception_3b/pool
I0403 21:39:20.531843 12364 net.cpp:425] inception_3b/pool <- inception_3a/output_inception_3a/output_0_split_3
I0403 21:39:20.531862 12364 net.cpp:399] inception_3b/pool -> inception_3b/pool
I0403 21:39:20.531914 12364 net.cpp:141] Setting up inception_3b/pool
I0403 21:39:20.531937 12364 net.cpp:148] Top shape: 24 256 28 28 (4816896)
I0403 21:39:20.531952 12364 net.cpp:156] Memory required for data: 763479072
I0403 21:39:20.531967 12364 layer_factory.hpp:77] Creating layer inception_3b/pool_proj
I0403 21:39:20.531990 12364 net.cpp:91] Creating Layer inception_3b/pool_proj
I0403 21:39:20.532007 12364 net.cpp:425] inception_3b/pool_proj <- inception_3b/pool
I0403 21:39:20.532028 12364 net.cpp:399] inception_3b/pool_proj -> inception_3b/pool_proj
I0403 21:39:20.533053 12364 net.cpp:141] Setting up inception_3b/pool_proj
I0403 21:39:20.533080 12364 net.cpp:148] Top shape: 24 64 28 28 (1204224)
I0403 21:39:20.533097 12364 net.cpp:156] Memory required for data: 768295968
I0403 21:39:20.533113 12364 layer_factory.hpp:77] Creating layer inception_3b/relu_pool_proj
I0403 21:39:20.533131 12364 net.cpp:91] Creating Layer inception_3b/relu_pool_proj
I0403 21:39:20.533149 12364 net.cpp:425] inception_3b/relu_pool_proj <- inception_3b/pool_proj
I0403 21:39:20.533169 12364 net.cpp:386] inception_3b/relu_pool_proj -> inception_3b/pool_proj (in-place)
I0403 21:39:20.533531 12364 net.cpp:141] Setting up inception_3b/relu_pool_proj
I0403 21:39:20.533560 12364 net.cpp:148] Top shape: 24 64 28 28 (1204224)
I0403 21:39:20.533574 12364 net.cpp:156] Memory required for data: 773112864
I0403 21:39:20.533589 12364 layer_factory.hpp:77] Creating layer inception_3b/output
I0403 21:39:20.533607 12364 net.cpp:91] Creating Layer inception_3b/output
I0403 21:39:20.533622 12364 net.cpp:425] inception_3b/output <- inception_3b/1x1
I0403 21:39:20.533640 12364 net.cpp:425] inception_3b/output <- inception_3b/3x3
I0403 21:39:20.533655 12364 net.cpp:425] inception_3b/output <- inception_3b/5x5
I0403 21:39:20.533671 12364 net.cpp:425] inception_3b/output <- inception_3b/pool_proj
I0403 21:39:20.533689 12364 net.cpp:399] inception_3b/output -> inception_3b/output
I0403 21:39:20.533732 12364 net.cpp:141] Setting up inception_3b/output
I0403 21:39:20.533756 12364 net.cpp:148] Top shape: 24 480 28 28 (9031680)
I0403 21:39:20.533769 12364 net.cpp:156] Memory required for data: 809239584
I0403 21:39:20.533782 12364 layer_factory.hpp:77] Creating layer pool3/3x3_s2
I0403 21:39:20.533802 12364 net.cpp:91] Creating Layer pool3/3x3_s2
I0403 21:39:20.533819 12364 net.cpp:425] pool3/3x3_s2 <- inception_3b/output
I0403 21:39:20.533836 12364 net.cpp:399] pool3/3x3_s2 -> pool3/3x3_s2
I0403 21:39:20.533907 12364 net.cpp:141] Setting up pool3/3x3_s2
I0403 21:39:20.533931 12364 net.cpp:148] Top shape: 24 480 14 14 (2257920)
I0403 21:39:20.533944 12364 net.cpp:156] Memory required for data: 818271264
I0403 21:39:20.533958 12364 layer_factory.hpp:77] Creating layer pool3/3x3_s2_pool3/3x3_s2_0_split
I0403 21:39:20.533977 12364 net.cpp:91] Creating Layer pool3/3x3_s2_pool3/3x3_s2_0_split
I0403 21:39:20.533993 12364 net.cpp:425] pool3/3x3_s2_pool3/3x3_s2_0_split <- pool3/3x3_s2
I0403 21:39:20.534009 12364 net.cpp:399] pool3/3x3_s2_pool3/3x3_s2_0_split -> pool3/3x3_s2_pool3/3x3_s2_0_split_0
I0403 21:39:20.534029 12364 net.cpp:399] pool3/3x3_s2_pool3/3x3_s2_0_split -> pool3/3x3_s2_pool3/3x3_s2_0_split_1
I0403 21:39:20.534047 12364 net.cpp:399] pool3/3x3_s2_pool3/3x3_s2_0_split -> pool3/3x3_s2_pool3/3x3_s2_0_split_2
I0403 21:39:20.534065 12364 net.cpp:399] pool3/3x3_s2_pool3/3x3_s2_0_split -> pool3/3x3_s2_pool3/3x3_s2_0_split_3
I0403 21:39:20.534139 12364 net.cpp:141] Setting up pool3/3x3_s2_pool3/3x3_s2_0_split
I0403 21:39:20.534162 12364 net.cpp:148] Top shape: 24 480 14 14 (2257920)
I0403 21:39:20.534178 12364 net.cpp:148] Top shape: 24 480 14 14 (2257920)
I0403 21:39:20.534193 12364 net.cpp:148] Top shape: 24 480 14 14 (2257920)
I0403 21:39:20.534212 12364 net.cpp:148] Top shape: 24 480 14 14 (2257920)
I0403 21:39:20.534229 12364 net.cpp:156] Memory required for data: 854397984
I0403 21:39:20.534242 12364 layer_factory.hpp:77] Creating layer inception_4a/1x1
I0403 21:39:20.534267 12364 net.cpp:91] Creating Layer inception_4a/1x1
I0403 21:39:20.534284 12364 net.cpp:425] inception_4a/1x1 <- pool3/3x3_s2_pool3/3x3_s2_0_split_0
I0403 21:39:20.534307 12364 net.cpp:399] inception_4a/1x1 -> inception_4a/1x1
I0403 21:39:20.535816 12364 net.cpp:141] Setting up inception_4a/1x1
I0403 21:39:20.535845 12364 net.cpp:148] Top shape: 24 192 14 14 (903168)
I0403 21:39:20.535859 12364 net.cpp:156] Memory required for data: 858010656
I0403 21:39:20.535876 12364 layer_factory.hpp:77] Creating layer inception_4a/relu_1x1
I0403 21:39:20.535897 12364 net.cpp:91] Creating Layer inception_4a/relu_1x1
I0403 21:39:20.535914 12364 net.cpp:425] inception_4a/relu_1x1 <- inception_4a/1x1
I0403 21:39:20.535933 12364 net.cpp:386] inception_4a/relu_1x1 -> inception_4a/1x1 (in-place)
I0403 21:39:20.536103 12364 net.cpp:141] Setting up inception_4a/relu_1x1
I0403 21:39:20.536129 12364 net.cpp:148] Top shape: 24 192 14 14 (903168)
I0403 21:39:20.536146 12364 net.cpp:156] Memory required for data: 861623328
I0403 21:39:20.536160 12364 layer_factory.hpp:77] Creating layer inception_4a/3x3_reduce
I0403 21:39:20.536181 12364 net.cpp:91] Creating Layer inception_4a/3x3_reduce
I0403 21:39:20.536200 12364 net.cpp:425] inception_4a/3x3_reduce <- pool3/3x3_s2_pool3/3x3_s2_0_split_1
I0403 21:39:20.536242 12364 net.cpp:399] inception_4a/3x3_reduce -> inception_4a/3x3_reduce
I0403 21:39:20.537506 12364 net.cpp:141] Setting up inception_4a/3x3_reduce
I0403 21:39:20.537533 12364 net.cpp:148] Top shape: 24 96 14 14 (451584)
I0403 21:39:20.537549 12364 net.cpp:156] Memory required for data: 863429664
I0403 21:39:20.537575 12364 layer_factory.hpp:77] Creating layer inception_4a/relu_3x3_reduce
I0403 21:39:20.537596 12364 net.cpp:91] Creating Layer inception_4a/relu_3x3_reduce
I0403 21:39:20.537613 12364 net.cpp:425] inception_4a/relu_3x3_reduce <- inception_4a/3x3_reduce
I0403 21:39:20.537634 12364 net.cpp:386] inception_4a/relu_3x3_reduce -> inception_4a/3x3_reduce (in-place)
I0403 21:39:20.537806 12364 net.cpp:141] Setting up inception_4a/relu_3x3_reduce
I0403 21:39:20.537832 12364 net.cpp:148] Top shape: 24 96 14 14 (451584)
I0403 21:39:20.537845 12364 net.cpp:156] Memory required for data: 865236000
I0403 21:39:20.537861 12364 layer_factory.hpp:77] Creating layer inception_4a/3x3
I0403 21:39:20.537884 12364 net.cpp:91] Creating Layer inception_4a/3x3
I0403 21:39:20.537902 12364 net.cpp:425] inception_4a/3x3 <- inception_4a/3x3_reduce
I0403 21:39:20.537924 12364 net.cpp:399] inception_4a/3x3 -> inception_4a/3x3
I0403 21:39:20.540609 12364 net.cpp:141] Setting up inception_4a/3x3
I0403 21:39:20.540638 12364 net.cpp:148] Top shape: 24 208 14 14 (978432)
I0403 21:39:20.540653 12364 net.cpp:156] Memory required for data: 869149728
I0403 21:39:20.540673 12364 layer_factory.hpp:77] Creating layer inception_4a/relu_3x3
I0403 21:39:20.540693 12364 net.cpp:91] Creating Layer inception_4a/relu_3x3
I0403 21:39:20.540709 12364 net.cpp:425] inception_4a/relu_3x3 <- inception_4a/3x3
I0403 21:39:20.540726 12364 net.cpp:386] inception_4a/relu_3x3 -> inception_4a/3x3 (in-place)
I0403 21:39:20.541002 12364 net.cpp:141] Setting up inception_4a/relu_3x3
I0403 21:39:20.541028 12364 net.cpp:148] Top shape: 24 208 14 14 (978432)
I0403 21:39:20.541044 12364 net.cpp:156] Memory required for data: 873063456
I0403 21:39:20.541059 12364 layer_factory.hpp:77] Creating layer inception_4a/5x5_reduce
I0403 21:39:20.541084 12364 net.cpp:91] Creating Layer inception_4a/5x5_reduce
I0403 21:39:20.541103 12364 net.cpp:425] inception_4a/5x5_reduce <- pool3/3x3_s2_pool3/3x3_s2_0_split_2
I0403 21:39:20.541123 12364 net.cpp:399] inception_4a/5x5_reduce -> inception_4a/5x5_reduce
I0403 21:39:20.542130 12364 net.cpp:141] Setting up inception_4a/5x5_reduce
I0403 21:39:20.542158 12364 net.cpp:148] Top shape: 24 16 14 14 (75264)
I0403 21:39:20.542174 12364 net.cpp:156] Memory required for data: 873364512
I0403 21:39:20.542193 12364 layer_factory.hpp:77] Creating layer inception_4a/relu_5x5_reduce
I0403 21:39:20.542227 12364 net.cpp:91] Creating Layer inception_4a/relu_5x5_reduce
I0403 21:39:20.542245 12364 net.cpp:425] inception_4a/relu_5x5_reduce <- inception_4a/5x5_reduce
I0403 21:39:20.542264 12364 net.cpp:386] inception_4a/relu_5x5_reduce -> inception_4a/5x5_reduce (in-place)
I0403 21:39:20.542444 12364 net.cpp:141] Setting up inception_4a/relu_5x5_reduce
I0403 21:39:20.542470 12364 net.cpp:148] Top shape: 24 16 14 14 (75264)
I0403 21:39:20.542485 12364 net.cpp:156] Memory required for data: 873665568
I0403 21:39:20.542500 12364 layer_factory.hpp:77] Creating layer inception_4a/5x5
I0403 21:39:20.542526 12364 net.cpp:91] Creating Layer inception_4a/5x5
I0403 21:39:20.542544 12364 net.cpp:425] inception_4a/5x5 <- inception_4a/5x5_reduce
I0403 21:39:20.542567 12364 net.cpp:399] inception_4a/5x5 -> inception_4a/5x5
I0403 21:39:20.543650 12364 net.cpp:141] Setting up inception_4a/5x5
I0403 21:39:20.543678 12364 net.cpp:148] Top shape: 24 48 14 14 (225792)
I0403 21:39:20.543694 12364 net.cpp:156] Memory required for data: 874568736
I0403 21:39:20.543711 12364 layer_factory.hpp:77] Creating layer inception_4a/relu_5x5
I0403 21:39:20.543730 12364 net.cpp:91] Creating Layer inception_4a/relu_5x5
I0403 21:39:20.543746 12364 net.cpp:425] inception_4a/relu_5x5 <- inception_4a/5x5
I0403 21:39:20.543766 12364 net.cpp:386] inception_4a/relu_5x5 -> inception_4a/5x5 (in-place)
I0403 21:39:20.543941 12364 net.cpp:141] Setting up inception_4a/relu_5x5
I0403 21:39:20.543967 12364 net.cpp:148] Top shape: 24 48 14 14 (225792)
I0403 21:39:20.543982 12364 net.cpp:156] Memory required for data: 875471904
I0403 21:39:20.543997 12364 layer_factory.hpp:77] Creating layer inception_4a/pool
I0403 21:39:20.544018 12364 net.cpp:91] Creating Layer inception_4a/pool
I0403 21:39:20.544035 12364 net.cpp:425] inception_4a/pool <- pool3/3x3_s2_pool3/3x3_s2_0_split_3
I0403 21:39:20.544054 12364 net.cpp:399] inception_4a/pool -> inception_4a/pool
I0403 21:39:20.544116 12364 net.cpp:141] Setting up inception_4a/pool
I0403 21:39:20.544140 12364 net.cpp:148] Top shape: 24 480 14 14 (2257920)
I0403 21:39:20.544155 12364 net.cpp:156] Memory required for data: 884503584
I0403 21:39:20.544170 12364 layer_factory.hpp:77] Creating layer inception_4a/pool_proj
I0403 21:39:20.544193 12364 net.cpp:91] Creating Layer inception_4a/pool_proj
I0403 21:39:20.544217 12364 net.cpp:425] inception_4a/pool_proj <- inception_4a/pool
I0403 21:39:20.544241 12364 net.cpp:399] inception_4a/pool_proj -> inception_4a/pool_proj
I0403 21:39:20.545403 12364 net.cpp:141] Setting up inception_4a/pool_proj
I0403 21:39:20.545431 12364 net.cpp:148] Top shape: 24 64 14 14 (301056)
I0403 21:39:20.545461 12364 net.cpp:156] Memory required for data: 885707808
I0403 21:39:20.545481 12364 layer_factory.hpp:77] Creating layer inception_4a/relu_pool_proj
I0403 21:39:20.545502 12364 net.cpp:91] Creating Layer inception_4a/relu_pool_proj
I0403 21:39:20.545521 12364 net.cpp:425] inception_4a/relu_pool_proj <- inception_4a/pool_proj
I0403 21:39:20.545538 12364 net.cpp:386] inception_4a/relu_pool_proj -> inception_4a/pool_proj (in-place)
I0403 21:39:20.545820 12364 net.cpp:141] Setting up inception_4a/relu_pool_proj
I0403 21:39:20.545846 12364 net.cpp:148] Top shape: 24 64 14 14 (301056)
I0403 21:39:20.545862 12364 net.cpp:156] Memory required for data: 886912032
I0403 21:39:20.545878 12364 layer_factory.hpp:77] Creating layer inception_4a/output
I0403 21:39:20.545897 12364 net.cpp:91] Creating Layer inception_4a/output
I0403 21:39:20.545912 12364 net.cpp:425] inception_4a/output <- inception_4a/1x1
I0403 21:39:20.545928 12364 net.cpp:425] inception_4a/output <- inception_4a/3x3
I0403 21:39:20.545944 12364 net.cpp:425] inception_4a/output <- inception_4a/5x5
I0403 21:39:20.545961 12364 net.cpp:425] inception_4a/output <- inception_4a/pool_proj
I0403 21:39:20.545985 12364 net.cpp:399] inception_4a/output -> inception_4a/output
I0403 21:39:20.546030 12364 net.cpp:141] Setting up inception_4a/output
I0403 21:39:20.546056 12364 net.cpp:148] Top shape: 24 512 14 14 (2408448)
I0403 21:39:20.546072 12364 net.cpp:156] Memory required for data: 896545824
I0403 21:39:20.546087 12364 layer_factory.hpp:77] Creating layer inception_4a/output_inception_4a/output_0_split
I0403 21:39:20.546104 12364 net.cpp:91] Creating Layer inception_4a/output_inception_4a/output_0_split
I0403 21:39:20.546120 12364 net.cpp:425] inception_4a/output_inception_4a/output_0_split <- inception_4a/output
I0403 21:39:20.546140 12364 net.cpp:399] inception_4a/output_inception_4a/output_0_split -> inception_4a/output_inception_4a/output_0_split_0
I0403 21:39:20.546161 12364 net.cpp:399] inception_4a/output_inception_4a/output_0_split -> inception_4a/output_inception_4a/output_0_split_1
I0403 21:39:20.546182 12364 net.cpp:399] inception_4a/output_inception_4a/output_0_split -> inception_4a/output_inception_4a/output_0_split_2
I0403 21:39:20.546201 12364 net.cpp:399] inception_4a/output_inception_4a/output_0_split -> inception_4a/output_inception_4a/output_0_split_3
I0403 21:39:20.546226 12364 net.cpp:399] inception_4a/output_inception_4a/output_0_split -> inception_4a/output_inception_4a/output_0_split_4
I0403 21:39:20.546320 12364 net.cpp:141] Setting up inception_4a/output_inception_4a/output_0_split
I0403 21:39:20.546344 12364 net.cpp:148] Top shape: 24 512 14 14 (2408448)
I0403 21:39:20.546363 12364 net.cpp:148] Top shape: 24 512 14 14 (2408448)
I0403 21:39:20.546380 12364 net.cpp:148] Top shape: 24 512 14 14 (2408448)
I0403 21:39:20.546396 12364 net.cpp:148] Top shape: 24 512 14 14 (2408448)
I0403 21:39:20.546412 12364 net.cpp:148] Top shape: 24 512 14 14 (2408448)
I0403 21:39:20.546425 12364 net.cpp:156] Memory required for data: 944714784
I0403 21:39:20.546442 12364 layer_factory.hpp:77] Creating layer loss1/ave_pool
I0403 21:39:20.546459 12364 net.cpp:91] Creating Layer loss1/ave_pool
I0403 21:39:20.546476 12364 net.cpp:425] loss1/ave_pool <- inception_4a/output_inception_4a/output_0_split_0
I0403 21:39:20.546496 12364 net.cpp:399] loss1/ave_pool -> loss1/ave_pool
I0403 21:39:20.546701 12364 net.cpp:141] Setting up loss1/ave_pool
I0403 21:39:20.546726 12364 net.cpp:148] Top shape: 24 512 4 4 (196608)
I0403 21:39:20.546741 12364 net.cpp:156] Memory required for data: 945501216
I0403 21:39:20.546757 12364 layer_factory.hpp:77] Creating layer loss1/conv
I0403 21:39:20.546779 12364 net.cpp:91] Creating Layer loss1/conv
I0403 21:39:20.546797 12364 net.cpp:425] loss1/conv <- loss1/ave_pool
I0403 21:39:20.546818 12364 net.cpp:399] loss1/conv -> loss1/conv
I0403 21:39:20.548219 12364 net.cpp:141] Setting up loss1/conv
I0403 21:39:20.548248 12364 net.cpp:148] Top shape: 24 128 4 4 (49152)
I0403 21:39:20.548264 12364 net.cpp:156] Memory required for data: 945697824
I0403 21:39:20.548296 12364 layer_factory.hpp:77] Creating layer loss1/relu_conv
I0403 21:39:20.548317 12364 net.cpp:91] Creating Layer loss1/relu_conv
I0403 21:39:20.548334 12364 net.cpp:425] loss1/relu_conv <- loss1/conv
I0403 21:39:20.548352 12364 net.cpp:386] loss1/relu_conv -> loss1/conv (in-place)
I0403 21:39:20.548630 12364 net.cpp:141] Setting up loss1/relu_conv
I0403 21:39:20.548656 12364 net.cpp:148] Top shape: 24 128 4 4 (49152)
I0403 21:39:20.548672 12364 net.cpp:156] Memory required for data: 945894432
I0403 21:39:20.548688 12364 layer_factory.hpp:77] Creating layer loss1/fc
I0403 21:39:20.548714 12364 net.cpp:91] Creating Layer loss1/fc
I0403 21:39:20.548733 12364 net.cpp:425] loss1/fc <- loss1/conv
I0403 21:39:20.548754 12364 net.cpp:399] loss1/fc -> loss1/fc
I0403 21:39:20.566512 12364 net.cpp:141] Setting up loss1/fc
I0403 21:39:20.566548 12364 net.cpp:148] Top shape: 24 1024 (24576)
I0403 21:39:20.566565 12364 net.cpp:156] Memory required for data: 945992736
I0403 21:39:20.566583 12364 layer_factory.hpp:77] Creating layer loss1/relu_fc
I0403 21:39:20.566601 12364 net.cpp:91] Creating Layer loss1/relu_fc
I0403 21:39:20.566617 12364 net.cpp:425] loss1/relu_fc <- loss1/fc
I0403 21:39:20.566637 12364 net.cpp:386] loss1/relu_fc -> loss1/fc (in-place)
I0403 21:39:20.566822 12364 net.cpp:141] Setting up loss1/relu_fc
I0403 21:39:20.566848 12364 net.cpp:148] Top shape: 24 1024 (24576)
I0403 21:39:20.566864 12364 net.cpp:156] Memory required for data: 946091040
I0403 21:39:20.566877 12364 layer_factory.hpp:77] Creating layer loss1/drop_fc
I0403 21:39:20.566901 12364 net.cpp:91] Creating Layer loss1/drop_fc
I0403 21:39:20.566920 12364 net.cpp:425] loss1/drop_fc <- loss1/fc
I0403 21:39:20.566936 12364 net.cpp:386] loss1/drop_fc -> loss1/fc (in-place)
I0403 21:39:20.566990 12364 net.cpp:141] Setting up loss1/drop_fc
I0403 21:39:20.567014 12364 net.cpp:148] Top shape: 24 1024 (24576)
I0403 21:39:20.567028 12364 net.cpp:156] Memory required for data: 946189344
I0403 21:39:20.567044 12364 layer_factory.hpp:77] Creating layer loss1/classifier_plantvillage
I0403 21:39:20.567061 12364 net.cpp:91] Creating Layer loss1/classifier_plantvillage
I0403 21:39:20.567077 12364 net.cpp:425] loss1/classifier_plantvillage <- loss1/fc
I0403 21:39:20.567098 12364 net.cpp:399] loss1/classifier_plantvillage -> loss1/classifier_plantvillage
I0403 21:39:20.568022 12364 net.cpp:141] Setting up loss1/classifier_plantvillage
I0403 21:39:20.568049 12364 net.cpp:148] Top shape: 24 38 (912)
I0403 21:39:20.568064 12364 net.cpp:156] Memory required for data: 946192992
I0403 21:39:20.568084 12364 layer_factory.hpp:77] Creating layer loss1/classifier_plantvillage_loss1/classifier_plantvillage_0_split
I0403 21:39:20.568104 12364 net.cpp:91] Creating Layer loss1/classifier_plantvillage_loss1/classifier_plantvillage_0_split
I0403 21:39:20.568120 12364 net.cpp:425] loss1/classifier_plantvillage_loss1/classifier_plantvillage_0_split <- loss1/classifier_plantvillage
I0403 21:39:20.568138 12364 net.cpp:399] loss1/classifier_plantvillage_loss1/classifier_plantvillage_0_split -> loss1/classifier_plantvillage_loss1/classifier_plantvillage_0_split_0
I0403 21:39:20.568157 12364 net.cpp:399] loss1/classifier_plantvillage_loss1/classifier_plantvillage_0_split -> loss1/classifier_plantvillage_loss1/classifier_plantvillage_0_split_1
I0403 21:39:20.568177 12364 net.cpp:399] loss1/classifier_plantvillage_loss1/classifier_plantvillage_0_split -> loss1/classifier_plantvillage_loss1/classifier_plantvillage_0_split_2
I0403 21:39:20.568248 12364 net.cpp:141] Setting up loss1/classifier_plantvillage_loss1/classifier_plantvillage_0_split
I0403 21:39:20.568272 12364 net.cpp:148] Top shape: 24 38 (912)
I0403 21:39:20.568289 12364 net.cpp:148] Top shape: 24 38 (912)
I0403 21:39:20.568303 12364 net.cpp:148] Top shape: 24 38 (912)
I0403 21:39:20.568318 12364 net.cpp:156] Memory required for data: 946203936
I0403 21:39:20.568333 12364 layer_factory.hpp:77] Creating layer inception_4b/1x1
I0403 21:39:20.568358 12364 net.cpp:91] Creating Layer inception_4b/1x1
I0403 21:39:20.568392 12364 net.cpp:425] inception_4b/1x1 <- inception_4a/output_inception_4a/output_0_split_1
I0403 21:39:20.568411 12364 net.cpp:399] inception_4b/1x1 -> inception_4b/1x1
I0403 21:39:20.569974 12364 net.cpp:141] Setting up inception_4b/1x1
I0403 21:39:20.570003 12364 net.cpp:148] Top shape: 24 160 14 14 (752640)
I0403 21:39:20.570019 12364 net.cpp:156] Memory required for data: 949214496
I0403 21:39:20.570036 12364 layer_factory.hpp:77] Creating layer inception_4b/relu_1x1
I0403 21:39:20.570068 12364 net.cpp:91] Creating Layer inception_4b/relu_1x1
I0403 21:39:20.570085 12364 net.cpp:425] inception_4b/relu_1x1 <- inception_4b/1x1
I0403 21:39:20.570102 12364 net.cpp:386] inception_4b/relu_1x1 -> inception_4b/1x1 (in-place)
I0403 21:39:20.570286 12364 net.cpp:141] Setting up inception_4b/relu_1x1
I0403 21:39:20.570312 12364 net.cpp:148] Top shape: 24 160 14 14 (752640)
I0403 21:39:20.570327 12364 net.cpp:156] Memory required for data: 952225056
I0403 21:39:20.570341 12364 layer_factory.hpp:77] Creating layer inception_4b/3x3_reduce
I0403 21:39:20.570376 12364 net.cpp:91] Creating Layer inception_4b/3x3_reduce
I0403 21:39:20.570394 12364 net.cpp:425] inception_4b/3x3_reduce <- inception_4a/output_inception_4a/output_0_split_2
I0403 21:39:20.570416 12364 net.cpp:399] inception_4b/3x3_reduce -> inception_4b/3x3_reduce
I0403 21:39:20.571712 12364 net.cpp:141] Setting up inception_4b/3x3_reduce
I0403 21:39:20.571738 12364 net.cpp:148] Top shape: 24 112 14 14 (526848)
I0403 21:39:20.571753 12364 net.cpp:156] Memory required for data: 954332448
I0403 21:39:20.571771 12364 layer_factory.hpp:77] Creating layer inception_4b/relu_3x3_reduce
I0403 21:39:20.571789 12364 net.cpp:91] Creating Layer inception_4b/relu_3x3_reduce
I0403 21:39:20.571805 12364 net.cpp:425] inception_4b/relu_3x3_reduce <- inception_4b/3x3_reduce
I0403 21:39:20.571825 12364 net.cpp:386] inception_4b/relu_3x3_reduce -> inception_4b/3x3_reduce (in-place)
I0403 21:39:20.572093 12364 net.cpp:141] Setting up inception_4b/relu_3x3_reduce
I0403 21:39:20.572119 12364 net.cpp:148] Top shape: 24 112 14 14 (526848)
I0403 21:39:20.572134 12364 net.cpp:156] Memory required for data: 956439840
I0403 21:39:20.572149 12364 layer_factory.hpp:77] Creating layer inception_4b/3x3
I0403 21:39:20.572171 12364 net.cpp:91] Creating Layer inception_4b/3x3
I0403 21:39:20.572190 12364 net.cpp:425] inception_4b/3x3 <- inception_4b/3x3_reduce
I0403 21:39:20.572219 12364 net.cpp:399] inception_4b/3x3 -> inception_4b/3x3
I0403 21:39:20.575141 12364 net.cpp:141] Setting up inception_4b/3x3
I0403 21:39:20.575170 12364 net.cpp:148] Top shape: 24 224 14 14 (1053696)
I0403 21:39:20.575186 12364 net.cpp:156] Memory required for data: 960654624
I0403 21:39:20.575204 12364 layer_factory.hpp:77] Creating layer inception_4b/relu_3x3
I0403 21:39:20.575229 12364 net.cpp:91] Creating Layer inception_4b/relu_3x3
I0403 21:39:20.575248 12364 net.cpp:425] inception_4b/relu_3x3 <- inception_4b/3x3
I0403 21:39:20.575264 12364 net.cpp:386] inception_4b/relu_3x3 -> inception_4b/3x3 (in-place)
I0403 21:39:20.575439 12364 net.cpp:141] Setting up inception_4b/relu_3x3
I0403 21:39:20.575467 12364 net.cpp:148] Top shape: 24 224 14 14 (1053696)
I0403 21:39:20.575482 12364 net.cpp:156] Memory required for data: 964869408
I0403 21:39:20.575497 12364 layer_factory.hpp:77] Creating layer inception_4b/5x5_reduce
I0403 21:39:20.575517 12364 net.cpp:91] Creating Layer inception_4b/5x5_reduce
I0403 21:39:20.575534 12364 net.cpp:425] inception_4b/5x5_reduce <- inception_4a/output_inception_4a/output_0_split_3
I0403 21:39:20.575556 12364 net.cpp:399] inception_4b/5x5_reduce -> inception_4b/5x5_reduce
I0403 21:39:20.576613 12364 net.cpp:141] Setting up inception_4b/5x5_reduce
I0403 21:39:20.576643 12364 net.cpp:148] Top shape: 24 24 14 14 (112896)
I0403 21:39:20.576659 12364 net.cpp:156] Memory required for data: 965320992
I0403 21:39:20.576678 12364 layer_factory.hpp:77] Creating layer inception_4b/relu_5x5_reduce
I0403 21:39:20.576695 12364 net.cpp:91] Creating Layer inception_4b/relu_5x5_reduce
I0403 21:39:20.576725 12364 net.cpp:425] inception_4b/relu_5x5_reduce <- inception_4b/5x5_reduce
I0403 21:39:20.576743 12364 net.cpp:386] inception_4b/relu_5x5_reduce -> inception_4b/5x5_reduce (in-place)
I0403 21:39:20.576926 12364 net.cpp:141] Setting up inception_4b/relu_5x5_reduce
I0403 21:39:20.576951 12364 net.cpp:148] Top shape: 24 24 14 14 (112896)
I0403 21:39:20.576967 12364 net.cpp:156] Memory required for data: 965772576
I0403 21:39:20.576980 12364 layer_factory.hpp:77] Creating layer inception_4b/5x5
I0403 21:39:20.577003 12364 net.cpp:91] Creating Layer inception_4b/5x5
I0403 21:39:20.577019 12364 net.cpp:425] inception_4b/5x5 <- inception_4b/5x5_reduce
I0403 21:39:20.577041 12364 net.cpp:399] inception_4b/5x5 -> inception_4b/5x5
I0403 21:39:20.578238 12364 net.cpp:141] Setting up inception_4b/5x5
I0403 21:39:20.578265 12364 net.cpp:148] Top shape: 24 64 14 14 (301056)
I0403 21:39:20.578280 12364 net.cpp:156] Memory required for data: 966976800
I0403 21:39:20.578299 12364 layer_factory.hpp:77] Creating layer inception_4b/relu_5x5
I0403 21:39:20.578318 12364 net.cpp:91] Creating Layer inception_4b/relu_5x5
I0403 21:39:20.578336 12364 net.cpp:425] inception_4b/relu_5x5 <- inception_4b/5x5
I0403 21:39:20.578352 12364 net.cpp:386] inception_4b/relu_5x5 -> inception_4b/5x5 (in-place)
I0403 21:39:20.578626 12364 net.cpp:141] Setting up inception_4b/relu_5x5
I0403 21:39:20.578651 12364 net.cpp:148] Top shape: 24 64 14 14 (301056)
I0403 21:39:20.578665 12364 net.cpp:156] Memory required for data: 968181024
I0403 21:39:20.578680 12364 layer_factory.hpp:77] Creating layer inception_4b/pool
I0403 21:39:20.578702 12364 net.cpp:91] Creating Layer inception_4b/pool
I0403 21:39:20.578721 12364 net.cpp:425] inception_4b/pool <- inception_4a/output_inception_4a/output_0_split_4
I0403 21:39:20.578739 12364 net.cpp:399] inception_4b/pool -> inception_4b/pool
I0403 21:39:20.578804 12364 net.cpp:141] Setting up inception_4b/pool
I0403 21:39:20.578827 12364 net.cpp:148] Top shape: 24 512 14 14 (2408448)
I0403 21:39:20.578841 12364 net.cpp:156] Memory required for data: 977814816
I0403 21:39:20.578855 12364 layer_factory.hpp:77] Creating layer inception_4b/pool_proj
I0403 21:39:20.578877 12364 net.cpp:91] Creating Layer inception_4b/pool_proj
I0403 21:39:20.578896 12364 net.cpp:425] inception_4b/pool_proj <- inception_4b/pool
I0403 21:39:20.578917 12364 net.cpp:399] inception_4b/pool_proj -> inception_4b/pool_proj
I0403 21:39:20.580081 12364 net.cpp:141] Setting up inception_4b/pool_proj
I0403 21:39:20.580111 12364 net.cpp:148] Top shape: 24 64 14 14 (301056)
I0403 21:39:20.580127 12364 net.cpp:156] Memory required for data: 979019040
I0403 21:39:20.580144 12364 layer_factory.hpp:77] Creating layer inception_4b/relu_pool_proj
I0403 21:39:20.580163 12364 net.cpp:91] Creating Layer inception_4b/relu_pool_proj
I0403 21:39:20.580179 12364 net.cpp:425] inception_4b/relu_pool_proj <- inception_4b/pool_proj
I0403 21:39:20.580199 12364 net.cpp:386] inception_4b/relu_pool_proj -> inception_4b/pool_proj (in-place)
I0403 21:39:20.580379 12364 net.cpp:141] Setting up inception_4b/relu_pool_proj
I0403 21:39:20.580404 12364 net.cpp:148] Top shape: 24 64 14 14 (301056)
I0403 21:39:20.580417 12364 net.cpp:156] Memory required for data: 980223264
I0403 21:39:20.580433 12364 layer_factory.hpp:77] Creating layer inception_4b/output
I0403 21:39:20.580451 12364 net.cpp:91] Creating Layer inception_4b/output
I0403 21:39:20.580467 12364 net.cpp:425] inception_4b/output <- inception_4b/1x1
I0403 21:39:20.580483 12364 net.cpp:425] inception_4b/output <- inception_4b/3x3
I0403 21:39:20.580499 12364 net.cpp:425] inception_4b/output <- inception_4b/5x5
I0403 21:39:20.580514 12364 net.cpp:425] inception_4b/output <- inception_4b/pool_proj
I0403 21:39:20.580533 12364 net.cpp:399] inception_4b/output -> inception_4b/output
I0403 21:39:20.580579 12364 net.cpp:141] Setting up inception_4b/output
I0403 21:39:20.580608 12364 net.cpp:148] Top shape: 24 512 14 14 (2408448)
I0403 21:39:20.580623 12364 net.cpp:156] Memory required for data: 989857056
I0403 21:39:20.580651 12364 layer_factory.hpp:77] Creating layer inception_4b/output_inception_4b/output_0_split
I0403 21:39:20.580669 12364 net.cpp:91] Creating Layer inception_4b/output_inception_4b/output_0_split
I0403 21:39:20.580684 12364 net.cpp:425] inception_4b/output_inception_4b/output_0_split <- inception_4b/output
I0403 21:39:20.580703 12364 net.cpp:399] inception_4b/output_inception_4b/output_0_split -> inception_4b/output_inception_4b/output_0_split_0
I0403 21:39:20.580724 12364 net.cpp:399] inception_4b/output_inception_4b/output_0_split -> inception_4b/output_inception_4b/output_0_split_1
I0403 21:39:20.580746 12364 net.cpp:399] inception_4b/output_inception_4b/output_0_split -> inception_4b/output_inception_4b/output_0_split_2
I0403 21:39:20.580766 12364 net.cpp:399] inception_4b/output_inception_4b/output_0_split -> inception_4b/output_inception_4b/output_0_split_3
I0403 21:39:20.580849 12364 net.cpp:141] Setting up inception_4b/output_inception_4b/output_0_split
I0403 21:39:20.580873 12364 net.cpp:148] Top shape: 24 512 14 14 (2408448)
I0403 21:39:20.580889 12364 net.cpp:148] Top shape: 24 512 14 14 (2408448)
I0403 21:39:20.580905 12364 net.cpp:148] Top shape: 24 512 14 14 (2408448)
I0403 21:39:20.580921 12364 net.cpp:148] Top shape: 24 512 14 14 (2408448)
I0403 21:39:20.580935 12364 net.cpp:156] Memory required for data: 1028392224
I0403 21:39:20.580948 12364 layer_factory.hpp:77] Creating layer inception_4c/1x1
I0403 21:39:20.580970 12364 net.cpp:91] Creating Layer inception_4c/1x1
I0403 21:39:20.580988 12364 net.cpp:425] inception_4c/1x1 <- inception_4b/output_inception_4b/output_0_split_0
I0403 21:39:20.581007 12364 net.cpp:399] inception_4c/1x1 -> inception_4c/1x1
I0403 21:39:20.582439 12364 net.cpp:141] Setting up inception_4c/1x1
I0403 21:39:20.582468 12364 net.cpp:148] Top shape: 24 128 14 14 (602112)
I0403 21:39:20.582482 12364 net.cpp:156] Memory required for data: 1030800672
I0403 21:39:20.582501 12364 layer_factory.hpp:77] Creating layer inception_4c/relu_1x1
I0403 21:39:20.582518 12364 net.cpp:91] Creating Layer inception_4c/relu_1x1
I0403 21:39:20.582535 12364 net.cpp:425] inception_4c/relu_1x1 <- inception_4c/1x1
I0403 21:39:20.582556 12364 net.cpp:386] inception_4c/relu_1x1 -> inception_4c/1x1 (in-place)
I0403 21:39:20.582729 12364 net.cpp:141] Setting up inception_4c/relu_1x1
I0403 21:39:20.582754 12364 net.cpp:148] Top shape: 24 128 14 14 (602112)
I0403 21:39:20.582769 12364 net.cpp:156] Memory required for data: 1033209120
I0403 21:39:20.582783 12364 layer_factory.hpp:77] Creating layer inception_4c/3x3_reduce
I0403 21:39:20.582804 12364 net.cpp:91] Creating Layer inception_4c/3x3_reduce
I0403 21:39:20.582823 12364 net.cpp:425] inception_4c/3x3_reduce <- inception_4b/output_inception_4b/output_0_split_1
I0403 21:39:20.582844 12364 net.cpp:399] inception_4c/3x3_reduce -> inception_4c/3x3_reduce
I0403 21:39:20.584759 12364 net.cpp:141] Setting up inception_4c/3x3_reduce
I0403 21:39:20.584790 12364 net.cpp:148] Top shape: 24 128 14 14 (602112)
I0403 21:39:20.584806 12364 net.cpp:156] Memory required for data: 1035617568
I0403 21:39:20.584825 12364 layer_factory.hpp:77] Creating layer inception_4c/relu_3x3_reduce
I0403 21:39:20.584843 12364 net.cpp:91] Creating Layer inception_4c/relu_3x3_reduce
I0403 21:39:20.584861 12364 net.cpp:425] inception_4c/relu_3x3_reduce <- inception_4c/3x3_reduce
I0403 21:39:20.584877 12364 net.cpp:386] inception_4c/relu_3x3_reduce -> inception_4c/3x3_reduce (in-place)
I0403 21:39:20.585153 12364 net.cpp:141] Setting up inception_4c/relu_3x3_reduce
I0403 21:39:20.585181 12364 net.cpp:148] Top shape: 24 128 14 14 (602112)
I0403 21:39:20.585198 12364 net.cpp:156] Memory required for data: 1038026016
I0403 21:39:20.585232 12364 layer_factory.hpp:77] Creating layer inception_4c/3x3
I0403 21:39:20.585254 12364 net.cpp:91] Creating Layer inception_4c/3x3
I0403 21:39:20.585271 12364 net.cpp:425] inception_4c/3x3 <- inception_4c/3x3_reduce
I0403 21:39:20.585294 12364 net.cpp:399] inception_4c/3x3 -> inception_4c/3x3
I0403 21:39:20.588906 12364 net.cpp:141] Setting up inception_4c/3x3
I0403 21:39:20.588953 12364 net.cpp:148] Top shape: 24 256 14 14 (1204224)
I0403 21:39:20.588969 12364 net.cpp:156] Memory required for data: 1042842912
I0403 21:39:20.589004 12364 layer_factory.hpp:77] Creating layer inception_4c/relu_3x3
I0403 21:39:20.589025 12364 net.cpp:91] Creating Layer inception_4c/relu_3x3
I0403 21:39:20.589041 12364 net.cpp:425] inception_4c/relu_3x3 <- inception_4c/3x3
I0403 21:39:20.589061 12364 net.cpp:386] inception_4c/relu_3x3 -> inception_4c/3x3 (in-place)
I0403 21:39:20.589247 12364 net.cpp:141] Setting up inception_4c/relu_3x3
I0403 21:39:20.589277 12364 net.cpp:148] Top shape: 24 256 14 14 (1204224)
I0403 21:39:20.589293 12364 net.cpp:156] Memory required for data: 1047659808
I0403 21:39:20.589308 12364 layer_factory.hpp:77] Creating layer inception_4c/5x5_reduce
I0403 21:39:20.589332 12364 net.cpp:91] Creating Layer inception_4c/5x5_reduce
I0403 21:39:20.589351 12364 net.cpp:425] inception_4c/5x5_reduce <- inception_4b/output_inception_4b/output_0_split_2
I0403 21:39:20.589370 12364 net.cpp:399] inception_4c/5x5_reduce -> inception_4c/5x5_reduce
I0403 21:39:20.590471 12364 net.cpp:141] Setting up inception_4c/5x5_reduce
I0403 21:39:20.590502 12364 net.cpp:148] Top shape: 24 24 14 14 (112896)
I0403 21:39:20.590518 12364 net.cpp:156] Memory required for data: 1048111392
I0403 21:39:20.590538 12364 layer_factory.hpp:77] Creating layer inception_4c/relu_5x5_reduce
I0403 21:39:20.590555 12364 net.cpp:91] Creating Layer inception_4c/relu_5x5_reduce
I0403 21:39:20.590571 12364 net.cpp:425] inception_4c/relu_5x5_reduce <- inception_4c/5x5_reduce
I0403 21:39:20.590590 12364 net.cpp:386] inception_4c/relu_5x5_reduce -> inception_4c/5x5_reduce (in-place)
I0403 21:39:20.590781 12364 net.cpp:141] Setting up inception_4c/relu_5x5_reduce
I0403 21:39:20.590807 12364 net.cpp:148] Top shape: 24 24 14 14 (112896)
I0403 21:39:20.590822 12364 net.cpp:156] Memory required for data: 1048562976
I0403 21:39:20.590837 12364 layer_factory.hpp:77] Creating layer inception_4c/5x5
I0403 21:39:20.590859 12364 net.cpp:91] Creating Layer inception_4c/5x5
I0403 21:39:20.590878 12364 net.cpp:425] inception_4c/5x5 <- inception_4c/5x5_reduce
I0403 21:39:20.590899 12364 net.cpp:399] inception_4c/5x5 -> inception_4c/5x5
I0403 21:39:20.592155 12364 net.cpp:141] Setting up inception_4c/5x5
I0403 21:39:20.592183 12364 net.cpp:148] Top shape: 24 64 14 14 (301056)
I0403 21:39:20.592198 12364 net.cpp:156] Memory required for data: 1049767200
I0403 21:39:20.592228 12364 layer_factory.hpp:77] Creating layer inception_4c/relu_5x5
I0403 21:39:20.592249 12364 net.cpp:91] Creating Layer inception_4c/relu_5x5
I0403 21:39:20.592267 12364 net.cpp:425] inception_4c/relu_5x5 <- inception_4c/5x5
I0403 21:39:20.592288 12364 net.cpp:386] inception_4c/relu_5x5 -> inception_4c/5x5 (in-place)
I0403 21:39:20.592592 12364 net.cpp:141] Setting up inception_4c/relu_5x5
I0403 21:39:20.592617 12364 net.cpp:148] Top shape: 24 64 14 14 (301056)
I0403 21:39:20.592633 12364 net.cpp:156] Memory required for data: 1050971424
I0403 21:39:20.592646 12364 layer_factory.hpp:77] Creating layer inception_4c/pool
I0403 21:39:20.592664 12364 net.cpp:91] Creating Layer inception_4c/pool
I0403 21:39:20.592681 12364 net.cpp:425] inception_4c/pool <- inception_4b/output_inception_4b/output_0_split_3
I0403 21:39:20.592702 12364 net.cpp:399] inception_4c/pool -> inception_4c/pool
I0403 21:39:20.592767 12364 net.cpp:141] Setting up inception_4c/pool
I0403 21:39:20.592789 12364 net.cpp:148] Top shape: 24 512 14 14 (2408448)
I0403 21:39:20.592804 12364 net.cpp:156] Memory required for data: 1060605216
I0403 21:39:20.592819 12364 layer_factory.hpp:77] Creating layer inception_4c/pool_proj
I0403 21:39:20.592844 12364 net.cpp:91] Creating Layer inception_4c/pool_proj
I0403 21:39:20.592861 12364 net.cpp:425] inception_4c/pool_proj <- inception_4c/pool
I0403 21:39:20.592880 12364 net.cpp:399] inception_4c/pool_proj -> inception_4c/pool_proj
I0403 21:39:20.594071 12364 net.cpp:141] Setting up inception_4c/pool_proj
I0403 21:39:20.594100 12364 net.cpp:148] Top shape: 24 64 14 14 (301056)
I0403 21:39:20.594130 12364 net.cpp:156] Memory required for data: 1061809440
I0403 21:39:20.594148 12364 layer_factory.hpp:77] Creating layer inception_4c/relu_pool_proj
I0403 21:39:20.594167 12364 net.cpp:91] Creating Layer inception_4c/relu_pool_proj
I0403 21:39:20.594182 12364 net.cpp:425] inception_4c/relu_pool_proj <- inception_4c/pool_proj
I0403 21:39:20.594202 12364 net.cpp:386] inception_4c/relu_pool_proj -> inception_4c/pool_proj (in-place)
I0403 21:39:20.594388 12364 net.cpp:141] Setting up inception_4c/relu_pool_proj
I0403 21:39:20.594414 12364 net.cpp:148] Top shape: 24 64 14 14 (301056)
I0403 21:39:20.594429 12364 net.cpp:156] Memory required for data: 1063013664
I0403 21:39:20.594442 12364 layer_factory.hpp:77] Creating layer inception_4c/output
I0403 21:39:20.594460 12364 net.cpp:91] Creating Layer inception_4c/output
I0403 21:39:20.594475 12364 net.cpp:425] inception_4c/output <- inception_4c/1x1
I0403 21:39:20.594491 12364 net.cpp:425] inception_4c/output <- inception_4c/3x3
I0403 21:39:20.594506 12364 net.cpp:425] inception_4c/output <- inception_4c/5x5
I0403 21:39:20.594522 12364 net.cpp:425] inception_4c/output <- inception_4c/pool_proj
I0403 21:39:20.594542 12364 net.cpp:399] inception_4c/output -> inception_4c/output
I0403 21:39:20.594586 12364 net.cpp:141] Setting up inception_4c/output
I0403 21:39:20.594614 12364 net.cpp:148] Top shape: 24 512 14 14 (2408448)
I0403 21:39:20.594629 12364 net.cpp:156] Memory required for data: 1072647456
I0403 21:39:20.594643 12364 layer_factory.hpp:77] Creating layer inception_4c/output_inception_4c/output_0_split
I0403 21:39:20.594660 12364 net.cpp:91] Creating Layer inception_4c/output_inception_4c/output_0_split
I0403 21:39:20.594676 12364 net.cpp:425] inception_4c/output_inception_4c/output_0_split <- inception_4c/output
I0403 21:39:20.594693 12364 net.cpp:399] inception_4c/output_inception_4c/output_0_split -> inception_4c/output_inception_4c/output_0_split_0
I0403 21:39:20.594712 12364 net.cpp:399] inception_4c/output_inception_4c/output_0_split -> inception_4c/output_inception_4c/output_0_split_1
I0403 21:39:20.594734 12364 net.cpp:399] inception_4c/output_inception_4c/output_0_split -> inception_4c/output_inception_4c/output_0_split_2
I0403 21:39:20.594755 12364 net.cpp:399] inception_4c/output_inception_4c/output_0_split -> inception_4c/output_inception_4c/output_0_split_3
I0403 21:39:20.594841 12364 net.cpp:141] Setting up inception_4c/output_inception_4c/output_0_split
I0403 21:39:20.594863 12364 net.cpp:148] Top shape: 24 512 14 14 (2408448)
I0403 21:39:20.594879 12364 net.cpp:148] Top shape: 24 512 14 14 (2408448)
I0403 21:39:20.594895 12364 net.cpp:148] Top shape: 24 512 14 14 (2408448)
I0403 21:39:20.594910 12364 net.cpp:148] Top shape: 24 512 14 14 (2408448)
I0403 21:39:20.594924 12364 net.cpp:156] Memory required for data: 1111182624
I0403 21:39:20.594938 12364 layer_factory.hpp:77] Creating layer inception_4d/1x1
I0403 21:39:20.594960 12364 net.cpp:91] Creating Layer inception_4d/1x1
I0403 21:39:20.594977 12364 net.cpp:425] inception_4d/1x1 <- inception_4c/output_inception_4c/output_0_split_0
I0403 21:39:20.595001 12364 net.cpp:399] inception_4d/1x1 -> inception_4d/1x1
I0403 21:39:20.596355 12364 net.cpp:141] Setting up inception_4d/1x1
I0403 21:39:20.596384 12364 net.cpp:148] Top shape: 24 112 14 14 (526848)
I0403 21:39:20.596400 12364 net.cpp:156] Memory required for data: 1113290016
I0403 21:39:20.596417 12364 layer_factory.hpp:77] Creating layer inception_4d/relu_1x1
I0403 21:39:20.596437 12364 net.cpp:91] Creating Layer inception_4d/relu_1x1
I0403 21:39:20.596453 12364 net.cpp:425] inception_4d/relu_1x1 <- inception_4d/1x1
I0403 21:39:20.596472 12364 net.cpp:386] inception_4d/relu_1x1 -> inception_4d/1x1 (in-place)
I0403 21:39:20.596653 12364 net.cpp:141] Setting up inception_4d/relu_1x1
I0403 21:39:20.596680 12364 net.cpp:148] Top shape: 24 112 14 14 (526848)
I0403 21:39:20.596696 12364 net.cpp:156] Memory required for data: 1115397408
I0403 21:39:20.596711 12364 layer_factory.hpp:77] Creating layer inception_4d/3x3_reduce
I0403 21:39:20.596747 12364 net.cpp:91] Creating Layer inception_4d/3x3_reduce
I0403 21:39:20.596765 12364 net.cpp:425] inception_4d/3x3_reduce <- inception_4c/output_inception_4c/output_0_split_1
I0403 21:39:20.596784 12364 net.cpp:399] inception_4d/3x3_reduce -> inception_4d/3x3_reduce
I0403 21:39:20.598263 12364 net.cpp:141] Setting up inception_4d/3x3_reduce
I0403 21:39:20.598289 12364 net.cpp:148] Top shape: 24 144 14 14 (677376)
I0403 21:39:20.598305 12364 net.cpp:156] Memory required for data: 1118106912
I0403 21:39:20.598323 12364 layer_factory.hpp:77] Creating layer inception_4d/relu_3x3_reduce
I0403 21:39:20.598343 12364 net.cpp:91] Creating Layer inception_4d/relu_3x3_reduce
I0403 21:39:20.598361 12364 net.cpp:425] inception_4d/relu_3x3_reduce <- inception_4d/3x3_reduce
I0403 21:39:20.598377 12364 net.cpp:386] inception_4d/relu_3x3_reduce -> inception_4d/3x3_reduce (in-place)
I0403 21:39:20.598659 12364 net.cpp:141] Setting up inception_4d/relu_3x3_reduce
I0403 21:39:20.598685 12364 net.cpp:148] Top shape: 24 144 14 14 (677376)
I0403 21:39:20.598701 12364 net.cpp:156] Memory required for data: 1120816416
I0403 21:39:20.598714 12364 layer_factory.hpp:77] Creating layer inception_4d/3x3
I0403 21:39:20.598737 12364 net.cpp:91] Creating Layer inception_4d/3x3
I0403 21:39:20.598755 12364 net.cpp:425] inception_4d/3x3 <- inception_4d/3x3_reduce
I0403 21:39:20.598778 12364 net.cpp:399] inception_4d/3x3 -> inception_4d/3x3
I0403 21:39:20.603023 12364 net.cpp:141] Setting up inception_4d/3x3
I0403 21:39:20.603049 12364 net.cpp:148] Top shape: 24 288 14 14 (1354752)
I0403 21:39:20.603065 12364 net.cpp:156] Memory required for data: 1126235424
I0403 21:39:20.603082 12364 layer_factory.hpp:77] Creating layer inception_4d/relu_3x3
I0403 21:39:20.603102 12364 net.cpp:91] Creating Layer inception_4d/relu_3x3
I0403 21:39:20.603118 12364 net.cpp:425] inception_4d/relu_3x3 <- inception_4d/3x3
I0403 21:39:20.603134 12364 net.cpp:386] inception_4d/relu_3x3 -> inception_4d/3x3 (in-place)
I0403 21:39:20.603320 12364 net.cpp:141] Setting up inception_4d/relu_3x3
I0403 21:39:20.603348 12364 net.cpp:148] Top shape: 24 288 14 14 (1354752)
I0403 21:39:20.603363 12364 net.cpp:156] Memory required for data: 1131654432
I0403 21:39:20.603379 12364 layer_factory.hpp:77] Creating layer inception_4d/5x5_reduce
I0403 21:39:20.603399 12364 net.cpp:91] Creating Layer inception_4d/5x5_reduce
I0403 21:39:20.603416 12364 net.cpp:425] inception_4d/5x5_reduce <- inception_4c/output_inception_4c/output_0_split_2
I0403 21:39:20.603435 12364 net.cpp:399] inception_4d/5x5_reduce -> inception_4d/5x5_reduce
I0403 21:39:20.604562 12364 net.cpp:141] Setting up inception_4d/5x5_reduce
I0403 21:39:20.604588 12364 net.cpp:148] Top shape: 24 32 14 14 (150528)
I0403 21:39:20.604604 12364 net.cpp:156] Memory required for data: 1132256544
I0403 21:39:20.604622 12364 layer_factory.hpp:77] Creating layer inception_4d/relu_5x5_reduce
I0403 21:39:20.604641 12364 net.cpp:91] Creating Layer inception_4d/relu_5x5_reduce
I0403 21:39:20.604657 12364 net.cpp:425] inception_4d/relu_5x5_reduce <- inception_4d/5x5_reduce
I0403 21:39:20.604676 12364 net.cpp:386] inception_4d/relu_5x5_reduce -> inception_4d/5x5_reduce (in-place)
I0403 21:39:20.604853 12364 net.cpp:141] Setting up inception_4d/relu_5x5_reduce
I0403 21:39:20.604881 12364 net.cpp:148] Top shape: 24 32 14 14 (150528)
I0403 21:39:20.604897 12364 net.cpp:156] Memory required for data: 1132858656
I0403 21:39:20.604910 12364 layer_factory.hpp:77] Creating layer inception_4d/5x5
I0403 21:39:20.604931 12364 net.cpp:91] Creating Layer inception_4d/5x5
I0403 21:39:20.604948 12364 net.cpp:425] inception_4d/5x5 <- inception_4d/5x5_reduce
I0403 21:39:20.604966 12364 net.cpp:399] inception_4d/5x5 -> inception_4d/5x5
I0403 21:39:20.606396 12364 net.cpp:141] Setting up inception_4d/5x5
I0403 21:39:20.606422 12364 net.cpp:148] Top shape: 24 64 14 14 (301056)
I0403 21:39:20.606437 12364 net.cpp:156] Memory required for data: 1134062880
I0403 21:39:20.606457 12364 layer_factory.hpp:77] Creating layer inception_4d/relu_5x5
I0403 21:39:20.606488 12364 net.cpp:91] Creating Layer inception_4d/relu_5x5
I0403 21:39:20.606506 12364 net.cpp:425] inception_4d/relu_5x5 <- inception_4d/5x5
I0403 21:39:20.606525 12364 net.cpp:386] inception_4d/relu_5x5 -> inception_4d/5x5 (in-place)
I0403 21:39:20.606817 12364 net.cpp:141] Setting up inception_4d/relu_5x5
I0403 21:39:20.606842 12364 net.cpp:148] Top shape: 24 64 14 14 (301056)
I0403 21:39:20.606858 12364 net.cpp:156] Memory required for data: 1135267104
I0403 21:39:20.606873 12364 layer_factory.hpp:77] Creating layer inception_4d/pool
I0403 21:39:20.606890 12364 net.cpp:91] Creating Layer inception_4d/pool
I0403 21:39:20.606905 12364 net.cpp:425] inception_4d/pool <- inception_4c/output_inception_4c/output_0_split_3
I0403 21:39:20.606928 12364 net.cpp:399] inception_4d/pool -> inception_4d/pool
I0403 21:39:20.606992 12364 net.cpp:141] Setting up inception_4d/pool
I0403 21:39:20.607014 12364 net.cpp:148] Top shape: 24 512 14 14 (2408448)
I0403 21:39:20.607028 12364 net.cpp:156] Memory required for data: 1144900896
I0403 21:39:20.607043 12364 layer_factory.hpp:77] Creating layer inception_4d/pool_proj
I0403 21:39:20.607065 12364 net.cpp:91] Creating Layer inception_4d/pool_proj
I0403 21:39:20.607082 12364 net.cpp:425] inception_4d/pool_proj <- inception_4d/pool
I0403 21:39:20.607100 12364 net.cpp:399] inception_4d/pool_proj -> inception_4d/pool_proj
I0403 21:39:20.608822 12364 net.cpp:141] Setting up inception_4d/pool_proj
I0403 21:39:20.608850 12364 net.cpp:148] Top shape: 24 64 14 14 (301056)
I0403 21:39:20.608865 12364 net.cpp:156] Memory required for data: 1146105120
I0403 21:39:20.608883 12364 layer_factory.hpp:77] Creating layer inception_4d/relu_pool_proj
I0403 21:39:20.608903 12364 net.cpp:91] Creating Layer inception_4d/relu_pool_proj
I0403 21:39:20.608919 12364 net.cpp:425] inception_4d/relu_pool_proj <- inception_4d/pool_proj
I0403 21:39:20.608935 12364 net.cpp:386] inception_4d/relu_pool_proj -> inception_4d/pool_proj (in-place)
I0403 21:39:20.609115 12364 net.cpp:141] Setting up inception_4d/relu_pool_proj
I0403 21:39:20.609141 12364 net.cpp:148] Top shape: 24 64 14 14 (301056)
I0403 21:39:20.609156 12364 net.cpp:156] Memory required for data: 1147309344
I0403 21:39:20.609171 12364 layer_factory.hpp:77] Creating layer inception_4d/output
I0403 21:39:20.609187 12364 net.cpp:91] Creating Layer inception_4d/output
I0403 21:39:20.609202 12364 net.cpp:425] inception_4d/output <- inception_4d/1x1
I0403 21:39:20.609225 12364 net.cpp:425] inception_4d/output <- inception_4d/3x3
I0403 21:39:20.609242 12364 net.cpp:425] inception_4d/output <- inception_4d/5x5
I0403 21:39:20.609258 12364 net.cpp:425] inception_4d/output <- inception_4d/pool_proj
I0403 21:39:20.609277 12364 net.cpp:399] inception_4d/output -> inception_4d/output
I0403 21:39:20.609323 12364 net.cpp:141] Setting up inception_4d/output
I0403 21:39:20.609344 12364 net.cpp:148] Top shape: 24 528 14 14 (2483712)
I0403 21:39:20.609359 12364 net.cpp:156] Memory required for data: 1157244192
I0403 21:39:20.609372 12364 layer_factory.hpp:77] Creating layer inception_4d/output_inception_4d/output_0_split
I0403 21:39:20.609392 12364 net.cpp:91] Creating Layer inception_4d/output_inception_4d/output_0_split
I0403 21:39:20.609408 12364 net.cpp:425] inception_4d/output_inception_4d/output_0_split <- inception_4d/output
I0403 21:39:20.609426 12364 net.cpp:399] inception_4d/output_inception_4d/output_0_split -> inception_4d/output_inception_4d/output_0_split_0
I0403 21:39:20.609444 12364 net.cpp:399] inception_4d/output_inception_4d/output_0_split -> inception_4d/output_inception_4d/output_0_split_1
I0403 21:39:20.609468 12364 net.cpp:399] inception_4d/output_inception_4d/output_0_split -> inception_4d/output_inception_4d/output_0_split_2
I0403 21:39:20.609488 12364 net.cpp:399] inception_4d/output_inception_4d/output_0_split -> inception_4d/output_inception_4d/output_0_split_3
I0403 21:39:20.609506 12364 net.cpp:399] inception_4d/output_inception_4d/output_0_split -> inception_4d/output_inception_4d/output_0_split_4
I0403 21:39:20.609602 12364 net.cpp:141] Setting up inception_4d/output_inception_4d/output_0_split
I0403 21:39:20.609637 12364 net.cpp:148] Top shape: 24 528 14 14 (2483712)
I0403 21:39:20.609652 12364 net.cpp:148] Top shape: 24 528 14 14 (2483712)
I0403 21:39:20.609668 12364 net.cpp:148] Top shape: 24 528 14 14 (2483712)
I0403 21:39:20.609681 12364 net.cpp:148] Top shape: 24 528 14 14 (2483712)
I0403 21:39:20.609697 12364 net.cpp:148] Top shape: 24 528 14 14 (2483712)
I0403 21:39:20.609711 12364 net.cpp:156] Memory required for data: 1206918432
I0403 21:39:20.609724 12364 layer_factory.hpp:77] Creating layer loss2/ave_pool
I0403 21:39:20.609747 12364 net.cpp:91] Creating Layer loss2/ave_pool
I0403 21:39:20.609763 12364 net.cpp:425] loss2/ave_pool <- inception_4d/output_inception_4d/output_0_split_0
I0403 21:39:20.609781 12364 net.cpp:399] loss2/ave_pool -> loss2/ave_pool
I0403 21:39:20.610076 12364 net.cpp:141] Setting up loss2/ave_pool
I0403 21:39:20.610101 12364 net.cpp:148] Top shape: 24 528 4 4 (202752)
I0403 21:39:20.610116 12364 net.cpp:156] Memory required for data: 1207729440
I0403 21:39:20.610131 12364 layer_factory.hpp:77] Creating layer loss2/conv
I0403 21:39:20.610152 12364 net.cpp:91] Creating Layer loss2/conv
I0403 21:39:20.610172 12364 net.cpp:425] loss2/conv <- loss2/ave_pool
I0403 21:39:20.610191 12364 net.cpp:399] loss2/conv -> loss2/conv
I0403 21:39:20.612030 12364 net.cpp:141] Setting up loss2/conv
I0403 21:39:20.612059 12364 net.cpp:148] Top shape: 24 128 4 4 (49152)
I0403 21:39:20.612076 12364 net.cpp:156] Memory required for data: 1207926048
I0403 21:39:20.612093 12364 layer_factory.hpp:77] Creating layer loss2/relu_conv
I0403 21:39:20.612112 12364 net.cpp:91] Creating Layer loss2/relu_conv
I0403 21:39:20.612128 12364 net.cpp:425] loss2/relu_conv <- loss2/conv
I0403 21:39:20.612145 12364 net.cpp:386] loss2/relu_conv -> loss2/conv (in-place)
I0403 21:39:20.612431 12364 net.cpp:141] Setting up loss2/relu_conv
I0403 21:39:20.612458 12364 net.cpp:148] Top shape: 24 128 4 4 (49152)
I0403 21:39:20.612473 12364 net.cpp:156] Memory required for data: 1208122656
I0403 21:39:20.612488 12364 layer_factory.hpp:77] Creating layer loss2/fc
I0403 21:39:20.612506 12364 net.cpp:91] Creating Layer loss2/fc
I0403 21:39:20.612524 12364 net.cpp:425] loss2/fc <- loss2/conv
I0403 21:39:20.612545 12364 net.cpp:399] loss2/fc -> loss2/fc
I0403 21:39:20.629613 12364 net.cpp:141] Setting up loss2/fc
I0403 21:39:20.629649 12364 net.cpp:148] Top shape: 24 1024 (24576)
I0403 21:39:20.629663 12364 net.cpp:156] Memory required for data: 1208220960
I0403 21:39:20.629681 12364 layer_factory.hpp:77] Creating layer loss2/relu_fc
I0403 21:39:20.629700 12364 net.cpp:91] Creating Layer loss2/relu_fc
I0403 21:39:20.629716 12364 net.cpp:425] loss2/relu_fc <- loss2/fc
I0403 21:39:20.629734 12364 net.cpp:386] loss2/relu_fc -> loss2/fc (in-place)
I0403 21:39:20.630019 12364 net.cpp:141] Setting up loss2/relu_fc
I0403 21:39:20.630043 12364 net.cpp:148] Top shape: 24 1024 (24576)
I0403 21:39:20.630058 12364 net.cpp:156] Memory required for data: 1208319264
I0403 21:39:20.630071 12364 layer_factory.hpp:77] Creating layer loss2/drop_fc
I0403 21:39:20.630091 12364 net.cpp:91] Creating Layer loss2/drop_fc
I0403 21:39:20.630107 12364 net.cpp:425] loss2/drop_fc <- loss2/fc
I0403 21:39:20.630125 12364 net.cpp:386] loss2/drop_fc -> loss2/fc (in-place)
I0403 21:39:20.630172 12364 net.cpp:141] Setting up loss2/drop_fc
I0403 21:39:20.630193 12364 net.cpp:148] Top shape: 24 1024 (24576)
I0403 21:39:20.630208 12364 net.cpp:156] Memory required for data: 1208417568
I0403 21:39:20.630226 12364 layer_factory.hpp:77] Creating layer loss2/classifier_plantvillage
I0403 21:39:20.630249 12364 net.cpp:91] Creating Layer loss2/classifier_plantvillage
I0403 21:39:20.630265 12364 net.cpp:425] loss2/classifier_plantvillage <- loss2/fc
I0403 21:39:20.630283 12364 net.cpp:399] loss2/classifier_plantvillage -> loss2/classifier_plantvillage
I0403 21:39:20.630667 12364 net.cpp:141] Setting up loss2/classifier_plantvillage
I0403 21:39:20.630692 12364 net.cpp:148] Top shape: 24 38 (912)
I0403 21:39:20.630707 12364 net.cpp:156] Memory required for data: 1208421216
I0403 21:39:20.630741 12364 layer_factory.hpp:77] Creating layer loss2/classifier_plantvillage_loss2/classifier_plantvillage_0_split
I0403 21:39:20.630760 12364 net.cpp:91] Creating Layer loss2/classifier_plantvillage_loss2/classifier_plantvillage_0_split
I0403 21:39:20.630775 12364 net.cpp:425] loss2/classifier_plantvillage_loss2/classifier_plantvillage_0_split <- loss2/classifier_plantvillage
I0403 21:39:20.630795 12364 net.cpp:399] loss2/classifier_plantvillage_loss2/classifier_plantvillage_0_split -> loss2/classifier_plantvillage_loss2/classifier_plantvillage_0_split_0
I0403 21:39:20.630815 12364 net.cpp:399] loss2/classifier_plantvillage_loss2/classifier_plantvillage_0_split -> loss2/classifier_plantvillage_loss2/classifier_plantvillage_0_split_1
I0403 21:39:20.630836 12364 net.cpp:399] loss2/classifier_plantvillage_loss2/classifier_plantvillage_0_split -> loss2/classifier_plantvillage_loss2/classifier_plantvillage_0_split_2
I0403 21:39:20.630908 12364 net.cpp:141] Setting up loss2/classifier_plantvillage_loss2/classifier_plantvillage_0_split
I0403 21:39:20.630934 12364 net.cpp:148] Top shape: 24 38 (912)
I0403 21:39:20.630949 12364 net.cpp:148] Top shape: 24 38 (912)
I0403 21:39:20.630964 12364 net.cpp:148] Top shape: 24 38 (912)
I0403 21:39:20.630977 12364 net.cpp:156] Memory required for data: 1208432160
I0403 21:39:20.630991 12364 layer_factory.hpp:77] Creating layer inception_4e/1x1
I0403 21:39:20.631011 12364 net.cpp:91] Creating Layer inception_4e/1x1
I0403 21:39:20.631026 12364 net.cpp:425] inception_4e/1x1 <- inception_4d/output_inception_4d/output_0_split_1
I0403 21:39:20.631044 12364 net.cpp:399] inception_4e/1x1 -> inception_4e/1x1
I0403 21:39:20.632781 12364 net.cpp:141] Setting up inception_4e/1x1
I0403 21:39:20.632807 12364 net.cpp:148] Top shape: 24 256 14 14 (1204224)
I0403 21:39:20.632822 12364 net.cpp:156] Memory required for data: 1213249056
I0403 21:39:20.632840 12364 layer_factory.hpp:77] Creating layer inception_4e/relu_1x1
I0403 21:39:20.632858 12364 net.cpp:91] Creating Layer inception_4e/relu_1x1
I0403 21:39:20.632872 12364 net.cpp:425] inception_4e/relu_1x1 <- inception_4e/1x1
I0403 21:39:20.632890 12364 net.cpp:386] inception_4e/relu_1x1 -> inception_4e/1x1 (in-place)
I0403 21:39:20.633175 12364 net.cpp:141] Setting up inception_4e/relu_1x1
I0403 21:39:20.633200 12364 net.cpp:148] Top shape: 24 256 14 14 (1204224)
I0403 21:39:20.633220 12364 net.cpp:156] Memory required for data: 1218065952
I0403 21:39:20.633236 12364 layer_factory.hpp:77] Creating layer inception_4e/3x3_reduce
I0403 21:39:20.633258 12364 net.cpp:91] Creating Layer inception_4e/3x3_reduce
I0403 21:39:20.633275 12364 net.cpp:425] inception_4e/3x3_reduce <- inception_4d/output_inception_4d/output_0_split_2
I0403 21:39:20.633296 12364 net.cpp:399] inception_4e/3x3_reduce -> inception_4e/3x3_reduce
I0403 21:39:20.635362 12364 net.cpp:141] Setting up inception_4e/3x3_reduce
I0403 21:39:20.635392 12364 net.cpp:148] Top shape: 24 160 14 14 (752640)
I0403 21:39:20.635408 12364 net.cpp:156] Memory required for data: 1221076512
I0403 21:39:20.635426 12364 layer_factory.hpp:77] Creating layer inception_4e/relu_3x3_reduce
I0403 21:39:20.635443 12364 net.cpp:91] Creating Layer inception_4e/relu_3x3_reduce
I0403 21:39:20.635458 12364 net.cpp:425] inception_4e/relu_3x3_reduce <- inception_4e/3x3_reduce
I0403 21:39:20.635478 12364 net.cpp:386] inception_4e/relu_3x3_reduce -> inception_4e/3x3_reduce (in-place)
I0403 21:39:20.635658 12364 net.cpp:141] Setting up inception_4e/relu_3x3_reduce
I0403 21:39:20.635680 12364 net.cpp:148] Top shape: 24 160 14 14 (752640)
I0403 21:39:20.635695 12364 net.cpp:156] Memory required for data: 1224087072
I0403 21:39:20.635710 12364 layer_factory.hpp:77] Creating layer inception_4e/3x3
I0403 21:39:20.635731 12364 net.cpp:91] Creating Layer inception_4e/3x3
I0403 21:39:20.635748 12364 net.cpp:425] inception_4e/3x3 <- inception_4e/3x3_reduce
I0403 21:39:20.635769 12364 net.cpp:399] inception_4e/3x3 -> inception_4e/3x3
I0403 21:39:20.640611 12364 net.cpp:141] Setting up inception_4e/3x3
I0403 21:39:20.640651 12364 net.cpp:148] Top shape: 24 320 14 14 (1505280)
I0403 21:39:20.640667 12364 net.cpp:156] Memory required for data: 1230108192
I0403 21:39:20.640686 12364 layer_factory.hpp:77] Creating layer inception_4e/relu_3x3
I0403 21:39:20.640702 12364 net.cpp:91] Creating Layer inception_4e/relu_3x3
I0403 21:39:20.640717 12364 net.cpp:425] inception_4e/relu_3x3 <- inception_4e/3x3
I0403 21:39:20.640738 12364 net.cpp:386] inception_4e/relu_3x3 -> inception_4e/3x3 (in-place)
I0403 21:39:20.641026 12364 net.cpp:141] Setting up inception_4e/relu_3x3
I0403 21:39:20.641052 12364 net.cpp:148] Top shape: 24 320 14 14 (1505280)
I0403 21:39:20.641067 12364 net.cpp:156] Memory required for data: 1236129312
I0403 21:39:20.641082 12364 layer_factory.hpp:77] Creating layer inception_4e/5x5_reduce
I0403 21:39:20.641104 12364 net.cpp:91] Creating Layer inception_4e/5x5_reduce
I0403 21:39:20.641121 12364 net.cpp:425] inception_4e/5x5_reduce <- inception_4d/output_inception_4d/output_0_split_3
I0403 21:39:20.641144 12364 net.cpp:399] inception_4e/5x5_reduce -> inception_4e/5x5_reduce
I0403 21:39:20.642227 12364 net.cpp:141] Setting up inception_4e/5x5_reduce
I0403 21:39:20.642256 12364 net.cpp:148] Top shape: 24 32 14 14 (150528)
I0403 21:39:20.642271 12364 net.cpp:156] Memory required for data: 1236731424
I0403 21:39:20.642290 12364 layer_factory.hpp:77] Creating layer inception_4e/relu_5x5_reduce
I0403 21:39:20.642308 12364 net.cpp:91] Creating Layer inception_4e/relu_5x5_reduce
I0403 21:39:20.642323 12364 net.cpp:425] inception_4e/relu_5x5_reduce <- inception_4e/5x5_reduce
I0403 21:39:20.642348 12364 net.cpp:386] inception_4e/relu_5x5_reduce -> inception_4e/5x5_reduce (in-place)
I0403 21:39:20.642640 12364 net.cpp:141] Setting up inception_4e/relu_5x5_reduce
I0403 21:39:20.642668 12364 net.cpp:148] Top shape: 24 32 14 14 (150528)
I0403 21:39:20.642683 12364 net.cpp:156] Memory required for data: 1237333536
I0403 21:39:20.642698 12364 layer_factory.hpp:77] Creating layer inception_4e/5x5
I0403 21:39:20.642735 12364 net.cpp:91] Creating Layer inception_4e/5x5
I0403 21:39:20.642755 12364 net.cpp:425] inception_4e/5x5 <- inception_4e/5x5_reduce
I0403 21:39:20.642774 12364 net.cpp:399] inception_4e/5x5 -> inception_4e/5x5
I0403 21:39:20.644574 12364 net.cpp:141] Setting up inception_4e/5x5
I0403 21:39:20.644603 12364 net.cpp:148] Top shape: 24 128 14 14 (602112)
I0403 21:39:20.644619 12364 net.cpp:156] Memory required for data: 1239741984
I0403 21:39:20.644639 12364 layer_factory.hpp:77] Creating layer inception_4e/relu_5x5
I0403 21:39:20.644657 12364 net.cpp:91] Creating Layer inception_4e/relu_5x5
I0403 21:39:20.644675 12364 net.cpp:425] inception_4e/relu_5x5 <- inception_4e/5x5
I0403 21:39:20.644691 12364 net.cpp:386] inception_4e/relu_5x5 -> inception_4e/5x5 (in-place)
I0403 21:39:20.644889 12364 net.cpp:141] Setting up inception_4e/relu_5x5
I0403 21:39:20.644917 12364 net.cpp:148] Top shape: 24 128 14 14 (602112)
I0403 21:39:20.644932 12364 net.cpp:156] Memory required for data: 1242150432
I0403 21:39:20.644947 12364 layer_factory.hpp:77] Creating layer inception_4e/pool
I0403 21:39:20.644965 12364 net.cpp:91] Creating Layer inception_4e/pool
I0403 21:39:20.644980 12364 net.cpp:425] inception_4e/pool <- inception_4d/output_inception_4d/output_0_split_4
I0403 21:39:20.645001 12364 net.cpp:399] inception_4e/pool -> inception_4e/pool
I0403 21:39:20.645071 12364 net.cpp:141] Setting up inception_4e/pool
I0403 21:39:20.645097 12364 net.cpp:148] Top shape: 24 528 14 14 (2483712)
I0403 21:39:20.645113 12364 net.cpp:156] Memory required for data: 1252085280
I0403 21:39:20.645129 12364 layer_factory.hpp:77] Creating layer inception_4e/pool_proj
I0403 21:39:20.645153 12364 net.cpp:91] Creating Layer inception_4e/pool_proj
I0403 21:39:20.645170 12364 net.cpp:425] inception_4e/pool_proj <- inception_4e/pool
I0403 21:39:20.645190 12364 net.cpp:399] inception_4e/pool_proj -> inception_4e/pool_proj
I0403 21:39:20.646669 12364 net.cpp:141] Setting up inception_4e/pool_proj
I0403 21:39:20.646697 12364 net.cpp:148] Top shape: 24 128 14 14 (602112)
I0403 21:39:20.646726 12364 net.cpp:156] Memory required for data: 1254493728
I0403 21:39:20.646746 12364 layer_factory.hpp:77] Creating layer inception_4e/relu_pool_proj
I0403 21:39:20.646801 12364 net.cpp:91] Creating Layer inception_4e/relu_pool_proj
I0403 21:39:20.646819 12364 net.cpp:425] inception_4e/relu_pool_proj <- inception_4e/pool_proj
I0403 21:39:20.646836 12364 net.cpp:386] inception_4e/relu_pool_proj -> inception_4e/pool_proj (in-place)
I0403 21:39:20.647145 12364 net.cpp:141] Setting up inception_4e/relu_pool_proj
I0403 21:39:20.647169 12364 net.cpp:148] Top shape: 24 128 14 14 (602112)
I0403 21:39:20.647186 12364 net.cpp:156] Memory required for data: 1256902176
I0403 21:39:20.647200 12364 layer_factory.hpp:77] Creating layer inception_4e/output
I0403 21:39:20.647227 12364 net.cpp:91] Creating Layer inception_4e/output
I0403 21:39:20.647243 12364 net.cpp:425] inception_4e/output <- inception_4e/1x1
I0403 21:39:20.647259 12364 net.cpp:425] inception_4e/output <- inception_4e/3x3
I0403 21:39:20.647276 12364 net.cpp:425] inception_4e/output <- inception_4e/5x5
I0403 21:39:20.647292 12364 net.cpp:425] inception_4e/output <- inception_4e/pool_proj
I0403 21:39:20.647310 12364 net.cpp:399] inception_4e/output -> inception_4e/output
I0403 21:39:20.647361 12364 net.cpp:141] Setting up inception_4e/output
I0403 21:39:20.647384 12364 net.cpp:148] Top shape: 24 832 14 14 (3913728)
I0403 21:39:20.647398 12364 net.cpp:156] Memory required for data: 1272557088
I0403 21:39:20.647413 12364 layer_factory.hpp:77] Creating layer pool4/3x3_s2
I0403 21:39:20.647431 12364 net.cpp:91] Creating Layer pool4/3x3_s2
I0403 21:39:20.647447 12364 net.cpp:425] pool4/3x3_s2 <- inception_4e/output
I0403 21:39:20.647467 12364 net.cpp:399] pool4/3x3_s2 -> pool4/3x3_s2
I0403 21:39:20.647534 12364 net.cpp:141] Setting up pool4/3x3_s2
I0403 21:39:20.647559 12364 net.cpp:148] Top shape: 24 832 7 7 (978432)
I0403 21:39:20.647573 12364 net.cpp:156] Memory required for data: 1276470816
I0403 21:39:20.647588 12364 layer_factory.hpp:77] Creating layer pool4/3x3_s2_pool4/3x3_s2_0_split
I0403 21:39:20.647604 12364 net.cpp:91] Creating Layer pool4/3x3_s2_pool4/3x3_s2_0_split
I0403 21:39:20.647620 12364 net.cpp:425] pool4/3x3_s2_pool4/3x3_s2_0_split <- pool4/3x3_s2
I0403 21:39:20.647640 12364 net.cpp:399] pool4/3x3_s2_pool4/3x3_s2_0_split -> pool4/3x3_s2_pool4/3x3_s2_0_split_0
I0403 21:39:20.647661 12364 net.cpp:399] pool4/3x3_s2_pool4/3x3_s2_0_split -> pool4/3x3_s2_pool4/3x3_s2_0_split_1
I0403 21:39:20.647680 12364 net.cpp:399] pool4/3x3_s2_pool4/3x3_s2_0_split -> pool4/3x3_s2_pool4/3x3_s2_0_split_2
I0403 21:39:20.647701 12364 net.cpp:399] pool4/3x3_s2_pool4/3x3_s2_0_split -> pool4/3x3_s2_pool4/3x3_s2_0_split_3
I0403 21:39:20.647794 12364 net.cpp:141] Setting up pool4/3x3_s2_pool4/3x3_s2_0_split
I0403 21:39:20.647816 12364 net.cpp:148] Top shape: 24 832 7 7 (978432)
I0403 21:39:20.647833 12364 net.cpp:148] Top shape: 24 832 7 7 (978432)
I0403 21:39:20.647848 12364 net.cpp:148] Top shape: 24 832 7 7 (978432)
I0403 21:39:20.647863 12364 net.cpp:148] Top shape: 24 832 7 7 (978432)
I0403 21:39:20.647877 12364 net.cpp:156] Memory required for data: 1292125728
I0403 21:39:20.647891 12364 layer_factory.hpp:77] Creating layer inception_5a/1x1
I0403 21:39:20.647915 12364 net.cpp:91] Creating Layer inception_5a/1x1
I0403 21:39:20.647933 12364 net.cpp:425] inception_5a/1x1 <- pool4/3x3_s2_pool4/3x3_s2_0_split_0
I0403 21:39:20.647951 12364 net.cpp:399] inception_5a/1x1 -> inception_5a/1x1
I0403 21:39:20.650787 12364 net.cpp:141] Setting up inception_5a/1x1
I0403 21:39:20.650818 12364 net.cpp:148] Top shape: 24 256 7 7 (301056)
I0403 21:39:20.650835 12364 net.cpp:156] Memory required for data: 1293329952
I0403 21:39:20.650853 12364 layer_factory.hpp:77] Creating layer inception_5a/relu_1x1
I0403 21:39:20.650871 12364 net.cpp:91] Creating Layer inception_5a/relu_1x1
I0403 21:39:20.650887 12364 net.cpp:425] inception_5a/relu_1x1 <- inception_5a/1x1
I0403 21:39:20.650907 12364 net.cpp:386] inception_5a/relu_1x1 -> inception_5a/1x1 (in-place)
I0403 21:39:20.651219 12364 net.cpp:141] Setting up inception_5a/relu_1x1
I0403 21:39:20.651248 12364 net.cpp:148] Top shape: 24 256 7 7 (301056)
I0403 21:39:20.651264 12364 net.cpp:156] Memory required for data: 1294534176
I0403 21:39:20.651279 12364 layer_factory.hpp:77] Creating layer inception_5a/3x3_reduce
I0403 21:39:20.651301 12364 net.cpp:91] Creating Layer inception_5a/3x3_reduce
I0403 21:39:20.651319 12364 net.cpp:425] inception_5a/3x3_reduce <- pool4/3x3_s2_pool4/3x3_s2_0_split_1
I0403 21:39:20.651337 12364 net.cpp:399] inception_5a/3x3_reduce -> inception_5a/3x3_reduce
I0403 21:39:20.653802 12364 net.cpp:141] Setting up inception_5a/3x3_reduce
I0403 21:39:20.653832 12364 net.cpp:148] Top shape: 24 160 7 7 (188160)
I0403 21:39:20.653848 12364 net.cpp:156] Memory required for data: 1295286816
I0403 21:39:20.653867 12364 layer_factory.hpp:77] Creating layer inception_5a/relu_3x3_reduce
I0403 21:39:20.653888 12364 net.cpp:91] Creating Layer inception_5a/relu_3x3_reduce
I0403 21:39:20.653905 12364 net.cpp:425] inception_5a/relu_3x3_reduce <- inception_5a/3x3_reduce
I0403 21:39:20.653923 12364 net.cpp:386] inception_5a/relu_3x3_reduce -> inception_5a/3x3_reduce (in-place)
I0403 21:39:20.654111 12364 net.cpp:141] Setting up inception_5a/relu_3x3_reduce
I0403 21:39:20.654136 12364 net.cpp:148] Top shape: 24 160 7 7 (188160)
I0403 21:39:20.654150 12364 net.cpp:156] Memory required for data: 1296039456
I0403 21:39:20.654165 12364 layer_factory.hpp:77] Creating layer inception_5a/3x3
I0403 21:39:20.654189 12364 net.cpp:91] Creating Layer inception_5a/3x3
I0403 21:39:20.654211 12364 net.cpp:425] inception_5a/3x3 <- inception_5a/3x3_reduce
I0403 21:39:20.654233 12364 net.cpp:399] inception_5a/3x3 -> inception_5a/3x3
I0403 21:39:20.659253 12364 net.cpp:141] Setting up inception_5a/3x3
I0403 21:39:20.659284 12364 net.cpp:148] Top shape: 24 320 7 7 (376320)
I0403 21:39:20.659301 12364 net.cpp:156] Memory required for data: 1297544736
I0403 21:39:20.659317 12364 layer_factory.hpp:77] Creating layer inception_5a/relu_3x3
I0403 21:39:20.659334 12364 net.cpp:91] Creating Layer inception_5a/relu_3x3
I0403 21:39:20.659351 12364 net.cpp:425] inception_5a/relu_3x3 <- inception_5a/3x3
I0403 21:39:20.659369 12364 net.cpp:386] inception_5a/relu_3x3 -> inception_5a/3x3 (in-place)
I0403 21:39:20.659652 12364 net.cpp:141] Setting up inception_5a/relu_3x3
I0403 21:39:20.659680 12364 net.cpp:148] Top shape: 24 320 7 7 (376320)
I0403 21:39:20.659695 12364 net.cpp:156] Memory required for data: 1299050016
I0403 21:39:20.659709 12364 layer_factory.hpp:77] Creating layer inception_5a/5x5_reduce
I0403 21:39:20.659730 12364 net.cpp:91] Creating Layer inception_5a/5x5_reduce
I0403 21:39:20.659749 12364 net.cpp:425] inception_5a/5x5_reduce <- pool4/3x3_s2_pool4/3x3_s2_0_split_2
I0403 21:39:20.659768 12364 net.cpp:399] inception_5a/5x5_reduce -> inception_5a/5x5_reduce
I0403 21:39:20.660900 12364 net.cpp:141] Setting up inception_5a/5x5_reduce
I0403 21:39:20.660930 12364 net.cpp:148] Top shape: 24 32 7 7 (37632)
I0403 21:39:20.660945 12364 net.cpp:156] Memory required for data: 1299200544
I0403 21:39:20.660965 12364 layer_factory.hpp:77] Creating layer inception_5a/relu_5x5_reduce
I0403 21:39:20.660982 12364 net.cpp:91] Creating Layer inception_5a/relu_5x5_reduce
I0403 21:39:20.660998 12364 net.cpp:425] inception_5a/relu_5x5_reduce <- inception_5a/5x5_reduce
I0403 21:39:20.661017 12364 net.cpp:386] inception_5a/relu_5x5_reduce -> inception_5a/5x5_reduce (in-place)
I0403 21:39:20.661305 12364 net.cpp:141] Setting up inception_5a/relu_5x5_reduce
I0403 21:39:20.661332 12364 net.cpp:148] Top shape: 24 32 7 7 (37632)
I0403 21:39:20.661348 12364 net.cpp:156] Memory required for data: 1299351072
I0403 21:39:20.661362 12364 layer_factory.hpp:77] Creating layer inception_5a/5x5
I0403 21:39:20.661386 12364 net.cpp:91] Creating Layer inception_5a/5x5
I0403 21:39:20.661402 12364 net.cpp:425] inception_5a/5x5 <- inception_5a/5x5_reduce
I0403 21:39:20.661422 12364 net.cpp:399] inception_5a/5x5 -> inception_5a/5x5
I0403 21:39:20.663069 12364 net.cpp:141] Setting up inception_5a/5x5
I0403 21:39:20.663110 12364 net.cpp:148] Top shape: 24 128 7 7 (150528)
I0403 21:39:20.663126 12364 net.cpp:156] Memory required for data: 1299953184
I0403 21:39:20.663146 12364 layer_factory.hpp:77] Creating layer inception_5a/relu_5x5
I0403 21:39:20.663162 12364 net.cpp:91] Creating Layer inception_5a/relu_5x5
I0403 21:39:20.663178 12364 net.cpp:425] inception_5a/relu_5x5 <- inception_5a/5x5
I0403 21:39:20.663195 12364 net.cpp:386] inception_5a/relu_5x5 -> inception_5a/5x5 (in-place)
I0403 21:39:20.663388 12364 net.cpp:141] Setting up inception_5a/relu_5x5
I0403 21:39:20.663411 12364 net.cpp:148] Top shape: 24 128 7 7 (150528)
I0403 21:39:20.663425 12364 net.cpp:156] Memory required for data: 1300555296
I0403 21:39:20.663440 12364 layer_factory.hpp:77] Creating layer inception_5a/pool
I0403 21:39:20.663458 12364 net.cpp:91] Creating Layer inception_5a/pool
I0403 21:39:20.663473 12364 net.cpp:425] inception_5a/pool <- pool4/3x3_s2_pool4/3x3_s2_0_split_3
I0403 21:39:20.663493 12364 net.cpp:399] inception_5a/pool -> inception_5a/pool
I0403 21:39:20.663560 12364 net.cpp:141] Setting up inception_5a/pool
I0403 21:39:20.663586 12364 net.cpp:148] Top shape: 24 832 7 7 (978432)
I0403 21:39:20.663602 12364 net.cpp:156] Memory required for data: 1304469024
I0403 21:39:20.663616 12364 layer_factory.hpp:77] Creating layer inception_5a/pool_proj
I0403 21:39:20.663642 12364 net.cpp:91] Creating Layer inception_5a/pool_proj
I0403 21:39:20.663660 12364 net.cpp:425] inception_5a/pool_proj <- inception_5a/pool
I0403 21:39:20.663676 12364 net.cpp:399] inception_5a/pool_proj -> inception_5a/pool_proj
I0403 21:39:20.665899 12364 net.cpp:141] Setting up inception_5a/pool_proj
I0403 21:39:20.665927 12364 net.cpp:148] Top shape: 24 128 7 7 (150528)
I0403 21:39:20.665941 12364 net.cpp:156] Memory required for data: 1305071136
I0403 21:39:20.665959 12364 layer_factory.hpp:77] Creating layer inception_5a/relu_pool_proj
I0403 21:39:20.665978 12364 net.cpp:91] Creating Layer inception_5a/relu_pool_proj
I0403 21:39:20.665995 12364 net.cpp:425] inception_5a/relu_pool_proj <- inception_5a/pool_proj
I0403 21:39:20.666013 12364 net.cpp:386] inception_5a/relu_pool_proj -> inception_5a/pool_proj (in-place)
I0403 21:39:20.666306 12364 net.cpp:141] Setting up inception_5a/relu_pool_proj
I0403 21:39:20.666332 12364 net.cpp:148] Top shape: 24 128 7 7 (150528)
I0403 21:39:20.666345 12364 net.cpp:156] Memory required for data: 1305673248
I0403 21:39:20.666359 12364 layer_factory.hpp:77] Creating layer inception_5a/output
I0403 21:39:20.666378 12364 net.cpp:91] Creating Layer inception_5a/output
I0403 21:39:20.666395 12364 net.cpp:425] inception_5a/output <- inception_5a/1x1
I0403 21:39:20.666412 12364 net.cpp:425] inception_5a/output <- inception_5a/3x3
I0403 21:39:20.666429 12364 net.cpp:425] inception_5a/output <- inception_5a/5x5
I0403 21:39:20.666443 12364 net.cpp:425] inception_5a/output <- inception_5a/pool_proj
I0403 21:39:20.666460 12364 net.cpp:399] inception_5a/output -> inception_5a/output
I0403 21:39:20.666508 12364 net.cpp:141] Setting up inception_5a/output
I0403 21:39:20.666532 12364 net.cpp:148] Top shape: 24 832 7 7 (978432)
I0403 21:39:20.666545 12364 net.cpp:156] Memory required for data: 1309586976
I0403 21:39:20.666560 12364 layer_factory.hpp:77] Creating layer inception_5a/output_inception_5a/output_0_split
I0403 21:39:20.666577 12364 net.cpp:91] Creating Layer inception_5a/output_inception_5a/output_0_split
I0403 21:39:20.666591 12364 net.cpp:425] inception_5a/output_inception_5a/output_0_split <- inception_5a/output
I0403 21:39:20.666610 12364 net.cpp:399] inception_5a/output_inception_5a/output_0_split -> inception_5a/output_inception_5a/output_0_split_0
I0403 21:39:20.666630 12364 net.cpp:399] inception_5a/output_inception_5a/output_0_split -> inception_5a/output_inception_5a/output_0_split_1
I0403 21:39:20.666651 12364 net.cpp:399] inception_5a/output_inception_5a/output_0_split -> inception_5a/output_inception_5a/output_0_split_2
I0403 21:39:20.666671 12364 net.cpp:399] inception_5a/output_inception_5a/output_0_split -> inception_5a/output_inception_5a/output_0_split_3
I0403 21:39:20.666782 12364 net.cpp:141] Setting up inception_5a/output_inception_5a/output_0_split
I0403 21:39:20.666808 12364 net.cpp:148] Top shape: 24 832 7 7 (978432)
I0403 21:39:20.666824 12364 net.cpp:148] Top shape: 24 832 7 7 (978432)
I0403 21:39:20.666839 12364 net.cpp:148] Top shape: 24 832 7 7 (978432)
I0403 21:39:20.666854 12364 net.cpp:148] Top shape: 24 832 7 7 (978432)
I0403 21:39:20.666867 12364 net.cpp:156] Memory required for data: 1325241888
I0403 21:39:20.666882 12364 layer_factory.hpp:77] Creating layer inception_5b/1x1
I0403 21:39:20.666903 12364 net.cpp:91] Creating Layer inception_5b/1x1
I0403 21:39:20.666919 12364 net.cpp:425] inception_5b/1x1 <- inception_5a/output_inception_5a/output_0_split_0
I0403 21:39:20.666937 12364 net.cpp:399] inception_5b/1x1 -> inception_5b/1x1
I0403 21:39:20.670598 12364 net.cpp:141] Setting up inception_5b/1x1
I0403 21:39:20.670629 12364 net.cpp:148] Top shape: 24 384 7 7 (451584)
I0403 21:39:20.670644 12364 net.cpp:156] Memory required for data: 1327048224
I0403 21:39:20.670662 12364 layer_factory.hpp:77] Creating layer inception_5b/relu_1x1
I0403 21:39:20.670681 12364 net.cpp:91] Creating Layer inception_5b/relu_1x1
I0403 21:39:20.670697 12364 net.cpp:425] inception_5b/relu_1x1 <- inception_5b/1x1
I0403 21:39:20.670713 12364 net.cpp:386] inception_5b/relu_1x1 -> inception_5b/1x1 (in-place)
I0403 21:39:20.671003 12364 net.cpp:141] Setting up inception_5b/relu_1x1
I0403 21:39:20.671028 12364 net.cpp:148] Top shape: 24 384 7 7 (451584)
I0403 21:39:20.671044 12364 net.cpp:156] Memory required for data: 1328854560
I0403 21:39:20.671057 12364 layer_factory.hpp:77] Creating layer inception_5b/3x3_reduce
I0403 21:39:20.671079 12364 net.cpp:91] Creating Layer inception_5b/3x3_reduce
I0403 21:39:20.671097 12364 net.cpp:425] inception_5b/3x3_reduce <- inception_5a/output_inception_5a/output_0_split_1
I0403 21:39:20.671118 12364 net.cpp:399] inception_5b/3x3_reduce -> inception_5b/3x3_reduce
I0403 21:39:20.673708 12364 net.cpp:141] Setting up inception_5b/3x3_reduce
I0403 21:39:20.673738 12364 net.cpp:148] Top shape: 24 192 7 7 (225792)
I0403 21:39:20.673753 12364 net.cpp:156] Memory required for data: 1329757728
I0403 21:39:20.673770 12364 layer_factory.hpp:77] Creating layer inception_5b/relu_3x3_reduce
I0403 21:39:20.673790 12364 net.cpp:91] Creating Layer inception_5b/relu_3x3_reduce
I0403 21:39:20.673806 12364 net.cpp:425] inception_5b/relu_3x3_reduce <- inception_5b/3x3_reduce
I0403 21:39:20.673823 12364 net.cpp:386] inception_5b/relu_3x3_reduce -> inception_5b/3x3_reduce (in-place)
I0403 21:39:20.674011 12364 net.cpp:141] Setting up inception_5b/relu_3x3_reduce
I0403 21:39:20.674037 12364 net.cpp:148] Top shape: 24 192 7 7 (225792)
I0403 21:39:20.674053 12364 net.cpp:156] Memory required for data: 1330660896
I0403 21:39:20.674067 12364 layer_factory.hpp:77] Creating layer inception_5b/3x3
I0403 21:39:20.674089 12364 net.cpp:91] Creating Layer inception_5b/3x3
I0403 21:39:20.674106 12364 net.cpp:425] inception_5b/3x3 <- inception_5b/3x3_reduce
I0403 21:39:20.674124 12364 net.cpp:399] inception_5b/3x3 -> inception_5b/3x3
I0403 21:39:20.680630 12364 net.cpp:141] Setting up inception_5b/3x3
I0403 21:39:20.680657 12364 net.cpp:148] Top shape: 24 384 7 7 (451584)
I0403 21:39:20.680672 12364 net.cpp:156] Memory required for data: 1332467232
I0403 21:39:20.680691 12364 layer_factory.hpp:77] Creating layer inception_5b/relu_3x3
I0403 21:39:20.680711 12364 net.cpp:91] Creating Layer inception_5b/relu_3x3
I0403 21:39:20.680727 12364 net.cpp:425] inception_5b/relu_3x3 <- inception_5b/3x3
I0403 21:39:20.680744 12364 net.cpp:386] inception_5b/relu_3x3 -> inception_5b/3x3 (in-place)
I0403 21:39:20.681037 12364 net.cpp:141] Setting up inception_5b/relu_3x3
I0403 21:39:20.681063 12364 net.cpp:148] Top shape: 24 384 7 7 (451584)
I0403 21:39:20.681078 12364 net.cpp:156] Memory required for data: 1334273568
I0403 21:39:20.681092 12364 layer_factory.hpp:77] Creating layer inception_5b/5x5_reduce
I0403 21:39:20.681133 12364 net.cpp:91] Creating Layer inception_5b/5x5_reduce
I0403 21:39:20.681152 12364 net.cpp:425] inception_5b/5x5_reduce <- inception_5a/output_inception_5a/output_0_split_2
I0403 21:39:20.681171 12364 net.cpp:399] inception_5b/5x5_reduce -> inception_5b/5x5_reduce
I0403 21:39:20.682449 12364 net.cpp:141] Setting up inception_5b/5x5_reduce
I0403 21:39:20.682476 12364 net.cpp:148] Top shape: 24 48 7 7 (56448)
I0403 21:39:20.682492 12364 net.cpp:156] Memory required for data: 1334499360
I0403 21:39:20.682509 12364 layer_factory.hpp:77] Creating layer inception_5b/relu_5x5_reduce
I0403 21:39:20.682528 12364 net.cpp:91] Creating Layer inception_5b/relu_5x5_reduce
I0403 21:39:20.682545 12364 net.cpp:425] inception_5b/relu_5x5_reduce <- inception_5b/5x5_reduce
I0403 21:39:20.682561 12364 net.cpp:386] inception_5b/relu_5x5_reduce -> inception_5b/5x5_reduce (in-place)
I0403 21:39:20.682939 12364 net.cpp:141] Setting up inception_5b/relu_5x5_reduce
I0403 21:39:20.682965 12364 net.cpp:148] Top shape: 24 48 7 7 (56448)
I0403 21:39:20.682979 12364 net.cpp:156] Memory required for data: 1334725152
I0403 21:39:20.682996 12364 layer_factory.hpp:77] Creating layer inception_5b/5x5
I0403 21:39:20.683014 12364 net.cpp:91] Creating Layer inception_5b/5x5
I0403 21:39:20.683030 12364 net.cpp:425] inception_5b/5x5 <- inception_5b/5x5_reduce
I0403 21:39:20.683048 12364 net.cpp:399] inception_5b/5x5 -> inception_5b/5x5
I0403 21:39:20.685036 12364 net.cpp:141] Setting up inception_5b/5x5
I0403 21:39:20.685065 12364 net.cpp:148] Top shape: 24 128 7 7 (150528)
I0403 21:39:20.685081 12364 net.cpp:156] Memory required for data: 1335327264
I0403 21:39:20.685099 12364 layer_factory.hpp:77] Creating layer inception_5b/relu_5x5
I0403 21:39:20.685117 12364 net.cpp:91] Creating Layer inception_5b/relu_5x5
I0403 21:39:20.685132 12364 net.cpp:425] inception_5b/relu_5x5 <- inception_5b/5x5
I0403 21:39:20.685153 12364 net.cpp:386] inception_5b/relu_5x5 -> inception_5b/5x5 (in-place)
I0403 21:39:20.685348 12364 net.cpp:141] Setting up inception_5b/relu_5x5
I0403 21:39:20.685372 12364 net.cpp:148] Top shape: 24 128 7 7 (150528)
I0403 21:39:20.685386 12364 net.cpp:156] Memory required for data: 1335929376
I0403 21:39:20.685400 12364 layer_factory.hpp:77] Creating layer inception_5b/pool
I0403 21:39:20.685417 12364 net.cpp:91] Creating Layer inception_5b/pool
I0403 21:39:20.685434 12364 net.cpp:425] inception_5b/pool <- inception_5a/output_inception_5a/output_0_split_3
I0403 21:39:20.685453 12364 net.cpp:399] inception_5b/pool -> inception_5b/pool
I0403 21:39:20.685523 12364 net.cpp:141] Setting up inception_5b/pool
I0403 21:39:20.685546 12364 net.cpp:148] Top shape: 24 832 7 7 (978432)
I0403 21:39:20.685560 12364 net.cpp:156] Memory required for data: 1339843104
I0403 21:39:20.685575 12364 layer_factory.hpp:77] Creating layer inception_5b/pool_proj
I0403 21:39:20.685598 12364 net.cpp:91] Creating Layer inception_5b/pool_proj
I0403 21:39:20.685616 12364 net.cpp:425] inception_5b/pool_proj <- inception_5b/pool
I0403 21:39:20.685636 12364 net.cpp:399] inception_5b/pool_proj -> inception_5b/pool_proj
I0403 21:39:20.687882 12364 net.cpp:141] Setting up inception_5b/pool_proj
I0403 21:39:20.687912 12364 net.cpp:148] Top shape: 24 128 7 7 (150528)
I0403 21:39:20.687928 12364 net.cpp:156] Memory required for data: 1340445216
I0403 21:39:20.687945 12364 layer_factory.hpp:77] Creating layer inception_5b/relu_pool_proj
I0403 21:39:20.687963 12364 net.cpp:91] Creating Layer inception_5b/relu_pool_proj
I0403 21:39:20.687979 12364 net.cpp:425] inception_5b/relu_pool_proj <- inception_5b/pool_proj
I0403 21:39:20.687996 12364 net.cpp:386] inception_5b/relu_pool_proj -> inception_5b/pool_proj (in-place)
I0403 21:39:20.688288 12364 net.cpp:141] Setting up inception_5b/relu_pool_proj
I0403 21:39:20.688316 12364 net.cpp:148] Top shape: 24 128 7 7 (150528)
I0403 21:39:20.688331 12364 net.cpp:156] Memory required for data: 1341047328
I0403 21:39:20.688346 12364 layer_factory.hpp:77] Creating layer inception_5b/output
I0403 21:39:20.688362 12364 net.cpp:91] Creating Layer inception_5b/output
I0403 21:39:20.688391 12364 net.cpp:425] inception_5b/output <- inception_5b/1x1
I0403 21:39:20.688410 12364 net.cpp:425] inception_5b/output <- inception_5b/3x3
I0403 21:39:20.688424 12364 net.cpp:425] inception_5b/output <- inception_5b/5x5
I0403 21:39:20.688441 12364 net.cpp:425] inception_5b/output <- inception_5b/pool_proj
I0403 21:39:20.688457 12364 net.cpp:399] inception_5b/output -> inception_5b/output
I0403 21:39:20.688508 12364 net.cpp:141] Setting up inception_5b/output
I0403 21:39:20.688531 12364 net.cpp:148] Top shape: 24 1024 7 7 (1204224)
I0403 21:39:20.688545 12364 net.cpp:156] Memory required for data: 1345864224
I0403 21:39:20.688560 12364 layer_factory.hpp:77] Creating layer pool5/7x7_s1
I0403 21:39:20.688580 12364 net.cpp:91] Creating Layer pool5/7x7_s1
I0403 21:39:20.688596 12364 net.cpp:425] pool5/7x7_s1 <- inception_5b/output
I0403 21:39:20.688613 12364 net.cpp:399] pool5/7x7_s1 -> pool5/7x7_s1
I0403 21:39:20.688822 12364 net.cpp:141] Setting up pool5/7x7_s1
I0403 21:39:20.688848 12364 net.cpp:148] Top shape: 24 1024 1 1 (24576)
I0403 21:39:20.688863 12364 net.cpp:156] Memory required for data: 1345962528
I0403 21:39:20.688879 12364 layer_factory.hpp:77] Creating layer pool5/drop_7x7_s1
I0403 21:39:20.688896 12364 net.cpp:91] Creating Layer pool5/drop_7x7_s1
I0403 21:39:20.688912 12364 net.cpp:425] pool5/drop_7x7_s1 <- pool5/7x7_s1
I0403 21:39:20.688930 12364 net.cpp:386] pool5/drop_7x7_s1 -> pool5/7x7_s1 (in-place)
I0403 21:39:20.688982 12364 net.cpp:141] Setting up pool5/drop_7x7_s1
I0403 21:39:20.689005 12364 net.cpp:148] Top shape: 24 1024 1 1 (24576)
I0403 21:39:20.689019 12364 net.cpp:156] Memory required for data: 1346060832
I0403 21:39:20.689033 12364 layer_factory.hpp:77] Creating layer loss3/classifier_plantvillage
I0403 21:39:20.689055 12364 net.cpp:91] Creating Layer loss3/classifier_plantvillage
I0403 21:39:20.689072 12364 net.cpp:425] loss3/classifier_plantvillage <- pool5/7x7_s1
I0403 21:39:20.689090 12364 net.cpp:399] loss3/classifier_plantvillage -> loss3/classifier_plantvillage
I0403 21:39:20.689545 12364 net.cpp:141] Setting up loss3/classifier_plantvillage
I0403 21:39:20.689571 12364 net.cpp:148] Top shape: 24 38 (912)
I0403 21:39:20.689586 12364 net.cpp:156] Memory required for data: 1346064480
I0403 21:39:20.689605 12364 layer_factory.hpp:77] Creating layer loss3/classifier_plantvillage_loss3/classifier_plantvillage_0_split
I0403 21:39:20.689625 12364 net.cpp:91] Creating Layer loss3/classifier_plantvillage_loss3/classifier_plantvillage_0_split
I0403 21:39:20.689641 12364 net.cpp:425] loss3/classifier_plantvillage_loss3/classifier_plantvillage_0_split <- loss3/classifier_plantvillage
I0403 21:39:20.689663 12364 net.cpp:399] loss3/classifier_plantvillage_loss3/classifier_plantvillage_0_split -> loss3/classifier_plantvillage_loss3/classifier_plantvillage_0_split_0
I0403 21:39:20.689684 12364 net.cpp:399] loss3/classifier_plantvillage_loss3/classifier_plantvillage_0_split -> loss3/classifier_plantvillage_loss3/classifier_plantvillage_0_split_1
I0403 21:39:20.689704 12364 net.cpp:399] loss3/classifier_plantvillage_loss3/classifier_plantvillage_0_split -> loss3/classifier_plantvillage_loss3/classifier_plantvillage_0_split_2
I0403 21:39:20.689726 12364 net.cpp:399] loss3/classifier_plantvillage_loss3/classifier_plantvillage_0_split -> loss3/classifier_plantvillage_loss3/classifier_plantvillage_0_split_3
I0403 21:39:20.689853 12364 net.cpp:141] Setting up loss3/classifier_plantvillage_loss3/classifier_plantvillage_0_split
I0403 21:39:20.689880 12364 net.cpp:148] Top shape: 24 38 (912)
I0403 21:39:20.689898 12364 net.cpp:148] Top shape: 24 38 (912)
I0403 21:39:20.689915 12364 net.cpp:148] Top shape: 24 38 (912)
I0403 21:39:20.689931 12364 net.cpp:148] Top shape: 24 38 (912)
I0403 21:39:20.689946 12364 net.cpp:156] Memory required for data: 1346079072
I0403 21:39:20.689961 12364 layer_factory.hpp:77] Creating layer loss1/loss
I0403 21:39:20.689985 12364 net.cpp:91] Creating Layer loss1/loss
I0403 21:39:20.690001 12364 net.cpp:425] loss1/loss <- loss1/classifier_plantvillage_loss1/classifier_plantvillage_0_split_0
I0403 21:39:20.690032 12364 net.cpp:425] loss1/loss <- label_data_1_split_0
…
