…
I0403 21:44:17.562494 12653 net.cpp:313] The NetState phase (1) differed from the phase (0) specified by a rule in layer data
I0403 21:44:17.563881 12653 net.cpp:49] Initializing net from parameters: 
state {
  phase: TEST
}
layer {
  name: "data"
  type: "Data"
  top: "data"
  top: "label"
  include {
    phase: TEST
  }
  transform_param {
    mirror: false
    crop_size: 224
    mean_file: "/home/mohanty/data/final_dataset/lmdb/color-80-20/mean.binaryproto"
  }
  data_param {
    source: "/home/mohanty/data/final_dataset/lmdb/color-80-20/test_db"
    batch_size: 24
    backend: LMDB
  }
}
layer {
  name: "conv1/7x7_s2"
  type: "Convolution"
  bottom: "data"
  top: "conv1/7x7_s2"
  param {
    lr_mult: 1
    decay_mult: 1
  }
  param {
    lr_mult: 2
    decay_mult: 0
  }
  convolution_param {
    num_output: 64
    pad: 3
    kernel_size: 7
    stride: 2
    weight_filler {
      type: "xavier"
      std: 0.1
    }
    bias_filler {
      type: "constant"
      value: 0.2
    }
  }
}
layer {
  name: "conv1/relu_7x7"
  type: "ReLU"
  bottom: "conv1/7x7_s2"
  top: "conv1/7x7_s2"
}
layer {
  name: "pool1/3x3_s2"
  type: "Pooling"
  bottom: "conv1/7x7_s2"
  top: "pool1/3x3_s2"
  pooling_param {
    pool: MAX
    kernel_size: 3
    stride: 2
  }
}
layer {
  name: "pool1/norm1"
  type: "LRN"
  bottom: "pool1/3x3_s2"
  top: "pool1/norm1"
  lrn_param {
    local_size: 5
    alpha: 0.0001
    beta: 0.75
  }
}
layer {
  name: "conv2/3x3_reduce"
  type: "Convolution"
  bottom: "pool1/norm1"
  top: "conv2/3x3_reduce"
  param {
    lr_mult: 1
    decay_mult: 1
  }
  param {
    lr_mult: 2
    decay_mult: 0
  }
  convolution_param {
    num_output: 64
    kernel_size: 1
    weight_filler {
      type: "xavier"
      std: 0.1
    }
    bias_filler {
      type: "constant"
      value: 0.2
    }
  }
}
layer {
  name: "conv2/relu_3x3_reduce"
  type: "ReLU"
  bottom: "conv2/3x3_reduce"
  top: "conv2/3x3_reduce"
}
layer {
  name: "conv2/3x3"
  type: "Convolution"
  bottom: "conv2/3x3_reduce"
  top: "conv2/3x3"
  param {
    lr_mult: 1
    decay_mult: 1
  }
  param {
    lr_mult: 2
    decay_mult: 0
  }
  convolution_param {
    num_output: 192
    pad: 1
    kernel_size: 3
    weight_filler {
      type: "xavier"
      std: 0.03
    }
    bias_filler {
      type: "constant"
      value: 0.2
    }
  }
}
layer {
  name: "conv2/relu_3x3"
  type: "ReLU"
  bottom: "conv2/3x3"
  top: "conv2/3x3"
}
layer {
  name: "conv2/norm2"
  type: "LRN"
  bottom: "conv2/3x3"
  top: "conv2/norm2"
  lrn_param {
    local_size: 5
    alpha: 0.0001
    beta: 0.75
  }
}
layer {
  name: "pool2/3x3_s2"
  type: "Pooling"
  bottom: "conv2/norm2"
  top: "pool2/3x3_s2"
  pooling_param {
    pool: MAX
    kernel_size: 3
    stride: 2
  }
}
layer {
  name: "inception_3a/1x1"
  type: "Convolution"
  bottom: "pool2/3x3_s2"
  top: "inception_3a/1x1"
  param {
    lr_mult: 1
    decay_mult: 1
  }
  param {
    lr_mult: 2
    decay_mult: 0
  }
  convolution_param {
    num_output: 64
    kernel_size: 1
    weight_filler {
      type: "xavier"
      std: 0.03
    }
    bias_filler {
      type: "constant"
      value: 0.2
    }
  }
}
layer {
  name: "inception_3a/relu_1x1"
  type: "ReLU"
  bottom: "inception_3a/1x1"
  top: "inception_3a/1x1"
}
layer {
  name: "inception_3a/3x3_reduce"
  type: "Convolution"
  bottom: "pool2/3x3_s2"
  top: "inception_3a/3x3_reduce"
  param {
    lr_mult: 1
    decay_mult: 1
  }
  param {
    lr_mult: 2
    decay_mult: 0
  }
  convolution_param {
    num_output: 96
    kernel_size: 1
    weight_filler {
      type: "xavier"
      std: 0.09
    }
    bias_filler {
      type: "constant"
      value: 0.2
    }
  }
}
layer {
  name: "inception_3a/relu_3x3_reduce"
  type: "ReLU"
  bottom: "inception_3a/3x3_reduce"
  top: "inception_3a/3x3_reduce"
}
layer {
  name: "inception_3a/3x3"
  type: "Convolution"
  bottom: "inception_3a/3x3_reduce"
  top: "inception_3a/3x3"
  param {
    lr_mult: 1
    decay_mult: 1
  }
  param {
    lr_mult: 2
    decay_mult: 0
  }
  convolution_param {
    num_output: 128
    pad: 1
    kernel_size: 3
    weight_filler {
      type: "xavier"
      std: 0.03
    }
    bias_filler {
      type: "constant"
      value: 0.2
    }
  }
}
layer {
  name: "inception_3a/relu_3x3"
  type: "ReLU"
  bottom: "inception_3a/3x3"
  top: "inception_3a/3x3"
}
layer {
  name: "inception_3a/5x5_reduce"
  type: "Convolution"
  bottom: "pool2/3x3_s2"
  top: "inception_3a/5x5_reduce"
  param {
    lr_mult: 1
    decay_mult: 1
  }
  param {
    lr_mult: 2
    decay_mult: 0
  }
  convolution_param {
    num_output: 16
    kernel_size: 1
    weight_filler {
      type: "xavier"
      std: 0.2
    }
    bias_filler {
      type: "constant"
      value: 0.2
    }
  }
}
layer {
  name: "inception_3a/relu_5x5_reduce"
  type: "ReLU"
  bottom: "inception_3a/5x5_reduce"
  top: "inception_3a/5x5_reduce"
}
layer {
  name: "inception_3a/5x5"
  type: "Convolution"
  bottom: "inception_3a/5x5_reduce"
  top: "inception_3a/5x5"
  param {
    lr_mult: 1
    decay_mult: 1
  }
  param {
    lr_mult: 2
    decay_mult: 0
  }
  convolution_param {
    num_output: 32
    pad: 2
    kernel_size: 5
    weight_filler {
      type: "xavier"
      std: 0.03
    }
    bias_filler {
      type: "constant"
      value: 0.2
    }
  }
}
layer {
  name: "inception_3a/relu_5x5"
  type: "ReLU"
  bottom: "inception_3a/5x5"
  top: "inception_3a/5x5"
}
layer {
  name: "inception_3a/pool"
  type: "Pooling"
  bottom: "pool2/3x3_s2"
  top: "inception_3a/pool"
  pooling_param {
    pool: MAX
    kernel_size: 3
    stride: 1
    pad: 1
  }
}
layer {
  name: "inception_3a/pool_proj"
  type: "Convolution"
  bottom: "inception_3a/pool"
  top: "inception_3a/pool_proj"
  param {
    lr_mult: 1
    decay_mult: 1
  }
  param {
    lr_mult: 2
    decay_mult: 0
  }
  convolution_param {
    num_output: 32
    kernel_size: 1
    weight_filler {
      type: "xavier"
      std: 0.1
    }
    bias_filler {
      type: "constant"
      value: 0.2
    }
  }
}
layer {
  name: "inception_3a/relu_pool_proj"
  type: "ReLU"
  bottom: "inception_3a/pool_proj"
  top: "inception_3a/pool_proj"
}
layer {
  name: "inception_3a/output"
  type: "Concat"
  bottom: "inception_3a/1x1"
  bottom: "inception_3a/3x3"
  bottom: "inception_3a/5x5"
  bottom: "inception_3a/pool_proj"
  top: "inception_3a/output"
}
layer {
  name: "inception_3b/1x1"
  type: "Convolution"
  bottom: "inception_3a/output"
  top: "inception_3b/1x1"
  param {
    lr_mult: 1
    decay_mult: 1
  }
  param {
    lr_mult: 2
    decay_mult: 0
  }
  convolution_param {
    num_output: 128
    kernel_size: 1
    weight_filler {
      type: "xavier"
      std: 0.03
    }
    bias_filler {
      type: "constant"
      value: 0.2
    }
  }
}
layer {
  name: "inception_3b/relu_1x1"
  type: "ReLU"
  bottom: "inception_3b/1x1"
  top: "inception_3b/1x1"
}
layer {
  name: "inception_3b/3x3_reduce"
  type: "Convolution"
  bottom: "inception_3a/output"
  top: "inception_3b/3x3_reduce"
  param {
    lr_mult: 1
    decay_mult: 1
  }
  param {
    lr_mult: 2
    decay_mult: 0
  }
  convolution_param {
    num_output: 128
    kernel_size: 1
    weight_filler {
      type: "xavier"
      std: 0.09
    }
    bias_filler {
      type: "constant"
      value: 0.2
    }
  }
}
layer {
  name: "inception_3b/relu_3x3_reduce"
  type: "ReLU"
  bottom: "inception_3b/3x3_reduce"
  top: "inception_3b/3x3_reduce"
}
layer {
  name: "inception_3b/3x3"
  type: "Convolution"
  bottom: "inception_3b/3x3_reduce"
  top: "inception_3b/3x3"
  param {
    lr_mult: 1
    decay_mult: 1
  }
  param {
    lr_mult: 2
    decay_mult: 0
  }
  convolution_param {
    num_output: 192
    pad: 1
    kernel_size: 3
    weight_filler {
      type: "xavier"
      std: 0.03
    }
    bias_filler {
      type: "constant"
      value: 0.2
    }
  }
}
layer {
  name: "inception_3b/relu_3x3"
  type: "ReLU"
  bottom: "inception_3b/3x3"
  top: "inception_3b/3x3"
}
layer {
  name: "inception_3b/5x5_reduce"
  type: "Convolution"
  bottom: "inception_3a/output"
  top: "inception_3b/5x5_reduce"
  param {
    lr_mult: 1
    decay_mult: 1
  }
  param {
    lr_mult: 2
    decay_mult: 0
  }
  convolution_param {
    num_output: 32
    kernel_size: 1
    weight_filler {
      type: "xavier"
      std: 0.2
    }
    bias_filler {
      type: "constant"
      value: 0.2
    }
  }
}
layer {
  name: "inception_3b/relu_5x5_reduce"
  type: "ReLU"
  bottom: "inception_3b/5x5_reduce"
  top: "inception_3b/5x5_reduce"
}
layer {
  name: "inception_3b/5x5"
  type: "Convolution"
  bottom: "inception_3b/5x5_reduce"
  top: "inception_3b/5x5"
  param {
    lr_mult: 1
    decay_mult: 1
  }
  param {
    lr_mult: 2
    decay_mult: 0
  }
  convolution_param {
    num_output: 96
    pad: 2
    kernel_size: 5
    weight_filler {
      type: "xavier"
      std: 0.03
    }
    bias_filler {
      type: "constant"
      value: 0.2
    }
  }
}
layer {
  name: "inception_3b/relu_5x5"
  type: "ReLU"
  bottom: "inception_3b/5x5"
  top: "inception_3b/5x5"
}
layer {
  name: "inception_3b/pool"
  type: "Pooling"
  bottom: "inception_3a/output"
  top: "inception_3b/pool"
  pooling_param {
    pool: MAX
    kernel_size: 3
    stride: 1
    pad: 1
  }
}
layer {
  name: "inception_3b/pool_proj"
  type: "Convolution"
  bottom: "inception_3b/pool"
  top: "inception_3b/pool_proj"
  param {
    lr_mult: 1
    decay_mult: 1
  }
  param {
    lr_mult: 2
    decay_mult: 0
  }
  convolution_param {
    num_output: 64
    kernel_size: 1
    weight_filler {
      type: "xavier"
      std: 0.1
    }
    bias_filler {
      type: "constant"
      value: 0.2
    }
  }
}
layer {
  name: "inception_3b/relu_pool_proj"
  type: "ReLU"
  bottom: "inception_3b/pool_proj"
  top: "inception_3b/pool_proj"
}
layer {
  name: "inception_3b/output"
  type: "Concat"
  bottom: "inception_3b/1x1"
  bottom: "inception_3b/3x3"
  bottom: "inception_3b/5x5"
  bottom: "inception_3b/pool_proj"
  top: "inception_3b/output"
}
layer {
  name: "pool3/3x3_s2"
  type: "Pooling"
  bottom: "inception_3b/output"
  top: "pool3/3x3_s2"
  pooling_param {
    pool: MAX
    kernel_size: 3
    stride: 2
  }
}
layer {
  name: "inception_4a/1x1"
  type: "Convolution"
  bottom: "pool3/3x3_s2"
  top: "inception_4a/1x1"
  param {
    lr_mult: 1
    decay_mult: 1
  }
  param {
    lr_mult: 2
    decay_mult: 0
  }
  convolution_param {
    num_output: 192
    kernel_size: 1
    weight_filler {
      type: "xavier"
      std: 0.03
    }
    bias_filler {
      type: "constant"
      value: 0.2
    }
  }
}
layer {
  name: "inception_4a/relu_1x1"
  type: "ReLU"
  bottom: "inception_4a/1x1"
  top: "inception_4a/1x1"
}
layer {
  name: "inception_4a/3x3_reduce"
  type: "Convolution"
  bottom: "pool3/3x3_s2"
  top: "inception_4a/3x3_reduce"
  param {
    lr_mult: 1
    decay_mult: 1
  }
  param {
    lr_mult: 2
    decay_mult: 0
  }
  convolution_param {
    num_output: 96
    kernel_size: 1
    weight_filler {
      type: "xavier"
      std: 0.09
    }
    bias_filler {
      type: "constant"
      value: 0.2
    }
  }
}
layer {
  name: "inception_4a/relu_3x3_reduce"
  type: "ReLU"
  bottom: "inception_4a/3x3_reduce"
  top: "inception_4a/3x3_reduce"
}
layer {
  name: "inception_4a/3x3"
  type: "Convolution"
  bottom: "inception_4a/3x3_reduce"
  top: "inception_4a/3x3"
  param {
    lr_mult: 1
    decay_mult: 1
  }
  param {
    lr_mult: 2
    decay_mult: 0
  }
  convolution_param {
    num_output: 208
    pad: 1
    kernel_size: 3
    weight_filler {
      type: "xavier"
      std: 0.03
    }
    bias_filler {
      type: "constant"
      value: 0.2
    }
  }
}
layer {
  name: "inception_4a/relu_3x3"
  type: "ReLU"
  bottom: "inception_4a/3x3"
  top: "inception_4a/3x3"
}
layer {
  name: "inception_4a/5x5_reduce"
  type: "Convolution"
  bottom: "pool3/3x3_s2"
  top: "inception_4a/5x5_reduce"
  param {
    lr_mult: 1
    decay_mult: 1
  }
  param {
    lr_mult: 2
    decay_mult: 0
  }
  convolution_param {
    num_output: 16
    kernel_size: 1
    weight_filler {
      type: "xavier"
      std: 0.2
    }
    bias_filler {
      type: "constant"
      value: 0.2
    }
  }
}
layer {
  name: "inception_4a/relu_5x5_reduce"
  type: "ReLU"
  bottom: "inception_4a/5x5_reduce"
  top: "inception_4a/5x5_reduce"
}
layer {
  name: "inception_4a/5x5"
  type: "Convolution"
  bottom: "inception_4a/5x5_reduce"
  top: "inception_4a/5x5"
  param {
    lr_mult: 1
    decay_mult: 1
  }
  param {
    lr_mult: 2
    decay_mult: 0
  }
  convolution_param {
    num_output: 48
    pad: 2
    kernel_size: 5
    weight_filler {
      type: "xavier"
      std: 0.03
    }
    bias_filler {
      type: "constant"
      value: 0.2
    }
  }
}
layer {
  name: "inception_4a/relu_5x5"
  type: "ReLU"
  bottom: "inception_4a/5x5"
  top: "inception_4a/5x5"
}
layer {
  name: "inception_4a/pool"
  type: "Pooling"
  bottom: "pool3/3x3_s2"
  top: "inception_4a/pool"
  pooling_param {
    pool: MAX
    kernel_size: 3
    stride: 1
    pad: 1
  }
}
layer {
  name: "inception_4a/pool_proj"
  type: "Convolution"
  bottom: "inception_4a/pool"
  top: "inception_4a/pool_proj"
  param {
    lr_mult: 1
    decay_mult: 1
  }
  param {
    lr_mult: 2
    decay_mult: 0
  }
  convolution_param {
    num_output: 64
    kernel_size: 1
    weight_filler {
      type: "xavier"
      std: 0.1
    }
    bias_filler {
      type: "constant"
      value: 0.2
    }
  }
}
layer {
  name: "inception_4a/relu_pool_proj"
  type: "ReLU"
  bottom: "inception_4a/pool_proj"
  top: "inception_4a/pool_proj"
}
layer {
  name: "inception_4a/output"
  type: "Concat"
  bottom: "inception_4a/1x1"
  bottom: "inception_4a/3x3"
  bottom: "inception_4a/5x5"
  bottom: "inception_4a/pool_proj"
  top: "inception_4a/output"
}
layer {
  name: "loss1/ave_pool"
  type: "Pooling"
  bottom: "inception_4a/output"
  top: "loss1/ave_pool"
  pooling_param {
    pool: AVE
    kernel_size: 5
    stride: 3
  }
}
layer {
  name: "loss1/conv"
  type: "Convolution"
  bottom: "loss1/ave_pool"
  top: "loss1/conv"
  param {
    lr_mult: 1
    decay_mult: 1
  }
  param {
    lr_mult: 2
    decay_mult: 0
  }
  convolution_param {
    num_output: 128
    kernel_size: 1
    weight_filler {
      type: "xavier"
      std: 0.08
    }
    bias_filler {
      type: "constant"
      value: 0.2
    }
  }
}
layer {
  name: "loss1/relu_conv"
  type: "ReLU"
  bottom: "loss1/conv"
  top: "loss1/conv"
}
layer {
  name: "loss1/fc"
  type: "InnerProduct"
  bottom: "loss1/conv"
  top: "loss1/fc"
  param {
    lr_mult: 1
    decay_mult: 1
  }
  param {
    lr_mult: 2
    decay_mult: 0
  }
  inner_product_param {
    num_output: 1024
    weight_filler {
      type: "xavier"
      std: 0.02
    }
    bias_filler {
      type: "constant"
      value: 0.2
    }
  }
}
layer {
  name: "loss1/relu_fc"
  type: "ReLU"
  bottom: "loss1/fc"
  top: "loss1/fc"
}
layer {
  name: "loss1/drop_fc"
  type: "Dropout"
  bottom: "loss1/fc"
  top: "loss1/fc"
  dropout_param {
    dropout_ratio: 0.7
  }
}
layer {
  name: "loss1/classifier_plantvillage"
  type: "InnerProduct"
  bottom: "loss1/fc"
  top: "loss1/classifier_plantvillage"
  param {
    lr_mult: 1
    decay_mult: 1
  }
  param {
    lr_mult: 2
    decay_mult: 0
  }
  inner_product_param {
    num_output: 38
    weight_filler {
      type: "xavier"
      std: 0.0009765625
    }
    bias_filler {
      type: "constant"
      value: 0
    }
  }
}
layer {
  name: "inception_4b/1x1"
  type: "Convolution"
  bottom: "inception_4a/output"
  top: "inception_4b/1x1"
  param {
    lr_mult: 1
    decay_mult: 1
  }
  param {
    lr_mult: 2
    decay_mult: 0
  }
  convolution_param {
    num_output: 160
    kernel_size: 1
    weight_filler {
      type: "xavier"
      std: 0.03
    }
    bias_filler {
      type: "constant"
      value: 0.2
    }
  }
}
layer {
  name: "inception_4b/relu_1x1"
  type: "ReLU"
  bottom: "inception_4b/1x1"
  top: "inception_4b/1x1"
}
layer {
  name: "inception_4b/3x3_reduce"
  type: "Convolution"
  bottom: "inception_4a/output"
  top: "inception_4b/3x3_reduce"
  param {
    lr_mult: 1
    decay_mult: 1
  }
  param {
    lr_mult: 2
    decay_mult: 0
  }
  convolution_param {
    num_output: 112
    kernel_size: 1
    weight_filler {
      type: "xavier"
      std: 0.09
    }
    bias_filler {
      type: "constant"
      value: 0.2
    }
  }
}
layer {
  name: "inception_4b/relu_3x3_reduce"
  type: "ReLU"
  bottom: "inception_4b/3x3_reduce"
  top: "inception_4b/3x3_reduce"
}
layer {
  name: "inception_4b/3x3"
  type: "Convolution"
  bottom: "inception_4b/3x3_reduce"
  top: "inception_4b/3x3"
  param {
    lr_mult: 1
    decay_mult: 1
  }
  param {
    lr_mult: 2
    decay_mult: 0
  }
  convolution_param {
    num_output: 224
    pad: 1
    kernel_size: 3
    weight_filler {
      type: "xavier"
      std: 0.03
    }
    bias_filler {
      type: "constant"
      value: 0.2
    }
  }
}
layer {
  name: "inception_4b/relu_3x3"
  type: "ReLU"
  bottom: "inception_4b/3x3"
  top: "inception_4b/3x3"
}
layer {
  name: "inception_4b/5x5_reduce"
  type: "Convolution"
  bottom: "inception_4a/output"
  top: "inception_4b/5x5_reduce"
  param {
    lr_mult: 1
    decay_mult: 1
  }
  param {
    lr_mult: 2
    decay_mult: 0
  }
  convolution_param {
    num_output: 24
    kernel_size: 1
    weight_filler {
      type: "xavier"
      std: 0.2
    }
    bias_filler {
      type: "constant"
      value: 0.2
    }
  }
}
layer {
  name: "inception_4b/relu_5x5_reduce"
  type: "ReLU"
  bottom: "inception_4b/5x5_reduce"
  top: "inception_4b/5x5_reduce"
}
layer {
  name: "inception_4b/5x5"
  type: "Convolution"
  bottom: "inception_4b/5x5_reduce"
  top: "inception_4b/5x5"
  param {
    lr_mult: 1
    decay_mult: 1
  }
  param {
    lr_mult: 2
    decay_mult: 0
  }
  convolution_param {
    num_output: 64
    pad: 2
    kernel_size: 5
    weight_filler {
      type: "xavier"
      std: 0.03
    }
    bias_filler {
      type: "constant"
      value: 0.2
    }
  }
}
layer {
  name: "inception_4b/relu_5x5"
  type: "ReLU"
  bottom: "inception_4b/5x5"
  top: "inception_4b/5x5"
}
layer {
  name: "inception_4b/pool"
  type: "Pooling"
  bottom: "inception_4a/output"
  top: "inception_4b/pool"
  pooling_param {
    pool: MAX
    kernel_size: 3
    stride: 1
    pad: 1
  }
}
layer {
  name: "inception_4b/pool_proj"
  type: "Convolution"
  bottom: "inception_4b/pool"
  top: "inception_4b/pool_proj"
  param {
    lr_mult: 1
    decay_mult: 1
  }
  param {
    lr_mult: 2
    decay_mult: 0
  }
  convolution_param {
    num_output: 64
    kernel_size: 1
    weight_filler {
      type: "xavier"
      std: 0.1
    }
    bias_filler {
      type: "constant"
      value: 0.2
    }
  }
}
layer {
  name: "inception_4b/relu_pool_proj"
  type: "ReLU"
  bottom: "inception_4b/pool_proj"
  top: "inception_4b/pool_proj"
}
layer {
  name: "inception_4b/output"
  type: "Concat"
  bottom: "inception_4b/1x1"
  bottom: "inception_4b/3x3"
  bottom: "inception_4b/5x5"
  bottom: "inception_4b/pool_proj"
  top: "inception_4b/output"
}
layer {
  name: "inception_4c/1x1"
  type: "Convolution"
  bottom: "inception_4b/output"
  top: "inception_4c/1x1"
  param {
    lr_mult: 1
    decay_mult: 1
  }
  param {
    lr_mult: 2
    decay_mult: 0
  }
  convolution_param {
    num_output: 128
    kernel_size: 1
    weight_filler {
      type: "xavier"
      std: 0.03
    }
    bias_filler {
      type: "constant"
      value: 0.2
    }
  }
}
layer {
  name: "inception_4c/relu_1x1"
  type: "ReLU"
  bottom: "inception_4c/1x1"
  top: "inception_4c/1x1"
}
layer {
  name: "inception_4c/3x3_reduce"
  type: "Convolution"
  bottom: "inception_4b/output"
  top: "inception_4c/3x3_reduce"
  param {
    lr_mult: 1
    decay_mult: 1
  }
  param {
    lr_mult: 2
    decay_mult: 0
  }
  convolution_param {
    num_output: 128
    kernel_size: 1
    weight_filler {
      type: "xavier"
      std: 0.09
    }
    bias_filler {
      type: "constant"
      value: 0.2
    }
  }
}
layer {
  name: "inception_4c/relu_3x3_reduce"
  type: "ReLU"
  bottom: "inception_4c/3x3_reduce"
  top: "inception_4c/3x3_reduce"
}
layer {
  name: "inception_4c/3x3"
  type: "Convolution"
  bottom: "inception_4c/3x3_reduce"
  top: "inception_4c/3x3"
  param {
    lr_mult: 1
    decay_mult: 1
  }
  param {
    lr_mult: 2
    decay_mult: 0
  }
  convolution_param {
    num_output: 256
    pad: 1
    kernel_size: 3
    weight_filler {
      type: "xavier"
      std: 0.03
    }
    bias_filler {
      type: "constant"
      value: 0.2
    }
  }
}
layer {
  name: "inception_4c/relu_3x3"
  type: "ReLU"
  bottom: "inception_4c/3x3"
  top: "inception_4c/3x3"
}
layer {
  name: "inception_4c/5x5_reduce"
  type: "Convolution"
  bottom: "inception_4b/output"
  top: "inception_4c/5x5_reduce"
  param {
    lr_mult: 1
    decay_mult: 1
  }
  param {
    lr_mult: 2
    decay_mult: 0
  }
  convolution_param {
    num_output: 24
    kernel_size: 1
    weight_filler {
      type: "xavier"
      std: 0.2
    }
    bias_filler {
      type: "constant"
      value: 0.2
    }
  }
}
layer {
  name: "inception_4c/relu_5x5_reduce"
  type: "ReLU"
  bottom: "inception_4c/5x5_reduce"
  top: "inception_4c/5x5_reduce"
}
layer {
  name: "inception_4c/5x5"
  type: "Convolution"
  bottom: "inception_4c/5x5_reduce"
  top: "inception_4c/5x5"
  param {
    lr_mult: 1
    decay_mult: 1
  }
  param {
    lr_mult: 2
    decay_mult: 0
  }
  convolution_param {
    num_output: 64
    pad: 2
    kernel_size: 5
    weight_filler {
      type: "xavier"
      std: 0.03
    }
    bias_filler {
      type: "constant"
      value: 0.2
    }
  }
}
layer {
  name: "inception_4c/relu_5x5"
  type: "ReLU"
  bottom: "inception_4c/5x5"
  top: "inception_4c/5x5"
}
layer {
  name: "inception_4c/pool"
  type: "Pooling"
  bottom: "inception_4b/output"
  top: "inception_4c/pool"
  pooling_param {
    pool: MAX
    kernel_size: 3
    stride: 1
    pad: 1
  }
}
layer {
  name: "inception_4c/pool_proj"
  type: "Convolution"
  bottom: "inception_4c/pool"
  top: "inception_4c/pool_proj"
  param {
    lr_mult: 1
    decay_mult: 1
  }
  param {
    lr_mult: 2
    decay_mult: 0
  }
  convolution_param {
    num_output: 64
    kernel_size: 1
    weight_filler {
      type: "xavier"
      std: 0.1
    }
    bias_filler {
      type: "constant"
      value: 0.2
    }
  }
}
layer {
  name: "inception_4c/relu_pool_proj"
  type: "ReLU"
  bottom: "inception_4c/pool_proj"
  top: "inception_4c/pool_proj"
}
layer {
  name: "inception_4c/output"
  type: "Concat"
  bottom: "inception_4c/1x1"
  bottom: "inception_4c/3x3"
  bottom: "inception_4c/5x5"
  bottom: "inception_4c/pool_proj"
  top: "inception_4c/output"
}
layer {
  name: "inception_4d/1x1"
  type: "Convolution"
  bottom: "inception_4c/output"
  top: "inception_4d/1x1"
  param {
    lr_mult: 1
    decay_mult: 1
  }
  param {
    lr_mult: 2
    decay_mult: 0
  }
  convolution_param {
    num_output: 112
    kernel_size: 1
    weight_filler {
      type: "xavier"
      std: 0.03
    }
    bias_filler {
      type: "constant"
      value: 0.2
    }
  }
}
layer {
  name: "inception_4d/relu_1x1"
  type: "ReLU"
  bottom: "inception_4d/1x1"
  top: "inception_4d/1x1"
}
layer {
  name: "inception_4d/3x3_reduce"
  type: "Convolution"
  bottom: "inception_4c/output"
  top: "inception_4d/3x3_reduce"
  param {
    lr_mult: 1
    decay_mult: 1
  }
  param {
    lr_mult: 2
    decay_mult: 0
  }
  convolution_param {
    num_output: 144
    kernel_size: 1
    weight_filler {
      type: "xavier"
      std: 0.09
    }
    bias_filler {
      type: "constant"
      value: 0.2
    }
  }
}
layer {
  name: "inception_4d/relu_3x3_reduce"
  type: "ReLU"
  bottom: "inception_4d/3x3_reduce"
  top: "inception_4d/3x3_reduce"
}
layer {
  name: "inception_4d/3x3"
  type: "Convolution"
  bottom: "inception_4d/3x3_reduce"
  top: "inception_4d/3x3"
  param {
    lr_mult: 1
    decay_mult: 1
  }
  param {
    lr_mult: 2
    decay_mult: 0
  }
  convolution_param {
    num_output: 288
    pad: 1
    kernel_size: 3
    weight_filler {
      type: "xavier"
      std: 0.03
    }
    bias_filler {
      type: "constant"
      value: 0.2
    }
  }
}
layer {
  name: "inception_4d/relu_3x3"
  type: "ReLU"
  bottom: "inception_4d/3x3"
  top: "inception_4d/3x3"
}
layer {
  name: "inception_4d/5x5_reduce"
  type: "Convolution"
  bottom: "inception_4c/output"
  top: "inception_4d/5x5_reduce"
  param {
    lr_mult: 1
    decay_mult: 1
  }
  param {
    lr_mult: 2
    decay_mult: 0
  }
  convolution_param {
    num_output: 32
    kernel_size: 1
    weight_filler {
      type: "xavier"
      std: 0.2
    }
    bias_filler {
      type: "constant"
      value: 0.2
    }
  }
}
layer {
  name: "inception_4d/relu_5x5_reduce"
  type: "ReLU"
  bottom: "inception_4d/5x5_reduce"
  top: "inception_4d/5x5_reduce"
}
layer {
  name: "inception_4d/5x5"
  type: "Convolution"
  bottom: "inception_4d/5x5_reduce"
  top: "inception_4d/5x5"
  param {
    lr_mult: 1
    decay_mult: 1
  }
  param {
    lr_mult: 2
    decay_mult: 0
  }
  convolution_param {
    num_output: 64
    pad: 2
    kernel_size: 5
    weight_filler {
      type: "xavier"
      std: 0.03
    }
    bias_filler {
      type: "constant"
      value: 0.2
    }
  }
}
layer {
  name: "inception_4d/relu_5x5"
  type: "ReLU"
  bottom: "inception_4d/5x5"
  top: "inception_4d/5x5"
}
layer {
  name: "inception_4d/pool"
  type: "Pooling"
  bottom: "inception_4c/output"
  top: "inception_4d/pool"
  pooling_param {
    pool: MAX
    kernel_size: 3
    stride: 1
    pad: 1
  }
}
layer {
  name: "inception_4d/pool_proj"
  type: "Convolution"
  bottom: "inception_4d/pool"
  top: "inception_4d/pool_proj"
  param {
    lr_mult: 1
    decay_mult: 1
  }
  param {
    lr_mult: 2
    decay_mult: 0
  }
  convolution_param {
    num_output: 64
    kernel_size: 1
    weight_filler {
      type: "xavier"
      std: 0.1
    }
    bias_filler {
      type: "constant"
      value: 0.2
    }
  }
}
layer {
  name: "inception_4d/relu_pool_proj"
  type: "ReLU"
  bottom: "inception_4d/pool_proj"
  top: "inception_4d/pool_proj"
}
layer {
  name: "inception_4d/output"
  type: "Concat"
  bottom: "inception_4d/1x1"
  bottom: "inception_4d/3x3"
  bottom: "inception_4d/5x5"
  bottom: "inception_4d/pool_proj"
  top: "inception_4d/output"
}
layer {
  name: "loss2/ave_pool"
  type: "Pooling"
  bottom: "inception_4d/output"
  top: "loss2/ave_pool"
  pooling_param {
    pool: AVE
    kernel_size: 5
    stride: 3
  }
}
layer {
  name: "loss2/conv"
  type: "Convolution"
  bottom: "loss2/ave_pool"
  top: "loss2/conv"
  param {
    lr_mult: 1
    decay_mult: 1
  }
  param {
    lr_mult: 2
    decay_mult: 0
  }
  convolution_param {
    num_output: 128
    kernel_size: 1
    weight_filler {
      type: "xavier"
      std: 0.08
    }
    bias_filler {
      type: "constant"
      value: 0.2
    }
  }
}
layer {
  name: "loss2/relu_conv"
  type: "ReLU"
  bottom: "loss2/conv"
  top: "loss2/conv"
}
layer {
  name: "loss2/fc"
  type: "InnerProduct"
  bottom: "loss2/conv"
  top: "loss2/fc"
  param {
    lr_mult: 1
    decay_mult: 1
  }
  param {
    lr_mult: 2
    decay_mult: 0
  }
  inner_product_param {
    num_output: 1024
    weight_filler {
      type: "xavier"
      std: 0.02
    }
    bias_filler {
      type: "constant"
      value: 0.2
    }
  }
}
layer {
  name: "loss2/relu_fc"
  type: "ReLU"
  bottom: "loss2/fc"
  top: "loss2/fc"
}
layer {
  name: "loss2/drop_fc"
  type: "Dropout"
  bottom: "loss2/fc"
  top: "loss2/fc"
  dropout_param {
    dropout_ratio: 0.7
  }
}
layer {
  name: "loss2/classifier_plantvillage"
  type: "InnerProduct"
  bottom: "loss2/fc"
  top: "loss2/classifier_plantvillage"
  param {
    lr_mult: 1
    decay_mult: 1
  }
  param {
    lr_mult: 2
    decay_mult: 0
  }
  inner_product_param {
    num_output: 38
    weight_filler {
      type: "xavier"
      std: 0.0009765625
    }
    bias_filler {
      type: "constant"
      value: 0
    }
  }
}
layer {
  name: "inception_4e/1x1"
  type: "Convolution"
  bottom: "inception_4d/output"
  top: "inception_4e/1x1"
  param {
    lr_mult: 1
    decay_mult: 1
  }
  param {
    lr_mult: 2
    decay_mult: 0
  }
  convolution_param {
    num_output: 256
    kernel_size: 1
    weight_filler {
      type: "xavier"
      std: 0.03
    }
    bias_filler {
      type: "constant"
      value: 0.2
    }
  }
}
layer {
  name: "inception_4e/relu_1x1"
  type: "ReLU"
  bottom: "inception_4e/1x1"
  top: "inception_4e/1x1"
}
layer {
  name: "inception_4e/3x3_reduce"
  type: "Convolution"
  bottom: "inception_4d/output"
  top: "inception_4e/3x3_reduce"
  param {
    lr_mult: 1
    decay_mult: 1
  }
  param {
    lr_mult: 2
    decay_mult: 0
  }
  convolution_param {
    num_output: 160
    kernel_size: 1
    weight_filler {
      type: "xavier"
      std: 0.09
    }
    bias_filler {
      type: "constant"
      value: 0.2
    }
  }
}
layer {
  name: "inception_4e/relu_3x3_reduce"
  type: "ReLU"
  bottom: "inception_4e/3x3_reduce"
  top: "inception_4e/3x3_reduce"
}
layer {
  name: "inception_4e/3x3"
  type: "Convolution"
  bottom: "inception_4e/3x3_reduce"
  top: "inception_4e/3x3"
  param {
    lr_mult: 1
    decay_mult: 1
  }
  param {
    lr_mult: 2
    decay_mult: 0
  }
  convolution_param {
    num_output: 320
    pad: 1
    kernel_size: 3
    weight_filler {
      type: "xavier"
      std: 0.03
    }
    bias_filler {
      type: "constant"
      value: 0.2
    }
  }
}
layer {
  name: "inception_4e/relu_3x3"
  type: "ReLU"
  bottom: "inception_4e/3x3"
  top: "inception_4e/3x3"
}
layer {
  name: "inception_4e/5x5_reduce"
  type: "Convolution"
  bottom: "inception_4d/output"
  top: "inception_4e/5x5_reduce"
  param {
    lr_mult: 1
    decay_mult: 1
  }
  param {
    lr_mult: 2
    decay_mult: 0
  }
  convolution_param {
    num_output: 32
    kernel_size: 1
    weight_filler {
      type: "xavier"
      std: 0.2
    }
    bias_filler {
      type: "constant"
      value: 0.2
    }
  }
}
layer {
  name: "inception_4e/relu_5x5_reduce"
  type: "ReLU"
  bottom: "inception_4e/5x5_reduce"
  top: "inception_4e/5x5_reduce"
}
layer {
  name: "inception_4e/5x5"
  type: "Convolution"
  bottom: "inception_4e/5x5_reduce"
  top: "inception_4e/5x5"
  p
I0403 21:44:17.566296 12653 layer_factory.hpp:77] Creating layer data
I0403 21:44:17.567009 12653 net.cpp:91] Creating Layer data
I0403 21:44:17.567049 12653 net.cpp:399] data -> data
I0403 21:44:17.567111 12653 net.cpp:399] data -> label
I0403 21:44:17.567155 12653 data_transformer.cpp:25] Loading mean file from: /home/mohanty/data/final_dataset/lmdb/color-80-20/mean.binaryproto
I0403 21:44:17.568361 12656 db_lmdb.cpp:38] Opened lmdb /home/mohanty/data/final_dataset/lmdb/color-80-20/test_db
I0403 21:44:17.583745 12653 data_layer.cpp:41] output data size: 24,3,224,224
I0403 21:44:17.616874 12653 net.cpp:141] Setting up data
I0403 21:44:17.616983 12653 net.cpp:148] Top shape: 24 3 224 224 (3612672)
I0403 21:44:17.617010 12653 net.cpp:148] Top shape: 24 (24)
I0403 21:44:17.617028 12653 net.cpp:156] Memory required for data: 14450784
I0403 21:44:17.617060 12653 layer_factory.hpp:77] Creating layer label_data_1_split
I0403 21:44:17.617092 12653 net.cpp:91] Creating Layer label_data_1_split
I0403 21:44:17.617115 12653 net.cpp:425] label_data_1_split <- label
I0403 21:44:17.617154 12653 net.cpp:399] label_data_1_split -> label_data_1_split_0
I0403 21:44:17.617192 12653 net.cpp:399] label_data_1_split -> label_data_1_split_1
I0403 21:44:17.617220 12653 net.cpp:399] label_data_1_split -> label_data_1_split_2
I0403 21:44:17.617245 12653 net.cpp:399] label_data_1_split -> label_data_1_split_3
I0403 21:44:17.617269 12653 net.cpp:399] label_data_1_split -> label_data_1_split_4
I0403 21:44:17.617293 12653 net.cpp:399] label_data_1_split -> label_data_1_split_5
I0403 21:44:17.617317 12653 net.cpp:399] label_data_1_split -> label_data_1_split_6
I0403 21:44:17.617342 12653 net.cpp:399] label_data_1_split -> label_data_1_split_7
I0403 21:44:17.617365 12653 net.cpp:399] label_data_1_split -> label_data_1_split_8
I0403 21:44:17.617390 12653 net.cpp:399] label_data_1_split -> label_data_1_split_9
I0403 21:44:17.617529 12653 net.cpp:141] Setting up label_data_1_split
I0403 21:44:17.617558 12653 net.cpp:148] Top shape: 24 (24)
I0403 21:44:17.617581 12653 net.cpp:148] Top shape: 24 (24)
I0403 21:44:17.617600 12653 net.cpp:148] Top shape: 24 (24)
I0403 21:44:17.617620 12653 net.cpp:148] Top shape: 24 (24)
I0403 21:44:17.617640 12653 net.cpp:148] Top shape: 24 (24)
I0403 21:44:17.617658 12653 net.cpp:148] Top shape: 24 (24)
I0403 21:44:17.617679 12653 net.cpp:148] Top shape: 24 (24)
I0403 21:44:17.617699 12653 net.cpp:148] Top shape: 24 (24)
I0403 21:44:17.617718 12653 net.cpp:148] Top shape: 24 (24)
I0403 21:44:17.617739 12653 net.cpp:148] Top shape: 24 (24)
I0403 21:44:17.617795 12653 net.cpp:156] Memory required for data: 14451744
I0403 21:44:17.617815 12653 layer_factory.hpp:77] Creating layer conv1/7x7_s2
I0403 21:44:17.617854 12653 net.cpp:91] Creating Layer conv1/7x7_s2
I0403 21:44:17.617877 12653 net.cpp:425] conv1/7x7_s2 <- data
I0403 21:44:17.617902 12653 net.cpp:399] conv1/7x7_s2 -> conv1/7x7_s2
I0403 21:44:17.790426 12653 net.cpp:141] Setting up conv1/7x7_s2
I0403 21:44:17.790541 12653 net.cpp:148] Top shape: 24 64 112 112 (19267584)
I0403 21:44:17.790562 12653 net.cpp:156] Memory required for data: 91522080
I0403 21:44:17.790601 12653 layer_factory.hpp:77] Creating layer conv1/relu_7x7
I0403 21:44:17.790633 12653 net.cpp:91] Creating Layer conv1/relu_7x7
I0403 21:44:17.790657 12653 net.cpp:425] conv1/relu_7x7 <- conv1/7x7_s2
I0403 21:44:17.790684 12653 net.cpp:386] conv1/relu_7x7 -> conv1/7x7_s2 (in-place)
I0403 21:44:17.791016 12653 net.cpp:141] Setting up conv1/relu_7x7
I0403 21:44:17.791049 12653 net.cpp:148] Top shape: 24 64 112 112 (19267584)
I0403 21:44:17.791069 12653 net.cpp:156] Memory required for data: 168592416
I0403 21:44:17.791088 12653 layer_factory.hpp:77] Creating layer pool1/3x3_s2
I0403 21:44:17.791122 12653 net.cpp:91] Creating Layer pool1/3x3_s2
I0403 21:44:17.791146 12653 net.cpp:425] pool1/3x3_s2 <- conv1/7x7_s2
I0403 21:44:17.791168 12653 net.cpp:399] pool1/3x3_s2 -> pool1/3x3_s2
I0403 21:44:17.791270 12653 net.cpp:141] Setting up pool1/3x3_s2
I0403 21:44:17.791301 12653 net.cpp:148] Top shape: 24 64 56 56 (4816896)
I0403 21:44:17.791318 12653 net.cpp:156] Memory required for data: 187860000
I0403 21:44:17.791337 12653 layer_factory.hpp:77] Creating layer pool1/norm1
I0403 21:44:17.791370 12653 net.cpp:91] Creating Layer pool1/norm1
I0403 21:44:17.791393 12653 net.cpp:425] pool1/norm1 <- pool1/3x3_s2
I0403 21:44:17.791414 12653 net.cpp:399] pool1/norm1 -> pool1/norm1
I0403 21:44:17.791771 12653 net.cpp:141] Setting up pool1/norm1
I0403 21:44:17.791805 12653 net.cpp:148] Top shape: 24 64 56 56 (4816896)
I0403 21:44:17.791823 12653 net.cpp:156] Memory required for data: 207127584
I0403 21:44:17.791842 12653 layer_factory.hpp:77] Creating layer conv2/3x3_reduce
I0403 21:44:17.791877 12653 net.cpp:91] Creating Layer conv2/3x3_reduce
I0403 21:44:17.791898 12653 net.cpp:425] conv2/3x3_reduce <- pool1/norm1
I0403 21:44:17.791926 12653 net.cpp:399] conv2/3x3_reduce -> conv2/3x3_reduce
I0403 21:44:17.793679 12653 net.cpp:141] Setting up conv2/3x3_reduce
I0403 21:44:17.793716 12653 net.cpp:148] Top shape: 24 64 56 56 (4816896)
I0403 21:44:17.793736 12653 net.cpp:156] Memory required for data: 226395168
I0403 21:44:17.793761 12653 layer_factory.hpp:77] Creating layer conv2/relu_3x3_reduce
I0403 21:44:17.793786 12653 net.cpp:91] Creating Layer conv2/relu_3x3_reduce
I0403 21:44:17.793805 12653 net.cpp:425] conv2/relu_3x3_reduce <- conv2/3x3_reduce
I0403 21:44:17.793831 12653 net.cpp:386] conv2/relu_3x3_reduce -> conv2/3x3_reduce (in-place)
I0403 21:44:17.794149 12653 net.cpp:141] Setting up conv2/relu_3x3_reduce
I0403 21:44:17.794188 12653 net.cpp:148] Top shape: 24 64 56 56 (4816896)
I0403 21:44:17.794209 12653 net.cpp:156] Memory required for data: 245662752
I0403 21:44:17.794226 12653 layer_factory.hpp:77] Creating layer conv2/3x3
I0403 21:44:17.794256 12653 net.cpp:91] Creating Layer conv2/3x3
I0403 21:44:17.794278 12653 net.cpp:425] conv2/3x3 <- conv2/3x3_reduce
I0403 21:44:17.794306 12653 net.cpp:399] conv2/3x3 -> conv2/3x3
I0403 21:44:17.797128 12653 net.cpp:141] Setting up conv2/3x3
I0403 21:44:17.797165 12653 net.cpp:148] Top shape: 24 192 56 56 (14450688)
I0403 21:44:17.797258 12653 net.cpp:156] Memory required for data: 303465504
I0403 21:44:17.797289 12653 layer_factory.hpp:77] Creating layer conv2/relu_3x3
I0403 21:44:17.797313 12653 net.cpp:91] Creating Layer conv2/relu_3x3
I0403 21:44:17.797333 12653 net.cpp:425] conv2/relu_3x3 <- conv2/3x3
I0403 21:44:17.797359 12653 net.cpp:386] conv2/relu_3x3 -> conv2/3x3 (in-place)
I0403 21:44:17.797574 12653 net.cpp:141] Setting up conv2/relu_3x3
I0403 21:44:17.797605 12653 net.cpp:148] Top shape: 24 192 56 56 (14450688)
I0403 21:44:17.797659 12653 net.cpp:156] Memory required for data: 361268256
I0403 21:44:17.797678 12653 layer_factory.hpp:77] Creating layer conv2/norm2
I0403 21:44:17.797703 12653 net.cpp:91] Creating Layer conv2/norm2
I0403 21:44:17.797724 12653 net.cpp:425] conv2/norm2 <- conv2/3x3
I0403 21:44:17.797745 12653 net.cpp:399] conv2/norm2 -> conv2/norm2
I0403 21:44:17.798110 12653 net.cpp:141] Setting up conv2/norm2
I0403 21:44:17.798146 12653 net.cpp:148] Top shape: 24 192 56 56 (14450688)
I0403 21:44:17.798164 12653 net.cpp:156] Memory required for data: 419071008
I0403 21:44:17.798188 12653 layer_factory.hpp:77] Creating layer pool2/3x3_s2
I0403 21:44:17.798213 12653 net.cpp:91] Creating Layer pool2/3x3_s2
I0403 21:44:17.798233 12653 net.cpp:425] pool2/3x3_s2 <- conv2/norm2
I0403 21:44:17.798254 12653 net.cpp:399] pool2/3x3_s2 -> pool2/3x3_s2
I0403 21:44:17.798318 12653 net.cpp:141] Setting up pool2/3x3_s2
I0403 21:44:17.798346 12653 net.cpp:148] Top shape: 24 192 28 28 (3612672)
I0403 21:44:17.798364 12653 net.cpp:156] Memory required for data: 433521696
I0403 21:44:17.798383 12653 layer_factory.hpp:77] Creating layer pool2/3x3_s2_pool2/3x3_s2_0_split
I0403 21:44:17.798405 12653 net.cpp:91] Creating Layer pool2/3x3_s2_pool2/3x3_s2_0_split
I0403 21:44:17.798425 12653 net.cpp:425] pool2/3x3_s2_pool2/3x3_s2_0_split <- pool2/3x3_s2
I0403 21:44:17.798454 12653 net.cpp:399] pool2/3x3_s2_pool2/3x3_s2_0_split -> pool2/3x3_s2_pool2/3x3_s2_0_split_0
I0403 21:44:17.798480 12653 net.cpp:399] pool2/3x3_s2_pool2/3x3_s2_0_split -> pool2/3x3_s2_pool2/3x3_s2_0_split_1
I0403 21:44:17.798504 12653 net.cpp:399] pool2/3x3_s2_pool2/3x3_s2_0_split -> pool2/3x3_s2_pool2/3x3_s2_0_split_2
I0403 21:44:17.798537 12653 net.cpp:399] pool2/3x3_s2_pool2/3x3_s2_0_split -> pool2/3x3_s2_pool2/3x3_s2_0_split_3
I0403 21:44:17.798624 12653 net.cpp:141] Setting up pool2/3x3_s2_pool2/3x3_s2_0_split
I0403 21:44:17.798652 12653 net.cpp:148] Top shape: 24 192 28 28 (3612672)
I0403 21:44:17.798673 12653 net.cpp:148] Top shape: 24 192 28 28 (3612672)
I0403 21:44:17.798692 12653 net.cpp:148] Top shape: 24 192 28 28 (3612672)
I0403 21:44:17.798712 12653 net.cpp:148] Top shape: 24 192 28 28 (3612672)
I0403 21:44:17.798728 12653 net.cpp:156] Memory required for data: 491324448
I0403 21:44:17.798746 12653 layer_factory.hpp:77] Creating layer inception_3a/1x1
I0403 21:44:17.798774 12653 net.cpp:91] Creating Layer inception_3a/1x1
I0403 21:44:17.798796 12653 net.cpp:425] inception_3a/1x1 <- pool2/3x3_s2_pool2/3x3_s2_0_split_0
I0403 21:44:17.798822 12653 net.cpp:399] inception_3a/1x1 -> inception_3a/1x1
I0403 21:44:17.800678 12653 net.cpp:141] Setting up inception_3a/1x1
I0403 21:44:17.800716 12653 net.cpp:148] Top shape: 24 64 28 28 (1204224)
I0403 21:44:17.800739 12653 net.cpp:156] Memory required for data: 496141344
I0403 21:44:17.800762 12653 layer_factory.hpp:77] Creating layer inception_3a/relu_1x1
I0403 21:44:17.800786 12653 net.cpp:91] Creating Layer inception_3a/relu_1x1
I0403 21:44:17.800804 12653 net.cpp:425] inception_3a/relu_1x1 <- inception_3a/1x1
I0403 21:44:17.800828 12653 net.cpp:386] inception_3a/relu_1x1 -> inception_3a/1x1 (in-place)
I0403 21:44:17.801035 12653 net.cpp:141] Setting up inception_3a/relu_1x1
I0403 21:44:17.801067 12653 net.cpp:148] Top shape: 24 64 28 28 (1204224)
I0403 21:44:17.801086 12653 net.cpp:156] Memory required for data: 500958240
I0403 21:44:17.801105 12653 layer_factory.hpp:77] Creating layer inception_3a/3x3_reduce
I0403 21:44:17.801133 12653 net.cpp:91] Creating Layer inception_3a/3x3_reduce
I0403 21:44:17.801156 12653 net.cpp:425] inception_3a/3x3_reduce <- pool2/3x3_s2_pool2/3x3_s2_0_split_1
I0403 21:44:17.801187 12653 net.cpp:399] inception_3a/3x3_reduce -> inception_3a/3x3_reduce
I0403 21:44:17.803210 12653 net.cpp:141] Setting up inception_3a/3x3_reduce
I0403 21:44:17.803246 12653 net.cpp:148] Top shape: 24 96 28 28 (1806336)
I0403 21:44:17.803267 12653 net.cpp:156] Memory required for data: 508183584
I0403 21:44:17.803293 12653 layer_factory.hpp:77] Creating layer inception_3a/relu_3x3_reduce
I0403 21:44:17.803339 12653 net.cpp:91] Creating Layer inception_3a/relu_3x3_reduce
I0403 21:44:17.803361 12653 net.cpp:425] inception_3a/relu_3x3_reduce <- inception_3a/3x3_reduce
I0403 21:44:17.803385 12653 net.cpp:386] inception_3a/relu_3x3_reduce -> inception_3a/3x3_reduce (in-place)
I0403 21:44:17.803603 12653 net.cpp:141] Setting up inception_3a/relu_3x3_reduce
I0403 21:44:17.803639 12653 net.cpp:148] Top shape: 24 96 28 28 (1806336)
I0403 21:44:17.803659 12653 net.cpp:156] Memory required for data: 515408928
I0403 21:44:17.803678 12653 layer_factory.hpp:77] Creating layer inception_3a/3x3
I0403 21:44:17.803706 12653 net.cpp:91] Creating Layer inception_3a/3x3
I0403 21:44:17.803727 12653 net.cpp:425] inception_3a/3x3 <- inception_3a/3x3_reduce
I0403 21:44:17.803750 12653 net.cpp:399] inception_3a/3x3 -> inception_3a/3x3
I0403 21:44:17.805748 12653 net.cpp:141] Setting up inception_3a/3x3
I0403 21:44:17.805784 12653 net.cpp:148] Top shape: 24 128 28 28 (2408448)
I0403 21:44:17.805804 12653 net.cpp:156] Memory required for data: 525042720
I0403 21:44:17.805826 12653 layer_factory.hpp:77] Creating layer inception_3a/relu_3x3
I0403 21:44:17.805848 12653 net.cpp:91] Creating Layer inception_3a/relu_3x3
I0403 21:44:17.805872 12653 net.cpp:425] inception_3a/relu_3x3 <- inception_3a/3x3
I0403 21:44:17.805894 12653 net.cpp:386] inception_3a/relu_3x3 -> inception_3a/3x3 (in-place)
I0403 21:44:17.806232 12653 net.cpp:141] Setting up inception_3a/relu_3x3
I0403 21:44:17.806265 12653 net.cpp:148] Top shape: 24 128 28 28 (2408448)
I0403 21:44:17.806283 12653 net.cpp:156] Memory required for data: 534676512
I0403 21:44:17.806303 12653 layer_factory.hpp:77] Creating layer inception_3a/5x5_reduce
I0403 21:44:17.806331 12653 net.cpp:91] Creating Layer inception_3a/5x5_reduce
I0403 21:44:17.806355 12653 net.cpp:425] inception_3a/5x5_reduce <- pool2/3x3_s2_pool2/3x3_s2_0_split_2
I0403 21:44:17.806382 12653 net.cpp:399] inception_3a/5x5_reduce -> inception_3a/5x5_reduce
I0403 21:44:17.807538 12653 net.cpp:141] Setting up inception_3a/5x5_reduce
I0403 21:44:17.807572 12653 net.cpp:148] Top shape: 24 16 28 28 (301056)
I0403 21:44:17.807590 12653 net.cpp:156] Memory required for data: 535880736
I0403 21:44:17.807613 12653 layer_factory.hpp:77] Creating layer inception_3a/relu_5x5_reduce
I0403 21:44:17.807639 12653 net.cpp:91] Creating Layer inception_3a/relu_5x5_reduce
I0403 21:44:17.807660 12653 net.cpp:425] inception_3a/relu_5x5_reduce <- inception_3a/5x5_reduce
I0403 21:44:17.807683 12653 net.cpp:386] inception_3a/relu_5x5_reduce -> inception_3a/5x5_reduce (in-place)
I0403 21:44:17.808012 12653 net.cpp:141] Setting up inception_3a/relu_5x5_reduce
I0403 21:44:17.808043 12653 net.cpp:148] Top shape: 24 16 28 28 (301056)
I0403 21:44:17.808063 12653 net.cpp:156] Memory required for data: 537084960
I0403 21:44:17.808080 12653 layer_factory.hpp:77] Creating layer inception_3a/5x5
I0403 21:44:17.808109 12653 net.cpp:91] Creating Layer inception_3a/5x5
I0403 21:44:17.808131 12653 net.cpp:425] inception_3a/5x5 <- inception_3a/5x5_reduce
I0403 21:44:17.808157 12653 net.cpp:399] inception_3a/5x5 -> inception_3a/5x5
I0403 21:44:17.809376 12653 net.cpp:141] Setting up inception_3a/5x5
I0403 21:44:17.809413 12653 net.cpp:148] Top shape: 24 32 28 28 (602112)
I0403 21:44:17.809434 12653 net.cpp:156] Memory required for data: 539493408
I0403 21:44:17.809458 12653 layer_factory.hpp:77] Creating layer inception_3a/relu_5x5
I0403 21:44:17.809481 12653 net.cpp:91] Creating Layer inception_3a/relu_5x5
I0403 21:44:17.809502 12653 net.cpp:425] inception_3a/relu_5x5 <- inception_3a/5x5
I0403 21:44:17.809526 12653 net.cpp:386] inception_3a/relu_5x5 -> inception_3a/5x5 (in-place)
I0403 21:44:17.809736 12653 net.cpp:141] Setting up inception_3a/relu_5x5
I0403 21:44:17.809767 12653 net.cpp:148] Top shape: 24 32 28 28 (602112)
I0403 21:44:17.809785 12653 net.cpp:156] Memory required for data: 541901856
I0403 21:44:17.809805 12653 layer_factory.hpp:77] Creating layer inception_3a/pool
I0403 21:44:17.809828 12653 net.cpp:91] Creating Layer inception_3a/pool
I0403 21:44:17.809846 12653 net.cpp:425] inception_3a/pool <- pool2/3x3_s2_pool2/3x3_s2_0_split_3
I0403 21:44:17.809893 12653 net.cpp:399] inception_3a/pool -> inception_3a/pool
I0403 21:44:17.809967 12653 net.cpp:141] Setting up inception_3a/pool
I0403 21:44:17.809995 12653 net.cpp:148] Top shape: 24 192 28 28 (3612672)
I0403 21:44:17.810014 12653 net.cpp:156] Memory required for data: 556352544
I0403 21:44:17.810032 12653 layer_factory.hpp:77] Creating layer inception_3a/pool_proj
I0403 21:44:17.810060 12653 net.cpp:91] Creating Layer inception_3a/pool_proj
I0403 21:44:17.810082 12653 net.cpp:425] inception_3a/pool_proj <- inception_3a/pool
I0403 21:44:17.810108 12653 net.cpp:399] inception_3a/pool_proj -> inception_3a/pool_proj
I0403 21:44:17.811277 12653 net.cpp:141] Setting up inception_3a/pool_proj
I0403 21:44:17.811311 12653 net.cpp:148] Top shape: 24 32 28 28 (602112)
I0403 21:44:17.811332 12653 net.cpp:156] Memory required for data: 558760992
I0403 21:44:17.811362 12653 layer_factory.hpp:77] Creating layer inception_3a/relu_pool_proj
I0403 21:44:17.811390 12653 net.cpp:91] Creating Layer inception_3a/relu_pool_proj
I0403 21:44:17.811413 12653 net.cpp:425] inception_3a/relu_pool_proj <- inception_3a/pool_proj
I0403 21:44:17.811435 12653 net.cpp:386] inception_3a/relu_pool_proj -> inception_3a/pool_proj (in-place)
I0403 21:44:17.811761 12653 net.cpp:141] Setting up inception_3a/relu_pool_proj
I0403 21:44:17.811795 12653 net.cpp:148] Top shape: 24 32 28 28 (602112)
I0403 21:44:17.811815 12653 net.cpp:156] Memory required for data: 561169440
I0403 21:44:17.811833 12653 layer_factory.hpp:77] Creating layer inception_3a/output
I0403 21:44:17.811857 12653 net.cpp:91] Creating Layer inception_3a/output
I0403 21:44:17.811877 12653 net.cpp:425] inception_3a/output <- inception_3a/1x1
I0403 21:44:17.811898 12653 net.cpp:425] inception_3a/output <- inception_3a/3x3
I0403 21:44:17.811918 12653 net.cpp:425] inception_3a/output <- inception_3a/5x5
I0403 21:44:17.811939 12653 net.cpp:425] inception_3a/output <- inception_3a/pool_proj
I0403 21:44:17.811964 12653 net.cpp:399] inception_3a/output -> inception_3a/output
I0403 21:44:17.812019 12653 net.cpp:141] Setting up inception_3a/output
I0403 21:44:17.812050 12653 net.cpp:148] Top shape: 24 256 28 28 (4816896)
I0403 21:44:17.812070 12653 net.cpp:156] Memory required for data: 580437024
I0403 21:44:17.812089 12653 layer_factory.hpp:77] Creating layer inception_3a/output_inception_3a/output_0_split
I0403 21:44:17.812110 12653 net.cpp:91] Creating Layer inception_3a/output_inception_3a/output_0_split
I0403 21:44:17.812130 12653 net.cpp:425] inception_3a/output_inception_3a/output_0_split <- inception_3a/output
I0403 21:44:17.812152 12653 net.cpp:399] inception_3a/output_inception_3a/output_0_split -> inception_3a/output_inception_3a/output_0_split_0
I0403 21:44:17.812194 12653 net.cpp:399] inception_3a/output_inception_3a/output_0_split -> inception_3a/output_inception_3a/output_0_split_1
I0403 21:44:17.812227 12653 net.cpp:399] inception_3a/output_inception_3a/output_0_split -> inception_3a/output_inception_3a/output_0_split_2
I0403 21:44:17.812254 12653 net.cpp:399] inception_3a/output_inception_3a/output_0_split -> inception_3a/output_inception_3a/output_0_split_3
I0403 21:44:17.812345 12653 net.cpp:141] Setting up inception_3a/output_inception_3a/output_0_split
I0403 21:44:17.812376 12653 net.cpp:148] Top shape: 24 256 28 28 (4816896)
I0403 21:44:17.812397 12653 net.cpp:148] Top shape: 24 256 28 28 (4816896)
I0403 21:44:17.812417 12653 net.cpp:148] Top shape: 24 256 28 28 (4816896)
I0403 21:44:17.812436 12653 net.cpp:148] Top shape: 24 256 28 28 (4816896)
I0403 21:44:17.812453 12653 net.cpp:156] Memory required for data: 657507360
I0403 21:44:17.812472 12653 layer_factory.hpp:77] Creating layer inception_3b/1x1
I0403 21:44:17.812500 12653 net.cpp:91] Creating Layer inception_3b/1x1
I0403 21:44:17.812521 12653 net.cpp:425] inception_3b/1x1 <- inception_3a/output_inception_3a/output_0_split_0
I0403 21:44:17.812547 12653 net.cpp:399] inception_3b/1x1 -> inception_3b/1x1
I0403 21:44:17.813922 12653 net.cpp:141] Setting up inception_3b/1x1
I0403 21:44:17.813973 12653 net.cpp:148] Top shape: 24 128 28 28 (2408448)
I0403 21:44:17.813995 12653 net.cpp:156] Memory required for data: 667141152
I0403 21:44:17.814018 12653 layer_factory.hpp:77] Creating layer inception_3b/relu_1x1
I0403 21:44:17.814039 12653 net.cpp:91] Creating Layer inception_3b/relu_1x1
I0403 21:44:17.814059 12653 net.cpp:425] inception_3b/relu_1x1 <- inception_3b/1x1
I0403 21:44:17.814080 12653 net.cpp:386] inception_3b/relu_1x1 -> inception_3b/1x1 (in-place)
I0403 21:44:17.814304 12653 net.cpp:141] Setting up inception_3b/relu_1x1
I0403 21:44:17.814337 12653 net.cpp:148] Top shape: 24 128 28 28 (2408448)
I0403 21:44:17.814357 12653 net.cpp:156] Memory required for data: 676774944
I0403 21:44:17.814375 12653 layer_factory.hpp:77] Creating layer inception_3b/3x3_reduce
I0403 21:44:17.814404 12653 net.cpp:91] Creating Layer inception_3b/3x3_reduce
I0403 21:44:17.814427 12653 net.cpp:425] inception_3b/3x3_reduce <- inception_3a/output_inception_3a/output_0_split_1
I0403 21:44:17.814453 12653 net.cpp:399] inception_3b/3x3_reduce -> inception_3b/3x3_reduce
I0403 21:44:17.815824 12653 net.cpp:141] Setting up inception_3b/3x3_reduce
I0403 21:44:17.815861 12653 net.cpp:148] Top shape: 24 128 28 28 (2408448)
I0403 21:44:17.815882 12653 net.cpp:156] Memory required for data: 686408736
I0403 21:44:17.815907 12653 layer_factory.hpp:77] Creating layer inception_3b/relu_3x3_reduce
I0403 21:44:17.815929 12653 net.cpp:91] Creating Layer inception_3b/relu_3x3_reduce
I0403 21:44:17.815950 12653 net.cpp:425] inception_3b/relu_3x3_reduce <- inception_3b/3x3_reduce
I0403 21:44:17.815974 12653 net.cpp:386] inception_3b/relu_3x3_reduce -> inception_3b/3x3_reduce (in-place)
I0403 21:44:17.816187 12653 net.cpp:141] Setting up inception_3b/relu_3x3_reduce
I0403 21:44:17.816220 12653 net.cpp:148] Top shape: 24 128 28 28 (2408448)
I0403 21:44:17.816237 12653 net.cpp:156] Memory required for data: 696042528
I0403 21:44:17.816256 12653 layer_factory.hpp:77] Creating layer inception_3b/3x3
I0403 21:44:17.816288 12653 net.cpp:91] Creating Layer inception_3b/3x3
I0403 21:44:17.816311 12653 net.cpp:425] inception_3b/3x3 <- inception_3b/3x3_reduce
I0403 21:44:17.816336 12653 net.cpp:399] inception_3b/3x3 -> inception_3b/3x3
I0403 21:44:17.819883 12653 net.cpp:141] Setting up inception_3b/3x3
I0403 21:44:17.819921 12653 net.cpp:148] Top shape: 24 192 28 28 (3612672)
I0403 21:44:17.819939 12653 net.cpp:156] Memory required for data: 710493216
I0403 21:44:17.819962 12653 layer_factory.hpp:77] Creating layer inception_3b/relu_3x3
I0403 21:44:17.819985 12653 net.cpp:91] Creating Layer inception_3b/relu_3x3
I0403 21:44:17.820009 12653 net.cpp:425] inception_3b/relu_3x3 <- inception_3b/3x3
I0403 21:44:17.820030 12653 net.cpp:386] inception_3b/relu_3x3 -> inception_3b/3x3 (in-place)
I0403 21:44:17.820364 12653 net.cpp:141] Setting up inception_3b/relu_3x3
I0403 21:44:17.820397 12653 net.cpp:148] Top shape: 24 192 28 28 (3612672)
I0403 21:44:17.820416 12653 net.cpp:156] Memory required for data: 724943904
I0403 21:44:17.820435 12653 layer_factory.hpp:77] Creating layer inception_3b/5x5_reduce
I0403 21:44:17.820464 12653 net.cpp:91] Creating Layer inception_3b/5x5_reduce
I0403 21:44:17.820487 12653 net.cpp:425] inception_3b/5x5_reduce <- inception_3a/output_inception_3a/output_0_split_2
I0403 21:44:17.820514 12653 net.cpp:399] inception_3b/5x5_reduce -> inception_3b/5x5_reduce
I0403 21:44:17.821709 12653 net.cpp:141] Setting up inception_3b/5x5_reduce
I0403 21:44:17.821746 12653 net.cpp:148] Top shape: 24 32 28 28 (602112)
I0403 21:44:17.821766 12653 net.cpp:156] Memory required for data: 727352352
I0403 21:44:17.821789 12653 layer_factory.hpp:77] Creating layer inception_3b/relu_5x5_reduce
I0403 21:44:17.821813 12653 net.cpp:91] Creating Layer inception_3b/relu_5x5_reduce
I0403 21:44:17.821833 12653 net.cpp:425] inception_3b/relu_5x5_reduce <- inception_3b/5x5_reduce
I0403 21:44:17.821859 12653 net.cpp:386] inception_3b/relu_5x5_reduce -> inception_3b/5x5_reduce (in-place)
I0403 21:44:17.822072 12653 net.cpp:141] Setting up inception_3b/relu_5x5_reduce
I0403 21:44:17.822118 12653 net.cpp:148] Top shape: 24 32 28 28 (602112)
I0403 21:44:17.822139 12653 net.cpp:156] Memory required for data: 729760800
I0403 21:44:17.822157 12653 layer_factory.hpp:77] Creating layer inception_3b/5x5
I0403 21:44:17.822198 12653 net.cpp:91] Creating Layer inception_3b/5x5
I0403 21:44:17.822226 12653 net.cpp:425] inception_3b/5x5 <- inception_3b/5x5_reduce
I0403 21:44:17.822252 12653 net.cpp:399] inception_3b/5x5 -> inception_3b/5x5
I0403 21:44:17.824645 12653 net.cpp:141] Setting up inception_3b/5x5
I0403 21:44:17.824683 12653 net.cpp:148] Top shape: 24 96 28 28 (1806336)
I0403 21:44:17.824703 12653 net.cpp:156] Memory required for data: 736986144
I0403 21:44:17.824726 12653 layer_factory.hpp:77] Creating layer inception_3b/relu_5x5
I0403 21:44:17.824750 12653 net.cpp:91] Creating Layer inception_3b/relu_5x5
I0403 21:44:17.824770 12653 net.cpp:425] inception_3b/relu_5x5 <- inception_3b/5x5
I0403 21:44:17.824796 12653 net.cpp:386] inception_3b/relu_5x5 -> inception_3b/5x5 (in-place)
I0403 21:44:17.825026 12653 net.cpp:141] Setting up inception_3b/relu_5x5
I0403 21:44:17.825057 12653 net.cpp:148] Top shape: 24 96 28 28 (1806336)
I0403 21:44:17.825075 12653 net.cpp:156] Memory required for data: 744211488
I0403 21:44:17.825095 12653 layer_factory.hpp:77] Creating layer inception_3b/pool
I0403 21:44:17.825119 12653 net.cpp:91] Creating Layer inception_3b/pool
I0403 21:44:17.825140 12653 net.cpp:425] inception_3b/pool <- inception_3a/output_inception_3a/output_0_split_3
I0403 21:44:17.825162 12653 net.cpp:399] inception_3b/pool -> inception_3b/pool
I0403 21:44:17.825237 12653 net.cpp:141] Setting up inception_3b/pool
I0403 21:44:17.825265 12653 net.cpp:148] Top shape: 24 256 28 28 (4816896)
I0403 21:44:17.825284 12653 net.cpp:156] Memory required for data: 763479072
I0403 21:44:17.825302 12653 layer_factory.hpp:77] Creating layer inception_3b/pool_proj
I0403 21:44:17.825335 12653 net.cpp:91] Creating Layer inception_3b/pool_proj
I0403 21:44:17.825357 12653 net.cpp:425] inception_3b/pool_proj <- inception_3b/pool
I0403 21:44:17.825381 12653 net.cpp:399] inception_3b/pool_proj -> inception_3b/pool_proj
I0403 21:44:17.826660 12653 net.cpp:141] Setting up inception_3b/pool_proj
I0403 21:44:17.826695 12653 net.cpp:148] Top shape: 24 64 28 28 (1204224)
I0403 21:44:17.826715 12653 net.cpp:156] Memory required for data: 768295968
I0403 21:44:17.826740 12653 layer_factory.hpp:77] Creating layer inception_3b/relu_pool_proj
I0403 21:44:17.826766 12653 net.cpp:91] Creating Layer inception_3b/relu_pool_proj
I0403 21:44:17.826786 12653 net.cpp:425] inception_3b/relu_pool_proj <- inception_3b/pool_proj
I0403 21:44:17.826807 12653 net.cpp:386] inception_3b/relu_pool_proj -> inception_3b/pool_proj (in-place)
I0403 21:44:17.827272 12653 net.cpp:141] Setting up inception_3b/relu_pool_proj
I0403 21:44:17.827306 12653 net.cpp:148] Top shape: 24 64 28 28 (1204224)
I0403 21:44:17.827325 12653 net.cpp:156] Memory required for data: 773112864
I0403 21:44:17.827347 12653 layer_factory.hpp:77] Creating layer inception_3b/output
I0403 21:44:17.827368 12653 net.cpp:91] Creating Layer inception_3b/output
I0403 21:44:17.827391 12653 net.cpp:425] inception_3b/output <- inception_3b/1x1
I0403 21:44:17.827414 12653 net.cpp:425] inception_3b/output <- inception_3b/3x3
I0403 21:44:17.827435 12653 net.cpp:425] inception_3b/output <- inception_3b/5x5
I0403 21:44:17.827453 12653 net.cpp:425] inception_3b/output <- inception_3b/pool_proj
I0403 21:44:17.827476 12653 net.cpp:399] inception_3b/output -> inception_3b/output
I0403 21:44:17.827528 12653 net.cpp:141] Setting up inception_3b/output
I0403 21:44:17.827559 12653 net.cpp:148] Top shape: 24 480 28 28 (9031680)
I0403 21:44:17.827579 12653 net.cpp:156] Memory required for data: 809239584
I0403 21:44:17.827597 12653 layer_factory.hpp:77] Creating layer pool3/3x3_s2
I0403 21:44:17.827620 12653 net.cpp:91] Creating Layer pool3/3x3_s2
I0403 21:44:17.827639 12653 net.cpp:425] pool3/3x3_s2 <- inception_3b/output
I0403 21:44:17.827663 12653 net.cpp:399] pool3/3x3_s2 -> pool3/3x3_s2
I0403 21:44:17.827750 12653 net.cpp:141] Setting up pool3/3x3_s2
I0403 21:44:17.827781 12653 net.cpp:148] Top shape: 24 480 14 14 (2257920)
I0403 21:44:17.827801 12653 net.cpp:156] Memory required for data: 818271264
I0403 21:44:17.827819 12653 layer_factory.hpp:77] Creating layer pool3/3x3_s2_pool3/3x3_s2_0_split
I0403 21:44:17.827842 12653 net.cpp:91] Creating Layer pool3/3x3_s2_pool3/3x3_s2_0_split
I0403 21:44:17.827862 12653 net.cpp:425] pool3/3x3_s2_pool3/3x3_s2_0_split <- pool3/3x3_s2
I0403 21:44:17.827883 12653 net.cpp:399] pool3/3x3_s2_pool3/3x3_s2_0_split -> pool3/3x3_s2_pool3/3x3_s2_0_split_0
I0403 21:44:17.827906 12653 net.cpp:399] pool3/3x3_s2_pool3/3x3_s2_0_split -> pool3/3x3_s2_pool3/3x3_s2_0_split_1
I0403 21:44:17.827934 12653 net.cpp:399] pool3/3x3_s2_pool3/3x3_s2_0_split -> pool3/3x3_s2_pool3/3x3_s2_0_split_2
I0403 21:44:17.827960 12653 net.cpp:399] pool3/3x3_s2_pool3/3x3_s2_0_split -> pool3/3x3_s2_pool3/3x3_s2_0_split_3
I0403 21:44:17.828054 12653 net.cpp:141] Setting up pool3/3x3_s2_pool3/3x3_s2_0_split
I0403 21:44:17.828081 12653 net.cpp:148] Top shape: 24 480 14 14 (2257920)
I0403 21:44:17.828101 12653 net.cpp:148] Top shape: 24 480 14 14 (2257920)
I0403 21:44:17.828121 12653 net.cpp:148] Top shape: 24 480 14 14 (2257920)
I0403 21:44:17.828140 12653 net.cpp:148] Top shape: 24 480 14 14 (2257920)
I0403 21:44:17.828158 12653 net.cpp:156] Memory required for data: 854397984
I0403 21:44:17.828183 12653 layer_factory.hpp:77] Creating layer inception_4a/1x1
I0403 21:44:17.828212 12653 net.cpp:91] Creating Layer inception_4a/1x1
I0403 21:44:17.828233 12653 net.cpp:425] inception_4a/1x1 <- pool3/3x3_s2_pool3/3x3_s2_0_split_0
I0403 21:44:17.828260 12653 net.cpp:399] inception_4a/1x1 -> inception_4a/1x1
I0403 21:44:17.830165 12653 net.cpp:141] Setting up inception_4a/1x1
I0403 21:44:17.830205 12653 net.cpp:148] Top shape: 24 192 14 14 (903168)
I0403 21:44:17.830225 12653 net.cpp:156] Memory required for data: 858010656
I0403 21:44:17.830248 12653 layer_factory.hpp:77] Creating layer inception_4a/relu_1x1
I0403 21:44:17.830273 12653 net.cpp:91] Creating Layer inception_4a/relu_1x1
I0403 21:44:17.830294 12653 net.cpp:425] inception_4a/relu_1x1 <- inception_4a/1x1
I0403 21:44:17.830317 12653 net.cpp:386] inception_4a/relu_1x1 -> inception_4a/1x1 (in-place)
I0403 21:44:17.830529 12653 net.cpp:141] Setting up inception_4a/relu_1x1
I0403 21:44:17.830565 12653 net.cpp:148] Top shape: 24 192 14 14 (903168)
I0403 21:44:17.830586 12653 net.cpp:156] Memory required for data: 861623328
I0403 21:44:17.830605 12653 layer_factory.hpp:77] Creating layer inception_4a/3x3_reduce
I0403 21:44:17.830631 12653 net.cpp:91] Creating Layer inception_4a/3x3_reduce
I0403 21:44:17.830653 12653 net.cpp:425] inception_4a/3x3_reduce <- pool3/3x3_s2_pool3/3x3_s2_0_split_1
I0403 21:44:17.830679 12653 net.cpp:399] inception_4a/3x3_reduce -> inception_4a/3x3_reduce
I0403 21:44:17.832228 12653 net.cpp:141] Setting up inception_4a/3x3_reduce
I0403 21:44:17.832262 12653 net.cpp:148] Top shape: 24 96 14 14 (451584)
I0403 21:44:17.832281 12653 net.cpp:156] Memory required for data: 863429664
I0403 21:44:17.832312 12653 layer_factory.hpp:77] Creating layer inception_4a/relu_3x3_reduce
I0403 21:44:17.832342 12653 net.cpp:91] Creating Layer inception_4a/relu_3x3_reduce
I0403 21:44:17.832363 12653 net.cpp:425] inception_4a/relu_3x3_reduce <- inception_4a/3x3_reduce
I0403 21:44:17.832386 12653 net.cpp:386] inception_4a/relu_3x3_reduce -> inception_4a/3x3_reduce (in-place)
I0403 21:44:17.832605 12653 net.cpp:141] Setting up inception_4a/relu_3x3_reduce
I0403 21:44:17.832639 12653 net.cpp:148] Top shape: 24 96 14 14 (451584)
I0403 21:44:17.832659 12653 net.cpp:156] Memory required for data: 865236000
I0403 21:44:17.832677 12653 layer_factory.hpp:77] Creating layer inception_4a/3x3
I0403 21:44:17.832705 12653 net.cpp:91] Creating Layer inception_4a/3x3
I0403 21:44:17.832727 12653 net.cpp:425] inception_4a/3x3 <- inception_4a/3x3_reduce
I0403 21:44:17.832752 12653 net.cpp:399] inception_4a/3x3 -> inception_4a/3x3
I0403 21:44:17.836027 12653 net.cpp:141] Setting up inception_4a/3x3
I0403 21:44:17.836067 12653 net.cpp:148] Top shape: 24 208 14 14 (978432)
I0403 21:44:17.836088 12653 net.cpp:156] Memory required for data: 869149728
I0403 21:44:17.836112 12653 layer_factory.hpp:77] Creating layer inception_4a/relu_3x3
I0403 21:44:17.836133 12653 net.cpp:91] Creating Layer inception_4a/relu_3x3
I0403 21:44:17.836153 12653 net.cpp:425] inception_4a/relu_3x3 <- inception_4a/3x3
I0403 21:44:17.836184 12653 net.cpp:386] inception_4a/relu_3x3 -> inception_4a/3x3 (in-place)
I0403 21:44:17.836516 12653 net.cpp:141] Setting up inception_4a/relu_3x3
I0403 21:44:17.836555 12653 net.cpp:148] Top shape: 24 208 14 14 (978432)
I0403 21:44:17.836576 12653 net.cpp:156] Memory required for data: 873063456
I0403 21:44:17.836596 12653 layer_factory.hpp:77] Creating layer inception_4a/5x5_reduce
I0403 21:44:17.836626 12653 net.cpp:91] Creating Layer inception_4a/5x5_reduce
I0403 21:44:17.836648 12653 net.cpp:425] inception_4a/5x5_reduce <- pool3/3x3_s2_pool3/3x3_s2_0_split_2
I0403 21:44:17.836673 12653 net.cpp:399] inception_4a/5x5_reduce -> inception_4a/5x5_reduce
I0403 21:44:17.837904 12653 net.cpp:141] Setting up inception_4a/5x5_reduce
I0403 21:44:17.837941 12653 net.cpp:148] Top shape: 24 16 14 14 (75264)
I0403 21:44:17.837962 12653 net.cpp:156] Memory required for data: 873364512
I0403 21:44:17.837985 12653 layer_factory.hpp:77] Creating layer inception_4a/relu_5x5_reduce
I0403 21:44:17.838008 12653 net.cpp:91] Creating Layer inception_4a/relu_5x5_reduce
I0403 21:44:17.838028 12653 net.cpp:425] inception_4a/relu_5x5_reduce <- inception_4a/5x5_reduce
I0403 21:44:17.838054 12653 net.cpp:386] inception_4a/relu_5x5_reduce -> inception_4a/5x5_reduce (in-place)
I0403 21:44:17.838277 12653 net.cpp:141] Setting up inception_4a/relu_5x5_reduce
I0403 21:44:17.838309 12653 net.cpp:148] Top shape: 24 16 14 14 (75264)
I0403 21:44:17.838328 12653 net.cpp:156] Memory required for data: 873665568
I0403 21:44:17.838347 12653 layer_factory.hpp:77] Creating layer inception_4a/5x5
I0403 21:44:17.838376 12653 net.cpp:91] Creating Layer inception_4a/5x5
I0403 21:44:17.838397 12653 net.cpp:425] inception_4a/5x5 <- inception_4a/5x5_reduce
I0403 21:44:17.838424 12653 net.cpp:399] inception_4a/5x5 -> inception_4a/5x5
I0403 21:44:17.839738 12653 net.cpp:141] Setting up inception_4a/5x5
I0403 21:44:17.839772 12653 net.cpp:148] Top shape: 24 48 14 14 (225792)
I0403 21:44:17.839790 12653 net.cpp:156] Memory required for data: 874568736
I0403 21:44:17.839814 12653 layer_factory.hpp:77] Creating layer inception_4a/relu_5x5
I0403 21:44:17.839840 12653 net.cpp:91] Creating Layer inception_4a/relu_5x5
I0403 21:44:17.839861 12653 net.cpp:425] inception_4a/relu_5x5 <- inception_4a/5x5
I0403 21:44:17.839884 12653 net.cpp:386] inception_4a/relu_5x5 -> inception_4a/5x5 (in-place)
I0403 21:44:17.840097 12653 net.cpp:141] Setting up inception_4a/relu_5x5
I0403 21:44:17.840129 12653 net.cpp:148] Top shape: 24 48 14 14 (225792)
I0403 21:44:17.840149 12653 net.cpp:156] Memory required for data: 875471904
I0403 21:44:17.840168 12653 layer_factory.hpp:77] Creating layer inception_4a/pool
I0403 21:44:17.840201 12653 net.cpp:91] Creating Layer inception_4a/pool
I0403 21:44:17.840225 12653 net.cpp:425] inception_4a/pool <- pool3/3x3_s2_pool3/3x3_s2_0_split_3
I0403 21:44:17.840247 12653 net.cpp:399] inception_4a/pool -> inception_4a/pool
I0403 21:44:17.840325 12653 net.cpp:141] Setting up inception_4a/pool
I0403 21:44:17.840355 12653 net.cpp:148] Top shape: 24 480 14 14 (2257920)
I0403 21:44:17.840373 12653 net.cpp:156] Memory required for data: 884503584
I0403 21:44:17.840392 12653 layer_factory.hpp:77] Creating layer inception_4a/pool_proj
I0403 21:44:17.840423 12653 net.cpp:91] Creating Layer inception_4a/pool_proj
I0403 21:44:17.840446 12653 net.cpp:425] inception_4a/pool_proj <- inception_4a/pool
I0403 21:44:17.840472 12653 net.cpp:399] inception_4a/pool_proj -> inception_4a/pool_proj
I0403 21:44:17.841882 12653 net.cpp:141] Setting up inception_4a/pool_proj
I0403 21:44:17.841919 12653 net.cpp:148] Top shape: 24 64 14 14 (301056)
I0403 21:44:17.841958 12653 net.cpp:156] Memory required for data: 885707808
I0403 21:44:17.841982 12653 layer_factory.hpp:77] Creating layer inception_4a/relu_pool_proj
I0403 21:44:17.842010 12653 net.cpp:91] Creating Layer inception_4a/relu_pool_proj
I0403 21:44:17.842031 12653 net.cpp:425] inception_4a/relu_pool_proj <- inception_4a/pool_proj
I0403 21:44:17.842052 12653 net.cpp:386] inception_4a/relu_pool_proj -> inception_4a/pool_proj (in-place)
I0403 21:44:17.842403 12653 net.cpp:141] Setting up inception_4a/relu_pool_proj
I0403 21:44:17.842437 12653 net.cpp:148] Top shape: 24 64 14 14 (301056)
I0403 21:44:17.842455 12653 net.cpp:156] Memory required for data: 886912032
I0403 21:44:17.842474 12653 layer_factory.hpp:77] Creating layer inception_4a/output
I0403 21:44:17.842500 12653 net.cpp:91] Creating Layer inception_4a/output
I0403 21:44:17.842521 12653 net.cpp:425] inception_4a/output <- inception_4a/1x1
I0403 21:44:17.842543 12653 net.cpp:425] inception_4a/output <- inception_4a/3x3
I0403 21:44:17.842563 12653 net.cpp:425] inception_4a/output <- inception_4a/5x5
I0403 21:44:17.842583 12653 net.cpp:425] inception_4a/output <- inception_4a/pool_proj
I0403 21:44:17.842605 12653 net.cpp:399] inception_4a/output -> inception_4a/output
I0403 21:44:17.842663 12653 net.cpp:141] Setting up inception_4a/output
I0403 21:44:17.842690 12653 net.cpp:148] Top shape: 24 512 14 14 (2408448)
I0403 21:44:17.842710 12653 net.cpp:156] Memory required for data: 896545824
I0403 21:44:17.842728 12653 layer_factory.hpp:77] Creating layer inception_4a/output_inception_4a/output_0_split
I0403 21:44:17.842751 12653 net.cpp:91] Creating Layer inception_4a/output_inception_4a/output_0_split
I0403 21:44:17.842770 12653 net.cpp:425] inception_4a/output_inception_4a/output_0_split <- inception_4a/output
I0403 21:44:17.842795 12653 net.cpp:399] inception_4a/output_inception_4a/output_0_split -> inception_4a/output_inception_4a/output_0_split_0
I0403 21:44:17.842821 12653 net.cpp:399] inception_4a/output_inception_4a/output_0_split -> inception_4a/output_inception_4a/output_0_split_1
I0403 21:44:17.842846 12653 net.cpp:399] inception_4a/output_inception_4a/output_0_split -> inception_4a/output_inception_4a/output_0_split_2
I0403 21:44:17.842872 12653 net.cpp:399] inception_4a/output_inception_4a/output_0_split -> inception_4a/output_inception_4a/output_0_split_3
I0403 21:44:17.842898 12653 net.cpp:399] inception_4a/output_inception_4a/output_0_split -> inception_4a/output_inception_4a/output_0_split_4
I0403 21:44:17.843014 12653 net.cpp:141] Setting up inception_4a/output_inception_4a/output_0_split
I0403 21:44:17.843042 12653 net.cpp:148] Top shape: 24 512 14 14 (2408448)
I0403 21:44:17.843063 12653 net.cpp:148] Top shape: 24 512 14 14 (2408448)
I0403 21:44:17.843082 12653 net.cpp:148] Top shape: 24 512 14 14 (2408448)
I0403 21:44:17.843102 12653 net.cpp:148] Top shape: 24 512 14 14 (2408448)
I0403 21:44:17.843122 12653 net.cpp:148] Top shape: 24 512 14 14 (2408448)
I0403 21:44:17.843139 12653 net.cpp:156] Memory required for data: 944714784
I0403 21:44:17.843158 12653 layer_factory.hpp:77] Creating layer loss1/ave_pool
I0403 21:44:17.843184 12653 net.cpp:91] Creating Layer loss1/ave_pool
I0403 21:44:17.843209 12653 net.cpp:425] loss1/ave_pool <- inception_4a/output_inception_4a/output_0_split_0
I0403 21:44:17.843235 12653 net.cpp:399] loss1/ave_pool -> loss1/ave_pool
I0403 21:44:17.843492 12653 net.cpp:141] Setting up loss1/ave_pool
I0403 21:44:17.843524 12653 net.cpp:148] Top shape: 24 512 4 4 (196608)
I0403 21:44:17.843544 12653 net.cpp:156] Memory required for data: 945501216
I0403 21:44:17.843560 12653 layer_factory.hpp:77] Creating layer loss1/conv
I0403 21:44:17.843588 12653 net.cpp:91] Creating Layer loss1/conv
I0403 21:44:17.843612 12653 net.cpp:425] loss1/conv <- loss1/ave_pool
I0403 21:44:17.843638 12653 net.cpp:399] loss1/conv -> loss1/conv
I0403 21:44:17.845347 12653 net.cpp:141] Setting up loss1/conv
I0403 21:44:17.845386 12653 net.cpp:148] Top shape: 24 128 4 4 (49152)
I0403 21:44:17.845407 12653 net.cpp:156] Memory required for data: 945697824
I0403 21:44:17.845449 12653 layer_factory.hpp:77] Creating layer loss1/relu_conv
I0403 21:44:17.845473 12653 net.cpp:91] Creating Layer loss1/relu_conv
I0403 21:44:17.845492 12653 net.cpp:425] loss1/relu_conv <- loss1/conv
I0403 21:44:17.845516 12653 net.cpp:386] loss1/relu_conv -> loss1/conv (in-place)
I0403 21:44:17.845849 12653 net.cpp:141] Setting up loss1/relu_conv
I0403 21:44:17.845883 12653 net.cpp:148] Top shape: 24 128 4 4 (49152)
I0403 21:44:17.845903 12653 net.cpp:156] Memory required for data: 945894432
I0403 21:44:17.845922 12653 layer_factory.hpp:77] Creating layer loss1/fc
I0403 21:44:17.845952 12653 net.cpp:91] Creating Layer loss1/fc
I0403 21:44:17.845976 12653 net.cpp:425] loss1/fc <- loss1/conv
I0403 21:44:17.846002 12653 net.cpp:399] loss1/fc -> loss1/fc
I0403 21:44:17.868233 12653 net.cpp:141] Setting up loss1/fc
I0403 21:44:17.868278 12653 net.cpp:148] Top shape: 24 1024 (24576)
I0403 21:44:17.868296 12653 net.cpp:156] Memory required for data: 945992736
I0403 21:44:17.868319 12653 layer_factory.hpp:77] Creating layer loss1/relu_fc
I0403 21:44:17.868345 12653 net.cpp:91] Creating Layer loss1/relu_fc
I0403 21:44:17.868368 12653 net.cpp:425] loss1/relu_fc <- loss1/fc
I0403 21:44:17.868391 12653 net.cpp:386] loss1/relu_fc -> loss1/fc (in-place)
I0403 21:44:17.868615 12653 net.cpp:141] Setting up loss1/relu_fc
I0403 21:44:17.868648 12653 net.cpp:148] Top shape: 24 1024 (24576)
I0403 21:44:17.868666 12653 net.cpp:156] Memory required for data: 946091040
I0403 21:44:17.868685 12653 layer_factory.hpp:77] Creating layer loss1/drop_fc
I0403 21:44:17.868716 12653 net.cpp:91] Creating Layer loss1/drop_fc
I0403 21:44:17.868737 12653 net.cpp:425] loss1/drop_fc <- loss1/fc
I0403 21:44:17.868762 12653 net.cpp:386] loss1/drop_fc -> loss1/fc (in-place)
I0403 21:44:17.868824 12653 net.cpp:141] Setting up loss1/drop_fc
I0403 21:44:17.868852 12653 net.cpp:148] Top shape: 24 1024 (24576)
I0403 21:44:17.868871 12653 net.cpp:156] Memory required for data: 946189344
I0403 21:44:17.868891 12653 layer_factory.hpp:77] Creating layer loss1/classifier_plantvillage
I0403 21:44:17.868919 12653 net.cpp:91] Creating Layer loss1/classifier_plantvillage
I0403 21:44:17.868942 12653 net.cpp:425] loss1/classifier_plantvillage <- loss1/fc
I0403 21:44:17.868964 12653 net.cpp:399] loss1/classifier_plantvillage -> loss1/classifier_plantvillage
I0403 21:44:17.870085 12653 net.cpp:141] Setting up loss1/classifier_plantvillage
I0403 21:44:17.870120 12653 net.cpp:148] Top shape: 24 38 (912)
I0403 21:44:17.870138 12653 net.cpp:156] Memory required for data: 946192992
I0403 21:44:17.870162 12653 layer_factory.hpp:77] Creating layer loss1/classifier_plantvillage_loss1/classifier_plantvillage_0_split
I0403 21:44:17.870193 12653 net.cpp:91] Creating Layer loss1/classifier_plantvillage_loss1/classifier_plantvillage_0_split
I0403 21:44:17.870218 12653 net.cpp:425] loss1/classifier_plantvillage_loss1/classifier_plantvillage_0_split <- loss1/classifier_plantvillage
I0403 21:44:17.870239 12653 net.cpp:399] loss1/classifier_plantvillage_loss1/classifier_plantvillage_0_split -> loss1/classifier_plantvillage_loss1/classifier_plantvillage_0_split_0
I0403 21:44:17.870270 12653 net.cpp:399] loss1/classifier_plantvillage_loss1/classifier_plantvillage_0_split -> loss1/classifier_plantvillage_loss1/classifier_plantvillage_0_split_1
I0403 21:44:17.870296 12653 net.cpp:399] loss1/classifier_plantvillage_loss1/classifier_plantvillage_0_split -> loss1/classifier_plantvillage_loss1/classifier_plantvillage_0_split_2
I0403 21:44:17.870378 12653 net.cpp:141] Setting up loss1/classifier_plantvillage_loss1/classifier_plantvillage_0_split
I0403 21:44:17.870406 12653 net.cpp:148] Top shape: 24 38 (912)
I0403 21:44:17.870429 12653 net.cpp:148] Top shape: 24 38 (912)
I0403 21:44:17.870447 12653 net.cpp:148] Top shape: 24 38 (912)
I0403 21:44:17.870465 12653 net.cpp:156] Memory required for data: 946203936
I0403 21:44:17.870483 12653 layer_factory.hpp:77] Creating layer inception_4b/1x1
I0403 21:44:17.870512 12653 net.cpp:91] Creating Layer inception_4b/1x1
I0403 21:44:17.870553 12653 net.cpp:425] inception_4b/1x1 <- inception_4a/output_inception_4a/output_0_split_1
I0403 21:44:17.870579 12653 net.cpp:399] inception_4b/1x1 -> inception_4b/1x1
I0403 21:44:17.872566 12653 net.cpp:141] Setting up inception_4b/1x1
I0403 21:44:17.872604 12653 net.cpp:148] Top shape: 24 160 14 14 (752640)
I0403 21:44:17.872624 12653 net.cpp:156] Memory required for data: 949214496
I0403 21:44:17.872648 12653 layer_factory.hpp:77] Creating layer inception_4b/relu_1x1
I0403 21:44:17.872671 12653 net.cpp:91] Creating Layer inception_4b/relu_1x1
I0403 21:44:17.872692 12653 net.cpp:425] inception_4b/relu_1x1 <- inception_4b/1x1
I0403 21:44:17.872717 12653 net.cpp:386] inception_4b/relu_1x1 -> inception_4b/1x1 (in-place)
I0403 21:44:17.872936 12653 net.cpp:141] Setting up inception_4b/relu_1x1
I0403 21:44:17.872968 12653 net.cpp:148] Top shape: 24 160 14 14 (752640)
I0403 21:44:17.872987 12653 net.cpp:156] Memory required for data: 952225056
I0403 21:44:17.873008 12653 layer_factory.hpp:77] Creating layer inception_4b/3x3_reduce
I0403 21:44:17.873037 12653 net.cpp:91] Creating Layer inception_4b/3x3_reduce
I0403 21:44:17.873060 12653 net.cpp:425] inception_4b/3x3_reduce <- inception_4a/output_inception_4a/output_0_split_2
I0403 21:44:17.873086 12653 net.cpp:399] inception_4b/3x3_reduce -> inception_4b/3x3_reduce
I0403 21:44:17.874938 12653 net.cpp:141] Setting up inception_4b/3x3_reduce
I0403 21:44:17.874972 12653 net.cpp:148] Top shape: 24 112 14 14 (526848)
I0403 21:44:17.875032 12653 net.cpp:156] Memory required for data: 954332448
I0403 21:44:17.875058 12653 layer_factory.hpp:77] Creating layer inception_4b/relu_3x3_reduce
I0403 21:44:17.875080 12653 net.cpp:91] Creating Layer inception_4b/relu_3x3_reduce
I0403 21:44:17.875100 12653 net.cpp:425] inception_4b/relu_3x3_reduce <- inception_4b/3x3_reduce
I0403 21:44:17.875125 12653 net.cpp:386] inception_4b/relu_3x3_reduce -> inception_4b/3x3_reduce (in-place)
I0403 21:44:17.875474 12653 net.cpp:141] Setting up inception_4b/relu_3x3_reduce
I0403 21:44:17.875509 12653 net.cpp:148] Top shape: 24 112 14 14 (526848)
I0403 21:44:17.875529 12653 net.cpp:156] Memory required for data: 956439840
I0403 21:44:17.875547 12653 layer_factory.hpp:77] Creating layer inception_4b/3x3
I0403 21:44:17.875576 12653 net.cpp:91] Creating Layer inception_4b/3x3
I0403 21:44:17.875600 12653 net.cpp:425] inception_4b/3x3 <- inception_4b/3x3_reduce
I0403 21:44:17.875627 12653 net.cpp:399] inception_4b/3x3 -> inception_4b/3x3
I0403 21:44:17.879271 12653 net.cpp:141] Setting up inception_4b/3x3
I0403 21:44:17.879309 12653 net.cpp:148] Top shape: 24 224 14 14 (1053696)
I0403 21:44:17.879328 12653 net.cpp:156] Memory required for data: 960654624
I0403 21:44:17.879351 12653 layer_factory.hpp:77] Creating layer inception_4b/relu_3x3
I0403 21:44:17.879377 12653 net.cpp:91] Creating Layer inception_4b/relu_3x3
I0403 21:44:17.879398 12653 net.cpp:425] inception_4b/relu_3x3 <- inception_4b/3x3
I0403 21:44:17.879420 12653 net.cpp:386] inception_4b/relu_3x3 -> inception_4b/3x3 (in-place)
I0403 21:44:17.879643 12653 net.cpp:141] Setting up inception_4b/relu_3x3
I0403 21:44:17.879675 12653 net.cpp:148] Top shape: 24 224 14 14 (1053696)
I0403 21:44:17.879695 12653 net.cpp:156] Memory required for data: 964869408
I0403 21:44:17.879714 12653 layer_factory.hpp:77] Creating layer inception_4b/5x5_reduce
I0403 21:44:17.879746 12653 net.cpp:91] Creating Layer inception_4b/5x5_reduce
I0403 21:44:17.879770 12653 net.cpp:425] inception_4b/5x5_reduce <- inception_4a/output_inception_4a/output_0_split_3
I0403 21:44:17.879798 12653 net.cpp:399] inception_4b/5x5_reduce -> inception_4b/5x5_reduce
I0403 21:44:17.881114 12653 net.cpp:141] Setting up inception_4b/5x5_reduce
I0403 21:44:17.881148 12653 net.cpp:148] Top shape: 24 24 14 14 (112896)
I0403 21:44:17.881168 12653 net.cpp:156] Memory required for data: 965320992
I0403 21:44:17.881198 12653 layer_factory.hpp:77] Creating layer inception_4b/relu_5x5_reduce
I0403 21:44:17.881222 12653 net.cpp:91] Creating Layer inception_4b/relu_5x5_reduce
I0403 21:44:17.881261 12653 net.cpp:425] inception_4b/relu_5x5_reduce <- inception_4b/5x5_reduce
I0403 21:44:17.881288 12653 net.cpp:386] inception_4b/relu_5x5_reduce -> inception_4b/5x5_reduce (in-place)
I0403 21:44:17.881512 12653 net.cpp:141] Setting up inception_4b/relu_5x5_reduce
I0403 21:44:17.881544 12653 net.cpp:148] Top shape: 24 24 14 14 (112896)
I0403 21:44:17.881562 12653 net.cpp:156] Memory required for data: 965772576
I0403 21:44:17.881582 12653 layer_factory.hpp:77] Creating layer inception_4b/5x5
I0403 21:44:17.881610 12653 net.cpp:91] Creating Layer inception_4b/5x5
I0403 21:44:17.881633 12653 net.cpp:425] inception_4b/5x5 <- inception_4b/5x5_reduce
I0403 21:44:17.881661 12653 net.cpp:399] inception_4b/5x5 -> inception_4b/5x5
I0403 21:44:17.883160 12653 net.cpp:141] Setting up inception_4b/5x5
I0403 21:44:17.883203 12653 net.cpp:148] Top shape: 24 64 14 14 (301056)
I0403 21:44:17.883225 12653 net.cpp:156] Memory required for data: 966976800
I0403 21:44:17.883249 12653 layer_factory.hpp:77] Creating layer inception_4b/relu_5x5
I0403 21:44:17.883272 12653 net.cpp:91] Creating Layer inception_4b/relu_5x5
I0403 21:44:17.883293 12653 net.cpp:425] inception_4b/relu_5x5 <- inception_4b/5x5
I0403 21:44:17.883319 12653 net.cpp:386] inception_4b/relu_5x5 -> inception_4b/5x5 (in-place)
I0403 21:44:17.883659 12653 net.cpp:141] Setting up inception_4b/relu_5x5
I0403 21:44:17.883695 12653 net.cpp:148] Top shape: 24 64 14 14 (301056)
I0403 21:44:17.883714 12653 net.cpp:156] Memory required for data: 968181024
I0403 21:44:17.883734 12653 layer_factory.hpp:77] Creating layer inception_4b/pool
I0403 21:44:17.883756 12653 net.cpp:91] Creating Layer inception_4b/pool
I0403 21:44:17.883777 12653 net.cpp:425] inception_4b/pool <- inception_4a/output_inception_4a/output_0_split_4
I0403 21:44:17.883802 12653 net.cpp:399] inception_4b/pool -> inception_4b/pool
I0403 21:44:17.883882 12653 net.cpp:141] Setting up inception_4b/pool
I0403 21:44:17.883919 12653 net.cpp:148] Top shape: 24 512 14 14 (2408448)
I0403 21:44:17.883939 12653 net.cpp:156] Memory required for data: 977814816
I0403 21:44:17.883957 12653 layer_factory.hpp:77] Creating layer inception_4b/pool_proj
I0403 21:44:17.883983 12653 net.cpp:91] Creating Layer inception_4b/pool_proj
I0403 21:44:17.884004 12653 net.cpp:425] inception_4b/pool_proj <- inception_4b/pool
I0403 21:44:17.884030 12653 net.cpp:399] inception_4b/pool_proj -> inception_4b/pool_proj
I0403 21:44:17.885499 12653 net.cpp:141] Setting up inception_4b/pool_proj
I0403 21:44:17.885534 12653 net.cpp:148] Top shape: 24 64 14 14 (301056)
I0403 21:44:17.885555 12653 net.cpp:156] Memory required for data: 979019040
I0403 21:44:17.885577 12653 layer_factory.hpp:77] Creating layer inception_4b/relu_pool_proj
I0403 21:44:17.885601 12653 net.cpp:91] Creating Layer inception_4b/relu_pool_proj
I0403 21:44:17.885622 12653 net.cpp:425] inception_4b/relu_pool_proj <- inception_4b/pool_proj
I0403 21:44:17.885646 12653 net.cpp:386] inception_4b/relu_pool_proj -> inception_4b/pool_proj (in-place)
I0403 21:44:17.885866 12653 net.cpp:141] Setting up inception_4b/relu_pool_proj
I0403 21:44:17.885900 12653 net.cpp:148] Top shape: 24 64 14 14 (301056)
I0403 21:44:17.885918 12653 net.cpp:156] Memory required for data: 980223264
I0403 21:44:17.885937 12653 layer_factory.hpp:77] Creating layer inception_4b/output
I0403 21:44:17.885959 12653 net.cpp:91] Creating Layer inception_4b/output
I0403 21:44:17.885979 12653 net.cpp:425] inception_4b/output <- inception_4b/1x1
I0403 21:44:17.886003 12653 net.cpp:425] inception_4b/output <- inception_4b/3x3
I0403 21:44:17.886025 12653 net.cpp:425] inception_4b/output <- inception_4b/5x5
I0403 21:44:17.886044 12653 net.cpp:425] inception_4b/output <- inception_4b/pool_proj
I0403 21:44:17.886067 12653 net.cpp:399] inception_4b/output -> inception_4b/output
I0403 21:44:17.886126 12653 net.cpp:141] Setting up inception_4b/output
I0403 21:44:17.886157 12653 net.cpp:148] Top shape: 24 512 14 14 (2408448)
I0403 21:44:17.886175 12653 net.cpp:156] Memory required for data: 989857056
I0403 21:44:17.886217 12653 layer_factory.hpp:77] Creating layer inception_4b/output_inception_4b/output_0_split
I0403 21:44:17.886240 12653 net.cpp:91] Creating Layer inception_4b/output_inception_4b/output_0_split
I0403 21:44:17.886260 12653 net.cpp:425] inception_4b/output_inception_4b/output_0_split <- inception_4b/output
I0403 21:44:17.886286 12653 net.cpp:399] inception_4b/output_inception_4b/output_0_split -> inception_4b/output_inception_4b/output_0_split_0
I0403 21:44:17.886313 12653 net.cpp:399] inception_4b/output_inception_4b/output_0_split -> inception_4b/output_inception_4b/output_0_split_1
I0403 21:44:17.886338 12653 net.cpp:399] inception_4b/output_inception_4b/output_0_split -> inception_4b/output_inception_4b/output_0_split_2
I0403 21:44:17.886364 12653 net.cpp:399] inception_4b/output_inception_4b/output_0_split -> inception_4b/output_inception_4b/output_0_split_3
I0403 21:44:17.886471 12653 net.cpp:141] Setting up inception_4b/output_inception_4b/output_0_split
I0403 21:44:17.886502 12653 net.cpp:148] Top shape: 24 512 14 14 (2408448)
I0403 21:44:17.886523 12653 net.cpp:148] Top shape: 24 512 14 14 (2408448)
I0403 21:44:17.886541 12653 net.cpp:148] Top shape: 24 512 14 14 (2408448)
I0403 21:44:17.886560 12653 net.cpp:148] Top shape: 24 512 14 14 (2408448)
I0403 21:44:17.886577 12653 net.cpp:156] Memory required for data: 1028392224
I0403 21:44:17.886597 12653 layer_factory.hpp:77] Creating layer inception_4c/1x1
I0403 21:44:17.886626 12653 net.cpp:91] Creating Layer inception_4c/1x1
I0403 21:44:17.886649 12653 net.cpp:425] inception_4c/1x1 <- inception_4b/output_inception_4b/output_0_split_0
I0403 21:44:17.886672 12653 net.cpp:399] inception_4c/1x1 -> inception_4c/1x1
I0403 21:44:17.888417 12653 net.cpp:141] Setting up inception_4c/1x1
I0403 21:44:17.888453 12653 net.cpp:148] Top shape: 24 128 14 14 (602112)
I0403 21:44:17.888473 12653 net.cpp:156] Memory required for data: 1030800672
I0403 21:44:17.888496 12653 layer_factory.hpp:77] Creating layer inception_4c/relu_1x1
I0403 21:44:17.888522 12653 net.cpp:91] Creating Layer inception_4c/relu_1x1
I0403 21:44:17.888543 12653 net.cpp:425] inception_4c/relu_1x1 <- inception_4c/1x1
I0403 21:44:17.888566 12653 net.cpp:386] inception_4c/relu_1x1 -> inception_4c/1x1 (in-place)
I0403 21:44:17.888792 12653 net.cpp:141] Setting up inception_4c/relu_1x1
I0403 21:44:17.888826 12653 net.cpp:148] Top shape: 24 128 14 14 (602112)
I0403 21:44:17.888846 12653 net.cpp:156] Memory required for data: 1033209120
I0403 21:44:17.888865 12653 layer_factory.hpp:77] Creating layer inception_4c/3x3_reduce
I0403 21:44:17.888892 12653 net.cpp:91] Creating Layer inception_4c/3x3_reduce
I0403 21:44:17.888914 12653 net.cpp:425] inception_4c/3x3_reduce <- inception_4b/output_inception_4b/output_0_split_1
I0403 21:44:17.888938 12653 net.cpp:399] inception_4c/3x3_reduce -> inception_4c/3x3_reduce
I0403 21:44:17.891324 12653 net.cpp:141] Setting up inception_4c/3x3_reduce
I0403 21:44:17.891361 12653 net.cpp:148] Top shape: 24 128 14 14 (602112)
I0403 21:44:17.891382 12653 net.cpp:156] Memory required for data: 1035617568
I0403 21:44:17.891407 12653 layer_factory.hpp:77] Creating layer inception_4c/relu_3x3_reduce
I0403 21:44:17.891429 12653 net.cpp:91] Creating Layer inception_4c/relu_3x3_reduce
I0403 21:44:17.891450 12653 net.cpp:425] inception_4c/relu_3x3_reduce <- inception_4c/3x3_reduce
I0403 21:44:17.891476 12653 net.cpp:386] inception_4c/relu_3x3_reduce -> inception_4c/3x3_reduce (in-place)
I0403 21:44:17.891818 12653 net.cpp:141] Setting up inception_4c/relu_3x3_reduce
I0403 21:44:17.891854 12653 net.cpp:148] Top shape: 24 128 14 14 (602112)
I0403 21:44:17.891872 12653 net.cpp:156] Memory required for data: 1038026016
I0403 21:44:17.891891 12653 layer_factory.hpp:77] Creating layer inception_4c/3x3
I0403 21:44:17.891924 12653 net.cpp:91] Creating Layer inception_4c/3x3
I0403 21:44:17.891949 12653 net.cpp:425] inception_4c/3x3 <- inception_4c/3x3_reduce
I0403 21:44:17.891975 12653 net.cpp:399] inception_4c/3x3 -> inception_4c/3x3
I0403 21:44:17.896380 12653 net.cpp:141] Setting up inception_4c/3x3
I0403 21:44:17.896435 12653 net.cpp:148] Top shape: 24 256 14 14 (1204224)
I0403 21:44:17.896456 12653 net.cpp:156] Memory required for data: 1042842912
I0403 21:44:17.896494 12653 layer_factory.hpp:77] Creating layer inception_4c/relu_3x3
I0403 21:44:17.896520 12653 net.cpp:91] Creating Layer inception_4c/relu_3x3
I0403 21:44:17.896540 12653 net.cpp:425] inception_4c/relu_3x3 <- inception_4c/3x3
I0403 21:44:17.896565 12653 net.cpp:386] inception_4c/relu_3x3 -> inception_4c/3x3 (in-place)
I0403 21:44:17.896790 12653 net.cpp:141] Setting up inception_4c/relu_3x3
I0403 21:44:17.896822 12653 net.cpp:148] Top shape: 24 256 14 14 (1204224)
I0403 21:44:17.896842 12653 net.cpp:156] Memory required for data: 1047659808
I0403 21:44:17.896860 12653 layer_factory.hpp:77] Creating layer inception_4c/5x5_reduce
I0403 21:44:17.896890 12653 net.cpp:91] Creating Layer inception_4c/5x5_reduce
I0403 21:44:17.896913 12653 net.cpp:425] inception_4c/5x5_reduce <- inception_4b/output_inception_4b/output_0_split_2
I0403 21:44:17.896940 12653 net.cpp:399] inception_4c/5x5_reduce -> inception_4c/5x5_reduce
I0403 21:44:17.898273 12653 net.cpp:141] Setting up inception_4c/5x5_reduce
I0403 21:44:17.898308 12653 net.cpp:148] Top shape: 24 24 14 14 (112896)
I0403 21:44:17.898327 12653 net.cpp:156] Memory required for data: 1048111392
I0403 21:44:17.898351 12653 layer_factory.hpp:77] Creating layer inception_4c/relu_5x5_reduce
I0403 21:44:17.898375 12653 net.cpp:91] Creating Layer inception_4c/relu_5x5_reduce
I0403 21:44:17.898396 12653 net.cpp:425] inception_4c/relu_5x5_reduce <- inception_4c/5x5_reduce
I0403 21:44:17.898422 12653 net.cpp:386] inception_4c/relu_5x5_reduce -> inception_4c/5x5_reduce (in-place)
I0403 21:44:17.898653 12653 net.cpp:141] Setting up inception_4c/relu_5x5_reduce
I0403 21:44:17.898684 12653 net.cpp:148] Top shape: 24 24 14 14 (112896)
I0403 21:44:17.898702 12653 net.cpp:156] Memory required for data: 1048562976
I0403 21:44:17.898720 12653 layer_factory.hpp:77] Creating layer inception_4c/5x5
I0403 21:44:17.898748 12653 net.cpp:91] Creating Layer inception_4c/5x5
I0403 21:44:17.898771 12653 net.cpp:425] inception_4c/5x5 <- inception_4c/5x5_reduce
I0403 21:44:17.898797 12653 net.cpp:399] inception_4c/5x5 -> inception_4c/5x5
I0403 21:44:17.900322 12653 net.cpp:141] Setting up inception_4c/5x5
I0403 21:44:17.900357 12653 net.cpp:148] Top shape: 24 64 14 14 (301056)
I0403 21:44:17.900375 12653 net.cpp:156] Memory required for data: 1049767200
I0403 21:44:17.900399 12653 layer_factory.hpp:77] Creating layer inception_4c/relu_5x5
I0403 21:44:17.900425 12653 net.cpp:91] Creating Layer inception_4c/relu_5x5
I0403 21:44:17.900446 12653 net.cpp:425] inception_4c/relu_5x5 <- inception_4c/5x5
I0403 21:44:17.900467 12653 net.cpp:386] inception_4c/relu_5x5 -> inception_4c/5x5 (in-place)
I0403 21:44:17.900816 12653 net.cpp:141] Setting up inception_4c/relu_5x5
I0403 21:44:17.900851 12653 net.cpp:148] Top shape: 24 64 14 14 (301056)
I0403 21:44:17.900871 12653 net.cpp:156] Memory required for data: 1050971424
I0403 21:44:17.900888 12653 layer_factory.hpp:77] Creating layer inception_4c/pool
I0403 21:44:17.900915 12653 net.cpp:91] Creating Layer inception_4c/pool
I0403 21:44:17.900936 12653 net.cpp:425] inception_4c/pool <- inception_4b/output_inception_4b/output_0_split_3
I0403 21:44:17.900960 12653 net.cpp:399] inception_4c/pool -> inception_4c/pool
I0403 21:44:17.901043 12653 net.cpp:141] Setting up inception_4c/pool
I0403 21:44:17.901074 12653 net.cpp:148] Top shape: 24 512 14 14 (2408448)
I0403 21:44:17.901093 12653 net.cpp:156] Memory required for data: 1060605216
I0403 21:44:17.901111 12653 layer_factory.hpp:77] Creating layer inception_4c/pool_proj
I0403 21:44:17.901139 12653 net.cpp:91] Creating Layer inception_4c/pool_proj
I0403 21:44:17.901161 12653 net.cpp:425] inception_4c/pool_proj <- inception_4c/pool
I0403 21:44:17.901195 12653 net.cpp:399] inception_4c/pool_proj -> inception_4c/pool_proj
I0403 21:44:17.902698 12653 net.cpp:141] Setting up inception_4c/pool_proj
I0403 21:44:17.902735 12653 net.cpp:148] Top shape: 24 64 14 14 (301056)
I0403 21:44:17.902772 12653 net.cpp:156] Memory required for data: 1061809440
I0403 21:44:17.902796 12653 layer_factory.hpp:77] Creating layer inception_4c/relu_pool_proj
I0403 21:44:17.902819 12653 net.cpp:91] Creating Layer inception_4c/relu_pool_proj
I0403 21:44:17.902838 12653 net.cpp:425] inception_4c/relu_pool_proj <- inception_4c/pool_proj
I0403 21:44:17.902863 12653 net.cpp:386] inception_4c/relu_pool_proj -> inception_4c/pool_proj (in-place)
I0403 21:44:17.903092 12653 net.cpp:141] Setting up inception_4c/relu_pool_proj
I0403 21:44:17.903125 12653 net.cpp:148] Top shape: 24 64 14 14 (301056)
I0403 21:44:17.903143 12653 net.cpp:156] Memory required for data: 1063013664
I0403 21:44:17.903162 12653 layer_factory.hpp:77] Creating layer inception_4c/output
I0403 21:44:17.903189 12653 net.cpp:91] Creating Layer inception_4c/output
I0403 21:44:17.903211 12653 net.cpp:425] inception_4c/output <- inception_4c/1x1
I0403 21:44:17.903233 12653 net.cpp:425] inception_4c/output <- inception_4c/3x3
I0403 21:44:17.903254 12653 net.cpp:425] inception_4c/output <- inception_4c/5x5
I0403 21:44:17.903273 12653 net.cpp:425] inception_4c/output <- inception_4c/pool_proj
I0403 21:44:17.903298 12653 net.cpp:399] inception_4c/output -> inception_4c/output
I0403 21:44:17.903358 12653 net.cpp:141] Setting up inception_4c/output
I0403 21:44:17.903388 12653 net.cpp:148] Top shape: 24 512 14 14 (2408448)
I0403 21:44:17.903408 12653 net.cpp:156] Memory required for data: 1072647456
I0403 21:44:17.903426 12653 layer_factory.hpp:77] Creating layer inception_4c/output_inception_4c/output_0_split
I0403 21:44:17.903448 12653 net.cpp:91] Creating Layer inception_4c/output_inception_4c/output_0_split
I0403 21:44:17.903468 12653 net.cpp:425] inception_4c/output_inception_4c/output_0_split <- inception_4c/output
I0403 21:44:17.903507 12653 net.cpp:399] inception_4c/output_inception_4c/output_0_split -> inception_4c/output_inception_4c/output_0_split_0
I0403 21:44:17.903538 12653 net.cpp:399] inception_4c/output_inception_4c/output_0_split -> inception_4c/output_inception_4c/output_0_split_1
I0403 21:44:17.903565 12653 net.cpp:399] inception_4c/output_inception_4c/output_0_split -> inception_4c/output_inception_4c/output_0_split_2
I0403 21:44:17.903591 12653 net.cpp:399] inception_4c/output_inception_4c/output_0_split -> inception_4c/output_inception_4c/output_0_split_3
I0403 21:44:17.903702 12653 net.cpp:141] Setting up inception_4c/output_inception_4c/output_0_split
I0403 21:44:17.903733 12653 net.cpp:148] Top shape: 24 512 14 14 (2408448)
I0403 21:44:17.903753 12653 net.cpp:148] Top shape: 24 512 14 14 (2408448)
I0403 21:44:17.903774 12653 net.cpp:148] Top shape: 24 512 14 14 (2408448)
I0403 21:44:17.903794 12653 net.cpp:148] Top shape: 24 512 14 14 (2408448)
I0403 21:44:17.903811 12653 net.cpp:156] Memory required for data: 1111182624
I0403 21:44:17.903831 12653 layer_factory.hpp:77] Creating layer inception_4d/1x1
I0403 21:44:17.903859 12653 net.cpp:91] Creating Layer inception_4d/1x1
I0403 21:44:17.903882 12653 net.cpp:425] inception_4d/1x1 <- inception_4c/output_inception_4c/output_0_split_0
I0403 21:44:17.903905 12653 net.cpp:399] inception_4d/1x1 -> inception_4d/1x1
I0403 21:44:17.905594 12653 net.cpp:141] Setting up inception_4d/1x1
I0403 21:44:17.905630 12653 net.cpp:148] Top shape: 24 112 14 14 (526848)
I0403 21:44:17.905652 12653 net.cpp:156] Memory required for data: 1113290016
I0403 21:44:17.905674 12653 layer_factory.hpp:77] Creating layer inception_4d/relu_1x1
I0403 21:44:17.905700 12653 net.cpp:91] Creating Layer inception_4d/relu_1x1
I0403 21:44:17.905721 12653 net.cpp:425] inception_4d/relu_1x1 <- inception_4d/1x1
I0403 21:44:17.905743 12653 net.cpp:386] inception_4d/relu_1x1 -> inception_4d/1x1 (in-place)
I0403 21:44:17.905969 12653 net.cpp:141] Setting up inception_4d/relu_1x1
I0403 21:44:17.906002 12653 net.cpp:148] Top shape: 24 112 14 14 (526848)
I0403 21:44:17.906021 12653 net.cpp:156] Memory required for data: 1115397408
I0403 21:44:17.906040 12653 layer_factory.hpp:77] Creating layer inception_4d/3x3_reduce
I0403 21:44:17.906083 12653 net.cpp:91] Creating Layer inception_4d/3x3_reduce
I0403 21:44:17.906106 12653 net.cpp:425] inception_4d/3x3_reduce <- inception_4c/output_inception_4c/output_0_split_1
I0403 21:44:17.906133 12653 net.cpp:399] inception_4d/3x3_reduce -> inception_4d/3x3_reduce
I0403 21:44:17.907981 12653 net.cpp:141] Setting up inception_4d/3x3_reduce
I0403 21:44:17.908016 12653 net.cpp:148] Top shape: 24 144 14 14 (677376)
I0403 21:44:17.908035 12653 net.cpp:156] Memory required for data: 1118106912
I0403 21:44:17.908057 12653 layer_factory.hpp:77] Creating layer inception_4d/relu_3x3_reduce
I0403 21:44:17.908083 12653 net.cpp:91] Creating Layer inception_4d/relu_3x3_reduce
I0403 21:44:17.908105 12653 net.cpp:425] inception_4d/relu_3x3_reduce <- inception_4d/3x3_reduce
I0403 21:44:17.908128 12653 net.cpp:386] inception_4d/relu_3x3_reduce -> inception_4d/3x3_reduce (in-place)
I0403 21:44:17.908483 12653 net.cpp:141] Setting up inception_4d/relu_3x3_reduce
I0403 21:44:17.908516 12653 net.cpp:148] Top shape: 24 144 14 14 (677376)
I0403 21:44:17.908535 12653 net.cpp:156] Memory required for data: 1120816416
I0403 21:44:17.908553 12653 layer_factory.hpp:77] Creating layer inception_4d/3x3
I0403 21:44:17.908582 12653 net.cpp:91] Creating Layer inception_4d/3x3
I0403 21:44:17.908606 12653 net.cpp:425] inception_4d/3x3 <- inception_4d/3x3_reduce
I0403 21:44:17.908632 12653 net.cpp:399] inception_4d/3x3 -> inception_4d/3x3
I0403 21:44:17.913946 12653 net.cpp:141] Setting up inception_4d/3x3
I0403 21:44:17.913987 12653 net.cpp:148] Top shape: 24 288 14 14 (1354752)
I0403 21:44:17.914007 12653 net.cpp:156] Memory required for data: 1126235424
I0403 21:44:17.914031 12653 layer_factory.hpp:77] Creating layer inception_4d/relu_3x3
I0403 21:44:17.914054 12653 net.cpp:91] Creating Layer inception_4d/relu_3x3
I0403 21:44:17.914075 12653 net.cpp:425] inception_4d/relu_3x3 <- inception_4d/3x3
I0403 21:44:17.914096 12653 net.cpp:386] inception_4d/relu_3x3 -> inception_4d/3x3 (in-place)
I0403 21:44:17.914332 12653 net.cpp:141] Setting up inception_4d/relu_3x3
I0403 21:44:17.914363 12653 net.cpp:148] Top shape: 24 288 14 14 (1354752)
I0403 21:44:17.914381 12653 net.cpp:156] Memory required for data: 1131654432
I0403 21:44:17.914402 12653 layer_factory.hpp:77] Creating layer inception_4d/5x5_reduce
I0403 21:44:17.914428 12653 net.cpp:91] Creating Layer inception_4d/5x5_reduce
I0403 21:44:17.914451 12653 net.cpp:425] inception_4d/5x5_reduce <- inception_4c/output_inception_4c/output_0_split_2
I0403 21:44:17.914481 12653 net.cpp:399] inception_4d/5x5_reduce -> inception_4d/5x5_reduce
I0403 21:44:17.915886 12653 net.cpp:141] Setting up inception_4d/5x5_reduce
I0403 21:44:17.915923 12653 net.cpp:148] Top shape: 24 32 14 14 (150528)
I0403 21:44:17.915945 12653 net.cpp:156] Memory required for data: 1132256544
I0403 21:44:17.915966 12653 layer_factory.hpp:77] Creating layer inception_4d/relu_5x5_reduce
I0403 21:44:17.915990 12653 net.cpp:91] Creating Layer inception_4d/relu_5x5_reduce
I0403 21:44:17.916013 12653 net.cpp:425] inception_4d/relu_5x5_reduce <- inception_4d/5x5_reduce
I0403 21:44:17.916035 12653 net.cpp:386] inception_4d/relu_5x5_reduce -> inception_4d/5x5_reduce (in-place)
I0403 21:44:17.916273 12653 net.cpp:141] Setting up inception_4d/relu_5x5_reduce
I0403 21:44:17.916306 12653 net.cpp:148] Top shape: 24 32 14 14 (150528)
I0403 21:44:17.916324 12653 net.cpp:156] Memory required for data: 1132858656
I0403 21:44:17.916343 12653 layer_factory.hpp:77] Creating layer inception_4d/5x5
I0403 21:44:17.916373 12653 net.cpp:91] Creating Layer inception_4d/5x5
I0403 21:44:17.916396 12653 net.cpp:425] inception_4d/5x5 <- inception_4d/5x5_reduce
I0403 21:44:17.916427 12653 net.cpp:399] inception_4d/5x5 -> inception_4d/5x5
I0403 21:44:17.918227 12653 net.cpp:141] Setting up inception_4d/5x5
I0403 21:44:17.918262 12653 net.cpp:148] Top shape: 24 64 14 14 (301056)
I0403 21:44:17.918284 12653 net.cpp:156] Memory required for data: 1134062880
I0403 21:44:17.918308 12653 layer_factory.hpp:77] Creating layer inception_4d/relu_5x5
I0403 21:44:17.918349 12653 net.cpp:91] Creating Layer inception_4d/relu_5x5
I0403 21:44:17.918371 12653 net.cpp:425] inception_4d/relu_5x5 <- inception_4d/5x5
I0403 21:44:17.918396 12653 net.cpp:386] inception_4d/relu_5x5 -> inception_4d/5x5 (in-place)
I0403 21:44:17.918767 12653 net.cpp:141] Setting up inception_4d/relu_5x5
I0403 21:44:17.918799 12653 net.cpp:148] Top shape: 24 64 14 14 (301056)
I0403 21:44:17.918818 12653 net.cpp:156] Memory required for data: 1135267104
I0403 21:44:17.918838 12653 layer_factory.hpp:77] Creating layer inception_4d/pool
I0403 21:44:17.918860 12653 net.cpp:91] Creating Layer inception_4d/pool
I0403 21:44:17.918881 12653 net.cpp:425] inception_4d/pool <- inception_4c/output_inception_4c/output_0_split_3
I0403 21:44:17.918907 12653 net.cpp:399] inception_4d/pool -> inception_4d/pool
I0403 21:44:17.918992 12653 net.cpp:141] Setting up inception_4d/pool
I0403 21:44:17.919021 12653 net.cpp:148] Top shape: 24 512 14 14 (2408448)
I0403 21:44:17.919040 12653 net.cpp:156] Memory required for data: 1144900896
I0403 21:44:17.919059 12653 layer_factory.hpp:77] Creating layer inception_4d/pool_proj
I0403 21:44:17.919087 12653 net.cpp:91] Creating Layer inception_4d/pool_proj
I0403 21:44:17.919111 12653 net.cpp:425] inception_4d/pool_proj <- inception_4d/pool
I0403 21:44:17.919134 12653 net.cpp:399] inception_4d/pool_proj -> inception_4d/pool_proj
I0403 21:44:17.921315 12653 net.cpp:141] Setting up inception_4d/pool_proj
I0403 21:44:17.921355 12653 net.cpp:148] Top shape: 24 64 14 14 (301056)
I0403 21:44:17.921377 12653 net.cpp:156] Memory required for data: 1146105120
I0403 21:44:17.921401 12653 layer_factory.hpp:77] Creating layer inception_4d/relu_pool_proj
I0403 21:44:17.921423 12653 net.cpp:91] Creating Layer inception_4d/relu_pool_proj
I0403 21:44:17.921444 12653 net.cpp:425] inception_4d/relu_pool_proj <- inception_4d/pool_proj
I0403 21:44:17.921466 12653 net.cpp:386] inception_4d/relu_pool_proj -> inception_4d/pool_proj (in-place)
I0403 21:44:17.921703 12653 net.cpp:141] Setting up inception_4d/relu_pool_proj
I0403 21:44:17.921736 12653 net.cpp:148] Top shape: 24 64 14 14 (301056)
I0403 21:44:17.921756 12653 net.cpp:156] Memory required for data: 1147309344
I0403 21:44:17.921774 12653 layer_factory.hpp:77] Creating layer inception_4d/output
I0403 21:44:17.921797 12653 net.cpp:91] Creating Layer inception_4d/output
I0403 21:44:17.921818 12653 net.cpp:425] inception_4d/output <- inception_4d/1x1
I0403 21:44:17.921838 12653 net.cpp:425] inception_4d/output <- inception_4d/3x3
I0403 21:44:17.921859 12653 net.cpp:425] inception_4d/output <- inception_4d/5x5
I0403 21:44:17.921880 12653 net.cpp:425] inception_4d/output <- inception_4d/pool_proj
I0403 21:44:17.921905 12653 net.cpp:399] inception_4d/output -> inception_4d/output
I0403 21:44:17.921963 12653 net.cpp:141] Setting up inception_4d/output
I0403 21:44:17.921996 12653 net.cpp:148] Top shape: 24 528 14 14 (2483712)
I0403 21:44:17.922016 12653 net.cpp:156] Memory required for data: 1157244192
I0403 21:44:17.922034 12653 layer_factory.hpp:77] Creating layer inception_4d/output_inception_4d/output_0_split
I0403 21:44:17.922057 12653 net.cpp:91] Creating Layer inception_4d/output_inception_4d/output_0_split
I0403 21:44:17.922077 12653 net.cpp:425] inception_4d/output_inception_4d/output_0_split <- inception_4d/output
I0403 21:44:17.922103 12653 net.cpp:399] inception_4d/output_inception_4d/output_0_split -> inception_4d/output_inception_4d/output_0_split_0
I0403 21:44:17.922130 12653 net.cpp:399] inception_4d/output_inception_4d/output_0_split -> inception_4d/output_inception_4d/output_0_split_1
I0403 21:44:17.922157 12653 net.cpp:399] inception_4d/output_inception_4d/output_0_split -> inception_4d/output_inception_4d/output_0_split_2
I0403 21:44:17.922197 12653 net.cpp:399] inception_4d/output_inception_4d/output_0_split -> inception_4d/output_inception_4d/output_0_split_3
I0403 21:44:17.922226 12653 net.cpp:399] inception_4d/output_inception_4d/output_0_split -> inception_4d/output_inception_4d/output_0_split_4
I0403 21:44:17.922354 12653 net.cpp:141] Setting up inception_4d/output_inception_4d/output_0_split
I0403 21:44:17.922399 12653 net.cpp:148] Top shape: 24 528 14 14 (2483712)
I0403 21:44:17.922420 12653 net.cpp:148] Top shape: 24 528 14 14 (2483712)
I0403 21:44:17.922441 12653 net.cpp:148] Top shape: 24 528 14 14 (2483712)
I0403 21:44:17.922459 12653 net.cpp:148] Top shape: 24 528 14 14 (2483712)
I0403 21:44:17.922479 12653 net.cpp:148] Top shape: 24 528 14 14 (2483712)
I0403 21:44:17.922497 12653 net.cpp:156] Memory required for data: 1206918432
I0403 21:44:17.922515 12653 layer_factory.hpp:77] Creating layer loss2/ave_pool
I0403 21:44:17.922540 12653 net.cpp:91] Creating Layer loss2/ave_pool
I0403 21:44:17.922561 12653 net.cpp:425] loss2/ave_pool <- inception_4d/output_inception_4d/output_0_split_0
I0403 21:44:17.922585 12653 net.cpp:399] loss2/ave_pool -> loss2/ave_pool
I0403 21:44:17.922962 12653 net.cpp:141] Setting up loss2/ave_pool
I0403 21:44:17.922998 12653 net.cpp:148] Top shape: 24 528 4 4 (202752)
I0403 21:44:17.923019 12653 net.cpp:156] Memory required for data: 1207729440
I0403 21:44:17.923038 12653 layer_factory.hpp:77] Creating layer loss2/conv
I0403 21:44:17.923069 12653 net.cpp:91] Creating Layer loss2/conv
I0403 21:44:17.923092 12653 net.cpp:425] loss2/conv <- loss2/ave_pool
I0403 21:44:17.923116 12653 net.cpp:399] loss2/conv -> loss2/conv
I0403 21:44:17.925475 12653 net.cpp:141] Setting up loss2/conv
I0403 21:44:17.925510 12653 net.cpp:148] Top shape: 24 128 4 4 (49152)
I0403 21:44:17.925531 12653 net.cpp:156] Memory required for data: 1207926048
I0403 21:44:17.925554 12653 layer_factory.hpp:77] Creating layer loss2/relu_conv
I0403 21:44:17.925580 12653 net.cpp:91] Creating Layer loss2/relu_conv
I0403 21:44:17.925602 12653 net.cpp:425] loss2/relu_conv <- loss2/conv
I0403 21:44:17.925624 12653 net.cpp:386] loss2/relu_conv -> loss2/conv (in-place)
I0403 21:44:17.925969 12653 net.cpp:141] Setting up loss2/relu_conv
I0403 21:44:17.926003 12653 net.cpp:148] Top shape: 24 128 4 4 (49152)
I0403 21:44:17.926023 12653 net.cpp:156] Memory required for data: 1208122656
I0403 21:44:17.926043 12653 layer_factory.hpp:77] Creating layer loss2/fc
I0403 21:44:17.926069 12653 net.cpp:91] Creating Layer loss2/fc
I0403 21:44:17.926091 12653 net.cpp:425] loss2/fc <- loss2/conv
I0403 21:44:17.926115 12653 net.cpp:399] loss2/fc -> loss2/fc
I0403 21:44:17.948386 12653 net.cpp:141] Setting up loss2/fc
I0403 21:44:17.948434 12653 net.cpp:148] Top shape: 24 1024 (24576)
I0403 21:44:17.948454 12653 net.cpp:156] Memory required for data: 1208220960
I0403 21:44:17.948477 12653 layer_factory.hpp:77] Creating layer loss2/relu_fc
I0403 21:44:17.948500 12653 net.cpp:91] Creating Layer loss2/relu_fc
I0403 21:44:17.948520 12653 net.cpp:425] loss2/relu_fc <- loss2/fc
I0403 21:44:17.948545 12653 net.cpp:386] loss2/relu_fc -> loss2/fc (in-place)
I0403 21:44:17.948911 12653 net.cpp:141] Setting up loss2/relu_fc
I0403 21:44:17.948948 12653 net.cpp:148] Top shape: 24 1024 (24576)
I0403 21:44:17.948968 12653 net.cpp:156] Memory required for data: 1208319264
I0403 21:44:17.948988 12653 layer_factory.hpp:77] Creating layer loss2/drop_fc
I0403 21:44:17.949010 12653 net.cpp:91] Creating Layer loss2/drop_fc
I0403 21:44:17.949031 12653 net.cpp:425] loss2/drop_fc <- loss2/fc
I0403 21:44:17.949056 12653 net.cpp:386] loss2/drop_fc -> loss2/fc (in-place)
I0403 21:44:17.949118 12653 net.cpp:141] Setting up loss2/drop_fc
I0403 21:44:17.949147 12653 net.cpp:148] Top shape: 24 1024 (24576)
I0403 21:44:17.949165 12653 net.cpp:156] Memory required for data: 1208417568
I0403 21:44:17.949189 12653 layer_factory.hpp:77] Creating layer loss2/classifier_plantvillage
I0403 21:44:17.949218 12653 net.cpp:91] Creating Layer loss2/classifier_plantvillage
I0403 21:44:17.949240 12653 net.cpp:425] loss2/classifier_plantvillage <- loss2/fc
I0403 21:44:17.949267 12653 net.cpp:399] loss2/classifier_plantvillage -> loss2/classifier_plantvillage
I0403 21:44:17.949767 12653 net.cpp:141] Setting up loss2/classifier_plantvillage
I0403 21:44:17.949800 12653 net.cpp:148] Top shape: 24 38 (912)
I0403 21:44:17.949818 12653 net.cpp:156] Memory required for data: 1208421216
I0403 21:44:17.949862 12653 layer_factory.hpp:77] Creating layer loss2/classifier_plantvillage_loss2/classifier_plantvillage_0_split
I0403 21:44:17.949889 12653 net.cpp:91] Creating Layer loss2/classifier_plantvillage_loss2/classifier_plantvillage_0_split
I0403 21:44:17.949911 12653 net.cpp:425] loss2/classifier_plantvillage_loss2/classifier_plantvillage_0_split <- loss2/classifier_plantvillage
I0403 21:44:17.949934 12653 net.cpp:399] loss2/classifier_plantvillage_loss2/classifier_plantvillage_0_split -> loss2/classifier_plantvillage_loss2/classifier_plantvillage_0_split_0
I0403 21:44:17.949959 12653 net.cpp:399] loss2/classifier_plantvillage_loss2/classifier_plantvillage_0_split -> loss2/classifier_plantvillage_loss2/classifier_plantvillage_0_split_1
I0403 21:44:17.949983 12653 net.cpp:399] loss2/classifier_plantvillage_loss2/classifier_plantvillage_0_split -> loss2/classifier_plantvillage_loss2/classifier_plantvillage_0_split_2
I0403 21:44:17.950081 12653 net.cpp:141] Setting up loss2/classifier_plantvillage_loss2/classifier_plantvillage_0_split
I0403 21:44:17.950110 12653 net.cpp:148] Top shape: 24 38 (912)
I0403 21:44:17.950130 12653 net.cpp:148] Top shape: 24 38 (912)
I0403 21:44:17.950150 12653 net.cpp:148] Top shape: 24 38 (912)
I0403 21:44:17.950168 12653 net.cpp:156] Memory required for data: 1208432160
I0403 21:44:17.950194 12653 layer_factory.hpp:77] Creating layer inception_4e/1x1
I0403 21:44:17.950222 12653 net.cpp:91] Creating Layer inception_4e/1x1
I0403 21:44:17.950242 12653 net.cpp:425] inception_4e/1x1 <- inception_4d/output_inception_4d/output_0_split_1
I0403 21:44:17.950268 12653 net.cpp:399] inception_4e/1x1 -> inception_4e/1x1
I0403 21:44:17.952529 12653 net.cpp:141] Setting up inception_4e/1x1
I0403 21:44:17.952564 12653 net.cpp:148] Top shape: 24 256 14 14 (1204224)
I0403 21:44:17.952584 12653 net.cpp:156] Memory required for data: 1213249056
I0403 21:44:17.952606 12653 layer_factory.hpp:77] Creating layer inception_4e/relu_1x1
I0403 21:44:17.952633 12653 net.cpp:91] Creating Layer inception_4e/relu_1x1
I0403 21:44:17.952654 12653 net.cpp:425] inception_4e/relu_1x1 <- inception_4e/1x1
I0403 21:44:17.952677 12653 net.cpp:386] inception_4e/relu_1x1 -> inception_4e/1x1 (in-place)
I0403 21:44:17.953037 12653 net.cpp:141] Setting up inception_4e/relu_1x1
I0403 21:44:17.953069 12653 net.cpp:148] Top shape: 24 256 14 14 (1204224)
I0403 21:44:17.953088 12653 net.cpp:156] Memory required for data: 1218065952
I0403 21:44:17.953107 12653 layer_factory.hpp:77] Creating layer inception_4e/3x3_reduce
I0403 21:44:17.953135 12653 net.cpp:91] Creating Layer inception_4e/3x3_reduce
I0403 21:44:17.953157 12653 net.cpp:425] inception_4e/3x3_reduce <- inception_4d/output_inception_4d/output_0_split_2
I0403 21:44:17.953191 12653 net.cpp:399] inception_4e/3x3_reduce -> inception_4e/3x3_reduce
I0403 21:44:17.955806 12653 net.cpp:141] Setting up inception_4e/3x3_reduce
I0403 21:44:17.955842 12653 net.cpp:148] Top shape: 24 160 14 14 (752640)
I0403 21:44:17.955862 12653 net.cpp:156] Memory required for data: 1221076512
I0403 21:44:17.955886 12653 layer_factory.hpp:77] Creating layer inception_4e/relu_3x3_reduce
I0403 21:44:17.955909 12653 net.cpp:91] Creating Layer inception_4e/relu_3x3_reduce
I0403 21:44:17.955940 12653 net.cpp:425] inception_4e/relu_3x3_reduce <- inception_4e/3x3_reduce
I0403 21:44:17.955961 12653 net.cpp:386] inception_4e/relu_3x3_reduce -> inception_4e/3x3_reduce (in-place)
I0403 21:44:17.956198 12653 net.cpp:141] Setting up inception_4e/relu_3x3_reduce
I0403 21:44:17.956229 12653 net.cpp:148] Top shape: 24 160 14 14 (752640)
I0403 21:44:17.956249 12653 net.cpp:156] Memory required for data: 1224087072
I0403 21:44:17.956267 12653 layer_factory.hpp:77] Creating layer inception_4e/3x3
I0403 21:44:17.956295 12653 net.cpp:91] Creating Layer inception_4e/3x3
I0403 21:44:17.956318 12653 net.cpp:425] inception_4e/3x3 <- inception_4e/3x3_reduce
I0403 21:44:17.956344 12653 net.cpp:399] inception_4e/3x3 -> inception_4e/3x3
I0403 21:44:17.962628 12653 net.cpp:141] Setting up inception_4e/3x3
I0403 21:44:17.962679 12653 net.cpp:148] Top shape: 24 320 14 14 (1505280)
I0403 21:44:17.962700 12653 net.cpp:156] Memory required for data: 1230108192
I0403 21:44:17.962723 12653 layer_factory.hpp:77] Creating layer inception_4e/relu_3x3
I0403 21:44:17.962754 12653 net.cpp:91] Creating Layer inception_4e/relu_3x3
I0403 21:44:17.962776 12653 net.cpp:425] inception_4e/relu_3x3 <- inception_4e/3x3
I0403 21:44:17.962798 12653 net.cpp:386] inception_4e/relu_3x3 -> inception_4e/3x3 (in-place)
I0403 21:44:17.963166 12653 net.cpp:141] Setting up inception_4e/relu_3x3
I0403 21:44:17.963204 12653 net.cpp:148] Top shape: 24 320 14 14 (1505280)
I0403 21:44:17.963223 12653 net.cpp:156] Memory required for data: 1236129312
I0403 21:44:17.963243 12653 layer_factory.hpp:77] Creating layer inception_4e/5x5_reduce
I0403 21:44:17.963276 12653 net.cpp:91] Creating Layer inception_4e/5x5_reduce
I0403 21:44:17.963300 12653 net.cpp:425] inception_4e/5x5_reduce <- inception_4d/output_inception_4d/output_0_split_3
I0403 21:44:17.963325 12653 net.cpp:399] inception_4e/5x5_reduce -> inception_4e/5x5_reduce
I0403 21:44:17.964660 12653 net.cpp:141] Setting up inception_4e/5x5_reduce
I0403 21:44:17.964694 12653 net.cpp:148] Top shape: 24 32 14 14 (150528)
I0403 21:44:17.964714 12653 net.cpp:156] Memory required for data: 1236731424
I0403 21:44:17.964736 12653 layer_factory.hpp:77] Creating layer inception_4e/relu_5x5_reduce
I0403 21:44:17.964759 12653 net.cpp:91] Creating Layer inception_4e/relu_5x5_reduce
I0403 21:44:17.964779 12653 net.cpp:425] inception_4e/relu_5x5_reduce <- inception_4e/5x5_reduce
I0403 21:44:17.964804 12653 net.cpp:386] inception_4e/relu_5x5_reduce -> inception_4e/5x5_reduce (in-place)
I0403 21:44:17.965173 12653 net.cpp:141] Setting up inception_4e/relu_5x5_reduce
I0403 21:44:17.965210 12653 net.cpp:148] Top shape: 24 32 14 14 (150528)
I0403 21:44:17.965230 12653 net.cpp:156] Memory required for data: 1237333536
I0403 21:44:17.965250 12653 layer_factory.hpp:77] Creating layer inception_4e/5x5
I0403 21:44:17.965299 12653 net.cpp:91] Creating Layer inception_4e/5x5
I0403 21:44:17.965323 12653 net.cpp:425] inception_4e/5x5 <- inception_4e/5x5_reduce
I0403 21:44:17.965349 12653 net.cpp:399] inception_4e/5x5 -> inception_4e/5x5
I0403 21:44:17.967598 12653 net.cpp:141] Setting up inception_4e/5x5
I0403 21:44:17.967634 12653 net.cpp:148] Top shape: 24 128 14 14 (602112)
I0403 21:44:17.967656 12653 net.cpp:156] Memory required for data: 1239741984
I0403 21:44:17.967679 12653 layer_factory.hpp:77] Creating layer inception_4e/relu_5x5
I0403 21:44:17.967701 12653 net.cpp:91] Creating Layer inception_4e/relu_5x5
I0403 21:44:17.967721 12653 net.cpp:425] inception_4e/relu_5x5 <- inception_4e/5x5
I0403 21:44:17.967746 12653 net.cpp:386] inception_4e/relu_5x5 -> inception_4e/5x5 (in-place)
I0403 21:44:17.968000 12653 net.cpp:141] Setting up inception_4e/relu_5x5
I0403 21:44:17.968032 12653 net.cpp:148] Top shape: 24 128 14 14 (602112)
I0403 21:44:17.968052 12653 net.cpp:156] Memory required for data: 1242150432
I0403 21:44:17.968070 12653 layer_factory.hpp:77] Creating layer inception_4e/pool
I0403 21:44:17.968096 12653 net.cpp:91] Creating Layer inception_4e/pool
I0403 21:44:17.968118 12653 net.cpp:425] inception_4e/pool <- inception_4d/output_inception_4d/output_0_split_4
I0403 21:44:17.968142 12653 net.cpp:399] inception_4e/pool -> inception_4e/pool
I0403 21:44:17.968237 12653 net.cpp:141] Setting up inception_4e/pool
I0403 21:44:17.968267 12653 net.cpp:148] Top shape: 24 528 14 14 (2483712)
I0403 21:44:17.968286 12653 net.cpp:156] Memory required for data: 1252085280
I0403 21:44:17.968303 12653 layer_factory.hpp:77] Creating layer inception_4e/pool_proj
I0403 21:44:17.968330 12653 net.cpp:91] Creating Layer inception_4e/pool_proj
I0403 21:44:17.968353 12653 net.cpp:425] inception_4e/pool_proj <- inception_4e/pool
I0403 21:44:17.968379 12653 net.cpp:399] inception_4e/pool_proj -> inception_4e/pool_proj
I0403 21:44:17.970237 12653 net.cpp:141] Setting up inception_4e/pool_proj
I0403 21:44:17.970274 12653 net.cpp:148] Top shape: 24 128 14 14 (602112)
I0403 21:44:17.970311 12653 net.cpp:156] Memory required for data: 1254493728
I0403 21:44:17.970335 12653 layer_factory.hpp:77] Creating layer inception_4e/relu_pool_proj
I0403 21:44:17.970360 12653 net.cpp:91] Creating Layer inception_4e/relu_pool_proj
I0403 21:44:17.970381 12653 net.cpp:425] inception_4e/relu_pool_proj <- inception_4e/pool_proj
I0403 21:44:17.970402 12653 net.cpp:386] inception_4e/relu_pool_proj -> inception_4e/pool_proj (in-place)
I0403 21:44:17.970757 12653 net.cpp:141] Setting up inception_4e/relu_pool_proj
I0403 21:44:17.970793 12653 net.cpp:148] Top shape: 24 128 14 14 (602112)
I0403 21:44:17.970813 12653 net.cpp:156] Memory required for data: 1256902176
I0403 21:44:17.970831 12653 layer_factory.hpp:77] Creating layer inception_4e/output
I0403 21:44:17.970855 12653 net.cpp:91] Creating Layer inception_4e/output
I0403 21:44:17.970875 12653 net.cpp:425] inception_4e/output <- inception_4e/1x1
I0403 21:44:17.970896 12653 net.cpp:425] inception_4e/output <- inception_4e/3x3
I0403 21:44:17.970917 12653 net.cpp:425] inception_4e/output <- inception_4e/5x5
I0403 21:44:17.970937 12653 net.cpp:425] inception_4e/output <- inception_4e/pool_proj
I0403 21:44:17.970959 12653 net.cpp:399] inception_4e/output -> inception_4e/output
I0403 21:44:17.971022 12653 net.cpp:141] Setting up inception_4e/output
I0403 21:44:17.971053 12653 net.cpp:148] Top shape: 24 832 14 14 (3913728)
I0403 21:44:17.971072 12653 net.cpp:156] Memory required for data: 1272557088
I0403 21:44:17.971091 12653 layer_factory.hpp:77] Creating layer pool4/3x3_s2
I0403 21:44:17.971115 12653 net.cpp:91] Creating Layer pool4/3x3_s2
I0403 21:44:17.971138 12653 net.cpp:425] pool4/3x3_s2 <- inception_4e/output
I0403 21:44:17.971160 12653 net.cpp:399] pool4/3x3_s2 -> pool4/3x3_s2
I0403 21:44:17.971251 12653 net.cpp:141] Setting up pool4/3x3_s2
I0403 21:44:17.971282 12653 net.cpp:148] Top shape: 24 832 7 7 (978432)
I0403 21:44:17.971300 12653 net.cpp:156] Memory required for data: 1276470816
I0403 21:44:17.971318 12653 layer_factory.hpp:77] Creating layer pool4/3x3_s2_pool4/3x3_s2_0_split
I0403 21:44:17.971339 12653 net.cpp:91] Creating Layer pool4/3x3_s2_pool4/3x3_s2_0_split
I0403 21:44:17.971359 12653 net.cpp:425] pool4/3x3_s2_pool4/3x3_s2_0_split <- pool4/3x3_s2
I0403 21:44:17.971385 12653 net.cpp:399] pool4/3x3_s2_pool4/3x3_s2_0_split -> pool4/3x3_s2_pool4/3x3_s2_0_split_0
I0403 21:44:17.971412 12653 net.cpp:399] pool4/3x3_s2_pool4/3x3_s2_0_split -> pool4/3x3_s2_pool4/3x3_s2_0_split_1
I0403 21:44:17.971436 12653 net.cpp:399] pool4/3x3_s2_pool4/3x3_s2_0_split -> pool4/3x3_s2_pool4/3x3_s2_0_split_2
I0403 21:44:17.971460 12653 net.cpp:399] pool4/3x3_s2_pool4/3x3_s2_0_split -> pool4/3x3_s2_pool4/3x3_s2_0_split_3
I0403 21:44:17.971580 12653 net.cpp:141] Setting up pool4/3x3_s2_pool4/3x3_s2_0_split
I0403 21:44:17.971612 12653 net.cpp:148] Top shape: 24 832 7 7 (978432)
I0403 21:44:17.971633 12653 net.cpp:148] Top shape: 24 832 7 7 (978432)
I0403 21:44:17.971655 12653 net.cpp:148] Top shape: 24 832 7 7 (978432)
I0403 21:44:17.971675 12653 net.cpp:148] Top shape: 24 832 7 7 (978432)
I0403 21:44:17.971691 12653 net.cpp:156] Memory required for data: 1292125728
I0403 21:44:17.971709 12653 layer_factory.hpp:77] Creating layer inception_5a/1x1
I0403 21:44:17.971737 12653 net.cpp:91] Creating Layer inception_5a/1x1
I0403 21:44:17.971760 12653 net.cpp:425] inception_5a/1x1 <- pool4/3x3_s2_pool4/3x3_s2_0_split_0
I0403 21:44:17.971784 12653 net.cpp:399] inception_5a/1x1 -> inception_5a/1x1
I0403 21:44:17.975329 12653 net.cpp:141] Setting up inception_5a/1x1
I0403 21:44:17.975365 12653 net.cpp:148] Top shape: 24 256 7 7 (301056)
I0403 21:44:17.975385 12653 net.cpp:156] Memory required for data: 1293329952
I0403 21:44:17.975409 12653 layer_factory.hpp:77] Creating layer inception_5a/relu_1x1
I0403 21:44:17.975431 12653 net.cpp:91] Creating Layer inception_5a/relu_1x1
I0403 21:44:17.975453 12653 net.cpp:425] inception_5a/relu_1x1 <- inception_5a/1x1
I0403 21:44:17.975479 12653 net.cpp:386] inception_5a/relu_1x1 -> inception_5a/1x1 (in-place)
I0403 21:44:17.975860 12653 net.cpp:141] Setting up inception_5a/relu_1x1
I0403 21:44:17.975893 12653 net.cpp:148] Top shape: 24 256 7 7 (301056)
I0403 21:44:17.975913 12653 net.cpp:156] Memory required for data: 1294534176
I0403 21:44:17.975931 12653 layer_factory.hpp:77] Creating layer inception_5a/3x3_reduce
I0403 21:44:17.975961 12653 net.cpp:91] Creating Layer inception_5a/3x3_reduce
I0403 21:44:17.975985 12653 net.cpp:425] inception_5a/3x3_reduce <- pool4/3x3_s2_pool4/3x3_s2_0_split_1
I0403 21:44:17.976011 12653 net.cpp:399] inception_5a/3x3_reduce -> inception_5a/3x3_reduce
I0403 21:44:17.979075 12653 net.cpp:141] Setting up inception_5a/3x3_reduce
I0403 21:44:17.979116 12653 net.cpp:148] Top shape: 24 160 7 7 (188160)
I0403 21:44:17.979137 12653 net.cpp:156] Memory required for data: 1295286816
I0403 21:44:17.979161 12653 layer_factory.hpp:77] Creating layer inception_5a/relu_3x3_reduce
I0403 21:44:17.979192 12653 net.cpp:91] Creating Layer inception_5a/relu_3x3_reduce
I0403 21:44:17.979213 12653 net.cpp:425] inception_5a/relu_3x3_reduce <- inception_5a/3x3_reduce
I0403 21:44:17.979235 12653 net.cpp:386] inception_5a/relu_3x3_reduce -> inception_5a/3x3_reduce (in-place)
I0403 21:44:17.979471 12653 net.cpp:141] Setting up inception_5a/relu_3x3_reduce
I0403 21:44:17.979506 12653 net.cpp:148] Top shape: 24 160 7 7 (188160)
I0403 21:44:17.979526 12653 net.cpp:156] Memory required for data: 1296039456
I0403 21:44:17.979544 12653 layer_factory.hpp:77] Creating layer inception_5a/3x3
I0403 21:44:17.979573 12653 net.cpp:91] Creating Layer inception_5a/3x3
I0403 21:44:17.979594 12653 net.cpp:425] inception_5a/3x3 <- inception_5a/3x3_reduce
I0403 21:44:17.979619 12653 net.cpp:399] inception_5a/3x3 -> inception_5a/3x3
I0403 21:44:17.985939 12653 net.cpp:141] Setting up inception_5a/3x3
I0403 21:44:17.985975 12653 net.cpp:148] Top shape: 24 320 7 7 (376320)
I0403 21:44:17.985996 12653 net.cpp:156] Memory required for data: 1297544736
I0403 21:44:17.986019 12653 layer_factory.hpp:77] Creating layer inception_5a/relu_3x3
I0403 21:44:17.986042 12653 net.cpp:91] Creating Layer inception_5a/relu_3x3
I0403 21:44:17.986063 12653 net.cpp:425] inception_5a/relu_3x3 <- inception_5a/3x3
I0403 21:44:17.986089 12653 net.cpp:386] inception_5a/relu_3x3 -> inception_5a/3x3 (in-place)
I0403 21:44:17.986454 12653 net.cpp:141] Setting up inception_5a/relu_3x3
I0403 21:44:17.986486 12653 net.cpp:148] Top shape: 24 320 7 7 (376320)
I0403 21:44:17.986506 12653 net.cpp:156] Memory required for data: 1299050016
I0403 21:44:17.986526 12653 layer_factory.hpp:77] Creating layer inception_5a/5x5_reduce
I0403 21:44:17.986553 12653 net.cpp:91] Creating Layer inception_5a/5x5_reduce
I0403 21:44:17.986575 12653 net.cpp:425] inception_5a/5x5_reduce <- pool4/3x3_s2_pool4/3x3_s2_0_split_2
I0403 21:44:17.986604 12653 net.cpp:399] inception_5a/5x5_reduce -> inception_5a/5x5_reduce
I0403 21:44:17.988080 12653 net.cpp:141] Setting up inception_5a/5x5_reduce
I0403 21:44:17.988119 12653 net.cpp:148] Top shape: 24 32 7 7 (37632)
I0403 21:44:17.988140 12653 net.cpp:156] Memory required for data: 1299200544
I0403 21:44:17.988163 12653 layer_factory.hpp:77] Creating layer inception_5a/relu_5x5_reduce
I0403 21:44:17.988195 12653 net.cpp:91] Creating Layer inception_5a/relu_5x5_reduce
I0403 21:44:17.988219 12653 net.cpp:425] inception_5a/relu_5x5_reduce <- inception_5a/5x5_reduce
I0403 21:44:17.988241 12653 net.cpp:386] inception_5a/relu_5x5_reduce -> inception_5a/5x5_reduce (in-place)
I0403 21:44:17.988608 12653 net.cpp:141] Setting up inception_5a/relu_5x5_reduce
I0403 21:44:17.988641 12653 net.cpp:148] Top shape: 24 32 7 7 (37632)
I0403 21:44:17.988662 12653 net.cpp:156] Memory required for data: 1299351072
I0403 21:44:17.988680 12653 layer_factory.hpp:77] Creating layer inception_5a/5x5
I0403 21:44:17.988710 12653 net.cpp:91] Creating Layer inception_5a/5x5
I0403 21:44:17.988734 12653 net.cpp:425] inception_5a/5x5 <- inception_5a/5x5_reduce
I0403 21:44:17.988761 12653 net.cpp:399] inception_5a/5x5 -> inception_5a/5x5
I0403 21:44:17.990887 12653 net.cpp:141] Setting up inception_5a/5x5
I0403 21:44:17.990937 12653 net.cpp:148] Top shape: 24 128 7 7 (150528)
I0403 21:44:17.990958 12653 net.cpp:156] Memory required for data: 1299953184
I0403 21:44:17.990981 12653 layer_factory.hpp:77] Creating layer inception_5a/relu_5x5
I0403 21:44:17.991004 12653 net.cpp:91] Creating Layer inception_5a/relu_5x5
I0403 21:44:17.991024 12653 net.cpp:425] inception_5a/relu_5x5 <- inception_5a/5x5
I0403 21:44:17.991051 12653 net.cpp:386] inception_5a/relu_5x5 -> inception_5a/5x5 (in-place)
I0403 21:44:17.991296 12653 net.cpp:141] Setting up inception_5a/relu_5x5
I0403 21:44:17.991328 12653 net.cpp:148] Top shape: 24 128 7 7 (150528)
I0403 21:44:17.991346 12653 net.cpp:156] Memory required for data: 1300555296
I0403 21:44:17.991365 12653 layer_factory.hpp:77] Creating layer inception_5a/pool
I0403 21:44:17.991391 12653 net.cpp:91] Creating Layer inception_5a/pool
I0403 21:44:17.991412 12653 net.cpp:425] inception_5a/pool <- pool4/3x3_s2_pool4/3x3_s2_0_split_3
I0403 21:44:17.991436 12653 net.cpp:399] inception_5a/pool -> inception_5a/pool
I0403 21:44:17.991524 12653 net.cpp:141] Setting up inception_5a/pool
I0403 21:44:17.991554 12653 net.cpp:148] Top shape: 24 832 7 7 (978432)
I0403 21:44:17.991572 12653 net.cpp:156] Memory required for data: 1304469024
I0403 21:44:17.991590 12653 layer_factory.hpp:77] Creating layer inception_5a/pool_proj
I0403 21:44:17.991618 12653 net.cpp:91] Creating Layer inception_5a/pool_proj
I0403 21:44:17.991642 12653 net.cpp:425] inception_5a/pool_proj <- inception_5a/pool
I0403 21:44:17.991668 12653 net.cpp:399] inception_5a/pool_proj -> inception_5a/pool_proj
I0403 21:44:17.994513 12653 net.cpp:141] Setting up inception_5a/pool_proj
I0403 21:44:17.994552 12653 net.cpp:148] Top shape: 24 128 7 7 (150528)
I0403 21:44:17.994573 12653 net.cpp:156] Memory required for data: 1305071136
I0403 21:44:17.994597 12653 layer_factory.hpp:77] Creating layer inception_5a/relu_pool_proj
I0403 21:44:17.994621 12653 net.cpp:91] Creating Layer inception_5a/relu_pool_proj
I0403 21:44:17.994642 12653 net.cpp:425] inception_5a/relu_pool_proj <- inception_5a/pool_proj
I0403 21:44:17.994666 12653 net.cpp:386] inception_5a/relu_pool_proj -> inception_5a/pool_proj (in-place)
I0403 21:44:17.995034 12653 net.cpp:141] Setting up inception_5a/relu_pool_proj
I0403 21:44:17.995070 12653 net.cpp:148] Top shape: 24 128 7 7 (150528)
I0403 21:44:17.995090 12653 net.cpp:156] Memory required for data: 1305673248
I0403 21:44:17.995111 12653 layer_factory.hpp:77] Creating layer inception_5a/output
I0403 21:44:17.995133 12653 net.cpp:91] Creating Layer inception_5a/output
I0403 21:44:17.995152 12653 net.cpp:425] inception_5a/output <- inception_5a/1x1
I0403 21:44:17.995173 12653 net.cpp:425] inception_5a/output <- inception_5a/3x3
I0403 21:44:17.995204 12653 net.cpp:425] inception_5a/output <- inception_5a/5x5
I0403 21:44:17.995225 12653 net.cpp:425] inception_5a/output <- inception_5a/pool_proj
I0403 21:44:17.995250 12653 net.cpp:399] inception_5a/output -> inception_5a/output
I0403 21:44:17.995311 12653 net.cpp:141] Setting up inception_5a/output
I0403 21:44:17.995340 12653 net.cpp:148] Top shape: 24 832 7 7 (978432)
I0403 21:44:17.995358 12653 net.cpp:156] Memory required for data: 1309586976
I0403 21:44:17.995376 12653 layer_factory.hpp:77] Creating layer inception_5a/output_inception_5a/output_0_split
I0403 21:44:17.995403 12653 net.cpp:91] Creating Layer inception_5a/output_inception_5a/output_0_split
I0403 21:44:17.995424 12653 net.cpp:425] inception_5a/output_inception_5a/output_0_split <- inception_5a/output
I0403 21:44:17.995447 12653 net.cpp:399] inception_5a/output_inception_5a/output_0_split -> inception_5a/output_inception_5a/output_0_split_0
I0403 21:44:17.995472 12653 net.cpp:399] inception_5a/output_inception_5a/output_0_split -> inception_5a/output_inception_5a/output_0_split_1
I0403 21:44:17.995497 12653 net.cpp:399] inception_5a/output_inception_5a/output_0_split -> inception_5a/output_inception_5a/output_0_split_2
I0403 21:44:17.995527 12653 net.cpp:399] inception_5a/output_inception_5a/output_0_split -> inception_5a/output_inception_5a/output_0_split_3
I0403 21:44:17.995666 12653 net.cpp:141] Setting up inception_5a/output_inception_5a/output_0_split
I0403 21:44:17.995694 12653 net.cpp:148] Top shape: 24 832 7 7 (978432)
I0403 21:44:17.995715 12653 net.cpp:148] Top shape: 24 832 7 7 (978432)
I0403 21:44:17.995734 12653 net.cpp:148] Top shape: 24 832 7 7 (978432)
I0403 21:44:17.995753 12653 net.cpp:148] Top shape: 24 832 7 7 (978432)
I0403 21:44:17.995769 12653 net.cpp:156] Memory required for data: 1325241888
I0403 21:44:17.995786 12653 layer_factory.hpp:77] Creating layer inception_5b/1x1
I0403 21:44:17.995815 12653 net.cpp:91] Creating Layer inception_5b/1x1
I0403 21:44:17.995837 12653 net.cpp:425] inception_5b/1x1 <- inception_5a/output_inception_5a/output_0_split_0
I0403 21:44:17.995864 12653 net.cpp:399] inception_5b/1x1 -> inception_5b/1x1
I0403 21:44:18.000515 12653 net.cpp:141] Setting up inception_5b/1x1
I0403 21:44:18.000557 12653 net.cpp:148] Top shape: 24 384 7 7 (451584)
I0403 21:44:18.000579 12653 net.cpp:156] Memory required for data: 1327048224
I0403 21:44:18.000602 12653 layer_factory.hpp:77] Creating layer inception_5b/relu_1x1
I0403 21:44:18.000625 12653 net.cpp:91] Creating Layer inception_5b/relu_1x1
I0403 21:44:18.000646 12653 net.cpp:425] inception_5b/relu_1x1 <- inception_5b/1x1
I0403 21:44:18.000668 12653 net.cpp:386] inception_5b/relu_1x1 -> inception_5b/1x1 (in-place)
I0403 21:44:18.001037 12653 net.cpp:141] Setting up inception_5b/relu_1x1
I0403 21:44:18.001073 12653 net.cpp:148] Top shape: 24 384 7 7 (451584)
I0403 21:44:18.001092 12653 net.cpp:156] Memory required for data: 1328854560
I0403 21:44:18.001111 12653 layer_factory.hpp:77] Creating layer inception_5b/3x3_reduce
I0403 21:44:18.001137 12653 net.cpp:91] Creating Layer inception_5b/3x3_reduce
I0403 21:44:18.001159 12653 net.cpp:425] inception_5b/3x3_reduce <- inception_5a/output_inception_5a/output_0_split_1
I0403 21:44:18.001193 12653 net.cpp:399] inception_5b/3x3_reduce -> inception_5b/3x3_reduce
I0403 21:44:18.004516 12653 net.cpp:141] Setting up inception_5b/3x3_reduce
I0403 21:44:18.004555 12653 net.cpp:148] Top shape: 24 192 7 7 (225792)
I0403 21:44:18.004576 12653 net.cpp:156] Memory required for data: 1329757728
I0403 21:44:18.004601 12653 layer_factory.hpp:77] Creating layer inception_5b/relu_3x3_reduce
I0403 21:44:18.004622 12653 net.cpp:91] Creating Layer inception_5b/relu_3x3_reduce
I0403 21:44:18.004643 12653 net.cpp:425] inception_5b/relu_3x3_reduce <- inception_5b/3x3_reduce
I0403 21:44:18.004668 12653 net.cpp:386] inception_5b/relu_3x3_reduce -> inception_5b/3x3_reduce (in-place)
I0403 21:44:18.004905 12653 net.cpp:141] Setting up inception_5b/relu_3x3_reduce
I0403 21:44:18.004937 12653 net.cpp:148] Top shape: 24 192 7 7 (225792)
I0403 21:44:18.004956 12653 net.cpp:156] Memory required for data: 1330660896
I0403 21:44:18.004974 12653 layer_factory.hpp:77] Creating layer inception_5b/3x3
I0403 21:44:18.005002 12653 net.cpp:91] Creating Layer inception_5b/3x3
I0403 21:44:18.005025 12653 net.cpp:425] inception_5b/3x3 <- inception_5b/3x3_reduce
I0403 21:44:18.005053 12653 net.cpp:399] inception_5b/3x3 -> inception_5b/3x3
I0403 21:44:18.013512 12653 net.cpp:141] Setting up inception_5b/3x3
I0403 21:44:18.013552 12653 net.cpp:148] Top shape: 24 384 7 7 (451584)
I0403 21:44:18.013576 12653 net.cpp:156] Memory required for data: 1332467232
I0403 21:44:18.013600 12653 layer_factory.hpp:77] Creating layer inception_5b/relu_3x3
I0403 21:44:18.013624 12653 net.cpp:91] Creating Layer inception_5b/relu_3x3
I0403 21:44:18.013644 12653 net.cpp:425] inception_5b/relu_3x3 <- inception_5b/3x3
I0403 21:44:18.013670 12653 net.cpp:386] inception_5b/relu_3x3 -> inception_5b/3x3 (in-place)
I0403 21:44:18.014032 12653 net.cpp:141] Setting up inception_5b/relu_3x3
I0403 21:44:18.014067 12653 net.cpp:148] Top shape: 24 384 7 7 (451584)
I0403 21:44:18.014089 12653 net.cpp:156] Memory required for data: 1334273568
I0403 21:44:18.014107 12653 layer_factory.hpp:77] Creating layer inception_5b/5x5_reduce
I0403 21:44:18.014156 12653 net.cpp:91] Creating Layer inception_5b/5x5_reduce
I0403 21:44:18.014186 12653 net.cpp:425] inception_5b/5x5_reduce <- inception_5a/output_inception_5a/output_0_split_2
I0403 21:44:18.014214 12653 net.cpp:399] inception_5b/5x5_reduce -> inception_5b/5x5_reduce
I0403 21:44:18.015805 12653 net.cpp:141] Setting up inception_5b/5x5_reduce
I0403 21:44:18.015843 12653 net.cpp:148] Top shape: 24 48 7 7 (56448)
I0403 21:44:18.015862 12653 net.cpp:156] Memory required for data: 1334499360
I0403 21:44:18.015887 12653 layer_factory.hpp:77] Creating layer inception_5b/relu_5x5_reduce
I0403 21:44:18.015908 12653 net.cpp:91] Creating Layer inception_5b/relu_5x5_reduce
I0403 21:44:18.015929 12653 net.cpp:425] inception_5b/relu_5x5_reduce <- inception_5b/5x5_reduce
I0403 21:44:18.015951 12653 net.cpp:386] inception_5b/relu_5x5_reduce -> inception_5b/5x5_reduce (in-place)
I0403 21:44:18.016422 12653 net.cpp:141] Setting up inception_5b/relu_5x5_reduce
I0403 21:44:18.016455 12653 net.cpp:148] Top shape: 24 48 7 7 (56448)
I0403 21:44:18.016474 12653 net.cpp:156] Memory required for data: 1334725152
I0403 21:44:18.016492 12653 layer_factory.hpp:77] Creating layer inception_5b/5x5
I0403 21:44:18.016518 12653 net.cpp:91] Creating Layer inception_5b/5x5
I0403 21:44:18.016540 12653 net.cpp:425] inception_5b/5x5 <- inception_5b/5x5_reduce
I0403 21:44:18.016564 12653 net.cpp:399] inception_5b/5x5 -> inception_5b/5x5
I0403 21:44:18.019124 12653 net.cpp:141] Setting up inception_5b/5x5
I0403 21:44:18.019158 12653 net.cpp:148] Top shape: 24 128 7 7 (150528)
I0403 21:44:18.019183 12653 net.cpp:156] Memory required for data: 1335327264
I0403 21:44:18.019208 12653 layer_factory.hpp:77] Creating layer inception_5b/relu_5x5
I0403 21:44:18.019232 12653 net.cpp:91] Creating Layer inception_5b/relu_5x5
I0403 21:44:18.019253 12653 net.cpp:425] inception_5b/relu_5x5 <- inception_5b/5x5
I0403 21:44:18.019279 12653 net.cpp:386] inception_5b/relu_5x5 -> inception_5b/5x5 (in-place)
I0403 21:44:18.019521 12653 net.cpp:141] Setting up inception_5b/relu_5x5
I0403 21:44:18.019553 12653 net.cpp:148] Top shape: 24 128 7 7 (150528)
I0403 21:44:18.019572 12653 net.cpp:156] Memory required for data: 1335929376
I0403 21:44:18.019590 12653 layer_factory.hpp:77] Creating layer inception_5b/pool
I0403 21:44:18.019616 12653 net.cpp:91] Creating Layer inception_5b/pool
I0403 21:44:18.019639 12653 net.cpp:425] inception_5b/pool <- inception_5a/output_inception_5a/output_0_split_3
I0403 21:44:18.019660 12653 net.cpp:399] inception_5b/pool -> inception_5b/pool
I0403 21:44:18.019754 12653 net.cpp:141] Setting up inception_5b/pool
I0403 21:44:18.019783 12653 net.cpp:148] Top shape: 24 832 7 7 (978432)
I0403 21:44:18.019803 12653 net.cpp:156] Memory required for data: 1339843104
I0403 21:44:18.019820 12653 layer_factory.hpp:77] Creating layer inception_5b/pool_proj
I0403 21:44:18.019850 12653 net.cpp:91] Creating Layer inception_5b/pool_proj
I0403 21:44:18.019872 12653 net.cpp:425] inception_5b/pool_proj <- inception_5b/pool
I0403 21:44:18.019899 12653 net.cpp:399] inception_5b/pool_proj -> inception_5b/pool_proj
I0403 21:44:18.022789 12653 net.cpp:141] Setting up inception_5b/pool_proj
I0403 21:44:18.022831 12653 net.cpp:148] Top shape: 24 128 7 7 (150528)
I0403 21:44:18.022853 12653 net.cpp:156] Memory required for data: 1340445216
I0403 21:44:18.022876 12653 layer_factory.hpp:77] Creating layer inception_5b/relu_pool_proj
I0403 21:44:18.022899 12653 net.cpp:91] Creating Layer inception_5b/relu_pool_proj
I0403 21:44:18.022919 12653 net.cpp:425] inception_5b/relu_pool_proj <- inception_5b/pool_proj
I0403 21:44:18.022944 12653 net.cpp:386] inception_5b/relu_pool_proj -> inception_5b/pool_proj (in-place)
I0403 21:44:18.023322 12653 net.cpp:141] Setting up inception_5b/relu_pool_proj
I0403 21:44:18.023358 12653 net.cpp:148] Top shape: 24 128 7 7 (150528)
I0403 21:44:18.023378 12653 net.cpp:156] Memory required for data: 1341047328
I0403 21:44:18.023398 12653 layer_factory.hpp:77] Creating layer inception_5b/output
I0403 21:44:18.023421 12653 net.cpp:91] Creating Layer inception_5b/output
I0403 21:44:18.023458 12653 net.cpp:425] inception_5b/output <- inception_5b/1x1
I0403 21:44:18.023480 12653 net.cpp:425] inception_5b/output <- inception_5b/3x3
I0403 21:44:18.023502 12653 net.cpp:425] inception_5b/output <- inception_5b/5x5
I0403 21:44:18.023524 12653 net.cpp:425] inception_5b/output <- inception_5b/pool_proj
I0403 21:44:18.023546 12653 net.cpp:399] inception_5b/output -> inception_5b/output
I0403 21:44:18.023613 12653 net.cpp:141] Setting up inception_5b/output
I0403 21:44:18.023643 12653 net.cpp:148] Top shape: 24 1024 7 7 (1204224)
I0403 21:44:18.023661 12653 net.cpp:156] Memory required for data: 1345864224
I0403 21:44:18.023679 12653 layer_factory.hpp:77] Creating layer pool5/7x7_s1
I0403 21:44:18.023705 12653 net.cpp:91] Creating Layer pool5/7x7_s1
I0403 21:44:18.023727 12653 net.cpp:425] pool5/7x7_s1 <- inception_5b/output
I0403 21:44:18.023751 12653 net.cpp:399] pool5/7x7_s1 -> pool5/7x7_s1
I0403 21:44:18.024024 12653 net.cpp:141] Setting up pool5/7x7_s1
I0403 21:44:18.024056 12653 net.cpp:148] Top shape: 24 1024 1 1 (24576)
I0403 21:44:18.024075 12653 net.cpp:156] Memory required for data: 1345962528
I0403 21:44:18.024093 12653 layer_factory.hpp:77] Creating layer pool5/drop_7x7_s1
I0403 21:44:18.024117 12653 net.cpp:91] Creating Layer pool5/drop_7x7_s1
I0403 21:44:18.024137 12653 net.cpp:425] pool5/drop_7x7_s1 <- pool5/7x7_s1
I0403 21:44:18.024161 12653 net.cpp:386] pool5/drop_7x7_s1 -> pool5/7x7_s1 (in-place)
I0403 21:44:18.024230 12653 net.cpp:141] Setting up pool5/drop_7x7_s1
I0403 21:44:18.024263 12653 net.cpp:148] Top shape: 24 1024 1 1 (24576)
I0403 21:44:18.024283 12653 net.cpp:156] Memory required for data: 1346060832
I0403 21:44:18.024302 12653 layer_factory.hpp:77] Creating layer loss3/classifier_plantvillage
I0403 21:44:18.024327 12653 net.cpp:91] Creating Layer loss3/classifier_plantvillage
I0403 21:44:18.024348 12653 net.cpp:425] loss3/classifier_plantvillage <- pool5/7x7_s1
I0403 21:44:18.024374 12653 net.cpp:399] loss3/classifier_plantvillage -> loss3/classifier_plantvillage
I0403 21:44:18.024901 12653 net.cpp:141] Setting up loss3/classifier_plantvillage
I0403 21:44:18.024932 12653 net.cpp:148] Top shape: 24 38 (912)
I0403 21:44:18.024951 12653 net.cpp:156] Memory required for data: 1346064480
I0403 21:44:18.024974 12653 layer_factory.hpp:77] Creating layer loss3/classifier_plantvillage_loss3/classifier_plantvillage_0_split
I0403 21:44:18.025002 12653 net.cpp:91] Creating Layer loss3/classifier_plantvillage_loss3/classifier_plantvillage_0_split
I0403 21:44:18.025025 12653 net.cpp:425] loss3/classifier_plantvillage_loss3/classifier_plantvillage_0_split <- loss3/classifier_plantvillage
I0403 21:44:18.025048 12653 net.cpp:399] loss3/classifier_plantvillage_loss3/classifier_plantvillage_0_split -> loss3/classifier_plantvillage_loss3/classifier_plantvillage_0_split_0
I0403 21:44:18.025075 12653 net.cpp:399] loss3/classifier_plantvillage_loss3/classifier_plantvillage_0_split -> loss3/classifier_plantvillage_loss3/classifier_plantvillage_0_split_1
I0403 21:44:18.025101 12653 net.cpp:399] loss3/classifier_plantvillage_loss3/classifier_plantvillage_0_split -> loss3/classifier_plantvillage_loss3/classifier_plantvillage_0_split_2
I0403 21:44:18.025130 12653 net.cpp:399] loss3/classifier_plantvillage_loss3/classifier_plantvillage_0_split -> loss3/classifier_plantvillage_loss3/classifier_plantvillage_0_split_3
I0403 21:44:18.025266 12653 net.cpp:141] Setting up loss3/classifier_plantvillage_loss3/classifier_plantvillage_0_split
I0403 21:44:18.025295 12653 net.cpp:148] Top shape: 24 38 (912)
I0403 21:44:18.025315 12653 net.cpp:148] Top shape: 24 38 (912)
I0403 21:44:18.025334 12653 net.cpp:148] Top shape: 24 38 (912)
I0403 21:44:18.025354 12653 net.cpp:148] Top shape: 24 38 (912)
I0403 21:44:18.025372 12653 net.cpp:156] Memory required for data: 1346079072
I0403 21:44:18.025390 12653 layer_factory.hpp:77] Creating layer loss1/loss
I0403 21:44:18.025420 12653 net.cpp:91] Creating Layer loss1/loss
I0403 21:44:18.025442 12653 net.cpp:425] loss1/loss <- loss1/classifier_plantvillage_loss1/classifier_plantvillage_0_split_0
I0403 21:44:18.025480 12653 net.cpp:425] loss1/loss <- label_data_1_split_0
…
