…
I0403 21:53:32.919494 13194 net.cpp:313] The NetState phase (1) differed from the phase (0) specified by a rule in layer data
I0403 21:53:32.922364 13194 net.cpp:49] Initializing net from parameters: 
state {
  phase: TEST
}
layer {
  name: "data"
  type: "Data"
  top: "data"
  top: "label"
  include {
    phase: TEST
  }
  transform_param {
    mirror: false
    crop_size: 224
    mean_file: "/home/mohanty/data/final_dataset/lmdb/color-80-20/mean.binaryproto"
  }
  data_param {
    source: "/home/mohanty/data/final_dataset/lmdb/color-80-20/test_db"
    batch_size: 24
    backend: LMDB
  }
}
layer {
  name: "conv1/7x7_s2"
  type: "Convolution"
  bottom: "data"
  top: "conv1/7x7_s2"
  param {
    lr_mult: 1
    decay_mult: 1
  }
  param {
    lr_mult: 2
    decay_mult: 0
  }
  convolution_param {
    num_output: 64
    pad: 3
    kernel_size: 7
    stride: 2
    weight_filler {
      type: "xavier"
      std: 0.1
    }
    bias_filler {
      type: "constant"
      value: 0.2
    }
  }
}
layer {
  name: "conv1/relu_7x7"
  type: "ReLU"
  bottom: "conv1/7x7_s2"
  top: "conv1/7x7_s2"
}
layer {
  name: "pool1/3x3_s2"
  type: "Pooling"
  bottom: "conv1/7x7_s2"
  top: "pool1/3x3_s2"
  pooling_param {
    pool: MAX
    kernel_size: 3
    stride: 2
  }
}
layer {
  name: "pool1/norm1"
  type: "LRN"
  bottom: "pool1/3x3_s2"
  top: "pool1/norm1"
  lrn_param {
    local_size: 5
    alpha: 0.0001
    beta: 0.75
  }
}
layer {
  name: "conv2/3x3_reduce"
  type: "Convolution"
  bottom: "pool1/norm1"
  top: "conv2/3x3_reduce"
  param {
    lr_mult: 1
    decay_mult: 1
  }
  param {
    lr_mult: 2
    decay_mult: 0
  }
  convolution_param {
    num_output: 64
    kernel_size: 1
    weight_filler {
      type: "xavier"
      std: 0.1
    }
    bias_filler {
      type: "constant"
      value: 0.2
    }
  }
}
layer {
  name: "conv2/relu_3x3_reduce"
  type: "ReLU"
  bottom: "conv2/3x3_reduce"
  top: "conv2/3x3_reduce"
}
layer {
  name: "conv2/3x3"
  type: "Convolution"
  bottom: "conv2/3x3_reduce"
  top: "conv2/3x3"
  param {
    lr_mult: 1
    decay_mult: 1
  }
  param {
    lr_mult: 2
    decay_mult: 0
  }
  convolution_param {
    num_output: 192
    pad: 1
    kernel_size: 3
    weight_filler {
      type: "xavier"
      std: 0.03
    }
    bias_filler {
      type: "constant"
      value: 0.2
    }
  }
}
layer {
  name: "conv2/relu_3x3"
  type: "ReLU"
  bottom: "conv2/3x3"
  top: "conv2/3x3"
}
layer {
  name: "conv2/norm2"
  type: "LRN"
  bottom: "conv2/3x3"
  top: "conv2/norm2"
  lrn_param {
    local_size: 5
    alpha: 0.0001
    beta: 0.75
  }
}
layer {
  name: "pool2/3x3_s2"
  type: "Pooling"
  bottom: "conv2/norm2"
  top: "pool2/3x3_s2"
  pooling_param {
    pool: MAX
    kernel_size: 3
    stride: 2
  }
}
layer {
  name: "inception_3a/1x1"
  type: "Convolution"
  bottom: "pool2/3x3_s2"
  top: "inception_3a/1x1"
  param {
    lr_mult: 1
    decay_mult: 1
  }
  param {
    lr_mult: 2
    decay_mult: 0
  }
  convolution_param {
    num_output: 64
    kernel_size: 1
    weight_filler {
      type: "xavier"
      std: 0.03
    }
    bias_filler {
      type: "constant"
      value: 0.2
    }
  }
}
layer {
  name: "inception_3a/relu_1x1"
  type: "ReLU"
  bottom: "inception_3a/1x1"
  top: "inception_3a/1x1"
}
layer {
  name: "inception_3a/3x3_reduce"
  type: "Convolution"
  bottom: "pool2/3x3_s2"
  top: "inception_3a/3x3_reduce"
  param {
    lr_mult: 1
    decay_mult: 1
  }
  param {
    lr_mult: 2
    decay_mult: 0
  }
  convolution_param {
    num_output: 96
    kernel_size: 1
    weight_filler {
      type: "xavier"
      std: 0.09
    }
    bias_filler {
      type: "constant"
      value: 0.2
    }
  }
}
layer {
  name: "inception_3a/relu_3x3_reduce"
  type: "ReLU"
  bottom: "inception_3a/3x3_reduce"
  top: "inception_3a/3x3_reduce"
}
layer {
  name: "inception_3a/3x3"
  type: "Convolution"
  bottom: "inception_3a/3x3_reduce"
  top: "inception_3a/3x3"
  param {
    lr_mult: 1
    decay_mult: 1
  }
  param {
    lr_mult: 2
    decay_mult: 0
  }
  convolution_param {
    num_output: 128
    pad: 1
    kernel_size: 3
    weight_filler {
      type: "xavier"
      std: 0.03
    }
    bias_filler {
      type: "constant"
      value: 0.2
    }
  }
}
layer {
  name: "inception_3a/relu_3x3"
  type: "ReLU"
  bottom: "inception_3a/3x3"
  top: "inception_3a/3x3"
}
layer {
  name: "inception_3a/5x5_reduce"
  type: "Convolution"
  bottom: "pool2/3x3_s2"
  top: "inception_3a/5x5_reduce"
  param {
    lr_mult: 1
    decay_mult: 1
  }
  param {
    lr_mult: 2
    decay_mult: 0
  }
  convolution_param {
    num_output: 16
    kernel_size: 1
    weight_filler {
      type: "xavier"
      std: 0.2
    }
    bias_filler {
      type: "constant"
      value: 0.2
    }
  }
}
layer {
  name: "inception_3a/relu_5x5_reduce"
  type: "ReLU"
  bottom: "inception_3a/5x5_reduce"
  top: "inception_3a/5x5_reduce"
}
layer {
  name: "inception_3a/5x5"
  type: "Convolution"
  bottom: "inception_3a/5x5_reduce"
  top: "inception_3a/5x5"
  param {
    lr_mult: 1
    decay_mult: 1
  }
  param {
    lr_mult: 2
    decay_mult: 0
  }
  convolution_param {
    num_output: 32
    pad: 2
    kernel_size: 5
    weight_filler {
      type: "xavier"
      std: 0.03
    }
    bias_filler {
      type: "constant"
      value: 0.2
    }
  }
}
layer {
  name: "inception_3a/relu_5x5"
  type: "ReLU"
  bottom: "inception_3a/5x5"
  top: "inception_3a/5x5"
}
layer {
  name: "inception_3a/pool"
  type: "Pooling"
  bottom: "pool2/3x3_s2"
  top: "inception_3a/pool"
  pooling_param {
    pool: MAX
    kernel_size: 3
    stride: 1
    pad: 1
  }
}
layer {
  name: "inception_3a/pool_proj"
  type: "Convolution"
  bottom: "inception_3a/pool"
  top: "inception_3a/pool_proj"
  param {
    lr_mult: 1
    decay_mult: 1
  }
  param {
    lr_mult: 2
    decay_mult: 0
  }
  convolution_param {
    num_output: 32
    kernel_size: 1
    weight_filler {
      type: "xavier"
      std: 0.1
    }
    bias_filler {
      type: "constant"
      value: 0.2
    }
  }
}
layer {
  name: "inception_3a/relu_pool_proj"
  type: "ReLU"
  bottom: "inception_3a/pool_proj"
  top: "inception_3a/pool_proj"
}
layer {
  name: "inception_3a/output"
  type: "Concat"
  bottom: "inception_3a/1x1"
  bottom: "inception_3a/3x3"
  bottom: "inception_3a/5x5"
  bottom: "inception_3a/pool_proj"
  top: "inception_3a/output"
}
layer {
  name: "inception_3b/1x1"
  type: "Convolution"
  bottom: "inception_3a/output"
  top: "inception_3b/1x1"
  param {
    lr_mult: 1
    decay_mult: 1
  }
  param {
    lr_mult: 2
    decay_mult: 0
  }
  convolution_param {
    num_output: 128
    kernel_size: 1
    weight_filler {
      type: "xavier"
      std: 0.03
    }
    bias_filler {
      type: "constant"
      value: 0.2
    }
  }
}
layer {
  name: "inception_3b/relu_1x1"
  type: "ReLU"
  bottom: "inception_3b/1x1"
  top: "inception_3b/1x1"
}
layer {
  name: "inception_3b/3x3_reduce"
  type: "Convolution"
  bottom: "inception_3a/output"
  top: "inception_3b/3x3_reduce"
  param {
    lr_mult: 1
    decay_mult: 1
  }
  param {
    lr_mult: 2
    decay_mult: 0
  }
  convolution_param {
    num_output: 128
    kernel_size: 1
    weight_filler {
      type: "xavier"
      std: 0.09
    }
    bias_filler {
      type: "constant"
      value: 0.2
    }
  }
}
layer {
  name: "inception_3b/relu_3x3_reduce"
  type: "ReLU"
  bottom: "inception_3b/3x3_reduce"
  top: "inception_3b/3x3_reduce"
}
layer {
  name: "inception_3b/3x3"
  type: "Convolution"
  bottom: "inception_3b/3x3_reduce"
  top: "inception_3b/3x3"
  param {
    lr_mult: 1
    decay_mult: 1
  }
  param {
    lr_mult: 2
    decay_mult: 0
  }
  convolution_param {
    num_output: 192
    pad: 1
    kernel_size: 3
    weight_filler {
      type: "xavier"
      std: 0.03
    }
    bias_filler {
      type: "constant"
      value: 0.2
    }
  }
}
layer {
  name: "inception_3b/relu_3x3"
  type: "ReLU"
  bottom: "inception_3b/3x3"
  top: "inception_3b/3x3"
}
layer {
  name: "inception_3b/5x5_reduce"
  type: "Convolution"
  bottom: "inception_3a/output"
  top: "inception_3b/5x5_reduce"
  param {
    lr_mult: 1
    decay_mult: 1
  }
  param {
    lr_mult: 2
    decay_mult: 0
  }
  convolution_param {
    num_output: 32
    kernel_size: 1
    weight_filler {
      type: "xavier"
      std: 0.2
    }
    bias_filler {
      type: "constant"
      value: 0.2
    }
  }
}
layer {
  name: "inception_3b/relu_5x5_reduce"
  type: "ReLU"
  bottom: "inception_3b/5x5_reduce"
  top: "inception_3b/5x5_reduce"
}
layer {
  name: "inception_3b/5x5"
  type: "Convolution"
  bottom: "inception_3b/5x5_reduce"
  top: "inception_3b/5x5"
  param {
    lr_mult: 1
    decay_mult: 1
  }
  param {
    lr_mult: 2
    decay_mult: 0
  }
  convolution_param {
    num_output: 96
    pad: 2
    kernel_size: 5
    weight_filler {
      type: "xavier"
      std: 0.03
    }
    bias_filler {
      type: "constant"
      value: 0.2
    }
  }
}
layer {
  name: "inception_3b/relu_5x5"
  type: "ReLU"
  bottom: "inception_3b/5x5"
  top: "inception_3b/5x5"
}
layer {
  name: "inception_3b/pool"
  type: "Pooling"
  bottom: "inception_3a/output"
  top: "inception_3b/pool"
  pooling_param {
    pool: MAX
    kernel_size: 3
    stride: 1
    pad: 1
  }
}
layer {
  name: "inception_3b/pool_proj"
  type: "Convolution"
  bottom: "inception_3b/pool"
  top: "inception_3b/pool_proj"
  param {
    lr_mult: 1
    decay_mult: 1
  }
  param {
    lr_mult: 2
    decay_mult: 0
  }
  convolution_param {
    num_output: 64
    kernel_size: 1
    weight_filler {
      type: "xavier"
      std: 0.1
    }
    bias_filler {
      type: "constant"
      value: 0.2
    }
  }
}
layer {
  name: "inception_3b/relu_pool_proj"
  type: "ReLU"
  bottom: "inception_3b/pool_proj"
  top: "inception_3b/pool_proj"
}
layer {
  name: "inception_3b/output"
  type: "Concat"
  bottom: "inception_3b/1x1"
  bottom: "inception_3b/3x3"
  bottom: "inception_3b/5x5"
  bottom: "inception_3b/pool_proj"
  top: "inception_3b/output"
}
layer {
  name: "pool3/3x3_s2"
  type: "Pooling"
  bottom: "inception_3b/output"
  top: "pool3/3x3_s2"
  pooling_param {
    pool: MAX
    kernel_size: 3
    stride: 2
  }
}
layer {
  name: "inception_4a/1x1"
  type: "Convolution"
  bottom: "pool3/3x3_s2"
  top: "inception_4a/1x1"
  param {
    lr_mult: 1
    decay_mult: 1
  }
  param {
    lr_mult: 2
    decay_mult: 0
  }
  convolution_param {
    num_output: 192
    kernel_size: 1
    weight_filler {
      type: "xavier"
      std: 0.03
    }
    bias_filler {
      type: "constant"
      value: 0.2
    }
  }
}
layer {
  name: "inception_4a/relu_1x1"
  type: "ReLU"
  bottom: "inception_4a/1x1"
  top: "inception_4a/1x1"
}
layer {
  name: "inception_4a/3x3_reduce"
  type: "Convolution"
  bottom: "pool3/3x3_s2"
  top: "inception_4a/3x3_reduce"
  param {
    lr_mult: 1
    decay_mult: 1
  }
  param {
    lr_mult: 2
    decay_mult: 0
  }
  convolution_param {
    num_output: 96
    kernel_size: 1
    weight_filler {
      type: "xavier"
      std: 0.09
    }
    bias_filler {
      type: "constant"
      value: 0.2
    }
  }
}
layer {
  name: "inception_4a/relu_3x3_reduce"
  type: "ReLU"
  bottom: "inception_4a/3x3_reduce"
  top: "inception_4a/3x3_reduce"
}
layer {
  name: "inception_4a/3x3"
  type: "Convolution"
  bottom: "inception_4a/3x3_reduce"
  top: "inception_4a/3x3"
  param {
    lr_mult: 1
    decay_mult: 1
  }
  param {
    lr_mult: 2
    decay_mult: 0
  }
  convolution_param {
    num_output: 208
    pad: 1
    kernel_size: 3
    weight_filler {
      type: "xavier"
      std: 0.03
    }
    bias_filler {
      type: "constant"
      value: 0.2
    }
  }
}
layer {
  name: "inception_4a/relu_3x3"
  type: "ReLU"
  bottom: "inception_4a/3x3"
  top: "inception_4a/3x3"
}
layer {
  name: "inception_4a/5x5_reduce"
  type: "Convolution"
  bottom: "pool3/3x3_s2"
  top: "inception_4a/5x5_reduce"
  param {
    lr_mult: 1
    decay_mult: 1
  }
  param {
    lr_mult: 2
    decay_mult: 0
  }
  convolution_param {
    num_output: 16
    kernel_size: 1
    weight_filler {
      type: "xavier"
      std: 0.2
    }
    bias_filler {
      type: "constant"
      value: 0.2
    }
  }
}
layer {
  name: "inception_4a/relu_5x5_reduce"
  type: "ReLU"
  bottom: "inception_4a/5x5_reduce"
  top: "inception_4a/5x5_reduce"
}
layer {
  name: "inception_4a/5x5"
  type: "Convolution"
  bottom: "inception_4a/5x5_reduce"
  top: "inception_4a/5x5"
  param {
    lr_mult: 1
    decay_mult: 1
  }
  param {
    lr_mult: 2
    decay_mult: 0
  }
  convolution_param {
    num_output: 48
    pad: 2
    kernel_size: 5
    weight_filler {
      type: "xavier"
      std: 0.03
    }
    bias_filler {
      type: "constant"
      value: 0.2
    }
  }
}
layer {
  name: "inception_4a/relu_5x5"
  type: "ReLU"
  bottom: "inception_4a/5x5"
  top: "inception_4a/5x5"
}
layer {
  name: "inception_4a/pool"
  type: "Pooling"
  bottom: "pool3/3x3_s2"
  top: "inception_4a/pool"
  pooling_param {
    pool: MAX
    kernel_size: 3
    stride: 1
    pad: 1
  }
}
layer {
  name: "inception_4a/pool_proj"
  type: "Convolution"
  bottom: "inception_4a/pool"
  top: "inception_4a/pool_proj"
  param {
    lr_mult: 1
    decay_mult: 1
  }
  param {
    lr_mult: 2
    decay_mult: 0
  }
  convolution_param {
    num_output: 64
    kernel_size: 1
    weight_filler {
      type: "xavier"
      std: 0.1
    }
    bias_filler {
      type: "constant"
      value: 0.2
    }
  }
}
layer {
  name: "inception_4a/relu_pool_proj"
  type: "ReLU"
  bottom: "inception_4a/pool_proj"
  top: "inception_4a/pool_proj"
}
layer {
  name: "inception_4a/output"
  type: "Concat"
  bottom: "inception_4a/1x1"
  bottom: "inception_4a/3x3"
  bottom: "inception_4a/5x5"
  bottom: "inception_4a/pool_proj"
  top: "inception_4a/output"
}
layer {
  name: "loss1/ave_pool"
  type: "Pooling"
  bottom: "inception_4a/output"
  top: "loss1/ave_pool"
  pooling_param {
    pool: AVE
    kernel_size: 5
    stride: 3
  }
}
layer {
  name: "loss1/conv"
  type: "Convolution"
  bottom: "loss1/ave_pool"
  top: "loss1/conv"
  param {
    lr_mult: 1
    decay_mult: 1
  }
  param {
    lr_mult: 2
    decay_mult: 0
  }
  convolution_param {
    num_output: 128
    kernel_size: 1
    weight_filler {
      type: "xavier"
      std: 0.08
    }
    bias_filler {
      type: "constant"
      value: 0.2
    }
  }
}
layer {
  name: "loss1/relu_conv"
  type: "ReLU"
  bottom: "loss1/conv"
  top: "loss1/conv"
}
layer {
  name: "loss1/fc"
  type: "InnerProduct"
  bottom: "loss1/conv"
  top: "loss1/fc"
  param {
    lr_mult: 1
    decay_mult: 1
  }
  param {
    lr_mult: 2
    decay_mult: 0
  }
  inner_product_param {
    num_output: 1024
    weight_filler {
      type: "xavier"
      std: 0.02
    }
    bias_filler {
      type: "constant"
      value: 0.2
    }
  }
}
layer {
  name: "loss1/relu_fc"
  type: "ReLU"
  bottom: "loss1/fc"
  top: "loss1/fc"
}
layer {
  name: "loss1/drop_fc"
  type: "Dropout"
  bottom: "loss1/fc"
  top: "loss1/fc"
  dropout_param {
    dropout_ratio: 0.7
  }
}
layer {
  name: "loss1/classifier_plantvillage"
  type: "InnerProduct"
  bottom: "loss1/fc"
  top: "loss1/classifier_plantvillage"
  param {
    lr_mult: 1
    decay_mult: 1
  }
  param {
    lr_mult: 2
    decay_mult: 0
  }
  inner_product_param {
    num_output: 38
    weight_filler {
      type: "xavier"
      std: 0.0009765625
    }
    bias_filler {
      type: "constant"
      value: 0
    }
  }
}
layer {
  name: "inception_4b/1x1"
  type: "Convolution"
  bottom: "inception_4a/output"
  top: "inception_4b/1x1"
  param {
    lr_mult: 1
    decay_mult: 1
  }
  param {
    lr_mult: 2
    decay_mult: 0
  }
  convolution_param {
    num_output: 160
    kernel_size: 1
    weight_filler {
      type: "xavier"
      std: 0.03
    }
    bias_filler {
      type: "constant"
      value: 0.2
    }
  }
}
layer {
  name: "inception_4b/relu_1x1"
  type: "ReLU"
  bottom: "inception_4b/1x1"
  top: "inception_4b/1x1"
}
layer {
  name: "inception_4b/3x3_reduce"
  type: "Convolution"
  bottom: "inception_4a/output"
  top: "inception_4b/3x3_reduce"
  param {
    lr_mult: 1
    decay_mult: 1
  }
  param {
    lr_mult: 2
    decay_mult: 0
  }
  convolution_param {
    num_output: 112
    kernel_size: 1
    weight_filler {
      type: "xavier"
      std: 0.09
    }
    bias_filler {
      type: "constant"
      value: 0.2
    }
  }
}
layer {
  name: "inception_4b/relu_3x3_reduce"
  type: "ReLU"
  bottom: "inception_4b/3x3_reduce"
  top: "inception_4b/3x3_reduce"
}
layer {
  name: "inception_4b/3x3"
  type: "Convolution"
  bottom: "inception_4b/3x3_reduce"
  top: "inception_4b/3x3"
  param {
    lr_mult: 1
    decay_mult: 1
  }
  param {
    lr_mult: 2
    decay_mult: 0
  }
  convolution_param {
    num_output: 224
    pad: 1
    kernel_size: 3
    weight_filler {
      type: "xavier"
      std: 0.03
    }
    bias_filler {
      type: "constant"
      value: 0.2
    }
  }
}
layer {
  name: "inception_4b/relu_3x3"
  type: "ReLU"
  bottom: "inception_4b/3x3"
  top: "inception_4b/3x3"
}
layer {
  name: "inception_4b/5x5_reduce"
  type: "Convolution"
  bottom: "inception_4a/output"
  top: "inception_4b/5x5_reduce"
  param {
    lr_mult: 1
    decay_mult: 1
  }
  param {
    lr_mult: 2
    decay_mult: 0
  }
  convolution_param {
    num_output: 24
    kernel_size: 1
    weight_filler {
      type: "xavier"
      std: 0.2
    }
    bias_filler {
      type: "constant"
      value: 0.2
    }
  }
}
layer {
  name: "inception_4b/relu_5x5_reduce"
  type: "ReLU"
  bottom: "inception_4b/5x5_reduce"
  top: "inception_4b/5x5_reduce"
}
layer {
  name: "inception_4b/5x5"
  type: "Convolution"
  bottom: "inception_4b/5x5_reduce"
  top: "inception_4b/5x5"
  param {
    lr_mult: 1
    decay_mult: 1
  }
  param {
    lr_mult: 2
    decay_mult: 0
  }
  convolution_param {
    num_output: 64
    pad: 2
    kernel_size: 5
    weight_filler {
      type: "xavier"
      std: 0.03
    }
    bias_filler {
      type: "constant"
      value: 0.2
    }
  }
}
layer {
  name: "inception_4b/relu_5x5"
  type: "ReLU"
  bottom: "inception_4b/5x5"
  top: "inception_4b/5x5"
}
layer {
  name: "inception_4b/pool"
  type: "Pooling"
  bottom: "inception_4a/output"
  top: "inception_4b/pool"
  pooling_param {
    pool: MAX
    kernel_size: 3
    stride: 1
    pad: 1
  }
}
layer {
  name: "inception_4b/pool_proj"
  type: "Convolution"
  bottom: "inception_4b/pool"
  top: "inception_4b/pool_proj"
  param {
    lr_mult: 1
    decay_mult: 1
  }
  param {
    lr_mult: 2
    decay_mult: 0
  }
  convolution_param {
    num_output: 64
    kernel_size: 1
    weight_filler {
      type: "xavier"
      std: 0.1
    }
    bias_filler {
      type: "constant"
      value: 0.2
    }
  }
}
layer {
  name: "inception_4b/relu_pool_proj"
  type: "ReLU"
  bottom: "inception_4b/pool_proj"
  top: "inception_4b/pool_proj"
}
layer {
  name: "inception_4b/output"
  type: "Concat"
  bottom: "inception_4b/1x1"
  bottom: "inception_4b/3x3"
  bottom: "inception_4b/5x5"
  bottom: "inception_4b/pool_proj"
  top: "inception_4b/output"
}
layer {
  name: "inception_4c/1x1"
  type: "Convolution"
  bottom: "inception_4b/output"
  top: "inception_4c/1x1"
  param {
    lr_mult: 1
    decay_mult: 1
  }
  param {
    lr_mult: 2
    decay_mult: 0
  }
  convolution_param {
    num_output: 128
    kernel_size: 1
    weight_filler {
      type: "xavier"
      std: 0.03
    }
    bias_filler {
      type: "constant"
      value: 0.2
    }
  }
}
layer {
  name: "inception_4c/relu_1x1"
  type: "ReLU"
  bottom: "inception_4c/1x1"
  top: "inception_4c/1x1"
}
layer {
  name: "inception_4c/3x3_reduce"
  type: "Convolution"
  bottom: "inception_4b/output"
  top: "inception_4c/3x3_reduce"
  param {
    lr_mult: 1
    decay_mult: 1
  }
  param {
    lr_mult: 2
    decay_mult: 0
  }
  convolution_param {
    num_output: 128
    kernel_size: 1
    weight_filler {
      type: "xavier"
      std: 0.09
    }
    bias_filler {
      type: "constant"
      value: 0.2
    }
  }
}
layer {
  name: "inception_4c/relu_3x3_reduce"
  type: "ReLU"
  bottom: "inception_4c/3x3_reduce"
  top: "inception_4c/3x3_reduce"
}
layer {
  name: "inception_4c/3x3"
  type: "Convolution"
  bottom: "inception_4c/3x3_reduce"
  top: "inception_4c/3x3"
  param {
    lr_mult: 1
    decay_mult: 1
  }
  param {
    lr_mult: 2
    decay_mult: 0
  }
  convolution_param {
    num_output: 256
    pad: 1
    kernel_size: 3
    weight_filler {
      type: "xavier"
      std: 0.03
    }
    bias_filler {
      type: "constant"
      value: 0.2
    }
  }
}
layer {
  name: "inception_4c/relu_3x3"
  type: "ReLU"
  bottom: "inception_4c/3x3"
  top: "inception_4c/3x3"
}
layer {
  name: "inception_4c/5x5_reduce"
  type: "Convolution"
  bottom: "inception_4b/output"
  top: "inception_4c/5x5_reduce"
  param {
    lr_mult: 1
    decay_mult: 1
  }
  param {
    lr_mult: 2
    decay_mult: 0
  }
  convolution_param {
    num_output: 24
    kernel_size: 1
    weight_filler {
      type: "xavier"
      std: 0.2
    }
    bias_filler {
      type: "constant"
      value: 0.2
    }
  }
}
layer {
  name: "inception_4c/relu_5x5_reduce"
  type: "ReLU"
  bottom: "inception_4c/5x5_reduce"
  top: "inception_4c/5x5_reduce"
}
layer {
  name: "inception_4c/5x5"
  type: "Convolution"
  bottom: "inception_4c/5x5_reduce"
  top: "inception_4c/5x5"
  param {
    lr_mult: 1
    decay_mult: 1
  }
  param {
    lr_mult: 2
    decay_mult: 0
  }
  convolution_param {
    num_output: 64
    pad: 2
    kernel_size: 5
    weight_filler {
      type: "xavier"
      std: 0.03
    }
    bias_filler {
      type: "constant"
      value: 0.2
    }
  }
}
layer {
  name: "inception_4c/relu_5x5"
  type: "ReLU"
  bottom: "inception_4c/5x5"
  top: "inception_4c/5x5"
}
layer {
  name: "inception_4c/pool"
  type: "Pooling"
  bottom: "inception_4b/output"
  top: "inception_4c/pool"
  pooling_param {
    pool: MAX
    kernel_size: 3
    stride: 1
    pad: 1
  }
}
layer {
  name: "inception_4c/pool_proj"
  type: "Convolution"
  bottom: "inception_4c/pool"
  top: "inception_4c/pool_proj"
  param {
    lr_mult: 1
    decay_mult: 1
  }
  param {
    lr_mult: 2
    decay_mult: 0
  }
  convolution_param {
    num_output: 64
    kernel_size: 1
    weight_filler {
      type: "xavier"
      std: 0.1
    }
    bias_filler {
      type: "constant"
      value: 0.2
    }
  }
}
layer {
  name: "inception_4c/relu_pool_proj"
  type: "ReLU"
  bottom: "inception_4c/pool_proj"
  top: "inception_4c/pool_proj"
}
layer {
  name: "inception_4c/output"
  type: "Concat"
  bottom: "inception_4c/1x1"
  bottom: "inception_4c/3x3"
  bottom: "inception_4c/5x5"
  bottom: "inception_4c/pool_proj"
  top: "inception_4c/output"
}
layer {
  name: "inception_4d/1x1"
  type: "Convolution"
  bottom: "inception_4c/output"
  top: "inception_4d/1x1"
  param {
    lr_mult: 1
    decay_mult: 1
  }
  param {
    lr_mult: 2
    decay_mult: 0
  }
  convolution_param {
    num_output: 112
    kernel_size: 1
    weight_filler {
      type: "xavier"
      std: 0.03
    }
    bias_filler {
      type: "constant"
      value: 0.2
    }
  }
}
layer {
  name: "inception_4d/relu_1x1"
  type: "ReLU"
  bottom: "inception_4d/1x1"
  top: "inception_4d/1x1"
}
layer {
  name: "inception_4d/3x3_reduce"
  type: "Convolution"
  bottom: "inception_4c/output"
  top: "inception_4d/3x3_reduce"
  param {
    lr_mult: 1
    decay_mult: 1
  }
  param {
    lr_mult: 2
    decay_mult: 0
  }
  convolution_param {
    num_output: 144
    kernel_size: 1
    weight_filler {
      type: "xavier"
      std: 0.09
    }
    bias_filler {
      type: "constant"
      value: 0.2
    }
  }
}
layer {
  name: "inception_4d/relu_3x3_reduce"
  type: "ReLU"
  bottom: "inception_4d/3x3_reduce"
  top: "inception_4d/3x3_reduce"
}
layer {
  name: "inception_4d/3x3"
  type: "Convolution"
  bottom: "inception_4d/3x3_reduce"
  top: "inception_4d/3x3"
  param {
    lr_mult: 1
    decay_mult: 1
  }
  param {
    lr_mult: 2
    decay_mult: 0
  }
  convolution_param {
    num_output: 288
    pad: 1
    kernel_size: 3
    weight_filler {
      type: "xavier"
      std: 0.03
    }
    bias_filler {
      type: "constant"
      value: 0.2
    }
  }
}
layer {
  name: "inception_4d/relu_3x3"
  type: "ReLU"
  bottom: "inception_4d/3x3"
  top: "inception_4d/3x3"
}
layer {
  name: "inception_4d/5x5_reduce"
  type: "Convolution"
  bottom: "inception_4c/output"
  top: "inception_4d/5x5_reduce"
  param {
    lr_mult: 1
    decay_mult: 1
  }
  param {
    lr_mult: 2
    decay_mult: 0
  }
  convolution_param {
    num_output: 32
    kernel_size: 1
    weight_filler {
      type: "xavier"
      std: 0.2
    }
    bias_filler {
      type: "constant"
      value: 0.2
    }
  }
}
layer {
  name: "inception_4d/relu_5x5_reduce"
  type: "ReLU"
  bottom: "inception_4d/5x5_reduce"
  top: "inception_4d/5x5_reduce"
}
layer {
  name: "inception_4d/5x5"
  type: "Convolution"
  bottom: "inception_4d/5x5_reduce"
  top: "inception_4d/5x5"
  param {
    lr_mult: 1
    decay_mult: 1
  }
  param {
    lr_mult: 2
    decay_mult: 0
  }
  convolution_param {
    num_output: 64
    pad: 2
    kernel_size: 5
    weight_filler {
      type: "xavier"
      std: 0.03
    }
    bias_filler {
      type: "constant"
      value: 0.2
    }
  }
}
layer {
  name: "inception_4d/relu_5x5"
  type: "ReLU"
  bottom: "inception_4d/5x5"
  top: "inception_4d/5x5"
}
layer {
  name: "inception_4d/pool"
  type: "Pooling"
  bottom: "inception_4c/output"
  top: "inception_4d/pool"
  pooling_param {
    pool: MAX
    kernel_size: 3
    stride: 1
    pad: 1
  }
}
layer {
  name: "inception_4d/pool_proj"
  type: "Convolution"
  bottom: "inception_4d/pool"
  top: "inception_4d/pool_proj"
  param {
    lr_mult: 1
    decay_mult: 1
  }
  param {
    lr_mult: 2
    decay_mult: 0
  }
  convolution_param {
    num_output: 64
    kernel_size: 1
    weight_filler {
      type: "xavier"
      std: 0.1
    }
    bias_filler {
      type: "constant"
      value: 0.2
    }
  }
}
layer {
  name: "inception_4d/relu_pool_proj"
  type: "ReLU"
  bottom: "inception_4d/pool_proj"
  top: "inception_4d/pool_proj"
}
layer {
  name: "inception_4d/output"
  type: "Concat"
  bottom: "inception_4d/1x1"
  bottom: "inception_4d/3x3"
  bottom: "inception_4d/5x5"
  bottom: "inception_4d/pool_proj"
  top: "inception_4d/output"
}
layer {
  name: "loss2/ave_pool"
  type: "Pooling"
  bottom: "inception_4d/output"
  top: "loss2/ave_pool"
  pooling_param {
    pool: AVE
    kernel_size: 5
    stride: 3
  }
}
layer {
  name: "loss2/conv"
  type: "Convolution"
  bottom: "loss2/ave_pool"
  top: "loss2/conv"
  param {
    lr_mult: 1
    decay_mult: 1
  }
  param {
    lr_mult: 2
    decay_mult: 0
  }
  convolution_param {
    num_output: 128
    kernel_size: 1
    weight_filler {
      type: "xavier"
      std: 0.08
    }
    bias_filler {
      type: "constant"
      value: 0.2
    }
  }
}
layer {
  name: "loss2/relu_conv"
  type: "ReLU"
  bottom: "loss2/conv"
  top: "loss2/conv"
}
layer {
  name: "loss2/fc"
  type: "InnerProduct"
  bottom: "loss2/conv"
  top: "loss2/fc"
  param {
    lr_mult: 1
    decay_mult: 1
  }
  param {
    lr_mult: 2
    decay_mult: 0
  }
  inner_product_param {
    num_output: 1024
    weight_filler {
      type: "xavier"
      std: 0.02
    }
    bias_filler {
      type: "constant"
      value: 0.2
    }
  }
}
layer {
  name: "loss2/relu_fc"
  type: "ReLU"
  bottom: "loss2/fc"
  top: "loss2/fc"
}
layer {
  name: "loss2/drop_fc"
  type: "Dropout"
  bottom: "loss2/fc"
  top: "loss2/fc"
  dropout_param {
    dropout_ratio: 0.7
  }
}
layer {
  name: "loss2/classifier_plantvillage"
  type: "InnerProduct"
  bottom: "loss2/fc"
  top: "loss2/classifier_plantvillage"
  param {
    lr_mult: 1
    decay_mult: 1
  }
  param {
    lr_mult: 2
    decay_mult: 0
  }
  inner_product_param {
    num_output: 38
    weight_filler {
      type: "xavier"
      std: 0.0009765625
    }
    bias_filler {
      type: "constant"
      value: 0
    }
  }
}
layer {
  name: "inception_4e/1x1"
  type: "Convolution"
  bottom: "inception_4d/output"
  top: "inception_4e/1x1"
  param {
    lr_mult: 1
    decay_mult: 1
  }
  param {
    lr_mult: 2
    decay_mult: 0
  }
  convolution_param {
    num_output: 256
    kernel_size: 1
    weight_filler {
      type: "xavier"
      std: 0.03
    }
    bias_filler {
      type: "constant"
      value: 0.2
    }
  }
}
layer {
  name: "inception_4e/relu_1x1"
  type: "ReLU"
  bottom: "inception_4e/1x1"
  top: "inception_4e/1x1"
}
layer {
  name: "inception_4e/3x3_reduce"
  type: "Convolution"
  bottom: "inception_4d/output"
  top: "inception_4e/3x3_reduce"
  param {
    lr_mult: 1
    decay_mult: 1
  }
  param {
    lr_mult: 2
    decay_mult: 0
  }
  convolution_param {
    num_output: 160
    kernel_size: 1
    weight_filler {
      type: "xavier"
      std: 0.09
    }
    bias_filler {
      type: "constant"
      value: 0.2
    }
  }
}
layer {
  name: "inception_4e/relu_3x3_reduce"
  type: "ReLU"
  bottom: "inception_4e/3x3_reduce"
  top: "inception_4e/3x3_reduce"
}
layer {
  name: "inception_4e/3x3"
  type: "Convolution"
  bottom: "inception_4e/3x3_reduce"
  top: "inception_4e/3x3"
  param {
    lr_mult: 1
    decay_mult: 1
  }
  param {
    lr_mult: 2
    decay_mult: 0
  }
  convolution_param {
    num_output: 320
    pad: 1
    kernel_size: 3
    weight_filler {
      type: "xavier"
      std: 0.03
    }
    bias_filler {
      type: "constant"
      value: 0.2
    }
  }
}
layer {
  name: "inception_4e/relu_3x3"
  type: "ReLU"
  bottom: "inception_4e/3x3"
  top: "inception_4e/3x3"
}
layer {
  name: "inception_4e/5x5_reduce"
  type: "Convolution"
  bottom: "inception_4d/output"
  top: "inception_4e/5x5_reduce"
  param {
    lr_mult: 1
    decay_mult: 1
  }
  param {
    lr_mult: 2
    decay_mult: 0
  }
  convolution_param {
    num_output: 32
    kernel_size: 1
    weight_filler {
      type: "xavier"
      std: 0.2
    }
    bias_filler {
      type: "constant"
      value: 0.2
    }
  }
}
layer {
  name: "inception_4e/relu_5x5_reduce"
  type: "ReLU"
  bottom: "inception_4e/5x5_reduce"
  top: "inception_4e/5x5_reduce"
}
layer {
  name: "inception_4e/5x5"
  type: "Convolution"
  bottom: "inception_4e/5x5_reduce"
  top: "inception_4e/5x5"
  p
I0403 21:53:32.924574 13194 layer_factory.hpp:77] Creating layer data
I0403 21:53:32.925178 13194 net.cpp:91] Creating Layer data
I0403 21:53:32.925207 13194 net.cpp:399] data -> data
I0403 21:53:32.925266 13194 net.cpp:399] data -> label
I0403 21:53:32.925302 13194 data_transformer.cpp:25] Loading mean file from: /home/mohanty/data/final_dataset/lmdb/color-80-20/mean.binaryproto
I0403 21:53:32.926313 13196 db_lmdb.cpp:38] Opened lmdb /home/mohanty/data/final_dataset/lmdb/color-80-20/test_db
I0403 21:53:32.939152 13194 data_layer.cpp:41] output data size: 24,3,224,224
I0403 21:53:32.967856 13194 net.cpp:141] Setting up data
I0403 21:53:32.967952 13194 net.cpp:148] Top shape: 24 3 224 224 (3612672)
I0403 21:53:32.967974 13194 net.cpp:148] Top shape: 24 (24)
I0403 21:53:32.967989 13194 net.cpp:156] Memory required for data: 14450784
I0403 21:53:32.968015 13194 layer_factory.hpp:77] Creating layer label_data_1_split
I0403 21:53:32.968041 13194 net.cpp:91] Creating Layer label_data_1_split
I0403 21:53:32.968058 13194 net.cpp:425] label_data_1_split <- label
I0403 21:53:32.968089 13194 net.cpp:399] label_data_1_split -> label_data_1_split_0
I0403 21:53:32.968116 13194 net.cpp:399] label_data_1_split -> label_data_1_split_1
I0403 21:53:32.968137 13194 net.cpp:399] label_data_1_split -> label_data_1_split_2
I0403 21:53:32.968158 13194 net.cpp:399] label_data_1_split -> label_data_1_split_3
I0403 21:53:32.968175 13194 net.cpp:399] label_data_1_split -> label_data_1_split_4
I0403 21:53:32.968194 13194 net.cpp:399] label_data_1_split -> label_data_1_split_5
I0403 21:53:32.968219 13194 net.cpp:399] label_data_1_split -> label_data_1_split_6
I0403 21:53:32.968240 13194 net.cpp:399] label_data_1_split -> label_data_1_split_7
I0403 21:53:32.968258 13194 net.cpp:399] label_data_1_split -> label_data_1_split_8
I0403 21:53:32.968278 13194 net.cpp:399] label_data_1_split -> label_data_1_split_9
I0403 21:53:32.968392 13194 net.cpp:141] Setting up label_data_1_split
I0403 21:53:32.968415 13194 net.cpp:148] Top shape: 24 (24)
I0403 21:53:32.968431 13194 net.cpp:148] Top shape: 24 (24)
I0403 21:53:32.968447 13194 net.cpp:148] Top shape: 24 (24)
I0403 21:53:32.968462 13194 net.cpp:148] Top shape: 24 (24)
I0403 21:53:32.968477 13194 net.cpp:148] Top shape: 24 (24)
I0403 21:53:32.968492 13194 net.cpp:148] Top shape: 24 (24)
I0403 21:53:32.968508 13194 net.cpp:148] Top shape: 24 (24)
I0403 21:53:32.968523 13194 net.cpp:148] Top shape: 24 (24)
I0403 21:53:32.968539 13194 net.cpp:148] Top shape: 24 (24)
I0403 21:53:32.968556 13194 net.cpp:148] Top shape: 24 (24)
I0403 21:53:32.968601 13194 net.cpp:156] Memory required for data: 14451744
I0403 21:53:32.968617 13194 layer_factory.hpp:77] Creating layer conv1/7x7_s2
I0403 21:53:32.968662 13194 net.cpp:91] Creating Layer conv1/7x7_s2
I0403 21:53:32.968682 13194 net.cpp:425] conv1/7x7_s2 <- data
I0403 21:53:32.968700 13194 net.cpp:399] conv1/7x7_s2 -> conv1/7x7_s2
I0403 21:53:33.110332 13194 net.cpp:141] Setting up conv1/7x7_s2
I0403 21:53:33.110441 13194 net.cpp:148] Top shape: 24 64 112 112 (19267584)
I0403 21:53:33.110458 13194 net.cpp:156] Memory required for data: 91522080
I0403 21:53:33.110489 13194 layer_factory.hpp:77] Creating layer conv1/relu_7x7
I0403 21:53:33.110515 13194 net.cpp:91] Creating Layer conv1/relu_7x7
I0403 21:53:33.110532 13194 net.cpp:425] conv1/relu_7x7 <- conv1/7x7_s2
I0403 21:53:33.110551 13194 net.cpp:386] conv1/relu_7x7 -> conv1/7x7_s2 (in-place)
I0403 21:53:33.110796 13194 net.cpp:141] Setting up conv1/relu_7x7
I0403 21:53:33.110822 13194 net.cpp:148] Top shape: 24 64 112 112 (19267584)
I0403 21:53:33.110837 13194 net.cpp:156] Memory required for data: 168592416
I0403 21:53:33.110852 13194 layer_factory.hpp:77] Creating layer pool1/3x3_s2
I0403 21:53:33.110878 13194 net.cpp:91] Creating Layer pool1/3x3_s2
I0403 21:53:33.110896 13194 net.cpp:425] pool1/3x3_s2 <- conv1/7x7_s2
I0403 21:53:33.110914 13194 net.cpp:399] pool1/3x3_s2 -> pool1/3x3_s2
I0403 21:53:33.110985 13194 net.cpp:141] Setting up pool1/3x3_s2
I0403 21:53:33.111008 13194 net.cpp:148] Top shape: 24 64 56 56 (4816896)
I0403 21:53:33.111023 13194 net.cpp:156] Memory required for data: 187860000
I0403 21:53:33.111037 13194 layer_factory.hpp:77] Creating layer pool1/norm1
I0403 21:53:33.111063 13194 net.cpp:91] Creating Layer pool1/norm1
I0403 21:53:33.111080 13194 net.cpp:425] pool1/norm1 <- pool1/3x3_s2
I0403 21:53:33.111098 13194 net.cpp:399] pool1/norm1 -> pool1/norm1
I0403 21:53:33.111398 13194 net.cpp:141] Setting up pool1/norm1
I0403 21:53:33.111425 13194 net.cpp:148] Top shape: 24 64 56 56 (4816896)
I0403 21:53:33.111441 13194 net.cpp:156] Memory required for data: 207127584
I0403 21:53:33.111457 13194 layer_factory.hpp:77] Creating layer conv2/3x3_reduce
I0403 21:53:33.111481 13194 net.cpp:91] Creating Layer conv2/3x3_reduce
I0403 21:53:33.111498 13194 net.cpp:425] conv2/3x3_reduce <- pool1/norm1
I0403 21:53:33.111516 13194 net.cpp:399] conv2/3x3_reduce -> conv2/3x3_reduce
I0403 21:53:33.112943 13194 net.cpp:141] Setting up conv2/3x3_reduce
I0403 21:53:33.112973 13194 net.cpp:148] Top shape: 24 64 56 56 (4816896)
I0403 21:53:33.112989 13194 net.cpp:156] Memory required for data: 226395168
I0403 21:53:33.113010 13194 layer_factory.hpp:77] Creating layer conv2/relu_3x3_reduce
I0403 21:53:33.113031 13194 net.cpp:91] Creating Layer conv2/relu_3x3_reduce
I0403 21:53:33.113049 13194 net.cpp:425] conv2/relu_3x3_reduce <- conv2/3x3_reduce
I0403 21:53:33.113067 13194 net.cpp:386] conv2/relu_3x3_reduce -> conv2/3x3_reduce (in-place)
I0403 21:53:33.113334 13194 net.cpp:141] Setting up conv2/relu_3x3_reduce
I0403 21:53:33.113361 13194 net.cpp:148] Top shape: 24 64 56 56 (4816896)
I0403 21:53:33.113376 13194 net.cpp:156] Memory required for data: 245662752
I0403 21:53:33.113391 13194 layer_factory.hpp:77] Creating layer conv2/3x3
I0403 21:53:33.113420 13194 net.cpp:91] Creating Layer conv2/3x3
I0403 21:53:33.113438 13194 net.cpp:425] conv2/3x3 <- conv2/3x3_reduce
I0403 21:53:33.113461 13194 net.cpp:399] conv2/3x3 -> conv2/3x3
I0403 21:53:33.115833 13194 net.cpp:141] Setting up conv2/3x3
I0403 21:53:33.115864 13194 net.cpp:148] Top shape: 24 192 56 56 (14450688)
I0403 21:53:33.115880 13194 net.cpp:156] Memory required for data: 303465504
I0403 21:53:33.115903 13194 layer_factory.hpp:77] Creating layer conv2/relu_3x3
I0403 21:53:33.115922 13194 net.cpp:91] Creating Layer conv2/relu_3x3
I0403 21:53:33.115938 13194 net.cpp:425] conv2/relu_3x3 <- conv2/3x3
I0403 21:53:33.115957 13194 net.cpp:386] conv2/relu_3x3 -> conv2/3x3 (in-place)
I0403 21:53:33.116133 13194 net.cpp:141] Setting up conv2/relu_3x3
I0403 21:53:33.116165 13194 net.cpp:148] Top shape: 24 192 56 56 (14450688)
I0403 21:53:33.116219 13194 net.cpp:156] Memory required for data: 361268256
I0403 21:53:33.116235 13194 layer_factory.hpp:77] Creating layer conv2/norm2
I0403 21:53:33.116255 13194 net.cpp:91] Creating Layer conv2/norm2
I0403 21:53:33.116271 13194 net.cpp:425] conv2/norm2 <- conv2/3x3
I0403 21:53:33.116292 13194 net.cpp:399] conv2/norm2 -> conv2/norm2
I0403 21:53:33.116602 13194 net.cpp:141] Setting up conv2/norm2
I0403 21:53:33.116629 13194 net.cpp:148] Top shape: 24 192 56 56 (14450688)
I0403 21:53:33.116643 13194 net.cpp:156] Memory required for data: 419071008
I0403 21:53:33.116658 13194 layer_factory.hpp:77] Creating layer pool2/3x3_s2
I0403 21:53:33.116677 13194 net.cpp:91] Creating Layer pool2/3x3_s2
I0403 21:53:33.116693 13194 net.cpp:425] pool2/3x3_s2 <- conv2/norm2
I0403 21:53:33.116713 13194 net.cpp:399] pool2/3x3_s2 -> pool2/3x3_s2
I0403 21:53:33.116765 13194 net.cpp:141] Setting up pool2/3x3_s2
I0403 21:53:33.116791 13194 net.cpp:148] Top shape: 24 192 28 28 (3612672)
I0403 21:53:33.116806 13194 net.cpp:156] Memory required for data: 433521696
I0403 21:53:33.116822 13194 layer_factory.hpp:77] Creating layer pool2/3x3_s2_pool2/3x3_s2_0_split
I0403 21:53:33.116838 13194 net.cpp:91] Creating Layer pool2/3x3_s2_pool2/3x3_s2_0_split
I0403 21:53:33.116853 13194 net.cpp:425] pool2/3x3_s2_pool2/3x3_s2_0_split <- pool2/3x3_s2
I0403 21:53:33.116871 13194 net.cpp:399] pool2/3x3_s2_pool2/3x3_s2_0_split -> pool2/3x3_s2_pool2/3x3_s2_0_split_0
I0403 21:53:33.116894 13194 net.cpp:399] pool2/3x3_s2_pool2/3x3_s2_0_split -> pool2/3x3_s2_pool2/3x3_s2_0_split_1
I0403 21:53:33.116912 13194 net.cpp:399] pool2/3x3_s2_pool2/3x3_s2_0_split -> pool2/3x3_s2_pool2/3x3_s2_0_split_2
I0403 21:53:33.116931 13194 net.cpp:399] pool2/3x3_s2_pool2/3x3_s2_0_split -> pool2/3x3_s2_pool2/3x3_s2_0_split_3
I0403 21:53:33.116998 13194 net.cpp:141] Setting up pool2/3x3_s2_pool2/3x3_s2_0_split
I0403 21:53:33.117022 13194 net.cpp:148] Top shape: 24 192 28 28 (3612672)
I0403 21:53:33.117038 13194 net.cpp:148] Top shape: 24 192 28 28 (3612672)
I0403 21:53:33.117054 13194 net.cpp:148] Top shape: 24 192 28 28 (3612672)
I0403 21:53:33.117069 13194 net.cpp:148] Top shape: 24 192 28 28 (3612672)
I0403 21:53:33.117084 13194 net.cpp:156] Memory required for data: 491324448
I0403 21:53:33.117097 13194 layer_factory.hpp:77] Creating layer inception_3a/1x1
I0403 21:53:33.117122 13194 net.cpp:91] Creating Layer inception_3a/1x1
I0403 21:53:33.117139 13194 net.cpp:425] inception_3a/1x1 <- pool2/3x3_s2_pool2/3x3_s2_0_split_0
I0403 21:53:33.117171 13194 net.cpp:399] inception_3a/1x1 -> inception_3a/1x1
I0403 21:53:33.118718 13194 net.cpp:141] Setting up inception_3a/1x1
I0403 21:53:33.118747 13194 net.cpp:148] Top shape: 24 64 28 28 (1204224)
I0403 21:53:33.118762 13194 net.cpp:156] Memory required for data: 496141344
I0403 21:53:33.118782 13194 layer_factory.hpp:77] Creating layer inception_3a/relu_1x1
I0403 21:53:33.118803 13194 net.cpp:91] Creating Layer inception_3a/relu_1x1
I0403 21:53:33.118820 13194 net.cpp:425] inception_3a/relu_1x1 <- inception_3a/1x1
I0403 21:53:33.118839 13194 net.cpp:386] inception_3a/relu_1x1 -> inception_3a/1x1 (in-place)
I0403 21:53:33.119012 13194 net.cpp:141] Setting up inception_3a/relu_1x1
I0403 21:53:33.119038 13194 net.cpp:148] Top shape: 24 64 28 28 (1204224)
I0403 21:53:33.119056 13194 net.cpp:156] Memory required for data: 500958240
I0403 21:53:33.119071 13194 layer_factory.hpp:77] Creating layer inception_3a/3x3_reduce
I0403 21:53:33.119091 13194 net.cpp:91] Creating Layer inception_3a/3x3_reduce
I0403 21:53:33.119108 13194 net.cpp:425] inception_3a/3x3_reduce <- pool2/3x3_s2_pool2/3x3_s2_0_split_1
I0403 21:53:33.119129 13194 net.cpp:399] inception_3a/3x3_reduce -> inception_3a/3x3_reduce
I0403 21:53:33.120813 13194 net.cpp:141] Setting up inception_3a/3x3_reduce
I0403 21:53:33.120842 13194 net.cpp:148] Top shape: 24 96 28 28 (1806336)
I0403 21:53:33.120858 13194 net.cpp:156] Memory required for data: 508183584
I0403 21:53:33.120882 13194 layer_factory.hpp:77] Creating layer inception_3a/relu_3x3_reduce
I0403 21:53:33.120916 13194 net.cpp:91] Creating Layer inception_3a/relu_3x3_reduce
I0403 21:53:33.120934 13194 net.cpp:425] inception_3a/relu_3x3_reduce <- inception_3a/3x3_reduce
I0403 21:53:33.120954 13194 net.cpp:386] inception_3a/relu_3x3_reduce -> inception_3a/3x3_reduce (in-place)
I0403 21:53:33.121140 13194 net.cpp:141] Setting up inception_3a/relu_3x3_reduce
I0403 21:53:33.121166 13194 net.cpp:148] Top shape: 24 96 28 28 (1806336)
I0403 21:53:33.121182 13194 net.cpp:156] Memory required for data: 515408928
I0403 21:53:33.121197 13194 layer_factory.hpp:77] Creating layer inception_3a/3x3
I0403 21:53:33.121224 13194 net.cpp:91] Creating Layer inception_3a/3x3
I0403 21:53:33.121244 13194 net.cpp:425] inception_3a/3x3 <- inception_3a/3x3_reduce
I0403 21:53:33.121266 13194 net.cpp:399] inception_3a/3x3 -> inception_3a/3x3
I0403 21:53:33.122896 13194 net.cpp:141] Setting up inception_3a/3x3
I0403 21:53:33.122925 13194 net.cpp:148] Top shape: 24 128 28 28 (2408448)
I0403 21:53:33.122941 13194 net.cpp:156] Memory required for data: 525042720
I0403 21:53:33.122961 13194 layer_factory.hpp:77] Creating layer inception_3a/relu_3x3
I0403 21:53:33.122982 13194 net.cpp:91] Creating Layer inception_3a/relu_3x3
I0403 21:53:33.123000 13194 net.cpp:425] inception_3a/relu_3x3 <- inception_3a/3x3
I0403 21:53:33.123018 13194 net.cpp:386] inception_3a/relu_3x3 -> inception_3a/3x3 (in-place)
I0403 21:53:33.123293 13194 net.cpp:141] Setting up inception_3a/relu_3x3
I0403 21:53:33.123320 13194 net.cpp:148] Top shape: 24 128 28 28 (2408448)
I0403 21:53:33.123337 13194 net.cpp:156] Memory required for data: 534676512
I0403 21:53:33.123352 13194 layer_factory.hpp:77] Creating layer inception_3a/5x5_reduce
I0403 21:53:33.123374 13194 net.cpp:91] Creating Layer inception_3a/5x5_reduce
I0403 21:53:33.123392 13194 net.cpp:425] inception_3a/5x5_reduce <- pool2/3x3_s2_pool2/3x3_s2_0_split_2
I0403 21:53:33.123415 13194 net.cpp:399] inception_3a/5x5_reduce -> inception_3a/5x5_reduce
I0403 21:53:33.124361 13194 net.cpp:141] Setting up inception_3a/5x5_reduce
I0403 21:53:33.124388 13194 net.cpp:148] Top shape: 24 16 28 28 (301056)
I0403 21:53:33.124403 13194 net.cpp:156] Memory required for data: 535880736
I0403 21:53:33.124421 13194 layer_factory.hpp:77] Creating layer inception_3a/relu_5x5_reduce
I0403 21:53:33.124441 13194 net.cpp:91] Creating Layer inception_3a/relu_5x5_reduce
I0403 21:53:33.124459 13194 net.cpp:425] inception_3a/relu_5x5_reduce <- inception_3a/5x5_reduce
I0403 21:53:33.124477 13194 net.cpp:386] inception_3a/relu_5x5_reduce -> inception_3a/5x5_reduce (in-place)
I0403 21:53:33.124748 13194 net.cpp:141] Setting up inception_3a/relu_5x5_reduce
I0403 21:53:33.124780 13194 net.cpp:148] Top shape: 24 16 28 28 (301056)
I0403 21:53:33.124797 13194 net.cpp:156] Memory required for data: 537084960
I0403 21:53:33.124812 13194 layer_factory.hpp:77] Creating layer inception_3a/5x5
I0403 21:53:33.124835 13194 net.cpp:91] Creating Layer inception_3a/5x5
I0403 21:53:33.124853 13194 net.cpp:425] inception_3a/5x5 <- inception_3a/5x5_reduce
I0403 21:53:33.124872 13194 net.cpp:399] inception_3a/5x5 -> inception_3a/5x5
I0403 21:53:33.125877 13194 net.cpp:141] Setting up inception_3a/5x5
I0403 21:53:33.125905 13194 net.cpp:148] Top shape: 24 32 28 28 (602112)
I0403 21:53:33.125921 13194 net.cpp:156] Memory required for data: 539493408
I0403 21:53:33.125938 13194 layer_factory.hpp:77] Creating layer inception_3a/relu_5x5
I0403 21:53:33.125959 13194 net.cpp:91] Creating Layer inception_3a/relu_5x5
I0403 21:53:33.125977 13194 net.cpp:425] inception_3a/relu_5x5 <- inception_3a/5x5
I0403 21:53:33.125994 13194 net.cpp:386] inception_3a/relu_5x5 -> inception_3a/5x5 (in-place)
I0403 21:53:33.126168 13194 net.cpp:141] Setting up inception_3a/relu_5x5
I0403 21:53:33.126194 13194 net.cpp:148] Top shape: 24 32 28 28 (602112)
I0403 21:53:33.126214 13194 net.cpp:156] Memory required for data: 541901856
I0403 21:53:33.126231 13194 layer_factory.hpp:77] Creating layer inception_3a/pool
I0403 21:53:33.126250 13194 net.cpp:91] Creating Layer inception_3a/pool
I0403 21:53:33.126266 13194 net.cpp:425] inception_3a/pool <- pool2/3x3_s2_pool2/3x3_s2_0_split_3
I0403 21:53:33.126298 13194 net.cpp:399] inception_3a/pool -> inception_3a/pool
I0403 21:53:33.126358 13194 net.cpp:141] Setting up inception_3a/pool
I0403 21:53:33.126381 13194 net.cpp:148] Top shape: 24 192 28 28 (3612672)
I0403 21:53:33.126395 13194 net.cpp:156] Memory required for data: 556352544
I0403 21:53:33.126410 13194 layer_factory.hpp:77] Creating layer inception_3a/pool_proj
I0403 21:53:33.126431 13194 net.cpp:91] Creating Layer inception_3a/pool_proj
I0403 21:53:33.126451 13194 net.cpp:425] inception_3a/pool_proj <- inception_3a/pool
I0403 21:53:33.126472 13194 net.cpp:399] inception_3a/pool_proj -> inception_3a/pool_proj
I0403 21:53:33.127440 13194 net.cpp:141] Setting up inception_3a/pool_proj
I0403 21:53:33.127468 13194 net.cpp:148] Top shape: 24 32 28 28 (602112)
I0403 21:53:33.127485 13194 net.cpp:156] Memory required for data: 558760992
I0403 21:53:33.127506 13194 layer_factory.hpp:77] Creating layer inception_3a/relu_pool_proj
I0403 21:53:33.127527 13194 net.cpp:91] Creating Layer inception_3a/relu_pool_proj
I0403 21:53:33.127545 13194 net.cpp:425] inception_3a/relu_pool_proj <- inception_3a/pool_proj
I0403 21:53:33.127563 13194 net.cpp:386] inception_3a/relu_pool_proj -> inception_3a/pool_proj (in-place)
I0403 21:53:33.127835 13194 net.cpp:141] Setting up inception_3a/relu_pool_proj
I0403 21:53:33.127862 13194 net.cpp:148] Top shape: 24 32 28 28 (602112)
I0403 21:53:33.127878 13194 net.cpp:156] Memory required for data: 561169440
I0403 21:53:33.127893 13194 layer_factory.hpp:77] Creating layer inception_3a/output
I0403 21:53:33.127917 13194 net.cpp:91] Creating Layer inception_3a/output
I0403 21:53:33.127933 13194 net.cpp:425] inception_3a/output <- inception_3a/1x1
I0403 21:53:33.127949 13194 net.cpp:425] inception_3a/output <- inception_3a/3x3
I0403 21:53:33.127965 13194 net.cpp:425] inception_3a/output <- inception_3a/5x5
I0403 21:53:33.127981 13194 net.cpp:425] inception_3a/output <- inception_3a/pool_proj
I0403 21:53:33.127998 13194 net.cpp:399] inception_3a/output -> inception_3a/output
I0403 21:53:33.128046 13194 net.cpp:141] Setting up inception_3a/output
I0403 21:53:33.128069 13194 net.cpp:148] Top shape: 24 256 28 28 (4816896)
I0403 21:53:33.128084 13194 net.cpp:156] Memory required for data: 580437024
I0403 21:53:33.128100 13194 layer_factory.hpp:77] Creating layer inception_3a/output_inception_3a/output_0_split
I0403 21:53:33.128118 13194 net.cpp:91] Creating Layer inception_3a/output_inception_3a/output_0_split
I0403 21:53:33.128134 13194 net.cpp:425] inception_3a/output_inception_3a/output_0_split <- inception_3a/output
I0403 21:53:33.128154 13194 net.cpp:399] inception_3a/output_inception_3a/output_0_split -> inception_3a/output_inception_3a/output_0_split_0
I0403 21:53:33.128175 13194 net.cpp:399] inception_3a/output_inception_3a/output_0_split -> inception_3a/output_inception_3a/output_0_split_1
I0403 21:53:33.128199 13194 net.cpp:399] inception_3a/output_inception_3a/output_0_split -> inception_3a/output_inception_3a/output_0_split_2
I0403 21:53:33.128228 13194 net.cpp:399] inception_3a/output_inception_3a/output_0_split -> inception_3a/output_inception_3a/output_0_split_3
I0403 21:53:33.128305 13194 net.cpp:141] Setting up inception_3a/output_inception_3a/output_0_split
I0403 21:53:33.128329 13194 net.cpp:148] Top shape: 24 256 28 28 (4816896)
I0403 21:53:33.128346 13194 net.cpp:148] Top shape: 24 256 28 28 (4816896)
I0403 21:53:33.128363 13194 net.cpp:148] Top shape: 24 256 28 28 (4816896)
I0403 21:53:33.128379 13194 net.cpp:148] Top shape: 24 256 28 28 (4816896)
I0403 21:53:33.128393 13194 net.cpp:156] Memory required for data: 657507360
I0403 21:53:33.128408 13194 layer_factory.hpp:77] Creating layer inception_3b/1x1
I0403 21:53:33.128432 13194 net.cpp:91] Creating Layer inception_3b/1x1
I0403 21:53:33.128449 13194 net.cpp:425] inception_3b/1x1 <- inception_3a/output_inception_3a/output_0_split_0
I0403 21:53:33.128471 13194 net.cpp:399] inception_3b/1x1 -> inception_3b/1x1
I0403 21:53:33.129614 13194 net.cpp:141] Setting up inception_3b/1x1
I0403 21:53:33.129653 13194 net.cpp:148] Top shape: 24 128 28 28 (2408448)
I0403 21:53:33.129669 13194 net.cpp:156] Memory required for data: 667141152
I0403 21:53:33.129688 13194 layer_factory.hpp:77] Creating layer inception_3b/relu_1x1
I0403 21:53:33.129709 13194 net.cpp:91] Creating Layer inception_3b/relu_1x1
I0403 21:53:33.129726 13194 net.cpp:425] inception_3b/relu_1x1 <- inception_3b/1x1
I0403 21:53:33.129745 13194 net.cpp:386] inception_3b/relu_1x1 -> inception_3b/1x1 (in-place)
I0403 21:53:33.129916 13194 net.cpp:141] Setting up inception_3b/relu_1x1
I0403 21:53:33.129941 13194 net.cpp:148] Top shape: 24 128 28 28 (2408448)
I0403 21:53:33.129957 13194 net.cpp:156] Memory required for data: 676774944
I0403 21:53:33.129971 13194 layer_factory.hpp:77] Creating layer inception_3b/3x3_reduce
I0403 21:53:33.129995 13194 net.cpp:91] Creating Layer inception_3b/3x3_reduce
I0403 21:53:33.130014 13194 net.cpp:425] inception_3b/3x3_reduce <- inception_3a/output_inception_3a/output_0_split_1
I0403 21:53:33.130035 13194 net.cpp:399] inception_3b/3x3_reduce -> inception_3b/3x3_reduce
I0403 21:53:33.131165 13194 net.cpp:141] Setting up inception_3b/3x3_reduce
I0403 21:53:33.131191 13194 net.cpp:148] Top shape: 24 128 28 28 (2408448)
I0403 21:53:33.131206 13194 net.cpp:156] Memory required for data: 686408736
I0403 21:53:33.131230 13194 layer_factory.hpp:77] Creating layer inception_3b/relu_3x3_reduce
I0403 21:53:33.131249 13194 net.cpp:91] Creating Layer inception_3b/relu_3x3_reduce
I0403 21:53:33.131264 13194 net.cpp:425] inception_3b/relu_3x3_reduce <- inception_3b/3x3_reduce
I0403 21:53:33.131283 13194 net.cpp:386] inception_3b/relu_3x3_reduce -> inception_3b/3x3_reduce (in-place)
I0403 21:53:33.131449 13194 net.cpp:141] Setting up inception_3b/relu_3x3_reduce
I0403 21:53:33.131472 13194 net.cpp:148] Top shape: 24 128 28 28 (2408448)
I0403 21:53:33.131487 13194 net.cpp:156] Memory required for data: 696042528
I0403 21:53:33.131503 13194 layer_factory.hpp:77] Creating layer inception_3b/3x3
I0403 21:53:33.131531 13194 net.cpp:91] Creating Layer inception_3b/3x3
I0403 21:53:33.131548 13194 net.cpp:425] inception_3b/3x3 <- inception_3b/3x3_reduce
I0403 21:53:33.131569 13194 net.cpp:399] inception_3b/3x3 -> inception_3b/3x3
I0403 21:53:33.134347 13194 net.cpp:141] Setting up inception_3b/3x3
I0403 21:53:33.134377 13194 net.cpp:148] Top shape: 24 192 28 28 (3612672)
I0403 21:53:33.134390 13194 net.cpp:156] Memory required for data: 710493216
I0403 21:53:33.134409 13194 layer_factory.hpp:77] Creating layer inception_3b/relu_3x3
I0403 21:53:33.134428 13194 net.cpp:91] Creating Layer inception_3b/relu_3x3
I0403 21:53:33.134444 13194 net.cpp:425] inception_3b/relu_3x3 <- inception_3b/3x3
I0403 21:53:33.134460 13194 net.cpp:386] inception_3b/relu_3x3 -> inception_3b/3x3 (in-place)
I0403 21:53:33.134721 13194 net.cpp:141] Setting up inception_3b/relu_3x3
I0403 21:53:33.134747 13194 net.cpp:148] Top shape: 24 192 28 28 (3612672)
I0403 21:53:33.134763 13194 net.cpp:156] Memory required for data: 724943904
I0403 21:53:33.134778 13194 layer_factory.hpp:77] Creating layer inception_3b/5x5_reduce
I0403 21:53:33.134799 13194 net.cpp:91] Creating Layer inception_3b/5x5_reduce
I0403 21:53:33.134817 13194 net.cpp:425] inception_3b/5x5_reduce <- inception_3a/output_inception_3a/output_0_split_2
I0403 21:53:33.134838 13194 net.cpp:399] inception_3b/5x5_reduce -> inception_3b/5x5_reduce
I0403 21:53:33.135774 13194 net.cpp:141] Setting up inception_3b/5x5_reduce
I0403 21:53:33.135800 13194 net.cpp:148] Top shape: 24 32 28 28 (602112)
I0403 21:53:33.135814 13194 net.cpp:156] Memory required for data: 727352352
I0403 21:53:33.135833 13194 layer_factory.hpp:77] Creating layer inception_3b/relu_5x5_reduce
I0403 21:53:33.135851 13194 net.cpp:91] Creating Layer inception_3b/relu_5x5_reduce
I0403 21:53:33.135866 13194 net.cpp:425] inception_3b/relu_5x5_reduce <- inception_3b/5x5_reduce
I0403 21:53:33.135884 13194 net.cpp:386] inception_3b/relu_5x5_reduce -> inception_3b/5x5_reduce (in-place)
I0403 21:53:33.136052 13194 net.cpp:141] Setting up inception_3b/relu_5x5_reduce
I0403 21:53:33.136090 13194 net.cpp:148] Top shape: 24 32 28 28 (602112)
I0403 21:53:33.136106 13194 net.cpp:156] Memory required for data: 729760800
I0403 21:53:33.136119 13194 layer_factory.hpp:77] Creating layer inception_3b/5x5
I0403 21:53:33.136140 13194 net.cpp:91] Creating Layer inception_3b/5x5
I0403 21:53:33.136157 13194 net.cpp:425] inception_3b/5x5 <- inception_3b/5x5_reduce
I0403 21:53:33.136176 13194 net.cpp:399] inception_3b/5x5 -> inception_3b/5x5
I0403 21:53:33.138061 13194 net.cpp:141] Setting up inception_3b/5x5
I0403 21:53:33.138088 13194 net.cpp:148] Top shape: 24 96 28 28 (1806336)
I0403 21:53:33.138103 13194 net.cpp:156] Memory required for data: 736986144
I0403 21:53:33.138120 13194 layer_factory.hpp:77] Creating layer inception_3b/relu_5x5
I0403 21:53:33.138139 13194 net.cpp:91] Creating Layer inception_3b/relu_5x5
I0403 21:53:33.138154 13194 net.cpp:425] inception_3b/relu_5x5 <- inception_3b/5x5
I0403 21:53:33.138173 13194 net.cpp:386] inception_3b/relu_5x5 -> inception_3b/5x5 (in-place)
I0403 21:53:33.138366 13194 net.cpp:141] Setting up inception_3b/relu_5x5
I0403 21:53:33.138391 13194 net.cpp:148] Top shape: 24 96 28 28 (1806336)
I0403 21:53:33.138404 13194 net.cpp:156] Memory required for data: 744211488
I0403 21:53:33.138418 13194 layer_factory.hpp:77] Creating layer inception_3b/pool
I0403 21:53:33.138435 13194 net.cpp:91] Creating Layer inception_3b/pool
I0403 21:53:33.138452 13194 net.cpp:425] inception_3b/pool <- inception_3a/output_inception_3a/output_0_split_3
I0403 21:53:33.138469 13194 net.cpp:399] inception_3b/pool -> inception_3b/pool
I0403 21:53:33.138521 13194 net.cpp:141] Setting up inception_3b/pool
I0403 21:53:33.138543 13194 net.cpp:148] Top shape: 24 256 28 28 (4816896)
I0403 21:53:33.138557 13194 net.cpp:156] Memory required for data: 763479072
I0403 21:53:33.138572 13194 layer_factory.hpp:77] Creating layer inception_3b/pool_proj
I0403 21:53:33.138594 13194 net.cpp:91] Creating Layer inception_3b/pool_proj
I0403 21:53:33.138610 13194 net.cpp:425] inception_3b/pool_proj <- inception_3b/pool
I0403 21:53:33.138630 13194 net.cpp:399] inception_3b/pool_proj -> inception_3b/pool_proj
I0403 21:53:33.139626 13194 net.cpp:141] Setting up inception_3b/pool_proj
I0403 21:53:33.139655 13194 net.cpp:148] Top shape: 24 64 28 28 (1204224)
I0403 21:53:33.139670 13194 net.cpp:156] Memory required for data: 768295968
I0403 21:53:33.139688 13194 layer_factory.hpp:77] Creating layer inception_3b/relu_pool_proj
I0403 21:53:33.139705 13194 net.cpp:91] Creating Layer inception_3b/relu_pool_proj
I0403 21:53:33.139720 13194 net.cpp:425] inception_3b/relu_pool_proj <- inception_3b/pool_proj
I0403 21:53:33.139736 13194 net.cpp:386] inception_3b/relu_pool_proj -> inception_3b/pool_proj (in-place)
I0403 21:53:33.140091 13194 net.cpp:141] Setting up inception_3b/relu_pool_proj
I0403 21:53:33.140116 13194 net.cpp:148] Top shape: 24 64 28 28 (1204224)
I0403 21:53:33.140131 13194 net.cpp:156] Memory required for data: 773112864
I0403 21:53:33.140146 13194 layer_factory.hpp:77] Creating layer inception_3b/output
I0403 21:53:33.140177 13194 net.cpp:91] Creating Layer inception_3b/output
I0403 21:53:33.140192 13194 net.cpp:425] inception_3b/output <- inception_3b/1x1
I0403 21:53:33.140213 13194 net.cpp:425] inception_3b/output <- inception_3b/3x3
I0403 21:53:33.140230 13194 net.cpp:425] inception_3b/output <- inception_3b/5x5
I0403 21:53:33.140246 13194 net.cpp:425] inception_3b/output <- inception_3b/pool_proj
I0403 21:53:33.140262 13194 net.cpp:399] inception_3b/output -> inception_3b/output
I0403 21:53:33.140307 13194 net.cpp:141] Setting up inception_3b/output
I0403 21:53:33.140331 13194 net.cpp:148] Top shape: 24 480 28 28 (9031680)
I0403 21:53:33.140344 13194 net.cpp:156] Memory required for data: 809239584
I0403 21:53:33.140358 13194 layer_factory.hpp:77] Creating layer pool3/3x3_s2
I0403 21:53:33.140374 13194 net.cpp:91] Creating Layer pool3/3x3_s2
I0403 21:53:33.140389 13194 net.cpp:425] pool3/3x3_s2 <- inception_3b/output
I0403 21:53:33.140410 13194 net.cpp:399] pool3/3x3_s2 -> pool3/3x3_s2
I0403 21:53:33.140480 13194 net.cpp:141] Setting up pool3/3x3_s2
I0403 21:53:33.140503 13194 net.cpp:148] Top shape: 24 480 14 14 (2257920)
I0403 21:53:33.140518 13194 net.cpp:156] Memory required for data: 818271264
I0403 21:53:33.140532 13194 layer_factory.hpp:77] Creating layer pool3/3x3_s2_pool3/3x3_s2_0_split
I0403 21:53:33.140549 13194 net.cpp:91] Creating Layer pool3/3x3_s2_pool3/3x3_s2_0_split
I0403 21:53:33.140564 13194 net.cpp:425] pool3/3x3_s2_pool3/3x3_s2_0_split <- pool3/3x3_s2
I0403 21:53:33.140584 13194 net.cpp:399] pool3/3x3_s2_pool3/3x3_s2_0_split -> pool3/3x3_s2_pool3/3x3_s2_0_split_0
I0403 21:53:33.140604 13194 net.cpp:399] pool3/3x3_s2_pool3/3x3_s2_0_split -> pool3/3x3_s2_pool3/3x3_s2_0_split_1
I0403 21:53:33.140624 13194 net.cpp:399] pool3/3x3_s2_pool3/3x3_s2_0_split -> pool3/3x3_s2_pool3/3x3_s2_0_split_2
I0403 21:53:33.140642 13194 net.cpp:399] pool3/3x3_s2_pool3/3x3_s2_0_split -> pool3/3x3_s2_pool3/3x3_s2_0_split_3
I0403 21:53:33.140715 13194 net.cpp:141] Setting up pool3/3x3_s2_pool3/3x3_s2_0_split
I0403 21:53:33.140751 13194 net.cpp:148] Top shape: 24 480 14 14 (2257920)
I0403 21:53:33.140769 13194 net.cpp:148] Top shape: 24 480 14 14 (2257920)
I0403 21:53:33.140797 13194 net.cpp:148] Top shape: 24 480 14 14 (2257920)
I0403 21:53:33.140811 13194 net.cpp:148] Top shape: 24 480 14 14 (2257920)
I0403 21:53:33.140825 13194 net.cpp:156] Memory required for data: 854397984
I0403 21:53:33.140841 13194 layer_factory.hpp:77] Creating layer inception_4a/1x1
I0403 21:53:33.140862 13194 net.cpp:91] Creating Layer inception_4a/1x1
I0403 21:53:33.140879 13194 net.cpp:425] inception_4a/1x1 <- pool3/3x3_s2_pool3/3x3_s2_0_split_0
I0403 21:53:33.140899 13194 net.cpp:399] inception_4a/1x1 -> inception_4a/1x1
I0403 21:53:33.142454 13194 net.cpp:141] Setting up inception_4a/1x1
I0403 21:53:33.142485 13194 net.cpp:148] Top shape: 24 192 14 14 (903168)
I0403 21:53:33.142500 13194 net.cpp:156] Memory required for data: 858010656
I0403 21:53:33.142519 13194 layer_factory.hpp:77] Creating layer inception_4a/relu_1x1
I0403 21:53:33.142537 13194 net.cpp:91] Creating Layer inception_4a/relu_1x1
I0403 21:53:33.142554 13194 net.cpp:425] inception_4a/relu_1x1 <- inception_4a/1x1
I0403 21:53:33.142572 13194 net.cpp:386] inception_4a/relu_1x1 -> inception_4a/1x1 (in-place)
I0403 21:53:33.142750 13194 net.cpp:141] Setting up inception_4a/relu_1x1
I0403 21:53:33.142774 13194 net.cpp:148] Top shape: 24 192 14 14 (903168)
I0403 21:53:33.142788 13194 net.cpp:156] Memory required for data: 861623328
I0403 21:53:33.142803 13194 layer_factory.hpp:77] Creating layer inception_4a/3x3_reduce
I0403 21:53:33.142825 13194 net.cpp:91] Creating Layer inception_4a/3x3_reduce
I0403 21:53:33.142843 13194 net.cpp:425] inception_4a/3x3_reduce <- pool3/3x3_s2_pool3/3x3_s2_0_split_1
I0403 21:53:33.142863 13194 net.cpp:399] inception_4a/3x3_reduce -> inception_4a/3x3_reduce
I0403 21:53:33.144101 13194 net.cpp:141] Setting up inception_4a/3x3_reduce
I0403 21:53:33.144130 13194 net.cpp:148] Top shape: 24 96 14 14 (451584)
I0403 21:53:33.144146 13194 net.cpp:156] Memory required for data: 863429664
I0403 21:53:33.144171 13194 layer_factory.hpp:77] Creating layer inception_4a/relu_3x3_reduce
I0403 21:53:33.144192 13194 net.cpp:91] Creating Layer inception_4a/relu_3x3_reduce
I0403 21:53:33.144212 13194 net.cpp:425] inception_4a/relu_3x3_reduce <- inception_4a/3x3_reduce
I0403 21:53:33.144232 13194 net.cpp:386] inception_4a/relu_3x3_reduce -> inception_4a/3x3_reduce (in-place)
I0403 21:53:33.144403 13194 net.cpp:141] Setting up inception_4a/relu_3x3_reduce
I0403 21:53:33.144428 13194 net.cpp:148] Top shape: 24 96 14 14 (451584)
I0403 21:53:33.144443 13194 net.cpp:156] Memory required for data: 865236000
I0403 21:53:33.144459 13194 layer_factory.hpp:77] Creating layer inception_4a/3x3
I0403 21:53:33.144480 13194 net.cpp:91] Creating Layer inception_4a/3x3
I0403 21:53:33.144498 13194 net.cpp:425] inception_4a/3x3 <- inception_4a/3x3_reduce
I0403 21:53:33.144520 13194 net.cpp:399] inception_4a/3x3 -> inception_4a/3x3
I0403 21:53:33.147152 13194 net.cpp:141] Setting up inception_4a/3x3
I0403 21:53:33.147179 13194 net.cpp:148] Top shape: 24 208 14 14 (978432)
I0403 21:53:33.147195 13194 net.cpp:156] Memory required for data: 869149728
I0403 21:53:33.147219 13194 layer_factory.hpp:77] Creating layer inception_4a/relu_3x3
I0403 21:53:33.147238 13194 net.cpp:91] Creating Layer inception_4a/relu_3x3
I0403 21:53:33.147253 13194 net.cpp:425] inception_4a/relu_3x3 <- inception_4a/3x3
I0403 21:53:33.147274 13194 net.cpp:386] inception_4a/relu_3x3 -> inception_4a/3x3 (in-place)
I0403 21:53:33.147547 13194 net.cpp:141] Setting up inception_4a/relu_3x3
I0403 21:53:33.147572 13194 net.cpp:148] Top shape: 24 208 14 14 (978432)
I0403 21:53:33.147588 13194 net.cpp:156] Memory required for data: 873063456
I0403 21:53:33.147603 13194 layer_factory.hpp:77] Creating layer inception_4a/5x5_reduce
I0403 21:53:33.147625 13194 net.cpp:91] Creating Layer inception_4a/5x5_reduce
I0403 21:53:33.147644 13194 net.cpp:425] inception_4a/5x5_reduce <- pool3/3x3_s2_pool3/3x3_s2_0_split_2
I0403 21:53:33.147665 13194 net.cpp:399] inception_4a/5x5_reduce -> inception_4a/5x5_reduce
I0403 21:53:33.148654 13194 net.cpp:141] Setting up inception_4a/5x5_reduce
I0403 21:53:33.148681 13194 net.cpp:148] Top shape: 24 16 14 14 (75264)
I0403 21:53:33.148696 13194 net.cpp:156] Memory required for data: 873364512
I0403 21:53:33.148713 13194 layer_factory.hpp:77] Creating layer inception_4a/relu_5x5_reduce
I0403 21:53:33.148733 13194 net.cpp:91] Creating Layer inception_4a/relu_5x5_reduce
I0403 21:53:33.148749 13194 net.cpp:425] inception_4a/relu_5x5_reduce <- inception_4a/5x5_reduce
I0403 21:53:33.148766 13194 net.cpp:386] inception_4a/relu_5x5_reduce -> inception_4a/5x5_reduce (in-place)
I0403 21:53:33.148937 13194 net.cpp:141] Setting up inception_4a/relu_5x5_reduce
I0403 21:53:33.148965 13194 net.cpp:148] Top shape: 24 16 14 14 (75264)
I0403 21:53:33.148983 13194 net.cpp:156] Memory required for data: 873665568
I0403 21:53:33.148998 13194 layer_factory.hpp:77] Creating layer inception_4a/5x5
I0403 21:53:33.149019 13194 net.cpp:91] Creating Layer inception_4a/5x5
I0403 21:53:33.149036 13194 net.cpp:425] inception_4a/5x5 <- inception_4a/5x5_reduce
I0403 21:53:33.149055 13194 net.cpp:399] inception_4a/5x5 -> inception_4a/5x5
I0403 21:53:33.150112 13194 net.cpp:141] Setting up inception_4a/5x5
I0403 21:53:33.150137 13194 net.cpp:148] Top shape: 24 48 14 14 (225792)
I0403 21:53:33.150152 13194 net.cpp:156] Memory required for data: 874568736
I0403 21:53:33.150172 13194 layer_factory.hpp:77] Creating layer inception_4a/relu_5x5
I0403 21:53:33.150189 13194 net.cpp:91] Creating Layer inception_4a/relu_5x5
I0403 21:53:33.150207 13194 net.cpp:425] inception_4a/relu_5x5 <- inception_4a/5x5
I0403 21:53:33.150228 13194 net.cpp:386] inception_4a/relu_5x5 -> inception_4a/5x5 (in-place)
I0403 21:53:33.150406 13194 net.cpp:141] Setting up inception_4a/relu_5x5
I0403 21:53:33.150431 13194 net.cpp:148] Top shape: 24 48 14 14 (225792)
I0403 21:53:33.150445 13194 net.cpp:156] Memory required for data: 875471904
I0403 21:53:33.150460 13194 layer_factory.hpp:77] Creating layer inception_4a/pool
I0403 21:53:33.150477 13194 net.cpp:91] Creating Layer inception_4a/pool
I0403 21:53:33.150493 13194 net.cpp:425] inception_4a/pool <- pool3/3x3_s2_pool3/3x3_s2_0_split_3
I0403 21:53:33.150513 13194 net.cpp:399] inception_4a/pool -> inception_4a/pool
I0403 21:53:33.150573 13194 net.cpp:141] Setting up inception_4a/pool
I0403 21:53:33.150598 13194 net.cpp:148] Top shape: 24 480 14 14 (2257920)
I0403 21:53:33.150611 13194 net.cpp:156] Memory required for data: 884503584
I0403 21:53:33.150625 13194 layer_factory.hpp:77] Creating layer inception_4a/pool_proj
I0403 21:53:33.150650 13194 net.cpp:91] Creating Layer inception_4a/pool_proj
I0403 21:53:33.150667 13194 net.cpp:425] inception_4a/pool_proj <- inception_4a/pool
I0403 21:53:33.150686 13194 net.cpp:399] inception_4a/pool_proj -> inception_4a/pool_proj
I0403 21:53:33.151813 13194 net.cpp:141] Setting up inception_4a/pool_proj
I0403 21:53:33.151845 13194 net.cpp:148] Top shape: 24 64 14 14 (301056)
I0403 21:53:33.151875 13194 net.cpp:156] Memory required for data: 885707808
I0403 21:53:33.151893 13194 layer_factory.hpp:77] Creating layer inception_4a/relu_pool_proj
I0403 21:53:33.151912 13194 net.cpp:91] Creating Layer inception_4a/relu_pool_proj
I0403 21:53:33.151928 13194 net.cpp:425] inception_4a/relu_pool_proj <- inception_4a/pool_proj
I0403 21:53:33.151950 13194 net.cpp:386] inception_4a/relu_pool_proj -> inception_4a/pool_proj (in-place)
I0403 21:53:33.152230 13194 net.cpp:141] Setting up inception_4a/relu_pool_proj
I0403 21:53:33.152258 13194 net.cpp:148] Top shape: 24 64 14 14 (301056)
I0403 21:53:33.152273 13194 net.cpp:156] Memory required for data: 886912032
I0403 21:53:33.152288 13194 layer_factory.hpp:77] Creating layer inception_4a/output
I0403 21:53:33.152307 13194 net.cpp:91] Creating Layer inception_4a/output
I0403 21:53:33.152321 13194 net.cpp:425] inception_4a/output <- inception_4a/1x1
I0403 21:53:33.152338 13194 net.cpp:425] inception_4a/output <- inception_4a/3x3
I0403 21:53:33.152354 13194 net.cpp:425] inception_4a/output <- inception_4a/5x5
I0403 21:53:33.152369 13194 net.cpp:425] inception_4a/output <- inception_4a/pool_proj
I0403 21:53:33.152390 13194 net.cpp:399] inception_4a/output -> inception_4a/output
I0403 21:53:33.152433 13194 net.cpp:141] Setting up inception_4a/output
I0403 21:53:33.152456 13194 net.cpp:148] Top shape: 24 512 14 14 (2408448)
I0403 21:53:33.152470 13194 net.cpp:156] Memory required for data: 896545824
I0403 21:53:33.152484 13194 layer_factory.hpp:77] Creating layer inception_4a/output_inception_4a/output_0_split
I0403 21:53:33.152503 13194 net.cpp:91] Creating Layer inception_4a/output_inception_4a/output_0_split
I0403 21:53:33.152519 13194 net.cpp:425] inception_4a/output_inception_4a/output_0_split <- inception_4a/output
I0403 21:53:33.152537 13194 net.cpp:399] inception_4a/output_inception_4a/output_0_split -> inception_4a/output_inception_4a/output_0_split_0
I0403 21:53:33.152557 13194 net.cpp:399] inception_4a/output_inception_4a/output_0_split -> inception_4a/output_inception_4a/output_0_split_1
I0403 21:53:33.152585 13194 net.cpp:399] inception_4a/output_inception_4a/output_0_split -> inception_4a/output_inception_4a/output_0_split_2
I0403 21:53:33.152606 13194 net.cpp:399] inception_4a/output_inception_4a/output_0_split -> inception_4a/output_inception_4a/output_0_split_3
I0403 21:53:33.152626 13194 net.cpp:399] inception_4a/output_inception_4a/output_0_split -> inception_4a/output_inception_4a/output_0_split_4
I0403 21:53:33.152715 13194 net.cpp:141] Setting up inception_4a/output_inception_4a/output_0_split
I0403 21:53:33.152739 13194 net.cpp:148] Top shape: 24 512 14 14 (2408448)
I0403 21:53:33.152755 13194 net.cpp:148] Top shape: 24 512 14 14 (2408448)
I0403 21:53:33.152770 13194 net.cpp:148] Top shape: 24 512 14 14 (2408448)
I0403 21:53:33.152786 13194 net.cpp:148] Top shape: 24 512 14 14 (2408448)
I0403 21:53:33.152801 13194 net.cpp:148] Top shape: 24 512 14 14 (2408448)
I0403 21:53:33.152815 13194 net.cpp:156] Memory required for data: 944714784
I0403 21:53:33.152829 13194 layer_factory.hpp:77] Creating layer loss1/ave_pool
I0403 21:53:33.152849 13194 net.cpp:91] Creating Layer loss1/ave_pool
I0403 21:53:33.152866 13194 net.cpp:425] loss1/ave_pool <- inception_4a/output_inception_4a/output_0_split_0
I0403 21:53:33.152884 13194 net.cpp:399] loss1/ave_pool -> loss1/ave_pool
I0403 21:53:33.153085 13194 net.cpp:141] Setting up loss1/ave_pool
I0403 21:53:33.153113 13194 net.cpp:148] Top shape: 24 512 4 4 (196608)
I0403 21:53:33.153128 13194 net.cpp:156] Memory required for data: 945501216
I0403 21:53:33.153143 13194 layer_factory.hpp:77] Creating layer loss1/conv
I0403 21:53:33.153164 13194 net.cpp:91] Creating Layer loss1/conv
I0403 21:53:33.153182 13194 net.cpp:425] loss1/conv <- loss1/ave_pool
I0403 21:53:33.153200 13194 net.cpp:399] loss1/conv -> loss1/conv
I0403 21:53:33.154566 13194 net.cpp:141] Setting up loss1/conv
I0403 21:53:33.154592 13194 net.cpp:148] Top shape: 24 128 4 4 (49152)
I0403 21:53:33.154609 13194 net.cpp:156] Memory required for data: 945697824
I0403 21:53:33.154641 13194 layer_factory.hpp:77] Creating layer loss1/relu_conv
I0403 21:53:33.154661 13194 net.cpp:91] Creating Layer loss1/relu_conv
I0403 21:53:33.154678 13194 net.cpp:425] loss1/relu_conv <- loss1/conv
I0403 21:53:33.154695 13194 net.cpp:386] loss1/relu_conv -> loss1/conv (in-place)
I0403 21:53:33.154966 13194 net.cpp:141] Setting up loss1/relu_conv
I0403 21:53:33.154991 13194 net.cpp:148] Top shape: 24 128 4 4 (49152)
I0403 21:53:33.155006 13194 net.cpp:156] Memory required for data: 945894432
I0403 21:53:33.155021 13194 layer_factory.hpp:77] Creating layer loss1/fc
I0403 21:53:33.155046 13194 net.cpp:91] Creating Layer loss1/fc
I0403 21:53:33.155066 13194 net.cpp:425] loss1/fc <- loss1/conv
I0403 21:53:33.155083 13194 net.cpp:399] loss1/fc -> loss1/fc
I0403 21:53:33.172339 13194 net.cpp:141] Setting up loss1/fc
I0403 21:53:33.172374 13194 net.cpp:148] Top shape: 24 1024 (24576)
I0403 21:53:33.172389 13194 net.cpp:156] Memory required for data: 945992736
I0403 21:53:33.172406 13194 layer_factory.hpp:77] Creating layer loss1/relu_fc
I0403 21:53:33.172423 13194 net.cpp:91] Creating Layer loss1/relu_fc
I0403 21:53:33.172441 13194 net.cpp:425] loss1/relu_fc <- loss1/fc
I0403 21:53:33.172461 13194 net.cpp:386] loss1/relu_fc -> loss1/fc (in-place)
I0403 21:53:33.172641 13194 net.cpp:141] Setting up loss1/relu_fc
I0403 21:53:33.172667 13194 net.cpp:148] Top shape: 24 1024 (24576)
I0403 21:53:33.172683 13194 net.cpp:156] Memory required for data: 946091040
I0403 21:53:33.172698 13194 layer_factory.hpp:77] Creating layer loss1/drop_fc
I0403 21:53:33.172722 13194 net.cpp:91] Creating Layer loss1/drop_fc
I0403 21:53:33.172739 13194 net.cpp:425] loss1/drop_fc <- loss1/fc
I0403 21:53:33.172760 13194 net.cpp:386] loss1/drop_fc -> loss1/fc (in-place)
I0403 21:53:33.172809 13194 net.cpp:141] Setting up loss1/drop_fc
I0403 21:53:33.172834 13194 net.cpp:148] Top shape: 24 1024 (24576)
I0403 21:53:33.172848 13194 net.cpp:156] Memory required for data: 946189344
I0403 21:53:33.172864 13194 layer_factory.hpp:77] Creating layer loss1/classifier_plantvillage
I0403 21:53:33.172881 13194 net.cpp:91] Creating Layer loss1/classifier_plantvillage
I0403 21:53:33.172897 13194 net.cpp:425] loss1/classifier_plantvillage <- loss1/fc
I0403 21:53:33.172919 13194 net.cpp:399] loss1/classifier_plantvillage -> loss1/classifier_plantvillage
I0403 21:53:33.173815 13194 net.cpp:141] Setting up loss1/classifier_plantvillage
I0403 21:53:33.173841 13194 net.cpp:148] Top shape: 24 38 (912)
I0403 21:53:33.173856 13194 net.cpp:156] Memory required for data: 946192992
I0403 21:53:33.173872 13194 layer_factory.hpp:77] Creating layer loss1/classifier_plantvillage_loss1/classifier_plantvillage_0_split
I0403 21:53:33.173890 13194 net.cpp:91] Creating Layer loss1/classifier_plantvillage_loss1/classifier_plantvillage_0_split
I0403 21:53:33.173907 13194 net.cpp:425] loss1/classifier_plantvillage_loss1/classifier_plantvillage_0_split <- loss1/classifier_plantvillage
I0403 21:53:33.173926 13194 net.cpp:399] loss1/classifier_plantvillage_loss1/classifier_plantvillage_0_split -> loss1/classifier_plantvillage_loss1/classifier_plantvillage_0_split_0
I0403 21:53:33.173946 13194 net.cpp:399] loss1/classifier_plantvillage_loss1/classifier_plantvillage_0_split -> loss1/classifier_plantvillage_loss1/classifier_plantvillage_0_split_1
I0403 21:53:33.173965 13194 net.cpp:399] loss1/classifier_plantvillage_loss1/classifier_plantvillage_0_split -> loss1/classifier_plantvillage_loss1/classifier_plantvillage_0_split_2
I0403 21:53:33.174032 13194 net.cpp:141] Setting up loss1/classifier_plantvillage_loss1/classifier_plantvillage_0_split
I0403 21:53:33.174054 13194 net.cpp:148] Top shape: 24 38 (912)
I0403 21:53:33.174070 13194 net.cpp:148] Top shape: 24 38 (912)
I0403 21:53:33.174085 13194 net.cpp:148] Top shape: 24 38 (912)
I0403 21:53:33.174099 13194 net.cpp:156] Memory required for data: 946203936
I0403 21:53:33.174113 13194 layer_factory.hpp:77] Creating layer inception_4b/1x1
I0403 21:53:33.174135 13194 net.cpp:91] Creating Layer inception_4b/1x1
I0403 21:53:33.174167 13194 net.cpp:425] inception_4b/1x1 <- inception_4a/output_inception_4a/output_0_split_1
I0403 21:53:33.174186 13194 net.cpp:399] inception_4b/1x1 -> inception_4b/1x1
I0403 21:53:33.175755 13194 net.cpp:141] Setting up inception_4b/1x1
I0403 21:53:33.175782 13194 net.cpp:148] Top shape: 24 160 14 14 (752640)
I0403 21:53:33.175796 13194 net.cpp:156] Memory required for data: 949214496
I0403 21:53:33.175815 13194 layer_factory.hpp:77] Creating layer inception_4b/relu_1x1
I0403 21:53:33.175837 13194 net.cpp:91] Creating Layer inception_4b/relu_1x1
I0403 21:53:33.175853 13194 net.cpp:425] inception_4b/relu_1x1 <- inception_4b/1x1
I0403 21:53:33.175870 13194 net.cpp:386] inception_4b/relu_1x1 -> inception_4b/1x1 (in-place)
I0403 21:53:33.176040 13194 net.cpp:141] Setting up inception_4b/relu_1x1
I0403 21:53:33.176067 13194 net.cpp:148] Top shape: 24 160 14 14 (752640)
I0403 21:53:33.176081 13194 net.cpp:156] Memory required for data: 952225056
I0403 21:53:33.176097 13194 layer_factory.hpp:77] Creating layer inception_4b/3x3_reduce
I0403 21:53:33.176120 13194 net.cpp:91] Creating Layer inception_4b/3x3_reduce
I0403 21:53:33.176137 13194 net.cpp:425] inception_4b/3x3_reduce <- inception_4a/output_inception_4a/output_0_split_2
I0403 21:53:33.176157 13194 net.cpp:399] inception_4b/3x3_reduce -> inception_4b/3x3_reduce
I0403 21:53:33.177448 13194 net.cpp:141] Setting up inception_4b/3x3_reduce
I0403 21:53:33.177474 13194 net.cpp:148] Top shape: 24 112 14 14 (526848)
I0403 21:53:33.177492 13194 net.cpp:156] Memory required for data: 954332448
I0403 21:53:33.177510 13194 layer_factory.hpp:77] Creating layer inception_4b/relu_3x3_reduce
I0403 21:53:33.177528 13194 net.cpp:91] Creating Layer inception_4b/relu_3x3_reduce
I0403 21:53:33.177544 13194 net.cpp:425] inception_4b/relu_3x3_reduce <- inception_4b/3x3_reduce
I0403 21:53:33.177561 13194 net.cpp:386] inception_4b/relu_3x3_reduce -> inception_4b/3x3_reduce (in-place)
I0403 21:53:33.177829 13194 net.cpp:141] Setting up inception_4b/relu_3x3_reduce
I0403 21:53:33.177853 13194 net.cpp:148] Top shape: 24 112 14 14 (526848)
I0403 21:53:33.177870 13194 net.cpp:156] Memory required for data: 956439840
I0403 21:53:33.177884 13194 layer_factory.hpp:77] Creating layer inception_4b/3x3
I0403 21:53:33.177903 13194 net.cpp:91] Creating Layer inception_4b/3x3
I0403 21:53:33.177919 13194 net.cpp:425] inception_4b/3x3 <- inception_4b/3x3_reduce
I0403 21:53:33.177942 13194 net.cpp:399] inception_4b/3x3 -> inception_4b/3x3
I0403 21:53:33.180796 13194 net.cpp:141] Setting up inception_4b/3x3
I0403 21:53:33.180824 13194 net.cpp:148] Top shape: 24 224 14 14 (1053696)
I0403 21:53:33.180838 13194 net.cpp:156] Memory required for data: 960654624
I0403 21:53:33.180857 13194 layer_factory.hpp:77] Creating layer inception_4b/relu_3x3
I0403 21:53:33.180876 13194 net.cpp:91] Creating Layer inception_4b/relu_3x3
I0403 21:53:33.180891 13194 net.cpp:425] inception_4b/relu_3x3 <- inception_4b/3x3
I0403 21:53:33.180910 13194 net.cpp:386] inception_4b/relu_3x3 -> inception_4b/3x3 (in-place)
I0403 21:53:33.181083 13194 net.cpp:141] Setting up inception_4b/relu_3x3
I0403 21:53:33.181108 13194 net.cpp:148] Top shape: 24 224 14 14 (1053696)
I0403 21:53:33.181123 13194 net.cpp:156] Memory required for data: 964869408
I0403 21:53:33.181138 13194 layer_factory.hpp:77] Creating layer inception_4b/5x5_reduce
I0403 21:53:33.181159 13194 net.cpp:91] Creating Layer inception_4b/5x5_reduce
I0403 21:53:33.181177 13194 net.cpp:425] inception_4b/5x5_reduce <- inception_4a/output_inception_4a/output_0_split_3
I0403 21:53:33.181198 13194 net.cpp:399] inception_4b/5x5_reduce -> inception_4b/5x5_reduce
I0403 21:53:33.182247 13194 net.cpp:141] Setting up inception_4b/5x5_reduce
I0403 21:53:33.182274 13194 net.cpp:148] Top shape: 24 24 14 14 (112896)
I0403 21:53:33.182289 13194 net.cpp:156] Memory required for data: 965320992
I0403 21:53:33.182307 13194 layer_factory.hpp:77] Creating layer inception_4b/relu_5x5_reduce
I0403 21:53:33.182327 13194 net.cpp:91] Creating Layer inception_4b/relu_5x5_reduce
I0403 21:53:33.182356 13194 net.cpp:425] inception_4b/relu_5x5_reduce <- inception_4b/5x5_reduce
I0403 21:53:33.182374 13194 net.cpp:386] inception_4b/relu_5x5_reduce -> inception_4b/5x5_reduce (in-place)
I0403 21:53:33.182549 13194 net.cpp:141] Setting up inception_4b/relu_5x5_reduce
I0403 21:53:33.182575 13194 net.cpp:148] Top shape: 24 24 14 14 (112896)
I0403 21:53:33.182590 13194 net.cpp:156] Memory required for data: 965772576
I0403 21:53:33.182605 13194 layer_factory.hpp:77] Creating layer inception_4b/5x5
I0403 21:53:33.182626 13194 net.cpp:91] Creating Layer inception_4b/5x5
I0403 21:53:33.182642 13194 net.cpp:425] inception_4b/5x5 <- inception_4b/5x5_reduce
I0403 21:53:33.182660 13194 net.cpp:399] inception_4b/5x5 -> inception_4b/5x5
I0403 21:53:33.183831 13194 net.cpp:141] Setting up inception_4b/5x5
I0403 21:53:33.183858 13194 net.cpp:148] Top shape: 24 64 14 14 (301056)
I0403 21:53:33.183872 13194 net.cpp:156] Memory required for data: 966976800
I0403 21:53:33.183892 13194 layer_factory.hpp:77] Creating layer inception_4b/relu_5x5
I0403 21:53:33.183910 13194 net.cpp:91] Creating Layer inception_4b/relu_5x5
I0403 21:53:33.183926 13194 net.cpp:425] inception_4b/relu_5x5 <- inception_4b/5x5
I0403 21:53:33.183944 13194 net.cpp:386] inception_4b/relu_5x5 -> inception_4b/5x5 (in-place)
I0403 21:53:33.184217 13194 net.cpp:141] Setting up inception_4b/relu_5x5
I0403 21:53:33.184242 13194 net.cpp:148] Top shape: 24 64 14 14 (301056)
I0403 21:53:33.184258 13194 net.cpp:156] Memory required for data: 968181024
I0403 21:53:33.184273 13194 layer_factory.hpp:77] Creating layer inception_4b/pool
I0403 21:53:33.184289 13194 net.cpp:91] Creating Layer inception_4b/pool
I0403 21:53:33.184305 13194 net.cpp:425] inception_4b/pool <- inception_4a/output_inception_4a/output_0_split_4
I0403 21:53:33.184325 13194 net.cpp:399] inception_4b/pool -> inception_4b/pool
I0403 21:53:33.184389 13194 net.cpp:141] Setting up inception_4b/pool
I0403 21:53:33.184412 13194 net.cpp:148] Top shape: 24 512 14 14 (2408448)
I0403 21:53:33.184425 13194 net.cpp:156] Memory required for data: 977814816
I0403 21:53:33.184439 13194 layer_factory.hpp:77] Creating layer inception_4b/pool_proj
I0403 21:53:33.184460 13194 net.cpp:91] Creating Layer inception_4b/pool_proj
I0403 21:53:33.184476 13194 net.cpp:425] inception_4b/pool_proj <- inception_4b/pool
I0403 21:53:33.184497 13194 net.cpp:399] inception_4b/pool_proj -> inception_4b/pool_proj
I0403 21:53:33.185647 13194 net.cpp:141] Setting up inception_4b/pool_proj
I0403 21:53:33.185673 13194 net.cpp:148] Top shape: 24 64 14 14 (301056)
I0403 21:53:33.185688 13194 net.cpp:156] Memory required for data: 979019040
I0403 21:53:33.185706 13194 layer_factory.hpp:77] Creating layer inception_4b/relu_pool_proj
I0403 21:53:33.185726 13194 net.cpp:91] Creating Layer inception_4b/relu_pool_proj
I0403 21:53:33.185745 13194 net.cpp:425] inception_4b/relu_pool_proj <- inception_4b/pool_proj
I0403 21:53:33.185760 13194 net.cpp:386] inception_4b/relu_pool_proj -> inception_4b/pool_proj (in-place)
I0403 21:53:33.185932 13194 net.cpp:141] Setting up inception_4b/relu_pool_proj
I0403 21:53:33.185958 13194 net.cpp:148] Top shape: 24 64 14 14 (301056)
I0403 21:53:33.185972 13194 net.cpp:156] Memory required for data: 980223264
I0403 21:53:33.185988 13194 layer_factory.hpp:77] Creating layer inception_4b/output
I0403 21:53:33.186005 13194 net.cpp:91] Creating Layer inception_4b/output
I0403 21:53:33.186020 13194 net.cpp:425] inception_4b/output <- inception_4b/1x1
I0403 21:53:33.186035 13194 net.cpp:425] inception_4b/output <- inception_4b/3x3
I0403 21:53:33.186050 13194 net.cpp:425] inception_4b/output <- inception_4b/5x5
I0403 21:53:33.186066 13194 net.cpp:425] inception_4b/output <- inception_4b/pool_proj
I0403 21:53:33.186084 13194 net.cpp:399] inception_4b/output -> inception_4b/output
I0403 21:53:33.186127 13194 net.cpp:141] Setting up inception_4b/output
I0403 21:53:33.186151 13194 net.cpp:148] Top shape: 24 512 14 14 (2408448)
I0403 21:53:33.186166 13194 net.cpp:156] Memory required for data: 989857056
I0403 21:53:33.186192 13194 layer_factory.hpp:77] Creating layer inception_4b/output_inception_4b/output_0_split
I0403 21:53:33.186215 13194 net.cpp:91] Creating Layer inception_4b/output_inception_4b/output_0_split
I0403 21:53:33.186233 13194 net.cpp:425] inception_4b/output_inception_4b/output_0_split <- inception_4b/output
I0403 21:53:33.186249 13194 net.cpp:399] inception_4b/output_inception_4b/output_0_split -> inception_4b/output_inception_4b/output_0_split_0
I0403 21:53:33.186270 13194 net.cpp:399] inception_4b/output_inception_4b/output_0_split -> inception_4b/output_inception_4b/output_0_split_1
I0403 21:53:33.186290 13194 net.cpp:399] inception_4b/output_inception_4b/output_0_split -> inception_4b/output_inception_4b/output_0_split_2
I0403 21:53:33.186311 13194 net.cpp:399] inception_4b/output_inception_4b/output_0_split -> inception_4b/output_inception_4b/output_0_split_3
I0403 21:53:33.186396 13194 net.cpp:141] Setting up inception_4b/output_inception_4b/output_0_split
I0403 21:53:33.186419 13194 net.cpp:148] Top shape: 24 512 14 14 (2408448)
I0403 21:53:33.186435 13194 net.cpp:148] Top shape: 24 512 14 14 (2408448)
I0403 21:53:33.186451 13194 net.cpp:148] Top shape: 24 512 14 14 (2408448)
I0403 21:53:33.186467 13194 net.cpp:148] Top shape: 24 512 14 14 (2408448)
I0403 21:53:33.186480 13194 net.cpp:156] Memory required for data: 1028392224
I0403 21:53:33.186494 13194 layer_factory.hpp:77] Creating layer inception_4c/1x1
I0403 21:53:33.186517 13194 net.cpp:91] Creating Layer inception_4c/1x1
I0403 21:53:33.186532 13194 net.cpp:425] inception_4c/1x1 <- inception_4b/output_inception_4b/output_0_split_0
I0403 21:53:33.186553 13194 net.cpp:399] inception_4c/1x1 -> inception_4c/1x1
I0403 21:53:33.187943 13194 net.cpp:141] Setting up inception_4c/1x1
I0403 21:53:33.187973 13194 net.cpp:148] Top shape: 24 128 14 14 (602112)
I0403 21:53:33.187990 13194 net.cpp:156] Memory required for data: 1030800672
I0403 21:53:33.188007 13194 layer_factory.hpp:77] Creating layer inception_4c/relu_1x1
I0403 21:53:33.188025 13194 net.cpp:91] Creating Layer inception_4c/relu_1x1
I0403 21:53:33.188041 13194 net.cpp:425] inception_4c/relu_1x1 <- inception_4c/1x1
I0403 21:53:33.188060 13194 net.cpp:386] inception_4c/relu_1x1 -> inception_4c/1x1 (in-place)
I0403 21:53:33.188244 13194 net.cpp:141] Setting up inception_4c/relu_1x1
I0403 21:53:33.188268 13194 net.cpp:148] Top shape: 24 128 14 14 (602112)
I0403 21:53:33.188282 13194 net.cpp:156] Memory required for data: 1033209120
I0403 21:53:33.188298 13194 layer_factory.hpp:77] Creating layer inception_4c/3x3_reduce
I0403 21:53:33.188320 13194 net.cpp:91] Creating Layer inception_4c/3x3_reduce
I0403 21:53:33.188338 13194 net.cpp:425] inception_4c/3x3_reduce <- inception_4b/output_inception_4b/output_0_split_1
I0403 21:53:33.188359 13194 net.cpp:399] inception_4c/3x3_reduce -> inception_4c/3x3_reduce
I0403 21:53:33.190340 13194 net.cpp:141] Setting up inception_4c/3x3_reduce
I0403 21:53:33.190367 13194 net.cpp:148] Top shape: 24 128 14 14 (602112)
I0403 21:53:33.190384 13194 net.cpp:156] Memory required for data: 1035617568
I0403 21:53:33.190403 13194 layer_factory.hpp:77] Creating layer inception_4c/relu_3x3_reduce
I0403 21:53:33.190424 13194 net.cpp:91] Creating Layer inception_4c/relu_3x3_reduce
I0403 21:53:33.190443 13194 net.cpp:425] inception_4c/relu_3x3_reduce <- inception_4c/3x3_reduce
I0403 21:53:33.190460 13194 net.cpp:386] inception_4c/relu_3x3_reduce -> inception_4c/3x3_reduce (in-place)
I0403 21:53:33.190757 13194 net.cpp:141] Setting up inception_4c/relu_3x3_reduce
I0403 21:53:33.190781 13194 net.cpp:148] Top shape: 24 128 14 14 (602112)
I0403 21:53:33.190796 13194 net.cpp:156] Memory required for data: 1038026016
I0403 21:53:33.190811 13194 layer_factory.hpp:77] Creating layer inception_4c/3x3
I0403 21:53:33.190834 13194 net.cpp:91] Creating Layer inception_4c/3x3
I0403 21:53:33.190852 13194 net.cpp:425] inception_4c/3x3 <- inception_4c/3x3_reduce
I0403 21:53:33.190873 13194 net.cpp:399] inception_4c/3x3 -> inception_4c/3x3
I0403 21:53:33.194428 13194 net.cpp:141] Setting up inception_4c/3x3
I0403 21:53:33.194470 13194 net.cpp:148] Top shape: 24 256 14 14 (1204224)
I0403 21:53:33.194488 13194 net.cpp:156] Memory required for data: 1042842912
I0403 21:53:33.194525 13194 layer_factory.hpp:77] Creating layer inception_4c/relu_3x3
I0403 21:53:33.194558 13194 net.cpp:91] Creating Layer inception_4c/relu_3x3
I0403 21:53:33.194576 13194 net.cpp:425] inception_4c/relu_3x3 <- inception_4c/3x3
I0403 21:53:33.194592 13194 net.cpp:386] inception_4c/relu_3x3 -> inception_4c/3x3 (in-place)
I0403 21:53:33.194771 13194 net.cpp:141] Setting up inception_4c/relu_3x3
I0403 21:53:33.194795 13194 net.cpp:148] Top shape: 24 256 14 14 (1204224)
I0403 21:53:33.194810 13194 net.cpp:156] Memory required for data: 1047659808
I0403 21:53:33.194825 13194 layer_factory.hpp:77] Creating layer inception_4c/5x5_reduce
I0403 21:53:33.194849 13194 net.cpp:91] Creating Layer inception_4c/5x5_reduce
I0403 21:53:33.194865 13194 net.cpp:425] inception_4c/5x5_reduce <- inception_4b/output_inception_4b/output_0_split_2
I0403 21:53:33.194888 13194 net.cpp:399] inception_4c/5x5_reduce -> inception_4c/5x5_reduce
I0403 21:53:33.195957 13194 net.cpp:141] Setting up inception_4c/5x5_reduce
I0403 21:53:33.195986 13194 net.cpp:148] Top shape: 24 24 14 14 (112896)
I0403 21:53:33.196001 13194 net.cpp:156] Memory required for data: 1048111392
I0403 21:53:33.196018 13194 layer_factory.hpp:77] Creating layer inception_4c/relu_5x5_reduce
I0403 21:53:33.196038 13194 net.cpp:91] Creating Layer inception_4c/relu_5x5_reduce
I0403 21:53:33.196055 13194 net.cpp:425] inception_4c/relu_5x5_reduce <- inception_4c/5x5_reduce
I0403 21:53:33.196074 13194 net.cpp:386] inception_4c/relu_5x5_reduce -> inception_4c/5x5_reduce (in-place)
I0403 21:53:33.196261 13194 net.cpp:141] Setting up inception_4c/relu_5x5_reduce
I0403 21:53:33.196288 13194 net.cpp:148] Top shape: 24 24 14 14 (112896)
I0403 21:53:33.196305 13194 net.cpp:156] Memory required for data: 1048562976
I0403 21:53:33.196321 13194 layer_factory.hpp:77] Creating layer inception_4c/5x5
I0403 21:53:33.196342 13194 net.cpp:91] Creating Layer inception_4c/5x5
I0403 21:53:33.196359 13194 net.cpp:425] inception_4c/5x5 <- inception_4c/5x5_reduce
I0403 21:53:33.196378 13194 net.cpp:399] inception_4c/5x5 -> inception_4c/5x5
I0403 21:53:33.197590 13194 net.cpp:141] Setting up inception_4c/5x5
I0403 21:53:33.197619 13194 net.cpp:148] Top shape: 24 64 14 14 (301056)
I0403 21:53:33.197635 13194 net.cpp:156] Memory required for data: 1049767200
I0403 21:53:33.197654 13194 layer_factory.hpp:77] Creating layer inception_4c/relu_5x5
I0403 21:53:33.197670 13194 net.cpp:91] Creating Layer inception_4c/relu_5x5
I0403 21:53:33.197685 13194 net.cpp:425] inception_4c/relu_5x5 <- inception_4c/5x5
I0403 21:53:33.197703 13194 net.cpp:386] inception_4c/relu_5x5 -> inception_4c/5x5 (in-place)
I0403 21:53:33.197986 13194 net.cpp:141] Setting up inception_4c/relu_5x5
I0403 21:53:33.198015 13194 net.cpp:148] Top shape: 24 64 14 14 (301056)
I0403 21:53:33.198031 13194 net.cpp:156] Memory required for data: 1050971424
I0403 21:53:33.198045 13194 layer_factory.hpp:77] Creating layer inception_4c/pool
I0403 21:53:33.198062 13194 net.cpp:91] Creating Layer inception_4c/pool
I0403 21:53:33.198078 13194 net.cpp:425] inception_4c/pool <- inception_4b/output_inception_4b/output_0_split_3
I0403 21:53:33.198096 13194 net.cpp:399] inception_4c/pool -> inception_4c/pool
I0403 21:53:33.198161 13194 net.cpp:141] Setting up inception_4c/pool
I0403 21:53:33.198185 13194 net.cpp:148] Top shape: 24 512 14 14 (2408448)
I0403 21:53:33.198199 13194 net.cpp:156] Memory required for data: 1060605216
I0403 21:53:33.198220 13194 layer_factory.hpp:77] Creating layer inception_4c/pool_proj
I0403 21:53:33.198242 13194 net.cpp:91] Creating Layer inception_4c/pool_proj
I0403 21:53:33.198274 13194 net.cpp:425] inception_4c/pool_proj <- inception_4c/pool
I0403 21:53:33.198295 13194 net.cpp:399] inception_4c/pool_proj -> inception_4c/pool_proj
I0403 21:53:33.199514 13194 net.cpp:141] Setting up inception_4c/pool_proj
I0403 21:53:33.199542 13194 net.cpp:148] Top shape: 24 64 14 14 (301056)
I0403 21:53:33.199569 13194 net.cpp:156] Memory required for data: 1061809440
I0403 21:53:33.199589 13194 layer_factory.hpp:77] Creating layer inception_4c/relu_pool_proj
I0403 21:53:33.199609 13194 net.cpp:91] Creating Layer inception_4c/relu_pool_proj
I0403 21:53:33.199626 13194 net.cpp:425] inception_4c/relu_pool_proj <- inception_4c/pool_proj
I0403 21:53:33.199645 13194 net.cpp:386] inception_4c/relu_pool_proj -> inception_4c/pool_proj (in-place)
I0403 21:53:33.199825 13194 net.cpp:141] Setting up inception_4c/relu_pool_proj
I0403 21:53:33.199852 13194 net.cpp:148] Top shape: 24 64 14 14 (301056)
I0403 21:53:33.199867 13194 net.cpp:156] Memory required for data: 1063013664
I0403 21:53:33.199883 13194 layer_factory.hpp:77] Creating layer inception_4c/output
I0403 21:53:33.199900 13194 net.cpp:91] Creating Layer inception_4c/output
I0403 21:53:33.199916 13194 net.cpp:425] inception_4c/output <- inception_4c/1x1
I0403 21:53:33.199933 13194 net.cpp:425] inception_4c/output <- inception_4c/3x3
I0403 21:53:33.199947 13194 net.cpp:425] inception_4c/output <- inception_4c/5x5
I0403 21:53:33.199964 13194 net.cpp:425] inception_4c/output <- inception_4c/pool_proj
I0403 21:53:33.199981 13194 net.cpp:399] inception_4c/output -> inception_4c/output
I0403 21:53:33.200027 13194 net.cpp:141] Setting up inception_4c/output
I0403 21:53:33.200050 13194 net.cpp:148] Top shape: 24 512 14 14 (2408448)
I0403 21:53:33.200064 13194 net.cpp:156] Memory required for data: 1072647456
I0403 21:53:33.200080 13194 layer_factory.hpp:77] Creating layer inception_4c/output_inception_4c/output_0_split
I0403 21:53:33.200099 13194 net.cpp:91] Creating Layer inception_4c/output_inception_4c/output_0_split
I0403 21:53:33.200115 13194 net.cpp:425] inception_4c/output_inception_4c/output_0_split <- inception_4c/output
I0403 21:53:33.200132 13194 net.cpp:399] inception_4c/output_inception_4c/output_0_split -> inception_4c/output_inception_4c/output_0_split_0
I0403 21:53:33.200153 13194 net.cpp:399] inception_4c/output_inception_4c/output_0_split -> inception_4c/output_inception_4c/output_0_split_1
I0403 21:53:33.200172 13194 net.cpp:399] inception_4c/output_inception_4c/output_0_split -> inception_4c/output_inception_4c/output_0_split_2
I0403 21:53:33.200192 13194 net.cpp:399] inception_4c/output_inception_4c/output_0_split -> inception_4c/output_inception_4c/output_0_split_3
I0403 21:53:33.200284 13194 net.cpp:141] Setting up inception_4c/output_inception_4c/output_0_split
I0403 21:53:33.200307 13194 net.cpp:148] Top shape: 24 512 14 14 (2408448)
I0403 21:53:33.200323 13194 net.cpp:148] Top shape: 24 512 14 14 (2408448)
I0403 21:53:33.200338 13194 net.cpp:148] Top shape: 24 512 14 14 (2408448)
I0403 21:53:33.200355 13194 net.cpp:148] Top shape: 24 512 14 14 (2408448)
I0403 21:53:33.200367 13194 net.cpp:156] Memory required for data: 1111182624
I0403 21:53:33.200382 13194 layer_factory.hpp:77] Creating layer inception_4d/1x1
I0403 21:53:33.200403 13194 net.cpp:91] Creating Layer inception_4d/1x1
I0403 21:53:33.200420 13194 net.cpp:425] inception_4d/1x1 <- inception_4c/output_inception_4c/output_0_split_0
I0403 21:53:33.200441 13194 net.cpp:399] inception_4d/1x1 -> inception_4d/1x1
I0403 21:53:33.201792 13194 net.cpp:141] Setting up inception_4d/1x1
I0403 21:53:33.201819 13194 net.cpp:148] Top shape: 24 112 14 14 (526848)
I0403 21:53:33.201834 13194 net.cpp:156] Memory required for data: 1113290016
I0403 21:53:33.201853 13194 layer_factory.hpp:77] Creating layer inception_4d/relu_1x1
I0403 21:53:33.201870 13194 net.cpp:91] Creating Layer inception_4d/relu_1x1
I0403 21:53:33.201887 13194 net.cpp:425] inception_4d/relu_1x1 <- inception_4d/1x1
I0403 21:53:33.201906 13194 net.cpp:386] inception_4d/relu_1x1 -> inception_4d/1x1 (in-place)
I0403 21:53:33.202092 13194 net.cpp:141] Setting up inception_4d/relu_1x1
I0403 21:53:33.202117 13194 net.cpp:148] Top shape: 24 112 14 14 (526848)
I0403 21:53:33.202132 13194 net.cpp:156] Memory required for data: 1115397408
I0403 21:53:33.202148 13194 layer_factory.hpp:77] Creating layer inception_4d/3x3_reduce
I0403 21:53:33.202183 13194 net.cpp:91] Creating Layer inception_4d/3x3_reduce
I0403 21:53:33.202201 13194 net.cpp:425] inception_4d/3x3_reduce <- inception_4c/output_inception_4c/output_0_split_1
I0403 21:53:33.202235 13194 net.cpp:399] inception_4d/3x3_reduce -> inception_4d/3x3_reduce
I0403 21:53:33.203748 13194 net.cpp:141] Setting up inception_4d/3x3_reduce
I0403 21:53:33.203778 13194 net.cpp:148] Top shape: 24 144 14 14 (677376)
I0403 21:53:33.203794 13194 net.cpp:156] Memory required for data: 1118106912
I0403 21:53:33.203812 13194 layer_factory.hpp:77] Creating layer inception_4d/relu_3x3_reduce
I0403 21:53:33.203830 13194 net.cpp:91] Creating Layer inception_4d/relu_3x3_reduce
I0403 21:53:33.203846 13194 net.cpp:425] inception_4d/relu_3x3_reduce <- inception_4d/3x3_reduce
I0403 21:53:33.203866 13194 net.cpp:386] inception_4d/relu_3x3_reduce -> inception_4d/3x3_reduce (in-place)
I0403 21:53:33.204149 13194 net.cpp:141] Setting up inception_4d/relu_3x3_reduce
I0403 21:53:33.204176 13194 net.cpp:148] Top shape: 24 144 14 14 (677376)
I0403 21:53:33.204191 13194 net.cpp:156] Memory required for data: 1120816416
I0403 21:53:33.204206 13194 layer_factory.hpp:77] Creating layer inception_4d/3x3
I0403 21:53:33.204232 13194 net.cpp:91] Creating Layer inception_4d/3x3
I0403 21:53:33.204251 13194 net.cpp:425] inception_4d/3x3 <- inception_4d/3x3_reduce
I0403 21:53:33.204269 13194 net.cpp:399] inception_4d/3x3 -> inception_4d/3x3
I0403 21:53:33.208523 13194 net.cpp:141] Setting up inception_4d/3x3
I0403 21:53:33.208550 13194 net.cpp:148] Top shape: 24 288 14 14 (1354752)
I0403 21:53:33.208565 13194 net.cpp:156] Memory required for data: 1126235424
I0403 21:53:33.208583 13194 layer_factory.hpp:77] Creating layer inception_4d/relu_3x3
I0403 21:53:33.208603 13194 net.cpp:91] Creating Layer inception_4d/relu_3x3
I0403 21:53:33.208621 13194 net.cpp:425] inception_4d/relu_3x3 <- inception_4d/3x3
I0403 21:53:33.208637 13194 net.cpp:386] inception_4d/relu_3x3 -> inception_4d/3x3 (in-place)
I0403 21:53:33.208814 13194 net.cpp:141] Setting up inception_4d/relu_3x3
I0403 21:53:33.208838 13194 net.cpp:148] Top shape: 24 288 14 14 (1354752)
I0403 21:53:33.208853 13194 net.cpp:156] Memory required for data: 1131654432
I0403 21:53:33.208868 13194 layer_factory.hpp:77] Creating layer inception_4d/5x5_reduce
I0403 21:53:33.208889 13194 net.cpp:91] Creating Layer inception_4d/5x5_reduce
I0403 21:53:33.208905 13194 net.cpp:425] inception_4d/5x5_reduce <- inception_4c/output_inception_4c/output_0_split_2
I0403 21:53:33.208930 13194 net.cpp:399] inception_4d/5x5_reduce -> inception_4d/5x5_reduce
I0403 21:53:33.210031 13194 net.cpp:141] Setting up inception_4d/5x5_reduce
I0403 21:53:33.210057 13194 net.cpp:148] Top shape: 24 32 14 14 (150528)
I0403 21:53:33.210070 13194 net.cpp:156] Memory required for data: 1132256544
I0403 21:53:33.210088 13194 layer_factory.hpp:77] Creating layer inception_4d/relu_5x5_reduce
I0403 21:53:33.210104 13194 net.cpp:91] Creating Layer inception_4d/relu_5x5_reduce
I0403 21:53:33.210120 13194 net.cpp:425] inception_4d/relu_5x5_reduce <- inception_4d/5x5_reduce
I0403 21:53:33.210139 13194 net.cpp:386] inception_4d/relu_5x5_reduce -> inception_4d/5x5_reduce (in-place)
I0403 21:53:33.210325 13194 net.cpp:141] Setting up inception_4d/relu_5x5_reduce
I0403 21:53:33.210348 13194 net.cpp:148] Top shape: 24 32 14 14 (150528)
I0403 21:53:33.210363 13194 net.cpp:156] Memory required for data: 1132858656
I0403 21:53:33.210376 13194 layer_factory.hpp:77] Creating layer inception_4d/5x5
I0403 21:53:33.210398 13194 net.cpp:91] Creating Layer inception_4d/5x5
I0403 21:53:33.210415 13194 net.cpp:425] inception_4d/5x5 <- inception_4d/5x5_reduce
I0403 21:53:33.210435 13194 net.cpp:399] inception_4d/5x5 -> inception_4d/5x5
I0403 21:53:33.211820 13194 net.cpp:141] Setting up inception_4d/5x5
I0403 21:53:33.211848 13194 net.cpp:148] Top shape: 24 64 14 14 (301056)
I0403 21:53:33.211863 13194 net.cpp:156] Memory required for data: 1134062880
I0403 21:53:33.211884 13194 layer_factory.hpp:77] Creating layer inception_4d/relu_5x5
I0403 21:53:33.211916 13194 net.cpp:91] Creating Layer inception_4d/relu_5x5
I0403 21:53:33.211933 13194 net.cpp:425] inception_4d/relu_5x5 <- inception_4d/5x5
I0403 21:53:33.211951 13194 net.cpp:386] inception_4d/relu_5x5 -> inception_4d/5x5 (in-place)
I0403 21:53:33.212245 13194 net.cpp:141] Setting up inception_4d/relu_5x5
I0403 21:53:33.212271 13194 net.cpp:148] Top shape: 24 64 14 14 (301056)
I0403 21:53:33.212286 13194 net.cpp:156] Memory required for data: 1135267104
I0403 21:53:33.212301 13194 layer_factory.hpp:77] Creating layer inception_4d/pool
I0403 21:53:33.212321 13194 net.cpp:91] Creating Layer inception_4d/pool
I0403 21:53:33.212337 13194 net.cpp:425] inception_4d/pool <- inception_4c/output_inception_4c/output_0_split_3
I0403 21:53:33.212354 13194 net.cpp:399] inception_4d/pool -> inception_4d/pool
I0403 21:53:33.212419 13194 net.cpp:141] Setting up inception_4d/pool
I0403 21:53:33.212442 13194 net.cpp:148] Top shape: 24 512 14 14 (2408448)
I0403 21:53:33.212456 13194 net.cpp:156] Memory required for data: 1144900896
I0403 21:53:33.212471 13194 layer_factory.hpp:77] Creating layer inception_4d/pool_proj
I0403 21:53:33.212496 13194 net.cpp:91] Creating Layer inception_4d/pool_proj
I0403 21:53:33.212513 13194 net.cpp:425] inception_4d/pool_proj <- inception_4d/pool
I0403 21:53:33.212534 13194 net.cpp:399] inception_4d/pool_proj -> inception_4d/pool_proj
I0403 21:53:33.214257 13194 net.cpp:141] Setting up inception_4d/pool_proj
I0403 21:53:33.214283 13194 net.cpp:148] Top shape: 24 64 14 14 (301056)
I0403 21:53:33.214298 13194 net.cpp:156] Memory required for data: 1146105120
I0403 21:53:33.214318 13194 layer_factory.hpp:77] Creating layer inception_4d/relu_pool_proj
I0403 21:53:33.214337 13194 net.cpp:91] Creating Layer inception_4d/relu_pool_proj
I0403 21:53:33.214352 13194 net.cpp:425] inception_4d/relu_pool_proj <- inception_4d/pool_proj
I0403 21:53:33.214370 13194 net.cpp:386] inception_4d/relu_pool_proj -> inception_4d/pool_proj (in-place)
I0403 21:53:33.214547 13194 net.cpp:141] Setting up inception_4d/relu_pool_proj
I0403 21:53:33.214572 13194 net.cpp:148] Top shape: 24 64 14 14 (301056)
I0403 21:53:33.214586 13194 net.cpp:156] Memory required for data: 1147309344
I0403 21:53:33.214601 13194 layer_factory.hpp:77] Creating layer inception_4d/output
I0403 21:53:33.214619 13194 net.cpp:91] Creating Layer inception_4d/output
I0403 21:53:33.214637 13194 net.cpp:425] inception_4d/output <- inception_4d/1x1
I0403 21:53:33.214653 13194 net.cpp:425] inception_4d/output <- inception_4d/3x3
I0403 21:53:33.214668 13194 net.cpp:425] inception_4d/output <- inception_4d/5x5
I0403 21:53:33.214684 13194 net.cpp:425] inception_4d/output <- inception_4d/pool_proj
I0403 21:53:33.214699 13194 net.cpp:399] inception_4d/output -> inception_4d/output
I0403 21:53:33.214746 13194 net.cpp:141] Setting up inception_4d/output
I0403 21:53:33.214769 13194 net.cpp:148] Top shape: 24 528 14 14 (2483712)
I0403 21:53:33.214782 13194 net.cpp:156] Memory required for data: 1157244192
I0403 21:53:33.214797 13194 layer_factory.hpp:77] Creating layer inception_4d/output_inception_4d/output_0_split
I0403 21:53:33.214813 13194 net.cpp:91] Creating Layer inception_4d/output_inception_4d/output_0_split
I0403 21:53:33.214829 13194 net.cpp:425] inception_4d/output_inception_4d/output_0_split <- inception_4d/output
I0403 21:53:33.214848 13194 net.cpp:399] inception_4d/output_inception_4d/output_0_split -> inception_4d/output_inception_4d/output_0_split_0
I0403 21:53:33.214869 13194 net.cpp:399] inception_4d/output_inception_4d/output_0_split -> inception_4d/output_inception_4d/output_0_split_1
I0403 21:53:33.214887 13194 net.cpp:399] inception_4d/output_inception_4d/output_0_split -> inception_4d/output_inception_4d/output_0_split_2
I0403 21:53:33.214906 13194 net.cpp:399] inception_4d/output_inception_4d/output_0_split -> inception_4d/output_inception_4d/output_0_split_3
I0403 21:53:33.214926 13194 net.cpp:399] inception_4d/output_inception_4d/output_0_split -> inception_4d/output_inception_4d/output_0_split_4
I0403 21:53:33.215029 13194 net.cpp:141] Setting up inception_4d/output_inception_4d/output_0_split
I0403 21:53:33.215062 13194 net.cpp:148] Top shape: 24 528 14 14 (2483712)
I0403 21:53:33.215078 13194 net.cpp:148] Top shape: 24 528 14 14 (2483712)
I0403 21:53:33.215093 13194 net.cpp:148] Top shape: 24 528 14 14 (2483712)
I0403 21:53:33.215107 13194 net.cpp:148] Top shape: 24 528 14 14 (2483712)
I0403 21:53:33.215123 13194 net.cpp:148] Top shape: 24 528 14 14 (2483712)
I0403 21:53:33.215137 13194 net.cpp:156] Memory required for data: 1206918432
I0403 21:53:33.215149 13194 layer_factory.hpp:77] Creating layer loss2/ave_pool
I0403 21:53:33.215167 13194 net.cpp:91] Creating Layer loss2/ave_pool
I0403 21:53:33.215180 13194 net.cpp:425] loss2/ave_pool <- inception_4d/output_inception_4d/output_0_split_0
I0403 21:53:33.215201 13194 net.cpp:399] loss2/ave_pool -> loss2/ave_pool
I0403 21:53:33.215508 13194 net.cpp:141] Setting up loss2/ave_pool
I0403 21:53:33.215534 13194 net.cpp:148] Top shape: 24 528 4 4 (202752)
I0403 21:53:33.215548 13194 net.cpp:156] Memory required for data: 1207729440
I0403 21:53:33.215562 13194 layer_factory.hpp:77] Creating layer loss2/conv
I0403 21:53:33.215584 13194 net.cpp:91] Creating Layer loss2/conv
I0403 21:53:33.215602 13194 net.cpp:425] loss2/conv <- loss2/ave_pool
I0403 21:53:33.215622 13194 net.cpp:399] loss2/conv -> loss2/conv
I0403 21:53:33.217470 13194 net.cpp:141] Setting up loss2/conv
I0403 21:53:33.217499 13194 net.cpp:148] Top shape: 24 128 4 4 (49152)
I0403 21:53:33.217514 13194 net.cpp:156] Memory required for data: 1207926048
I0403 21:53:33.217530 13194 layer_factory.hpp:77] Creating layer loss2/relu_conv
I0403 21:53:33.217550 13194 net.cpp:91] Creating Layer loss2/relu_conv
I0403 21:53:33.217566 13194 net.cpp:425] loss2/relu_conv <- loss2/conv
I0403 21:53:33.217582 13194 net.cpp:386] loss2/relu_conv -> loss2/conv (in-place)
I0403 21:53:33.217854 13194 net.cpp:141] Setting up loss2/relu_conv
I0403 21:53:33.217880 13194 net.cpp:148] Top shape: 24 128 4 4 (49152)
I0403 21:53:33.217893 13194 net.cpp:156] Memory required for data: 1208122656
I0403 21:53:33.217907 13194 layer_factory.hpp:77] Creating layer loss2/fc
I0403 21:53:33.217927 13194 net.cpp:91] Creating Layer loss2/fc
I0403 21:53:33.217944 13194 net.cpp:425] loss2/fc <- loss2/conv
I0403 21:53:33.217965 13194 net.cpp:399] loss2/fc -> loss2/fc
I0403 21:53:33.235044 13194 net.cpp:141] Setting up loss2/fc
I0403 21:53:33.235076 13194 net.cpp:148] Top shape: 24 1024 (24576)
I0403 21:53:33.235091 13194 net.cpp:156] Memory required for data: 1208220960
I0403 21:53:33.235110 13194 layer_factory.hpp:77] Creating layer loss2/relu_fc
I0403 21:53:33.235126 13194 net.cpp:91] Creating Layer loss2/relu_fc
I0403 21:53:33.235142 13194 net.cpp:425] loss2/relu_fc <- loss2/fc
I0403 21:53:33.235160 13194 net.cpp:386] loss2/relu_fc -> loss2/fc (in-place)
I0403 21:53:33.235458 13194 net.cpp:141] Setting up loss2/relu_fc
I0403 21:53:33.235483 13194 net.cpp:148] Top shape: 24 1024 (24576)
I0403 21:53:33.235497 13194 net.cpp:156] Memory required for data: 1208319264
I0403 21:53:33.235512 13194 layer_factory.hpp:77] Creating layer loss2/drop_fc
I0403 21:53:33.235529 13194 net.cpp:91] Creating Layer loss2/drop_fc
I0403 21:53:33.235544 13194 net.cpp:425] loss2/drop_fc <- loss2/fc
I0403 21:53:33.235564 13194 net.cpp:386] loss2/drop_fc -> loss2/fc (in-place)
I0403 21:53:33.235613 13194 net.cpp:141] Setting up loss2/drop_fc
I0403 21:53:33.235636 13194 net.cpp:148] Top shape: 24 1024 (24576)
I0403 21:53:33.235651 13194 net.cpp:156] Memory required for data: 1208417568
I0403 21:53:33.235666 13194 layer_factory.hpp:77] Creating layer loss2/classifier_plantvillage
I0403 21:53:33.235683 13194 net.cpp:91] Creating Layer loss2/classifier_plantvillage
I0403 21:53:33.235698 13194 net.cpp:425] loss2/classifier_plantvillage <- loss2/fc
I0403 21:53:33.235719 13194 net.cpp:399] loss2/classifier_plantvillage -> loss2/classifier_plantvillage
I0403 21:53:33.236100 13194 net.cpp:141] Setting up loss2/classifier_plantvillage
I0403 21:53:33.236124 13194 net.cpp:148] Top shape: 24 38 (912)
I0403 21:53:33.236138 13194 net.cpp:156] Memory required for data: 1208421216
I0403 21:53:33.236172 13194 layer_factory.hpp:77] Creating layer loss2/classifier_plantvillage_loss2/classifier_plantvillage_0_split
I0403 21:53:33.236192 13194 net.cpp:91] Creating Layer loss2/classifier_plantvillage_loss2/classifier_plantvillage_0_split
I0403 21:53:33.236212 13194 net.cpp:425] loss2/classifier_plantvillage_loss2/classifier_plantvillage_0_split <- loss2/classifier_plantvillage
I0403 21:53:33.236232 13194 net.cpp:399] loss2/classifier_plantvillage_loss2/classifier_plantvillage_0_split -> loss2/classifier_plantvillage_loss2/classifier_plantvillage_0_split_0
I0403 21:53:33.236255 13194 net.cpp:399] loss2/classifier_plantvillage_loss2/classifier_plantvillage_0_split -> loss2/classifier_plantvillage_loss2/classifier_plantvillage_0_split_1
I0403 21:53:33.236275 13194 net.cpp:399] loss2/classifier_plantvillage_loss2/classifier_plantvillage_0_split -> loss2/classifier_plantvillage_loss2/classifier_plantvillage_0_split_2
I0403 21:53:33.236349 13194 net.cpp:141] Setting up loss2/classifier_plantvillage_loss2/classifier_plantvillage_0_split
I0403 21:53:33.236372 13194 net.cpp:148] Top shape: 24 38 (912)
I0403 21:53:33.236387 13194 net.cpp:148] Top shape: 24 38 (912)
I0403 21:53:33.236402 13194 net.cpp:148] Top shape: 24 38 (912)
I0403 21:53:33.236415 13194 net.cpp:156] Memory required for data: 1208432160
I0403 21:53:33.236430 13194 layer_factory.hpp:77] Creating layer inception_4e/1x1
I0403 21:53:33.236452 13194 net.cpp:91] Creating Layer inception_4e/1x1
I0403 21:53:33.236469 13194 net.cpp:425] inception_4e/1x1 <- inception_4d/output_inception_4d/output_0_split_1
I0403 21:53:33.236486 13194 net.cpp:399] inception_4e/1x1 -> inception_4e/1x1
I0403 21:53:33.238217 13194 net.cpp:141] Setting up inception_4e/1x1
I0403 21:53:33.238246 13194 net.cpp:148] Top shape: 24 256 14 14 (1204224)
I0403 21:53:33.238262 13194 net.cpp:156] Memory required for data: 1213249056
I0403 21:53:33.238281 13194 layer_factory.hpp:77] Creating layer inception_4e/relu_1x1
I0403 21:53:33.238298 13194 net.cpp:91] Creating Layer inception_4e/relu_1x1
I0403 21:53:33.238313 13194 net.cpp:425] inception_4e/relu_1x1 <- inception_4e/1x1
I0403 21:53:33.238329 13194 net.cpp:386] inception_4e/relu_1x1 -> inception_4e/1x1 (in-place)
I0403 21:53:33.238618 13194 net.cpp:141] Setting up inception_4e/relu_1x1
I0403 21:53:33.238651 13194 net.cpp:148] Top shape: 24 256 14 14 (1204224)
I0403 21:53:33.238665 13194 net.cpp:156] Memory required for data: 1218065952
I0403 21:53:33.238682 13194 layer_factory.hpp:77] Creating layer inception_4e/3x3_reduce
I0403 21:53:33.238703 13194 net.cpp:91] Creating Layer inception_4e/3x3_reduce
I0403 21:53:33.238720 13194 net.cpp:425] inception_4e/3x3_reduce <- inception_4d/output_inception_4d/output_0_split_2
I0403 21:53:33.238739 13194 net.cpp:399] inception_4e/3x3_reduce -> inception_4e/3x3_reduce
I0403 21:53:33.240823 13194 net.cpp:141] Setting up inception_4e/3x3_reduce
I0403 21:53:33.240852 13194 net.cpp:148] Top shape: 24 160 14 14 (752640)
I0403 21:53:33.240867 13194 net.cpp:156] Memory required for data: 1221076512
I0403 21:53:33.240885 13194 layer_factory.hpp:77] Creating layer inception_4e/relu_3x3_reduce
I0403 21:53:33.240906 13194 net.cpp:91] Creating Layer inception_4e/relu_3x3_reduce
I0403 21:53:33.240922 13194 net.cpp:425] inception_4e/relu_3x3_reduce <- inception_4e/3x3_reduce
I0403 21:53:33.240939 13194 net.cpp:386] inception_4e/relu_3x3_reduce -> inception_4e/3x3_reduce (in-place)
I0403 21:53:33.241117 13194 net.cpp:141] Setting up inception_4e/relu_3x3_reduce
I0403 21:53:33.241144 13194 net.cpp:148] Top shape: 24 160 14 14 (752640)
I0403 21:53:33.241159 13194 net.cpp:156] Memory required for data: 1224087072
I0403 21:53:33.241175 13194 layer_factory.hpp:77] Creating layer inception_4e/3x3
I0403 21:53:33.241197 13194 net.cpp:91] Creating Layer inception_4e/3x3
I0403 21:53:33.241232 13194 net.cpp:425] inception_4e/3x3 <- inception_4e/3x3_reduce
I0403 21:53:33.241252 13194 net.cpp:399] inception_4e/3x3 -> inception_4e/3x3
I0403 21:53:33.246268 13194 net.cpp:141] Setting up inception_4e/3x3
I0403 21:53:33.246315 13194 net.cpp:148] Top shape: 24 320 14 14 (1505280)
I0403 21:53:33.246331 13194 net.cpp:156] Memory required for data: 1230108192
I0403 21:53:33.246351 13194 layer_factory.hpp:77] Creating layer inception_4e/relu_3x3
I0403 21:53:33.246368 13194 net.cpp:91] Creating Layer inception_4e/relu_3x3
I0403 21:53:33.246384 13194 net.cpp:425] inception_4e/relu_3x3 <- inception_4e/3x3
I0403 21:53:33.246404 13194 net.cpp:386] inception_4e/relu_3x3 -> inception_4e/3x3 (in-place)
I0403 21:53:33.246716 13194 net.cpp:141] Setting up inception_4e/relu_3x3
I0403 21:53:33.246742 13194 net.cpp:148] Top shape: 24 320 14 14 (1505280)
I0403 21:53:33.246757 13194 net.cpp:156] Memory required for data: 1236129312
I0403 21:53:33.246772 13194 layer_factory.hpp:77] Creating layer inception_4e/5x5_reduce
I0403 21:53:33.246794 13194 net.cpp:91] Creating Layer inception_4e/5x5_reduce
I0403 21:53:33.246811 13194 net.cpp:425] inception_4e/5x5_reduce <- inception_4d/output_inception_4d/output_0_split_3
I0403 21:53:33.246834 13194 net.cpp:399] inception_4e/5x5_reduce -> inception_4e/5x5_reduce
I0403 21:53:33.247889 13194 net.cpp:141] Setting up inception_4e/5x5_reduce
I0403 21:53:33.247917 13194 net.cpp:148] Top shape: 24 32 14 14 (150528)
I0403 21:53:33.247932 13194 net.cpp:156] Memory required for data: 1236731424
I0403 21:53:33.247951 13194 layer_factory.hpp:77] Creating layer inception_4e/relu_5x5_reduce
I0403 21:53:33.247972 13194 net.cpp:91] Creating Layer inception_4e/relu_5x5_reduce
I0403 21:53:33.247988 13194 net.cpp:425] inception_4e/relu_5x5_reduce <- inception_4e/5x5_reduce
I0403 21:53:33.248005 13194 net.cpp:386] inception_4e/relu_5x5_reduce -> inception_4e/5x5_reduce (in-place)
I0403 21:53:33.248306 13194 net.cpp:141] Setting up inception_4e/relu_5x5_reduce
I0403 21:53:33.248332 13194 net.cpp:148] Top shape: 24 32 14 14 (150528)
I0403 21:53:33.248347 13194 net.cpp:156] Memory required for data: 1237333536
I0403 21:53:33.248363 13194 layer_factory.hpp:77] Creating layer inception_4e/5x5
I0403 21:53:33.248401 13194 net.cpp:91] Creating Layer inception_4e/5x5
I0403 21:53:33.248420 13194 net.cpp:425] inception_4e/5x5 <- inception_4e/5x5_reduce
I0403 21:53:33.248442 13194 net.cpp:399] inception_4e/5x5 -> inception_4e/5x5
I0403 21:53:33.250265 13194 net.cpp:141] Setting up inception_4e/5x5
I0403 21:53:33.250293 13194 net.cpp:148] Top shape: 24 128 14 14 (602112)
I0403 21:53:33.250309 13194 net.cpp:156] Memory required for data: 1239741984
I0403 21:53:33.250329 13194 layer_factory.hpp:77] Creating layer inception_4e/relu_5x5
I0403 21:53:33.250349 13194 net.cpp:91] Creating Layer inception_4e/relu_5x5
I0403 21:53:33.250366 13194 net.cpp:425] inception_4e/relu_5x5 <- inception_4e/5x5
I0403 21:53:33.250385 13194 net.cpp:386] inception_4e/relu_5x5 -> inception_4e/5x5 (in-place)
I0403 21:53:33.250599 13194 net.cpp:141] Setting up inception_4e/relu_5x5
I0403 21:53:33.250623 13194 net.cpp:148] Top shape: 24 128 14 14 (602112)
I0403 21:53:33.250638 13194 net.cpp:156] Memory required for data: 1242150432
I0403 21:53:33.250653 13194 layer_factory.hpp:77] Creating layer inception_4e/pool
I0403 21:53:33.250674 13194 net.cpp:91] Creating Layer inception_4e/pool
I0403 21:53:33.250690 13194 net.cpp:425] inception_4e/pool <- inception_4d/output_inception_4d/output_0_split_4
I0403 21:53:33.250708 13194 net.cpp:399] inception_4e/pool -> inception_4e/pool
I0403 21:53:33.250779 13194 net.cpp:141] Setting up inception_4e/pool
I0403 21:53:33.250804 13194 net.cpp:148] Top shape: 24 528 14 14 (2483712)
I0403 21:53:33.250819 13194 net.cpp:156] Memory required for data: 1252085280
I0403 21:53:33.250834 13194 layer_factory.hpp:77] Creating layer inception_4e/pool_proj
I0403 21:53:33.250855 13194 net.cpp:91] Creating Layer inception_4e/pool_proj
I0403 21:53:33.250874 13194 net.cpp:425] inception_4e/pool_proj <- inception_4e/pool
I0403 21:53:33.250895 13194 net.cpp:399] inception_4e/pool_proj -> inception_4e/pool_proj
I0403 21:53:33.252393 13194 net.cpp:141] Setting up inception_4e/pool_proj
I0403 21:53:33.252420 13194 net.cpp:148] Top shape: 24 128 14 14 (602112)
I0403 21:53:33.252450 13194 net.cpp:156] Memory required for data: 1254493728
I0403 21:53:33.252470 13194 layer_factory.hpp:77] Creating layer inception_4e/relu_pool_proj
I0403 21:53:33.252490 13194 net.cpp:91] Creating Layer inception_4e/relu_pool_proj
I0403 21:53:33.252506 13194 net.cpp:425] inception_4e/relu_pool_proj <- inception_4e/pool_proj
I0403 21:53:33.252523 13194 net.cpp:386] inception_4e/relu_pool_proj -> inception_4e/pool_proj (in-place)
I0403 21:53:33.252820 13194 net.cpp:141] Setting up inception_4e/relu_pool_proj
I0403 21:53:33.252846 13194 net.cpp:148] Top shape: 24 128 14 14 (602112)
I0403 21:53:33.252861 13194 net.cpp:156] Memory required for data: 1256902176
I0403 21:53:33.252874 13194 layer_factory.hpp:77] Creating layer inception_4e/output
I0403 21:53:33.252892 13194 net.cpp:91] Creating Layer inception_4e/output
I0403 21:53:33.252907 13194 net.cpp:425] inception_4e/output <- inception_4e/1x1
I0403 21:53:33.252923 13194 net.cpp:425] inception_4e/output <- inception_4e/3x3
I0403 21:53:33.252939 13194 net.cpp:425] inception_4e/output <- inception_4e/5x5
I0403 21:53:33.252955 13194 net.cpp:425] inception_4e/output <- inception_4e/pool_proj
I0403 21:53:33.252975 13194 net.cpp:399] inception_4e/output -> inception_4e/output
I0403 21:53:33.253022 13194 net.cpp:141] Setting up inception_4e/output
I0403 21:53:33.253048 13194 net.cpp:148] Top shape: 24 832 14 14 (3913728)
I0403 21:53:33.253063 13194 net.cpp:156] Memory required for data: 1272557088
I0403 21:53:33.253077 13194 layer_factory.hpp:77] Creating layer pool4/3x3_s2
I0403 21:53:33.253094 13194 net.cpp:91] Creating Layer pool4/3x3_s2
I0403 21:53:33.253109 13194 net.cpp:425] pool4/3x3_s2 <- inception_4e/output
I0403 21:53:33.253131 13194 net.cpp:399] pool4/3x3_s2 -> pool4/3x3_s2
I0403 21:53:33.253196 13194 net.cpp:141] Setting up pool4/3x3_s2
I0403 21:53:33.253224 13194 net.cpp:148] Top shape: 24 832 7 7 (978432)
I0403 21:53:33.253240 13194 net.cpp:156] Memory required for data: 1276470816
I0403 21:53:33.253255 13194 layer_factory.hpp:77] Creating layer pool4/3x3_s2_pool4/3x3_s2_0_split
I0403 21:53:33.253274 13194 net.cpp:91] Creating Layer pool4/3x3_s2_pool4/3x3_s2_0_split
I0403 21:53:33.253290 13194 net.cpp:425] pool4/3x3_s2_pool4/3x3_s2_0_split <- pool4/3x3_s2
I0403 21:53:33.253307 13194 net.cpp:399] pool4/3x3_s2_pool4/3x3_s2_0_split -> pool4/3x3_s2_pool4/3x3_s2_0_split_0
I0403 21:53:33.253326 13194 net.cpp:399] pool4/3x3_s2_pool4/3x3_s2_0_split -> pool4/3x3_s2_pool4/3x3_s2_0_split_1
I0403 21:53:33.253346 13194 net.cpp:399] pool4/3x3_s2_pool4/3x3_s2_0_split -> pool4/3x3_s2_pool4/3x3_s2_0_split_2
I0403 21:53:33.253368 13194 net.cpp:399] pool4/3x3_s2_pool4/3x3_s2_0_split -> pool4/3x3_s2_pool4/3x3_s2_0_split_3
I0403 21:53:33.253460 13194 net.cpp:141] Setting up pool4/3x3_s2_pool4/3x3_s2_0_split
I0403 21:53:33.253484 13194 net.cpp:148] Top shape: 24 832 7 7 (978432)
I0403 21:53:33.253499 13194 net.cpp:148] Top shape: 24 832 7 7 (978432)
I0403 21:53:33.253515 13194 net.cpp:148] Top shape: 24 832 7 7 (978432)
I0403 21:53:33.253530 13194 net.cpp:148] Top shape: 24 832 7 7 (978432)
I0403 21:53:33.253543 13194 net.cpp:156] Memory required for data: 1292125728
I0403 21:53:33.253557 13194 layer_factory.hpp:77] Creating layer inception_5a/1x1
I0403 21:53:33.253581 13194 net.cpp:91] Creating Layer inception_5a/1x1
I0403 21:53:33.253598 13194 net.cpp:425] inception_5a/1x1 <- pool4/3x3_s2_pool4/3x3_s2_0_split_0
I0403 21:53:33.253619 13194 net.cpp:399] inception_5a/1x1 -> inception_5a/1x1
I0403 21:53:33.256471 13194 net.cpp:141] Setting up inception_5a/1x1
I0403 21:53:33.256500 13194 net.cpp:148] Top shape: 24 256 7 7 (301056)
I0403 21:53:33.256515 13194 net.cpp:156] Memory required for data: 1293329952
I0403 21:53:33.256533 13194 layer_factory.hpp:77] Creating layer inception_5a/relu_1x1
I0403 21:53:33.256553 13194 net.cpp:91] Creating Layer inception_5a/relu_1x1
I0403 21:53:33.256569 13194 net.cpp:425] inception_5a/relu_1x1 <- inception_5a/1x1
I0403 21:53:33.256587 13194 net.cpp:386] inception_5a/relu_1x1 -> inception_5a/1x1 (in-place)
I0403 21:53:33.256898 13194 net.cpp:141] Setting up inception_5a/relu_1x1
I0403 21:53:33.256924 13194 net.cpp:148] Top shape: 24 256 7 7 (301056)
I0403 21:53:33.256939 13194 net.cpp:156] Memory required for data: 1294534176
I0403 21:53:33.256955 13194 layer_factory.hpp:77] Creating layer inception_5a/3x3_reduce
I0403 21:53:33.256978 13194 net.cpp:91] Creating Layer inception_5a/3x3_reduce
I0403 21:53:33.256995 13194 net.cpp:425] inception_5a/3x3_reduce <- pool4/3x3_s2_pool4/3x3_s2_0_split_1
I0403 21:53:33.257019 13194 net.cpp:399] inception_5a/3x3_reduce -> inception_5a/3x3_reduce
I0403 21:53:33.259485 13194 net.cpp:141] Setting up inception_5a/3x3_reduce
I0403 21:53:33.259516 13194 net.cpp:148] Top shape: 24 160 7 7 (188160)
I0403 21:53:33.259531 13194 net.cpp:156] Memory required for data: 1295286816
I0403 21:53:33.259549 13194 layer_factory.hpp:77] Creating layer inception_5a/relu_3x3_reduce
I0403 21:53:33.259567 13194 net.cpp:91] Creating Layer inception_5a/relu_3x3_reduce
I0403 21:53:33.259582 13194 net.cpp:425] inception_5a/relu_3x3_reduce <- inception_5a/3x3_reduce
I0403 21:53:33.259601 13194 net.cpp:386] inception_5a/relu_3x3_reduce -> inception_5a/3x3_reduce (in-place)
I0403 21:53:33.259783 13194 net.cpp:141] Setting up inception_5a/relu_3x3_reduce
I0403 21:53:33.259806 13194 net.cpp:148] Top shape: 24 160 7 7 (188160)
I0403 21:53:33.259820 13194 net.cpp:156] Memory required for data: 1296039456
I0403 21:53:33.259835 13194 layer_factory.hpp:77] Creating layer inception_5a/3x3
I0403 21:53:33.259856 13194 net.cpp:91] Creating Layer inception_5a/3x3
I0403 21:53:33.259872 13194 net.cpp:425] inception_5a/3x3 <- inception_5a/3x3_reduce
I0403 21:53:33.259894 13194 net.cpp:399] inception_5a/3x3 -> inception_5a/3x3
I0403 21:53:33.264765 13194 net.cpp:141] Setting up inception_5a/3x3
I0403 21:53:33.264794 13194 net.cpp:148] Top shape: 24 320 7 7 (376320)
I0403 21:53:33.264808 13194 net.cpp:156] Memory required for data: 1297544736
I0403 21:53:33.264827 13194 layer_factory.hpp:77] Creating layer inception_5a/relu_3x3
I0403 21:53:33.264847 13194 net.cpp:91] Creating Layer inception_5a/relu_3x3
I0403 21:53:33.264863 13194 net.cpp:425] inception_5a/relu_3x3 <- inception_5a/3x3
I0403 21:53:33.264881 13194 net.cpp:386] inception_5a/relu_3x3 -> inception_5a/3x3 (in-place)
I0403 21:53:33.265166 13194 net.cpp:141] Setting up inception_5a/relu_3x3
I0403 21:53:33.265192 13194 net.cpp:148] Top shape: 24 320 7 7 (376320)
I0403 21:53:33.265208 13194 net.cpp:156] Memory required for data: 1299050016
I0403 21:53:33.265226 13194 layer_factory.hpp:77] Creating layer inception_5a/5x5_reduce
I0403 21:53:33.265249 13194 net.cpp:91] Creating Layer inception_5a/5x5_reduce
I0403 21:53:33.265266 13194 net.cpp:425] inception_5a/5x5_reduce <- pool4/3x3_s2_pool4/3x3_s2_0_split_2
I0403 21:53:33.265287 13194 net.cpp:399] inception_5a/5x5_reduce -> inception_5a/5x5_reduce
I0403 21:53:33.266425 13194 net.cpp:141] Setting up inception_5a/5x5_reduce
I0403 21:53:33.266453 13194 net.cpp:148] Top shape: 24 32 7 7 (37632)
I0403 21:53:33.266468 13194 net.cpp:156] Memory required for data: 1299200544
I0403 21:53:33.266484 13194 layer_factory.hpp:77] Creating layer inception_5a/relu_5x5_reduce
I0403 21:53:33.266504 13194 net.cpp:91] Creating Layer inception_5a/relu_5x5_reduce
I0403 21:53:33.266520 13194 net.cpp:425] inception_5a/relu_5x5_reduce <- inception_5a/5x5_reduce
I0403 21:53:33.266536 13194 net.cpp:386] inception_5a/relu_5x5_reduce -> inception_5a/5x5_reduce (in-place)
I0403 21:53:33.266847 13194 net.cpp:141] Setting up inception_5a/relu_5x5_reduce
I0403 21:53:33.266885 13194 net.cpp:148] Top shape: 24 32 7 7 (37632)
I0403 21:53:33.266899 13194 net.cpp:156] Memory required for data: 1299351072
I0403 21:53:33.266914 13194 layer_factory.hpp:77] Creating layer inception_5a/5x5
I0403 21:53:33.266937 13194 net.cpp:91] Creating Layer inception_5a/5x5
I0403 21:53:33.266955 13194 net.cpp:425] inception_5a/5x5 <- inception_5a/5x5_reduce
I0403 21:53:33.266973 13194 net.cpp:399] inception_5a/5x5 -> inception_5a/5x5
I0403 21:53:33.268635 13194 net.cpp:141] Setting up inception_5a/5x5
I0403 21:53:33.268672 13194 net.cpp:148] Top shape: 24 128 7 7 (150528)
I0403 21:53:33.268687 13194 net.cpp:156] Memory required for data: 1299953184
I0403 21:53:33.268705 13194 layer_factory.hpp:77] Creating layer inception_5a/relu_5x5
I0403 21:53:33.268724 13194 net.cpp:91] Creating Layer inception_5a/relu_5x5
I0403 21:53:33.268740 13194 net.cpp:425] inception_5a/relu_5x5 <- inception_5a/5x5
I0403 21:53:33.268759 13194 net.cpp:386] inception_5a/relu_5x5 -> inception_5a/5x5 (in-place)
I0403 21:53:33.268941 13194 net.cpp:141] Setting up inception_5a/relu_5x5
I0403 21:53:33.268966 13194 net.cpp:148] Top shape: 24 128 7 7 (150528)
I0403 21:53:33.268980 13194 net.cpp:156] Memory required for data: 1300555296
I0403 21:53:33.268995 13194 layer_factory.hpp:77] Creating layer inception_5a/pool
I0403 21:53:33.269014 13194 net.cpp:91] Creating Layer inception_5a/pool
I0403 21:53:33.269031 13194 net.cpp:425] inception_5a/pool <- pool4/3x3_s2_pool4/3x3_s2_0_split_3
I0403 21:53:33.269050 13194 net.cpp:399] inception_5a/pool -> inception_5a/pool
I0403 21:53:33.269117 13194 net.cpp:141] Setting up inception_5a/pool
I0403 21:53:33.269140 13194 net.cpp:148] Top shape: 24 832 7 7 (978432)
I0403 21:53:33.269155 13194 net.cpp:156] Memory required for data: 1304469024
I0403 21:53:33.269168 13194 layer_factory.hpp:77] Creating layer inception_5a/pool_proj
I0403 21:53:33.269191 13194 net.cpp:91] Creating Layer inception_5a/pool_proj
I0403 21:53:33.269212 13194 net.cpp:425] inception_5a/pool_proj <- inception_5a/pool
I0403 21:53:33.269233 13194 net.cpp:399] inception_5a/pool_proj -> inception_5a/pool_proj
I0403 21:53:33.271450 13194 net.cpp:141] Setting up inception_5a/pool_proj
I0403 21:53:33.271477 13194 net.cpp:148] Top shape: 24 128 7 7 (150528)
I0403 21:53:33.271492 13194 net.cpp:156] Memory required for data: 1305071136
I0403 21:53:33.271510 13194 layer_factory.hpp:77] Creating layer inception_5a/relu_pool_proj
I0403 21:53:33.271528 13194 net.cpp:91] Creating Layer inception_5a/relu_pool_proj
I0403 21:53:33.271544 13194 net.cpp:425] inception_5a/relu_pool_proj <- inception_5a/pool_proj
I0403 21:53:33.271564 13194 net.cpp:386] inception_5a/relu_pool_proj -> inception_5a/pool_proj (in-place)
I0403 21:53:33.271848 13194 net.cpp:141] Setting up inception_5a/relu_pool_proj
I0403 21:53:33.271874 13194 net.cpp:148] Top shape: 24 128 7 7 (150528)
I0403 21:53:33.271889 13194 net.cpp:156] Memory required for data: 1305673248
I0403 21:53:33.271904 13194 layer_factory.hpp:77] Creating layer inception_5a/output
I0403 21:53:33.271920 13194 net.cpp:91] Creating Layer inception_5a/output
I0403 21:53:33.271935 13194 net.cpp:425] inception_5a/output <- inception_5a/1x1
I0403 21:53:33.271951 13194 net.cpp:425] inception_5a/output <- inception_5a/3x3
I0403 21:53:33.271968 13194 net.cpp:425] inception_5a/output <- inception_5a/5x5
I0403 21:53:33.271984 13194 net.cpp:425] inception_5a/output <- inception_5a/pool_proj
I0403 21:53:33.272003 13194 net.cpp:399] inception_5a/output -> inception_5a/output
I0403 21:53:33.272052 13194 net.cpp:141] Setting up inception_5a/output
I0403 21:53:33.272076 13194 net.cpp:148] Top shape: 24 832 7 7 (978432)
I0403 21:53:33.272091 13194 net.cpp:156] Memory required for data: 1309586976
I0403 21:53:33.272106 13194 layer_factory.hpp:77] Creating layer inception_5a/output_inception_5a/output_0_split
I0403 21:53:33.272124 13194 net.cpp:91] Creating Layer inception_5a/output_inception_5a/output_0_split
I0403 21:53:33.272138 13194 net.cpp:425] inception_5a/output_inception_5a/output_0_split <- inception_5a/output
I0403 21:53:33.272156 13194 net.cpp:399] inception_5a/output_inception_5a/output_0_split -> inception_5a/output_inception_5a/output_0_split_0
I0403 21:53:33.272177 13194 net.cpp:399] inception_5a/output_inception_5a/output_0_split -> inception_5a/output_inception_5a/output_0_split_1
I0403 21:53:33.272199 13194 net.cpp:399] inception_5a/output_inception_5a/output_0_split -> inception_5a/output_inception_5a/output_0_split_2
I0403 21:53:33.272231 13194 net.cpp:399] inception_5a/output_inception_5a/output_0_split -> inception_5a/output_inception_5a/output_0_split_3
I0403 21:53:33.272342 13194 net.cpp:141] Setting up inception_5a/output_inception_5a/output_0_split
I0403 21:53:33.272366 13194 net.cpp:148] Top shape: 24 832 7 7 (978432)
I0403 21:53:33.272382 13194 net.cpp:148] Top shape: 24 832 7 7 (978432)
I0403 21:53:33.272397 13194 net.cpp:148] Top shape: 24 832 7 7 (978432)
I0403 21:53:33.272411 13194 net.cpp:148] Top shape: 24 832 7 7 (978432)
I0403 21:53:33.272424 13194 net.cpp:156] Memory required for data: 1325241888
I0403 21:53:33.272439 13194 layer_factory.hpp:77] Creating layer inception_5b/1x1
I0403 21:53:33.272462 13194 net.cpp:91] Creating Layer inception_5b/1x1
I0403 21:53:33.272480 13194 net.cpp:425] inception_5b/1x1 <- inception_5a/output_inception_5a/output_0_split_0
I0403 21:53:33.272498 13194 net.cpp:399] inception_5b/1x1 -> inception_5b/1x1
I0403 21:53:33.276118 13194 net.cpp:141] Setting up inception_5b/1x1
I0403 21:53:33.276146 13194 net.cpp:148] Top shape: 24 384 7 7 (451584)
I0403 21:53:33.276160 13194 net.cpp:156] Memory required for data: 1327048224
I0403 21:53:33.276178 13194 layer_factory.hpp:77] Creating layer inception_5b/relu_1x1
I0403 21:53:33.276196 13194 net.cpp:91] Creating Layer inception_5b/relu_1x1
I0403 21:53:33.276216 13194 net.cpp:425] inception_5b/relu_1x1 <- inception_5b/1x1
I0403 21:53:33.276240 13194 net.cpp:386] inception_5b/relu_1x1 -> inception_5b/1x1 (in-place)
I0403 21:53:33.276537 13194 net.cpp:141] Setting up inception_5b/relu_1x1
I0403 21:53:33.276561 13194 net.cpp:148] Top shape: 24 384 7 7 (451584)
I0403 21:53:33.276576 13194 net.cpp:156] Memory required for data: 1328854560
I0403 21:53:33.276589 13194 layer_factory.hpp:77] Creating layer inception_5b/3x3_reduce
I0403 21:53:33.276612 13194 net.cpp:91] Creating Layer inception_5b/3x3_reduce
I0403 21:53:33.276628 13194 net.cpp:425] inception_5b/3x3_reduce <- inception_5a/output_inception_5a/output_0_split_1
I0403 21:53:33.276650 13194 net.cpp:399] inception_5b/3x3_reduce -> inception_5b/3x3_reduce
I0403 21:53:33.279268 13194 net.cpp:141] Setting up inception_5b/3x3_reduce
I0403 21:53:33.279295 13194 net.cpp:148] Top shape: 24 192 7 7 (225792)
I0403 21:53:33.279309 13194 net.cpp:156] Memory required for data: 1329757728
I0403 21:53:33.279330 13194 layer_factory.hpp:77] Creating layer inception_5b/relu_3x3_reduce
I0403 21:53:33.279347 13194 net.cpp:91] Creating Layer inception_5b/relu_3x3_reduce
I0403 21:53:33.279363 13194 net.cpp:425] inception_5b/relu_3x3_reduce <- inception_5b/3x3_reduce
I0403 21:53:33.279382 13194 net.cpp:386] inception_5b/relu_3x3_reduce -> inception_5b/3x3_reduce (in-place)
I0403 21:53:33.279566 13194 net.cpp:141] Setting up inception_5b/relu_3x3_reduce
I0403 21:53:33.279589 13194 net.cpp:148] Top shape: 24 192 7 7 (225792)
I0403 21:53:33.279604 13194 net.cpp:156] Memory required for data: 1330660896
I0403 21:53:33.279619 13194 layer_factory.hpp:77] Creating layer inception_5b/3x3
I0403 21:53:33.279641 13194 net.cpp:91] Creating Layer inception_5b/3x3
I0403 21:53:33.279659 13194 net.cpp:425] inception_5b/3x3 <- inception_5b/3x3_reduce
I0403 21:53:33.279682 13194 net.cpp:399] inception_5b/3x3 -> inception_5b/3x3
I0403 21:53:33.286180 13194 net.cpp:141] Setting up inception_5b/3x3
I0403 21:53:33.286206 13194 net.cpp:148] Top shape: 24 384 7 7 (451584)
I0403 21:53:33.286226 13194 net.cpp:156] Memory required for data: 1332467232
I0403 21:53:33.286244 13194 layer_factory.hpp:77] Creating layer inception_5b/relu_3x3
I0403 21:53:33.286262 13194 net.cpp:91] Creating Layer inception_5b/relu_3x3
I0403 21:53:33.286278 13194 net.cpp:425] inception_5b/relu_3x3 <- inception_5b/3x3
I0403 21:53:33.286295 13194 net.cpp:386] inception_5b/relu_3x3 -> inception_5b/3x3 (in-place)
I0403 21:53:33.286583 13194 net.cpp:141] Setting up inception_5b/relu_3x3
I0403 21:53:33.286609 13194 net.cpp:148] Top shape: 24 384 7 7 (451584)
I0403 21:53:33.286624 13194 net.cpp:156] Memory required for data: 1334273568
I0403 21:53:33.286638 13194 layer_factory.hpp:77] Creating layer inception_5b/5x5_reduce
I0403 21:53:33.286675 13194 net.cpp:91] Creating Layer inception_5b/5x5_reduce
I0403 21:53:33.286694 13194 net.cpp:425] inception_5b/5x5_reduce <- inception_5a/output_inception_5a/output_0_split_2
I0403 21:53:33.286716 13194 net.cpp:399] inception_5b/5x5_reduce -> inception_5b/5x5_reduce
I0403 21:53:33.287945 13194 net.cpp:141] Setting up inception_5b/5x5_reduce
I0403 21:53:33.287972 13194 net.cpp:148] Top shape: 24 48 7 7 (56448)
I0403 21:53:33.287987 13194 net.cpp:156] Memory required for data: 1334499360
I0403 21:53:33.288005 13194 layer_factory.hpp:77] Creating layer inception_5b/relu_5x5_reduce
I0403 21:53:33.288024 13194 net.cpp:91] Creating Layer inception_5b/relu_5x5_reduce
I0403 21:53:33.288039 13194 net.cpp:425] inception_5b/relu_5x5_reduce <- inception_5b/5x5_reduce
I0403 21:53:33.288056 13194 net.cpp:386] inception_5b/relu_5x5_reduce -> inception_5b/5x5_reduce (in-place)
I0403 21:53:33.288424 13194 net.cpp:141] Setting up inception_5b/relu_5x5_reduce
I0403 21:53:33.288450 13194 net.cpp:148] Top shape: 24 48 7 7 (56448)
I0403 21:53:33.288465 13194 net.cpp:156] Memory required for data: 1334725152
I0403 21:53:33.288480 13194 layer_factory.hpp:77] Creating layer inception_5b/5x5
I0403 21:53:33.288499 13194 net.cpp:91] Creating Layer inception_5b/5x5
I0403 21:53:33.288516 13194 net.cpp:425] inception_5b/5x5 <- inception_5b/5x5_reduce
I0403 21:53:33.288534 13194 net.cpp:399] inception_5b/5x5 -> inception_5b/5x5
I0403 21:53:33.290493 13194 net.cpp:141] Setting up inception_5b/5x5
I0403 21:53:33.290519 13194 net.cpp:148] Top shape: 24 128 7 7 (150528)
I0403 21:53:33.290534 13194 net.cpp:156] Memory required for data: 1335327264
I0403 21:53:33.290551 13194 layer_factory.hpp:77] Creating layer inception_5b/relu_5x5
I0403 21:53:33.290570 13194 net.cpp:91] Creating Layer inception_5b/relu_5x5
I0403 21:53:33.290587 13194 net.cpp:425] inception_5b/relu_5x5 <- inception_5b/5x5
I0403 21:53:33.290606 13194 net.cpp:386] inception_5b/relu_5x5 -> inception_5b/5x5 (in-place)
I0403 21:53:33.290794 13194 net.cpp:141] Setting up inception_5b/relu_5x5
I0403 21:53:33.290822 13194 net.cpp:148] Top shape: 24 128 7 7 (150528)
I0403 21:53:33.290837 13194 net.cpp:156] Memory required for data: 1335929376
I0403 21:53:33.290850 13194 layer_factory.hpp:77] Creating layer inception_5b/pool
I0403 21:53:33.290868 13194 net.cpp:91] Creating Layer inception_5b/pool
I0403 21:53:33.290884 13194 net.cpp:425] inception_5b/pool <- inception_5a/output_inception_5a/output_0_split_3
I0403 21:53:33.290902 13194 net.cpp:399] inception_5b/pool -> inception_5b/pool
I0403 21:53:33.290973 13194 net.cpp:141] Setting up inception_5b/pool
I0403 21:53:33.290997 13194 net.cpp:148] Top shape: 24 832 7 7 (978432)
I0403 21:53:33.291010 13194 net.cpp:156] Memory required for data: 1339843104
I0403 21:53:33.291025 13194 layer_factory.hpp:77] Creating layer inception_5b/pool_proj
I0403 21:53:33.291048 13194 net.cpp:91] Creating Layer inception_5b/pool_proj
I0403 21:53:33.291064 13194 net.cpp:425] inception_5b/pool_proj <- inception_5b/pool
I0403 21:53:33.291085 13194 net.cpp:399] inception_5b/pool_proj -> inception_5b/pool_proj
I0403 21:53:33.293350 13194 net.cpp:141] Setting up inception_5b/pool_proj
I0403 21:53:33.293378 13194 net.cpp:148] Top shape: 24 128 7 7 (150528)
I0403 21:53:33.293393 13194 net.cpp:156] Memory required for data: 1340445216
I0403 21:53:33.293411 13194 layer_factory.hpp:77] Creating layer inception_5b/relu_pool_proj
I0403 21:53:33.293432 13194 net.cpp:91] Creating Layer inception_5b/relu_pool_proj
I0403 21:53:33.293449 13194 net.cpp:425] inception_5b/relu_pool_proj <- inception_5b/pool_proj
I0403 21:53:33.293467 13194 net.cpp:386] inception_5b/relu_pool_proj -> inception_5b/pool_proj (in-place)
I0403 21:53:33.293752 13194 net.cpp:141] Setting up inception_5b/relu_pool_proj
I0403 21:53:33.293778 13194 net.cpp:148] Top shape: 24 128 7 7 (150528)
I0403 21:53:33.293792 13194 net.cpp:156] Memory required for data: 1341047328
I0403 21:53:33.293807 13194 layer_factory.hpp:77] Creating layer inception_5b/output
I0403 21:53:33.293824 13194 net.cpp:91] Creating Layer inception_5b/output
I0403 21:53:33.293853 13194 net.cpp:425] inception_5b/output <- inception_5b/1x1
I0403 21:53:33.293870 13194 net.cpp:425] inception_5b/output <- inception_5b/3x3
I0403 21:53:33.293889 13194 net.cpp:425] inception_5b/output <- inception_5b/5x5
I0403 21:53:33.293905 13194 net.cpp:425] inception_5b/output <- inception_5b/pool_proj
I0403 21:53:33.293921 13194 net.cpp:399] inception_5b/output -> inception_5b/output
I0403 21:53:33.293970 13194 net.cpp:141] Setting up inception_5b/output
I0403 21:53:33.293997 13194 net.cpp:148] Top shape: 24 1024 7 7 (1204224)
I0403 21:53:33.294011 13194 net.cpp:156] Memory required for data: 1345864224
I0403 21:53:33.294025 13194 layer_factory.hpp:77] Creating layer pool5/7x7_s1
I0403 21:53:33.294042 13194 net.cpp:91] Creating Layer pool5/7x7_s1
I0403 21:53:33.294057 13194 net.cpp:425] pool5/7x7_s1 <- inception_5b/output
I0403 21:53:33.294078 13194 net.cpp:399] pool5/7x7_s1 -> pool5/7x7_s1
I0403 21:53:33.294309 13194 net.cpp:141] Setting up pool5/7x7_s1
I0403 21:53:33.294335 13194 net.cpp:148] Top shape: 24 1024 1 1 (24576)
I0403 21:53:33.294351 13194 net.cpp:156] Memory required for data: 1345962528
I0403 21:53:33.294365 13194 layer_factory.hpp:77] Creating layer pool5/drop_7x7_s1
I0403 21:53:33.294385 13194 net.cpp:91] Creating Layer pool5/drop_7x7_s1
I0403 21:53:33.294402 13194 net.cpp:425] pool5/drop_7x7_s1 <- pool5/7x7_s1
I0403 21:53:33.294420 13194 net.cpp:386] pool5/drop_7x7_s1 -> pool5/7x7_s1 (in-place)
I0403 21:53:33.294471 13194 net.cpp:141] Setting up pool5/drop_7x7_s1
I0403 21:53:33.294494 13194 net.cpp:148] Top shape: 24 1024 1 1 (24576)
I0403 21:53:33.294509 13194 net.cpp:156] Memory required for data: 1346060832
I0403 21:53:33.294523 13194 layer_factory.hpp:77] Creating layer loss3/classifier_plantvillage
I0403 21:53:33.294543 13194 net.cpp:91] Creating Layer loss3/classifier_plantvillage
I0403 21:53:33.294559 13194 net.cpp:425] loss3/classifier_plantvillage <- pool5/7x7_s1
I0403 21:53:33.294579 13194 net.cpp:399] loss3/classifier_plantvillage -> loss3/classifier_plantvillage
I0403 21:53:33.295003 13194 net.cpp:141] Setting up loss3/classifier_plantvillage
I0403 21:53:33.295028 13194 net.cpp:148] Top shape: 24 38 (912)
I0403 21:53:33.295043 13194 net.cpp:156] Memory required for data: 1346064480
I0403 21:53:33.295061 13194 layer_factory.hpp:77] Creating layer loss3/classifier_plantvillage_loss3/classifier_plantvillage_0_split
I0403 21:53:33.295079 13194 net.cpp:91] Creating Layer loss3/classifier_plantvillage_loss3/classifier_plantvillage_0_split
I0403 21:53:33.295095 13194 net.cpp:425] loss3/classifier_plantvillage_loss3/classifier_plantvillage_0_split <- loss3/classifier_plantvillage
I0403 21:53:33.295116 13194 net.cpp:399] loss3/classifier_plantvillage_loss3/classifier_plantvillage_0_split -> loss3/classifier_plantvillage_loss3/classifier_plantvillage_0_split_0
I0403 21:53:33.295138 13194 net.cpp:399] loss3/classifier_plantvillage_loss3/classifier_plantvillage_0_split -> loss3/classifier_plantvillage_loss3/classifier_plantvillage_0_split_1
I0403 21:53:33.295158 13194 net.cpp:399] loss3/classifier_plantvillage_loss3/classifier_plantvillage_0_split -> loss3/classifier_plantvillage_loss3/classifier_plantvillage_0_split_2
I0403 21:53:33.295178 13194 net.cpp:399] loss3/classifier_plantvillage_loss3/classifier_plantvillage_0_split -> loss3/classifier_plantvillage_loss3/classifier_plantvillage_0_split_3
I0403 21:53:33.295300 13194 net.cpp:141] Setting up loss3/classifier_plantvillage_loss3/classifier_plantvillage_0_split
I0403 21:53:33.295325 13194 net.cpp:148] Top shape: 24 38 (912)
I0403 21:53:33.295341 13194 net.cpp:148] Top shape: 24 38 (912)
I0403 21:53:33.295356 13194 net.cpp:148] Top shape: 24 38 (912)
I0403 21:53:33.295372 13194 net.cpp:148] Top shape: 24 38 (912)
I0403 21:53:33.295385 13194 net.cpp:156] Memory required for data: 1346079072
I0403 21:53:33.295400 13194 layer_factory.hpp:77] Creating layer loss1/loss
I0403 21:53:33.295428 13194 net.cpp:91] Creating Layer loss1/loss
I0403 21:53:33.295445 13194 net.cpp:425] loss1/loss <- loss1/classifier_plantvillage_loss1/classifier_plantvillage_0_split_0
I0403 21:53:33.295475 13194 net.cpp:425] loss1/loss <- label_data_1_split_0
…
