…
I0403 21:35:47.664687 12185 net.cpp:313] The NetState phase (1) differed from the phase (0) specified by a rule in layer data
I0403 21:35:47.666151 12185 net.cpp:49] Initializing net from parameters: 
state {
  phase: TEST
}
layer {
  name: "data"
  type: "Data"
  top: "data"
  top: "label"
  include {
    phase: TEST
  }
  transform_param {
    mirror: false
    crop_size: 224
    mean_file: "/home/mohanty/data/final_dataset/lmdb/color-80-20/mean.binaryproto"
  }
  data_param {
    source: "/home/mohanty/data/final_dataset/lmdb/color-80-20/test_db"
    batch_size: 24
    backend: LMDB
  }
}
layer {
  name: "conv1/7x7_s2"
  type: "Convolution"
  bottom: "data"
  top: "conv1/7x7_s2"
  param {
    lr_mult: 1
    decay_mult: 1
  }
  param {
    lr_mult: 2
    decay_mult: 0
  }
  convolution_param {
    num_output: 64
    pad: 3
    kernel_size: 7
    stride: 2
    weight_filler {
      type: "xavier"
      std: 0.1
    }
    bias_filler {
      type: "constant"
      value: 0.2
    }
  }
}
layer {
  name: "conv1/relu_7x7"
  type: "ReLU"
  bottom: "conv1/7x7_s2"
  top: "conv1/7x7_s2"
}
layer {
  name: "pool1/3x3_s2"
  type: "Pooling"
  bottom: "conv1/7x7_s2"
  top: "pool1/3x3_s2"
  pooling_param {
    pool: MAX
    kernel_size: 3
    stride: 2
  }
}
layer {
  name: "pool1/norm1"
  type: "LRN"
  bottom: "pool1/3x3_s2"
  top: "pool1/norm1"
  lrn_param {
    local_size: 5
    alpha: 0.0001
    beta: 0.75
  }
}
layer {
  name: "conv2/3x3_reduce"
  type: "Convolution"
  bottom: "pool1/norm1"
  top: "conv2/3x3_reduce"
  param {
    lr_mult: 1
    decay_mult: 1
  }
  param {
    lr_mult: 2
    decay_mult: 0
  }
  convolution_param {
    num_output: 64
    kernel_size: 1
    weight_filler {
      type: "xavier"
      std: 0.1
    }
    bias_filler {
      type: "constant"
      value: 0.2
    }
  }
}
layer {
  name: "conv2/relu_3x3_reduce"
  type: "ReLU"
  bottom: "conv2/3x3_reduce"
  top: "conv2/3x3_reduce"
}
layer {
  name: "conv2/3x3"
  type: "Convolution"
  bottom: "conv2/3x3_reduce"
  top: "conv2/3x3"
  param {
    lr_mult: 1
    decay_mult: 1
  }
  param {
    lr_mult: 2
    decay_mult: 0
  }
  convolution_param {
    num_output: 192
    pad: 1
    kernel_size: 3
    weight_filler {
      type: "xavier"
      std: 0.03
    }
    bias_filler {
      type: "constant"
      value: 0.2
    }
  }
}
layer {
  name: "conv2/relu_3x3"
  type: "ReLU"
  bottom: "conv2/3x3"
  top: "conv2/3x3"
}
layer {
  name: "conv2/norm2"
  type: "LRN"
  bottom: "conv2/3x3"
  top: "conv2/norm2"
  lrn_param {
    local_size: 5
    alpha: 0.0001
    beta: 0.75
  }
}
layer {
  name: "pool2/3x3_s2"
  type: "Pooling"
  bottom: "conv2/norm2"
  top: "pool2/3x3_s2"
  pooling_param {
    pool: MAX
    kernel_size: 3
    stride: 2
  }
}
layer {
  name: "inception_3a/1x1"
  type: "Convolution"
  bottom: "pool2/3x3_s2"
  top: "inception_3a/1x1"
  param {
    lr_mult: 1
    decay_mult: 1
  }
  param {
    lr_mult: 2
    decay_mult: 0
  }
  convolution_param {
    num_output: 64
    kernel_size: 1
    weight_filler {
      type: "xavier"
      std: 0.03
    }
    bias_filler {
      type: "constant"
      value: 0.2
    }
  }
}
layer {
  name: "inception_3a/relu_1x1"
  type: "ReLU"
  bottom: "inception_3a/1x1"
  top: "inception_3a/1x1"
}
layer {
  name: "inception_3a/3x3_reduce"
  type: "Convolution"
  bottom: "pool2/3x3_s2"
  top: "inception_3a/3x3_reduce"
  param {
    lr_mult: 1
    decay_mult: 1
  }
  param {
    lr_mult: 2
    decay_mult: 0
  }
  convolution_param {
    num_output: 96
    kernel_size: 1
    weight_filler {
      type: "xavier"
      std: 0.09
    }
    bias_filler {
      type: "constant"
      value: 0.2
    }
  }
}
layer {
  name: "inception_3a/relu_3x3_reduce"
  type: "ReLU"
  bottom: "inception_3a/3x3_reduce"
  top: "inception_3a/3x3_reduce"
}
layer {
  name: "inception_3a/3x3"
  type: "Convolution"
  bottom: "inception_3a/3x3_reduce"
  top: "inception_3a/3x3"
  param {
    lr_mult: 1
    decay_mult: 1
  }
  param {
    lr_mult: 2
    decay_mult: 0
  }
  convolution_param {
    num_output: 128
    pad: 1
    kernel_size: 3
    weight_filler {
      type: "xavier"
      std: 0.03
    }
    bias_filler {
      type: "constant"
      value: 0.2
    }
  }
}
layer {
  name: "inception_3a/relu_3x3"
  type: "ReLU"
  bottom: "inception_3a/3x3"
  top: "inception_3a/3x3"
}
layer {
  name: "inception_3a/5x5_reduce"
  type: "Convolution"
  bottom: "pool2/3x3_s2"
  top: "inception_3a/5x5_reduce"
  param {
    lr_mult: 1
    decay_mult: 1
  }
  param {
    lr_mult: 2
    decay_mult: 0
  }
  convolution_param {
    num_output: 16
    kernel_size: 1
    weight_filler {
      type: "xavier"
      std: 0.2
    }
    bias_filler {
      type: "constant"
      value: 0.2
    }
  }
}
layer {
  name: "inception_3a/relu_5x5_reduce"
  type: "ReLU"
  bottom: "inception_3a/5x5_reduce"
  top: "inception_3a/5x5_reduce"
}
layer {
  name: "inception_3a/5x5"
  type: "Convolution"
  bottom: "inception_3a/5x5_reduce"
  top: "inception_3a/5x5"
  param {
    lr_mult: 1
    decay_mult: 1
  }
  param {
    lr_mult: 2
    decay_mult: 0
  }
  convolution_param {
    num_output: 32
    pad: 2
    kernel_size: 5
    weight_filler {
      type: "xavier"
      std: 0.03
    }
    bias_filler {
      type: "constant"
      value: 0.2
    }
  }
}
layer {
  name: "inception_3a/relu_5x5"
  type: "ReLU"
  bottom: "inception_3a/5x5"
  top: "inception_3a/5x5"
}
layer {
  name: "inception_3a/pool"
  type: "Pooling"
  bottom: "pool2/3x3_s2"
  top: "inception_3a/pool"
  pooling_param {
    pool: MAX
    kernel_size: 3
    stride: 1
    pad: 1
  }
}
layer {
  name: "inception_3a/pool_proj"
  type: "Convolution"
  bottom: "inception_3a/pool"
  top: "inception_3a/pool_proj"
  param {
    lr_mult: 1
    decay_mult: 1
  }
  param {
    lr_mult: 2
    decay_mult: 0
  }
  convolution_param {
    num_output: 32
    kernel_size: 1
    weight_filler {
      type: "xavier"
      std: 0.1
    }
    bias_filler {
      type: "constant"
      value: 0.2
    }
  }
}
layer {
  name: "inception_3a/relu_pool_proj"
  type: "ReLU"
  bottom: "inception_3a/pool_proj"
  top: "inception_3a/pool_proj"
}
layer {
  name: "inception_3a/output"
  type: "Concat"
  bottom: "inception_3a/1x1"
  bottom: "inception_3a/3x3"
  bottom: "inception_3a/5x5"
  bottom: "inception_3a/pool_proj"
  top: "inception_3a/output"
}
layer {
  name: "inception_3b/1x1"
  type: "Convolution"
  bottom: "inception_3a/output"
  top: "inception_3b/1x1"
  param {
    lr_mult: 1
    decay_mult: 1
  }
  param {
    lr_mult: 2
    decay_mult: 0
  }
  convolution_param {
    num_output: 128
    kernel_size: 1
    weight_filler {
      type: "xavier"
      std: 0.03
    }
    bias_filler {
      type: "constant"
      value: 0.2
    }
  }
}
layer {
  name: "inception_3b/relu_1x1"
  type: "ReLU"
  bottom: "inception_3b/1x1"
  top: "inception_3b/1x1"
}
layer {
  name: "inception_3b/3x3_reduce"
  type: "Convolution"
  bottom: "inception_3a/output"
  top: "inception_3b/3x3_reduce"
  param {
    lr_mult: 1
    decay_mult: 1
  }
  param {
    lr_mult: 2
    decay_mult: 0
  }
  convolution_param {
    num_output: 128
    kernel_size: 1
    weight_filler {
      type: "xavier"
      std: 0.09
    }
    bias_filler {
      type: "constant"
      value: 0.2
    }
  }
}
layer {
  name: "inception_3b/relu_3x3_reduce"
  type: "ReLU"
  bottom: "inception_3b/3x3_reduce"
  top: "inception_3b/3x3_reduce"
}
layer {
  name: "inception_3b/3x3"
  type: "Convolution"
  bottom: "inception_3b/3x3_reduce"
  top: "inception_3b/3x3"
  param {
    lr_mult: 1
    decay_mult: 1
  }
  param {
    lr_mult: 2
    decay_mult: 0
  }
  convolution_param {
    num_output: 192
    pad: 1
    kernel_size: 3
    weight_filler {
      type: "xavier"
      std: 0.03
    }
    bias_filler {
      type: "constant"
      value: 0.2
    }
  }
}
layer {
  name: "inception_3b/relu_3x3"
  type: "ReLU"
  bottom: "inception_3b/3x3"
  top: "inception_3b/3x3"
}
layer {
  name: "inception_3b/5x5_reduce"
  type: "Convolution"
  bottom: "inception_3a/output"
  top: "inception_3b/5x5_reduce"
  param {
    lr_mult: 1
    decay_mult: 1
  }
  param {
    lr_mult: 2
    decay_mult: 0
  }
  convolution_param {
    num_output: 32
    kernel_size: 1
    weight_filler {
      type: "xavier"
      std: 0.2
    }
    bias_filler {
      type: "constant"
      value: 0.2
    }
  }
}
layer {
  name: "inception_3b/relu_5x5_reduce"
  type: "ReLU"
  bottom: "inception_3b/5x5_reduce"
  top: "inception_3b/5x5_reduce"
}
layer {
  name: "inception_3b/5x5"
  type: "Convolution"
  bottom: "inception_3b/5x5_reduce"
  top: "inception_3b/5x5"
  param {
    lr_mult: 1
    decay_mult: 1
  }
  param {
    lr_mult: 2
    decay_mult: 0
  }
  convolution_param {
    num_output: 96
    pad: 2
    kernel_size: 5
    weight_filler {
      type: "xavier"
      std: 0.03
    }
    bias_filler {
      type: "constant"
      value: 0.2
    }
  }
}
layer {
  name: "inception_3b/relu_5x5"
  type: "ReLU"
  bottom: "inception_3b/5x5"
  top: "inception_3b/5x5"
}
layer {
  name: "inception_3b/pool"
  type: "Pooling"
  bottom: "inception_3a/output"
  top: "inception_3b/pool"
  pooling_param {
    pool: MAX
    kernel_size: 3
    stride: 1
    pad: 1
  }
}
layer {
  name: "inception_3b/pool_proj"
  type: "Convolution"
  bottom: "inception_3b/pool"
  top: "inception_3b/pool_proj"
  param {
    lr_mult: 1
    decay_mult: 1
  }
  param {
    lr_mult: 2
    decay_mult: 0
  }
  convolution_param {
    num_output: 64
    kernel_size: 1
    weight_filler {
      type: "xavier"
      std: 0.1
    }
    bias_filler {
      type: "constant"
      value: 0.2
    }
  }
}
layer {
  name: "inception_3b/relu_pool_proj"
  type: "ReLU"
  bottom: "inception_3b/pool_proj"
  top: "inception_3b/pool_proj"
}
layer {
  name: "inception_3b/output"
  type: "Concat"
  bottom: "inception_3b/1x1"
  bottom: "inception_3b/3x3"
  bottom: "inception_3b/5x5"
  bottom: "inception_3b/pool_proj"
  top: "inception_3b/output"
}
layer {
  name: "pool3/3x3_s2"
  type: "Pooling"
  bottom: "inception_3b/output"
  top: "pool3/3x3_s2"
  pooling_param {
    pool: MAX
    kernel_size: 3
    stride: 2
  }
}
layer {
  name: "inception_4a/1x1"
  type: "Convolution"
  bottom: "pool3/3x3_s2"
  top: "inception_4a/1x1"
  param {
    lr_mult: 1
    decay_mult: 1
  }
  param {
    lr_mult: 2
    decay_mult: 0
  }
  convolution_param {
    num_output: 192
    kernel_size: 1
    weight_filler {
      type: "xavier"
      std: 0.03
    }
    bias_filler {
      type: "constant"
      value: 0.2
    }
  }
}
layer {
  name: "inception_4a/relu_1x1"
  type: "ReLU"
  bottom: "inception_4a/1x1"
  top: "inception_4a/1x1"
}
layer {
  name: "inception_4a/3x3_reduce"
  type: "Convolution"
  bottom: "pool3/3x3_s2"
  top: "inception_4a/3x3_reduce"
  param {
    lr_mult: 1
    decay_mult: 1
  }
  param {
    lr_mult: 2
    decay_mult: 0
  }
  convolution_param {
    num_output: 96
    kernel_size: 1
    weight_filler {
      type: "xavier"
      std: 0.09
    }
    bias_filler {
      type: "constant"
      value: 0.2
    }
  }
}
layer {
  name: "inception_4a/relu_3x3_reduce"
  type: "ReLU"
  bottom: "inception_4a/3x3_reduce"
  top: "inception_4a/3x3_reduce"
}
layer {
  name: "inception_4a/3x3"
  type: "Convolution"
  bottom: "inception_4a/3x3_reduce"
  top: "inception_4a/3x3"
  param {
    lr_mult: 1
    decay_mult: 1
  }
  param {
    lr_mult: 2
    decay_mult: 0
  }
  convolution_param {
    num_output: 208
    pad: 1
    kernel_size: 3
    weight_filler {
      type: "xavier"
      std: 0.03
    }
    bias_filler {
      type: "constant"
      value: 0.2
    }
  }
}
layer {
  name: "inception_4a/relu_3x3"
  type: "ReLU"
  bottom: "inception_4a/3x3"
  top: "inception_4a/3x3"
}
layer {
  name: "inception_4a/5x5_reduce"
  type: "Convolution"
  bottom: "pool3/3x3_s2"
  top: "inception_4a/5x5_reduce"
  param {
    lr_mult: 1
    decay_mult: 1
  }
  param {
    lr_mult: 2
    decay_mult: 0
  }
  convolution_param {
    num_output: 16
    kernel_size: 1
    weight_filler {
      type: "xavier"
      std: 0.2
    }
    bias_filler {
      type: "constant"
      value: 0.2
    }
  }
}
layer {
  name: "inception_4a/relu_5x5_reduce"
  type: "ReLU"
  bottom: "inception_4a/5x5_reduce"
  top: "inception_4a/5x5_reduce"
}
layer {
  name: "inception_4a/5x5"
  type: "Convolution"
  bottom: "inception_4a/5x5_reduce"
  top: "inception_4a/5x5"
  param {
    lr_mult: 1
    decay_mult: 1
  }
  param {
    lr_mult: 2
    decay_mult: 0
  }
  convolution_param {
    num_output: 48
    pad: 2
    kernel_size: 5
    weight_filler {
      type: "xavier"
      std: 0.03
    }
    bias_filler {
      type: "constant"
      value: 0.2
    }
  }
}
layer {
  name: "inception_4a/relu_5x5"
  type: "ReLU"
  bottom: "inception_4a/5x5"
  top: "inception_4a/5x5"
}
layer {
  name: "inception_4a/pool"
  type: "Pooling"
  bottom: "pool3/3x3_s2"
  top: "inception_4a/pool"
  pooling_param {
    pool: MAX
    kernel_size: 3
    stride: 1
    pad: 1
  }
}
layer {
  name: "inception_4a/pool_proj"
  type: "Convolution"
  bottom: "inception_4a/pool"
  top: "inception_4a/pool_proj"
  param {
    lr_mult: 1
    decay_mult: 1
  }
  param {
    lr_mult: 2
    decay_mult: 0
  }
  convolution_param {
    num_output: 64
    kernel_size: 1
    weight_filler {
      type: "xavier"
      std: 0.1
    }
    bias_filler {
      type: "constant"
      value: 0.2
    }
  }
}
layer {
  name: "inception_4a/relu_pool_proj"
  type: "ReLU"
  bottom: "inception_4a/pool_proj"
  top: "inception_4a/pool_proj"
}
layer {
  name: "inception_4a/output"
  type: "Concat"
  bottom: "inception_4a/1x1"
  bottom: "inception_4a/3x3"
  bottom: "inception_4a/5x5"
  bottom: "inception_4a/pool_proj"
  top: "inception_4a/output"
}
layer {
  name: "loss1/ave_pool"
  type: "Pooling"
  bottom: "inception_4a/output"
  top: "loss1/ave_pool"
  pooling_param {
    pool: AVE
    kernel_size: 5
    stride: 3
  }
}
layer {
  name: "loss1/conv"
  type: "Convolution"
  bottom: "loss1/ave_pool"
  top: "loss1/conv"
  param {
    lr_mult: 1
    decay_mult: 1
  }
  param {
    lr_mult: 2
    decay_mult: 0
  }
  convolution_param {
    num_output: 128
    kernel_size: 1
    weight_filler {
      type: "xavier"
      std: 0.08
    }
    bias_filler {
      type: "constant"
      value: 0.2
    }
  }
}
layer {
  name: "loss1/relu_conv"
  type: "ReLU"
  bottom: "loss1/conv"
  top: "loss1/conv"
}
layer {
  name: "loss1/fc"
  type: "InnerProduct"
  bottom: "loss1/conv"
  top: "loss1/fc"
  param {
    lr_mult: 1
    decay_mult: 1
  }
  param {
    lr_mult: 2
    decay_mult: 0
  }
  inner_product_param {
    num_output: 1024
    weight_filler {
      type: "xavier"
      std: 0.02
    }
    bias_filler {
      type: "constant"
      value: 0.2
    }
  }
}
layer {
  name: "loss1/relu_fc"
  type: "ReLU"
  bottom: "loss1/fc"
  top: "loss1/fc"
}
layer {
  name: "loss1/drop_fc"
  type: "Dropout"
  bottom: "loss1/fc"
  top: "loss1/fc"
  dropout_param {
    dropout_ratio: 0.7
  }
}
layer {
  name: "loss1/classifier_plantvillage"
  type: "InnerProduct"
  bottom: "loss1/fc"
  top: "loss1/classifier_plantvillage"
  param {
    lr_mult: 1
    decay_mult: 1
  }
  param {
    lr_mult: 2
    decay_mult: 0
  }
  inner_product_param {
    num_output: 38
    weight_filler {
      type: "xavier"
      std: 0.0009765625
    }
    bias_filler {
      type: "constant"
      value: 0
    }
  }
}
layer {
  name: "inception_4b/1x1"
  type: "Convolution"
  bottom: "inception_4a/output"
  top: "inception_4b/1x1"
  param {
    lr_mult: 1
    decay_mult: 1
  }
  param {
    lr_mult: 2
    decay_mult: 0
  }
  convolution_param {
    num_output: 160
    kernel_size: 1
    weight_filler {
      type: "xavier"
      std: 0.03
    }
    bias_filler {
      type: "constant"
      value: 0.2
    }
  }
}
layer {
  name: "inception_4b/relu_1x1"
  type: "ReLU"
  bottom: "inception_4b/1x1"
  top: "inception_4b/1x1"
}
layer {
  name: "inception_4b/3x3_reduce"
  type: "Convolution"
  bottom: "inception_4a/output"
  top: "inception_4b/3x3_reduce"
  param {
    lr_mult: 1
    decay_mult: 1
  }
  param {
    lr_mult: 2
    decay_mult: 0
  }
  convolution_param {
    num_output: 112
    kernel_size: 1
    weight_filler {
      type: "xavier"
      std: 0.09
    }
    bias_filler {
      type: "constant"
      value: 0.2
    }
  }
}
layer {
  name: "inception_4b/relu_3x3_reduce"
  type: "ReLU"
  bottom: "inception_4b/3x3_reduce"
  top: "inception_4b/3x3_reduce"
}
layer {
  name: "inception_4b/3x3"
  type: "Convolution"
  bottom: "inception_4b/3x3_reduce"
  top: "inception_4b/3x3"
  param {
    lr_mult: 1
    decay_mult: 1
  }
  param {
    lr_mult: 2
    decay_mult: 0
  }
  convolution_param {
    num_output: 224
    pad: 1
    kernel_size: 3
    weight_filler {
      type: "xavier"
      std: 0.03
    }
    bias_filler {
      type: "constant"
      value: 0.2
    }
  }
}
layer {
  name: "inception_4b/relu_3x3"
  type: "ReLU"
  bottom: "inception_4b/3x3"
  top: "inception_4b/3x3"
}
layer {
  name: "inception_4b/5x5_reduce"
  type: "Convolution"
  bottom: "inception_4a/output"
  top: "inception_4b/5x5_reduce"
  param {
    lr_mult: 1
    decay_mult: 1
  }
  param {
    lr_mult: 2
    decay_mult: 0
  }
  convolution_param {
    num_output: 24
    kernel_size: 1
    weight_filler {
      type: "xavier"
      std: 0.2
    }
    bias_filler {
      type: "constant"
      value: 0.2
    }
  }
}
layer {
  name: "inception_4b/relu_5x5_reduce"
  type: "ReLU"
  bottom: "inception_4b/5x5_reduce"
  top: "inception_4b/5x5_reduce"
}
layer {
  name: "inception_4b/5x5"
  type: "Convolution"
  bottom: "inception_4b/5x5_reduce"
  top: "inception_4b/5x5"
  param {
    lr_mult: 1
    decay_mult: 1
  }
  param {
    lr_mult: 2
    decay_mult: 0
  }
  convolution_param {
    num_output: 64
    pad: 2
    kernel_size: 5
    weight_filler {
      type: "xavier"
      std: 0.03
    }
    bias_filler {
      type: "constant"
      value: 0.2
    }
  }
}
layer {
  name: "inception_4b/relu_5x5"
  type: "ReLU"
  bottom: "inception_4b/5x5"
  top: "inception_4b/5x5"
}
layer {
  name: "inception_4b/pool"
  type: "Pooling"
  bottom: "inception_4a/output"
  top: "inception_4b/pool"
  pooling_param {
    pool: MAX
    kernel_size: 3
    stride: 1
    pad: 1
  }
}
layer {
  name: "inception_4b/pool_proj"
  type: "Convolution"
  bottom: "inception_4b/pool"
  top: "inception_4b/pool_proj"
  param {
    lr_mult: 1
    decay_mult: 1
  }
  param {
    lr_mult: 2
    decay_mult: 0
  }
  convolution_param {
    num_output: 64
    kernel_size: 1
    weight_filler {
      type: "xavier"
      std: 0.1
    }
    bias_filler {
      type: "constant"
      value: 0.2
    }
  }
}
layer {
  name: "inception_4b/relu_pool_proj"
  type: "ReLU"
  bottom: "inception_4b/pool_proj"
  top: "inception_4b/pool_proj"
}
layer {
  name: "inception_4b/output"
  type: "Concat"
  bottom: "inception_4b/1x1"
  bottom: "inception_4b/3x3"
  bottom: "inception_4b/5x5"
  bottom: "inception_4b/pool_proj"
  top: "inception_4b/output"
}
layer {
  name: "inception_4c/1x1"
  type: "Convolution"
  bottom: "inception_4b/output"
  top: "inception_4c/1x1"
  param {
    lr_mult: 1
    decay_mult: 1
  }
  param {
    lr_mult: 2
    decay_mult: 0
  }
  convolution_param {
    num_output: 128
    kernel_size: 1
    weight_filler {
      type: "xavier"
      std: 0.03
    }
    bias_filler {
      type: "constant"
      value: 0.2
    }
  }
}
layer {
  name: "inception_4c/relu_1x1"
  type: "ReLU"
  bottom: "inception_4c/1x1"
  top: "inception_4c/1x1"
}
layer {
  name: "inception_4c/3x3_reduce"
  type: "Convolution"
  bottom: "inception_4b/output"
  top: "inception_4c/3x3_reduce"
  param {
    lr_mult: 1
    decay_mult: 1
  }
  param {
    lr_mult: 2
    decay_mult: 0
  }
  convolution_param {
    num_output: 128
    kernel_size: 1
    weight_filler {
      type: "xavier"
      std: 0.09
    }
    bias_filler {
      type: "constant"
      value: 0.2
    }
  }
}
layer {
  name: "inception_4c/relu_3x3_reduce"
  type: "ReLU"
  bottom: "inception_4c/3x3_reduce"
  top: "inception_4c/3x3_reduce"
}
layer {
  name: "inception_4c/3x3"
  type: "Convolution"
  bottom: "inception_4c/3x3_reduce"
  top: "inception_4c/3x3"
  param {
    lr_mult: 1
    decay_mult: 1
  }
  param {
    lr_mult: 2
    decay_mult: 0
  }
  convolution_param {
    num_output: 256
    pad: 1
    kernel_size: 3
    weight_filler {
      type: "xavier"
      std: 0.03
    }
    bias_filler {
      type: "constant"
      value: 0.2
    }
  }
}
layer {
  name: "inception_4c/relu_3x3"
  type: "ReLU"
  bottom: "inception_4c/3x3"
  top: "inception_4c/3x3"
}
layer {
  name: "inception_4c/5x5_reduce"
  type: "Convolution"
  bottom: "inception_4b/output"
  top: "inception_4c/5x5_reduce"
  param {
    lr_mult: 1
    decay_mult: 1
  }
  param {
    lr_mult: 2
    decay_mult: 0
  }
  convolution_param {
    num_output: 24
    kernel_size: 1
    weight_filler {
      type: "xavier"
      std: 0.2
    }
    bias_filler {
      type: "constant"
      value: 0.2
    }
  }
}
layer {
  name: "inception_4c/relu_5x5_reduce"
  type: "ReLU"
  bottom: "inception_4c/5x5_reduce"
  top: "inception_4c/5x5_reduce"
}
layer {
  name: "inception_4c/5x5"
  type: "Convolution"
  bottom: "inception_4c/5x5_reduce"
  top: "inception_4c/5x5"
  param {
    lr_mult: 1
    decay_mult: 1
  }
  param {
    lr_mult: 2
    decay_mult: 0
  }
  convolution_param {
    num_output: 64
    pad: 2
    kernel_size: 5
    weight_filler {
      type: "xavier"
      std: 0.03
    }
    bias_filler {
      type: "constant"
      value: 0.2
    }
  }
}
layer {
  name: "inception_4c/relu_5x5"
  type: "ReLU"
  bottom: "inception_4c/5x5"
  top: "inception_4c/5x5"
}
layer {
  name: "inception_4c/pool"
  type: "Pooling"
  bottom: "inception_4b/output"
  top: "inception_4c/pool"
  pooling_param {
    pool: MAX
    kernel_size: 3
    stride: 1
    pad: 1
  }
}
layer {
  name: "inception_4c/pool_proj"
  type: "Convolution"
  bottom: "inception_4c/pool"
  top: "inception_4c/pool_proj"
  param {
    lr_mult: 1
    decay_mult: 1
  }
  param {
    lr_mult: 2
    decay_mult: 0
  }
  convolution_param {
    num_output: 64
    kernel_size: 1
    weight_filler {
      type: "xavier"
      std: 0.1
    }
    bias_filler {
      type: "constant"
      value: 0.2
    }
  }
}
layer {
  name: "inception_4c/relu_pool_proj"
  type: "ReLU"
  bottom: "inception_4c/pool_proj"
  top: "inception_4c/pool_proj"
}
layer {
  name: "inception_4c/output"
  type: "Concat"
  bottom: "inception_4c/1x1"
  bottom: "inception_4c/3x3"
  bottom: "inception_4c/5x5"
  bottom: "inception_4c/pool_proj"
  top: "inception_4c/output"
}
layer {
  name: "inception_4d/1x1"
  type: "Convolution"
  bottom: "inception_4c/output"
  top: "inception_4d/1x1"
  param {
    lr_mult: 1
    decay_mult: 1
  }
  param {
    lr_mult: 2
    decay_mult: 0
  }
  convolution_param {
    num_output: 112
    kernel_size: 1
    weight_filler {
      type: "xavier"
      std: 0.03
    }
    bias_filler {
      type: "constant"
      value: 0.2
    }
  }
}
layer {
  name: "inception_4d/relu_1x1"
  type: "ReLU"
  bottom: "inception_4d/1x1"
  top: "inception_4d/1x1"
}
layer {
  name: "inception_4d/3x3_reduce"
  type: "Convolution"
  bottom: "inception_4c/output"
  top: "inception_4d/3x3_reduce"
  param {
    lr_mult: 1
    decay_mult: 1
  }
  param {
    lr_mult: 2
    decay_mult: 0
  }
  convolution_param {
    num_output: 144
    kernel_size: 1
    weight_filler {
      type: "xavier"
      std: 0.09
    }
    bias_filler {
      type: "constant"
      value: 0.2
    }
  }
}
layer {
  name: "inception_4d/relu_3x3_reduce"
  type: "ReLU"
  bottom: "inception_4d/3x3_reduce"
  top: "inception_4d/3x3_reduce"
}
layer {
  name: "inception_4d/3x3"
  type: "Convolution"
  bottom: "inception_4d/3x3_reduce"
  top: "inception_4d/3x3"
  param {
    lr_mult: 1
    decay_mult: 1
  }
  param {
    lr_mult: 2
    decay_mult: 0
  }
  convolution_param {
    num_output: 288
    pad: 1
    kernel_size: 3
    weight_filler {
      type: "xavier"
      std: 0.03
    }
    bias_filler {
      type: "constant"
      value: 0.2
    }
  }
}
layer {
  name: "inception_4d/relu_3x3"
  type: "ReLU"
  bottom: "inception_4d/3x3"
  top: "inception_4d/3x3"
}
layer {
  name: "inception_4d/5x5_reduce"
  type: "Convolution"
  bottom: "inception_4c/output"
  top: "inception_4d/5x5_reduce"
  param {
    lr_mult: 1
    decay_mult: 1
  }
  param {
    lr_mult: 2
    decay_mult: 0
  }
  convolution_param {
    num_output: 32
    kernel_size: 1
    weight_filler {
      type: "xavier"
      std: 0.2
    }
    bias_filler {
      type: "constant"
      value: 0.2
    }
  }
}
layer {
  name: "inception_4d/relu_5x5_reduce"
  type: "ReLU"
  bottom: "inception_4d/5x5_reduce"
  top: "inception_4d/5x5_reduce"
}
layer {
  name: "inception_4d/5x5"
  type: "Convolution"
  bottom: "inception_4d/5x5_reduce"
  top: "inception_4d/5x5"
  param {
    lr_mult: 1
    decay_mult: 1
  }
  param {
    lr_mult: 2
    decay_mult: 0
  }
  convolution_param {
    num_output: 64
    pad: 2
    kernel_size: 5
    weight_filler {
      type: "xavier"
      std: 0.03
    }
    bias_filler {
      type: "constant"
      value: 0.2
    }
  }
}
layer {
  name: "inception_4d/relu_5x5"
  type: "ReLU"
  bottom: "inception_4d/5x5"
  top: "inception_4d/5x5"
}
layer {
  name: "inception_4d/pool"
  type: "Pooling"
  bottom: "inception_4c/output"
  top: "inception_4d/pool"
  pooling_param {
    pool: MAX
    kernel_size: 3
    stride: 1
    pad: 1
  }
}
layer {
  name: "inception_4d/pool_proj"
  type: "Convolution"
  bottom: "inception_4d/pool"
  top: "inception_4d/pool_proj"
  param {
    lr_mult: 1
    decay_mult: 1
  }
  param {
    lr_mult: 2
    decay_mult: 0
  }
  convolution_param {
    num_output: 64
    kernel_size: 1
    weight_filler {
      type: "xavier"
      std: 0.1
    }
    bias_filler {
      type: "constant"
      value: 0.2
    }
  }
}
layer {
  name: "inception_4d/relu_pool_proj"
  type: "ReLU"
  bottom: "inception_4d/pool_proj"
  top: "inception_4d/pool_proj"
}
layer {
  name: "inception_4d/output"
  type: "Concat"
  bottom: "inception_4d/1x1"
  bottom: "inception_4d/3x3"
  bottom: "inception_4d/5x5"
  bottom: "inception_4d/pool_proj"
  top: "inception_4d/output"
}
layer {
  name: "loss2/ave_pool"
  type: "Pooling"
  bottom: "inception_4d/output"
  top: "loss2/ave_pool"
  pooling_param {
    pool: AVE
    kernel_size: 5
    stride: 3
  }
}
layer {
  name: "loss2/conv"
  type: "Convolution"
  bottom: "loss2/ave_pool"
  top: "loss2/conv"
  param {
    lr_mult: 1
    decay_mult: 1
  }
  param {
    lr_mult: 2
    decay_mult: 0
  }
  convolution_param {
    num_output: 128
    kernel_size: 1
    weight_filler {
      type: "xavier"
      std: 0.08
    }
    bias_filler {
      type: "constant"
      value: 0.2
    }
  }
}
layer {
  name: "loss2/relu_conv"
  type: "ReLU"
  bottom: "loss2/conv"
  top: "loss2/conv"
}
layer {
  name: "loss2/fc"
  type: "InnerProduct"
  bottom: "loss2/conv"
  top: "loss2/fc"
  param {
    lr_mult: 1
    decay_mult: 1
  }
  param {
    lr_mult: 2
    decay_mult: 0
  }
  inner_product_param {
    num_output: 1024
    weight_filler {
      type: "xavier"
      std: 0.02
    }
    bias_filler {
      type: "constant"
      value: 0.2
    }
  }
}
layer {
  name: "loss2/relu_fc"
  type: "ReLU"
  bottom: "loss2/fc"
  top: "loss2/fc"
}
layer {
  name: "loss2/drop_fc"
  type: "Dropout"
  bottom: "loss2/fc"
  top: "loss2/fc"
  dropout_param {
    dropout_ratio: 0.7
  }
}
layer {
  name: "loss2/classifier_plantvillage"
  type: "InnerProduct"
  bottom: "loss2/fc"
  top: "loss2/classifier_plantvillage"
  param {
    lr_mult: 1
    decay_mult: 1
  }
  param {
    lr_mult: 2
    decay_mult: 0
  }
  inner_product_param {
    num_output: 38
    weight_filler {
      type: "xavier"
      std: 0.0009765625
    }
    bias_filler {
      type: "constant"
      value: 0
    }
  }
}
layer {
  name: "inception_4e/1x1"
  type: "Convolution"
  bottom: "inception_4d/output"
  top: "inception_4e/1x1"
  param {
    lr_mult: 1
    decay_mult: 1
  }
  param {
    lr_mult: 2
    decay_mult: 0
  }
  convolution_param {
    num_output: 256
    kernel_size: 1
    weight_filler {
      type: "xavier"
      std: 0.03
    }
    bias_filler {
      type: "constant"
      value: 0.2
    }
  }
}
layer {
  name: "inception_4e/relu_1x1"
  type: "ReLU"
  bottom: "inception_4e/1x1"
  top: "inception_4e/1x1"
}
layer {
  name: "inception_4e/3x3_reduce"
  type: "Convolution"
  bottom: "inception_4d/output"
  top: "inception_4e/3x3_reduce"
  param {
    lr_mult: 1
    decay_mult: 1
  }
  param {
    lr_mult: 2
    decay_mult: 0
  }
  convolution_param {
    num_output: 160
    kernel_size: 1
    weight_filler {
      type: "xavier"
      std: 0.09
    }
    bias_filler {
      type: "constant"
      value: 0.2
    }
  }
}
layer {
  name: "inception_4e/relu_3x3_reduce"
  type: "ReLU"
  bottom: "inception_4e/3x3_reduce"
  top: "inception_4e/3x3_reduce"
}
layer {
  name: "inception_4e/3x3"
  type: "Convolution"
  bottom: "inception_4e/3x3_reduce"
  top: "inception_4e/3x3"
  param {
    lr_mult: 1
    decay_mult: 1
  }
  param {
    lr_mult: 2
    decay_mult: 0
  }
  convolution_param {
    num_output: 320
    pad: 1
    kernel_size: 3
    weight_filler {
      type: "xavier"
      std: 0.03
    }
    bias_filler {
      type: "constant"
      value: 0.2
    }
  }
}
layer {
  name: "inception_4e/relu_3x3"
  type: "ReLU"
  bottom: "inception_4e/3x3"
  top: "inception_4e/3x3"
}
layer {
  name: "inception_4e/5x5_reduce"
  type: "Convolution"
  bottom: "inception_4d/output"
  top: "inception_4e/5x5_reduce"
  param {
    lr_mult: 1
    decay_mult: 1
  }
  param {
    lr_mult: 2
    decay_mult: 0
  }
  convolution_param {
    num_output: 32
    kernel_size: 1
    weight_filler {
      type: "xavier"
      std: 0.2
    }
    bias_filler {
      type: "constant"
      value: 0.2
    }
  }
}
layer {
  name: "inception_4e/relu_5x5_reduce"
  type: "ReLU"
  bottom: "inception_4e/5x5_reduce"
  top: "inception_4e/5x5_reduce"
}
layer {
  name: "inception_4e/5x5"
  type: "Convolution"
  bottom: "inception_4e/5x5_reduce"
  top: "inception_4e/5x5"
  p
I0403 21:35:47.670717 12185 layer_factory.hpp:77] Creating layer data
I0403 21:35:47.671484 12185 net.cpp:91] Creating Layer data
I0403 21:35:47.671525 12185 net.cpp:399] data -> data
I0403 21:35:47.671586 12185 net.cpp:399] data -> label
I0403 21:35:47.671629 12185 data_transformer.cpp:25] Loading mean file from: /home/mohanty/data/final_dataset/lmdb/color-80-20/mean.binaryproto
I0403 21:35:47.749603 12188 db_lmdb.cpp:38] Opened lmdb /home/mohanty/data/final_dataset/lmdb/color-80-20/test_db
I0403 21:35:47.772485 12185 data_layer.cpp:41] output data size: 24,3,224,224
I0403 21:35:47.855257 12185 net.cpp:141] Setting up data
I0403 21:35:47.855366 12185 net.cpp:148] Top shape: 24 3 224 224 (3612672)
I0403 21:35:47.855393 12185 net.cpp:148] Top shape: 24 (24)
I0403 21:35:47.855412 12185 net.cpp:156] Memory required for data: 14450784
I0403 21:35:47.855443 12185 layer_factory.hpp:77] Creating layer label_data_1_split
I0403 21:35:47.855474 12185 net.cpp:91] Creating Layer label_data_1_split
I0403 21:35:47.855495 12185 net.cpp:425] label_data_1_split <- label
I0403 21:35:47.855535 12185 net.cpp:399] label_data_1_split -> label_data_1_split_0
I0403 21:35:47.855567 12185 net.cpp:399] label_data_1_split -> label_data_1_split_1
I0403 21:35:47.855592 12185 net.cpp:399] label_data_1_split -> label_data_1_split_2
I0403 21:35:47.855617 12185 net.cpp:399] label_data_1_split -> label_data_1_split_3
I0403 21:35:47.855639 12185 net.cpp:399] label_data_1_split -> label_data_1_split_4
I0403 21:35:47.855664 12185 net.cpp:399] label_data_1_split -> label_data_1_split_5
I0403 21:35:47.855686 12185 net.cpp:399] label_data_1_split -> label_data_1_split_6
I0403 21:35:47.855712 12185 net.cpp:399] label_data_1_split -> label_data_1_split_7
I0403 21:35:47.855736 12185 net.cpp:399] label_data_1_split -> label_data_1_split_8
I0403 21:35:47.855759 12185 net.cpp:399] label_data_1_split -> label_data_1_split_9
I0403 21:35:47.855898 12185 net.cpp:141] Setting up label_data_1_split
I0403 21:35:47.855926 12185 net.cpp:148] Top shape: 24 (24)
I0403 21:35:47.855947 12185 net.cpp:148] Top shape: 24 (24)
I0403 21:35:47.855967 12185 net.cpp:148] Top shape: 24 (24)
I0403 21:35:47.855986 12185 net.cpp:148] Top shape: 24 (24)
I0403 21:35:47.856005 12185 net.cpp:148] Top shape: 24 (24)
I0403 21:35:47.856024 12185 net.cpp:148] Top shape: 24 (24)
I0403 21:35:47.856042 12185 net.cpp:148] Top shape: 24 (24)
I0403 21:35:47.856062 12185 net.cpp:148] Top shape: 24 (24)
I0403 21:35:47.856082 12185 net.cpp:148] Top shape: 24 (24)
I0403 21:35:47.856102 12185 net.cpp:148] Top shape: 24 (24)
I0403 21:35:47.856155 12185 net.cpp:156] Memory required for data: 14451744
I0403 21:35:47.856176 12185 layer_factory.hpp:77] Creating layer conv1/7x7_s2
I0403 21:35:47.856221 12185 net.cpp:91] Creating Layer conv1/7x7_s2
I0403 21:35:47.856246 12185 net.cpp:425] conv1/7x7_s2 <- data
I0403 21:35:47.856271 12185 net.cpp:399] conv1/7x7_s2 -> conv1/7x7_s2
I0403 21:35:48.028151 12185 net.cpp:141] Setting up conv1/7x7_s2
I0403 21:35:48.028228 12185 net.cpp:148] Top shape: 24 64 112 112 (19267584)
I0403 21:35:48.028250 12185 net.cpp:156] Memory required for data: 91522080
I0403 21:35:48.028290 12185 layer_factory.hpp:77] Creating layer conv1/relu_7x7
I0403 21:35:48.028321 12185 net.cpp:91] Creating Layer conv1/relu_7x7
I0403 21:35:48.028344 12185 net.cpp:425] conv1/relu_7x7 <- conv1/7x7_s2
I0403 21:35:48.028367 12185 net.cpp:386] conv1/relu_7x7 -> conv1/7x7_s2 (in-place)
I0403 21:35:48.028671 12185 net.cpp:141] Setting up conv1/relu_7x7
I0403 21:35:48.028704 12185 net.cpp:148] Top shape: 24 64 112 112 (19267584)
I0403 21:35:48.028723 12185 net.cpp:156] Memory required for data: 168592416
I0403 21:35:48.028740 12185 layer_factory.hpp:77] Creating layer pool1/3x3_s2
I0403 21:35:48.028771 12185 net.cpp:91] Creating Layer pool1/3x3_s2
I0403 21:35:48.028794 12185 net.cpp:425] pool1/3x3_s2 <- conv1/7x7_s2
I0403 21:35:48.028816 12185 net.cpp:399] pool1/3x3_s2 -> pool1/3x3_s2
I0403 21:35:48.028905 12185 net.cpp:141] Setting up pool1/3x3_s2
I0403 21:35:48.028935 12185 net.cpp:148] Top shape: 24 64 56 56 (4816896)
I0403 21:35:48.028954 12185 net.cpp:156] Memory required for data: 187860000
I0403 21:35:48.028970 12185 layer_factory.hpp:77] Creating layer pool1/norm1
I0403 21:35:48.029001 12185 net.cpp:91] Creating Layer pool1/norm1
I0403 21:35:48.029024 12185 net.cpp:425] pool1/norm1 <- pool1/3x3_s2
I0403 21:35:48.029047 12185 net.cpp:399] pool1/norm1 -> pool1/norm1
I0403 21:35:48.029384 12185 net.cpp:141] Setting up pool1/norm1
I0403 21:35:48.029417 12185 net.cpp:148] Top shape: 24 64 56 56 (4816896)
I0403 21:35:48.029436 12185 net.cpp:156] Memory required for data: 207127584
I0403 21:35:48.029454 12185 layer_factory.hpp:77] Creating layer conv2/3x3_reduce
I0403 21:35:48.029484 12185 net.cpp:91] Creating Layer conv2/3x3_reduce
I0403 21:35:48.029506 12185 net.cpp:425] conv2/3x3_reduce <- pool1/norm1
I0403 21:35:48.029711 12185 net.cpp:399] conv2/3x3_reduce -> conv2/3x3_reduce
I0403 21:35:48.031311 12185 net.cpp:141] Setting up conv2/3x3_reduce
I0403 21:35:48.031347 12185 net.cpp:148] Top shape: 24 64 56 56 (4816896)
I0403 21:35:48.031368 12185 net.cpp:156] Memory required for data: 226395168
I0403 21:35:48.031394 12185 layer_factory.hpp:77] Creating layer conv2/relu_3x3_reduce
I0403 21:35:48.031416 12185 net.cpp:91] Creating Layer conv2/relu_3x3_reduce
I0403 21:35:48.031435 12185 net.cpp:425] conv2/relu_3x3_reduce <- conv2/3x3_reduce
I0403 21:35:48.031455 12185 net.cpp:386] conv2/relu_3x3_reduce -> conv2/3x3_reduce (in-place)
I0403 21:35:48.031874 12185 net.cpp:141] Setting up conv2/relu_3x3_reduce
I0403 21:35:48.031908 12185 net.cpp:148] Top shape: 24 64 56 56 (4816896)
I0403 21:35:48.031926 12185 net.cpp:156] Memory required for data: 245662752
I0403 21:35:48.031945 12185 layer_factory.hpp:77] Creating layer conv2/3x3
I0403 21:35:48.031973 12185 net.cpp:91] Creating Layer conv2/3x3
I0403 21:35:48.031993 12185 net.cpp:425] conv2/3x3 <- conv2/3x3_reduce
I0403 21:35:48.032017 12185 net.cpp:399] conv2/3x3 -> conv2/3x3
I0403 21:35:48.034785 12185 net.cpp:141] Setting up conv2/3x3
I0403 21:35:48.034821 12185 net.cpp:148] Top shape: 24 192 56 56 (14450688)
I0403 21:35:48.034842 12185 net.cpp:156] Memory required for data: 303465504
I0403 21:35:48.034868 12185 layer_factory.hpp:77] Creating layer conv2/relu_3x3
I0403 21:35:48.034891 12185 net.cpp:91] Creating Layer conv2/relu_3x3
I0403 21:35:48.034911 12185 net.cpp:425] conv2/relu_3x3 <- conv2/3x3
I0403 21:35:48.034932 12185 net.cpp:386] conv2/relu_3x3 -> conv2/3x3 (in-place)
I0403 21:35:48.035126 12185 net.cpp:141] Setting up conv2/relu_3x3
I0403 21:35:48.035157 12185 net.cpp:148] Top shape: 24 192 56 56 (14450688)
I0403 21:35:48.035217 12185 net.cpp:156] Memory required for data: 361268256
I0403 21:35:48.035238 12185 layer_factory.hpp:77] Creating layer conv2/norm2
I0403 21:35:48.035261 12185 net.cpp:91] Creating Layer conv2/norm2
I0403 21:35:48.035282 12185 net.cpp:425] conv2/norm2 <- conv2/3x3
I0403 21:35:48.035305 12185 net.cpp:399] conv2/norm2 -> conv2/norm2
I0403 21:35:48.035640 12185 net.cpp:141] Setting up conv2/norm2
I0403 21:35:48.035672 12185 net.cpp:148] Top shape: 24 192 56 56 (14450688)
I0403 21:35:48.035691 12185 net.cpp:156] Memory required for data: 419071008
I0403 21:35:48.035708 12185 layer_factory.hpp:77] Creating layer pool2/3x3_s2
I0403 21:35:48.035732 12185 net.cpp:91] Creating Layer pool2/3x3_s2
I0403 21:35:48.035750 12185 net.cpp:425] pool2/3x3_s2 <- conv2/norm2
I0403 21:35:48.035773 12185 net.cpp:399] pool2/3x3_s2 -> pool2/3x3_s2
I0403 21:35:48.035832 12185 net.cpp:141] Setting up pool2/3x3_s2
I0403 21:35:48.035859 12185 net.cpp:148] Top shape: 24 192 28 28 (3612672)
I0403 21:35:48.035877 12185 net.cpp:156] Memory required for data: 433521696
I0403 21:35:48.035895 12185 layer_factory.hpp:77] Creating layer pool2/3x3_s2_pool2/3x3_s2_0_split
I0403 21:35:48.035917 12185 net.cpp:91] Creating Layer pool2/3x3_s2_pool2/3x3_s2_0_split
I0403 21:35:48.035936 12185 net.cpp:425] pool2/3x3_s2_pool2/3x3_s2_0_split <- pool2/3x3_s2
I0403 21:35:48.035959 12185 net.cpp:399] pool2/3x3_s2_pool2/3x3_s2_0_split -> pool2/3x3_s2_pool2/3x3_s2_0_split_0
I0403 21:35:48.035981 12185 net.cpp:399] pool2/3x3_s2_pool2/3x3_s2_0_split -> pool2/3x3_s2_pool2/3x3_s2_0_split_1
I0403 21:35:48.036007 12185 net.cpp:399] pool2/3x3_s2_pool2/3x3_s2_0_split -> pool2/3x3_s2_pool2/3x3_s2_0_split_2
I0403 21:35:48.036185 12185 net.cpp:399] pool2/3x3_s2_pool2/3x3_s2_0_split -> pool2/3x3_s2_pool2/3x3_s2_0_split_3
I0403 21:35:48.036283 12185 net.cpp:141] Setting up pool2/3x3_s2_pool2/3x3_s2_0_split
I0403 21:35:48.036314 12185 net.cpp:148] Top shape: 24 192 28 28 (3612672)
I0403 21:35:48.036334 12185 net.cpp:148] Top shape: 24 192 28 28 (3612672)
I0403 21:35:48.036352 12185 net.cpp:148] Top shape: 24 192 28 28 (3612672)
I0403 21:35:48.036373 12185 net.cpp:148] Top shape: 24 192 28 28 (3612672)
I0403 21:35:48.036391 12185 net.cpp:156] Memory required for data: 491324448
I0403 21:35:48.036409 12185 layer_factory.hpp:77] Creating layer inception_3a/1x1
I0403 21:35:48.036435 12185 net.cpp:91] Creating Layer inception_3a/1x1
I0403 21:35:48.036454 12185 net.cpp:425] inception_3a/1x1 <- pool2/3x3_s2_pool2/3x3_s2_0_split_0
I0403 21:35:48.036478 12185 net.cpp:399] inception_3a/1x1 -> inception_3a/1x1
I0403 21:35:48.038475 12185 net.cpp:141] Setting up inception_3a/1x1
I0403 21:35:48.038512 12185 net.cpp:148] Top shape: 24 64 28 28 (1204224)
I0403 21:35:48.038532 12185 net.cpp:156] Memory required for data: 496141344
I0403 21:35:48.038558 12185 layer_factory.hpp:77] Creating layer inception_3a/relu_1x1
I0403 21:35:48.038579 12185 net.cpp:91] Creating Layer inception_3a/relu_1x1
I0403 21:35:48.038599 12185 net.cpp:425] inception_3a/relu_1x1 <- inception_3a/1x1
I0403 21:35:48.038622 12185 net.cpp:386] inception_3a/relu_1x1 -> inception_3a/1x1 (in-place)
I0403 21:35:48.038836 12185 net.cpp:141] Setting up inception_3a/relu_1x1
I0403 21:35:48.038866 12185 net.cpp:148] Top shape: 24 64 28 28 (1204224)
I0403 21:35:48.038884 12185 net.cpp:156] Memory required for data: 500958240
I0403 21:35:48.038904 12185 layer_factory.hpp:77] Creating layer inception_3a/3x3_reduce
I0403 21:35:48.038935 12185 net.cpp:91] Creating Layer inception_3a/3x3_reduce
I0403 21:35:48.038957 12185 net.cpp:425] inception_3a/3x3_reduce <- pool2/3x3_s2_pool2/3x3_s2_0_split_1
I0403 21:35:48.038985 12185 net.cpp:399] inception_3a/3x3_reduce -> inception_3a/3x3_reduce
I0403 21:35:48.041172 12185 net.cpp:141] Setting up inception_3a/3x3_reduce
I0403 21:35:48.041206 12185 net.cpp:148] Top shape: 24 96 28 28 (1806336)
I0403 21:35:48.041232 12185 net.cpp:156] Memory required for data: 508183584
I0403 21:35:48.041259 12185 layer_factory.hpp:77] Creating layer inception_3a/relu_3x3_reduce
I0403 21:35:48.041306 12185 net.cpp:91] Creating Layer inception_3a/relu_3x3_reduce
I0403 21:35:48.041328 12185 net.cpp:425] inception_3a/relu_3x3_reduce <- inception_3a/3x3_reduce
I0403 21:35:48.041350 12185 net.cpp:386] inception_3a/relu_3x3_reduce -> inception_3a/3x3_reduce (in-place)
I0403 21:35:48.041573 12185 net.cpp:141] Setting up inception_3a/relu_3x3_reduce
I0403 21:35:48.041604 12185 net.cpp:148] Top shape: 24 96 28 28 (1806336)
I0403 21:35:48.041621 12185 net.cpp:156] Memory required for data: 515408928
I0403 21:35:48.041640 12185 layer_factory.hpp:77] Creating layer inception_3a/3x3
I0403 21:35:48.041668 12185 net.cpp:91] Creating Layer inception_3a/3x3
I0403 21:35:48.041689 12185 net.cpp:425] inception_3a/3x3 <- inception_3a/3x3_reduce
I0403 21:35:48.041717 12185 net.cpp:399] inception_3a/3x3 -> inception_3a/3x3
I0403 21:35:48.043728 12185 net.cpp:141] Setting up inception_3a/3x3
I0403 21:35:48.043764 12185 net.cpp:148] Top shape: 24 128 28 28 (2408448)
I0403 21:35:48.043783 12185 net.cpp:156] Memory required for data: 525042720
I0403 21:35:48.043807 12185 layer_factory.hpp:77] Creating layer inception_3a/relu_3x3
I0403 21:35:48.043834 12185 net.cpp:91] Creating Layer inception_3a/relu_3x3
I0403 21:35:48.043854 12185 net.cpp:425] inception_3a/relu_3x3 <- inception_3a/3x3
I0403 21:35:48.043875 12185 net.cpp:386] inception_3a/relu_3x3 -> inception_3a/3x3 (in-place)
I0403 21:35:48.044205 12185 net.cpp:141] Setting up inception_3a/relu_3x3
I0403 21:35:48.044244 12185 net.cpp:148] Top shape: 24 128 28 28 (2408448)
I0403 21:35:48.044262 12185 net.cpp:156] Memory required for data: 534676512
I0403 21:35:48.044281 12185 layer_factory.hpp:77] Creating layer inception_3a/5x5_reduce
I0403 21:35:48.044308 12185 net.cpp:91] Creating Layer inception_3a/5x5_reduce
I0403 21:35:48.044332 12185 net.cpp:425] inception_3a/5x5_reduce <- pool2/3x3_s2_pool2/3x3_s2_0_split_2
I0403 21:35:48.044358 12185 net.cpp:399] inception_3a/5x5_reduce -> inception_3a/5x5_reduce
I0403 21:35:48.045511 12185 net.cpp:141] Setting up inception_3a/5x5_reduce
I0403 21:35:48.045545 12185 net.cpp:148] Top shape: 24 16 28 28 (301056)
I0403 21:35:48.045565 12185 net.cpp:156] Memory required for data: 535880736
I0403 21:35:48.045589 12185 layer_factory.hpp:77] Creating layer inception_3a/relu_5x5_reduce
I0403 21:35:48.045615 12185 net.cpp:91] Creating Layer inception_3a/relu_5x5_reduce
I0403 21:35:48.045636 12185 net.cpp:425] inception_3a/relu_5x5_reduce <- inception_3a/5x5_reduce
I0403 21:35:48.045657 12185 net.cpp:386] inception_3a/relu_5x5_reduce -> inception_3a/5x5_reduce (in-place)
I0403 21:35:48.045987 12185 net.cpp:141] Setting up inception_3a/relu_5x5_reduce
I0403 21:35:48.046023 12185 net.cpp:148] Top shape: 24 16 28 28 (301056)
I0403 21:35:48.046044 12185 net.cpp:156] Memory required for data: 537084960
I0403 21:35:48.046062 12185 layer_factory.hpp:77] Creating layer inception_3a/5x5
I0403 21:35:48.046088 12185 net.cpp:91] Creating Layer inception_3a/5x5
I0403 21:35:48.046108 12185 net.cpp:425] inception_3a/5x5 <- inception_3a/5x5_reduce
I0403 21:35:48.046134 12185 net.cpp:399] inception_3a/5x5 -> inception_3a/5x5
I0403 21:35:48.047355 12185 net.cpp:141] Setting up inception_3a/5x5
I0403 21:35:48.047390 12185 net.cpp:148] Top shape: 24 32 28 28 (602112)
I0403 21:35:48.047410 12185 net.cpp:156] Memory required for data: 539493408
I0403 21:35:48.047432 12185 layer_factory.hpp:77] Creating layer inception_3a/relu_5x5
I0403 21:35:48.047458 12185 net.cpp:91] Creating Layer inception_3a/relu_5x5
I0403 21:35:48.047479 12185 net.cpp:425] inception_3a/relu_5x5 <- inception_3a/5x5
I0403 21:35:48.047500 12185 net.cpp:386] inception_3a/relu_5x5 -> inception_3a/5x5 (in-place)
I0403 21:35:48.047713 12185 net.cpp:141] Setting up inception_3a/relu_5x5
I0403 21:35:48.047744 12185 net.cpp:148] Top shape: 24 32 28 28 (602112)
I0403 21:35:48.047762 12185 net.cpp:156] Memory required for data: 541901856
I0403 21:35:48.047782 12185 layer_factory.hpp:77] Creating layer inception_3a/pool
I0403 21:35:48.047811 12185 net.cpp:91] Creating Layer inception_3a/pool
I0403 21:35:48.047832 12185 net.cpp:425] inception_3a/pool <- pool2/3x3_s2_pool2/3x3_s2_0_split_3
I0403 21:35:48.047871 12185 net.cpp:399] inception_3a/pool -> inception_3a/pool
I0403 21:35:48.047945 12185 net.cpp:141] Setting up inception_3a/pool
I0403 21:35:48.047974 12185 net.cpp:148] Top shape: 24 192 28 28 (3612672)
I0403 21:35:48.047992 12185 net.cpp:156] Memory required for data: 556352544
I0403 21:35:48.048010 12185 layer_factory.hpp:77] Creating layer inception_3a/pool_proj
I0403 21:35:48.048038 12185 net.cpp:91] Creating Layer inception_3a/pool_proj
I0403 21:35:48.048059 12185 net.cpp:425] inception_3a/pool_proj <- inception_3a/pool
I0403 21:35:48.048085 12185 net.cpp:399] inception_3a/pool_proj -> inception_3a/pool_proj
I0403 21:35:48.049244 12185 net.cpp:141] Setting up inception_3a/pool_proj
I0403 21:35:48.049283 12185 net.cpp:148] Top shape: 24 32 28 28 (602112)
I0403 21:35:48.049304 12185 net.cpp:156] Memory required for data: 558760992
I0403 21:35:48.049331 12185 layer_factory.hpp:77] Creating layer inception_3a/relu_pool_proj
I0403 21:35:48.049358 12185 net.cpp:91] Creating Layer inception_3a/relu_pool_proj
I0403 21:35:48.049379 12185 net.cpp:425] inception_3a/relu_pool_proj <- inception_3a/pool_proj
I0403 21:35:48.049401 12185 net.cpp:386] inception_3a/relu_pool_proj -> inception_3a/pool_proj (in-place)
I0403 21:35:48.049724 12185 net.cpp:141] Setting up inception_3a/relu_pool_proj
I0403 21:35:48.049757 12185 net.cpp:148] Top shape: 24 32 28 28 (602112)
I0403 21:35:48.049774 12185 net.cpp:156] Memory required for data: 561169440
I0403 21:35:48.049793 12185 layer_factory.hpp:77] Creating layer inception_3a/output
I0403 21:35:48.049816 12185 net.cpp:91] Creating Layer inception_3a/output
I0403 21:35:48.049836 12185 net.cpp:425] inception_3a/output <- inception_3a/1x1
I0403 21:35:48.049860 12185 net.cpp:425] inception_3a/output <- inception_3a/3x3
I0403 21:35:48.049880 12185 net.cpp:425] inception_3a/output <- inception_3a/5x5
I0403 21:35:48.049898 12185 net.cpp:425] inception_3a/output <- inception_3a/pool_proj
I0403 21:35:48.049919 12185 net.cpp:399] inception_3a/output -> inception_3a/output
I0403 21:35:48.049976 12185 net.cpp:141] Setting up inception_3a/output
I0403 21:35:48.050007 12185 net.cpp:148] Top shape: 24 256 28 28 (4816896)
I0403 21:35:48.050027 12185 net.cpp:156] Memory required for data: 580437024
I0403 21:35:48.050045 12185 layer_factory.hpp:77] Creating layer inception_3a/output_inception_3a/output_0_split
I0403 21:35:48.050067 12185 net.cpp:91] Creating Layer inception_3a/output_inception_3a/output_0_split
I0403 21:35:48.050086 12185 net.cpp:425] inception_3a/output_inception_3a/output_0_split <- inception_3a/output
I0403 21:35:48.050112 12185 net.cpp:399] inception_3a/output_inception_3a/output_0_split -> inception_3a/output_inception_3a/output_0_split_0
I0403 21:35:48.050137 12185 net.cpp:399] inception_3a/output_inception_3a/output_0_split -> inception_3a/output_inception_3a/output_0_split_1
I0403 21:35:48.050163 12185 net.cpp:399] inception_3a/output_inception_3a/output_0_split -> inception_3a/output_inception_3a/output_0_split_2
I0403 21:35:48.050189 12185 net.cpp:399] inception_3a/output_inception_3a/output_0_split -> inception_3a/output_inception_3a/output_0_split_3
I0403 21:35:48.050284 12185 net.cpp:141] Setting up inception_3a/output_inception_3a/output_0_split
I0403 21:35:48.050314 12185 net.cpp:148] Top shape: 24 256 28 28 (4816896)
I0403 21:35:48.050335 12185 net.cpp:148] Top shape: 24 256 28 28 (4816896)
I0403 21:35:48.050356 12185 net.cpp:148] Top shape: 24 256 28 28 (4816896)
I0403 21:35:48.050375 12185 net.cpp:148] Top shape: 24 256 28 28 (4816896)
I0403 21:35:48.050395 12185 net.cpp:156] Memory required for data: 657507360
I0403 21:35:48.050412 12185 layer_factory.hpp:77] Creating layer inception_3b/1x1
I0403 21:35:48.050439 12185 net.cpp:91] Creating Layer inception_3b/1x1
I0403 21:35:48.050463 12185 net.cpp:425] inception_3b/1x1 <- inception_3a/output_inception_3a/output_0_split_0
I0403 21:35:48.050490 12185 net.cpp:399] inception_3b/1x1 -> inception_3b/1x1
I0403 21:35:48.051857 12185 net.cpp:141] Setting up inception_3b/1x1
I0403 21:35:48.051908 12185 net.cpp:148] Top shape: 24 128 28 28 (2408448)
I0403 21:35:48.051926 12185 net.cpp:156] Memory required for data: 667141152
I0403 21:35:48.051949 12185 layer_factory.hpp:77] Creating layer inception_3b/relu_1x1
I0403 21:35:48.051970 12185 net.cpp:91] Creating Layer inception_3b/relu_1x1
I0403 21:35:48.051990 12185 net.cpp:425] inception_3b/relu_1x1 <- inception_3b/1x1
I0403 21:35:48.052016 12185 net.cpp:386] inception_3b/relu_1x1 -> inception_3b/1x1 (in-place)
I0403 21:35:48.052250 12185 net.cpp:141] Setting up inception_3b/relu_1x1
I0403 21:35:48.052283 12185 net.cpp:148] Top shape: 24 128 28 28 (2408448)
I0403 21:35:48.052300 12185 net.cpp:156] Memory required for data: 676774944
I0403 21:35:48.052320 12185 layer_factory.hpp:77] Creating layer inception_3b/3x3_reduce
I0403 21:35:48.052348 12185 net.cpp:91] Creating Layer inception_3b/3x3_reduce
I0403 21:35:48.052371 12185 net.cpp:425] inception_3b/3x3_reduce <- inception_3a/output_inception_3a/output_0_split_1
I0403 21:35:48.052397 12185 net.cpp:399] inception_3b/3x3_reduce -> inception_3b/3x3_reduce
I0403 21:35:48.053764 12185 net.cpp:141] Setting up inception_3b/3x3_reduce
I0403 21:35:48.053800 12185 net.cpp:148] Top shape: 24 128 28 28 (2408448)
I0403 21:35:48.053819 12185 net.cpp:156] Memory required for data: 686408736
I0403 21:35:48.053843 12185 layer_factory.hpp:77] Creating layer inception_3b/relu_3x3_reduce
I0403 21:35:48.053865 12185 net.cpp:91] Creating Layer inception_3b/relu_3x3_reduce
I0403 21:35:48.053884 12185 net.cpp:425] inception_3b/relu_3x3_reduce <- inception_3b/3x3_reduce
I0403 21:35:48.053910 12185 net.cpp:386] inception_3b/relu_3x3_reduce -> inception_3b/3x3_reduce (in-place)
I0403 21:35:48.054121 12185 net.cpp:141] Setting up inception_3b/relu_3x3_reduce
I0403 21:35:48.054153 12185 net.cpp:148] Top shape: 24 128 28 28 (2408448)
I0403 21:35:48.054172 12185 net.cpp:156] Memory required for data: 696042528
I0403 21:35:48.054190 12185 layer_factory.hpp:77] Creating layer inception_3b/3x3
I0403 21:35:48.054229 12185 net.cpp:91] Creating Layer inception_3b/3x3
I0403 21:35:48.054252 12185 net.cpp:425] inception_3b/3x3 <- inception_3b/3x3_reduce
I0403 21:35:48.054276 12185 net.cpp:399] inception_3b/3x3 -> inception_3b/3x3
I0403 21:35:48.057827 12185 net.cpp:141] Setting up inception_3b/3x3
I0403 21:35:48.057865 12185 net.cpp:148] Top shape: 24 192 28 28 (3612672)
I0403 21:35:48.057885 12185 net.cpp:156] Memory required for data: 710493216
I0403 21:35:48.057909 12185 layer_factory.hpp:77] Creating layer inception_3b/relu_3x3
I0403 21:35:48.057934 12185 net.cpp:91] Creating Layer inception_3b/relu_3x3
I0403 21:35:48.057955 12185 net.cpp:425] inception_3b/relu_3x3 <- inception_3b/3x3
I0403 21:35:48.057976 12185 net.cpp:386] inception_3b/relu_3x3 -> inception_3b/3x3 (in-place)
I0403 21:35:48.058310 12185 net.cpp:141] Setting up inception_3b/relu_3x3
I0403 21:35:48.058342 12185 net.cpp:148] Top shape: 24 192 28 28 (3612672)
I0403 21:35:48.058362 12185 net.cpp:156] Memory required for data: 724943904
I0403 21:35:48.058382 12185 layer_factory.hpp:77] Creating layer inception_3b/5x5_reduce
I0403 21:35:48.058409 12185 net.cpp:91] Creating Layer inception_3b/5x5_reduce
I0403 21:35:48.058432 12185 net.cpp:425] inception_3b/5x5_reduce <- inception_3a/output_inception_3a/output_0_split_2
I0403 21:35:48.058461 12185 net.cpp:399] inception_3b/5x5_reduce -> inception_3b/5x5_reduce
I0403 21:35:48.059659 12185 net.cpp:141] Setting up inception_3b/5x5_reduce
I0403 21:35:48.059694 12185 net.cpp:148] Top shape: 24 32 28 28 (602112)
I0403 21:35:48.059712 12185 net.cpp:156] Memory required for data: 727352352
I0403 21:35:48.059736 12185 layer_factory.hpp:77] Creating layer inception_3b/relu_5x5_reduce
I0403 21:35:48.059762 12185 net.cpp:91] Creating Layer inception_3b/relu_5x5_reduce
I0403 21:35:48.059783 12185 net.cpp:425] inception_3b/relu_5x5_reduce <- inception_3b/5x5_reduce
I0403 21:35:48.059805 12185 net.cpp:386] inception_3b/relu_5x5_reduce -> inception_3b/5x5_reduce (in-place)
I0403 21:35:48.060021 12185 net.cpp:141] Setting up inception_3b/relu_5x5_reduce
I0403 21:35:48.060066 12185 net.cpp:148] Top shape: 24 32 28 28 (602112)
I0403 21:35:48.060084 12185 net.cpp:156] Memory required for data: 729760800
I0403 21:35:48.060103 12185 layer_factory.hpp:77] Creating layer inception_3b/5x5
I0403 21:35:48.060133 12185 net.cpp:91] Creating Layer inception_3b/5x5
I0403 21:35:48.060156 12185 net.cpp:425] inception_3b/5x5 <- inception_3b/5x5_reduce
I0403 21:35:48.060179 12185 net.cpp:399] inception_3b/5x5 -> inception_3b/5x5
I0403 21:35:48.062595 12185 net.cpp:141] Setting up inception_3b/5x5
I0403 21:35:48.062635 12185 net.cpp:148] Top shape: 24 96 28 28 (1806336)
I0403 21:35:48.062654 12185 net.cpp:156] Memory required for data: 736986144
I0403 21:35:48.062679 12185 layer_factory.hpp:77] Creating layer inception_3b/relu_5x5
I0403 21:35:48.062700 12185 net.cpp:91] Creating Layer inception_3b/relu_5x5
I0403 21:35:48.062719 12185 net.cpp:425] inception_3b/relu_5x5 <- inception_3b/5x5
I0403 21:35:48.062746 12185 net.cpp:386] inception_3b/relu_5x5 -> inception_3b/5x5 (in-place)
I0403 21:35:48.062975 12185 net.cpp:141] Setting up inception_3b/relu_5x5
I0403 21:35:48.063007 12185 net.cpp:148] Top shape: 24 96 28 28 (1806336)
I0403 21:35:48.063026 12185 net.cpp:156] Memory required for data: 744211488
I0403 21:35:48.063045 12185 layer_factory.hpp:77] Creating layer inception_3b/pool
I0403 21:35:48.063067 12185 net.cpp:91] Creating Layer inception_3b/pool
I0403 21:35:48.063087 12185 net.cpp:425] inception_3b/pool <- inception_3a/output_inception_3a/output_0_split_3
I0403 21:35:48.063110 12185 net.cpp:399] inception_3b/pool -> inception_3b/pool
I0403 21:35:48.063176 12185 net.cpp:141] Setting up inception_3b/pool
I0403 21:35:48.063205 12185 net.cpp:148] Top shape: 24 256 28 28 (4816896)
I0403 21:35:48.063231 12185 net.cpp:156] Memory required for data: 763479072
I0403 21:35:48.063251 12185 layer_factory.hpp:77] Creating layer inception_3b/pool_proj
I0403 21:35:48.063282 12185 net.cpp:91] Creating Layer inception_3b/pool_proj
I0403 21:35:48.063303 12185 net.cpp:425] inception_3b/pool_proj <- inception_3b/pool
I0403 21:35:48.063328 12185 net.cpp:399] inception_3b/pool_proj -> inception_3b/pool_proj
I0403 21:35:48.064607 12185 net.cpp:141] Setting up inception_3b/pool_proj
I0403 21:35:48.064642 12185 net.cpp:148] Top shape: 24 64 28 28 (1204224)
I0403 21:35:48.064661 12185 net.cpp:156] Memory required for data: 768295968
I0403 21:35:48.064684 12185 layer_factory.hpp:77] Creating layer inception_3b/relu_pool_proj
I0403 21:35:48.064709 12185 net.cpp:91] Creating Layer inception_3b/relu_pool_proj
I0403 21:35:48.064733 12185 net.cpp:425] inception_3b/relu_pool_proj <- inception_3b/pool_proj
I0403 21:35:48.064754 12185 net.cpp:386] inception_3b/relu_pool_proj -> inception_3b/pool_proj (in-place)
I0403 21:35:48.065198 12185 net.cpp:141] Setting up inception_3b/relu_pool_proj
I0403 21:35:48.065238 12185 net.cpp:148] Top shape: 24 64 28 28 (1204224)
I0403 21:35:48.065258 12185 net.cpp:156] Memory required for data: 773112864
I0403 21:35:48.065276 12185 layer_factory.hpp:77] Creating layer inception_3b/output
I0403 21:35:48.065302 12185 net.cpp:91] Creating Layer inception_3b/output
I0403 21:35:48.065321 12185 net.cpp:425] inception_3b/output <- inception_3b/1x1
I0403 21:35:48.065343 12185 net.cpp:425] inception_3b/output <- inception_3b/3x3
I0403 21:35:48.065364 12185 net.cpp:425] inception_3b/output <- inception_3b/5x5
I0403 21:35:48.065384 12185 net.cpp:425] inception_3b/output <- inception_3b/pool_proj
I0403 21:35:48.065407 12185 net.cpp:399] inception_3b/output -> inception_3b/output
I0403 21:35:48.065462 12185 net.cpp:141] Setting up inception_3b/output
I0403 21:35:48.065491 12185 net.cpp:148] Top shape: 24 480 28 28 (9031680)
I0403 21:35:48.065510 12185 net.cpp:156] Memory required for data: 809239584
I0403 21:35:48.065528 12185 layer_factory.hpp:77] Creating layer pool3/3x3_s2
I0403 21:35:48.065551 12185 net.cpp:91] Creating Layer pool3/3x3_s2
I0403 21:35:48.065570 12185 net.cpp:425] pool3/3x3_s2 <- inception_3b/output
I0403 21:35:48.065595 12185 net.cpp:399] pool3/3x3_s2 -> pool3/3x3_s2
I0403 21:35:48.065682 12185 net.cpp:141] Setting up pool3/3x3_s2
I0403 21:35:48.065716 12185 net.cpp:148] Top shape: 24 480 14 14 (2257920)
I0403 21:35:48.065735 12185 net.cpp:156] Memory required for data: 818271264
I0403 21:35:48.065753 12185 layer_factory.hpp:77] Creating layer pool3/3x3_s2_pool3/3x3_s2_0_split
I0403 21:35:48.065775 12185 net.cpp:91] Creating Layer pool3/3x3_s2_pool3/3x3_s2_0_split
I0403 21:35:48.065794 12185 net.cpp:425] pool3/3x3_s2_pool3/3x3_s2_0_split <- pool3/3x3_s2
I0403 21:35:48.065816 12185 net.cpp:399] pool3/3x3_s2_pool3/3x3_s2_0_split -> pool3/3x3_s2_pool3/3x3_s2_0_split_0
I0403 21:35:48.065845 12185 net.cpp:399] pool3/3x3_s2_pool3/3x3_s2_0_split -> pool3/3x3_s2_pool3/3x3_s2_0_split_1
I0403 21:35:48.065870 12185 net.cpp:399] pool3/3x3_s2_pool3/3x3_s2_0_split -> pool3/3x3_s2_pool3/3x3_s2_0_split_2
I0403 21:35:48.065894 12185 net.cpp:399] pool3/3x3_s2_pool3/3x3_s2_0_split -> pool3/3x3_s2_pool3/3x3_s2_0_split_3
I0403 21:35:48.065989 12185 net.cpp:141] Setting up pool3/3x3_s2_pool3/3x3_s2_0_split
I0403 21:35:48.066017 12185 net.cpp:148] Top shape: 24 480 14 14 (2257920)
I0403 21:35:48.066037 12185 net.cpp:148] Top shape: 24 480 14 14 (2257920)
I0403 21:35:48.066057 12185 net.cpp:148] Top shape: 24 480 14 14 (2257920)
I0403 21:35:48.066077 12185 net.cpp:148] Top shape: 24 480 14 14 (2257920)
I0403 21:35:48.066095 12185 net.cpp:156] Memory required for data: 854397984
I0403 21:35:48.066113 12185 layer_factory.hpp:77] Creating layer inception_4a/1x1
I0403 21:35:48.066143 12185 net.cpp:91] Creating Layer inception_4a/1x1
I0403 21:35:48.066164 12185 net.cpp:425] inception_4a/1x1 <- pool3/3x3_s2_pool3/3x3_s2_0_split_0
I0403 21:35:48.066190 12185 net.cpp:399] inception_4a/1x1 -> inception_4a/1x1
I0403 21:35:48.068097 12185 net.cpp:141] Setting up inception_4a/1x1
I0403 21:35:48.068135 12185 net.cpp:148] Top shape: 24 192 14 14 (903168)
I0403 21:35:48.068156 12185 net.cpp:156] Memory required for data: 858010656
I0403 21:35:48.068179 12185 layer_factory.hpp:77] Creating layer inception_4a/relu_1x1
I0403 21:35:48.068202 12185 net.cpp:91] Creating Layer inception_4a/relu_1x1
I0403 21:35:48.068229 12185 net.cpp:425] inception_4a/relu_1x1 <- inception_4a/1x1
I0403 21:35:48.068254 12185 net.cpp:386] inception_4a/relu_1x1 -> inception_4a/1x1 (in-place)
I0403 21:35:48.068471 12185 net.cpp:141] Setting up inception_4a/relu_1x1
I0403 21:35:48.068503 12185 net.cpp:148] Top shape: 24 192 14 14 (903168)
I0403 21:35:48.068521 12185 net.cpp:156] Memory required for data: 861623328
I0403 21:35:48.068541 12185 layer_factory.hpp:77] Creating layer inception_4a/3x3_reduce
I0403 21:35:48.068569 12185 net.cpp:91] Creating Layer inception_4a/3x3_reduce
I0403 21:35:48.068590 12185 net.cpp:425] inception_4a/3x3_reduce <- pool3/3x3_s2_pool3/3x3_s2_0_split_1
I0403 21:35:48.068616 12185 net.cpp:399] inception_4a/3x3_reduce -> inception_4a/3x3_reduce
I0403 21:35:48.070161 12185 net.cpp:141] Setting up inception_4a/3x3_reduce
I0403 21:35:48.070199 12185 net.cpp:148] Top shape: 24 96 14 14 (451584)
I0403 21:35:48.070225 12185 net.cpp:156] Memory required for data: 863429664
I0403 21:35:48.070255 12185 layer_factory.hpp:77] Creating layer inception_4a/relu_3x3_reduce
I0403 21:35:48.070288 12185 net.cpp:91] Creating Layer inception_4a/relu_3x3_reduce
I0403 21:35:48.070309 12185 net.cpp:425] inception_4a/relu_3x3_reduce <- inception_4a/3x3_reduce
I0403 21:35:48.070333 12185 net.cpp:386] inception_4a/relu_3x3_reduce -> inception_4a/3x3_reduce (in-place)
I0403 21:35:48.070549 12185 net.cpp:141] Setting up inception_4a/relu_3x3_reduce
I0403 21:35:48.070580 12185 net.cpp:148] Top shape: 24 96 14 14 (451584)
I0403 21:35:48.070598 12185 net.cpp:156] Memory required for data: 865236000
I0403 21:35:48.070617 12185 layer_factory.hpp:77] Creating layer inception_4a/3x3
I0403 21:35:48.070644 12185 net.cpp:91] Creating Layer inception_4a/3x3
I0403 21:35:48.070667 12185 net.cpp:425] inception_4a/3x3 <- inception_4a/3x3_reduce
I0403 21:35:48.070693 12185 net.cpp:399] inception_4a/3x3 -> inception_4a/3x3
I0403 21:35:48.073976 12185 net.cpp:141] Setting up inception_4a/3x3
I0403 21:35:48.074017 12185 net.cpp:148] Top shape: 24 208 14 14 (978432)
I0403 21:35:48.074038 12185 net.cpp:156] Memory required for data: 869149728
I0403 21:35:48.074062 12185 layer_factory.hpp:77] Creating layer inception_4a/relu_3x3
I0403 21:35:48.074085 12185 net.cpp:91] Creating Layer inception_4a/relu_3x3
I0403 21:35:48.074105 12185 net.cpp:425] inception_4a/relu_3x3 <- inception_4a/3x3
I0403 21:35:48.074128 12185 net.cpp:386] inception_4a/relu_3x3 -> inception_4a/3x3 (in-place)
I0403 21:35:48.074471 12185 net.cpp:141] Setting up inception_4a/relu_3x3
I0403 21:35:48.074506 12185 net.cpp:148] Top shape: 24 208 14 14 (978432)
I0403 21:35:48.074527 12185 net.cpp:156] Memory required for data: 873063456
I0403 21:35:48.074547 12185 layer_factory.hpp:77] Creating layer inception_4a/5x5_reduce
I0403 21:35:48.074576 12185 net.cpp:91] Creating Layer inception_4a/5x5_reduce
I0403 21:35:48.074599 12185 net.cpp:425] inception_4a/5x5_reduce <- pool3/3x3_s2_pool3/3x3_s2_0_split_2
I0403 21:35:48.074625 12185 net.cpp:399] inception_4a/5x5_reduce -> inception_4a/5x5_reduce
I0403 21:35:48.075858 12185 net.cpp:141] Setting up inception_4a/5x5_reduce
I0403 21:35:48.075892 12185 net.cpp:148] Top shape: 24 16 14 14 (75264)
I0403 21:35:48.075912 12185 net.cpp:156] Memory required for data: 873364512
I0403 21:35:48.075935 12185 layer_factory.hpp:77] Creating layer inception_4a/relu_5x5_reduce
I0403 21:35:48.075961 12185 net.cpp:91] Creating Layer inception_4a/relu_5x5_reduce
I0403 21:35:48.075989 12185 net.cpp:425] inception_4a/relu_5x5_reduce <- inception_4a/5x5_reduce
I0403 21:35:48.076010 12185 net.cpp:386] inception_4a/relu_5x5_reduce -> inception_4a/5x5_reduce (in-place)
I0403 21:35:48.076236 12185 net.cpp:141] Setting up inception_4a/relu_5x5_reduce
I0403 21:35:48.076267 12185 net.cpp:148] Top shape: 24 16 14 14 (75264)
I0403 21:35:48.076285 12185 net.cpp:156] Memory required for data: 873665568
I0403 21:35:48.076304 12185 layer_factory.hpp:77] Creating layer inception_4a/5x5
I0403 21:35:48.076331 12185 net.cpp:91] Creating Layer inception_4a/5x5
I0403 21:35:48.076354 12185 net.cpp:425] inception_4a/5x5 <- inception_4a/5x5_reduce
I0403 21:35:48.076380 12185 net.cpp:399] inception_4a/5x5 -> inception_4a/5x5
I0403 21:35:48.077690 12185 net.cpp:141] Setting up inception_4a/5x5
I0403 21:35:48.077725 12185 net.cpp:148] Top shape: 24 48 14 14 (225792)
I0403 21:35:48.077744 12185 net.cpp:156] Memory required for data: 874568736
I0403 21:35:48.077766 12185 layer_factory.hpp:77] Creating layer inception_4a/relu_5x5
I0403 21:35:48.077792 12185 net.cpp:91] Creating Layer inception_4a/relu_5x5
I0403 21:35:48.077814 12185 net.cpp:425] inception_4a/relu_5x5 <- inception_4a/5x5
I0403 21:35:48.077836 12185 net.cpp:386] inception_4a/relu_5x5 -> inception_4a/5x5 (in-place)
I0403 21:35:48.078053 12185 net.cpp:141] Setting up inception_4a/relu_5x5
I0403 21:35:48.078088 12185 net.cpp:148] Top shape: 24 48 14 14 (225792)
I0403 21:35:48.078106 12185 net.cpp:156] Memory required for data: 875471904
I0403 21:35:48.078125 12185 layer_factory.hpp:77] Creating layer inception_4a/pool
I0403 21:35:48.078148 12185 net.cpp:91] Creating Layer inception_4a/pool
I0403 21:35:48.078168 12185 net.cpp:425] inception_4a/pool <- pool3/3x3_s2_pool3/3x3_s2_0_split_3
I0403 21:35:48.078194 12185 net.cpp:399] inception_4a/pool -> inception_4a/pool
I0403 21:35:48.078279 12185 net.cpp:141] Setting up inception_4a/pool
I0403 21:35:48.078308 12185 net.cpp:148] Top shape: 24 480 14 14 (2257920)
I0403 21:35:48.078327 12185 net.cpp:156] Memory required for data: 884503584
I0403 21:35:48.078346 12185 layer_factory.hpp:77] Creating layer inception_4a/pool_proj
I0403 21:35:48.078373 12185 net.cpp:91] Creating Layer inception_4a/pool_proj
I0403 21:35:48.078395 12185 net.cpp:425] inception_4a/pool_proj <- inception_4a/pool
I0403 21:35:48.078423 12185 net.cpp:399] inception_4a/pool_proj -> inception_4a/pool_proj
I0403 21:35:48.079836 12185 net.cpp:141] Setting up inception_4a/pool_proj
I0403 21:35:48.079876 12185 net.cpp:148] Top shape: 24 64 14 14 (301056)
I0403 21:35:48.079913 12185 net.cpp:156] Memory required for data: 885707808
I0403 21:35:48.079938 12185 layer_factory.hpp:77] Creating layer inception_4a/relu_pool_proj
I0403 21:35:48.079962 12185 net.cpp:91] Creating Layer inception_4a/relu_pool_proj
I0403 21:35:48.079982 12185 net.cpp:425] inception_4a/relu_pool_proj <- inception_4a/pool_proj
I0403 21:35:48.080003 12185 net.cpp:386] inception_4a/relu_pool_proj -> inception_4a/pool_proj (in-place)
I0403 21:35:48.080348 12185 net.cpp:141] Setting up inception_4a/relu_pool_proj
I0403 21:35:48.080384 12185 net.cpp:148] Top shape: 24 64 14 14 (301056)
I0403 21:35:48.080405 12185 net.cpp:156] Memory required for data: 886912032
I0403 21:35:48.080425 12185 layer_factory.hpp:77] Creating layer inception_4a/output
I0403 21:35:48.080448 12185 net.cpp:91] Creating Layer inception_4a/output
I0403 21:35:48.080466 12185 net.cpp:425] inception_4a/output <- inception_4a/1x1
I0403 21:35:48.080487 12185 net.cpp:425] inception_4a/output <- inception_4a/3x3
I0403 21:35:48.080505 12185 net.cpp:425] inception_4a/output <- inception_4a/5x5
I0403 21:35:48.080528 12185 net.cpp:425] inception_4a/output <- inception_4a/pool_proj
I0403 21:35:48.080549 12185 net.cpp:399] inception_4a/output -> inception_4a/output
I0403 21:35:48.080603 12185 net.cpp:141] Setting up inception_4a/output
I0403 21:35:48.080633 12185 net.cpp:148] Top shape: 24 512 14 14 (2408448)
I0403 21:35:48.080651 12185 net.cpp:156] Memory required for data: 896545824
I0403 21:35:48.080669 12185 layer_factory.hpp:77] Creating layer inception_4a/output_inception_4a/output_0_split
I0403 21:35:48.080694 12185 net.cpp:91] Creating Layer inception_4a/output_inception_4a/output_0_split
I0403 21:35:48.080715 12185 net.cpp:425] inception_4a/output_inception_4a/output_0_split <- inception_4a/output
I0403 21:35:48.080739 12185 net.cpp:399] inception_4a/output_inception_4a/output_0_split -> inception_4a/output_inception_4a/output_0_split_0
I0403 21:35:48.080762 12185 net.cpp:399] inception_4a/output_inception_4a/output_0_split -> inception_4a/output_inception_4a/output_0_split_1
I0403 21:35:48.080788 12185 net.cpp:399] inception_4a/output_inception_4a/output_0_split -> inception_4a/output_inception_4a/output_0_split_2
I0403 21:35:48.080814 12185 net.cpp:399] inception_4a/output_inception_4a/output_0_split -> inception_4a/output_inception_4a/output_0_split_3
I0403 21:35:48.080842 12185 net.cpp:399] inception_4a/output_inception_4a/output_0_split -> inception_4a/output_inception_4a/output_0_split_4
I0403 21:35:48.080955 12185 net.cpp:141] Setting up inception_4a/output_inception_4a/output_0_split
I0403 21:35:48.080986 12185 net.cpp:148] Top shape: 24 512 14 14 (2408448)
I0403 21:35:48.081006 12185 net.cpp:148] Top shape: 24 512 14 14 (2408448)
I0403 21:35:48.081024 12185 net.cpp:148] Top shape: 24 512 14 14 (2408448)
I0403 21:35:48.081044 12185 net.cpp:148] Top shape: 24 512 14 14 (2408448)
I0403 21:35:48.081063 12185 net.cpp:148] Top shape: 24 512 14 14 (2408448)
I0403 21:35:48.081080 12185 net.cpp:156] Memory required for data: 944714784
I0403 21:35:48.081099 12185 layer_factory.hpp:77] Creating layer loss1/ave_pool
I0403 21:35:48.081120 12185 net.cpp:91] Creating Layer loss1/ave_pool
I0403 21:35:48.081145 12185 net.cpp:425] loss1/ave_pool <- inception_4a/output_inception_4a/output_0_split_0
I0403 21:35:48.081166 12185 net.cpp:399] loss1/ave_pool -> loss1/ave_pool
I0403 21:35:48.081423 12185 net.cpp:141] Setting up loss1/ave_pool
I0403 21:35:48.081457 12185 net.cpp:148] Top shape: 24 512 4 4 (196608)
I0403 21:35:48.081477 12185 net.cpp:156] Memory required for data: 945501216
I0403 21:35:48.081497 12185 layer_factory.hpp:77] Creating layer loss1/conv
I0403 21:35:48.081526 12185 net.cpp:91] Creating Layer loss1/conv
I0403 21:35:48.081548 12185 net.cpp:425] loss1/conv <- loss1/ave_pool
I0403 21:35:48.081570 12185 net.cpp:399] loss1/conv -> loss1/conv
I0403 21:35:48.083297 12185 net.cpp:141] Setting up loss1/conv
I0403 21:35:48.083333 12185 net.cpp:148] Top shape: 24 128 4 4 (49152)
I0403 21:35:48.083353 12185 net.cpp:156] Memory required for data: 945697824
I0403 21:35:48.083394 12185 layer_factory.hpp:77] Creating layer loss1/relu_conv
I0403 21:35:48.083418 12185 net.cpp:91] Creating Layer loss1/relu_conv
I0403 21:35:48.083438 12185 net.cpp:425] loss1/relu_conv <- loss1/conv
I0403 21:35:48.083462 12185 net.cpp:386] loss1/relu_conv -> loss1/conv (in-place)
I0403 21:35:48.083799 12185 net.cpp:141] Setting up loss1/relu_conv
I0403 21:35:48.083832 12185 net.cpp:148] Top shape: 24 128 4 4 (49152)
I0403 21:35:48.083849 12185 net.cpp:156] Memory required for data: 945894432
I0403 21:35:48.083869 12185 layer_factory.hpp:77] Creating layer loss1/fc
I0403 21:35:48.083899 12185 net.cpp:91] Creating Layer loss1/fc
I0403 21:35:48.083921 12185 net.cpp:425] loss1/fc <- loss1/conv
I0403 21:35:48.083947 12185 net.cpp:399] loss1/fc -> loss1/fc
I0403 21:35:48.106164 12185 net.cpp:141] Setting up loss1/fc
I0403 21:35:48.106212 12185 net.cpp:148] Top shape: 24 1024 (24576)
I0403 21:35:48.106235 12185 net.cpp:156] Memory required for data: 945992736
I0403 21:35:48.106257 12185 layer_factory.hpp:77] Creating layer loss1/relu_fc
I0403 21:35:48.106283 12185 net.cpp:91] Creating Layer loss1/relu_fc
I0403 21:35:48.106303 12185 net.cpp:425] loss1/relu_fc <- loss1/fc
I0403 21:35:48.106325 12185 net.cpp:386] loss1/relu_fc -> loss1/fc (in-place)
I0403 21:35:48.106555 12185 net.cpp:141] Setting up loss1/relu_fc
I0403 21:35:48.106587 12185 net.cpp:148] Top shape: 24 1024 (24576)
I0403 21:35:48.106606 12185 net.cpp:156] Memory required for data: 946091040
I0403 21:35:48.106624 12185 layer_factory.hpp:77] Creating layer loss1/drop_fc
I0403 21:35:48.106657 12185 net.cpp:91] Creating Layer loss1/drop_fc
I0403 21:35:48.106679 12185 net.cpp:425] loss1/drop_fc <- loss1/fc
I0403 21:35:48.106704 12185 net.cpp:386] loss1/drop_fc -> loss1/fc (in-place)
I0403 21:35:48.106768 12185 net.cpp:141] Setting up loss1/drop_fc
I0403 21:35:48.106796 12185 net.cpp:148] Top shape: 24 1024 (24576)
I0403 21:35:48.106814 12185 net.cpp:156] Memory required for data: 946189344
I0403 21:35:48.106833 12185 layer_factory.hpp:77] Creating layer loss1/classifier_plantvillage
I0403 21:35:48.106861 12185 net.cpp:91] Creating Layer loss1/classifier_plantvillage
I0403 21:35:48.106884 12185 net.cpp:425] loss1/classifier_plantvillage <- loss1/fc
I0403 21:35:48.106910 12185 net.cpp:399] loss1/classifier_plantvillage -> loss1/classifier_plantvillage
I0403 21:35:48.108031 12185 net.cpp:141] Setting up loss1/classifier_plantvillage
I0403 21:35:48.108069 12185 net.cpp:148] Top shape: 24 38 (912)
I0403 21:35:48.108088 12185 net.cpp:156] Memory required for data: 946192992
I0403 21:35:48.108113 12185 layer_factory.hpp:77] Creating layer loss1/classifier_plantvillage_loss1/classifier_plantvillage_0_split
I0403 21:35:48.108136 12185 net.cpp:91] Creating Layer loss1/classifier_plantvillage_loss1/classifier_plantvillage_0_split
I0403 21:35:48.108155 12185 net.cpp:425] loss1/classifier_plantvillage_loss1/classifier_plantvillage_0_split <- loss1/classifier_plantvillage
I0403 21:35:48.108181 12185 net.cpp:399] loss1/classifier_plantvillage_loss1/classifier_plantvillage_0_split -> loss1/classifier_plantvillage_loss1/classifier_plantvillage_0_split_0
I0403 21:35:48.108213 12185 net.cpp:399] loss1/classifier_plantvillage_loss1/classifier_plantvillage_0_split -> loss1/classifier_plantvillage_loss1/classifier_plantvillage_0_split_1
I0403 21:35:48.108242 12185 net.cpp:399] loss1/classifier_plantvillage_loss1/classifier_plantvillage_0_split -> loss1/classifier_plantvillage_loss1/classifier_plantvillage_0_split_2
I0403 21:35:48.108322 12185 net.cpp:141] Setting up loss1/classifier_plantvillage_loss1/classifier_plantvillage_0_split
I0403 21:35:48.108352 12185 net.cpp:148] Top shape: 24 38 (912)
I0403 21:35:48.108373 12185 net.cpp:148] Top shape: 24 38 (912)
I0403 21:35:48.108392 12185 net.cpp:148] Top shape: 24 38 (912)
I0403 21:35:48.108410 12185 net.cpp:156] Memory required for data: 946203936
I0403 21:35:48.108428 12185 layer_factory.hpp:77] Creating layer inception_4b/1x1
I0403 21:35:48.108455 12185 net.cpp:91] Creating Layer inception_4b/1x1
I0403 21:35:48.108496 12185 net.cpp:425] inception_4b/1x1 <- inception_4a/output_inception_4a/output_0_split_1
I0403 21:35:48.108522 12185 net.cpp:399] inception_4b/1x1 -> inception_4b/1x1
I0403 21:35:48.110496 12185 net.cpp:141] Setting up inception_4b/1x1
I0403 21:35:48.110532 12185 net.cpp:148] Top shape: 24 160 14 14 (752640)
I0403 21:35:48.110550 12185 net.cpp:156] Memory required for data: 949214496
I0403 21:35:48.110572 12185 layer_factory.hpp:77] Creating layer inception_4b/relu_1x1
I0403 21:35:48.110599 12185 net.cpp:91] Creating Layer inception_4b/relu_1x1
I0403 21:35:48.110621 12185 net.cpp:425] inception_4b/relu_1x1 <- inception_4b/1x1
I0403 21:35:48.110643 12185 net.cpp:386] inception_4b/relu_1x1 -> inception_4b/1x1 (in-place)
I0403 21:35:48.110865 12185 net.cpp:141] Setting up inception_4b/relu_1x1
I0403 21:35:48.110896 12185 net.cpp:148] Top shape: 24 160 14 14 (752640)
I0403 21:35:48.110914 12185 net.cpp:156] Memory required for data: 952225056
I0403 21:35:48.110934 12185 layer_factory.hpp:77] Creating layer inception_4b/3x3_reduce
I0403 21:35:48.110961 12185 net.cpp:91] Creating Layer inception_4b/3x3_reduce
I0403 21:35:48.110983 12185 net.cpp:425] inception_4b/3x3_reduce <- inception_4a/output_inception_4a/output_0_split_2
I0403 21:35:48.111011 12185 net.cpp:399] inception_4b/3x3_reduce -> inception_4b/3x3_reduce
I0403 21:35:48.112684 12185 net.cpp:141] Setting up inception_4b/3x3_reduce
I0403 21:35:48.112718 12185 net.cpp:148] Top shape: 24 112 14 14 (526848)
I0403 21:35:48.112737 12185 net.cpp:156] Memory required for data: 954332448
I0403 21:35:48.112761 12185 layer_factory.hpp:77] Creating layer inception_4b/relu_3x3_reduce
I0403 21:35:48.112792 12185 net.cpp:91] Creating Layer inception_4b/relu_3x3_reduce
I0403 21:35:48.112813 12185 net.cpp:425] inception_4b/relu_3x3_reduce <- inception_4b/3x3_reduce
I0403 21:35:48.112835 12185 net.cpp:386] inception_4b/relu_3x3_reduce -> inception_4b/3x3_reduce (in-place)
I0403 21:35:48.113175 12185 net.cpp:141] Setting up inception_4b/relu_3x3_reduce
I0403 21:35:48.113214 12185 net.cpp:148] Top shape: 24 112 14 14 (526848)
I0403 21:35:48.113235 12185 net.cpp:156] Memory required for data: 956439840
I0403 21:35:48.113255 12185 layer_factory.hpp:77] Creating layer inception_4b/3x3
I0403 21:35:48.113282 12185 net.cpp:91] Creating Layer inception_4b/3x3
I0403 21:35:48.113306 12185 net.cpp:425] inception_4b/3x3 <- inception_4b/3x3_reduce
I0403 21:35:48.113332 12185 net.cpp:399] inception_4b/3x3 -> inception_4b/3x3
I0403 21:35:48.116977 12185 net.cpp:141] Setting up inception_4b/3x3
I0403 21:35:48.117017 12185 net.cpp:148] Top shape: 24 224 14 14 (1053696)
I0403 21:35:48.117038 12185 net.cpp:156] Memory required for data: 960654624
I0403 21:35:48.117063 12185 layer_factory.hpp:77] Creating layer inception_4b/relu_3x3
I0403 21:35:48.117086 12185 net.cpp:91] Creating Layer inception_4b/relu_3x3
I0403 21:35:48.117106 12185 net.cpp:425] inception_4b/relu_3x3 <- inception_4b/3x3
I0403 21:35:48.117130 12185 net.cpp:386] inception_4b/relu_3x3 -> inception_4b/3x3 (in-place)
I0403 21:35:48.117367 12185 net.cpp:141] Setting up inception_4b/relu_3x3
I0403 21:35:48.117399 12185 net.cpp:148] Top shape: 24 224 14 14 (1053696)
I0403 21:35:48.117419 12185 net.cpp:156] Memory required for data: 964869408
I0403 21:35:48.117436 12185 layer_factory.hpp:77] Creating layer inception_4b/5x5_reduce
I0403 21:35:48.117465 12185 net.cpp:91] Creating Layer inception_4b/5x5_reduce
I0403 21:35:48.117487 12185 net.cpp:425] inception_4b/5x5_reduce <- inception_4a/output_inception_4a/output_0_split_3
I0403 21:35:48.117516 12185 net.cpp:399] inception_4b/5x5_reduce -> inception_4b/5x5_reduce
I0403 21:35:48.118840 12185 net.cpp:141] Setting up inception_4b/5x5_reduce
I0403 21:35:48.118875 12185 net.cpp:148] Top shape: 24 24 14 14 (112896)
I0403 21:35:48.118894 12185 net.cpp:156] Memory required for data: 965320992
I0403 21:35:48.118919 12185 layer_factory.hpp:77] Creating layer inception_4b/relu_5x5_reduce
I0403 21:35:48.118944 12185 net.cpp:91] Creating Layer inception_4b/relu_5x5_reduce
I0403 21:35:48.118981 12185 net.cpp:425] inception_4b/relu_5x5_reduce <- inception_4b/5x5_reduce
I0403 21:35:48.119005 12185 net.cpp:386] inception_4b/relu_5x5_reduce -> inception_4b/5x5_reduce (in-place)
I0403 21:35:48.119235 12185 net.cpp:141] Setting up inception_4b/relu_5x5_reduce
I0403 21:35:48.119271 12185 net.cpp:148] Top shape: 24 24 14 14 (112896)
I0403 21:35:48.119289 12185 net.cpp:156] Memory required for data: 965772576
I0403 21:35:48.119308 12185 layer_factory.hpp:77] Creating layer inception_4b/5x5
I0403 21:35:48.119333 12185 net.cpp:91] Creating Layer inception_4b/5x5
I0403 21:35:48.119354 12185 net.cpp:425] inception_4b/5x5 <- inception_4b/5x5_reduce
I0403 21:35:48.119380 12185 net.cpp:399] inception_4b/5x5 -> inception_4b/5x5
I0403 21:35:48.120880 12185 net.cpp:141] Setting up inception_4b/5x5
I0403 21:35:48.120915 12185 net.cpp:148] Top shape: 24 64 14 14 (301056)
I0403 21:35:48.120934 12185 net.cpp:156] Memory required for data: 966976800
I0403 21:35:48.120957 12185 layer_factory.hpp:77] Creating layer inception_4b/relu_5x5
I0403 21:35:48.120982 12185 net.cpp:91] Creating Layer inception_4b/relu_5x5
I0403 21:35:48.121003 12185 net.cpp:425] inception_4b/relu_5x5 <- inception_4b/5x5
I0403 21:35:48.121026 12185 net.cpp:386] inception_4b/relu_5x5 -> inception_4b/5x5 (in-place)
I0403 21:35:48.121377 12185 net.cpp:141] Setting up inception_4b/relu_5x5
I0403 21:35:48.121410 12185 net.cpp:148] Top shape: 24 64 14 14 (301056)
I0403 21:35:48.121429 12185 net.cpp:156] Memory required for data: 968181024
I0403 21:35:48.121448 12185 layer_factory.hpp:77] Creating layer inception_4b/pool
I0403 21:35:48.121470 12185 net.cpp:91] Creating Layer inception_4b/pool
I0403 21:35:48.121491 12185 net.cpp:425] inception_4b/pool <- inception_4a/output_inception_4a/output_0_split_4
I0403 21:35:48.121516 12185 net.cpp:399] inception_4b/pool -> inception_4b/pool
I0403 21:35:48.121598 12185 net.cpp:141] Setting up inception_4b/pool
I0403 21:35:48.121631 12185 net.cpp:148] Top shape: 24 512 14 14 (2408448)
I0403 21:35:48.121650 12185 net.cpp:156] Memory required for data: 977814816
I0403 21:35:48.121670 12185 layer_factory.hpp:77] Creating layer inception_4b/pool_proj
I0403 21:35:48.121698 12185 net.cpp:91] Creating Layer inception_4b/pool_proj
I0403 21:35:48.121721 12185 net.cpp:425] inception_4b/pool_proj <- inception_4b/pool
I0403 21:35:48.121745 12185 net.cpp:399] inception_4b/pool_proj -> inception_4b/pool_proj
I0403 21:35:48.123224 12185 net.cpp:141] Setting up inception_4b/pool_proj
I0403 21:35:48.123260 12185 net.cpp:148] Top shape: 24 64 14 14 (301056)
I0403 21:35:48.123280 12185 net.cpp:156] Memory required for data: 979019040
I0403 21:35:48.123302 12185 layer_factory.hpp:77] Creating layer inception_4b/relu_pool_proj
I0403 21:35:48.123328 12185 net.cpp:91] Creating Layer inception_4b/relu_pool_proj
I0403 21:35:48.123350 12185 net.cpp:425] inception_4b/relu_pool_proj <- inception_4b/pool_proj
I0403 21:35:48.123371 12185 net.cpp:386] inception_4b/relu_pool_proj -> inception_4b/pool_proj (in-place)
I0403 21:35:48.123595 12185 net.cpp:141] Setting up inception_4b/relu_pool_proj
I0403 21:35:48.123626 12185 net.cpp:148] Top shape: 24 64 14 14 (301056)
I0403 21:35:48.123644 12185 net.cpp:156] Memory required for data: 980223264
I0403 21:35:48.123663 12185 layer_factory.hpp:77] Creating layer inception_4b/output
I0403 21:35:48.123689 12185 net.cpp:91] Creating Layer inception_4b/output
I0403 21:35:48.123708 12185 net.cpp:425] inception_4b/output <- inception_4b/1x1
I0403 21:35:48.123729 12185 net.cpp:425] inception_4b/output <- inception_4b/3x3
I0403 21:35:48.123749 12185 net.cpp:425] inception_4b/output <- inception_4b/5x5
I0403 21:35:48.123769 12185 net.cpp:425] inception_4b/output <- inception_4b/pool_proj
I0403 21:35:48.123791 12185 net.cpp:399] inception_4b/output -> inception_4b/output
I0403 21:35:48.123848 12185 net.cpp:141] Setting up inception_4b/output
I0403 21:35:48.123878 12185 net.cpp:148] Top shape: 24 512 14 14 (2408448)
I0403 21:35:48.123894 12185 net.cpp:156] Memory required for data: 989857056
I0403 21:35:48.123930 12185 layer_factory.hpp:77] Creating layer inception_4b/output_inception_4b/output_0_split
I0403 21:35:48.123952 12185 net.cpp:91] Creating Layer inception_4b/output_inception_4b/output_0_split
I0403 21:35:48.123971 12185 net.cpp:425] inception_4b/output_inception_4b/output_0_split <- inception_4b/output
I0403 21:35:48.123996 12185 net.cpp:399] inception_4b/output_inception_4b/output_0_split -> inception_4b/output_inception_4b/output_0_split_0
I0403 21:35:48.124023 12185 net.cpp:399] inception_4b/output_inception_4b/output_0_split -> inception_4b/output_inception_4b/output_0_split_1
I0403 21:35:48.124047 12185 net.cpp:399] inception_4b/output_inception_4b/output_0_split -> inception_4b/output_inception_4b/output_0_split_2
I0403 21:35:48.124073 12185 net.cpp:399] inception_4b/output_inception_4b/output_0_split -> inception_4b/output_inception_4b/output_0_split_3
I0403 21:35:48.124176 12185 net.cpp:141] Setting up inception_4b/output_inception_4b/output_0_split
I0403 21:35:48.124212 12185 net.cpp:148] Top shape: 24 512 14 14 (2408448)
I0403 21:35:48.124238 12185 net.cpp:148] Top shape: 24 512 14 14 (2408448)
I0403 21:35:48.124258 12185 net.cpp:148] Top shape: 24 512 14 14 (2408448)
I0403 21:35:48.124277 12185 net.cpp:148] Top shape: 24 512 14 14 (2408448)
I0403 21:35:48.124294 12185 net.cpp:156] Memory required for data: 1028392224
I0403 21:35:48.124312 12185 layer_factory.hpp:77] Creating layer inception_4c/1x1
I0403 21:35:48.124341 12185 net.cpp:91] Creating Layer inception_4c/1x1
I0403 21:35:48.124362 12185 net.cpp:425] inception_4c/1x1 <- inception_4b/output_inception_4b/output_0_split_0
I0403 21:35:48.124390 12185 net.cpp:399] inception_4c/1x1 -> inception_4c/1x1
I0403 21:35:48.126137 12185 net.cpp:141] Setting up inception_4c/1x1
I0403 21:35:48.126171 12185 net.cpp:148] Top shape: 24 128 14 14 (602112)
I0403 21:35:48.126190 12185 net.cpp:156] Memory required for data: 1030800672
I0403 21:35:48.126219 12185 layer_factory.hpp:77] Creating layer inception_4c/relu_1x1
I0403 21:35:48.126252 12185 net.cpp:91] Creating Layer inception_4c/relu_1x1
I0403 21:35:48.126274 12185 net.cpp:425] inception_4c/relu_1x1 <- inception_4c/1x1
I0403 21:35:48.126296 12185 net.cpp:386] inception_4c/relu_1x1 -> inception_4c/1x1 (in-place)
I0403 21:35:48.126518 12185 net.cpp:141] Setting up inception_4c/relu_1x1
I0403 21:35:48.126549 12185 net.cpp:148] Top shape: 24 128 14 14 (602112)
I0403 21:35:48.126566 12185 net.cpp:156] Memory required for data: 1033209120
I0403 21:35:48.126585 12185 layer_factory.hpp:77] Creating layer inception_4c/3x3_reduce
I0403 21:35:48.126613 12185 net.cpp:91] Creating Layer inception_4c/3x3_reduce
I0403 21:35:48.126636 12185 net.cpp:425] inception_4c/3x3_reduce <- inception_4b/output_inception_4b/output_0_split_1
I0403 21:35:48.126663 12185 net.cpp:399] inception_4c/3x3_reduce -> inception_4c/3x3_reduce
I0403 21:35:48.129039 12185 net.cpp:141] Setting up inception_4c/3x3_reduce
I0403 21:35:48.129075 12185 net.cpp:148] Top shape: 24 128 14 14 (602112)
I0403 21:35:48.129093 12185 net.cpp:156] Memory required for data: 1035617568
I0403 21:35:48.129117 12185 layer_factory.hpp:77] Creating layer inception_4c/relu_3x3_reduce
I0403 21:35:48.129138 12185 net.cpp:91] Creating Layer inception_4c/relu_3x3_reduce
I0403 21:35:48.129158 12185 net.cpp:425] inception_4c/relu_3x3_reduce <- inception_4c/3x3_reduce
I0403 21:35:48.129184 12185 net.cpp:386] inception_4c/relu_3x3_reduce -> inception_4c/3x3_reduce (in-place)
I0403 21:35:48.129539 12185 net.cpp:141] Setting up inception_4c/relu_3x3_reduce
I0403 21:35:48.129571 12185 net.cpp:148] Top shape: 24 128 14 14 (602112)
I0403 21:35:48.129590 12185 net.cpp:156] Memory required for data: 1038026016
I0403 21:35:48.129609 12185 layer_factory.hpp:77] Creating layer inception_4c/3x3
I0403 21:35:48.129639 12185 net.cpp:91] Creating Layer inception_4c/3x3
I0403 21:35:48.129662 12185 net.cpp:425] inception_4c/3x3 <- inception_4c/3x3_reduce
I0403 21:35:48.129688 12185 net.cpp:399] inception_4c/3x3 -> inception_4c/3x3
I0403 21:35:48.134104 12185 net.cpp:141] Setting up inception_4c/3x3
I0403 21:35:48.134157 12185 net.cpp:148] Top shape: 24 256 14 14 (1204224)
I0403 21:35:48.134178 12185 net.cpp:156] Memory required for data: 1042842912
I0403 21:35:48.134225 12185 layer_factory.hpp:77] Creating layer inception_4c/relu_3x3
I0403 21:35:48.134256 12185 net.cpp:91] Creating Layer inception_4c/relu_3x3
I0403 21:35:48.134277 12185 net.cpp:425] inception_4c/relu_3x3 <- inception_4c/3x3
I0403 21:35:48.134299 12185 net.cpp:386] inception_4c/relu_3x3 -> inception_4c/3x3 (in-place)
I0403 21:35:48.134523 12185 net.cpp:141] Setting up inception_4c/relu_3x3
I0403 21:35:48.134554 12185 net.cpp:148] Top shape: 24 256 14 14 (1204224)
I0403 21:35:48.134572 12185 net.cpp:156] Memory required for data: 1047659808
I0403 21:35:48.134593 12185 layer_factory.hpp:77] Creating layer inception_4c/5x5_reduce
I0403 21:35:48.134621 12185 net.cpp:91] Creating Layer inception_4c/5x5_reduce
I0403 21:35:48.134644 12185 net.cpp:425] inception_4c/5x5_reduce <- inception_4b/output_inception_4b/output_0_split_2
I0403 21:35:48.134670 12185 net.cpp:399] inception_4c/5x5_reduce -> inception_4c/5x5_reduce
I0403 21:35:48.135996 12185 net.cpp:141] Setting up inception_4c/5x5_reduce
I0403 21:35:48.136031 12185 net.cpp:148] Top shape: 24 24 14 14 (112896)
I0403 21:35:48.136050 12185 net.cpp:156] Memory required for data: 1048111392
I0403 21:35:48.136075 12185 layer_factory.hpp:77] Creating layer inception_4c/relu_5x5_reduce
I0403 21:35:48.136104 12185 net.cpp:91] Creating Layer inception_4c/relu_5x5_reduce
I0403 21:35:48.136126 12185 net.cpp:425] inception_4c/relu_5x5_reduce <- inception_4c/5x5_reduce
I0403 21:35:48.136148 12185 net.cpp:386] inception_4c/relu_5x5_reduce -> inception_4c/5x5_reduce (in-place)
I0403 21:35:48.136381 12185 net.cpp:141] Setting up inception_4c/relu_5x5_reduce
I0403 21:35:48.136414 12185 net.cpp:148] Top shape: 24 24 14 14 (112896)
I0403 21:35:48.136432 12185 net.cpp:156] Memory required for data: 1048562976
I0403 21:35:48.136451 12185 layer_factory.hpp:77] Creating layer inception_4c/5x5
I0403 21:35:48.136478 12185 net.cpp:91] Creating Layer inception_4c/5x5
I0403 21:35:48.136502 12185 net.cpp:425] inception_4c/5x5 <- inception_4c/5x5_reduce
I0403 21:35:48.136528 12185 net.cpp:399] inception_4c/5x5 -> inception_4c/5x5
I0403 21:35:48.138047 12185 net.cpp:141] Setting up inception_4c/5x5
I0403 21:35:48.138082 12185 net.cpp:148] Top shape: 24 64 14 14 (301056)
I0403 21:35:48.138100 12185 net.cpp:156] Memory required for data: 1049767200
I0403 21:35:48.138123 12185 layer_factory.hpp:77] Creating layer inception_4c/relu_5x5
I0403 21:35:48.138149 12185 net.cpp:91] Creating Layer inception_4c/relu_5x5
I0403 21:35:48.138169 12185 net.cpp:425] inception_4c/relu_5x5 <- inception_4c/5x5
I0403 21:35:48.138190 12185 net.cpp:386] inception_4c/relu_5x5 -> inception_4c/5x5 (in-place)
I0403 21:35:48.138543 12185 net.cpp:141] Setting up inception_4c/relu_5x5
I0403 21:35:48.138576 12185 net.cpp:148] Top shape: 24 64 14 14 (301056)
I0403 21:35:48.138593 12185 net.cpp:156] Memory required for data: 1050971424
I0403 21:35:48.138613 12185 layer_factory.hpp:77] Creating layer inception_4c/pool
I0403 21:35:48.138638 12185 net.cpp:91] Creating Layer inception_4c/pool
I0403 21:35:48.138660 12185 net.cpp:425] inception_4c/pool <- inception_4b/output_inception_4b/output_0_split_3
I0403 21:35:48.138684 12185 net.cpp:399] inception_4c/pool -> inception_4c/pool
I0403 21:35:48.138766 12185 net.cpp:141] Setting up inception_4c/pool
I0403 21:35:48.138795 12185 net.cpp:148] Top shape: 24 512 14 14 (2408448)
I0403 21:35:48.138813 12185 net.cpp:156] Memory required for data: 1060605216
I0403 21:35:48.138831 12185 layer_factory.hpp:77] Creating layer inception_4c/pool_proj
I0403 21:35:48.138859 12185 net.cpp:91] Creating Layer inception_4c/pool_proj
I0403 21:35:48.138881 12185 net.cpp:425] inception_4c/pool_proj <- inception_4c/pool
I0403 21:35:48.138908 12185 net.cpp:399] inception_4c/pool_proj -> inception_4c/pool_proj
I0403 21:35:48.140408 12185 net.cpp:141] Setting up inception_4c/pool_proj
I0403 21:35:48.140442 12185 net.cpp:148] Top shape: 24 64 14 14 (301056)
I0403 21:35:48.140480 12185 net.cpp:156] Memory required for data: 1061809440
I0403 21:35:48.140504 12185 layer_factory.hpp:77] Creating layer inception_4c/relu_pool_proj
I0403 21:35:48.140534 12185 net.cpp:91] Creating Layer inception_4c/relu_pool_proj
I0403 21:35:48.140555 12185 net.cpp:425] inception_4c/relu_pool_proj <- inception_4c/pool_proj
I0403 21:35:48.140578 12185 net.cpp:386] inception_4c/relu_pool_proj -> inception_4c/pool_proj (in-place)
I0403 21:35:48.140805 12185 net.cpp:141] Setting up inception_4c/relu_pool_proj
I0403 21:35:48.140837 12185 net.cpp:148] Top shape: 24 64 14 14 (301056)
I0403 21:35:48.140856 12185 net.cpp:156] Memory required for data: 1063013664
I0403 21:35:48.140874 12185 layer_factory.hpp:77] Creating layer inception_4c/output
I0403 21:35:48.140898 12185 net.cpp:91] Creating Layer inception_4c/output
I0403 21:35:48.140918 12185 net.cpp:425] inception_4c/output <- inception_4c/1x1
I0403 21:35:48.140939 12185 net.cpp:425] inception_4c/output <- inception_4c/3x3
I0403 21:35:48.140959 12185 net.cpp:425] inception_4c/output <- inception_4c/5x5
I0403 21:35:48.140979 12185 net.cpp:425] inception_4c/output <- inception_4c/pool_proj
I0403 21:35:48.141000 12185 net.cpp:399] inception_4c/output -> inception_4c/output
I0403 21:35:48.141059 12185 net.cpp:141] Setting up inception_4c/output
I0403 21:35:48.141088 12185 net.cpp:148] Top shape: 24 512 14 14 (2408448)
I0403 21:35:48.141106 12185 net.cpp:156] Memory required for data: 1072647456
I0403 21:35:48.141124 12185 layer_factory.hpp:77] Creating layer inception_4c/output_inception_4c/output_0_split
I0403 21:35:48.141146 12185 net.cpp:91] Creating Layer inception_4c/output_inception_4c/output_0_split
I0403 21:35:48.141166 12185 net.cpp:425] inception_4c/output_inception_4c/output_0_split <- inception_4c/output
I0403 21:35:48.141191 12185 net.cpp:399] inception_4c/output_inception_4c/output_0_split -> inception_4c/output_inception_4c/output_0_split_0
I0403 21:35:48.141223 12185 net.cpp:399] inception_4c/output_inception_4c/output_0_split -> inception_4c/output_inception_4c/output_0_split_1
I0403 21:35:48.141252 12185 net.cpp:399] inception_4c/output_inception_4c/output_0_split -> inception_4c/output_inception_4c/output_0_split_2
I0403 21:35:48.141278 12185 net.cpp:399] inception_4c/output_inception_4c/output_0_split -> inception_4c/output_inception_4c/output_0_split_3
I0403 21:35:48.141383 12185 net.cpp:141] Setting up inception_4c/output_inception_4c/output_0_split
I0403 21:35:48.141417 12185 net.cpp:148] Top shape: 24 512 14 14 (2408448)
I0403 21:35:48.141438 12185 net.cpp:148] Top shape: 24 512 14 14 (2408448)
I0403 21:35:48.141458 12185 net.cpp:148] Top shape: 24 512 14 14 (2408448)
I0403 21:35:48.141477 12185 net.cpp:148] Top shape: 24 512 14 14 (2408448)
I0403 21:35:48.141494 12185 net.cpp:156] Memory required for data: 1111182624
I0403 21:35:48.141515 12185 layer_factory.hpp:77] Creating layer inception_4d/1x1
I0403 21:35:48.141541 12185 net.cpp:91] Creating Layer inception_4d/1x1
I0403 21:35:48.141563 12185 net.cpp:425] inception_4d/1x1 <- inception_4c/output_inception_4c/output_0_split_0
I0403 21:35:48.141587 12185 net.cpp:399] inception_4d/1x1 -> inception_4d/1x1
I0403 21:35:48.143286 12185 net.cpp:141] Setting up inception_4d/1x1
I0403 21:35:48.143324 12185 net.cpp:148] Top shape: 24 112 14 14 (526848)
I0403 21:35:48.143347 12185 net.cpp:156] Memory required for data: 1113290016
I0403 21:35:48.143369 12185 layer_factory.hpp:77] Creating layer inception_4d/relu_1x1
I0403 21:35:48.143390 12185 net.cpp:91] Creating Layer inception_4d/relu_1x1
I0403 21:35:48.143410 12185 net.cpp:425] inception_4d/relu_1x1 <- inception_4d/1x1
I0403 21:35:48.143435 12185 net.cpp:386] inception_4d/relu_1x1 -> inception_4d/1x1 (in-place)
I0403 21:35:48.143664 12185 net.cpp:141] Setting up inception_4d/relu_1x1
I0403 21:35:48.143695 12185 net.cpp:148] Top shape: 24 112 14 14 (526848)
I0403 21:35:48.143715 12185 net.cpp:156] Memory required for data: 1115397408
I0403 21:35:48.143735 12185 layer_factory.hpp:77] Creating layer inception_4d/3x3_reduce
I0403 21:35:48.143780 12185 net.cpp:91] Creating Layer inception_4d/3x3_reduce
I0403 21:35:48.143803 12185 net.cpp:425] inception_4d/3x3_reduce <- inception_4c/output_inception_4c/output_0_split_1
I0403 21:35:48.143831 12185 net.cpp:399] inception_4d/3x3_reduce -> inception_4d/3x3_reduce
I0403 21:35:48.145735 12185 net.cpp:141] Setting up inception_4d/3x3_reduce
I0403 21:35:48.145776 12185 net.cpp:148] Top shape: 24 144 14 14 (677376)
I0403 21:35:48.145797 12185 net.cpp:156] Memory required for data: 1118106912
I0403 21:35:48.145820 12185 layer_factory.hpp:77] Creating layer inception_4d/relu_3x3_reduce
I0403 21:35:48.145843 12185 net.cpp:91] Creating Layer inception_4d/relu_3x3_reduce
I0403 21:35:48.145864 12185 net.cpp:425] inception_4d/relu_3x3_reduce <- inception_4d/3x3_reduce
I0403 21:35:48.145884 12185 net.cpp:386] inception_4d/relu_3x3_reduce -> inception_4d/3x3_reduce (in-place)
I0403 21:35:48.146244 12185 net.cpp:141] Setting up inception_4d/relu_3x3_reduce
I0403 21:35:48.146280 12185 net.cpp:148] Top shape: 24 144 14 14 (677376)
I0403 21:35:48.146298 12185 net.cpp:156] Memory required for data: 1120816416
I0403 21:35:48.146318 12185 layer_factory.hpp:77] Creating layer inception_4d/3x3
I0403 21:35:48.146345 12185 net.cpp:91] Creating Layer inception_4d/3x3
I0403 21:35:48.146368 12185 net.cpp:425] inception_4d/3x3 <- inception_4d/3x3_reduce
I0403 21:35:48.146392 12185 net.cpp:399] inception_4d/3x3 -> inception_4d/3x3
I0403 21:35:48.151702 12185 net.cpp:141] Setting up inception_4d/3x3
I0403 21:35:48.151738 12185 net.cpp:148] Top shape: 24 288 14 14 (1354752)
I0403 21:35:48.151758 12185 net.cpp:156] Memory required for data: 1126235424
I0403 21:35:48.151782 12185 layer_factory.hpp:77] Creating layer inception_4d/relu_3x3
I0403 21:35:48.151804 12185 net.cpp:91] Creating Layer inception_4d/relu_3x3
I0403 21:35:48.151824 12185 net.cpp:425] inception_4d/relu_3x3 <- inception_4d/3x3
I0403 21:35:48.151849 12185 net.cpp:386] inception_4d/relu_3x3 -> inception_4d/3x3 (in-place)
I0403 21:35:48.152076 12185 net.cpp:141] Setting up inception_4d/relu_3x3
I0403 21:35:48.152107 12185 net.cpp:148] Top shape: 24 288 14 14 (1354752)
I0403 21:35:48.152125 12185 net.cpp:156] Memory required for data: 1131654432
I0403 21:35:48.152143 12185 layer_factory.hpp:77] Creating layer inception_4d/5x5_reduce
I0403 21:35:48.152170 12185 net.cpp:91] Creating Layer inception_4d/5x5_reduce
I0403 21:35:48.152192 12185 net.cpp:425] inception_4d/5x5_reduce <- inception_4c/output_inception_4c/output_0_split_2
I0403 21:35:48.152232 12185 net.cpp:399] inception_4d/5x5_reduce -> inception_4d/5x5_reduce
I0403 21:35:48.153635 12185 net.cpp:141] Setting up inception_4d/5x5_reduce
I0403 21:35:48.153672 12185 net.cpp:148] Top shape: 24 32 14 14 (150528)
I0403 21:35:48.153692 12185 net.cpp:156] Memory required for data: 1132256544
I0403 21:35:48.153715 12185 layer_factory.hpp:77] Creating layer inception_4d/relu_5x5_reduce
I0403 21:35:48.153738 12185 net.cpp:91] Creating Layer inception_4d/relu_5x5_reduce
I0403 21:35:48.153759 12185 net.cpp:425] inception_4d/relu_5x5_reduce <- inception_4d/5x5_reduce
I0403 21:35:48.153784 12185 net.cpp:386] inception_4d/relu_5x5_reduce -> inception_4d/5x5_reduce (in-place)
I0403 21:35:48.154019 12185 net.cpp:141] Setting up inception_4d/relu_5x5_reduce
I0403 21:35:48.154050 12185 net.cpp:148] Top shape: 24 32 14 14 (150528)
I0403 21:35:48.154068 12185 net.cpp:156] Memory required for data: 1132858656
I0403 21:35:48.154088 12185 layer_factory.hpp:77] Creating layer inception_4d/5x5
I0403 21:35:48.154119 12185 net.cpp:91] Creating Layer inception_4d/5x5
I0403 21:35:48.154141 12185 net.cpp:425] inception_4d/5x5 <- inception_4d/5x5_reduce
I0403 21:35:48.154168 12185 net.cpp:399] inception_4d/5x5 -> inception_4d/5x5
I0403 21:35:48.155951 12185 net.cpp:141] Setting up inception_4d/5x5
I0403 21:35:48.155985 12185 net.cpp:148] Top shape: 24 64 14 14 (301056)
I0403 21:35:48.156005 12185 net.cpp:156] Memory required for data: 1134062880
I0403 21:35:48.156030 12185 layer_factory.hpp:77] Creating layer inception_4d/relu_5x5
I0403 21:35:48.156075 12185 net.cpp:91] Creating Layer inception_4d/relu_5x5
I0403 21:35:48.156096 12185 net.cpp:425] inception_4d/relu_5x5 <- inception_4d/5x5
I0403 21:35:48.156118 12185 net.cpp:386] inception_4d/relu_5x5 -> inception_4d/5x5 (in-place)
I0403 21:35:48.156484 12185 net.cpp:141] Setting up inception_4d/relu_5x5
I0403 21:35:48.156518 12185 net.cpp:148] Top shape: 24 64 14 14 (301056)
I0403 21:35:48.156538 12185 net.cpp:156] Memory required for data: 1135267104
I0403 21:35:48.156556 12185 layer_factory.hpp:77] Creating layer inception_4d/pool
I0403 21:35:48.156582 12185 net.cpp:91] Creating Layer inception_4d/pool
I0403 21:35:48.156604 12185 net.cpp:425] inception_4d/pool <- inception_4c/output_inception_4c/output_0_split_3
I0403 21:35:48.156625 12185 net.cpp:399] inception_4d/pool -> inception_4d/pool
I0403 21:35:48.156710 12185 net.cpp:141] Setting up inception_4d/pool
I0403 21:35:48.156739 12185 net.cpp:148] Top shape: 24 512 14 14 (2408448)
I0403 21:35:48.156759 12185 net.cpp:156] Memory required for data: 1144900896
I0403 21:35:48.156777 12185 layer_factory.hpp:77] Creating layer inception_4d/pool_proj
I0403 21:35:48.156805 12185 net.cpp:91] Creating Layer inception_4d/pool_proj
I0403 21:35:48.156828 12185 net.cpp:425] inception_4d/pool_proj <- inception_4d/pool
I0403 21:35:48.156855 12185 net.cpp:399] inception_4d/pool_proj -> inception_4d/pool_proj
I0403 21:35:48.159021 12185 net.cpp:141] Setting up inception_4d/pool_proj
I0403 21:35:48.159059 12185 net.cpp:148] Top shape: 24 64 14 14 (301056)
I0403 21:35:48.159078 12185 net.cpp:156] Memory required for data: 1146105120
I0403 21:35:48.159102 12185 layer_factory.hpp:77] Creating layer inception_4d/relu_pool_proj
I0403 21:35:48.159126 12185 net.cpp:91] Creating Layer inception_4d/relu_pool_proj
I0403 21:35:48.159145 12185 net.cpp:425] inception_4d/relu_pool_proj <- inception_4d/pool_proj
I0403 21:35:48.159170 12185 net.cpp:386] inception_4d/relu_pool_proj -> inception_4d/pool_proj (in-place)
I0403 21:35:48.159415 12185 net.cpp:141] Setting up inception_4d/relu_pool_proj
I0403 21:35:48.159447 12185 net.cpp:148] Top shape: 24 64 14 14 (301056)
I0403 21:35:48.159466 12185 net.cpp:156] Memory required for data: 1147309344
I0403 21:35:48.159484 12185 layer_factory.hpp:77] Creating layer inception_4d/output
I0403 21:35:48.159508 12185 net.cpp:91] Creating Layer inception_4d/output
I0403 21:35:48.159529 12185 net.cpp:425] inception_4d/output <- inception_4d/1x1
I0403 21:35:48.159550 12185 net.cpp:425] inception_4d/output <- inception_4d/3x3
I0403 21:35:48.159570 12185 net.cpp:425] inception_4d/output <- inception_4d/5x5
I0403 21:35:48.159590 12185 net.cpp:425] inception_4d/output <- inception_4d/pool_proj
I0403 21:35:48.159611 12185 net.cpp:399] inception_4d/output -> inception_4d/output
I0403 21:35:48.159670 12185 net.cpp:141] Setting up inception_4d/output
I0403 21:35:48.159701 12185 net.cpp:148] Top shape: 24 528 14 14 (2483712)
I0403 21:35:48.159720 12185 net.cpp:156] Memory required for data: 1157244192
I0403 21:35:48.159739 12185 layer_factory.hpp:77] Creating layer inception_4d/output_inception_4d/output_0_split
I0403 21:35:48.159760 12185 net.cpp:91] Creating Layer inception_4d/output_inception_4d/output_0_split
I0403 21:35:48.159780 12185 net.cpp:425] inception_4d/output_inception_4d/output_0_split <- inception_4d/output
I0403 21:35:48.159804 12185 net.cpp:399] inception_4d/output_inception_4d/output_0_split -> inception_4d/output_inception_4d/output_0_split_0
I0403 21:35:48.159832 12185 net.cpp:399] inception_4d/output_inception_4d/output_0_split -> inception_4d/output_inception_4d/output_0_split_1
I0403 21:35:48.159857 12185 net.cpp:399] inception_4d/output_inception_4d/output_0_split -> inception_4d/output_inception_4d/output_0_split_2
I0403 21:35:48.159883 12185 net.cpp:399] inception_4d/output_inception_4d/output_0_split -> inception_4d/output_inception_4d/output_0_split_3
I0403 21:35:48.159909 12185 net.cpp:399] inception_4d/output_inception_4d/output_0_split -> inception_4d/output_inception_4d/output_0_split_4
I0403 21:35:48.160035 12185 net.cpp:141] Setting up inception_4d/output_inception_4d/output_0_split
I0403 21:35:48.160080 12185 net.cpp:148] Top shape: 24 528 14 14 (2483712)
I0403 21:35:48.160104 12185 net.cpp:148] Top shape: 24 528 14 14 (2483712)
I0403 21:35:48.160126 12185 net.cpp:148] Top shape: 24 528 14 14 (2483712)
I0403 21:35:48.160146 12185 net.cpp:148] Top shape: 24 528 14 14 (2483712)
I0403 21:35:48.160167 12185 net.cpp:148] Top shape: 24 528 14 14 (2483712)
I0403 21:35:48.160183 12185 net.cpp:156] Memory required for data: 1206918432
I0403 21:35:48.160202 12185 layer_factory.hpp:77] Creating layer loss2/ave_pool
I0403 21:35:48.160233 12185 net.cpp:91] Creating Layer loss2/ave_pool
I0403 21:35:48.160254 12185 net.cpp:425] loss2/ave_pool <- inception_4d/output_inception_4d/output_0_split_0
I0403 21:35:48.160279 12185 net.cpp:399] loss2/ave_pool -> loss2/ave_pool
I0403 21:35:48.160658 12185 net.cpp:141] Setting up loss2/ave_pool
I0403 21:35:48.160691 12185 net.cpp:148] Top shape: 24 528 4 4 (202752)
I0403 21:35:48.160711 12185 net.cpp:156] Memory required for data: 1207729440
I0403 21:35:48.160728 12185 layer_factory.hpp:77] Creating layer loss2/conv
I0403 21:35:48.160756 12185 net.cpp:91] Creating Layer loss2/conv
I0403 21:35:48.160779 12185 net.cpp:425] loss2/conv <- loss2/ave_pool
I0403 21:35:48.160805 12185 net.cpp:399] loss2/conv -> loss2/conv
I0403 21:35:48.163164 12185 net.cpp:141] Setting up loss2/conv
I0403 21:35:48.163202 12185 net.cpp:148] Top shape: 24 128 4 4 (49152)
I0403 21:35:48.163226 12185 net.cpp:156] Memory required for data: 1207926048
I0403 21:35:48.163251 12185 layer_factory.hpp:77] Creating layer loss2/relu_conv
I0403 21:35:48.163277 12185 net.cpp:91] Creating Layer loss2/relu_conv
I0403 21:35:48.163298 12185 net.cpp:425] loss2/relu_conv <- loss2/conv
I0403 21:35:48.163321 12185 net.cpp:386] loss2/relu_conv -> loss2/conv (in-place)
I0403 21:35:48.163678 12185 net.cpp:141] Setting up loss2/relu_conv
I0403 21:35:48.163712 12185 net.cpp:148] Top shape: 24 128 4 4 (49152)
I0403 21:35:48.163730 12185 net.cpp:156] Memory required for data: 1208122656
I0403 21:35:48.163748 12185 layer_factory.hpp:77] Creating layer loss2/fc
I0403 21:35:48.163774 12185 net.cpp:91] Creating Layer loss2/fc
I0403 21:35:48.163797 12185 net.cpp:425] loss2/fc <- loss2/conv
I0403 21:35:48.163820 12185 net.cpp:399] loss2/fc -> loss2/fc
I0403 21:35:48.186030 12185 net.cpp:141] Setting up loss2/fc
I0403 21:35:48.186076 12185 net.cpp:148] Top shape: 24 1024 (24576)
I0403 21:35:48.186095 12185 net.cpp:156] Memory required for data: 1208220960
I0403 21:35:48.186118 12185 layer_factory.hpp:77] Creating layer loss2/relu_fc
I0403 21:35:48.186141 12185 net.cpp:91] Creating Layer loss2/relu_fc
I0403 21:35:48.186161 12185 net.cpp:425] loss2/relu_fc <- loss2/fc
I0403 21:35:48.186185 12185 net.cpp:386] loss2/relu_fc -> loss2/fc (in-place)
I0403 21:35:48.186560 12185 net.cpp:141] Setting up loss2/relu_fc
I0403 21:35:48.186594 12185 net.cpp:148] Top shape: 24 1024 (24576)
I0403 21:35:48.186611 12185 net.cpp:156] Memory required for data: 1208319264
I0403 21:35:48.186630 12185 layer_factory.hpp:77] Creating layer loss2/drop_fc
I0403 21:35:48.186652 12185 net.cpp:91] Creating Layer loss2/drop_fc
I0403 21:35:48.186671 12185 net.cpp:425] loss2/drop_fc <- loss2/fc
I0403 21:35:48.186694 12185 net.cpp:386] loss2/drop_fc -> loss2/fc (in-place)
I0403 21:35:48.186756 12185 net.cpp:141] Setting up loss2/drop_fc
I0403 21:35:48.186789 12185 net.cpp:148] Top shape: 24 1024 (24576)
I0403 21:35:48.186808 12185 net.cpp:156] Memory required for data: 1208417568
I0403 21:35:48.186827 12185 layer_factory.hpp:77] Creating layer loss2/classifier_plantvillage
I0403 21:35:48.186849 12185 net.cpp:91] Creating Layer loss2/classifier_plantvillage
I0403 21:35:48.186869 12185 net.cpp:425] loss2/classifier_plantvillage <- loss2/fc
I0403 21:35:48.186899 12185 net.cpp:399] loss2/classifier_plantvillage -> loss2/classifier_plantvillage
I0403 21:35:48.187402 12185 net.cpp:141] Setting up loss2/classifier_plantvillage
I0403 21:35:48.187436 12185 net.cpp:148] Top shape: 24 38 (912)
I0403 21:35:48.187455 12185 net.cpp:156] Memory required for data: 1208421216
I0403 21:35:48.187499 12185 layer_factory.hpp:77] Creating layer loss2/classifier_plantvillage_loss2/classifier_plantvillage_0_split
I0403 21:35:48.187521 12185 net.cpp:91] Creating Layer loss2/classifier_plantvillage_loss2/classifier_plantvillage_0_split
I0403 21:35:48.187541 12185 net.cpp:425] loss2/classifier_plantvillage_loss2/classifier_plantvillage_0_split <- loss2/classifier_plantvillage
I0403 21:35:48.187561 12185 net.cpp:399] loss2/classifier_plantvillage_loss2/classifier_plantvillage_0_split -> loss2/classifier_plantvillage_loss2/classifier_plantvillage_0_split_0
I0403 21:35:48.187587 12185 net.cpp:399] loss2/classifier_plantvillage_loss2/classifier_plantvillage_0_split -> loss2/classifier_plantvillage_loss2/classifier_plantvillage_0_split_1
I0403 21:35:48.187613 12185 net.cpp:399] loss2/classifier_plantvillage_loss2/classifier_plantvillage_0_split -> loss2/classifier_plantvillage_loss2/classifier_plantvillage_0_split_2
I0403 21:35:48.187708 12185 net.cpp:141] Setting up loss2/classifier_plantvillage_loss2/classifier_plantvillage_0_split
I0403 21:35:48.187737 12185 net.cpp:148] Top shape: 24 38 (912)
I0403 21:35:48.187757 12185 net.cpp:148] Top shape: 24 38 (912)
I0403 21:35:48.187777 12185 net.cpp:148] Top shape: 24 38 (912)
I0403 21:35:48.187793 12185 net.cpp:156] Memory required for data: 1208432160
I0403 21:35:48.187811 12185 layer_factory.hpp:77] Creating layer inception_4e/1x1
I0403 21:35:48.187836 12185 net.cpp:91] Creating Layer inception_4e/1x1
I0403 21:35:48.187856 12185 net.cpp:425] inception_4e/1x1 <- inception_4d/output_inception_4d/output_0_split_1
I0403 21:35:48.187883 12185 net.cpp:399] inception_4e/1x1 -> inception_4e/1x1
I0403 21:35:48.190131 12185 net.cpp:141] Setting up inception_4e/1x1
I0403 21:35:48.190165 12185 net.cpp:148] Top shape: 24 256 14 14 (1204224)
I0403 21:35:48.190184 12185 net.cpp:156] Memory required for data: 1213249056
I0403 21:35:48.190213 12185 layer_factory.hpp:77] Creating layer inception_4e/relu_1x1
I0403 21:35:48.190239 12185 net.cpp:91] Creating Layer inception_4e/relu_1x1
I0403 21:35:48.190260 12185 net.cpp:425] inception_4e/relu_1x1 <- inception_4e/1x1
I0403 21:35:48.190281 12185 net.cpp:386] inception_4e/relu_1x1 -> inception_4e/1x1 (in-place)
I0403 21:35:48.190645 12185 net.cpp:141] Setting up inception_4e/relu_1x1
I0403 21:35:48.190678 12185 net.cpp:148] Top shape: 24 256 14 14 (1204224)
I0403 21:35:48.190698 12185 net.cpp:156] Memory required for data: 1218065952
I0403 21:35:48.190717 12185 layer_factory.hpp:77] Creating layer inception_4e/3x3_reduce
I0403 21:35:48.190747 12185 net.cpp:91] Creating Layer inception_4e/3x3_reduce
I0403 21:35:48.190771 12185 net.cpp:425] inception_4e/3x3_reduce <- inception_4d/output_inception_4d/output_0_split_2
I0403 21:35:48.190794 12185 net.cpp:399] inception_4e/3x3_reduce -> inception_4e/3x3_reduce
I0403 21:35:48.193438 12185 net.cpp:141] Setting up inception_4e/3x3_reduce
I0403 21:35:48.193475 12185 net.cpp:148] Top shape: 24 160 14 14 (752640)
I0403 21:35:48.193495 12185 net.cpp:156] Memory required for data: 1221076512
I0403 21:35:48.193518 12185 layer_factory.hpp:77] Creating layer inception_4e/relu_3x3_reduce
I0403 21:35:48.193547 12185 net.cpp:91] Creating Layer inception_4e/relu_3x3_reduce
I0403 21:35:48.193569 12185 net.cpp:425] inception_4e/relu_3x3_reduce <- inception_4e/3x3_reduce
I0403 21:35:48.193590 12185 net.cpp:386] inception_4e/relu_3x3_reduce -> inception_4e/3x3_reduce (in-place)
I0403 21:35:48.193824 12185 net.cpp:141] Setting up inception_4e/relu_3x3_reduce
I0403 21:35:48.193855 12185 net.cpp:148] Top shape: 24 160 14 14 (752640)
I0403 21:35:48.193873 12185 net.cpp:156] Memory required for data: 1224087072
I0403 21:35:48.193892 12185 layer_factory.hpp:77] Creating layer inception_4e/3x3
I0403 21:35:48.193922 12185 net.cpp:91] Creating Layer inception_4e/3x3
I0403 21:35:48.193944 12185 net.cpp:425] inception_4e/3x3 <- inception_4e/3x3_reduce
I0403 21:35:48.193967 12185 net.cpp:399] inception_4e/3x3 -> inception_4e/3x3
I0403 21:35:48.200206 12185 net.cpp:141] Setting up inception_4e/3x3
I0403 21:35:48.200266 12185 net.cpp:148] Top shape: 24 320 14 14 (1505280)
I0403 21:35:48.200286 12185 net.cpp:156] Memory required for data: 1230108192
I0403 21:35:48.200309 12185 layer_factory.hpp:77] Creating layer inception_4e/relu_3x3
I0403 21:35:48.200335 12185 net.cpp:91] Creating Layer inception_4e/relu_3x3
I0403 21:35:48.200356 12185 net.cpp:425] inception_4e/relu_3x3 <- inception_4e/3x3
I0403 21:35:48.200377 12185 net.cpp:386] inception_4e/relu_3x3 -> inception_4e/3x3 (in-place)
I0403 21:35:48.200742 12185 net.cpp:141] Setting up inception_4e/relu_3x3
I0403 21:35:48.200778 12185 net.cpp:148] Top shape: 24 320 14 14 (1505280)
I0403 21:35:48.200798 12185 net.cpp:156] Memory required for data: 1236129312
I0403 21:35:48.200816 12185 layer_factory.hpp:77] Creating layer inception_4e/5x5_reduce
I0403 21:35:48.200846 12185 net.cpp:91] Creating Layer inception_4e/5x5_reduce
I0403 21:35:48.200870 12185 net.cpp:425] inception_4e/5x5_reduce <- inception_4d/output_inception_4d/output_0_split_3
I0403 21:35:48.200893 12185 net.cpp:399] inception_4e/5x5_reduce -> inception_4e/5x5_reduce
I0403 21:35:48.202232 12185 net.cpp:141] Setting up inception_4e/5x5_reduce
I0403 21:35:48.202266 12185 net.cpp:148] Top shape: 24 32 14 14 (150528)
I0403 21:35:48.202286 12185 net.cpp:156] Memory required for data: 1236731424
I0403 21:35:48.202308 12185 layer_factory.hpp:77] Creating layer inception_4e/relu_5x5_reduce
I0403 21:35:48.202333 12185 net.cpp:91] Creating Layer inception_4e/relu_5x5_reduce
I0403 21:35:48.202354 12185 net.cpp:425] inception_4e/relu_5x5_reduce <- inception_4e/5x5_reduce
I0403 21:35:48.202376 12185 net.cpp:386] inception_4e/relu_5x5_reduce -> inception_4e/5x5_reduce (in-place)
I0403 21:35:48.202739 12185 net.cpp:141] Setting up inception_4e/relu_5x5_reduce
I0403 21:35:48.202770 12185 net.cpp:148] Top shape: 24 32 14 14 (150528)
I0403 21:35:48.202790 12185 net.cpp:156] Memory required for data: 1237333536
I0403 21:35:48.202808 12185 layer_factory.hpp:77] Creating layer inception_4e/5x5
I0403 21:35:48.202857 12185 net.cpp:91] Creating Layer inception_4e/5x5
I0403 21:35:48.202882 12185 net.cpp:425] inception_4e/5x5 <- inception_4e/5x5_reduce
I0403 21:35:48.202909 12185 net.cpp:399] inception_4e/5x5 -> inception_4e/5x5
I0403 21:35:48.205153 12185 net.cpp:141] Setting up inception_4e/5x5
I0403 21:35:48.205189 12185 net.cpp:148] Top shape: 24 128 14 14 (602112)
I0403 21:35:48.205214 12185 net.cpp:156] Memory required for data: 1239741984
I0403 21:35:48.205240 12185 layer_factory.hpp:77] Creating layer inception_4e/relu_5x5
I0403 21:35:48.205262 12185 net.cpp:91] Creating Layer inception_4e/relu_5x5
I0403 21:35:48.205282 12185 net.cpp:425] inception_4e/relu_5x5 <- inception_4e/5x5
I0403 21:35:48.205312 12185 net.cpp:386] inception_4e/relu_5x5 -> inception_4e/5x5 (in-place)
I0403 21:35:48.205557 12185 net.cpp:141] Setting up inception_4e/relu_5x5
I0403 21:35:48.205588 12185 net.cpp:148] Top shape: 24 128 14 14 (602112)
I0403 21:35:48.205606 12185 net.cpp:156] Memory required for data: 1242150432
I0403 21:35:48.205624 12185 layer_factory.hpp:77] Creating layer inception_4e/pool
I0403 21:35:48.205651 12185 net.cpp:91] Creating Layer inception_4e/pool
I0403 21:35:48.205672 12185 net.cpp:425] inception_4e/pool <- inception_4d/output_inception_4d/output_0_split_4
I0403 21:35:48.205694 12185 net.cpp:399] inception_4e/pool -> inception_4e/pool
I0403 21:35:48.205782 12185 net.cpp:141] Setting up inception_4e/pool
I0403 21:35:48.205812 12185 net.cpp:148] Top shape: 24 528 14 14 (2483712)
I0403 21:35:48.205832 12185 net.cpp:156] Memory required for data: 1252085280
I0403 21:35:48.205852 12185 layer_factory.hpp:77] Creating layer inception_4e/pool_proj
I0403 21:35:48.205878 12185 net.cpp:91] Creating Layer inception_4e/pool_proj
I0403 21:35:48.205901 12185 net.cpp:425] inception_4e/pool_proj <- inception_4e/pool
I0403 21:35:48.205927 12185 net.cpp:399] inception_4e/pool_proj -> inception_4e/pool_proj
I0403 21:35:48.207790 12185 net.cpp:141] Setting up inception_4e/pool_proj
I0403 21:35:48.207825 12185 net.cpp:148] Top shape: 24 128 14 14 (602112)
I0403 21:35:48.207861 12185 net.cpp:156] Memory required for data: 1254493728
I0403 21:35:48.207887 12185 layer_factory.hpp:77] Creating layer inception_4e/relu_pool_proj
I0403 21:35:48.207909 12185 net.cpp:91] Creating Layer inception_4e/relu_pool_proj
I0403 21:35:48.207929 12185 net.cpp:425] inception_4e/relu_pool_proj <- inception_4e/pool_proj
I0403 21:35:48.207953 12185 net.cpp:386] inception_4e/relu_pool_proj -> inception_4e/pool_proj (in-place)
I0403 21:35:48.208319 12185 net.cpp:141] Setting up inception_4e/relu_pool_proj
I0403 21:35:48.208353 12185 net.cpp:148] Top shape: 24 128 14 14 (602112)
I0403 21:35:48.208371 12185 net.cpp:156] Memory required for data: 1256902176
I0403 21:35:48.208390 12185 layer_factory.hpp:77] Creating layer inception_4e/output
I0403 21:35:48.208412 12185 net.cpp:91] Creating Layer inception_4e/output
I0403 21:35:48.208432 12185 net.cpp:425] inception_4e/output <- inception_4e/1x1
I0403 21:35:48.208453 12185 net.cpp:425] inception_4e/output <- inception_4e/3x3
I0403 21:35:48.208473 12185 net.cpp:425] inception_4e/output <- inception_4e/5x5
I0403 21:35:48.208494 12185 net.cpp:425] inception_4e/output <- inception_4e/pool_proj
I0403 21:35:48.208518 12185 net.cpp:399] inception_4e/output -> inception_4e/output
I0403 21:35:48.208580 12185 net.cpp:141] Setting up inception_4e/output
I0403 21:35:48.208611 12185 net.cpp:148] Top shape: 24 832 14 14 (3913728)
I0403 21:35:48.208631 12185 net.cpp:156] Memory required for data: 1272557088
I0403 21:35:48.208650 12185 layer_factory.hpp:77] Creating layer pool4/3x3_s2
I0403 21:35:48.208673 12185 net.cpp:91] Creating Layer pool4/3x3_s2
I0403 21:35:48.208693 12185 net.cpp:425] pool4/3x3_s2 <- inception_4e/output
I0403 21:35:48.208715 12185 net.cpp:399] pool4/3x3_s2 -> pool4/3x3_s2
I0403 21:35:48.208799 12185 net.cpp:141] Setting up pool4/3x3_s2
I0403 21:35:48.208829 12185 net.cpp:148] Top shape: 24 832 7 7 (978432)
I0403 21:35:48.208848 12185 net.cpp:156] Memory required for data: 1276470816
I0403 21:35:48.208866 12185 layer_factory.hpp:77] Creating layer pool4/3x3_s2_pool4/3x3_s2_0_split
I0403 21:35:48.208889 12185 net.cpp:91] Creating Layer pool4/3x3_s2_pool4/3x3_s2_0_split
I0403 21:35:48.208907 12185 net.cpp:425] pool4/3x3_s2_pool4/3x3_s2_0_split <- pool4/3x3_s2
I0403 21:35:48.208931 12185 net.cpp:399] pool4/3x3_s2_pool4/3x3_s2_0_split -> pool4/3x3_s2_pool4/3x3_s2_0_split_0
I0403 21:35:48.208958 12185 net.cpp:399] pool4/3x3_s2_pool4/3x3_s2_0_split -> pool4/3x3_s2_pool4/3x3_s2_0_split_1
I0403 21:35:48.208983 12185 net.cpp:399] pool4/3x3_s2_pool4/3x3_s2_0_split -> pool4/3x3_s2_pool4/3x3_s2_0_split_2
I0403 21:35:48.209010 12185 net.cpp:399] pool4/3x3_s2_pool4/3x3_s2_0_split -> pool4/3x3_s2_pool4/3x3_s2_0_split_3
I0403 21:35:48.209131 12185 net.cpp:141] Setting up pool4/3x3_s2_pool4/3x3_s2_0_split
I0403 21:35:48.209159 12185 net.cpp:148] Top shape: 24 832 7 7 (978432)
I0403 21:35:48.209180 12185 net.cpp:148] Top shape: 24 832 7 7 (978432)
I0403 21:35:48.209199 12185 net.cpp:148] Top shape: 24 832 7 7 (978432)
I0403 21:35:48.209225 12185 net.cpp:148] Top shape: 24 832 7 7 (978432)
I0403 21:35:48.209245 12185 net.cpp:156] Memory required for data: 1292125728
I0403 21:35:48.209264 12185 layer_factory.hpp:77] Creating layer inception_5a/1x1
I0403 21:35:48.209293 12185 net.cpp:91] Creating Layer inception_5a/1x1
I0403 21:35:48.209316 12185 net.cpp:425] inception_5a/1x1 <- pool4/3x3_s2_pool4/3x3_s2_0_split_0
I0403 21:35:48.209342 12185 net.cpp:399] inception_5a/1x1 -> inception_5a/1x1
I0403 21:35:48.212883 12185 net.cpp:141] Setting up inception_5a/1x1
I0403 21:35:48.212920 12185 net.cpp:148] Top shape: 24 256 7 7 (301056)
I0403 21:35:48.212940 12185 net.cpp:156] Memory required for data: 1293329952
I0403 21:35:48.212963 12185 layer_factory.hpp:77] Creating layer inception_5a/relu_1x1
I0403 21:35:48.212987 12185 net.cpp:91] Creating Layer inception_5a/relu_1x1
I0403 21:35:48.213007 12185 net.cpp:425] inception_5a/relu_1x1 <- inception_5a/1x1
I0403 21:35:48.213028 12185 net.cpp:386] inception_5a/relu_1x1 -> inception_5a/1x1 (in-place)
I0403 21:35:48.213413 12185 net.cpp:141] Setting up inception_5a/relu_1x1
I0403 21:35:48.213445 12185 net.cpp:148] Top shape: 24 256 7 7 (301056)
I0403 21:35:48.213464 12185 net.cpp:156] Memory required for data: 1294534176
I0403 21:35:48.213482 12185 layer_factory.hpp:77] Creating layer inception_5a/3x3_reduce
I0403 21:35:48.213510 12185 net.cpp:91] Creating Layer inception_5a/3x3_reduce
I0403 21:35:48.213534 12185 net.cpp:425] inception_5a/3x3_reduce <- pool4/3x3_s2_pool4/3x3_s2_0_split_1
I0403 21:35:48.213562 12185 net.cpp:399] inception_5a/3x3_reduce -> inception_5a/3x3_reduce
I0403 21:35:48.216609 12185 net.cpp:141] Setting up inception_5a/3x3_reduce
I0403 21:35:48.216648 12185 net.cpp:148] Top shape: 24 160 7 7 (188160)
I0403 21:35:48.216670 12185 net.cpp:156] Memory required for data: 1295286816
I0403 21:35:48.216692 12185 layer_factory.hpp:77] Creating layer inception_5a/relu_3x3_reduce
I0403 21:35:48.216714 12185 net.cpp:91] Creating Layer inception_5a/relu_3x3_reduce
I0403 21:35:48.216735 12185 net.cpp:425] inception_5a/relu_3x3_reduce <- inception_5a/3x3_reduce
I0403 21:35:48.216761 12185 net.cpp:386] inception_5a/relu_3x3_reduce -> inception_5a/3x3_reduce (in-place)
I0403 21:35:48.216995 12185 net.cpp:141] Setting up inception_5a/relu_3x3_reduce
I0403 21:35:48.217025 12185 net.cpp:148] Top shape: 24 160 7 7 (188160)
I0403 21:35:48.217043 12185 net.cpp:156] Memory required for data: 1296039456
I0403 21:35:48.217061 12185 layer_factory.hpp:77] Creating layer inception_5a/3x3
I0403 21:35:48.217089 12185 net.cpp:91] Creating Layer inception_5a/3x3
I0403 21:35:48.217113 12185 net.cpp:425] inception_5a/3x3 <- inception_5a/3x3_reduce
I0403 21:35:48.217141 12185 net.cpp:399] inception_5a/3x3 -> inception_5a/3x3
I0403 21:35:48.223469 12185 net.cpp:141] Setting up inception_5a/3x3
I0403 21:35:48.223506 12185 net.cpp:148] Top shape: 24 320 7 7 (376320)
I0403 21:35:48.223526 12185 net.cpp:156] Memory required for data: 1297544736
I0403 21:35:48.223549 12185 layer_factory.hpp:77] Creating layer inception_5a/relu_3x3
I0403 21:35:48.223572 12185 net.cpp:91] Creating Layer inception_5a/relu_3x3
I0403 21:35:48.223592 12185 net.cpp:425] inception_5a/relu_3x3 <- inception_5a/3x3
I0403 21:35:48.223618 12185 net.cpp:386] inception_5a/relu_3x3 -> inception_5a/3x3 (in-place)
I0403 21:35:48.223984 12185 net.cpp:141] Setting up inception_5a/relu_3x3
I0403 21:35:48.224016 12185 net.cpp:148] Top shape: 24 320 7 7 (376320)
I0403 21:35:48.224033 12185 net.cpp:156] Memory required for data: 1299050016
I0403 21:35:48.224052 12185 layer_factory.hpp:77] Creating layer inception_5a/5x5_reduce
I0403 21:35:48.224081 12185 net.cpp:91] Creating Layer inception_5a/5x5_reduce
I0403 21:35:48.224102 12185 net.cpp:425] inception_5a/5x5_reduce <- pool4/3x3_s2_pool4/3x3_s2_0_split_2
I0403 21:35:48.224130 12185 net.cpp:399] inception_5a/5x5_reduce -> inception_5a/5x5_reduce
I0403 21:35:48.225591 12185 net.cpp:141] Setting up inception_5a/5x5_reduce
I0403 21:35:48.225630 12185 net.cpp:148] Top shape: 24 32 7 7 (37632)
I0403 21:35:48.225649 12185 net.cpp:156] Memory required for data: 1299200544
I0403 21:35:48.225673 12185 layer_factory.hpp:77] Creating layer inception_5a/relu_5x5_reduce
I0403 21:35:48.225697 12185 net.cpp:91] Creating Layer inception_5a/relu_5x5_reduce
I0403 21:35:48.225718 12185 net.cpp:425] inception_5a/relu_5x5_reduce <- inception_5a/5x5_reduce
I0403 21:35:48.225738 12185 net.cpp:386] inception_5a/relu_5x5_reduce -> inception_5a/5x5_reduce (in-place)
I0403 21:35:48.226099 12185 net.cpp:141] Setting up inception_5a/relu_5x5_reduce
I0403 21:35:48.226133 12185 net.cpp:148] Top shape: 24 32 7 7 (37632)
I0403 21:35:48.226152 12185 net.cpp:156] Memory required for data: 1299351072
I0403 21:35:48.226171 12185 layer_factory.hpp:77] Creating layer inception_5a/5x5
I0403 21:35:48.226202 12185 net.cpp:91] Creating Layer inception_5a/5x5
I0403 21:35:48.226233 12185 net.cpp:425] inception_5a/5x5 <- inception_5a/5x5_reduce
I0403 21:35:48.226259 12185 net.cpp:399] inception_5a/5x5 -> inception_5a/5x5
I0403 21:35:48.228404 12185 net.cpp:141] Setting up inception_5a/5x5
I0403 21:35:48.228453 12185 net.cpp:148] Top shape: 24 128 7 7 (150528)
I0403 21:35:48.228473 12185 net.cpp:156] Memory required for data: 1299953184
I0403 21:35:48.228497 12185 layer_factory.hpp:77] Creating layer inception_5a/relu_5x5
I0403 21:35:48.228519 12185 net.cpp:91] Creating Layer inception_5a/relu_5x5
I0403 21:35:48.228540 12185 net.cpp:425] inception_5a/relu_5x5 <- inception_5a/5x5
I0403 21:35:48.228564 12185 net.cpp:386] inception_5a/relu_5x5 -> inception_5a/5x5 (in-place)
I0403 21:35:48.228804 12185 net.cpp:141] Setting up inception_5a/relu_5x5
I0403 21:35:48.228837 12185 net.cpp:148] Top shape: 24 128 7 7 (150528)
I0403 21:35:48.228854 12185 net.cpp:156] Memory required for data: 1300555296
I0403 21:35:48.228874 12185 layer_factory.hpp:77] Creating layer inception_5a/pool
I0403 21:35:48.228900 12185 net.cpp:91] Creating Layer inception_5a/pool
I0403 21:35:48.228921 12185 net.cpp:425] inception_5a/pool <- pool4/3x3_s2_pool4/3x3_s2_0_split_3
I0403 21:35:48.228945 12185 net.cpp:399] inception_5a/pool -> inception_5a/pool
I0403 21:35:48.229034 12185 net.cpp:141] Setting up inception_5a/pool
I0403 21:35:48.229065 12185 net.cpp:148] Top shape: 24 832 7 7 (978432)
I0403 21:35:48.229084 12185 net.cpp:156] Memory required for data: 1304469024
I0403 21:35:48.229101 12185 layer_factory.hpp:77] Creating layer inception_5a/pool_proj
I0403 21:35:48.229130 12185 net.cpp:91] Creating Layer inception_5a/pool_proj
I0403 21:35:48.229151 12185 net.cpp:425] inception_5a/pool_proj <- inception_5a/pool
I0403 21:35:48.229177 12185 net.cpp:399] inception_5a/pool_proj -> inception_5a/pool_proj
I0403 21:35:48.232002 12185 net.cpp:141] Setting up inception_5a/pool_proj
I0403 21:35:48.232039 12185 net.cpp:148] Top shape: 24 128 7 7 (150528)
I0403 21:35:48.232059 12185 net.cpp:156] Memory required for data: 1305071136
I0403 21:35:48.232081 12185 layer_factory.hpp:77] Creating layer inception_5a/relu_pool_proj
I0403 21:35:48.232105 12185 net.cpp:91] Creating Layer inception_5a/relu_pool_proj
I0403 21:35:48.232125 12185 net.cpp:425] inception_5a/relu_pool_proj <- inception_5a/pool_proj
I0403 21:35:48.232151 12185 net.cpp:386] inception_5a/relu_pool_proj -> inception_5a/pool_proj (in-place)
I0403 21:35:48.232534 12185 net.cpp:141] Setting up inception_5a/relu_pool_proj
I0403 21:35:48.232568 12185 net.cpp:148] Top shape: 24 128 7 7 (150528)
I0403 21:35:48.232586 12185 net.cpp:156] Memory required for data: 1305673248
I0403 21:35:48.232605 12185 layer_factory.hpp:77] Creating layer inception_5a/output
I0403 21:35:48.232626 12185 net.cpp:91] Creating Layer inception_5a/output
I0403 21:35:48.232648 12185 net.cpp:425] inception_5a/output <- inception_5a/1x1
I0403 21:35:48.232669 12185 net.cpp:425] inception_5a/output <- inception_5a/3x3
I0403 21:35:48.232689 12185 net.cpp:425] inception_5a/output <- inception_5a/5x5
I0403 21:35:48.232709 12185 net.cpp:425] inception_5a/output <- inception_5a/pool_proj
I0403 21:35:48.232733 12185 net.cpp:399] inception_5a/output -> inception_5a/output
I0403 21:35:48.232795 12185 net.cpp:141] Setting up inception_5a/output
I0403 21:35:48.232825 12185 net.cpp:148] Top shape: 24 832 7 7 (978432)
I0403 21:35:48.232843 12185 net.cpp:156] Memory required for data: 1309586976
I0403 21:35:48.232862 12185 layer_factory.hpp:77] Creating layer inception_5a/output_inception_5a/output_0_split
I0403 21:35:48.232887 12185 net.cpp:91] Creating Layer inception_5a/output_inception_5a/output_0_split
I0403 21:35:48.232908 12185 net.cpp:425] inception_5a/output_inception_5a/output_0_split <- inception_5a/output
I0403 21:35:48.232929 12185 net.cpp:399] inception_5a/output_inception_5a/output_0_split -> inception_5a/output_inception_5a/output_0_split_0
I0403 21:35:48.232959 12185 net.cpp:399] inception_5a/output_inception_5a/output_0_split -> inception_5a/output_inception_5a/output_0_split_1
I0403 21:35:48.232990 12185 net.cpp:399] inception_5a/output_inception_5a/output_0_split -> inception_5a/output_inception_5a/output_0_split_2
I0403 21:35:48.233014 12185 net.cpp:399] inception_5a/output_inception_5a/output_0_split -> inception_5a/output_inception_5a/output_0_split_3
I0403 21:35:48.233151 12185 net.cpp:141] Setting up inception_5a/output_inception_5a/output_0_split
I0403 21:35:48.233180 12185 net.cpp:148] Top shape: 24 832 7 7 (978432)
I0403 21:35:48.233201 12185 net.cpp:148] Top shape: 24 832 7 7 (978432)
I0403 21:35:48.233230 12185 net.cpp:148] Top shape: 24 832 7 7 (978432)
I0403 21:35:48.233252 12185 net.cpp:148] Top shape: 24 832 7 7 (978432)
I0403 21:35:48.233268 12185 net.cpp:156] Memory required for data: 1325241888
I0403 21:35:48.233286 12185 layer_factory.hpp:77] Creating layer inception_5b/1x1
I0403 21:35:48.233314 12185 net.cpp:91] Creating Layer inception_5b/1x1
I0403 21:35:48.233336 12185 net.cpp:425] inception_5b/1x1 <- inception_5a/output_inception_5a/output_0_split_0
I0403 21:35:48.233363 12185 net.cpp:399] inception_5b/1x1 -> inception_5b/1x1
I0403 21:35:48.238029 12185 net.cpp:141] Setting up inception_5b/1x1
I0403 21:35:48.238068 12185 net.cpp:148] Top shape: 24 384 7 7 (451584)
I0403 21:35:48.238090 12185 net.cpp:156] Memory required for data: 1327048224
I0403 21:35:48.238113 12185 layer_factory.hpp:77] Creating layer inception_5b/relu_1x1
I0403 21:35:48.238136 12185 net.cpp:91] Creating Layer inception_5b/relu_1x1
I0403 21:35:48.238157 12185 net.cpp:425] inception_5b/relu_1x1 <- inception_5b/1x1
I0403 21:35:48.238181 12185 net.cpp:386] inception_5b/relu_1x1 -> inception_5b/1x1 (in-place)
I0403 21:35:48.238559 12185 net.cpp:141] Setting up inception_5b/relu_1x1
I0403 21:35:48.238595 12185 net.cpp:148] Top shape: 24 384 7 7 (451584)
I0403 21:35:48.238616 12185 net.cpp:156] Memory required for data: 1328854560
I0403 21:35:48.238634 12185 layer_factory.hpp:77] Creating layer inception_5b/3x3_reduce
I0403 21:35:48.238663 12185 net.cpp:91] Creating Layer inception_5b/3x3_reduce
I0403 21:35:48.238687 12185 net.cpp:425] inception_5b/3x3_reduce <- inception_5a/output_inception_5a/output_0_split_1
I0403 21:35:48.238714 12185 net.cpp:399] inception_5b/3x3_reduce -> inception_5b/3x3_reduce
I0403 21:35:48.242020 12185 net.cpp:141] Setting up inception_5b/3x3_reduce
I0403 21:35:48.242059 12185 net.cpp:148] Top shape: 24 192 7 7 (225792)
I0403 21:35:48.242080 12185 net.cpp:156] Memory required for data: 1329757728
I0403 21:35:48.242105 12185 layer_factory.hpp:77] Creating layer inception_5b/relu_3x3_reduce
I0403 21:35:48.242128 12185 net.cpp:91] Creating Layer inception_5b/relu_3x3_reduce
I0403 21:35:48.242149 12185 net.cpp:425] inception_5b/relu_3x3_reduce <- inception_5b/3x3_reduce
I0403 21:35:48.242174 12185 net.cpp:386] inception_5b/relu_3x3_reduce -> inception_5b/3x3_reduce (in-place)
I0403 21:35:48.242429 12185 net.cpp:141] Setting up inception_5b/relu_3x3_reduce
I0403 21:35:48.242461 12185 net.cpp:148] Top shape: 24 192 7 7 (225792)
I0403 21:35:48.242480 12185 net.cpp:156] Memory required for data: 1330660896
I0403 21:35:48.242498 12185 layer_factory.hpp:77] Creating layer inception_5b/3x3
I0403 21:35:48.242527 12185 net.cpp:91] Creating Layer inception_5b/3x3
I0403 21:35:48.242549 12185 net.cpp:425] inception_5b/3x3 <- inception_5b/3x3_reduce
I0403 21:35:48.242579 12185 net.cpp:399] inception_5b/3x3 -> inception_5b/3x3
I0403 21:35:48.251022 12185 net.cpp:141] Setting up inception_5b/3x3
I0403 21:35:48.251058 12185 net.cpp:148] Top shape: 24 384 7 7 (451584)
I0403 21:35:48.251078 12185 net.cpp:156] Memory required for data: 1332467232
I0403 21:35:48.251102 12185 layer_factory.hpp:77] Creating layer inception_5b/relu_3x3
I0403 21:35:48.251124 12185 net.cpp:91] Creating Layer inception_5b/relu_3x3
I0403 21:35:48.251144 12185 net.cpp:425] inception_5b/relu_3x3 <- inception_5b/3x3
I0403 21:35:48.251169 12185 net.cpp:386] inception_5b/relu_3x3 -> inception_5b/3x3 (in-place)
I0403 21:35:48.251543 12185 net.cpp:141] Setting up inception_5b/relu_3x3
I0403 21:35:48.251576 12185 net.cpp:148] Top shape: 24 384 7 7 (451584)
I0403 21:35:48.251595 12185 net.cpp:156] Memory required for data: 1334273568
I0403 21:35:48.251615 12185 layer_factory.hpp:77] Creating layer inception_5b/5x5_reduce
I0403 21:35:48.251662 12185 net.cpp:91] Creating Layer inception_5b/5x5_reduce
I0403 21:35:48.251684 12185 net.cpp:425] inception_5b/5x5_reduce <- inception_5a/output_inception_5a/output_0_split_2
I0403 21:35:48.251719 12185 net.cpp:399] inception_5b/5x5_reduce -> inception_5b/5x5_reduce
I0403 21:35:48.253325 12185 net.cpp:141] Setting up inception_5b/5x5_reduce
I0403 21:35:48.253361 12185 net.cpp:148] Top shape: 24 48 7 7 (56448)
I0403 21:35:48.253381 12185 net.cpp:156] Memory required for data: 1334499360
I0403 21:35:48.253404 12185 layer_factory.hpp:77] Creating layer inception_5b/relu_5x5_reduce
I0403 21:35:48.253427 12185 net.cpp:91] Creating Layer inception_5b/relu_5x5_reduce
I0403 21:35:48.253448 12185 net.cpp:425] inception_5b/relu_5x5_reduce <- inception_5b/5x5_reduce
I0403 21:35:48.253473 12185 net.cpp:386] inception_5b/relu_5x5_reduce -> inception_5b/5x5_reduce (in-place)
I0403 21:35:48.253942 12185 net.cpp:141] Setting up inception_5b/relu_5x5_reduce
I0403 21:35:48.253974 12185 net.cpp:148] Top shape: 24 48 7 7 (56448)
I0403 21:35:48.253994 12185 net.cpp:156] Memory required for data: 1334725152
I0403 21:35:48.254014 12185 layer_factory.hpp:77] Creating layer inception_5b/5x5
I0403 21:35:48.254037 12185 net.cpp:91] Creating Layer inception_5b/5x5
I0403 21:35:48.254060 12185 net.cpp:425] inception_5b/5x5 <- inception_5b/5x5_reduce
I0403 21:35:48.254083 12185 net.cpp:399] inception_5b/5x5 -> inception_5b/5x5
I0403 21:35:48.256644 12185 net.cpp:141] Setting up inception_5b/5x5
I0403 21:35:48.256678 12185 net.cpp:148] Top shape: 24 128 7 7 (150528)
I0403 21:35:48.256698 12185 net.cpp:156] Memory required for data: 1335327264
I0403 21:35:48.256721 12185 layer_factory.hpp:77] Creating layer inception_5b/relu_5x5
I0403 21:35:48.256747 12185 net.cpp:91] Creating Layer inception_5b/relu_5x5
I0403 21:35:48.256767 12185 net.cpp:425] inception_5b/relu_5x5 <- inception_5b/5x5
I0403 21:35:48.256790 12185 net.cpp:386] inception_5b/relu_5x5 -> inception_5b/5x5 (in-place)
I0403 21:35:48.257033 12185 net.cpp:141] Setting up inception_5b/relu_5x5
I0403 21:35:48.257064 12185 net.cpp:148] Top shape: 24 128 7 7 (150528)
I0403 21:35:48.257083 12185 net.cpp:156] Memory required for data: 1335929376
I0403 21:35:48.257102 12185 layer_factory.hpp:77] Creating layer inception_5b/pool
I0403 21:35:48.257128 12185 net.cpp:91] Creating Layer inception_5b/pool
I0403 21:35:48.257151 12185 net.cpp:425] inception_5b/pool <- inception_5a/output_inception_5a/output_0_split_3
I0403 21:35:48.257174 12185 net.cpp:399] inception_5b/pool -> inception_5b/pool
I0403 21:35:48.257272 12185 net.cpp:141] Setting up inception_5b/pool
I0403 21:35:48.257302 12185 net.cpp:148] Top shape: 24 832 7 7 (978432)
I0403 21:35:48.257320 12185 net.cpp:156] Memory required for data: 1339843104
I0403 21:35:48.257339 12185 layer_factory.hpp:77] Creating layer inception_5b/pool_proj
I0403 21:35:48.257367 12185 net.cpp:91] Creating Layer inception_5b/pool_proj
I0403 21:35:48.257390 12185 net.cpp:425] inception_5b/pool_proj <- inception_5b/pool
I0403 21:35:48.257416 12185 net.cpp:399] inception_5b/pool_proj -> inception_5b/pool_proj
I0403 21:35:48.260293 12185 net.cpp:141] Setting up inception_5b/pool_proj
I0403 21:35:48.260329 12185 net.cpp:148] Top shape: 24 128 7 7 (150528)
I0403 21:35:48.260349 12185 net.cpp:156] Memory required for data: 1340445216
I0403 21:35:48.260372 12185 layer_factory.hpp:77] Creating layer inception_5b/relu_pool_proj
I0403 21:35:48.260396 12185 net.cpp:91] Creating Layer inception_5b/relu_pool_proj
I0403 21:35:48.260416 12185 net.cpp:425] inception_5b/relu_pool_proj <- inception_5b/pool_proj
I0403 21:35:48.260439 12185 net.cpp:386] inception_5b/relu_pool_proj -> inception_5b/pool_proj (in-place)
I0403 21:35:48.260812 12185 net.cpp:141] Setting up inception_5b/relu_pool_proj
I0403 21:35:48.260846 12185 net.cpp:148] Top shape: 24 128 7 7 (150528)
I0403 21:35:48.260865 12185 net.cpp:156] Memory required for data: 1341047328
I0403 21:35:48.260885 12185 layer_factory.hpp:77] Creating layer inception_5b/output
I0403 21:35:48.260907 12185 net.cpp:91] Creating Layer inception_5b/output
I0403 21:35:48.260944 12185 net.cpp:425] inception_5b/output <- inception_5b/1x1
I0403 21:35:48.260967 12185 net.cpp:425] inception_5b/output <- inception_5b/3x3
I0403 21:35:48.260988 12185 net.cpp:425] inception_5b/output <- inception_5b/5x5
I0403 21:35:48.261008 12185 net.cpp:425] inception_5b/output <- inception_5b/pool_proj
I0403 21:35:48.261034 12185 net.cpp:399] inception_5b/output -> inception_5b/output
I0403 21:35:48.261097 12185 net.cpp:141] Setting up inception_5b/output
I0403 21:35:48.261131 12185 net.cpp:148] Top shape: 24 1024 7 7 (1204224)
I0403 21:35:48.261148 12185 net.cpp:156] Memory required for data: 1345864224
I0403 21:35:48.261167 12185 layer_factory.hpp:77] Creating layer pool5/7x7_s1
I0403 21:35:48.261189 12185 net.cpp:91] Creating Layer pool5/7x7_s1
I0403 21:35:48.261214 12185 net.cpp:425] pool5/7x7_s1 <- inception_5b/output
I0403 21:35:48.261240 12185 net.cpp:399] pool5/7x7_s1 -> pool5/7x7_s1
I0403 21:35:48.261514 12185 net.cpp:141] Setting up pool5/7x7_s1
I0403 21:35:48.261545 12185 net.cpp:148] Top shape: 24 1024 1 1 (24576)
I0403 21:35:48.261564 12185 net.cpp:156] Memory required for data: 1345962528
I0403 21:35:48.261582 12185 layer_factory.hpp:77] Creating layer pool5/drop_7x7_s1
I0403 21:35:48.261605 12185 net.cpp:91] Creating Layer pool5/drop_7x7_s1
I0403 21:35:48.261626 12185 net.cpp:425] pool5/drop_7x7_s1 <- pool5/7x7_s1
I0403 21:35:48.261651 12185 net.cpp:386] pool5/drop_7x7_s1 -> pool5/7x7_s1 (in-place)
I0403 21:35:48.261713 12185 net.cpp:141] Setting up pool5/drop_7x7_s1
I0403 21:35:48.261744 12185 net.cpp:148] Top shape: 24 1024 1 1 (24576)
I0403 21:35:48.261764 12185 net.cpp:156] Memory required for data: 1346060832
I0403 21:35:48.261782 12185 layer_factory.hpp:77] Creating layer loss3/classifier_plantvillage
I0403 21:35:48.261806 12185 net.cpp:91] Creating Layer loss3/classifier_plantvillage
I0403 21:35:48.261827 12185 net.cpp:425] loss3/classifier_plantvillage <- pool5/7x7_s1
I0403 21:35:48.261853 12185 net.cpp:399] loss3/classifier_plantvillage -> loss3/classifier_plantvillage
I0403 21:35:48.262398 12185 net.cpp:141] Setting up loss3/classifier_plantvillage
I0403 21:35:48.262429 12185 net.cpp:148] Top shape: 24 38 (912)
I0403 21:35:48.262447 12185 net.cpp:156] Memory required for data: 1346064480
I0403 21:35:48.262471 12185 layer_factory.hpp:77] Creating layer loss3/classifier_plantvillage_loss3/classifier_plantvillage_0_split
I0403 21:35:48.262500 12185 net.cpp:91] Creating Layer loss3/classifier_plantvillage_loss3/classifier_plantvillage_0_split
I0403 21:35:48.262521 12185 net.cpp:425] loss3/classifier_plantvillage_loss3/classifier_plantvillage_0_split <- loss3/classifier_plantvillage
I0403 21:35:48.262542 12185 net.cpp:399] loss3/classifier_plantvillage_loss3/classifier_plantvillage_0_split -> loss3/classifier_plantvillage_loss3/classifier_plantvillage_0_split_0
I0403 21:35:48.262573 12185 net.cpp:399] loss3/classifier_plantvillage_loss3/classifier_plantvillage_0_split -> loss3/classifier_plantvillage_loss3/classifier_plantvillage_0_split_1
I0403 21:35:48.262598 12185 net.cpp:399] loss3/classifier_plantvillage_loss3/classifier_plantvillage_0_split -> loss3/classifier_plantvillage_loss3/classifier_plantvillage_0_split_2
I0403 21:35:48.262622 12185 net.cpp:399] loss3/classifier_plantvillage_loss3/classifier_plantvillage_0_split -> loss3/classifier_plantvillage_loss3/classifier_plantvillage_0_split_3
I0403 21:35:48.262751 12185 net.cpp:141] Setting up loss3/classifier_plantvillage_loss3/classifier_plantvillage_0_split
I0403 21:35:48.262780 12185 net.cpp:148] Top shape: 24 38 (912)
I0403 21:35:48.262800 12185 net.cpp:148] Top shape: 24 38 (912)
I0403 21:35:48.262820 12185 net.cpp:148] Top shape: 24 38 (912)
I0403 21:35:48.262838 12185 net.cpp:148] Top shape: 24 38 (912)
I0403 21:35:48.262856 12185 net.cpp:156] Memory required for data: 1346079072
I0403 21:35:48.262874 12185 layer_factory.hpp:77] Creating layer loss1/loss
I0403 21:35:48.262902 12185 net.cpp:91] Creating Layer loss1/loss
I0403 21:35:48.262923 12185 net.cpp:425] loss1/loss <- loss1/classifier_plantvillage_loss1/classifier_plantvillage_0_split_0
I0403 21:35:48.262960 12185 net.cpp:425] loss1/loss <- label_data_1_split_0
…
