…
I0403 13:00:24.261363 10026 net.cpp:313] The NetState phase (1) differed from the phase (0) specified by a rule in layer data
I0403 13:00:24.261679 10026 net.cpp:49] Initializing net from parameters: 
state {
  phase: TEST
}
layer {
  name: "data"
  type: "Data"
  top: "data"
  top: "label"
  include {
    phase: TEST
  }
  transform_param {
    crop_size: 227
    mean_file: "/home/mohanty/data/final_dataset/lmdb/grayscale-50-50/mean.binaryproto"
  }
  data_param {
    source: "/home/mohanty/data/final_dataset/lmdb/grayscale-50-50/test_db"
    batch_size: 100
    backend: LMDB
  }
}
layer {
  name: "conv1"
  type: "Convolution"
  bottom: "data"
  top: "conv1"
  param {
    lr_mult: 1
    decay_mult: 1
  }
  param {
    lr_mult: 2
    decay_mult: 0
  }
  convolution_param {
    num_output: 96
    kernel_size: 11
    stride: 4
    weight_filler {
      type: "gaussian"
      std: 0.01
    }
    bias_filler {
      type: "constant"
      value: 0
    }
  }
}
layer {
  name: "relu1"
  type: "ReLU"
  bottom: "conv1"
  top: "conv1"
}
layer {
  name: "norm1"
  type: "LRN"
  bottom: "conv1"
  top: "norm1"
  lrn_param {
    local_size: 5
    alpha: 0.0001
    beta: 0.75
  }
}
layer {
  name: "pool1"
  type: "Pooling"
  bottom: "norm1"
  top: "pool1"
  pooling_param {
    pool: MAX
    kernel_size: 3
    stride: 2
  }
}
layer {
  name: "conv2"
  type: "Convolution"
  bottom: "pool1"
  top: "conv2"
  param {
    lr_mult: 1
    decay_mult: 1
  }
  param {
    lr_mult: 2
    decay_mult: 0
  }
  convolution_param {
    num_output: 256
    pad: 2
    kernel_size: 5
    group: 2
    weight_filler {
      type: "gaussian"
      std: 0.01
    }
    bias_filler {
      type: "constant"
      value: 0.1
    }
  }
}
layer {
  name: "relu2"
  type: "ReLU"
  bottom: "conv2"
  top: "conv2"
}
layer {
  name: "norm2"
  type: "LRN"
  bottom: "conv2"
  top: "norm2"
  lrn_param {
    local_size: 5
    alpha: 0.0001
    beta: 0.75
  }
}
layer {
  name: "pool2"
  type: "Pooling"
  bottom: "norm2"
  top: "pool2"
  pooling_param {
    pool: MAX
    kernel_size: 3
    stride: 2
  }
}
layer {
  name: "conv3"
  type: "Convolution"
  bottom: "pool2"
  top: "conv3"
  param {
    lr_mult: 1
    decay_mult: 1
  }
  param {
    lr_mult: 2
    decay_mult: 0
  }
  convolution_param {
    num_output: 384
    pad: 1
    kernel_size: 3
    weight_filler {
      type: "gaussian"
      std: 0.01
    }
    bias_filler {
      type: "constant"
      value: 0
    }
  }
}
layer {
  name: "relu3"
  type: "ReLU"
  bottom: "conv3"
  top: "conv3"
}
layer {
  name: "conv4"
  type: "Convolution"
  bottom: "conv3"
  top: "conv4"
  param {
    lr_mult: 1
    decay_mult: 1
  }
  param {
    lr_mult: 2
    decay_mult: 0
  }
  convolution_param {
    num_output: 384
    pad: 1
    kernel_size: 3
    group: 2
    weight_filler {
      type: "gaussian"
      std: 0.01
    }
    bias_filler {
      type: "constant"
      value: 0.1
    }
  }
}
layer {
  name: "relu4"
  type: "ReLU"
  bottom: "conv4"
  top: "conv4"
}
layer {
  name: "conv5"
  type: "Convolution"
  bottom: "conv4"
  top: "conv5"
  param {
    lr_mult: 1
    decay_mult: 1
  }
  param {
    lr_mult: 2
    decay_mult: 0
  }
  convolution_param {
    num_output: 256
    pad: 1
    kernel_size: 3
    group: 2
    weight_filler {
      type: "gaussian"
      std: 0.01
    }
    bias_filler {
      type: "constant"
      value: 0.1
    }
  }
}
layer {
  name: "relu5"
  type: "ReLU"
  bottom: "conv5"
  top: "conv5"
}
layer {
  name: "pool5"
  type: "Pooling"
  bottom: "conv5"
  top: "pool5"
  pooling_param {
    pool: MAX
    kernel_size: 3
    stride: 2
  }
}
layer {
  name: "fc6"
  type: "InnerProduct"
  bottom: "pool5"
  top: "fc6"
  param {
    lr_mult: 1
    decay_mult: 1
  }
  param {
    lr_mult: 2
    decay_mult: 0
  }
  inner_product_param {
    num_output: 4096
    weight_filler {
      type: "gaussian"
      std: 0.005
    }
    bias_filler {
      type: "constant"
      value: 0.1
    }
  }
}
layer {
  name: "relu6"
  type: "ReLU"
  bottom: "fc6"
  top: "fc6"
}
layer {
  name: "drop6"
  type: "Dropout"
  bottom: "fc6"
  top: "fc6"
  dropout_param {
    dropout_ratio: 0.5
  }
}
layer {
  name: "fc7"
  type: "InnerProduct"
  bottom: "fc6"
  top: "fc7"
  param {
    lr_mult: 1
    decay_mult: 1
  }
  param {
    lr_mult: 2
    decay_mult: 0
  }
  inner_product_param {
    num_output: 4096
    weight_filler {
      type: "gaussian"
      std: 0.005
    }
    bias_filler {
      type: "constant"
      value: 0.1
    }
  }
}
layer {
  name: "relu7"
  type: "ReLU"
  bottom: "fc7"
  top: "fc7"
}
layer {
  name: "drop7"
  type: "Dropout"
  bottom: "fc7"
  top: "fc7"
  dropout_param {
    dropout_ratio: 0.5
  }
}
layer {
  name: "fc8_plantvillage"
  type: "InnerProduct"
  bottom: "fc7"
  top: "fc8_plantvillage"
  param {
    lr_mult: 1
    decay_mult: 1
  }
  param {
    lr_mult: 2
    decay_mult: 0
  }
  inner_product_param {
    num_output: 38
    weight_filler {
      type: "gaussian"
      std: 0.01
    }
    bias_filler {
      type: "constant"
      value: 0
    }
  }
}
layer {
  name: "prob"
  type: "Softmax"
  bottom: "fc8_plantvillage"
  top: "prob"
  include {
    phase: TEST
  }
}
layer {
  name: "hdf5out"
  type: "HDF5Output"
  bottom: "prob"
  bottom: "label"
  include {
    phase: TEST
  }
  hdf5_output_param {
    file_name: "hdf5_dumps/iter_3738.h5"
  }
}
layer {
  name: "loss"
  type: "SoftmaxWithLoss"
  bottom: "fc8_plantvillage"
  bottom: "label"
  top: "loss"
}
layer {
  name: "accuracy"
  type: "Accuracy"
  bottom: "fc8_plantvillage"
  bottom: "label"
  top: "accuracy"
  include {
    phase: TEST
  }
}
I0403 13:00:24.262284 10026 layer_factory.hpp:77] Creating layer data
I0403 13:00:24.262940 10026 net.cpp:91] Creating Layer data
I0403 13:00:24.262974 10026 net.cpp:399] data -> data
I0403 13:00:24.263023 10026 net.cpp:399] data -> label
I0403 13:00:24.263059 10026 data_transformer.cpp:25] Loading mean file from: /home/mohanty/data/final_dataset/lmdb/grayscale-50-50/mean.binaryproto
I0403 13:00:24.264185 10029 db_lmdb.cpp:38] Opened lmdb /home/mohanty/data/final_dataset/lmdb/grayscale-50-50/test_db
I0403 13:00:24.277290 10026 data_layer.cpp:41] output data size: 100,3,227,227
I0403 13:00:24.394533 10026 net.cpp:141] Setting up data
I0403 13:00:24.394601 10026 net.cpp:148] Top shape: 100 3 227 227 (15458700)
I0403 13:00:24.394623 10026 net.cpp:148] Top shape: 100 (100)
I0403 13:00:24.394637 10026 net.cpp:156] Memory required for data: 61835200
I0403 13:00:24.394665 10026 layer_factory.hpp:77] Creating layer label_data_1_split
I0403 13:00:24.394690 10026 net.cpp:91] Creating Layer label_data_1_split
I0403 13:00:24.394706 10026 net.cpp:425] label_data_1_split <- label
I0403 13:00:24.394738 10026 net.cpp:399] label_data_1_split -> label_data_1_split_0
I0403 13:00:24.394764 10026 net.cpp:399] label_data_1_split -> label_data_1_split_1
I0403 13:00:24.394785 10026 net.cpp:399] label_data_1_split -> label_data_1_split_2
I0403 13:00:24.394846 10026 net.cpp:141] Setting up label_data_1_split
I0403 13:00:24.394868 10026 net.cpp:148] Top shape: 100 (100)
I0403 13:00:24.394886 10026 net.cpp:148] Top shape: 100 (100)
I0403 13:00:24.394901 10026 net.cpp:148] Top shape: 100 (100)
I0403 13:00:24.394913 10026 net.cpp:156] Memory required for data: 61836400
I0403 13:00:24.394927 10026 layer_factory.hpp:77] Creating layer conv1
I0403 13:00:24.394958 10026 net.cpp:91] Creating Layer conv1
I0403 13:00:24.394976 10026 net.cpp:425] conv1 <- data
I0403 13:00:24.394995 10026 net.cpp:399] conv1 -> conv1
I0403 13:00:24.532141 10026 net.cpp:141] Setting up conv1
I0403 13:00:24.532198 10026 net.cpp:148] Top shape: 100 96 55 55 (29040000)
I0403 13:00:24.532215 10026 net.cpp:156] Memory required for data: 177996400
I0403 13:00:24.532248 10026 layer_factory.hpp:77] Creating layer relu1
I0403 13:00:24.532276 10026 net.cpp:91] Creating Layer relu1
I0403 13:00:24.532296 10026 net.cpp:425] relu1 <- conv1
I0403 13:00:24.532315 10026 net.cpp:386] relu1 -> conv1 (in-place)
I0403 13:00:24.532596 10026 net.cpp:141] Setting up relu1
I0403 13:00:24.532624 10026 net.cpp:148] Top shape: 100 96 55 55 (29040000)
I0403 13:00:24.532678 10026 net.cpp:156] Memory required for data: 294156400
I0403 13:00:24.532696 10026 layer_factory.hpp:77] Creating layer norm1
I0403 13:00:24.532724 10026 net.cpp:91] Creating Layer norm1
I0403 13:00:24.532743 10026 net.cpp:425] norm1 <- conv1
I0403 13:00:24.532762 10026 net.cpp:399] norm1 -> norm1
I0403 13:00:24.533083 10026 net.cpp:141] Setting up norm1
I0403 13:00:24.533113 10026 net.cpp:148] Top shape: 100 96 55 55 (29040000)
I0403 13:00:24.533128 10026 net.cpp:156] Memory required for data: 410316400
I0403 13:00:24.533144 10026 layer_factory.hpp:77] Creating layer pool1
I0403 13:00:24.533169 10026 net.cpp:91] Creating Layer pool1
I0403 13:00:24.533186 10026 net.cpp:425] pool1 <- norm1
I0403 13:00:24.533205 10026 net.cpp:399] pool1 -> pool1
I0403 13:00:24.533272 10026 net.cpp:141] Setting up pool1
I0403 13:00:24.533298 10026 net.cpp:148] Top shape: 100 96 27 27 (6998400)
I0403 13:00:24.533314 10026 net.cpp:156] Memory required for data: 438310000
I0403 13:00:24.533329 10026 layer_factory.hpp:77] Creating layer conv2
I0403 13:00:24.533355 10026 net.cpp:91] Creating Layer conv2
I0403 13:00:24.533372 10026 net.cpp:425] conv2 <- pool1
I0403 13:00:24.533390 10026 net.cpp:399] conv2 -> conv2
I0403 13:00:24.548576 10026 net.cpp:141] Setting up conv2
I0403 13:00:24.548643 10026 net.cpp:148] Top shape: 100 256 27 27 (18662400)
I0403 13:00:24.548660 10026 net.cpp:156] Memory required for data: 512959600
I0403 13:00:24.548684 10026 layer_factory.hpp:77] Creating layer relu2
I0403 13:00:24.548705 10026 net.cpp:91] Creating Layer relu2
I0403 13:00:24.548723 10026 net.cpp:425] relu2 <- conv2
I0403 13:00:24.548741 10026 net.cpp:386] relu2 -> conv2 (in-place)
I0403 13:00:24.549026 10026 net.cpp:141] Setting up relu2
I0403 13:00:24.549054 10026 net.cpp:148] Top shape: 100 256 27 27 (18662400)
I0403 13:00:24.549070 10026 net.cpp:156] Memory required for data: 587609200
I0403 13:00:24.549085 10026 layer_factory.hpp:77] Creating layer norm2
I0403 13:00:24.549106 10026 net.cpp:91] Creating Layer norm2
I0403 13:00:24.549124 10026 net.cpp:425] norm2 <- conv2
I0403 13:00:24.549141 10026 net.cpp:399] norm2 -> norm2
I0403 13:00:24.549327 10026 net.cpp:141] Setting up norm2
I0403 13:00:24.549355 10026 net.cpp:148] Top shape: 100 256 27 27 (18662400)
I0403 13:00:24.549371 10026 net.cpp:156] Memory required for data: 662258800
I0403 13:00:24.549386 10026 layer_factory.hpp:77] Creating layer pool2
I0403 13:00:24.549403 10026 net.cpp:91] Creating Layer pool2
I0403 13:00:24.549419 10026 net.cpp:425] pool2 <- norm2
I0403 13:00:24.549437 10026 net.cpp:399] pool2 -> pool2
I0403 13:00:24.549485 10026 net.cpp:141] Setting up pool2
I0403 13:00:24.549512 10026 net.cpp:148] Top shape: 100 256 13 13 (4326400)
I0403 13:00:24.549528 10026 net.cpp:156] Memory required for data: 679564400
I0403 13:00:24.549543 10026 layer_factory.hpp:77] Creating layer conv3
I0403 13:00:24.549566 10026 net.cpp:91] Creating Layer conv3
I0403 13:00:24.549582 10026 net.cpp:425] conv3 <- pool2
I0403 13:00:24.549600 10026 net.cpp:399] conv3 -> conv3
I0403 13:00:24.593416 10026 net.cpp:141] Setting up conv3
I0403 13:00:24.593500 10026 net.cpp:148] Top shape: 100 384 13 13 (6489600)
I0403 13:00:24.593523 10026 net.cpp:156] Memory required for data: 705522800
I0403 13:00:24.593564 10026 layer_factory.hpp:77] Creating layer relu3
I0403 13:00:24.593588 10026 net.cpp:91] Creating Layer relu3
I0403 13:00:24.593607 10026 net.cpp:425] relu3 <- conv3
I0403 13:00:24.593629 10026 net.cpp:386] relu3 -> conv3 (in-place)
I0403 13:00:24.593924 10026 net.cpp:141] Setting up relu3
I0403 13:00:24.593951 10026 net.cpp:148] Top shape: 100 384 13 13 (6489600)
I0403 13:00:24.593968 10026 net.cpp:156] Memory required for data: 731481200
I0403 13:00:24.593983 10026 layer_factory.hpp:77] Creating layer conv4
I0403 13:00:24.594010 10026 net.cpp:91] Creating Layer conv4
I0403 13:00:24.594028 10026 net.cpp:425] conv4 <- conv3
I0403 13:00:24.594050 10026 net.cpp:399] conv4 -> conv4
I0403 13:00:24.624439 10026 net.cpp:141] Setting up conv4
I0403 13:00:24.624522 10026 net.cpp:148] Top shape: 100 384 13 13 (6489600)
I0403 13:00:24.624574 10026 net.cpp:156] Memory required for data: 757439600
I0403 13:00:24.624598 10026 layer_factory.hpp:77] Creating layer relu4
I0403 13:00:24.624620 10026 net.cpp:91] Creating Layer relu4
I0403 13:00:24.624639 10026 net.cpp:425] relu4 <- conv4
I0403 13:00:24.624660 10026 net.cpp:386] relu4 -> conv4 (in-place)
I0403 13:00:24.624956 10026 net.cpp:141] Setting up relu4
I0403 13:00:24.624985 10026 net.cpp:148] Top shape: 100 384 13 13 (6489600)
I0403 13:00:24.625001 10026 net.cpp:156] Memory required for data: 783398000
I0403 13:00:24.625016 10026 layer_factory.hpp:77] Creating layer conv5
I0403 13:00:24.625043 10026 net.cpp:91] Creating Layer conv5
I0403 13:00:24.625061 10026 net.cpp:425] conv5 <- conv4
I0403 13:00:24.625079 10026 net.cpp:399] conv5 -> conv5
I0403 13:00:24.645586 10026 net.cpp:141] Setting up conv5
I0403 13:00:24.645642 10026 net.cpp:148] Top shape: 100 256 13 13 (4326400)
I0403 13:00:24.645658 10026 net.cpp:156] Memory required for data: 800703600
I0403 13:00:24.645683 10026 layer_factory.hpp:77] Creating layer relu5
I0403 13:00:24.645704 10026 net.cpp:91] Creating Layer relu5
I0403 13:00:24.645721 10026 net.cpp:425] relu5 <- conv5
I0403 13:00:24.645743 10026 net.cpp:386] relu5 -> conv5 (in-place)
I0403 13:00:24.646028 10026 net.cpp:141] Setting up relu5
I0403 13:00:24.646056 10026 net.cpp:148] Top shape: 100 256 13 13 (4326400)
I0403 13:00:24.646071 10026 net.cpp:156] Memory required for data: 818009200
I0403 13:00:24.646086 10026 layer_factory.hpp:77] Creating layer pool5
I0403 13:00:24.646112 10026 net.cpp:91] Creating Layer pool5
I0403 13:00:24.646131 10026 net.cpp:425] pool5 <- conv5
I0403 13:00:24.646148 10026 net.cpp:399] pool5 -> pool5
I0403 13:00:24.646210 10026 net.cpp:141] Setting up pool5
I0403 13:00:24.646234 10026 net.cpp:148] Top shape: 100 256 6 6 (921600)
I0403 13:00:24.646250 10026 net.cpp:156] Memory required for data: 821695600
I0403 13:00:24.646267 10026 layer_factory.hpp:77] Creating layer fc6
I0403 13:00:24.646294 10026 net.cpp:91] Creating Layer fc6
I0403 13:00:24.646312 10026 net.cpp:425] fc6 <- pool5
I0403 13:00:24.646334 10026 net.cpp:399] fc6 -> fc6
I0403 13:00:26.210386 10026 net.cpp:141] Setting up fc6
I0403 13:00:26.210464 10026 net.cpp:148] Top shape: 100 4096 (409600)
I0403 13:00:26.210479 10026 net.cpp:156] Memory required for data: 823334000
I0403 13:00:26.210500 10026 layer_factory.hpp:77] Creating layer relu6
I0403 13:00:26.210530 10026 net.cpp:91] Creating Layer relu6
I0403 13:00:26.210551 10026 net.cpp:425] relu6 <- fc6
I0403 13:00:26.210569 10026 net.cpp:386] relu6 -> fc6 (in-place)
I0403 13:00:26.210788 10026 net.cpp:141] Setting up relu6
I0403 13:00:26.210813 10026 net.cpp:148] Top shape: 100 4096 (409600)
I0403 13:00:26.210827 10026 net.cpp:156] Memory required for data: 824972400
I0403 13:00:26.210841 10026 layer_factory.hpp:77] Creating layer drop6
I0403 13:00:26.210860 10026 net.cpp:91] Creating Layer drop6
I0403 13:00:26.210875 10026 net.cpp:425] drop6 <- fc6
I0403 13:00:26.210894 10026 net.cpp:386] drop6 -> fc6 (in-place)
I0403 13:00:26.210945 10026 net.cpp:141] Setting up drop6
I0403 13:00:26.210971 10026 net.cpp:148] Top shape: 100 4096 (409600)
I0403 13:00:26.210986 10026 net.cpp:156] Memory required for data: 826610800
I0403 13:00:26.211000 10026 layer_factory.hpp:77] Creating layer fc7
I0403 13:00:26.211019 10026 net.cpp:91] Creating Layer fc7
I0403 13:00:26.211035 10026 net.cpp:425] fc7 <- fc6
I0403 13:00:26.211055 10026 net.cpp:399] fc7 -> fc7
I0403 13:00:26.895959 10026 net.cpp:141] Setting up fc7
I0403 13:00:26.896039 10026 net.cpp:148] Top shape: 100 4096 (409600)
I0403 13:00:26.896055 10026 net.cpp:156] Memory required for data: 828249200
I0403 13:00:26.896076 10026 layer_factory.hpp:77] Creating layer relu7
I0403 13:00:26.896098 10026 net.cpp:91] Creating Layer relu7
I0403 13:00:26.896116 10026 net.cpp:425] relu7 <- fc7
I0403 13:00:26.896143 10026 net.cpp:386] relu7 -> fc7 (in-place)
I0403 13:00:26.896582 10026 net.cpp:141] Setting up relu7
I0403 13:00:26.896608 10026 net.cpp:148] Top shape: 100 4096 (409600)
I0403 13:00:26.896663 10026 net.cpp:156] Memory required for data: 829887600
I0403 13:00:26.896679 10026 layer_factory.hpp:77] Creating layer drop7
I0403 13:00:26.896699 10026 net.cpp:91] Creating Layer drop7
I0403 13:00:26.896714 10026 net.cpp:425] drop7 <- fc7
I0403 13:00:26.896733 10026 net.cpp:386] drop7 -> fc7 (in-place)
I0403 13:00:26.896777 10026 net.cpp:141] Setting up drop7
I0403 13:00:26.896798 10026 net.cpp:148] Top shape: 100 4096 (409600)
I0403 13:00:26.896813 10026 net.cpp:156] Memory required for data: 831526000
I0403 13:00:26.896826 10026 layer_factory.hpp:77] Creating layer fc8_plantvillage
I0403 13:00:26.896848 10026 net.cpp:91] Creating Layer fc8_plantvillage
I0403 13:00:26.896865 10026 net.cpp:425] fc8_plantvillage <- fc7
I0403 13:00:26.896884 10026 net.cpp:399] fc8_plantvillage -> fc8_plantvillage
I0403 13:00:26.903620 10026 net.cpp:141] Setting up fc8_plantvillage
I0403 13:00:26.903648 10026 net.cpp:148] Top shape: 100 38 (3800)
I0403 13:00:26.903663 10026 net.cpp:156] Memory required for data: 831541200
I0403 13:00:26.903681 10026 layer_factory.hpp:77] Creating layer fc8_plantvillage_fc8_plantvillage_0_split
I0403 13:00:26.903700 10026 net.cpp:91] Creating Layer fc8_plantvillage_fc8_plantvillage_0_split
I0403 13:00:26.903715 10026 net.cpp:425] fc8_plantvillage_fc8_plantvillage_0_split <- fc8_plantvillage
I0403 13:00:26.903734 10026 net.cpp:399] fc8_plantvillage_fc8_plantvillage_0_split -> fc8_plantvillage_fc8_plantvillage_0_split_0
I0403 13:00:26.903754 10026 net.cpp:399] fc8_plantvillage_fc8_plantvillage_0_split -> fc8_plantvillage_fc8_plantvillage_0_split_1
I0403 13:00:26.903774 10026 net.cpp:399] fc8_plantvillage_fc8_plantvillage_0_split -> fc8_plantvillage_fc8_plantvillage_0_split_2
I0403 13:00:26.903852 10026 net.cpp:141] Setting up fc8_plantvillage_fc8_plantvillage_0_split
I0403 13:00:26.903874 10026 net.cpp:148] Top shape: 100 38 (3800)
I0403 13:00:26.903890 10026 net.cpp:148] Top shape: 100 38 (3800)
I0403 13:00:26.903906 10026 net.cpp:148] Top shape: 100 38 (3800)
I0403 13:00:26.903919 10026 net.cpp:156] Memory required for data: 831586800
I0403 13:00:26.903934 10026 layer_factory.hpp:77] Creating layer prob
I0403 13:00:26.903950 10026 net.cpp:91] Creating Layer prob
I0403 13:00:26.903966 10026 net.cpp:425] prob <- fc8_plantvillage_fc8_plantvillage_0_split_0
I0403 13:00:26.903985 10026 net.cpp:399] prob -> prob
I0403 13:00:26.904209 10026 net.cpp:141] Setting up prob
I0403 13:00:26.904237 10026 net.cpp:148] Top shape: 100 38 (3800)
I0403 13:00:26.904253 10026 net.cpp:156] Memory required for data: 831602000
I0403 13:00:26.904268 10026 layer_factory.hpp:77] Creating layer hdf5out
I0403 13:00:26.904285 10026 net.cpp:91] Creating Layer hdf5out
I0403 13:00:26.904300 10026 net.cpp:425] hdf5out <- prob
I0403 13:00:26.904322 10026 net.cpp:425] hdf5out <- label_data_1_split_0
I0403 13:00:27.033728 10026 net.cpp:141] Setting up hdf5out
…
