…
I0403 13:01:21.363840 10059 net.cpp:313] The NetState phase (1) differed from the phase (0) specified by a rule in layer data
I0403 13:01:21.364138 10059 net.cpp:49] Initializing net from parameters: 
state {
  phase: TEST
}
layer {
  name: "data"
  type: "Data"
  top: "data"
  top: "label"
  include {
    phase: TEST
  }
  transform_param {
    crop_size: 227
    mean_file: "/home/mohanty/data/final_dataset/lmdb/grayscale-50-50/mean.binaryproto"
  }
  data_param {
    source: "/home/mohanty/data/final_dataset/lmdb/grayscale-50-50/test_db"
    batch_size: 100
    backend: LMDB
  }
}
layer {
  name: "conv1"
  type: "Convolution"
  bottom: "data"
  top: "conv1"
  param {
    lr_mult: 1
    decay_mult: 1
  }
  param {
    lr_mult: 2
    decay_mult: 0
  }
  convolution_param {
    num_output: 96
    kernel_size: 11
    stride: 4
    weight_filler {
      type: "gaussian"
      std: 0.01
    }
    bias_filler {
      type: "constant"
      value: 0
    }
  }
}
layer {
  name: "relu1"
  type: "ReLU"
  bottom: "conv1"
  top: "conv1"
}
layer {
  name: "norm1"
  type: "LRN"
  bottom: "conv1"
  top: "norm1"
  lrn_param {
    local_size: 5
    alpha: 0.0001
    beta: 0.75
  }
}
layer {
  name: "pool1"
  type: "Pooling"
  bottom: "norm1"
  top: "pool1"
  pooling_param {
    pool: MAX
    kernel_size: 3
    stride: 2
  }
}
layer {
  name: "conv2"
  type: "Convolution"
  bottom: "pool1"
  top: "conv2"
  param {
    lr_mult: 1
    decay_mult: 1
  }
  param {
    lr_mult: 2
    decay_mult: 0
  }
  convolution_param {
    num_output: 256
    pad: 2
    kernel_size: 5
    group: 2
    weight_filler {
      type: "gaussian"
      std: 0.01
    }
    bias_filler {
      type: "constant"
      value: 0.1
    }
  }
}
layer {
  name: "relu2"
  type: "ReLU"
  bottom: "conv2"
  top: "conv2"
}
layer {
  name: "norm2"
  type: "LRN"
  bottom: "conv2"
  top: "norm2"
  lrn_param {
    local_size: 5
    alpha: 0.0001
    beta: 0.75
  }
}
layer {
  name: "pool2"
  type: "Pooling"
  bottom: "norm2"
  top: "pool2"
  pooling_param {
    pool: MAX
    kernel_size: 3
    stride: 2
  }
}
layer {
  name: "conv3"
  type: "Convolution"
  bottom: "pool2"
  top: "conv3"
  param {
    lr_mult: 1
    decay_mult: 1
  }
  param {
    lr_mult: 2
    decay_mult: 0
  }
  convolution_param {
    num_output: 384
    pad: 1
    kernel_size: 3
    weight_filler {
      type: "gaussian"
      std: 0.01
    }
    bias_filler {
      type: "constant"
      value: 0
    }
  }
}
layer {
  name: "relu3"
  type: "ReLU"
  bottom: "conv3"
  top: "conv3"
}
layer {
  name: "conv4"
  type: "Convolution"
  bottom: "conv3"
  top: "conv4"
  param {
    lr_mult: 1
    decay_mult: 1
  }
  param {
    lr_mult: 2
    decay_mult: 0
  }
  convolution_param {
    num_output: 384
    pad: 1
    kernel_size: 3
    group: 2
    weight_filler {
      type: "gaussian"
      std: 0.01
    }
    bias_filler {
      type: "constant"
      value: 0.1
    }
  }
}
layer {
  name: "relu4"
  type: "ReLU"
  bottom: "conv4"
  top: "conv4"
}
layer {
  name: "conv5"
  type: "Convolution"
  bottom: "conv4"
  top: "conv5"
  param {
    lr_mult: 1
    decay_mult: 1
  }
  param {
    lr_mult: 2
    decay_mult: 0
  }
  convolution_param {
    num_output: 256
    pad: 1
    kernel_size: 3
    group: 2
    weight_filler {
      type: "gaussian"
      std: 0.01
    }
    bias_filler {
      type: "constant"
      value: 0.1
    }
  }
}
layer {
  name: "relu5"
  type: "ReLU"
  bottom: "conv5"
  top: "conv5"
}
layer {
  name: "pool5"
  type: "Pooling"
  bottom: "conv5"
  top: "pool5"
  pooling_param {
    pool: MAX
    kernel_size: 3
    stride: 2
  }
}
layer {
  name: "fc6"
  type: "InnerProduct"
  bottom: "pool5"
  top: "fc6"
  param {
    lr_mult: 1
    decay_mult: 1
  }
  param {
    lr_mult: 2
    decay_mult: 0
  }
  inner_product_param {
    num_output: 4096
    weight_filler {
      type: "gaussian"
      std: 0.005
    }
    bias_filler {
      type: "constant"
      value: 0.1
    }
  }
}
layer {
  name: "relu6"
  type: "ReLU"
  bottom: "fc6"
  top: "fc6"
}
layer {
  name: "drop6"
  type: "Dropout"
  bottom: "fc6"
  top: "fc6"
  dropout_param {
    dropout_ratio: 0.5
  }
}
layer {
  name: "fc7"
  type: "InnerProduct"
  bottom: "fc6"
  top: "fc7"
  param {
    lr_mult: 1
    decay_mult: 1
  }
  param {
    lr_mult: 2
    decay_mult: 0
  }
  inner_product_param {
    num_output: 4096
    weight_filler {
      type: "gaussian"
      std: 0.005
    }
    bias_filler {
      type: "constant"
      value: 0.1
    }
  }
}
layer {
  name: "relu7"
  type: "ReLU"
  bottom: "fc7"
  top: "fc7"
}
layer {
  name: "drop7"
  type: "Dropout"
  bottom: "fc7"
  top: "fc7"
  dropout_param {
    dropout_ratio: 0.5
  }
}
layer {
  name: "fc8_plantvillage"
  type: "InnerProduct"
  bottom: "fc7"
  top: "fc8_plantvillage"
  param {
    lr_mult: 1
    decay_mult: 1
  }
  param {
    lr_mult: 2
    decay_mult: 0
  }
  inner_product_param {
    num_output: 38
    weight_filler {
      type: "gaussian"
      std: 0.01
    }
    bias_filler {
      type: "constant"
      value: 0
    }
  }
}
layer {
  name: "prob"
  type: "Softmax"
  bottom: "fc8_plantvillage"
  top: "prob"
  include {
    phase: TEST
  }
}
layer {
  name: "hdf5out"
  type: "HDF5Output"
  bottom: "prob"
  bottom: "label"
  include {
    phase: TEST
  }
  hdf5_output_param {
    file_name: "hdf5_dumps/iter_4005.h5"
  }
}
layer {
  name: "loss"
  type: "SoftmaxWithLoss"
  bottom: "fc8_plantvillage"
  bottom: "label"
  top: "loss"
}
layer {
  name: "accuracy"
  type: "Accuracy"
  bottom: "fc8_plantvillage"
  bottom: "label"
  top: "accuracy"
  include {
    phase: TEST
  }
}
I0403 13:01:21.364786 10059 layer_factory.hpp:77] Creating layer data
I0403 13:01:21.365438 10059 net.cpp:91] Creating Layer data
I0403 13:01:21.365469 10059 net.cpp:399] data -> data
I0403 13:01:21.365521 10059 net.cpp:399] data -> label
I0403 13:01:21.365576 10059 data_transformer.cpp:25] Loading mean file from: /home/mohanty/data/final_dataset/lmdb/grayscale-50-50/mean.binaryproto
I0403 13:01:21.366746 10062 db_lmdb.cpp:38] Opened lmdb /home/mohanty/data/final_dataset/lmdb/grayscale-50-50/test_db
I0403 13:01:21.379832 10059 data_layer.cpp:41] output data size: 100,3,227,227
I0403 13:01:21.496459 10059 net.cpp:141] Setting up data
I0403 13:01:21.496522 10059 net.cpp:148] Top shape: 100 3 227 227 (15458700)
I0403 13:01:21.496551 10059 net.cpp:148] Top shape: 100 (100)
I0403 13:01:21.496567 10059 net.cpp:156] Memory required for data: 61835200
I0403 13:01:21.496598 10059 layer_factory.hpp:77] Creating layer label_data_1_split
I0403 13:01:21.496621 10059 net.cpp:91] Creating Layer label_data_1_split
I0403 13:01:21.496639 10059 net.cpp:425] label_data_1_split <- label
I0403 13:01:21.496671 10059 net.cpp:399] label_data_1_split -> label_data_1_split_0
I0403 13:01:21.496698 10059 net.cpp:399] label_data_1_split -> label_data_1_split_1
I0403 13:01:21.496717 10059 net.cpp:399] label_data_1_split -> label_data_1_split_2
I0403 13:01:21.496778 10059 net.cpp:141] Setting up label_data_1_split
I0403 13:01:21.496801 10059 net.cpp:148] Top shape: 100 (100)
I0403 13:01:21.496817 10059 net.cpp:148] Top shape: 100 (100)
I0403 13:01:21.496832 10059 net.cpp:148] Top shape: 100 (100)
I0403 13:01:21.496846 10059 net.cpp:156] Memory required for data: 61836400
I0403 13:01:21.496860 10059 layer_factory.hpp:77] Creating layer conv1
I0403 13:01:21.496891 10059 net.cpp:91] Creating Layer conv1
I0403 13:01:21.496908 10059 net.cpp:425] conv1 <- data
I0403 13:01:21.496927 10059 net.cpp:399] conv1 -> conv1
I0403 13:01:21.640445 10059 net.cpp:141] Setting up conv1
I0403 13:01:21.640488 10059 net.cpp:148] Top shape: 100 96 55 55 (29040000)
I0403 13:01:21.640506 10059 net.cpp:156] Memory required for data: 177996400
I0403 13:01:21.640540 10059 layer_factory.hpp:77] Creating layer relu1
I0403 13:01:21.640569 10059 net.cpp:91] Creating Layer relu1
I0403 13:01:21.640588 10059 net.cpp:425] relu1 <- conv1
I0403 13:01:21.640607 10059 net.cpp:386] relu1 -> conv1 (in-place)
I0403 13:01:21.640863 10059 net.cpp:141] Setting up relu1
I0403 13:01:21.640890 10059 net.cpp:148] Top shape: 100 96 55 55 (29040000)
I0403 13:01:21.640938 10059 net.cpp:156] Memory required for data: 294156400
I0403 13:01:21.640954 10059 layer_factory.hpp:77] Creating layer norm1
I0403 13:01:21.640981 10059 net.cpp:91] Creating Layer norm1
I0403 13:01:21.641000 10059 net.cpp:425] norm1 <- conv1
I0403 13:01:21.641017 10059 net.cpp:399] norm1 -> norm1
I0403 13:01:21.641324 10059 net.cpp:141] Setting up norm1
I0403 13:01:21.641351 10059 net.cpp:148] Top shape: 100 96 55 55 (29040000)
I0403 13:01:21.641367 10059 net.cpp:156] Memory required for data: 410316400
I0403 13:01:21.641382 10059 layer_factory.hpp:77] Creating layer pool1
I0403 13:01:21.641404 10059 net.cpp:91] Creating Layer pool1
I0403 13:01:21.641422 10059 net.cpp:425] pool1 <- norm1
I0403 13:01:21.641439 10059 net.cpp:399] pool1 -> pool1
I0403 13:01:21.641506 10059 net.cpp:141] Setting up pool1
I0403 13:01:21.641531 10059 net.cpp:148] Top shape: 100 96 27 27 (6998400)
I0403 13:01:21.641553 10059 net.cpp:156] Memory required for data: 438310000
I0403 13:01:21.641569 10059 layer_factory.hpp:77] Creating layer conv2
I0403 13:01:21.641594 10059 net.cpp:91] Creating Layer conv2
I0403 13:01:21.641610 10059 net.cpp:425] conv2 <- pool1
I0403 13:01:21.641628 10059 net.cpp:399] conv2 -> conv2
I0403 13:01:21.656656 10059 net.cpp:141] Setting up conv2
I0403 13:01:21.656708 10059 net.cpp:148] Top shape: 100 256 27 27 (18662400)
I0403 13:01:21.656728 10059 net.cpp:156] Memory required for data: 512959600
I0403 13:01:21.656750 10059 layer_factory.hpp:77] Creating layer relu2
I0403 13:01:21.656771 10059 net.cpp:91] Creating Layer relu2
I0403 13:01:21.656788 10059 net.cpp:425] relu2 <- conv2
I0403 13:01:21.656806 10059 net.cpp:386] relu2 -> conv2 (in-place)
I0403 13:01:21.657075 10059 net.cpp:141] Setting up relu2
I0403 13:01:21.657104 10059 net.cpp:148] Top shape: 100 256 27 27 (18662400)
I0403 13:01:21.657119 10059 net.cpp:156] Memory required for data: 587609200
I0403 13:01:21.657133 10059 layer_factory.hpp:77] Creating layer norm2
I0403 13:01:21.657155 10059 net.cpp:91] Creating Layer norm2
I0403 13:01:21.657171 10059 net.cpp:425] norm2 <- conv2
I0403 13:01:21.657189 10059 net.cpp:399] norm2 -> norm2
I0403 13:01:21.657405 10059 net.cpp:141] Setting up norm2
I0403 13:01:21.657433 10059 net.cpp:148] Top shape: 100 256 27 27 (18662400)
I0403 13:01:21.657447 10059 net.cpp:156] Memory required for data: 662258800
I0403 13:01:21.657464 10059 layer_factory.hpp:77] Creating layer pool2
I0403 13:01:21.657481 10059 net.cpp:91] Creating Layer pool2
I0403 13:01:21.657497 10059 net.cpp:425] pool2 <- norm2
I0403 13:01:21.657516 10059 net.cpp:399] pool2 -> pool2
I0403 13:01:21.657570 10059 net.cpp:141] Setting up pool2
I0403 13:01:21.657593 10059 net.cpp:148] Top shape: 100 256 13 13 (4326400)
I0403 13:01:21.657608 10059 net.cpp:156] Memory required for data: 679564400
I0403 13:01:21.657624 10059 layer_factory.hpp:77] Creating layer conv3
I0403 13:01:21.657646 10059 net.cpp:91] Creating Layer conv3
I0403 13:01:21.657662 10059 net.cpp:425] conv3 <- pool2
I0403 13:01:21.657681 10059 net.cpp:399] conv3 -> conv3
I0403 13:01:21.696014 10059 net.cpp:141] Setting up conv3
I0403 13:01:21.696115 10059 net.cpp:148] Top shape: 100 384 13 13 (6489600)
I0403 13:01:21.696131 10059 net.cpp:156] Memory required for data: 705522800
I0403 13:01:21.696157 10059 layer_factory.hpp:77] Creating layer relu3
I0403 13:01:21.696179 10059 net.cpp:91] Creating Layer relu3
I0403 13:01:21.696197 10059 net.cpp:425] relu3 <- conv3
I0403 13:01:21.696216 10059 net.cpp:386] relu3 -> conv3 (in-place)
I0403 13:01:21.696508 10059 net.cpp:141] Setting up relu3
I0403 13:01:21.696535 10059 net.cpp:148] Top shape: 100 384 13 13 (6489600)
I0403 13:01:21.696557 10059 net.cpp:156] Memory required for data: 731481200
I0403 13:01:21.696571 10059 layer_factory.hpp:77] Creating layer conv4
I0403 13:01:21.696598 10059 net.cpp:91] Creating Layer conv4
I0403 13:01:21.696614 10059 net.cpp:425] conv4 <- conv3
I0403 13:01:21.696635 10059 net.cpp:399] conv4 -> conv4
I0403 13:01:21.727053 10059 net.cpp:141] Setting up conv4
I0403 13:01:21.727123 10059 net.cpp:148] Top shape: 100 384 13 13 (6489600)
I0403 13:01:21.727172 10059 net.cpp:156] Memory required for data: 757439600
I0403 13:01:21.727195 10059 layer_factory.hpp:77] Creating layer relu4
I0403 13:01:21.727217 10059 net.cpp:91] Creating Layer relu4
I0403 13:01:21.727234 10059 net.cpp:425] relu4 <- conv4
I0403 13:01:21.727257 10059 net.cpp:386] relu4 -> conv4 (in-place)
I0403 13:01:21.727542 10059 net.cpp:141] Setting up relu4
I0403 13:01:21.727571 10059 net.cpp:148] Top shape: 100 384 13 13 (6489600)
I0403 13:01:21.727587 10059 net.cpp:156] Memory required for data: 783398000
I0403 13:01:21.727602 10059 layer_factory.hpp:77] Creating layer conv5
I0403 13:01:21.727628 10059 net.cpp:91] Creating Layer conv5
I0403 13:01:21.727645 10059 net.cpp:425] conv5 <- conv4
I0403 13:01:21.727664 10059 net.cpp:399] conv5 -> conv5
I0403 13:01:21.748363 10059 net.cpp:141] Setting up conv5
I0403 13:01:21.748414 10059 net.cpp:148] Top shape: 100 256 13 13 (4326400)
I0403 13:01:21.748431 10059 net.cpp:156] Memory required for data: 800703600
I0403 13:01:21.748457 10059 layer_factory.hpp:77] Creating layer relu5
I0403 13:01:21.748478 10059 net.cpp:91] Creating Layer relu5
I0403 13:01:21.748494 10059 net.cpp:425] relu5 <- conv5
I0403 13:01:21.748514 10059 net.cpp:386] relu5 -> conv5 (in-place)
I0403 13:01:21.748800 10059 net.cpp:141] Setting up relu5
I0403 13:01:21.748827 10059 net.cpp:148] Top shape: 100 256 13 13 (4326400)
I0403 13:01:21.748842 10059 net.cpp:156] Memory required for data: 818009200
I0403 13:01:21.748857 10059 layer_factory.hpp:77] Creating layer pool5
I0403 13:01:21.748881 10059 net.cpp:91] Creating Layer pool5
I0403 13:01:21.748899 10059 net.cpp:425] pool5 <- conv5
I0403 13:01:21.748917 10059 net.cpp:399] pool5 -> pool5
I0403 13:01:21.748981 10059 net.cpp:141] Setting up pool5
I0403 13:01:21.749006 10059 net.cpp:148] Top shape: 100 256 6 6 (921600)
I0403 13:01:21.749022 10059 net.cpp:156] Memory required for data: 821695600
I0403 13:01:21.749037 10059 layer_factory.hpp:77] Creating layer fc6
I0403 13:01:21.749066 10059 net.cpp:91] Creating Layer fc6
I0403 13:01:21.749084 10059 net.cpp:425] fc6 <- pool5
I0403 13:01:21.749109 10059 net.cpp:399] fc6 -> fc6
I0403 13:01:23.296365 10059 net.cpp:141] Setting up fc6
I0403 13:01:23.296443 10059 net.cpp:148] Top shape: 100 4096 (409600)
I0403 13:01:23.296460 10059 net.cpp:156] Memory required for data: 823334000
I0403 13:01:23.296481 10059 layer_factory.hpp:77] Creating layer relu6
I0403 13:01:23.296509 10059 net.cpp:91] Creating Layer relu6
I0403 13:01:23.296527 10059 net.cpp:425] relu6 <- fc6
I0403 13:01:23.296553 10059 net.cpp:386] relu6 -> fc6 (in-place)
I0403 13:01:23.296784 10059 net.cpp:141] Setting up relu6
I0403 13:01:23.296809 10059 net.cpp:148] Top shape: 100 4096 (409600)
I0403 13:01:23.296823 10059 net.cpp:156] Memory required for data: 824972400
I0403 13:01:23.296838 10059 layer_factory.hpp:77] Creating layer drop6
I0403 13:01:23.296855 10059 net.cpp:91] Creating Layer drop6
I0403 13:01:23.296870 10059 net.cpp:425] drop6 <- fc6
I0403 13:01:23.296890 10059 net.cpp:386] drop6 -> fc6 (in-place)
I0403 13:01:23.296941 10059 net.cpp:141] Setting up drop6
I0403 13:01:23.296965 10059 net.cpp:148] Top shape: 100 4096 (409600)
I0403 13:01:23.296980 10059 net.cpp:156] Memory required for data: 826610800
I0403 13:01:23.296995 10059 layer_factory.hpp:77] Creating layer fc7
I0403 13:01:23.297013 10059 net.cpp:91] Creating Layer fc7
I0403 13:01:23.297029 10059 net.cpp:425] fc7 <- fc6
I0403 13:01:23.297049 10059 net.cpp:399] fc7 -> fc7
I0403 13:01:23.980792 10059 net.cpp:141] Setting up fc7
I0403 13:01:23.980832 10059 net.cpp:148] Top shape: 100 4096 (409600)
I0403 13:01:23.980849 10059 net.cpp:156] Memory required for data: 828249200
I0403 13:01:23.980868 10059 layer_factory.hpp:77] Creating layer relu7
I0403 13:01:23.980888 10059 net.cpp:91] Creating Layer relu7
I0403 13:01:23.980906 10059 net.cpp:425] relu7 <- fc7
I0403 13:01:23.980926 10059 net.cpp:386] relu7 -> fc7 (in-place)
I0403 13:01:23.981330 10059 net.cpp:141] Setting up relu7
I0403 13:01:23.981355 10059 net.cpp:148] Top shape: 100 4096 (409600)
I0403 13:01:23.981405 10059 net.cpp:156] Memory required for data: 829887600
I0403 13:01:23.981420 10059 layer_factory.hpp:77] Creating layer drop7
I0403 13:01:23.981438 10059 net.cpp:91] Creating Layer drop7
I0403 13:01:23.981453 10059 net.cpp:425] drop7 <- fc7
I0403 13:01:23.981472 10059 net.cpp:386] drop7 -> fc7 (in-place)
I0403 13:01:23.981514 10059 net.cpp:141] Setting up drop7
I0403 13:01:23.981535 10059 net.cpp:148] Top shape: 100 4096 (409600)
I0403 13:01:23.981555 10059 net.cpp:156] Memory required for data: 831526000
I0403 13:01:23.981570 10059 layer_factory.hpp:77] Creating layer fc8_plantvillage
I0403 13:01:23.981602 10059 net.cpp:91] Creating Layer fc8_plantvillage
I0403 13:01:23.981619 10059 net.cpp:425] fc8_plantvillage <- fc7
I0403 13:01:23.981639 10059 net.cpp:399] fc8_plantvillage -> fc8_plantvillage
I0403 13:01:23.988335 10059 net.cpp:141] Setting up fc8_plantvillage
I0403 13:01:23.988364 10059 net.cpp:148] Top shape: 100 38 (3800)
I0403 13:01:23.988379 10059 net.cpp:156] Memory required for data: 831541200
I0403 13:01:23.988397 10059 layer_factory.hpp:77] Creating layer fc8_plantvillage_fc8_plantvillage_0_split
I0403 13:01:23.988415 10059 net.cpp:91] Creating Layer fc8_plantvillage_fc8_plantvillage_0_split
I0403 13:01:23.988430 10059 net.cpp:425] fc8_plantvillage_fc8_plantvillage_0_split <- fc8_plantvillage
I0403 13:01:23.988448 10059 net.cpp:399] fc8_plantvillage_fc8_plantvillage_0_split -> fc8_plantvillage_fc8_plantvillage_0_split_0
I0403 13:01:23.988468 10059 net.cpp:399] fc8_plantvillage_fc8_plantvillage_0_split -> fc8_plantvillage_fc8_plantvillage_0_split_1
I0403 13:01:23.988487 10059 net.cpp:399] fc8_plantvillage_fc8_plantvillage_0_split -> fc8_plantvillage_fc8_plantvillage_0_split_2
I0403 13:01:23.988567 10059 net.cpp:141] Setting up fc8_plantvillage_fc8_plantvillage_0_split
I0403 13:01:23.988590 10059 net.cpp:148] Top shape: 100 38 (3800)
I0403 13:01:23.988605 10059 net.cpp:148] Top shape: 100 38 (3800)
I0403 13:01:23.988620 10059 net.cpp:148] Top shape: 100 38 (3800)
I0403 13:01:23.988632 10059 net.cpp:156] Memory required for data: 831586800
I0403 13:01:23.988646 10059 layer_factory.hpp:77] Creating layer prob
I0403 13:01:23.988663 10059 net.cpp:91] Creating Layer prob
I0403 13:01:23.988678 10059 net.cpp:425] prob <- fc8_plantvillage_fc8_plantvillage_0_split_0
I0403 13:01:23.988698 10059 net.cpp:399] prob -> prob
I0403 13:01:23.988911 10059 net.cpp:141] Setting up prob
I0403 13:01:23.988940 10059 net.cpp:148] Top shape: 100 38 (3800)
I0403 13:01:23.988955 10059 net.cpp:156] Memory required for data: 831602000
I0403 13:01:23.988968 10059 layer_factory.hpp:77] Creating layer hdf5out
I0403 13:01:23.988987 10059 net.cpp:91] Creating Layer hdf5out
I0403 13:01:23.989001 10059 net.cpp:425] hdf5out <- prob
I0403 13:01:23.989017 10059 net.cpp:425] hdf5out <- label_data_1_split_0
I0403 13:01:23.991312 10059 net.cpp:141] Setting up hdf5out
…
