…
I0403 12:48:58.393039  9707 net.cpp:313] The NetState phase (1) differed from the phase (0) specified by a rule in layer data
I0403 12:48:58.393352  9707 net.cpp:49] Initializing net from parameters: 
state {
  phase: TEST
}
layer {
  name: "data"
  type: "Data"
  top: "data"
  top: "label"
  include {
    phase: TEST
  }
  transform_param {
    crop_size: 227
    mean_file: "/home/mohanty/data/final_dataset/lmdb/grayscale-50-50/mean.binaryproto"
  }
  data_param {
    source: "/home/mohanty/data/final_dataset/lmdb/grayscale-50-50/test_db"
    batch_size: 100
    backend: LMDB
  }
}
layer {
  name: "conv1"
  type: "Convolution"
  bottom: "data"
  top: "conv1"
  param {
    lr_mult: 1
    decay_mult: 1
  }
  param {
    lr_mult: 2
    decay_mult: 0
  }
  convolution_param {
    num_output: 96
    kernel_size: 11
    stride: 4
    weight_filler {
      type: "gaussian"
      std: 0.01
    }
    bias_filler {
      type: "constant"
      value: 0
    }
  }
}
layer {
  name: "relu1"
  type: "ReLU"
  bottom: "conv1"
  top: "conv1"
}
layer {
  name: "norm1"
  type: "LRN"
  bottom: "conv1"
  top: "norm1"
  lrn_param {
    local_size: 5
    alpha: 0.0001
    beta: 0.75
  }
}
layer {
  name: "pool1"
  type: "Pooling"
  bottom: "norm1"
  top: "pool1"
  pooling_param {
    pool: MAX
    kernel_size: 3
    stride: 2
  }
}
layer {
  name: "conv2"
  type: "Convolution"
  bottom: "pool1"
  top: "conv2"
  param {
    lr_mult: 1
    decay_mult: 1
  }
  param {
    lr_mult: 2
    decay_mult: 0
  }
  convolution_param {
    num_output: 256
    pad: 2
    kernel_size: 5
    group: 2
    weight_filler {
      type: "gaussian"
      std: 0.01
    }
    bias_filler {
      type: "constant"
      value: 0.1
    }
  }
}
layer {
  name: "relu2"
  type: "ReLU"
  bottom: "conv2"
  top: "conv2"
}
layer {
  name: "norm2"
  type: "LRN"
  bottom: "conv2"
  top: "norm2"
  lrn_param {
    local_size: 5
    alpha: 0.0001
    beta: 0.75
  }
}
layer {
  name: "pool2"
  type: "Pooling"
  bottom: "norm2"
  top: "pool2"
  pooling_param {
    pool: MAX
    kernel_size: 3
    stride: 2
  }
}
layer {
  name: "conv3"
  type: "Convolution"
  bottom: "pool2"
  top: "conv3"
  param {
    lr_mult: 1
    decay_mult: 1
  }
  param {
    lr_mult: 2
    decay_mult: 0
  }
  convolution_param {
    num_output: 384
    pad: 1
    kernel_size: 3
    weight_filler {
      type: "gaussian"
      std: 0.01
    }
    bias_filler {
      type: "constant"
      value: 0
    }
  }
}
layer {
  name: "relu3"
  type: "ReLU"
  bottom: "conv3"
  top: "conv3"
}
layer {
  name: "conv4"
  type: "Convolution"
  bottom: "conv3"
  top: "conv4"
  param {
    lr_mult: 1
    decay_mult: 1
  }
  param {
    lr_mult: 2
    decay_mult: 0
  }
  convolution_param {
    num_output: 384
    pad: 1
    kernel_size: 3
    group: 2
    weight_filler {
      type: "gaussian"
      std: 0.01
    }
    bias_filler {
      type: "constant"
      value: 0.1
    }
  }
}
layer {
  name: "relu4"
  type: "ReLU"
  bottom: "conv4"
  top: "conv4"
}
layer {
  name: "conv5"
  type: "Convolution"
  bottom: "conv4"
  top: "conv5"
  param {
    lr_mult: 1
    decay_mult: 1
  }
  param {
    lr_mult: 2
    decay_mult: 0
  }
  convolution_param {
    num_output: 256
    pad: 1
    kernel_size: 3
    group: 2
    weight_filler {
      type: "gaussian"
      std: 0.01
    }
    bias_filler {
      type: "constant"
      value: 0.1
    }
  }
}
layer {
  name: "relu5"
  type: "ReLU"
  bottom: "conv5"
  top: "conv5"
}
layer {
  name: "pool5"
  type: "Pooling"
  bottom: "conv5"
  top: "pool5"
  pooling_param {
    pool: MAX
    kernel_size: 3
    stride: 2
  }
}
layer {
  name: "fc6"
  type: "InnerProduct"
  bottom: "pool5"
  top: "fc6"
  param {
    lr_mult: 1
    decay_mult: 1
  }
  param {
    lr_mult: 2
    decay_mult: 0
  }
  inner_product_param {
    num_output: 4096
    weight_filler {
      type: "gaussian"
      std: 0.005
    }
    bias_filler {
      type: "constant"
      value: 0.1
    }
  }
}
layer {
  name: "relu6"
  type: "ReLU"
  bottom: "fc6"
  top: "fc6"
}
layer {
  name: "drop6"
  type: "Dropout"
  bottom: "fc6"
  top: "fc6"
  dropout_param {
    dropout_ratio: 0.5
  }
}
layer {
  name: "fc7"
  type: "InnerProduct"
  bottom: "fc6"
  top: "fc7"
  param {
    lr_mult: 1
    decay_mult: 1
  }
  param {
    lr_mult: 2
    decay_mult: 0
  }
  inner_product_param {
    num_output: 4096
    weight_filler {
      type: "gaussian"
      std: 0.005
    }
    bias_filler {
      type: "constant"
      value: 0.1
    }
  }
}
layer {
  name: "relu7"
  type: "ReLU"
  bottom: "fc7"
  top: "fc7"
}
layer {
  name: "drop7"
  type: "Dropout"
  bottom: "fc7"
  top: "fc7"
  dropout_param {
    dropout_ratio: 0.5
  }
}
layer {
  name: "fc8_plantvillage"
  type: "InnerProduct"
  bottom: "fc7"
  top: "fc8_plantvillage"
  param {
    lr_mult: 1
    decay_mult: 1
  }
  param {
    lr_mult: 2
    decay_mult: 0
  }
  inner_product_param {
    num_output: 38
    weight_filler {
      type: "gaussian"
      std: 0.01
    }
    bias_filler {
      type: "constant"
      value: 0
    }
  }
}
layer {
  name: "prob"
  type: "Softmax"
  bottom: "fc8_plantvillage"
  top: "prob"
  include {
    phase: TEST
  }
}
layer {
  name: "hdf5out"
  type: "HDF5Output"
  bottom: "prob"
  bottom: "label"
  include {
    phase: TEST
  }
  hdf5_output_param {
    file_name: "hdf5_dumps/iter_534.h5"
  }
}
layer {
  name: "loss"
  type: "SoftmaxWithLoss"
  bottom: "fc8_plantvillage"
  bottom: "label"
  top: "loss"
}
layer {
  name: "accuracy"
  type: "Accuracy"
  bottom: "fc8_plantvillage"
  bottom: "label"
  top: "accuracy"
  include {
    phase: TEST
  }
}
I0403 12:48:58.393944  9707 layer_factory.hpp:77] Creating layer data
I0403 12:48:58.394594  9707 net.cpp:91] Creating Layer data
I0403 12:48:58.394624  9707 net.cpp:399] data -> data
I0403 12:48:58.394678  9707 net.cpp:399] data -> label
I0403 12:48:58.394716  9707 data_transformer.cpp:25] Loading mean file from: /home/mohanty/data/final_dataset/lmdb/grayscale-50-50/mean.binaryproto
I0403 12:48:58.395853  9710 db_lmdb.cpp:38] Opened lmdb /home/mohanty/data/final_dataset/lmdb/grayscale-50-50/test_db
I0403 12:48:58.408988  9707 data_layer.cpp:41] output data size: 100,3,227,227
I0403 12:48:58.524260  9707 net.cpp:141] Setting up data
I0403 12:48:58.524353  9707 net.cpp:148] Top shape: 100 3 227 227 (15458700)
I0403 12:48:58.524376  9707 net.cpp:148] Top shape: 100 (100)
I0403 12:48:58.524391  9707 net.cpp:156] Memory required for data: 61835200
I0403 12:48:58.524420  9707 layer_factory.hpp:77] Creating layer label_data_1_split
I0403 12:48:58.524446  9707 net.cpp:91] Creating Layer label_data_1_split
I0403 12:48:58.524462  9707 net.cpp:425] label_data_1_split <- label
I0403 12:48:58.524494  9707 net.cpp:399] label_data_1_split -> label_data_1_split_0
I0403 12:48:58.524521  9707 net.cpp:399] label_data_1_split -> label_data_1_split_1
I0403 12:48:58.524554  9707 net.cpp:399] label_data_1_split -> label_data_1_split_2
I0403 12:48:58.524621  9707 net.cpp:141] Setting up label_data_1_split
I0403 12:48:58.524644  9707 net.cpp:148] Top shape: 100 (100)
I0403 12:48:58.524662  9707 net.cpp:148] Top shape: 100 (100)
I0403 12:48:58.524677  9707 net.cpp:148] Top shape: 100 (100)
I0403 12:48:58.524693  9707 net.cpp:156] Memory required for data: 61836400
I0403 12:48:58.524708  9707 layer_factory.hpp:77] Creating layer conv1
I0403 12:48:58.524739  9707 net.cpp:91] Creating Layer conv1
I0403 12:48:58.524757  9707 net.cpp:425] conv1 <- data
I0403 12:48:58.524776  9707 net.cpp:399] conv1 -> conv1
I0403 12:48:58.658169  9707 net.cpp:141] Setting up conv1
I0403 12:48:58.658241  9707 net.cpp:148] Top shape: 100 96 55 55 (29040000)
I0403 12:48:58.658258  9707 net.cpp:156] Memory required for data: 177996400
I0403 12:48:58.658288  9707 layer_factory.hpp:77] Creating layer relu1
I0403 12:48:58.658314  9707 net.cpp:91] Creating Layer relu1
I0403 12:48:58.658334  9707 net.cpp:425] relu1 <- conv1
I0403 12:48:58.658354  9707 net.cpp:386] relu1 -> conv1 (in-place)
I0403 12:48:58.658628  9707 net.cpp:141] Setting up relu1
I0403 12:48:58.658655  9707 net.cpp:148] Top shape: 100 96 55 55 (29040000)
I0403 12:48:58.658702  9707 net.cpp:156] Memory required for data: 294156400
I0403 12:48:58.658718  9707 layer_factory.hpp:77] Creating layer norm1
I0403 12:48:58.658747  9707 net.cpp:91] Creating Layer norm1
I0403 12:48:58.658766  9707 net.cpp:425] norm1 <- conv1
I0403 12:48:58.658784  9707 net.cpp:399] norm1 -> norm1
I0403 12:48:58.659106  9707 net.cpp:141] Setting up norm1
I0403 12:48:58.659132  9707 net.cpp:148] Top shape: 100 96 55 55 (29040000)
I0403 12:48:58.659148  9707 net.cpp:156] Memory required for data: 410316400
I0403 12:48:58.659162  9707 layer_factory.hpp:77] Creating layer pool1
I0403 12:48:58.659188  9707 net.cpp:91] Creating Layer pool1
I0403 12:48:58.659205  9707 net.cpp:425] pool1 <- norm1
I0403 12:48:58.659224  9707 net.cpp:399] pool1 -> pool1
I0403 12:48:58.659296  9707 net.cpp:141] Setting up pool1
I0403 12:48:58.659319  9707 net.cpp:148] Top shape: 100 96 27 27 (6998400)
I0403 12:48:58.659334  9707 net.cpp:156] Memory required for data: 438310000
I0403 12:48:58.659348  9707 layer_factory.hpp:77] Creating layer conv2
I0403 12:48:58.659374  9707 net.cpp:91] Creating Layer conv2
I0403 12:48:58.659392  9707 net.cpp:425] conv2 <- pool1
I0403 12:48:58.659425  9707 net.cpp:399] conv2 -> conv2
I0403 12:48:58.674202  9707 net.cpp:141] Setting up conv2
I0403 12:48:58.674237  9707 net.cpp:148] Top shape: 100 256 27 27 (18662400)
I0403 12:48:58.674253  9707 net.cpp:156] Memory required for data: 512959600
I0403 12:48:58.674278  9707 layer_factory.hpp:77] Creating layer relu2
I0403 12:48:58.674299  9707 net.cpp:91] Creating Layer relu2
I0403 12:48:58.674315  9707 net.cpp:425] relu2 <- conv2
I0403 12:48:58.674331  9707 net.cpp:386] relu2 -> conv2 (in-place)
I0403 12:48:58.674625  9707 net.cpp:141] Setting up relu2
I0403 12:48:58.674656  9707 net.cpp:148] Top shape: 100 256 27 27 (18662400)
I0403 12:48:58.674674  9707 net.cpp:156] Memory required for data: 587609200
I0403 12:48:58.674688  9707 layer_factory.hpp:77] Creating layer norm2
I0403 12:48:58.674710  9707 net.cpp:91] Creating Layer norm2
I0403 12:48:58.674726  9707 net.cpp:425] norm2 <- conv2
I0403 12:48:58.674746  9707 net.cpp:399] norm2 -> norm2
I0403 12:48:58.674957  9707 net.cpp:141] Setting up norm2
I0403 12:48:58.674983  9707 net.cpp:148] Top shape: 100 256 27 27 (18662400)
I0403 12:48:58.674998  9707 net.cpp:156] Memory required for data: 662258800
I0403 12:48:58.675011  9707 layer_factory.hpp:77] Creating layer pool2
I0403 12:48:58.675032  9707 net.cpp:91] Creating Layer pool2
I0403 12:48:58.675050  9707 net.cpp:425] pool2 <- norm2
I0403 12:48:58.675065  9707 net.cpp:399] pool2 -> pool2
I0403 12:48:58.675118  9707 net.cpp:141] Setting up pool2
I0403 12:48:58.675140  9707 net.cpp:148] Top shape: 100 256 13 13 (4326400)
I0403 12:48:58.675154  9707 net.cpp:156] Memory required for data: 679564400
I0403 12:48:58.675169  9707 layer_factory.hpp:77] Creating layer conv3
I0403 12:48:58.675191  9707 net.cpp:91] Creating Layer conv3
I0403 12:48:58.675209  9707 net.cpp:425] conv3 <- pool2
I0403 12:48:58.675228  9707 net.cpp:399] conv3 -> conv3
I0403 12:48:58.718029  9707 net.cpp:141] Setting up conv3
I0403 12:48:58.718091  9707 net.cpp:148] Top shape: 100 384 13 13 (6489600)
I0403 12:48:58.718107  9707 net.cpp:156] Memory required for data: 705522800
I0403 12:48:58.718132  9707 layer_factory.hpp:77] Creating layer relu3
I0403 12:48:58.718157  9707 net.cpp:91] Creating Layer relu3
I0403 12:48:58.718174  9707 net.cpp:425] relu3 <- conv3
I0403 12:48:58.718194  9707 net.cpp:386] relu3 -> conv3 (in-place)
I0403 12:48:58.718464  9707 net.cpp:141] Setting up relu3
I0403 12:48:58.718492  9707 net.cpp:148] Top shape: 100 384 13 13 (6489600)
I0403 12:48:58.718507  9707 net.cpp:156] Memory required for data: 731481200
I0403 12:48:58.718521  9707 layer_factory.hpp:77] Creating layer conv4
I0403 12:48:58.718551  9707 net.cpp:91] Creating Layer conv4
I0403 12:48:58.718574  9707 net.cpp:425] conv4 <- conv3
I0403 12:48:58.718592  9707 net.cpp:399] conv4 -> conv4
I0403 12:48:58.747257  9707 net.cpp:141] Setting up conv4
I0403 12:48:58.747305  9707 net.cpp:148] Top shape: 100 384 13 13 (6489600)
I0403 12:48:58.747354  9707 net.cpp:156] Memory required for data: 757439600
I0403 12:48:58.747376  9707 layer_factory.hpp:77] Creating layer relu4
I0403 12:48:58.747398  9707 net.cpp:91] Creating Layer relu4
I0403 12:48:58.747416  9707 net.cpp:425] relu4 <- conv4
I0403 12:48:58.747434  9707 net.cpp:386] relu4 -> conv4 (in-place)
I0403 12:48:58.747714  9707 net.cpp:141] Setting up relu4
I0403 12:48:58.747741  9707 net.cpp:148] Top shape: 100 384 13 13 (6489600)
I0403 12:48:58.747756  9707 net.cpp:156] Memory required for data: 783398000
I0403 12:48:58.747771  9707 layer_factory.hpp:77] Creating layer conv5
I0403 12:48:58.747797  9707 net.cpp:91] Creating Layer conv5
I0403 12:48:58.747817  9707 net.cpp:425] conv5 <- conv4
I0403 12:48:58.747839  9707 net.cpp:399] conv5 -> conv5
I0403 12:48:58.767714  9707 net.cpp:141] Setting up conv5
I0403 12:48:58.767750  9707 net.cpp:148] Top shape: 100 256 13 13 (4326400)
I0403 12:48:58.767765  9707 net.cpp:156] Memory required for data: 800703600
I0403 12:48:58.767792  9707 layer_factory.hpp:77] Creating layer relu5
I0403 12:48:58.767812  9707 net.cpp:91] Creating Layer relu5
I0403 12:48:58.767828  9707 net.cpp:425] relu5 <- conv5
I0403 12:48:58.767845  9707 net.cpp:386] relu5 -> conv5 (in-place)
I0403 12:48:58.768122  9707 net.cpp:141] Setting up relu5
I0403 12:48:58.768148  9707 net.cpp:148] Top shape: 100 256 13 13 (4326400)
I0403 12:48:58.768164  9707 net.cpp:156] Memory required for data: 818009200
I0403 12:48:58.768179  9707 layer_factory.hpp:77] Creating layer pool5
I0403 12:48:58.768203  9707 net.cpp:91] Creating Layer pool5
I0403 12:48:58.768220  9707 net.cpp:425] pool5 <- conv5
I0403 12:48:58.768239  9707 net.cpp:399] pool5 -> pool5
I0403 12:48:58.768299  9707 net.cpp:141] Setting up pool5
I0403 12:48:58.768323  9707 net.cpp:148] Top shape: 100 256 6 6 (921600)
I0403 12:48:58.768337  9707 net.cpp:156] Memory required for data: 821695600
I0403 12:48:58.768352  9707 layer_factory.hpp:77] Creating layer fc6
I0403 12:48:58.768380  9707 net.cpp:91] Creating Layer fc6
I0403 12:48:58.768399  9707 net.cpp:425] fc6 <- pool5
I0403 12:48:58.768419  9707 net.cpp:399] fc6 -> fc6
I0403 12:49:00.272527  9707 net.cpp:141] Setting up fc6
I0403 12:49:00.272611  9707 net.cpp:148] Top shape: 100 4096 (409600)
I0403 12:49:00.272629  9707 net.cpp:156] Memory required for data: 823334000
I0403 12:49:00.272650  9707 layer_factory.hpp:77] Creating layer relu6
I0403 12:49:00.272671  9707 net.cpp:91] Creating Layer relu6
I0403 12:49:00.272687  9707 net.cpp:425] relu6 <- fc6
I0403 12:49:00.272708  9707 net.cpp:386] relu6 -> fc6 (in-place)
I0403 12:49:00.272934  9707 net.cpp:141] Setting up relu6
I0403 12:49:00.272959  9707 net.cpp:148] Top shape: 100 4096 (409600)
I0403 12:49:00.272974  9707 net.cpp:156] Memory required for data: 824972400
I0403 12:49:00.272989  9707 layer_factory.hpp:77] Creating layer drop6
I0403 12:49:00.273013  9707 net.cpp:91] Creating Layer drop6
I0403 12:49:00.273030  9707 net.cpp:425] drop6 <- fc6
I0403 12:49:00.273046  9707 net.cpp:386] drop6 -> fc6 (in-place)
I0403 12:49:00.273099  9707 net.cpp:141] Setting up drop6
I0403 12:49:00.273121  9707 net.cpp:148] Top shape: 100 4096 (409600)
I0403 12:49:00.273136  9707 net.cpp:156] Memory required for data: 826610800
I0403 12:49:00.273150  9707 layer_factory.hpp:77] Creating layer fc7
I0403 12:49:00.273169  9707 net.cpp:91] Creating Layer fc7
I0403 12:49:00.273187  9707 net.cpp:425] fc7 <- fc6
I0403 12:49:00.273205  9707 net.cpp:399] fc7 -> fc7
I0403 12:49:00.981793  9707 net.cpp:141] Setting up fc7
I0403 12:49:00.981860  9707 net.cpp:148] Top shape: 100 4096 (409600)
I0403 12:49:00.981880  9707 net.cpp:156] Memory required for data: 828249200
I0403 12:49:00.981904  9707 layer_factory.hpp:77] Creating layer relu7
I0403 12:49:00.981955  9707 net.cpp:91] Creating Layer relu7
I0403 12:49:00.981976  9707 net.cpp:425] relu7 <- fc7
I0403 12:49:00.982030  9707 net.cpp:386] relu7 -> fc7 (in-place)
I0403 12:49:00.982467  9707 net.cpp:141] Setting up relu7
I0403 12:49:00.982496  9707 net.cpp:148] Top shape: 100 4096 (409600)
I0403 12:49:00.982545  9707 net.cpp:156] Memory required for data: 829887600
I0403 12:49:00.982568  9707 layer_factory.hpp:77] Creating layer drop7
I0403 12:49:00.982594  9707 net.cpp:91] Creating Layer drop7
I0403 12:49:00.982612  9707 net.cpp:425] drop7 <- fc7
I0403 12:49:00.982633  9707 net.cpp:386] drop7 -> fc7 (in-place)
I0403 12:49:00.982683  9707 net.cpp:141] Setting up drop7
I0403 12:49:00.982709  9707 net.cpp:148] Top shape: 100 4096 (409600)
I0403 12:49:00.982733  9707 net.cpp:156] Memory required for data: 831526000
I0403 12:49:00.982784  9707 layer_factory.hpp:77] Creating layer fc8_plantvillage
I0403 12:49:00.982816  9707 net.cpp:91] Creating Layer fc8_plantvillage
I0403 12:49:00.982837  9707 net.cpp:425] fc8_plantvillage <- fc7
I0403 12:49:00.982861  9707 net.cpp:399] fc8_plantvillage -> fc8_plantvillage
I0403 12:49:00.990020  9707 net.cpp:141] Setting up fc8_plantvillage
I0403 12:49:00.990062  9707 net.cpp:148] Top shape: 100 38 (3800)
I0403 12:49:00.990092  9707 net.cpp:156] Memory required for data: 831541200
I0403 12:49:00.990113  9707 layer_factory.hpp:77] Creating layer fc8_plantvillage_fc8_plantvillage_0_split
I0403 12:49:00.990134  9707 net.cpp:91] Creating Layer fc8_plantvillage_fc8_plantvillage_0_split
I0403 12:49:00.990151  9707 net.cpp:425] fc8_plantvillage_fc8_plantvillage_0_split <- fc8_plantvillage
I0403 12:49:00.990171  9707 net.cpp:399] fc8_plantvillage_fc8_plantvillage_0_split -> fc8_plantvillage_fc8_plantvillage_0_split_0
I0403 12:49:00.990193  9707 net.cpp:399] fc8_plantvillage_fc8_plantvillage_0_split -> fc8_plantvillage_fc8_plantvillage_0_split_1
I0403 12:49:00.990216  9707 net.cpp:399] fc8_plantvillage_fc8_plantvillage_0_split -> fc8_plantvillage_fc8_plantvillage_0_split_2
I0403 12:49:00.990299  9707 net.cpp:141] Setting up fc8_plantvillage_fc8_plantvillage_0_split
I0403 12:49:00.990325  9707 net.cpp:148] Top shape: 100 38 (3800)
I0403 12:49:00.990346  9707 net.cpp:148] Top shape: 100 38 (3800)
I0403 12:49:00.990382  9707 net.cpp:148] Top shape: 100 38 (3800)
I0403 12:49:00.990399  9707 net.cpp:156] Memory required for data: 831586800
I0403 12:49:00.990417  9707 layer_factory.hpp:77] Creating layer prob
I0403 12:49:00.990439  9707 net.cpp:91] Creating Layer prob
I0403 12:49:00.990473  9707 net.cpp:425] prob <- fc8_plantvillage_fc8_plantvillage_0_split_0
I0403 12:49:00.990506  9707 net.cpp:399] prob -> prob
I0403 12:49:00.990767  9707 net.cpp:141] Setting up prob
I0403 12:49:00.990797  9707 net.cpp:148] Top shape: 100 38 (3800)
I0403 12:49:00.990813  9707 net.cpp:156] Memory required for data: 831602000
I0403 12:49:00.990830  9707 layer_factory.hpp:77] Creating layer hdf5out
I0403 12:49:00.990856  9707 net.cpp:91] Creating Layer hdf5out
I0403 12:49:00.990878  9707 net.cpp:425] hdf5out <- prob
I0403 12:49:00.990911  9707 net.cpp:425] hdf5out <- label_data_1_split_0
I0403 12:49:00.993468  9707 net.cpp:141] Setting up hdf5out
…
