…
I0403 13:09:00.046326 10281 net.cpp:313] The NetState phase (1) differed from the phase (0) specified by a rule in layer data
I0403 13:09:00.046669 10281 net.cpp:49] Initializing net from parameters: 
state {
  phase: TEST
}
layer {
  name: "data"
  type: "Data"
  top: "data"
  top: "label"
  include {
    phase: TEST
  }
  transform_param {
    crop_size: 227
    mean_file: "/home/mohanty/data/final_dataset/lmdb/grayscale-50-50/mean.binaryproto"
  }
  data_param {
    source: "/home/mohanty/data/final_dataset/lmdb/grayscale-50-50/test_db"
    batch_size: 100
    backend: LMDB
  }
}
layer {
  name: "conv1"
  type: "Convolution"
  bottom: "data"
  top: "conv1"
  param {
    lr_mult: 1
    decay_mult: 1
  }
  param {
    lr_mult: 2
    decay_mult: 0
  }
  convolution_param {
    num_output: 96
    kernel_size: 11
    stride: 4
    weight_filler {
      type: "gaussian"
      std: 0.01
    }
    bias_filler {
      type: "constant"
      value: 0
    }
  }
}
layer {
  name: "relu1"
  type: "ReLU"
  bottom: "conv1"
  top: "conv1"
}
layer {
  name: "norm1"
  type: "LRN"
  bottom: "conv1"
  top: "norm1"
  lrn_param {
    local_size: 5
    alpha: 0.0001
    beta: 0.75
  }
}
layer {
  name: "pool1"
  type: "Pooling"
  bottom: "norm1"
  top: "pool1"
  pooling_param {
    pool: MAX
    kernel_size: 3
    stride: 2
  }
}
layer {
  name: "conv2"
  type: "Convolution"
  bottom: "pool1"
  top: "conv2"
  param {
    lr_mult: 1
    decay_mult: 1
  }
  param {
    lr_mult: 2
    decay_mult: 0
  }
  convolution_param {
    num_output: 256
    pad: 2
    kernel_size: 5
    group: 2
    weight_filler {
      type: "gaussian"
      std: 0.01
    }
    bias_filler {
      type: "constant"
      value: 0.1
    }
  }
}
layer {
  name: "relu2"
  type: "ReLU"
  bottom: "conv2"
  top: "conv2"
}
layer {
  name: "norm2"
  type: "LRN"
  bottom: "conv2"
  top: "norm2"
  lrn_param {
    local_size: 5
    alpha: 0.0001
    beta: 0.75
  }
}
layer {
  name: "pool2"
  type: "Pooling"
  bottom: "norm2"
  top: "pool2"
  pooling_param {
    pool: MAX
    kernel_size: 3
    stride: 2
  }
}
layer {
  name: "conv3"
  type: "Convolution"
  bottom: "pool2"
  top: "conv3"
  param {
    lr_mult: 1
    decay_mult: 1
  }
  param {
    lr_mult: 2
    decay_mult: 0
  }
  convolution_param {
    num_output: 384
    pad: 1
    kernel_size: 3
    weight_filler {
      type: "gaussian"
      std: 0.01
    }
    bias_filler {
      type: "constant"
      value: 0
    }
  }
}
layer {
  name: "relu3"
  type: "ReLU"
  bottom: "conv3"
  top: "conv3"
}
layer {
  name: "conv4"
  type: "Convolution"
  bottom: "conv3"
  top: "conv4"
  param {
    lr_mult: 1
    decay_mult: 1
  }
  param {
    lr_mult: 2
    decay_mult: 0
  }
  convolution_param {
    num_output: 384
    pad: 1
    kernel_size: 3
    group: 2
    weight_filler {
      type: "gaussian"
      std: 0.01
    }
    bias_filler {
      type: "constant"
      value: 0.1
    }
  }
}
layer {
  name: "relu4"
  type: "ReLU"
  bottom: "conv4"
  top: "conv4"
}
layer {
  name: "conv5"
  type: "Convolution"
  bottom: "conv4"
  top: "conv5"
  param {
    lr_mult: 1
    decay_mult: 1
  }
  param {
    lr_mult: 2
    decay_mult: 0
  }
  convolution_param {
    num_output: 256
    pad: 1
    kernel_size: 3
    group: 2
    weight_filler {
      type: "gaussian"
      std: 0.01
    }
    bias_filler {
      type: "constant"
      value: 0.1
    }
  }
}
layer {
  name: "relu5"
  type: "ReLU"
  bottom: "conv5"
  top: "conv5"
}
layer {
  name: "pool5"
  type: "Pooling"
  bottom: "conv5"
  top: "pool5"
  pooling_param {
    pool: MAX
    kernel_size: 3
    stride: 2
  }
}
layer {
  name: "fc6"
  type: "InnerProduct"
  bottom: "pool5"
  top: "fc6"
  param {
    lr_mult: 1
    decay_mult: 1
  }
  param {
    lr_mult: 2
    decay_mult: 0
  }
  inner_product_param {
    num_output: 4096
    weight_filler {
      type: "gaussian"
      std: 0.005
    }
    bias_filler {
      type: "constant"
      value: 0.1
    }
  }
}
layer {
  name: "relu6"
  type: "ReLU"
  bottom: "fc6"
  top: "fc6"
}
layer {
  name: "drop6"
  type: "Dropout"
  bottom: "fc6"
  top: "fc6"
  dropout_param {
    dropout_ratio: 0.5
  }
}
layer {
  name: "fc7"
  type: "InnerProduct"
  bottom: "fc6"
  top: "fc7"
  param {
    lr_mult: 1
    decay_mult: 1
  }
  param {
    lr_mult: 2
    decay_mult: 0
  }
  inner_product_param {
    num_output: 4096
    weight_filler {
      type: "gaussian"
      std: 0.005
    }
    bias_filler {
      type: "constant"
      value: 0.1
    }
  }
}
layer {
  name: "relu7"
  type: "ReLU"
  bottom: "fc7"
  top: "fc7"
}
layer {
  name: "drop7"
  type: "Dropout"
  bottom: "fc7"
  top: "fc7"
  dropout_param {
    dropout_ratio: 0.5
  }
}
layer {
  name: "fc8_plantvillage"
  type: "InnerProduct"
  bottom: "fc7"
  top: "fc8_plantvillage"
  param {
    lr_mult: 1
    decay_mult: 1
  }
  param {
    lr_mult: 2
    decay_mult: 0
  }
  inner_product_param {
    num_output: 38
    weight_filler {
      type: "gaussian"
      std: 0.01
    }
    bias_filler {
      type: "constant"
      value: 0
    }
  }
}
layer {
  name: "prob"
  type: "Softmax"
  bottom: "fc8_plantvillage"
  top: "prob"
  include {
    phase: TEST
  }
}
layer {
  name: "hdf5out"
  type: "HDF5Output"
  bottom: "prob"
  bottom: "label"
  include {
    phase: TEST
  }
  hdf5_output_param {
    file_name: "hdf5_dumps/iter_6141.h5"
  }
}
layer {
  name: "loss"
  type: "SoftmaxWithLoss"
  bottom: "fc8_plantvillage"
  bottom: "label"
  top: "loss"
}
layer {
  name: "accuracy"
  type: "Accuracy"
  bottom: "fc8_plantvillage"
  bottom: "label"
  top: "accuracy"
  include {
    phase: TEST
  }
}
I0403 13:09:00.047250 10281 layer_factory.hpp:77] Creating layer data
I0403 13:09:00.047917 10281 net.cpp:91] Creating Layer data
I0403 13:09:00.047948 10281 net.cpp:399] data -> data
I0403 13:09:00.047999 10281 net.cpp:399] data -> label
I0403 13:09:00.048035 10281 data_transformer.cpp:25] Loading mean file from: /home/mohanty/data/final_dataset/lmdb/grayscale-50-50/mean.binaryproto
I0403 13:09:00.054914 10284 db_lmdb.cpp:38] Opened lmdb /home/mohanty/data/final_dataset/lmdb/grayscale-50-50/test_db
I0403 13:09:00.061897 10281 data_layer.cpp:41] output data size: 100,3,227,227
I0403 13:09:00.184784 10281 net.cpp:141] Setting up data
I0403 13:09:00.184844 10281 net.cpp:148] Top shape: 100 3 227 227 (15458700)
I0403 13:09:00.184865 10281 net.cpp:148] Top shape: 100 (100)
I0403 13:09:00.184880 10281 net.cpp:156] Memory required for data: 61835200
I0403 13:09:00.184908 10281 layer_factory.hpp:77] Creating layer label_data_1_split
I0403 13:09:00.184933 10281 net.cpp:91] Creating Layer label_data_1_split
I0403 13:09:00.184952 10281 net.cpp:425] label_data_1_split <- label
I0403 13:09:00.184983 10281 net.cpp:399] label_data_1_split -> label_data_1_split_0
I0403 13:09:00.185010 10281 net.cpp:399] label_data_1_split -> label_data_1_split_1
I0403 13:09:00.185031 10281 net.cpp:399] label_data_1_split -> label_data_1_split_2
I0403 13:09:00.185093 10281 net.cpp:141] Setting up label_data_1_split
I0403 13:09:00.185117 10281 net.cpp:148] Top shape: 100 (100)
I0403 13:09:00.185133 10281 net.cpp:148] Top shape: 100 (100)
I0403 13:09:00.185149 10281 net.cpp:148] Top shape: 100 (100)
I0403 13:09:00.185164 10281 net.cpp:156] Memory required for data: 61836400
I0403 13:09:00.185178 10281 layer_factory.hpp:77] Creating layer conv1
I0403 13:09:00.185210 10281 net.cpp:91] Creating Layer conv1
I0403 13:09:00.185230 10281 net.cpp:425] conv1 <- data
I0403 13:09:00.185248 10281 net.cpp:399] conv1 -> conv1
I0403 13:09:00.328233 10281 net.cpp:141] Setting up conv1
I0403 13:09:00.328318 10281 net.cpp:148] Top shape: 100 96 55 55 (29040000)
I0403 13:09:00.328336 10281 net.cpp:156] Memory required for data: 177996400
I0403 13:09:00.328366 10281 layer_factory.hpp:77] Creating layer relu1
I0403 13:09:00.328394 10281 net.cpp:91] Creating Layer relu1
I0403 13:09:00.328411 10281 net.cpp:425] relu1 <- conv1
I0403 13:09:00.328433 10281 net.cpp:386] relu1 -> conv1 (in-place)
I0403 13:09:00.328713 10281 net.cpp:141] Setting up relu1
I0403 13:09:00.328740 10281 net.cpp:148] Top shape: 100 96 55 55 (29040000)
I0403 13:09:00.328804 10281 net.cpp:156] Memory required for data: 294156400
I0403 13:09:00.328821 10281 layer_factory.hpp:77] Creating layer norm1
I0403 13:09:00.328850 10281 net.cpp:91] Creating Layer norm1
I0403 13:09:00.328867 10281 net.cpp:425] norm1 <- conv1
I0403 13:09:00.328887 10281 net.cpp:399] norm1 -> norm1
I0403 13:09:00.329210 10281 net.cpp:141] Setting up norm1
I0403 13:09:00.329236 10281 net.cpp:148] Top shape: 100 96 55 55 (29040000)
I0403 13:09:00.329252 10281 net.cpp:156] Memory required for data: 410316400
I0403 13:09:00.329267 10281 layer_factory.hpp:77] Creating layer pool1
I0403 13:09:00.329293 10281 net.cpp:91] Creating Layer pool1
I0403 13:09:00.329309 10281 net.cpp:425] pool1 <- norm1
I0403 13:09:00.329330 10281 net.cpp:399] pool1 -> pool1
I0403 13:09:00.329401 10281 net.cpp:141] Setting up pool1
I0403 13:09:00.329427 10281 net.cpp:148] Top shape: 100 96 27 27 (6998400)
I0403 13:09:00.329442 10281 net.cpp:156] Memory required for data: 438310000
I0403 13:09:00.329457 10281 layer_factory.hpp:77] Creating layer conv2
I0403 13:09:00.329483 10281 net.cpp:91] Creating Layer conv2
I0403 13:09:00.329499 10281 net.cpp:425] conv2 <- pool1
I0403 13:09:00.329522 10281 net.cpp:399] conv2 -> conv2
I0403 13:09:00.344745 10281 net.cpp:141] Setting up conv2
I0403 13:09:00.344794 10281 net.cpp:148] Top shape: 100 256 27 27 (18662400)
I0403 13:09:00.344810 10281 net.cpp:156] Memory required for data: 512959600
I0403 13:09:00.344833 10281 layer_factory.hpp:77] Creating layer relu2
I0403 13:09:00.344853 10281 net.cpp:91] Creating Layer relu2
I0403 13:09:00.344869 10281 net.cpp:425] relu2 <- conv2
I0403 13:09:00.344888 10281 net.cpp:386] relu2 -> conv2 (in-place)
I0403 13:09:00.345178 10281 net.cpp:141] Setting up relu2
I0403 13:09:00.345206 10281 net.cpp:148] Top shape: 100 256 27 27 (18662400)
I0403 13:09:00.345221 10281 net.cpp:156] Memory required for data: 587609200
I0403 13:09:00.345235 10281 layer_factory.hpp:77] Creating layer norm2
I0403 13:09:00.345258 10281 net.cpp:91] Creating Layer norm2
I0403 13:09:00.345276 10281 net.cpp:425] norm2 <- conv2
I0403 13:09:00.345296 10281 net.cpp:399] norm2 -> norm2
I0403 13:09:00.345548 10281 net.cpp:141] Setting up norm2
I0403 13:09:00.345576 10281 net.cpp:148] Top shape: 100 256 27 27 (18662400)
I0403 13:09:00.345592 10281 net.cpp:156] Memory required for data: 662258800
I0403 13:09:00.345605 10281 layer_factory.hpp:77] Creating layer pool2
I0403 13:09:00.345631 10281 net.cpp:91] Creating Layer pool2
I0403 13:09:00.345648 10281 net.cpp:425] pool2 <- norm2
I0403 13:09:00.345667 10281 net.cpp:399] pool2 -> pool2
I0403 13:09:00.345721 10281 net.cpp:141] Setting up pool2
I0403 13:09:00.345744 10281 net.cpp:148] Top shape: 100 256 13 13 (4326400)
I0403 13:09:00.345758 10281 net.cpp:156] Memory required for data: 679564400
I0403 13:09:00.345773 10281 layer_factory.hpp:77] Creating layer conv3
I0403 13:09:00.345798 10281 net.cpp:91] Creating Layer conv3
I0403 13:09:00.345814 10281 net.cpp:425] conv3 <- pool2
I0403 13:09:00.345832 10281 net.cpp:399] conv3 -> conv3
I0403 13:09:00.384295 10281 net.cpp:141] Setting up conv3
I0403 13:09:00.384369 10281 net.cpp:148] Top shape: 100 384 13 13 (6489600)
I0403 13:09:00.384387 10281 net.cpp:156] Memory required for data: 705522800
I0403 13:09:00.384412 10281 layer_factory.hpp:77] Creating layer relu3
I0403 13:09:00.384434 10281 net.cpp:91] Creating Layer relu3
I0403 13:09:00.384456 10281 net.cpp:425] relu3 <- conv3
I0403 13:09:00.384557 10281 net.cpp:386] relu3 -> conv3 (in-place)
I0403 13:09:00.384893 10281 net.cpp:141] Setting up relu3
I0403 13:09:00.384922 10281 net.cpp:148] Top shape: 100 384 13 13 (6489600)
I0403 13:09:00.384938 10281 net.cpp:156] Memory required for data: 731481200
I0403 13:09:00.384953 10281 layer_factory.hpp:77] Creating layer conv4
I0403 13:09:00.384977 10281 net.cpp:91] Creating Layer conv4
I0403 13:09:00.384995 10281 net.cpp:425] conv4 <- conv3
I0403 13:09:00.385016 10281 net.cpp:399] conv4 -> conv4
I0403 13:09:00.415632 10281 net.cpp:141] Setting up conv4
I0403 13:09:00.415704 10281 net.cpp:148] Top shape: 100 384 13 13 (6489600)
I0403 13:09:00.415756 10281 net.cpp:156] Memory required for data: 757439600
I0403 13:09:00.415779 10281 layer_factory.hpp:77] Creating layer relu4
I0403 13:09:00.415802 10281 net.cpp:91] Creating Layer relu4
I0403 13:09:00.415818 10281 net.cpp:425] relu4 <- conv4
I0403 13:09:00.415841 10281 net.cpp:386] relu4 -> conv4 (in-place)
I0403 13:09:00.416131 10281 net.cpp:141] Setting up relu4
I0403 13:09:00.416160 10281 net.cpp:148] Top shape: 100 384 13 13 (6489600)
I0403 13:09:00.416177 10281 net.cpp:156] Memory required for data: 783398000
I0403 13:09:00.416191 10281 layer_factory.hpp:77] Creating layer conv5
I0403 13:09:00.416218 10281 net.cpp:91] Creating Layer conv5
I0403 13:09:00.416235 10281 net.cpp:425] conv5 <- conv4
I0403 13:09:00.416254 10281 net.cpp:399] conv5 -> conv5
I0403 13:09:00.437279 10281 net.cpp:141] Setting up conv5
I0403 13:09:00.437333 10281 net.cpp:148] Top shape: 100 256 13 13 (4326400)
I0403 13:09:00.437350 10281 net.cpp:156] Memory required for data: 800703600
I0403 13:09:00.437374 10281 layer_factory.hpp:77] Creating layer relu5
I0403 13:09:00.437397 10281 net.cpp:91] Creating Layer relu5
I0403 13:09:00.437412 10281 net.cpp:425] relu5 <- conv5
I0403 13:09:00.437433 10281 net.cpp:386] relu5 -> conv5 (in-place)
I0403 13:09:00.437728 10281 net.cpp:141] Setting up relu5
I0403 13:09:00.437757 10281 net.cpp:148] Top shape: 100 256 13 13 (4326400)
I0403 13:09:00.437772 10281 net.cpp:156] Memory required for data: 818009200
I0403 13:09:00.437786 10281 layer_factory.hpp:77] Creating layer pool5
I0403 13:09:00.437819 10281 net.cpp:91] Creating Layer pool5
I0403 13:09:00.437837 10281 net.cpp:425] pool5 <- conv5
I0403 13:09:00.437855 10281 net.cpp:399] pool5 -> pool5
I0403 13:09:00.437919 10281 net.cpp:141] Setting up pool5
I0403 13:09:00.437942 10281 net.cpp:148] Top shape: 100 256 6 6 (921600)
I0403 13:09:00.437958 10281 net.cpp:156] Memory required for data: 821695600
I0403 13:09:00.437971 10281 layer_factory.hpp:77] Creating layer fc6
I0403 13:09:00.437997 10281 net.cpp:91] Creating Layer fc6
I0403 13:09:00.438014 10281 net.cpp:425] fc6 <- pool5
I0403 13:09:00.438036 10281 net.cpp:399] fc6 -> fc6
I0403 13:09:02.047976 10281 net.cpp:141] Setting up fc6
I0403 13:09:02.048058 10281 net.cpp:148] Top shape: 100 4096 (409600)
I0403 13:09:02.048074 10281 net.cpp:156] Memory required for data: 823334000
I0403 13:09:02.048095 10281 layer_factory.hpp:77] Creating layer relu6
I0403 13:09:02.048122 10281 net.cpp:91] Creating Layer relu6
I0403 13:09:02.048141 10281 net.cpp:425] relu6 <- fc6
I0403 13:09:02.048161 10281 net.cpp:386] relu6 -> fc6 (in-place)
I0403 13:09:02.048395 10281 net.cpp:141] Setting up relu6
I0403 13:09:02.048421 10281 net.cpp:148] Top shape: 100 4096 (409600)
I0403 13:09:02.048435 10281 net.cpp:156] Memory required for data: 824972400
I0403 13:09:02.048449 10281 layer_factory.hpp:77] Creating layer drop6
I0403 13:09:02.048468 10281 net.cpp:91] Creating Layer drop6
I0403 13:09:02.048483 10281 net.cpp:425] drop6 <- fc6
I0403 13:09:02.048511 10281 net.cpp:386] drop6 -> fc6 (in-place)
I0403 13:09:02.048566 10281 net.cpp:141] Setting up drop6
I0403 13:09:02.048593 10281 net.cpp:148] Top shape: 100 4096 (409600)
I0403 13:09:02.048609 10281 net.cpp:156] Memory required for data: 826610800
I0403 13:09:02.048624 10281 layer_factory.hpp:77] Creating layer fc7
I0403 13:09:02.048645 10281 net.cpp:91] Creating Layer fc7
I0403 13:09:02.048660 10281 net.cpp:425] fc7 <- fc6
I0403 13:09:02.048679 10281 net.cpp:399] fc7 -> fc7
I0403 13:09:02.758570 10281 net.cpp:141] Setting up fc7
I0403 13:09:02.758623 10281 net.cpp:148] Top shape: 100 4096 (409600)
I0403 13:09:02.758641 10281 net.cpp:156] Memory required for data: 828249200
I0403 13:09:02.758661 10281 layer_factory.hpp:77] Creating layer relu7
I0403 13:09:02.758684 10281 net.cpp:91] Creating Layer relu7
I0403 13:09:02.758702 10281 net.cpp:425] relu7 <- fc7
I0403 13:09:02.758723 10281 net.cpp:386] relu7 -> fc7 (in-place)
I0403 13:09:02.759140 10281 net.cpp:141] Setting up relu7
I0403 13:09:02.759166 10281 net.cpp:148] Top shape: 100 4096 (409600)
I0403 13:09:02.759222 10281 net.cpp:156] Memory required for data: 829887600
I0403 13:09:02.759237 10281 layer_factory.hpp:77] Creating layer drop7
I0403 13:09:02.759254 10281 net.cpp:91] Creating Layer drop7
I0403 13:09:02.759269 10281 net.cpp:425] drop7 <- fc7
I0403 13:09:02.759289 10281 net.cpp:386] drop7 -> fc7 (in-place)
I0403 13:09:02.759331 10281 net.cpp:141] Setting up drop7
I0403 13:09:02.759353 10281 net.cpp:148] Top shape: 100 4096 (409600)
I0403 13:09:02.759367 10281 net.cpp:156] Memory required for data: 831526000
I0403 13:09:02.759380 10281 layer_factory.hpp:77] Creating layer fc8_plantvillage
I0403 13:09:02.759402 10281 net.cpp:91] Creating Layer fc8_plantvillage
I0403 13:09:02.759418 10281 net.cpp:425] fc8_plantvillage <- fc7
I0403 13:09:02.759436 10281 net.cpp:399] fc8_plantvillage -> fc8_plantvillage
I0403 13:09:02.766191 10281 net.cpp:141] Setting up fc8_plantvillage
I0403 13:09:02.766221 10281 net.cpp:148] Top shape: 100 38 (3800)
I0403 13:09:02.766235 10281 net.cpp:156] Memory required for data: 831541200
I0403 13:09:02.766252 10281 layer_factory.hpp:77] Creating layer fc8_plantvillage_fc8_plantvillage_0_split
I0403 13:09:02.766269 10281 net.cpp:91] Creating Layer fc8_plantvillage_fc8_plantvillage_0_split
I0403 13:09:02.766283 10281 net.cpp:425] fc8_plantvillage_fc8_plantvillage_0_split <- fc8_plantvillage
I0403 13:09:02.766302 10281 net.cpp:399] fc8_plantvillage_fc8_plantvillage_0_split -> fc8_plantvillage_fc8_plantvillage_0_split_0
I0403 13:09:02.766322 10281 net.cpp:399] fc8_plantvillage_fc8_plantvillage_0_split -> fc8_plantvillage_fc8_plantvillage_0_split_1
I0403 13:09:02.766342 10281 net.cpp:399] fc8_plantvillage_fc8_plantvillage_0_split -> fc8_plantvillage_fc8_plantvillage_0_split_2
I0403 13:09:02.766418 10281 net.cpp:141] Setting up fc8_plantvillage_fc8_plantvillage_0_split
I0403 13:09:02.766441 10281 net.cpp:148] Top shape: 100 38 (3800)
I0403 13:09:02.766456 10281 net.cpp:148] Top shape: 100 38 (3800)
I0403 13:09:02.766470 10281 net.cpp:148] Top shape: 100 38 (3800)
I0403 13:09:02.766484 10281 net.cpp:156] Memory required for data: 831586800
I0403 13:09:02.766499 10281 layer_factory.hpp:77] Creating layer prob
I0403 13:09:02.766521 10281 net.cpp:91] Creating Layer prob
I0403 13:09:02.766537 10281 net.cpp:425] prob <- fc8_plantvillage_fc8_plantvillage_0_split_0
I0403 13:09:02.766557 10281 net.cpp:399] prob -> prob
I0403 13:09:02.766796 10281 net.cpp:141] Setting up prob
I0403 13:09:02.766821 10281 net.cpp:148] Top shape: 100 38 (3800)
I0403 13:09:02.766836 10281 net.cpp:156] Memory required for data: 831602000
I0403 13:09:02.766850 10281 layer_factory.hpp:77] Creating layer hdf5out
I0403 13:09:02.766870 10281 net.cpp:91] Creating Layer hdf5out
I0403 13:09:02.766885 10281 net.cpp:425] hdf5out <- prob
I0403 13:09:02.766911 10281 net.cpp:425] hdf5out <- label_data_1_split_0
I0403 13:09:02.769439 10281 net.cpp:141] Setting up hdf5out
…
