…
I0403 13:08:02.635012 10240 net.cpp:313] The NetState phase (1) differed from the phase (0) specified by a rule in layer data
I0403 13:08:02.635321 10240 net.cpp:49] Initializing net from parameters: 
state {
  phase: TEST
}
layer {
  name: "data"
  type: "Data"
  top: "data"
  top: "label"
  include {
    phase: TEST
  }
  transform_param {
    crop_size: 227
    mean_file: "/home/mohanty/data/final_dataset/lmdb/grayscale-50-50/mean.binaryproto"
  }
  data_param {
    source: "/home/mohanty/data/final_dataset/lmdb/grayscale-50-50/test_db"
    batch_size: 100
    backend: LMDB
  }
}
layer {
  name: "conv1"
  type: "Convolution"
  bottom: "data"
  top: "conv1"
  param {
    lr_mult: 1
    decay_mult: 1
  }
  param {
    lr_mult: 2
    decay_mult: 0
  }
  convolution_param {
    num_output: 96
    kernel_size: 11
    stride: 4
    weight_filler {
      type: "gaussian"
      std: 0.01
    }
    bias_filler {
      type: "constant"
      value: 0
    }
  }
}
layer {
  name: "relu1"
  type: "ReLU"
  bottom: "conv1"
  top: "conv1"
}
layer {
  name: "norm1"
  type: "LRN"
  bottom: "conv1"
  top: "norm1"
  lrn_param {
    local_size: 5
    alpha: 0.0001
    beta: 0.75
  }
}
layer {
  name: "pool1"
  type: "Pooling"
  bottom: "norm1"
  top: "pool1"
  pooling_param {
    pool: MAX
    kernel_size: 3
    stride: 2
  }
}
layer {
  name: "conv2"
  type: "Convolution"
  bottom: "pool1"
  top: "conv2"
  param {
    lr_mult: 1
    decay_mult: 1
  }
  param {
    lr_mult: 2
    decay_mult: 0
  }
  convolution_param {
    num_output: 256
    pad: 2
    kernel_size: 5
    group: 2
    weight_filler {
      type: "gaussian"
      std: 0.01
    }
    bias_filler {
      type: "constant"
      value: 0.1
    }
  }
}
layer {
  name: "relu2"
  type: "ReLU"
  bottom: "conv2"
  top: "conv2"
}
layer {
  name: "norm2"
  type: "LRN"
  bottom: "conv2"
  top: "norm2"
  lrn_param {
    local_size: 5
    alpha: 0.0001
    beta: 0.75
  }
}
layer {
  name: "pool2"
  type: "Pooling"
  bottom: "norm2"
  top: "pool2"
  pooling_param {
    pool: MAX
    kernel_size: 3
    stride: 2
  }
}
layer {
  name: "conv3"
  type: "Convolution"
  bottom: "pool2"
  top: "conv3"
  param {
    lr_mult: 1
    decay_mult: 1
  }
  param {
    lr_mult: 2
    decay_mult: 0
  }
  convolution_param {
    num_output: 384
    pad: 1
    kernel_size: 3
    weight_filler {
      type: "gaussian"
      std: 0.01
    }
    bias_filler {
      type: "constant"
      value: 0
    }
  }
}
layer {
  name: "relu3"
  type: "ReLU"
  bottom: "conv3"
  top: "conv3"
}
layer {
  name: "conv4"
  type: "Convolution"
  bottom: "conv3"
  top: "conv4"
  param {
    lr_mult: 1
    decay_mult: 1
  }
  param {
    lr_mult: 2
    decay_mult: 0
  }
  convolution_param {
    num_output: 384
    pad: 1
    kernel_size: 3
    group: 2
    weight_filler {
      type: "gaussian"
      std: 0.01
    }
    bias_filler {
      type: "constant"
      value: 0.1
    }
  }
}
layer {
  name: "relu4"
  type: "ReLU"
  bottom: "conv4"
  top: "conv4"
}
layer {
  name: "conv5"
  type: "Convolution"
  bottom: "conv4"
  top: "conv5"
  param {
    lr_mult: 1
    decay_mult: 1
  }
  param {
    lr_mult: 2
    decay_mult: 0
  }
  convolution_param {
    num_output: 256
    pad: 1
    kernel_size: 3
    group: 2
    weight_filler {
      type: "gaussian"
      std: 0.01
    }
    bias_filler {
      type: "constant"
      value: 0.1
    }
  }
}
layer {
  name: "relu5"
  type: "ReLU"
  bottom: "conv5"
  top: "conv5"
}
layer {
  name: "pool5"
  type: "Pooling"
  bottom: "conv5"
  top: "pool5"
  pooling_param {
    pool: MAX
    kernel_size: 3
    stride: 2
  }
}
layer {
  name: "fc6"
  type: "InnerProduct"
  bottom: "pool5"
  top: "fc6"
  param {
    lr_mult: 1
    decay_mult: 1
  }
  param {
    lr_mult: 2
    decay_mult: 0
  }
  inner_product_param {
    num_output: 4096
    weight_filler {
      type: "gaussian"
      std: 0.005
    }
    bias_filler {
      type: "constant"
      value: 0.1
    }
  }
}
layer {
  name: "relu6"
  type: "ReLU"
  bottom: "fc6"
  top: "fc6"
}
layer {
  name: "drop6"
  type: "Dropout"
  bottom: "fc6"
  top: "fc6"
  dropout_param {
    dropout_ratio: 0.5
  }
}
layer {
  name: "fc7"
  type: "InnerProduct"
  bottom: "fc6"
  top: "fc7"
  param {
    lr_mult: 1
    decay_mult: 1
  }
  param {
    lr_mult: 2
    decay_mult: 0
  }
  inner_product_param {
    num_output: 4096
    weight_filler {
      type: "gaussian"
      std: 0.005
    }
    bias_filler {
      type: "constant"
      value: 0.1
    }
  }
}
layer {
  name: "relu7"
  type: "ReLU"
  bottom: "fc7"
  top: "fc7"
}
layer {
  name: "drop7"
  type: "Dropout"
  bottom: "fc7"
  top: "fc7"
  dropout_param {
    dropout_ratio: 0.5
  }
}
layer {
  name: "fc8_plantvillage"
  type: "InnerProduct"
  bottom: "fc7"
  top: "fc8_plantvillage"
  param {
    lr_mult: 1
    decay_mult: 1
  }
  param {
    lr_mult: 2
    decay_mult: 0
  }
  inner_product_param {
    num_output: 38
    weight_filler {
      type: "gaussian"
      std: 0.01
    }
    bias_filler {
      type: "constant"
      value: 0
    }
  }
}
layer {
  name: "prob"
  type: "Softmax"
  bottom: "fc8_plantvillage"
  top: "prob"
  include {
    phase: TEST
  }
}
layer {
  name: "hdf5out"
  type: "HDF5Output"
  bottom: "prob"
  bottom: "label"
  include {
    phase: TEST
  }
  hdf5_output_param {
    file_name: "hdf5_dumps/iter_5874.h5"
  }
}
layer {
  name: "loss"
  type: "SoftmaxWithLoss"
  bottom: "fc8_plantvillage"
  bottom: "label"
  top: "loss"
}
layer {
  name: "accuracy"
  type: "Accuracy"
  bottom: "fc8_plantvillage"
  bottom: "label"
  top: "accuracy"
  include {
    phase: TEST
  }
}
I0403 13:08:02.635870 10240 layer_factory.hpp:77] Creating layer data
I0403 13:08:02.636529 10240 net.cpp:91] Creating Layer data
I0403 13:08:02.636564 10240 net.cpp:399] data -> data
I0403 13:08:02.636620 10240 net.cpp:399] data -> label
I0403 13:08:02.636656 10240 data_transformer.cpp:25] Loading mean file from: /home/mohanty/data/final_dataset/lmdb/grayscale-50-50/mean.binaryproto
I0403 13:08:02.637831 10243 db_lmdb.cpp:38] Opened lmdb /home/mohanty/data/final_dataset/lmdb/grayscale-50-50/test_db
I0403 13:08:02.651391 10240 data_layer.cpp:41] output data size: 100,3,227,227
I0403 13:08:02.770943 10240 net.cpp:141] Setting up data
I0403 13:08:02.771035 10240 net.cpp:148] Top shape: 100 3 227 227 (15458700)
I0403 13:08:02.771057 10240 net.cpp:148] Top shape: 100 (100)
I0403 13:08:02.771072 10240 net.cpp:156] Memory required for data: 61835200
I0403 13:08:02.771102 10240 layer_factory.hpp:77] Creating layer label_data_1_split
I0403 13:08:02.771128 10240 net.cpp:91] Creating Layer label_data_1_split
I0403 13:08:02.771147 10240 net.cpp:425] label_data_1_split <- label
I0403 13:08:02.771179 10240 net.cpp:399] label_data_1_split -> label_data_1_split_0
I0403 13:08:02.771205 10240 net.cpp:399] label_data_1_split -> label_data_1_split_1
I0403 13:08:02.771226 10240 net.cpp:399] label_data_1_split -> label_data_1_split_2
I0403 13:08:02.771289 10240 net.cpp:141] Setting up label_data_1_split
I0403 13:08:02.771313 10240 net.cpp:148] Top shape: 100 (100)
I0403 13:08:02.771330 10240 net.cpp:148] Top shape: 100 (100)
I0403 13:08:02.771345 10240 net.cpp:148] Top shape: 100 (100)
I0403 13:08:02.771359 10240 net.cpp:156] Memory required for data: 61836400
I0403 13:08:02.771374 10240 layer_factory.hpp:77] Creating layer conv1
I0403 13:08:02.771406 10240 net.cpp:91] Creating Layer conv1
I0403 13:08:02.771425 10240 net.cpp:425] conv1 <- data
I0403 13:08:02.771443 10240 net.cpp:399] conv1 -> conv1
I0403 13:08:02.912637 10240 net.cpp:141] Setting up conv1
I0403 13:08:02.912715 10240 net.cpp:148] Top shape: 100 96 55 55 (29040000)
I0403 13:08:02.912735 10240 net.cpp:156] Memory required for data: 177996400
I0403 13:08:02.912766 10240 layer_factory.hpp:77] Creating layer relu1
I0403 13:08:02.912794 10240 net.cpp:91] Creating Layer relu1
I0403 13:08:02.912813 10240 net.cpp:425] relu1 <- conv1
I0403 13:08:02.912832 10240 net.cpp:386] relu1 -> conv1 (in-place)
I0403 13:08:02.913151 10240 net.cpp:141] Setting up relu1
I0403 13:08:02.913179 10240 net.cpp:148] Top shape: 100 96 55 55 (29040000)
I0403 13:08:02.913233 10240 net.cpp:156] Memory required for data: 294156400
I0403 13:08:02.913251 10240 layer_factory.hpp:77] Creating layer norm1
I0403 13:08:02.913280 10240 net.cpp:91] Creating Layer norm1
I0403 13:08:02.913298 10240 net.cpp:425] norm1 <- conv1
I0403 13:08:02.913316 10240 net.cpp:399] norm1 -> norm1
I0403 13:08:02.913646 10240 net.cpp:141] Setting up norm1
I0403 13:08:02.913676 10240 net.cpp:148] Top shape: 100 96 55 55 (29040000)
I0403 13:08:02.913693 10240 net.cpp:156] Memory required for data: 410316400
I0403 13:08:02.913709 10240 layer_factory.hpp:77] Creating layer pool1
I0403 13:08:02.913733 10240 net.cpp:91] Creating Layer pool1
I0403 13:08:02.913750 10240 net.cpp:425] pool1 <- norm1
I0403 13:08:02.913769 10240 net.cpp:399] pool1 -> pool1
I0403 13:08:02.913836 10240 net.cpp:141] Setting up pool1
I0403 13:08:02.913861 10240 net.cpp:148] Top shape: 100 96 27 27 (6998400)
I0403 13:08:02.913877 10240 net.cpp:156] Memory required for data: 438310000
I0403 13:08:02.913892 10240 layer_factory.hpp:77] Creating layer conv2
I0403 13:08:02.913918 10240 net.cpp:91] Creating Layer conv2
I0403 13:08:02.913933 10240 net.cpp:425] conv2 <- pool1
I0403 13:08:02.913952 10240 net.cpp:399] conv2 -> conv2
I0403 13:08:02.929601 10240 net.cpp:141] Setting up conv2
I0403 13:08:02.929657 10240 net.cpp:148] Top shape: 100 256 27 27 (18662400)
I0403 13:08:02.929675 10240 net.cpp:156] Memory required for data: 512959600
I0403 13:08:02.929699 10240 layer_factory.hpp:77] Creating layer relu2
I0403 13:08:02.929721 10240 net.cpp:91] Creating Layer relu2
I0403 13:08:02.929739 10240 net.cpp:425] relu2 <- conv2
I0403 13:08:02.929759 10240 net.cpp:386] relu2 -> conv2 (in-place)
I0403 13:08:02.930037 10240 net.cpp:141] Setting up relu2
I0403 13:08:02.930065 10240 net.cpp:148] Top shape: 100 256 27 27 (18662400)
I0403 13:08:02.930083 10240 net.cpp:156] Memory required for data: 587609200
I0403 13:08:02.930099 10240 layer_factory.hpp:77] Creating layer norm2
I0403 13:08:02.930121 10240 net.cpp:91] Creating Layer norm2
I0403 13:08:02.930138 10240 net.cpp:425] norm2 <- conv2
I0403 13:08:02.930157 10240 net.cpp:399] norm2 -> norm2
I0403 13:08:02.930347 10240 net.cpp:141] Setting up norm2
I0403 13:08:02.930374 10240 net.cpp:148] Top shape: 100 256 27 27 (18662400)
I0403 13:08:02.930390 10240 net.cpp:156] Memory required for data: 662258800
I0403 13:08:02.930405 10240 layer_factory.hpp:77] Creating layer pool2
I0403 13:08:02.930424 10240 net.cpp:91] Creating Layer pool2
I0403 13:08:02.930440 10240 net.cpp:425] pool2 <- norm2
I0403 13:08:02.930459 10240 net.cpp:399] pool2 -> pool2
I0403 13:08:02.930510 10240 net.cpp:141] Setting up pool2
I0403 13:08:02.930533 10240 net.cpp:148] Top shape: 100 256 13 13 (4326400)
I0403 13:08:02.930554 10240 net.cpp:156] Memory required for data: 679564400
I0403 13:08:02.930569 10240 layer_factory.hpp:77] Creating layer conv3
I0403 13:08:02.930593 10240 net.cpp:91] Creating Layer conv3
I0403 13:08:02.930611 10240 net.cpp:425] conv3 <- pool2
I0403 13:08:02.930630 10240 net.cpp:399] conv3 -> conv3
I0403 13:08:02.969491 10240 net.cpp:141] Setting up conv3
I0403 13:08:02.969573 10240 net.cpp:148] Top shape: 100 384 13 13 (6489600)
I0403 13:08:02.969590 10240 net.cpp:156] Memory required for data: 705522800
I0403 13:08:02.969616 10240 layer_factory.hpp:77] Creating layer relu3
I0403 13:08:02.969640 10240 net.cpp:91] Creating Layer relu3
I0403 13:08:02.969658 10240 net.cpp:425] relu3 <- conv3
I0403 13:08:02.969678 10240 net.cpp:386] relu3 -> conv3 (in-place)
I0403 13:08:02.969947 10240 net.cpp:141] Setting up relu3
I0403 13:08:02.969974 10240 net.cpp:148] Top shape: 100 384 13 13 (6489600)
I0403 13:08:02.969990 10240 net.cpp:156] Memory required for data: 731481200
I0403 13:08:02.970005 10240 layer_factory.hpp:77] Creating layer conv4
I0403 13:08:02.970069 10240 net.cpp:91] Creating Layer conv4
I0403 13:08:02.970089 10240 net.cpp:425] conv4 <- conv3
I0403 13:08:02.970109 10240 net.cpp:399] conv4 -> conv4
I0403 13:08:03.000294 10240 net.cpp:141] Setting up conv4
I0403 13:08:03.000368 10240 net.cpp:148] Top shape: 100 384 13 13 (6489600)
I0403 13:08:03.000419 10240 net.cpp:156] Memory required for data: 757439600
I0403 13:08:03.000442 10240 layer_factory.hpp:77] Creating layer relu4
I0403 13:08:03.000465 10240 net.cpp:91] Creating Layer relu4
I0403 13:08:03.000483 10240 net.cpp:425] relu4 <- conv4
I0403 13:08:03.000501 10240 net.cpp:386] relu4 -> conv4 (in-place)
I0403 13:08:03.000793 10240 net.cpp:141] Setting up relu4
I0403 13:08:03.000823 10240 net.cpp:148] Top shape: 100 384 13 13 (6489600)
I0403 13:08:03.000838 10240 net.cpp:156] Memory required for data: 783398000
I0403 13:08:03.000854 10240 layer_factory.hpp:77] Creating layer conv5
I0403 13:08:03.000880 10240 net.cpp:91] Creating Layer conv5
I0403 13:08:03.000896 10240 net.cpp:425] conv5 <- conv4
I0403 13:08:03.000915 10240 net.cpp:399] conv5 -> conv5
I0403 13:08:03.021704 10240 net.cpp:141] Setting up conv5
I0403 13:08:03.021762 10240 net.cpp:148] Top shape: 100 256 13 13 (4326400)
I0403 13:08:03.021780 10240 net.cpp:156] Memory required for data: 800703600
I0403 13:08:03.021806 10240 layer_factory.hpp:77] Creating layer relu5
I0403 13:08:03.021826 10240 net.cpp:91] Creating Layer relu5
I0403 13:08:03.021857 10240 net.cpp:425] relu5 <- conv5
I0403 13:08:03.021878 10240 net.cpp:386] relu5 -> conv5 (in-place)
I0403 13:08:03.022173 10240 net.cpp:141] Setting up relu5
I0403 13:08:03.022199 10240 net.cpp:148] Top shape: 100 256 13 13 (4326400)
I0403 13:08:03.022215 10240 net.cpp:156] Memory required for data: 818009200
I0403 13:08:03.022229 10240 layer_factory.hpp:77] Creating layer pool5
I0403 13:08:03.022254 10240 net.cpp:91] Creating Layer pool5
I0403 13:08:03.022272 10240 net.cpp:425] pool5 <- conv5
I0403 13:08:03.022289 10240 net.cpp:399] pool5 -> pool5
I0403 13:08:03.022349 10240 net.cpp:141] Setting up pool5
I0403 13:08:03.022372 10240 net.cpp:148] Top shape: 100 256 6 6 (921600)
I0403 13:08:03.022387 10240 net.cpp:156] Memory required for data: 821695600
I0403 13:08:03.022400 10240 layer_factory.hpp:77] Creating layer fc6
I0403 13:08:03.022426 10240 net.cpp:91] Creating Layer fc6
I0403 13:08:03.022444 10240 net.cpp:425] fc6 <- pool5
I0403 13:08:03.022464 10240 net.cpp:399] fc6 -> fc6
I0403 13:08:04.581543 10240 net.cpp:141] Setting up fc6
I0403 13:08:04.581586 10240 net.cpp:148] Top shape: 100 4096 (409600)
I0403 13:08:04.581603 10240 net.cpp:156] Memory required for data: 823334000
I0403 13:08:04.581624 10240 layer_factory.hpp:77] Creating layer relu6
I0403 13:08:04.581645 10240 net.cpp:91] Creating Layer relu6
I0403 13:08:04.581662 10240 net.cpp:425] relu6 <- fc6
I0403 13:08:04.581681 10240 net.cpp:386] relu6 -> fc6 (in-place)
I0403 13:08:04.581892 10240 net.cpp:141] Setting up relu6
I0403 13:08:04.581918 10240 net.cpp:148] Top shape: 100 4096 (409600)
I0403 13:08:04.581933 10240 net.cpp:156] Memory required for data: 824972400
I0403 13:08:04.581948 10240 layer_factory.hpp:77] Creating layer drop6
I0403 13:08:04.581966 10240 net.cpp:91] Creating Layer drop6
I0403 13:08:04.581981 10240 net.cpp:425] drop6 <- fc6
I0403 13:08:04.582000 10240 net.cpp:386] drop6 -> fc6 (in-place)
I0403 13:08:04.582047 10240 net.cpp:141] Setting up drop6
I0403 13:08:04.582082 10240 net.cpp:148] Top shape: 100 4096 (409600)
I0403 13:08:04.582095 10240 net.cpp:156] Memory required for data: 826610800
I0403 13:08:04.582110 10240 layer_factory.hpp:77] Creating layer fc7
I0403 13:08:04.582132 10240 net.cpp:91] Creating Layer fc7
I0403 13:08:04.582149 10240 net.cpp:425] fc7 <- fc6
I0403 13:08:04.582167 10240 net.cpp:399] fc7 -> fc7
I0403 13:08:05.265704 10240 net.cpp:141] Setting up fc7
I0403 13:08:05.265784 10240 net.cpp:148] Top shape: 100 4096 (409600)
I0403 13:08:05.265801 10240 net.cpp:156] Memory required for data: 828249200
I0403 13:08:05.265823 10240 layer_factory.hpp:77] Creating layer relu7
I0403 13:08:05.265846 10240 net.cpp:91] Creating Layer relu7
I0403 13:08:05.265866 10240 net.cpp:425] relu7 <- fc7
I0403 13:08:05.265887 10240 net.cpp:386] relu7 -> fc7 (in-place)
I0403 13:08:05.266314 10240 net.cpp:141] Setting up relu7
I0403 13:08:05.266341 10240 net.cpp:148] Top shape: 100 4096 (409600)
I0403 13:08:05.266398 10240 net.cpp:156] Memory required for data: 829887600
I0403 13:08:05.266415 10240 layer_factory.hpp:77] Creating layer drop7
I0403 13:08:05.266434 10240 net.cpp:91] Creating Layer drop7
I0403 13:08:05.266450 10240 net.cpp:425] drop7 <- fc7
I0403 13:08:05.266471 10240 net.cpp:386] drop7 -> fc7 (in-place)
I0403 13:08:05.266516 10240 net.cpp:141] Setting up drop7
I0403 13:08:05.266542 10240 net.cpp:148] Top shape: 100 4096 (409600)
I0403 13:08:05.266563 10240 net.cpp:156] Memory required for data: 831526000
I0403 13:08:05.266578 10240 layer_factory.hpp:77] Creating layer fc8_plantvillage
I0403 13:08:05.266598 10240 net.cpp:91] Creating Layer fc8_plantvillage
I0403 13:08:05.266614 10240 net.cpp:425] fc8_plantvillage <- fc7
I0403 13:08:05.266634 10240 net.cpp:399] fc8_plantvillage -> fc8_plantvillage
I0403 13:08:05.273418 10240 net.cpp:141] Setting up fc8_plantvillage
I0403 13:08:05.273459 10240 net.cpp:148] Top shape: 100 38 (3800)
I0403 13:08:05.273474 10240 net.cpp:156] Memory required for data: 831541200
I0403 13:08:05.273493 10240 layer_factory.hpp:77] Creating layer fc8_plantvillage_fc8_plantvillage_0_split
I0403 13:08:05.273511 10240 net.cpp:91] Creating Layer fc8_plantvillage_fc8_plantvillage_0_split
I0403 13:08:05.273527 10240 net.cpp:425] fc8_plantvillage_fc8_plantvillage_0_split <- fc8_plantvillage
I0403 13:08:05.273552 10240 net.cpp:399] fc8_plantvillage_fc8_plantvillage_0_split -> fc8_plantvillage_fc8_plantvillage_0_split_0
I0403 13:08:05.273574 10240 net.cpp:399] fc8_plantvillage_fc8_plantvillage_0_split -> fc8_plantvillage_fc8_plantvillage_0_split_1
I0403 13:08:05.273602 10240 net.cpp:399] fc8_plantvillage_fc8_plantvillage_0_split -> fc8_plantvillage_fc8_plantvillage_0_split_2
I0403 13:08:05.273680 10240 net.cpp:141] Setting up fc8_plantvillage_fc8_plantvillage_0_split
I0403 13:08:05.273705 10240 net.cpp:148] Top shape: 100 38 (3800)
I0403 13:08:05.273722 10240 net.cpp:148] Top shape: 100 38 (3800)
I0403 13:08:05.273738 10240 net.cpp:148] Top shape: 100 38 (3800)
I0403 13:08:05.273751 10240 net.cpp:156] Memory required for data: 831586800
I0403 13:08:05.273766 10240 layer_factory.hpp:77] Creating layer prob
I0403 13:08:05.273783 10240 net.cpp:91] Creating Layer prob
I0403 13:08:05.273798 10240 net.cpp:425] prob <- fc8_plantvillage_fc8_plantvillage_0_split_0
I0403 13:08:05.273816 10240 net.cpp:399] prob -> prob
I0403 13:08:05.274058 10240 net.cpp:141] Setting up prob
I0403 13:08:05.274085 10240 net.cpp:148] Top shape: 100 38 (3800)
I0403 13:08:05.274101 10240 net.cpp:156] Memory required for data: 831602000
I0403 13:08:05.274114 10240 layer_factory.hpp:77] Creating layer hdf5out
I0403 13:08:05.274133 10240 net.cpp:91] Creating Layer hdf5out
I0403 13:08:05.274149 10240 net.cpp:425] hdf5out <- prob
I0403 13:08:05.274165 10240 net.cpp:425] hdf5out <- label_data_1_split_0
I0403 13:08:05.276589 10240 net.cpp:141] Setting up hdf5out
…
