…
I0403 12:47:59.182121  9669 net.cpp:313] The NetState phase (1) differed from the phase (0) specified by a rule in layer data
I0403 12:47:59.182400  9669 net.cpp:49] Initializing net from parameters: 
state {
  phase: TEST
}
layer {
  name: "data"
  type: "Data"
  top: "data"
  top: "label"
  include {
    phase: TEST
  }
  transform_param {
    crop_size: 227
    mean_file: "/home/mohanty/data/final_dataset/lmdb/grayscale-50-50/mean.binaryproto"
  }
  data_param {
    source: "/home/mohanty/data/final_dataset/lmdb/grayscale-50-50/test_db"
    batch_size: 100
    backend: LMDB
  }
}
layer {
  name: "conv1"
  type: "Convolution"
  bottom: "data"
  top: "conv1"
  param {
    lr_mult: 1
    decay_mult: 1
  }
  param {
    lr_mult: 2
    decay_mult: 0
  }
  convolution_param {
    num_output: 96
    kernel_size: 11
    stride: 4
    weight_filler {
      type: "gaussian"
      std: 0.01
    }
    bias_filler {
      type: "constant"
      value: 0
    }
  }
}
layer {
  name: "relu1"
  type: "ReLU"
  bottom: "conv1"
  top: "conv1"
}
layer {
  name: "norm1"
  type: "LRN"
  bottom: "conv1"
  top: "norm1"
  lrn_param {
    local_size: 5
    alpha: 0.0001
    beta: 0.75
  }
}
layer {
  name: "pool1"
  type: "Pooling"
  bottom: "norm1"
  top: "pool1"
  pooling_param {
    pool: MAX
    kernel_size: 3
    stride: 2
  }
}
layer {
  name: "conv2"
  type: "Convolution"
  bottom: "pool1"
  top: "conv2"
  param {
    lr_mult: 1
    decay_mult: 1
  }
  param {
    lr_mult: 2
    decay_mult: 0
  }
  convolution_param {
    num_output: 256
    pad: 2
    kernel_size: 5
    group: 2
    weight_filler {
      type: "gaussian"
      std: 0.01
    }
    bias_filler {
      type: "constant"
      value: 0.1
    }
  }
}
layer {
  name: "relu2"
  type: "ReLU"
  bottom: "conv2"
  top: "conv2"
}
layer {
  name: "norm2"
  type: "LRN"
  bottom: "conv2"
  top: "norm2"
  lrn_param {
    local_size: 5
    alpha: 0.0001
    beta: 0.75
  }
}
layer {
  name: "pool2"
  type: "Pooling"
  bottom: "norm2"
  top: "pool2"
  pooling_param {
    pool: MAX
    kernel_size: 3
    stride: 2
  }
}
layer {
  name: "conv3"
  type: "Convolution"
  bottom: "pool2"
  top: "conv3"
  param {
    lr_mult: 1
    decay_mult: 1
  }
  param {
    lr_mult: 2
    decay_mult: 0
  }
  convolution_param {
    num_output: 384
    pad: 1
    kernel_size: 3
    weight_filler {
      type: "gaussian"
      std: 0.01
    }
    bias_filler {
      type: "constant"
      value: 0
    }
  }
}
layer {
  name: "relu3"
  type: "ReLU"
  bottom: "conv3"
  top: "conv3"
}
layer {
  name: "conv4"
  type: "Convolution"
  bottom: "conv3"
  top: "conv4"
  param {
    lr_mult: 1
    decay_mult: 1
  }
  param {
    lr_mult: 2
    decay_mult: 0
  }
  convolution_param {
    num_output: 384
    pad: 1
    kernel_size: 3
    group: 2
    weight_filler {
      type: "gaussian"
      std: 0.01
    }
    bias_filler {
      type: "constant"
      value: 0.1
    }
  }
}
layer {
  name: "relu4"
  type: "ReLU"
  bottom: "conv4"
  top: "conv4"
}
layer {
  name: "conv5"
  type: "Convolution"
  bottom: "conv4"
  top: "conv5"
  param {
    lr_mult: 1
    decay_mult: 1
  }
  param {
    lr_mult: 2
    decay_mult: 0
  }
  convolution_param {
    num_output: 256
    pad: 1
    kernel_size: 3
    group: 2
    weight_filler {
      type: "gaussian"
      std: 0.01
    }
    bias_filler {
      type: "constant"
      value: 0.1
    }
  }
}
layer {
  name: "relu5"
  type: "ReLU"
  bottom: "conv5"
  top: "conv5"
}
layer {
  name: "pool5"
  type: "Pooling"
  bottom: "conv5"
  top: "pool5"
  pooling_param {
    pool: MAX
    kernel_size: 3
    stride: 2
  }
}
layer {
  name: "fc6"
  type: "InnerProduct"
  bottom: "pool5"
  top: "fc6"
  param {
    lr_mult: 1
    decay_mult: 1
  }
  param {
    lr_mult: 2
    decay_mult: 0
  }
  inner_product_param {
    num_output: 4096
    weight_filler {
      type: "gaussian"
      std: 0.005
    }
    bias_filler {
      type: "constant"
      value: 0.1
    }
  }
}
layer {
  name: "relu6"
  type: "ReLU"
  bottom: "fc6"
  top: "fc6"
}
layer {
  name: "drop6"
  type: "Dropout"
  bottom: "fc6"
  top: "fc6"
  dropout_param {
    dropout_ratio: 0.5
  }
}
layer {
  name: "fc7"
  type: "InnerProduct"
  bottom: "fc6"
  top: "fc7"
  param {
    lr_mult: 1
    decay_mult: 1
  }
  param {
    lr_mult: 2
    decay_mult: 0
  }
  inner_product_param {
    num_output: 4096
    weight_filler {
      type: "gaussian"
      std: 0.005
    }
    bias_filler {
      type: "constant"
      value: 0.1
    }
  }
}
layer {
  name: "relu7"
  type: "ReLU"
  bottom: "fc7"
  top: "fc7"
}
layer {
  name: "drop7"
  type: "Dropout"
  bottom: "fc7"
  top: "fc7"
  dropout_param {
    dropout_ratio: 0.5
  }
}
layer {
  name: "fc8_plantvillage"
  type: "InnerProduct"
  bottom: "fc7"
  top: "fc8_plantvillage"
  param {
    lr_mult: 1
    decay_mult: 1
  }
  param {
    lr_mult: 2
    decay_mult: 0
  }
  inner_product_param {
    num_output: 38
    weight_filler {
      type: "gaussian"
      std: 0.01
    }
    bias_filler {
      type: "constant"
      value: 0
    }
  }
}
layer {
  name: "prob"
  type: "Softmax"
  bottom: "fc8_plantvillage"
  top: "prob"
  include {
    phase: TEST
  }
}
layer {
  name: "hdf5out"
  type: "HDF5Output"
  bottom: "prob"
  bottom: "label"
  include {
    phase: TEST
  }
  hdf5_output_param {
    file_name: "hdf5_dumps/iter_267.h5"
  }
}
layer {
  name: "loss"
  type: "SoftmaxWithLoss"
  bottom: "fc8_plantvillage"
  bottom: "label"
  top: "loss"
}
layer {
  name: "accuracy"
  type: "Accuracy"
  bottom: "fc8_plantvillage"
  bottom: "label"
  top: "accuracy"
  include {
    phase: TEST
  }
}
I0403 12:47:59.182929  9669 layer_factory.hpp:77] Creating layer data
I0403 12:47:59.183570  9669 net.cpp:91] Creating Layer data
I0403 12:47:59.183600  9669 net.cpp:399] data -> data
I0403 12:47:59.183661  9669 net.cpp:399] data -> label
I0403 12:47:59.183698  9669 data_transformer.cpp:25] Loading mean file from: /home/mohanty/data/final_dataset/lmdb/grayscale-50-50/mean.binaryproto
I0403 12:47:59.204632  9672 db_lmdb.cpp:38] Opened lmdb /home/mohanty/data/final_dataset/lmdb/grayscale-50-50/test_db
I0403 12:47:59.221344  9669 data_layer.cpp:41] output data size: 100,3,227,227
I0403 12:47:59.338477  9669 net.cpp:141] Setting up data
I0403 12:47:59.338546  9669 net.cpp:148] Top shape: 100 3 227 227 (15458700)
I0403 12:47:59.338570  9669 net.cpp:148] Top shape: 100 (100)
I0403 12:47:59.338585  9669 net.cpp:156] Memory required for data: 61835200
I0403 12:47:59.338613  9669 layer_factory.hpp:77] Creating layer label_data_1_split
I0403 12:47:59.338639  9669 net.cpp:91] Creating Layer label_data_1_split
I0403 12:47:59.338655  9669 net.cpp:425] label_data_1_split <- label
I0403 12:47:59.338688  9669 net.cpp:399] label_data_1_split -> label_data_1_split_0
I0403 12:47:59.338714  9669 net.cpp:399] label_data_1_split -> label_data_1_split_1
I0403 12:47:59.338734  9669 net.cpp:399] label_data_1_split -> label_data_1_split_2
I0403 12:47:59.338796  9669 net.cpp:141] Setting up label_data_1_split
I0403 12:47:59.338831  9669 net.cpp:148] Top shape: 100 (100)
I0403 12:47:59.338848  9669 net.cpp:148] Top shape: 100 (100)
I0403 12:47:59.338865  9669 net.cpp:148] Top shape: 100 (100)
I0403 12:47:59.338877  9669 net.cpp:156] Memory required for data: 61836400
I0403 12:47:59.338891  9669 layer_factory.hpp:77] Creating layer conv1
I0403 12:47:59.338923  9669 net.cpp:91] Creating Layer conv1
I0403 12:47:59.338942  9669 net.cpp:425] conv1 <- data
I0403 12:47:59.338959  9669 net.cpp:399] conv1 -> conv1
I0403 12:47:59.479338  9669 net.cpp:141] Setting up conv1
I0403 12:47:59.479419  9669 net.cpp:148] Top shape: 100 96 55 55 (29040000)
I0403 12:47:59.479436  9669 net.cpp:156] Memory required for data: 177996400
I0403 12:47:59.479468  9669 layer_factory.hpp:77] Creating layer relu1
I0403 12:47:59.479496  9669 net.cpp:91] Creating Layer relu1
I0403 12:47:59.479514  9669 net.cpp:425] relu1 <- conv1
I0403 12:47:59.479534  9669 net.cpp:386] relu1 -> conv1 (in-place)
I0403 12:47:59.479795  9669 net.cpp:141] Setting up relu1
I0403 12:47:59.479823  9669 net.cpp:148] Top shape: 100 96 55 55 (29040000)
I0403 12:47:59.479878  9669 net.cpp:156] Memory required for data: 294156400
I0403 12:47:59.479894  9669 layer_factory.hpp:77] Creating layer norm1
I0403 12:47:59.479921  9669 net.cpp:91] Creating Layer norm1
I0403 12:47:59.479940  9669 net.cpp:425] norm1 <- conv1
I0403 12:47:59.479959  9669 net.cpp:399] norm1 -> norm1
I0403 12:47:59.480262  9669 net.cpp:141] Setting up norm1
I0403 12:47:59.480293  9669 net.cpp:148] Top shape: 100 96 55 55 (29040000)
I0403 12:47:59.480307  9669 net.cpp:156] Memory required for data: 410316400
I0403 12:47:59.480324  9669 layer_factory.hpp:77] Creating layer pool1
I0403 12:47:59.480346  9669 net.cpp:91] Creating Layer pool1
I0403 12:47:59.480363  9669 net.cpp:425] pool1 <- norm1
I0403 12:47:59.480381  9669 net.cpp:399] pool1 -> pool1
I0403 12:47:59.480448  9669 net.cpp:141] Setting up pool1
I0403 12:47:59.480473  9669 net.cpp:148] Top shape: 100 96 27 27 (6998400)
I0403 12:47:59.480486  9669 net.cpp:156] Memory required for data: 438310000
I0403 12:47:59.480502  9669 layer_factory.hpp:77] Creating layer conv2
I0403 12:47:59.480525  9669 net.cpp:91] Creating Layer conv2
I0403 12:47:59.480547  9669 net.cpp:425] conv2 <- pool1
I0403 12:47:59.480566  9669 net.cpp:399] conv2 -> conv2
I0403 12:47:59.495308  9669 net.cpp:141] Setting up conv2
I0403 12:47:59.495352  9669 net.cpp:148] Top shape: 100 256 27 27 (18662400)
I0403 12:47:59.495368  9669 net.cpp:156] Memory required for data: 512959600
I0403 12:47:59.495391  9669 layer_factory.hpp:77] Creating layer relu2
I0403 12:47:59.495414  9669 net.cpp:91] Creating Layer relu2
I0403 12:47:59.495429  9669 net.cpp:425] relu2 <- conv2
I0403 12:47:59.495446  9669 net.cpp:386] relu2 -> conv2 (in-place)
I0403 12:47:59.495724  9669 net.cpp:141] Setting up relu2
I0403 12:47:59.495751  9669 net.cpp:148] Top shape: 100 256 27 27 (18662400)
I0403 12:47:59.495766  9669 net.cpp:156] Memory required for data: 587609200
I0403 12:47:59.495781  9669 layer_factory.hpp:77] Creating layer norm2
I0403 12:47:59.495803  9669 net.cpp:91] Creating Layer norm2
I0403 12:47:59.495820  9669 net.cpp:425] norm2 <- conv2
I0403 12:47:59.495836  9669 net.cpp:399] norm2 -> norm2
I0403 12:47:59.496016  9669 net.cpp:141] Setting up norm2
I0403 12:47:59.496042  9669 net.cpp:148] Top shape: 100 256 27 27 (18662400)
I0403 12:47:59.496057  9669 net.cpp:156] Memory required for data: 662258800
I0403 12:47:59.496070  9669 layer_factory.hpp:77] Creating layer pool2
I0403 12:47:59.496089  9669 net.cpp:91] Creating Layer pool2
I0403 12:47:59.496104  9669 net.cpp:425] pool2 <- norm2
I0403 12:47:59.496120  9669 net.cpp:399] pool2 -> pool2
I0403 12:47:59.496167  9669 net.cpp:141] Setting up pool2
I0403 12:47:59.496191  9669 net.cpp:148] Top shape: 100 256 13 13 (4326400)
I0403 12:47:59.496204  9669 net.cpp:156] Memory required for data: 679564400
I0403 12:47:59.496219  9669 layer_factory.hpp:77] Creating layer conv3
I0403 12:47:59.496245  9669 net.cpp:91] Creating Layer conv3
I0403 12:47:59.496265  9669 net.cpp:425] conv3 <- pool2
I0403 12:47:59.496284  9669 net.cpp:399] conv3 -> conv3
I0403 12:47:59.535393  9669 net.cpp:141] Setting up conv3
I0403 12:47:59.535467  9669 net.cpp:148] Top shape: 100 384 13 13 (6489600)
I0403 12:47:59.535485  9669 net.cpp:156] Memory required for data: 705522800
I0403 12:47:59.535511  9669 layer_factory.hpp:77] Creating layer relu3
I0403 12:47:59.535534  9669 net.cpp:91] Creating Layer relu3
I0403 12:47:59.535557  9669 net.cpp:425] relu3 <- conv3
I0403 12:47:59.535578  9669 net.cpp:386] relu3 -> conv3 (in-place)
I0403 12:47:59.535848  9669 net.cpp:141] Setting up relu3
I0403 12:47:59.535877  9669 net.cpp:148] Top shape: 100 384 13 13 (6489600)
I0403 12:47:59.535893  9669 net.cpp:156] Memory required for data: 731481200
I0403 12:47:59.535908  9669 layer_factory.hpp:77] Creating layer conv4
I0403 12:47:59.535934  9669 net.cpp:91] Creating Layer conv4
I0403 12:47:59.535951  9669 net.cpp:425] conv4 <- conv3
I0403 12:47:59.535970  9669 net.cpp:399] conv4 -> conv4
I0403 12:47:59.565680  9669 net.cpp:141] Setting up conv4
I0403 12:47:59.565747  9669 net.cpp:148] Top shape: 100 384 13 13 (6489600)
I0403 12:47:59.565804  9669 net.cpp:156] Memory required for data: 757439600
I0403 12:47:59.565825  9669 layer_factory.hpp:77] Creating layer relu4
I0403 12:47:59.565850  9669 net.cpp:91] Creating Layer relu4
I0403 12:47:59.565868  9669 net.cpp:425] relu4 <- conv4
I0403 12:47:59.565887  9669 net.cpp:386] relu4 -> conv4 (in-place)
I0403 12:47:59.566179  9669 net.cpp:141] Setting up relu4
I0403 12:47:59.566210  9669 net.cpp:148] Top shape: 100 384 13 13 (6489600)
I0403 12:47:59.566226  9669 net.cpp:156] Memory required for data: 783398000
I0403 12:47:59.566241  9669 layer_factory.hpp:77] Creating layer conv5
I0403 12:47:59.566265  9669 net.cpp:91] Creating Layer conv5
I0403 12:47:59.566287  9669 net.cpp:425] conv5 <- conv4
I0403 12:47:59.566316  9669 net.cpp:399] conv5 -> conv5
I0403 12:47:59.586814  9669 net.cpp:141] Setting up conv5
I0403 12:47:59.586872  9669 net.cpp:148] Top shape: 100 256 13 13 (4326400)
I0403 12:47:59.586892  9669 net.cpp:156] Memory required for data: 800703600
I0403 12:47:59.586916  9669 layer_factory.hpp:77] Creating layer relu5
I0403 12:47:59.586937  9669 net.cpp:91] Creating Layer relu5
I0403 12:47:59.586954  9669 net.cpp:425] relu5 <- conv5
I0403 12:47:59.586972  9669 net.cpp:386] relu5 -> conv5 (in-place)
I0403 12:47:59.587255  9669 net.cpp:141] Setting up relu5
I0403 12:47:59.587285  9669 net.cpp:148] Top shape: 100 256 13 13 (4326400)
I0403 12:47:59.587301  9669 net.cpp:156] Memory required for data: 818009200
I0403 12:47:59.587316  9669 layer_factory.hpp:77] Creating layer pool5
I0403 12:47:59.587338  9669 net.cpp:91] Creating Layer pool5
I0403 12:47:59.587354  9669 net.cpp:425] pool5 <- conv5
I0403 12:47:59.587376  9669 net.cpp:399] pool5 -> pool5
I0403 12:47:59.587438  9669 net.cpp:141] Setting up pool5
I0403 12:47:59.587461  9669 net.cpp:148] Top shape: 100 256 6 6 (921600)
I0403 12:47:59.587476  9669 net.cpp:156] Memory required for data: 821695600
I0403 12:47:59.587491  9669 layer_factory.hpp:77] Creating layer fc6
I0403 12:47:59.587522  9669 net.cpp:91] Creating Layer fc6
I0403 12:47:59.587544  9669 net.cpp:425] fc6 <- pool5
I0403 12:47:59.587565  9669 net.cpp:399] fc6 -> fc6
I0403 12:48:01.152428  9669 net.cpp:141] Setting up fc6
I0403 12:48:01.152508  9669 net.cpp:148] Top shape: 100 4096 (409600)
I0403 12:48:01.152524  9669 net.cpp:156] Memory required for data: 823334000
I0403 12:48:01.152550  9669 layer_factory.hpp:77] Creating layer relu6
I0403 12:48:01.152576  9669 net.cpp:91] Creating Layer relu6
I0403 12:48:01.152595  9669 net.cpp:425] relu6 <- fc6
I0403 12:48:01.152614  9669 net.cpp:386] relu6 -> fc6 (in-place)
I0403 12:48:01.152838  9669 net.cpp:141] Setting up relu6
I0403 12:48:01.152866  9669 net.cpp:148] Top shape: 100 4096 (409600)
I0403 12:48:01.152883  9669 net.cpp:156] Memory required for data: 824972400
I0403 12:48:01.152899  9669 layer_factory.hpp:77] Creating layer drop6
I0403 12:48:01.152916  9669 net.cpp:91] Creating Layer drop6
I0403 12:48:01.152932  9669 net.cpp:425] drop6 <- fc6
I0403 12:48:01.152950  9669 net.cpp:386] drop6 -> fc6 (in-place)
I0403 12:48:01.153002  9669 net.cpp:141] Setting up drop6
I0403 12:48:01.153026  9669 net.cpp:148] Top shape: 100 4096 (409600)
I0403 12:48:01.153040  9669 net.cpp:156] Memory required for data: 826610800
I0403 12:48:01.153055  9669 layer_factory.hpp:77] Creating layer fc7
I0403 12:48:01.153079  9669 net.cpp:91] Creating Layer fc7
I0403 12:48:01.153095  9669 net.cpp:425] fc7 <- fc6
I0403 12:48:01.153112  9669 net.cpp:399] fc7 -> fc7
I0403 12:48:01.839494  9669 net.cpp:141] Setting up fc7
I0403 12:48:01.839581  9669 net.cpp:148] Top shape: 100 4096 (409600)
I0403 12:48:01.839597  9669 net.cpp:156] Memory required for data: 828249200
I0403 12:48:01.839618  9669 layer_factory.hpp:77] Creating layer relu7
I0403 12:48:01.839643  9669 net.cpp:91] Creating Layer relu7
I0403 12:48:01.839660  9669 net.cpp:425] relu7 <- fc7
I0403 12:48:01.839679  9669 net.cpp:386] relu7 -> fc7 (in-place)
I0403 12:48:01.840091  9669 net.cpp:141] Setting up relu7
I0403 12:48:01.840119  9669 net.cpp:148] Top shape: 100 4096 (409600)
I0403 12:48:01.840190  9669 net.cpp:156] Memory required for data: 829887600
I0403 12:48:01.840207  9669 layer_factory.hpp:77] Creating layer drop7
I0403 12:48:01.840225  9669 net.cpp:91] Creating Layer drop7
I0403 12:48:01.840240  9669 net.cpp:425] drop7 <- fc7
I0403 12:48:01.840258  9669 net.cpp:386] drop7 -> fc7 (in-place)
I0403 12:48:01.840307  9669 net.cpp:141] Setting up drop7
I0403 12:48:01.840330  9669 net.cpp:148] Top shape: 100 4096 (409600)
I0403 12:48:01.840343  9669 net.cpp:156] Memory required for data: 831526000
I0403 12:48:01.840358  9669 layer_factory.hpp:77] Creating layer fc8_plantvillage
I0403 12:48:01.840378  9669 net.cpp:91] Creating Layer fc8_plantvillage
I0403 12:48:01.840394  9669 net.cpp:425] fc8_plantvillage <- fc7
I0403 12:48:01.840412  9669 net.cpp:399] fc8_plantvillage -> fc8_plantvillage
I0403 12:48:01.847169  9669 net.cpp:141] Setting up fc8_plantvillage
I0403 12:48:01.847198  9669 net.cpp:148] Top shape: 100 38 (3800)
I0403 12:48:01.847213  9669 net.cpp:156] Memory required for data: 831541200
I0403 12:48:01.847231  9669 layer_factory.hpp:77] Creating layer fc8_plantvillage_fc8_plantvillage_0_split
I0403 12:48:01.847250  9669 net.cpp:91] Creating Layer fc8_plantvillage_fc8_plantvillage_0_split
I0403 12:48:01.847265  9669 net.cpp:425] fc8_plantvillage_fc8_plantvillage_0_split <- fc8_plantvillage
I0403 12:48:01.847282  9669 net.cpp:399] fc8_plantvillage_fc8_plantvillage_0_split -> fc8_plantvillage_fc8_plantvillage_0_split_0
I0403 12:48:01.847303  9669 net.cpp:399] fc8_plantvillage_fc8_plantvillage_0_split -> fc8_plantvillage_fc8_plantvillage_0_split_1
I0403 12:48:01.847324  9669 net.cpp:399] fc8_plantvillage_fc8_plantvillage_0_split -> fc8_plantvillage_fc8_plantvillage_0_split_2
I0403 12:48:01.847401  9669 net.cpp:141] Setting up fc8_plantvillage_fc8_plantvillage_0_split
I0403 12:48:01.847424  9669 net.cpp:148] Top shape: 100 38 (3800)
I0403 12:48:01.847440  9669 net.cpp:148] Top shape: 100 38 (3800)
I0403 12:48:01.847455  9669 net.cpp:148] Top shape: 100 38 (3800)
I0403 12:48:01.847468  9669 net.cpp:156] Memory required for data: 831586800
I0403 12:48:01.847482  9669 layer_factory.hpp:77] Creating layer prob
I0403 12:48:01.847501  9669 net.cpp:91] Creating Layer prob
I0403 12:48:01.847517  9669 net.cpp:425] prob <- fc8_plantvillage_fc8_plantvillage_0_split_0
I0403 12:48:01.847533  9669 net.cpp:399] prob -> prob
I0403 12:48:01.847767  9669 net.cpp:141] Setting up prob
I0403 12:48:01.847792  9669 net.cpp:148] Top shape: 100 38 (3800)
I0403 12:48:01.847807  9669 net.cpp:156] Memory required for data: 831602000
I0403 12:48:01.847821  9669 layer_factory.hpp:77] Creating layer hdf5out
I0403 12:48:01.847843  9669 net.cpp:91] Creating Layer hdf5out
I0403 12:48:01.847861  9669 net.cpp:425] hdf5out <- prob
I0403 12:48:01.847877  9669 net.cpp:425] hdf5out <- label_data_1_split_0
I0403 12:48:01.858098  9669 net.cpp:141] Setting up hdf5out
…
