…
I0403 13:07:05.899435 10219 net.cpp:313] The NetState phase (1) differed from the phase (0) specified by a rule in layer data
I0403 13:07:05.899760 10219 net.cpp:49] Initializing net from parameters: 
state {
  phase: TEST
}
layer {
  name: "data"
  type: "Data"
  top: "data"
  top: "label"
  include {
    phase: TEST
  }
  transform_param {
    crop_size: 227
    mean_file: "/home/mohanty/data/final_dataset/lmdb/grayscale-50-50/mean.binaryproto"
  }
  data_param {
    source: "/home/mohanty/data/final_dataset/lmdb/grayscale-50-50/test_db"
    batch_size: 100
    backend: LMDB
  }
}
layer {
  name: "conv1"
  type: "Convolution"
  bottom: "data"
  top: "conv1"
  param {
    lr_mult: 1
    decay_mult: 1
  }
  param {
    lr_mult: 2
    decay_mult: 0
  }
  convolution_param {
    num_output: 96
    kernel_size: 11
    stride: 4
    weight_filler {
      type: "gaussian"
      std: 0.01
    }
    bias_filler {
      type: "constant"
      value: 0
    }
  }
}
layer {
  name: "relu1"
  type: "ReLU"
  bottom: "conv1"
  top: "conv1"
}
layer {
  name: "norm1"
  type: "LRN"
  bottom: "conv1"
  top: "norm1"
  lrn_param {
    local_size: 5
    alpha: 0.0001
    beta: 0.75
  }
}
layer {
  name: "pool1"
  type: "Pooling"
  bottom: "norm1"
  top: "pool1"
  pooling_param {
    pool: MAX
    kernel_size: 3
    stride: 2
  }
}
layer {
  name: "conv2"
  type: "Convolution"
  bottom: "pool1"
  top: "conv2"
  param {
    lr_mult: 1
    decay_mult: 1
  }
  param {
    lr_mult: 2
    decay_mult: 0
  }
  convolution_param {
    num_output: 256
    pad: 2
    kernel_size: 5
    group: 2
    weight_filler {
      type: "gaussian"
      std: 0.01
    }
    bias_filler {
      type: "constant"
      value: 0.1
    }
  }
}
layer {
  name: "relu2"
  type: "ReLU"
  bottom: "conv2"
  top: "conv2"
}
layer {
  name: "norm2"
  type: "LRN"
  bottom: "conv2"
  top: "norm2"
  lrn_param {
    local_size: 5
    alpha: 0.0001
    beta: 0.75
  }
}
layer {
  name: "pool2"
  type: "Pooling"
  bottom: "norm2"
  top: "pool2"
  pooling_param {
    pool: MAX
    kernel_size: 3
    stride: 2
  }
}
layer {
  name: "conv3"
  type: "Convolution"
  bottom: "pool2"
  top: "conv3"
  param {
    lr_mult: 1
    decay_mult: 1
  }
  param {
    lr_mult: 2
    decay_mult: 0
  }
  convolution_param {
    num_output: 384
    pad: 1
    kernel_size: 3
    weight_filler {
      type: "gaussian"
      std: 0.01
    }
    bias_filler {
      type: "constant"
      value: 0
    }
  }
}
layer {
  name: "relu3"
  type: "ReLU"
  bottom: "conv3"
  top: "conv3"
}
layer {
  name: "conv4"
  type: "Convolution"
  bottom: "conv3"
  top: "conv4"
  param {
    lr_mult: 1
    decay_mult: 1
  }
  param {
    lr_mult: 2
    decay_mult: 0
  }
  convolution_param {
    num_output: 384
    pad: 1
    kernel_size: 3
    group: 2
    weight_filler {
      type: "gaussian"
      std: 0.01
    }
    bias_filler {
      type: "constant"
      value: 0.1
    }
  }
}
layer {
  name: "relu4"
  type: "ReLU"
  bottom: "conv4"
  top: "conv4"
}
layer {
  name: "conv5"
  type: "Convolution"
  bottom: "conv4"
  top: "conv5"
  param {
    lr_mult: 1
    decay_mult: 1
  }
  param {
    lr_mult: 2
    decay_mult: 0
  }
  convolution_param {
    num_output: 256
    pad: 1
    kernel_size: 3
    group: 2
    weight_filler {
      type: "gaussian"
      std: 0.01
    }
    bias_filler {
      type: "constant"
      value: 0.1
    }
  }
}
layer {
  name: "relu5"
  type: "ReLU"
  bottom: "conv5"
  top: "conv5"
}
layer {
  name: "pool5"
  type: "Pooling"
  bottom: "conv5"
  top: "pool5"
  pooling_param {
    pool: MAX
    kernel_size: 3
    stride: 2
  }
}
layer {
  name: "fc6"
  type: "InnerProduct"
  bottom: "pool5"
  top: "fc6"
  param {
    lr_mult: 1
    decay_mult: 1
  }
  param {
    lr_mult: 2
    decay_mult: 0
  }
  inner_product_param {
    num_output: 4096
    weight_filler {
      type: "gaussian"
      std: 0.005
    }
    bias_filler {
      type: "constant"
      value: 0.1
    }
  }
}
layer {
  name: "relu6"
  type: "ReLU"
  bottom: "fc6"
  top: "fc6"
}
layer {
  name: "drop6"
  type: "Dropout"
  bottom: "fc6"
  top: "fc6"
  dropout_param {
    dropout_ratio: 0.5
  }
}
layer {
  name: "fc7"
  type: "InnerProduct"
  bottom: "fc6"
  top: "fc7"
  param {
    lr_mult: 1
    decay_mult: 1
  }
  param {
    lr_mult: 2
    decay_mult: 0
  }
  inner_product_param {
    num_output: 4096
    weight_filler {
      type: "gaussian"
      std: 0.005
    }
    bias_filler {
      type: "constant"
      value: 0.1
    }
  }
}
layer {
  name: "relu7"
  type: "ReLU"
  bottom: "fc7"
  top: "fc7"
}
layer {
  name: "drop7"
  type: "Dropout"
  bottom: "fc7"
  top: "fc7"
  dropout_param {
    dropout_ratio: 0.5
  }
}
layer {
  name: "fc8_plantvillage"
  type: "InnerProduct"
  bottom: "fc7"
  top: "fc8_plantvillage"
  param {
    lr_mult: 1
    decay_mult: 1
  }
  param {
    lr_mult: 2
    decay_mult: 0
  }
  inner_product_param {
    num_output: 38
    weight_filler {
      type: "gaussian"
      std: 0.01
    }
    bias_filler {
      type: "constant"
      value: 0
    }
  }
}
layer {
  name: "prob"
  type: "Softmax"
  bottom: "fc8_plantvillage"
  top: "prob"
  include {
    phase: TEST
  }
}
layer {
  name: "hdf5out"
  type: "HDF5Output"
  bottom: "prob"
  bottom: "label"
  include {
    phase: TEST
  }
  hdf5_output_param {
    file_name: "hdf5_dumps/iter_5607.h5"
  }
}
layer {
  name: "loss"
  type: "SoftmaxWithLoss"
  bottom: "fc8_plantvillage"
  bottom: "label"
  top: "loss"
}
layer {
  name: "accuracy"
  type: "Accuracy"
  bottom: "fc8_plantvillage"
  bottom: "label"
  top: "accuracy"
  include {
    phase: TEST
  }
}
I0403 13:07:05.900449 10219 layer_factory.hpp:77] Creating layer data
I0403 13:07:05.901114 10219 net.cpp:91] Creating Layer data
I0403 13:07:05.901146 10219 net.cpp:399] data -> data
I0403 13:07:05.901197 10219 net.cpp:399] data -> label
I0403 13:07:05.901233 10219 data_transformer.cpp:25] Loading mean file from: /home/mohanty/data/final_dataset/lmdb/grayscale-50-50/mean.binaryproto
I0403 13:07:05.902369 10222 db_lmdb.cpp:38] Opened lmdb /home/mohanty/data/final_dataset/lmdb/grayscale-50-50/test_db
I0403 13:07:05.915930 10219 data_layer.cpp:41] output data size: 100,3,227,227
I0403 13:07:06.036217 10219 net.cpp:141] Setting up data
I0403 13:07:06.036314 10219 net.cpp:148] Top shape: 100 3 227 227 (15458700)
I0403 13:07:06.036335 10219 net.cpp:148] Top shape: 100 (100)
I0403 13:07:06.036350 10219 net.cpp:156] Memory required for data: 61835200
I0403 13:07:06.036378 10219 layer_factory.hpp:77] Creating layer label_data_1_split
I0403 13:07:06.036403 10219 net.cpp:91] Creating Layer label_data_1_split
I0403 13:07:06.036420 10219 net.cpp:425] label_data_1_split <- label
I0403 13:07:06.036453 10219 net.cpp:399] label_data_1_split -> label_data_1_split_0
I0403 13:07:06.036478 10219 net.cpp:399] label_data_1_split -> label_data_1_split_1
I0403 13:07:06.036497 10219 net.cpp:399] label_data_1_split -> label_data_1_split_2
I0403 13:07:06.036562 10219 net.cpp:141] Setting up label_data_1_split
I0403 13:07:06.036586 10219 net.cpp:148] Top shape: 100 (100)
I0403 13:07:06.036602 10219 net.cpp:148] Top shape: 100 (100)
I0403 13:07:06.036617 10219 net.cpp:148] Top shape: 100 (100)
I0403 13:07:06.036629 10219 net.cpp:156] Memory required for data: 61836400
I0403 13:07:06.036643 10219 layer_factory.hpp:77] Creating layer conv1
I0403 13:07:06.036674 10219 net.cpp:91] Creating Layer conv1
I0403 13:07:06.036692 10219 net.cpp:425] conv1 <- data
I0403 13:07:06.036710 10219 net.cpp:399] conv1 -> conv1
I0403 13:07:06.177831 10219 net.cpp:141] Setting up conv1
I0403 13:07:06.177911 10219 net.cpp:148] Top shape: 100 96 55 55 (29040000)
I0403 13:07:06.177927 10219 net.cpp:156] Memory required for data: 177996400
I0403 13:07:06.177958 10219 layer_factory.hpp:77] Creating layer relu1
I0403 13:07:06.177985 10219 net.cpp:91] Creating Layer relu1
I0403 13:07:06.178002 10219 net.cpp:425] relu1 <- conv1
I0403 13:07:06.178021 10219 net.cpp:386] relu1 -> conv1 (in-place)
I0403 13:07:06.178287 10219 net.cpp:141] Setting up relu1
I0403 13:07:06.178313 10219 net.cpp:148] Top shape: 100 96 55 55 (29040000)
I0403 13:07:06.178362 10219 net.cpp:156] Memory required for data: 294156400
I0403 13:07:06.178380 10219 layer_factory.hpp:77] Creating layer norm1
I0403 13:07:06.178406 10219 net.cpp:91] Creating Layer norm1
I0403 13:07:06.178424 10219 net.cpp:425] norm1 <- conv1
I0403 13:07:06.178442 10219 net.cpp:399] norm1 -> norm1
I0403 13:07:06.178782 10219 net.cpp:141] Setting up norm1
I0403 13:07:06.178810 10219 net.cpp:148] Top shape: 100 96 55 55 (29040000)
I0403 13:07:06.178827 10219 net.cpp:156] Memory required for data: 410316400
I0403 13:07:06.178841 10219 layer_factory.hpp:77] Creating layer pool1
I0403 13:07:06.178864 10219 net.cpp:91] Creating Layer pool1
I0403 13:07:06.178891 10219 net.cpp:425] pool1 <- norm1
I0403 13:07:06.178941 10219 net.cpp:399] pool1 -> pool1
I0403 13:07:06.179013 10219 net.cpp:141] Setting up pool1
I0403 13:07:06.179038 10219 net.cpp:148] Top shape: 100 96 27 27 (6998400)
I0403 13:07:06.179052 10219 net.cpp:156] Memory required for data: 438310000
I0403 13:07:06.179067 10219 layer_factory.hpp:77] Creating layer conv2
I0403 13:07:06.179092 10219 net.cpp:91] Creating Layer conv2
I0403 13:07:06.179108 10219 net.cpp:425] conv2 <- pool1
I0403 13:07:06.179126 10219 net.cpp:399] conv2 -> conv2
I0403 13:07:06.194675 10219 net.cpp:141] Setting up conv2
I0403 13:07:06.194732 10219 net.cpp:148] Top shape: 100 256 27 27 (18662400)
I0403 13:07:06.194749 10219 net.cpp:156] Memory required for data: 512959600
I0403 13:07:06.194772 10219 layer_factory.hpp:77] Creating layer relu2
I0403 13:07:06.194793 10219 net.cpp:91] Creating Layer relu2
I0403 13:07:06.194810 10219 net.cpp:425] relu2 <- conv2
I0403 13:07:06.194830 10219 net.cpp:386] relu2 -> conv2 (in-place)
I0403 13:07:06.195135 10219 net.cpp:141] Setting up relu2
I0403 13:07:06.195163 10219 net.cpp:148] Top shape: 100 256 27 27 (18662400)
I0403 13:07:06.195209 10219 net.cpp:156] Memory required for data: 587609200
I0403 13:07:06.195226 10219 layer_factory.hpp:77] Creating layer norm2
I0403 13:07:06.195264 10219 net.cpp:91] Creating Layer norm2
I0403 13:07:06.195281 10219 net.cpp:425] norm2 <- conv2
I0403 13:07:06.195300 10219 net.cpp:399] norm2 -> norm2
I0403 13:07:06.195497 10219 net.cpp:141] Setting up norm2
I0403 13:07:06.195526 10219 net.cpp:148] Top shape: 100 256 27 27 (18662400)
I0403 13:07:06.195547 10219 net.cpp:156] Memory required for data: 662258800
I0403 13:07:06.195564 10219 layer_factory.hpp:77] Creating layer pool2
I0403 13:07:06.195581 10219 net.cpp:91] Creating Layer pool2
I0403 13:07:06.195600 10219 net.cpp:425] pool2 <- norm2
I0403 13:07:06.195618 10219 net.cpp:399] pool2 -> pool2
I0403 13:07:06.195672 10219 net.cpp:141] Setting up pool2
I0403 13:07:06.195695 10219 net.cpp:148] Top shape: 100 256 13 13 (4326400)
I0403 13:07:06.195709 10219 net.cpp:156] Memory required for data: 679564400
I0403 13:07:06.195724 10219 layer_factory.hpp:77] Creating layer conv3
I0403 13:07:06.195749 10219 net.cpp:91] Creating Layer conv3
I0403 13:07:06.195765 10219 net.cpp:425] conv3 <- pool2
I0403 13:07:06.195785 10219 net.cpp:399] conv3 -> conv3
I0403 13:07:06.234485 10219 net.cpp:141] Setting up conv3
I0403 13:07:06.234570 10219 net.cpp:148] Top shape: 100 384 13 13 (6489600)
I0403 13:07:06.234591 10219 net.cpp:156] Memory required for data: 705522800
I0403 13:07:06.234616 10219 layer_factory.hpp:77] Creating layer relu3
I0403 13:07:06.234638 10219 net.cpp:91] Creating Layer relu3
I0403 13:07:06.234655 10219 net.cpp:425] relu3 <- conv3
I0403 13:07:06.234676 10219 net.cpp:386] relu3 -> conv3 (in-place)
I0403 13:07:06.234953 10219 net.cpp:141] Setting up relu3
I0403 13:07:06.234980 10219 net.cpp:148] Top shape: 100 384 13 13 (6489600)
I0403 13:07:06.234995 10219 net.cpp:156] Memory required for data: 731481200
I0403 13:07:06.235010 10219 layer_factory.hpp:77] Creating layer conv4
I0403 13:07:06.235036 10219 net.cpp:91] Creating Layer conv4
I0403 13:07:06.235054 10219 net.cpp:425] conv4 <- conv3
I0403 13:07:06.235075 10219 net.cpp:399] conv4 -> conv4
I0403 13:07:06.265501 10219 net.cpp:141] Setting up conv4
I0403 13:07:06.265625 10219 net.cpp:148] Top shape: 100 384 13 13 (6489600)
I0403 13:07:06.265681 10219 net.cpp:156] Memory required for data: 757439600
I0403 13:07:06.265704 10219 layer_factory.hpp:77] Creating layer relu4
I0403 13:07:06.265727 10219 net.cpp:91] Creating Layer relu4
I0403 13:07:06.265743 10219 net.cpp:425] relu4 <- conv4
I0403 13:07:06.265760 10219 net.cpp:386] relu4 -> conv4 (in-place)
I0403 13:07:06.266043 10219 net.cpp:141] Setting up relu4
I0403 13:07:06.266072 10219 net.cpp:148] Top shape: 100 384 13 13 (6489600)
I0403 13:07:06.266089 10219 net.cpp:156] Memory required for data: 783398000
I0403 13:07:06.266104 10219 layer_factory.hpp:77] Creating layer conv5
I0403 13:07:06.266130 10219 net.cpp:91] Creating Layer conv5
I0403 13:07:06.266147 10219 net.cpp:425] conv5 <- conv4
I0403 13:07:06.266166 10219 net.cpp:399] conv5 -> conv5
I0403 13:07:06.287274 10219 net.cpp:141] Setting up conv5
I0403 13:07:06.287335 10219 net.cpp:148] Top shape: 100 256 13 13 (4326400)
I0403 13:07:06.287353 10219 net.cpp:156] Memory required for data: 800703600
I0403 13:07:06.287377 10219 layer_factory.hpp:77] Creating layer relu5
I0403 13:07:06.287398 10219 net.cpp:91] Creating Layer relu5
I0403 13:07:06.287415 10219 net.cpp:425] relu5 <- conv5
I0403 13:07:06.287436 10219 net.cpp:386] relu5 -> conv5 (in-place)
I0403 13:07:06.287725 10219 net.cpp:141] Setting up relu5
I0403 13:07:06.287755 10219 net.cpp:148] Top shape: 100 256 13 13 (4326400)
I0403 13:07:06.287770 10219 net.cpp:156] Memory required for data: 818009200
I0403 13:07:06.287786 10219 layer_factory.hpp:77] Creating layer pool5
I0403 13:07:06.287813 10219 net.cpp:91] Creating Layer pool5
I0403 13:07:06.287830 10219 net.cpp:425] pool5 <- conv5
I0403 13:07:06.287849 10219 net.cpp:399] pool5 -> pool5
I0403 13:07:06.287910 10219 net.cpp:141] Setting up pool5
I0403 13:07:06.287935 10219 net.cpp:148] Top shape: 100 256 6 6 (921600)
I0403 13:07:06.287950 10219 net.cpp:156] Memory required for data: 821695600
I0403 13:07:06.287963 10219 layer_factory.hpp:77] Creating layer fc6
I0403 13:07:06.287991 10219 net.cpp:91] Creating Layer fc6
I0403 13:07:06.288007 10219 net.cpp:425] fc6 <- pool5
I0403 13:07:06.288028 10219 net.cpp:399] fc6 -> fc6
I0403 13:07:07.855399 10219 net.cpp:141] Setting up fc6
I0403 13:07:07.855479 10219 net.cpp:148] Top shape: 100 4096 (409600)
I0403 13:07:07.855496 10219 net.cpp:156] Memory required for data: 823334000
I0403 13:07:07.855516 10219 layer_factory.hpp:77] Creating layer relu6
I0403 13:07:07.855543 10219 net.cpp:91] Creating Layer relu6
I0403 13:07:07.855571 10219 net.cpp:425] relu6 <- fc6
I0403 13:07:07.855589 10219 net.cpp:386] relu6 -> fc6 (in-place)
I0403 13:07:07.855814 10219 net.cpp:141] Setting up relu6
I0403 13:07:07.855841 10219 net.cpp:148] Top shape: 100 4096 (409600)
I0403 13:07:07.855866 10219 net.cpp:156] Memory required for data: 824972400
I0403 13:07:07.855881 10219 layer_factory.hpp:77] Creating layer drop6
I0403 13:07:07.855900 10219 net.cpp:91] Creating Layer drop6
I0403 13:07:07.855914 10219 net.cpp:425] drop6 <- fc6
I0403 13:07:07.855933 10219 net.cpp:386] drop6 -> fc6 (in-place)
I0403 13:07:07.855983 10219 net.cpp:141] Setting up drop6
I0403 13:07:07.856006 10219 net.cpp:148] Top shape: 100 4096 (409600)
I0403 13:07:07.856020 10219 net.cpp:156] Memory required for data: 826610800
I0403 13:07:07.856034 10219 layer_factory.hpp:77] Creating layer fc7
I0403 13:07:07.856060 10219 net.cpp:91] Creating Layer fc7
I0403 13:07:07.856077 10219 net.cpp:425] fc7 <- fc6
I0403 13:07:07.856097 10219 net.cpp:399] fc7 -> fc7
I0403 13:07:08.539744 10219 net.cpp:141] Setting up fc7
I0403 13:07:08.539788 10219 net.cpp:148] Top shape: 100 4096 (409600)
I0403 13:07:08.539803 10219 net.cpp:156] Memory required for data: 828249200
I0403 13:07:08.539822 10219 layer_factory.hpp:77] Creating layer relu7
I0403 13:07:08.539844 10219 net.cpp:91] Creating Layer relu7
I0403 13:07:08.539860 10219 net.cpp:425] relu7 <- fc7
I0403 13:07:08.539878 10219 net.cpp:386] relu7 -> fc7 (in-place)
I0403 13:07:08.540290 10219 net.cpp:141] Setting up relu7
I0403 13:07:08.540319 10219 net.cpp:148] Top shape: 100 4096 (409600)
I0403 13:07:08.540388 10219 net.cpp:156] Memory required for data: 829887600
I0403 13:07:08.540405 10219 layer_factory.hpp:77] Creating layer drop7
I0403 13:07:08.540422 10219 net.cpp:91] Creating Layer drop7
I0403 13:07:08.540449 10219 net.cpp:425] drop7 <- fc7
I0403 13:07:08.540465 10219 net.cpp:386] drop7 -> fc7 (in-place)
I0403 13:07:08.540509 10219 net.cpp:141] Setting up drop7
I0403 13:07:08.540530 10219 net.cpp:148] Top shape: 100 4096 (409600)
I0403 13:07:08.540549 10219 net.cpp:156] Memory required for data: 831526000
I0403 13:07:08.540563 10219 layer_factory.hpp:77] Creating layer fc8_plantvillage
I0403 13:07:08.540585 10219 net.cpp:91] Creating Layer fc8_plantvillage
I0403 13:07:08.540599 10219 net.cpp:425] fc8_plantvillage <- fc7
I0403 13:07:08.540616 10219 net.cpp:399] fc8_plantvillage -> fc8_plantvillage
I0403 13:07:08.547279 10219 net.cpp:141] Setting up fc8_plantvillage
I0403 13:07:08.547307 10219 net.cpp:148] Top shape: 100 38 (3800)
I0403 13:07:08.547322 10219 net.cpp:156] Memory required for data: 831541200
I0403 13:07:08.547339 10219 layer_factory.hpp:77] Creating layer fc8_plantvillage_fc8_plantvillage_0_split
I0403 13:07:08.547358 10219 net.cpp:91] Creating Layer fc8_plantvillage_fc8_plantvillage_0_split
I0403 13:07:08.547372 10219 net.cpp:425] fc8_plantvillage_fc8_plantvillage_0_split <- fc8_plantvillage
I0403 13:07:08.547391 10219 net.cpp:399] fc8_plantvillage_fc8_plantvillage_0_split -> fc8_plantvillage_fc8_plantvillage_0_split_0
I0403 13:07:08.547410 10219 net.cpp:399] fc8_plantvillage_fc8_plantvillage_0_split -> fc8_plantvillage_fc8_plantvillage_0_split_1
I0403 13:07:08.547430 10219 net.cpp:399] fc8_plantvillage_fc8_plantvillage_0_split -> fc8_plantvillage_fc8_plantvillage_0_split_2
I0403 13:07:08.547518 10219 net.cpp:141] Setting up fc8_plantvillage_fc8_plantvillage_0_split
I0403 13:07:08.547547 10219 net.cpp:148] Top shape: 100 38 (3800)
I0403 13:07:08.547564 10219 net.cpp:148] Top shape: 100 38 (3800)
I0403 13:07:08.547579 10219 net.cpp:148] Top shape: 100 38 (3800)
I0403 13:07:08.547591 10219 net.cpp:156] Memory required for data: 831586800
I0403 13:07:08.547605 10219 layer_factory.hpp:77] Creating layer prob
I0403 13:07:08.547622 10219 net.cpp:91] Creating Layer prob
I0403 13:07:08.547636 10219 net.cpp:425] prob <- fc8_plantvillage_fc8_plantvillage_0_split_0
I0403 13:07:08.547653 10219 net.cpp:399] prob -> prob
I0403 13:07:08.547868 10219 net.cpp:141] Setting up prob
I0403 13:07:08.547896 10219 net.cpp:148] Top shape: 100 38 (3800)
I0403 13:07:08.547911 10219 net.cpp:156] Memory required for data: 831602000
I0403 13:07:08.547925 10219 layer_factory.hpp:77] Creating layer hdf5out
I0403 13:07:08.547943 10219 net.cpp:91] Creating Layer hdf5out
I0403 13:07:08.547958 10219 net.cpp:425] hdf5out <- prob
I0403 13:07:08.547973 10219 net.cpp:425] hdf5out <- label_data_1_split_0
I0403 13:07:08.551167 10219 net.cpp:141] Setting up hdf5out
…
