…
I0403 12:54:40.258057  9862 net.cpp:313] The NetState phase (1) differed from the phase (0) specified by a rule in layer data
I0403 12:54:40.258344  9862 net.cpp:49] Initializing net from parameters: 
state {
  phase: TEST
}
layer {
  name: "data"
  type: "Data"
  top: "data"
  top: "label"
  include {
    phase: TEST
  }
  transform_param {
    crop_size: 227
    mean_file: "/home/mohanty/data/final_dataset/lmdb/grayscale-50-50/mean.binaryproto"
  }
  data_param {
    source: "/home/mohanty/data/final_dataset/lmdb/grayscale-50-50/test_db"
    batch_size: 100
    backend: LMDB
  }
}
layer {
  name: "conv1"
  type: "Convolution"
  bottom: "data"
  top: "conv1"
  param {
    lr_mult: 1
    decay_mult: 1
  }
  param {
    lr_mult: 2
    decay_mult: 0
  }
  convolution_param {
    num_output: 96
    kernel_size: 11
    stride: 4
    weight_filler {
      type: "gaussian"
      std: 0.01
    }
    bias_filler {
      type: "constant"
      value: 0
    }
  }
}
layer {
  name: "relu1"
  type: "ReLU"
  bottom: "conv1"
  top: "conv1"
}
layer {
  name: "norm1"
  type: "LRN"
  bottom: "conv1"
  top: "norm1"
  lrn_param {
    local_size: 5
    alpha: 0.0001
    beta: 0.75
  }
}
layer {
  name: "pool1"
  type: "Pooling"
  bottom: "norm1"
  top: "pool1"
  pooling_param {
    pool: MAX
    kernel_size: 3
    stride: 2
  }
}
layer {
  name: "conv2"
  type: "Convolution"
  bottom: "pool1"
  top: "conv2"
  param {
    lr_mult: 1
    decay_mult: 1
  }
  param {
    lr_mult: 2
    decay_mult: 0
  }
  convolution_param {
    num_output: 256
    pad: 2
    kernel_size: 5
    group: 2
    weight_filler {
      type: "gaussian"
      std: 0.01
    }
    bias_filler {
      type: "constant"
      value: 0.1
    }
  }
}
layer {
  name: "relu2"
  type: "ReLU"
  bottom: "conv2"
  top: "conv2"
}
layer {
  name: "norm2"
  type: "LRN"
  bottom: "conv2"
  top: "norm2"
  lrn_param {
    local_size: 5
    alpha: 0.0001
    beta: 0.75
  }
}
layer {
  name: "pool2"
  type: "Pooling"
  bottom: "norm2"
  top: "pool2"
  pooling_param {
    pool: MAX
    kernel_size: 3
    stride: 2
  }
}
layer {
  name: "conv3"
  type: "Convolution"
  bottom: "pool2"
  top: "conv3"
  param {
    lr_mult: 1
    decay_mult: 1
  }
  param {
    lr_mult: 2
    decay_mult: 0
  }
  convolution_param {
    num_output: 384
    pad: 1
    kernel_size: 3
    weight_filler {
      type: "gaussian"
      std: 0.01
    }
    bias_filler {
      type: "constant"
      value: 0
    }
  }
}
layer {
  name: "relu3"
  type: "ReLU"
  bottom: "conv3"
  top: "conv3"
}
layer {
  name: "conv4"
  type: "Convolution"
  bottom: "conv3"
  top: "conv4"
  param {
    lr_mult: 1
    decay_mult: 1
  }
  param {
    lr_mult: 2
    decay_mult: 0
  }
  convolution_param {
    num_output: 384
    pad: 1
    kernel_size: 3
    group: 2
    weight_filler {
      type: "gaussian"
      std: 0.01
    }
    bias_filler {
      type: "constant"
      value: 0.1
    }
  }
}
layer {
  name: "relu4"
  type: "ReLU"
  bottom: "conv4"
  top: "conv4"
}
layer {
  name: "conv5"
  type: "Convolution"
  bottom: "conv4"
  top: "conv5"
  param {
    lr_mult: 1
    decay_mult: 1
  }
  param {
    lr_mult: 2
    decay_mult: 0
  }
  convolution_param {
    num_output: 256
    pad: 1
    kernel_size: 3
    group: 2
    weight_filler {
      type: "gaussian"
      std: 0.01
    }
    bias_filler {
      type: "constant"
      value: 0.1
    }
  }
}
layer {
  name: "relu5"
  type: "ReLU"
  bottom: "conv5"
  top: "conv5"
}
layer {
  name: "pool5"
  type: "Pooling"
  bottom: "conv5"
  top: "pool5"
  pooling_param {
    pool: MAX
    kernel_size: 3
    stride: 2
  }
}
layer {
  name: "fc6"
  type: "InnerProduct"
  bottom: "pool5"
  top: "fc6"
  param {
    lr_mult: 1
    decay_mult: 1
  }
  param {
    lr_mult: 2
    decay_mult: 0
  }
  inner_product_param {
    num_output: 4096
    weight_filler {
      type: "gaussian"
      std: 0.005
    }
    bias_filler {
      type: "constant"
      value: 0.1
    }
  }
}
layer {
  name: "relu6"
  type: "ReLU"
  bottom: "fc6"
  top: "fc6"
}
layer {
  name: "drop6"
  type: "Dropout"
  bottom: "fc6"
  top: "fc6"
  dropout_param {
    dropout_ratio: 0.5
  }
}
layer {
  name: "fc7"
  type: "InnerProduct"
  bottom: "fc6"
  top: "fc7"
  param {
    lr_mult: 1
    decay_mult: 1
  }
  param {
    lr_mult: 2
    decay_mult: 0
  }
  inner_product_param {
    num_output: 4096
    weight_filler {
      type: "gaussian"
      std: 0.005
    }
    bias_filler {
      type: "constant"
      value: 0.1
    }
  }
}
layer {
  name: "relu7"
  type: "ReLU"
  bottom: "fc7"
  top: "fc7"
}
layer {
  name: "drop7"
  type: "Dropout"
  bottom: "fc7"
  top: "fc7"
  dropout_param {
    dropout_ratio: 0.5
  }
}
layer {
  name: "fc8_plantvillage"
  type: "InnerProduct"
  bottom: "fc7"
  top: "fc8_plantvillage"
  param {
    lr_mult: 1
    decay_mult: 1
  }
  param {
    lr_mult: 2
    decay_mult: 0
  }
  inner_product_param {
    num_output: 38
    weight_filler {
      type: "gaussian"
      std: 0.01
    }
    bias_filler {
      type: "constant"
      value: 0
    }
  }
}
layer {
  name: "prob"
  type: "Softmax"
  bottom: "fc8_plantvillage"
  top: "prob"
  include {
    phase: TEST
  }
}
layer {
  name: "hdf5out"
  type: "HDF5Output"
  bottom: "prob"
  bottom: "label"
  include {
    phase: TEST
  }
  hdf5_output_param {
    file_name: "hdf5_dumps/iter_2136.h5"
  }
}
layer {
  name: "loss"
  type: "SoftmaxWithLoss"
  bottom: "fc8_plantvillage"
  bottom: "label"
  top: "loss"
}
layer {
  name: "accuracy"
  type: "Accuracy"
  bottom: "fc8_plantvillage"
  bottom: "label"
  top: "accuracy"
  include {
    phase: TEST
  }
}
I0403 12:54:40.258909  9862 layer_factory.hpp:77] Creating layer data
I0403 12:54:40.259580  9862 net.cpp:91] Creating Layer data
I0403 12:54:40.259613  9862 net.cpp:399] data -> data
I0403 12:54:40.259665  9862 net.cpp:399] data -> label
I0403 12:54:40.259701  9862 data_transformer.cpp:25] Loading mean file from: /home/mohanty/data/final_dataset/lmdb/grayscale-50-50/mean.binaryproto
I0403 12:54:40.260838  9865 db_lmdb.cpp:38] Opened lmdb /home/mohanty/data/final_dataset/lmdb/grayscale-50-50/test_db
I0403 12:54:40.274215  9862 data_layer.cpp:41] output data size: 100,3,227,227
I0403 12:54:40.391391  9862 net.cpp:141] Setting up data
I0403 12:54:40.391486  9862 net.cpp:148] Top shape: 100 3 227 227 (15458700)
I0403 12:54:40.391508  9862 net.cpp:148] Top shape: 100 (100)
I0403 12:54:40.391523  9862 net.cpp:156] Memory required for data: 61835200
I0403 12:54:40.391556  9862 layer_factory.hpp:77] Creating layer label_data_1_split
I0403 12:54:40.391582  9862 net.cpp:91] Creating Layer label_data_1_split
I0403 12:54:40.391599  9862 net.cpp:425] label_data_1_split <- label
I0403 12:54:40.391631  9862 net.cpp:399] label_data_1_split -> label_data_1_split_0
I0403 12:54:40.391659  9862 net.cpp:399] label_data_1_split -> label_data_1_split_1
I0403 12:54:40.391679  9862 net.cpp:399] label_data_1_split -> label_data_1_split_2
I0403 12:54:40.391741  9862 net.cpp:141] Setting up label_data_1_split
I0403 12:54:40.391765  9862 net.cpp:148] Top shape: 100 (100)
I0403 12:54:40.391782  9862 net.cpp:148] Top shape: 100 (100)
I0403 12:54:40.391796  9862 net.cpp:148] Top shape: 100 (100)
I0403 12:54:40.391810  9862 net.cpp:156] Memory required for data: 61836400
I0403 12:54:40.391824  9862 layer_factory.hpp:77] Creating layer conv1
I0403 12:54:40.391856  9862 net.cpp:91] Creating Layer conv1
I0403 12:54:40.391875  9862 net.cpp:425] conv1 <- data
I0403 12:54:40.391893  9862 net.cpp:399] conv1 -> conv1
I0403 12:54:40.531445  9862 net.cpp:141] Setting up conv1
I0403 12:54:40.531519  9862 net.cpp:148] Top shape: 100 96 55 55 (29040000)
I0403 12:54:40.531540  9862 net.cpp:156] Memory required for data: 177996400
I0403 12:54:40.531574  9862 layer_factory.hpp:77] Creating layer relu1
I0403 12:54:40.531604  9862 net.cpp:91] Creating Layer relu1
I0403 12:54:40.531622  9862 net.cpp:425] relu1 <- conv1
I0403 12:54:40.531642  9862 net.cpp:386] relu1 -> conv1 (in-place)
I0403 12:54:40.531922  9862 net.cpp:141] Setting up relu1
I0403 12:54:40.531949  9862 net.cpp:148] Top shape: 100 96 55 55 (29040000)
I0403 12:54:40.532001  9862 net.cpp:156] Memory required for data: 294156400
I0403 12:54:40.532017  9862 layer_factory.hpp:77] Creating layer norm1
I0403 12:54:40.532047  9862 net.cpp:91] Creating Layer norm1
I0403 12:54:40.532065  9862 net.cpp:425] norm1 <- conv1
I0403 12:54:40.532086  9862 net.cpp:399] norm1 -> norm1
I0403 12:54:40.532421  9862 net.cpp:141] Setting up norm1
I0403 12:54:40.532449  9862 net.cpp:148] Top shape: 100 96 55 55 (29040000)
I0403 12:54:40.532464  9862 net.cpp:156] Memory required for data: 410316400
I0403 12:54:40.532480  9862 layer_factory.hpp:77] Creating layer pool1
I0403 12:54:40.532501  9862 net.cpp:91] Creating Layer pool1
I0403 12:54:40.532519  9862 net.cpp:425] pool1 <- norm1
I0403 12:54:40.532547  9862 net.cpp:399] pool1 -> pool1
I0403 12:54:40.532636  9862 net.cpp:141] Setting up pool1
I0403 12:54:40.532665  9862 net.cpp:148] Top shape: 100 96 27 27 (6998400)
I0403 12:54:40.532681  9862 net.cpp:156] Memory required for data: 438310000
I0403 12:54:40.532696  9862 layer_factory.hpp:77] Creating layer conv2
I0403 12:54:40.532724  9862 net.cpp:91] Creating Layer conv2
I0403 12:54:40.532742  9862 net.cpp:425] conv2 <- pool1
I0403 12:54:40.532762  9862 net.cpp:399] conv2 -> conv2
I0403 12:54:40.548975  9862 net.cpp:141] Setting up conv2
I0403 12:54:40.549031  9862 net.cpp:148] Top shape: 100 256 27 27 (18662400)
I0403 12:54:40.549079  9862 net.cpp:156] Memory required for data: 512959600
I0403 12:54:40.549109  9862 layer_factory.hpp:77] Creating layer relu2
I0403 12:54:40.549130  9862 net.cpp:91] Creating Layer relu2
I0403 12:54:40.549146  9862 net.cpp:425] relu2 <- conv2
I0403 12:54:40.549167  9862 net.cpp:386] relu2 -> conv2 (in-place)
I0403 12:54:40.549463  9862 net.cpp:141] Setting up relu2
I0403 12:54:40.549491  9862 net.cpp:148] Top shape: 100 256 27 27 (18662400)
I0403 12:54:40.549507  9862 net.cpp:156] Memory required for data: 587609200
I0403 12:54:40.549523  9862 layer_factory.hpp:77] Creating layer norm2
I0403 12:54:40.549552  9862 net.cpp:91] Creating Layer norm2
I0403 12:54:40.549571  9862 net.cpp:425] norm2 <- conv2
I0403 12:54:40.549589  9862 net.cpp:399] norm2 -> norm2
I0403 12:54:40.549800  9862 net.cpp:141] Setting up norm2
I0403 12:54:40.549828  9862 net.cpp:148] Top shape: 100 256 27 27 (18662400)
I0403 12:54:40.549842  9862 net.cpp:156] Memory required for data: 662258800
I0403 12:54:40.549856  9862 layer_factory.hpp:77] Creating layer pool2
I0403 12:54:40.549875  9862 net.cpp:91] Creating Layer pool2
I0403 12:54:40.549891  9862 net.cpp:425] pool2 <- norm2
I0403 12:54:40.549911  9862 net.cpp:399] pool2 -> pool2
I0403 12:54:40.549967  9862 net.cpp:141] Setting up pool2
I0403 12:54:40.549990  9862 net.cpp:148] Top shape: 100 256 13 13 (4326400)
I0403 12:54:40.550005  9862 net.cpp:156] Memory required for data: 679564400
I0403 12:54:40.550019  9862 layer_factory.hpp:77] Creating layer conv3
I0403 12:54:40.550050  9862 net.cpp:91] Creating Layer conv3
I0403 12:54:40.550067  9862 net.cpp:425] conv3 <- pool2
I0403 12:54:40.550086  9862 net.cpp:399] conv3 -> conv3
I0403 12:54:40.590162  9862 net.cpp:141] Setting up conv3
I0403 12:54:40.590206  9862 net.cpp:148] Top shape: 100 384 13 13 (6489600)
I0403 12:54:40.590224  9862 net.cpp:156] Memory required for data: 705522800
I0403 12:54:40.590250  9862 layer_factory.hpp:77] Creating layer relu3
I0403 12:54:40.590272  9862 net.cpp:91] Creating Layer relu3
I0403 12:54:40.590289  9862 net.cpp:425] relu3 <- conv3
I0403 12:54:40.590312  9862 net.cpp:386] relu3 -> conv3 (in-place)
I0403 12:54:40.590587  9862 net.cpp:141] Setting up relu3
I0403 12:54:40.590615  9862 net.cpp:148] Top shape: 100 384 13 13 (6489600)
I0403 12:54:40.590628  9862 net.cpp:156] Memory required for data: 731481200
I0403 12:54:40.590643  9862 layer_factory.hpp:77] Creating layer conv4
I0403 12:54:40.590667  9862 net.cpp:91] Creating Layer conv4
I0403 12:54:40.590684  9862 net.cpp:425] conv4 <- conv3
I0403 12:54:40.590704  9862 net.cpp:399] conv4 -> conv4
I0403 12:54:40.621820  9862 net.cpp:141] Setting up conv4
I0403 12:54:40.621891  9862 net.cpp:148] Top shape: 100 384 13 13 (6489600)
I0403 12:54:40.621942  9862 net.cpp:156] Memory required for data: 757439600
I0403 12:54:40.621963  9862 layer_factory.hpp:77] Creating layer relu4
I0403 12:54:40.621985  9862 net.cpp:91] Creating Layer relu4
I0403 12:54:40.622002  9862 net.cpp:425] relu4 <- conv4
I0403 12:54:40.622025  9862 net.cpp:386] relu4 -> conv4 (in-place)
I0403 12:54:40.622298  9862 net.cpp:141] Setting up relu4
I0403 12:54:40.622328  9862 net.cpp:148] Top shape: 100 384 13 13 (6489600)
I0403 12:54:40.622342  9862 net.cpp:156] Memory required for data: 783398000
I0403 12:54:40.622357  9862 layer_factory.hpp:77] Creating layer conv5
I0403 12:54:40.622382  9862 net.cpp:91] Creating Layer conv5
I0403 12:54:40.622400  9862 net.cpp:425] conv5 <- conv4
I0403 12:54:40.622417  9862 net.cpp:399] conv5 -> conv5
I0403 12:54:40.643889  9862 net.cpp:141] Setting up conv5
I0403 12:54:40.643945  9862 net.cpp:148] Top shape: 100 256 13 13 (4326400)
I0403 12:54:40.643962  9862 net.cpp:156] Memory required for data: 800703600
I0403 12:54:40.643987  9862 layer_factory.hpp:77] Creating layer relu5
I0403 12:54:40.644008  9862 net.cpp:91] Creating Layer relu5
I0403 12:54:40.644023  9862 net.cpp:425] relu5 <- conv5
I0403 12:54:40.644043  9862 net.cpp:386] relu5 -> conv5 (in-place)
I0403 12:54:40.644323  9862 net.cpp:141] Setting up relu5
I0403 12:54:40.644393  9862 net.cpp:148] Top shape: 100 256 13 13 (4326400)
I0403 12:54:40.644413  9862 net.cpp:156] Memory required for data: 818009200
I0403 12:54:40.644429  9862 layer_factory.hpp:77] Creating layer pool5
I0403 12:54:40.644454  9862 net.cpp:91] Creating Layer pool5
I0403 12:54:40.644470  9862 net.cpp:425] pool5 <- conv5
I0403 12:54:40.644490  9862 net.cpp:399] pool5 -> pool5
I0403 12:54:40.644564  9862 net.cpp:141] Setting up pool5
I0403 12:54:40.644589  9862 net.cpp:148] Top shape: 100 256 6 6 (921600)
I0403 12:54:40.644604  9862 net.cpp:156] Memory required for data: 821695600
I0403 12:54:40.644618  9862 layer_factory.hpp:77] Creating layer fc6
I0403 12:54:40.644645  9862 net.cpp:91] Creating Layer fc6
I0403 12:54:40.644662  9862 net.cpp:425] fc6 <- pool5
I0403 12:54:40.644683  9862 net.cpp:399] fc6 -> fc6
I0403 12:54:42.200011  9862 net.cpp:141] Setting up fc6
I0403 12:54:42.200053  9862 net.cpp:148] Top shape: 100 4096 (409600)
I0403 12:54:42.200068  9862 net.cpp:156] Memory required for data: 823334000
I0403 12:54:42.200088  9862 layer_factory.hpp:77] Creating layer relu6
I0403 12:54:42.200112  9862 net.cpp:91] Creating Layer relu6
I0403 12:54:42.200129  9862 net.cpp:425] relu6 <- fc6
I0403 12:54:42.200148  9862 net.cpp:386] relu6 -> fc6 (in-place)
I0403 12:54:42.200369  9862 net.cpp:141] Setting up relu6
I0403 12:54:42.200393  9862 net.cpp:148] Top shape: 100 4096 (409600)
I0403 12:54:42.200407  9862 net.cpp:156] Memory required for data: 824972400
I0403 12:54:42.200422  9862 layer_factory.hpp:77] Creating layer drop6
I0403 12:54:42.200438  9862 net.cpp:91] Creating Layer drop6
I0403 12:54:42.200453  9862 net.cpp:425] drop6 <- fc6
I0403 12:54:42.200472  9862 net.cpp:386] drop6 -> fc6 (in-place)
I0403 12:54:42.200521  9862 net.cpp:141] Setting up drop6
I0403 12:54:42.200551  9862 net.cpp:148] Top shape: 100 4096 (409600)
I0403 12:54:42.200567  9862 net.cpp:156] Memory required for data: 826610800
I0403 12:54:42.200580  9862 layer_factory.hpp:77] Creating layer fc7
I0403 12:54:42.200599  9862 net.cpp:91] Creating Layer fc7
I0403 12:54:42.200614  9862 net.cpp:425] fc7 <- fc6
I0403 12:54:42.200634  9862 net.cpp:399] fc7 -> fc7
I0403 12:54:42.893651  9862 net.cpp:141] Setting up fc7
I0403 12:54:42.893728  9862 net.cpp:148] Top shape: 100 4096 (409600)
I0403 12:54:42.893743  9862 net.cpp:156] Memory required for data: 828249200
I0403 12:54:42.893764  9862 layer_factory.hpp:77] Creating layer relu7
I0403 12:54:42.893787  9862 net.cpp:91] Creating Layer relu7
I0403 12:54:42.893805  9862 net.cpp:425] relu7 <- fc7
I0403 12:54:42.893828  9862 net.cpp:386] relu7 -> fc7 (in-place)
I0403 12:54:42.894248  9862 net.cpp:141] Setting up relu7
I0403 12:54:42.894279  9862 net.cpp:148] Top shape: 100 4096 (409600)
I0403 12:54:42.894333  9862 net.cpp:156] Memory required for data: 829887600
I0403 12:54:42.894351  9862 layer_factory.hpp:77] Creating layer drop7
I0403 12:54:42.894369  9862 net.cpp:91] Creating Layer drop7
I0403 12:54:42.894386  9862 net.cpp:425] drop7 <- fc7
I0403 12:54:42.894405  9862 net.cpp:386] drop7 -> fc7 (in-place)
I0403 12:54:42.894450  9862 net.cpp:141] Setting up drop7
I0403 12:54:42.894474  9862 net.cpp:148] Top shape: 100 4096 (409600)
I0403 12:54:42.894489  9862 net.cpp:156] Memory required for data: 831526000
I0403 12:54:42.894505  9862 layer_factory.hpp:77] Creating layer fc8_plantvillage
I0403 12:54:42.894527  9862 net.cpp:91] Creating Layer fc8_plantvillage
I0403 12:54:42.894559  9862 net.cpp:425] fc8_plantvillage <- fc7
I0403 12:54:42.894583  9862 net.cpp:399] fc8_plantvillage -> fc8_plantvillage
I0403 12:54:42.901753  9862 net.cpp:141] Setting up fc8_plantvillage
I0403 12:54:42.901784  9862 net.cpp:148] Top shape: 100 38 (3800)
I0403 12:54:42.901800  9862 net.cpp:156] Memory required for data: 831541200
I0403 12:54:42.901818  9862 layer_factory.hpp:77] Creating layer fc8_plantvillage_fc8_plantvillage_0_split
I0403 12:54:42.901839  9862 net.cpp:91] Creating Layer fc8_plantvillage_fc8_plantvillage_0_split
I0403 12:54:42.901854  9862 net.cpp:425] fc8_plantvillage_fc8_plantvillage_0_split <- fc8_plantvillage
I0403 12:54:42.901873  9862 net.cpp:399] fc8_plantvillage_fc8_plantvillage_0_split -> fc8_plantvillage_fc8_plantvillage_0_split_0
I0403 12:54:42.901895  9862 net.cpp:399] fc8_plantvillage_fc8_plantvillage_0_split -> fc8_plantvillage_fc8_plantvillage_0_split_1
I0403 12:54:42.901916  9862 net.cpp:399] fc8_plantvillage_fc8_plantvillage_0_split -> fc8_plantvillage_fc8_plantvillage_0_split_2
I0403 12:54:42.901995  9862 net.cpp:141] Setting up fc8_plantvillage_fc8_plantvillage_0_split
I0403 12:54:42.902020  9862 net.cpp:148] Top shape: 100 38 (3800)
I0403 12:54:42.902037  9862 net.cpp:148] Top shape: 100 38 (3800)
I0403 12:54:42.902055  9862 net.cpp:148] Top shape: 100 38 (3800)
I0403 12:54:42.902068  9862 net.cpp:156] Memory required for data: 831586800
I0403 12:54:42.902082  9862 layer_factory.hpp:77] Creating layer prob
I0403 12:54:42.902101  9862 net.cpp:91] Creating Layer prob
I0403 12:54:42.902117  9862 net.cpp:425] prob <- fc8_plantvillage_fc8_plantvillage_0_split_0
I0403 12:54:42.902138  9862 net.cpp:399] prob -> prob
I0403 12:54:42.902379  9862 net.cpp:141] Setting up prob
I0403 12:54:42.902410  9862 net.cpp:148] Top shape: 100 38 (3800)
I0403 12:54:42.902426  9862 net.cpp:156] Memory required for data: 831602000
I0403 12:54:42.902439  9862 layer_factory.hpp:77] Creating layer hdf5out
I0403 12:54:42.902458  9862 net.cpp:91] Creating Layer hdf5out
I0403 12:54:42.902474  9862 net.cpp:425] hdf5out <- prob
I0403 12:54:42.902500  9862 net.cpp:425] hdf5out <- label_data_1_split_0
I0403 12:54:42.904655  9862 net.cpp:141] Setting up hdf5out
…
