…
I0403 12:56:36.228760  9914 net.cpp:313] The NetState phase (1) differed from the phase (0) specified by a rule in layer data
I0403 12:56:36.229100  9914 net.cpp:49] Initializing net from parameters: 
state {
  phase: TEST
}
layer {
  name: "data"
  type: "Data"
  top: "data"
  top: "label"
  include {
    phase: TEST
  }
  transform_param {
    crop_size: 227
    mean_file: "/home/mohanty/data/final_dataset/lmdb/grayscale-50-50/mean.binaryproto"
  }
  data_param {
    source: "/home/mohanty/data/final_dataset/lmdb/grayscale-50-50/test_db"
    batch_size: 100
    backend: LMDB
  }
}
layer {
  name: "conv1"
  type: "Convolution"
  bottom: "data"
  top: "conv1"
  param {
    lr_mult: 1
    decay_mult: 1
  }
  param {
    lr_mult: 2
    decay_mult: 0
  }
  convolution_param {
    num_output: 96
    kernel_size: 11
    stride: 4
    weight_filler {
      type: "gaussian"
      std: 0.01
    }
    bias_filler {
      type: "constant"
      value: 0
    }
  }
}
layer {
  name: "relu1"
  type: "ReLU"
  bottom: "conv1"
  top: "conv1"
}
layer {
  name: "norm1"
  type: "LRN"
  bottom: "conv1"
  top: "norm1"
  lrn_param {
    local_size: 5
    alpha: 0.0001
    beta: 0.75
  }
}
layer {
  name: "pool1"
  type: "Pooling"
  bottom: "norm1"
  top: "pool1"
  pooling_param {
    pool: MAX
    kernel_size: 3
    stride: 2
  }
}
layer {
  name: "conv2"
  type: "Convolution"
  bottom: "pool1"
  top: "conv2"
  param {
    lr_mult: 1
    decay_mult: 1
  }
  param {
    lr_mult: 2
    decay_mult: 0
  }
  convolution_param {
    num_output: 256
    pad: 2
    kernel_size: 5
    group: 2
    weight_filler {
      type: "gaussian"
      std: 0.01
    }
    bias_filler {
      type: "constant"
      value: 0.1
    }
  }
}
layer {
  name: "relu2"
  type: "ReLU"
  bottom: "conv2"
  top: "conv2"
}
layer {
  name: "norm2"
  type: "LRN"
  bottom: "conv2"
  top: "norm2"
  lrn_param {
    local_size: 5
    alpha: 0.0001
    beta: 0.75
  }
}
layer {
  name: "pool2"
  type: "Pooling"
  bottom: "norm2"
  top: "pool2"
  pooling_param {
    pool: MAX
    kernel_size: 3
    stride: 2
  }
}
layer {
  name: "conv3"
  type: "Convolution"
  bottom: "pool2"
  top: "conv3"
  param {
    lr_mult: 1
    decay_mult: 1
  }
  param {
    lr_mult: 2
    decay_mult: 0
  }
  convolution_param {
    num_output: 384
    pad: 1
    kernel_size: 3
    weight_filler {
      type: "gaussian"
      std: 0.01
    }
    bias_filler {
      type: "constant"
      value: 0
    }
  }
}
layer {
  name: "relu3"
  type: "ReLU"
  bottom: "conv3"
  top: "conv3"
}
layer {
  name: "conv4"
  type: "Convolution"
  bottom: "conv3"
  top: "conv4"
  param {
    lr_mult: 1
    decay_mult: 1
  }
  param {
    lr_mult: 2
    decay_mult: 0
  }
  convolution_param {
    num_output: 384
    pad: 1
    kernel_size: 3
    group: 2
    weight_filler {
      type: "gaussian"
      std: 0.01
    }
    bias_filler {
      type: "constant"
      value: 0.1
    }
  }
}
layer {
  name: "relu4"
  type: "ReLU"
  bottom: "conv4"
  top: "conv4"
}
layer {
  name: "conv5"
  type: "Convolution"
  bottom: "conv4"
  top: "conv5"
  param {
    lr_mult: 1
    decay_mult: 1
  }
  param {
    lr_mult: 2
    decay_mult: 0
  }
  convolution_param {
    num_output: 256
    pad: 1
    kernel_size: 3
    group: 2
    weight_filler {
      type: "gaussian"
      std: 0.01
    }
    bias_filler {
      type: "constant"
      value: 0.1
    }
  }
}
layer {
  name: "relu5"
  type: "ReLU"
  bottom: "conv5"
  top: "conv5"
}
layer {
  name: "pool5"
  type: "Pooling"
  bottom: "conv5"
  top: "pool5"
  pooling_param {
    pool: MAX
    kernel_size: 3
    stride: 2
  }
}
layer {
  name: "fc6"
  type: "InnerProduct"
  bottom: "pool5"
  top: "fc6"
  param {
    lr_mult: 1
    decay_mult: 1
  }
  param {
    lr_mult: 2
    decay_mult: 0
  }
  inner_product_param {
    num_output: 4096
    weight_filler {
      type: "gaussian"
      std: 0.005
    }
    bias_filler {
      type: "constant"
      value: 0.1
    }
  }
}
layer {
  name: "relu6"
  type: "ReLU"
  bottom: "fc6"
  top: "fc6"
}
layer {
  name: "drop6"
  type: "Dropout"
  bottom: "fc6"
  top: "fc6"
  dropout_param {
    dropout_ratio: 0.5
  }
}
layer {
  name: "fc7"
  type: "InnerProduct"
  bottom: "fc6"
  top: "fc7"
  param {
    lr_mult: 1
    decay_mult: 1
  }
  param {
    lr_mult: 2
    decay_mult: 0
  }
  inner_product_param {
    num_output: 4096
    weight_filler {
      type: "gaussian"
      std: 0.005
    }
    bias_filler {
      type: "constant"
      value: 0.1
    }
  }
}
layer {
  name: "relu7"
  type: "ReLU"
  bottom: "fc7"
  top: "fc7"
}
layer {
  name: "drop7"
  type: "Dropout"
  bottom: "fc7"
  top: "fc7"
  dropout_param {
    dropout_ratio: 0.5
  }
}
layer {
  name: "fc8_plantvillage"
  type: "InnerProduct"
  bottom: "fc7"
  top: "fc8_plantvillage"
  param {
    lr_mult: 1
    decay_mult: 1
  }
  param {
    lr_mult: 2
    decay_mult: 0
  }
  inner_product_param {
    num_output: 38
    weight_filler {
      type: "gaussian"
      std: 0.01
    }
    bias_filler {
      type: "constant"
      value: 0
    }
  }
}
layer {
  name: "prob"
  type: "Softmax"
  bottom: "fc8_plantvillage"
  top: "prob"
  include {
    phase: TEST
  }
}
layer {
  name: "hdf5out"
  type: "HDF5Output"
  bottom: "prob"
  bottom: "label"
  include {
    phase: TEST
  }
  hdf5_output_param {
    file_name: "hdf5_dumps/iter_2670.h5"
  }
}
layer {
  name: "loss"
  type: "SoftmaxWithLoss"
  bottom: "fc8_plantvillage"
  bottom: "label"
  top: "loss"
}
layer {
  name: "accuracy"
  type: "Accuracy"
  bottom: "fc8_plantvillage"
  bottom: "label"
  top: "accuracy"
  include {
    phase: TEST
  }
}
I0403 12:56:36.229701  9914 layer_factory.hpp:77] Creating layer data
I0403 12:56:36.230393  9914 net.cpp:91] Creating Layer data
I0403 12:56:36.230424  9914 net.cpp:399] data -> data
I0403 12:56:36.230478  9914 net.cpp:399] data -> label
I0403 12:56:36.230521  9914 data_transformer.cpp:25] Loading mean file from: /home/mohanty/data/final_dataset/lmdb/grayscale-50-50/mean.binaryproto
I0403 12:56:36.231732  9917 db_lmdb.cpp:38] Opened lmdb /home/mohanty/data/final_dataset/lmdb/grayscale-50-50/test_db
I0403 12:56:36.252993  9914 data_layer.cpp:41] output data size: 100,3,227,227
I0403 12:56:36.378211  9914 net.cpp:141] Setting up data
I0403 12:56:36.378303  9914 net.cpp:148] Top shape: 100 3 227 227 (15458700)
I0403 12:56:36.378327  9914 net.cpp:148] Top shape: 100 (100)
I0403 12:56:36.378345  9914 net.cpp:156] Memory required for data: 61835200
I0403 12:56:36.378376  9914 layer_factory.hpp:77] Creating layer label_data_1_split
I0403 12:56:36.378404  9914 net.cpp:91] Creating Layer label_data_1_split
I0403 12:56:36.378424  9914 net.cpp:425] label_data_1_split <- label
I0403 12:56:36.378459  9914 net.cpp:399] label_data_1_split -> label_data_1_split_0
I0403 12:56:36.378489  9914 net.cpp:399] label_data_1_split -> label_data_1_split_1
I0403 12:56:36.378520  9914 net.cpp:399] label_data_1_split -> label_data_1_split_2
I0403 12:56:36.378594  9914 net.cpp:141] Setting up label_data_1_split
I0403 12:56:36.378619  9914 net.cpp:148] Top shape: 100 (100)
I0403 12:56:36.378636  9914 net.cpp:148] Top shape: 100 (100)
I0403 12:56:36.378654  9914 net.cpp:148] Top shape: 100 (100)
I0403 12:56:36.378669  9914 net.cpp:156] Memory required for data: 61836400
I0403 12:56:36.378686  9914 layer_factory.hpp:77] Creating layer conv1
I0403 12:56:36.378720  9914 net.cpp:91] Creating Layer conv1
I0403 12:56:36.378741  9914 net.cpp:425] conv1 <- data
I0403 12:56:36.378762  9914 net.cpp:399] conv1 -> conv1
I0403 12:56:36.529487  9914 net.cpp:141] Setting up conv1
I0403 12:56:36.529561  9914 net.cpp:148] Top shape: 100 96 55 55 (29040000)
I0403 12:56:36.529579  9914 net.cpp:156] Memory required for data: 177996400
I0403 12:56:36.529613  9914 layer_factory.hpp:77] Creating layer relu1
I0403 12:56:36.529642  9914 net.cpp:91] Creating Layer relu1
I0403 12:56:36.529662  9914 net.cpp:425] relu1 <- conv1
I0403 12:56:36.529683  9914 net.cpp:386] relu1 -> conv1 (in-place)
I0403 12:56:36.529953  9914 net.cpp:141] Setting up relu1
I0403 12:56:36.529983  9914 net.cpp:148] Top shape: 100 96 55 55 (29040000)
I0403 12:56:36.530040  9914 net.cpp:156] Memory required for data: 294156400
I0403 12:56:36.530279  9914 layer_factory.hpp:77] Creating layer norm1
I0403 12:56:36.530318  9914 net.cpp:91] Creating Layer norm1
I0403 12:56:36.530339  9914 net.cpp:425] norm1 <- conv1
I0403 12:56:36.530360  9914 net.cpp:399] norm1 -> norm1
I0403 12:56:36.530719  9914 net.cpp:141] Setting up norm1
I0403 12:56:36.530748  9914 net.cpp:148] Top shape: 100 96 55 55 (29040000)
I0403 12:56:36.530766  9914 net.cpp:156] Memory required for data: 410316400
I0403 12:56:36.530782  9914 layer_factory.hpp:77] Creating layer pool1
I0403 12:56:36.530808  9914 net.cpp:91] Creating Layer pool1
I0403 12:56:36.530827  9914 net.cpp:425] pool1 <- norm1
I0403 12:56:36.530848  9914 net.cpp:399] pool1 -> pool1
I0403 12:56:36.530918  9914 net.cpp:141] Setting up pool1
I0403 12:56:36.530944  9914 net.cpp:148] Top shape: 100 96 27 27 (6998400)
I0403 12:56:36.530961  9914 net.cpp:156] Memory required for data: 438310000
I0403 12:56:36.530977  9914 layer_factory.hpp:77] Creating layer conv2
I0403 12:56:36.531003  9914 net.cpp:91] Creating Layer conv2
I0403 12:56:36.531021  9914 net.cpp:425] conv2 <- pool1
I0403 12:56:36.531043  9914 net.cpp:399] conv2 -> conv2
I0403 12:56:36.546584  9914 net.cpp:141] Setting up conv2
I0403 12:56:36.546646  9914 net.cpp:148] Top shape: 100 256 27 27 (18662400)
I0403 12:56:36.546665  9914 net.cpp:156] Memory required for data: 512959600
I0403 12:56:36.546694  9914 layer_factory.hpp:77] Creating layer relu2
I0403 12:56:36.546717  9914 net.cpp:91] Creating Layer relu2
I0403 12:56:36.546736  9914 net.cpp:425] relu2 <- conv2
I0403 12:56:36.546758  9914 net.cpp:386] relu2 -> conv2 (in-place)
I0403 12:56:36.547041  9914 net.cpp:141] Setting up relu2
I0403 12:56:36.547071  9914 net.cpp:148] Top shape: 100 256 27 27 (18662400)
I0403 12:56:36.547087  9914 net.cpp:156] Memory required for data: 587609200
I0403 12:56:36.547104  9914 layer_factory.hpp:77] Creating layer norm2
I0403 12:56:36.547130  9914 net.cpp:91] Creating Layer norm2
I0403 12:56:36.547147  9914 net.cpp:425] norm2 <- conv2
I0403 12:56:36.547168  9914 net.cpp:399] norm2 -> norm2
I0403 12:56:36.547363  9914 net.cpp:141] Setting up norm2
I0403 12:56:36.547391  9914 net.cpp:148] Top shape: 100 256 27 27 (18662400)
I0403 12:56:36.547407  9914 net.cpp:156] Memory required for data: 662258800
I0403 12:56:36.547425  9914 layer_factory.hpp:77] Creating layer pool2
I0403 12:56:36.547447  9914 net.cpp:91] Creating Layer pool2
I0403 12:56:36.547466  9914 net.cpp:425] pool2 <- norm2
I0403 12:56:36.547485  9914 net.cpp:399] pool2 -> pool2
I0403 12:56:36.547546  9914 net.cpp:141] Setting up pool2
I0403 12:56:36.547571  9914 net.cpp:148] Top shape: 100 256 13 13 (4326400)
I0403 12:56:36.547590  9914 net.cpp:156] Memory required for data: 679564400
I0403 12:56:36.547605  9914 layer_factory.hpp:77] Creating layer conv3
I0403 12:56:36.547631  9914 net.cpp:91] Creating Layer conv3
I0403 12:56:36.547649  9914 net.cpp:425] conv3 <- pool2
I0403 12:56:36.547670  9914 net.cpp:399] conv3 -> conv3
I0403 12:56:36.589607  9914 net.cpp:141] Setting up conv3
I0403 12:56:36.589674  9914 net.cpp:148] Top shape: 100 384 13 13 (6489600)
I0403 12:56:36.589694  9914 net.cpp:156] Memory required for data: 705522800
I0403 12:56:36.589723  9914 layer_factory.hpp:77] Creating layer relu3
I0403 12:56:36.589751  9914 net.cpp:91] Creating Layer relu3
I0403 12:56:36.589771  9914 net.cpp:425] relu3 <- conv3
I0403 12:56:36.589792  9914 net.cpp:386] relu3 -> conv3 (in-place)
I0403 12:56:36.590085  9914 net.cpp:141] Setting up relu3
I0403 12:56:36.590116  9914 net.cpp:148] Top shape: 100 384 13 13 (6489600)
I0403 12:56:36.590136  9914 net.cpp:156] Memory required for data: 731481200
I0403 12:56:36.590152  9914 layer_factory.hpp:77] Creating layer conv4
I0403 12:56:36.590183  9914 net.cpp:91] Creating Layer conv4
I0403 12:56:36.590201  9914 net.cpp:425] conv4 <- conv3
I0403 12:56:36.590221  9914 net.cpp:399] conv4 -> conv4
I0403 12:56:36.621078  9914 net.cpp:141] Setting up conv4
I0403 12:56:36.621142  9914 net.cpp:148] Top shape: 100 384 13 13 (6489600)
I0403 12:56:36.621188  9914 net.cpp:156] Memory required for data: 757439600
I0403 12:56:36.621212  9914 layer_factory.hpp:77] Creating layer relu4
I0403 12:56:36.621240  9914 net.cpp:91] Creating Layer relu4
I0403 12:56:36.621263  9914 net.cpp:425] relu4 <- conv4
I0403 12:56:36.621284  9914 net.cpp:386] relu4 -> conv4 (in-place)
I0403 12:56:36.621587  9914 net.cpp:141] Setting up relu4
I0403 12:56:36.621618  9914 net.cpp:148] Top shape: 100 384 13 13 (6489600)
I0403 12:56:36.621635  9914 net.cpp:156] Memory required for data: 783398000
I0403 12:56:36.621651  9914 layer_factory.hpp:77] Creating layer conv5
I0403 12:56:36.621680  9914 net.cpp:91] Creating Layer conv5
I0403 12:56:36.621701  9914 net.cpp:425] conv5 <- conv4
I0403 12:56:36.621726  9914 net.cpp:399] conv5 -> conv5
I0403 12:56:36.643401  9914 net.cpp:141] Setting up conv5
I0403 12:56:36.643488  9914 net.cpp:148] Top shape: 100 256 13 13 (4326400)
I0403 12:56:36.643512  9914 net.cpp:156] Memory required for data: 800703600
I0403 12:56:36.643546  9914 layer_factory.hpp:77] Creating layer relu5
I0403 12:56:36.643573  9914 net.cpp:91] Creating Layer relu5
I0403 12:56:36.643591  9914 net.cpp:425] relu5 <- conv5
I0403 12:56:36.643612  9914 net.cpp:386] relu5 -> conv5 (in-place)
I0403 12:56:36.643906  9914 net.cpp:141] Setting up relu5
I0403 12:56:36.643937  9914 net.cpp:148] Top shape: 100 256 13 13 (4326400)
I0403 12:56:36.643954  9914 net.cpp:156] Memory required for data: 818009200
I0403 12:56:36.643970  9914 layer_factory.hpp:77] Creating layer pool5
I0403 12:56:36.643993  9914 net.cpp:91] Creating Layer pool5
I0403 12:56:36.644011  9914 net.cpp:425] pool5 <- conv5
I0403 12:56:36.644035  9914 net.cpp:399] pool5 -> pool5
I0403 12:56:36.644105  9914 net.cpp:141] Setting up pool5
I0403 12:56:36.644130  9914 net.cpp:148] Top shape: 100 256 6 6 (921600)
I0403 12:56:36.644146  9914 net.cpp:156] Memory required for data: 821695600
I0403 12:56:36.644161  9914 layer_factory.hpp:77] Creating layer fc6
I0403 12:56:36.644193  9914 net.cpp:91] Creating Layer fc6
I0403 12:56:36.644212  9914 net.cpp:425] fc6 <- pool5
I0403 12:56:36.644235  9914 net.cpp:399] fc6 -> fc6
I0403 12:56:38.217612  9914 net.cpp:141] Setting up fc6
I0403 12:56:38.217674  9914 net.cpp:148] Top shape: 100 4096 (409600)
I0403 12:56:38.217690  9914 net.cpp:156] Memory required for data: 823334000
I0403 12:56:38.217710  9914 layer_factory.hpp:77] Creating layer relu6
I0403 12:56:38.217735  9914 net.cpp:91] Creating Layer relu6
I0403 12:56:38.217752  9914 net.cpp:425] relu6 <- fc6
I0403 12:56:38.217772  9914 net.cpp:386] relu6 -> fc6 (in-place)
I0403 12:56:38.217991  9914 net.cpp:141] Setting up relu6
I0403 12:56:38.218019  9914 net.cpp:148] Top shape: 100 4096 (409600)
I0403 12:56:38.218034  9914 net.cpp:156] Memory required for data: 824972400
I0403 12:56:38.218047  9914 layer_factory.hpp:77] Creating layer drop6
I0403 12:56:38.218065  9914 net.cpp:91] Creating Layer drop6
I0403 12:56:38.218080  9914 net.cpp:425] drop6 <- fc6
I0403 12:56:38.218096  9914 net.cpp:386] drop6 -> fc6 (in-place)
I0403 12:56:38.218159  9914 net.cpp:141] Setting up drop6
I0403 12:56:38.218184  9914 net.cpp:148] Top shape: 100 4096 (409600)
I0403 12:56:38.218199  9914 net.cpp:156] Memory required for data: 826610800
I0403 12:56:38.218212  9914 layer_factory.hpp:77] Creating layer fc7
I0403 12:56:38.218235  9914 net.cpp:91] Creating Layer fc7
I0403 12:56:38.218252  9914 net.cpp:425] fc7 <- fc6
I0403 12:56:38.218271  9914 net.cpp:399] fc7 -> fc7
I0403 12:56:38.902041  9914 net.cpp:141] Setting up fc7
I0403 12:56:38.902122  9914 net.cpp:148] Top shape: 100 4096 (409600)
I0403 12:56:38.902137  9914 net.cpp:156] Memory required for data: 828249200
I0403 12:56:38.902158  9914 layer_factory.hpp:77] Creating layer relu7
I0403 12:56:38.902184  9914 net.cpp:91] Creating Layer relu7
I0403 12:56:38.902201  9914 net.cpp:425] relu7 <- fc7
I0403 12:56:38.902221  9914 net.cpp:386] relu7 -> fc7 (in-place)
I0403 12:56:38.902652  9914 net.cpp:141] Setting up relu7
I0403 12:56:38.902679  9914 net.cpp:148] Top shape: 100 4096 (409600)
I0403 12:56:38.902734  9914 net.cpp:156] Memory required for data: 829887600
I0403 12:56:38.902750  9914 layer_factory.hpp:77] Creating layer drop7
I0403 12:56:38.902770  9914 net.cpp:91] Creating Layer drop7
I0403 12:56:38.902786  9914 net.cpp:425] drop7 <- fc7
I0403 12:56:38.902803  9914 net.cpp:386] drop7 -> fc7 (in-place)
I0403 12:56:38.902848  9914 net.cpp:141] Setting up drop7
I0403 12:56:38.902880  9914 net.cpp:148] Top shape: 100 4096 (409600)
I0403 12:56:38.902894  9914 net.cpp:156] Memory required for data: 831526000
I0403 12:56:38.902909  9914 layer_factory.hpp:77] Creating layer fc8_plantvillage
I0403 12:56:38.902932  9914 net.cpp:91] Creating Layer fc8_plantvillage
I0403 12:56:38.902950  9914 net.cpp:425] fc8_plantvillage <- fc7
I0403 12:56:38.902967  9914 net.cpp:399] fc8_plantvillage -> fc8_plantvillage
I0403 12:56:38.909698  9914 net.cpp:141] Setting up fc8_plantvillage
I0403 12:56:38.909725  9914 net.cpp:148] Top shape: 100 38 (3800)
I0403 12:56:38.909741  9914 net.cpp:156] Memory required for data: 831541200
I0403 12:56:38.909759  9914 layer_factory.hpp:77] Creating layer fc8_plantvillage_fc8_plantvillage_0_split
I0403 12:56:38.909777  9914 net.cpp:91] Creating Layer fc8_plantvillage_fc8_plantvillage_0_split
I0403 12:56:38.909792  9914 net.cpp:425] fc8_plantvillage_fc8_plantvillage_0_split <- fc8_plantvillage
I0403 12:56:38.909809  9914 net.cpp:399] fc8_plantvillage_fc8_plantvillage_0_split -> fc8_plantvillage_fc8_plantvillage_0_split_0
I0403 12:56:38.909832  9914 net.cpp:399] fc8_plantvillage_fc8_plantvillage_0_split -> fc8_plantvillage_fc8_plantvillage_0_split_1
I0403 12:56:38.909853  9914 net.cpp:399] fc8_plantvillage_fc8_plantvillage_0_split -> fc8_plantvillage_fc8_plantvillage_0_split_2
I0403 12:56:38.909934  9914 net.cpp:141] Setting up fc8_plantvillage_fc8_plantvillage_0_split
I0403 12:56:38.909957  9914 net.cpp:148] Top shape: 100 38 (3800)
I0403 12:56:38.909972  9914 net.cpp:148] Top shape: 100 38 (3800)
I0403 12:56:38.909987  9914 net.cpp:148] Top shape: 100 38 (3800)
I0403 12:56:38.910001  9914 net.cpp:156] Memory required for data: 831586800
I0403 12:56:38.910017  9914 layer_factory.hpp:77] Creating layer prob
I0403 12:56:38.910035  9914 net.cpp:91] Creating Layer prob
I0403 12:56:38.910050  9914 net.cpp:425] prob <- fc8_plantvillage_fc8_plantvillage_0_split_0
I0403 12:56:38.910068  9914 net.cpp:399] prob -> prob
I0403 12:56:38.910291  9914 net.cpp:141] Setting up prob
I0403 12:56:38.910316  9914 net.cpp:148] Top shape: 100 38 (3800)
I0403 12:56:38.910331  9914 net.cpp:156] Memory required for data: 831602000
I0403 12:56:38.910346  9914 layer_factory.hpp:77] Creating layer hdf5out
I0403 12:56:38.910367  9914 net.cpp:91] Creating Layer hdf5out
I0403 12:56:38.910382  9914 net.cpp:425] hdf5out <- prob
I0403 12:56:38.910398  9914 net.cpp:425] hdf5out <- label_data_1_split_0
I0403 12:56:38.912945  9914 net.cpp:141] Setting up hdf5out
…
